…
I0504 00:38:51.646158  5867 net.cpp:296] The NetState phase (0) differed from the phase (1) specified by a rule in layer cifar
I0504 00:38:51.646173  5867 net.cpp:296] The NetState phase (0) differed from the phase (1) specified by a rule in layer accuracy
I0504 00:38:51.646255  5867 net.cpp:53] Initializing net from parameters: 
name: "CIFAR"
state {
  phase: TRAIN
  level: 0
  stage: ""
}
layer {
  name: "cifar"
  type: "Data"
  top: "data"
  top: "label"
  include {
    phase: TRAIN
  }
  transform_param {
    mean_file: "examples/cifar10/mean.binaryproto"
  }
  data_param {
    source: "examples/cifar10/cifar10_train_lmdb"
    batch_size: 111
    backend: LMDB
  }
}
layer {
  name: "conv0"
  type: "Convolution"
  bottom: "data"
  top: "conv0"
  param {
    lr_mult: 1
  }
  param {
    lr_mult: 2
  }
  convolution_param {
    num_output: 72
    pad: 2
    kernel_size: 3
    stride: 1
    weight_filler {
      type: "gaussian"
      std: 0.01
    }
    bias_filler {
      type: "constant"
    }
  }
}
layer {
  name: "Sigmoid0"
  type: "Sigmoid"
  bottom: "conv0"
  top: "Sigmoid0"
}
layer {
  name: "pool0"
  type: "Pooling"
  bottom: "Sigmoid0"
  top: "pool0"
  pooling_param {
    pool: AVE
    kernel_size: 3
    stride: 2
  }
}
layer {
  name: "ip1"
  type: "InnerProduct"
  bottom: "pool0"
  top: "ip1"
  param {
    lr_mult: 1
  }
  param {
    lr_mult: 2
  }
  inner_product_param {
    num_output: 10
    weight_filler {
      type: "gaussian"
      std: 0.01
    }
    bias_filler {
      type: "constant"
    }
  }
}
layer {
  name: "relu1"
  type: "ReLU"
  bottom: "ip1"
  top: "ip1"
}
layer {
  name: "ip2"
  type: "InnerProduct"
  bottom: "ip1"
  top: "ip2"
  param {
    lr_mult: 1
  }
  param {
    lr_mult: 2
  }
  inner_product_param {
    num_output: 10
    weight_filler {
      type: "gaussian"
      std: 0.01
    }
    bias_filler {
      type: "constant"
    }
  }
}
layer {
  name: "loss"
  type: "SoftmaxWithLoss"
  bottom: "ip2"
  bottom: "label"
  top: "loss"
}
I0504 00:38:51.646327  5867 layer_factory.hpp:77] Creating layer cifar
I0504 00:38:51.646426  5867 db_lmdb.cpp:35] Opened lmdb examples/cifar10/cifar10_train_lmdb
I0504 00:38:51.646452  5867 net.cpp:86] Creating Layer cifar
I0504 00:38:51.646462  5867 net.cpp:382] cifar -> data
I0504 00:38:51.646486  5867 net.cpp:382] cifar -> label
I0504 00:38:51.646497  5867 data_transformer.cpp:25] Loading mean file from: examples/cifar10/mean.binaryproto
I0504 00:38:51.648583  5867 data_layer.cpp:45] output data size: 111,3,32,32
I0504 00:38:51.656496  5867 net.cpp:124] Setting up cifar
I0504 00:38:51.656513  5867 net.cpp:131] Top shape: 111 3 32 32 (340992)
I0504 00:38:51.656522  5867 net.cpp:131] Top shape: 111 (111)
I0504 00:38:51.656525  5867 net.cpp:139] Memory required for data: 1364412
I0504 00:38:51.656533  5867 layer_factory.hpp:77] Creating layer conv0
I0504 00:38:51.656551  5867 net.cpp:86] Creating Layer conv0
I0504 00:38:51.656558  5867 net.cpp:408] conv0 <- data
I0504 00:38:51.656570  5867 net.cpp:382] conv0 -> conv0
I0504 00:38:51.947872  5867 net.cpp:124] Setting up conv0
I0504 00:38:51.947904  5867 net.cpp:131] Top shape: 111 72 34 34 (9238752)
I0504 00:38:51.947909  5867 net.cpp:139] Memory required for data: 38319420
I0504 00:38:51.947928  5867 layer_factory.hpp:77] Creating layer Sigmoid0
I0504 00:38:51.947942  5867 net.cpp:86] Creating Layer Sigmoid0
I0504 00:38:51.947947  5867 net.cpp:408] Sigmoid0 <- conv0
I0504 00:38:51.947954  5867 net.cpp:382] Sigmoid0 -> Sigmoid0
I0504 00:38:51.948195  5867 net.cpp:124] Setting up Sigmoid0
I0504 00:38:51.948209  5867 net.cpp:131] Top shape: 111 72 34 34 (9238752)
I0504 00:38:51.948212  5867 net.cpp:139] Memory required for data: 75274428
I0504 00:38:51.948217  5867 layer_factory.hpp:77] Creating layer pool0
I0504 00:38:51.948225  5867 net.cpp:86] Creating Layer pool0
I0504 00:38:51.948230  5867 net.cpp:408] pool0 <- Sigmoid0
I0504 00:38:51.948235  5867 net.cpp:382] pool0 -> pool0
I0504 00:38:51.949229  5867 net.cpp:124] Setting up pool0
I0504 00:38:51.949245  5867 net.cpp:131] Top shape: 111 72 17 17 (2309688)
I0504 00:38:51.949250  5867 net.cpp:139] Memory required for data: 84513180
I0504 00:38:51.949255  5867 layer_factory.hpp:77] Creating layer ip1
I0504 00:38:51.949267  5867 net.cpp:86] Creating Layer ip1
I0504 00:38:51.949271  5867 net.cpp:408] ip1 <- pool0
I0504 00:38:51.949278  5867 net.cpp:382] ip1 -> ip1
I0504 00:38:51.958259  5867 net.cpp:124] Setting up ip1
I0504 00:38:51.958276  5867 net.cpp:131] Top shape: 111 10 (1110)
I0504 00:38:51.958281  5867 net.cpp:139] Memory required for data: 84517620
I0504 00:38:51.958290  5867 layer_factory.hpp:77] Creating layer relu1
I0504 00:38:51.958298  5867 net.cpp:86] Creating Layer relu1
I0504 00:38:51.958302  5867 net.cpp:408] relu1 <- ip1
I0504 00:38:51.958308  5867 net.cpp:369] relu1 -> ip1 (in-place)
I0504 00:38:51.958501  5867 net.cpp:124] Setting up relu1
I0504 00:38:51.958513  5867 net.cpp:131] Top shape: 111 10 (1110)
I0504 00:38:51.958516  5867 net.cpp:139] Memory required for data: 84522060
I0504 00:38:51.958520  5867 layer_factory.hpp:77] Creating layer ip2
I0504 00:38:51.958529  5867 net.cpp:86] Creating Layer ip2
I0504 00:38:51.958534  5867 net.cpp:408] ip2 <- ip1
I0504 00:38:51.958539  5867 net.cpp:382] ip2 -> ip2
I0504 00:38:51.958655  5867 net.cpp:124] Setting up ip2
I0504 00:38:51.958663  5867 net.cpp:131] Top shape: 111 10 (1110)
I0504 00:38:51.958667  5867 net.cpp:139] Memory required for data: 84526500
I0504 00:38:51.958678  5867 layer_factory.hpp:77] Creating layer loss
I0504 00:38:51.958683  5867 net.cpp:86] Creating Layer loss
I0504 00:38:51.958688  5867 net.cpp:408] loss <- ip2
I0504 00:38:51.958693  5867 net.cpp:408] loss <- label
I0504 00:38:51.958699  5867 net.cpp:382] loss -> loss
I0504 00:38:51.958720  5867 layer_factory.hpp:77] Creating layer loss
…
I0504 00:38:51.959386  5867 solver.cpp:173] Creating test net (#0) specified by net file: ECE595/cifar/train_test/var_everything_tiny/cifar_train_test_24.prototxt
I0504 00:38:51.959414  5867 net.cpp:296] The NetState phase (1) differed from the phase (0) specified by a rule in layer cifar
I0504 00:38:51.959503  5867 net.cpp:53] Initializing net from parameters: 
name: "CIFAR"
state {
  phase: TEST
}
layer {
  name: "cifar"
  type: "Data"
  top: "data"
  top: "label"
  include {
    phase: TEST
  }
  transform_param {
    mean_file: "examples/cifar10/mean.binaryproto"
  }
  data_param {
    source: "examples/cifar10/cifar10_test_lmdb"
    batch_size: 1000
    backend: LMDB
  }
}
layer {
  name: "conv0"
  type: "Convolution"
  bottom: "data"
  top: "conv0"
  param {
    lr_mult: 1
  }
  param {
    lr_mult: 2
  }
  convolution_param {
    num_output: 72
    pad: 2
    kernel_size: 3
    stride: 1
    weight_filler {
      type: "gaussian"
      std: 0.01
    }
    bias_filler {
      type: "constant"
    }
  }
}
layer {
  name: "Sigmoid0"
  type: "Sigmoid"
  bottom: "conv0"
  top: "Sigmoid0"
}
layer {
  name: "pool0"
  type: "Pooling"
  bottom: "Sigmoid0"
  top: "pool0"
  pooling_param {
    pool: AVE
    kernel_size: 3
    stride: 2
  }
}
layer {
  name: "ip1"
  type: "InnerProduct"
  bottom: "pool0"
  top: "ip1"
  param {
    lr_mult: 1
  }
  param {
    lr_mult: 2
  }
  inner_product_param {
    num_output: 10
    weight_filler {
      type: "gaussian"
      std: 0.01
    }
    bias_filler {
      type: "constant"
    }
  }
}
layer {
  name: "relu1"
  type: "ReLU"
  bottom: "ip1"
  top: "ip1"
}
layer {
  name: "ip2"
  type: "InnerProduct"
  bottom: "ip1"
  top: "ip2"
  param {
    lr_mult: 1
  }
  param {
    lr_mult: 2
  }
  inner_product_param {
    num_output: 10
    weight_filler {
      type: "gaussian"
      std: 0.01
    }
    bias_filler {
      type: "constant"
    }
  }
}
layer {
  name: "accuracy"
  type: "Accuracy"
  bottom: "ip2"
  bottom: "label"
  top: "accuracy"
  include {
    phase: TEST
  }
}
layer {
  name: "loss"
  type: "SoftmaxWithLoss"
  bottom: "ip2"
  bottom: "label"
  top: "loss"
}
I0504 00:38:51.959588  5867 layer_factory.hpp:77] Creating layer cifar
I0504 00:38:51.959640  5867 db_lmdb.cpp:35] Opened lmdb examples/cifar10/cifar10_test_lmdb
I0504 00:38:51.959656  5867 net.cpp:86] Creating Layer cifar
I0504 00:38:51.959661  5867 net.cpp:382] cifar -> data
I0504 00:38:51.959671  5867 net.cpp:382] cifar -> label
I0504 00:38:51.959679  5867 data_transformer.cpp:25] Loading mean file from: examples/cifar10/mean.binaryproto
I0504 00:38:51.959851  5867 data_layer.cpp:45] output data size: 1000,3,32,32
I0504 00:38:51.986413  5867 net.cpp:124] Setting up cifar
I0504 00:38:51.986443  5867 net.cpp:131] Top shape: 1000 3 32 32 (3072000)
I0504 00:38:51.986451  5867 net.cpp:131] Top shape: 1000 (1000)
I0504 00:38:51.986455  5867 net.cpp:139] Memory required for data: 12292000
I0504 00:38:51.986462  5867 layer_factory.hpp:77] Creating layer label_cifar_1_split
I0504 00:38:51.986476  5867 net.cpp:86] Creating Layer label_cifar_1_split
I0504 00:38:51.986481  5867 net.cpp:408] label_cifar_1_split <- label
I0504 00:38:51.986488  5867 net.cpp:382] label_cifar_1_split -> label_cifar_1_split_0
I0504 00:38:51.986498  5867 net.cpp:382] label_cifar_1_split -> label_cifar_1_split_1
I0504 00:38:51.986618  5867 net.cpp:124] Setting up label_cifar_1_split
I0504 00:38:51.986629  5867 net.cpp:131] Top shape: 1000 (1000)
I0504 00:38:51.986634  5867 net.cpp:131] Top shape: 1000 (1000)
I0504 00:38:51.986636  5867 net.cpp:139] Memory required for data: 12300000
I0504 00:38:51.986640  5867 layer_factory.hpp:77] Creating layer conv0
I0504 00:38:51.986656  5867 net.cpp:86] Creating Layer conv0
I0504 00:38:51.986660  5867 net.cpp:408] conv0 <- data
I0504 00:38:51.986666  5867 net.cpp:382] conv0 -> conv0
I0504 00:38:51.989500  5867 net.cpp:124] Setting up conv0
I0504 00:38:51.989519  5867 net.cpp:131] Top shape: 1000 72 34 34 (83232000)
I0504 00:38:51.989523  5867 net.cpp:139] Memory required for data: 345228000
I0504 00:38:51.989537  5867 layer_factory.hpp:77] Creating layer Sigmoid0
I0504 00:38:51.989545  5867 net.cpp:86] Creating Layer Sigmoid0
I0504 00:38:51.989550  5867 net.cpp:408] Sigmoid0 <- conv0
I0504 00:38:51.989557  5867 net.cpp:382] Sigmoid0 -> Sigmoid0
I0504 00:38:51.989791  5867 net.cpp:124] Setting up Sigmoid0
I0504 00:38:51.989802  5867 net.cpp:131] Top shape: 1000 72 34 34 (83232000)
I0504 00:38:51.989806  5867 net.cpp:139] Memory required for data: 678156000
I0504 00:38:51.989810  5867 layer_factory.hpp:77] Creating layer pool0
I0504 00:38:51.989821  5867 net.cpp:86] Creating Layer pool0
I0504 00:38:51.989825  5867 net.cpp:408] pool0 <- Sigmoid0
I0504 00:38:51.989832  5867 net.cpp:382] pool0 -> pool0
I0504 00:38:51.990761  5867 net.cpp:124] Setting up pool0
I0504 00:38:51.990777  5867 net.cpp:131] Top shape: 1000 72 17 17 (20808000)
I0504 00:38:51.990782  5867 net.cpp:139] Memory required for data: 761388000
I0504 00:38:51.990787  5867 layer_factory.hpp:77] Creating layer ip1
I0504 00:38:51.990797  5867 net.cpp:86] Creating Layer ip1
I0504 00:38:51.990802  5867 net.cpp:408] ip1 <- pool0
I0504 00:38:51.990808  5867 net.cpp:382] ip1 -> ip1
I0504 00:38:51.997830  5867 net.cpp:124] Setting up ip1
I0504 00:38:51.997843  5867 net.cpp:131] Top shape: 1000 10 (10000)
I0504 00:38:51.997846  5867 net.cpp:139] Memory required for data: 761428000
I0504 00:38:51.997856  5867 layer_factory.hpp:77] Creating layer relu1
I0504 00:38:51.997864  5867 net.cpp:86] Creating Layer relu1
I0504 00:38:51.997869  5867 net.cpp:408] relu1 <- ip1
I0504 00:38:51.997874  5867 net.cpp:369] relu1 -> ip1 (in-place)
I0504 00:38:51.998075  5867 net.cpp:124] Setting up relu1
I0504 00:38:51.998085  5867 net.cpp:131] Top shape: 1000 10 (10000)
I0504 00:38:51.998090  5867 net.cpp:139] Memory required for data: 761468000
I0504 00:38:51.998093  5867 layer_factory.hpp:77] Creating layer ip2
I0504 00:38:51.998101  5867 net.cpp:86] Creating Layer ip2
I0504 00:38:51.998106  5867 net.cpp:408] ip2 <- ip1
I0504 00:38:51.998113  5867 net.cpp:382] ip2 -> ip2
I0504 00:38:51.998245  5867 net.cpp:124] Setting up ip2
I0504 00:38:51.998253  5867 net.cpp:131] Top shape: 1000 10 (10000)
I0504 00:38:51.998257  5867 net.cpp:139] Memory required for data: 761508000
I0504 00:38:51.998266  5867 layer_factory.hpp:77] Creating layer ip2_ip2_0_split
I0504 00:38:51.998273  5867 net.cpp:86] Creating Layer ip2_ip2_0_split
I0504 00:38:51.998277  5867 net.cpp:408] ip2_ip2_0_split <- ip2
I0504 00:38:51.998286  5867 net.cpp:382] ip2_ip2_0_split -> ip2_ip2_0_split_0
I0504 00:38:51.998292  5867 net.cpp:382] ip2_ip2_0_split -> ip2_ip2_0_split_1
I0504 00:38:51.998332  5867 net.cpp:124] Setting up ip2_ip2_0_split
I0504 00:38:51.998340  5867 net.cpp:131] Top shape: 1000 10 (10000)
I0504 00:38:51.998345  5867 net.cpp:131] Top shape: 1000 10 (10000)
I0504 00:38:51.998348  5867 net.cpp:139] Memory required for data: 761588000
I0504 00:38:51.998353  5867 layer_factory.hpp:77] Creating layer accuracy
I0504 00:38:51.998358  5867 net.cpp:86] Creating Layer accuracy
I0504 00:38:51.998363  5867 net.cpp:408] accuracy <- ip2_ip2_0_split_0
I0504 00:38:51.998368  5867 net.cpp:408] accuracy <- label_cifar_1_split_0
I0504 00:38:51.998373  5867 net.cpp:382] accuracy -> accuracy
…
