…
I0504 03:43:34.784632 11246 net.cpp:296] The NetState phase (0) differed from the phase (1) specified by a rule in layer cifar
I0504 03:43:34.784649 11246 net.cpp:296] The NetState phase (0) differed from the phase (1) specified by a rule in layer accuracy
I0504 03:43:34.784742 11246 net.cpp:53] Initializing net from parameters: 
name: "CIFAR"
state {
  phase: TRAIN
  level: 0
  stage: ""
}
layer {
  name: "cifar"
  type: "Data"
  top: "data"
  top: "label"
  include {
    phase: TRAIN
  }
  transform_param {
    mean_file: "examples/cifar10/mean.binaryproto"
  }
  data_param {
    source: "examples/cifar10/cifar10_train_lmdb"
    batch_size: 111
    backend: LMDB
  }
}
layer {
  name: "conv0"
  type: "Convolution"
  bottom: "data"
  top: "conv0"
  param {
    lr_mult: 1
  }
  param {
    lr_mult: 2
  }
  convolution_param {
    num_output: 216
    pad: 2
    kernel_size: 3
    stride: 1
    weight_filler {
      type: "gaussian"
      std: 0.01
    }
    bias_filler {
      type: "constant"
    }
  }
}
layer {
  name: "Sigmoid0"
  type: "Sigmoid"
  bottom: "conv0"
  top: "Sigmoid0"
}
layer {
  name: "pool0"
  type: "Pooling"
  bottom: "Sigmoid0"
  top: "pool0"
  pooling_param {
    pool: AVE
    kernel_size: 3
    stride: 2
  }
}
layer {
  name: "ip1"
  type: "InnerProduct"
  bottom: "pool0"
  top: "ip1"
  param {
    lr_mult: 1
  }
  param {
    lr_mult: 2
  }
  inner_product_param {
    num_output: 60
    weight_filler {
      type: "gaussian"
      std: 0.01
    }
    bias_filler {
      type: "constant"
    }
  }
}
layer {
  name: "relu1"
  type: "ReLU"
  bottom: "ip1"
  top: "ip1"
}
layer {
  name: "ip2"
  type: "InnerProduct"
  bottom: "ip1"
  top: "ip2"
  param {
    lr_mult: 1
  }
  param {
    lr_mult: 2
  }
  inner_product_param {
    num_output: 10
    weight_filler {
      type: "gaussian"
      std: 0.01
    }
    bias_filler {
      type: "constant"
    }
  }
}
layer {
  name: "relu2"
  type: "ReLU"
  bottom: "ip2"
  top: "ip2"
}
layer {
  name: "ip3"
  type: "InnerProduct"
  bottom: "ip2"
  top: "ip3"
  param {
    lr_mult: 1
  }
  param {
    lr_mult: 2
  }
  inner_product_param {
    num_output: 10
    weight_filler {
      type: "gaussian"
      std: 0.01
    }
    bias_filler {
      type: "constant"
    }
  }
}
layer {
  name: "loss"
  type: "SoftmaxWithLoss"
  bottom: "ip3"
  bottom: "label"
  top: "loss"
}
I0504 03:43:34.784832 11246 layer_factory.hpp:77] Creating layer cifar
I0504 03:43:34.784946 11246 db_lmdb.cpp:35] Opened lmdb examples/cifar10/cifar10_train_lmdb
I0504 03:43:34.784976 11246 net.cpp:86] Creating Layer cifar
I0504 03:43:34.784983 11246 net.cpp:382] cifar -> data
I0504 03:43:34.785007 11246 net.cpp:382] cifar -> label
I0504 03:43:34.785020 11246 data_transformer.cpp:25] Loading mean file from: examples/cifar10/mean.binaryproto
I0504 03:43:34.787124 11246 data_layer.cpp:45] output data size: 111,3,32,32
I0504 03:43:34.796583 11246 net.cpp:124] Setting up cifar
I0504 03:43:34.796605 11246 net.cpp:131] Top shape: 111 3 32 32 (340992)
I0504 03:43:34.796612 11246 net.cpp:131] Top shape: 111 (111)
I0504 03:43:34.796614 11246 net.cpp:139] Memory required for data: 1364412
I0504 03:43:34.796622 11246 layer_factory.hpp:77] Creating layer conv0
I0504 03:43:34.796643 11246 net.cpp:86] Creating Layer conv0
I0504 03:43:34.796648 11246 net.cpp:408] conv0 <- data
I0504 03:43:34.796661 11246 net.cpp:382] conv0 -> conv0
I0504 03:43:35.074339 11246 net.cpp:124] Setting up conv0
I0504 03:43:35.074383 11246 net.cpp:131] Top shape: 111 216 34 34 (27716256)
I0504 03:43:35.074386 11246 net.cpp:139] Memory required for data: 112229436
I0504 03:43:35.074400 11246 layer_factory.hpp:77] Creating layer Sigmoid0
I0504 03:43:35.074411 11246 net.cpp:86] Creating Layer Sigmoid0
I0504 03:43:35.074415 11246 net.cpp:408] Sigmoid0 <- conv0
I0504 03:43:35.074420 11246 net.cpp:382] Sigmoid0 -> Sigmoid0
I0504 03:43:35.074600 11246 net.cpp:124] Setting up Sigmoid0
I0504 03:43:35.074610 11246 net.cpp:131] Top shape: 111 216 34 34 (27716256)
I0504 03:43:35.074614 11246 net.cpp:139] Memory required for data: 223094460
I0504 03:43:35.074616 11246 layer_factory.hpp:77] Creating layer pool0
I0504 03:43:35.074622 11246 net.cpp:86] Creating Layer pool0
I0504 03:43:35.074625 11246 net.cpp:408] pool0 <- Sigmoid0
I0504 03:43:35.074630 11246 net.cpp:382] pool0 -> pool0
I0504 03:43:35.075358 11246 net.cpp:124] Setting up pool0
I0504 03:43:35.075371 11246 net.cpp:131] Top shape: 111 216 17 17 (6929064)
I0504 03:43:35.075374 11246 net.cpp:139] Memory required for data: 250810716
I0504 03:43:35.075377 11246 layer_factory.hpp:77] Creating layer ip1
I0504 03:43:35.075386 11246 net.cpp:86] Creating Layer ip1
I0504 03:43:35.075388 11246 net.cpp:408] ip1 <- pool0
I0504 03:43:35.075393 11246 net.cpp:382] ip1 -> ip1
I0504 03:43:35.173895 11246 net.cpp:124] Setting up ip1
I0504 03:43:35.173919 11246 net.cpp:131] Top shape: 111 60 (6660)
I0504 03:43:35.173923 11246 net.cpp:139] Memory required for data: 250837356
I0504 03:43:35.173949 11246 layer_factory.hpp:77] Creating layer relu1
I0504 03:43:35.173959 11246 net.cpp:86] Creating Layer relu1
I0504 03:43:35.173962 11246 net.cpp:408] relu1 <- ip1
I0504 03:43:35.173967 11246 net.cpp:369] relu1 -> ip1 (in-place)
I0504 03:43:35.174175 11246 net.cpp:124] Setting up relu1
I0504 03:43:35.174185 11246 net.cpp:131] Top shape: 111 60 (6660)
I0504 03:43:35.174187 11246 net.cpp:139] Memory required for data: 250863996
I0504 03:43:35.174190 11246 layer_factory.hpp:77] Creating layer ip2
I0504 03:43:35.174197 11246 net.cpp:86] Creating Layer ip2
I0504 03:43:35.174201 11246 net.cpp:408] ip2 <- ip1
I0504 03:43:35.174206 11246 net.cpp:382] ip2 -> ip2
I0504 03:43:35.175312 11246 net.cpp:124] Setting up ip2
I0504 03:43:35.175323 11246 net.cpp:131] Top shape: 111 10 (1110)
I0504 03:43:35.175326 11246 net.cpp:139] Memory required for data: 250868436
I0504 03:43:35.175334 11246 layer_factory.hpp:77] Creating layer relu2
I0504 03:43:35.175339 11246 net.cpp:86] Creating Layer relu2
I0504 03:43:35.175343 11246 net.cpp:408] relu2 <- ip2
I0504 03:43:35.175346 11246 net.cpp:369] relu2 -> ip2 (in-place)
I0504 03:43:35.175537 11246 net.cpp:124] Setting up relu2
I0504 03:43:35.175546 11246 net.cpp:131] Top shape: 111 10 (1110)
I0504 03:43:35.175549 11246 net.cpp:139] Memory required for data: 250872876
I0504 03:43:35.175552 11246 layer_factory.hpp:77] Creating layer ip3
I0504 03:43:35.175561 11246 net.cpp:86] Creating Layer ip3
I0504 03:43:35.175565 11246 net.cpp:408] ip3 <- ip2
I0504 03:43:35.175570 11246 net.cpp:382] ip3 -> ip3
I0504 03:43:35.175662 11246 net.cpp:124] Setting up ip3
I0504 03:43:35.175669 11246 net.cpp:131] Top shape: 111 10 (1110)
I0504 03:43:35.175673 11246 net.cpp:139] Memory required for data: 250877316
I0504 03:43:35.175678 11246 layer_factory.hpp:77] Creating layer loss
I0504 03:43:35.175683 11246 net.cpp:86] Creating Layer loss
I0504 03:43:35.175686 11246 net.cpp:408] loss <- ip3
I0504 03:43:35.175689 11246 net.cpp:408] loss <- label
I0504 03:43:35.175694 11246 net.cpp:382] loss -> loss
I0504 03:43:35.175729 11246 layer_factory.hpp:77] Creating layer loss
…
I0504 03:43:35.176313 11246 solver.cpp:173] Creating test net (#0) specified by net file: ECE595/cifar/train_test/var_everything_tiny/cifar_train_test_54.prototxt
I0504 03:43:35.176339 11246 net.cpp:296] The NetState phase (1) differed from the phase (0) specified by a rule in layer cifar
I0504 03:43:35.176421 11246 net.cpp:53] Initializing net from parameters: 
name: "CIFAR"
state {
  phase: TEST
}
layer {
  name: "cifar"
  type: "Data"
  top: "data"
  top: "label"
  include {
    phase: TEST
  }
  transform_param {
    mean_file: "examples/cifar10/mean.binaryproto"
  }
  data_param {
    source: "examples/cifar10/cifar10_test_lmdb"
    batch_size: 1000
    backend: LMDB
  }
}
layer {
  name: "conv0"
  type: "Convolution"
  bottom: "data"
  top: "conv0"
  param {
    lr_mult: 1
  }
  param {
    lr_mult: 2
  }
  convolution_param {
    num_output: 216
    pad: 2
    kernel_size: 3
    stride: 1
    weight_filler {
      type: "gaussian"
      std: 0.01
    }
    bias_filler {
      type: "constant"
    }
  }
}
layer {
  name: "Sigmoid0"
  type: "Sigmoid"
  bottom: "conv0"
  top: "Sigmoid0"
}
layer {
  name: "pool0"
  type: "Pooling"
  bottom: "Sigmoid0"
  top: "pool0"
  pooling_param {
    pool: AVE
    kernel_size: 3
    stride: 2
  }
}
layer {
  name: "ip1"
  type: "InnerProduct"
  bottom: "pool0"
  top: "ip1"
  param {
    lr_mult: 1
  }
  param {
    lr_mult: 2
  }
  inner_product_param {
    num_output: 60
    weight_filler {
      type: "gaussian"
      std: 0.01
    }
    bias_filler {
      type: "constant"
    }
  }
}
layer {
  name: "relu1"
  type: "ReLU"
  bottom: "ip1"
  top: "ip1"
}
layer {
  name: "ip2"
  type: "InnerProduct"
  bottom: "ip1"
  top: "ip2"
  param {
    lr_mult: 1
  }
  param {
    lr_mult: 2
  }
  inner_product_param {
    num_output: 10
    weight_filler {
      type: "gaussian"
      std: 0.01
    }
    bias_filler {
      type: "constant"
    }
  }
}
layer {
  name: "relu2"
  type: "ReLU"
  bottom: "ip2"
  top: "ip2"
}
layer {
  name: "ip3"
  type: "InnerProduct"
  bottom: "ip2"
  top: "ip3"
  param {
    lr_mult: 1
  }
  param {
    lr_mult: 2
  }
  inner_product_param {
    num_output: 10
    weight_filler {
      type: "gaussian"
      std: 0.01
    }
    bias_filler {
      type: "constant"
    }
  }
}
layer {
  name: "accuracy"
  type: "Accuracy"
  bottom: "ip3"
  bottom: "label"
  top: "accuracy"
  include {
    phase: TEST
  }
}
layer {
  name: "loss"
  type: "SoftmaxWithLoss"
  bottom: "ip3"
  bottom: "label"
  top: "loss"
}
I0504 03:43:35.176484 11246 layer_factory.hpp:77] Creating layer cifar
I0504 03:43:35.176548 11246 db_lmdb.cpp:35] Opened lmdb examples/cifar10/cifar10_test_lmdb
I0504 03:43:35.176559 11246 net.cpp:86] Creating Layer cifar
I0504 03:43:35.176564 11246 net.cpp:382] cifar -> data
I0504 03:43:35.176571 11246 net.cpp:382] cifar -> label
I0504 03:43:35.176578 11246 data_transformer.cpp:25] Loading mean file from: examples/cifar10/mean.binaryproto
I0504 03:43:35.176720 11246 data_layer.cpp:45] output data size: 1000,3,32,32
I0504 03:43:35.198848 11246 net.cpp:124] Setting up cifar
I0504 03:43:35.198875 11246 net.cpp:131] Top shape: 1000 3 32 32 (3072000)
I0504 03:43:35.198881 11246 net.cpp:131] Top shape: 1000 (1000)
I0504 03:43:35.198884 11246 net.cpp:139] Memory required for data: 12292000
I0504 03:43:35.198905 11246 layer_factory.hpp:77] Creating layer label_cifar_1_split
I0504 03:43:35.198933 11246 net.cpp:86] Creating Layer label_cifar_1_split
I0504 03:43:35.198937 11246 net.cpp:408] label_cifar_1_split <- label
I0504 03:43:35.198943 11246 net.cpp:382] label_cifar_1_split -> label_cifar_1_split_0
I0504 03:43:35.198952 11246 net.cpp:382] label_cifar_1_split -> label_cifar_1_split_1
I0504 03:43:35.199029 11246 net.cpp:124] Setting up label_cifar_1_split
I0504 03:43:35.199038 11246 net.cpp:131] Top shape: 1000 (1000)
I0504 03:43:35.199041 11246 net.cpp:131] Top shape: 1000 (1000)
I0504 03:43:35.199043 11246 net.cpp:139] Memory required for data: 12300000
I0504 03:43:35.199046 11246 layer_factory.hpp:77] Creating layer conv0
I0504 03:43:35.199059 11246 net.cpp:86] Creating Layer conv0
I0504 03:43:35.199061 11246 net.cpp:408] conv0 <- data
I0504 03:43:35.199066 11246 net.cpp:382] conv0 -> conv0
I0504 03:43:35.201344 11246 net.cpp:124] Setting up conv0
I0504 03:43:35.201357 11246 net.cpp:131] Top shape: 1000 216 34 34 (249696000)
I0504 03:43:35.201360 11246 net.cpp:139] Memory required for data: 1011084000
I0504 03:43:35.201372 11246 layer_factory.hpp:77] Creating layer Sigmoid0
I0504 03:43:35.201380 11246 net.cpp:86] Creating Layer Sigmoid0
I0504 03:43:35.201381 11246 net.cpp:408] Sigmoid0 <- conv0
I0504 03:43:35.201387 11246 net.cpp:382] Sigmoid0 -> Sigmoid0
I0504 03:43:35.203285 11246 net.cpp:124] Setting up Sigmoid0
I0504 03:43:35.203315 11246 net.cpp:131] Top shape: 1000 216 34 34 (249696000)
I0504 03:43:35.203318 11246 net.cpp:139] Memory required for data: 2009868000
I0504 03:43:35.203322 11246 layer_factory.hpp:77] Creating layer pool0
I0504 03:43:35.203330 11246 net.cpp:86] Creating Layer pool0
I0504 03:43:35.203333 11246 net.cpp:408] pool0 <- Sigmoid0
I0504 03:43:35.203339 11246 net.cpp:382] pool0 -> pool0
I0504 03:43:35.203547 11246 net.cpp:124] Setting up pool0
I0504 03:43:35.203555 11246 net.cpp:131] Top shape: 1000 216 17 17 (62424000)
I0504 03:43:35.203558 11246 net.cpp:139] Memory required for data: 2259564000
I0504 03:43:35.203562 11246 layer_factory.hpp:77] Creating layer ip1
I0504 03:43:35.203570 11246 net.cpp:86] Creating Layer ip1
I0504 03:43:35.203573 11246 net.cpp:408] ip1 <- pool0
I0504 03:43:35.203579 11246 net.cpp:382] ip1 -> ip1
I0504 03:43:35.303081 11246 net.cpp:124] Setting up ip1
I0504 03:43:35.303117 11246 net.cpp:131] Top shape: 1000 60 (60000)
I0504 03:43:35.303120 11246 net.cpp:139] Memory required for data: 2259804000
I0504 03:43:35.303131 11246 layer_factory.hpp:77] Creating layer relu1
I0504 03:43:35.303143 11246 net.cpp:86] Creating Layer relu1
I0504 03:43:35.303146 11246 net.cpp:408] relu1 <- ip1
I0504 03:43:35.303151 11246 net.cpp:369] relu1 -> ip1 (in-place)
I0504 03:43:35.303387 11246 net.cpp:124] Setting up relu1
I0504 03:43:35.303396 11246 net.cpp:131] Top shape: 1000 60 (60000)
I0504 03:43:35.303400 11246 net.cpp:139] Memory required for data: 2260044000
I0504 03:43:35.303402 11246 layer_factory.hpp:77] Creating layer ip2
I0504 03:43:35.303416 11246 net.cpp:86] Creating Layer ip2
I0504 03:43:35.303419 11246 net.cpp:408] ip2 <- ip1
I0504 03:43:35.303426 11246 net.cpp:382] ip2 -> ip2
I0504 03:43:35.303586 11246 net.cpp:124] Setting up ip2
I0504 03:43:35.303594 11246 net.cpp:131] Top shape: 1000 10 (10000)
I0504 03:43:35.303596 11246 net.cpp:139] Memory required for data: 2260084000
I0504 03:43:35.303604 11246 layer_factory.hpp:77] Creating layer relu2
I0504 03:43:35.303611 11246 net.cpp:86] Creating Layer relu2
I0504 03:43:35.303613 11246 net.cpp:408] relu2 <- ip2
I0504 03:43:35.303617 11246 net.cpp:369] relu2 -> ip2 (in-place)
I0504 03:43:35.303794 11246 net.cpp:124] Setting up relu2
I0504 03:43:35.303802 11246 net.cpp:131] Top shape: 1000 10 (10000)
I0504 03:43:35.303805 11246 net.cpp:139] Memory required for data: 2260124000
I0504 03:43:35.303808 11246 layer_factory.hpp:77] Creating layer ip3
I0504 03:43:35.303814 11246 net.cpp:86] Creating Layer ip3
I0504 03:43:35.303817 11246 net.cpp:408] ip3 <- ip2
I0504 03:43:35.303822 11246 net.cpp:382] ip3 -> ip3
I0504 03:43:35.303922 11246 net.cpp:124] Setting up ip3
I0504 03:43:35.303930 11246 net.cpp:131] Top shape: 1000 10 (10000)
I0504 03:43:35.303946 11246 net.cpp:139] Memory required for data: 2260164000
I0504 03:43:35.303951 11246 layer_factory.hpp:77] Creating layer ip3_ip3_0_split
I0504 03:43:35.303956 11246 net.cpp:86] Creating Layer ip3_ip3_0_split
I0504 03:43:35.303959 11246 net.cpp:408] ip3_ip3_0_split <- ip3
I0504 03:43:35.303964 11246 net.cpp:382] ip3_ip3_0_split -> ip3_ip3_0_split_0
I0504 03:43:35.303969 11246 net.cpp:382] ip3_ip3_0_split -> ip3_ip3_0_split_1
I0504 03:43:35.304000 11246 net.cpp:124] Setting up ip3_ip3_0_split
I0504 03:43:35.304004 11246 net.cpp:131] Top shape: 1000 10 (10000)
I0504 03:43:35.304008 11246 net.cpp:131] Top shape: 1000 10 (10000)
I0504 03:43:35.304011 11246 net.cpp:139] Memory required for data: 2260244000
I0504 03:43:35.304014 11246 layer_factory.hpp:77] Creating layer accuracy
I0504 03:43:35.304019 11246 net.cpp:86] Creating Layer accuracy
I0504 03:43:35.304023 11246 net.cpp:408] accuracy <- ip3_ip3_0_split_0
I0504 03:43:35.304026 11246 net.cpp:408] accuracy <- label_cifar_1_split_0
I0504 03:43:35.304030 11246 net.cpp:382] accuracy -> accuracy
…
