…
I0504 08:55:35.164249 22670 net.cpp:296] The NetState phase (0) differed from the phase (1) specified by a rule in layer cifar
I0504 08:55:35.164268 22670 net.cpp:296] The NetState phase (0) differed from the phase (1) specified by a rule in layer accuracy
I0504 08:55:35.164381 22670 net.cpp:53] Initializing net from parameters: 
name: "CIFAR"
state {
  phase: TRAIN
  level: 0
  stage: ""
}
layer {
  name: "cifar"
  type: "Data"
  top: "data"
  top: "label"
  include {
    phase: TRAIN
  }
  transform_param {
    mean_file: "examples/cifar10/mean.binaryproto"
  }
  data_param {
    source: "examples/cifar10/cifar10_train_lmdb"
    batch_size: 111
    backend: LMDB
  }
}
layer {
  name: "conv0"
  type: "Convolution"
  bottom: "data"
  top: "conv0"
  param {
    lr_mult: 1
  }
  param {
    lr_mult: 2
  }
  convolution_param {
    num_output: 24
    pad: 2
    kernel_size: 3
    stride: 1
    weight_filler {
      type: "gaussian"
      std: 0.01
    }
    bias_filler {
      type: "constant"
    }
  }
}
layer {
  name: "Sigmoid0"
  type: "Sigmoid"
  bottom: "conv0"
  top: "Sigmoid0"
}
layer {
  name: "pool0"
  type: "Pooling"
  bottom: "Sigmoid0"
  top: "pool0"
  pooling_param {
    pool: AVE
    kernel_size: 3
    stride: 2
  }
}
layer {
  name: "conv1"
  type: "Convolution"
  bottom: "pool0"
  top: "conv1"
  param {
    lr_mult: 1
  }
  param {
    lr_mult: 2
  }
  convolution_param {
    num_output: 72
    pad: 2
    kernel_size: 3
    stride: 1
    weight_filler {
      type: "gaussian"
      std: 0.01
    }
    bias_filler {
      type: "constant"
    }
  }
}
layer {
  name: "Sigmoid1"
  type: "Sigmoid"
  bottom: "conv1"
  top: "Sigmoid1"
}
layer {
  name: "pool1"
  type: "Pooling"
  bottom: "Sigmoid1"
  top: "pool1"
  pooling_param {
    pool: AVE
    kernel_size: 3
    stride: 2
  }
}
layer {
  name: "ip1"
  type: "InnerProduct"
  bottom: "pool1"
  top: "ip1"
  param {
    lr_mult: 1
  }
  param {
    lr_mult: 2
  }
  inner_product_param {
    num_output: 10
    weight_filler {
      type: "gaussian"
      std: 0.01
    }
    bias_filler {
      type: "constant"
    }
  }
}
layer {
  name: "relu1"
  type: "ReLU"
  bottom: "ip1"
  top: "ip1"
}
layer {
  name: "ip2"
  type: "InnerProduct"
  bottom: "ip1"
  top: "ip2"
  param {
    lr_mult: 1
  }
  param {
    lr_mult: 2
  }
  inner_product_param {
    num_output: 10
    weight_filler {
      type: "gaussian"
      std: 0.01
    }
    bias_filler {
      type: "constant"
    }
  }
}
layer {
  name: "relu2"
  type: "ReLU"
  bottom: "ip2"
  top: "ip2"
}
layer {
  name: "ip3"
  type: "InnerProduct"
  bottom: "ip2"
  top: "ip3"
  param {
    lr_mult: 1
  }
  param {
    lr_mult: 2
  }
  inner_product_param {
    num_output: 10
    weight_filler {
      type: "gaussian"
      std: 0.01
    }
    bias_filler {
      type: "constant"
    }
  }
}
layer {
  name: "loss"
  type: "SoftmaxWithLoss"
  bottom: "ip3"
  bottom: "label"
  top: "loss"
}
I0504 08:55:35.164464 22670 layer_factory.hpp:77] Creating layer cifar
I0504 08:55:35.164568 22670 db_lmdb.cpp:35] Opened lmdb examples/cifar10/cifar10_train_lmdb
I0504 08:55:35.164597 22670 net.cpp:86] Creating Layer cifar
I0504 08:55:35.164607 22670 net.cpp:382] cifar -> data
I0504 08:55:35.164630 22670 net.cpp:382] cifar -> label
I0504 08:55:35.164644 22670 data_transformer.cpp:25] Loading mean file from: examples/cifar10/mean.binaryproto
I0504 08:55:35.166805 22670 data_layer.cpp:45] output data size: 111,3,32,32
I0504 08:55:35.174710 22670 net.cpp:124] Setting up cifar
I0504 08:55:35.174731 22670 net.cpp:131] Top shape: 111 3 32 32 (340992)
I0504 08:55:35.174738 22670 net.cpp:131] Top shape: 111 (111)
I0504 08:55:35.174742 22670 net.cpp:139] Memory required for data: 1364412
I0504 08:55:35.174751 22670 layer_factory.hpp:77] Creating layer conv0
I0504 08:55:35.174768 22670 net.cpp:86] Creating Layer conv0
I0504 08:55:35.174774 22670 net.cpp:408] conv0 <- data
I0504 08:55:35.174787 22670 net.cpp:382] conv0 -> conv0
I0504 08:55:35.466507 22670 net.cpp:124] Setting up conv0
I0504 08:55:35.466536 22670 net.cpp:131] Top shape: 111 24 34 34 (3079584)
I0504 08:55:35.466540 22670 net.cpp:139] Memory required for data: 13682748
I0504 08:55:35.466557 22670 layer_factory.hpp:77] Creating layer Sigmoid0
I0504 08:55:35.466570 22670 net.cpp:86] Creating Layer Sigmoid0
I0504 08:55:35.466574 22670 net.cpp:408] Sigmoid0 <- conv0
I0504 08:55:35.466581 22670 net.cpp:382] Sigmoid0 -> Sigmoid0
I0504 08:55:35.466776 22670 net.cpp:124] Setting up Sigmoid0
I0504 08:55:35.466787 22670 net.cpp:131] Top shape: 111 24 34 34 (3079584)
I0504 08:55:35.466791 22670 net.cpp:139] Memory required for data: 26001084
I0504 08:55:35.466795 22670 layer_factory.hpp:77] Creating layer pool0
I0504 08:55:35.466802 22670 net.cpp:86] Creating Layer pool0
I0504 08:55:35.466805 22670 net.cpp:408] pool0 <- Sigmoid0
I0504 08:55:35.466810 22670 net.cpp:382] pool0 -> pool0
I0504 08:55:35.467595 22670 net.cpp:124] Setting up pool0
I0504 08:55:35.467609 22670 net.cpp:131] Top shape: 111 24 17 17 (769896)
I0504 08:55:35.467613 22670 net.cpp:139] Memory required for data: 29080668
I0504 08:55:35.467617 22670 layer_factory.hpp:77] Creating layer conv1
I0504 08:55:35.467630 22670 net.cpp:86] Creating Layer conv1
I0504 08:55:35.467634 22670 net.cpp:408] conv1 <- pool0
I0504 08:55:35.467640 22670 net.cpp:382] conv1 -> conv1
I0504 08:55:35.470944 22670 net.cpp:124] Setting up conv1
I0504 08:55:35.470960 22670 net.cpp:131] Top shape: 111 72 19 19 (2885112)
I0504 08:55:35.470964 22670 net.cpp:139] Memory required for data: 40621116
I0504 08:55:35.470973 22670 layer_factory.hpp:77] Creating layer Sigmoid1
I0504 08:55:35.470980 22670 net.cpp:86] Creating Layer Sigmoid1
I0504 08:55:35.470984 22670 net.cpp:408] Sigmoid1 <- conv1
I0504 08:55:35.470989 22670 net.cpp:382] Sigmoid1 -> Sigmoid1
I0504 08:55:35.471174 22670 net.cpp:124] Setting up Sigmoid1
I0504 08:55:35.471184 22670 net.cpp:131] Top shape: 111 72 19 19 (2885112)
I0504 08:55:35.471187 22670 net.cpp:139] Memory required for data: 52161564
I0504 08:55:35.471191 22670 layer_factory.hpp:77] Creating layer pool1
I0504 08:55:35.471197 22670 net.cpp:86] Creating Layer pool1
I0504 08:55:35.471200 22670 net.cpp:408] pool1 <- Sigmoid1
I0504 08:55:35.471205 22670 net.cpp:382] pool1 -> pool1
I0504 08:55:35.471377 22670 net.cpp:124] Setting up pool1
I0504 08:55:35.471387 22670 net.cpp:131] Top shape: 111 72 9 9 (647352)
I0504 08:55:35.471390 22670 net.cpp:139] Memory required for data: 54750972
I0504 08:55:35.471395 22670 layer_factory.hpp:77] Creating layer ip1
I0504 08:55:35.471401 22670 net.cpp:86] Creating Layer ip1
I0504 08:55:35.471405 22670 net.cpp:408] ip1 <- pool1
I0504 08:55:35.471410 22670 net.cpp:382] ip1 -> ip1
I0504 08:55:35.474050 22670 net.cpp:124] Setting up ip1
I0504 08:55:35.474063 22670 net.cpp:131] Top shape: 111 10 (1110)
I0504 08:55:35.474066 22670 net.cpp:139] Memory required for data: 54755412
I0504 08:55:35.474076 22670 layer_factory.hpp:77] Creating layer relu1
I0504 08:55:35.474082 22670 net.cpp:86] Creating Layer relu1
I0504 08:55:35.474086 22670 net.cpp:408] relu1 <- ip1
I0504 08:55:35.474092 22670 net.cpp:369] relu1 -> ip1 (in-place)
I0504 08:55:35.474257 22670 net.cpp:124] Setting up relu1
I0504 08:55:35.474267 22670 net.cpp:131] Top shape: 111 10 (1110)
I0504 08:55:35.474270 22670 net.cpp:139] Memory required for data: 54759852
I0504 08:55:35.474273 22670 layer_factory.hpp:77] Creating layer ip2
I0504 08:55:35.474280 22670 net.cpp:86] Creating Layer ip2
I0504 08:55:35.474283 22670 net.cpp:408] ip2 <- ip1
I0504 08:55:35.474303 22670 net.cpp:382] ip2 -> ip2
I0504 08:55:35.474411 22670 net.cpp:124] Setting up ip2
I0504 08:55:35.474418 22670 net.cpp:131] Top shape: 111 10 (1110)
I0504 08:55:35.474421 22670 net.cpp:139] Memory required for data: 54764292
I0504 08:55:35.474427 22670 layer_factory.hpp:77] Creating layer relu2
I0504 08:55:35.474432 22670 net.cpp:86] Creating Layer relu2
I0504 08:55:35.474436 22670 net.cpp:408] relu2 <- ip2
I0504 08:55:35.474441 22670 net.cpp:369] relu2 -> ip2 (in-place)
I0504 08:55:35.475179 22670 net.cpp:124] Setting up relu2
I0504 08:55:35.475193 22670 net.cpp:131] Top shape: 111 10 (1110)
I0504 08:55:35.475196 22670 net.cpp:139] Memory required for data: 54768732
I0504 08:55:35.475199 22670 layer_factory.hpp:77] Creating layer ip3
I0504 08:55:35.475206 22670 net.cpp:86] Creating Layer ip3
I0504 08:55:35.475210 22670 net.cpp:408] ip3 <- ip2
I0504 08:55:35.475215 22670 net.cpp:382] ip3 -> ip3
I0504 08:55:35.475318 22670 net.cpp:124] Setting up ip3
I0504 08:55:35.475327 22670 net.cpp:131] Top shape: 111 10 (1110)
I0504 08:55:35.475329 22670 net.cpp:139] Memory required for data: 54773172
I0504 08:55:35.475338 22670 layer_factory.hpp:77] Creating layer loss
I0504 08:55:35.475344 22670 net.cpp:86] Creating Layer loss
I0504 08:55:35.475347 22670 net.cpp:408] loss <- ip3
I0504 08:55:35.475352 22670 net.cpp:408] loss <- label
I0504 08:55:35.475356 22670 net.cpp:382] loss -> loss
I0504 08:55:35.475370 22670 layer_factory.hpp:77] Creating layer loss
…
I0504 08:55:35.476028 22670 solver.cpp:173] Creating test net (#0) specified by net file: ECE595/cifar/train_test/var_everything_tiny/cifar_train_test_111.prototxt
I0504 08:55:35.476056 22670 net.cpp:296] The NetState phase (1) differed from the phase (0) specified by a rule in layer cifar
I0504 08:55:35.476157 22670 net.cpp:53] Initializing net from parameters: 
name: "CIFAR"
state {
  phase: TEST
}
layer {
  name: "cifar"
  type: "Data"
  top: "data"
  top: "label"
  include {
    phase: TEST
  }
  transform_param {
    mean_file: "examples/cifar10/mean.binaryproto"
  }
  data_param {
    source: "examples/cifar10/cifar10_test_lmdb"
    batch_size: 1000
    backend: LMDB
  }
}
layer {
  name: "conv0"
  type: "Convolution"
  bottom: "data"
  top: "conv0"
  param {
    lr_mult: 1
  }
  param {
    lr_mult: 2
  }
  convolution_param {
    num_output: 24
    pad: 2
    kernel_size: 3
    stride: 1
    weight_filler {
      type: "gaussian"
      std: 0.01
    }
    bias_filler {
      type: "constant"
    }
  }
}
layer {
  name: "Sigmoid0"
  type: "Sigmoid"
  bottom: "conv0"
  top: "Sigmoid0"
}
layer {
  name: "pool0"
  type: "Pooling"
  bottom: "Sigmoid0"
  top: "pool0"
  pooling_param {
    pool: AVE
    kernel_size: 3
    stride: 2
  }
}
layer {
  name: "conv1"
  type: "Convolution"
  bottom: "pool0"
  top: "conv1"
  param {
    lr_mult: 1
  }
  param {
    lr_mult: 2
  }
  convolution_param {
    num_output: 72
    pad: 2
    kernel_size: 3
    stride: 1
    weight_filler {
      type: "gaussian"
      std: 0.01
    }
    bias_filler {
      type: "constant"
    }
  }
}
layer {
  name: "Sigmoid1"
  type: "Sigmoid"
  bottom: "conv1"
  top: "Sigmoid1"
}
layer {
  name: "pool1"
  type: "Pooling"
  bottom: "Sigmoid1"
  top: "pool1"
  pooling_param {
    pool: AVE
    kernel_size: 3
    stride: 2
  }
}
layer {
  name: "ip1"
  type: "InnerProduct"
  bottom: "pool1"
  top: "ip1"
  param {
    lr_mult: 1
  }
  param {
    lr_mult: 2
  }
  inner_product_param {
    num_output: 10
    weight_filler {
      type: "gaussian"
      std: 0.01
    }
    bias_filler {
      type: "constant"
    }
  }
}
layer {
  name: "relu1"
  type: "ReLU"
  bottom: "ip1"
  top: "ip1"
}
layer {
  name: "ip2"
  type: "InnerProduct"
  bottom: "ip1"
  top: "ip2"
  param {
    lr_mult: 1
  }
  param {
    lr_mult: 2
  }
  inner_product_param {
    num_output: 10
    weight_filler {
      type: "gaussian"
      std: 0.01
    }
    bias_filler {
      type: "constant"
    }
  }
}
layer {
  name: "relu2"
  type: "ReLU"
  bottom: "ip2"
  top: "ip2"
}
layer {
  name: "ip3"
  type: "InnerProduct"
  bottom: "ip2"
  top: "ip3"
  param {
    lr_mult: 1
  }
  param {
    lr_mult: 2
  }
  inner_product_param {
    num_output: 10
    weight_filler {
      type: "gaussian"
      std: 0.01
    }
    bias_filler {
      type: "constant"
    }
  }
}
layer {
  name: "accuracy"
  type: "Accuracy"
  bottom: "ip3"
  bottom: "label"
  top: "accuracy"
  include {
    phase: TEST
  }
}
layer {
  name: "loss"
  type: "SoftmaxWithLoss"
  bottom: "ip3"
  bottom: "label"
  top: "loss"
}
I0504 08:55:35.476241 22670 layer_factory.hpp:77] Creating layer cifar
I0504 08:55:35.476285 22670 db_lmdb.cpp:35] Opened lmdb examples/cifar10/cifar10_test_lmdb
I0504 08:55:35.476299 22670 net.cpp:86] Creating Layer cifar
I0504 08:55:35.476303 22670 net.cpp:382] cifar -> data
I0504 08:55:35.476311 22670 net.cpp:382] cifar -> label
I0504 08:55:35.476317 22670 data_transformer.cpp:25] Loading mean file from: examples/cifar10/mean.binaryproto
I0504 08:55:35.476465 22670 data_layer.cpp:45] output data size: 1000,3,32,32
I0504 08:55:35.498829 22670 net.cpp:124] Setting up cifar
I0504 08:55:35.498855 22670 net.cpp:131] Top shape: 1000 3 32 32 (3072000)
I0504 08:55:35.498862 22670 net.cpp:131] Top shape: 1000 (1000)
I0504 08:55:35.498864 22670 net.cpp:139] Memory required for data: 12292000
I0504 08:55:35.498870 22670 layer_factory.hpp:77] Creating layer label_cifar_1_split
I0504 08:55:35.498883 22670 net.cpp:86] Creating Layer label_cifar_1_split
I0504 08:55:35.498901 22670 net.cpp:408] label_cifar_1_split <- label
I0504 08:55:35.498913 22670 net.cpp:382] label_cifar_1_split -> label_cifar_1_split_0
I0504 08:55:35.498921 22670 net.cpp:382] label_cifar_1_split -> label_cifar_1_split_1
I0504 08:55:35.499027 22670 net.cpp:124] Setting up label_cifar_1_split
I0504 08:55:35.499035 22670 net.cpp:131] Top shape: 1000 (1000)
I0504 08:55:35.499038 22670 net.cpp:131] Top shape: 1000 (1000)
I0504 08:55:35.499042 22670 net.cpp:139] Memory required for data: 12300000
I0504 08:55:35.499044 22670 layer_factory.hpp:77] Creating layer conv0
I0504 08:55:35.499056 22670 net.cpp:86] Creating Layer conv0
I0504 08:55:35.499059 22670 net.cpp:408] conv0 <- data
I0504 08:55:35.499065 22670 net.cpp:382] conv0 -> conv0
I0504 08:55:35.500645 22670 net.cpp:124] Setting up conv0
I0504 08:55:35.500659 22670 net.cpp:131] Top shape: 1000 24 34 34 (27744000)
I0504 08:55:35.500663 22670 net.cpp:139] Memory required for data: 123276000
I0504 08:55:35.500671 22670 layer_factory.hpp:77] Creating layer Sigmoid0
I0504 08:55:35.500679 22670 net.cpp:86] Creating Layer Sigmoid0
I0504 08:55:35.500681 22670 net.cpp:408] Sigmoid0 <- conv0
I0504 08:55:35.500686 22670 net.cpp:382] Sigmoid0 -> Sigmoid0
I0504 08:55:35.500895 22670 net.cpp:124] Setting up Sigmoid0
I0504 08:55:35.500917 22670 net.cpp:131] Top shape: 1000 24 34 34 (27744000)
I0504 08:55:35.500921 22670 net.cpp:139] Memory required for data: 234252000
I0504 08:55:35.500924 22670 layer_factory.hpp:77] Creating layer pool0
I0504 08:55:35.500932 22670 net.cpp:86] Creating Layer pool0
I0504 08:55:35.500936 22670 net.cpp:408] pool0 <- Sigmoid0
I0504 08:55:35.500941 22670 net.cpp:382] pool0 -> pool0
I0504 08:55:35.501179 22670 net.cpp:124] Setting up pool0
I0504 08:55:35.501188 22670 net.cpp:131] Top shape: 1000 24 17 17 (6936000)
I0504 08:55:35.501191 22670 net.cpp:139] Memory required for data: 261996000
I0504 08:55:35.501199 22670 layer_factory.hpp:77] Creating layer conv1
I0504 08:55:35.501207 22670 net.cpp:86] Creating Layer conv1
I0504 08:55:35.501211 22670 net.cpp:408] conv1 <- pool0
I0504 08:55:35.501216 22670 net.cpp:382] conv1 -> conv1
I0504 08:55:35.503815 22670 net.cpp:124] Setting up conv1
I0504 08:55:35.503830 22670 net.cpp:131] Top shape: 1000 72 19 19 (25992000)
I0504 08:55:35.503834 22670 net.cpp:139] Memory required for data: 365964000
I0504 08:55:35.503842 22670 layer_factory.hpp:77] Creating layer Sigmoid1
I0504 08:55:35.503849 22670 net.cpp:86] Creating Layer Sigmoid1
I0504 08:55:35.503852 22670 net.cpp:408] Sigmoid1 <- conv1
I0504 08:55:35.503857 22670 net.cpp:382] Sigmoid1 -> Sigmoid1
I0504 08:55:35.504021 22670 net.cpp:124] Setting up Sigmoid1
I0504 08:55:35.504031 22670 net.cpp:131] Top shape: 1000 72 19 19 (25992000)
I0504 08:55:35.504034 22670 net.cpp:139] Memory required for data: 469932000
I0504 08:55:35.504037 22670 layer_factory.hpp:77] Creating layer pool1
I0504 08:55:35.504043 22670 net.cpp:86] Creating Layer pool1
I0504 08:55:35.504046 22670 net.cpp:408] pool1 <- Sigmoid1
I0504 08:55:35.504051 22670 net.cpp:382] pool1 -> pool1
I0504 08:55:35.504770 22670 net.cpp:124] Setting up pool1
I0504 08:55:35.504797 22670 net.cpp:131] Top shape: 1000 72 9 9 (5832000)
I0504 08:55:35.504801 22670 net.cpp:139] Memory required for data: 493260000
I0504 08:55:35.504804 22670 layer_factory.hpp:77] Creating layer ip1
I0504 08:55:35.504819 22670 net.cpp:86] Creating Layer ip1
I0504 08:55:35.504824 22670 net.cpp:408] ip1 <- pool1
I0504 08:55:35.504844 22670 net.cpp:382] ip1 -> ip1
I0504 08:55:35.506585 22670 net.cpp:124] Setting up ip1
I0504 08:55:35.506593 22670 net.cpp:131] Top shape: 1000 10 (10000)
I0504 08:55:35.506597 22670 net.cpp:139] Memory required for data: 493300000
I0504 08:55:35.506604 22670 layer_factory.hpp:77] Creating layer relu1
I0504 08:55:35.506609 22670 net.cpp:86] Creating Layer relu1
I0504 08:55:35.506613 22670 net.cpp:408] relu1 <- ip1
I0504 08:55:35.506618 22670 net.cpp:369] relu1 -> ip1 (in-place)
I0504 08:55:35.506786 22670 net.cpp:124] Setting up relu1
I0504 08:55:35.506795 22670 net.cpp:131] Top shape: 1000 10 (10000)
I0504 08:55:35.506799 22670 net.cpp:139] Memory required for data: 493340000
I0504 08:55:35.506803 22670 layer_factory.hpp:77] Creating layer ip2
I0504 08:55:35.506809 22670 net.cpp:86] Creating Layer ip2
I0504 08:55:35.506813 22670 net.cpp:408] ip2 <- ip1
I0504 08:55:35.506817 22670 net.cpp:382] ip2 -> ip2
I0504 08:55:35.506922 22670 net.cpp:124] Setting up ip2
I0504 08:55:35.506929 22670 net.cpp:131] Top shape: 1000 10 (10000)
I0504 08:55:35.506932 22670 net.cpp:139] Memory required for data: 493380000
I0504 08:55:35.506938 22670 layer_factory.hpp:77] Creating layer relu2
I0504 08:55:35.506943 22670 net.cpp:86] Creating Layer relu2
I0504 08:55:35.506947 22670 net.cpp:408] relu2 <- ip2
I0504 08:55:35.506950 22670 net.cpp:369] relu2 -> ip2 (in-place)
I0504 08:55:35.507102 22670 net.cpp:124] Setting up relu2
I0504 08:55:35.507110 22670 net.cpp:131] Top shape: 1000 10 (10000)
I0504 08:55:35.507114 22670 net.cpp:139] Memory required for data: 493420000
I0504 08:55:35.507117 22670 layer_factory.hpp:77] Creating layer ip3
I0504 08:55:35.507123 22670 net.cpp:86] Creating Layer ip3
I0504 08:55:35.507127 22670 net.cpp:408] ip3 <- ip2
I0504 08:55:35.507131 22670 net.cpp:382] ip3 -> ip3
I0504 08:55:35.507251 22670 net.cpp:124] Setting up ip3
I0504 08:55:35.507257 22670 net.cpp:131] Top shape: 1000 10 (10000)
I0504 08:55:35.507269 22670 net.cpp:139] Memory required for data: 493460000
I0504 08:55:35.507278 22670 layer_factory.hpp:77] Creating layer ip3_ip3_0_split
I0504 08:55:35.507283 22670 net.cpp:86] Creating Layer ip3_ip3_0_split
I0504 08:55:35.507287 22670 net.cpp:408] ip3_ip3_0_split <- ip3
I0504 08:55:35.507292 22670 net.cpp:382] ip3_ip3_0_split -> ip3_ip3_0_split_0
I0504 08:55:35.507297 22670 net.cpp:382] ip3_ip3_0_split -> ip3_ip3_0_split_1
I0504 08:55:35.507329 22670 net.cpp:124] Setting up ip3_ip3_0_split
I0504 08:55:35.507334 22670 net.cpp:131] Top shape: 1000 10 (10000)
I0504 08:55:35.507339 22670 net.cpp:131] Top shape: 1000 10 (10000)
I0504 08:55:35.507340 22670 net.cpp:139] Memory required for data: 493540000
I0504 08:55:35.507344 22670 layer_factory.hpp:77] Creating layer accuracy
I0504 08:55:35.507349 22670 net.cpp:86] Creating Layer accuracy
I0504 08:55:35.507352 22670 net.cpp:408] accuracy <- ip3_ip3_0_split_0
I0504 08:55:35.507356 22670 net.cpp:408] accuracy <- label_cifar_1_split_0
I0504 08:55:35.507360 22670 net.cpp:382] accuracy -> accuracy
…
