…
I0504 11:30:29.423967 27114 net.cpp:296] The NetState phase (0) differed from the phase (1) specified by a rule in layer cifar
I0504 11:30:29.423987 27114 net.cpp:296] The NetState phase (0) differed from the phase (1) specified by a rule in layer accuracy
I0504 11:30:29.424099 27114 net.cpp:53] Initializing net from parameters: 
name: "CIFAR"
state {
  phase: TRAIN
  level: 0
  stage: ""
}
layer {
  name: "cifar"
  type: "Data"
  top: "data"
  top: "label"
  include {
    phase: TRAIN
  }
  transform_param {
    mean_file: "examples/cifar10/mean.binaryproto"
  }
  data_param {
    source: "examples/cifar10/cifar10_train_lmdb"
    batch_size: 111
    backend: LMDB
  }
}
layer {
  name: "conv0"
  type: "Convolution"
  bottom: "data"
  top: "conv0"
  param {
    lr_mult: 1
  }
  param {
    lr_mult: 2
  }
  convolution_param {
    num_output: 24
    pad: 2
    kernel_size: 3
    stride: 1
    weight_filler {
      type: "gaussian"
      std: 0.01
    }
    bias_filler {
      type: "constant"
    }
  }
}
layer {
  name: "Sigmoid0"
  type: "Sigmoid"
  bottom: "conv0"
  top: "Sigmoid0"
}
layer {
  name: "pool0"
  type: "Pooling"
  bottom: "Sigmoid0"
  top: "pool0"
  pooling_param {
    pool: AVE
    kernel_size: 3
    stride: 2
  }
}
layer {
  name: "conv1"
  type: "Convolution"
  bottom: "pool0"
  top: "conv1"
  param {
    lr_mult: 1
  }
  param {
    lr_mult: 2
  }
  convolution_param {
    num_output: 216
    pad: 2
    kernel_size: 3
    stride: 1
    weight_filler {
      type: "gaussian"
      std: 0.01
    }
    bias_filler {
      type: "constant"
    }
  }
}
layer {
  name: "Sigmoid1"
  type: "Sigmoid"
  bottom: "conv1"
  top: "Sigmoid1"
}
layer {
  name: "pool1"
  type: "Pooling"
  bottom: "Sigmoid1"
  top: "pool1"
  pooling_param {
    pool: AVE
    kernel_size: 3
    stride: 2
  }
}
layer {
  name: "ip1"
  type: "InnerProduct"
  bottom: "pool1"
  top: "ip1"
  param {
    lr_mult: 1
  }
  param {
    lr_mult: 2
  }
  inner_product_param {
    num_output: 10
    weight_filler {
      type: "gaussian"
      std: 0.01
    }
    bias_filler {
      type: "constant"
    }
  }
}
layer {
  name: "relu1"
  type: "ReLU"
  bottom: "ip1"
  top: "ip1"
}
layer {
  name: "ip2"
  type: "InnerProduct"
  bottom: "ip1"
  top: "ip2"
  param {
    lr_mult: 1
  }
  param {
    lr_mult: 2
  }
  inner_product_param {
    num_output: 10
    weight_filler {
      type: "gaussian"
      std: 0.01
    }
    bias_filler {
      type: "constant"
    }
  }
}
layer {
  name: "relu2"
  type: "ReLU"
  bottom: "ip2"
  top: "ip2"
}
layer {
  name: "ip3"
  type: "InnerProduct"
  bottom: "ip2"
  top: "ip3"
  param {
    lr_mult: 1
  }
  param {
    lr_mult: 2
  }
  inner_product_param {
    num_output: 10
    weight_filler {
      type: "gaussian"
      std: 0.01
    }
    bias_filler {
      type: "constant"
    }
  }
}
layer {
  name: "loss"
  type: "SoftmaxWithLoss"
  bottom: "ip3"
  bottom: "label"
  top: "loss"
}
I0504 11:30:29.424182 27114 layer_factory.hpp:77] Creating layer cifar
I0504 11:30:29.424278 27114 db_lmdb.cpp:35] Opened lmdb examples/cifar10/cifar10_train_lmdb
I0504 11:30:29.424304 27114 net.cpp:86] Creating Layer cifar
I0504 11:30:29.424316 27114 net.cpp:382] cifar -> data
I0504 11:30:29.424338 27114 net.cpp:382] cifar -> label
I0504 11:30:29.424350 27114 data_transformer.cpp:25] Loading mean file from: examples/cifar10/mean.binaryproto
I0504 11:30:29.426517 27114 data_layer.cpp:45] output data size: 111,3,32,32
I0504 11:30:29.434572 27114 net.cpp:124] Setting up cifar
I0504 11:30:29.434592 27114 net.cpp:131] Top shape: 111 3 32 32 (340992)
I0504 11:30:29.434597 27114 net.cpp:131] Top shape: 111 (111)
I0504 11:30:29.434602 27114 net.cpp:139] Memory required for data: 1364412
I0504 11:30:29.434609 27114 layer_factory.hpp:77] Creating layer conv0
I0504 11:30:29.434629 27114 net.cpp:86] Creating Layer conv0
I0504 11:30:29.434635 27114 net.cpp:408] conv0 <- data
I0504 11:30:29.434649 27114 net.cpp:382] conv0 -> conv0
I0504 11:30:29.729773 27114 net.cpp:124] Setting up conv0
I0504 11:30:29.729804 27114 net.cpp:131] Top shape: 111 24 34 34 (3079584)
I0504 11:30:29.729809 27114 net.cpp:139] Memory required for data: 13682748
I0504 11:30:29.729827 27114 layer_factory.hpp:77] Creating layer Sigmoid0
I0504 11:30:29.729840 27114 net.cpp:86] Creating Layer Sigmoid0
I0504 11:30:29.729846 27114 net.cpp:408] Sigmoid0 <- conv0
I0504 11:30:29.729852 27114 net.cpp:382] Sigmoid0 -> Sigmoid0
I0504 11:30:29.730072 27114 net.cpp:124] Setting up Sigmoid0
I0504 11:30:29.730083 27114 net.cpp:131] Top shape: 111 24 34 34 (3079584)
I0504 11:30:29.730087 27114 net.cpp:139] Memory required for data: 26001084
I0504 11:30:29.730092 27114 layer_factory.hpp:77] Creating layer pool0
I0504 11:30:29.730099 27114 net.cpp:86] Creating Layer pool0
I0504 11:30:29.730103 27114 net.cpp:408] pool0 <- Sigmoid0
I0504 11:30:29.730108 27114 net.cpp:382] pool0 -> pool0
I0504 11:30:29.730986 27114 net.cpp:124] Setting up pool0
I0504 11:30:29.731003 27114 net.cpp:131] Top shape: 111 24 17 17 (769896)
I0504 11:30:29.731006 27114 net.cpp:139] Memory required for data: 29080668
I0504 11:30:29.731010 27114 layer_factory.hpp:77] Creating layer conv1
I0504 11:30:29.731025 27114 net.cpp:86] Creating Layer conv1
I0504 11:30:29.731029 27114 net.cpp:408] conv1 <- pool0
I0504 11:30:29.731036 27114 net.cpp:382] conv1 -> conv1
I0504 11:30:29.735728 27114 net.cpp:124] Setting up conv1
I0504 11:30:29.735744 27114 net.cpp:131] Top shape: 111 216 19 19 (8655336)
I0504 11:30:29.735749 27114 net.cpp:139] Memory required for data: 63702012
I0504 11:30:29.735760 27114 layer_factory.hpp:77] Creating layer Sigmoid1
I0504 11:30:29.735767 27114 net.cpp:86] Creating Layer Sigmoid1
I0504 11:30:29.735771 27114 net.cpp:408] Sigmoid1 <- conv1
I0504 11:30:29.735777 27114 net.cpp:382] Sigmoid1 -> Sigmoid1
I0504 11:30:29.735986 27114 net.cpp:124] Setting up Sigmoid1
I0504 11:30:29.735998 27114 net.cpp:131] Top shape: 111 216 19 19 (8655336)
I0504 11:30:29.736002 27114 net.cpp:139] Memory required for data: 98323356
I0504 11:30:29.736006 27114 layer_factory.hpp:77] Creating layer pool1
I0504 11:30:29.736013 27114 net.cpp:86] Creating Layer pool1
I0504 11:30:29.736017 27114 net.cpp:408] pool1 <- Sigmoid1
I0504 11:30:29.736022 27114 net.cpp:382] pool1 -> pool1
I0504 11:30:29.736214 27114 net.cpp:124] Setting up pool1
I0504 11:30:29.736225 27114 net.cpp:131] Top shape: 111 216 9 9 (1942056)
I0504 11:30:29.736229 27114 net.cpp:139] Memory required for data: 106091580
I0504 11:30:29.736232 27114 layer_factory.hpp:77] Creating layer ip1
I0504 11:30:29.736240 27114 net.cpp:86] Creating Layer ip1
I0504 11:30:29.736244 27114 net.cpp:408] ip1 <- pool1
I0504 11:30:29.736250 27114 net.cpp:382] ip1 -> ip1
I0504 11:30:29.742352 27114 net.cpp:124] Setting up ip1
I0504 11:30:29.742363 27114 net.cpp:131] Top shape: 111 10 (1110)
I0504 11:30:29.742367 27114 net.cpp:139] Memory required for data: 106096020
I0504 11:30:29.742377 27114 layer_factory.hpp:77] Creating layer relu1
I0504 11:30:29.742383 27114 net.cpp:86] Creating Layer relu1
I0504 11:30:29.742388 27114 net.cpp:408] relu1 <- ip1
I0504 11:30:29.742393 27114 net.cpp:369] relu1 -> ip1 (in-place)
I0504 11:30:29.742568 27114 net.cpp:124] Setting up relu1
I0504 11:30:29.742578 27114 net.cpp:131] Top shape: 111 10 (1110)
I0504 11:30:29.742581 27114 net.cpp:139] Memory required for data: 106100460
I0504 11:30:29.742585 27114 layer_factory.hpp:77] Creating layer ip2
I0504 11:30:29.742591 27114 net.cpp:86] Creating Layer ip2
I0504 11:30:29.742595 27114 net.cpp:408] ip2 <- ip1
I0504 11:30:29.742619 27114 net.cpp:382] ip2 -> ip2
I0504 11:30:29.742733 27114 net.cpp:124] Setting up ip2
I0504 11:30:29.742741 27114 net.cpp:131] Top shape: 111 10 (1110)
I0504 11:30:29.742745 27114 net.cpp:139] Memory required for data: 106104900
I0504 11:30:29.742751 27114 layer_factory.hpp:77] Creating layer relu2
I0504 11:30:29.742756 27114 net.cpp:86] Creating Layer relu2
I0504 11:30:29.742760 27114 net.cpp:408] relu2 <- ip2
I0504 11:30:29.742765 27114 net.cpp:369] relu2 -> ip2 (in-place)
I0504 11:30:29.743583 27114 net.cpp:124] Setting up relu2
I0504 11:30:29.743598 27114 net.cpp:131] Top shape: 111 10 (1110)
I0504 11:30:29.743602 27114 net.cpp:139] Memory required for data: 106109340
I0504 11:30:29.743607 27114 layer_factory.hpp:77] Creating layer ip3
I0504 11:30:29.743614 27114 net.cpp:86] Creating Layer ip3
I0504 11:30:29.743618 27114 net.cpp:408] ip3 <- ip2
I0504 11:30:29.743624 27114 net.cpp:382] ip3 -> ip3
I0504 11:30:29.743736 27114 net.cpp:124] Setting up ip3
I0504 11:30:29.743746 27114 net.cpp:131] Top shape: 111 10 (1110)
I0504 11:30:29.743749 27114 net.cpp:139] Memory required for data: 106113780
I0504 11:30:29.743758 27114 layer_factory.hpp:77] Creating layer loss
I0504 11:30:29.743765 27114 net.cpp:86] Creating Layer loss
I0504 11:30:29.743768 27114 net.cpp:408] loss <- ip3
I0504 11:30:29.743773 27114 net.cpp:408] loss <- label
I0504 11:30:29.743779 27114 net.cpp:382] loss -> loss
I0504 11:30:29.743795 27114 layer_factory.hpp:77] Creating layer loss
…
I0504 11:30:29.744536 27114 solver.cpp:173] Creating test net (#0) specified by net file: ECE595/cifar/train_test/var_everything_tiny/cifar_train_test_147.prototxt
I0504 11:30:29.744568 27114 net.cpp:296] The NetState phase (1) differed from the phase (0) specified by a rule in layer cifar
I0504 11:30:29.744681 27114 net.cpp:53] Initializing net from parameters: 
name: "CIFAR"
state {
  phase: TEST
}
layer {
  name: "cifar"
  type: "Data"
  top: "data"
  top: "label"
  include {
    phase: TEST
  }
  transform_param {
    mean_file: "examples/cifar10/mean.binaryproto"
  }
  data_param {
    source: "examples/cifar10/cifar10_test_lmdb"
    batch_size: 1000
    backend: LMDB
  }
}
layer {
  name: "conv0"
  type: "Convolution"
  bottom: "data"
  top: "conv0"
  param {
    lr_mult: 1
  }
  param {
    lr_mult: 2
  }
  convolution_param {
    num_output: 24
    pad: 2
    kernel_size: 3
    stride: 1
    weight_filler {
      type: "gaussian"
      std: 0.01
    }
    bias_filler {
      type: "constant"
    }
  }
}
layer {
  name: "Sigmoid0"
  type: "Sigmoid"
  bottom: "conv0"
  top: "Sigmoid0"
}
layer {
  name: "pool0"
  type: "Pooling"
  bottom: "Sigmoid0"
  top: "pool0"
  pooling_param {
    pool: AVE
    kernel_size: 3
    stride: 2
  }
}
layer {
  name: "conv1"
  type: "Convolution"
  bottom: "pool0"
  top: "conv1"
  param {
    lr_mult: 1
  }
  param {
    lr_mult: 2
  }
  convolution_param {
    num_output: 216
    pad: 2
    kernel_size: 3
    stride: 1
    weight_filler {
      type: "gaussian"
      std: 0.01
    }
    bias_filler {
      type: "constant"
    }
  }
}
layer {
  name: "Sigmoid1"
  type: "Sigmoid"
  bottom: "conv1"
  top: "Sigmoid1"
}
layer {
  name: "pool1"
  type: "Pooling"
  bottom: "Sigmoid1"
  top: "pool1"
  pooling_param {
    pool: AVE
    kernel_size: 3
    stride: 2
  }
}
layer {
  name: "ip1"
  type: "InnerProduct"
  bottom: "pool1"
  top: "ip1"
  param {
    lr_mult: 1
  }
  param {
    lr_mult: 2
  }
  inner_product_param {
    num_output: 10
    weight_filler {
      type: "gaussian"
      std: 0.01
    }
    bias_filler {
      type: "constant"
    }
  }
}
layer {
  name: "relu1"
  type: "ReLU"
  bottom: "ip1"
  top: "ip1"
}
layer {
  name: "ip2"
  type: "InnerProduct"
  bottom: "ip1"
  top: "ip2"
  param {
    lr_mult: 1
  }
  param {
    lr_mult: 2
  }
  inner_product_param {
    num_output: 10
    weight_filler {
      type: "gaussian"
      std: 0.01
    }
    bias_filler {
      type: "constant"
    }
  }
}
layer {
  name: "relu2"
  type: "ReLU"
  bottom: "ip2"
  top: "ip2"
}
layer {
  name: "ip3"
  type: "InnerProduct"
  bottom: "ip2"
  top: "ip3"
  param {
    lr_mult: 1
  }
  param {
    lr_mult: 2
  }
  inner_product_param {
    num_output: 10
    weight_filler {
      type: "gaussian"
      std: 0.01
    }
    bias_filler {
      type: "constant"
    }
  }
}
layer {
  name: "accuracy"
  type: "Accuracy"
  bottom: "ip3"
  bottom: "label"
  top: "accuracy"
  include {
    phase: TEST
  }
}
layer {
  name: "loss"
  type: "SoftmaxWithLoss"
  bottom: "ip3"
  bottom: "label"
  top: "loss"
}
I0504 11:30:29.744776 27114 layer_factory.hpp:77] Creating layer cifar
I0504 11:30:29.744840 27114 db_lmdb.cpp:35] Opened lmdb examples/cifar10/cifar10_test_lmdb
I0504 11:30:29.744855 27114 net.cpp:86] Creating Layer cifar
I0504 11:30:29.744861 27114 net.cpp:382] cifar -> data
I0504 11:30:29.744870 27114 net.cpp:382] cifar -> label
I0504 11:30:29.744877 27114 data_transformer.cpp:25] Loading mean file from: examples/cifar10/mean.binaryproto
I0504 11:30:29.745039 27114 data_layer.cpp:45] output data size: 1000,3,32,32
I0504 11:30:29.769731 27114 net.cpp:124] Setting up cifar
I0504 11:30:29.769758 27114 net.cpp:131] Top shape: 1000 3 32 32 (3072000)
I0504 11:30:29.769764 27114 net.cpp:131] Top shape: 1000 (1000)
I0504 11:30:29.769768 27114 net.cpp:139] Memory required for data: 12292000
I0504 11:30:29.769774 27114 layer_factory.hpp:77] Creating layer label_cifar_1_split
I0504 11:30:29.769788 27114 net.cpp:86] Creating Layer label_cifar_1_split
I0504 11:30:29.769793 27114 net.cpp:408] label_cifar_1_split <- label
I0504 11:30:29.769798 27114 net.cpp:382] label_cifar_1_split -> label_cifar_1_split_0
I0504 11:30:29.769809 27114 net.cpp:382] label_cifar_1_split -> label_cifar_1_split_1
I0504 11:30:29.769938 27114 net.cpp:124] Setting up label_cifar_1_split
I0504 11:30:29.769946 27114 net.cpp:131] Top shape: 1000 (1000)
I0504 11:30:29.769950 27114 net.cpp:131] Top shape: 1000 (1000)
I0504 11:30:29.769953 27114 net.cpp:139] Memory required for data: 12300000
I0504 11:30:29.769958 27114 layer_factory.hpp:77] Creating layer conv0
I0504 11:30:29.769969 27114 net.cpp:86] Creating Layer conv0
I0504 11:30:29.769973 27114 net.cpp:408] conv0 <- data
I0504 11:30:29.769979 27114 net.cpp:382] conv0 -> conv0
I0504 11:30:29.771666 27114 net.cpp:124] Setting up conv0
I0504 11:30:29.771679 27114 net.cpp:131] Top shape: 1000 24 34 34 (27744000)
I0504 11:30:29.771683 27114 net.cpp:139] Memory required for data: 123276000
I0504 11:30:29.771694 27114 layer_factory.hpp:77] Creating layer Sigmoid0
I0504 11:30:29.771702 27114 net.cpp:86] Creating Layer Sigmoid0
I0504 11:30:29.771704 27114 net.cpp:408] Sigmoid0 <- conv0
I0504 11:30:29.771711 27114 net.cpp:382] Sigmoid0 -> Sigmoid0
I0504 11:30:29.771895 27114 net.cpp:124] Setting up Sigmoid0
I0504 11:30:29.771920 27114 net.cpp:131] Top shape: 1000 24 34 34 (27744000)
I0504 11:30:29.771924 27114 net.cpp:139] Memory required for data: 234252000
I0504 11:30:29.771929 27114 layer_factory.hpp:77] Creating layer pool0
I0504 11:30:29.771936 27114 net.cpp:86] Creating Layer pool0
I0504 11:30:29.771940 27114 net.cpp:408] pool0 <- Sigmoid0
I0504 11:30:29.771945 27114 net.cpp:382] pool0 -> pool0
I0504 11:30:29.772222 27114 net.cpp:124] Setting up pool0
I0504 11:30:29.772233 27114 net.cpp:131] Top shape: 1000 24 17 17 (6936000)
I0504 11:30:29.772236 27114 net.cpp:139] Memory required for data: 261996000
I0504 11:30:29.772239 27114 layer_factory.hpp:77] Creating layer conv1
I0504 11:30:29.772249 27114 net.cpp:86] Creating Layer conv1
I0504 11:30:29.772253 27114 net.cpp:408] conv1 <- pool0
I0504 11:30:29.772259 27114 net.cpp:382] conv1 -> conv1
I0504 11:30:29.775976 27114 net.cpp:124] Setting up conv1
I0504 11:30:29.775993 27114 net.cpp:131] Top shape: 1000 216 19 19 (77976000)
I0504 11:30:29.775996 27114 net.cpp:139] Memory required for data: 573900000
I0504 11:30:29.776005 27114 layer_factory.hpp:77] Creating layer Sigmoid1
I0504 11:30:29.776012 27114 net.cpp:86] Creating Layer Sigmoid1
I0504 11:30:29.776016 27114 net.cpp:408] Sigmoid1 <- conv1
I0504 11:30:29.776021 27114 net.cpp:382] Sigmoid1 -> Sigmoid1
I0504 11:30:29.776213 27114 net.cpp:124] Setting up Sigmoid1
I0504 11:30:29.776224 27114 net.cpp:131] Top shape: 1000 216 19 19 (77976000)
I0504 11:30:29.776228 27114 net.cpp:139] Memory required for data: 885804000
I0504 11:30:29.776232 27114 layer_factory.hpp:77] Creating layer pool1
I0504 11:30:29.776237 27114 net.cpp:86] Creating Layer pool1
I0504 11:30:29.776242 27114 net.cpp:408] pool1 <- Sigmoid1
I0504 11:30:29.776248 27114 net.cpp:382] pool1 -> pool1
I0504 11:30:29.777055 27114 net.cpp:124] Setting up pool1
I0504 11:30:29.777070 27114 net.cpp:131] Top shape: 1000 216 9 9 (17496000)
I0504 11:30:29.777073 27114 net.cpp:139] Memory required for data: 955788000
I0504 11:30:29.777077 27114 layer_factory.hpp:77] Creating layer ip1
I0504 11:30:29.777089 27114 net.cpp:86] Creating Layer ip1
I0504 11:30:29.777093 27114 net.cpp:408] ip1 <- pool1
I0504 11:30:29.777098 27114 net.cpp:382] ip1 -> ip1
I0504 11:30:29.782512 27114 net.cpp:124] Setting up ip1
I0504 11:30:29.782522 27114 net.cpp:131] Top shape: 1000 10 (10000)
I0504 11:30:29.782526 27114 net.cpp:139] Memory required for data: 955828000
I0504 11:30:29.782534 27114 layer_factory.hpp:77] Creating layer relu1
I0504 11:30:29.782541 27114 net.cpp:86] Creating Layer relu1
I0504 11:30:29.782544 27114 net.cpp:408] relu1 <- ip1
I0504 11:30:29.782551 27114 net.cpp:369] relu1 -> ip1 (in-place)
I0504 11:30:29.782752 27114 net.cpp:124] Setting up relu1
I0504 11:30:29.782760 27114 net.cpp:131] Top shape: 1000 10 (10000)
I0504 11:30:29.782763 27114 net.cpp:139] Memory required for data: 955868000
I0504 11:30:29.782766 27114 layer_factory.hpp:77] Creating layer ip2
I0504 11:30:29.782774 27114 net.cpp:86] Creating Layer ip2
I0504 11:30:29.782778 27114 net.cpp:408] ip2 <- ip1
I0504 11:30:29.782783 27114 net.cpp:382] ip2 -> ip2
I0504 11:30:29.782892 27114 net.cpp:124] Setting up ip2
I0504 11:30:29.782901 27114 net.cpp:131] Top shape: 1000 10 (10000)
I0504 11:30:29.782903 27114 net.cpp:139] Memory required for data: 955908000
I0504 11:30:29.782909 27114 layer_factory.hpp:77] Creating layer relu2
I0504 11:30:29.782917 27114 net.cpp:86] Creating Layer relu2
I0504 11:30:29.782919 27114 net.cpp:408] relu2 <- ip2
I0504 11:30:29.782923 27114 net.cpp:369] relu2 -> ip2 (in-place)
I0504 11:30:29.783085 27114 net.cpp:124] Setting up relu2
I0504 11:30:29.783093 27114 net.cpp:131] Top shape: 1000 10 (10000)
I0504 11:30:29.783097 27114 net.cpp:139] Memory required for data: 955948000
I0504 11:30:29.783099 27114 layer_factory.hpp:77] Creating layer ip3
I0504 11:30:29.783107 27114 net.cpp:86] Creating Layer ip3
I0504 11:30:29.783110 27114 net.cpp:408] ip3 <- ip2
I0504 11:30:29.783115 27114 net.cpp:382] ip3 -> ip3
I0504 11:30:29.783221 27114 net.cpp:124] Setting up ip3
I0504 11:30:29.783241 27114 net.cpp:131] Top shape: 1000 10 (10000)
I0504 11:30:29.783244 27114 net.cpp:139] Memory required for data: 955988000
I0504 11:30:29.783252 27114 layer_factory.hpp:77] Creating layer ip3_ip3_0_split
I0504 11:30:29.783260 27114 net.cpp:86] Creating Layer ip3_ip3_0_split
I0504 11:30:29.783263 27114 net.cpp:408] ip3_ip3_0_split <- ip3
I0504 11:30:29.783267 27114 net.cpp:382] ip3_ip3_0_split -> ip3_ip3_0_split_0
I0504 11:30:29.783273 27114 net.cpp:382] ip3_ip3_0_split -> ip3_ip3_0_split_1
I0504 11:30:29.783310 27114 net.cpp:124] Setting up ip3_ip3_0_split
I0504 11:30:29.783318 27114 net.cpp:131] Top shape: 1000 10 (10000)
I0504 11:30:29.783321 27114 net.cpp:131] Top shape: 1000 10 (10000)
I0504 11:30:29.783324 27114 net.cpp:139] Memory required for data: 956068000
I0504 11:30:29.783327 27114 layer_factory.hpp:77] Creating layer accuracy
I0504 11:30:29.783335 27114 net.cpp:86] Creating Layer accuracy
I0504 11:30:29.783339 27114 net.cpp:408] accuracy <- ip3_ip3_0_split_0
I0504 11:30:29.783342 27114 net.cpp:408] accuracy <- label_cifar_1_split_0
I0504 11:30:29.783347 27114 net.cpp:382] accuracy -> accuracy
…
