…
I0504 01:54:05.723485  8249 net.cpp:296] The NetState phase (0) differed from the phase (1) specified by a rule in layer cifar
I0504 01:54:05.723506  8249 net.cpp:296] The NetState phase (0) differed from the phase (1) specified by a rule in layer accuracy
I0504 01:54:05.723608  8249 net.cpp:53] Initializing net from parameters: 
name: "CIFAR"
state {
  phase: TRAIN
  level: 0
  stage: ""
}
layer {
  name: "cifar"
  type: "Data"
  top: "data"
  top: "label"
  include {
    phase: TRAIN
  }
  transform_param {
    mean_file: "examples/cifar10/mean.binaryproto"
  }
  data_param {
    source: "examples/cifar10/cifar10_train_lmdb"
    batch_size: 111
    backend: LMDB
  }
}
layer {
  name: "conv0"
  type: "Convolution"
  bottom: "data"
  top: "conv0"
  param {
    lr_mult: 1
  }
  param {
    lr_mult: 2
  }
  convolution_param {
    num_output: 72
    pad: 2
    kernel_size: 5
    stride: 1
    weight_filler {
      type: "gaussian"
      std: 0.01
    }
    bias_filler {
      type: "constant"
    }
  }
}
layer {
  name: "Sigmoid0"
  type: "Sigmoid"
  bottom: "conv0"
  top: "Sigmoid0"
}
layer {
  name: "pool0"
  type: "Pooling"
  bottom: "Sigmoid0"
  top: "pool0"
  pooling_param {
    pool: AVE
    kernel_size: 3
    stride: 2
  }
}
layer {
  name: "ip1"
  type: "InnerProduct"
  bottom: "pool0"
  top: "ip1"
  param {
    lr_mult: 1
  }
  param {
    lr_mult: 2
  }
  inner_product_param {
    num_output: 10
    weight_filler {
      type: "gaussian"
      std: 0.01
    }
    bias_filler {
      type: "constant"
    }
  }
}
layer {
  name: "relu1"
  type: "ReLU"
  bottom: "ip1"
  top: "ip1"
}
layer {
  name: "ip2"
  type: "InnerProduct"
  bottom: "ip1"
  top: "ip2"
  param {
    lr_mult: 1
  }
  param {
    lr_mult: 2
  }
  inner_product_param {
    num_output: 60
    weight_filler {
      type: "gaussian"
      std: 0.01
    }
    bias_filler {
      type: "constant"
    }
  }
}
layer {
  name: "relu2"
  type: "ReLU"
  bottom: "ip2"
  top: "ip2"
}
layer {
  name: "ip3"
  type: "InnerProduct"
  bottom: "ip2"
  top: "ip3"
  param {
    lr_mult: 1
  }
  param {
    lr_mult: 2
  }
  inner_product_param {
    num_output: 10
    weight_filler {
      type: "gaussian"
      std: 0.01
    }
    bias_filler {
      type: "constant"
    }
  }
}
layer {
  name: "loss"
  type: "SoftmaxWithLoss"
  bottom: "ip3"
  bottom: "label"
  top: "loss"
}
I0504 01:54:05.723716  8249 layer_factory.hpp:77] Creating layer cifar
I0504 01:54:05.723850  8249 db_lmdb.cpp:35] Opened lmdb examples/cifar10/cifar10_train_lmdb
I0504 01:54:05.723886  8249 net.cpp:86] Creating Layer cifar
I0504 01:54:05.723898  8249 net.cpp:382] cifar -> data
I0504 01:54:05.723927  8249 net.cpp:382] cifar -> label
I0504 01:54:05.723944  8249 data_transformer.cpp:25] Loading mean file from: examples/cifar10/mean.binaryproto
I0504 01:54:05.726239  8249 data_layer.cpp:45] output data size: 111,3,32,32
I0504 01:54:05.734118  8249 net.cpp:124] Setting up cifar
I0504 01:54:05.734141  8249 net.cpp:131] Top shape: 111 3 32 32 (340992)
I0504 01:54:05.734151  8249 net.cpp:131] Top shape: 111 (111)
I0504 01:54:05.734158  8249 net.cpp:139] Memory required for data: 1364412
I0504 01:54:05.734169  8249 layer_factory.hpp:77] Creating layer conv0
I0504 01:54:05.734195  8249 net.cpp:86] Creating Layer conv0
I0504 01:54:05.734206  8249 net.cpp:408] conv0 <- data
I0504 01:54:05.734227  8249 net.cpp:382] conv0 -> conv0
I0504 01:54:06.020759  8249 net.cpp:124] Setting up conv0
I0504 01:54:06.020807  8249 net.cpp:131] Top shape: 111 72 32 32 (8183808)
I0504 01:54:06.020818  8249 net.cpp:139] Memory required for data: 34099644
I0504 01:54:06.020839  8249 layer_factory.hpp:77] Creating layer Sigmoid0
I0504 01:54:06.020856  8249 net.cpp:86] Creating Layer Sigmoid0
I0504 01:54:06.020864  8249 net.cpp:408] Sigmoid0 <- conv0
I0504 01:54:06.020872  8249 net.cpp:382] Sigmoid0 -> Sigmoid0
I0504 01:54:06.021062  8249 net.cpp:124] Setting up Sigmoid0
I0504 01:54:06.021075  8249 net.cpp:131] Top shape: 111 72 32 32 (8183808)
I0504 01:54:06.021080  8249 net.cpp:139] Memory required for data: 66834876
I0504 01:54:06.021085  8249 layer_factory.hpp:77] Creating layer pool0
I0504 01:54:06.021096  8249 net.cpp:86] Creating Layer pool0
I0504 01:54:06.021101  8249 net.cpp:408] pool0 <- Sigmoid0
I0504 01:54:06.021109  8249 net.cpp:382] pool0 -> pool0
I0504 01:54:06.021873  8249 net.cpp:124] Setting up pool0
I0504 01:54:06.021888  8249 net.cpp:131] Top shape: 111 72 16 16 (2045952)
I0504 01:54:06.021894  8249 net.cpp:139] Memory required for data: 75018684
I0504 01:54:06.021900  8249 layer_factory.hpp:77] Creating layer ip1
I0504 01:54:06.021914  8249 net.cpp:86] Creating Layer ip1
I0504 01:54:06.021920  8249 net.cpp:408] ip1 <- pool0
I0504 01:54:06.021929  8249 net.cpp:382] ip1 -> ip1
I0504 01:54:06.027925  8249 net.cpp:124] Setting up ip1
I0504 01:54:06.027940  8249 net.cpp:131] Top shape: 111 10 (1110)
I0504 01:54:06.027945  8249 net.cpp:139] Memory required for data: 75023124
I0504 01:54:06.027957  8249 layer_factory.hpp:77] Creating layer relu1
I0504 01:54:06.027967  8249 net.cpp:86] Creating Layer relu1
I0504 01:54:06.027972  8249 net.cpp:408] relu1 <- ip1
I0504 01:54:06.027981  8249 net.cpp:369] relu1 -> ip1 (in-place)
I0504 01:54:06.028139  8249 net.cpp:124] Setting up relu1
I0504 01:54:06.028149  8249 net.cpp:131] Top shape: 111 10 (1110)
I0504 01:54:06.028154  8249 net.cpp:139] Memory required for data: 75027564
I0504 01:54:06.028159  8249 layer_factory.hpp:77] Creating layer ip2
I0504 01:54:06.028169  8249 net.cpp:86] Creating Layer ip2
I0504 01:54:06.028174  8249 net.cpp:408] ip2 <- ip1
I0504 01:54:06.028182  8249 net.cpp:382] ip2 -> ip2
I0504 01:54:06.028301  8249 net.cpp:124] Setting up ip2
I0504 01:54:06.028308  8249 net.cpp:131] Top shape: 111 60 (6660)
I0504 01:54:06.028313  8249 net.cpp:139] Memory required for data: 75054204
I0504 01:54:06.028326  8249 layer_factory.hpp:77] Creating layer relu2
I0504 01:54:06.028333  8249 net.cpp:86] Creating Layer relu2
I0504 01:54:06.028339  8249 net.cpp:408] relu2 <- ip2
I0504 01:54:06.028345  8249 net.cpp:369] relu2 -> ip2 (in-place)
I0504 01:54:06.028501  8249 net.cpp:124] Setting up relu2
I0504 01:54:06.028509  8249 net.cpp:131] Top shape: 111 60 (6660)
I0504 01:54:06.028514  8249 net.cpp:139] Memory required for data: 75080844
I0504 01:54:06.028519  8249 layer_factory.hpp:77] Creating layer ip3
I0504 01:54:06.028530  8249 net.cpp:86] Creating Layer ip3
I0504 01:54:06.028535  8249 net.cpp:408] ip3 <- ip2
I0504 01:54:06.028543  8249 net.cpp:382] ip3 -> ip3
I0504 01:54:06.028662  8249 net.cpp:124] Setting up ip3
I0504 01:54:06.028671  8249 net.cpp:131] Top shape: 111 10 (1110)
I0504 01:54:06.028676  8249 net.cpp:139] Memory required for data: 75085284
I0504 01:54:06.028684  8249 layer_factory.hpp:77] Creating layer loss
I0504 01:54:06.028693  8249 net.cpp:86] Creating Layer loss
I0504 01:54:06.028698  8249 net.cpp:408] loss <- ip3
I0504 01:54:06.028704  8249 net.cpp:408] loss <- label
I0504 01:54:06.028712  8249 net.cpp:382] loss -> loss
I0504 01:54:06.028733  8249 layer_factory.hpp:77] Creating layer loss
…
I0504 01:54:06.029376  8249 solver.cpp:173] Creating test net (#0) specified by net file: ECE595/cifar/train_test/var_everything_tiny/cifar_train_test_40.prototxt
I0504 01:54:06.029409  8249 net.cpp:296] The NetState phase (1) differed from the phase (0) specified by a rule in layer cifar
I0504 01:54:06.029506  8249 net.cpp:53] Initializing net from parameters: 
name: "CIFAR"
state {
  phase: TEST
}
layer {
  name: "cifar"
  type: "Data"
  top: "data"
  top: "label"
  include {
    phase: TEST
  }
  transform_param {
    mean_file: "examples/cifar10/mean.binaryproto"
  }
  data_param {
    source: "examples/cifar10/cifar10_test_lmdb"
    batch_size: 1000
    backend: LMDB
  }
}
layer {
  name: "conv0"
  type: "Convolution"
  bottom: "data"
  top: "conv0"
  param {
    lr_mult: 1
  }
  param {
    lr_mult: 2
  }
  convolution_param {
    num_output: 72
    pad: 2
    kernel_size: 5
    stride: 1
    weight_filler {
      type: "gaussian"
      std: 0.01
    }
    bias_filler {
      type: "constant"
    }
  }
}
layer {
  name: "Sigmoid0"
  type: "Sigmoid"
  bottom: "conv0"
  top: "Sigmoid0"
}
layer {
  name: "pool0"
  type: "Pooling"
  bottom: "Sigmoid0"
  top: "pool0"
  pooling_param {
    pool: AVE
    kernel_size: 3
    stride: 2
  }
}
layer {
  name: "ip1"
  type: "InnerProduct"
  bottom: "pool0"
  top: "ip1"
  param {
    lr_mult: 1
  }
  param {
    lr_mult: 2
  }
  inner_product_param {
    num_output: 10
    weight_filler {
      type: "gaussian"
      std: 0.01
    }
    bias_filler {
      type: "constant"
    }
  }
}
layer {
  name: "relu1"
  type: "ReLU"
  bottom: "ip1"
  top: "ip1"
}
layer {
  name: "ip2"
  type: "InnerProduct"
  bottom: "ip1"
  top: "ip2"
  param {
    lr_mult: 1
  }
  param {
    lr_mult: 2
  }
  inner_product_param {
    num_output: 60
    weight_filler {
      type: "gaussian"
      std: 0.01
    }
    bias_filler {
      type: "constant"
    }
  }
}
layer {
  name: "relu2"
  type: "ReLU"
  bottom: "ip2"
  top: "ip2"
}
layer {
  name: "ip3"
  type: "InnerProduct"
  bottom: "ip2"
  top: "ip3"
  param {
    lr_mult: 1
  }
  param {
    lr_mult: 2
  }
  inner_product_param {
    num_output: 10
    weight_filler {
      type: "gaussian"
      std: 0.01
    }
    bias_filler {
      type: "constant"
    }
  }
}
layer {
  name: "accuracy"
  type: "Accuracy"
  bottom: "ip3"
  bottom: "label"
  top: "accuracy"
  include {
    phase: TEST
  }
}
layer {
  name: "loss"
  type: "SoftmaxWithLoss"
  bottom: "ip3"
  bottom: "label"
  top: "loss"
}
I0504 01:54:06.029600  8249 layer_factory.hpp:77] Creating layer cifar
I0504 01:54:06.029659  8249 db_lmdb.cpp:35] Opened lmdb examples/cifar10/cifar10_test_lmdb
I0504 01:54:06.029675  8249 net.cpp:86] Creating Layer cifar
I0504 01:54:06.029683  8249 net.cpp:382] cifar -> data
I0504 01:54:06.029695  8249 net.cpp:382] cifar -> label
I0504 01:54:06.029705  8249 data_transformer.cpp:25] Loading mean file from: examples/cifar10/mean.binaryproto
I0504 01:54:06.029903  8249 data_layer.cpp:45] output data size: 1000,3,32,32
I0504 01:54:06.052129  8249 net.cpp:124] Setting up cifar
I0504 01:54:06.052155  8249 net.cpp:131] Top shape: 1000 3 32 32 (3072000)
I0504 01:54:06.052162  8249 net.cpp:131] Top shape: 1000 (1000)
I0504 01:54:06.052167  8249 net.cpp:139] Memory required for data: 12292000
I0504 01:54:06.052175  8249 layer_factory.hpp:77] Creating layer label_cifar_1_split
I0504 01:54:06.052204  8249 net.cpp:86] Creating Layer label_cifar_1_split
I0504 01:54:06.052227  8249 net.cpp:408] label_cifar_1_split <- label
I0504 01:54:06.052237  8249 net.cpp:382] label_cifar_1_split -> label_cifar_1_split_0
I0504 01:54:06.052256  8249 net.cpp:382] label_cifar_1_split -> label_cifar_1_split_1
I0504 01:54:06.052340  8249 net.cpp:124] Setting up label_cifar_1_split
I0504 01:54:06.052350  8249 net.cpp:131] Top shape: 1000 (1000)
I0504 01:54:06.052355  8249 net.cpp:131] Top shape: 1000 (1000)
I0504 01:54:06.052359  8249 net.cpp:139] Memory required for data: 12300000
I0504 01:54:06.052364  8249 layer_factory.hpp:77] Creating layer conv0
I0504 01:54:06.052382  8249 net.cpp:86] Creating Layer conv0
I0504 01:54:06.052388  8249 net.cpp:408] conv0 <- data
I0504 01:54:06.052397  8249 net.cpp:382] conv0 -> conv0
I0504 01:54:06.053993  8249 net.cpp:124] Setting up conv0
I0504 01:54:06.054008  8249 net.cpp:131] Top shape: 1000 72 32 32 (73728000)
I0504 01:54:06.054013  8249 net.cpp:139] Memory required for data: 307212000
I0504 01:54:06.054028  8249 layer_factory.hpp:77] Creating layer Sigmoid0
I0504 01:54:06.054038  8249 net.cpp:86] Creating Layer Sigmoid0
I0504 01:54:06.054042  8249 net.cpp:408] Sigmoid0 <- conv0
I0504 01:54:06.054049  8249 net.cpp:382] Sigmoid0 -> Sigmoid0
I0504 01:54:06.054900  8249 net.cpp:124] Setting up Sigmoid0
I0504 01:54:06.054914  8249 net.cpp:131] Top shape: 1000 72 32 32 (73728000)
I0504 01:54:06.054919  8249 net.cpp:139] Memory required for data: 602124000
I0504 01:54:06.054940  8249 layer_factory.hpp:77] Creating layer pool0
I0504 01:54:06.054951  8249 net.cpp:86] Creating Layer pool0
I0504 01:54:06.054957  8249 net.cpp:408] pool0 <- Sigmoid0
I0504 01:54:06.054966  8249 net.cpp:382] pool0 -> pool0
I0504 01:54:06.056221  8249 net.cpp:124] Setting up pool0
I0504 01:54:06.056253  8249 net.cpp:131] Top shape: 1000 72 16 16 (18432000)
I0504 01:54:06.056277  8249 net.cpp:139] Memory required for data: 675852000
I0504 01:54:06.056288  8249 layer_factory.hpp:77] Creating layer ip1
I0504 01:54:06.056308  8249 net.cpp:86] Creating Layer ip1
I0504 01:54:06.056316  8249 net.cpp:408] ip1 <- pool0
I0504 01:54:06.056341  8249 net.cpp:382] ip1 -> ip1
I0504 01:54:06.067967  8249 net.cpp:124] Setting up ip1
I0504 01:54:06.067984  8249 net.cpp:131] Top shape: 1000 10 (10000)
I0504 01:54:06.068008  8249 net.cpp:139] Memory required for data: 675892000
I0504 01:54:06.068028  8249 layer_factory.hpp:77] Creating layer relu1
I0504 01:54:06.068042  8249 net.cpp:86] Creating Layer relu1
I0504 01:54:06.068049  8249 net.cpp:408] relu1 <- ip1
I0504 01:54:06.068063  8249 net.cpp:369] relu1 -> ip1 (in-place)
I0504 01:54:06.068403  8249 net.cpp:124] Setting up relu1
I0504 01:54:06.068416  8249 net.cpp:131] Top shape: 1000 10 (10000)
I0504 01:54:06.068437  8249 net.cpp:139] Memory required for data: 675932000
I0504 01:54:06.068444  8249 layer_factory.hpp:77] Creating layer ip2
I0504 01:54:06.068457  8249 net.cpp:86] Creating Layer ip2
I0504 01:54:06.068465  8249 net.cpp:408] ip2 <- ip1
I0504 01:54:06.068477  8249 net.cpp:382] ip2 -> ip2
I0504 01:54:06.068743  8249 net.cpp:124] Setting up ip2
I0504 01:54:06.068758  8249 net.cpp:131] Top shape: 1000 60 (60000)
I0504 01:54:06.068764  8249 net.cpp:139] Memory required for data: 676172000
I0504 01:54:06.068780  8249 layer_factory.hpp:77] Creating layer relu2
I0504 01:54:06.068794  8249 net.cpp:86] Creating Layer relu2
I0504 01:54:06.068801  8249 net.cpp:408] relu2 <- ip2
I0504 01:54:06.068835  8249 net.cpp:369] relu2 -> ip2 (in-place)
I0504 01:54:06.069196  8249 net.cpp:124] Setting up relu2
I0504 01:54:06.069221  8249 net.cpp:131] Top shape: 1000 60 (60000)
I0504 01:54:06.069229  8249 net.cpp:139] Memory required for data: 676412000
I0504 01:54:06.069244  8249 layer_factory.hpp:77] Creating layer ip3
I0504 01:54:06.069264  8249 net.cpp:86] Creating Layer ip3
I0504 01:54:06.069270  8249 net.cpp:408] ip3 <- ip2
I0504 01:54:06.069281  8249 net.cpp:382] ip3 -> ip3
I0504 01:54:06.069505  8249 net.cpp:124] Setting up ip3
I0504 01:54:06.069517  8249 net.cpp:131] Top shape: 1000 10 (10000)
I0504 01:54:06.069547  8249 net.cpp:139] Memory required for data: 676452000
I0504 01:54:06.069560  8249 layer_factory.hpp:77] Creating layer ip3_ip3_0_split
I0504 01:54:06.069569  8249 net.cpp:86] Creating Layer ip3_ip3_0_split
I0504 01:54:06.069578  8249 net.cpp:408] ip3_ip3_0_split <- ip3
I0504 01:54:06.069588  8249 net.cpp:382] ip3_ip3_0_split -> ip3_ip3_0_split_0
I0504 01:54:06.069602  8249 net.cpp:382] ip3_ip3_0_split -> ip3_ip3_0_split_1
I0504 01:54:06.069674  8249 net.cpp:124] Setting up ip3_ip3_0_split
I0504 01:54:06.069684  8249 net.cpp:131] Top shape: 1000 10 (10000)
I0504 01:54:06.069692  8249 net.cpp:131] Top shape: 1000 10 (10000)
I0504 01:54:06.069700  8249 net.cpp:139] Memory required for data: 676532000
I0504 01:54:06.069705  8249 layer_factory.hpp:77] Creating layer accuracy
I0504 01:54:06.069716  8249 net.cpp:86] Creating Layer accuracy
I0504 01:54:06.069725  8249 net.cpp:408] accuracy <- ip3_ip3_0_split_0
I0504 01:54:06.069735  8249 net.cpp:408] accuracy <- label_cifar_1_split_0
I0504 01:54:06.069744  8249 net.cpp:382] accuracy -> accuracy
…
