…
I0504 07:58:49.229660 20424 net.cpp:296] The NetState phase (0) differed from the phase (1) specified by a rule in layer cifar
I0504 07:58:49.229673 20424 net.cpp:296] The NetState phase (0) differed from the phase (1) specified by a rule in layer accuracy
I0504 07:58:49.229769 20424 net.cpp:53] Initializing net from parameters: 
name: "CIFAR"
state {
  phase: TRAIN
  level: 0
  stage: ""
}
layer {
  name: "cifar"
  type: "Data"
  top: "data"
  top: "label"
  include {
    phase: TRAIN
  }
  transform_param {
    mean_file: "examples/cifar10/mean.binaryproto"
  }
  data_param {
    source: "examples/cifar10/cifar10_train_lmdb"
    batch_size: 111
    backend: LMDB
  }
}
layer {
  name: "conv0"
  type: "Convolution"
  bottom: "data"
  top: "conv0"
  param {
    lr_mult: 1
  }
  param {
    lr_mult: 2
  }
  convolution_param {
    num_output: 24
    pad: 2
    kernel_size: 5
    stride: 1
    weight_filler {
      type: "gaussian"
      std: 0.01
    }
    bias_filler {
      type: "constant"
    }
  }
}
layer {
  name: "Sigmoid0"
  type: "Sigmoid"
  bottom: "conv0"
  top: "Sigmoid0"
}
layer {
  name: "pool0"
  type: "Pooling"
  bottom: "Sigmoid0"
  top: "pool0"
  pooling_param {
    pool: AVE
    kernel_size: 3
    stride: 2
  }
}
layer {
  name: "conv1"
  type: "Convolution"
  bottom: "pool0"
  top: "conv1"
  param {
    lr_mult: 1
  }
  param {
    lr_mult: 2
  }
  convolution_param {
    num_output: 24
    pad: 2
    kernel_size: 3
    stride: 1
    weight_filler {
      type: "gaussian"
      std: 0.01
    }
    bias_filler {
      type: "constant"
    }
  }
}
layer {
  name: "Sigmoid1"
  type: "Sigmoid"
  bottom: "conv1"
  top: "Sigmoid1"
}
layer {
  name: "pool1"
  type: "Pooling"
  bottom: "Sigmoid1"
  top: "pool1"
  pooling_param {
    pool: AVE
    kernel_size: 3
    stride: 2
  }
}
layer {
  name: "ip1"
  type: "InnerProduct"
  bottom: "pool1"
  top: "ip1"
  param {
    lr_mult: 1
  }
  param {
    lr_mult: 2
  }
  inner_product_param {
    num_output: 60
    weight_filler {
      type: "gaussian"
      std: 0.01
    }
    bias_filler {
      type: "constant"
    }
  }
}
layer {
  name: "relu1"
  type: "ReLU"
  bottom: "ip1"
  top: "ip1"
}
layer {
  name: "ip2"
  type: "InnerProduct"
  bottom: "ip1"
  top: "ip2"
  param {
    lr_mult: 1
  }
  param {
    lr_mult: 2
  }
  inner_product_param {
    num_output: 60
    weight_filler {
      type: "gaussian"
      std: 0.01
    }
    bias_filler {
      type: "constant"
    }
  }
}
layer {
  name: "relu2"
  type: "ReLU"
  bottom: "ip2"
  top: "ip2"
}
layer {
  name: "ip3"
  type: "InnerProduct"
  bottom: "ip2"
  top: "ip3"
  param {
    lr_mult: 1
  }
  param {
    lr_mult: 2
  }
  inner_product_param {
    num_output: 10
    weight_filler {
      type: "gaussian"
      std: 0.01
    }
    bias_filler {
      type: "constant"
    }
  }
}
layer {
  name: "loss"
  type: "SoftmaxWithLoss"
  bottom: "ip3"
  bottom: "label"
  top: "loss"
}
I0504 07:58:49.229830 20424 layer_factory.hpp:77] Creating layer cifar
I0504 07:58:49.229910 20424 db_lmdb.cpp:35] Opened lmdb examples/cifar10/cifar10_train_lmdb
I0504 07:58:49.229931 20424 net.cpp:86] Creating Layer cifar
I0504 07:58:49.229938 20424 net.cpp:382] cifar -> data
I0504 07:58:49.229971 20424 net.cpp:382] cifar -> label
I0504 07:58:49.229981 20424 data_transformer.cpp:25] Loading mean file from: examples/cifar10/mean.binaryproto
I0504 07:58:49.231724 20424 data_layer.cpp:45] output data size: 111,3,32,32
I0504 07:58:49.238205 20424 net.cpp:124] Setting up cifar
I0504 07:58:49.238221 20424 net.cpp:131] Top shape: 111 3 32 32 (340992)
I0504 07:58:49.238241 20424 net.cpp:131] Top shape: 111 (111)
I0504 07:58:49.238245 20424 net.cpp:139] Memory required for data: 1364412
I0504 07:58:49.238250 20424 layer_factory.hpp:77] Creating layer conv0
I0504 07:58:49.238275 20424 net.cpp:86] Creating Layer conv0
I0504 07:58:49.238294 20424 net.cpp:408] conv0 <- data
I0504 07:58:49.238306 20424 net.cpp:382] conv0 -> conv0
I0504 07:58:49.472190 20424 net.cpp:124] Setting up conv0
I0504 07:58:49.472216 20424 net.cpp:131] Top shape: 111 24 32 32 (2727936)
I0504 07:58:49.472220 20424 net.cpp:139] Memory required for data: 12276156
I0504 07:58:49.472234 20424 layer_factory.hpp:77] Creating layer Sigmoid0
I0504 07:58:49.472245 20424 net.cpp:86] Creating Layer Sigmoid0
I0504 07:58:49.472249 20424 net.cpp:408] Sigmoid0 <- conv0
I0504 07:58:49.472254 20424 net.cpp:382] Sigmoid0 -> Sigmoid0
I0504 07:58:49.472435 20424 net.cpp:124] Setting up Sigmoid0
I0504 07:58:49.472445 20424 net.cpp:131] Top shape: 111 24 32 32 (2727936)
I0504 07:58:49.472448 20424 net.cpp:139] Memory required for data: 23187900
I0504 07:58:49.472451 20424 layer_factory.hpp:77] Creating layer pool0
I0504 07:58:49.472458 20424 net.cpp:86] Creating Layer pool0
I0504 07:58:49.472461 20424 net.cpp:408] pool0 <- Sigmoid0
I0504 07:58:49.472465 20424 net.cpp:382] pool0 -> pool0
I0504 07:58:49.473206 20424 net.cpp:124] Setting up pool0
I0504 07:58:49.473217 20424 net.cpp:131] Top shape: 111 24 16 16 (681984)
I0504 07:58:49.473222 20424 net.cpp:139] Memory required for data: 25915836
I0504 07:58:49.473224 20424 layer_factory.hpp:77] Creating layer conv1
I0504 07:58:49.473235 20424 net.cpp:86] Creating Layer conv1
I0504 07:58:49.473238 20424 net.cpp:408] conv1 <- pool0
I0504 07:58:49.473243 20424 net.cpp:382] conv1 -> conv1
I0504 07:58:49.475797 20424 net.cpp:124] Setting up conv1
I0504 07:58:49.475810 20424 net.cpp:131] Top shape: 111 24 18 18 (863136)
I0504 07:58:49.475831 20424 net.cpp:139] Memory required for data: 29368380
I0504 07:58:49.475838 20424 layer_factory.hpp:77] Creating layer Sigmoid1
I0504 07:58:49.475844 20424 net.cpp:86] Creating Layer Sigmoid1
I0504 07:58:49.475847 20424 net.cpp:408] Sigmoid1 <- conv1
I0504 07:58:49.475867 20424 net.cpp:382] Sigmoid1 -> Sigmoid1
I0504 07:58:49.476032 20424 net.cpp:124] Setting up Sigmoid1
I0504 07:58:49.476040 20424 net.cpp:131] Top shape: 111 24 18 18 (863136)
I0504 07:58:49.476043 20424 net.cpp:139] Memory required for data: 32820924
I0504 07:58:49.476047 20424 layer_factory.hpp:77] Creating layer pool1
I0504 07:58:49.476066 20424 net.cpp:86] Creating Layer pool1
I0504 07:58:49.476069 20424 net.cpp:408] pool1 <- Sigmoid1
I0504 07:58:49.476073 20424 net.cpp:382] pool1 -> pool1
I0504 07:58:49.476244 20424 net.cpp:124] Setting up pool1
I0504 07:58:49.476251 20424 net.cpp:131] Top shape: 111 24 9 9 (215784)
I0504 07:58:49.476254 20424 net.cpp:139] Memory required for data: 33684060
I0504 07:58:49.476258 20424 layer_factory.hpp:77] Creating layer ip1
I0504 07:58:49.476265 20424 net.cpp:86] Creating Layer ip1
I0504 07:58:49.476267 20424 net.cpp:408] ip1 <- pool1
I0504 07:58:49.476272 20424 net.cpp:382] ip1 -> ip1
I0504 07:58:49.479432 20424 net.cpp:124] Setting up ip1
I0504 07:58:49.479442 20424 net.cpp:131] Top shape: 111 60 (6660)
I0504 07:58:49.479462 20424 net.cpp:139] Memory required for data: 33710700
I0504 07:58:49.479470 20424 layer_factory.hpp:77] Creating layer relu1
I0504 07:58:49.479475 20424 net.cpp:86] Creating Layer relu1
I0504 07:58:49.479478 20424 net.cpp:408] relu1 <- ip1
I0504 07:58:49.479498 20424 net.cpp:369] relu1 -> ip1 (in-place)
I0504 07:58:49.479660 20424 net.cpp:124] Setting up relu1
I0504 07:58:49.479668 20424 net.cpp:131] Top shape: 111 60 (6660)
I0504 07:58:49.479671 20424 net.cpp:139] Memory required for data: 33737340
I0504 07:58:49.479674 20424 layer_factory.hpp:77] Creating layer ip2
I0504 07:58:49.479679 20424 net.cpp:86] Creating Layer ip2
I0504 07:58:49.479682 20424 net.cpp:408] ip2 <- ip1
I0504 07:58:49.479703 20424 net.cpp:382] ip2 -> ip2
I0504 07:58:49.479887 20424 net.cpp:124] Setting up ip2
I0504 07:58:49.479893 20424 net.cpp:131] Top shape: 111 60 (6660)
I0504 07:58:49.479897 20424 net.cpp:139] Memory required for data: 33763980
I0504 07:58:49.479902 20424 layer_factory.hpp:77] Creating layer relu2
I0504 07:58:49.479905 20424 net.cpp:86] Creating Layer relu2
I0504 07:58:49.479908 20424 net.cpp:408] relu2 <- ip2
I0504 07:58:49.479912 20424 net.cpp:369] relu2 -> ip2 (in-place)
I0504 07:58:49.480589 20424 net.cpp:124] Setting up relu2
I0504 07:58:49.480600 20424 net.cpp:131] Top shape: 111 60 (6660)
I0504 07:58:49.480620 20424 net.cpp:139] Memory required for data: 33790620
I0504 07:58:49.480623 20424 layer_factory.hpp:77] Creating layer ip3
I0504 07:58:49.480630 20424 net.cpp:86] Creating Layer ip3
I0504 07:58:49.480633 20424 net.cpp:408] ip3 <- ip2
I0504 07:58:49.480638 20424 net.cpp:382] ip3 -> ip3
I0504 07:58:49.480779 20424 net.cpp:124] Setting up ip3
I0504 07:58:49.480787 20424 net.cpp:131] Top shape: 111 10 (1110)
I0504 07:58:49.480789 20424 net.cpp:139] Memory required for data: 33795060
I0504 07:58:49.480798 20424 layer_factory.hpp:77] Creating layer loss
I0504 07:58:49.480803 20424 net.cpp:86] Creating Layer loss
I0504 07:58:49.480814 20424 net.cpp:408] loss <- ip3
I0504 07:58:49.480818 20424 net.cpp:408] loss <- label
I0504 07:58:49.480839 20424 net.cpp:382] loss -> loss
I0504 07:58:49.480856 20424 layer_factory.hpp:77] Creating layer loss
…
I0504 07:58:49.481513 20424 solver.cpp:173] Creating test net (#0) specified by net file: ECE595/cifar/train_test/var_everything_tiny/cifar_train_test_91.prototxt
I0504 07:58:49.481586 20424 net.cpp:296] The NetState phase (1) differed from the phase (0) specified by a rule in layer cifar
I0504 07:58:49.481693 20424 net.cpp:53] Initializing net from parameters: 
name: "CIFAR"
state {
  phase: TEST
}
layer {
  name: "cifar"
  type: "Data"
  top: "data"
  top: "label"
  include {
    phase: TEST
  }
  transform_param {
    mean_file: "examples/cifar10/mean.binaryproto"
  }
  data_param {
    source: "examples/cifar10/cifar10_test_lmdb"
    batch_size: 1000
    backend: LMDB
  }
}
layer {
  name: "conv0"
  type: "Convolution"
  bottom: "data"
  top: "conv0"
  param {
    lr_mult: 1
  }
  param {
    lr_mult: 2
  }
  convolution_param {
    num_output: 24
    pad: 2
    kernel_size: 5
    stride: 1
    weight_filler {
      type: "gaussian"
      std: 0.01
    }
    bias_filler {
      type: "constant"
    }
  }
}
layer {
  name: "Sigmoid0"
  type: "Sigmoid"
  bottom: "conv0"
  top: "Sigmoid0"
}
layer {
  name: "pool0"
  type: "Pooling"
  bottom: "Sigmoid0"
  top: "pool0"
  pooling_param {
    pool: AVE
    kernel_size: 3
    stride: 2
  }
}
layer {
  name: "conv1"
  type: "Convolution"
  bottom: "pool0"
  top: "conv1"
  param {
    lr_mult: 1
  }
  param {
    lr_mult: 2
  }
  convolution_param {
    num_output: 24
    pad: 2
    kernel_size: 3
    stride: 1
    weight_filler {
      type: "gaussian"
      std: 0.01
    }
    bias_filler {
      type: "constant"
    }
  }
}
layer {
  name: "Sigmoid1"
  type: "Sigmoid"
  bottom: "conv1"
  top: "Sigmoid1"
}
layer {
  name: "pool1"
  type: "Pooling"
  bottom: "Sigmoid1"
  top: "pool1"
  pooling_param {
    pool: AVE
    kernel_size: 3
    stride: 2
  }
}
layer {
  name: "ip1"
  type: "InnerProduct"
  bottom: "pool1"
  top: "ip1"
  param {
    lr_mult: 1
  }
  param {
    lr_mult: 2
  }
  inner_product_param {
    num_output: 60
    weight_filler {
      type: "gaussian"
      std: 0.01
    }
    bias_filler {
      type: "constant"
    }
  }
}
layer {
  name: "relu1"
  type: "ReLU"
  bottom: "ip1"
  top: "ip1"
}
layer {
  name: "ip2"
  type: "InnerProduct"
  bottom: "ip1"
  top: "ip2"
  param {
    lr_mult: 1
  }
  param {
    lr_mult: 2
  }
  inner_product_param {
    num_output: 60
    weight_filler {
      type: "gaussian"
      std: 0.01
    }
    bias_filler {
      type: "constant"
    }
  }
}
layer {
  name: "relu2"
  type: "ReLU"
  bottom: "ip2"
  top: "ip2"
}
layer {
  name: "ip3"
  type: "InnerProduct"
  bottom: "ip2"
  top: "ip3"
  param {
    lr_mult: 1
  }
  param {
    lr_mult: 2
  }
  inner_product_param {
    num_output: 10
    weight_filler {
      type: "gaussian"
      std: 0.01
    }
    bias_filler {
      type: "constant"
    }
  }
}
layer {
  name: "accuracy"
  type: "Accuracy"
  bottom: "ip3"
  bottom: "label"
  top: "accuracy"
  include {
    phase: TEST
  }
}
layer {
  name: "loss"
  type: "SoftmaxWithLoss"
  bottom: "ip3"
  bottom: "label"
  top: "loss"
}
I0504 07:58:49.481773 20424 layer_factory.hpp:77] Creating layer cifar
I0504 07:58:49.481833 20424 db_lmdb.cpp:35] Opened lmdb examples/cifar10/cifar10_test_lmdb
I0504 07:58:49.481860 20424 net.cpp:86] Creating Layer cifar
I0504 07:58:49.481865 20424 net.cpp:382] cifar -> data
I0504 07:58:49.481873 20424 net.cpp:382] cifar -> label
I0504 07:58:49.481878 20424 data_transformer.cpp:25] Loading mean file from: examples/cifar10/mean.binaryproto
I0504 07:58:49.482013 20424 data_layer.cpp:45] output data size: 1000,3,32,32
I0504 07:58:49.503446 20424 net.cpp:124] Setting up cifar
I0504 07:58:49.503486 20424 net.cpp:131] Top shape: 1000 3 32 32 (3072000)
I0504 07:58:49.503507 20424 net.cpp:131] Top shape: 1000 (1000)
I0504 07:58:49.503510 20424 net.cpp:139] Memory required for data: 12292000
I0504 07:58:49.503515 20424 layer_factory.hpp:77] Creating layer label_cifar_1_split
I0504 07:58:49.503527 20424 net.cpp:86] Creating Layer label_cifar_1_split
I0504 07:58:49.503531 20424 net.cpp:408] label_cifar_1_split <- label
I0504 07:58:49.503537 20424 net.cpp:382] label_cifar_1_split -> label_cifar_1_split_0
I0504 07:58:49.503561 20424 net.cpp:382] label_cifar_1_split -> label_cifar_1_split_1
I0504 07:58:49.503667 20424 net.cpp:124] Setting up label_cifar_1_split
I0504 07:58:49.503675 20424 net.cpp:131] Top shape: 1000 (1000)
I0504 07:58:49.503679 20424 net.cpp:131] Top shape: 1000 (1000)
I0504 07:58:49.503681 20424 net.cpp:139] Memory required for data: 12300000
I0504 07:58:49.503684 20424 layer_factory.hpp:77] Creating layer conv0
I0504 07:58:49.503696 20424 net.cpp:86] Creating Layer conv0
I0504 07:58:49.503700 20424 net.cpp:408] conv0 <- data
I0504 07:58:49.503705 20424 net.cpp:382] conv0 -> conv0
I0504 07:58:49.505441 20424 net.cpp:124] Setting up conv0
I0504 07:58:49.505470 20424 net.cpp:131] Top shape: 1000 24 32 32 (24576000)
I0504 07:58:49.505475 20424 net.cpp:139] Memory required for data: 110604000
I0504 07:58:49.505483 20424 layer_factory.hpp:77] Creating layer Sigmoid0
I0504 07:58:49.505489 20424 net.cpp:86] Creating Layer Sigmoid0
I0504 07:58:49.505493 20424 net.cpp:408] Sigmoid0 <- conv0
I0504 07:58:49.505497 20424 net.cpp:382] Sigmoid0 -> Sigmoid0
I0504 07:58:49.505698 20424 net.cpp:124] Setting up Sigmoid0
I0504 07:58:49.505722 20424 net.cpp:131] Top shape: 1000 24 32 32 (24576000)
I0504 07:58:49.505725 20424 net.cpp:139] Memory required for data: 208908000
I0504 07:58:49.505728 20424 layer_factory.hpp:77] Creating layer pool0
I0504 07:58:49.505736 20424 net.cpp:86] Creating Layer pool0
I0504 07:58:49.505739 20424 net.cpp:408] pool0 <- Sigmoid0
I0504 07:58:49.505744 20424 net.cpp:382] pool0 -> pool0
I0504 07:58:49.505971 20424 net.cpp:124] Setting up pool0
I0504 07:58:49.505980 20424 net.cpp:131] Top shape: 1000 24 16 16 (6144000)
I0504 07:58:49.505983 20424 net.cpp:139] Memory required for data: 233484000
I0504 07:58:49.505986 20424 layer_factory.hpp:77] Creating layer conv1
I0504 07:58:49.505995 20424 net.cpp:86] Creating Layer conv1
I0504 07:58:49.505998 20424 net.cpp:408] conv1 <- pool0
I0504 07:58:49.506005 20424 net.cpp:382] conv1 -> conv1
I0504 07:58:49.508363 20424 net.cpp:124] Setting up conv1
I0504 07:58:49.508378 20424 net.cpp:131] Top shape: 1000 24 18 18 (7776000)
I0504 07:58:49.508396 20424 net.cpp:139] Memory required for data: 264588000
I0504 07:58:49.508404 20424 layer_factory.hpp:77] Creating layer Sigmoid1
I0504 07:58:49.508411 20424 net.cpp:86] Creating Layer Sigmoid1
I0504 07:58:49.508415 20424 net.cpp:408] Sigmoid1 <- conv1
I0504 07:58:49.508419 20424 net.cpp:382] Sigmoid1 -> Sigmoid1
I0504 07:58:49.508597 20424 net.cpp:124] Setting up Sigmoid1
I0504 07:58:49.508606 20424 net.cpp:131] Top shape: 1000 24 18 18 (7776000)
I0504 07:58:49.508610 20424 net.cpp:139] Memory required for data: 295692000
I0504 07:58:49.508612 20424 layer_factory.hpp:77] Creating layer pool1
I0504 07:58:49.508618 20424 net.cpp:86] Creating Layer pool1
I0504 07:58:49.508638 20424 net.cpp:408] pool1 <- Sigmoid1
I0504 07:58:49.508643 20424 net.cpp:382] pool1 -> pool1
I0504 07:58:49.509433 20424 net.cpp:124] Setting up pool1
I0504 07:58:49.509445 20424 net.cpp:131] Top shape: 1000 24 9 9 (1944000)
I0504 07:58:49.509466 20424 net.cpp:139] Memory required for data: 303468000
I0504 07:58:49.509470 20424 layer_factory.hpp:77] Creating layer ip1
I0504 07:58:49.509479 20424 net.cpp:86] Creating Layer ip1
I0504 07:58:49.509482 20424 net.cpp:408] ip1 <- pool1
I0504 07:58:49.509487 20424 net.cpp:382] ip1 -> ip1
I0504 07:58:49.512648 20424 net.cpp:124] Setting up ip1
I0504 07:58:49.512656 20424 net.cpp:131] Top shape: 1000 60 (60000)
I0504 07:58:49.512675 20424 net.cpp:139] Memory required for data: 303708000
I0504 07:58:49.512682 20424 layer_factory.hpp:77] Creating layer relu1
I0504 07:58:49.512687 20424 net.cpp:86] Creating Layer relu1
I0504 07:58:49.512692 20424 net.cpp:408] relu1 <- ip1
I0504 07:58:49.512696 20424 net.cpp:369] relu1 -> ip1 (in-place)
I0504 07:58:49.512904 20424 net.cpp:124] Setting up relu1
I0504 07:58:49.512929 20424 net.cpp:131] Top shape: 1000 60 (60000)
I0504 07:58:49.512933 20424 net.cpp:139] Memory required for data: 303948000
I0504 07:58:49.512936 20424 layer_factory.hpp:77] Creating layer ip2
I0504 07:58:49.512943 20424 net.cpp:86] Creating Layer ip2
I0504 07:58:49.512946 20424 net.cpp:408] ip2 <- ip1
I0504 07:58:49.512951 20424 net.cpp:382] ip2 -> ip2
I0504 07:58:49.513218 20424 net.cpp:124] Setting up ip2
I0504 07:58:49.513242 20424 net.cpp:131] Top shape: 1000 60 (60000)
I0504 07:58:49.513244 20424 net.cpp:139] Memory required for data: 304188000
I0504 07:58:49.513249 20424 layer_factory.hpp:77] Creating layer relu2
I0504 07:58:49.513254 20424 net.cpp:86] Creating Layer relu2
I0504 07:58:49.513257 20424 net.cpp:408] relu2 <- ip2
I0504 07:58:49.513262 20424 net.cpp:369] relu2 -> ip2 (in-place)
I0504 07:58:49.513424 20424 net.cpp:124] Setting up relu2
I0504 07:58:49.513432 20424 net.cpp:131] Top shape: 1000 60 (60000)
I0504 07:58:49.513435 20424 net.cpp:139] Memory required for data: 304428000
I0504 07:58:49.513437 20424 layer_factory.hpp:77] Creating layer ip3
I0504 07:58:49.513443 20424 net.cpp:86] Creating Layer ip3
I0504 07:58:49.513447 20424 net.cpp:408] ip3 <- ip2
I0504 07:58:49.513453 20424 net.cpp:382] ip3 -> ip3
I0504 07:58:49.513566 20424 net.cpp:124] Setting up ip3
I0504 07:58:49.513572 20424 net.cpp:131] Top shape: 1000 10 (10000)
I0504 07:58:49.513586 20424 net.cpp:139] Memory required for data: 304468000
I0504 07:58:49.513594 20424 layer_factory.hpp:77] Creating layer ip3_ip3_0_split
I0504 07:58:49.513599 20424 net.cpp:86] Creating Layer ip3_ip3_0_split
I0504 07:58:49.513602 20424 net.cpp:408] ip3_ip3_0_split <- ip3
I0504 07:58:49.513607 20424 net.cpp:382] ip3_ip3_0_split -> ip3_ip3_0_split_0
I0504 07:58:49.513612 20424 net.cpp:382] ip3_ip3_0_split -> ip3_ip3_0_split_1
I0504 07:58:49.513643 20424 net.cpp:124] Setting up ip3_ip3_0_split
I0504 07:58:49.513648 20424 net.cpp:131] Top shape: 1000 10 (10000)
I0504 07:58:49.513651 20424 net.cpp:131] Top shape: 1000 10 (10000)
I0504 07:58:49.513654 20424 net.cpp:139] Memory required for data: 304548000
I0504 07:58:49.513658 20424 layer_factory.hpp:77] Creating layer accuracy
I0504 07:58:49.513662 20424 net.cpp:86] Creating Layer accuracy
I0504 07:58:49.513665 20424 net.cpp:408] accuracy <- ip3_ip3_0_split_0
I0504 07:58:49.513669 20424 net.cpp:408] accuracy <- label_cifar_1_split_0
I0504 07:58:49.513674 20424 net.cpp:382] accuracy -> accuracy
…
