…
I0504 07:16:15.732899 18256 net.cpp:296] The NetState phase (0) differed from the phase (1) specified by a rule in layer cifar
I0504 07:16:15.732921 18256 net.cpp:296] The NetState phase (0) differed from the phase (1) specified by a rule in layer accuracy
I0504 07:16:15.733034 18256 net.cpp:53] Initializing net from parameters: 
name: "CIFAR"
state {
  phase: TRAIN
  level: 0
  stage: ""
}
layer {
  name: "cifar"
  type: "Data"
  top: "data"
  top: "label"
  include {
    phase: TRAIN
  }
  transform_param {
    mean_file: "examples/cifar10/mean.binaryproto"
  }
  data_param {
    source: "examples/cifar10/cifar10_train_lmdb"
    batch_size: 111
    backend: LMDB
  }
}
layer {
  name: "conv0"
  type: "Convolution"
  bottom: "data"
  top: "conv0"
  param {
    lr_mult: 1
  }
  param {
    lr_mult: 2
  }
  convolution_param {
    num_output: 24
    pad: 2
    kernel_size: 3
    stride: 1
    weight_filler {
      type: "gaussian"
      std: 0.01
    }
    bias_filler {
      type: "constant"
    }
  }
}
layer {
  name: "Sigmoid0"
  type: "Sigmoid"
  bottom: "conv0"
  top: "Sigmoid0"
}
layer {
  name: "pool0"
  type: "Pooling"
  bottom: "Sigmoid0"
  top: "pool0"
  pooling_param {
    pool: AVE
    kernel_size: 3
    stride: 2
  }
}
layer {
  name: "conv1"
  type: "Convolution"
  bottom: "pool0"
  top: "conv1"
  param {
    lr_mult: 1
  }
  param {
    lr_mult: 2
  }
  convolution_param {
    num_output: 24
    pad: 2
    kernel_size: 3
    stride: 1
    weight_filler {
      type: "gaussian"
      std: 0.01
    }
    bias_filler {
      type: "constant"
    }
  }
}
layer {
  name: "Sigmoid1"
  type: "Sigmoid"
  bottom: "conv1"
  top: "Sigmoid1"
}
layer {
  name: "pool1"
  type: "Pooling"
  bottom: "Sigmoid1"
  top: "pool1"
  pooling_param {
    pool: AVE
    kernel_size: 3
    stride: 2
  }
}
layer {
  name: "ip1"
  type: "InnerProduct"
  bottom: "pool1"
  top: "ip1"
  param {
    lr_mult: 1
  }
  param {
    lr_mult: 2
  }
  inner_product_param {
    num_output: 10
    weight_filler {
      type: "gaussian"
      std: 0.01
    }
    bias_filler {
      type: "constant"
    }
  }
}
layer {
  name: "relu1"
  type: "ReLU"
  bottom: "ip1"
  top: "ip1"
}
layer {
  name: "ip2"
  type: "InnerProduct"
  bottom: "ip1"
  top: "ip2"
  param {
    lr_mult: 1
  }
  param {
    lr_mult: 2
  }
  inner_product_param {
    num_output: 60
    weight_filler {
      type: "gaussian"
      std: 0.01
    }
    bias_filler {
      type: "constant"
    }
  }
}
layer {
  name: "relu2"
  type: "ReLU"
  bottom: "ip2"
  top: "ip2"
}
layer {
  name: "ip3"
  type: "InnerProduct"
  bottom: "ip2"
  top: "ip3"
  param {
    lr_mult: 1
  }
  param {
    lr_mult: 2
  }
  inner_product_param {
    num_output: 10
    weight_filler {
      type: "gaussian"
      std: 0.01
    }
    bias_filler {
      type: "constant"
    }
  }
}
layer {
  name: "loss"
  type: "SoftmaxWithLoss"
  bottom: "ip3"
  bottom: "label"
  top: "loss"
}
I0504 07:16:15.733117 18256 layer_factory.hpp:77] Creating layer cifar
I0504 07:16:15.733214 18256 db_lmdb.cpp:35] Opened lmdb examples/cifar10/cifar10_train_lmdb
I0504 07:16:15.733240 18256 net.cpp:86] Creating Layer cifar
I0504 07:16:15.733250 18256 net.cpp:382] cifar -> data
I0504 07:16:15.733273 18256 net.cpp:382] cifar -> label
I0504 07:16:15.733289 18256 data_transformer.cpp:25] Loading mean file from: examples/cifar10/mean.binaryproto
I0504 07:16:15.735436 18256 data_layer.cpp:45] output data size: 111,3,32,32
I0504 07:16:15.743391 18256 net.cpp:124] Setting up cifar
I0504 07:16:15.743409 18256 net.cpp:131] Top shape: 111 3 32 32 (340992)
I0504 07:16:15.743415 18256 net.cpp:131] Top shape: 111 (111)
I0504 07:16:15.743418 18256 net.cpp:139] Memory required for data: 1364412
I0504 07:16:15.743427 18256 layer_factory.hpp:77] Creating layer conv0
I0504 07:16:15.743468 18256 net.cpp:86] Creating Layer conv0
I0504 07:16:15.743477 18256 net.cpp:408] conv0 <- data
I0504 07:16:15.743491 18256 net.cpp:382] conv0 -> conv0
I0504 07:16:16.029695 18256 net.cpp:124] Setting up conv0
I0504 07:16:16.029722 18256 net.cpp:131] Top shape: 111 24 34 34 (3079584)
I0504 07:16:16.029726 18256 net.cpp:139] Memory required for data: 13682748
I0504 07:16:16.029742 18256 layer_factory.hpp:77] Creating layer Sigmoid0
I0504 07:16:16.029753 18256 net.cpp:86] Creating Layer Sigmoid0
I0504 07:16:16.029757 18256 net.cpp:408] Sigmoid0 <- conv0
I0504 07:16:16.029763 18256 net.cpp:382] Sigmoid0 -> Sigmoid0
I0504 07:16:16.029939 18256 net.cpp:124] Setting up Sigmoid0
I0504 07:16:16.029948 18256 net.cpp:131] Top shape: 111 24 34 34 (3079584)
I0504 07:16:16.029953 18256 net.cpp:139] Memory required for data: 26001084
I0504 07:16:16.029955 18256 layer_factory.hpp:77] Creating layer pool0
I0504 07:16:16.029963 18256 net.cpp:86] Creating Layer pool0
I0504 07:16:16.029965 18256 net.cpp:408] pool0 <- Sigmoid0
I0504 07:16:16.029970 18256 net.cpp:382] pool0 -> pool0
I0504 07:16:16.030705 18256 net.cpp:124] Setting up pool0
I0504 07:16:16.030719 18256 net.cpp:131] Top shape: 111 24 17 17 (769896)
I0504 07:16:16.030722 18256 net.cpp:139] Memory required for data: 29080668
I0504 07:16:16.030726 18256 layer_factory.hpp:77] Creating layer conv1
I0504 07:16:16.030738 18256 net.cpp:86] Creating Layer conv1
I0504 07:16:16.030742 18256 net.cpp:408] conv1 <- pool0
I0504 07:16:16.030748 18256 net.cpp:382] conv1 -> conv1
I0504 07:16:16.033519 18256 net.cpp:124] Setting up conv1
I0504 07:16:16.033534 18256 net.cpp:131] Top shape: 111 24 19 19 (961704)
I0504 07:16:16.033536 18256 net.cpp:139] Memory required for data: 32927484
I0504 07:16:16.033545 18256 layer_factory.hpp:77] Creating layer Sigmoid1
I0504 07:16:16.033551 18256 net.cpp:86] Creating Layer Sigmoid1
I0504 07:16:16.033555 18256 net.cpp:408] Sigmoid1 <- conv1
I0504 07:16:16.033560 18256 net.cpp:382] Sigmoid1 -> Sigmoid1
I0504 07:16:16.033725 18256 net.cpp:124] Setting up Sigmoid1
I0504 07:16:16.033733 18256 net.cpp:131] Top shape: 111 24 19 19 (961704)
I0504 07:16:16.033736 18256 net.cpp:139] Memory required for data: 36774300
I0504 07:16:16.033740 18256 layer_factory.hpp:77] Creating layer pool1
I0504 07:16:16.033746 18256 net.cpp:86] Creating Layer pool1
I0504 07:16:16.033748 18256 net.cpp:408] pool1 <- Sigmoid1
I0504 07:16:16.033753 18256 net.cpp:382] pool1 -> pool1
I0504 07:16:16.033906 18256 net.cpp:124] Setting up pool1
I0504 07:16:16.033915 18256 net.cpp:131] Top shape: 111 24 9 9 (215784)
I0504 07:16:16.033917 18256 net.cpp:139] Memory required for data: 37637436
I0504 07:16:16.033921 18256 layer_factory.hpp:77] Creating layer ip1
I0504 07:16:16.033927 18256 net.cpp:86] Creating Layer ip1
I0504 07:16:16.033931 18256 net.cpp:408] ip1 <- pool1
I0504 07:16:16.033936 18256 net.cpp:382] ip1 -> ip1
I0504 07:16:16.035326 18256 net.cpp:124] Setting up ip1
I0504 07:16:16.035338 18256 net.cpp:131] Top shape: 111 10 (1110)
I0504 07:16:16.035341 18256 net.cpp:139] Memory required for data: 37641876
I0504 07:16:16.035349 18256 layer_factory.hpp:77] Creating layer relu1
I0504 07:16:16.035356 18256 net.cpp:86] Creating Layer relu1
I0504 07:16:16.035359 18256 net.cpp:408] relu1 <- ip1
I0504 07:16:16.035364 18256 net.cpp:369] relu1 -> ip1 (in-place)
I0504 07:16:16.035521 18256 net.cpp:124] Setting up relu1
I0504 07:16:16.035529 18256 net.cpp:131] Top shape: 111 10 (1110)
I0504 07:16:16.035532 18256 net.cpp:139] Memory required for data: 37646316
I0504 07:16:16.035536 18256 layer_factory.hpp:77] Creating layer ip2
I0504 07:16:16.035542 18256 net.cpp:86] Creating Layer ip2
I0504 07:16:16.035544 18256 net.cpp:408] ip2 <- ip1
I0504 07:16:16.035563 18256 net.cpp:382] ip2 -> ip2
I0504 07:16:16.035681 18256 net.cpp:124] Setting up ip2
I0504 07:16:16.035687 18256 net.cpp:131] Top shape: 111 60 (6660)
I0504 07:16:16.035691 18256 net.cpp:139] Memory required for data: 37672956
I0504 07:16:16.035696 18256 layer_factory.hpp:77] Creating layer relu2
I0504 07:16:16.035701 18256 net.cpp:86] Creating Layer relu2
I0504 07:16:16.035704 18256 net.cpp:408] relu2 <- ip2
I0504 07:16:16.035708 18256 net.cpp:369] relu2 -> ip2 (in-place)
I0504 07:16:16.036403 18256 net.cpp:124] Setting up relu2
I0504 07:16:16.036415 18256 net.cpp:131] Top shape: 111 60 (6660)
I0504 07:16:16.036418 18256 net.cpp:139] Memory required for data: 37699596
I0504 07:16:16.036422 18256 layer_factory.hpp:77] Creating layer ip3
I0504 07:16:16.036429 18256 net.cpp:86] Creating Layer ip3
I0504 07:16:16.036432 18256 net.cpp:408] ip3 <- ip2
I0504 07:16:16.036437 18256 net.cpp:382] ip3 -> ip3
I0504 07:16:16.036551 18256 net.cpp:124] Setting up ip3
I0504 07:16:16.036558 18256 net.cpp:131] Top shape: 111 10 (1110)
I0504 07:16:16.036561 18256 net.cpp:139] Memory required for data: 37704036
I0504 07:16:16.036568 18256 layer_factory.hpp:77] Creating layer loss
I0504 07:16:16.036574 18256 net.cpp:86] Creating Layer loss
I0504 07:16:16.036577 18256 net.cpp:408] loss <- ip3
I0504 07:16:16.036581 18256 net.cpp:408] loss <- label
I0504 07:16:16.036586 18256 net.cpp:382] loss -> loss
I0504 07:16:16.036599 18256 layer_factory.hpp:77] Creating layer loss
…
I0504 07:16:16.037263 18256 solver.cpp:173] Creating test net (#0) specified by net file: ECE595/cifar/train_test/var_everything_tiny/cifar_train_test_76.prototxt
I0504 07:16:16.037289 18256 net.cpp:296] The NetState phase (1) differed from the phase (0) specified by a rule in layer cifar
I0504 07:16:16.037381 18256 net.cpp:53] Initializing net from parameters: 
name: "CIFAR"
state {
  phase: TEST
}
layer {
  name: "cifar"
  type: "Data"
  top: "data"
  top: "label"
  include {
    phase: TEST
  }
  transform_param {
    mean_file: "examples/cifar10/mean.binaryproto"
  }
  data_param {
    source: "examples/cifar10/cifar10_test_lmdb"
    batch_size: 1000
    backend: LMDB
  }
}
layer {
  name: "conv0"
  type: "Convolution"
  bottom: "data"
  top: "conv0"
  param {
    lr_mult: 1
  }
  param {
    lr_mult: 2
  }
  convolution_param {
    num_output: 24
    pad: 2
    kernel_size: 3
    stride: 1
    weight_filler {
      type: "gaussian"
      std: 0.01
    }
    bias_filler {
      type: "constant"
    }
  }
}
layer {
  name: "Sigmoid0"
  type: "Sigmoid"
  bottom: "conv0"
  top: "Sigmoid0"
}
layer {
  name: "pool0"
  type: "Pooling"
  bottom: "Sigmoid0"
  top: "pool0"
  pooling_param {
    pool: AVE
    kernel_size: 3
    stride: 2
  }
}
layer {
  name: "conv1"
  type: "Convolution"
  bottom: "pool0"
  top: "conv1"
  param {
    lr_mult: 1
  }
  param {
    lr_mult: 2
  }
  convolution_param {
    num_output: 24
    pad: 2
    kernel_size: 3
    stride: 1
    weight_filler {
      type: "gaussian"
      std: 0.01
    }
    bias_filler {
      type: "constant"
    }
  }
}
layer {
  name: "Sigmoid1"
  type: "Sigmoid"
  bottom: "conv1"
  top: "Sigmoid1"
}
layer {
  name: "pool1"
  type: "Pooling"
  bottom: "Sigmoid1"
  top: "pool1"
  pooling_param {
    pool: AVE
    kernel_size: 3
    stride: 2
  }
}
layer {
  name: "ip1"
  type: "InnerProduct"
  bottom: "pool1"
  top: "ip1"
  param {
    lr_mult: 1
  }
  param {
    lr_mult: 2
  }
  inner_product_param {
    num_output: 10
    weight_filler {
      type: "gaussian"
      std: 0.01
    }
    bias_filler {
      type: "constant"
    }
  }
}
layer {
  name: "relu1"
  type: "ReLU"
  bottom: "ip1"
  top: "ip1"
}
layer {
  name: "ip2"
  type: "InnerProduct"
  bottom: "ip1"
  top: "ip2"
  param {
    lr_mult: 1
  }
  param {
    lr_mult: 2
  }
  inner_product_param {
    num_output: 60
    weight_filler {
      type: "gaussian"
      std: 0.01
    }
    bias_filler {
      type: "constant"
    }
  }
}
layer {
  name: "relu2"
  type: "ReLU"
  bottom: "ip2"
  top: "ip2"
}
layer {
  name: "ip3"
  type: "InnerProduct"
  bottom: "ip2"
  top: "ip3"
  param {
    lr_mult: 1
  }
  param {
    lr_mult: 2
  }
  inner_product_param {
    num_output: 10
    weight_filler {
      type: "gaussian"
      std: 0.01
    }
    bias_filler {
      type: "constant"
    }
  }
}
layer {
  name: "accuracy"
  type: "Accuracy"
  bottom: "ip3"
  bottom: "label"
  top: "accuracy"
  include {
    phase: TEST
  }
}
layer {
  name: "loss"
  type: "SoftmaxWithLoss"
  bottom: "ip3"
  bottom: "label"
  top: "loss"
}
I0504 07:16:16.037461 18256 layer_factory.hpp:77] Creating layer cifar
I0504 07:16:16.037505 18256 db_lmdb.cpp:35] Opened lmdb examples/cifar10/cifar10_test_lmdb
I0504 07:16:16.037516 18256 net.cpp:86] Creating Layer cifar
I0504 07:16:16.037521 18256 net.cpp:382] cifar -> data
I0504 07:16:16.037528 18256 net.cpp:382] cifar -> label
I0504 07:16:16.037534 18256 data_transformer.cpp:25] Loading mean file from: examples/cifar10/mean.binaryproto
I0504 07:16:16.037669 18256 data_layer.cpp:45] output data size: 1000,3,32,32
I0504 07:16:16.059160 18256 net.cpp:124] Setting up cifar
I0504 07:16:16.059202 18256 net.cpp:131] Top shape: 1000 3 32 32 (3072000)
I0504 07:16:16.059207 18256 net.cpp:131] Top shape: 1000 (1000)
I0504 07:16:16.059211 18256 net.cpp:139] Memory required for data: 12292000
I0504 07:16:16.059216 18256 layer_factory.hpp:77] Creating layer label_cifar_1_split
I0504 07:16:16.059228 18256 net.cpp:86] Creating Layer label_cifar_1_split
I0504 07:16:16.059247 18256 net.cpp:408] label_cifar_1_split <- label
I0504 07:16:16.059253 18256 net.cpp:382] label_cifar_1_split -> label_cifar_1_split_0
I0504 07:16:16.059278 18256 net.cpp:382] label_cifar_1_split -> label_cifar_1_split_1
I0504 07:16:16.059379 18256 net.cpp:124] Setting up label_cifar_1_split
I0504 07:16:16.059386 18256 net.cpp:131] Top shape: 1000 (1000)
I0504 07:16:16.059391 18256 net.cpp:131] Top shape: 1000 (1000)
I0504 07:16:16.059408 18256 net.cpp:139] Memory required for data: 12300000
I0504 07:16:16.059412 18256 layer_factory.hpp:77] Creating layer conv0
I0504 07:16:16.059424 18256 net.cpp:86] Creating Layer conv0
I0504 07:16:16.059432 18256 net.cpp:408] conv0 <- data
I0504 07:16:16.059437 18256 net.cpp:382] conv0 -> conv0
I0504 07:16:16.061221 18256 net.cpp:124] Setting up conv0
I0504 07:16:16.061250 18256 net.cpp:131] Top shape: 1000 24 34 34 (27744000)
I0504 07:16:16.061254 18256 net.cpp:139] Memory required for data: 123276000
I0504 07:16:16.061264 18256 layer_factory.hpp:77] Creating layer Sigmoid0
I0504 07:16:16.061269 18256 net.cpp:86] Creating Layer Sigmoid0
I0504 07:16:16.061272 18256 net.cpp:408] Sigmoid0 <- conv0
I0504 07:16:16.061292 18256 net.cpp:382] Sigmoid0 -> Sigmoid0
I0504 07:16:16.061476 18256 net.cpp:124] Setting up Sigmoid0
I0504 07:16:16.061497 18256 net.cpp:131] Top shape: 1000 24 34 34 (27744000)
I0504 07:16:16.061501 18256 net.cpp:139] Memory required for data: 234252000
I0504 07:16:16.061504 18256 layer_factory.hpp:77] Creating layer pool0
I0504 07:16:16.061512 18256 net.cpp:86] Creating Layer pool0
I0504 07:16:16.061516 18256 net.cpp:408] pool0 <- Sigmoid0
I0504 07:16:16.061520 18256 net.cpp:382] pool0 -> pool0
I0504 07:16:16.061682 18256 net.cpp:124] Setting up pool0
I0504 07:16:16.061691 18256 net.cpp:131] Top shape: 1000 24 17 17 (6936000)
I0504 07:16:16.061693 18256 net.cpp:139] Memory required for data: 261996000
I0504 07:16:16.061697 18256 layer_factory.hpp:77] Creating layer conv1
I0504 07:16:16.061705 18256 net.cpp:86] Creating Layer conv1
I0504 07:16:16.061708 18256 net.cpp:408] conv1 <- pool0
I0504 07:16:16.061714 18256 net.cpp:382] conv1 -> conv1
I0504 07:16:16.064033 18256 net.cpp:124] Setting up conv1
I0504 07:16:16.064061 18256 net.cpp:131] Top shape: 1000 24 19 19 (8664000)
I0504 07:16:16.064065 18256 net.cpp:139] Memory required for data: 296652000
I0504 07:16:16.064074 18256 layer_factory.hpp:77] Creating layer Sigmoid1
I0504 07:16:16.064079 18256 net.cpp:86] Creating Layer Sigmoid1
I0504 07:16:16.064083 18256 net.cpp:408] Sigmoid1 <- conv1
I0504 07:16:16.064102 18256 net.cpp:382] Sigmoid1 -> Sigmoid1
I0504 07:16:16.064261 18256 net.cpp:124] Setting up Sigmoid1
I0504 07:16:16.064271 18256 net.cpp:131] Top shape: 1000 24 19 19 (8664000)
I0504 07:16:16.064275 18256 net.cpp:139] Memory required for data: 331308000
I0504 07:16:16.064277 18256 layer_factory.hpp:77] Creating layer pool1
I0504 07:16:16.064283 18256 net.cpp:86] Creating Layer pool1
I0504 07:16:16.064286 18256 net.cpp:408] pool1 <- Sigmoid1
I0504 07:16:16.064291 18256 net.cpp:382] pool1 -> pool1
I0504 07:16:16.065073 18256 net.cpp:124] Setting up pool1
I0504 07:16:16.065086 18256 net.cpp:131] Top shape: 1000 24 9 9 (1944000)
I0504 07:16:16.065105 18256 net.cpp:139] Memory required for data: 339084000
I0504 07:16:16.065110 18256 layer_factory.hpp:77] Creating layer ip1
I0504 07:16:16.065119 18256 net.cpp:86] Creating Layer ip1
I0504 07:16:16.065122 18256 net.cpp:408] ip1 <- pool1
I0504 07:16:16.065143 18256 net.cpp:382] ip1 -> ip1
I0504 07:16:16.065779 18256 net.cpp:124] Setting up ip1
I0504 07:16:16.065788 18256 net.cpp:131] Top shape: 1000 10 (10000)
I0504 07:16:16.065805 18256 net.cpp:139] Memory required for data: 339124000
I0504 07:16:16.065812 18256 layer_factory.hpp:77] Creating layer relu1
I0504 07:16:16.065819 18256 net.cpp:86] Creating Layer relu1
I0504 07:16:16.065821 18256 net.cpp:408] relu1 <- ip1
I0504 07:16:16.065840 18256 net.cpp:369] relu1 -> ip1 (in-place)
I0504 07:16:16.066004 18256 net.cpp:124] Setting up relu1
I0504 07:16:16.066011 18256 net.cpp:131] Top shape: 1000 10 (10000)
I0504 07:16:16.066015 18256 net.cpp:139] Memory required for data: 339164000
I0504 07:16:16.066018 18256 layer_factory.hpp:77] Creating layer ip2
I0504 07:16:16.066025 18256 net.cpp:86] Creating Layer ip2
I0504 07:16:16.066027 18256 net.cpp:408] ip2 <- ip1
I0504 07:16:16.066032 18256 net.cpp:382] ip2 -> ip2
I0504 07:16:16.066170 18256 net.cpp:124] Setting up ip2
I0504 07:16:16.066177 18256 net.cpp:131] Top shape: 1000 60 (60000)
I0504 07:16:16.066180 18256 net.cpp:139] Memory required for data: 339404000
I0504 07:16:16.066185 18256 layer_factory.hpp:77] Creating layer relu2
I0504 07:16:16.066190 18256 net.cpp:86] Creating Layer relu2
I0504 07:16:16.066193 18256 net.cpp:408] relu2 <- ip2
I0504 07:16:16.066197 18256 net.cpp:369] relu2 -> ip2 (in-place)
I0504 07:16:16.066335 18256 net.cpp:124] Setting up relu2
I0504 07:16:16.066344 18256 net.cpp:131] Top shape: 1000 60 (60000)
I0504 07:16:16.066346 18256 net.cpp:139] Memory required for data: 339644000
I0504 07:16:16.066349 18256 layer_factory.hpp:77] Creating layer ip3
I0504 07:16:16.066355 18256 net.cpp:86] Creating Layer ip3
I0504 07:16:16.066359 18256 net.cpp:408] ip3 <- ip2
I0504 07:16:16.066364 18256 net.cpp:382] ip3 -> ip3
I0504 07:16:16.066473 18256 net.cpp:124] Setting up ip3
I0504 07:16:16.066478 18256 net.cpp:131] Top shape: 1000 10 (10000)
I0504 07:16:16.066491 18256 net.cpp:139] Memory required for data: 339684000
I0504 07:16:16.066500 18256 layer_factory.hpp:77] Creating layer ip3_ip3_0_split
I0504 07:16:16.066505 18256 net.cpp:86] Creating Layer ip3_ip3_0_split
I0504 07:16:16.066509 18256 net.cpp:408] ip3_ip3_0_split <- ip3
I0504 07:16:16.066512 18256 net.cpp:382] ip3_ip3_0_split -> ip3_ip3_0_split_0
I0504 07:16:16.066519 18256 net.cpp:382] ip3_ip3_0_split -> ip3_ip3_0_split_1
I0504 07:16:16.066550 18256 net.cpp:124] Setting up ip3_ip3_0_split
I0504 07:16:16.066555 18256 net.cpp:131] Top shape: 1000 10 (10000)
I0504 07:16:16.066558 18256 net.cpp:131] Top shape: 1000 10 (10000)
I0504 07:16:16.066561 18256 net.cpp:139] Memory required for data: 339764000
I0504 07:16:16.066565 18256 layer_factory.hpp:77] Creating layer accuracy
I0504 07:16:16.066570 18256 net.cpp:86] Creating Layer accuracy
I0504 07:16:16.066573 18256 net.cpp:408] accuracy <- ip3_ip3_0_split_0
I0504 07:16:16.066577 18256 net.cpp:408] accuracy <- label_cifar_1_split_0
I0504 07:16:16.066581 18256 net.cpp:382] accuracy -> accuracy
…
