…
I0504 07:34:14.449970 19445 net.cpp:296] The NetState phase (0) differed from the phase (1) specified by a rule in layer cifar
I0504 07:34:14.449986 19445 net.cpp:296] The NetState phase (0) differed from the phase (1) specified by a rule in layer accuracy
I0504 07:34:14.450106 19445 net.cpp:53] Initializing net from parameters: 
name: "CIFAR"
state {
  phase: TRAIN
  level: 0
  stage: ""
}
layer {
  name: "cifar"
  type: "Data"
  top: "data"
  top: "label"
  include {
    phase: TRAIN
  }
  transform_param {
    mean_file: "examples/cifar10/mean.binaryproto"
  }
  data_param {
    source: "examples/cifar10/cifar10_train_lmdb"
    batch_size: 111
    backend: LMDB
  }
}
layer {
  name: "conv0"
  type: "Convolution"
  bottom: "data"
  top: "conv0"
  param {
    lr_mult: 1
  }
  param {
    lr_mult: 2
  }
  convolution_param {
    num_output: 24
    pad: 2
    kernel_size: 3
    stride: 1
    weight_filler {
      type: "gaussian"
      std: 0.01
    }
    bias_filler {
      type: "constant"
    }
  }
}
layer {
  name: "Sigmoid0"
  type: "Sigmoid"
  bottom: "conv0"
  top: "Sigmoid0"
}
layer {
  name: "pool0"
  type: "Pooling"
  bottom: "Sigmoid0"
  top: "pool0"
  pooling_param {
    pool: AVE
    kernel_size: 3
    stride: 2
  }
}
layer {
  name: "conv1"
  type: "Convolution"
  bottom: "pool0"
  top: "conv1"
  param {
    lr_mult: 1
  }
  param {
    lr_mult: 2
  }
  convolution_param {
    num_output: 24
    pad: 2
    kernel_size: 3
    stride: 1
    weight_filler {
      type: "gaussian"
      std: 0.01
    }
    bias_filler {
      type: "constant"
    }
  }
}
layer {
  name: "Sigmoid1"
  type: "Sigmoid"
  bottom: "conv1"
  top: "Sigmoid1"
}
layer {
  name: "pool1"
  type: "Pooling"
  bottom: "Sigmoid1"
  top: "pool1"
  pooling_param {
    pool: AVE
    kernel_size: 3
    stride: 2
  }
}
layer {
  name: "ip1"
  type: "InnerProduct"
  bottom: "pool1"
  top: "ip1"
  param {
    lr_mult: 1
  }
  param {
    lr_mult: 2
  }
  inner_product_param {
    num_output: 180
    weight_filler {
      type: "gaussian"
      std: 0.01
    }
    bias_filler {
      type: "constant"
    }
  }
}
layer {
  name: "relu1"
  type: "ReLU"
  bottom: "ip1"
  top: "ip1"
}
layer {
  name: "ip2"
  type: "InnerProduct"
  bottom: "ip1"
  top: "ip2"
  param {
    lr_mult: 1
  }
  param {
    lr_mult: 2
  }
  inner_product_param {
    num_output: 60
    weight_filler {
      type: "gaussian"
      std: 0.01
    }
    bias_filler {
      type: "constant"
    }
  }
}
layer {
  name: "relu2"
  type: "ReLU"
  bottom: "ip2"
  top: "ip2"
}
layer {
  name: "ip3"
  type: "InnerProduct"
  bottom: "ip2"
  top: "ip3"
  param {
    lr_mult: 1
  }
  param {
    lr_mult: 2
  }
  inner_product_param {
    num_output: 10
    weight_filler {
      type: "gaussian"
      std: 0.01
    }
    bias_filler {
      type: "constant"
    }
  }
}
layer {
  name: "loss"
  type: "SoftmaxWithLoss"
  bottom: "ip3"
  bottom: "label"
  top: "loss"
}
I0504 07:34:14.450172 19445 layer_factory.hpp:77] Creating layer cifar
I0504 07:34:14.450253 19445 db_lmdb.cpp:35] Opened lmdb examples/cifar10/cifar10_train_lmdb
I0504 07:34:14.450278 19445 net.cpp:86] Creating Layer cifar
I0504 07:34:14.450285 19445 net.cpp:382] cifar -> data
I0504 07:34:14.450304 19445 net.cpp:382] cifar -> label
I0504 07:34:14.450314 19445 data_transformer.cpp:25] Loading mean file from: examples/cifar10/mean.binaryproto
I0504 07:34:14.452045 19445 data_layer.cpp:45] output data size: 111,3,32,32
I0504 07:34:14.458465 19445 net.cpp:124] Setting up cifar
I0504 07:34:14.458480 19445 net.cpp:131] Top shape: 111 3 32 32 (340992)
I0504 07:34:14.458484 19445 net.cpp:131] Top shape: 111 (111)
I0504 07:34:14.458487 19445 net.cpp:139] Memory required for data: 1364412
I0504 07:34:14.458493 19445 layer_factory.hpp:77] Creating layer conv0
I0504 07:34:14.458531 19445 net.cpp:86] Creating Layer conv0
I0504 07:34:14.458536 19445 net.cpp:408] conv0 <- data
I0504 07:34:14.458547 19445 net.cpp:382] conv0 -> conv0
I0504 07:34:14.693600 19445 net.cpp:124] Setting up conv0
I0504 07:34:14.693644 19445 net.cpp:131] Top shape: 111 24 34 34 (3079584)
I0504 07:34:14.693647 19445 net.cpp:139] Memory required for data: 13682748
I0504 07:34:14.693663 19445 layer_factory.hpp:77] Creating layer Sigmoid0
I0504 07:34:14.693691 19445 net.cpp:86] Creating Layer Sigmoid0
I0504 07:34:14.693709 19445 net.cpp:408] Sigmoid0 <- conv0
I0504 07:34:14.693714 19445 net.cpp:382] Sigmoid0 -> Sigmoid0
I0504 07:34:14.693928 19445 net.cpp:124] Setting up Sigmoid0
I0504 07:34:14.693936 19445 net.cpp:131] Top shape: 111 24 34 34 (3079584)
I0504 07:34:14.693939 19445 net.cpp:139] Memory required for data: 26001084
I0504 07:34:14.693943 19445 layer_factory.hpp:77] Creating layer pool0
I0504 07:34:14.693950 19445 net.cpp:86] Creating Layer pool0
I0504 07:34:14.693953 19445 net.cpp:408] pool0 <- Sigmoid0
I0504 07:34:14.693958 19445 net.cpp:382] pool0 -> pool0
I0504 07:34:14.694747 19445 net.cpp:124] Setting up pool0
I0504 07:34:14.694759 19445 net.cpp:131] Top shape: 111 24 17 17 (769896)
I0504 07:34:14.694779 19445 net.cpp:139] Memory required for data: 29080668
I0504 07:34:14.694782 19445 layer_factory.hpp:77] Creating layer conv1
I0504 07:34:14.694794 19445 net.cpp:86] Creating Layer conv1
I0504 07:34:14.694798 19445 net.cpp:408] conv1 <- pool0
I0504 07:34:14.694819 19445 net.cpp:382] conv1 -> conv1
I0504 07:34:14.697634 19445 net.cpp:124] Setting up conv1
I0504 07:34:14.697664 19445 net.cpp:131] Top shape: 111 24 19 19 (961704)
I0504 07:34:14.697667 19445 net.cpp:139] Memory required for data: 32927484
I0504 07:34:14.697675 19445 layer_factory.hpp:77] Creating layer Sigmoid1
I0504 07:34:14.697685 19445 net.cpp:86] Creating Layer Sigmoid1
I0504 07:34:14.697701 19445 net.cpp:408] Sigmoid1 <- conv1
I0504 07:34:14.697706 19445 net.cpp:382] Sigmoid1 -> Sigmoid1
I0504 07:34:14.697882 19445 net.cpp:124] Setting up Sigmoid1
I0504 07:34:14.697891 19445 net.cpp:131] Top shape: 111 24 19 19 (961704)
I0504 07:34:14.697895 19445 net.cpp:139] Memory required for data: 36774300
I0504 07:34:14.697897 19445 layer_factory.hpp:77] Creating layer pool1
I0504 07:34:14.697903 19445 net.cpp:86] Creating Layer pool1
I0504 07:34:14.697906 19445 net.cpp:408] pool1 <- Sigmoid1
I0504 07:34:14.697911 19445 net.cpp:382] pool1 -> pool1
I0504 07:34:14.698081 19445 net.cpp:124] Setting up pool1
I0504 07:34:14.698089 19445 net.cpp:131] Top shape: 111 24 9 9 (215784)
I0504 07:34:14.698092 19445 net.cpp:139] Memory required for data: 37637436
I0504 07:34:14.698096 19445 layer_factory.hpp:77] Creating layer ip1
I0504 07:34:14.698103 19445 net.cpp:86] Creating Layer ip1
I0504 07:34:14.698107 19445 net.cpp:408] ip1 <- pool1
I0504 07:34:14.698112 19445 net.cpp:382] ip1 -> ip1
I0504 07:34:14.708204 19445 net.cpp:124] Setting up ip1
I0504 07:34:14.708232 19445 net.cpp:131] Top shape: 111 180 (19980)
I0504 07:34:14.708235 19445 net.cpp:139] Memory required for data: 37717356
I0504 07:34:14.708243 19445 layer_factory.hpp:77] Creating layer relu1
I0504 07:34:14.708251 19445 net.cpp:86] Creating Layer relu1
I0504 07:34:14.708254 19445 net.cpp:408] relu1 <- ip1
I0504 07:34:14.708273 19445 net.cpp:369] relu1 -> ip1 (in-place)
I0504 07:34:14.708461 19445 net.cpp:124] Setting up relu1
I0504 07:34:14.708468 19445 net.cpp:131] Top shape: 111 180 (19980)
I0504 07:34:14.708473 19445 net.cpp:139] Memory required for data: 37797276
I0504 07:34:14.708477 19445 layer_factory.hpp:77] Creating layer ip2
I0504 07:34:14.708482 19445 net.cpp:86] Creating Layer ip2
I0504 07:34:14.708485 19445 net.cpp:408] ip2 <- ip1
I0504 07:34:14.708508 19445 net.cpp:382] ip2 -> ip2
I0504 07:34:14.709018 19445 net.cpp:124] Setting up ip2
I0504 07:34:14.709026 19445 net.cpp:131] Top shape: 111 60 (6660)
I0504 07:34:14.709045 19445 net.cpp:139] Memory required for data: 37823916
I0504 07:34:14.709050 19445 layer_factory.hpp:77] Creating layer relu2
I0504 07:34:14.709058 19445 net.cpp:86] Creating Layer relu2
I0504 07:34:14.709060 19445 net.cpp:408] relu2 <- ip2
I0504 07:34:14.709064 19445 net.cpp:369] relu2 -> ip2 (in-place)
I0504 07:34:14.709870 19445 net.cpp:124] Setting up relu2
I0504 07:34:14.709900 19445 net.cpp:131] Top shape: 111 60 (6660)
I0504 07:34:14.709903 19445 net.cpp:139] Memory required for data: 37850556
I0504 07:34:14.709908 19445 layer_factory.hpp:77] Creating layer ip3
I0504 07:34:14.709913 19445 net.cpp:86] Creating Layer ip3
I0504 07:34:14.709916 19445 net.cpp:408] ip3 <- ip2
I0504 07:34:14.709938 19445 net.cpp:382] ip3 -> ip3
I0504 07:34:14.710057 19445 net.cpp:124] Setting up ip3
I0504 07:34:14.710063 19445 net.cpp:131] Top shape: 111 10 (1110)
I0504 07:34:14.710067 19445 net.cpp:139] Memory required for data: 37854996
I0504 07:34:14.710075 19445 layer_factory.hpp:77] Creating layer loss
I0504 07:34:14.710080 19445 net.cpp:86] Creating Layer loss
I0504 07:34:14.710083 19445 net.cpp:408] loss <- ip3
I0504 07:34:14.710086 19445 net.cpp:408] loss <- label
I0504 07:34:14.710093 19445 net.cpp:382] loss -> loss
I0504 07:34:14.710108 19445 layer_factory.hpp:77] Creating layer loss
…
I0504 07:34:14.710834 19445 solver.cpp:173] Creating test net (#0) specified by net file: ECE595/cifar/train_test/var_everything_tiny/cifar_train_test_82.prototxt
I0504 07:34:14.710876 19445 net.cpp:296] The NetState phase (1) differed from the phase (0) specified by a rule in layer cifar
I0504 07:34:14.711004 19445 net.cpp:53] Initializing net from parameters: 
name: "CIFAR"
state {
  phase: TEST
}
layer {
  name: "cifar"
  type: "Data"
  top: "data"
  top: "label"
  include {
    phase: TEST
  }
  transform_param {
    mean_file: "examples/cifar10/mean.binaryproto"
  }
  data_param {
    source: "examples/cifar10/cifar10_test_lmdb"
    batch_size: 1000
    backend: LMDB
  }
}
layer {
  name: "conv0"
  type: "Convolution"
  bottom: "data"
  top: "conv0"
  param {
    lr_mult: 1
  }
  param {
    lr_mult: 2
  }
  convolution_param {
    num_output: 24
    pad: 2
    kernel_size: 3
    stride: 1
    weight_filler {
      type: "gaussian"
      std: 0.01
    }
    bias_filler {
      type: "constant"
    }
  }
}
layer {
  name: "Sigmoid0"
  type: "Sigmoid"
  bottom: "conv0"
  top: "Sigmoid0"
}
layer {
  name: "pool0"
  type: "Pooling"
  bottom: "Sigmoid0"
  top: "pool0"
  pooling_param {
    pool: AVE
    kernel_size: 3
    stride: 2
  }
}
layer {
  name: "conv1"
  type: "Convolution"
  bottom: "pool0"
  top: "conv1"
  param {
    lr_mult: 1
  }
  param {
    lr_mult: 2
  }
  convolution_param {
    num_output: 24
    pad: 2
    kernel_size: 3
    stride: 1
    weight_filler {
      type: "gaussian"
      std: 0.01
    }
    bias_filler {
      type: "constant"
    }
  }
}
layer {
  name: "Sigmoid1"
  type: "Sigmoid"
  bottom: "conv1"
  top: "Sigmoid1"
}
layer {
  name: "pool1"
  type: "Pooling"
  bottom: "Sigmoid1"
  top: "pool1"
  pooling_param {
    pool: AVE
    kernel_size: 3
    stride: 2
  }
}
layer {
  name: "ip1"
  type: "InnerProduct"
  bottom: "pool1"
  top: "ip1"
  param {
    lr_mult: 1
  }
  param {
    lr_mult: 2
  }
  inner_product_param {
    num_output: 180
    weight_filler {
      type: "gaussian"
      std: 0.01
    }
    bias_filler {
      type: "constant"
    }
  }
}
layer {
  name: "relu1"
  type: "ReLU"
  bottom: "ip1"
  top: "ip1"
}
layer {
  name: "ip2"
  type: "InnerProduct"
  bottom: "ip1"
  top: "ip2"
  param {
    lr_mult: 1
  }
  param {
    lr_mult: 2
  }
  inner_product_param {
    num_output: 60
    weight_filler {
      type: "gaussian"
      std: 0.01
    }
    bias_filler {
      type: "constant"
    }
  }
}
layer {
  name: "relu2"
  type: "ReLU"
  bottom: "ip2"
  top: "ip2"
}
layer {
  name: "ip3"
  type: "InnerProduct"
  bottom: "ip2"
  top: "ip3"
  param {
    lr_mult: 1
  }
  param {
    lr_mult: 2
  }
  inner_product_param {
    num_output: 10
    weight_filler {
      type: "gaussian"
      std: 0.01
    }
    bias_filler {
      type: "constant"
    }
  }
}
layer {
  name: "accuracy"
  type: "Accuracy"
  bottom: "ip3"
  bottom: "label"
  top: "accuracy"
  include {
    phase: TEST
  }
}
layer {
  name: "loss"
  type: "SoftmaxWithLoss"
  bottom: "ip3"
  bottom: "label"
  top: "loss"
}
I0504 07:34:14.711088 19445 layer_factory.hpp:77] Creating layer cifar
I0504 07:34:14.711130 19445 db_lmdb.cpp:35] Opened lmdb examples/cifar10/cifar10_test_lmdb
I0504 07:34:14.711143 19445 net.cpp:86] Creating Layer cifar
I0504 07:34:14.711148 19445 net.cpp:382] cifar -> data
I0504 07:34:14.711154 19445 net.cpp:382] cifar -> label
I0504 07:34:14.711161 19445 data_transformer.cpp:25] Loading mean file from: examples/cifar10/mean.binaryproto
I0504 07:34:14.711305 19445 data_layer.cpp:45] output data size: 1000,3,32,32
I0504 07:34:14.733332 19445 net.cpp:124] Setting up cifar
I0504 07:34:14.733374 19445 net.cpp:131] Top shape: 1000 3 32 32 (3072000)
I0504 07:34:14.733381 19445 net.cpp:131] Top shape: 1000 (1000)
I0504 07:34:14.733383 19445 net.cpp:139] Memory required for data: 12292000
I0504 07:34:14.733388 19445 layer_factory.hpp:77] Creating layer label_cifar_1_split
I0504 07:34:14.733404 19445 net.cpp:86] Creating Layer label_cifar_1_split
I0504 07:34:14.733408 19445 net.cpp:408] label_cifar_1_split <- label
I0504 07:34:14.733414 19445 net.cpp:382] label_cifar_1_split -> label_cifar_1_split_0
I0504 07:34:14.733422 19445 net.cpp:382] label_cifar_1_split -> label_cifar_1_split_1
I0504 07:34:14.733489 19445 net.cpp:124] Setting up label_cifar_1_split
I0504 07:34:14.733496 19445 net.cpp:131] Top shape: 1000 (1000)
I0504 07:34:14.733500 19445 net.cpp:131] Top shape: 1000 (1000)
I0504 07:34:14.733503 19445 net.cpp:139] Memory required for data: 12300000
I0504 07:34:14.733506 19445 layer_factory.hpp:77] Creating layer conv0
I0504 07:34:14.733536 19445 net.cpp:86] Creating Layer conv0
I0504 07:34:14.733541 19445 net.cpp:408] conv0 <- data
I0504 07:34:14.733548 19445 net.cpp:382] conv0 -> conv0
I0504 07:34:14.736096 19445 net.cpp:124] Setting up conv0
I0504 07:34:14.736126 19445 net.cpp:131] Top shape: 1000 24 34 34 (27744000)
I0504 07:34:14.736130 19445 net.cpp:139] Memory required for data: 123276000
I0504 07:34:14.736140 19445 layer_factory.hpp:77] Creating layer Sigmoid0
I0504 07:34:14.736147 19445 net.cpp:86] Creating Layer Sigmoid0
I0504 07:34:14.736150 19445 net.cpp:408] Sigmoid0 <- conv0
I0504 07:34:14.736156 19445 net.cpp:382] Sigmoid0 -> Sigmoid0
I0504 07:34:14.736366 19445 net.cpp:124] Setting up Sigmoid0
I0504 07:34:14.736388 19445 net.cpp:131] Top shape: 1000 24 34 34 (27744000)
I0504 07:34:14.736392 19445 net.cpp:139] Memory required for data: 234252000
I0504 07:34:14.736395 19445 layer_factory.hpp:77] Creating layer pool0
I0504 07:34:14.736403 19445 net.cpp:86] Creating Layer pool0
I0504 07:34:14.736410 19445 net.cpp:408] pool0 <- Sigmoid0
I0504 07:34:14.736415 19445 net.cpp:382] pool0 -> pool0
I0504 07:34:14.736593 19445 net.cpp:124] Setting up pool0
I0504 07:34:14.736603 19445 net.cpp:131] Top shape: 1000 24 17 17 (6936000)
I0504 07:34:14.736606 19445 net.cpp:139] Memory required for data: 261996000
I0504 07:34:14.736609 19445 layer_factory.hpp:77] Creating layer conv1
I0504 07:34:14.736619 19445 net.cpp:86] Creating Layer conv1
I0504 07:34:14.736623 19445 net.cpp:408] conv1 <- pool0
I0504 07:34:14.736629 19445 net.cpp:382] conv1 -> conv1
I0504 07:34:14.738162 19445 net.cpp:124] Setting up conv1
I0504 07:34:14.738191 19445 net.cpp:131] Top shape: 1000 24 19 19 (8664000)
I0504 07:34:14.738194 19445 net.cpp:139] Memory required for data: 296652000
I0504 07:34:14.738217 19445 layer_factory.hpp:77] Creating layer Sigmoid1
I0504 07:34:14.738225 19445 net.cpp:86] Creating Layer Sigmoid1
I0504 07:34:14.738229 19445 net.cpp:408] Sigmoid1 <- conv1
I0504 07:34:14.738234 19445 net.cpp:382] Sigmoid1 -> Sigmoid1
I0504 07:34:14.738407 19445 net.cpp:124] Setting up Sigmoid1
I0504 07:34:14.738417 19445 net.cpp:131] Top shape: 1000 24 19 19 (8664000)
I0504 07:34:14.738421 19445 net.cpp:139] Memory required for data: 331308000
I0504 07:34:14.738425 19445 layer_factory.hpp:77] Creating layer pool1
I0504 07:34:14.738430 19445 net.cpp:86] Creating Layer pool1
I0504 07:34:14.738432 19445 net.cpp:408] pool1 <- Sigmoid1
I0504 07:34:14.738438 19445 net.cpp:382] pool1 -> pool1
I0504 07:34:14.739187 19445 net.cpp:124] Setting up pool1
I0504 07:34:14.739199 19445 net.cpp:131] Top shape: 1000 24 9 9 (1944000)
I0504 07:34:14.739202 19445 net.cpp:139] Memory required for data: 339084000
I0504 07:34:14.739222 19445 layer_factory.hpp:77] Creating layer ip1
I0504 07:34:14.739234 19445 net.cpp:86] Creating Layer ip1
I0504 07:34:14.739238 19445 net.cpp:408] ip1 <- pool1
I0504 07:34:14.739243 19445 net.cpp:382] ip1 -> ip1
I0504 07:34:14.750203 19445 net.cpp:124] Setting up ip1
I0504 07:34:14.750216 19445 net.cpp:131] Top shape: 1000 180 (180000)
I0504 07:34:14.750221 19445 net.cpp:139] Memory required for data: 339804000
I0504 07:34:14.750243 19445 layer_factory.hpp:77] Creating layer relu1
I0504 07:34:14.750250 19445 net.cpp:86] Creating Layer relu1
I0504 07:34:14.750254 19445 net.cpp:408] relu1 <- ip1
I0504 07:34:14.750258 19445 net.cpp:369] relu1 -> ip1 (in-place)
I0504 07:34:14.750442 19445 net.cpp:124] Setting up relu1
I0504 07:34:14.750450 19445 net.cpp:131] Top shape: 1000 180 (180000)
I0504 07:34:14.750454 19445 net.cpp:139] Memory required for data: 340524000
I0504 07:34:14.750458 19445 layer_factory.hpp:77] Creating layer ip2
I0504 07:34:14.750465 19445 net.cpp:86] Creating Layer ip2
I0504 07:34:14.750468 19445 net.cpp:408] ip2 <- ip1
I0504 07:34:14.750473 19445 net.cpp:382] ip2 -> ip2
I0504 07:34:14.750895 19445 net.cpp:124] Setting up ip2
I0504 07:34:14.750902 19445 net.cpp:131] Top shape: 1000 60 (60000)
I0504 07:34:14.750905 19445 net.cpp:139] Memory required for data: 340764000
I0504 07:34:14.750911 19445 layer_factory.hpp:77] Creating layer relu2
I0504 07:34:14.750932 19445 net.cpp:86] Creating Layer relu2
I0504 07:34:14.750936 19445 net.cpp:408] relu2 <- ip2
I0504 07:34:14.750939 19445 net.cpp:369] relu2 -> ip2 (in-place)
I0504 07:34:14.751116 19445 net.cpp:124] Setting up relu2
I0504 07:34:14.751124 19445 net.cpp:131] Top shape: 1000 60 (60000)
I0504 07:34:14.751127 19445 net.cpp:139] Memory required for data: 341004000
I0504 07:34:14.751130 19445 layer_factory.hpp:77] Creating layer ip3
I0504 07:34:14.751137 19445 net.cpp:86] Creating Layer ip3
I0504 07:34:14.751142 19445 net.cpp:408] ip3 <- ip2
I0504 07:34:14.751147 19445 net.cpp:382] ip3 -> ip3
I0504 07:34:14.751271 19445 net.cpp:124] Setting up ip3
I0504 07:34:14.751279 19445 net.cpp:131] Top shape: 1000 10 (10000)
I0504 07:34:14.751292 19445 net.cpp:139] Memory required for data: 341044000
I0504 07:34:14.751302 19445 layer_factory.hpp:77] Creating layer ip3_ip3_0_split
I0504 07:34:14.751307 19445 net.cpp:86] Creating Layer ip3_ip3_0_split
I0504 07:34:14.751309 19445 net.cpp:408] ip3_ip3_0_split <- ip3
I0504 07:34:14.751313 19445 net.cpp:382] ip3_ip3_0_split -> ip3_ip3_0_split_0
I0504 07:34:14.751319 19445 net.cpp:382] ip3_ip3_0_split -> ip3_ip3_0_split_1
I0504 07:34:14.751368 19445 net.cpp:124] Setting up ip3_ip3_0_split
I0504 07:34:14.751374 19445 net.cpp:131] Top shape: 1000 10 (10000)
I0504 07:34:14.751379 19445 net.cpp:131] Top shape: 1000 10 (10000)
I0504 07:34:14.751381 19445 net.cpp:139] Memory required for data: 341124000
I0504 07:34:14.751384 19445 layer_factory.hpp:77] Creating layer accuracy
I0504 07:34:14.751390 19445 net.cpp:86] Creating Layer accuracy
I0504 07:34:14.751394 19445 net.cpp:408] accuracy <- ip3_ip3_0_split_0
I0504 07:34:14.751397 19445 net.cpp:408] accuracy <- label_cifar_1_split_0
I0504 07:34:14.751400 19445 net.cpp:382] accuracy -> accuracy
…
