…
I0504 00:27:58.513377  5429 net.cpp:296] The NetState phase (0) differed from the phase (1) specified by a rule in layer cifar
I0504 00:27:58.513401  5429 net.cpp:296] The NetState phase (0) differed from the phase (1) specified by a rule in layer accuracy
I0504 00:27:58.513502  5429 net.cpp:53] Initializing net from parameters: 
name: "CIFAR"
state {
  phase: TRAIN
  level: 0
  stage: ""
}
layer {
  name: "cifar"
  type: "Data"
  top: "data"
  top: "label"
  include {
    phase: TRAIN
  }
  transform_param {
    mean_file: "examples/cifar10/mean.binaryproto"
  }
  data_param {
    source: "examples/cifar10/cifar10_train_lmdb"
    batch_size: 111
    backend: LMDB
  }
}
layer {
  name: "conv0"
  type: "Convolution"
  bottom: "data"
  top: "conv0"
  param {
    lr_mult: 1
  }
  param {
    lr_mult: 2
  }
  convolution_param {
    num_output: 24
    pad: 2
    kernel_size: 5
    stride: 1
    weight_filler {
      type: "gaussian"
      std: 0.01
    }
    bias_filler {
      type: "constant"
    }
  }
}
layer {
  name: "Sigmoid0"
  type: "Sigmoid"
  bottom: "conv0"
  top: "Sigmoid0"
}
layer {
  name: "pool0"
  type: "Pooling"
  bottom: "Sigmoid0"
  top: "pool0"
  pooling_param {
    pool: AVE
    kernel_size: 3
    stride: 2
  }
}
layer {
  name: "ip1"
  type: "InnerProduct"
  bottom: "pool0"
  top: "ip1"
  param {
    lr_mult: 1
  }
  param {
    lr_mult: 2
  }
  inner_product_param {
    num_output: 60
    weight_filler {
      type: "gaussian"
      std: 0.01
    }
    bias_filler {
      type: "constant"
    }
  }
}
layer {
  name: "relu1"
  type: "ReLU"
  bottom: "ip1"
  top: "ip1"
}
layer {
  name: "ip2"
  type: "InnerProduct"
  bottom: "ip1"
  top: "ip2"
  param {
    lr_mult: 1
  }
  param {
    lr_mult: 2
  }
  inner_product_param {
    num_output: 60
    weight_filler {
      type: "gaussian"
      std: 0.01
    }
    bias_filler {
      type: "constant"
    }
  }
}
layer {
  name: "relu2"
  type: "ReLU"
  bottom: "ip2"
  top: "ip2"
}
layer {
  name: "ip3"
  type: "InnerProduct"
  bottom: "ip2"
  top: "ip3"
  param {
    lr_mult: 1
  }
  param {
    lr_mult: 2
  }
  inner_product_param {
    num_output: 10
    weight_filler {
      type: "gaussian"
      std: 0.01
    }
    bias_filler {
      type: "constant"
    }
  }
}
layer {
  name: "loss"
  type: "SoftmaxWithLoss"
  bottom: "ip3"
  bottom: "label"
  top: "loss"
}
I0504 00:27:58.513577  5429 layer_factory.hpp:77] Creating layer cifar
I0504 00:27:58.513674  5429 db_lmdb.cpp:35] Opened lmdb examples/cifar10/cifar10_train_lmdb
I0504 00:27:58.513700  5429 net.cpp:86] Creating Layer cifar
I0504 00:27:58.513710  5429 net.cpp:382] cifar -> data
I0504 00:27:58.513733  5429 net.cpp:382] cifar -> label
I0504 00:27:58.513746  5429 data_transformer.cpp:25] Loading mean file from: examples/cifar10/mean.binaryproto
I0504 00:27:58.515790  5429 data_layer.cpp:45] output data size: 111,3,32,32
I0504 00:27:58.523459  5429 net.cpp:124] Setting up cifar
I0504 00:27:58.523478  5429 net.cpp:131] Top shape: 111 3 32 32 (340992)
I0504 00:27:58.523484  5429 net.cpp:131] Top shape: 111 (111)
I0504 00:27:58.523488  5429 net.cpp:139] Memory required for data: 1364412
I0504 00:27:58.523496  5429 layer_factory.hpp:77] Creating layer conv0
I0504 00:27:58.523514  5429 net.cpp:86] Creating Layer conv0
I0504 00:27:58.523520  5429 net.cpp:408] conv0 <- data
I0504 00:27:58.523533  5429 net.cpp:382] conv0 -> conv0
I0504 00:27:58.798049  5429 net.cpp:124] Setting up conv0
I0504 00:27:58.798091  5429 net.cpp:131] Top shape: 111 24 32 32 (2727936)
I0504 00:27:58.798095  5429 net.cpp:139] Memory required for data: 12276156
I0504 00:27:58.798110  5429 layer_factory.hpp:77] Creating layer Sigmoid0
I0504 00:27:58.798120  5429 net.cpp:86] Creating Layer Sigmoid0
I0504 00:27:58.798125  5429 net.cpp:408] Sigmoid0 <- conv0
I0504 00:27:58.798130  5429 net.cpp:382] Sigmoid0 -> Sigmoid0
I0504 00:27:58.798308  5429 net.cpp:124] Setting up Sigmoid0
I0504 00:27:58.798317  5429 net.cpp:131] Top shape: 111 24 32 32 (2727936)
I0504 00:27:58.798321  5429 net.cpp:139] Memory required for data: 23187900
I0504 00:27:58.798323  5429 layer_factory.hpp:77] Creating layer pool0
I0504 00:27:58.798329  5429 net.cpp:86] Creating Layer pool0
I0504 00:27:58.798332  5429 net.cpp:408] pool0 <- Sigmoid0
I0504 00:27:58.798336  5429 net.cpp:382] pool0 -> pool0
I0504 00:27:58.799064  5429 net.cpp:124] Setting up pool0
I0504 00:27:58.799077  5429 net.cpp:131] Top shape: 111 24 16 16 (681984)
I0504 00:27:58.799079  5429 net.cpp:139] Memory required for data: 25915836
I0504 00:27:58.799083  5429 layer_factory.hpp:77] Creating layer ip1
I0504 00:27:58.799091  5429 net.cpp:86] Creating Layer ip1
I0504 00:27:58.799095  5429 net.cpp:408] ip1 <- pool0
I0504 00:27:58.799099  5429 net.cpp:382] ip1 -> ip1
I0504 00:27:58.809038  5429 net.cpp:124] Setting up ip1
I0504 00:27:58.809065  5429 net.cpp:131] Top shape: 111 60 (6660)
I0504 00:27:58.809069  5429 net.cpp:139] Memory required for data: 25942476
I0504 00:27:58.809077  5429 layer_factory.hpp:77] Creating layer relu1
I0504 00:27:58.809083  5429 net.cpp:86] Creating Layer relu1
I0504 00:27:58.809087  5429 net.cpp:408] relu1 <- ip1
I0504 00:27:58.809092  5429 net.cpp:369] relu1 -> ip1 (in-place)
I0504 00:27:58.809257  5429 net.cpp:124] Setting up relu1
I0504 00:27:58.809265  5429 net.cpp:131] Top shape: 111 60 (6660)
I0504 00:27:58.809268  5429 net.cpp:139] Memory required for data: 25969116
I0504 00:27:58.809272  5429 layer_factory.hpp:77] Creating layer ip2
I0504 00:27:58.809278  5429 net.cpp:86] Creating Layer ip2
I0504 00:27:58.809281  5429 net.cpp:408] ip2 <- ip1
I0504 00:27:58.809285  5429 net.cpp:382] ip2 -> ip2
I0504 00:27:58.809496  5429 net.cpp:124] Setting up ip2
I0504 00:27:58.809504  5429 net.cpp:131] Top shape: 111 60 (6660)
I0504 00:27:58.809505  5429 net.cpp:139] Memory required for data: 25995756
I0504 00:27:58.809512  5429 layer_factory.hpp:77] Creating layer relu2
I0504 00:27:58.809516  5429 net.cpp:86] Creating Layer relu2
I0504 00:27:58.809520  5429 net.cpp:408] relu2 <- ip2
I0504 00:27:58.809523  5429 net.cpp:369] relu2 -> ip2 (in-place)
I0504 00:27:58.809686  5429 net.cpp:124] Setting up relu2
I0504 00:27:58.809693  5429 net.cpp:131] Top shape: 111 60 (6660)
I0504 00:27:58.809696  5429 net.cpp:139] Memory required for data: 26022396
I0504 00:27:58.809700  5429 layer_factory.hpp:77] Creating layer ip3
I0504 00:27:58.809707  5429 net.cpp:86] Creating Layer ip3
I0504 00:27:58.809710  5429 net.cpp:408] ip3 <- ip2
I0504 00:27:58.809715  5429 net.cpp:382] ip3 -> ip3
I0504 00:27:58.809828  5429 net.cpp:124] Setting up ip3
I0504 00:27:58.809834  5429 net.cpp:131] Top shape: 111 10 (1110)
I0504 00:27:58.809837  5429 net.cpp:139] Memory required for data: 26026836
I0504 00:27:58.809842  5429 layer_factory.hpp:77] Creating layer loss
I0504 00:27:58.809847  5429 net.cpp:86] Creating Layer loss
I0504 00:27:58.809850  5429 net.cpp:408] loss <- ip3
I0504 00:27:58.809854  5429 net.cpp:408] loss <- label
I0504 00:27:58.809859  5429 net.cpp:382] loss -> loss
I0504 00:27:58.809875  5429 layer_factory.hpp:77] Creating layer loss
…
I0504 00:27:58.810438  5429 solver.cpp:173] Creating test net (#0) specified by net file: ECE595/cifar/train_test/var_everything_tiny/cifar_train_test_19.prototxt
I0504 00:27:58.810462  5429 net.cpp:296] The NetState phase (1) differed from the phase (0) specified by a rule in layer cifar
I0504 00:27:58.810544  5429 net.cpp:53] Initializing net from parameters: 
name: "CIFAR"
state {
  phase: TEST
}
layer {
  name: "cifar"
  type: "Data"
  top: "data"
  top: "label"
  include {
    phase: TEST
  }
  transform_param {
    mean_file: "examples/cifar10/mean.binaryproto"
  }
  data_param {
    source: "examples/cifar10/cifar10_test_lmdb"
    batch_size: 1000
    backend: LMDB
  }
}
layer {
  name: "conv0"
  type: "Convolution"
  bottom: "data"
  top: "conv0"
  param {
    lr_mult: 1
  }
  param {
    lr_mult: 2
  }
  convolution_param {
    num_output: 24
    pad: 2
    kernel_size: 5
    stride: 1
    weight_filler {
      type: "gaussian"
      std: 0.01
    }
    bias_filler {
      type: "constant"
    }
  }
}
layer {
  name: "Sigmoid0"
  type: "Sigmoid"
  bottom: "conv0"
  top: "Sigmoid0"
}
layer {
  name: "pool0"
  type: "Pooling"
  bottom: "Sigmoid0"
  top: "pool0"
  pooling_param {
    pool: AVE
    kernel_size: 3
    stride: 2
  }
}
layer {
  name: "ip1"
  type: "InnerProduct"
  bottom: "pool0"
  top: "ip1"
  param {
    lr_mult: 1
  }
  param {
    lr_mult: 2
  }
  inner_product_param {
    num_output: 60
    weight_filler {
      type: "gaussian"
      std: 0.01
    }
    bias_filler {
      type: "constant"
    }
  }
}
layer {
  name: "relu1"
  type: "ReLU"
  bottom: "ip1"
  top: "ip1"
}
layer {
  name: "ip2"
  type: "InnerProduct"
  bottom: "ip1"
  top: "ip2"
  param {
    lr_mult: 1
  }
  param {
    lr_mult: 2
  }
  inner_product_param {
    num_output: 60
    weight_filler {
      type: "gaussian"
      std: 0.01
    }
    bias_filler {
      type: "constant"
    }
  }
}
layer {
  name: "relu2"
  type: "ReLU"
  bottom: "ip2"
  top: "ip2"
}
layer {
  name: "ip3"
  type: "InnerProduct"
  bottom: "ip2"
  top: "ip3"
  param {
    lr_mult: 1
  }
  param {
    lr_mult: 2
  }
  inner_product_param {
    num_output: 10
    weight_filler {
      type: "gaussian"
      std: 0.01
    }
    bias_filler {
      type: "constant"
    }
  }
}
layer {
  name: "accuracy"
  type: "Accuracy"
  bottom: "ip3"
  bottom: "label"
  top: "accuracy"
  include {
    phase: TEST
  }
}
layer {
  name: "loss"
  type: "SoftmaxWithLoss"
  bottom: "ip3"
  bottom: "label"
  top: "loss"
}
I0504 00:27:58.810602  5429 layer_factory.hpp:77] Creating layer cifar
I0504 00:27:58.810647  5429 db_lmdb.cpp:35] Opened lmdb examples/cifar10/cifar10_test_lmdb
I0504 00:27:58.810657  5429 net.cpp:86] Creating Layer cifar
I0504 00:27:58.810662  5429 net.cpp:382] cifar -> data
I0504 00:27:58.810668  5429 net.cpp:382] cifar -> label
I0504 00:27:58.810674  5429 data_transformer.cpp:25] Loading mean file from: examples/cifar10/mean.binaryproto
I0504 00:27:58.810829  5429 data_layer.cpp:45] output data size: 1000,3,32,32
I0504 00:27:58.832840  5429 net.cpp:124] Setting up cifar
I0504 00:27:58.832866  5429 net.cpp:131] Top shape: 1000 3 32 32 (3072000)
I0504 00:27:58.832872  5429 net.cpp:131] Top shape: 1000 (1000)
I0504 00:27:58.832875  5429 net.cpp:139] Memory required for data: 12292000
I0504 00:27:58.832896  5429 layer_factory.hpp:77] Creating layer label_cifar_1_split
I0504 00:27:58.832913  5429 net.cpp:86] Creating Layer label_cifar_1_split
I0504 00:27:58.832932  5429 net.cpp:408] label_cifar_1_split <- label
I0504 00:27:58.832939  5429 net.cpp:382] label_cifar_1_split -> label_cifar_1_split_0
I0504 00:27:58.832948  5429 net.cpp:382] label_cifar_1_split -> label_cifar_1_split_1
I0504 00:27:58.833001  5429 net.cpp:124] Setting up label_cifar_1_split
I0504 00:27:58.833008  5429 net.cpp:131] Top shape: 1000 (1000)
I0504 00:27:58.833011  5429 net.cpp:131] Top shape: 1000 (1000)
I0504 00:27:58.833014  5429 net.cpp:139] Memory required for data: 12300000
I0504 00:27:58.833017  5429 layer_factory.hpp:77] Creating layer conv0
I0504 00:27:58.833029  5429 net.cpp:86] Creating Layer conv0
I0504 00:27:58.833032  5429 net.cpp:408] conv0 <- data
I0504 00:27:58.833037  5429 net.cpp:382] conv0 -> conv0
I0504 00:27:58.834671  5429 net.cpp:124] Setting up conv0
I0504 00:27:58.834700  5429 net.cpp:131] Top shape: 1000 24 32 32 (24576000)
I0504 00:27:58.834703  5429 net.cpp:139] Memory required for data: 110604000
I0504 00:27:58.834712  5429 layer_factory.hpp:77] Creating layer Sigmoid0
I0504 00:27:58.834719  5429 net.cpp:86] Creating Layer Sigmoid0
I0504 00:27:58.834722  5429 net.cpp:408] Sigmoid0 <- conv0
I0504 00:27:58.834728  5429 net.cpp:382] Sigmoid0 -> Sigmoid0
I0504 00:27:58.835619  5429 net.cpp:124] Setting up Sigmoid0
I0504 00:27:58.835646  5429 net.cpp:131] Top shape: 1000 24 32 32 (24576000)
I0504 00:27:58.835650  5429 net.cpp:139] Memory required for data: 208908000
I0504 00:27:58.835669  5429 layer_factory.hpp:77] Creating layer pool0
I0504 00:27:58.835695  5429 net.cpp:86] Creating Layer pool0
I0504 00:27:58.835698  5429 net.cpp:408] pool0 <- Sigmoid0
I0504 00:27:58.835705  5429 net.cpp:382] pool0 -> pool0
I0504 00:27:58.836896  5429 net.cpp:124] Setting up pool0
I0504 00:27:58.836928  5429 net.cpp:131] Top shape: 1000 24 16 16 (6144000)
I0504 00:27:58.836932  5429 net.cpp:139] Memory required for data: 233484000
I0504 00:27:58.836936  5429 layer_factory.hpp:77] Creating layer ip1
I0504 00:27:58.836946  5429 net.cpp:86] Creating Layer ip1
I0504 00:27:58.836949  5429 net.cpp:408] ip1 <- pool0
I0504 00:27:58.836956  5429 net.cpp:382] ip1 -> ip1
I0504 00:27:58.847995  5429 net.cpp:124] Setting up ip1
I0504 00:27:58.848023  5429 net.cpp:131] Top shape: 1000 60 (60000)
I0504 00:27:58.848027  5429 net.cpp:139] Memory required for data: 233724000
I0504 00:27:58.848037  5429 layer_factory.hpp:77] Creating layer relu1
I0504 00:27:58.848042  5429 net.cpp:86] Creating Layer relu1
I0504 00:27:58.848047  5429 net.cpp:408] relu1 <- ip1
I0504 00:27:58.848052  5429 net.cpp:369] relu1 -> ip1 (in-place)
I0504 00:27:58.848238  5429 net.cpp:124] Setting up relu1
I0504 00:27:58.848248  5429 net.cpp:131] Top shape: 1000 60 (60000)
I0504 00:27:58.848250  5429 net.cpp:139] Memory required for data: 233964000
I0504 00:27:58.848254  5429 layer_factory.hpp:77] Creating layer ip2
I0504 00:27:58.848261  5429 net.cpp:86] Creating Layer ip2
I0504 00:27:58.848264  5429 net.cpp:408] ip2 <- ip1
I0504 00:27:58.848271  5429 net.cpp:382] ip2 -> ip2
I0504 00:27:58.848492  5429 net.cpp:124] Setting up ip2
I0504 00:27:58.848500  5429 net.cpp:131] Top shape: 1000 60 (60000)
I0504 00:27:58.848502  5429 net.cpp:139] Memory required for data: 234204000
I0504 00:27:58.848511  5429 layer_factory.hpp:77] Creating layer relu2
I0504 00:27:58.848520  5429 net.cpp:86] Creating Layer relu2
I0504 00:27:58.848522  5429 net.cpp:408] relu2 <- ip2
I0504 00:27:58.848526  5429 net.cpp:369] relu2 -> ip2 (in-place)
I0504 00:27:58.848706  5429 net.cpp:124] Setting up relu2
I0504 00:27:58.848714  5429 net.cpp:131] Top shape: 1000 60 (60000)
I0504 00:27:58.848717  5429 net.cpp:139] Memory required for data: 234444000
I0504 00:27:58.848721  5429 layer_factory.hpp:77] Creating layer ip3
I0504 00:27:58.848728  5429 net.cpp:86] Creating Layer ip3
I0504 00:27:58.848731  5429 net.cpp:408] ip3 <- ip2
I0504 00:27:58.848736  5429 net.cpp:382] ip3 -> ip3
I0504 00:27:58.848901  5429 net.cpp:124] Setting up ip3
I0504 00:27:58.848909  5429 net.cpp:131] Top shape: 1000 10 (10000)
I0504 00:27:58.848924  5429 net.cpp:139] Memory required for data: 234484000
I0504 00:27:58.848935  5429 layer_factory.hpp:77] Creating layer ip3_ip3_0_split
I0504 00:27:58.848943  5429 net.cpp:86] Creating Layer ip3_ip3_0_split
I0504 00:27:58.848948  5429 net.cpp:408] ip3_ip3_0_split <- ip3
I0504 00:27:58.848951  5429 net.cpp:382] ip3_ip3_0_split -> ip3_ip3_0_split_0
I0504 00:27:58.848958  5429 net.cpp:382] ip3_ip3_0_split -> ip3_ip3_0_split_1
I0504 00:27:58.848994  5429 net.cpp:124] Setting up ip3_ip3_0_split
I0504 00:27:58.849000  5429 net.cpp:131] Top shape: 1000 10 (10000)
I0504 00:27:58.849004  5429 net.cpp:131] Top shape: 1000 10 (10000)
I0504 00:27:58.849006  5429 net.cpp:139] Memory required for data: 234564000
I0504 00:27:58.849009  5429 layer_factory.hpp:77] Creating layer accuracy
I0504 00:27:58.849015  5429 net.cpp:86] Creating Layer accuracy
I0504 00:27:58.849019  5429 net.cpp:408] accuracy <- ip3_ip3_0_split_0
I0504 00:27:58.849022  5429 net.cpp:408] accuracy <- label_cifar_1_split_0
I0504 00:27:58.849028  5429 net.cpp:382] accuracy -> accuracy
…
