…
I0504 02:41:15.069005  9676 net.cpp:296] The NetState phase (0) differed from the phase (1) specified by a rule in layer cifar
I0504 02:41:15.069020  9676 net.cpp:296] The NetState phase (0) differed from the phase (1) specified by a rule in layer accuracy
I0504 02:41:15.069105  9676 net.cpp:53] Initializing net from parameters: 
name: "CIFAR"
state {
  phase: TRAIN
  level: 0
  stage: ""
}
layer {
  name: "cifar"
  type: "Data"
  top: "data"
  top: "label"
  include {
    phase: TRAIN
  }
  transform_param {
    mean_file: "examples/cifar10/mean.binaryproto"
  }
  data_param {
    source: "examples/cifar10/cifar10_train_lmdb"
    batch_size: 111
    backend: LMDB
  }
}
layer {
  name: "conv0"
  type: "Convolution"
  bottom: "data"
  top: "conv0"
  param {
    lr_mult: 1
  }
  param {
    lr_mult: 2
  }
  convolution_param {
    num_output: 216
    pad: 2
    kernel_size: 3
    stride: 1
    weight_filler {
      type: "gaussian"
      std: 0.01
    }
    bias_filler {
      type: "constant"
    }
  }
}
layer {
  name: "Sigmoid0"
  type: "Sigmoid"
  bottom: "conv0"
  top: "Sigmoid0"
}
layer {
  name: "pool0"
  type: "Pooling"
  bottom: "Sigmoid0"
  top: "pool0"
  pooling_param {
    pool: AVE
    kernel_size: 3
    stride: 2
  }
}
layer {
  name: "ip1"
  type: "InnerProduct"
  bottom: "pool0"
  top: "ip1"
  param {
    lr_mult: 1
  }
  param {
    lr_mult: 2
  }
  inner_product_param {
    num_output: 60
    weight_filler {
      type: "gaussian"
      std: 0.01
    }
    bias_filler {
      type: "constant"
    }
  }
}
layer {
  name: "relu1"
  type: "ReLU"
  bottom: "ip1"
  top: "ip1"
}
layer {
  name: "ip2"
  type: "InnerProduct"
  bottom: "ip1"
  top: "ip2"
  param {
    lr_mult: 1
  }
  param {
    lr_mult: 2
  }
  inner_product_param {
    num_output: 10
    weight_filler {
      type: "gaussian"
      std: 0.01
    }
    bias_filler {
      type: "constant"
    }
  }
}
layer {
  name: "loss"
  type: "SoftmaxWithLoss"
  bottom: "ip2"
  bottom: "label"
  top: "loss"
}
I0504 02:41:15.069180  9676 layer_factory.hpp:77] Creating layer cifar
I0504 02:41:15.069275  9676 db_lmdb.cpp:35] Opened lmdb examples/cifar10/cifar10_train_lmdb
I0504 02:41:15.069303  9676 net.cpp:86] Creating Layer cifar
I0504 02:41:15.069309  9676 net.cpp:382] cifar -> data
I0504 02:41:15.069331  9676 net.cpp:382] cifar -> label
I0504 02:41:15.069344  9676 data_transformer.cpp:25] Loading mean file from: examples/cifar10/mean.binaryproto
I0504 02:41:15.071391  9676 data_layer.cpp:45] output data size: 111,3,32,32
I0504 02:41:15.079123  9676 net.cpp:124] Setting up cifar
I0504 02:41:15.079143  9676 net.cpp:131] Top shape: 111 3 32 32 (340992)
I0504 02:41:15.079149  9676 net.cpp:131] Top shape: 111 (111)
I0504 02:41:15.079154  9676 net.cpp:139] Memory required for data: 1364412
I0504 02:41:15.079160  9676 layer_factory.hpp:77] Creating layer conv0
I0504 02:41:15.079180  9676 net.cpp:86] Creating Layer conv0
I0504 02:41:15.079185  9676 net.cpp:408] conv0 <- data
I0504 02:41:15.079197  9676 net.cpp:382] conv0 -> conv0
I0504 02:41:15.355175  9676 net.cpp:124] Setting up conv0
I0504 02:41:15.355217  9676 net.cpp:131] Top shape: 111 216 34 34 (27716256)
I0504 02:41:15.355222  9676 net.cpp:139] Memory required for data: 112229436
I0504 02:41:15.355237  9676 layer_factory.hpp:77] Creating layer Sigmoid0
I0504 02:41:15.355249  9676 net.cpp:86] Creating Layer Sigmoid0
I0504 02:41:15.355253  9676 net.cpp:408] Sigmoid0 <- conv0
I0504 02:41:15.355273  9676 net.cpp:382] Sigmoid0 -> Sigmoid0
I0504 02:41:15.355468  9676 net.cpp:124] Setting up Sigmoid0
I0504 02:41:15.355479  9676 net.cpp:131] Top shape: 111 216 34 34 (27716256)
I0504 02:41:15.355481  9676 net.cpp:139] Memory required for data: 223094460
I0504 02:41:15.355484  9676 layer_factory.hpp:77] Creating layer pool0
I0504 02:41:15.355491  9676 net.cpp:86] Creating Layer pool0
I0504 02:41:15.355494  9676 net.cpp:408] pool0 <- Sigmoid0
I0504 02:41:15.355499  9676 net.cpp:382] pool0 -> pool0
I0504 02:41:15.356240  9676 net.cpp:124] Setting up pool0
I0504 02:41:15.356253  9676 net.cpp:131] Top shape: 111 216 17 17 (6929064)
I0504 02:41:15.356271  9676 net.cpp:139] Memory required for data: 250810716
I0504 02:41:15.356276  9676 layer_factory.hpp:77] Creating layer ip1
I0504 02:41:15.356284  9676 net.cpp:86] Creating Layer ip1
I0504 02:41:15.356288  9676 net.cpp:408] ip1 <- pool0
I0504 02:41:15.356292  9676 net.cpp:382] ip1 -> ip1
I0504 02:41:15.457419  9676 net.cpp:124] Setting up ip1
I0504 02:41:15.457450  9676 net.cpp:131] Top shape: 111 60 (6660)
I0504 02:41:15.457454  9676 net.cpp:139] Memory required for data: 250837356
I0504 02:41:15.457463  9676 layer_factory.hpp:77] Creating layer relu1
I0504 02:41:15.457470  9676 net.cpp:86] Creating Layer relu1
I0504 02:41:15.457473  9676 net.cpp:408] relu1 <- ip1
I0504 02:41:15.457479  9676 net.cpp:369] relu1 -> ip1 (in-place)
I0504 02:41:15.457656  9676 net.cpp:124] Setting up relu1
I0504 02:41:15.457665  9676 net.cpp:131] Top shape: 111 60 (6660)
I0504 02:41:15.457669  9676 net.cpp:139] Memory required for data: 250863996
I0504 02:41:15.457671  9676 layer_factory.hpp:77] Creating layer ip2
I0504 02:41:15.457679  9676 net.cpp:86] Creating Layer ip2
I0504 02:41:15.457682  9676 net.cpp:408] ip2 <- ip1
I0504 02:41:15.457689  9676 net.cpp:382] ip2 -> ip2
I0504 02:41:15.458648  9676 net.cpp:124] Setting up ip2
I0504 02:41:15.458659  9676 net.cpp:131] Top shape: 111 10 (1110)
I0504 02:41:15.458678  9676 net.cpp:139] Memory required for data: 250868436
I0504 02:41:15.458686  9676 layer_factory.hpp:77] Creating layer loss
I0504 02:41:15.458698  9676 net.cpp:86] Creating Layer loss
I0504 02:41:15.458701  9676 net.cpp:408] loss <- ip2
I0504 02:41:15.458705  9676 net.cpp:408] loss <- label
I0504 02:41:15.458710  9676 net.cpp:382] loss -> loss
I0504 02:41:15.458724  9676 layer_factory.hpp:77] Creating layer loss
…
I0504 02:41:15.459350  9676 solver.cpp:173] Creating test net (#0) specified by net file: ECE595/cifar/train_test/var_everything_tiny/cifar_train_test_49.prototxt
I0504 02:41:15.459375  9676 net.cpp:296] The NetState phase (1) differed from the phase (0) specified by a rule in layer cifar
I0504 02:41:15.459451  9676 net.cpp:53] Initializing net from parameters: 
name: "CIFAR"
state {
  phase: TEST
}
layer {
  name: "cifar"
  type: "Data"
  top: "data"
  top: "label"
  include {
    phase: TEST
  }
  transform_param {
    mean_file: "examples/cifar10/mean.binaryproto"
  }
  data_param {
    source: "examples/cifar10/cifar10_test_lmdb"
    batch_size: 1000
    backend: LMDB
  }
}
layer {
  name: "conv0"
  type: "Convolution"
  bottom: "data"
  top: "conv0"
  param {
    lr_mult: 1
  }
  param {
    lr_mult: 2
  }
  convolution_param {
    num_output: 216
    pad: 2
    kernel_size: 3
    stride: 1
    weight_filler {
      type: "gaussian"
      std: 0.01
    }
    bias_filler {
      type: "constant"
    }
  }
}
layer {
  name: "Sigmoid0"
  type: "Sigmoid"
  bottom: "conv0"
  top: "Sigmoid0"
}
layer {
  name: "pool0"
  type: "Pooling"
  bottom: "Sigmoid0"
  top: "pool0"
  pooling_param {
    pool: AVE
    kernel_size: 3
    stride: 2
  }
}
layer {
  name: "ip1"
  type: "InnerProduct"
  bottom: "pool0"
  top: "ip1"
  param {
    lr_mult: 1
  }
  param {
    lr_mult: 2
  }
  inner_product_param {
    num_output: 60
    weight_filler {
      type: "gaussian"
      std: 0.01
    }
    bias_filler {
      type: "constant"
    }
  }
}
layer {
  name: "relu1"
  type: "ReLU"
  bottom: "ip1"
  top: "ip1"
}
layer {
  name: "ip2"
  type: "InnerProduct"
  bottom: "ip1"
  top: "ip2"
  param {
    lr_mult: 1
  }
  param {
    lr_mult: 2
  }
  inner_product_param {
    num_output: 10
    weight_filler {
      type: "gaussian"
      std: 0.01
    }
    bias_filler {
      type: "constant"
    }
  }
}
layer {
  name: "accuracy"
  type: "Accuracy"
  bottom: "ip2"
  bottom: "label"
  top: "accuracy"
  include {
    phase: TEST
  }
}
layer {
  name: "loss"
  type: "SoftmaxWithLoss"
  bottom: "ip2"
  bottom: "label"
  top: "loss"
}
I0504 02:41:15.459522  9676 layer_factory.hpp:77] Creating layer cifar
I0504 02:41:15.459566  9676 db_lmdb.cpp:35] Opened lmdb examples/cifar10/cifar10_test_lmdb
I0504 02:41:15.459578  9676 net.cpp:86] Creating Layer cifar
I0504 02:41:15.459583  9676 net.cpp:382] cifar -> data
I0504 02:41:15.459589  9676 net.cpp:382] cifar -> label
I0504 02:41:15.459596  9676 data_transformer.cpp:25] Loading mean file from: examples/cifar10/mean.binaryproto
I0504 02:41:15.459734  9676 data_layer.cpp:45] output data size: 1000,3,32,32
I0504 02:41:15.481469  9676 net.cpp:124] Setting up cifar
I0504 02:41:15.481510  9676 net.cpp:131] Top shape: 1000 3 32 32 (3072000)
I0504 02:41:15.481516  9676 net.cpp:131] Top shape: 1000 (1000)
I0504 02:41:15.481520  9676 net.cpp:139] Memory required for data: 12292000
I0504 02:41:15.481525  9676 layer_factory.hpp:77] Creating layer label_cifar_1_split
I0504 02:41:15.481539  9676 net.cpp:86] Creating Layer label_cifar_1_split
I0504 02:41:15.481544  9676 net.cpp:408] label_cifar_1_split <- label
I0504 02:41:15.481549  9676 net.cpp:382] label_cifar_1_split -> label_cifar_1_split_0
I0504 02:41:15.481575  9676 net.cpp:382] label_cifar_1_split -> label_cifar_1_split_1
I0504 02:41:15.481679  9676 net.cpp:124] Setting up label_cifar_1_split
I0504 02:41:15.481688  9676 net.cpp:131] Top shape: 1000 (1000)
I0504 02:41:15.481691  9676 net.cpp:131] Top shape: 1000 (1000)
I0504 02:41:15.481694  9676 net.cpp:139] Memory required for data: 12300000
I0504 02:41:15.481698  9676 layer_factory.hpp:77] Creating layer conv0
I0504 02:41:15.481709  9676 net.cpp:86] Creating Layer conv0
I0504 02:41:15.481712  9676 net.cpp:408] conv0 <- data
I0504 02:41:15.481719  9676 net.cpp:382] conv0 -> conv0
I0504 02:41:15.484064  9676 net.cpp:124] Setting up conv0
I0504 02:41:15.484076  9676 net.cpp:131] Top shape: 1000 216 34 34 (249696000)
I0504 02:41:15.484097  9676 net.cpp:139] Memory required for data: 1011084000
I0504 02:41:15.484105  9676 layer_factory.hpp:77] Creating layer Sigmoid0
I0504 02:41:15.484113  9676 net.cpp:86] Creating Layer Sigmoid0
I0504 02:41:15.484117  9676 net.cpp:408] Sigmoid0 <- conv0
I0504 02:41:15.484122  9676 net.cpp:382] Sigmoid0 -> Sigmoid0
I0504 02:41:15.485431  9676 net.cpp:124] Setting up Sigmoid0
I0504 02:41:15.485443  9676 net.cpp:131] Top shape: 1000 216 34 34 (249696000)
I0504 02:41:15.485462  9676 net.cpp:139] Memory required for data: 2009868000
I0504 02:41:15.485466  9676 layer_factory.hpp:77] Creating layer pool0
I0504 02:41:15.485473  9676 net.cpp:86] Creating Layer pool0
I0504 02:41:15.485477  9676 net.cpp:408] pool0 <- Sigmoid0
I0504 02:41:15.485482  9676 net.cpp:382] pool0 -> pool0
I0504 02:41:15.486318  9676 net.cpp:124] Setting up pool0
I0504 02:41:15.486330  9676 net.cpp:131] Top shape: 1000 216 17 17 (62424000)
I0504 02:41:15.486351  9676 net.cpp:139] Memory required for data: 2259564000
I0504 02:41:15.486356  9676 layer_factory.hpp:77] Creating layer ip1
I0504 02:41:15.486366  9676 net.cpp:86] Creating Layer ip1
I0504 02:41:15.486368  9676 net.cpp:408] ip1 <- pool0
I0504 02:41:15.486376  9676 net.cpp:382] ip1 -> ip1
I0504 02:41:15.589624  9676 net.cpp:124] Setting up ip1
I0504 02:41:15.589660  9676 net.cpp:131] Top shape: 1000 60 (60000)
I0504 02:41:15.589664  9676 net.cpp:139] Memory required for data: 2259804000
I0504 02:41:15.589675  9676 layer_factory.hpp:77] Creating layer relu1
I0504 02:41:15.589684  9676 net.cpp:86] Creating Layer relu1
I0504 02:41:15.589687  9676 net.cpp:408] relu1 <- ip1
I0504 02:41:15.589692  9676 net.cpp:369] relu1 -> ip1 (in-place)
I0504 02:41:15.589911  9676 net.cpp:124] Setting up relu1
I0504 02:41:15.589920  9676 net.cpp:131] Top shape: 1000 60 (60000)
I0504 02:41:15.589923  9676 net.cpp:139] Memory required for data: 2260044000
I0504 02:41:15.589926  9676 layer_factory.hpp:77] Creating layer ip2
I0504 02:41:15.589934  9676 net.cpp:86] Creating Layer ip2
I0504 02:41:15.589937  9676 net.cpp:408] ip2 <- ip1
I0504 02:41:15.589951  9676 net.cpp:382] ip2 -> ip2
I0504 02:41:15.590080  9676 net.cpp:124] Setting up ip2
I0504 02:41:15.590087  9676 net.cpp:131] Top shape: 1000 10 (10000)
I0504 02:41:15.590090  9676 net.cpp:139] Memory required for data: 2260084000
I0504 02:41:15.590097  9676 layer_factory.hpp:77] Creating layer ip2_ip2_0_split
I0504 02:41:15.590106  9676 net.cpp:86] Creating Layer ip2_ip2_0_split
I0504 02:41:15.590109  9676 net.cpp:408] ip2_ip2_0_split <- ip2
I0504 02:41:15.590113  9676 net.cpp:382] ip2_ip2_0_split -> ip2_ip2_0_split_0
I0504 02:41:15.590119  9676 net.cpp:382] ip2_ip2_0_split -> ip2_ip2_0_split_1
I0504 02:41:15.590150  9676 net.cpp:124] Setting up ip2_ip2_0_split
I0504 02:41:15.590157  9676 net.cpp:131] Top shape: 1000 10 (10000)
I0504 02:41:15.590160  9676 net.cpp:131] Top shape: 1000 10 (10000)
I0504 02:41:15.590163  9676 net.cpp:139] Memory required for data: 2260164000
I0504 02:41:15.590167  9676 layer_factory.hpp:77] Creating layer accuracy
I0504 02:41:15.590171  9676 net.cpp:86] Creating Layer accuracy
I0504 02:41:15.590174  9676 net.cpp:408] accuracy <- ip2_ip2_0_split_0
I0504 02:41:15.590178  9676 net.cpp:408] accuracy <- label_cifar_1_split_0
I0504 02:41:15.590183  9676 net.cpp:382] accuracy -> accuracy
…
