…
I0504 13:15:38.452036 32330 net.cpp:296] The NetState phase (0) differed from the phase (1) specified by a rule in layer cifar
I0504 13:15:38.452051 32330 net.cpp:296] The NetState phase (0) differed from the phase (1) specified by a rule in layer accuracy
I0504 13:15:38.452181 32330 net.cpp:53] Initializing net from parameters: 
name: "CIFAR"
state {
  phase: TRAIN
  level: 0
  stage: ""
}
layer {
  name: "cifar"
  type: "Data"
  top: "data"
  top: "label"
  include {
    phase: TRAIN
  }
  transform_param {
    mean_file: "examples/cifar10/mean.binaryproto"
  }
  data_param {
    source: "examples/cifar10/cifar10_train_lmdb"
    batch_size: 111
    backend: LMDB
  }
}
layer {
  name: "conv0"
  type: "Convolution"
  bottom: "data"
  top: "conv0"
  param {
    lr_mult: 1
  }
  param {
    lr_mult: 2
  }
  convolution_param {
    num_output: 24
    pad: 2
    kernel_size: 5
    stride: 1
    weight_filler {
      type: "gaussian"
      std: 0.01
    }
    bias_filler {
      type: "constant"
    }
  }
}
layer {
  name: "Sigmoid0"
  type: "Sigmoid"
  bottom: "conv0"
  top: "Sigmoid0"
}
layer {
  name: "pool0"
  type: "Pooling"
  bottom: "Sigmoid0"
  top: "pool0"
  pooling_param {
    pool: AVE
    kernel_size: 3
    stride: 2
  }
}
layer {
  name: "conv1"
  type: "Convolution"
  bottom: "pool0"
  top: "conv1"
  param {
    lr_mult: 1
  }
  param {
    lr_mult: 2
  }
  convolution_param {
    num_output: 216
    pad: 2
    kernel_size: 3
    stride: 1
    weight_filler {
      type: "gaussian"
      std: 0.01
    }
    bias_filler {
      type: "constant"
    }
  }
}
layer {
  name: "Sigmoid1"
  type: "Sigmoid"
  bottom: "conv1"
  top: "Sigmoid1"
}
layer {
  name: "pool1"
  type: "Pooling"
  bottom: "Sigmoid1"
  top: "pool1"
  pooling_param {
    pool: AVE
    kernel_size: 3
    stride: 2
  }
}
layer {
  name: "ip1"
  type: "InnerProduct"
  bottom: "pool1"
  top: "ip1"
  param {
    lr_mult: 1
  }
  param {
    lr_mult: 2
  }
  inner_product_param {
    num_output: 60
    weight_filler {
      type: "gaussian"
      std: 0.01
    }
    bias_filler {
      type: "constant"
    }
  }
}
layer {
  name: "relu1"
  type: "ReLU"
  bottom: "ip1"
  top: "ip1"
}
layer {
  name: "ip2"
  type: "InnerProduct"
  bottom: "ip1"
  top: "ip2"
  param {
    lr_mult: 1
  }
  param {
    lr_mult: 2
  }
  inner_product_param {
    num_output: 10
    weight_filler {
      type: "gaussian"
      std: 0.01
    }
    bias_filler {
      type: "constant"
    }
  }
}
layer {
  name: "relu2"
  type: "ReLU"
  bottom: "ip2"
  top: "ip2"
}
layer {
  name: "ip3"
  type: "InnerProduct"
  bottom: "ip2"
  top: "ip3"
  param {
    lr_mult: 1
  }
  param {
    lr_mult: 2
  }
  inner_product_param {
    num_output: 10
    weight_filler {
      type: "gaussian"
      std: 0.01
    }
    bias_filler {
      type: "constant"
    }
  }
}
layer {
  name: "loss"
  type: "SoftmaxWithLoss"
  bottom: "ip3"
  bottom: "label"
  top: "loss"
}
I0504 13:15:38.452244 32330 layer_factory.hpp:77] Creating layer cifar
I0504 13:15:38.452324 32330 db_lmdb.cpp:35] Opened lmdb examples/cifar10/cifar10_train_lmdb
I0504 13:15:38.452347 32330 net.cpp:86] Creating Layer cifar
I0504 13:15:38.452353 32330 net.cpp:382] cifar -> data
I0504 13:15:38.452373 32330 net.cpp:382] cifar -> label
I0504 13:15:38.452383 32330 data_transformer.cpp:25] Loading mean file from: examples/cifar10/mean.binaryproto
I0504 13:15:38.454231 32330 data_layer.cpp:45] output data size: 111,3,32,32
I0504 13:15:38.460875 32330 net.cpp:124] Setting up cifar
I0504 13:15:38.460919 32330 net.cpp:131] Top shape: 111 3 32 32 (340992)
I0504 13:15:38.460925 32330 net.cpp:131] Top shape: 111 (111)
I0504 13:15:38.460929 32330 net.cpp:139] Memory required for data: 1364412
I0504 13:15:38.460935 32330 layer_factory.hpp:77] Creating layer conv0
I0504 13:15:38.460964 32330 net.cpp:86] Creating Layer conv0
I0504 13:15:38.460968 32330 net.cpp:408] conv0 <- data
I0504 13:15:38.460978 32330 net.cpp:382] conv0 -> conv0
I0504 13:15:38.695466 32330 net.cpp:124] Setting up conv0
I0504 13:15:38.695508 32330 net.cpp:131] Top shape: 111 24 32 32 (2727936)
I0504 13:15:38.695513 32330 net.cpp:139] Memory required for data: 12276156
I0504 13:15:38.695528 32330 layer_factory.hpp:77] Creating layer Sigmoid0
I0504 13:15:38.695538 32330 net.cpp:86] Creating Layer Sigmoid0
I0504 13:15:38.695543 32330 net.cpp:408] Sigmoid0 <- conv0
I0504 13:15:38.695562 32330 net.cpp:382] Sigmoid0 -> Sigmoid0
I0504 13:15:38.695745 32330 net.cpp:124] Setting up Sigmoid0
I0504 13:15:38.695755 32330 net.cpp:131] Top shape: 111 24 32 32 (2727936)
I0504 13:15:38.695757 32330 net.cpp:139] Memory required for data: 23187900
I0504 13:15:38.695760 32330 layer_factory.hpp:77] Creating layer pool0
I0504 13:15:38.695768 32330 net.cpp:86] Creating Layer pool0
I0504 13:15:38.695771 32330 net.cpp:408] pool0 <- Sigmoid0
I0504 13:15:38.695777 32330 net.cpp:382] pool0 -> pool0
I0504 13:15:38.696544 32330 net.cpp:124] Setting up pool0
I0504 13:15:38.696557 32330 net.cpp:131] Top shape: 111 24 16 16 (681984)
I0504 13:15:38.696575 32330 net.cpp:139] Memory required for data: 25915836
I0504 13:15:38.696578 32330 layer_factory.hpp:77] Creating layer conv1
I0504 13:15:38.696591 32330 net.cpp:86] Creating Layer conv1
I0504 13:15:38.696595 32330 net.cpp:408] conv1 <- pool0
I0504 13:15:38.696601 32330 net.cpp:382] conv1 -> conv1
I0504 13:15:38.700417 32330 net.cpp:124] Setting up conv1
I0504 13:15:38.700445 32330 net.cpp:131] Top shape: 111 216 18 18 (7768224)
I0504 13:15:38.700449 32330 net.cpp:139] Memory required for data: 56988732
I0504 13:15:38.700458 32330 layer_factory.hpp:77] Creating layer Sigmoid1
I0504 13:15:38.700464 32330 net.cpp:86] Creating Layer Sigmoid1
I0504 13:15:38.700469 32330 net.cpp:408] Sigmoid1 <- conv1
I0504 13:15:38.700472 32330 net.cpp:382] Sigmoid1 -> Sigmoid1
I0504 13:15:38.700687 32330 net.cpp:124] Setting up Sigmoid1
I0504 13:15:38.700696 32330 net.cpp:131] Top shape: 111 216 18 18 (7768224)
I0504 13:15:38.700700 32330 net.cpp:139] Memory required for data: 88061628
I0504 13:15:38.700702 32330 layer_factory.hpp:77] Creating layer pool1
I0504 13:15:38.700707 32330 net.cpp:86] Creating Layer pool1
I0504 13:15:38.700711 32330 net.cpp:408] pool1 <- Sigmoid1
I0504 13:15:38.700716 32330 net.cpp:382] pool1 -> pool1
I0504 13:15:38.700938 32330 net.cpp:124] Setting up pool1
I0504 13:15:38.700948 32330 net.cpp:131] Top shape: 111 216 9 9 (1942056)
I0504 13:15:38.700953 32330 net.cpp:139] Memory required for data: 95829852
I0504 13:15:38.700955 32330 layer_factory.hpp:77] Creating layer ip1
I0504 13:15:38.700963 32330 net.cpp:86] Creating Layer ip1
I0504 13:15:38.700968 32330 net.cpp:408] ip1 <- pool1
I0504 13:15:38.700973 32330 net.cpp:382] ip1 -> ip1
I0504 13:15:38.729152 32330 net.cpp:124] Setting up ip1
I0504 13:15:38.729164 32330 net.cpp:131] Top shape: 111 60 (6660)
I0504 13:15:38.729183 32330 net.cpp:139] Memory required for data: 95856492
I0504 13:15:38.729192 32330 layer_factory.hpp:77] Creating layer relu1
I0504 13:15:38.729198 32330 net.cpp:86] Creating Layer relu1
I0504 13:15:38.729202 32330 net.cpp:408] relu1 <- ip1
I0504 13:15:38.729207 32330 net.cpp:369] relu1 -> ip1 (in-place)
I0504 13:15:38.729387 32330 net.cpp:124] Setting up relu1
I0504 13:15:38.729395 32330 net.cpp:131] Top shape: 111 60 (6660)
I0504 13:15:38.729398 32330 net.cpp:139] Memory required for data: 95883132
I0504 13:15:38.729401 32330 layer_factory.hpp:77] Creating layer ip2
I0504 13:15:38.729409 32330 net.cpp:86] Creating Layer ip2
I0504 13:15:38.729413 32330 net.cpp:408] ip2 <- ip1
I0504 13:15:38.729429 32330 net.cpp:382] ip2 -> ip2
I0504 13:15:38.729548 32330 net.cpp:124] Setting up ip2
I0504 13:15:38.729555 32330 net.cpp:131] Top shape: 111 10 (1110)
I0504 13:15:38.729558 32330 net.cpp:139] Memory required for data: 95887572
I0504 13:15:38.729563 32330 layer_factory.hpp:77] Creating layer relu2
I0504 13:15:38.729569 32330 net.cpp:86] Creating Layer relu2
I0504 13:15:38.729573 32330 net.cpp:408] relu2 <- ip2
I0504 13:15:38.729576 32330 net.cpp:369] relu2 -> ip2 (in-place)
I0504 13:15:38.730368 32330 net.cpp:124] Setting up relu2
I0504 13:15:38.730381 32330 net.cpp:131] Top shape: 111 10 (1110)
I0504 13:15:38.730399 32330 net.cpp:139] Memory required for data: 95892012
I0504 13:15:38.730402 32330 layer_factory.hpp:77] Creating layer ip3
I0504 13:15:38.730408 32330 net.cpp:86] Creating Layer ip3
I0504 13:15:38.730413 32330 net.cpp:408] ip3 <- ip2
I0504 13:15:38.730419 32330 net.cpp:382] ip3 -> ip3
I0504 13:15:38.730542 32330 net.cpp:124] Setting up ip3
I0504 13:15:38.730548 32330 net.cpp:131] Top shape: 111 10 (1110)
I0504 13:15:38.730551 32330 net.cpp:139] Memory required for data: 95896452
I0504 13:15:38.730561 32330 layer_factory.hpp:77] Creating layer loss
I0504 13:15:38.730566 32330 net.cpp:86] Creating Layer loss
I0504 13:15:38.730568 32330 net.cpp:408] loss <- ip3
I0504 13:15:38.730572 32330 net.cpp:408] loss <- label
I0504 13:15:38.730581 32330 net.cpp:382] loss -> loss
I0504 13:15:38.730595 32330 layer_factory.hpp:77] Creating layer loss
…
I0504 13:15:38.731349 32330 solver.cpp:173] Creating test net (#0) specified by net file: ECE595/cifar/train_test/var_everything_tiny/cifar_train_test_162.prototxt
I0504 13:15:38.731377 32330 net.cpp:296] The NetState phase (1) differed from the phase (0) specified by a rule in layer cifar
I0504 13:15:38.731479 32330 net.cpp:53] Initializing net from parameters: 
name: "CIFAR"
state {
  phase: TEST
}
layer {
  name: "cifar"
  type: "Data"
  top: "data"
  top: "label"
  include {
    phase: TEST
  }
  transform_param {
    mean_file: "examples/cifar10/mean.binaryproto"
  }
  data_param {
    source: "examples/cifar10/cifar10_test_lmdb"
    batch_size: 1000
    backend: LMDB
  }
}
layer {
  name: "conv0"
  type: "Convolution"
  bottom: "data"
  top: "conv0"
  param {
    lr_mult: 1
  }
  param {
    lr_mult: 2
  }
  convolution_param {
    num_output: 24
    pad: 2
    kernel_size: 5
    stride: 1
    weight_filler {
      type: "gaussian"
      std: 0.01
    }
    bias_filler {
      type: "constant"
    }
  }
}
layer {
  name: "Sigmoid0"
  type: "Sigmoid"
  bottom: "conv0"
  top: "Sigmoid0"
}
layer {
  name: "pool0"
  type: "Pooling"
  bottom: "Sigmoid0"
  top: "pool0"
  pooling_param {
    pool: AVE
    kernel_size: 3
    stride: 2
  }
}
layer {
  name: "conv1"
  type: "Convolution"
  bottom: "pool0"
  top: "conv1"
  param {
    lr_mult: 1
  }
  param {
    lr_mult: 2
  }
  convolution_param {
    num_output: 216
    pad: 2
    kernel_size: 3
    stride: 1
    weight_filler {
      type: "gaussian"
      std: 0.01
    }
    bias_filler {
      type: "constant"
    }
  }
}
layer {
  name: "Sigmoid1"
  type: "Sigmoid"
  bottom: "conv1"
  top: "Sigmoid1"
}
layer {
  name: "pool1"
  type: "Pooling"
  bottom: "Sigmoid1"
  top: "pool1"
  pooling_param {
    pool: AVE
    kernel_size: 3
    stride: 2
  }
}
layer {
  name: "ip1"
  type: "InnerProduct"
  bottom: "pool1"
  top: "ip1"
  param {
    lr_mult: 1
  }
  param {
    lr_mult: 2
  }
  inner_product_param {
    num_output: 60
    weight_filler {
      type: "gaussian"
      std: 0.01
    }
    bias_filler {
      type: "constant"
    }
  }
}
layer {
  name: "relu1"
  type: "ReLU"
  bottom: "ip1"
  top: "ip1"
}
layer {
  name: "ip2"
  type: "InnerProduct"
  bottom: "ip1"
  top: "ip2"
  param {
    lr_mult: 1
  }
  param {
    lr_mult: 2
  }
  inner_product_param {
    num_output: 10
    weight_filler {
      type: "gaussian"
      std: 0.01
    }
    bias_filler {
      type: "constant"
    }
  }
}
layer {
  name: "relu2"
  type: "ReLU"
  bottom: "ip2"
  top: "ip2"
}
layer {
  name: "ip3"
  type: "InnerProduct"
  bottom: "ip2"
  top: "ip3"
  param {
    lr_mult: 1
  }
  param {
    lr_mult: 2
  }
  inner_product_param {
    num_output: 10
    weight_filler {
      type: "gaussian"
      std: 0.01
    }
    bias_filler {
      type: "constant"
    }
  }
}
layer {
  name: "accuracy"
  type: "Accuracy"
  bottom: "ip3"
  bottom: "label"
  top: "accuracy"
  include {
    phase: TEST
  }
}
layer {
  name: "loss"
  type: "SoftmaxWithLoss"
  bottom: "ip3"
  bottom: "label"
  top: "loss"
}
I0504 13:15:38.731564 32330 layer_factory.hpp:77] Creating layer cifar
I0504 13:15:38.731606 32330 db_lmdb.cpp:35] Opened lmdb examples/cifar10/cifar10_test_lmdb
I0504 13:15:38.731634 32330 net.cpp:86] Creating Layer cifar
I0504 13:15:38.731639 32330 net.cpp:382] cifar -> data
I0504 13:15:38.731648 32330 net.cpp:382] cifar -> label
I0504 13:15:38.731655 32330 data_transformer.cpp:25] Loading mean file from: examples/cifar10/mean.binaryproto
I0504 13:15:38.731799 32330 data_layer.cpp:45] output data size: 1000,3,32,32
I0504 13:15:38.753690 32330 net.cpp:124] Setting up cifar
I0504 13:15:38.753716 32330 net.cpp:131] Top shape: 1000 3 32 32 (3072000)
I0504 13:15:38.753764 32330 net.cpp:131] Top shape: 1000 (1000)
I0504 13:15:38.753767 32330 net.cpp:139] Memory required for data: 12292000
I0504 13:15:38.753773 32330 layer_factory.hpp:77] Creating layer label_cifar_1_split
I0504 13:15:38.753788 32330 net.cpp:86] Creating Layer label_cifar_1_split
I0504 13:15:38.753793 32330 net.cpp:408] label_cifar_1_split <- label
I0504 13:15:38.753798 32330 net.cpp:382] label_cifar_1_split -> label_cifar_1_split_0
I0504 13:15:38.753808 32330 net.cpp:382] label_cifar_1_split -> label_cifar_1_split_1
I0504 13:15:38.753902 32330 net.cpp:124] Setting up label_cifar_1_split
I0504 13:15:38.753909 32330 net.cpp:131] Top shape: 1000 (1000)
I0504 13:15:38.753913 32330 net.cpp:131] Top shape: 1000 (1000)
I0504 13:15:38.753916 32330 net.cpp:139] Memory required for data: 12300000
I0504 13:15:38.753919 32330 layer_factory.hpp:77] Creating layer conv0
I0504 13:15:38.753934 32330 net.cpp:86] Creating Layer conv0
I0504 13:15:38.753938 32330 net.cpp:408] conv0 <- data
I0504 13:15:38.753944 32330 net.cpp:382] conv0 -> conv0
I0504 13:15:38.755602 32330 net.cpp:124] Setting up conv0
I0504 13:15:38.755615 32330 net.cpp:131] Top shape: 1000 24 32 32 (24576000)
I0504 13:15:38.755620 32330 net.cpp:139] Memory required for data: 110604000
I0504 13:15:38.755628 32330 layer_factory.hpp:77] Creating layer Sigmoid0
I0504 13:15:38.755650 32330 net.cpp:86] Creating Layer Sigmoid0
I0504 13:15:38.755653 32330 net.cpp:408] Sigmoid0 <- conv0
I0504 13:15:38.755659 32330 net.cpp:382] Sigmoid0 -> Sigmoid0
I0504 13:15:38.755832 32330 net.cpp:124] Setting up Sigmoid0
I0504 13:15:38.755854 32330 net.cpp:131] Top shape: 1000 24 32 32 (24576000)
I0504 13:15:38.755858 32330 net.cpp:139] Memory required for data: 208908000
I0504 13:15:38.755861 32330 layer_factory.hpp:77] Creating layer pool0
I0504 13:15:38.755869 32330 net.cpp:86] Creating Layer pool0
I0504 13:15:38.755872 32330 net.cpp:408] pool0 <- Sigmoid0
I0504 13:15:38.755877 32330 net.cpp:382] pool0 -> pool0
I0504 13:15:38.757114 32330 net.cpp:124] Setting up pool0
I0504 13:15:38.757127 32330 net.cpp:131] Top shape: 1000 24 16 16 (6144000)
I0504 13:15:38.757135 32330 net.cpp:139] Memory required for data: 233484000
I0504 13:15:38.757138 32330 layer_factory.hpp:77] Creating layer conv1
I0504 13:15:38.757164 32330 net.cpp:86] Creating Layer conv1
I0504 13:15:38.757167 32330 net.cpp:408] conv1 <- pool0
I0504 13:15:38.757174 32330 net.cpp:382] conv1 -> conv1
I0504 13:15:38.759821 32330 net.cpp:124] Setting up conv1
I0504 13:15:38.759835 32330 net.cpp:131] Top shape: 1000 216 18 18 (69984000)
I0504 13:15:38.759837 32330 net.cpp:139] Memory required for data: 513420000
I0504 13:15:38.759862 32330 layer_factory.hpp:77] Creating layer Sigmoid1
I0504 13:15:38.759883 32330 net.cpp:86] Creating Layer Sigmoid1
I0504 13:15:38.759888 32330 net.cpp:408] Sigmoid1 <- conv1
I0504 13:15:38.759902 32330 net.cpp:382] Sigmoid1 -> Sigmoid1
I0504 13:15:38.760074 32330 net.cpp:124] Setting up Sigmoid1
I0504 13:15:38.760084 32330 net.cpp:131] Top shape: 1000 216 18 18 (69984000)
I0504 13:15:38.760087 32330 net.cpp:139] Memory required for data: 793356000
I0504 13:15:38.760090 32330 layer_factory.hpp:77] Creating layer pool1
I0504 13:15:38.760097 32330 net.cpp:86] Creating Layer pool1
I0504 13:15:38.760100 32330 net.cpp:408] pool1 <- Sigmoid1
I0504 13:15:38.760105 32330 net.cpp:382] pool1 -> pool1
I0504 13:15:38.760951 32330 net.cpp:124] Setting up pool1
I0504 13:15:38.760963 32330 net.cpp:131] Top shape: 1000 216 9 9 (17496000)
I0504 13:15:38.760967 32330 net.cpp:139] Memory required for data: 863340000
I0504 13:15:38.760970 32330 layer_factory.hpp:77] Creating layer ip1
I0504 13:15:38.760996 32330 net.cpp:86] Creating Layer ip1
I0504 13:15:38.761000 32330 net.cpp:408] ip1 <- pool1
I0504 13:15:38.761005 32330 net.cpp:382] ip1 -> ip1
I0504 13:15:38.790451 32330 net.cpp:124] Setting up ip1
I0504 13:15:38.790467 32330 net.cpp:131] Top shape: 1000 60 (60000)
I0504 13:15:38.790472 32330 net.cpp:139] Memory required for data: 863580000
I0504 13:15:38.790480 32330 layer_factory.hpp:77] Creating layer relu1
I0504 13:15:38.790503 32330 net.cpp:86] Creating Layer relu1
I0504 13:15:38.790508 32330 net.cpp:408] relu1 <- ip1
I0504 13:15:38.790513 32330 net.cpp:369] relu1 -> ip1 (in-place)
I0504 13:15:38.790701 32330 net.cpp:124] Setting up relu1
I0504 13:15:38.790709 32330 net.cpp:131] Top shape: 1000 60 (60000)
I0504 13:15:38.790714 32330 net.cpp:139] Memory required for data: 863820000
I0504 13:15:38.790716 32330 layer_factory.hpp:77] Creating layer ip2
I0504 13:15:38.790725 32330 net.cpp:86] Creating Layer ip2
I0504 13:15:38.790729 32330 net.cpp:408] ip2 <- ip1
I0504 13:15:38.790733 32330 net.cpp:382] ip2 -> ip2
I0504 13:15:38.790864 32330 net.cpp:124] Setting up ip2
I0504 13:15:38.790871 32330 net.cpp:131] Top shape: 1000 10 (10000)
I0504 13:15:38.790874 32330 net.cpp:139] Memory required for data: 863860000
I0504 13:15:38.790879 32330 layer_factory.hpp:77] Creating layer relu2
I0504 13:15:38.790884 32330 net.cpp:86] Creating Layer relu2
I0504 13:15:38.790887 32330 net.cpp:408] relu2 <- ip2
I0504 13:15:38.790892 32330 net.cpp:369] relu2 -> ip2 (in-place)
I0504 13:15:38.791059 32330 net.cpp:124] Setting up relu2
I0504 13:15:38.791065 32330 net.cpp:131] Top shape: 1000 10 (10000)
I0504 13:15:38.791069 32330 net.cpp:139] Memory required for data: 863900000
I0504 13:15:38.791072 32330 layer_factory.hpp:77] Creating layer ip3
I0504 13:15:38.791080 32330 net.cpp:86] Creating Layer ip3
I0504 13:15:38.791084 32330 net.cpp:408] ip3 <- ip2
I0504 13:15:38.791090 32330 net.cpp:382] ip3 -> ip3
I0504 13:15:38.791218 32330 net.cpp:124] Setting up ip3
I0504 13:15:38.791224 32330 net.cpp:131] Top shape: 1000 10 (10000)
I0504 13:15:38.791240 32330 net.cpp:139] Memory required for data: 863940000
I0504 13:15:38.791250 32330 layer_factory.hpp:77] Creating layer ip3_ip3_0_split
I0504 13:15:38.791256 32330 net.cpp:86] Creating Layer ip3_ip3_0_split
I0504 13:15:38.791260 32330 net.cpp:408] ip3_ip3_0_split <- ip3
I0504 13:15:38.791265 32330 net.cpp:382] ip3_ip3_0_split -> ip3_ip3_0_split_0
I0504 13:15:38.791270 32330 net.cpp:382] ip3_ip3_0_split -> ip3_ip3_0_split_1
I0504 13:15:38.791304 32330 net.cpp:124] Setting up ip3_ip3_0_split
I0504 13:15:38.791309 32330 net.cpp:131] Top shape: 1000 10 (10000)
I0504 13:15:38.791313 32330 net.cpp:131] Top shape: 1000 10 (10000)
I0504 13:15:38.791316 32330 net.cpp:139] Memory required for data: 864020000
I0504 13:15:38.791319 32330 layer_factory.hpp:77] Creating layer accuracy
I0504 13:15:38.791324 32330 net.cpp:86] Creating Layer accuracy
I0504 13:15:38.791328 32330 net.cpp:408] accuracy <- ip3_ip3_0_split_0
I0504 13:15:38.791342 32330 net.cpp:408] accuracy <- label_cifar_1_split_0
I0504 13:15:38.791347 32330 net.cpp:382] accuracy -> accuracy
…
