…
I0504 08:17:12.393662 21507 net.cpp:296] The NetState phase (0) differed from the phase (1) specified by a rule in layer cifar
I0504 08:17:12.393682 21507 net.cpp:296] The NetState phase (0) differed from the phase (1) specified by a rule in layer accuracy
I0504 08:17:12.393788 21507 net.cpp:53] Initializing net from parameters: 
name: "CIFAR"
state {
  phase: TRAIN
  level: 0
  stage: ""
}
layer {
  name: "cifar"
  type: "Data"
  top: "data"
  top: "label"
  include {
    phase: TRAIN
  }
  transform_param {
    mean_file: "examples/cifar10/mean.binaryproto"
  }
  data_param {
    source: "examples/cifar10/cifar10_train_lmdb"
    batch_size: 111
    backend: LMDB
  }
}
layer {
  name: "conv0"
  type: "Convolution"
  bottom: "data"
  top: "conv0"
  param {
    lr_mult: 1
  }
  param {
    lr_mult: 2
  }
  convolution_param {
    num_output: 24
    pad: 2
    kernel_size: 5
    stride: 1
    weight_filler {
      type: "gaussian"
      std: 0.01
    }
    bias_filler {
      type: "constant"
    }
  }
}
layer {
  name: "Sigmoid0"
  type: "Sigmoid"
  bottom: "conv0"
  top: "Sigmoid0"
}
layer {
  name: "pool0"
  type: "Pooling"
  bottom: "Sigmoid0"
  top: "pool0"
  pooling_param {
    pool: AVE
    kernel_size: 3
    stride: 2
  }
}
layer {
  name: "conv1"
  type: "Convolution"
  bottom: "pool0"
  top: "conv1"
  param {
    lr_mult: 1
  }
  param {
    lr_mult: 2
  }
  convolution_param {
    num_output: 24
    pad: 2
    kernel_size: 5
    stride: 1
    weight_filler {
      type: "gaussian"
      std: 0.01
    }
    bias_filler {
      type: "constant"
    }
  }
}
layer {
  name: "Sigmoid1"
  type: "Sigmoid"
  bottom: "conv1"
  top: "Sigmoid1"
}
layer {
  name: "pool1"
  type: "Pooling"
  bottom: "Sigmoid1"
  top: "pool1"
  pooling_param {
    pool: AVE
    kernel_size: 3
    stride: 2
  }
}
layer {
  name: "ip1"
  type: "InnerProduct"
  bottom: "pool1"
  top: "ip1"
  param {
    lr_mult: 1
  }
  param {
    lr_mult: 2
  }
  inner_product_param {
    num_output: 180
    weight_filler {
      type: "gaussian"
      std: 0.01
    }
    bias_filler {
      type: "constant"
    }
  }
}
layer {
  name: "relu1"
  type: "ReLU"
  bottom: "ip1"
  top: "ip1"
}
layer {
  name: "ip2"
  type: "InnerProduct"
  bottom: "ip1"
  top: "ip2"
  param {
    lr_mult: 1
  }
  param {
    lr_mult: 2
  }
  inner_product_param {
    num_output: 10
    weight_filler {
      type: "gaussian"
      std: 0.01
    }
    bias_filler {
      type: "constant"
    }
  }
}
layer {
  name: "loss"
  type: "SoftmaxWithLoss"
  bottom: "ip2"
  bottom: "label"
  top: "loss"
}
I0504 08:17:12.393867 21507 layer_factory.hpp:77] Creating layer cifar
I0504 08:17:12.393965 21507 db_lmdb.cpp:35] Opened lmdb examples/cifar10/cifar10_train_lmdb
I0504 08:17:12.393995 21507 net.cpp:86] Creating Layer cifar
I0504 08:17:12.394003 21507 net.cpp:382] cifar -> data
I0504 08:17:12.394024 21507 net.cpp:382] cifar -> label
I0504 08:17:12.394037 21507 data_transformer.cpp:25] Loading mean file from: examples/cifar10/mean.binaryproto
I0504 08:17:12.396221 21507 data_layer.cpp:45] output data size: 111,3,32,32
I0504 08:17:12.404207 21507 net.cpp:124] Setting up cifar
I0504 08:17:12.404227 21507 net.cpp:131] Top shape: 111 3 32 32 (340992)
I0504 08:17:12.404235 21507 net.cpp:131] Top shape: 111 (111)
I0504 08:17:12.404239 21507 net.cpp:139] Memory required for data: 1364412
I0504 08:17:12.404247 21507 layer_factory.hpp:77] Creating layer conv0
I0504 08:17:12.404264 21507 net.cpp:86] Creating Layer conv0
I0504 08:17:12.404286 21507 net.cpp:408] conv0 <- data
I0504 08:17:12.404301 21507 net.cpp:382] conv0 -> conv0
I0504 08:17:12.707720 21507 net.cpp:124] Setting up conv0
I0504 08:17:12.707751 21507 net.cpp:131] Top shape: 111 24 32 32 (2727936)
I0504 08:17:12.707754 21507 net.cpp:139] Memory required for data: 12276156
I0504 08:17:12.707770 21507 layer_factory.hpp:77] Creating layer Sigmoid0
I0504 08:17:12.707782 21507 net.cpp:86] Creating Layer Sigmoid0
I0504 08:17:12.707787 21507 net.cpp:408] Sigmoid0 <- conv0
I0504 08:17:12.707792 21507 net.cpp:382] Sigmoid0 -> Sigmoid0
I0504 08:17:12.707984 21507 net.cpp:124] Setting up Sigmoid0
I0504 08:17:12.707995 21507 net.cpp:131] Top shape: 111 24 32 32 (2727936)
I0504 08:17:12.707999 21507 net.cpp:139] Memory required for data: 23187900
I0504 08:17:12.708003 21507 layer_factory.hpp:77] Creating layer pool0
I0504 08:17:12.708010 21507 net.cpp:86] Creating Layer pool0
I0504 08:17:12.708014 21507 net.cpp:408] pool0 <- Sigmoid0
I0504 08:17:12.708019 21507 net.cpp:382] pool0 -> pool0
I0504 08:17:12.708827 21507 net.cpp:124] Setting up pool0
I0504 08:17:12.708842 21507 net.cpp:131] Top shape: 111 24 16 16 (681984)
I0504 08:17:12.708847 21507 net.cpp:139] Memory required for data: 25915836
I0504 08:17:12.708849 21507 layer_factory.hpp:77] Creating layer conv1
I0504 08:17:12.708863 21507 net.cpp:86] Creating Layer conv1
I0504 08:17:12.708868 21507 net.cpp:408] conv1 <- pool0
I0504 08:17:12.708873 21507 net.cpp:382] conv1 -> conv1
I0504 08:17:12.712098 21507 net.cpp:124] Setting up conv1
I0504 08:17:12.712113 21507 net.cpp:131] Top shape: 111 24 16 16 (681984)
I0504 08:17:12.712117 21507 net.cpp:139] Memory required for data: 28643772
I0504 08:17:12.712126 21507 layer_factory.hpp:77] Creating layer Sigmoid1
I0504 08:17:12.712133 21507 net.cpp:86] Creating Layer Sigmoid1
I0504 08:17:12.712137 21507 net.cpp:408] Sigmoid1 <- conv1
I0504 08:17:12.712142 21507 net.cpp:382] Sigmoid1 -> Sigmoid1
I0504 08:17:12.712322 21507 net.cpp:124] Setting up Sigmoid1
I0504 08:17:12.712333 21507 net.cpp:131] Top shape: 111 24 16 16 (681984)
I0504 08:17:12.712337 21507 net.cpp:139] Memory required for data: 31371708
I0504 08:17:12.712340 21507 layer_factory.hpp:77] Creating layer pool1
I0504 08:17:12.712347 21507 net.cpp:86] Creating Layer pool1
I0504 08:17:12.712350 21507 net.cpp:408] pool1 <- Sigmoid1
I0504 08:17:12.712355 21507 net.cpp:382] pool1 -> pool1
I0504 08:17:12.712525 21507 net.cpp:124] Setting up pool1
I0504 08:17:12.712534 21507 net.cpp:131] Top shape: 111 24 8 8 (170496)
I0504 08:17:12.712538 21507 net.cpp:139] Memory required for data: 32053692
I0504 08:17:12.712541 21507 layer_factory.hpp:77] Creating layer ip1
I0504 08:17:12.712549 21507 net.cpp:86] Creating Layer ip1
I0504 08:17:12.712556 21507 net.cpp:408] ip1 <- pool1
I0504 08:17:12.712563 21507 net.cpp:382] ip1 -> ip1
I0504 08:17:12.721552 21507 net.cpp:124] Setting up ip1
I0504 08:17:12.721567 21507 net.cpp:131] Top shape: 111 180 (19980)
I0504 08:17:12.721570 21507 net.cpp:139] Memory required for data: 32133612
I0504 08:17:12.721580 21507 layer_factory.hpp:77] Creating layer relu1
I0504 08:17:12.721586 21507 net.cpp:86] Creating Layer relu1
I0504 08:17:12.721590 21507 net.cpp:408] relu1 <- ip1
I0504 08:17:12.721596 21507 net.cpp:369] relu1 -> ip1 (in-place)
I0504 08:17:12.721765 21507 net.cpp:124] Setting up relu1
I0504 08:17:12.721774 21507 net.cpp:131] Top shape: 111 180 (19980)
I0504 08:17:12.721777 21507 net.cpp:139] Memory required for data: 32213532
I0504 08:17:12.721781 21507 layer_factory.hpp:77] Creating layer ip2
I0504 08:17:12.721788 21507 net.cpp:86] Creating Layer ip2
I0504 08:17:12.721792 21507 net.cpp:408] ip2 <- ip1
I0504 08:17:12.721797 21507 net.cpp:382] ip2 -> ip2
I0504 08:17:12.721956 21507 net.cpp:124] Setting up ip2
I0504 08:17:12.721963 21507 net.cpp:131] Top shape: 111 10 (1110)
I0504 08:17:12.721966 21507 net.cpp:139] Memory required for data: 32217972
I0504 08:17:12.721972 21507 layer_factory.hpp:77] Creating layer loss
I0504 08:17:12.721978 21507 net.cpp:86] Creating Layer loss
I0504 08:17:12.721999 21507 net.cpp:408] loss <- ip2
I0504 08:17:12.722004 21507 net.cpp:408] loss <- label
I0504 08:17:12.722009 21507 net.cpp:382] loss -> loss
I0504 08:17:12.722028 21507 layer_factory.hpp:77] Creating layer loss
…
I0504 08:17:12.723304 21507 solver.cpp:173] Creating test net (#0) specified by net file: ECE595/cifar/train_test/var_everything_tiny/cifar_train_test_98.prototxt
I0504 08:17:12.723331 21507 net.cpp:296] The NetState phase (1) differed from the phase (0) specified by a rule in layer cifar
I0504 08:17:12.723428 21507 net.cpp:53] Initializing net from parameters: 
name: "CIFAR"
state {
  phase: TEST
}
layer {
  name: "cifar"
  type: "Data"
  top: "data"
  top: "label"
  include {
    phase: TEST
  }
  transform_param {
    mean_file: "examples/cifar10/mean.binaryproto"
  }
  data_param {
    source: "examples/cifar10/cifar10_test_lmdb"
    batch_size: 1000
    backend: LMDB
  }
}
layer {
  name: "conv0"
  type: "Convolution"
  bottom: "data"
  top: "conv0"
  param {
    lr_mult: 1
  }
  param {
    lr_mult: 2
  }
  convolution_param {
    num_output: 24
    pad: 2
    kernel_size: 5
    stride: 1
    weight_filler {
      type: "gaussian"
      std: 0.01
    }
    bias_filler {
      type: "constant"
    }
  }
}
layer {
  name: "Sigmoid0"
  type: "Sigmoid"
  bottom: "conv0"
  top: "Sigmoid0"
}
layer {
  name: "pool0"
  type: "Pooling"
  bottom: "Sigmoid0"
  top: "pool0"
  pooling_param {
    pool: AVE
    kernel_size: 3
    stride: 2
  }
}
layer {
  name: "conv1"
  type: "Convolution"
  bottom: "pool0"
  top: "conv1"
  param {
    lr_mult: 1
  }
  param {
    lr_mult: 2
  }
  convolution_param {
    num_output: 24
    pad: 2
    kernel_size: 5
    stride: 1
    weight_filler {
      type: "gaussian"
      std: 0.01
    }
    bias_filler {
      type: "constant"
    }
  }
}
layer {
  name: "Sigmoid1"
  type: "Sigmoid"
  bottom: "conv1"
  top: "Sigmoid1"
}
layer {
  name: "pool1"
  type: "Pooling"
  bottom: "Sigmoid1"
  top: "pool1"
  pooling_param {
    pool: AVE
    kernel_size: 3
    stride: 2
  }
}
layer {
  name: "ip1"
  type: "InnerProduct"
  bottom: "pool1"
  top: "ip1"
  param {
    lr_mult: 1
  }
  param {
    lr_mult: 2
  }
  inner_product_param {
    num_output: 180
    weight_filler {
      type: "gaussian"
      std: 0.01
    }
    bias_filler {
      type: "constant"
    }
  }
}
layer {
  name: "relu1"
  type: "ReLU"
  bottom: "ip1"
  top: "ip1"
}
layer {
  name: "ip2"
  type: "InnerProduct"
  bottom: "ip1"
  top: "ip2"
  param {
    lr_mult: 1
  }
  param {
    lr_mult: 2
  }
  inner_product_param {
    num_output: 10
    weight_filler {
      type: "gaussian"
      std: 0.01
    }
    bias_filler {
      type: "constant"
    }
  }
}
layer {
  name: "accuracy"
  type: "Accuracy"
  bottom: "ip2"
  bottom: "label"
  top: "accuracy"
  include {
    phase: TEST
  }
}
layer {
  name: "loss"
  type: "SoftmaxWithLoss"
  bottom: "ip2"
  bottom: "label"
  top: "loss"
}
I0504 08:17:12.723508 21507 layer_factory.hpp:77] Creating layer cifar
I0504 08:17:12.723559 21507 db_lmdb.cpp:35] Opened lmdb examples/cifar10/cifar10_test_lmdb
I0504 08:17:12.723572 21507 net.cpp:86] Creating Layer cifar
I0504 08:17:12.723577 21507 net.cpp:382] cifar -> data
I0504 08:17:12.723587 21507 net.cpp:382] cifar -> label
I0504 08:17:12.723593 21507 data_transformer.cpp:25] Loading mean file from: examples/cifar10/mean.binaryproto
I0504 08:17:12.723744 21507 data_layer.cpp:45] output data size: 1000,3,32,32
I0504 08:17:12.747303 21507 net.cpp:124] Setting up cifar
I0504 08:17:12.747328 21507 net.cpp:131] Top shape: 1000 3 32 32 (3072000)
I0504 08:17:12.747334 21507 net.cpp:131] Top shape: 1000 (1000)
I0504 08:17:12.747337 21507 net.cpp:139] Memory required for data: 12292000
I0504 08:17:12.747344 21507 layer_factory.hpp:77] Creating layer label_cifar_1_split
I0504 08:17:12.747376 21507 net.cpp:86] Creating Layer label_cifar_1_split
I0504 08:17:12.747382 21507 net.cpp:408] label_cifar_1_split <- label
I0504 08:17:12.747388 21507 net.cpp:382] label_cifar_1_split -> label_cifar_1_split_0
I0504 08:17:12.747397 21507 net.cpp:382] label_cifar_1_split -> label_cifar_1_split_1
I0504 08:17:12.747491 21507 net.cpp:124] Setting up label_cifar_1_split
I0504 08:17:12.747498 21507 net.cpp:131] Top shape: 1000 (1000)
I0504 08:17:12.747503 21507 net.cpp:131] Top shape: 1000 (1000)
I0504 08:17:12.747504 21507 net.cpp:139] Memory required for data: 12300000
I0504 08:17:12.747508 21507 layer_factory.hpp:77] Creating layer conv0
I0504 08:17:12.747520 21507 net.cpp:86] Creating Layer conv0
I0504 08:17:12.747524 21507 net.cpp:408] conv0 <- data
I0504 08:17:12.747529 21507 net.cpp:382] conv0 -> conv0
I0504 08:17:12.748356 21507 net.cpp:124] Setting up conv0
I0504 08:17:12.748368 21507 net.cpp:131] Top shape: 1000 24 32 32 (24576000)
I0504 08:17:12.748373 21507 net.cpp:139] Memory required for data: 110604000
I0504 08:17:12.748381 21507 layer_factory.hpp:77] Creating layer Sigmoid0
I0504 08:17:12.748387 21507 net.cpp:86] Creating Layer Sigmoid0
I0504 08:17:12.748391 21507 net.cpp:408] Sigmoid0 <- conv0
I0504 08:17:12.748395 21507 net.cpp:382] Sigmoid0 -> Sigmoid0
I0504 08:17:12.749234 21507 net.cpp:124] Setting up Sigmoid0
I0504 08:17:12.749248 21507 net.cpp:131] Top shape: 1000 24 32 32 (24576000)
I0504 08:17:12.749251 21507 net.cpp:139] Memory required for data: 208908000
I0504 08:17:12.749254 21507 layer_factory.hpp:77] Creating layer pool0
I0504 08:17:12.749264 21507 net.cpp:86] Creating Layer pool0
I0504 08:17:12.749267 21507 net.cpp:408] pool0 <- Sigmoid0
I0504 08:17:12.749272 21507 net.cpp:382] pool0 -> pool0
I0504 08:17:12.750383 21507 net.cpp:124] Setting up pool0
I0504 08:17:12.750394 21507 net.cpp:131] Top shape: 1000 24 16 16 (6144000)
I0504 08:17:12.750397 21507 net.cpp:139] Memory required for data: 233484000
I0504 08:17:12.750401 21507 layer_factory.hpp:77] Creating layer conv1
I0504 08:17:12.750411 21507 net.cpp:86] Creating Layer conv1
I0504 08:17:12.750414 21507 net.cpp:408] conv1 <- pool0
I0504 08:17:12.750419 21507 net.cpp:382] conv1 -> conv1
I0504 08:17:12.752051 21507 net.cpp:124] Setting up conv1
I0504 08:17:12.752064 21507 net.cpp:131] Top shape: 1000 24 16 16 (6144000)
I0504 08:17:12.752068 21507 net.cpp:139] Memory required for data: 258060000
I0504 08:17:12.752077 21507 layer_factory.hpp:77] Creating layer Sigmoid1
I0504 08:17:12.752084 21507 net.cpp:86] Creating Layer Sigmoid1
I0504 08:17:12.752086 21507 net.cpp:408] Sigmoid1 <- conv1
I0504 08:17:12.752091 21507 net.cpp:382] Sigmoid1 -> Sigmoid1
I0504 08:17:12.752243 21507 net.cpp:124] Setting up Sigmoid1
I0504 08:17:12.752252 21507 net.cpp:131] Top shape: 1000 24 16 16 (6144000)
I0504 08:17:12.752256 21507 net.cpp:139] Memory required for data: 282636000
I0504 08:17:12.752259 21507 layer_factory.hpp:77] Creating layer pool1
I0504 08:17:12.752264 21507 net.cpp:86] Creating Layer pool1
I0504 08:17:12.752269 21507 net.cpp:408] pool1 <- Sigmoid1
I0504 08:17:12.752272 21507 net.cpp:382] pool1 -> pool1
I0504 08:17:12.752439 21507 net.cpp:124] Setting up pool1
I0504 08:17:12.752447 21507 net.cpp:131] Top shape: 1000 24 8 8 (1536000)
I0504 08:17:12.752450 21507 net.cpp:139] Memory required for data: 288780000
I0504 08:17:12.752454 21507 layer_factory.hpp:77] Creating layer ip1
I0504 08:17:12.752462 21507 net.cpp:86] Creating Layer ip1
I0504 08:17:12.752466 21507 net.cpp:408] ip1 <- pool1
I0504 08:17:12.752470 21507 net.cpp:382] ip1 -> ip1
I0504 08:17:12.760660 21507 net.cpp:124] Setting up ip1
I0504 08:17:12.760673 21507 net.cpp:131] Top shape: 1000 180 (180000)
I0504 08:17:12.760676 21507 net.cpp:139] Memory required for data: 289500000
I0504 08:17:12.760684 21507 layer_factory.hpp:77] Creating layer relu1
I0504 08:17:12.760690 21507 net.cpp:86] Creating Layer relu1
I0504 08:17:12.760694 21507 net.cpp:408] relu1 <- ip1
I0504 08:17:12.760699 21507 net.cpp:369] relu1 -> ip1 (in-place)
I0504 08:17:12.761441 21507 net.cpp:124] Setting up relu1
I0504 08:17:12.761469 21507 net.cpp:131] Top shape: 1000 180 (180000)
I0504 08:17:12.761473 21507 net.cpp:139] Memory required for data: 290220000
I0504 08:17:12.761492 21507 layer_factory.hpp:77] Creating layer ip2
I0504 08:17:12.761499 21507 net.cpp:86] Creating Layer ip2
I0504 08:17:12.761503 21507 net.cpp:408] ip2 <- ip1
I0504 08:17:12.761509 21507 net.cpp:382] ip2 -> ip2
I0504 08:17:12.761703 21507 net.cpp:124] Setting up ip2
I0504 08:17:12.761709 21507 net.cpp:131] Top shape: 1000 10 (10000)
I0504 08:17:12.761713 21507 net.cpp:139] Memory required for data: 290260000
I0504 08:17:12.761718 21507 layer_factory.hpp:77] Creating layer ip2_ip2_0_split
I0504 08:17:12.761723 21507 net.cpp:86] Creating Layer ip2_ip2_0_split
I0504 08:17:12.761726 21507 net.cpp:408] ip2_ip2_0_split <- ip2
I0504 08:17:12.761731 21507 net.cpp:382] ip2_ip2_0_split -> ip2_ip2_0_split_0
I0504 08:17:12.761736 21507 net.cpp:382] ip2_ip2_0_split -> ip2_ip2_0_split_1
I0504 08:17:12.761767 21507 net.cpp:124] Setting up ip2_ip2_0_split
I0504 08:17:12.761773 21507 net.cpp:131] Top shape: 1000 10 (10000)
I0504 08:17:12.761777 21507 net.cpp:131] Top shape: 1000 10 (10000)
I0504 08:17:12.761780 21507 net.cpp:139] Memory required for data: 290340000
I0504 08:17:12.761783 21507 layer_factory.hpp:77] Creating layer accuracy
I0504 08:17:12.761790 21507 net.cpp:86] Creating Layer accuracy
I0504 08:17:12.761792 21507 net.cpp:408] accuracy <- ip2_ip2_0_split_0
I0504 08:17:12.761796 21507 net.cpp:408] accuracy <- label_cifar_1_split_0
I0504 08:17:12.761801 21507 net.cpp:382] accuracy -> accuracy
…
