…
I0504 07:56:08.153162 20267 net.cpp:296] The NetState phase (0) differed from the phase (1) specified by a rule in layer cifar
I0504 07:56:08.153182 20267 net.cpp:296] The NetState phase (0) differed from the phase (1) specified by a rule in layer accuracy
I0504 07:56:08.153295 20267 net.cpp:53] Initializing net from parameters: 
name: "CIFAR"
state {
  phase: TRAIN
  level: 0
  stage: ""
}
layer {
  name: "cifar"
  type: "Data"
  top: "data"
  top: "label"
  include {
    phase: TRAIN
  }
  transform_param {
    mean_file: "examples/cifar10/mean.binaryproto"
  }
  data_param {
    source: "examples/cifar10/cifar10_train_lmdb"
    batch_size: 111
    backend: LMDB
  }
}
layer {
  name: "conv0"
  type: "Convolution"
  bottom: "data"
  top: "conv0"
  param {
    lr_mult: 1
  }
  param {
    lr_mult: 2
  }
  convolution_param {
    num_output: 24
    pad: 2
    kernel_size: 5
    stride: 1
    weight_filler {
      type: "gaussian"
      std: 0.01
    }
    bias_filler {
      type: "constant"
    }
  }
}
layer {
  name: "Sigmoid0"
  type: "Sigmoid"
  bottom: "conv0"
  top: "Sigmoid0"
}
layer {
  name: "pool0"
  type: "Pooling"
  bottom: "Sigmoid0"
  top: "pool0"
  pooling_param {
    pool: AVE
    kernel_size: 3
    stride: 2
  }
}
layer {
  name: "conv1"
  type: "Convolution"
  bottom: "pool0"
  top: "conv1"
  param {
    lr_mult: 1
  }
  param {
    lr_mult: 2
  }
  convolution_param {
    num_output: 24
    pad: 2
    kernel_size: 3
    stride: 1
    weight_filler {
      type: "gaussian"
      std: 0.01
    }
    bias_filler {
      type: "constant"
    }
  }
}
layer {
  name: "Sigmoid1"
  type: "Sigmoid"
  bottom: "conv1"
  top: "Sigmoid1"
}
layer {
  name: "pool1"
  type: "Pooling"
  bottom: "Sigmoid1"
  top: "pool1"
  pooling_param {
    pool: AVE
    kernel_size: 3
    stride: 2
  }
}
layer {
  name: "ip1"
  type: "InnerProduct"
  bottom: "pool1"
  top: "ip1"
  param {
    lr_mult: 1
  }
  param {
    lr_mult: 2
  }
  inner_product_param {
    num_output: 60
    weight_filler {
      type: "gaussian"
      std: 0.01
    }
    bias_filler {
      type: "constant"
    }
  }
}
layer {
  name: "relu1"
  type: "ReLU"
  bottom: "ip1"
  top: "ip1"
}
layer {
  name: "ip2"
  type: "InnerProduct"
  bottom: "ip1"
  top: "ip2"
  param {
    lr_mult: 1
  }
  param {
    lr_mult: 2
  }
  inner_product_param {
    num_output: 10
    weight_filler {
      type: "gaussian"
      std: 0.01
    }
    bias_filler {
      type: "constant"
    }
  }
}
layer {
  name: "relu2"
  type: "ReLU"
  bottom: "ip2"
  top: "ip2"
}
layer {
  name: "ip3"
  type: "InnerProduct"
  bottom: "ip2"
  top: "ip3"
  param {
    lr_mult: 1
  }
  param {
    lr_mult: 2
  }
  inner_product_param {
    num_output: 10
    weight_filler {
      type: "gaussian"
      std: 0.01
    }
    bias_filler {
      type: "constant"
    }
  }
}
layer {
  name: "loss"
  type: "SoftmaxWithLoss"
  bottom: "ip3"
  bottom: "label"
  top: "loss"
}
I0504 07:56:08.153378 20267 layer_factory.hpp:77] Creating layer cifar
I0504 07:56:08.153476 20267 db_lmdb.cpp:35] Opened lmdb examples/cifar10/cifar10_train_lmdb
I0504 07:56:08.153504 20267 net.cpp:86] Creating Layer cifar
I0504 07:56:08.153514 20267 net.cpp:382] cifar -> data
I0504 07:56:08.153538 20267 net.cpp:382] cifar -> label
I0504 07:56:08.153553 20267 data_transformer.cpp:25] Loading mean file from: examples/cifar10/mean.binaryproto
I0504 07:56:08.155725 20267 data_layer.cpp:45] output data size: 111,3,32,32
I0504 07:56:08.163750 20267 net.cpp:124] Setting up cifar
I0504 07:56:08.163769 20267 net.cpp:131] Top shape: 111 3 32 32 (340992)
I0504 07:56:08.163777 20267 net.cpp:131] Top shape: 111 (111)
I0504 07:56:08.163780 20267 net.cpp:139] Memory required for data: 1364412
I0504 07:56:08.163789 20267 layer_factory.hpp:77] Creating layer conv0
I0504 07:56:08.163811 20267 net.cpp:86] Creating Layer conv0
I0504 07:56:08.163817 20267 net.cpp:408] conv0 <- data
I0504 07:56:08.163830 20267 net.cpp:382] conv0 -> conv0
I0504 07:56:08.445952 20267 net.cpp:124] Setting up conv0
I0504 07:56:08.445994 20267 net.cpp:131] Top shape: 111 24 32 32 (2727936)
I0504 07:56:08.445998 20267 net.cpp:139] Memory required for data: 12276156
I0504 07:56:08.446012 20267 layer_factory.hpp:77] Creating layer Sigmoid0
I0504 07:56:08.446024 20267 net.cpp:86] Creating Layer Sigmoid0
I0504 07:56:08.446027 20267 net.cpp:408] Sigmoid0 <- conv0
I0504 07:56:08.446033 20267 net.cpp:382] Sigmoid0 -> Sigmoid0
I0504 07:56:08.446260 20267 net.cpp:124] Setting up Sigmoid0
I0504 07:56:08.446269 20267 net.cpp:131] Top shape: 111 24 32 32 (2727936)
I0504 07:56:08.446272 20267 net.cpp:139] Memory required for data: 23187900
I0504 07:56:08.446275 20267 layer_factory.hpp:77] Creating layer pool0
I0504 07:56:08.446282 20267 net.cpp:86] Creating Layer pool0
I0504 07:56:08.446285 20267 net.cpp:408] pool0 <- Sigmoid0
I0504 07:56:08.446290 20267 net.cpp:382] pool0 -> pool0
I0504 07:56:08.447023 20267 net.cpp:124] Setting up pool0
I0504 07:56:08.447036 20267 net.cpp:131] Top shape: 111 24 16 16 (681984)
I0504 07:56:08.447054 20267 net.cpp:139] Memory required for data: 25915836
I0504 07:56:08.447058 20267 layer_factory.hpp:77] Creating layer conv1
I0504 07:56:08.447069 20267 net.cpp:86] Creating Layer conv1
I0504 07:56:08.447073 20267 net.cpp:408] conv1 <- pool0
I0504 07:56:08.447078 20267 net.cpp:382] conv1 -> conv1
I0504 07:56:08.449743 20267 net.cpp:124] Setting up conv1
I0504 07:56:08.449755 20267 net.cpp:131] Top shape: 111 24 18 18 (863136)
I0504 07:56:08.449759 20267 net.cpp:139] Memory required for data: 29368380
I0504 07:56:08.449767 20267 layer_factory.hpp:77] Creating layer Sigmoid1
I0504 07:56:08.449774 20267 net.cpp:86] Creating Layer Sigmoid1
I0504 07:56:08.449776 20267 net.cpp:408] Sigmoid1 <- conv1
I0504 07:56:08.449780 20267 net.cpp:382] Sigmoid1 -> Sigmoid1
I0504 07:56:08.449975 20267 net.cpp:124] Setting up Sigmoid1
I0504 07:56:08.449983 20267 net.cpp:131] Top shape: 111 24 18 18 (863136)
I0504 07:56:08.449986 20267 net.cpp:139] Memory required for data: 32820924
I0504 07:56:08.449990 20267 layer_factory.hpp:77] Creating layer pool1
I0504 07:56:08.449995 20267 net.cpp:86] Creating Layer pool1
I0504 07:56:08.449998 20267 net.cpp:408] pool1 <- Sigmoid1
I0504 07:56:08.450003 20267 net.cpp:382] pool1 -> pool1
I0504 07:56:08.450172 20267 net.cpp:124] Setting up pool1
I0504 07:56:08.450181 20267 net.cpp:131] Top shape: 111 24 9 9 (215784)
I0504 07:56:08.450183 20267 net.cpp:139] Memory required for data: 33684060
I0504 07:56:08.450186 20267 layer_factory.hpp:77] Creating layer ip1
I0504 07:56:08.450211 20267 net.cpp:86] Creating Layer ip1
I0504 07:56:08.450213 20267 net.cpp:408] ip1 <- pool1
I0504 07:56:08.450218 20267 net.cpp:382] ip1 -> ip1
I0504 07:56:08.453373 20267 net.cpp:124] Setting up ip1
I0504 07:56:08.453382 20267 net.cpp:131] Top shape: 111 60 (6660)
I0504 07:56:08.453383 20267 net.cpp:139] Memory required for data: 33710700
I0504 07:56:08.453392 20267 layer_factory.hpp:77] Creating layer relu1
I0504 07:56:08.453398 20267 net.cpp:86] Creating Layer relu1
I0504 07:56:08.453402 20267 net.cpp:408] relu1 <- ip1
I0504 07:56:08.453405 20267 net.cpp:369] relu1 -> ip1 (in-place)
I0504 07:56:08.453593 20267 net.cpp:124] Setting up relu1
I0504 07:56:08.453601 20267 net.cpp:131] Top shape: 111 60 (6660)
I0504 07:56:08.453604 20267 net.cpp:139] Memory required for data: 33737340
I0504 07:56:08.453608 20267 layer_factory.hpp:77] Creating layer ip2
I0504 07:56:08.453614 20267 net.cpp:86] Creating Layer ip2
I0504 07:56:08.453618 20267 net.cpp:408] ip2 <- ip1
I0504 07:56:08.453635 20267 net.cpp:382] ip2 -> ip2
I0504 07:56:08.453757 20267 net.cpp:124] Setting up ip2
I0504 07:56:08.453764 20267 net.cpp:131] Top shape: 111 10 (1110)
I0504 07:56:08.453766 20267 net.cpp:139] Memory required for data: 33741780
I0504 07:56:08.453773 20267 layer_factory.hpp:77] Creating layer relu2
I0504 07:56:08.453778 20267 net.cpp:86] Creating Layer relu2
I0504 07:56:08.453795 20267 net.cpp:408] relu2 <- ip2
I0504 07:56:08.453799 20267 net.cpp:369] relu2 -> ip2 (in-place)
I0504 07:56:08.454531 20267 net.cpp:124] Setting up relu2
I0504 07:56:08.454543 20267 net.cpp:131] Top shape: 111 10 (1110)
I0504 07:56:08.454545 20267 net.cpp:139] Memory required for data: 33746220
I0504 07:56:08.454550 20267 layer_factory.hpp:77] Creating layer ip3
I0504 07:56:08.454556 20267 net.cpp:86] Creating Layer ip3
I0504 07:56:08.454560 20267 net.cpp:408] ip3 <- ip2
I0504 07:56:08.454581 20267 net.cpp:382] ip3 -> ip3
I0504 07:56:08.454706 20267 net.cpp:124] Setting up ip3
I0504 07:56:08.454713 20267 net.cpp:131] Top shape: 111 10 (1110)
I0504 07:56:08.454716 20267 net.cpp:139] Memory required for data: 33750660
I0504 07:56:08.454725 20267 layer_factory.hpp:77] Creating layer loss
I0504 07:56:08.454730 20267 net.cpp:86] Creating Layer loss
I0504 07:56:08.454732 20267 net.cpp:408] loss <- ip3
I0504 07:56:08.454736 20267 net.cpp:408] loss <- label
I0504 07:56:08.454742 20267 net.cpp:382] loss -> loss
I0504 07:56:08.454758 20267 layer_factory.hpp:77] Creating layer loss
…
I0504 07:56:08.455447 20267 solver.cpp:173] Creating test net (#0) specified by net file: ECE595/cifar/train_test/var_everything_tiny/cifar_train_test_90.prototxt
I0504 07:56:08.455518 20267 net.cpp:296] The NetState phase (1) differed from the phase (0) specified by a rule in layer cifar
I0504 07:56:08.455629 20267 net.cpp:53] Initializing net from parameters: 
name: "CIFAR"
state {
  phase: TEST
}
layer {
  name: "cifar"
  type: "Data"
  top: "data"
  top: "label"
  include {
    phase: TEST
  }
  transform_param {
    mean_file: "examples/cifar10/mean.binaryproto"
  }
  data_param {
    source: "examples/cifar10/cifar10_test_lmdb"
    batch_size: 1000
    backend: LMDB
  }
}
layer {
  name: "conv0"
  type: "Convolution"
  bottom: "data"
  top: "conv0"
  param {
    lr_mult: 1
  }
  param {
    lr_mult: 2
  }
  convolution_param {
    num_output: 24
    pad: 2
    kernel_size: 5
    stride: 1
    weight_filler {
      type: "gaussian"
      std: 0.01
    }
    bias_filler {
      type: "constant"
    }
  }
}
layer {
  name: "Sigmoid0"
  type: "Sigmoid"
  bottom: "conv0"
  top: "Sigmoid0"
}
layer {
  name: "pool0"
  type: "Pooling"
  bottom: "Sigmoid0"
  top: "pool0"
  pooling_param {
    pool: AVE
    kernel_size: 3
    stride: 2
  }
}
layer {
  name: "conv1"
  type: "Convolution"
  bottom: "pool0"
  top: "conv1"
  param {
    lr_mult: 1
  }
  param {
    lr_mult: 2
  }
  convolution_param {
    num_output: 24
    pad: 2
    kernel_size: 3
    stride: 1
    weight_filler {
      type: "gaussian"
      std: 0.01
    }
    bias_filler {
      type: "constant"
    }
  }
}
layer {
  name: "Sigmoid1"
  type: "Sigmoid"
  bottom: "conv1"
  top: "Sigmoid1"
}
layer {
  name: "pool1"
  type: "Pooling"
  bottom: "Sigmoid1"
  top: "pool1"
  pooling_param {
    pool: AVE
    kernel_size: 3
    stride: 2
  }
}
layer {
  name: "ip1"
  type: "InnerProduct"
  bottom: "pool1"
  top: "ip1"
  param {
    lr_mult: 1
  }
  param {
    lr_mult: 2
  }
  inner_product_param {
    num_output: 60
    weight_filler {
      type: "gaussian"
      std: 0.01
    }
    bias_filler {
      type: "constant"
    }
  }
}
layer {
  name: "relu1"
  type: "ReLU"
  bottom: "ip1"
  top: "ip1"
}
layer {
  name: "ip2"
  type: "InnerProduct"
  bottom: "ip1"
  top: "ip2"
  param {
    lr_mult: 1
  }
  param {
    lr_mult: 2
  }
  inner_product_param {
    num_output: 10
    weight_filler {
      type: "gaussian"
      std: 0.01
    }
    bias_filler {
      type: "constant"
    }
  }
}
layer {
  name: "relu2"
  type: "ReLU"
  bottom: "ip2"
  top: "ip2"
}
layer {
  name: "ip3"
  type: "InnerProduct"
  bottom: "ip2"
  top: "ip3"
  param {
    lr_mult: 1
  }
  param {
    lr_mult: 2
  }
  inner_product_param {
    num_output: 10
    weight_filler {
      type: "gaussian"
      std: 0.01
    }
    bias_filler {
      type: "constant"
    }
  }
}
layer {
  name: "accuracy"
  type: "Accuracy"
  bottom: "ip3"
  bottom: "label"
  top: "accuracy"
  include {
    phase: TEST
  }
}
layer {
  name: "loss"
  type: "SoftmaxWithLoss"
  bottom: "ip3"
  bottom: "label"
  top: "loss"
}
I0504 07:56:08.455731 20267 layer_factory.hpp:77] Creating layer cifar
I0504 07:56:08.455777 20267 db_lmdb.cpp:35] Opened lmdb examples/cifar10/cifar10_test_lmdb
I0504 07:56:08.455790 20267 net.cpp:86] Creating Layer cifar
I0504 07:56:08.455793 20267 net.cpp:382] cifar -> data
I0504 07:56:08.455801 20267 net.cpp:382] cifar -> label
I0504 07:56:08.455807 20267 data_transformer.cpp:25] Loading mean file from: examples/cifar10/mean.binaryproto
I0504 07:56:08.455952 20267 data_layer.cpp:45] output data size: 1000,3,32,32
I0504 07:56:08.477612 20267 net.cpp:124] Setting up cifar
I0504 07:56:08.477646 20267 net.cpp:131] Top shape: 1000 3 32 32 (3072000)
I0504 07:56:08.477655 20267 net.cpp:131] Top shape: 1000 (1000)
I0504 07:56:08.477660 20267 net.cpp:139] Memory required for data: 12292000
I0504 07:56:08.477669 20267 layer_factory.hpp:77] Creating layer label_cifar_1_split
I0504 07:56:08.477692 20267 net.cpp:86] Creating Layer label_cifar_1_split
I0504 07:56:08.477699 20267 net.cpp:408] label_cifar_1_split <- label
I0504 07:56:08.477706 20267 net.cpp:382] label_cifar_1_split -> label_cifar_1_split_0
I0504 07:56:08.477716 20267 net.cpp:382] label_cifar_1_split -> label_cifar_1_split_1
I0504 07:56:08.477795 20267 net.cpp:124] Setting up label_cifar_1_split
I0504 07:56:08.477804 20267 net.cpp:131] Top shape: 1000 (1000)
I0504 07:56:08.477808 20267 net.cpp:131] Top shape: 1000 (1000)
I0504 07:56:08.477811 20267 net.cpp:139] Memory required for data: 12300000
I0504 07:56:08.477814 20267 layer_factory.hpp:77] Creating layer conv0
I0504 07:56:08.477828 20267 net.cpp:86] Creating Layer conv0
I0504 07:56:08.477831 20267 net.cpp:408] conv0 <- data
I0504 07:56:08.477838 20267 net.cpp:382] conv0 -> conv0
I0504 07:56:08.480401 20267 net.cpp:124] Setting up conv0
I0504 07:56:08.480432 20267 net.cpp:131] Top shape: 1000 24 32 32 (24576000)
I0504 07:56:08.480435 20267 net.cpp:139] Memory required for data: 110604000
I0504 07:56:08.480448 20267 layer_factory.hpp:77] Creating layer Sigmoid0
I0504 07:56:08.480458 20267 net.cpp:86] Creating Layer Sigmoid0
I0504 07:56:08.480460 20267 net.cpp:408] Sigmoid0 <- conv0
I0504 07:56:08.480465 20267 net.cpp:382] Sigmoid0 -> Sigmoid0
I0504 07:56:08.480648 20267 net.cpp:124] Setting up Sigmoid0
I0504 07:56:08.480669 20267 net.cpp:131] Top shape: 1000 24 32 32 (24576000)
I0504 07:56:08.480671 20267 net.cpp:139] Memory required for data: 208908000
I0504 07:56:08.480674 20267 layer_factory.hpp:77] Creating layer pool0
I0504 07:56:08.480684 20267 net.cpp:86] Creating Layer pool0
I0504 07:56:08.480686 20267 net.cpp:408] pool0 <- Sigmoid0
I0504 07:56:08.480692 20267 net.cpp:382] pool0 -> pool0
I0504 07:56:08.480923 20267 net.cpp:124] Setting up pool0
I0504 07:56:08.480933 20267 net.cpp:131] Top shape: 1000 24 16 16 (6144000)
I0504 07:56:08.480937 20267 net.cpp:139] Memory required for data: 233484000
I0504 07:56:08.480940 20267 layer_factory.hpp:77] Creating layer conv1
I0504 07:56:08.480952 20267 net.cpp:86] Creating Layer conv1
I0504 07:56:08.480955 20267 net.cpp:408] conv1 <- pool0
I0504 07:56:08.480962 20267 net.cpp:382] conv1 -> conv1
I0504 07:56:08.482480 20267 net.cpp:124] Setting up conv1
I0504 07:56:08.482492 20267 net.cpp:131] Top shape: 1000 24 18 18 (7776000)
I0504 07:56:08.482511 20267 net.cpp:139] Memory required for data: 264588000
I0504 07:56:08.482519 20267 layer_factory.hpp:77] Creating layer Sigmoid1
I0504 07:56:08.482527 20267 net.cpp:86] Creating Layer Sigmoid1
I0504 07:56:08.482529 20267 net.cpp:408] Sigmoid1 <- conv1
I0504 07:56:08.482534 20267 net.cpp:382] Sigmoid1 -> Sigmoid1
I0504 07:56:08.482725 20267 net.cpp:124] Setting up Sigmoid1
I0504 07:56:08.482735 20267 net.cpp:131] Top shape: 1000 24 18 18 (7776000)
I0504 07:56:08.482739 20267 net.cpp:139] Memory required for data: 295692000
I0504 07:56:08.482743 20267 layer_factory.hpp:77] Creating layer pool1
I0504 07:56:08.482748 20267 net.cpp:86] Creating Layer pool1
I0504 07:56:08.482751 20267 net.cpp:408] pool1 <- Sigmoid1
I0504 07:56:08.482755 20267 net.cpp:382] pool1 -> pool1
I0504 07:56:08.483542 20267 net.cpp:124] Setting up pool1
I0504 07:56:08.483556 20267 net.cpp:131] Top shape: 1000 24 9 9 (1944000)
I0504 07:56:08.483574 20267 net.cpp:139] Memory required for data: 303468000
I0504 07:56:08.483577 20267 layer_factory.hpp:77] Creating layer ip1
I0504 07:56:08.483587 20267 net.cpp:86] Creating Layer ip1
I0504 07:56:08.483590 20267 net.cpp:408] ip1 <- pool1
I0504 07:56:08.483597 20267 net.cpp:382] ip1 -> ip1
I0504 07:56:08.486863 20267 net.cpp:124] Setting up ip1
I0504 07:56:08.486871 20267 net.cpp:131] Top shape: 1000 60 (60000)
I0504 07:56:08.486889 20267 net.cpp:139] Memory required for data: 303708000
I0504 07:56:08.486898 20267 layer_factory.hpp:77] Creating layer relu1
I0504 07:56:08.486904 20267 net.cpp:86] Creating Layer relu1
I0504 07:56:08.486907 20267 net.cpp:408] relu1 <- ip1
I0504 07:56:08.486912 20267 net.cpp:369] relu1 -> ip1 (in-place)
I0504 07:56:08.487084 20267 net.cpp:124] Setting up relu1
I0504 07:56:08.487093 20267 net.cpp:131] Top shape: 1000 60 (60000)
I0504 07:56:08.487097 20267 net.cpp:139] Memory required for data: 303948000
I0504 07:56:08.487099 20267 layer_factory.hpp:77] Creating layer ip2
I0504 07:56:08.487107 20267 net.cpp:86] Creating Layer ip2
I0504 07:56:08.487109 20267 net.cpp:408] ip2 <- ip1
I0504 07:56:08.487114 20267 net.cpp:382] ip2 -> ip2
I0504 07:56:08.487241 20267 net.cpp:124] Setting up ip2
I0504 07:56:08.487248 20267 net.cpp:131] Top shape: 1000 10 (10000)
I0504 07:56:08.487251 20267 net.cpp:139] Memory required for data: 303988000
I0504 07:56:08.487257 20267 layer_factory.hpp:77] Creating layer relu2
I0504 07:56:08.487262 20267 net.cpp:86] Creating Layer relu2
I0504 07:56:08.487264 20267 net.cpp:408] relu2 <- ip2
I0504 07:56:08.487270 20267 net.cpp:369] relu2 -> ip2 (in-place)
I0504 07:56:08.487447 20267 net.cpp:124] Setting up relu2
I0504 07:56:08.487454 20267 net.cpp:131] Top shape: 1000 10 (10000)
I0504 07:56:08.487457 20267 net.cpp:139] Memory required for data: 304028000
I0504 07:56:08.487460 20267 layer_factory.hpp:77] Creating layer ip3
I0504 07:56:08.487468 20267 net.cpp:86] Creating Layer ip3
I0504 07:56:08.487471 20267 net.cpp:408] ip3 <- ip2
I0504 07:56:08.487475 20267 net.cpp:382] ip3 -> ip3
I0504 07:56:08.487583 20267 net.cpp:124] Setting up ip3
I0504 07:56:08.487591 20267 net.cpp:131] Top shape: 1000 10 (10000)
I0504 07:56:08.487604 20267 net.cpp:139] Memory required for data: 304068000
I0504 07:56:08.487612 20267 layer_factory.hpp:77] Creating layer ip3_ip3_0_split
I0504 07:56:08.487619 20267 net.cpp:86] Creating Layer ip3_ip3_0_split
I0504 07:56:08.487622 20267 net.cpp:408] ip3_ip3_0_split <- ip3
I0504 07:56:08.487627 20267 net.cpp:382] ip3_ip3_0_split -> ip3_ip3_0_split_0
I0504 07:56:08.487632 20267 net.cpp:382] ip3_ip3_0_split -> ip3_ip3_0_split_1
I0504 07:56:08.487666 20267 net.cpp:124] Setting up ip3_ip3_0_split
I0504 07:56:08.487674 20267 net.cpp:131] Top shape: 1000 10 (10000)
I0504 07:56:08.487679 20267 net.cpp:131] Top shape: 1000 10 (10000)
I0504 07:56:08.487681 20267 net.cpp:139] Memory required for data: 304148000
I0504 07:56:08.487684 20267 layer_factory.hpp:77] Creating layer accuracy
I0504 07:56:08.487689 20267 net.cpp:86] Creating Layer accuracy
I0504 07:56:08.487694 20267 net.cpp:408] accuracy <- ip3_ip3_0_split_0
I0504 07:56:08.487696 20267 net.cpp:408] accuracy <- label_cifar_1_split_0
I0504 07:56:08.487702 20267 net.cpp:382] accuracy -> accuracy
…
