…
I0504 00:36:43.054788  5756 net.cpp:296] The NetState phase (0) differed from the phase (1) specified by a rule in layer cifar
I0504 00:36:43.054811  5756 net.cpp:296] The NetState phase (0) differed from the phase (1) specified by a rule in layer accuracy
I0504 00:36:43.054911  5756 net.cpp:53] Initializing net from parameters: 
name: "CIFAR"
state {
  phase: TRAIN
  level: 0
  stage: ""
}
layer {
  name: "cifar"
  type: "Data"
  top: "data"
  top: "label"
  include {
    phase: TRAIN
  }
  transform_param {
    mean_file: "examples/cifar10/mean.binaryproto"
  }
  data_param {
    source: "examples/cifar10/cifar10_train_lmdb"
    batch_size: 111
    backend: LMDB
  }
}
layer {
  name: "conv0"
  type: "Convolution"
  bottom: "data"
  top: "conv0"
  param {
    lr_mult: 1
  }
  param {
    lr_mult: 2
  }
  convolution_param {
    num_output: 24
    pad: 2
    kernel_size: 5
    stride: 1
    weight_filler {
      type: "gaussian"
      std: 0.01
    }
    bias_filler {
      type: "constant"
    }
  }
}
layer {
  name: "Sigmoid0"
  type: "Sigmoid"
  bottom: "conv0"
  top: "Sigmoid0"
}
layer {
  name: "pool0"
  type: "Pooling"
  bottom: "Sigmoid0"
  top: "pool0"
  pooling_param {
    pool: AVE
    kernel_size: 3
    stride: 2
  }
}
layer {
  name: "ip1"
  type: "InnerProduct"
  bottom: "pool0"
  top: "ip1"
  param {
    lr_mult: 1
  }
  param {
    lr_mult: 2
  }
  inner_product_param {
    num_output: 180
    weight_filler {
      type: "gaussian"
      std: 0.01
    }
    bias_filler {
      type: "constant"
    }
  }
}
layer {
  name: "relu1"
  type: "ReLU"
  bottom: "ip1"
  top: "ip1"
}
layer {
  name: "ip2"
  type: "InnerProduct"
  bottom: "ip1"
  top: "ip2"
  param {
    lr_mult: 1
  }
  param {
    lr_mult: 2
  }
  inner_product_param {
    num_output: 180
    weight_filler {
      type: "gaussian"
      std: 0.01
    }
    bias_filler {
      type: "constant"
    }
  }
}
layer {
  name: "relu2"
  type: "ReLU"
  bottom: "ip2"
  top: "ip2"
}
layer {
  name: "ip3"
  type: "InnerProduct"
  bottom: "ip2"
  top: "ip3"
  param {
    lr_mult: 1
  }
  param {
    lr_mult: 2
  }
  inner_product_param {
    num_output: 10
    weight_filler {
      type: "gaussian"
      std: 0.01
    }
    bias_filler {
      type: "constant"
    }
  }
}
layer {
  name: "loss"
  type: "SoftmaxWithLoss"
  bottom: "ip3"
  bottom: "label"
  top: "loss"
}
I0504 00:36:43.054987  5756 layer_factory.hpp:77] Creating layer cifar
I0504 00:36:43.055086  5756 db_lmdb.cpp:35] Opened lmdb examples/cifar10/cifar10_train_lmdb
I0504 00:36:43.055117  5756 net.cpp:86] Creating Layer cifar
I0504 00:36:43.055126  5756 net.cpp:382] cifar -> data
I0504 00:36:43.055150  5756 net.cpp:382] cifar -> label
I0504 00:36:43.055164  5756 data_transformer.cpp:25] Loading mean file from: examples/cifar10/mean.binaryproto
I0504 00:36:43.057298  5756 data_layer.cpp:45] output data size: 111,3,32,32
I0504 00:36:43.065161  5756 net.cpp:124] Setting up cifar
I0504 00:36:43.065181  5756 net.cpp:131] Top shape: 111 3 32 32 (340992)
I0504 00:36:43.065188  5756 net.cpp:131] Top shape: 111 (111)
I0504 00:36:43.065191  5756 net.cpp:139] Memory required for data: 1364412
I0504 00:36:43.065199  5756 layer_factory.hpp:77] Creating layer conv0
I0504 00:36:43.065217  5756 net.cpp:86] Creating Layer conv0
I0504 00:36:43.065222  5756 net.cpp:408] conv0 <- data
I0504 00:36:43.065237  5756 net.cpp:382] conv0 -> conv0
I0504 00:36:43.354202  5756 net.cpp:124] Setting up conv0
I0504 00:36:43.354254  5756 net.cpp:131] Top shape: 111 24 32 32 (2727936)
I0504 00:36:43.354259  5756 net.cpp:139] Memory required for data: 12276156
I0504 00:36:43.354275  5756 layer_factory.hpp:77] Creating layer Sigmoid0
I0504 00:36:43.354290  5756 net.cpp:86] Creating Layer Sigmoid0
I0504 00:36:43.354295  5756 net.cpp:408] Sigmoid0 <- conv0
I0504 00:36:43.354300  5756 net.cpp:382] Sigmoid0 -> Sigmoid0
I0504 00:36:43.354501  5756 net.cpp:124] Setting up Sigmoid0
I0504 00:36:43.354512  5756 net.cpp:131] Top shape: 111 24 32 32 (2727936)
I0504 00:36:43.354516  5756 net.cpp:139] Memory required for data: 23187900
I0504 00:36:43.354521  5756 layer_factory.hpp:77] Creating layer pool0
I0504 00:36:43.354528  5756 net.cpp:86] Creating Layer pool0
I0504 00:36:43.354532  5756 net.cpp:408] pool0 <- Sigmoid0
I0504 00:36:43.354537  5756 net.cpp:382] pool0 -> pool0
I0504 00:36:43.355378  5756 net.cpp:124] Setting up pool0
I0504 00:36:43.355394  5756 net.cpp:131] Top shape: 111 24 16 16 (681984)
I0504 00:36:43.355398  5756 net.cpp:139] Memory required for data: 25915836
I0504 00:36:43.355402  5756 layer_factory.hpp:77] Creating layer ip1
I0504 00:36:43.355412  5756 net.cpp:86] Creating Layer ip1
I0504 00:36:43.355417  5756 net.cpp:408] ip1 <- pool0
I0504 00:36:43.355422  5756 net.cpp:382] ip1 -> ip1
I0504 00:36:43.389642  5756 net.cpp:124] Setting up ip1
I0504 00:36:43.389655  5756 net.cpp:131] Top shape: 111 180 (19980)
I0504 00:36:43.389659  5756 net.cpp:139] Memory required for data: 25995756
I0504 00:36:43.389667  5756 layer_factory.hpp:77] Creating layer relu1
I0504 00:36:43.389674  5756 net.cpp:86] Creating Layer relu1
I0504 00:36:43.389678  5756 net.cpp:408] relu1 <- ip1
I0504 00:36:43.389683  5756 net.cpp:369] relu1 -> ip1 (in-place)
I0504 00:36:43.389842  5756 net.cpp:124] Setting up relu1
I0504 00:36:43.389852  5756 net.cpp:131] Top shape: 111 180 (19980)
I0504 00:36:43.389854  5756 net.cpp:139] Memory required for data: 26075676
I0504 00:36:43.389858  5756 layer_factory.hpp:77] Creating layer ip2
I0504 00:36:43.389864  5756 net.cpp:86] Creating Layer ip2
I0504 00:36:43.389868  5756 net.cpp:408] ip2 <- ip1
I0504 00:36:43.389873  5756 net.cpp:382] ip2 -> ip2
I0504 00:36:43.391708  5756 net.cpp:124] Setting up ip2
I0504 00:36:43.391721  5756 net.cpp:131] Top shape: 111 180 (19980)
I0504 00:36:43.391724  5756 net.cpp:139] Memory required for data: 26155596
I0504 00:36:43.391732  5756 layer_factory.hpp:77] Creating layer relu2
I0504 00:36:43.391738  5756 net.cpp:86] Creating Layer relu2
I0504 00:36:43.391742  5756 net.cpp:408] relu2 <- ip2
I0504 00:36:43.391746  5756 net.cpp:369] relu2 -> ip2 (in-place)
I0504 00:36:43.391912  5756 net.cpp:124] Setting up relu2
I0504 00:36:43.391921  5756 net.cpp:131] Top shape: 111 180 (19980)
I0504 00:36:43.391924  5756 net.cpp:139] Memory required for data: 26235516
I0504 00:36:43.391927  5756 layer_factory.hpp:77] Creating layer ip3
I0504 00:36:43.391935  5756 net.cpp:86] Creating Layer ip3
I0504 00:36:43.391939  5756 net.cpp:408] ip3 <- ip2
I0504 00:36:43.391943  5756 net.cpp:382] ip3 -> ip3
I0504 00:36:43.392091  5756 net.cpp:124] Setting up ip3
I0504 00:36:43.392099  5756 net.cpp:131] Top shape: 111 10 (1110)
I0504 00:36:43.392102  5756 net.cpp:139] Memory required for data: 26239956
I0504 00:36:43.392107  5756 layer_factory.hpp:77] Creating layer loss
I0504 00:36:43.392113  5756 net.cpp:86] Creating Layer loss
I0504 00:36:43.392117  5756 net.cpp:408] loss <- ip3
I0504 00:36:43.392122  5756 net.cpp:408] loss <- label
I0504 00:36:43.392127  5756 net.cpp:382] loss -> loss
I0504 00:36:43.392145  5756 layer_factory.hpp:77] Creating layer loss
…
I0504 00:36:43.392776  5756 solver.cpp:173] Creating test net (#0) specified by net file: ECE595/cifar/train_test/var_everything_tiny/cifar_train_test_23.prototxt
I0504 00:36:43.392802  5756 net.cpp:296] The NetState phase (1) differed from the phase (0) specified by a rule in layer cifar
I0504 00:36:43.392904  5756 net.cpp:53] Initializing net from parameters: 
name: "CIFAR"
state {
  phase: TEST
}
layer {
  name: "cifar"
  type: "Data"
  top: "data"
  top: "label"
  include {
    phase: TEST
  }
  transform_param {
    mean_file: "examples/cifar10/mean.binaryproto"
  }
  data_param {
    source: "examples/cifar10/cifar10_test_lmdb"
    batch_size: 1000
    backend: LMDB
  }
}
layer {
  name: "conv0"
  type: "Convolution"
  bottom: "data"
  top: "conv0"
  param {
    lr_mult: 1
  }
  param {
    lr_mult: 2
  }
  convolution_param {
    num_output: 24
    pad: 2
    kernel_size: 5
    stride: 1
    weight_filler {
      type: "gaussian"
      std: 0.01
    }
    bias_filler {
      type: "constant"
    }
  }
}
layer {
  name: "Sigmoid0"
  type: "Sigmoid"
  bottom: "conv0"
  top: "Sigmoid0"
}
layer {
  name: "pool0"
  type: "Pooling"
  bottom: "Sigmoid0"
  top: "pool0"
  pooling_param {
    pool: AVE
    kernel_size: 3
    stride: 2
  }
}
layer {
  name: "ip1"
  type: "InnerProduct"
  bottom: "pool0"
  top: "ip1"
  param {
    lr_mult: 1
  }
  param {
    lr_mult: 2
  }
  inner_product_param {
    num_output: 180
    weight_filler {
      type: "gaussian"
      std: 0.01
    }
    bias_filler {
      type: "constant"
    }
  }
}
layer {
  name: "relu1"
  type: "ReLU"
  bottom: "ip1"
  top: "ip1"
}
layer {
  name: "ip2"
  type: "InnerProduct"
  bottom: "ip1"
  top: "ip2"
  param {
    lr_mult: 1
  }
  param {
    lr_mult: 2
  }
  inner_product_param {
    num_output: 180
    weight_filler {
      type: "gaussian"
      std: 0.01
    }
    bias_filler {
      type: "constant"
    }
  }
}
layer {
  name: "relu2"
  type: "ReLU"
  bottom: "ip2"
  top: "ip2"
}
layer {
  name: "ip3"
  type: "InnerProduct"
  bottom: "ip2"
  top: "ip3"
  param {
    lr_mult: 1
  }
  param {
    lr_mult: 2
  }
  inner_product_param {
    num_output: 10
    weight_filler {
      type: "gaussian"
      std: 0.01
    }
    bias_filler {
      type: "constant"
    }
  }
}
layer {
  name: "accuracy"
  type: "Accuracy"
  bottom: "ip3"
  bottom: "label"
  top: "accuracy"
  include {
    phase: TEST
  }
}
layer {
  name: "loss"
  type: "SoftmaxWithLoss"
  bottom: "ip3"
  bottom: "label"
  top: "loss"
}
I0504 00:36:43.392967  5756 layer_factory.hpp:77] Creating layer cifar
I0504 00:36:43.393014  5756 db_lmdb.cpp:35] Opened lmdb examples/cifar10/cifar10_test_lmdb
I0504 00:36:43.393028  5756 net.cpp:86] Creating Layer cifar
I0504 00:36:43.393033  5756 net.cpp:382] cifar -> data
I0504 00:36:43.393043  5756 net.cpp:382] cifar -> label
I0504 00:36:43.393050  5756 data_transformer.cpp:25] Loading mean file from: examples/cifar10/mean.binaryproto
I0504 00:36:43.393195  5756 data_layer.cpp:45] output data size: 1000,3,32,32
I0504 00:36:43.415452  5756 net.cpp:124] Setting up cifar
I0504 00:36:43.415477  5756 net.cpp:131] Top shape: 1000 3 32 32 (3072000)
I0504 00:36:43.415482  5756 net.cpp:131] Top shape: 1000 (1000)
I0504 00:36:43.415485  5756 net.cpp:139] Memory required for data: 12292000
I0504 00:36:43.415491  5756 layer_factory.hpp:77] Creating layer label_cifar_1_split
I0504 00:36:43.415525  5756 net.cpp:86] Creating Layer label_cifar_1_split
I0504 00:36:43.415530  5756 net.cpp:408] label_cifar_1_split <- label
I0504 00:36:43.415536  5756 net.cpp:382] label_cifar_1_split -> label_cifar_1_split_0
I0504 00:36:43.415546  5756 net.cpp:382] label_cifar_1_split -> label_cifar_1_split_1
I0504 00:36:43.415647  5756 net.cpp:124] Setting up label_cifar_1_split
I0504 00:36:43.415655  5756 net.cpp:131] Top shape: 1000 (1000)
I0504 00:36:43.415659  5756 net.cpp:131] Top shape: 1000 (1000)
I0504 00:36:43.415663  5756 net.cpp:139] Memory required for data: 12300000
I0504 00:36:43.415665  5756 layer_factory.hpp:77] Creating layer conv0
I0504 00:36:43.415678  5756 net.cpp:86] Creating Layer conv0
I0504 00:36:43.415680  5756 net.cpp:408] conv0 <- data
I0504 00:36:43.415686  5756 net.cpp:382] conv0 -> conv0
I0504 00:36:43.417278  5756 net.cpp:124] Setting up conv0
I0504 00:36:43.417307  5756 net.cpp:131] Top shape: 1000 24 32 32 (24576000)
I0504 00:36:43.417311  5756 net.cpp:139] Memory required for data: 110604000
I0504 00:36:43.417321  5756 layer_factory.hpp:77] Creating layer Sigmoid0
I0504 00:36:43.417328  5756 net.cpp:86] Creating Layer Sigmoid0
I0504 00:36:43.417332  5756 net.cpp:408] Sigmoid0 <- conv0
I0504 00:36:43.417337  5756 net.cpp:382] Sigmoid0 -> Sigmoid0
I0504 00:36:43.418190  5756 net.cpp:124] Setting up Sigmoid0
I0504 00:36:43.418201  5756 net.cpp:131] Top shape: 1000 24 32 32 (24576000)
I0504 00:36:43.418205  5756 net.cpp:139] Memory required for data: 208908000
I0504 00:36:43.418208  5756 layer_factory.hpp:77] Creating layer pool0
I0504 00:36:43.418217  5756 net.cpp:86] Creating Layer pool0
I0504 00:36:43.418220  5756 net.cpp:408] pool0 <- Sigmoid0
I0504 00:36:43.418226  5756 net.cpp:382] pool0 -> pool0
I0504 00:36:43.419345  5756 net.cpp:124] Setting up pool0
I0504 00:36:43.419355  5756 net.cpp:131] Top shape: 1000 24 16 16 (6144000)
I0504 00:36:43.419358  5756 net.cpp:139] Memory required for data: 233484000
I0504 00:36:43.419361  5756 layer_factory.hpp:77] Creating layer ip1
I0504 00:36:43.419368  5756 net.cpp:86] Creating Layer ip1
I0504 00:36:43.419373  5756 net.cpp:408] ip1 <- pool0
I0504 00:36:43.419378  5756 net.cpp:382] ip1 -> ip1
I0504 00:36:43.449334  5756 net.cpp:124] Setting up ip1
I0504 00:36:43.449380  5756 net.cpp:131] Top shape: 1000 180 (180000)
I0504 00:36:43.449384  5756 net.cpp:139] Memory required for data: 234204000
I0504 00:36:43.449393  5756 layer_factory.hpp:77] Creating layer relu1
I0504 00:36:43.449401  5756 net.cpp:86] Creating Layer relu1
I0504 00:36:43.449405  5756 net.cpp:408] relu1 <- ip1
I0504 00:36:43.449409  5756 net.cpp:369] relu1 -> ip1 (in-place)
I0504 00:36:43.449604  5756 net.cpp:124] Setting up relu1
I0504 00:36:43.449612  5756 net.cpp:131] Top shape: 1000 180 (180000)
I0504 00:36:43.449615  5756 net.cpp:139] Memory required for data: 234924000
I0504 00:36:43.449618  5756 layer_factory.hpp:77] Creating layer ip2
I0504 00:36:43.449625  5756 net.cpp:86] Creating Layer ip2
I0504 00:36:43.449635  5756 net.cpp:408] ip2 <- ip1
I0504 00:36:43.449640  5756 net.cpp:382] ip2 -> ip2
I0504 00:36:43.450603  5756 net.cpp:124] Setting up ip2
I0504 00:36:43.450610  5756 net.cpp:131] Top shape: 1000 180 (180000)
I0504 00:36:43.450628  5756 net.cpp:139] Memory required for data: 235644000
I0504 00:36:43.450635  5756 layer_factory.hpp:77] Creating layer relu2
I0504 00:36:43.450641  5756 net.cpp:86] Creating Layer relu2
I0504 00:36:43.450645  5756 net.cpp:408] relu2 <- ip2
I0504 00:36:43.450649  5756 net.cpp:369] relu2 -> ip2 (in-place)
I0504 00:36:43.450814  5756 net.cpp:124] Setting up relu2
I0504 00:36:43.450822  5756 net.cpp:131] Top shape: 1000 180 (180000)
I0504 00:36:43.450825  5756 net.cpp:139] Memory required for data: 236364000
I0504 00:36:43.450829  5756 layer_factory.hpp:77] Creating layer ip3
I0504 00:36:43.450834  5756 net.cpp:86] Creating Layer ip3
I0504 00:36:43.450837  5756 net.cpp:408] ip3 <- ip2
I0504 00:36:43.450842  5756 net.cpp:382] ip3 -> ip3
I0504 00:36:43.450990  5756 net.cpp:124] Setting up ip3
I0504 00:36:43.450997  5756 net.cpp:131] Top shape: 1000 10 (10000)
I0504 00:36:43.451012  5756 net.cpp:139] Memory required for data: 236404000
I0504 00:36:43.451019  5756 layer_factory.hpp:77] Creating layer ip3_ip3_0_split
I0504 00:36:43.451023  5756 net.cpp:86] Creating Layer ip3_ip3_0_split
I0504 00:36:43.451027  5756 net.cpp:408] ip3_ip3_0_split <- ip3
I0504 00:36:43.451031  5756 net.cpp:382] ip3_ip3_0_split -> ip3_ip3_0_split_0
I0504 00:36:43.451036  5756 net.cpp:382] ip3_ip3_0_split -> ip3_ip3_0_split_1
I0504 00:36:43.451067  5756 net.cpp:124] Setting up ip3_ip3_0_split
I0504 00:36:43.451072  5756 net.cpp:131] Top shape: 1000 10 (10000)
I0504 00:36:43.451076  5756 net.cpp:131] Top shape: 1000 10 (10000)
I0504 00:36:43.451078  5756 net.cpp:139] Memory required for data: 236484000
I0504 00:36:43.451081  5756 layer_factory.hpp:77] Creating layer accuracy
I0504 00:36:43.451086  5756 net.cpp:86] Creating Layer accuracy
I0504 00:36:43.451089  5756 net.cpp:408] accuracy <- ip3_ip3_0_split_0
I0504 00:36:43.451093  5756 net.cpp:408] accuracy <- label_cifar_1_split_0
I0504 00:36:43.451098  5756 net.cpp:382] accuracy -> accuracy
…
