…
I0504 02:16:26.828750  8880 net.cpp:296] The NetState phase (0) differed from the phase (1) specified by a rule in layer cifar
I0504 02:16:26.828773  8880 net.cpp:296] The NetState phase (0) differed from the phase (1) specified by a rule in layer accuracy
I0504 02:16:26.828882  8880 net.cpp:53] Initializing net from parameters: 
name: "CIFAR"
state {
  phase: TRAIN
  level: 0
  stage: ""
}
layer {
  name: "cifar"
  type: "Data"
  top: "data"
  top: "label"
  include {
    phase: TRAIN
  }
  transform_param {
    mean_file: "examples/cifar10/mean.binaryproto"
  }
  data_param {
    source: "examples/cifar10/cifar10_train_lmdb"
    batch_size: 111
    backend: LMDB
  }
}
layer {
  name: "conv0"
  type: "Convolution"
  bottom: "data"
  top: "conv0"
  param {
    lr_mult: 1
  }
  param {
    lr_mult: 2
  }
  convolution_param {
    num_output: 72
    pad: 2
    kernel_size: 5
    stride: 1
    weight_filler {
      type: "gaussian"
      std: 0.01
    }
    bias_filler {
      type: "constant"
    }
  }
}
layer {
  name: "Sigmoid0"
  type: "Sigmoid"
  bottom: "conv0"
  top: "Sigmoid0"
}
layer {
  name: "pool0"
  type: "Pooling"
  bottom: "Sigmoid0"
  top: "pool0"
  pooling_param {
    pool: AVE
    kernel_size: 3
    stride: 2
  }
}
layer {
  name: "ip1"
  type: "InnerProduct"
  bottom: "pool0"
  top: "ip1"
  param {
    lr_mult: 1
  }
  param {
    lr_mult: 2
  }
  inner_product_param {
    num_output: 180
    weight_filler {
      type: "gaussian"
      std: 0.01
    }
    bias_filler {
      type: "constant"
    }
  }
}
layer {
  name: "relu1"
  type: "ReLU"
  bottom: "ip1"
  top: "ip1"
}
layer {
  name: "ip2"
  type: "InnerProduct"
  bottom: "ip1"
  top: "ip2"
  param {
    lr_mult: 1
  }
  param {
    lr_mult: 2
  }
  inner_product_param {
    num_output: 10
    weight_filler {
      type: "gaussian"
      std: 0.01
    }
    bias_filler {
      type: "constant"
    }
  }
}
layer {
  name: "relu2"
  type: "ReLU"
  bottom: "ip2"
  top: "ip2"
}
layer {
  name: "ip3"
  type: "InnerProduct"
  bottom: "ip2"
  top: "ip3"
  param {
    lr_mult: 1
  }
  param {
    lr_mult: 2
  }
  inner_product_param {
    num_output: 10
    weight_filler {
      type: "gaussian"
      std: 0.01
    }
    bias_filler {
      type: "constant"
    }
  }
}
layer {
  name: "loss"
  type: "SoftmaxWithLoss"
  bottom: "ip3"
  bottom: "label"
  top: "loss"
}
I0504 02:16:26.828992  8880 layer_factory.hpp:77] Creating layer cifar
I0504 02:16:26.829123  8880 db_lmdb.cpp:35] Opened lmdb examples/cifar10/cifar10_train_lmdb
I0504 02:16:26.829159  8880 net.cpp:86] Creating Layer cifar
I0504 02:16:26.829172  8880 net.cpp:382] cifar -> data
I0504 02:16:26.829203  8880 net.cpp:382] cifar -> label
I0504 02:16:26.829226  8880 data_transformer.cpp:25] Loading mean file from: examples/cifar10/mean.binaryproto
I0504 02:16:26.831511  8880 data_layer.cpp:45] output data size: 111,3,32,32
I0504 02:16:26.839406  8880 net.cpp:124] Setting up cifar
I0504 02:16:26.839428  8880 net.cpp:131] Top shape: 111 3 32 32 (340992)
I0504 02:16:26.839442  8880 net.cpp:131] Top shape: 111 (111)
I0504 02:16:26.839447  8880 net.cpp:139] Memory required for data: 1364412
I0504 02:16:26.839458  8880 layer_factory.hpp:77] Creating layer conv0
I0504 02:16:26.839483  8880 net.cpp:86] Creating Layer conv0
I0504 02:16:26.839493  8880 net.cpp:408] conv0 <- data
I0504 02:16:26.839514  8880 net.cpp:382] conv0 -> conv0
I0504 02:16:27.132539  8880 net.cpp:124] Setting up conv0
I0504 02:16:27.132592  8880 net.cpp:131] Top shape: 111 72 32 32 (8183808)
I0504 02:16:27.132599  8880 net.cpp:139] Memory required for data: 34099644
I0504 02:16:27.132623  8880 layer_factory.hpp:77] Creating layer Sigmoid0
I0504 02:16:27.132642  8880 net.cpp:86] Creating Layer Sigmoid0
I0504 02:16:27.132658  8880 net.cpp:408] Sigmoid0 <- conv0
I0504 02:16:27.132668  8880 net.cpp:382] Sigmoid0 -> Sigmoid0
I0504 02:16:27.132894  8880 net.cpp:124] Setting up Sigmoid0
I0504 02:16:27.132908  8880 net.cpp:131] Top shape: 111 72 32 32 (8183808)
I0504 02:16:27.132915  8880 net.cpp:139] Memory required for data: 66834876
I0504 02:16:27.132921  8880 layer_factory.hpp:77] Creating layer pool0
I0504 02:16:27.132933  8880 net.cpp:86] Creating Layer pool0
I0504 02:16:27.132939  8880 net.cpp:408] pool0 <- Sigmoid0
I0504 02:16:27.132948  8880 net.cpp:382] pool0 -> pool0
I0504 02:16:27.133810  8880 net.cpp:124] Setting up pool0
I0504 02:16:27.133827  8880 net.cpp:131] Top shape: 111 72 16 16 (2045952)
I0504 02:16:27.133833  8880 net.cpp:139] Memory required for data: 75018684
I0504 02:16:27.133841  8880 layer_factory.hpp:77] Creating layer ip1
I0504 02:16:27.133855  8880 net.cpp:86] Creating Layer ip1
I0504 02:16:27.133862  8880 net.cpp:408] ip1 <- pool0
I0504 02:16:27.133872  8880 net.cpp:382] ip1 -> ip1
I0504 02:16:27.232182  8880 net.cpp:124] Setting up ip1
I0504 02:16:27.232198  8880 net.cpp:131] Top shape: 111 180 (19980)
I0504 02:16:27.232204  8880 net.cpp:139] Memory required for data: 75098604
I0504 02:16:27.232218  8880 layer_factory.hpp:77] Creating layer relu1
I0504 02:16:27.232244  8880 net.cpp:86] Creating Layer relu1
I0504 02:16:27.232249  8880 net.cpp:408] relu1 <- ip1
I0504 02:16:27.232257  8880 net.cpp:369] relu1 -> ip1 (in-place)
I0504 02:16:27.232435  8880 net.cpp:124] Setting up relu1
I0504 02:16:27.232446  8880 net.cpp:131] Top shape: 111 180 (19980)
I0504 02:16:27.232451  8880 net.cpp:139] Memory required for data: 75178524
I0504 02:16:27.232456  8880 layer_factory.hpp:77] Creating layer ip2
I0504 02:16:27.232467  8880 net.cpp:86] Creating Layer ip2
I0504 02:16:27.232472  8880 net.cpp:408] ip2 <- ip1
I0504 02:16:27.232481  8880 net.cpp:382] ip2 -> ip2
I0504 02:16:27.232651  8880 net.cpp:124] Setting up ip2
I0504 02:16:27.232661  8880 net.cpp:131] Top shape: 111 10 (1110)
I0504 02:16:27.232664  8880 net.cpp:139] Memory required for data: 75182964
I0504 02:16:27.232676  8880 layer_factory.hpp:77] Creating layer relu2
I0504 02:16:27.232684  8880 net.cpp:86] Creating Layer relu2
I0504 02:16:27.232689  8880 net.cpp:408] relu2 <- ip2
I0504 02:16:27.232697  8880 net.cpp:369] relu2 -> ip2 (in-place)
I0504 02:16:27.232866  8880 net.cpp:124] Setting up relu2
I0504 02:16:27.232875  8880 net.cpp:131] Top shape: 111 10 (1110)
I0504 02:16:27.232880  8880 net.cpp:139] Memory required for data: 75187404
I0504 02:16:27.232885  8880 layer_factory.hpp:77] Creating layer ip3
I0504 02:16:27.232897  8880 net.cpp:86] Creating Layer ip3
I0504 02:16:27.232903  8880 net.cpp:408] ip3 <- ip2
I0504 02:16:27.232910  8880 net.cpp:382] ip3 -> ip3
I0504 02:16:27.233016  8880 net.cpp:124] Setting up ip3
I0504 02:16:27.233024  8880 net.cpp:131] Top shape: 111 10 (1110)
I0504 02:16:27.233028  8880 net.cpp:139] Memory required for data: 75191844
I0504 02:16:27.233037  8880 layer_factory.hpp:77] Creating layer loss
I0504 02:16:27.233047  8880 net.cpp:86] Creating Layer loss
I0504 02:16:27.233052  8880 net.cpp:408] loss <- ip3
I0504 02:16:27.233057  8880 net.cpp:408] loss <- label
I0504 02:16:27.233067  8880 net.cpp:382] loss -> loss
I0504 02:16:27.233093  8880 layer_factory.hpp:77] Creating layer loss
…
I0504 02:16:27.233790  8880 solver.cpp:173] Creating test net (#0) specified by net file: ECE595/cifar/train_test/var_everything_tiny/cifar_train_test_45.prototxt
I0504 02:16:27.233824  8880 net.cpp:296] The NetState phase (1) differed from the phase (0) specified by a rule in layer cifar
I0504 02:16:27.233916  8880 net.cpp:53] Initializing net from parameters: 
name: "CIFAR"
state {
  phase: TEST
}
layer {
  name: "cifar"
  type: "Data"
  top: "data"
  top: "label"
  include {
    phase: TEST
  }
  transform_param {
    mean_file: "examples/cifar10/mean.binaryproto"
  }
  data_param {
    source: "examples/cifar10/cifar10_test_lmdb"
    batch_size: 1000
    backend: LMDB
  }
}
layer {
  name: "conv0"
  type: "Convolution"
  bottom: "data"
  top: "conv0"
  param {
    lr_mult: 1
  }
  param {
    lr_mult: 2
  }
  convolution_param {
    num_output: 72
    pad: 2
    kernel_size: 5
    stride: 1
    weight_filler {
      type: "gaussian"
      std: 0.01
    }
    bias_filler {
      type: "constant"
    }
  }
}
layer {
  name: "Sigmoid0"
  type: "Sigmoid"
  bottom: "conv0"
  top: "Sigmoid0"
}
layer {
  name: "pool0"
  type: "Pooling"
  bottom: "Sigmoid0"
  top: "pool0"
  pooling_param {
    pool: AVE
    kernel_size: 3
    stride: 2
  }
}
layer {
  name: "ip1"
  type: "InnerProduct"
  bottom: "pool0"
  top: "ip1"
  param {
    lr_mult: 1
  }
  param {
    lr_mult: 2
  }
  inner_product_param {
    num_output: 180
    weight_filler {
      type: "gaussian"
      std: 0.01
    }
    bias_filler {
      type: "constant"
    }
  }
}
layer {
  name: "relu1"
  type: "ReLU"
  bottom: "ip1"
  top: "ip1"
}
layer {
  name: "ip2"
  type: "InnerProduct"
  bottom: "ip1"
  top: "ip2"
  param {
    lr_mult: 1
  }
  param {
    lr_mult: 2
  }
  inner_product_param {
    num_output: 10
    weight_filler {
      type: "gaussian"
      std: 0.01
    }
    bias_filler {
      type: "constant"
    }
  }
}
layer {
  name: "relu2"
  type: "ReLU"
  bottom: "ip2"
  top: "ip2"
}
layer {
  name: "ip3"
  type: "InnerProduct"
  bottom: "ip2"
  top: "ip3"
  param {
    lr_mult: 1
  }
  param {
    lr_mult: 2
  }
  inner_product_param {
    num_output: 10
    weight_filler {
      type: "gaussian"
      std: 0.01
    }
    bias_filler {
      type: "constant"
    }
  }
}
layer {
  name: "accuracy"
  type: "Accuracy"
  bottom: "ip3"
  bottom: "label"
  top: "accuracy"
  include {
    phase: TEST
  }
}
layer {
  name: "loss"
  type: "SoftmaxWithLoss"
  bottom: "ip3"
  bottom: "label"
  top: "loss"
}
I0504 02:16:27.234010  8880 layer_factory.hpp:77] Creating layer cifar
I0504 02:16:27.234072  8880 db_lmdb.cpp:35] Opened lmdb examples/cifar10/cifar10_test_lmdb
I0504 02:16:27.234089  8880 net.cpp:86] Creating Layer cifar
I0504 02:16:27.234097  8880 net.cpp:382] cifar -> data
I0504 02:16:27.234108  8880 net.cpp:382] cifar -> label
I0504 02:16:27.234117  8880 data_transformer.cpp:25] Loading mean file from: examples/cifar10/mean.binaryproto
I0504 02:16:27.234319  8880 data_layer.cpp:45] output data size: 1000,3,32,32
I0504 02:16:27.256464  8880 net.cpp:124] Setting up cifar
I0504 02:16:27.256494  8880 net.cpp:131] Top shape: 1000 3 32 32 (3072000)
I0504 02:16:27.256501  8880 net.cpp:131] Top shape: 1000 (1000)
I0504 02:16:27.256507  8880 net.cpp:139] Memory required for data: 12292000
I0504 02:16:27.256515  8880 layer_factory.hpp:77] Creating layer label_cifar_1_split
I0504 02:16:27.256546  8880 net.cpp:86] Creating Layer label_cifar_1_split
I0504 02:16:27.256553  8880 net.cpp:408] label_cifar_1_split <- label
I0504 02:16:27.256564  8880 net.cpp:382] label_cifar_1_split -> label_cifar_1_split_0
I0504 02:16:27.256587  8880 net.cpp:382] label_cifar_1_split -> label_cifar_1_split_1
I0504 02:16:27.256702  8880 net.cpp:124] Setting up label_cifar_1_split
I0504 02:16:27.256712  8880 net.cpp:131] Top shape: 1000 (1000)
I0504 02:16:27.256718  8880 net.cpp:131] Top shape: 1000 (1000)
I0504 02:16:27.256723  8880 net.cpp:139] Memory required for data: 12300000
I0504 02:16:27.256728  8880 layer_factory.hpp:77] Creating layer conv0
I0504 02:16:27.256747  8880 net.cpp:86] Creating Layer conv0
I0504 02:16:27.256753  8880 net.cpp:408] conv0 <- data
I0504 02:16:27.256762  8880 net.cpp:382] conv0 -> conv0
I0504 02:16:27.258455  8880 net.cpp:124] Setting up conv0
I0504 02:16:27.258471  8880 net.cpp:131] Top shape: 1000 72 32 32 (73728000)
I0504 02:16:27.258476  8880 net.cpp:139] Memory required for data: 307212000
I0504 02:16:27.258491  8880 layer_factory.hpp:77] Creating layer Sigmoid0
I0504 02:16:27.258502  8880 net.cpp:86] Creating Layer Sigmoid0
I0504 02:16:27.258507  8880 net.cpp:408] Sigmoid0 <- conv0
I0504 02:16:27.258515  8880 net.cpp:382] Sigmoid0 -> Sigmoid0
I0504 02:16:27.259354  8880 net.cpp:124] Setting up Sigmoid0
I0504 02:16:27.259367  8880 net.cpp:131] Top shape: 1000 72 32 32 (73728000)
I0504 02:16:27.259373  8880 net.cpp:139] Memory required for data: 602124000
I0504 02:16:27.259378  8880 layer_factory.hpp:77] Creating layer pool0
I0504 02:16:27.259390  8880 net.cpp:86] Creating Layer pool0
I0504 02:16:27.259395  8880 net.cpp:408] pool0 <- Sigmoid0
I0504 02:16:27.259403  8880 net.cpp:382] pool0 -> pool0
I0504 02:16:27.260530  8880 net.cpp:124] Setting up pool0
I0504 02:16:27.260542  8880 net.cpp:131] Top shape: 1000 72 16 16 (18432000)
I0504 02:16:27.260547  8880 net.cpp:139] Memory required for data: 675852000
I0504 02:16:27.260552  8880 layer_factory.hpp:77] Creating layer ip1
I0504 02:16:27.260563  8880 net.cpp:86] Creating Layer ip1
I0504 02:16:27.260570  8880 net.cpp:408] ip1 <- pool0
I0504 02:16:27.260577  8880 net.cpp:382] ip1 -> ip1
I0504 02:16:27.351964  8880 net.cpp:124] Setting up ip1
I0504 02:16:27.351990  8880 net.cpp:131] Top shape: 1000 180 (180000)
I0504 02:16:27.351995  8880 net.cpp:139] Memory required for data: 676572000
I0504 02:16:27.352011  8880 layer_factory.hpp:77] Creating layer relu1
I0504 02:16:27.352025  8880 net.cpp:86] Creating Layer relu1
I0504 02:16:27.352030  8880 net.cpp:408] relu1 <- ip1
I0504 02:16:27.352038  8880 net.cpp:369] relu1 -> ip1 (in-place)
I0504 02:16:27.352257  8880 net.cpp:124] Setting up relu1
I0504 02:16:27.352267  8880 net.cpp:131] Top shape: 1000 180 (180000)
I0504 02:16:27.352272  8880 net.cpp:139] Memory required for data: 677292000
I0504 02:16:27.352277  8880 layer_factory.hpp:77] Creating layer ip2
I0504 02:16:27.352289  8880 net.cpp:86] Creating Layer ip2
I0504 02:16:27.352294  8880 net.cpp:408] ip2 <- ip1
I0504 02:16:27.352303  8880 net.cpp:382] ip2 -> ip2
I0504 02:16:27.352478  8880 net.cpp:124] Setting up ip2
I0504 02:16:27.352486  8880 net.cpp:131] Top shape: 1000 10 (10000)
I0504 02:16:27.352491  8880 net.cpp:139] Memory required for data: 677332000
I0504 02:16:27.352502  8880 layer_factory.hpp:77] Creating layer relu2
I0504 02:16:27.352512  8880 net.cpp:86] Creating Layer relu2
I0504 02:16:27.352517  8880 net.cpp:408] relu2 <- ip2
I0504 02:16:27.352524  8880 net.cpp:369] relu2 -> ip2 (in-place)
I0504 02:16:27.352699  8880 net.cpp:124] Setting up relu2
I0504 02:16:27.352708  8880 net.cpp:131] Top shape: 1000 10 (10000)
I0504 02:16:27.352713  8880 net.cpp:139] Memory required for data: 677372000
I0504 02:16:27.352718  8880 layer_factory.hpp:77] Creating layer ip3
I0504 02:16:27.352727  8880 net.cpp:86] Creating Layer ip3
I0504 02:16:27.352732  8880 net.cpp:408] ip3 <- ip2
I0504 02:16:27.352741  8880 net.cpp:382] ip3 -> ip3
I0504 02:16:27.352891  8880 net.cpp:124] Setting up ip3
I0504 02:16:27.352901  8880 net.cpp:131] Top shape: 1000 10 (10000)
I0504 02:16:27.352926  8880 net.cpp:139] Memory required for data: 677412000
I0504 02:16:27.352936  8880 layer_factory.hpp:77] Creating layer ip3_ip3_0_split
I0504 02:16:27.352944  8880 net.cpp:86] Creating Layer ip3_ip3_0_split
I0504 02:16:27.352951  8880 net.cpp:408] ip3_ip3_0_split <- ip3
I0504 02:16:27.352957  8880 net.cpp:382] ip3_ip3_0_split -> ip3_ip3_0_split_0
I0504 02:16:27.352967  8880 net.cpp:382] ip3_ip3_0_split -> ip3_ip3_0_split_1
I0504 02:16:27.353008  8880 net.cpp:124] Setting up ip3_ip3_0_split
I0504 02:16:27.353016  8880 net.cpp:131] Top shape: 1000 10 (10000)
I0504 02:16:27.353024  8880 net.cpp:131] Top shape: 1000 10 (10000)
I0504 02:16:27.353027  8880 net.cpp:139] Memory required for data: 677492000
I0504 02:16:27.353032  8880 layer_factory.hpp:77] Creating layer accuracy
I0504 02:16:27.353049  8880 net.cpp:86] Creating Layer accuracy
I0504 02:16:27.353055  8880 net.cpp:408] accuracy <- ip3_ip3_0_split_0
I0504 02:16:27.353060  8880 net.cpp:408] accuracy <- label_cifar_1_split_0
I0504 02:16:27.353068  8880 net.cpp:382] accuracy -> accuracy
…
