…
I0504 15:49:57.315176  7492 net.cpp:296] The NetState phase (0) differed from the phase (1) specified by a rule in layer cifar
I0504 15:49:57.315196  7492 net.cpp:296] The NetState phase (0) differed from the phase (1) specified by a rule in layer accuracy
I0504 15:49:57.315349  7492 net.cpp:53] Initializing net from parameters: 
name: "CIFAR"
state {
  phase: TRAIN
  level: 0
  stage: ""
}
layer {
  name: "cifar"
  type: "Data"
  top: "data"
  top: "label"
  include {
    phase: TRAIN
  }
  transform_param {
    mean_file: "examples/cifar10/mean.binaryproto"
  }
  data_param {
    source: "examples/cifar10/cifar10_train_lmdb"
    batch_size: 111
    backend: LMDB
  }
}
layer {
  name: "conv0"
  type: "Convolution"
  bottom: "data"
  top: "conv0"
  param {
    lr_mult: 1
  }
  param {
    lr_mult: 2
  }
  convolution_param {
    num_output: 72
    pad: 2
    kernel_size: 3
    stride: 1
    weight_filler {
      type: "gaussian"
      std: 0.01
    }
    bias_filler {
      type: "constant"
    }
  }
}
layer {
  name: "Sigmoid0"
  type: "Sigmoid"
  bottom: "conv0"
  top: "Sigmoid0"
}
layer {
  name: "pool0"
  type: "Pooling"
  bottom: "Sigmoid0"
  top: "pool0"
  pooling_param {
    pool: AVE
    kernel_size: 3
    stride: 2
  }
}
layer {
  name: "conv1"
  type: "Convolution"
  bottom: "pool0"
  top: "conv1"
  param {
    lr_mult: 1
  }
  param {
    lr_mult: 2
  }
  convolution_param {
    num_output: 72
    pad: 2
    kernel_size: 3
    stride: 1
    weight_filler {
      type: "gaussian"
      std: 0.01
    }
    bias_filler {
      type: "constant"
    }
  }
}
layer {
  name: "Sigmoid1"
  type: "Sigmoid"
  bottom: "conv1"
  top: "Sigmoid1"
}
layer {
  name: "pool1"
  type: "Pooling"
  bottom: "Sigmoid1"
  top: "pool1"
  pooling_param {
    pool: AVE
    kernel_size: 3
    stride: 2
  }
}
layer {
  name: "ip1"
  type: "InnerProduct"
  bottom: "pool1"
  top: "ip1"
  param {
    lr_mult: 1
  }
  param {
    lr_mult: 2
  }
  inner_product_param {
    num_output: 10
    weight_filler {
      type: "gaussian"
      std: 0.01
    }
    bias_filler {
      type: "constant"
    }
  }
}
layer {
  name: "relu1"
  type: "ReLU"
  bottom: "ip1"
  top: "ip1"
}
layer {
  name: "ip2"
  type: "InnerProduct"
  bottom: "ip1"
  top: "ip2"
  param {
    lr_mult: 1
  }
  param {
    lr_mult: 2
  }
  inner_product_param {
    num_output: 10
    weight_filler {
      type: "gaussian"
      std: 0.01
    }
    bias_filler {
      type: "constant"
    }
  }
}
layer {
  name: "relu2"
  type: "ReLU"
  bottom: "ip2"
  top: "ip2"
}
layer {
  name: "ip3"
  type: "InnerProduct"
  bottom: "ip2"
  top: "ip3"
  param {
    lr_mult: 1
  }
  param {
    lr_mult: 2
  }
  inner_product_param {
    num_output: 10
    weight_filler {
      type: "gaussian"
      std: 0.01
    }
    bias_filler {
      type: "constant"
    }
  }
}
layer {
  name: "loss"
  type: "SoftmaxWithLoss"
  bottom: "ip3"
  bottom: "label"
  top: "loss"
}
I0504 15:49:57.315464  7492 layer_factory.hpp:77] Creating layer cifar
I0504 15:49:57.315598  7492 db_lmdb.cpp:35] Opened lmdb examples/cifar10/cifar10_train_lmdb
I0504 15:49:57.315635  7492 net.cpp:86] Creating Layer cifar
I0504 15:49:57.315649  7492 net.cpp:382] cifar -> data
I0504 15:49:57.315678  7492 net.cpp:382] cifar -> label
I0504 15:49:57.315696  7492 data_transformer.cpp:25] Loading mean file from: examples/cifar10/mean.binaryproto
I0504 15:49:57.318145  7492 data_layer.cpp:45] output data size: 111,3,32,32
I0504 15:49:57.326180  7492 net.cpp:124] Setting up cifar
I0504 15:49:57.326200  7492 net.cpp:131] Top shape: 111 3 32 32 (340992)
I0504 15:49:57.326207  7492 net.cpp:131] Top shape: 111 (111)
I0504 15:49:57.326211  7492 net.cpp:139] Memory required for data: 1364412
I0504 15:49:57.326218  7492 layer_factory.hpp:77] Creating layer conv0
I0504 15:49:57.326236  7492 net.cpp:86] Creating Layer conv0
I0504 15:49:57.326241  7492 net.cpp:408] conv0 <- data
I0504 15:49:57.326259  7492 net.cpp:382] conv0 -> conv0
I0504 15:49:57.602286  7492 net.cpp:124] Setting up conv0
I0504 15:49:57.602326  7492 net.cpp:131] Top shape: 111 72 34 34 (9238752)
I0504 15:49:57.602330  7492 net.cpp:139] Memory required for data: 38319420
I0504 15:49:57.602344  7492 layer_factory.hpp:77] Creating layer Sigmoid0
I0504 15:49:57.602356  7492 net.cpp:86] Creating Layer Sigmoid0
I0504 15:49:57.602360  7492 net.cpp:408] Sigmoid0 <- conv0
I0504 15:49:57.602365  7492 net.cpp:382] Sigmoid0 -> Sigmoid0
I0504 15:49:57.602614  7492 net.cpp:124] Setting up Sigmoid0
I0504 15:49:57.602625  7492 net.cpp:131] Top shape: 111 72 34 34 (9238752)
I0504 15:49:57.602629  7492 net.cpp:139] Memory required for data: 75274428
I0504 15:49:57.602632  7492 layer_factory.hpp:77] Creating layer pool0
I0504 15:49:57.602643  7492 net.cpp:86] Creating Layer pool0
I0504 15:49:57.602648  7492 net.cpp:408] pool0 <- Sigmoid0
I0504 15:49:57.602654  7492 net.cpp:382] pool0 -> pool0
I0504 15:49:57.603457  7492 net.cpp:124] Setting up pool0
I0504 15:49:57.603471  7492 net.cpp:131] Top shape: 111 72 17 17 (2309688)
I0504 15:49:57.603489  7492 net.cpp:139] Memory required for data: 84513180
I0504 15:49:57.603492  7492 layer_factory.hpp:77] Creating layer conv1
I0504 15:49:57.603507  7492 net.cpp:86] Creating Layer conv1
I0504 15:49:57.603510  7492 net.cpp:408] conv1 <- pool0
I0504 15:49:57.603516  7492 net.cpp:382] conv1 -> conv1
I0504 15:49:57.608366  7492 net.cpp:124] Setting up conv1
I0504 15:49:57.608394  7492 net.cpp:131] Top shape: 111 72 19 19 (2885112)
I0504 15:49:57.608398  7492 net.cpp:139] Memory required for data: 96053628
I0504 15:49:57.608409  7492 layer_factory.hpp:77] Creating layer Sigmoid1
I0504 15:49:57.608417  7492 net.cpp:86] Creating Layer Sigmoid1
I0504 15:49:57.608419  7492 net.cpp:408] Sigmoid1 <- conv1
I0504 15:49:57.608423  7492 net.cpp:382] Sigmoid1 -> Sigmoid1
I0504 15:49:57.608662  7492 net.cpp:124] Setting up Sigmoid1
I0504 15:49:57.608674  7492 net.cpp:131] Top shape: 111 72 19 19 (2885112)
I0504 15:49:57.608676  7492 net.cpp:139] Memory required for data: 107594076
I0504 15:49:57.608680  7492 layer_factory.hpp:77] Creating layer pool1
I0504 15:49:57.608690  7492 net.cpp:86] Creating Layer pool1
I0504 15:49:57.608695  7492 net.cpp:408] pool1 <- Sigmoid1
I0504 15:49:57.608701  7492 net.cpp:382] pool1 -> pool1
I0504 15:49:57.608973  7492 net.cpp:124] Setting up pool1
I0504 15:49:57.608985  7492 net.cpp:131] Top shape: 111 72 9 9 (647352)
I0504 15:49:57.608989  7492 net.cpp:139] Memory required for data: 110183484
I0504 15:49:57.608991  7492 layer_factory.hpp:77] Creating layer ip1
I0504 15:49:57.609001  7492 net.cpp:86] Creating Layer ip1
I0504 15:49:57.609007  7492 net.cpp:408] ip1 <- pool1
I0504 15:49:57.609017  7492 net.cpp:382] ip1 -> ip1
I0504 15:49:57.610985  7492 net.cpp:124] Setting up ip1
I0504 15:49:57.610992  7492 net.cpp:131] Top shape: 111 10 (1110)
I0504 15:49:57.611011  7492 net.cpp:139] Memory required for data: 110187924
I0504 15:49:57.611018  7492 layer_factory.hpp:77] Creating layer relu1
I0504 15:49:57.611024  7492 net.cpp:86] Creating Layer relu1
I0504 15:49:57.611027  7492 net.cpp:408] relu1 <- ip1
I0504 15:49:57.611033  7492 net.cpp:369] relu1 -> ip1 (in-place)
I0504 15:49:57.611274  7492 net.cpp:124] Setting up relu1
I0504 15:49:57.611284  7492 net.cpp:131] Top shape: 111 10 (1110)
I0504 15:49:57.611287  7492 net.cpp:139] Memory required for data: 110192364
I0504 15:49:57.611290  7492 layer_factory.hpp:77] Creating layer ip2
I0504 15:49:57.611315  7492 net.cpp:86] Creating Layer ip2
I0504 15:49:57.611321  7492 net.cpp:408] ip2 <- ip1
I0504 15:49:57.611347  7492 net.cpp:382] ip2 -> ip2
I0504 15:49:57.611481  7492 net.cpp:124] Setting up ip2
I0504 15:49:57.611490  7492 net.cpp:131] Top shape: 111 10 (1110)
I0504 15:49:57.611493  7492 net.cpp:139] Memory required for data: 110196804
I0504 15:49:57.611500  7492 layer_factory.hpp:77] Creating layer relu2
I0504 15:49:57.611508  7492 net.cpp:86] Creating Layer relu2
I0504 15:49:57.611513  7492 net.cpp:408] relu2 <- ip2
I0504 15:49:57.611522  7492 net.cpp:369] relu2 -> ip2 (in-place)
I0504 15:49:57.612332  7492 net.cpp:124] Setting up relu2
I0504 15:49:57.612361  7492 net.cpp:131] Top shape: 111 10 (1110)
I0504 15:49:57.612365  7492 net.cpp:139] Memory required for data: 110201244
I0504 15:49:57.612368  7492 layer_factory.hpp:77] Creating layer ip3
I0504 15:49:57.612376  7492 net.cpp:86] Creating Layer ip3
I0504 15:49:57.612381  7492 net.cpp:408] ip3 <- ip2
I0504 15:49:57.612404  7492 net.cpp:382] ip3 -> ip3
I0504 15:49:57.612563  7492 net.cpp:124] Setting up ip3
I0504 15:49:57.612573  7492 net.cpp:131] Top shape: 111 10 (1110)
I0504 15:49:57.612576  7492 net.cpp:139] Memory required for data: 110205684
I0504 15:49:57.612587  7492 layer_factory.hpp:77] Creating layer loss
I0504 15:49:57.612598  7492 net.cpp:86] Creating Layer loss
I0504 15:49:57.612604  7492 net.cpp:408] loss <- ip3
I0504 15:49:57.612610  7492 net.cpp:408] loss <- label
I0504 15:49:57.612618  7492 net.cpp:382] loss -> loss
I0504 15:49:57.612643  7492 layer_factory.hpp:77] Creating layer loss
…
I0504 15:49:57.613554  7492 solver.cpp:173] Creating test net (#0) specified by net file: ECE595/cifar/train_test/var_everything_tiny/cifar_train_test_183.prototxt
I0504 15:49:57.613615  7492 net.cpp:296] The NetState phase (1) differed from the phase (0) specified by a rule in layer cifar
I0504 15:49:57.613744  7492 net.cpp:53] Initializing net from parameters: 
name: "CIFAR"
state {
  phase: TEST
}
layer {
  name: "cifar"
  type: "Data"
  top: "data"
  top: "label"
  include {
    phase: TEST
  }
  transform_param {
    mean_file: "examples/cifar10/mean.binaryproto"
  }
  data_param {
    source: "examples/cifar10/cifar10_test_lmdb"
    batch_size: 1000
    backend: LMDB
  }
}
layer {
  name: "conv0"
  type: "Convolution"
  bottom: "data"
  top: "conv0"
  param {
    lr_mult: 1
  }
  param {
    lr_mult: 2
  }
  convolution_param {
    num_output: 72
    pad: 2
    kernel_size: 3
    stride: 1
    weight_filler {
      type: "gaussian"
      std: 0.01
    }
    bias_filler {
      type: "constant"
    }
  }
}
layer {
  name: "Sigmoid0"
  type: "Sigmoid"
  bottom: "conv0"
  top: "Sigmoid0"
}
layer {
  name: "pool0"
  type: "Pooling"
  bottom: "Sigmoid0"
  top: "pool0"
  pooling_param {
    pool: AVE
    kernel_size: 3
    stride: 2
  }
}
layer {
  name: "conv1"
  type: "Convolution"
  bottom: "pool0"
  top: "conv1"
  param {
    lr_mult: 1
  }
  param {
    lr_mult: 2
  }
  convolution_param {
    num_output: 72
    pad: 2
    kernel_size: 3
    stride: 1
    weight_filler {
      type: "gaussian"
      std: 0.01
    }
    bias_filler {
      type: "constant"
    }
  }
}
layer {
  name: "Sigmoid1"
  type: "Sigmoid"
  bottom: "conv1"
  top: "Sigmoid1"
}
layer {
  name: "pool1"
  type: "Pooling"
  bottom: "Sigmoid1"
  top: "pool1"
  pooling_param {
    pool: AVE
    kernel_size: 3
    stride: 2
  }
}
layer {
  name: "ip1"
  type: "InnerProduct"
  bottom: "pool1"
  top: "ip1"
  param {
    lr_mult: 1
  }
  param {
    lr_mult: 2
  }
  inner_product_param {
    num_output: 10
    weight_filler {
      type: "gaussian"
      std: 0.01
    }
    bias_filler {
      type: "constant"
    }
  }
}
layer {
  name: "relu1"
  type: "ReLU"
  bottom: "ip1"
  top: "ip1"
}
layer {
  name: "ip2"
  type: "InnerProduct"
  bottom: "ip1"
  top: "ip2"
  param {
    lr_mult: 1
  }
  param {
    lr_mult: 2
  }
  inner_product_param {
    num_output: 10
    weight_filler {
      type: "gaussian"
      std: 0.01
    }
    bias_filler {
      type: "constant"
    }
  }
}
layer {
  name: "relu2"
  type: "ReLU"
  bottom: "ip2"
  top: "ip2"
}
layer {
  name: "ip3"
  type: "InnerProduct"
  bottom: "ip2"
  top: "ip3"
  param {
    lr_mult: 1
  }
  param {
    lr_mult: 2
  }
  inner_product_param {
    num_output: 10
    weight_filler {
      type: "gaussian"
      std: 0.01
    }
    bias_filler {
      type: "constant"
    }
  }
}
layer {
  name: "accuracy"
  type: "Accuracy"
  bottom: "ip3"
  bottom: "label"
  top: "accuracy"
  include {
    phase: TEST
  }
}
layer {
  name: "loss"
  type: "SoftmaxWithLoss"
  bottom: "ip3"
  bottom: "label"
  top: "loss"
}
I0504 15:49:57.613895  7492 layer_factory.hpp:77] Creating layer cifar
I0504 15:49:57.613956  7492 db_lmdb.cpp:35] Opened lmdb examples/cifar10/cifar10_test_lmdb
I0504 15:49:57.613976  7492 net.cpp:86] Creating Layer cifar
I0504 15:49:57.613986  7492 net.cpp:382] cifar -> data
I0504 15:49:57.613997  7492 net.cpp:382] cifar -> label
I0504 15:49:57.614007  7492 data_transformer.cpp:25] Loading mean file from: examples/cifar10/mean.binaryproto
I0504 15:49:57.614239  7492 data_layer.cpp:45] output data size: 1000,3,32,32
I0504 15:49:57.636678  7492 net.cpp:124] Setting up cifar
I0504 15:49:57.636720  7492 net.cpp:131] Top shape: 1000 3 32 32 (3072000)
I0504 15:49:57.636726  7492 net.cpp:131] Top shape: 1000 (1000)
I0504 15:49:57.636729  7492 net.cpp:139] Memory required for data: 12292000
I0504 15:49:57.636734  7492 layer_factory.hpp:77] Creating layer label_cifar_1_split
I0504 15:49:57.636750  7492 net.cpp:86] Creating Layer label_cifar_1_split
I0504 15:49:57.636754  7492 net.cpp:408] label_cifar_1_split <- label
I0504 15:49:57.636780  7492 net.cpp:382] label_cifar_1_split -> label_cifar_1_split_0
I0504 15:49:57.636787  7492 net.cpp:382] label_cifar_1_split -> label_cifar_1_split_1
I0504 15:49:57.636932  7492 net.cpp:124] Setting up label_cifar_1_split
I0504 15:49:57.636941  7492 net.cpp:131] Top shape: 1000 (1000)
I0504 15:49:57.636946  7492 net.cpp:131] Top shape: 1000 (1000)
I0504 15:49:57.636950  7492 net.cpp:139] Memory required for data: 12300000
I0504 15:49:57.636952  7492 layer_factory.hpp:77] Creating layer conv0
I0504 15:49:57.636965  7492 net.cpp:86] Creating Layer conv0
I0504 15:49:57.636968  7492 net.cpp:408] conv0 <- data
I0504 15:49:57.636975  7492 net.cpp:382] conv0 -> conv0
I0504 15:49:57.638828  7492 net.cpp:124] Setting up conv0
I0504 15:49:57.638859  7492 net.cpp:131] Top shape: 1000 72 34 34 (83232000)
I0504 15:49:57.638862  7492 net.cpp:139] Memory required for data: 345228000
I0504 15:49:57.638872  7492 layer_factory.hpp:77] Creating layer Sigmoid0
I0504 15:49:57.638892  7492 net.cpp:86] Creating Layer Sigmoid0
I0504 15:49:57.638896  7492 net.cpp:408] Sigmoid0 <- conv0
I0504 15:49:57.638901  7492 net.cpp:382] Sigmoid0 -> Sigmoid0
I0504 15:49:57.639122  7492 net.cpp:124] Setting up Sigmoid0
I0504 15:49:57.639144  7492 net.cpp:131] Top shape: 1000 72 34 34 (83232000)
I0504 15:49:57.639147  7492 net.cpp:139] Memory required for data: 678156000
I0504 15:49:57.639150  7492 layer_factory.hpp:77] Creating layer pool0
I0504 15:49:57.639159  7492 net.cpp:86] Creating Layer pool0
I0504 15:49:57.639163  7492 net.cpp:408] pool0 <- Sigmoid0
I0504 15:49:57.639166  7492 net.cpp:382] pool0 -> pool0
I0504 15:49:57.639364  7492 net.cpp:124] Setting up pool0
I0504 15:49:57.639372  7492 net.cpp:131] Top shape: 1000 72 17 17 (20808000)
I0504 15:49:57.639375  7492 net.cpp:139] Memory required for data: 761388000
I0504 15:49:57.639379  7492 layer_factory.hpp:77] Creating layer conv1
I0504 15:49:57.639389  7492 net.cpp:86] Creating Layer conv1
I0504 15:49:57.639392  7492 net.cpp:408] conv1 <- pool0
I0504 15:49:57.639415  7492 net.cpp:382] conv1 -> conv1
I0504 15:49:57.642267  7492 net.cpp:124] Setting up conv1
I0504 15:49:57.642282  7492 net.cpp:131] Top shape: 1000 72 19 19 (25992000)
I0504 15:49:57.642287  7492 net.cpp:139] Memory required for data: 865356000
I0504 15:49:57.642295  7492 layer_factory.hpp:77] Creating layer Sigmoid1
I0504 15:49:57.642318  7492 net.cpp:86] Creating Layer Sigmoid1
I0504 15:49:57.642321  7492 net.cpp:408] Sigmoid1 <- conv1
I0504 15:49:57.642326  7492 net.cpp:382] Sigmoid1 -> Sigmoid1
I0504 15:49:57.642541  7492 net.cpp:124] Setting up Sigmoid1
I0504 15:49:57.642551  7492 net.cpp:131] Top shape: 1000 72 19 19 (25992000)
I0504 15:49:57.642555  7492 net.cpp:139] Memory required for data: 969324000
I0504 15:49:57.642560  7492 layer_factory.hpp:77] Creating layer pool1
I0504 15:49:57.642567  7492 net.cpp:86] Creating Layer pool1
I0504 15:49:57.642570  7492 net.cpp:408] pool1 <- Sigmoid1
I0504 15:49:57.642575  7492 net.cpp:382] pool1 -> pool1
I0504 15:49:57.643391  7492 net.cpp:124] Setting up pool1
I0504 15:49:57.643420  7492 net.cpp:131] Top shape: 1000 72 9 9 (5832000)
I0504 15:49:57.643424  7492 net.cpp:139] Memory required for data: 992652000
I0504 15:49:57.643450  7492 layer_factory.hpp:77] Creating layer ip1
I0504 15:49:57.643460  7492 net.cpp:86] Creating Layer ip1
I0504 15:49:57.643463  7492 net.cpp:408] ip1 <- pool1
I0504 15:49:57.643468  7492 net.cpp:382] ip1 -> ip1
I0504 15:49:57.645382  7492 net.cpp:124] Setting up ip1
I0504 15:49:57.645390  7492 net.cpp:131] Top shape: 1000 10 (10000)
I0504 15:49:57.645409  7492 net.cpp:139] Memory required for data: 992692000
I0504 15:49:57.645417  7492 layer_factory.hpp:77] Creating layer relu1
I0504 15:49:57.645423  7492 net.cpp:86] Creating Layer relu1
I0504 15:49:57.645427  7492 net.cpp:408] relu1 <- ip1
I0504 15:49:57.645433  7492 net.cpp:369] relu1 -> ip1 (in-place)
I0504 15:49:57.645650  7492 net.cpp:124] Setting up relu1
I0504 15:49:57.645659  7492 net.cpp:131] Top shape: 1000 10 (10000)
I0504 15:49:57.645663  7492 net.cpp:139] Memory required for data: 992732000
I0504 15:49:57.645665  7492 layer_factory.hpp:77] Creating layer ip2
I0504 15:49:57.645675  7492 net.cpp:86] Creating Layer ip2
I0504 15:49:57.645678  7492 net.cpp:408] ip2 <- ip1
I0504 15:49:57.645684  7492 net.cpp:382] ip2 -> ip2
I0504 15:49:57.645799  7492 net.cpp:124] Setting up ip2
I0504 15:49:57.645807  7492 net.cpp:131] Top shape: 1000 10 (10000)
I0504 15:49:57.645809  7492 net.cpp:139] Memory required for data: 992772000
I0504 15:49:57.645823  7492 layer_factory.hpp:77] Creating layer relu2
I0504 15:49:57.645830  7492 net.cpp:86] Creating Layer relu2
I0504 15:49:57.645833  7492 net.cpp:408] relu2 <- ip2
I0504 15:49:57.645838  7492 net.cpp:369] relu2 -> ip2 (in-place)
I0504 15:49:57.646003  7492 net.cpp:124] Setting up relu2
I0504 15:49:57.646011  7492 net.cpp:131] Top shape: 1000 10 (10000)
I0504 15:49:57.646014  7492 net.cpp:139] Memory required for data: 992812000
I0504 15:49:57.646018  7492 layer_factory.hpp:77] Creating layer ip3
I0504 15:49:57.646024  7492 net.cpp:86] Creating Layer ip3
I0504 15:49:57.646028  7492 net.cpp:408] ip3 <- ip2
I0504 15:49:57.646033  7492 net.cpp:382] ip3 -> ip3
I0504 15:49:57.646155  7492 net.cpp:124] Setting up ip3
I0504 15:49:57.646162  7492 net.cpp:131] Top shape: 1000 10 (10000)
I0504 15:49:57.646183  7492 net.cpp:139] Memory required for data: 992852000
I0504 15:49:57.646191  7492 layer_factory.hpp:77] Creating layer ip3_ip3_0_split
I0504 15:49:57.646198  7492 net.cpp:86] Creating Layer ip3_ip3_0_split
I0504 15:49:57.646201  7492 net.cpp:408] ip3_ip3_0_split <- ip3
I0504 15:49:57.646205  7492 net.cpp:382] ip3_ip3_0_split -> ip3_ip3_0_split_0
I0504 15:49:57.646216  7492 net.cpp:382] ip3_ip3_0_split -> ip3_ip3_0_split_1
I0504 15:49:57.646251  7492 net.cpp:124] Setting up ip3_ip3_0_split
I0504 15:49:57.646258  7492 net.cpp:131] Top shape: 1000 10 (10000)
I0504 15:49:57.646262  7492 net.cpp:131] Top shape: 1000 10 (10000)
I0504 15:49:57.646265  7492 net.cpp:139] Memory required for data: 992932000
I0504 15:49:57.646267  7492 layer_factory.hpp:77] Creating layer accuracy
I0504 15:49:57.646275  7492 net.cpp:86] Creating Layer accuracy
I0504 15:49:57.646278  7492 net.cpp:408] accuracy <- ip3_ip3_0_split_0
I0504 15:49:57.646282  7492 net.cpp:408] accuracy <- label_cifar_1_split_0
I0504 15:49:57.646286  7492 net.cpp:382] accuracy -> accuracy
…
