…
I0504 16:04:11.042258  8092 net.cpp:296] The NetState phase (0) differed from the phase (1) specified by a rule in layer cifar
I0504 16:04:11.042289  8092 net.cpp:296] The NetState phase (0) differed from the phase (1) specified by a rule in layer accuracy
I0504 16:04:11.042382  8092 net.cpp:53] Initializing net from parameters: 
name: "CIFAR"
state {
  phase: TRAIN
  level: 0
  stage: ""
}
layer {
  name: "cifar"
  type: "Data"
  top: "data"
  top: "label"
  include {
    phase: TRAIN
  }
  transform_param {
    mean_file: "examples/cifar10/mean.binaryproto"
  }
  data_param {
    source: "examples/cifar10/cifar10_train_lmdb"
    batch_size: 111
    backend: LMDB
  }
}
layer {
  name: "conv0"
  type: "Convolution"
  bottom: "data"
  top: "conv0"
  param {
    lr_mult: 1
  }
  param {
    lr_mult: 2
  }
  convolution_param {
    num_output: 72
    pad: 2
    kernel_size: 3
    stride: 1
    weight_filler {
      type: "gaussian"
      std: 0.01
    }
    bias_filler {
      type: "constant"
    }
  }
}
layer {
  name: "Sigmoid0"
  type: "Sigmoid"
  bottom: "conv0"
  top: "Sigmoid0"
}
layer {
  name: "pool0"
  type: "Pooling"
  bottom: "Sigmoid0"
  top: "pool0"
  pooling_param {
    pool: AVE
    kernel_size: 3
    stride: 2
  }
}
layer {
  name: "conv1"
  type: "Convolution"
  bottom: "pool0"
  top: "conv1"
  param {
    lr_mult: 1
  }
  param {
    lr_mult: 2
  }
  convolution_param {
    num_output: 72
    pad: 2
    kernel_size: 3
    stride: 1
    weight_filler {
      type: "gaussian"
      std: 0.01
    }
    bias_filler {
      type: "constant"
    }
  }
}
layer {
  name: "Sigmoid1"
  type: "Sigmoid"
  bottom: "conv1"
  top: "Sigmoid1"
}
layer {
  name: "pool1"
  type: "Pooling"
  bottom: "Sigmoid1"
  top: "pool1"
  pooling_param {
    pool: AVE
    kernel_size: 3
    stride: 2
  }
}
layer {
  name: "ip1"
  type: "InnerProduct"
  bottom: "pool1"
  top: "ip1"
  param {
    lr_mult: 1
  }
  param {
    lr_mult: 2
  }
  inner_product_param {
    num_output: 10
    weight_filler {
      type: "gaussian"
      std: 0.01
    }
    bias_filler {
      type: "constant"
    }
  }
}
layer {
  name: "relu1"
  type: "ReLU"
  bottom: "ip1"
  top: "ip1"
}
layer {
  name: "ip2"
  type: "InnerProduct"
  bottom: "ip1"
  top: "ip2"
  param {
    lr_mult: 1
  }
  param {
    lr_mult: 2
  }
  inner_product_param {
    num_output: 180
    weight_filler {
      type: "gaussian"
      std: 0.01
    }
    bias_filler {
      type: "constant"
    }
  }
}
layer {
  name: "relu2"
  type: "ReLU"
  bottom: "ip2"
  top: "ip2"
}
layer {
  name: "ip3"
  type: "InnerProduct"
  bottom: "ip2"
  top: "ip3"
  param {
    lr_mult: 1
  }
  param {
    lr_mult: 2
  }
  inner_product_param {
    num_output: 10
    weight_filler {
      type: "gaussian"
      std: 0.01
    }
    bias_filler {
      type: "constant"
    }
  }
}
layer {
  name: "loss"
  type: "SoftmaxWithLoss"
  bottom: "ip3"
  bottom: "label"
  top: "loss"
}
I0504 16:04:11.042465  8092 layer_factory.hpp:77] Creating layer cifar
I0504 16:04:11.042551  8092 db_lmdb.cpp:35] Opened lmdb examples/cifar10/cifar10_train_lmdb
I0504 16:04:11.042574  8092 net.cpp:86] Creating Layer cifar
I0504 16:04:11.042584  8092 net.cpp:382] cifar -> data
I0504 16:04:11.042603  8092 net.cpp:382] cifar -> label
I0504 16:04:11.042614  8092 data_transformer.cpp:25] Loading mean file from: examples/cifar10/mean.binaryproto
I0504 16:04:11.044473  8092 data_layer.cpp:45] output data size: 111,3,32,32
I0504 16:04:11.051411  8092 net.cpp:124] Setting up cifar
I0504 16:04:11.051442  8092 net.cpp:131] Top shape: 111 3 32 32 (340992)
I0504 16:04:11.051447  8092 net.cpp:131] Top shape: 111 (111)
I0504 16:04:11.051450  8092 net.cpp:139] Memory required for data: 1364412
I0504 16:04:11.051456  8092 layer_factory.hpp:77] Creating layer conv0
I0504 16:04:11.051487  8092 net.cpp:86] Creating Layer conv0
I0504 16:04:11.051497  8092 net.cpp:408] conv0 <- data
I0504 16:04:11.051538  8092 net.cpp:382] conv0 -> conv0
I0504 16:04:11.280354  8092 net.cpp:124] Setting up conv0
I0504 16:04:11.280380  8092 net.cpp:131] Top shape: 111 72 34 34 (9238752)
I0504 16:04:11.280383  8092 net.cpp:139] Memory required for data: 38319420
I0504 16:04:11.280397  8092 layer_factory.hpp:77] Creating layer Sigmoid0
I0504 16:04:11.280411  8092 net.cpp:86] Creating Layer Sigmoid0
I0504 16:04:11.280414  8092 net.cpp:408] Sigmoid0 <- conv0
I0504 16:04:11.280419  8092 net.cpp:382] Sigmoid0 -> Sigmoid0
I0504 16:04:11.280601  8092 net.cpp:124] Setting up Sigmoid0
I0504 16:04:11.280611  8092 net.cpp:131] Top shape: 111 72 34 34 (9238752)
I0504 16:04:11.280613  8092 net.cpp:139] Memory required for data: 75274428
I0504 16:04:11.280616  8092 layer_factory.hpp:77] Creating layer pool0
I0504 16:04:11.280638  8092 net.cpp:86] Creating Layer pool0
I0504 16:04:11.280642  8092 net.cpp:408] pool0 <- Sigmoid0
I0504 16:04:11.280663  8092 net.cpp:382] pool0 -> pool0
I0504 16:04:11.281435  8092 net.cpp:124] Setting up pool0
I0504 16:04:11.281447  8092 net.cpp:131] Top shape: 111 72 17 17 (2309688)
I0504 16:04:11.281466  8092 net.cpp:139] Memory required for data: 84513180
I0504 16:04:11.281469  8092 layer_factory.hpp:77] Creating layer conv1
I0504 16:04:11.281481  8092 net.cpp:86] Creating Layer conv1
I0504 16:04:11.281486  8092 net.cpp:408] conv1 <- pool0
I0504 16:04:11.281491  8092 net.cpp:382] conv1 -> conv1
I0504 16:04:11.285992  8092 net.cpp:124] Setting up conv1
I0504 16:04:11.286005  8092 net.cpp:131] Top shape: 111 72 19 19 (2885112)
I0504 16:04:11.286010  8092 net.cpp:139] Memory required for data: 96053628
I0504 16:04:11.286017  8092 layer_factory.hpp:77] Creating layer Sigmoid1
I0504 16:04:11.286022  8092 net.cpp:86] Creating Layer Sigmoid1
I0504 16:04:11.286026  8092 net.cpp:408] Sigmoid1 <- conv1
I0504 16:04:11.286031  8092 net.cpp:382] Sigmoid1 -> Sigmoid1
I0504 16:04:11.286232  8092 net.cpp:124] Setting up Sigmoid1
I0504 16:04:11.286242  8092 net.cpp:131] Top shape: 111 72 19 19 (2885112)
I0504 16:04:11.286245  8092 net.cpp:139] Memory required for data: 107594076
I0504 16:04:11.286248  8092 layer_factory.hpp:77] Creating layer pool1
I0504 16:04:11.286270  8092 net.cpp:86] Creating Layer pool1
I0504 16:04:11.286273  8092 net.cpp:408] pool1 <- Sigmoid1
I0504 16:04:11.286278  8092 net.cpp:382] pool1 -> pool1
I0504 16:04:11.286476  8092 net.cpp:124] Setting up pool1
I0504 16:04:11.286485  8092 net.cpp:131] Top shape: 111 72 9 9 (647352)
I0504 16:04:11.286489  8092 net.cpp:139] Memory required for data: 110183484
I0504 16:04:11.286492  8092 layer_factory.hpp:77] Creating layer ip1
I0504 16:04:11.286499  8092 net.cpp:86] Creating Layer ip1
I0504 16:04:11.286502  8092 net.cpp:408] ip1 <- pool1
I0504 16:04:11.286507  8092 net.cpp:382] ip1 -> ip1
I0504 16:04:11.288169  8092 net.cpp:124] Setting up ip1
I0504 16:04:11.288180  8092 net.cpp:131] Top shape: 111 10 (1110)
I0504 16:04:11.288199  8092 net.cpp:139] Memory required for data: 110187924
I0504 16:04:11.288208  8092 layer_factory.hpp:77] Creating layer relu1
I0504 16:04:11.288215  8092 net.cpp:86] Creating Layer relu1
I0504 16:04:11.288219  8092 net.cpp:408] relu1 <- ip1
I0504 16:04:11.288223  8092 net.cpp:369] relu1 -> ip1 (in-place)
I0504 16:04:11.288450  8092 net.cpp:124] Setting up relu1
I0504 16:04:11.288460  8092 net.cpp:131] Top shape: 111 10 (1110)
I0504 16:04:11.288465  8092 net.cpp:139] Memory required for data: 110192364
I0504 16:04:11.288467  8092 layer_factory.hpp:77] Creating layer ip2
I0504 16:04:11.288473  8092 net.cpp:86] Creating Layer ip2
I0504 16:04:11.288477  8092 net.cpp:408] ip2 <- ip1
I0504 16:04:11.288497  8092 net.cpp:382] ip2 -> ip2
I0504 16:04:11.288678  8092 net.cpp:124] Setting up ip2
I0504 16:04:11.288686  8092 net.cpp:131] Top shape: 111 180 (19980)
I0504 16:04:11.288688  8092 net.cpp:139] Memory required for data: 110272284
I0504 16:04:11.288694  8092 layer_factory.hpp:77] Creating layer relu2
I0504 16:04:11.288698  8092 net.cpp:86] Creating Layer relu2
I0504 16:04:11.288702  8092 net.cpp:408] relu2 <- ip2
I0504 16:04:11.288707  8092 net.cpp:369] relu2 -> ip2 (in-place)
I0504 16:04:11.289549  8092 net.cpp:124] Setting up relu2
I0504 16:04:11.289579  8092 net.cpp:131] Top shape: 111 180 (19980)
I0504 16:04:11.289584  8092 net.cpp:139] Memory required for data: 110352204
I0504 16:04:11.289590  8092 layer_factory.hpp:77] Creating layer ip3
I0504 16:04:11.289600  8092 net.cpp:86] Creating Layer ip3
I0504 16:04:11.289607  8092 net.cpp:408] ip3 <- ip2
I0504 16:04:11.289630  8092 net.cpp:382] ip3 -> ip3
I0504 16:04:11.289832  8092 net.cpp:124] Setting up ip3
I0504 16:04:11.289841  8092 net.cpp:131] Top shape: 111 10 (1110)
I0504 16:04:11.289844  8092 net.cpp:139] Memory required for data: 110356644
I0504 16:04:11.289854  8092 layer_factory.hpp:77] Creating layer loss
I0504 16:04:11.289858  8092 net.cpp:86] Creating Layer loss
I0504 16:04:11.289862  8092 net.cpp:408] loss <- ip3
I0504 16:04:11.289866  8092 net.cpp:408] loss <- label
I0504 16:04:11.289871  8092 net.cpp:382] loss -> loss
I0504 16:04:11.289888  8092 layer_factory.hpp:77] Creating layer loss
…
I0504 16:04:11.290591  8092 solver.cpp:173] Creating test net (#0) specified by net file: ECE595/cifar/train_test/var_everything_tiny/cifar_train_test_185.prototxt
I0504 16:04:11.290652  8092 net.cpp:296] The NetState phase (1) differed from the phase (0) specified by a rule in layer cifar
I0504 16:04:11.290751  8092 net.cpp:53] Initializing net from parameters: 
name: "CIFAR"
state {
  phase: TEST
}
layer {
  name: "cifar"
  type: "Data"
  top: "data"
  top: "label"
  include {
    phase: TEST
  }
  transform_param {
    mean_file: "examples/cifar10/mean.binaryproto"
  }
  data_param {
    source: "examples/cifar10/cifar10_test_lmdb"
    batch_size: 1000
    backend: LMDB
  }
}
layer {
  name: "conv0"
  type: "Convolution"
  bottom: "data"
  top: "conv0"
  param {
    lr_mult: 1
  }
  param {
    lr_mult: 2
  }
  convolution_param {
    num_output: 72
    pad: 2
    kernel_size: 3
    stride: 1
    weight_filler {
      type: "gaussian"
      std: 0.01
    }
    bias_filler {
      type: "constant"
    }
  }
}
layer {
  name: "Sigmoid0"
  type: "Sigmoid"
  bottom: "conv0"
  top: "Sigmoid0"
}
layer {
  name: "pool0"
  type: "Pooling"
  bottom: "Sigmoid0"
  top: "pool0"
  pooling_param {
    pool: AVE
    kernel_size: 3
    stride: 2
  }
}
layer {
  name: "conv1"
  type: "Convolution"
  bottom: "pool0"
  top: "conv1"
  param {
    lr_mult: 1
  }
  param {
    lr_mult: 2
  }
  convolution_param {
    num_output: 72
    pad: 2
    kernel_size: 3
    stride: 1
    weight_filler {
      type: "gaussian"
      std: 0.01
    }
    bias_filler {
      type: "constant"
    }
  }
}
layer {
  name: "Sigmoid1"
  type: "Sigmoid"
  bottom: "conv1"
  top: "Sigmoid1"
}
layer {
  name: "pool1"
  type: "Pooling"
  bottom: "Sigmoid1"
  top: "pool1"
  pooling_param {
    pool: AVE
    kernel_size: 3
    stride: 2
  }
}
layer {
  name: "ip1"
  type: "InnerProduct"
  bottom: "pool1"
  top: "ip1"
  param {
    lr_mult: 1
  }
  param {
    lr_mult: 2
  }
  inner_product_param {
    num_output: 10
    weight_filler {
      type: "gaussian"
      std: 0.01
    }
    bias_filler {
      type: "constant"
    }
  }
}
layer {
  name: "relu1"
  type: "ReLU"
  bottom: "ip1"
  top: "ip1"
}
layer {
  name: "ip2"
  type: "InnerProduct"
  bottom: "ip1"
  top: "ip2"
  param {
    lr_mult: 1
  }
  param {
    lr_mult: 2
  }
  inner_product_param {
    num_output: 180
    weight_filler {
      type: "gaussian"
      std: 0.01
    }
    bias_filler {
      type: "constant"
    }
  }
}
layer {
  name: "relu2"
  type: "ReLU"
  bottom: "ip2"
  top: "ip2"
}
layer {
  name: "ip3"
  type: "InnerProduct"
  bottom: "ip2"
  top: "ip3"
  param {
    lr_mult: 1
  }
  param {
    lr_mult: 2
  }
  inner_product_param {
    num_output: 10
    weight_filler {
      type: "gaussian"
      std: 0.01
    }
    bias_filler {
      type: "constant"
    }
  }
}
layer {
  name: "accuracy"
  type: "Accuracy"
  bottom: "ip3"
  bottom: "label"
  top: "accuracy"
  include {
    phase: TEST
  }
}
layer {
  name: "loss"
  type: "SoftmaxWithLoss"
  bottom: "ip3"
  bottom: "label"
  top: "loss"
}
I0504 16:04:11.290850  8092 layer_factory.hpp:77] Creating layer cifar
I0504 16:04:11.290899  8092 db_lmdb.cpp:35] Opened lmdb examples/cifar10/cifar10_test_lmdb
I0504 16:04:11.290910  8092 net.cpp:86] Creating Layer cifar
I0504 16:04:11.290915  8092 net.cpp:382] cifar -> data
I0504 16:04:11.290923  8092 net.cpp:382] cifar -> label
I0504 16:04:11.290930  8092 data_transformer.cpp:25] Loading mean file from: examples/cifar10/mean.binaryproto
I0504 16:04:11.291069  8092 data_layer.cpp:45] output data size: 1000,3,32,32
I0504 16:04:11.313221  8092 net.cpp:124] Setting up cifar
I0504 16:04:11.313261  8092 net.cpp:131] Top shape: 1000 3 32 32 (3072000)
I0504 16:04:11.313267  8092 net.cpp:131] Top shape: 1000 (1000)
I0504 16:04:11.313272  8092 net.cpp:139] Memory required for data: 12292000
I0504 16:04:11.313278  8092 layer_factory.hpp:77] Creating layer label_cifar_1_split
I0504 16:04:11.313290  8092 net.cpp:86] Creating Layer label_cifar_1_split
I0504 16:04:11.313294  8092 net.cpp:408] label_cifar_1_split <- label
I0504 16:04:11.313316  8092 net.cpp:382] label_cifar_1_split -> label_cifar_1_split_0
I0504 16:04:11.313325  8092 net.cpp:382] label_cifar_1_split -> label_cifar_1_split_1
I0504 16:04:11.313422  8092 net.cpp:124] Setting up label_cifar_1_split
I0504 16:04:11.313431  8092 net.cpp:131] Top shape: 1000 (1000)
I0504 16:04:11.313434  8092 net.cpp:131] Top shape: 1000 (1000)
I0504 16:04:11.313437  8092 net.cpp:139] Memory required for data: 12300000
I0504 16:04:11.313441  8092 layer_factory.hpp:77] Creating layer conv0
I0504 16:04:11.313452  8092 net.cpp:86] Creating Layer conv0
I0504 16:04:11.313455  8092 net.cpp:408] conv0 <- data
I0504 16:04:11.313477  8092 net.cpp:382] conv0 -> conv0
I0504 16:04:11.315088  8092 net.cpp:124] Setting up conv0
I0504 16:04:11.315117  8092 net.cpp:131] Top shape: 1000 72 34 34 (83232000)
I0504 16:04:11.315121  8092 net.cpp:139] Memory required for data: 345228000
I0504 16:04:11.315131  8092 layer_factory.hpp:77] Creating layer Sigmoid0
I0504 16:04:11.315138  8092 net.cpp:86] Creating Layer Sigmoid0
I0504 16:04:11.315141  8092 net.cpp:408] Sigmoid0 <- conv0
I0504 16:04:11.315146  8092 net.cpp:382] Sigmoid0 -> Sigmoid0
I0504 16:04:11.316511  8092 net.cpp:124] Setting up Sigmoid0
I0504 16:04:11.316534  8092 net.cpp:131] Top shape: 1000 72 34 34 (83232000)
I0504 16:04:11.316555  8092 net.cpp:139] Memory required for data: 678156000
I0504 16:04:11.316557  8092 layer_factory.hpp:77] Creating layer pool0
I0504 16:04:11.316566  8092 net.cpp:86] Creating Layer pool0
I0504 16:04:11.316570  8092 net.cpp:408] pool0 <- Sigmoid0
I0504 16:04:11.316575  8092 net.cpp:382] pool0 -> pool0
I0504 16:04:11.316781  8092 net.cpp:124] Setting up pool0
I0504 16:04:11.316790  8092 net.cpp:131] Top shape: 1000 72 17 17 (20808000)
I0504 16:04:11.316793  8092 net.cpp:139] Memory required for data: 761388000
I0504 16:04:11.316797  8092 layer_factory.hpp:77] Creating layer conv1
I0504 16:04:11.316807  8092 net.cpp:86] Creating Layer conv1
I0504 16:04:11.316817  8092 net.cpp:408] conv1 <- pool0
I0504 16:04:11.316838  8092 net.cpp:382] conv1 -> conv1
I0504 16:04:11.319588  8092 net.cpp:124] Setting up conv1
I0504 16:04:11.319602  8092 net.cpp:131] Top shape: 1000 72 19 19 (25992000)
I0504 16:04:11.319622  8092 net.cpp:139] Memory required for data: 865356000
I0504 16:04:11.319630  8092 layer_factory.hpp:77] Creating layer Sigmoid1
I0504 16:04:11.319636  8092 net.cpp:86] Creating Layer Sigmoid1
I0504 16:04:11.319640  8092 net.cpp:408] Sigmoid1 <- conv1
I0504 16:04:11.319645  8092 net.cpp:382] Sigmoid1 -> Sigmoid1
I0504 16:04:11.319840  8092 net.cpp:124] Setting up Sigmoid1
I0504 16:04:11.319850  8092 net.cpp:131] Top shape: 1000 72 19 19 (25992000)
I0504 16:04:11.319854  8092 net.cpp:139] Memory required for data: 969324000
I0504 16:04:11.319857  8092 layer_factory.hpp:77] Creating layer pool1
I0504 16:04:11.319864  8092 net.cpp:86] Creating Layer pool1
I0504 16:04:11.319867  8092 net.cpp:408] pool1 <- Sigmoid1
I0504 16:04:11.319872  8092 net.cpp:382] pool1 -> pool1
I0504 16:04:11.320732  8092 net.cpp:124] Setting up pool1
I0504 16:04:11.320744  8092 net.cpp:131] Top shape: 1000 72 9 9 (5832000)
I0504 16:04:11.320765  8092 net.cpp:139] Memory required for data: 992652000
I0504 16:04:11.320768  8092 layer_factory.hpp:77] Creating layer ip1
I0504 16:04:11.320777  8092 net.cpp:86] Creating Layer ip1
I0504 16:04:11.320781  8092 net.cpp:408] ip1 <- pool1
I0504 16:04:11.320802  8092 net.cpp:382] ip1 -> ip1
I0504 16:04:11.322746  8092 net.cpp:124] Setting up ip1
I0504 16:04:11.322754  8092 net.cpp:131] Top shape: 1000 10 (10000)
I0504 16:04:11.322772  8092 net.cpp:139] Memory required for data: 992692000
I0504 16:04:11.322794  8092 layer_factory.hpp:77] Creating layer relu1
I0504 16:04:11.322799  8092 net.cpp:86] Creating Layer relu1
I0504 16:04:11.322803  8092 net.cpp:408] relu1 <- ip1
I0504 16:04:11.322808  8092 net.cpp:369] relu1 -> ip1 (in-place)
I0504 16:04:11.322973  8092 net.cpp:124] Setting up relu1
I0504 16:04:11.322983  8092 net.cpp:131] Top shape: 1000 10 (10000)
I0504 16:04:11.322985  8092 net.cpp:139] Memory required for data: 992732000
I0504 16:04:11.322988  8092 layer_factory.hpp:77] Creating layer ip2
I0504 16:04:11.322994  8092 net.cpp:86] Creating Layer ip2
I0504 16:04:11.322998  8092 net.cpp:408] ip2 <- ip1
I0504 16:04:11.323002  8092 net.cpp:382] ip2 -> ip2
I0504 16:04:11.323197  8092 net.cpp:124] Setting up ip2
I0504 16:04:11.323204  8092 net.cpp:131] Top shape: 1000 180 (180000)
I0504 16:04:11.323207  8092 net.cpp:139] Memory required for data: 993452000
I0504 16:04:11.323213  8092 layer_factory.hpp:77] Creating layer relu2
I0504 16:04:11.323218  8092 net.cpp:86] Creating Layer relu2
I0504 16:04:11.323221  8092 net.cpp:408] relu2 <- ip2
I0504 16:04:11.323226  8092 net.cpp:369] relu2 -> ip2 (in-place)
I0504 16:04:11.323420  8092 net.cpp:124] Setting up relu2
I0504 16:04:11.323429  8092 net.cpp:131] Top shape: 1000 180 (180000)
I0504 16:04:11.323436  8092 net.cpp:139] Memory required for data: 994172000
I0504 16:04:11.323438  8092 layer_factory.hpp:77] Creating layer ip3
I0504 16:04:11.323446  8092 net.cpp:86] Creating Layer ip3
I0504 16:04:11.323448  8092 net.cpp:408] ip3 <- ip2
I0504 16:04:11.323454  8092 net.cpp:382] ip3 -> ip3
I0504 16:04:11.323621  8092 net.cpp:124] Setting up ip3
I0504 16:04:11.323642  8092 net.cpp:131] Top shape: 1000 10 (10000)
I0504 16:04:11.323645  8092 net.cpp:139] Memory required for data: 994212000
I0504 16:04:11.323655  8092 layer_factory.hpp:77] Creating layer ip3_ip3_0_split
I0504 16:04:11.323663  8092 net.cpp:86] Creating Layer ip3_ip3_0_split
I0504 16:04:11.323668  8092 net.cpp:408] ip3_ip3_0_split <- ip3
I0504 16:04:11.323673  8092 net.cpp:382] ip3_ip3_0_split -> ip3_ip3_0_split_0
I0504 16:04:11.323678  8092 net.cpp:382] ip3_ip3_0_split -> ip3_ip3_0_split_1
I0504 16:04:11.323714  8092 net.cpp:124] Setting up ip3_ip3_0_split
I0504 16:04:11.323721  8092 net.cpp:131] Top shape: 1000 10 (10000)
I0504 16:04:11.323725  8092 net.cpp:131] Top shape: 1000 10 (10000)
I0504 16:04:11.323729  8092 net.cpp:139] Memory required for data: 994292000
I0504 16:04:11.323731  8092 layer_factory.hpp:77] Creating layer accuracy
I0504 16:04:11.323737  8092 net.cpp:86] Creating Layer accuracy
I0504 16:04:11.323742  8092 net.cpp:408] accuracy <- ip3_ip3_0_split_0
I0504 16:04:11.323746  8092 net.cpp:408] accuracy <- label_cifar_1_split_0
I0504 16:04:11.323751  8092 net.cpp:382] accuracy -> accuracy
…
