…
I0504 02:02:51.930372  8523 net.cpp:296] The NetState phase (0) differed from the phase (1) specified by a rule in layer cifar
I0504 02:02:51.930389  8523 net.cpp:296] The NetState phase (0) differed from the phase (1) specified by a rule in layer accuracy
I0504 02:02:51.930482  8523 net.cpp:53] Initializing net from parameters: 
name: "CIFAR"
state {
  phase: TRAIN
  level: 0
  stage: ""
}
layer {
  name: "cifar"
  type: "Data"
  top: "data"
  top: "label"
  include {
    phase: TRAIN
  }
  transform_param {
    mean_file: "examples/cifar10/mean.binaryproto"
  }
  data_param {
    source: "examples/cifar10/cifar10_train_lmdb"
    batch_size: 111
    backend: LMDB
  }
}
layer {
  name: "conv0"
  type: "Convolution"
  bottom: "data"
  top: "conv0"
  param {
    lr_mult: 1
  }
  param {
    lr_mult: 2
  }
  convolution_param {
    num_output: 72
    pad: 2
    kernel_size: 5
    stride: 1
    weight_filler {
      type: "gaussian"
      std: 0.01
    }
    bias_filler {
      type: "constant"
    }
  }
}
layer {
  name: "Sigmoid0"
  type: "Sigmoid"
  bottom: "conv0"
  top: "Sigmoid0"
}
layer {
  name: "pool0"
  type: "Pooling"
  bottom: "Sigmoid0"
  top: "pool0"
  pooling_param {
    pool: AVE
    kernel_size: 3
    stride: 2
  }
}
layer {
  name: "ip1"
  type: "InnerProduct"
  bottom: "pool0"
  top: "ip1"
  param {
    lr_mult: 1
  }
  param {
    lr_mult: 2
  }
  inner_product_param {
    num_output: 60
    weight_filler {
      type: "gaussian"
      std: 0.01
    }
    bias_filler {
      type: "constant"
    }
  }
}
layer {
  name: "relu1"
  type: "ReLU"
  bottom: "ip1"
  top: "ip1"
}
layer {
  name: "ip2"
  type: "InnerProduct"
  bottom: "ip1"
  top: "ip2"
  param {
    lr_mult: 1
  }
  param {
    lr_mult: 2
  }
  inner_product_param {
    num_output: 10
    weight_filler {
      type: "gaussian"
      std: 0.01
    }
    bias_filler {
      type: "constant"
    }
  }
}
layer {
  name: "relu2"
  type: "ReLU"
  bottom: "ip2"
  top: "ip2"
}
layer {
  name: "ip3"
  type: "InnerProduct"
  bottom: "ip2"
  top: "ip3"
  param {
    lr_mult: 1
  }
  param {
    lr_mult: 2
  }
  inner_product_param {
    num_output: 10
    weight_filler {
      type: "gaussian"
      std: 0.01
    }
    bias_filler {
      type: "constant"
    }
  }
}
layer {
  name: "loss"
  type: "SoftmaxWithLoss"
  bottom: "ip3"
  bottom: "label"
  top: "loss"
}
I0504 02:02:51.930557  8523 layer_factory.hpp:77] Creating layer cifar
I0504 02:02:51.930657  8523 db_lmdb.cpp:35] Opened lmdb examples/cifar10/cifar10_train_lmdb
I0504 02:02:51.930686  8523 net.cpp:86] Creating Layer cifar
I0504 02:02:51.930693  8523 net.cpp:382] cifar -> data
I0504 02:02:51.930717  8523 net.cpp:382] cifar -> label
I0504 02:02:51.930729  8523 data_transformer.cpp:25] Loading mean file from: examples/cifar10/mean.binaryproto
I0504 02:02:51.932868  8523 data_layer.cpp:45] output data size: 111,3,32,32
I0504 02:02:51.940807  8523 net.cpp:124] Setting up cifar
I0504 02:02:51.940832  8523 net.cpp:131] Top shape: 111 3 32 32 (340992)
I0504 02:02:51.940841  8523 net.cpp:131] Top shape: 111 (111)
I0504 02:02:51.940845  8523 net.cpp:139] Memory required for data: 1364412
I0504 02:02:51.940852  8523 layer_factory.hpp:77] Creating layer conv0
I0504 02:02:51.940870  8523 net.cpp:86] Creating Layer conv0
I0504 02:02:51.940874  8523 net.cpp:408] conv0 <- data
I0504 02:02:51.940887  8523 net.cpp:382] conv0 -> conv0
I0504 02:02:52.231304  8523 net.cpp:124] Setting up conv0
I0504 02:02:52.231358  8523 net.cpp:131] Top shape: 111 72 32 32 (8183808)
I0504 02:02:52.231362  8523 net.cpp:139] Memory required for data: 34099644
I0504 02:02:52.231379  8523 layer_factory.hpp:77] Creating layer Sigmoid0
I0504 02:02:52.231393  8523 net.cpp:86] Creating Layer Sigmoid0
I0504 02:02:52.231398  8523 net.cpp:408] Sigmoid0 <- conv0
I0504 02:02:52.231406  8523 net.cpp:382] Sigmoid0 -> Sigmoid0
I0504 02:02:52.231643  8523 net.cpp:124] Setting up Sigmoid0
I0504 02:02:52.231655  8523 net.cpp:131] Top shape: 111 72 32 32 (8183808)
I0504 02:02:52.231659  8523 net.cpp:139] Memory required for data: 66834876
I0504 02:02:52.231663  8523 layer_factory.hpp:77] Creating layer pool0
I0504 02:02:52.231673  8523 net.cpp:86] Creating Layer pool0
I0504 02:02:52.231676  8523 net.cpp:408] pool0 <- Sigmoid0
I0504 02:02:52.231683  8523 net.cpp:382] pool0 -> pool0
I0504 02:02:52.232584  8523 net.cpp:124] Setting up pool0
I0504 02:02:52.232600  8523 net.cpp:131] Top shape: 111 72 16 16 (2045952)
I0504 02:02:52.232604  8523 net.cpp:139] Memory required for data: 75018684
I0504 02:02:52.232609  8523 layer_factory.hpp:77] Creating layer ip1
I0504 02:02:52.232621  8523 net.cpp:86] Creating Layer ip1
I0504 02:02:52.232625  8523 net.cpp:408] ip1 <- pool0
I0504 02:02:52.232635  8523 net.cpp:382] ip1 -> ip1
I0504 02:02:52.270627  8523 net.cpp:124] Setting up ip1
I0504 02:02:52.270642  8523 net.cpp:131] Top shape: 111 60 (6660)
I0504 02:02:52.270647  8523 net.cpp:139] Memory required for data: 75045324
I0504 02:02:52.270656  8523 layer_factory.hpp:77] Creating layer relu1
I0504 02:02:52.270666  8523 net.cpp:86] Creating Layer relu1
I0504 02:02:52.270670  8523 net.cpp:408] relu1 <- ip1
I0504 02:02:52.270676  8523 net.cpp:369] relu1 -> ip1 (in-place)
I0504 02:02:52.270872  8523 net.cpp:124] Setting up relu1
I0504 02:02:52.270884  8523 net.cpp:131] Top shape: 111 60 (6660)
I0504 02:02:52.270887  8523 net.cpp:139] Memory required for data: 75071964
I0504 02:02:52.270890  8523 layer_factory.hpp:77] Creating layer ip2
I0504 02:02:52.270900  8523 net.cpp:86] Creating Layer ip2
I0504 02:02:52.270903  8523 net.cpp:408] ip2 <- ip1
I0504 02:02:52.270911  8523 net.cpp:382] ip2 -> ip2
I0504 02:02:52.271047  8523 net.cpp:124] Setting up ip2
I0504 02:02:52.271059  8523 net.cpp:131] Top shape: 111 10 (1110)
I0504 02:02:52.271062  8523 net.cpp:139] Memory required for data: 75076404
I0504 02:02:52.271071  8523 layer_factory.hpp:77] Creating layer relu2
I0504 02:02:52.271077  8523 net.cpp:86] Creating Layer relu2
I0504 02:02:52.271081  8523 net.cpp:408] relu2 <- ip2
I0504 02:02:52.271086  8523 net.cpp:369] relu2 -> ip2 (in-place)
I0504 02:02:52.271282  8523 net.cpp:124] Setting up relu2
I0504 02:02:52.271292  8523 net.cpp:131] Top shape: 111 10 (1110)
I0504 02:02:52.271296  8523 net.cpp:139] Memory required for data: 75080844
I0504 02:02:52.271301  8523 layer_factory.hpp:77] Creating layer ip3
I0504 02:02:52.271311  8523 net.cpp:86] Creating Layer ip3
I0504 02:02:52.271316  8523 net.cpp:408] ip3 <- ip2
I0504 02:02:52.271322  8523 net.cpp:382] ip3 -> ip3
I0504 02:02:52.271447  8523 net.cpp:124] Setting up ip3
I0504 02:02:52.271456  8523 net.cpp:131] Top shape: 111 10 (1110)
I0504 02:02:52.271459  8523 net.cpp:139] Memory required for data: 75085284
I0504 02:02:52.271466  8523 layer_factory.hpp:77] Creating layer loss
I0504 02:02:52.271472  8523 net.cpp:86] Creating Layer loss
I0504 02:02:52.271476  8523 net.cpp:408] loss <- ip3
I0504 02:02:52.271481  8523 net.cpp:408] loss <- label
I0504 02:02:52.271487  8523 net.cpp:382] loss -> loss
I0504 02:02:52.271504  8523 layer_factory.hpp:77] Creating layer loss
…
I0504 02:02:52.272225  8523 solver.cpp:173] Creating test net (#0) specified by net file: ECE595/cifar/train_test/var_everything_tiny/cifar_train_test_42.prototxt
I0504 02:02:52.272255  8523 net.cpp:296] The NetState phase (1) differed from the phase (0) specified by a rule in layer cifar
I0504 02:02:52.272361  8523 net.cpp:53] Initializing net from parameters: 
name: "CIFAR"
state {
  phase: TEST
}
layer {
  name: "cifar"
  type: "Data"
  top: "data"
  top: "label"
  include {
    phase: TEST
  }
  transform_param {
    mean_file: "examples/cifar10/mean.binaryproto"
  }
  data_param {
    source: "examples/cifar10/cifar10_test_lmdb"
    batch_size: 1000
    backend: LMDB
  }
}
layer {
  name: "conv0"
  type: "Convolution"
  bottom: "data"
  top: "conv0"
  param {
    lr_mult: 1
  }
  param {
    lr_mult: 2
  }
  convolution_param {
    num_output: 72
    pad: 2
    kernel_size: 5
    stride: 1
    weight_filler {
      type: "gaussian"
      std: 0.01
    }
    bias_filler {
      type: "constant"
    }
  }
}
layer {
  name: "Sigmoid0"
  type: "Sigmoid"
  bottom: "conv0"
  top: "Sigmoid0"
}
layer {
  name: "pool0"
  type: "Pooling"
  bottom: "Sigmoid0"
  top: "pool0"
  pooling_param {
    pool: AVE
    kernel_size: 3
    stride: 2
  }
}
layer {
  name: "ip1"
  type: "InnerProduct"
  bottom: "pool0"
  top: "ip1"
  param {
    lr_mult: 1
  }
  param {
    lr_mult: 2
  }
  inner_product_param {
    num_output: 60
    weight_filler {
      type: "gaussian"
      std: 0.01
    }
    bias_filler {
      type: "constant"
    }
  }
}
layer {
  name: "relu1"
  type: "ReLU"
  bottom: "ip1"
  top: "ip1"
}
layer {
  name: "ip2"
  type: "InnerProduct"
  bottom: "ip1"
  top: "ip2"
  param {
    lr_mult: 1
  }
  param {
    lr_mult: 2
  }
  inner_product_param {
    num_output: 10
    weight_filler {
      type: "gaussian"
      std: 0.01
    }
    bias_filler {
      type: "constant"
    }
  }
}
layer {
  name: "relu2"
  type: "ReLU"
  bottom: "ip2"
  top: "ip2"
}
layer {
  name: "ip3"
  type: "InnerProduct"
  bottom: "ip2"
  top: "ip3"
  param {
    lr_mult: 1
  }
  param {
    lr_mult: 2
  }
  inner_product_param {
    num_output: 10
    weight_filler {
      type: "gaussian"
      std: 0.01
    }
    bias_filler {
      type: "constant"
    }
  }
}
layer {
  name: "accuracy"
  type: "Accuracy"
  bottom: "ip3"
  bottom: "label"
  top: "accuracy"
  include {
    phase: TEST
  }
}
layer {
  name: "loss"
  type: "SoftmaxWithLoss"
  bottom: "ip3"
  bottom: "label"
  top: "loss"
}
I0504 02:02:52.272441  8523 layer_factory.hpp:77] Creating layer cifar
I0504 02:02:52.272498  8523 db_lmdb.cpp:35] Opened lmdb examples/cifar10/cifar10_test_lmdb
I0504 02:02:52.272512  8523 net.cpp:86] Creating Layer cifar
I0504 02:02:52.272519  8523 net.cpp:382] cifar -> data
I0504 02:02:52.272528  8523 net.cpp:382] cifar -> label
I0504 02:02:52.272537  8523 data_transformer.cpp:25] Loading mean file from: examples/cifar10/mean.binaryproto
I0504 02:02:52.272719  8523 data_layer.cpp:45] output data size: 1000,3,32,32
I0504 02:02:52.298519  8523 net.cpp:124] Setting up cifar
I0504 02:02:52.298550  8523 net.cpp:131] Top shape: 1000 3 32 32 (3072000)
I0504 02:02:52.298557  8523 net.cpp:131] Top shape: 1000 (1000)
I0504 02:02:52.298560  8523 net.cpp:139] Memory required for data: 12292000
I0504 02:02:52.298568  8523 layer_factory.hpp:77] Creating layer label_cifar_1_split
I0504 02:02:52.298580  8523 net.cpp:86] Creating Layer label_cifar_1_split
I0504 02:02:52.298606  8523 net.cpp:408] label_cifar_1_split <- label
I0504 02:02:52.298616  8523 net.cpp:382] label_cifar_1_split -> label_cifar_1_split_0
I0504 02:02:52.298626  8523 net.cpp:382] label_cifar_1_split -> label_cifar_1_split_1
I0504 02:02:52.298754  8523 net.cpp:124] Setting up label_cifar_1_split
I0504 02:02:52.298766  8523 net.cpp:131] Top shape: 1000 (1000)
I0504 02:02:52.298771  8523 net.cpp:131] Top shape: 1000 (1000)
I0504 02:02:52.298774  8523 net.cpp:139] Memory required for data: 12300000
I0504 02:02:52.298779  8523 layer_factory.hpp:77] Creating layer conv0
I0504 02:02:52.298794  8523 net.cpp:86] Creating Layer conv0
I0504 02:02:52.298799  8523 net.cpp:408] conv0 <- data
I0504 02:02:52.298805  8523 net.cpp:382] conv0 -> conv0
I0504 02:02:52.300844  8523 net.cpp:124] Setting up conv0
I0504 02:02:52.300861  8523 net.cpp:131] Top shape: 1000 72 32 32 (73728000)
I0504 02:02:52.300866  8523 net.cpp:139] Memory required for data: 307212000
I0504 02:02:52.300879  8523 layer_factory.hpp:77] Creating layer Sigmoid0
I0504 02:02:52.300886  8523 net.cpp:86] Creating Layer Sigmoid0
I0504 02:02:52.300892  8523 net.cpp:408] Sigmoid0 <- conv0
I0504 02:02:52.300899  8523 net.cpp:382] Sigmoid0 -> Sigmoid0
I0504 02:02:52.302778  8523 net.cpp:124] Setting up Sigmoid0
I0504 02:02:52.302793  8523 net.cpp:131] Top shape: 1000 72 32 32 (73728000)
I0504 02:02:52.302798  8523 net.cpp:139] Memory required for data: 602124000
I0504 02:02:52.302801  8523 layer_factory.hpp:77] Creating layer pool0
I0504 02:02:52.302814  8523 net.cpp:86] Creating Layer pool0
I0504 02:02:52.302819  8523 net.cpp:408] pool0 <- Sigmoid0
I0504 02:02:52.302826  8523 net.cpp:382] pool0 -> pool0
I0504 02:02:52.303046  8523 net.cpp:124] Setting up pool0
I0504 02:02:52.303057  8523 net.cpp:131] Top shape: 1000 72 16 16 (18432000)
I0504 02:02:52.303061  8523 net.cpp:139] Memory required for data: 675852000
I0504 02:02:52.303066  8523 layer_factory.hpp:77] Creating layer ip1
I0504 02:02:52.303073  8523 net.cpp:86] Creating Layer ip1
I0504 02:02:52.303077  8523 net.cpp:408] ip1 <- pool0
I0504 02:02:52.303086  8523 net.cpp:382] ip1 -> ip1
I0504 02:02:52.341120  8523 net.cpp:124] Setting up ip1
I0504 02:02:52.341145  8523 net.cpp:131] Top shape: 1000 60 (60000)
I0504 02:02:52.341150  8523 net.cpp:139] Memory required for data: 676092000
I0504 02:02:52.341163  8523 layer_factory.hpp:77] Creating layer relu1
I0504 02:02:52.341173  8523 net.cpp:86] Creating Layer relu1
I0504 02:02:52.341178  8523 net.cpp:408] relu1 <- ip1
I0504 02:02:52.341184  8523 net.cpp:369] relu1 -> ip1 (in-place)
I0504 02:02:52.341425  8523 net.cpp:124] Setting up relu1
I0504 02:02:52.341437  8523 net.cpp:131] Top shape: 1000 60 (60000)
I0504 02:02:52.341441  8523 net.cpp:139] Memory required for data: 676332000
I0504 02:02:52.341445  8523 layer_factory.hpp:77] Creating layer ip2
I0504 02:02:52.341454  8523 net.cpp:86] Creating Layer ip2
I0504 02:02:52.341459  8523 net.cpp:408] ip2 <- ip1
I0504 02:02:52.341465  8523 net.cpp:382] ip2 -> ip2
I0504 02:02:52.341629  8523 net.cpp:124] Setting up ip2
I0504 02:02:52.341639  8523 net.cpp:131] Top shape: 1000 10 (10000)
I0504 02:02:52.341644  8523 net.cpp:139] Memory required for data: 676372000
I0504 02:02:52.341652  8523 layer_factory.hpp:77] Creating layer relu2
I0504 02:02:52.341660  8523 net.cpp:86] Creating Layer relu2
I0504 02:02:52.341663  8523 net.cpp:408] relu2 <- ip2
I0504 02:02:52.341670  8523 net.cpp:369] relu2 -> ip2 (in-place)
I0504 02:02:52.341868  8523 net.cpp:124] Setting up relu2
I0504 02:02:52.341882  8523 net.cpp:131] Top shape: 1000 10 (10000)
I0504 02:02:52.341886  8523 net.cpp:139] Memory required for data: 676412000
I0504 02:02:52.341891  8523 layer_factory.hpp:77] Creating layer ip3
I0504 02:02:52.341899  8523 net.cpp:86] Creating Layer ip3
I0504 02:02:52.341903  8523 net.cpp:408] ip3 <- ip2
I0504 02:02:52.341908  8523 net.cpp:382] ip3 -> ip3
I0504 02:02:52.342041  8523 net.cpp:124] Setting up ip3
I0504 02:02:52.342051  8523 net.cpp:131] Top shape: 1000 10 (10000)
I0504 02:02:52.342072  8523 net.cpp:139] Memory required for data: 676452000
I0504 02:02:52.342078  8523 layer_factory.hpp:77] Creating layer ip3_ip3_0_split
I0504 02:02:52.342087  8523 net.cpp:86] Creating Layer ip3_ip3_0_split
I0504 02:02:52.342090  8523 net.cpp:408] ip3_ip3_0_split <- ip3
I0504 02:02:52.342097  8523 net.cpp:382] ip3_ip3_0_split -> ip3_ip3_0_split_0
I0504 02:02:52.342104  8523 net.cpp:382] ip3_ip3_0_split -> ip3_ip3_0_split_1
I0504 02:02:52.342144  8523 net.cpp:124] Setting up ip3_ip3_0_split
I0504 02:02:52.342152  8523 net.cpp:131] Top shape: 1000 10 (10000)
I0504 02:02:52.342156  8523 net.cpp:131] Top shape: 1000 10 (10000)
I0504 02:02:52.342160  8523 net.cpp:139] Memory required for data: 676532000
I0504 02:02:52.342164  8523 layer_factory.hpp:77] Creating layer accuracy
I0504 02:02:52.342172  8523 net.cpp:86] Creating Layer accuracy
I0504 02:02:52.342176  8523 net.cpp:408] accuracy <- ip3_ip3_0_split_0
I0504 02:02:52.342180  8523 net.cpp:408] accuracy <- label_cifar_1_split_0
I0504 02:02:52.342187  8523 net.cpp:382] accuracy -> accuracy
…
