…
I0504 12:14:30.489655 28722 net.cpp:296] The NetState phase (0) differed from the phase (1) specified by a rule in layer cifar
I0504 12:14:30.489675 28722 net.cpp:296] The NetState phase (0) differed from the phase (1) specified by a rule in layer accuracy
I0504 12:14:30.489787 28722 net.cpp:53] Initializing net from parameters: 
name: "CIFAR"
state {
  phase: TRAIN
  level: 0
  stage: ""
}
layer {
  name: "cifar"
  type: "Data"
  top: "data"
  top: "label"
  include {
    phase: TRAIN
  }
  transform_param {
    mean_file: "examples/cifar10/mean.binaryproto"
  }
  data_param {
    source: "examples/cifar10/cifar10_train_lmdb"
    batch_size: 111
    backend: LMDB
  }
}
layer {
  name: "conv0"
  type: "Convolution"
  bottom: "data"
  top: "conv0"
  param {
    lr_mult: 1
  }
  param {
    lr_mult: 2
  }
  convolution_param {
    num_output: 24
    pad: 2
    kernel_size: 3
    stride: 1
    weight_filler {
      type: "gaussian"
      std: 0.01
    }
    bias_filler {
      type: "constant"
    }
  }
}
layer {
  name: "Sigmoid0"
  type: "Sigmoid"
  bottom: "conv0"
  top: "Sigmoid0"
}
layer {
  name: "pool0"
  type: "Pooling"
  bottom: "Sigmoid0"
  top: "pool0"
  pooling_param {
    pool: AVE
    kernel_size: 3
    stride: 2
  }
}
layer {
  name: "conv1"
  type: "Convolution"
  bottom: "pool0"
  top: "conv1"
  param {
    lr_mult: 1
  }
  param {
    lr_mult: 2
  }
  convolution_param {
    num_output: 216
    pad: 2
    kernel_size: 3
    stride: 1
    weight_filler {
      type: "gaussian"
      std: 0.01
    }
    bias_filler {
      type: "constant"
    }
  }
}
layer {
  name: "Sigmoid1"
  type: "Sigmoid"
  bottom: "conv1"
  top: "Sigmoid1"
}
layer {
  name: "pool1"
  type: "Pooling"
  bottom: "Sigmoid1"
  top: "pool1"
  pooling_param {
    pool: AVE
    kernel_size: 3
    stride: 2
  }
}
layer {
  name: "ip1"
  type: "InnerProduct"
  bottom: "pool1"
  top: "ip1"
  param {
    lr_mult: 1
  }
  param {
    lr_mult: 2
  }
  inner_product_param {
    num_output: 180
    weight_filler {
      type: "gaussian"
      std: 0.01
    }
    bias_filler {
      type: "constant"
    }
  }
}
layer {
  name: "relu1"
  type: "ReLU"
  bottom: "ip1"
  top: "ip1"
}
layer {
  name: "ip2"
  type: "InnerProduct"
  bottom: "ip1"
  top: "ip2"
  param {
    lr_mult: 1
  }
  param {
    lr_mult: 2
  }
  inner_product_param {
    num_output: 10
    weight_filler {
      type: "gaussian"
      std: 0.01
    }
    bias_filler {
      type: "constant"
    }
  }
}
layer {
  name: "relu2"
  type: "ReLU"
  bottom: "ip2"
  top: "ip2"
}
layer {
  name: "ip3"
  type: "InnerProduct"
  bottom: "ip2"
  top: "ip3"
  param {
    lr_mult: 1
  }
  param {
    lr_mult: 2
  }
  inner_product_param {
    num_output: 10
    weight_filler {
      type: "gaussian"
      std: 0.01
    }
    bias_filler {
      type: "constant"
    }
  }
}
layer {
  name: "loss"
  type: "SoftmaxWithLoss"
  bottom: "ip3"
  bottom: "label"
  top: "loss"
}
I0504 12:14:30.489876 28722 layer_factory.hpp:77] Creating layer cifar
I0504 12:14:30.489975 28722 db_lmdb.cpp:35] Opened lmdb examples/cifar10/cifar10_train_lmdb
I0504 12:14:30.490002 28722 net.cpp:86] Creating Layer cifar
I0504 12:14:30.490011 28722 net.cpp:382] cifar -> data
I0504 12:14:30.490036 28722 net.cpp:382] cifar -> label
I0504 12:14:30.490051 28722 data_transformer.cpp:25] Loading mean file from: examples/cifar10/mean.binaryproto
I0504 12:14:30.492218 28722 data_layer.cpp:45] output data size: 111,3,32,32
I0504 12:14:30.500217 28722 net.cpp:124] Setting up cifar
I0504 12:14:30.500236 28722 net.cpp:131] Top shape: 111 3 32 32 (340992)
I0504 12:14:30.500242 28722 net.cpp:131] Top shape: 111 (111)
I0504 12:14:30.500246 28722 net.cpp:139] Memory required for data: 1364412
I0504 12:14:30.500253 28722 layer_factory.hpp:77] Creating layer conv0
I0504 12:14:30.500280 28722 net.cpp:86] Creating Layer conv0
I0504 12:14:30.500286 28722 net.cpp:408] conv0 <- data
I0504 12:14:30.500299 28722 net.cpp:382] conv0 -> conv0
I0504 12:14:30.781100 28722 net.cpp:124] Setting up conv0
I0504 12:14:30.781157 28722 net.cpp:131] Top shape: 111 24 34 34 (3079584)
I0504 12:14:30.781162 28722 net.cpp:139] Memory required for data: 13682748
I0504 12:14:30.781190 28722 layer_factory.hpp:77] Creating layer Sigmoid0
I0504 12:14:30.781201 28722 net.cpp:86] Creating Layer Sigmoid0
I0504 12:14:30.781205 28722 net.cpp:408] Sigmoid0 <- conv0
I0504 12:14:30.781226 28722 net.cpp:382] Sigmoid0 -> Sigmoid0
I0504 12:14:30.781409 28722 net.cpp:124] Setting up Sigmoid0
I0504 12:14:30.781417 28722 net.cpp:131] Top shape: 111 24 34 34 (3079584)
I0504 12:14:30.781420 28722 net.cpp:139] Memory required for data: 26001084
I0504 12:14:30.781424 28722 layer_factory.hpp:77] Creating layer pool0
I0504 12:14:30.781430 28722 net.cpp:86] Creating Layer pool0
I0504 12:14:30.781435 28722 net.cpp:408] pool0 <- Sigmoid0
I0504 12:14:30.781440 28722 net.cpp:382] pool0 -> pool0
I0504 12:14:30.782203 28722 net.cpp:124] Setting up pool0
I0504 12:14:30.782215 28722 net.cpp:131] Top shape: 111 24 17 17 (769896)
I0504 12:14:30.782219 28722 net.cpp:139] Memory required for data: 29080668
I0504 12:14:30.782222 28722 layer_factory.hpp:77] Creating layer conv1
I0504 12:14:30.782234 28722 net.cpp:86] Creating Layer conv1
I0504 12:14:30.782238 28722 net.cpp:408] conv1 <- pool0
I0504 12:14:30.782243 28722 net.cpp:382] conv1 -> conv1
I0504 12:14:30.786250 28722 net.cpp:124] Setting up conv1
I0504 12:14:30.786264 28722 net.cpp:131] Top shape: 111 216 19 19 (8655336)
I0504 12:14:30.786267 28722 net.cpp:139] Memory required for data: 63702012
I0504 12:14:30.786275 28722 layer_factory.hpp:77] Creating layer Sigmoid1
I0504 12:14:30.786281 28722 net.cpp:86] Creating Layer Sigmoid1
I0504 12:14:30.786284 28722 net.cpp:408] Sigmoid1 <- conv1
I0504 12:14:30.786290 28722 net.cpp:382] Sigmoid1 -> Sigmoid1
I0504 12:14:30.786484 28722 net.cpp:124] Setting up Sigmoid1
I0504 12:14:30.786494 28722 net.cpp:131] Top shape: 111 216 19 19 (8655336)
I0504 12:14:30.786496 28722 net.cpp:139] Memory required for data: 98323356
I0504 12:14:30.786499 28722 layer_factory.hpp:77] Creating layer pool1
I0504 12:14:30.786505 28722 net.cpp:86] Creating Layer pool1
I0504 12:14:30.786509 28722 net.cpp:408] pool1 <- Sigmoid1
I0504 12:14:30.786512 28722 net.cpp:382] pool1 -> pool1
I0504 12:14:30.786690 28722 net.cpp:124] Setting up pool1
I0504 12:14:30.786700 28722 net.cpp:131] Top shape: 111 216 9 9 (1942056)
I0504 12:14:30.786702 28722 net.cpp:139] Memory required for data: 106091580
I0504 12:14:30.786705 28722 layer_factory.hpp:77] Creating layer ip1
I0504 12:14:30.786712 28722 net.cpp:86] Creating Layer ip1
I0504 12:14:30.786715 28722 net.cpp:408] ip1 <- pool1
I0504 12:14:30.786720 28722 net.cpp:382] ip1 -> ip1
I0504 12:14:30.867117 28722 net.cpp:124] Setting up ip1
I0504 12:14:30.867133 28722 net.cpp:131] Top shape: 111 180 (19980)
I0504 12:14:30.867136 28722 net.cpp:139] Memory required for data: 106171500
I0504 12:14:30.867146 28722 layer_factory.hpp:77] Creating layer relu1
I0504 12:14:30.867151 28722 net.cpp:86] Creating Layer relu1
I0504 12:14:30.867154 28722 net.cpp:408] relu1 <- ip1
I0504 12:14:30.867159 28722 net.cpp:369] relu1 -> ip1 (in-place)
I0504 12:14:30.867341 28722 net.cpp:124] Setting up relu1
I0504 12:14:30.867348 28722 net.cpp:131] Top shape: 111 180 (19980)
I0504 12:14:30.867352 28722 net.cpp:139] Memory required for data: 106251420
I0504 12:14:30.867354 28722 layer_factory.hpp:77] Creating layer ip2
I0504 12:14:30.867360 28722 net.cpp:86] Creating Layer ip2
I0504 12:14:30.867362 28722 net.cpp:408] ip2 <- ip1
I0504 12:14:30.867385 28722 net.cpp:382] ip2 -> ip2
I0504 12:14:30.867532 28722 net.cpp:124] Setting up ip2
I0504 12:14:30.867540 28722 net.cpp:131] Top shape: 111 10 (1110)
I0504 12:14:30.867543 28722 net.cpp:139] Memory required for data: 106255860
I0504 12:14:30.867548 28722 layer_factory.hpp:77] Creating layer relu2
I0504 12:14:30.867552 28722 net.cpp:86] Creating Layer relu2
I0504 12:14:30.867555 28722 net.cpp:408] relu2 <- ip2
I0504 12:14:30.867560 28722 net.cpp:369] relu2 -> ip2 (in-place)
I0504 12:14:30.868366 28722 net.cpp:124] Setting up relu2
I0504 12:14:30.868377 28722 net.cpp:131] Top shape: 111 10 (1110)
I0504 12:14:30.868381 28722 net.cpp:139] Memory required for data: 106260300
I0504 12:14:30.868383 28722 layer_factory.hpp:77] Creating layer ip3
I0504 12:14:30.868391 28722 net.cpp:86] Creating Layer ip3
I0504 12:14:30.868393 28722 net.cpp:408] ip3 <- ip2
I0504 12:14:30.868398 28722 net.cpp:382] ip3 -> ip3
I0504 12:14:30.868512 28722 net.cpp:124] Setting up ip3
I0504 12:14:30.868520 28722 net.cpp:131] Top shape: 111 10 (1110)
I0504 12:14:30.868522 28722 net.cpp:139] Memory required for data: 106264740
I0504 12:14:30.868530 28722 layer_factory.hpp:77] Creating layer loss
I0504 12:14:30.868535 28722 net.cpp:86] Creating Layer loss
I0504 12:14:30.868538 28722 net.cpp:408] loss <- ip3
I0504 12:14:30.868541 28722 net.cpp:408] loss <- label
I0504 12:14:30.868546 28722 net.cpp:382] loss -> loss
I0504 12:14:30.868559 28722 layer_factory.hpp:77] Creating layer loss
…
I0504 12:14:30.869310 28722 solver.cpp:173] Creating test net (#0) specified by net file: ECE595/cifar/train_test/var_everything_tiny/cifar_train_test_153.prototxt
I0504 12:14:30.869335 28722 net.cpp:296] The NetState phase (1) differed from the phase (0) specified by a rule in layer cifar
I0504 12:14:30.869443 28722 net.cpp:53] Initializing net from parameters: 
name: "CIFAR"
state {
  phase: TEST
}
layer {
  name: "cifar"
  type: "Data"
  top: "data"
  top: "label"
  include {
    phase: TEST
  }
  transform_param {
    mean_file: "examples/cifar10/mean.binaryproto"
  }
  data_param {
    source: "examples/cifar10/cifar10_test_lmdb"
    batch_size: 1000
    backend: LMDB
  }
}
layer {
  name: "conv0"
  type: "Convolution"
  bottom: "data"
  top: "conv0"
  param {
    lr_mult: 1
  }
  param {
    lr_mult: 2
  }
  convolution_param {
    num_output: 24
    pad: 2
    kernel_size: 3
    stride: 1
    weight_filler {
      type: "gaussian"
      std: 0.01
    }
    bias_filler {
      type: "constant"
    }
  }
}
layer {
  name: "Sigmoid0"
  type: "Sigmoid"
  bottom: "conv0"
  top: "Sigmoid0"
}
layer {
  name: "pool0"
  type: "Pooling"
  bottom: "Sigmoid0"
  top: "pool0"
  pooling_param {
    pool: AVE
    kernel_size: 3
    stride: 2
  }
}
layer {
  name: "conv1"
  type: "Convolution"
  bottom: "pool0"
  top: "conv1"
  param {
    lr_mult: 1
  }
  param {
    lr_mult: 2
  }
  convolution_param {
    num_output: 216
    pad: 2
    kernel_size: 3
    stride: 1
    weight_filler {
      type: "gaussian"
      std: 0.01
    }
    bias_filler {
      type: "constant"
    }
  }
}
layer {
  name: "Sigmoid1"
  type: "Sigmoid"
  bottom: "conv1"
  top: "Sigmoid1"
}
layer {
  name: "pool1"
  type: "Pooling"
  bottom: "Sigmoid1"
  top: "pool1"
  pooling_param {
    pool: AVE
    kernel_size: 3
    stride: 2
  }
}
layer {
  name: "ip1"
  type: "InnerProduct"
  bottom: "pool1"
  top: "ip1"
  param {
    lr_mult: 1
  }
  param {
    lr_mult: 2
  }
  inner_product_param {
    num_output: 180
    weight_filler {
      type: "gaussian"
      std: 0.01
    }
    bias_filler {
      type: "constant"
    }
  }
}
layer {
  name: "relu1"
  type: "ReLU"
  bottom: "ip1"
  top: "ip1"
}
layer {
  name: "ip2"
  type: "InnerProduct"
  bottom: "ip1"
  top: "ip2"
  param {
    lr_mult: 1
  }
  param {
    lr_mult: 2
  }
  inner_product_param {
    num_output: 10
    weight_filler {
      type: "gaussian"
      std: 0.01
    }
    bias_filler {
      type: "constant"
    }
  }
}
layer {
  name: "relu2"
  type: "ReLU"
  bottom: "ip2"
  top: "ip2"
}
layer {
  name: "ip3"
  type: "InnerProduct"
  bottom: "ip2"
  top: "ip3"
  param {
    lr_mult: 1
  }
  param {
    lr_mult: 2
  }
  inner_product_param {
    num_output: 10
    weight_filler {
      type: "gaussian"
      std: 0.01
    }
    bias_filler {
      type: "constant"
    }
  }
}
layer {
  name: "accuracy"
  type: "Accuracy"
  bottom: "ip3"
  bottom: "label"
  top: "accuracy"
  include {
    phase: TEST
  }
}
layer {
  name: "loss"
  type: "SoftmaxWithLoss"
  bottom: "ip3"
  bottom: "label"
  top: "loss"
}
I0504 12:14:30.869531 28722 layer_factory.hpp:77] Creating layer cifar
I0504 12:14:30.869575 28722 db_lmdb.cpp:35] Opened lmdb examples/cifar10/cifar10_test_lmdb
I0504 12:14:30.869586 28722 net.cpp:86] Creating Layer cifar
I0504 12:14:30.869591 28722 net.cpp:382] cifar -> data
I0504 12:14:30.869598 28722 net.cpp:382] cifar -> label
I0504 12:14:30.869604 28722 data_transformer.cpp:25] Loading mean file from: examples/cifar10/mean.binaryproto
I0504 12:14:30.869750 28722 data_layer.cpp:45] output data size: 1000,3,32,32
I0504 12:14:30.891209 28722 net.cpp:124] Setting up cifar
I0504 12:14:30.891250 28722 net.cpp:131] Top shape: 1000 3 32 32 (3072000)
I0504 12:14:30.891255 28722 net.cpp:131] Top shape: 1000 (1000)
I0504 12:14:30.891258 28722 net.cpp:139] Memory required for data: 12292000
I0504 12:14:30.891263 28722 layer_factory.hpp:77] Creating layer label_cifar_1_split
I0504 12:14:30.891274 28722 net.cpp:86] Creating Layer label_cifar_1_split
I0504 12:14:30.891278 28722 net.cpp:408] label_cifar_1_split <- label
I0504 12:14:30.891283 28722 net.cpp:382] label_cifar_1_split -> label_cifar_1_split_0
I0504 12:14:30.891309 28722 net.cpp:382] label_cifar_1_split -> label_cifar_1_split_1
I0504 12:14:30.891414 28722 net.cpp:124] Setting up label_cifar_1_split
I0504 12:14:30.891422 28722 net.cpp:131] Top shape: 1000 (1000)
I0504 12:14:30.891425 28722 net.cpp:131] Top shape: 1000 (1000)
I0504 12:14:30.891428 28722 net.cpp:139] Memory required for data: 12300000
I0504 12:14:30.891432 28722 layer_factory.hpp:77] Creating layer conv0
I0504 12:14:30.891444 28722 net.cpp:86] Creating Layer conv0
I0504 12:14:30.891448 28722 net.cpp:408] conv0 <- data
I0504 12:14:30.891453 28722 net.cpp:382] conv0 -> conv0
I0504 12:14:30.893385 28722 net.cpp:124] Setting up conv0
I0504 12:14:30.893400 28722 net.cpp:131] Top shape: 1000 24 34 34 (27744000)
I0504 12:14:30.893404 28722 net.cpp:139] Memory required for data: 123276000
I0504 12:14:30.893414 28722 layer_factory.hpp:77] Creating layer Sigmoid0
I0504 12:14:30.893421 28722 net.cpp:86] Creating Layer Sigmoid0
I0504 12:14:30.893424 28722 net.cpp:408] Sigmoid0 <- conv0
I0504 12:14:30.893445 28722 net.cpp:382] Sigmoid0 -> Sigmoid0
I0504 12:14:30.893630 28722 net.cpp:124] Setting up Sigmoid0
I0504 12:14:30.893649 28722 net.cpp:131] Top shape: 1000 24 34 34 (27744000)
I0504 12:14:30.893653 28722 net.cpp:139] Memory required for data: 234252000
I0504 12:14:30.893656 28722 layer_factory.hpp:77] Creating layer pool0
I0504 12:14:30.893664 28722 net.cpp:86] Creating Layer pool0
I0504 12:14:30.893666 28722 net.cpp:408] pool0 <- Sigmoid0
I0504 12:14:30.893674 28722 net.cpp:382] pool0 -> pool0
I0504 12:14:30.893836 28722 net.cpp:124] Setting up pool0
I0504 12:14:30.893844 28722 net.cpp:131] Top shape: 1000 24 17 17 (6936000)
I0504 12:14:30.893848 28722 net.cpp:139] Memory required for data: 261996000
I0504 12:14:30.893851 28722 layer_factory.hpp:77] Creating layer conv1
I0504 12:14:30.893859 28722 net.cpp:86] Creating Layer conv1
I0504 12:14:30.893862 28722 net.cpp:408] conv1 <- pool0
I0504 12:14:30.893867 28722 net.cpp:382] conv1 -> conv1
I0504 12:14:30.896448 28722 net.cpp:124] Setting up conv1
I0504 12:14:30.896463 28722 net.cpp:131] Top shape: 1000 216 19 19 (77976000)
I0504 12:14:30.896466 28722 net.cpp:139] Memory required for data: 573900000
I0504 12:14:30.896474 28722 layer_factory.hpp:77] Creating layer Sigmoid1
I0504 12:14:30.896481 28722 net.cpp:86] Creating Layer Sigmoid1
I0504 12:14:30.896499 28722 net.cpp:408] Sigmoid1 <- conv1
I0504 12:14:30.896505 28722 net.cpp:382] Sigmoid1 -> Sigmoid1
I0504 12:14:30.896677 28722 net.cpp:124] Setting up Sigmoid1
I0504 12:14:30.896687 28722 net.cpp:131] Top shape: 1000 216 19 19 (77976000)
I0504 12:14:30.896689 28722 net.cpp:139] Memory required for data: 885804000
I0504 12:14:30.896692 28722 layer_factory.hpp:77] Creating layer pool1
I0504 12:14:30.896698 28722 net.cpp:86] Creating Layer pool1
I0504 12:14:30.896702 28722 net.cpp:408] pool1 <- Sigmoid1
I0504 12:14:30.896705 28722 net.cpp:382] pool1 -> pool1
I0504 12:14:30.897539 28722 net.cpp:124] Setting up pool1
I0504 12:14:30.897553 28722 net.cpp:131] Top shape: 1000 216 9 9 (17496000)
I0504 12:14:30.897557 28722 net.cpp:139] Memory required for data: 955788000
I0504 12:14:30.897560 28722 layer_factory.hpp:77] Creating layer ip1
I0504 12:14:30.897585 28722 net.cpp:86] Creating Layer ip1
I0504 12:14:30.897588 28722 net.cpp:408] ip1 <- pool1
I0504 12:14:30.897594 28722 net.cpp:382] ip1 -> ip1
I0504 12:14:30.983623 28722 net.cpp:124] Setting up ip1
I0504 12:14:30.983649 28722 net.cpp:131] Top shape: 1000 180 (180000)
I0504 12:14:30.983652 28722 net.cpp:139] Memory required for data: 956508000
I0504 12:14:30.983665 28722 layer_factory.hpp:77] Creating layer relu1
I0504 12:14:30.983683 28722 net.cpp:86] Creating Layer relu1
I0504 12:14:30.983688 28722 net.cpp:408] relu1 <- ip1
I0504 12:14:30.983695 28722 net.cpp:369] relu1 -> ip1 (in-place)
I0504 12:14:30.983959 28722 net.cpp:124] Setting up relu1
I0504 12:14:30.983968 28722 net.cpp:131] Top shape: 1000 180 (180000)
I0504 12:14:30.983971 28722 net.cpp:139] Memory required for data: 957228000
I0504 12:14:30.983974 28722 layer_factory.hpp:77] Creating layer ip2
I0504 12:14:30.983983 28722 net.cpp:86] Creating Layer ip2
I0504 12:14:30.983985 28722 net.cpp:408] ip2 <- ip1
I0504 12:14:30.983991 28722 net.cpp:382] ip2 -> ip2
I0504 12:14:30.984169 28722 net.cpp:124] Setting up ip2
I0504 12:14:30.984177 28722 net.cpp:131] Top shape: 1000 10 (10000)
I0504 12:14:30.984180 28722 net.cpp:139] Memory required for data: 957268000
I0504 12:14:30.984186 28722 layer_factory.hpp:77] Creating layer relu2
I0504 12:14:30.984190 28722 net.cpp:86] Creating Layer relu2
I0504 12:14:30.984194 28722 net.cpp:408] relu2 <- ip2
I0504 12:14:30.984200 28722 net.cpp:369] relu2 -> ip2 (in-place)
I0504 12:14:30.984357 28722 net.cpp:124] Setting up relu2
I0504 12:14:30.984365 28722 net.cpp:131] Top shape: 1000 10 (10000)
I0504 12:14:30.984369 28722 net.cpp:139] Memory required for data: 957308000
I0504 12:14:30.984371 28722 layer_factory.hpp:77] Creating layer ip3
I0504 12:14:30.984378 28722 net.cpp:86] Creating Layer ip3
I0504 12:14:30.984381 28722 net.cpp:408] ip3 <- ip2
I0504 12:14:30.984386 28722 net.cpp:382] ip3 -> ip3
I0504 12:14:30.984493 28722 net.cpp:124] Setting up ip3
I0504 12:14:30.984511 28722 net.cpp:131] Top shape: 1000 10 (10000)
I0504 12:14:30.984514 28722 net.cpp:139] Memory required for data: 957348000
I0504 12:14:30.984522 28722 layer_factory.hpp:77] Creating layer ip3_ip3_0_split
I0504 12:14:30.984529 28722 net.cpp:86] Creating Layer ip3_ip3_0_split
I0504 12:14:30.984530 28722 net.cpp:408] ip3_ip3_0_split <- ip3
I0504 12:14:30.984536 28722 net.cpp:382] ip3_ip3_0_split -> ip3_ip3_0_split_0
I0504 12:14:30.984541 28722 net.cpp:382] ip3_ip3_0_split -> ip3_ip3_0_split_1
I0504 12:14:30.984575 28722 net.cpp:124] Setting up ip3_ip3_0_split
I0504 12:14:30.984582 28722 net.cpp:131] Top shape: 1000 10 (10000)
I0504 12:14:30.984586 28722 net.cpp:131] Top shape: 1000 10 (10000)
I0504 12:14:30.984588 28722 net.cpp:139] Memory required for data: 957428000
I0504 12:14:30.984591 28722 layer_factory.hpp:77] Creating layer accuracy
I0504 12:14:30.984596 28722 net.cpp:86] Creating Layer accuracy
I0504 12:14:30.984599 28722 net.cpp:408] accuracy <- ip3_ip3_0_split_0
I0504 12:14:30.984603 28722 net.cpp:408] accuracy <- label_cifar_1_split_0
I0504 12:14:30.984609 28722 net.cpp:382] accuracy -> accuracy
…
