…
I0504 07:19:16.862001 18435 net.cpp:296] The NetState phase (0) differed from the phase (1) specified by a rule in layer cifar
I0504 07:19:16.862018 18435 net.cpp:296] The NetState phase (0) differed from the phase (1) specified by a rule in layer accuracy
I0504 07:19:16.862128 18435 net.cpp:53] Initializing net from parameters: 
name: "CIFAR"
state {
  phase: TRAIN
  level: 0
  stage: ""
}
layer {
  name: "cifar"
  type: "Data"
  top: "data"
  top: "label"
  include {
    phase: TRAIN
  }
  transform_param {
    mean_file: "examples/cifar10/mean.binaryproto"
  }
  data_param {
    source: "examples/cifar10/cifar10_train_lmdb"
    batch_size: 111
    backend: LMDB
  }
}
layer {
  name: "conv0"
  type: "Convolution"
  bottom: "data"
  top: "conv0"
  param {
    lr_mult: 1
  }
  param {
    lr_mult: 2
  }
  convolution_param {
    num_output: 24
    pad: 2
    kernel_size: 3
    stride: 1
    weight_filler {
      type: "gaussian"
      std: 0.01
    }
    bias_filler {
      type: "constant"
    }
  }
}
layer {
  name: "Sigmoid0"
  type: "Sigmoid"
  bottom: "conv0"
  top: "Sigmoid0"
}
layer {
  name: "pool0"
  type: "Pooling"
  bottom: "Sigmoid0"
  top: "pool0"
  pooling_param {
    pool: AVE
    kernel_size: 3
    stride: 2
  }
}
layer {
  name: "conv1"
  type: "Convolution"
  bottom: "pool0"
  top: "conv1"
  param {
    lr_mult: 1
  }
  param {
    lr_mult: 2
  }
  convolution_param {
    num_output: 24
    pad: 2
    kernel_size: 3
    stride: 1
    weight_filler {
      type: "gaussian"
      std: 0.01
    }
    bias_filler {
      type: "constant"
    }
  }
}
layer {
  name: "Sigmoid1"
  type: "Sigmoid"
  bottom: "conv1"
  top: "Sigmoid1"
}
layer {
  name: "pool1"
  type: "Pooling"
  bottom: "Sigmoid1"
  top: "pool1"
  pooling_param {
    pool: AVE
    kernel_size: 3
    stride: 2
  }
}
layer {
  name: "ip1"
  type: "InnerProduct"
  bottom: "pool1"
  top: "ip1"
  param {
    lr_mult: 1
  }
  param {
    lr_mult: 2
  }
  inner_product_param {
    num_output: 10
    weight_filler {
      type: "gaussian"
      std: 0.01
    }
    bias_filler {
      type: "constant"
    }
  }
}
layer {
  name: "relu1"
  type: "ReLU"
  bottom: "ip1"
  top: "ip1"
}
layer {
  name: "ip2"
  type: "InnerProduct"
  bottom: "ip1"
  top: "ip2"
  param {
    lr_mult: 1
  }
  param {
    lr_mult: 2
  }
  inner_product_param {
    num_output: 180
    weight_filler {
      type: "gaussian"
      std: 0.01
    }
    bias_filler {
      type: "constant"
    }
  }
}
layer {
  name: "relu2"
  type: "ReLU"
  bottom: "ip2"
  top: "ip2"
}
layer {
  name: "ip3"
  type: "InnerProduct"
  bottom: "ip2"
  top: "ip3"
  param {
    lr_mult: 1
  }
  param {
    lr_mult: 2
  }
  inner_product_param {
    num_output: 10
    weight_filler {
      type: "gaussian"
      std: 0.01
    }
    bias_filler {
      type: "constant"
    }
  }
}
layer {
  name: "loss"
  type: "SoftmaxWithLoss"
  bottom: "ip3"
  bottom: "label"
  top: "loss"
}
I0504 07:19:16.862220 18435 layer_factory.hpp:77] Creating layer cifar
I0504 07:19:16.862327 18435 db_lmdb.cpp:35] Opened lmdb examples/cifar10/cifar10_train_lmdb
I0504 07:19:16.862357 18435 net.cpp:86] Creating Layer cifar
I0504 07:19:16.862370 18435 net.cpp:382] cifar -> data
I0504 07:19:16.862395 18435 net.cpp:382] cifar -> label
I0504 07:19:16.862413 18435 data_transformer.cpp:25] Loading mean file from: examples/cifar10/mean.binaryproto
I0504 07:19:16.864509 18435 data_layer.cpp:45] output data size: 111,3,32,32
I0504 07:19:16.871212 18435 net.cpp:124] Setting up cifar
I0504 07:19:16.871227 18435 net.cpp:131] Top shape: 111 3 32 32 (340992)
I0504 07:19:16.871232 18435 net.cpp:131] Top shape: 111 (111)
I0504 07:19:16.871235 18435 net.cpp:139] Memory required for data: 1364412
I0504 07:19:16.871242 18435 layer_factory.hpp:77] Creating layer conv0
I0504 07:19:16.871266 18435 net.cpp:86] Creating Layer conv0
I0504 07:19:16.871271 18435 net.cpp:408] conv0 <- data
I0504 07:19:16.871281 18435 net.cpp:382] conv0 -> conv0
I0504 07:19:17.099941 18435 net.cpp:124] Setting up conv0
I0504 07:19:17.099967 18435 net.cpp:131] Top shape: 111 24 34 34 (3079584)
I0504 07:19:17.099972 18435 net.cpp:139] Memory required for data: 13682748
I0504 07:19:17.099984 18435 layer_factory.hpp:77] Creating layer Sigmoid0
I0504 07:19:17.099995 18435 net.cpp:86] Creating Layer Sigmoid0
I0504 07:19:17.099999 18435 net.cpp:408] Sigmoid0 <- conv0
I0504 07:19:17.100004 18435 net.cpp:382] Sigmoid0 -> Sigmoid0
I0504 07:19:17.100185 18435 net.cpp:124] Setting up Sigmoid0
I0504 07:19:17.100196 18435 net.cpp:131] Top shape: 111 24 34 34 (3079584)
I0504 07:19:17.100198 18435 net.cpp:139] Memory required for data: 26001084
I0504 07:19:17.100201 18435 layer_factory.hpp:77] Creating layer pool0
I0504 07:19:17.100209 18435 net.cpp:86] Creating Layer pool0
I0504 07:19:17.100213 18435 net.cpp:408] pool0 <- Sigmoid0
I0504 07:19:17.100216 18435 net.cpp:382] pool0 -> pool0
I0504 07:19:17.100939 18435 net.cpp:124] Setting up pool0
I0504 07:19:17.100951 18435 net.cpp:131] Top shape: 111 24 17 17 (769896)
I0504 07:19:17.100970 18435 net.cpp:139] Memory required for data: 29080668
I0504 07:19:17.100973 18435 layer_factory.hpp:77] Creating layer conv1
I0504 07:19:17.100999 18435 net.cpp:86] Creating Layer conv1
I0504 07:19:17.101003 18435 net.cpp:408] conv1 <- pool0
I0504 07:19:17.101009 18435 net.cpp:382] conv1 -> conv1
I0504 07:19:17.103622 18435 net.cpp:124] Setting up conv1
I0504 07:19:17.103636 18435 net.cpp:131] Top shape: 111 24 19 19 (961704)
I0504 07:19:17.103638 18435 net.cpp:139] Memory required for data: 32927484
I0504 07:19:17.103647 18435 layer_factory.hpp:77] Creating layer Sigmoid1
I0504 07:19:17.103653 18435 net.cpp:86] Creating Layer Sigmoid1
I0504 07:19:17.103655 18435 net.cpp:408] Sigmoid1 <- conv1
I0504 07:19:17.103662 18435 net.cpp:382] Sigmoid1 -> Sigmoid1
I0504 07:19:17.103847 18435 net.cpp:124] Setting up Sigmoid1
I0504 07:19:17.103857 18435 net.cpp:131] Top shape: 111 24 19 19 (961704)
I0504 07:19:17.103859 18435 net.cpp:139] Memory required for data: 36774300
I0504 07:19:17.103863 18435 layer_factory.hpp:77] Creating layer pool1
I0504 07:19:17.103868 18435 net.cpp:86] Creating Layer pool1
I0504 07:19:17.103870 18435 net.cpp:408] pool1 <- Sigmoid1
I0504 07:19:17.103875 18435 net.cpp:382] pool1 -> pool1
I0504 07:19:17.104068 18435 net.cpp:124] Setting up pool1
I0504 07:19:17.104077 18435 net.cpp:131] Top shape: 111 24 9 9 (215784)
I0504 07:19:17.104080 18435 net.cpp:139] Memory required for data: 37637436
I0504 07:19:17.104082 18435 layer_factory.hpp:77] Creating layer ip1
I0504 07:19:17.104091 18435 net.cpp:86] Creating Layer ip1
I0504 07:19:17.104094 18435 net.cpp:408] ip1 <- pool1
I0504 07:19:17.104099 18435 net.cpp:382] ip1 -> ip1
I0504 07:19:17.105537 18435 net.cpp:124] Setting up ip1
I0504 07:19:17.105550 18435 net.cpp:131] Top shape: 111 10 (1110)
I0504 07:19:17.105552 18435 net.cpp:139] Memory required for data: 37641876
I0504 07:19:17.105561 18435 layer_factory.hpp:77] Creating layer relu1
I0504 07:19:17.105567 18435 net.cpp:86] Creating Layer relu1
I0504 07:19:17.105571 18435 net.cpp:408] relu1 <- ip1
I0504 07:19:17.105574 18435 net.cpp:369] relu1 -> ip1 (in-place)
I0504 07:19:17.105751 18435 net.cpp:124] Setting up relu1
I0504 07:19:17.105761 18435 net.cpp:131] Top shape: 111 10 (1110)
I0504 07:19:17.105763 18435 net.cpp:139] Memory required for data: 37646316
I0504 07:19:17.105765 18435 layer_factory.hpp:77] Creating layer ip2
I0504 07:19:17.105772 18435 net.cpp:86] Creating Layer ip2
I0504 07:19:17.105774 18435 net.cpp:408] ip2 <- ip1
I0504 07:19:17.105792 18435 net.cpp:382] ip2 -> ip2
I0504 07:19:17.105993 18435 net.cpp:124] Setting up ip2
I0504 07:19:17.106001 18435 net.cpp:131] Top shape: 111 180 (19980)
I0504 07:19:17.106004 18435 net.cpp:139] Memory required for data: 37726236
I0504 07:19:17.106010 18435 layer_factory.hpp:77] Creating layer relu2
I0504 07:19:17.106016 18435 net.cpp:86] Creating Layer relu2
I0504 07:19:17.106019 18435 net.cpp:408] relu2 <- ip2
I0504 07:19:17.106022 18435 net.cpp:369] relu2 -> ip2 (in-place)
I0504 07:19:17.106772 18435 net.cpp:124] Setting up relu2
I0504 07:19:17.106783 18435 net.cpp:131] Top shape: 111 180 (19980)
I0504 07:19:17.106786 18435 net.cpp:139] Memory required for data: 37806156
I0504 07:19:17.106789 18435 layer_factory.hpp:77] Creating layer ip3
I0504 07:19:17.106796 18435 net.cpp:86] Creating Layer ip3
I0504 07:19:17.106798 18435 net.cpp:408] ip3 <- ip2
I0504 07:19:17.106804 18435 net.cpp:382] ip3 -> ip3
I0504 07:19:17.106967 18435 net.cpp:124] Setting up ip3
I0504 07:19:17.106976 18435 net.cpp:131] Top shape: 111 10 (1110)
I0504 07:19:17.106978 18435 net.cpp:139] Memory required for data: 37810596
I0504 07:19:17.106986 18435 layer_factory.hpp:77] Creating layer loss
I0504 07:19:17.106994 18435 net.cpp:86] Creating Layer loss
I0504 07:19:17.107013 18435 net.cpp:408] loss <- ip3
I0504 07:19:17.107019 18435 net.cpp:408] loss <- label
I0504 07:19:17.107028 18435 net.cpp:382] loss -> loss
I0504 07:19:17.107044 18435 layer_factory.hpp:77] Creating layer loss
…
I0504 07:19:17.107774 18435 solver.cpp:173] Creating test net (#0) specified by net file: ECE595/cifar/train_test/var_everything_tiny/cifar_train_test_77.prototxt
I0504 07:19:17.107800 18435 net.cpp:296] The NetState phase (1) differed from the phase (0) specified by a rule in layer cifar
I0504 07:19:17.107908 18435 net.cpp:53] Initializing net from parameters: 
name: "CIFAR"
state {
  phase: TEST
}
layer {
  name: "cifar"
  type: "Data"
  top: "data"
  top: "label"
  include {
    phase: TEST
  }
  transform_param {
    mean_file: "examples/cifar10/mean.binaryproto"
  }
  data_param {
    source: "examples/cifar10/cifar10_test_lmdb"
    batch_size: 1000
    backend: LMDB
  }
}
layer {
  name: "conv0"
  type: "Convolution"
  bottom: "data"
  top: "conv0"
  param {
    lr_mult: 1
  }
  param {
    lr_mult: 2
  }
  convolution_param {
    num_output: 24
    pad: 2
    kernel_size: 3
    stride: 1
    weight_filler {
      type: "gaussian"
      std: 0.01
    }
    bias_filler {
      type: "constant"
    }
  }
}
layer {
  name: "Sigmoid0"
  type: "Sigmoid"
  bottom: "conv0"
  top: "Sigmoid0"
}
layer {
  name: "pool0"
  type: "Pooling"
  bottom: "Sigmoid0"
  top: "pool0"
  pooling_param {
    pool: AVE
    kernel_size: 3
    stride: 2
  }
}
layer {
  name: "conv1"
  type: "Convolution"
  bottom: "pool0"
  top: "conv1"
  param {
    lr_mult: 1
  }
  param {
    lr_mult: 2
  }
  convolution_param {
    num_output: 24
    pad: 2
    kernel_size: 3
    stride: 1
    weight_filler {
      type: "gaussian"
      std: 0.01
    }
    bias_filler {
      type: "constant"
    }
  }
}
layer {
  name: "Sigmoid1"
  type: "Sigmoid"
  bottom: "conv1"
  top: "Sigmoid1"
}
layer {
  name: "pool1"
  type: "Pooling"
  bottom: "Sigmoid1"
  top: "pool1"
  pooling_param {
    pool: AVE
    kernel_size: 3
    stride: 2
  }
}
layer {
  name: "ip1"
  type: "InnerProduct"
  bottom: "pool1"
  top: "ip1"
  param {
    lr_mult: 1
  }
  param {
    lr_mult: 2
  }
  inner_product_param {
    num_output: 10
    weight_filler {
      type: "gaussian"
      std: 0.01
    }
    bias_filler {
      type: "constant"
    }
  }
}
layer {
  name: "relu1"
  type: "ReLU"
  bottom: "ip1"
  top: "ip1"
}
layer {
  name: "ip2"
  type: "InnerProduct"
  bottom: "ip1"
  top: "ip2"
  param {
    lr_mult: 1
  }
  param {
    lr_mult: 2
  }
  inner_product_param {
    num_output: 180
    weight_filler {
      type: "gaussian"
      std: 0.01
    }
    bias_filler {
      type: "constant"
    }
  }
}
layer {
  name: "relu2"
  type: "ReLU"
  bottom: "ip2"
  top: "ip2"
}
layer {
  name: "ip3"
  type: "InnerProduct"
  bottom: "ip2"
  top: "ip3"
  param {
    lr_mult: 1
  }
  param {
    lr_mult: 2
  }
  inner_product_param {
    num_output: 10
    weight_filler {
      type: "gaussian"
      std: 0.01
    }
    bias_filler {
      type: "constant"
    }
  }
}
layer {
  name: "accuracy"
  type: "Accuracy"
  bottom: "ip3"
  bottom: "label"
  top: "accuracy"
  include {
    phase: TEST
  }
}
layer {
  name: "loss"
  type: "SoftmaxWithLoss"
  bottom: "ip3"
  bottom: "label"
  top: "loss"
}
I0504 07:19:17.108019 18435 layer_factory.hpp:77] Creating layer cifar
I0504 07:19:17.108074 18435 db_lmdb.cpp:35] Opened lmdb examples/cifar10/cifar10_test_lmdb
I0504 07:19:17.108089 18435 net.cpp:86] Creating Layer cifar
I0504 07:19:17.108098 18435 net.cpp:382] cifar -> data
I0504 07:19:17.108109 18435 net.cpp:382] cifar -> label
I0504 07:19:17.108117 18435 data_transformer.cpp:25] Loading mean file from: examples/cifar10/mean.binaryproto
I0504 07:19:17.108311 18435 data_layer.cpp:45] output data size: 1000,3,32,32
I0504 07:19:17.130153 18435 net.cpp:124] Setting up cifar
I0504 07:19:17.130208 18435 net.cpp:131] Top shape: 1000 3 32 32 (3072000)
I0504 07:19:17.130230 18435 net.cpp:131] Top shape: 1000 (1000)
I0504 07:19:17.130234 18435 net.cpp:139] Memory required for data: 12292000
I0504 07:19:17.130239 18435 layer_factory.hpp:77] Creating layer label_cifar_1_split
I0504 07:19:17.130251 18435 net.cpp:86] Creating Layer label_cifar_1_split
I0504 07:19:17.130255 18435 net.cpp:408] label_cifar_1_split <- label
I0504 07:19:17.130262 18435 net.cpp:382] label_cifar_1_split -> label_cifar_1_split_0
I0504 07:19:17.130273 18435 net.cpp:382] label_cifar_1_split -> label_cifar_1_split_1
I0504 07:19:17.130375 18435 net.cpp:124] Setting up label_cifar_1_split
I0504 07:19:17.130383 18435 net.cpp:131] Top shape: 1000 (1000)
I0504 07:19:17.130386 18435 net.cpp:131] Top shape: 1000 (1000)
I0504 07:19:17.130389 18435 net.cpp:139] Memory required for data: 12300000
I0504 07:19:17.130394 18435 layer_factory.hpp:77] Creating layer conv0
I0504 07:19:17.130412 18435 net.cpp:86] Creating Layer conv0
I0504 07:19:17.130417 18435 net.cpp:408] conv0 <- data
I0504 07:19:17.130427 18435 net.cpp:382] conv0 -> conv0
I0504 07:19:17.132100 18435 net.cpp:124] Setting up conv0
I0504 07:19:17.132113 18435 net.cpp:131] Top shape: 1000 24 34 34 (27744000)
I0504 07:19:17.132117 18435 net.cpp:139] Memory required for data: 123276000
I0504 07:19:17.132125 18435 layer_factory.hpp:77] Creating layer Sigmoid0
I0504 07:19:17.132134 18435 net.cpp:86] Creating Layer Sigmoid0
I0504 07:19:17.132139 18435 net.cpp:408] Sigmoid0 <- conv0
I0504 07:19:17.132145 18435 net.cpp:382] Sigmoid0 -> Sigmoid0
I0504 07:19:17.132359 18435 net.cpp:124] Setting up Sigmoid0
I0504 07:19:17.132380 18435 net.cpp:131] Top shape: 1000 24 34 34 (27744000)
I0504 07:19:17.132385 18435 net.cpp:139] Memory required for data: 234252000
I0504 07:19:17.132388 18435 layer_factory.hpp:77] Creating layer pool0
I0504 07:19:17.132398 18435 net.cpp:86] Creating Layer pool0
I0504 07:19:17.132418 18435 net.cpp:408] pool0 <- Sigmoid0
I0504 07:19:17.132431 18435 net.cpp:382] pool0 -> pool0
I0504 07:19:17.132714 18435 net.cpp:124] Setting up pool0
I0504 07:19:17.132724 18435 net.cpp:131] Top shape: 1000 24 17 17 (6936000)
I0504 07:19:17.132740 18435 net.cpp:139] Memory required for data: 261996000
I0504 07:19:17.132742 18435 layer_factory.hpp:77] Creating layer conv1
I0504 07:19:17.132751 18435 net.cpp:86] Creating Layer conv1
I0504 07:19:17.132755 18435 net.cpp:408] conv1 <- pool0
I0504 07:19:17.132761 18435 net.cpp:382] conv1 -> conv1
I0504 07:19:17.135226 18435 net.cpp:124] Setting up conv1
I0504 07:19:17.135239 18435 net.cpp:131] Top shape: 1000 24 19 19 (8664000)
I0504 07:19:17.135258 18435 net.cpp:139] Memory required for data: 296652000
I0504 07:19:17.135267 18435 layer_factory.hpp:77] Creating layer Sigmoid1
I0504 07:19:17.135272 18435 net.cpp:86] Creating Layer Sigmoid1
I0504 07:19:17.135283 18435 net.cpp:408] Sigmoid1 <- conv1
I0504 07:19:17.135288 18435 net.cpp:382] Sigmoid1 -> Sigmoid1
I0504 07:19:17.135480 18435 net.cpp:124] Setting up Sigmoid1
I0504 07:19:17.135491 18435 net.cpp:131] Top shape: 1000 24 19 19 (8664000)
I0504 07:19:17.135494 18435 net.cpp:139] Memory required for data: 331308000
I0504 07:19:17.135499 18435 layer_factory.hpp:77] Creating layer pool1
I0504 07:19:17.135505 18435 net.cpp:86] Creating Layer pool1
I0504 07:19:17.135512 18435 net.cpp:408] pool1 <- Sigmoid1
I0504 07:19:17.135519 18435 net.cpp:382] pool1 -> pool1
I0504 07:19:17.136274 18435 net.cpp:124] Setting up pool1
I0504 07:19:17.136286 18435 net.cpp:131] Top shape: 1000 24 9 9 (1944000)
I0504 07:19:17.136304 18435 net.cpp:139] Memory required for data: 339084000
I0504 07:19:17.136307 18435 layer_factory.hpp:77] Creating layer ip1
I0504 07:19:17.136317 18435 net.cpp:86] Creating Layer ip1
I0504 07:19:17.136319 18435 net.cpp:408] ip1 <- pool1
I0504 07:19:17.136324 18435 net.cpp:382] ip1 -> ip1
I0504 07:19:17.137022 18435 net.cpp:124] Setting up ip1
I0504 07:19:17.137030 18435 net.cpp:131] Top shape: 1000 10 (10000)
I0504 07:19:17.137048 18435 net.cpp:139] Memory required for data: 339124000
I0504 07:19:17.137056 18435 layer_factory.hpp:77] Creating layer relu1
I0504 07:19:17.137064 18435 net.cpp:86] Creating Layer relu1
I0504 07:19:17.137068 18435 net.cpp:408] relu1 <- ip1
I0504 07:19:17.137073 18435 net.cpp:369] relu1 -> ip1 (in-place)
I0504 07:19:17.137291 18435 net.cpp:124] Setting up relu1
I0504 07:19:17.137300 18435 net.cpp:131] Top shape: 1000 10 (10000)
I0504 07:19:17.137302 18435 net.cpp:139] Memory required for data: 339164000
I0504 07:19:17.137305 18435 layer_factory.hpp:77] Creating layer ip2
I0504 07:19:17.137315 18435 net.cpp:86] Creating Layer ip2
I0504 07:19:17.137320 18435 net.cpp:408] ip2 <- ip1
I0504 07:19:17.137328 18435 net.cpp:382] ip2 -> ip2
I0504 07:19:17.137495 18435 net.cpp:124] Setting up ip2
I0504 07:19:17.137502 18435 net.cpp:131] Top shape: 1000 180 (180000)
I0504 07:19:17.137504 18435 net.cpp:139] Memory required for data: 339884000
I0504 07:19:17.137511 18435 layer_factory.hpp:77] Creating layer relu2
I0504 07:19:17.137518 18435 net.cpp:86] Creating Layer relu2
I0504 07:19:17.137522 18435 net.cpp:408] relu2 <- ip2
I0504 07:19:17.137529 18435 net.cpp:369] relu2 -> ip2 (in-place)
I0504 07:19:17.137691 18435 net.cpp:124] Setting up relu2
I0504 07:19:17.137698 18435 net.cpp:131] Top shape: 1000 180 (180000)
I0504 07:19:17.137701 18435 net.cpp:139] Memory required for data: 340604000
I0504 07:19:17.137706 18435 layer_factory.hpp:77] Creating layer ip3
I0504 07:19:17.137713 18435 net.cpp:86] Creating Layer ip3
I0504 07:19:17.137718 18435 net.cpp:408] ip3 <- ip2
I0504 07:19:17.137727 18435 net.cpp:382] ip3 -> ip3
I0504 07:19:17.137887 18435 net.cpp:124] Setting up ip3
I0504 07:19:17.137908 18435 net.cpp:131] Top shape: 1000 10 (10000)
I0504 07:19:17.137925 18435 net.cpp:139] Memory required for data: 340644000
I0504 07:19:17.137938 18435 layer_factory.hpp:77] Creating layer ip3_ip3_0_split
I0504 07:19:17.137945 18435 net.cpp:86] Creating Layer ip3_ip3_0_split
I0504 07:19:17.137950 18435 net.cpp:408] ip3_ip3_0_split <- ip3
I0504 07:19:17.137959 18435 net.cpp:382] ip3_ip3_0_split -> ip3_ip3_0_split_0
I0504 07:19:17.137966 18435 net.cpp:382] ip3_ip3_0_split -> ip3_ip3_0_split_1
I0504 07:19:17.138010 18435 net.cpp:124] Setting up ip3_ip3_0_split
I0504 07:19:17.138018 18435 net.cpp:131] Top shape: 1000 10 (10000)
I0504 07:19:17.138022 18435 net.cpp:131] Top shape: 1000 10 (10000)
I0504 07:19:17.138026 18435 net.cpp:139] Memory required for data: 340724000
I0504 07:19:17.138031 18435 layer_factory.hpp:77] Creating layer accuracy
I0504 07:19:17.138039 18435 net.cpp:86] Creating Layer accuracy
I0504 07:19:17.138044 18435 net.cpp:408] accuracy <- ip3_ip3_0_split_0
I0504 07:19:17.138051 18435 net.cpp:408] accuracy <- label_cifar_1_split_0
I0504 07:19:17.138057 18435 net.cpp:382] accuracy -> accuracy
…
