…
I0504 04:34:40.786182 12539 net.cpp:296] The NetState phase (0) differed from the phase (1) specified by a rule in layer cifar
I0504 04:34:40.786200 12539 net.cpp:296] The NetState phase (0) differed from the phase (1) specified by a rule in layer accuracy
I0504 04:34:40.786288 12539 net.cpp:53] Initializing net from parameters: 
name: "CIFAR"
state {
  phase: TRAIN
  level: 0
  stage: ""
}
layer {
  name: "cifar"
  type: "Data"
  top: "data"
  top: "label"
  include {
    phase: TRAIN
  }
  transform_param {
    mean_file: "examples/cifar10/mean.binaryproto"
  }
  data_param {
    source: "examples/cifar10/cifar10_train_lmdb"
    batch_size: 111
    backend: LMDB
  }
}
layer {
  name: "conv0"
  type: "Convolution"
  bottom: "data"
  top: "conv0"
  param {
    lr_mult: 1
  }
  param {
    lr_mult: 2
  }
  convolution_param {
    num_output: 216
    pad: 2
    kernel_size: 3
    stride: 1
    weight_filler {
      type: "gaussian"
      std: 0.01
    }
    bias_filler {
      type: "constant"
    }
  }
}
layer {
  name: "Sigmoid0"
  type: "Sigmoid"
  bottom: "conv0"
  top: "Sigmoid0"
}
layer {
  name: "pool0"
  type: "Pooling"
  bottom: "Sigmoid0"
  top: "pool0"
  pooling_param {
    pool: AVE
    kernel_size: 3
    stride: 2
  }
}
layer {
  name: "ip1"
  type: "InnerProduct"
  bottom: "pool0"
  top: "ip1"
  param {
    lr_mult: 1
  }
  param {
    lr_mult: 2
  }
  inner_product_param {
    num_output: 180
    weight_filler {
      type: "gaussian"
      std: 0.01
    }
    bias_filler {
      type: "constant"
    }
  }
}
layer {
  name: "relu1"
  type: "ReLU"
  bottom: "ip1"
  top: "ip1"
}
layer {
  name: "ip2"
  type: "InnerProduct"
  bottom: "ip1"
  top: "ip2"
  param {
    lr_mult: 1
  }
  param {
    lr_mult: 2
  }
  inner_product_param {
    num_output: 60
    weight_filler {
      type: "gaussian"
      std: 0.01
    }
    bias_filler {
      type: "constant"
    }
  }
}
layer {
  name: "relu2"
  type: "ReLU"
  bottom: "ip2"
  top: "ip2"
}
layer {
  name: "ip3"
  type: "InnerProduct"
  bottom: "ip2"
  top: "ip3"
  param {
    lr_mult: 1
  }
  param {
    lr_mult: 2
  }
  inner_product_param {
    num_output: 10
    weight_filler {
      type: "gaussian"
      std: 0.01
    }
    bias_filler {
      type: "constant"
    }
  }
}
layer {
  name: "loss"
  type: "SoftmaxWithLoss"
  bottom: "ip3"
  bottom: "label"
  top: "loss"
}
I0504 04:34:40.786356 12539 layer_factory.hpp:77] Creating layer cifar
I0504 04:34:40.786458 12539 db_lmdb.cpp:35] Opened lmdb examples/cifar10/cifar10_train_lmdb
I0504 04:34:40.786485 12539 net.cpp:86] Creating Layer cifar
I0504 04:34:40.786492 12539 net.cpp:382] cifar -> data
I0504 04:34:40.786515 12539 net.cpp:382] cifar -> label
I0504 04:34:40.786527 12539 data_transformer.cpp:25] Loading mean file from: examples/cifar10/mean.binaryproto
I0504 04:34:40.788620 12539 data_layer.cpp:45] output data size: 111,3,32,32
I0504 04:34:40.796499 12539 net.cpp:124] Setting up cifar
I0504 04:34:40.796517 12539 net.cpp:131] Top shape: 111 3 32 32 (340992)
I0504 04:34:40.796525 12539 net.cpp:131] Top shape: 111 (111)
I0504 04:34:40.796527 12539 net.cpp:139] Memory required for data: 1364412
I0504 04:34:40.796536 12539 layer_factory.hpp:77] Creating layer conv0
I0504 04:34:40.796555 12539 net.cpp:86] Creating Layer conv0
I0504 04:34:40.796561 12539 net.cpp:408] conv0 <- data
I0504 04:34:40.796572 12539 net.cpp:382] conv0 -> conv0
I0504 04:34:41.089514 12539 net.cpp:124] Setting up conv0
I0504 04:34:41.089566 12539 net.cpp:131] Top shape: 111 216 34 34 (27716256)
I0504 04:34:41.089571 12539 net.cpp:139] Memory required for data: 112229436
I0504 04:34:41.089589 12539 layer_factory.hpp:77] Creating layer Sigmoid0
I0504 04:34:41.089606 12539 net.cpp:86] Creating Layer Sigmoid0
I0504 04:34:41.089610 12539 net.cpp:408] Sigmoid0 <- conv0
I0504 04:34:41.089617 12539 net.cpp:382] Sigmoid0 -> Sigmoid0
I0504 04:34:41.089856 12539 net.cpp:124] Setting up Sigmoid0
I0504 04:34:41.089869 12539 net.cpp:131] Top shape: 111 216 34 34 (27716256)
I0504 04:34:41.089874 12539 net.cpp:139] Memory required for data: 223094460
I0504 04:34:41.089877 12539 layer_factory.hpp:77] Creating layer pool0
I0504 04:34:41.089884 12539 net.cpp:86] Creating Layer pool0
I0504 04:34:41.089889 12539 net.cpp:408] pool0 <- Sigmoid0
I0504 04:34:41.089895 12539 net.cpp:382] pool0 -> pool0
I0504 04:34:41.090801 12539 net.cpp:124] Setting up pool0
I0504 04:34:41.090816 12539 net.cpp:131] Top shape: 111 216 17 17 (6929064)
I0504 04:34:41.090821 12539 net.cpp:139] Memory required for data: 250810716
I0504 04:34:41.090824 12539 layer_factory.hpp:77] Creating layer ip1
I0504 04:34:41.090837 12539 net.cpp:86] Creating Layer ip1
I0504 04:34:41.090842 12539 net.cpp:408] ip1 <- pool0
I0504 04:34:41.090849 12539 net.cpp:382] ip1 -> ip1
I0504 04:34:41.474313 12539 net.cpp:124] Setting up ip1
I0504 04:34:41.474354 12539 net.cpp:131] Top shape: 111 180 (19980)
I0504 04:34:41.474359 12539 net.cpp:139] Memory required for data: 250890636
I0504 04:34:41.474371 12539 layer_factory.hpp:77] Creating layer relu1
I0504 04:34:41.474381 12539 net.cpp:86] Creating Layer relu1
I0504 04:34:41.474385 12539 net.cpp:408] relu1 <- ip1
I0504 04:34:41.474391 12539 net.cpp:369] relu1 -> ip1 (in-place)
I0504 04:34:41.474644 12539 net.cpp:124] Setting up relu1
I0504 04:34:41.474654 12539 net.cpp:131] Top shape: 111 180 (19980)
I0504 04:34:41.474658 12539 net.cpp:139] Memory required for data: 250970556
I0504 04:34:41.474660 12539 layer_factory.hpp:77] Creating layer ip2
I0504 04:34:41.474669 12539 net.cpp:86] Creating Layer ip2
I0504 04:34:41.474673 12539 net.cpp:408] ip2 <- ip1
I0504 04:34:41.474678 12539 net.cpp:382] ip2 -> ip2
I0504 04:34:41.475111 12539 net.cpp:124] Setting up ip2
I0504 04:34:41.475118 12539 net.cpp:131] Top shape: 111 60 (6660)
I0504 04:34:41.475121 12539 net.cpp:139] Memory required for data: 250997196
I0504 04:34:41.475128 12539 layer_factory.hpp:77] Creating layer relu2
I0504 04:34:41.475136 12539 net.cpp:86] Creating Layer relu2
I0504 04:34:41.475138 12539 net.cpp:408] relu2 <- ip2
I0504 04:34:41.475142 12539 net.cpp:369] relu2 -> ip2 (in-place)
I0504 04:34:41.475356 12539 net.cpp:124] Setting up relu2
I0504 04:34:41.475365 12539 net.cpp:131] Top shape: 111 60 (6660)
I0504 04:34:41.475369 12539 net.cpp:139] Memory required for data: 251023836
I0504 04:34:41.475373 12539 layer_factory.hpp:77] Creating layer ip3
I0504 04:34:41.475383 12539 net.cpp:86] Creating Layer ip3
I0504 04:34:41.475385 12539 net.cpp:408] ip3 <- ip2
I0504 04:34:41.475391 12539 net.cpp:382] ip3 -> ip3
I0504 04:34:41.476543 12539 net.cpp:124] Setting up ip3
I0504 04:34:41.476555 12539 net.cpp:131] Top shape: 111 10 (1110)
I0504 04:34:41.476574 12539 net.cpp:139] Memory required for data: 251028276
I0504 04:34:41.476580 12539 layer_factory.hpp:77] Creating layer loss
I0504 04:34:41.476588 12539 net.cpp:86] Creating Layer loss
I0504 04:34:41.476593 12539 net.cpp:408] loss <- ip3
I0504 04:34:41.476596 12539 net.cpp:408] loss <- label
I0504 04:34:41.476603 12539 net.cpp:382] loss -> loss
I0504 04:34:41.476640 12539 layer_factory.hpp:77] Creating layer loss
…
I0504 04:34:41.477390 12539 solver.cpp:173] Creating test net (#0) specified by net file: ECE595/cifar/train_test/var_everything_tiny/cifar_train_test_58.prototxt
I0504 04:34:41.477466 12539 net.cpp:296] The NetState phase (1) differed from the phase (0) specified by a rule in layer cifar
I0504 04:34:41.477589 12539 net.cpp:53] Initializing net from parameters: 
name: "CIFAR"
state {
  phase: TEST
}
layer {
  name: "cifar"
  type: "Data"
  top: "data"
  top: "label"
  include {
    phase: TEST
  }
  transform_param {
    mean_file: "examples/cifar10/mean.binaryproto"
  }
  data_param {
    source: "examples/cifar10/cifar10_test_lmdb"
    batch_size: 1000
    backend: LMDB
  }
}
layer {
  name: "conv0"
  type: "Convolution"
  bottom: "data"
  top: "conv0"
  param {
    lr_mult: 1
  }
  param {
    lr_mult: 2
  }
  convolution_param {
    num_output: 216
    pad: 2
    kernel_size: 3
    stride: 1
    weight_filler {
      type: "gaussian"
      std: 0.01
    }
    bias_filler {
      type: "constant"
    }
  }
}
layer {
  name: "Sigmoid0"
  type: "Sigmoid"
  bottom: "conv0"
  top: "Sigmoid0"
}
layer {
  name: "pool0"
  type: "Pooling"
  bottom: "Sigmoid0"
  top: "pool0"
  pooling_param {
    pool: AVE
    kernel_size: 3
    stride: 2
  }
}
layer {
  name: "ip1"
  type: "InnerProduct"
  bottom: "pool0"
  top: "ip1"
  param {
    lr_mult: 1
  }
  param {
    lr_mult: 2
  }
  inner_product_param {
    num_output: 180
    weight_filler {
      type: "gaussian"
      std: 0.01
    }
    bias_filler {
      type: "constant"
    }
  }
}
layer {
  name: "relu1"
  type: "ReLU"
  bottom: "ip1"
  top: "ip1"
}
layer {
  name: "ip2"
  type: "InnerProduct"
  bottom: "ip1"
  top: "ip2"
  param {
    lr_mult: 1
  }
  param {
    lr_mult: 2
  }
  inner_product_param {
    num_output: 60
    weight_filler {
      type: "gaussian"
      std: 0.01
    }
    bias_filler {
      type: "constant"
    }
  }
}
layer {
  name: "relu2"
  type: "ReLU"
  bottom: "ip2"
  top: "ip2"
}
layer {
  name: "ip3"
  type: "InnerProduct"
  bottom: "ip2"
  top: "ip3"
  param {
    lr_mult: 1
  }
  param {
    lr_mult: 2
  }
  inner_product_param {
    num_output: 10
    weight_filler {
      type: "gaussian"
      std: 0.01
    }
    bias_filler {
      type: "constant"
    }
  }
}
layer {
  name: "accuracy"
  type: "Accuracy"
  bottom: "ip3"
  bottom: "label"
  top: "accuracy"
  include {
    phase: TEST
  }
}
layer {
  name: "loss"
  type: "SoftmaxWithLoss"
  bottom: "ip3"
  bottom: "label"
  top: "loss"
}
I0504 04:34:41.477663 12539 layer_factory.hpp:77] Creating layer cifar
I0504 04:34:41.477712 12539 db_lmdb.cpp:35] Opened lmdb examples/cifar10/cifar10_test_lmdb
I0504 04:34:41.477726 12539 net.cpp:86] Creating Layer cifar
I0504 04:34:41.477731 12539 net.cpp:382] cifar -> data
I0504 04:34:41.477740 12539 net.cpp:382] cifar -> label
I0504 04:34:41.477746 12539 data_transformer.cpp:25] Loading mean file from: examples/cifar10/mean.binaryproto
I0504 04:34:41.477919 12539 data_layer.cpp:45] output data size: 1000,3,32,32
I0504 04:34:41.501042 12539 net.cpp:124] Setting up cifar
I0504 04:34:41.501085 12539 net.cpp:131] Top shape: 1000 3 32 32 (3072000)
I0504 04:34:41.501091 12539 net.cpp:131] Top shape: 1000 (1000)
I0504 04:34:41.501093 12539 net.cpp:139] Memory required for data: 12292000
I0504 04:34:41.501098 12539 layer_factory.hpp:77] Creating layer label_cifar_1_split
I0504 04:34:41.501148 12539 net.cpp:86] Creating Layer label_cifar_1_split
I0504 04:34:41.501153 12539 net.cpp:408] label_cifar_1_split <- label
I0504 04:34:41.501161 12539 net.cpp:382] label_cifar_1_split -> label_cifar_1_split_0
I0504 04:34:41.501171 12539 net.cpp:382] label_cifar_1_split -> label_cifar_1_split_1
I0504 04:34:41.501286 12539 net.cpp:124] Setting up label_cifar_1_split
I0504 04:34:41.501296 12539 net.cpp:131] Top shape: 1000 (1000)
I0504 04:34:41.501299 12539 net.cpp:131] Top shape: 1000 (1000)
I0504 04:34:41.501302 12539 net.cpp:139] Memory required for data: 12300000
I0504 04:34:41.501305 12539 layer_factory.hpp:77] Creating layer conv0
I0504 04:34:41.501319 12539 net.cpp:86] Creating Layer conv0
I0504 04:34:41.501323 12539 net.cpp:408] conv0 <- data
I0504 04:34:41.501328 12539 net.cpp:382] conv0 -> conv0
I0504 04:34:41.503804 12539 net.cpp:124] Setting up conv0
I0504 04:34:41.503834 12539 net.cpp:131] Top shape: 1000 216 34 34 (249696000)
I0504 04:34:41.503836 12539 net.cpp:139] Memory required for data: 1011084000
I0504 04:34:41.503847 12539 layer_factory.hpp:77] Creating layer Sigmoid0
I0504 04:34:41.503854 12539 net.cpp:86] Creating Layer Sigmoid0
I0504 04:34:41.503859 12539 net.cpp:408] Sigmoid0 <- conv0
I0504 04:34:41.503865 12539 net.cpp:382] Sigmoid0 -> Sigmoid0
I0504 04:34:41.505728 12539 net.cpp:124] Setting up Sigmoid0
I0504 04:34:41.505743 12539 net.cpp:131] Top shape: 1000 216 34 34 (249696000)
I0504 04:34:41.505762 12539 net.cpp:139] Memory required for data: 2009868000
I0504 04:34:41.505765 12539 layer_factory.hpp:77] Creating layer pool0
I0504 04:34:41.505775 12539 net.cpp:86] Creating Layer pool0
I0504 04:34:41.505779 12539 net.cpp:408] pool0 <- Sigmoid0
I0504 04:34:41.505784 12539 net.cpp:382] pool0 -> pool0
I0504 04:34:41.506011 12539 net.cpp:124] Setting up pool0
I0504 04:34:41.506021 12539 net.cpp:131] Top shape: 1000 216 17 17 (62424000)
I0504 04:34:41.506023 12539 net.cpp:139] Memory required for data: 2259564000
I0504 04:34:41.506026 12539 layer_factory.hpp:77] Creating layer ip1
I0504 04:34:41.506034 12539 net.cpp:86] Creating Layer ip1
I0504 04:34:41.506038 12539 net.cpp:408] ip1 <- pool0
I0504 04:34:41.506044 12539 net.cpp:382] ip1 -> ip1
I0504 04:34:41.823889 12539 net.cpp:124] Setting up ip1
I0504 04:34:41.823932 12539 net.cpp:131] Top shape: 1000 180 (180000)
I0504 04:34:41.823936 12539 net.cpp:139] Memory required for data: 2260284000
I0504 04:34:41.823948 12539 layer_factory.hpp:77] Creating layer relu1
I0504 04:34:41.823957 12539 net.cpp:86] Creating Layer relu1
I0504 04:34:41.823961 12539 net.cpp:408] relu1 <- ip1
I0504 04:34:41.823966 12539 net.cpp:369] relu1 -> ip1 (in-place)
I0504 04:34:41.824208 12539 net.cpp:124] Setting up relu1
I0504 04:34:41.824216 12539 net.cpp:131] Top shape: 1000 180 (180000)
I0504 04:34:41.824219 12539 net.cpp:139] Memory required for data: 2261004000
I0504 04:34:41.824223 12539 layer_factory.hpp:77] Creating layer ip2
I0504 04:34:41.824231 12539 net.cpp:86] Creating Layer ip2
I0504 04:34:41.824234 12539 net.cpp:408] ip2 <- ip1
I0504 04:34:41.824239 12539 net.cpp:382] ip2 -> ip2
I0504 04:34:41.824676 12539 net.cpp:124] Setting up ip2
I0504 04:34:41.824684 12539 net.cpp:131] Top shape: 1000 60 (60000)
I0504 04:34:41.824702 12539 net.cpp:139] Memory required for data: 2261244000
I0504 04:34:41.824710 12539 layer_factory.hpp:77] Creating layer relu2
I0504 04:34:41.824717 12539 net.cpp:86] Creating Layer relu2
I0504 04:34:41.824719 12539 net.cpp:408] relu2 <- ip2
I0504 04:34:41.824724 12539 net.cpp:369] relu2 -> ip2 (in-place)
I0504 04:34:41.824919 12539 net.cpp:124] Setting up relu2
I0504 04:34:41.824929 12539 net.cpp:131] Top shape: 1000 60 (60000)
I0504 04:34:41.824932 12539 net.cpp:139] Memory required for data: 2261484000
I0504 04:34:41.824935 12539 layer_factory.hpp:77] Creating layer ip3
I0504 04:34:41.824942 12539 net.cpp:86] Creating Layer ip3
I0504 04:34:41.824945 12539 net.cpp:408] ip3 <- ip2
I0504 04:34:41.824950 12539 net.cpp:382] ip3 -> ip3
I0504 04:34:41.825078 12539 net.cpp:124] Setting up ip3
I0504 04:34:41.825085 12539 net.cpp:131] Top shape: 1000 10 (10000)
I0504 04:34:41.825103 12539 net.cpp:139] Memory required for data: 2261524000
I0504 04:34:41.825108 12539 layer_factory.hpp:77] Creating layer ip3_ip3_0_split
I0504 04:34:41.825114 12539 net.cpp:86] Creating Layer ip3_ip3_0_split
I0504 04:34:41.825116 12539 net.cpp:408] ip3_ip3_0_split <- ip3
I0504 04:34:41.825121 12539 net.cpp:382] ip3_ip3_0_split -> ip3_ip3_0_split_0
I0504 04:34:41.825127 12539 net.cpp:382] ip3_ip3_0_split -> ip3_ip3_0_split_1
I0504 04:34:41.825177 12539 net.cpp:124] Setting up ip3_ip3_0_split
I0504 04:34:41.825184 12539 net.cpp:131] Top shape: 1000 10 (10000)
I0504 04:34:41.825188 12539 net.cpp:131] Top shape: 1000 10 (10000)
I0504 04:34:41.825191 12539 net.cpp:139] Memory required for data: 2261604000
I0504 04:34:41.825193 12539 layer_factory.hpp:77] Creating layer accuracy
I0504 04:34:41.825201 12539 net.cpp:86] Creating Layer accuracy
I0504 04:34:41.825203 12539 net.cpp:408] accuracy <- ip3_ip3_0_split_0
I0504 04:34:41.825207 12539 net.cpp:408] accuracy <- label_cifar_1_split_0
I0504 04:34:41.825212 12539 net.cpp:382] accuracy -> accuracy
…
