…
I0504 10:52:02.667171 26080 net.cpp:296] The NetState phase (0) differed from the phase (1) specified by a rule in layer cifar
I0504 10:52:02.667191 26080 net.cpp:296] The NetState phase (0) differed from the phase (1) specified by a rule in layer accuracy
I0504 10:52:02.667322 26080 net.cpp:53] Initializing net from parameters: 
name: "CIFAR"
state {
  phase: TRAIN
  level: 0
  stage: ""
}
layer {
  name: "cifar"
  type: "Data"
  top: "data"
  top: "label"
  include {
    phase: TRAIN
  }
  transform_param {
    mean_file: "examples/cifar10/mean.binaryproto"
  }
  data_param {
    source: "examples/cifar10/cifar10_train_lmdb"
    batch_size: 111
    backend: LMDB
  }
}
layer {
  name: "conv0"
  type: "Convolution"
  bottom: "data"
  top: "conv0"
  param {
    lr_mult: 1
  }
  param {
    lr_mult: 2
  }
  convolution_param {
    num_output: 24
    pad: 2
    kernel_size: 5
    stride: 1
    weight_filler {
      type: "gaussian"
      std: 0.01
    }
    bias_filler {
      type: "constant"
    }
  }
}
layer {
  name: "Sigmoid0"
  type: "Sigmoid"
  bottom: "conv0"
  top: "Sigmoid0"
}
layer {
  name: "pool0"
  type: "Pooling"
  bottom: "Sigmoid0"
  top: "pool0"
  pooling_param {
    pool: AVE
    kernel_size: 3
    stride: 2
  }
}
layer {
  name: "conv1"
  type: "Convolution"
  bottom: "pool0"
  top: "conv1"
  param {
    lr_mult: 1
  }
  param {
    lr_mult: 2
  }
  convolution_param {
    num_output: 72
    pad: 2
    kernel_size: 5
    stride: 1
    weight_filler {
      type: "gaussian"
      std: 0.01
    }
    bias_filler {
      type: "constant"
    }
  }
}
layer {
  name: "Sigmoid1"
  type: "Sigmoid"
  bottom: "conv1"
  top: "Sigmoid1"
}
layer {
  name: "pool1"
  type: "Pooling"
  bottom: "Sigmoid1"
  top: "pool1"
  pooling_param {
    pool: AVE
    kernel_size: 3
    stride: 2
  }
}
layer {
  name: "ip1"
  type: "InnerProduct"
  bottom: "pool1"
  top: "ip1"
  param {
    lr_mult: 1
  }
  param {
    lr_mult: 2
  }
  inner_product_param {
    num_output: 60
    weight_filler {
      type: "gaussian"
      std: 0.01
    }
    bias_filler {
      type: "constant"
    }
  }
}
layer {
  name: "relu1"
  type: "ReLU"
  bottom: "ip1"
  top: "ip1"
}
layer {
  name: "ip2"
  type: "InnerProduct"
  bottom: "ip1"
  top: "ip2"
  param {
    lr_mult: 1
  }
  param {
    lr_mult: 2
  }
  inner_product_param {
    num_output: 180
    weight_filler {
      type: "gaussian"
      std: 0.01
    }
    bias_filler {
      type: "constant"
    }
  }
}
layer {
  name: "relu2"
  type: "ReLU"
  bottom: "ip2"
  top: "ip2"
}
layer {
  name: "ip3"
  type: "InnerProduct"
  bottom: "ip2"
  top: "ip3"
  param {
    lr_mult: 1
  }
  param {
    lr_mult: 2
  }
  inner_product_param {
    num_output: 10
    weight_filler {
      type: "gaussian"
      std: 0.01
    }
    bias_filler {
      type: "constant"
    }
  }
}
layer {
  name: "loss"
  type: "SoftmaxWithLoss"
  bottom: "ip3"
  bottom: "label"
  top: "loss"
}
I0504 10:52:02.667435 26080 layer_factory.hpp:77] Creating layer cifar
I0504 10:52:02.667567 26080 db_lmdb.cpp:35] Opened lmdb examples/cifar10/cifar10_train_lmdb
I0504 10:52:02.667604 26080 net.cpp:86] Creating Layer cifar
I0504 10:52:02.667618 26080 net.cpp:382] cifar -> data
I0504 10:52:02.667646 26080 net.cpp:382] cifar -> label
I0504 10:52:02.667665 26080 data_transformer.cpp:25] Loading mean file from: examples/cifar10/mean.binaryproto
I0504 10:52:02.670068 26080 data_layer.cpp:45] output data size: 111,3,32,32
I0504 10:52:02.678071 26080 net.cpp:124] Setting up cifar
I0504 10:52:02.678089 26080 net.cpp:131] Top shape: 111 3 32 32 (340992)
I0504 10:52:02.678097 26080 net.cpp:131] Top shape: 111 (111)
I0504 10:52:02.678100 26080 net.cpp:139] Memory required for data: 1364412
I0504 10:52:02.678108 26080 layer_factory.hpp:77] Creating layer conv0
I0504 10:52:02.678125 26080 net.cpp:86] Creating Layer conv0
I0504 10:52:02.678133 26080 net.cpp:408] conv0 <- data
I0504 10:52:02.678153 26080 net.cpp:382] conv0 -> conv0
I0504 10:52:02.958885 26080 net.cpp:124] Setting up conv0
I0504 10:52:02.958912 26080 net.cpp:131] Top shape: 111 24 32 32 (2727936)
I0504 10:52:02.958916 26080 net.cpp:139] Memory required for data: 12276156
I0504 10:52:02.958930 26080 layer_factory.hpp:77] Creating layer Sigmoid0
I0504 10:52:02.958942 26080 net.cpp:86] Creating Layer Sigmoid0
I0504 10:52:02.958946 26080 net.cpp:408] Sigmoid0 <- conv0
I0504 10:52:02.958951 26080 net.cpp:382] Sigmoid0 -> Sigmoid0
I0504 10:52:02.959141 26080 net.cpp:124] Setting up Sigmoid0
I0504 10:52:02.959151 26080 net.cpp:131] Top shape: 111 24 32 32 (2727936)
I0504 10:52:02.959156 26080 net.cpp:139] Memory required for data: 23187900
I0504 10:52:02.959161 26080 layer_factory.hpp:77] Creating layer pool0
I0504 10:52:02.959169 26080 net.cpp:86] Creating Layer pool0
I0504 10:52:02.959174 26080 net.cpp:408] pool0 <- Sigmoid0
I0504 10:52:02.959182 26080 net.cpp:382] pool0 -> pool0
I0504 10:52:02.959920 26080 net.cpp:124] Setting up pool0
I0504 10:52:02.959933 26080 net.cpp:131] Top shape: 111 24 16 16 (681984)
I0504 10:52:02.959938 26080 net.cpp:139] Memory required for data: 25915836
I0504 10:52:02.959940 26080 layer_factory.hpp:77] Creating layer conv1
I0504 10:52:02.959952 26080 net.cpp:86] Creating Layer conv1
I0504 10:52:02.959955 26080 net.cpp:408] conv1 <- pool0
I0504 10:52:02.959961 26080 net.cpp:382] conv1 -> conv1
I0504 10:52:02.963584 26080 net.cpp:124] Setting up conv1
I0504 10:52:02.963598 26080 net.cpp:131] Top shape: 111 72 16 16 (2045952)
I0504 10:52:02.963600 26080 net.cpp:139] Memory required for data: 34099644
I0504 10:52:02.963608 26080 layer_factory.hpp:77] Creating layer Sigmoid1
I0504 10:52:02.963615 26080 net.cpp:86] Creating Layer Sigmoid1
I0504 10:52:02.963618 26080 net.cpp:408] Sigmoid1 <- conv1
I0504 10:52:02.963623 26080 net.cpp:382] Sigmoid1 -> Sigmoid1
I0504 10:52:02.963848 26080 net.cpp:124] Setting up Sigmoid1
I0504 10:52:02.963860 26080 net.cpp:131] Top shape: 111 72 16 16 (2045952)
I0504 10:52:02.963862 26080 net.cpp:139] Memory required for data: 42283452
I0504 10:52:02.963867 26080 layer_factory.hpp:77] Creating layer pool1
I0504 10:52:02.963876 26080 net.cpp:86] Creating Layer pool1
I0504 10:52:02.963881 26080 net.cpp:408] pool1 <- Sigmoid1
I0504 10:52:02.963889 26080 net.cpp:382] pool1 -> pool1
I0504 10:52:02.964097 26080 net.cpp:124] Setting up pool1
I0504 10:52:02.964105 26080 net.cpp:131] Top shape: 111 72 8 8 (511488)
I0504 10:52:02.964108 26080 net.cpp:139] Memory required for data: 44329404
I0504 10:52:02.964112 26080 layer_factory.hpp:77] Creating layer ip1
I0504 10:52:02.964124 26080 net.cpp:86] Creating Layer ip1
I0504 10:52:02.964128 26080 net.cpp:408] ip1 <- pool1
I0504 10:52:02.964136 26080 net.cpp:382] ip1 -> ip1
I0504 10:52:02.971871 26080 net.cpp:124] Setting up ip1
I0504 10:52:02.971882 26080 net.cpp:131] Top shape: 111 60 (6660)
I0504 10:52:02.971885 26080 net.cpp:139] Memory required for data: 44356044
I0504 10:52:02.971894 26080 layer_factory.hpp:77] Creating layer relu1
I0504 10:52:02.971901 26080 net.cpp:86] Creating Layer relu1
I0504 10:52:02.971904 26080 net.cpp:408] relu1 <- ip1
I0504 10:52:02.971909 26080 net.cpp:369] relu1 -> ip1 (in-place)
I0504 10:52:02.972092 26080 net.cpp:124] Setting up relu1
I0504 10:52:02.972101 26080 net.cpp:131] Top shape: 111 60 (6660)
I0504 10:52:02.972105 26080 net.cpp:139] Memory required for data: 44382684
I0504 10:52:02.972108 26080 layer_factory.hpp:77] Creating layer ip2
I0504 10:52:02.972117 26080 net.cpp:86] Creating Layer ip2
I0504 10:52:02.972122 26080 net.cpp:408] ip2 <- ip1
I0504 10:52:02.972148 26080 net.cpp:382] ip2 -> ip2
I0504 10:52:02.973284 26080 net.cpp:124] Setting up ip2
I0504 10:52:02.973295 26080 net.cpp:131] Top shape: 111 180 (19980)
I0504 10:52:02.973314 26080 net.cpp:139] Memory required for data: 44462604
I0504 10:52:02.973320 26080 layer_factory.hpp:77] Creating layer relu2
I0504 10:52:02.973325 26080 net.cpp:86] Creating Layer relu2
I0504 10:52:02.973327 26080 net.cpp:408] relu2 <- ip2
I0504 10:52:02.973331 26080 net.cpp:369] relu2 -> ip2 (in-place)
I0504 10:52:02.974076 26080 net.cpp:124] Setting up relu2
I0504 10:52:02.974087 26080 net.cpp:131] Top shape: 111 180 (19980)
I0504 10:52:02.974090 26080 net.cpp:139] Memory required for data: 44542524
I0504 10:52:02.974093 26080 layer_factory.hpp:77] Creating layer ip3
I0504 10:52:02.974102 26080 net.cpp:86] Creating Layer ip3
I0504 10:52:02.974105 26080 net.cpp:408] ip3 <- ip2
I0504 10:52:02.974112 26080 net.cpp:382] ip3 -> ip3
I0504 10:52:02.974274 26080 net.cpp:124] Setting up ip3
I0504 10:52:02.974282 26080 net.cpp:131] Top shape: 111 10 (1110)
I0504 10:52:02.974285 26080 net.cpp:139] Memory required for data: 44546964
I0504 10:52:02.974295 26080 layer_factory.hpp:77] Creating layer loss
I0504 10:52:02.974303 26080 net.cpp:86] Creating Layer loss
I0504 10:52:02.974308 26080 net.cpp:408] loss <- ip3
I0504 10:52:02.974313 26080 net.cpp:408] loss <- label
I0504 10:52:02.974321 26080 net.cpp:382] loss -> loss
I0504 10:52:02.974339 26080 layer_factory.hpp:77] Creating layer loss
…
I0504 10:52:02.975039 26080 solver.cpp:173] Creating test net (#0) specified by net file: ECE595/cifar/train_test/var_everything_tiny/cifar_train_test_140.prototxt
I0504 10:52:02.975064 26080 net.cpp:296] The NetState phase (1) differed from the phase (0) specified by a rule in layer cifar
I0504 10:52:02.975188 26080 net.cpp:53] Initializing net from parameters: 
name: "CIFAR"
state {
  phase: TEST
}
layer {
  name: "cifar"
  type: "Data"
  top: "data"
  top: "label"
  include {
    phase: TEST
  }
  transform_param {
    mean_file: "examples/cifar10/mean.binaryproto"
  }
  data_param {
    source: "examples/cifar10/cifar10_test_lmdb"
    batch_size: 1000
    backend: LMDB
  }
}
layer {
  name: "conv0"
  type: "Convolution"
  bottom: "data"
  top: "conv0"
  param {
    lr_mult: 1
  }
  param {
    lr_mult: 2
  }
  convolution_param {
    num_output: 24
    pad: 2
    kernel_size: 5
    stride: 1
    weight_filler {
      type: "gaussian"
      std: 0.01
    }
    bias_filler {
      type: "constant"
    }
  }
}
layer {
  name: "Sigmoid0"
  type: "Sigmoid"
  bottom: "conv0"
  top: "Sigmoid0"
}
layer {
  name: "pool0"
  type: "Pooling"
  bottom: "Sigmoid0"
  top: "pool0"
  pooling_param {
    pool: AVE
    kernel_size: 3
    stride: 2
  }
}
layer {
  name: "conv1"
  type: "Convolution"
  bottom: "pool0"
  top: "conv1"
  param {
    lr_mult: 1
  }
  param {
    lr_mult: 2
  }
  convolution_param {
    num_output: 72
    pad: 2
    kernel_size: 5
    stride: 1
    weight_filler {
      type: "gaussian"
      std: 0.01
    }
    bias_filler {
      type: "constant"
    }
  }
}
layer {
  name: "Sigmoid1"
  type: "Sigmoid"
  bottom: "conv1"
  top: "Sigmoid1"
}
layer {
  name: "pool1"
  type: "Pooling"
  bottom: "Sigmoid1"
  top: "pool1"
  pooling_param {
    pool: AVE
    kernel_size: 3
    stride: 2
  }
}
layer {
  name: "ip1"
  type: "InnerProduct"
  bottom: "pool1"
  top: "ip1"
  param {
    lr_mult: 1
  }
  param {
    lr_mult: 2
  }
  inner_product_param {
    num_output: 60
    weight_filler {
      type: "gaussian"
      std: 0.01
    }
    bias_filler {
      type: "constant"
    }
  }
}
layer {
  name: "relu1"
  type: "ReLU"
  bottom: "ip1"
  top: "ip1"
}
layer {
  name: "ip2"
  type: "InnerProduct"
  bottom: "ip1"
  top: "ip2"
  param {
    lr_mult: 1
  }
  param {
    lr_mult: 2
  }
  inner_product_param {
    num_output: 180
    weight_filler {
      type: "gaussian"
      std: 0.01
    }
    bias_filler {
      type: "constant"
    }
  }
}
layer {
  name: "relu2"
  type: "ReLU"
  bottom: "ip2"
  top: "ip2"
}
layer {
  name: "ip3"
  type: "InnerProduct"
  bottom: "ip2"
  top: "ip3"
  param {
    lr_mult: 1
  }
  param {
    lr_mult: 2
  }
  inner_product_param {
    num_output: 10
    weight_filler {
      type: "gaussian"
      std: 0.01
    }
    bias_filler {
      type: "constant"
    }
  }
}
layer {
  name: "accuracy"
  type: "Accuracy"
  bottom: "ip3"
  bottom: "label"
  top: "accuracy"
  include {
    phase: TEST
  }
}
layer {
  name: "loss"
  type: "SoftmaxWithLoss"
  bottom: "ip3"
  bottom: "label"
  top: "loss"
}
I0504 10:52:02.975304 26080 layer_factory.hpp:77] Creating layer cifar
I0504 10:52:02.975361 26080 db_lmdb.cpp:35] Opened lmdb examples/cifar10/cifar10_test_lmdb
I0504 10:52:02.975378 26080 net.cpp:86] Creating Layer cifar
I0504 10:52:02.975384 26080 net.cpp:382] cifar -> data
I0504 10:52:02.975396 26080 net.cpp:382] cifar -> label
I0504 10:52:02.975405 26080 data_transformer.cpp:25] Loading mean file from: examples/cifar10/mean.binaryproto
I0504 10:52:02.975610 26080 data_layer.cpp:45] output data size: 1000,3,32,32
I0504 10:52:02.996991 26080 net.cpp:124] Setting up cifar
I0504 10:52:02.997018 26080 net.cpp:131] Top shape: 1000 3 32 32 (3072000)
I0504 10:52:02.997023 26080 net.cpp:131] Top shape: 1000 (1000)
I0504 10:52:02.997026 26080 net.cpp:139] Memory required for data: 12292000
I0504 10:52:02.997031 26080 layer_factory.hpp:77] Creating layer label_cifar_1_split
I0504 10:52:02.997045 26080 net.cpp:86] Creating Layer label_cifar_1_split
I0504 10:52:02.997051 26080 net.cpp:408] label_cifar_1_split <- label
I0504 10:52:02.997061 26080 net.cpp:382] label_cifar_1_split -> label_cifar_1_split_0
I0504 10:52:02.997071 26080 net.cpp:382] label_cifar_1_split -> label_cifar_1_split_1
I0504 10:52:02.997139 26080 net.cpp:124] Setting up label_cifar_1_split
I0504 10:52:02.997150 26080 net.cpp:131] Top shape: 1000 (1000)
I0504 10:52:02.997156 26080 net.cpp:131] Top shape: 1000 (1000)
I0504 10:52:02.997160 26080 net.cpp:139] Memory required for data: 12300000
I0504 10:52:02.997165 26080 layer_factory.hpp:77] Creating layer conv0
I0504 10:52:02.997197 26080 net.cpp:86] Creating Layer conv0
I0504 10:52:02.997202 26080 net.cpp:408] conv0 <- data
I0504 10:52:02.997210 26080 net.cpp:382] conv0 -> conv0
I0504 10:52:02.998723 26080 net.cpp:124] Setting up conv0
I0504 10:52:02.998736 26080 net.cpp:131] Top shape: 1000 24 32 32 (24576000)
I0504 10:52:02.998739 26080 net.cpp:139] Memory required for data: 110604000
I0504 10:52:02.998750 26080 layer_factory.hpp:77] Creating layer Sigmoid0
I0504 10:52:02.998760 26080 net.cpp:86] Creating Layer Sigmoid0
I0504 10:52:02.998765 26080 net.cpp:408] Sigmoid0 <- conv0
I0504 10:52:02.998786 26080 net.cpp:382] Sigmoid0 -> Sigmoid0
I0504 10:52:02.999042 26080 net.cpp:124] Setting up Sigmoid0
I0504 10:52:02.999063 26080 net.cpp:131] Top shape: 1000 24 32 32 (24576000)
I0504 10:52:02.999066 26080 net.cpp:139] Memory required for data: 208908000
I0504 10:52:02.999069 26080 layer_factory.hpp:77] Creating layer pool0
I0504 10:52:02.999083 26080 net.cpp:86] Creating Layer pool0
I0504 10:52:02.999101 26080 net.cpp:408] pool0 <- Sigmoid0
I0504 10:52:02.999109 26080 net.cpp:382] pool0 -> pool0
I0504 10:52:03.000214 26080 net.cpp:124] Setting up pool0
I0504 10:52:03.000226 26080 net.cpp:131] Top shape: 1000 24 16 16 (6144000)
I0504 10:52:03.000228 26080 net.cpp:139] Memory required for data: 233484000
I0504 10:52:03.000232 26080 layer_factory.hpp:77] Creating layer conv1
I0504 10:52:03.000246 26080 net.cpp:86] Creating Layer conv1
I0504 10:52:03.000250 26080 net.cpp:408] conv1 <- pool0
I0504 10:52:03.000259 26080 net.cpp:382] conv1 -> conv1
I0504 10:52:03.002689 26080 net.cpp:124] Setting up conv1
I0504 10:52:03.002703 26080 net.cpp:131] Top shape: 1000 72 16 16 (18432000)
I0504 10:52:03.002707 26080 net.cpp:139] Memory required for data: 307212000
I0504 10:52:03.002717 26080 layer_factory.hpp:77] Creating layer Sigmoid1
I0504 10:52:03.002727 26080 net.cpp:86] Creating Layer Sigmoid1
I0504 10:52:03.002732 26080 net.cpp:408] Sigmoid1 <- conv1
I0504 10:52:03.002739 26080 net.cpp:382] Sigmoid1 -> Sigmoid1
I0504 10:52:03.002926 26080 net.cpp:124] Setting up Sigmoid1
I0504 10:52:03.002938 26080 net.cpp:131] Top shape: 1000 72 16 16 (18432000)
I0504 10:52:03.002940 26080 net.cpp:139] Memory required for data: 380940000
I0504 10:52:03.002944 26080 layer_factory.hpp:77] Creating layer pool1
I0504 10:52:03.002951 26080 net.cpp:86] Creating Layer pool1
I0504 10:52:03.002956 26080 net.cpp:408] pool1 <- Sigmoid1
I0504 10:52:03.002964 26080 net.cpp:382] pool1 -> pool1
I0504 10:52:03.003708 26080 net.cpp:124] Setting up pool1
I0504 10:52:03.003721 26080 net.cpp:131] Top shape: 1000 72 8 8 (4608000)
I0504 10:52:03.003724 26080 net.cpp:139] Memory required for data: 399372000
I0504 10:52:03.003727 26080 layer_factory.hpp:77] Creating layer ip1
I0504 10:52:03.003739 26080 net.cpp:86] Creating Layer ip1
I0504 10:52:03.003744 26080 net.cpp:408] ip1 <- pool1
I0504 10:52:03.003753 26080 net.cpp:382] ip1 -> ip1
I0504 10:52:03.011687 26080 net.cpp:124] Setting up ip1
I0504 10:52:03.011700 26080 net.cpp:131] Top shape: 1000 60 (60000)
I0504 10:52:03.011704 26080 net.cpp:139] Memory required for data: 399612000
I0504 10:52:03.011713 26080 layer_factory.hpp:77] Creating layer relu1
I0504 10:52:03.011721 26080 net.cpp:86] Creating Layer relu1
I0504 10:52:03.011728 26080 net.cpp:408] relu1 <- ip1
I0504 10:52:03.011735 26080 net.cpp:369] relu1 -> ip1 (in-place)
I0504 10:52:03.011930 26080 net.cpp:124] Setting up relu1
I0504 10:52:03.011940 26080 net.cpp:131] Top shape: 1000 60 (60000)
I0504 10:52:03.011943 26080 net.cpp:139] Memory required for data: 399852000
I0504 10:52:03.011946 26080 layer_factory.hpp:77] Creating layer ip2
I0504 10:52:03.011955 26080 net.cpp:86] Creating Layer ip2
I0504 10:52:03.011960 26080 net.cpp:408] ip2 <- ip1
I0504 10:52:03.011984 26080 net.cpp:382] ip2 -> ip2
I0504 10:52:03.012382 26080 net.cpp:124] Setting up ip2
I0504 10:52:03.012388 26080 net.cpp:131] Top shape: 1000 180 (180000)
I0504 10:52:03.012392 26080 net.cpp:139] Memory required for data: 400572000
I0504 10:52:03.012398 26080 layer_factory.hpp:77] Creating layer relu2
I0504 10:52:03.012405 26080 net.cpp:86] Creating Layer relu2
I0504 10:52:03.012409 26080 net.cpp:408] relu2 <- ip2
I0504 10:52:03.012418 26080 net.cpp:369] relu2 -> ip2 (in-place)
I0504 10:52:03.012583 26080 net.cpp:124] Setting up relu2
I0504 10:52:03.012593 26080 net.cpp:131] Top shape: 1000 180 (180000)
I0504 10:52:03.012595 26080 net.cpp:139] Memory required for data: 401292000
I0504 10:52:03.012598 26080 layer_factory.hpp:77] Creating layer ip3
I0504 10:52:03.012609 26080 net.cpp:86] Creating Layer ip3
I0504 10:52:03.012614 26080 net.cpp:408] ip3 <- ip2
I0504 10:52:03.012620 26080 net.cpp:382] ip3 -> ip3
I0504 10:52:03.012783 26080 net.cpp:124] Setting up ip3
I0504 10:52:03.012795 26080 net.cpp:131] Top shape: 1000 10 (10000)
I0504 10:52:03.012816 26080 net.cpp:139] Memory required for data: 401332000
I0504 10:52:03.012842 26080 layer_factory.hpp:77] Creating layer ip3_ip3_0_split
I0504 10:52:03.012850 26080 net.cpp:86] Creating Layer ip3_ip3_0_split
I0504 10:52:03.012856 26080 net.cpp:408] ip3_ip3_0_split <- ip3
I0504 10:52:03.012879 26080 net.cpp:382] ip3_ip3_0_split -> ip3_ip3_0_split_0
I0504 10:52:03.012888 26080 net.cpp:382] ip3_ip3_0_split -> ip3_ip3_0_split_1
I0504 10:52:03.012939 26080 net.cpp:124] Setting up ip3_ip3_0_split
I0504 10:52:03.012948 26080 net.cpp:131] Top shape: 1000 10 (10000)
I0504 10:52:03.012953 26080 net.cpp:131] Top shape: 1000 10 (10000)
I0504 10:52:03.012955 26080 net.cpp:139] Memory required for data: 401412000
I0504 10:52:03.012960 26080 layer_factory.hpp:77] Creating layer accuracy
I0504 10:52:03.012969 26080 net.cpp:86] Creating Layer accuracy
I0504 10:52:03.012974 26080 net.cpp:408] accuracy <- ip3_ip3_0_split_0
I0504 10:52:03.012980 26080 net.cpp:408] accuracy <- label_cifar_1_split_0
I0504 10:52:03.012989 26080 net.cpp:382] accuracy -> accuracy
…
