…
I0504 10:22:10.107172 25180 net.cpp:296] The NetState phase (0) differed from the phase (1) specified by a rule in layer cifar
I0504 10:22:10.107190 25180 net.cpp:296] The NetState phase (0) differed from the phase (1) specified by a rule in layer accuracy
I0504 10:22:10.107285 25180 net.cpp:53] Initializing net from parameters: 
name: "CIFAR"
state {
  phase: TRAIN
  level: 0
  stage: ""
}
layer {
  name: "cifar"
  type: "Data"
  top: "data"
  top: "label"
  include {
    phase: TRAIN
  }
  transform_param {
    mean_file: "examples/cifar10/mean.binaryproto"
  }
  data_param {
    source: "examples/cifar10/cifar10_train_lmdb"
    batch_size: 111
    backend: LMDB
  }
}
layer {
  name: "conv0"
  type: "Convolution"
  bottom: "data"
  top: "conv0"
  param {
    lr_mult: 1
  }
  param {
    lr_mult: 2
  }
  convolution_param {
    num_output: 24
    pad: 2
    kernel_size: 5
    stride: 1
    weight_filler {
      type: "gaussian"
      std: 0.01
    }
    bias_filler {
      type: "constant"
    }
  }
}
layer {
  name: "Sigmoid0"
  type: "Sigmoid"
  bottom: "conv0"
  top: "Sigmoid0"
}
layer {
  name: "pool0"
  type: "Pooling"
  bottom: "Sigmoid0"
  top: "pool0"
  pooling_param {
    pool: AVE
    kernel_size: 3
    stride: 2
  }
}
layer {
  name: "conv1"
  type: "Convolution"
  bottom: "pool0"
  top: "conv1"
  param {
    lr_mult: 1
  }
  param {
    lr_mult: 2
  }
  convolution_param {
    num_output: 72
    pad: 2
    kernel_size: 5
    stride: 1
    weight_filler {
      type: "gaussian"
      std: 0.01
    }
    bias_filler {
      type: "constant"
    }
  }
}
layer {
  name: "Sigmoid1"
  type: "Sigmoid"
  bottom: "conv1"
  top: "Sigmoid1"
}
layer {
  name: "pool1"
  type: "Pooling"
  bottom: "Sigmoid1"
  top: "pool1"
  pooling_param {
    pool: AVE
    kernel_size: 3
    stride: 2
  }
}
layer {
  name: "ip1"
  type: "InnerProduct"
  bottom: "pool1"
  top: "ip1"
  param {
    lr_mult: 1
  }
  param {
    lr_mult: 2
  }
  inner_product_param {
    num_output: 60
    weight_filler {
      type: "gaussian"
      std: 0.01
    }
    bias_filler {
      type: "constant"
    }
  }
}
layer {
  name: "relu1"
  type: "ReLU"
  bottom: "ip1"
  top: "ip1"
}
layer {
  name: "ip2"
  type: "InnerProduct"
  bottom: "ip1"
  top: "ip2"
  param {
    lr_mult: 1
  }
  param {
    lr_mult: 2
  }
  inner_product_param {
    num_output: 10
    weight_filler {
      type: "gaussian"
      std: 0.01
    }
    bias_filler {
      type: "constant"
    }
  }
}
layer {
  name: "loss"
  type: "SoftmaxWithLoss"
  bottom: "ip2"
  bottom: "label"
  top: "loss"
}
I0504 10:22:10.107358 25180 layer_factory.hpp:77] Creating layer cifar
I0504 10:22:10.107461 25180 db_lmdb.cpp:35] Opened lmdb examples/cifar10/cifar10_train_lmdb
I0504 10:22:10.107488 25180 net.cpp:86] Creating Layer cifar
I0504 10:22:10.107496 25180 net.cpp:382] cifar -> data
I0504 10:22:10.107519 25180 net.cpp:382] cifar -> label
I0504 10:22:10.107532 25180 data_transformer.cpp:25] Loading mean file from: examples/cifar10/mean.binaryproto
I0504 10:22:10.109735 25180 data_layer.cpp:45] output data size: 111,3,32,32
I0504 10:22:10.118028 25180 net.cpp:124] Setting up cifar
I0504 10:22:10.118050 25180 net.cpp:131] Top shape: 111 3 32 32 (340992)
I0504 10:22:10.118057 25180 net.cpp:131] Top shape: 111 (111)
I0504 10:22:10.118060 25180 net.cpp:139] Memory required for data: 1364412
I0504 10:22:10.118068 25180 layer_factory.hpp:77] Creating layer conv0
I0504 10:22:10.118088 25180 net.cpp:86] Creating Layer conv0
I0504 10:22:10.118116 25180 net.cpp:408] conv0 <- data
I0504 10:22:10.118130 25180 net.cpp:382] conv0 -> conv0
I0504 10:22:10.405843 25180 net.cpp:124] Setting up conv0
I0504 10:22:10.405874 25180 net.cpp:131] Top shape: 111 24 32 32 (2727936)
I0504 10:22:10.405877 25180 net.cpp:139] Memory required for data: 12276156
I0504 10:22:10.405892 25180 layer_factory.hpp:77] Creating layer Sigmoid0
I0504 10:22:10.405903 25180 net.cpp:86] Creating Layer Sigmoid0
I0504 10:22:10.405907 25180 net.cpp:408] Sigmoid0 <- conv0
I0504 10:22:10.405912 25180 net.cpp:382] Sigmoid0 -> Sigmoid0
I0504 10:22:10.406113 25180 net.cpp:124] Setting up Sigmoid0
I0504 10:22:10.406123 25180 net.cpp:131] Top shape: 111 24 32 32 (2727936)
I0504 10:22:10.406126 25180 net.cpp:139] Memory required for data: 23187900
I0504 10:22:10.406131 25180 layer_factory.hpp:77] Creating layer pool0
I0504 10:22:10.406136 25180 net.cpp:86] Creating Layer pool0
I0504 10:22:10.406141 25180 net.cpp:408] pool0 <- Sigmoid0
I0504 10:22:10.406147 25180 net.cpp:382] pool0 -> pool0
I0504 10:22:10.406918 25180 net.cpp:124] Setting up pool0
I0504 10:22:10.406930 25180 net.cpp:131] Top shape: 111 24 16 16 (681984)
I0504 10:22:10.406934 25180 net.cpp:139] Memory required for data: 25915836
I0504 10:22:10.406937 25180 layer_factory.hpp:77] Creating layer conv1
I0504 10:22:10.406951 25180 net.cpp:86] Creating Layer conv1
I0504 10:22:10.406955 25180 net.cpp:408] conv1 <- pool0
I0504 10:22:10.406961 25180 net.cpp:382] conv1 -> conv1
I0504 10:22:10.410869 25180 net.cpp:124] Setting up conv1
I0504 10:22:10.410883 25180 net.cpp:131] Top shape: 111 72 16 16 (2045952)
I0504 10:22:10.410887 25180 net.cpp:139] Memory required for data: 34099644
I0504 10:22:10.410895 25180 layer_factory.hpp:77] Creating layer Sigmoid1
I0504 10:22:10.410902 25180 net.cpp:86] Creating Layer Sigmoid1
I0504 10:22:10.410904 25180 net.cpp:408] Sigmoid1 <- conv1
I0504 10:22:10.410910 25180 net.cpp:382] Sigmoid1 -> Sigmoid1
I0504 10:22:10.411090 25180 net.cpp:124] Setting up Sigmoid1
I0504 10:22:10.411100 25180 net.cpp:131] Top shape: 111 72 16 16 (2045952)
I0504 10:22:10.411103 25180 net.cpp:139] Memory required for data: 42283452
I0504 10:22:10.411106 25180 layer_factory.hpp:77] Creating layer pool1
I0504 10:22:10.411113 25180 net.cpp:86] Creating Layer pool1
I0504 10:22:10.411116 25180 net.cpp:408] pool1 <- Sigmoid1
I0504 10:22:10.411121 25180 net.cpp:382] pool1 -> pool1
I0504 10:22:10.411295 25180 net.cpp:124] Setting up pool1
I0504 10:22:10.411305 25180 net.cpp:131] Top shape: 111 72 8 8 (511488)
I0504 10:22:10.411309 25180 net.cpp:139] Memory required for data: 44329404
I0504 10:22:10.411311 25180 layer_factory.hpp:77] Creating layer ip1
I0504 10:22:10.411319 25180 net.cpp:86] Creating Layer ip1
I0504 10:22:10.411324 25180 net.cpp:408] ip1 <- pool1
I0504 10:22:10.411327 25180 net.cpp:382] ip1 -> ip1
I0504 10:22:10.419715 25180 net.cpp:124] Setting up ip1
I0504 10:22:10.419728 25180 net.cpp:131] Top shape: 111 60 (6660)
I0504 10:22:10.419731 25180 net.cpp:139] Memory required for data: 44356044
I0504 10:22:10.419739 25180 layer_factory.hpp:77] Creating layer relu1
I0504 10:22:10.419747 25180 net.cpp:86] Creating Layer relu1
I0504 10:22:10.419751 25180 net.cpp:408] relu1 <- ip1
I0504 10:22:10.419755 25180 net.cpp:369] relu1 -> ip1 (in-place)
I0504 10:22:10.419927 25180 net.cpp:124] Setting up relu1
I0504 10:22:10.419937 25180 net.cpp:131] Top shape: 111 60 (6660)
I0504 10:22:10.419941 25180 net.cpp:139] Memory required for data: 44382684
I0504 10:22:10.419945 25180 layer_factory.hpp:77] Creating layer ip2
I0504 10:22:10.419950 25180 net.cpp:86] Creating Layer ip2
I0504 10:22:10.419953 25180 net.cpp:408] ip2 <- ip1
I0504 10:22:10.419960 25180 net.cpp:382] ip2 -> ip2
I0504 10:22:10.420076 25180 net.cpp:124] Setting up ip2
I0504 10:22:10.420084 25180 net.cpp:131] Top shape: 111 10 (1110)
I0504 10:22:10.420087 25180 net.cpp:139] Memory required for data: 44387124
I0504 10:22:10.420092 25180 layer_factory.hpp:77] Creating layer loss
I0504 10:22:10.420099 25180 net.cpp:86] Creating Layer loss
I0504 10:22:10.420115 25180 net.cpp:408] loss <- ip2
I0504 10:22:10.420120 25180 net.cpp:408] loss <- label
I0504 10:22:10.420125 25180 net.cpp:382] loss -> loss
I0504 10:22:10.420137 25180 layer_factory.hpp:77] Creating layer loss
…
I0504 10:22:10.421368 25180 solver.cpp:173] Creating test net (#0) specified by net file: ECE595/cifar/train_test/var_everything_tiny/cifar_train_test_133.prototxt
I0504 10:22:10.421394 25180 net.cpp:296] The NetState phase (1) differed from the phase (0) specified by a rule in layer cifar
I0504 10:22:10.421486 25180 net.cpp:53] Initializing net from parameters: 
name: "CIFAR"
state {
  phase: TEST
}
layer {
  name: "cifar"
  type: "Data"
  top: "data"
  top: "label"
  include {
    phase: TEST
  }
  transform_param {
    mean_file: "examples/cifar10/mean.binaryproto"
  }
  data_param {
    source: "examples/cifar10/cifar10_test_lmdb"
    batch_size: 1000
    backend: LMDB
  }
}
layer {
  name: "conv0"
  type: "Convolution"
  bottom: "data"
  top: "conv0"
  param {
    lr_mult: 1
  }
  param {
    lr_mult: 2
  }
  convolution_param {
    num_output: 24
    pad: 2
    kernel_size: 5
    stride: 1
    weight_filler {
      type: "gaussian"
      std: 0.01
    }
    bias_filler {
      type: "constant"
    }
  }
}
layer {
  name: "Sigmoid0"
  type: "Sigmoid"
  bottom: "conv0"
  top: "Sigmoid0"
}
layer {
  name: "pool0"
  type: "Pooling"
  bottom: "Sigmoid0"
  top: "pool0"
  pooling_param {
    pool: AVE
    kernel_size: 3
    stride: 2
  }
}
layer {
  name: "conv1"
  type: "Convolution"
  bottom: "pool0"
  top: "conv1"
  param {
    lr_mult: 1
  }
  param {
    lr_mult: 2
  }
  convolution_param {
    num_output: 72
    pad: 2
    kernel_size: 5
    stride: 1
    weight_filler {
      type: "gaussian"
      std: 0.01
    }
    bias_filler {
      type: "constant"
    }
  }
}
layer {
  name: "Sigmoid1"
  type: "Sigmoid"
  bottom: "conv1"
  top: "Sigmoid1"
}
layer {
  name: "pool1"
  type: "Pooling"
  bottom: "Sigmoid1"
  top: "pool1"
  pooling_param {
    pool: AVE
    kernel_size: 3
    stride: 2
  }
}
layer {
  name: "ip1"
  type: "InnerProduct"
  bottom: "pool1"
  top: "ip1"
  param {
    lr_mult: 1
  }
  param {
    lr_mult: 2
  }
  inner_product_param {
    num_output: 60
    weight_filler {
      type: "gaussian"
      std: 0.01
    }
    bias_filler {
      type: "constant"
    }
  }
}
layer {
  name: "relu1"
  type: "ReLU"
  bottom: "ip1"
  top: "ip1"
}
layer {
  name: "ip2"
  type: "InnerProduct"
  bottom: "ip1"
  top: "ip2"
  param {
    lr_mult: 1
  }
  param {
    lr_mult: 2
  }
  inner_product_param {
    num_output: 10
    weight_filler {
      type: "gaussian"
      std: 0.01
    }
    bias_filler {
      type: "constant"
    }
  }
}
layer {
  name: "accuracy"
  type: "Accuracy"
  bottom: "ip2"
  bottom: "label"
  top: "accuracy"
  include {
    phase: TEST
  }
}
layer {
  name: "loss"
  type: "SoftmaxWithLoss"
  bottom: "ip2"
  bottom: "label"
  top: "loss"
}
I0504 10:22:10.421566 25180 layer_factory.hpp:77] Creating layer cifar
I0504 10:22:10.421608 25180 db_lmdb.cpp:35] Opened lmdb examples/cifar10/cifar10_test_lmdb
I0504 10:22:10.421620 25180 net.cpp:86] Creating Layer cifar
I0504 10:22:10.421627 25180 net.cpp:382] cifar -> data
I0504 10:22:10.421634 25180 net.cpp:382] cifar -> label
I0504 10:22:10.421641 25180 data_transformer.cpp:25] Loading mean file from: examples/cifar10/mean.binaryproto
I0504 10:22:10.421787 25180 data_layer.cpp:45] output data size: 1000,3,32,32
I0504 10:22:10.443333 25180 net.cpp:124] Setting up cifar
I0504 10:22:10.443358 25180 net.cpp:131] Top shape: 1000 3 32 32 (3072000)
I0504 10:22:10.443363 25180 net.cpp:131] Top shape: 1000 (1000)
I0504 10:22:10.443367 25180 net.cpp:139] Memory required for data: 12292000
I0504 10:22:10.443372 25180 layer_factory.hpp:77] Creating layer label_cifar_1_split
I0504 10:22:10.443382 25180 net.cpp:86] Creating Layer label_cifar_1_split
I0504 10:22:10.443403 25180 net.cpp:408] label_cifar_1_split <- label
I0504 10:22:10.443409 25180 net.cpp:382] label_cifar_1_split -> label_cifar_1_split_0
I0504 10:22:10.443418 25180 net.cpp:382] label_cifar_1_split -> label_cifar_1_split_1
I0504 10:22:10.443559 25180 net.cpp:124] Setting up label_cifar_1_split
I0504 10:22:10.443568 25180 net.cpp:131] Top shape: 1000 (1000)
I0504 10:22:10.443572 25180 net.cpp:131] Top shape: 1000 (1000)
I0504 10:22:10.443575 25180 net.cpp:139] Memory required for data: 12300000
I0504 10:22:10.443578 25180 layer_factory.hpp:77] Creating layer conv0
I0504 10:22:10.443590 25180 net.cpp:86] Creating Layer conv0
I0504 10:22:10.443593 25180 net.cpp:408] conv0 <- data
I0504 10:22:10.443599 25180 net.cpp:382] conv0 -> conv0
I0504 10:22:10.444494 25180 net.cpp:124] Setting up conv0
I0504 10:22:10.444505 25180 net.cpp:131] Top shape: 1000 24 32 32 (24576000)
I0504 10:22:10.444509 25180 net.cpp:139] Memory required for data: 110604000
I0504 10:22:10.444519 25180 layer_factory.hpp:77] Creating layer Sigmoid0
I0504 10:22:10.444524 25180 net.cpp:86] Creating Layer Sigmoid0
I0504 10:22:10.444526 25180 net.cpp:408] Sigmoid0 <- conv0
I0504 10:22:10.444531 25180 net.cpp:382] Sigmoid0 -> Sigmoid0
I0504 10:22:10.445497 25180 net.cpp:124] Setting up Sigmoid0
I0504 10:22:10.445509 25180 net.cpp:131] Top shape: 1000 24 32 32 (24576000)
I0504 10:22:10.445513 25180 net.cpp:139] Memory required for data: 208908000
I0504 10:22:10.445515 25180 layer_factory.hpp:77] Creating layer pool0
I0504 10:22:10.445525 25180 net.cpp:86] Creating Layer pool0
I0504 10:22:10.445528 25180 net.cpp:408] pool0 <- Sigmoid0
I0504 10:22:10.445533 25180 net.cpp:382] pool0 -> pool0
I0504 10:22:10.446686 25180 net.cpp:124] Setting up pool0
I0504 10:22:10.446697 25180 net.cpp:131] Top shape: 1000 24 16 16 (6144000)
I0504 10:22:10.446701 25180 net.cpp:139] Memory required for data: 233484000
I0504 10:22:10.446703 25180 layer_factory.hpp:77] Creating layer conv1
I0504 10:22:10.446714 25180 net.cpp:86] Creating Layer conv1
I0504 10:22:10.446717 25180 net.cpp:408] conv1 <- pool0
I0504 10:22:10.446722 25180 net.cpp:382] conv1 -> conv1
I0504 10:22:10.449270 25180 net.cpp:124] Setting up conv1
I0504 10:22:10.449300 25180 net.cpp:131] Top shape: 1000 72 16 16 (18432000)
I0504 10:22:10.449303 25180 net.cpp:139] Memory required for data: 307212000
I0504 10:22:10.449327 25180 layer_factory.hpp:77] Creating layer Sigmoid1
I0504 10:22:10.449334 25180 net.cpp:86] Creating Layer Sigmoid1
I0504 10:22:10.449354 25180 net.cpp:408] Sigmoid1 <- conv1
I0504 10:22:10.449374 25180 net.cpp:382] Sigmoid1 -> Sigmoid1
I0504 10:22:10.449549 25180 net.cpp:124] Setting up Sigmoid1
I0504 10:22:10.449575 25180 net.cpp:131] Top shape: 1000 72 16 16 (18432000)
I0504 10:22:10.449579 25180 net.cpp:139] Memory required for data: 380940000
I0504 10:22:10.449584 25180 layer_factory.hpp:77] Creating layer pool1
I0504 10:22:10.449590 25180 net.cpp:86] Creating Layer pool1
I0504 10:22:10.449594 25180 net.cpp:408] pool1 <- Sigmoid1
I0504 10:22:10.449611 25180 net.cpp:382] pool1 -> pool1
I0504 10:22:10.449789 25180 net.cpp:124] Setting up pool1
I0504 10:22:10.449798 25180 net.cpp:131] Top shape: 1000 72 8 8 (4608000)
I0504 10:22:10.449801 25180 net.cpp:139] Memory required for data: 399372000
I0504 10:22:10.449805 25180 layer_factory.hpp:77] Creating layer ip1
I0504 10:22:10.449813 25180 net.cpp:86] Creating Layer ip1
I0504 10:22:10.449816 25180 net.cpp:408] ip1 <- pool1
I0504 10:22:10.449822 25180 net.cpp:382] ip1 -> ip1
I0504 10:22:10.457607 25180 net.cpp:124] Setting up ip1
I0504 10:22:10.457619 25180 net.cpp:131] Top shape: 1000 60 (60000)
I0504 10:22:10.457638 25180 net.cpp:139] Memory required for data: 399612000
I0504 10:22:10.457661 25180 layer_factory.hpp:77] Creating layer relu1
I0504 10:22:10.457669 25180 net.cpp:86] Creating Layer relu1
I0504 10:22:10.457672 25180 net.cpp:408] relu1 <- ip1
I0504 10:22:10.457676 25180 net.cpp:369] relu1 -> ip1 (in-place)
I0504 10:22:10.458451 25180 net.cpp:124] Setting up relu1
I0504 10:22:10.458463 25180 net.cpp:131] Top shape: 1000 60 (60000)
I0504 10:22:10.458467 25180 net.cpp:139] Memory required for data: 399852000
I0504 10:22:10.458469 25180 layer_factory.hpp:77] Creating layer ip2
I0504 10:22:10.458477 25180 net.cpp:86] Creating Layer ip2
I0504 10:22:10.458480 25180 net.cpp:408] ip2 <- ip1
I0504 10:22:10.458487 25180 net.cpp:382] ip2 -> ip2
I0504 10:22:10.458631 25180 net.cpp:124] Setting up ip2
I0504 10:22:10.458647 25180 net.cpp:131] Top shape: 1000 10 (10000)
I0504 10:22:10.458650 25180 net.cpp:139] Memory required for data: 399892000
I0504 10:22:10.458657 25180 layer_factory.hpp:77] Creating layer ip2_ip2_0_split
I0504 10:22:10.458662 25180 net.cpp:86] Creating Layer ip2_ip2_0_split
I0504 10:22:10.458664 25180 net.cpp:408] ip2_ip2_0_split <- ip2
I0504 10:22:10.458669 25180 net.cpp:382] ip2_ip2_0_split -> ip2_ip2_0_split_0
I0504 10:22:10.458674 25180 net.cpp:382] ip2_ip2_0_split -> ip2_ip2_0_split_1
I0504 10:22:10.458709 25180 net.cpp:124] Setting up ip2_ip2_0_split
I0504 10:22:10.458719 25180 net.cpp:131] Top shape: 1000 10 (10000)
I0504 10:22:10.458722 25180 net.cpp:131] Top shape: 1000 10 (10000)
I0504 10:22:10.458725 25180 net.cpp:139] Memory required for data: 399972000
I0504 10:22:10.458729 25180 layer_factory.hpp:77] Creating layer accuracy
I0504 10:22:10.458734 25180 net.cpp:86] Creating Layer accuracy
I0504 10:22:10.458737 25180 net.cpp:408] accuracy <- ip2_ip2_0_split_0
I0504 10:22:10.458742 25180 net.cpp:408] accuracy <- label_cifar_1_split_0
I0504 10:22:10.458746 25180 net.cpp:382] accuracy -> accuracy
…
