…
I0504 05:19:22.451910 14205 net.cpp:296] The NetState phase (0) differed from the phase (1) specified by a rule in layer cifar
I0504 05:19:22.451938 14205 net.cpp:296] The NetState phase (0) differed from the phase (1) specified by a rule in layer accuracy
I0504 05:19:22.452050 14205 net.cpp:53] Initializing net from parameters: 
name: "CIFAR"
state {
  phase: TRAIN
  level: 0
  stage: ""
}
layer {
  name: "cifar"
  type: "Data"
  top: "data"
  top: "label"
  include {
    phase: TRAIN
  }
  transform_param {
    mean_file: "examples/cifar10/mean.binaryproto"
  }
  data_param {
    source: "examples/cifar10/cifar10_train_lmdb"
    batch_size: 111
    backend: LMDB
  }
}
layer {
  name: "conv0"
  type: "Convolution"
  bottom: "data"
  top: "conv0"
  param {
    lr_mult: 1
  }
  param {
    lr_mult: 2
  }
  convolution_param {
    num_output: 216
    pad: 2
    kernel_size: 5
    stride: 1
    weight_filler {
      type: "gaussian"
      std: 0.01
    }
    bias_filler {
      type: "constant"
    }
  }
}
layer {
  name: "Sigmoid0"
  type: "Sigmoid"
  bottom: "conv0"
  top: "Sigmoid0"
}
layer {
  name: "pool0"
  type: "Pooling"
  bottom: "Sigmoid0"
  top: "pool0"
  pooling_param {
    pool: AVE
    kernel_size: 3
    stride: 2
  }
}
layer {
  name: "ip1"
  type: "InnerProduct"
  bottom: "pool0"
  top: "ip1"
  param {
    lr_mult: 1
  }
  param {
    lr_mult: 2
  }
  inner_product_param {
    num_output: 180
    weight_filler {
      type: "gaussian"
      std: 0.01
    }
    bias_filler {
      type: "constant"
    }
  }
}
layer {
  name: "relu1"
  type: "ReLU"
  bottom: "ip1"
  top: "ip1"
}
layer {
  name: "ip2"
  type: "InnerProduct"
  bottom: "ip1"
  top: "ip2"
  param {
    lr_mult: 1
  }
  param {
    lr_mult: 2
  }
  inner_product_param {
    num_output: 10
    weight_filler {
      type: "gaussian"
      std: 0.01
    }
    bias_filler {
      type: "constant"
    }
  }
}
layer {
  name: "loss"
  type: "SoftmaxWithLoss"
  bottom: "ip2"
  bottom: "label"
  top: "loss"
}
I0504 05:19:22.452109 14205 layer_factory.hpp:77] Creating layer cifar
I0504 05:19:22.452193 14205 db_lmdb.cpp:35] Opened lmdb examples/cifar10/cifar10_train_lmdb
I0504 05:19:22.452214 14205 net.cpp:86] Creating Layer cifar
I0504 05:19:22.452222 14205 net.cpp:382] cifar -> data
I0504 05:19:22.452240 14205 net.cpp:382] cifar -> label
I0504 05:19:22.452250 14205 data_transformer.cpp:25] Loading mean file from: examples/cifar10/mean.binaryproto
I0504 05:19:22.454085 14205 data_layer.cpp:45] output data size: 111,3,32,32
I0504 05:19:22.460964 14205 net.cpp:124] Setting up cifar
I0504 05:19:22.460979 14205 net.cpp:131] Top shape: 111 3 32 32 (340992)
I0504 05:19:22.460994 14205 net.cpp:131] Top shape: 111 (111)
I0504 05:19:22.461011 14205 net.cpp:139] Memory required for data: 1364412
I0504 05:19:22.461019 14205 layer_factory.hpp:77] Creating layer conv0
I0504 05:19:22.461033 14205 net.cpp:86] Creating Layer conv0
I0504 05:19:22.461038 14205 net.cpp:408] conv0 <- data
I0504 05:19:22.461050 14205 net.cpp:382] conv0 -> conv0
I0504 05:19:22.697319 14205 net.cpp:124] Setting up conv0
I0504 05:19:22.697360 14205 net.cpp:131] Top shape: 111 216 32 32 (24551424)
I0504 05:19:22.697363 14205 net.cpp:139] Memory required for data: 99570108
I0504 05:19:22.697377 14205 layer_factory.hpp:77] Creating layer Sigmoid0
I0504 05:19:22.697389 14205 net.cpp:86] Creating Layer Sigmoid0
I0504 05:19:22.697408 14205 net.cpp:408] Sigmoid0 <- conv0
I0504 05:19:22.697430 14205 net.cpp:382] Sigmoid0 -> Sigmoid0
I0504 05:19:22.697607 14205 net.cpp:124] Setting up Sigmoid0
I0504 05:19:22.697616 14205 net.cpp:131] Top shape: 111 216 32 32 (24551424)
I0504 05:19:22.697619 14205 net.cpp:139] Memory required for data: 197775804
I0504 05:19:22.697623 14205 layer_factory.hpp:77] Creating layer pool0
I0504 05:19:22.697629 14205 net.cpp:86] Creating Layer pool0
I0504 05:19:22.697633 14205 net.cpp:408] pool0 <- Sigmoid0
I0504 05:19:22.697636 14205 net.cpp:382] pool0 -> pool0
I0504 05:19:22.698395 14205 net.cpp:124] Setting up pool0
I0504 05:19:22.698422 14205 net.cpp:131] Top shape: 111 216 16 16 (6137856)
I0504 05:19:22.698426 14205 net.cpp:139] Memory required for data: 222327228
I0504 05:19:22.698428 14205 layer_factory.hpp:77] Creating layer ip1
I0504 05:19:22.698437 14205 net.cpp:86] Creating Layer ip1
I0504 05:19:22.698441 14205 net.cpp:408] ip1 <- pool0
I0504 05:19:22.698446 14205 net.cpp:382] ip1 -> ip1
I0504 05:19:22.968942 14205 net.cpp:124] Setting up ip1
I0504 05:19:22.968966 14205 net.cpp:131] Top shape: 111 180 (19980)
I0504 05:19:22.968971 14205 net.cpp:139] Memory required for data: 222407148
I0504 05:19:22.968983 14205 layer_factory.hpp:77] Creating layer relu1
I0504 05:19:22.968993 14205 net.cpp:86] Creating Layer relu1
I0504 05:19:22.968997 14205 net.cpp:408] relu1 <- ip1
I0504 05:19:22.969003 14205 net.cpp:369] relu1 -> ip1 (in-place)
I0504 05:19:22.969202 14205 net.cpp:124] Setting up relu1
I0504 05:19:22.969209 14205 net.cpp:131] Top shape: 111 180 (19980)
I0504 05:19:22.969213 14205 net.cpp:139] Memory required for data: 222487068
I0504 05:19:22.969215 14205 layer_factory.hpp:77] Creating layer ip2
I0504 05:19:22.969223 14205 net.cpp:86] Creating Layer ip2
I0504 05:19:22.969226 14205 net.cpp:408] ip2 <- ip1
I0504 05:19:22.969233 14205 net.cpp:382] ip2 -> ip2
I0504 05:19:22.969375 14205 net.cpp:124] Setting up ip2
I0504 05:19:22.969383 14205 net.cpp:131] Top shape: 111 10 (1110)
I0504 05:19:22.969385 14205 net.cpp:139] Memory required for data: 222491508
I0504 05:19:22.969393 14205 layer_factory.hpp:77] Creating layer loss
I0504 05:19:22.969398 14205 net.cpp:86] Creating Layer loss
I0504 05:19:22.969401 14205 net.cpp:408] loss <- ip2
I0504 05:19:22.969405 14205 net.cpp:408] loss <- label
I0504 05:19:22.969410 14205 net.cpp:382] loss -> loss
I0504 05:19:22.969429 14205 layer_factory.hpp:77] Creating layer loss
…
I0504 05:19:22.969987 14205 solver.cpp:173] Creating test net (#0) specified by net file: ECE595/cifar/train_test/var_everything_tiny/cifar_train_test_62.prototxt
I0504 05:19:22.970027 14205 net.cpp:296] The NetState phase (1) differed from the phase (0) specified by a rule in layer cifar
I0504 05:19:22.970105 14205 net.cpp:53] Initializing net from parameters: 
name: "CIFAR"
state {
  phase: TEST
}
layer {
  name: "cifar"
  type: "Data"
  top: "data"
  top: "label"
  include {
    phase: TEST
  }
  transform_param {
    mean_file: "examples/cifar10/mean.binaryproto"
  }
  data_param {
    source: "examples/cifar10/cifar10_test_lmdb"
    batch_size: 1000
    backend: LMDB
  }
}
layer {
  name: "conv0"
  type: "Convolution"
  bottom: "data"
  top: "conv0"
  param {
    lr_mult: 1
  }
  param {
    lr_mult: 2
  }
  convolution_param {
    num_output: 216
    pad: 2
    kernel_size: 5
    stride: 1
    weight_filler {
      type: "gaussian"
      std: 0.01
    }
    bias_filler {
      type: "constant"
    }
  }
}
layer {
  name: "Sigmoid0"
  type: "Sigmoid"
  bottom: "conv0"
  top: "Sigmoid0"
}
layer {
  name: "pool0"
  type: "Pooling"
  bottom: "Sigmoid0"
  top: "pool0"
  pooling_param {
    pool: AVE
    kernel_size: 3
    stride: 2
  }
}
layer {
  name: "ip1"
  type: "InnerProduct"
  bottom: "pool0"
  top: "ip1"
  param {
    lr_mult: 1
  }
  param {
    lr_mult: 2
  }
  inner_product_param {
    num_output: 180
    weight_filler {
      type: "gaussian"
      std: 0.01
    }
    bias_filler {
      type: "constant"
    }
  }
}
layer {
  name: "relu1"
  type: "ReLU"
  bottom: "ip1"
  top: "ip1"
}
layer {
  name: "ip2"
  type: "InnerProduct"
  bottom: "ip1"
  top: "ip2"
  param {
    lr_mult: 1
  }
  param {
    lr_mult: 2
  }
  inner_product_param {
    num_output: 10
    weight_filler {
      type: "gaussian"
      std: 0.01
    }
    bias_filler {
      type: "constant"
    }
  }
}
layer {
  name: "accuracy"
  type: "Accuracy"
  bottom: "ip2"
  bottom: "label"
  top: "accuracy"
  include {
    phase: TEST
  }
}
layer {
  name: "loss"
  type: "SoftmaxWithLoss"
  bottom: "ip2"
  bottom: "label"
  top: "loss"
}
I0504 05:19:22.970181 14205 layer_factory.hpp:77] Creating layer cifar
I0504 05:19:22.970234 14205 db_lmdb.cpp:35] Opened lmdb examples/cifar10/cifar10_test_lmdb
I0504 05:19:22.970247 14205 net.cpp:86] Creating Layer cifar
I0504 05:19:22.970252 14205 net.cpp:382] cifar -> data
I0504 05:19:22.970260 14205 net.cpp:382] cifar -> label
I0504 05:19:22.970268 14205 data_transformer.cpp:25] Loading mean file from: examples/cifar10/mean.binaryproto
I0504 05:19:22.970425 14205 data_layer.cpp:45] output data size: 1000,3,32,32
I0504 05:19:22.992488 14205 net.cpp:124] Setting up cifar
I0504 05:19:22.992516 14205 net.cpp:131] Top shape: 1000 3 32 32 (3072000)
I0504 05:19:22.992521 14205 net.cpp:131] Top shape: 1000 (1000)
I0504 05:19:22.992524 14205 net.cpp:139] Memory required for data: 12292000
I0504 05:19:22.992529 14205 layer_factory.hpp:77] Creating layer label_cifar_1_split
I0504 05:19:22.992558 14205 net.cpp:86] Creating Layer label_cifar_1_split
I0504 05:19:22.992561 14205 net.cpp:408] label_cifar_1_split <- label
I0504 05:19:22.992568 14205 net.cpp:382] label_cifar_1_split -> label_cifar_1_split_0
I0504 05:19:22.992576 14205 net.cpp:382] label_cifar_1_split -> label_cifar_1_split_1
I0504 05:19:22.992647 14205 net.cpp:124] Setting up label_cifar_1_split
I0504 05:19:22.992655 14205 net.cpp:131] Top shape: 1000 (1000)
I0504 05:19:22.992660 14205 net.cpp:131] Top shape: 1000 (1000)
I0504 05:19:22.992661 14205 net.cpp:139] Memory required for data: 12300000
I0504 05:19:22.992666 14205 layer_factory.hpp:77] Creating layer conv0
I0504 05:19:22.992677 14205 net.cpp:86] Creating Layer conv0
I0504 05:19:22.992681 14205 net.cpp:408] conv0 <- data
I0504 05:19:22.992686 14205 net.cpp:382] conv0 -> conv0
I0504 05:19:22.995613 14205 net.cpp:124] Setting up conv0
I0504 05:19:22.995627 14205 net.cpp:131] Top shape: 1000 216 32 32 (221184000)
I0504 05:19:22.995630 14205 net.cpp:139] Memory required for data: 897036000
I0504 05:19:22.995640 14205 layer_factory.hpp:77] Creating layer Sigmoid0
I0504 05:19:22.995662 14205 net.cpp:86] Creating Layer Sigmoid0
I0504 05:19:22.995666 14205 net.cpp:408] Sigmoid0 <- conv0
I0504 05:19:22.995671 14205 net.cpp:382] Sigmoid0 -> Sigmoid0
I0504 05:19:22.995847 14205 net.cpp:124] Setting up Sigmoid0
I0504 05:19:22.995856 14205 net.cpp:131] Top shape: 1000 216 32 32 (221184000)
I0504 05:19:22.995858 14205 net.cpp:139] Memory required for data: 1781772000
I0504 05:19:22.995862 14205 layer_factory.hpp:77] Creating layer pool0
I0504 05:19:22.995870 14205 net.cpp:86] Creating Layer pool0
I0504 05:19:22.995874 14205 net.cpp:408] pool0 <- Sigmoid0
I0504 05:19:22.995879 14205 net.cpp:382] pool0 -> pool0
I0504 05:19:22.996659 14205 net.cpp:124] Setting up pool0
I0504 05:19:22.996672 14205 net.cpp:131] Top shape: 1000 216 16 16 (55296000)
I0504 05:19:22.996675 14205 net.cpp:139] Memory required for data: 2002956000
I0504 05:19:22.996678 14205 layer_factory.hpp:77] Creating layer ip1
I0504 05:19:22.996701 14205 net.cpp:86] Creating Layer ip1
I0504 05:19:22.996706 14205 net.cpp:408] ip1 <- pool0
I0504 05:19:22.996714 14205 net.cpp:382] ip1 -> ip1
I0504 05:19:23.275377 14205 net.cpp:124] Setting up ip1
I0504 05:19:23.275399 14205 net.cpp:131] Top shape: 1000 180 (180000)
I0504 05:19:23.275403 14205 net.cpp:139] Memory required for data: 2003676000
I0504 05:19:23.275415 14205 layer_factory.hpp:77] Creating layer relu1
I0504 05:19:23.275426 14205 net.cpp:86] Creating Layer relu1
I0504 05:19:23.275430 14205 net.cpp:408] relu1 <- ip1
I0504 05:19:23.275435 14205 net.cpp:369] relu1 -> ip1 (in-place)
I0504 05:19:23.275638 14205 net.cpp:124] Setting up relu1
I0504 05:19:23.275646 14205 net.cpp:131] Top shape: 1000 180 (180000)
I0504 05:19:23.275650 14205 net.cpp:139] Memory required for data: 2004396000
I0504 05:19:23.275652 14205 layer_factory.hpp:77] Creating layer ip2
I0504 05:19:23.275661 14205 net.cpp:86] Creating Layer ip2
I0504 05:19:23.275665 14205 net.cpp:408] ip2 <- ip1
I0504 05:19:23.275670 14205 net.cpp:382] ip2 -> ip2
I0504 05:19:23.275838 14205 net.cpp:124] Setting up ip2
I0504 05:19:23.275846 14205 net.cpp:131] Top shape: 1000 10 (10000)
I0504 05:19:23.275848 14205 net.cpp:139] Memory required for data: 2004436000
I0504 05:19:23.275856 14205 layer_factory.hpp:77] Creating layer ip2_ip2_0_split
I0504 05:19:23.275864 14205 net.cpp:86] Creating Layer ip2_ip2_0_split
I0504 05:19:23.275867 14205 net.cpp:408] ip2_ip2_0_split <- ip2
I0504 05:19:23.275871 14205 net.cpp:382] ip2_ip2_0_split -> ip2_ip2_0_split_0
I0504 05:19:23.275876 14205 net.cpp:382] ip2_ip2_0_split -> ip2_ip2_0_split_1
I0504 05:19:23.275909 14205 net.cpp:124] Setting up ip2_ip2_0_split
I0504 05:19:23.275914 14205 net.cpp:131] Top shape: 1000 10 (10000)
I0504 05:19:23.275918 14205 net.cpp:131] Top shape: 1000 10 (10000)
I0504 05:19:23.275920 14205 net.cpp:139] Memory required for data: 2004516000
I0504 05:19:23.275923 14205 layer_factory.hpp:77] Creating layer accuracy
I0504 05:19:23.275929 14205 net.cpp:86] Creating Layer accuracy
I0504 05:19:23.275933 14205 net.cpp:408] accuracy <- ip2_ip2_0_split_0
I0504 05:19:23.275936 14205 net.cpp:408] accuracy <- label_cifar_1_split_0
I0504 05:19:23.275941 14205 net.cpp:382] accuracy -> accuracy
…
