…
I0504 16:11:18.771850  8450 net.cpp:296] The NetState phase (0) differed from the phase (1) specified by a rule in layer cifar
I0504 16:11:18.771869  8450 net.cpp:296] The NetState phase (0) differed from the phase (1) specified by a rule in layer accuracy
I0504 16:11:18.771975  8450 net.cpp:53] Initializing net from parameters: 
name: "CIFAR"
state {
  phase: TRAIN
  level: 0
  stage: ""
}
layer {
  name: "cifar"
  type: "Data"
  top: "data"
  top: "label"
  include {
    phase: TRAIN
  }
  transform_param {
    mean_file: "examples/cifar10/mean.binaryproto"
  }
  data_param {
    source: "examples/cifar10/cifar10_train_lmdb"
    batch_size: 111
    backend: LMDB
  }
}
layer {
  name: "conv0"
  type: "Convolution"
  bottom: "data"
  top: "conv0"
  param {
    lr_mult: 1
  }
  param {
    lr_mult: 2
  }
  convolution_param {
    num_output: 72
    pad: 2
    kernel_size: 3
    stride: 1
    weight_filler {
      type: "gaussian"
      std: 0.01
    }
    bias_filler {
      type: "constant"
    }
  }
}
layer {
  name: "Sigmoid0"
  type: "Sigmoid"
  bottom: "conv0"
  top: "Sigmoid0"
}
layer {
  name: "pool0"
  type: "Pooling"
  bottom: "Sigmoid0"
  top: "pool0"
  pooling_param {
    pool: AVE
    kernel_size: 3
    stride: 2
  }
}
layer {
  name: "conv1"
  type: "Convolution"
  bottom: "pool0"
  top: "conv1"
  param {
    lr_mult: 1
  }
  param {
    lr_mult: 2
  }
  convolution_param {
    num_output: 72
    pad: 2
    kernel_size: 3
    stride: 1
    weight_filler {
      type: "gaussian"
      std: 0.01
    }
    bias_filler {
      type: "constant"
    }
  }
}
layer {
  name: "Sigmoid1"
  type: "Sigmoid"
  bottom: "conv1"
  top: "Sigmoid1"
}
layer {
  name: "pool1"
  type: "Pooling"
  bottom: "Sigmoid1"
  top: "pool1"
  pooling_param {
    pool: AVE
    kernel_size: 3
    stride: 2
  }
}
layer {
  name: "ip1"
  type: "InnerProduct"
  bottom: "pool1"
  top: "ip1"
  param {
    lr_mult: 1
  }
  param {
    lr_mult: 2
  }
  inner_product_param {
    num_output: 60
    weight_filler {
      type: "gaussian"
      std: 0.01
    }
    bias_filler {
      type: "constant"
    }
  }
}
layer {
  name: "relu1"
  type: "ReLU"
  bottom: "ip1"
  top: "ip1"
}
layer {
  name: "ip2"
  type: "InnerProduct"
  bottom: "ip1"
  top: "ip2"
  param {
    lr_mult: 1
  }
  param {
    lr_mult: 2
  }
  inner_product_param {
    num_output: 10
    weight_filler {
      type: "gaussian"
      std: 0.01
    }
    bias_filler {
      type: "constant"
    }
  }
}
layer {
  name: "relu2"
  type: "ReLU"
  bottom: "ip2"
  top: "ip2"
}
layer {
  name: "ip3"
  type: "InnerProduct"
  bottom: "ip2"
  top: "ip3"
  param {
    lr_mult: 1
  }
  param {
    lr_mult: 2
  }
  inner_product_param {
    num_output: 10
    weight_filler {
      type: "gaussian"
      std: 0.01
    }
    bias_filler {
      type: "constant"
    }
  }
}
layer {
  name: "loss"
  type: "SoftmaxWithLoss"
  bottom: "ip3"
  bottom: "label"
  top: "loss"
}
I0504 16:11:18.772052  8450 layer_factory.hpp:77] Creating layer cifar
I0504 16:11:18.772150  8450 db_lmdb.cpp:35] Opened lmdb examples/cifar10/cifar10_train_lmdb
I0504 16:11:18.772177  8450 net.cpp:86] Creating Layer cifar
I0504 16:11:18.772186  8450 net.cpp:382] cifar -> data
I0504 16:11:18.772208  8450 net.cpp:382] cifar -> label
I0504 16:11:18.772220  8450 data_transformer.cpp:25] Loading mean file from: examples/cifar10/mean.binaryproto
I0504 16:11:18.774382  8450 data_layer.cpp:45] output data size: 111,3,32,32
I0504 16:11:18.782444  8450 net.cpp:124] Setting up cifar
I0504 16:11:18.782464  8450 net.cpp:131] Top shape: 111 3 32 32 (340992)
I0504 16:11:18.782470  8450 net.cpp:131] Top shape: 111 (111)
I0504 16:11:18.782474  8450 net.cpp:139] Memory required for data: 1364412
I0504 16:11:18.782482  8450 layer_factory.hpp:77] Creating layer conv0
I0504 16:11:18.782500  8450 net.cpp:86] Creating Layer conv0
I0504 16:11:18.782505  8450 net.cpp:408] conv0 <- data
I0504 16:11:18.782517  8450 net.cpp:382] conv0 -> conv0
I0504 16:11:19.066167  8450 net.cpp:124] Setting up conv0
I0504 16:11:19.066195  8450 net.cpp:131] Top shape: 111 72 34 34 (9238752)
I0504 16:11:19.066198  8450 net.cpp:139] Memory required for data: 38319420
I0504 16:11:19.066213  8450 layer_factory.hpp:77] Creating layer Sigmoid0
I0504 16:11:19.066226  8450 net.cpp:86] Creating Layer Sigmoid0
I0504 16:11:19.066229  8450 net.cpp:408] Sigmoid0 <- conv0
I0504 16:11:19.066236  8450 net.cpp:382] Sigmoid0 -> Sigmoid0
I0504 16:11:19.066411  8450 net.cpp:124] Setting up Sigmoid0
I0504 16:11:19.066421  8450 net.cpp:131] Top shape: 111 72 34 34 (9238752)
I0504 16:11:19.066424  8450 net.cpp:139] Memory required for data: 75274428
I0504 16:11:19.066427  8450 layer_factory.hpp:77] Creating layer pool0
I0504 16:11:19.066433  8450 net.cpp:86] Creating Layer pool0
I0504 16:11:19.066437  8450 net.cpp:408] pool0 <- Sigmoid0
I0504 16:11:19.066442  8450 net.cpp:382] pool0 -> pool0
I0504 16:11:19.067191  8450 net.cpp:124] Setting up pool0
I0504 16:11:19.067204  8450 net.cpp:131] Top shape: 111 72 17 17 (2309688)
I0504 16:11:19.067209  8450 net.cpp:139] Memory required for data: 84513180
I0504 16:11:19.067211  8450 layer_factory.hpp:77] Creating layer conv1
I0504 16:11:19.067224  8450 net.cpp:86] Creating Layer conv1
I0504 16:11:19.067227  8450 net.cpp:408] conv1 <- pool0
I0504 16:11:19.067232  8450 net.cpp:382] conv1 -> conv1
I0504 16:11:19.072018  8450 net.cpp:124] Setting up conv1
I0504 16:11:19.072032  8450 net.cpp:131] Top shape: 111 72 19 19 (2885112)
I0504 16:11:19.072036  8450 net.cpp:139] Memory required for data: 96053628
I0504 16:11:19.072044  8450 layer_factory.hpp:77] Creating layer Sigmoid1
I0504 16:11:19.072051  8450 net.cpp:86] Creating Layer Sigmoid1
I0504 16:11:19.072053  8450 net.cpp:408] Sigmoid1 <- conv1
I0504 16:11:19.072058  8450 net.cpp:382] Sigmoid1 -> Sigmoid1
I0504 16:11:19.072233  8450 net.cpp:124] Setting up Sigmoid1
I0504 16:11:19.072242  8450 net.cpp:131] Top shape: 111 72 19 19 (2885112)
I0504 16:11:19.072245  8450 net.cpp:139] Memory required for data: 107594076
I0504 16:11:19.072249  8450 layer_factory.hpp:77] Creating layer pool1
I0504 16:11:19.072255  8450 net.cpp:86] Creating Layer pool1
I0504 16:11:19.072258  8450 net.cpp:408] pool1 <- Sigmoid1
I0504 16:11:19.072263  8450 net.cpp:382] pool1 -> pool1
I0504 16:11:19.072434  8450 net.cpp:124] Setting up pool1
I0504 16:11:19.072443  8450 net.cpp:131] Top shape: 111 72 9 9 (647352)
I0504 16:11:19.072446  8450 net.cpp:139] Memory required for data: 110183484
I0504 16:11:19.072449  8450 layer_factory.hpp:77] Creating layer ip1
I0504 16:11:19.072456  8450 net.cpp:86] Creating Layer ip1
I0504 16:11:19.072459  8450 net.cpp:408] ip1 <- pool1
I0504 16:11:19.072465  8450 net.cpp:382] ip1 -> ip1
I0504 16:11:19.082556  8450 net.cpp:124] Setting up ip1
I0504 16:11:19.082569  8450 net.cpp:131] Top shape: 111 60 (6660)
I0504 16:11:19.082572  8450 net.cpp:139] Memory required for data: 110210124
I0504 16:11:19.082581  8450 layer_factory.hpp:77] Creating layer relu1
I0504 16:11:19.082588  8450 net.cpp:86] Creating Layer relu1
I0504 16:11:19.082592  8450 net.cpp:408] relu1 <- ip1
I0504 16:11:19.082597  8450 net.cpp:369] relu1 -> ip1 (in-place)
I0504 16:11:19.082762  8450 net.cpp:124] Setting up relu1
I0504 16:11:19.082770  8450 net.cpp:131] Top shape: 111 60 (6660)
I0504 16:11:19.082788  8450 net.cpp:139] Memory required for data: 110236764
I0504 16:11:19.082792  8450 layer_factory.hpp:77] Creating layer ip2
I0504 16:11:19.082799  8450 net.cpp:86] Creating Layer ip2
I0504 16:11:19.082806  8450 net.cpp:408] ip2 <- ip1
I0504 16:11:19.082840  8450 net.cpp:382] ip2 -> ip2
I0504 16:11:19.082969  8450 net.cpp:124] Setting up ip2
I0504 16:11:19.082978  8450 net.cpp:131] Top shape: 111 10 (1110)
I0504 16:11:19.082981  8450 net.cpp:139] Memory required for data: 110241204
I0504 16:11:19.082986  8450 layer_factory.hpp:77] Creating layer relu2
I0504 16:11:19.082993  8450 net.cpp:86] Creating Layer relu2
I0504 16:11:19.082996  8450 net.cpp:408] relu2 <- ip2
I0504 16:11:19.083000  8450 net.cpp:369] relu2 -> ip2 (in-place)
I0504 16:11:19.083745  8450 net.cpp:124] Setting up relu2
I0504 16:11:19.083756  8450 net.cpp:131] Top shape: 111 10 (1110)
I0504 16:11:19.083760  8450 net.cpp:139] Memory required for data: 110245644
I0504 16:11:19.083762  8450 layer_factory.hpp:77] Creating layer ip3
I0504 16:11:19.083770  8450 net.cpp:86] Creating Layer ip3
I0504 16:11:19.083775  8450 net.cpp:408] ip3 <- ip2
I0504 16:11:19.083780  8450 net.cpp:382] ip3 -> ip3
I0504 16:11:19.083940  8450 net.cpp:124] Setting up ip3
I0504 16:11:19.083948  8450 net.cpp:131] Top shape: 111 10 (1110)
I0504 16:11:19.083951  8450 net.cpp:139] Memory required for data: 110250084
I0504 16:11:19.083961  8450 layer_factory.hpp:77] Creating layer loss
I0504 16:11:19.083967  8450 net.cpp:86] Creating Layer loss
I0504 16:11:19.083971  8450 net.cpp:408] loss <- ip3
I0504 16:11:19.083974  8450 net.cpp:408] loss <- label
I0504 16:11:19.083979  8450 net.cpp:382] loss -> loss
I0504 16:11:19.083997  8450 layer_factory.hpp:77] Creating layer loss
…
I0504 16:11:19.084735  8450 solver.cpp:173] Creating test net (#0) specified by net file: ECE595/cifar/train_test/var_everything_tiny/cifar_train_test_186.prototxt
I0504 16:11:19.084764  8450 net.cpp:296] The NetState phase (1) differed from the phase (0) specified by a rule in layer cifar
I0504 16:11:19.084915  8450 net.cpp:53] Initializing net from parameters: 
name: "CIFAR"
state {
  phase: TEST
}
layer {
  name: "cifar"
  type: "Data"
  top: "data"
  top: "label"
  include {
    phase: TEST
  }
  transform_param {
    mean_file: "examples/cifar10/mean.binaryproto"
  }
  data_param {
    source: "examples/cifar10/cifar10_test_lmdb"
    batch_size: 1000
    backend: LMDB
  }
}
layer {
  name: "conv0"
  type: "Convolution"
  bottom: "data"
  top: "conv0"
  param {
    lr_mult: 1
  }
  param {
    lr_mult: 2
  }
  convolution_param {
    num_output: 72
    pad: 2
    kernel_size: 3
    stride: 1
    weight_filler {
      type: "gaussian"
      std: 0.01
    }
    bias_filler {
      type: "constant"
    }
  }
}
layer {
  name: "Sigmoid0"
  type: "Sigmoid"
  bottom: "conv0"
  top: "Sigmoid0"
}
layer {
  name: "pool0"
  type: "Pooling"
  bottom: "Sigmoid0"
  top: "pool0"
  pooling_param {
    pool: AVE
    kernel_size: 3
    stride: 2
  }
}
layer {
  name: "conv1"
  type: "Convolution"
  bottom: "pool0"
  top: "conv1"
  param {
    lr_mult: 1
  }
  param {
    lr_mult: 2
  }
  convolution_param {
    num_output: 72
    pad: 2
    kernel_size: 3
    stride: 1
    weight_filler {
      type: "gaussian"
      std: 0.01
    }
    bias_filler {
      type: "constant"
    }
  }
}
layer {
  name: "Sigmoid1"
  type: "Sigmoid"
  bottom: "conv1"
  top: "Sigmoid1"
}
layer {
  name: "pool1"
  type: "Pooling"
  bottom: "Sigmoid1"
  top: "pool1"
  pooling_param {
    pool: AVE
    kernel_size: 3
    stride: 2
  }
}
layer {
  name: "ip1"
  type: "InnerProduct"
  bottom: "pool1"
  top: "ip1"
  param {
    lr_mult: 1
  }
  param {
    lr_mult: 2
  }
  inner_product_param {
    num_output: 60
    weight_filler {
      type: "gaussian"
      std: 0.01
    }
    bias_filler {
      type: "constant"
    }
  }
}
layer {
  name: "relu1"
  type: "ReLU"
  bottom: "ip1"
  top: "ip1"
}
layer {
  name: "ip2"
  type: "InnerProduct"
  bottom: "ip1"
  top: "ip2"
  param {
    lr_mult: 1
  }
  param {
    lr_mult: 2
  }
  inner_product_param {
    num_output: 10
    weight_filler {
      type: "gaussian"
      std: 0.01
    }
    bias_filler {
      type: "constant"
    }
  }
}
layer {
  name: "relu2"
  type: "ReLU"
  bottom: "ip2"
  top: "ip2"
}
layer {
  name: "ip3"
  type: "InnerProduct"
  bottom: "ip2"
  top: "ip3"
  param {
    lr_mult: 1
  }
  param {
    lr_mult: 2
  }
  inner_product_param {
    num_output: 10
    weight_filler {
      type: "gaussian"
      std: 0.01
    }
    bias_filler {
      type: "constant"
    }
  }
}
layer {
  name: "accuracy"
  type: "Accuracy"
  bottom: "ip3"
  bottom: "label"
  top: "accuracy"
  include {
    phase: TEST
  }
}
layer {
  name: "loss"
  type: "SoftmaxWithLoss"
  bottom: "ip3"
  bottom: "label"
  top: "loss"
}
I0504 16:11:19.085016  8450 layer_factory.hpp:77] Creating layer cifar
I0504 16:11:19.085065  8450 db_lmdb.cpp:35] Opened lmdb examples/cifar10/cifar10_test_lmdb
I0504 16:11:19.085078  8450 net.cpp:86] Creating Layer cifar
I0504 16:11:19.085085  8450 net.cpp:382] cifar -> data
I0504 16:11:19.085093  8450 net.cpp:382] cifar -> label
I0504 16:11:19.085099  8450 data_transformer.cpp:25] Loading mean file from: examples/cifar10/mean.binaryproto
I0504 16:11:19.085283  8450 data_layer.cpp:45] output data size: 1000,3,32,32
I0504 16:11:19.107481  8450 net.cpp:124] Setting up cifar
I0504 16:11:19.107522  8450 net.cpp:131] Top shape: 1000 3 32 32 (3072000)
I0504 16:11:19.107528  8450 net.cpp:131] Top shape: 1000 (1000)
I0504 16:11:19.107532  8450 net.cpp:139] Memory required for data: 12292000
I0504 16:11:19.107538  8450 layer_factory.hpp:77] Creating layer label_cifar_1_split
I0504 16:11:19.107550  8450 net.cpp:86] Creating Layer label_cifar_1_split
I0504 16:11:19.107554  8450 net.cpp:408] label_cifar_1_split <- label
I0504 16:11:19.107564  8450 net.cpp:382] label_cifar_1_split -> label_cifar_1_split_0
I0504 16:11:19.107573  8450 net.cpp:382] label_cifar_1_split -> label_cifar_1_split_1
I0504 16:11:19.107697  8450 net.cpp:124] Setting up label_cifar_1_split
I0504 16:11:19.107707  8450 net.cpp:131] Top shape: 1000 (1000)
I0504 16:11:19.107709  8450 net.cpp:131] Top shape: 1000 (1000)
I0504 16:11:19.107712  8450 net.cpp:139] Memory required for data: 12300000
I0504 16:11:19.107715  8450 layer_factory.hpp:77] Creating layer conv0
I0504 16:11:19.107731  8450 net.cpp:86] Creating Layer conv0
I0504 16:11:19.107734  8450 net.cpp:408] conv0 <- data
I0504 16:11:19.107740  8450 net.cpp:382] conv0 -> conv0
I0504 16:11:19.109534  8450 net.cpp:124] Setting up conv0
I0504 16:11:19.109565  8450 net.cpp:131] Top shape: 1000 72 34 34 (83232000)
I0504 16:11:19.109567  8450 net.cpp:139] Memory required for data: 345228000
I0504 16:11:19.109578  8450 layer_factory.hpp:77] Creating layer Sigmoid0
I0504 16:11:19.109586  8450 net.cpp:86] Creating Layer Sigmoid0
I0504 16:11:19.109588  8450 net.cpp:408] Sigmoid0 <- conv0
I0504 16:11:19.109594  8450 net.cpp:382] Sigmoid0 -> Sigmoid0
I0504 16:11:19.109810  8450 net.cpp:124] Setting up Sigmoid0
I0504 16:11:19.109832  8450 net.cpp:131] Top shape: 1000 72 34 34 (83232000)
I0504 16:11:19.109834  8450 net.cpp:139] Memory required for data: 678156000
I0504 16:11:19.109838  8450 layer_factory.hpp:77] Creating layer pool0
I0504 16:11:19.109846  8450 net.cpp:86] Creating Layer pool0
I0504 16:11:19.109850  8450 net.cpp:408] pool0 <- Sigmoid0
I0504 16:11:19.109854  8450 net.cpp:382] pool0 -> pool0
I0504 16:11:19.110047  8450 net.cpp:124] Setting up pool0
I0504 16:11:19.110056  8450 net.cpp:131] Top shape: 1000 72 17 17 (20808000)
I0504 16:11:19.110059  8450 net.cpp:139] Memory required for data: 761388000
I0504 16:11:19.110064  8450 layer_factory.hpp:77] Creating layer conv1
I0504 16:11:19.110074  8450 net.cpp:86] Creating Layer conv1
I0504 16:11:19.110077  8450 net.cpp:408] conv1 <- pool0
I0504 16:11:19.110083  8450 net.cpp:382] conv1 -> conv1
I0504 16:11:19.112941  8450 net.cpp:124] Setting up conv1
I0504 16:11:19.112972  8450 net.cpp:131] Top shape: 1000 72 19 19 (25992000)
I0504 16:11:19.112978  8450 net.cpp:139] Memory required for data: 865356000
I0504 16:11:19.112987  8450 layer_factory.hpp:77] Creating layer Sigmoid1
I0504 16:11:19.112995  8450 net.cpp:86] Creating Layer Sigmoid1
I0504 16:11:19.112999  8450 net.cpp:408] Sigmoid1 <- conv1
I0504 16:11:19.113004  8450 net.cpp:382] Sigmoid1 -> Sigmoid1
I0504 16:11:19.113253  8450 net.cpp:124] Setting up Sigmoid1
I0504 16:11:19.113263  8450 net.cpp:131] Top shape: 1000 72 19 19 (25992000)
I0504 16:11:19.113267  8450 net.cpp:139] Memory required for data: 969324000
I0504 16:11:19.113270  8450 layer_factory.hpp:77] Creating layer pool1
I0504 16:11:19.113277  8450 net.cpp:86] Creating Layer pool1
I0504 16:11:19.113296  8450 net.cpp:408] pool1 <- Sigmoid1
I0504 16:11:19.113302  8450 net.cpp:382] pool1 -> pool1
I0504 16:11:19.114104  8450 net.cpp:124] Setting up pool1
I0504 16:11:19.114115  8450 net.cpp:131] Top shape: 1000 72 9 9 (5832000)
I0504 16:11:19.114135  8450 net.cpp:139] Memory required for data: 992652000
I0504 16:11:19.114138  8450 layer_factory.hpp:77] Creating layer ip1
I0504 16:11:19.114150  8450 net.cpp:86] Creating Layer ip1
I0504 16:11:19.114152  8450 net.cpp:408] ip1 <- pool1
I0504 16:11:19.114157  8450 net.cpp:382] ip1 -> ip1
I0504 16:11:19.124707  8450 net.cpp:124] Setting up ip1
I0504 16:11:19.124735  8450 net.cpp:131] Top shape: 1000 60 (60000)
I0504 16:11:19.124739  8450 net.cpp:139] Memory required for data: 992892000
I0504 16:11:19.124747  8450 layer_factory.hpp:77] Creating layer relu1
I0504 16:11:19.124754  8450 net.cpp:86] Creating Layer relu1
I0504 16:11:19.124759  8450 net.cpp:408] relu1 <- ip1
I0504 16:11:19.124763  8450 net.cpp:369] relu1 -> ip1 (in-place)
I0504 16:11:19.125017  8450 net.cpp:124] Setting up relu1
I0504 16:11:19.125027  8450 net.cpp:131] Top shape: 1000 60 (60000)
I0504 16:11:19.125031  8450 net.cpp:139] Memory required for data: 993132000
I0504 16:11:19.125036  8450 layer_factory.hpp:77] Creating layer ip2
I0504 16:11:19.125043  8450 net.cpp:86] Creating Layer ip2
I0504 16:11:19.125047  8450 net.cpp:408] ip2 <- ip1
I0504 16:11:19.125052  8450 net.cpp:382] ip2 -> ip2
I0504 16:11:19.125236  8450 net.cpp:124] Setting up ip2
I0504 16:11:19.125243  8450 net.cpp:131] Top shape: 1000 10 (10000)
I0504 16:11:19.125247  8450 net.cpp:139] Memory required for data: 993172000
I0504 16:11:19.125252  8450 layer_factory.hpp:77] Creating layer relu2
I0504 16:11:19.125268  8450 net.cpp:86] Creating Layer relu2
I0504 16:11:19.125272  8450 net.cpp:408] relu2 <- ip2
I0504 16:11:19.125277  8450 net.cpp:369] relu2 -> ip2 (in-place)
I0504 16:11:19.125447  8450 net.cpp:124] Setting up relu2
I0504 16:11:19.125455  8450 net.cpp:131] Top shape: 1000 10 (10000)
I0504 16:11:19.125459  8450 net.cpp:139] Memory required for data: 993212000
I0504 16:11:19.125463  8450 layer_factory.hpp:77] Creating layer ip3
I0504 16:11:19.125469  8450 net.cpp:86] Creating Layer ip3
I0504 16:11:19.125473  8450 net.cpp:408] ip3 <- ip2
I0504 16:11:19.125478  8450 net.cpp:382] ip3 -> ip3
I0504 16:11:19.125603  8450 net.cpp:124] Setting up ip3
I0504 16:11:19.125612  8450 net.cpp:131] Top shape: 1000 10 (10000)
I0504 16:11:19.125625  8450 net.cpp:139] Memory required for data: 993252000
I0504 16:11:19.125633  8450 layer_factory.hpp:77] Creating layer ip3_ip3_0_split
I0504 16:11:19.125639  8450 net.cpp:86] Creating Layer ip3_ip3_0_split
I0504 16:11:19.125643  8450 net.cpp:408] ip3_ip3_0_split <- ip3
I0504 16:11:19.125646  8450 net.cpp:382] ip3_ip3_0_split -> ip3_ip3_0_split_0
I0504 16:11:19.125651  8450 net.cpp:382] ip3_ip3_0_split -> ip3_ip3_0_split_1
I0504 16:11:19.125686  8450 net.cpp:124] Setting up ip3_ip3_0_split
I0504 16:11:19.125694  8450 net.cpp:131] Top shape: 1000 10 (10000)
I0504 16:11:19.125697  8450 net.cpp:131] Top shape: 1000 10 (10000)
I0504 16:11:19.125700  8450 net.cpp:139] Memory required for data: 993332000
I0504 16:11:19.125704  8450 layer_factory.hpp:77] Creating layer accuracy
I0504 16:11:19.125710  8450 net.cpp:86] Creating Layer accuracy
I0504 16:11:19.125713  8450 net.cpp:408] accuracy <- ip3_ip3_0_split_0
I0504 16:11:19.125717  8450 net.cpp:408] accuracy <- label_cifar_1_split_0
I0504 16:11:19.125721  8450 net.cpp:382] accuracy -> accuracy
…
