…
I0504 00:52:55.212090  6294 net.cpp:296] The NetState phase (0) differed from the phase (1) specified by a rule in layer cifar
I0504 00:52:55.212112  6294 net.cpp:296] The NetState phase (0) differed from the phase (1) specified by a rule in layer accuracy
I0504 00:52:55.212214  6294 net.cpp:53] Initializing net from parameters: 
name: "CIFAR"
state {
  phase: TRAIN
  level: 0
  stage: ""
}
layer {
  name: "cifar"
  type: "Data"
  top: "data"
  top: "label"
  include {
    phase: TRAIN
  }
  transform_param {
    mean_file: "examples/cifar10/mean.binaryproto"
  }
  data_param {
    source: "examples/cifar10/cifar10_train_lmdb"
    batch_size: 111
    backend: LMDB
  }
}
layer {
  name: "conv0"
  type: "Convolution"
  bottom: "data"
  top: "conv0"
  param {
    lr_mult: 1
  }
  param {
    lr_mult: 2
  }
  convolution_param {
    num_output: 72
    pad: 2
    kernel_size: 3
    stride: 1
    weight_filler {
      type: "gaussian"
      std: 0.01
    }
    bias_filler {
      type: "constant"
    }
  }
}
layer {
  name: "Sigmoid0"
  type: "Sigmoid"
  bottom: "conv0"
  top: "Sigmoid0"
}
layer {
  name: "pool0"
  type: "Pooling"
  bottom: "Sigmoid0"
  top: "pool0"
  pooling_param {
    pool: AVE
    kernel_size: 3
    stride: 2
  }
}
layer {
  name: "ip1"
  type: "InnerProduct"
  bottom: "pool0"
  top: "ip1"
  param {
    lr_mult: 1
  }
  param {
    lr_mult: 2
  }
  inner_product_param {
    num_output: 10
    weight_filler {
      type: "gaussian"
      std: 0.01
    }
    bias_filler {
      type: "constant"
    }
  }
}
layer {
  name: "relu1"
  type: "ReLU"
  bottom: "ip1"
  top: "ip1"
}
layer {
  name: "ip2"
  type: "InnerProduct"
  bottom: "ip1"
  top: "ip2"
  param {
    lr_mult: 1
  }
  param {
    lr_mult: 2
  }
  inner_product_param {
    num_output: 10
    weight_filler {
      type: "gaussian"
      std: 0.01
    }
    bias_filler {
      type: "constant"
    }
  }
}
layer {
  name: "relu2"
  type: "ReLU"
  bottom: "ip2"
  top: "ip2"
}
layer {
  name: "ip3"
  type: "InnerProduct"
  bottom: "ip2"
  top: "ip3"
  param {
    lr_mult: 1
  }
  param {
    lr_mult: 2
  }
  inner_product_param {
    num_output: 10
    weight_filler {
      type: "gaussian"
      std: 0.01
    }
    bias_filler {
      type: "constant"
    }
  }
}
layer {
  name: "loss"
  type: "SoftmaxWithLoss"
  bottom: "ip3"
  bottom: "label"
  top: "loss"
}
I0504 00:52:55.212321  6294 layer_factory.hpp:77] Creating layer cifar
I0504 00:52:55.212455  6294 db_lmdb.cpp:35] Opened lmdb examples/cifar10/cifar10_train_lmdb
I0504 00:52:55.212491  6294 net.cpp:86] Creating Layer cifar
I0504 00:52:55.212507  6294 net.cpp:382] cifar -> data
I0504 00:52:55.212537  6294 net.cpp:382] cifar -> label
I0504 00:52:55.212553  6294 data_transformer.cpp:25] Loading mean file from: examples/cifar10/mean.binaryproto
I0504 00:52:55.214856  6294 data_layer.cpp:45] output data size: 111,3,32,32
I0504 00:52:55.222770  6294 net.cpp:124] Setting up cifar
I0504 00:52:55.222796  6294 net.cpp:131] Top shape: 111 3 32 32 (340992)
I0504 00:52:55.222807  6294 net.cpp:131] Top shape: 111 (111)
I0504 00:52:55.222813  6294 net.cpp:139] Memory required for data: 1364412
I0504 00:52:55.222826  6294 layer_factory.hpp:77] Creating layer conv0
I0504 00:52:55.222852  6294 net.cpp:86] Creating Layer conv0
I0504 00:52:55.222863  6294 net.cpp:408] conv0 <- data
I0504 00:52:55.222882  6294 net.cpp:382] conv0 -> conv0
I0504 00:52:55.513767  6294 net.cpp:124] Setting up conv0
I0504 00:52:55.513818  6294 net.cpp:131] Top shape: 111 72 34 34 (9238752)
I0504 00:52:55.513825  6294 net.cpp:139] Memory required for data: 38319420
I0504 00:52:55.513849  6294 layer_factory.hpp:77] Creating layer Sigmoid0
I0504 00:52:55.513866  6294 net.cpp:86] Creating Layer Sigmoid0
I0504 00:52:55.513880  6294 net.cpp:408] Sigmoid0 <- conv0
I0504 00:52:55.513891  6294 net.cpp:382] Sigmoid0 -> Sigmoid0
I0504 00:52:55.514111  6294 net.cpp:124] Setting up Sigmoid0
I0504 00:52:55.514127  6294 net.cpp:131] Top shape: 111 72 34 34 (9238752)
I0504 00:52:55.514132  6294 net.cpp:139] Memory required for data: 75274428
I0504 00:52:55.514138  6294 layer_factory.hpp:77] Creating layer pool0
I0504 00:52:55.514148  6294 net.cpp:86] Creating Layer pool0
I0504 00:52:55.514154  6294 net.cpp:408] pool0 <- Sigmoid0
I0504 00:52:55.514163  6294 net.cpp:382] pool0 -> pool0
I0504 00:52:55.515008  6294 net.cpp:124] Setting up pool0
I0504 00:52:55.515025  6294 net.cpp:131] Top shape: 111 72 17 17 (2309688)
I0504 00:52:55.515031  6294 net.cpp:139] Memory required for data: 84513180
I0504 00:52:55.515038  6294 layer_factory.hpp:77] Creating layer ip1
I0504 00:52:55.515051  6294 net.cpp:86] Creating Layer ip1
I0504 00:52:55.515058  6294 net.cpp:408] ip1 <- pool0
I0504 00:52:55.515069  6294 net.cpp:382] ip1 -> ip1
I0504 00:52:55.522188  6294 net.cpp:124] Setting up ip1
I0504 00:52:55.522203  6294 net.cpp:131] Top shape: 111 10 (1110)
I0504 00:52:55.522209  6294 net.cpp:139] Memory required for data: 84517620
I0504 00:52:55.522222  6294 layer_factory.hpp:77] Creating layer relu1
I0504 00:52:55.522233  6294 net.cpp:86] Creating Layer relu1
I0504 00:52:55.522238  6294 net.cpp:408] relu1 <- ip1
I0504 00:52:55.522248  6294 net.cpp:369] relu1 -> ip1 (in-place)
I0504 00:52:55.522434  6294 net.cpp:124] Setting up relu1
I0504 00:52:55.522445  6294 net.cpp:131] Top shape: 111 10 (1110)
I0504 00:52:55.522450  6294 net.cpp:139] Memory required for data: 84522060
I0504 00:52:55.522456  6294 layer_factory.hpp:77] Creating layer ip2
I0504 00:52:55.522469  6294 net.cpp:86] Creating Layer ip2
I0504 00:52:55.522475  6294 net.cpp:408] ip2 <- ip1
I0504 00:52:55.522483  6294 net.cpp:382] ip2 -> ip2
I0504 00:52:55.522603  6294 net.cpp:124] Setting up ip2
I0504 00:52:55.522611  6294 net.cpp:131] Top shape: 111 10 (1110)
I0504 00:52:55.522616  6294 net.cpp:139] Memory required for data: 84526500
I0504 00:52:55.522629  6294 layer_factory.hpp:77] Creating layer relu2
I0504 00:52:55.522640  6294 net.cpp:86] Creating Layer relu2
I0504 00:52:55.522646  6294 net.cpp:408] relu2 <- ip2
I0504 00:52:55.522653  6294 net.cpp:369] relu2 -> ip2 (in-place)
I0504 00:52:55.522835  6294 net.cpp:124] Setting up relu2
I0504 00:52:55.522846  6294 net.cpp:131] Top shape: 111 10 (1110)
I0504 00:52:55.522851  6294 net.cpp:139] Memory required for data: 84530940
I0504 00:52:55.522856  6294 layer_factory.hpp:77] Creating layer ip3
I0504 00:52:55.522871  6294 net.cpp:86] Creating Layer ip3
I0504 00:52:55.522876  6294 net.cpp:408] ip3 <- ip2
I0504 00:52:55.522886  6294 net.cpp:382] ip3 -> ip3
I0504 00:52:55.523000  6294 net.cpp:124] Setting up ip3
I0504 00:52:55.523011  6294 net.cpp:131] Top shape: 111 10 (1110)
I0504 00:52:55.523016  6294 net.cpp:139] Memory required for data: 84535380
I0504 00:52:55.523025  6294 layer_factory.hpp:77] Creating layer loss
I0504 00:52:55.523035  6294 net.cpp:86] Creating Layer loss
I0504 00:52:55.523039  6294 net.cpp:408] loss <- ip3
I0504 00:52:55.523046  6294 net.cpp:408] loss <- label
I0504 00:52:55.523056  6294 net.cpp:382] loss -> loss
I0504 00:52:55.523080  6294 layer_factory.hpp:77] Creating layer loss
…
I0504 00:52:55.523787  6294 solver.cpp:173] Creating test net (#0) specified by net file: ECE595/cifar/train_test/var_everything_tiny/cifar_train_test_27.prototxt
I0504 00:52:55.523823  6294 net.cpp:296] The NetState phase (1) differed from the phase (0) specified by a rule in layer cifar
I0504 00:52:55.523926  6294 net.cpp:53] Initializing net from parameters: 
name: "CIFAR"
state {
  phase: TEST
}
layer {
  name: "cifar"
  type: "Data"
  top: "data"
  top: "label"
  include {
    phase: TEST
  }
  transform_param {
    mean_file: "examples/cifar10/mean.binaryproto"
  }
  data_param {
    source: "examples/cifar10/cifar10_test_lmdb"
    batch_size: 1000
    backend: LMDB
  }
}
layer {
  name: "conv0"
  type: "Convolution"
  bottom: "data"
  top: "conv0"
  param {
    lr_mult: 1
  }
  param {
    lr_mult: 2
  }
  convolution_param {
    num_output: 72
    pad: 2
    kernel_size: 3
    stride: 1
    weight_filler {
      type: "gaussian"
      std: 0.01
    }
    bias_filler {
      type: "constant"
    }
  }
}
layer {
  name: "Sigmoid0"
  type: "Sigmoid"
  bottom: "conv0"
  top: "Sigmoid0"
}
layer {
  name: "pool0"
  type: "Pooling"
  bottom: "Sigmoid0"
  top: "pool0"
  pooling_param {
    pool: AVE
    kernel_size: 3
    stride: 2
  }
}
layer {
  name: "ip1"
  type: "InnerProduct"
  bottom: "pool0"
  top: "ip1"
  param {
    lr_mult: 1
  }
  param {
    lr_mult: 2
  }
  inner_product_param {
    num_output: 10
    weight_filler {
      type: "gaussian"
      std: 0.01
    }
    bias_filler {
      type: "constant"
    }
  }
}
layer {
  name: "relu1"
  type: "ReLU"
  bottom: "ip1"
  top: "ip1"
}
layer {
  name: "ip2"
  type: "InnerProduct"
  bottom: "ip1"
  top: "ip2"
  param {
    lr_mult: 1
  }
  param {
    lr_mult: 2
  }
  inner_product_param {
    num_output: 10
    weight_filler {
      type: "gaussian"
      std: 0.01
    }
    bias_filler {
      type: "constant"
    }
  }
}
layer {
  name: "relu2"
  type: "ReLU"
  bottom: "ip2"
  top: "ip2"
}
layer {
  name: "ip3"
  type: "InnerProduct"
  bottom: "ip2"
  top: "ip3"
  param {
    lr_mult: 1
  }
  param {
    lr_mult: 2
  }
  inner_product_param {
    num_output: 10
    weight_filler {
      type: "gaussian"
      std: 0.01
    }
    bias_filler {
      type: "constant"
    }
  }
}
layer {
  name: "accuracy"
  type: "Accuracy"
  bottom: "ip3"
  bottom: "label"
  top: "accuracy"
  include {
    phase: TEST
  }
}
layer {
  name: "loss"
  type: "SoftmaxWithLoss"
  bottom: "ip3"
  bottom: "label"
  top: "loss"
}
I0504 00:52:55.524035  6294 layer_factory.hpp:77] Creating layer cifar
I0504 00:52:55.524099  6294 db_lmdb.cpp:35] Opened lmdb examples/cifar10/cifar10_test_lmdb
I0504 00:52:55.524117  6294 net.cpp:86] Creating Layer cifar
I0504 00:52:55.524127  6294 net.cpp:382] cifar -> data
I0504 00:52:55.524139  6294 net.cpp:382] cifar -> label
I0504 00:52:55.524149  6294 data_transformer.cpp:25] Loading mean file from: examples/cifar10/mean.binaryproto
I0504 00:52:55.524381  6294 data_layer.cpp:45] output data size: 1000,3,32,32
I0504 00:52:55.547989  6294 net.cpp:124] Setting up cifar
I0504 00:52:55.548017  6294 net.cpp:131] Top shape: 1000 3 32 32 (3072000)
I0504 00:52:55.548024  6294 net.cpp:131] Top shape: 1000 (1000)
I0504 00:52:55.548028  6294 net.cpp:139] Memory required for data: 12292000
I0504 00:52:55.548036  6294 layer_factory.hpp:77] Creating layer label_cifar_1_split
I0504 00:52:55.548056  6294 net.cpp:86] Creating Layer label_cifar_1_split
I0504 00:52:55.548085  6294 net.cpp:408] label_cifar_1_split <- label
I0504 00:52:55.548095  6294 net.cpp:382] label_cifar_1_split -> label_cifar_1_split_0
I0504 00:52:55.548115  6294 net.cpp:382] label_cifar_1_split -> label_cifar_1_split_1
I0504 00:52:55.548187  6294 net.cpp:124] Setting up label_cifar_1_split
I0504 00:52:55.548197  6294 net.cpp:131] Top shape: 1000 (1000)
I0504 00:52:55.548203  6294 net.cpp:131] Top shape: 1000 (1000)
I0504 00:52:55.548208  6294 net.cpp:139] Memory required for data: 12300000
I0504 00:52:55.548213  6294 layer_factory.hpp:77] Creating layer conv0
I0504 00:52:55.548234  6294 net.cpp:86] Creating Layer conv0
I0504 00:52:55.548240  6294 net.cpp:408] conv0 <- data
I0504 00:52:55.548249  6294 net.cpp:382] conv0 -> conv0
I0504 00:52:55.549803  6294 net.cpp:124] Setting up conv0
I0504 00:52:55.549819  6294 net.cpp:131] Top shape: 1000 72 34 34 (83232000)
I0504 00:52:55.549824  6294 net.cpp:139] Memory required for data: 345228000
I0504 00:52:55.549841  6294 layer_factory.hpp:77] Creating layer Sigmoid0
I0504 00:52:55.549852  6294 net.cpp:86] Creating Layer Sigmoid0
I0504 00:52:55.549862  6294 net.cpp:408] Sigmoid0 <- conv0
I0504 00:52:55.549872  6294 net.cpp:382] Sigmoid0 -> Sigmoid0
I0504 00:52:55.550758  6294 net.cpp:124] Setting up Sigmoid0
I0504 00:52:55.550772  6294 net.cpp:131] Top shape: 1000 72 34 34 (83232000)
I0504 00:52:55.550777  6294 net.cpp:139] Memory required for data: 678156000
I0504 00:52:55.550783  6294 layer_factory.hpp:77] Creating layer pool0
I0504 00:52:55.550797  6294 net.cpp:86] Creating Layer pool0
I0504 00:52:55.550803  6294 net.cpp:408] pool0 <- Sigmoid0
I0504 00:52:55.550812  6294 net.cpp:382] pool0 -> pool0
I0504 00:52:55.551949  6294 net.cpp:124] Setting up pool0
I0504 00:52:55.551962  6294 net.cpp:131] Top shape: 1000 72 17 17 (20808000)
I0504 00:52:55.551967  6294 net.cpp:139] Memory required for data: 761388000
I0504 00:52:55.551972  6294 layer_factory.hpp:77] Creating layer ip1
I0504 00:52:55.551986  6294 net.cpp:86] Creating Layer ip1
I0504 00:52:55.551992  6294 net.cpp:408] ip1 <- pool0
I0504 00:52:55.552003  6294 net.cpp:382] ip1 -> ip1
I0504 00:52:55.557670  6294 net.cpp:124] Setting up ip1
I0504 00:52:55.557682  6294 net.cpp:131] Top shape: 1000 10 (10000)
I0504 00:52:55.557687  6294 net.cpp:139] Memory required for data: 761428000
I0504 00:52:55.557698  6294 layer_factory.hpp:77] Creating layer relu1
I0504 00:52:55.557708  6294 net.cpp:86] Creating Layer relu1
I0504 00:52:55.557713  6294 net.cpp:408] relu1 <- ip1
I0504 00:52:55.557719  6294 net.cpp:369] relu1 -> ip1 (in-place)
I0504 00:52:55.557886  6294 net.cpp:124] Setting up relu1
I0504 00:52:55.557898  6294 net.cpp:131] Top shape: 1000 10 (10000)
I0504 00:52:55.557903  6294 net.cpp:139] Memory required for data: 761468000
I0504 00:52:55.557907  6294 layer_factory.hpp:77] Creating layer ip2
I0504 00:52:55.557916  6294 net.cpp:86] Creating Layer ip2
I0504 00:52:55.557921  6294 net.cpp:408] ip2 <- ip1
I0504 00:52:55.557934  6294 net.cpp:382] ip2 -> ip2
I0504 00:52:55.558050  6294 net.cpp:124] Setting up ip2
I0504 00:52:55.558060  6294 net.cpp:131] Top shape: 1000 10 (10000)
I0504 00:52:55.558064  6294 net.cpp:139] Memory required for data: 761508000
I0504 00:52:55.558075  6294 layer_factory.hpp:77] Creating layer relu2
I0504 00:52:55.558084  6294 net.cpp:86] Creating Layer relu2
I0504 00:52:55.558089  6294 net.cpp:408] relu2 <- ip2
I0504 00:52:55.558097  6294 net.cpp:369] relu2 -> ip2 (in-place)
I0504 00:52:55.558262  6294 net.cpp:124] Setting up relu2
I0504 00:52:55.558272  6294 net.cpp:131] Top shape: 1000 10 (10000)
I0504 00:52:55.558277  6294 net.cpp:139] Memory required for data: 761548000
I0504 00:52:55.558282  6294 layer_factory.hpp:77] Creating layer ip3
I0504 00:52:55.558293  6294 net.cpp:86] Creating Layer ip3
I0504 00:52:55.558298  6294 net.cpp:408] ip3 <- ip2
I0504 00:52:55.558306  6294 net.cpp:382] ip3 -> ip3
I0504 00:52:55.558418  6294 net.cpp:124] Setting up ip3
I0504 00:52:55.558428  6294 net.cpp:131] Top shape: 1000 10 (10000)
I0504 00:52:55.558449  6294 net.cpp:139] Memory required for data: 761588000
I0504 00:52:55.558457  6294 layer_factory.hpp:77] Creating layer ip3_ip3_0_split
I0504 00:52:55.558465  6294 net.cpp:86] Creating Layer ip3_ip3_0_split
I0504 00:52:55.558471  6294 net.cpp:408] ip3_ip3_0_split <- ip3
I0504 00:52:55.558482  6294 net.cpp:382] ip3_ip3_0_split -> ip3_ip3_0_split_0
I0504 00:52:55.558495  6294 net.cpp:382] ip3_ip3_0_split -> ip3_ip3_0_split_1
I0504 00:52:55.558535  6294 net.cpp:124] Setting up ip3_ip3_0_split
I0504 00:52:55.558543  6294 net.cpp:131] Top shape: 1000 10 (10000)
I0504 00:52:55.558549  6294 net.cpp:131] Top shape: 1000 10 (10000)
I0504 00:52:55.558553  6294 net.cpp:139] Memory required for data: 761668000
I0504 00:52:55.558558  6294 layer_factory.hpp:77] Creating layer accuracy
I0504 00:52:55.558568  6294 net.cpp:86] Creating Layer accuracy
I0504 00:52:55.558573  6294 net.cpp:408] accuracy <- ip3_ip3_0_split_0
I0504 00:52:55.558580  6294 net.cpp:408] accuracy <- label_cifar_1_split_0
I0504 00:52:55.558588  6294 net.cpp:382] accuracy -> accuracy
…
