…
I0504 01:12:46.394522  6955 net.cpp:296] The NetState phase (0) differed from the phase (1) specified by a rule in layer cifar
I0504 01:12:46.394544  6955 net.cpp:296] The NetState phase (0) differed from the phase (1) specified by a rule in layer accuracy
I0504 01:12:46.394645  6955 net.cpp:53] Initializing net from parameters: 
name: "CIFAR"
state {
  phase: TRAIN
  level: 0
  stage: ""
}
layer {
  name: "cifar"
  type: "Data"
  top: "data"
  top: "label"
  include {
    phase: TRAIN
  }
  transform_param {
    mean_file: "examples/cifar10/mean.binaryproto"
  }
  data_param {
    source: "examples/cifar10/cifar10_train_lmdb"
    batch_size: 111
    backend: LMDB
  }
}
layer {
  name: "conv0"
  type: "Convolution"
  bottom: "data"
  top: "conv0"
  param {
    lr_mult: 1
  }
  param {
    lr_mult: 2
  }
  convolution_param {
    num_output: 72
    pad: 2
    kernel_size: 3
    stride: 1
    weight_filler {
      type: "gaussian"
      std: 0.01
    }
    bias_filler {
      type: "constant"
    }
  }
}
layer {
  name: "Sigmoid0"
  type: "Sigmoid"
  bottom: "conv0"
  top: "Sigmoid0"
}
layer {
  name: "pool0"
  type: "Pooling"
  bottom: "Sigmoid0"
  top: "pool0"
  pooling_param {
    pool: AVE
    kernel_size: 3
    stride: 2
  }
}
layer {
  name: "ip1"
  type: "InnerProduct"
  bottom: "pool0"
  top: "ip1"
  param {
    lr_mult: 1
  }
  param {
    lr_mult: 2
  }
  inner_product_param {
    num_output: 60
    weight_filler {
      type: "gaussian"
      std: 0.01
    }
    bias_filler {
      type: "constant"
    }
  }
}
layer {
  name: "relu1"
  type: "ReLU"
  bottom: "ip1"
  top: "ip1"
}
layer {
  name: "ip2"
  type: "InnerProduct"
  bottom: "ip1"
  top: "ip2"
  param {
    lr_mult: 1
  }
  param {
    lr_mult: 2
  }
  inner_product_param {
    num_output: 60
    weight_filler {
      type: "gaussian"
      std: 0.01
    }
    bias_filler {
      type: "constant"
    }
  }
}
layer {
  name: "relu2"
  type: "ReLU"
  bottom: "ip2"
  top: "ip2"
}
layer {
  name: "ip3"
  type: "InnerProduct"
  bottom: "ip2"
  top: "ip3"
  param {
    lr_mult: 1
  }
  param {
    lr_mult: 2
  }
  inner_product_param {
    num_output: 10
    weight_filler {
      type: "gaussian"
      std: 0.01
    }
    bias_filler {
      type: "constant"
    }
  }
}
layer {
  name: "loss"
  type: "SoftmaxWithLoss"
  bottom: "ip3"
  bottom: "label"
  top: "loss"
}
I0504 01:12:46.394721  6955 layer_factory.hpp:77] Creating layer cifar
I0504 01:12:46.394825  6955 db_lmdb.cpp:35] Opened lmdb examples/cifar10/cifar10_train_lmdb
I0504 01:12:46.394856  6955 net.cpp:86] Creating Layer cifar
I0504 01:12:46.394868  6955 net.cpp:382] cifar -> data
I0504 01:12:46.394893  6955 net.cpp:382] cifar -> label
I0504 01:12:46.394906  6955 data_transformer.cpp:25] Loading mean file from: examples/cifar10/mean.binaryproto
I0504 01:12:46.397017  6955 data_layer.cpp:45] output data size: 111,3,32,32
I0504 01:12:46.405103  6955 net.cpp:124] Setting up cifar
I0504 01:12:46.405124  6955 net.cpp:131] Top shape: 111 3 32 32 (340992)
I0504 01:12:46.405130  6955 net.cpp:131] Top shape: 111 (111)
I0504 01:12:46.405134  6955 net.cpp:139] Memory required for data: 1364412
I0504 01:12:46.405143  6955 layer_factory.hpp:77] Creating layer conv0
I0504 01:12:46.405164  6955 net.cpp:86] Creating Layer conv0
I0504 01:12:46.405169  6955 net.cpp:408] conv0 <- data
I0504 01:12:46.405182  6955 net.cpp:382] conv0 -> conv0
I0504 01:12:46.681380  6955 net.cpp:124] Setting up conv0
I0504 01:12:46.681428  6955 net.cpp:131] Top shape: 111 72 34 34 (9238752)
I0504 01:12:46.681433  6955 net.cpp:139] Memory required for data: 38319420
I0504 01:12:46.681449  6955 layer_factory.hpp:77] Creating layer Sigmoid0
I0504 01:12:46.681460  6955 net.cpp:86] Creating Layer Sigmoid0
I0504 01:12:46.681464  6955 net.cpp:408] Sigmoid0 <- conv0
I0504 01:12:46.681484  6955 net.cpp:382] Sigmoid0 -> Sigmoid0
I0504 01:12:46.681669  6955 net.cpp:124] Setting up Sigmoid0
I0504 01:12:46.681679  6955 net.cpp:131] Top shape: 111 72 34 34 (9238752)
I0504 01:12:46.681682  6955 net.cpp:139] Memory required for data: 75274428
I0504 01:12:46.681685  6955 layer_factory.hpp:77] Creating layer pool0
I0504 01:12:46.681692  6955 net.cpp:86] Creating Layer pool0
I0504 01:12:46.681695  6955 net.cpp:408] pool0 <- Sigmoid0
I0504 01:12:46.681700  6955 net.cpp:382] pool0 -> pool0
I0504 01:12:46.682394  6955 net.cpp:124] Setting up pool0
I0504 01:12:46.682405  6955 net.cpp:131] Top shape: 111 72 17 17 (2309688)
I0504 01:12:46.682409  6955 net.cpp:139] Memory required for data: 84513180
I0504 01:12:46.682412  6955 layer_factory.hpp:77] Creating layer ip1
I0504 01:12:46.682421  6955 net.cpp:86] Creating Layer ip1
I0504 01:12:46.682425  6955 net.cpp:408] ip1 <- pool0
I0504 01:12:46.682430  6955 net.cpp:382] ip1 -> ip1
I0504 01:12:46.714833  6955 net.cpp:124] Setting up ip1
I0504 01:12:46.714844  6955 net.cpp:131] Top shape: 111 60 (6660)
I0504 01:12:46.714848  6955 net.cpp:139] Memory required for data: 84539820
I0504 01:12:46.714855  6955 layer_factory.hpp:77] Creating layer relu1
I0504 01:12:46.714861  6955 net.cpp:86] Creating Layer relu1
I0504 01:12:46.714864  6955 net.cpp:408] relu1 <- ip1
I0504 01:12:46.714869  6955 net.cpp:369] relu1 -> ip1 (in-place)
I0504 01:12:46.715044  6955 net.cpp:124] Setting up relu1
I0504 01:12:46.715052  6955 net.cpp:131] Top shape: 111 60 (6660)
I0504 01:12:46.715055  6955 net.cpp:139] Memory required for data: 84566460
I0504 01:12:46.715059  6955 layer_factory.hpp:77] Creating layer ip2
I0504 01:12:46.715065  6955 net.cpp:86] Creating Layer ip2
I0504 01:12:46.715068  6955 net.cpp:408] ip2 <- ip1
I0504 01:12:46.715072  6955 net.cpp:382] ip2 -> ip2
I0504 01:12:46.715257  6955 net.cpp:124] Setting up ip2
I0504 01:12:46.715265  6955 net.cpp:131] Top shape: 111 60 (6660)
I0504 01:12:46.715266  6955 net.cpp:139] Memory required for data: 84593100
I0504 01:12:46.715273  6955 layer_factory.hpp:77] Creating layer relu2
I0504 01:12:46.715278  6955 net.cpp:86] Creating Layer relu2
I0504 01:12:46.715281  6955 net.cpp:408] relu2 <- ip2
I0504 01:12:46.715286  6955 net.cpp:369] relu2 -> ip2 (in-place)
I0504 01:12:46.715437  6955 net.cpp:124] Setting up relu2
I0504 01:12:46.715445  6955 net.cpp:131] Top shape: 111 60 (6660)
I0504 01:12:46.715447  6955 net.cpp:139] Memory required for data: 84619740
I0504 01:12:46.715451  6955 layer_factory.hpp:77] Creating layer ip3
I0504 01:12:46.715456  6955 net.cpp:86] Creating Layer ip3
I0504 01:12:46.715459  6955 net.cpp:408] ip3 <- ip2
I0504 01:12:46.715464  6955 net.cpp:382] ip3 -> ip3
I0504 01:12:46.716388  6955 net.cpp:124] Setting up ip3
I0504 01:12:46.716400  6955 net.cpp:131] Top shape: 111 10 (1110)
I0504 01:12:46.716420  6955 net.cpp:139] Memory required for data: 84624180
I0504 01:12:46.716425  6955 layer_factory.hpp:77] Creating layer loss
I0504 01:12:46.716446  6955 net.cpp:86] Creating Layer loss
I0504 01:12:46.716449  6955 net.cpp:408] loss <- ip3
I0504 01:12:46.716467  6955 net.cpp:408] loss <- label
I0504 01:12:46.716473  6955 net.cpp:382] loss -> loss
I0504 01:12:46.716491  6955 layer_factory.hpp:77] Creating layer loss
…
I0504 01:12:46.717142  6955 solver.cpp:173] Creating test net (#0) specified by net file: ECE595/cifar/train_test/var_everything_tiny/cifar_train_test_31.prototxt
I0504 01:12:46.717198  6955 net.cpp:296] The NetState phase (1) differed from the phase (0) specified by a rule in layer cifar
I0504 01:12:46.717309  6955 net.cpp:53] Initializing net from parameters: 
name: "CIFAR"
state {
  phase: TEST
}
layer {
  name: "cifar"
  type: "Data"
  top: "data"
  top: "label"
  include {
    phase: TEST
  }
  transform_param {
    mean_file: "examples/cifar10/mean.binaryproto"
  }
  data_param {
    source: "examples/cifar10/cifar10_test_lmdb"
    batch_size: 1000
    backend: LMDB
  }
}
layer {
  name: "conv0"
  type: "Convolution"
  bottom: "data"
  top: "conv0"
  param {
    lr_mult: 1
  }
  param {
    lr_mult: 2
  }
  convolution_param {
    num_output: 72
    pad: 2
    kernel_size: 3
    stride: 1
    weight_filler {
      type: "gaussian"
      std: 0.01
    }
    bias_filler {
      type: "constant"
    }
  }
}
layer {
  name: "Sigmoid0"
  type: "Sigmoid"
  bottom: "conv0"
  top: "Sigmoid0"
}
layer {
  name: "pool0"
  type: "Pooling"
  bottom: "Sigmoid0"
  top: "pool0"
  pooling_param {
    pool: AVE
    kernel_size: 3
    stride: 2
  }
}
layer {
  name: "ip1"
  type: "InnerProduct"
  bottom: "pool0"
  top: "ip1"
  param {
    lr_mult: 1
  }
  param {
    lr_mult: 2
  }
  inner_product_param {
    num_output: 60
    weight_filler {
      type: "gaussian"
      std: 0.01
    }
    bias_filler {
      type: "constant"
    }
  }
}
layer {
  name: "relu1"
  type: "ReLU"
  bottom: "ip1"
  top: "ip1"
}
layer {
  name: "ip2"
  type: "InnerProduct"
  bottom: "ip1"
  top: "ip2"
  param {
    lr_mult: 1
  }
  param {
    lr_mult: 2
  }
  inner_product_param {
    num_output: 60
    weight_filler {
      type: "gaussian"
      std: 0.01
    }
    bias_filler {
      type: "constant"
    }
  }
}
layer {
  name: "relu2"
  type: "ReLU"
  bottom: "ip2"
  top: "ip2"
}
layer {
  name: "ip3"
  type: "InnerProduct"
  bottom: "ip2"
  top: "ip3"
  param {
    lr_mult: 1
  }
  param {
    lr_mult: 2
  }
  inner_product_param {
    num_output: 10
    weight_filler {
      type: "gaussian"
      std: 0.01
    }
    bias_filler {
      type: "constant"
    }
  }
}
layer {
  name: "accuracy"
  type: "Accuracy"
  bottom: "ip3"
  bottom: "label"
  top: "accuracy"
  include {
    phase: TEST
  }
}
layer {
  name: "loss"
  type: "SoftmaxWithLoss"
  bottom: "ip3"
  bottom: "label"
  top: "loss"
}
I0504 01:12:46.717370  6955 layer_factory.hpp:77] Creating layer cifar
I0504 01:12:46.717413  6955 db_lmdb.cpp:35] Opened lmdb examples/cifar10/cifar10_test_lmdb
I0504 01:12:46.717425  6955 net.cpp:86] Creating Layer cifar
I0504 01:12:46.717430  6955 net.cpp:382] cifar -> data
I0504 01:12:46.717438  6955 net.cpp:382] cifar -> label
I0504 01:12:46.717444  6955 data_transformer.cpp:25] Loading mean file from: examples/cifar10/mean.binaryproto
I0504 01:12:46.717592  6955 data_layer.cpp:45] output data size: 1000,3,32,32
I0504 01:12:46.738852  6955 net.cpp:124] Setting up cifar
I0504 01:12:46.738894  6955 net.cpp:131] Top shape: 1000 3 32 32 (3072000)
I0504 01:12:46.738900  6955 net.cpp:131] Top shape: 1000 (1000)
I0504 01:12:46.738903  6955 net.cpp:139] Memory required for data: 12292000
I0504 01:12:46.738909  6955 layer_factory.hpp:77] Creating layer label_cifar_1_split
I0504 01:12:46.738936  6955 net.cpp:86] Creating Layer label_cifar_1_split
I0504 01:12:46.738953  6955 net.cpp:408] label_cifar_1_split <- label
I0504 01:12:46.738960  6955 net.cpp:382] label_cifar_1_split -> label_cifar_1_split_0
I0504 01:12:46.738970  6955 net.cpp:382] label_cifar_1_split -> label_cifar_1_split_1
I0504 01:12:46.739048  6955 net.cpp:124] Setting up label_cifar_1_split
I0504 01:12:46.739055  6955 net.cpp:131] Top shape: 1000 (1000)
I0504 01:12:46.739059  6955 net.cpp:131] Top shape: 1000 (1000)
I0504 01:12:46.739061  6955 net.cpp:139] Memory required for data: 12300000
I0504 01:12:46.739080  6955 layer_factory.hpp:77] Creating layer conv0
I0504 01:12:46.739092  6955 net.cpp:86] Creating Layer conv0
I0504 01:12:46.739099  6955 net.cpp:408] conv0 <- data
I0504 01:12:46.739104  6955 net.cpp:382] conv0 -> conv0
I0504 01:12:46.740711  6955 net.cpp:124] Setting up conv0
I0504 01:12:46.740742  6955 net.cpp:131] Top shape: 1000 72 34 34 (83232000)
I0504 01:12:46.740746  6955 net.cpp:139] Memory required for data: 345228000
I0504 01:12:46.740756  6955 layer_factory.hpp:77] Creating layer Sigmoid0
I0504 01:12:46.740762  6955 net.cpp:86] Creating Layer Sigmoid0
I0504 01:12:46.740782  6955 net.cpp:408] Sigmoid0 <- conv0
I0504 01:12:46.740785  6955 net.cpp:382] Sigmoid0 -> Sigmoid0
I0504 01:12:46.741747  6955 net.cpp:124] Setting up Sigmoid0
I0504 01:12:46.741760  6955 net.cpp:131] Top shape: 1000 72 34 34 (83232000)
I0504 01:12:46.741780  6955 net.cpp:139] Memory required for data: 678156000
I0504 01:12:46.741782  6955 layer_factory.hpp:77] Creating layer pool0
I0504 01:12:46.741791  6955 net.cpp:86] Creating Layer pool0
I0504 01:12:46.741794  6955 net.cpp:408] pool0 <- Sigmoid0
I0504 01:12:46.741799  6955 net.cpp:382] pool0 -> pool0
I0504 01:12:46.742964  6955 net.cpp:124] Setting up pool0
I0504 01:12:46.742974  6955 net.cpp:131] Top shape: 1000 72 17 17 (20808000)
I0504 01:12:46.742995  6955 net.cpp:139] Memory required for data: 761388000
I0504 01:12:46.742997  6955 layer_factory.hpp:77] Creating layer ip1
I0504 01:12:46.743005  6955 net.cpp:86] Creating Layer ip1
I0504 01:12:46.743008  6955 net.cpp:408] ip1 <- pool0
I0504 01:12:46.743013  6955 net.cpp:382] ip1 -> ip1
I0504 01:12:46.776993  6955 net.cpp:124] Setting up ip1
I0504 01:12:46.777029  6955 net.cpp:131] Top shape: 1000 60 (60000)
I0504 01:12:46.777034  6955 net.cpp:139] Memory required for data: 761628000
I0504 01:12:46.777043  6955 layer_factory.hpp:77] Creating layer relu1
I0504 01:12:46.777051  6955 net.cpp:86] Creating Layer relu1
I0504 01:12:46.777055  6955 net.cpp:408] relu1 <- ip1
I0504 01:12:46.777076  6955 net.cpp:369] relu1 -> ip1 (in-place)
I0504 01:12:46.777295  6955 net.cpp:124] Setting up relu1
I0504 01:12:46.777303  6955 net.cpp:131] Top shape: 1000 60 (60000)
I0504 01:12:46.777307  6955 net.cpp:139] Memory required for data: 761868000
I0504 01:12:46.777309  6955 layer_factory.hpp:77] Creating layer ip2
I0504 01:12:46.777318  6955 net.cpp:86] Creating Layer ip2
I0504 01:12:46.777320  6955 net.cpp:408] ip2 <- ip1
I0504 01:12:46.777325  6955 net.cpp:382] ip2 -> ip2
I0504 01:12:46.777545  6955 net.cpp:124] Setting up ip2
I0504 01:12:46.777554  6955 net.cpp:131] Top shape: 1000 60 (60000)
I0504 01:12:46.777556  6955 net.cpp:139] Memory required for data: 762108000
I0504 01:12:46.777565  6955 layer_factory.hpp:77] Creating layer relu2
I0504 01:12:46.777571  6955 net.cpp:86] Creating Layer relu2
I0504 01:12:46.777577  6955 net.cpp:408] relu2 <- ip2
I0504 01:12:46.777582  6955 net.cpp:369] relu2 -> ip2 (in-place)
I0504 01:12:46.777750  6955 net.cpp:124] Setting up relu2
I0504 01:12:46.777758  6955 net.cpp:131] Top shape: 1000 60 (60000)
I0504 01:12:46.777761  6955 net.cpp:139] Memory required for data: 762348000
I0504 01:12:46.777765  6955 layer_factory.hpp:77] Creating layer ip3
I0504 01:12:46.777771  6955 net.cpp:86] Creating Layer ip3
I0504 01:12:46.777775  6955 net.cpp:408] ip3 <- ip2
I0504 01:12:46.777778  6955 net.cpp:382] ip3 -> ip3
I0504 01:12:46.777895  6955 net.cpp:124] Setting up ip3
I0504 01:12:46.777902  6955 net.cpp:131] Top shape: 1000 10 (10000)
I0504 01:12:46.777920  6955 net.cpp:139] Memory required for data: 762388000
I0504 01:12:46.777925  6955 layer_factory.hpp:77] Creating layer ip3_ip3_0_split
I0504 01:12:46.777930  6955 net.cpp:86] Creating Layer ip3_ip3_0_split
I0504 01:12:46.777935  6955 net.cpp:408] ip3_ip3_0_split <- ip3
I0504 01:12:46.777938  6955 net.cpp:382] ip3_ip3_0_split -> ip3_ip3_0_split_0
I0504 01:12:46.777945  6955 net.cpp:382] ip3_ip3_0_split -> ip3_ip3_0_split_1
I0504 01:12:46.777976  6955 net.cpp:124] Setting up ip3_ip3_0_split
I0504 01:12:46.777981  6955 net.cpp:131] Top shape: 1000 10 (10000)
I0504 01:12:46.777984  6955 net.cpp:131] Top shape: 1000 10 (10000)
I0504 01:12:46.777987  6955 net.cpp:139] Memory required for data: 762468000
I0504 01:12:46.777990  6955 layer_factory.hpp:77] Creating layer accuracy
I0504 01:12:46.777997  6955 net.cpp:86] Creating Layer accuracy
I0504 01:12:46.778000  6955 net.cpp:408] accuracy <- ip3_ip3_0_split_0
I0504 01:12:46.778004  6955 net.cpp:408] accuracy <- label_cifar_1_split_0
I0504 01:12:46.778009  6955 net.cpp:382] accuracy -> accuracy
…
