…
I0504 11:09:08.748258 26570 net.cpp:296] The NetState phase (0) differed from the phase (1) specified by a rule in layer cifar
I0504 11:09:08.748276 26570 net.cpp:296] The NetState phase (0) differed from the phase (1) specified by a rule in layer accuracy
I0504 11:09:08.748394 26570 net.cpp:53] Initializing net from parameters: 
name: "CIFAR"
state {
  phase: TRAIN
  level: 0
  stage: ""
}
layer {
  name: "cifar"
  type: "Data"
  top: "data"
  top: "label"
  include {
    phase: TRAIN
  }
  transform_param {
    mean_file: "examples/cifar10/mean.binaryproto"
  }
  data_param {
    source: "examples/cifar10/cifar10_train_lmdb"
    batch_size: 111
    backend: LMDB
  }
}
layer {
  name: "conv0"
  type: "Convolution"
  bottom: "data"
  top: "conv0"
  param {
    lr_mult: 1
  }
  param {
    lr_mult: 2
  }
  convolution_param {
    num_output: 24
    pad: 2
    kernel_size: 3
    stride: 1
    weight_filler {
      type: "gaussian"
      std: 0.01
    }
    bias_filler {
      type: "constant"
    }
  }
}
layer {
  name: "Sigmoid0"
  type: "Sigmoid"
  bottom: "conv0"
  top: "Sigmoid0"
}
layer {
  name: "pool0"
  type: "Pooling"
  bottom: "Sigmoid0"
  top: "pool0"
  pooling_param {
    pool: AVE
    kernel_size: 3
    stride: 2
  }
}
layer {
  name: "conv1"
  type: "Convolution"
  bottom: "pool0"
  top: "conv1"
  param {
    lr_mult: 1
  }
  param {
    lr_mult: 2
  }
  convolution_param {
    num_output: 216
    pad: 2
    kernel_size: 3
    stride: 1
    weight_filler {
      type: "gaussian"
      std: 0.01
    }
    bias_filler {
      type: "constant"
    }
  }
}
layer {
  name: "Sigmoid1"
  type: "Sigmoid"
  bottom: "conv1"
  top: "Sigmoid1"
}
layer {
  name: "pool1"
  type: "Pooling"
  bottom: "Sigmoid1"
  top: "pool1"
  pooling_param {
    pool: AVE
    kernel_size: 3
    stride: 2
  }
}
layer {
  name: "ip1"
  type: "InnerProduct"
  bottom: "pool1"
  top: "ip1"
  param {
    lr_mult: 1
  }
  param {
    lr_mult: 2
  }
  inner_product_param {
    num_output: 10
    weight_filler {
      type: "gaussian"
      std: 0.01
    }
    bias_filler {
      type: "constant"
    }
  }
}
layer {
  name: "relu1"
  type: "ReLU"
  bottom: "ip1"
  top: "ip1"
}
layer {
  name: "ip2"
  type: "InnerProduct"
  bottom: "ip1"
  top: "ip2"
  param {
    lr_mult: 1
  }
  param {
    lr_mult: 2
  }
  inner_product_param {
    num_output: 10
    weight_filler {
      type: "gaussian"
      std: 0.01
    }
    bias_filler {
      type: "constant"
    }
  }
}
layer {
  name: "loss"
  type: "SoftmaxWithLoss"
  bottom: "ip2"
  bottom: "label"
  top: "loss"
}
I0504 11:09:08.748488 26570 layer_factory.hpp:77] Creating layer cifar
I0504 11:09:08.748623 26570 db_lmdb.cpp:35] Opened lmdb examples/cifar10/cifar10_train_lmdb
I0504 11:09:08.748661 26570 net.cpp:86] Creating Layer cifar
I0504 11:09:08.748673 26570 net.cpp:382] cifar -> data
I0504 11:09:08.748703 26570 net.cpp:382] cifar -> label
I0504 11:09:08.748720 26570 data_transformer.cpp:25] Loading mean file from: examples/cifar10/mean.binaryproto
I0504 11:09:08.751127 26570 data_layer.cpp:45] output data size: 111,3,32,32
I0504 11:09:08.759114 26570 net.cpp:124] Setting up cifar
I0504 11:09:08.759132 26570 net.cpp:131] Top shape: 111 3 32 32 (340992)
I0504 11:09:08.759140 26570 net.cpp:131] Top shape: 111 (111)
I0504 11:09:08.759143 26570 net.cpp:139] Memory required for data: 1364412
I0504 11:09:08.759151 26570 layer_factory.hpp:77] Creating layer conv0
I0504 11:09:08.759168 26570 net.cpp:86] Creating Layer conv0
I0504 11:09:08.759196 26570 net.cpp:408] conv0 <- data
I0504 11:09:08.759213 26570 net.cpp:382] conv0 -> conv0
I0504 11:09:09.050869 26570 net.cpp:124] Setting up conv0
I0504 11:09:09.050901 26570 net.cpp:131] Top shape: 111 24 34 34 (3079584)
I0504 11:09:09.050906 26570 net.cpp:139] Memory required for data: 13682748
I0504 11:09:09.050923 26570 layer_factory.hpp:77] Creating layer Sigmoid0
I0504 11:09:09.050938 26570 net.cpp:86] Creating Layer Sigmoid0
I0504 11:09:09.050943 26570 net.cpp:408] Sigmoid0 <- conv0
I0504 11:09:09.050950 26570 net.cpp:382] Sigmoid0 -> Sigmoid0
I0504 11:09:09.051194 26570 net.cpp:124] Setting up Sigmoid0
I0504 11:09:09.051208 26570 net.cpp:131] Top shape: 111 24 34 34 (3079584)
I0504 11:09:09.051213 26570 net.cpp:139] Memory required for data: 26001084
I0504 11:09:09.051219 26570 layer_factory.hpp:77] Creating layer pool0
I0504 11:09:09.051231 26570 net.cpp:86] Creating Layer pool0
I0504 11:09:09.051237 26570 net.cpp:408] pool0 <- Sigmoid0
I0504 11:09:09.051247 26570 net.cpp:382] pool0 -> pool0
I0504 11:09:09.052139 26570 net.cpp:124] Setting up pool0
I0504 11:09:09.052155 26570 net.cpp:131] Top shape: 111 24 17 17 (769896)
I0504 11:09:09.052160 26570 net.cpp:139] Memory required for data: 29080668
I0504 11:09:09.052165 26570 layer_factory.hpp:77] Creating layer conv1
I0504 11:09:09.052178 26570 net.cpp:86] Creating Layer conv1
I0504 11:09:09.052183 26570 net.cpp:408] conv1 <- pool0
I0504 11:09:09.052191 26570 net.cpp:382] conv1 -> conv1
I0504 11:09:09.056874 26570 net.cpp:124] Setting up conv1
I0504 11:09:09.056891 26570 net.cpp:131] Top shape: 111 216 19 19 (8655336)
I0504 11:09:09.056895 26570 net.cpp:139] Memory required for data: 63702012
I0504 11:09:09.056906 26570 layer_factory.hpp:77] Creating layer Sigmoid1
I0504 11:09:09.056913 26570 net.cpp:86] Creating Layer Sigmoid1
I0504 11:09:09.056917 26570 net.cpp:408] Sigmoid1 <- conv1
I0504 11:09:09.056924 26570 net.cpp:382] Sigmoid1 -> Sigmoid1
I0504 11:09:09.057176 26570 net.cpp:124] Setting up Sigmoid1
I0504 11:09:09.057190 26570 net.cpp:131] Top shape: 111 216 19 19 (8655336)
I0504 11:09:09.057194 26570 net.cpp:139] Memory required for data: 98323356
I0504 11:09:09.057200 26570 layer_factory.hpp:77] Creating layer pool1
I0504 11:09:09.057212 26570 net.cpp:86] Creating Layer pool1
I0504 11:09:09.057219 26570 net.cpp:408] pool1 <- Sigmoid1
I0504 11:09:09.057229 26570 net.cpp:382] pool1 -> pool1
I0504 11:09:09.057457 26570 net.cpp:124] Setting up pool1
I0504 11:09:09.057469 26570 net.cpp:131] Top shape: 111 216 9 9 (1942056)
I0504 11:09:09.057473 26570 net.cpp:139] Memory required for data: 106091580
I0504 11:09:09.057477 26570 layer_factory.hpp:77] Creating layer ip1
I0504 11:09:09.057488 26570 net.cpp:86] Creating Layer ip1
I0504 11:09:09.057493 26570 net.cpp:408] ip1 <- pool1
I0504 11:09:09.057505 26570 net.cpp:382] ip1 -> ip1
I0504 11:09:09.063426 26570 net.cpp:124] Setting up ip1
I0504 11:09:09.063438 26570 net.cpp:131] Top shape: 111 10 (1110)
I0504 11:09:09.063442 26570 net.cpp:139] Memory required for data: 106096020
I0504 11:09:09.063452 26570 layer_factory.hpp:77] Creating layer relu1
I0504 11:09:09.063459 26570 net.cpp:86] Creating Layer relu1
I0504 11:09:09.063463 26570 net.cpp:408] relu1 <- ip1
I0504 11:09:09.063469 26570 net.cpp:369] relu1 -> ip1 (in-place)
I0504 11:09:09.063690 26570 net.cpp:124] Setting up relu1
I0504 11:09:09.063701 26570 net.cpp:131] Top shape: 111 10 (1110)
I0504 11:09:09.063705 26570 net.cpp:139] Memory required for data: 106100460
I0504 11:09:09.063710 26570 layer_factory.hpp:77] Creating layer ip2
I0504 11:09:09.063722 26570 net.cpp:86] Creating Layer ip2
I0504 11:09:09.063730 26570 net.cpp:408] ip2 <- ip1
I0504 11:09:09.063742 26570 net.cpp:382] ip2 -> ip2
I0504 11:09:09.063882 26570 net.cpp:124] Setting up ip2
I0504 11:09:09.063892 26570 net.cpp:131] Top shape: 111 10 (1110)
I0504 11:09:09.063896 26570 net.cpp:139] Memory required for data: 106104900
I0504 11:09:09.063906 26570 layer_factory.hpp:77] Creating layer loss
I0504 11:09:09.063917 26570 net.cpp:86] Creating Layer loss
I0504 11:09:09.063951 26570 net.cpp:408] loss <- ip2
I0504 11:09:09.063961 26570 net.cpp:408] loss <- label
I0504 11:09:09.063976 26570 net.cpp:382] loss -> loss
I0504 11:09:09.063997 26570 layer_factory.hpp:77] Creating layer loss
…
I0504 11:09:09.065503 26570 solver.cpp:173] Creating test net (#0) specified by net file: ECE595/cifar/train_test/var_everything_tiny/cifar_train_test_144.prototxt
I0504 11:09:09.065536 26570 net.cpp:296] The NetState phase (1) differed from the phase (0) specified by a rule in layer cifar
I0504 11:09:09.065666 26570 net.cpp:53] Initializing net from parameters: 
name: "CIFAR"
state {
  phase: TEST
}
layer {
  name: "cifar"
  type: "Data"
  top: "data"
  top: "label"
  include {
    phase: TEST
  }
  transform_param {
    mean_file: "examples/cifar10/mean.binaryproto"
  }
  data_param {
    source: "examples/cifar10/cifar10_test_lmdb"
    batch_size: 1000
    backend: LMDB
  }
}
layer {
  name: "conv0"
  type: "Convolution"
  bottom: "data"
  top: "conv0"
  param {
    lr_mult: 1
  }
  param {
    lr_mult: 2
  }
  convolution_param {
    num_output: 24
    pad: 2
    kernel_size: 3
    stride: 1
    weight_filler {
      type: "gaussian"
      std: 0.01
    }
    bias_filler {
      type: "constant"
    }
  }
}
layer {
  name: "Sigmoid0"
  type: "Sigmoid"
  bottom: "conv0"
  top: "Sigmoid0"
}
layer {
  name: "pool0"
  type: "Pooling"
  bottom: "Sigmoid0"
  top: "pool0"
  pooling_param {
    pool: AVE
    kernel_size: 3
    stride: 2
  }
}
layer {
  name: "conv1"
  type: "Convolution"
  bottom: "pool0"
  top: "conv1"
  param {
    lr_mult: 1
  }
  param {
    lr_mult: 2
  }
  convolution_param {
    num_output: 216
    pad: 2
    kernel_size: 3
    stride: 1
    weight_filler {
      type: "gaussian"
      std: 0.01
    }
    bias_filler {
      type: "constant"
    }
  }
}
layer {
  name: "Sigmoid1"
  type: "Sigmoid"
  bottom: "conv1"
  top: "Sigmoid1"
}
layer {
  name: "pool1"
  type: "Pooling"
  bottom: "Sigmoid1"
  top: "pool1"
  pooling_param {
    pool: AVE
    kernel_size: 3
    stride: 2
  }
}
layer {
  name: "ip1"
  type: "InnerProduct"
  bottom: "pool1"
  top: "ip1"
  param {
    lr_mult: 1
  }
  param {
    lr_mult: 2
  }
  inner_product_param {
    num_output: 10
    weight_filler {
      type: "gaussian"
      std: 0.01
    }
    bias_filler {
      type: "constant"
    }
  }
}
layer {
  name: "relu1"
  type: "ReLU"
  bottom: "ip1"
  top: "ip1"
}
layer {
  name: "ip2"
  type: "InnerProduct"
  bottom: "ip1"
  top: "ip2"
  param {
    lr_mult: 1
  }
  param {
    lr_mult: 2
  }
  inner_product_param {
    num_output: 10
    weight_filler {
      type: "gaussian"
      std: 0.01
    }
    bias_filler {
      type: "constant"
    }
  }
}
layer {
  name: "accuracy"
  type: "Accuracy"
  bottom: "ip2"
  bottom: "label"
  top: "accuracy"
  include {
    phase: TEST
  }
}
layer {
  name: "loss"
  type: "SoftmaxWithLoss"
  bottom: "ip2"
  bottom: "label"
  top: "loss"
}
I0504 11:09:09.065805 26570 layer_factory.hpp:77] Creating layer cifar
I0504 11:09:09.065881 26570 db_lmdb.cpp:35] Opened lmdb examples/cifar10/cifar10_test_lmdb
I0504 11:09:09.065901 26570 net.cpp:86] Creating Layer cifar
I0504 11:09:09.065912 26570 net.cpp:382] cifar -> data
I0504 11:09:09.065927 26570 net.cpp:382] cifar -> label
I0504 11:09:09.065938 26570 data_transformer.cpp:25] Loading mean file from: examples/cifar10/mean.binaryproto
I0504 11:09:09.066187 26570 data_layer.cpp:45] output data size: 1000,3,32,32
I0504 11:09:09.092226 26570 net.cpp:124] Setting up cifar
I0504 11:09:09.092257 26570 net.cpp:131] Top shape: 1000 3 32 32 (3072000)
I0504 11:09:09.092289 26570 net.cpp:131] Top shape: 1000 (1000)
I0504 11:09:09.092295 26570 net.cpp:139] Memory required for data: 12292000
I0504 11:09:09.092304 26570 layer_factory.hpp:77] Creating layer label_cifar_1_split
I0504 11:09:09.092321 26570 net.cpp:86] Creating Layer label_cifar_1_split
I0504 11:09:09.092329 26570 net.cpp:408] label_cifar_1_split <- label
I0504 11:09:09.092340 26570 net.cpp:382] label_cifar_1_split -> label_cifar_1_split_0
I0504 11:09:09.092356 26570 net.cpp:382] label_cifar_1_split -> label_cifar_1_split_1
I0504 11:09:09.092447 26570 net.cpp:124] Setting up label_cifar_1_split
I0504 11:09:09.092458 26570 net.cpp:131] Top shape: 1000 (1000)
I0504 11:09:09.092463 26570 net.cpp:131] Top shape: 1000 (1000)
I0504 11:09:09.092468 26570 net.cpp:139] Memory required for data: 12300000
I0504 11:09:09.092474 26570 layer_factory.hpp:77] Creating layer conv0
I0504 11:09:09.092495 26570 net.cpp:86] Creating Layer conv0
I0504 11:09:09.092505 26570 net.cpp:408] conv0 <- data
I0504 11:09:09.092520 26570 net.cpp:382] conv0 -> conv0
I0504 11:09:09.093552 26570 net.cpp:124] Setting up conv0
I0504 11:09:09.093567 26570 net.cpp:131] Top shape: 1000 24 34 34 (27744000)
I0504 11:09:09.093571 26570 net.cpp:139] Memory required for data: 123276000
I0504 11:09:09.093585 26570 layer_factory.hpp:77] Creating layer Sigmoid0
I0504 11:09:09.093593 26570 net.cpp:86] Creating Layer Sigmoid0
I0504 11:09:09.093597 26570 net.cpp:408] Sigmoid0 <- conv0
I0504 11:09:09.093603 26570 net.cpp:382] Sigmoid0 -> Sigmoid0
I0504 11:09:09.094653 26570 net.cpp:124] Setting up Sigmoid0
I0504 11:09:09.094668 26570 net.cpp:131] Top shape: 1000 24 34 34 (27744000)
I0504 11:09:09.094673 26570 net.cpp:139] Memory required for data: 234252000
I0504 11:09:09.094677 26570 layer_factory.hpp:77] Creating layer pool0
I0504 11:09:09.094687 26570 net.cpp:86] Creating Layer pool0
I0504 11:09:09.094692 26570 net.cpp:408] pool0 <- Sigmoid0
I0504 11:09:09.094707 26570 net.cpp:382] pool0 -> pool0
I0504 11:09:09.095890 26570 net.cpp:124] Setting up pool0
I0504 11:09:09.095904 26570 net.cpp:131] Top shape: 1000 24 17 17 (6936000)
I0504 11:09:09.095908 26570 net.cpp:139] Memory required for data: 261996000
I0504 11:09:09.095912 26570 layer_factory.hpp:77] Creating layer conv1
I0504 11:09:09.095926 26570 net.cpp:86] Creating Layer conv1
I0504 11:09:09.095929 26570 net.cpp:408] conv1 <- pool0
I0504 11:09:09.095937 26570 net.cpp:382] conv1 -> conv1
I0504 11:09:09.099143 26570 net.cpp:124] Setting up conv1
I0504 11:09:09.099159 26570 net.cpp:131] Top shape: 1000 216 19 19 (77976000)
I0504 11:09:09.099165 26570 net.cpp:139] Memory required for data: 573900000
I0504 11:09:09.099176 26570 layer_factory.hpp:77] Creating layer Sigmoid1
I0504 11:09:09.099186 26570 net.cpp:86] Creating Layer Sigmoid1
I0504 11:09:09.099192 26570 net.cpp:408] Sigmoid1 <- conv1
I0504 11:09:09.099201 26570 net.cpp:382] Sigmoid1 -> Sigmoid1
I0504 11:09:09.099448 26570 net.cpp:124] Setting up Sigmoid1
I0504 11:09:09.099460 26570 net.cpp:131] Top shape: 1000 216 19 19 (77976000)
I0504 11:09:09.099464 26570 net.cpp:139] Memory required for data: 885804000
I0504 11:09:09.099469 26570 layer_factory.hpp:77] Creating layer pool1
I0504 11:09:09.099480 26570 net.cpp:86] Creating Layer pool1
I0504 11:09:09.099488 26570 net.cpp:408] pool1 <- Sigmoid1
I0504 11:09:09.099516 26570 net.cpp:382] pool1 -> pool1
I0504 11:09:09.099752 26570 net.cpp:124] Setting up pool1
I0504 11:09:09.099764 26570 net.cpp:131] Top shape: 1000 216 9 9 (17496000)
I0504 11:09:09.099768 26570 net.cpp:139] Memory required for data: 955788000
I0504 11:09:09.099772 26570 layer_factory.hpp:77] Creating layer ip1
I0504 11:09:09.099792 26570 net.cpp:86] Creating Layer ip1
I0504 11:09:09.099800 26570 net.cpp:408] ip1 <- pool1
I0504 11:09:09.099814 26570 net.cpp:382] ip1 -> ip1
I0504 11:09:09.105748 26570 net.cpp:124] Setting up ip1
I0504 11:09:09.105761 26570 net.cpp:131] Top shape: 1000 10 (10000)
I0504 11:09:09.105765 26570 net.cpp:139] Memory required for data: 955828000
I0504 11:09:09.105774 26570 layer_factory.hpp:77] Creating layer relu1
I0504 11:09:09.105785 26570 net.cpp:86] Creating Layer relu1
I0504 11:09:09.105792 26570 net.cpp:408] relu1 <- ip1
I0504 11:09:09.105801 26570 net.cpp:369] relu1 -> ip1 (in-place)
I0504 11:09:09.106721 26570 net.cpp:124] Setting up relu1
I0504 11:09:09.106745 26570 net.cpp:131] Top shape: 1000 10 (10000)
I0504 11:09:09.106753 26570 net.cpp:139] Memory required for data: 955868000
I0504 11:09:09.106758 26570 layer_factory.hpp:77] Creating layer ip2
I0504 11:09:09.106768 26570 net.cpp:86] Creating Layer ip2
I0504 11:09:09.106772 26570 net.cpp:408] ip2 <- ip1
I0504 11:09:09.106781 26570 net.cpp:382] ip2 -> ip2
I0504 11:09:09.106947 26570 net.cpp:124] Setting up ip2
I0504 11:09:09.106959 26570 net.cpp:131] Top shape: 1000 10 (10000)
I0504 11:09:09.106963 26570 net.cpp:139] Memory required for data: 955908000
I0504 11:09:09.106974 26570 layer_factory.hpp:77] Creating layer ip2_ip2_0_split
I0504 11:09:09.106983 26570 net.cpp:86] Creating Layer ip2_ip2_0_split
I0504 11:09:09.106990 26570 net.cpp:408] ip2_ip2_0_split <- ip2
I0504 11:09:09.106998 26570 net.cpp:382] ip2_ip2_0_split -> ip2_ip2_0_split_0
I0504 11:09:09.107009 26570 net.cpp:382] ip2_ip2_0_split -> ip2_ip2_0_split_1
I0504 11:09:09.107066 26570 net.cpp:124] Setting up ip2_ip2_0_split
I0504 11:09:09.107075 26570 net.cpp:131] Top shape: 1000 10 (10000)
I0504 11:09:09.107080 26570 net.cpp:131] Top shape: 1000 10 (10000)
I0504 11:09:09.107086 26570 net.cpp:139] Memory required for data: 955988000
I0504 11:09:09.107092 26570 layer_factory.hpp:77] Creating layer accuracy
I0504 11:09:09.107103 26570 net.cpp:86] Creating Layer accuracy
I0504 11:09:09.107110 26570 net.cpp:408] accuracy <- ip2_ip2_0_split_0
I0504 11:09:09.107117 26570 net.cpp:408] accuracy <- label_cifar_1_split_0
I0504 11:09:09.107128 26570 net.cpp:382] accuracy -> accuracy
…
