…
I0504 03:18:19.021536 10631 net.cpp:296] The NetState phase (0) differed from the phase (1) specified by a rule in layer cifar
I0504 03:18:19.021553 10631 net.cpp:296] The NetState phase (0) differed from the phase (1) specified by a rule in layer accuracy
I0504 03:18:19.021646 10631 net.cpp:53] Initializing net from parameters: 
name: "CIFAR"
state {
  phase: TRAIN
  level: 0
  stage: ""
}
layer {
  name: "cifar"
  type: "Data"
  top: "data"
  top: "label"
  include {
    phase: TRAIN
  }
  transform_param {
    mean_file: "examples/cifar10/mean.binaryproto"
  }
  data_param {
    source: "examples/cifar10/cifar10_train_lmdb"
    batch_size: 111
    backend: LMDB
  }
}
layer {
  name: "conv0"
  type: "Convolution"
  bottom: "data"
  top: "conv0"
  param {
    lr_mult: 1
  }
  param {
    lr_mult: 2
  }
  convolution_param {
    num_output: 216
    pad: 2
    kernel_size: 3
    stride: 1
    weight_filler {
      type: "gaussian"
      std: 0.01
    }
    bias_filler {
      type: "constant"
    }
  }
}
layer {
  name: "Sigmoid0"
  type: "Sigmoid"
  bottom: "conv0"
  top: "Sigmoid0"
}
layer {
  name: "pool0"
  type: "Pooling"
  bottom: "Sigmoid0"
  top: "pool0"
  pooling_param {
    pool: AVE
    kernel_size: 3
    stride: 2
  }
}
layer {
  name: "ip1"
  type: "InnerProduct"
  bottom: "pool0"
  top: "ip1"
  param {
    lr_mult: 1
  }
  param {
    lr_mult: 2
  }
  inner_product_param {
    num_output: 10
    weight_filler {
      type: "gaussian"
      std: 0.01
    }
    bias_filler {
      type: "constant"
    }
  }
}
layer {
  name: "relu1"
  type: "ReLU"
  bottom: "ip1"
  top: "ip1"
}
layer {
  name: "ip2"
  type: "InnerProduct"
  bottom: "ip1"
  top: "ip2"
  param {
    lr_mult: 1
  }
  param {
    lr_mult: 2
  }
  inner_product_param {
    num_output: 60
    weight_filler {
      type: "gaussian"
      std: 0.01
    }
    bias_filler {
      type: "constant"
    }
  }
}
layer {
  name: "relu2"
  type: "ReLU"
  bottom: "ip2"
  top: "ip2"
}
layer {
  name: "ip3"
  type: "InnerProduct"
  bottom: "ip2"
  top: "ip3"
  param {
    lr_mult: 1
  }
  param {
    lr_mult: 2
  }
  inner_product_param {
    num_output: 10
    weight_filler {
      type: "gaussian"
      std: 0.01
    }
    bias_filler {
      type: "constant"
    }
  }
}
layer {
  name: "loss"
  type: "SoftmaxWithLoss"
  bottom: "ip3"
  bottom: "label"
  top: "loss"
}
I0504 03:18:19.021721 10631 layer_factory.hpp:77] Creating layer cifar
I0504 03:18:19.021823 10631 db_lmdb.cpp:35] Opened lmdb examples/cifar10/cifar10_train_lmdb
I0504 03:18:19.021852 10631 net.cpp:86] Creating Layer cifar
I0504 03:18:19.021860 10631 net.cpp:382] cifar -> data
I0504 03:18:19.021884 10631 net.cpp:382] cifar -> label
I0504 03:18:19.021896 10631 data_transformer.cpp:25] Loading mean file from: examples/cifar10/mean.binaryproto
I0504 03:18:19.024031 10631 data_layer.cpp:45] output data size: 111,3,32,32
I0504 03:18:19.031962 10631 net.cpp:124] Setting up cifar
I0504 03:18:19.031983 10631 net.cpp:131] Top shape: 111 3 32 32 (340992)
I0504 03:18:19.031990 10631 net.cpp:131] Top shape: 111 (111)
I0504 03:18:19.031993 10631 net.cpp:139] Memory required for data: 1364412
I0504 03:18:19.032001 10631 layer_factory.hpp:77] Creating layer conv0
I0504 03:18:19.032019 10631 net.cpp:86] Creating Layer conv0
I0504 03:18:19.032025 10631 net.cpp:408] conv0 <- data
I0504 03:18:19.032038 10631 net.cpp:382] conv0 -> conv0
I0504 03:18:19.321054 10631 net.cpp:124] Setting up conv0
I0504 03:18:19.321099 10631 net.cpp:131] Top shape: 111 216 34 34 (27716256)
I0504 03:18:19.321104 10631 net.cpp:139] Memory required for data: 112229436
I0504 03:18:19.321118 10631 layer_factory.hpp:77] Creating layer Sigmoid0
I0504 03:18:19.321130 10631 net.cpp:86] Creating Layer Sigmoid0
I0504 03:18:19.321135 10631 net.cpp:408] Sigmoid0 <- conv0
I0504 03:18:19.321141 10631 net.cpp:382] Sigmoid0 -> Sigmoid0
I0504 03:18:19.321328 10631 net.cpp:124] Setting up Sigmoid0
I0504 03:18:19.321338 10631 net.cpp:131] Top shape: 111 216 34 34 (27716256)
I0504 03:18:19.321342 10631 net.cpp:139] Memory required for data: 223094460
I0504 03:18:19.321346 10631 layer_factory.hpp:77] Creating layer pool0
I0504 03:18:19.321352 10631 net.cpp:86] Creating Layer pool0
I0504 03:18:19.321355 10631 net.cpp:408] pool0 <- Sigmoid0
I0504 03:18:19.321360 10631 net.cpp:382] pool0 -> pool0
I0504 03:18:19.322118 10631 net.cpp:124] Setting up pool0
I0504 03:18:19.322131 10631 net.cpp:131] Top shape: 111 216 17 17 (6929064)
I0504 03:18:19.322135 10631 net.cpp:139] Memory required for data: 250810716
I0504 03:18:19.322139 10631 layer_factory.hpp:77] Creating layer ip1
I0504 03:18:19.322149 10631 net.cpp:86] Creating Layer ip1
I0504 03:18:19.322152 10631 net.cpp:408] ip1 <- pool0
I0504 03:18:19.322157 10631 net.cpp:382] ip1 -> ip1
I0504 03:18:19.340148 10631 net.cpp:124] Setting up ip1
I0504 03:18:19.340162 10631 net.cpp:131] Top shape: 111 10 (1110)
I0504 03:18:19.340164 10631 net.cpp:139] Memory required for data: 250815156
I0504 03:18:19.340173 10631 layer_factory.hpp:77] Creating layer relu1
I0504 03:18:19.340178 10631 net.cpp:86] Creating Layer relu1
I0504 03:18:19.340181 10631 net.cpp:408] relu1 <- ip1
I0504 03:18:19.340186 10631 net.cpp:369] relu1 -> ip1 (in-place)
I0504 03:18:19.340342 10631 net.cpp:124] Setting up relu1
I0504 03:18:19.340350 10631 net.cpp:131] Top shape: 111 10 (1110)
I0504 03:18:19.340353 10631 net.cpp:139] Memory required for data: 250819596
I0504 03:18:19.340356 10631 layer_factory.hpp:77] Creating layer ip2
I0504 03:18:19.340363 10631 net.cpp:86] Creating Layer ip2
I0504 03:18:19.340366 10631 net.cpp:408] ip2 <- ip1
I0504 03:18:19.340371 10631 net.cpp:382] ip2 -> ip2
I0504 03:18:19.341325 10631 net.cpp:124] Setting up ip2
I0504 03:18:19.341337 10631 net.cpp:131] Top shape: 111 60 (6660)
I0504 03:18:19.341341 10631 net.cpp:139] Memory required for data: 250846236
I0504 03:18:19.341349 10631 layer_factory.hpp:77] Creating layer relu2
I0504 03:18:19.341354 10631 net.cpp:86] Creating Layer relu2
I0504 03:18:19.341357 10631 net.cpp:408] relu2 <- ip2
I0504 03:18:19.341362 10631 net.cpp:369] relu2 -> ip2 (in-place)
I0504 03:18:19.341521 10631 net.cpp:124] Setting up relu2
I0504 03:18:19.341528 10631 net.cpp:131] Top shape: 111 60 (6660)
I0504 03:18:19.341532 10631 net.cpp:139] Memory required for data: 250872876
I0504 03:18:19.341536 10631 layer_factory.hpp:77] Creating layer ip3
I0504 03:18:19.341542 10631 net.cpp:86] Creating Layer ip3
I0504 03:18:19.341545 10631 net.cpp:408] ip3 <- ip2
I0504 03:18:19.341550 10631 net.cpp:382] ip3 -> ip3
I0504 03:18:19.341655 10631 net.cpp:124] Setting up ip3
I0504 03:18:19.341661 10631 net.cpp:131] Top shape: 111 10 (1110)
I0504 03:18:19.341663 10631 net.cpp:139] Memory required for data: 250877316
I0504 03:18:19.341670 10631 layer_factory.hpp:77] Creating layer loss
I0504 03:18:19.341680 10631 net.cpp:86] Creating Layer loss
I0504 03:18:19.341682 10631 net.cpp:408] loss <- ip3
I0504 03:18:19.341686 10631 net.cpp:408] loss <- label
I0504 03:18:19.341691 10631 net.cpp:382] loss -> loss
I0504 03:18:19.341704 10631 layer_factory.hpp:77] Creating layer loss
…
I0504 03:18:19.342280 10631 solver.cpp:173] Creating test net (#0) specified by net file: ECE595/cifar/train_test/var_everything_tiny/cifar_train_test_52.prototxt
I0504 03:18:19.342305 10631 net.cpp:296] The NetState phase (1) differed from the phase (0) specified by a rule in layer cifar
I0504 03:18:19.342388 10631 net.cpp:53] Initializing net from parameters: 
name: "CIFAR"
state {
  phase: TEST
}
layer {
  name: "cifar"
  type: "Data"
  top: "data"
  top: "label"
  include {
    phase: TEST
  }
  transform_param {
    mean_file: "examples/cifar10/mean.binaryproto"
  }
  data_param {
    source: "examples/cifar10/cifar10_test_lmdb"
    batch_size: 1000
    backend: LMDB
  }
}
layer {
  name: "conv0"
  type: "Convolution"
  bottom: "data"
  top: "conv0"
  param {
    lr_mult: 1
  }
  param {
    lr_mult: 2
  }
  convolution_param {
    num_output: 216
    pad: 2
    kernel_size: 3
    stride: 1
    weight_filler {
      type: "gaussian"
      std: 0.01
    }
    bias_filler {
      type: "constant"
    }
  }
}
layer {
  name: "Sigmoid0"
  type: "Sigmoid"
  bottom: "conv0"
  top: "Sigmoid0"
}
layer {
  name: "pool0"
  type: "Pooling"
  bottom: "Sigmoid0"
  top: "pool0"
  pooling_param {
    pool: AVE
    kernel_size: 3
    stride: 2
  }
}
layer {
  name: "ip1"
  type: "InnerProduct"
  bottom: "pool0"
  top: "ip1"
  param {
    lr_mult: 1
  }
  param {
    lr_mult: 2
  }
  inner_product_param {
    num_output: 10
    weight_filler {
      type: "gaussian"
      std: 0.01
    }
    bias_filler {
      type: "constant"
    }
  }
}
layer {
  name: "relu1"
  type: "ReLU"
  bottom: "ip1"
  top: "ip1"
}
layer {
  name: "ip2"
  type: "InnerProduct"
  bottom: "ip1"
  top: "ip2"
  param {
    lr_mult: 1
  }
  param {
    lr_mult: 2
  }
  inner_product_param {
    num_output: 60
    weight_filler {
      type: "gaussian"
      std: 0.01
    }
    bias_filler {
      type: "constant"
    }
  }
}
layer {
  name: "relu2"
  type: "ReLU"
  bottom: "ip2"
  top: "ip2"
}
layer {
  name: "ip3"
  type: "InnerProduct"
  bottom: "ip2"
  top: "ip3"
  param {
    lr_mult: 1
  }
  param {
    lr_mult: 2
  }
  inner_product_param {
    num_output: 10
    weight_filler {
      type: "gaussian"
      std: 0.01
    }
    bias_filler {
      type: "constant"
    }
  }
}
layer {
  name: "accuracy"
  type: "Accuracy"
  bottom: "ip3"
  bottom: "label"
  top: "accuracy"
  include {
    phase: TEST
  }
}
layer {
  name: "loss"
  type: "SoftmaxWithLoss"
  bottom: "ip3"
  bottom: "label"
  top: "loss"
}
I0504 03:18:19.342447 10631 layer_factory.hpp:77] Creating layer cifar
I0504 03:18:19.342490 10631 db_lmdb.cpp:35] Opened lmdb examples/cifar10/cifar10_test_lmdb
I0504 03:18:19.342502 10631 net.cpp:86] Creating Layer cifar
I0504 03:18:19.342506 10631 net.cpp:382] cifar -> data
I0504 03:18:19.342514 10631 net.cpp:382] cifar -> label
I0504 03:18:19.342520 10631 data_transformer.cpp:25] Loading mean file from: examples/cifar10/mean.binaryproto
I0504 03:18:19.342656 10631 data_layer.cpp:45] output data size: 1000,3,32,32
I0504 03:18:19.364734 10631 net.cpp:124] Setting up cifar
I0504 03:18:19.364759 10631 net.cpp:131] Top shape: 1000 3 32 32 (3072000)
I0504 03:18:19.364765 10631 net.cpp:131] Top shape: 1000 (1000)
I0504 03:18:19.364768 10631 net.cpp:139] Memory required for data: 12292000
I0504 03:18:19.364774 10631 layer_factory.hpp:77] Creating layer label_cifar_1_split
I0504 03:18:19.364804 10631 net.cpp:86] Creating Layer label_cifar_1_split
I0504 03:18:19.364807 10631 net.cpp:408] label_cifar_1_split <- label
I0504 03:18:19.364835 10631 net.cpp:382] label_cifar_1_split -> label_cifar_1_split_0
I0504 03:18:19.364859 10631 net.cpp:382] label_cifar_1_split -> label_cifar_1_split_1
I0504 03:18:19.364997 10631 net.cpp:124] Setting up label_cifar_1_split
I0504 03:18:19.365006 10631 net.cpp:131] Top shape: 1000 (1000)
I0504 03:18:19.365010 10631 net.cpp:131] Top shape: 1000 (1000)
I0504 03:18:19.365013 10631 net.cpp:139] Memory required for data: 12300000
I0504 03:18:19.365017 10631 layer_factory.hpp:77] Creating layer conv0
I0504 03:18:19.365031 10631 net.cpp:86] Creating Layer conv0
I0504 03:18:19.365033 10631 net.cpp:408] conv0 <- data
I0504 03:18:19.365039 10631 net.cpp:382] conv0 -> conv0
I0504 03:18:19.367352 10631 net.cpp:124] Setting up conv0
I0504 03:18:19.367365 10631 net.cpp:131] Top shape: 1000 216 34 34 (249696000)
I0504 03:18:19.367369 10631 net.cpp:139] Memory required for data: 1011084000
I0504 03:18:19.367379 10631 layer_factory.hpp:77] Creating layer Sigmoid0
I0504 03:18:19.367386 10631 net.cpp:86] Creating Layer Sigmoid0
I0504 03:18:19.367389 10631 net.cpp:408] Sigmoid0 <- conv0
I0504 03:18:19.367409 10631 net.cpp:382] Sigmoid0 -> Sigmoid0
I0504 03:18:19.368206 10631 net.cpp:124] Setting up Sigmoid0
I0504 03:18:19.368216 10631 net.cpp:131] Top shape: 1000 216 34 34 (249696000)
I0504 03:18:19.368221 10631 net.cpp:139] Memory required for data: 2009868000
I0504 03:18:19.368223 10631 layer_factory.hpp:77] Creating layer pool0
I0504 03:18:19.368232 10631 net.cpp:86] Creating Layer pool0
I0504 03:18:19.368235 10631 net.cpp:408] pool0 <- Sigmoid0
I0504 03:18:19.368240 10631 net.cpp:382] pool0 -> pool0
I0504 03:18:19.369392 10631 net.cpp:124] Setting up pool0
I0504 03:18:19.369402 10631 net.cpp:131] Top shape: 1000 216 17 17 (62424000)
I0504 03:18:19.369405 10631 net.cpp:139] Memory required for data: 2259564000
I0504 03:18:19.369408 10631 layer_factory.hpp:77] Creating layer ip1
I0504 03:18:19.369417 10631 net.cpp:86] Creating Layer ip1
I0504 03:18:19.369421 10631 net.cpp:408] ip1 <- pool0
I0504 03:18:19.369426 10631 net.cpp:382] ip1 -> ip1
I0504 03:18:19.386891 10631 net.cpp:124] Setting up ip1
I0504 03:18:19.386906 10631 net.cpp:131] Top shape: 1000 10 (10000)
I0504 03:18:19.386909 10631 net.cpp:139] Memory required for data: 2259604000
I0504 03:18:19.386919 10631 layer_factory.hpp:77] Creating layer relu1
I0504 03:18:19.386924 10631 net.cpp:86] Creating Layer relu1
I0504 03:18:19.386929 10631 net.cpp:408] relu1 <- ip1
I0504 03:18:19.386932 10631 net.cpp:369] relu1 -> ip1 (in-place)
I0504 03:18:19.387116 10631 net.cpp:124] Setting up relu1
I0504 03:18:19.387125 10631 net.cpp:131] Top shape: 1000 10 (10000)
I0504 03:18:19.387128 10631 net.cpp:139] Memory required for data: 2259644000
I0504 03:18:19.387131 10631 layer_factory.hpp:77] Creating layer ip2
I0504 03:18:19.387138 10631 net.cpp:86] Creating Layer ip2
I0504 03:18:19.387141 10631 net.cpp:408] ip2 <- ip1
I0504 03:18:19.387146 10631 net.cpp:382] ip2 -> ip2
I0504 03:18:19.387276 10631 net.cpp:124] Setting up ip2
I0504 03:18:19.387284 10631 net.cpp:131] Top shape: 1000 60 (60000)
I0504 03:18:19.387287 10631 net.cpp:139] Memory required for data: 2259884000
I0504 03:18:19.387295 10631 layer_factory.hpp:77] Creating layer relu2
I0504 03:18:19.387300 10631 net.cpp:86] Creating Layer relu2
I0504 03:18:19.387303 10631 net.cpp:408] relu2 <- ip2
I0504 03:18:19.387307 10631 net.cpp:369] relu2 -> ip2 (in-place)
I0504 03:18:19.387465 10631 net.cpp:124] Setting up relu2
I0504 03:18:19.387472 10631 net.cpp:131] Top shape: 1000 60 (60000)
I0504 03:18:19.387475 10631 net.cpp:139] Memory required for data: 2260124000
I0504 03:18:19.387480 10631 layer_factory.hpp:77] Creating layer ip3
I0504 03:18:19.387485 10631 net.cpp:86] Creating Layer ip3
I0504 03:18:19.387488 10631 net.cpp:408] ip3 <- ip2
I0504 03:18:19.387492 10631 net.cpp:382] ip3 -> ip3
I0504 03:18:19.387606 10631 net.cpp:124] Setting up ip3
I0504 03:18:19.387614 10631 net.cpp:131] Top shape: 1000 10 (10000)
I0504 03:18:19.387629 10631 net.cpp:139] Memory required for data: 2260164000
I0504 03:18:19.387635 10631 layer_factory.hpp:77] Creating layer ip3_ip3_0_split
I0504 03:18:19.387640 10631 net.cpp:86] Creating Layer ip3_ip3_0_split
I0504 03:18:19.387643 10631 net.cpp:408] ip3_ip3_0_split <- ip3
I0504 03:18:19.387647 10631 net.cpp:382] ip3_ip3_0_split -> ip3_ip3_0_split_0
I0504 03:18:19.387653 10631 net.cpp:382] ip3_ip3_0_split -> ip3_ip3_0_split_1
I0504 03:18:19.387684 10631 net.cpp:124] Setting up ip3_ip3_0_split
I0504 03:18:19.387689 10631 net.cpp:131] Top shape: 1000 10 (10000)
I0504 03:18:19.387693 10631 net.cpp:131] Top shape: 1000 10 (10000)
I0504 03:18:19.387696 10631 net.cpp:139] Memory required for data: 2260244000
I0504 03:18:19.387698 10631 layer_factory.hpp:77] Creating layer accuracy
I0504 03:18:19.387704 10631 net.cpp:86] Creating Layer accuracy
I0504 03:18:19.387707 10631 net.cpp:408] accuracy <- ip3_ip3_0_split_0
I0504 03:18:19.387712 10631 net.cpp:408] accuracy <- label_cifar_1_split_0
I0504 03:18:19.387717 10631 net.cpp:382] accuracy -> accuracy
…
