…
I0425 14:53:35.122211  6646 net.cpp:294] The NetState phase (0) differed from the phase (1) specified by a rule in layer accuracy
I0425 14:53:35.122318  6646 net.cpp:51] Initializing net from parameters: 
name: "CIFARLeNet"
state {
  phase: TRAIN
  level: 0
  stage: ""
}
layer {
  name: "cifar"
  type: "Data"
  top: "data"
  top: "label"
  include {
    phase: TRAIN
  }
  transform_param {
    mean_file: "examples/cifar10/mean.binaryproto"
  }
  data_param {
    source: "examples/cifar10/cifar10_train_lmdb"
    batch_size: 64
    backend: LMDB
  }
}
layer {
  name: "conv0"
  type: "Convolution"
  bottom: "data"
  top: "conv0"
  param {
    lr_mult: 1
  }
  param {
    lr_mult: 2
  }
  convolution_param {
    num_output: 50
    kernel_size: 5
    stride: 1
    weight_filler {
      type: "xavier"
    }
    bias_filler {
      type: "constant"
    }
  }
}
layer {
  name: "pool0"
  type: "Pooling"
  bottom: "conv0"
  top: "pool0"
  pooling_param {
    pool: MAX
    kernel_size: 2
    stride: 2
  }
}
layer {
  name: "conv1"
  type: "Convolution"
  bottom: "pool0"
  top: "conv1"
  param {
    lr_mult: 1
  }
  param {
    lr_mult: 2
  }
  convolution_param {
    num_output: 50
    kernel_size: 5
    stride: 1
    weight_filler {
      type: "xavier"
    }
    bias_filler {
      type: "constant"
    }
  }
}
layer {
  name: "pool1"
  type: "Pooling"
  bottom: "conv1"
  top: "pool1"
  pooling_param {
    pool: MAX
    kernel_size: 2
    stride: 2
  }
}
layer {
  name: "ip1"
  type: "InnerProduct"
  bottom: "pool1"
  top: "ip1"
  param {
    lr_mult: 1
  }
  param {
    lr_mult: 2
  }
  inner_product_param {
    num_output: 500
    weight_filler {
      type: "xavier"
    }
    bias_filler {
      type: "constant"
    }
  }
}
layer {
  name: "relu1"
  type: "ReLU"
  bottom: "ip1"
  top: "ip1"
}
layer {
  name: "ip2"
  type: "InnerProduct"
  bottom: "ip1"
  top: "ip2"
  param {
    lr_mult: 1
  }
  param {
    lr_mult: 2
  }
  inner_product_param {
    num_output: 10
    weight_filler {
      type: "xavier"
    }
    bias_filler {
      type: "constant"
    }
  }
}
layer {
  name: "relu2"
  type: "ReLU"
  bottom: "ip2"
  top: "ip2"
}
layer {
  name: "loss"
  type: "SoftmaxWithLoss"
  bottom: "ip2"
  bottom: "label"
  top: "loss"
}
I0425 14:53:35.122411  6646 layer_factory.hpp:77] Creating layer cifar
I0425 14:53:35.122499  6646 db_lmdb.cpp:35] Opened lmdb examples/cifar10/cifar10_train_lmdb
I0425 14:53:35.122534  6646 net.cpp:84] Creating Layer cifar
I0425 14:53:35.122555  6646 net.cpp:380] cifar -> data
I0425 14:53:35.122619  6646 net.cpp:380] cifar -> label
I0425 14:53:35.122643  6646 data_transformer.cpp:25] Loading mean file from: examples/cifar10/mean.binaryproto
I0425 14:53:35.123580  6646 data_layer.cpp:45] output data size: 64,3,32,32
I0425 14:53:35.126981  6646 net.cpp:122] Setting up cifar
I0425 14:53:35.127027  6646 net.cpp:129] Top shape: 64 3 32 32 (196608)
I0425 14:53:35.127029  6646 net.cpp:129] Top shape: 64 (64)
I0425 14:53:35.127032  6646 net.cpp:137] Memory required for data: 786688
I0425 14:53:35.127040  6646 layer_factory.hpp:77] Creating layer conv0
I0425 14:53:35.127073  6646 net.cpp:84] Creating Layer conv0
I0425 14:53:35.127077  6646 net.cpp:406] conv0 <- data
I0425 14:53:35.127102  6646 net.cpp:380] conv0 -> conv0
I0425 14:53:35.127759  6646 net.cpp:122] Setting up conv0
I0425 14:53:35.127781  6646 net.cpp:129] Top shape: 64 50 28 28 (2508800)
I0425 14:53:35.127784  6646 net.cpp:137] Memory required for data: 10821888
I0425 14:53:35.127817  6646 layer_factory.hpp:77] Creating layer pool0
I0425 14:53:35.127838  6646 net.cpp:84] Creating Layer pool0
I0425 14:53:35.127841  6646 net.cpp:406] pool0 <- conv0
I0425 14:53:35.127858  6646 net.cpp:380] pool0 -> pool0
I0425 14:53:35.128154  6646 net.cpp:122] Setting up pool0
I0425 14:53:35.128181  6646 net.cpp:129] Top shape: 64 50 14 14 (627200)
I0425 14:53:35.128185  6646 net.cpp:137] Memory required for data: 13330688
I0425 14:53:35.128186  6646 layer_factory.hpp:77] Creating layer conv1
I0425 14:53:35.128208  6646 net.cpp:84] Creating Layer conv1
I0425 14:53:35.128212  6646 net.cpp:406] conv1 <- pool0
I0425 14:53:35.128231  6646 net.cpp:380] conv1 -> conv1
I0425 14:53:35.129254  6646 net.cpp:122] Setting up conv1
I0425 14:53:35.129266  6646 net.cpp:129] Top shape: 64 50 10 10 (320000)
I0425 14:53:35.129281  6646 net.cpp:137] Memory required for data: 14610688
I0425 14:53:35.129287  6646 layer_factory.hpp:77] Creating layer pool1
I0425 14:53:35.129292  6646 net.cpp:84] Creating Layer pool1
I0425 14:53:35.129314  6646 net.cpp:406] pool1 <- conv1
I0425 14:53:35.129318  6646 net.cpp:380] pool1 -> pool1
I0425 14:53:35.129359  6646 net.cpp:122] Setting up pool1
I0425 14:53:35.129364  6646 net.cpp:129] Top shape: 64 50 5 5 (80000)
I0425 14:53:35.129366  6646 net.cpp:137] Memory required for data: 14930688
I0425 14:53:35.129369  6646 layer_factory.hpp:77] Creating layer ip1
I0425 14:53:35.129387  6646 net.cpp:84] Creating Layer ip1
I0425 14:53:35.129390  6646 net.cpp:406] ip1 <- pool1
I0425 14:53:35.129393  6646 net.cpp:380] ip1 -> ip1
I0425 14:53:35.133025  6646 net.cpp:122] Setting up ip1
I0425 14:53:35.133056  6646 net.cpp:129] Top shape: 64 500 (32000)
I0425 14:53:35.133059  6646 net.cpp:137] Memory required for data: 15058688
I0425 14:53:35.133093  6646 layer_factory.hpp:77] Creating layer relu1
I0425 14:53:35.133100  6646 net.cpp:84] Creating Layer relu1
I0425 14:53:35.133121  6646 net.cpp:406] relu1 <- ip1
I0425 14:53:35.133126  6646 net.cpp:367] relu1 -> ip1 (in-place)
I0425 14:53:35.133144  6646 net.cpp:122] Setting up relu1
I0425 14:53:35.133147  6646 net.cpp:129] Top shape: 64 500 (32000)
I0425 14:53:35.133148  6646 net.cpp:137] Memory required for data: 15186688
I0425 14:53:35.133150  6646 layer_factory.hpp:77] Creating layer ip2
I0425 14:53:35.133168  6646 net.cpp:84] Creating Layer ip2
I0425 14:53:35.133170  6646 net.cpp:406] ip2 <- ip1
I0425 14:53:35.133177  6646 net.cpp:380] ip2 -> ip2
I0425 14:53:35.133584  6646 net.cpp:122] Setting up ip2
I0425 14:53:35.133592  6646 net.cpp:129] Top shape: 64 10 (640)
I0425 14:53:35.133607  6646 net.cpp:137] Memory required for data: 15189248
I0425 14:53:35.133612  6646 layer_factory.hpp:77] Creating layer relu2
I0425 14:53:35.133616  6646 net.cpp:84] Creating Layer relu2
I0425 14:53:35.133620  6646 net.cpp:406] relu2 <- ip2
I0425 14:53:35.133625  6646 net.cpp:367] relu2 -> ip2 (in-place)
I0425 14:53:35.133630  6646 net.cpp:122] Setting up relu2
I0425 14:53:35.133632  6646 net.cpp:129] Top shape: 64 10 (640)
I0425 14:53:35.133653  6646 net.cpp:137] Memory required for data: 15191808
I0425 14:53:35.133654  6646 layer_factory.hpp:77] Creating layer loss
I0425 14:53:35.133659  6646 net.cpp:84] Creating Layer loss
I0425 14:53:35.133661  6646 net.cpp:406] loss <- ip2
I0425 14:53:35.133663  6646 net.cpp:406] loss <- label
I0425 14:53:35.133668  6646 net.cpp:380] loss -> loss
I0425 14:53:35.133694  6646 layer_factory.hpp:77] Creating layer loss
…
I0425 14:53:35.134048  6646 solver.cpp:173] Creating test net (#0) specified by net file: ECE595/cifar/train_test/var_num_feature_maxiter6000/cifarlenet_train_test_featuresize50.prototxt
I0425 14:53:35.134066  6646 net.cpp:294] The NetState phase (1) differed from the phase (0) specified by a rule in layer cifar
I0425 14:53:35.134133  6646 net.cpp:51] Initializing net from parameters: 
name: "CIFARLeNet"
state {
  phase: TEST
}
layer {
  name: "cifar"
  type: "Data"
  top: "data"
  top: "label"
  include {
    phase: TEST
  }
  transform_param {
    mean_file: "examples/cifar10/mean.binaryproto"
  }
  data_param {
    source: "examples/cifar10/cifar10_test_lmdb"
    batch_size: 100
    backend: LMDB
  }
}
layer {
  name: "conv0"
  type: "Convolution"
  bottom: "data"
  top: "conv0"
  param {
    lr_mult: 1
  }
  param {
    lr_mult: 2
  }
  convolution_param {
    num_output: 50
    kernel_size: 5
    stride: 1
    weight_filler {
      type: "xavier"
    }
    bias_filler {
      type: "constant"
    }
  }
}
layer {
  name: "pool0"
  type: "Pooling"
  bottom: "conv0"
  top: "pool0"
  pooling_param {
    pool: MAX
    kernel_size: 2
    stride: 2
  }
}
layer {
  name: "conv1"
  type: "Convolution"
  bottom: "pool0"
  top: "conv1"
  param {
    lr_mult: 1
  }
  param {
    lr_mult: 2
  }
  convolution_param {
    num_output: 50
    kernel_size: 5
    stride: 1
    weight_filler {
      type: "xavier"
    }
    bias_filler {
      type: "constant"
    }
  }
}
layer {
  name: "pool1"
  type: "Pooling"
  bottom: "conv1"
  top: "pool1"
  pooling_param {
    pool: MAX
    kernel_size: 2
    stride: 2
  }
}
layer {
  name: "ip1"
  type: "InnerProduct"
  bottom: "pool1"
  top: "ip1"
  param {
    lr_mult: 1
  }
  param {
    lr_mult: 2
  }
  inner_product_param {
    num_output: 500
    weight_filler {
      type: "xavier"
    }
    bias_filler {
      type: "constant"
    }
  }
}
layer {
  name: "relu1"
  type: "ReLU"
  bottom: "ip1"
  top: "ip1"
}
layer {
  name: "ip2"
  type: "InnerProduct"
  bottom: "ip1"
  top: "ip2"
  param {
    lr_mult: 1
  }
  param {
    lr_mult: 2
  }
  inner_product_param {
    num_output: 10
    weight_filler {
      type: "xavier"
    }
    bias_filler {
      type: "constant"
    }
  }
}
layer {
  name: "relu2"
  type: "ReLU"
  bottom: "ip2"
  top: "ip2"
}
layer {
  name: "accuracy"
  type: "Accuracy"
  bottom: "ip2"
  bottom: "label"
  top: "accuracy"
  include {
    phase: TEST
  }
}
layer {
  name: "loss"
  type: "SoftmaxWithLoss"
  bottom: "ip2"
  bottom: "label"
  top: "loss"
}
I0425 14:53:35.134202  6646 layer_factory.hpp:77] Creating layer cifar
I0425 14:53:35.134243  6646 db_lmdb.cpp:35] Opened lmdb examples/cifar10/cifar10_test_lmdb
I0425 14:53:35.134255  6646 net.cpp:84] Creating Layer cifar
I0425 14:53:35.134261  6646 net.cpp:380] cifar -> data
I0425 14:53:35.134268  6646 net.cpp:380] cifar -> label
I0425 14:53:35.134289  6646 data_transformer.cpp:25] Loading mean file from: examples/cifar10/mean.binaryproto
I0425 14:53:35.134402  6646 data_layer.cpp:45] output data size: 100,3,32,32
I0425 14:53:35.137789  6646 net.cpp:122] Setting up cifar
I0425 14:53:35.137847  6646 net.cpp:129] Top shape: 100 3 32 32 (307200)
I0425 14:53:35.137851  6646 net.cpp:129] Top shape: 100 (100)
I0425 14:53:35.137854  6646 net.cpp:137] Memory required for data: 1229200
I0425 14:53:35.137859  6646 layer_factory.hpp:77] Creating layer label_cifar_1_split
I0425 14:53:35.137897  6646 net.cpp:84] Creating Layer label_cifar_1_split
I0425 14:53:35.137900  6646 net.cpp:406] label_cifar_1_split <- label
I0425 14:53:35.137907  6646 net.cpp:380] label_cifar_1_split -> label_cifar_1_split_0
I0425 14:53:35.137915  6646 net.cpp:380] label_cifar_1_split -> label_cifar_1_split_1
I0425 14:53:35.137964  6646 net.cpp:122] Setting up label_cifar_1_split
I0425 14:53:35.137969  6646 net.cpp:129] Top shape: 100 (100)
I0425 14:53:35.137972  6646 net.cpp:129] Top shape: 100 (100)
I0425 14:53:35.137974  6646 net.cpp:137] Memory required for data: 1230000
I0425 14:53:35.137975  6646 layer_factory.hpp:77] Creating layer conv0
I0425 14:53:35.137997  6646 net.cpp:84] Creating Layer conv0
I0425 14:53:35.138000  6646 net.cpp:406] conv0 <- data
I0425 14:53:35.138018  6646 net.cpp:380] conv0 -> conv0
I0425 14:53:35.138221  6646 net.cpp:122] Setting up conv0
I0425 14:53:35.138226  6646 net.cpp:129] Top shape: 100 50 28 28 (3920000)
I0425 14:53:35.138242  6646 net.cpp:137] Memory required for data: 16910000
I0425 14:53:35.138249  6646 layer_factory.hpp:77] Creating layer pool0
I0425 14:53:35.138267  6646 net.cpp:84] Creating Layer pool0
I0425 14:53:35.138270  6646 net.cpp:406] pool0 <- conv0
I0425 14:53:35.138275  6646 net.cpp:380] pool0 -> pool0
I0425 14:53:35.138300  6646 net.cpp:122] Setting up pool0
I0425 14:53:35.138305  6646 net.cpp:129] Top shape: 100 50 14 14 (980000)
I0425 14:53:35.138308  6646 net.cpp:137] Memory required for data: 20830000
I0425 14:53:35.138309  6646 layer_factory.hpp:77] Creating layer conv1
I0425 14:53:35.138316  6646 net.cpp:84] Creating Layer conv1
I0425 14:53:35.138319  6646 net.cpp:406] conv1 <- pool0
I0425 14:53:35.138322  6646 net.cpp:380] conv1 -> conv1
I0425 14:53:35.139132  6646 net.cpp:122] Setting up conv1
I0425 14:53:35.139144  6646 net.cpp:129] Top shape: 100 50 10 10 (500000)
I0425 14:53:35.139147  6646 net.cpp:137] Memory required for data: 22830000
I0425 14:53:35.139154  6646 layer_factory.hpp:77] Creating layer pool1
I0425 14:53:35.139160  6646 net.cpp:84] Creating Layer pool1
I0425 14:53:35.139163  6646 net.cpp:406] pool1 <- conv1
I0425 14:53:35.139168  6646 net.cpp:380] pool1 -> pool1
I0425 14:53:35.139196  6646 net.cpp:122] Setting up pool1
I0425 14:53:35.139202  6646 net.cpp:129] Top shape: 100 50 5 5 (125000)
I0425 14:53:35.139204  6646 net.cpp:137] Memory required for data: 23330000
I0425 14:53:35.139207  6646 layer_factory.hpp:77] Creating layer ip1
I0425 14:53:35.139212  6646 net.cpp:84] Creating Layer ip1
I0425 14:53:35.139215  6646 net.cpp:406] ip1 <- pool1
I0425 14:53:35.139220  6646 net.cpp:380] ip1 -> ip1
I0425 14:53:35.143069  6646 net.cpp:122] Setting up ip1
I0425 14:53:35.143084  6646 net.cpp:129] Top shape: 100 500 (50000)
I0425 14:53:35.143086  6646 net.cpp:137] Memory required for data: 23530000
I0425 14:53:35.143095  6646 layer_factory.hpp:77] Creating layer relu1
I0425 14:53:35.143121  6646 net.cpp:84] Creating Layer relu1
I0425 14:53:35.143137  6646 net.cpp:406] relu1 <- ip1
I0425 14:53:35.143142  6646 net.cpp:367] relu1 -> ip1 (in-place)
I0425 14:53:35.143148  6646 net.cpp:122] Setting up relu1
I0425 14:53:35.143152  6646 net.cpp:129] Top shape: 100 500 (50000)
I0425 14:53:35.143153  6646 net.cpp:137] Memory required for data: 23730000
I0425 14:53:35.143157  6646 layer_factory.hpp:77] Creating layer ip2
I0425 14:53:35.143164  6646 net.cpp:84] Creating Layer ip2
I0425 14:53:35.143167  6646 net.cpp:406] ip2 <- ip1
I0425 14:53:35.143170  6646 net.cpp:380] ip2 -> ip2
I0425 14:53:35.143302  6646 net.cpp:122] Setting up ip2
I0425 14:53:35.143307  6646 net.cpp:129] Top shape: 100 10 (1000)
I0425 14:53:35.143309  6646 net.cpp:137] Memory required for data: 23734000
I0425 14:53:35.143313  6646 layer_factory.hpp:77] Creating layer relu2
I0425 14:53:35.143318  6646 net.cpp:84] Creating Layer relu2
I0425 14:53:35.143321  6646 net.cpp:406] relu2 <- ip2
I0425 14:53:35.143324  6646 net.cpp:367] relu2 -> ip2 (in-place)
I0425 14:53:35.143329  6646 net.cpp:122] Setting up relu2
I0425 14:53:35.143344  6646 net.cpp:129] Top shape: 100 10 (1000)
I0425 14:53:35.143347  6646 net.cpp:137] Memory required for data: 23738000
I0425 14:53:35.143348  6646 layer_factory.hpp:77] Creating layer ip2_relu2_0_split
I0425 14:53:35.143352  6646 net.cpp:84] Creating Layer ip2_relu2_0_split
I0425 14:53:35.143355  6646 net.cpp:406] ip2_relu2_0_split <- ip2
I0425 14:53:35.143360  6646 net.cpp:380] ip2_relu2_0_split -> ip2_relu2_0_split_0
I0425 14:53:35.143365  6646 net.cpp:380] ip2_relu2_0_split -> ip2_relu2_0_split_1
I0425 14:53:35.143405  6646 net.cpp:122] Setting up ip2_relu2_0_split
I0425 14:53:35.143411  6646 net.cpp:129] Top shape: 100 10 (1000)
I0425 14:53:35.143414  6646 net.cpp:129] Top shape: 100 10 (1000)
I0425 14:53:35.143417  6646 net.cpp:137] Memory required for data: 23746000
I0425 14:53:35.143419  6646 layer_factory.hpp:77] Creating layer accuracy
I0425 14:53:35.143424  6646 net.cpp:84] Creating Layer accuracy
I0425 14:53:35.143427  6646 net.cpp:406] accuracy <- ip2_relu2_0_split_0
I0425 14:53:35.143430  6646 net.cpp:406] accuracy <- label_cifar_1_split_0
I0425 14:53:35.143435  6646 net.cpp:380] accuracy -> accuracy
…
