…
I0425 14:51:22.382200  6568 net.cpp:294] The NetState phase (0) differed from the phase (1) specified by a rule in layer accuracy
I0425 14:51:22.382285  6568 net.cpp:51] Initializing net from parameters: 
name: "CIFARLeNet"
state {
  phase: TRAIN
  level: 0
  stage: ""
}
layer {
  name: "cifar"
  type: "Data"
  top: "data"
  top: "label"
  include {
    phase: TRAIN
  }
  transform_param {
    mean_file: "examples/cifar10/mean.binaryproto"
  }
  data_param {
    source: "examples/cifar10/cifar10_train_lmdb"
    batch_size: 64
    backend: LMDB
  }
}
layer {
  name: "conv0"
  type: "Convolution"
  bottom: "data"
  top: "conv0"
  param {
    lr_mult: 1
  }
  param {
    lr_mult: 2
  }
  convolution_param {
    num_output: 25
    kernel_size: 5
    stride: 1
    weight_filler {
      type: "xavier"
    }
    bias_filler {
      type: "constant"
    }
  }
}
layer {
  name: "pool0"
  type: "Pooling"
  bottom: "conv0"
  top: "pool0"
  pooling_param {
    pool: MAX
    kernel_size: 2
    stride: 2
  }
}
layer {
  name: "conv1"
  type: "Convolution"
  bottom: "pool0"
  top: "conv1"
  param {
    lr_mult: 1
  }
  param {
    lr_mult: 2
  }
  convolution_param {
    num_output: 25
    kernel_size: 5
    stride: 1
    weight_filler {
      type: "xavier"
    }
    bias_filler {
      type: "constant"
    }
  }
}
layer {
  name: "pool1"
  type: "Pooling"
  bottom: "conv1"
  top: "pool1"
  pooling_param {
    pool: MAX
    kernel_size: 2
    stride: 2
  }
}
layer {
  name: "ip1"
  type: "InnerProduct"
  bottom: "pool1"
  top: "ip1"
  param {
    lr_mult: 1
  }
  param {
    lr_mult: 2
  }
  inner_product_param {
    num_output: 500
    weight_filler {
      type: "xavier"
    }
    bias_filler {
      type: "constant"
    }
  }
}
layer {
  name: "relu1"
  type: "ReLU"
  bottom: "ip1"
  top: "ip1"
}
layer {
  name: "ip2"
  type: "InnerProduct"
  bottom: "ip1"
  top: "ip2"
  param {
    lr_mult: 1
  }
  param {
    lr_mult: 2
  }
  inner_product_param {
    num_output: 10
    weight_filler {
      type: "xavier"
    }
    bias_filler {
      type: "constant"
    }
  }
}
layer {
  name: "relu2"
  type: "ReLU"
  bottom: "ip2"
  top: "ip2"
}
layer {
  name: "loss"
  type: "SoftmaxWithLoss"
  bottom: "ip2"
  bottom: "label"
  top: "loss"
}
I0425 14:51:22.382364  6568 layer_factory.hpp:77] Creating layer cifar
I0425 14:51:22.382469  6568 db_lmdb.cpp:35] Opened lmdb examples/cifar10/cifar10_train_lmdb
I0425 14:51:22.382490  6568 net.cpp:84] Creating Layer cifar
I0425 14:51:22.382498  6568 net.cpp:380] cifar -> data
I0425 14:51:22.382530  6568 net.cpp:380] cifar -> label
I0425 14:51:22.382540  6568 data_transformer.cpp:25] Loading mean file from: examples/cifar10/mean.binaryproto
I0425 14:51:22.383460  6568 data_layer.cpp:45] output data size: 64,3,32,32
I0425 14:51:22.386674  6568 net.cpp:122] Setting up cifar
I0425 14:51:22.386705  6568 net.cpp:129] Top shape: 64 3 32 32 (196608)
I0425 14:51:22.386709  6568 net.cpp:129] Top shape: 64 (64)
I0425 14:51:22.386730  6568 net.cpp:137] Memory required for data: 786688
I0425 14:51:22.386736  6568 layer_factory.hpp:77] Creating layer conv0
I0425 14:51:22.386767  6568 net.cpp:84] Creating Layer conv0
I0425 14:51:22.386773  6568 net.cpp:406] conv0 <- data
I0425 14:51:22.386798  6568 net.cpp:380] conv0 -> conv0
I0425 14:51:22.387498  6568 net.cpp:122] Setting up conv0
I0425 14:51:22.387506  6568 net.cpp:129] Top shape: 64 25 28 28 (1254400)
I0425 14:51:22.387508  6568 net.cpp:137] Memory required for data: 5804288
I0425 14:51:22.387544  6568 layer_factory.hpp:77] Creating layer pool0
I0425 14:51:22.387565  6568 net.cpp:84] Creating Layer pool0
I0425 14:51:22.387567  6568 net.cpp:406] pool0 <- conv0
I0425 14:51:22.387572  6568 net.cpp:380] pool0 -> pool0
I0425 14:51:22.387624  6568 net.cpp:122] Setting up pool0
I0425 14:51:22.387629  6568 net.cpp:129] Top shape: 64 25 14 14 (313600)
I0425 14:51:22.387650  6568 net.cpp:137] Memory required for data: 7058688
I0425 14:51:22.387651  6568 layer_factory.hpp:77] Creating layer conv1
I0425 14:51:22.387660  6568 net.cpp:84] Creating Layer conv1
I0425 14:51:22.387662  6568 net.cpp:406] conv1 <- pool0
I0425 14:51:22.387681  6568 net.cpp:380] conv1 -> conv1
I0425 14:51:22.388391  6568 net.cpp:122] Setting up conv1
I0425 14:51:22.388418  6568 net.cpp:129] Top shape: 64 25 10 10 (160000)
I0425 14:51:22.388420  6568 net.cpp:137] Memory required for data: 7698688
I0425 14:51:22.388427  6568 layer_factory.hpp:77] Creating layer pool1
I0425 14:51:22.388432  6568 net.cpp:84] Creating Layer pool1
I0425 14:51:22.388433  6568 net.cpp:406] pool1 <- conv1
I0425 14:51:22.388437  6568 net.cpp:380] pool1 -> pool1
I0425 14:51:22.388577  6568 net.cpp:122] Setting up pool1
I0425 14:51:22.388582  6568 net.cpp:129] Top shape: 64 25 5 5 (40000)
I0425 14:51:22.388583  6568 net.cpp:137] Memory required for data: 7858688
I0425 14:51:22.388587  6568 layer_factory.hpp:77] Creating layer ip1
I0425 14:51:22.388592  6568 net.cpp:84] Creating Layer ip1
I0425 14:51:22.388595  6568 net.cpp:406] ip1 <- pool1
I0425 14:51:22.388599  6568 net.cpp:380] ip1 -> ip1
I0425 14:51:22.390529  6568 net.cpp:122] Setting up ip1
I0425 14:51:22.390538  6568 net.cpp:129] Top shape: 64 500 (32000)
I0425 14:51:22.390539  6568 net.cpp:137] Memory required for data: 7986688
I0425 14:51:22.390547  6568 layer_factory.hpp:77] Creating layer relu1
I0425 14:51:22.390552  6568 net.cpp:84] Creating Layer relu1
I0425 14:51:22.390554  6568 net.cpp:406] relu1 <- ip1
I0425 14:51:22.390558  6568 net.cpp:367] relu1 -> ip1 (in-place)
I0425 14:51:22.390583  6568 net.cpp:122] Setting up relu1
I0425 14:51:22.390604  6568 net.cpp:129] Top shape: 64 500 (32000)
I0425 14:51:22.390606  6568 net.cpp:137] Memory required for data: 8114688
I0425 14:51:22.390612  6568 layer_factory.hpp:77] Creating layer ip2
I0425 14:51:22.390627  6568 net.cpp:84] Creating Layer ip2
I0425 14:51:22.390630  6568 net.cpp:406] ip2 <- ip1
I0425 14:51:22.390648  6568 net.cpp:380] ip2 -> ip2
I0425 14:51:22.390774  6568 net.cpp:122] Setting up ip2
I0425 14:51:22.390777  6568 net.cpp:129] Top shape: 64 10 (640)
I0425 14:51:22.390799  6568 net.cpp:137] Memory required for data: 8117248
I0425 14:51:22.390802  6568 layer_factory.hpp:77] Creating layer relu2
I0425 14:51:22.390806  6568 net.cpp:84] Creating Layer relu2
I0425 14:51:22.390808  6568 net.cpp:406] relu2 <- ip2
I0425 14:51:22.390815  6568 net.cpp:367] relu2 -> ip2 (in-place)
I0425 14:51:22.390818  6568 net.cpp:122] Setting up relu2
I0425 14:51:22.390822  6568 net.cpp:129] Top shape: 64 10 (640)
I0425 14:51:22.390825  6568 net.cpp:137] Memory required for data: 8119808
I0425 14:51:22.390826  6568 layer_factory.hpp:77] Creating layer loss
I0425 14:51:22.390830  6568 net.cpp:84] Creating Layer loss
I0425 14:51:22.390832  6568 net.cpp:406] loss <- ip2
I0425 14:51:22.390836  6568 net.cpp:406] loss <- label
I0425 14:51:22.390841  6568 net.cpp:380] loss -> loss
I0425 14:51:22.390851  6568 layer_factory.hpp:77] Creating layer loss
…
I0425 14:51:22.391185  6568 solver.cpp:173] Creating test net (#0) specified by net file: ECE595/cifar/train_test/var_num_feature_maxiter6000/cifarlenet_train_test_featuresize25.prototxt
I0425 14:51:22.391202  6568 net.cpp:294] The NetState phase (1) differed from the phase (0) specified by a rule in layer cifar
I0425 14:51:22.391319  6568 net.cpp:51] Initializing net from parameters: 
name: "CIFARLeNet"
state {
  phase: TEST
}
layer {
  name: "cifar"
  type: "Data"
  top: "data"
  top: "label"
  include {
    phase: TEST
  }
  transform_param {
    mean_file: "examples/cifar10/mean.binaryproto"
  }
  data_param {
    source: "examples/cifar10/cifar10_test_lmdb"
    batch_size: 100
    backend: LMDB
  }
}
layer {
  name: "conv0"
  type: "Convolution"
  bottom: "data"
  top: "conv0"
  param {
    lr_mult: 1
  }
  param {
    lr_mult: 2
  }
  convolution_param {
    num_output: 25
    kernel_size: 5
    stride: 1
    weight_filler {
      type: "xavier"
    }
    bias_filler {
      type: "constant"
    }
  }
}
layer {
  name: "pool0"
  type: "Pooling"
  bottom: "conv0"
  top: "pool0"
  pooling_param {
    pool: MAX
    kernel_size: 2
    stride: 2
  }
}
layer {
  name: "conv1"
  type: "Convolution"
  bottom: "pool0"
  top: "conv1"
  param {
    lr_mult: 1
  }
  param {
    lr_mult: 2
  }
  convolution_param {
    num_output: 25
    kernel_size: 5
    stride: 1
    weight_filler {
      type: "xavier"
    }
    bias_filler {
      type: "constant"
    }
  }
}
layer {
  name: "pool1"
  type: "Pooling"
  bottom: "conv1"
  top: "pool1"
  pooling_param {
    pool: MAX
    kernel_size: 2
    stride: 2
  }
}
layer {
  name: "ip1"
  type: "InnerProduct"
  bottom: "pool1"
  top: "ip1"
  param {
    lr_mult: 1
  }
  param {
    lr_mult: 2
  }
  inner_product_param {
    num_output: 500
    weight_filler {
      type: "xavier"
    }
    bias_filler {
      type: "constant"
    }
  }
}
layer {
  name: "relu1"
  type: "ReLU"
  bottom: "ip1"
  top: "ip1"
}
layer {
  name: "ip2"
  type: "InnerProduct"
  bottom: "ip1"
  top: "ip2"
  param {
    lr_mult: 1
  }
  param {
    lr_mult: 2
  }
  inner_product_param {
    num_output: 10
    weight_filler {
      type: "xavier"
    }
    bias_filler {
      type: "constant"
    }
  }
}
layer {
  name: "relu2"
  type: "ReLU"
  bottom: "ip2"
  top: "ip2"
}
layer {
  name: "accuracy"
  type: "Accuracy"
  bottom: "ip2"
  bottom: "label"
  top: "accuracy"
  include {
    phase: TEST
  }
}
layer {
  name: "loss"
  type: "SoftmaxWithLoss"
  bottom: "ip2"
  bottom: "label"
  top: "loss"
}
I0425 14:51:22.391396  6568 layer_factory.hpp:77] Creating layer cifar
I0425 14:51:22.391438  6568 db_lmdb.cpp:35] Opened lmdb examples/cifar10/cifar10_test_lmdb
I0425 14:51:22.391449  6568 net.cpp:84] Creating Layer cifar
I0425 14:51:22.391455  6568 net.cpp:380] cifar -> data
I0425 14:51:22.391460  6568 net.cpp:380] cifar -> label
I0425 14:51:22.391468  6568 data_transformer.cpp:25] Loading mean file from: examples/cifar10/mean.binaryproto
I0425 14:51:22.391619  6568 data_layer.cpp:45] output data size: 100,3,32,32
I0425 14:51:22.395009  6568 net.cpp:122] Setting up cifar
I0425 14:51:22.395027  6568 net.cpp:129] Top shape: 100 3 32 32 (307200)
I0425 14:51:22.395056  6568 net.cpp:129] Top shape: 100 (100)
I0425 14:51:22.395076  6568 net.cpp:137] Memory required for data: 1229200
I0425 14:51:22.395081  6568 layer_factory.hpp:77] Creating layer label_cifar_1_split
I0425 14:51:22.395105  6568 net.cpp:84] Creating Layer label_cifar_1_split
I0425 14:51:22.395109  6568 net.cpp:406] label_cifar_1_split <- label
I0425 14:51:22.395117  6568 net.cpp:380] label_cifar_1_split -> label_cifar_1_split_0
I0425 14:51:22.395125  6568 net.cpp:380] label_cifar_1_split -> label_cifar_1_split_1
I0425 14:51:22.395160  6568 net.cpp:122] Setting up label_cifar_1_split
I0425 14:51:22.395165  6568 net.cpp:129] Top shape: 100 (100)
I0425 14:51:22.395167  6568 net.cpp:129] Top shape: 100 (100)
I0425 14:51:22.395169  6568 net.cpp:137] Memory required for data: 1230000
I0425 14:51:22.395171  6568 layer_factory.hpp:77] Creating layer conv0
I0425 14:51:22.395181  6568 net.cpp:84] Creating Layer conv0
I0425 14:51:22.395184  6568 net.cpp:406] conv0 <- data
I0425 14:51:22.395190  6568 net.cpp:380] conv0 -> conv0
I0425 14:51:22.395380  6568 net.cpp:122] Setting up conv0
I0425 14:51:22.395385  6568 net.cpp:129] Top shape: 100 25 28 28 (1960000)
I0425 14:51:22.395387  6568 net.cpp:137] Memory required for data: 9070000
I0425 14:51:22.395396  6568 layer_factory.hpp:77] Creating layer pool0
I0425 14:51:22.395401  6568 net.cpp:84] Creating Layer pool0
I0425 14:51:22.395403  6568 net.cpp:406] pool0 <- conv0
I0425 14:51:22.395408  6568 net.cpp:380] pool0 -> pool0
I0425 14:51:22.395452  6568 net.cpp:122] Setting up pool0
I0425 14:51:22.395457  6568 net.cpp:129] Top shape: 100 25 14 14 (490000)
I0425 14:51:22.395458  6568 net.cpp:137] Memory required for data: 11030000
I0425 14:51:22.395460  6568 layer_factory.hpp:77] Creating layer conv1
I0425 14:51:22.395467  6568 net.cpp:84] Creating Layer conv1
I0425 14:51:22.395470  6568 net.cpp:406] conv1 <- pool0
I0425 14:51:22.395474  6568 net.cpp:380] conv1 -> conv1
I0425 14:51:22.395795  6568 net.cpp:122] Setting up conv1
I0425 14:51:22.395802  6568 net.cpp:129] Top shape: 100 25 10 10 (250000)
I0425 14:51:22.395803  6568 net.cpp:137] Memory required for data: 12030000
I0425 14:51:22.395823  6568 layer_factory.hpp:77] Creating layer pool1
I0425 14:51:22.395828  6568 net.cpp:84] Creating Layer pool1
I0425 14:51:22.395833  6568 net.cpp:406] pool1 <- conv1
I0425 14:51:22.395835  6568 net.cpp:380] pool1 -> pool1
I0425 14:51:22.396095  6568 net.cpp:122] Setting up pool1
I0425 14:51:22.396098  6568 net.cpp:129] Top shape: 100 25 5 5 (62500)
I0425 14:51:22.396101  6568 net.cpp:137] Memory required for data: 12280000
I0425 14:51:22.396103  6568 layer_factory.hpp:77] Creating layer ip1
I0425 14:51:22.396109  6568 net.cpp:84] Creating Layer ip1
I0425 14:51:22.396112  6568 net.cpp:406] ip1 <- pool1
I0425 14:51:22.396117  6568 net.cpp:380] ip1 -> ip1
I0425 14:51:22.398043  6568 net.cpp:122] Setting up ip1
I0425 14:51:22.398053  6568 net.cpp:129] Top shape: 100 500 (50000)
I0425 14:51:22.398056  6568 net.cpp:137] Memory required for data: 12480000
I0425 14:51:22.398063  6568 layer_factory.hpp:77] Creating layer relu1
I0425 14:51:22.398069  6568 net.cpp:84] Creating Layer relu1
I0425 14:51:22.398089  6568 net.cpp:406] relu1 <- ip1
I0425 14:51:22.398093  6568 net.cpp:367] relu1 -> ip1 (in-place)
I0425 14:51:22.398114  6568 net.cpp:122] Setting up relu1
I0425 14:51:22.398118  6568 net.cpp:129] Top shape: 100 500 (50000)
I0425 14:51:22.398120  6568 net.cpp:137] Memory required for data: 12680000
I0425 14:51:22.398123  6568 layer_factory.hpp:77] Creating layer ip2
I0425 14:51:22.398129  6568 net.cpp:84] Creating Layer ip2
I0425 14:51:22.398133  6568 net.cpp:406] ip2 <- ip1
I0425 14:51:22.398136  6568 net.cpp:380] ip2 -> ip2
I0425 14:51:22.398249  6568 net.cpp:122] Setting up ip2
I0425 14:51:22.398254  6568 net.cpp:129] Top shape: 100 10 (1000)
I0425 14:51:22.398257  6568 net.cpp:137] Memory required for data: 12684000
I0425 14:51:22.398259  6568 layer_factory.hpp:77] Creating layer relu2
I0425 14:51:22.398263  6568 net.cpp:84] Creating Layer relu2
I0425 14:51:22.398267  6568 net.cpp:406] relu2 <- ip2
I0425 14:51:22.398269  6568 net.cpp:367] relu2 -> ip2 (in-place)
I0425 14:51:22.398272  6568 net.cpp:122] Setting up relu2
I0425 14:51:22.398275  6568 net.cpp:129] Top shape: 100 10 (1000)
I0425 14:51:22.398288  6568 net.cpp:137] Memory required for data: 12688000
I0425 14:51:22.398290  6568 layer_factory.hpp:77] Creating layer ip2_relu2_0_split
I0425 14:51:22.398294  6568 net.cpp:84] Creating Layer ip2_relu2_0_split
I0425 14:51:22.398296  6568 net.cpp:406] ip2_relu2_0_split <- ip2
I0425 14:51:22.398301  6568 net.cpp:380] ip2_relu2_0_split -> ip2_relu2_0_split_0
I0425 14:51:22.398308  6568 net.cpp:380] ip2_relu2_0_split -> ip2_relu2_0_split_1
I0425 14:51:22.398334  6568 net.cpp:122] Setting up ip2_relu2_0_split
I0425 14:51:22.398339  6568 net.cpp:129] Top shape: 100 10 (1000)
I0425 14:51:22.398344  6568 net.cpp:129] Top shape: 100 10 (1000)
I0425 14:51:22.398346  6568 net.cpp:137] Memory required for data: 12696000
I0425 14:51:22.398350  6568 layer_factory.hpp:77] Creating layer accuracy
I0425 14:51:22.398360  6568 net.cpp:84] Creating Layer accuracy
I0425 14:51:22.398402  6568 net.cpp:406] accuracy <- ip2_relu2_0_split_0
I0425 14:51:22.398407  6568 net.cpp:406] accuracy <- label_cifar_1_split_0
I0425 14:51:22.398416  6568 net.cpp:380] accuracy -> accuracy
…
