…
I0425 14:56:51.033865  6676 net.cpp:294] The NetState phase (0) differed from the phase (1) specified by a rule in layer accuracy
I0425 14:56:51.033996  6676 net.cpp:51] Initializing net from parameters: 
name: "CIFARLeNet"
state {
  phase: TRAIN
  level: 0
  stage: ""
}
layer {
  name: "cifar"
  type: "Data"
  top: "data"
  top: "label"
  include {
    phase: TRAIN
  }
  transform_param {
    mean_file: "examples/cifar10/mean.binaryproto"
  }
  data_param {
    source: "examples/cifar10/cifar10_train_lmdb"
    batch_size: 64
    backend: LMDB
  }
}
layer {
  name: "conv0"
  type: "Convolution"
  bottom: "data"
  top: "conv0"
  param {
    lr_mult: 1
  }
  param {
    lr_mult: 2
  }
  convolution_param {
    num_output: 100
    kernel_size: 5
    stride: 1
    weight_filler {
      type: "xavier"
    }
    bias_filler {
      type: "constant"
    }
  }
}
layer {
  name: "pool0"
  type: "Pooling"
  bottom: "conv0"
  top: "pool0"
  pooling_param {
    pool: MAX
    kernel_size: 2
    stride: 2
  }
}
layer {
  name: "conv1"
  type: "Convolution"
  bottom: "pool0"
  top: "conv1"
  param {
    lr_mult: 1
  }
  param {
    lr_mult: 2
  }
  convolution_param {
    num_output: 100
    kernel_size: 5
    stride: 1
    weight_filler {
      type: "xavier"
    }
    bias_filler {
      type: "constant"
    }
  }
}
layer {
  name: "pool1"
  type: "Pooling"
  bottom: "conv1"
  top: "pool1"
  pooling_param {
    pool: MAX
    kernel_size: 2
    stride: 2
  }
}
layer {
  name: "ip1"
  type: "InnerProduct"
  bottom: "pool1"
  top: "ip1"
  param {
    lr_mult: 1
  }
  param {
    lr_mult: 2
  }
  inner_product_param {
    num_output: 500
    weight_filler {
      type: "xavier"
    }
    bias_filler {
      type: "constant"
    }
  }
}
layer {
  name: "relu1"
  type: "ReLU"
  bottom: "ip1"
  top: "ip1"
}
layer {
  name: "ip2"
  type: "InnerProduct"
  bottom: "ip1"
  top: "ip2"
  param {
    lr_mult: 1
  }
  param {
    lr_mult: 2
  }
  inner_product_param {
    num_output: 10
    weight_filler {
      type: "xavier"
    }
    bias_filler {
      type: "constant"
    }
  }
}
layer {
  name: "relu2"
  type: "ReLU"
  bottom: "ip2"
  top: "ip2"
}
layer {
  name: "loss"
  type: "SoftmaxWithLoss"
  bottom: "ip2"
  bottom: "label"
  top: "loss"
}
I0425 14:56:51.034103  6676 layer_factory.hpp:77] Creating layer cifar
I0425 14:56:51.034215  6676 db_lmdb.cpp:35] Opened lmdb examples/cifar10/cifar10_train_lmdb
I0425 14:56:51.034260  6676 net.cpp:84] Creating Layer cifar
I0425 14:56:51.034283  6676 net.cpp:380] cifar -> data
I0425 14:56:51.034338  6676 net.cpp:380] cifar -> label
I0425 14:56:51.034368  6676 data_transformer.cpp:25] Loading mean file from: examples/cifar10/mean.binaryproto
I0425 14:56:51.035203  6676 data_layer.cpp:45] output data size: 64,3,32,32
I0425 14:56:51.038638  6676 net.cpp:122] Setting up cifar
I0425 14:56:51.038674  6676 net.cpp:129] Top shape: 64 3 32 32 (196608)
I0425 14:56:51.038679  6676 net.cpp:129] Top shape: 64 (64)
I0425 14:56:51.038682  6676 net.cpp:137] Memory required for data: 786688
I0425 14:56:51.038692  6676 layer_factory.hpp:77] Creating layer conv0
I0425 14:56:51.038727  6676 net.cpp:84] Creating Layer conv0
I0425 14:56:51.038733  6676 net.cpp:406] conv0 <- data
I0425 14:56:51.038748  6676 net.cpp:380] conv0 -> conv0
I0425 14:56:51.039671  6676 net.cpp:122] Setting up conv0
I0425 14:56:51.039697  6676 net.cpp:129] Top shape: 64 100 28 28 (5017600)
I0425 14:56:51.039701  6676 net.cpp:137] Memory required for data: 20857088
I0425 14:56:51.039750  6676 layer_factory.hpp:77] Creating layer pool0
I0425 14:56:51.039760  6676 net.cpp:84] Creating Layer pool0
I0425 14:56:51.039765  6676 net.cpp:406] pool0 <- conv0
I0425 14:56:51.039770  6676 net.cpp:380] pool0 -> pool0
I0425 14:56:51.039993  6676 net.cpp:122] Setting up pool0
I0425 14:56:51.039999  6676 net.cpp:129] Top shape: 64 100 14 14 (1254400)
I0425 14:56:51.040002  6676 net.cpp:137] Memory required for data: 25874688
I0425 14:56:51.040005  6676 layer_factory.hpp:77] Creating layer conv1
I0425 14:56:51.040014  6676 net.cpp:84] Creating Layer conv1
I0425 14:56:51.040019  6676 net.cpp:406] conv1 <- pool0
I0425 14:56:51.040026  6676 net.cpp:380] conv1 -> conv1
I0425 14:56:51.041788  6676 net.cpp:122] Setting up conv1
I0425 14:56:51.041798  6676 net.cpp:129] Top shape: 64 100 10 10 (640000)
I0425 14:56:51.041802  6676 net.cpp:137] Memory required for data: 28434688
I0425 14:56:51.041812  6676 layer_factory.hpp:77] Creating layer pool1
I0425 14:56:51.041821  6676 net.cpp:84] Creating Layer pool1
I0425 14:56:51.041826  6676 net.cpp:406] pool1 <- conv1
I0425 14:56:51.041833  6676 net.cpp:380] pool1 -> pool1
I0425 14:56:51.041862  6676 net.cpp:122] Setting up pool1
I0425 14:56:51.041868  6676 net.cpp:129] Top shape: 64 100 5 5 (160000)
I0425 14:56:51.041872  6676 net.cpp:137] Memory required for data: 29074688
I0425 14:56:51.041875  6676 layer_factory.hpp:77] Creating layer ip1
I0425 14:56:51.041903  6676 net.cpp:84] Creating Layer ip1
I0425 14:56:51.041923  6676 net.cpp:406] ip1 <- pool1
I0425 14:56:51.041929  6676 net.cpp:380] ip1 -> ip1
I0425 14:56:51.049386  6676 net.cpp:122] Setting up ip1
I0425 14:56:51.049401  6676 net.cpp:129] Top shape: 64 500 (32000)
I0425 14:56:51.049404  6676 net.cpp:137] Memory required for data: 29202688
I0425 14:56:51.049453  6676 layer_factory.hpp:77] Creating layer relu1
I0425 14:56:51.049482  6676 net.cpp:84] Creating Layer relu1
I0425 14:56:51.049486  6676 net.cpp:406] relu1 <- ip1
I0425 14:56:51.049509  6676 net.cpp:367] relu1 -> ip1 (in-place)
I0425 14:56:51.049536  6676 net.cpp:122] Setting up relu1
I0425 14:56:51.049556  6676 net.cpp:129] Top shape: 64 500 (32000)
I0425 14:56:51.049558  6676 net.cpp:137] Memory required for data: 29330688
I0425 14:56:51.049561  6676 layer_factory.hpp:77] Creating layer ip2
I0425 14:56:51.049569  6676 net.cpp:84] Creating Layer ip2
I0425 14:56:51.049590  6676 net.cpp:406] ip2 <- ip1
I0425 14:56:51.049597  6676 net.cpp:380] ip2 -> ip2
I0425 14:56:51.049731  6676 net.cpp:122] Setting up ip2
I0425 14:56:51.049737  6676 net.cpp:129] Top shape: 64 10 (640)
I0425 14:56:51.049741  6676 net.cpp:137] Memory required for data: 29333248
I0425 14:56:51.049746  6676 layer_factory.hpp:77] Creating layer relu2
I0425 14:56:51.049757  6676 net.cpp:84] Creating Layer relu2
I0425 14:56:51.049760  6676 net.cpp:406] relu2 <- ip2
I0425 14:56:51.049765  6676 net.cpp:367] relu2 -> ip2 (in-place)
I0425 14:56:51.049772  6676 net.cpp:122] Setting up relu2
I0425 14:56:51.049777  6676 net.cpp:129] Top shape: 64 10 (640)
I0425 14:56:51.049779  6676 net.cpp:137] Memory required for data: 29335808
I0425 14:56:51.049783  6676 layer_factory.hpp:77] Creating layer loss
I0425 14:56:51.049788  6676 net.cpp:84] Creating Layer loss
I0425 14:56:51.049793  6676 net.cpp:406] loss <- ip2
I0425 14:56:51.049796  6676 net.cpp:406] loss <- label
I0425 14:56:51.049806  6676 net.cpp:380] loss -> loss
I0425 14:56:51.049818  6676 layer_factory.hpp:77] Creating layer loss
…
I0425 14:56:51.050110  6676 solver.cpp:173] Creating test net (#0) specified by net file: ECE595/cifar/train_test/var_num_feature_maxiter6000/cifarlenet_train_test_featuresize100.prototxt
I0425 14:56:51.050129  6676 net.cpp:294] The NetState phase (1) differed from the phase (0) specified by a rule in layer cifar
I0425 14:56:51.050249  6676 net.cpp:51] Initializing net from parameters: 
name: "CIFARLeNet"
state {
  phase: TEST
}
layer {
  name: "cifar"
  type: "Data"
  top: "data"
  top: "label"
  include {
    phase: TEST
  }
  transform_param {
    mean_file: "examples/cifar10/mean.binaryproto"
  }
  data_param {
    source: "examples/cifar10/cifar10_test_lmdb"
    batch_size: 100
    backend: LMDB
  }
}
layer {
  name: "conv0"
  type: "Convolution"
  bottom: "data"
  top: "conv0"
  param {
    lr_mult: 1
  }
  param {
    lr_mult: 2
  }
  convolution_param {
    num_output: 100
    kernel_size: 5
    stride: 1
    weight_filler {
      type: "xavier"
    }
    bias_filler {
      type: "constant"
    }
  }
}
layer {
  name: "pool0"
  type: "Pooling"
  bottom: "conv0"
  top: "pool0"
  pooling_param {
    pool: MAX
    kernel_size: 2
    stride: 2
  }
}
layer {
  name: "conv1"
  type: "Convolution"
  bottom: "pool0"
  top: "conv1"
  param {
    lr_mult: 1
  }
  param {
    lr_mult: 2
  }
  convolution_param {
    num_output: 100
    kernel_size: 5
    stride: 1
    weight_filler {
      type: "xavier"
    }
    bias_filler {
      type: "constant"
    }
  }
}
layer {
  name: "pool1"
  type: "Pooling"
  bottom: "conv1"
  top: "pool1"
  pooling_param {
    pool: MAX
    kernel_size: 2
    stride: 2
  }
}
layer {
  name: "ip1"
  type: "InnerProduct"
  bottom: "pool1"
  top: "ip1"
  param {
    lr_mult: 1
  }
  param {
    lr_mult: 2
  }
  inner_product_param {
    num_output: 500
    weight_filler {
      type: "xavier"
    }
    bias_filler {
      type: "constant"
    }
  }
}
layer {
  name: "relu1"
  type: "ReLU"
  bottom: "ip1"
  top: "ip1"
}
layer {
  name: "ip2"
  type: "InnerProduct"
  bottom: "ip1"
  top: "ip2"
  param {
    lr_mult: 1
  }
  param {
    lr_mult: 2
  }
  inner_product_param {
    num_output: 10
    weight_filler {
      type: "xavier"
    }
    bias_filler {
      type: "constant"
    }
  }
}
layer {
  name: "relu2"
  type: "ReLU"
  bottom: "ip2"
  top: "ip2"
}
layer {
  name: "accuracy"
  type: "Accuracy"
  bottom: "ip2"
  bottom: "label"
  top: "accuracy"
  include {
    phase: TEST
  }
}
layer {
  name: "loss"
  type: "SoftmaxWithLoss"
  bottom: "ip2"
  bottom: "label"
  top: "loss"
}
I0425 14:56:51.050410  6676 layer_factory.hpp:77] Creating layer cifar
I0425 14:56:51.050508  6676 db_lmdb.cpp:35] Opened lmdb examples/cifar10/cifar10_test_lmdb
I0425 14:56:51.050520  6676 net.cpp:84] Creating Layer cifar
I0425 14:56:51.050526  6676 net.cpp:380] cifar -> data
I0425 14:56:51.050554  6676 net.cpp:380] cifar -> label
I0425 14:56:51.050578  6676 data_transformer.cpp:25] Loading mean file from: examples/cifar10/mean.binaryproto
I0425 14:56:51.050745  6676 data_layer.cpp:45] output data size: 100,3,32,32
I0425 14:56:51.054502  6676 net.cpp:122] Setting up cifar
I0425 14:56:51.054533  6676 net.cpp:129] Top shape: 100 3 32 32 (307200)
I0425 14:56:51.054536  6676 net.cpp:129] Top shape: 100 (100)
I0425 14:56:51.054539  6676 net.cpp:137] Memory required for data: 1229200
I0425 14:56:51.054574  6676 layer_factory.hpp:77] Creating layer label_cifar_1_split
I0425 14:56:51.054601  6676 net.cpp:84] Creating Layer label_cifar_1_split
I0425 14:56:51.054625  6676 net.cpp:406] label_cifar_1_split <- label
I0425 14:56:51.054633  6676 net.cpp:380] label_cifar_1_split -> label_cifar_1_split_0
I0425 14:56:51.054661  6676 net.cpp:380] label_cifar_1_split -> label_cifar_1_split_1
I0425 14:56:51.054735  6676 net.cpp:122] Setting up label_cifar_1_split
I0425 14:56:51.054741  6676 net.cpp:129] Top shape: 100 (100)
I0425 14:56:51.054744  6676 net.cpp:129] Top shape: 100 (100)
I0425 14:56:51.054749  6676 net.cpp:137] Memory required for data: 1230000
I0425 14:56:51.054751  6676 layer_factory.hpp:77] Creating layer conv0
I0425 14:56:51.054792  6676 net.cpp:84] Creating Layer conv0
I0425 14:56:51.054796  6676 net.cpp:406] conv0 <- data
I0425 14:56:51.054822  6676 net.cpp:380] conv0 -> conv0
I0425 14:56:51.055094  6676 net.cpp:122] Setting up conv0
I0425 14:56:51.055102  6676 net.cpp:129] Top shape: 100 100 28 28 (7840000)
I0425 14:56:51.055106  6676 net.cpp:137] Memory required for data: 32590000
I0425 14:56:51.055136  6676 layer_factory.hpp:77] Creating layer pool0
I0425 14:56:51.055143  6676 net.cpp:84] Creating Layer pool0
I0425 14:56:51.055164  6676 net.cpp:406] pool0 <- conv0
I0425 14:56:51.055169  6676 net.cpp:380] pool0 -> pool0
I0425 14:56:51.055235  6676 net.cpp:122] Setting up pool0
I0425 14:56:51.055241  6676 net.cpp:129] Top shape: 100 100 14 14 (1960000)
I0425 14:56:51.055249  6676 net.cpp:137] Memory required for data: 40430000
I0425 14:56:51.055253  6676 layer_factory.hpp:77] Creating layer conv1
I0425 14:56:51.055280  6676 net.cpp:84] Creating Layer conv1
I0425 14:56:51.055287  6676 net.cpp:406] conv1 <- pool0
I0425 14:56:51.055294  6676 net.cpp:380] conv1 -> conv1
I0425 14:56:51.057229  6676 net.cpp:122] Setting up conv1
I0425 14:56:51.057238  6676 net.cpp:129] Top shape: 100 100 10 10 (1000000)
I0425 14:56:51.057242  6676 net.cpp:137] Memory required for data: 44430000
I0425 14:56:51.057265  6676 layer_factory.hpp:77] Creating layer pool1
I0425 14:56:51.057271  6676 net.cpp:84] Creating Layer pool1
I0425 14:56:51.057276  6676 net.cpp:406] pool1 <- conv1
I0425 14:56:51.057296  6676 net.cpp:380] pool1 -> pool1
I0425 14:56:51.057579  6676 net.cpp:122] Setting up pool1
I0425 14:56:51.057585  6676 net.cpp:129] Top shape: 100 100 5 5 (250000)
I0425 14:56:51.057602  6676 net.cpp:137] Memory required for data: 45430000
I0425 14:56:51.057605  6676 layer_factory.hpp:77] Creating layer ip1
I0425 14:56:51.057615  6676 net.cpp:84] Creating Layer ip1
I0425 14:56:51.057618  6676 net.cpp:406] ip1 <- pool1
I0425 14:56:51.057638  6676 net.cpp:380] ip1 -> ip1
I0425 14:56:51.064877  6676 net.cpp:122] Setting up ip1
I0425 14:56:51.064898  6676 net.cpp:129] Top shape: 100 500 (50000)
I0425 14:56:51.064901  6676 net.cpp:137] Memory required for data: 45630000
I0425 14:56:51.064936  6676 layer_factory.hpp:77] Creating layer relu1
I0425 14:56:51.064946  6676 net.cpp:84] Creating Layer relu1
I0425 14:56:51.064951  6676 net.cpp:406] relu1 <- ip1
I0425 14:56:51.064960  6676 net.cpp:367] relu1 -> ip1 (in-place)
I0425 14:56:51.064986  6676 net.cpp:122] Setting up relu1
I0425 14:56:51.064991  6676 net.cpp:129] Top shape: 100 500 (50000)
I0425 14:56:51.065011  6676 net.cpp:137] Memory required for data: 45830000
I0425 14:56:51.065014  6676 layer_factory.hpp:77] Creating layer ip2
I0425 14:56:51.065043  6676 net.cpp:84] Creating Layer ip2
I0425 14:56:51.065062  6676 net.cpp:406] ip2 <- ip1
I0425 14:56:51.065083  6676 net.cpp:380] ip2 -> ip2
I0425 14:56:51.065261  6676 net.cpp:122] Setting up ip2
I0425 14:56:51.065268  6676 net.cpp:129] Top shape: 100 10 (1000)
I0425 14:56:51.065270  6676 net.cpp:137] Memory required for data: 45834000
I0425 14:56:51.065276  6676 layer_factory.hpp:77] Creating layer relu2
I0425 14:56:51.065301  6676 net.cpp:84] Creating Layer relu2
I0425 14:56:51.065306  6676 net.cpp:406] relu2 <- ip2
I0425 14:56:51.065311  6676 net.cpp:367] relu2 -> ip2 (in-place)
I0425 14:56:51.065318  6676 net.cpp:122] Setting up relu2
I0425 14:56:51.065333  6676 net.cpp:129] Top shape: 100 10 (1000)
I0425 14:56:51.065354  6676 net.cpp:137] Memory required for data: 45838000
I0425 14:56:51.065357  6676 layer_factory.hpp:77] Creating layer ip2_relu2_0_split
I0425 14:56:51.065384  6676 net.cpp:84] Creating Layer ip2_relu2_0_split
I0425 14:56:51.065388  6676 net.cpp:406] ip2_relu2_0_split <- ip2
I0425 14:56:51.065393  6676 net.cpp:380] ip2_relu2_0_split -> ip2_relu2_0_split_0
I0425 14:56:51.065418  6676 net.cpp:380] ip2_relu2_0_split -> ip2_relu2_0_split_1
I0425 14:56:51.065485  6676 net.cpp:122] Setting up ip2_relu2_0_split
I0425 14:56:51.065490  6676 net.cpp:129] Top shape: 100 10 (1000)
I0425 14:56:51.065495  6676 net.cpp:129] Top shape: 100 10 (1000)
I0425 14:56:51.065497  6676 net.cpp:137] Memory required for data: 45846000
I0425 14:56:51.065521  6676 layer_factory.hpp:77] Creating layer accuracy
I0425 14:56:51.065528  6676 net.cpp:84] Creating Layer accuracy
I0425 14:56:51.065532  6676 net.cpp:406] accuracy <- ip2_relu2_0_split_0
I0425 14:56:51.065537  6676 net.cpp:406] accuracy <- label_cifar_1_split_0
I0425 14:56:51.065562  6676 net.cpp:380] accuracy -> accuracy
…
