…
I0425 15:03:24.084612  6716 net.cpp:294] The NetState phase (0) differed from the phase (1) specified by a rule in layer accuracy
I0425 15:03:24.084674  6716 net.cpp:51] Initializing net from parameters: 
name: "CIFARLeNet"
state {
  phase: TRAIN
  level: 0
  stage: ""
}
layer {
  name: "cifar"
  type: "Data"
  top: "data"
  top: "label"
  include {
    phase: TRAIN
  }
  transform_param {
    mean_file: "examples/cifar10/mean.binaryproto"
  }
  data_param {
    source: "examples/cifar10/cifar10_train_lmdb"
    batch_size: 64
    backend: LMDB
  }
}
layer {
  name: "conv0"
  type: "Convolution"
  bottom: "data"
  top: "conv0"
  param {
    lr_mult: 1
  }
  param {
    lr_mult: 2
  }
  convolution_param {
    num_output: 150
    kernel_size: 5
    stride: 1
    weight_filler {
      type: "xavier"
    }
    bias_filler {
      type: "constant"
    }
  }
}
layer {
  name: "pool0"
  type: "Pooling"
  bottom: "conv0"
  top: "pool0"
  pooling_param {
    pool: MAX
    kernel_size: 2
    stride: 2
  }
}
layer {
  name: "conv1"
  type: "Convolution"
  bottom: "pool0"
  top: "conv1"
  param {
    lr_mult: 1
  }
  param {
    lr_mult: 2
  }
  convolution_param {
    num_output: 150
    kernel_size: 5
    stride: 1
    weight_filler {
      type: "xavier"
    }
    bias_filler {
      type: "constant"
    }
  }
}
layer {
  name: "pool1"
  type: "Pooling"
  bottom: "conv1"
  top: "pool1"
  pooling_param {
    pool: MAX
    kernel_size: 2
    stride: 2
  }
}
layer {
  name: "ip1"
  type: "InnerProduct"
  bottom: "pool1"
  top: "ip1"
  param {
    lr_mult: 1
  }
  param {
    lr_mult: 2
  }
  inner_product_param {
    num_output: 500
    weight_filler {
      type: "xavier"
    }
    bias_filler {
      type: "constant"
    }
  }
}
layer {
  name: "relu1"
  type: "ReLU"
  bottom: "ip1"
  top: "ip1"
}
layer {
  name: "ip2"
  type: "InnerProduct"
  bottom: "ip1"
  top: "ip2"
  param {
    lr_mult: 1
  }
  param {
    lr_mult: 2
  }
  inner_product_param {
    num_output: 10
    weight_filler {
      type: "xavier"
    }
    bias_filler {
      type: "constant"
    }
  }
}
layer {
  name: "relu2"
  type: "ReLU"
  bottom: "ip2"
  top: "ip2"
}
layer {
  name: "loss"
  type: "SoftmaxWithLoss"
  bottom: "ip2"
  bottom: "label"
  top: "loss"
}
I0425 15:03:24.084718  6716 layer_factory.hpp:77] Creating layer cifar
I0425 15:03:24.084794  6716 db_lmdb.cpp:35] Opened lmdb examples/cifar10/cifar10_train_lmdb
I0425 15:03:24.084816  6716 net.cpp:84] Creating Layer cifar
I0425 15:03:24.084822  6716 net.cpp:380] cifar -> data
I0425 15:03:24.084838  6716 net.cpp:380] cifar -> label
I0425 15:03:24.084847  6716 data_transformer.cpp:25] Loading mean file from: examples/cifar10/mean.binaryproto
I0425 15:03:24.085602  6716 data_layer.cpp:45] output data size: 64,3,32,32
I0425 15:03:24.088698  6716 net.cpp:122] Setting up cifar
I0425 15:03:24.088713  6716 net.cpp:129] Top shape: 64 3 32 32 (196608)
I0425 15:03:24.088717  6716 net.cpp:129] Top shape: 64 (64)
I0425 15:03:24.088719  6716 net.cpp:137] Memory required for data: 786688
I0425 15:03:24.088726  6716 layer_factory.hpp:77] Creating layer conv0
I0425 15:03:24.088742  6716 net.cpp:84] Creating Layer conv0
I0425 15:03:24.088747  6716 net.cpp:406] conv0 <- data
I0425 15:03:24.088757  6716 net.cpp:380] conv0 -> conv0
I0425 15:03:24.089632  6716 net.cpp:122] Setting up conv0
I0425 15:03:24.089643  6716 net.cpp:129] Top shape: 64 150 28 28 (7526400)
I0425 15:03:24.089644  6716 net.cpp:137] Memory required for data: 30892288
I0425 15:03:24.089659  6716 layer_factory.hpp:77] Creating layer pool0
I0425 15:03:24.089666  6716 net.cpp:84] Creating Layer pool0
I0425 15:03:24.089669  6716 net.cpp:406] pool0 <- conv0
I0425 15:03:24.089673  6716 net.cpp:380] pool0 -> pool0
I0425 15:03:24.089709  6716 net.cpp:122] Setting up pool0
I0425 15:03:24.089715  6716 net.cpp:129] Top shape: 64 150 14 14 (1881600)
I0425 15:03:24.089716  6716 net.cpp:137] Memory required for data: 38418688
I0425 15:03:24.089718  6716 layer_factory.hpp:77] Creating layer conv1
I0425 15:03:24.089725  6716 net.cpp:84] Creating Layer conv1
I0425 15:03:24.089728  6716 net.cpp:406] conv1 <- pool0
I0425 15:03:24.089731  6716 net.cpp:380] conv1 -> conv1
I0425 15:03:24.093122  6716 net.cpp:122] Setting up conv1
I0425 15:03:24.093133  6716 net.cpp:129] Top shape: 64 150 10 10 (960000)
I0425 15:03:24.093135  6716 net.cpp:137] Memory required for data: 42258688
I0425 15:03:24.093143  6716 layer_factory.hpp:77] Creating layer pool1
I0425 15:03:24.093150  6716 net.cpp:84] Creating Layer pool1
I0425 15:03:24.093153  6716 net.cpp:406] pool1 <- conv1
I0425 15:03:24.093158  6716 net.cpp:380] pool1 -> pool1
I0425 15:03:24.093186  6716 net.cpp:122] Setting up pool1
I0425 15:03:24.093191  6716 net.cpp:129] Top shape: 64 150 5 5 (240000)
I0425 15:03:24.093194  6716 net.cpp:137] Memory required for data: 43218688
I0425 15:03:24.093195  6716 layer_factory.hpp:77] Creating layer ip1
I0425 15:03:24.093200  6716 net.cpp:84] Creating Layer ip1
I0425 15:03:24.093204  6716 net.cpp:406] ip1 <- pool1
I0425 15:03:24.093207  6716 net.cpp:380] ip1 -> ip1
I0425 15:03:24.104028  6716 net.cpp:122] Setting up ip1
I0425 15:03:24.104046  6716 net.cpp:129] Top shape: 64 500 (32000)
I0425 15:03:24.104048  6716 net.cpp:137] Memory required for data: 43346688
I0425 15:03:24.104059  6716 layer_factory.hpp:77] Creating layer relu1
I0425 15:03:24.104066  6716 net.cpp:84] Creating Layer relu1
I0425 15:03:24.104068  6716 net.cpp:406] relu1 <- ip1
I0425 15:03:24.104074  6716 net.cpp:367] relu1 -> ip1 (in-place)
I0425 15:03:24.104082  6716 net.cpp:122] Setting up relu1
I0425 15:03:24.104084  6716 net.cpp:129] Top shape: 64 500 (32000)
I0425 15:03:24.104086  6716 net.cpp:137] Memory required for data: 43474688
I0425 15:03:24.104089  6716 layer_factory.hpp:77] Creating layer ip2
I0425 15:03:24.104094  6716 net.cpp:84] Creating Layer ip2
I0425 15:03:24.104095  6716 net.cpp:406] ip2 <- ip1
I0425 15:03:24.104100  6716 net.cpp:380] ip2 -> ip2
I0425 15:03:24.104203  6716 net.cpp:122] Setting up ip2
I0425 15:03:24.104208  6716 net.cpp:129] Top shape: 64 10 (640)
I0425 15:03:24.104210  6716 net.cpp:137] Memory required for data: 43477248
I0425 15:03:24.104213  6716 layer_factory.hpp:77] Creating layer relu2
I0425 15:03:24.104219  6716 net.cpp:84] Creating Layer relu2
I0425 15:03:24.104221  6716 net.cpp:406] relu2 <- ip2
I0425 15:03:24.104224  6716 net.cpp:367] relu2 -> ip2 (in-place)
I0425 15:03:24.104228  6716 net.cpp:122] Setting up relu2
I0425 15:03:24.104230  6716 net.cpp:129] Top shape: 64 10 (640)
I0425 15:03:24.104233  6716 net.cpp:137] Memory required for data: 43479808
I0425 15:03:24.104233  6716 layer_factory.hpp:77] Creating layer loss
I0425 15:03:24.104238  6716 net.cpp:84] Creating Layer loss
I0425 15:03:24.104238  6716 net.cpp:406] loss <- ip2
I0425 15:03:24.104241  6716 net.cpp:406] loss <- label
I0425 15:03:24.104245  6716 net.cpp:380] loss -> loss
I0425 15:03:24.104257  6716 layer_factory.hpp:77] Creating layer loss
…
I0425 15:03:24.104564  6716 solver.cpp:173] Creating test net (#0) specified by net file: ECE595/cifar/train_test/var_num_feature_maxiter6000/cifarlenet_train_test_featuresize150.prototxt
I0425 15:03:24.104583  6716 net.cpp:294] The NetState phase (1) differed from the phase (0) specified by a rule in layer cifar
I0425 15:03:24.104647  6716 net.cpp:51] Initializing net from parameters: 
name: "CIFARLeNet"
state {
  phase: TEST
}
layer {
  name: "cifar"
  type: "Data"
  top: "data"
  top: "label"
  include {
    phase: TEST
  }
  transform_param {
    mean_file: "examples/cifar10/mean.binaryproto"
  }
  data_param {
    source: "examples/cifar10/cifar10_test_lmdb"
    batch_size: 100
    backend: LMDB
  }
}
layer {
  name: "conv0"
  type: "Convolution"
  bottom: "data"
  top: "conv0"
  param {
    lr_mult: 1
  }
  param {
    lr_mult: 2
  }
  convolution_param {
    num_output: 150
    kernel_size: 5
    stride: 1
    weight_filler {
      type: "xavier"
    }
    bias_filler {
      type: "constant"
    }
  }
}
layer {
  name: "pool0"
  type: "Pooling"
  bottom: "conv0"
  top: "pool0"
  pooling_param {
    pool: MAX
    kernel_size: 2
    stride: 2
  }
}
layer {
  name: "conv1"
  type: "Convolution"
  bottom: "pool0"
  top: "conv1"
  param {
    lr_mult: 1
  }
  param {
    lr_mult: 2
  }
  convolution_param {
    num_output: 150
    kernel_size: 5
    stride: 1
    weight_filler {
      type: "xavier"
    }
    bias_filler {
      type: "constant"
    }
  }
}
layer {
  name: "pool1"
  type: "Pooling"
  bottom: "conv1"
  top: "pool1"
  pooling_param {
    pool: MAX
    kernel_size: 2
    stride: 2
  }
}
layer {
  name: "ip1"
  type: "InnerProduct"
  bottom: "pool1"
  top: "ip1"
  param {
    lr_mult: 1
  }
  param {
    lr_mult: 2
  }
  inner_product_param {
    num_output: 500
    weight_filler {
      type: "xavier"
    }
    bias_filler {
      type: "constant"
    }
  }
}
layer {
  name: "relu1"
  type: "ReLU"
  bottom: "ip1"
  top: "ip1"
}
layer {
  name: "ip2"
  type: "InnerProduct"
  bottom: "ip1"
  top: "ip2"
  param {
    lr_mult: 1
  }
  param {
    lr_mult: 2
  }
  inner_product_param {
    num_output: 10
    weight_filler {
      type: "xavier"
    }
    bias_filler {
      type: "constant"
    }
  }
}
layer {
  name: "relu2"
  type: "ReLU"
  bottom: "ip2"
  top: "ip2"
}
layer {
  name: "accuracy"
  type: "Accuracy"
  bottom: "ip2"
  bottom: "label"
  top: "accuracy"
  include {
    phase: TEST
  }
}
layer {
  name: "loss"
  type: "SoftmaxWithLoss"
  bottom: "ip2"
  bottom: "label"
  top: "loss"
}
I0425 15:03:24.104696  6716 layer_factory.hpp:77] Creating layer cifar
I0425 15:03:24.104739  6716 db_lmdb.cpp:35] Opened lmdb examples/cifar10/cifar10_test_lmdb
I0425 15:03:24.104751  6716 net.cpp:84] Creating Layer cifar
I0425 15:03:24.104756  6716 net.cpp:380] cifar -> data
I0425 15:03:24.104763  6716 net.cpp:380] cifar -> label
I0425 15:03:24.104768  6716 data_transformer.cpp:25] Loading mean file from: examples/cifar10/mean.binaryproto
I0425 15:03:24.104874  6716 data_layer.cpp:45] output data size: 100,3,32,32
I0425 15:03:24.108228  6716 net.cpp:122] Setting up cifar
I0425 15:03:24.108247  6716 net.cpp:129] Top shape: 100 3 32 32 (307200)
I0425 15:03:24.108249  6716 net.cpp:129] Top shape: 100 (100)
I0425 15:03:24.108252  6716 net.cpp:137] Memory required for data: 1229200
I0425 15:03:24.108269  6716 layer_factory.hpp:77] Creating layer label_cifar_1_split
I0425 15:03:24.108278  6716 net.cpp:84] Creating Layer label_cifar_1_split
I0425 15:03:24.108281  6716 net.cpp:406] label_cifar_1_split <- label
I0425 15:03:24.108288  6716 net.cpp:380] label_cifar_1_split -> label_cifar_1_split_0
I0425 15:03:24.108294  6716 net.cpp:380] label_cifar_1_split -> label_cifar_1_split_1
I0425 15:03:24.108362  6716 net.cpp:122] Setting up label_cifar_1_split
I0425 15:03:24.108367  6716 net.cpp:129] Top shape: 100 (100)
I0425 15:03:24.108371  6716 net.cpp:129] Top shape: 100 (100)
I0425 15:03:24.108372  6716 net.cpp:137] Memory required for data: 1230000
I0425 15:03:24.108374  6716 layer_factory.hpp:77] Creating layer conv0
I0425 15:03:24.108382  6716 net.cpp:84] Creating Layer conv0
I0425 15:03:24.108386  6716 net.cpp:406] conv0 <- data
I0425 15:03:24.108389  6716 net.cpp:380] conv0 -> conv0
I0425 15:03:24.108634  6716 net.cpp:122] Setting up conv0
I0425 15:03:24.108639  6716 net.cpp:129] Top shape: 100 150 28 28 (11760000)
I0425 15:03:24.108642  6716 net.cpp:137] Memory required for data: 48270000
I0425 15:03:24.108649  6716 layer_factory.hpp:77] Creating layer pool0
I0425 15:03:24.108654  6716 net.cpp:84] Creating Layer pool0
I0425 15:03:24.108656  6716 net.cpp:406] pool0 <- conv0
I0425 15:03:24.108660  6716 net.cpp:380] pool0 -> pool0
I0425 15:03:24.108687  6716 net.cpp:122] Setting up pool0
I0425 15:03:24.108691  6716 net.cpp:129] Top shape: 100 150 14 14 (2940000)
I0425 15:03:24.108693  6716 net.cpp:137] Memory required for data: 60030000
I0425 15:03:24.108696  6716 layer_factory.hpp:77] Creating layer conv1
I0425 15:03:24.108702  6716 net.cpp:84] Creating Layer conv1
I0425 15:03:24.108705  6716 net.cpp:406] conv1 <- pool0
I0425 15:03:24.108710  6716 net.cpp:380] conv1 -> conv1
I0425 15:03:24.112321  6716 net.cpp:122] Setting up conv1
I0425 15:03:24.112334  6716 net.cpp:129] Top shape: 100 150 10 10 (1500000)
I0425 15:03:24.112335  6716 net.cpp:137] Memory required for data: 66030000
I0425 15:03:24.112344  6716 layer_factory.hpp:77] Creating layer pool1
I0425 15:03:24.112351  6716 net.cpp:84] Creating Layer pool1
I0425 15:03:24.112354  6716 net.cpp:406] pool1 <- conv1
I0425 15:03:24.112359  6716 net.cpp:380] pool1 -> pool1
I0425 15:03:24.112390  6716 net.cpp:122] Setting up pool1
I0425 15:03:24.112395  6716 net.cpp:129] Top shape: 100 150 5 5 (375000)
I0425 15:03:24.112397  6716 net.cpp:137] Memory required for data: 67530000
I0425 15:03:24.112399  6716 layer_factory.hpp:77] Creating layer ip1
I0425 15:03:24.112404  6716 net.cpp:84] Creating Layer ip1
I0425 15:03:24.112407  6716 net.cpp:406] ip1 <- pool1
I0425 15:03:24.112411  6716 net.cpp:380] ip1 -> ip1
I0425 15:03:24.124347  6716 net.cpp:122] Setting up ip1
I0425 15:03:24.124367  6716 net.cpp:129] Top shape: 100 500 (50000)
I0425 15:03:24.124370  6716 net.cpp:137] Memory required for data: 67730000
I0425 15:03:24.124380  6716 layer_factory.hpp:77] Creating layer relu1
I0425 15:03:24.124387  6716 net.cpp:84] Creating Layer relu1
I0425 15:03:24.124389  6716 net.cpp:406] relu1 <- ip1
I0425 15:03:24.124394  6716 net.cpp:367] relu1 -> ip1 (in-place)
I0425 15:03:24.124400  6716 net.cpp:122] Setting up relu1
I0425 15:03:24.124403  6716 net.cpp:129] Top shape: 100 500 (50000)
I0425 15:03:24.124404  6716 net.cpp:137] Memory required for data: 67930000
I0425 15:03:24.124408  6716 layer_factory.hpp:77] Creating layer ip2
I0425 15:03:24.124415  6716 net.cpp:84] Creating Layer ip2
I0425 15:03:24.124418  6716 net.cpp:406] ip2 <- ip1
I0425 15:03:24.124421  6716 net.cpp:380] ip2 -> ip2
I0425 15:03:24.124533  6716 net.cpp:122] Setting up ip2
I0425 15:03:24.124538  6716 net.cpp:129] Top shape: 100 10 (1000)
I0425 15:03:24.124541  6716 net.cpp:137] Memory required for data: 67934000
I0425 15:03:24.124544  6716 layer_factory.hpp:77] Creating layer relu2
I0425 15:03:24.124548  6716 net.cpp:84] Creating Layer relu2
I0425 15:03:24.124549  6716 net.cpp:406] relu2 <- ip2
I0425 15:03:24.124552  6716 net.cpp:367] relu2 -> ip2 (in-place)
I0425 15:03:24.124555  6716 net.cpp:122] Setting up relu2
I0425 15:03:24.124572  6716 net.cpp:129] Top shape: 100 10 (1000)
I0425 15:03:24.124573  6716 net.cpp:137] Memory required for data: 67938000
I0425 15:03:24.124575  6716 layer_factory.hpp:77] Creating layer ip2_relu2_0_split
I0425 15:03:24.124578  6716 net.cpp:84] Creating Layer ip2_relu2_0_split
I0425 15:03:24.124581  6716 net.cpp:406] ip2_relu2_0_split <- ip2
I0425 15:03:24.124586  6716 net.cpp:380] ip2_relu2_0_split -> ip2_relu2_0_split_0
I0425 15:03:24.124593  6716 net.cpp:380] ip2_relu2_0_split -> ip2_relu2_0_split_1
I0425 15:03:24.124619  6716 net.cpp:122] Setting up ip2_relu2_0_split
I0425 15:03:24.124624  6716 net.cpp:129] Top shape: 100 10 (1000)
I0425 15:03:24.124626  6716 net.cpp:129] Top shape: 100 10 (1000)
I0425 15:03:24.124627  6716 net.cpp:137] Memory required for data: 67946000
I0425 15:03:24.124629  6716 layer_factory.hpp:77] Creating layer accuracy
I0425 15:03:24.124634  6716 net.cpp:84] Creating Layer accuracy
I0425 15:03:24.124636  6716 net.cpp:406] accuracy <- ip2_relu2_0_split_0
I0425 15:03:24.124639  6716 net.cpp:406] accuracy <- label_cifar_1_split_0
I0425 15:03:24.124646  6716 net.cpp:380] accuracy -> accuracy
…
