…
I0425 14:50:05.024246  6528 net.cpp:294] The NetState phase (0) differed from the phase (1) specified by a rule in layer accuracy
I0425 14:50:05.024483  6528 net.cpp:51] Initializing net from parameters: 
name: "CIFARLeNet"
state {
  phase: TRAIN
  level: 0
  stage: ""
}
layer {
  name: "cifar"
  type: "Data"
  top: "data"
  top: "label"
  include {
    phase: TRAIN
  }
  transform_param {
    mean_file: "examples/cifar10/mean.binaryproto"
  }
  data_param {
    source: "examples/cifar10/cifar10_train_lmdb"
    batch_size: 64
    backend: LMDB
  }
}
layer {
  name: "conv0"
  type: "Convolution"
  bottom: "data"
  top: "conv0"
  param {
    lr_mult: 1
  }
  param {
    lr_mult: 2
  }
  convolution_param {
    num_output: 10
    kernel_size: 5
    stride: 1
    weight_filler {
      type: "xavier"
    }
    bias_filler {
      type: "constant"
    }
  }
}
layer {
  name: "pool0"
  type: "Pooling"
  bottom: "conv0"
  top: "pool0"
  pooling_param {
    pool: MAX
    kernel_size: 2
    stride: 2
  }
}
layer {
  name: "conv1"
  type: "Convolution"
  bottom: "pool0"
  top: "conv1"
  param {
    lr_mult: 1
  }
  param {
    lr_mult: 2
  }
  convolution_param {
    num_output: 10
    kernel_size: 5
    stride: 1
    weight_filler {
      type: "xavier"
    }
    bias_filler {
      type: "constant"
    }
  }
}
layer {
  name: "pool1"
  type: "Pooling"
  bottom: "conv1"
  top: "pool1"
  pooling_param {
    pool: MAX
    kernel_size: 2
    stride: 2
  }
}
layer {
  name: "ip1"
  type: "InnerProduct"
  bottom: "pool1"
  top: "ip1"
  param {
    lr_mult: 1
  }
  param {
    lr_mult: 2
  }
  inner_product_param {
    num_output: 500
    weight_filler {
      type: "xavier"
    }
    bias_filler {
      type: "constant"
    }
  }
}
layer {
  name: "relu1"
  type: "ReLU"
  bottom: "ip1"
  top: "ip1"
}
layer {
  name: "ip2"
  type: "InnerProduct"
  bottom: "ip1"
  top: "ip2"
  param {
    lr_mult: 1
  }
  param {
    lr_mult: 2
  }
  inner_product_param {
    num_output: 10
    weight_filler {
      type: "xavier"
    }
    bias_filler {
      type: "constant"
    }
  }
}
layer {
  name: "relu2"
  type: "ReLU"
  bottom: "ip2"
  top: "ip2"
}
layer {
  name: "loss"
  type: "SoftmaxWithLoss"
  bottom: "ip2"
  bottom: "label"
  top: "loss"
}
I0425 14:50:05.024621  6528 layer_factory.hpp:77] Creating layer cifar
I0425 14:50:05.024916  6528 db_lmdb.cpp:35] Opened lmdb examples/cifar10/cifar10_train_lmdb
I0425 14:50:05.024978  6528 net.cpp:84] Creating Layer cifar
I0425 14:50:05.025002  6528 net.cpp:380] cifar -> data
I0425 14:50:05.025048  6528 net.cpp:380] cifar -> label
I0425 14:50:05.025077  6528 data_transformer.cpp:25] Loading mean file from: examples/cifar10/mean.binaryproto
I0425 14:50:05.027395  6528 data_layer.cpp:45] output data size: 64,3,32,32
I0425 14:50:05.035374  6528 net.cpp:122] Setting up cifar
I0425 14:50:05.035415  6528 net.cpp:129] Top shape: 64 3 32 32 (196608)
I0425 14:50:05.035428  6528 net.cpp:129] Top shape: 64 (64)
I0425 14:50:05.035434  6528 net.cpp:137] Memory required for data: 786688
I0425 14:50:05.035451  6528 layer_factory.hpp:77] Creating layer conv0
I0425 14:50:05.035490  6528 net.cpp:84] Creating Layer conv0
I0425 14:50:05.035528  6528 net.cpp:406] conv0 <- data
I0425 14:50:05.035555  6528 net.cpp:380] conv0 -> conv0
I0425 14:50:05.037318  6528 net.cpp:122] Setting up conv0
I0425 14:50:05.037356  6528 net.cpp:129] Top shape: 64 10 28 28 (501760)
I0425 14:50:05.037364  6528 net.cpp:137] Memory required for data: 2793728
I0425 14:50:05.037405  6528 layer_factory.hpp:77] Creating layer pool0
I0425 14:50:05.037432  6528 net.cpp:84] Creating Layer pool0
I0425 14:50:05.037446  6528 net.cpp:406] pool0 <- conv0
I0425 14:50:05.037458  6528 net.cpp:380] pool0 -> pool0
I0425 14:50:05.037734  6528 net.cpp:122] Setting up pool0
I0425 14:50:05.037771  6528 net.cpp:129] Top shape: 64 10 14 14 (125440)
I0425 14:50:05.037780  6528 net.cpp:137] Memory required for data: 3295488
I0425 14:50:05.037789  6528 layer_factory.hpp:77] Creating layer conv1
I0425 14:50:05.037825  6528 net.cpp:84] Creating Layer conv1
I0425 14:50:05.037842  6528 net.cpp:406] conv1 <- pool0
I0425 14:50:05.037866  6528 net.cpp:380] conv1 -> conv1
I0425 14:50:05.038684  6528 net.cpp:122] Setting up conv1
I0425 14:50:05.038723  6528 net.cpp:129] Top shape: 64 10 10 10 (64000)
I0425 14:50:05.038735  6528 net.cpp:137] Memory required for data: 3551488
I0425 14:50:05.038764  6528 layer_factory.hpp:77] Creating layer pool1
I0425 14:50:05.038792  6528 net.cpp:84] Creating Layer pool1
I0425 14:50:05.038806  6528 net.cpp:406] pool1 <- conv1
I0425 14:50:05.038830  6528 net.cpp:380] pool1 -> pool1
I0425 14:50:05.038938  6528 net.cpp:122] Setting up pool1
I0425 14:50:05.038956  6528 net.cpp:129] Top shape: 64 10 5 5 (16000)
I0425 14:50:05.038964  6528 net.cpp:137] Memory required for data: 3615488
I0425 14:50:05.038978  6528 layer_factory.hpp:77] Creating layer ip1
I0425 14:50:05.039005  6528 net.cpp:84] Creating Layer ip1
I0425 14:50:05.039019  6528 net.cpp:406] ip1 <- pool1
I0425 14:50:05.039041  6528 net.cpp:380] ip1 -> ip1
I0425 14:50:05.043009  6528 net.cpp:122] Setting up ip1
I0425 14:50:05.043048  6528 net.cpp:129] Top shape: 64 500 (32000)
I0425 14:50:05.043056  6528 net.cpp:137] Memory required for data: 3743488
I0425 14:50:05.043094  6528 layer_factory.hpp:77] Creating layer relu1
I0425 14:50:05.043126  6528 net.cpp:84] Creating Layer relu1
I0425 14:50:05.043144  6528 net.cpp:406] relu1 <- ip1
I0425 14:50:05.043179  6528 net.cpp:367] relu1 -> ip1 (in-place)
I0425 14:50:05.043225  6528 net.cpp:122] Setting up relu1
I0425 14:50:05.043241  6528 net.cpp:129] Top shape: 64 500 (32000)
I0425 14:50:05.043289  6528 net.cpp:137] Memory required for data: 3871488
I0425 14:50:05.043300  6528 layer_factory.hpp:77] Creating layer ip2
I0425 14:50:05.043325  6528 net.cpp:84] Creating Layer ip2
I0425 14:50:05.043345  6528 net.cpp:406] ip2 <- ip1
I0425 14:50:05.043359  6528 net.cpp:380] ip2 -> ip2
I0425 14:50:05.044663  6528 net.cpp:122] Setting up ip2
I0425 14:50:05.044688  6528 net.cpp:129] Top shape: 64 10 (640)
I0425 14:50:05.044698  6528 net.cpp:137] Memory required for data: 3874048
I0425 14:50:05.044721  6528 layer_factory.hpp:77] Creating layer relu2
I0425 14:50:05.044747  6528 net.cpp:84] Creating Layer relu2
I0425 14:50:05.044764  6528 net.cpp:406] relu2 <- ip2
I0425 14:50:05.044786  6528 net.cpp:367] relu2 -> ip2 (in-place)
I0425 14:50:05.044808  6528 net.cpp:122] Setting up relu2
I0425 14:50:05.044826  6528 net.cpp:129] Top shape: 64 10 (640)
I0425 14:50:05.044836  6528 net.cpp:137] Memory required for data: 3876608
I0425 14:50:05.044848  6528 layer_factory.hpp:77] Creating layer loss
I0425 14:50:05.044867  6528 net.cpp:84] Creating Layer loss
I0425 14:50:05.044880  6528 net.cpp:406] loss <- ip2
I0425 14:50:05.044893  6528 net.cpp:406] loss <- label
I0425 14:50:05.044916  6528 net.cpp:380] loss -> loss
I0425 14:50:05.044977  6528 layer_factory.hpp:77] Creating layer loss
…
I0425 14:50:05.045871  6528 solver.cpp:173] Creating test net (#0) specified by net file: ECE595/cifar/train_test/var_num_feature_maxiter6000/cifarlenet_train_test_featuresize10.prototxt
I0425 14:50:05.045917  6528 net.cpp:294] The NetState phase (1) differed from the phase (0) specified by a rule in layer cifar
I0425 14:50:05.046077  6528 net.cpp:51] Initializing net from parameters: 
name: "CIFARLeNet"
state {
  phase: TEST
}
layer {
  name: "cifar"
  type: "Data"
  top: "data"
  top: "label"
  include {
    phase: TEST
  }
  transform_param {
    mean_file: "examples/cifar10/mean.binaryproto"
  }
  data_param {
    source: "examples/cifar10/cifar10_test_lmdb"
    batch_size: 100
    backend: LMDB
  }
}
layer {
  name: "conv0"
  type: "Convolution"
  bottom: "data"
  top: "conv0"
  param {
    lr_mult: 1
  }
  param {
    lr_mult: 2
  }
  convolution_param {
    num_output: 10
    kernel_size: 5
    stride: 1
    weight_filler {
      type: "xavier"
    }
    bias_filler {
      type: "constant"
    }
  }
}
layer {
  name: "pool0"
  type: "Pooling"
  bottom: "conv0"
  top: "pool0"
  pooling_param {
    pool: MAX
    kernel_size: 2
    stride: 2
  }
}
layer {
  name: "conv1"
  type: "Convolution"
  bottom: "pool0"
  top: "conv1"
  param {
    lr_mult: 1
  }
  param {
    lr_mult: 2
  }
  convolution_param {
    num_output: 10
    kernel_size: 5
    stride: 1
    weight_filler {
      type: "xavier"
    }
    bias_filler {
      type: "constant"
    }
  }
}
layer {
  name: "pool1"
  type: "Pooling"
  bottom: "conv1"
  top: "pool1"
  pooling_param {
    pool: MAX
    kernel_size: 2
    stride: 2
  }
}
layer {
  name: "ip1"
  type: "InnerProduct"
  bottom: "pool1"
  top: "ip1"
  param {
    lr_mult: 1
  }
  param {
    lr_mult: 2
  }
  inner_product_param {
    num_output: 500
    weight_filler {
      type: "xavier"
    }
    bias_filler {
      type: "constant"
    }
  }
}
layer {
  name: "relu1"
  type: "ReLU"
  bottom: "ip1"
  top: "ip1"
}
layer {
  name: "ip2"
  type: "InnerProduct"
  bottom: "ip1"
  top: "ip2"
  param {
    lr_mult: 1
  }
  param {
    lr_mult: 2
  }
  inner_product_param {
    num_output: 10
    weight_filler {
      type: "xavier"
    }
    bias_filler {
      type: "constant"
    }
  }
}
layer {
  name: "relu2"
  type: "ReLU"
  bottom: "ip2"
  top: "ip2"
}
layer {
  name: "accuracy"
  type: "Accuracy"
  bottom: "ip2"
  bottom: "label"
  top: "accuracy"
  include {
    phase: TEST
  }
}
layer {
  name: "loss"
  type: "SoftmaxWithLoss"
  bottom: "ip2"
  bottom: "label"
  top: "loss"
}
I0425 14:50:05.046237  6528 layer_factory.hpp:77] Creating layer cifar
I0425 14:50:05.046345  6528 db_lmdb.cpp:35] Opened lmdb examples/cifar10/cifar10_test_lmdb
I0425 14:50:05.046371  6528 net.cpp:84] Creating Layer cifar
I0425 14:50:05.046389  6528 net.cpp:380] cifar -> data
I0425 14:50:05.046406  6528 net.cpp:380] cifar -> label
I0425 14:50:05.046419  6528 data_transformer.cpp:25] Loading mean file from: examples/cifar10/mean.binaryproto
I0425 14:50:05.046701  6528 data_layer.cpp:45] output data size: 100,3,32,32
I0425 14:50:05.054020  6528 net.cpp:122] Setting up cifar
I0425 14:50:05.054051  6528 net.cpp:129] Top shape: 100 3 32 32 (307200)
I0425 14:50:05.054059  6528 net.cpp:129] Top shape: 100 (100)
I0425 14:50:05.054061  6528 net.cpp:137] Memory required for data: 1229200
I0425 14:50:05.054069  6528 layer_factory.hpp:77] Creating layer label_cifar_1_split
I0425 14:50:05.054105  6528 net.cpp:84] Creating Layer label_cifar_1_split
I0425 14:50:05.054114  6528 net.cpp:406] label_cifar_1_split <- label
I0425 14:50:05.054124  6528 net.cpp:380] label_cifar_1_split -> label_cifar_1_split_0
I0425 14:50:05.054139  6528 net.cpp:380] label_cifar_1_split -> label_cifar_1_split_1
I0425 14:50:05.054208  6528 net.cpp:122] Setting up label_cifar_1_split
I0425 14:50:05.054217  6528 net.cpp:129] Top shape: 100 (100)
I0425 14:50:05.054222  6528 net.cpp:129] Top shape: 100 (100)
I0425 14:50:05.054226  6528 net.cpp:137] Memory required for data: 1230000
I0425 14:50:05.054230  6528 layer_factory.hpp:77] Creating layer conv0
I0425 14:50:05.054244  6528 net.cpp:84] Creating Layer conv0
I0425 14:50:05.054250  6528 net.cpp:406] conv0 <- data
I0425 14:50:05.054257  6528 net.cpp:380] conv0 -> conv0
I0425 14:50:05.054587  6528 net.cpp:122] Setting up conv0
I0425 14:50:05.054596  6528 net.cpp:129] Top shape: 100 10 28 28 (784000)
I0425 14:50:05.054600  6528 net.cpp:137] Memory required for data: 4366000
I0425 14:50:05.054613  6528 layer_factory.hpp:77] Creating layer pool0
I0425 14:50:05.054625  6528 net.cpp:84] Creating Layer pool0
I0425 14:50:05.054630  6528 net.cpp:406] pool0 <- conv0
I0425 14:50:05.054636  6528 net.cpp:380] pool0 -> pool0
I0425 14:50:05.054687  6528 net.cpp:122] Setting up pool0
I0425 14:50:05.054694  6528 net.cpp:129] Top shape: 100 10 14 14 (196000)
I0425 14:50:05.054698  6528 net.cpp:137] Memory required for data: 5150000
I0425 14:50:05.054702  6528 layer_factory.hpp:77] Creating layer conv1
I0425 14:50:05.054714  6528 net.cpp:84] Creating Layer conv1
I0425 14:50:05.054718  6528 net.cpp:406] conv1 <- pool0
I0425 14:50:05.054728  6528 net.cpp:380] conv1 -> conv1
I0425 14:50:05.055053  6528 net.cpp:122] Setting up conv1
I0425 14:50:05.055068  6528 net.cpp:129] Top shape: 100 10 10 10 (100000)
I0425 14:50:05.055074  6528 net.cpp:137] Memory required for data: 5550000
I0425 14:50:05.055088  6528 layer_factory.hpp:77] Creating layer pool1
I0425 14:50:05.055095  6528 net.cpp:84] Creating Layer pool1
I0425 14:50:05.055104  6528 net.cpp:406] pool1 <- conv1
I0425 14:50:05.055111  6528 net.cpp:380] pool1 -> pool1
I0425 14:50:05.055186  6528 net.cpp:122] Setting up pool1
I0425 14:50:05.055196  6528 net.cpp:129] Top shape: 100 10 5 5 (25000)
I0425 14:50:05.055200  6528 net.cpp:137] Memory required for data: 5650000
I0425 14:50:05.055203  6528 layer_factory.hpp:77] Creating layer ip1
I0425 14:50:05.055212  6528 net.cpp:84] Creating Layer ip1
I0425 14:50:05.055217  6528 net.cpp:406] ip1 <- pool1
I0425 14:50:05.055224  6528 net.cpp:380] ip1 -> ip1
I0425 14:50:05.056438  6528 net.cpp:122] Setting up ip1
I0425 14:50:05.056447  6528 net.cpp:129] Top shape: 100 500 (50000)
I0425 14:50:05.056450  6528 net.cpp:137] Memory required for data: 5850000
I0425 14:50:05.056460  6528 layer_factory.hpp:77] Creating layer relu1
I0425 14:50:05.056466  6528 net.cpp:84] Creating Layer relu1
I0425 14:50:05.056469  6528 net.cpp:406] relu1 <- ip1
I0425 14:50:05.056473  6528 net.cpp:367] relu1 -> ip1 (in-place)
I0425 14:50:05.056480  6528 net.cpp:122] Setting up relu1
I0425 14:50:05.056484  6528 net.cpp:129] Top shape: 100 500 (50000)
I0425 14:50:05.056486  6528 net.cpp:137] Memory required for data: 6050000
I0425 14:50:05.056489  6528 layer_factory.hpp:77] Creating layer ip2
I0425 14:50:05.056499  6528 net.cpp:84] Creating Layer ip2
I0425 14:50:05.056504  6528 net.cpp:406] ip2 <- ip1
I0425 14:50:05.056509  6528 net.cpp:380] ip2 -> ip2
I0425 14:50:05.056656  6528 net.cpp:122] Setting up ip2
I0425 14:50:05.056664  6528 net.cpp:129] Top shape: 100 10 (1000)
I0425 14:50:05.056666  6528 net.cpp:137] Memory required for data: 6054000
I0425 14:50:05.056673  6528 layer_factory.hpp:77] Creating layer relu2
I0425 14:50:05.056677  6528 net.cpp:84] Creating Layer relu2
I0425 14:50:05.056681  6528 net.cpp:406] relu2 <- ip2
I0425 14:50:05.056685  6528 net.cpp:367] relu2 -> ip2 (in-place)
I0425 14:50:05.056690  6528 net.cpp:122] Setting up relu2
I0425 14:50:05.056694  6528 net.cpp:129] Top shape: 100 10 (1000)
I0425 14:50:05.056710  6528 net.cpp:137] Memory required for data: 6058000
I0425 14:50:05.056712  6528 layer_factory.hpp:77] Creating layer ip2_relu2_0_split
I0425 14:50:05.056716  6528 net.cpp:84] Creating Layer ip2_relu2_0_split
I0425 14:50:05.056720  6528 net.cpp:406] ip2_relu2_0_split <- ip2
I0425 14:50:05.056726  6528 net.cpp:380] ip2_relu2_0_split -> ip2_relu2_0_split_0
I0425 14:50:05.056736  6528 net.cpp:380] ip2_relu2_0_split -> ip2_relu2_0_split_1
I0425 14:50:05.056771  6528 net.cpp:122] Setting up ip2_relu2_0_split
I0425 14:50:05.056777  6528 net.cpp:129] Top shape: 100 10 (1000)
I0425 14:50:05.056782  6528 net.cpp:129] Top shape: 100 10 (1000)
I0425 14:50:05.056784  6528 net.cpp:137] Memory required for data: 6066000
I0425 14:50:05.056787  6528 layer_factory.hpp:77] Creating layer accuracy
I0425 14:50:05.056795  6528 net.cpp:84] Creating Layer accuracy
I0425 14:50:05.056799  6528 net.cpp:406] accuracy <- ip2_relu2_0_split_0
I0425 14:50:05.056803  6528 net.cpp:406] accuracy <- label_cifar_1_split_0
I0425 14:50:05.056809  6528 net.cpp:380] accuracy -> accuracy
…
