…
I0430 23:22:12.404920  4696 net.cpp:296] The NetState phase (0) differed from the phase (1) specified by a rule in layer cifar
I0430 23:22:12.404938  4696 net.cpp:296] The NetState phase (0) differed from the phase (1) specified by a rule in layer accuracy
I0430 23:22:12.405037  4696 net.cpp:53] Initializing net from parameters: 
name: "CIFAR"
state {
  phase: TRAIN
  level: 0
  stage: ""
}
layer {
  name: "cifar"
  type: "Data"
  top: "data"
  top: "label"
  include {
    phase: TRAIN
  }
  transform_param {
    mean_file: "examples/cifar10/mean.binaryproto"
  }
  data_param {
    source: "examples/cifar10/cifar10_train_lmdb"
    batch_size: 111
    backend: LMDB
  }
}
layer {
  name: "conv0"
  type: "Convolution"
  bottom: "data"
  top: "conv0"
  param {
    lr_mult: 1
  }
  param {
    lr_mult: 2
  }
  convolution_param {
    num_output: 8
    pad: 2
    kernel_size: 3
    stride: 1
    weight_filler {
      type: "gaussian"
      std: 0.01
    }
    bias_filler {
      type: "constant"
    }
  }
}
layer {
  name: "Sigmoid0"
  type: "Sigmoid"
  bottom: "conv0"
  top: "Sigmoid0"
}
layer {
  name: "pool0"
  type: "Pooling"
  bottom: "Sigmoid0"
  top: "pool0"
  pooling_param {
    pool: AVE
    kernel_size: 3
    stride: 2
  }
}
layer {
  name: "ip1"
  type: "InnerProduct"
  bottom: "pool0"
  top: "ip1"
  param {
    lr_mult: 1
  }
  param {
    lr_mult: 2
  }
  inner_product_param {
    num_output: 20
    weight_filler {
      type: "gaussian"
      std: 0.01
    }
    bias_filler {
      type: "constant"
    }
  }
}
layer {
  name: "relu1"
  type: "ReLU"
  bottom: "ip1"
  top: "ip1"
}
layer {
  name: "ip2"
  type: "InnerProduct"
  bottom: "ip1"
  top: "ip2"
  param {
    lr_mult: 1
  }
  param {
    lr_mult: 2
  }
  inner_product_param {
    num_output: 40
    weight_filler {
      type: "gaussian"
      std: 0.01
    }
    bias_filler {
      type: "constant"
    }
  }
}
layer {
  name: "relu2"
  type: "ReLU"
  bottom: "ip2"
  top: "ip2"
}
layer {
  name: "ip3"
  type: "InnerProduct"
  bottom: "ip2"
  top: "ip3"
  param {
    lr_mult: 1
  }
  param {
    lr_mult: 2
  }
  inner_product_param {
    num_output: 80
    weight_filler {
      type: "gaussian"
      std: 0.01
    }
    bias_filler {
      type: "constant"
    }
  }
}
layer {
  name: "relu3"
  type: "ReLU"
  bottom: "ip3"
  top: "ip3"
}
layer {
  name: "ip4"
  type: "InnerProduct"
  bottom: "ip3"
  top: "ip4"
  param {
    lr_mult: 1
  }
  param {
    lr_mult: 2
  }
  inner_product_param {
    num_output: 10
    weight_filler {
      type: "gaussian"
      std: 0.01
    }
    bias_filler {
      type: "constant"
    }
  }
}
layer {
  name: "loss"
  type: "SoftmaxWithLoss"
  bottom: "ip4"
  bottom: "label"
  top: "loss"
}
I0430 23:22:12.405110  4696 layer_factory.hpp:77] Creating layer cifar
I0430 23:22:12.405213  4696 db_lmdb.cpp:35] Opened lmdb examples/cifar10/cifar10_train_lmdb
I0430 23:22:12.405241  4696 net.cpp:86] Creating Layer cifar
I0430 23:22:12.405248  4696 net.cpp:382] cifar -> data
I0430 23:22:12.405272  4696 net.cpp:382] cifar -> label
I0430 23:22:12.405283  4696 data_transformer.cpp:25] Loading mean file from: examples/cifar10/mean.binaryproto
I0430 23:22:12.407393  4696 data_layer.cpp:45] output data size: 111,3,32,32
I0430 23:22:12.415256  4696 net.cpp:124] Setting up cifar
I0430 23:22:12.415276  4696 net.cpp:131] Top shape: 111 3 32 32 (340992)
I0430 23:22:12.415282  4696 net.cpp:131] Top shape: 111 (111)
I0430 23:22:12.415287  4696 net.cpp:139] Memory required for data: 1364412
I0430 23:22:12.415310  4696 layer_factory.hpp:77] Creating layer conv0
I0430 23:22:12.415329  4696 net.cpp:86] Creating Layer conv0
I0430 23:22:12.415335  4696 net.cpp:408] conv0 <- data
I0430 23:22:12.415347  4696 net.cpp:382] conv0 -> conv0
I0430 23:22:12.704473  4696 net.cpp:124] Setting up conv0
I0430 23:22:12.704501  4696 net.cpp:131] Top shape: 111 8 34 34 (1026528)
I0430 23:22:12.704506  4696 net.cpp:139] Memory required for data: 5470524
I0430 23:22:12.704521  4696 layer_factory.hpp:77] Creating layer Sigmoid0
I0430 23:22:12.704535  4696 net.cpp:86] Creating Layer Sigmoid0
I0430 23:22:12.704540  4696 net.cpp:408] Sigmoid0 <- conv0
I0430 23:22:12.704545  4696 net.cpp:382] Sigmoid0 -> Sigmoid0
I0430 23:22:12.704747  4696 net.cpp:124] Setting up Sigmoid0
I0430 23:22:12.704757  4696 net.cpp:131] Top shape: 111 8 34 34 (1026528)
I0430 23:22:12.704761  4696 net.cpp:139] Memory required for data: 9576636
I0430 23:22:12.704764  4696 layer_factory.hpp:77] Creating layer pool0
I0430 23:22:12.704771  4696 net.cpp:86] Creating Layer pool0
I0430 23:22:12.704776  4696 net.cpp:408] pool0 <- Sigmoid0
I0430 23:22:12.704780  4696 net.cpp:382] pool0 -> pool0
I0430 23:22:12.705590  4696 net.cpp:124] Setting up pool0
I0430 23:22:12.705605  4696 net.cpp:131] Top shape: 111 8 17 17 (256632)
I0430 23:22:12.705610  4696 net.cpp:139] Memory required for data: 10603164
I0430 23:22:12.705612  4696 layer_factory.hpp:77] Creating layer ip1
I0430 23:22:12.705626  4696 net.cpp:86] Creating Layer ip1
I0430 23:22:12.705629  4696 net.cpp:408] ip1 <- pool0
I0430 23:22:12.705636  4696 net.cpp:382] ip1 -> ip1
I0430 23:22:12.707985  4696 net.cpp:124] Setting up ip1
I0430 23:22:12.707999  4696 net.cpp:131] Top shape: 111 20 (2220)
I0430 23:22:12.708003  4696 net.cpp:139] Memory required for data: 10612044
I0430 23:22:12.708011  4696 layer_factory.hpp:77] Creating layer relu1
I0430 23:22:12.708019  4696 net.cpp:86] Creating Layer relu1
I0430 23:22:12.708024  4696 net.cpp:408] relu1 <- ip1
I0430 23:22:12.708029  4696 net.cpp:369] relu1 -> ip1 (in-place)
I0430 23:22:12.708206  4696 net.cpp:124] Setting up relu1
I0430 23:22:12.708216  4696 net.cpp:131] Top shape: 111 20 (2220)
I0430 23:22:12.708220  4696 net.cpp:139] Memory required for data: 10620924
I0430 23:22:12.708222  4696 layer_factory.hpp:77] Creating layer ip2
I0430 23:22:12.708231  4696 net.cpp:86] Creating Layer ip2
I0430 23:22:12.708235  4696 net.cpp:408] ip2 <- ip1
I0430 23:22:12.708243  4696 net.cpp:382] ip2 -> ip2
I0430 23:22:12.709342  4696 net.cpp:124] Setting up ip2
I0430 23:22:12.709355  4696 net.cpp:131] Top shape: 111 40 (4440)
I0430 23:22:12.709359  4696 net.cpp:139] Memory required for data: 10638684
I0430 23:22:12.709367  4696 layer_factory.hpp:77] Creating layer relu2
I0430 23:22:12.709375  4696 net.cpp:86] Creating Layer relu2
I0430 23:22:12.709378  4696 net.cpp:408] relu2 <- ip2
I0430 23:22:12.709383  4696 net.cpp:369] relu2 -> ip2 (in-place)
I0430 23:22:12.709563  4696 net.cpp:124] Setting up relu2
I0430 23:22:12.709571  4696 net.cpp:131] Top shape: 111 40 (4440)
I0430 23:22:12.709574  4696 net.cpp:139] Memory required for data: 10656444
I0430 23:22:12.709578  4696 layer_factory.hpp:77] Creating layer ip3
I0430 23:22:12.709586  4696 net.cpp:86] Creating Layer ip3
I0430 23:22:12.709589  4696 net.cpp:408] ip3 <- ip2
I0430 23:22:12.709595  4696 net.cpp:382] ip3 -> ip3
I0430 23:22:12.709792  4696 net.cpp:124] Setting up ip3
I0430 23:22:12.709800  4696 net.cpp:131] Top shape: 111 80 (8880)
I0430 23:22:12.709803  4696 net.cpp:139] Memory required for data: 10691964
I0430 23:22:12.709808  4696 layer_factory.hpp:77] Creating layer relu3
I0430 23:22:12.709815  4696 net.cpp:86] Creating Layer relu3
I0430 23:22:12.709817  4696 net.cpp:408] relu3 <- ip3
I0430 23:22:12.709822  4696 net.cpp:369] relu3 -> ip3 (in-place)
I0430 23:22:12.709988  4696 net.cpp:124] Setting up relu3
I0430 23:22:12.709997  4696 net.cpp:131] Top shape: 111 80 (8880)
I0430 23:22:12.710000  4696 net.cpp:139] Memory required for data: 10727484
I0430 23:22:12.710003  4696 layer_factory.hpp:77] Creating layer ip4
I0430 23:22:12.710026  4696 net.cpp:86] Creating Layer ip4
I0430 23:22:12.710028  4696 net.cpp:408] ip4 <- ip3
I0430 23:22:12.710033  4696 net.cpp:382] ip4 -> ip4
I0430 23:22:12.710160  4696 net.cpp:124] Setting up ip4
I0430 23:22:12.710167  4696 net.cpp:131] Top shape: 111 10 (1110)
I0430 23:22:12.710170  4696 net.cpp:139] Memory required for data: 10731924
I0430 23:22:12.710177  4696 layer_factory.hpp:77] Creating layer loss
I0430 23:22:12.710189  4696 net.cpp:86] Creating Layer loss
I0430 23:22:12.710192  4696 net.cpp:408] loss <- ip4
I0430 23:22:12.710196  4696 net.cpp:408] loss <- label
I0430 23:22:12.710201  4696 net.cpp:382] loss -> loss
I0430 23:22:12.710214  4696 layer_factory.hpp:77] Creating layer loss
…
I0430 23:22:12.711457  4696 solver.cpp:173] Creating test net (#0) specified by net file: ECE595/cifar/train_test/var_everything/cifar_train_test_223.prototxt
I0430 23:22:12.711485  4696 net.cpp:296] The NetState phase (1) differed from the phase (0) specified by a rule in layer cifar
I0430 23:22:12.711585  4696 net.cpp:53] Initializing net from parameters: 
name: "CIFAR"
state {
  phase: TEST
}
layer {
  name: "cifar"
  type: "Data"
  top: "data"
  top: "label"
  include {
    phase: TEST
  }
  transform_param {
    mean_file: "examples/cifar10/mean.binaryproto"
  }
  data_param {
    source: "examples/cifar10/cifar10_test_lmdb"
    batch_size: 1000
    backend: LMDB
  }
}
layer {
  name: "conv0"
  type: "Convolution"
  bottom: "data"
  top: "conv0"
  param {
    lr_mult: 1
  }
  param {
    lr_mult: 2
  }
  convolution_param {
    num_output: 8
    pad: 2
    kernel_size: 3
    stride: 1
    weight_filler {
      type: "gaussian"
      std: 0.01
    }
    bias_filler {
      type: "constant"
    }
  }
}
layer {
  name: "Sigmoid0"
  type: "Sigmoid"
  bottom: "conv0"
  top: "Sigmoid0"
}
layer {
  name: "pool0"
  type: "Pooling"
  bottom: "Sigmoid0"
  top: "pool0"
  pooling_param {
    pool: AVE
    kernel_size: 3
    stride: 2
  }
}
layer {
  name: "ip1"
  type: "InnerProduct"
  bottom: "pool0"
  top: "ip1"
  param {
    lr_mult: 1
  }
  param {
    lr_mult: 2
  }
  inner_product_param {
    num_output: 20
    weight_filler {
      type: "gaussian"
      std: 0.01
    }
    bias_filler {
      type: "constant"
    }
  }
}
layer {
  name: "relu1"
  type: "ReLU"
  bottom: "ip1"
  top: "ip1"
}
layer {
  name: "ip2"
  type: "InnerProduct"
  bottom: "ip1"
  top: "ip2"
  param {
    lr_mult: 1
  }
  param {
    lr_mult: 2
  }
  inner_product_param {
    num_output: 40
    weight_filler {
      type: "gaussian"
      std: 0.01
    }
    bias_filler {
      type: "constant"
    }
  }
}
layer {
  name: "relu2"
  type: "ReLU"
  bottom: "ip2"
  top: "ip2"
}
layer {
  name: "ip3"
  type: "InnerProduct"
  bottom: "ip2"
  top: "ip3"
  param {
    lr_mult: 1
  }
  param {
    lr_mult: 2
  }
  inner_product_param {
    num_output: 80
    weight_filler {
      type: "gaussian"
      std: 0.01
    }
    bias_filler {
      type: "constant"
    }
  }
}
layer {
  name: "relu3"
  type: "ReLU"
  bottom: "ip3"
  top: "ip3"
}
layer {
  name: "ip4"
  type: "InnerProduct"
  bottom: "ip3"
  top: "ip4"
  param {
    lr_mult: 1
  }
  param {
    lr_mult: 2
  }
  inner_product_param {
    num_output: 10
    weight_filler {
      type: "gaussian"
      std: 0.01
    }
    bias_filler {
      type: "constant"
    }
  }
}
layer {
  name: "accuracy"
  type: "Accuracy"
  bottom: "ip4"
  bottom: "label"
  top: "accuracy"
  include {
    phase: TEST
  }
}
layer {
  name: "loss"
  type: "SoftmaxWithLoss"
  bottom: "ip4"
  bottom: "label"
  top: "loss"
}
I0430 23:22:12.711670  4696 layer_factory.hpp:77] Creating layer cifar
I0430 23:22:12.711715  4696 db_lmdb.cpp:35] Opened lmdb examples/cifar10/cifar10_test_lmdb
I0430 23:22:12.711727  4696 net.cpp:86] Creating Layer cifar
I0430 23:22:12.711733  4696 net.cpp:382] cifar -> data
I0430 23:22:12.711741  4696 net.cpp:382] cifar -> label
I0430 23:22:12.711747  4696 data_transformer.cpp:25] Loading mean file from: examples/cifar10/mean.binaryproto
I0430 23:22:12.711899  4696 data_layer.cpp:45] output data size: 1000,3,32,32
I0430 23:22:12.734486  4696 net.cpp:124] Setting up cifar
I0430 23:22:12.734513  4696 net.cpp:131] Top shape: 1000 3 32 32 (3072000)
I0430 23:22:12.734518  4696 net.cpp:131] Top shape: 1000 (1000)
I0430 23:22:12.734520  4696 net.cpp:139] Memory required for data: 12292000
I0430 23:22:12.734525  4696 layer_factory.hpp:77] Creating layer label_cifar_1_split
I0430 23:22:12.734537  4696 net.cpp:86] Creating Layer label_cifar_1_split
I0430 23:22:12.734542  4696 net.cpp:408] label_cifar_1_split <- label
I0430 23:22:12.734549  4696 net.cpp:382] label_cifar_1_split -> label_cifar_1_split_0
I0430 23:22:12.734556  4696 net.cpp:382] label_cifar_1_split -> label_cifar_1_split_1
I0430 23:22:12.734640  4696 net.cpp:124] Setting up label_cifar_1_split
I0430 23:22:12.734647  4696 net.cpp:131] Top shape: 1000 (1000)
I0430 23:22:12.734652  4696 net.cpp:131] Top shape: 1000 (1000)
I0430 23:22:12.734653  4696 net.cpp:139] Memory required for data: 12300000
I0430 23:22:12.734657  4696 layer_factory.hpp:77] Creating layer conv0
I0430 23:22:12.734669  4696 net.cpp:86] Creating Layer conv0
I0430 23:22:12.734673  4696 net.cpp:408] conv0 <- data
I0430 23:22:12.734678  4696 net.cpp:382] conv0 -> conv0
I0430 23:22:12.736338  4696 net.cpp:124] Setting up conv0
I0430 23:22:12.736351  4696 net.cpp:131] Top shape: 1000 8 34 34 (9248000)
I0430 23:22:12.736354  4696 net.cpp:139] Memory required for data: 49292000
I0430 23:22:12.736364  4696 layer_factory.hpp:77] Creating layer Sigmoid0
I0430 23:22:12.736371  4696 net.cpp:86] Creating Layer Sigmoid0
I0430 23:22:12.736373  4696 net.cpp:408] Sigmoid0 <- conv0
I0430 23:22:12.736379  4696 net.cpp:382] Sigmoid0 -> Sigmoid0
I0430 23:22:12.736644  4696 net.cpp:124] Setting up Sigmoid0
I0430 23:22:12.736655  4696 net.cpp:131] Top shape: 1000 8 34 34 (9248000)
I0430 23:22:12.736659  4696 net.cpp:139] Memory required for data: 86284000
I0430 23:22:12.736662  4696 layer_factory.hpp:77] Creating layer pool0
I0430 23:22:12.736670  4696 net.cpp:86] Creating Layer pool0
I0430 23:22:12.736675  4696 net.cpp:408] pool0 <- Sigmoid0
I0430 23:22:12.736680  4696 net.cpp:382] pool0 -> pool0
I0430 23:22:12.738276  4696 net.cpp:124] Setting up pool0
I0430 23:22:12.738322  4696 net.cpp:131] Top shape: 1000 8 17 17 (2312000)
I0430 23:22:12.738328  4696 net.cpp:139] Memory required for data: 95532000
I0430 23:22:12.738337  4696 layer_factory.hpp:77] Creating layer ip1
I0430 23:22:12.738364  4696 net.cpp:86] Creating Layer ip1
I0430 23:22:12.738371  4696 net.cpp:408] ip1 <- pool0
I0430 23:22:12.738385  4696 net.cpp:382] ip1 -> ip1
I0430 23:22:12.741227  4696 net.cpp:124] Setting up ip1
I0430 23:22:12.741245  4696 net.cpp:131] Top shape: 1000 20 (20000)
I0430 23:22:12.741250  4696 net.cpp:139] Memory required for data: 95612000
I0430 23:22:12.741305  4696 layer_factory.hpp:77] Creating layer relu1
I0430 23:22:12.741322  4696 net.cpp:86] Creating Layer relu1
I0430 23:22:12.741328  4696 net.cpp:408] relu1 <- ip1
I0430 23:22:12.741338  4696 net.cpp:369] relu1 -> ip1 (in-place)
I0430 23:22:12.741714  4696 net.cpp:124] Setting up relu1
I0430 23:22:12.741729  4696 net.cpp:131] Top shape: 1000 20 (20000)
I0430 23:22:12.741735  4696 net.cpp:139] Memory required for data: 95692000
I0430 23:22:12.741747  4696 layer_factory.hpp:77] Creating layer ip2
I0430 23:22:12.741758  4696 net.cpp:86] Creating Layer ip2
I0430 23:22:12.741765  4696 net.cpp:408] ip2 <- ip1
I0430 23:22:12.741787  4696 net.cpp:382] ip2 -> ip2
I0430 23:22:12.742058  4696 net.cpp:124] Setting up ip2
I0430 23:22:12.742072  4696 net.cpp:131] Top shape: 1000 40 (40000)
I0430 23:22:12.742079  4696 net.cpp:139] Memory required for data: 95852000
I0430 23:22:12.742094  4696 layer_factory.hpp:77] Creating layer relu2
I0430 23:22:12.742110  4696 net.cpp:86] Creating Layer relu2
I0430 23:22:12.742118  4696 net.cpp:408] relu2 <- ip2
I0430 23:22:12.742127  4696 net.cpp:369] relu2 -> ip2 (in-place)
I0430 23:22:12.743624  4696 net.cpp:124] Setting up relu2
I0430 23:22:12.743647  4696 net.cpp:131] Top shape: 1000 40 (40000)
I0430 23:22:12.743664  4696 net.cpp:139] Memory required for data: 96012000
I0430 23:22:12.743671  4696 layer_factory.hpp:77] Creating layer ip3
I0430 23:22:12.743685  4696 net.cpp:86] Creating Layer ip3
I0430 23:22:12.743692  4696 net.cpp:408] ip3 <- ip2
I0430 23:22:12.743705  4696 net.cpp:382] ip3 -> ip3
I0430 23:22:12.744119  4696 net.cpp:124] Setting up ip3
I0430 23:22:12.744133  4696 net.cpp:131] Top shape: 1000 80 (80000)
I0430 23:22:12.744138  4696 net.cpp:139] Memory required for data: 96332000
I0430 23:22:12.744149  4696 layer_factory.hpp:77] Creating layer relu3
I0430 23:22:12.744159  4696 net.cpp:86] Creating Layer relu3
I0430 23:22:12.744165  4696 net.cpp:408] relu3 <- ip3
I0430 23:22:12.744174  4696 net.cpp:369] relu3 -> ip3 (in-place)
I0430 23:22:12.744513  4696 net.cpp:124] Setting up relu3
I0430 23:22:12.744529  4696 net.cpp:131] Top shape: 1000 80 (80000)
I0430 23:22:12.744535  4696 net.cpp:139] Memory required for data: 96652000
I0430 23:22:12.744544  4696 layer_factory.hpp:77] Creating layer ip4
I0430 23:22:12.744555  4696 net.cpp:86] Creating Layer ip4
I0430 23:22:12.744566  4696 net.cpp:408] ip4 <- ip3
I0430 23:22:12.744577  4696 net.cpp:382] ip4 -> ip4
I0430 23:22:12.744873  4696 net.cpp:124] Setting up ip4
I0430 23:22:12.744886  4696 net.cpp:131] Top shape: 1000 10 (10000)
I0430 23:22:12.744891  4696 net.cpp:139] Memory required for data: 96692000
I0430 23:22:12.744910  4696 layer_factory.hpp:77] Creating layer ip4_ip4_0_split
I0430 23:22:12.744922  4696 net.cpp:86] Creating Layer ip4_ip4_0_split
I0430 23:22:12.744928  4696 net.cpp:408] ip4_ip4_0_split <- ip4
I0430 23:22:12.744938  4696 net.cpp:382] ip4_ip4_0_split -> ip4_ip4_0_split_0
I0430 23:22:12.744953  4696 net.cpp:382] ip4_ip4_0_split -> ip4_ip4_0_split_1
I0430 23:22:12.745024  4696 net.cpp:124] Setting up ip4_ip4_0_split
I0430 23:22:12.745035  4696 net.cpp:131] Top shape: 1000 10 (10000)
I0430 23:22:12.745043  4696 net.cpp:131] Top shape: 1000 10 (10000)
I0430 23:22:12.745048  4696 net.cpp:139] Memory required for data: 96772000
I0430 23:22:12.745054  4696 layer_factory.hpp:77] Creating layer accuracy
I0430 23:22:12.745066  4696 net.cpp:86] Creating Layer accuracy
I0430 23:22:12.745074  4696 net.cpp:408] accuracy <- ip4_ip4_0_split_0
I0430 23:22:12.745082  4696 net.cpp:408] accuracy <- label_cifar_1_split_0
I0430 23:22:12.745090  4696 net.cpp:382] accuracy -> accuracy
…
