…
I0430 23:09:00.857873  4323 net.cpp:296] The NetState phase (0) differed from the phase (1) specified by a rule in layer cifar
I0430 23:09:00.857888  4323 net.cpp:296] The NetState phase (0) differed from the phase (1) specified by a rule in layer accuracy
I0430 23:09:00.857987  4323 net.cpp:53] Initializing net from parameters: 
name: "CIFAR"
state {
  phase: TRAIN
  level: 0
  stage: ""
}
layer {
  name: "cifar"
  type: "Data"
  top: "data"
  top: "label"
  include {
    phase: TRAIN
  }
  transform_param {
    mean_file: "examples/cifar10/mean.binaryproto"
  }
  data_param {
    source: "examples/cifar10/cifar10_train_lmdb"
    batch_size: 111
    backend: LMDB
  }
}
layer {
  name: "conv0"
  type: "Convolution"
  bottom: "data"
  top: "conv0"
  param {
    lr_mult: 1
  }
  param {
    lr_mult: 2
  }
  convolution_param {
    num_output: 8
    pad: 2
    kernel_size: 3
    stride: 1
    weight_filler {
      type: "gaussian"
      std: 0.01
    }
    bias_filler {
      type: "constant"
    }
  }
}
layer {
  name: "Sigmoid0"
  type: "Sigmoid"
  bottom: "conv0"
  top: "Sigmoid0"
}
layer {
  name: "pool0"
  type: "Pooling"
  bottom: "Sigmoid0"
  top: "pool0"
  pooling_param {
    pool: AVE
    kernel_size: 3
    stride: 2
  }
}
layer {
  name: "ip1"
  type: "InnerProduct"
  bottom: "pool0"
  top: "ip1"
  param {
    lr_mult: 1
  }
  param {
    lr_mult: 2
  }
  inner_product_param {
    num_output: 20
    weight_filler {
      type: "gaussian"
      std: 0.01
    }
    bias_filler {
      type: "constant"
    }
  }
}
layer {
  name: "relu1"
  type: "ReLU"
  bottom: "ip1"
  top: "ip1"
}
layer {
  name: "ip2"
  type: "InnerProduct"
  bottom: "ip1"
  top: "ip2"
  param {
    lr_mult: 1
  }
  param {
    lr_mult: 2
  }
  inner_product_param {
    num_output: 20
    weight_filler {
      type: "gaussian"
      std: 0.01
    }
    bias_filler {
      type: "constant"
    }
  }
}
layer {
  name: "relu2"
  type: "ReLU"
  bottom: "ip2"
  top: "ip2"
}
layer {
  name: "ip3"
  type: "InnerProduct"
  bottom: "ip2"
  top: "ip3"
  param {
    lr_mult: 1
  }
  param {
    lr_mult: 2
  }
  inner_product_param {
    num_output: 20
    weight_filler {
      type: "gaussian"
      std: 0.01
    }
    bias_filler {
      type: "constant"
    }
  }
}
layer {
  name: "relu3"
  type: "ReLU"
  bottom: "ip3"
  top: "ip3"
}
layer {
  name: "ip4"
  type: "InnerProduct"
  bottom: "ip3"
  top: "ip4"
  param {
    lr_mult: 1
  }
  param {
    lr_mult: 2
  }
  inner_product_param {
    num_output: 10
    weight_filler {
      type: "gaussian"
      std: 0.01
    }
    bias_filler {
      type: "constant"
    }
  }
}
layer {
  name: "loss"
  type: "SoftmaxWithLoss"
  bottom: "ip4"
  bottom: "label"
  top: "loss"
}
I0430 23:09:00.858086  4323 layer_factory.hpp:77] Creating layer cifar
I0430 23:09:00.858191  4323 db_lmdb.cpp:35] Opened lmdb examples/cifar10/cifar10_train_lmdb
I0430 23:09:00.858223  4323 net.cpp:86] Creating Layer cifar
I0430 23:09:00.858249  4323 net.cpp:382] cifar -> data
I0430 23:09:00.858274  4323 net.cpp:382] cifar -> label
I0430 23:09:00.858289  4323 data_transformer.cpp:25] Loading mean file from: examples/cifar10/mean.binaryproto
I0430 23:09:00.860275  4323 data_layer.cpp:45] output data size: 111,3,32,32
I0430 23:09:00.866719  4323 net.cpp:124] Setting up cifar
I0430 23:09:00.866734  4323 net.cpp:131] Top shape: 111 3 32 32 (340992)
I0430 23:09:00.866755  4323 net.cpp:131] Top shape: 111 (111)
I0430 23:09:00.866758  4323 net.cpp:139] Memory required for data: 1364412
I0430 23:09:00.866776  4323 layer_factory.hpp:77] Creating layer conv0
I0430 23:09:00.866794  4323 net.cpp:86] Creating Layer conv0
I0430 23:09:00.866801  4323 net.cpp:408] conv0 <- data
I0430 23:09:00.866817  4323 net.cpp:382] conv0 -> conv0
I0430 23:09:01.090798  4323 net.cpp:124] Setting up conv0
I0430 23:09:01.090839  4323 net.cpp:131] Top shape: 111 8 34 34 (1026528)
I0430 23:09:01.090843  4323 net.cpp:139] Memory required for data: 5470524
I0430 23:09:01.090857  4323 layer_factory.hpp:77] Creating layer Sigmoid0
I0430 23:09:01.090869  4323 net.cpp:86] Creating Layer Sigmoid0
I0430 23:09:01.090874  4323 net.cpp:408] Sigmoid0 <- conv0
I0430 23:09:01.090881  4323 net.cpp:382] Sigmoid0 -> Sigmoid0
I0430 23:09:01.091066  4323 net.cpp:124] Setting up Sigmoid0
I0430 23:09:01.091076  4323 net.cpp:131] Top shape: 111 8 34 34 (1026528)
I0430 23:09:01.091079  4323 net.cpp:139] Memory required for data: 9576636
I0430 23:09:01.091084  4323 layer_factory.hpp:77] Creating layer pool0
I0430 23:09:01.091092  4323 net.cpp:86] Creating Layer pool0
I0430 23:09:01.091097  4323 net.cpp:408] pool0 <- Sigmoid0
I0430 23:09:01.091119  4323 net.cpp:382] pool0 -> pool0
I0430 23:09:01.091789  4323 net.cpp:124] Setting up pool0
I0430 23:09:01.091800  4323 net.cpp:131] Top shape: 111 8 17 17 (256632)
I0430 23:09:01.091820  4323 net.cpp:139] Memory required for data: 10603164
I0430 23:09:01.091822  4323 layer_factory.hpp:77] Creating layer ip1
I0430 23:09:01.091831  4323 net.cpp:86] Creating Layer ip1
I0430 23:09:01.091835  4323 net.cpp:408] ip1 <- pool0
I0430 23:09:01.091840  4323 net.cpp:382] ip1 -> ip1
I0430 23:09:01.093914  4323 net.cpp:124] Setting up ip1
I0430 23:09:01.093926  4323 net.cpp:131] Top shape: 111 20 (2220)
I0430 23:09:01.093930  4323 net.cpp:139] Memory required for data: 10612044
I0430 23:09:01.093937  4323 layer_factory.hpp:77] Creating layer relu1
I0430 23:09:01.093942  4323 net.cpp:86] Creating Layer relu1
I0430 23:09:01.093945  4323 net.cpp:408] relu1 <- ip1
I0430 23:09:01.093950  4323 net.cpp:369] relu1 -> ip1 (in-place)
I0430 23:09:01.094120  4323 net.cpp:124] Setting up relu1
I0430 23:09:01.094130  4323 net.cpp:131] Top shape: 111 20 (2220)
I0430 23:09:01.094132  4323 net.cpp:139] Memory required for data: 10620924
I0430 23:09:01.094136  4323 layer_factory.hpp:77] Creating layer ip2
I0430 23:09:01.094146  4323 net.cpp:86] Creating Layer ip2
I0430 23:09:01.094151  4323 net.cpp:408] ip2 <- ip1
I0430 23:09:01.094158  4323 net.cpp:382] ip2 -> ip2
I0430 23:09:01.095052  4323 net.cpp:124] Setting up ip2
I0430 23:09:01.095063  4323 net.cpp:131] Top shape: 111 20 (2220)
I0430 23:09:01.095067  4323 net.cpp:139] Memory required for data: 10629804
I0430 23:09:01.095074  4323 layer_factory.hpp:77] Creating layer relu2
I0430 23:09:01.095079  4323 net.cpp:86] Creating Layer relu2
I0430 23:09:01.095082  4323 net.cpp:408] relu2 <- ip2
I0430 23:09:01.095087  4323 net.cpp:369] relu2 -> ip2 (in-place)
I0430 23:09:01.095265  4323 net.cpp:124] Setting up relu2
I0430 23:09:01.095276  4323 net.cpp:131] Top shape: 111 20 (2220)
I0430 23:09:01.095294  4323 net.cpp:139] Memory required for data: 10638684
I0430 23:09:01.095299  4323 layer_factory.hpp:77] Creating layer ip3
I0430 23:09:01.095305  4323 net.cpp:86] Creating Layer ip3
I0430 23:09:01.095309  4323 net.cpp:408] ip3 <- ip2
I0430 23:09:01.095314  4323 net.cpp:382] ip3 -> ip3
I0430 23:09:01.095427  4323 net.cpp:124] Setting up ip3
I0430 23:09:01.095435  4323 net.cpp:131] Top shape: 111 20 (2220)
I0430 23:09:01.095438  4323 net.cpp:139] Memory required for data: 10647564
I0430 23:09:01.095443  4323 layer_factory.hpp:77] Creating layer relu3
I0430 23:09:01.095448  4323 net.cpp:86] Creating Layer relu3
I0430 23:09:01.095451  4323 net.cpp:408] relu3 <- ip3
I0430 23:09:01.095455  4323 net.cpp:369] relu3 -> ip3 (in-place)
I0430 23:09:01.095636  4323 net.cpp:124] Setting up relu3
I0430 23:09:01.095644  4323 net.cpp:131] Top shape: 111 20 (2220)
I0430 23:09:01.095646  4323 net.cpp:139] Memory required for data: 10656444
I0430 23:09:01.095649  4323 layer_factory.hpp:77] Creating layer ip4
I0430 23:09:01.095667  4323 net.cpp:86] Creating Layer ip4
I0430 23:09:01.095674  4323 net.cpp:408] ip4 <- ip3
I0430 23:09:01.095695  4323 net.cpp:382] ip4 -> ip4
I0430 23:09:01.095808  4323 net.cpp:124] Setting up ip4
I0430 23:09:01.095816  4323 net.cpp:131] Top shape: 111 10 (1110)
I0430 23:09:01.095819  4323 net.cpp:139] Memory required for data: 10660884
I0430 23:09:01.095829  4323 layer_factory.hpp:77] Creating layer loss
I0430 23:09:01.095837  4323 net.cpp:86] Creating Layer loss
I0430 23:09:01.095842  4323 net.cpp:408] loss <- ip4
I0430 23:09:01.095849  4323 net.cpp:408] loss <- label
I0430 23:09:01.095856  4323 net.cpp:382] loss -> loss
I0430 23:09:01.095875  4323 layer_factory.hpp:77] Creating layer loss
…
I0430 23:09:01.097110  4323 solver.cpp:173] Creating test net (#0) specified by net file: ECE595/cifar/train_test/var_everything/cifar_train_test_216.prototxt
I0430 23:09:01.097152  4323 net.cpp:296] The NetState phase (1) differed from the phase (0) specified by a rule in layer cifar
I0430 23:09:01.097290  4323 net.cpp:53] Initializing net from parameters: 
name: "CIFAR"
state {
  phase: TEST
}
layer {
  name: "cifar"
  type: "Data"
  top: "data"
  top: "label"
  include {
    phase: TEST
  }
  transform_param {
    mean_file: "examples/cifar10/mean.binaryproto"
  }
  data_param {
    source: "examples/cifar10/cifar10_test_lmdb"
    batch_size: 1000
    backend: LMDB
  }
}
layer {
  name: "conv0"
  type: "Convolution"
  bottom: "data"
  top: "conv0"
  param {
    lr_mult: 1
  }
  param {
    lr_mult: 2
  }
  convolution_param {
    num_output: 8
    pad: 2
    kernel_size: 3
    stride: 1
    weight_filler {
      type: "gaussian"
      std: 0.01
    }
    bias_filler {
      type: "constant"
    }
  }
}
layer {
  name: "Sigmoid0"
  type: "Sigmoid"
  bottom: "conv0"
  top: "Sigmoid0"
}
layer {
  name: "pool0"
  type: "Pooling"
  bottom: "Sigmoid0"
  top: "pool0"
  pooling_param {
    pool: AVE
    kernel_size: 3
    stride: 2
  }
}
layer {
  name: "ip1"
  type: "InnerProduct"
  bottom: "pool0"
  top: "ip1"
  param {
    lr_mult: 1
  }
  param {
    lr_mult: 2
  }
  inner_product_param {
    num_output: 20
    weight_filler {
      type: "gaussian"
      std: 0.01
    }
    bias_filler {
      type: "constant"
    }
  }
}
layer {
  name: "relu1"
  type: "ReLU"
  bottom: "ip1"
  top: "ip1"
}
layer {
  name: "ip2"
  type: "InnerProduct"
  bottom: "ip1"
  top: "ip2"
  param {
    lr_mult: 1
  }
  param {
    lr_mult: 2
  }
  inner_product_param {
    num_output: 20
    weight_filler {
      type: "gaussian"
      std: 0.01
    }
    bias_filler {
      type: "constant"
    }
  }
}
layer {
  name: "relu2"
  type: "ReLU"
  bottom: "ip2"
  top: "ip2"
}
layer {
  name: "ip3"
  type: "InnerProduct"
  bottom: "ip2"
  top: "ip3"
  param {
    lr_mult: 1
  }
  param {
    lr_mult: 2
  }
  inner_product_param {
    num_output: 20
    weight_filler {
      type: "gaussian"
      std: 0.01
    }
    bias_filler {
      type: "constant"
    }
  }
}
layer {
  name: "relu3"
  type: "ReLU"
  bottom: "ip3"
  top: "ip3"
}
layer {
  name: "ip4"
  type: "InnerProduct"
  bottom: "ip3"
  top: "ip4"
  param {
    lr_mult: 1
  }
  param {
    lr_mult: 2
  }
  inner_product_param {
    num_output: 10
    weight_filler {
      type: "gaussian"
      std: 0.01
    }
    bias_filler {
      type: "constant"
    }
  }
}
layer {
  name: "accuracy"
  type: "Accuracy"
  bottom: "ip4"
  bottom: "label"
  top: "accuracy"
  include {
    phase: TEST
  }
}
layer {
  name: "loss"
  type: "SoftmaxWithLoss"
  bottom: "ip4"
  bottom: "label"
  top: "loss"
}
I0430 23:09:01.097398  4323 layer_factory.hpp:77] Creating layer cifar
I0430 23:09:01.097455  4323 db_lmdb.cpp:35] Opened lmdb examples/cifar10/cifar10_test_lmdb
I0430 23:09:01.097471  4323 net.cpp:86] Creating Layer cifar
I0430 23:09:01.097478  4323 net.cpp:382] cifar -> data
I0430 23:09:01.097489  4323 net.cpp:382] cifar -> label
I0430 23:09:01.097499  4323 data_transformer.cpp:25] Loading mean file from: examples/cifar10/mean.binaryproto
I0430 23:09:01.097690  4323 data_layer.cpp:45] output data size: 1000,3,32,32
I0430 23:09:01.119432  4323 net.cpp:124] Setting up cifar
I0430 23:09:01.119458  4323 net.cpp:131] Top shape: 1000 3 32 32 (3072000)
I0430 23:09:01.119464  4323 net.cpp:131] Top shape: 1000 (1000)
I0430 23:09:01.119468  4323 net.cpp:139] Memory required for data: 12292000
I0430 23:09:01.119474  4323 layer_factory.hpp:77] Creating layer label_cifar_1_split
I0430 23:09:01.119491  4323 net.cpp:86] Creating Layer label_cifar_1_split
I0430 23:09:01.119510  4323 net.cpp:408] label_cifar_1_split <- label
I0430 23:09:01.119519  4323 net.cpp:382] label_cifar_1_split -> label_cifar_1_split_0
I0430 23:09:01.119532  4323 net.cpp:382] label_cifar_1_split -> label_cifar_1_split_1
I0430 23:09:01.119632  4323 net.cpp:124] Setting up label_cifar_1_split
I0430 23:09:01.119639  4323 net.cpp:131] Top shape: 1000 (1000)
I0430 23:09:01.119643  4323 net.cpp:131] Top shape: 1000 (1000)
I0430 23:09:01.119647  4323 net.cpp:139] Memory required for data: 12300000
I0430 23:09:01.119652  4323 layer_factory.hpp:77] Creating layer conv0
I0430 23:09:01.119670  4323 net.cpp:86] Creating Layer conv0
I0430 23:09:01.119676  4323 net.cpp:408] conv0 <- data
I0430 23:09:01.119685  4323 net.cpp:382] conv0 -> conv0
I0430 23:09:01.122191  4323 net.cpp:124] Setting up conv0
I0430 23:09:01.122221  4323 net.cpp:131] Top shape: 1000 8 34 34 (9248000)
I0430 23:09:01.122225  4323 net.cpp:139] Memory required for data: 49292000
I0430 23:09:01.122234  4323 layer_factory.hpp:77] Creating layer Sigmoid0
I0430 23:09:01.122241  4323 net.cpp:86] Creating Layer Sigmoid0
I0430 23:09:01.122244  4323 net.cpp:408] Sigmoid0 <- conv0
I0430 23:09:01.122249  4323 net.cpp:382] Sigmoid0 -> Sigmoid0
I0430 23:09:01.122462  4323 net.cpp:124] Setting up Sigmoid0
I0430 23:09:01.122472  4323 net.cpp:131] Top shape: 1000 8 34 34 (9248000)
I0430 23:09:01.122474  4323 net.cpp:139] Memory required for data: 86284000
I0430 23:09:01.122478  4323 layer_factory.hpp:77] Creating layer pool0
I0430 23:09:01.122489  4323 net.cpp:86] Creating Layer pool0
I0430 23:09:01.122495  4323 net.cpp:408] pool0 <- Sigmoid0
I0430 23:09:01.122503  4323 net.cpp:382] pool0 -> pool0
I0430 23:09:01.122676  4323 net.cpp:124] Setting up pool0
I0430 23:09:01.122685  4323 net.cpp:131] Top shape: 1000 8 17 17 (2312000)
I0430 23:09:01.122689  4323 net.cpp:139] Memory required for data: 95532000
I0430 23:09:01.122694  4323 layer_factory.hpp:77] Creating layer ip1
I0430 23:09:01.122704  4323 net.cpp:86] Creating Layer ip1
I0430 23:09:01.122709  4323 net.cpp:408] ip1 <- pool0
I0430 23:09:01.122717  4323 net.cpp:382] ip1 -> ip1
I0430 23:09:01.124064  4323 net.cpp:124] Setting up ip1
I0430 23:09:01.124073  4323 net.cpp:131] Top shape: 1000 20 (20000)
I0430 23:09:01.124086  4323 net.cpp:139] Memory required for data: 95612000
I0430 23:09:01.124110  4323 layer_factory.hpp:77] Creating layer relu1
I0430 23:09:01.124120  4323 net.cpp:86] Creating Layer relu1
I0430 23:09:01.124125  4323 net.cpp:408] relu1 <- ip1
I0430 23:09:01.124132  4323 net.cpp:369] relu1 -> ip1 (in-place)
I0430 23:09:01.124294  4323 net.cpp:124] Setting up relu1
I0430 23:09:01.124302  4323 net.cpp:131] Top shape: 1000 20 (20000)
I0430 23:09:01.124306  4323 net.cpp:139] Memory required for data: 95692000
I0430 23:09:01.124310  4323 layer_factory.hpp:77] Creating layer ip2
I0430 23:09:01.124320  4323 net.cpp:86] Creating Layer ip2
I0430 23:09:01.124325  4323 net.cpp:408] ip2 <- ip1
I0430 23:09:01.124332  4323 net.cpp:382] ip2 -> ip2
I0430 23:09:01.124449  4323 net.cpp:124] Setting up ip2
I0430 23:09:01.124457  4323 net.cpp:131] Top shape: 1000 20 (20000)
I0430 23:09:01.124459  4323 net.cpp:139] Memory required for data: 95772000
I0430 23:09:01.124469  4323 layer_factory.hpp:77] Creating layer relu2
I0430 23:09:01.124478  4323 net.cpp:86] Creating Layer relu2
I0430 23:09:01.124483  4323 net.cpp:408] relu2 <- ip2
I0430 23:09:01.124490  4323 net.cpp:369] relu2 -> ip2 (in-place)
I0430 23:09:01.125450  4323 net.cpp:124] Setting up relu2
I0430 23:09:01.125463  4323 net.cpp:131] Top shape: 1000 20 (20000)
I0430 23:09:01.125484  4323 net.cpp:139] Memory required for data: 95852000
I0430 23:09:01.125488  4323 layer_factory.hpp:77] Creating layer ip3
I0430 23:09:01.125500  4323 net.cpp:86] Creating Layer ip3
I0430 23:09:01.125504  4323 net.cpp:408] ip3 <- ip2
I0430 23:09:01.125509  4323 net.cpp:382] ip3 -> ip3
I0430 23:09:01.125638  4323 net.cpp:124] Setting up ip3
I0430 23:09:01.125645  4323 net.cpp:131] Top shape: 1000 20 (20000)
I0430 23:09:01.125648  4323 net.cpp:139] Memory required for data: 95932000
I0430 23:09:01.125656  4323 layer_factory.hpp:77] Creating layer relu3
I0430 23:09:01.125664  4323 net.cpp:86] Creating Layer relu3
I0430 23:09:01.125669  4323 net.cpp:408] relu3 <- ip3
I0430 23:09:01.125676  4323 net.cpp:369] relu3 -> ip3 (in-place)
I0430 23:09:01.125849  4323 net.cpp:124] Setting up relu3
I0430 23:09:01.125857  4323 net.cpp:131] Top shape: 1000 20 (20000)
I0430 23:09:01.125860  4323 net.cpp:139] Memory required for data: 96012000
I0430 23:09:01.125864  4323 layer_factory.hpp:77] Creating layer ip4
I0430 23:09:01.125874  4323 net.cpp:86] Creating Layer ip4
I0430 23:09:01.125880  4323 net.cpp:408] ip4 <- ip3
I0430 23:09:01.125888  4323 net.cpp:382] ip4 -> ip4
I0430 23:09:01.126006  4323 net.cpp:124] Setting up ip4
I0430 23:09:01.126013  4323 net.cpp:131] Top shape: 1000 10 (10000)
I0430 23:09:01.126018  4323 net.cpp:139] Memory required for data: 96052000
I0430 23:09:01.126029  4323 layer_factory.hpp:77] Creating layer ip4_ip4_0_split
I0430 23:09:01.126054  4323 net.cpp:86] Creating Layer ip4_ip4_0_split
I0430 23:09:01.126058  4323 net.cpp:408] ip4_ip4_0_split <- ip4
I0430 23:09:01.126065  4323 net.cpp:382] ip4_ip4_0_split -> ip4_ip4_0_split_0
I0430 23:09:01.126075  4323 net.cpp:382] ip4_ip4_0_split -> ip4_ip4_0_split_1
I0430 23:09:01.126114  4323 net.cpp:124] Setting up ip4_ip4_0_split
I0430 23:09:01.126121  4323 net.cpp:131] Top shape: 1000 10 (10000)
I0430 23:09:01.126126  4323 net.cpp:131] Top shape: 1000 10 (10000)
I0430 23:09:01.126128  4323 net.cpp:139] Memory required for data: 96132000
I0430 23:09:01.126133  4323 layer_factory.hpp:77] Creating layer accuracy
I0430 23:09:01.126142  4323 net.cpp:86] Creating Layer accuracy
I0430 23:09:01.126147  4323 net.cpp:408] accuracy <- ip4_ip4_0_split_0
I0430 23:09:01.126154  4323 net.cpp:408] accuracy <- label_cifar_1_split_0
I0430 23:09:01.126161  4323 net.cpp:382] accuracy -> accuracy
…
