…
I0430 18:43:35.815472 24126 net.cpp:296] The NetState phase (0) differed from the phase (1) specified by a rule in layer cifar
I0430 18:43:35.815488 24126 net.cpp:296] The NetState phase (0) differed from the phase (1) specified by a rule in layer accuracy
I0430 18:43:35.815572 24126 net.cpp:53] Initializing net from parameters: 
name: "CIFAR"
state {
  phase: TRAIN
  level: 0
  stage: ""
}
layer {
  name: "cifar"
  type: "Data"
  top: "data"
  top: "label"
  include {
    phase: TRAIN
  }
  transform_param {
    mean_file: "examples/cifar10/mean.binaryproto"
  }
  data_param {
    source: "examples/cifar10/cifar10_train_lmdb"
    batch_size: 111
    backend: LMDB
  }
}
layer {
  name: "ip1"
  type: "InnerProduct"
  bottom: "data"
  top: "ip1"
  param {
    lr_mult: 1
  }
  param {
    lr_mult: 2
  }
  inner_product_param {
    num_output: 20
    weight_filler {
      type: "gaussian"
      std: 0.01
    }
    bias_filler {
      type: "constant"
    }
  }
}
layer {
  name: "relu1"
  type: "ReLU"
  bottom: "ip1"
  top: "ip1"
}
layer {
  name: "ip2"
  type: "InnerProduct"
  bottom: "ip1"
  top: "ip2"
  param {
    lr_mult: 1
  }
  param {
    lr_mult: 2
  }
  inner_product_param {
    num_output: 160
    weight_filler {
      type: "gaussian"
      std: 0.01
    }
    bias_filler {
      type: "constant"
    }
  }
}
layer {
  name: "relu2"
  type: "ReLU"
  bottom: "ip2"
  top: "ip2"
}
layer {
  name: "ip3"
  type: "InnerProduct"
  bottom: "ip2"
  top: "ip3"
  param {
    lr_mult: 1
  }
  param {
    lr_mult: 2
  }
  inner_product_param {
    num_output: 10
    weight_filler {
      type: "gaussian"
      std: 0.01
    }
    bias_filler {
      type: "constant"
    }
  }
}
layer {
  name: "relu3"
  type: "ReLU"
  bottom: "ip3"
  top: "ip3"
}
layer {
  name: "ip4"
  type: "InnerProduct"
  bottom: "ip3"
  top: "ip4"
  param {
    lr_mult: 1
  }
  param {
    lr_mult: 2
  }
  inner_product_param {
    num_output: 10
    weight_filler {
      type: "gaussian"
      std: 0.01
    }
    bias_filler {
      type: "constant"
    }
  }
}
layer {
  name: "loss"
  type: "SoftmaxWithLoss"
  bottom: "ip4"
  bottom: "label"
  top: "loss"
}
I0430 18:43:35.815644 24126 layer_factory.hpp:77] Creating layer cifar
I0430 18:43:35.815750 24126 db_lmdb.cpp:35] Opened lmdb examples/cifar10/cifar10_train_lmdb
I0430 18:43:35.815778 24126 net.cpp:86] Creating Layer cifar
I0430 18:43:35.815786 24126 net.cpp:382] cifar -> data
I0430 18:43:35.815809 24126 net.cpp:382] cifar -> label
I0430 18:43:35.815820 24126 data_transformer.cpp:25] Loading mean file from: examples/cifar10/mean.binaryproto
I0430 18:43:35.817948 24126 data_layer.cpp:45] output data size: 111,3,32,32
I0430 18:43:35.826066 24126 net.cpp:124] Setting up cifar
I0430 18:43:35.826084 24126 net.cpp:131] Top shape: 111 3 32 32 (340992)
I0430 18:43:35.826092 24126 net.cpp:131] Top shape: 111 (111)
I0430 18:43:35.826095 24126 net.cpp:139] Memory required for data: 1364412
I0430 18:43:35.826103 24126 layer_factory.hpp:77] Creating layer ip1
I0430 18:43:35.826115 24126 net.cpp:86] Creating Layer ip1
I0430 18:43:35.826122 24126 net.cpp:408] ip1 <- data
I0430 18:43:35.826133 24126 net.cpp:382] ip1 -> ip1
I0430 18:43:35.829308 24126 net.cpp:124] Setting up ip1
I0430 18:43:35.829322 24126 net.cpp:131] Top shape: 111 20 (2220)
I0430 18:43:35.829326 24126 net.cpp:139] Memory required for data: 1373292
I0430 18:43:35.829341 24126 layer_factory.hpp:77] Creating layer relu1
I0430 18:43:35.829351 24126 net.cpp:86] Creating Layer relu1
I0430 18:43:35.829373 24126 net.cpp:408] relu1 <- ip1
I0430 18:43:35.829380 24126 net.cpp:369] relu1 -> ip1 (in-place)
I0430 18:43:36.117405 24126 net.cpp:124] Setting up relu1
I0430 18:43:36.117440 24126 net.cpp:131] Top shape: 111 20 (2220)
I0430 18:43:36.117445 24126 net.cpp:139] Memory required for data: 1382172
I0430 18:43:36.117451 24126 layer_factory.hpp:77] Creating layer ip2
I0430 18:43:36.117466 24126 net.cpp:86] Creating Layer ip2
I0430 18:43:36.117471 24126 net.cpp:408] ip2 <- ip1
I0430 18:43:36.117480 24126 net.cpp:382] ip2 -> ip2
I0430 18:43:36.117717 24126 net.cpp:124] Setting up ip2
I0430 18:43:36.117725 24126 net.cpp:131] Top shape: 111 160 (17760)
I0430 18:43:36.117729 24126 net.cpp:139] Memory required for data: 1453212
I0430 18:43:36.117741 24126 layer_factory.hpp:77] Creating layer relu2
I0430 18:43:36.117749 24126 net.cpp:86] Creating Layer relu2
I0430 18:43:36.117753 24126 net.cpp:408] relu2 <- ip2
I0430 18:43:36.117758 24126 net.cpp:369] relu2 -> ip2 (in-place)
I0430 18:43:36.118664 24126 net.cpp:124] Setting up relu2
I0430 18:43:36.118680 24126 net.cpp:131] Top shape: 111 160 (17760)
I0430 18:43:36.118683 24126 net.cpp:139] Memory required for data: 1524252
I0430 18:43:36.118687 24126 layer_factory.hpp:77] Creating layer ip3
I0430 18:43:36.118695 24126 net.cpp:86] Creating Layer ip3
I0430 18:43:36.118700 24126 net.cpp:408] ip3 <- ip2
I0430 18:43:36.118706 24126 net.cpp:382] ip3 -> ip3
I0430 18:43:36.118871 24126 net.cpp:124] Setting up ip3
I0430 18:43:36.118882 24126 net.cpp:131] Top shape: 111 10 (1110)
I0430 18:43:36.118886 24126 net.cpp:139] Memory required for data: 1528692
I0430 18:43:36.118896 24126 layer_factory.hpp:77] Creating layer relu3
I0430 18:43:36.118902 24126 net.cpp:86] Creating Layer relu3
I0430 18:43:36.118906 24126 net.cpp:408] relu3 <- ip3
I0430 18:43:36.118911 24126 net.cpp:369] relu3 -> ip3 (in-place)
I0430 18:43:36.119091 24126 net.cpp:124] Setting up relu3
I0430 18:43:36.119102 24126 net.cpp:131] Top shape: 111 10 (1110)
I0430 18:43:36.119105 24126 net.cpp:139] Memory required for data: 1533132
I0430 18:43:36.119109 24126 layer_factory.hpp:77] Creating layer ip4
I0430 18:43:36.119117 24126 net.cpp:86] Creating Layer ip4
I0430 18:43:36.119120 24126 net.cpp:408] ip4 <- ip3
I0430 18:43:36.119127 24126 net.cpp:382] ip4 -> ip4
I0430 18:43:36.119236 24126 net.cpp:124] Setting up ip4
I0430 18:43:36.119244 24126 net.cpp:131] Top shape: 111 10 (1110)
I0430 18:43:36.119248 24126 net.cpp:139] Memory required for data: 1537572
I0430 18:43:36.119254 24126 layer_factory.hpp:77] Creating layer loss
I0430 18:43:36.119262 24126 net.cpp:86] Creating Layer loss
I0430 18:43:36.119266 24126 net.cpp:408] loss <- ip4
I0430 18:43:36.119271 24126 net.cpp:408] loss <- label
I0430 18:43:36.119277 24126 net.cpp:382] loss -> loss
I0430 18:43:36.119295 24126 layer_factory.hpp:77] Creating layer loss
…
I0430 18:43:36.119961 24126 solver.cpp:173] Creating test net (#0) specified by net file: ECE595/cifar/train_test/var_everything/cifar_train_test_75.prototxt
I0430 18:43:36.120007 24126 net.cpp:296] The NetState phase (1) differed from the phase (0) specified by a rule in layer cifar
I0430 18:43:36.120101 24126 net.cpp:53] Initializing net from parameters: 
name: "CIFAR"
state {
  phase: TEST
}
layer {
  name: "cifar"
  type: "Data"
  top: "data"
  top: "label"
  include {
    phase: TEST
  }
  transform_param {
    mean_file: "examples/cifar10/mean.binaryproto"
  }
  data_param {
    source: "examples/cifar10/cifar10_test_lmdb"
    batch_size: 1000
    backend: LMDB
  }
}
layer {
  name: "ip1"
  type: "InnerProduct"
  bottom: "data"
  top: "ip1"
  param {
    lr_mult: 1
  }
  param {
    lr_mult: 2
  }
  inner_product_param {
    num_output: 20
    weight_filler {
      type: "gaussian"
      std: 0.01
    }
    bias_filler {
      type: "constant"
    }
  }
}
layer {
  name: "relu1"
  type: "ReLU"
  bottom: "ip1"
  top: "ip1"
}
layer {
  name: "ip2"
  type: "InnerProduct"
  bottom: "ip1"
  top: "ip2"
  param {
    lr_mult: 1
  }
  param {
    lr_mult: 2
  }
  inner_product_param {
    num_output: 160
    weight_filler {
      type: "gaussian"
      std: 0.01
    }
    bias_filler {
      type: "constant"
    }
  }
}
layer {
  name: "relu2"
  type: "ReLU"
  bottom: "ip2"
  top: "ip2"
}
layer {
  name: "ip3"
  type: "InnerProduct"
  bottom: "ip2"
  top: "ip3"
  param {
    lr_mult: 1
  }
  param {
    lr_mult: 2
  }
  inner_product_param {
    num_output: 10
    weight_filler {
      type: "gaussian"
      std: 0.01
    }
    bias_filler {
      type: "constant"
    }
  }
}
layer {
  name: "relu3"
  type: "ReLU"
  bottom: "ip3"
  top: "ip3"
}
layer {
  name: "ip4"
  type: "InnerProduct"
  bottom: "ip3"
  top: "ip4"
  param {
    lr_mult: 1
  }
  param {
    lr_mult: 2
  }
  inner_product_param {
    num_output: 10
    weight_filler {
      type: "gaussian"
      std: 0.01
    }
    bias_filler {
      type: "constant"
    }
  }
}
layer {
  name: "accuracy"
  type: "Accuracy"
  bottom: "ip4"
  bottom: "label"
  top: "accuracy"
  include {
    phase: TEST
  }
}
layer {
  name: "loss"
  type: "SoftmaxWithLoss"
  bottom: "ip4"
  bottom: "label"
  top: "loss"
}
I0430 18:43:36.120174 24126 layer_factory.hpp:77] Creating layer cifar
I0430 18:43:36.120229 24126 db_lmdb.cpp:35] Opened lmdb examples/cifar10/cifar10_test_lmdb
I0430 18:43:36.120244 24126 net.cpp:86] Creating Layer cifar
I0430 18:43:36.120249 24126 net.cpp:382] cifar -> data
I0430 18:43:36.120259 24126 net.cpp:382] cifar -> label
I0430 18:43:36.120266 24126 data_transformer.cpp:25] Loading mean file from: examples/cifar10/mean.binaryproto
I0430 18:43:36.120432 24126 data_layer.cpp:45] output data size: 1000,3,32,32
I0430 18:43:36.147136 24126 net.cpp:124] Setting up cifar
I0430 18:43:36.147166 24126 net.cpp:131] Top shape: 1000 3 32 32 (3072000)
I0430 18:43:36.147173 24126 net.cpp:131] Top shape: 1000 (1000)
I0430 18:43:36.147177 24126 net.cpp:139] Memory required for data: 12292000
I0430 18:43:36.147184 24126 layer_factory.hpp:77] Creating layer label_cifar_1_split
I0430 18:43:36.147205 24126 net.cpp:86] Creating Layer label_cifar_1_split
I0430 18:43:36.147210 24126 net.cpp:408] label_cifar_1_split <- label
I0430 18:43:36.147218 24126 net.cpp:382] label_cifar_1_split -> label_cifar_1_split_0
I0430 18:43:36.147229 24126 net.cpp:382] label_cifar_1_split -> label_cifar_1_split_1
I0430 18:43:36.147320 24126 net.cpp:124] Setting up label_cifar_1_split
I0430 18:43:36.147330 24126 net.cpp:131] Top shape: 1000 (1000)
I0430 18:43:36.147336 24126 net.cpp:131] Top shape: 1000 (1000)
I0430 18:43:36.147338 24126 net.cpp:139] Memory required for data: 12300000
I0430 18:43:36.147342 24126 layer_factory.hpp:77] Creating layer ip1
I0430 18:43:36.147353 24126 net.cpp:86] Creating Layer ip1
I0430 18:43:36.147356 24126 net.cpp:408] ip1 <- data
I0430 18:43:36.147362 24126 net.cpp:382] ip1 -> ip1
I0430 18:43:36.150043 24126 net.cpp:124] Setting up ip1
I0430 18:43:36.150054 24126 net.cpp:131] Top shape: 1000 20 (20000)
I0430 18:43:36.150058 24126 net.cpp:139] Memory required for data: 12380000
I0430 18:43:36.150087 24126 layer_factory.hpp:77] Creating layer relu1
I0430 18:43:36.150096 24126 net.cpp:86] Creating Layer relu1
I0430 18:43:36.150100 24126 net.cpp:408] relu1 <- ip1
I0430 18:43:36.150106 24126 net.cpp:369] relu1 -> ip1 (in-place)
I0430 18:43:36.151024 24126 net.cpp:124] Setting up relu1
I0430 18:43:36.151041 24126 net.cpp:131] Top shape: 1000 20 (20000)
I0430 18:43:36.151044 24126 net.cpp:139] Memory required for data: 12460000
I0430 18:43:36.151048 24126 layer_factory.hpp:77] Creating layer ip2
I0430 18:43:36.151058 24126 net.cpp:86] Creating Layer ip2
I0430 18:43:36.151063 24126 net.cpp:408] ip2 <- ip1
I0430 18:43:36.151070 24126 net.cpp:382] ip2 -> ip2
I0430 18:43:36.151295 24126 net.cpp:124] Setting up ip2
I0430 18:43:36.151304 24126 net.cpp:131] Top shape: 1000 160 (160000)
I0430 18:43:36.151309 24126 net.cpp:139] Memory required for data: 13100000
I0430 18:43:36.151319 24126 layer_factory.hpp:77] Creating layer relu2
I0430 18:43:36.151324 24126 net.cpp:86] Creating Layer relu2
I0430 18:43:36.151329 24126 net.cpp:408] relu2 <- ip2
I0430 18:43:36.151334 24126 net.cpp:369] relu2 -> ip2 (in-place)
I0430 18:43:36.151516 24126 net.cpp:124] Setting up relu2
I0430 18:43:36.151527 24126 net.cpp:131] Top shape: 1000 160 (160000)
I0430 18:43:36.151531 24126 net.cpp:139] Memory required for data: 13740000
I0430 18:43:36.151535 24126 layer_factory.hpp:77] Creating layer ip3
I0430 18:43:36.151542 24126 net.cpp:86] Creating Layer ip3
I0430 18:43:36.151546 24126 net.cpp:408] ip3 <- ip2
I0430 18:43:36.151551 24126 net.cpp:382] ip3 -> ip3
I0430 18:43:36.151716 24126 net.cpp:124] Setting up ip3
I0430 18:43:36.151724 24126 net.cpp:131] Top shape: 1000 10 (10000)
I0430 18:43:36.151729 24126 net.cpp:139] Memory required for data: 13780000
I0430 18:43:36.151738 24126 layer_factory.hpp:77] Creating layer relu3
I0430 18:43:36.151743 24126 net.cpp:86] Creating Layer relu3
I0430 18:43:36.151747 24126 net.cpp:408] relu3 <- ip3
I0430 18:43:36.151752 24126 net.cpp:369] relu3 -> ip3 (in-place)
I0430 18:43:36.151932 24126 net.cpp:124] Setting up relu3
I0430 18:43:36.151940 24126 net.cpp:131] Top shape: 1000 10 (10000)
I0430 18:43:36.151945 24126 net.cpp:139] Memory required for data: 13820000
I0430 18:43:36.151949 24126 layer_factory.hpp:77] Creating layer ip4
I0430 18:43:36.151958 24126 net.cpp:86] Creating Layer ip4
I0430 18:43:36.151962 24126 net.cpp:408] ip4 <- ip3
I0430 18:43:36.151968 24126 net.cpp:382] ip4 -> ip4
I0430 18:43:36.152084 24126 net.cpp:124] Setting up ip4
I0430 18:43:36.152092 24126 net.cpp:131] Top shape: 1000 10 (10000)
I0430 18:43:36.152096 24126 net.cpp:139] Memory required for data: 13860000
I0430 18:43:36.152102 24126 layer_factory.hpp:77] Creating layer ip4_ip4_0_split
I0430 18:43:36.152108 24126 net.cpp:86] Creating Layer ip4_ip4_0_split
I0430 18:43:36.152112 24126 net.cpp:408] ip4_ip4_0_split <- ip4
I0430 18:43:36.152117 24126 net.cpp:382] ip4_ip4_0_split -> ip4_ip4_0_split_0
I0430 18:43:36.152125 24126 net.cpp:382] ip4_ip4_0_split -> ip4_ip4_0_split_1
I0430 18:43:36.152161 24126 net.cpp:124] Setting up ip4_ip4_0_split
I0430 18:43:36.152169 24126 net.cpp:131] Top shape: 1000 10 (10000)
I0430 18:43:36.152173 24126 net.cpp:131] Top shape: 1000 10 (10000)
I0430 18:43:36.152178 24126 net.cpp:139] Memory required for data: 13940000
I0430 18:43:36.152180 24126 layer_factory.hpp:77] Creating layer accuracy
I0430 18:43:36.152187 24126 net.cpp:86] Creating Layer accuracy
I0430 18:43:36.152191 24126 net.cpp:408] accuracy <- ip4_ip4_0_split_0
I0430 18:43:36.152196 24126 net.cpp:408] accuracy <- label_cifar_1_split_0
I0430 18:43:36.152202 24126 net.cpp:382] accuracy -> accuracy
…
