…
I0501 07:52:53.892204  7790 net.cpp:296] The NetState phase (0) differed from the phase (1) specified by a rule in layer cifar
I0501 07:52:53.892220  7790 net.cpp:296] The NetState phase (0) differed from the phase (1) specified by a rule in layer accuracy
I0501 07:52:53.892304  7790 net.cpp:53] Initializing net from parameters: 
name: "CIFAR"
state {
  phase: TRAIN
  level: 0
  stage: ""
}
layer {
  name: "cifar"
  type: "Data"
  top: "data"
  top: "label"
  include {
    phase: TRAIN
  }
  transform_param {
    mean_file: "examples/cifar10/mean.binaryproto"
  }
  data_param {
    source: "examples/cifar10/cifar10_train_lmdb"
    batch_size: 111
    backend: LMDB
  }
}
layer {
  name: "conv0"
  type: "Convolution"
  bottom: "data"
  top: "conv0"
  param {
    lr_mult: 1
  }
  param {
    lr_mult: 2
  }
  convolution_param {
    num_output: 16
    pad: 2
    kernel_size: 3
    stride: 1
    weight_filler {
      type: "gaussian"
      std: 0.01
    }
    bias_filler {
      type: "constant"
    }
  }
}
layer {
  name: "Sigmoid0"
  type: "Sigmoid"
  bottom: "conv0"
  top: "Sigmoid0"
}
layer {
  name: "pool0"
  type: "Pooling"
  bottom: "Sigmoid0"
  top: "pool0"
  pooling_param {
    pool: AVE
    kernel_size: 3
    stride: 2
  }
}
layer {
  name: "ip1"
  type: "InnerProduct"
  bottom: "pool0"
  top: "ip1"
  param {
    lr_mult: 1
  }
  param {
    lr_mult: 2
  }
  inner_product_param {
    num_output: 10
    weight_filler {
      type: "gaussian"
      std: 0.01
    }
    bias_filler {
      type: "constant"
    }
  }
}
layer {
  name: "relu1"
  type: "ReLU"
  bottom: "ip1"
  top: "ip1"
}
layer {
  name: "ip2"
  type: "InnerProduct"
  bottom: "ip1"
  top: "ip2"
  param {
    lr_mult: 1
  }
  param {
    lr_mult: 2
  }
  inner_product_param {
    num_output: 10
    weight_filler {
      type: "gaussian"
      std: 0.01
    }
    bias_filler {
      type: "constant"
    }
  }
}
layer {
  name: "relu2"
  type: "ReLU"
  bottom: "ip2"
  top: "ip2"
}
layer {
  name: "ip3"
  type: "InnerProduct"
  bottom: "ip2"
  top: "ip3"
  param {
    lr_mult: 1
  }
  param {
    lr_mult: 2
  }
  inner_product_param {
    num_output: 10
    weight_filler {
      type: "gaussian"
      std: 0.01
    }
    bias_filler {
      type: "constant"
    }
  }
}
layer {
  name: "relu3"
  type: "ReLU"
  bottom: "ip3"
  top: "ip3"
}
layer {
  name: "ip4"
  type: "InnerProduct"
  bottom: "ip3"
  top: "ip4"
  param {
    lr_mult: 1
  }
  param {
    lr_mult: 2
  }
  inner_product_param {
    num_output: 10
    weight_filler {
      type: "gaussian"
      std: 0.01
    }
    bias_filler {
      type: "constant"
    }
  }
}
layer {
  name: "loss"
  type: "SoftmaxWithLoss"
  bottom: "ip4"
  bottom: "label"
  top: "loss"
}
I0501 07:52:53.892385  7790 layer_factory.hpp:77] Creating layer cifar
I0501 07:52:53.892469  7790 db_lmdb.cpp:35] Opened lmdb examples/cifar10/cifar10_train_lmdb
I0501 07:52:53.892506  7790 net.cpp:86] Creating Layer cifar
I0501 07:52:53.892513  7790 net.cpp:382] cifar -> data
I0501 07:52:53.892532  7790 net.cpp:382] cifar -> label
I0501 07:52:53.892542  7790 data_transformer.cpp:25] Loading mean file from: examples/cifar10/mean.binaryproto
I0501 07:52:53.894323  7790 data_layer.cpp:45] output data size: 111,3,32,32
I0501 07:52:53.900722  7790 net.cpp:124] Setting up cifar
I0501 07:52:53.900738  7790 net.cpp:131] Top shape: 111 3 32 32 (340992)
I0501 07:52:53.900743  7790 net.cpp:131] Top shape: 111 (111)
I0501 07:52:53.900745  7790 net.cpp:139] Memory required for data: 1364412
I0501 07:52:53.900764  7790 layer_factory.hpp:77] Creating layer conv0
I0501 07:52:53.900797  7790 net.cpp:86] Creating Layer conv0
I0501 07:52:53.900802  7790 net.cpp:408] conv0 <- data
I0501 07:52:53.900835  7790 net.cpp:382] conv0 -> conv0
I0501 07:52:54.135776  7790 net.cpp:124] Setting up conv0
I0501 07:52:54.135802  7790 net.cpp:131] Top shape: 111 16 34 34 (2053056)
I0501 07:52:54.135807  7790 net.cpp:139] Memory required for data: 9576636
I0501 07:52:54.135820  7790 layer_factory.hpp:77] Creating layer Sigmoid0
I0501 07:52:54.135831  7790 net.cpp:86] Creating Layer Sigmoid0
I0501 07:52:54.135835  7790 net.cpp:408] Sigmoid0 <- conv0
I0501 07:52:54.135840  7790 net.cpp:382] Sigmoid0 -> Sigmoid0
I0501 07:52:54.136023  7790 net.cpp:124] Setting up Sigmoid0
I0501 07:52:54.136032  7790 net.cpp:131] Top shape: 111 16 34 34 (2053056)
I0501 07:52:54.136035  7790 net.cpp:139] Memory required for data: 17788860
I0501 07:52:54.136039  7790 layer_factory.hpp:77] Creating layer pool0
I0501 07:52:54.136044  7790 net.cpp:86] Creating Layer pool0
I0501 07:52:54.136049  7790 net.cpp:408] pool0 <- Sigmoid0
I0501 07:52:54.136052  7790 net.cpp:382] pool0 -> pool0
I0501 07:52:54.136766  7790 net.cpp:124] Setting up pool0
I0501 07:52:54.136780  7790 net.cpp:131] Top shape: 111 16 17 17 (513264)
I0501 07:52:54.136782  7790 net.cpp:139] Memory required for data: 19841916
I0501 07:52:54.136785  7790 layer_factory.hpp:77] Creating layer ip1
I0501 07:52:54.136795  7790 net.cpp:86] Creating Layer ip1
I0501 07:52:54.136797  7790 net.cpp:408] ip1 <- pool0
I0501 07:52:54.136802  7790 net.cpp:382] ip1 -> ip1
I0501 07:52:54.138942  7790 net.cpp:124] Setting up ip1
I0501 07:52:54.138954  7790 net.cpp:131] Top shape: 111 10 (1110)
I0501 07:52:54.138957  7790 net.cpp:139] Memory required for data: 19846356
I0501 07:52:54.138965  7790 layer_factory.hpp:77] Creating layer relu1
I0501 07:52:54.138970  7790 net.cpp:86] Creating Layer relu1
I0501 07:52:54.138974  7790 net.cpp:408] relu1 <- ip1
I0501 07:52:54.138978  7790 net.cpp:369] relu1 -> ip1 (in-place)
I0501 07:52:54.139139  7790 net.cpp:124] Setting up relu1
I0501 07:52:54.139148  7790 net.cpp:131] Top shape: 111 10 (1110)
I0501 07:52:54.139152  7790 net.cpp:139] Memory required for data: 19850796
I0501 07:52:54.139154  7790 layer_factory.hpp:77] Creating layer ip2
I0501 07:52:54.139160  7790 net.cpp:86] Creating Layer ip2
I0501 07:52:54.139163  7790 net.cpp:408] ip2 <- ip1
I0501 07:52:54.139168  7790 net.cpp:382] ip2 -> ip2
I0501 07:52:54.139256  7790 net.cpp:124] Setting up ip2
I0501 07:52:54.139262  7790 net.cpp:131] Top shape: 111 10 (1110)
I0501 07:52:54.139266  7790 net.cpp:139] Memory required for data: 19855236
I0501 07:52:54.139272  7790 layer_factory.hpp:77] Creating layer relu2
I0501 07:52:54.139276  7790 net.cpp:86] Creating Layer relu2
I0501 07:52:54.139279  7790 net.cpp:408] relu2 <- ip2
I0501 07:52:54.139282  7790 net.cpp:369] relu2 -> ip2 (in-place)
I0501 07:52:54.139438  7790 net.cpp:124] Setting up relu2
I0501 07:52:54.139446  7790 net.cpp:131] Top shape: 111 10 (1110)
I0501 07:52:54.139449  7790 net.cpp:139] Memory required for data: 19859676
I0501 07:52:54.139452  7790 layer_factory.hpp:77] Creating layer ip3
I0501 07:52:54.139459  7790 net.cpp:86] Creating Layer ip3
I0501 07:52:54.139462  7790 net.cpp:408] ip3 <- ip2
I0501 07:52:54.139467  7790 net.cpp:382] ip3 -> ip3
I0501 07:52:54.139554  7790 net.cpp:124] Setting up ip3
I0501 07:52:54.139560  7790 net.cpp:131] Top shape: 111 10 (1110)
I0501 07:52:54.139564  7790 net.cpp:139] Memory required for data: 19864116
I0501 07:52:54.139569  7790 layer_factory.hpp:77] Creating layer relu3
I0501 07:52:54.139574  7790 net.cpp:86] Creating Layer relu3
I0501 07:52:54.139576  7790 net.cpp:408] relu3 <- ip3
I0501 07:52:54.139580  7790 net.cpp:369] relu3 -> ip3 (in-place)
I0501 07:52:54.139737  7790 net.cpp:124] Setting up relu3
I0501 07:52:54.139745  7790 net.cpp:131] Top shape: 111 10 (1110)
I0501 07:52:54.139749  7790 net.cpp:139] Memory required for data: 19868556
I0501 07:52:54.139751  7790 layer_factory.hpp:77] Creating layer ip4
I0501 07:52:54.139772  7790 net.cpp:86] Creating Layer ip4
I0501 07:52:54.139775  7790 net.cpp:408] ip4 <- ip3
I0501 07:52:54.139780  7790 net.cpp:382] ip4 -> ip4
I0501 07:52:54.139873  7790 net.cpp:124] Setting up ip4
I0501 07:52:54.139880  7790 net.cpp:131] Top shape: 111 10 (1110)
I0501 07:52:54.139883  7790 net.cpp:139] Memory required for data: 19872996
I0501 07:52:54.139890  7790 layer_factory.hpp:77] Creating layer loss
I0501 07:52:54.139895  7790 net.cpp:86] Creating Layer loss
I0501 07:52:54.139899  7790 net.cpp:408] loss <- ip4
I0501 07:52:54.139902  7790 net.cpp:408] loss <- label
I0501 07:52:54.139907  7790 net.cpp:382] loss -> loss
I0501 07:52:54.139925  7790 layer_factory.hpp:77] Creating layer loss
…
I0501 07:52:54.141237  7790 solver.cpp:173] Creating test net (#0) specified by net file: ECE595/cifar/train_test/var_everything/cifar_train_test_495.prototxt
I0501 07:52:54.141294  7790 net.cpp:296] The NetState phase (1) differed from the phase (0) specified by a rule in layer cifar
I0501 07:52:54.141396  7790 net.cpp:53] Initializing net from parameters: 
name: "CIFAR"
state {
  phase: TEST
}
layer {
  name: "cifar"
  type: "Data"
  top: "data"
  top: "label"
  include {
    phase: TEST
  }
  transform_param {
    mean_file: "examples/cifar10/mean.binaryproto"
  }
  data_param {
    source: "examples/cifar10/cifar10_test_lmdb"
    batch_size: 1000
    backend: LMDB
  }
}
layer {
  name: "conv0"
  type: "Convolution"
  bottom: "data"
  top: "conv0"
  param {
    lr_mult: 1
  }
  param {
    lr_mult: 2
  }
  convolution_param {
    num_output: 16
    pad: 2
    kernel_size: 3
    stride: 1
    weight_filler {
      type: "gaussian"
      std: 0.01
    }
    bias_filler {
      type: "constant"
    }
  }
}
layer {
  name: "Sigmoid0"
  type: "Sigmoid"
  bottom: "conv0"
  top: "Sigmoid0"
}
layer {
  name: "pool0"
  type: "Pooling"
  bottom: "Sigmoid0"
  top: "pool0"
  pooling_param {
    pool: AVE
    kernel_size: 3
    stride: 2
  }
}
layer {
  name: "ip1"
  type: "InnerProduct"
  bottom: "pool0"
  top: "ip1"
  param {
    lr_mult: 1
  }
  param {
    lr_mult: 2
  }
  inner_product_param {
    num_output: 10
    weight_filler {
      type: "gaussian"
      std: 0.01
    }
    bias_filler {
      type: "constant"
    }
  }
}
layer {
  name: "relu1"
  type: "ReLU"
  bottom: "ip1"
  top: "ip1"
}
layer {
  name: "ip2"
  type: "InnerProduct"
  bottom: "ip1"
  top: "ip2"
  param {
    lr_mult: 1
  }
  param {
    lr_mult: 2
  }
  inner_product_param {
    num_output: 10
    weight_filler {
      type: "gaussian"
      std: 0.01
    }
    bias_filler {
      type: "constant"
    }
  }
}
layer {
  name: "relu2"
  type: "ReLU"
  bottom: "ip2"
  top: "ip2"
}
layer {
  name: "ip3"
  type: "InnerProduct"
  bottom: "ip2"
  top: "ip3"
  param {
    lr_mult: 1
  }
  param {
    lr_mult: 2
  }
  inner_product_param {
    num_output: 10
    weight_filler {
      type: "gaussian"
      std: 0.01
    }
    bias_filler {
      type: "constant"
    }
  }
}
layer {
  name: "relu3"
  type: "ReLU"
  bottom: "ip3"
  top: "ip3"
}
layer {
  name: "ip4"
  type: "InnerProduct"
  bottom: "ip3"
  top: "ip4"
  param {
    lr_mult: 1
  }
  param {
    lr_mult: 2
  }
  inner_product_param {
    num_output: 10
    weight_filler {
      type: "gaussian"
      std: 0.01
    }
    bias_filler {
      type: "constant"
    }
  }
}
layer {
  name: "accuracy"
  type: "Accuracy"
  bottom: "ip4"
  bottom: "label"
  top: "accuracy"
  include {
    phase: TEST
  }
}
layer {
  name: "loss"
  type: "SoftmaxWithLoss"
  bottom: "ip4"
  bottom: "label"
  top: "loss"
}
I0501 07:52:54.141470  7790 layer_factory.hpp:77] Creating layer cifar
I0501 07:52:54.141515  7790 db_lmdb.cpp:35] Opened lmdb examples/cifar10/cifar10_test_lmdb
I0501 07:52:54.141526  7790 net.cpp:86] Creating Layer cifar
I0501 07:52:54.141531  7790 net.cpp:382] cifar -> data
I0501 07:52:54.141538  7790 net.cpp:382] cifar -> label
I0501 07:52:54.141544  7790 data_transformer.cpp:25] Loading mean file from: examples/cifar10/mean.binaryproto
I0501 07:52:54.141676  7790 data_layer.cpp:45] output data size: 1000,3,32,32
I0501 07:52:54.163571  7790 net.cpp:124] Setting up cifar
I0501 07:52:54.163612  7790 net.cpp:131] Top shape: 1000 3 32 32 (3072000)
I0501 07:52:54.163619  7790 net.cpp:131] Top shape: 1000 (1000)
I0501 07:52:54.163621  7790 net.cpp:139] Memory required for data: 12292000
I0501 07:52:54.163626  7790 layer_factory.hpp:77] Creating layer label_cifar_1_split
I0501 07:52:54.163655  7790 net.cpp:86] Creating Layer label_cifar_1_split
I0501 07:52:54.163661  7790 net.cpp:408] label_cifar_1_split <- label
I0501 07:52:54.163682  7790 net.cpp:382] label_cifar_1_split -> label_cifar_1_split_0
I0501 07:52:54.163707  7790 net.cpp:382] label_cifar_1_split -> label_cifar_1_split_1
I0501 07:52:54.163820  7790 net.cpp:124] Setting up label_cifar_1_split
I0501 07:52:54.163828  7790 net.cpp:131] Top shape: 1000 (1000)
I0501 07:52:54.163832  7790 net.cpp:131] Top shape: 1000 (1000)
I0501 07:52:54.163836  7790 net.cpp:139] Memory required for data: 12300000
I0501 07:52:54.163839  7790 layer_factory.hpp:77] Creating layer conv0
I0501 07:52:54.163851  7790 net.cpp:86] Creating Layer conv0
I0501 07:52:54.163856  7790 net.cpp:408] conv0 <- data
I0501 07:52:54.163861  7790 net.cpp:382] conv0 -> conv0
I0501 07:52:54.165554  7790 net.cpp:124] Setting up conv0
I0501 07:52:54.165582  7790 net.cpp:131] Top shape: 1000 16 34 34 (18496000)
I0501 07:52:54.165586  7790 net.cpp:139] Memory required for data: 86284000
I0501 07:52:54.165596  7790 layer_factory.hpp:77] Creating layer Sigmoid0
I0501 07:52:54.165601  7790 net.cpp:86] Creating Layer Sigmoid0
I0501 07:52:54.165604  7790 net.cpp:408] Sigmoid0 <- conv0
I0501 07:52:54.165609  7790 net.cpp:382] Sigmoid0 -> Sigmoid0
I0501 07:52:54.165792  7790 net.cpp:124] Setting up Sigmoid0
I0501 07:52:54.165802  7790 net.cpp:131] Top shape: 1000 16 34 34 (18496000)
I0501 07:52:54.165804  7790 net.cpp:139] Memory required for data: 160268000
I0501 07:52:54.165808  7790 layer_factory.hpp:77] Creating layer pool0
I0501 07:52:54.165817  7790 net.cpp:86] Creating Layer pool0
I0501 07:52:54.165819  7790 net.cpp:408] pool0 <- Sigmoid0
I0501 07:52:54.165824  7790 net.cpp:382] pool0 -> pool0
I0501 07:52:54.166000  7790 net.cpp:124] Setting up pool0
I0501 07:52:54.166009  7790 net.cpp:131] Top shape: 1000 16 17 17 (4624000)
I0501 07:52:54.166013  7790 net.cpp:139] Memory required for data: 178764000
I0501 07:52:54.166015  7790 layer_factory.hpp:77] Creating layer ip1
I0501 07:52:54.166023  7790 net.cpp:86] Creating Layer ip1
I0501 07:52:54.166026  7790 net.cpp:408] ip1 <- pool0
I0501 07:52:54.166030  7790 net.cpp:382] ip1 -> ip1
I0501 07:52:54.167423  7790 net.cpp:124] Setting up ip1
I0501 07:52:54.167433  7790 net.cpp:131] Top shape: 1000 10 (10000)
I0501 07:52:54.167450  7790 net.cpp:139] Memory required for data: 178804000
I0501 07:52:54.167472  7790 layer_factory.hpp:77] Creating layer relu1
I0501 07:52:54.167479  7790 net.cpp:86] Creating Layer relu1
I0501 07:52:54.167481  7790 net.cpp:408] relu1 <- ip1
I0501 07:52:54.167501  7790 net.cpp:369] relu1 -> ip1 (in-place)
I0501 07:52:54.167675  7790 net.cpp:124] Setting up relu1
I0501 07:52:54.167685  7790 net.cpp:131] Top shape: 1000 10 (10000)
I0501 07:52:54.167687  7790 net.cpp:139] Memory required for data: 178844000
I0501 07:52:54.167691  7790 layer_factory.hpp:77] Creating layer ip2
I0501 07:52:54.167697  7790 net.cpp:86] Creating Layer ip2
I0501 07:52:54.167701  7790 net.cpp:408] ip2 <- ip1
I0501 07:52:54.167706  7790 net.cpp:382] ip2 -> ip2
I0501 07:52:54.167810  7790 net.cpp:124] Setting up ip2
I0501 07:52:54.167817  7790 net.cpp:131] Top shape: 1000 10 (10000)
I0501 07:52:54.167820  7790 net.cpp:139] Memory required for data: 178884000
I0501 07:52:54.167827  7790 layer_factory.hpp:77] Creating layer relu2
I0501 07:52:54.167834  7790 net.cpp:86] Creating Layer relu2
I0501 07:52:54.167836  7790 net.cpp:408] relu2 <- ip2
I0501 07:52:54.167840  7790 net.cpp:369] relu2 -> ip2 (in-place)
I0501 07:52:54.168606  7790 net.cpp:124] Setting up relu2
I0501 07:52:54.168617  7790 net.cpp:131] Top shape: 1000 10 (10000)
I0501 07:52:54.168635  7790 net.cpp:139] Memory required for data: 178924000
I0501 07:52:54.168638  7790 layer_factory.hpp:77] Creating layer ip3
I0501 07:52:54.168645  7790 net.cpp:86] Creating Layer ip3
I0501 07:52:54.168648  7790 net.cpp:408] ip3 <- ip2
I0501 07:52:54.168654  7790 net.cpp:382] ip3 -> ip3
I0501 07:52:54.168772  7790 net.cpp:124] Setting up ip3
I0501 07:52:54.168779  7790 net.cpp:131] Top shape: 1000 10 (10000)
I0501 07:52:54.168782  7790 net.cpp:139] Memory required for data: 178964000
I0501 07:52:54.168788  7790 layer_factory.hpp:77] Creating layer relu3
I0501 07:52:54.168792  7790 net.cpp:86] Creating Layer relu3
I0501 07:52:54.168797  7790 net.cpp:408] relu3 <- ip3
I0501 07:52:54.168802  7790 net.cpp:369] relu3 -> ip3 (in-place)
I0501 07:52:54.168969  7790 net.cpp:124] Setting up relu3
I0501 07:52:54.168978  7790 net.cpp:131] Top shape: 1000 10 (10000)
I0501 07:52:54.168982  7790 net.cpp:139] Memory required for data: 179004000
I0501 07:52:54.168985  7790 layer_factory.hpp:77] Creating layer ip4
I0501 07:52:54.168992  7790 net.cpp:86] Creating Layer ip4
I0501 07:52:54.168994  7790 net.cpp:408] ip4 <- ip3
I0501 07:52:54.168999  7790 net.cpp:382] ip4 -> ip4
I0501 07:52:54.169098  7790 net.cpp:124] Setting up ip4
I0501 07:52:54.169106  7790 net.cpp:131] Top shape: 1000 10 (10000)
I0501 07:52:54.169109  7790 net.cpp:139] Memory required for data: 179044000
I0501 07:52:54.169117  7790 layer_factory.hpp:77] Creating layer ip4_ip4_0_split
I0501 07:52:54.169122  7790 net.cpp:86] Creating Layer ip4_ip4_0_split
I0501 07:52:54.169126  7790 net.cpp:408] ip4_ip4_0_split <- ip4
I0501 07:52:54.169129  7790 net.cpp:382] ip4_ip4_0_split -> ip4_ip4_0_split_0
I0501 07:52:54.169134  7790 net.cpp:382] ip4_ip4_0_split -> ip4_ip4_0_split_1
I0501 07:52:54.169178  7790 net.cpp:124] Setting up ip4_ip4_0_split
I0501 07:52:54.169184  7790 net.cpp:131] Top shape: 1000 10 (10000)
I0501 07:52:54.169188  7790 net.cpp:131] Top shape: 1000 10 (10000)
I0501 07:52:54.169190  7790 net.cpp:139] Memory required for data: 179124000
I0501 07:52:54.169193  7790 layer_factory.hpp:77] Creating layer accuracy
I0501 07:52:54.169199  7790 net.cpp:86] Creating Layer accuracy
I0501 07:52:54.169203  7790 net.cpp:408] accuracy <- ip4_ip4_0_split_0
I0501 07:52:54.169206  7790 net.cpp:408] accuracy <- label_cifar_1_split_0
I0501 07:52:54.169210  7790 net.cpp:382] accuracy -> accuracy
…
