…
I0501 06:21:48.188570 32570 net.cpp:296] The NetState phase (0) differed from the phase (1) specified by a rule in layer cifar
I0501 06:21:48.188596 32570 net.cpp:296] The NetState phase (0) differed from the phase (1) specified by a rule in layer accuracy
I0501 06:21:48.188715 32570 net.cpp:53] Initializing net from parameters: 
name: "CIFAR"
state {
  phase: TRAIN
  level: 0
  stage: ""
}
layer {
  name: "cifar"
  type: "Data"
  top: "data"
  top: "label"
  include {
    phase: TRAIN
  }
  transform_param {
    mean_file: "examples/cifar10/mean.binaryproto"
  }
  data_param {
    source: "examples/cifar10/cifar10_train_lmdb"
    batch_size: 111
    backend: LMDB
  }
}
layer {
  name: "conv0"
  type: "Convolution"
  bottom: "data"
  top: "conv0"
  param {
    lr_mult: 1
  }
  param {
    lr_mult: 2
  }
  convolution_param {
    num_output: 8
    pad: 2
    kernel_size: 5
    stride: 1
    weight_filler {
      type: "gaussian"
      std: 0.01
    }
    bias_filler {
      type: "constant"
    }
  }
}
layer {
  name: "Sigmoid0"
  type: "Sigmoid"
  bottom: "conv0"
  top: "Sigmoid0"
}
layer {
  name: "pool0"
  type: "Pooling"
  bottom: "Sigmoid0"
  top: "pool0"
  pooling_param {
    pool: AVE
    kernel_size: 3
    stride: 2
  }
}
layer {
  name: "ip1"
  type: "InnerProduct"
  bottom: "pool0"
  top: "ip1"
  param {
    lr_mult: 1
  }
  param {
    lr_mult: 2
  }
  inner_product_param {
    num_output: 160
    weight_filler {
      type: "gaussian"
      std: 0.01
    }
    bias_filler {
      type: "constant"
    }
  }
}
layer {
  name: "relu1"
  type: "ReLU"
  bottom: "ip1"
  top: "ip1"
}
layer {
  name: "ip2"
  type: "InnerProduct"
  bottom: "ip1"
  top: "ip2"
  param {
    lr_mult: 1
  }
  param {
    lr_mult: 2
  }
  inner_product_param {
    num_output: 20
    weight_filler {
      type: "gaussian"
      std: 0.01
    }
    bias_filler {
      type: "constant"
    }
  }
}
layer {
  name: "relu2"
  type: "ReLU"
  bottom: "ip2"
  top: "ip2"
}
layer {
  name: "ip3"
  type: "InnerProduct"
  bottom: "ip2"
  top: "ip3"
  param {
    lr_mult: 1
  }
  param {
    lr_mult: 2
  }
  inner_product_param {
    num_output: 80
    weight_filler {
      type: "gaussian"
      std: 0.01
    }
    bias_filler {
      type: "constant"
    }
  }
}
layer {
  name: "relu3"
  type: "ReLU"
  bottom: "ip3"
  top: "ip3"
}
layer {
  name: "ip4"
  type: "InnerProduct"
  bottom: "ip3"
  top: "ip4"
  param {
    lr_mult: 1
  }
  param {
    lr_mult: 2
  }
  inner_product_param {
    num_output: 10
    weight_filler {
      type: "gaussian"
      std: 0.01
    }
    bias_filler {
      type: "constant"
    }
  }
}
layer {
  name: "loss"
  type: "SoftmaxWithLoss"
  bottom: "ip4"
  bottom: "label"
  top: "loss"
}
I0501 06:21:48.188835 32570 layer_factory.hpp:77] Creating layer cifar
I0501 06:21:48.188971 32570 db_lmdb.cpp:35] Opened lmdb examples/cifar10/cifar10_train_lmdb
I0501 06:21:48.189007 32570 net.cpp:86] Creating Layer cifar
I0501 06:21:48.189023 32570 net.cpp:382] cifar -> data
I0501 06:21:48.189052 32570 net.cpp:382] cifar -> label
I0501 06:21:48.189069 32570 data_transformer.cpp:25] Loading mean file from: examples/cifar10/mean.binaryproto
I0501 06:21:48.191434 32570 data_layer.cpp:45] output data size: 111,3,32,32
I0501 06:21:48.199430 32570 net.cpp:124] Setting up cifar
I0501 06:21:48.199453 32570 net.cpp:131] Top shape: 111 3 32 32 (340992)
I0501 06:21:48.199463 32570 net.cpp:131] Top shape: 111 (111)
I0501 06:21:48.199470 32570 net.cpp:139] Memory required for data: 1364412
I0501 06:21:48.199507 32570 layer_factory.hpp:77] Creating layer conv0
I0501 06:21:48.199535 32570 net.cpp:86] Creating Layer conv0
I0501 06:21:48.199545 32570 net.cpp:408] conv0 <- data
I0501 06:21:48.199565 32570 net.cpp:382] conv0 -> conv0
I0501 06:21:48.492862 32570 net.cpp:124] Setting up conv0
I0501 06:21:48.492897 32570 net.cpp:131] Top shape: 111 8 32 32 (909312)
I0501 06:21:48.492914 32570 net.cpp:139] Memory required for data: 5001660
I0501 06:21:48.492944 32570 layer_factory.hpp:77] Creating layer Sigmoid0
I0501 06:21:48.492964 32570 net.cpp:86] Creating Layer Sigmoid0
I0501 06:21:48.492971 32570 net.cpp:408] Sigmoid0 <- conv0
I0501 06:21:48.492981 32570 net.cpp:382] Sigmoid0 -> Sigmoid0
I0501 06:21:48.493206 32570 net.cpp:124] Setting up Sigmoid0
I0501 06:21:48.493219 32570 net.cpp:131] Top shape: 111 8 32 32 (909312)
I0501 06:21:48.493226 32570 net.cpp:139] Memory required for data: 8638908
I0501 06:21:48.493232 32570 layer_factory.hpp:77] Creating layer pool0
I0501 06:21:48.493244 32570 net.cpp:86] Creating Layer pool0
I0501 06:21:48.493252 32570 net.cpp:408] pool0 <- Sigmoid0
I0501 06:21:48.493261 32570 net.cpp:382] pool0 -> pool0
I0501 06:21:48.494164 32570 net.cpp:124] Setting up pool0
I0501 06:21:48.494184 32570 net.cpp:131] Top shape: 111 8 16 16 (227328)
I0501 06:21:48.494190 32570 net.cpp:139] Memory required for data: 9548220
I0501 06:21:48.494197 32570 layer_factory.hpp:77] Creating layer ip1
I0501 06:21:48.494213 32570 net.cpp:86] Creating Layer ip1
I0501 06:21:48.494220 32570 net.cpp:408] ip1 <- pool0
I0501 06:21:48.494231 32570 net.cpp:382] ip1 -> ip1
I0501 06:21:48.505837 32570 net.cpp:124] Setting up ip1
I0501 06:21:48.505854 32570 net.cpp:131] Top shape: 111 160 (17760)
I0501 06:21:48.505861 32570 net.cpp:139] Memory required for data: 9619260
I0501 06:21:48.505875 32570 layer_factory.hpp:77] Creating layer relu1
I0501 06:21:48.505887 32570 net.cpp:86] Creating Layer relu1
I0501 06:21:48.505894 32570 net.cpp:408] relu1 <- ip1
I0501 06:21:48.505903 32570 net.cpp:369] relu1 -> ip1 (in-place)
I0501 06:21:48.506094 32570 net.cpp:124] Setting up relu1
I0501 06:21:48.506106 32570 net.cpp:131] Top shape: 111 160 (17760)
I0501 06:21:48.506112 32570 net.cpp:139] Memory required for data: 9690300
I0501 06:21:48.506119 32570 layer_factory.hpp:77] Creating layer ip2
I0501 06:21:48.506131 32570 net.cpp:86] Creating Layer ip2
I0501 06:21:48.506137 32570 net.cpp:408] ip2 <- ip1
I0501 06:21:48.506147 32570 net.cpp:382] ip2 -> ip2
I0501 06:21:48.506367 32570 net.cpp:124] Setting up ip2
I0501 06:21:48.506378 32570 net.cpp:131] Top shape: 111 20 (2220)
I0501 06:21:48.506384 32570 net.cpp:139] Memory required for data: 9699180
I0501 06:21:48.506398 32570 layer_factory.hpp:77] Creating layer relu2
I0501 06:21:48.506408 32570 net.cpp:86] Creating Layer relu2
I0501 06:21:48.506414 32570 net.cpp:408] relu2 <- ip2
I0501 06:21:48.506423 32570 net.cpp:369] relu2 -> ip2 (in-place)
I0501 06:21:48.506613 32570 net.cpp:124] Setting up relu2
I0501 06:21:48.506623 32570 net.cpp:131] Top shape: 111 20 (2220)
I0501 06:21:48.506629 32570 net.cpp:139] Memory required for data: 9708060
I0501 06:21:48.506636 32570 layer_factory.hpp:77] Creating layer ip3
I0501 06:21:48.506649 32570 net.cpp:86] Creating Layer ip3
I0501 06:21:48.506656 32570 net.cpp:408] ip3 <- ip2
I0501 06:21:48.506666 32570 net.cpp:382] ip3 -> ip3
I0501 06:21:48.506834 32570 net.cpp:124] Setting up ip3
I0501 06:21:48.506844 32570 net.cpp:131] Top shape: 111 80 (8880)
I0501 06:21:48.506850 32570 net.cpp:139] Memory required for data: 9743580
I0501 06:21:48.506860 32570 layer_factory.hpp:77] Creating layer relu3
I0501 06:21:48.506870 32570 net.cpp:86] Creating Layer relu3
I0501 06:21:48.506875 32570 net.cpp:408] relu3 <- ip3
I0501 06:21:48.506883 32570 net.cpp:369] relu3 -> ip3 (in-place)
I0501 06:21:48.507064 32570 net.cpp:124] Setting up relu3
I0501 06:21:48.507076 32570 net.cpp:131] Top shape: 111 80 (8880)
I0501 06:21:48.507081 32570 net.cpp:139] Memory required for data: 9779100
I0501 06:21:48.507087 32570 layer_factory.hpp:77] Creating layer ip4
I0501 06:21:48.507117 32570 net.cpp:86] Creating Layer ip4
I0501 06:21:48.507125 32570 net.cpp:408] ip4 <- ip3
I0501 06:21:48.507135 32570 net.cpp:382] ip4 -> ip4
I0501 06:21:48.507280 32570 net.cpp:124] Setting up ip4
I0501 06:21:48.507292 32570 net.cpp:131] Top shape: 111 10 (1110)
I0501 06:21:48.507316 32570 net.cpp:139] Memory required for data: 9783540
I0501 06:21:48.507330 32570 layer_factory.hpp:77] Creating layer loss
I0501 06:21:48.507340 32570 net.cpp:86] Creating Layer loss
I0501 06:21:48.507347 32570 net.cpp:408] loss <- ip4
I0501 06:21:48.507354 32570 net.cpp:408] loss <- label
I0501 06:21:48.507364 32570 net.cpp:382] loss -> loss
I0501 06:21:48.507390 32570 layer_factory.hpp:77] Creating layer loss
…
I0501 06:21:48.508860 32570 solver.cpp:173] Creating test net (#0) specified by net file: ECE595/cifar/train_test/var_everything/cifar_train_test_448.prototxt
I0501 06:21:48.508903 32570 net.cpp:296] The NetState phase (1) differed from the phase (0) specified by a rule in layer cifar
I0501 06:21:48.509029 32570 net.cpp:53] Initializing net from parameters: 
name: "CIFAR"
state {
  phase: TEST
}
layer {
  name: "cifar"
  type: "Data"
  top: "data"
  top: "label"
  include {
    phase: TEST
  }
  transform_param {
    mean_file: "examples/cifar10/mean.binaryproto"
  }
  data_param {
    source: "examples/cifar10/cifar10_test_lmdb"
    batch_size: 1000
    backend: LMDB
  }
}
layer {
  name: "conv0"
  type: "Convolution"
  bottom: "data"
  top: "conv0"
  param {
    lr_mult: 1
  }
  param {
    lr_mult: 2
  }
  convolution_param {
    num_output: 8
    pad: 2
    kernel_size: 5
    stride: 1
    weight_filler {
      type: "gaussian"
      std: 0.01
    }
    bias_filler {
      type: "constant"
    }
  }
}
layer {
  name: "Sigmoid0"
  type: "Sigmoid"
  bottom: "conv0"
  top: "Sigmoid0"
}
layer {
  name: "pool0"
  type: "Pooling"
  bottom: "Sigmoid0"
  top: "pool0"
  pooling_param {
    pool: AVE
    kernel_size: 3
    stride: 2
  }
}
layer {
  name: "ip1"
  type: "InnerProduct"
  bottom: "pool0"
  top: "ip1"
  param {
    lr_mult: 1
  }
  param {
    lr_mult: 2
  }
  inner_product_param {
    num_output: 160
    weight_filler {
      type: "gaussian"
      std: 0.01
    }
    bias_filler {
      type: "constant"
    }
  }
}
layer {
  name: "relu1"
  type: "ReLU"
  bottom: "ip1"
  top: "ip1"
}
layer {
  name: "ip2"
  type: "InnerProduct"
  bottom: "ip1"
  top: "ip2"
  param {
    lr_mult: 1
  }
  param {
    lr_mult: 2
  }
  inner_product_param {
    num_output: 20
    weight_filler {
      type: "gaussian"
      std: 0.01
    }
    bias_filler {
      type: "constant"
    }
  }
}
layer {
  name: "relu2"
  type: "ReLU"
  bottom: "ip2"
  top: "ip2"
}
layer {
  name: "ip3"
  type: "InnerProduct"
  bottom: "ip2"
  top: "ip3"
  param {
    lr_mult: 1
  }
  param {
    lr_mult: 2
  }
  inner_product_param {
    num_output: 80
    weight_filler {
      type: "gaussian"
      std: 0.01
    }
    bias_filler {
      type: "constant"
    }
  }
}
layer {
  name: "relu3"
  type: "ReLU"
  bottom: "ip3"
  top: "ip3"
}
layer {
  name: "ip4"
  type: "InnerProduct"
  bottom: "ip3"
  top: "ip4"
  param {
    lr_mult: 1
  }
  param {
    lr_mult: 2
  }
  inner_product_param {
    num_output: 10
    weight_filler {
      type: "gaussian"
      std: 0.01
    }
    bias_filler {
      type: "constant"
    }
  }
}
layer {
  name: "accuracy"
  type: "Accuracy"
  bottom: "ip4"
  bottom: "label"
  top: "accuracy"
  include {
    phase: TEST
  }
}
layer {
  name: "loss"
  type: "SoftmaxWithLoss"
  bottom: "ip4"
  bottom: "label"
  top: "loss"
}
I0501 06:21:48.509158 32570 layer_factory.hpp:77] Creating layer cifar
I0501 06:21:48.509225 32570 db_lmdb.cpp:35] Opened lmdb examples/cifar10/cifar10_test_lmdb
I0501 06:21:48.509245 32570 net.cpp:86] Creating Layer cifar
I0501 06:21:48.509253 32570 net.cpp:382] cifar -> data
I0501 06:21:48.509268 32570 net.cpp:382] cifar -> label
I0501 06:21:48.509279 32570 data_transformer.cpp:25] Loading mean file from: examples/cifar10/mean.binaryproto
I0501 06:21:48.509511 32570 data_layer.cpp:45] output data size: 1000,3,32,32
I0501 06:21:48.534212 32570 net.cpp:124] Setting up cifar
I0501 06:21:48.534245 32570 net.cpp:131] Top shape: 1000 3 32 32 (3072000)
I0501 06:21:48.534253 32570 net.cpp:131] Top shape: 1000 (1000)
I0501 06:21:48.534260 32570 net.cpp:139] Memory required for data: 12292000
I0501 06:21:48.534267 32570 layer_factory.hpp:77] Creating layer label_cifar_1_split
I0501 06:21:48.534289 32570 net.cpp:86] Creating Layer label_cifar_1_split
I0501 06:21:48.534296 32570 net.cpp:408] label_cifar_1_split <- label
I0501 06:21:48.534307 32570 net.cpp:382] label_cifar_1_split -> label_cifar_1_split_0
I0501 06:21:48.534320 32570 net.cpp:382] label_cifar_1_split -> label_cifar_1_split_1
I0501 06:21:48.534410 32570 net.cpp:124] Setting up label_cifar_1_split
I0501 06:21:48.534420 32570 net.cpp:131] Top shape: 1000 (1000)
I0501 06:21:48.534427 32570 net.cpp:131] Top shape: 1000 (1000)
I0501 06:21:48.534432 32570 net.cpp:139] Memory required for data: 12300000
I0501 06:21:48.534438 32570 layer_factory.hpp:77] Creating layer conv0
I0501 06:21:48.534456 32570 net.cpp:86] Creating Layer conv0
I0501 06:21:48.534464 32570 net.cpp:408] conv0 <- data
I0501 06:21:48.534473 32570 net.cpp:382] conv0 -> conv0
I0501 06:21:48.537004 32570 net.cpp:124] Setting up conv0
I0501 06:21:48.537022 32570 net.cpp:131] Top shape: 1000 8 32 32 (8192000)
I0501 06:21:48.537029 32570 net.cpp:139] Memory required for data: 45068000
I0501 06:21:48.537045 32570 layer_factory.hpp:77] Creating layer Sigmoid0
I0501 06:21:48.537056 32570 net.cpp:86] Creating Layer Sigmoid0
I0501 06:21:48.537063 32570 net.cpp:408] Sigmoid0 <- conv0
I0501 06:21:48.537072 32570 net.cpp:382] Sigmoid0 -> Sigmoid0
I0501 06:21:48.537272 32570 net.cpp:124] Setting up Sigmoid0
I0501 06:21:48.537286 32570 net.cpp:131] Top shape: 1000 8 32 32 (8192000)
I0501 06:21:48.537292 32570 net.cpp:139] Memory required for data: 77836000
I0501 06:21:48.537298 32570 layer_factory.hpp:77] Creating layer pool0
I0501 06:21:48.537310 32570 net.cpp:86] Creating Layer pool0
I0501 06:21:48.537317 32570 net.cpp:408] pool0 <- Sigmoid0
I0501 06:21:48.537325 32570 net.cpp:382] pool0 -> pool0
I0501 06:21:48.537529 32570 net.cpp:124] Setting up pool0
I0501 06:21:48.537541 32570 net.cpp:131] Top shape: 1000 8 16 16 (2048000)
I0501 06:21:48.537546 32570 net.cpp:139] Memory required for data: 86028000
I0501 06:21:48.537552 32570 layer_factory.hpp:77] Creating layer ip1
I0501 06:21:48.537564 32570 net.cpp:86] Creating Layer ip1
I0501 06:21:48.537569 32570 net.cpp:408] ip1 <- pool0
I0501 06:21:48.537578 32570 net.cpp:382] ip1 -> ip1
I0501 06:21:48.547907 32570 net.cpp:124] Setting up ip1
I0501 06:21:48.547924 32570 net.cpp:131] Top shape: 1000 160 (160000)
I0501 06:21:48.547930 32570 net.cpp:139] Memory required for data: 86668000
I0501 06:21:48.547960 32570 layer_factory.hpp:77] Creating layer relu1
I0501 06:21:48.547972 32570 net.cpp:86] Creating Layer relu1
I0501 06:21:48.547978 32570 net.cpp:408] relu1 <- ip1
I0501 06:21:48.547986 32570 net.cpp:369] relu1 -> ip1 (in-place)
I0501 06:21:48.548171 32570 net.cpp:124] Setting up relu1
I0501 06:21:48.548180 32570 net.cpp:131] Top shape: 1000 160 (160000)
I0501 06:21:48.548187 32570 net.cpp:139] Memory required for data: 87308000
I0501 06:21:48.548192 32570 layer_factory.hpp:77] Creating layer ip2
I0501 06:21:48.548203 32570 net.cpp:86] Creating Layer ip2
I0501 06:21:48.548209 32570 net.cpp:408] ip2 <- ip1
I0501 06:21:48.548218 32570 net.cpp:382] ip2 -> ip2
I0501 06:21:48.548424 32570 net.cpp:124] Setting up ip2
I0501 06:21:48.548435 32570 net.cpp:131] Top shape: 1000 20 (20000)
I0501 06:21:48.548440 32570 net.cpp:139] Memory required for data: 87388000
I0501 06:21:48.548454 32570 layer_factory.hpp:77] Creating layer relu2
I0501 06:21:48.548462 32570 net.cpp:86] Creating Layer relu2
I0501 06:21:48.548472 32570 net.cpp:408] relu2 <- ip2
I0501 06:21:48.548480 32570 net.cpp:369] relu2 -> ip2 (in-place)
I0501 06:21:48.549263 32570 net.cpp:124] Setting up relu2
I0501 06:21:48.549276 32570 net.cpp:131] Top shape: 1000 20 (20000)
I0501 06:21:48.549283 32570 net.cpp:139] Memory required for data: 87468000
I0501 06:21:48.549288 32570 layer_factory.hpp:77] Creating layer ip3
I0501 06:21:48.549299 32570 net.cpp:86] Creating Layer ip3
I0501 06:21:48.549305 32570 net.cpp:408] ip3 <- ip2
I0501 06:21:48.549314 32570 net.cpp:382] ip3 -> ip3
I0501 06:21:48.549476 32570 net.cpp:124] Setting up ip3
I0501 06:21:48.549486 32570 net.cpp:131] Top shape: 1000 80 (80000)
I0501 06:21:48.549492 32570 net.cpp:139] Memory required for data: 87788000
I0501 06:21:48.549502 32570 layer_factory.hpp:77] Creating layer relu3
I0501 06:21:48.549510 32570 net.cpp:86] Creating Layer relu3
I0501 06:21:48.549516 32570 net.cpp:408] relu3 <- ip3
I0501 06:21:48.549523 32570 net.cpp:369] relu3 -> ip3 (in-place)
I0501 06:21:48.549690 32570 net.cpp:124] Setting up relu3
I0501 06:21:48.549700 32570 net.cpp:131] Top shape: 1000 80 (80000)
I0501 06:21:48.549705 32570 net.cpp:139] Memory required for data: 88108000
I0501 06:21:48.549710 32570 layer_factory.hpp:77] Creating layer ip4
I0501 06:21:48.549721 32570 net.cpp:86] Creating Layer ip4
I0501 06:21:48.549726 32570 net.cpp:408] ip4 <- ip3
I0501 06:21:48.549734 32570 net.cpp:382] ip4 -> ip4
I0501 06:21:48.549871 32570 net.cpp:124] Setting up ip4
I0501 06:21:48.549880 32570 net.cpp:131] Top shape: 1000 10 (10000)
I0501 06:21:48.549885 32570 net.cpp:139] Memory required for data: 88148000
I0501 06:21:48.549901 32570 layer_factory.hpp:77] Creating layer ip4_ip4_0_split
I0501 06:21:48.549909 32570 net.cpp:86] Creating Layer ip4_ip4_0_split
I0501 06:21:48.549916 32570 net.cpp:408] ip4_ip4_0_split <- ip4
I0501 06:21:48.549924 32570 net.cpp:382] ip4_ip4_0_split -> ip4_ip4_0_split_0
I0501 06:21:48.549934 32570 net.cpp:382] ip4_ip4_0_split -> ip4_ip4_0_split_1
I0501 06:21:48.549974 32570 net.cpp:124] Setting up ip4_ip4_0_split
I0501 06:21:48.549983 32570 net.cpp:131] Top shape: 1000 10 (10000)
I0501 06:21:48.549989 32570 net.cpp:131] Top shape: 1000 10 (10000)
I0501 06:21:48.549995 32570 net.cpp:139] Memory required for data: 88228000
I0501 06:21:48.550000 32570 layer_factory.hpp:77] Creating layer accuracy
I0501 06:21:48.550009 32570 net.cpp:86] Creating Layer accuracy
I0501 06:21:48.550015 32570 net.cpp:408] accuracy <- ip4_ip4_0_split_0
I0501 06:21:48.550022 32570 net.cpp:408] accuracy <- label_cifar_1_split_0
I0501 06:21:48.550030 32570 net.cpp:382] accuracy -> accuracy
…
