…
I0501 02:55:40.058404 18079 net.cpp:296] The NetState phase (0) differed from the phase (1) specified by a rule in layer cifar
I0501 02:55:40.058420 18079 net.cpp:296] The NetState phase (0) differed from the phase (1) specified by a rule in layer accuracy
I0501 02:55:40.058506 18079 net.cpp:53] Initializing net from parameters: 
name: "CIFAR"
state {
  phase: TRAIN
  level: 0
  stage: ""
}
layer {
  name: "cifar"
  type: "Data"
  top: "data"
  top: "label"
  include {
    phase: TRAIN
  }
  transform_param {
    mean_file: "examples/cifar10/mean.binaryproto"
  }
  data_param {
    source: "examples/cifar10/cifar10_train_lmdb"
    batch_size: 111
    backend: LMDB
  }
}
layer {
  name: "conv0"
  type: "Convolution"
  bottom: "data"
  top: "conv0"
  param {
    lr_mult: 1
  }
  param {
    lr_mult: 2
  }
  convolution_param {
    num_output: 8
    pad: 2
    kernel_size: 5
    stride: 1
    weight_filler {
      type: "gaussian"
      std: 0.01
    }
    bias_filler {
      type: "constant"
    }
  }
}
layer {
  name: "Sigmoid0"
  type: "Sigmoid"
  bottom: "conv0"
  top: "Sigmoid0"
}
layer {
  name: "pool0"
  type: "Pooling"
  bottom: "Sigmoid0"
  top: "pool0"
  pooling_param {
    pool: AVE
    kernel_size: 3
    stride: 2
  }
}
layer {
  name: "ip1"
  type: "InnerProduct"
  bottom: "pool0"
  top: "ip1"
  param {
    lr_mult: 1
  }
  param {
    lr_mult: 2
  }
  inner_product_param {
    num_output: 160
    weight_filler {
      type: "gaussian"
      std: 0.01
    }
    bias_filler {
      type: "constant"
    }
  }
}
layer {
  name: "relu1"
  type: "ReLU"
  bottom: "ip1"
  top: "ip1"
}
layer {
  name: "ip2"
  type: "InnerProduct"
  bottom: "ip1"
  top: "ip2"
  param {
    lr_mult: 1
  }
  param {
    lr_mult: 2
  }
  inner_product_param {
    num_output: 40
    weight_filler {
      type: "gaussian"
      std: 0.01
    }
    bias_filler {
      type: "constant"
    }
  }
}
layer {
  name: "relu2"
  type: "ReLU"
  bottom: "ip2"
  top: "ip2"
}
layer {
  name: "ip3"
  type: "InnerProduct"
  bottom: "ip2"
  top: "ip3"
  param {
    lr_mult: 1
  }
  param {
    lr_mult: 2
  }
  inner_product_param {
    num_output: 10
    weight_filler {
      type: "gaussian"
      std: 0.01
    }
    bias_filler {
      type: "constant"
    }
  }
}
layer {
  name: "loss"
  type: "SoftmaxWithLoss"
  bottom: "ip3"
  bottom: "label"
  top: "loss"
}
I0501 02:55:40.058589 18079 layer_factory.hpp:77] Creating layer cifar
I0501 02:55:40.058681 18079 db_lmdb.cpp:35] Opened lmdb examples/cifar10/cifar10_train_lmdb
I0501 02:55:40.058706 18079 net.cpp:86] Creating Layer cifar
I0501 02:55:40.058713 18079 net.cpp:382] cifar -> data
I0501 02:55:40.058735 18079 net.cpp:382] cifar -> label
I0501 02:55:40.058749 18079 data_transformer.cpp:25] Loading mean file from: examples/cifar10/mean.binaryproto
I0501 02:55:40.060755 18079 data_layer.cpp:45] output data size: 111,3,32,32
I0501 02:55:40.068248 18079 net.cpp:124] Setting up cifar
I0501 02:55:40.068265 18079 net.cpp:131] Top shape: 111 3 32 32 (340992)
I0501 02:55:40.068271 18079 net.cpp:131] Top shape: 111 (111)
I0501 02:55:40.068275 18079 net.cpp:139] Memory required for data: 1364412
I0501 02:55:40.068300 18079 layer_factory.hpp:77] Creating layer conv0
I0501 02:55:40.068315 18079 net.cpp:86] Creating Layer conv0
I0501 02:55:40.068321 18079 net.cpp:408] conv0 <- data
I0501 02:55:40.068331 18079 net.cpp:382] conv0 -> conv0
I0501 02:55:40.307451 18079 net.cpp:124] Setting up conv0
I0501 02:55:40.307528 18079 net.cpp:131] Top shape: 111 8 32 32 (909312)
I0501 02:55:40.307533 18079 net.cpp:139] Memory required for data: 5001660
I0501 02:55:40.307546 18079 layer_factory.hpp:77] Creating layer Sigmoid0
I0501 02:55:40.307559 18079 net.cpp:86] Creating Layer Sigmoid0
I0501 02:55:40.307562 18079 net.cpp:408] Sigmoid0 <- conv0
I0501 02:55:40.307567 18079 net.cpp:382] Sigmoid0 -> Sigmoid0
I0501 02:55:40.307730 18079 net.cpp:124] Setting up Sigmoid0
I0501 02:55:40.307739 18079 net.cpp:131] Top shape: 111 8 32 32 (909312)
I0501 02:55:40.307741 18079 net.cpp:139] Memory required for data: 8638908
I0501 02:55:40.307744 18079 layer_factory.hpp:77] Creating layer pool0
I0501 02:55:40.307751 18079 net.cpp:86] Creating Layer pool0
I0501 02:55:40.307754 18079 net.cpp:408] pool0 <- Sigmoid0
I0501 02:55:40.307759 18079 net.cpp:382] pool0 -> pool0
I0501 02:55:40.308526 18079 net.cpp:124] Setting up pool0
I0501 02:55:40.308548 18079 net.cpp:131] Top shape: 111 8 16 16 (227328)
I0501 02:55:40.308552 18079 net.cpp:139] Memory required for data: 9548220
I0501 02:55:40.308555 18079 layer_factory.hpp:77] Creating layer ip1
I0501 02:55:40.308565 18079 net.cpp:86] Creating Layer ip1
I0501 02:55:40.308568 18079 net.cpp:408] ip1 <- pool0
I0501 02:55:40.308573 18079 net.cpp:382] ip1 -> ip1
I0501 02:55:40.317976 18079 net.cpp:124] Setting up ip1
I0501 02:55:40.318003 18079 net.cpp:131] Top shape: 111 160 (17760)
I0501 02:55:40.318006 18079 net.cpp:139] Memory required for data: 9619260
I0501 02:55:40.318014 18079 layer_factory.hpp:77] Creating layer relu1
I0501 02:55:40.318020 18079 net.cpp:86] Creating Layer relu1
I0501 02:55:40.318023 18079 net.cpp:408] relu1 <- ip1
I0501 02:55:40.318027 18079 net.cpp:369] relu1 -> ip1 (in-place)
I0501 02:55:40.318172 18079 net.cpp:124] Setting up relu1
I0501 02:55:40.318181 18079 net.cpp:131] Top shape: 111 160 (17760)
I0501 02:55:40.318184 18079 net.cpp:139] Memory required for data: 9690300
I0501 02:55:40.318187 18079 layer_factory.hpp:77] Creating layer ip2
I0501 02:55:40.318193 18079 net.cpp:86] Creating Layer ip2
I0501 02:55:40.318197 18079 net.cpp:408] ip2 <- ip1
I0501 02:55:40.318202 18079 net.cpp:382] ip2 -> ip2
I0501 02:55:40.319294 18079 net.cpp:124] Setting up ip2
I0501 02:55:40.319306 18079 net.cpp:131] Top shape: 111 40 (4440)
I0501 02:55:40.319324 18079 net.cpp:139] Memory required for data: 9708060
I0501 02:55:40.319332 18079 layer_factory.hpp:77] Creating layer relu2
I0501 02:55:40.319339 18079 net.cpp:86] Creating Layer relu2
I0501 02:55:40.319341 18079 net.cpp:408] relu2 <- ip2
I0501 02:55:40.319345 18079 net.cpp:369] relu2 -> ip2 (in-place)
I0501 02:55:40.319496 18079 net.cpp:124] Setting up relu2
I0501 02:55:40.319504 18079 net.cpp:131] Top shape: 111 40 (4440)
I0501 02:55:40.319509 18079 net.cpp:139] Memory required for data: 9725820
I0501 02:55:40.319511 18079 layer_factory.hpp:77] Creating layer ip3
I0501 02:55:40.319519 18079 net.cpp:86] Creating Layer ip3
I0501 02:55:40.319521 18079 net.cpp:408] ip3 <- ip2
I0501 02:55:40.319526 18079 net.cpp:382] ip3 -> ip3
I0501 02:55:40.319619 18079 net.cpp:124] Setting up ip3
I0501 02:55:40.319625 18079 net.cpp:131] Top shape: 111 10 (1110)
I0501 02:55:40.319628 18079 net.cpp:139] Memory required for data: 9730260
I0501 02:55:40.319633 18079 layer_factory.hpp:77] Creating layer loss
I0501 02:55:40.319638 18079 net.cpp:86] Creating Layer loss
I0501 02:55:40.319641 18079 net.cpp:408] loss <- ip3
I0501 02:55:40.319644 18079 net.cpp:408] loss <- label
I0501 02:55:40.319649 18079 net.cpp:382] loss -> loss
I0501 02:55:40.319666 18079 layer_factory.hpp:77] Creating layer loss
…
I0501 02:55:40.320219 18079 solver.cpp:173] Creating test net (#0) specified by net file: ECE595/cifar/train_test/var_everything/cifar_train_test_337.prototxt
I0501 02:55:40.320245 18079 net.cpp:296] The NetState phase (1) differed from the phase (0) specified by a rule in layer cifar
I0501 02:55:40.320323 18079 net.cpp:53] Initializing net from parameters: 
name: "CIFAR"
state {
  phase: TEST
}
layer {
  name: "cifar"
  type: "Data"
  top: "data"
  top: "label"
  include {
    phase: TEST
  }
  transform_param {
    mean_file: "examples/cifar10/mean.binaryproto"
  }
  data_param {
    source: "examples/cifar10/cifar10_test_lmdb"
    batch_size: 1000
    backend: LMDB
  }
}
layer {
  name: "conv0"
  type: "Convolution"
  bottom: "data"
  top: "conv0"
  param {
    lr_mult: 1
  }
  param {
    lr_mult: 2
  }
  convolution_param {
    num_output: 8
    pad: 2
    kernel_size: 5
    stride: 1
    weight_filler {
      type: "gaussian"
      std: 0.01
    }
    bias_filler {
      type: "constant"
    }
  }
}
layer {
  name: "Sigmoid0"
  type: "Sigmoid"
  bottom: "conv0"
  top: "Sigmoid0"
}
layer {
  name: "pool0"
  type: "Pooling"
  bottom: "Sigmoid0"
  top: "pool0"
  pooling_param {
    pool: AVE
    kernel_size: 3
    stride: 2
  }
}
layer {
  name: "ip1"
  type: "InnerProduct"
  bottom: "pool0"
  top: "ip1"
  param {
    lr_mult: 1
  }
  param {
    lr_mult: 2
  }
  inner_product_param {
    num_output: 160
    weight_filler {
      type: "gaussian"
      std: 0.01
    }
    bias_filler {
      type: "constant"
    }
  }
}
layer {
  name: "relu1"
  type: "ReLU"
  bottom: "ip1"
  top: "ip1"
}
layer {
  name: "ip2"
  type: "InnerProduct"
  bottom: "ip1"
  top: "ip2"
  param {
    lr_mult: 1
  }
  param {
    lr_mult: 2
  }
  inner_product_param {
    num_output: 40
    weight_filler {
      type: "gaussian"
      std: 0.01
    }
    bias_filler {
      type: "constant"
    }
  }
}
layer {
  name: "relu2"
  type: "ReLU"
  bottom: "ip2"
  top: "ip2"
}
layer {
  name: "ip3"
  type: "InnerProduct"
  bottom: "ip2"
  top: "ip3"
  param {
    lr_mult: 1
  }
  param {
    lr_mult: 2
  }
  inner_product_param {
    num_output: 10
    weight_filler {
      type: "gaussian"
      std: 0.01
    }
    bias_filler {
      type: "constant"
    }
  }
}
layer {
  name: "accuracy"
  type: "Accuracy"
  bottom: "ip3"
  bottom: "label"
  top: "accuracy"
  include {
    phase: TEST
  }
}
layer {
  name: "loss"
  type: "SoftmaxWithLoss"
  bottom: "ip3"
  bottom: "label"
  top: "loss"
}
I0501 02:55:40.320381 18079 layer_factory.hpp:77] Creating layer cifar
I0501 02:55:40.320426 18079 db_lmdb.cpp:35] Opened lmdb examples/cifar10/cifar10_test_lmdb
I0501 02:55:40.320438 18079 net.cpp:86] Creating Layer cifar
I0501 02:55:40.320443 18079 net.cpp:382] cifar -> data
I0501 02:55:40.320451 18079 net.cpp:382] cifar -> label
I0501 02:55:40.320456 18079 data_transformer.cpp:25] Loading mean file from: examples/cifar10/mean.binaryproto
I0501 02:55:40.320585 18079 data_layer.cpp:45] output data size: 1000,3,32,32
I0501 02:55:40.342654 18079 net.cpp:124] Setting up cifar
I0501 02:55:40.342703 18079 net.cpp:131] Top shape: 1000 3 32 32 (3072000)
I0501 02:55:40.342710 18079 net.cpp:131] Top shape: 1000 (1000)
I0501 02:55:40.342713 18079 net.cpp:139] Memory required for data: 12292000
I0501 02:55:40.342718 18079 layer_factory.hpp:77] Creating layer label_cifar_1_split
I0501 02:55:40.342731 18079 net.cpp:86] Creating Layer label_cifar_1_split
I0501 02:55:40.342752 18079 net.cpp:408] label_cifar_1_split <- label
I0501 02:55:40.342774 18079 net.cpp:382] label_cifar_1_split -> label_cifar_1_split_0
I0501 02:55:40.342783 18079 net.cpp:382] label_cifar_1_split -> label_cifar_1_split_1
I0501 02:55:40.342846 18079 net.cpp:124] Setting up label_cifar_1_split
I0501 02:55:40.342854 18079 net.cpp:131] Top shape: 1000 (1000)
I0501 02:55:40.342857 18079 net.cpp:131] Top shape: 1000 (1000)
I0501 02:55:40.342860 18079 net.cpp:139] Memory required for data: 12300000
I0501 02:55:40.342864 18079 layer_factory.hpp:77] Creating layer conv0
I0501 02:55:40.342876 18079 net.cpp:86] Creating Layer conv0
I0501 02:55:40.342880 18079 net.cpp:408] conv0 <- data
I0501 02:55:40.342885 18079 net.cpp:382] conv0 -> conv0
I0501 02:55:40.344337 18079 net.cpp:124] Setting up conv0
I0501 02:55:40.344350 18079 net.cpp:131] Top shape: 1000 8 32 32 (8192000)
I0501 02:55:40.344369 18079 net.cpp:139] Memory required for data: 45068000
I0501 02:55:40.344379 18079 layer_factory.hpp:77] Creating layer Sigmoid0
I0501 02:55:40.344388 18079 net.cpp:86] Creating Layer Sigmoid0
I0501 02:55:40.344390 18079 net.cpp:408] Sigmoid0 <- conv0
I0501 02:55:40.344395 18079 net.cpp:382] Sigmoid0 -> Sigmoid0
I0501 02:55:40.345278 18079 net.cpp:124] Setting up Sigmoid0
I0501 02:55:40.345291 18079 net.cpp:131] Top shape: 1000 8 32 32 (8192000)
I0501 02:55:40.345309 18079 net.cpp:139] Memory required for data: 77836000
I0501 02:55:40.345314 18079 layer_factory.hpp:77] Creating layer pool0
I0501 02:55:40.345321 18079 net.cpp:86] Creating Layer pool0
I0501 02:55:40.345325 18079 net.cpp:408] pool0 <- Sigmoid0
I0501 02:55:40.345330 18079 net.cpp:382] pool0 -> pool0
I0501 02:55:40.346511 18079 net.cpp:124] Setting up pool0
I0501 02:55:40.346521 18079 net.cpp:131] Top shape: 1000 8 16 16 (2048000)
I0501 02:55:40.346539 18079 net.cpp:139] Memory required for data: 86028000
I0501 02:55:40.346544 18079 layer_factory.hpp:77] Creating layer ip1
I0501 02:55:40.346551 18079 net.cpp:86] Creating Layer ip1
I0501 02:55:40.346554 18079 net.cpp:408] ip1 <- pool0
I0501 02:55:40.346560 18079 net.cpp:382] ip1 -> ip1
I0501 02:55:40.356230 18079 net.cpp:124] Setting up ip1
I0501 02:55:40.356241 18079 net.cpp:131] Top shape: 1000 160 (160000)
I0501 02:55:40.356261 18079 net.cpp:139] Memory required for data: 86668000
I0501 02:55:40.356271 18079 layer_factory.hpp:77] Creating layer relu1
I0501 02:55:40.356276 18079 net.cpp:86] Creating Layer relu1
I0501 02:55:40.356281 18079 net.cpp:408] relu1 <- ip1
I0501 02:55:40.356284 18079 net.cpp:369] relu1 -> ip1 (in-place)
I0501 02:55:40.356446 18079 net.cpp:124] Setting up relu1
I0501 02:55:40.356456 18079 net.cpp:131] Top shape: 1000 160 (160000)
I0501 02:55:40.356458 18079 net.cpp:139] Memory required for data: 87308000
I0501 02:55:40.356462 18079 layer_factory.hpp:77] Creating layer ip2
I0501 02:55:40.356469 18079 net.cpp:86] Creating Layer ip2
I0501 02:55:40.356487 18079 net.cpp:408] ip2 <- ip1
I0501 02:55:40.356492 18079 net.cpp:382] ip2 -> ip2
I0501 02:55:40.356763 18079 net.cpp:124] Setting up ip2
I0501 02:55:40.356771 18079 net.cpp:131] Top shape: 1000 40 (40000)
I0501 02:55:40.356775 18079 net.cpp:139] Memory required for data: 87468000
I0501 02:55:40.356783 18079 layer_factory.hpp:77] Creating layer relu2
I0501 02:55:40.356789 18079 net.cpp:86] Creating Layer relu2
I0501 02:55:40.356792 18079 net.cpp:408] relu2 <- ip2
I0501 02:55:40.356807 18079 net.cpp:369] relu2 -> ip2 (in-place)
I0501 02:55:40.356995 18079 net.cpp:124] Setting up relu2
I0501 02:55:40.357004 18079 net.cpp:131] Top shape: 1000 40 (40000)
I0501 02:55:40.357007 18079 net.cpp:139] Memory required for data: 87628000
I0501 02:55:40.357010 18079 layer_factory.hpp:77] Creating layer ip3
I0501 02:55:40.357017 18079 net.cpp:86] Creating Layer ip3
I0501 02:55:40.357020 18079 net.cpp:408] ip3 <- ip2
I0501 02:55:40.357025 18079 net.cpp:382] ip3 -> ip3
I0501 02:55:40.357136 18079 net.cpp:124] Setting up ip3
I0501 02:55:40.357157 18079 net.cpp:131] Top shape: 1000 10 (10000)
I0501 02:55:40.357161 18079 net.cpp:139] Memory required for data: 87668000
I0501 02:55:40.357177 18079 layer_factory.hpp:77] Creating layer ip3_ip3_0_split
I0501 02:55:40.357183 18079 net.cpp:86] Creating Layer ip3_ip3_0_split
I0501 02:55:40.357187 18079 net.cpp:408] ip3_ip3_0_split <- ip3
I0501 02:55:40.357190 18079 net.cpp:382] ip3_ip3_0_split -> ip3_ip3_0_split_0
I0501 02:55:40.357197 18079 net.cpp:382] ip3_ip3_0_split -> ip3_ip3_0_split_1
I0501 02:55:40.357226 18079 net.cpp:124] Setting up ip3_ip3_0_split
I0501 02:55:40.357245 18079 net.cpp:131] Top shape: 1000 10 (10000)
I0501 02:55:40.357249 18079 net.cpp:131] Top shape: 1000 10 (10000)
I0501 02:55:40.357266 18079 net.cpp:139] Memory required for data: 87748000
I0501 02:55:40.357270 18079 layer_factory.hpp:77] Creating layer accuracy
I0501 02:55:40.357280 18079 net.cpp:86] Creating Layer accuracy
I0501 02:55:40.357283 18079 net.cpp:408] accuracy <- ip3_ip3_0_split_0
I0501 02:55:40.357287 18079 net.cpp:408] accuracy <- label_cifar_1_split_0
I0501 02:55:40.357291 18079 net.cpp:382] accuracy -> accuracy
…
