…
I0430 18:12:55.542058 22551 net.cpp:296] The NetState phase (0) differed from the phase (1) specified by a rule in layer cifar
I0430 18:12:55.542078 22551 net.cpp:296] The NetState phase (0) differed from the phase (1) specified by a rule in layer accuracy
I0430 18:12:55.542161 22551 net.cpp:53] Initializing net from parameters: 
name: "CIFAR"
state {
  phase: TRAIN
  level: 0
  stage: ""
}
layer {
  name: "cifar"
  type: "Data"
  top: "data"
  top: "label"
  include {
    phase: TRAIN
  }
  transform_param {
    mean_file: "examples/cifar10/mean.binaryproto"
  }
  data_param {
    source: "examples/cifar10/cifar10_train_lmdb"
    batch_size: 111
    backend: LMDB
  }
}
layer {
  name: "ip1"
  type: "InnerProduct"
  bottom: "data"
  top: "ip1"
  param {
    lr_mult: 1
  }
  param {
    lr_mult: 2
  }
  inner_product_param {
    num_output: 20
    weight_filler {
      type: "gaussian"
      std: 0.01
    }
    bias_filler {
      type: "constant"
    }
  }
}
layer {
  name: "relu1"
  type: "ReLU"
  bottom: "ip1"
  top: "ip1"
}
layer {
  name: "ip2"
  type: "InnerProduct"
  bottom: "ip1"
  top: "ip2"
  param {
    lr_mult: 1
  }
  param {
    lr_mult: 2
  }
  inner_product_param {
    num_output: 10
    weight_filler {
      type: "gaussian"
      std: 0.01
    }
    bias_filler {
      type: "constant"
    }
  }
}
layer {
  name: "relu2"
  type: "ReLU"
  bottom: "ip2"
  top: "ip2"
}
layer {
  name: "ip3"
  type: "InnerProduct"
  bottom: "ip2"
  top: "ip3"
  param {
    lr_mult: 1
  }
  param {
    lr_mult: 2
  }
  inner_product_param {
    num_output: 160
    weight_filler {
      type: "gaussian"
      std: 0.01
    }
    bias_filler {
      type: "constant"
    }
  }
}
layer {
  name: "relu3"
  type: "ReLU"
  bottom: "ip3"
  top: "ip3"
}
layer {
  name: "ip4"
  type: "InnerProduct"
  bottom: "ip3"
  top: "ip4"
  param {
    lr_mult: 1
  }
  param {
    lr_mult: 2
  }
  inner_product_param {
    num_output: 10
    weight_filler {
      type: "gaussian"
      std: 0.01
    }
    bias_filler {
      type: "constant"
    }
  }
}
layer {
  name: "loss"
  type: "SoftmaxWithLoss"
  bottom: "ip4"
  bottom: "label"
  top: "loss"
}
I0430 18:12:55.542233 22551 layer_factory.hpp:77] Creating layer cifar
I0430 18:12:55.542336 22551 db_lmdb.cpp:35] Opened lmdb examples/cifar10/cifar10_train_lmdb
I0430 18:12:55.542372 22551 net.cpp:86] Creating Layer cifar
I0430 18:12:55.542382 22551 net.cpp:382] cifar -> data
I0430 18:12:55.542404 22551 net.cpp:382] cifar -> label
I0430 18:12:55.542420 22551 data_transformer.cpp:25] Loading mean file from: examples/cifar10/mean.binaryproto
I0430 18:12:55.544551 22551 data_layer.cpp:45] output data size: 111,3,32,32
I0430 18:12:55.552655 22551 net.cpp:124] Setting up cifar
I0430 18:12:55.552675 22551 net.cpp:131] Top shape: 111 3 32 32 (340992)
I0430 18:12:55.552680 22551 net.cpp:131] Top shape: 111 (111)
I0430 18:12:55.552683 22551 net.cpp:139] Memory required for data: 1364412
I0430 18:12:55.552691 22551 layer_factory.hpp:77] Creating layer ip1
I0430 18:12:55.552728 22551 net.cpp:86] Creating Layer ip1
I0430 18:12:55.552734 22551 net.cpp:408] ip1 <- data
I0430 18:12:55.552747 22551 net.cpp:382] ip1 -> ip1
I0430 18:12:55.555938 22551 net.cpp:124] Setting up ip1
I0430 18:12:55.555953 22551 net.cpp:131] Top shape: 111 20 (2220)
I0430 18:12:55.555958 22551 net.cpp:139] Memory required for data: 1373292
I0430 18:12:55.555974 22551 layer_factory.hpp:77] Creating layer relu1
I0430 18:12:55.555984 22551 net.cpp:86] Creating Layer relu1
I0430 18:12:55.556005 22551 net.cpp:408] relu1 <- ip1
I0430 18:12:55.556011 22551 net.cpp:369] relu1 -> ip1 (in-place)
I0430 18:12:55.813673 22551 net.cpp:124] Setting up relu1
I0430 18:12:55.813714 22551 net.cpp:131] Top shape: 111 20 (2220)
I0430 18:12:55.813719 22551 net.cpp:139] Memory required for data: 1382172
I0430 18:12:55.813724 22551 layer_factory.hpp:77] Creating layer ip2
I0430 18:12:55.813740 22551 net.cpp:86] Creating Layer ip2
I0430 18:12:55.813743 22551 net.cpp:408] ip2 <- ip1
I0430 18:12:55.813751 22551 net.cpp:382] ip2 -> ip2
I0430 18:12:55.813889 22551 net.cpp:124] Setting up ip2
I0430 18:12:55.813899 22551 net.cpp:131] Top shape: 111 10 (1110)
I0430 18:12:55.813901 22551 net.cpp:139] Memory required for data: 1386612
I0430 18:12:55.813911 22551 layer_factory.hpp:77] Creating layer relu2
I0430 18:12:55.813918 22551 net.cpp:86] Creating Layer relu2
I0430 18:12:55.813922 22551 net.cpp:408] relu2 <- ip2
I0430 18:12:55.813926 22551 net.cpp:369] relu2 -> ip2 (in-place)
I0430 18:12:55.814779 22551 net.cpp:124] Setting up relu2
I0430 18:12:55.814805 22551 net.cpp:131] Top shape: 111 10 (1110)
I0430 18:12:55.814810 22551 net.cpp:139] Memory required for data: 1391052
I0430 18:12:55.814812 22551 layer_factory.hpp:77] Creating layer ip3
I0430 18:12:55.814820 22551 net.cpp:86] Creating Layer ip3
I0430 18:12:55.814824 22551 net.cpp:408] ip3 <- ip2
I0430 18:12:55.814829 22551 net.cpp:382] ip3 -> ip3
I0430 18:12:55.814985 22551 net.cpp:124] Setting up ip3
I0430 18:12:55.814992 22551 net.cpp:131] Top shape: 111 160 (17760)
I0430 18:12:55.814996 22551 net.cpp:139] Memory required for data: 1462092
I0430 18:12:55.815004 22551 layer_factory.hpp:77] Creating layer relu3
I0430 18:12:55.815009 22551 net.cpp:86] Creating Layer relu3
I0430 18:12:55.815012 22551 net.cpp:408] relu3 <- ip3
I0430 18:12:55.815016 22551 net.cpp:369] relu3 -> ip3 (in-place)
I0430 18:12:55.815165 22551 net.cpp:124] Setting up relu3
I0430 18:12:55.815171 22551 net.cpp:131] Top shape: 111 160 (17760)
I0430 18:12:55.815174 22551 net.cpp:139] Memory required for data: 1533132
I0430 18:12:55.815178 22551 layer_factory.hpp:77] Creating layer ip4
I0430 18:12:55.815183 22551 net.cpp:86] Creating Layer ip4
I0430 18:12:55.815187 22551 net.cpp:408] ip4 <- ip3
I0430 18:12:55.815191 22551 net.cpp:382] ip4 -> ip4
I0430 18:12:55.815330 22551 net.cpp:124] Setting up ip4
I0430 18:12:55.815337 22551 net.cpp:131] Top shape: 111 10 (1110)
I0430 18:12:55.815340 22551 net.cpp:139] Memory required for data: 1537572
I0430 18:12:55.815346 22551 layer_factory.hpp:77] Creating layer loss
I0430 18:12:55.815352 22551 net.cpp:86] Creating Layer loss
I0430 18:12:55.815356 22551 net.cpp:408] loss <- ip4
I0430 18:12:55.815361 22551 net.cpp:408] loss <- label
I0430 18:12:55.815366 22551 net.cpp:382] loss -> loss
I0430 18:12:55.815384 22551 layer_factory.hpp:77] Creating layer loss
…
I0430 18:12:55.815960 22551 solver.cpp:173] Creating test net (#0) specified by net file: ECE595/cifar/train_test/var_everything/cifar_train_test_59.prototxt
I0430 18:12:55.816000 22551 net.cpp:296] The NetState phase (1) differed from the phase (0) specified by a rule in layer cifar
I0430 18:12:55.816081 22551 net.cpp:53] Initializing net from parameters: 
name: "CIFAR"
state {
  phase: TEST
}
layer {
  name: "cifar"
  type: "Data"
  top: "data"
  top: "label"
  include {
    phase: TEST
  }
  transform_param {
    mean_file: "examples/cifar10/mean.binaryproto"
  }
  data_param {
    source: "examples/cifar10/cifar10_test_lmdb"
    batch_size: 1000
    backend: LMDB
  }
}
layer {
  name: "ip1"
  type: "InnerProduct"
  bottom: "data"
  top: "ip1"
  param {
    lr_mult: 1
  }
  param {
    lr_mult: 2
  }
  inner_product_param {
    num_output: 20
    weight_filler {
      type: "gaussian"
      std: 0.01
    }
    bias_filler {
      type: "constant"
    }
  }
}
layer {
  name: "relu1"
  type: "ReLU"
  bottom: "ip1"
  top: "ip1"
}
layer {
  name: "ip2"
  type: "InnerProduct"
  bottom: "ip1"
  top: "ip2"
  param {
    lr_mult: 1
  }
  param {
    lr_mult: 2
  }
  inner_product_param {
    num_output: 10
    weight_filler {
      type: "gaussian"
      std: 0.01
    }
    bias_filler {
      type: "constant"
    }
  }
}
layer {
  name: "relu2"
  type: "ReLU"
  bottom: "ip2"
  top: "ip2"
}
layer {
  name: "ip3"
  type: "InnerProduct"
  bottom: "ip2"
  top: "ip3"
  param {
    lr_mult: 1
  }
  param {
    lr_mult: 2
  }
  inner_product_param {
    num_output: 160
    weight_filler {
      type: "gaussian"
      std: 0.01
    }
    bias_filler {
      type: "constant"
    }
  }
}
layer {
  name: "relu3"
  type: "ReLU"
  bottom: "ip3"
  top: "ip3"
}
layer {
  name: "ip4"
  type: "InnerProduct"
  bottom: "ip3"
  top: "ip4"
  param {
    lr_mult: 1
  }
  param {
    lr_mult: 2
  }
  inner_product_param {
    num_output: 10
    weight_filler {
      type: "gaussian"
      std: 0.01
    }
    bias_filler {
      type: "constant"
    }
  }
}
layer {
  name: "accuracy"
  type: "Accuracy"
  bottom: "ip4"
  bottom: "label"
  top: "accuracy"
  include {
    phase: TEST
  }
}
layer {
  name: "loss"
  type: "SoftmaxWithLoss"
  bottom: "ip4"
  bottom: "label"
  top: "loss"
}
I0430 18:12:55.816141 22551 layer_factory.hpp:77] Creating layer cifar
I0430 18:12:55.816192 22551 db_lmdb.cpp:35] Opened lmdb examples/cifar10/cifar10_test_lmdb
I0430 18:12:55.816205 22551 net.cpp:86] Creating Layer cifar
I0430 18:12:55.816210 22551 net.cpp:382] cifar -> data
I0430 18:12:55.816217 22551 net.cpp:382] cifar -> label
I0430 18:12:55.816224 22551 data_transformer.cpp:25] Loading mean file from: examples/cifar10/mean.binaryproto
I0430 18:12:55.816368 22551 data_layer.cpp:45] output data size: 1000,3,32,32
I0430 18:12:55.839813 22551 net.cpp:124] Setting up cifar
I0430 18:12:55.839855 22551 net.cpp:131] Top shape: 1000 3 32 32 (3072000)
I0430 18:12:55.839861 22551 net.cpp:131] Top shape: 1000 (1000)
I0430 18:12:55.839864 22551 net.cpp:139] Memory required for data: 12292000
I0430 18:12:55.839871 22551 layer_factory.hpp:77] Creating layer label_cifar_1_split
I0430 18:12:55.839891 22551 net.cpp:86] Creating Layer label_cifar_1_split
I0430 18:12:55.839895 22551 net.cpp:408] label_cifar_1_split <- label
I0430 18:12:55.839901 22551 net.cpp:382] label_cifar_1_split -> label_cifar_1_split_0
I0430 18:12:55.839911 22551 net.cpp:382] label_cifar_1_split -> label_cifar_1_split_1
I0430 18:12:55.840001 22551 net.cpp:124] Setting up label_cifar_1_split
I0430 18:12:55.840008 22551 net.cpp:131] Top shape: 1000 (1000)
I0430 18:12:55.840013 22551 net.cpp:131] Top shape: 1000 (1000)
I0430 18:12:55.840015 22551 net.cpp:139] Memory required for data: 12300000
I0430 18:12:55.840018 22551 layer_factory.hpp:77] Creating layer ip1
I0430 18:12:55.840029 22551 net.cpp:86] Creating Layer ip1
I0430 18:12:55.840034 22551 net.cpp:408] ip1 <- data
I0430 18:12:55.840039 22551 net.cpp:382] ip1 -> ip1
I0430 18:12:55.842690 22551 net.cpp:124] Setting up ip1
I0430 18:12:55.842701 22551 net.cpp:131] Top shape: 1000 20 (20000)
I0430 18:12:55.842703 22551 net.cpp:139] Memory required for data: 12380000
I0430 18:12:55.842742 22551 layer_factory.hpp:77] Creating layer relu1
I0430 18:12:55.842749 22551 net.cpp:86] Creating Layer relu1
I0430 18:12:55.842753 22551 net.cpp:408] relu1 <- ip1
I0430 18:12:55.842758 22551 net.cpp:369] relu1 -> ip1 (in-place)
I0430 18:12:55.843513 22551 net.cpp:124] Setting up relu1
I0430 18:12:55.843525 22551 net.cpp:131] Top shape: 1000 20 (20000)
I0430 18:12:55.843528 22551 net.cpp:139] Memory required for data: 12460000
I0430 18:12:55.843531 22551 layer_factory.hpp:77] Creating layer ip2
I0430 18:12:55.843555 22551 net.cpp:86] Creating Layer ip2
I0430 18:12:55.843559 22551 net.cpp:408] ip2 <- ip1
I0430 18:12:55.843564 22551 net.cpp:382] ip2 -> ip2
I0430 18:12:55.843675 22551 net.cpp:124] Setting up ip2
I0430 18:12:55.843683 22551 net.cpp:131] Top shape: 1000 10 (10000)
I0430 18:12:55.843686 22551 net.cpp:139] Memory required for data: 12500000
I0430 18:12:55.843693 22551 layer_factory.hpp:77] Creating layer relu2
I0430 18:12:55.843699 22551 net.cpp:86] Creating Layer relu2
I0430 18:12:55.843701 22551 net.cpp:408] relu2 <- ip2
I0430 18:12:55.843705 22551 net.cpp:369] relu2 -> ip2 (in-place)
I0430 18:12:55.843863 22551 net.cpp:124] Setting up relu2
I0430 18:12:55.843870 22551 net.cpp:131] Top shape: 1000 10 (10000)
I0430 18:12:55.843873 22551 net.cpp:139] Memory required for data: 12540000
I0430 18:12:55.843876 22551 layer_factory.hpp:77] Creating layer ip3
I0430 18:12:55.843883 22551 net.cpp:86] Creating Layer ip3
I0430 18:12:55.843886 22551 net.cpp:408] ip3 <- ip2
I0430 18:12:55.843891 22551 net.cpp:382] ip3 -> ip3
I0430 18:12:55.844030 22551 net.cpp:124] Setting up ip3
I0430 18:12:55.844038 22551 net.cpp:131] Top shape: 1000 160 (160000)
I0430 18:12:55.844040 22551 net.cpp:139] Memory required for data: 13180000
I0430 18:12:55.844048 22551 layer_factory.hpp:77] Creating layer relu3
I0430 18:12:55.844053 22551 net.cpp:86] Creating Layer relu3
I0430 18:12:55.844056 22551 net.cpp:408] relu3 <- ip3
I0430 18:12:55.844060 22551 net.cpp:369] relu3 -> ip3 (in-place)
I0430 18:12:55.844208 22551 net.cpp:124] Setting up relu3
I0430 18:12:55.844218 22551 net.cpp:131] Top shape: 1000 160 (160000)
I0430 18:12:55.844220 22551 net.cpp:139] Memory required for data: 13820000
I0430 18:12:55.844223 22551 layer_factory.hpp:77] Creating layer ip4
I0430 18:12:55.844229 22551 net.cpp:86] Creating Layer ip4
I0430 18:12:55.844233 22551 net.cpp:408] ip4 <- ip3
I0430 18:12:55.844238 22551 net.cpp:382] ip4 -> ip4
I0430 18:12:55.844375 22551 net.cpp:124] Setting up ip4
I0430 18:12:55.844383 22551 net.cpp:131] Top shape: 1000 10 (10000)
I0430 18:12:55.844385 22551 net.cpp:139] Memory required for data: 13860000
I0430 18:12:55.844391 22551 layer_factory.hpp:77] Creating layer ip4_ip4_0_split
I0430 18:12:55.844398 22551 net.cpp:86] Creating Layer ip4_ip4_0_split
I0430 18:12:55.844400 22551 net.cpp:408] ip4_ip4_0_split <- ip4
I0430 18:12:55.844404 22551 net.cpp:382] ip4_ip4_0_split -> ip4_ip4_0_split_0
I0430 18:12:55.844410 22551 net.cpp:382] ip4_ip4_0_split -> ip4_ip4_0_split_1
I0430 18:12:55.844441 22551 net.cpp:124] Setting up ip4_ip4_0_split
I0430 18:12:55.844450 22551 net.cpp:131] Top shape: 1000 10 (10000)
I0430 18:12:55.844455 22551 net.cpp:131] Top shape: 1000 10 (10000)
I0430 18:12:55.844456 22551 net.cpp:139] Memory required for data: 13940000
I0430 18:12:55.844460 22551 layer_factory.hpp:77] Creating layer accuracy
I0430 18:12:55.844470 22551 net.cpp:86] Creating Layer accuracy
I0430 18:12:55.844472 22551 net.cpp:408] accuracy <- ip4_ip4_0_split_0
I0430 18:12:55.844476 22551 net.cpp:408] accuracy <- label_cifar_1_split_0
I0430 18:12:55.844480 22551 net.cpp:382] accuracy -> accuracy
…
