…
I0430 19:39:12.512995 26485 net.cpp:296] The NetState phase (0) differed from the phase (1) specified by a rule in layer cifar
I0430 19:39:12.513010 26485 net.cpp:296] The NetState phase (0) differed from the phase (1) specified by a rule in layer accuracy
I0430 19:39:12.513093 26485 net.cpp:53] Initializing net from parameters: 
name: "CIFAR"
state {
  phase: TRAIN
  level: 0
  stage: ""
}
layer {
  name: "cifar"
  type: "Data"
  top: "data"
  top: "label"
  include {
    phase: TRAIN
  }
  transform_param {
    mean_file: "examples/cifar10/mean.binaryproto"
  }
  data_param {
    source: "examples/cifar10/cifar10_train_lmdb"
    batch_size: 111
    backend: LMDB
  }
}
layer {
  name: "ip1"
  type: "InnerProduct"
  bottom: "data"
  top: "ip1"
  param {
    lr_mult: 1
  }
  param {
    lr_mult: 2
  }
  inner_product_param {
    num_output: 40
    weight_filler {
      type: "gaussian"
      std: 0.01
    }
    bias_filler {
      type: "constant"
    }
  }
}
layer {
  name: "relu1"
  type: "ReLU"
  bottom: "ip1"
  top: "ip1"
}
layer {
  name: "ip2"
  type: "InnerProduct"
  bottom: "ip1"
  top: "ip2"
  param {
    lr_mult: 1
  }
  param {
    lr_mult: 2
  }
  inner_product_param {
    num_output: 160
    weight_filler {
      type: "gaussian"
      std: 0.01
    }
    bias_filler {
      type: "constant"
    }
  }
}
layer {
  name: "relu2"
  type: "ReLU"
  bottom: "ip2"
  top: "ip2"
}
layer {
  name: "ip3"
  type: "InnerProduct"
  bottom: "ip2"
  top: "ip3"
  param {
    lr_mult: 1
  }
  param {
    lr_mult: 2
  }
  inner_product_param {
    num_output: 160
    weight_filler {
      type: "gaussian"
      std: 0.01
    }
    bias_filler {
      type: "constant"
    }
  }
}
layer {
  name: "relu3"
  type: "ReLU"
  bottom: "ip3"
  top: "ip3"
}
layer {
  name: "ip4"
  type: "InnerProduct"
  bottom: "ip3"
  top: "ip4"
  param {
    lr_mult: 1
  }
  param {
    lr_mult: 2
  }
  inner_product_param {
    num_output: 10
    weight_filler {
      type: "gaussian"
      std: 0.01
    }
    bias_filler {
      type: "constant"
    }
  }
}
layer {
  name: "loss"
  type: "SoftmaxWithLoss"
  bottom: "ip4"
  bottom: "label"
  top: "loss"
}
I0430 19:39:12.513156 26485 layer_factory.hpp:77] Creating layer cifar
I0430 19:39:12.513262 26485 db_lmdb.cpp:35] Opened lmdb examples/cifar10/cifar10_train_lmdb
I0430 19:39:12.513288 26485 net.cpp:86] Creating Layer cifar
I0430 19:39:12.513296 26485 net.cpp:382] cifar -> data
I0430 19:39:12.513319 26485 net.cpp:382] cifar -> label
I0430 19:39:12.513330 26485 data_transformer.cpp:25] Loading mean file from: examples/cifar10/mean.binaryproto
I0430 19:39:12.515430 26485 data_layer.cpp:45] output data size: 111,3,32,32
I0430 19:39:12.523315 26485 net.cpp:124] Setting up cifar
I0430 19:39:12.523334 26485 net.cpp:131] Top shape: 111 3 32 32 (340992)
I0430 19:39:12.523341 26485 net.cpp:131] Top shape: 111 (111)
I0430 19:39:12.523344 26485 net.cpp:139] Memory required for data: 1364412
I0430 19:39:12.523352 26485 layer_factory.hpp:77] Creating layer ip1
I0430 19:39:12.523365 26485 net.cpp:86] Creating Layer ip1
I0430 19:39:12.523370 26485 net.cpp:408] ip1 <- data
I0430 19:39:12.523380 26485 net.cpp:382] ip1 -> ip1
I0430 19:39:12.527629 26485 net.cpp:124] Setting up ip1
I0430 19:39:12.527642 26485 net.cpp:131] Top shape: 111 40 (4440)
I0430 19:39:12.527647 26485 net.cpp:139] Memory required for data: 1382172
I0430 19:39:12.527659 26485 layer_factory.hpp:77] Creating layer relu1
I0430 19:39:12.527667 26485 net.cpp:86] Creating Layer relu1
I0430 19:39:12.527688 26485 net.cpp:408] relu1 <- ip1
I0430 19:39:12.527694 26485 net.cpp:369] relu1 -> ip1 (in-place)
I0430 19:39:12.800974 26485 net.cpp:124] Setting up relu1
I0430 19:39:12.801018 26485 net.cpp:131] Top shape: 111 40 (4440)
I0430 19:39:12.801023 26485 net.cpp:139] Memory required for data: 1399932
I0430 19:39:12.801028 26485 layer_factory.hpp:77] Creating layer ip2
I0430 19:39:12.801043 26485 net.cpp:86] Creating Layer ip2
I0430 19:39:12.801046 26485 net.cpp:408] ip2 <- ip1
I0430 19:39:12.801054 26485 net.cpp:382] ip2 -> ip2
I0430 19:39:12.802232 26485 net.cpp:124] Setting up ip2
I0430 19:39:12.802243 26485 net.cpp:131] Top shape: 111 160 (17760)
I0430 19:39:12.802248 26485 net.cpp:139] Memory required for data: 1470972
I0430 19:39:12.802256 26485 layer_factory.hpp:77] Creating layer relu2
I0430 19:39:12.802263 26485 net.cpp:86] Creating Layer relu2
I0430 19:39:12.802268 26485 net.cpp:408] relu2 <- ip2
I0430 19:39:12.802271 26485 net.cpp:369] relu2 -> ip2 (in-place)
I0430 19:39:12.802991 26485 net.cpp:124] Setting up relu2
I0430 19:39:12.803004 26485 net.cpp:131] Top shape: 111 160 (17760)
I0430 19:39:12.803023 26485 net.cpp:139] Memory required for data: 1542012
I0430 19:39:12.803026 26485 layer_factory.hpp:77] Creating layer ip3
I0430 19:39:12.803033 26485 net.cpp:86] Creating Layer ip3
I0430 19:39:12.803036 26485 net.cpp:408] ip3 <- ip2
I0430 19:39:12.803042 26485 net.cpp:382] ip3 -> ip3
I0430 19:39:12.804637 26485 net.cpp:124] Setting up ip3
I0430 19:39:12.804649 26485 net.cpp:131] Top shape: 111 160 (17760)
I0430 19:39:12.804652 26485 net.cpp:139] Memory required for data: 1613052
I0430 19:39:12.804661 26485 layer_factory.hpp:77] Creating layer relu3
I0430 19:39:12.804666 26485 net.cpp:86] Creating Layer relu3
I0430 19:39:12.804668 26485 net.cpp:408] relu3 <- ip3
I0430 19:39:12.804672 26485 net.cpp:369] relu3 -> ip3 (in-place)
I0430 19:39:12.804877 26485 net.cpp:124] Setting up relu3
I0430 19:39:12.804888 26485 net.cpp:131] Top shape: 111 160 (17760)
I0430 19:39:12.804891 26485 net.cpp:139] Memory required for data: 1684092
I0430 19:39:12.804894 26485 layer_factory.hpp:77] Creating layer ip4
I0430 19:39:12.804901 26485 net.cpp:86] Creating Layer ip4
I0430 19:39:12.804904 26485 net.cpp:408] ip4 <- ip3
I0430 19:39:12.804909 26485 net.cpp:382] ip4 -> ip4
I0430 19:39:12.805070 26485 net.cpp:124] Setting up ip4
I0430 19:39:12.805078 26485 net.cpp:131] Top shape: 111 10 (1110)
I0430 19:39:12.805081 26485 net.cpp:139] Memory required for data: 1688532
I0430 19:39:12.805088 26485 layer_factory.hpp:77] Creating layer loss
I0430 19:39:12.805094 26485 net.cpp:86] Creating Layer loss
I0430 19:39:12.805099 26485 net.cpp:408] loss <- ip4
I0430 19:39:12.805104 26485 net.cpp:408] loss <- label
I0430 19:39:12.805125 26485 net.cpp:382] loss -> loss
I0430 19:39:12.805160 26485 layer_factory.hpp:77] Creating layer loss
…
I0430 19:39:12.805804 26485 solver.cpp:173] Creating test net (#0) specified by net file: ECE595/cifar/train_test/var_everything/cifar_train_test_104.prototxt
I0430 19:39:12.805841 26485 net.cpp:296] The NetState phase (1) differed from the phase (0) specified by a rule in layer cifar
I0430 19:39:12.805917 26485 net.cpp:53] Initializing net from parameters: 
name: "CIFAR"
state {
  phase: TEST
}
layer {
  name: "cifar"
  type: "Data"
  top: "data"
  top: "label"
  include {
    phase: TEST
  }
  transform_param {
    mean_file: "examples/cifar10/mean.binaryproto"
  }
  data_param {
    source: "examples/cifar10/cifar10_test_lmdb"
    batch_size: 1000
    backend: LMDB
  }
}
layer {
  name: "ip1"
  type: "InnerProduct"
  bottom: "data"
  top: "ip1"
  param {
    lr_mult: 1
  }
  param {
    lr_mult: 2
  }
  inner_product_param {
    num_output: 40
    weight_filler {
      type: "gaussian"
      std: 0.01
    }
    bias_filler {
      type: "constant"
    }
  }
}
layer {
  name: "relu1"
  type: "ReLU"
  bottom: "ip1"
  top: "ip1"
}
layer {
  name: "ip2"
  type: "InnerProduct"
  bottom: "ip1"
  top: "ip2"
  param {
    lr_mult: 1
  }
  param {
    lr_mult: 2
  }
  inner_product_param {
    num_output: 160
    weight_filler {
      type: "gaussian"
      std: 0.01
    }
    bias_filler {
      type: "constant"
    }
  }
}
layer {
  name: "relu2"
  type: "ReLU"
  bottom: "ip2"
  top: "ip2"
}
layer {
  name: "ip3"
  type: "InnerProduct"
  bottom: "ip2"
  top: "ip3"
  param {
    lr_mult: 1
  }
  param {
    lr_mult: 2
  }
  inner_product_param {
    num_output: 160
    weight_filler {
      type: "gaussian"
      std: 0.01
    }
    bias_filler {
      type: "constant"
    }
  }
}
layer {
  name: "relu3"
  type: "ReLU"
  bottom: "ip3"
  top: "ip3"
}
layer {
  name: "ip4"
  type: "InnerProduct"
  bottom: "ip3"
  top: "ip4"
  param {
    lr_mult: 1
  }
  param {
    lr_mult: 2
  }
  inner_product_param {
    num_output: 10
    weight_filler {
      type: "gaussian"
      std: 0.01
    }
    bias_filler {
      type: "constant"
    }
  }
}
layer {
  name: "accuracy"
  type: "Accuracy"
  bottom: "ip4"
  bottom: "label"
  top: "accuracy"
  include {
    phase: TEST
  }
}
layer {
  name: "loss"
  type: "SoftmaxWithLoss"
  bottom: "ip4"
  bottom: "label"
  top: "loss"
}
I0430 19:39:12.805975 26485 layer_factory.hpp:77] Creating layer cifar
I0430 19:39:12.806020 26485 db_lmdb.cpp:35] Opened lmdb examples/cifar10/cifar10_test_lmdb
I0430 19:39:12.806033 26485 net.cpp:86] Creating Layer cifar
I0430 19:39:12.806041 26485 net.cpp:382] cifar -> data
I0430 19:39:12.806063 26485 net.cpp:382] cifar -> label
I0430 19:39:12.806071 26485 data_transformer.cpp:25] Loading mean file from: examples/cifar10/mean.binaryproto
I0430 19:39:12.806211 26485 data_layer.cpp:45] output data size: 1000,3,32,32
I0430 19:39:12.828734 26485 net.cpp:124] Setting up cifar
I0430 19:39:12.828763 26485 net.cpp:131] Top shape: 1000 3 32 32 (3072000)
I0430 19:39:12.828768 26485 net.cpp:131] Top shape: 1000 (1000)
I0430 19:39:12.828773 26485 net.cpp:139] Memory required for data: 12292000
I0430 19:39:12.828778 26485 layer_factory.hpp:77] Creating layer label_cifar_1_split
I0430 19:39:12.828809 26485 net.cpp:86] Creating Layer label_cifar_1_split
I0430 19:39:12.828833 26485 net.cpp:408] label_cifar_1_split <- label
I0430 19:39:12.828855 26485 net.cpp:382] label_cifar_1_split -> label_cifar_1_split_0
I0430 19:39:12.828865 26485 net.cpp:382] label_cifar_1_split -> label_cifar_1_split_1
I0430 19:39:12.828963 26485 net.cpp:124] Setting up label_cifar_1_split
I0430 19:39:12.828970 26485 net.cpp:131] Top shape: 1000 (1000)
I0430 19:39:12.828974 26485 net.cpp:131] Top shape: 1000 (1000)
I0430 19:39:12.828977 26485 net.cpp:139] Memory required for data: 12300000
I0430 19:39:12.828980 26485 layer_factory.hpp:77] Creating layer ip1
I0430 19:39:12.828989 26485 net.cpp:86] Creating Layer ip1
I0430 19:39:12.828994 26485 net.cpp:408] ip1 <- data
I0430 19:39:12.828999 26485 net.cpp:382] ip1 -> ip1
I0430 19:39:12.832471 26485 net.cpp:124] Setting up ip1
I0430 19:39:12.832480 26485 net.cpp:131] Top shape: 1000 40 (40000)
I0430 19:39:12.832484 26485 net.cpp:139] Memory required for data: 12460000
I0430 19:39:12.832525 26485 layer_factory.hpp:77] Creating layer relu1
I0430 19:39:12.832533 26485 net.cpp:86] Creating Layer relu1
I0430 19:39:12.832536 26485 net.cpp:408] relu1 <- ip1
I0430 19:39:12.832541 26485 net.cpp:369] relu1 -> ip1 (in-place)
I0430 19:39:12.833390 26485 net.cpp:124] Setting up relu1
I0430 19:39:12.833403 26485 net.cpp:131] Top shape: 1000 40 (40000)
I0430 19:39:12.833407 26485 net.cpp:139] Memory required for data: 12620000
I0430 19:39:12.833411 26485 layer_factory.hpp:77] Creating layer ip2
I0430 19:39:12.833436 26485 net.cpp:86] Creating Layer ip2
I0430 19:39:12.833438 26485 net.cpp:408] ip2 <- ip1
I0430 19:39:12.833459 26485 net.cpp:382] ip2 -> ip2
I0430 19:39:12.833734 26485 net.cpp:124] Setting up ip2
I0430 19:39:12.833741 26485 net.cpp:131] Top shape: 1000 160 (160000)
I0430 19:39:12.833770 26485 net.cpp:139] Memory required for data: 13260000
I0430 19:39:12.833776 26485 layer_factory.hpp:77] Creating layer relu2
I0430 19:39:12.833782 26485 net.cpp:86] Creating Layer relu2
I0430 19:39:12.833786 26485 net.cpp:408] relu2 <- ip2
I0430 19:39:12.833791 26485 net.cpp:369] relu2 -> ip2 (in-place)
I0430 19:39:12.834079 26485 net.cpp:124] Setting up relu2
I0430 19:39:12.834092 26485 net.cpp:131] Top shape: 1000 160 (160000)
I0430 19:39:12.834105 26485 net.cpp:139] Memory required for data: 13900000
I0430 19:39:12.834110 26485 layer_factory.hpp:77] Creating layer ip3
I0430 19:39:12.834121 26485 net.cpp:86] Creating Layer ip3
I0430 19:39:12.834127 26485 net.cpp:408] ip3 <- ip2
I0430 19:39:12.834136 26485 net.cpp:382] ip3 -> ip3
I0430 19:39:12.835024 26485 net.cpp:124] Setting up ip3
I0430 19:39:12.835032 26485 net.cpp:131] Top shape: 1000 160 (160000)
I0430 19:39:12.835036 26485 net.cpp:139] Memory required for data: 14540000
I0430 19:39:12.835043 26485 layer_factory.hpp:77] Creating layer relu3
I0430 19:39:12.835070 26485 net.cpp:86] Creating Layer relu3
I0430 19:39:12.835074 26485 net.cpp:408] relu3 <- ip3
I0430 19:39:12.835078 26485 net.cpp:369] relu3 -> ip3 (in-place)
I0430 19:39:12.835228 26485 net.cpp:124] Setting up relu3
I0430 19:39:12.835237 26485 net.cpp:131] Top shape: 1000 160 (160000)
I0430 19:39:12.835240 26485 net.cpp:139] Memory required for data: 15180000
I0430 19:39:12.835244 26485 layer_factory.hpp:77] Creating layer ip4
I0430 19:39:12.835252 26485 net.cpp:86] Creating Layer ip4
I0430 19:39:12.835254 26485 net.cpp:408] ip4 <- ip3
I0430 19:39:12.835258 26485 net.cpp:382] ip4 -> ip4
I0430 19:39:12.835400 26485 net.cpp:124] Setting up ip4
I0430 19:39:12.835407 26485 net.cpp:131] Top shape: 1000 10 (10000)
I0430 19:39:12.835412 26485 net.cpp:139] Memory required for data: 15220000
I0430 19:39:12.835417 26485 layer_factory.hpp:77] Creating layer ip4_ip4_0_split
I0430 19:39:12.835422 26485 net.cpp:86] Creating Layer ip4_ip4_0_split
I0430 19:39:12.835424 26485 net.cpp:408] ip4_ip4_0_split <- ip4
I0430 19:39:12.835428 26485 net.cpp:382] ip4_ip4_0_split -> ip4_ip4_0_split_0
I0430 19:39:12.835435 26485 net.cpp:382] ip4_ip4_0_split -> ip4_ip4_0_split_1
I0430 19:39:12.835464 26485 net.cpp:124] Setting up ip4_ip4_0_split
I0430 19:39:12.835469 26485 net.cpp:131] Top shape: 1000 10 (10000)
I0430 19:39:12.835474 26485 net.cpp:131] Top shape: 1000 10 (10000)
I0430 19:39:12.835475 26485 net.cpp:139] Memory required for data: 15300000
I0430 19:39:12.835479 26485 layer_factory.hpp:77] Creating layer accuracy
I0430 19:39:12.835484 26485 net.cpp:86] Creating Layer accuracy
I0430 19:39:12.835486 26485 net.cpp:408] accuracy <- ip4_ip4_0_split_0
I0430 19:39:12.835491 26485 net.cpp:408] accuracy <- label_cifar_1_split_0
I0430 19:39:12.835496 26485 net.cpp:382] accuracy -> accuracy
…
