…
I0430 19:25:48.654376 25929 net.cpp:296] The NetState phase (0) differed from the phase (1) specified by a rule in layer cifar
I0430 19:25:48.654392 25929 net.cpp:296] The NetState phase (0) differed from the phase (1) specified by a rule in layer accuracy
I0430 19:25:48.654479 25929 net.cpp:53] Initializing net from parameters: 
name: "CIFAR"
state {
  phase: TRAIN
  level: 0
  stage: ""
}
layer {
  name: "cifar"
  type: "Data"
  top: "data"
  top: "label"
  include {
    phase: TRAIN
  }
  transform_param {
    mean_file: "examples/cifar10/mean.binaryproto"
  }
  data_param {
    source: "examples/cifar10/cifar10_train_lmdb"
    batch_size: 111
    backend: LMDB
  }
}
layer {
  name: "ip1"
  type: "InnerProduct"
  bottom: "data"
  top: "ip1"
  param {
    lr_mult: 1
  }
  param {
    lr_mult: 2
  }
  inner_product_param {
    num_output: 40
    weight_filler {
      type: "gaussian"
      std: 0.01
    }
    bias_filler {
      type: "constant"
    }
  }
}
layer {
  name: "relu1"
  type: "ReLU"
  bottom: "ip1"
  top: "ip1"
}
layer {
  name: "ip2"
  type: "InnerProduct"
  bottom: "ip1"
  top: "ip2"
  param {
    lr_mult: 1
  }
  param {
    lr_mult: 2
  }
  inner_product_param {
    num_output: 80
    weight_filler {
      type: "gaussian"
      std: 0.01
    }
    bias_filler {
      type: "constant"
    }
  }
}
layer {
  name: "relu2"
  type: "ReLU"
  bottom: "ip2"
  top: "ip2"
}
layer {
  name: "ip3"
  type: "InnerProduct"
  bottom: "ip2"
  top: "ip3"
  param {
    lr_mult: 1
  }
  param {
    lr_mult: 2
  }
  inner_product_param {
    num_output: 40
    weight_filler {
      type: "gaussian"
      std: 0.01
    }
    bias_filler {
      type: "constant"
    }
  }
}
layer {
  name: "relu3"
  type: "ReLU"
  bottom: "ip3"
  top: "ip3"
}
layer {
  name: "ip4"
  type: "InnerProduct"
  bottom: "ip3"
  top: "ip4"
  param {
    lr_mult: 1
  }
  param {
    lr_mult: 2
  }
  inner_product_param {
    num_output: 10
    weight_filler {
      type: "gaussian"
      std: 0.01
    }
    bias_filler {
      type: "constant"
    }
  }
}
layer {
  name: "loss"
  type: "SoftmaxWithLoss"
  bottom: "ip4"
  bottom: "label"
  top: "loss"
}
I0430 19:25:48.654551 25929 layer_factory.hpp:77] Creating layer cifar
I0430 19:25:48.654649 25929 db_lmdb.cpp:35] Opened lmdb examples/cifar10/cifar10_train_lmdb
I0430 19:25:48.654675 25929 net.cpp:86] Creating Layer cifar
I0430 19:25:48.654685 25929 net.cpp:382] cifar -> data
I0430 19:25:48.654707 25929 net.cpp:382] cifar -> label
I0430 19:25:48.654718 25929 data_transformer.cpp:25] Loading mean file from: examples/cifar10/mean.binaryproto
I0430 19:25:48.656826 25929 data_layer.cpp:45] output data size: 111,3,32,32
I0430 19:25:48.664713 25929 net.cpp:124] Setting up cifar
I0430 19:25:48.664732 25929 net.cpp:131] Top shape: 111 3 32 32 (340992)
I0430 19:25:48.664738 25929 net.cpp:131] Top shape: 111 (111)
I0430 19:25:48.664742 25929 net.cpp:139] Memory required for data: 1364412
I0430 19:25:48.664749 25929 layer_factory.hpp:77] Creating layer ip1
I0430 19:25:48.664762 25929 net.cpp:86] Creating Layer ip1
I0430 19:25:48.664768 25929 net.cpp:408] ip1 <- data
I0430 19:25:48.664779 25929 net.cpp:382] ip1 -> ip1
I0430 19:25:48.669028 25929 net.cpp:124] Setting up ip1
I0430 19:25:48.669041 25929 net.cpp:131] Top shape: 111 40 (4440)
I0430 19:25:48.669045 25929 net.cpp:139] Memory required for data: 1382172
I0430 19:25:48.669059 25929 layer_factory.hpp:77] Creating layer relu1
I0430 19:25:48.669067 25929 net.cpp:86] Creating Layer relu1
I0430 19:25:48.669086 25929 net.cpp:408] relu1 <- ip1
I0430 19:25:48.669096 25929 net.cpp:369] relu1 -> ip1 (in-place)
I0430 19:25:48.951138 25929 net.cpp:124] Setting up relu1
I0430 19:25:48.951165 25929 net.cpp:131] Top shape: 111 40 (4440)
I0430 19:25:48.951169 25929 net.cpp:139] Memory required for data: 1399932
I0430 19:25:48.951174 25929 layer_factory.hpp:77] Creating layer ip2
I0430 19:25:48.951187 25929 net.cpp:86] Creating Layer ip2
I0430 19:25:48.951191 25929 net.cpp:408] ip2 <- ip1
I0430 19:25:48.951200 25929 net.cpp:382] ip2 -> ip2
I0430 19:25:48.951406 25929 net.cpp:124] Setting up ip2
I0430 19:25:48.951413 25929 net.cpp:131] Top shape: 111 80 (8880)
I0430 19:25:48.951417 25929 net.cpp:139] Memory required for data: 1435452
I0430 19:25:48.951426 25929 layer_factory.hpp:77] Creating layer relu2
I0430 19:25:48.951434 25929 net.cpp:86] Creating Layer relu2
I0430 19:25:48.951437 25929 net.cpp:408] relu2 <- ip2
I0430 19:25:48.951442 25929 net.cpp:369] relu2 -> ip2 (in-place)
I0430 19:25:48.952206 25929 net.cpp:124] Setting up relu2
I0430 19:25:48.952219 25929 net.cpp:131] Top shape: 111 80 (8880)
I0430 19:25:48.952221 25929 net.cpp:139] Memory required for data: 1470972
I0430 19:25:48.952225 25929 layer_factory.hpp:77] Creating layer ip3
I0430 19:25:48.952234 25929 net.cpp:86] Creating Layer ip3
I0430 19:25:48.952237 25929 net.cpp:408] ip3 <- ip2
I0430 19:25:48.952244 25929 net.cpp:382] ip3 -> ip3
I0430 19:25:48.952435 25929 net.cpp:124] Setting up ip3
I0430 19:25:48.952442 25929 net.cpp:131] Top shape: 111 40 (4440)
I0430 19:25:48.952445 25929 net.cpp:139] Memory required for data: 1488732
I0430 19:25:48.952453 25929 layer_factory.hpp:77] Creating layer relu3
I0430 19:25:48.952458 25929 net.cpp:86] Creating Layer relu3
I0430 19:25:48.952461 25929 net.cpp:408] relu3 <- ip3
I0430 19:25:48.952466 25929 net.cpp:369] relu3 -> ip3 (in-place)
I0430 19:25:48.952627 25929 net.cpp:124] Setting up relu3
I0430 19:25:48.952636 25929 net.cpp:131] Top shape: 111 40 (4440)
I0430 19:25:48.952639 25929 net.cpp:139] Memory required for data: 1506492
I0430 19:25:48.952642 25929 layer_factory.hpp:77] Creating layer ip4
I0430 19:25:48.952649 25929 net.cpp:86] Creating Layer ip4
I0430 19:25:48.952652 25929 net.cpp:408] ip4 <- ip3
I0430 19:25:48.952656 25929 net.cpp:382] ip4 -> ip4
I0430 19:25:48.953619 25929 net.cpp:124] Setting up ip4
I0430 19:25:48.953630 25929 net.cpp:131] Top shape: 111 10 (1110)
I0430 19:25:48.953634 25929 net.cpp:139] Memory required for data: 1510932
I0430 19:25:48.953639 25929 layer_factory.hpp:77] Creating layer loss
I0430 19:25:48.953647 25929 net.cpp:86] Creating Layer loss
I0430 19:25:48.953650 25929 net.cpp:408] loss <- ip4
I0430 19:25:48.953655 25929 net.cpp:408] loss <- label
I0430 19:25:48.953660 25929 net.cpp:382] loss -> loss
I0430 19:25:48.953677 25929 layer_factory.hpp:77] Creating layer loss
…
I0430 19:25:48.954285 25929 solver.cpp:173] Creating test net (#0) specified by net file: ECE595/cifar/train_test/var_everything/cifar_train_test_97.prototxt
I0430 19:25:48.954324 25929 net.cpp:296] The NetState phase (1) differed from the phase (0) specified by a rule in layer cifar
I0430 19:25:48.954398 25929 net.cpp:53] Initializing net from parameters: 
name: "CIFAR"
state {
  phase: TEST
}
layer {
  name: "cifar"
  type: "Data"
  top: "data"
  top: "label"
  include {
    phase: TEST
  }
  transform_param {
    mean_file: "examples/cifar10/mean.binaryproto"
  }
  data_param {
    source: "examples/cifar10/cifar10_test_lmdb"
    batch_size: 1000
    backend: LMDB
  }
}
layer {
  name: "ip1"
  type: "InnerProduct"
  bottom: "data"
  top: "ip1"
  param {
    lr_mult: 1
  }
  param {
    lr_mult: 2
  }
  inner_product_param {
    num_output: 40
    weight_filler {
      type: "gaussian"
      std: 0.01
    }
    bias_filler {
      type: "constant"
    }
  }
}
layer {
  name: "relu1"
  type: "ReLU"
  bottom: "ip1"
  top: "ip1"
}
layer {
  name: "ip2"
  type: "InnerProduct"
  bottom: "ip1"
  top: "ip2"
  param {
    lr_mult: 1
  }
  param {
    lr_mult: 2
  }
  inner_product_param {
    num_output: 80
    weight_filler {
      type: "gaussian"
      std: 0.01
    }
    bias_filler {
      type: "constant"
    }
  }
}
layer {
  name: "relu2"
  type: "ReLU"
  bottom: "ip2"
  top: "ip2"
}
layer {
  name: "ip3"
  type: "InnerProduct"
  bottom: "ip2"
  top: "ip3"
  param {
    lr_mult: 1
  }
  param {
    lr_mult: 2
  }
  inner_product_param {
    num_output: 40
    weight_filler {
      type: "gaussian"
      std: 0.01
    }
    bias_filler {
      type: "constant"
    }
  }
}
layer {
  name: "relu3"
  type: "ReLU"
  bottom: "ip3"
  top: "ip3"
}
layer {
  name: "ip4"
  type: "InnerProduct"
  bottom: "ip3"
  top: "ip4"
  param {
    lr_mult: 1
  }
  param {
    lr_mult: 2
  }
  inner_product_param {
    num_output: 10
    weight_filler {
      type: "gaussian"
      std: 0.01
    }
    bias_filler {
      type: "constant"
    }
  }
}
layer {
  name: "accuracy"
  type: "Accuracy"
  bottom: "ip4"
  bottom: "label"
  top: "accuracy"
  include {
    phase: TEST
  }
}
layer {
  name: "loss"
  type: "SoftmaxWithLoss"
  bottom: "ip4"
  bottom: "label"
  top: "loss"
}
I0430 19:25:48.954463 25929 layer_factory.hpp:77] Creating layer cifar
I0430 19:25:48.954507 25929 db_lmdb.cpp:35] Opened lmdb examples/cifar10/cifar10_test_lmdb
I0430 19:25:48.954519 25929 net.cpp:86] Creating Layer cifar
I0430 19:25:48.954525 25929 net.cpp:382] cifar -> data
I0430 19:25:48.954532 25929 net.cpp:382] cifar -> label
I0430 19:25:48.954538 25929 data_transformer.cpp:25] Loading mean file from: examples/cifar10/mean.binaryproto
I0430 19:25:48.954686 25929 data_layer.cpp:45] output data size: 1000,3,32,32
I0430 19:25:48.977032 25929 net.cpp:124] Setting up cifar
I0430 19:25:48.977059 25929 net.cpp:131] Top shape: 1000 3 32 32 (3072000)
I0430 19:25:48.977066 25929 net.cpp:131] Top shape: 1000 (1000)
I0430 19:25:48.977068 25929 net.cpp:139] Memory required for data: 12292000
I0430 19:25:48.977074 25929 layer_factory.hpp:77] Creating layer label_cifar_1_split
I0430 19:25:48.977108 25929 net.cpp:86] Creating Layer label_cifar_1_split
I0430 19:25:48.977111 25929 net.cpp:408] label_cifar_1_split <- label
I0430 19:25:48.977118 25929 net.cpp:382] label_cifar_1_split -> label_cifar_1_split_0
I0430 19:25:48.977143 25929 net.cpp:382] label_cifar_1_split -> label_cifar_1_split_1
I0430 19:25:48.977221 25929 net.cpp:124] Setting up label_cifar_1_split
I0430 19:25:48.977236 25929 net.cpp:131] Top shape: 1000 (1000)
I0430 19:25:48.977241 25929 net.cpp:131] Top shape: 1000 (1000)
I0430 19:25:48.977242 25929 net.cpp:139] Memory required for data: 12300000
I0430 19:25:48.977246 25929 layer_factory.hpp:77] Creating layer ip1
I0430 19:25:48.977255 25929 net.cpp:86] Creating Layer ip1
I0430 19:25:48.977258 25929 net.cpp:408] ip1 <- data
I0430 19:25:48.977262 25929 net.cpp:382] ip1 -> ip1
I0430 19:25:48.980630 25929 net.cpp:124] Setting up ip1
I0430 19:25:48.980640 25929 net.cpp:131] Top shape: 1000 40 (40000)
I0430 19:25:48.980643 25929 net.cpp:139] Memory required for data: 12460000
I0430 19:25:48.980692 25929 layer_factory.hpp:77] Creating layer relu1
I0430 19:25:48.980700 25929 net.cpp:86] Creating Layer relu1
I0430 19:25:48.980703 25929 net.cpp:408] relu1 <- ip1
I0430 19:25:48.980708 25929 net.cpp:369] relu1 -> ip1 (in-place)
I0430 19:25:48.981534 25929 net.cpp:124] Setting up relu1
I0430 19:25:48.981547 25929 net.cpp:131] Top shape: 1000 40 (40000)
I0430 19:25:48.981550 25929 net.cpp:139] Memory required for data: 12620000
I0430 19:25:48.981554 25929 layer_factory.hpp:77] Creating layer ip2
I0430 19:25:48.981562 25929 net.cpp:86] Creating Layer ip2
I0430 19:25:48.981582 25929 net.cpp:408] ip2 <- ip1
I0430 19:25:48.981588 25929 net.cpp:382] ip2 -> ip2
I0430 19:25:48.981784 25929 net.cpp:124] Setting up ip2
I0430 19:25:48.981791 25929 net.cpp:131] Top shape: 1000 80 (80000)
I0430 19:25:48.981796 25929 net.cpp:139] Memory required for data: 12940000
I0430 19:25:48.981803 25929 layer_factory.hpp:77] Creating layer relu2
I0430 19:25:48.981809 25929 net.cpp:86] Creating Layer relu2
I0430 19:25:48.981812 25929 net.cpp:408] relu2 <- ip2
I0430 19:25:48.981817 25929 net.cpp:369] relu2 -> ip2 (in-place)
I0430 19:25:48.981974 25929 net.cpp:124] Setting up relu2
I0430 19:25:48.981982 25929 net.cpp:131] Top shape: 1000 80 (80000)
I0430 19:25:48.981986 25929 net.cpp:139] Memory required for data: 13260000
I0430 19:25:48.981988 25929 layer_factory.hpp:77] Creating layer ip3
I0430 19:25:48.981995 25929 net.cpp:86] Creating Layer ip3
I0430 19:25:48.981998 25929 net.cpp:408] ip3 <- ip2
I0430 19:25:48.982003 25929 net.cpp:382] ip3 -> ip3
I0430 19:25:48.982187 25929 net.cpp:124] Setting up ip3
I0430 19:25:48.982193 25929 net.cpp:131] Top shape: 1000 40 (40000)
I0430 19:25:48.982197 25929 net.cpp:139] Memory required for data: 13420000
I0430 19:25:48.982204 25929 layer_factory.hpp:77] Creating layer relu3
I0430 19:25:48.982211 25929 net.cpp:86] Creating Layer relu3
I0430 19:25:48.982214 25929 net.cpp:408] relu3 <- ip3
I0430 19:25:48.982218 25929 net.cpp:369] relu3 -> ip3 (in-place)
I0430 19:25:48.982373 25929 net.cpp:124] Setting up relu3
I0430 19:25:48.982383 25929 net.cpp:131] Top shape: 1000 40 (40000)
I0430 19:25:48.982385 25929 net.cpp:139] Memory required for data: 13580000
I0430 19:25:48.982388 25929 layer_factory.hpp:77] Creating layer ip4
I0430 19:25:48.982398 25929 net.cpp:86] Creating Layer ip4
I0430 19:25:48.982400 25929 net.cpp:408] ip4 <- ip3
I0430 19:25:48.982405 25929 net.cpp:382] ip4 -> ip4
I0430 19:25:48.982517 25929 net.cpp:124] Setting up ip4
I0430 19:25:48.982524 25929 net.cpp:131] Top shape: 1000 10 (10000)
I0430 19:25:48.982528 25929 net.cpp:139] Memory required for data: 13620000
I0430 19:25:48.982533 25929 layer_factory.hpp:77] Creating layer ip4_ip4_0_split
I0430 19:25:48.982539 25929 net.cpp:86] Creating Layer ip4_ip4_0_split
I0430 19:25:48.982542 25929 net.cpp:408] ip4_ip4_0_split <- ip4
I0430 19:25:48.982547 25929 net.cpp:382] ip4_ip4_0_split -> ip4_ip4_0_split_0
I0430 19:25:48.982553 25929 net.cpp:382] ip4_ip4_0_split -> ip4_ip4_0_split_1
I0430 19:25:48.982583 25929 net.cpp:124] Setting up ip4_ip4_0_split
I0430 19:25:48.982589 25929 net.cpp:131] Top shape: 1000 10 (10000)
I0430 19:25:48.982591 25929 net.cpp:131] Top shape: 1000 10 (10000)
I0430 19:25:48.982594 25929 net.cpp:139] Memory required for data: 13700000
I0430 19:25:48.982596 25929 layer_factory.hpp:77] Creating layer accuracy
I0430 19:25:48.982604 25929 net.cpp:86] Creating Layer accuracy
I0430 19:25:48.982606 25929 net.cpp:408] accuracy <- ip4_ip4_0_split_0
I0430 19:25:48.982609 25929 net.cpp:408] accuracy <- label_cifar_1_split_0
I0430 19:25:48.982614 25929 net.cpp:382] accuracy -> accuracy
…
