…
I0430 19:27:44.225370 25971 net.cpp:296] The NetState phase (0) differed from the phase (1) specified by a rule in layer cifar
I0430 19:27:44.225385 25971 net.cpp:296] The NetState phase (0) differed from the phase (1) specified by a rule in layer accuracy
I0430 19:27:44.225469 25971 net.cpp:53] Initializing net from parameters: 
name: "CIFAR"
state {
  phase: TRAIN
  level: 0
  stage: ""
}
layer {
  name: "cifar"
  type: "Data"
  top: "data"
  top: "label"
  include {
    phase: TRAIN
  }
  transform_param {
    mean_file: "examples/cifar10/mean.binaryproto"
  }
  data_param {
    source: "examples/cifar10/cifar10_train_lmdb"
    batch_size: 111
    backend: LMDB
  }
}
layer {
  name: "ip1"
  type: "InnerProduct"
  bottom: "data"
  top: "ip1"
  param {
    lr_mult: 1
  }
  param {
    lr_mult: 2
  }
  inner_product_param {
    num_output: 40
    weight_filler {
      type: "gaussian"
      std: 0.01
    }
    bias_filler {
      type: "constant"
    }
  }
}
layer {
  name: "relu1"
  type: "ReLU"
  bottom: "ip1"
  top: "ip1"
}
layer {
  name: "ip2"
  type: "InnerProduct"
  bottom: "ip1"
  top: "ip2"
  param {
    lr_mult: 1
  }
  param {
    lr_mult: 2
  }
  inner_product_param {
    num_output: 80
    weight_filler {
      type: "gaussian"
      std: 0.01
    }
    bias_filler {
      type: "constant"
    }
  }
}
layer {
  name: "relu2"
  type: "ReLU"
  bottom: "ip2"
  top: "ip2"
}
layer {
  name: "ip3"
  type: "InnerProduct"
  bottom: "ip2"
  top: "ip3"
  param {
    lr_mult: 1
  }
  param {
    lr_mult: 2
  }
  inner_product_param {
    num_output: 80
    weight_filler {
      type: "gaussian"
      std: 0.01
    }
    bias_filler {
      type: "constant"
    }
  }
}
layer {
  name: "relu3"
  type: "ReLU"
  bottom: "ip3"
  top: "ip3"
}
layer {
  name: "ip4"
  type: "InnerProduct"
  bottom: "ip3"
  top: "ip4"
  param {
    lr_mult: 1
  }
  param {
    lr_mult: 2
  }
  inner_product_param {
    num_output: 10
    weight_filler {
      type: "gaussian"
      std: 0.01
    }
    bias_filler {
      type: "constant"
    }
  }
}
layer {
  name: "loss"
  type: "SoftmaxWithLoss"
  bottom: "ip4"
  bottom: "label"
  top: "loss"
}
I0430 19:27:44.225541 25971 layer_factory.hpp:77] Creating layer cifar
I0430 19:27:44.225644 25971 db_lmdb.cpp:35] Opened lmdb examples/cifar10/cifar10_train_lmdb
I0430 19:27:44.225672 25971 net.cpp:86] Creating Layer cifar
I0430 19:27:44.225683 25971 net.cpp:382] cifar -> data
I0430 19:27:44.225708 25971 net.cpp:382] cifar -> label
I0430 19:27:44.225721 25971 data_transformer.cpp:25] Loading mean file from: examples/cifar10/mean.binaryproto
I0430 19:27:44.227849 25971 data_layer.cpp:45] output data size: 111,3,32,32
I0430 19:27:44.235745 25971 net.cpp:124] Setting up cifar
I0430 19:27:44.235764 25971 net.cpp:131] Top shape: 111 3 32 32 (340992)
I0430 19:27:44.235771 25971 net.cpp:131] Top shape: 111 (111)
I0430 19:27:44.235774 25971 net.cpp:139] Memory required for data: 1364412
I0430 19:27:44.235783 25971 layer_factory.hpp:77] Creating layer ip1
I0430 19:27:44.235796 25971 net.cpp:86] Creating Layer ip1
I0430 19:27:44.235801 25971 net.cpp:408] ip1 <- data
I0430 19:27:44.235815 25971 net.cpp:382] ip1 -> ip1
I0430 19:27:44.240048 25971 net.cpp:124] Setting up ip1
I0430 19:27:44.240061 25971 net.cpp:131] Top shape: 111 40 (4440)
I0430 19:27:44.240064 25971 net.cpp:139] Memory required for data: 1382172
I0430 19:27:44.240077 25971 layer_factory.hpp:77] Creating layer relu1
I0430 19:27:44.240087 25971 net.cpp:86] Creating Layer relu1
I0430 19:27:44.240106 25971 net.cpp:408] relu1 <- ip1
I0430 19:27:44.240113 25971 net.cpp:369] relu1 -> ip1 (in-place)
I0430 19:27:44.525760 25971 net.cpp:124] Setting up relu1
I0430 19:27:44.525787 25971 net.cpp:131] Top shape: 111 40 (4440)
I0430 19:27:44.525791 25971 net.cpp:139] Memory required for data: 1399932
I0430 19:27:44.525797 25971 layer_factory.hpp:77] Creating layer ip2
I0430 19:27:44.525810 25971 net.cpp:86] Creating Layer ip2
I0430 19:27:44.525815 25971 net.cpp:408] ip2 <- ip1
I0430 19:27:44.525827 25971 net.cpp:382] ip2 -> ip2
I0430 19:27:44.526052 25971 net.cpp:124] Setting up ip2
I0430 19:27:44.526060 25971 net.cpp:131] Top shape: 111 80 (8880)
I0430 19:27:44.526064 25971 net.cpp:139] Memory required for data: 1435452
I0430 19:27:44.526074 25971 layer_factory.hpp:77] Creating layer relu2
I0430 19:27:44.526082 25971 net.cpp:86] Creating Layer relu2
I0430 19:27:44.526088 25971 net.cpp:408] relu2 <- ip2
I0430 19:27:44.526093 25971 net.cpp:369] relu2 -> ip2 (in-place)
I0430 19:27:44.526959 25971 net.cpp:124] Setting up relu2
I0430 19:27:44.526973 25971 net.cpp:131] Top shape: 111 80 (8880)
I0430 19:27:44.526978 25971 net.cpp:139] Memory required for data: 1470972
I0430 19:27:44.526981 25971 layer_factory.hpp:77] Creating layer ip3
I0430 19:27:44.526989 25971 net.cpp:86] Creating Layer ip3
I0430 19:27:44.526993 25971 net.cpp:408] ip3 <- ip2
I0430 19:27:44.526999 25971 net.cpp:382] ip3 -> ip3
I0430 19:27:44.528183 25971 net.cpp:124] Setting up ip3
I0430 19:27:44.528198 25971 net.cpp:131] Top shape: 111 80 (8880)
I0430 19:27:44.528201 25971 net.cpp:139] Memory required for data: 1506492
I0430 19:27:44.528210 25971 layer_factory.hpp:77] Creating layer relu3
I0430 19:27:44.528219 25971 net.cpp:86] Creating Layer relu3
I0430 19:27:44.528239 25971 net.cpp:408] relu3 <- ip3
I0430 19:27:44.528244 25971 net.cpp:369] relu3 -> ip3 (in-place)
I0430 19:27:44.528415 25971 net.cpp:124] Setting up relu3
I0430 19:27:44.528425 25971 net.cpp:131] Top shape: 111 80 (8880)
I0430 19:27:44.528429 25971 net.cpp:139] Memory required for data: 1542012
I0430 19:27:44.528432 25971 layer_factory.hpp:77] Creating layer ip4
I0430 19:27:44.528439 25971 net.cpp:86] Creating Layer ip4
I0430 19:27:44.528442 25971 net.cpp:408] ip4 <- ip3
I0430 19:27:44.528448 25971 net.cpp:382] ip4 -> ip4
I0430 19:27:44.529501 25971 net.cpp:124] Setting up ip4
I0430 19:27:44.529515 25971 net.cpp:131] Top shape: 111 10 (1110)
I0430 19:27:44.529533 25971 net.cpp:139] Memory required for data: 1546452
I0430 19:27:44.529541 25971 layer_factory.hpp:77] Creating layer loss
I0430 19:27:44.529548 25971 net.cpp:86] Creating Layer loss
I0430 19:27:44.529552 25971 net.cpp:408] loss <- ip4
I0430 19:27:44.529557 25971 net.cpp:408] loss <- label
I0430 19:27:44.529563 25971 net.cpp:382] loss -> loss
I0430 19:27:44.529582 25971 layer_factory.hpp:77] Creating layer loss
…
I0430 19:27:44.530207 25971 solver.cpp:173] Creating test net (#0) specified by net file: ECE595/cifar/train_test/var_everything/cifar_train_test_98.prototxt
I0430 19:27:44.530247 25971 net.cpp:296] The NetState phase (1) differed from the phase (0) specified by a rule in layer cifar
I0430 19:27:44.530346 25971 net.cpp:53] Initializing net from parameters: 
name: "CIFAR"
state {
  phase: TEST
}
layer {
  name: "cifar"
  type: "Data"
  top: "data"
  top: "label"
  include {
    phase: TEST
  }
  transform_param {
    mean_file: "examples/cifar10/mean.binaryproto"
  }
  data_param {
    source: "examples/cifar10/cifar10_test_lmdb"
    batch_size: 1000
    backend: LMDB
  }
}
layer {
  name: "ip1"
  type: "InnerProduct"
  bottom: "data"
  top: "ip1"
  param {
    lr_mult: 1
  }
  param {
    lr_mult: 2
  }
  inner_product_param {
    num_output: 40
    weight_filler {
      type: "gaussian"
      std: 0.01
    }
    bias_filler {
      type: "constant"
    }
  }
}
layer {
  name: "relu1"
  type: "ReLU"
  bottom: "ip1"
  top: "ip1"
}
layer {
  name: "ip2"
  type: "InnerProduct"
  bottom: "ip1"
  top: "ip2"
  param {
    lr_mult: 1
  }
  param {
    lr_mult: 2
  }
  inner_product_param {
    num_output: 80
    weight_filler {
      type: "gaussian"
      std: 0.01
    }
    bias_filler {
      type: "constant"
    }
  }
}
layer {
  name: "relu2"
  type: "ReLU"
  bottom: "ip2"
  top: "ip2"
}
layer {
  name: "ip3"
  type: "InnerProduct"
  bottom: "ip2"
  top: "ip3"
  param {
    lr_mult: 1
  }
  param {
    lr_mult: 2
  }
  inner_product_param {
    num_output: 80
    weight_filler {
      type: "gaussian"
      std: 0.01
    }
    bias_filler {
      type: "constant"
    }
  }
}
layer {
  name: "relu3"
  type: "ReLU"
  bottom: "ip3"
  top: "ip3"
}
layer {
  name: "ip4"
  type: "InnerProduct"
  bottom: "ip3"
  top: "ip4"
  param {
    lr_mult: 1
  }
  param {
    lr_mult: 2
  }
  inner_product_param {
    num_output: 10
    weight_filler {
      type: "gaussian"
      std: 0.01
    }
    bias_filler {
      type: "constant"
    }
  }
}
layer {
  name: "accuracy"
  type: "Accuracy"
  bottom: "ip4"
  bottom: "label"
  top: "accuracy"
  include {
    phase: TEST
  }
}
layer {
  name: "loss"
  type: "SoftmaxWithLoss"
  bottom: "ip4"
  bottom: "label"
  top: "loss"
}
I0430 19:27:44.530411 25971 layer_factory.hpp:77] Creating layer cifar
I0430 19:27:44.530460 25971 db_lmdb.cpp:35] Opened lmdb examples/cifar10/cifar10_test_lmdb
I0430 19:27:44.530473 25971 net.cpp:86] Creating Layer cifar
I0430 19:27:44.530479 25971 net.cpp:382] cifar -> data
I0430 19:27:44.530488 25971 net.cpp:382] cifar -> label
I0430 19:27:44.530495 25971 data_transformer.cpp:25] Loading mean file from: examples/cifar10/mean.binaryproto
I0430 19:27:44.530660 25971 data_layer.cpp:45] output data size: 1000,3,32,32
I0430 19:27:44.554600 25971 net.cpp:124] Setting up cifar
I0430 19:27:44.554625 25971 net.cpp:131] Top shape: 1000 3 32 32 (3072000)
I0430 19:27:44.554630 25971 net.cpp:131] Top shape: 1000 (1000)
I0430 19:27:44.554635 25971 net.cpp:139] Memory required for data: 12292000
I0430 19:27:44.554641 25971 layer_factory.hpp:77] Creating layer label_cifar_1_split
I0430 19:27:44.554656 25971 net.cpp:86] Creating Layer label_cifar_1_split
I0430 19:27:44.554661 25971 net.cpp:408] label_cifar_1_split <- label
I0430 19:27:44.554667 25971 net.cpp:382] label_cifar_1_split -> label_cifar_1_split_0
I0430 19:27:44.554675 25971 net.cpp:382] label_cifar_1_split -> label_cifar_1_split_1
I0430 19:27:44.554739 25971 net.cpp:124] Setting up label_cifar_1_split
I0430 19:27:44.554747 25971 net.cpp:131] Top shape: 1000 (1000)
I0430 19:27:44.554751 25971 net.cpp:131] Top shape: 1000 (1000)
I0430 19:27:44.554754 25971 net.cpp:139] Memory required for data: 12300000
I0430 19:27:44.554757 25971 layer_factory.hpp:77] Creating layer ip1
I0430 19:27:44.554765 25971 net.cpp:86] Creating Layer ip1
I0430 19:27:44.554769 25971 net.cpp:408] ip1 <- data
I0430 19:27:44.554774 25971 net.cpp:382] ip1 -> ip1
I0430 19:27:44.558647 25971 net.cpp:124] Setting up ip1
I0430 19:27:44.558660 25971 net.cpp:131] Top shape: 1000 40 (40000)
I0430 19:27:44.558662 25971 net.cpp:139] Memory required for data: 12460000
I0430 19:27:44.558689 25971 layer_factory.hpp:77] Creating layer relu1
I0430 19:27:44.558696 25971 net.cpp:86] Creating Layer relu1
I0430 19:27:44.558701 25971 net.cpp:408] relu1 <- ip1
I0430 19:27:44.558706 25971 net.cpp:369] relu1 -> ip1 (in-place)
I0430 19:27:44.559548 25971 net.cpp:124] Setting up relu1
I0430 19:27:44.559562 25971 net.cpp:131] Top shape: 1000 40 (40000)
I0430 19:27:44.559566 25971 net.cpp:139] Memory required for data: 12620000
I0430 19:27:44.559571 25971 layer_factory.hpp:77] Creating layer ip2
I0430 19:27:44.559581 25971 net.cpp:86] Creating Layer ip2
I0430 19:27:44.559584 25971 net.cpp:408] ip2 <- ip1
I0430 19:27:44.559590 25971 net.cpp:382] ip2 -> ip2
I0430 19:27:44.559809 25971 net.cpp:124] Setting up ip2
I0430 19:27:44.559818 25971 net.cpp:131] Top shape: 1000 80 (80000)
I0430 19:27:44.559821 25971 net.cpp:139] Memory required for data: 12940000
I0430 19:27:44.559829 25971 layer_factory.hpp:77] Creating layer relu2
I0430 19:27:44.559834 25971 net.cpp:86] Creating Layer relu2
I0430 19:27:44.559839 25971 net.cpp:408] relu2 <- ip2
I0430 19:27:44.559844 25971 net.cpp:369] relu2 -> ip2 (in-place)
I0430 19:27:44.560006 25971 net.cpp:124] Setting up relu2
I0430 19:27:44.560015 25971 net.cpp:131] Top shape: 1000 80 (80000)
I0430 19:27:44.560029 25971 net.cpp:139] Memory required for data: 13260000
I0430 19:27:44.560032 25971 layer_factory.hpp:77] Creating layer ip3
I0430 19:27:44.560039 25971 net.cpp:86] Creating Layer ip3
I0430 19:27:44.560042 25971 net.cpp:408] ip3 <- ip2
I0430 19:27:44.560048 25971 net.cpp:382] ip3 -> ip3
I0430 19:27:44.560344 25971 net.cpp:124] Setting up ip3
I0430 19:27:44.560353 25971 net.cpp:131] Top shape: 1000 80 (80000)
I0430 19:27:44.560356 25971 net.cpp:139] Memory required for data: 13580000
I0430 19:27:44.560364 25971 layer_factory.hpp:77] Creating layer relu3
I0430 19:27:44.560369 25971 net.cpp:86] Creating Layer relu3
I0430 19:27:44.560374 25971 net.cpp:408] relu3 <- ip3
I0430 19:27:44.560379 25971 net.cpp:369] relu3 -> ip3 (in-place)
I0430 19:27:44.560544 25971 net.cpp:124] Setting up relu3
I0430 19:27:44.560552 25971 net.cpp:131] Top shape: 1000 80 (80000)
I0430 19:27:44.560555 25971 net.cpp:139] Memory required for data: 13900000
I0430 19:27:44.560559 25971 layer_factory.hpp:77] Creating layer ip4
I0430 19:27:44.560566 25971 net.cpp:86] Creating Layer ip4
I0430 19:27:44.560570 25971 net.cpp:408] ip4 <- ip3
I0430 19:27:44.560575 25971 net.cpp:382] ip4 -> ip4
I0430 19:27:44.560708 25971 net.cpp:124] Setting up ip4
I0430 19:27:44.560715 25971 net.cpp:131] Top shape: 1000 10 (10000)
I0430 19:27:44.560719 25971 net.cpp:139] Memory required for data: 13940000
I0430 19:27:44.560724 25971 layer_factory.hpp:77] Creating layer ip4_ip4_0_split
I0430 19:27:44.560729 25971 net.cpp:86] Creating Layer ip4_ip4_0_split
I0430 19:27:44.560734 25971 net.cpp:408] ip4_ip4_0_split <- ip4
I0430 19:27:44.560739 25971 net.cpp:382] ip4_ip4_0_split -> ip4_ip4_0_split_0
I0430 19:27:44.560745 25971 net.cpp:382] ip4_ip4_0_split -> ip4_ip4_0_split_1
I0430 19:27:44.560776 25971 net.cpp:124] Setting up ip4_ip4_0_split
I0430 19:27:44.560784 25971 net.cpp:131] Top shape: 1000 10 (10000)
I0430 19:27:44.560788 25971 net.cpp:131] Top shape: 1000 10 (10000)
I0430 19:27:44.560791 25971 net.cpp:139] Memory required for data: 14020000
I0430 19:27:44.560794 25971 layer_factory.hpp:77] Creating layer accuracy
I0430 19:27:44.560801 25971 net.cpp:86] Creating Layer accuracy
I0430 19:27:44.560804 25971 net.cpp:408] accuracy <- ip4_ip4_0_split_0
I0430 19:27:44.560816 25971 net.cpp:408] accuracy <- label_cifar_1_split_0
I0430 19:27:44.560822 25971 net.cpp:382] accuracy -> accuracy
…
