…
I0501 06:45:58.116104  1775 net.cpp:296] The NetState phase (0) differed from the phase (1) specified by a rule in layer cifar
I0501 06:45:58.116122  1775 net.cpp:296] The NetState phase (0) differed from the phase (1) specified by a rule in layer accuracy
I0501 06:45:58.116221  1775 net.cpp:53] Initializing net from parameters: 
name: "CIFAR"
state {
  phase: TRAIN
  level: 0
  stage: ""
}
layer {
  name: "cifar"
  type: "Data"
  top: "data"
  top: "label"
  include {
    phase: TRAIN
  }
  transform_param {
    mean_file: "examples/cifar10/mean.binaryproto"
  }
  data_param {
    source: "examples/cifar10/cifar10_train_lmdb"
    batch_size: 111
    backend: LMDB
  }
}
layer {
  name: "conv0"
  type: "Convolution"
  bottom: "data"
  top: "conv0"
  param {
    lr_mult: 1
  }
  param {
    lr_mult: 2
  }
  convolution_param {
    num_output: 8
    pad: 2
    kernel_size: 5
    stride: 1
    weight_filler {
      type: "gaussian"
      std: 0.01
    }
    bias_filler {
      type: "constant"
    }
  }
}
layer {
  name: "Sigmoid0"
  type: "Sigmoid"
  bottom: "conv0"
  top: "Sigmoid0"
}
layer {
  name: "pool0"
  type: "Pooling"
  bottom: "Sigmoid0"
  top: "pool0"
  pooling_param {
    pool: AVE
    kernel_size: 3
    stride: 2
  }
}
layer {
  name: "ip1"
  type: "InnerProduct"
  bottom: "pool0"
  top: "ip1"
  param {
    lr_mult: 1
  }
  param {
    lr_mult: 2
  }
  inner_product_param {
    num_output: 160
    weight_filler {
      type: "gaussian"
      std: 0.01
    }
    bias_filler {
      type: "constant"
    }
  }
}
layer {
  name: "relu1"
  type: "ReLU"
  bottom: "ip1"
  top: "ip1"
}
layer {
  name: "ip2"
  type: "InnerProduct"
  bottom: "ip1"
  top: "ip2"
  param {
    lr_mult: 1
  }
  param {
    lr_mult: 2
  }
  inner_product_param {
    num_output: 160
    weight_filler {
      type: "gaussian"
      std: 0.01
    }
    bias_filler {
      type: "constant"
    }
  }
}
layer {
  name: "relu2"
  type: "ReLU"
  bottom: "ip2"
  top: "ip2"
}
layer {
  name: "ip3"
  type: "InnerProduct"
  bottom: "ip2"
  top: "ip3"
  param {
    lr_mult: 1
  }
  param {
    lr_mult: 2
  }
  inner_product_param {
    num_output: 20
    weight_filler {
      type: "gaussian"
      std: 0.01
    }
    bias_filler {
      type: "constant"
    }
  }
}
layer {
  name: "relu3"
  type: "ReLU"
  bottom: "ip3"
  top: "ip3"
}
layer {
  name: "ip4"
  type: "InnerProduct"
  bottom: "ip3"
  top: "ip4"
  param {
    lr_mult: 1
  }
  param {
    lr_mult: 2
  }
  inner_product_param {
    num_output: 10
    weight_filler {
      type: "gaussian"
      std: 0.01
    }
    bias_filler {
      type: "constant"
    }
  }
}
layer {
  name: "loss"
  type: "SoftmaxWithLoss"
  bottom: "ip4"
  bottom: "label"
  top: "loss"
}
I0501 06:45:58.116295  1775 layer_factory.hpp:77] Creating layer cifar
I0501 06:45:58.116394  1775 db_lmdb.cpp:35] Opened lmdb examples/cifar10/cifar10_train_lmdb
I0501 06:45:58.116420  1775 net.cpp:86] Creating Layer cifar
I0501 06:45:58.116428  1775 net.cpp:382] cifar -> data
I0501 06:45:58.116451  1775 net.cpp:382] cifar -> label
I0501 06:45:58.116463  1775 data_transformer.cpp:25] Loading mean file from: examples/cifar10/mean.binaryproto
I0501 06:45:58.118616  1775 data_layer.cpp:45] output data size: 111,3,32,32
I0501 06:45:58.126646  1775 net.cpp:124] Setting up cifar
I0501 06:45:58.126663  1775 net.cpp:131] Top shape: 111 3 32 32 (340992)
I0501 06:45:58.126669  1775 net.cpp:131] Top shape: 111 (111)
I0501 06:45:58.126673  1775 net.cpp:139] Memory required for data: 1364412
I0501 06:45:58.126698  1775 layer_factory.hpp:77] Creating layer conv0
I0501 06:45:58.126714  1775 net.cpp:86] Creating Layer conv0
I0501 06:45:58.126719  1775 net.cpp:408] conv0 <- data
I0501 06:45:58.126731  1775 net.cpp:382] conv0 -> conv0
I0501 06:45:58.373469  1775 net.cpp:124] Setting up conv0
I0501 06:45:58.373517  1775 net.cpp:131] Top shape: 111 8 32 32 (909312)
I0501 06:45:58.373522  1775 net.cpp:139] Memory required for data: 5001660
I0501 06:45:58.373535  1775 layer_factory.hpp:77] Creating layer Sigmoid0
I0501 06:45:58.373548  1775 net.cpp:86] Creating Layer Sigmoid0
I0501 06:45:58.373551  1775 net.cpp:408] Sigmoid0 <- conv0
I0501 06:45:58.373572  1775 net.cpp:382] Sigmoid0 -> Sigmoid0
I0501 06:45:58.373761  1775 net.cpp:124] Setting up Sigmoid0
I0501 06:45:58.373772  1775 net.cpp:131] Top shape: 111 8 32 32 (909312)
I0501 06:45:58.373775  1775 net.cpp:139] Memory required for data: 8638908
I0501 06:45:58.373778  1775 layer_factory.hpp:77] Creating layer pool0
I0501 06:45:58.373785  1775 net.cpp:86] Creating Layer pool0
I0501 06:45:58.373788  1775 net.cpp:408] pool0 <- Sigmoid0
I0501 06:45:58.373792  1775 net.cpp:382] pool0 -> pool0
I0501 06:45:58.374536  1775 net.cpp:124] Setting up pool0
I0501 06:45:58.374548  1775 net.cpp:131] Top shape: 111 8 16 16 (227328)
I0501 06:45:58.374552  1775 net.cpp:139] Memory required for data: 9548220
I0501 06:45:58.374554  1775 layer_factory.hpp:77] Creating layer ip1
I0501 06:45:58.374562  1775 net.cpp:86] Creating Layer ip1
I0501 06:45:58.374565  1775 net.cpp:408] ip1 <- pool0
I0501 06:45:58.374572  1775 net.cpp:382] ip1 -> ip1
I0501 06:45:58.383594  1775 net.cpp:124] Setting up ip1
I0501 06:45:58.383606  1775 net.cpp:131] Top shape: 111 160 (17760)
I0501 06:45:58.383610  1775 net.cpp:139] Memory required for data: 9619260
I0501 06:45:58.383616  1775 layer_factory.hpp:77] Creating layer relu1
I0501 06:45:58.383622  1775 net.cpp:86] Creating Layer relu1
I0501 06:45:58.383625  1775 net.cpp:408] relu1 <- ip1
I0501 06:45:58.383630  1775 net.cpp:369] relu1 -> ip1 (in-place)
I0501 06:45:58.383821  1775 net.cpp:124] Setting up relu1
I0501 06:45:58.383829  1775 net.cpp:131] Top shape: 111 160 (17760)
I0501 06:45:58.383832  1775 net.cpp:139] Memory required for data: 9690300
I0501 06:45:58.383836  1775 layer_factory.hpp:77] Creating layer ip2
I0501 06:45:58.383841  1775 net.cpp:86] Creating Layer ip2
I0501 06:45:58.383844  1775 net.cpp:408] ip2 <- ip1
I0501 06:45:58.383851  1775 net.cpp:382] ip2 -> ip2
I0501 06:45:58.385488  1775 net.cpp:124] Setting up ip2
I0501 06:45:58.385499  1775 net.cpp:131] Top shape: 111 160 (17760)
I0501 06:45:58.385502  1775 net.cpp:139] Memory required for data: 9761340
I0501 06:45:58.385509  1775 layer_factory.hpp:77] Creating layer relu2
I0501 06:45:58.385515  1775 net.cpp:86] Creating Layer relu2
I0501 06:45:58.385519  1775 net.cpp:408] relu2 <- ip2
I0501 06:45:58.385524  1775 net.cpp:369] relu2 -> ip2 (in-place)
I0501 06:45:58.385700  1775 net.cpp:124] Setting up relu2
I0501 06:45:58.385709  1775 net.cpp:131] Top shape: 111 160 (17760)
I0501 06:45:58.385711  1775 net.cpp:139] Memory required for data: 9832380
I0501 06:45:58.385715  1775 layer_factory.hpp:77] Creating layer ip3
I0501 06:45:58.385722  1775 net.cpp:86] Creating Layer ip3
I0501 06:45:58.385725  1775 net.cpp:408] ip3 <- ip2
I0501 06:45:58.385730  1775 net.cpp:382] ip3 -> ip3
I0501 06:45:58.385900  1775 net.cpp:124] Setting up ip3
I0501 06:45:58.385907  1775 net.cpp:131] Top shape: 111 20 (2220)
I0501 06:45:58.385910  1775 net.cpp:139] Memory required for data: 9841260
I0501 06:45:58.385915  1775 layer_factory.hpp:77] Creating layer relu3
I0501 06:45:58.385920  1775 net.cpp:86] Creating Layer relu3
I0501 06:45:58.385922  1775 net.cpp:408] relu3 <- ip3
I0501 06:45:58.385927  1775 net.cpp:369] relu3 -> ip3 (in-place)
I0501 06:45:58.386077  1775 net.cpp:124] Setting up relu3
I0501 06:45:58.386085  1775 net.cpp:131] Top shape: 111 20 (2220)
I0501 06:45:58.386088  1775 net.cpp:139] Memory required for data: 9850140
I0501 06:45:58.386091  1775 layer_factory.hpp:77] Creating layer ip4
I0501 06:45:58.386112  1775 net.cpp:86] Creating Layer ip4
I0501 06:45:58.386116  1775 net.cpp:408] ip4 <- ip3
I0501 06:45:58.386119  1775 net.cpp:382] ip4 -> ip4
I0501 06:45:58.386234  1775 net.cpp:124] Setting up ip4
I0501 06:45:58.386242  1775 net.cpp:131] Top shape: 111 10 (1110)
I0501 06:45:58.386245  1775 net.cpp:139] Memory required for data: 9854580
I0501 06:45:58.386252  1775 layer_factory.hpp:77] Creating layer loss
I0501 06:45:58.386257  1775 net.cpp:86] Creating Layer loss
I0501 06:45:58.386260  1775 net.cpp:408] loss <- ip4
I0501 06:45:58.386265  1775 net.cpp:408] loss <- label
I0501 06:45:58.386268  1775 net.cpp:382] loss -> loss
I0501 06:45:58.386281  1775 layer_factory.hpp:77] Creating layer loss
…
I0501 06:45:58.387485  1775 solver.cpp:173] Creating test net (#0) specified by net file: ECE595/cifar/train_test/var_everything/cifar_train_test_461.prototxt
I0501 06:45:58.387511  1775 net.cpp:296] The NetState phase (1) differed from the phase (0) specified by a rule in layer cifar
I0501 06:45:58.387619  1775 net.cpp:53] Initializing net from parameters: 
name: "CIFAR"
state {
  phase: TEST
}
layer {
  name: "cifar"
  type: "Data"
  top: "data"
  top: "label"
  include {
    phase: TEST
  }
  transform_param {
    mean_file: "examples/cifar10/mean.binaryproto"
  }
  data_param {
    source: "examples/cifar10/cifar10_test_lmdb"
    batch_size: 1000
    backend: LMDB
  }
}
layer {
  name: "conv0"
  type: "Convolution"
  bottom: "data"
  top: "conv0"
  param {
    lr_mult: 1
  }
  param {
    lr_mult: 2
  }
  convolution_param {
    num_output: 8
    pad: 2
    kernel_size: 5
    stride: 1
    weight_filler {
      type: "gaussian"
      std: 0.01
    }
    bias_filler {
      type: "constant"
    }
  }
}
layer {
  name: "Sigmoid0"
  type: "Sigmoid"
  bottom: "conv0"
  top: "Sigmoid0"
}
layer {
  name: "pool0"
  type: "Pooling"
  bottom: "Sigmoid0"
  top: "pool0"
  pooling_param {
    pool: AVE
    kernel_size: 3
    stride: 2
  }
}
layer {
  name: "ip1"
  type: "InnerProduct"
  bottom: "pool0"
  top: "ip1"
  param {
    lr_mult: 1
  }
  param {
    lr_mult: 2
  }
  inner_product_param {
    num_output: 160
    weight_filler {
      type: "gaussian"
      std: 0.01
    }
    bias_filler {
      type: "constant"
    }
  }
}
layer {
  name: "relu1"
  type: "ReLU"
  bottom: "ip1"
  top: "ip1"
}
layer {
  name: "ip2"
  type: "InnerProduct"
  bottom: "ip1"
  top: "ip2"
  param {
    lr_mult: 1
  }
  param {
    lr_mult: 2
  }
  inner_product_param {
    num_output: 160
    weight_filler {
      type: "gaussian"
      std: 0.01
    }
    bias_filler {
      type: "constant"
    }
  }
}
layer {
  name: "relu2"
  type: "ReLU"
  bottom: "ip2"
  top: "ip2"
}
layer {
  name: "ip3"
  type: "InnerProduct"
  bottom: "ip2"
  top: "ip3"
  param {
    lr_mult: 1
  }
  param {
    lr_mult: 2
  }
  inner_product_param {
    num_output: 20
    weight_filler {
      type: "gaussian"
      std: 0.01
    }
    bias_filler {
      type: "constant"
    }
  }
}
layer {
  name: "relu3"
  type: "ReLU"
  bottom: "ip3"
  top: "ip3"
}
layer {
  name: "ip4"
  type: "InnerProduct"
  bottom: "ip3"
  top: "ip4"
  param {
    lr_mult: 1
  }
  param {
    lr_mult: 2
  }
  inner_product_param {
    num_output: 10
    weight_filler {
      type: "gaussian"
      std: 0.01
    }
    bias_filler {
      type: "constant"
    }
  }
}
layer {
  name: "accuracy"
  type: "Accuracy"
  bottom: "ip4"
  bottom: "label"
  top: "accuracy"
  include {
    phase: TEST
  }
}
layer {
  name: "loss"
  type: "SoftmaxWithLoss"
  bottom: "ip4"
  bottom: "label"
  top: "loss"
}
I0501 06:45:58.387697  1775 layer_factory.hpp:77] Creating layer cifar
I0501 06:45:58.387742  1775 db_lmdb.cpp:35] Opened lmdb examples/cifar10/cifar10_test_lmdb
I0501 06:45:58.387754  1775 net.cpp:86] Creating Layer cifar
I0501 06:45:58.387758  1775 net.cpp:382] cifar -> data
I0501 06:45:58.387765  1775 net.cpp:382] cifar -> label
I0501 06:45:58.387771  1775 data_transformer.cpp:25] Loading mean file from: examples/cifar10/mean.binaryproto
I0501 06:45:58.387912  1775 data_layer.cpp:45] output data size: 1000,3,32,32
I0501 06:45:58.409600  1775 net.cpp:124] Setting up cifar
I0501 06:45:58.409641  1775 net.cpp:131] Top shape: 1000 3 32 32 (3072000)
I0501 06:45:58.409646  1775 net.cpp:131] Top shape: 1000 (1000)
I0501 06:45:58.409649  1775 net.cpp:139] Memory required for data: 12292000
I0501 06:45:58.409656  1775 layer_factory.hpp:77] Creating layer label_cifar_1_split
I0501 06:45:58.409667  1775 net.cpp:86] Creating Layer label_cifar_1_split
I0501 06:45:58.409670  1775 net.cpp:408] label_cifar_1_split <- label
I0501 06:45:58.409678  1775 net.cpp:382] label_cifar_1_split -> label_cifar_1_split_0
I0501 06:45:58.409701  1775 net.cpp:382] label_cifar_1_split -> label_cifar_1_split_1
I0501 06:45:58.409806  1775 net.cpp:124] Setting up label_cifar_1_split
I0501 06:45:58.409813  1775 net.cpp:131] Top shape: 1000 (1000)
I0501 06:45:58.409816  1775 net.cpp:131] Top shape: 1000 (1000)
I0501 06:45:58.409819  1775 net.cpp:139] Memory required for data: 12300000
I0501 06:45:58.409822  1775 layer_factory.hpp:77] Creating layer conv0
I0501 06:45:58.409842  1775 net.cpp:86] Creating Layer conv0
I0501 06:45:58.409845  1775 net.cpp:408] conv0 <- data
I0501 06:45:58.409850  1775 net.cpp:382] conv0 -> conv0
I0501 06:45:58.411411  1775 net.cpp:124] Setting up conv0
I0501 06:45:58.411440  1775 net.cpp:131] Top shape: 1000 8 32 32 (8192000)
I0501 06:45:58.411444  1775 net.cpp:139] Memory required for data: 45068000
I0501 06:45:58.411453  1775 layer_factory.hpp:77] Creating layer Sigmoid0
I0501 06:45:58.411461  1775 net.cpp:86] Creating Layer Sigmoid0
I0501 06:45:58.411464  1775 net.cpp:408] Sigmoid0 <- conv0
I0501 06:45:58.411468  1775 net.cpp:382] Sigmoid0 -> Sigmoid0
I0501 06:45:58.411679  1775 net.cpp:124] Setting up Sigmoid0
I0501 06:45:58.411689  1775 net.cpp:131] Top shape: 1000 8 32 32 (8192000)
I0501 06:45:58.411710  1775 net.cpp:139] Memory required for data: 77836000
I0501 06:45:58.411712  1775 layer_factory.hpp:77] Creating layer pool0
I0501 06:45:58.411721  1775 net.cpp:86] Creating Layer pool0
I0501 06:45:58.411725  1775 net.cpp:408] pool0 <- Sigmoid0
I0501 06:45:58.411731  1775 net.cpp:382] pool0 -> pool0
I0501 06:45:58.412992  1775 net.cpp:124] Setting up pool0
I0501 06:45:58.413017  1775 net.cpp:131] Top shape: 1000 8 16 16 (2048000)
I0501 06:45:58.413022  1775 net.cpp:139] Memory required for data: 86028000
I0501 06:45:58.413024  1775 layer_factory.hpp:77] Creating layer ip1
I0501 06:45:58.413031  1775 net.cpp:86] Creating Layer ip1
I0501 06:45:58.413036  1775 net.cpp:408] ip1 <- pool0
I0501 06:45:58.413043  1775 net.cpp:382] ip1 -> ip1
I0501 06:45:58.422590  1775 net.cpp:124] Setting up ip1
I0501 06:45:58.422618  1775 net.cpp:131] Top shape: 1000 160 (160000)
I0501 06:45:58.422622  1775 net.cpp:139] Memory required for data: 86668000
I0501 06:45:58.422643  1775 layer_factory.hpp:77] Creating layer relu1
I0501 06:45:58.422649  1775 net.cpp:86] Creating Layer relu1
I0501 06:45:58.422653  1775 net.cpp:408] relu1 <- ip1
I0501 06:45:58.422657  1775 net.cpp:369] relu1 -> ip1 (in-place)
I0501 06:45:58.422852  1775 net.cpp:124] Setting up relu1
I0501 06:45:58.422863  1775 net.cpp:131] Top shape: 1000 160 (160000)
I0501 06:45:58.422865  1775 net.cpp:139] Memory required for data: 87308000
I0501 06:45:58.422868  1775 layer_factory.hpp:77] Creating layer ip2
I0501 06:45:58.422875  1775 net.cpp:86] Creating Layer ip2
I0501 06:45:58.422878  1775 net.cpp:408] ip2 <- ip1
I0501 06:45:58.422883  1775 net.cpp:382] ip2 -> ip2
I0501 06:45:58.423702  1775 net.cpp:124] Setting up ip2
I0501 06:45:58.423709  1775 net.cpp:131] Top shape: 1000 160 (160000)
I0501 06:45:58.423727  1775 net.cpp:139] Memory required for data: 87948000
I0501 06:45:58.423734  1775 layer_factory.hpp:77] Creating layer relu2
I0501 06:45:58.423739  1775 net.cpp:86] Creating Layer relu2
I0501 06:45:58.423743  1775 net.cpp:408] relu2 <- ip2
I0501 06:45:58.423748  1775 net.cpp:369] relu2 -> ip2 (in-place)
I0501 06:45:58.424516  1775 net.cpp:124] Setting up relu2
I0501 06:45:58.424545  1775 net.cpp:131] Top shape: 1000 160 (160000)
I0501 06:45:58.424547  1775 net.cpp:139] Memory required for data: 88588000
I0501 06:45:58.424551  1775 layer_factory.hpp:77] Creating layer ip3
I0501 06:45:58.424558  1775 net.cpp:86] Creating Layer ip3
I0501 06:45:58.424562  1775 net.cpp:408] ip3 <- ip2
I0501 06:45:58.424568  1775 net.cpp:382] ip3 -> ip3
I0501 06:45:58.424798  1775 net.cpp:124] Setting up ip3
I0501 06:45:58.424805  1775 net.cpp:131] Top shape: 1000 20 (20000)
I0501 06:45:58.424808  1775 net.cpp:139] Memory required for data: 88668000
I0501 06:45:58.424834  1775 layer_factory.hpp:77] Creating layer relu3
I0501 06:45:58.424854  1775 net.cpp:86] Creating Layer relu3
I0501 06:45:58.424857  1775 net.cpp:408] relu3 <- ip3
I0501 06:45:58.424863  1775 net.cpp:369] relu3 -> ip3 (in-place)
I0501 06:45:58.425055  1775 net.cpp:124] Setting up relu3
I0501 06:45:58.425065  1775 net.cpp:131] Top shape: 1000 20 (20000)
I0501 06:45:58.425068  1775 net.cpp:139] Memory required for data: 88748000
I0501 06:45:58.425071  1775 layer_factory.hpp:77] Creating layer ip4
I0501 06:45:58.425077  1775 net.cpp:86] Creating Layer ip4
I0501 06:45:58.425081  1775 net.cpp:408] ip4 <- ip3
I0501 06:45:58.425086  1775 net.cpp:382] ip4 -> ip4
I0501 06:45:58.425236  1775 net.cpp:124] Setting up ip4
I0501 06:45:58.425243  1775 net.cpp:131] Top shape: 1000 10 (10000)
I0501 06:45:58.425246  1775 net.cpp:139] Memory required for data: 88788000
I0501 06:45:58.425253  1775 layer_factory.hpp:77] Creating layer ip4_ip4_0_split
I0501 06:45:58.425259  1775 net.cpp:86] Creating Layer ip4_ip4_0_split
I0501 06:45:58.425261  1775 net.cpp:408] ip4_ip4_0_split <- ip4
I0501 06:45:58.425266  1775 net.cpp:382] ip4_ip4_0_split -> ip4_ip4_0_split_0
I0501 06:45:58.425271  1775 net.cpp:382] ip4_ip4_0_split -> ip4_ip4_0_split_1
I0501 06:45:58.425302  1775 net.cpp:124] Setting up ip4_ip4_0_split
I0501 06:45:58.425307  1775 net.cpp:131] Top shape: 1000 10 (10000)
I0501 06:45:58.425309  1775 net.cpp:131] Top shape: 1000 10 (10000)
I0501 06:45:58.425312  1775 net.cpp:139] Memory required for data: 88868000
I0501 06:45:58.425315  1775 layer_factory.hpp:77] Creating layer accuracy
I0501 06:45:58.425323  1775 net.cpp:86] Creating Layer accuracy
I0501 06:45:58.425326  1775 net.cpp:408] accuracy <- ip4_ip4_0_split_0
I0501 06:45:58.425330  1775 net.cpp:408] accuracy <- label_cifar_1_split_0
I0501 06:45:58.425335  1775 net.cpp:382] accuracy -> accuracy
…
