…
I0430 16:40:05.067311 17996 net.cpp:296] The NetState phase (0) differed from the phase (1) specified by a rule in layer cifar
I0430 16:40:05.067323 17996 net.cpp:296] The NetState phase (0) differed from the phase (1) specified by a rule in layer accuracy
I0430 16:40:05.067399 17996 net.cpp:53] Initializing net from parameters: 
name: "CIFAR"
state {
  phase: TRAIN
  level: 0
  stage: ""
}
layer {
  name: "cifar"
  type: "Data"
  top: "data"
  top: "label"
  include {
    phase: TRAIN
  }
  transform_param {
    mean_file: "examples/cifar10/mean.binaryproto"
  }
  data_param {
    source: "examples/cifar10/cifar10_train_lmdb"
    batch_size: 111
    backend: LMDB
  }
}
layer {
  name: "ip1"
  type: "InnerProduct"
  bottom: "data"
  top: "ip1"
  param {
    lr_mult: 1
  }
  param {
    lr_mult: 2
  }
  inner_product_param {
    num_output: 20
    weight_filler {
      type: "gaussian"
      std: 0.01
    }
    bias_filler {
      type: "constant"
    }
  }
}
layer {
  name: "relu1"
  type: "ReLU"
  bottom: "ip1"
  top: "ip1"
}
layer {
  name: "ip2"
  type: "InnerProduct"
  bottom: "ip1"
  top: "ip2"
  param {
    lr_mult: 1
  }
  param {
    lr_mult: 2
  }
  inner_product_param {
    num_output: 10
    weight_filler {
      type: "gaussian"
      std: 0.01
    }
    bias_filler {
      type: "constant"
    }
  }
}
layer {
  name: "relu2"
  type: "ReLU"
  bottom: "ip2"
  top: "ip2"
}
layer {
  name: "ip3"
  type: "InnerProduct"
  bottom: "ip2"
  top: "ip3"
  param {
    lr_mult: 1
  }
  param {
    lr_mult: 2
  }
  inner_product_param {
    num_output: 10
    weight_filler {
      type: "gaussian"
      std: 0.01
    }
    bias_filler {
      type: "constant"
    }
  }
}
layer {
  name: "loss"
  type: "SoftmaxWithLoss"
  bottom: "ip3"
  bottom: "label"
  top: "loss"
}
I0430 16:40:05.067463 17996 layer_factory.hpp:77] Creating layer cifar
I0430 16:40:05.067564 17996 db_lmdb.cpp:35] Opened lmdb examples/cifar10/cifar10_train_lmdb
I0430 16:40:05.067592 17996 net.cpp:86] Creating Layer cifar
I0430 16:40:05.067603 17996 net.cpp:382] cifar -> data
I0430 16:40:05.067628 17996 net.cpp:382] cifar -> label
I0430 16:40:05.067642 17996 data_transformer.cpp:25] Loading mean file from: examples/cifar10/mean.binaryproto
I0430 16:40:05.069761 17996 data_layer.cpp:45] output data size: 111,3,32,32
I0430 16:40:05.077641 17996 net.cpp:124] Setting up cifar
I0430 16:40:05.077658 17996 net.cpp:131] Top shape: 111 3 32 32 (340992)
I0430 16:40:05.077664 17996 net.cpp:131] Top shape: 111 (111)
I0430 16:40:05.077668 17996 net.cpp:139] Memory required for data: 1364412
I0430 16:40:05.077677 17996 layer_factory.hpp:77] Creating layer ip1
I0430 16:40:05.077687 17996 net.cpp:86] Creating Layer ip1
I0430 16:40:05.077693 17996 net.cpp:408] ip1 <- data
I0430 16:40:05.077706 17996 net.cpp:382] ip1 -> ip1
I0430 16:40:05.080873 17996 net.cpp:124] Setting up ip1
I0430 16:40:05.080888 17996 net.cpp:131] Top shape: 111 20 (2220)
I0430 16:40:05.080893 17996 net.cpp:139] Memory required for data: 1373292
I0430 16:40:05.080906 17996 layer_factory.hpp:77] Creating layer relu1
I0430 16:40:05.080916 17996 net.cpp:86] Creating Layer relu1
I0430 16:40:05.080920 17996 net.cpp:408] relu1 <- ip1
I0430 16:40:05.080927 17996 net.cpp:369] relu1 -> ip1 (in-place)
I0430 16:40:05.367002 17996 net.cpp:124] Setting up relu1
I0430 16:40:05.367030 17996 net.cpp:131] Top shape: 111 20 (2220)
I0430 16:40:05.367034 17996 net.cpp:139] Memory required for data: 1382172
I0430 16:40:05.367061 17996 layer_factory.hpp:77] Creating layer ip2
I0430 16:40:05.367075 17996 net.cpp:86] Creating Layer ip2
I0430 16:40:05.367079 17996 net.cpp:408] ip2 <- ip1
I0430 16:40:05.367087 17996 net.cpp:382] ip2 -> ip2
I0430 16:40:05.367219 17996 net.cpp:124] Setting up ip2
I0430 16:40:05.367229 17996 net.cpp:131] Top shape: 111 10 (1110)
I0430 16:40:05.367233 17996 net.cpp:139] Memory required for data: 1386612
I0430 16:40:05.367243 17996 layer_factory.hpp:77] Creating layer relu2
I0430 16:40:05.367250 17996 net.cpp:86] Creating Layer relu2
I0430 16:40:05.367254 17996 net.cpp:408] relu2 <- ip2
I0430 16:40:05.367259 17996 net.cpp:369] relu2 -> ip2 (in-place)
I0430 16:40:05.368052 17996 net.cpp:124] Setting up relu2
I0430 16:40:05.368065 17996 net.cpp:131] Top shape: 111 10 (1110)
I0430 16:40:05.368069 17996 net.cpp:139] Memory required for data: 1391052
I0430 16:40:05.368073 17996 layer_factory.hpp:77] Creating layer ip3
I0430 16:40:05.368082 17996 net.cpp:86] Creating Layer ip3
I0430 16:40:05.368084 17996 net.cpp:408] ip3 <- ip2
I0430 16:40:05.368090 17996 net.cpp:382] ip3 -> ip3
I0430 16:40:05.368196 17996 net.cpp:124] Setting up ip3
I0430 16:40:05.368204 17996 net.cpp:131] Top shape: 111 10 (1110)
I0430 16:40:05.368207 17996 net.cpp:139] Memory required for data: 1395492
I0430 16:40:05.368216 17996 layer_factory.hpp:77] Creating layer loss
I0430 16:40:05.368221 17996 net.cpp:86] Creating Layer loss
I0430 16:40:05.368224 17996 net.cpp:408] loss <- ip3
I0430 16:40:05.368228 17996 net.cpp:408] loss <- label
I0430 16:40:05.368234 17996 net.cpp:382] loss -> loss
I0430 16:40:05.368253 17996 layer_factory.hpp:77] Creating layer loss
…
I0430 16:40:05.368801 17996 solver.cpp:173] Creating test net (#0) specified by net file: ECE595/cifar/train_test/var_everything/cifar_train_test_10.prototxt
I0430 16:40:05.368831 17996 net.cpp:296] The NetState phase (1) differed from the phase (0) specified by a rule in layer cifar
I0430 16:40:05.368922 17996 net.cpp:53] Initializing net from parameters: 
name: "CIFAR"
state {
  phase: TEST
}
layer {
  name: "cifar"
  type: "Data"
  top: "data"
  top: "label"
  include {
    phase: TEST
  }
  transform_param {
    mean_file: "examples/cifar10/mean.binaryproto"
  }
  data_param {
    source: "examples/cifar10/cifar10_test_lmdb"
    batch_size: 1000
    backend: LMDB
  }
}
layer {
  name: "ip1"
  type: "InnerProduct"
  bottom: "data"
  top: "ip1"
  param {
    lr_mult: 1
  }
  param {
    lr_mult: 2
  }
  inner_product_param {
    num_output: 20
    weight_filler {
      type: "gaussian"
      std: 0.01
    }
    bias_filler {
      type: "constant"
    }
  }
}
layer {
  name: "relu1"
  type: "ReLU"
  bottom: "ip1"
  top: "ip1"
}
layer {
  name: "ip2"
  type: "InnerProduct"
  bottom: "ip1"
  top: "ip2"
  param {
    lr_mult: 1
  }
  param {
    lr_mult: 2
  }
  inner_product_param {
    num_output: 10
    weight_filler {
      type: "gaussian"
      std: 0.01
    }
    bias_filler {
      type: "constant"
    }
  }
}
layer {
  name: "relu2"
  type: "ReLU"
  bottom: "ip2"
  top: "ip2"
}
layer {
  name: "ip3"
  type: "InnerProduct"
  bottom: "ip2"
  top: "ip3"
  param {
    lr_mult: 1
  }
  param {
    lr_mult: 2
  }
  inner_product_param {
    num_output: 10
    weight_filler {
      type: "gaussian"
      std: 0.01
    }
    bias_filler {
      type: "constant"
    }
  }
}
layer {
  name: "accuracy"
  type: "Accuracy"
  bottom: "ip3"
  bottom: "label"
  top: "accuracy"
  include {
    phase: TEST
  }
}
layer {
  name: "loss"
  type: "SoftmaxWithLoss"
  bottom: "ip3"
  bottom: "label"
  top: "loss"
}
I0430 16:40:05.368994 17996 layer_factory.hpp:77] Creating layer cifar
I0430 16:40:05.369040 17996 db_lmdb.cpp:35] Opened lmdb examples/cifar10/cifar10_test_lmdb
I0430 16:40:05.369053 17996 net.cpp:86] Creating Layer cifar
I0430 16:40:05.369058 17996 net.cpp:382] cifar -> data
I0430 16:40:05.369067 17996 net.cpp:382] cifar -> label
I0430 16:40:05.369074 17996 data_transformer.cpp:25] Loading mean file from: examples/cifar10/mean.binaryproto
I0430 16:40:05.369241 17996 data_layer.cpp:45] output data size: 1000,3,32,32
I0430 16:40:05.392951 17996 net.cpp:124] Setting up cifar
I0430 16:40:05.392978 17996 net.cpp:131] Top shape: 1000 3 32 32 (3072000)
I0430 16:40:05.392984 17996 net.cpp:131] Top shape: 1000 (1000)
I0430 16:40:05.392988 17996 net.cpp:139] Memory required for data: 12292000
I0430 16:40:05.392993 17996 layer_factory.hpp:77] Creating layer label_cifar_1_split
I0430 16:40:05.393010 17996 net.cpp:86] Creating Layer label_cifar_1_split
I0430 16:40:05.393014 17996 net.cpp:408] label_cifar_1_split <- label
I0430 16:40:05.393020 17996 net.cpp:382] label_cifar_1_split -> label_cifar_1_split_0
I0430 16:40:05.393029 17996 net.cpp:382] label_cifar_1_split -> label_cifar_1_split_1
I0430 16:40:05.393121 17996 net.cpp:124] Setting up label_cifar_1_split
I0430 16:40:05.393127 17996 net.cpp:131] Top shape: 1000 (1000)
I0430 16:40:05.393131 17996 net.cpp:131] Top shape: 1000 (1000)
I0430 16:40:05.393134 17996 net.cpp:139] Memory required for data: 12300000
I0430 16:40:05.393137 17996 layer_factory.hpp:77] Creating layer ip1
I0430 16:40:05.393146 17996 net.cpp:86] Creating Layer ip1
I0430 16:40:05.393149 17996 net.cpp:408] ip1 <- data
I0430 16:40:05.393154 17996 net.cpp:382] ip1 -> ip1
I0430 16:40:05.395664 17996 net.cpp:124] Setting up ip1
I0430 16:40:05.395674 17996 net.cpp:131] Top shape: 1000 20 (20000)
I0430 16:40:05.395678 17996 net.cpp:139] Memory required for data: 12380000
I0430 16:40:05.395687 17996 layer_factory.hpp:77] Creating layer relu1
I0430 16:40:05.395694 17996 net.cpp:86] Creating Layer relu1
I0430 16:40:05.395696 17996 net.cpp:408] relu1 <- ip1
I0430 16:40:05.395700 17996 net.cpp:369] relu1 -> ip1 (in-place)
I0430 16:40:05.395876 17996 net.cpp:124] Setting up relu1
I0430 16:40:05.395885 17996 net.cpp:131] Top shape: 1000 20 (20000)
I0430 16:40:05.395889 17996 net.cpp:139] Memory required for data: 12460000
I0430 16:40:05.395894 17996 layer_factory.hpp:77] Creating layer ip2
I0430 16:40:05.395900 17996 net.cpp:86] Creating Layer ip2
I0430 16:40:05.395905 17996 net.cpp:408] ip2 <- ip1
I0430 16:40:05.395908 17996 net.cpp:382] ip2 -> ip2
I0430 16:40:05.396011 17996 net.cpp:124] Setting up ip2
I0430 16:40:05.396019 17996 net.cpp:131] Top shape: 1000 10 (10000)
I0430 16:40:05.396023 17996 net.cpp:139] Memory required for data: 12500000
I0430 16:40:05.396035 17996 layer_factory.hpp:77] Creating layer relu2
I0430 16:40:05.396040 17996 net.cpp:86] Creating Layer relu2
I0430 16:40:05.396044 17996 net.cpp:408] relu2 <- ip2
I0430 16:40:05.396049 17996 net.cpp:369] relu2 -> ip2 (in-place)
I0430 16:40:05.396795 17996 net.cpp:124] Setting up relu2
I0430 16:40:05.396808 17996 net.cpp:131] Top shape: 1000 10 (10000)
I0430 16:40:05.396819 17996 net.cpp:139] Memory required for data: 12540000
I0430 16:40:05.396822 17996 layer_factory.hpp:77] Creating layer ip3
I0430 16:40:05.396829 17996 net.cpp:86] Creating Layer ip3
I0430 16:40:05.396833 17996 net.cpp:408] ip3 <- ip2
I0430 16:40:05.396838 17996 net.cpp:382] ip3 -> ip3
I0430 16:40:05.396960 17996 net.cpp:124] Setting up ip3
I0430 16:40:05.396970 17996 net.cpp:131] Top shape: 1000 10 (10000)
I0430 16:40:05.396972 17996 net.cpp:139] Memory required for data: 12580000
I0430 16:40:05.396994 17996 layer_factory.hpp:77] Creating layer ip3_ip3_0_split
I0430 16:40:05.397001 17996 net.cpp:86] Creating Layer ip3_ip3_0_split
I0430 16:40:05.397003 17996 net.cpp:408] ip3_ip3_0_split <- ip3
I0430 16:40:05.397008 17996 net.cpp:382] ip3_ip3_0_split -> ip3_ip3_0_split_0
I0430 16:40:05.397014 17996 net.cpp:382] ip3_ip3_0_split -> ip3_ip3_0_split_1
I0430 16:40:05.397047 17996 net.cpp:124] Setting up ip3_ip3_0_split
I0430 16:40:05.397052 17996 net.cpp:131] Top shape: 1000 10 (10000)
I0430 16:40:05.397055 17996 net.cpp:131] Top shape: 1000 10 (10000)
I0430 16:40:05.397059 17996 net.cpp:139] Memory required for data: 12660000
I0430 16:40:05.397063 17996 layer_factory.hpp:77] Creating layer accuracy
I0430 16:40:05.397073 17996 net.cpp:86] Creating Layer accuracy
I0430 16:40:05.397076 17996 net.cpp:408] accuracy <- ip3_ip3_0_split_0
I0430 16:40:05.397080 17996 net.cpp:408] accuracy <- label_cifar_1_split_0
I0430 16:40:05.397085 17996 net.cpp:382] accuracy -> accuracy
…
