…
I0430 17:14:04.206755 19128 net.cpp:296] The NetState phase (0) differed from the phase (1) specified by a rule in layer cifar
I0430 17:14:04.206769 19128 net.cpp:296] The NetState phase (0) differed from the phase (1) specified by a rule in layer accuracy
I0430 17:14:04.206843 19128 net.cpp:53] Initializing net from parameters: 
name: "CIFAR"
state {
  phase: TRAIN
  level: 0
  stage: ""
}
layer {
  name: "cifar"
  type: "Data"
  top: "data"
  top: "label"
  include {
    phase: TRAIN
  }
  transform_param {
    mean_file: "examples/cifar10/mean.binaryproto"
  }
  data_param {
    source: "examples/cifar10/cifar10_train_lmdb"
    batch_size: 111
    backend: LMDB
  }
}
layer {
  name: "ip1"
  type: "InnerProduct"
  bottom: "data"
  top: "ip1"
  param {
    lr_mult: 1
  }
  param {
    lr_mult: 2
  }
  inner_product_param {
    num_output: 160
    weight_filler {
      type: "gaussian"
      std: 0.01
    }
    bias_filler {
      type: "constant"
    }
  }
}
layer {
  name: "relu1"
  type: "ReLU"
  bottom: "ip1"
  top: "ip1"
}
layer {
  name: "ip2"
  type: "InnerProduct"
  bottom: "ip1"
  top: "ip2"
  param {
    lr_mult: 1
  }
  param {
    lr_mult: 2
  }
  inner_product_param {
    num_output: 80
    weight_filler {
      type: "gaussian"
      std: 0.01
    }
    bias_filler {
      type: "constant"
    }
  }
}
layer {
  name: "relu2"
  type: "ReLU"
  bottom: "ip2"
  top: "ip2"
}
layer {
  name: "ip3"
  type: "InnerProduct"
  bottom: "ip2"
  top: "ip3"
  param {
    lr_mult: 1
  }
  param {
    lr_mult: 2
  }
  inner_product_param {
    num_output: 10
    weight_filler {
      type: "gaussian"
      std: 0.01
    }
    bias_filler {
      type: "constant"
    }
  }
}
layer {
  name: "loss"
  type: "SoftmaxWithLoss"
  bottom: "ip3"
  bottom: "label"
  top: "loss"
}
I0430 17:14:04.206903 19128 layer_factory.hpp:77] Creating layer cifar
I0430 17:14:04.207002 19128 db_lmdb.cpp:35] Opened lmdb examples/cifar10/cifar10_train_lmdb
I0430 17:14:04.207031 19128 net.cpp:86] Creating Layer cifar
I0430 17:14:04.207038 19128 net.cpp:382] cifar -> data
I0430 17:14:04.207062 19128 net.cpp:382] cifar -> label
I0430 17:14:04.207073 19128 data_transformer.cpp:25] Loading mean file from: examples/cifar10/mean.binaryproto
I0430 17:14:04.209187 19128 data_layer.cpp:45] output data size: 111,3,32,32
I0430 17:14:04.217078 19128 net.cpp:124] Setting up cifar
I0430 17:14:04.217097 19128 net.cpp:131] Top shape: 111 3 32 32 (340992)
I0430 17:14:04.217104 19128 net.cpp:131] Top shape: 111 (111)
I0430 17:14:04.217108 19128 net.cpp:139] Memory required for data: 1364412
I0430 17:14:04.217116 19128 layer_factory.hpp:77] Creating layer ip1
I0430 17:14:04.217128 19128 net.cpp:86] Creating Layer ip1
I0430 17:14:04.217133 19128 net.cpp:408] ip1 <- data
I0430 17:14:04.217144 19128 net.cpp:382] ip1 -> ip1
I0430 17:14:04.234416 19128 net.cpp:124] Setting up ip1
I0430 17:14:04.234431 19128 net.cpp:131] Top shape: 111 160 (17760)
I0430 17:14:04.234436 19128 net.cpp:139] Memory required for data: 1435452
I0430 17:14:04.234450 19128 layer_factory.hpp:77] Creating layer relu1
I0430 17:14:04.234459 19128 net.cpp:86] Creating Layer relu1
I0430 17:14:04.234464 19128 net.cpp:408] relu1 <- ip1
I0430 17:14:04.234470 19128 net.cpp:369] relu1 -> ip1 (in-place)
I0430 17:14:04.520444 19128 net.cpp:124] Setting up relu1
I0430 17:14:04.520473 19128 net.cpp:131] Top shape: 111 160 (17760)
I0430 17:14:04.520478 19128 net.cpp:139] Memory required for data: 1506492
I0430 17:14:04.520503 19128 layer_factory.hpp:77] Creating layer ip2
I0430 17:14:04.520516 19128 net.cpp:86] Creating Layer ip2
I0430 17:14:04.520521 19128 net.cpp:408] ip2 <- ip1
I0430 17:14:04.520529 19128 net.cpp:382] ip2 -> ip2
I0430 17:14:04.521970 19128 net.cpp:124] Setting up ip2
I0430 17:14:04.521984 19128 net.cpp:131] Top shape: 111 80 (8880)
I0430 17:14:04.521988 19128 net.cpp:139] Memory required for data: 1542012
I0430 17:14:04.521999 19128 layer_factory.hpp:77] Creating layer relu2
I0430 17:14:04.522007 19128 net.cpp:86] Creating Layer relu2
I0430 17:14:04.522011 19128 net.cpp:408] relu2 <- ip2
I0430 17:14:04.522017 19128 net.cpp:369] relu2 -> ip2 (in-place)
I0430 17:14:04.522792 19128 net.cpp:124] Setting up relu2
I0430 17:14:04.522805 19128 net.cpp:131] Top shape: 111 80 (8880)
I0430 17:14:04.522811 19128 net.cpp:139] Memory required for data: 1577532
I0430 17:14:04.522815 19128 layer_factory.hpp:77] Creating layer ip3
I0430 17:14:04.522822 19128 net.cpp:86] Creating Layer ip3
I0430 17:14:04.522826 19128 net.cpp:408] ip3 <- ip2
I0430 17:14:04.522832 19128 net.cpp:382] ip3 -> ip3
I0430 17:14:04.523828 19128 net.cpp:124] Setting up ip3
I0430 17:14:04.523843 19128 net.cpp:131] Top shape: 111 10 (1110)
I0430 17:14:04.523845 19128 net.cpp:139] Memory required for data: 1581972
I0430 17:14:04.523854 19128 layer_factory.hpp:77] Creating layer loss
I0430 17:14:04.523861 19128 net.cpp:86] Creating Layer loss
I0430 17:14:04.523864 19128 net.cpp:408] loss <- ip3
I0430 17:14:04.523869 19128 net.cpp:408] loss <- label
I0430 17:14:04.523875 19128 net.cpp:382] loss -> loss
I0430 17:14:04.523895 19128 layer_factory.hpp:77] Creating layer loss
…
I0430 17:14:04.524453 19128 solver.cpp:173] Creating test net (#0) specified by net file: ECE595/cifar/train_test/var_everything/cifar_train_test_28.prototxt
I0430 17:14:04.524477 19128 net.cpp:296] The NetState phase (1) differed from the phase (0) specified by a rule in layer cifar
I0430 17:14:04.524551 19128 net.cpp:53] Initializing net from parameters: 
name: "CIFAR"
state {
  phase: TEST
}
layer {
  name: "cifar"
  type: "Data"
  top: "data"
  top: "label"
  include {
    phase: TEST
  }
  transform_param {
    mean_file: "examples/cifar10/mean.binaryproto"
  }
  data_param {
    source: "examples/cifar10/cifar10_test_lmdb"
    batch_size: 1000
    backend: LMDB
  }
}
layer {
  name: "ip1"
  type: "InnerProduct"
  bottom: "data"
  top: "ip1"
  param {
    lr_mult: 1
  }
  param {
    lr_mult: 2
  }
  inner_product_param {
    num_output: 160
    weight_filler {
      type: "gaussian"
      std: 0.01
    }
    bias_filler {
      type: "constant"
    }
  }
}
layer {
  name: "relu1"
  type: "ReLU"
  bottom: "ip1"
  top: "ip1"
}
layer {
  name: "ip2"
  type: "InnerProduct"
  bottom: "ip1"
  top: "ip2"
  param {
    lr_mult: 1
  }
  param {
    lr_mult: 2
  }
  inner_product_param {
    num_output: 80
    weight_filler {
      type: "gaussian"
      std: 0.01
    }
    bias_filler {
      type: "constant"
    }
  }
}
layer {
  name: "relu2"
  type: "ReLU"
  bottom: "ip2"
  top: "ip2"
}
layer {
  name: "ip3"
  type: "InnerProduct"
  bottom: "ip2"
  top: "ip3"
  param {
    lr_mult: 1
  }
  param {
    lr_mult: 2
  }
  inner_product_param {
    num_output: 10
    weight_filler {
      type: "gaussian"
      std: 0.01
    }
    bias_filler {
      type: "constant"
    }
  }
}
layer {
  name: "accuracy"
  type: "Accuracy"
  bottom: "ip3"
  bottom: "label"
  top: "accuracy"
  include {
    phase: TEST
  }
}
layer {
  name: "loss"
  type: "SoftmaxWithLoss"
  bottom: "ip3"
  bottom: "label"
  top: "loss"
}
I0430 17:14:04.524621 19128 layer_factory.hpp:77] Creating layer cifar
I0430 17:14:04.524668 19128 db_lmdb.cpp:35] Opened lmdb examples/cifar10/cifar10_test_lmdb
I0430 17:14:04.524682 19128 net.cpp:86] Creating Layer cifar
I0430 17:14:04.524686 19128 net.cpp:382] cifar -> data
I0430 17:14:04.524695 19128 net.cpp:382] cifar -> label
I0430 17:14:04.524703 19128 data_transformer.cpp:25] Loading mean file from: examples/cifar10/mean.binaryproto
I0430 17:14:04.524864 19128 data_layer.cpp:45] output data size: 1000,3,32,32
I0430 17:14:04.547864 19128 net.cpp:124] Setting up cifar
I0430 17:14:04.547890 19128 net.cpp:131] Top shape: 1000 3 32 32 (3072000)
I0430 17:14:04.547896 19128 net.cpp:131] Top shape: 1000 (1000)
I0430 17:14:04.547900 19128 net.cpp:139] Memory required for data: 12292000
I0430 17:14:04.547906 19128 layer_factory.hpp:77] Creating layer label_cifar_1_split
I0430 17:14:04.547924 19128 net.cpp:86] Creating Layer label_cifar_1_split
I0430 17:14:04.547929 19128 net.cpp:408] label_cifar_1_split <- label
I0430 17:14:04.547935 19128 net.cpp:382] label_cifar_1_split -> label_cifar_1_split_0
I0430 17:14:04.547945 19128 net.cpp:382] label_cifar_1_split -> label_cifar_1_split_1
I0430 17:14:04.548061 19128 net.cpp:124] Setting up label_cifar_1_split
I0430 17:14:04.548069 19128 net.cpp:131] Top shape: 1000 (1000)
I0430 17:14:04.548074 19128 net.cpp:131] Top shape: 1000 (1000)
I0430 17:14:04.548076 19128 net.cpp:139] Memory required for data: 12300000
I0430 17:14:04.548079 19128 layer_factory.hpp:77] Creating layer ip1
I0430 17:14:04.548089 19128 net.cpp:86] Creating Layer ip1
I0430 17:14:04.548092 19128 net.cpp:408] ip1 <- data
I0430 17:14:04.548097 19128 net.cpp:382] ip1 -> ip1
I0430 17:14:04.562659 19128 net.cpp:124] Setting up ip1
I0430 17:14:04.562674 19128 net.cpp:131] Top shape: 1000 160 (160000)
I0430 17:14:04.562678 19128 net.cpp:139] Memory required for data: 12940000
I0430 17:14:04.562688 19128 layer_factory.hpp:77] Creating layer relu1
I0430 17:14:04.562695 19128 net.cpp:86] Creating Layer relu1
I0430 17:14:04.562700 19128 net.cpp:408] relu1 <- ip1
I0430 17:14:04.562705 19128 net.cpp:369] relu1 -> ip1 (in-place)
I0430 17:14:04.562889 19128 net.cpp:124] Setting up relu1
I0430 17:14:04.562899 19128 net.cpp:131] Top shape: 1000 160 (160000)
I0430 17:14:04.562902 19128 net.cpp:139] Memory required for data: 13580000
I0430 17:14:04.562906 19128 layer_factory.hpp:77] Creating layer ip2
I0430 17:14:04.562913 19128 net.cpp:86] Creating Layer ip2
I0430 17:14:04.562916 19128 net.cpp:408] ip2 <- ip1
I0430 17:14:04.562922 19128 net.cpp:382] ip2 -> ip2
I0430 17:14:04.563371 19128 net.cpp:124] Setting up ip2
I0430 17:14:04.563379 19128 net.cpp:131] Top shape: 1000 80 (80000)
I0430 17:14:04.563381 19128 net.cpp:139] Memory required for data: 13900000
I0430 17:14:04.563388 19128 layer_factory.hpp:77] Creating layer relu2
I0430 17:14:04.563393 19128 net.cpp:86] Creating Layer relu2
I0430 17:14:04.563396 19128 net.cpp:408] relu2 <- ip2
I0430 17:14:04.563400 19128 net.cpp:369] relu2 -> ip2 (in-place)
I0430 17:14:04.564155 19128 net.cpp:124] Setting up relu2
I0430 17:14:04.564167 19128 net.cpp:131] Top shape: 1000 80 (80000)
I0430 17:14:04.564172 19128 net.cpp:139] Memory required for data: 14220000
I0430 17:14:04.564174 19128 layer_factory.hpp:77] Creating layer ip3
I0430 17:14:04.564182 19128 net.cpp:86] Creating Layer ip3
I0430 17:14:04.564184 19128 net.cpp:408] ip3 <- ip2
I0430 17:14:04.564190 19128 net.cpp:382] ip3 -> ip3
I0430 17:14:04.564318 19128 net.cpp:124] Setting up ip3
I0430 17:14:04.564326 19128 net.cpp:131] Top shape: 1000 10 (10000)
I0430 17:14:04.564328 19128 net.cpp:139] Memory required for data: 14260000
I0430 17:14:04.564352 19128 layer_factory.hpp:77] Creating layer ip3_ip3_0_split
I0430 17:14:04.564357 19128 net.cpp:86] Creating Layer ip3_ip3_0_split
I0430 17:14:04.564362 19128 net.cpp:408] ip3_ip3_0_split <- ip3
I0430 17:14:04.564365 19128 net.cpp:382] ip3_ip3_0_split -> ip3_ip3_0_split_0
I0430 17:14:04.564370 19128 net.cpp:382] ip3_ip3_0_split -> ip3_ip3_0_split_1
I0430 17:14:04.564404 19128 net.cpp:124] Setting up ip3_ip3_0_split
I0430 17:14:04.564412 19128 net.cpp:131] Top shape: 1000 10 (10000)
I0430 17:14:04.564416 19128 net.cpp:131] Top shape: 1000 10 (10000)
I0430 17:14:04.564419 19128 net.cpp:139] Memory required for data: 14340000
I0430 17:14:04.564422 19128 layer_factory.hpp:77] Creating layer accuracy
I0430 17:14:04.564430 19128 net.cpp:86] Creating Layer accuracy
I0430 17:14:04.564434 19128 net.cpp:408] accuracy <- ip3_ip3_0_split_0
I0430 17:14:04.564437 19128 net.cpp:408] accuracy <- label_cifar_1_split_0
I0430 17:14:04.564442 19128 net.cpp:382] accuracy -> accuracy
…
