…
I0501 05:46:38.847121 30320 net.cpp:296] The NetState phase (0) differed from the phase (1) specified by a rule in layer cifar
I0501 05:46:38.847134 30320 net.cpp:296] The NetState phase (0) differed from the phase (1) specified by a rule in layer accuracy
I0501 05:46:38.847226 30320 net.cpp:53] Initializing net from parameters: 
name: "CIFAR"
state {
  phase: TRAIN
  level: 0
  stage: ""
}
layer {
  name: "cifar"
  type: "Data"
  top: "data"
  top: "label"
  include {
    phase: TRAIN
  }
  transform_param {
    mean_file: "examples/cifar10/mean.binaryproto"
  }
  data_param {
    source: "examples/cifar10/cifar10_train_lmdb"
    batch_size: 111
    backend: LMDB
  }
}
layer {
  name: "conv0"
  type: "Convolution"
  bottom: "data"
  top: "conv0"
  param {
    lr_mult: 1
  }
  param {
    lr_mult: 2
  }
  convolution_param {
    num_output: 8
    pad: 2
    kernel_size: 5
    stride: 1
    weight_filler {
      type: "gaussian"
      std: 0.01
    }
    bias_filler {
      type: "constant"
    }
  }
}
layer {
  name: "Sigmoid0"
  type: "Sigmoid"
  bottom: "conv0"
  top: "Sigmoid0"
}
layer {
  name: "pool0"
  type: "Pooling"
  bottom: "Sigmoid0"
  top: "pool0"
  pooling_param {
    pool: AVE
    kernel_size: 3
    stride: 2
  }
}
layer {
  name: "ip1"
  type: "InnerProduct"
  bottom: "pool0"
  top: "ip1"
  param {
    lr_mult: 1
  }
  param {
    lr_mult: 2
  }
  inner_product_param {
    num_output: 80
    weight_filler {
      type: "gaussian"
      std: 0.01
    }
    bias_filler {
      type: "constant"
    }
  }
}
layer {
  name: "relu1"
  type: "ReLU"
  bottom: "ip1"
  top: "ip1"
}
layer {
  name: "ip2"
  type: "InnerProduct"
  bottom: "ip1"
  top: "ip2"
  param {
    lr_mult: 1
  }
  param {
    lr_mult: 2
  }
  inner_product_param {
    num_output: 40
    weight_filler {
      type: "gaussian"
      std: 0.01
    }
    bias_filler {
      type: "constant"
    }
  }
}
layer {
  name: "relu2"
  type: "ReLU"
  bottom: "ip2"
  top: "ip2"
}
layer {
  name: "ip3"
  type: "InnerProduct"
  bottom: "ip2"
  top: "ip3"
  param {
    lr_mult: 1
  }
  param {
    lr_mult: 2
  }
  inner_product_param {
    num_output: 160
    weight_filler {
      type: "gaussian"
      std: 0.01
    }
    bias_filler {
      type: "constant"
    }
  }
}
layer {
  name: "relu3"
  type: "ReLU"
  bottom: "ip3"
  top: "ip3"
}
layer {
  name: "ip4"
  type: "InnerProduct"
  bottom: "ip3"
  top: "ip4"
  param {
    lr_mult: 1
  }
  param {
    lr_mult: 2
  }
  inner_product_param {
    num_output: 10
    weight_filler {
      type: "gaussian"
      std: 0.01
    }
    bias_filler {
      type: "constant"
    }
  }
}
layer {
  name: "loss"
  type: "SoftmaxWithLoss"
  bottom: "ip4"
  bottom: "label"
  top: "loss"
}
I0501 05:46:38.847285 30320 layer_factory.hpp:77] Creating layer cifar
I0501 05:46:38.847365 30320 db_lmdb.cpp:35] Opened lmdb examples/cifar10/cifar10_train_lmdb
I0501 05:46:38.847386 30320 net.cpp:86] Creating Layer cifar
I0501 05:46:38.847393 30320 net.cpp:382] cifar -> data
I0501 05:46:38.847411 30320 net.cpp:382] cifar -> label
I0501 05:46:38.847420 30320 data_transformer.cpp:25] Loading mean file from: examples/cifar10/mean.binaryproto
I0501 05:46:38.849195 30320 data_layer.cpp:45] output data size: 111,3,32,32
I0501 05:46:38.855653 30320 net.cpp:124] Setting up cifar
I0501 05:46:38.855684 30320 net.cpp:131] Top shape: 111 3 32 32 (340992)
I0501 05:46:38.855689 30320 net.cpp:131] Top shape: 111 (111)
I0501 05:46:38.855691 30320 net.cpp:139] Memory required for data: 1364412
I0501 05:46:38.855727 30320 layer_factory.hpp:77] Creating layer conv0
I0501 05:46:38.855743 30320 net.cpp:86] Creating Layer conv0
I0501 05:46:38.855748 30320 net.cpp:408] conv0 <- data
I0501 05:46:38.855758 30320 net.cpp:382] conv0 -> conv0
I0501 05:46:39.081305 30320 net.cpp:124] Setting up conv0
I0501 05:46:39.081333 30320 net.cpp:131] Top shape: 111 8 32 32 (909312)
I0501 05:46:39.081337 30320 net.cpp:139] Memory required for data: 5001660
I0501 05:46:39.081351 30320 layer_factory.hpp:77] Creating layer Sigmoid0
I0501 05:46:39.081362 30320 net.cpp:86] Creating Layer Sigmoid0
I0501 05:46:39.081365 30320 net.cpp:408] Sigmoid0 <- conv0
I0501 05:46:39.081370 30320 net.cpp:382] Sigmoid0 -> Sigmoid0
I0501 05:46:39.081549 30320 net.cpp:124] Setting up Sigmoid0
I0501 05:46:39.081559 30320 net.cpp:131] Top shape: 111 8 32 32 (909312)
I0501 05:46:39.081562 30320 net.cpp:139] Memory required for data: 8638908
I0501 05:46:39.081565 30320 layer_factory.hpp:77] Creating layer pool0
I0501 05:46:39.081573 30320 net.cpp:86] Creating Layer pool0
I0501 05:46:39.081575 30320 net.cpp:408] pool0 <- Sigmoid0
I0501 05:46:39.081580 30320 net.cpp:382] pool0 -> pool0
I0501 05:46:39.082275 30320 net.cpp:124] Setting up pool0
I0501 05:46:39.082288 30320 net.cpp:131] Top shape: 111 8 16 16 (227328)
I0501 05:46:39.082290 30320 net.cpp:139] Memory required for data: 9548220
I0501 05:46:39.082293 30320 layer_factory.hpp:77] Creating layer ip1
I0501 05:46:39.082306 30320 net.cpp:86] Creating Layer ip1
I0501 05:46:39.082309 30320 net.cpp:408] ip1 <- pool0
I0501 05:46:39.082314 30320 net.cpp:382] ip1 -> ip1
I0501 05:46:39.086454 30320 net.cpp:124] Setting up ip1
I0501 05:46:39.086463 30320 net.cpp:131] Top shape: 111 80 (8880)
I0501 05:46:39.086483 30320 net.cpp:139] Memory required for data: 9583740
I0501 05:46:39.086504 30320 layer_factory.hpp:77] Creating layer relu1
I0501 05:46:39.086509 30320 net.cpp:86] Creating Layer relu1
I0501 05:46:39.086513 30320 net.cpp:408] relu1 <- ip1
I0501 05:46:39.086531 30320 net.cpp:369] relu1 -> ip1 (in-place)
I0501 05:46:39.086686 30320 net.cpp:124] Setting up relu1
I0501 05:46:39.086697 30320 net.cpp:131] Top shape: 111 80 (8880)
I0501 05:46:39.086700 30320 net.cpp:139] Memory required for data: 9619260
I0501 05:46:39.086704 30320 layer_factory.hpp:77] Creating layer ip2
I0501 05:46:39.086709 30320 net.cpp:86] Creating Layer ip2
I0501 05:46:39.086712 30320 net.cpp:408] ip2 <- ip1
I0501 05:46:39.086716 30320 net.cpp:382] ip2 -> ip2
I0501 05:46:39.086881 30320 net.cpp:124] Setting up ip2
I0501 05:46:39.086889 30320 net.cpp:131] Top shape: 111 40 (4440)
I0501 05:46:39.086890 30320 net.cpp:139] Memory required for data: 9637020
I0501 05:46:39.086897 30320 layer_factory.hpp:77] Creating layer relu2
I0501 05:46:39.086902 30320 net.cpp:86] Creating Layer relu2
I0501 05:46:39.086905 30320 net.cpp:408] relu2 <- ip2
I0501 05:46:39.086908 30320 net.cpp:369] relu2 -> ip2 (in-place)
I0501 05:46:39.087044 30320 net.cpp:124] Setting up relu2
I0501 05:46:39.087051 30320 net.cpp:131] Top shape: 111 40 (4440)
I0501 05:46:39.087054 30320 net.cpp:139] Memory required for data: 9654780
I0501 05:46:39.087057 30320 layer_factory.hpp:77] Creating layer ip3
I0501 05:46:39.087064 30320 net.cpp:86] Creating Layer ip3
I0501 05:46:39.087066 30320 net.cpp:408] ip3 <- ip2
I0501 05:46:39.087071 30320 net.cpp:382] ip3 -> ip3
I0501 05:46:39.088146 30320 net.cpp:124] Setting up ip3
I0501 05:46:39.088158 30320 net.cpp:131] Top shape: 111 160 (17760)
I0501 05:46:39.088161 30320 net.cpp:139] Memory required for data: 9725820
I0501 05:46:39.088166 30320 layer_factory.hpp:77] Creating layer relu3
I0501 05:46:39.088171 30320 net.cpp:86] Creating Layer relu3
I0501 05:46:39.088174 30320 net.cpp:408] relu3 <- ip3
I0501 05:46:39.088179 30320 net.cpp:369] relu3 -> ip3 (in-place)
I0501 05:46:39.088336 30320 net.cpp:124] Setting up relu3
I0501 05:46:39.088346 30320 net.cpp:131] Top shape: 111 160 (17760)
I0501 05:46:39.088348 30320 net.cpp:139] Memory required for data: 9796860
I0501 05:46:39.088351 30320 layer_factory.hpp:77] Creating layer ip4
I0501 05:46:39.088371 30320 net.cpp:86] Creating Layer ip4
I0501 05:46:39.088373 30320 net.cpp:408] ip4 <- ip3
I0501 05:46:39.088378 30320 net.cpp:382] ip4 -> ip4
I0501 05:46:39.088507 30320 net.cpp:124] Setting up ip4
I0501 05:46:39.088515 30320 net.cpp:131] Top shape: 111 10 (1110)
I0501 05:46:39.088517 30320 net.cpp:139] Memory required for data: 9801300
I0501 05:46:39.088524 30320 layer_factory.hpp:77] Creating layer loss
I0501 05:46:39.088529 30320 net.cpp:86] Creating Layer loss
I0501 05:46:39.088532 30320 net.cpp:408] loss <- ip4
I0501 05:46:39.088536 30320 net.cpp:408] loss <- label
I0501 05:46:39.088547 30320 net.cpp:382] loss -> loss
I0501 05:46:39.088563 30320 layer_factory.hpp:77] Creating layer loss
…
I0501 05:46:39.089764 30320 solver.cpp:173] Creating test net (#0) specified by net file: ECE595/cifar/train_test/var_everything/cifar_train_test_429.prototxt
I0501 05:46:39.089807 30320 net.cpp:296] The NetState phase (1) differed from the phase (0) specified by a rule in layer cifar
I0501 05:46:39.089897 30320 net.cpp:53] Initializing net from parameters: 
name: "CIFAR"
state {
  phase: TEST
}
layer {
  name: "cifar"
  type: "Data"
  top: "data"
  top: "label"
  include {
    phase: TEST
  }
  transform_param {
    mean_file: "examples/cifar10/mean.binaryproto"
  }
  data_param {
    source: "examples/cifar10/cifar10_test_lmdb"
    batch_size: 1000
    backend: LMDB
  }
}
layer {
  name: "conv0"
  type: "Convolution"
  bottom: "data"
  top: "conv0"
  param {
    lr_mult: 1
  }
  param {
    lr_mult: 2
  }
  convolution_param {
    num_output: 8
    pad: 2
    kernel_size: 5
    stride: 1
    weight_filler {
      type: "gaussian"
      std: 0.01
    }
    bias_filler {
      type: "constant"
    }
  }
}
layer {
  name: "Sigmoid0"
  type: "Sigmoid"
  bottom: "conv0"
  top: "Sigmoid0"
}
layer {
  name: "pool0"
  type: "Pooling"
  bottom: "Sigmoid0"
  top: "pool0"
  pooling_param {
    pool: AVE
    kernel_size: 3
    stride: 2
  }
}
layer {
  name: "ip1"
  type: "InnerProduct"
  bottom: "pool0"
  top: "ip1"
  param {
    lr_mult: 1
  }
  param {
    lr_mult: 2
  }
  inner_product_param {
    num_output: 80
    weight_filler {
      type: "gaussian"
      std: 0.01
    }
    bias_filler {
      type: "constant"
    }
  }
}
layer {
  name: "relu1"
  type: "ReLU"
  bottom: "ip1"
  top: "ip1"
}
layer {
  name: "ip2"
  type: "InnerProduct"
  bottom: "ip1"
  top: "ip2"
  param {
    lr_mult: 1
  }
  param {
    lr_mult: 2
  }
  inner_product_param {
    num_output: 40
    weight_filler {
      type: "gaussian"
      std: 0.01
    }
    bias_filler {
      type: "constant"
    }
  }
}
layer {
  name: "relu2"
  type: "ReLU"
  bottom: "ip2"
  top: "ip2"
}
layer {
  name: "ip3"
  type: "InnerProduct"
  bottom: "ip2"
  top: "ip3"
  param {
    lr_mult: 1
  }
  param {
    lr_mult: 2
  }
  inner_product_param {
    num_output: 160
    weight_filler {
      type: "gaussian"
      std: 0.01
    }
    bias_filler {
      type: "constant"
    }
  }
}
layer {
  name: "relu3"
  type: "ReLU"
  bottom: "ip3"
  top: "ip3"
}
layer {
  name: "ip4"
  type: "InnerProduct"
  bottom: "ip3"
  top: "ip4"
  param {
    lr_mult: 1
  }
  param {
    lr_mult: 2
  }
  inner_product_param {
    num_output: 10
    weight_filler {
      type: "gaussian"
      std: 0.01
    }
    bias_filler {
      type: "constant"
    }
  }
}
layer {
  name: "accuracy"
  type: "Accuracy"
  bottom: "ip4"
  bottom: "label"
  top: "accuracy"
  include {
    phase: TEST
  }
}
layer {
  name: "loss"
  type: "SoftmaxWithLoss"
  bottom: "ip4"
  bottom: "label"
  top: "loss"
}
I0501 05:46:39.089974 30320 layer_factory.hpp:77] Creating layer cifar
I0501 05:46:39.090018 30320 db_lmdb.cpp:35] Opened lmdb examples/cifar10/cifar10_test_lmdb
I0501 05:46:39.090029 30320 net.cpp:86] Creating Layer cifar
I0501 05:46:39.090034 30320 net.cpp:382] cifar -> data
I0501 05:46:39.090040 30320 net.cpp:382] cifar -> label
I0501 05:46:39.090046 30320 data_transformer.cpp:25] Loading mean file from: examples/cifar10/mean.binaryproto
I0501 05:46:39.090178 30320 data_layer.cpp:45] output data size: 1000,3,32,32
I0501 05:46:39.111382 30320 net.cpp:124] Setting up cifar
I0501 05:46:39.111426 30320 net.cpp:131] Top shape: 1000 3 32 32 (3072000)
I0501 05:46:39.111431 30320 net.cpp:131] Top shape: 1000 (1000)
I0501 05:46:39.111434 30320 net.cpp:139] Memory required for data: 12292000
I0501 05:46:39.111440 30320 layer_factory.hpp:77] Creating layer label_cifar_1_split
I0501 05:46:39.111456 30320 net.cpp:86] Creating Layer label_cifar_1_split
I0501 05:46:39.111460 30320 net.cpp:408] label_cifar_1_split <- label
I0501 05:46:39.111467 30320 net.cpp:382] label_cifar_1_split -> label_cifar_1_split_0
I0501 05:46:39.111475 30320 net.cpp:382] label_cifar_1_split -> label_cifar_1_split_1
I0501 05:46:39.111543 30320 net.cpp:124] Setting up label_cifar_1_split
I0501 05:46:39.111551 30320 net.cpp:131] Top shape: 1000 (1000)
I0501 05:46:39.111554 30320 net.cpp:131] Top shape: 1000 (1000)
I0501 05:46:39.111557 30320 net.cpp:139] Memory required for data: 12300000
I0501 05:46:39.111559 30320 layer_factory.hpp:77] Creating layer conv0
I0501 05:46:39.111572 30320 net.cpp:86] Creating Layer conv0
I0501 05:46:39.111577 30320 net.cpp:408] conv0 <- data
I0501 05:46:39.111596 30320 net.cpp:382] conv0 -> conv0
I0501 05:46:39.114223 30320 net.cpp:124] Setting up conv0
I0501 05:46:39.114253 30320 net.cpp:131] Top shape: 1000 8 32 32 (8192000)
I0501 05:46:39.114255 30320 net.cpp:139] Memory required for data: 45068000
I0501 05:46:39.114267 30320 layer_factory.hpp:77] Creating layer Sigmoid0
I0501 05:46:39.114274 30320 net.cpp:86] Creating Layer Sigmoid0
I0501 05:46:39.114277 30320 net.cpp:408] Sigmoid0 <- conv0
I0501 05:46:39.114281 30320 net.cpp:382] Sigmoid0 -> Sigmoid0
I0501 05:46:39.114488 30320 net.cpp:124] Setting up Sigmoid0
I0501 05:46:39.114497 30320 net.cpp:131] Top shape: 1000 8 32 32 (8192000)
I0501 05:46:39.114500 30320 net.cpp:139] Memory required for data: 77836000
I0501 05:46:39.114503 30320 layer_factory.hpp:77] Creating layer pool0
I0501 05:46:39.114512 30320 net.cpp:86] Creating Layer pool0
I0501 05:46:39.114516 30320 net.cpp:408] pool0 <- Sigmoid0
I0501 05:46:39.114521 30320 net.cpp:382] pool0 -> pool0
I0501 05:46:39.114686 30320 net.cpp:124] Setting up pool0
I0501 05:46:39.114694 30320 net.cpp:131] Top shape: 1000 8 16 16 (2048000)
I0501 05:46:39.114696 30320 net.cpp:139] Memory required for data: 86028000
I0501 05:46:39.114699 30320 layer_factory.hpp:77] Creating layer ip1
I0501 05:46:39.114709 30320 net.cpp:86] Creating Layer ip1
I0501 05:46:39.114712 30320 net.cpp:408] ip1 <- pool0
I0501 05:46:39.114717 30320 net.cpp:382] ip1 -> ip1
I0501 05:46:39.119238 30320 net.cpp:124] Setting up ip1
I0501 05:46:39.119248 30320 net.cpp:131] Top shape: 1000 80 (80000)
I0501 05:46:39.119266 30320 net.cpp:139] Memory required for data: 86348000
I0501 05:46:39.119288 30320 layer_factory.hpp:77] Creating layer relu1
I0501 05:46:39.119297 30320 net.cpp:86] Creating Layer relu1
I0501 05:46:39.119299 30320 net.cpp:408] relu1 <- ip1
I0501 05:46:39.119303 30320 net.cpp:369] relu1 -> ip1 (in-place)
I0501 05:46:39.119483 30320 net.cpp:124] Setting up relu1
I0501 05:46:39.119493 30320 net.cpp:131] Top shape: 1000 80 (80000)
I0501 05:46:39.119496 30320 net.cpp:139] Memory required for data: 86668000
I0501 05:46:39.119499 30320 layer_factory.hpp:77] Creating layer ip2
I0501 05:46:39.119506 30320 net.cpp:86] Creating Layer ip2
I0501 05:46:39.119509 30320 net.cpp:408] ip2 <- ip1
I0501 05:46:39.119515 30320 net.cpp:382] ip2 -> ip2
I0501 05:46:39.119704 30320 net.cpp:124] Setting up ip2
I0501 05:46:39.119711 30320 net.cpp:131] Top shape: 1000 40 (40000)
I0501 05:46:39.119714 30320 net.cpp:139] Memory required for data: 86828000
I0501 05:46:39.119721 30320 layer_factory.hpp:77] Creating layer relu2
I0501 05:46:39.119726 30320 net.cpp:86] Creating Layer relu2
I0501 05:46:39.119729 30320 net.cpp:408] relu2 <- ip2
I0501 05:46:39.119734 30320 net.cpp:369] relu2 -> ip2 (in-place)
I0501 05:46:39.120496 30320 net.cpp:124] Setting up relu2
I0501 05:46:39.120508 30320 net.cpp:131] Top shape: 1000 40 (40000)
I0501 05:46:39.120548 30320 net.cpp:139] Memory required for data: 86988000
I0501 05:46:39.120555 30320 layer_factory.hpp:77] Creating layer ip3
I0501 05:46:39.120563 30320 net.cpp:86] Creating Layer ip3
I0501 05:46:39.120568 30320 net.cpp:408] ip3 <- ip2
I0501 05:46:39.120573 30320 net.cpp:382] ip3 -> ip3
I0501 05:46:39.120877 30320 net.cpp:124] Setting up ip3
I0501 05:46:39.120887 30320 net.cpp:131] Top shape: 1000 160 (160000)
I0501 05:46:39.120905 30320 net.cpp:139] Memory required for data: 87628000
I0501 05:46:39.120911 30320 layer_factory.hpp:77] Creating layer relu3
I0501 05:46:39.120916 30320 net.cpp:86] Creating Layer relu3
I0501 05:46:39.120919 30320 net.cpp:408] relu3 <- ip3
I0501 05:46:39.120923 30320 net.cpp:369] relu3 -> ip3 (in-place)
I0501 05:46:39.121083 30320 net.cpp:124] Setting up relu3
I0501 05:46:39.121090 30320 net.cpp:131] Top shape: 1000 160 (160000)
I0501 05:46:39.121094 30320 net.cpp:139] Memory required for data: 88268000
I0501 05:46:39.121098 30320 layer_factory.hpp:77] Creating layer ip4
I0501 05:46:39.121104 30320 net.cpp:86] Creating Layer ip4
I0501 05:46:39.121106 30320 net.cpp:408] ip4 <- ip3
I0501 05:46:39.121111 30320 net.cpp:382] ip4 -> ip4
I0501 05:46:39.121266 30320 net.cpp:124] Setting up ip4
I0501 05:46:39.121273 30320 net.cpp:131] Top shape: 1000 10 (10000)
I0501 05:46:39.121276 30320 net.cpp:139] Memory required for data: 88308000
I0501 05:46:39.121284 30320 layer_factory.hpp:77] Creating layer ip4_ip4_0_split
I0501 05:46:39.121290 30320 net.cpp:86] Creating Layer ip4_ip4_0_split
I0501 05:46:39.121294 30320 net.cpp:408] ip4_ip4_0_split <- ip4
I0501 05:46:39.121299 30320 net.cpp:382] ip4_ip4_0_split -> ip4_ip4_0_split_0
I0501 05:46:39.121304 30320 net.cpp:382] ip4_ip4_0_split -> ip4_ip4_0_split_1
I0501 05:46:39.121333 30320 net.cpp:124] Setting up ip4_ip4_0_split
I0501 05:46:39.121338 30320 net.cpp:131] Top shape: 1000 10 (10000)
I0501 05:46:39.121342 30320 net.cpp:131] Top shape: 1000 10 (10000)
I0501 05:46:39.121345 30320 net.cpp:139] Memory required for data: 88388000
I0501 05:46:39.121348 30320 layer_factory.hpp:77] Creating layer accuracy
I0501 05:46:39.121354 30320 net.cpp:86] Creating Layer accuracy
I0501 05:46:39.121357 30320 net.cpp:408] accuracy <- ip4_ip4_0_split_0
I0501 05:46:39.121361 30320 net.cpp:408] accuracy <- label_cifar_1_split_0
I0501 05:46:39.121366 30320 net.cpp:382] accuracy -> accuracy
…
