…
I0430 19:44:53.032832 26758 net.cpp:296] The NetState phase (0) differed from the phase (1) specified by a rule in layer cifar
I0430 19:44:53.032847 26758 net.cpp:296] The NetState phase (0) differed from the phase (1) specified by a rule in layer accuracy
I0430 19:44:53.032930 26758 net.cpp:53] Initializing net from parameters: 
name: "CIFAR"
state {
  phase: TRAIN
  level: 0
  stage: ""
}
layer {
  name: "cifar"
  type: "Data"
  top: "data"
  top: "label"
  include {
    phase: TRAIN
  }
  transform_param {
    mean_file: "examples/cifar10/mean.binaryproto"
  }
  data_param {
    source: "examples/cifar10/cifar10_train_lmdb"
    batch_size: 111
    backend: LMDB
  }
}
layer {
  name: "ip1"
  type: "InnerProduct"
  bottom: "data"
  top: "ip1"
  param {
    lr_mult: 1
  }
  param {
    lr_mult: 2
  }
  inner_product_param {
    num_output: 80
    weight_filler {
      type: "gaussian"
      std: 0.01
    }
    bias_filler {
      type: "constant"
    }
  }
}
layer {
  name: "relu1"
  type: "ReLU"
  bottom: "ip1"
  top: "ip1"
}
layer {
  name: "ip2"
  type: "InnerProduct"
  bottom: "ip1"
  top: "ip2"
  param {
    lr_mult: 1
  }
  param {
    lr_mult: 2
  }
  inner_product_param {
    num_output: 10
    weight_filler {
      type: "gaussian"
      std: 0.01
    }
    bias_filler {
      type: "constant"
    }
  }
}
layer {
  name: "relu2"
  type: "ReLU"
  bottom: "ip2"
  top: "ip2"
}
layer {
  name: "ip3"
  type: "InnerProduct"
  bottom: "ip2"
  top: "ip3"
  param {
    lr_mult: 1
  }
  param {
    lr_mult: 2
  }
  inner_product_param {
    num_output: 40
    weight_filler {
      type: "gaussian"
      std: 0.01
    }
    bias_filler {
      type: "constant"
    }
  }
}
layer {
  name: "relu3"
  type: "ReLU"
  bottom: "ip3"
  top: "ip3"
}
layer {
  name: "ip4"
  type: "InnerProduct"
  bottom: "ip3"
  top: "ip4"
  param {
    lr_mult: 1
  }
  param {
    lr_mult: 2
  }
  inner_product_param {
    num_output: 10
    weight_filler {
      type: "gaussian"
      std: 0.01
    }
    bias_filler {
      type: "constant"
    }
  }
}
layer {
  name: "loss"
  type: "SoftmaxWithLoss"
  bottom: "ip4"
  bottom: "label"
  top: "loss"
}
I0430 19:44:53.032995 26758 layer_factory.hpp:77] Creating layer cifar
I0430 19:44:53.033094 26758 db_lmdb.cpp:35] Opened lmdb examples/cifar10/cifar10_train_lmdb
I0430 19:44:53.033121 26758 net.cpp:86] Creating Layer cifar
I0430 19:44:53.033129 26758 net.cpp:382] cifar -> data
I0430 19:44:53.033151 26758 net.cpp:382] cifar -> label
I0430 19:44:53.033164 26758 data_transformer.cpp:25] Loading mean file from: examples/cifar10/mean.binaryproto
I0430 19:44:53.035256 26758 data_layer.cpp:45] output data size: 111,3,32,32
I0430 19:44:53.043153 26758 net.cpp:124] Setting up cifar
I0430 19:44:53.043171 26758 net.cpp:131] Top shape: 111 3 32 32 (340992)
I0430 19:44:53.043179 26758 net.cpp:131] Top shape: 111 (111)
I0430 19:44:53.043181 26758 net.cpp:139] Memory required for data: 1364412
I0430 19:44:53.043190 26758 layer_factory.hpp:77] Creating layer ip1
I0430 19:44:53.043231 26758 net.cpp:86] Creating Layer ip1
I0430 19:44:53.043236 26758 net.cpp:408] ip1 <- data
I0430 19:44:53.043248 26758 net.cpp:382] ip1 -> ip1
I0430 19:44:53.052474 26758 net.cpp:124] Setting up ip1
I0430 19:44:53.052489 26758 net.cpp:131] Top shape: 111 80 (8880)
I0430 19:44:53.052494 26758 net.cpp:139] Memory required for data: 1399932
I0430 19:44:53.052507 26758 layer_factory.hpp:77] Creating layer relu1
I0430 19:44:53.052518 26758 net.cpp:86] Creating Layer relu1
I0430 19:44:53.052539 26758 net.cpp:408] relu1 <- ip1
I0430 19:44:53.052546 26758 net.cpp:369] relu1 -> ip1 (in-place)
I0430 19:44:53.327458 26758 net.cpp:124] Setting up relu1
I0430 19:44:53.327486 26758 net.cpp:131] Top shape: 111 80 (8880)
I0430 19:44:53.327491 26758 net.cpp:139] Memory required for data: 1435452
I0430 19:44:53.327495 26758 layer_factory.hpp:77] Creating layer ip2
I0430 19:44:53.327507 26758 net.cpp:86] Creating Layer ip2
I0430 19:44:53.327512 26758 net.cpp:408] ip2 <- ip1
I0430 19:44:53.327519 26758 net.cpp:382] ip2 -> ip2
I0430 19:44:53.328541 26758 net.cpp:124] Setting up ip2
I0430 19:44:53.328554 26758 net.cpp:131] Top shape: 111 10 (1110)
I0430 19:44:53.328557 26758 net.cpp:139] Memory required for data: 1439892
I0430 19:44:53.328567 26758 layer_factory.hpp:77] Creating layer relu2
I0430 19:44:53.328574 26758 net.cpp:86] Creating Layer relu2
I0430 19:44:53.328577 26758 net.cpp:408] relu2 <- ip2
I0430 19:44:53.328583 26758 net.cpp:369] relu2 -> ip2 (in-place)
I0430 19:44:53.329370 26758 net.cpp:124] Setting up relu2
I0430 19:44:53.329382 26758 net.cpp:131] Top shape: 111 10 (1110)
I0430 19:44:53.329401 26758 net.cpp:139] Memory required for data: 1444332
I0430 19:44:53.329406 26758 layer_factory.hpp:77] Creating layer ip3
I0430 19:44:53.329412 26758 net.cpp:86] Creating Layer ip3
I0430 19:44:53.329416 26758 net.cpp:408] ip3 <- ip2
I0430 19:44:53.329421 26758 net.cpp:382] ip3 -> ip3
I0430 19:44:53.329563 26758 net.cpp:124] Setting up ip3
I0430 19:44:53.329571 26758 net.cpp:131] Top shape: 111 40 (4440)
I0430 19:44:53.329574 26758 net.cpp:139] Memory required for data: 1462092
I0430 19:44:53.329582 26758 layer_factory.hpp:77] Creating layer relu3
I0430 19:44:53.329587 26758 net.cpp:86] Creating Layer relu3
I0430 19:44:53.329591 26758 net.cpp:408] relu3 <- ip3
I0430 19:44:53.329596 26758 net.cpp:369] relu3 -> ip3 (in-place)
I0430 19:44:53.329738 26758 net.cpp:124] Setting up relu3
I0430 19:44:53.329746 26758 net.cpp:131] Top shape: 111 40 (4440)
I0430 19:44:53.329749 26758 net.cpp:139] Memory required for data: 1479852
I0430 19:44:53.329753 26758 layer_factory.hpp:77] Creating layer ip4
I0430 19:44:53.329758 26758 net.cpp:86] Creating Layer ip4
I0430 19:44:53.329761 26758 net.cpp:408] ip4 <- ip3
I0430 19:44:53.329766 26758 net.cpp:382] ip4 -> ip4
I0430 19:44:53.329865 26758 net.cpp:124] Setting up ip4
I0430 19:44:53.329872 26758 net.cpp:131] Top shape: 111 10 (1110)
I0430 19:44:53.329875 26758 net.cpp:139] Memory required for data: 1484292
I0430 19:44:53.329880 26758 layer_factory.hpp:77] Creating layer loss
I0430 19:44:53.329887 26758 net.cpp:86] Creating Layer loss
I0430 19:44:53.329890 26758 net.cpp:408] loss <- ip4
I0430 19:44:53.329895 26758 net.cpp:408] loss <- label
I0430 19:44:53.329900 26758 net.cpp:382] loss -> loss
I0430 19:44:53.329922 26758 layer_factory.hpp:77] Creating layer loss
…
I0430 19:44:53.330492 26758 solver.cpp:173] Creating test net (#0) specified by net file: ECE595/cifar/train_test/var_everything/cifar_train_test_107.prototxt
I0430 19:44:53.330531 26758 net.cpp:296] The NetState phase (1) differed from the phase (0) specified by a rule in layer cifar
I0430 19:44:53.330622 26758 net.cpp:53] Initializing net from parameters: 
name: "CIFAR"
state {
  phase: TEST
}
layer {
  name: "cifar"
  type: "Data"
  top: "data"
  top: "label"
  include {
    phase: TEST
  }
  transform_param {
    mean_file: "examples/cifar10/mean.binaryproto"
  }
  data_param {
    source: "examples/cifar10/cifar10_test_lmdb"
    batch_size: 1000
    backend: LMDB
  }
}
layer {
  name: "ip1"
  type: "InnerProduct"
  bottom: "data"
  top: "ip1"
  param {
    lr_mult: 1
  }
  param {
    lr_mult: 2
  }
  inner_product_param {
    num_output: 80
    weight_filler {
      type: "gaussian"
      std: 0.01
    }
    bias_filler {
      type: "constant"
    }
  }
}
layer {
  name: "relu1"
  type: "ReLU"
  bottom: "ip1"
  top: "ip1"
}
layer {
  name: "ip2"
  type: "InnerProduct"
  bottom: "ip1"
  top: "ip2"
  param {
    lr_mult: 1
  }
  param {
    lr_mult: 2
  }
  inner_product_param {
    num_output: 10
    weight_filler {
      type: "gaussian"
      std: 0.01
    }
    bias_filler {
      type: "constant"
    }
  }
}
layer {
  name: "relu2"
  type: "ReLU"
  bottom: "ip2"
  top: "ip2"
}
layer {
  name: "ip3"
  type: "InnerProduct"
  bottom: "ip2"
  top: "ip3"
  param {
    lr_mult: 1
  }
  param {
    lr_mult: 2
  }
  inner_product_param {
    num_output: 40
    weight_filler {
      type: "gaussian"
      std: 0.01
    }
    bias_filler {
      type: "constant"
    }
  }
}
layer {
  name: "relu3"
  type: "ReLU"
  bottom: "ip3"
  top: "ip3"
}
layer {
  name: "ip4"
  type: "InnerProduct"
  bottom: "ip3"
  top: "ip4"
  param {
    lr_mult: 1
  }
  param {
    lr_mult: 2
  }
  inner_product_param {
    num_output: 10
    weight_filler {
      type: "gaussian"
      std: 0.01
    }
    bias_filler {
      type: "constant"
    }
  }
}
layer {
  name: "accuracy"
  type: "Accuracy"
  bottom: "ip4"
  bottom: "label"
  top: "accuracy"
  include {
    phase: TEST
  }
}
layer {
  name: "loss"
  type: "SoftmaxWithLoss"
  bottom: "ip4"
  bottom: "label"
  top: "loss"
}
I0430 19:44:53.330682 26758 layer_factory.hpp:77] Creating layer cifar
I0430 19:44:53.330726 26758 db_lmdb.cpp:35] Opened lmdb examples/cifar10/cifar10_test_lmdb
I0430 19:44:53.330737 26758 net.cpp:86] Creating Layer cifar
I0430 19:44:53.330742 26758 net.cpp:382] cifar -> data
I0430 19:44:53.330749 26758 net.cpp:382] cifar -> label
I0430 19:44:53.330756 26758 data_transformer.cpp:25] Loading mean file from: examples/cifar10/mean.binaryproto
I0430 19:44:53.330896 26758 data_layer.cpp:45] output data size: 1000,3,32,32
I0430 19:44:53.353241 26758 net.cpp:124] Setting up cifar
I0430 19:44:53.353267 26758 net.cpp:131] Top shape: 1000 3 32 32 (3072000)
I0430 19:44:53.353274 26758 net.cpp:131] Top shape: 1000 (1000)
I0430 19:44:53.353277 26758 net.cpp:139] Memory required for data: 12292000
I0430 19:44:53.353283 26758 layer_factory.hpp:77] Creating layer label_cifar_1_split
I0430 19:44:53.353315 26758 net.cpp:86] Creating Layer label_cifar_1_split
I0430 19:44:53.353319 26758 net.cpp:408] label_cifar_1_split <- label
I0430 19:44:53.353327 26758 net.cpp:382] label_cifar_1_split -> label_cifar_1_split_0
I0430 19:44:53.353335 26758 net.cpp:382] label_cifar_1_split -> label_cifar_1_split_1
I0430 19:44:53.353415 26758 net.cpp:124] Setting up label_cifar_1_split
I0430 19:44:53.353421 26758 net.cpp:131] Top shape: 1000 (1000)
I0430 19:44:53.353440 26758 net.cpp:131] Top shape: 1000 (1000)
I0430 19:44:53.353442 26758 net.cpp:139] Memory required for data: 12300000
I0430 19:44:53.353446 26758 layer_factory.hpp:77] Creating layer ip1
I0430 19:44:53.353454 26758 net.cpp:86] Creating Layer ip1
I0430 19:44:53.353457 26758 net.cpp:408] ip1 <- data
I0430 19:44:53.353462 26758 net.cpp:382] ip1 -> ip1
I0430 19:44:53.360352 26758 net.cpp:124] Setting up ip1
I0430 19:44:53.360363 26758 net.cpp:131] Top shape: 1000 80 (80000)
I0430 19:44:53.360365 26758 net.cpp:139] Memory required for data: 12620000
I0430 19:44:53.360388 26758 layer_factory.hpp:77] Creating layer relu1
I0430 19:44:53.360424 26758 net.cpp:86] Creating Layer relu1
I0430 19:44:53.360429 26758 net.cpp:408] relu1 <- ip1
I0430 19:44:53.360433 26758 net.cpp:369] relu1 -> ip1 (in-place)
I0430 19:44:53.361338 26758 net.cpp:124] Setting up relu1
I0430 19:44:53.361351 26758 net.cpp:131] Top shape: 1000 80 (80000)
I0430 19:44:53.361354 26758 net.cpp:139] Memory required for data: 12940000
I0430 19:44:53.361357 26758 layer_factory.hpp:77] Creating layer ip2
I0430 19:44:53.361366 26758 net.cpp:86] Creating Layer ip2
I0430 19:44:53.361384 26758 net.cpp:408] ip2 <- ip1
I0430 19:44:53.361389 26758 net.cpp:382] ip2 -> ip2
I0430 19:44:53.361518 26758 net.cpp:124] Setting up ip2
I0430 19:44:53.361526 26758 net.cpp:131] Top shape: 1000 10 (10000)
I0430 19:44:53.361529 26758 net.cpp:139] Memory required for data: 12980000
I0430 19:44:53.361537 26758 layer_factory.hpp:77] Creating layer relu2
I0430 19:44:53.361544 26758 net.cpp:86] Creating Layer relu2
I0430 19:44:53.361547 26758 net.cpp:408] relu2 <- ip2
I0430 19:44:53.361552 26758 net.cpp:369] relu2 -> ip2 (in-place)
I0430 19:44:53.361745 26758 net.cpp:124] Setting up relu2
I0430 19:44:53.361754 26758 net.cpp:131] Top shape: 1000 10 (10000)
I0430 19:44:53.361758 26758 net.cpp:139] Memory required for data: 13020000
I0430 19:44:53.361762 26758 layer_factory.hpp:77] Creating layer ip3
I0430 19:44:53.361769 26758 net.cpp:86] Creating Layer ip3
I0430 19:44:53.361773 26758 net.cpp:408] ip3 <- ip2
I0430 19:44:53.361778 26758 net.cpp:382] ip3 -> ip3
I0430 19:44:53.361901 26758 net.cpp:124] Setting up ip3
I0430 19:44:53.361908 26758 net.cpp:131] Top shape: 1000 40 (40000)
I0430 19:44:53.361912 26758 net.cpp:139] Memory required for data: 13180000
I0430 19:44:53.361919 26758 layer_factory.hpp:77] Creating layer relu3
I0430 19:44:53.361924 26758 net.cpp:86] Creating Layer relu3
I0430 19:44:53.361927 26758 net.cpp:408] relu3 <- ip3
I0430 19:44:53.361932 26758 net.cpp:369] relu3 -> ip3 (in-place)
I0430 19:44:53.362102 26758 net.cpp:124] Setting up relu3
I0430 19:44:53.362110 26758 net.cpp:131] Top shape: 1000 40 (40000)
I0430 19:44:53.362114 26758 net.cpp:139] Memory required for data: 13340000
I0430 19:44:53.362118 26758 layer_factory.hpp:77] Creating layer ip4
I0430 19:44:53.362124 26758 net.cpp:86] Creating Layer ip4
I0430 19:44:53.362128 26758 net.cpp:408] ip4 <- ip3
I0430 19:44:53.362134 26758 net.cpp:382] ip4 -> ip4
I0430 19:44:53.362254 26758 net.cpp:124] Setting up ip4
I0430 19:44:53.362262 26758 net.cpp:131] Top shape: 1000 10 (10000)
I0430 19:44:53.362265 26758 net.cpp:139] Memory required for data: 13380000
I0430 19:44:53.362272 26758 layer_factory.hpp:77] Creating layer ip4_ip4_0_split
I0430 19:44:53.362293 26758 net.cpp:86] Creating Layer ip4_ip4_0_split
I0430 19:44:53.362298 26758 net.cpp:408] ip4_ip4_0_split <- ip4
I0430 19:44:53.362316 26758 net.cpp:382] ip4_ip4_0_split -> ip4_ip4_0_split_0
I0430 19:44:53.362323 26758 net.cpp:382] ip4_ip4_0_split -> ip4_ip4_0_split_1
I0430 19:44:53.362354 26758 net.cpp:124] Setting up ip4_ip4_0_split
I0430 19:44:53.362360 26758 net.cpp:131] Top shape: 1000 10 (10000)
I0430 19:44:53.362365 26758 net.cpp:131] Top shape: 1000 10 (10000)
I0430 19:44:53.362367 26758 net.cpp:139] Memory required for data: 13460000
I0430 19:44:53.362370 26758 layer_factory.hpp:77] Creating layer accuracy
I0430 19:44:53.362375 26758 net.cpp:86] Creating Layer accuracy
I0430 19:44:53.362378 26758 net.cpp:408] accuracy <- ip4_ip4_0_split_0
I0430 19:44:53.362382 26758 net.cpp:408] accuracy <- label_cifar_1_split_0
I0430 19:44:53.362386 26758 net.cpp:382] accuracy -> accuracy
…
