…
I0501 05:39:11.662796 29910 net.cpp:296] The NetState phase (0) differed from the phase (1) specified by a rule in layer cifar
I0501 05:39:11.662816 29910 net.cpp:296] The NetState phase (0) differed from the phase (1) specified by a rule in layer accuracy
I0501 05:39:11.662937 29910 net.cpp:53] Initializing net from parameters: 
name: "CIFAR"
state {
  phase: TRAIN
  level: 0
  stage: ""
}
layer {
  name: "cifar"
  type: "Data"
  top: "data"
  top: "label"
  include {
    phase: TRAIN
  }
  transform_param {
    mean_file: "examples/cifar10/mean.binaryproto"
  }
  data_param {
    source: "examples/cifar10/cifar10_train_lmdb"
    batch_size: 111
    backend: LMDB
  }
}
layer {
  name: "conv0"
  type: "Convolution"
  bottom: "data"
  top: "conv0"
  param {
    lr_mult: 1
  }
  param {
    lr_mult: 2
  }
  convolution_param {
    num_output: 8
    pad: 2
    kernel_size: 5
    stride: 1
    weight_filler {
      type: "gaussian"
      std: 0.01
    }
    bias_filler {
      type: "constant"
    }
  }
}
layer {
  name: "Sigmoid0"
  type: "Sigmoid"
  bottom: "conv0"
  top: "Sigmoid0"
}
layer {
  name: "pool0"
  type: "Pooling"
  bottom: "Sigmoid0"
  top: "pool0"
  pooling_param {
    pool: AVE
    kernel_size: 3
    stride: 2
  }
}
layer {
  name: "ip1"
  type: "InnerProduct"
  bottom: "pool0"
  top: "ip1"
  param {
    lr_mult: 1
  }
  param {
    lr_mult: 2
  }
  inner_product_param {
    num_output: 80
    weight_filler {
      type: "gaussian"
      std: 0.01
    }
    bias_filler {
      type: "constant"
    }
  }
}
layer {
  name: "relu1"
  type: "ReLU"
  bottom: "ip1"
  top: "ip1"
}
layer {
  name: "ip2"
  type: "InnerProduct"
  bottom: "ip1"
  top: "ip2"
  param {
    lr_mult: 1
  }
  param {
    lr_mult: 2
  }
  inner_product_param {
    num_output: 40
    weight_filler {
      type: "gaussian"
      std: 0.01
    }
    bias_filler {
      type: "constant"
    }
  }
}
layer {
  name: "relu2"
  type: "ReLU"
  bottom: "ip2"
  top: "ip2"
}
layer {
  name: "ip3"
  type: "InnerProduct"
  bottom: "ip2"
  top: "ip3"
  param {
    lr_mult: 1
  }
  param {
    lr_mult: 2
  }
  inner_product_param {
    num_output: 10
    weight_filler {
      type: "gaussian"
      std: 0.01
    }
    bias_filler {
      type: "constant"
    }
  }
}
layer {
  name: "relu3"
  type: "ReLU"
  bottom: "ip3"
  top: "ip3"
}
layer {
  name: "ip4"
  type: "InnerProduct"
  bottom: "ip3"
  top: "ip4"
  param {
    lr_mult: 1
  }
  param {
    lr_mult: 2
  }
  inner_product_param {
    num_output: 10
    weight_filler {
      type: "gaussian"
      std: 0.01
    }
    bias_filler {
      type: "constant"
    }
  }
}
layer {
  name: "loss"
  type: "SoftmaxWithLoss"
  bottom: "ip4"
  bottom: "label"
  top: "loss"
}
I0501 05:39:11.663048 29910 layer_factory.hpp:77] Creating layer cifar
I0501 05:39:11.663184 29910 db_lmdb.cpp:35] Opened lmdb examples/cifar10/cifar10_train_lmdb
I0501 05:39:11.663223 29910 net.cpp:86] Creating Layer cifar
I0501 05:39:11.663235 29910 net.cpp:382] cifar -> data
I0501 05:39:11.663266 29910 net.cpp:382] cifar -> label
I0501 05:39:11.663283 29910 data_transformer.cpp:25] Loading mean file from: examples/cifar10/mean.binaryproto
I0501 05:39:11.665498 29910 data_layer.cpp:45] output data size: 111,3,32,32
I0501 05:39:11.673619 29910 net.cpp:124] Setting up cifar
I0501 05:39:11.673641 29910 net.cpp:131] Top shape: 111 3 32 32 (340992)
I0501 05:39:11.673647 29910 net.cpp:131] Top shape: 111 (111)
I0501 05:39:11.673651 29910 net.cpp:139] Memory required for data: 1364412
I0501 05:39:11.673676 29910 layer_factory.hpp:77] Creating layer conv0
I0501 05:39:11.673698 29910 net.cpp:86] Creating Layer conv0
I0501 05:39:11.673704 29910 net.cpp:408] conv0 <- data
I0501 05:39:11.673717 29910 net.cpp:382] conv0 -> conv0
I0501 05:39:11.936182 29910 net.cpp:124] Setting up conv0
I0501 05:39:11.936208 29910 net.cpp:131] Top shape: 111 8 32 32 (909312)
I0501 05:39:11.936213 29910 net.cpp:139] Memory required for data: 5001660
I0501 05:39:11.936226 29910 layer_factory.hpp:77] Creating layer Sigmoid0
I0501 05:39:11.936238 29910 net.cpp:86] Creating Layer Sigmoid0
I0501 05:39:11.936241 29910 net.cpp:408] Sigmoid0 <- conv0
I0501 05:39:11.936246 29910 net.cpp:382] Sigmoid0 -> Sigmoid0
I0501 05:39:11.936419 29910 net.cpp:124] Setting up Sigmoid0
I0501 05:39:11.936429 29910 net.cpp:131] Top shape: 111 8 32 32 (909312)
I0501 05:39:11.936432 29910 net.cpp:139] Memory required for data: 8638908
I0501 05:39:11.936435 29910 layer_factory.hpp:77] Creating layer pool0
I0501 05:39:11.936442 29910 net.cpp:86] Creating Layer pool0
I0501 05:39:11.936445 29910 net.cpp:408] pool0 <- Sigmoid0
I0501 05:39:11.936450 29910 net.cpp:382] pool0 -> pool0
I0501 05:39:11.937211 29910 net.cpp:124] Setting up pool0
I0501 05:39:11.937224 29910 net.cpp:131] Top shape: 111 8 16 16 (227328)
I0501 05:39:11.937228 29910 net.cpp:139] Memory required for data: 9548220
I0501 05:39:11.937232 29910 layer_factory.hpp:77] Creating layer ip1
I0501 05:39:11.937240 29910 net.cpp:86] Creating Layer ip1
I0501 05:39:11.937243 29910 net.cpp:408] ip1 <- pool0
I0501 05:39:11.937248 29910 net.cpp:382] ip1 -> ip1
I0501 05:39:11.941588 29910 net.cpp:124] Setting up ip1
I0501 05:39:11.941597 29910 net.cpp:131] Top shape: 111 80 (8880)
I0501 05:39:11.941601 29910 net.cpp:139] Memory required for data: 9583740
I0501 05:39:11.941607 29910 layer_factory.hpp:77] Creating layer relu1
I0501 05:39:11.941612 29910 net.cpp:86] Creating Layer relu1
I0501 05:39:11.941615 29910 net.cpp:408] relu1 <- ip1
I0501 05:39:11.941619 29910 net.cpp:369] relu1 -> ip1 (in-place)
I0501 05:39:11.941778 29910 net.cpp:124] Setting up relu1
I0501 05:39:11.941787 29910 net.cpp:131] Top shape: 111 80 (8880)
I0501 05:39:11.941790 29910 net.cpp:139] Memory required for data: 9619260
I0501 05:39:11.941793 29910 layer_factory.hpp:77] Creating layer ip2
I0501 05:39:11.941802 29910 net.cpp:86] Creating Layer ip2
I0501 05:39:11.941807 29910 net.cpp:408] ip2 <- ip1
I0501 05:39:11.941813 29910 net.cpp:382] ip2 -> ip2
I0501 05:39:11.941987 29910 net.cpp:124] Setting up ip2
I0501 05:39:11.941994 29910 net.cpp:131] Top shape: 111 40 (4440)
I0501 05:39:11.941998 29910 net.cpp:139] Memory required for data: 9637020
I0501 05:39:11.942005 29910 layer_factory.hpp:77] Creating layer relu2
I0501 05:39:11.942013 29910 net.cpp:86] Creating Layer relu2
I0501 05:39:11.942018 29910 net.cpp:408] relu2 <- ip2
I0501 05:39:11.942039 29910 net.cpp:369] relu2 -> ip2 (in-place)
I0501 05:39:11.942189 29910 net.cpp:124] Setting up relu2
I0501 05:39:11.942198 29910 net.cpp:131] Top shape: 111 40 (4440)
I0501 05:39:11.942200 29910 net.cpp:139] Memory required for data: 9654780
I0501 05:39:11.942204 29910 layer_factory.hpp:77] Creating layer ip3
I0501 05:39:11.942214 29910 net.cpp:86] Creating Layer ip3
I0501 05:39:11.942219 29910 net.cpp:408] ip3 <- ip2
I0501 05:39:11.942226 29910 net.cpp:382] ip3 -> ip3
I0501 05:39:11.942334 29910 net.cpp:124] Setting up ip3
I0501 05:39:11.942342 29910 net.cpp:131] Top shape: 111 10 (1110)
I0501 05:39:11.942344 29910 net.cpp:139] Memory required for data: 9659220
I0501 05:39:11.942365 29910 layer_factory.hpp:77] Creating layer relu3
I0501 05:39:11.942373 29910 net.cpp:86] Creating Layer relu3
I0501 05:39:11.942378 29910 net.cpp:408] relu3 <- ip3
I0501 05:39:11.942384 29910 net.cpp:369] relu3 -> ip3 (in-place)
I0501 05:39:11.942525 29910 net.cpp:124] Setting up relu3
I0501 05:39:11.942533 29910 net.cpp:131] Top shape: 111 10 (1110)
I0501 05:39:11.942536 29910 net.cpp:139] Memory required for data: 9663660
I0501 05:39:11.942539 29910 layer_factory.hpp:77] Creating layer ip4
I0501 05:39:11.942565 29910 net.cpp:86] Creating Layer ip4
I0501 05:39:11.942570 29910 net.cpp:408] ip4 <- ip3
I0501 05:39:11.942579 29910 net.cpp:382] ip4 -> ip4
I0501 05:39:11.942675 29910 net.cpp:124] Setting up ip4
I0501 05:39:11.942683 29910 net.cpp:131] Top shape: 111 10 (1110)
I0501 05:39:11.942685 29910 net.cpp:139] Memory required for data: 9668100
I0501 05:39:11.942695 29910 layer_factory.hpp:77] Creating layer loss
I0501 05:39:11.942703 29910 net.cpp:86] Creating Layer loss
I0501 05:39:11.942708 29910 net.cpp:408] loss <- ip4
I0501 05:39:11.942714 29910 net.cpp:408] loss <- label
I0501 05:39:11.942721 29910 net.cpp:382] loss -> loss
I0501 05:39:11.942744 29910 layer_factory.hpp:77] Creating layer loss
…
I0501 05:39:11.943895 29910 solver.cpp:173] Creating test net (#0) specified by net file: ECE595/cifar/train_test/var_everything/cifar_train_test_425.prototxt
I0501 05:39:11.943928 29910 net.cpp:296] The NetState phase (1) differed from the phase (0) specified by a rule in layer cifar
I0501 05:39:11.944023 29910 net.cpp:53] Initializing net from parameters: 
name: "CIFAR"
state {
  phase: TEST
}
layer {
  name: "cifar"
  type: "Data"
  top: "data"
  top: "label"
  include {
    phase: TEST
  }
  transform_param {
    mean_file: "examples/cifar10/mean.binaryproto"
  }
  data_param {
    source: "examples/cifar10/cifar10_test_lmdb"
    batch_size: 1000
    backend: LMDB
  }
}
layer {
  name: "conv0"
  type: "Convolution"
  bottom: "data"
  top: "conv0"
  param {
    lr_mult: 1
  }
  param {
    lr_mult: 2
  }
  convolution_param {
    num_output: 8
    pad: 2
    kernel_size: 5
    stride: 1
    weight_filler {
      type: "gaussian"
      std: 0.01
    }
    bias_filler {
      type: "constant"
    }
  }
}
layer {
  name: "Sigmoid0"
  type: "Sigmoid"
  bottom: "conv0"
  top: "Sigmoid0"
}
layer {
  name: "pool0"
  type: "Pooling"
  bottom: "Sigmoid0"
  top: "pool0"
  pooling_param {
    pool: AVE
    kernel_size: 3
    stride: 2
  }
}
layer {
  name: "ip1"
  type: "InnerProduct"
  bottom: "pool0"
  top: "ip1"
  param {
    lr_mult: 1
  }
  param {
    lr_mult: 2
  }
  inner_product_param {
    num_output: 80
    weight_filler {
      type: "gaussian"
      std: 0.01
    }
    bias_filler {
      type: "constant"
    }
  }
}
layer {
  name: "relu1"
  type: "ReLU"
  bottom: "ip1"
  top: "ip1"
}
layer {
  name: "ip2"
  type: "InnerProduct"
  bottom: "ip1"
  top: "ip2"
  param {
    lr_mult: 1
  }
  param {
    lr_mult: 2
  }
  inner_product_param {
    num_output: 40
    weight_filler {
      type: "gaussian"
      std: 0.01
    }
    bias_filler {
      type: "constant"
    }
  }
}
layer {
  name: "relu2"
  type: "ReLU"
  bottom: "ip2"
  top: "ip2"
}
layer {
  name: "ip3"
  type: "InnerProduct"
  bottom: "ip2"
  top: "ip3"
  param {
    lr_mult: 1
  }
  param {
    lr_mult: 2
  }
  inner_product_param {
    num_output: 10
    weight_filler {
      type: "gaussian"
      std: 0.01
    }
    bias_filler {
      type: "constant"
    }
  }
}
layer {
  name: "relu3"
  type: "ReLU"
  bottom: "ip3"
  top: "ip3"
}
layer {
  name: "ip4"
  type: "InnerProduct"
  bottom: "ip3"
  top: "ip4"
  param {
    lr_mult: 1
  }
  param {
    lr_mult: 2
  }
  inner_product_param {
    num_output: 10
    weight_filler {
      type: "gaussian"
      std: 0.01
    }
    bias_filler {
      type: "constant"
    }
  }
}
layer {
  name: "accuracy"
  type: "Accuracy"
  bottom: "ip4"
  bottom: "label"
  top: "accuracy"
  include {
    phase: TEST
  }
}
layer {
  name: "loss"
  type: "SoftmaxWithLoss"
  bottom: "ip4"
  bottom: "label"
  top: "loss"
}
I0501 05:39:11.944123 29910 layer_factory.hpp:77] Creating layer cifar
I0501 05:39:11.944180 29910 db_lmdb.cpp:35] Opened lmdb examples/cifar10/cifar10_test_lmdb
I0501 05:39:11.944196 29910 net.cpp:86] Creating Layer cifar
I0501 05:39:11.944203 29910 net.cpp:382] cifar -> data
I0501 05:39:11.944228 29910 net.cpp:382] cifar -> label
I0501 05:39:11.944237 29910 data_transformer.cpp:25] Loading mean file from: examples/cifar10/mean.binaryproto
I0501 05:39:11.944417 29910 data_layer.cpp:45] output data size: 1000,3,32,32
I0501 05:39:11.966195 29910 net.cpp:124] Setting up cifar
I0501 05:39:11.966236 29910 net.cpp:131] Top shape: 1000 3 32 32 (3072000)
I0501 05:39:11.966243 29910 net.cpp:131] Top shape: 1000 (1000)
I0501 05:39:11.966246 29910 net.cpp:139] Memory required for data: 12292000
I0501 05:39:11.966253 29910 layer_factory.hpp:77] Creating layer label_cifar_1_split
I0501 05:39:11.966265 29910 net.cpp:86] Creating Layer label_cifar_1_split
I0501 05:39:11.966269 29910 net.cpp:408] label_cifar_1_split <- label
I0501 05:39:11.966276 29910 net.cpp:382] label_cifar_1_split -> label_cifar_1_split_0
I0501 05:39:11.966289 29910 net.cpp:382] label_cifar_1_split -> label_cifar_1_split_1
I0501 05:39:11.966399 29910 net.cpp:124] Setting up label_cifar_1_split
I0501 05:39:11.966408 29910 net.cpp:131] Top shape: 1000 (1000)
I0501 05:39:11.966411 29910 net.cpp:131] Top shape: 1000 (1000)
I0501 05:39:11.966414 29910 net.cpp:139] Memory required for data: 12300000
I0501 05:39:11.966419 29910 layer_factory.hpp:77] Creating layer conv0
I0501 05:39:11.966436 29910 net.cpp:86] Creating Layer conv0
I0501 05:39:11.966442 29910 net.cpp:408] conv0 <- data
I0501 05:39:11.966450 29910 net.cpp:382] conv0 -> conv0
I0501 05:39:11.969019 29910 net.cpp:124] Setting up conv0
I0501 05:39:11.969050 29910 net.cpp:131] Top shape: 1000 8 32 32 (8192000)
I0501 05:39:11.969054 29910 net.cpp:139] Memory required for data: 45068000
I0501 05:39:11.969065 29910 layer_factory.hpp:77] Creating layer Sigmoid0
I0501 05:39:11.969074 29910 net.cpp:86] Creating Layer Sigmoid0
I0501 05:39:11.969076 29910 net.cpp:408] Sigmoid0 <- conv0
I0501 05:39:11.969081 29910 net.cpp:382] Sigmoid0 -> Sigmoid0
I0501 05:39:11.969306 29910 net.cpp:124] Setting up Sigmoid0
I0501 05:39:11.969316 29910 net.cpp:131] Top shape: 1000 8 32 32 (8192000)
I0501 05:39:11.969319 29910 net.cpp:139] Memory required for data: 77836000
I0501 05:39:11.969324 29910 layer_factory.hpp:77] Creating layer pool0
I0501 05:39:11.969336 29910 net.cpp:86] Creating Layer pool0
I0501 05:39:11.969341 29910 net.cpp:408] pool0 <- Sigmoid0
I0501 05:39:11.969364 29910 net.cpp:382] pool0 -> pool0
I0501 05:39:11.969540 29910 net.cpp:124] Setting up pool0
I0501 05:39:11.969550 29910 net.cpp:131] Top shape: 1000 8 16 16 (2048000)
I0501 05:39:11.969553 29910 net.cpp:139] Memory required for data: 86028000
I0501 05:39:11.969558 29910 layer_factory.hpp:77] Creating layer ip1
I0501 05:39:11.969568 29910 net.cpp:86] Creating Layer ip1
I0501 05:39:11.969573 29910 net.cpp:408] ip1 <- pool0
I0501 05:39:11.969583 29910 net.cpp:382] ip1 -> ip1
I0501 05:39:11.974078 29910 net.cpp:124] Setting up ip1
I0501 05:39:11.974088 29910 net.cpp:131] Top shape: 1000 80 (80000)
I0501 05:39:11.974107 29910 net.cpp:139] Memory required for data: 86348000
I0501 05:39:11.974128 29910 layer_factory.hpp:77] Creating layer relu1
I0501 05:39:11.974135 29910 net.cpp:86] Creating Layer relu1
I0501 05:39:11.974138 29910 net.cpp:408] relu1 <- ip1
I0501 05:39:11.974144 29910 net.cpp:369] relu1 -> ip1 (in-place)
I0501 05:39:11.974323 29910 net.cpp:124] Setting up relu1
I0501 05:39:11.974334 29910 net.cpp:131] Top shape: 1000 80 (80000)
I0501 05:39:11.974337 29910 net.cpp:139] Memory required for data: 86668000
I0501 05:39:11.974340 29910 layer_factory.hpp:77] Creating layer ip2
I0501 05:39:11.974350 29910 net.cpp:86] Creating Layer ip2
I0501 05:39:11.974355 29910 net.cpp:408] ip2 <- ip1
I0501 05:39:11.974364 29910 net.cpp:382] ip2 -> ip2
I0501 05:39:11.974557 29910 net.cpp:124] Setting up ip2
I0501 05:39:11.974565 29910 net.cpp:131] Top shape: 1000 40 (40000)
I0501 05:39:11.974568 29910 net.cpp:139] Memory required for data: 86828000
I0501 05:39:11.974578 29910 layer_factory.hpp:77] Creating layer relu2
I0501 05:39:11.974587 29910 net.cpp:86] Creating Layer relu2
I0501 05:39:11.974593 29910 net.cpp:408] relu2 <- ip2
I0501 05:39:11.974601 29910 net.cpp:369] relu2 -> ip2 (in-place)
I0501 05:39:11.975384 29910 net.cpp:124] Setting up relu2
I0501 05:39:11.975396 29910 net.cpp:131] Top shape: 1000 40 (40000)
I0501 05:39:11.975415 29910 net.cpp:139] Memory required for data: 86988000
I0501 05:39:11.975419 29910 layer_factory.hpp:77] Creating layer ip3
I0501 05:39:11.975426 29910 net.cpp:86] Creating Layer ip3
I0501 05:39:11.975430 29910 net.cpp:408] ip3 <- ip2
I0501 05:39:11.975436 29910 net.cpp:382] ip3 -> ip3
I0501 05:39:11.975569 29910 net.cpp:124] Setting up ip3
I0501 05:39:11.975579 29910 net.cpp:131] Top shape: 1000 10 (10000)
I0501 05:39:11.975581 29910 net.cpp:139] Memory required for data: 87028000
I0501 05:39:11.975589 29910 layer_factory.hpp:77] Creating layer relu3
I0501 05:39:11.975597 29910 net.cpp:86] Creating Layer relu3
I0501 05:39:11.975602 29910 net.cpp:408] relu3 <- ip3
I0501 05:39:11.975610 29910 net.cpp:369] relu3 -> ip3 (in-place)
I0501 05:39:11.975769 29910 net.cpp:124] Setting up relu3
I0501 05:39:11.975777 29910 net.cpp:131] Top shape: 1000 10 (10000)
I0501 05:39:11.975780 29910 net.cpp:139] Memory required for data: 87068000
I0501 05:39:11.975785 29910 layer_factory.hpp:77] Creating layer ip4
I0501 05:39:11.975792 29910 net.cpp:86] Creating Layer ip4
I0501 05:39:11.975797 29910 net.cpp:408] ip4 <- ip3
I0501 05:39:11.975806 29910 net.cpp:382] ip4 -> ip4
I0501 05:39:11.975917 29910 net.cpp:124] Setting up ip4
I0501 05:39:11.975940 29910 net.cpp:131] Top shape: 1000 10 (10000)
I0501 05:39:11.975944 29910 net.cpp:139] Memory required for data: 87108000
I0501 05:39:11.975956 29910 layer_factory.hpp:77] Creating layer ip4_ip4_0_split
I0501 05:39:11.975965 29910 net.cpp:86] Creating Layer ip4_ip4_0_split
I0501 05:39:11.975970 29910 net.cpp:408] ip4_ip4_0_split <- ip4
I0501 05:39:11.975977 29910 net.cpp:382] ip4_ip4_0_split -> ip4_ip4_0_split_0
I0501 05:39:11.975986 29910 net.cpp:382] ip4_ip4_0_split -> ip4_ip4_0_split_1
I0501 05:39:11.976029 29910 net.cpp:124] Setting up ip4_ip4_0_split
I0501 05:39:11.976037 29910 net.cpp:131] Top shape: 1000 10 (10000)
I0501 05:39:11.976040 29910 net.cpp:131] Top shape: 1000 10 (10000)
I0501 05:39:11.976043 29910 net.cpp:139] Memory required for data: 87188000
I0501 05:39:11.976048 29910 layer_factory.hpp:77] Creating layer accuracy
I0501 05:39:11.976058 29910 net.cpp:86] Creating Layer accuracy
I0501 05:39:11.976063 29910 net.cpp:408] accuracy <- ip4_ip4_0_split_0
I0501 05:39:11.976069 29910 net.cpp:408] accuracy <- label_cifar_1_split_0
I0501 05:39:11.976076 29910 net.cpp:382] accuracy -> accuracy
…
