…
I0501 01:01:19.750018  8877 net.cpp:296] The NetState phase (0) differed from the phase (1) specified by a rule in layer cifar
I0501 01:01:19.750038  8877 net.cpp:296] The NetState phase (0) differed from the phase (1) specified by a rule in layer accuracy
I0501 01:01:19.750144  8877 net.cpp:53] Initializing net from parameters: 
name: "CIFAR"
state {
  phase: TRAIN
  level: 0
  stage: ""
}
layer {
  name: "cifar"
  type: "Data"
  top: "data"
  top: "label"
  include {
    phase: TRAIN
  }
  transform_param {
    mean_file: "examples/cifar10/mean.binaryproto"
  }
  data_param {
    source: "examples/cifar10/cifar10_train_lmdb"
    batch_size: 111
    backend: LMDB
  }
}
layer {
  name: "conv0"
  type: "Convolution"
  bottom: "data"
  top: "conv0"
  param {
    lr_mult: 1
  }
  param {
    lr_mult: 2
  }
  convolution_param {
    num_output: 8
    pad: 2
    kernel_size: 3
    stride: 1
    weight_filler {
      type: "gaussian"
      std: 0.01
    }
    bias_filler {
      type: "constant"
    }
  }
}
layer {
  name: "Sigmoid0"
  type: "Sigmoid"
  bottom: "conv0"
  top: "Sigmoid0"
}
layer {
  name: "pool0"
  type: "Pooling"
  bottom: "Sigmoid0"
  top: "pool0"
  pooling_param {
    pool: AVE
    kernel_size: 3
    stride: 2
  }
}
layer {
  name: "ip1"
  type: "InnerProduct"
  bottom: "pool0"
  top: "ip1"
  param {
    lr_mult: 1
  }
  param {
    lr_mult: 2
  }
  inner_product_param {
    num_output: 80
    weight_filler {
      type: "gaussian"
      std: 0.01
    }
    bias_filler {
      type: "constant"
    }
  }
}
layer {
  name: "relu1"
  type: "ReLU"
  bottom: "ip1"
  top: "ip1"
}
layer {
  name: "ip2"
  type: "InnerProduct"
  bottom: "ip1"
  top: "ip2"
  param {
    lr_mult: 1
  }
  param {
    lr_mult: 2
  }
  inner_product_param {
    num_output: 80
    weight_filler {
      type: "gaussian"
      std: 0.01
    }
    bias_filler {
      type: "constant"
    }
  }
}
layer {
  name: "relu2"
  type: "ReLU"
  bottom: "ip2"
  top: "ip2"
}
layer {
  name: "ip3"
  type: "InnerProduct"
  bottom: "ip2"
  top: "ip3"
  param {
    lr_mult: 1
  }
  param {
    lr_mult: 2
  }
  inner_product_param {
    num_output: 20
    weight_filler {
      type: "gaussian"
      std: 0.01
    }
    bias_filler {
      type: "constant"
    }
  }
}
layer {
  name: "relu3"
  type: "ReLU"
  bottom: "ip3"
  top: "ip3"
}
layer {
  name: "ip4"
  type: "InnerProduct"
  bottom: "ip3"
  top: "ip4"
  param {
    lr_mult: 1
  }
  param {
    lr_mult: 2
  }
  inner_product_param {
    num_output: 10
    weight_filler {
      type: "gaussian"
      std: 0.01
    }
    bias_filler {
      type: "constant"
    }
  }
}
layer {
  name: "loss"
  type: "SoftmaxWithLoss"
  bottom: "ip4"
  bottom: "label"
  top: "loss"
}
I0501 01:01:19.750224  8877 layer_factory.hpp:77] Creating layer cifar
I0501 01:01:19.750324  8877 db_lmdb.cpp:35] Opened lmdb examples/cifar10/cifar10_train_lmdb
I0501 01:01:19.750354  8877 net.cpp:86] Creating Layer cifar
I0501 01:01:19.750361  8877 net.cpp:382] cifar -> data
I0501 01:01:19.750385  8877 net.cpp:382] cifar -> label
I0501 01:01:19.750398  8877 data_transformer.cpp:25] Loading mean file from: examples/cifar10/mean.binaryproto
I0501 01:01:19.752498  8877 data_layer.cpp:45] output data size: 111,3,32,32
I0501 01:01:19.760373  8877 net.cpp:124] Setting up cifar
I0501 01:01:19.760395  8877 net.cpp:131] Top shape: 111 3 32 32 (340992)
I0501 01:01:19.760402  8877 net.cpp:131] Top shape: 111 (111)
I0501 01:01:19.760406  8877 net.cpp:139] Memory required for data: 1364412
I0501 01:01:19.760431  8877 layer_factory.hpp:77] Creating layer conv0
I0501 01:01:19.760448  8877 net.cpp:86] Creating Layer conv0
I0501 01:01:19.760453  8877 net.cpp:408] conv0 <- data
I0501 01:01:19.760468  8877 net.cpp:382] conv0 -> conv0
I0501 01:01:20.043534  8877 net.cpp:124] Setting up conv0
I0501 01:01:20.043560  8877 net.cpp:131] Top shape: 111 8 34 34 (1026528)
I0501 01:01:20.043565  8877 net.cpp:139] Memory required for data: 5470524
I0501 01:01:20.043579  8877 layer_factory.hpp:77] Creating layer Sigmoid0
I0501 01:01:20.043591  8877 net.cpp:86] Creating Layer Sigmoid0
I0501 01:01:20.043596  8877 net.cpp:408] Sigmoid0 <- conv0
I0501 01:01:20.043601  8877 net.cpp:382] Sigmoid0 -> Sigmoid0
I0501 01:01:20.043777  8877 net.cpp:124] Setting up Sigmoid0
I0501 01:01:20.043787  8877 net.cpp:131] Top shape: 111 8 34 34 (1026528)
I0501 01:01:20.043790  8877 net.cpp:139] Memory required for data: 9576636
I0501 01:01:20.043793  8877 layer_factory.hpp:77] Creating layer pool0
I0501 01:01:20.043800  8877 net.cpp:86] Creating Layer pool0
I0501 01:01:20.043803  8877 net.cpp:408] pool0 <- Sigmoid0
I0501 01:01:20.043808  8877 net.cpp:382] pool0 -> pool0
I0501 01:01:20.044543  8877 net.cpp:124] Setting up pool0
I0501 01:01:20.044555  8877 net.cpp:131] Top shape: 111 8 17 17 (256632)
I0501 01:01:20.044559  8877 net.cpp:139] Memory required for data: 10603164
I0501 01:01:20.044564  8877 layer_factory.hpp:77] Creating layer ip1
I0501 01:01:20.044572  8877 net.cpp:86] Creating Layer ip1
I0501 01:01:20.044575  8877 net.cpp:408] ip1 <- pool0
I0501 01:01:20.044581  8877 net.cpp:382] ip1 -> ip1
I0501 01:01:20.050459  8877 net.cpp:124] Setting up ip1
I0501 01:01:20.050472  8877 net.cpp:131] Top shape: 111 80 (8880)
I0501 01:01:20.050475  8877 net.cpp:139] Memory required for data: 10638684
I0501 01:01:20.050483  8877 layer_factory.hpp:77] Creating layer relu1
I0501 01:01:20.050489  8877 net.cpp:86] Creating Layer relu1
I0501 01:01:20.050493  8877 net.cpp:408] relu1 <- ip1
I0501 01:01:20.050496  8877 net.cpp:369] relu1 -> ip1 (in-place)
I0501 01:01:20.050648  8877 net.cpp:124] Setting up relu1
I0501 01:01:20.050657  8877 net.cpp:131] Top shape: 111 80 (8880)
I0501 01:01:20.050659  8877 net.cpp:139] Memory required for data: 10674204
I0501 01:01:20.050662  8877 layer_factory.hpp:77] Creating layer ip2
I0501 01:01:20.050669  8877 net.cpp:86] Creating Layer ip2
I0501 01:01:20.050673  8877 net.cpp:408] ip2 <- ip1
I0501 01:01:20.050678  8877 net.cpp:382] ip2 -> ip2
I0501 01:01:20.051740  8877 net.cpp:124] Setting up ip2
I0501 01:01:20.051751  8877 net.cpp:131] Top shape: 111 80 (8880)
I0501 01:01:20.051755  8877 net.cpp:139] Memory required for data: 10709724
I0501 01:01:20.051764  8877 layer_factory.hpp:77] Creating layer relu2
I0501 01:01:20.051769  8877 net.cpp:86] Creating Layer relu2
I0501 01:01:20.051771  8877 net.cpp:408] relu2 <- ip2
I0501 01:01:20.051776  8877 net.cpp:369] relu2 -> ip2 (in-place)
I0501 01:01:20.051934  8877 net.cpp:124] Setting up relu2
I0501 01:01:20.051942  8877 net.cpp:131] Top shape: 111 80 (8880)
I0501 01:01:20.051945  8877 net.cpp:139] Memory required for data: 10745244
I0501 01:01:20.051949  8877 layer_factory.hpp:77] Creating layer ip3
I0501 01:01:20.051956  8877 net.cpp:86] Creating Layer ip3
I0501 01:01:20.051960  8877 net.cpp:408] ip3 <- ip2
I0501 01:01:20.051964  8877 net.cpp:382] ip3 -> ip3
I0501 01:01:20.052096  8877 net.cpp:124] Setting up ip3
I0501 01:01:20.052103  8877 net.cpp:131] Top shape: 111 20 (2220)
I0501 01:01:20.052106  8877 net.cpp:139] Memory required for data: 10754124
I0501 01:01:20.052111  8877 layer_factory.hpp:77] Creating layer relu3
I0501 01:01:20.052116  8877 net.cpp:86] Creating Layer relu3
I0501 01:01:20.052119  8877 net.cpp:408] relu3 <- ip3
I0501 01:01:20.052124  8877 net.cpp:369] relu3 -> ip3 (in-place)
I0501 01:01:20.052266  8877 net.cpp:124] Setting up relu3
I0501 01:01:20.052274  8877 net.cpp:131] Top shape: 111 20 (2220)
I0501 01:01:20.052278  8877 net.cpp:139] Memory required for data: 10763004
I0501 01:01:20.052280  8877 layer_factory.hpp:77] Creating layer ip4
I0501 01:01:20.052300  8877 net.cpp:86] Creating Layer ip4
I0501 01:01:20.052304  8877 net.cpp:408] ip4 <- ip3
I0501 01:01:20.052309  8877 net.cpp:382] ip4 -> ip4
I0501 01:01:20.052408  8877 net.cpp:124] Setting up ip4
I0501 01:01:20.052417  8877 net.cpp:131] Top shape: 111 10 (1110)
I0501 01:01:20.052419  8877 net.cpp:139] Memory required for data: 10767444
I0501 01:01:20.052426  8877 layer_factory.hpp:77] Creating layer loss
I0501 01:01:20.052430  8877 net.cpp:86] Creating Layer loss
I0501 01:01:20.052433  8877 net.cpp:408] loss <- ip4
I0501 01:01:20.052438  8877 net.cpp:408] loss <- label
I0501 01:01:20.052443  8877 net.cpp:382] loss -> loss
I0501 01:01:20.052460  8877 layer_factory.hpp:77] Creating layer loss
…
I0501 01:01:20.053653  8877 solver.cpp:173] Creating test net (#0) specified by net file: ECE595/cifar/train_test/var_everything/cifar_train_test_276.prototxt
I0501 01:01:20.053680  8877 net.cpp:296] The NetState phase (1) differed from the phase (0) specified by a rule in layer cifar
I0501 01:01:20.053788  8877 net.cpp:53] Initializing net from parameters: 
name: "CIFAR"
state {
  phase: TEST
}
layer {
  name: "cifar"
  type: "Data"
  top: "data"
  top: "label"
  include {
    phase: TEST
  }
  transform_param {
    mean_file: "examples/cifar10/mean.binaryproto"
  }
  data_param {
    source: "examples/cifar10/cifar10_test_lmdb"
    batch_size: 1000
    backend: LMDB
  }
}
layer {
  name: "conv0"
  type: "Convolution"
  bottom: "data"
  top: "conv0"
  param {
    lr_mult: 1
  }
  param {
    lr_mult: 2
  }
  convolution_param {
    num_output: 8
    pad: 2
    kernel_size: 3
    stride: 1
    weight_filler {
      type: "gaussian"
      std: 0.01
    }
    bias_filler {
      type: "constant"
    }
  }
}
layer {
  name: "Sigmoid0"
  type: "Sigmoid"
  bottom: "conv0"
  top: "Sigmoid0"
}
layer {
  name: "pool0"
  type: "Pooling"
  bottom: "Sigmoid0"
  top: "pool0"
  pooling_param {
    pool: AVE
    kernel_size: 3
    stride: 2
  }
}
layer {
  name: "ip1"
  type: "InnerProduct"
  bottom: "pool0"
  top: "ip1"
  param {
    lr_mult: 1
  }
  param {
    lr_mult: 2
  }
  inner_product_param {
    num_output: 80
    weight_filler {
      type: "gaussian"
      std: 0.01
    }
    bias_filler {
      type: "constant"
    }
  }
}
layer {
  name: "relu1"
  type: "ReLU"
  bottom: "ip1"
  top: "ip1"
}
layer {
  name: "ip2"
  type: "InnerProduct"
  bottom: "ip1"
  top: "ip2"
  param {
    lr_mult: 1
  }
  param {
    lr_mult: 2
  }
  inner_product_param {
    num_output: 80
    weight_filler {
      type: "gaussian"
      std: 0.01
    }
    bias_filler {
      type: "constant"
    }
  }
}
layer {
  name: "relu2"
  type: "ReLU"
  bottom: "ip2"
  top: "ip2"
}
layer {
  name: "ip3"
  type: "InnerProduct"
  bottom: "ip2"
  top: "ip3"
  param {
    lr_mult: 1
  }
  param {
    lr_mult: 2
  }
  inner_product_param {
    num_output: 20
    weight_filler {
      type: "gaussian"
      std: 0.01
    }
    bias_filler {
      type: "constant"
    }
  }
}
layer {
  name: "relu3"
  type: "ReLU"
  bottom: "ip3"
  top: "ip3"
}
layer {
  name: "ip4"
  type: "InnerProduct"
  bottom: "ip3"
  top: "ip4"
  param {
    lr_mult: 1
  }
  param {
    lr_mult: 2
  }
  inner_product_param {
    num_output: 10
    weight_filler {
      type: "gaussian"
      std: 0.01
    }
    bias_filler {
      type: "constant"
    }
  }
}
layer {
  name: "accuracy"
  type: "Accuracy"
  bottom: "ip4"
  bottom: "label"
  top: "accuracy"
  include {
    phase: TEST
  }
}
layer {
  name: "loss"
  type: "SoftmaxWithLoss"
  bottom: "ip4"
  bottom: "label"
  top: "loss"
}
I0501 01:01:20.053865  8877 layer_factory.hpp:77] Creating layer cifar
I0501 01:01:20.053908  8877 db_lmdb.cpp:35] Opened lmdb examples/cifar10/cifar10_test_lmdb
I0501 01:01:20.053920  8877 net.cpp:86] Creating Layer cifar
I0501 01:01:20.053925  8877 net.cpp:382] cifar -> data
I0501 01:01:20.053932  8877 net.cpp:382] cifar -> label
I0501 01:01:20.053939  8877 data_transformer.cpp:25] Loading mean file from: examples/cifar10/mean.binaryproto
I0501 01:01:20.054075  8877 data_layer.cpp:45] output data size: 1000,3,32,32
I0501 01:01:20.076644  8877 net.cpp:124] Setting up cifar
I0501 01:01:20.076685  8877 net.cpp:131] Top shape: 1000 3 32 32 (3072000)
I0501 01:01:20.076691  8877 net.cpp:131] Top shape: 1000 (1000)
I0501 01:01:20.076695  8877 net.cpp:139] Memory required for data: 12292000
I0501 01:01:20.076701  8877 layer_factory.hpp:77] Creating layer label_cifar_1_split
I0501 01:01:20.076751  8877 net.cpp:86] Creating Layer label_cifar_1_split
I0501 01:01:20.076756  8877 net.cpp:408] label_cifar_1_split <- label
I0501 01:01:20.076762  8877 net.cpp:382] label_cifar_1_split -> label_cifar_1_split_0
I0501 01:01:20.076771  8877 net.cpp:382] label_cifar_1_split -> label_cifar_1_split_1
I0501 01:01:20.076908  8877 net.cpp:124] Setting up label_cifar_1_split
I0501 01:01:20.076916  8877 net.cpp:131] Top shape: 1000 (1000)
I0501 01:01:20.076920  8877 net.cpp:131] Top shape: 1000 (1000)
I0501 01:01:20.076923  8877 net.cpp:139] Memory required for data: 12300000
I0501 01:01:20.076926  8877 layer_factory.hpp:77] Creating layer conv0
I0501 01:01:20.076938  8877 net.cpp:86] Creating Layer conv0
I0501 01:01:20.076942  8877 net.cpp:408] conv0 <- data
I0501 01:01:20.076947  8877 net.cpp:382] conv0 -> conv0
I0501 01:01:20.078649  8877 net.cpp:124] Setting up conv0
I0501 01:01:20.078678  8877 net.cpp:131] Top shape: 1000 8 34 34 (9248000)
I0501 01:01:20.078681  8877 net.cpp:139] Memory required for data: 49292000
I0501 01:01:20.078691  8877 layer_factory.hpp:77] Creating layer Sigmoid0
I0501 01:01:20.078699  8877 net.cpp:86] Creating Layer Sigmoid0
I0501 01:01:20.078702  8877 net.cpp:408] Sigmoid0 <- conv0
I0501 01:01:20.078707  8877 net.cpp:382] Sigmoid0 -> Sigmoid0
I0501 01:01:20.078919  8877 net.cpp:124] Setting up Sigmoid0
I0501 01:01:20.078928  8877 net.cpp:131] Top shape: 1000 8 34 34 (9248000)
I0501 01:01:20.078932  8877 net.cpp:139] Memory required for data: 86284000
I0501 01:01:20.078934  8877 layer_factory.hpp:77] Creating layer pool0
I0501 01:01:20.078943  8877 net.cpp:86] Creating Layer pool0
I0501 01:01:20.078946  8877 net.cpp:408] pool0 <- Sigmoid0
I0501 01:01:20.078951  8877 net.cpp:382] pool0 -> pool0
I0501 01:01:20.079206  8877 net.cpp:124] Setting up pool0
I0501 01:01:20.079216  8877 net.cpp:131] Top shape: 1000 8 17 17 (2312000)
I0501 01:01:20.079219  8877 net.cpp:139] Memory required for data: 95532000
I0501 01:01:20.079222  8877 layer_factory.hpp:77] Creating layer ip1
I0501 01:01:20.079236  8877 net.cpp:86] Creating Layer ip1
I0501 01:01:20.079238  8877 net.cpp:408] ip1 <- pool0
I0501 01:01:20.079244  8877 net.cpp:382] ip1 -> ip1
I0501 01:01:20.085324  8877 net.cpp:124] Setting up ip1
I0501 01:01:20.085335  8877 net.cpp:131] Top shape: 1000 80 (80000)
I0501 01:01:20.085353  8877 net.cpp:139] Memory required for data: 95852000
I0501 01:01:20.085391  8877 layer_factory.hpp:77] Creating layer relu1
I0501 01:01:20.085397  8877 net.cpp:86] Creating Layer relu1
I0501 01:01:20.085400  8877 net.cpp:408] relu1 <- ip1
I0501 01:01:20.085420  8877 net.cpp:369] relu1 -> ip1 (in-place)
I0501 01:01:20.085587  8877 net.cpp:124] Setting up relu1
I0501 01:01:20.085597  8877 net.cpp:131] Top shape: 1000 80 (80000)
I0501 01:01:20.085600  8877 net.cpp:139] Memory required for data: 96172000
I0501 01:01:20.085603  8877 layer_factory.hpp:77] Creating layer ip2
I0501 01:01:20.085610  8877 net.cpp:86] Creating Layer ip2
I0501 01:01:20.085613  8877 net.cpp:408] ip2 <- ip1
I0501 01:01:20.085619  8877 net.cpp:382] ip2 -> ip2
I0501 01:01:20.085886  8877 net.cpp:124] Setting up ip2
I0501 01:01:20.085894  8877 net.cpp:131] Top shape: 1000 80 (80000)
I0501 01:01:20.085898  8877 net.cpp:139] Memory required for data: 96492000
I0501 01:01:20.085906  8877 layer_factory.hpp:77] Creating layer relu2
I0501 01:01:20.085916  8877 net.cpp:86] Creating Layer relu2
I0501 01:01:20.085918  8877 net.cpp:408] relu2 <- ip2
I0501 01:01:20.085922  8877 net.cpp:369] relu2 -> ip2 (in-place)
I0501 01:01:20.086701  8877 net.cpp:124] Setting up relu2
I0501 01:01:20.086714  8877 net.cpp:131] Top shape: 1000 80 (80000)
I0501 01:01:20.086732  8877 net.cpp:139] Memory required for data: 96812000
I0501 01:01:20.086736  8877 layer_factory.hpp:77] Creating layer ip3
I0501 01:01:20.086743  8877 net.cpp:86] Creating Layer ip3
I0501 01:01:20.086746  8877 net.cpp:408] ip3 <- ip2
I0501 01:01:20.086752  8877 net.cpp:382] ip3 -> ip3
I0501 01:01:20.086918  8877 net.cpp:124] Setting up ip3
I0501 01:01:20.086926  8877 net.cpp:131] Top shape: 1000 20 (20000)
I0501 01:01:20.086930  8877 net.cpp:139] Memory required for data: 96892000
I0501 01:01:20.086935  8877 layer_factory.hpp:77] Creating layer relu3
I0501 01:01:20.086941  8877 net.cpp:86] Creating Layer relu3
I0501 01:01:20.086944  8877 net.cpp:408] relu3 <- ip3
I0501 01:01:20.086949  8877 net.cpp:369] relu3 -> ip3 (in-place)
I0501 01:01:20.087102  8877 net.cpp:124] Setting up relu3
I0501 01:01:20.087111  8877 net.cpp:131] Top shape: 1000 20 (20000)
I0501 01:01:20.087115  8877 net.cpp:139] Memory required for data: 96972000
I0501 01:01:20.087117  8877 layer_factory.hpp:77] Creating layer ip4
I0501 01:01:20.087124  8877 net.cpp:86] Creating Layer ip4
I0501 01:01:20.087127  8877 net.cpp:408] ip4 <- ip3
I0501 01:01:20.087132  8877 net.cpp:382] ip4 -> ip4
I0501 01:01:20.087240  8877 net.cpp:124] Setting up ip4
I0501 01:01:20.087262  8877 net.cpp:131] Top shape: 1000 10 (10000)
I0501 01:01:20.087265  8877 net.cpp:139] Memory required for data: 97012000
I0501 01:01:20.087273  8877 layer_factory.hpp:77] Creating layer ip4_ip4_0_split
I0501 01:01:20.087278  8877 net.cpp:86] Creating Layer ip4_ip4_0_split
I0501 01:01:20.087281  8877 net.cpp:408] ip4_ip4_0_split <- ip4
I0501 01:01:20.087286  8877 net.cpp:382] ip4_ip4_0_split -> ip4_ip4_0_split_0
I0501 01:01:20.087291  8877 net.cpp:382] ip4_ip4_0_split -> ip4_ip4_0_split_1
I0501 01:01:20.087321  8877 net.cpp:124] Setting up ip4_ip4_0_split
I0501 01:01:20.087327  8877 net.cpp:131] Top shape: 1000 10 (10000)
I0501 01:01:20.087330  8877 net.cpp:131] Top shape: 1000 10 (10000)
I0501 01:01:20.087332  8877 net.cpp:139] Memory required for data: 97092000
I0501 01:01:20.087335  8877 layer_factory.hpp:77] Creating layer accuracy
I0501 01:01:20.087342  8877 net.cpp:86] Creating Layer accuracy
I0501 01:01:20.087345  8877 net.cpp:408] accuracy <- ip4_ip4_0_split_0
I0501 01:01:20.087349  8877 net.cpp:408] accuracy <- label_cifar_1_split_0
I0501 01:01:20.087354  8877 net.cpp:382] accuracy -> accuracy
…
