…
I0501 09:00:29.358486 12729 net.cpp:296] The NetState phase (0) differed from the phase (1) specified by a rule in layer cifar
I0501 09:00:29.358505 12729 net.cpp:296] The NetState phase (0) differed from the phase (1) specified by a rule in layer accuracy
I0501 09:00:29.358603 12729 net.cpp:53] Initializing net from parameters: 
name: "CIFAR"
state {
  phase: TRAIN
  level: 0
  stage: ""
}
layer {
  name: "cifar"
  type: "Data"
  top: "data"
  top: "label"
  include {
    phase: TRAIN
  }
  transform_param {
    mean_file: "examples/cifar10/mean.binaryproto"
  }
  data_param {
    source: "examples/cifar10/cifar10_train_lmdb"
    batch_size: 111
    backend: LMDB
  }
}
layer {
  name: "conv0"
  type: "Convolution"
  bottom: "data"
  top: "conv0"
  param {
    lr_mult: 1
  }
  param {
    lr_mult: 2
  }
  convolution_param {
    num_output: 16
    pad: 2
    kernel_size: 3
    stride: 1
    weight_filler {
      type: "gaussian"
      std: 0.01
    }
    bias_filler {
      type: "constant"
    }
  }
}
layer {
  name: "Sigmoid0"
  type: "Sigmoid"
  bottom: "conv0"
  top: "Sigmoid0"
}
layer {
  name: "pool0"
  type: "Pooling"
  bottom: "Sigmoid0"
  top: "pool0"
  pooling_param {
    pool: AVE
    kernel_size: 3
    stride: 2
  }
}
layer {
  name: "ip1"
  type: "InnerProduct"
  bottom: "pool0"
  top: "ip1"
  param {
    lr_mult: 1
  }
  param {
    lr_mult: 2
  }
  inner_product_param {
    num_output: 20
    weight_filler {
      type: "gaussian"
      std: 0.01
    }
    bias_filler {
      type: "constant"
    }
  }
}
layer {
  name: "relu1"
  type: "ReLU"
  bottom: "ip1"
  top: "ip1"
}
layer {
  name: "ip2"
  type: "InnerProduct"
  bottom: "ip1"
  top: "ip2"
  param {
    lr_mult: 1
  }
  param {
    lr_mult: 2
  }
  inner_product_param {
    num_output: 20
    weight_filler {
      type: "gaussian"
      std: 0.01
    }
    bias_filler {
      type: "constant"
    }
  }
}
layer {
  name: "relu2"
  type: "ReLU"
  bottom: "ip2"
  top: "ip2"
}
layer {
  name: "ip3"
  type: "InnerProduct"
  bottom: "ip2"
  top: "ip3"
  param {
    lr_mult: 1
  }
  param {
    lr_mult: 2
  }
  inner_product_param {
    num_output: 40
    weight_filler {
      type: "gaussian"
      std: 0.01
    }
    bias_filler {
      type: "constant"
    }
  }
}
layer {
  name: "relu3"
  type: "ReLU"
  bottom: "ip3"
  top: "ip3"
}
layer {
  name: "ip4"
  type: "InnerProduct"
  bottom: "ip3"
  top: "ip4"
  param {
    lr_mult: 1
  }
  param {
    lr_mult: 2
  }
  inner_product_param {
    num_output: 10
    weight_filler {
      type: "gaussian"
      std: 0.01
    }
    bias_filler {
      type: "constant"
    }
  }
}
layer {
  name: "loss"
  type: "SoftmaxWithLoss"
  bottom: "ip4"
  bottom: "label"
  top: "loss"
}
I0501 09:00:29.358676 12729 layer_factory.hpp:77] Creating layer cifar
I0501 09:00:29.358778 12729 db_lmdb.cpp:35] Opened lmdb examples/cifar10/cifar10_train_lmdb
I0501 09:00:29.358805 12729 net.cpp:86] Creating Layer cifar
I0501 09:00:29.358814 12729 net.cpp:382] cifar -> data
I0501 09:00:29.358837 12729 net.cpp:382] cifar -> label
I0501 09:00:29.358850 12729 data_transformer.cpp:25] Loading mean file from: examples/cifar10/mean.binaryproto
I0501 09:00:29.361007 12729 data_layer.cpp:45] output data size: 111,3,32,32
I0501 09:00:29.368973 12729 net.cpp:124] Setting up cifar
I0501 09:00:29.368993 12729 net.cpp:131] Top shape: 111 3 32 32 (340992)
I0501 09:00:29.368999 12729 net.cpp:131] Top shape: 111 (111)
I0501 09:00:29.369004 12729 net.cpp:139] Memory required for data: 1364412
I0501 09:00:29.369025 12729 layer_factory.hpp:77] Creating layer conv0
I0501 09:00:29.369043 12729 net.cpp:86] Creating Layer conv0
I0501 09:00:29.369048 12729 net.cpp:408] conv0 <- data
I0501 09:00:29.369060 12729 net.cpp:382] conv0 -> conv0
I0501 09:00:29.654788 12729 net.cpp:124] Setting up conv0
I0501 09:00:29.654830 12729 net.cpp:131] Top shape: 111 16 34 34 (2053056)
I0501 09:00:29.654835 12729 net.cpp:139] Memory required for data: 9576636
I0501 09:00:29.654851 12729 layer_factory.hpp:77] Creating layer Sigmoid0
I0501 09:00:29.654863 12729 net.cpp:86] Creating Layer Sigmoid0
I0501 09:00:29.654867 12729 net.cpp:408] Sigmoid0 <- conv0
I0501 09:00:29.654872 12729 net.cpp:382] Sigmoid0 -> Sigmoid0
I0501 09:00:29.655064 12729 net.cpp:124] Setting up Sigmoid0
I0501 09:00:29.655073 12729 net.cpp:131] Top shape: 111 16 34 34 (2053056)
I0501 09:00:29.655077 12729 net.cpp:139] Memory required for data: 17788860
I0501 09:00:29.655081 12729 layer_factory.hpp:77] Creating layer pool0
I0501 09:00:29.655087 12729 net.cpp:86] Creating Layer pool0
I0501 09:00:29.655091 12729 net.cpp:408] pool0 <- Sigmoid0
I0501 09:00:29.655095 12729 net.cpp:382] pool0 -> pool0
I0501 09:00:29.655822 12729 net.cpp:124] Setting up pool0
I0501 09:00:29.655835 12729 net.cpp:131] Top shape: 111 16 17 17 (513264)
I0501 09:00:29.655839 12729 net.cpp:139] Memory required for data: 19841916
I0501 09:00:29.655843 12729 layer_factory.hpp:77] Creating layer ip1
I0501 09:00:29.655853 12729 net.cpp:86] Creating Layer ip1
I0501 09:00:29.655855 12729 net.cpp:408] ip1 <- pool0
I0501 09:00:29.655860 12729 net.cpp:382] ip1 -> ip1
I0501 09:00:29.658439 12729 net.cpp:124] Setting up ip1
I0501 09:00:29.658449 12729 net.cpp:131] Top shape: 111 20 (2220)
I0501 09:00:29.658452 12729 net.cpp:139] Memory required for data: 19850796
I0501 09:00:29.658459 12729 layer_factory.hpp:77] Creating layer relu1
I0501 09:00:29.658465 12729 net.cpp:86] Creating Layer relu1
I0501 09:00:29.658468 12729 net.cpp:408] relu1 <- ip1
I0501 09:00:29.658473 12729 net.cpp:369] relu1 -> ip1 (in-place)
I0501 09:00:29.658615 12729 net.cpp:124] Setting up relu1
I0501 09:00:29.658624 12729 net.cpp:131] Top shape: 111 20 (2220)
I0501 09:00:29.658627 12729 net.cpp:139] Memory required for data: 19859676
I0501 09:00:29.658629 12729 layer_factory.hpp:77] Creating layer ip2
I0501 09:00:29.658637 12729 net.cpp:86] Creating Layer ip2
I0501 09:00:29.658639 12729 net.cpp:408] ip2 <- ip1
I0501 09:00:29.658643 12729 net.cpp:382] ip2 -> ip2
I0501 09:00:29.658740 12729 net.cpp:124] Setting up ip2
I0501 09:00:29.658747 12729 net.cpp:131] Top shape: 111 20 (2220)
I0501 09:00:29.658751 12729 net.cpp:139] Memory required for data: 19868556
I0501 09:00:29.658757 12729 layer_factory.hpp:77] Creating layer relu2
I0501 09:00:29.658761 12729 net.cpp:86] Creating Layer relu2
I0501 09:00:29.658766 12729 net.cpp:408] relu2 <- ip2
I0501 09:00:29.658768 12729 net.cpp:369] relu2 -> ip2 (in-place)
I0501 09:00:29.658907 12729 net.cpp:124] Setting up relu2
I0501 09:00:29.658915 12729 net.cpp:131] Top shape: 111 20 (2220)
I0501 09:00:29.658918 12729 net.cpp:139] Memory required for data: 19877436
I0501 09:00:29.658921 12729 layer_factory.hpp:77] Creating layer ip3
I0501 09:00:29.658929 12729 net.cpp:86] Creating Layer ip3
I0501 09:00:29.658932 12729 net.cpp:408] ip3 <- ip2
I0501 09:00:29.658936 12729 net.cpp:382] ip3 -> ip3
I0501 09:00:29.659060 12729 net.cpp:124] Setting up ip3
I0501 09:00:29.659068 12729 net.cpp:131] Top shape: 111 40 (4440)
I0501 09:00:29.659071 12729 net.cpp:139] Memory required for data: 19895196
I0501 09:00:29.659076 12729 layer_factory.hpp:77] Creating layer relu3
I0501 09:00:29.659080 12729 net.cpp:86] Creating Layer relu3
I0501 09:00:29.659085 12729 net.cpp:408] relu3 <- ip3
I0501 09:00:29.659087 12729 net.cpp:369] relu3 -> ip3 (in-place)
I0501 09:00:29.659225 12729 net.cpp:124] Setting up relu3
I0501 09:00:29.659235 12729 net.cpp:131] Top shape: 111 40 (4440)
I0501 09:00:29.659237 12729 net.cpp:139] Memory required for data: 19912956
I0501 09:00:29.659240 12729 layer_factory.hpp:77] Creating layer ip4
I0501 09:00:29.659260 12729 net.cpp:86] Creating Layer ip4
I0501 09:00:29.659265 12729 net.cpp:408] ip4 <- ip3
I0501 09:00:29.659268 12729 net.cpp:382] ip4 -> ip4
I0501 09:00:29.659391 12729 net.cpp:124] Setting up ip4
I0501 09:00:29.659399 12729 net.cpp:131] Top shape: 111 10 (1110)
I0501 09:00:29.659402 12729 net.cpp:139] Memory required for data: 19917396
I0501 09:00:29.659409 12729 layer_factory.hpp:77] Creating layer loss
I0501 09:00:29.659415 12729 net.cpp:86] Creating Layer loss
I0501 09:00:29.659417 12729 net.cpp:408] loss <- ip4
I0501 09:00:29.659420 12729 net.cpp:408] loss <- label
I0501 09:00:29.659425 12729 net.cpp:382] loss -> loss
I0501 09:00:29.659438 12729 layer_factory.hpp:77] Creating layer loss
…
I0501 09:00:29.660620 12729 solver.cpp:173] Creating test net (#0) specified by net file: ECE595/cifar/train_test/var_everything/cifar_train_test_527.prototxt
I0501 09:00:29.660646 12729 net.cpp:296] The NetState phase (1) differed from the phase (0) specified by a rule in layer cifar
I0501 09:00:29.660737 12729 net.cpp:53] Initializing net from parameters: 
name: "CIFAR"
state {
  phase: TEST
}
layer {
  name: "cifar"
  type: "Data"
  top: "data"
  top: "label"
  include {
    phase: TEST
  }
  transform_param {
    mean_file: "examples/cifar10/mean.binaryproto"
  }
  data_param {
    source: "examples/cifar10/cifar10_test_lmdb"
    batch_size: 1000
    backend: LMDB
  }
}
layer {
  name: "conv0"
  type: "Convolution"
  bottom: "data"
  top: "conv0"
  param {
    lr_mult: 1
  }
  param {
    lr_mult: 2
  }
  convolution_param {
    num_output: 16
    pad: 2
    kernel_size: 3
    stride: 1
    weight_filler {
      type: "gaussian"
      std: 0.01
    }
    bias_filler {
      type: "constant"
    }
  }
}
layer {
  name: "Sigmoid0"
  type: "Sigmoid"
  bottom: "conv0"
  top: "Sigmoid0"
}
layer {
  name: "pool0"
  type: "Pooling"
  bottom: "Sigmoid0"
  top: "pool0"
  pooling_param {
    pool: AVE
    kernel_size: 3
    stride: 2
  }
}
layer {
  name: "ip1"
  type: "InnerProduct"
  bottom: "pool0"
  top: "ip1"
  param {
    lr_mult: 1
  }
  param {
    lr_mult: 2
  }
  inner_product_param {
    num_output: 20
    weight_filler {
      type: "gaussian"
      std: 0.01
    }
    bias_filler {
      type: "constant"
    }
  }
}
layer {
  name: "relu1"
  type: "ReLU"
  bottom: "ip1"
  top: "ip1"
}
layer {
  name: "ip2"
  type: "InnerProduct"
  bottom: "ip1"
  top: "ip2"
  param {
    lr_mult: 1
  }
  param {
    lr_mult: 2
  }
  inner_product_param {
    num_output: 20
    weight_filler {
      type: "gaussian"
      std: 0.01
    }
    bias_filler {
      type: "constant"
    }
  }
}
layer {
  name: "relu2"
  type: "ReLU"
  bottom: "ip2"
  top: "ip2"
}
layer {
  name: "ip3"
  type: "InnerProduct"
  bottom: "ip2"
  top: "ip3"
  param {
    lr_mult: 1
  }
  param {
    lr_mult: 2
  }
  inner_product_param {
    num_output: 40
    weight_filler {
      type: "gaussian"
      std: 0.01
    }
    bias_filler {
      type: "constant"
    }
  }
}
layer {
  name: "relu3"
  type: "ReLU"
  bottom: "ip3"
  top: "ip3"
}
layer {
  name: "ip4"
  type: "InnerProduct"
  bottom: "ip3"
  top: "ip4"
  param {
    lr_mult: 1
  }
  param {
    lr_mult: 2
  }
  inner_product_param {
    num_output: 10
    weight_filler {
      type: "gaussian"
      std: 0.01
    }
    bias_filler {
      type: "constant"
    }
  }
}
layer {
  name: "accuracy"
  type: "Accuracy"
  bottom: "ip4"
  bottom: "label"
  top: "accuracy"
  include {
    phase: TEST
  }
}
layer {
  name: "loss"
  type: "SoftmaxWithLoss"
  bottom: "ip4"
  bottom: "label"
  top: "loss"
}
I0501 09:00:29.660843 12729 layer_factory.hpp:77] Creating layer cifar
I0501 09:00:29.660926 12729 db_lmdb.cpp:35] Opened lmdb examples/cifar10/cifar10_test_lmdb
I0501 09:00:29.660945 12729 net.cpp:86] Creating Layer cifar
I0501 09:00:29.660953 12729 net.cpp:382] cifar -> data
I0501 09:00:29.660960 12729 net.cpp:382] cifar -> label
I0501 09:00:29.660967 12729 data_transformer.cpp:25] Loading mean file from: examples/cifar10/mean.binaryproto
I0501 09:00:29.661126 12729 data_layer.cpp:45] output data size: 1000,3,32,32
I0501 09:00:29.683342 12729 net.cpp:124] Setting up cifar
I0501 09:00:29.683396 12729 net.cpp:131] Top shape: 1000 3 32 32 (3072000)
I0501 09:00:29.683403 12729 net.cpp:131] Top shape: 1000 (1000)
I0501 09:00:29.683405 12729 net.cpp:139] Memory required for data: 12292000
I0501 09:00:29.683411 12729 layer_factory.hpp:77] Creating layer label_cifar_1_split
I0501 09:00:29.683423 12729 net.cpp:86] Creating Layer label_cifar_1_split
I0501 09:00:29.683428 12729 net.cpp:408] label_cifar_1_split <- label
I0501 09:00:29.683435 12729 net.cpp:382] label_cifar_1_split -> label_cifar_1_split_0
I0501 09:00:29.683444 12729 net.cpp:382] label_cifar_1_split -> label_cifar_1_split_1
I0501 09:00:29.683544 12729 net.cpp:124] Setting up label_cifar_1_split
I0501 09:00:29.683552 12729 net.cpp:131] Top shape: 1000 (1000)
I0501 09:00:29.683557 12729 net.cpp:131] Top shape: 1000 (1000)
I0501 09:00:29.683559 12729 net.cpp:139] Memory required for data: 12300000
I0501 09:00:29.683562 12729 layer_factory.hpp:77] Creating layer conv0
I0501 09:00:29.683575 12729 net.cpp:86] Creating Layer conv0
I0501 09:00:29.683579 12729 net.cpp:408] conv0 <- data
I0501 09:00:29.683584 12729 net.cpp:382] conv0 -> conv0
I0501 09:00:29.685257 12729 net.cpp:124] Setting up conv0
I0501 09:00:29.685286 12729 net.cpp:131] Top shape: 1000 16 34 34 (18496000)
I0501 09:00:29.685289 12729 net.cpp:139] Memory required for data: 86284000
I0501 09:00:29.685299 12729 layer_factory.hpp:77] Creating layer Sigmoid0
I0501 09:00:29.685307 12729 net.cpp:86] Creating Layer Sigmoid0
I0501 09:00:29.685310 12729 net.cpp:408] Sigmoid0 <- conv0
I0501 09:00:29.685317 12729 net.cpp:382] Sigmoid0 -> Sigmoid0
I0501 09:00:29.686478 12729 net.cpp:124] Setting up Sigmoid0
I0501 09:00:29.686488 12729 net.cpp:131] Top shape: 1000 16 34 34 (18496000)
I0501 09:00:29.686506 12729 net.cpp:139] Memory required for data: 160268000
I0501 09:00:29.686511 12729 layer_factory.hpp:77] Creating layer pool0
I0501 09:00:29.686519 12729 net.cpp:86] Creating Layer pool0
I0501 09:00:29.686524 12729 net.cpp:408] pool0 <- Sigmoid0
I0501 09:00:29.686530 12729 net.cpp:382] pool0 -> pool0
I0501 09:00:29.686734 12729 net.cpp:124] Setting up pool0
I0501 09:00:29.686744 12729 net.cpp:131] Top shape: 1000 16 17 17 (4624000)
I0501 09:00:29.686748 12729 net.cpp:139] Memory required for data: 178764000
I0501 09:00:29.686750 12729 layer_factory.hpp:77] Creating layer ip1
I0501 09:00:29.686759 12729 net.cpp:86] Creating Layer ip1
I0501 09:00:29.686763 12729 net.cpp:408] ip1 <- pool0
I0501 09:00:29.686770 12729 net.cpp:382] ip1 -> ip1
I0501 09:00:29.689429 12729 net.cpp:124] Setting up ip1
I0501 09:00:29.689438 12729 net.cpp:131] Top shape: 1000 20 (20000)
I0501 09:00:29.689457 12729 net.cpp:139] Memory required for data: 178844000
I0501 09:00:29.689479 12729 layer_factory.hpp:77] Creating layer relu1
I0501 09:00:29.689484 12729 net.cpp:86] Creating Layer relu1
I0501 09:00:29.689487 12729 net.cpp:408] relu1 <- ip1
I0501 09:00:29.689492 12729 net.cpp:369] relu1 -> ip1 (in-place)
I0501 09:00:29.689673 12729 net.cpp:124] Setting up relu1
I0501 09:00:29.689683 12729 net.cpp:131] Top shape: 1000 20 (20000)
I0501 09:00:29.689687 12729 net.cpp:139] Memory required for data: 178924000
I0501 09:00:29.689692 12729 layer_factory.hpp:77] Creating layer ip2
I0501 09:00:29.689697 12729 net.cpp:86] Creating Layer ip2
I0501 09:00:29.689702 12729 net.cpp:408] ip2 <- ip1
I0501 09:00:29.689707 12729 net.cpp:382] ip2 -> ip2
I0501 09:00:29.689822 12729 net.cpp:124] Setting up ip2
I0501 09:00:29.689829 12729 net.cpp:131] Top shape: 1000 20 (20000)
I0501 09:00:29.689832 12729 net.cpp:139] Memory required for data: 179004000
I0501 09:00:29.689839 12729 layer_factory.hpp:77] Creating layer relu2
I0501 09:00:29.689846 12729 net.cpp:86] Creating Layer relu2
I0501 09:00:29.689851 12729 net.cpp:408] relu2 <- ip2
I0501 09:00:29.689855 12729 net.cpp:369] relu2 -> ip2 (in-place)
I0501 09:00:29.690632 12729 net.cpp:124] Setting up relu2
I0501 09:00:29.690660 12729 net.cpp:131] Top shape: 1000 20 (20000)
I0501 09:00:29.690663 12729 net.cpp:139] Memory required for data: 179084000
I0501 09:00:29.690667 12729 layer_factory.hpp:77] Creating layer ip3
I0501 09:00:29.690691 12729 net.cpp:86] Creating Layer ip3
I0501 09:00:29.690696 12729 net.cpp:408] ip3 <- ip2
I0501 09:00:29.690701 12729 net.cpp:382] ip3 -> ip3
I0501 09:00:29.690855 12729 net.cpp:124] Setting up ip3
I0501 09:00:29.690863 12729 net.cpp:131] Top shape: 1000 40 (40000)
I0501 09:00:29.690866 12729 net.cpp:139] Memory required for data: 179244000
I0501 09:00:29.690872 12729 layer_factory.hpp:77] Creating layer relu3
I0501 09:00:29.690877 12729 net.cpp:86] Creating Layer relu3
I0501 09:00:29.690881 12729 net.cpp:408] relu3 <- ip3
I0501 09:00:29.690886 12729 net.cpp:369] relu3 -> ip3 (in-place)
I0501 09:00:29.691056 12729 net.cpp:124] Setting up relu3
I0501 09:00:29.691064 12729 net.cpp:131] Top shape: 1000 40 (40000)
I0501 09:00:29.691067 12729 net.cpp:139] Memory required for data: 179404000
I0501 09:00:29.691071 12729 layer_factory.hpp:77] Creating layer ip4
I0501 09:00:29.691077 12729 net.cpp:86] Creating Layer ip4
I0501 09:00:29.691082 12729 net.cpp:408] ip4 <- ip3
I0501 09:00:29.691085 12729 net.cpp:382] ip4 -> ip4
I0501 09:00:29.691198 12729 net.cpp:124] Setting up ip4
I0501 09:00:29.691205 12729 net.cpp:131] Top shape: 1000 10 (10000)
I0501 09:00:29.691208 12729 net.cpp:139] Memory required for data: 179444000
I0501 09:00:29.691216 12729 layer_factory.hpp:77] Creating layer ip4_ip4_0_split
I0501 09:00:29.691221 12729 net.cpp:86] Creating Layer ip4_ip4_0_split
I0501 09:00:29.691224 12729 net.cpp:408] ip4_ip4_0_split <- ip4
I0501 09:00:29.691229 12729 net.cpp:382] ip4_ip4_0_split -> ip4_ip4_0_split_0
I0501 09:00:29.691234 12729 net.cpp:382] ip4_ip4_0_split -> ip4_ip4_0_split_1
I0501 09:00:29.691265 12729 net.cpp:124] Setting up ip4_ip4_0_split
I0501 09:00:29.691274 12729 net.cpp:131] Top shape: 1000 10 (10000)
I0501 09:00:29.691278 12729 net.cpp:131] Top shape: 1000 10 (10000)
I0501 09:00:29.691282 12729 net.cpp:139] Memory required for data: 179524000
I0501 09:00:29.691283 12729 layer_factory.hpp:77] Creating layer accuracy
I0501 09:00:29.691290 12729 net.cpp:86] Creating Layer accuracy
I0501 09:00:29.691294 12729 net.cpp:408] accuracy <- ip4_ip4_0_split_0
I0501 09:00:29.691298 12729 net.cpp:408] accuracy <- label_cifar_1_split_0
I0501 09:00:29.691303 12729 net.cpp:382] accuracy -> accuracy
…
