…
I0430 17:06:37.634505 18841 net.cpp:296] The NetState phase (0) differed from the phase (1) specified by a rule in layer cifar
I0430 17:06:37.634516 18841 net.cpp:296] The NetState phase (0) differed from the phase (1) specified by a rule in layer accuracy
I0430 17:06:37.634574 18841 net.cpp:53] Initializing net from parameters: 
name: "CIFAR"
state {
  phase: TRAIN
  level: 0
  stage: ""
}
layer {
  name: "cifar"
  type: "Data"
  top: "data"
  top: "label"
  include {
    phase: TRAIN
  }
  transform_param {
    mean_file: "examples/cifar10/mean.binaryproto"
  }
  data_param {
    source: "examples/cifar10/cifar10_train_lmdb"
    batch_size: 111
    backend: LMDB
  }
}
layer {
  name: "ip1"
  type: "InnerProduct"
  bottom: "data"
  top: "ip1"
  param {
    lr_mult: 1
  }
  param {
    lr_mult: 2
  }
  inner_product_param {
    num_output: 80
    weight_filler {
      type: "gaussian"
      std: 0.01
    }
    bias_filler {
      type: "constant"
    }
  }
}
layer {
  name: "relu1"
  type: "ReLU"
  bottom: "ip1"
  top: "ip1"
}
layer {
  name: "ip2"
  type: "InnerProduct"
  bottom: "ip1"
  top: "ip2"
  param {
    lr_mult: 1
  }
  param {
    lr_mult: 2
  }
  inner_product_param {
    num_output: 160
    weight_filler {
      type: "gaussian"
      std: 0.01
    }
    bias_filler {
      type: "constant"
    }
  }
}
layer {
  name: "relu2"
  type: "ReLU"
  bottom: "ip2"
  top: "ip2"
}
layer {
  name: "ip3"
  type: "InnerProduct"
  bottom: "ip2"
  top: "ip3"
  param {
    lr_mult: 1
  }
  param {
    lr_mult: 2
  }
  inner_product_param {
    num_output: 10
    weight_filler {
      type: "gaussian"
      std: 0.01
    }
    bias_filler {
      type: "constant"
    }
  }
}
layer {
  name: "loss"
  type: "SoftmaxWithLoss"
  bottom: "ip3"
  bottom: "label"
  top: "loss"
}
I0430 17:06:37.634626 18841 layer_factory.hpp:77] Creating layer cifar
I0430 17:06:37.634706 18841 db_lmdb.cpp:35] Opened lmdb examples/cifar10/cifar10_train_lmdb
I0430 17:06:37.634727 18841 net.cpp:86] Creating Layer cifar
I0430 17:06:37.634733 18841 net.cpp:382] cifar -> data
I0430 17:06:37.634752 18841 net.cpp:382] cifar -> label
I0430 17:06:37.634760 18841 data_transformer.cpp:25] Loading mean file from: examples/cifar10/mean.binaryproto
I0430 17:06:37.636483 18841 data_layer.cpp:45] output data size: 111,3,32,32
I0430 17:06:37.642873 18841 net.cpp:124] Setting up cifar
I0430 17:06:37.642886 18841 net.cpp:131] Top shape: 111 3 32 32 (340992)
I0430 17:06:37.642891 18841 net.cpp:131] Top shape: 111 (111)
I0430 17:06:37.642894 18841 net.cpp:139] Memory required for data: 1364412
I0430 17:06:37.642900 18841 layer_factory.hpp:77] Creating layer ip1
I0430 17:06:37.642910 18841 net.cpp:86] Creating Layer ip1
I0430 17:06:37.642930 18841 net.cpp:408] ip1 <- data
I0430 17:06:37.642940 18841 net.cpp:382] ip1 -> ip1
I0430 17:06:37.650436 18841 net.cpp:124] Setting up ip1
I0430 17:06:37.650465 18841 net.cpp:131] Top shape: 111 80 (8880)
I0430 17:06:37.650467 18841 net.cpp:139] Memory required for data: 1399932
I0430 17:06:37.650478 18841 layer_factory.hpp:77] Creating layer relu1
I0430 17:06:37.650486 18841 net.cpp:86] Creating Layer relu1
I0430 17:06:37.650490 18841 net.cpp:408] relu1 <- ip1
I0430 17:06:37.650511 18841 net.cpp:369] relu1 -> ip1 (in-place)
I0430 17:06:37.873507 18841 net.cpp:124] Setting up relu1
I0430 17:06:37.873550 18841 net.cpp:131] Top shape: 111 80 (8880)
I0430 17:06:37.873554 18841 net.cpp:139] Memory required for data: 1435452
I0430 17:06:37.873579 18841 layer_factory.hpp:77] Creating layer ip2
I0430 17:06:37.873592 18841 net.cpp:86] Creating Layer ip2
I0430 17:06:37.873595 18841 net.cpp:408] ip2 <- ip1
I0430 17:06:37.873603 18841 net.cpp:382] ip2 -> ip2
I0430 17:06:37.874908 18841 net.cpp:124] Setting up ip2
I0430 17:06:37.874919 18841 net.cpp:131] Top shape: 111 160 (17760)
I0430 17:06:37.874923 18841 net.cpp:139] Memory required for data: 1506492
I0430 17:06:37.874933 18841 layer_factory.hpp:77] Creating layer relu2
I0430 17:06:37.874939 18841 net.cpp:86] Creating Layer relu2
I0430 17:06:37.874943 18841 net.cpp:408] relu2 <- ip2
I0430 17:06:37.874946 18841 net.cpp:369] relu2 -> ip2 (in-place)
I0430 17:06:37.875646 18841 net.cpp:124] Setting up relu2
I0430 17:06:37.875658 18841 net.cpp:131] Top shape: 111 160 (17760)
I0430 17:06:37.875661 18841 net.cpp:139] Memory required for data: 1577532
I0430 17:06:37.875664 18841 layer_factory.hpp:77] Creating layer ip3
I0430 17:06:37.875670 18841 net.cpp:86] Creating Layer ip3
I0430 17:06:37.875674 18841 net.cpp:408] ip3 <- ip2
I0430 17:06:37.875679 18841 net.cpp:382] ip3 -> ip3
I0430 17:06:37.875835 18841 net.cpp:124] Setting up ip3
I0430 17:06:37.875844 18841 net.cpp:131] Top shape: 111 10 (1110)
I0430 17:06:37.875846 18841 net.cpp:139] Memory required for data: 1581972
I0430 17:06:37.875854 18841 layer_factory.hpp:77] Creating layer loss
I0430 17:06:37.875864 18841 net.cpp:86] Creating Layer loss
I0430 17:06:37.875867 18841 net.cpp:408] loss <- ip3
I0430 17:06:37.875870 18841 net.cpp:408] loss <- label
I0430 17:06:37.875875 18841 net.cpp:382] loss -> loss
I0430 17:06:37.875890 18841 layer_factory.hpp:77] Creating layer loss
…
I0430 17:06:37.876389 18841 solver.cpp:173] Creating test net (#0) specified by net file: ECE595/cifar/train_test/var_everything/cifar_train_test_24.prototxt
I0430 17:06:37.876410 18841 net.cpp:296] The NetState phase (1) differed from the phase (0) specified by a rule in layer cifar
I0430 17:06:37.876477 18841 net.cpp:53] Initializing net from parameters: 
name: "CIFAR"
state {
  phase: TEST
}
layer {
  name: "cifar"
  type: "Data"
  top: "data"
  top: "label"
  include {
    phase: TEST
  }
  transform_param {
    mean_file: "examples/cifar10/mean.binaryproto"
  }
  data_param {
    source: "examples/cifar10/cifar10_test_lmdb"
    batch_size: 1000
    backend: LMDB
  }
}
layer {
  name: "ip1"
  type: "InnerProduct"
  bottom: "data"
  top: "ip1"
  param {
    lr_mult: 1
  }
  param {
    lr_mult: 2
  }
  inner_product_param {
    num_output: 80
    weight_filler {
      type: "gaussian"
      std: 0.01
    }
    bias_filler {
      type: "constant"
    }
  }
}
layer {
  name: "relu1"
  type: "ReLU"
  bottom: "ip1"
  top: "ip1"
}
layer {
  name: "ip2"
  type: "InnerProduct"
  bottom: "ip1"
  top: "ip2"
  param {
    lr_mult: 1
  }
  param {
    lr_mult: 2
  }
  inner_product_param {
    num_output: 160
    weight_filler {
      type: "gaussian"
      std: 0.01
    }
    bias_filler {
      type: "constant"
    }
  }
}
layer {
  name: "relu2"
  type: "ReLU"
  bottom: "ip2"
  top: "ip2"
}
layer {
  name: "ip3"
  type: "InnerProduct"
  bottom: "ip2"
  top: "ip3"
  param {
    lr_mult: 1
  }
  param {
    lr_mult: 2
  }
  inner_product_param {
    num_output: 10
    weight_filler {
      type: "gaussian"
      std: 0.01
    }
    bias_filler {
      type: "constant"
    }
  }
}
layer {
  name: "accuracy"
  type: "Accuracy"
  bottom: "ip3"
  bottom: "label"
  top: "accuracy"
  include {
    phase: TEST
  }
}
layer {
  name: "loss"
  type: "SoftmaxWithLoss"
  bottom: "ip3"
  bottom: "label"
  top: "loss"
}
I0430 17:06:37.876539 18841 layer_factory.hpp:77] Creating layer cifar
I0430 17:06:37.876582 18841 db_lmdb.cpp:35] Opened lmdb examples/cifar10/cifar10_test_lmdb
I0430 17:06:37.876593 18841 net.cpp:86] Creating Layer cifar
I0430 17:06:37.876597 18841 net.cpp:382] cifar -> data
I0430 17:06:37.876605 18841 net.cpp:382] cifar -> label
I0430 17:06:37.876610 18841 data_transformer.cpp:25] Loading mean file from: examples/cifar10/mean.binaryproto
I0430 17:06:37.876744 18841 data_layer.cpp:45] output data size: 1000,3,32,32
I0430 17:06:37.899018 18841 net.cpp:124] Setting up cifar
I0430 17:06:37.899056 18841 net.cpp:131] Top shape: 1000 3 32 32 (3072000)
I0430 17:06:37.899061 18841 net.cpp:131] Top shape: 1000 (1000)
I0430 17:06:37.899065 18841 net.cpp:139] Memory required for data: 12292000
I0430 17:06:37.899070 18841 layer_factory.hpp:77] Creating layer label_cifar_1_split
I0430 17:06:37.899085 18841 net.cpp:86] Creating Layer label_cifar_1_split
I0430 17:06:37.899106 18841 net.cpp:408] label_cifar_1_split <- label
I0430 17:06:37.899111 18841 net.cpp:382] label_cifar_1_split -> label_cifar_1_split_0
I0430 17:06:37.899119 18841 net.cpp:382] label_cifar_1_split -> label_cifar_1_split_1
I0430 17:06:37.899224 18841 net.cpp:124] Setting up label_cifar_1_split
I0430 17:06:37.899232 18841 net.cpp:131] Top shape: 1000 (1000)
I0430 17:06:37.899236 18841 net.cpp:131] Top shape: 1000 (1000)
I0430 17:06:37.899240 18841 net.cpp:139] Memory required for data: 12300000
I0430 17:06:37.899241 18841 layer_factory.hpp:77] Creating layer ip1
I0430 17:06:37.899250 18841 net.cpp:86] Creating Layer ip1
I0430 17:06:37.899253 18841 net.cpp:408] ip1 <- data
I0430 17:06:37.899257 18841 net.cpp:382] ip1 -> ip1
I0430 17:06:37.906146 18841 net.cpp:124] Setting up ip1
I0430 17:06:37.906157 18841 net.cpp:131] Top shape: 1000 80 (80000)
I0430 17:06:37.906160 18841 net.cpp:139] Memory required for data: 12620000
I0430 17:06:37.906170 18841 layer_factory.hpp:77] Creating layer relu1
I0430 17:06:37.906177 18841 net.cpp:86] Creating Layer relu1
I0430 17:06:37.906179 18841 net.cpp:408] relu1 <- ip1
I0430 17:06:37.906183 18841 net.cpp:369] relu1 -> ip1 (in-place)
I0430 17:06:37.906386 18841 net.cpp:124] Setting up relu1
I0430 17:06:37.906394 18841 net.cpp:131] Top shape: 1000 80 (80000)
I0430 17:06:37.906399 18841 net.cpp:139] Memory required for data: 12940000
I0430 17:06:37.906401 18841 layer_factory.hpp:77] Creating layer ip2
I0430 17:06:37.906409 18841 net.cpp:86] Creating Layer ip2
I0430 17:06:37.906411 18841 net.cpp:408] ip2 <- ip1
I0430 17:06:37.906417 18841 net.cpp:382] ip2 -> ip2
I0430 17:06:37.906862 18841 net.cpp:124] Setting up ip2
I0430 17:06:37.906869 18841 net.cpp:131] Top shape: 1000 160 (160000)
I0430 17:06:37.906872 18841 net.cpp:139] Memory required for data: 13580000
I0430 17:06:37.906878 18841 layer_factory.hpp:77] Creating layer relu2
I0430 17:06:37.906883 18841 net.cpp:86] Creating Layer relu2
I0430 17:06:37.906901 18841 net.cpp:408] relu2 <- ip2
I0430 17:06:37.906905 18841 net.cpp:369] relu2 -> ip2 (in-place)
I0430 17:06:37.907639 18841 net.cpp:124] Setting up relu2
I0430 17:06:37.907650 18841 net.cpp:131] Top shape: 1000 160 (160000)
I0430 17:06:37.907654 18841 net.cpp:139] Memory required for data: 14220000
I0430 17:06:37.907657 18841 layer_factory.hpp:77] Creating layer ip3
I0430 17:06:37.907663 18841 net.cpp:86] Creating Layer ip3
I0430 17:06:37.907682 18841 net.cpp:408] ip3 <- ip2
I0430 17:06:37.907688 18841 net.cpp:382] ip3 -> ip3
I0430 17:06:37.907840 18841 net.cpp:124] Setting up ip3
I0430 17:06:37.907847 18841 net.cpp:131] Top shape: 1000 10 (10000)
I0430 17:06:37.907850 18841 net.cpp:139] Memory required for data: 14260000
I0430 17:06:37.907871 18841 layer_factory.hpp:77] Creating layer ip3_ip3_0_split
I0430 17:06:37.907876 18841 net.cpp:86] Creating Layer ip3_ip3_0_split
I0430 17:06:37.907879 18841 net.cpp:408] ip3_ip3_0_split <- ip3
I0430 17:06:37.907883 18841 net.cpp:382] ip3_ip3_0_split -> ip3_ip3_0_split_0
I0430 17:06:37.907888 18841 net.cpp:382] ip3_ip3_0_split -> ip3_ip3_0_split_1
I0430 17:06:37.907918 18841 net.cpp:124] Setting up ip3_ip3_0_split
I0430 17:06:37.907923 18841 net.cpp:131] Top shape: 1000 10 (10000)
I0430 17:06:37.907927 18841 net.cpp:131] Top shape: 1000 10 (10000)
I0430 17:06:37.907929 18841 net.cpp:139] Memory required for data: 14340000
I0430 17:06:37.907940 18841 layer_factory.hpp:77] Creating layer accuracy
I0430 17:06:37.907946 18841 net.cpp:86] Creating Layer accuracy
I0430 17:06:37.907949 18841 net.cpp:408] accuracy <- ip3_ip3_0_split_0
I0430 17:06:37.907953 18841 net.cpp:408] accuracy <- label_cifar_1_split_0
I0430 17:06:37.907958 18841 net.cpp:382] accuracy -> accuracy
…
