…
I0501 00:51:56.464455  8264 net.cpp:296] The NetState phase (0) differed from the phase (1) specified by a rule in layer cifar
I0501 00:51:56.464473  8264 net.cpp:296] The NetState phase (0) differed from the phase (1) specified by a rule in layer accuracy
I0501 00:51:56.464579  8264 net.cpp:53] Initializing net from parameters: 
name: "CIFAR"
state {
  phase: TRAIN
  level: 0
  stage: ""
}
layer {
  name: "cifar"
  type: "Data"
  top: "data"
  top: "label"
  include {
    phase: TRAIN
  }
  transform_param {
    mean_file: "examples/cifar10/mean.binaryproto"
  }
  data_param {
    source: "examples/cifar10/cifar10_train_lmdb"
    batch_size: 111
    backend: LMDB
  }
}
layer {
  name: "conv0"
  type: "Convolution"
  bottom: "data"
  top: "conv0"
  param {
    lr_mult: 1
  }
  param {
    lr_mult: 2
  }
  convolution_param {
    num_output: 8
    pad: 2
    kernel_size: 3
    stride: 1
    weight_filler {
      type: "gaussian"
      std: 0.01
    }
    bias_filler {
      type: "constant"
    }
  }
}
layer {
  name: "Sigmoid0"
  type: "Sigmoid"
  bottom: "conv0"
  top: "Sigmoid0"
}
layer {
  name: "pool0"
  type: "Pooling"
  bottom: "Sigmoid0"
  top: "pool0"
  pooling_param {
    pool: AVE
    kernel_size: 3
    stride: 2
  }
}
layer {
  name: "ip1"
  type: "InnerProduct"
  bottom: "pool0"
  top: "ip1"
  param {
    lr_mult: 1
  }
  param {
    lr_mult: 2
  }
  inner_product_param {
    num_output: 80
    weight_filler {
      type: "gaussian"
      std: 0.01
    }
    bias_filler {
      type: "constant"
    }
  }
}
layer {
  name: "relu1"
  type: "ReLU"
  bottom: "ip1"
  top: "ip1"
}
layer {
  name: "ip2"
  type: "InnerProduct"
  bottom: "ip1"
  top: "ip2"
  param {
    lr_mult: 1
  }
  param {
    lr_mult: 2
  }
  inner_product_param {
    num_output: 40
    weight_filler {
      type: "gaussian"
      std: 0.01
    }
    bias_filler {
      type: "constant"
    }
  }
}
layer {
  name: "relu2"
  type: "ReLU"
  bottom: "ip2"
  top: "ip2"
}
layer {
  name: "ip3"
  type: "InnerProduct"
  bottom: "ip2"
  top: "ip3"
  param {
    lr_mult: 1
  }
  param {
    lr_mult: 2
  }
  inner_product_param {
    num_output: 20
    weight_filler {
      type: "gaussian"
      std: 0.01
    }
    bias_filler {
      type: "constant"
    }
  }
}
layer {
  name: "relu3"
  type: "ReLU"
  bottom: "ip3"
  top: "ip3"
}
layer {
  name: "ip4"
  type: "InnerProduct"
  bottom: "ip3"
  top: "ip4"
  param {
    lr_mult: 1
  }
  param {
    lr_mult: 2
  }
  inner_product_param {
    num_output: 10
    weight_filler {
      type: "gaussian"
      std: 0.01
    }
    bias_filler {
      type: "constant"
    }
  }
}
layer {
  name: "loss"
  type: "SoftmaxWithLoss"
  bottom: "ip4"
  bottom: "label"
  top: "loss"
}
I0501 00:51:56.464659  8264 layer_factory.hpp:77] Creating layer cifar
I0501 00:51:56.464758  8264 db_lmdb.cpp:35] Opened lmdb examples/cifar10/cifar10_train_lmdb
I0501 00:51:56.464787  8264 net.cpp:86] Creating Layer cifar
I0501 00:51:56.464795  8264 net.cpp:382] cifar -> data
I0501 00:51:56.464824  8264 net.cpp:382] cifar -> label
I0501 00:51:56.464838  8264 data_transformer.cpp:25] Loading mean file from: examples/cifar10/mean.binaryproto
I0501 00:51:56.466943  8264 data_layer.cpp:45] output data size: 111,3,32,32
I0501 00:51:56.475019  8264 net.cpp:124] Setting up cifar
I0501 00:51:56.475039  8264 net.cpp:131] Top shape: 111 3 32 32 (340992)
I0501 00:51:56.475045  8264 net.cpp:131] Top shape: 111 (111)
I0501 00:51:56.475049  8264 net.cpp:139] Memory required for data: 1364412
I0501 00:51:56.475072  8264 layer_factory.hpp:77] Creating layer conv0
I0501 00:51:56.475093  8264 net.cpp:86] Creating Layer conv0
I0501 00:51:56.475100  8264 net.cpp:408] conv0 <- data
I0501 00:51:56.475111  8264 net.cpp:382] conv0 -> conv0
I0501 00:51:56.749199  8264 net.cpp:124] Setting up conv0
I0501 00:51:56.749224  8264 net.cpp:131] Top shape: 111 8 34 34 (1026528)
I0501 00:51:56.749228  8264 net.cpp:139] Memory required for data: 5470524
I0501 00:51:56.749243  8264 layer_factory.hpp:77] Creating layer Sigmoid0
I0501 00:51:56.749253  8264 net.cpp:86] Creating Layer Sigmoid0
I0501 00:51:56.749258  8264 net.cpp:408] Sigmoid0 <- conv0
I0501 00:51:56.749277  8264 net.cpp:382] Sigmoid0 -> Sigmoid0
I0501 00:51:56.749469  8264 net.cpp:124] Setting up Sigmoid0
I0501 00:51:56.749478  8264 net.cpp:131] Top shape: 111 8 34 34 (1026528)
I0501 00:51:56.749481  8264 net.cpp:139] Memory required for data: 9576636
I0501 00:51:56.749485  8264 layer_factory.hpp:77] Creating layer pool0
I0501 00:51:56.749491  8264 net.cpp:86] Creating Layer pool0
I0501 00:51:56.749495  8264 net.cpp:408] pool0 <- Sigmoid0
I0501 00:51:56.749500  8264 net.cpp:382] pool0 -> pool0
I0501 00:51:56.750267  8264 net.cpp:124] Setting up pool0
I0501 00:51:56.750298  8264 net.cpp:131] Top shape: 111 8 17 17 (256632)
I0501 00:51:56.750303  8264 net.cpp:139] Memory required for data: 10603164
I0501 00:51:56.750308  8264 layer_factory.hpp:77] Creating layer ip1
I0501 00:51:56.750331  8264 net.cpp:86] Creating Layer ip1
I0501 00:51:56.750335  8264 net.cpp:408] ip1 <- pool0
I0501 00:51:56.750341  8264 net.cpp:382] ip1 -> ip1
I0501 00:51:56.756028  8264 net.cpp:124] Setting up ip1
I0501 00:51:56.756041  8264 net.cpp:131] Top shape: 111 80 (8880)
I0501 00:51:56.756058  8264 net.cpp:139] Memory required for data: 10638684
I0501 00:51:56.756067  8264 layer_factory.hpp:77] Creating layer relu1
I0501 00:51:56.756074  8264 net.cpp:86] Creating Layer relu1
I0501 00:51:56.756078  8264 net.cpp:408] relu1 <- ip1
I0501 00:51:56.756083  8264 net.cpp:369] relu1 -> ip1 (in-place)
I0501 00:51:56.756270  8264 net.cpp:124] Setting up relu1
I0501 00:51:56.756279  8264 net.cpp:131] Top shape: 111 80 (8880)
I0501 00:51:56.756283  8264 net.cpp:139] Memory required for data: 10674204
I0501 00:51:56.756285  8264 layer_factory.hpp:77] Creating layer ip2
I0501 00:51:56.756292  8264 net.cpp:86] Creating Layer ip2
I0501 00:51:56.756295  8264 net.cpp:408] ip2 <- ip1
I0501 00:51:56.756300  8264 net.cpp:382] ip2 -> ip2
I0501 00:51:56.756481  8264 net.cpp:124] Setting up ip2
I0501 00:51:56.756489  8264 net.cpp:131] Top shape: 111 40 (4440)
I0501 00:51:56.756492  8264 net.cpp:139] Memory required for data: 10691964
I0501 00:51:56.756500  8264 layer_factory.hpp:77] Creating layer relu2
I0501 00:51:56.756505  8264 net.cpp:86] Creating Layer relu2
I0501 00:51:56.756508  8264 net.cpp:408] relu2 <- ip2
I0501 00:51:56.756512  8264 net.cpp:369] relu2 -> ip2 (in-place)
I0501 00:51:56.756669  8264 net.cpp:124] Setting up relu2
I0501 00:51:56.756676  8264 net.cpp:131] Top shape: 111 40 (4440)
I0501 00:51:56.756680  8264 net.cpp:139] Memory required for data: 10709724
I0501 00:51:56.756682  8264 layer_factory.hpp:77] Creating layer ip3
I0501 00:51:56.756691  8264 net.cpp:86] Creating Layer ip3
I0501 00:51:56.756695  8264 net.cpp:408] ip3 <- ip2
I0501 00:51:56.756700  8264 net.cpp:382] ip3 -> ip3
I0501 00:51:56.757699  8264 net.cpp:124] Setting up ip3
I0501 00:51:56.757711  8264 net.cpp:131] Top shape: 111 20 (2220)
I0501 00:51:56.757714  8264 net.cpp:139] Memory required for data: 10718604
I0501 00:51:56.757720  8264 layer_factory.hpp:77] Creating layer relu3
I0501 00:51:56.757725  8264 net.cpp:86] Creating Layer relu3
I0501 00:51:56.757728  8264 net.cpp:408] relu3 <- ip3
I0501 00:51:56.757733  8264 net.cpp:369] relu3 -> ip3 (in-place)
I0501 00:51:56.757910  8264 net.cpp:124] Setting up relu3
I0501 00:51:56.757918  8264 net.cpp:131] Top shape: 111 20 (2220)
I0501 00:51:56.757927  8264 net.cpp:139] Memory required for data: 10727484
I0501 00:51:56.757930  8264 layer_factory.hpp:77] Creating layer ip4
I0501 00:51:56.757953  8264 net.cpp:86] Creating Layer ip4
I0501 00:51:56.757956  8264 net.cpp:408] ip4 <- ip3
I0501 00:51:56.757961  8264 net.cpp:382] ip4 -> ip4
I0501 00:51:56.758082  8264 net.cpp:124] Setting up ip4
I0501 00:51:56.758090  8264 net.cpp:131] Top shape: 111 10 (1110)
I0501 00:51:56.758093  8264 net.cpp:139] Memory required for data: 10731924
I0501 00:51:56.758101  8264 layer_factory.hpp:77] Creating layer loss
I0501 00:51:56.758107  8264 net.cpp:86] Creating Layer loss
I0501 00:51:56.758111  8264 net.cpp:408] loss <- ip4
I0501 00:51:56.758114  8264 net.cpp:408] loss <- label
I0501 00:51:56.758119  8264 net.cpp:382] loss -> loss
I0501 00:51:56.758136  8264 layer_factory.hpp:77] Creating layer loss
…
I0501 00:51:56.759362  8264 solver.cpp:173] Creating test net (#0) specified by net file: ECE595/cifar/train_test/var_everything/cifar_train_test_271.prototxt
I0501 00:51:56.759389  8264 net.cpp:296] The NetState phase (1) differed from the phase (0) specified by a rule in layer cifar
I0501 00:51:56.759500  8264 net.cpp:53] Initializing net from parameters: 
name: "CIFAR"
state {
  phase: TEST
}
layer {
  name: "cifar"
  type: "Data"
  top: "data"
  top: "label"
  include {
    phase: TEST
  }
  transform_param {
    mean_file: "examples/cifar10/mean.binaryproto"
  }
  data_param {
    source: "examples/cifar10/cifar10_test_lmdb"
    batch_size: 1000
    backend: LMDB
  }
}
layer {
  name: "conv0"
  type: "Convolution"
  bottom: "data"
  top: "conv0"
  param {
    lr_mult: 1
  }
  param {
    lr_mult: 2
  }
  convolution_param {
    num_output: 8
    pad: 2
    kernel_size: 3
    stride: 1
    weight_filler {
      type: "gaussian"
      std: 0.01
    }
    bias_filler {
      type: "constant"
    }
  }
}
layer {
  name: "Sigmoid0"
  type: "Sigmoid"
  bottom: "conv0"
  top: "Sigmoid0"
}
layer {
  name: "pool0"
  type: "Pooling"
  bottom: "Sigmoid0"
  top: "pool0"
  pooling_param {
    pool: AVE
    kernel_size: 3
    stride: 2
  }
}
layer {
  name: "ip1"
  type: "InnerProduct"
  bottom: "pool0"
  top: "ip1"
  param {
    lr_mult: 1
  }
  param {
    lr_mult: 2
  }
  inner_product_param {
    num_output: 80
    weight_filler {
      type: "gaussian"
      std: 0.01
    }
    bias_filler {
      type: "constant"
    }
  }
}
layer {
  name: "relu1"
  type: "ReLU"
  bottom: "ip1"
  top: "ip1"
}
layer {
  name: "ip2"
  type: "InnerProduct"
  bottom: "ip1"
  top: "ip2"
  param {
    lr_mult: 1
  }
  param {
    lr_mult: 2
  }
  inner_product_param {
    num_output: 40
    weight_filler {
      type: "gaussian"
      std: 0.01
    }
    bias_filler {
      type: "constant"
    }
  }
}
layer {
  name: "relu2"
  type: "ReLU"
  bottom: "ip2"
  top: "ip2"
}
layer {
  name: "ip3"
  type: "InnerProduct"
  bottom: "ip2"
  top: "ip3"
  param {
    lr_mult: 1
  }
  param {
    lr_mult: 2
  }
  inner_product_param {
    num_output: 20
    weight_filler {
      type: "gaussian"
      std: 0.01
    }
    bias_filler {
      type: "constant"
    }
  }
}
layer {
  name: "relu3"
  type: "ReLU"
  bottom: "ip3"
  top: "ip3"
}
layer {
  name: "ip4"
  type: "InnerProduct"
  bottom: "ip3"
  top: "ip4"
  param {
    lr_mult: 1
  }
  param {
    lr_mult: 2
  }
  inner_product_param {
    num_output: 10
    weight_filler {
      type: "gaussian"
      std: 0.01
    }
    bias_filler {
      type: "constant"
    }
  }
}
layer {
  name: "accuracy"
  type: "Accuracy"
  bottom: "ip4"
  bottom: "label"
  top: "accuracy"
  include {
    phase: TEST
  }
}
layer {
  name: "loss"
  type: "SoftmaxWithLoss"
  bottom: "ip4"
  bottom: "label"
  top: "loss"
}
I0501 00:51:56.759579  8264 layer_factory.hpp:77] Creating layer cifar
I0501 00:51:56.759623  8264 db_lmdb.cpp:35] Opened lmdb examples/cifar10/cifar10_test_lmdb
I0501 00:51:56.759634  8264 net.cpp:86] Creating Layer cifar
I0501 00:51:56.759639  8264 net.cpp:382] cifar -> data
I0501 00:51:56.759646  8264 net.cpp:382] cifar -> label
I0501 00:51:56.759652  8264 data_transformer.cpp:25] Loading mean file from: examples/cifar10/mean.binaryproto
I0501 00:51:56.759795  8264 data_layer.cpp:45] output data size: 1000,3,32,32
I0501 00:51:56.781771  8264 net.cpp:124] Setting up cifar
I0501 00:51:56.781814  8264 net.cpp:131] Top shape: 1000 3 32 32 (3072000)
I0501 00:51:56.781826  8264 net.cpp:131] Top shape: 1000 (1000)
I0501 00:51:56.781827  8264 net.cpp:139] Memory required for data: 12292000
I0501 00:51:56.781834  8264 layer_factory.hpp:77] Creating layer label_cifar_1_split
I0501 00:51:56.781860  8264 net.cpp:86] Creating Layer label_cifar_1_split
I0501 00:51:56.781865  8264 net.cpp:408] label_cifar_1_split <- label
I0501 00:51:56.781872  8264 net.cpp:382] label_cifar_1_split -> label_cifar_1_split_0
I0501 00:51:56.781882  8264 net.cpp:382] label_cifar_1_split -> label_cifar_1_split_1
I0501 00:51:56.781996  8264 net.cpp:124] Setting up label_cifar_1_split
I0501 00:51:56.782006  8264 net.cpp:131] Top shape: 1000 (1000)
I0501 00:51:56.782009  8264 net.cpp:131] Top shape: 1000 (1000)
I0501 00:51:56.782012  8264 net.cpp:139] Memory required for data: 12300000
I0501 00:51:56.782016  8264 layer_factory.hpp:77] Creating layer conv0
I0501 00:51:56.782028  8264 net.cpp:86] Creating Layer conv0
I0501 00:51:56.782033  8264 net.cpp:408] conv0 <- data
I0501 00:51:56.782054  8264 net.cpp:382] conv0 -> conv0
I0501 00:51:56.783756  8264 net.cpp:124] Setting up conv0
I0501 00:51:56.783784  8264 net.cpp:131] Top shape: 1000 8 34 34 (9248000)
I0501 00:51:56.783787  8264 net.cpp:139] Memory required for data: 49292000
I0501 00:51:56.783797  8264 layer_factory.hpp:77] Creating layer Sigmoid0
I0501 00:51:56.783805  8264 net.cpp:86] Creating Layer Sigmoid0
I0501 00:51:56.783808  8264 net.cpp:408] Sigmoid0 <- conv0
I0501 00:51:56.783814  8264 net.cpp:382] Sigmoid0 -> Sigmoid0
I0501 00:51:56.784011  8264 net.cpp:124] Setting up Sigmoid0
I0501 00:51:56.784020  8264 net.cpp:131] Top shape: 1000 8 34 34 (9248000)
I0501 00:51:56.784024  8264 net.cpp:139] Memory required for data: 86284000
I0501 00:51:56.784027  8264 layer_factory.hpp:77] Creating layer pool0
I0501 00:51:56.784037  8264 net.cpp:86] Creating Layer pool0
I0501 00:51:56.784044  8264 net.cpp:408] pool0 <- Sigmoid0
I0501 00:51:56.784050  8264 net.cpp:382] pool0 -> pool0
I0501 00:51:56.784373  8264 net.cpp:124] Setting up pool0
I0501 00:51:56.784384  8264 net.cpp:131] Top shape: 1000 8 17 17 (2312000)
I0501 00:51:56.784386  8264 net.cpp:139] Memory required for data: 95532000
I0501 00:51:56.784389  8264 layer_factory.hpp:77] Creating layer ip1
I0501 00:51:56.784399  8264 net.cpp:86] Creating Layer ip1
I0501 00:51:56.784402  8264 net.cpp:408] ip1 <- pool0
I0501 00:51:56.784409  8264 net.cpp:382] ip1 -> ip1
I0501 00:51:56.790503  8264 net.cpp:124] Setting up ip1
I0501 00:51:56.790531  8264 net.cpp:131] Top shape: 1000 80 (80000)
I0501 00:51:56.790535  8264 net.cpp:139] Memory required for data: 95852000
I0501 00:51:56.790558  8264 layer_factory.hpp:77] Creating layer relu1
I0501 00:51:56.790565  8264 net.cpp:86] Creating Layer relu1
I0501 00:51:56.790568  8264 net.cpp:408] relu1 <- ip1
I0501 00:51:56.790572  8264 net.cpp:369] relu1 -> ip1 (in-place)
I0501 00:51:56.790779  8264 net.cpp:124] Setting up relu1
I0501 00:51:56.790789  8264 net.cpp:131] Top shape: 1000 80 (80000)
I0501 00:51:56.790793  8264 net.cpp:139] Memory required for data: 96172000
I0501 00:51:56.790796  8264 layer_factory.hpp:77] Creating layer ip2
I0501 00:51:56.790803  8264 net.cpp:86] Creating Layer ip2
I0501 00:51:56.790807  8264 net.cpp:408] ip2 <- ip1
I0501 00:51:56.790812  8264 net.cpp:382] ip2 -> ip2
I0501 00:51:56.791043  8264 net.cpp:124] Setting up ip2
I0501 00:51:56.791051  8264 net.cpp:131] Top shape: 1000 40 (40000)
I0501 00:51:56.791054  8264 net.cpp:139] Memory required for data: 96332000
I0501 00:51:56.791062  8264 layer_factory.hpp:77] Creating layer relu2
I0501 00:51:56.791070  8264 net.cpp:86] Creating Layer relu2
I0501 00:51:56.791090  8264 net.cpp:408] relu2 <- ip2
I0501 00:51:56.791097  8264 net.cpp:369] relu2 -> ip2 (in-place)
I0501 00:51:56.791916  8264 net.cpp:124] Setting up relu2
I0501 00:51:56.791929  8264 net.cpp:131] Top shape: 1000 40 (40000)
I0501 00:51:56.791932  8264 net.cpp:139] Memory required for data: 96492000
I0501 00:51:56.791951  8264 layer_factory.hpp:77] Creating layer ip3
I0501 00:51:56.791960  8264 net.cpp:86] Creating Layer ip3
I0501 00:51:56.791962  8264 net.cpp:408] ip3 <- ip2
I0501 00:51:56.791968  8264 net.cpp:382] ip3 -> ip3
I0501 00:51:56.792119  8264 net.cpp:124] Setting up ip3
I0501 00:51:56.792127  8264 net.cpp:131] Top shape: 1000 20 (20000)
I0501 00:51:56.792131  8264 net.cpp:139] Memory required for data: 96572000
I0501 00:51:56.792136  8264 layer_factory.hpp:77] Creating layer relu3
I0501 00:51:56.792143  8264 net.cpp:86] Creating Layer relu3
I0501 00:51:56.792148  8264 net.cpp:408] relu3 <- ip3
I0501 00:51:56.792167  8264 net.cpp:369] relu3 -> ip3 (in-place)
I0501 00:51:56.792342  8264 net.cpp:124] Setting up relu3
I0501 00:51:56.792351  8264 net.cpp:131] Top shape: 1000 20 (20000)
I0501 00:51:56.792354  8264 net.cpp:139] Memory required for data: 96652000
I0501 00:51:56.792357  8264 layer_factory.hpp:77] Creating layer ip4
I0501 00:51:56.792366  8264 net.cpp:86] Creating Layer ip4
I0501 00:51:56.792368  8264 net.cpp:408] ip4 <- ip3
I0501 00:51:56.792373  8264 net.cpp:382] ip4 -> ip4
I0501 00:51:56.792496  8264 net.cpp:124] Setting up ip4
I0501 00:51:56.792503  8264 net.cpp:131] Top shape: 1000 10 (10000)
I0501 00:51:56.792506  8264 net.cpp:139] Memory required for data: 96692000
I0501 00:51:56.792515  8264 layer_factory.hpp:77] Creating layer ip4_ip4_0_split
I0501 00:51:56.792522  8264 net.cpp:86] Creating Layer ip4_ip4_0_split
I0501 00:51:56.792537  8264 net.cpp:408] ip4_ip4_0_split <- ip4
I0501 00:51:56.792541  8264 net.cpp:382] ip4_ip4_0_split -> ip4_ip4_0_split_0
I0501 00:51:56.792547  8264 net.cpp:382] ip4_ip4_0_split -> ip4_ip4_0_split_1
I0501 00:51:56.792580  8264 net.cpp:124] Setting up ip4_ip4_0_split
I0501 00:51:56.792598  8264 net.cpp:131] Top shape: 1000 10 (10000)
I0501 00:51:56.792601  8264 net.cpp:131] Top shape: 1000 10 (10000)
I0501 00:51:56.792604  8264 net.cpp:139] Memory required for data: 96772000
I0501 00:51:56.792608  8264 layer_factory.hpp:77] Creating layer accuracy
I0501 00:51:56.792613  8264 net.cpp:86] Creating Layer accuracy
I0501 00:51:56.792618  8264 net.cpp:408] accuracy <- ip4_ip4_0_split_0
I0501 00:51:56.792623  8264 net.cpp:408] accuracy <- label_cifar_1_split_0
I0501 00:51:56.792628  8264 net.cpp:382] accuracy -> accuracy
…
