…
I0430 23:31:25.300091  5004 net.cpp:296] The NetState phase (0) differed from the phase (1) specified by a rule in layer cifar
I0430 23:31:25.300108  5004 net.cpp:296] The NetState phase (0) differed from the phase (1) specified by a rule in layer accuracy
I0430 23:31:25.300212  5004 net.cpp:53] Initializing net from parameters: 
name: "CIFAR"
state {
  phase: TRAIN
  level: 0
  stage: ""
}
layer {
  name: "cifar"
  type: "Data"
  top: "data"
  top: "label"
  include {
    phase: TRAIN
  }
  transform_param {
    mean_file: "examples/cifar10/mean.binaryproto"
  }
  data_param {
    source: "examples/cifar10/cifar10_train_lmdb"
    batch_size: 111
    backend: LMDB
  }
}
layer {
  name: "conv0"
  type: "Convolution"
  bottom: "data"
  top: "conv0"
  param {
    lr_mult: 1
  }
  param {
    lr_mult: 2
  }
  convolution_param {
    num_output: 8
    pad: 2
    kernel_size: 3
    stride: 1
    weight_filler {
      type: "gaussian"
      std: 0.01
    }
    bias_filler {
      type: "constant"
    }
  }
}
layer {
  name: "Sigmoid0"
  type: "Sigmoid"
  bottom: "conv0"
  top: "Sigmoid0"
}
layer {
  name: "pool0"
  type: "Pooling"
  bottom: "Sigmoid0"
  top: "pool0"
  pooling_param {
    pool: AVE
    kernel_size: 3
    stride: 2
  }
}
layer {
  name: "ip1"
  type: "InnerProduct"
  bottom: "pool0"
  top: "ip1"
  param {
    lr_mult: 1
  }
  param {
    lr_mult: 2
  }
  inner_product_param {
    num_output: 20
    weight_filler {
      type: "gaussian"
      std: 0.01
    }
    bias_filler {
      type: "constant"
    }
  }
}
layer {
  name: "relu1"
  type: "ReLU"
  bottom: "ip1"
  top: "ip1"
}
layer {
  name: "ip2"
  type: "InnerProduct"
  bottom: "ip1"
  top: "ip2"
  param {
    lr_mult: 1
  }
  param {
    lr_mult: 2
  }
  inner_product_param {
    num_output: 80
    weight_filler {
      type: "gaussian"
      std: 0.01
    }
    bias_filler {
      type: "constant"
    }
  }
}
layer {
  name: "relu2"
  type: "ReLU"
  bottom: "ip2"
  top: "ip2"
}
layer {
  name: "ip3"
  type: "InnerProduct"
  bottom: "ip2"
  top: "ip3"
  param {
    lr_mult: 1
  }
  param {
    lr_mult: 2
  }
  inner_product_param {
    num_output: 80
    weight_filler {
      type: "gaussian"
      std: 0.01
    }
    bias_filler {
      type: "constant"
    }
  }
}
layer {
  name: "relu3"
  type: "ReLU"
  bottom: "ip3"
  top: "ip3"
}
layer {
  name: "ip4"
  type: "InnerProduct"
  bottom: "ip3"
  top: "ip4"
  param {
    lr_mult: 1
  }
  param {
    lr_mult: 2
  }
  inner_product_param {
    num_output: 10
    weight_filler {
      type: "gaussian"
      std: 0.01
    }
    bias_filler {
      type: "constant"
    }
  }
}
layer {
  name: "loss"
  type: "SoftmaxWithLoss"
  bottom: "ip4"
  bottom: "label"
  top: "loss"
}
I0430 23:31:25.300292  5004 layer_factory.hpp:77] Creating layer cifar
I0430 23:31:25.300389  5004 db_lmdb.cpp:35] Opened lmdb examples/cifar10/cifar10_train_lmdb
I0430 23:31:25.300415  5004 net.cpp:86] Creating Layer cifar
I0430 23:31:25.300423  5004 net.cpp:382] cifar -> data
I0430 23:31:25.300446  5004 net.cpp:382] cifar -> label
I0430 23:31:25.300457  5004 data_transformer.cpp:25] Loading mean file from: examples/cifar10/mean.binaryproto
I0430 23:31:25.302563  5004 data_layer.cpp:45] output data size: 111,3,32,32
I0430 23:31:25.310669  5004 net.cpp:124] Setting up cifar
I0430 23:31:25.310688  5004 net.cpp:131] Top shape: 111 3 32 32 (340992)
I0430 23:31:25.310695  5004 net.cpp:131] Top shape: 111 (111)
I0430 23:31:25.310698  5004 net.cpp:139] Memory required for data: 1364412
I0430 23:31:25.310721  5004 layer_factory.hpp:77] Creating layer conv0
I0430 23:31:25.310740  5004 net.cpp:86] Creating Layer conv0
I0430 23:31:25.310746  5004 net.cpp:408] conv0 <- data
I0430 23:31:25.310758  5004 net.cpp:382] conv0 -> conv0
I0430 23:31:25.598474  5004 net.cpp:124] Setting up conv0
I0430 23:31:25.598502  5004 net.cpp:131] Top shape: 111 8 34 34 (1026528)
I0430 23:31:25.598507  5004 net.cpp:139] Memory required for data: 5470524
I0430 23:31:25.598523  5004 layer_factory.hpp:77] Creating layer Sigmoid0
I0430 23:31:25.598536  5004 net.cpp:86] Creating Layer Sigmoid0
I0430 23:31:25.598539  5004 net.cpp:408] Sigmoid0 <- conv0
I0430 23:31:25.598546  5004 net.cpp:382] Sigmoid0 -> Sigmoid0
I0430 23:31:25.598731  5004 net.cpp:124] Setting up Sigmoid0
I0430 23:31:25.598740  5004 net.cpp:131] Top shape: 111 8 34 34 (1026528)
I0430 23:31:25.598743  5004 net.cpp:139] Memory required for data: 9576636
I0430 23:31:25.598747  5004 layer_factory.hpp:77] Creating layer pool0
I0430 23:31:25.598753  5004 net.cpp:86] Creating Layer pool0
I0430 23:31:25.598757  5004 net.cpp:408] pool0 <- Sigmoid0
I0430 23:31:25.598762  5004 net.cpp:382] pool0 -> pool0
I0430 23:31:25.599519  5004 net.cpp:124] Setting up pool0
I0430 23:31:25.599531  5004 net.cpp:131] Top shape: 111 8 17 17 (256632)
I0430 23:31:25.599535  5004 net.cpp:139] Memory required for data: 10603164
I0430 23:31:25.599539  5004 layer_factory.hpp:77] Creating layer ip1
I0430 23:31:25.599548  5004 net.cpp:86] Creating Layer ip1
I0430 23:31:25.599551  5004 net.cpp:408] ip1 <- pool0
I0430 23:31:25.599556  5004 net.cpp:382] ip1 -> ip1
I0430 23:31:25.601800  5004 net.cpp:124] Setting up ip1
I0430 23:31:25.601814  5004 net.cpp:131] Top shape: 111 20 (2220)
I0430 23:31:25.601817  5004 net.cpp:139] Memory required for data: 10612044
I0430 23:31:25.601826  5004 layer_factory.hpp:77] Creating layer relu1
I0430 23:31:25.601832  5004 net.cpp:86] Creating Layer relu1
I0430 23:31:25.601835  5004 net.cpp:408] relu1 <- ip1
I0430 23:31:25.601840  5004 net.cpp:369] relu1 -> ip1 (in-place)
I0430 23:31:25.602001  5004 net.cpp:124] Setting up relu1
I0430 23:31:25.602010  5004 net.cpp:131] Top shape: 111 20 (2220)
I0430 23:31:25.602013  5004 net.cpp:139] Memory required for data: 10620924
I0430 23:31:25.602017  5004 layer_factory.hpp:77] Creating layer ip2
I0430 23:31:25.602025  5004 net.cpp:86] Creating Layer ip2
I0430 23:31:25.602027  5004 net.cpp:408] ip2 <- ip1
I0430 23:31:25.602032  5004 net.cpp:382] ip2 -> ip2
I0430 23:31:25.602180  5004 net.cpp:124] Setting up ip2
I0430 23:31:25.602187  5004 net.cpp:131] Top shape: 111 80 (8880)
I0430 23:31:25.602190  5004 net.cpp:139] Memory required for data: 10656444
I0430 23:31:25.602198  5004 layer_factory.hpp:77] Creating layer relu2
I0430 23:31:25.602202  5004 net.cpp:86] Creating Layer relu2
I0430 23:31:25.602206  5004 net.cpp:408] relu2 <- ip2
I0430 23:31:25.602210  5004 net.cpp:369] relu2 -> ip2 (in-place)
I0430 23:31:25.602370  5004 net.cpp:124] Setting up relu2
I0430 23:31:25.602378  5004 net.cpp:131] Top shape: 111 80 (8880)
I0430 23:31:25.602381  5004 net.cpp:139] Memory required for data: 10691964
I0430 23:31:25.602385  5004 layer_factory.hpp:77] Creating layer ip3
I0430 23:31:25.602392  5004 net.cpp:86] Creating Layer ip3
I0430 23:31:25.602396  5004 net.cpp:408] ip3 <- ip2
I0430 23:31:25.602401  5004 net.cpp:382] ip3 -> ip3
I0430 23:31:25.603515  5004 net.cpp:124] Setting up ip3
I0430 23:31:25.603528  5004 net.cpp:131] Top shape: 111 80 (8880)
I0430 23:31:25.603531  5004 net.cpp:139] Memory required for data: 10727484
I0430 23:31:25.603538  5004 layer_factory.hpp:77] Creating layer relu3
I0430 23:31:25.603543  5004 net.cpp:86] Creating Layer relu3
I0430 23:31:25.603546  5004 net.cpp:408] relu3 <- ip3
I0430 23:31:25.603551  5004 net.cpp:369] relu3 -> ip3 (in-place)
I0430 23:31:25.603713  5004 net.cpp:124] Setting up relu3
I0430 23:31:25.603721  5004 net.cpp:131] Top shape: 111 80 (8880)
I0430 23:31:25.603725  5004 net.cpp:139] Memory required for data: 10763004
I0430 23:31:25.603729  5004 layer_factory.hpp:77] Creating layer ip4
I0430 23:31:25.603749  5004 net.cpp:86] Creating Layer ip4
I0430 23:31:25.603754  5004 net.cpp:408] ip4 <- ip3
I0430 23:31:25.603759  5004 net.cpp:382] ip4 -> ip4
I0430 23:31:25.604718  5004 net.cpp:124] Setting up ip4
I0430 23:31:25.604732  5004 net.cpp:131] Top shape: 111 10 (1110)
I0430 23:31:25.604735  5004 net.cpp:139] Memory required for data: 10767444
I0430 23:31:25.604744  5004 layer_factory.hpp:77] Creating layer loss
I0430 23:31:25.604750  5004 net.cpp:86] Creating Layer loss
I0430 23:31:25.604753  5004 net.cpp:408] loss <- ip4
I0430 23:31:25.604758  5004 net.cpp:408] loss <- label
I0430 23:31:25.604764  5004 net.cpp:382] loss -> loss
I0430 23:31:25.604782  5004 layer_factory.hpp:77] Creating layer loss
…
I0430 23:31:25.606060  5004 solver.cpp:173] Creating test net (#0) specified by net file: ECE595/cifar/train_test/var_everything/cifar_train_test_228.prototxt
I0430 23:31:25.606098  5004 net.cpp:296] The NetState phase (1) differed from the phase (0) specified by a rule in layer cifar
I0430 23:31:25.606194  5004 net.cpp:53] Initializing net from parameters: 
name: "CIFAR"
state {
  phase: TEST
}
layer {
  name: "cifar"
  type: "Data"
  top: "data"
  top: "label"
  include {
    phase: TEST
  }
  transform_param {
    mean_file: "examples/cifar10/mean.binaryproto"
  }
  data_param {
    source: "examples/cifar10/cifar10_test_lmdb"
    batch_size: 1000
    backend: LMDB
  }
}
layer {
  name: "conv0"
  type: "Convolution"
  bottom: "data"
  top: "conv0"
  param {
    lr_mult: 1
  }
  param {
    lr_mult: 2
  }
  convolution_param {
    num_output: 8
    pad: 2
    kernel_size: 3
    stride: 1
    weight_filler {
      type: "gaussian"
      std: 0.01
    }
    bias_filler {
      type: "constant"
    }
  }
}
layer {
  name: "Sigmoid0"
  type: "Sigmoid"
  bottom: "conv0"
  top: "Sigmoid0"
}
layer {
  name: "pool0"
  type: "Pooling"
  bottom: "Sigmoid0"
  top: "pool0"
  pooling_param {
    pool: AVE
    kernel_size: 3
    stride: 2
  }
}
layer {
  name: "ip1"
  type: "InnerProduct"
  bottom: "pool0"
  top: "ip1"
  param {
    lr_mult: 1
  }
  param {
    lr_mult: 2
  }
  inner_product_param {
    num_output: 20
    weight_filler {
      type: "gaussian"
      std: 0.01
    }
    bias_filler {
      type: "constant"
    }
  }
}
layer {
  name: "relu1"
  type: "ReLU"
  bottom: "ip1"
  top: "ip1"
}
layer {
  name: "ip2"
  type: "InnerProduct"
  bottom: "ip1"
  top: "ip2"
  param {
    lr_mult: 1
  }
  param {
    lr_mult: 2
  }
  inner_product_param {
    num_output: 80
    weight_filler {
      type: "gaussian"
      std: 0.01
    }
    bias_filler {
      type: "constant"
    }
  }
}
layer {
  name: "relu2"
  type: "ReLU"
  bottom: "ip2"
  top: "ip2"
}
layer {
  name: "ip3"
  type: "InnerProduct"
  bottom: "ip2"
  top: "ip3"
  param {
    lr_mult: 1
  }
  param {
    lr_mult: 2
  }
  inner_product_param {
    num_output: 80
    weight_filler {
      type: "gaussian"
      std: 0.01
    }
    bias_filler {
      type: "constant"
    }
  }
}
layer {
  name: "relu3"
  type: "ReLU"
  bottom: "ip3"
  top: "ip3"
}
layer {
  name: "ip4"
  type: "InnerProduct"
  bottom: "ip3"
  top: "ip4"
  param {
    lr_mult: 1
  }
  param {
    lr_mult: 2
  }
  inner_product_param {
    num_output: 10
    weight_filler {
      type: "gaussian"
      std: 0.01
    }
    bias_filler {
      type: "constant"
    }
  }
}
layer {
  name: "accuracy"
  type: "Accuracy"
  bottom: "ip4"
  bottom: "label"
  top: "accuracy"
  include {
    phase: TEST
  }
}
layer {
  name: "loss"
  type: "SoftmaxWithLoss"
  bottom: "ip4"
  bottom: "label"
  top: "loss"
}
I0430 23:31:25.606276  5004 layer_factory.hpp:77] Creating layer cifar
I0430 23:31:25.606320  5004 db_lmdb.cpp:35] Opened lmdb examples/cifar10/cifar10_test_lmdb
I0430 23:31:25.606333  5004 net.cpp:86] Creating Layer cifar
I0430 23:31:25.606338  5004 net.cpp:382] cifar -> data
I0430 23:31:25.606345  5004 net.cpp:382] cifar -> label
I0430 23:31:25.606351  5004 data_transformer.cpp:25] Loading mean file from: examples/cifar10/mean.binaryproto
I0430 23:31:25.606498  5004 data_layer.cpp:45] output data size: 1000,3,32,32
I0430 23:31:25.628705  5004 net.cpp:124] Setting up cifar
I0430 23:31:25.628732  5004 net.cpp:131] Top shape: 1000 3 32 32 (3072000)
I0430 23:31:25.628737  5004 net.cpp:131] Top shape: 1000 (1000)
I0430 23:31:25.628741  5004 net.cpp:139] Memory required for data: 12292000
I0430 23:31:25.628747  5004 layer_factory.hpp:77] Creating layer label_cifar_1_split
I0430 23:31:25.628767  5004 net.cpp:86] Creating Layer label_cifar_1_split
I0430 23:31:25.628772  5004 net.cpp:408] label_cifar_1_split <- label
I0430 23:31:25.628777  5004 net.cpp:382] label_cifar_1_split -> label_cifar_1_split_0
I0430 23:31:25.628785  5004 net.cpp:382] label_cifar_1_split -> label_cifar_1_split_1
I0430 23:31:25.628922  5004 net.cpp:124] Setting up label_cifar_1_split
I0430 23:31:25.628931  5004 net.cpp:131] Top shape: 1000 (1000)
I0430 23:31:25.628934  5004 net.cpp:131] Top shape: 1000 (1000)
I0430 23:31:25.628937  5004 net.cpp:139] Memory required for data: 12300000
I0430 23:31:25.628940  5004 layer_factory.hpp:77] Creating layer conv0
I0430 23:31:25.628952  5004 net.cpp:86] Creating Layer conv0
I0430 23:31:25.628955  5004 net.cpp:408] conv0 <- data
I0430 23:31:25.628960  5004 net.cpp:382] conv0 -> conv0
I0430 23:31:25.631397  5004 net.cpp:124] Setting up conv0
I0430 23:31:25.631412  5004 net.cpp:131] Top shape: 1000 8 34 34 (9248000)
I0430 23:31:25.631417  5004 net.cpp:139] Memory required for data: 49292000
I0430 23:31:25.631428  5004 layer_factory.hpp:77] Creating layer Sigmoid0
I0430 23:31:25.631433  5004 net.cpp:86] Creating Layer Sigmoid0
I0430 23:31:25.631438  5004 net.cpp:408] Sigmoid0 <- conv0
I0430 23:31:25.631443  5004 net.cpp:382] Sigmoid0 -> Sigmoid0
I0430 23:31:25.631615  5004 net.cpp:124] Setting up Sigmoid0
I0430 23:31:25.631624  5004 net.cpp:131] Top shape: 1000 8 34 34 (9248000)
I0430 23:31:25.631628  5004 net.cpp:139] Memory required for data: 86284000
I0430 23:31:25.631631  5004 layer_factory.hpp:77] Creating layer pool0
I0430 23:31:25.631639  5004 net.cpp:86] Creating Layer pool0
I0430 23:31:25.631642  5004 net.cpp:408] pool0 <- Sigmoid0
I0430 23:31:25.631646  5004 net.cpp:382] pool0 -> pool0
I0430 23:31:25.631810  5004 net.cpp:124] Setting up pool0
I0430 23:31:25.631819  5004 net.cpp:131] Top shape: 1000 8 17 17 (2312000)
I0430 23:31:25.631822  5004 net.cpp:139] Memory required for data: 95532000
I0430 23:31:25.631825  5004 layer_factory.hpp:77] Creating layer ip1
I0430 23:31:25.631832  5004 net.cpp:86] Creating Layer ip1
I0430 23:31:25.631835  5004 net.cpp:408] ip1 <- pool0
I0430 23:31:25.631840  5004 net.cpp:382] ip1 -> ip1
I0430 23:31:25.633213  5004 net.cpp:124] Setting up ip1
I0430 23:31:25.633220  5004 net.cpp:131] Top shape: 1000 20 (20000)
I0430 23:31:25.633224  5004 net.cpp:139] Memory required for data: 95612000
I0430 23:31:25.633242  5004 layer_factory.hpp:77] Creating layer relu1
I0430 23:31:25.633249  5004 net.cpp:86] Creating Layer relu1
I0430 23:31:25.633252  5004 net.cpp:408] relu1 <- ip1
I0430 23:31:25.633256  5004 net.cpp:369] relu1 -> ip1 (in-place)
I0430 23:31:25.633404  5004 net.cpp:124] Setting up relu1
I0430 23:31:25.633411  5004 net.cpp:131] Top shape: 1000 20 (20000)
I0430 23:31:25.633414  5004 net.cpp:139] Memory required for data: 95692000
I0430 23:31:25.633417  5004 layer_factory.hpp:77] Creating layer ip2
I0430 23:31:25.633424  5004 net.cpp:86] Creating Layer ip2
I0430 23:31:25.633427  5004 net.cpp:408] ip2 <- ip1
I0430 23:31:25.633432  5004 net.cpp:382] ip2 -> ip2
I0430 23:31:25.633574  5004 net.cpp:124] Setting up ip2
I0430 23:31:25.633580  5004 net.cpp:131] Top shape: 1000 80 (80000)
I0430 23:31:25.633584  5004 net.cpp:139] Memory required for data: 96012000
I0430 23:31:25.633589  5004 layer_factory.hpp:77] Creating layer relu2
I0430 23:31:25.633595  5004 net.cpp:86] Creating Layer relu2
I0430 23:31:25.633599  5004 net.cpp:408] relu2 <- ip2
I0430 23:31:25.633601  5004 net.cpp:369] relu2 -> ip2 (in-place)
I0430 23:31:25.634301  5004 net.cpp:124] Setting up relu2
I0430 23:31:25.634313  5004 net.cpp:131] Top shape: 1000 80 (80000)
I0430 23:31:25.634317  5004 net.cpp:139] Memory required for data: 96332000
I0430 23:31:25.634320  5004 layer_factory.hpp:77] Creating layer ip3
I0430 23:31:25.634326  5004 net.cpp:86] Creating Layer ip3
I0430 23:31:25.634330  5004 net.cpp:408] ip3 <- ip2
I0430 23:31:25.634335  5004 net.cpp:382] ip3 -> ip3
I0430 23:31:25.634588  5004 net.cpp:124] Setting up ip3
I0430 23:31:25.634595  5004 net.cpp:131] Top shape: 1000 80 (80000)
I0430 23:31:25.634598  5004 net.cpp:139] Memory required for data: 96652000
I0430 23:31:25.634604  5004 layer_factory.hpp:77] Creating layer relu3
I0430 23:31:25.634608  5004 net.cpp:86] Creating Layer relu3
I0430 23:31:25.634613  5004 net.cpp:408] relu3 <- ip3
I0430 23:31:25.634616  5004 net.cpp:369] relu3 -> ip3 (in-place)
I0430 23:31:25.634757  5004 net.cpp:124] Setting up relu3
I0430 23:31:25.634765  5004 net.cpp:131] Top shape: 1000 80 (80000)
I0430 23:31:25.634768  5004 net.cpp:139] Memory required for data: 96972000
I0430 23:31:25.634771  5004 layer_factory.hpp:77] Creating layer ip4
I0430 23:31:25.634783  5004 net.cpp:86] Creating Layer ip4
I0430 23:31:25.634785  5004 net.cpp:408] ip4 <- ip3
I0430 23:31:25.634790  5004 net.cpp:382] ip4 -> ip4
I0430 23:31:25.634904  5004 net.cpp:124] Setting up ip4
I0430 23:31:25.634912  5004 net.cpp:131] Top shape: 1000 10 (10000)
I0430 23:31:25.634914  5004 net.cpp:139] Memory required for data: 97012000
I0430 23:31:25.634922  5004 layer_factory.hpp:77] Creating layer ip4_ip4_0_split
I0430 23:31:25.634927  5004 net.cpp:86] Creating Layer ip4_ip4_0_split
I0430 23:31:25.634930  5004 net.cpp:408] ip4_ip4_0_split <- ip4
I0430 23:31:25.634934  5004 net.cpp:382] ip4_ip4_0_split -> ip4_ip4_0_split_0
I0430 23:31:25.634938  5004 net.cpp:382] ip4_ip4_0_split -> ip4_ip4_0_split_1
I0430 23:31:25.634968  5004 net.cpp:124] Setting up ip4_ip4_0_split
I0430 23:31:25.634971  5004 net.cpp:131] Top shape: 1000 10 (10000)
I0430 23:31:25.634975  5004 net.cpp:131] Top shape: 1000 10 (10000)
I0430 23:31:25.634991  5004 net.cpp:139] Memory required for data: 97092000
I0430 23:31:25.634994  5004 layer_factory.hpp:77] Creating layer accuracy
I0430 23:31:25.634999  5004 net.cpp:86] Creating Layer accuracy
I0430 23:31:25.635002  5004 net.cpp:408] accuracy <- ip4_ip4_0_split_0
I0430 23:31:25.635006  5004 net.cpp:408] accuracy <- label_cifar_1_split_0
I0430 23:31:25.635026  5004 net.cpp:382] accuracy -> accuracy
…
