…
I0501 06:59:19.379739  2901 net.cpp:296] The NetState phase (0) differed from the phase (1) specified by a rule in layer cifar
I0501 06:59:19.379751  2901 net.cpp:296] The NetState phase (0) differed from the phase (1) specified by a rule in layer accuracy
I0501 06:59:19.379845  2901 net.cpp:53] Initializing net from parameters: 
name: "CIFAR"
state {
  phase: TRAIN
  level: 0
  stage: ""
}
layer {
  name: "cifar"
  type: "Data"
  top: "data"
  top: "label"
  include {
    phase: TRAIN
  }
  transform_param {
    mean_file: "examples/cifar10/mean.binaryproto"
  }
  data_param {
    source: "examples/cifar10/cifar10_train_lmdb"
    batch_size: 111
    backend: LMDB
  }
}
layer {
  name: "conv0"
  type: "Convolution"
  bottom: "data"
  top: "conv0"
  param {
    lr_mult: 1
  }
  param {
    lr_mult: 2
  }
  convolution_param {
    num_output: 16
    pad: 2
    kernel_size: 3
    stride: 1
    weight_filler {
      type: "gaussian"
      std: 0.01
    }
    bias_filler {
      type: "constant"
    }
  }
}
layer {
  name: "Sigmoid0"
  type: "Sigmoid"
  bottom: "conv0"
  top: "Sigmoid0"
}
layer {
  name: "pool0"
  type: "Pooling"
  bottom: "Sigmoid0"
  top: "pool0"
  pooling_param {
    pool: AVE
    kernel_size: 3
    stride: 2
  }
}
layer {
  name: "ip1"
  type: "InnerProduct"
  bottom: "pool0"
  top: "ip1"
  param {
    lr_mult: 1
  }
  param {
    lr_mult: 2
  }
  inner_product_param {
    num_output: 80
    weight_filler {
      type: "gaussian"
      std: 0.01
    }
    bias_filler {
      type: "constant"
    }
  }
}
layer {
  name: "relu1"
  type: "ReLU"
  bottom: "ip1"
  top: "ip1"
}
layer {
  name: "ip2"
  type: "InnerProduct"
  bottom: "ip1"
  top: "ip2"
  param {
    lr_mult: 1
  }
  param {
    lr_mult: 2
  }
  inner_product_param {
    num_output: 10
    weight_filler {
      type: "gaussian"
      std: 0.01
    }
    bias_filler {
      type: "constant"
    }
  }
}
layer {
  name: "loss"
  type: "SoftmaxWithLoss"
  bottom: "ip2"
  bottom: "label"
  top: "loss"
}
I0501 06:59:19.379904  2901 layer_factory.hpp:77] Creating layer cifar
I0501 06:59:19.379983  2901 db_lmdb.cpp:35] Opened lmdb examples/cifar10/cifar10_train_lmdb
I0501 06:59:19.380007  2901 net.cpp:86] Creating Layer cifar
I0501 06:59:19.380012  2901 net.cpp:382] cifar -> data
I0501 06:59:19.380030  2901 net.cpp:382] cifar -> label
I0501 06:59:19.380043  2901 data_transformer.cpp:25] Loading mean file from: examples/cifar10/mean.binaryproto
I0501 06:59:19.381964  2901 data_layer.cpp:45] output data size: 111,3,32,32
I0501 06:59:19.389612  2901 net.cpp:124] Setting up cifar
I0501 06:59:19.389643  2901 net.cpp:131] Top shape: 111 3 32 32 (340992)
I0501 06:59:19.389649  2901 net.cpp:131] Top shape: 111 (111)
I0501 06:59:19.389652  2901 net.cpp:139] Memory required for data: 1364412
I0501 06:59:19.389658  2901 layer_factory.hpp:77] Creating layer conv0
I0501 06:59:19.389675  2901 net.cpp:86] Creating Layer conv0
I0501 06:59:19.389679  2901 net.cpp:408] conv0 <- data
I0501 06:59:19.389721  2901 net.cpp:382] conv0 -> conv0
I0501 06:59:19.638624  2901 net.cpp:124] Setting up conv0
I0501 06:59:19.638659  2901 net.cpp:131] Top shape: 111 16 34 34 (2053056)
I0501 06:59:19.638664  2901 net.cpp:139] Memory required for data: 9576636
I0501 06:59:19.638681  2901 layer_factory.hpp:77] Creating layer Sigmoid0
I0501 06:59:19.638695  2901 net.cpp:86] Creating Layer Sigmoid0
I0501 06:59:19.638700  2901 net.cpp:408] Sigmoid0 <- conv0
I0501 06:59:19.638707  2901 net.cpp:382] Sigmoid0 -> Sigmoid0
I0501 06:59:19.638953  2901 net.cpp:124] Setting up Sigmoid0
I0501 06:59:19.638967  2901 net.cpp:131] Top shape: 111 16 34 34 (2053056)
I0501 06:59:19.638970  2901 net.cpp:139] Memory required for data: 17788860
I0501 06:59:19.638974  2901 layer_factory.hpp:77] Creating layer pool0
I0501 06:59:19.638983  2901 net.cpp:86] Creating Layer pool0
I0501 06:59:19.638988  2901 net.cpp:408] pool0 <- Sigmoid0
I0501 06:59:19.638993  2901 net.cpp:382] pool0 -> pool0
I0501 06:59:19.639883  2901 net.cpp:124] Setting up pool0
I0501 06:59:19.639899  2901 net.cpp:131] Top shape: 111 16 17 17 (513264)
I0501 06:59:19.639902  2901 net.cpp:139] Memory required for data: 19841916
I0501 06:59:19.639906  2901 layer_factory.hpp:77] Creating layer ip1
I0501 06:59:19.639922  2901 net.cpp:86] Creating Layer ip1
I0501 06:59:19.639927  2901 net.cpp:408] ip1 <- pool0
I0501 06:59:19.639935  2901 net.cpp:382] ip1 -> ip1
I0501 06:59:19.653173  2901 net.cpp:124] Setting up ip1
I0501 06:59:19.653188  2901 net.cpp:131] Top shape: 111 80 (8880)
I0501 06:59:19.653192  2901 net.cpp:139] Memory required for data: 19877436
I0501 06:59:19.653203  2901 layer_factory.hpp:77] Creating layer relu1
I0501 06:59:19.653210  2901 net.cpp:86] Creating Layer relu1
I0501 06:59:19.653214  2901 net.cpp:408] relu1 <- ip1
I0501 06:59:19.653220  2901 net.cpp:369] relu1 -> ip1 (in-place)
I0501 06:59:19.653419  2901 net.cpp:124] Setting up relu1
I0501 06:59:19.653429  2901 net.cpp:131] Top shape: 111 80 (8880)
I0501 06:59:19.653432  2901 net.cpp:139] Memory required for data: 19912956
I0501 06:59:19.653436  2901 layer_factory.hpp:77] Creating layer ip2
I0501 06:59:19.653445  2901 net.cpp:86] Creating Layer ip2
I0501 06:59:19.653448  2901 net.cpp:408] ip2 <- ip1
I0501 06:59:19.653455  2901 net.cpp:382] ip2 -> ip2
I0501 06:59:19.653599  2901 net.cpp:124] Setting up ip2
I0501 06:59:19.653609  2901 net.cpp:131] Top shape: 111 10 (1110)
I0501 06:59:19.653612  2901 net.cpp:139] Memory required for data: 19917396
I0501 06:59:19.653621  2901 layer_factory.hpp:77] Creating layer loss
I0501 06:59:19.653630  2901 net.cpp:86] Creating Layer loss
I0501 06:59:19.653633  2901 net.cpp:408] loss <- ip2
I0501 06:59:19.653637  2901 net.cpp:408] loss <- label
I0501 06:59:19.653645  2901 net.cpp:382] loss -> loss
I0501 06:59:19.653663  2901 layer_factory.hpp:77] Creating layer loss
…
I0501 06:59:19.654340  2901 solver.cpp:173] Creating test net (#0) specified by net file: ECE595/cifar/train_test/var_everything/cifar_train_test_468.prototxt
I0501 06:59:19.654369  2901 net.cpp:296] The NetState phase (1) differed from the phase (0) specified by a rule in layer cifar
I0501 06:59:19.654459  2901 net.cpp:53] Initializing net from parameters: 
name: "CIFAR"
state {
  phase: TEST
}
layer {
  name: "cifar"
  type: "Data"
  top: "data"
  top: "label"
  include {
    phase: TEST
  }
  transform_param {
    mean_file: "examples/cifar10/mean.binaryproto"
  }
  data_param {
    source: "examples/cifar10/cifar10_test_lmdb"
    batch_size: 1000
    backend: LMDB
  }
}
layer {
  name: "conv0"
  type: "Convolution"
  bottom: "data"
  top: "conv0"
  param {
    lr_mult: 1
  }
  param {
    lr_mult: 2
  }
  convolution_param {
    num_output: 16
    pad: 2
    kernel_size: 3
    stride: 1
    weight_filler {
      type: "gaussian"
      std: 0.01
    }
    bias_filler {
      type: "constant"
    }
  }
}
layer {
  name: "Sigmoid0"
  type: "Sigmoid"
  bottom: "conv0"
  top: "Sigmoid0"
}
layer {
  name: "pool0"
  type: "Pooling"
  bottom: "Sigmoid0"
  top: "pool0"
  pooling_param {
    pool: AVE
    kernel_size: 3
    stride: 2
  }
}
layer {
  name: "ip1"
  type: "InnerProduct"
  bottom: "pool0"
  top: "ip1"
  param {
    lr_mult: 1
  }
  param {
    lr_mult: 2
  }
  inner_product_param {
    num_output: 80
    weight_filler {
      type: "gaussian"
      std: 0.01
    }
    bias_filler {
      type: "constant"
    }
  }
}
layer {
  name: "relu1"
  type: "ReLU"
  bottom: "ip1"
  top: "ip1"
}
layer {
  name: "ip2"
  type: "InnerProduct"
  bottom: "ip1"
  top: "ip2"
  param {
    lr_mult: 1
  }
  param {
    lr_mult: 2
  }
  inner_product_param {
    num_output: 10
    weight_filler {
      type: "gaussian"
      std: 0.01
    }
    bias_filler {
      type: "constant"
    }
  }
}
layer {
  name: "accuracy"
  type: "Accuracy"
  bottom: "ip2"
  bottom: "label"
  top: "accuracy"
  include {
    phase: TEST
  }
}
layer {
  name: "loss"
  type: "SoftmaxWithLoss"
  bottom: "ip2"
  bottom: "label"
  top: "loss"
}
I0501 06:59:19.654548  2901 layer_factory.hpp:77] Creating layer cifar
I0501 06:59:19.654603  2901 db_lmdb.cpp:35] Opened lmdb examples/cifar10/cifar10_test_lmdb
I0501 06:59:19.654618  2901 net.cpp:86] Creating Layer cifar
I0501 06:59:19.654623  2901 net.cpp:382] cifar -> data
I0501 06:59:19.654633  2901 net.cpp:382] cifar -> label
I0501 06:59:19.654640  2901 data_transformer.cpp:25] Loading mean file from: examples/cifar10/mean.binaryproto
I0501 06:59:19.654814  2901 data_layer.cpp:45] output data size: 1000,3,32,32
I0501 06:59:19.680660  2901 net.cpp:124] Setting up cifar
I0501 06:59:19.680691  2901 net.cpp:131] Top shape: 1000 3 32 32 (3072000)
I0501 06:59:19.680697  2901 net.cpp:131] Top shape: 1000 (1000)
I0501 06:59:19.680701  2901 net.cpp:139] Memory required for data: 12292000
I0501 06:59:19.680707  2901 layer_factory.hpp:77] Creating layer label_cifar_1_split
I0501 06:59:19.680727  2901 net.cpp:86] Creating Layer label_cifar_1_split
I0501 06:59:19.680732  2901 net.cpp:408] label_cifar_1_split <- label
I0501 06:59:19.680739  2901 net.cpp:382] label_cifar_1_split -> label_cifar_1_split_0
I0501 06:59:19.680750  2901 net.cpp:382] label_cifar_1_split -> label_cifar_1_split_1
I0501 06:59:19.680878  2901 net.cpp:124] Setting up label_cifar_1_split
I0501 06:59:19.680889  2901 net.cpp:131] Top shape: 1000 (1000)
I0501 06:59:19.680894  2901 net.cpp:131] Top shape: 1000 (1000)
I0501 06:59:19.680897  2901 net.cpp:139] Memory required for data: 12300000
I0501 06:59:19.680902  2901 layer_factory.hpp:77] Creating layer conv0
I0501 06:59:19.680917  2901 net.cpp:86] Creating Layer conv0
I0501 06:59:19.680922  2901 net.cpp:408] conv0 <- data
I0501 06:59:19.680929  2901 net.cpp:382] conv0 -> conv0
I0501 06:59:19.682884  2901 net.cpp:124] Setting up conv0
I0501 06:59:19.682904  2901 net.cpp:131] Top shape: 1000 16 34 34 (18496000)
I0501 06:59:19.682909  2901 net.cpp:139] Memory required for data: 86284000
I0501 06:59:19.682920  2901 layer_factory.hpp:77] Creating layer Sigmoid0
I0501 06:59:19.682929  2901 net.cpp:86] Creating Layer Sigmoid0
I0501 06:59:19.682932  2901 net.cpp:408] Sigmoid0 <- conv0
I0501 06:59:19.682938  2901 net.cpp:382] Sigmoid0 -> Sigmoid0
I0501 06:59:19.683161  2901 net.cpp:124] Setting up Sigmoid0
I0501 06:59:19.683173  2901 net.cpp:131] Top shape: 1000 16 34 34 (18496000)
I0501 06:59:19.683176  2901 net.cpp:139] Memory required for data: 160268000
I0501 06:59:19.683181  2901 layer_factory.hpp:77] Creating layer pool0
I0501 06:59:19.683190  2901 net.cpp:86] Creating Layer pool0
I0501 06:59:19.683195  2901 net.cpp:408] pool0 <- Sigmoid0
I0501 06:59:19.683200  2901 net.cpp:382] pool0 -> pool0
I0501 06:59:19.684207  2901 net.cpp:124] Setting up pool0
I0501 06:59:19.684237  2901 net.cpp:131] Top shape: 1000 16 17 17 (4624000)
I0501 06:59:19.684242  2901 net.cpp:139] Memory required for data: 178764000
I0501 06:59:19.684247  2901 layer_factory.hpp:77] Creating layer ip1
I0501 06:59:19.684257  2901 net.cpp:86] Creating Layer ip1
I0501 06:59:19.684262  2901 net.cpp:408] ip1 <- pool0
I0501 06:59:19.684268  2901 net.cpp:382] ip1 -> ip1
I0501 06:59:19.698411  2901 net.cpp:124] Setting up ip1
I0501 06:59:19.698428  2901 net.cpp:131] Top shape: 1000 80 (80000)
I0501 06:59:19.698433  2901 net.cpp:139] Memory required for data: 179084000
I0501 06:59:19.698444  2901 layer_factory.hpp:77] Creating layer relu1
I0501 06:59:19.698453  2901 net.cpp:86] Creating Layer relu1
I0501 06:59:19.698459  2901 net.cpp:408] relu1 <- ip1
I0501 06:59:19.698465  2901 net.cpp:369] relu1 -> ip1 (in-place)
I0501 06:59:19.698675  2901 net.cpp:124] Setting up relu1
I0501 06:59:19.698686  2901 net.cpp:131] Top shape: 1000 80 (80000)
I0501 06:59:19.698693  2901 net.cpp:139] Memory required for data: 179404000
I0501 06:59:19.698698  2901 layer_factory.hpp:77] Creating layer ip2
I0501 06:59:19.698705  2901 net.cpp:86] Creating Layer ip2
I0501 06:59:19.698709  2901 net.cpp:408] ip2 <- ip1
I0501 06:59:19.698716  2901 net.cpp:382] ip2 -> ip2
I0501 06:59:19.698873  2901 net.cpp:124] Setting up ip2
I0501 06:59:19.698884  2901 net.cpp:131] Top shape: 1000 10 (10000)
I0501 06:59:19.698887  2901 net.cpp:139] Memory required for data: 179444000
I0501 06:59:19.698896  2901 layer_factory.hpp:77] Creating layer ip2_ip2_0_split
I0501 06:59:19.698904  2901 net.cpp:86] Creating Layer ip2_ip2_0_split
I0501 06:59:19.698909  2901 net.cpp:408] ip2_ip2_0_split <- ip2
I0501 06:59:19.698916  2901 net.cpp:382] ip2_ip2_0_split -> ip2_ip2_0_split_0
I0501 06:59:19.698922  2901 net.cpp:382] ip2_ip2_0_split -> ip2_ip2_0_split_1
I0501 06:59:19.698958  2901 net.cpp:124] Setting up ip2_ip2_0_split
I0501 06:59:19.698966  2901 net.cpp:131] Top shape: 1000 10 (10000)
I0501 06:59:19.698969  2901 net.cpp:131] Top shape: 1000 10 (10000)
I0501 06:59:19.698972  2901 net.cpp:139] Memory required for data: 179524000
I0501 06:59:19.698977  2901 layer_factory.hpp:77] Creating layer accuracy
I0501 06:59:19.698987  2901 net.cpp:86] Creating Layer accuracy
I0501 06:59:19.698990  2901 net.cpp:408] accuracy <- ip2_ip2_0_split_0
I0501 06:59:19.698995  2901 net.cpp:408] accuracy <- label_cifar_1_split_0
I0501 06:59:19.699000  2901 net.cpp:382] accuracy -> accuracy
…
