…
I0501 07:50:53.398941  7577 net.cpp:296] The NetState phase (0) differed from the phase (1) specified by a rule in layer cifar
I0501 07:50:53.398955  7577 net.cpp:296] The NetState phase (0) differed from the phase (1) specified by a rule in layer accuracy
I0501 07:50:53.399029  7577 net.cpp:53] Initializing net from parameters: 
name: "CIFAR"
state {
  phase: TRAIN
  level: 0
  stage: ""
}
layer {
  name: "cifar"
  type: "Data"
  top: "data"
  top: "label"
  include {
    phase: TRAIN
  }
  transform_param {
    mean_file: "examples/cifar10/mean.binaryproto"
  }
  data_param {
    source: "examples/cifar10/cifar10_train_lmdb"
    batch_size: 111
    backend: LMDB
  }
}
layer {
  name: "conv0"
  type: "Convolution"
  bottom: "data"
  top: "conv0"
  param {
    lr_mult: 1
  }
  param {
    lr_mult: 2
  }
  convolution_param {
    num_output: 16
    pad: 2
    kernel_size: 3
    stride: 1
    weight_filler {
      type: "gaussian"
      std: 0.01
    }
    bias_filler {
      type: "constant"
    }
  }
}
layer {
  name: "Sigmoid0"
  type: "Sigmoid"
  bottom: "conv0"
  top: "Sigmoid0"
}
layer {
  name: "pool0"
  type: "Pooling"
  bottom: "Sigmoid0"
  top: "pool0"
  pooling_param {
    pool: AVE
    kernel_size: 3
    stride: 2
  }
}
layer {
  name: "ip1"
  type: "InnerProduct"
  bottom: "pool0"
  top: "ip1"
  param {
    lr_mult: 1
  }
  param {
    lr_mult: 2
  }
  inner_product_param {
    num_output: 160
    weight_filler {
      type: "gaussian"
      std: 0.01
    }
    bias_filler {
      type: "constant"
    }
  }
}
layer {
  name: "relu1"
  type: "ReLU"
  bottom: "ip1"
  top: "ip1"
}
layer {
  name: "ip2"
  type: "InnerProduct"
  bottom: "ip1"
  top: "ip2"
  param {
    lr_mult: 1
  }
  param {
    lr_mult: 2
  }
  inner_product_param {
    num_output: 160
    weight_filler {
      type: "gaussian"
      std: 0.01
    }
    bias_filler {
      type: "constant"
    }
  }
}
layer {
  name: "relu2"
  type: "ReLU"
  bottom: "ip2"
  top: "ip2"
}
layer {
  name: "ip3"
  type: "InnerProduct"
  bottom: "ip2"
  top: "ip3"
  param {
    lr_mult: 1
  }
  param {
    lr_mult: 2
  }
  inner_product_param {
    num_output: 10
    weight_filler {
      type: "gaussian"
      std: 0.01
    }
    bias_filler {
      type: "constant"
    }
  }
}
layer {
  name: "loss"
  type: "SoftmaxWithLoss"
  bottom: "ip3"
  bottom: "label"
  top: "loss"
}
I0501 07:50:53.399092  7577 layer_factory.hpp:77] Creating layer cifar
I0501 07:50:53.399175  7577 db_lmdb.cpp:35] Opened lmdb examples/cifar10/cifar10_train_lmdb
I0501 07:50:53.399199  7577 net.cpp:86] Creating Layer cifar
I0501 07:50:53.399205  7577 net.cpp:382] cifar -> data
I0501 07:50:53.399224  7577 net.cpp:382] cifar -> label
I0501 07:50:53.399235  7577 data_transformer.cpp:25] Loading mean file from: examples/cifar10/mean.binaryproto
I0501 07:50:53.401087  7577 data_layer.cpp:45] output data size: 111,3,32,32
I0501 07:50:53.407941  7577 net.cpp:124] Setting up cifar
I0501 07:50:53.407987  7577 net.cpp:131] Top shape: 111 3 32 32 (340992)
I0501 07:50:53.407994  7577 net.cpp:131] Top shape: 111 (111)
I0501 07:50:53.407997  7577 net.cpp:139] Memory required for data: 1364412
I0501 07:50:53.408004  7577 layer_factory.hpp:77] Creating layer conv0
I0501 07:50:53.408035  7577 net.cpp:86] Creating Layer conv0
I0501 07:50:53.408038  7577 net.cpp:408] conv0 <- data
I0501 07:50:53.408051  7577 net.cpp:382] conv0 -> conv0
I0501 07:50:53.651134  7577 net.cpp:124] Setting up conv0
I0501 07:50:53.651182  7577 net.cpp:131] Top shape: 111 16 34 34 (2053056)
I0501 07:50:53.651187  7577 net.cpp:139] Memory required for data: 9576636
I0501 07:50:53.651201  7577 layer_factory.hpp:77] Creating layer Sigmoid0
I0501 07:50:53.651213  7577 net.cpp:86] Creating Layer Sigmoid0
I0501 07:50:53.651217  7577 net.cpp:408] Sigmoid0 <- conv0
I0501 07:50:53.651222  7577 net.cpp:382] Sigmoid0 -> Sigmoid0
I0501 07:50:53.651408  7577 net.cpp:124] Setting up Sigmoid0
I0501 07:50:53.651418  7577 net.cpp:131] Top shape: 111 16 34 34 (2053056)
I0501 07:50:53.651422  7577 net.cpp:139] Memory required for data: 17788860
I0501 07:50:53.651424  7577 layer_factory.hpp:77] Creating layer pool0
I0501 07:50:53.651432  7577 net.cpp:86] Creating Layer pool0
I0501 07:50:53.651434  7577 net.cpp:408] pool0 <- Sigmoid0
I0501 07:50:53.651439  7577 net.cpp:382] pool0 -> pool0
I0501 07:50:53.652148  7577 net.cpp:124] Setting up pool0
I0501 07:50:53.652160  7577 net.cpp:131] Top shape: 111 16 17 17 (513264)
I0501 07:50:53.652164  7577 net.cpp:139] Memory required for data: 19841916
I0501 07:50:53.652168  7577 layer_factory.hpp:77] Creating layer ip1
I0501 07:50:53.652176  7577 net.cpp:86] Creating Layer ip1
I0501 07:50:53.652179  7577 net.cpp:408] ip1 <- pool0
I0501 07:50:53.652184  7577 net.cpp:382] ip1 -> ip1
I0501 07:50:53.672655  7577 net.cpp:124] Setting up ip1
I0501 07:50:53.672683  7577 net.cpp:131] Top shape: 111 160 (17760)
I0501 07:50:53.672688  7577 net.cpp:139] Memory required for data: 19912956
I0501 07:50:53.672708  7577 layer_factory.hpp:77] Creating layer relu1
I0501 07:50:53.672714  7577 net.cpp:86] Creating Layer relu1
I0501 07:50:53.672719  7577 net.cpp:408] relu1 <- ip1
I0501 07:50:53.672722  7577 net.cpp:369] relu1 -> ip1 (in-place)
I0501 07:50:53.672936  7577 net.cpp:124] Setting up relu1
I0501 07:50:53.672946  7577 net.cpp:131] Top shape: 111 160 (17760)
I0501 07:50:53.672950  7577 net.cpp:139] Memory required for data: 19983996
I0501 07:50:53.672953  7577 layer_factory.hpp:77] Creating layer ip2
I0501 07:50:53.672961  7577 net.cpp:86] Creating Layer ip2
I0501 07:50:53.672965  7577 net.cpp:408] ip2 <- ip1
I0501 07:50:53.672969  7577 net.cpp:382] ip2 -> ip2
I0501 07:50:53.674582  7577 net.cpp:124] Setting up ip2
I0501 07:50:53.674594  7577 net.cpp:131] Top shape: 111 160 (17760)
I0501 07:50:53.674597  7577 net.cpp:139] Memory required for data: 20055036
I0501 07:50:53.674605  7577 layer_factory.hpp:77] Creating layer relu2
I0501 07:50:53.674612  7577 net.cpp:86] Creating Layer relu2
I0501 07:50:53.674614  7577 net.cpp:408] relu2 <- ip2
I0501 07:50:53.674618  7577 net.cpp:369] relu2 -> ip2 (in-place)
I0501 07:50:53.674767  7577 net.cpp:124] Setting up relu2
I0501 07:50:53.674775  7577 net.cpp:131] Top shape: 111 160 (17760)
I0501 07:50:53.674778  7577 net.cpp:139] Memory required for data: 20126076
I0501 07:50:53.674782  7577 layer_factory.hpp:77] Creating layer ip3
I0501 07:50:53.674788  7577 net.cpp:86] Creating Layer ip3
I0501 07:50:53.674793  7577 net.cpp:408] ip3 <- ip2
I0501 07:50:53.674796  7577 net.cpp:382] ip3 -> ip3
I0501 07:50:53.674924  7577 net.cpp:124] Setting up ip3
I0501 07:50:53.674932  7577 net.cpp:131] Top shape: 111 10 (1110)
I0501 07:50:53.674934  7577 net.cpp:139] Memory required for data: 20130516
I0501 07:50:53.674939  7577 layer_factory.hpp:77] Creating layer loss
I0501 07:50:53.674944  7577 net.cpp:86] Creating Layer loss
I0501 07:50:53.674947  7577 net.cpp:408] loss <- ip3
I0501 07:50:53.674952  7577 net.cpp:408] loss <- label
I0501 07:50:53.674957  7577 net.cpp:382] loss -> loss
I0501 07:50:53.674969  7577 layer_factory.hpp:77] Creating layer loss
…
I0501 07:50:53.675549  7577 solver.cpp:173] Creating test net (#0) specified by net file: ECE595/cifar/train_test/var_everything/cifar_train_test_494.prototxt
I0501 07:50:53.675575  7577 net.cpp:296] The NetState phase (1) differed from the phase (0) specified by a rule in layer cifar
I0501 07:50:53.675669  7577 net.cpp:53] Initializing net from parameters: 
name: "CIFAR"
state {
  phase: TEST
}
layer {
  name: "cifar"
  type: "Data"
  top: "data"
  top: "label"
  include {
    phase: TEST
  }
  transform_param {
    mean_file: "examples/cifar10/mean.binaryproto"
  }
  data_param {
    source: "examples/cifar10/cifar10_test_lmdb"
    batch_size: 1000
    backend: LMDB
  }
}
layer {
  name: "conv0"
  type: "Convolution"
  bottom: "data"
  top: "conv0"
  param {
    lr_mult: 1
  }
  param {
    lr_mult: 2
  }
  convolution_param {
    num_output: 16
    pad: 2
    kernel_size: 3
    stride: 1
    weight_filler {
      type: "gaussian"
      std: 0.01
    }
    bias_filler {
      type: "constant"
    }
  }
}
layer {
  name: "Sigmoid0"
  type: "Sigmoid"
  bottom: "conv0"
  top: "Sigmoid0"
}
layer {
  name: "pool0"
  type: "Pooling"
  bottom: "Sigmoid0"
  top: "pool0"
  pooling_param {
    pool: AVE
    kernel_size: 3
    stride: 2
  }
}
layer {
  name: "ip1"
  type: "InnerProduct"
  bottom: "pool0"
  top: "ip1"
  param {
    lr_mult: 1
  }
  param {
    lr_mult: 2
  }
  inner_product_param {
    num_output: 160
    weight_filler {
      type: "gaussian"
      std: 0.01
    }
    bias_filler {
      type: "constant"
    }
  }
}
layer {
  name: "relu1"
  type: "ReLU"
  bottom: "ip1"
  top: "ip1"
}
layer {
  name: "ip2"
  type: "InnerProduct"
  bottom: "ip1"
  top: "ip2"
  param {
    lr_mult: 1
  }
  param {
    lr_mult: 2
  }
  inner_product_param {
    num_output: 160
    weight_filler {
      type: "gaussian"
      std: 0.01
    }
    bias_filler {
      type: "constant"
    }
  }
}
layer {
  name: "relu2"
  type: "ReLU"
  bottom: "ip2"
  top: "ip2"
}
layer {
  name: "ip3"
  type: "InnerProduct"
  bottom: "ip2"
  top: "ip3"
  param {
    lr_mult: 1
  }
  param {
    lr_mult: 2
  }
  inner_product_param {
    num_output: 10
    weight_filler {
      type: "gaussian"
      std: 0.01
    }
    bias_filler {
      type: "constant"
    }
  }
}
layer {
  name: "accuracy"
  type: "Accuracy"
  bottom: "ip3"
  bottom: "label"
  top: "accuracy"
  include {
    phase: TEST
  }
}
layer {
  name: "loss"
  type: "SoftmaxWithLoss"
  bottom: "ip3"
  bottom: "label"
  top: "loss"
}
I0501 07:50:53.675729  7577 layer_factory.hpp:77] Creating layer cifar
I0501 07:50:53.675772  7577 db_lmdb.cpp:35] Opened lmdb examples/cifar10/cifar10_test_lmdb
I0501 07:50:53.675784  7577 net.cpp:86] Creating Layer cifar
I0501 07:50:53.675788  7577 net.cpp:382] cifar -> data
I0501 07:50:53.675796  7577 net.cpp:382] cifar -> label
I0501 07:50:53.675802  7577 data_transformer.cpp:25] Loading mean file from: examples/cifar10/mean.binaryproto
I0501 07:50:53.675935  7577 data_layer.cpp:45] output data size: 1000,3,32,32
I0501 07:50:53.697563  7577 net.cpp:124] Setting up cifar
I0501 07:50:53.697605  7577 net.cpp:131] Top shape: 1000 3 32 32 (3072000)
I0501 07:50:53.697612  7577 net.cpp:131] Top shape: 1000 (1000)
I0501 07:50:53.697614  7577 net.cpp:139] Memory required for data: 12292000
I0501 07:50:53.697620  7577 layer_factory.hpp:77] Creating layer label_cifar_1_split
I0501 07:50:53.697633  7577 net.cpp:86] Creating Layer label_cifar_1_split
I0501 07:50:53.697654  7577 net.cpp:408] label_cifar_1_split <- label
I0501 07:50:53.697661  7577 net.cpp:382] label_cifar_1_split -> label_cifar_1_split_0
I0501 07:50:53.697669  7577 net.cpp:382] label_cifar_1_split -> label_cifar_1_split_1
I0501 07:50:53.697759  7577 net.cpp:124] Setting up label_cifar_1_split
I0501 07:50:53.697767  7577 net.cpp:131] Top shape: 1000 (1000)
I0501 07:50:53.697770  7577 net.cpp:131] Top shape: 1000 (1000)
I0501 07:50:53.697773  7577 net.cpp:139] Memory required for data: 12300000
I0501 07:50:53.697777  7577 layer_factory.hpp:77] Creating layer conv0
I0501 07:50:53.697788  7577 net.cpp:86] Creating Layer conv0
I0501 07:50:53.697793  7577 net.cpp:408] conv0 <- data
I0501 07:50:53.697798  7577 net.cpp:382] conv0 -> conv0
I0501 07:50:53.699410  7577 net.cpp:124] Setting up conv0
I0501 07:50:53.699440  7577 net.cpp:131] Top shape: 1000 16 34 34 (18496000)
I0501 07:50:53.699443  7577 net.cpp:139] Memory required for data: 86284000
I0501 07:50:53.699455  7577 layer_factory.hpp:77] Creating layer Sigmoid0
I0501 07:50:53.699462  7577 net.cpp:86] Creating Layer Sigmoid0
I0501 07:50:53.699465  7577 net.cpp:408] Sigmoid0 <- conv0
I0501 07:50:53.699471  7577 net.cpp:382] Sigmoid0 -> Sigmoid0
I0501 07:50:53.701326  7577 net.cpp:124] Setting up Sigmoid0
I0501 07:50:53.701356  7577 net.cpp:131] Top shape: 1000 16 34 34 (18496000)
I0501 07:50:53.701360  7577 net.cpp:139] Memory required for data: 160268000
I0501 07:50:53.701364  7577 layer_factory.hpp:77] Creating layer pool0
I0501 07:50:53.701372  7577 net.cpp:86] Creating Layer pool0
I0501 07:50:53.701376  7577 net.cpp:408] pool0 <- Sigmoid0
I0501 07:50:53.701385  7577 net.cpp:382] pool0 -> pool0
I0501 07:50:53.701572  7577 net.cpp:124] Setting up pool0
I0501 07:50:53.701581  7577 net.cpp:131] Top shape: 1000 16 17 17 (4624000)
I0501 07:50:53.701586  7577 net.cpp:139] Memory required for data: 178764000
I0501 07:50:53.701588  7577 layer_factory.hpp:77] Creating layer ip1
I0501 07:50:53.701599  7577 net.cpp:86] Creating Layer ip1
I0501 07:50:53.701603  7577 net.cpp:408] ip1 <- pool0
I0501 07:50:53.701609  7577 net.cpp:382] ip1 -> ip1
I0501 07:50:53.722651  7577 net.cpp:124] Setting up ip1
I0501 07:50:53.722682  7577 net.cpp:131] Top shape: 1000 160 (160000)
I0501 07:50:53.722687  7577 net.cpp:139] Memory required for data: 179404000
I0501 07:50:53.722710  7577 layer_factory.hpp:77] Creating layer relu1
I0501 07:50:53.722718  7577 net.cpp:86] Creating Layer relu1
I0501 07:50:53.722723  7577 net.cpp:408] relu1 <- ip1
I0501 07:50:53.722728  7577 net.cpp:369] relu1 -> ip1 (in-place)
I0501 07:50:53.722900  7577 net.cpp:124] Setting up relu1
I0501 07:50:53.722909  7577 net.cpp:131] Top shape: 1000 160 (160000)
I0501 07:50:53.722913  7577 net.cpp:139] Memory required for data: 180044000
I0501 07:50:53.722916  7577 layer_factory.hpp:77] Creating layer ip2
I0501 07:50:53.722924  7577 net.cpp:86] Creating Layer ip2
I0501 07:50:53.722928  7577 net.cpp:408] ip2 <- ip1
I0501 07:50:53.722934  7577 net.cpp:382] ip2 -> ip2
I0501 07:50:53.723736  7577 net.cpp:124] Setting up ip2
I0501 07:50:53.723743  7577 net.cpp:131] Top shape: 1000 160 (160000)
I0501 07:50:53.723762  7577 net.cpp:139] Memory required for data: 180684000
I0501 07:50:53.723770  7577 layer_factory.hpp:77] Creating layer relu2
I0501 07:50:53.723776  7577 net.cpp:86] Creating Layer relu2
I0501 07:50:53.723779  7577 net.cpp:408] relu2 <- ip2
I0501 07:50:53.723783  7577 net.cpp:369] relu2 -> ip2 (in-place)
I0501 07:50:53.723940  7577 net.cpp:124] Setting up relu2
I0501 07:50:53.723949  7577 net.cpp:131] Top shape: 1000 160 (160000)
I0501 07:50:53.723953  7577 net.cpp:139] Memory required for data: 181324000
I0501 07:50:53.723955  7577 layer_factory.hpp:77] Creating layer ip3
I0501 07:50:53.723963  7577 net.cpp:86] Creating Layer ip3
I0501 07:50:53.723965  7577 net.cpp:408] ip3 <- ip2
I0501 07:50:53.723970  7577 net.cpp:382] ip3 -> ip3
I0501 07:50:53.724117  7577 net.cpp:124] Setting up ip3
I0501 07:50:53.724124  7577 net.cpp:131] Top shape: 1000 10 (10000)
I0501 07:50:53.724138  7577 net.cpp:139] Memory required for data: 181364000
I0501 07:50:53.724144  7577 layer_factory.hpp:77] Creating layer ip3_ip3_0_split
I0501 07:50:53.724151  7577 net.cpp:86] Creating Layer ip3_ip3_0_split
I0501 07:50:53.724154  7577 net.cpp:408] ip3_ip3_0_split <- ip3
I0501 07:50:53.724160  7577 net.cpp:382] ip3_ip3_0_split -> ip3_ip3_0_split_0
I0501 07:50:53.724166  7577 net.cpp:382] ip3_ip3_0_split -> ip3_ip3_0_split_1
I0501 07:50:53.724200  7577 net.cpp:124] Setting up ip3_ip3_0_split
I0501 07:50:53.724208  7577 net.cpp:131] Top shape: 1000 10 (10000)
I0501 07:50:53.724212  7577 net.cpp:131] Top shape: 1000 10 (10000)
I0501 07:50:53.724215  7577 net.cpp:139] Memory required for data: 181444000
I0501 07:50:53.724218  7577 layer_factory.hpp:77] Creating layer accuracy
I0501 07:50:53.724225  7577 net.cpp:86] Creating Layer accuracy
I0501 07:50:53.724228  7577 net.cpp:408] accuracy <- ip3_ip3_0_split_0
I0501 07:50:53.724232  7577 net.cpp:408] accuracy <- label_cifar_1_split_0
I0501 07:50:53.724237  7577 net.cpp:382] accuracy -> accuracy
…
