…
I0501 07:42:55.639555  6831 net.cpp:296] The NetState phase (0) differed from the phase (1) specified by a rule in layer cifar
I0501 07:42:55.639572  6831 net.cpp:296] The NetState phase (0) differed from the phase (1) specified by a rule in layer accuracy
I0501 07:42:55.639664  6831 net.cpp:53] Initializing net from parameters: 
name: "CIFAR"
state {
  phase: TRAIN
  level: 0
  stage: ""
}
layer {
  name: "cifar"
  type: "Data"
  top: "data"
  top: "label"
  include {
    phase: TRAIN
  }
  transform_param {
    mean_file: "examples/cifar10/mean.binaryproto"
  }
  data_param {
    source: "examples/cifar10/cifar10_train_lmdb"
    batch_size: 111
    backend: LMDB
  }
}
layer {
  name: "conv0"
  type: "Convolution"
  bottom: "data"
  top: "conv0"
  param {
    lr_mult: 1
  }
  param {
    lr_mult: 2
  }
  convolution_param {
    num_output: 16
    pad: 2
    kernel_size: 3
    stride: 1
    weight_filler {
      type: "gaussian"
      std: 0.01
    }
    bias_filler {
      type: "constant"
    }
  }
}
layer {
  name: "Sigmoid0"
  type: "Sigmoid"
  bottom: "conv0"
  top: "Sigmoid0"
}
layer {
  name: "pool0"
  type: "Pooling"
  bottom: "Sigmoid0"
  top: "pool0"
  pooling_param {
    pool: AVE
    kernel_size: 3
    stride: 2
  }
}
layer {
  name: "ip1"
  type: "InnerProduct"
  bottom: "pool0"
  top: "ip1"
  param {
    lr_mult: 1
  }
  param {
    lr_mult: 2
  }
  inner_product_param {
    num_output: 160
    weight_filler {
      type: "gaussian"
      std: 0.01
    }
    bias_filler {
      type: "constant"
    }
  }
}
layer {
  name: "relu1"
  type: "ReLU"
  bottom: "ip1"
  top: "ip1"
}
layer {
  name: "ip2"
  type: "InnerProduct"
  bottom: "ip1"
  top: "ip2"
  param {
    lr_mult: 1
  }
  param {
    lr_mult: 2
  }
  inner_product_param {
    num_output: 10
    weight_filler {
      type: "gaussian"
      std: 0.01
    }
    bias_filler {
      type: "constant"
    }
  }
}
layer {
  name: "relu2"
  type: "ReLU"
  bottom: "ip2"
  top: "ip2"
}
layer {
  name: "ip3"
  type: "InnerProduct"
  bottom: "ip2"
  top: "ip3"
  param {
    lr_mult: 1
  }
  param {
    lr_mult: 2
  }
  inner_product_param {
    num_output: 10
    weight_filler {
      type: "gaussian"
      std: 0.01
    }
    bias_filler {
      type: "constant"
    }
  }
}
layer {
  name: "loss"
  type: "SoftmaxWithLoss"
  bottom: "ip3"
  bottom: "label"
  top: "loss"
}
I0501 07:42:55.639739  6831 layer_factory.hpp:77] Creating layer cifar
I0501 07:42:55.639845  6831 db_lmdb.cpp:35] Opened lmdb examples/cifar10/cifar10_train_lmdb
I0501 07:42:55.639873  6831 net.cpp:86] Creating Layer cifar
I0501 07:42:55.639881  6831 net.cpp:382] cifar -> data
I0501 07:42:55.639904  6831 net.cpp:382] cifar -> label
I0501 07:42:55.639915  6831 data_transformer.cpp:25] Loading mean file from: examples/cifar10/mean.binaryproto
I0501 07:42:55.642029  6831 data_layer.cpp:45] output data size: 111,3,32,32
I0501 07:42:55.650101  6831 net.cpp:124] Setting up cifar
I0501 07:42:55.650121  6831 net.cpp:131] Top shape: 111 3 32 32 (340992)
I0501 07:42:55.650128  6831 net.cpp:131] Top shape: 111 (111)
I0501 07:42:55.650131  6831 net.cpp:139] Memory required for data: 1364412
I0501 07:42:55.650140  6831 layer_factory.hpp:77] Creating layer conv0
I0501 07:42:55.650159  6831 net.cpp:86] Creating Layer conv0
I0501 07:42:55.650166  6831 net.cpp:408] conv0 <- data
I0501 07:42:55.650179  6831 net.cpp:382] conv0 -> conv0
I0501 07:42:55.921020  6831 net.cpp:124] Setting up conv0
I0501 07:42:55.921082  6831 net.cpp:131] Top shape: 111 16 34 34 (2053056)
I0501 07:42:55.921087  6831 net.cpp:139] Memory required for data: 9576636
I0501 07:42:55.921103  6831 layer_factory.hpp:77] Creating layer Sigmoid0
I0501 07:42:55.921115  6831 net.cpp:86] Creating Layer Sigmoid0
I0501 07:42:55.921119  6831 net.cpp:408] Sigmoid0 <- conv0
I0501 07:42:55.921125  6831 net.cpp:382] Sigmoid0 -> Sigmoid0
I0501 07:42:55.921350  6831 net.cpp:124] Setting up Sigmoid0
I0501 07:42:55.921360  6831 net.cpp:131] Top shape: 111 16 34 34 (2053056)
I0501 07:42:55.921363  6831 net.cpp:139] Memory required for data: 17788860
I0501 07:42:55.921366  6831 layer_factory.hpp:77] Creating layer pool0
I0501 07:42:55.921372  6831 net.cpp:86] Creating Layer pool0
I0501 07:42:55.921376  6831 net.cpp:408] pool0 <- Sigmoid0
I0501 07:42:55.921381  6831 net.cpp:382] pool0 -> pool0
I0501 07:42:55.922088  6831 net.cpp:124] Setting up pool0
I0501 07:42:55.922101  6831 net.cpp:131] Top shape: 111 16 17 17 (513264)
I0501 07:42:55.922119  6831 net.cpp:139] Memory required for data: 19841916
I0501 07:42:55.922122  6831 layer_factory.hpp:77] Creating layer ip1
I0501 07:42:55.922132  6831 net.cpp:86] Creating Layer ip1
I0501 07:42:55.922137  6831 net.cpp:408] ip1 <- pool0
I0501 07:42:55.922140  6831 net.cpp:382] ip1 -> ip1
I0501 07:42:55.941857  6831 net.cpp:124] Setting up ip1
I0501 07:42:55.941869  6831 net.cpp:131] Top shape: 111 160 (17760)
I0501 07:42:55.941889  6831 net.cpp:139] Memory required for data: 19912956
I0501 07:42:55.941896  6831 layer_factory.hpp:77] Creating layer relu1
I0501 07:42:55.941902  6831 net.cpp:86] Creating Layer relu1
I0501 07:42:55.941905  6831 net.cpp:408] relu1 <- ip1
I0501 07:42:55.941911  6831 net.cpp:369] relu1 -> ip1 (in-place)
I0501 07:42:55.942095  6831 net.cpp:124] Setting up relu1
I0501 07:42:55.942103  6831 net.cpp:131] Top shape: 111 160 (17760)
I0501 07:42:55.942106  6831 net.cpp:139] Memory required for data: 19983996
I0501 07:42:55.942109  6831 layer_factory.hpp:77] Creating layer ip2
I0501 07:42:55.942117  6831 net.cpp:86] Creating Layer ip2
I0501 07:42:55.942121  6831 net.cpp:408] ip2 <- ip1
I0501 07:42:55.942126  6831 net.cpp:382] ip2 -> ip2
I0501 07:42:55.942260  6831 net.cpp:124] Setting up ip2
I0501 07:42:55.942266  6831 net.cpp:131] Top shape: 111 10 (1110)
I0501 07:42:55.942270  6831 net.cpp:139] Memory required for data: 19988436
I0501 07:42:55.942277  6831 layer_factory.hpp:77] Creating layer relu2
I0501 07:42:55.942282  6831 net.cpp:86] Creating Layer relu2
I0501 07:42:55.942286  6831 net.cpp:408] relu2 <- ip2
I0501 07:42:55.942289  6831 net.cpp:369] relu2 -> ip2 (in-place)
I0501 07:42:55.942437  6831 net.cpp:124] Setting up relu2
I0501 07:42:55.942445  6831 net.cpp:131] Top shape: 111 10 (1110)
I0501 07:42:55.942448  6831 net.cpp:139] Memory required for data: 19992876
I0501 07:42:55.942451  6831 layer_factory.hpp:77] Creating layer ip3
I0501 07:42:55.942458  6831 net.cpp:86] Creating Layer ip3
I0501 07:42:55.942461  6831 net.cpp:408] ip3 <- ip2
I0501 07:42:55.942467  6831 net.cpp:382] ip3 -> ip3
I0501 07:42:55.942559  6831 net.cpp:124] Setting up ip3
I0501 07:42:55.942565  6831 net.cpp:131] Top shape: 111 10 (1110)
I0501 07:42:55.942569  6831 net.cpp:139] Memory required for data: 19997316
I0501 07:42:55.942574  6831 layer_factory.hpp:77] Creating layer loss
I0501 07:42:55.942579  6831 net.cpp:86] Creating Layer loss
I0501 07:42:55.942581  6831 net.cpp:408] loss <- ip3
I0501 07:42:55.942584  6831 net.cpp:408] loss <- label
I0501 07:42:55.942589  6831 net.cpp:382] loss -> loss
I0501 07:42:55.942607  6831 layer_factory.hpp:77] Creating layer loss
…
I0501 07:42:55.943207  6831 solver.cpp:173] Creating test net (#0) specified by net file: ECE595/cifar/train_test/var_everything/cifar_train_test_490.prototxt
I0501 07:42:55.943230  6831 net.cpp:296] The NetState phase (1) differed from the phase (0) specified by a rule in layer cifar
I0501 07:42:55.943313  6831 net.cpp:53] Initializing net from parameters: 
name: "CIFAR"
state {
  phase: TEST
}
layer {
  name: "cifar"
  type: "Data"
  top: "data"
  top: "label"
  include {
    phase: TEST
  }
  transform_param {
    mean_file: "examples/cifar10/mean.binaryproto"
  }
  data_param {
    source: "examples/cifar10/cifar10_test_lmdb"
    batch_size: 1000
    backend: LMDB
  }
}
layer {
  name: "conv0"
  type: "Convolution"
  bottom: "data"
  top: "conv0"
  param {
    lr_mult: 1
  }
  param {
    lr_mult: 2
  }
  convolution_param {
    num_output: 16
    pad: 2
    kernel_size: 3
    stride: 1
    weight_filler {
      type: "gaussian"
      std: 0.01
    }
    bias_filler {
      type: "constant"
    }
  }
}
layer {
  name: "Sigmoid0"
  type: "Sigmoid"
  bottom: "conv0"
  top: "Sigmoid0"
}
layer {
  name: "pool0"
  type: "Pooling"
  bottom: "Sigmoid0"
  top: "pool0"
  pooling_param {
    pool: AVE
    kernel_size: 3
    stride: 2
  }
}
layer {
  name: "ip1"
  type: "InnerProduct"
  bottom: "pool0"
  top: "ip1"
  param {
    lr_mult: 1
  }
  param {
    lr_mult: 2
  }
  inner_product_param {
    num_output: 160
    weight_filler {
      type: "gaussian"
      std: 0.01
    }
    bias_filler {
      type: "constant"
    }
  }
}
layer {
  name: "relu1"
  type: "ReLU"
  bottom: "ip1"
  top: "ip1"
}
layer {
  name: "ip2"
  type: "InnerProduct"
  bottom: "ip1"
  top: "ip2"
  param {
    lr_mult: 1
  }
  param {
    lr_mult: 2
  }
  inner_product_param {
    num_output: 10
    weight_filler {
      type: "gaussian"
      std: 0.01
    }
    bias_filler {
      type: "constant"
    }
  }
}
layer {
  name: "relu2"
  type: "ReLU"
  bottom: "ip2"
  top: "ip2"
}
layer {
  name: "ip3"
  type: "InnerProduct"
  bottom: "ip2"
  top: "ip3"
  param {
    lr_mult: 1
  }
  param {
    lr_mult: 2
  }
  inner_product_param {
    num_output: 10
    weight_filler {
      type: "gaussian"
      std: 0.01
    }
    bias_filler {
      type: "constant"
    }
  }
}
layer {
  name: "accuracy"
  type: "Accuracy"
  bottom: "ip3"
  bottom: "label"
  top: "accuracy"
  include {
    phase: TEST
  }
}
layer {
  name: "loss"
  type: "SoftmaxWithLoss"
  bottom: "ip3"
  bottom: "label"
  top: "loss"
}
I0501 07:42:55.943377  6831 layer_factory.hpp:77] Creating layer cifar
I0501 07:42:55.943419  6831 db_lmdb.cpp:35] Opened lmdb examples/cifar10/cifar10_test_lmdb
I0501 07:42:55.943430  6831 net.cpp:86] Creating Layer cifar
I0501 07:42:55.943436  6831 net.cpp:382] cifar -> data
I0501 07:42:55.943444  6831 net.cpp:382] cifar -> label
I0501 07:42:55.943449  6831 data_transformer.cpp:25] Loading mean file from: examples/cifar10/mean.binaryproto
I0501 07:42:55.943589  6831 data_layer.cpp:45] output data size: 1000,3,32,32
I0501 07:42:55.965870  6831 net.cpp:124] Setting up cifar
I0501 07:42:55.965914  6831 net.cpp:131] Top shape: 1000 3 32 32 (3072000)
I0501 07:42:55.965919  6831 net.cpp:131] Top shape: 1000 (1000)
I0501 07:42:55.965921  6831 net.cpp:139] Memory required for data: 12292000
I0501 07:42:55.965929  6831 layer_factory.hpp:77] Creating layer label_cifar_1_split
I0501 07:42:55.965941  6831 net.cpp:86] Creating Layer label_cifar_1_split
I0501 07:42:55.965963  6831 net.cpp:408] label_cifar_1_split <- label
I0501 07:42:55.965971  6831 net.cpp:382] label_cifar_1_split -> label_cifar_1_split_0
I0501 07:42:55.965981  6831 net.cpp:382] label_cifar_1_split -> label_cifar_1_split_1
I0501 07:42:55.966035  6831 net.cpp:124] Setting up label_cifar_1_split
I0501 07:42:55.966043  6831 net.cpp:131] Top shape: 1000 (1000)
I0501 07:42:55.966047  6831 net.cpp:131] Top shape: 1000 (1000)
I0501 07:42:55.966049  6831 net.cpp:139] Memory required for data: 12300000
I0501 07:42:55.966053  6831 layer_factory.hpp:77] Creating layer conv0
I0501 07:42:55.966065  6831 net.cpp:86] Creating Layer conv0
I0501 07:42:55.966068  6831 net.cpp:408] conv0 <- data
I0501 07:42:55.966074  6831 net.cpp:382] conv0 -> conv0
I0501 07:42:55.967720  6831 net.cpp:124] Setting up conv0
I0501 07:42:55.967733  6831 net.cpp:131] Top shape: 1000 16 34 34 (18496000)
I0501 07:42:55.967753  6831 net.cpp:139] Memory required for data: 86284000
I0501 07:42:55.967762  6831 layer_factory.hpp:77] Creating layer Sigmoid0
I0501 07:42:55.967769  6831 net.cpp:86] Creating Layer Sigmoid0
I0501 07:42:55.967772  6831 net.cpp:408] Sigmoid0 <- conv0
I0501 07:42:55.967778  6831 net.cpp:382] Sigmoid0 -> Sigmoid0
I0501 07:42:55.968642  6831 net.cpp:124] Setting up Sigmoid0
I0501 07:42:55.968654  6831 net.cpp:131] Top shape: 1000 16 34 34 (18496000)
I0501 07:42:55.968672  6831 net.cpp:139] Memory required for data: 160268000
I0501 07:42:55.968677  6831 layer_factory.hpp:77] Creating layer pool0
I0501 07:42:55.968685  6831 net.cpp:86] Creating Layer pool0
I0501 07:42:55.968689  6831 net.cpp:408] pool0 <- Sigmoid0
I0501 07:42:55.968694  6831 net.cpp:382] pool0 -> pool0
I0501 07:42:55.969852  6831 net.cpp:124] Setting up pool0
I0501 07:42:55.969863  6831 net.cpp:131] Top shape: 1000 16 17 17 (4624000)
I0501 07:42:55.969882  6831 net.cpp:139] Memory required for data: 178764000
I0501 07:42:55.969885  6831 layer_factory.hpp:77] Creating layer ip1
I0501 07:42:55.969898  6831 net.cpp:86] Creating Layer ip1
I0501 07:42:55.969902  6831 net.cpp:408] ip1 <- pool0
I0501 07:42:55.969907  6831 net.cpp:382] ip1 -> ip1
I0501 07:42:55.990062  6831 net.cpp:124] Setting up ip1
I0501 07:42:55.990093  6831 net.cpp:131] Top shape: 1000 160 (160000)
I0501 07:42:55.990097  6831 net.cpp:139] Memory required for data: 179404000
I0501 07:42:55.990106  6831 layer_factory.hpp:77] Creating layer relu1
I0501 07:42:55.990114  6831 net.cpp:86] Creating Layer relu1
I0501 07:42:55.990118  6831 net.cpp:408] relu1 <- ip1
I0501 07:42:55.990123  6831 net.cpp:369] relu1 -> ip1 (in-place)
I0501 07:42:55.990327  6831 net.cpp:124] Setting up relu1
I0501 07:42:55.990336  6831 net.cpp:131] Top shape: 1000 160 (160000)
I0501 07:42:55.990339  6831 net.cpp:139] Memory required for data: 180044000
I0501 07:42:55.990342  6831 layer_factory.hpp:77] Creating layer ip2
I0501 07:42:55.990350  6831 net.cpp:86] Creating Layer ip2
I0501 07:42:55.990352  6831 net.cpp:408] ip2 <- ip1
I0501 07:42:55.990358  6831 net.cpp:382] ip2 -> ip2
I0501 07:42:55.990509  6831 net.cpp:124] Setting up ip2
I0501 07:42:55.990516  6831 net.cpp:131] Top shape: 1000 10 (10000)
I0501 07:42:55.990520  6831 net.cpp:139] Memory required for data: 180084000
I0501 07:42:55.990527  6831 layer_factory.hpp:77] Creating layer relu2
I0501 07:42:55.990535  6831 net.cpp:86] Creating Layer relu2
I0501 07:42:55.990537  6831 net.cpp:408] relu2 <- ip2
I0501 07:42:55.990541  6831 net.cpp:369] relu2 -> ip2 (in-place)
I0501 07:42:55.990697  6831 net.cpp:124] Setting up relu2
I0501 07:42:55.990705  6831 net.cpp:131] Top shape: 1000 10 (10000)
I0501 07:42:55.990708  6831 net.cpp:139] Memory required for data: 180124000
I0501 07:42:55.990710  6831 layer_factory.hpp:77] Creating layer ip3
I0501 07:42:55.990718  6831 net.cpp:86] Creating Layer ip3
I0501 07:42:55.990721  6831 net.cpp:408] ip3 <- ip2
I0501 07:42:55.990725  6831 net.cpp:382] ip3 -> ip3
I0501 07:42:55.990833  6831 net.cpp:124] Setting up ip3
I0501 07:42:55.990840  6831 net.cpp:131] Top shape: 1000 10 (10000)
I0501 07:42:55.990854  6831 net.cpp:139] Memory required for data: 180164000
I0501 07:42:55.990859  6831 layer_factory.hpp:77] Creating layer ip3_ip3_0_split
I0501 07:42:55.990866  6831 net.cpp:86] Creating Layer ip3_ip3_0_split
I0501 07:42:55.990869  6831 net.cpp:408] ip3_ip3_0_split <- ip3
I0501 07:42:55.990873  6831 net.cpp:382] ip3_ip3_0_split -> ip3_ip3_0_split_0
I0501 07:42:55.990878  6831 net.cpp:382] ip3_ip3_0_split -> ip3_ip3_0_split_1
I0501 07:42:55.990911  6831 net.cpp:124] Setting up ip3_ip3_0_split
I0501 07:42:55.990916  6831 net.cpp:131] Top shape: 1000 10 (10000)
I0501 07:42:55.990918  6831 net.cpp:131] Top shape: 1000 10 (10000)
I0501 07:42:55.990921  6831 net.cpp:139] Memory required for data: 180244000
I0501 07:42:55.990923  6831 layer_factory.hpp:77] Creating layer accuracy
I0501 07:42:55.990929  6831 net.cpp:86] Creating Layer accuracy
I0501 07:42:55.990932  6831 net.cpp:408] accuracy <- ip3_ip3_0_split_0
I0501 07:42:55.990936  6831 net.cpp:408] accuracy <- label_cifar_1_split_0
I0501 07:42:55.990942  6831 net.cpp:382] accuracy -> accuracy
…
