…
I0430 17:23:25.561234 19667 net.cpp:296] The NetState phase (0) differed from the phase (1) specified by a rule in layer cifar
I0430 17:23:25.561276 19667 net.cpp:296] The NetState phase (0) differed from the phase (1) specified by a rule in layer accuracy
I0430 17:23:25.561343 19667 net.cpp:53] Initializing net from parameters: 
name: "CIFAR"
state {
  phase: TRAIN
  level: 0
  stage: ""
}
layer {
  name: "cifar"
  type: "Data"
  top: "data"
  top: "label"
  include {
    phase: TRAIN
  }
  transform_param {
    mean_file: "examples/cifar10/mean.binaryproto"
  }
  data_param {
    source: "examples/cifar10/cifar10_train_lmdb"
    batch_size: 111
    backend: LMDB
  }
}
layer {
  name: "ip1"
  type: "InnerProduct"
  bottom: "data"
  top: "ip1"
  param {
    lr_mult: 1
  }
  param {
    lr_mult: 2
  }
  inner_product_param {
    num_output: 10
    weight_filler {
      type: "gaussian"
      std: 0.01
    }
    bias_filler {
      type: "constant"
    }
  }
}
layer {
  name: "relu1"
  type: "ReLU"
  bottom: "ip1"
  top: "ip1"
}
layer {
  name: "ip2"
  type: "InnerProduct"
  bottom: "ip1"
  top: "ip2"
  param {
    lr_mult: 1
  }
  param {
    lr_mult: 2
  }
  inner_product_param {
    num_output: 10
    weight_filler {
      type: "gaussian"
      std: 0.01
    }
    bias_filler {
      type: "constant"
    }
  }
}
layer {
  name: "relu2"
  type: "ReLU"
  bottom: "ip2"
  top: "ip2"
}
layer {
  name: "ip3"
  type: "InnerProduct"
  bottom: "ip2"
  top: "ip3"
  param {
    lr_mult: 1
  }
  param {
    lr_mult: 2
  }
  inner_product_param {
    num_output: 80
    weight_filler {
      type: "gaussian"
      std: 0.01
    }
    bias_filler {
      type: "constant"
    }
  }
}
layer {
  name: "relu3"
  type: "ReLU"
  bottom: "ip3"
  top: "ip3"
}
layer {
  name: "ip4"
  type: "InnerProduct"
  bottom: "ip3"
  top: "ip4"
  param {
    lr_mult: 1
  }
  param {
    lr_mult: 2
  }
  inner_product_param {
    num_output: 10
    weight_filler {
      type: "gaussian"
      std: 0.01
    }
    bias_filler {
      type: "constant"
    }
  }
}
layer {
  name: "loss"
  type: "SoftmaxWithLoss"
  bottom: "ip4"
  bottom: "label"
  top: "loss"
}
I0430 17:23:25.561403 19667 layer_factory.hpp:77] Creating layer cifar
I0430 17:23:25.561481 19667 db_lmdb.cpp:35] Opened lmdb examples/cifar10/cifar10_train_lmdb
I0430 17:23:25.561503 19667 net.cpp:86] Creating Layer cifar
I0430 17:23:25.561511 19667 net.cpp:382] cifar -> data
I0430 17:23:25.561529 19667 net.cpp:382] cifar -> label
I0430 17:23:25.561539 19667 data_transformer.cpp:25] Loading mean file from: examples/cifar10/mean.binaryproto
I0430 17:23:25.563668 19667 data_layer.cpp:45] output data size: 111,3,32,32
I0430 17:23:25.570253 19667 net.cpp:124] Setting up cifar
I0430 17:23:25.570267 19667 net.cpp:131] Top shape: 111 3 32 32 (340992)
I0430 17:23:25.570272 19667 net.cpp:131] Top shape: 111 (111)
I0430 17:23:25.570274 19667 net.cpp:139] Memory required for data: 1364412
I0430 17:23:25.570281 19667 layer_factory.hpp:77] Creating layer ip1
I0430 17:23:25.570305 19667 net.cpp:86] Creating Layer ip1
I0430 17:23:25.570310 19667 net.cpp:408] ip1 <- data
I0430 17:23:25.570318 19667 net.cpp:382] ip1 -> ip1
I0430 17:23:25.572104 19667 net.cpp:124] Setting up ip1
I0430 17:23:25.572116 19667 net.cpp:131] Top shape: 111 10 (1110)
I0430 17:23:25.572119 19667 net.cpp:139] Memory required for data: 1368852
I0430 17:23:25.572144 19667 layer_factory.hpp:77] Creating layer relu1
I0430 17:23:25.572152 19667 net.cpp:86] Creating Layer relu1
I0430 17:23:25.572185 19667 net.cpp:408] relu1 <- ip1
I0430 17:23:25.572190 19667 net.cpp:369] relu1 -> ip1 (in-place)
I0430 17:23:25.797981 19667 net.cpp:124] Setting up relu1
I0430 17:23:25.798007 19667 net.cpp:131] Top shape: 111 10 (1110)
I0430 17:23:25.798012 19667 net.cpp:139] Memory required for data: 1373292
I0430 17:23:25.798017 19667 layer_factory.hpp:77] Creating layer ip2
I0430 17:23:25.798028 19667 net.cpp:86] Creating Layer ip2
I0430 17:23:25.798032 19667 net.cpp:408] ip2 <- ip1
I0430 17:23:25.798040 19667 net.cpp:382] ip2 -> ip2
I0430 17:23:25.798171 19667 net.cpp:124] Setting up ip2
I0430 17:23:25.798178 19667 net.cpp:131] Top shape: 111 10 (1110)
I0430 17:23:25.798182 19667 net.cpp:139] Memory required for data: 1377732
I0430 17:23:25.798190 19667 layer_factory.hpp:77] Creating layer relu2
I0430 17:23:25.798197 19667 net.cpp:86] Creating Layer relu2
I0430 17:23:25.798200 19667 net.cpp:408] relu2 <- ip2
I0430 17:23:25.798204 19667 net.cpp:369] relu2 -> ip2 (in-place)
I0430 17:23:25.798916 19667 net.cpp:124] Setting up relu2
I0430 17:23:25.798928 19667 net.cpp:131] Top shape: 111 10 (1110)
I0430 17:23:25.798946 19667 net.cpp:139] Memory required for data: 1382172
I0430 17:23:25.798949 19667 layer_factory.hpp:77] Creating layer ip3
I0430 17:23:25.798956 19667 net.cpp:86] Creating Layer ip3
I0430 17:23:25.798959 19667 net.cpp:408] ip3 <- ip2
I0430 17:23:25.798964 19667 net.cpp:382] ip3 -> ip3
I0430 17:23:25.799901 19667 net.cpp:124] Setting up ip3
I0430 17:23:25.799912 19667 net.cpp:131] Top shape: 111 80 (8880)
I0430 17:23:25.799932 19667 net.cpp:139] Memory required for data: 1417692
I0430 17:23:25.799938 19667 layer_factory.hpp:77] Creating layer relu3
I0430 17:23:25.799944 19667 net.cpp:86] Creating Layer relu3
I0430 17:23:25.799947 19667 net.cpp:408] relu3 <- ip3
I0430 17:23:25.799952 19667 net.cpp:369] relu3 -> ip3 (in-place)
I0430 17:23:25.800129 19667 net.cpp:124] Setting up relu3
I0430 17:23:25.800137 19667 net.cpp:131] Top shape: 111 80 (8880)
I0430 17:23:25.800140 19667 net.cpp:139] Memory required for data: 1453212
I0430 17:23:25.800143 19667 layer_factory.hpp:77] Creating layer ip4
I0430 17:23:25.800148 19667 net.cpp:86] Creating Layer ip4
I0430 17:23:25.800153 19667 net.cpp:408] ip4 <- ip3
I0430 17:23:25.800158 19667 net.cpp:382] ip4 -> ip4
I0430 17:23:25.800262 19667 net.cpp:124] Setting up ip4
I0430 17:23:25.800269 19667 net.cpp:131] Top shape: 111 10 (1110)
I0430 17:23:25.800272 19667 net.cpp:139] Memory required for data: 1457652
I0430 17:23:25.800277 19667 layer_factory.hpp:77] Creating layer loss
I0430 17:23:25.800283 19667 net.cpp:86] Creating Layer loss
I0430 17:23:25.800287 19667 net.cpp:408] loss <- ip4
I0430 17:23:25.800289 19667 net.cpp:408] loss <- label
I0430 17:23:25.800294 19667 net.cpp:382] loss -> loss
I0430 17:23:25.800312 19667 layer_factory.hpp:77] Creating layer loss
…
I0430 17:23:25.800842 19667 solver.cpp:173] Creating test net (#0) specified by net file: ECE595/cifar/train_test/var_everything/cifar_train_test_33.prototxt
I0430 17:23:25.800894 19667 net.cpp:296] The NetState phase (1) differed from the phase (0) specified by a rule in layer cifar
I0430 17:23:25.800967 19667 net.cpp:53] Initializing net from parameters: 
name: "CIFAR"
state {
  phase: TEST
}
layer {
  name: "cifar"
  type: "Data"
  top: "data"
  top: "label"
  include {
    phase: TEST
  }
  transform_param {
    mean_file: "examples/cifar10/mean.binaryproto"
  }
  data_param {
    source: "examples/cifar10/cifar10_test_lmdb"
    batch_size: 1000
    backend: LMDB
  }
}
layer {
  name: "ip1"
  type: "InnerProduct"
  bottom: "data"
  top: "ip1"
  param {
    lr_mult: 1
  }
  param {
    lr_mult: 2
  }
  inner_product_param {
    num_output: 10
    weight_filler {
      type: "gaussian"
      std: 0.01
    }
    bias_filler {
      type: "constant"
    }
  }
}
layer {
  name: "relu1"
  type: "ReLU"
  bottom: "ip1"
  top: "ip1"
}
layer {
  name: "ip2"
  type: "InnerProduct"
  bottom: "ip1"
  top: "ip2"
  param {
    lr_mult: 1
  }
  param {
    lr_mult: 2
  }
  inner_product_param {
    num_output: 10
    weight_filler {
      type: "gaussian"
      std: 0.01
    }
    bias_filler {
      type: "constant"
    }
  }
}
layer {
  name: "relu2"
  type: "ReLU"
  bottom: "ip2"
  top: "ip2"
}
layer {
  name: "ip3"
  type: "InnerProduct"
  bottom: "ip2"
  top: "ip3"
  param {
    lr_mult: 1
  }
  param {
    lr_mult: 2
  }
  inner_product_param {
    num_output: 80
    weight_filler {
      type: "gaussian"
      std: 0.01
    }
    bias_filler {
      type: "constant"
    }
  }
}
layer {
  name: "relu3"
  type: "ReLU"
  bottom: "ip3"
  top: "ip3"
}
layer {
  name: "ip4"
  type: "InnerProduct"
  bottom: "ip3"
  top: "ip4"
  param {
    lr_mult: 1
  }
  param {
    lr_mult: 2
  }
  inner_product_param {
    num_output: 10
    weight_filler {
      type: "gaussian"
      std: 0.01
    }
    bias_filler {
      type: "constant"
    }
  }
}
layer {
  name: "accuracy"
  type: "Accuracy"
  bottom: "ip4"
  bottom: "label"
  top: "accuracy"
  include {
    phase: TEST
  }
}
layer {
  name: "loss"
  type: "SoftmaxWithLoss"
  bottom: "ip4"
  bottom: "label"
  top: "loss"
}
I0430 17:23:25.801025 19667 layer_factory.hpp:77] Creating layer cifar
I0430 17:23:25.801070 19667 db_lmdb.cpp:35] Opened lmdb examples/cifar10/cifar10_test_lmdb
I0430 17:23:25.801084 19667 net.cpp:86] Creating Layer cifar
I0430 17:23:25.801089 19667 net.cpp:382] cifar -> data
I0430 17:23:25.801095 19667 net.cpp:382] cifar -> label
I0430 17:23:25.801101 19667 data_transformer.cpp:25] Loading mean file from: examples/cifar10/mean.binaryproto
I0430 17:23:25.801250 19667 data_layer.cpp:45] output data size: 1000,3,32,32
I0430 17:23:25.822330 19667 net.cpp:124] Setting up cifar
I0430 17:23:25.822355 19667 net.cpp:131] Top shape: 1000 3 32 32 (3072000)
I0430 17:23:25.822360 19667 net.cpp:131] Top shape: 1000 (1000)
I0430 17:23:25.822363 19667 net.cpp:139] Memory required for data: 12292000
I0430 17:23:25.822368 19667 layer_factory.hpp:77] Creating layer label_cifar_1_split
I0430 17:23:25.822409 19667 net.cpp:86] Creating Layer label_cifar_1_split
I0430 17:23:25.822413 19667 net.cpp:408] label_cifar_1_split <- label
I0430 17:23:25.822419 19667 net.cpp:382] label_cifar_1_split -> label_cifar_1_split_0
I0430 17:23:25.822428 19667 net.cpp:382] label_cifar_1_split -> label_cifar_1_split_1
I0430 17:23:25.822522 19667 net.cpp:124] Setting up label_cifar_1_split
I0430 17:23:25.822530 19667 net.cpp:131] Top shape: 1000 (1000)
I0430 17:23:25.822533 19667 net.cpp:131] Top shape: 1000 (1000)
I0430 17:23:25.822536 19667 net.cpp:139] Memory required for data: 12300000
I0430 17:23:25.822540 19667 layer_factory.hpp:77] Creating layer ip1
I0430 17:23:25.822547 19667 net.cpp:86] Creating Layer ip1
I0430 17:23:25.822551 19667 net.cpp:408] ip1 <- data
I0430 17:23:25.822556 19667 net.cpp:382] ip1 -> ip1
I0430 17:23:25.823529 19667 net.cpp:124] Setting up ip1
I0430 17:23:25.823539 19667 net.cpp:131] Top shape: 1000 10 (10000)
I0430 17:23:25.823541 19667 net.cpp:139] Memory required for data: 12340000
I0430 17:23:25.823580 19667 layer_factory.hpp:77] Creating layer relu1
I0430 17:23:25.823585 19667 net.cpp:86] Creating Layer relu1
I0430 17:23:25.823588 19667 net.cpp:408] relu1 <- ip1
I0430 17:23:25.823592 19667 net.cpp:369] relu1 -> ip1 (in-place)
I0430 17:23:25.824460 19667 net.cpp:124] Setting up relu1
I0430 17:23:25.824471 19667 net.cpp:131] Top shape: 1000 10 (10000)
I0430 17:23:25.824476 19667 net.cpp:139] Memory required for data: 12380000
I0430 17:23:25.824478 19667 layer_factory.hpp:77] Creating layer ip2
I0430 17:23:25.824486 19667 net.cpp:86] Creating Layer ip2
I0430 17:23:25.824504 19667 net.cpp:408] ip2 <- ip1
I0430 17:23:25.824511 19667 net.cpp:382] ip2 -> ip2
I0430 17:23:25.825631 19667 net.cpp:124] Setting up ip2
I0430 17:23:25.825640 19667 net.cpp:131] Top shape: 1000 10 (10000)
I0430 17:23:25.825644 19667 net.cpp:139] Memory required for data: 12420000
I0430 17:23:25.825650 19667 layer_factory.hpp:77] Creating layer relu2
I0430 17:23:25.825655 19667 net.cpp:86] Creating Layer relu2
I0430 17:23:25.825675 19667 net.cpp:408] relu2 <- ip2
I0430 17:23:25.825678 19667 net.cpp:369] relu2 -> ip2 (in-place)
I0430 17:23:25.825825 19667 net.cpp:124] Setting up relu2
I0430 17:23:25.825834 19667 net.cpp:131] Top shape: 1000 10 (10000)
I0430 17:23:25.825836 19667 net.cpp:139] Memory required for data: 12460000
I0430 17:23:25.825839 19667 layer_factory.hpp:77] Creating layer ip3
I0430 17:23:25.825852 19667 net.cpp:86] Creating Layer ip3
I0430 17:23:25.825855 19667 net.cpp:408] ip3 <- ip2
I0430 17:23:25.825860 19667 net.cpp:382] ip3 -> ip3
I0430 17:23:25.825975 19667 net.cpp:124] Setting up ip3
I0430 17:23:25.825983 19667 net.cpp:131] Top shape: 1000 80 (80000)
I0430 17:23:25.825985 19667 net.cpp:139] Memory required for data: 12780000
I0430 17:23:25.825992 19667 layer_factory.hpp:77] Creating layer relu3
I0430 17:23:25.825997 19667 net.cpp:86] Creating Layer relu3
I0430 17:23:25.826000 19667 net.cpp:408] relu3 <- ip3
I0430 17:23:25.826004 19667 net.cpp:369] relu3 -> ip3 (in-place)
I0430 17:23:25.826160 19667 net.cpp:124] Setting up relu3
I0430 17:23:25.826169 19667 net.cpp:131] Top shape: 1000 80 (80000)
I0430 17:23:25.826171 19667 net.cpp:139] Memory required for data: 13100000
I0430 17:23:25.826174 19667 layer_factory.hpp:77] Creating layer ip4
I0430 17:23:25.826189 19667 net.cpp:86] Creating Layer ip4
I0430 17:23:25.826192 19667 net.cpp:408] ip4 <- ip3
I0430 17:23:25.826197 19667 net.cpp:382] ip4 -> ip4
I0430 17:23:25.826313 19667 net.cpp:124] Setting up ip4
I0430 17:23:25.826319 19667 net.cpp:131] Top shape: 1000 10 (10000)
I0430 17:23:25.826323 19667 net.cpp:139] Memory required for data: 13140000
I0430 17:23:25.826328 19667 layer_factory.hpp:77] Creating layer ip4_ip4_0_split
I0430 17:23:25.826333 19667 net.cpp:86] Creating Layer ip4_ip4_0_split
I0430 17:23:25.826349 19667 net.cpp:408] ip4_ip4_0_split <- ip4
I0430 17:23:25.826354 19667 net.cpp:382] ip4_ip4_0_split -> ip4_ip4_0_split_0
I0430 17:23:25.826360 19667 net.cpp:382] ip4_ip4_0_split -> ip4_ip4_0_split_1
I0430 17:23:25.826388 19667 net.cpp:124] Setting up ip4_ip4_0_split
I0430 17:23:25.826393 19667 net.cpp:131] Top shape: 1000 10 (10000)
I0430 17:23:25.826396 19667 net.cpp:131] Top shape: 1000 10 (10000)
I0430 17:23:25.826400 19667 net.cpp:139] Memory required for data: 13220000
I0430 17:23:25.826402 19667 layer_factory.hpp:77] Creating layer accuracy
I0430 17:23:25.826411 19667 net.cpp:86] Creating Layer accuracy
I0430 17:23:25.826414 19667 net.cpp:408] accuracy <- ip4_ip4_0_split_0
I0430 17:23:25.826418 19667 net.cpp:408] accuracy <- label_cifar_1_split_0
I0430 17:23:25.826422 19667 net.cpp:382] accuracy -> accuracy
…
