…
I0430 23:44:35.049401  5495 net.cpp:296] The NetState phase (0) differed from the phase (1) specified by a rule in layer cifar
I0430 23:44:35.049417  5495 net.cpp:296] The NetState phase (0) differed from the phase (1) specified by a rule in layer accuracy
I0430 23:44:35.049525  5495 net.cpp:53] Initializing net from parameters: 
name: "CIFAR"
state {
  phase: TRAIN
  level: 0
  stage: ""
}
layer {
  name: "cifar"
  type: "Data"
  top: "data"
  top: "label"
  include {
    phase: TRAIN
  }
  transform_param {
    mean_file: "examples/cifar10/mean.binaryproto"
  }
  data_param {
    source: "examples/cifar10/cifar10_train_lmdb"
    batch_size: 111
    backend: LMDB
  }
}
layer {
  name: "conv0"
  type: "Convolution"
  bottom: "data"
  top: "conv0"
  param {
    lr_mult: 1
  }
  param {
    lr_mult: 2
  }
  convolution_param {
    num_output: 8
    pad: 2
    kernel_size: 3
    stride: 1
    weight_filler {
      type: "gaussian"
      std: 0.01
    }
    bias_filler {
      type: "constant"
    }
  }
}
layer {
  name: "Sigmoid0"
  type: "Sigmoid"
  bottom: "conv0"
  top: "Sigmoid0"
}
layer {
  name: "pool0"
  type: "Pooling"
  bottom: "Sigmoid0"
  top: "pool0"
  pooling_param {
    pool: AVE
    kernel_size: 3
    stride: 2
  }
}
layer {
  name: "ip1"
  type: "InnerProduct"
  bottom: "pool0"
  top: "ip1"
  param {
    lr_mult: 1
  }
  param {
    lr_mult: 2
  }
  inner_product_param {
    num_output: 40
    weight_filler {
      type: "gaussian"
      std: 0.01
    }
    bias_filler {
      type: "constant"
    }
  }
}
layer {
  name: "relu1"
  type: "ReLU"
  bottom: "ip1"
  top: "ip1"
}
layer {
  name: "ip2"
  type: "InnerProduct"
  bottom: "ip1"
  top: "ip2"
  param {
    lr_mult: 1
  }
  param {
    lr_mult: 2
  }
  inner_product_param {
    num_output: 10
    weight_filler {
      type: "gaussian"
      std: 0.01
    }
    bias_filler {
      type: "constant"
    }
  }
}
layer {
  name: "relu2"
  type: "ReLU"
  bottom: "ip2"
  top: "ip2"
}
layer {
  name: "ip3"
  type: "InnerProduct"
  bottom: "ip2"
  top: "ip3"
  param {
    lr_mult: 1
  }
  param {
    lr_mult: 2
  }
  inner_product_param {
    num_output: 10
    weight_filler {
      type: "gaussian"
      std: 0.01
    }
    bias_filler {
      type: "constant"
    }
  }
}
layer {
  name: "relu3"
  type: "ReLU"
  bottom: "ip3"
  top: "ip3"
}
layer {
  name: "ip4"
  type: "InnerProduct"
  bottom: "ip3"
  top: "ip4"
  param {
    lr_mult: 1
  }
  param {
    lr_mult: 2
  }
  inner_product_param {
    num_output: 10
    weight_filler {
      type: "gaussian"
      std: 0.01
    }
    bias_filler {
      type: "constant"
    }
  }
}
layer {
  name: "loss"
  type: "SoftmaxWithLoss"
  bottom: "ip4"
  bottom: "label"
  top: "loss"
}
I0430 23:44:35.049603  5495 layer_factory.hpp:77] Creating layer cifar
I0430 23:44:35.049700  5495 db_lmdb.cpp:35] Opened lmdb examples/cifar10/cifar10_train_lmdb
I0430 23:44:35.049727  5495 net.cpp:86] Creating Layer cifar
I0430 23:44:35.049736  5495 net.cpp:382] cifar -> data
I0430 23:44:35.049759  5495 net.cpp:382] cifar -> label
I0430 23:44:35.049772  5495 data_transformer.cpp:25] Loading mean file from: examples/cifar10/mean.binaryproto
I0430 23:44:35.051867  5495 data_layer.cpp:45] output data size: 111,3,32,32
I0430 23:44:35.059700  5495 net.cpp:124] Setting up cifar
I0430 23:44:35.059720  5495 net.cpp:131] Top shape: 111 3 32 32 (340992)
I0430 23:44:35.059725  5495 net.cpp:131] Top shape: 111 (111)
I0430 23:44:35.059729  5495 net.cpp:139] Memory required for data: 1364412
I0430 23:44:35.059751  5495 layer_factory.hpp:77] Creating layer conv0
I0430 23:44:35.059773  5495 net.cpp:86] Creating Layer conv0
I0430 23:44:35.059779  5495 net.cpp:408] conv0 <- data
I0430 23:44:35.059790  5495 net.cpp:382] conv0 -> conv0
I0430 23:44:35.333039  5495 net.cpp:124] Setting up conv0
I0430 23:44:35.333065  5495 net.cpp:131] Top shape: 111 8 34 34 (1026528)
I0430 23:44:35.333070  5495 net.cpp:139] Memory required for data: 5470524
I0430 23:44:35.333099  5495 layer_factory.hpp:77] Creating layer Sigmoid0
I0430 23:44:35.333112  5495 net.cpp:86] Creating Layer Sigmoid0
I0430 23:44:35.333115  5495 net.cpp:408] Sigmoid0 <- conv0
I0430 23:44:35.333122  5495 net.cpp:382] Sigmoid0 -> Sigmoid0
I0430 23:44:35.333300  5495 net.cpp:124] Setting up Sigmoid0
I0430 23:44:35.333310  5495 net.cpp:131] Top shape: 111 8 34 34 (1026528)
I0430 23:44:35.333313  5495 net.cpp:139] Memory required for data: 9576636
I0430 23:44:35.333317  5495 layer_factory.hpp:77] Creating layer pool0
I0430 23:44:35.333323  5495 net.cpp:86] Creating Layer pool0
I0430 23:44:35.333325  5495 net.cpp:408] pool0 <- Sigmoid0
I0430 23:44:35.333329  5495 net.cpp:382] pool0 -> pool0
I0430 23:44:35.334019  5495 net.cpp:124] Setting up pool0
I0430 23:44:35.334033  5495 net.cpp:131] Top shape: 111 8 17 17 (256632)
I0430 23:44:35.334035  5495 net.cpp:139] Memory required for data: 10603164
I0430 23:44:35.334039  5495 layer_factory.hpp:77] Creating layer ip1
I0430 23:44:35.334048  5495 net.cpp:86] Creating Layer ip1
I0430 23:44:35.334051  5495 net.cpp:408] ip1 <- pool0
I0430 23:44:35.334055  5495 net.cpp:382] ip1 -> ip1
I0430 23:44:35.336469  5495 net.cpp:124] Setting up ip1
I0430 23:44:35.336478  5495 net.cpp:131] Top shape: 111 40 (4440)
I0430 23:44:35.336482  5495 net.cpp:139] Memory required for data: 10620924
I0430 23:44:35.336488  5495 layer_factory.hpp:77] Creating layer relu1
I0430 23:44:35.336493  5495 net.cpp:86] Creating Layer relu1
I0430 23:44:35.336496  5495 net.cpp:408] relu1 <- ip1
I0430 23:44:35.336500  5495 net.cpp:369] relu1 -> ip1 (in-place)
I0430 23:44:35.336639  5495 net.cpp:124] Setting up relu1
I0430 23:44:35.336647  5495 net.cpp:131] Top shape: 111 40 (4440)
I0430 23:44:35.336650  5495 net.cpp:139] Memory required for data: 10638684
I0430 23:44:35.336653  5495 layer_factory.hpp:77] Creating layer ip2
I0430 23:44:35.336659  5495 net.cpp:86] Creating Layer ip2
I0430 23:44:35.336663  5495 net.cpp:408] ip2 <- ip1
I0430 23:44:35.336666  5495 net.cpp:382] ip2 -> ip2
I0430 23:44:35.337600  5495 net.cpp:124] Setting up ip2
I0430 23:44:35.337612  5495 net.cpp:131] Top shape: 111 10 (1110)
I0430 23:44:35.337616  5495 net.cpp:139] Memory required for data: 10643124
I0430 23:44:35.337623  5495 layer_factory.hpp:77] Creating layer relu2
I0430 23:44:35.337630  5495 net.cpp:86] Creating Layer relu2
I0430 23:44:35.337632  5495 net.cpp:408] relu2 <- ip2
I0430 23:44:35.337636  5495 net.cpp:369] relu2 -> ip2 (in-place)
I0430 23:44:35.337803  5495 net.cpp:124] Setting up relu2
I0430 23:44:35.337811  5495 net.cpp:131] Top shape: 111 10 (1110)
I0430 23:44:35.337815  5495 net.cpp:139] Memory required for data: 10647564
I0430 23:44:35.337817  5495 layer_factory.hpp:77] Creating layer ip3
I0430 23:44:35.337824  5495 net.cpp:86] Creating Layer ip3
I0430 23:44:35.337827  5495 net.cpp:408] ip3 <- ip2
I0430 23:44:35.337832  5495 net.cpp:382] ip3 -> ip3
I0430 23:44:35.337921  5495 net.cpp:124] Setting up ip3
I0430 23:44:35.337929  5495 net.cpp:131] Top shape: 111 10 (1110)
I0430 23:44:35.337931  5495 net.cpp:139] Memory required for data: 10652004
I0430 23:44:35.337936  5495 layer_factory.hpp:77] Creating layer relu3
I0430 23:44:35.337940  5495 net.cpp:86] Creating Layer relu3
I0430 23:44:35.337944  5495 net.cpp:408] relu3 <- ip3
I0430 23:44:35.337947  5495 net.cpp:369] relu3 -> ip3 (in-place)
I0430 23:44:35.338098  5495 net.cpp:124] Setting up relu3
I0430 23:44:35.338105  5495 net.cpp:131] Top shape: 111 10 (1110)
I0430 23:44:35.338107  5495 net.cpp:139] Memory required for data: 10656444
I0430 23:44:35.338110  5495 layer_factory.hpp:77] Creating layer ip4
I0430 23:44:35.338130  5495 net.cpp:86] Creating Layer ip4
I0430 23:44:35.338135  5495 net.cpp:408] ip4 <- ip3
I0430 23:44:35.338138  5495 net.cpp:382] ip4 -> ip4
I0430 23:44:35.338227  5495 net.cpp:124] Setting up ip4
I0430 23:44:35.338233  5495 net.cpp:131] Top shape: 111 10 (1110)
I0430 23:44:35.338237  5495 net.cpp:139] Memory required for data: 10660884
I0430 23:44:35.338243  5495 layer_factory.hpp:77] Creating layer loss
I0430 23:44:35.338248  5495 net.cpp:86] Creating Layer loss
I0430 23:44:35.338251  5495 net.cpp:408] loss <- ip4
I0430 23:44:35.338254  5495 net.cpp:408] loss <- label
I0430 23:44:35.338259  5495 net.cpp:382] loss -> loss
I0430 23:44:35.338275  5495 layer_factory.hpp:77] Creating layer loss
…
I0430 23:44:35.339429  5495 solver.cpp:173] Creating test net (#0) specified by net file: ECE595/cifar/train_test/var_everything/cifar_train_test_235.prototxt
I0430 23:44:35.339455  5495 net.cpp:296] The NetState phase (1) differed from the phase (0) specified by a rule in layer cifar
I0430 23:44:35.339560  5495 net.cpp:53] Initializing net from parameters: 
name: "CIFAR"
state {
  phase: TEST
}
layer {
  name: "cifar"
  type: "Data"
  top: "data"
  top: "label"
  include {
    phase: TEST
  }
  transform_param {
    mean_file: "examples/cifar10/mean.binaryproto"
  }
  data_param {
    source: "examples/cifar10/cifar10_test_lmdb"
    batch_size: 1000
    backend: LMDB
  }
}
layer {
  name: "conv0"
  type: "Convolution"
  bottom: "data"
  top: "conv0"
  param {
    lr_mult: 1
  }
  param {
    lr_mult: 2
  }
  convolution_param {
    num_output: 8
    pad: 2
    kernel_size: 3
    stride: 1
    weight_filler {
      type: "gaussian"
      std: 0.01
    }
    bias_filler {
      type: "constant"
    }
  }
}
layer {
  name: "Sigmoid0"
  type: "Sigmoid"
  bottom: "conv0"
  top: "Sigmoid0"
}
layer {
  name: "pool0"
  type: "Pooling"
  bottom: "Sigmoid0"
  top: "pool0"
  pooling_param {
    pool: AVE
    kernel_size: 3
    stride: 2
  }
}
layer {
  name: "ip1"
  type: "InnerProduct"
  bottom: "pool0"
  top: "ip1"
  param {
    lr_mult: 1
  }
  param {
    lr_mult: 2
  }
  inner_product_param {
    num_output: 40
    weight_filler {
      type: "gaussian"
      std: 0.01
    }
    bias_filler {
      type: "constant"
    }
  }
}
layer {
  name: "relu1"
  type: "ReLU"
  bottom: "ip1"
  top: "ip1"
}
layer {
  name: "ip2"
  type: "InnerProduct"
  bottom: "ip1"
  top: "ip2"
  param {
    lr_mult: 1
  }
  param {
    lr_mult: 2
  }
  inner_product_param {
    num_output: 10
    weight_filler {
      type: "gaussian"
      std: 0.01
    }
    bias_filler {
      type: "constant"
    }
  }
}
layer {
  name: "relu2"
  type: "ReLU"
  bottom: "ip2"
  top: "ip2"
}
layer {
  name: "ip3"
  type: "InnerProduct"
  bottom: "ip2"
  top: "ip3"
  param {
    lr_mult: 1
  }
  param {
    lr_mult: 2
  }
  inner_product_param {
    num_output: 10
    weight_filler {
      type: "gaussian"
      std: 0.01
    }
    bias_filler {
      type: "constant"
    }
  }
}
layer {
  name: "relu3"
  type: "ReLU"
  bottom: "ip3"
  top: "ip3"
}
layer {
  name: "ip4"
  type: "InnerProduct"
  bottom: "ip3"
  top: "ip4"
  param {
    lr_mult: 1
  }
  param {
    lr_mult: 2
  }
  inner_product_param {
    num_output: 10
    weight_filler {
      type: "gaussian"
      std: 0.01
    }
    bias_filler {
      type: "constant"
    }
  }
}
layer {
  name: "accuracy"
  type: "Accuracy"
  bottom: "ip4"
  bottom: "label"
  top: "accuracy"
  include {
    phase: TEST
  }
}
layer {
  name: "loss"
  type: "SoftmaxWithLoss"
  bottom: "ip4"
  bottom: "label"
  top: "loss"
}
I0430 23:44:35.339640  5495 layer_factory.hpp:77] Creating layer cifar
I0430 23:44:35.339684  5495 db_lmdb.cpp:35] Opened lmdb examples/cifar10/cifar10_test_lmdb
I0430 23:44:35.339696  5495 net.cpp:86] Creating Layer cifar
I0430 23:44:35.339701  5495 net.cpp:382] cifar -> data
I0430 23:44:35.339709  5495 net.cpp:382] cifar -> label
I0430 23:44:35.339715  5495 data_transformer.cpp:25] Loading mean file from: examples/cifar10/mean.binaryproto
I0430 23:44:35.339854  5495 data_layer.cpp:45] output data size: 1000,3,32,32
I0430 23:44:35.362062  5495 net.cpp:124] Setting up cifar
I0430 23:44:35.362100  5495 net.cpp:131] Top shape: 1000 3 32 32 (3072000)
I0430 23:44:35.362134  5495 net.cpp:131] Top shape: 1000 (1000)
I0430 23:44:35.362138  5495 net.cpp:139] Memory required for data: 12292000
I0430 23:44:35.362144  5495 layer_factory.hpp:77] Creating layer label_cifar_1_split
I0430 23:44:35.362161  5495 net.cpp:86] Creating Layer label_cifar_1_split
I0430 23:44:35.362165  5495 net.cpp:408] label_cifar_1_split <- label
I0430 23:44:35.362171  5495 net.cpp:382] label_cifar_1_split -> label_cifar_1_split_0
I0430 23:44:35.362180  5495 net.cpp:382] label_cifar_1_split -> label_cifar_1_split_1
I0430 23:44:35.362274  5495 net.cpp:124] Setting up label_cifar_1_split
I0430 23:44:35.362282  5495 net.cpp:131] Top shape: 1000 (1000)
I0430 23:44:35.362287  5495 net.cpp:131] Top shape: 1000 (1000)
I0430 23:44:35.362288  5495 net.cpp:139] Memory required for data: 12300000
I0430 23:44:35.362293  5495 layer_factory.hpp:77] Creating layer conv0
I0430 23:44:35.362305  5495 net.cpp:86] Creating Layer conv0
I0430 23:44:35.362308  5495 net.cpp:408] conv0 <- data
I0430 23:44:35.362314  5495 net.cpp:382] conv0 -> conv0
I0430 23:44:35.364754  5495 net.cpp:124] Setting up conv0
I0430 23:44:35.364768  5495 net.cpp:131] Top shape: 1000 8 34 34 (9248000)
I0430 23:44:35.364773  5495 net.cpp:139] Memory required for data: 49292000
I0430 23:44:35.364797  5495 layer_factory.hpp:77] Creating layer Sigmoid0
I0430 23:44:35.364804  5495 net.cpp:86] Creating Layer Sigmoid0
I0430 23:44:35.364807  5495 net.cpp:408] Sigmoid0 <- conv0
I0430 23:44:35.364835  5495 net.cpp:382] Sigmoid0 -> Sigmoid0
I0430 23:44:35.365043  5495 net.cpp:124] Setting up Sigmoid0
I0430 23:44:35.365056  5495 net.cpp:131] Top shape: 1000 8 34 34 (9248000)
I0430 23:44:35.365059  5495 net.cpp:139] Memory required for data: 86284000
I0430 23:44:35.365063  5495 layer_factory.hpp:77] Creating layer pool0
I0430 23:44:35.365070  5495 net.cpp:86] Creating Layer pool0
I0430 23:44:35.365073  5495 net.cpp:408] pool0 <- Sigmoid0
I0430 23:44:35.365078  5495 net.cpp:382] pool0 -> pool0
I0430 23:44:35.365291  5495 net.cpp:124] Setting up pool0
I0430 23:44:35.365299  5495 net.cpp:131] Top shape: 1000 8 17 17 (2312000)
I0430 23:44:35.365303  5495 net.cpp:139] Memory required for data: 95532000
I0430 23:44:35.365305  5495 layer_factory.hpp:77] Creating layer ip1
I0430 23:44:35.365312  5495 net.cpp:86] Creating Layer ip1
I0430 23:44:35.365316  5495 net.cpp:408] ip1 <- pool0
I0430 23:44:35.365321  5495 net.cpp:382] ip1 -> ip1
I0430 23:44:35.368197  5495 net.cpp:124] Setting up ip1
I0430 23:44:35.368207  5495 net.cpp:131] Top shape: 1000 40 (40000)
I0430 23:44:35.368211  5495 net.cpp:139] Memory required for data: 95692000
I0430 23:44:35.368237  5495 layer_factory.hpp:77] Creating layer relu1
I0430 23:44:35.368243  5495 net.cpp:86] Creating Layer relu1
I0430 23:44:35.368247  5495 net.cpp:408] relu1 <- ip1
I0430 23:44:35.368250  5495 net.cpp:369] relu1 -> ip1 (in-place)
I0430 23:44:35.368422  5495 net.cpp:124] Setting up relu1
I0430 23:44:35.368432  5495 net.cpp:131] Top shape: 1000 40 (40000)
I0430 23:44:35.368434  5495 net.cpp:139] Memory required for data: 95852000
I0430 23:44:35.368438  5495 layer_factory.hpp:77] Creating layer ip2
I0430 23:44:35.368444  5495 net.cpp:86] Creating Layer ip2
I0430 23:44:35.368448  5495 net.cpp:408] ip2 <- ip1
I0430 23:44:35.368453  5495 net.cpp:382] ip2 -> ip2
I0430 23:44:35.368583  5495 net.cpp:124] Setting up ip2
I0430 23:44:35.368590  5495 net.cpp:131] Top shape: 1000 10 (10000)
I0430 23:44:35.368593  5495 net.cpp:139] Memory required for data: 95892000
I0430 23:44:35.368600  5495 layer_factory.hpp:77] Creating layer relu2
I0430 23:44:35.368609  5495 net.cpp:86] Creating Layer relu2
I0430 23:44:35.368613  5495 net.cpp:408] relu2 <- ip2
I0430 23:44:35.368616  5495 net.cpp:369] relu2 -> ip2 (in-place)
I0430 23:44:35.369438  5495 net.cpp:124] Setting up relu2
I0430 23:44:35.369451  5495 net.cpp:131] Top shape: 1000 10 (10000)
I0430 23:44:35.369469  5495 net.cpp:139] Memory required for data: 95932000
I0430 23:44:35.369472  5495 layer_factory.hpp:77] Creating layer ip3
I0430 23:44:35.369480  5495 net.cpp:86] Creating Layer ip3
I0430 23:44:35.369483  5495 net.cpp:408] ip3 <- ip2
I0430 23:44:35.369490  5495 net.cpp:382] ip3 -> ip3
I0430 23:44:35.369616  5495 net.cpp:124] Setting up ip3
I0430 23:44:35.369626  5495 net.cpp:131] Top shape: 1000 10 (10000)
I0430 23:44:35.369628  5495 net.cpp:139] Memory required for data: 95972000
I0430 23:44:35.369633  5495 layer_factory.hpp:77] Creating layer relu3
I0430 23:44:35.369638  5495 net.cpp:86] Creating Layer relu3
I0430 23:44:35.369642  5495 net.cpp:408] relu3 <- ip3
I0430 23:44:35.369647  5495 net.cpp:369] relu3 -> ip3 (in-place)
I0430 23:44:35.369801  5495 net.cpp:124] Setting up relu3
I0430 23:44:35.369808  5495 net.cpp:131] Top shape: 1000 10 (10000)
I0430 23:44:35.369812  5495 net.cpp:139] Memory required for data: 96012000
I0430 23:44:35.369814  5495 layer_factory.hpp:77] Creating layer ip4
I0430 23:44:35.369822  5495 net.cpp:86] Creating Layer ip4
I0430 23:44:35.369824  5495 net.cpp:408] ip4 <- ip3
I0430 23:44:35.369828  5495 net.cpp:382] ip4 -> ip4
I0430 23:44:35.369932  5495 net.cpp:124] Setting up ip4
I0430 23:44:35.369940  5495 net.cpp:131] Top shape: 1000 10 (10000)
I0430 23:44:35.369942  5495 net.cpp:139] Memory required for data: 96052000
I0430 23:44:35.369951  5495 layer_factory.hpp:77] Creating layer ip4_ip4_0_split
I0430 23:44:35.369957  5495 net.cpp:86] Creating Layer ip4_ip4_0_split
I0430 23:44:35.369961  5495 net.cpp:408] ip4_ip4_0_split <- ip4
I0430 23:44:35.369964  5495 net.cpp:382] ip4_ip4_0_split -> ip4_ip4_0_split_0
I0430 23:44:35.369971  5495 net.cpp:382] ip4_ip4_0_split -> ip4_ip4_0_split_1
I0430 23:44:35.370000  5495 net.cpp:124] Setting up ip4_ip4_0_split
I0430 23:44:35.370005  5495 net.cpp:131] Top shape: 1000 10 (10000)
I0430 23:44:35.370008  5495 net.cpp:131] Top shape: 1000 10 (10000)
I0430 23:44:35.370012  5495 net.cpp:139] Memory required for data: 96132000
I0430 23:44:35.370014  5495 layer_factory.hpp:77] Creating layer accuracy
I0430 23:44:35.370021  5495 net.cpp:86] Creating Layer accuracy
I0430 23:44:35.370024  5495 net.cpp:408] accuracy <- ip4_ip4_0_split_0
I0430 23:44:35.370028  5495 net.cpp:408] accuracy <- label_cifar_1_split_0
I0430 23:44:35.370033  5495 net.cpp:382] accuracy -> accuracy
…
