…
I0430 17:10:21.137744 19009 net.cpp:296] The NetState phase (0) differed from the phase (1) specified by a rule in layer cifar
I0430 17:10:21.137759 19009 net.cpp:296] The NetState phase (0) differed from the phase (1) specified by a rule in layer accuracy
I0430 17:10:21.137832 19009 net.cpp:53] Initializing net from parameters: 
name: "CIFAR"
state {
  phase: TRAIN
  level: 0
  stage: ""
}
layer {
  name: "cifar"
  type: "Data"
  top: "data"
  top: "label"
  include {
    phase: TRAIN
  }
  transform_param {
    mean_file: "examples/cifar10/mean.binaryproto"
  }
  data_param {
    source: "examples/cifar10/cifar10_train_lmdb"
    batch_size: 111
    backend: LMDB
  }
}
layer {
  name: "ip1"
  type: "InnerProduct"
  bottom: "data"
  top: "ip1"
  param {
    lr_mult: 1
  }
  param {
    lr_mult: 2
  }
  inner_product_param {
    num_output: 160
    weight_filler {
      type: "gaussian"
      std: 0.01
    }
    bias_filler {
      type: "constant"
    }
  }
}
layer {
  name: "relu1"
  type: "ReLU"
  bottom: "ip1"
  top: "ip1"
}
layer {
  name: "ip2"
  type: "InnerProduct"
  bottom: "ip1"
  top: "ip2"
  param {
    lr_mult: 1
  }
  param {
    lr_mult: 2
  }
  inner_product_param {
    num_output: 20
    weight_filler {
      type: "gaussian"
      std: 0.01
    }
    bias_filler {
      type: "constant"
    }
  }
}
layer {
  name: "relu2"
  type: "ReLU"
  bottom: "ip2"
  top: "ip2"
}
layer {
  name: "ip3"
  type: "InnerProduct"
  bottom: "ip2"
  top: "ip3"
  param {
    lr_mult: 1
  }
  param {
    lr_mult: 2
  }
  inner_product_param {
    num_output: 10
    weight_filler {
      type: "gaussian"
      std: 0.01
    }
    bias_filler {
      type: "constant"
    }
  }
}
layer {
  name: "loss"
  type: "SoftmaxWithLoss"
  bottom: "ip3"
  bottom: "label"
  top: "loss"
}
I0430 17:10:21.137890 19009 layer_factory.hpp:77] Creating layer cifar
I0430 17:10:21.137989 19009 db_lmdb.cpp:35] Opened lmdb examples/cifar10/cifar10_train_lmdb
I0430 17:10:21.138015 19009 net.cpp:86] Creating Layer cifar
I0430 17:10:21.138023 19009 net.cpp:382] cifar -> data
I0430 17:10:21.138046 19009 net.cpp:382] cifar -> label
I0430 17:10:21.138057 19009 data_transformer.cpp:25] Loading mean file from: examples/cifar10/mean.binaryproto
I0430 17:10:21.140193 19009 data_layer.cpp:45] output data size: 111,3,32,32
I0430 17:10:21.148092 19009 net.cpp:124] Setting up cifar
I0430 17:10:21.148111 19009 net.cpp:131] Top shape: 111 3 32 32 (340992)
I0430 17:10:21.148118 19009 net.cpp:131] Top shape: 111 (111)
I0430 17:10:21.148123 19009 net.cpp:139] Memory required for data: 1364412
I0430 17:10:21.148129 19009 layer_factory.hpp:77] Creating layer ip1
I0430 17:10:21.148140 19009 net.cpp:86] Creating Layer ip1
I0430 17:10:21.148146 19009 net.cpp:408] ip1 <- data
I0430 17:10:21.148157 19009 net.cpp:382] ip1 -> ip1
I0430 17:10:21.167827 19009 net.cpp:124] Setting up ip1
I0430 17:10:21.167845 19009 net.cpp:131] Top shape: 111 160 (17760)
I0430 17:10:21.167848 19009 net.cpp:139] Memory required for data: 1435452
I0430 17:10:21.167862 19009 layer_factory.hpp:77] Creating layer relu1
I0430 17:10:21.167871 19009 net.cpp:86] Creating Layer relu1
I0430 17:10:21.167876 19009 net.cpp:408] relu1 <- ip1
I0430 17:10:21.167881 19009 net.cpp:369] relu1 -> ip1 (in-place)
I0430 17:10:21.433341 19009 net.cpp:124] Setting up relu1
I0430 17:10:21.433383 19009 net.cpp:131] Top shape: 111 160 (17760)
I0430 17:10:21.433387 19009 net.cpp:139] Memory required for data: 1506492
I0430 17:10:21.433411 19009 layer_factory.hpp:77] Creating layer ip2
I0430 17:10:21.433424 19009 net.cpp:86] Creating Layer ip2
I0430 17:10:21.433444 19009 net.cpp:408] ip2 <- ip1
I0430 17:10:21.433451 19009 net.cpp:382] ip2 -> ip2
I0430 17:10:21.433678 19009 net.cpp:124] Setting up ip2
I0430 17:10:21.433687 19009 net.cpp:131] Top shape: 111 20 (2220)
I0430 17:10:21.433691 19009 net.cpp:139] Memory required for data: 1515372
I0430 17:10:21.433699 19009 layer_factory.hpp:77] Creating layer relu2
I0430 17:10:21.433724 19009 net.cpp:86] Creating Layer relu2
I0430 17:10:21.433727 19009 net.cpp:408] relu2 <- ip2
I0430 17:10:21.433732 19009 net.cpp:369] relu2 -> ip2 (in-place)
I0430 17:10:21.434510 19009 net.cpp:124] Setting up relu2
I0430 17:10:21.434522 19009 net.cpp:131] Top shape: 111 20 (2220)
I0430 17:10:21.434541 19009 net.cpp:139] Memory required for data: 1524252
I0430 17:10:21.434545 19009 layer_factory.hpp:77] Creating layer ip3
I0430 17:10:21.434567 19009 net.cpp:86] Creating Layer ip3
I0430 17:10:21.434571 19009 net.cpp:408] ip3 <- ip2
I0430 17:10:21.434576 19009 net.cpp:382] ip3 -> ip3
I0430 17:10:21.434691 19009 net.cpp:124] Setting up ip3
I0430 17:10:21.434700 19009 net.cpp:131] Top shape: 111 10 (1110)
I0430 17:10:21.434702 19009 net.cpp:139] Memory required for data: 1528692
I0430 17:10:21.434710 19009 layer_factory.hpp:77] Creating layer loss
I0430 17:10:21.434718 19009 net.cpp:86] Creating Layer loss
I0430 17:10:21.434737 19009 net.cpp:408] loss <- ip3
I0430 17:10:21.434741 19009 net.cpp:408] loss <- label
I0430 17:10:21.434746 19009 net.cpp:382] loss -> loss
I0430 17:10:21.434765 19009 layer_factory.hpp:77] Creating layer loss
…
I0430 17:10:21.435298 19009 solver.cpp:173] Creating test net (#0) specified by net file: ECE595/cifar/train_test/var_everything/cifar_train_test_26.prototxt
I0430 17:10:21.435319 19009 net.cpp:296] The NetState phase (1) differed from the phase (0) specified by a rule in layer cifar
I0430 17:10:21.435385 19009 net.cpp:53] Initializing net from parameters: 
name: "CIFAR"
state {
  phase: TEST
}
layer {
  name: "cifar"
  type: "Data"
  top: "data"
  top: "label"
  include {
    phase: TEST
  }
  transform_param {
    mean_file: "examples/cifar10/mean.binaryproto"
  }
  data_param {
    source: "examples/cifar10/cifar10_test_lmdb"
    batch_size: 1000
    backend: LMDB
  }
}
layer {
  name: "ip1"
  type: "InnerProduct"
  bottom: "data"
  top: "ip1"
  param {
    lr_mult: 1
  }
  param {
    lr_mult: 2
  }
  inner_product_param {
    num_output: 160
    weight_filler {
      type: "gaussian"
      std: 0.01
    }
    bias_filler {
      type: "constant"
    }
  }
}
layer {
  name: "relu1"
  type: "ReLU"
  bottom: "ip1"
  top: "ip1"
}
layer {
  name: "ip2"
  type: "InnerProduct"
  bottom: "ip1"
  top: "ip2"
  param {
    lr_mult: 1
  }
  param {
    lr_mult: 2
  }
  inner_product_param {
    num_output: 20
    weight_filler {
      type: "gaussian"
      std: 0.01
    }
    bias_filler {
      type: "constant"
    }
  }
}
layer {
  name: "relu2"
  type: "ReLU"
  bottom: "ip2"
  top: "ip2"
}
layer {
  name: "ip3"
  type: "InnerProduct"
  bottom: "ip2"
  top: "ip3"
  param {
    lr_mult: 1
  }
  param {
    lr_mult: 2
  }
  inner_product_param {
    num_output: 10
    weight_filler {
      type: "gaussian"
      std: 0.01
    }
    bias_filler {
      type: "constant"
    }
  }
}
layer {
  name: "accuracy"
  type: "Accuracy"
  bottom: "ip3"
  bottom: "label"
  top: "accuracy"
  include {
    phase: TEST
  }
}
layer {
  name: "loss"
  type: "SoftmaxWithLoss"
  bottom: "ip3"
  bottom: "label"
  top: "loss"
}
I0430 17:10:21.435447 19009 layer_factory.hpp:77] Creating layer cifar
I0430 17:10:21.435490 19009 db_lmdb.cpp:35] Opened lmdb examples/cifar10/cifar10_test_lmdb
I0430 17:10:21.435503 19009 net.cpp:86] Creating Layer cifar
I0430 17:10:21.435508 19009 net.cpp:382] cifar -> data
I0430 17:10:21.435514 19009 net.cpp:382] cifar -> label
I0430 17:10:21.435520 19009 data_transformer.cpp:25] Loading mean file from: examples/cifar10/mean.binaryproto
I0430 17:10:21.435672 19009 data_layer.cpp:45] output data size: 1000,3,32,32
I0430 17:10:21.458760 19009 net.cpp:124] Setting up cifar
I0430 17:10:21.458803 19009 net.cpp:131] Top shape: 1000 3 32 32 (3072000)
I0430 17:10:21.458809 19009 net.cpp:131] Top shape: 1000 (1000)
I0430 17:10:21.458812 19009 net.cpp:139] Memory required for data: 12292000
I0430 17:10:21.458818 19009 layer_factory.hpp:77] Creating layer label_cifar_1_split
I0430 17:10:21.458851 19009 net.cpp:86] Creating Layer label_cifar_1_split
I0430 17:10:21.458855 19009 net.cpp:408] label_cifar_1_split <- label
I0430 17:10:21.458863 19009 net.cpp:382] label_cifar_1_split -> label_cifar_1_split_0
I0430 17:10:21.458873 19009 net.cpp:382] label_cifar_1_split -> label_cifar_1_split_1
I0430 17:10:21.458940 19009 net.cpp:124] Setting up label_cifar_1_split
I0430 17:10:21.458946 19009 net.cpp:131] Top shape: 1000 (1000)
I0430 17:10:21.458950 19009 net.cpp:131] Top shape: 1000 (1000)
I0430 17:10:21.458953 19009 net.cpp:139] Memory required for data: 12300000
I0430 17:10:21.458956 19009 layer_factory.hpp:77] Creating layer ip1
I0430 17:10:21.458966 19009 net.cpp:86] Creating Layer ip1
I0430 17:10:21.458969 19009 net.cpp:408] ip1 <- data
I0430 17:10:21.458974 19009 net.cpp:382] ip1 -> ip1
I0430 17:10:21.473230 19009 net.cpp:124] Setting up ip1
I0430 17:10:21.473261 19009 net.cpp:131] Top shape: 1000 160 (160000)
I0430 17:10:21.473265 19009 net.cpp:139] Memory required for data: 12940000
I0430 17:10:21.473275 19009 layer_factory.hpp:77] Creating layer relu1
I0430 17:10:21.473282 19009 net.cpp:86] Creating Layer relu1
I0430 17:10:21.473301 19009 net.cpp:408] relu1 <- ip1
I0430 17:10:21.473306 19009 net.cpp:369] relu1 -> ip1 (in-place)
I0430 17:10:21.473505 19009 net.cpp:124] Setting up relu1
I0430 17:10:21.473513 19009 net.cpp:131] Top shape: 1000 160 (160000)
I0430 17:10:21.473516 19009 net.cpp:139] Memory required for data: 13580000
I0430 17:10:21.473520 19009 layer_factory.hpp:77] Creating layer ip2
I0430 17:10:21.473528 19009 net.cpp:86] Creating Layer ip2
I0430 17:10:21.473531 19009 net.cpp:408] ip2 <- ip1
I0430 17:10:21.473536 19009 net.cpp:382] ip2 -> ip2
I0430 17:10:21.473719 19009 net.cpp:124] Setting up ip2
I0430 17:10:21.473726 19009 net.cpp:131] Top shape: 1000 20 (20000)
I0430 17:10:21.473729 19009 net.cpp:139] Memory required for data: 13660000
I0430 17:10:21.473737 19009 layer_factory.hpp:77] Creating layer relu2
I0430 17:10:21.473742 19009 net.cpp:86] Creating Layer relu2
I0430 17:10:21.473747 19009 net.cpp:408] relu2 <- ip2
I0430 17:10:21.473752 19009 net.cpp:369] relu2 -> ip2 (in-place)
I0430 17:10:21.474545 19009 net.cpp:124] Setting up relu2
I0430 17:10:21.474556 19009 net.cpp:131] Top shape: 1000 20 (20000)
I0430 17:10:21.474576 19009 net.cpp:139] Memory required for data: 13740000
I0430 17:10:21.474580 19009 layer_factory.hpp:77] Creating layer ip3
I0430 17:10:21.474586 19009 net.cpp:86] Creating Layer ip3
I0430 17:10:21.474589 19009 net.cpp:408] ip3 <- ip2
I0430 17:10:21.474611 19009 net.cpp:382] ip3 -> ip3
I0430 17:10:21.474719 19009 net.cpp:124] Setting up ip3
I0430 17:10:21.474725 19009 net.cpp:131] Top shape: 1000 10 (10000)
I0430 17:10:21.474728 19009 net.cpp:139] Memory required for data: 13780000
I0430 17:10:21.474753 19009 layer_factory.hpp:77] Creating layer ip3_ip3_0_split
I0430 17:10:21.474761 19009 net.cpp:86] Creating Layer ip3_ip3_0_split
I0430 17:10:21.474763 19009 net.cpp:408] ip3_ip3_0_split <- ip3
I0430 17:10:21.474768 19009 net.cpp:382] ip3_ip3_0_split -> ip3_ip3_0_split_0
I0430 17:10:21.474773 19009 net.cpp:382] ip3_ip3_0_split -> ip3_ip3_0_split_1
I0430 17:10:21.474807 19009 net.cpp:124] Setting up ip3_ip3_0_split
I0430 17:10:21.474812 19009 net.cpp:131] Top shape: 1000 10 (10000)
I0430 17:10:21.474817 19009 net.cpp:131] Top shape: 1000 10 (10000)
I0430 17:10:21.474819 19009 net.cpp:139] Memory required for data: 13860000
I0430 17:10:21.474822 19009 layer_factory.hpp:77] Creating layer accuracy
I0430 17:10:21.474828 19009 net.cpp:86] Creating Layer accuracy
I0430 17:10:21.474831 19009 net.cpp:408] accuracy <- ip3_ip3_0_split_0
I0430 17:10:21.474835 19009 net.cpp:408] accuracy <- label_cifar_1_split_0
I0430 17:10:21.474840 19009 net.cpp:382] accuracy -> accuracy
…
