…
I0501 00:57:35.055333  8616 net.cpp:296] The NetState phase (0) differed from the phase (1) specified by a rule in layer cifar
I0501 00:57:35.055352  8616 net.cpp:296] The NetState phase (0) differed from the phase (1) specified by a rule in layer accuracy
I0501 00:57:35.055457  8616 net.cpp:53] Initializing net from parameters: 
name: "CIFAR"
state {
  phase: TRAIN
  level: 0
  stage: ""
}
layer {
  name: "cifar"
  type: "Data"
  top: "data"
  top: "label"
  include {
    phase: TRAIN
  }
  transform_param {
    mean_file: "examples/cifar10/mean.binaryproto"
  }
  data_param {
    source: "examples/cifar10/cifar10_train_lmdb"
    batch_size: 111
    backend: LMDB
  }
}
layer {
  name: "conv0"
  type: "Convolution"
  bottom: "data"
  top: "conv0"
  param {
    lr_mult: 1
  }
  param {
    lr_mult: 2
  }
  convolution_param {
    num_output: 8
    pad: 2
    kernel_size: 3
    stride: 1
    weight_filler {
      type: "gaussian"
      std: 0.01
    }
    bias_filler {
      type: "constant"
    }
  }
}
layer {
  name: "Sigmoid0"
  type: "Sigmoid"
  bottom: "conv0"
  top: "Sigmoid0"
}
layer {
  name: "pool0"
  type: "Pooling"
  bottom: "Sigmoid0"
  top: "pool0"
  pooling_param {
    pool: AVE
    kernel_size: 3
    stride: 2
  }
}
layer {
  name: "ip1"
  type: "InnerProduct"
  bottom: "pool0"
  top: "ip1"
  param {
    lr_mult: 1
  }
  param {
    lr_mult: 2
  }
  inner_product_param {
    num_output: 80
    weight_filler {
      type: "gaussian"
      std: 0.01
    }
    bias_filler {
      type: "constant"
    }
  }
}
layer {
  name: "relu1"
  type: "ReLU"
  bottom: "ip1"
  top: "ip1"
}
layer {
  name: "ip2"
  type: "InnerProduct"
  bottom: "ip1"
  top: "ip2"
  param {
    lr_mult: 1
  }
  param {
    lr_mult: 2
  }
  inner_product_param {
    num_output: 40
    weight_filler {
      type: "gaussian"
      std: 0.01
    }
    bias_filler {
      type: "constant"
    }
  }
}
layer {
  name: "relu2"
  type: "ReLU"
  bottom: "ip2"
  top: "ip2"
}
layer {
  name: "ip3"
  type: "InnerProduct"
  bottom: "ip2"
  top: "ip3"
  param {
    lr_mult: 1
  }
  param {
    lr_mult: 2
  }
  inner_product_param {
    num_output: 160
    weight_filler {
      type: "gaussian"
      std: 0.01
    }
    bias_filler {
      type: "constant"
    }
  }
}
layer {
  name: "relu3"
  type: "ReLU"
  bottom: "ip3"
  top: "ip3"
}
layer {
  name: "ip4"
  type: "InnerProduct"
  bottom: "ip3"
  top: "ip4"
  param {
    lr_mult: 1
  }
  param {
    lr_mult: 2
  }
  inner_product_param {
    num_output: 10
    weight_filler {
      type: "gaussian"
      std: 0.01
    }
    bias_filler {
      type: "constant"
    }
  }
}
layer {
  name: "loss"
  type: "SoftmaxWithLoss"
  bottom: "ip4"
  bottom: "label"
  top: "loss"
}
I0501 00:57:35.055536  8616 layer_factory.hpp:77] Creating layer cifar
I0501 00:57:35.055646  8616 db_lmdb.cpp:35] Opened lmdb examples/cifar10/cifar10_train_lmdb
I0501 00:57:35.055673  8616 net.cpp:86] Creating Layer cifar
I0501 00:57:35.055682  8616 net.cpp:382] cifar -> data
I0501 00:57:35.055704  8616 net.cpp:382] cifar -> label
I0501 00:57:35.055716  8616 data_transformer.cpp:25] Loading mean file from: examples/cifar10/mean.binaryproto
I0501 00:57:35.057821  8616 data_layer.cpp:45] output data size: 111,3,32,32
I0501 00:57:35.065722  8616 net.cpp:124] Setting up cifar
I0501 00:57:35.065743  8616 net.cpp:131] Top shape: 111 3 32 32 (340992)
I0501 00:57:35.065750  8616 net.cpp:131] Top shape: 111 (111)
I0501 00:57:35.065753  8616 net.cpp:139] Memory required for data: 1364412
I0501 00:57:35.065778  8616 layer_factory.hpp:77] Creating layer conv0
I0501 00:57:35.065799  8616 net.cpp:86] Creating Layer conv0
I0501 00:57:35.065812  8616 net.cpp:408] conv0 <- data
I0501 00:57:35.065829  8616 net.cpp:382] conv0 -> conv0
I0501 00:57:35.351125  8616 net.cpp:124] Setting up conv0
I0501 00:57:35.351153  8616 net.cpp:131] Top shape: 111 8 34 34 (1026528)
I0501 00:57:35.351157  8616 net.cpp:139] Memory required for data: 5470524
I0501 00:57:35.351172  8616 layer_factory.hpp:77] Creating layer Sigmoid0
I0501 00:57:35.351183  8616 net.cpp:86] Creating Layer Sigmoid0
I0501 00:57:35.351188  8616 net.cpp:408] Sigmoid0 <- conv0
I0501 00:57:35.351193  8616 net.cpp:382] Sigmoid0 -> Sigmoid0
I0501 00:57:35.351367  8616 net.cpp:124] Setting up Sigmoid0
I0501 00:57:35.351377  8616 net.cpp:131] Top shape: 111 8 34 34 (1026528)
I0501 00:57:35.351380  8616 net.cpp:139] Memory required for data: 9576636
I0501 00:57:35.351383  8616 layer_factory.hpp:77] Creating layer pool0
I0501 00:57:35.351390  8616 net.cpp:86] Creating Layer pool0
I0501 00:57:35.351393  8616 net.cpp:408] pool0 <- Sigmoid0
I0501 00:57:35.351398  8616 net.cpp:382] pool0 -> pool0
I0501 00:57:35.352128  8616 net.cpp:124] Setting up pool0
I0501 00:57:35.352141  8616 net.cpp:131] Top shape: 111 8 17 17 (256632)
I0501 00:57:35.352145  8616 net.cpp:139] Memory required for data: 10603164
I0501 00:57:35.352149  8616 layer_factory.hpp:77] Creating layer ip1
I0501 00:57:35.352157  8616 net.cpp:86] Creating Layer ip1
I0501 00:57:35.352161  8616 net.cpp:408] ip1 <- pool0
I0501 00:57:35.352166  8616 net.cpp:382] ip1 -> ip1
I0501 00:57:35.358093  8616 net.cpp:124] Setting up ip1
I0501 00:57:35.358105  8616 net.cpp:131] Top shape: 111 80 (8880)
I0501 00:57:35.358109  8616 net.cpp:139] Memory required for data: 10638684
I0501 00:57:35.358117  8616 layer_factory.hpp:77] Creating layer relu1
I0501 00:57:35.358124  8616 net.cpp:86] Creating Layer relu1
I0501 00:57:35.358126  8616 net.cpp:408] relu1 <- ip1
I0501 00:57:35.358131  8616 net.cpp:369] relu1 -> ip1 (in-place)
I0501 00:57:35.358312  8616 net.cpp:124] Setting up relu1
I0501 00:57:35.358321  8616 net.cpp:131] Top shape: 111 80 (8880)
I0501 00:57:35.358325  8616 net.cpp:139] Memory required for data: 10674204
I0501 00:57:35.358327  8616 layer_factory.hpp:77] Creating layer ip2
I0501 00:57:35.358333  8616 net.cpp:86] Creating Layer ip2
I0501 00:57:35.358336  8616 net.cpp:408] ip2 <- ip1
I0501 00:57:35.358341  8616 net.cpp:382] ip2 -> ip2
I0501 00:57:35.358518  8616 net.cpp:124] Setting up ip2
I0501 00:57:35.358525  8616 net.cpp:131] Top shape: 111 40 (4440)
I0501 00:57:35.358528  8616 net.cpp:139] Memory required for data: 10691964
I0501 00:57:35.358536  8616 layer_factory.hpp:77] Creating layer relu2
I0501 00:57:35.358541  8616 net.cpp:86] Creating Layer relu2
I0501 00:57:35.358544  8616 net.cpp:408] relu2 <- ip2
I0501 00:57:35.358548  8616 net.cpp:369] relu2 -> ip2 (in-place)
I0501 00:57:35.358691  8616 net.cpp:124] Setting up relu2
I0501 00:57:35.358700  8616 net.cpp:131] Top shape: 111 40 (4440)
I0501 00:57:35.358702  8616 net.cpp:139] Memory required for data: 10709724
I0501 00:57:35.358705  8616 layer_factory.hpp:77] Creating layer ip3
I0501 00:57:35.358712  8616 net.cpp:86] Creating Layer ip3
I0501 00:57:35.358716  8616 net.cpp:408] ip3 <- ip2
I0501 00:57:35.358721  8616 net.cpp:382] ip3 -> ip3
I0501 00:57:35.359786  8616 net.cpp:124] Setting up ip3
I0501 00:57:35.359798  8616 net.cpp:131] Top shape: 111 160 (17760)
I0501 00:57:35.359802  8616 net.cpp:139] Memory required for data: 10780764
I0501 00:57:35.359807  8616 layer_factory.hpp:77] Creating layer relu3
I0501 00:57:35.359813  8616 net.cpp:86] Creating Layer relu3
I0501 00:57:35.359817  8616 net.cpp:408] relu3 <- ip3
I0501 00:57:35.359820  8616 net.cpp:369] relu3 -> ip3 (in-place)
I0501 00:57:35.359999  8616 net.cpp:124] Setting up relu3
I0501 00:57:35.360008  8616 net.cpp:131] Top shape: 111 160 (17760)
I0501 00:57:35.360010  8616 net.cpp:139] Memory required for data: 10851804
I0501 00:57:35.360013  8616 layer_factory.hpp:77] Creating layer ip4
I0501 00:57:35.360034  8616 net.cpp:86] Creating Layer ip4
I0501 00:57:35.360038  8616 net.cpp:408] ip4 <- ip3
I0501 00:57:35.360044  8616 net.cpp:382] ip4 -> ip4
I0501 00:57:35.360188  8616 net.cpp:124] Setting up ip4
I0501 00:57:35.360196  8616 net.cpp:131] Top shape: 111 10 (1110)
I0501 00:57:35.360200  8616 net.cpp:139] Memory required for data: 10856244
I0501 00:57:35.360208  8616 layer_factory.hpp:77] Creating layer loss
I0501 00:57:35.360213  8616 net.cpp:86] Creating Layer loss
I0501 00:57:35.360216  8616 net.cpp:408] loss <- ip4
I0501 00:57:35.360220  8616 net.cpp:408] loss <- label
I0501 00:57:35.360225  8616 net.cpp:382] loss -> loss
I0501 00:57:35.360242  8616 layer_factory.hpp:77] Creating layer loss
…
I0501 00:57:35.361500  8616 solver.cpp:173] Creating test net (#0) specified by net file: ECE595/cifar/train_test/var_everything/cifar_train_test_274.prototxt
I0501 00:57:35.361557  8616 net.cpp:296] The NetState phase (1) differed from the phase (0) specified by a rule in layer cifar
I0501 00:57:35.361691  8616 net.cpp:53] Initializing net from parameters: 
name: "CIFAR"
state {
  phase: TEST
}
layer {
  name: "cifar"
  type: "Data"
  top: "data"
  top: "label"
  include {
    phase: TEST
  }
  transform_param {
    mean_file: "examples/cifar10/mean.binaryproto"
  }
  data_param {
    source: "examples/cifar10/cifar10_test_lmdb"
    batch_size: 1000
    backend: LMDB
  }
}
layer {
  name: "conv0"
  type: "Convolution"
  bottom: "data"
  top: "conv0"
  param {
    lr_mult: 1
  }
  param {
    lr_mult: 2
  }
  convolution_param {
    num_output: 8
    pad: 2
    kernel_size: 3
    stride: 1
    weight_filler {
      type: "gaussian"
      std: 0.01
    }
    bias_filler {
      type: "constant"
    }
  }
}
layer {
  name: "Sigmoid0"
  type: "Sigmoid"
  bottom: "conv0"
  top: "Sigmoid0"
}
layer {
  name: "pool0"
  type: "Pooling"
  bottom: "Sigmoid0"
  top: "pool0"
  pooling_param {
    pool: AVE
    kernel_size: 3
    stride: 2
  }
}
layer {
  name: "ip1"
  type: "InnerProduct"
  bottom: "pool0"
  top: "ip1"
  param {
    lr_mult: 1
  }
  param {
    lr_mult: 2
  }
  inner_product_param {
    num_output: 80
    weight_filler {
      type: "gaussian"
      std: 0.01
    }
    bias_filler {
      type: "constant"
    }
  }
}
layer {
  name: "relu1"
  type: "ReLU"
  bottom: "ip1"
  top: "ip1"
}
layer {
  name: "ip2"
  type: "InnerProduct"
  bottom: "ip1"
  top: "ip2"
  param {
    lr_mult: 1
  }
  param {
    lr_mult: 2
  }
  inner_product_param {
    num_output: 40
    weight_filler {
      type: "gaussian"
      std: 0.01
    }
    bias_filler {
      type: "constant"
    }
  }
}
layer {
  name: "relu2"
  type: "ReLU"
  bottom: "ip2"
  top: "ip2"
}
layer {
  name: "ip3"
  type: "InnerProduct"
  bottom: "ip2"
  top: "ip3"
  param {
    lr_mult: 1
  }
  param {
    lr_mult: 2
  }
  inner_product_param {
    num_output: 160
    weight_filler {
      type: "gaussian"
      std: 0.01
    }
    bias_filler {
      type: "constant"
    }
  }
}
layer {
  name: "relu3"
  type: "ReLU"
  bottom: "ip3"
  top: "ip3"
}
layer {
  name: "ip4"
  type: "InnerProduct"
  bottom: "ip3"
  top: "ip4"
  param {
    lr_mult: 1
  }
  param {
    lr_mult: 2
  }
  inner_product_param {
    num_output: 10
    weight_filler {
      type: "gaussian"
      std: 0.01
    }
    bias_filler {
      type: "constant"
    }
  }
}
layer {
  name: "accuracy"
  type: "Accuracy"
  bottom: "ip4"
  bottom: "label"
  top: "accuracy"
  include {
    phase: TEST
  }
}
layer {
  name: "loss"
  type: "SoftmaxWithLoss"
  bottom: "ip4"
  bottom: "label"
  top: "loss"
}
I0501 00:57:35.361783  8616 layer_factory.hpp:77] Creating layer cifar
I0501 00:57:35.361829  8616 db_lmdb.cpp:35] Opened lmdb examples/cifar10/cifar10_test_lmdb
I0501 00:57:35.361840  8616 net.cpp:86] Creating Layer cifar
I0501 00:57:35.361845  8616 net.cpp:382] cifar -> data
I0501 00:57:35.361852  8616 net.cpp:382] cifar -> label
I0501 00:57:35.361858  8616 data_transformer.cpp:25] Loading mean file from: examples/cifar10/mean.binaryproto
I0501 00:57:35.361992  8616 data_layer.cpp:45] output data size: 1000,3,32,32
I0501 00:57:35.384621  8616 net.cpp:124] Setting up cifar
I0501 00:57:35.384662  8616 net.cpp:131] Top shape: 1000 3 32 32 (3072000)
I0501 00:57:35.384668  8616 net.cpp:131] Top shape: 1000 (1000)
I0501 00:57:35.384671  8616 net.cpp:139] Memory required for data: 12292000
I0501 00:57:35.384676  8616 layer_factory.hpp:77] Creating layer label_cifar_1_split
I0501 00:57:35.384693  8616 net.cpp:86] Creating Layer label_cifar_1_split
I0501 00:57:35.384697  8616 net.cpp:408] label_cifar_1_split <- label
I0501 00:57:35.384703  8616 net.cpp:382] label_cifar_1_split -> label_cifar_1_split_0
I0501 00:57:35.384712  8616 net.cpp:382] label_cifar_1_split -> label_cifar_1_split_1
I0501 00:57:35.384829  8616 net.cpp:124] Setting up label_cifar_1_split
I0501 00:57:35.384855  8616 net.cpp:131] Top shape: 1000 (1000)
I0501 00:57:35.384858  8616 net.cpp:131] Top shape: 1000 (1000)
I0501 00:57:35.384861  8616 net.cpp:139] Memory required for data: 12300000
I0501 00:57:35.384865  8616 layer_factory.hpp:77] Creating layer conv0
I0501 00:57:35.384877  8616 net.cpp:86] Creating Layer conv0
I0501 00:57:35.384881  8616 net.cpp:408] conv0 <- data
I0501 00:57:35.384886  8616 net.cpp:382] conv0 -> conv0
I0501 00:57:35.386553  8616 net.cpp:124] Setting up conv0
I0501 00:57:35.386582  8616 net.cpp:131] Top shape: 1000 8 34 34 (9248000)
I0501 00:57:35.386586  8616 net.cpp:139] Memory required for data: 49292000
I0501 00:57:35.386596  8616 layer_factory.hpp:77] Creating layer Sigmoid0
I0501 00:57:35.386603  8616 net.cpp:86] Creating Layer Sigmoid0
I0501 00:57:35.386606  8616 net.cpp:408] Sigmoid0 <- conv0
I0501 00:57:35.386611  8616 net.cpp:382] Sigmoid0 -> Sigmoid0
I0501 00:57:35.386814  8616 net.cpp:124] Setting up Sigmoid0
I0501 00:57:35.386824  8616 net.cpp:131] Top shape: 1000 8 34 34 (9248000)
I0501 00:57:35.386828  8616 net.cpp:139] Memory required for data: 86284000
I0501 00:57:35.386831  8616 layer_factory.hpp:77] Creating layer pool0
I0501 00:57:35.386839  8616 net.cpp:86] Creating Layer pool0
I0501 00:57:35.386842  8616 net.cpp:408] pool0 <- Sigmoid0
I0501 00:57:35.386847  8616 net.cpp:382] pool0 -> pool0
I0501 00:57:35.387101  8616 net.cpp:124] Setting up pool0
I0501 00:57:35.387111  8616 net.cpp:131] Top shape: 1000 8 17 17 (2312000)
I0501 00:57:35.387115  8616 net.cpp:139] Memory required for data: 95532000
I0501 00:57:35.387118  8616 layer_factory.hpp:77] Creating layer ip1
I0501 00:57:35.387126  8616 net.cpp:86] Creating Layer ip1
I0501 00:57:35.387130  8616 net.cpp:408] ip1 <- pool0
I0501 00:57:35.387151  8616 net.cpp:382] ip1 -> ip1
I0501 00:57:35.393218  8616 net.cpp:124] Setting up ip1
I0501 00:57:35.393244  8616 net.cpp:131] Top shape: 1000 80 (80000)
I0501 00:57:35.393249  8616 net.cpp:139] Memory required for data: 95852000
I0501 00:57:35.393290  8616 layer_factory.hpp:77] Creating layer relu1
I0501 00:57:35.393296  8616 net.cpp:86] Creating Layer relu1
I0501 00:57:35.393301  8616 net.cpp:408] relu1 <- ip1
I0501 00:57:35.393306  8616 net.cpp:369] relu1 -> ip1 (in-place)
I0501 00:57:35.393499  8616 net.cpp:124] Setting up relu1
I0501 00:57:35.393508  8616 net.cpp:131] Top shape: 1000 80 (80000)
I0501 00:57:35.393512  8616 net.cpp:139] Memory required for data: 96172000
I0501 00:57:35.393514  8616 layer_factory.hpp:77] Creating layer ip2
I0501 00:57:35.393522  8616 net.cpp:86] Creating Layer ip2
I0501 00:57:35.393524  8616 net.cpp:408] ip2 <- ip1
I0501 00:57:35.393530  8616 net.cpp:382] ip2 -> ip2
I0501 00:57:35.393720  8616 net.cpp:124] Setting up ip2
I0501 00:57:35.393728  8616 net.cpp:131] Top shape: 1000 40 (40000)
I0501 00:57:35.393731  8616 net.cpp:139] Memory required for data: 96332000
I0501 00:57:35.393738  8616 layer_factory.hpp:77] Creating layer relu2
I0501 00:57:35.393745  8616 net.cpp:86] Creating Layer relu2
I0501 00:57:35.393748  8616 net.cpp:408] relu2 <- ip2
I0501 00:57:35.393752  8616 net.cpp:369] relu2 -> ip2 (in-place)
I0501 00:57:35.394536  8616 net.cpp:124] Setting up relu2
I0501 00:57:35.394548  8616 net.cpp:131] Top shape: 1000 40 (40000)
I0501 00:57:35.394567  8616 net.cpp:139] Memory required for data: 96492000
I0501 00:57:35.394570  8616 layer_factory.hpp:77] Creating layer ip3
I0501 00:57:35.394577  8616 net.cpp:86] Creating Layer ip3
I0501 00:57:35.394580  8616 net.cpp:408] ip3 <- ip2
I0501 00:57:35.394587  8616 net.cpp:382] ip3 -> ip3
I0501 00:57:35.394875  8616 net.cpp:124] Setting up ip3
I0501 00:57:35.394882  8616 net.cpp:131] Top shape: 1000 160 (160000)
I0501 00:57:35.394886  8616 net.cpp:139] Memory required for data: 97132000
I0501 00:57:35.394891  8616 layer_factory.hpp:77] Creating layer relu3
I0501 00:57:35.394896  8616 net.cpp:86] Creating Layer relu3
I0501 00:57:35.394899  8616 net.cpp:408] relu3 <- ip3
I0501 00:57:35.394903  8616 net.cpp:369] relu3 -> ip3 (in-place)
I0501 00:57:35.395054  8616 net.cpp:124] Setting up relu3
I0501 00:57:35.395062  8616 net.cpp:131] Top shape: 1000 160 (160000)
I0501 00:57:35.395066  8616 net.cpp:139] Memory required for data: 97772000
I0501 00:57:35.395068  8616 layer_factory.hpp:77] Creating layer ip4
I0501 00:57:35.395074  8616 net.cpp:86] Creating Layer ip4
I0501 00:57:35.395078  8616 net.cpp:408] ip4 <- ip3
I0501 00:57:35.395083  8616 net.cpp:382] ip4 -> ip4
I0501 00:57:35.395242  8616 net.cpp:124] Setting up ip4
I0501 00:57:35.395251  8616 net.cpp:131] Top shape: 1000 10 (10000)
I0501 00:57:35.395254  8616 net.cpp:139] Memory required for data: 97812000
I0501 00:57:35.395262  8616 layer_factory.hpp:77] Creating layer ip4_ip4_0_split
I0501 00:57:35.395268  8616 net.cpp:86] Creating Layer ip4_ip4_0_split
I0501 00:57:35.395272  8616 net.cpp:408] ip4_ip4_0_split <- ip4
I0501 00:57:35.395275  8616 net.cpp:382] ip4_ip4_0_split -> ip4_ip4_0_split_0
I0501 00:57:35.395282  8616 net.cpp:382] ip4_ip4_0_split -> ip4_ip4_0_split_1
I0501 00:57:35.395313  8616 net.cpp:124] Setting up ip4_ip4_0_split
I0501 00:57:35.395318  8616 net.cpp:131] Top shape: 1000 10 (10000)
I0501 00:57:35.395321  8616 net.cpp:131] Top shape: 1000 10 (10000)
I0501 00:57:35.395324  8616 net.cpp:139] Memory required for data: 97892000
I0501 00:57:35.395328  8616 layer_factory.hpp:77] Creating layer accuracy
I0501 00:57:35.395334  8616 net.cpp:86] Creating Layer accuracy
I0501 00:57:35.395336  8616 net.cpp:408] accuracy <- ip4_ip4_0_split_0
I0501 00:57:35.395340  8616 net.cpp:408] accuracy <- label_cifar_1_split_0
I0501 00:57:35.395355  8616 net.cpp:382] accuracy -> accuracy
…
