…
I0501 05:13:08.380331 28211 net.cpp:296] The NetState phase (0) differed from the phase (1) specified by a rule in layer cifar
I0501 05:13:08.380352 28211 net.cpp:296] The NetState phase (0) differed from the phase (1) specified by a rule in layer accuracy
I0501 05:13:08.380455 28211 net.cpp:53] Initializing net from parameters: 
name: "CIFAR"
state {
  phase: TRAIN
  level: 0
  stage: ""
}
layer {
  name: "cifar"
  type: "Data"
  top: "data"
  top: "label"
  include {
    phase: TRAIN
  }
  transform_param {
    mean_file: "examples/cifar10/mean.binaryproto"
  }
  data_param {
    source: "examples/cifar10/cifar10_train_lmdb"
    batch_size: 111
    backend: LMDB
  }
}
layer {
  name: "conv0"
  type: "Convolution"
  bottom: "data"
  top: "conv0"
  param {
    lr_mult: 1
  }
  param {
    lr_mult: 2
  }
  convolution_param {
    num_output: 8
    pad: 2
    kernel_size: 5
    stride: 1
    weight_filler {
      type: "gaussian"
      std: 0.01
    }
    bias_filler {
      type: "constant"
    }
  }
}
layer {
  name: "Sigmoid0"
  type: "Sigmoid"
  bottom: "conv0"
  top: "Sigmoid0"
}
layer {
  name: "pool0"
  type: "Pooling"
  bottom: "Sigmoid0"
  top: "pool0"
  pooling_param {
    pool: AVE
    kernel_size: 3
    stride: 2
  }
}
layer {
  name: "ip1"
  type: "InnerProduct"
  bottom: "pool0"
  top: "ip1"
  param {
    lr_mult: 1
  }
  param {
    lr_mult: 2
  }
  inner_product_param {
    num_output: 40
    weight_filler {
      type: "gaussian"
      std: 0.01
    }
    bias_filler {
      type: "constant"
    }
  }
}
layer {
  name: "relu1"
  type: "ReLU"
  bottom: "ip1"
  top: "ip1"
}
layer {
  name: "ip2"
  type: "InnerProduct"
  bottom: "ip1"
  top: "ip2"
  param {
    lr_mult: 1
  }
  param {
    lr_mult: 2
  }
  inner_product_param {
    num_output: 160
    weight_filler {
      type: "gaussian"
      std: 0.01
    }
    bias_filler {
      type: "constant"
    }
  }
}
layer {
  name: "relu2"
  type: "ReLU"
  bottom: "ip2"
  top: "ip2"
}
layer {
  name: "ip3"
  type: "InnerProduct"
  bottom: "ip2"
  top: "ip3"
  param {
    lr_mult: 1
  }
  param {
    lr_mult: 2
  }
  inner_product_param {
    num_output: 20
    weight_filler {
      type: "gaussian"
      std: 0.01
    }
    bias_filler {
      type: "constant"
    }
  }
}
layer {
  name: "relu3"
  type: "ReLU"
  bottom: "ip3"
  top: "ip3"
}
layer {
  name: "ip4"
  type: "InnerProduct"
  bottom: "ip3"
  top: "ip4"
  param {
    lr_mult: 1
  }
  param {
    lr_mult: 2
  }
  inner_product_param {
    num_output: 10
    weight_filler {
      type: "gaussian"
      std: 0.01
    }
    bias_filler {
      type: "constant"
    }
  }
}
layer {
  name: "loss"
  type: "SoftmaxWithLoss"
  bottom: "ip4"
  bottom: "label"
  top: "loss"
}
I0501 05:13:08.380533 28211 layer_factory.hpp:77] Creating layer cifar
I0501 05:13:08.380631 28211 db_lmdb.cpp:35] Opened lmdb examples/cifar10/cifar10_train_lmdb
I0501 05:13:08.380658 28211 net.cpp:86] Creating Layer cifar
I0501 05:13:08.380668 28211 net.cpp:382] cifar -> data
I0501 05:13:08.380691 28211 net.cpp:382] cifar -> label
I0501 05:13:08.380702 28211 data_transformer.cpp:25] Loading mean file from: examples/cifar10/mean.binaryproto
I0501 05:13:08.382855 28211 data_layer.cpp:45] output data size: 111,3,32,32
I0501 05:13:08.390949 28211 net.cpp:124] Setting up cifar
I0501 05:13:08.390969 28211 net.cpp:131] Top shape: 111 3 32 32 (340992)
I0501 05:13:08.390974 28211 net.cpp:131] Top shape: 111 (111)
I0501 05:13:08.390979 28211 net.cpp:139] Memory required for data: 1364412
I0501 05:13:08.391001 28211 layer_factory.hpp:77] Creating layer conv0
I0501 05:13:08.391022 28211 net.cpp:86] Creating Layer conv0
I0501 05:13:08.391028 28211 net.cpp:408] conv0 <- data
I0501 05:13:08.391041 28211 net.cpp:382] conv0 -> conv0
I0501 05:13:08.684978 28211 net.cpp:124] Setting up conv0
I0501 05:13:08.685009 28211 net.cpp:131] Top shape: 111 8 32 32 (909312)
I0501 05:13:08.685014 28211 net.cpp:139] Memory required for data: 5001660
I0501 05:13:08.685031 28211 layer_factory.hpp:77] Creating layer Sigmoid0
I0501 05:13:08.685045 28211 net.cpp:86] Creating Layer Sigmoid0
I0501 05:13:08.685050 28211 net.cpp:408] Sigmoid0 <- conv0
I0501 05:13:08.685057 28211 net.cpp:382] Sigmoid0 -> Sigmoid0
I0501 05:13:08.685269 28211 net.cpp:124] Setting up Sigmoid0
I0501 05:13:08.685281 28211 net.cpp:131] Top shape: 111 8 32 32 (909312)
I0501 05:13:08.685286 28211 net.cpp:139] Memory required for data: 8638908
I0501 05:13:08.685289 28211 layer_factory.hpp:77] Creating layer pool0
I0501 05:13:08.685297 28211 net.cpp:86] Creating Layer pool0
I0501 05:13:08.685302 28211 net.cpp:408] pool0 <- Sigmoid0
I0501 05:13:08.685307 28211 net.cpp:382] pool0 -> pool0
I0501 05:13:08.686189 28211 net.cpp:124] Setting up pool0
I0501 05:13:08.686205 28211 net.cpp:131] Top shape: 111 8 16 16 (227328)
I0501 05:13:08.686209 28211 net.cpp:139] Memory required for data: 9548220
I0501 05:13:08.686213 28211 layer_factory.hpp:77] Creating layer ip1
I0501 05:13:08.686224 28211 net.cpp:86] Creating Layer ip1
I0501 05:13:08.686228 28211 net.cpp:408] ip1 <- pool0
I0501 05:13:08.686234 28211 net.cpp:382] ip1 -> ip1
I0501 05:13:08.689060 28211 net.cpp:124] Setting up ip1
I0501 05:13:08.689071 28211 net.cpp:131] Top shape: 111 40 (4440)
I0501 05:13:08.689074 28211 net.cpp:139] Memory required for data: 9565980
I0501 05:13:08.689083 28211 layer_factory.hpp:77] Creating layer relu1
I0501 05:13:08.689090 28211 net.cpp:86] Creating Layer relu1
I0501 05:13:08.689095 28211 net.cpp:408] relu1 <- ip1
I0501 05:13:08.689100 28211 net.cpp:369] relu1 -> ip1 (in-place)
I0501 05:13:08.689281 28211 net.cpp:124] Setting up relu1
I0501 05:13:08.689292 28211 net.cpp:131] Top shape: 111 40 (4440)
I0501 05:13:08.689296 28211 net.cpp:139] Memory required for data: 9583740
I0501 05:13:08.689301 28211 layer_factory.hpp:77] Creating layer ip2
I0501 05:13:08.689307 28211 net.cpp:86] Creating Layer ip2
I0501 05:13:08.689311 28211 net.cpp:408] ip2 <- ip1
I0501 05:13:08.689317 28211 net.cpp:382] ip2 -> ip2
I0501 05:13:08.690629 28211 net.cpp:124] Setting up ip2
I0501 05:13:08.690644 28211 net.cpp:131] Top shape: 111 160 (17760)
I0501 05:13:08.690649 28211 net.cpp:139] Memory required for data: 9654780
I0501 05:13:08.690659 28211 layer_factory.hpp:77] Creating layer relu2
I0501 05:13:08.690665 28211 net.cpp:86] Creating Layer relu2
I0501 05:13:08.690670 28211 net.cpp:408] relu2 <- ip2
I0501 05:13:08.690676 28211 net.cpp:369] relu2 -> ip2 (in-place)
I0501 05:13:08.690873 28211 net.cpp:124] Setting up relu2
I0501 05:13:08.690884 28211 net.cpp:131] Top shape: 111 160 (17760)
I0501 05:13:08.690888 28211 net.cpp:139] Memory required for data: 9725820
I0501 05:13:08.690892 28211 layer_factory.hpp:77] Creating layer ip3
I0501 05:13:08.690901 28211 net.cpp:86] Creating Layer ip3
I0501 05:13:08.690906 28211 net.cpp:408] ip3 <- ip2
I0501 05:13:08.690912 28211 net.cpp:382] ip3 -> ip3
I0501 05:13:08.691128 28211 net.cpp:124] Setting up ip3
I0501 05:13:08.691136 28211 net.cpp:131] Top shape: 111 20 (2220)
I0501 05:13:08.691140 28211 net.cpp:139] Memory required for data: 9734700
I0501 05:13:08.691146 28211 layer_factory.hpp:77] Creating layer relu3
I0501 05:13:08.691151 28211 net.cpp:86] Creating Layer relu3
I0501 05:13:08.691155 28211 net.cpp:408] relu3 <- ip3
I0501 05:13:08.691160 28211 net.cpp:369] relu3 -> ip3 (in-place)
I0501 05:13:08.691339 28211 net.cpp:124] Setting up relu3
I0501 05:13:08.691349 28211 net.cpp:131] Top shape: 111 20 (2220)
I0501 05:13:08.691352 28211 net.cpp:139] Memory required for data: 9743580
I0501 05:13:08.691356 28211 layer_factory.hpp:77] Creating layer ip4
I0501 05:13:08.691380 28211 net.cpp:86] Creating Layer ip4
I0501 05:13:08.691385 28211 net.cpp:408] ip4 <- ip3
I0501 05:13:08.691391 28211 net.cpp:382] ip4 -> ip4
I0501 05:13:08.691509 28211 net.cpp:124] Setting up ip4
I0501 05:13:08.691517 28211 net.cpp:131] Top shape: 111 10 (1110)
I0501 05:13:08.691521 28211 net.cpp:139] Memory required for data: 9748020
I0501 05:13:08.691530 28211 layer_factory.hpp:77] Creating layer loss
I0501 05:13:08.691537 28211 net.cpp:86] Creating Layer loss
I0501 05:13:08.691541 28211 net.cpp:408] loss <- ip4
I0501 05:13:08.691545 28211 net.cpp:408] loss <- label
I0501 05:13:08.691557 28211 net.cpp:382] loss -> loss
I0501 05:13:08.691573 28211 layer_factory.hpp:77] Creating layer loss
…
I0501 05:13:08.693022 28211 solver.cpp:173] Creating test net (#0) specified by net file: ECE595/cifar/train_test/var_everything/cifar_train_test_411.prototxt
I0501 05:13:08.693055 28211 net.cpp:296] The NetState phase (1) differed from the phase (0) specified by a rule in layer cifar
I0501 05:13:08.693171 28211 net.cpp:53] Initializing net from parameters: 
name: "CIFAR"
state {
  phase: TEST
}
layer {
  name: "cifar"
  type: "Data"
  top: "data"
  top: "label"
  include {
    phase: TEST
  }
  transform_param {
    mean_file: "examples/cifar10/mean.binaryproto"
  }
  data_param {
    source: "examples/cifar10/cifar10_test_lmdb"
    batch_size: 1000
    backend: LMDB
  }
}
layer {
  name: "conv0"
  type: "Convolution"
  bottom: "data"
  top: "conv0"
  param {
    lr_mult: 1
  }
  param {
    lr_mult: 2
  }
  convolution_param {
    num_output: 8
    pad: 2
    kernel_size: 5
    stride: 1
    weight_filler {
      type: "gaussian"
      std: 0.01
    }
    bias_filler {
      type: "constant"
    }
  }
}
layer {
  name: "Sigmoid0"
  type: "Sigmoid"
  bottom: "conv0"
  top: "Sigmoid0"
}
layer {
  name: "pool0"
  type: "Pooling"
  bottom: "Sigmoid0"
  top: "pool0"
  pooling_param {
    pool: AVE
    kernel_size: 3
    stride: 2
  }
}
layer {
  name: "ip1"
  type: "InnerProduct"
  bottom: "pool0"
  top: "ip1"
  param {
    lr_mult: 1
  }
  param {
    lr_mult: 2
  }
  inner_product_param {
    num_output: 40
    weight_filler {
      type: "gaussian"
      std: 0.01
    }
    bias_filler {
      type: "constant"
    }
  }
}
layer {
  name: "relu1"
  type: "ReLU"
  bottom: "ip1"
  top: "ip1"
}
layer {
  name: "ip2"
  type: "InnerProduct"
  bottom: "ip1"
  top: "ip2"
  param {
    lr_mult: 1
  }
  param {
    lr_mult: 2
  }
  inner_product_param {
    num_output: 160
    weight_filler {
      type: "gaussian"
      std: 0.01
    }
    bias_filler {
      type: "constant"
    }
  }
}
layer {
  name: "relu2"
  type: "ReLU"
  bottom: "ip2"
  top: "ip2"
}
layer {
  name: "ip3"
  type: "InnerProduct"
  bottom: "ip2"
  top: "ip3"
  param {
    lr_mult: 1
  }
  param {
    lr_mult: 2
  }
  inner_product_param {
    num_output: 20
    weight_filler {
      type: "gaussian"
      std: 0.01
    }
    bias_filler {
      type: "constant"
    }
  }
}
layer {
  name: "relu3"
  type: "ReLU"
  bottom: "ip3"
  top: "ip3"
}
layer {
  name: "ip4"
  type: "InnerProduct"
  bottom: "ip3"
  top: "ip4"
  param {
    lr_mult: 1
  }
  param {
    lr_mult: 2
  }
  inner_product_param {
    num_output: 10
    weight_filler {
      type: "gaussian"
      std: 0.01
    }
    bias_filler {
      type: "constant"
    }
  }
}
layer {
  name: "accuracy"
  type: "Accuracy"
  bottom: "ip4"
  bottom: "label"
  top: "accuracy"
  include {
    phase: TEST
  }
}
layer {
  name: "loss"
  type: "SoftmaxWithLoss"
  bottom: "ip4"
  bottom: "label"
  top: "loss"
}
I0501 05:13:08.693269 28211 layer_factory.hpp:77] Creating layer cifar
I0501 05:13:08.693321 28211 db_lmdb.cpp:35] Opened lmdb examples/cifar10/cifar10_test_lmdb
I0501 05:13:08.693336 28211 net.cpp:86] Creating Layer cifar
I0501 05:13:08.693343 28211 net.cpp:382] cifar -> data
I0501 05:13:08.693352 28211 net.cpp:382] cifar -> label
I0501 05:13:08.693361 28211 data_transformer.cpp:25] Loading mean file from: examples/cifar10/mean.binaryproto
I0501 05:13:08.693542 28211 data_layer.cpp:45] output data size: 1000,3,32,32
I0501 05:13:08.719480 28211 net.cpp:124] Setting up cifar
I0501 05:13:08.719511 28211 net.cpp:131] Top shape: 1000 3 32 32 (3072000)
I0501 05:13:08.719518 28211 net.cpp:131] Top shape: 1000 (1000)
I0501 05:13:08.719522 28211 net.cpp:139] Memory required for data: 12292000
I0501 05:13:08.719528 28211 layer_factory.hpp:77] Creating layer label_cifar_1_split
I0501 05:13:08.719542 28211 net.cpp:86] Creating Layer label_cifar_1_split
I0501 05:13:08.719547 28211 net.cpp:408] label_cifar_1_split <- label
I0501 05:13:08.719554 28211 net.cpp:382] label_cifar_1_split -> label_cifar_1_split_0
I0501 05:13:08.719564 28211 net.cpp:382] label_cifar_1_split -> label_cifar_1_split_1
I0501 05:13:08.719694 28211 net.cpp:124] Setting up label_cifar_1_split
I0501 05:13:08.719704 28211 net.cpp:131] Top shape: 1000 (1000)
I0501 05:13:08.719708 28211 net.cpp:131] Top shape: 1000 (1000)
I0501 05:13:08.719712 28211 net.cpp:139] Memory required for data: 12300000
I0501 05:13:08.719717 28211 layer_factory.hpp:77] Creating layer conv0
I0501 05:13:08.719732 28211 net.cpp:86] Creating Layer conv0
I0501 05:13:08.719736 28211 net.cpp:408] conv0 <- data
I0501 05:13:08.719743 28211 net.cpp:382] conv0 -> conv0
I0501 05:13:08.722530 28211 net.cpp:124] Setting up conv0
I0501 05:13:08.722549 28211 net.cpp:131] Top shape: 1000 8 32 32 (8192000)
I0501 05:13:08.722554 28211 net.cpp:139] Memory required for data: 45068000
I0501 05:13:08.722568 28211 layer_factory.hpp:77] Creating layer Sigmoid0
I0501 05:13:08.722576 28211 net.cpp:86] Creating Layer Sigmoid0
I0501 05:13:08.722581 28211 net.cpp:408] Sigmoid0 <- conv0
I0501 05:13:08.722587 28211 net.cpp:382] Sigmoid0 -> Sigmoid0
I0501 05:13:08.722820 28211 net.cpp:124] Setting up Sigmoid0
I0501 05:13:08.722831 28211 net.cpp:131] Top shape: 1000 8 32 32 (8192000)
I0501 05:13:08.722836 28211 net.cpp:139] Memory required for data: 77836000
I0501 05:13:08.722839 28211 layer_factory.hpp:77] Creating layer pool0
I0501 05:13:08.722851 28211 net.cpp:86] Creating Layer pool0
I0501 05:13:08.722854 28211 net.cpp:408] pool0 <- Sigmoid0
I0501 05:13:08.722861 28211 net.cpp:382] pool0 -> pool0
I0501 05:13:08.723068 28211 net.cpp:124] Setting up pool0
I0501 05:13:08.723081 28211 net.cpp:131] Top shape: 1000 8 16 16 (2048000)
I0501 05:13:08.723085 28211 net.cpp:139] Memory required for data: 86028000
I0501 05:13:08.723089 28211 layer_factory.hpp:77] Creating layer ip1
I0501 05:13:08.723098 28211 net.cpp:86] Creating Layer ip1
I0501 05:13:08.723103 28211 net.cpp:408] ip1 <- pool0
I0501 05:13:08.723109 28211 net.cpp:382] ip1 -> ip1
I0501 05:13:08.725946 28211 net.cpp:124] Setting up ip1
I0501 05:13:08.725956 28211 net.cpp:131] Top shape: 1000 40 (40000)
I0501 05:13:08.725960 28211 net.cpp:139] Memory required for data: 86188000
I0501 05:13:08.725986 28211 layer_factory.hpp:77] Creating layer relu1
I0501 05:13:08.725993 28211 net.cpp:86] Creating Layer relu1
I0501 05:13:08.725997 28211 net.cpp:408] relu1 <- ip1
I0501 05:13:08.726003 28211 net.cpp:369] relu1 -> ip1 (in-place)
I0501 05:13:08.726207 28211 net.cpp:124] Setting up relu1
I0501 05:13:08.726217 28211 net.cpp:131] Top shape: 1000 40 (40000)
I0501 05:13:08.726220 28211 net.cpp:139] Memory required for data: 86348000
I0501 05:13:08.726224 28211 layer_factory.hpp:77] Creating layer ip2
I0501 05:13:08.726233 28211 net.cpp:86] Creating Layer ip2
I0501 05:13:08.726238 28211 net.cpp:408] ip2 <- ip1
I0501 05:13:08.726243 28211 net.cpp:382] ip2 -> ip2
I0501 05:13:08.726582 28211 net.cpp:124] Setting up ip2
I0501 05:13:08.726590 28211 net.cpp:131] Top shape: 1000 160 (160000)
I0501 05:13:08.726593 28211 net.cpp:139] Memory required for data: 86988000
I0501 05:13:08.726603 28211 layer_factory.hpp:77] Creating layer relu2
I0501 05:13:08.726610 28211 net.cpp:86] Creating Layer relu2
I0501 05:13:08.726614 28211 net.cpp:408] relu2 <- ip2
I0501 05:13:08.726619 28211 net.cpp:369] relu2 -> ip2 (in-place)
I0501 05:13:08.727517 28211 net.cpp:124] Setting up relu2
I0501 05:13:08.727533 28211 net.cpp:131] Top shape: 1000 160 (160000)
I0501 05:13:08.727537 28211 net.cpp:139] Memory required for data: 87628000
I0501 05:13:08.727542 28211 layer_factory.hpp:77] Creating layer ip3
I0501 05:13:08.727552 28211 net.cpp:86] Creating Layer ip3
I0501 05:13:08.727556 28211 net.cpp:408] ip3 <- ip2
I0501 05:13:08.727566 28211 net.cpp:382] ip3 -> ip3
I0501 05:13:08.727803 28211 net.cpp:124] Setting up ip3
I0501 05:13:08.727813 28211 net.cpp:131] Top shape: 1000 20 (20000)
I0501 05:13:08.727816 28211 net.cpp:139] Memory required for data: 87708000
I0501 05:13:08.727823 28211 layer_factory.hpp:77] Creating layer relu3
I0501 05:13:08.727829 28211 net.cpp:86] Creating Layer relu3
I0501 05:13:08.727833 28211 net.cpp:408] relu3 <- ip3
I0501 05:13:08.727839 28211 net.cpp:369] relu3 -> ip3 (in-place)
I0501 05:13:08.728031 28211 net.cpp:124] Setting up relu3
I0501 05:13:08.728041 28211 net.cpp:131] Top shape: 1000 20 (20000)
I0501 05:13:08.728045 28211 net.cpp:139] Memory required for data: 87788000
I0501 05:13:08.728049 28211 layer_factory.hpp:77] Creating layer ip4
I0501 05:13:08.728057 28211 net.cpp:86] Creating Layer ip4
I0501 05:13:08.728061 28211 net.cpp:408] ip4 <- ip3
I0501 05:13:08.728066 28211 net.cpp:382] ip4 -> ip4
I0501 05:13:08.728202 28211 net.cpp:124] Setting up ip4
I0501 05:13:08.728212 28211 net.cpp:131] Top shape: 1000 10 (10000)
I0501 05:13:08.728215 28211 net.cpp:139] Memory required for data: 87828000
I0501 05:13:08.728224 28211 layer_factory.hpp:77] Creating layer ip4_ip4_0_split
I0501 05:13:08.728232 28211 net.cpp:86] Creating Layer ip4_ip4_0_split
I0501 05:13:08.728236 28211 net.cpp:408] ip4_ip4_0_split <- ip4
I0501 05:13:08.728241 28211 net.cpp:382] ip4_ip4_0_split -> ip4_ip4_0_split_0
I0501 05:13:08.728247 28211 net.cpp:382] ip4_ip4_0_split -> ip4_ip4_0_split_1
I0501 05:13:08.728287 28211 net.cpp:124] Setting up ip4_ip4_0_split
I0501 05:13:08.728294 28211 net.cpp:131] Top shape: 1000 10 (10000)
I0501 05:13:08.728299 28211 net.cpp:131] Top shape: 1000 10 (10000)
I0501 05:13:08.728302 28211 net.cpp:139] Memory required for data: 87908000
I0501 05:13:08.728307 28211 layer_factory.hpp:77] Creating layer accuracy
I0501 05:13:08.728312 28211 net.cpp:86] Creating Layer accuracy
I0501 05:13:08.728317 28211 net.cpp:408] accuracy <- ip4_ip4_0_split_0
I0501 05:13:08.728320 28211 net.cpp:408] accuracy <- label_cifar_1_split_0
I0501 05:13:08.728327 28211 net.cpp:382] accuracy -> accuracy
…
