…
I0430 17:52:09.902122 21039 net.cpp:296] The NetState phase (0) differed from the phase (1) specified by a rule in layer cifar
I0430 17:52:09.902139 21039 net.cpp:296] The NetState phase (0) differed from the phase (1) specified by a rule in layer accuracy
I0430 17:52:09.902223 21039 net.cpp:53] Initializing net from parameters: 
name: "CIFAR"
state {
  phase: TRAIN
  level: 0
  stage: ""
}
layer {
  name: "cifar"
  type: "Data"
  top: "data"
  top: "label"
  include {
    phase: TRAIN
  }
  transform_param {
    mean_file: "examples/cifar10/mean.binaryproto"
  }
  data_param {
    source: "examples/cifar10/cifar10_train_lmdb"
    batch_size: 111
    backend: LMDB
  }
}
layer {
  name: "ip1"
  type: "InnerProduct"
  bottom: "data"
  top: "ip1"
  param {
    lr_mult: 1
  }
  param {
    lr_mult: 2
  }
  inner_product_param {
    num_output: 10
    weight_filler {
      type: "gaussian"
      std: 0.01
    }
    bias_filler {
      type: "constant"
    }
  }
}
layer {
  name: "relu1"
  type: "ReLU"
  bottom: "ip1"
  top: "ip1"
}
layer {
  name: "ip2"
  type: "InnerProduct"
  bottom: "ip1"
  top: "ip2"
  param {
    lr_mult: 1
  }
  param {
    lr_mult: 2
  }
  inner_product_param {
    num_output: 80
    weight_filler {
      type: "gaussian"
      std: 0.01
    }
    bias_filler {
      type: "constant"
    }
  }
}
layer {
  name: "relu2"
  type: "ReLU"
  bottom: "ip2"
  top: "ip2"
}
layer {
  name: "ip3"
  type: "InnerProduct"
  bottom: "ip2"
  top: "ip3"
  param {
    lr_mult: 1
  }
  param {
    lr_mult: 2
  }
  inner_product_param {
    num_output: 80
    weight_filler {
      type: "gaussian"
      std: 0.01
    }
    bias_filler {
      type: "constant"
    }
  }
}
layer {
  name: "relu3"
  type: "ReLU"
  bottom: "ip3"
  top: "ip3"
}
layer {
  name: "ip4"
  type: "InnerProduct"
  bottom: "ip3"
  top: "ip4"
  param {
    lr_mult: 1
  }
  param {
    lr_mult: 2
  }
  inner_product_param {
    num_output: 10
    weight_filler {
      type: "gaussian"
      std: 0.01
    }
    bias_filler {
      type: "constant"
    }
  }
}
layer {
  name: "loss"
  type: "SoftmaxWithLoss"
  bottom: "ip4"
  bottom: "label"
  top: "loss"
}
I0430 17:52:09.902294 21039 layer_factory.hpp:77] Creating layer cifar
I0430 17:52:09.902395 21039 db_lmdb.cpp:35] Opened lmdb examples/cifar10/cifar10_train_lmdb
I0430 17:52:09.902421 21039 net.cpp:86] Creating Layer cifar
I0430 17:52:09.902432 21039 net.cpp:382] cifar -> data
I0430 17:52:09.902456 21039 net.cpp:382] cifar -> label
I0430 17:52:09.902467 21039 data_transformer.cpp:25] Loading mean file from: examples/cifar10/mean.binaryproto
I0430 17:52:09.904594 21039 data_layer.cpp:45] output data size: 111,3,32,32
I0430 17:52:09.912510 21039 net.cpp:124] Setting up cifar
I0430 17:52:09.912529 21039 net.cpp:131] Top shape: 111 3 32 32 (340992)
I0430 17:52:09.912536 21039 net.cpp:131] Top shape: 111 (111)
I0430 17:52:09.912540 21039 net.cpp:139] Memory required for data: 1364412
I0430 17:52:09.912549 21039 layer_factory.hpp:77] Creating layer ip1
I0430 17:52:09.912559 21039 net.cpp:86] Creating Layer ip1
I0430 17:52:09.912564 21039 net.cpp:408] ip1 <- data
I0430 17:52:09.912576 21039 net.cpp:382] ip1 -> ip1
I0430 17:52:09.914794 21039 net.cpp:124] Setting up ip1
I0430 17:52:09.914811 21039 net.cpp:131] Top shape: 111 10 (1110)
I0430 17:52:09.914815 21039 net.cpp:139] Memory required for data: 1368852
I0430 17:52:09.914831 21039 layer_factory.hpp:77] Creating layer relu1
I0430 17:52:09.914840 21039 net.cpp:86] Creating Layer relu1
I0430 17:52:09.914860 21039 net.cpp:408] relu1 <- ip1
I0430 17:52:09.914866 21039 net.cpp:369] relu1 -> ip1 (in-place)
I0430 17:52:10.201555 21039 net.cpp:124] Setting up relu1
I0430 17:52:10.201583 21039 net.cpp:131] Top shape: 111 10 (1110)
I0430 17:52:10.201587 21039 net.cpp:139] Memory required for data: 1373292
I0430 17:52:10.201593 21039 layer_factory.hpp:77] Creating layer ip2
I0430 17:52:10.201606 21039 net.cpp:86] Creating Layer ip2
I0430 17:52:10.201611 21039 net.cpp:408] ip2 <- ip1
I0430 17:52:10.201618 21039 net.cpp:382] ip2 -> ip2
I0430 17:52:10.202658 21039 net.cpp:124] Setting up ip2
I0430 17:52:10.202672 21039 net.cpp:131] Top shape: 111 80 (8880)
I0430 17:52:10.202675 21039 net.cpp:139] Memory required for data: 1408812
I0430 17:52:10.202687 21039 layer_factory.hpp:77] Creating layer relu2
I0430 17:52:10.202694 21039 net.cpp:86] Creating Layer relu2
I0430 17:52:10.202698 21039 net.cpp:408] relu2 <- ip2
I0430 17:52:10.202703 21039 net.cpp:369] relu2 -> ip2 (in-place)
I0430 17:52:10.203459 21039 net.cpp:124] Setting up relu2
I0430 17:52:10.203471 21039 net.cpp:131] Top shape: 111 80 (8880)
I0430 17:52:10.203475 21039 net.cpp:139] Memory required for data: 1444332
I0430 17:52:10.203479 21039 layer_factory.hpp:77] Creating layer ip3
I0430 17:52:10.203487 21039 net.cpp:86] Creating Layer ip3
I0430 17:52:10.203490 21039 net.cpp:408] ip3 <- ip2
I0430 17:52:10.203496 21039 net.cpp:382] ip3 -> ip3
I0430 17:52:10.204620 21039 net.cpp:124] Setting up ip3
I0430 17:52:10.204634 21039 net.cpp:131] Top shape: 111 80 (8880)
I0430 17:52:10.204638 21039 net.cpp:139] Memory required for data: 1479852
I0430 17:52:10.204646 21039 layer_factory.hpp:77] Creating layer relu3
I0430 17:52:10.204653 21039 net.cpp:86] Creating Layer relu3
I0430 17:52:10.204658 21039 net.cpp:408] relu3 <- ip3
I0430 17:52:10.204661 21039 net.cpp:369] relu3 -> ip3 (in-place)
I0430 17:52:10.204833 21039 net.cpp:124] Setting up relu3
I0430 17:52:10.204843 21039 net.cpp:131] Top shape: 111 80 (8880)
I0430 17:52:10.204846 21039 net.cpp:139] Memory required for data: 1515372
I0430 17:52:10.204850 21039 layer_factory.hpp:77] Creating layer ip4
I0430 17:52:10.204857 21039 net.cpp:86] Creating Layer ip4
I0430 17:52:10.204860 21039 net.cpp:408] ip4 <- ip3
I0430 17:52:10.204865 21039 net.cpp:382] ip4 -> ip4
I0430 17:52:10.204988 21039 net.cpp:124] Setting up ip4
I0430 17:52:10.204996 21039 net.cpp:131] Top shape: 111 10 (1110)
I0430 17:52:10.205000 21039 net.cpp:139] Memory required for data: 1519812
I0430 17:52:10.205005 21039 layer_factory.hpp:77] Creating layer loss
I0430 17:52:10.205013 21039 net.cpp:86] Creating Layer loss
I0430 17:52:10.205015 21039 net.cpp:408] loss <- ip4
I0430 17:52:10.205019 21039 net.cpp:408] loss <- label
I0430 17:52:10.205024 21039 net.cpp:382] loss -> loss
I0430 17:52:10.205039 21039 layer_factory.hpp:77] Creating layer loss
…
I0430 17:52:10.205610 21039 solver.cpp:173] Creating test net (#0) specified by net file: ECE595/cifar/train_test/var_everything/cifar_train_test_48.prototxt
I0430 17:52:10.205651 21039 net.cpp:296] The NetState phase (1) differed from the phase (0) specified by a rule in layer cifar
I0430 17:52:10.205729 21039 net.cpp:53] Initializing net from parameters: 
name: "CIFAR"
state {
  phase: TEST
}
layer {
  name: "cifar"
  type: "Data"
  top: "data"
  top: "label"
  include {
    phase: TEST
  }
  transform_param {
    mean_file: "examples/cifar10/mean.binaryproto"
  }
  data_param {
    source: "examples/cifar10/cifar10_test_lmdb"
    batch_size: 1000
    backend: LMDB
  }
}
layer {
  name: "ip1"
  type: "InnerProduct"
  bottom: "data"
  top: "ip1"
  param {
    lr_mult: 1
  }
  param {
    lr_mult: 2
  }
  inner_product_param {
    num_output: 10
    weight_filler {
      type: "gaussian"
      std: 0.01
    }
    bias_filler {
      type: "constant"
    }
  }
}
layer {
  name: "relu1"
  type: "ReLU"
  bottom: "ip1"
  top: "ip1"
}
layer {
  name: "ip2"
  type: "InnerProduct"
  bottom: "ip1"
  top: "ip2"
  param {
    lr_mult: 1
  }
  param {
    lr_mult: 2
  }
  inner_product_param {
    num_output: 80
    weight_filler {
      type: "gaussian"
      std: 0.01
    }
    bias_filler {
      type: "constant"
    }
  }
}
layer {
  name: "relu2"
  type: "ReLU"
  bottom: "ip2"
  top: "ip2"
}
layer {
  name: "ip3"
  type: "InnerProduct"
  bottom: "ip2"
  top: "ip3"
  param {
    lr_mult: 1
  }
  param {
    lr_mult: 2
  }
  inner_product_param {
    num_output: 80
    weight_filler {
      type: "gaussian"
      std: 0.01
    }
    bias_filler {
      type: "constant"
    }
  }
}
layer {
  name: "relu3"
  type: "ReLU"
  bottom: "ip3"
  top: "ip3"
}
layer {
  name: "ip4"
  type: "InnerProduct"
  bottom: "ip3"
  top: "ip4"
  param {
    lr_mult: 1
  }
  param {
    lr_mult: 2
  }
  inner_product_param {
    num_output: 10
    weight_filler {
      type: "gaussian"
      std: 0.01
    }
    bias_filler {
      type: "constant"
    }
  }
}
layer {
  name: "accuracy"
  type: "Accuracy"
  bottom: "ip4"
  bottom: "label"
  top: "accuracy"
  include {
    phase: TEST
  }
}
layer {
  name: "loss"
  type: "SoftmaxWithLoss"
  bottom: "ip4"
  bottom: "label"
  top: "loss"
}
I0430 17:52:10.205790 21039 layer_factory.hpp:77] Creating layer cifar
I0430 17:52:10.205837 21039 db_lmdb.cpp:35] Opened lmdb examples/cifar10/cifar10_test_lmdb
I0430 17:52:10.205849 21039 net.cpp:86] Creating Layer cifar
I0430 17:52:10.205854 21039 net.cpp:382] cifar -> data
I0430 17:52:10.205862 21039 net.cpp:382] cifar -> label
I0430 17:52:10.205869 21039 data_transformer.cpp:25] Loading mean file from: examples/cifar10/mean.binaryproto
I0430 17:52:10.206014 21039 data_layer.cpp:45] output data size: 1000,3,32,32
I0430 17:52:10.228292 21039 net.cpp:124] Setting up cifar
I0430 17:52:10.228319 21039 net.cpp:131] Top shape: 1000 3 32 32 (3072000)
I0430 17:52:10.228325 21039 net.cpp:131] Top shape: 1000 (1000)
I0430 17:52:10.228329 21039 net.cpp:139] Memory required for data: 12292000
I0430 17:52:10.228335 21039 layer_factory.hpp:77] Creating layer label_cifar_1_split
I0430 17:52:10.228351 21039 net.cpp:86] Creating Layer label_cifar_1_split
I0430 17:52:10.228355 21039 net.cpp:408] label_cifar_1_split <- label
I0430 17:52:10.228361 21039 net.cpp:382] label_cifar_1_split -> label_cifar_1_split_0
I0430 17:52:10.228370 21039 net.cpp:382] label_cifar_1_split -> label_cifar_1_split_1
I0430 17:52:10.228480 21039 net.cpp:124] Setting up label_cifar_1_split
I0430 17:52:10.228488 21039 net.cpp:131] Top shape: 1000 (1000)
I0430 17:52:10.228492 21039 net.cpp:131] Top shape: 1000 (1000)
I0430 17:52:10.228494 21039 net.cpp:139] Memory required for data: 12300000
I0430 17:52:10.228497 21039 layer_factory.hpp:77] Creating layer ip1
I0430 17:52:10.228507 21039 net.cpp:86] Creating Layer ip1
I0430 17:52:10.228509 21039 net.cpp:408] ip1 <- data
I0430 17:52:10.228514 21039 net.cpp:382] ip1 -> ip1
I0430 17:52:10.229506 21039 net.cpp:124] Setting up ip1
I0430 17:52:10.229516 21039 net.cpp:131] Top shape: 1000 10 (10000)
I0430 17:52:10.229519 21039 net.cpp:139] Memory required for data: 12340000
I0430 17:52:10.229543 21039 layer_factory.hpp:77] Creating layer relu1
I0430 17:52:10.229550 21039 net.cpp:86] Creating Layer relu1
I0430 17:52:10.229553 21039 net.cpp:408] relu1 <- ip1
I0430 17:52:10.229557 21039 net.cpp:369] relu1 -> ip1 (in-place)
I0430 17:52:10.230403 21039 net.cpp:124] Setting up relu1
I0430 17:52:10.230415 21039 net.cpp:131] Top shape: 1000 10 (10000)
I0430 17:52:10.230419 21039 net.cpp:139] Memory required for data: 12380000
I0430 17:52:10.230422 21039 layer_factory.hpp:77] Creating layer ip2
I0430 17:52:10.230432 21039 net.cpp:86] Creating Layer ip2
I0430 17:52:10.230434 21039 net.cpp:408] ip2 <- ip1
I0430 17:52:10.230440 21039 net.cpp:382] ip2 -> ip2
I0430 17:52:10.231499 21039 net.cpp:124] Setting up ip2
I0430 17:52:10.231508 21039 net.cpp:131] Top shape: 1000 80 (80000)
I0430 17:52:10.231513 21039 net.cpp:139] Memory required for data: 12700000
I0430 17:52:10.231520 21039 layer_factory.hpp:77] Creating layer relu2
I0430 17:52:10.231525 21039 net.cpp:86] Creating Layer relu2
I0430 17:52:10.231528 21039 net.cpp:408] relu2 <- ip2
I0430 17:52:10.231534 21039 net.cpp:369] relu2 -> ip2 (in-place)
I0430 17:52:10.231690 21039 net.cpp:124] Setting up relu2
I0430 17:52:10.231698 21039 net.cpp:131] Top shape: 1000 80 (80000)
I0430 17:52:10.231703 21039 net.cpp:139] Memory required for data: 13020000
I0430 17:52:10.231705 21039 layer_factory.hpp:77] Creating layer ip3
I0430 17:52:10.231711 21039 net.cpp:86] Creating Layer ip3
I0430 17:52:10.231714 21039 net.cpp:408] ip3 <- ip2
I0430 17:52:10.231719 21039 net.cpp:382] ip3 -> ip3
I0430 17:52:10.231993 21039 net.cpp:124] Setting up ip3
I0430 17:52:10.232002 21039 net.cpp:131] Top shape: 1000 80 (80000)
I0430 17:52:10.232007 21039 net.cpp:139] Memory required for data: 13340000
I0430 17:52:10.232013 21039 layer_factory.hpp:77] Creating layer relu3
I0430 17:52:10.232017 21039 net.cpp:86] Creating Layer relu3
I0430 17:52:10.232020 21039 net.cpp:408] relu3 <- ip3
I0430 17:52:10.232024 21039 net.cpp:369] relu3 -> ip3 (in-place)
I0430 17:52:10.232173 21039 net.cpp:124] Setting up relu3
I0430 17:52:10.232182 21039 net.cpp:131] Top shape: 1000 80 (80000)
I0430 17:52:10.232187 21039 net.cpp:139] Memory required for data: 13660000
I0430 17:52:10.232189 21039 layer_factory.hpp:77] Creating layer ip4
I0430 17:52:10.232197 21039 net.cpp:86] Creating Layer ip4
I0430 17:52:10.232199 21039 net.cpp:408] ip4 <- ip3
I0430 17:52:10.232204 21039 net.cpp:382] ip4 -> ip4
I0430 17:52:10.232322 21039 net.cpp:124] Setting up ip4
I0430 17:52:10.232331 21039 net.cpp:131] Top shape: 1000 10 (10000)
I0430 17:52:10.232333 21039 net.cpp:139] Memory required for data: 13700000
I0430 17:52:10.232338 21039 layer_factory.hpp:77] Creating layer ip4_ip4_0_split
I0430 17:52:10.232343 21039 net.cpp:86] Creating Layer ip4_ip4_0_split
I0430 17:52:10.232347 21039 net.cpp:408] ip4_ip4_0_split <- ip4
I0430 17:52:10.232350 21039 net.cpp:382] ip4_ip4_0_split -> ip4_ip4_0_split_0
I0430 17:52:10.232357 21039 net.cpp:382] ip4_ip4_0_split -> ip4_ip4_0_split_1
I0430 17:52:10.232386 21039 net.cpp:124] Setting up ip4_ip4_0_split
I0430 17:52:10.232391 21039 net.cpp:131] Top shape: 1000 10 (10000)
I0430 17:52:10.232395 21039 net.cpp:131] Top shape: 1000 10 (10000)
I0430 17:52:10.232398 21039 net.cpp:139] Memory required for data: 13780000
I0430 17:52:10.232400 21039 layer_factory.hpp:77] Creating layer accuracy
I0430 17:52:10.232410 21039 net.cpp:86] Creating Layer accuracy
I0430 17:52:10.232414 21039 net.cpp:408] accuracy <- ip4_ip4_0_split_0
I0430 17:52:10.232417 21039 net.cpp:408] accuracy <- label_cifar_1_split_0
I0430 17:52:10.232422 21039 net.cpp:382] accuracy -> accuracy
…
