…
I0430 17:31:09.823575 19876 net.cpp:296] The NetState phase (0) differed from the phase (1) specified by a rule in layer cifar
I0430 17:31:09.823596 19876 net.cpp:296] The NetState phase (0) differed from the phase (1) specified by a rule in layer accuracy
I0430 17:31:09.823688 19876 net.cpp:53] Initializing net from parameters: 
name: "CIFAR"
state {
  phase: TRAIN
  level: 0
  stage: ""
}
layer {
  name: "cifar"
  type: "Data"
  top: "data"
  top: "label"
  include {
    phase: TRAIN
  }
  transform_param {
    mean_file: "examples/cifar10/mean.binaryproto"
  }
  data_param {
    source: "examples/cifar10/cifar10_train_lmdb"
    batch_size: 111
    backend: LMDB
  }
}
layer {
  name: "ip1"
  type: "InnerProduct"
  bottom: "data"
  top: "ip1"
  param {
    lr_mult: 1
  }
  param {
    lr_mult: 2
  }
  inner_product_param {
    num_output: 10
    weight_filler {
      type: "gaussian"
      std: 0.01
    }
    bias_filler {
      type: "constant"
    }
  }
}
layer {
  name: "relu1"
  type: "ReLU"
  bottom: "ip1"
  top: "ip1"
}
layer {
  name: "ip2"
  type: "InnerProduct"
  bottom: "ip1"
  top: "ip2"
  param {
    lr_mult: 1
  }
  param {
    lr_mult: 2
  }
  inner_product_param {
    num_output: 20
    weight_filler {
      type: "gaussian"
      std: 0.01
    }
    bias_filler {
      type: "constant"
    }
  }
}
layer {
  name: "relu2"
  type: "ReLU"
  bottom: "ip2"
  top: "ip2"
}
layer {
  name: "ip3"
  type: "InnerProduct"
  bottom: "ip2"
  top: "ip3"
  param {
    lr_mult: 1
  }
  param {
    lr_mult: 2
  }
  inner_product_param {
    num_output: 40
    weight_filler {
      type: "gaussian"
      std: 0.01
    }
    bias_filler {
      type: "constant"
    }
  }
}
layer {
  name: "relu3"
  type: "ReLU"
  bottom: "ip3"
  top: "ip3"
}
layer {
  name: "ip4"
  type: "InnerProduct"
  bottom: "ip3"
  top: "ip4"
  param {
    lr_mult: 1
  }
  param {
    lr_mult: 2
  }
  inner_product_param {
    num_output: 10
    weight_filler {
      type: "gaussian"
      std: 0.01
    }
    bias_filler {
      type: "constant"
    }
  }
}
layer {
  name: "loss"
  type: "SoftmaxWithLoss"
  bottom: "ip4"
  bottom: "label"
  top: "loss"
}
I0430 17:31:09.823761 19876 layer_factory.hpp:77] Creating layer cifar
I0430 17:31:09.823864 19876 db_lmdb.cpp:35] Opened lmdb examples/cifar10/cifar10_train_lmdb
I0430 17:31:09.823894 19876 net.cpp:86] Creating Layer cifar
I0430 17:31:09.823904 19876 net.cpp:382] cifar -> data
I0430 17:31:09.823926 19876 net.cpp:382] cifar -> label
I0430 17:31:09.823940 19876 data_transformer.cpp:25] Loading mean file from: examples/cifar10/mean.binaryproto
I0430 17:31:09.826072 19876 data_layer.cpp:45] output data size: 111,3,32,32
I0430 17:31:09.833976 19876 net.cpp:124] Setting up cifar
I0430 17:31:09.833994 19876 net.cpp:131] Top shape: 111 3 32 32 (340992)
I0430 17:31:09.834000 19876 net.cpp:131] Top shape: 111 (111)
I0430 17:31:09.834003 19876 net.cpp:139] Memory required for data: 1364412
I0430 17:31:09.834012 19876 layer_factory.hpp:77] Creating layer ip1
I0430 17:31:09.834022 19876 net.cpp:86] Creating Layer ip1
I0430 17:31:09.834028 19876 net.cpp:408] ip1 <- data
I0430 17:31:09.834040 19876 net.cpp:382] ip1 -> ip1
I0430 17:31:09.836222 19876 net.cpp:124] Setting up ip1
I0430 17:31:09.836236 19876 net.cpp:131] Top shape: 111 10 (1110)
I0430 17:31:09.836241 19876 net.cpp:139] Memory required for data: 1368852
I0430 17:31:09.836254 19876 layer_factory.hpp:77] Creating layer relu1
I0430 17:31:09.836264 19876 net.cpp:86] Creating Layer relu1
I0430 17:31:09.836284 19876 net.cpp:408] relu1 <- ip1
I0430 17:31:09.836292 19876 net.cpp:369] relu1 -> ip1 (in-place)
I0430 17:31:10.121373 19876 net.cpp:124] Setting up relu1
I0430 17:31:10.121400 19876 net.cpp:131] Top shape: 111 10 (1110)
I0430 17:31:10.121404 19876 net.cpp:139] Memory required for data: 1373292
I0430 17:31:10.121409 19876 layer_factory.hpp:77] Creating layer ip2
I0430 17:31:10.121436 19876 net.cpp:86] Creating Layer ip2
I0430 17:31:10.121440 19876 net.cpp:408] ip2 <- ip1
I0430 17:31:10.121448 19876 net.cpp:382] ip2 -> ip2
I0430 17:31:10.121574 19876 net.cpp:124] Setting up ip2
I0430 17:31:10.121582 19876 net.cpp:131] Top shape: 111 20 (2220)
I0430 17:31:10.121585 19876 net.cpp:139] Memory required for data: 1382172
I0430 17:31:10.121593 19876 layer_factory.hpp:77] Creating layer relu2
I0430 17:31:10.121600 19876 net.cpp:86] Creating Layer relu2
I0430 17:31:10.121603 19876 net.cpp:408] relu2 <- ip2
I0430 17:31:10.121608 19876 net.cpp:369] relu2 -> ip2 (in-place)
I0430 17:31:10.122356 19876 net.cpp:124] Setting up relu2
I0430 17:31:10.122370 19876 net.cpp:131] Top shape: 111 20 (2220)
I0430 17:31:10.122372 19876 net.cpp:139] Memory required for data: 1391052
I0430 17:31:10.122376 19876 layer_factory.hpp:77] Creating layer ip3
I0430 17:31:10.122398 19876 net.cpp:86] Creating Layer ip3
I0430 17:31:10.122401 19876 net.cpp:408] ip3 <- ip2
I0430 17:31:10.122406 19876 net.cpp:382] ip3 -> ip3
I0430 17:31:10.123389 19876 net.cpp:124] Setting up ip3
I0430 17:31:10.123401 19876 net.cpp:131] Top shape: 111 40 (4440)
I0430 17:31:10.123404 19876 net.cpp:139] Memory required for data: 1408812
I0430 17:31:10.123428 19876 layer_factory.hpp:77] Creating layer relu3
I0430 17:31:10.123433 19876 net.cpp:86] Creating Layer relu3
I0430 17:31:10.123437 19876 net.cpp:408] relu3 <- ip3
I0430 17:31:10.123441 19876 net.cpp:369] relu3 -> ip3 (in-place)
I0430 17:31:10.123605 19876 net.cpp:124] Setting up relu3
I0430 17:31:10.123615 19876 net.cpp:131] Top shape: 111 40 (4440)
I0430 17:31:10.123617 19876 net.cpp:139] Memory required for data: 1426572
I0430 17:31:10.123620 19876 layer_factory.hpp:77] Creating layer ip4
I0430 17:31:10.123626 19876 net.cpp:86] Creating Layer ip4
I0430 17:31:10.123630 19876 net.cpp:408] ip4 <- ip3
I0430 17:31:10.123636 19876 net.cpp:382] ip4 -> ip4
I0430 17:31:10.123736 19876 net.cpp:124] Setting up ip4
I0430 17:31:10.123744 19876 net.cpp:131] Top shape: 111 10 (1110)
I0430 17:31:10.123746 19876 net.cpp:139] Memory required for data: 1431012
I0430 17:31:10.123751 19876 layer_factory.hpp:77] Creating layer loss
I0430 17:31:10.123759 19876 net.cpp:86] Creating Layer loss
I0430 17:31:10.123761 19876 net.cpp:408] loss <- ip4
I0430 17:31:10.123765 19876 net.cpp:408] loss <- label
I0430 17:31:10.123771 19876 net.cpp:382] loss -> loss
I0430 17:31:10.123790 19876 layer_factory.hpp:77] Creating layer loss
…
I0430 17:31:10.124347 19876 solver.cpp:173] Creating test net (#0) specified by net file: ECE595/cifar/train_test/var_everything/cifar_train_test_37.prototxt
I0430 17:31:10.124383 19876 net.cpp:296] The NetState phase (1) differed from the phase (0) specified by a rule in layer cifar
I0430 17:31:10.124459 19876 net.cpp:53] Initializing net from parameters: 
name: "CIFAR"
state {
  phase: TEST
}
layer {
  name: "cifar"
  type: "Data"
  top: "data"
  top: "label"
  include {
    phase: TEST
  }
  transform_param {
    mean_file: "examples/cifar10/mean.binaryproto"
  }
  data_param {
    source: "examples/cifar10/cifar10_test_lmdb"
    batch_size: 1000
    backend: LMDB
  }
}
layer {
  name: "ip1"
  type: "InnerProduct"
  bottom: "data"
  top: "ip1"
  param {
    lr_mult: 1
  }
  param {
    lr_mult: 2
  }
  inner_product_param {
    num_output: 10
    weight_filler {
      type: "gaussian"
      std: 0.01
    }
    bias_filler {
      type: "constant"
    }
  }
}
layer {
  name: "relu1"
  type: "ReLU"
  bottom: "ip1"
  top: "ip1"
}
layer {
  name: "ip2"
  type: "InnerProduct"
  bottom: "ip1"
  top: "ip2"
  param {
    lr_mult: 1
  }
  param {
    lr_mult: 2
  }
  inner_product_param {
    num_output: 20
    weight_filler {
      type: "gaussian"
      std: 0.01
    }
    bias_filler {
      type: "constant"
    }
  }
}
layer {
  name: "relu2"
  type: "ReLU"
  bottom: "ip2"
  top: "ip2"
}
layer {
  name: "ip3"
  type: "InnerProduct"
  bottom: "ip2"
  top: "ip3"
  param {
    lr_mult: 1
  }
  param {
    lr_mult: 2
  }
  inner_product_param {
    num_output: 40
    weight_filler {
      type: "gaussian"
      std: 0.01
    }
    bias_filler {
      type: "constant"
    }
  }
}
layer {
  name: "relu3"
  type: "ReLU"
  bottom: "ip3"
  top: "ip3"
}
layer {
  name: "ip4"
  type: "InnerProduct"
  bottom: "ip3"
  top: "ip4"
  param {
    lr_mult: 1
  }
  param {
    lr_mult: 2
  }
  inner_product_param {
    num_output: 10
    weight_filler {
      type: "gaussian"
      std: 0.01
    }
    bias_filler {
      type: "constant"
    }
  }
}
layer {
  name: "accuracy"
  type: "Accuracy"
  bottom: "ip4"
  bottom: "label"
  top: "accuracy"
  include {
    phase: TEST
  }
}
layer {
  name: "loss"
  type: "SoftmaxWithLoss"
  bottom: "ip4"
  bottom: "label"
  top: "loss"
}
I0430 17:31:10.124519 19876 layer_factory.hpp:77] Creating layer cifar
I0430 17:31:10.124565 19876 db_lmdb.cpp:35] Opened lmdb examples/cifar10/cifar10_test_lmdb
I0430 17:31:10.124579 19876 net.cpp:86] Creating Layer cifar
I0430 17:31:10.124583 19876 net.cpp:382] cifar -> data
I0430 17:31:10.124590 19876 net.cpp:382] cifar -> label
I0430 17:31:10.124598 19876 data_transformer.cpp:25] Loading mean file from: examples/cifar10/mean.binaryproto
I0430 17:31:10.124745 19876 data_layer.cpp:45] output data size: 1000,3,32,32
I0430 17:31:10.147775 19876 net.cpp:124] Setting up cifar
I0430 17:31:10.147804 19876 net.cpp:131] Top shape: 1000 3 32 32 (3072000)
I0430 17:31:10.147809 19876 net.cpp:131] Top shape: 1000 (1000)
I0430 17:31:10.147811 19876 net.cpp:139] Memory required for data: 12292000
I0430 17:31:10.147832 19876 layer_factory.hpp:77] Creating layer label_cifar_1_split
I0430 17:31:10.147850 19876 net.cpp:86] Creating Layer label_cifar_1_split
I0430 17:31:10.147855 19876 net.cpp:408] label_cifar_1_split <- label
I0430 17:31:10.147861 19876 net.cpp:382] label_cifar_1_split -> label_cifar_1_split_0
I0430 17:31:10.147871 19876 net.cpp:382] label_cifar_1_split -> label_cifar_1_split_1
I0430 17:31:10.147946 19876 net.cpp:124] Setting up label_cifar_1_split
I0430 17:31:10.147953 19876 net.cpp:131] Top shape: 1000 (1000)
I0430 17:31:10.147958 19876 net.cpp:131] Top shape: 1000 (1000)
I0430 17:31:10.147960 19876 net.cpp:139] Memory required for data: 12300000
I0430 17:31:10.147964 19876 layer_factory.hpp:77] Creating layer ip1
I0430 17:31:10.147971 19876 net.cpp:86] Creating Layer ip1
I0430 17:31:10.147989 19876 net.cpp:408] ip1 <- data
I0430 17:31:10.147995 19876 net.cpp:382] ip1 -> ip1
I0430 17:31:10.148998 19876 net.cpp:124] Setting up ip1
I0430 17:31:10.149008 19876 net.cpp:131] Top shape: 1000 10 (10000)
I0430 17:31:10.149011 19876 net.cpp:139] Memory required for data: 12340000
I0430 17:31:10.149052 19876 layer_factory.hpp:77] Creating layer relu1
I0430 17:31:10.149060 19876 net.cpp:86] Creating Layer relu1
I0430 17:31:10.149062 19876 net.cpp:408] relu1 <- ip1
I0430 17:31:10.149068 19876 net.cpp:369] relu1 -> ip1 (in-place)
I0430 17:31:10.150017 19876 net.cpp:124] Setting up relu1
I0430 17:31:10.150028 19876 net.cpp:131] Top shape: 1000 10 (10000)
I0430 17:31:10.150032 19876 net.cpp:139] Memory required for data: 12380000
I0430 17:31:10.150035 19876 layer_factory.hpp:77] Creating layer ip2
I0430 17:31:10.150059 19876 net.cpp:86] Creating Layer ip2
I0430 17:31:10.150063 19876 net.cpp:408] ip2 <- ip1
I0430 17:31:10.150069 19876 net.cpp:382] ip2 -> ip2
I0430 17:31:10.151139 19876 net.cpp:124] Setting up ip2
I0430 17:31:10.151147 19876 net.cpp:131] Top shape: 1000 20 (20000)
I0430 17:31:10.151150 19876 net.cpp:139] Memory required for data: 12460000
I0430 17:31:10.151173 19876 layer_factory.hpp:77] Creating layer relu2
I0430 17:31:10.151180 19876 net.cpp:86] Creating Layer relu2
I0430 17:31:10.151182 19876 net.cpp:408] relu2 <- ip2
I0430 17:31:10.151187 19876 net.cpp:369] relu2 -> ip2 (in-place)
I0430 17:31:10.151391 19876 net.cpp:124] Setting up relu2
I0430 17:31:10.151399 19876 net.cpp:131] Top shape: 1000 20 (20000)
I0430 17:31:10.151402 19876 net.cpp:139] Memory required for data: 12540000
I0430 17:31:10.151407 19876 layer_factory.hpp:77] Creating layer ip3
I0430 17:31:10.151422 19876 net.cpp:86] Creating Layer ip3
I0430 17:31:10.151424 19876 net.cpp:408] ip3 <- ip2
I0430 17:31:10.151429 19876 net.cpp:382] ip3 -> ip3
I0430 17:31:10.151561 19876 net.cpp:124] Setting up ip3
I0430 17:31:10.151568 19876 net.cpp:131] Top shape: 1000 40 (40000)
I0430 17:31:10.151571 19876 net.cpp:139] Memory required for data: 12700000
I0430 17:31:10.151592 19876 layer_factory.hpp:77] Creating layer relu3
I0430 17:31:10.151599 19876 net.cpp:86] Creating Layer relu3
I0430 17:31:10.151602 19876 net.cpp:408] relu3 <- ip3
I0430 17:31:10.151607 19876 net.cpp:369] relu3 -> ip3 (in-place)
I0430 17:31:10.151763 19876 net.cpp:124] Setting up relu3
I0430 17:31:10.151770 19876 net.cpp:131] Top shape: 1000 40 (40000)
I0430 17:31:10.151773 19876 net.cpp:139] Memory required for data: 12860000
I0430 17:31:10.151777 19876 layer_factory.hpp:77] Creating layer ip4
I0430 17:31:10.151785 19876 net.cpp:86] Creating Layer ip4
I0430 17:31:10.151788 19876 net.cpp:408] ip4 <- ip3
I0430 17:31:10.151794 19876 net.cpp:382] ip4 -> ip4
I0430 17:31:10.151902 19876 net.cpp:124] Setting up ip4
I0430 17:31:10.151909 19876 net.cpp:131] Top shape: 1000 10 (10000)
I0430 17:31:10.151912 19876 net.cpp:139] Memory required for data: 12900000
I0430 17:31:10.151917 19876 layer_factory.hpp:77] Creating layer ip4_ip4_0_split
I0430 17:31:10.151922 19876 net.cpp:86] Creating Layer ip4_ip4_0_split
I0430 17:31:10.151926 19876 net.cpp:408] ip4_ip4_0_split <- ip4
I0430 17:31:10.151929 19876 net.cpp:382] ip4_ip4_0_split -> ip4_ip4_0_split_0
I0430 17:31:10.151934 19876 net.cpp:382] ip4_ip4_0_split -> ip4_ip4_0_split_1
I0430 17:31:10.151967 19876 net.cpp:124] Setting up ip4_ip4_0_split
I0430 17:31:10.151971 19876 net.cpp:131] Top shape: 1000 10 (10000)
I0430 17:31:10.151974 19876 net.cpp:131] Top shape: 1000 10 (10000)
I0430 17:31:10.151978 19876 net.cpp:139] Memory required for data: 12980000
I0430 17:31:10.151981 19876 layer_factory.hpp:77] Creating layer accuracy
I0430 17:31:10.151988 19876 net.cpp:86] Creating Layer accuracy
I0430 17:31:10.151990 19876 net.cpp:408] accuracy <- ip4_ip4_0_split_0
I0430 17:31:10.151993 19876 net.cpp:408] accuracy <- label_cifar_1_split_0
I0430 17:31:10.152001 19876 net.cpp:382] accuracy -> accuracy
…
