…
I0430 18:58:54.417835 24890 net.cpp:296] The NetState phase (0) differed from the phase (1) specified by a rule in layer cifar
I0430 18:58:54.417852 24890 net.cpp:296] The NetState phase (0) differed from the phase (1) specified by a rule in layer accuracy
I0430 18:58:54.417937 24890 net.cpp:53] Initializing net from parameters: 
name: "CIFAR"
state {
  phase: TRAIN
  level: 0
  stage: ""
}
layer {
  name: "cifar"
  type: "Data"
  top: "data"
  top: "label"
  include {
    phase: TRAIN
  }
  transform_param {
    mean_file: "examples/cifar10/mean.binaryproto"
  }
  data_param {
    source: "examples/cifar10/cifar10_train_lmdb"
    batch_size: 111
    backend: LMDB
  }
}
layer {
  name: "ip1"
  type: "InnerProduct"
  bottom: "data"
  top: "ip1"
  param {
    lr_mult: 1
  }
  param {
    lr_mult: 2
  }
  inner_product_param {
    num_output: 40
    weight_filler {
      type: "gaussian"
      std: 0.01
    }
    bias_filler {
      type: "constant"
    }
  }
}
layer {
  name: "relu1"
  type: "ReLU"
  bottom: "ip1"
  top: "ip1"
}
layer {
  name: "ip2"
  type: "InnerProduct"
  bottom: "ip1"
  top: "ip2"
  param {
    lr_mult: 1
  }
  param {
    lr_mult: 2
  }
  inner_product_param {
    num_output: 10
    weight_filler {
      type: "gaussian"
      std: 0.01
    }
    bias_filler {
      type: "constant"
    }
  }
}
layer {
  name: "relu2"
  type: "ReLU"
  bottom: "ip2"
  top: "ip2"
}
layer {
  name: "ip3"
  type: "InnerProduct"
  bottom: "ip2"
  top: "ip3"
  param {
    lr_mult: 1
  }
  param {
    lr_mult: 2
  }
  inner_product_param {
    num_output: 80
    weight_filler {
      type: "gaussian"
      std: 0.01
    }
    bias_filler {
      type: "constant"
    }
  }
}
layer {
  name: "relu3"
  type: "ReLU"
  bottom: "ip3"
  top: "ip3"
}
layer {
  name: "ip4"
  type: "InnerProduct"
  bottom: "ip3"
  top: "ip4"
  param {
    lr_mult: 1
  }
  param {
    lr_mult: 2
  }
  inner_product_param {
    num_output: 10
    weight_filler {
      type: "gaussian"
      std: 0.01
    }
    bias_filler {
      type: "constant"
    }
  }
}
layer {
  name: "loss"
  type: "SoftmaxWithLoss"
  bottom: "ip4"
  bottom: "label"
  top: "loss"
}
I0430 18:58:54.418007 24890 layer_factory.hpp:77] Creating layer cifar
I0430 18:58:54.418107 24890 db_lmdb.cpp:35] Opened lmdb examples/cifar10/cifar10_train_lmdb
I0430 18:58:54.418136 24890 net.cpp:86] Creating Layer cifar
I0430 18:58:54.418143 24890 net.cpp:382] cifar -> data
I0430 18:58:54.418167 24890 net.cpp:382] cifar -> label
I0430 18:58:54.418179 24890 data_transformer.cpp:25] Loading mean file from: examples/cifar10/mean.binaryproto
I0430 18:58:54.420291 24890 data_layer.cpp:45] output data size: 111,3,32,32
I0430 18:58:54.428390 24890 net.cpp:124] Setting up cifar
I0430 18:58:54.428409 24890 net.cpp:131] Top shape: 111 3 32 32 (340992)
I0430 18:58:54.428417 24890 net.cpp:131] Top shape: 111 (111)
I0430 18:58:54.428422 24890 net.cpp:139] Memory required for data: 1364412
I0430 18:58:54.428431 24890 layer_factory.hpp:77] Creating layer ip1
I0430 18:58:54.428473 24890 net.cpp:86] Creating Layer ip1
I0430 18:58:54.428479 24890 net.cpp:408] ip1 <- data
I0430 18:58:54.428493 24890 net.cpp:382] ip1 -> ip1
I0430 18:58:54.432762 24890 net.cpp:124] Setting up ip1
I0430 18:58:54.432775 24890 net.cpp:131] Top shape: 111 40 (4440)
I0430 18:58:54.432778 24890 net.cpp:139] Memory required for data: 1382172
I0430 18:58:54.432792 24890 layer_factory.hpp:77] Creating layer relu1
I0430 18:58:54.432801 24890 net.cpp:86] Creating Layer relu1
I0430 18:58:54.432826 24890 net.cpp:408] relu1 <- ip1
I0430 18:58:54.432832 24890 net.cpp:369] relu1 -> ip1 (in-place)
I0430 18:58:54.702036 24890 net.cpp:124] Setting up relu1
I0430 18:58:54.702064 24890 net.cpp:131] Top shape: 111 40 (4440)
I0430 18:58:54.702069 24890 net.cpp:139] Memory required for data: 1399932
I0430 18:58:54.702074 24890 layer_factory.hpp:77] Creating layer ip2
I0430 18:58:54.702085 24890 net.cpp:86] Creating Layer ip2
I0430 18:58:54.702090 24890 net.cpp:408] ip2 <- ip1
I0430 18:58:54.702097 24890 net.cpp:382] ip2 -> ip2
I0430 18:58:54.703037 24890 net.cpp:124] Setting up ip2
I0430 18:58:54.703049 24890 net.cpp:131] Top shape: 111 10 (1110)
I0430 18:58:54.703052 24890 net.cpp:139] Memory required for data: 1404372
I0430 18:58:54.703061 24890 layer_factory.hpp:77] Creating layer relu2
I0430 18:58:54.703069 24890 net.cpp:86] Creating Layer relu2
I0430 18:58:54.703073 24890 net.cpp:408] relu2 <- ip2
I0430 18:58:54.703076 24890 net.cpp:369] relu2 -> ip2 (in-place)
I0430 18:58:54.703788 24890 net.cpp:124] Setting up relu2
I0430 18:58:54.703800 24890 net.cpp:131] Top shape: 111 10 (1110)
I0430 18:58:54.703804 24890 net.cpp:139] Memory required for data: 1408812
I0430 18:58:54.703806 24890 layer_factory.hpp:77] Creating layer ip3
I0430 18:58:54.703814 24890 net.cpp:86] Creating Layer ip3
I0430 18:58:54.703816 24890 net.cpp:408] ip3 <- ip2
I0430 18:58:54.703821 24890 net.cpp:382] ip3 -> ip3
I0430 18:58:54.703934 24890 net.cpp:124] Setting up ip3
I0430 18:58:54.703943 24890 net.cpp:131] Top shape: 111 80 (8880)
I0430 18:58:54.703946 24890 net.cpp:139] Memory required for data: 1444332
I0430 18:58:54.703960 24890 layer_factory.hpp:77] Creating layer relu3
I0430 18:58:54.703965 24890 net.cpp:86] Creating Layer relu3
I0430 18:58:54.703984 24890 net.cpp:408] relu3 <- ip3
I0430 18:58:54.703987 24890 net.cpp:369] relu3 -> ip3 (in-place)
I0430 18:58:54.704128 24890 net.cpp:124] Setting up relu3
I0430 18:58:54.704135 24890 net.cpp:131] Top shape: 111 80 (8880)
I0430 18:58:54.704138 24890 net.cpp:139] Memory required for data: 1479852
I0430 18:58:54.704141 24890 layer_factory.hpp:77] Creating layer ip4
I0430 18:58:54.704146 24890 net.cpp:86] Creating Layer ip4
I0430 18:58:54.704149 24890 net.cpp:408] ip4 <- ip3
I0430 18:58:54.704154 24890 net.cpp:382] ip4 -> ip4
I0430 18:58:54.704262 24890 net.cpp:124] Setting up ip4
I0430 18:58:54.704268 24890 net.cpp:131] Top shape: 111 10 (1110)
I0430 18:58:54.704272 24890 net.cpp:139] Memory required for data: 1484292
I0430 18:58:54.704277 24890 layer_factory.hpp:77] Creating layer loss
I0430 18:58:54.704282 24890 net.cpp:86] Creating Layer loss
I0430 18:58:54.704285 24890 net.cpp:408] loss <- ip4
I0430 18:58:54.704289 24890 net.cpp:408] loss <- label
I0430 18:58:54.704308 24890 net.cpp:382] loss -> loss
I0430 18:58:54.704325 24890 layer_factory.hpp:77] Creating layer loss
…
I0430 18:58:54.704859 24890 solver.cpp:173] Creating test net (#0) specified by net file: ECE595/cifar/train_test/var_everything/cifar_train_test_83.prototxt
I0430 18:58:54.704913 24890 net.cpp:296] The NetState phase (1) differed from the phase (0) specified by a rule in layer cifar
I0430 18:58:54.704990 24890 net.cpp:53] Initializing net from parameters: 
name: "CIFAR"
state {
  phase: TEST
}
layer {
  name: "cifar"
  type: "Data"
  top: "data"
  top: "label"
  include {
    phase: TEST
  }
  transform_param {
    mean_file: "examples/cifar10/mean.binaryproto"
  }
  data_param {
    source: "examples/cifar10/cifar10_test_lmdb"
    batch_size: 1000
    backend: LMDB
  }
}
layer {
  name: "ip1"
  type: "InnerProduct"
  bottom: "data"
  top: "ip1"
  param {
    lr_mult: 1
  }
  param {
    lr_mult: 2
  }
  inner_product_param {
    num_output: 40
    weight_filler {
      type: "gaussian"
      std: 0.01
    }
    bias_filler {
      type: "constant"
    }
  }
}
layer {
  name: "relu1"
  type: "ReLU"
  bottom: "ip1"
  top: "ip1"
}
layer {
  name: "ip2"
  type: "InnerProduct"
  bottom: "ip1"
  top: "ip2"
  param {
    lr_mult: 1
  }
  param {
    lr_mult: 2
  }
  inner_product_param {
    num_output: 10
    weight_filler {
      type: "gaussian"
      std: 0.01
    }
    bias_filler {
      type: "constant"
    }
  }
}
layer {
  name: "relu2"
  type: "ReLU"
  bottom: "ip2"
  top: "ip2"
}
layer {
  name: "ip3"
  type: "InnerProduct"
  bottom: "ip2"
  top: "ip3"
  param {
    lr_mult: 1
  }
  param {
    lr_mult: 2
  }
  inner_product_param {
    num_output: 80
    weight_filler {
      type: "gaussian"
      std: 0.01
    }
    bias_filler {
      type: "constant"
    }
  }
}
layer {
  name: "relu3"
  type: "ReLU"
  bottom: "ip3"
  top: "ip3"
}
layer {
  name: "ip4"
  type: "InnerProduct"
  bottom: "ip3"
  top: "ip4"
  param {
    lr_mult: 1
  }
  param {
    lr_mult: 2
  }
  inner_product_param {
    num_output: 10
    weight_filler {
      type: "gaussian"
      std: 0.01
    }
    bias_filler {
      type: "constant"
    }
  }
}
layer {
  name: "accuracy"
  type: "Accuracy"
  bottom: "ip4"
  bottom: "label"
  top: "accuracy"
  include {
    phase: TEST
  }
}
layer {
  name: "loss"
  type: "SoftmaxWithLoss"
  bottom: "ip4"
  bottom: "label"
  top: "loss"
}
I0430 18:58:54.705049 24890 layer_factory.hpp:77] Creating layer cifar
I0430 18:58:54.705112 24890 db_lmdb.cpp:35] Opened lmdb examples/cifar10/cifar10_test_lmdb
I0430 18:58:54.705126 24890 net.cpp:86] Creating Layer cifar
I0430 18:58:54.705130 24890 net.cpp:382] cifar -> data
I0430 18:58:54.705152 24890 net.cpp:382] cifar -> label
I0430 18:58:54.705159 24890 data_transformer.cpp:25] Loading mean file from: examples/cifar10/mean.binaryproto
I0430 18:58:54.705310 24890 data_layer.cpp:45] output data size: 1000,3,32,32
I0430 18:58:54.730689 24890 net.cpp:124] Setting up cifar
I0430 18:58:54.730729 24890 net.cpp:131] Top shape: 1000 3 32 32 (3072000)
I0430 18:58:54.730736 24890 net.cpp:131] Top shape: 1000 (1000)
I0430 18:58:54.730741 24890 net.cpp:139] Memory required for data: 12292000
I0430 18:58:54.730746 24890 layer_factory.hpp:77] Creating layer label_cifar_1_split
I0430 18:58:54.730763 24890 net.cpp:86] Creating Layer label_cifar_1_split
I0430 18:58:54.730767 24890 net.cpp:408] label_cifar_1_split <- label
I0430 18:58:54.730772 24890 net.cpp:382] label_cifar_1_split -> label_cifar_1_split_0
I0430 18:58:54.730780 24890 net.cpp:382] label_cifar_1_split -> label_cifar_1_split_1
I0430 18:58:54.730886 24890 net.cpp:124] Setting up label_cifar_1_split
I0430 18:58:54.730893 24890 net.cpp:131] Top shape: 1000 (1000)
I0430 18:58:54.730897 24890 net.cpp:131] Top shape: 1000 (1000)
I0430 18:58:54.730900 24890 net.cpp:139] Memory required for data: 12300000
I0430 18:58:54.730903 24890 layer_factory.hpp:77] Creating layer ip1
I0430 18:58:54.730911 24890 net.cpp:86] Creating Layer ip1
I0430 18:58:54.730916 24890 net.cpp:408] ip1 <- data
I0430 18:58:54.730932 24890 net.cpp:382] ip1 -> ip1
I0430 18:58:54.734202 24890 net.cpp:124] Setting up ip1
I0430 18:58:54.734213 24890 net.cpp:131] Top shape: 1000 40 (40000)
I0430 18:58:54.734216 24890 net.cpp:139] Memory required for data: 12460000
I0430 18:58:54.734241 24890 layer_factory.hpp:77] Creating layer relu1
I0430 18:58:54.734248 24890 net.cpp:86] Creating Layer relu1
I0430 18:58:54.734251 24890 net.cpp:408] relu1 <- ip1
I0430 18:58:54.734256 24890 net.cpp:369] relu1 -> ip1 (in-place)
I0430 18:58:54.735025 24890 net.cpp:124] Setting up relu1
I0430 18:58:54.735038 24890 net.cpp:131] Top shape: 1000 40 (40000)
I0430 18:58:54.735040 24890 net.cpp:139] Memory required for data: 12620000
I0430 18:58:54.735044 24890 layer_factory.hpp:77] Creating layer ip2
I0430 18:58:54.735051 24890 net.cpp:86] Creating Layer ip2
I0430 18:58:54.735055 24890 net.cpp:408] ip2 <- ip1
I0430 18:58:54.735060 24890 net.cpp:382] ip2 -> ip2
I0430 18:58:54.735185 24890 net.cpp:124] Setting up ip2
I0430 18:58:54.735193 24890 net.cpp:131] Top shape: 1000 10 (10000)
I0430 18:58:54.735196 24890 net.cpp:139] Memory required for data: 12660000
I0430 18:58:54.735203 24890 layer_factory.hpp:77] Creating layer relu2
I0430 18:58:54.735208 24890 net.cpp:86] Creating Layer relu2
I0430 18:58:54.735211 24890 net.cpp:408] relu2 <- ip2
I0430 18:58:54.735216 24890 net.cpp:369] relu2 -> ip2 (in-place)
I0430 18:58:54.735380 24890 net.cpp:124] Setting up relu2
I0430 18:58:54.735388 24890 net.cpp:131] Top shape: 1000 10 (10000)
I0430 18:58:54.735391 24890 net.cpp:139] Memory required for data: 12700000
I0430 18:58:54.735394 24890 layer_factory.hpp:77] Creating layer ip3
I0430 18:58:54.735400 24890 net.cpp:86] Creating Layer ip3
I0430 18:58:54.735404 24890 net.cpp:408] ip3 <- ip2
I0430 18:58:54.735409 24890 net.cpp:382] ip3 -> ip3
I0430 18:58:54.735548 24890 net.cpp:124] Setting up ip3
I0430 18:58:54.735556 24890 net.cpp:131] Top shape: 1000 80 (80000)
I0430 18:58:54.735559 24890 net.cpp:139] Memory required for data: 13020000
I0430 18:58:54.735572 24890 layer_factory.hpp:77] Creating layer relu3
I0430 18:58:54.735577 24890 net.cpp:86] Creating Layer relu3
I0430 18:58:54.735580 24890 net.cpp:408] relu3 <- ip3
I0430 18:58:54.735584 24890 net.cpp:369] relu3 -> ip3 (in-place)
I0430 18:58:54.735749 24890 net.cpp:124] Setting up relu3
I0430 18:58:54.735757 24890 net.cpp:131] Top shape: 1000 80 (80000)
I0430 18:58:54.735760 24890 net.cpp:139] Memory required for data: 13340000
I0430 18:58:54.735764 24890 layer_factory.hpp:77] Creating layer ip4
I0430 18:58:54.735770 24890 net.cpp:86] Creating Layer ip4
I0430 18:58:54.735774 24890 net.cpp:408] ip4 <- ip3
I0430 18:58:54.735779 24890 net.cpp:382] ip4 -> ip4
I0430 18:58:54.735900 24890 net.cpp:124] Setting up ip4
I0430 18:58:54.735908 24890 net.cpp:131] Top shape: 1000 10 (10000)
I0430 18:58:54.735911 24890 net.cpp:139] Memory required for data: 13380000
I0430 18:58:54.735918 24890 layer_factory.hpp:77] Creating layer ip4_ip4_0_split
I0430 18:58:54.735922 24890 net.cpp:86] Creating Layer ip4_ip4_0_split
I0430 18:58:54.735925 24890 net.cpp:408] ip4_ip4_0_split <- ip4
I0430 18:58:54.735929 24890 net.cpp:382] ip4_ip4_0_split -> ip4_ip4_0_split_0
I0430 18:58:54.735935 24890 net.cpp:382] ip4_ip4_0_split -> ip4_ip4_0_split_1
I0430 18:58:54.735980 24890 net.cpp:124] Setting up ip4_ip4_0_split
I0430 18:58:54.735987 24890 net.cpp:131] Top shape: 1000 10 (10000)
I0430 18:58:54.735991 24890 net.cpp:131] Top shape: 1000 10 (10000)
I0430 18:58:54.735993 24890 net.cpp:139] Memory required for data: 13460000
I0430 18:58:54.735996 24890 layer_factory.hpp:77] Creating layer accuracy
I0430 18:58:54.736001 24890 net.cpp:86] Creating Layer accuracy
I0430 18:58:54.736006 24890 net.cpp:408] accuracy <- ip4_ip4_0_split_0
I0430 18:58:54.736009 24890 net.cpp:408] accuracy <- label_cifar_1_split_0
I0430 18:58:54.736013 24890 net.cpp:382] accuracy -> accuracy
…
