…
I0430 22:59:35.641017  3966 net.cpp:296] The NetState phase (0) differed from the phase (1) specified by a rule in layer cifar
I0430 22:59:35.641036  3966 net.cpp:296] The NetState phase (0) differed from the phase (1) specified by a rule in layer accuracy
I0430 22:59:35.641135  3966 net.cpp:53] Initializing net from parameters: 
name: "CIFAR"
state {
  phase: TRAIN
  level: 0
  stage: ""
}
layer {
  name: "cifar"
  type: "Data"
  top: "data"
  top: "label"
  include {
    phase: TRAIN
  }
  transform_param {
    mean_file: "examples/cifar10/mean.binaryproto"
  }
  data_param {
    source: "examples/cifar10/cifar10_train_lmdb"
    batch_size: 111
    backend: LMDB
  }
}
layer {
  name: "conv0"
  type: "Convolution"
  bottom: "data"
  top: "conv0"
  param {
    lr_mult: 1
  }
  param {
    lr_mult: 2
  }
  convolution_param {
    num_output: 8
    pad: 2
    kernel_size: 3
    stride: 1
    weight_filler {
      type: "gaussian"
      std: 0.01
    }
    bias_filler {
      type: "constant"
    }
  }
}
layer {
  name: "Sigmoid0"
  type: "Sigmoid"
  bottom: "conv0"
  top: "Sigmoid0"
}
layer {
  name: "pool0"
  type: "Pooling"
  bottom: "Sigmoid0"
  top: "pool0"
  pooling_param {
    pool: AVE
    kernel_size: 3
    stride: 2
  }
}
layer {
  name: "ip1"
  type: "InnerProduct"
  bottom: "pool0"
  top: "ip1"
  param {
    lr_mult: 1
  }
  param {
    lr_mult: 2
  }
  inner_product_param {
    num_output: 20
    weight_filler {
      type: "gaussian"
      std: 0.01
    }
    bias_filler {
      type: "constant"
    }
  }
}
layer {
  name: "relu1"
  type: "ReLU"
  bottom: "ip1"
  top: "ip1"
}
layer {
  name: "ip2"
  type: "InnerProduct"
  bottom: "ip1"
  top: "ip2"
  param {
    lr_mult: 1
  }
  param {
    lr_mult: 2
  }
  inner_product_param {
    num_output: 10
    weight_filler {
      type: "gaussian"
      std: 0.01
    }
    bias_filler {
      type: "constant"
    }
  }
}
layer {
  name: "relu2"
  type: "ReLU"
  bottom: "ip2"
  top: "ip2"
}
layer {
  name: "ip3"
  type: "InnerProduct"
  bottom: "ip2"
  top: "ip3"
  param {
    lr_mult: 1
  }
  param {
    lr_mult: 2
  }
  inner_product_param {
    num_output: 20
    weight_filler {
      type: "gaussian"
      std: 0.01
    }
    bias_filler {
      type: "constant"
    }
  }
}
layer {
  name: "relu3"
  type: "ReLU"
  bottom: "ip3"
  top: "ip3"
}
layer {
  name: "ip4"
  type: "InnerProduct"
  bottom: "ip3"
  top: "ip4"
  param {
    lr_mult: 1
  }
  param {
    lr_mult: 2
  }
  inner_product_param {
    num_output: 10
    weight_filler {
      type: "gaussian"
      std: 0.01
    }
    bias_filler {
      type: "constant"
    }
  }
}
layer {
  name: "loss"
  type: "SoftmaxWithLoss"
  bottom: "ip4"
  bottom: "label"
  top: "loss"
}
I0430 22:59:35.641211  3966 layer_factory.hpp:77] Creating layer cifar
I0430 22:59:35.641311  3966 db_lmdb.cpp:35] Opened lmdb examples/cifar10/cifar10_train_lmdb
I0430 22:59:35.641338  3966 net.cpp:86] Creating Layer cifar
I0430 22:59:35.641347  3966 net.cpp:382] cifar -> data
I0430 22:59:35.641371  3966 net.cpp:382] cifar -> label
I0430 22:59:35.641386  3966 data_transformer.cpp:25] Loading mean file from: examples/cifar10/mean.binaryproto
I0430 22:59:35.643481  3966 data_layer.cpp:45] output data size: 111,3,32,32
I0430 22:59:35.651347  3966 net.cpp:124] Setting up cifar
I0430 22:59:35.651367  3966 net.cpp:131] Top shape: 111 3 32 32 (340992)
I0430 22:59:35.651373  3966 net.cpp:131] Top shape: 111 (111)
I0430 22:59:35.651377  3966 net.cpp:139] Memory required for data: 1364412
I0430 22:59:35.651401  3966 layer_factory.hpp:77] Creating layer conv0
I0430 22:59:35.651422  3966 net.cpp:86] Creating Layer conv0
I0430 22:59:35.651427  3966 net.cpp:408] conv0 <- data
I0430 22:59:35.651442  3966 net.cpp:382] conv0 -> conv0
I0430 22:59:35.934911  3966 net.cpp:124] Setting up conv0
I0430 22:59:35.934938  3966 net.cpp:131] Top shape: 111 8 34 34 (1026528)
I0430 22:59:35.934942  3966 net.cpp:139] Memory required for data: 5470524
I0430 22:59:35.934957  3966 layer_factory.hpp:77] Creating layer Sigmoid0
I0430 22:59:35.934968  3966 net.cpp:86] Creating Layer Sigmoid0
I0430 22:59:35.934973  3966 net.cpp:408] Sigmoid0 <- conv0
I0430 22:59:35.934978  3966 net.cpp:382] Sigmoid0 -> Sigmoid0
I0430 22:59:35.935149  3966 net.cpp:124] Setting up Sigmoid0
I0430 22:59:35.935159  3966 net.cpp:131] Top shape: 111 8 34 34 (1026528)
I0430 22:59:35.935163  3966 net.cpp:139] Memory required for data: 9576636
I0430 22:59:35.935166  3966 layer_factory.hpp:77] Creating layer pool0
I0430 22:59:35.935173  3966 net.cpp:86] Creating Layer pool0
I0430 22:59:35.935175  3966 net.cpp:408] pool0 <- Sigmoid0
I0430 22:59:35.935180  3966 net.cpp:382] pool0 -> pool0
I0430 22:59:35.935890  3966 net.cpp:124] Setting up pool0
I0430 22:59:35.935904  3966 net.cpp:131] Top shape: 111 8 17 17 (256632)
I0430 22:59:35.935907  3966 net.cpp:139] Memory required for data: 10603164
I0430 22:59:35.935910  3966 layer_factory.hpp:77] Creating layer ip1
I0430 22:59:35.935920  3966 net.cpp:86] Creating Layer ip1
I0430 22:59:35.935922  3966 net.cpp:408] ip1 <- pool0
I0430 22:59:35.935927  3966 net.cpp:382] ip1 -> ip1
I0430 22:59:35.938045  3966 net.cpp:124] Setting up ip1
I0430 22:59:35.938057  3966 net.cpp:131] Top shape: 111 20 (2220)
I0430 22:59:35.938061  3966 net.cpp:139] Memory required for data: 10612044
I0430 22:59:35.938068  3966 layer_factory.hpp:77] Creating layer relu1
I0430 22:59:35.938074  3966 net.cpp:86] Creating Layer relu1
I0430 22:59:35.938077  3966 net.cpp:408] relu1 <- ip1
I0430 22:59:35.938081  3966 net.cpp:369] relu1 -> ip1 (in-place)
I0430 22:59:35.938236  3966 net.cpp:124] Setting up relu1
I0430 22:59:35.938251  3966 net.cpp:131] Top shape: 111 20 (2220)
I0430 22:59:35.938254  3966 net.cpp:139] Memory required for data: 10620924
I0430 22:59:35.938257  3966 layer_factory.hpp:77] Creating layer ip2
I0430 22:59:35.938264  3966 net.cpp:86] Creating Layer ip2
I0430 22:59:35.938267  3966 net.cpp:408] ip2 <- ip1
I0430 22:59:35.938273  3966 net.cpp:382] ip2 -> ip2
I0430 22:59:35.938372  3966 net.cpp:124] Setting up ip2
I0430 22:59:35.938380  3966 net.cpp:131] Top shape: 111 10 (1110)
I0430 22:59:35.938383  3966 net.cpp:139] Memory required for data: 10625364
I0430 22:59:35.938390  3966 layer_factory.hpp:77] Creating layer relu2
I0430 22:59:35.938395  3966 net.cpp:86] Creating Layer relu2
I0430 22:59:35.938398  3966 net.cpp:408] relu2 <- ip2
I0430 22:59:35.938402  3966 net.cpp:369] relu2 -> ip2 (in-place)
I0430 22:59:35.938555  3966 net.cpp:124] Setting up relu2
I0430 22:59:35.938562  3966 net.cpp:131] Top shape: 111 10 (1110)
I0430 22:59:35.938565  3966 net.cpp:139] Memory required for data: 10629804
I0430 22:59:35.938568  3966 layer_factory.hpp:77] Creating layer ip3
I0430 22:59:35.938576  3966 net.cpp:86] Creating Layer ip3
I0430 22:59:35.938580  3966 net.cpp:408] ip3 <- ip2
I0430 22:59:35.938585  3966 net.cpp:382] ip3 -> ip3
I0430 22:59:35.938683  3966 net.cpp:124] Setting up ip3
I0430 22:59:35.938688  3966 net.cpp:131] Top shape: 111 20 (2220)
I0430 22:59:35.938691  3966 net.cpp:139] Memory required for data: 10638684
I0430 22:59:35.938696  3966 layer_factory.hpp:77] Creating layer relu3
I0430 22:59:35.938701  3966 net.cpp:86] Creating Layer relu3
I0430 22:59:35.938704  3966 net.cpp:408] relu3 <- ip3
I0430 22:59:35.938709  3966 net.cpp:369] relu3 -> ip3 (in-place)
I0430 22:59:35.938858  3966 net.cpp:124] Setting up relu3
I0430 22:59:35.938865  3966 net.cpp:131] Top shape: 111 20 (2220)
I0430 22:59:35.938868  3966 net.cpp:139] Memory required for data: 10647564
I0430 22:59:35.938871  3966 layer_factory.hpp:77] Creating layer ip4
I0430 22:59:35.938890  3966 net.cpp:86] Creating Layer ip4
I0430 22:59:35.938894  3966 net.cpp:408] ip4 <- ip3
I0430 22:59:35.938900  3966 net.cpp:382] ip4 -> ip4
I0430 22:59:35.938998  3966 net.cpp:124] Setting up ip4
I0430 22:59:35.939005  3966 net.cpp:131] Top shape: 111 10 (1110)
I0430 22:59:35.939008  3966 net.cpp:139] Memory required for data: 10652004
I0430 22:59:35.939015  3966 layer_factory.hpp:77] Creating layer loss
I0430 22:59:35.939023  3966 net.cpp:86] Creating Layer loss
I0430 22:59:35.939025  3966 net.cpp:408] loss <- ip4
I0430 22:59:35.939029  3966 net.cpp:408] loss <- label
I0430 22:59:35.939033  3966 net.cpp:382] loss -> loss
I0430 22:59:35.939046  3966 layer_factory.hpp:77] Creating layer loss
…
I0430 22:59:35.940219  3966 solver.cpp:173] Creating test net (#0) specified by net file: ECE595/cifar/train_test/var_everything/cifar_train_test_211.prototxt
I0430 22:59:35.940246  3966 net.cpp:296] The NetState phase (1) differed from the phase (0) specified by a rule in layer cifar
I0430 22:59:35.940341  3966 net.cpp:53] Initializing net from parameters: 
name: "CIFAR"
state {
  phase: TEST
}
layer {
  name: "cifar"
  type: "Data"
  top: "data"
  top: "label"
  include {
    phase: TEST
  }
  transform_param {
    mean_file: "examples/cifar10/mean.binaryproto"
  }
  data_param {
    source: "examples/cifar10/cifar10_test_lmdb"
    batch_size: 1000
    backend: LMDB
  }
}
layer {
  name: "conv0"
  type: "Convolution"
  bottom: "data"
  top: "conv0"
  param {
    lr_mult: 1
  }
  param {
    lr_mult: 2
  }
  convolution_param {
    num_output: 8
    pad: 2
    kernel_size: 3
    stride: 1
    weight_filler {
      type: "gaussian"
      std: 0.01
    }
    bias_filler {
      type: "constant"
    }
  }
}
layer {
  name: "Sigmoid0"
  type: "Sigmoid"
  bottom: "conv0"
  top: "Sigmoid0"
}
layer {
  name: "pool0"
  type: "Pooling"
  bottom: "Sigmoid0"
  top: "pool0"
  pooling_param {
    pool: AVE
    kernel_size: 3
    stride: 2
  }
}
layer {
  name: "ip1"
  type: "InnerProduct"
  bottom: "pool0"
  top: "ip1"
  param {
    lr_mult: 1
  }
  param {
    lr_mult: 2
  }
  inner_product_param {
    num_output: 20
    weight_filler {
      type: "gaussian"
      std: 0.01
    }
    bias_filler {
      type: "constant"
    }
  }
}
layer {
  name: "relu1"
  type: "ReLU"
  bottom: "ip1"
  top: "ip1"
}
layer {
  name: "ip2"
  type: "InnerProduct"
  bottom: "ip1"
  top: "ip2"
  param {
    lr_mult: 1
  }
  param {
    lr_mult: 2
  }
  inner_product_param {
    num_output: 10
    weight_filler {
      type: "gaussian"
      std: 0.01
    }
    bias_filler {
      type: "constant"
    }
  }
}
layer {
  name: "relu2"
  type: "ReLU"
  bottom: "ip2"
  top: "ip2"
}
layer {
  name: "ip3"
  type: "InnerProduct"
  bottom: "ip2"
  top: "ip3"
  param {
    lr_mult: 1
  }
  param {
    lr_mult: 2
  }
  inner_product_param {
    num_output: 20
    weight_filler {
      type: "gaussian"
      std: 0.01
    }
    bias_filler {
      type: "constant"
    }
  }
}
layer {
  name: "relu3"
  type: "ReLU"
  bottom: "ip3"
  top: "ip3"
}
layer {
  name: "ip4"
  type: "InnerProduct"
  bottom: "ip3"
  top: "ip4"
  param {
    lr_mult: 1
  }
  param {
    lr_mult: 2
  }
  inner_product_param {
    num_output: 10
    weight_filler {
      type: "gaussian"
      std: 0.01
    }
    bias_filler {
      type: "constant"
    }
  }
}
layer {
  name: "accuracy"
  type: "Accuracy"
  bottom: "ip4"
  bottom: "label"
  top: "accuracy"
  include {
    phase: TEST
  }
}
layer {
  name: "loss"
  type: "SoftmaxWithLoss"
  bottom: "ip4"
  bottom: "label"
  top: "loss"
}
I0430 22:59:35.940423  3966 layer_factory.hpp:77] Creating layer cifar
I0430 22:59:35.940467  3966 db_lmdb.cpp:35] Opened lmdb examples/cifar10/cifar10_test_lmdb
I0430 22:59:35.940480  3966 net.cpp:86] Creating Layer cifar
I0430 22:59:35.940485  3966 net.cpp:382] cifar -> data
I0430 22:59:35.940491  3966 net.cpp:382] cifar -> label
I0430 22:59:35.940497  3966 data_transformer.cpp:25] Loading mean file from: examples/cifar10/mean.binaryproto
I0430 22:59:35.940639  3966 data_layer.cpp:45] output data size: 1000,3,32,32
I0430 22:59:35.963220  3966 net.cpp:124] Setting up cifar
I0430 22:59:35.963263  3966 net.cpp:131] Top shape: 1000 3 32 32 (3072000)
I0430 22:59:35.963311  3966 net.cpp:131] Top shape: 1000 (1000)
I0430 22:59:35.963315  3966 net.cpp:139] Memory required for data: 12292000
I0430 22:59:35.963321  3966 layer_factory.hpp:77] Creating layer label_cifar_1_split
I0430 22:59:35.963332  3966 net.cpp:86] Creating Layer label_cifar_1_split
I0430 22:59:35.963337  3966 net.cpp:408] label_cifar_1_split <- label
I0430 22:59:35.963342  3966 net.cpp:382] label_cifar_1_split -> label_cifar_1_split_0
I0430 22:59:35.963351  3966 net.cpp:382] label_cifar_1_split -> label_cifar_1_split_1
I0430 22:59:35.963495  3966 net.cpp:124] Setting up label_cifar_1_split
I0430 22:59:35.963503  3966 net.cpp:131] Top shape: 1000 (1000)
I0430 22:59:35.963507  3966 net.cpp:131] Top shape: 1000 (1000)
I0430 22:59:35.963510  3966 net.cpp:139] Memory required for data: 12300000
I0430 22:59:35.963513  3966 layer_factory.hpp:77] Creating layer conv0
I0430 22:59:35.963526  3966 net.cpp:86] Creating Layer conv0
I0430 22:59:35.963529  3966 net.cpp:408] conv0 <- data
I0430 22:59:35.963536  3966 net.cpp:382] conv0 -> conv0
I0430 22:59:35.965370  3966 net.cpp:124] Setting up conv0
I0430 22:59:35.965385  3966 net.cpp:131] Top shape: 1000 8 34 34 (9248000)
I0430 22:59:35.965389  3966 net.cpp:139] Memory required for data: 49292000
I0430 22:59:35.965399  3966 layer_factory.hpp:77] Creating layer Sigmoid0
I0430 22:59:35.965422  3966 net.cpp:86] Creating Layer Sigmoid0
I0430 22:59:35.965425  3966 net.cpp:408] Sigmoid0 <- conv0
I0430 22:59:35.965446  3966 net.cpp:382] Sigmoid0 -> Sigmoid0
I0430 22:59:35.965659  3966 net.cpp:124] Setting up Sigmoid0
I0430 22:59:35.965670  3966 net.cpp:131] Top shape: 1000 8 34 34 (9248000)
I0430 22:59:35.965673  3966 net.cpp:139] Memory required for data: 86284000
I0430 22:59:35.965677  3966 layer_factory.hpp:77] Creating layer pool0
I0430 22:59:35.965684  3966 net.cpp:86] Creating Layer pool0
I0430 22:59:35.965687  3966 net.cpp:408] pool0 <- Sigmoid0
I0430 22:59:35.965692  3966 net.cpp:382] pool0 -> pool0
I0430 22:59:35.965972  3966 net.cpp:124] Setting up pool0
I0430 22:59:35.965982  3966 net.cpp:131] Top shape: 1000 8 17 17 (2312000)
I0430 22:59:35.965986  3966 net.cpp:139] Memory required for data: 95532000
I0430 22:59:35.965988  3966 layer_factory.hpp:77] Creating layer ip1
I0430 22:59:35.965996  3966 net.cpp:86] Creating Layer ip1
I0430 22:59:35.965999  3966 net.cpp:408] ip1 <- pool0
I0430 22:59:35.966004  3966 net.cpp:382] ip1 -> ip1
I0430 22:59:35.968278  3966 net.cpp:124] Setting up ip1
I0430 22:59:35.968288  3966 net.cpp:131] Top shape: 1000 20 (20000)
I0430 22:59:35.968292  3966 net.cpp:139] Memory required for data: 95612000
I0430 22:59:35.968328  3966 layer_factory.hpp:77] Creating layer relu1
I0430 22:59:35.968335  3966 net.cpp:86] Creating Layer relu1
I0430 22:59:35.968338  3966 net.cpp:408] relu1 <- ip1
I0430 22:59:35.968343  3966 net.cpp:369] relu1 -> ip1 (in-place)
I0430 22:59:35.968504  3966 net.cpp:124] Setting up relu1
I0430 22:59:35.968513  3966 net.cpp:131] Top shape: 1000 20 (20000)
I0430 22:59:35.968516  3966 net.cpp:139] Memory required for data: 95692000
I0430 22:59:35.968519  3966 layer_factory.hpp:77] Creating layer ip2
I0430 22:59:35.968526  3966 net.cpp:86] Creating Layer ip2
I0430 22:59:35.968529  3966 net.cpp:408] ip2 <- ip1
I0430 22:59:35.968533  3966 net.cpp:382] ip2 -> ip2
I0430 22:59:35.968642  3966 net.cpp:124] Setting up ip2
I0430 22:59:35.968649  3966 net.cpp:131] Top shape: 1000 10 (10000)
I0430 22:59:35.968652  3966 net.cpp:139] Memory required for data: 95732000
I0430 22:59:35.968659  3966 layer_factory.hpp:77] Creating layer relu2
I0430 22:59:35.968667  3966 net.cpp:86] Creating Layer relu2
I0430 22:59:35.968669  3966 net.cpp:408] relu2 <- ip2
I0430 22:59:35.968672  3966 net.cpp:369] relu2 -> ip2 (in-place)
I0430 22:59:35.969512  3966 net.cpp:124] Setting up relu2
I0430 22:59:35.969524  3966 net.cpp:131] Top shape: 1000 10 (10000)
I0430 22:59:35.969527  3966 net.cpp:139] Memory required for data: 95772000
I0430 22:59:35.969530  3966 layer_factory.hpp:77] Creating layer ip3
I0430 22:59:35.969538  3966 net.cpp:86] Creating Layer ip3
I0430 22:59:35.969557  3966 net.cpp:408] ip3 <- ip2
I0430 22:59:35.969563  3966 net.cpp:382] ip3 -> ip3
I0430 22:59:35.969669  3966 net.cpp:124] Setting up ip3
I0430 22:59:35.969676  3966 net.cpp:131] Top shape: 1000 20 (20000)
I0430 22:59:35.969681  3966 net.cpp:139] Memory required for data: 95852000
I0430 22:59:35.969686  3966 layer_factory.hpp:77] Creating layer relu3
I0430 22:59:35.969691  3966 net.cpp:86] Creating Layer relu3
I0430 22:59:35.969693  3966 net.cpp:408] relu3 <- ip3
I0430 22:59:35.969696  3966 net.cpp:369] relu3 -> ip3 (in-place)
I0430 22:59:35.969842  3966 net.cpp:124] Setting up relu3
I0430 22:59:35.969851  3966 net.cpp:131] Top shape: 1000 20 (20000)
I0430 22:59:35.969853  3966 net.cpp:139] Memory required for data: 95932000
I0430 22:59:35.969856  3966 layer_factory.hpp:77] Creating layer ip4
I0430 22:59:35.969862  3966 net.cpp:86] Creating Layer ip4
I0430 22:59:35.969866  3966 net.cpp:408] ip4 <- ip3
I0430 22:59:35.969871  3966 net.cpp:382] ip4 -> ip4
I0430 22:59:35.969987  3966 net.cpp:124] Setting up ip4
I0430 22:59:35.969995  3966 net.cpp:131] Top shape: 1000 10 (10000)
I0430 22:59:35.969998  3966 net.cpp:139] Memory required for data: 95972000
I0430 22:59:35.970005  3966 layer_factory.hpp:77] Creating layer ip4_ip4_0_split
I0430 22:59:35.970010  3966 net.cpp:86] Creating Layer ip4_ip4_0_split
I0430 22:59:35.970013  3966 net.cpp:408] ip4_ip4_0_split <- ip4
I0430 22:59:35.970018  3966 net.cpp:382] ip4_ip4_0_split -> ip4_ip4_0_split_0
I0430 22:59:35.970023  3966 net.cpp:382] ip4_ip4_0_split -> ip4_ip4_0_split_1
I0430 22:59:35.970055  3966 net.cpp:124] Setting up ip4_ip4_0_split
I0430 22:59:35.970060  3966 net.cpp:131] Top shape: 1000 10 (10000)
I0430 22:59:35.970064  3966 net.cpp:131] Top shape: 1000 10 (10000)
I0430 22:59:35.970067  3966 net.cpp:139] Memory required for data: 96052000
I0430 22:59:35.970069  3966 layer_factory.hpp:77] Creating layer accuracy
I0430 22:59:35.970075  3966 net.cpp:86] Creating Layer accuracy
I0430 22:59:35.970078  3966 net.cpp:408] accuracy <- ip4_ip4_0_split_0
I0430 22:59:35.970082  3966 net.cpp:408] accuracy <- label_cifar_1_split_0
I0430 22:59:35.970085  3966 net.cpp:382] accuracy -> accuracy
…
