…
I0501 02:10:50.122073 14039 net.cpp:296] The NetState phase (0) differed from the phase (1) specified by a rule in layer cifar
I0501 02:10:50.122088 14039 net.cpp:296] The NetState phase (0) differed from the phase (1) specified by a rule in layer accuracy
I0501 02:10:50.122169 14039 net.cpp:53] Initializing net from parameters: 
name: "CIFAR"
state {
  phase: TRAIN
  level: 0
  stage: ""
}
layer {
  name: "cifar"
  type: "Data"
  top: "data"
  top: "label"
  include {
    phase: TRAIN
  }
  transform_param {
    mean_file: "examples/cifar10/mean.binaryproto"
  }
  data_param {
    source: "examples/cifar10/cifar10_train_lmdb"
    batch_size: 111
    backend: LMDB
  }
}
layer {
  name: "conv0"
  type: "Convolution"
  bottom: "data"
  top: "conv0"
  param {
    lr_mult: 1
  }
  param {
    lr_mult: 2
  }
  convolution_param {
    num_output: 8
    pad: 2
    kernel_size: 5
    stride: 1
    weight_filler {
      type: "gaussian"
      std: 0.01
    }
    bias_filler {
      type: "constant"
    }
  }
}
layer {
  name: "Sigmoid0"
  type: "Sigmoid"
  bottom: "conv0"
  top: "Sigmoid0"
}
layer {
  name: "pool0"
  type: "Pooling"
  bottom: "Sigmoid0"
  top: "pool0"
  pooling_param {
    pool: AVE
    kernel_size: 3
    stride: 2
  }
}
layer {
  name: "ip1"
  type: "InnerProduct"
  bottom: "pool0"
  top: "ip1"
  param {
    lr_mult: 1
  }
  param {
    lr_mult: 2
  }
  inner_product_param {
    num_output: 80
    weight_filler {
      type: "gaussian"
      std: 0.01
    }
    bias_filler {
      type: "constant"
    }
  }
}
layer {
  name: "relu1"
  type: "ReLU"
  bottom: "ip1"
  top: "ip1"
}
layer {
  name: "ip2"
  type: "InnerProduct"
  bottom: "ip1"
  top: "ip2"
  param {
    lr_mult: 1
  }
  param {
    lr_mult: 2
  }
  inner_product_param {
    num_output: 10
    weight_filler {
      type: "gaussian"
      std: 0.01
    }
    bias_filler {
      type: "constant"
    }
  }
}
layer {
  name: "loss"
  type: "SoftmaxWithLoss"
  bottom: "ip2"
  bottom: "label"
  top: "loss"
}
I0501 02:10:50.122232 14039 layer_factory.hpp:77] Creating layer cifar
I0501 02:10:50.122337 14039 db_lmdb.cpp:35] Opened lmdb examples/cifar10/cifar10_train_lmdb
I0501 02:10:50.122366 14039 net.cpp:86] Creating Layer cifar
I0501 02:10:50.122375 14039 net.cpp:382] cifar -> data
I0501 02:10:50.122398 14039 net.cpp:382] cifar -> label
I0501 02:10:50.122416 14039 data_transformer.cpp:25] Loading mean file from: examples/cifar10/mean.binaryproto
I0501 02:10:50.124519 14039 data_layer.cpp:45] output data size: 111,3,32,32
I0501 02:10:50.132381 14039 net.cpp:124] Setting up cifar
I0501 02:10:50.132400 14039 net.cpp:131] Top shape: 111 3 32 32 (340992)
I0501 02:10:50.132408 14039 net.cpp:131] Top shape: 111 (111)
I0501 02:10:50.132411 14039 net.cpp:139] Memory required for data: 1364412
I0501 02:10:50.132418 14039 layer_factory.hpp:77] Creating layer conv0
I0501 02:10:50.132436 14039 net.cpp:86] Creating Layer conv0
I0501 02:10:50.132442 14039 net.cpp:408] conv0 <- data
I0501 02:10:50.132457 14039 net.cpp:382] conv0 -> conv0
I0501 02:10:50.414372 14039 net.cpp:124] Setting up conv0
I0501 02:10:50.414400 14039 net.cpp:131] Top shape: 111 8 32 32 (909312)
I0501 02:10:50.414404 14039 net.cpp:139] Memory required for data: 5001660
I0501 02:10:50.414419 14039 layer_factory.hpp:77] Creating layer Sigmoid0
I0501 02:10:50.414432 14039 net.cpp:86] Creating Layer Sigmoid0
I0501 02:10:50.414435 14039 net.cpp:408] Sigmoid0 <- conv0
I0501 02:10:50.414440 14039 net.cpp:382] Sigmoid0 -> Sigmoid0
I0501 02:10:50.414623 14039 net.cpp:124] Setting up Sigmoid0
I0501 02:10:50.414633 14039 net.cpp:131] Top shape: 111 8 32 32 (909312)
I0501 02:10:50.414635 14039 net.cpp:139] Memory required for data: 8638908
I0501 02:10:50.414639 14039 layer_factory.hpp:77] Creating layer pool0
I0501 02:10:50.414645 14039 net.cpp:86] Creating Layer pool0
I0501 02:10:50.414649 14039 net.cpp:408] pool0 <- Sigmoid0
I0501 02:10:50.414654 14039 net.cpp:382] pool0 -> pool0
I0501 02:10:50.415405 14039 net.cpp:124] Setting up pool0
I0501 02:10:50.415416 14039 net.cpp:131] Top shape: 111 8 16 16 (227328)
I0501 02:10:50.415419 14039 net.cpp:139] Memory required for data: 9548220
I0501 02:10:50.415423 14039 layer_factory.hpp:77] Creating layer ip1
I0501 02:10:50.415431 14039 net.cpp:86] Creating Layer ip1
I0501 02:10:50.415436 14039 net.cpp:408] ip1 <- pool0
I0501 02:10:50.415439 14039 net.cpp:382] ip1 -> ip1
I0501 02:10:50.419823 14039 net.cpp:124] Setting up ip1
I0501 02:10:50.419831 14039 net.cpp:131] Top shape: 111 80 (8880)
I0501 02:10:50.419834 14039 net.cpp:139] Memory required for data: 9583740
I0501 02:10:50.419842 14039 layer_factory.hpp:77] Creating layer relu1
I0501 02:10:50.419847 14039 net.cpp:86] Creating Layer relu1
I0501 02:10:50.419850 14039 net.cpp:408] relu1 <- ip1
I0501 02:10:50.419854 14039 net.cpp:369] relu1 -> ip1 (in-place)
I0501 02:10:50.420006 14039 net.cpp:124] Setting up relu1
I0501 02:10:50.420013 14039 net.cpp:131] Top shape: 111 80 (8880)
I0501 02:10:50.420017 14039 net.cpp:139] Memory required for data: 9619260
I0501 02:10:50.420019 14039 layer_factory.hpp:77] Creating layer ip2
I0501 02:10:50.420025 14039 net.cpp:86] Creating Layer ip2
I0501 02:10:50.420027 14039 net.cpp:408] ip2 <- ip1
I0501 02:10:50.420033 14039 net.cpp:382] ip2 -> ip2
I0501 02:10:50.420141 14039 net.cpp:124] Setting up ip2
I0501 02:10:50.420147 14039 net.cpp:131] Top shape: 111 10 (1110)
I0501 02:10:50.420150 14039 net.cpp:139] Memory required for data: 9623700
I0501 02:10:50.420157 14039 layer_factory.hpp:77] Creating layer loss
I0501 02:10:50.420163 14039 net.cpp:86] Creating Layer loss
I0501 02:10:50.420169 14039 net.cpp:408] loss <- ip2
I0501 02:10:50.420188 14039 net.cpp:408] loss <- label
I0501 02:10:50.420194 14039 net.cpp:382] loss -> loss
I0501 02:10:50.420227 14039 layer_factory.hpp:77] Creating layer loss
…
I0501 02:10:50.420789 14039 solver.cpp:173] Creating test net (#0) specified by net file: ECE595/cifar/train_test/var_everything/cifar_train_test_313.prototxt
I0501 02:10:50.420816 14039 net.cpp:296] The NetState phase (1) differed from the phase (0) specified by a rule in layer cifar
I0501 02:10:50.420905 14039 net.cpp:53] Initializing net from parameters: 
name: "CIFAR"
state {
  phase: TEST
}
layer {
  name: "cifar"
  type: "Data"
  top: "data"
  top: "label"
  include {
    phase: TEST
  }
  transform_param {
    mean_file: "examples/cifar10/mean.binaryproto"
  }
  data_param {
    source: "examples/cifar10/cifar10_test_lmdb"
    batch_size: 1000
    backend: LMDB
  }
}
layer {
  name: "conv0"
  type: "Convolution"
  bottom: "data"
  top: "conv0"
  param {
    lr_mult: 1
  }
  param {
    lr_mult: 2
  }
  convolution_param {
    num_output: 8
    pad: 2
    kernel_size: 5
    stride: 1
    weight_filler {
      type: "gaussian"
      std: 0.01
    }
    bias_filler {
      type: "constant"
    }
  }
}
layer {
  name: "Sigmoid0"
  type: "Sigmoid"
  bottom: "conv0"
  top: "Sigmoid0"
}
layer {
  name: "pool0"
  type: "Pooling"
  bottom: "Sigmoid0"
  top: "pool0"
  pooling_param {
    pool: AVE
    kernel_size: 3
    stride: 2
  }
}
layer {
  name: "ip1"
  type: "InnerProduct"
  bottom: "pool0"
  top: "ip1"
  param {
    lr_mult: 1
  }
  param {
    lr_mult: 2
  }
  inner_product_param {
    num_output: 80
    weight_filler {
      type: "gaussian"
      std: 0.01
    }
    bias_filler {
      type: "constant"
    }
  }
}
layer {
  name: "relu1"
  type: "ReLU"
  bottom: "ip1"
  top: "ip1"
}
layer {
  name: "ip2"
  type: "InnerProduct"
  bottom: "ip1"
  top: "ip2"
  param {
    lr_mult: 1
  }
  param {
    lr_mult: 2
  }
  inner_product_param {
    num_output: 10
    weight_filler {
      type: "gaussian"
      std: 0.01
    }
    bias_filler {
      type: "constant"
    }
  }
}
layer {
  name: "accuracy"
  type: "Accuracy"
  bottom: "ip2"
  bottom: "label"
  top: "accuracy"
  include {
    phase: TEST
  }
}
layer {
  name: "loss"
  type: "SoftmaxWithLoss"
  bottom: "ip2"
  bottom: "label"
  top: "loss"
}
I0501 02:10:50.420979 14039 layer_factory.hpp:77] Creating layer cifar
I0501 02:10:50.421023 14039 db_lmdb.cpp:35] Opened lmdb examples/cifar10/cifar10_test_lmdb
I0501 02:10:50.421036 14039 net.cpp:86] Creating Layer cifar
I0501 02:10:50.421041 14039 net.cpp:382] cifar -> data
I0501 02:10:50.421048 14039 net.cpp:382] cifar -> label
I0501 02:10:50.421054 14039 data_transformer.cpp:25] Loading mean file from: examples/cifar10/mean.binaryproto
I0501 02:10:50.421228 14039 data_layer.cpp:45] output data size: 1000,3,32,32
I0501 02:10:50.442926 14039 net.cpp:124] Setting up cifar
I0501 02:10:50.442967 14039 net.cpp:131] Top shape: 1000 3 32 32 (3072000)
I0501 02:10:50.442973 14039 net.cpp:131] Top shape: 1000 (1000)
I0501 02:10:50.442976 14039 net.cpp:139] Memory required for data: 12292000
I0501 02:10:50.442981 14039 layer_factory.hpp:77] Creating layer label_cifar_1_split
I0501 02:10:50.442992 14039 net.cpp:86] Creating Layer label_cifar_1_split
I0501 02:10:50.442996 14039 net.cpp:408] label_cifar_1_split <- label
I0501 02:10:50.443020 14039 net.cpp:382] label_cifar_1_split -> label_cifar_1_split_0
I0501 02:10:50.443028 14039 net.cpp:382] label_cifar_1_split -> label_cifar_1_split_1
I0501 02:10:50.443121 14039 net.cpp:124] Setting up label_cifar_1_split
I0501 02:10:50.443128 14039 net.cpp:131] Top shape: 1000 (1000)
I0501 02:10:50.443132 14039 net.cpp:131] Top shape: 1000 (1000)
I0501 02:10:50.443135 14039 net.cpp:139] Memory required for data: 12300000
I0501 02:10:50.443137 14039 layer_factory.hpp:77] Creating layer conv0
I0501 02:10:50.443150 14039 net.cpp:86] Creating Layer conv0
I0501 02:10:50.443153 14039 net.cpp:408] conv0 <- data
I0501 02:10:50.443158 14039 net.cpp:382] conv0 -> conv0
I0501 02:10:50.444895 14039 net.cpp:124] Setting up conv0
I0501 02:10:50.444908 14039 net.cpp:131] Top shape: 1000 8 32 32 (8192000)
I0501 02:10:50.444927 14039 net.cpp:139] Memory required for data: 45068000
I0501 02:10:50.444937 14039 layer_factory.hpp:77] Creating layer Sigmoid0
I0501 02:10:50.444944 14039 net.cpp:86] Creating Layer Sigmoid0
I0501 02:10:50.444947 14039 net.cpp:408] Sigmoid0 <- conv0
I0501 02:10:50.444952 14039 net.cpp:382] Sigmoid0 -> Sigmoid0
I0501 02:10:50.445178 14039 net.cpp:124] Setting up Sigmoid0
I0501 02:10:50.445188 14039 net.cpp:131] Top shape: 1000 8 32 32 (8192000)
I0501 02:10:50.445190 14039 net.cpp:139] Memory required for data: 77836000
I0501 02:10:50.445194 14039 layer_factory.hpp:77] Creating layer pool0
I0501 02:10:50.445201 14039 net.cpp:86] Creating Layer pool0
I0501 02:10:50.445204 14039 net.cpp:408] pool0 <- Sigmoid0
I0501 02:10:50.445209 14039 net.cpp:382] pool0 -> pool0
I0501 02:10:50.446111 14039 net.cpp:124] Setting up pool0
I0501 02:10:50.446149 14039 net.cpp:131] Top shape: 1000 8 16 16 (2048000)
I0501 02:10:50.446152 14039 net.cpp:139] Memory required for data: 86028000
I0501 02:10:50.446156 14039 layer_factory.hpp:77] Creating layer ip1
I0501 02:10:50.446164 14039 net.cpp:86] Creating Layer ip1
I0501 02:10:50.446168 14039 net.cpp:408] ip1 <- pool0
I0501 02:10:50.446188 14039 net.cpp:382] ip1 -> ip1
I0501 02:10:50.451642 14039 net.cpp:124] Setting up ip1
I0501 02:10:50.451653 14039 net.cpp:131] Top shape: 1000 80 (80000)
I0501 02:10:50.451674 14039 net.cpp:139] Memory required for data: 86348000
I0501 02:10:50.451689 14039 layer_factory.hpp:77] Creating layer relu1
I0501 02:10:50.451710 14039 net.cpp:86] Creating Layer relu1
I0501 02:10:50.451714 14039 net.cpp:408] relu1 <- ip1
I0501 02:10:50.451719 14039 net.cpp:369] relu1 -> ip1 (in-place)
I0501 02:10:50.451879 14039 net.cpp:124] Setting up relu1
I0501 02:10:50.451887 14039 net.cpp:131] Top shape: 1000 80 (80000)
I0501 02:10:50.451890 14039 net.cpp:139] Memory required for data: 86668000
I0501 02:10:50.451894 14039 layer_factory.hpp:77] Creating layer ip2
I0501 02:10:50.451900 14039 net.cpp:86] Creating Layer ip2
I0501 02:10:50.451903 14039 net.cpp:408] ip2 <- ip1
I0501 02:10:50.451908 14039 net.cpp:382] ip2 -> ip2
I0501 02:10:50.452054 14039 net.cpp:124] Setting up ip2
I0501 02:10:50.452062 14039 net.cpp:131] Top shape: 1000 10 (10000)
I0501 02:10:50.452065 14039 net.cpp:139] Memory required for data: 86708000
I0501 02:10:50.452072 14039 layer_factory.hpp:77] Creating layer ip2_ip2_0_split
I0501 02:10:50.452078 14039 net.cpp:86] Creating Layer ip2_ip2_0_split
I0501 02:10:50.452081 14039 net.cpp:408] ip2_ip2_0_split <- ip2
I0501 02:10:50.452087 14039 net.cpp:382] ip2_ip2_0_split -> ip2_ip2_0_split_0
I0501 02:10:50.452093 14039 net.cpp:382] ip2_ip2_0_split -> ip2_ip2_0_split_1
I0501 02:10:50.452124 14039 net.cpp:124] Setting up ip2_ip2_0_split
I0501 02:10:50.452131 14039 net.cpp:131] Top shape: 1000 10 (10000)
I0501 02:10:50.452136 14039 net.cpp:131] Top shape: 1000 10 (10000)
I0501 02:10:50.452138 14039 net.cpp:139] Memory required for data: 86788000
I0501 02:10:50.452142 14039 layer_factory.hpp:77] Creating layer accuracy
I0501 02:10:50.452150 14039 net.cpp:86] Creating Layer accuracy
I0501 02:10:50.452153 14039 net.cpp:408] accuracy <- ip2_ip2_0_split_0
I0501 02:10:50.452157 14039 net.cpp:408] accuracy <- label_cifar_1_split_0
I0501 02:10:50.452162 14039 net.cpp:382] accuracy -> accuracy
…
