…
I0501 04:54:28.128173 26972 net.cpp:296] The NetState phase (0) differed from the phase (1) specified by a rule in layer cifar
I0501 04:54:28.128193 26972 net.cpp:296] The NetState phase (0) differed from the phase (1) specified by a rule in layer accuracy
I0501 04:54:28.128298 26972 net.cpp:53] Initializing net from parameters: 
name: "CIFAR"
state {
  phase: TRAIN
  level: 0
  stage: ""
}
layer {
  name: "cifar"
  type: "Data"
  top: "data"
  top: "label"
  include {
    phase: TRAIN
  }
  transform_param {
    mean_file: "examples/cifar10/mean.binaryproto"
  }
  data_param {
    source: "examples/cifar10/cifar10_train_lmdb"
    batch_size: 111
    backend: LMDB
  }
}
layer {
  name: "conv0"
  type: "Convolution"
  bottom: "data"
  top: "conv0"
  param {
    lr_mult: 1
  }
  param {
    lr_mult: 2
  }
  convolution_param {
    num_output: 8
    pad: 2
    kernel_size: 5
    stride: 1
    weight_filler {
      type: "gaussian"
      std: 0.01
    }
    bias_filler {
      type: "constant"
    }
  }
}
layer {
  name: "Sigmoid0"
  type: "Sigmoid"
  bottom: "conv0"
  top: "Sigmoid0"
}
layer {
  name: "pool0"
  type: "Pooling"
  bottom: "Sigmoid0"
  top: "pool0"
  pooling_param {
    pool: AVE
    kernel_size: 3
    stride: 2
  }
}
layer {
  name: "ip1"
  type: "InnerProduct"
  bottom: "pool0"
  top: "ip1"
  param {
    lr_mult: 1
  }
  param {
    lr_mult: 2
  }
  inner_product_param {
    num_output: 40
    weight_filler {
      type: "gaussian"
      std: 0.01
    }
    bias_filler {
      type: "constant"
    }
  }
}
layer {
  name: "relu1"
  type: "ReLU"
  bottom: "ip1"
  top: "ip1"
}
layer {
  name: "ip2"
  type: "InnerProduct"
  bottom: "ip1"
  top: "ip2"
  param {
    lr_mult: 1
  }
  param {
    lr_mult: 2
  }
  inner_product_param {
    num_output: 40
    weight_filler {
      type: "gaussian"
      std: 0.01
    }
    bias_filler {
      type: "constant"
    }
  }
}
layer {
  name: "relu2"
  type: "ReLU"
  bottom: "ip2"
  top: "ip2"
}
layer {
  name: "ip3"
  type: "InnerProduct"
  bottom: "ip2"
  top: "ip3"
  param {
    lr_mult: 1
  }
  param {
    lr_mult: 2
  }
  inner_product_param {
    num_output: 20
    weight_filler {
      type: "gaussian"
      std: 0.01
    }
    bias_filler {
      type: "constant"
    }
  }
}
layer {
  name: "relu3"
  type: "ReLU"
  bottom: "ip3"
  top: "ip3"
}
layer {
  name: "ip4"
  type: "InnerProduct"
  bottom: "ip3"
  top: "ip4"
  param {
    lr_mult: 1
  }
  param {
    lr_mult: 2
  }
  inner_product_param {
    num_output: 10
    weight_filler {
      type: "gaussian"
      std: 0.01
    }
    bias_filler {
      type: "constant"
    }
  }
}
layer {
  name: "loss"
  type: "SoftmaxWithLoss"
  bottom: "ip4"
  bottom: "label"
  top: "loss"
}
I0501 04:54:28.128378 26972 layer_factory.hpp:77] Creating layer cifar
I0501 04:54:28.128478 26972 db_lmdb.cpp:35] Opened lmdb examples/cifar10/cifar10_train_lmdb
I0501 04:54:28.128504 26972 net.cpp:86] Creating Layer cifar
I0501 04:54:28.128515 26972 net.cpp:382] cifar -> data
I0501 04:54:28.128538 26972 net.cpp:382] cifar -> label
I0501 04:54:28.128549 26972 data_transformer.cpp:25] Loading mean file from: examples/cifar10/mean.binaryproto
I0501 04:54:28.130728 26972 data_layer.cpp:45] output data size: 111,3,32,32
I0501 04:54:28.138649 26972 net.cpp:124] Setting up cifar
I0501 04:54:28.138670 26972 net.cpp:131] Top shape: 111 3 32 32 (340992)
I0501 04:54:28.138676 26972 net.cpp:131] Top shape: 111 (111)
I0501 04:54:28.138680 26972 net.cpp:139] Memory required for data: 1364412
I0501 04:54:28.138705 26972 layer_factory.hpp:77] Creating layer conv0
I0501 04:54:28.138722 26972 net.cpp:86] Creating Layer conv0
I0501 04:54:28.138728 26972 net.cpp:408] conv0 <- data
I0501 04:54:28.138741 26972 net.cpp:382] conv0 -> conv0
I0501 04:54:28.426854 26972 net.cpp:124] Setting up conv0
I0501 04:54:28.426882 26972 net.cpp:131] Top shape: 111 8 32 32 (909312)
I0501 04:54:28.426885 26972 net.cpp:139] Memory required for data: 5001660
I0501 04:54:28.426903 26972 layer_factory.hpp:77] Creating layer Sigmoid0
I0501 04:54:28.426914 26972 net.cpp:86] Creating Layer Sigmoid0
I0501 04:54:28.426918 26972 net.cpp:408] Sigmoid0 <- conv0
I0501 04:54:28.426924 26972 net.cpp:382] Sigmoid0 -> Sigmoid0
I0501 04:54:28.427098 26972 net.cpp:124] Setting up Sigmoid0
I0501 04:54:28.427109 26972 net.cpp:131] Top shape: 111 8 32 32 (909312)
I0501 04:54:28.427112 26972 net.cpp:139] Memory required for data: 8638908
I0501 04:54:28.427115 26972 layer_factory.hpp:77] Creating layer pool0
I0501 04:54:28.427122 26972 net.cpp:86] Creating Layer pool0
I0501 04:54:28.427125 26972 net.cpp:408] pool0 <- Sigmoid0
I0501 04:54:28.427130 26972 net.cpp:382] pool0 -> pool0
I0501 04:54:28.427916 26972 net.cpp:124] Setting up pool0
I0501 04:54:28.427929 26972 net.cpp:131] Top shape: 111 8 16 16 (227328)
I0501 04:54:28.427932 26972 net.cpp:139] Memory required for data: 9548220
I0501 04:54:28.427937 26972 layer_factory.hpp:77] Creating layer ip1
I0501 04:54:28.427947 26972 net.cpp:86] Creating Layer ip1
I0501 04:54:28.427949 26972 net.cpp:408] ip1 <- pool0
I0501 04:54:28.427955 26972 net.cpp:382] ip1 -> ip1
I0501 04:54:28.430346 26972 net.cpp:124] Setting up ip1
I0501 04:54:28.430356 26972 net.cpp:131] Top shape: 111 40 (4440)
I0501 04:54:28.430358 26972 net.cpp:139] Memory required for data: 9565980
I0501 04:54:28.430366 26972 layer_factory.hpp:77] Creating layer relu1
I0501 04:54:28.430372 26972 net.cpp:86] Creating Layer relu1
I0501 04:54:28.430375 26972 net.cpp:408] relu1 <- ip1
I0501 04:54:28.430380 26972 net.cpp:369] relu1 -> ip1 (in-place)
I0501 04:54:28.430533 26972 net.cpp:124] Setting up relu1
I0501 04:54:28.430542 26972 net.cpp:131] Top shape: 111 40 (4440)
I0501 04:54:28.430546 26972 net.cpp:139] Memory required for data: 9583740
I0501 04:54:28.430548 26972 layer_factory.hpp:77] Creating layer ip2
I0501 04:54:28.430554 26972 net.cpp:86] Creating Layer ip2
I0501 04:54:28.430558 26972 net.cpp:408] ip2 <- ip1
I0501 04:54:28.430563 26972 net.cpp:382] ip2 -> ip2
I0501 04:54:28.430697 26972 net.cpp:124] Setting up ip2
I0501 04:54:28.430704 26972 net.cpp:131] Top shape: 111 40 (4440)
I0501 04:54:28.430707 26972 net.cpp:139] Memory required for data: 9601500
I0501 04:54:28.430716 26972 layer_factory.hpp:77] Creating layer relu2
I0501 04:54:28.430719 26972 net.cpp:86] Creating Layer relu2
I0501 04:54:28.430723 26972 net.cpp:408] relu2 <- ip2
I0501 04:54:28.430727 26972 net.cpp:369] relu2 -> ip2 (in-place)
I0501 04:54:28.430876 26972 net.cpp:124] Setting up relu2
I0501 04:54:28.430883 26972 net.cpp:131] Top shape: 111 40 (4440)
I0501 04:54:28.430887 26972 net.cpp:139] Memory required for data: 9619260
I0501 04:54:28.430891 26972 layer_factory.hpp:77] Creating layer ip3
I0501 04:54:28.430897 26972 net.cpp:86] Creating Layer ip3
I0501 04:54:28.430901 26972 net.cpp:408] ip3 <- ip2
I0501 04:54:28.430905 26972 net.cpp:382] ip3 -> ip3
I0501 04:54:28.431016 26972 net.cpp:124] Setting up ip3
I0501 04:54:28.431023 26972 net.cpp:131] Top shape: 111 20 (2220)
I0501 04:54:28.431026 26972 net.cpp:139] Memory required for data: 9628140
I0501 04:54:28.431032 26972 layer_factory.hpp:77] Creating layer relu3
I0501 04:54:28.431036 26972 net.cpp:86] Creating Layer relu3
I0501 04:54:28.431041 26972 net.cpp:408] relu3 <- ip3
I0501 04:54:28.431044 26972 net.cpp:369] relu3 -> ip3 (in-place)
I0501 04:54:28.431190 26972 net.cpp:124] Setting up relu3
I0501 04:54:28.431198 26972 net.cpp:131] Top shape: 111 20 (2220)
I0501 04:54:28.431201 26972 net.cpp:139] Memory required for data: 9637020
I0501 04:54:28.431205 26972 layer_factory.hpp:77] Creating layer ip4
I0501 04:54:28.431226 26972 net.cpp:86] Creating Layer ip4
I0501 04:54:28.431228 26972 net.cpp:408] ip4 <- ip3
I0501 04:54:28.431233 26972 net.cpp:382] ip4 -> ip4
I0501 04:54:28.431334 26972 net.cpp:124] Setting up ip4
I0501 04:54:28.431341 26972 net.cpp:131] Top shape: 111 10 (1110)
I0501 04:54:28.431344 26972 net.cpp:139] Memory required for data: 9641460
I0501 04:54:28.431351 26972 layer_factory.hpp:77] Creating layer loss
I0501 04:54:28.431357 26972 net.cpp:86] Creating Layer loss
I0501 04:54:28.431360 26972 net.cpp:408] loss <- ip4
I0501 04:54:28.431365 26972 net.cpp:408] loss <- label
I0501 04:54:28.431370 26972 net.cpp:382] loss -> loss
I0501 04:54:28.431387 26972 layer_factory.hpp:77] Creating layer loss
…
I0501 04:54:28.432613 26972 solver.cpp:173] Creating test net (#0) specified by net file: ECE595/cifar/train_test/var_everything/cifar_train_test_401.prototxt
I0501 04:54:28.432641 26972 net.cpp:296] The NetState phase (1) differed from the phase (0) specified by a rule in layer cifar
I0501 04:54:28.432736 26972 net.cpp:53] Initializing net from parameters: 
name: "CIFAR"
state {
  phase: TEST
}
layer {
  name: "cifar"
  type: "Data"
  top: "data"
  top: "label"
  include {
    phase: TEST
  }
  transform_param {
    mean_file: "examples/cifar10/mean.binaryproto"
  }
  data_param {
    source: "examples/cifar10/cifar10_test_lmdb"
    batch_size: 1000
    backend: LMDB
  }
}
layer {
  name: "conv0"
  type: "Convolution"
  bottom: "data"
  top: "conv0"
  param {
    lr_mult: 1
  }
  param {
    lr_mult: 2
  }
  convolution_param {
    num_output: 8
    pad: 2
    kernel_size: 5
    stride: 1
    weight_filler {
      type: "gaussian"
      std: 0.01
    }
    bias_filler {
      type: "constant"
    }
  }
}
layer {
  name: "Sigmoid0"
  type: "Sigmoid"
  bottom: "conv0"
  top: "Sigmoid0"
}
layer {
  name: "pool0"
  type: "Pooling"
  bottom: "Sigmoid0"
  top: "pool0"
  pooling_param {
    pool: AVE
    kernel_size: 3
    stride: 2
  }
}
layer {
  name: "ip1"
  type: "InnerProduct"
  bottom: "pool0"
  top: "ip1"
  param {
    lr_mult: 1
  }
  param {
    lr_mult: 2
  }
  inner_product_param {
    num_output: 40
    weight_filler {
      type: "gaussian"
      std: 0.01
    }
    bias_filler {
      type: "constant"
    }
  }
}
layer {
  name: "relu1"
  type: "ReLU"
  bottom: "ip1"
  top: "ip1"
}
layer {
  name: "ip2"
  type: "InnerProduct"
  bottom: "ip1"
  top: "ip2"
  param {
    lr_mult: 1
  }
  param {
    lr_mult: 2
  }
  inner_product_param {
    num_output: 40
    weight_filler {
      type: "gaussian"
      std: 0.01
    }
    bias_filler {
      type: "constant"
    }
  }
}
layer {
  name: "relu2"
  type: "ReLU"
  bottom: "ip2"
  top: "ip2"
}
layer {
  name: "ip3"
  type: "InnerProduct"
  bottom: "ip2"
  top: "ip3"
  param {
    lr_mult: 1
  }
  param {
    lr_mult: 2
  }
  inner_product_param {
    num_output: 20
    weight_filler {
      type: "gaussian"
      std: 0.01
    }
    bias_filler {
      type: "constant"
    }
  }
}
layer {
  name: "relu3"
  type: "ReLU"
  bottom: "ip3"
  top: "ip3"
}
layer {
  name: "ip4"
  type: "InnerProduct"
  bottom: "ip3"
  top: "ip4"
  param {
    lr_mult: 1
  }
  param {
    lr_mult: 2
  }
  inner_product_param {
    num_output: 10
    weight_filler {
      type: "gaussian"
      std: 0.01
    }
    bias_filler {
      type: "constant"
    }
  }
}
layer {
  name: "accuracy"
  type: "Accuracy"
  bottom: "ip4"
  bottom: "label"
  top: "accuracy"
  include {
    phase: TEST
  }
}
layer {
  name: "loss"
  type: "SoftmaxWithLoss"
  bottom: "ip4"
  bottom: "label"
  top: "loss"
}
I0501 04:54:28.432826 26972 layer_factory.hpp:77] Creating layer cifar
I0501 04:54:28.432875 26972 db_lmdb.cpp:35] Opened lmdb examples/cifar10/cifar10_test_lmdb
I0501 04:54:28.432888 26972 net.cpp:86] Creating Layer cifar
I0501 04:54:28.432893 26972 net.cpp:382] cifar -> data
I0501 04:54:28.432901 26972 net.cpp:382] cifar -> label
I0501 04:54:28.432907 26972 data_transformer.cpp:25] Loading mean file from: examples/cifar10/mean.binaryproto
I0501 04:54:28.433069 26972 data_layer.cpp:45] output data size: 1000,3,32,32
I0501 04:54:28.455230 26972 net.cpp:124] Setting up cifar
I0501 04:54:28.455255 26972 net.cpp:131] Top shape: 1000 3 32 32 (3072000)
I0501 04:54:28.455261 26972 net.cpp:131] Top shape: 1000 (1000)
I0501 04:54:28.455265 26972 net.cpp:139] Memory required for data: 12292000
I0501 04:54:28.455271 26972 layer_factory.hpp:77] Creating layer label_cifar_1_split
I0501 04:54:28.455286 26972 net.cpp:86] Creating Layer label_cifar_1_split
I0501 04:54:28.455291 26972 net.cpp:408] label_cifar_1_split <- label
I0501 04:54:28.455297 26972 net.cpp:382] label_cifar_1_split -> label_cifar_1_split_0
I0501 04:54:28.455305 26972 net.cpp:382] label_cifar_1_split -> label_cifar_1_split_1
I0501 04:54:28.455400 26972 net.cpp:124] Setting up label_cifar_1_split
I0501 04:54:28.455409 26972 net.cpp:131] Top shape: 1000 (1000)
I0501 04:54:28.455411 26972 net.cpp:131] Top shape: 1000 (1000)
I0501 04:54:28.455415 26972 net.cpp:139] Memory required for data: 12300000
I0501 04:54:28.455417 26972 layer_factory.hpp:77] Creating layer conv0
I0501 04:54:28.455430 26972 net.cpp:86] Creating Layer conv0
I0501 04:54:28.455432 26972 net.cpp:408] conv0 <- data
I0501 04:54:28.455438 26972 net.cpp:382] conv0 -> conv0
I0501 04:54:28.456920 26972 net.cpp:124] Setting up conv0
I0501 04:54:28.456949 26972 net.cpp:131] Top shape: 1000 8 32 32 (8192000)
I0501 04:54:28.456954 26972 net.cpp:139] Memory required for data: 45068000
I0501 04:54:28.456979 26972 layer_factory.hpp:77] Creating layer Sigmoid0
I0501 04:54:28.456986 26972 net.cpp:86] Creating Layer Sigmoid0
I0501 04:54:28.456990 26972 net.cpp:408] Sigmoid0 <- conv0
I0501 04:54:28.456995 26972 net.cpp:382] Sigmoid0 -> Sigmoid0
I0501 04:54:28.457301 26972 net.cpp:124] Setting up Sigmoid0
I0501 04:54:28.457310 26972 net.cpp:131] Top shape: 1000 8 32 32 (8192000)
I0501 04:54:28.457314 26972 net.cpp:139] Memory required for data: 77836000
I0501 04:54:28.457331 26972 layer_factory.hpp:77] Creating layer pool0
I0501 04:54:28.457340 26972 net.cpp:86] Creating Layer pool0
I0501 04:54:28.457342 26972 net.cpp:408] pool0 <- Sigmoid0
I0501 04:54:28.457347 26972 net.cpp:382] pool0 -> pool0
I0501 04:54:28.458457 26972 net.cpp:124] Setting up pool0
I0501 04:54:28.458468 26972 net.cpp:131] Top shape: 1000 8 16 16 (2048000)
I0501 04:54:28.458472 26972 net.cpp:139] Memory required for data: 86028000
I0501 04:54:28.458474 26972 layer_factory.hpp:77] Creating layer ip1
I0501 04:54:28.458482 26972 net.cpp:86] Creating Layer ip1
I0501 04:54:28.458485 26972 net.cpp:408] ip1 <- pool0
I0501 04:54:28.458490 26972 net.cpp:382] ip1 -> ip1
I0501 04:54:28.460719 26972 net.cpp:124] Setting up ip1
I0501 04:54:28.460726 26972 net.cpp:131] Top shape: 1000 40 (40000)
I0501 04:54:28.460729 26972 net.cpp:139] Memory required for data: 86188000
I0501 04:54:28.460752 26972 layer_factory.hpp:77] Creating layer relu1
I0501 04:54:28.460757 26972 net.cpp:86] Creating Layer relu1
I0501 04:54:28.460760 26972 net.cpp:408] relu1 <- ip1
I0501 04:54:28.460764 26972 net.cpp:369] relu1 -> ip1 (in-place)
I0501 04:54:28.460927 26972 net.cpp:124] Setting up relu1
I0501 04:54:28.460935 26972 net.cpp:131] Top shape: 1000 40 (40000)
I0501 04:54:28.460938 26972 net.cpp:139] Memory required for data: 86348000
I0501 04:54:28.460942 26972 layer_factory.hpp:77] Creating layer ip2
I0501 04:54:28.460947 26972 net.cpp:86] Creating Layer ip2
I0501 04:54:28.460950 26972 net.cpp:408] ip2 <- ip1
I0501 04:54:28.460955 26972 net.cpp:382] ip2 -> ip2
I0501 04:54:28.461092 26972 net.cpp:124] Setting up ip2
I0501 04:54:28.461100 26972 net.cpp:131] Top shape: 1000 40 (40000)
I0501 04:54:28.461103 26972 net.cpp:139] Memory required for data: 86508000
I0501 04:54:28.461110 26972 layer_factory.hpp:77] Creating layer relu2
I0501 04:54:28.461117 26972 net.cpp:86] Creating Layer relu2
I0501 04:54:28.461120 26972 net.cpp:408] relu2 <- ip2
I0501 04:54:28.461123 26972 net.cpp:369] relu2 -> ip2 (in-place)
I0501 04:54:28.461887 26972 net.cpp:124] Setting up relu2
I0501 04:54:28.461899 26972 net.cpp:131] Top shape: 1000 40 (40000)
I0501 04:54:28.461902 26972 net.cpp:139] Memory required for data: 86668000
I0501 04:54:28.461906 26972 layer_factory.hpp:77] Creating layer ip3
I0501 04:54:28.461912 26972 net.cpp:86] Creating Layer ip3
I0501 04:54:28.461915 26972 net.cpp:408] ip3 <- ip2
I0501 04:54:28.461921 26972 net.cpp:382] ip3 -> ip3
I0501 04:54:28.462060 26972 net.cpp:124] Setting up ip3
I0501 04:54:28.462069 26972 net.cpp:131] Top shape: 1000 20 (20000)
I0501 04:54:28.462071 26972 net.cpp:139] Memory required for data: 86748000
I0501 04:54:28.462076 26972 layer_factory.hpp:77] Creating layer relu3
I0501 04:54:28.462081 26972 net.cpp:86] Creating Layer relu3
I0501 04:54:28.462085 26972 net.cpp:408] relu3 <- ip3
I0501 04:54:28.462090 26972 net.cpp:369] relu3 -> ip3 (in-place)
I0501 04:54:28.462234 26972 net.cpp:124] Setting up relu3
I0501 04:54:28.462241 26972 net.cpp:131] Top shape: 1000 20 (20000)
I0501 04:54:28.462244 26972 net.cpp:139] Memory required for data: 86828000
I0501 04:54:28.462247 26972 layer_factory.hpp:77] Creating layer ip4
I0501 04:54:28.462254 26972 net.cpp:86] Creating Layer ip4
I0501 04:54:28.462256 26972 net.cpp:408] ip4 <- ip3
I0501 04:54:28.462261 26972 net.cpp:382] ip4 -> ip4
I0501 04:54:28.462379 26972 net.cpp:124] Setting up ip4
I0501 04:54:28.462388 26972 net.cpp:131] Top shape: 1000 10 (10000)
I0501 04:54:28.462405 26972 net.cpp:139] Memory required for data: 86868000
I0501 04:54:28.462414 26972 layer_factory.hpp:77] Creating layer ip4_ip4_0_split
I0501 04:54:28.462419 26972 net.cpp:86] Creating Layer ip4_ip4_0_split
I0501 04:54:28.462422 26972 net.cpp:408] ip4_ip4_0_split <- ip4
I0501 04:54:28.462427 26972 net.cpp:382] ip4_ip4_0_split -> ip4_ip4_0_split_0
I0501 04:54:28.462433 26972 net.cpp:382] ip4_ip4_0_split -> ip4_ip4_0_split_1
I0501 04:54:28.462463 26972 net.cpp:124] Setting up ip4_ip4_0_split
I0501 04:54:28.462469 26972 net.cpp:131] Top shape: 1000 10 (10000)
I0501 04:54:28.462473 26972 net.cpp:131] Top shape: 1000 10 (10000)
I0501 04:54:28.462476 26972 net.cpp:139] Memory required for data: 86948000
I0501 04:54:28.462481 26972 layer_factory.hpp:77] Creating layer accuracy
I0501 04:54:28.462486 26972 net.cpp:86] Creating Layer accuracy
I0501 04:54:28.462489 26972 net.cpp:408] accuracy <- ip4_ip4_0_split_0
I0501 04:54:28.462493 26972 net.cpp:408] accuracy <- label_cifar_1_split_0
I0501 04:54:28.462497 26972 net.cpp:382] accuracy -> accuracy
…
