…
I0430 20:38:51.010118 29121 net.cpp:296] The NetState phase (0) differed from the phase (1) specified by a rule in layer cifar
I0430 20:38:51.010134 29121 net.cpp:296] The NetState phase (0) differed from the phase (1) specified by a rule in layer accuracy
I0430 20:38:51.010223 29121 net.cpp:53] Initializing net from parameters: 
name: "CIFAR"
state {
  phase: TRAIN
  level: 0
  stage: ""
}
layer {
  name: "cifar"
  type: "Data"
  top: "data"
  top: "label"
  include {
    phase: TRAIN
  }
  transform_param {
    mean_file: "examples/cifar10/mean.binaryproto"
  }
  data_param {
    source: "examples/cifar10/cifar10_train_lmdb"
    batch_size: 111
    backend: LMDB
  }
}
layer {
  name: "ip1"
  type: "InnerProduct"
  bottom: "data"
  top: "ip1"
  param {
    lr_mult: 1
  }
  param {
    lr_mult: 2
  }
  inner_product_param {
    num_output: 160
    weight_filler {
      type: "gaussian"
      std: 0.01
    }
    bias_filler {
      type: "constant"
    }
  }
}
layer {
  name: "relu1"
  type: "ReLU"
  bottom: "ip1"
  top: "ip1"
}
layer {
  name: "ip2"
  type: "InnerProduct"
  bottom: "ip1"
  top: "ip2"
  param {
    lr_mult: 1
  }
  param {
    lr_mult: 2
  }
  inner_product_param {
    num_output: 20
    weight_filler {
      type: "gaussian"
      std: 0.01
    }
    bias_filler {
      type: "constant"
    }
  }
}
layer {
  name: "relu2"
  type: "ReLU"
  bottom: "ip2"
  top: "ip2"
}
layer {
  name: "ip3"
  type: "InnerProduct"
  bottom: "ip2"
  top: "ip3"
  param {
    lr_mult: 1
  }
  param {
    lr_mult: 2
  }
  inner_product_param {
    num_output: 20
    weight_filler {
      type: "gaussian"
      std: 0.01
    }
    bias_filler {
      type: "constant"
    }
  }
}
layer {
  name: "relu3"
  type: "ReLU"
  bottom: "ip3"
  top: "ip3"
}
layer {
  name: "ip4"
  type: "InnerProduct"
  bottom: "ip3"
  top: "ip4"
  param {
    lr_mult: 1
  }
  param {
    lr_mult: 2
  }
  inner_product_param {
    num_output: 10
    weight_filler {
      type: "gaussian"
      std: 0.01
    }
    bias_filler {
      type: "constant"
    }
  }
}
layer {
  name: "loss"
  type: "SoftmaxWithLoss"
  bottom: "ip4"
  bottom: "label"
  top: "loss"
}
I0430 20:38:51.010295 29121 layer_factory.hpp:77] Creating layer cifar
I0430 20:38:51.010393 29121 db_lmdb.cpp:35] Opened lmdb examples/cifar10/cifar10_train_lmdb
I0430 20:38:51.010421 29121 net.cpp:86] Creating Layer cifar
I0430 20:38:51.010429 29121 net.cpp:382] cifar -> data
I0430 20:38:51.010454 29121 net.cpp:382] cifar -> label
I0430 20:38:51.010470 29121 data_transformer.cpp:25] Loading mean file from: examples/cifar10/mean.binaryproto
I0430 20:38:51.012583 29121 data_layer.cpp:45] output data size: 111,3,32,32
I0430 20:38:51.020490 29121 net.cpp:124] Setting up cifar
I0430 20:38:51.020512 29121 net.cpp:131] Top shape: 111 3 32 32 (340992)
I0430 20:38:51.020519 29121 net.cpp:131] Top shape: 111 (111)
I0430 20:38:51.020524 29121 net.cpp:139] Memory required for data: 1364412
I0430 20:38:51.020530 29121 layer_factory.hpp:77] Creating layer ip1
I0430 20:38:51.020541 29121 net.cpp:86] Creating Layer ip1
I0430 20:38:51.020547 29121 net.cpp:408] ip1 <- data
I0430 20:38:51.020560 29121 net.cpp:382] ip1 -> ip1
I0430 20:38:51.037837 29121 net.cpp:124] Setting up ip1
I0430 20:38:51.037854 29121 net.cpp:131] Top shape: 111 160 (17760)
I0430 20:38:51.037858 29121 net.cpp:139] Memory required for data: 1435452
I0430 20:38:51.037873 29121 layer_factory.hpp:77] Creating layer relu1
I0430 20:38:51.037899 29121 net.cpp:86] Creating Layer relu1
I0430 20:38:51.037904 29121 net.cpp:408] relu1 <- ip1
I0430 20:38:51.037909 29121 net.cpp:369] relu1 -> ip1 (in-place)
I0430 20:38:51.296272 29121 net.cpp:124] Setting up relu1
I0430 20:38:51.296315 29121 net.cpp:131] Top shape: 111 160 (17760)
I0430 20:38:51.296320 29121 net.cpp:139] Memory required for data: 1506492
I0430 20:38:51.296325 29121 layer_factory.hpp:77] Creating layer ip2
I0430 20:38:51.296340 29121 net.cpp:86] Creating Layer ip2
I0430 20:38:51.296345 29121 net.cpp:408] ip2 <- ip1
I0430 20:38:51.296352 29121 net.cpp:382] ip2 -> ip2
I0430 20:38:51.296579 29121 net.cpp:124] Setting up ip2
I0430 20:38:51.296588 29121 net.cpp:131] Top shape: 111 20 (2220)
I0430 20:38:51.296591 29121 net.cpp:139] Memory required for data: 1515372
I0430 20:38:51.296602 29121 layer_factory.hpp:77] Creating layer relu2
I0430 20:38:51.296608 29121 net.cpp:86] Creating Layer relu2
I0430 20:38:51.296612 29121 net.cpp:408] relu2 <- ip2
I0430 20:38:51.296617 29121 net.cpp:369] relu2 -> ip2 (in-place)
I0430 20:38:51.297448 29121 net.cpp:124] Setting up relu2
I0430 20:38:51.297461 29121 net.cpp:131] Top shape: 111 20 (2220)
I0430 20:38:51.297480 29121 net.cpp:139] Memory required for data: 1524252
I0430 20:38:51.297483 29121 layer_factory.hpp:77] Creating layer ip3
I0430 20:38:51.297490 29121 net.cpp:86] Creating Layer ip3
I0430 20:38:51.297493 29121 net.cpp:408] ip3 <- ip2
I0430 20:38:51.297499 29121 net.cpp:382] ip3 -> ip3
I0430 20:38:51.298493 29121 net.cpp:124] Setting up ip3
I0430 20:38:51.298521 29121 net.cpp:131] Top shape: 111 20 (2220)
I0430 20:38:51.298526 29121 net.cpp:139] Memory required for data: 1533132
I0430 20:38:51.298533 29121 layer_factory.hpp:77] Creating layer relu3
I0430 20:38:51.298538 29121 net.cpp:86] Creating Layer relu3
I0430 20:38:51.298542 29121 net.cpp:408] relu3 <- ip3
I0430 20:38:51.298547 29121 net.cpp:369] relu3 -> ip3 (in-place)
I0430 20:38:51.298732 29121 net.cpp:124] Setting up relu3
I0430 20:38:51.298740 29121 net.cpp:131] Top shape: 111 20 (2220)
I0430 20:38:51.298743 29121 net.cpp:139] Memory required for data: 1542012
I0430 20:38:51.298748 29121 layer_factory.hpp:77] Creating layer ip4
I0430 20:38:51.298753 29121 net.cpp:86] Creating Layer ip4
I0430 20:38:51.298756 29121 net.cpp:408] ip4 <- ip3
I0430 20:38:51.298761 29121 net.cpp:382] ip4 -> ip4
I0430 20:38:51.298862 29121 net.cpp:124] Setting up ip4
I0430 20:38:51.298871 29121 net.cpp:131] Top shape: 111 10 (1110)
I0430 20:38:51.298873 29121 net.cpp:139] Memory required for data: 1546452
I0430 20:38:51.298878 29121 layer_factory.hpp:77] Creating layer loss
I0430 20:38:51.298887 29121 net.cpp:86] Creating Layer loss
I0430 20:38:51.298889 29121 net.cpp:408] loss <- ip4
I0430 20:38:51.298893 29121 net.cpp:408] loss <- label
I0430 20:38:51.298899 29121 net.cpp:382] loss -> loss
I0430 20:38:51.298913 29121 layer_factory.hpp:77] Creating layer loss
…
I0430 20:38:51.299479 29121 solver.cpp:173] Creating test net (#0) specified by net file: ECE595/cifar/train_test/var_everything/cifar_train_test_136.prototxt
I0430 20:38:51.299516 29121 net.cpp:296] The NetState phase (1) differed from the phase (0) specified by a rule in layer cifar
I0430 20:38:51.299592 29121 net.cpp:53] Initializing net from parameters: 
name: "CIFAR"
state {
  phase: TEST
}
layer {
  name: "cifar"
  type: "Data"
  top: "data"
  top: "label"
  include {
    phase: TEST
  }
  transform_param {
    mean_file: "examples/cifar10/mean.binaryproto"
  }
  data_param {
    source: "examples/cifar10/cifar10_test_lmdb"
    batch_size: 1000
    backend: LMDB
  }
}
layer {
  name: "ip1"
  type: "InnerProduct"
  bottom: "data"
  top: "ip1"
  param {
    lr_mult: 1
  }
  param {
    lr_mult: 2
  }
  inner_product_param {
    num_output: 160
    weight_filler {
      type: "gaussian"
      std: 0.01
    }
    bias_filler {
      type: "constant"
    }
  }
}
layer {
  name: "relu1"
  type: "ReLU"
  bottom: "ip1"
  top: "ip1"
}
layer {
  name: "ip2"
  type: "InnerProduct"
  bottom: "ip1"
  top: "ip2"
  param {
    lr_mult: 1
  }
  param {
    lr_mult: 2
  }
  inner_product_param {
    num_output: 20
    weight_filler {
      type: "gaussian"
      std: 0.01
    }
    bias_filler {
      type: "constant"
    }
  }
}
layer {
  name: "relu2"
  type: "ReLU"
  bottom: "ip2"
  top: "ip2"
}
layer {
  name: "ip3"
  type: "InnerProduct"
  bottom: "ip2"
  top: "ip3"
  param {
    lr_mult: 1
  }
  param {
    lr_mult: 2
  }
  inner_product_param {
    num_output: 20
    weight_filler {
      type: "gaussian"
      std: 0.01
    }
    bias_filler {
      type: "constant"
    }
  }
}
layer {
  name: "relu3"
  type: "ReLU"
  bottom: "ip3"
  top: "ip3"
}
layer {
  name: "ip4"
  type: "InnerProduct"
  bottom: "ip3"
  top: "ip4"
  param {
    lr_mult: 1
  }
  param {
    lr_mult: 2
  }
  inner_product_param {
    num_output: 10
    weight_filler {
      type: "gaussian"
      std: 0.01
    }
    bias_filler {
      type: "constant"
    }
  }
}
layer {
  name: "accuracy"
  type: "Accuracy"
  bottom: "ip4"
  bottom: "label"
  top: "accuracy"
  include {
    phase: TEST
  }
}
layer {
  name: "loss"
  type: "SoftmaxWithLoss"
  bottom: "ip4"
  bottom: "label"
  top: "loss"
}
I0430 20:38:51.299669 29121 layer_factory.hpp:77] Creating layer cifar
I0430 20:38:51.299732 29121 db_lmdb.cpp:35] Opened lmdb examples/cifar10/cifar10_test_lmdb
I0430 20:38:51.299746 29121 net.cpp:86] Creating Layer cifar
I0430 20:38:51.299751 29121 net.cpp:382] cifar -> data
I0430 20:38:51.299758 29121 net.cpp:382] cifar -> label
I0430 20:38:51.299765 29121 data_transformer.cpp:25] Loading mean file from: examples/cifar10/mean.binaryproto
I0430 20:38:51.299919 29121 data_layer.cpp:45] output data size: 1000,3,32,32
I0430 20:38:51.322352 29121 net.cpp:124] Setting up cifar
I0430 20:38:51.322394 29121 net.cpp:131] Top shape: 1000 3 32 32 (3072000)
I0430 20:38:51.322401 29121 net.cpp:131] Top shape: 1000 (1000)
I0430 20:38:51.322403 29121 net.cpp:139] Memory required for data: 12292000
I0430 20:38:51.322408 29121 layer_factory.hpp:77] Creating layer label_cifar_1_split
I0430 20:38:51.322425 29121 net.cpp:86] Creating Layer label_cifar_1_split
I0430 20:38:51.322429 29121 net.cpp:408] label_cifar_1_split <- label
I0430 20:38:51.322435 29121 net.cpp:382] label_cifar_1_split -> label_cifar_1_split_0
I0430 20:38:51.322461 29121 net.cpp:382] label_cifar_1_split -> label_cifar_1_split_1
I0430 20:38:51.322537 29121 net.cpp:124] Setting up label_cifar_1_split
I0430 20:38:51.322546 29121 net.cpp:131] Top shape: 1000 (1000)
I0430 20:38:51.322549 29121 net.cpp:131] Top shape: 1000 (1000)
I0430 20:38:51.322552 29121 net.cpp:139] Memory required for data: 12300000
I0430 20:38:51.322556 29121 layer_factory.hpp:77] Creating layer ip1
I0430 20:38:51.322566 29121 net.cpp:86] Creating Layer ip1
I0430 20:38:51.322571 29121 net.cpp:408] ip1 <- data
I0430 20:38:51.322576 29121 net.cpp:382] ip1 -> ip1
I0430 20:38:51.336629 29121 net.cpp:124] Setting up ip1
I0430 20:38:51.336660 29121 net.cpp:131] Top shape: 1000 160 (160000)
I0430 20:38:51.336664 29121 net.cpp:139] Memory required for data: 12940000
I0430 20:38:51.336690 29121 layer_factory.hpp:77] Creating layer relu1
I0430 20:38:51.336697 29121 net.cpp:86] Creating Layer relu1
I0430 20:38:51.336701 29121 net.cpp:408] relu1 <- ip1
I0430 20:38:51.336721 29121 net.cpp:369] relu1 -> ip1 (in-place)
I0430 20:38:51.337585 29121 net.cpp:124] Setting up relu1
I0430 20:38:51.337597 29121 net.cpp:131] Top shape: 1000 160 (160000)
I0430 20:38:51.337616 29121 net.cpp:139] Memory required for data: 13580000
I0430 20:38:51.337620 29121 layer_factory.hpp:77] Creating layer ip2
I0430 20:38:51.337630 29121 net.cpp:86] Creating Layer ip2
I0430 20:38:51.337633 29121 net.cpp:408] ip2 <- ip1
I0430 20:38:51.337640 29121 net.cpp:382] ip2 -> ip2
I0430 20:38:51.337852 29121 net.cpp:124] Setting up ip2
I0430 20:38:51.337860 29121 net.cpp:131] Top shape: 1000 20 (20000)
I0430 20:38:51.337863 29121 net.cpp:139] Memory required for data: 13660000
I0430 20:38:51.337872 29121 layer_factory.hpp:77] Creating layer relu2
I0430 20:38:51.337878 29121 net.cpp:86] Creating Layer relu2
I0430 20:38:51.337882 29121 net.cpp:408] relu2 <- ip2
I0430 20:38:51.337885 29121 net.cpp:369] relu2 -> ip2 (in-place)
I0430 20:38:51.338039 29121 net.cpp:124] Setting up relu2
I0430 20:38:51.338047 29121 net.cpp:131] Top shape: 1000 20 (20000)
I0430 20:38:51.338050 29121 net.cpp:139] Memory required for data: 13740000
I0430 20:38:51.338054 29121 layer_factory.hpp:77] Creating layer ip3
I0430 20:38:51.338063 29121 net.cpp:86] Creating Layer ip3
I0430 20:38:51.338065 29121 net.cpp:408] ip3 <- ip2
I0430 20:38:51.338071 29121 net.cpp:382] ip3 -> ip3
I0430 20:38:51.338201 29121 net.cpp:124] Setting up ip3
I0430 20:38:51.338207 29121 net.cpp:131] Top shape: 1000 20 (20000)
I0430 20:38:51.338212 29121 net.cpp:139] Memory required for data: 13820000
I0430 20:38:51.338218 29121 layer_factory.hpp:77] Creating layer relu3
I0430 20:38:51.338224 29121 net.cpp:86] Creating Layer relu3
I0430 20:38:51.338227 29121 net.cpp:408] relu3 <- ip3
I0430 20:38:51.338232 29121 net.cpp:369] relu3 -> ip3 (in-place)
I0430 20:38:51.338389 29121 net.cpp:124] Setting up relu3
I0430 20:38:51.338413 29121 net.cpp:131] Top shape: 1000 20 (20000)
I0430 20:38:51.338416 29121 net.cpp:139] Memory required for data: 13900000
I0430 20:38:51.338419 29121 layer_factory.hpp:77] Creating layer ip4
I0430 20:38:51.338426 29121 net.cpp:86] Creating Layer ip4
I0430 20:38:51.338429 29121 net.cpp:408] ip4 <- ip3
I0430 20:38:51.338435 29121 net.cpp:382] ip4 -> ip4
I0430 20:38:51.338543 29121 net.cpp:124] Setting up ip4
I0430 20:38:51.338551 29121 net.cpp:131] Top shape: 1000 10 (10000)
I0430 20:38:51.338553 29121 net.cpp:139] Memory required for data: 13940000
I0430 20:38:51.338560 29121 layer_factory.hpp:77] Creating layer ip4_ip4_0_split
I0430 20:38:51.338565 29121 net.cpp:86] Creating Layer ip4_ip4_0_split
I0430 20:38:51.338568 29121 net.cpp:408] ip4_ip4_0_split <- ip4
I0430 20:38:51.338574 29121 net.cpp:382] ip4_ip4_0_split -> ip4_ip4_0_split_0
I0430 20:38:51.338580 29121 net.cpp:382] ip4_ip4_0_split -> ip4_ip4_0_split_1
I0430 20:38:51.338613 29121 net.cpp:124] Setting up ip4_ip4_0_split
I0430 20:38:51.338620 29121 net.cpp:131] Top shape: 1000 10 (10000)
I0430 20:38:51.338624 29121 net.cpp:131] Top shape: 1000 10 (10000)
I0430 20:38:51.338627 29121 net.cpp:139] Memory required for data: 14020000
I0430 20:38:51.338630 29121 layer_factory.hpp:77] Creating layer accuracy
I0430 20:38:51.338639 29121 net.cpp:86] Creating Layer accuracy
I0430 20:38:51.338644 29121 net.cpp:408] accuracy <- ip4_ip4_0_split_0
I0430 20:38:51.338647 29121 net.cpp:408] accuracy <- label_cifar_1_split_0
I0430 20:38:51.338651 29121 net.cpp:382] accuracy -> accuracy
…
