…
I0501 06:42:17.878974  1509 net.cpp:296] The NetState phase (0) differed from the phase (1) specified by a rule in layer cifar
I0501 06:42:17.878990  1509 net.cpp:296] The NetState phase (0) differed from the phase (1) specified by a rule in layer accuracy
I0501 06:42:17.879086  1509 net.cpp:53] Initializing net from parameters: 
name: "CIFAR"
state {
  phase: TRAIN
  level: 0
  stage: ""
}
layer {
  name: "cifar"
  type: "Data"
  top: "data"
  top: "label"
  include {
    phase: TRAIN
  }
  transform_param {
    mean_file: "examples/cifar10/mean.binaryproto"
  }
  data_param {
    source: "examples/cifar10/cifar10_train_lmdb"
    batch_size: 111
    backend: LMDB
  }
}
layer {
  name: "conv0"
  type: "Convolution"
  bottom: "data"
  top: "conv0"
  param {
    lr_mult: 1
  }
  param {
    lr_mult: 2
  }
  convolution_param {
    num_output: 8
    pad: 2
    kernel_size: 5
    stride: 1
    weight_filler {
      type: "gaussian"
      std: 0.01
    }
    bias_filler {
      type: "constant"
    }
  }
}
layer {
  name: "Sigmoid0"
  type: "Sigmoid"
  bottom: "conv0"
  top: "Sigmoid0"
}
layer {
  name: "pool0"
  type: "Pooling"
  bottom: "Sigmoid0"
  top: "pool0"
  pooling_param {
    pool: AVE
    kernel_size: 3
    stride: 2
  }
}
layer {
  name: "ip1"
  type: "InnerProduct"
  bottom: "pool0"
  top: "ip1"
  param {
    lr_mult: 1
  }
  param {
    lr_mult: 2
  }
  inner_product_param {
    num_output: 160
    weight_filler {
      type: "gaussian"
      std: 0.01
    }
    bias_filler {
      type: "constant"
    }
  }
}
layer {
  name: "relu1"
  type: "ReLU"
  bottom: "ip1"
  top: "ip1"
}
layer {
  name: "ip2"
  type: "InnerProduct"
  bottom: "ip1"
  top: "ip2"
  param {
    lr_mult: 1
  }
  param {
    lr_mult: 2
  }
  inner_product_param {
    num_output: 80
    weight_filler {
      type: "gaussian"
      std: 0.01
    }
    bias_filler {
      type: "constant"
    }
  }
}
layer {
  name: "relu2"
  type: "ReLU"
  bottom: "ip2"
  top: "ip2"
}
layer {
  name: "ip3"
  type: "InnerProduct"
  bottom: "ip2"
  top: "ip3"
  param {
    lr_mult: 1
  }
  param {
    lr_mult: 2
  }
  inner_product_param {
    num_output: 160
    weight_filler {
      type: "gaussian"
      std: 0.01
    }
    bias_filler {
      type: "constant"
    }
  }
}
layer {
  name: "relu3"
  type: "ReLU"
  bottom: "ip3"
  top: "ip3"
}
layer {
  name: "ip4"
  type: "InnerProduct"
  bottom: "ip3"
  top: "ip4"
  param {
    lr_mult: 1
  }
  param {
    lr_mult: 2
  }
  inner_product_param {
    num_output: 10
    weight_filler {
      type: "gaussian"
      std: 0.01
    }
    bias_filler {
      type: "constant"
    }
  }
}
layer {
  name: "loss"
  type: "SoftmaxWithLoss"
  bottom: "ip4"
  bottom: "label"
  top: "loss"
}
I0501 06:42:17.879158  1509 layer_factory.hpp:77] Creating layer cifar
I0501 06:42:17.879256  1509 db_lmdb.cpp:35] Opened lmdb examples/cifar10/cifar10_train_lmdb
I0501 06:42:17.879281  1509 net.cpp:86] Creating Layer cifar
I0501 06:42:17.879288  1509 net.cpp:382] cifar -> data
I0501 06:42:17.879310  1509 net.cpp:382] cifar -> label
I0501 06:42:17.879321  1509 data_transformer.cpp:25] Loading mean file from: examples/cifar10/mean.binaryproto
I0501 06:42:17.881403  1509 data_layer.cpp:45] output data size: 111,3,32,32
I0501 06:42:17.888953  1509 net.cpp:124] Setting up cifar
I0501 06:42:17.888972  1509 net.cpp:131] Top shape: 111 3 32 32 (340992)
I0501 06:42:17.888978  1509 net.cpp:131] Top shape: 111 (111)
I0501 06:42:17.888980  1509 net.cpp:139] Memory required for data: 1364412
I0501 06:42:17.889003  1509 layer_factory.hpp:77] Creating layer conv0
I0501 06:42:17.889022  1509 net.cpp:86] Creating Layer conv0
I0501 06:42:17.889029  1509 net.cpp:408] conv0 <- data
I0501 06:42:17.889039  1509 net.cpp:382] conv0 -> conv0
I0501 06:42:18.120846  1509 net.cpp:124] Setting up conv0
I0501 06:42:18.120889  1509 net.cpp:131] Top shape: 111 8 32 32 (909312)
I0501 06:42:18.120893  1509 net.cpp:139] Memory required for data: 5001660
I0501 06:42:18.120924  1509 layer_factory.hpp:77] Creating layer Sigmoid0
I0501 06:42:18.120936  1509 net.cpp:86] Creating Layer Sigmoid0
I0501 06:42:18.120940  1509 net.cpp:408] Sigmoid0 <- conv0
I0501 06:42:18.120945  1509 net.cpp:382] Sigmoid0 -> Sigmoid0
I0501 06:42:18.121106  1509 net.cpp:124] Setting up Sigmoid0
I0501 06:42:18.121114  1509 net.cpp:131] Top shape: 111 8 32 32 (909312)
I0501 06:42:18.121119  1509 net.cpp:139] Memory required for data: 8638908
I0501 06:42:18.121121  1509 layer_factory.hpp:77] Creating layer pool0
I0501 06:42:18.121127  1509 net.cpp:86] Creating Layer pool0
I0501 06:42:18.121130  1509 net.cpp:408] pool0 <- Sigmoid0
I0501 06:42:18.121134  1509 net.cpp:382] pool0 -> pool0
I0501 06:42:18.121845  1509 net.cpp:124] Setting up pool0
I0501 06:42:18.121857  1509 net.cpp:131] Top shape: 111 8 16 16 (227328)
I0501 06:42:18.121860  1509 net.cpp:139] Memory required for data: 9548220
I0501 06:42:18.121863  1509 layer_factory.hpp:77] Creating layer ip1
I0501 06:42:18.121873  1509 net.cpp:86] Creating Layer ip1
I0501 06:42:18.121876  1509 net.cpp:408] ip1 <- pool0
I0501 06:42:18.121881  1509 net.cpp:382] ip1 -> ip1
I0501 06:42:18.131196  1509 net.cpp:124] Setting up ip1
I0501 06:42:18.131206  1509 net.cpp:131] Top shape: 111 160 (17760)
I0501 06:42:18.131209  1509 net.cpp:139] Memory required for data: 9619260
I0501 06:42:18.131217  1509 layer_factory.hpp:77] Creating layer relu1
I0501 06:42:18.131223  1509 net.cpp:86] Creating Layer relu1
I0501 06:42:18.131227  1509 net.cpp:408] relu1 <- ip1
I0501 06:42:18.131247  1509 net.cpp:369] relu1 -> ip1 (in-place)
I0501 06:42:18.131391  1509 net.cpp:124] Setting up relu1
I0501 06:42:18.131398  1509 net.cpp:131] Top shape: 111 160 (17760)
I0501 06:42:18.131402  1509 net.cpp:139] Memory required for data: 9690300
I0501 06:42:18.131404  1509 layer_factory.hpp:77] Creating layer ip2
I0501 06:42:18.131410  1509 net.cpp:86] Creating Layer ip2
I0501 06:42:18.131413  1509 net.cpp:408] ip2 <- ip1
I0501 06:42:18.131418  1509 net.cpp:382] ip2 -> ip2
I0501 06:42:18.132654  1509 net.cpp:124] Setting up ip2
I0501 06:42:18.132665  1509 net.cpp:131] Top shape: 111 80 (8880)
I0501 06:42:18.132668  1509 net.cpp:139] Memory required for data: 9725820
I0501 06:42:18.132692  1509 layer_factory.hpp:77] Creating layer relu2
I0501 06:42:18.132699  1509 net.cpp:86] Creating Layer relu2
I0501 06:42:18.132702  1509 net.cpp:408] relu2 <- ip2
I0501 06:42:18.132706  1509 net.cpp:369] relu2 -> ip2 (in-place)
I0501 06:42:18.132931  1509 net.cpp:124] Setting up relu2
I0501 06:42:18.132942  1509 net.cpp:131] Top shape: 111 80 (8880)
I0501 06:42:18.132946  1509 net.cpp:139] Memory required for data: 9761340
I0501 06:42:18.132949  1509 layer_factory.hpp:77] Creating layer ip3
I0501 06:42:18.132957  1509 net.cpp:86] Creating Layer ip3
I0501 06:42:18.132961  1509 net.cpp:408] ip3 <- ip2
I0501 06:42:18.132966  1509 net.cpp:382] ip3 -> ip3
I0501 06:42:18.133481  1509 net.cpp:124] Setting up ip3
I0501 06:42:18.133487  1509 net.cpp:131] Top shape: 111 160 (17760)
I0501 06:42:18.133491  1509 net.cpp:139] Memory required for data: 9832380
I0501 06:42:18.133510  1509 layer_factory.hpp:77] Creating layer relu3
I0501 06:42:18.133517  1509 net.cpp:86] Creating Layer relu3
I0501 06:42:18.133519  1509 net.cpp:408] relu3 <- ip3
I0501 06:42:18.133525  1509 net.cpp:369] relu3 -> ip3 (in-place)
I0501 06:42:18.133674  1509 net.cpp:124] Setting up relu3
I0501 06:42:18.133682  1509 net.cpp:131] Top shape: 111 160 (17760)
I0501 06:42:18.133684  1509 net.cpp:139] Memory required for data: 9903420
I0501 06:42:18.133688  1509 layer_factory.hpp:77] Creating layer ip4
I0501 06:42:18.133708  1509 net.cpp:86] Creating Layer ip4
I0501 06:42:18.133713  1509 net.cpp:408] ip4 <- ip3
I0501 06:42:18.133718  1509 net.cpp:382] ip4 -> ip4
I0501 06:42:18.133852  1509 net.cpp:124] Setting up ip4
I0501 06:42:18.133858  1509 net.cpp:131] Top shape: 111 10 (1110)
I0501 06:42:18.133862  1509 net.cpp:139] Memory required for data: 9907860
I0501 06:42:18.133868  1509 layer_factory.hpp:77] Creating layer loss
I0501 06:42:18.133874  1509 net.cpp:86] Creating Layer loss
I0501 06:42:18.133877  1509 net.cpp:408] loss <- ip4
I0501 06:42:18.133880  1509 net.cpp:408] loss <- label
I0501 06:42:18.133888  1509 net.cpp:382] loss -> loss
I0501 06:42:18.133903  1509 layer_factory.hpp:77] Creating layer loss
…
I0501 06:42:18.135169  1509 solver.cpp:173] Creating test net (#0) specified by net file: ECE595/cifar/train_test/var_everything/cifar_train_test_459.prototxt
I0501 06:42:18.135210  1509 net.cpp:296] The NetState phase (1) differed from the phase (0) specified by a rule in layer cifar
I0501 06:42:18.135304  1509 net.cpp:53] Initializing net from parameters: 
name: "CIFAR"
state {
  phase: TEST
}
layer {
  name: "cifar"
  type: "Data"
  top: "data"
  top: "label"
  include {
    phase: TEST
  }
  transform_param {
    mean_file: "examples/cifar10/mean.binaryproto"
  }
  data_param {
    source: "examples/cifar10/cifar10_test_lmdb"
    batch_size: 1000
    backend: LMDB
  }
}
layer {
  name: "conv0"
  type: "Convolution"
  bottom: "data"
  top: "conv0"
  param {
    lr_mult: 1
  }
  param {
    lr_mult: 2
  }
  convolution_param {
    num_output: 8
    pad: 2
    kernel_size: 5
    stride: 1
    weight_filler {
      type: "gaussian"
      std: 0.01
    }
    bias_filler {
      type: "constant"
    }
  }
}
layer {
  name: "Sigmoid0"
  type: "Sigmoid"
  bottom: "conv0"
  top: "Sigmoid0"
}
layer {
  name: "pool0"
  type: "Pooling"
  bottom: "Sigmoid0"
  top: "pool0"
  pooling_param {
    pool: AVE
    kernel_size: 3
    stride: 2
  }
}
layer {
  name: "ip1"
  type: "InnerProduct"
  bottom: "pool0"
  top: "ip1"
  param {
    lr_mult: 1
  }
  param {
    lr_mult: 2
  }
  inner_product_param {
    num_output: 160
    weight_filler {
      type: "gaussian"
      std: 0.01
    }
    bias_filler {
      type: "constant"
    }
  }
}
layer {
  name: "relu1"
  type: "ReLU"
  bottom: "ip1"
  top: "ip1"
}
layer {
  name: "ip2"
  type: "InnerProduct"
  bottom: "ip1"
  top: "ip2"
  param {
    lr_mult: 1
  }
  param {
    lr_mult: 2
  }
  inner_product_param {
    num_output: 80
    weight_filler {
      type: "gaussian"
      std: 0.01
    }
    bias_filler {
      type: "constant"
    }
  }
}
layer {
  name: "relu2"
  type: "ReLU"
  bottom: "ip2"
  top: "ip2"
}
layer {
  name: "ip3"
  type: "InnerProduct"
  bottom: "ip2"
  top: "ip3"
  param {
    lr_mult: 1
  }
  param {
    lr_mult: 2
  }
  inner_product_param {
    num_output: 160
    weight_filler {
      type: "gaussian"
      std: 0.01
    }
    bias_filler {
      type: "constant"
    }
  }
}
layer {
  name: "relu3"
  type: "ReLU"
  bottom: "ip3"
  top: "ip3"
}
layer {
  name: "ip4"
  type: "InnerProduct"
  bottom: "ip3"
  top: "ip4"
  param {
    lr_mult: 1
  }
  param {
    lr_mult: 2
  }
  inner_product_param {
    num_output: 10
    weight_filler {
      type: "gaussian"
      std: 0.01
    }
    bias_filler {
      type: "constant"
    }
  }
}
layer {
  name: "accuracy"
  type: "Accuracy"
  bottom: "ip4"
  bottom: "label"
  top: "accuracy"
  include {
    phase: TEST
  }
}
layer {
  name: "loss"
  type: "SoftmaxWithLoss"
  bottom: "ip4"
  bottom: "label"
  top: "loss"
}
I0501 06:42:18.135387  1509 layer_factory.hpp:77] Creating layer cifar
I0501 06:42:18.135445  1509 db_lmdb.cpp:35] Opened lmdb examples/cifar10/cifar10_test_lmdb
I0501 06:42:18.135457  1509 net.cpp:86] Creating Layer cifar
I0501 06:42:18.135462  1509 net.cpp:382] cifar -> data
I0501 06:42:18.135468  1509 net.cpp:382] cifar -> label
I0501 06:42:18.135474  1509 data_transformer.cpp:25] Loading mean file from: examples/cifar10/mean.binaryproto
I0501 06:42:18.135612  1509 data_layer.cpp:45] output data size: 1000,3,32,32
I0501 06:42:18.157037  1509 net.cpp:124] Setting up cifar
I0501 06:42:18.157079  1509 net.cpp:131] Top shape: 1000 3 32 32 (3072000)
I0501 06:42:18.157085  1509 net.cpp:131] Top shape: 1000 (1000)
I0501 06:42:18.157088  1509 net.cpp:139] Memory required for data: 12292000
I0501 06:42:18.157094  1509 layer_factory.hpp:77] Creating layer label_cifar_1_split
I0501 06:42:18.157110  1509 net.cpp:86] Creating Layer label_cifar_1_split
I0501 06:42:18.157115  1509 net.cpp:408] label_cifar_1_split <- label
I0501 06:42:18.157122  1509 net.cpp:382] label_cifar_1_split -> label_cifar_1_split_0
I0501 06:42:18.157130  1509 net.cpp:382] label_cifar_1_split -> label_cifar_1_split_1
I0501 06:42:18.157230  1509 net.cpp:124] Setting up label_cifar_1_split
I0501 06:42:18.157238  1509 net.cpp:131] Top shape: 1000 (1000)
I0501 06:42:18.157240  1509 net.cpp:131] Top shape: 1000 (1000)
I0501 06:42:18.157243  1509 net.cpp:139] Memory required for data: 12300000
I0501 06:42:18.157246  1509 layer_factory.hpp:77] Creating layer conv0
I0501 06:42:18.157260  1509 net.cpp:86] Creating Layer conv0
I0501 06:42:18.157265  1509 net.cpp:408] conv0 <- data
I0501 06:42:18.157289  1509 net.cpp:382] conv0 -> conv0
I0501 06:42:18.159778  1509 net.cpp:124] Setting up conv0
I0501 06:42:18.159811  1509 net.cpp:131] Top shape: 1000 8 32 32 (8192000)
I0501 06:42:18.159814  1509 net.cpp:139] Memory required for data: 45068000
I0501 06:42:18.159826  1509 layer_factory.hpp:77] Creating layer Sigmoid0
I0501 06:42:18.159832  1509 net.cpp:86] Creating Layer Sigmoid0
I0501 06:42:18.159835  1509 net.cpp:408] Sigmoid0 <- conv0
I0501 06:42:18.159840  1509 net.cpp:382] Sigmoid0 -> Sigmoid0
I0501 06:42:18.160042  1509 net.cpp:124] Setting up Sigmoid0
I0501 06:42:18.160051  1509 net.cpp:131] Top shape: 1000 8 32 32 (8192000)
I0501 06:42:18.160054  1509 net.cpp:139] Memory required for data: 77836000
I0501 06:42:18.160058  1509 layer_factory.hpp:77] Creating layer pool0
I0501 06:42:18.160066  1509 net.cpp:86] Creating Layer pool0
I0501 06:42:18.160069  1509 net.cpp:408] pool0 <- Sigmoid0
I0501 06:42:18.160073  1509 net.cpp:382] pool0 -> pool0
I0501 06:42:18.160238  1509 net.cpp:124] Setting up pool0
I0501 06:42:18.160246  1509 net.cpp:131] Top shape: 1000 8 16 16 (2048000)
I0501 06:42:18.160249  1509 net.cpp:139] Memory required for data: 86028000
I0501 06:42:18.160253  1509 layer_factory.hpp:77] Creating layer ip1
I0501 06:42:18.160261  1509 net.cpp:86] Creating Layer ip1
I0501 06:42:18.160264  1509 net.cpp:408] ip1 <- pool0
I0501 06:42:18.160270  1509 net.cpp:382] ip1 -> ip1
I0501 06:42:18.169606  1509 net.cpp:124] Setting up ip1
I0501 06:42:18.169620  1509 net.cpp:131] Top shape: 1000 160 (160000)
I0501 06:42:18.169641  1509 net.cpp:139] Memory required for data: 86668000
I0501 06:42:18.169680  1509 layer_factory.hpp:77] Creating layer relu1
I0501 06:42:18.169689  1509 net.cpp:86] Creating Layer relu1
I0501 06:42:18.169693  1509 net.cpp:408] relu1 <- ip1
I0501 06:42:18.169698  1509 net.cpp:369] relu1 -> ip1 (in-place)
I0501 06:42:18.169875  1509 net.cpp:124] Setting up relu1
I0501 06:42:18.169884  1509 net.cpp:131] Top shape: 1000 160 (160000)
I0501 06:42:18.169888  1509 net.cpp:139] Memory required for data: 87308000
I0501 06:42:18.169891  1509 layer_factory.hpp:77] Creating layer ip2
I0501 06:42:18.169899  1509 net.cpp:86] Creating Layer ip2
I0501 06:42:18.169903  1509 net.cpp:408] ip2 <- ip1
I0501 06:42:18.169908  1509 net.cpp:382] ip2 -> ip2
I0501 06:42:18.170408  1509 net.cpp:124] Setting up ip2
I0501 06:42:18.170418  1509 net.cpp:131] Top shape: 1000 80 (80000)
I0501 06:42:18.170420  1509 net.cpp:139] Memory required for data: 87628000
I0501 06:42:18.170444  1509 layer_factory.hpp:77] Creating layer relu2
I0501 06:42:18.170450  1509 net.cpp:86] Creating Layer relu2
I0501 06:42:18.170454  1509 net.cpp:408] relu2 <- ip2
I0501 06:42:18.170459  1509 net.cpp:369] relu2 -> ip2 (in-place)
I0501 06:42:18.171265  1509 net.cpp:124] Setting up relu2
I0501 06:42:18.171279  1509 net.cpp:131] Top shape: 1000 80 (80000)
I0501 06:42:18.171298  1509 net.cpp:139] Memory required for data: 87948000
I0501 06:42:18.171301  1509 layer_factory.hpp:77] Creating layer ip3
I0501 06:42:18.171309  1509 net.cpp:86] Creating Layer ip3
I0501 06:42:18.171313  1509 net.cpp:408] ip3 <- ip2
I0501 06:42:18.171319  1509 net.cpp:382] ip3 -> ip3
I0501 06:42:18.171816  1509 net.cpp:124] Setting up ip3
I0501 06:42:18.171823  1509 net.cpp:131] Top shape: 1000 160 (160000)
I0501 06:42:18.171841  1509 net.cpp:139] Memory required for data: 88588000
I0501 06:42:18.171846  1509 layer_factory.hpp:77] Creating layer relu3
I0501 06:42:18.171851  1509 net.cpp:86] Creating Layer relu3
I0501 06:42:18.171854  1509 net.cpp:408] relu3 <- ip3
I0501 06:42:18.171860  1509 net.cpp:369] relu3 -> ip3 (in-place)
I0501 06:42:18.172026  1509 net.cpp:124] Setting up relu3
I0501 06:42:18.172037  1509 net.cpp:131] Top shape: 1000 160 (160000)
I0501 06:42:18.172041  1509 net.cpp:139] Memory required for data: 89228000
I0501 06:42:18.172044  1509 layer_factory.hpp:77] Creating layer ip4
I0501 06:42:18.172049  1509 net.cpp:86] Creating Layer ip4
I0501 06:42:18.172053  1509 net.cpp:408] ip4 <- ip3
I0501 06:42:18.172058  1509 net.cpp:382] ip4 -> ip4
I0501 06:42:18.172214  1509 net.cpp:124] Setting up ip4
I0501 06:42:18.172221  1509 net.cpp:131] Top shape: 1000 10 (10000)
I0501 06:42:18.172224  1509 net.cpp:139] Memory required for data: 89268000
I0501 06:42:18.172242  1509 layer_factory.hpp:77] Creating layer ip4_ip4_0_split
I0501 06:42:18.172248  1509 net.cpp:86] Creating Layer ip4_ip4_0_split
I0501 06:42:18.172251  1509 net.cpp:408] ip4_ip4_0_split <- ip4
I0501 06:42:18.172255  1509 net.cpp:382] ip4_ip4_0_split -> ip4_ip4_0_split_0
I0501 06:42:18.172261  1509 net.cpp:382] ip4_ip4_0_split -> ip4_ip4_0_split_1
I0501 06:42:18.172292  1509 net.cpp:124] Setting up ip4_ip4_0_split
I0501 06:42:18.172297  1509 net.cpp:131] Top shape: 1000 10 (10000)
I0501 06:42:18.172302  1509 net.cpp:131] Top shape: 1000 10 (10000)
I0501 06:42:18.172304  1509 net.cpp:139] Memory required for data: 89348000
I0501 06:42:18.172307  1509 layer_factory.hpp:77] Creating layer accuracy
I0501 06:42:18.172313  1509 net.cpp:86] Creating Layer accuracy
I0501 06:42:18.172317  1509 net.cpp:408] accuracy <- ip4_ip4_0_split_0
I0501 06:42:18.172320  1509 net.cpp:408] accuracy <- label_cifar_1_split_0
I0501 06:42:18.172324  1509 net.cpp:382] accuracy -> accuracy
…
