…
I0501 04:43:23.912878 26296 net.cpp:296] The NetState phase (0) differed from the phase (1) specified by a rule in layer cifar
I0501 04:43:23.912897 26296 net.cpp:296] The NetState phase (0) differed from the phase (1) specified by a rule in layer accuracy
I0501 04:43:23.913004 26296 net.cpp:53] Initializing net from parameters: 
name: "CIFAR"
state {
  phase: TRAIN
  level: 0
  stage: ""
}
layer {
  name: "cifar"
  type: "Data"
  top: "data"
  top: "label"
  include {
    phase: TRAIN
  }
  transform_param {
    mean_file: "examples/cifar10/mean.binaryproto"
  }
  data_param {
    source: "examples/cifar10/cifar10_train_lmdb"
    batch_size: 111
    backend: LMDB
  }
}
layer {
  name: "conv0"
  type: "Convolution"
  bottom: "data"
  top: "conv0"
  param {
    lr_mult: 1
  }
  param {
    lr_mult: 2
  }
  convolution_param {
    num_output: 8
    pad: 2
    kernel_size: 5
    stride: 1
    weight_filler {
      type: "gaussian"
      std: 0.01
    }
    bias_filler {
      type: "constant"
    }
  }
}
layer {
  name: "Sigmoid0"
  type: "Sigmoid"
  bottom: "conv0"
  top: "Sigmoid0"
}
layer {
  name: "pool0"
  type: "Pooling"
  bottom: "Sigmoid0"
  top: "pool0"
  pooling_param {
    pool: AVE
    kernel_size: 3
    stride: 2
  }
}
layer {
  name: "ip1"
  type: "InnerProduct"
  bottom: "pool0"
  top: "ip1"
  param {
    lr_mult: 1
  }
  param {
    lr_mult: 2
  }
  inner_product_param {
    num_output: 40
    weight_filler {
      type: "gaussian"
      std: 0.01
    }
    bias_filler {
      type: "constant"
    }
  }
}
layer {
  name: "relu1"
  type: "ReLU"
  bottom: "ip1"
  top: "ip1"
}
layer {
  name: "ip2"
  type: "InnerProduct"
  bottom: "ip1"
  top: "ip2"
  param {
    lr_mult: 1
  }
  param {
    lr_mult: 2
  }
  inner_product_param {
    num_output: 20
    weight_filler {
      type: "gaussian"
      std: 0.01
    }
    bias_filler {
      type: "constant"
    }
  }
}
layer {
  name: "relu2"
  type: "ReLU"
  bottom: "ip2"
  top: "ip2"
}
layer {
  name: "ip3"
  type: "InnerProduct"
  bottom: "ip2"
  top: "ip3"
  param {
    lr_mult: 1
  }
  param {
    lr_mult: 2
  }
  inner_product_param {
    num_output: 10
    weight_filler {
      type: "gaussian"
      std: 0.01
    }
    bias_filler {
      type: "constant"
    }
  }
}
layer {
  name: "relu3"
  type: "ReLU"
  bottom: "ip3"
  top: "ip3"
}
layer {
  name: "ip4"
  type: "InnerProduct"
  bottom: "ip3"
  top: "ip4"
  param {
    lr_mult: 1
  }
  param {
    lr_mult: 2
  }
  inner_product_param {
    num_output: 10
    weight_filler {
      type: "gaussian"
      std: 0.01
    }
    bias_filler {
      type: "constant"
    }
  }
}
layer {
  name: "loss"
  type: "SoftmaxWithLoss"
  bottom: "ip4"
  bottom: "label"
  top: "loss"
}
I0501 04:43:23.913087 26296 layer_factory.hpp:77] Creating layer cifar
I0501 04:43:23.913188 26296 db_lmdb.cpp:35] Opened lmdb examples/cifar10/cifar10_train_lmdb
I0501 04:43:23.913218 26296 net.cpp:86] Creating Layer cifar
I0501 04:43:23.913228 26296 net.cpp:382] cifar -> data
I0501 04:43:23.913251 26296 net.cpp:382] cifar -> label
I0501 04:43:23.913265 26296 data_transformer.cpp:25] Loading mean file from: examples/cifar10/mean.binaryproto
I0501 04:43:23.915448 26296 data_layer.cpp:45] output data size: 111,3,32,32
I0501 04:43:23.923439 26296 net.cpp:124] Setting up cifar
I0501 04:43:23.923458 26296 net.cpp:131] Top shape: 111 3 32 32 (340992)
I0501 04:43:23.923465 26296 net.cpp:131] Top shape: 111 (111)
I0501 04:43:23.923468 26296 net.cpp:139] Memory required for data: 1364412
I0501 04:43:23.923492 26296 layer_factory.hpp:77] Creating layer conv0
I0501 04:43:23.923512 26296 net.cpp:86] Creating Layer conv0
I0501 04:43:23.923518 26296 net.cpp:408] conv0 <- data
I0501 04:43:23.923532 26296 net.cpp:382] conv0 -> conv0
I0501 04:43:24.217044 26296 net.cpp:124] Setting up conv0
I0501 04:43:24.217073 26296 net.cpp:131] Top shape: 111 8 32 32 (909312)
I0501 04:43:24.217078 26296 net.cpp:139] Memory required for data: 5001660
I0501 04:43:24.217097 26296 layer_factory.hpp:77] Creating layer Sigmoid0
I0501 04:43:24.217111 26296 net.cpp:86] Creating Layer Sigmoid0
I0501 04:43:24.217119 26296 net.cpp:408] Sigmoid0 <- conv0
I0501 04:43:24.217126 26296 net.cpp:382] Sigmoid0 -> Sigmoid0
I0501 04:43:24.217336 26296 net.cpp:124] Setting up Sigmoid0
I0501 04:43:24.217347 26296 net.cpp:131] Top shape: 111 8 32 32 (909312)
I0501 04:43:24.217351 26296 net.cpp:139] Memory required for data: 8638908
I0501 04:43:24.217355 26296 layer_factory.hpp:77] Creating layer pool0
I0501 04:43:24.217363 26296 net.cpp:86] Creating Layer pool0
I0501 04:43:24.217367 26296 net.cpp:408] pool0 <- Sigmoid0
I0501 04:43:24.217372 26296 net.cpp:382] pool0 -> pool0
I0501 04:43:24.218253 26296 net.cpp:124] Setting up pool0
I0501 04:43:24.218271 26296 net.cpp:131] Top shape: 111 8 16 16 (227328)
I0501 04:43:24.218274 26296 net.cpp:139] Memory required for data: 9548220
I0501 04:43:24.218278 26296 layer_factory.hpp:77] Creating layer ip1
I0501 04:43:24.218289 26296 net.cpp:86] Creating Layer ip1
I0501 04:43:24.218294 26296 net.cpp:408] ip1 <- pool0
I0501 04:43:24.218302 26296 net.cpp:382] ip1 -> ip1
I0501 04:43:24.221130 26296 net.cpp:124] Setting up ip1
I0501 04:43:24.221140 26296 net.cpp:131] Top shape: 111 40 (4440)
I0501 04:43:24.221144 26296 net.cpp:139] Memory required for data: 9565980
I0501 04:43:24.221153 26296 layer_factory.hpp:77] Creating layer relu1
I0501 04:43:24.221160 26296 net.cpp:86] Creating Layer relu1
I0501 04:43:24.221164 26296 net.cpp:408] relu1 <- ip1
I0501 04:43:24.221169 26296 net.cpp:369] relu1 -> ip1 (in-place)
I0501 04:43:24.221352 26296 net.cpp:124] Setting up relu1
I0501 04:43:24.221362 26296 net.cpp:131] Top shape: 111 40 (4440)
I0501 04:43:24.221366 26296 net.cpp:139] Memory required for data: 9583740
I0501 04:43:24.221370 26296 layer_factory.hpp:77] Creating layer ip2
I0501 04:43:24.221379 26296 net.cpp:86] Creating Layer ip2
I0501 04:43:24.221381 26296 net.cpp:408] ip2 <- ip1
I0501 04:43:24.221387 26296 net.cpp:382] ip2 -> ip2
I0501 04:43:24.221516 26296 net.cpp:124] Setting up ip2
I0501 04:43:24.221524 26296 net.cpp:131] Top shape: 111 20 (2220)
I0501 04:43:24.221529 26296 net.cpp:139] Memory required for data: 9592620
I0501 04:43:24.221537 26296 layer_factory.hpp:77] Creating layer relu2
I0501 04:43:24.221544 26296 net.cpp:86] Creating Layer relu2
I0501 04:43:24.221547 26296 net.cpp:408] relu2 <- ip2
I0501 04:43:24.221551 26296 net.cpp:369] relu2 -> ip2 (in-place)
I0501 04:43:24.221732 26296 net.cpp:124] Setting up relu2
I0501 04:43:24.221741 26296 net.cpp:131] Top shape: 111 20 (2220)
I0501 04:43:24.221745 26296 net.cpp:139] Memory required for data: 9601500
I0501 04:43:24.221750 26296 layer_factory.hpp:77] Creating layer ip3
I0501 04:43:24.221757 26296 net.cpp:86] Creating Layer ip3
I0501 04:43:24.221761 26296 net.cpp:408] ip3 <- ip2
I0501 04:43:24.221767 26296 net.cpp:382] ip3 -> ip3
I0501 04:43:24.221880 26296 net.cpp:124] Setting up ip3
I0501 04:43:24.221889 26296 net.cpp:131] Top shape: 111 10 (1110)
I0501 04:43:24.221892 26296 net.cpp:139] Memory required for data: 9605940
I0501 04:43:24.221899 26296 layer_factory.hpp:77] Creating layer relu3
I0501 04:43:24.221904 26296 net.cpp:86] Creating Layer relu3
I0501 04:43:24.221907 26296 net.cpp:408] relu3 <- ip3
I0501 04:43:24.221912 26296 net.cpp:369] relu3 -> ip3 (in-place)
I0501 04:43:24.222085 26296 net.cpp:124] Setting up relu3
I0501 04:43:24.222095 26296 net.cpp:131] Top shape: 111 10 (1110)
I0501 04:43:24.222098 26296 net.cpp:139] Memory required for data: 9610380
I0501 04:43:24.222102 26296 layer_factory.hpp:77] Creating layer ip4
I0501 04:43:24.222126 26296 net.cpp:86] Creating Layer ip4
I0501 04:43:24.222129 26296 net.cpp:408] ip4 <- ip3
I0501 04:43:24.222136 26296 net.cpp:382] ip4 -> ip4
I0501 04:43:24.222247 26296 net.cpp:124] Setting up ip4
I0501 04:43:24.222256 26296 net.cpp:131] Top shape: 111 10 (1110)
I0501 04:43:24.222260 26296 net.cpp:139] Memory required for data: 9614820
I0501 04:43:24.222270 26296 layer_factory.hpp:77] Creating layer loss
I0501 04:43:24.222276 26296 net.cpp:86] Creating Layer loss
I0501 04:43:24.222280 26296 net.cpp:408] loss <- ip4
I0501 04:43:24.222285 26296 net.cpp:408] loss <- label
I0501 04:43:24.222290 26296 net.cpp:382] loss -> loss
I0501 04:43:24.222311 26296 layer_factory.hpp:77] Creating layer loss
…
I0501 04:43:24.223736 26296 solver.cpp:173] Creating test net (#0) specified by net file: ECE595/cifar/train_test/var_everything/cifar_train_test_395.prototxt
I0501 04:43:24.223767 26296 net.cpp:296] The NetState phase (1) differed from the phase (0) specified by a rule in layer cifar
I0501 04:43:24.223878 26296 net.cpp:53] Initializing net from parameters: 
name: "CIFAR"
state {
  phase: TEST
}
layer {
  name: "cifar"
  type: "Data"
  top: "data"
  top: "label"
  include {
    phase: TEST
  }
  transform_param {
    mean_file: "examples/cifar10/mean.binaryproto"
  }
  data_param {
    source: "examples/cifar10/cifar10_test_lmdb"
    batch_size: 1000
    backend: LMDB
  }
}
layer {
  name: "conv0"
  type: "Convolution"
  bottom: "data"
  top: "conv0"
  param {
    lr_mult: 1
  }
  param {
    lr_mult: 2
  }
  convolution_param {
    num_output: 8
    pad: 2
    kernel_size: 5
    stride: 1
    weight_filler {
      type: "gaussian"
      std: 0.01
    }
    bias_filler {
      type: "constant"
    }
  }
}
layer {
  name: "Sigmoid0"
  type: "Sigmoid"
  bottom: "conv0"
  top: "Sigmoid0"
}
layer {
  name: "pool0"
  type: "Pooling"
  bottom: "Sigmoid0"
  top: "pool0"
  pooling_param {
    pool: AVE
    kernel_size: 3
    stride: 2
  }
}
layer {
  name: "ip1"
  type: "InnerProduct"
  bottom: "pool0"
  top: "ip1"
  param {
    lr_mult: 1
  }
  param {
    lr_mult: 2
  }
  inner_product_param {
    num_output: 40
    weight_filler {
      type: "gaussian"
      std: 0.01
    }
    bias_filler {
      type: "constant"
    }
  }
}
layer {
  name: "relu1"
  type: "ReLU"
  bottom: "ip1"
  top: "ip1"
}
layer {
  name: "ip2"
  type: "InnerProduct"
  bottom: "ip1"
  top: "ip2"
  param {
    lr_mult: 1
  }
  param {
    lr_mult: 2
  }
  inner_product_param {
    num_output: 20
    weight_filler {
      type: "gaussian"
      std: 0.01
    }
    bias_filler {
      type: "constant"
    }
  }
}
layer {
  name: "relu2"
  type: "ReLU"
  bottom: "ip2"
  top: "ip2"
}
layer {
  name: "ip3"
  type: "InnerProduct"
  bottom: "ip2"
  top: "ip3"
  param {
    lr_mult: 1
  }
  param {
    lr_mult: 2
  }
  inner_product_param {
    num_output: 10
    weight_filler {
      type: "gaussian"
      std: 0.01
    }
    bias_filler {
      type: "constant"
    }
  }
}
layer {
  name: "relu3"
  type: "ReLU"
  bottom: "ip3"
  top: "ip3"
}
layer {
  name: "ip4"
  type: "InnerProduct"
  bottom: "ip3"
  top: "ip4"
  param {
    lr_mult: 1
  }
  param {
    lr_mult: 2
  }
  inner_product_param {
    num_output: 10
    weight_filler {
      type: "gaussian"
      std: 0.01
    }
    bias_filler {
      type: "constant"
    }
  }
}
layer {
  name: "accuracy"
  type: "Accuracy"
  bottom: "ip4"
  bottom: "label"
  top: "accuracy"
  include {
    phase: TEST
  }
}
layer {
  name: "loss"
  type: "SoftmaxWithLoss"
  bottom: "ip4"
  bottom: "label"
  top: "loss"
}
I0501 04:43:24.223973 26296 layer_factory.hpp:77] Creating layer cifar
I0501 04:43:24.224027 26296 db_lmdb.cpp:35] Opened lmdb examples/cifar10/cifar10_test_lmdb
I0501 04:43:24.224041 26296 net.cpp:86] Creating Layer cifar
I0501 04:43:24.224047 26296 net.cpp:382] cifar -> data
I0501 04:43:24.224056 26296 net.cpp:382] cifar -> label
I0501 04:43:24.224066 26296 data_transformer.cpp:25] Loading mean file from: examples/cifar10/mean.binaryproto
I0501 04:43:24.224233 26296 data_layer.cpp:45] output data size: 1000,3,32,32
I0501 04:43:24.250404 26296 net.cpp:124] Setting up cifar
I0501 04:43:24.250433 26296 net.cpp:131] Top shape: 1000 3 32 32 (3072000)
I0501 04:43:24.250440 26296 net.cpp:131] Top shape: 1000 (1000)
I0501 04:43:24.250444 26296 net.cpp:139] Memory required for data: 12292000
I0501 04:43:24.250452 26296 layer_factory.hpp:77] Creating layer label_cifar_1_split
I0501 04:43:24.250483 26296 net.cpp:86] Creating Layer label_cifar_1_split
I0501 04:43:24.250488 26296 net.cpp:408] label_cifar_1_split <- label
I0501 04:43:24.250495 26296 net.cpp:382] label_cifar_1_split -> label_cifar_1_split_0
I0501 04:43:24.250506 26296 net.cpp:382] label_cifar_1_split -> label_cifar_1_split_1
I0501 04:43:24.250644 26296 net.cpp:124] Setting up label_cifar_1_split
I0501 04:43:24.250653 26296 net.cpp:131] Top shape: 1000 (1000)
I0501 04:43:24.250658 26296 net.cpp:131] Top shape: 1000 (1000)
I0501 04:43:24.250661 26296 net.cpp:139] Memory required for data: 12300000
I0501 04:43:24.250665 26296 layer_factory.hpp:77] Creating layer conv0
I0501 04:43:24.250679 26296 net.cpp:86] Creating Layer conv0
I0501 04:43:24.250684 26296 net.cpp:408] conv0 <- data
I0501 04:43:24.250689 26296 net.cpp:382] conv0 -> conv0
I0501 04:43:24.252543 26296 net.cpp:124] Setting up conv0
I0501 04:43:24.252560 26296 net.cpp:131] Top shape: 1000 8 32 32 (8192000)
I0501 04:43:24.252564 26296 net.cpp:139] Memory required for data: 45068000
I0501 04:43:24.252578 26296 layer_factory.hpp:77] Creating layer Sigmoid0
I0501 04:43:24.252585 26296 net.cpp:86] Creating Layer Sigmoid0
I0501 04:43:24.252589 26296 net.cpp:408] Sigmoid0 <- conv0
I0501 04:43:24.252595 26296 net.cpp:382] Sigmoid0 -> Sigmoid0
I0501 04:43:24.252804 26296 net.cpp:124] Setting up Sigmoid0
I0501 04:43:24.252822 26296 net.cpp:131] Top shape: 1000 8 32 32 (8192000)
I0501 04:43:24.252826 26296 net.cpp:139] Memory required for data: 77836000
I0501 04:43:24.252830 26296 layer_factory.hpp:77] Creating layer pool0
I0501 04:43:24.252840 26296 net.cpp:86] Creating Layer pool0
I0501 04:43:24.252845 26296 net.cpp:408] pool0 <- Sigmoid0
I0501 04:43:24.252849 26296 net.cpp:382] pool0 -> pool0
I0501 04:43:24.253154 26296 net.cpp:124] Setting up pool0
I0501 04:43:24.253165 26296 net.cpp:131] Top shape: 1000 8 16 16 (2048000)
I0501 04:43:24.253168 26296 net.cpp:139] Memory required for data: 86028000
I0501 04:43:24.253172 26296 layer_factory.hpp:77] Creating layer ip1
I0501 04:43:24.253181 26296 net.cpp:86] Creating Layer ip1
I0501 04:43:24.253185 26296 net.cpp:408] ip1 <- pool0
I0501 04:43:24.253193 26296 net.cpp:382] ip1 -> ip1
I0501 04:43:24.256949 26296 net.cpp:124] Setting up ip1
I0501 04:43:24.256960 26296 net.cpp:131] Top shape: 1000 40 (40000)
I0501 04:43:24.256964 26296 net.cpp:139] Memory required for data: 86188000
I0501 04:43:24.256991 26296 layer_factory.hpp:77] Creating layer relu1
I0501 04:43:24.257001 26296 net.cpp:86] Creating Layer relu1
I0501 04:43:24.257004 26296 net.cpp:408] relu1 <- ip1
I0501 04:43:24.257010 26296 net.cpp:369] relu1 -> ip1 (in-place)
I0501 04:43:24.257223 26296 net.cpp:124] Setting up relu1
I0501 04:43:24.257233 26296 net.cpp:131] Top shape: 1000 40 (40000)
I0501 04:43:24.257237 26296 net.cpp:139] Memory required for data: 86348000
I0501 04:43:24.257241 26296 layer_factory.hpp:77] Creating layer ip2
I0501 04:43:24.257251 26296 net.cpp:86] Creating Layer ip2
I0501 04:43:24.257253 26296 net.cpp:408] ip2 <- ip1
I0501 04:43:24.257261 26296 net.cpp:382] ip2 -> ip2
I0501 04:43:24.257421 26296 net.cpp:124] Setting up ip2
I0501 04:43:24.257431 26296 net.cpp:131] Top shape: 1000 20 (20000)
I0501 04:43:24.257434 26296 net.cpp:139] Memory required for data: 86428000
I0501 04:43:24.257443 26296 layer_factory.hpp:77] Creating layer relu2
I0501 04:43:24.257452 26296 net.cpp:86] Creating Layer relu2
I0501 04:43:24.257457 26296 net.cpp:408] relu2 <- ip2
I0501 04:43:24.257462 26296 net.cpp:369] relu2 -> ip2 (in-place)
I0501 04:43:24.258359 26296 net.cpp:124] Setting up relu2
I0501 04:43:24.258374 26296 net.cpp:131] Top shape: 1000 20 (20000)
I0501 04:43:24.258378 26296 net.cpp:139] Memory required for data: 86508000
I0501 04:43:24.258383 26296 layer_factory.hpp:77] Creating layer ip3
I0501 04:43:24.258391 26296 net.cpp:86] Creating Layer ip3
I0501 04:43:24.258396 26296 net.cpp:408] ip3 <- ip2
I0501 04:43:24.258404 26296 net.cpp:382] ip3 -> ip3
I0501 04:43:24.258545 26296 net.cpp:124] Setting up ip3
I0501 04:43:24.258553 26296 net.cpp:131] Top shape: 1000 10 (10000)
I0501 04:43:24.258558 26296 net.cpp:139] Memory required for data: 86548000
I0501 04:43:24.258564 26296 layer_factory.hpp:77] Creating layer relu3
I0501 04:43:24.258571 26296 net.cpp:86] Creating Layer relu3
I0501 04:43:24.258574 26296 net.cpp:408] relu3 <- ip3
I0501 04:43:24.258581 26296 net.cpp:369] relu3 -> ip3 (in-place)
I0501 04:43:24.258772 26296 net.cpp:124] Setting up relu3
I0501 04:43:24.258781 26296 net.cpp:131] Top shape: 1000 10 (10000)
I0501 04:43:24.258785 26296 net.cpp:139] Memory required for data: 86588000
I0501 04:43:24.258788 26296 layer_factory.hpp:77] Creating layer ip4
I0501 04:43:24.258797 26296 net.cpp:86] Creating Layer ip4
I0501 04:43:24.258800 26296 net.cpp:408] ip4 <- ip3
I0501 04:43:24.258806 26296 net.cpp:382] ip4 -> ip4
I0501 04:43:24.258939 26296 net.cpp:124] Setting up ip4
I0501 04:43:24.258946 26296 net.cpp:131] Top shape: 1000 10 (10000)
I0501 04:43:24.258949 26296 net.cpp:139] Memory required for data: 86628000
I0501 04:43:24.258960 26296 layer_factory.hpp:77] Creating layer ip4_ip4_0_split
I0501 04:43:24.258965 26296 net.cpp:86] Creating Layer ip4_ip4_0_split
I0501 04:43:24.258968 26296 net.cpp:408] ip4_ip4_0_split <- ip4
I0501 04:43:24.258975 26296 net.cpp:382] ip4_ip4_0_split -> ip4_ip4_0_split_0
I0501 04:43:24.258981 26296 net.cpp:382] ip4_ip4_0_split -> ip4_ip4_0_split_1
I0501 04:43:24.259019 26296 net.cpp:124] Setting up ip4_ip4_0_split
I0501 04:43:24.259027 26296 net.cpp:131] Top shape: 1000 10 (10000)
I0501 04:43:24.259030 26296 net.cpp:131] Top shape: 1000 10 (10000)
I0501 04:43:24.259033 26296 net.cpp:139] Memory required for data: 86708000
I0501 04:43:24.259037 26296 layer_factory.hpp:77] Creating layer accuracy
I0501 04:43:24.259043 26296 net.cpp:86] Creating Layer accuracy
I0501 04:43:24.259047 26296 net.cpp:408] accuracy <- ip4_ip4_0_split_0
I0501 04:43:24.259052 26296 net.cpp:408] accuracy <- label_cifar_1_split_0
I0501 04:43:24.259058 26296 net.cpp:382] accuracy -> accuracy
…
