…
I0501 01:25:42.242399 10558 net.cpp:296] The NetState phase (0) differed from the phase (1) specified by a rule in layer cifar
I0501 01:25:42.242419 10558 net.cpp:296] The NetState phase (0) differed from the phase (1) specified by a rule in layer accuracy
I0501 01:25:42.242525 10558 net.cpp:53] Initializing net from parameters: 
name: "CIFAR"
state {
  phase: TRAIN
  level: 0
  stage: ""
}
layer {
  name: "cifar"
  type: "Data"
  top: "data"
  top: "label"
  include {
    phase: TRAIN
  }
  transform_param {
    mean_file: "examples/cifar10/mean.binaryproto"
  }
  data_param {
    source: "examples/cifar10/cifar10_train_lmdb"
    batch_size: 111
    backend: LMDB
  }
}
layer {
  name: "conv0"
  type: "Convolution"
  bottom: "data"
  top: "conv0"
  param {
    lr_mult: 1
  }
  param {
    lr_mult: 2
  }
  convolution_param {
    num_output: 8
    pad: 2
    kernel_size: 3
    stride: 1
    weight_filler {
      type: "gaussian"
      std: 0.01
    }
    bias_filler {
      type: "constant"
    }
  }
}
layer {
  name: "Sigmoid0"
  type: "Sigmoid"
  bottom: "conv0"
  top: "Sigmoid0"
}
layer {
  name: "pool0"
  type: "Pooling"
  bottom: "Sigmoid0"
  top: "pool0"
  pooling_param {
    pool: AVE
    kernel_size: 3
    stride: 2
  }
}
layer {
  name: "ip1"
  type: "InnerProduct"
  bottom: "pool0"
  top: "ip1"
  param {
    lr_mult: 1
  }
  param {
    lr_mult: 2
  }
  inner_product_param {
    num_output: 160
    weight_filler {
      type: "gaussian"
      std: 0.01
    }
    bias_filler {
      type: "constant"
    }
  }
}
layer {
  name: "relu1"
  type: "ReLU"
  bottom: "ip1"
  top: "ip1"
}
layer {
  name: "ip2"
  type: "InnerProduct"
  bottom: "ip1"
  top: "ip2"
  param {
    lr_mult: 1
  }
  param {
    lr_mult: 2
  }
  inner_product_param {
    num_output: 10
    weight_filler {
      type: "gaussian"
      std: 0.01
    }
    bias_filler {
      type: "constant"
    }
  }
}
layer {
  name: "relu2"
  type: "ReLU"
  bottom: "ip2"
  top: "ip2"
}
layer {
  name: "ip3"
  type: "InnerProduct"
  bottom: "ip2"
  top: "ip3"
  param {
    lr_mult: 1
  }
  param {
    lr_mult: 2
  }
  inner_product_param {
    num_output: 160
    weight_filler {
      type: "gaussian"
      std: 0.01
    }
    bias_filler {
      type: "constant"
    }
  }
}
layer {
  name: "relu3"
  type: "ReLU"
  bottom: "ip3"
  top: "ip3"
}
layer {
  name: "ip4"
  type: "InnerProduct"
  bottom: "ip3"
  top: "ip4"
  param {
    lr_mult: 1
  }
  param {
    lr_mult: 2
  }
  inner_product_param {
    num_output: 10
    weight_filler {
      type: "gaussian"
      std: 0.01
    }
    bias_filler {
      type: "constant"
    }
  }
}
layer {
  name: "loss"
  type: "SoftmaxWithLoss"
  bottom: "ip4"
  bottom: "label"
  top: "loss"
}
I0501 01:25:42.242609 10558 layer_factory.hpp:77] Creating layer cifar
I0501 01:25:42.242707 10558 db_lmdb.cpp:35] Opened lmdb examples/cifar10/cifar10_train_lmdb
I0501 01:25:42.242733 10558 net.cpp:86] Creating Layer cifar
I0501 01:25:42.242743 10558 net.cpp:382] cifar -> data
I0501 01:25:42.242765 10558 net.cpp:382] cifar -> label
I0501 01:25:42.242777 10558 data_transformer.cpp:25] Loading mean file from: examples/cifar10/mean.binaryproto
I0501 01:25:42.244891 10558 data_layer.cpp:45] output data size: 111,3,32,32
I0501 01:25:42.252980 10558 net.cpp:124] Setting up cifar
I0501 01:25:42.252998 10558 net.cpp:131] Top shape: 111 3 32 32 (340992)
I0501 01:25:42.253005 10558 net.cpp:131] Top shape: 111 (111)
I0501 01:25:42.253008 10558 net.cpp:139] Memory required for data: 1364412
I0501 01:25:42.253031 10558 layer_factory.hpp:77] Creating layer conv0
I0501 01:25:42.253051 10558 net.cpp:86] Creating Layer conv0
I0501 01:25:42.253056 10558 net.cpp:408] conv0 <- data
I0501 01:25:42.253072 10558 net.cpp:382] conv0 -> conv0
I0501 01:25:42.546030 10558 net.cpp:124] Setting up conv0
I0501 01:25:42.546059 10558 net.cpp:131] Top shape: 111 8 34 34 (1026528)
I0501 01:25:42.546064 10558 net.cpp:139] Memory required for data: 5470524
I0501 01:25:42.546082 10558 layer_factory.hpp:77] Creating layer Sigmoid0
I0501 01:25:42.546097 10558 net.cpp:86] Creating Layer Sigmoid0
I0501 01:25:42.546103 10558 net.cpp:408] Sigmoid0 <- conv0
I0501 01:25:42.546109 10558 net.cpp:382] Sigmoid0 -> Sigmoid0
I0501 01:25:42.546330 10558 net.cpp:124] Setting up Sigmoid0
I0501 01:25:42.546341 10558 net.cpp:131] Top shape: 111 8 34 34 (1026528)
I0501 01:25:42.546345 10558 net.cpp:139] Memory required for data: 9576636
I0501 01:25:42.546350 10558 layer_factory.hpp:77] Creating layer pool0
I0501 01:25:42.546356 10558 net.cpp:86] Creating Layer pool0
I0501 01:25:42.546360 10558 net.cpp:408] pool0 <- Sigmoid0
I0501 01:25:42.546367 10558 net.cpp:382] pool0 -> pool0
I0501 01:25:42.547224 10558 net.cpp:124] Setting up pool0
I0501 01:25:42.547240 10558 net.cpp:131] Top shape: 111 8 17 17 (256632)
I0501 01:25:42.547243 10558 net.cpp:139] Memory required for data: 10603164
I0501 01:25:42.547247 10558 layer_factory.hpp:77] Creating layer ip1
I0501 01:25:42.547260 10558 net.cpp:86] Creating Layer ip1
I0501 01:25:42.547264 10558 net.cpp:408] ip1 <- pool0
I0501 01:25:42.547272 10558 net.cpp:382] ip1 -> ip1
I0501 01:25:42.559957 10558 net.cpp:124] Setting up ip1
I0501 01:25:42.559973 10558 net.cpp:131] Top shape: 111 160 (17760)
I0501 01:25:42.559976 10558 net.cpp:139] Memory required for data: 10674204
I0501 01:25:42.559986 10558 layer_factory.hpp:77] Creating layer relu1
I0501 01:25:42.559994 10558 net.cpp:86] Creating Layer relu1
I0501 01:25:42.559998 10558 net.cpp:408] relu1 <- ip1
I0501 01:25:42.560004 10558 net.cpp:369] relu1 -> ip1 (in-place)
I0501 01:25:42.560194 10558 net.cpp:124] Setting up relu1
I0501 01:25:42.560204 10558 net.cpp:131] Top shape: 111 160 (17760)
I0501 01:25:42.560207 10558 net.cpp:139] Memory required for data: 10745244
I0501 01:25:42.560211 10558 layer_factory.hpp:77] Creating layer ip2
I0501 01:25:42.560220 10558 net.cpp:86] Creating Layer ip2
I0501 01:25:42.560223 10558 net.cpp:408] ip2 <- ip1
I0501 01:25:42.560230 10558 net.cpp:382] ip2 -> ip2
I0501 01:25:42.560397 10558 net.cpp:124] Setting up ip2
I0501 01:25:42.560407 10558 net.cpp:131] Top shape: 111 10 (1110)
I0501 01:25:42.560410 10558 net.cpp:139] Memory required for data: 10749684
I0501 01:25:42.560420 10558 layer_factory.hpp:77] Creating layer relu2
I0501 01:25:42.560425 10558 net.cpp:86] Creating Layer relu2
I0501 01:25:42.560430 10558 net.cpp:408] relu2 <- ip2
I0501 01:25:42.560434 10558 net.cpp:369] relu2 -> ip2 (in-place)
I0501 01:25:42.560621 10558 net.cpp:124] Setting up relu2
I0501 01:25:42.560631 10558 net.cpp:131] Top shape: 111 10 (1110)
I0501 01:25:42.560634 10558 net.cpp:139] Memory required for data: 10754124
I0501 01:25:42.560637 10558 layer_factory.hpp:77] Creating layer ip3
I0501 01:25:42.560647 10558 net.cpp:86] Creating Layer ip3
I0501 01:25:42.560650 10558 net.cpp:408] ip3 <- ip2
I0501 01:25:42.560655 10558 net.cpp:382] ip3 -> ip3
I0501 01:25:42.560822 10558 net.cpp:124] Setting up ip3
I0501 01:25:42.560830 10558 net.cpp:131] Top shape: 111 160 (17760)
I0501 01:25:42.560834 10558 net.cpp:139] Memory required for data: 10825164
I0501 01:25:42.560840 10558 layer_factory.hpp:77] Creating layer relu3
I0501 01:25:42.560847 10558 net.cpp:86] Creating Layer relu3
I0501 01:25:42.560850 10558 net.cpp:408] relu3 <- ip3
I0501 01:25:42.560854 10558 net.cpp:369] relu3 -> ip3 (in-place)
I0501 01:25:42.561022 10558 net.cpp:124] Setting up relu3
I0501 01:25:42.561029 10558 net.cpp:131] Top shape: 111 160 (17760)
I0501 01:25:42.561033 10558 net.cpp:139] Memory required for data: 10896204
I0501 01:25:42.561038 10558 layer_factory.hpp:77] Creating layer ip4
I0501 01:25:42.561063 10558 net.cpp:86] Creating Layer ip4
I0501 01:25:42.561067 10558 net.cpp:408] ip4 <- ip3
I0501 01:25:42.561072 10558 net.cpp:382] ip4 -> ip4
I0501 01:25:42.561230 10558 net.cpp:124] Setting up ip4
I0501 01:25:42.561239 10558 net.cpp:131] Top shape: 111 10 (1110)
I0501 01:25:42.561242 10558 net.cpp:139] Memory required for data: 10900644
I0501 01:25:42.561251 10558 layer_factory.hpp:77] Creating layer loss
I0501 01:25:42.561259 10558 net.cpp:86] Creating Layer loss
I0501 01:25:42.561261 10558 net.cpp:408] loss <- ip4
I0501 01:25:42.561265 10558 net.cpp:408] loss <- label
I0501 01:25:42.561271 10558 net.cpp:382] loss -> loss
I0501 01:25:42.561305 10558 layer_factory.hpp:77] Creating layer loss
…
I0501 01:25:42.562636 10558 solver.cpp:173] Creating test net (#0) specified by net file: ECE595/cifar/train_test/var_everything/cifar_train_test_289.prototxt
I0501 01:25:42.562666 10558 net.cpp:296] The NetState phase (1) differed from the phase (0) specified by a rule in layer cifar
I0501 01:25:42.562770 10558 net.cpp:53] Initializing net from parameters: 
name: "CIFAR"
state {
  phase: TEST
}
layer {
  name: "cifar"
  type: "Data"
  top: "data"
  top: "label"
  include {
    phase: TEST
  }
  transform_param {
    mean_file: "examples/cifar10/mean.binaryproto"
  }
  data_param {
    source: "examples/cifar10/cifar10_test_lmdb"
    batch_size: 1000
    backend: LMDB
  }
}
layer {
  name: "conv0"
  type: "Convolution"
  bottom: "data"
  top: "conv0"
  param {
    lr_mult: 1
  }
  param {
    lr_mult: 2
  }
  convolution_param {
    num_output: 8
    pad: 2
    kernel_size: 3
    stride: 1
    weight_filler {
      type: "gaussian"
      std: 0.01
    }
    bias_filler {
      type: "constant"
    }
  }
}
layer {
  name: "Sigmoid0"
  type: "Sigmoid"
  bottom: "conv0"
  top: "Sigmoid0"
}
layer {
  name: "pool0"
  type: "Pooling"
  bottom: "Sigmoid0"
  top: "pool0"
  pooling_param {
    pool: AVE
    kernel_size: 3
    stride: 2
  }
}
layer {
  name: "ip1"
  type: "InnerProduct"
  bottom: "pool0"
  top: "ip1"
  param {
    lr_mult: 1
  }
  param {
    lr_mult: 2
  }
  inner_product_param {
    num_output: 160
    weight_filler {
      type: "gaussian"
      std: 0.01
    }
    bias_filler {
      type: "constant"
    }
  }
}
layer {
  name: "relu1"
  type: "ReLU"
  bottom: "ip1"
  top: "ip1"
}
layer {
  name: "ip2"
  type: "InnerProduct"
  bottom: "ip1"
  top: "ip2"
  param {
    lr_mult: 1
  }
  param {
    lr_mult: 2
  }
  inner_product_param {
    num_output: 10
    weight_filler {
      type: "gaussian"
      std: 0.01
    }
    bias_filler {
      type: "constant"
    }
  }
}
layer {
  name: "relu2"
  type: "ReLU"
  bottom: "ip2"
  top: "ip2"
}
layer {
  name: "ip3"
  type: "InnerProduct"
  bottom: "ip2"
  top: "ip3"
  param {
    lr_mult: 1
  }
  param {
    lr_mult: 2
  }
  inner_product_param {
    num_output: 160
    weight_filler {
      type: "gaussian"
      std: 0.01
    }
    bias_filler {
      type: "constant"
    }
  }
}
layer {
  name: "relu3"
  type: "ReLU"
  bottom: "ip3"
  top: "ip3"
}
layer {
  name: "ip4"
  type: "InnerProduct"
  bottom: "ip3"
  top: "ip4"
  param {
    lr_mult: 1
  }
  param {
    lr_mult: 2
  }
  inner_product_param {
    num_output: 10
    weight_filler {
      type: "gaussian"
      std: 0.01
    }
    bias_filler {
      type: "constant"
    }
  }
}
layer {
  name: "accuracy"
  type: "Accuracy"
  bottom: "ip4"
  bottom: "label"
  top: "accuracy"
  include {
    phase: TEST
  }
}
layer {
  name: "loss"
  type: "SoftmaxWithLoss"
  bottom: "ip4"
  bottom: "label"
  top: "loss"
}
I0501 01:25:42.562860 10558 layer_factory.hpp:77] Creating layer cifar
I0501 01:25:42.562913 10558 db_lmdb.cpp:35] Opened lmdb examples/cifar10/cifar10_test_lmdb
I0501 01:25:42.562927 10558 net.cpp:86] Creating Layer cifar
I0501 01:25:42.562933 10558 net.cpp:382] cifar -> data
I0501 01:25:42.562942 10558 net.cpp:382] cifar -> label
I0501 01:25:42.562948 10558 data_transformer.cpp:25] Loading mean file from: examples/cifar10/mean.binaryproto
I0501 01:25:42.563104 10558 data_layer.cpp:45] output data size: 1000,3,32,32
I0501 01:25:42.587816 10558 net.cpp:124] Setting up cifar
I0501 01:25:42.587843 10558 net.cpp:131] Top shape: 1000 3 32 32 (3072000)
I0501 01:25:42.587849 10558 net.cpp:131] Top shape: 1000 (1000)
I0501 01:25:42.587853 10558 net.cpp:139] Memory required for data: 12292000
I0501 01:25:42.587859 10558 layer_factory.hpp:77] Creating layer label_cifar_1_split
I0501 01:25:42.587872 10558 net.cpp:86] Creating Layer label_cifar_1_split
I0501 01:25:42.587875 10558 net.cpp:408] label_cifar_1_split <- label
I0501 01:25:42.587882 10558 net.cpp:382] label_cifar_1_split -> label_cifar_1_split_0
I0501 01:25:42.587891 10558 net.cpp:382] label_cifar_1_split -> label_cifar_1_split_1
I0501 01:25:42.587991 10558 net.cpp:124] Setting up label_cifar_1_split
I0501 01:25:42.587999 10558 net.cpp:131] Top shape: 1000 (1000)
I0501 01:25:42.588003 10558 net.cpp:131] Top shape: 1000 (1000)
I0501 01:25:42.588006 10558 net.cpp:139] Memory required for data: 12300000
I0501 01:25:42.588008 10558 layer_factory.hpp:77] Creating layer conv0
I0501 01:25:42.588021 10558 net.cpp:86] Creating Layer conv0
I0501 01:25:42.588024 10558 net.cpp:408] conv0 <- data
I0501 01:25:42.588029 10558 net.cpp:382] conv0 -> conv0
I0501 01:25:42.589710 10558 net.cpp:124] Setting up conv0
I0501 01:25:42.589728 10558 net.cpp:131] Top shape: 1000 8 34 34 (9248000)
I0501 01:25:42.589732 10558 net.cpp:139] Memory required for data: 49292000
I0501 01:25:42.589742 10558 layer_factory.hpp:77] Creating layer Sigmoid0
I0501 01:25:42.589750 10558 net.cpp:86] Creating Layer Sigmoid0
I0501 01:25:42.589753 10558 net.cpp:408] Sigmoid0 <- conv0
I0501 01:25:42.589757 10558 net.cpp:382] Sigmoid0 -> Sigmoid0
I0501 01:25:42.589937 10558 net.cpp:124] Setting up Sigmoid0
I0501 01:25:42.589947 10558 net.cpp:131] Top shape: 1000 8 34 34 (9248000)
I0501 01:25:42.589951 10558 net.cpp:139] Memory required for data: 86284000
I0501 01:25:42.589954 10558 layer_factory.hpp:77] Creating layer pool0
I0501 01:25:42.589962 10558 net.cpp:86] Creating Layer pool0
I0501 01:25:42.589965 10558 net.cpp:408] pool0 <- Sigmoid0
I0501 01:25:42.589970 10558 net.cpp:382] pool0 -> pool0
I0501 01:25:42.590137 10558 net.cpp:124] Setting up pool0
I0501 01:25:42.590145 10558 net.cpp:131] Top shape: 1000 8 17 17 (2312000)
I0501 01:25:42.590148 10558 net.cpp:139] Memory required for data: 95532000
I0501 01:25:42.590152 10558 layer_factory.hpp:77] Creating layer ip1
I0501 01:25:42.590159 10558 net.cpp:86] Creating Layer ip1
I0501 01:25:42.590162 10558 net.cpp:408] ip1 <- pool0
I0501 01:25:42.590168 10558 net.cpp:382] ip1 -> ip1
I0501 01:25:42.601234 10558 net.cpp:124] Setting up ip1
I0501 01:25:42.601248 10558 net.cpp:131] Top shape: 1000 160 (160000)
I0501 01:25:42.601251 10558 net.cpp:139] Memory required for data: 96172000
I0501 01:25:42.601274 10558 layer_factory.hpp:77] Creating layer relu1
I0501 01:25:42.601281 10558 net.cpp:86] Creating Layer relu1
I0501 01:25:42.601285 10558 net.cpp:408] relu1 <- ip1
I0501 01:25:42.601290 10558 net.cpp:369] relu1 -> ip1 (in-place)
I0501 01:25:42.601459 10558 net.cpp:124] Setting up relu1
I0501 01:25:42.601466 10558 net.cpp:131] Top shape: 1000 160 (160000)
I0501 01:25:42.601470 10558 net.cpp:139] Memory required for data: 96812000
I0501 01:25:42.601474 10558 layer_factory.hpp:77] Creating layer ip2
I0501 01:25:42.601480 10558 net.cpp:86] Creating Layer ip2
I0501 01:25:42.601483 10558 net.cpp:408] ip2 <- ip1
I0501 01:25:42.601488 10558 net.cpp:382] ip2 -> ip2
I0501 01:25:42.601636 10558 net.cpp:124] Setting up ip2
I0501 01:25:42.601644 10558 net.cpp:131] Top shape: 1000 10 (10000)
I0501 01:25:42.601646 10558 net.cpp:139] Memory required for data: 96852000
I0501 01:25:42.601655 10558 layer_factory.hpp:77] Creating layer relu2
I0501 01:25:42.601660 10558 net.cpp:86] Creating Layer relu2
I0501 01:25:42.601663 10558 net.cpp:408] relu2 <- ip2
I0501 01:25:42.601667 10558 net.cpp:369] relu2 -> ip2 (in-place)
I0501 01:25:42.602409 10558 net.cpp:124] Setting up relu2
I0501 01:25:42.602421 10558 net.cpp:131] Top shape: 1000 10 (10000)
I0501 01:25:42.602425 10558 net.cpp:139] Memory required for data: 96892000
I0501 01:25:42.602428 10558 layer_factory.hpp:77] Creating layer ip3
I0501 01:25:42.602437 10558 net.cpp:86] Creating Layer ip3
I0501 01:25:42.602439 10558 net.cpp:408] ip3 <- ip2
I0501 01:25:42.602445 10558 net.cpp:382] ip3 -> ip3
I0501 01:25:42.602593 10558 net.cpp:124] Setting up ip3
I0501 01:25:42.602601 10558 net.cpp:131] Top shape: 1000 160 (160000)
I0501 01:25:42.602603 10558 net.cpp:139] Memory required for data: 97532000
I0501 01:25:42.602609 10558 layer_factory.hpp:77] Creating layer relu3
I0501 01:25:42.602614 10558 net.cpp:86] Creating Layer relu3
I0501 01:25:42.602618 10558 net.cpp:408] relu3 <- ip3
I0501 01:25:42.602622 10558 net.cpp:369] relu3 -> ip3 (in-place)
I0501 01:25:42.602767 10558 net.cpp:124] Setting up relu3
I0501 01:25:42.602776 10558 net.cpp:131] Top shape: 1000 160 (160000)
I0501 01:25:42.602779 10558 net.cpp:139] Memory required for data: 98172000
I0501 01:25:42.602782 10558 layer_factory.hpp:77] Creating layer ip4
I0501 01:25:42.602788 10558 net.cpp:86] Creating Layer ip4
I0501 01:25:42.602792 10558 net.cpp:408] ip4 <- ip3
I0501 01:25:42.602797 10558 net.cpp:382] ip4 -> ip4
I0501 01:25:42.602936 10558 net.cpp:124] Setting up ip4
I0501 01:25:42.602943 10558 net.cpp:131] Top shape: 1000 10 (10000)
I0501 01:25:42.602946 10558 net.cpp:139] Memory required for data: 98212000
I0501 01:25:42.602954 10558 layer_factory.hpp:77] Creating layer ip4_ip4_0_split
I0501 01:25:42.602960 10558 net.cpp:86] Creating Layer ip4_ip4_0_split
I0501 01:25:42.602963 10558 net.cpp:408] ip4_ip4_0_split <- ip4
I0501 01:25:42.602967 10558 net.cpp:382] ip4_ip4_0_split -> ip4_ip4_0_split_0
I0501 01:25:42.602973 10558 net.cpp:382] ip4_ip4_0_split -> ip4_ip4_0_split_1
I0501 01:25:42.603003 10558 net.cpp:124] Setting up ip4_ip4_0_split
I0501 01:25:42.603010 10558 net.cpp:131] Top shape: 1000 10 (10000)
I0501 01:25:42.603014 10558 net.cpp:131] Top shape: 1000 10 (10000)
I0501 01:25:42.603018 10558 net.cpp:139] Memory required for data: 98292000
I0501 01:25:42.603021 10558 layer_factory.hpp:77] Creating layer accuracy
I0501 01:25:42.603026 10558 net.cpp:86] Creating Layer accuracy
I0501 01:25:42.603030 10558 net.cpp:408] accuracy <- ip4_ip4_0_split_0
I0501 01:25:42.603034 10558 net.cpp:408] accuracy <- label_cifar_1_split_0
I0501 01:25:42.603039 10558 net.cpp:382] accuracy -> accuracy
…
