…
I0501 02:25:50.519800 15262 net.cpp:296] The NetState phase (0) differed from the phase (1) specified by a rule in layer cifar
I0501 02:25:50.519819 15262 net.cpp:296] The NetState phase (0) differed from the phase (1) specified by a rule in layer accuracy
I0501 02:25:50.519909 15262 net.cpp:53] Initializing net from parameters: 
name: "CIFAR"
state {
  phase: TRAIN
  level: 0
  stage: ""
}
layer {
  name: "cifar"
  type: "Data"
  top: "data"
  top: "label"
  include {
    phase: TRAIN
  }
  transform_param {
    mean_file: "examples/cifar10/mean.binaryproto"
  }
  data_param {
    source: "examples/cifar10/cifar10_train_lmdb"
    batch_size: 111
    backend: LMDB
  }
}
layer {
  name: "conv0"
  type: "Convolution"
  bottom: "data"
  top: "conv0"
  param {
    lr_mult: 1
  }
  param {
    lr_mult: 2
  }
  convolution_param {
    num_output: 8
    pad: 2
    kernel_size: 5
    stride: 1
    weight_filler {
      type: "gaussian"
      std: 0.01
    }
    bias_filler {
      type: "constant"
    }
  }
}
layer {
  name: "Sigmoid0"
  type: "Sigmoid"
  bottom: "conv0"
  top: "Sigmoid0"
}
layer {
  name: "pool0"
  type: "Pooling"
  bottom: "Sigmoid0"
  top: "pool0"
  pooling_param {
    pool: AVE
    kernel_size: 3
    stride: 2
  }
}
layer {
  name: "ip1"
  type: "InnerProduct"
  bottom: "pool0"
  top: "ip1"
  param {
    lr_mult: 1
  }
  param {
    lr_mult: 2
  }
  inner_product_param {
    num_output: 20
    weight_filler {
      type: "gaussian"
      std: 0.01
    }
    bias_filler {
      type: "constant"
    }
  }
}
layer {
  name: "relu1"
  type: "ReLU"
  bottom: "ip1"
  top: "ip1"
}
layer {
  name: "ip2"
  type: "InnerProduct"
  bottom: "ip1"
  top: "ip2"
  param {
    lr_mult: 1
  }
  param {
    lr_mult: 2
  }
  inner_product_param {
    num_output: 20
    weight_filler {
      type: "gaussian"
      std: 0.01
    }
    bias_filler {
      type: "constant"
    }
  }
}
layer {
  name: "relu2"
  type: "ReLU"
  bottom: "ip2"
  top: "ip2"
}
layer {
  name: "ip3"
  type: "InnerProduct"
  bottom: "ip2"
  top: "ip3"
  param {
    lr_mult: 1
  }
  param {
    lr_mult: 2
  }
  inner_product_param {
    num_output: 10
    weight_filler {
      type: "gaussian"
      std: 0.01
    }
    bias_filler {
      type: "constant"
    }
  }
}
layer {
  name: "loss"
  type: "SoftmaxWithLoss"
  bottom: "ip3"
  bottom: "label"
  top: "loss"
}
I0501 02:25:50.519985 15262 layer_factory.hpp:77] Creating layer cifar
I0501 02:25:50.520083 15262 db_lmdb.cpp:35] Opened lmdb examples/cifar10/cifar10_train_lmdb
I0501 02:25:50.520109 15262 net.cpp:86] Creating Layer cifar
I0501 02:25:50.520117 15262 net.cpp:382] cifar -> data
I0501 02:25:50.520138 15262 net.cpp:382] cifar -> label
I0501 02:25:50.520154 15262 data_transformer.cpp:25] Loading mean file from: examples/cifar10/mean.binaryproto
I0501 02:25:50.522269 15262 data_layer.cpp:45] output data size: 111,3,32,32
I0501 02:25:50.530102 15262 net.cpp:124] Setting up cifar
I0501 02:25:50.530122 15262 net.cpp:131] Top shape: 111 3 32 32 (340992)
I0501 02:25:50.530128 15262 net.cpp:131] Top shape: 111 (111)
I0501 02:25:50.530131 15262 net.cpp:139] Memory required for data: 1364412
I0501 02:25:50.530138 15262 layer_factory.hpp:77] Creating layer conv0
I0501 02:25:50.530158 15262 net.cpp:86] Creating Layer conv0
I0501 02:25:50.530164 15262 net.cpp:408] conv0 <- data
I0501 02:25:50.530175 15262 net.cpp:382] conv0 -> conv0
I0501 02:25:50.819941 15262 net.cpp:124] Setting up conv0
I0501 02:25:50.819984 15262 net.cpp:131] Top shape: 111 8 32 32 (909312)
I0501 02:25:50.819988 15262 net.cpp:139] Memory required for data: 5001660
I0501 02:25:50.820005 15262 layer_factory.hpp:77] Creating layer Sigmoid0
I0501 02:25:50.820019 15262 net.cpp:86] Creating Layer Sigmoid0
I0501 02:25:50.820024 15262 net.cpp:408] Sigmoid0 <- conv0
I0501 02:25:50.820029 15262 net.cpp:382] Sigmoid0 -> Sigmoid0
I0501 02:25:50.820225 15262 net.cpp:124] Setting up Sigmoid0
I0501 02:25:50.820235 15262 net.cpp:131] Top shape: 111 8 32 32 (909312)
I0501 02:25:50.820237 15262 net.cpp:139] Memory required for data: 8638908
I0501 02:25:50.820246 15262 layer_factory.hpp:77] Creating layer pool0
I0501 02:25:50.820255 15262 net.cpp:86] Creating Layer pool0
I0501 02:25:50.820260 15262 net.cpp:408] pool0 <- Sigmoid0
I0501 02:25:50.820263 15262 net.cpp:382] pool0 -> pool0
I0501 02:25:50.821070 15262 net.cpp:124] Setting up pool0
I0501 02:25:50.821085 15262 net.cpp:131] Top shape: 111 8 16 16 (227328)
I0501 02:25:50.821089 15262 net.cpp:139] Memory required for data: 9548220
I0501 02:25:50.821092 15262 layer_factory.hpp:77] Creating layer ip1
I0501 02:25:50.821102 15262 net.cpp:86] Creating Layer ip1
I0501 02:25:50.821105 15262 net.cpp:408] ip1 <- pool0
I0501 02:25:50.821112 15262 net.cpp:382] ip1 -> ip1
I0501 02:25:50.823235 15262 net.cpp:124] Setting up ip1
I0501 02:25:50.823247 15262 net.cpp:131] Top shape: 111 20 (2220)
I0501 02:25:50.823251 15262 net.cpp:139] Memory required for data: 9557100
I0501 02:25:50.823259 15262 layer_factory.hpp:77] Creating layer relu1
I0501 02:25:50.823266 15262 net.cpp:86] Creating Layer relu1
I0501 02:25:50.823271 15262 net.cpp:408] relu1 <- ip1
I0501 02:25:50.823276 15262 net.cpp:369] relu1 -> ip1 (in-place)
I0501 02:25:50.823446 15262 net.cpp:124] Setting up relu1
I0501 02:25:50.823454 15262 net.cpp:131] Top shape: 111 20 (2220)
I0501 02:25:50.823458 15262 net.cpp:139] Memory required for data: 9565980
I0501 02:25:50.823462 15262 layer_factory.hpp:77] Creating layer ip2
I0501 02:25:50.823469 15262 net.cpp:86] Creating Layer ip2
I0501 02:25:50.823472 15262 net.cpp:408] ip2 <- ip1
I0501 02:25:50.823477 15262 net.cpp:382] ip2 -> ip2
I0501 02:25:50.823585 15262 net.cpp:124] Setting up ip2
I0501 02:25:50.823591 15262 net.cpp:131] Top shape: 111 20 (2220)
I0501 02:25:50.823595 15262 net.cpp:139] Memory required for data: 9574860
I0501 02:25:50.823602 15262 layer_factory.hpp:77] Creating layer relu2
I0501 02:25:50.823608 15262 net.cpp:86] Creating Layer relu2
I0501 02:25:50.823611 15262 net.cpp:408] relu2 <- ip2
I0501 02:25:50.823616 15262 net.cpp:369] relu2 -> ip2 (in-place)
I0501 02:25:50.823783 15262 net.cpp:124] Setting up relu2
I0501 02:25:50.823791 15262 net.cpp:131] Top shape: 111 20 (2220)
I0501 02:25:50.823794 15262 net.cpp:139] Memory required for data: 9583740
I0501 02:25:50.823797 15262 layer_factory.hpp:77] Creating layer ip3
I0501 02:25:50.823807 15262 net.cpp:86] Creating Layer ip3
I0501 02:25:50.823809 15262 net.cpp:408] ip3 <- ip2
I0501 02:25:50.823814 15262 net.cpp:382] ip3 -> ip3
I0501 02:25:50.823915 15262 net.cpp:124] Setting up ip3
I0501 02:25:50.823922 15262 net.cpp:131] Top shape: 111 10 (1110)
I0501 02:25:50.823925 15262 net.cpp:139] Memory required for data: 9588180
I0501 02:25:50.823930 15262 layer_factory.hpp:77] Creating layer loss
I0501 02:25:50.823936 15262 net.cpp:86] Creating Layer loss
I0501 02:25:50.823940 15262 net.cpp:408] loss <- ip3
I0501 02:25:50.823942 15262 net.cpp:408] loss <- label
I0501 02:25:50.823949 15262 net.cpp:382] loss -> loss
I0501 02:25:50.823967 15262 layer_factory.hpp:77] Creating layer loss
…
I0501 02:25:50.824587 15262 solver.cpp:173] Creating test net (#0) specified by net file: ECE595/cifar/train_test/var_everything/cifar_train_test_321.prototxt
I0501 02:25:50.824615 15262 net.cpp:296] The NetState phase (1) differed from the phase (0) specified by a rule in layer cifar
I0501 02:25:50.824705 15262 net.cpp:53] Initializing net from parameters: 
name: "CIFAR"
state {
  phase: TEST
}
layer {
  name: "cifar"
  type: "Data"
  top: "data"
  top: "label"
  include {
    phase: TEST
  }
  transform_param {
    mean_file: "examples/cifar10/mean.binaryproto"
  }
  data_param {
    source: "examples/cifar10/cifar10_test_lmdb"
    batch_size: 1000
    backend: LMDB
  }
}
layer {
  name: "conv0"
  type: "Convolution"
  bottom: "data"
  top: "conv0"
  param {
    lr_mult: 1
  }
  param {
    lr_mult: 2
  }
  convolution_param {
    num_output: 8
    pad: 2
    kernel_size: 5
    stride: 1
    weight_filler {
      type: "gaussian"
      std: 0.01
    }
    bias_filler {
      type: "constant"
    }
  }
}
layer {
  name: "Sigmoid0"
  type: "Sigmoid"
  bottom: "conv0"
  top: "Sigmoid0"
}
layer {
  name: "pool0"
  type: "Pooling"
  bottom: "Sigmoid0"
  top: "pool0"
  pooling_param {
    pool: AVE
    kernel_size: 3
    stride: 2
  }
}
layer {
  name: "ip1"
  type: "InnerProduct"
  bottom: "pool0"
  top: "ip1"
  param {
    lr_mult: 1
  }
  param {
    lr_mult: 2
  }
  inner_product_param {
    num_output: 20
    weight_filler {
      type: "gaussian"
      std: 0.01
    }
    bias_filler {
      type: "constant"
    }
  }
}
layer {
  name: "relu1"
  type: "ReLU"
  bottom: "ip1"
  top: "ip1"
}
layer {
  name: "ip2"
  type: "InnerProduct"
  bottom: "ip1"
  top: "ip2"
  param {
    lr_mult: 1
  }
  param {
    lr_mult: 2
  }
  inner_product_param {
    num_output: 20
    weight_filler {
      type: "gaussian"
      std: 0.01
    }
    bias_filler {
      type: "constant"
    }
  }
}
layer {
  name: "relu2"
  type: "ReLU"
  bottom: "ip2"
  top: "ip2"
}
layer {
  name: "ip3"
  type: "InnerProduct"
  bottom: "ip2"
  top: "ip3"
  param {
    lr_mult: 1
  }
  param {
    lr_mult: 2
  }
  inner_product_param {
    num_output: 10
    weight_filler {
      type: "gaussian"
      std: 0.01
    }
    bias_filler {
      type: "constant"
    }
  }
}
layer {
  name: "accuracy"
  type: "Accuracy"
  bottom: "ip3"
  bottom: "label"
  top: "accuracy"
  include {
    phase: TEST
  }
}
layer {
  name: "loss"
  type: "SoftmaxWithLoss"
  bottom: "ip3"
  bottom: "label"
  top: "loss"
}
I0501 02:25:50.824774 15262 layer_factory.hpp:77] Creating layer cifar
I0501 02:25:50.824825 15262 db_lmdb.cpp:35] Opened lmdb examples/cifar10/cifar10_test_lmdb
I0501 02:25:50.824838 15262 net.cpp:86] Creating Layer cifar
I0501 02:25:50.824842 15262 net.cpp:382] cifar -> data
I0501 02:25:50.824852 15262 net.cpp:382] cifar -> label
I0501 02:25:50.824859 15262 data_transformer.cpp:25] Loading mean file from: examples/cifar10/mean.binaryproto
I0501 02:25:50.825011 15262 data_layer.cpp:45] output data size: 1000,3,32,32
I0501 02:25:50.847595 15262 net.cpp:124] Setting up cifar
I0501 02:25:50.847622 15262 net.cpp:131] Top shape: 1000 3 32 32 (3072000)
I0501 02:25:50.847656 15262 net.cpp:131] Top shape: 1000 (1000)
I0501 02:25:50.847659 15262 net.cpp:139] Memory required for data: 12292000
I0501 02:25:50.847664 15262 layer_factory.hpp:77] Creating layer label_cifar_1_split
I0501 02:25:50.847677 15262 net.cpp:86] Creating Layer label_cifar_1_split
I0501 02:25:50.847695 15262 net.cpp:408] label_cifar_1_split <- label
I0501 02:25:50.847702 15262 net.cpp:382] label_cifar_1_split -> label_cifar_1_split_0
I0501 02:25:50.847710 15262 net.cpp:382] label_cifar_1_split -> label_cifar_1_split_1
I0501 02:25:50.847800 15262 net.cpp:124] Setting up label_cifar_1_split
I0501 02:25:50.847806 15262 net.cpp:131] Top shape: 1000 (1000)
I0501 02:25:50.847810 15262 net.cpp:131] Top shape: 1000 (1000)
I0501 02:25:50.847812 15262 net.cpp:139] Memory required for data: 12300000
I0501 02:25:50.847815 15262 layer_factory.hpp:77] Creating layer conv0
I0501 02:25:50.847829 15262 net.cpp:86] Creating Layer conv0
I0501 02:25:50.847833 15262 net.cpp:408] conv0 <- data
I0501 02:25:50.847839 15262 net.cpp:382] conv0 -> conv0
I0501 02:25:50.849607 15262 net.cpp:124] Setting up conv0
I0501 02:25:50.849622 15262 net.cpp:131] Top shape: 1000 8 32 32 (8192000)
I0501 02:25:50.849625 15262 net.cpp:139] Memory required for data: 45068000
I0501 02:25:50.849635 15262 layer_factory.hpp:77] Creating layer Sigmoid0
I0501 02:25:50.849642 15262 net.cpp:86] Creating Layer Sigmoid0
I0501 02:25:50.849645 15262 net.cpp:408] Sigmoid0 <- conv0
I0501 02:25:50.849650 15262 net.cpp:382] Sigmoid0 -> Sigmoid0
I0501 02:25:50.850497 15262 net.cpp:124] Setting up Sigmoid0
I0501 02:25:50.850508 15262 net.cpp:131] Top shape: 1000 8 32 32 (8192000)
I0501 02:25:50.850512 15262 net.cpp:139] Memory required for data: 77836000
I0501 02:25:50.850515 15262 layer_factory.hpp:77] Creating layer pool0
I0501 02:25:50.850523 15262 net.cpp:86] Creating Layer pool0
I0501 02:25:50.850528 15262 net.cpp:408] pool0 <- Sigmoid0
I0501 02:25:50.850533 15262 net.cpp:382] pool0 -> pool0
I0501 02:25:50.851671 15262 net.cpp:124] Setting up pool0
I0501 02:25:50.851682 15262 net.cpp:131] Top shape: 1000 8 16 16 (2048000)
I0501 02:25:50.851686 15262 net.cpp:139] Memory required for data: 86028000
I0501 02:25:50.851688 15262 layer_factory.hpp:77] Creating layer ip1
I0501 02:25:50.851706 15262 net.cpp:86] Creating Layer ip1
I0501 02:25:50.851709 15262 net.cpp:408] ip1 <- pool0
I0501 02:25:50.851714 15262 net.cpp:382] ip1 -> ip1
I0501 02:25:50.852931 15262 net.cpp:124] Setting up ip1
I0501 02:25:50.852941 15262 net.cpp:131] Top shape: 1000 20 (20000)
I0501 02:25:50.852943 15262 net.cpp:139] Memory required for data: 86108000
I0501 02:25:50.852952 15262 layer_factory.hpp:77] Creating layer relu1
I0501 02:25:50.852959 15262 net.cpp:86] Creating Layer relu1
I0501 02:25:50.852963 15262 net.cpp:408] relu1 <- ip1
I0501 02:25:50.852967 15262 net.cpp:369] relu1 -> ip1 (in-place)
I0501 02:25:50.853129 15262 net.cpp:124] Setting up relu1
I0501 02:25:50.853137 15262 net.cpp:131] Top shape: 1000 20 (20000)
I0501 02:25:50.853142 15262 net.cpp:139] Memory required for data: 86188000
I0501 02:25:50.853144 15262 layer_factory.hpp:77] Creating layer ip2
I0501 02:25:50.853152 15262 net.cpp:86] Creating Layer ip2
I0501 02:25:50.853155 15262 net.cpp:408] ip2 <- ip1
I0501 02:25:50.853160 15262 net.cpp:382] ip2 -> ip2
I0501 02:25:50.853277 15262 net.cpp:124] Setting up ip2
I0501 02:25:50.853284 15262 net.cpp:131] Top shape: 1000 20 (20000)
I0501 02:25:50.853287 15262 net.cpp:139] Memory required for data: 86268000
I0501 02:25:50.853294 15262 layer_factory.hpp:77] Creating layer relu2
I0501 02:25:50.853301 15262 net.cpp:86] Creating Layer relu2
I0501 02:25:50.853303 15262 net.cpp:408] relu2 <- ip2
I0501 02:25:50.853308 15262 net.cpp:369] relu2 -> ip2 (in-place)
I0501 02:25:50.853469 15262 net.cpp:124] Setting up relu2
I0501 02:25:50.853477 15262 net.cpp:131] Top shape: 1000 20 (20000)
I0501 02:25:50.853482 15262 net.cpp:139] Memory required for data: 86348000
I0501 02:25:50.853484 15262 layer_factory.hpp:77] Creating layer ip3
I0501 02:25:50.853507 15262 net.cpp:86] Creating Layer ip3
I0501 02:25:50.853510 15262 net.cpp:408] ip3 <- ip2
I0501 02:25:50.853515 15262 net.cpp:382] ip3 -> ip3
I0501 02:25:50.853632 15262 net.cpp:124] Setting up ip3
I0501 02:25:50.853639 15262 net.cpp:131] Top shape: 1000 10 (10000)
I0501 02:25:50.853642 15262 net.cpp:139] Memory required for data: 86388000
I0501 02:25:50.853658 15262 layer_factory.hpp:77] Creating layer ip3_ip3_0_split
I0501 02:25:50.853664 15262 net.cpp:86] Creating Layer ip3_ip3_0_split
I0501 02:25:50.853667 15262 net.cpp:408] ip3_ip3_0_split <- ip3
I0501 02:25:50.853672 15262 net.cpp:382] ip3_ip3_0_split -> ip3_ip3_0_split_0
I0501 02:25:50.853677 15262 net.cpp:382] ip3_ip3_0_split -> ip3_ip3_0_split_1
I0501 02:25:50.853711 15262 net.cpp:124] Setting up ip3_ip3_0_split
I0501 02:25:50.853716 15262 net.cpp:131] Top shape: 1000 10 (10000)
I0501 02:25:50.853720 15262 net.cpp:131] Top shape: 1000 10 (10000)
I0501 02:25:50.853723 15262 net.cpp:139] Memory required for data: 86468000
I0501 02:25:50.853734 15262 layer_factory.hpp:77] Creating layer accuracy
I0501 02:25:50.853744 15262 net.cpp:86] Creating Layer accuracy
I0501 02:25:50.853746 15262 net.cpp:408] accuracy <- ip3_ip3_0_split_0
I0501 02:25:50.853751 15262 net.cpp:408] accuracy <- label_cifar_1_split_0
I0501 02:25:50.853756 15262 net.cpp:382] accuracy -> accuracy
…
