…
I0501 08:41:24.572199 11628 net.cpp:296] The NetState phase (0) differed from the phase (1) specified by a rule in layer cifar
I0501 08:41:24.572219 11628 net.cpp:296] The NetState phase (0) differed from the phase (1) specified by a rule in layer accuracy
I0501 08:41:24.572325 11628 net.cpp:53] Initializing net from parameters: 
name: "CIFAR"
state {
  phase: TRAIN
  level: 0
  stage: ""
}
layer {
  name: "cifar"
  type: "Data"
  top: "data"
  top: "label"
  include {
    phase: TRAIN
  }
  transform_param {
    mean_file: "examples/cifar10/mean.binaryproto"
  }
  data_param {
    source: "examples/cifar10/cifar10_train_lmdb"
    batch_size: 111
    backend: LMDB
  }
}
layer {
  name: "conv0"
  type: "Convolution"
  bottom: "data"
  top: "conv0"
  param {
    lr_mult: 1
  }
  param {
    lr_mult: 2
  }
  convolution_param {
    num_output: 16
    pad: 2
    kernel_size: 3
    stride: 1
    weight_filler {
      type: "gaussian"
      std: 0.01
    }
    bias_filler {
      type: "constant"
    }
  }
}
layer {
  name: "Sigmoid0"
  type: "Sigmoid"
  bottom: "conv0"
  top: "Sigmoid0"
}
layer {
  name: "pool0"
  type: "Pooling"
  bottom: "Sigmoid0"
  top: "pool0"
  pooling_param {
    pool: AVE
    kernel_size: 3
    stride: 2
  }
}
layer {
  name: "ip1"
  type: "InnerProduct"
  bottom: "pool0"
  top: "ip1"
  param {
    lr_mult: 1
  }
  param {
    lr_mult: 2
  }
  inner_product_param {
    num_output: 10
    weight_filler {
      type: "gaussian"
      std: 0.01
    }
    bias_filler {
      type: "constant"
    }
  }
}
layer {
  name: "relu1"
  type: "ReLU"
  bottom: "ip1"
  top: "ip1"
}
layer {
  name: "ip2"
  type: "InnerProduct"
  bottom: "ip1"
  top: "ip2"
  param {
    lr_mult: 1
  }
  param {
    lr_mult: 2
  }
  inner_product_param {
    num_output: 160
    weight_filler {
      type: "gaussian"
      std: 0.01
    }
    bias_filler {
      type: "constant"
    }
  }
}
layer {
  name: "relu2"
  type: "ReLU"
  bottom: "ip2"
  top: "ip2"
}
layer {
  name: "ip3"
  type: "InnerProduct"
  bottom: "ip2"
  top: "ip3"
  param {
    lr_mult: 1
  }
  param {
    lr_mult: 2
  }
  inner_product_param {
    num_output: 80
    weight_filler {
      type: "gaussian"
      std: 0.01
    }
    bias_filler {
      type: "constant"
    }
  }
}
layer {
  name: "relu3"
  type: "ReLU"
  bottom: "ip3"
  top: "ip3"
}
layer {
  name: "ip4"
  type: "InnerProduct"
  bottom: "ip3"
  top: "ip4"
  param {
    lr_mult: 1
  }
  param {
    lr_mult: 2
  }
  inner_product_param {
    num_output: 10
    weight_filler {
      type: "gaussian"
      std: 0.01
    }
    bias_filler {
      type: "constant"
    }
  }
}
layer {
  name: "loss"
  type: "SoftmaxWithLoss"
  bottom: "ip4"
  bottom: "label"
  top: "loss"
}
I0501 08:41:24.572403 11628 layer_factory.hpp:77] Creating layer cifar
I0501 08:41:24.572497 11628 db_lmdb.cpp:35] Opened lmdb examples/cifar10/cifar10_train_lmdb
I0501 08:41:24.572525 11628 net.cpp:86] Creating Layer cifar
I0501 08:41:24.572533 11628 net.cpp:382] cifar -> data
I0501 08:41:24.572556 11628 net.cpp:382] cifar -> label
I0501 08:41:24.572566 11628 data_transformer.cpp:25] Loading mean file from: examples/cifar10/mean.binaryproto
I0501 08:41:24.574733 11628 data_layer.cpp:45] output data size: 111,3,32,32
I0501 08:41:24.582928 11628 net.cpp:124] Setting up cifar
I0501 08:41:24.582947 11628 net.cpp:131] Top shape: 111 3 32 32 (340992)
I0501 08:41:24.582954 11628 net.cpp:131] Top shape: 111 (111)
I0501 08:41:24.582957 11628 net.cpp:139] Memory required for data: 1364412
I0501 08:41:24.582980 11628 layer_factory.hpp:77] Creating layer conv0
I0501 08:41:24.582999 11628 net.cpp:86] Creating Layer conv0
I0501 08:41:24.583005 11628 net.cpp:408] conv0 <- data
I0501 08:41:24.583019 11628 net.cpp:382] conv0 -> conv0
I0501 08:41:24.852358 11628 net.cpp:124] Setting up conv0
I0501 08:41:24.852399 11628 net.cpp:131] Top shape: 111 16 34 34 (2053056)
I0501 08:41:24.852418 11628 net.cpp:139] Memory required for data: 9576636
I0501 08:41:24.852433 11628 layer_factory.hpp:77] Creating layer Sigmoid0
I0501 08:41:24.852444 11628 net.cpp:86] Creating Layer Sigmoid0
I0501 08:41:24.852448 11628 net.cpp:408] Sigmoid0 <- conv0
I0501 08:41:24.852453 11628 net.cpp:382] Sigmoid0 -> Sigmoid0
I0501 08:41:24.852633 11628 net.cpp:124] Setting up Sigmoid0
I0501 08:41:24.852643 11628 net.cpp:131] Top shape: 111 16 34 34 (2053056)
I0501 08:41:24.852645 11628 net.cpp:139] Memory required for data: 17788860
I0501 08:41:24.852648 11628 layer_factory.hpp:77] Creating layer pool0
I0501 08:41:24.852655 11628 net.cpp:86] Creating Layer pool0
I0501 08:41:24.852658 11628 net.cpp:408] pool0 <- Sigmoid0
I0501 08:41:24.852663 11628 net.cpp:382] pool0 -> pool0
I0501 08:41:24.853399 11628 net.cpp:124] Setting up pool0
I0501 08:41:24.853427 11628 net.cpp:131] Top shape: 111 16 17 17 (513264)
I0501 08:41:24.853431 11628 net.cpp:139] Memory required for data: 19841916
I0501 08:41:24.853435 11628 layer_factory.hpp:77] Creating layer ip1
I0501 08:41:24.853443 11628 net.cpp:86] Creating Layer ip1
I0501 08:41:24.853446 11628 net.cpp:408] ip1 <- pool0
I0501 08:41:24.853451 11628 net.cpp:382] ip1 -> ip1
I0501 08:41:24.855597 11628 net.cpp:124] Setting up ip1
I0501 08:41:24.855623 11628 net.cpp:131] Top shape: 111 10 (1110)
I0501 08:41:24.855628 11628 net.cpp:139] Memory required for data: 19846356
I0501 08:41:24.855634 11628 layer_factory.hpp:77] Creating layer relu1
I0501 08:41:24.855641 11628 net.cpp:86] Creating Layer relu1
I0501 08:41:24.855644 11628 net.cpp:408] relu1 <- ip1
I0501 08:41:24.855649 11628 net.cpp:369] relu1 -> ip1 (in-place)
I0501 08:41:24.855823 11628 net.cpp:124] Setting up relu1
I0501 08:41:24.855831 11628 net.cpp:131] Top shape: 111 10 (1110)
I0501 08:41:24.855834 11628 net.cpp:139] Memory required for data: 19850796
I0501 08:41:24.855837 11628 layer_factory.hpp:77] Creating layer ip2
I0501 08:41:24.855844 11628 net.cpp:86] Creating Layer ip2
I0501 08:41:24.855847 11628 net.cpp:408] ip2 <- ip1
I0501 08:41:24.855851 11628 net.cpp:382] ip2 -> ip2
I0501 08:41:24.855980 11628 net.cpp:124] Setting up ip2
I0501 08:41:24.855986 11628 net.cpp:131] Top shape: 111 160 (17760)
I0501 08:41:24.855989 11628 net.cpp:139] Memory required for data: 19921836
I0501 08:41:24.855996 11628 layer_factory.hpp:77] Creating layer relu2
I0501 08:41:24.856000 11628 net.cpp:86] Creating Layer relu2
I0501 08:41:24.856003 11628 net.cpp:408] relu2 <- ip2
I0501 08:41:24.856007 11628 net.cpp:369] relu2 -> ip2 (in-place)
I0501 08:41:24.856147 11628 net.cpp:124] Setting up relu2
I0501 08:41:24.856154 11628 net.cpp:131] Top shape: 111 160 (17760)
I0501 08:41:24.856158 11628 net.cpp:139] Memory required for data: 19992876
I0501 08:41:24.856160 11628 layer_factory.hpp:77] Creating layer ip3
I0501 08:41:24.856168 11628 net.cpp:86] Creating Layer ip3
I0501 08:41:24.856170 11628 net.cpp:408] ip3 <- ip2
I0501 08:41:24.856174 11628 net.cpp:382] ip3 -> ip3
I0501 08:41:24.857437 11628 net.cpp:124] Setting up ip3
I0501 08:41:24.857450 11628 net.cpp:131] Top shape: 111 80 (8880)
I0501 08:41:24.857452 11628 net.cpp:139] Memory required for data: 20028396
I0501 08:41:24.857458 11628 layer_factory.hpp:77] Creating layer relu3
I0501 08:41:24.857462 11628 net.cpp:86] Creating Layer relu3
I0501 08:41:24.857465 11628 net.cpp:408] relu3 <- ip3
I0501 08:41:24.857470 11628 net.cpp:369] relu3 -> ip3 (in-place)
I0501 08:41:24.857646 11628 net.cpp:124] Setting up relu3
I0501 08:41:24.857656 11628 net.cpp:131] Top shape: 111 80 (8880)
I0501 08:41:24.857658 11628 net.cpp:139] Memory required for data: 20063916
I0501 08:41:24.857661 11628 layer_factory.hpp:77] Creating layer ip4
I0501 08:41:24.857681 11628 net.cpp:86] Creating Layer ip4
I0501 08:41:24.857686 11628 net.cpp:408] ip4 <- ip3
I0501 08:41:24.857689 11628 net.cpp:382] ip4 -> ip4
I0501 08:41:24.857803 11628 net.cpp:124] Setting up ip4
I0501 08:41:24.857811 11628 net.cpp:131] Top shape: 111 10 (1110)
I0501 08:41:24.857815 11628 net.cpp:139] Memory required for data: 20068356
I0501 08:41:24.857821 11628 layer_factory.hpp:77] Creating layer loss
I0501 08:41:24.857826 11628 net.cpp:86] Creating Layer loss
I0501 08:41:24.857830 11628 net.cpp:408] loss <- ip4
I0501 08:41:24.857833 11628 net.cpp:408] loss <- label
I0501 08:41:24.857838 11628 net.cpp:382] loss -> loss
I0501 08:41:24.857854 11628 layer_factory.hpp:77] Creating layer loss
…
I0501 08:41:24.859055 11628 solver.cpp:173] Creating test net (#0) specified by net file: ECE595/cifar/train_test/var_everything/cifar_train_test_518.prototxt
I0501 08:41:24.859081 11628 net.cpp:296] The NetState phase (1) differed from the phase (0) specified by a rule in layer cifar
I0501 08:41:24.859169 11628 net.cpp:53] Initializing net from parameters: 
name: "CIFAR"
state {
  phase: TEST
}
layer {
  name: "cifar"
  type: "Data"
  top: "data"
  top: "label"
  include {
    phase: TEST
  }
  transform_param {
    mean_file: "examples/cifar10/mean.binaryproto"
  }
  data_param {
    source: "examples/cifar10/cifar10_test_lmdb"
    batch_size: 1000
    backend: LMDB
  }
}
layer {
  name: "conv0"
  type: "Convolution"
  bottom: "data"
  top: "conv0"
  param {
    lr_mult: 1
  }
  param {
    lr_mult: 2
  }
  convolution_param {
    num_output: 16
    pad: 2
    kernel_size: 3
    stride: 1
    weight_filler {
      type: "gaussian"
      std: 0.01
    }
    bias_filler {
      type: "constant"
    }
  }
}
layer {
  name: "Sigmoid0"
  type: "Sigmoid"
  bottom: "conv0"
  top: "Sigmoid0"
}
layer {
  name: "pool0"
  type: "Pooling"
  bottom: "Sigmoid0"
  top: "pool0"
  pooling_param {
    pool: AVE
    kernel_size: 3
    stride: 2
  }
}
layer {
  name: "ip1"
  type: "InnerProduct"
  bottom: "pool0"
  top: "ip1"
  param {
    lr_mult: 1
  }
  param {
    lr_mult: 2
  }
  inner_product_param {
    num_output: 10
    weight_filler {
      type: "gaussian"
      std: 0.01
    }
    bias_filler {
      type: "constant"
    }
  }
}
layer {
  name: "relu1"
  type: "ReLU"
  bottom: "ip1"
  top: "ip1"
}
layer {
  name: "ip2"
  type: "InnerProduct"
  bottom: "ip1"
  top: "ip2"
  param {
    lr_mult: 1
  }
  param {
    lr_mult: 2
  }
  inner_product_param {
    num_output: 160
    weight_filler {
      type: "gaussian"
      std: 0.01
    }
    bias_filler {
      type: "constant"
    }
  }
}
layer {
  name: "relu2"
  type: "ReLU"
  bottom: "ip2"
  top: "ip2"
}
layer {
  name: "ip3"
  type: "InnerProduct"
  bottom: "ip2"
  top: "ip3"
  param {
    lr_mult: 1
  }
  param {
    lr_mult: 2
  }
  inner_product_param {
    num_output: 80
    weight_filler {
      type: "gaussian"
      std: 0.01
    }
    bias_filler {
      type: "constant"
    }
  }
}
layer {
  name: "relu3"
  type: "ReLU"
  bottom: "ip3"
  top: "ip3"
}
layer {
  name: "ip4"
  type: "InnerProduct"
  bottom: "ip3"
  top: "ip4"
  param {
    lr_mult: 1
  }
  param {
    lr_mult: 2
  }
  inner_product_param {
    num_output: 10
    weight_filler {
      type: "gaussian"
      std: 0.01
    }
    bias_filler {
      type: "constant"
    }
  }
}
layer {
  name: "accuracy"
  type: "Accuracy"
  bottom: "ip4"
  bottom: "label"
  top: "accuracy"
  include {
    phase: TEST
  }
}
layer {
  name: "loss"
  type: "SoftmaxWithLoss"
  bottom: "ip4"
  bottom: "label"
  top: "loss"
}
I0501 08:41:24.859241 11628 layer_factory.hpp:77] Creating layer cifar
I0501 08:41:24.859283 11628 db_lmdb.cpp:35] Opened lmdb examples/cifar10/cifar10_test_lmdb
I0501 08:41:24.859295 11628 net.cpp:86] Creating Layer cifar
I0501 08:41:24.859299 11628 net.cpp:382] cifar -> data
I0501 08:41:24.859307 11628 net.cpp:382] cifar -> label
I0501 08:41:24.859313 11628 data_transformer.cpp:25] Loading mean file from: examples/cifar10/mean.binaryproto
I0501 08:41:24.859444 11628 data_layer.cpp:45] output data size: 1000,3,32,32
I0501 08:41:24.881610 11628 net.cpp:124] Setting up cifar
I0501 08:41:24.881638 11628 net.cpp:131] Top shape: 1000 3 32 32 (3072000)
I0501 08:41:24.881642 11628 net.cpp:131] Top shape: 1000 (1000)
I0501 08:41:24.881645 11628 net.cpp:139] Memory required for data: 12292000
I0501 08:41:24.881650 11628 layer_factory.hpp:77] Creating layer label_cifar_1_split
I0501 08:41:24.881682 11628 net.cpp:86] Creating Layer label_cifar_1_split
I0501 08:41:24.881686 11628 net.cpp:408] label_cifar_1_split <- label
I0501 08:41:24.881707 11628 net.cpp:382] label_cifar_1_split -> label_cifar_1_split_0
I0501 08:41:24.881716 11628 net.cpp:382] label_cifar_1_split -> label_cifar_1_split_1
I0501 08:41:24.881789 11628 net.cpp:124] Setting up label_cifar_1_split
I0501 08:41:24.881798 11628 net.cpp:131] Top shape: 1000 (1000)
I0501 08:41:24.881801 11628 net.cpp:131] Top shape: 1000 (1000)
I0501 08:41:24.881803 11628 net.cpp:139] Memory required for data: 12300000
I0501 08:41:24.881806 11628 layer_factory.hpp:77] Creating layer conv0
I0501 08:41:24.881819 11628 net.cpp:86] Creating Layer conv0
I0501 08:41:24.881821 11628 net.cpp:408] conv0 <- data
I0501 08:41:24.881826 11628 net.cpp:382] conv0 -> conv0
I0501 08:41:24.883443 11628 net.cpp:124] Setting up conv0
I0501 08:41:24.883457 11628 net.cpp:131] Top shape: 1000 16 34 34 (18496000)
I0501 08:41:24.883460 11628 net.cpp:139] Memory required for data: 86284000
I0501 08:41:24.883469 11628 layer_factory.hpp:77] Creating layer Sigmoid0
I0501 08:41:24.883491 11628 net.cpp:86] Creating Layer Sigmoid0
I0501 08:41:24.883494 11628 net.cpp:408] Sigmoid0 <- conv0
I0501 08:41:24.883498 11628 net.cpp:382] Sigmoid0 -> Sigmoid0
I0501 08:41:24.883664 11628 net.cpp:124] Setting up Sigmoid0
I0501 08:41:24.883674 11628 net.cpp:131] Top shape: 1000 16 34 34 (18496000)
I0501 08:41:24.883677 11628 net.cpp:139] Memory required for data: 160268000
I0501 08:41:24.883680 11628 layer_factory.hpp:77] Creating layer pool0
I0501 08:41:24.883687 11628 net.cpp:86] Creating Layer pool0
I0501 08:41:24.883692 11628 net.cpp:408] pool0 <- Sigmoid0
I0501 08:41:24.883695 11628 net.cpp:382] pool0 -> pool0
I0501 08:41:24.883853 11628 net.cpp:124] Setting up pool0
I0501 08:41:24.883862 11628 net.cpp:131] Top shape: 1000 16 17 17 (4624000)
I0501 08:41:24.883865 11628 net.cpp:139] Memory required for data: 178764000
I0501 08:41:24.883868 11628 layer_factory.hpp:77] Creating layer ip1
I0501 08:41:24.883877 11628 net.cpp:86] Creating Layer ip1
I0501 08:41:24.883879 11628 net.cpp:408] ip1 <- pool0
I0501 08:41:24.883884 11628 net.cpp:382] ip1 -> ip1
I0501 08:41:24.885402 11628 net.cpp:124] Setting up ip1
I0501 08:41:24.885413 11628 net.cpp:131] Top shape: 1000 10 (10000)
I0501 08:41:24.885416 11628 net.cpp:139] Memory required for data: 178804000
I0501 08:41:24.885452 11628 layer_factory.hpp:77] Creating layer relu1
I0501 08:41:24.885459 11628 net.cpp:86] Creating Layer relu1
I0501 08:41:24.885462 11628 net.cpp:408] relu1 <- ip1
I0501 08:41:24.885466 11628 net.cpp:369] relu1 -> ip1 (in-place)
I0501 08:41:24.885628 11628 net.cpp:124] Setting up relu1
I0501 08:41:24.885637 11628 net.cpp:131] Top shape: 1000 10 (10000)
I0501 08:41:24.885640 11628 net.cpp:139] Memory required for data: 178844000
I0501 08:41:24.885643 11628 layer_factory.hpp:77] Creating layer ip2
I0501 08:41:24.885650 11628 net.cpp:86] Creating Layer ip2
I0501 08:41:24.885653 11628 net.cpp:408] ip2 <- ip1
I0501 08:41:24.885658 11628 net.cpp:382] ip2 -> ip2
I0501 08:41:24.885802 11628 net.cpp:124] Setting up ip2
I0501 08:41:24.885809 11628 net.cpp:131] Top shape: 1000 160 (160000)
I0501 08:41:24.885812 11628 net.cpp:139] Memory required for data: 179484000
I0501 08:41:24.885819 11628 layer_factory.hpp:77] Creating layer relu2
I0501 08:41:24.885824 11628 net.cpp:86] Creating Layer relu2
I0501 08:41:24.885828 11628 net.cpp:408] relu2 <- ip2
I0501 08:41:24.885830 11628 net.cpp:369] relu2 -> ip2 (in-place)
I0501 08:41:24.886590 11628 net.cpp:124] Setting up relu2
I0501 08:41:24.886600 11628 net.cpp:131] Top shape: 1000 160 (160000)
I0501 08:41:24.886605 11628 net.cpp:139] Memory required for data: 180124000
I0501 08:41:24.886607 11628 layer_factory.hpp:77] Creating layer ip3
I0501 08:41:24.886615 11628 net.cpp:86] Creating Layer ip3
I0501 08:41:24.886633 11628 net.cpp:408] ip3 <- ip2
I0501 08:41:24.886639 11628 net.cpp:382] ip3 -> ip3
I0501 08:41:24.887080 11628 net.cpp:124] Setting up ip3
I0501 08:41:24.887087 11628 net.cpp:131] Top shape: 1000 80 (80000)
I0501 08:41:24.887091 11628 net.cpp:139] Memory required for data: 180444000
I0501 08:41:24.887120 11628 layer_factory.hpp:77] Creating layer relu3
I0501 08:41:24.887125 11628 net.cpp:86] Creating Layer relu3
I0501 08:41:24.887127 11628 net.cpp:408] relu3 <- ip3
I0501 08:41:24.887131 11628 net.cpp:369] relu3 -> ip3 (in-place)
I0501 08:41:24.887303 11628 net.cpp:124] Setting up relu3
I0501 08:41:24.887313 11628 net.cpp:131] Top shape: 1000 80 (80000)
I0501 08:41:24.887316 11628 net.cpp:139] Memory required for data: 180764000
I0501 08:41:24.887320 11628 layer_factory.hpp:77] Creating layer ip4
I0501 08:41:24.887326 11628 net.cpp:86] Creating Layer ip4
I0501 08:41:24.887328 11628 net.cpp:408] ip4 <- ip3
I0501 08:41:24.887333 11628 net.cpp:382] ip4 -> ip4
I0501 08:41:24.887456 11628 net.cpp:124] Setting up ip4
I0501 08:41:24.887464 11628 net.cpp:131] Top shape: 1000 10 (10000)
I0501 08:41:24.887467 11628 net.cpp:139] Memory required for data: 180804000
I0501 08:41:24.887475 11628 layer_factory.hpp:77] Creating layer ip4_ip4_0_split
I0501 08:41:24.887480 11628 net.cpp:86] Creating Layer ip4_ip4_0_split
I0501 08:41:24.887482 11628 net.cpp:408] ip4_ip4_0_split <- ip4
I0501 08:41:24.887501 11628 net.cpp:382] ip4_ip4_0_split -> ip4_ip4_0_split_0
I0501 08:41:24.887506 11628 net.cpp:382] ip4_ip4_0_split -> ip4_ip4_0_split_1
I0501 08:41:24.887537 11628 net.cpp:124] Setting up ip4_ip4_0_split
I0501 08:41:24.887542 11628 net.cpp:131] Top shape: 1000 10 (10000)
I0501 08:41:24.887544 11628 net.cpp:131] Top shape: 1000 10 (10000)
I0501 08:41:24.887547 11628 net.cpp:139] Memory required for data: 180884000
I0501 08:41:24.887557 11628 layer_factory.hpp:77] Creating layer accuracy
I0501 08:41:24.887567 11628 net.cpp:86] Creating Layer accuracy
I0501 08:41:24.887570 11628 net.cpp:408] accuracy <- ip4_ip4_0_split_0
I0501 08:41:24.887574 11628 net.cpp:408] accuracy <- label_cifar_1_split_0
I0501 08:41:24.887578 11628 net.cpp:382] accuracy -> accuracy
…
