…
I0501 00:33:17.768380  7272 net.cpp:296] The NetState phase (0) differed from the phase (1) specified by a rule in layer cifar
I0501 00:33:17.768399  7272 net.cpp:296] The NetState phase (0) differed from the phase (1) specified by a rule in layer accuracy
I0501 00:33:17.768499  7272 net.cpp:53] Initializing net from parameters: 
name: "CIFAR"
state {
  phase: TRAIN
  level: 0
  stage: ""
}
layer {
  name: "cifar"
  type: "Data"
  top: "data"
  top: "label"
  include {
    phase: TRAIN
  }
  transform_param {
    mean_file: "examples/cifar10/mean.binaryproto"
  }
  data_param {
    source: "examples/cifar10/cifar10_train_lmdb"
    batch_size: 111
    backend: LMDB
  }
}
layer {
  name: "conv0"
  type: "Convolution"
  bottom: "data"
  top: "conv0"
  param {
    lr_mult: 1
  }
  param {
    lr_mult: 2
  }
  convolution_param {
    num_output: 8
    pad: 2
    kernel_size: 3
    stride: 1
    weight_filler {
      type: "gaussian"
      std: 0.01
    }
    bias_filler {
      type: "constant"
    }
  }
}
layer {
  name: "Sigmoid0"
  type: "Sigmoid"
  bottom: "conv0"
  top: "Sigmoid0"
}
layer {
  name: "pool0"
  type: "Pooling"
  bottom: "Sigmoid0"
  top: "pool0"
  pooling_param {
    pool: AVE
    kernel_size: 3
    stride: 2
  }
}
layer {
  name: "ip1"
  type: "InnerProduct"
  bottom: "pool0"
  top: "ip1"
  param {
    lr_mult: 1
  }
  param {
    lr_mult: 2
  }
  inner_product_param {
    num_output: 80
    weight_filler {
      type: "gaussian"
      std: 0.01
    }
    bias_filler {
      type: "constant"
    }
  }
}
layer {
  name: "relu1"
  type: "ReLU"
  bottom: "ip1"
  top: "ip1"
}
layer {
  name: "ip2"
  type: "InnerProduct"
  bottom: "ip1"
  top: "ip2"
  param {
    lr_mult: 1
  }
  param {
    lr_mult: 2
  }
  inner_product_param {
    num_output: 10
    weight_filler {
      type: "gaussian"
      std: 0.01
    }
    bias_filler {
      type: "constant"
    }
  }
}
layer {
  name: "relu2"
  type: "ReLU"
  bottom: "ip2"
  top: "ip2"
}
layer {
  name: "ip3"
  type: "InnerProduct"
  bottom: "ip2"
  top: "ip3"
  param {
    lr_mult: 1
  }
  param {
    lr_mult: 2
  }
  inner_product_param {
    num_output: 20
    weight_filler {
      type: "gaussian"
      std: 0.01
    }
    bias_filler {
      type: "constant"
    }
  }
}
layer {
  name: "relu3"
  type: "ReLU"
  bottom: "ip3"
  top: "ip3"
}
layer {
  name: "ip4"
  type: "InnerProduct"
  bottom: "ip3"
  top: "ip4"
  param {
    lr_mult: 1
  }
  param {
    lr_mult: 2
  }
  inner_product_param {
    num_output: 10
    weight_filler {
      type: "gaussian"
      std: 0.01
    }
    bias_filler {
      type: "constant"
    }
  }
}
layer {
  name: "loss"
  type: "SoftmaxWithLoss"
  bottom: "ip4"
  bottom: "label"
  top: "loss"
}
I0501 00:33:17.768573  7272 layer_factory.hpp:77] Creating layer cifar
I0501 00:33:17.768672  7272 db_lmdb.cpp:35] Opened lmdb examples/cifar10/cifar10_train_lmdb
I0501 00:33:17.768698  7272 net.cpp:86] Creating Layer cifar
I0501 00:33:17.768707  7272 net.cpp:382] cifar -> data
I0501 00:33:17.768729  7272 net.cpp:382] cifar -> label
I0501 00:33:17.768741  7272 data_transformer.cpp:25] Loading mean file from: examples/cifar10/mean.binaryproto
I0501 00:33:17.770848  7272 data_layer.cpp:45] output data size: 111,3,32,32
I0501 00:33:17.778906  7272 net.cpp:124] Setting up cifar
I0501 00:33:17.778925  7272 net.cpp:131] Top shape: 111 3 32 32 (340992)
I0501 00:33:17.778931  7272 net.cpp:131] Top shape: 111 (111)
I0501 00:33:17.778935  7272 net.cpp:139] Memory required for data: 1364412
I0501 00:33:17.778957  7272 layer_factory.hpp:77] Creating layer conv0
I0501 00:33:17.778975  7272 net.cpp:86] Creating Layer conv0
I0501 00:33:17.778980  7272 net.cpp:408] conv0 <- data
I0501 00:33:17.778992  7272 net.cpp:382] conv0 -> conv0
I0501 00:33:18.050292  7272 net.cpp:124] Setting up conv0
I0501 00:33:18.050318  7272 net.cpp:131] Top shape: 111 8 34 34 (1026528)
I0501 00:33:18.050323  7272 net.cpp:139] Memory required for data: 5470524
I0501 00:33:18.050353  7272 layer_factory.hpp:77] Creating layer Sigmoid0
I0501 00:33:18.050365  7272 net.cpp:86] Creating Layer Sigmoid0
I0501 00:33:18.050369  7272 net.cpp:408] Sigmoid0 <- conv0
I0501 00:33:18.050374  7272 net.cpp:382] Sigmoid0 -> Sigmoid0
I0501 00:33:18.050564  7272 net.cpp:124] Setting up Sigmoid0
I0501 00:33:18.050581  7272 net.cpp:131] Top shape: 111 8 34 34 (1026528)
I0501 00:33:18.050585  7272 net.cpp:139] Memory required for data: 9576636
I0501 00:33:18.050588  7272 layer_factory.hpp:77] Creating layer pool0
I0501 00:33:18.050595  7272 net.cpp:86] Creating Layer pool0
I0501 00:33:18.050597  7272 net.cpp:408] pool0 <- Sigmoid0
I0501 00:33:18.050602  7272 net.cpp:382] pool0 -> pool0
I0501 00:33:18.051311  7272 net.cpp:124] Setting up pool0
I0501 00:33:18.051322  7272 net.cpp:131] Top shape: 111 8 17 17 (256632)
I0501 00:33:18.051326  7272 net.cpp:139] Memory required for data: 10603164
I0501 00:33:18.051329  7272 layer_factory.hpp:77] Creating layer ip1
I0501 00:33:18.051353  7272 net.cpp:86] Creating Layer ip1
I0501 00:33:18.051357  7272 net.cpp:408] ip1 <- pool0
I0501 00:33:18.051362  7272 net.cpp:382] ip1 -> ip1
I0501 00:33:18.057004  7272 net.cpp:124] Setting up ip1
I0501 00:33:18.057016  7272 net.cpp:131] Top shape: 111 80 (8880)
I0501 00:33:18.057035  7272 net.cpp:139] Memory required for data: 10638684
I0501 00:33:18.057044  7272 layer_factory.hpp:77] Creating layer relu1
I0501 00:33:18.057049  7272 net.cpp:86] Creating Layer relu1
I0501 00:33:18.057054  7272 net.cpp:408] relu1 <- ip1
I0501 00:33:18.057057  7272 net.cpp:369] relu1 -> ip1 (in-place)
I0501 00:33:18.057251  7272 net.cpp:124] Setting up relu1
I0501 00:33:18.057260  7272 net.cpp:131] Top shape: 111 80 (8880)
I0501 00:33:18.057262  7272 net.cpp:139] Memory required for data: 10674204
I0501 00:33:18.057265  7272 layer_factory.hpp:77] Creating layer ip2
I0501 00:33:18.057271  7272 net.cpp:86] Creating Layer ip2
I0501 00:33:18.057274  7272 net.cpp:408] ip2 <- ip1
I0501 00:33:18.057279  7272 net.cpp:382] ip2 -> ip2
I0501 00:33:18.058168  7272 net.cpp:124] Setting up ip2
I0501 00:33:18.058179  7272 net.cpp:131] Top shape: 111 10 (1110)
I0501 00:33:18.058198  7272 net.cpp:139] Memory required for data: 10678644
I0501 00:33:18.058207  7272 layer_factory.hpp:77] Creating layer relu2
I0501 00:33:18.058212  7272 net.cpp:86] Creating Layer relu2
I0501 00:33:18.058215  7272 net.cpp:408] relu2 <- ip2
I0501 00:33:18.058219  7272 net.cpp:369] relu2 -> ip2 (in-place)
I0501 00:33:18.058403  7272 net.cpp:124] Setting up relu2
I0501 00:33:18.058413  7272 net.cpp:131] Top shape: 111 10 (1110)
I0501 00:33:18.058415  7272 net.cpp:139] Memory required for data: 10683084
I0501 00:33:18.058418  7272 layer_factory.hpp:77] Creating layer ip3
I0501 00:33:18.058424  7272 net.cpp:86] Creating Layer ip3
I0501 00:33:18.058429  7272 net.cpp:408] ip3 <- ip2
I0501 00:33:18.058434  7272 net.cpp:382] ip3 -> ip3
I0501 00:33:18.058522  7272 net.cpp:124] Setting up ip3
I0501 00:33:18.058529  7272 net.cpp:131] Top shape: 111 20 (2220)
I0501 00:33:18.058532  7272 net.cpp:139] Memory required for data: 10691964
I0501 00:33:18.058537  7272 layer_factory.hpp:77] Creating layer relu3
I0501 00:33:18.058542  7272 net.cpp:86] Creating Layer relu3
I0501 00:33:18.058545  7272 net.cpp:408] relu3 <- ip3
I0501 00:33:18.058548  7272 net.cpp:369] relu3 -> ip3 (in-place)
I0501 00:33:18.058686  7272 net.cpp:124] Setting up relu3
I0501 00:33:18.058693  7272 net.cpp:131] Top shape: 111 20 (2220)
I0501 00:33:18.058696  7272 net.cpp:139] Memory required for data: 10700844
I0501 00:33:18.058699  7272 layer_factory.hpp:77] Creating layer ip4
I0501 00:33:18.058717  7272 net.cpp:86] Creating Layer ip4
I0501 00:33:18.058722  7272 net.cpp:408] ip4 <- ip3
I0501 00:33:18.058725  7272 net.cpp:382] ip4 -> ip4
I0501 00:33:18.058815  7272 net.cpp:124] Setting up ip4
I0501 00:33:18.058822  7272 net.cpp:131] Top shape: 111 10 (1110)
I0501 00:33:18.058825  7272 net.cpp:139] Memory required for data: 10705284
I0501 00:33:18.058832  7272 layer_factory.hpp:77] Creating layer loss
I0501 00:33:18.058837  7272 net.cpp:86] Creating Layer loss
I0501 00:33:18.058840  7272 net.cpp:408] loss <- ip4
I0501 00:33:18.058845  7272 net.cpp:408] loss <- label
I0501 00:33:18.058850  7272 net.cpp:382] loss -> loss
I0501 00:33:18.058866  7272 layer_factory.hpp:77] Creating layer loss
…
I0501 00:33:18.060046  7272 solver.cpp:173] Creating test net (#0) specified by net file: ECE595/cifar/train_test/var_everything/cifar_train_test_261.prototxt
I0501 00:33:18.060072  7272 net.cpp:296] The NetState phase (1) differed from the phase (0) specified by a rule in layer cifar
I0501 00:33:18.060159  7272 net.cpp:53] Initializing net from parameters: 
name: "CIFAR"
state {
  phase: TEST
}
layer {
  name: "cifar"
  type: "Data"
  top: "data"
  top: "label"
  include {
    phase: TEST
  }
  transform_param {
    mean_file: "examples/cifar10/mean.binaryproto"
  }
  data_param {
    source: "examples/cifar10/cifar10_test_lmdb"
    batch_size: 1000
    backend: LMDB
  }
}
layer {
  name: "conv0"
  type: "Convolution"
  bottom: "data"
  top: "conv0"
  param {
    lr_mult: 1
  }
  param {
    lr_mult: 2
  }
  convolution_param {
    num_output: 8
    pad: 2
    kernel_size: 3
    stride: 1
    weight_filler {
      type: "gaussian"
      std: 0.01
    }
    bias_filler {
      type: "constant"
    }
  }
}
layer {
  name: "Sigmoid0"
  type: "Sigmoid"
  bottom: "conv0"
  top: "Sigmoid0"
}
layer {
  name: "pool0"
  type: "Pooling"
  bottom: "Sigmoid0"
  top: "pool0"
  pooling_param {
    pool: AVE
    kernel_size: 3
    stride: 2
  }
}
layer {
  name: "ip1"
  type: "InnerProduct"
  bottom: "pool0"
  top: "ip1"
  param {
    lr_mult: 1
  }
  param {
    lr_mult: 2
  }
  inner_product_param {
    num_output: 80
    weight_filler {
      type: "gaussian"
      std: 0.01
    }
    bias_filler {
      type: "constant"
    }
  }
}
layer {
  name: "relu1"
  type: "ReLU"
  bottom: "ip1"
  top: "ip1"
}
layer {
  name: "ip2"
  type: "InnerProduct"
  bottom: "ip1"
  top: "ip2"
  param {
    lr_mult: 1
  }
  param {
    lr_mult: 2
  }
  inner_product_param {
    num_output: 10
    weight_filler {
      type: "gaussian"
      std: 0.01
    }
    bias_filler {
      type: "constant"
    }
  }
}
layer {
  name: "relu2"
  type: "ReLU"
  bottom: "ip2"
  top: "ip2"
}
layer {
  name: "ip3"
  type: "InnerProduct"
  bottom: "ip2"
  top: "ip3"
  param {
    lr_mult: 1
  }
  param {
    lr_mult: 2
  }
  inner_product_param {
    num_output: 20
    weight_filler {
      type: "gaussian"
      std: 0.01
    }
    bias_filler {
      type: "constant"
    }
  }
}
layer {
  name: "relu3"
  type: "ReLU"
  bottom: "ip3"
  top: "ip3"
}
layer {
  name: "ip4"
  type: "InnerProduct"
  bottom: "ip3"
  top: "ip4"
  param {
    lr_mult: 1
  }
  param {
    lr_mult: 2
  }
  inner_product_param {
    num_output: 10
    weight_filler {
      type: "gaussian"
      std: 0.01
    }
    bias_filler {
      type: "constant"
    }
  }
}
layer {
  name: "accuracy"
  type: "Accuracy"
  bottom: "ip4"
  bottom: "label"
  top: "accuracy"
  include {
    phase: TEST
  }
}
layer {
  name: "loss"
  type: "SoftmaxWithLoss"
  bottom: "ip4"
  bottom: "label"
  top: "loss"
}
I0501 00:33:18.060250  7272 layer_factory.hpp:77] Creating layer cifar
I0501 00:33:18.060293  7272 db_lmdb.cpp:35] Opened lmdb examples/cifar10/cifar10_test_lmdb
I0501 00:33:18.060307  7272 net.cpp:86] Creating Layer cifar
I0501 00:33:18.060310  7272 net.cpp:382] cifar -> data
I0501 00:33:18.060318  7272 net.cpp:382] cifar -> label
I0501 00:33:18.060324  7272 data_transformer.cpp:25] Loading mean file from: examples/cifar10/mean.binaryproto
I0501 00:33:18.060457  7272 data_layer.cpp:45] output data size: 1000,3,32,32
I0501 00:33:18.081948  7272 net.cpp:124] Setting up cifar
I0501 00:33:18.081972  7272 net.cpp:131] Top shape: 1000 3 32 32 (3072000)
I0501 00:33:18.081979  7272 net.cpp:131] Top shape: 1000 (1000)
I0501 00:33:18.081981  7272 net.cpp:139] Memory required for data: 12292000
I0501 00:33:18.081987  7272 layer_factory.hpp:77] Creating layer label_cifar_1_split
I0501 00:33:18.081998  7272 net.cpp:86] Creating Layer label_cifar_1_split
I0501 00:33:18.082002  7272 net.cpp:408] label_cifar_1_split <- label
I0501 00:33:18.082022  7272 net.cpp:382] label_cifar_1_split -> label_cifar_1_split_0
I0501 00:33:18.082031  7272 net.cpp:382] label_cifar_1_split -> label_cifar_1_split_1
I0501 00:33:18.082145  7272 net.cpp:124] Setting up label_cifar_1_split
I0501 00:33:18.082154  7272 net.cpp:131] Top shape: 1000 (1000)
I0501 00:33:18.082156  7272 net.cpp:131] Top shape: 1000 (1000)
I0501 00:33:18.082159  7272 net.cpp:139] Memory required for data: 12300000
I0501 00:33:18.082162  7272 layer_factory.hpp:77] Creating layer conv0
I0501 00:33:18.082173  7272 net.cpp:86] Creating Layer conv0
I0501 00:33:18.082176  7272 net.cpp:408] conv0 <- data
I0501 00:33:18.082181  7272 net.cpp:382] conv0 -> conv0
I0501 00:33:18.083837  7272 net.cpp:124] Setting up conv0
I0501 00:33:18.083850  7272 net.cpp:131] Top shape: 1000 8 34 34 (9248000)
I0501 00:33:18.083853  7272 net.cpp:139] Memory required for data: 49292000
I0501 00:33:18.083863  7272 layer_factory.hpp:77] Creating layer Sigmoid0
I0501 00:33:18.083884  7272 net.cpp:86] Creating Layer Sigmoid0
I0501 00:33:18.083886  7272 net.cpp:408] Sigmoid0 <- conv0
I0501 00:33:18.083891  7272 net.cpp:382] Sigmoid0 -> Sigmoid0
I0501 00:33:18.084053  7272 net.cpp:124] Setting up Sigmoid0
I0501 00:33:18.084061  7272 net.cpp:131] Top shape: 1000 8 34 34 (9248000)
I0501 00:33:18.084064  7272 net.cpp:139] Memory required for data: 86284000
I0501 00:33:18.084067  7272 layer_factory.hpp:77] Creating layer pool0
I0501 00:33:18.084074  7272 net.cpp:86] Creating Layer pool0
I0501 00:33:18.084077  7272 net.cpp:408] pool0 <- Sigmoid0
I0501 00:33:18.084082  7272 net.cpp:382] pool0 -> pool0
I0501 00:33:18.084231  7272 net.cpp:124] Setting up pool0
I0501 00:33:18.084239  7272 net.cpp:131] Top shape: 1000 8 17 17 (2312000)
I0501 00:33:18.084242  7272 net.cpp:139] Memory required for data: 95532000
I0501 00:33:18.084244  7272 layer_factory.hpp:77] Creating layer ip1
I0501 00:33:18.084251  7272 net.cpp:86] Creating Layer ip1
I0501 00:33:18.084270  7272 net.cpp:408] ip1 <- pool0
I0501 00:33:18.084275  7272 net.cpp:382] ip1 -> ip1
I0501 00:33:18.089344  7272 net.cpp:124] Setting up ip1
I0501 00:33:18.089355  7272 net.cpp:131] Top shape: 1000 80 (80000)
I0501 00:33:18.089359  7272 net.cpp:139] Memory required for data: 95852000
I0501 00:33:18.089396  7272 layer_factory.hpp:77] Creating layer relu1
I0501 00:33:18.089403  7272 net.cpp:86] Creating Layer relu1
I0501 00:33:18.089407  7272 net.cpp:408] relu1 <- ip1
I0501 00:33:18.089411  7272 net.cpp:369] relu1 -> ip1 (in-place)
I0501 00:33:18.089571  7272 net.cpp:124] Setting up relu1
I0501 00:33:18.089579  7272 net.cpp:131] Top shape: 1000 80 (80000)
I0501 00:33:18.089583  7272 net.cpp:139] Memory required for data: 96172000
I0501 00:33:18.089586  7272 layer_factory.hpp:77] Creating layer ip2
I0501 00:33:18.089592  7272 net.cpp:86] Creating Layer ip2
I0501 00:33:18.089596  7272 net.cpp:408] ip2 <- ip1
I0501 00:33:18.089601  7272 net.cpp:382] ip2 -> ip2
I0501 00:33:18.089745  7272 net.cpp:124] Setting up ip2
I0501 00:33:18.089752  7272 net.cpp:131] Top shape: 1000 10 (10000)
I0501 00:33:18.089756  7272 net.cpp:139] Memory required for data: 96212000
I0501 00:33:18.089762  7272 layer_factory.hpp:77] Creating layer relu2
I0501 00:33:18.089767  7272 net.cpp:86] Creating Layer relu2
I0501 00:33:18.089771  7272 net.cpp:408] relu2 <- ip2
I0501 00:33:18.089774  7272 net.cpp:369] relu2 -> ip2 (in-place)
I0501 00:33:18.090502  7272 net.cpp:124] Setting up relu2
I0501 00:33:18.090514  7272 net.cpp:131] Top shape: 1000 10 (10000)
I0501 00:33:18.090526  7272 net.cpp:139] Memory required for data: 96252000
I0501 00:33:18.090545  7272 layer_factory.hpp:77] Creating layer ip3
I0501 00:33:18.090553  7272 net.cpp:86] Creating Layer ip3
I0501 00:33:18.090555  7272 net.cpp:408] ip3 <- ip2
I0501 00:33:18.090560  7272 net.cpp:382] ip3 -> ip3
I0501 00:33:18.090665  7272 net.cpp:124] Setting up ip3
I0501 00:33:18.090672  7272 net.cpp:131] Top shape: 1000 20 (20000)
I0501 00:33:18.090675  7272 net.cpp:139] Memory required for data: 96332000
I0501 00:33:18.090682  7272 layer_factory.hpp:77] Creating layer relu3
I0501 00:33:18.090687  7272 net.cpp:86] Creating Layer relu3
I0501 00:33:18.090689  7272 net.cpp:408] relu3 <- ip3
I0501 00:33:18.090693  7272 net.cpp:369] relu3 -> ip3 (in-place)
I0501 00:33:18.090848  7272 net.cpp:124] Setting up relu3
I0501 00:33:18.090857  7272 net.cpp:131] Top shape: 1000 20 (20000)
I0501 00:33:18.090859  7272 net.cpp:139] Memory required for data: 96412000
I0501 00:33:18.090862  7272 layer_factory.hpp:77] Creating layer ip4
I0501 00:33:18.090868  7272 net.cpp:86] Creating Layer ip4
I0501 00:33:18.090872  7272 net.cpp:408] ip4 <- ip3
I0501 00:33:18.090876  7272 net.cpp:382] ip4 -> ip4
I0501 00:33:18.090971  7272 net.cpp:124] Setting up ip4
I0501 00:33:18.090978  7272 net.cpp:131] Top shape: 1000 10 (10000)
I0501 00:33:18.090982  7272 net.cpp:139] Memory required for data: 96452000
I0501 00:33:18.090991  7272 layer_factory.hpp:77] Creating layer ip4_ip4_0_split
I0501 00:33:18.091003  7272 net.cpp:86] Creating Layer ip4_ip4_0_split
I0501 00:33:18.091006  7272 net.cpp:408] ip4_ip4_0_split <- ip4
I0501 00:33:18.091011  7272 net.cpp:382] ip4_ip4_0_split -> ip4_ip4_0_split_0
I0501 00:33:18.091015  7272 net.cpp:382] ip4_ip4_0_split -> ip4_ip4_0_split_1
I0501 00:33:18.091044  7272 net.cpp:124] Setting up ip4_ip4_0_split
I0501 00:33:18.091055  7272 net.cpp:131] Top shape: 1000 10 (10000)
I0501 00:33:18.091058  7272 net.cpp:131] Top shape: 1000 10 (10000)
I0501 00:33:18.091061  7272 net.cpp:139] Memory required for data: 96532000
I0501 00:33:18.091064  7272 layer_factory.hpp:77] Creating layer accuracy
I0501 00:33:18.091069  7272 net.cpp:86] Creating Layer accuracy
I0501 00:33:18.091073  7272 net.cpp:408] accuracy <- ip4_ip4_0_split_0
I0501 00:33:18.091076  7272 net.cpp:408] accuracy <- label_cifar_1_split_0
I0501 00:33:18.091080  7272 net.cpp:382] accuracy -> accuracy
…
