…
I0501 04:09:59.646944 24134 net.cpp:296] The NetState phase (0) differed from the phase (1) specified by a rule in layer cifar
I0501 04:09:59.646962 24134 net.cpp:296] The NetState phase (0) differed from the phase (1) specified by a rule in layer accuracy
I0501 04:09:59.647085 24134 net.cpp:53] Initializing net from parameters: 
name: "CIFAR"
state {
  phase: TRAIN
  level: 0
  stage: ""
}
layer {
  name: "cifar"
  type: "Data"
  top: "data"
  top: "label"
  include {
    phase: TRAIN
  }
  transform_param {
    mean_file: "examples/cifar10/mean.binaryproto"
  }
  data_param {
    source: "examples/cifar10/cifar10_train_lmdb"
    batch_size: 111
    backend: LMDB
  }
}
layer {
  name: "conv0"
  type: "Convolution"
  bottom: "data"
  top: "conv0"
  param {
    lr_mult: 1
  }
  param {
    lr_mult: 2
  }
  convolution_param {
    num_output: 8
    pad: 2
    kernel_size: 5
    stride: 1
    weight_filler {
      type: "gaussian"
      std: 0.01
    }
    bias_filler {
      type: "constant"
    }
  }
}
layer {
  name: "Sigmoid0"
  type: "Sigmoid"
  bottom: "conv0"
  top: "Sigmoid0"
}
layer {
  name: "pool0"
  type: "Pooling"
  bottom: "Sigmoid0"
  top: "pool0"
  pooling_param {
    pool: AVE
    kernel_size: 3
    stride: 2
  }
}
layer {
  name: "ip1"
  type: "InnerProduct"
  bottom: "pool0"
  top: "ip1"
  param {
    lr_mult: 1
  }
  param {
    lr_mult: 2
  }
  inner_product_param {
    num_output: 20
    weight_filler {
      type: "gaussian"
      std: 0.01
    }
    bias_filler {
      type: "constant"
    }
  }
}
layer {
  name: "relu1"
  type: "ReLU"
  bottom: "ip1"
  top: "ip1"
}
layer {
  name: "ip2"
  type: "InnerProduct"
  bottom: "ip1"
  top: "ip2"
  param {
    lr_mult: 1
  }
  param {
    lr_mult: 2
  }
  inner_product_param {
    num_output: 40
    weight_filler {
      type: "gaussian"
      std: 0.01
    }
    bias_filler {
      type: "constant"
    }
  }
}
layer {
  name: "relu2"
  type: "ReLU"
  bottom: "ip2"
  top: "ip2"
}
layer {
  name: "ip3"
  type: "InnerProduct"
  bottom: "ip2"
  top: "ip3"
  param {
    lr_mult: 1
  }
  param {
    lr_mult: 2
  }
  inner_product_param {
    num_output: 40
    weight_filler {
      type: "gaussian"
      std: 0.01
    }
    bias_filler {
      type: "constant"
    }
  }
}
layer {
  name: "relu3"
  type: "ReLU"
  bottom: "ip3"
  top: "ip3"
}
layer {
  name: "ip4"
  type: "InnerProduct"
  bottom: "ip3"
  top: "ip4"
  param {
    lr_mult: 1
  }
  param {
    lr_mult: 2
  }
  inner_product_param {
    num_output: 10
    weight_filler {
      type: "gaussian"
      std: 0.01
    }
    bias_filler {
      type: "constant"
    }
  }
}
layer {
  name: "loss"
  type: "SoftmaxWithLoss"
  bottom: "ip4"
  bottom: "label"
  top: "loss"
}
I0501 04:09:59.647194 24134 layer_factory.hpp:77] Creating layer cifar
I0501 04:09:59.647316 24134 db_lmdb.cpp:35] Opened lmdb examples/cifar10/cifar10_train_lmdb
I0501 04:09:59.647346 24134 net.cpp:86] Creating Layer cifar
I0501 04:09:59.647357 24134 net.cpp:382] cifar -> data
I0501 04:09:59.647382 24134 net.cpp:382] cifar -> label
I0501 04:09:59.647395 24134 data_transformer.cpp:25] Loading mean file from: examples/cifar10/mean.binaryproto
I0501 04:09:59.649363 24134 data_layer.cpp:45] output data size: 111,3,32,32
I0501 04:09:59.655856 24134 net.cpp:124] Setting up cifar
I0501 04:09:59.655874 24134 net.cpp:131] Top shape: 111 3 32 32 (340992)
I0501 04:09:59.655899 24134 net.cpp:131] Top shape: 111 (111)
I0501 04:09:59.655903 24134 net.cpp:139] Memory required for data: 1364412
I0501 04:09:59.655931 24134 layer_factory.hpp:77] Creating layer conv0
I0501 04:09:59.655968 24134 net.cpp:86] Creating Layer conv0
I0501 04:09:59.655977 24134 net.cpp:408] conv0 <- data
I0501 04:09:59.655990 24134 net.cpp:382] conv0 -> conv0
I0501 04:09:59.887329 24134 net.cpp:124] Setting up conv0
I0501 04:09:59.887359 24134 net.cpp:131] Top shape: 111 8 32 32 (909312)
I0501 04:09:59.887364 24134 net.cpp:139] Memory required for data: 5001660
I0501 04:09:59.887399 24134 layer_factory.hpp:77] Creating layer Sigmoid0
I0501 04:09:59.887414 24134 net.cpp:86] Creating Layer Sigmoid0
I0501 04:09:59.887421 24134 net.cpp:408] Sigmoid0 <- conv0
I0501 04:09:59.887430 24134 net.cpp:382] Sigmoid0 -> Sigmoid0
I0501 04:09:59.887626 24134 net.cpp:124] Setting up Sigmoid0
I0501 04:09:59.887636 24134 net.cpp:131] Top shape: 111 8 32 32 (909312)
I0501 04:09:59.887641 24134 net.cpp:139] Memory required for data: 8638908
I0501 04:09:59.887647 24134 layer_factory.hpp:77] Creating layer pool0
I0501 04:09:59.887657 24134 net.cpp:86] Creating Layer pool0
I0501 04:09:59.887662 24134 net.cpp:408] pool0 <- Sigmoid0
I0501 04:09:59.887670 24134 net.cpp:382] pool0 -> pool0
I0501 04:09:59.888402 24134 net.cpp:124] Setting up pool0
I0501 04:09:59.888417 24134 net.cpp:131] Top shape: 111 8 16 16 (227328)
I0501 04:09:59.888422 24134 net.cpp:139] Memory required for data: 9548220
I0501 04:09:59.888442 24134 layer_factory.hpp:77] Creating layer ip1
I0501 04:09:59.888455 24134 net.cpp:86] Creating Layer ip1
I0501 04:09:59.888461 24134 net.cpp:408] ip1 <- pool0
I0501 04:09:59.888469 24134 net.cpp:382] ip1 -> ip1
I0501 04:09:59.890475 24134 net.cpp:124] Setting up ip1
I0501 04:09:59.890488 24134 net.cpp:131] Top shape: 111 20 (2220)
I0501 04:09:59.890493 24134 net.cpp:139] Memory required for data: 9557100
I0501 04:09:59.890521 24134 layer_factory.hpp:77] Creating layer relu1
I0501 04:09:59.890530 24134 net.cpp:86] Creating Layer relu1
I0501 04:09:59.890535 24134 net.cpp:408] relu1 <- ip1
I0501 04:09:59.890542 24134 net.cpp:369] relu1 -> ip1 (in-place)
I0501 04:09:59.890697 24134 net.cpp:124] Setting up relu1
I0501 04:09:59.890705 24134 net.cpp:131] Top shape: 111 20 (2220)
I0501 04:09:59.890710 24134 net.cpp:139] Memory required for data: 9565980
I0501 04:09:59.890715 24134 layer_factory.hpp:77] Creating layer ip2
I0501 04:09:59.890724 24134 net.cpp:86] Creating Layer ip2
I0501 04:09:59.890729 24134 net.cpp:408] ip2 <- ip1
I0501 04:09:59.890738 24134 net.cpp:382] ip2 -> ip2
I0501 04:09:59.890869 24134 net.cpp:124] Setting up ip2
I0501 04:09:59.890878 24134 net.cpp:131] Top shape: 111 40 (4440)
I0501 04:09:59.890883 24134 net.cpp:139] Memory required for data: 9583740
I0501 04:09:59.890894 24134 layer_factory.hpp:77] Creating layer relu2
I0501 04:09:59.890902 24134 net.cpp:86] Creating Layer relu2
I0501 04:09:59.890908 24134 net.cpp:408] relu2 <- ip2
I0501 04:09:59.890915 24134 net.cpp:369] relu2 -> ip2 (in-place)
I0501 04:09:59.891073 24134 net.cpp:124] Setting up relu2
I0501 04:09:59.891083 24134 net.cpp:131] Top shape: 111 40 (4440)
I0501 04:09:59.891088 24134 net.cpp:139] Memory required for data: 9601500
I0501 04:09:59.891093 24134 layer_factory.hpp:77] Creating layer ip3
I0501 04:09:59.891104 24134 net.cpp:86] Creating Layer ip3
I0501 04:09:59.891109 24134 net.cpp:408] ip3 <- ip2
I0501 04:09:59.891118 24134 net.cpp:382] ip3 -> ip3
I0501 04:09:59.891273 24134 net.cpp:124] Setting up ip3
I0501 04:09:59.891283 24134 net.cpp:131] Top shape: 111 40 (4440)
I0501 04:09:59.891288 24134 net.cpp:139] Memory required for data: 9619260
I0501 04:09:59.891295 24134 layer_factory.hpp:77] Creating layer relu3
I0501 04:09:59.891304 24134 net.cpp:86] Creating Layer relu3
I0501 04:09:59.891307 24134 net.cpp:408] relu3 <- ip3
I0501 04:09:59.891316 24134 net.cpp:369] relu3 -> ip3 (in-place)
I0501 04:09:59.891472 24134 net.cpp:124] Setting up relu3
I0501 04:09:59.891481 24134 net.cpp:131] Top shape: 111 40 (4440)
I0501 04:09:59.891486 24134 net.cpp:139] Memory required for data: 9637020
I0501 04:09:59.891490 24134 layer_factory.hpp:77] Creating layer ip4
I0501 04:09:59.891515 24134 net.cpp:86] Creating Layer ip4
I0501 04:09:59.891522 24134 net.cpp:408] ip4 <- ip3
I0501 04:09:59.891535 24134 net.cpp:382] ip4 -> ip4
I0501 04:09:59.891666 24134 net.cpp:124] Setting up ip4
I0501 04:09:59.891676 24134 net.cpp:131] Top shape: 111 10 (1110)
I0501 04:09:59.891681 24134 net.cpp:139] Memory required for data: 9641460
I0501 04:09:59.891693 24134 layer_factory.hpp:77] Creating layer loss
I0501 04:09:59.891701 24134 net.cpp:86] Creating Layer loss
I0501 04:09:59.891707 24134 net.cpp:408] loss <- ip4
I0501 04:09:59.891713 24134 net.cpp:408] loss <- label
I0501 04:09:59.891721 24134 net.cpp:382] loss -> loss
I0501 04:09:59.891742 24134 layer_factory.hpp:77] Creating layer loss
…
I0501 04:09:59.893090 24134 solver.cpp:173] Creating test net (#0) specified by net file: ECE595/cifar/train_test/var_everything/cifar_train_test_377.prototxt
I0501 04:09:59.893128 24134 net.cpp:296] The NetState phase (1) differed from the phase (0) specified by a rule in layer cifar
I0501 04:09:59.893260 24134 net.cpp:53] Initializing net from parameters: 
name: "CIFAR"
state {
  phase: TEST
}
layer {
  name: "cifar"
  type: "Data"
  top: "data"
  top: "label"
  include {
    phase: TEST
  }
  transform_param {
    mean_file: "examples/cifar10/mean.binaryproto"
  }
  data_param {
    source: "examples/cifar10/cifar10_test_lmdb"
    batch_size: 1000
    backend: LMDB
  }
}
layer {
  name: "conv0"
  type: "Convolution"
  bottom: "data"
  top: "conv0"
  param {
    lr_mult: 1
  }
  param {
    lr_mult: 2
  }
  convolution_param {
    num_output: 8
    pad: 2
    kernel_size: 5
    stride: 1
    weight_filler {
      type: "gaussian"
      std: 0.01
    }
    bias_filler {
      type: "constant"
    }
  }
}
layer {
  name: "Sigmoid0"
  type: "Sigmoid"
  bottom: "conv0"
  top: "Sigmoid0"
}
layer {
  name: "pool0"
  type: "Pooling"
  bottom: "Sigmoid0"
  top: "pool0"
  pooling_param {
    pool: AVE
    kernel_size: 3
    stride: 2
  }
}
layer {
  name: "ip1"
  type: "InnerProduct"
  bottom: "pool0"
  top: "ip1"
  param {
    lr_mult: 1
  }
  param {
    lr_mult: 2
  }
  inner_product_param {
    num_output: 20
    weight_filler {
      type: "gaussian"
      std: 0.01
    }
    bias_filler {
      type: "constant"
    }
  }
}
layer {
  name: "relu1"
  type: "ReLU"
  bottom: "ip1"
  top: "ip1"
}
layer {
  name: "ip2"
  type: "InnerProduct"
  bottom: "ip1"
  top: "ip2"
  param {
    lr_mult: 1
  }
  param {
    lr_mult: 2
  }
  inner_product_param {
    num_output: 40
    weight_filler {
      type: "gaussian"
      std: 0.01
    }
    bias_filler {
      type: "constant"
    }
  }
}
layer {
  name: "relu2"
  type: "ReLU"
  bottom: "ip2"
  top: "ip2"
}
layer {
  name: "ip3"
  type: "InnerProduct"
  bottom: "ip2"
  top: "ip3"
  param {
    lr_mult: 1
  }
  param {
    lr_mult: 2
  }
  inner_product_param {
    num_output: 40
    weight_filler {
      type: "gaussian"
      std: 0.01
    }
    bias_filler {
      type: "constant"
    }
  }
}
layer {
  name: "relu3"
  type: "ReLU"
  bottom: "ip3"
  top: "ip3"
}
layer {
  name: "ip4"
  type: "InnerProduct"
  bottom: "ip3"
  top: "ip4"
  param {
    lr_mult: 1
  }
  param {
    lr_mult: 2
  }
  inner_product_param {
    num_output: 10
    weight_filler {
      type: "gaussian"
      std: 0.01
    }
    bias_filler {
      type: "constant"
    }
  }
}
layer {
  name: "accuracy"
  type: "Accuracy"
  bottom: "ip4"
  bottom: "label"
  top: "accuracy"
  include {
    phase: TEST
  }
}
layer {
  name: "loss"
  type: "SoftmaxWithLoss"
  bottom: "ip4"
  bottom: "label"
  top: "loss"
}
I0501 04:09:59.893391 24134 layer_factory.hpp:77] Creating layer cifar
I0501 04:09:59.893451 24134 db_lmdb.cpp:35] Opened lmdb examples/cifar10/cifar10_test_lmdb
I0501 04:09:59.893467 24134 net.cpp:86] Creating Layer cifar
I0501 04:09:59.893476 24134 net.cpp:382] cifar -> data
I0501 04:09:59.893487 24134 net.cpp:382] cifar -> label
I0501 04:09:59.893496 24134 data_transformer.cpp:25] Loading mean file from: examples/cifar10/mean.binaryproto
I0501 04:09:59.893693 24134 data_layer.cpp:45] output data size: 1000,3,32,32
I0501 04:09:59.916396 24134 net.cpp:124] Setting up cifar
I0501 04:09:59.916440 24134 net.cpp:131] Top shape: 1000 3 32 32 (3072000)
I0501 04:09:59.916450 24134 net.cpp:131] Top shape: 1000 (1000)
I0501 04:09:59.916453 24134 net.cpp:139] Memory required for data: 12292000
I0501 04:09:59.916477 24134 layer_factory.hpp:77] Creating layer label_cifar_1_split
I0501 04:09:59.916496 24134 net.cpp:86] Creating Layer label_cifar_1_split
I0501 04:09:59.916503 24134 net.cpp:408] label_cifar_1_split <- label
I0501 04:09:59.916513 24134 net.cpp:382] label_cifar_1_split -> label_cifar_1_split_0
I0501 04:09:59.916528 24134 net.cpp:382] label_cifar_1_split -> label_cifar_1_split_1
I0501 04:09:59.916594 24134 net.cpp:124] Setting up label_cifar_1_split
I0501 04:09:59.916602 24134 net.cpp:131] Top shape: 1000 (1000)
I0501 04:09:59.916610 24134 net.cpp:131] Top shape: 1000 (1000)
I0501 04:09:59.916615 24134 net.cpp:139] Memory required for data: 12300000
I0501 04:09:59.916620 24134 layer_factory.hpp:77] Creating layer conv0
I0501 04:09:59.916638 24134 net.cpp:86] Creating Layer conv0
I0501 04:09:59.916646 24134 net.cpp:408] conv0 <- data
I0501 04:09:59.916657 24134 net.cpp:382] conv0 -> conv0
I0501 04:09:59.918210 24134 net.cpp:124] Setting up conv0
I0501 04:09:59.918226 24134 net.cpp:131] Top shape: 1000 8 32 32 (8192000)
I0501 04:09:59.918232 24134 net.cpp:139] Memory required for data: 45068000
I0501 04:09:59.918262 24134 layer_factory.hpp:77] Creating layer Sigmoid0
I0501 04:09:59.918273 24134 net.cpp:86] Creating Layer Sigmoid0
I0501 04:09:59.918300 24134 net.cpp:408] Sigmoid0 <- conv0
I0501 04:09:59.918310 24134 net.cpp:382] Sigmoid0 -> Sigmoid0
I0501 04:09:59.919484 24134 net.cpp:124] Setting up Sigmoid0
I0501 04:09:59.919497 24134 net.cpp:131] Top shape: 1000 8 32 32 (8192000)
I0501 04:09:59.919502 24134 net.cpp:139] Memory required for data: 77836000
I0501 04:09:59.919523 24134 layer_factory.hpp:77] Creating layer pool0
I0501 04:09:59.919536 24134 net.cpp:86] Creating Layer pool0
I0501 04:09:59.919543 24134 net.cpp:408] pool0 <- Sigmoid0
I0501 04:09:59.919549 24134 net.cpp:382] pool0 -> pool0
I0501 04:09:59.919749 24134 net.cpp:124] Setting up pool0
I0501 04:09:59.919760 24134 net.cpp:131] Top shape: 1000 8 16 16 (2048000)
I0501 04:09:59.919764 24134 net.cpp:139] Memory required for data: 86028000
I0501 04:09:59.919770 24134 layer_factory.hpp:77] Creating layer ip1
I0501 04:09:59.919782 24134 net.cpp:86] Creating Layer ip1
I0501 04:09:59.919788 24134 net.cpp:408] ip1 <- pool0
I0501 04:09:59.919797 24134 net.cpp:382] ip1 -> ip1
I0501 04:09:59.921077 24134 net.cpp:124] Setting up ip1
I0501 04:09:59.921088 24134 net.cpp:131] Top shape: 1000 20 (20000)
I0501 04:09:59.921093 24134 net.cpp:139] Memory required for data: 86108000
I0501 04:09:59.921125 24134 layer_factory.hpp:77] Creating layer relu1
I0501 04:09:59.921152 24134 net.cpp:86] Creating Layer relu1
I0501 04:09:59.921159 24134 net.cpp:408] relu1 <- ip1
I0501 04:09:59.921166 24134 net.cpp:369] relu1 -> ip1 (in-place)
I0501 04:09:59.921370 24134 net.cpp:124] Setting up relu1
I0501 04:09:59.921380 24134 net.cpp:131] Top shape: 1000 20 (20000)
I0501 04:09:59.921386 24134 net.cpp:139] Memory required for data: 86188000
I0501 04:09:59.921391 24134 layer_factory.hpp:77] Creating layer ip2
I0501 04:09:59.921402 24134 net.cpp:86] Creating Layer ip2
I0501 04:09:59.921408 24134 net.cpp:408] ip2 <- ip1
I0501 04:09:59.921416 24134 net.cpp:382] ip2 -> ip2
I0501 04:09:59.921552 24134 net.cpp:124] Setting up ip2
I0501 04:09:59.921562 24134 net.cpp:131] Top shape: 1000 40 (40000)
I0501 04:09:59.921566 24134 net.cpp:139] Memory required for data: 86348000
I0501 04:09:59.921593 24134 layer_factory.hpp:77] Creating layer relu2
I0501 04:09:59.921604 24134 net.cpp:86] Creating Layer relu2
I0501 04:09:59.921613 24134 net.cpp:408] relu2 <- ip2
I0501 04:09:59.921620 24134 net.cpp:369] relu2 -> ip2 (in-place)
I0501 04:09:59.922387 24134 net.cpp:124] Setting up relu2
I0501 04:09:59.922401 24134 net.cpp:131] Top shape: 1000 40 (40000)
I0501 04:09:59.922406 24134 net.cpp:139] Memory required for data: 86508000
I0501 04:09:59.922426 24134 layer_factory.hpp:77] Creating layer ip3
I0501 04:09:59.922436 24134 net.cpp:86] Creating Layer ip3
I0501 04:09:59.922441 24134 net.cpp:408] ip3 <- ip2
I0501 04:09:59.922452 24134 net.cpp:382] ip3 -> ip3
I0501 04:09:59.922608 24134 net.cpp:124] Setting up ip3
I0501 04:09:59.922617 24134 net.cpp:131] Top shape: 1000 40 (40000)
I0501 04:09:59.922622 24134 net.cpp:139] Memory required for data: 86668000
I0501 04:09:59.922632 24134 layer_factory.hpp:77] Creating layer relu3
I0501 04:09:59.922642 24134 net.cpp:86] Creating Layer relu3
I0501 04:09:59.922648 24134 net.cpp:408] relu3 <- ip3
I0501 04:09:59.922655 24134 net.cpp:369] relu3 -> ip3 (in-place)
I0501 04:09:59.922834 24134 net.cpp:124] Setting up relu3
I0501 04:09:59.922844 24134 net.cpp:131] Top shape: 1000 40 (40000)
I0501 04:09:59.922849 24134 net.cpp:139] Memory required for data: 86828000
I0501 04:09:59.922855 24134 layer_factory.hpp:77] Creating layer ip4
I0501 04:09:59.922866 24134 net.cpp:86] Creating Layer ip4
I0501 04:09:59.922873 24134 net.cpp:408] ip4 <- ip3
I0501 04:09:59.922881 24134 net.cpp:382] ip4 -> ip4
I0501 04:09:59.923023 24134 net.cpp:124] Setting up ip4
I0501 04:09:59.923032 24134 net.cpp:131] Top shape: 1000 10 (10000)
I0501 04:09:59.923036 24134 net.cpp:139] Memory required for data: 86868000
I0501 04:09:59.923048 24134 layer_factory.hpp:77] Creating layer ip4_ip4_0_split
I0501 04:09:59.923056 24134 net.cpp:86] Creating Layer ip4_ip4_0_split
I0501 04:09:59.923064 24134 net.cpp:408] ip4_ip4_0_split <- ip4
I0501 04:09:59.923071 24134 net.cpp:382] ip4_ip4_0_split -> ip4_ip4_0_split_0
I0501 04:09:59.923082 24134 net.cpp:382] ip4_ip4_0_split -> ip4_ip4_0_split_1
I0501 04:09:59.923122 24134 net.cpp:124] Setting up ip4_ip4_0_split
I0501 04:09:59.923130 24134 net.cpp:131] Top shape: 1000 10 (10000)
I0501 04:09:59.923136 24134 net.cpp:131] Top shape: 1000 10 (10000)
I0501 04:09:59.923141 24134 net.cpp:139] Memory required for data: 86948000
I0501 04:09:59.923146 24134 layer_factory.hpp:77] Creating layer accuracy
I0501 04:09:59.923156 24134 net.cpp:86] Creating Layer accuracy
I0501 04:09:59.923161 24134 net.cpp:408] accuracy <- ip4_ip4_0_split_0
I0501 04:09:59.923167 24134 net.cpp:408] accuracy <- label_cifar_1_split_0
I0501 04:09:59.923174 24134 net.cpp:382] accuracy -> accuracy
…
