…
I0501 05:18:42.896467 28546 net.cpp:296] The NetState phase (0) differed from the phase (1) specified by a rule in layer cifar
I0501 05:18:42.896486 28546 net.cpp:296] The NetState phase (0) differed from the phase (1) specified by a rule in layer accuracy
I0501 05:18:42.896591 28546 net.cpp:53] Initializing net from parameters: 
name: "CIFAR"
state {
  phase: TRAIN
  level: 0
  stage: ""
}
layer {
  name: "cifar"
  type: "Data"
  top: "data"
  top: "label"
  include {
    phase: TRAIN
  }
  transform_param {
    mean_file: "examples/cifar10/mean.binaryproto"
  }
  data_param {
    source: "examples/cifar10/cifar10_train_lmdb"
    batch_size: 111
    backend: LMDB
  }
}
layer {
  name: "conv0"
  type: "Convolution"
  bottom: "data"
  top: "conv0"
  param {
    lr_mult: 1
  }
  param {
    lr_mult: 2
  }
  convolution_param {
    num_output: 8
    pad: 2
    kernel_size: 5
    stride: 1
    weight_filler {
      type: "gaussian"
      std: 0.01
    }
    bias_filler {
      type: "constant"
    }
  }
}
layer {
  name: "Sigmoid0"
  type: "Sigmoid"
  bottom: "conv0"
  top: "Sigmoid0"
}
layer {
  name: "pool0"
  type: "Pooling"
  bottom: "Sigmoid0"
  top: "pool0"
  pooling_param {
    pool: AVE
    kernel_size: 3
    stride: 2
  }
}
layer {
  name: "ip1"
  type: "InnerProduct"
  bottom: "pool0"
  top: "ip1"
  param {
    lr_mult: 1
  }
  param {
    lr_mult: 2
  }
  inner_product_param {
    num_output: 40
    weight_filler {
      type: "gaussian"
      std: 0.01
    }
    bias_filler {
      type: "constant"
    }
  }
}
layer {
  name: "relu1"
  type: "ReLU"
  bottom: "ip1"
  top: "ip1"
}
layer {
  name: "ip2"
  type: "InnerProduct"
  bottom: "ip1"
  top: "ip2"
  param {
    lr_mult: 1
  }
  param {
    lr_mult: 2
  }
  inner_product_param {
    num_output: 160
    weight_filler {
      type: "gaussian"
      std: 0.01
    }
    bias_filler {
      type: "constant"
    }
  }
}
layer {
  name: "relu2"
  type: "ReLU"
  bottom: "ip2"
  top: "ip2"
}
layer {
  name: "ip3"
  type: "InnerProduct"
  bottom: "ip2"
  top: "ip3"
  param {
    lr_mult: 1
  }
  param {
    lr_mult: 2
  }
  inner_product_param {
    num_output: 160
    weight_filler {
      type: "gaussian"
      std: 0.01
    }
    bias_filler {
      type: "constant"
    }
  }
}
layer {
  name: "relu3"
  type: "ReLU"
  bottom: "ip3"
  top: "ip3"
}
layer {
  name: "ip4"
  type: "InnerProduct"
  bottom: "ip3"
  top: "ip4"
  param {
    lr_mult: 1
  }
  param {
    lr_mult: 2
  }
  inner_product_param {
    num_output: 10
    weight_filler {
      type: "gaussian"
      std: 0.01
    }
    bias_filler {
      type: "constant"
    }
  }
}
layer {
  name: "loss"
  type: "SoftmaxWithLoss"
  bottom: "ip4"
  bottom: "label"
  top: "loss"
}
I0501 05:18:42.896670 28546 layer_factory.hpp:77] Creating layer cifar
I0501 05:18:42.896775 28546 db_lmdb.cpp:35] Opened lmdb examples/cifar10/cifar10_train_lmdb
I0501 05:18:42.896802 28546 net.cpp:86] Creating Layer cifar
I0501 05:18:42.896817 28546 net.cpp:382] cifar -> data
I0501 05:18:42.896842 28546 net.cpp:382] cifar -> label
I0501 05:18:42.896853 28546 data_transformer.cpp:25] Loading mean file from: examples/cifar10/mean.binaryproto
I0501 05:18:42.899001 28546 data_layer.cpp:45] output data size: 111,3,32,32
I0501 05:18:42.906850 28546 net.cpp:124] Setting up cifar
I0501 05:18:42.906869 28546 net.cpp:131] Top shape: 111 3 32 32 (340992)
I0501 05:18:42.906877 28546 net.cpp:131] Top shape: 111 (111)
I0501 05:18:42.906883 28546 net.cpp:139] Memory required for data: 1364412
I0501 05:18:42.906904 28546 layer_factory.hpp:77] Creating layer conv0
I0501 05:18:42.906924 28546 net.cpp:86] Creating Layer conv0
I0501 05:18:42.906929 28546 net.cpp:408] conv0 <- data
I0501 05:18:42.906942 28546 net.cpp:382] conv0 -> conv0
I0501 05:18:43.189353 28546 net.cpp:124] Setting up conv0
I0501 05:18:43.189380 28546 net.cpp:131] Top shape: 111 8 32 32 (909312)
I0501 05:18:43.189384 28546 net.cpp:139] Memory required for data: 5001660
I0501 05:18:43.189399 28546 layer_factory.hpp:77] Creating layer Sigmoid0
I0501 05:18:43.189410 28546 net.cpp:86] Creating Layer Sigmoid0
I0501 05:18:43.189415 28546 net.cpp:408] Sigmoid0 <- conv0
I0501 05:18:43.189420 28546 net.cpp:382] Sigmoid0 -> Sigmoid0
I0501 05:18:43.189580 28546 net.cpp:124] Setting up Sigmoid0
I0501 05:18:43.189589 28546 net.cpp:131] Top shape: 111 8 32 32 (909312)
I0501 05:18:43.189594 28546 net.cpp:139] Memory required for data: 8638908
I0501 05:18:43.189596 28546 layer_factory.hpp:77] Creating layer pool0
I0501 05:18:43.189604 28546 net.cpp:86] Creating Layer pool0
I0501 05:18:43.189606 28546 net.cpp:408] pool0 <- Sigmoid0
I0501 05:18:43.189610 28546 net.cpp:382] pool0 -> pool0
I0501 05:18:43.190346 28546 net.cpp:124] Setting up pool0
I0501 05:18:43.190359 28546 net.cpp:131] Top shape: 111 8 16 16 (227328)
I0501 05:18:43.190362 28546 net.cpp:139] Memory required for data: 9548220
I0501 05:18:43.190366 28546 layer_factory.hpp:77] Creating layer ip1
I0501 05:18:43.190376 28546 net.cpp:86] Creating Layer ip1
I0501 05:18:43.190379 28546 net.cpp:408] ip1 <- pool0
I0501 05:18:43.190384 28546 net.cpp:382] ip1 -> ip1
I0501 05:18:43.192687 28546 net.cpp:124] Setting up ip1
I0501 05:18:43.192693 28546 net.cpp:131] Top shape: 111 40 (4440)
I0501 05:18:43.192697 28546 net.cpp:139] Memory required for data: 9565980
I0501 05:18:43.192704 28546 layer_factory.hpp:77] Creating layer relu1
I0501 05:18:43.192709 28546 net.cpp:86] Creating Layer relu1
I0501 05:18:43.192713 28546 net.cpp:408] relu1 <- ip1
I0501 05:18:43.192716 28546 net.cpp:369] relu1 -> ip1 (in-place)
I0501 05:18:43.192884 28546 net.cpp:124] Setting up relu1
I0501 05:18:43.192909 28546 net.cpp:131] Top shape: 111 40 (4440)
I0501 05:18:43.192912 28546 net.cpp:139] Memory required for data: 9583740
I0501 05:18:43.192916 28546 layer_factory.hpp:77] Creating layer ip2
I0501 05:18:43.192922 28546 net.cpp:86] Creating Layer ip2
I0501 05:18:43.192925 28546 net.cpp:408] ip2 <- ip1
I0501 05:18:43.192931 28546 net.cpp:382] ip2 -> ip2
I0501 05:18:43.194067 28546 net.cpp:124] Setting up ip2
I0501 05:18:43.194078 28546 net.cpp:131] Top shape: 111 160 (17760)
I0501 05:18:43.194082 28546 net.cpp:139] Memory required for data: 9654780
I0501 05:18:43.194089 28546 layer_factory.hpp:77] Creating layer relu2
I0501 05:18:43.194095 28546 net.cpp:86] Creating Layer relu2
I0501 05:18:43.194098 28546 net.cpp:408] relu2 <- ip2
I0501 05:18:43.194103 28546 net.cpp:369] relu2 -> ip2 (in-place)
I0501 05:18:43.194254 28546 net.cpp:124] Setting up relu2
I0501 05:18:43.194263 28546 net.cpp:131] Top shape: 111 160 (17760)
I0501 05:18:43.194267 28546 net.cpp:139] Memory required for data: 9725820
I0501 05:18:43.194269 28546 layer_factory.hpp:77] Creating layer ip3
I0501 05:18:43.194277 28546 net.cpp:86] Creating Layer ip3
I0501 05:18:43.194279 28546 net.cpp:408] ip3 <- ip2
I0501 05:18:43.194284 28546 net.cpp:382] ip3 -> ip3
I0501 05:18:43.195876 28546 net.cpp:124] Setting up ip3
I0501 05:18:43.195888 28546 net.cpp:131] Top shape: 111 160 (17760)
I0501 05:18:43.195891 28546 net.cpp:139] Memory required for data: 9796860
I0501 05:18:43.195897 28546 layer_factory.hpp:77] Creating layer relu3
I0501 05:18:43.195902 28546 net.cpp:86] Creating Layer relu3
I0501 05:18:43.195906 28546 net.cpp:408] relu3 <- ip3
I0501 05:18:43.195910 28546 net.cpp:369] relu3 -> ip3 (in-place)
I0501 05:18:43.196059 28546 net.cpp:124] Setting up relu3
I0501 05:18:43.196068 28546 net.cpp:131] Top shape: 111 160 (17760)
I0501 05:18:43.196070 28546 net.cpp:139] Memory required for data: 9867900
I0501 05:18:43.196074 28546 layer_factory.hpp:77] Creating layer ip4
I0501 05:18:43.196094 28546 net.cpp:86] Creating Layer ip4
I0501 05:18:43.196097 28546 net.cpp:408] ip4 <- ip3
I0501 05:18:43.196102 28546 net.cpp:382] ip4 -> ip4
I0501 05:18:43.196234 28546 net.cpp:124] Setting up ip4
I0501 05:18:43.196241 28546 net.cpp:131] Top shape: 111 10 (1110)
I0501 05:18:43.196245 28546 net.cpp:139] Memory required for data: 9872340
I0501 05:18:43.196252 28546 layer_factory.hpp:77] Creating layer loss
I0501 05:18:43.196257 28546 net.cpp:86] Creating Layer loss
I0501 05:18:43.196261 28546 net.cpp:408] loss <- ip4
I0501 05:18:43.196264 28546 net.cpp:408] loss <- label
I0501 05:18:43.196269 28546 net.cpp:382] loss -> loss
I0501 05:18:43.196286 28546 layer_factory.hpp:77] Creating layer loss
…
I0501 05:18:43.197473 28546 solver.cpp:173] Creating test net (#0) specified by net file: ECE595/cifar/train_test/var_everything/cifar_train_test_414.prototxt
I0501 05:18:43.197499 28546 net.cpp:296] The NetState phase (1) differed from the phase (0) specified by a rule in layer cifar
I0501 05:18:43.197592 28546 net.cpp:53] Initializing net from parameters: 
name: "CIFAR"
state {
  phase: TEST
}
layer {
  name: "cifar"
  type: "Data"
  top: "data"
  top: "label"
  include {
    phase: TEST
  }
  transform_param {
    mean_file: "examples/cifar10/mean.binaryproto"
  }
  data_param {
    source: "examples/cifar10/cifar10_test_lmdb"
    batch_size: 1000
    backend: LMDB
  }
}
layer {
  name: "conv0"
  type: "Convolution"
  bottom: "data"
  top: "conv0"
  param {
    lr_mult: 1
  }
  param {
    lr_mult: 2
  }
  convolution_param {
    num_output: 8
    pad: 2
    kernel_size: 5
    stride: 1
    weight_filler {
      type: "gaussian"
      std: 0.01
    }
    bias_filler {
      type: "constant"
    }
  }
}
layer {
  name: "Sigmoid0"
  type: "Sigmoid"
  bottom: "conv0"
  top: "Sigmoid0"
}
layer {
  name: "pool0"
  type: "Pooling"
  bottom: "Sigmoid0"
  top: "pool0"
  pooling_param {
    pool: AVE
    kernel_size: 3
    stride: 2
  }
}
layer {
  name: "ip1"
  type: "InnerProduct"
  bottom: "pool0"
  top: "ip1"
  param {
    lr_mult: 1
  }
  param {
    lr_mult: 2
  }
  inner_product_param {
    num_output: 40
    weight_filler {
      type: "gaussian"
      std: 0.01
    }
    bias_filler {
      type: "constant"
    }
  }
}
layer {
  name: "relu1"
  type: "ReLU"
  bottom: "ip1"
  top: "ip1"
}
layer {
  name: "ip2"
  type: "InnerProduct"
  bottom: "ip1"
  top: "ip2"
  param {
    lr_mult: 1
  }
  param {
    lr_mult: 2
  }
  inner_product_param {
    num_output: 160
    weight_filler {
      type: "gaussian"
      std: 0.01
    }
    bias_filler {
      type: "constant"
    }
  }
}
layer {
  name: "relu2"
  type: "ReLU"
  bottom: "ip2"
  top: "ip2"
}
layer {
  name: "ip3"
  type: "InnerProduct"
  bottom: "ip2"
  top: "ip3"
  param {
    lr_mult: 1
  }
  param {
    lr_mult: 2
  }
  inner_product_param {
    num_output: 160
    weight_filler {
      type: "gaussian"
      std: 0.01
    }
    bias_filler {
      type: "constant"
    }
  }
}
layer {
  name: "relu3"
  type: "ReLU"
  bottom: "ip3"
  top: "ip3"
}
layer {
  name: "ip4"
  type: "InnerProduct"
  bottom: "ip3"
  top: "ip4"
  param {
    lr_mult: 1
  }
  param {
    lr_mult: 2
  }
  inner_product_param {
    num_output: 10
    weight_filler {
      type: "gaussian"
      std: 0.01
    }
    bias_filler {
      type: "constant"
    }
  }
}
layer {
  name: "accuracy"
  type: "Accuracy"
  bottom: "ip4"
  bottom: "label"
  top: "accuracy"
  include {
    phase: TEST
  }
}
layer {
  name: "loss"
  type: "SoftmaxWithLoss"
  bottom: "ip4"
  bottom: "label"
  top: "loss"
}
I0501 05:18:43.197669 28546 layer_factory.hpp:77] Creating layer cifar
I0501 05:18:43.197713 28546 db_lmdb.cpp:35] Opened lmdb examples/cifar10/cifar10_test_lmdb
I0501 05:18:43.197726 28546 net.cpp:86] Creating Layer cifar
I0501 05:18:43.197731 28546 net.cpp:382] cifar -> data
I0501 05:18:43.197737 28546 net.cpp:382] cifar -> label
I0501 05:18:43.197744 28546 data_transformer.cpp:25] Loading mean file from: examples/cifar10/mean.binaryproto
I0501 05:18:43.197880 28546 data_layer.cpp:45] output data size: 1000,3,32,32
I0501 05:18:43.219775 28546 net.cpp:124] Setting up cifar
I0501 05:18:43.219804 28546 net.cpp:131] Top shape: 1000 3 32 32 (3072000)
I0501 05:18:43.219810 28546 net.cpp:131] Top shape: 1000 (1000)
I0501 05:18:43.219812 28546 net.cpp:139] Memory required for data: 12292000
I0501 05:18:43.219817 28546 layer_factory.hpp:77] Creating layer label_cifar_1_split
I0501 05:18:43.219830 28546 net.cpp:86] Creating Layer label_cifar_1_split
I0501 05:18:43.219833 28546 net.cpp:408] label_cifar_1_split <- label
I0501 05:18:43.219840 28546 net.cpp:382] label_cifar_1_split -> label_cifar_1_split_0
I0501 05:18:43.219848 28546 net.cpp:382] label_cifar_1_split -> label_cifar_1_split_1
I0501 05:18:43.219969 28546 net.cpp:124] Setting up label_cifar_1_split
I0501 05:18:43.219977 28546 net.cpp:131] Top shape: 1000 (1000)
I0501 05:18:43.219980 28546 net.cpp:131] Top shape: 1000 (1000)
I0501 05:18:43.219983 28546 net.cpp:139] Memory required for data: 12300000
I0501 05:18:43.219987 28546 layer_factory.hpp:77] Creating layer conv0
I0501 05:18:43.220000 28546 net.cpp:86] Creating Layer conv0
I0501 05:18:43.220002 28546 net.cpp:408] conv0 <- data
I0501 05:18:43.220007 28546 net.cpp:382] conv0 -> conv0
I0501 05:18:43.221807 28546 net.cpp:124] Setting up conv0
I0501 05:18:43.221822 28546 net.cpp:131] Top shape: 1000 8 32 32 (8192000)
I0501 05:18:43.221840 28546 net.cpp:139] Memory required for data: 45068000
I0501 05:18:43.221850 28546 layer_factory.hpp:77] Creating layer Sigmoid0
I0501 05:18:43.221856 28546 net.cpp:86] Creating Layer Sigmoid0
I0501 05:18:43.221859 28546 net.cpp:408] Sigmoid0 <- conv0
I0501 05:18:43.221865 28546 net.cpp:382] Sigmoid0 -> Sigmoid0
I0501 05:18:43.222054 28546 net.cpp:124] Setting up Sigmoid0
I0501 05:18:43.222079 28546 net.cpp:131] Top shape: 1000 8 32 32 (8192000)
I0501 05:18:43.222082 28546 net.cpp:139] Memory required for data: 77836000
I0501 05:18:43.222085 28546 layer_factory.hpp:77] Creating layer pool0
I0501 05:18:43.222093 28546 net.cpp:86] Creating Layer pool0
I0501 05:18:43.222097 28546 net.cpp:408] pool0 <- Sigmoid0
I0501 05:18:43.222102 28546 net.cpp:382] pool0 -> pool0
I0501 05:18:43.222271 28546 net.cpp:124] Setting up pool0
I0501 05:18:43.222282 28546 net.cpp:131] Top shape: 1000 8 16 16 (2048000)
I0501 05:18:43.222285 28546 net.cpp:139] Memory required for data: 86028000
I0501 05:18:43.222288 28546 layer_factory.hpp:77] Creating layer ip1
I0501 05:18:43.222295 28546 net.cpp:86] Creating Layer ip1
I0501 05:18:43.222298 28546 net.cpp:408] ip1 <- pool0
I0501 05:18:43.222304 28546 net.cpp:382] ip1 -> ip1
I0501 05:18:43.224915 28546 net.cpp:124] Setting up ip1
I0501 05:18:43.224923 28546 net.cpp:131] Top shape: 1000 40 (40000)
I0501 05:18:43.224942 28546 net.cpp:139] Memory required for data: 86188000
I0501 05:18:43.224966 28546 layer_factory.hpp:77] Creating layer relu1
I0501 05:18:43.224972 28546 net.cpp:86] Creating Layer relu1
I0501 05:18:43.224977 28546 net.cpp:408] relu1 <- ip1
I0501 05:18:43.224997 28546 net.cpp:369] relu1 -> ip1 (in-place)
I0501 05:18:43.225191 28546 net.cpp:124] Setting up relu1
I0501 05:18:43.225200 28546 net.cpp:131] Top shape: 1000 40 (40000)
I0501 05:18:43.225203 28546 net.cpp:139] Memory required for data: 86348000
I0501 05:18:43.225206 28546 layer_factory.hpp:77] Creating layer ip2
I0501 05:18:43.225215 28546 net.cpp:86] Creating Layer ip2
I0501 05:18:43.225219 28546 net.cpp:408] ip2 <- ip1
I0501 05:18:43.225224 28546 net.cpp:382] ip2 -> ip2
I0501 05:18:43.225567 28546 net.cpp:124] Setting up ip2
I0501 05:18:43.225575 28546 net.cpp:131] Top shape: 1000 160 (160000)
I0501 05:18:43.225594 28546 net.cpp:139] Memory required for data: 86988000
I0501 05:18:43.225602 28546 layer_factory.hpp:77] Creating layer relu2
I0501 05:18:43.225623 28546 net.cpp:86] Creating Layer relu2
I0501 05:18:43.225626 28546 net.cpp:408] relu2 <- ip2
I0501 05:18:43.225639 28546 net.cpp:369] relu2 -> ip2 (in-place)
I0501 05:18:43.226469 28546 net.cpp:124] Setting up relu2
I0501 05:18:43.226480 28546 net.cpp:131] Top shape: 1000 160 (160000)
I0501 05:18:43.226500 28546 net.cpp:139] Memory required for data: 87628000
I0501 05:18:43.226503 28546 layer_factory.hpp:77] Creating layer ip3
I0501 05:18:43.226512 28546 net.cpp:86] Creating Layer ip3
I0501 05:18:43.226516 28546 net.cpp:408] ip3 <- ip2
I0501 05:18:43.226521 28546 net.cpp:382] ip3 -> ip3
I0501 05:18:43.227398 28546 net.cpp:124] Setting up ip3
I0501 05:18:43.227406 28546 net.cpp:131] Top shape: 1000 160 (160000)
I0501 05:18:43.227424 28546 net.cpp:139] Memory required for data: 88268000
I0501 05:18:43.227430 28546 layer_factory.hpp:77] Creating layer relu3
I0501 05:18:43.227435 28546 net.cpp:86] Creating Layer relu3
I0501 05:18:43.227438 28546 net.cpp:408] relu3 <- ip3
I0501 05:18:43.227443 28546 net.cpp:369] relu3 -> ip3 (in-place)
I0501 05:18:43.227641 28546 net.cpp:124] Setting up relu3
I0501 05:18:43.227650 28546 net.cpp:131] Top shape: 1000 160 (160000)
I0501 05:18:43.227653 28546 net.cpp:139] Memory required for data: 88908000
I0501 05:18:43.227656 28546 layer_factory.hpp:77] Creating layer ip4
I0501 05:18:43.227664 28546 net.cpp:86] Creating Layer ip4
I0501 05:18:43.227668 28546 net.cpp:408] ip4 <- ip3
I0501 05:18:43.227672 28546 net.cpp:382] ip4 -> ip4
I0501 05:18:43.227845 28546 net.cpp:124] Setting up ip4
I0501 05:18:43.227852 28546 net.cpp:131] Top shape: 1000 10 (10000)
I0501 05:18:43.227855 28546 net.cpp:139] Memory required for data: 88948000
I0501 05:18:43.227864 28546 layer_factory.hpp:77] Creating layer ip4_ip4_0_split
I0501 05:18:43.227869 28546 net.cpp:86] Creating Layer ip4_ip4_0_split
I0501 05:18:43.227872 28546 net.cpp:408] ip4_ip4_0_split <- ip4
I0501 05:18:43.227877 28546 net.cpp:382] ip4_ip4_0_split -> ip4_ip4_0_split_0
I0501 05:18:43.227883 28546 net.cpp:382] ip4_ip4_0_split -> ip4_ip4_0_split_1
I0501 05:18:43.227915 28546 net.cpp:124] Setting up ip4_ip4_0_split
I0501 05:18:43.227923 28546 net.cpp:131] Top shape: 1000 10 (10000)
I0501 05:18:43.227927 28546 net.cpp:131] Top shape: 1000 10 (10000)
I0501 05:18:43.227931 28546 net.cpp:139] Memory required for data: 89028000
I0501 05:18:43.227933 28546 layer_factory.hpp:77] Creating layer accuracy
I0501 05:18:43.227939 28546 net.cpp:86] Creating Layer accuracy
I0501 05:18:43.227942 28546 net.cpp:408] accuracy <- ip4_ip4_0_split_0
I0501 05:18:43.227946 28546 net.cpp:408] accuracy <- label_cifar_1_split_0
I0501 05:18:43.227952 28546 net.cpp:382] accuracy -> accuracy
…
