…
I0501 04:26:43.463161 25174 net.cpp:296] The NetState phase (0) differed from the phase (1) specified by a rule in layer cifar
I0501 04:26:43.463177 25174 net.cpp:296] The NetState phase (0) differed from the phase (1) specified by a rule in layer accuracy
I0501 04:26:43.463259 25174 net.cpp:53] Initializing net from parameters: 
name: "CIFAR"
state {
  phase: TRAIN
  level: 0
  stage: ""
}
layer {
  name: "cifar"
  type: "Data"
  top: "data"
  top: "label"
  include {
    phase: TRAIN
  }
  transform_param {
    mean_file: "examples/cifar10/mean.binaryproto"
  }
  data_param {
    source: "examples/cifar10/cifar10_train_lmdb"
    batch_size: 111
    backend: LMDB
  }
}
layer {
  name: "conv0"
  type: "Convolution"
  bottom: "data"
  top: "conv0"
  param {
    lr_mult: 1
  }
  param {
    lr_mult: 2
  }
  convolution_param {
    num_output: 8
    pad: 2
    kernel_size: 5
    stride: 1
    weight_filler {
      type: "gaussian"
      std: 0.01
    }
    bias_filler {
      type: "constant"
    }
  }
}
layer {
  name: "Sigmoid0"
  type: "Sigmoid"
  bottom: "conv0"
  top: "Sigmoid0"
}
layer {
  name: "pool0"
  type: "Pooling"
  bottom: "Sigmoid0"
  top: "pool0"
  pooling_param {
    pool: AVE
    kernel_size: 3
    stride: 2
  }
}
layer {
  name: "ip1"
  type: "InnerProduct"
  bottom: "pool0"
  top: "ip1"
  param {
    lr_mult: 1
  }
  param {
    lr_mult: 2
  }
  inner_product_param {
    num_output: 20
    weight_filler {
      type: "gaussian"
      std: 0.01
    }
    bias_filler {
      type: "constant"
    }
  }
}
layer {
  name: "relu1"
  type: "ReLU"
  bottom: "ip1"
  top: "ip1"
}
layer {
  name: "ip2"
  type: "InnerProduct"
  bottom: "ip1"
  top: "ip2"
  param {
    lr_mult: 1
  }
  param {
    lr_mult: 2
  }
  inner_product_param {
    num_output: 160
    weight_filler {
      type: "gaussian"
      std: 0.01
    }
    bias_filler {
      type: "constant"
    }
  }
}
layer {
  name: "relu2"
  type: "ReLU"
  bottom: "ip2"
  top: "ip2"
}
layer {
  name: "ip3"
  type: "InnerProduct"
  bottom: "ip2"
  top: "ip3"
  param {
    lr_mult: 1
  }
  param {
    lr_mult: 2
  }
  inner_product_param {
    num_output: 20
    weight_filler {
      type: "gaussian"
      std: 0.01
    }
    bias_filler {
      type: "constant"
    }
  }
}
layer {
  name: "relu3"
  type: "ReLU"
  bottom: "ip3"
  top: "ip3"
}
layer {
  name: "ip4"
  type: "InnerProduct"
  bottom: "ip3"
  top: "ip4"
  param {
    lr_mult: 1
  }
  param {
    lr_mult: 2
  }
  inner_product_param {
    num_output: 10
    weight_filler {
      type: "gaussian"
      std: 0.01
    }
    bias_filler {
      type: "constant"
    }
  }
}
layer {
  name: "loss"
  type: "SoftmaxWithLoss"
  bottom: "ip4"
  bottom: "label"
  top: "loss"
}
I0501 04:26:43.463321 25174 layer_factory.hpp:77] Creating layer cifar
I0501 04:26:43.463404 25174 db_lmdb.cpp:35] Opened lmdb examples/cifar10/cifar10_train_lmdb
I0501 04:26:43.463425 25174 net.cpp:86] Creating Layer cifar
I0501 04:26:43.463431 25174 net.cpp:382] cifar -> data
I0501 04:26:43.463449 25174 net.cpp:382] cifar -> label
I0501 04:26:43.463474 25174 data_transformer.cpp:25] Loading mean file from: examples/cifar10/mean.binaryproto
I0501 04:26:43.465284 25174 data_layer.cpp:45] output data size: 111,3,32,32
I0501 04:26:43.471849 25174 net.cpp:124] Setting up cifar
I0501 04:26:43.471863 25174 net.cpp:131] Top shape: 111 3 32 32 (340992)
I0501 04:26:43.471884 25174 net.cpp:131] Top shape: 111 (111)
I0501 04:26:43.471886 25174 net.cpp:139] Memory required for data: 1364412
I0501 04:26:43.471904 25174 layer_factory.hpp:77] Creating layer conv0
I0501 04:26:43.471938 25174 net.cpp:86] Creating Layer conv0
I0501 04:26:43.471943 25174 net.cpp:408] conv0 <- data
I0501 04:26:43.471953 25174 net.cpp:382] conv0 -> conv0
I0501 04:26:43.696276 25174 net.cpp:124] Setting up conv0
I0501 04:26:43.696301 25174 net.cpp:131] Top shape: 111 8 32 32 (909312)
I0501 04:26:43.696305 25174 net.cpp:139] Memory required for data: 5001660
I0501 04:26:43.696319 25174 layer_factory.hpp:77] Creating layer Sigmoid0
I0501 04:26:43.696331 25174 net.cpp:86] Creating Layer Sigmoid0
I0501 04:26:43.696334 25174 net.cpp:408] Sigmoid0 <- conv0
I0501 04:26:43.696339 25174 net.cpp:382] Sigmoid0 -> Sigmoid0
I0501 04:26:43.696547 25174 net.cpp:124] Setting up Sigmoid0
I0501 04:26:43.696555 25174 net.cpp:131] Top shape: 111 8 32 32 (909312)
I0501 04:26:43.696558 25174 net.cpp:139] Memory required for data: 8638908
I0501 04:26:43.696561 25174 layer_factory.hpp:77] Creating layer pool0
I0501 04:26:43.696568 25174 net.cpp:86] Creating Layer pool0
I0501 04:26:43.696571 25174 net.cpp:408] pool0 <- Sigmoid0
I0501 04:26:43.696575 25174 net.cpp:382] pool0 -> pool0
I0501 04:26:43.697321 25174 net.cpp:124] Setting up pool0
I0501 04:26:43.697334 25174 net.cpp:131] Top shape: 111 8 16 16 (227328)
I0501 04:26:43.697336 25174 net.cpp:139] Memory required for data: 9548220
I0501 04:26:43.697340 25174 layer_factory.hpp:77] Creating layer ip1
I0501 04:26:43.697348 25174 net.cpp:86] Creating Layer ip1
I0501 04:26:43.697351 25174 net.cpp:408] ip1 <- pool0
I0501 04:26:43.697356 25174 net.cpp:382] ip1 -> ip1
I0501 04:26:43.699241 25174 net.cpp:124] Setting up ip1
I0501 04:26:43.699252 25174 net.cpp:131] Top shape: 111 20 (2220)
I0501 04:26:43.699255 25174 net.cpp:139] Memory required for data: 9557100
I0501 04:26:43.699262 25174 layer_factory.hpp:77] Creating layer relu1
I0501 04:26:43.699267 25174 net.cpp:86] Creating Layer relu1
I0501 04:26:43.699270 25174 net.cpp:408] relu1 <- ip1
I0501 04:26:43.699275 25174 net.cpp:369] relu1 -> ip1 (in-place)
I0501 04:26:43.699442 25174 net.cpp:124] Setting up relu1
I0501 04:26:43.699450 25174 net.cpp:131] Top shape: 111 20 (2220)
I0501 04:26:43.699453 25174 net.cpp:139] Memory required for data: 9565980
I0501 04:26:43.699456 25174 layer_factory.hpp:77] Creating layer ip2
I0501 04:26:43.699463 25174 net.cpp:86] Creating Layer ip2
I0501 04:26:43.699466 25174 net.cpp:408] ip2 <- ip1
I0501 04:26:43.699471 25174 net.cpp:382] ip2 -> ip2
I0501 04:26:43.699638 25174 net.cpp:124] Setting up ip2
I0501 04:26:43.699645 25174 net.cpp:131] Top shape: 111 160 (17760)
I0501 04:26:43.699648 25174 net.cpp:139] Memory required for data: 9637020
I0501 04:26:43.699656 25174 layer_factory.hpp:77] Creating layer relu2
I0501 04:26:43.699659 25174 net.cpp:86] Creating Layer relu2
I0501 04:26:43.699662 25174 net.cpp:408] relu2 <- ip2
I0501 04:26:43.699666 25174 net.cpp:369] relu2 -> ip2 (in-place)
I0501 04:26:43.699831 25174 net.cpp:124] Setting up relu2
I0501 04:26:43.699839 25174 net.cpp:131] Top shape: 111 160 (17760)
I0501 04:26:43.699842 25174 net.cpp:139] Memory required for data: 9708060
I0501 04:26:43.699846 25174 layer_factory.hpp:77] Creating layer ip3
I0501 04:26:43.699853 25174 net.cpp:86] Creating Layer ip3
I0501 04:26:43.699856 25174 net.cpp:408] ip3 <- ip2
I0501 04:26:43.699861 25174 net.cpp:382] ip3 -> ip3
I0501 04:26:43.700029 25174 net.cpp:124] Setting up ip3
I0501 04:26:43.700037 25174 net.cpp:131] Top shape: 111 20 (2220)
I0501 04:26:43.700038 25174 net.cpp:139] Memory required for data: 9716940
I0501 04:26:43.700044 25174 layer_factory.hpp:77] Creating layer relu3
I0501 04:26:43.700048 25174 net.cpp:86] Creating Layer relu3
I0501 04:26:43.700052 25174 net.cpp:408] relu3 <- ip3
I0501 04:26:43.700054 25174 net.cpp:369] relu3 -> ip3 (in-place)
I0501 04:26:43.700212 25174 net.cpp:124] Setting up relu3
I0501 04:26:43.700219 25174 net.cpp:131] Top shape: 111 20 (2220)
I0501 04:26:43.700222 25174 net.cpp:139] Memory required for data: 9725820
I0501 04:26:43.700225 25174 layer_factory.hpp:77] Creating layer ip4
I0501 04:26:43.700245 25174 net.cpp:86] Creating Layer ip4
I0501 04:26:43.700248 25174 net.cpp:408] ip4 <- ip3
I0501 04:26:43.700253 25174 net.cpp:382] ip4 -> ip4
I0501 04:26:43.700351 25174 net.cpp:124] Setting up ip4
I0501 04:26:43.700358 25174 net.cpp:131] Top shape: 111 10 (1110)
I0501 04:26:43.700361 25174 net.cpp:139] Memory required for data: 9730260
I0501 04:26:43.700368 25174 layer_factory.hpp:77] Creating layer loss
I0501 04:26:43.700376 25174 net.cpp:86] Creating Layer loss
I0501 04:26:43.700378 25174 net.cpp:408] loss <- ip4
I0501 04:26:43.700381 25174 net.cpp:408] loss <- label
I0501 04:26:43.700386 25174 net.cpp:382] loss -> loss
I0501 04:26:43.700398 25174 layer_factory.hpp:77] Creating layer loss
…
I0501 04:26:43.701582 25174 solver.cpp:173] Creating test net (#0) specified by net file: ECE595/cifar/train_test/var_everything/cifar_train_test_386.prototxt
I0501 04:26:43.701608 25174 net.cpp:296] The NetState phase (1) differed from the phase (0) specified by a rule in layer cifar
I0501 04:26:43.701700 25174 net.cpp:53] Initializing net from parameters: 
name: "CIFAR"
state {
  phase: TEST
}
layer {
  name: "cifar"
  type: "Data"
  top: "data"
  top: "label"
  include {
    phase: TEST
  }
  transform_param {
    mean_file: "examples/cifar10/mean.binaryproto"
  }
  data_param {
    source: "examples/cifar10/cifar10_test_lmdb"
    batch_size: 1000
    backend: LMDB
  }
}
layer {
  name: "conv0"
  type: "Convolution"
  bottom: "data"
  top: "conv0"
  param {
    lr_mult: 1
  }
  param {
    lr_mult: 2
  }
  convolution_param {
    num_output: 8
    pad: 2
    kernel_size: 5
    stride: 1
    weight_filler {
      type: "gaussian"
      std: 0.01
    }
    bias_filler {
      type: "constant"
    }
  }
}
layer {
  name: "Sigmoid0"
  type: "Sigmoid"
  bottom: "conv0"
  top: "Sigmoid0"
}
layer {
  name: "pool0"
  type: "Pooling"
  bottom: "Sigmoid0"
  top: "pool0"
  pooling_param {
    pool: AVE
    kernel_size: 3
    stride: 2
  }
}
layer {
  name: "ip1"
  type: "InnerProduct"
  bottom: "pool0"
  top: "ip1"
  param {
    lr_mult: 1
  }
  param {
    lr_mult: 2
  }
  inner_product_param {
    num_output: 20
    weight_filler {
      type: "gaussian"
      std: 0.01
    }
    bias_filler {
      type: "constant"
    }
  }
}
layer {
  name: "relu1"
  type: "ReLU"
  bottom: "ip1"
  top: "ip1"
}
layer {
  name: "ip2"
  type: "InnerProduct"
  bottom: "ip1"
  top: "ip2"
  param {
    lr_mult: 1
  }
  param {
    lr_mult: 2
  }
  inner_product_param {
    num_output: 160
    weight_filler {
      type: "gaussian"
      std: 0.01
    }
    bias_filler {
      type: "constant"
    }
  }
}
layer {
  name: "relu2"
  type: "ReLU"
  bottom: "ip2"
  top: "ip2"
}
layer {
  name: "ip3"
  type: "InnerProduct"
  bottom: "ip2"
  top: "ip3"
  param {
    lr_mult: 1
  }
  param {
    lr_mult: 2
  }
  inner_product_param {
    num_output: 20
    weight_filler {
      type: "gaussian"
      std: 0.01
    }
    bias_filler {
      type: "constant"
    }
  }
}
layer {
  name: "relu3"
  type: "ReLU"
  bottom: "ip3"
  top: "ip3"
}
layer {
  name: "ip4"
  type: "InnerProduct"
  bottom: "ip3"
  top: "ip4"
  param {
    lr_mult: 1
  }
  param {
    lr_mult: 2
  }
  inner_product_param {
    num_output: 10
    weight_filler {
      type: "gaussian"
      std: 0.01
    }
    bias_filler {
      type: "constant"
    }
  }
}
layer {
  name: "accuracy"
  type: "Accuracy"
  bottom: "ip4"
  bottom: "label"
  top: "accuracy"
  include {
    phase: TEST
  }
}
layer {
  name: "loss"
  type: "SoftmaxWithLoss"
  bottom: "ip4"
  bottom: "label"
  top: "loss"
}
I0501 04:26:43.701779 25174 layer_factory.hpp:77] Creating layer cifar
I0501 04:26:43.701824 25174 db_lmdb.cpp:35] Opened lmdb examples/cifar10/cifar10_test_lmdb
I0501 04:26:43.701838 25174 net.cpp:86] Creating Layer cifar
I0501 04:26:43.701841 25174 net.cpp:382] cifar -> data
I0501 04:26:43.701848 25174 net.cpp:382] cifar -> label
I0501 04:26:43.701854 25174 data_transformer.cpp:25] Loading mean file from: examples/cifar10/mean.binaryproto
I0501 04:26:43.702006 25174 data_layer.cpp:45] output data size: 1000,3,32,32
I0501 04:26:43.723068 25174 net.cpp:124] Setting up cifar
I0501 04:26:43.723111 25174 net.cpp:131] Top shape: 1000 3 32 32 (3072000)
I0501 04:26:43.723116 25174 net.cpp:131] Top shape: 1000 (1000)
I0501 04:26:43.723121 25174 net.cpp:139] Memory required for data: 12292000
I0501 04:26:43.723126 25174 layer_factory.hpp:77] Creating layer label_cifar_1_split
I0501 04:26:43.723139 25174 net.cpp:86] Creating Layer label_cifar_1_split
I0501 04:26:43.723141 25174 net.cpp:408] label_cifar_1_split <- label
I0501 04:26:43.723147 25174 net.cpp:382] label_cifar_1_split -> label_cifar_1_split_0
I0501 04:26:43.723171 25174 net.cpp:382] label_cifar_1_split -> label_cifar_1_split_1
I0501 04:26:43.723264 25174 net.cpp:124] Setting up label_cifar_1_split
I0501 04:26:43.723271 25174 net.cpp:131] Top shape: 1000 (1000)
I0501 04:26:43.723275 25174 net.cpp:131] Top shape: 1000 (1000)
I0501 04:26:43.723278 25174 net.cpp:139] Memory required for data: 12300000
I0501 04:26:43.723281 25174 layer_factory.hpp:77] Creating layer conv0
I0501 04:26:43.723294 25174 net.cpp:86] Creating Layer conv0
I0501 04:26:43.723297 25174 net.cpp:408] conv0 <- data
I0501 04:26:43.723302 25174 net.cpp:382] conv0 -> conv0
I0501 04:26:43.725010 25174 net.cpp:124] Setting up conv0
I0501 04:26:43.725024 25174 net.cpp:131] Top shape: 1000 8 32 32 (8192000)
I0501 04:26:43.725028 25174 net.cpp:139] Memory required for data: 45068000
I0501 04:26:43.725039 25174 layer_factory.hpp:77] Creating layer Sigmoid0
I0501 04:26:43.725060 25174 net.cpp:86] Creating Layer Sigmoid0
I0501 04:26:43.725064 25174 net.cpp:408] Sigmoid0 <- conv0
I0501 04:26:43.725070 25174 net.cpp:382] Sigmoid0 -> Sigmoid0
I0501 04:26:43.725284 25174 net.cpp:124] Setting up Sigmoid0
I0501 04:26:43.725293 25174 net.cpp:131] Top shape: 1000 8 32 32 (8192000)
I0501 04:26:43.725296 25174 net.cpp:139] Memory required for data: 77836000
I0501 04:26:43.725299 25174 layer_factory.hpp:77] Creating layer pool0
I0501 04:26:43.725307 25174 net.cpp:86] Creating Layer pool0
I0501 04:26:43.725311 25174 net.cpp:408] pool0 <- Sigmoid0
I0501 04:26:43.725316 25174 net.cpp:382] pool0 -> pool0
I0501 04:26:43.725564 25174 net.cpp:124] Setting up pool0
I0501 04:26:43.725572 25174 net.cpp:131] Top shape: 1000 8 16 16 (2048000)
I0501 04:26:43.725575 25174 net.cpp:139] Memory required for data: 86028000
I0501 04:26:43.725579 25174 layer_factory.hpp:77] Creating layer ip1
I0501 04:26:43.725586 25174 net.cpp:86] Creating Layer ip1
I0501 04:26:43.725589 25174 net.cpp:408] ip1 <- pool0
I0501 04:26:43.725595 25174 net.cpp:382] ip1 -> ip1
I0501 04:26:43.727654 25174 net.cpp:124] Setting up ip1
I0501 04:26:43.727664 25174 net.cpp:131] Top shape: 1000 20 (20000)
I0501 04:26:43.727681 25174 net.cpp:139] Memory required for data: 86108000
I0501 04:26:43.727704 25174 layer_factory.hpp:77] Creating layer relu1
I0501 04:26:43.727710 25174 net.cpp:86] Creating Layer relu1
I0501 04:26:43.727712 25174 net.cpp:408] relu1 <- ip1
I0501 04:26:43.727717 25174 net.cpp:369] relu1 -> ip1 (in-place)
I0501 04:26:43.727897 25174 net.cpp:124] Setting up relu1
I0501 04:26:43.727907 25174 net.cpp:131] Top shape: 1000 20 (20000)
I0501 04:26:43.727910 25174 net.cpp:139] Memory required for data: 86188000
I0501 04:26:43.727913 25174 layer_factory.hpp:77] Creating layer ip2
I0501 04:26:43.727921 25174 net.cpp:86] Creating Layer ip2
I0501 04:26:43.727923 25174 net.cpp:408] ip2 <- ip1
I0501 04:26:43.727929 25174 net.cpp:382] ip2 -> ip2
I0501 04:26:43.728111 25174 net.cpp:124] Setting up ip2
I0501 04:26:43.728117 25174 net.cpp:131] Top shape: 1000 160 (160000)
I0501 04:26:43.728119 25174 net.cpp:139] Memory required for data: 86828000
I0501 04:26:43.728127 25174 layer_factory.hpp:77] Creating layer relu2
I0501 04:26:43.728134 25174 net.cpp:86] Creating Layer relu2
I0501 04:26:43.728137 25174 net.cpp:408] relu2 <- ip2
I0501 04:26:43.728142 25174 net.cpp:369] relu2 -> ip2 (in-place)
I0501 04:26:43.728921 25174 net.cpp:124] Setting up relu2
I0501 04:26:43.728934 25174 net.cpp:131] Top shape: 1000 160 (160000)
I0501 04:26:43.728936 25174 net.cpp:139] Memory required for data: 87468000
I0501 04:26:43.728940 25174 layer_factory.hpp:77] Creating layer ip3
I0501 04:26:43.728963 25174 net.cpp:86] Creating Layer ip3
I0501 04:26:43.728966 25174 net.cpp:408] ip3 <- ip2
I0501 04:26:43.728972 25174 net.cpp:382] ip3 -> ip3
I0501 04:26:43.729178 25174 net.cpp:124] Setting up ip3
I0501 04:26:43.729185 25174 net.cpp:131] Top shape: 1000 20 (20000)
I0501 04:26:43.729188 25174 net.cpp:139] Memory required for data: 87548000
I0501 04:26:43.729194 25174 layer_factory.hpp:77] Creating layer relu3
I0501 04:26:43.729200 25174 net.cpp:86] Creating Layer relu3
I0501 04:26:43.729203 25174 net.cpp:408] relu3 <- ip3
I0501 04:26:43.729207 25174 net.cpp:369] relu3 -> ip3 (in-place)
I0501 04:26:43.729394 25174 net.cpp:124] Setting up relu3
I0501 04:26:43.729403 25174 net.cpp:131] Top shape: 1000 20 (20000)
I0501 04:26:43.729405 25174 net.cpp:139] Memory required for data: 87628000
I0501 04:26:43.729408 25174 layer_factory.hpp:77] Creating layer ip4
I0501 04:26:43.729415 25174 net.cpp:86] Creating Layer ip4
I0501 04:26:43.729418 25174 net.cpp:408] ip4 <- ip3
I0501 04:26:43.729423 25174 net.cpp:382] ip4 -> ip4
I0501 04:26:43.729534 25174 net.cpp:124] Setting up ip4
I0501 04:26:43.729540 25174 net.cpp:131] Top shape: 1000 10 (10000)
I0501 04:26:43.729543 25174 net.cpp:139] Memory required for data: 87668000
I0501 04:26:43.729552 25174 layer_factory.hpp:77] Creating layer ip4_ip4_0_split
I0501 04:26:43.729557 25174 net.cpp:86] Creating Layer ip4_ip4_0_split
I0501 04:26:43.729560 25174 net.cpp:408] ip4_ip4_0_split <- ip4
I0501 04:26:43.729564 25174 net.cpp:382] ip4_ip4_0_split -> ip4_ip4_0_split_0
I0501 04:26:43.729570 25174 net.cpp:382] ip4_ip4_0_split -> ip4_ip4_0_split_1
I0501 04:26:43.729602 25174 net.cpp:124] Setting up ip4_ip4_0_split
I0501 04:26:43.729609 25174 net.cpp:131] Top shape: 1000 10 (10000)
I0501 04:26:43.729612 25174 net.cpp:131] Top shape: 1000 10 (10000)
I0501 04:26:43.729630 25174 net.cpp:139] Memory required for data: 87748000
I0501 04:26:43.729634 25174 layer_factory.hpp:77] Creating layer accuracy
I0501 04:26:43.729640 25174 net.cpp:86] Creating Layer accuracy
I0501 04:26:43.729643 25174 net.cpp:408] accuracy <- ip4_ip4_0_split_0
I0501 04:26:43.729647 25174 net.cpp:408] accuracy <- label_cifar_1_split_0
I0501 04:26:43.729651 25174 net.cpp:382] accuracy -> accuracy
…
