…
I0501 06:27:23.295060   485 net.cpp:296] The NetState phase (0) differed from the phase (1) specified by a rule in layer cifar
I0501 06:27:23.295078   485 net.cpp:296] The NetState phase (0) differed from the phase (1) specified by a rule in layer accuracy
I0501 06:27:23.295186   485 net.cpp:53] Initializing net from parameters: 
name: "CIFAR"
state {
  phase: TRAIN
  level: 0
  stage: ""
}
layer {
  name: "cifar"
  type: "Data"
  top: "data"
  top: "label"
  include {
    phase: TRAIN
  }
  transform_param {
    mean_file: "examples/cifar10/mean.binaryproto"
  }
  data_param {
    source: "examples/cifar10/cifar10_train_lmdb"
    batch_size: 111
    backend: LMDB
  }
}
layer {
  name: "conv0"
  type: "Convolution"
  bottom: "data"
  top: "conv0"
  param {
    lr_mult: 1
  }
  param {
    lr_mult: 2
  }
  convolution_param {
    num_output: 8
    pad: 2
    kernel_size: 5
    stride: 1
    weight_filler {
      type: "gaussian"
      std: 0.01
    }
    bias_filler {
      type: "constant"
    }
  }
}
layer {
  name: "Sigmoid0"
  type: "Sigmoid"
  bottom: "conv0"
  top: "Sigmoid0"
}
layer {
  name: "pool0"
  type: "Pooling"
  bottom: "Sigmoid0"
  top: "pool0"
  pooling_param {
    pool: AVE
    kernel_size: 3
    stride: 2
  }
}
layer {
  name: "ip1"
  type: "InnerProduct"
  bottom: "pool0"
  top: "ip1"
  param {
    lr_mult: 1
  }
  param {
    lr_mult: 2
  }
  inner_product_param {
    num_output: 160
    weight_filler {
      type: "gaussian"
      std: 0.01
    }
    bias_filler {
      type: "constant"
    }
  }
}
layer {
  name: "relu1"
  type: "ReLU"
  bottom: "ip1"
  top: "ip1"
}
layer {
  name: "ip2"
  type: "InnerProduct"
  bottom: "ip1"
  top: "ip2"
  param {
    lr_mult: 1
  }
  param {
    lr_mult: 2
  }
  inner_product_param {
    num_output: 40
    weight_filler {
      type: "gaussian"
      std: 0.01
    }
    bias_filler {
      type: "constant"
    }
  }
}
layer {
  name: "relu2"
  type: "ReLU"
  bottom: "ip2"
  top: "ip2"
}
layer {
  name: "ip3"
  type: "InnerProduct"
  bottom: "ip2"
  top: "ip3"
  param {
    lr_mult: 1
  }
  param {
    lr_mult: 2
  }
  inner_product_param {
    num_output: 20
    weight_filler {
      type: "gaussian"
      std: 0.01
    }
    bias_filler {
      type: "constant"
    }
  }
}
layer {
  name: "relu3"
  type: "ReLU"
  bottom: "ip3"
  top: "ip3"
}
layer {
  name: "ip4"
  type: "InnerProduct"
  bottom: "ip3"
  top: "ip4"
  param {
    lr_mult: 1
  }
  param {
    lr_mult: 2
  }
  inner_product_param {
    num_output: 10
    weight_filler {
      type: "gaussian"
      std: 0.01
    }
    bias_filler {
      type: "constant"
    }
  }
}
layer {
  name: "loss"
  type: "SoftmaxWithLoss"
  bottom: "ip4"
  bottom: "label"
  top: "loss"
}
I0501 06:27:23.295267   485 layer_factory.hpp:77] Creating layer cifar
I0501 06:27:23.295367   485 db_lmdb.cpp:35] Opened lmdb examples/cifar10/cifar10_train_lmdb
I0501 06:27:23.295394   485 net.cpp:86] Creating Layer cifar
I0501 06:27:23.295403   485 net.cpp:382] cifar -> data
I0501 06:27:23.295426   485 net.cpp:382] cifar -> label
I0501 06:27:23.295439   485 data_transformer.cpp:25] Loading mean file from: examples/cifar10/mean.binaryproto
I0501 06:27:23.297600   485 data_layer.cpp:45] output data size: 111,3,32,32
I0501 06:27:23.305579   485 net.cpp:124] Setting up cifar
I0501 06:27:23.305599   485 net.cpp:131] Top shape: 111 3 32 32 (340992)
I0501 06:27:23.305605   485 net.cpp:131] Top shape: 111 (111)
I0501 06:27:23.305609   485 net.cpp:139] Memory required for data: 1364412
I0501 06:27:23.305632   485 layer_factory.hpp:77] Creating layer conv0
I0501 06:27:23.305654   485 net.cpp:86] Creating Layer conv0
I0501 06:27:23.305660   485 net.cpp:408] conv0 <- data
I0501 06:27:23.305673   485 net.cpp:382] conv0 -> conv0
I0501 06:27:23.590705   485 net.cpp:124] Setting up conv0
I0501 06:27:23.590731   485 net.cpp:131] Top shape: 111 8 32 32 (909312)
I0501 06:27:23.590735   485 net.cpp:139] Memory required for data: 5001660
I0501 06:27:23.590751   485 layer_factory.hpp:77] Creating layer Sigmoid0
I0501 06:27:23.590764   485 net.cpp:86] Creating Layer Sigmoid0
I0501 06:27:23.590767   485 net.cpp:408] Sigmoid0 <- conv0
I0501 06:27:23.590773   485 net.cpp:382] Sigmoid0 -> Sigmoid0
I0501 06:27:23.590941   485 net.cpp:124] Setting up Sigmoid0
I0501 06:27:23.590951   485 net.cpp:131] Top shape: 111 8 32 32 (909312)
I0501 06:27:23.590955   485 net.cpp:139] Memory required for data: 8638908
I0501 06:27:23.590958   485 layer_factory.hpp:77] Creating layer pool0
I0501 06:27:23.590966   485 net.cpp:86] Creating Layer pool0
I0501 06:27:23.590971   485 net.cpp:408] pool0 <- Sigmoid0
I0501 06:27:23.590976   485 net.cpp:382] pool0 -> pool0
I0501 06:27:23.591717   485 net.cpp:124] Setting up pool0
I0501 06:27:23.591730   485 net.cpp:131] Top shape: 111 8 16 16 (227328)
I0501 06:27:23.591733   485 net.cpp:139] Memory required for data: 9548220
I0501 06:27:23.591737   485 layer_factory.hpp:77] Creating layer ip1
I0501 06:27:23.591747   485 net.cpp:86] Creating Layer ip1
I0501 06:27:23.591749   485 net.cpp:408] ip1 <- pool0
I0501 06:27:23.591754   485 net.cpp:382] ip1 -> ip1
I0501 06:27:23.601469   485 net.cpp:124] Setting up ip1
I0501 06:27:23.601481   485 net.cpp:131] Top shape: 111 160 (17760)
I0501 06:27:23.601485   485 net.cpp:139] Memory required for data: 9619260
I0501 06:27:23.601493   485 layer_factory.hpp:77] Creating layer relu1
I0501 06:27:23.601500   485 net.cpp:86] Creating Layer relu1
I0501 06:27:23.601502   485 net.cpp:408] relu1 <- ip1
I0501 06:27:23.601507   485 net.cpp:369] relu1 -> ip1 (in-place)
I0501 06:27:23.601658   485 net.cpp:124] Setting up relu1
I0501 06:27:23.601667   485 net.cpp:131] Top shape: 111 160 (17760)
I0501 06:27:23.601670   485 net.cpp:139] Memory required for data: 9690300
I0501 06:27:23.601673   485 layer_factory.hpp:77] Creating layer ip2
I0501 06:27:23.601680   485 net.cpp:86] Creating Layer ip2
I0501 06:27:23.601682   485 net.cpp:408] ip2 <- ip1
I0501 06:27:23.601687   485 net.cpp:382] ip2 -> ip2
I0501 06:27:23.602742   485 net.cpp:124] Setting up ip2
I0501 06:27:23.602756   485 net.cpp:131] Top shape: 111 40 (4440)
I0501 06:27:23.602758   485 net.cpp:139] Memory required for data: 9708060
I0501 06:27:23.602766   485 layer_factory.hpp:77] Creating layer relu2
I0501 06:27:23.602772   485 net.cpp:86] Creating Layer relu2
I0501 06:27:23.602776   485 net.cpp:408] relu2 <- ip2
I0501 06:27:23.602780   485 net.cpp:369] relu2 -> ip2 (in-place)
I0501 06:27:23.602939   485 net.cpp:124] Setting up relu2
I0501 06:27:23.602948   485 net.cpp:131] Top shape: 111 40 (4440)
I0501 06:27:23.602952   485 net.cpp:139] Memory required for data: 9725820
I0501 06:27:23.602954   485 layer_factory.hpp:77] Creating layer ip3
I0501 06:27:23.602962   485 net.cpp:86] Creating Layer ip3
I0501 06:27:23.602965   485 net.cpp:408] ip3 <- ip2
I0501 06:27:23.602970   485 net.cpp:382] ip3 -> ip3
I0501 06:27:23.603078   485 net.cpp:124] Setting up ip3
I0501 06:27:23.603085   485 net.cpp:131] Top shape: 111 20 (2220)
I0501 06:27:23.603088   485 net.cpp:139] Memory required for data: 9734700
I0501 06:27:23.603093   485 layer_factory.hpp:77] Creating layer relu3
I0501 06:27:23.603098   485 net.cpp:86] Creating Layer relu3
I0501 06:27:23.603101   485 net.cpp:408] relu3 <- ip3
I0501 06:27:23.603106   485 net.cpp:369] relu3 -> ip3 (in-place)
I0501 06:27:23.603247   485 net.cpp:124] Setting up relu3
I0501 06:27:23.603255   485 net.cpp:131] Top shape: 111 20 (2220)
I0501 06:27:23.603258   485 net.cpp:139] Memory required for data: 9743580
I0501 06:27:23.603261   485 layer_factory.hpp:77] Creating layer ip4
I0501 06:27:23.603279   485 net.cpp:86] Creating Layer ip4
I0501 06:27:23.603286   485 net.cpp:408] ip4 <- ip3
I0501 06:27:23.603291   485 net.cpp:382] ip4 -> ip4
I0501 06:27:23.603385   485 net.cpp:124] Setting up ip4
I0501 06:27:23.603392   485 net.cpp:131] Top shape: 111 10 (1110)
I0501 06:27:23.603395   485 net.cpp:139] Memory required for data: 9748020
I0501 06:27:23.603402   485 layer_factory.hpp:77] Creating layer loss
I0501 06:27:23.603410   485 net.cpp:86] Creating Layer loss
I0501 06:27:23.603413   485 net.cpp:408] loss <- ip4
I0501 06:27:23.603416   485 net.cpp:408] loss <- label
I0501 06:27:23.603421   485 net.cpp:382] loss -> loss
I0501 06:27:23.603435   485 layer_factory.hpp:77] Creating layer loss
…
I0501 06:27:23.604594   485 solver.cpp:173] Creating test net (#0) specified by net file: ECE595/cifar/train_test/var_everything/cifar_train_test_451.prototxt
I0501 06:27:23.604621   485 net.cpp:296] The NetState phase (1) differed from the phase (0) specified by a rule in layer cifar
I0501 06:27:23.604712   485 net.cpp:53] Initializing net from parameters: 
name: "CIFAR"
state {
  phase: TEST
}
layer {
  name: "cifar"
  type: "Data"
  top: "data"
  top: "label"
  include {
    phase: TEST
  }
  transform_param {
    mean_file: "examples/cifar10/mean.binaryproto"
  }
  data_param {
    source: "examples/cifar10/cifar10_test_lmdb"
    batch_size: 1000
    backend: LMDB
  }
}
layer {
  name: "conv0"
  type: "Convolution"
  bottom: "data"
  top: "conv0"
  param {
    lr_mult: 1
  }
  param {
    lr_mult: 2
  }
  convolution_param {
    num_output: 8
    pad: 2
    kernel_size: 5
    stride: 1
    weight_filler {
      type: "gaussian"
      std: 0.01
    }
    bias_filler {
      type: "constant"
    }
  }
}
layer {
  name: "Sigmoid0"
  type: "Sigmoid"
  bottom: "conv0"
  top: "Sigmoid0"
}
layer {
  name: "pool0"
  type: "Pooling"
  bottom: "Sigmoid0"
  top: "pool0"
  pooling_param {
    pool: AVE
    kernel_size: 3
    stride: 2
  }
}
layer {
  name: "ip1"
  type: "InnerProduct"
  bottom: "pool0"
  top: "ip1"
  param {
    lr_mult: 1
  }
  param {
    lr_mult: 2
  }
  inner_product_param {
    num_output: 160
    weight_filler {
      type: "gaussian"
      std: 0.01
    }
    bias_filler {
      type: "constant"
    }
  }
}
layer {
  name: "relu1"
  type: "ReLU"
  bottom: "ip1"
  top: "ip1"
}
layer {
  name: "ip2"
  type: "InnerProduct"
  bottom: "ip1"
  top: "ip2"
  param {
    lr_mult: 1
  }
  param {
    lr_mult: 2
  }
  inner_product_param {
    num_output: 40
    weight_filler {
      type: "gaussian"
      std: 0.01
    }
    bias_filler {
      type: "constant"
    }
  }
}
layer {
  name: "relu2"
  type: "ReLU"
  bottom: "ip2"
  top: "ip2"
}
layer {
  name: "ip3"
  type: "InnerProduct"
  bottom: "ip2"
  top: "ip3"
  param {
    lr_mult: 1
  }
  param {
    lr_mult: 2
  }
  inner_product_param {
    num_output: 20
    weight_filler {
      type: "gaussian"
      std: 0.01
    }
    bias_filler {
      type: "constant"
    }
  }
}
layer {
  name: "relu3"
  type: "ReLU"
  bottom: "ip3"
  top: "ip3"
}
layer {
  name: "ip4"
  type: "InnerProduct"
  bottom: "ip3"
  top: "ip4"
  param {
    lr_mult: 1
  }
  param {
    lr_mult: 2
  }
  inner_product_param {
    num_output: 10
    weight_filler {
      type: "gaussian"
      std: 0.01
    }
    bias_filler {
      type: "constant"
    }
  }
}
layer {
  name: "accuracy"
  type: "Accuracy"
  bottom: "ip4"
  bottom: "label"
  top: "accuracy"
  include {
    phase: TEST
  }
}
layer {
  name: "loss"
  type: "SoftmaxWithLoss"
  bottom: "ip4"
  bottom: "label"
  top: "loss"
}
I0501 06:27:23.604789   485 layer_factory.hpp:77] Creating layer cifar
I0501 06:27:23.604851   485 db_lmdb.cpp:35] Opened lmdb examples/cifar10/cifar10_test_lmdb
I0501 06:27:23.604866   485 net.cpp:86] Creating Layer cifar
I0501 06:27:23.604871   485 net.cpp:382] cifar -> data
I0501 06:27:23.604878   485 net.cpp:382] cifar -> label
I0501 06:27:23.604885   485 data_transformer.cpp:25] Loading mean file from: examples/cifar10/mean.binaryproto
I0501 06:27:23.605026   485 data_layer.cpp:45] output data size: 1000,3,32,32
I0501 06:27:23.627162   485 net.cpp:124] Setting up cifar
I0501 06:27:23.627189   485 net.cpp:131] Top shape: 1000 3 32 32 (3072000)
I0501 06:27:23.627194   485 net.cpp:131] Top shape: 1000 (1000)
I0501 06:27:23.627198   485 net.cpp:139] Memory required for data: 12292000
I0501 06:27:23.627204   485 layer_factory.hpp:77] Creating layer label_cifar_1_split
I0501 06:27:23.627215   485 net.cpp:86] Creating Layer label_cifar_1_split
I0501 06:27:23.627219   485 net.cpp:408] label_cifar_1_split <- label
I0501 06:27:23.627225   485 net.cpp:382] label_cifar_1_split -> label_cifar_1_split_0
I0501 06:27:23.627234   485 net.cpp:382] label_cifar_1_split -> label_cifar_1_split_1
I0501 06:27:23.627377   485 net.cpp:124] Setting up label_cifar_1_split
I0501 06:27:23.627385   485 net.cpp:131] Top shape: 1000 (1000)
I0501 06:27:23.627389   485 net.cpp:131] Top shape: 1000 (1000)
I0501 06:27:23.627393   485 net.cpp:139] Memory required for data: 12300000
I0501 06:27:23.627395   485 layer_factory.hpp:77] Creating layer conv0
I0501 06:27:23.627408   485 net.cpp:86] Creating Layer conv0
I0501 06:27:23.627411   485 net.cpp:408] conv0 <- data
I0501 06:27:23.627418   485 net.cpp:382] conv0 -> conv0
I0501 06:27:23.629192   485 net.cpp:124] Setting up conv0
I0501 06:27:23.629207   485 net.cpp:131] Top shape: 1000 8 32 32 (8192000)
I0501 06:27:23.629211   485 net.cpp:139] Memory required for data: 45068000
I0501 06:27:23.629222   485 layer_factory.hpp:77] Creating layer Sigmoid0
I0501 06:27:23.629245   485 net.cpp:86] Creating Layer Sigmoid0
I0501 06:27:23.629247   485 net.cpp:408] Sigmoid0 <- conv0
I0501 06:27:23.629252   485 net.cpp:382] Sigmoid0 -> Sigmoid0
I0501 06:27:23.629446   485 net.cpp:124] Setting up Sigmoid0
I0501 06:27:23.629470   485 net.cpp:131] Top shape: 1000 8 32 32 (8192000)
I0501 06:27:23.629473   485 net.cpp:139] Memory required for data: 77836000
I0501 06:27:23.629477   485 layer_factory.hpp:77] Creating layer pool0
I0501 06:27:23.629485   485 net.cpp:86] Creating Layer pool0
I0501 06:27:23.629488   485 net.cpp:408] pool0 <- Sigmoid0
I0501 06:27:23.629493   485 net.cpp:382] pool0 -> pool0
I0501 06:27:23.629789   485 net.cpp:124] Setting up pool0
I0501 06:27:23.629799   485 net.cpp:131] Top shape: 1000 8 16 16 (2048000)
I0501 06:27:23.629803   485 net.cpp:139] Memory required for data: 86028000
I0501 06:27:23.629807   485 layer_factory.hpp:77] Creating layer ip1
I0501 06:27:23.629815   485 net.cpp:86] Creating Layer ip1
I0501 06:27:23.629819   485 net.cpp:408] ip1 <- pool0
I0501 06:27:23.629824   485 net.cpp:382] ip1 -> ip1
I0501 06:27:23.640506   485 net.cpp:124] Setting up ip1
I0501 06:27:23.640522   485 net.cpp:131] Top shape: 1000 160 (160000)
I0501 06:27:23.640527   485 net.cpp:139] Memory required for data: 86668000
I0501 06:27:23.640575   485 layer_factory.hpp:77] Creating layer relu1
I0501 06:27:23.640599   485 net.cpp:86] Creating Layer relu1
I0501 06:27:23.640601   485 net.cpp:408] relu1 <- ip1
I0501 06:27:23.640606   485 net.cpp:369] relu1 -> ip1 (in-place)
I0501 06:27:23.640799   485 net.cpp:124] Setting up relu1
I0501 06:27:23.640808   485 net.cpp:131] Top shape: 1000 160 (160000)
I0501 06:27:23.640832   485 net.cpp:139] Memory required for data: 87308000
I0501 06:27:23.640836   485 layer_factory.hpp:77] Creating layer ip2
I0501 06:27:23.640842   485 net.cpp:86] Creating Layer ip2
I0501 06:27:23.640846   485 net.cpp:408] ip2 <- ip1
I0501 06:27:23.640851   485 net.cpp:382] ip2 -> ip2
I0501 06:27:23.641155   485 net.cpp:124] Setting up ip2
I0501 06:27:23.641177   485 net.cpp:131] Top shape: 1000 40 (40000)
I0501 06:27:23.641180   485 net.cpp:139] Memory required for data: 87468000
I0501 06:27:23.641187   485 layer_factory.hpp:77] Creating layer relu2
I0501 06:27:23.641193   485 net.cpp:86] Creating Layer relu2
I0501 06:27:23.641196   485 net.cpp:408] relu2 <- ip2
I0501 06:27:23.641208   485 net.cpp:369] relu2 -> ip2 (in-place)
I0501 06:27:23.641969   485 net.cpp:124] Setting up relu2
I0501 06:27:23.641981   485 net.cpp:131] Top shape: 1000 40 (40000)
I0501 06:27:23.641985   485 net.cpp:139] Memory required for data: 87628000
I0501 06:27:23.641988   485 layer_factory.hpp:77] Creating layer ip3
I0501 06:27:23.641995   485 net.cpp:86] Creating Layer ip3
I0501 06:27:23.641999   485 net.cpp:408] ip3 <- ip2
I0501 06:27:23.642004   485 net.cpp:382] ip3 -> ip3
I0501 06:27:23.642129   485 net.cpp:124] Setting up ip3
I0501 06:27:23.642137   485 net.cpp:131] Top shape: 1000 20 (20000)
I0501 06:27:23.642140   485 net.cpp:139] Memory required for data: 87708000
I0501 06:27:23.642145   485 layer_factory.hpp:77] Creating layer relu3
I0501 06:27:23.642158   485 net.cpp:86] Creating Layer relu3
I0501 06:27:23.642163   485 net.cpp:408] relu3 <- ip3
I0501 06:27:23.642166   485 net.cpp:369] relu3 -> ip3 (in-place)
I0501 06:27:23.642313   485 net.cpp:124] Setting up relu3
I0501 06:27:23.642321   485 net.cpp:131] Top shape: 1000 20 (20000)
I0501 06:27:23.642324   485 net.cpp:139] Memory required for data: 87788000
I0501 06:27:23.642328   485 layer_factory.hpp:77] Creating layer ip4
I0501 06:27:23.642333   485 net.cpp:86] Creating Layer ip4
I0501 06:27:23.642336   485 net.cpp:408] ip4 <- ip3
I0501 06:27:23.642340   485 net.cpp:382] ip4 -> ip4
I0501 06:27:23.642444   485 net.cpp:124] Setting up ip4
I0501 06:27:23.642452   485 net.cpp:131] Top shape: 1000 10 (10000)
I0501 06:27:23.642454   485 net.cpp:139] Memory required for data: 87828000
I0501 06:27:23.642462   485 layer_factory.hpp:77] Creating layer ip4_ip4_0_split
I0501 06:27:23.642467   485 net.cpp:86] Creating Layer ip4_ip4_0_split
I0501 06:27:23.642470   485 net.cpp:408] ip4_ip4_0_split <- ip4
I0501 06:27:23.642474   485 net.cpp:382] ip4_ip4_0_split -> ip4_ip4_0_split_0
I0501 06:27:23.642479   485 net.cpp:382] ip4_ip4_0_split -> ip4_ip4_0_split_1
I0501 06:27:23.642508   485 net.cpp:124] Setting up ip4_ip4_0_split
I0501 06:27:23.642513   485 net.cpp:131] Top shape: 1000 10 (10000)
I0501 06:27:23.642515   485 net.cpp:131] Top shape: 1000 10 (10000)
I0501 06:27:23.642518   485 net.cpp:139] Memory required for data: 87908000
I0501 06:27:23.642520   485 layer_factory.hpp:77] Creating layer accuracy
I0501 06:27:23.642526   485 net.cpp:86] Creating Layer accuracy
I0501 06:27:23.642529   485 net.cpp:408] accuracy <- ip4_ip4_0_split_0
I0501 06:27:23.642532   485 net.cpp:408] accuracy <- label_cifar_1_split_0
I0501 06:27:23.642537   485 net.cpp:382] accuracy -> accuracy
…
