…
I0430 22:08:41.651563   669 net.cpp:296] The NetState phase (0) differed from the phase (1) specified by a rule in layer cifar
I0430 22:08:41.651577   669 net.cpp:296] The NetState phase (0) differed from the phase (1) specified by a rule in layer accuracy
I0430 22:08:41.651648   669 net.cpp:53] Initializing net from parameters: 
name: "CIFAR"
state {
  phase: TRAIN
  level: 0
  stage: ""
}
layer {
  name: "cifar"
  type: "Data"
  top: "data"
  top: "label"
  include {
    phase: TRAIN
  }
  transform_param {
    mean_file: "examples/cifar10/mean.binaryproto"
  }
  data_param {
    source: "examples/cifar10/cifar10_train_lmdb"
    batch_size: 111
    backend: LMDB
  }
}
layer {
  name: "conv0"
  type: "Convolution"
  bottom: "data"
  top: "conv0"
  param {
    lr_mult: 1
  }
  param {
    lr_mult: 2
  }
  convolution_param {
    num_output: 8
    pad: 2
    kernel_size: 3
    stride: 1
    weight_filler {
      type: "gaussian"
      std: 0.01
    }
    bias_filler {
      type: "constant"
    }
  }
}
layer {
  name: "Sigmoid0"
  type: "Sigmoid"
  bottom: "conv0"
  top: "Sigmoid0"
}
layer {
  name: "pool0"
  type: "Pooling"
  bottom: "Sigmoid0"
  top: "pool0"
  pooling_param {
    pool: AVE
    kernel_size: 3
    stride: 2
  }
}
layer {
  name: "ip1"
  type: "InnerProduct"
  bottom: "pool0"
  top: "ip1"
  param {
    lr_mult: 1
  }
  param {
    lr_mult: 2
  }
  inner_product_param {
    num_output: 160
    weight_filler {
      type: "gaussian"
      std: 0.01
    }
    bias_filler {
      type: "constant"
    }
  }
}
layer {
  name: "relu1"
  type: "ReLU"
  bottom: "ip1"
  top: "ip1"
}
layer {
  name: "ip2"
  type: "InnerProduct"
  bottom: "ip1"
  top: "ip2"
  param {
    lr_mult: 1
  }
  param {
    lr_mult: 2
  }
  inner_product_param {
    num_output: 160
    weight_filler {
      type: "gaussian"
      std: 0.01
    }
    bias_filler {
      type: "constant"
    }
  }
}
layer {
  name: "relu2"
  type: "ReLU"
  bottom: "ip2"
  top: "ip2"
}
layer {
  name: "ip3"
  type: "InnerProduct"
  bottom: "ip2"
  top: "ip3"
  param {
    lr_mult: 1
  }
  param {
    lr_mult: 2
  }
  inner_product_param {
    num_output: 10
    weight_filler {
      type: "gaussian"
      std: 0.01
    }
    bias_filler {
      type: "constant"
    }
  }
}
layer {
  name: "loss"
  type: "SoftmaxWithLoss"
  bottom: "ip3"
  bottom: "label"
  top: "loss"
}
I0430 22:08:41.651706   669 layer_factory.hpp:77] Creating layer cifar
I0430 22:08:41.651784   669 db_lmdb.cpp:35] Opened lmdb examples/cifar10/cifar10_train_lmdb
I0430 22:08:41.651805   669 net.cpp:86] Creating Layer cifar
I0430 22:08:41.651813   669 net.cpp:382] cifar -> data
I0430 22:08:41.651831   669 net.cpp:382] cifar -> label
I0430 22:08:41.651840   669 data_transformer.cpp:25] Loading mean file from: examples/cifar10/mean.binaryproto
I0430 22:08:41.653692   669 data_layer.cpp:45] output data size: 111,3,32,32
I0430 22:08:41.659986   669 net.cpp:124] Setting up cifar
I0430 22:08:41.660017   669 net.cpp:131] Top shape: 111 3 32 32 (340992)
I0430 22:08:41.660022   669 net.cpp:131] Top shape: 111 (111)
I0430 22:08:41.660024   669 net.cpp:139] Memory required for data: 1364412
I0430 22:08:41.660029   669 layer_factory.hpp:77] Creating layer conv0
I0430 22:08:41.660079   669 net.cpp:86] Creating Layer conv0
I0430 22:08:41.660084   669 net.cpp:408] conv0 <- data
I0430 22:08:41.660094   669 net.cpp:382] conv0 -> conv0
I0430 22:08:41.893823   669 net.cpp:124] Setting up conv0
I0430 22:08:41.893898   669 net.cpp:131] Top shape: 111 8 34 34 (1026528)
I0430 22:08:41.893903   669 net.cpp:139] Memory required for data: 5470524
I0430 22:08:41.893918   669 layer_factory.hpp:77] Creating layer Sigmoid0
I0430 22:08:41.893929   669 net.cpp:86] Creating Layer Sigmoid0
I0430 22:08:41.893934   669 net.cpp:408] Sigmoid0 <- conv0
I0430 22:08:41.893939   669 net.cpp:382] Sigmoid0 -> Sigmoid0
I0430 22:08:41.894127   669 net.cpp:124] Setting up Sigmoid0
I0430 22:08:41.894137   669 net.cpp:131] Top shape: 111 8 34 34 (1026528)
I0430 22:08:41.894140   669 net.cpp:139] Memory required for data: 9576636
I0430 22:08:41.894143   669 layer_factory.hpp:77] Creating layer pool0
I0430 22:08:41.894150   669 net.cpp:86] Creating Layer pool0
I0430 22:08:41.894153   669 net.cpp:408] pool0 <- Sigmoid0
I0430 22:08:41.894157   669 net.cpp:382] pool0 -> pool0
I0430 22:08:41.894879   669 net.cpp:124] Setting up pool0
I0430 22:08:41.894907   669 net.cpp:131] Top shape: 111 8 17 17 (256632)
I0430 22:08:41.894911   669 net.cpp:139] Memory required for data: 10603164
I0430 22:08:41.894913   669 layer_factory.hpp:77] Creating layer ip1
I0430 22:08:41.894923   669 net.cpp:86] Creating Layer ip1
I0430 22:08:41.894927   669 net.cpp:408] ip1 <- pool0
I0430 22:08:41.894932   669 net.cpp:382] ip1 -> ip1
I0430 22:08:41.905272   669 net.cpp:124] Setting up ip1
I0430 22:08:41.905284   669 net.cpp:131] Top shape: 111 160 (17760)
I0430 22:08:41.905287   669 net.cpp:139] Memory required for data: 10674204
I0430 22:08:41.905294   669 layer_factory.hpp:77] Creating layer relu1
I0430 22:08:41.905300   669 net.cpp:86] Creating Layer relu1
I0430 22:08:41.905303   669 net.cpp:408] relu1 <- ip1
I0430 22:08:41.905306   669 net.cpp:369] relu1 -> ip1 (in-place)
I0430 22:08:41.905468   669 net.cpp:124] Setting up relu1
I0430 22:08:41.905478   669 net.cpp:131] Top shape: 111 160 (17760)
I0430 22:08:41.905480   669 net.cpp:139] Memory required for data: 10745244
I0430 22:08:41.905483   669 layer_factory.hpp:77] Creating layer ip2
I0430 22:08:41.905489   669 net.cpp:86] Creating Layer ip2
I0430 22:08:41.905493   669 net.cpp:408] ip2 <- ip1
I0430 22:08:41.905498   669 net.cpp:382] ip2 -> ip2
I0430 22:08:41.906958   669 net.cpp:124] Setting up ip2
I0430 22:08:41.906970   669 net.cpp:131] Top shape: 111 160 (17760)
I0430 22:08:41.906972   669 net.cpp:139] Memory required for data: 10816284
I0430 22:08:41.906980   669 layer_factory.hpp:77] Creating layer relu2
I0430 22:08:41.906985   669 net.cpp:86] Creating Layer relu2
I0430 22:08:41.906987   669 net.cpp:408] relu2 <- ip2
I0430 22:08:41.906992   669 net.cpp:369] relu2 -> ip2 (in-place)
I0430 22:08:41.907186   669 net.cpp:124] Setting up relu2
I0430 22:08:41.907194   669 net.cpp:131] Top shape: 111 160 (17760)
I0430 22:08:41.907197   669 net.cpp:139] Memory required for data: 10887324
I0430 22:08:41.907200   669 layer_factory.hpp:77] Creating layer ip3
I0430 22:08:41.907209   669 net.cpp:86] Creating Layer ip3
I0430 22:08:41.907212   669 net.cpp:408] ip3 <- ip2
I0430 22:08:41.907217   669 net.cpp:382] ip3 -> ip3
I0430 22:08:41.907356   669 net.cpp:124] Setting up ip3
I0430 22:08:41.907362   669 net.cpp:131] Top shape: 111 10 (1110)
I0430 22:08:41.907366   669 net.cpp:139] Memory required for data: 10891764
I0430 22:08:41.907371   669 layer_factory.hpp:77] Creating layer loss
I0430 22:08:41.907395   669 net.cpp:86] Creating Layer loss
I0430 22:08:41.907398   669 net.cpp:408] loss <- ip3
I0430 22:08:41.907402   669 net.cpp:408] loss <- label
I0430 22:08:41.907407   669 net.cpp:382] loss -> loss
I0430 22:08:41.907419   669 layer_factory.hpp:77] Creating layer loss
…
I0430 22:08:41.907989   669 solver.cpp:173] Creating test net (#0) specified by net file: ECE595/cifar/train_test/var_everything/cifar_train_test_184.prototxt
I0430 22:08:41.908013   669 net.cpp:296] The NetState phase (1) differed from the phase (0) specified by a rule in layer cifar
I0430 22:08:41.908112   669 net.cpp:53] Initializing net from parameters: 
name: "CIFAR"
state {
  phase: TEST
}
layer {
  name: "cifar"
  type: "Data"
  top: "data"
  top: "label"
  include {
    phase: TEST
  }
  transform_param {
    mean_file: "examples/cifar10/mean.binaryproto"
  }
  data_param {
    source: "examples/cifar10/cifar10_test_lmdb"
    batch_size: 1000
    backend: LMDB
  }
}
layer {
  name: "conv0"
  type: "Convolution"
  bottom: "data"
  top: "conv0"
  param {
    lr_mult: 1
  }
  param {
    lr_mult: 2
  }
  convolution_param {
    num_output: 8
    pad: 2
    kernel_size: 3
    stride: 1
    weight_filler {
      type: "gaussian"
      std: 0.01
    }
    bias_filler {
      type: "constant"
    }
  }
}
layer {
  name: "Sigmoid0"
  type: "Sigmoid"
  bottom: "conv0"
  top: "Sigmoid0"
}
layer {
  name: "pool0"
  type: "Pooling"
  bottom: "Sigmoid0"
  top: "pool0"
  pooling_param {
    pool: AVE
    kernel_size: 3
    stride: 2
  }
}
layer {
  name: "ip1"
  type: "InnerProduct"
  bottom: "pool0"
  top: "ip1"
  param {
    lr_mult: 1
  }
  param {
    lr_mult: 2
  }
  inner_product_param {
    num_output: 160
    weight_filler {
      type: "gaussian"
      std: 0.01
    }
    bias_filler {
      type: "constant"
    }
  }
}
layer {
  name: "relu1"
  type: "ReLU"
  bottom: "ip1"
  top: "ip1"
}
layer {
  name: "ip2"
  type: "InnerProduct"
  bottom: "ip1"
  top: "ip2"
  param {
    lr_mult: 1
  }
  param {
    lr_mult: 2
  }
  inner_product_param {
    num_output: 160
    weight_filler {
      type: "gaussian"
      std: 0.01
    }
    bias_filler {
      type: "constant"
    }
  }
}
layer {
  name: "relu2"
  type: "ReLU"
  bottom: "ip2"
  top: "ip2"
}
layer {
  name: "ip3"
  type: "InnerProduct"
  bottom: "ip2"
  top: "ip3"
  param {
    lr_mult: 1
  }
  param {
    lr_mult: 2
  }
  inner_product_param {
    num_output: 10
    weight_filler {
      type: "gaussian"
      std: 0.01
    }
    bias_filler {
      type: "constant"
    }
  }
}
layer {
  name: "accuracy"
  type: "Accuracy"
  bottom: "ip3"
  bottom: "label"
  top: "accuracy"
  include {
    phase: TEST
  }
}
layer {
  name: "loss"
  type: "SoftmaxWithLoss"
  bottom: "ip3"
  bottom: "label"
  top: "loss"
}
I0430 22:08:41.908191   669 layer_factory.hpp:77] Creating layer cifar
I0430 22:08:41.908234   669 db_lmdb.cpp:35] Opened lmdb examples/cifar10/cifar10_test_lmdb
I0430 22:08:41.908246   669 net.cpp:86] Creating Layer cifar
I0430 22:08:41.908252   669 net.cpp:382] cifar -> data
I0430 22:08:41.908259   669 net.cpp:382] cifar -> label
I0430 22:08:41.908267   669 data_transformer.cpp:25] Loading mean file from: examples/cifar10/mean.binaryproto
I0430 22:08:41.908430   669 data_layer.cpp:45] output data size: 1000,3,32,32
I0430 22:08:41.930981   669 net.cpp:124] Setting up cifar
I0430 22:08:41.931007   669 net.cpp:131] Top shape: 1000 3 32 32 (3072000)
I0430 22:08:41.931012   669 net.cpp:131] Top shape: 1000 (1000)
I0430 22:08:41.931015   669 net.cpp:139] Memory required for data: 12292000
I0430 22:08:41.931020   669 layer_factory.hpp:77] Creating layer label_cifar_1_split
I0430 22:08:41.931047   669 net.cpp:86] Creating Layer label_cifar_1_split
I0430 22:08:41.931066   669 net.cpp:408] label_cifar_1_split <- label
I0430 22:08:41.931073   669 net.cpp:382] label_cifar_1_split -> label_cifar_1_split_0
I0430 22:08:41.931082   669 net.cpp:382] label_cifar_1_split -> label_cifar_1_split_1
I0430 22:08:41.931151   669 net.cpp:124] Setting up label_cifar_1_split
I0430 22:08:41.931159   669 net.cpp:131] Top shape: 1000 (1000)
I0430 22:08:41.931164   669 net.cpp:131] Top shape: 1000 (1000)
I0430 22:08:41.931166   669 net.cpp:139] Memory required for data: 12300000
I0430 22:08:41.931169   669 layer_factory.hpp:77] Creating layer conv0
I0430 22:08:41.931182   669 net.cpp:86] Creating Layer conv0
I0430 22:08:41.931185   669 net.cpp:408] conv0 <- data
I0430 22:08:41.931190   669 net.cpp:382] conv0 -> conv0
I0430 22:08:41.932657   669 net.cpp:124] Setting up conv0
I0430 22:08:41.932672   669 net.cpp:131] Top shape: 1000 8 34 34 (9248000)
I0430 22:08:41.932674   669 net.cpp:139] Memory required for data: 49292000
I0430 22:08:41.932682   669 layer_factory.hpp:77] Creating layer Sigmoid0
I0430 22:08:41.932704   669 net.cpp:86] Creating Layer Sigmoid0
I0430 22:08:41.932708   669 net.cpp:408] Sigmoid0 <- conv0
I0430 22:08:41.932711   669 net.cpp:382] Sigmoid0 -> Sigmoid0
I0430 22:08:41.933640   669 net.cpp:124] Setting up Sigmoid0
I0430 22:08:41.933652   669 net.cpp:131] Top shape: 1000 8 34 34 (9248000)
I0430 22:08:41.933655   669 net.cpp:139] Memory required for data: 86284000
I0430 22:08:41.933660   669 layer_factory.hpp:77] Creating layer pool0
I0430 22:08:41.933667   669 net.cpp:86] Creating Layer pool0
I0430 22:08:41.933686   669 net.cpp:408] pool0 <- Sigmoid0
I0430 22:08:41.933691   669 net.cpp:382] pool0 -> pool0
I0430 22:08:41.933872   669 net.cpp:124] Setting up pool0
I0430 22:08:41.933881   669 net.cpp:131] Top shape: 1000 8 17 17 (2312000)
I0430 22:08:41.933884   669 net.cpp:139] Memory required for data: 95532000
I0430 22:08:41.933887   669 layer_factory.hpp:77] Creating layer ip1
I0430 22:08:41.933894   669 net.cpp:86] Creating Layer ip1
I0430 22:08:41.933897   669 net.cpp:408] ip1 <- pool0
I0430 22:08:41.933902   669 net.cpp:382] ip1 -> ip1
I0430 22:08:41.944093   669 net.cpp:124] Setting up ip1
I0430 22:08:41.944106   669 net.cpp:131] Top shape: 1000 160 (160000)
I0430 22:08:41.944109   669 net.cpp:139] Memory required for data: 96172000
I0430 22:08:41.944118   669 layer_factory.hpp:77] Creating layer relu1
I0430 22:08:41.944124   669 net.cpp:86] Creating Layer relu1
I0430 22:08:41.944128   669 net.cpp:408] relu1 <- ip1
I0430 22:08:41.944146   669 net.cpp:369] relu1 -> ip1 (in-place)
I0430 22:08:41.944314   669 net.cpp:124] Setting up relu1
I0430 22:08:41.944324   669 net.cpp:131] Top shape: 1000 160 (160000)
I0430 22:08:41.944326   669 net.cpp:139] Memory required for data: 96812000
I0430 22:08:41.944329   669 layer_factory.hpp:77] Creating layer ip2
I0430 22:08:41.944335   669 net.cpp:86] Creating Layer ip2
I0430 22:08:41.944347   669 net.cpp:408] ip2 <- ip1
I0430 22:08:41.944368   669 net.cpp:382] ip2 -> ip2
I0430 22:08:41.945257   669 net.cpp:124] Setting up ip2
I0430 22:08:41.945266   669 net.cpp:131] Top shape: 1000 160 (160000)
I0430 22:08:41.945268   669 net.cpp:139] Memory required for data: 97452000
I0430 22:08:41.945276   669 layer_factory.hpp:77] Creating layer relu2
I0430 22:08:41.945297   669 net.cpp:86] Creating Layer relu2
I0430 22:08:41.945299   669 net.cpp:408] relu2 <- ip2
I0430 22:08:41.945303   669 net.cpp:369] relu2 -> ip2 (in-place)
I0430 22:08:41.945474   669 net.cpp:124] Setting up relu2
I0430 22:08:41.945482   669 net.cpp:131] Top shape: 1000 160 (160000)
I0430 22:08:41.945485   669 net.cpp:139] Memory required for data: 98092000
I0430 22:08:41.945487   669 layer_factory.hpp:77] Creating layer ip3
I0430 22:08:41.945494   669 net.cpp:86] Creating Layer ip3
I0430 22:08:41.945497   669 net.cpp:408] ip3 <- ip2
I0430 22:08:41.945510   669 net.cpp:382] ip3 -> ip3
I0430 22:08:41.945655   669 net.cpp:124] Setting up ip3
I0430 22:08:41.945662   669 net.cpp:131] Top shape: 1000 10 (10000)
I0430 22:08:41.945677   669 net.cpp:139] Memory required for data: 98132000
I0430 22:08:41.945682   669 layer_factory.hpp:77] Creating layer ip3_ip3_0_split
I0430 22:08:41.945688   669 net.cpp:86] Creating Layer ip3_ip3_0_split
I0430 22:08:41.945690   669 net.cpp:408] ip3_ip3_0_split <- ip3
I0430 22:08:41.945694   669 net.cpp:382] ip3_ip3_0_split -> ip3_ip3_0_split_0
I0430 22:08:41.945700   669 net.cpp:382] ip3_ip3_0_split -> ip3_ip3_0_split_1
I0430 22:08:41.945732   669 net.cpp:124] Setting up ip3_ip3_0_split
I0430 22:08:41.945736   669 net.cpp:131] Top shape: 1000 10 (10000)
I0430 22:08:41.945746   669 net.cpp:131] Top shape: 1000 10 (10000)
I0430 22:08:41.945749   669 net.cpp:139] Memory required for data: 98212000
I0430 22:08:41.945751   669 layer_factory.hpp:77] Creating layer accuracy
I0430 22:08:41.945765   669 net.cpp:86] Creating Layer accuracy
I0430 22:08:41.945767   669 net.cpp:408] accuracy <- ip3_ip3_0_split_0
I0430 22:08:41.945771   669 net.cpp:408] accuracy <- label_cifar_1_split_0
I0430 22:08:41.945789   669 net.cpp:382] accuracy -> accuracy
…
