…
I0501 02:46:18.958343 17182 net.cpp:296] The NetState phase (0) differed from the phase (1) specified by a rule in layer cifar
I0501 02:46:18.958359 17182 net.cpp:296] The NetState phase (0) differed from the phase (1) specified by a rule in layer accuracy
I0501 02:46:18.958451 17182 net.cpp:53] Initializing net from parameters: 
name: "CIFAR"
state {
  phase: TRAIN
  level: 0
  stage: ""
}
layer {
  name: "cifar"
  type: "Data"
  top: "data"
  top: "label"
  include {
    phase: TRAIN
  }
  transform_param {
    mean_file: "examples/cifar10/mean.binaryproto"
  }
  data_param {
    source: "examples/cifar10/cifar10_train_lmdb"
    batch_size: 111
    backend: LMDB
  }
}
layer {
  name: "conv0"
  type: "Convolution"
  bottom: "data"
  top: "conv0"
  param {
    lr_mult: 1
  }
  param {
    lr_mult: 2
  }
  convolution_param {
    num_output: 8
    pad: 2
    kernel_size: 5
    stride: 1
    weight_filler {
      type: "gaussian"
      std: 0.01
    }
    bias_filler {
      type: "constant"
    }
  }
}
layer {
  name: "Sigmoid0"
  type: "Sigmoid"
  bottom: "conv0"
  top: "Sigmoid0"
}
layer {
  name: "pool0"
  type: "Pooling"
  bottom: "Sigmoid0"
  top: "pool0"
  pooling_param {
    pool: AVE
    kernel_size: 3
    stride: 2
  }
}
layer {
  name: "ip1"
  type: "InnerProduct"
  bottom: "pool0"
  top: "ip1"
  param {
    lr_mult: 1
  }
  param {
    lr_mult: 2
  }
  inner_product_param {
    num_output: 80
    weight_filler {
      type: "gaussian"
      std: 0.01
    }
    bias_filler {
      type: "constant"
    }
  }
}
layer {
  name: "relu1"
  type: "ReLU"
  bottom: "ip1"
  top: "ip1"
}
layer {
  name: "ip2"
  type: "InnerProduct"
  bottom: "ip1"
  top: "ip2"
  param {
    lr_mult: 1
  }
  param {
    lr_mult: 2
  }
  inner_product_param {
    num_output: 40
    weight_filler {
      type: "gaussian"
      std: 0.01
    }
    bias_filler {
      type: "constant"
    }
  }
}
layer {
  name: "relu2"
  type: "ReLU"
  bottom: "ip2"
  top: "ip2"
}
layer {
  name: "ip3"
  type: "InnerProduct"
  bottom: "ip2"
  top: "ip3"
  param {
    lr_mult: 1
  }
  param {
    lr_mult: 2
  }
  inner_product_param {
    num_output: 10
    weight_filler {
      type: "gaussian"
      std: 0.01
    }
    bias_filler {
      type: "constant"
    }
  }
}
layer {
  name: "loss"
  type: "SoftmaxWithLoss"
  bottom: "ip3"
  bottom: "label"
  top: "loss"
}
I0501 02:46:18.958521 17182 layer_factory.hpp:77] Creating layer cifar
I0501 02:46:18.958617 17182 db_lmdb.cpp:35] Opened lmdb examples/cifar10/cifar10_train_lmdb
I0501 02:46:18.958647 17182 net.cpp:86] Creating Layer cifar
I0501 02:46:18.958657 17182 net.cpp:382] cifar -> data
I0501 02:46:18.958679 17182 net.cpp:382] cifar -> label
I0501 02:46:18.958696 17182 data_transformer.cpp:25] Loading mean file from: examples/cifar10/mean.binaryproto
I0501 02:46:18.960785 17182 data_layer.cpp:45] output data size: 111,3,32,32
I0501 02:46:18.968670 17182 net.cpp:124] Setting up cifar
I0501 02:46:18.968689 17182 net.cpp:131] Top shape: 111 3 32 32 (340992)
I0501 02:46:18.968695 17182 net.cpp:131] Top shape: 111 (111)
I0501 02:46:18.968699 17182 net.cpp:139] Memory required for data: 1364412
I0501 02:46:18.968708 17182 layer_factory.hpp:77] Creating layer conv0
I0501 02:46:18.968727 17182 net.cpp:86] Creating Layer conv0
I0501 02:46:18.968734 17182 net.cpp:408] conv0 <- data
I0501 02:46:18.968744 17182 net.cpp:382] conv0 -> conv0
I0501 02:46:19.245659 17182 net.cpp:124] Setting up conv0
I0501 02:46:19.245703 17182 net.cpp:131] Top shape: 111 8 32 32 (909312)
I0501 02:46:19.245708 17182 net.cpp:139] Memory required for data: 5001660
I0501 02:46:19.245723 17182 layer_factory.hpp:77] Creating layer Sigmoid0
I0501 02:46:19.245736 17182 net.cpp:86] Creating Layer Sigmoid0
I0501 02:46:19.245740 17182 net.cpp:408] Sigmoid0 <- conv0
I0501 02:46:19.245745 17182 net.cpp:382] Sigmoid0 -> Sigmoid0
I0501 02:46:19.245928 17182 net.cpp:124] Setting up Sigmoid0
I0501 02:46:19.245936 17182 net.cpp:131] Top shape: 111 8 32 32 (909312)
I0501 02:46:19.245939 17182 net.cpp:139] Memory required for data: 8638908
I0501 02:46:19.245942 17182 layer_factory.hpp:77] Creating layer pool0
I0501 02:46:19.245949 17182 net.cpp:86] Creating Layer pool0
I0501 02:46:19.245952 17182 net.cpp:408] pool0 <- Sigmoid0
I0501 02:46:19.245956 17182 net.cpp:382] pool0 -> pool0
I0501 02:46:19.246719 17182 net.cpp:124] Setting up pool0
I0501 02:46:19.246747 17182 net.cpp:131] Top shape: 111 8 16 16 (227328)
I0501 02:46:19.246750 17182 net.cpp:139] Memory required for data: 9548220
I0501 02:46:19.246754 17182 layer_factory.hpp:77] Creating layer ip1
I0501 02:46:19.246763 17182 net.cpp:86] Creating Layer ip1
I0501 02:46:19.246767 17182 net.cpp:408] ip1 <- pool0
I0501 02:46:19.246772 17182 net.cpp:382] ip1 -> ip1
I0501 02:46:19.251250 17182 net.cpp:124] Setting up ip1
I0501 02:46:19.251258 17182 net.cpp:131] Top shape: 111 80 (8880)
I0501 02:46:19.251261 17182 net.cpp:139] Memory required for data: 9583740
I0501 02:46:19.251268 17182 layer_factory.hpp:77] Creating layer relu1
I0501 02:46:19.251273 17182 net.cpp:86] Creating Layer relu1
I0501 02:46:19.251276 17182 net.cpp:408] relu1 <- ip1
I0501 02:46:19.251281 17182 net.cpp:369] relu1 -> ip1 (in-place)
I0501 02:46:19.251467 17182 net.cpp:124] Setting up relu1
I0501 02:46:19.251477 17182 net.cpp:131] Top shape: 111 80 (8880)
I0501 02:46:19.251479 17182 net.cpp:139] Memory required for data: 9619260
I0501 02:46:19.251482 17182 layer_factory.hpp:77] Creating layer ip2
I0501 02:46:19.251489 17182 net.cpp:86] Creating Layer ip2
I0501 02:46:19.251492 17182 net.cpp:408] ip2 <- ip1
I0501 02:46:19.251498 17182 net.cpp:382] ip2 -> ip2
I0501 02:46:19.251679 17182 net.cpp:124] Setting up ip2
I0501 02:46:19.251687 17182 net.cpp:131] Top shape: 111 40 (4440)
I0501 02:46:19.251689 17182 net.cpp:139] Memory required for data: 9637020
I0501 02:46:19.251696 17182 layer_factory.hpp:77] Creating layer relu2
I0501 02:46:19.251703 17182 net.cpp:86] Creating Layer relu2
I0501 02:46:19.251708 17182 net.cpp:408] relu2 <- ip2
I0501 02:46:19.251713 17182 net.cpp:369] relu2 -> ip2 (in-place)
I0501 02:46:19.251870 17182 net.cpp:124] Setting up relu2
I0501 02:46:19.251878 17182 net.cpp:131] Top shape: 111 40 (4440)
I0501 02:46:19.251881 17182 net.cpp:139] Memory required for data: 9654780
I0501 02:46:19.251884 17182 layer_factory.hpp:77] Creating layer ip3
I0501 02:46:19.251891 17182 net.cpp:86] Creating Layer ip3
I0501 02:46:19.251895 17182 net.cpp:408] ip3 <- ip2
I0501 02:46:19.251900 17182 net.cpp:382] ip3 -> ip3
I0501 02:46:19.252018 17182 net.cpp:124] Setting up ip3
I0501 02:46:19.252024 17182 net.cpp:131] Top shape: 111 10 (1110)
I0501 02:46:19.252027 17182 net.cpp:139] Memory required for data: 9659220
I0501 02:46:19.252032 17182 layer_factory.hpp:77] Creating layer loss
I0501 02:46:19.252038 17182 net.cpp:86] Creating Layer loss
I0501 02:46:19.252041 17182 net.cpp:408] loss <- ip3
I0501 02:46:19.252045 17182 net.cpp:408] loss <- label
I0501 02:46:19.252050 17182 net.cpp:382] loss -> loss
I0501 02:46:19.252068 17182 layer_factory.hpp:77] Creating layer loss
…
I0501 02:46:19.252681 17182 solver.cpp:173] Creating test net (#0) specified by net file: ECE595/cifar/train_test/var_everything/cifar_train_test_332.prototxt
I0501 02:46:19.252707 17182 net.cpp:296] The NetState phase (1) differed from the phase (0) specified by a rule in layer cifar
I0501 02:46:19.252831 17182 net.cpp:53] Initializing net from parameters: 
name: "CIFAR"
state {
  phase: TEST
}
layer {
  name: "cifar"
  type: "Data"
  top: "data"
  top: "label"
  include {
    phase: TEST
  }
  transform_param {
    mean_file: "examples/cifar10/mean.binaryproto"
  }
  data_param {
    source: "examples/cifar10/cifar10_test_lmdb"
    batch_size: 1000
    backend: LMDB
  }
}
layer {
  name: "conv0"
  type: "Convolution"
  bottom: "data"
  top: "conv0"
  param {
    lr_mult: 1
  }
  param {
    lr_mult: 2
  }
  convolution_param {
    num_output: 8
    pad: 2
    kernel_size: 5
    stride: 1
    weight_filler {
      type: "gaussian"
      std: 0.01
    }
    bias_filler {
      type: "constant"
    }
  }
}
layer {
  name: "Sigmoid0"
  type: "Sigmoid"
  bottom: "conv0"
  top: "Sigmoid0"
}
layer {
  name: "pool0"
  type: "Pooling"
  bottom: "Sigmoid0"
  top: "pool0"
  pooling_param {
    pool: AVE
    kernel_size: 3
    stride: 2
  }
}
layer {
  name: "ip1"
  type: "InnerProduct"
  bottom: "pool0"
  top: "ip1"
  param {
    lr_mult: 1
  }
  param {
    lr_mult: 2
  }
  inner_product_param {
    num_output: 80
    weight_filler {
      type: "gaussian"
      std: 0.01
    }
    bias_filler {
      type: "constant"
    }
  }
}
layer {
  name: "relu1"
  type: "ReLU"
  bottom: "ip1"
  top: "ip1"
}
layer {
  name: "ip2"
  type: "InnerProduct"
  bottom: "ip1"
  top: "ip2"
  param {
    lr_mult: 1
  }
  param {
    lr_mult: 2
  }
  inner_product_param {
    num_output: 40
    weight_filler {
      type: "gaussian"
      std: 0.01
    }
    bias_filler {
      type: "constant"
    }
  }
}
layer {
  name: "relu2"
  type: "ReLU"
  bottom: "ip2"
  top: "ip2"
}
layer {
  name: "ip3"
  type: "InnerProduct"
  bottom: "ip2"
  top: "ip3"
  param {
    lr_mult: 1
  }
  param {
    lr_mult: 2
  }
  inner_product_param {
    num_output: 10
    weight_filler {
      type: "gaussian"
      std: 0.01
    }
    bias_filler {
      type: "constant"
    }
  }
}
layer {
  name: "accuracy"
  type: "Accuracy"
  bottom: "ip3"
  bottom: "label"
  top: "accuracy"
  include {
    phase: TEST
  }
}
layer {
  name: "loss"
  type: "SoftmaxWithLoss"
  bottom: "ip3"
  bottom: "label"
  top: "loss"
}
I0501 02:46:19.252915 17182 layer_factory.hpp:77] Creating layer cifar
I0501 02:46:19.252965 17182 db_lmdb.cpp:35] Opened lmdb examples/cifar10/cifar10_test_lmdb
I0501 02:46:19.252980 17182 net.cpp:86] Creating Layer cifar
I0501 02:46:19.252987 17182 net.cpp:382] cifar -> data
I0501 02:46:19.252995 17182 net.cpp:382] cifar -> label
I0501 02:46:19.253002 17182 data_transformer.cpp:25] Loading mean file from: examples/cifar10/mean.binaryproto
I0501 02:46:19.253167 17182 data_layer.cpp:45] output data size: 1000,3,32,32
I0501 02:46:19.274907 17182 net.cpp:124] Setting up cifar
I0501 02:46:19.274948 17182 net.cpp:131] Top shape: 1000 3 32 32 (3072000)
I0501 02:46:19.274953 17182 net.cpp:131] Top shape: 1000 (1000)
I0501 02:46:19.274957 17182 net.cpp:139] Memory required for data: 12292000
I0501 02:46:19.274963 17182 layer_factory.hpp:77] Creating layer label_cifar_1_split
I0501 02:46:19.274976 17182 net.cpp:86] Creating Layer label_cifar_1_split
I0501 02:46:19.274994 17182 net.cpp:408] label_cifar_1_split <- label
I0501 02:46:19.275002 17182 net.cpp:382] label_cifar_1_split -> label_cifar_1_split_0
I0501 02:46:19.275029 17182 net.cpp:382] label_cifar_1_split -> label_cifar_1_split_1
I0501 02:46:19.275099 17182 net.cpp:124] Setting up label_cifar_1_split
I0501 02:46:19.275106 17182 net.cpp:131] Top shape: 1000 (1000)
I0501 02:46:19.275110 17182 net.cpp:131] Top shape: 1000 (1000)
I0501 02:46:19.275113 17182 net.cpp:139] Memory required for data: 12300000
I0501 02:46:19.275116 17182 layer_factory.hpp:77] Creating layer conv0
I0501 02:46:19.275131 17182 net.cpp:86] Creating Layer conv0
I0501 02:46:19.275135 17182 net.cpp:408] conv0 <- data
I0501 02:46:19.275141 17182 net.cpp:382] conv0 -> conv0
I0501 02:46:19.276939 17182 net.cpp:124] Setting up conv0
I0501 02:46:19.276953 17182 net.cpp:131] Top shape: 1000 8 32 32 (8192000)
I0501 02:46:19.276973 17182 net.cpp:139] Memory required for data: 45068000
I0501 02:46:19.276984 17182 layer_factory.hpp:77] Creating layer Sigmoid0
I0501 02:46:19.276996 17182 net.cpp:86] Creating Layer Sigmoid0
I0501 02:46:19.276999 17182 net.cpp:408] Sigmoid0 <- conv0
I0501 02:46:19.277004 17182 net.cpp:382] Sigmoid0 -> Sigmoid0
I0501 02:46:19.277967 17182 net.cpp:124] Setting up Sigmoid0
I0501 02:46:19.277994 17182 net.cpp:131] Top shape: 1000 8 32 32 (8192000)
I0501 02:46:19.277997 17182 net.cpp:139] Memory required for data: 77836000
I0501 02:46:19.278002 17182 layer_factory.hpp:77] Creating layer pool0
I0501 02:46:19.278009 17182 net.cpp:86] Creating Layer pool0
I0501 02:46:19.278012 17182 net.cpp:408] pool0 <- Sigmoid0
I0501 02:46:19.278018 17182 net.cpp:382] pool0 -> pool0
I0501 02:46:19.279184 17182 net.cpp:124] Setting up pool0
I0501 02:46:19.279194 17182 net.cpp:131] Top shape: 1000 8 16 16 (2048000)
I0501 02:46:19.279212 17182 net.cpp:139] Memory required for data: 86028000
I0501 02:46:19.279216 17182 layer_factory.hpp:77] Creating layer ip1
I0501 02:46:19.279224 17182 net.cpp:86] Creating Layer ip1
I0501 02:46:19.279227 17182 net.cpp:408] ip1 <- pool0
I0501 02:46:19.279232 17182 net.cpp:382] ip1 -> ip1
I0501 02:46:19.283869 17182 net.cpp:124] Setting up ip1
I0501 02:46:19.283876 17182 net.cpp:131] Top shape: 1000 80 (80000)
I0501 02:46:19.283895 17182 net.cpp:139] Memory required for data: 86348000
I0501 02:46:19.283902 17182 layer_factory.hpp:77] Creating layer relu1
I0501 02:46:19.283908 17182 net.cpp:86] Creating Layer relu1
I0501 02:46:19.283912 17182 net.cpp:408] relu1 <- ip1
I0501 02:46:19.283917 17182 net.cpp:369] relu1 -> ip1 (in-place)
I0501 02:46:19.284104 17182 net.cpp:124] Setting up relu1
I0501 02:46:19.284114 17182 net.cpp:131] Top shape: 1000 80 (80000)
I0501 02:46:19.284117 17182 net.cpp:139] Memory required for data: 86668000
I0501 02:46:19.284121 17182 layer_factory.hpp:77] Creating layer ip2
I0501 02:46:19.284127 17182 net.cpp:86] Creating Layer ip2
I0501 02:46:19.284131 17182 net.cpp:408] ip2 <- ip1
I0501 02:46:19.284139 17182 net.cpp:382] ip2 -> ip2
I0501 02:46:19.284374 17182 net.cpp:124] Setting up ip2
I0501 02:46:19.284381 17182 net.cpp:131] Top shape: 1000 40 (40000)
I0501 02:46:19.284385 17182 net.cpp:139] Memory required for data: 86828000
I0501 02:46:19.284394 17182 layer_factory.hpp:77] Creating layer relu2
I0501 02:46:19.284404 17182 net.cpp:86] Creating Layer relu2
I0501 02:46:19.284407 17182 net.cpp:408] relu2 <- ip2
I0501 02:46:19.284412 17182 net.cpp:369] relu2 -> ip2 (in-place)
I0501 02:46:19.284613 17182 net.cpp:124] Setting up relu2
I0501 02:46:19.284621 17182 net.cpp:131] Top shape: 1000 40 (40000)
I0501 02:46:19.284624 17182 net.cpp:139] Memory required for data: 86988000
I0501 02:46:19.284627 17182 layer_factory.hpp:77] Creating layer ip3
I0501 02:46:19.284636 17182 net.cpp:86] Creating Layer ip3
I0501 02:46:19.284638 17182 net.cpp:408] ip3 <- ip2
I0501 02:46:19.284643 17182 net.cpp:382] ip3 -> ip3
I0501 02:46:19.284807 17182 net.cpp:124] Setting up ip3
I0501 02:46:19.284821 17182 net.cpp:131] Top shape: 1000 10 (10000)
I0501 02:46:19.284824 17182 net.cpp:139] Memory required for data: 87028000
I0501 02:46:19.284842 17182 layer_factory.hpp:77] Creating layer ip3_ip3_0_split
I0501 02:46:19.284848 17182 net.cpp:86] Creating Layer ip3_ip3_0_split
I0501 02:46:19.284852 17182 net.cpp:408] ip3_ip3_0_split <- ip3
I0501 02:46:19.284858 17182 net.cpp:382] ip3_ip3_0_split -> ip3_ip3_0_split_0
I0501 02:46:19.284864 17182 net.cpp:382] ip3_ip3_0_split -> ip3_ip3_0_split_1
I0501 02:46:19.284900 17182 net.cpp:124] Setting up ip3_ip3_0_split
I0501 02:46:19.284907 17182 net.cpp:131] Top shape: 1000 10 (10000)
I0501 02:46:19.284911 17182 net.cpp:131] Top shape: 1000 10 (10000)
I0501 02:46:19.284914 17182 net.cpp:139] Memory required for data: 87108000
I0501 02:46:19.284917 17182 layer_factory.hpp:77] Creating layer accuracy
I0501 02:46:19.284929 17182 net.cpp:86] Creating Layer accuracy
I0501 02:46:19.284940 17182 net.cpp:408] accuracy <- ip3_ip3_0_split_0
I0501 02:46:19.284945 17182 net.cpp:408] accuracy <- label_cifar_1_split_0
I0501 02:46:19.284948 17182 net.cpp:382] accuracy -> accuracy
…
