…
I0430 18:11:01.257071 22434 net.cpp:296] The NetState phase (0) differed from the phase (1) specified by a rule in layer cifar
I0430 18:11:01.257100 22434 net.cpp:296] The NetState phase (0) differed from the phase (1) specified by a rule in layer accuracy
I0430 18:11:01.257236 22434 net.cpp:53] Initializing net from parameters: 
name: "CIFAR"
state {
  phase: TRAIN
  level: 0
  stage: ""
}
layer {
  name: "cifar"
  type: "Data"
  top: "data"
  top: "label"
  include {
    phase: TRAIN
  }
  transform_param {
    mean_file: "examples/cifar10/mean.binaryproto"
  }
  data_param {
    source: "examples/cifar10/cifar10_train_lmdb"
    batch_size: 111
    backend: LMDB
  }
}
layer {
  name: "ip1"
  type: "InnerProduct"
  bottom: "data"
  top: "ip1"
  param {
    lr_mult: 1
  }
  param {
    lr_mult: 2
  }
  inner_product_param {
    num_output: 20
    weight_filler {
      type: "gaussian"
      std: 0.01
    }
    bias_filler {
      type: "constant"
    }
  }
}
layer {
  name: "relu1"
  type: "ReLU"
  bottom: "ip1"
  top: "ip1"
}
layer {
  name: "ip2"
  type: "InnerProduct"
  bottom: "ip1"
  top: "ip2"
  param {
    lr_mult: 1
  }
  param {
    lr_mult: 2
  }
  inner_product_param {
    num_output: 10
    weight_filler {
      type: "gaussian"
      std: 0.01
    }
    bias_filler {
      type: "constant"
    }
  }
}
layer {
  name: "relu2"
  type: "ReLU"
  bottom: "ip2"
  top: "ip2"
}
layer {
  name: "ip3"
  type: "InnerProduct"
  bottom: "ip2"
  top: "ip3"
  param {
    lr_mult: 1
  }
  param {
    lr_mult: 2
  }
  inner_product_param {
    num_output: 80
    weight_filler {
      type: "gaussian"
      std: 0.01
    }
    bias_filler {
      type: "constant"
    }
  }
}
layer {
  name: "relu3"
  type: "ReLU"
  bottom: "ip3"
  top: "ip3"
}
layer {
  name: "ip4"
  type: "InnerProduct"
  bottom: "ip3"
  top: "ip4"
  param {
    lr_mult: 1
  }
  param {
    lr_mult: 2
  }
  inner_product_param {
    num_output: 10
    weight_filler {
      type: "gaussian"
      std: 0.01
    }
    bias_filler {
      type: "constant"
    }
  }
}
layer {
  name: "loss"
  type: "SoftmaxWithLoss"
  bottom: "ip4"
  bottom: "label"
  top: "loss"
}
I0430 18:11:01.257294 22434 layer_factory.hpp:77] Creating layer cifar
I0430 18:11:01.257386 22434 db_lmdb.cpp:35] Opened lmdb examples/cifar10/cifar10_train_lmdb
I0430 18:11:01.257406 22434 net.cpp:86] Creating Layer cifar
I0430 18:11:01.257413 22434 net.cpp:382] cifar -> data
I0430 18:11:01.257431 22434 net.cpp:382] cifar -> label
I0430 18:11:01.257441 22434 data_transformer.cpp:25] Loading mean file from: examples/cifar10/mean.binaryproto
I0430 18:11:01.259130 22434 data_layer.cpp:45] output data size: 111,3,32,32
I0430 18:11:01.265693 22434 net.cpp:124] Setting up cifar
I0430 18:11:01.265738 22434 net.cpp:131] Top shape: 111 3 32 32 (340992)
I0430 18:11:01.265758 22434 net.cpp:131] Top shape: 111 (111)
I0430 18:11:01.265760 22434 net.cpp:139] Memory required for data: 1364412
I0430 18:11:01.265766 22434 layer_factory.hpp:77] Creating layer ip1
I0430 18:11:01.265792 22434 net.cpp:86] Creating Layer ip1
I0430 18:11:01.265797 22434 net.cpp:408] ip1 <- data
I0430 18:11:01.265806 22434 net.cpp:382] ip1 -> ip1
I0430 18:11:01.268334 22434 net.cpp:124] Setting up ip1
I0430 18:11:01.268347 22434 net.cpp:131] Top shape: 111 20 (2220)
I0430 18:11:01.268350 22434 net.cpp:139] Memory required for data: 1373292
I0430 18:11:01.268360 22434 layer_factory.hpp:77] Creating layer relu1
I0430 18:11:01.268384 22434 net.cpp:86] Creating Layer relu1
I0430 18:11:01.268400 22434 net.cpp:408] relu1 <- ip1
I0430 18:11:01.268405 22434 net.cpp:369] relu1 -> ip1 (in-place)
I0430 18:11:01.494323 22434 net.cpp:124] Setting up relu1
I0430 18:11:01.494350 22434 net.cpp:131] Top shape: 111 20 (2220)
I0430 18:11:01.494354 22434 net.cpp:139] Memory required for data: 1382172
I0430 18:11:01.494359 22434 layer_factory.hpp:77] Creating layer ip2
I0430 18:11:01.494371 22434 net.cpp:86] Creating Layer ip2
I0430 18:11:01.494375 22434 net.cpp:408] ip2 <- ip1
I0430 18:11:01.494382 22434 net.cpp:382] ip2 -> ip2
I0430 18:11:01.494514 22434 net.cpp:124] Setting up ip2
I0430 18:11:01.494521 22434 net.cpp:131] Top shape: 111 10 (1110)
I0430 18:11:01.494524 22434 net.cpp:139] Memory required for data: 1386612
I0430 18:11:01.494534 22434 layer_factory.hpp:77] Creating layer relu2
I0430 18:11:01.494539 22434 net.cpp:86] Creating Layer relu2
I0430 18:11:01.494542 22434 net.cpp:408] relu2 <- ip2
I0430 18:11:01.494546 22434 net.cpp:369] relu2 -> ip2 (in-place)
I0430 18:11:01.495393 22434 net.cpp:124] Setting up relu2
I0430 18:11:01.495404 22434 net.cpp:131] Top shape: 111 10 (1110)
I0430 18:11:01.495406 22434 net.cpp:139] Memory required for data: 1391052
I0430 18:11:01.495409 22434 layer_factory.hpp:77] Creating layer ip3
I0430 18:11:01.495415 22434 net.cpp:86] Creating Layer ip3
I0430 18:11:01.495419 22434 net.cpp:408] ip3 <- ip2
I0430 18:11:01.495424 22434 net.cpp:382] ip3 -> ip3
I0430 18:11:01.496368 22434 net.cpp:124] Setting up ip3
I0430 18:11:01.496379 22434 net.cpp:131] Top shape: 111 80 (8880)
I0430 18:11:01.496398 22434 net.cpp:139] Memory required for data: 1426572
I0430 18:11:01.496407 22434 layer_factory.hpp:77] Creating layer relu3
I0430 18:11:01.496412 22434 net.cpp:86] Creating Layer relu3
I0430 18:11:01.496414 22434 net.cpp:408] relu3 <- ip3
I0430 18:11:01.496418 22434 net.cpp:369] relu3 -> ip3 (in-place)
I0430 18:11:01.496582 22434 net.cpp:124] Setting up relu3
I0430 18:11:01.496589 22434 net.cpp:131] Top shape: 111 80 (8880)
I0430 18:11:01.496592 22434 net.cpp:139] Memory required for data: 1462092
I0430 18:11:01.496595 22434 layer_factory.hpp:77] Creating layer ip4
I0430 18:11:01.496601 22434 net.cpp:86] Creating Layer ip4
I0430 18:11:01.496619 22434 net.cpp:408] ip4 <- ip3
I0430 18:11:01.496624 22434 net.cpp:382] ip4 -> ip4
I0430 18:11:01.496727 22434 net.cpp:124] Setting up ip4
I0430 18:11:01.496733 22434 net.cpp:131] Top shape: 111 10 (1110)
I0430 18:11:01.496737 22434 net.cpp:139] Memory required for data: 1466532
I0430 18:11:01.496742 22434 layer_factory.hpp:77] Creating layer loss
I0430 18:11:01.496748 22434 net.cpp:86] Creating Layer loss
I0430 18:11:01.496752 22434 net.cpp:408] loss <- ip4
I0430 18:11:01.496754 22434 net.cpp:408] loss <- label
I0430 18:11:01.496759 22434 net.cpp:382] loss -> loss
I0430 18:11:01.496774 22434 layer_factory.hpp:77] Creating layer loss
…
I0430 18:11:01.497342 22434 solver.cpp:173] Creating test net (#0) specified by net file: ECE595/cifar/train_test/var_everything/cifar_train_test_58.prototxt
I0430 18:11:01.497408 22434 net.cpp:296] The NetState phase (1) differed from the phase (0) specified by a rule in layer cifar
I0430 18:11:01.497479 22434 net.cpp:53] Initializing net from parameters: 
name: "CIFAR"
state {
  phase: TEST
}
layer {
  name: "cifar"
  type: "Data"
  top: "data"
  top: "label"
  include {
    phase: TEST
  }
  transform_param {
    mean_file: "examples/cifar10/mean.binaryproto"
  }
  data_param {
    source: "examples/cifar10/cifar10_test_lmdb"
    batch_size: 1000
    backend: LMDB
  }
}
layer {
  name: "ip1"
  type: "InnerProduct"
  bottom: "data"
  top: "ip1"
  param {
    lr_mult: 1
  }
  param {
    lr_mult: 2
  }
  inner_product_param {
    num_output: 20
    weight_filler {
      type: "gaussian"
      std: 0.01
    }
    bias_filler {
      type: "constant"
    }
  }
}
layer {
  name: "relu1"
  type: "ReLU"
  bottom: "ip1"
  top: "ip1"
}
layer {
  name: "ip2"
  type: "InnerProduct"
  bottom: "ip1"
  top: "ip2"
  param {
    lr_mult: 1
  }
  param {
    lr_mult: 2
  }
  inner_product_param {
    num_output: 10
    weight_filler {
      type: "gaussian"
      std: 0.01
    }
    bias_filler {
      type: "constant"
    }
  }
}
layer {
  name: "relu2"
  type: "ReLU"
  bottom: "ip2"
  top: "ip2"
}
layer {
  name: "ip3"
  type: "InnerProduct"
  bottom: "ip2"
  top: "ip3"
  param {
    lr_mult: 1
  }
  param {
    lr_mult: 2
  }
  inner_product_param {
    num_output: 80
    weight_filler {
      type: "gaussian"
      std: 0.01
    }
    bias_filler {
      type: "constant"
    }
  }
}
layer {
  name: "relu3"
  type: "ReLU"
  bottom: "ip3"
  top: "ip3"
}
layer {
  name: "ip4"
  type: "InnerProduct"
  bottom: "ip3"
  top: "ip4"
  param {
    lr_mult: 1
  }
  param {
    lr_mult: 2
  }
  inner_product_param {
    num_output: 10
    weight_filler {
      type: "gaussian"
      std: 0.01
    }
    bias_filler {
      type: "constant"
    }
  }
}
layer {
  name: "accuracy"
  type: "Accuracy"
  bottom: "ip4"
  bottom: "label"
  top: "accuracy"
  include {
    phase: TEST
  }
}
layer {
  name: "loss"
  type: "SoftmaxWithLoss"
  bottom: "ip4"
  bottom: "label"
  top: "loss"
}
I0430 18:11:01.497534 22434 layer_factory.hpp:77] Creating layer cifar
I0430 18:11:01.497578 22434 db_lmdb.cpp:35] Opened lmdb examples/cifar10/cifar10_test_lmdb
I0430 18:11:01.497591 22434 net.cpp:86] Creating Layer cifar
I0430 18:11:01.497594 22434 net.cpp:382] cifar -> data
I0430 18:11:01.497601 22434 net.cpp:382] cifar -> label
I0430 18:11:01.497607 22434 data_transformer.cpp:25] Loading mean file from: examples/cifar10/mean.binaryproto
I0430 18:11:01.497740 22434 data_layer.cpp:45] output data size: 1000,3,32,32
I0430 18:11:01.518656 22434 net.cpp:124] Setting up cifar
I0430 18:11:01.518697 22434 net.cpp:131] Top shape: 1000 3 32 32 (3072000)
I0430 18:11:01.518703 22434 net.cpp:131] Top shape: 1000 (1000)
I0430 18:11:01.518707 22434 net.cpp:139] Memory required for data: 12292000
I0430 18:11:01.518712 22434 layer_factory.hpp:77] Creating layer label_cifar_1_split
I0430 18:11:01.518728 22434 net.cpp:86] Creating Layer label_cifar_1_split
I0430 18:11:01.518731 22434 net.cpp:408] label_cifar_1_split <- label
I0430 18:11:01.518738 22434 net.cpp:382] label_cifar_1_split -> label_cifar_1_split_0
I0430 18:11:01.518745 22434 net.cpp:382] label_cifar_1_split -> label_cifar_1_split_1
I0430 18:11:01.518829 22434 net.cpp:124] Setting up label_cifar_1_split
I0430 18:11:01.518837 22434 net.cpp:131] Top shape: 1000 (1000)
I0430 18:11:01.518841 22434 net.cpp:131] Top shape: 1000 (1000)
I0430 18:11:01.518843 22434 net.cpp:139] Memory required for data: 12300000
I0430 18:11:01.518847 22434 layer_factory.hpp:77] Creating layer ip1
I0430 18:11:01.518856 22434 net.cpp:86] Creating Layer ip1
I0430 18:11:01.518862 22434 net.cpp:408] ip1 <- data
I0430 18:11:01.518882 22434 net.cpp:382] ip1 -> ip1
I0430 18:11:01.520998 22434 net.cpp:124] Setting up ip1
I0430 18:11:01.521008 22434 net.cpp:131] Top shape: 1000 20 (20000)
I0430 18:11:01.521011 22434 net.cpp:139] Memory required for data: 12380000
I0430 18:11:01.521062 22434 layer_factory.hpp:77] Creating layer relu1
I0430 18:11:01.521070 22434 net.cpp:86] Creating Layer relu1
I0430 18:11:01.521073 22434 net.cpp:408] relu1 <- ip1
I0430 18:11:01.521078 22434 net.cpp:369] relu1 -> ip1 (in-place)
I0430 18:11:01.521913 22434 net.cpp:124] Setting up relu1
I0430 18:11:01.521924 22434 net.cpp:131] Top shape: 1000 20 (20000)
I0430 18:11:01.521942 22434 net.cpp:139] Memory required for data: 12460000
I0430 18:11:01.521946 22434 layer_factory.hpp:77] Creating layer ip2
I0430 18:11:01.521955 22434 net.cpp:86] Creating Layer ip2
I0430 18:11:01.521957 22434 net.cpp:408] ip2 <- ip1
I0430 18:11:01.521962 22434 net.cpp:382] ip2 -> ip2
I0430 18:11:01.522085 22434 net.cpp:124] Setting up ip2
I0430 18:11:01.522092 22434 net.cpp:131] Top shape: 1000 10 (10000)
I0430 18:11:01.522095 22434 net.cpp:139] Memory required for data: 12500000
I0430 18:11:01.522102 22434 layer_factory.hpp:77] Creating layer relu2
I0430 18:11:01.522107 22434 net.cpp:86] Creating Layer relu2
I0430 18:11:01.522110 22434 net.cpp:408] relu2 <- ip2
I0430 18:11:01.522115 22434 net.cpp:369] relu2 -> ip2 (in-place)
I0430 18:11:01.522260 22434 net.cpp:124] Setting up relu2
I0430 18:11:01.522269 22434 net.cpp:131] Top shape: 1000 10 (10000)
I0430 18:11:01.522272 22434 net.cpp:139] Memory required for data: 12540000
I0430 18:11:01.522275 22434 layer_factory.hpp:77] Creating layer ip3
I0430 18:11:01.522281 22434 net.cpp:86] Creating Layer ip3
I0430 18:11:01.522284 22434 net.cpp:408] ip3 <- ip2
I0430 18:11:01.522289 22434 net.cpp:382] ip3 -> ip3
I0430 18:11:01.522413 22434 net.cpp:124] Setting up ip3
I0430 18:11:01.522419 22434 net.cpp:131] Top shape: 1000 80 (80000)
I0430 18:11:01.522423 22434 net.cpp:139] Memory required for data: 12860000
I0430 18:11:01.522429 22434 layer_factory.hpp:77] Creating layer relu3
I0430 18:11:01.522434 22434 net.cpp:86] Creating Layer relu3
I0430 18:11:01.522438 22434 net.cpp:408] relu3 <- ip3
I0430 18:11:01.522441 22434 net.cpp:369] relu3 -> ip3 (in-place)
I0430 18:11:01.522583 22434 net.cpp:124] Setting up relu3
I0430 18:11:01.522590 22434 net.cpp:131] Top shape: 1000 80 (80000)
I0430 18:11:01.522593 22434 net.cpp:139] Memory required for data: 13180000
I0430 18:11:01.522596 22434 layer_factory.hpp:77] Creating layer ip4
I0430 18:11:01.522603 22434 net.cpp:86] Creating Layer ip4
I0430 18:11:01.522608 22434 net.cpp:408] ip4 <- ip3
I0430 18:11:01.522611 22434 net.cpp:382] ip4 -> ip4
I0430 18:11:01.522725 22434 net.cpp:124] Setting up ip4
I0430 18:11:01.522732 22434 net.cpp:131] Top shape: 1000 10 (10000)
I0430 18:11:01.522734 22434 net.cpp:139] Memory required for data: 13220000
I0430 18:11:01.522739 22434 layer_factory.hpp:77] Creating layer ip4_ip4_0_split
I0430 18:11:01.522745 22434 net.cpp:86] Creating Layer ip4_ip4_0_split
I0430 18:11:01.522748 22434 net.cpp:408] ip4_ip4_0_split <- ip4
I0430 18:11:01.522753 22434 net.cpp:382] ip4_ip4_0_split -> ip4_ip4_0_split_0
I0430 18:11:01.522758 22434 net.cpp:382] ip4_ip4_0_split -> ip4_ip4_0_split_1
I0430 18:11:01.522786 22434 net.cpp:124] Setting up ip4_ip4_0_split
I0430 18:11:01.522794 22434 net.cpp:131] Top shape: 1000 10 (10000)
I0430 18:11:01.522797 22434 net.cpp:131] Top shape: 1000 10 (10000)
I0430 18:11:01.522799 22434 net.cpp:139] Memory required for data: 13300000
I0430 18:11:01.522802 22434 layer_factory.hpp:77] Creating layer accuracy
I0430 18:11:01.522809 22434 net.cpp:86] Creating Layer accuracy
I0430 18:11:01.522810 22434 net.cpp:408] accuracy <- ip4_ip4_0_split_0
I0430 18:11:01.522814 22434 net.cpp:408] accuracy <- label_cifar_1_split_0
I0430 18:11:01.522819 22434 net.cpp:382] accuracy -> accuracy
…
