…
I0501 01:12:35.955166  9609 net.cpp:296] The NetState phase (0) differed from the phase (1) specified by a rule in layer cifar
I0501 01:12:35.955189  9609 net.cpp:296] The NetState phase (0) differed from the phase (1) specified by a rule in layer accuracy
I0501 01:12:35.955298  9609 net.cpp:53] Initializing net from parameters: 
name: "CIFAR"
state {
  phase: TRAIN
  level: 0
  stage: ""
}
layer {
  name: "cifar"
  type: "Data"
  top: "data"
  top: "label"
  include {
    phase: TRAIN
  }
  transform_param {
    mean_file: "examples/cifar10/mean.binaryproto"
  }
  data_param {
    source: "examples/cifar10/cifar10_train_lmdb"
    batch_size: 111
    backend: LMDB
  }
}
layer {
  name: "conv0"
  type: "Convolution"
  bottom: "data"
  top: "conv0"
  param {
    lr_mult: 1
  }
  param {
    lr_mult: 2
  }
  convolution_param {
    num_output: 8
    pad: 2
    kernel_size: 3
    stride: 1
    weight_filler {
      type: "gaussian"
      std: 0.01
    }
    bias_filler {
      type: "constant"
    }
  }
}
layer {
  name: "Sigmoid0"
  type: "Sigmoid"
  bottom: "conv0"
  top: "Sigmoid0"
}
layer {
  name: "pool0"
  type: "Pooling"
  bottom: "Sigmoid0"
  top: "pool0"
  pooling_param {
    pool: AVE
    kernel_size: 3
    stride: 2
  }
}
layer {
  name: "ip1"
  type: "InnerProduct"
  bottom: "pool0"
  top: "ip1"
  param {
    lr_mult: 1
  }
  param {
    lr_mult: 2
  }
  inner_product_param {
    num_output: 80
    weight_filler {
      type: "gaussian"
      std: 0.01
    }
    bias_filler {
      type: "constant"
    }
  }
}
layer {
  name: "relu1"
  type: "ReLU"
  bottom: "ip1"
  top: "ip1"
}
layer {
  name: "ip2"
  type: "InnerProduct"
  bottom: "ip1"
  top: "ip2"
  param {
    lr_mult: 1
  }
  param {
    lr_mult: 2
  }
  inner_product_param {
    num_output: 160
    weight_filler {
      type: "gaussian"
      std: 0.01
    }
    bias_filler {
      type: "constant"
    }
  }
}
layer {
  name: "relu2"
  type: "ReLU"
  bottom: "ip2"
  top: "ip2"
}
layer {
  name: "ip3"
  type: "InnerProduct"
  bottom: "ip2"
  top: "ip3"
  param {
    lr_mult: 1
  }
  param {
    lr_mult: 2
  }
  inner_product_param {
    num_output: 40
    weight_filler {
      type: "gaussian"
      std: 0.01
    }
    bias_filler {
      type: "constant"
    }
  }
}
layer {
  name: "relu3"
  type: "ReLU"
  bottom: "ip3"
  top: "ip3"
}
layer {
  name: "ip4"
  type: "InnerProduct"
  bottom: "ip3"
  top: "ip4"
  param {
    lr_mult: 1
  }
  param {
    lr_mult: 2
  }
  inner_product_param {
    num_output: 10
    weight_filler {
      type: "gaussian"
      std: 0.01
    }
    bias_filler {
      type: "constant"
    }
  }
}
layer {
  name: "loss"
  type: "SoftmaxWithLoss"
  bottom: "ip4"
  bottom: "label"
  top: "loss"
}
I0501 01:12:35.955375  9609 layer_factory.hpp:77] Creating layer cifar
I0501 01:12:35.955474  9609 db_lmdb.cpp:35] Opened lmdb examples/cifar10/cifar10_train_lmdb
I0501 01:12:35.955502  9609 net.cpp:86] Creating Layer cifar
I0501 01:12:35.955513  9609 net.cpp:382] cifar -> data
I0501 01:12:35.955535  9609 net.cpp:382] cifar -> label
I0501 01:12:35.955549  9609 data_transformer.cpp:25] Loading mean file from: examples/cifar10/mean.binaryproto
I0501 01:12:35.957691  9609 data_layer.cpp:45] output data size: 111,3,32,32
I0501 01:12:35.965788  9609 net.cpp:124] Setting up cifar
I0501 01:12:35.965808  9609 net.cpp:131] Top shape: 111 3 32 32 (340992)
I0501 01:12:35.965814  9609 net.cpp:131] Top shape: 111 (111)
I0501 01:12:35.965817  9609 net.cpp:139] Memory required for data: 1364412
I0501 01:12:35.965842  9609 layer_factory.hpp:77] Creating layer conv0
I0501 01:12:35.965862  9609 net.cpp:86] Creating Layer conv0
I0501 01:12:35.965867  9609 net.cpp:408] conv0 <- data
I0501 01:12:35.965881  9609 net.cpp:382] conv0 -> conv0
I0501 01:12:36.256506  9609 net.cpp:124] Setting up conv0
I0501 01:12:36.256538  9609 net.cpp:131] Top shape: 111 8 34 34 (1026528)
I0501 01:12:36.256544  9609 net.cpp:139] Memory required for data: 5470524
I0501 01:12:36.256561  9609 layer_factory.hpp:77] Creating layer Sigmoid0
I0501 01:12:36.256575  9609 net.cpp:86] Creating Layer Sigmoid0
I0501 01:12:36.256579  9609 net.cpp:408] Sigmoid0 <- conv0
I0501 01:12:36.256587  9609 net.cpp:382] Sigmoid0 -> Sigmoid0
I0501 01:12:36.256803  9609 net.cpp:124] Setting up Sigmoid0
I0501 01:12:36.256822  9609 net.cpp:131] Top shape: 111 8 34 34 (1026528)
I0501 01:12:36.256830  9609 net.cpp:139] Memory required for data: 9576636
I0501 01:12:36.256834  9609 layer_factory.hpp:77] Creating layer pool0
I0501 01:12:36.256844  9609 net.cpp:86] Creating Layer pool0
I0501 01:12:36.256846  9609 net.cpp:408] pool0 <- Sigmoid0
I0501 01:12:36.256852  9609 net.cpp:382] pool0 -> pool0
I0501 01:12:36.257750  9609 net.cpp:124] Setting up pool0
I0501 01:12:36.257766  9609 net.cpp:131] Top shape: 111 8 17 17 (256632)
I0501 01:12:36.257769  9609 net.cpp:139] Memory required for data: 10603164
I0501 01:12:36.257774  9609 layer_factory.hpp:77] Creating layer ip1
I0501 01:12:36.257786  9609 net.cpp:86] Creating Layer ip1
I0501 01:12:36.257791  9609 net.cpp:408] ip1 <- pool0
I0501 01:12:36.257797  9609 net.cpp:382] ip1 -> ip1
I0501 01:12:36.265229  9609 net.cpp:124] Setting up ip1
I0501 01:12:36.265244  9609 net.cpp:131] Top shape: 111 80 (8880)
I0501 01:12:36.265249  9609 net.cpp:139] Memory required for data: 10638684
I0501 01:12:36.265259  9609 layer_factory.hpp:77] Creating layer relu1
I0501 01:12:36.265269  9609 net.cpp:86] Creating Layer relu1
I0501 01:12:36.265274  9609 net.cpp:408] relu1 <- ip1
I0501 01:12:36.265280  9609 net.cpp:369] relu1 -> ip1 (in-place)
I0501 01:12:36.265477  9609 net.cpp:124] Setting up relu1
I0501 01:12:36.265488  9609 net.cpp:131] Top shape: 111 80 (8880)
I0501 01:12:36.265491  9609 net.cpp:139] Memory required for data: 10674204
I0501 01:12:36.265496  9609 layer_factory.hpp:77] Creating layer ip2
I0501 01:12:36.265504  9609 net.cpp:86] Creating Layer ip2
I0501 01:12:36.265511  9609 net.cpp:408] ip2 <- ip1
I0501 01:12:36.265517  9609 net.cpp:382] ip2 -> ip2
I0501 01:12:36.267055  9609 net.cpp:124] Setting up ip2
I0501 01:12:36.267071  9609 net.cpp:131] Top shape: 111 160 (17760)
I0501 01:12:36.267073  9609 net.cpp:139] Memory required for data: 10745244
I0501 01:12:36.267083  9609 layer_factory.hpp:77] Creating layer relu2
I0501 01:12:36.267091  9609 net.cpp:86] Creating Layer relu2
I0501 01:12:36.267096  9609 net.cpp:408] relu2 <- ip2
I0501 01:12:36.267102  9609 net.cpp:369] relu2 -> ip2 (in-place)
I0501 01:12:36.267314  9609 net.cpp:124] Setting up relu2
I0501 01:12:36.267325  9609 net.cpp:131] Top shape: 111 160 (17760)
I0501 01:12:36.267329  9609 net.cpp:139] Memory required for data: 10816284
I0501 01:12:36.267333  9609 layer_factory.hpp:77] Creating layer ip3
I0501 01:12:36.267341  9609 net.cpp:86] Creating Layer ip3
I0501 01:12:36.267349  9609 net.cpp:408] ip3 <- ip2
I0501 01:12:36.267355  9609 net.cpp:382] ip3 -> ip3
I0501 01:12:36.267690  9609 net.cpp:124] Setting up ip3
I0501 01:12:36.267698  9609 net.cpp:131] Top shape: 111 40 (4440)
I0501 01:12:36.267701  9609 net.cpp:139] Memory required for data: 10834044
I0501 01:12:36.267707  9609 layer_factory.hpp:77] Creating layer relu3
I0501 01:12:36.267714  9609 net.cpp:86] Creating Layer relu3
I0501 01:12:36.267719  9609 net.cpp:408] relu3 <- ip3
I0501 01:12:36.267722  9609 net.cpp:369] relu3 -> ip3 (in-place)
I0501 01:12:36.267918  9609 net.cpp:124] Setting up relu3
I0501 01:12:36.267927  9609 net.cpp:131] Top shape: 111 40 (4440)
I0501 01:12:36.267931  9609 net.cpp:139] Memory required for data: 10851804
I0501 01:12:36.267935  9609 layer_factory.hpp:77] Creating layer ip4
I0501 01:12:36.267959  9609 net.cpp:86] Creating Layer ip4
I0501 01:12:36.267967  9609 net.cpp:408] ip4 <- ip3
I0501 01:12:36.267974  9609 net.cpp:382] ip4 -> ip4
I0501 01:12:36.269098  9609 net.cpp:124] Setting up ip4
I0501 01:12:36.269114  9609 net.cpp:131] Top shape: 111 10 (1110)
I0501 01:12:36.269117  9609 net.cpp:139] Memory required for data: 10856244
I0501 01:12:36.269129  9609 layer_factory.hpp:77] Creating layer loss
I0501 01:12:36.269137  9609 net.cpp:86] Creating Layer loss
I0501 01:12:36.269141  9609 net.cpp:408] loss <- ip4
I0501 01:12:36.269146  9609 net.cpp:408] loss <- label
I0501 01:12:36.269155  9609 net.cpp:382] loss -> loss
I0501 01:12:36.269176  9609 layer_factory.hpp:77] Creating layer loss
…
I0501 01:12:36.270629  9609 solver.cpp:173] Creating test net (#0) specified by net file: ECE595/cifar/train_test/var_everything/cifar_train_test_282.prototxt
I0501 01:12:36.270663  9609 net.cpp:296] The NetState phase (1) differed from the phase (0) specified by a rule in layer cifar
I0501 01:12:36.270779  9609 net.cpp:53] Initializing net from parameters: 
name: "CIFAR"
state {
  phase: TEST
}
layer {
  name: "cifar"
  type: "Data"
  top: "data"
  top: "label"
  include {
    phase: TEST
  }
  transform_param {
    mean_file: "examples/cifar10/mean.binaryproto"
  }
  data_param {
    source: "examples/cifar10/cifar10_test_lmdb"
    batch_size: 1000
    backend: LMDB
  }
}
layer {
  name: "conv0"
  type: "Convolution"
  bottom: "data"
  top: "conv0"
  param {
    lr_mult: 1
  }
  param {
    lr_mult: 2
  }
  convolution_param {
    num_output: 8
    pad: 2
    kernel_size: 3
    stride: 1
    weight_filler {
      type: "gaussian"
      std: 0.01
    }
    bias_filler {
      type: "constant"
    }
  }
}
layer {
  name: "Sigmoid0"
  type: "Sigmoid"
  bottom: "conv0"
  top: "Sigmoid0"
}
layer {
  name: "pool0"
  type: "Pooling"
  bottom: "Sigmoid0"
  top: "pool0"
  pooling_param {
    pool: AVE
    kernel_size: 3
    stride: 2
  }
}
layer {
  name: "ip1"
  type: "InnerProduct"
  bottom: "pool0"
  top: "ip1"
  param {
    lr_mult: 1
  }
  param {
    lr_mult: 2
  }
  inner_product_param {
    num_output: 80
    weight_filler {
      type: "gaussian"
      std: 0.01
    }
    bias_filler {
      type: "constant"
    }
  }
}
layer {
  name: "relu1"
  type: "ReLU"
  bottom: "ip1"
  top: "ip1"
}
layer {
  name: "ip2"
  type: "InnerProduct"
  bottom: "ip1"
  top: "ip2"
  param {
    lr_mult: 1
  }
  param {
    lr_mult: 2
  }
  inner_product_param {
    num_output: 160
    weight_filler {
      type: "gaussian"
      std: 0.01
    }
    bias_filler {
      type: "constant"
    }
  }
}
layer {
  name: "relu2"
  type: "ReLU"
  bottom: "ip2"
  top: "ip2"
}
layer {
  name: "ip3"
  type: "InnerProduct"
  bottom: "ip2"
  top: "ip3"
  param {
    lr_mult: 1
  }
  param {
    lr_mult: 2
  }
  inner_product_param {
    num_output: 40
    weight_filler {
      type: "gaussian"
      std: 0.01
    }
    bias_filler {
      type: "constant"
    }
  }
}
layer {
  name: "relu3"
  type: "ReLU"
  bottom: "ip3"
  top: "ip3"
}
layer {
  name: "ip4"
  type: "InnerProduct"
  bottom: "ip3"
  top: "ip4"
  param {
    lr_mult: 1
  }
  param {
    lr_mult: 2
  }
  inner_product_param {
    num_output: 10
    weight_filler {
      type: "gaussian"
      std: 0.01
    }
    bias_filler {
      type: "constant"
    }
  }
}
layer {
  name: "accuracy"
  type: "Accuracy"
  bottom: "ip4"
  bottom: "label"
  top: "accuracy"
  include {
    phase: TEST
  }
}
layer {
  name: "loss"
  type: "SoftmaxWithLoss"
  bottom: "ip4"
  bottom: "label"
  top: "loss"
}
I0501 01:12:36.270879  9609 layer_factory.hpp:77] Creating layer cifar
I0501 01:12:36.270936  9609 db_lmdb.cpp:35] Opened lmdb examples/cifar10/cifar10_test_lmdb
I0501 01:12:36.270953  9609 net.cpp:86] Creating Layer cifar
I0501 01:12:36.270958  9609 net.cpp:382] cifar -> data
I0501 01:12:36.270968  9609 net.cpp:382] cifar -> label
I0501 01:12:36.270975  9609 data_transformer.cpp:25] Loading mean file from: examples/cifar10/mean.binaryproto
I0501 01:12:36.271157  9609 data_layer.cpp:45] output data size: 1000,3,32,32
I0501 01:12:36.296375  9609 net.cpp:124] Setting up cifar
I0501 01:12:36.296402  9609 net.cpp:131] Top shape: 1000 3 32 32 (3072000)
I0501 01:12:36.296409  9609 net.cpp:131] Top shape: 1000 (1000)
I0501 01:12:36.296412  9609 net.cpp:139] Memory required for data: 12292000
I0501 01:12:36.296418  9609 layer_factory.hpp:77] Creating layer label_cifar_1_split
I0501 01:12:36.296435  9609 net.cpp:86] Creating Layer label_cifar_1_split
I0501 01:12:36.296440  9609 net.cpp:408] label_cifar_1_split <- label
I0501 01:12:36.296447  9609 net.cpp:382] label_cifar_1_split -> label_cifar_1_split_0
I0501 01:12:36.296458  9609 net.cpp:382] label_cifar_1_split -> label_cifar_1_split_1
I0501 01:12:36.296582  9609 net.cpp:124] Setting up label_cifar_1_split
I0501 01:12:36.296591  9609 net.cpp:131] Top shape: 1000 (1000)
I0501 01:12:36.296594  9609 net.cpp:131] Top shape: 1000 (1000)
I0501 01:12:36.296597  9609 net.cpp:139] Memory required for data: 12300000
I0501 01:12:36.296602  9609 layer_factory.hpp:77] Creating layer conv0
I0501 01:12:36.296615  9609 net.cpp:86] Creating Layer conv0
I0501 01:12:36.296619  9609 net.cpp:408] conv0 <- data
I0501 01:12:36.296625  9609 net.cpp:382] conv0 -> conv0
I0501 01:12:36.299258  9609 net.cpp:124] Setting up conv0
I0501 01:12:36.299275  9609 net.cpp:131] Top shape: 1000 8 34 34 (9248000)
I0501 01:12:36.299279  9609 net.cpp:139] Memory required for data: 49292000
I0501 01:12:36.299290  9609 layer_factory.hpp:77] Creating layer Sigmoid0
I0501 01:12:36.299299  9609 net.cpp:86] Creating Layer Sigmoid0
I0501 01:12:36.299302  9609 net.cpp:408] Sigmoid0 <- conv0
I0501 01:12:36.299310  9609 net.cpp:382] Sigmoid0 -> Sigmoid0
I0501 01:12:36.299521  9609 net.cpp:124] Setting up Sigmoid0
I0501 01:12:36.299530  9609 net.cpp:131] Top shape: 1000 8 34 34 (9248000)
I0501 01:12:36.299535  9609 net.cpp:139] Memory required for data: 86284000
I0501 01:12:36.299545  9609 layer_factory.hpp:77] Creating layer pool0
I0501 01:12:36.299554  9609 net.cpp:86] Creating Layer pool0
I0501 01:12:36.299557  9609 net.cpp:408] pool0 <- Sigmoid0
I0501 01:12:36.299562  9609 net.cpp:382] pool0 -> pool0
I0501 01:12:36.299756  9609 net.cpp:124] Setting up pool0
I0501 01:12:36.299767  9609 net.cpp:131] Top shape: 1000 8 17 17 (2312000)
I0501 01:12:36.299770  9609 net.cpp:139] Memory required for data: 95532000
I0501 01:12:36.299774  9609 layer_factory.hpp:77] Creating layer ip1
I0501 01:12:36.299782  9609 net.cpp:86] Creating Layer ip1
I0501 01:12:36.299785  9609 net.cpp:408] ip1 <- pool0
I0501 01:12:36.299792  9609 net.cpp:382] ip1 -> ip1
I0501 01:12:36.305692  9609 net.cpp:124] Setting up ip1
I0501 01:12:36.305701  9609 net.cpp:131] Top shape: 1000 80 (80000)
I0501 01:12:36.305704  9609 net.cpp:139] Memory required for data: 95852000
I0501 01:12:36.305728  9609 layer_factory.hpp:77] Creating layer relu1
I0501 01:12:36.305737  9609 net.cpp:86] Creating Layer relu1
I0501 01:12:36.305739  9609 net.cpp:408] relu1 <- ip1
I0501 01:12:36.305744  9609 net.cpp:369] relu1 -> ip1 (in-place)
I0501 01:12:36.305927  9609 net.cpp:124] Setting up relu1
I0501 01:12:36.305935  9609 net.cpp:131] Top shape: 1000 80 (80000)
I0501 01:12:36.305938  9609 net.cpp:139] Memory required for data: 96172000
I0501 01:12:36.305943  9609 layer_factory.hpp:77] Creating layer ip2
I0501 01:12:36.305949  9609 net.cpp:86] Creating Layer ip2
I0501 01:12:36.305953  9609 net.cpp:408] ip2 <- ip1
I0501 01:12:36.305963  9609 net.cpp:382] ip2 -> ip2
I0501 01:12:36.306457  9609 net.cpp:124] Setting up ip2
I0501 01:12:36.306464  9609 net.cpp:131] Top shape: 1000 160 (160000)
I0501 01:12:36.306468  9609 net.cpp:139] Memory required for data: 96812000
I0501 01:12:36.306475  9609 layer_factory.hpp:77] Creating layer relu2
I0501 01:12:36.306483  9609 net.cpp:86] Creating Layer relu2
I0501 01:12:36.306485  9609 net.cpp:408] relu2 <- ip2
I0501 01:12:36.306490  9609 net.cpp:369] relu2 -> ip2 (in-place)
I0501 01:12:36.307294  9609 net.cpp:124] Setting up relu2
I0501 01:12:36.307307  9609 net.cpp:131] Top shape: 1000 160 (160000)
I0501 01:12:36.307312  9609 net.cpp:139] Memory required for data: 97452000
I0501 01:12:36.307317  9609 layer_factory.hpp:77] Creating layer ip3
I0501 01:12:36.307323  9609 net.cpp:86] Creating Layer ip3
I0501 01:12:36.307327  9609 net.cpp:408] ip3 <- ip2
I0501 01:12:36.307333  9609 net.cpp:382] ip3 -> ip3
I0501 01:12:36.307641  9609 net.cpp:124] Setting up ip3
I0501 01:12:36.307648  9609 net.cpp:131] Top shape: 1000 40 (40000)
I0501 01:12:36.307651  9609 net.cpp:139] Memory required for data: 97612000
I0501 01:12:36.307657  9609 layer_factory.hpp:77] Creating layer relu3
I0501 01:12:36.307663  9609 net.cpp:86] Creating Layer relu3
I0501 01:12:36.307667  9609 net.cpp:408] relu3 <- ip3
I0501 01:12:36.307670  9609 net.cpp:369] relu3 -> ip3 (in-place)
I0501 01:12:36.307840  9609 net.cpp:124] Setting up relu3
I0501 01:12:36.307848  9609 net.cpp:131] Top shape: 1000 40 (40000)
I0501 01:12:36.307852  9609 net.cpp:139] Memory required for data: 97772000
I0501 01:12:36.307855  9609 layer_factory.hpp:77] Creating layer ip4
I0501 01:12:36.307862  9609 net.cpp:86] Creating Layer ip4
I0501 01:12:36.307864  9609 net.cpp:408] ip4 <- ip3
I0501 01:12:36.307870  9609 net.cpp:382] ip4 -> ip4
I0501 01:12:36.307996  9609 net.cpp:124] Setting up ip4
I0501 01:12:36.308002  9609 net.cpp:131] Top shape: 1000 10 (10000)
I0501 01:12:36.308006  9609 net.cpp:139] Memory required for data: 97812000
I0501 01:12:36.308013  9609 layer_factory.hpp:77] Creating layer ip4_ip4_0_split
I0501 01:12:36.308019  9609 net.cpp:86] Creating Layer ip4_ip4_0_split
I0501 01:12:36.308022  9609 net.cpp:408] ip4_ip4_0_split <- ip4
I0501 01:12:36.308029  9609 net.cpp:382] ip4_ip4_0_split -> ip4_ip4_0_split_0
I0501 01:12:36.308035  9609 net.cpp:382] ip4_ip4_0_split -> ip4_ip4_0_split_1
I0501 01:12:36.308069  9609 net.cpp:124] Setting up ip4_ip4_0_split
I0501 01:12:36.308076  9609 net.cpp:131] Top shape: 1000 10 (10000)
I0501 01:12:36.308080  9609 net.cpp:131] Top shape: 1000 10 (10000)
I0501 01:12:36.308084  9609 net.cpp:139] Memory required for data: 97892000
I0501 01:12:36.308086  9609 layer_factory.hpp:77] Creating layer accuracy
I0501 01:12:36.308092  9609 net.cpp:86] Creating Layer accuracy
I0501 01:12:36.308095  9609 net.cpp:408] accuracy <- ip4_ip4_0_split_0
I0501 01:12:36.308100  9609 net.cpp:408] accuracy <- label_cifar_1_split_0
I0501 01:12:36.308104  9609 net.cpp:382] accuracy -> accuracy
…
