…
I0501 03:12:18.968308 19477 net.cpp:296] The NetState phase (0) differed from the phase (1) specified by a rule in layer cifar
I0501 03:12:18.968327 19477 net.cpp:296] The NetState phase (0) differed from the phase (1) specified by a rule in layer accuracy
I0501 03:12:18.968433 19477 net.cpp:53] Initializing net from parameters: 
name: "CIFAR"
state {
  phase: TRAIN
  level: 0
  stage: ""
}
layer {
  name: "cifar"
  type: "Data"
  top: "data"
  top: "label"
  include {
    phase: TRAIN
  }
  transform_param {
    mean_file: "examples/cifar10/mean.binaryproto"
  }
  data_param {
    source: "examples/cifar10/cifar10_train_lmdb"
    batch_size: 111
    backend: LMDB
  }
}
layer {
  name: "conv0"
  type: "Convolution"
  bottom: "data"
  top: "conv0"
  param {
    lr_mult: 1
  }
  param {
    lr_mult: 2
  }
  convolution_param {
    num_output: 8
    pad: 2
    kernel_size: 5
    stride: 1
    weight_filler {
      type: "gaussian"
      std: 0.01
    }
    bias_filler {
      type: "constant"
    }
  }
}
layer {
  name: "Sigmoid0"
  type: "Sigmoid"
  bottom: "conv0"
  top: "Sigmoid0"
}
layer {
  name: "pool0"
  type: "Pooling"
  bottom: "Sigmoid0"
  top: "pool0"
  pooling_param {
    pool: AVE
    kernel_size: 3
    stride: 2
  }
}
layer {
  name: "ip1"
  type: "InnerProduct"
  bottom: "pool0"
  top: "ip1"
  param {
    lr_mult: 1
  }
  param {
    lr_mult: 2
  }
  inner_product_param {
    num_output: 10
    weight_filler {
      type: "gaussian"
      std: 0.01
    }
    bias_filler {
      type: "constant"
    }
  }
}
layer {
  name: "relu1"
  type: "ReLU"
  bottom: "ip1"
  top: "ip1"
}
layer {
  name: "ip2"
  type: "InnerProduct"
  bottom: "ip1"
  top: "ip2"
  param {
    lr_mult: 1
  }
  param {
    lr_mult: 2
  }
  inner_product_param {
    num_output: 20
    weight_filler {
      type: "gaussian"
      std: 0.01
    }
    bias_filler {
      type: "constant"
    }
  }
}
layer {
  name: "relu2"
  type: "ReLU"
  bottom: "ip2"
  top: "ip2"
}
layer {
  name: "ip3"
  type: "InnerProduct"
  bottom: "ip2"
  top: "ip3"
  param {
    lr_mult: 1
  }
  param {
    lr_mult: 2
  }
  inner_product_param {
    num_output: 20
    weight_filler {
      type: "gaussian"
      std: 0.01
    }
    bias_filler {
      type: "constant"
    }
  }
}
layer {
  name: "relu3"
  type: "ReLU"
  bottom: "ip3"
  top: "ip3"
}
layer {
  name: "ip4"
  type: "InnerProduct"
  bottom: "ip3"
  top: "ip4"
  param {
    lr_mult: 1
  }
  param {
    lr_mult: 2
  }
  inner_product_param {
    num_output: 10
    weight_filler {
      type: "gaussian"
      std: 0.01
    }
    bias_filler {
      type: "constant"
    }
  }
}
layer {
  name: "loss"
  type: "SoftmaxWithLoss"
  bottom: "ip4"
  bottom: "label"
  top: "loss"
}
I0501 03:12:18.968513 19477 layer_factory.hpp:77] Creating layer cifar
I0501 03:12:18.968611 19477 db_lmdb.cpp:35] Opened lmdb examples/cifar10/cifar10_train_lmdb
I0501 03:12:18.968638 19477 net.cpp:86] Creating Layer cifar
I0501 03:12:18.968647 19477 net.cpp:382] cifar -> data
I0501 03:12:18.968670 19477 net.cpp:382] cifar -> label
I0501 03:12:18.968683 19477 data_transformer.cpp:25] Loading mean file from: examples/cifar10/mean.binaryproto
I0501 03:12:18.970788 19477 data_layer.cpp:45] output data size: 111,3,32,32
I0501 03:12:18.978641 19477 net.cpp:124] Setting up cifar
I0501 03:12:18.978660 19477 net.cpp:131] Top shape: 111 3 32 32 (340992)
I0501 03:12:18.978667 19477 net.cpp:131] Top shape: 111 (111)
I0501 03:12:18.978670 19477 net.cpp:139] Memory required for data: 1364412
I0501 03:12:18.978698 19477 layer_factory.hpp:77] Creating layer conv0
I0501 03:12:18.978718 19477 net.cpp:86] Creating Layer conv0
I0501 03:12:18.978723 19477 net.cpp:408] conv0 <- data
I0501 03:12:18.978739 19477 net.cpp:382] conv0 -> conv0
I0501 03:12:19.258394 19477 net.cpp:124] Setting up conv0
I0501 03:12:19.258421 19477 net.cpp:131] Top shape: 111 8 32 32 (909312)
I0501 03:12:19.258425 19477 net.cpp:139] Memory required for data: 5001660
I0501 03:12:19.258440 19477 layer_factory.hpp:77] Creating layer Sigmoid0
I0501 03:12:19.258451 19477 net.cpp:86] Creating Layer Sigmoid0
I0501 03:12:19.258456 19477 net.cpp:408] Sigmoid0 <- conv0
I0501 03:12:19.258461 19477 net.cpp:382] Sigmoid0 -> Sigmoid0
I0501 03:12:19.258620 19477 net.cpp:124] Setting up Sigmoid0
I0501 03:12:19.258630 19477 net.cpp:131] Top shape: 111 8 32 32 (909312)
I0501 03:12:19.258633 19477 net.cpp:139] Memory required for data: 8638908
I0501 03:12:19.258637 19477 layer_factory.hpp:77] Creating layer pool0
I0501 03:12:19.258644 19477 net.cpp:86] Creating Layer pool0
I0501 03:12:19.258647 19477 net.cpp:408] pool0 <- Sigmoid0
I0501 03:12:19.258652 19477 net.cpp:382] pool0 -> pool0
I0501 03:12:19.259373 19477 net.cpp:124] Setting up pool0
I0501 03:12:19.259387 19477 net.cpp:131] Top shape: 111 8 16 16 (227328)
I0501 03:12:19.259390 19477 net.cpp:139] Memory required for data: 9548220
I0501 03:12:19.259394 19477 layer_factory.hpp:77] Creating layer ip1
I0501 03:12:19.259403 19477 net.cpp:86] Creating Layer ip1
I0501 03:12:19.259407 19477 net.cpp:408] ip1 <- pool0
I0501 03:12:19.259413 19477 net.cpp:382] ip1 -> ip1
I0501 03:12:19.260862 19477 net.cpp:124] Setting up ip1
I0501 03:12:19.260875 19477 net.cpp:131] Top shape: 111 10 (1110)
I0501 03:12:19.260879 19477 net.cpp:139] Memory required for data: 9552660
I0501 03:12:19.260886 19477 layer_factory.hpp:77] Creating layer relu1
I0501 03:12:19.260893 19477 net.cpp:86] Creating Layer relu1
I0501 03:12:19.260896 19477 net.cpp:408] relu1 <- ip1
I0501 03:12:19.260900 19477 net.cpp:369] relu1 -> ip1 (in-place)
I0501 03:12:19.261085 19477 net.cpp:124] Setting up relu1
I0501 03:12:19.261095 19477 net.cpp:131] Top shape: 111 10 (1110)
I0501 03:12:19.261097 19477 net.cpp:139] Memory required for data: 9557100
I0501 03:12:19.261101 19477 layer_factory.hpp:77] Creating layer ip2
I0501 03:12:19.261107 19477 net.cpp:86] Creating Layer ip2
I0501 03:12:19.261111 19477 net.cpp:408] ip2 <- ip1
I0501 03:12:19.261116 19477 net.cpp:382] ip2 -> ip2
I0501 03:12:19.261229 19477 net.cpp:124] Setting up ip2
I0501 03:12:19.261237 19477 net.cpp:131] Top shape: 111 20 (2220)
I0501 03:12:19.261240 19477 net.cpp:139] Memory required for data: 9565980
I0501 03:12:19.261247 19477 layer_factory.hpp:77] Creating layer relu2
I0501 03:12:19.261251 19477 net.cpp:86] Creating Layer relu2
I0501 03:12:19.261255 19477 net.cpp:408] relu2 <- ip2
I0501 03:12:19.261260 19477 net.cpp:369] relu2 -> ip2 (in-place)
I0501 03:12:19.261412 19477 net.cpp:124] Setting up relu2
I0501 03:12:19.261420 19477 net.cpp:131] Top shape: 111 20 (2220)
I0501 03:12:19.261425 19477 net.cpp:139] Memory required for data: 9574860
I0501 03:12:19.261427 19477 layer_factory.hpp:77] Creating layer ip3
I0501 03:12:19.261435 19477 net.cpp:86] Creating Layer ip3
I0501 03:12:19.261437 19477 net.cpp:408] ip3 <- ip2
I0501 03:12:19.261443 19477 net.cpp:382] ip3 -> ip3
I0501 03:12:19.261541 19477 net.cpp:124] Setting up ip3
I0501 03:12:19.261548 19477 net.cpp:131] Top shape: 111 20 (2220)
I0501 03:12:19.261551 19477 net.cpp:139] Memory required for data: 9583740
I0501 03:12:19.261556 19477 layer_factory.hpp:77] Creating layer relu3
I0501 03:12:19.261561 19477 net.cpp:86] Creating Layer relu3
I0501 03:12:19.261564 19477 net.cpp:408] relu3 <- ip3
I0501 03:12:19.261569 19477 net.cpp:369] relu3 -> ip3 (in-place)
I0501 03:12:19.261716 19477 net.cpp:124] Setting up relu3
I0501 03:12:19.261725 19477 net.cpp:131] Top shape: 111 20 (2220)
I0501 03:12:19.261729 19477 net.cpp:139] Memory required for data: 9592620
I0501 03:12:19.261731 19477 layer_factory.hpp:77] Creating layer ip4
I0501 03:12:19.261750 19477 net.cpp:86] Creating Layer ip4
I0501 03:12:19.261756 19477 net.cpp:408] ip4 <- ip3
I0501 03:12:19.261761 19477 net.cpp:382] ip4 -> ip4
I0501 03:12:19.261857 19477 net.cpp:124] Setting up ip4
I0501 03:12:19.261864 19477 net.cpp:131] Top shape: 111 10 (1110)
I0501 03:12:19.261867 19477 net.cpp:139] Memory required for data: 9597060
I0501 03:12:19.261873 19477 layer_factory.hpp:77] Creating layer loss
I0501 03:12:19.261883 19477 net.cpp:86] Creating Layer loss
I0501 03:12:19.261885 19477 net.cpp:408] loss <- ip4
I0501 03:12:19.261889 19477 net.cpp:408] loss <- label
I0501 03:12:19.261894 19477 net.cpp:382] loss -> loss
I0501 03:12:19.261910 19477 layer_factory.hpp:77] Creating layer loss
…
I0501 03:12:19.263072 19477 solver.cpp:173] Creating test net (#0) specified by net file: ECE595/cifar/train_test/var_everything/cifar_train_test_346.prototxt
I0501 03:12:19.263098 19477 net.cpp:296] The NetState phase (1) differed from the phase (0) specified by a rule in layer cifar
I0501 03:12:19.263190 19477 net.cpp:53] Initializing net from parameters: 
name: "CIFAR"
state {
  phase: TEST
}
layer {
  name: "cifar"
  type: "Data"
  top: "data"
  top: "label"
  include {
    phase: TEST
  }
  transform_param {
    mean_file: "examples/cifar10/mean.binaryproto"
  }
  data_param {
    source: "examples/cifar10/cifar10_test_lmdb"
    batch_size: 1000
    backend: LMDB
  }
}
layer {
  name: "conv0"
  type: "Convolution"
  bottom: "data"
  top: "conv0"
  param {
    lr_mult: 1
  }
  param {
    lr_mult: 2
  }
  convolution_param {
    num_output: 8
    pad: 2
    kernel_size: 5
    stride: 1
    weight_filler {
      type: "gaussian"
      std: 0.01
    }
    bias_filler {
      type: "constant"
    }
  }
}
layer {
  name: "Sigmoid0"
  type: "Sigmoid"
  bottom: "conv0"
  top: "Sigmoid0"
}
layer {
  name: "pool0"
  type: "Pooling"
  bottom: "Sigmoid0"
  top: "pool0"
  pooling_param {
    pool: AVE
    kernel_size: 3
    stride: 2
  }
}
layer {
  name: "ip1"
  type: "InnerProduct"
  bottom: "pool0"
  top: "ip1"
  param {
    lr_mult: 1
  }
  param {
    lr_mult: 2
  }
  inner_product_param {
    num_output: 10
    weight_filler {
      type: "gaussian"
      std: 0.01
    }
    bias_filler {
      type: "constant"
    }
  }
}
layer {
  name: "relu1"
  type: "ReLU"
  bottom: "ip1"
  top: "ip1"
}
layer {
  name: "ip2"
  type: "InnerProduct"
  bottom: "ip1"
  top: "ip2"
  param {
    lr_mult: 1
  }
  param {
    lr_mult: 2
  }
  inner_product_param {
    num_output: 20
    weight_filler {
      type: "gaussian"
      std: 0.01
    }
    bias_filler {
      type: "constant"
    }
  }
}
layer {
  name: "relu2"
  type: "ReLU"
  bottom: "ip2"
  top: "ip2"
}
layer {
  name: "ip3"
  type: "InnerProduct"
  bottom: "ip2"
  top: "ip3"
  param {
    lr_mult: 1
  }
  param {
    lr_mult: 2
  }
  inner_product_param {
    num_output: 20
    weight_filler {
      type: "gaussian"
      std: 0.01
    }
    bias_filler {
      type: "constant"
    }
  }
}
layer {
  name: "relu3"
  type: "ReLU"
  bottom: "ip3"
  top: "ip3"
}
layer {
  name: "ip4"
  type: "InnerProduct"
  bottom: "ip3"
  top: "ip4"
  param {
    lr_mult: 1
  }
  param {
    lr_mult: 2
  }
  inner_product_param {
    num_output: 10
    weight_filler {
      type: "gaussian"
      std: 0.01
    }
    bias_filler {
      type: "constant"
    }
  }
}
layer {
  name: "accuracy"
  type: "Accuracy"
  bottom: "ip4"
  bottom: "label"
  top: "accuracy"
  include {
    phase: TEST
  }
}
layer {
  name: "loss"
  type: "SoftmaxWithLoss"
  bottom: "ip4"
  bottom: "label"
  top: "loss"
}
I0501 03:12:19.263273 19477 layer_factory.hpp:77] Creating layer cifar
I0501 03:12:19.263316 19477 db_lmdb.cpp:35] Opened lmdb examples/cifar10/cifar10_test_lmdb
I0501 03:12:19.263330 19477 net.cpp:86] Creating Layer cifar
I0501 03:12:19.263339 19477 net.cpp:382] cifar -> data
I0501 03:12:19.263345 19477 net.cpp:382] cifar -> label
I0501 03:12:19.263352 19477 data_transformer.cpp:25] Loading mean file from: examples/cifar10/mean.binaryproto
I0501 03:12:19.263491 19477 data_layer.cpp:45] output data size: 1000,3,32,32
I0501 03:12:19.285035 19477 net.cpp:124] Setting up cifar
I0501 03:12:19.285063 19477 net.cpp:131] Top shape: 1000 3 32 32 (3072000)
I0501 03:12:19.285069 19477 net.cpp:131] Top shape: 1000 (1000)
I0501 03:12:19.285073 19477 net.cpp:139] Memory required for data: 12292000
I0501 03:12:19.285078 19477 layer_factory.hpp:77] Creating layer label_cifar_1_split
I0501 03:12:19.285094 19477 net.cpp:86] Creating Layer label_cifar_1_split
I0501 03:12:19.285097 19477 net.cpp:408] label_cifar_1_split <- label
I0501 03:12:19.285105 19477 net.cpp:382] label_cifar_1_split -> label_cifar_1_split_0
I0501 03:12:19.285114 19477 net.cpp:382] label_cifar_1_split -> label_cifar_1_split_1
I0501 03:12:19.285271 19477 net.cpp:124] Setting up label_cifar_1_split
I0501 03:12:19.285279 19477 net.cpp:131] Top shape: 1000 (1000)
I0501 03:12:19.285284 19477 net.cpp:131] Top shape: 1000 (1000)
I0501 03:12:19.285285 19477 net.cpp:139] Memory required for data: 12300000
I0501 03:12:19.285289 19477 layer_factory.hpp:77] Creating layer conv0
I0501 03:12:19.285301 19477 net.cpp:86] Creating Layer conv0
I0501 03:12:19.285307 19477 net.cpp:408] conv0 <- data
I0501 03:12:19.285328 19477 net.cpp:382] conv0 -> conv0
I0501 03:12:19.286847 19477 net.cpp:124] Setting up conv0
I0501 03:12:19.286875 19477 net.cpp:131] Top shape: 1000 8 32 32 (8192000)
I0501 03:12:19.286878 19477 net.cpp:139] Memory required for data: 45068000
I0501 03:12:19.286887 19477 layer_factory.hpp:77] Creating layer Sigmoid0
I0501 03:12:19.286893 19477 net.cpp:86] Creating Layer Sigmoid0
I0501 03:12:19.286896 19477 net.cpp:408] Sigmoid0 <- conv0
I0501 03:12:19.286902 19477 net.cpp:382] Sigmoid0 -> Sigmoid0
I0501 03:12:19.287091 19477 net.cpp:124] Setting up Sigmoid0
I0501 03:12:19.287101 19477 net.cpp:131] Top shape: 1000 8 32 32 (8192000)
I0501 03:12:19.287104 19477 net.cpp:139] Memory required for data: 77836000
I0501 03:12:19.287107 19477 layer_factory.hpp:77] Creating layer pool0
I0501 03:12:19.287116 19477 net.cpp:86] Creating Layer pool0
I0501 03:12:19.287118 19477 net.cpp:408] pool0 <- Sigmoid0
I0501 03:12:19.287122 19477 net.cpp:382] pool0 -> pool0
I0501 03:12:19.287402 19477 net.cpp:124] Setting up pool0
I0501 03:12:19.287411 19477 net.cpp:131] Top shape: 1000 8 16 16 (2048000)
I0501 03:12:19.287415 19477 net.cpp:139] Memory required for data: 86028000
I0501 03:12:19.287417 19477 layer_factory.hpp:77] Creating layer ip1
I0501 03:12:19.287425 19477 net.cpp:86] Creating Layer ip1
I0501 03:12:19.287428 19477 net.cpp:408] ip1 <- pool0
I0501 03:12:19.287447 19477 net.cpp:382] ip1 -> ip1
I0501 03:12:19.289057 19477 net.cpp:124] Setting up ip1
I0501 03:12:19.289067 19477 net.cpp:131] Top shape: 1000 10 (10000)
I0501 03:12:19.289086 19477 net.cpp:139] Memory required for data: 86068000
I0501 03:12:19.289108 19477 layer_factory.hpp:77] Creating layer relu1
I0501 03:12:19.289114 19477 net.cpp:86] Creating Layer relu1
I0501 03:12:19.289119 19477 net.cpp:408] relu1 <- ip1
I0501 03:12:19.289124 19477 net.cpp:369] relu1 -> ip1 (in-place)
I0501 03:12:19.289317 19477 net.cpp:124] Setting up relu1
I0501 03:12:19.289330 19477 net.cpp:131] Top shape: 1000 10 (10000)
I0501 03:12:19.289333 19477 net.cpp:139] Memory required for data: 86108000
I0501 03:12:19.289336 19477 layer_factory.hpp:77] Creating layer ip2
I0501 03:12:19.289342 19477 net.cpp:86] Creating Layer ip2
I0501 03:12:19.289345 19477 net.cpp:408] ip2 <- ip1
I0501 03:12:19.289351 19477 net.cpp:382] ip2 -> ip2
I0501 03:12:19.289463 19477 net.cpp:124] Setting up ip2
I0501 03:12:19.289470 19477 net.cpp:131] Top shape: 1000 20 (20000)
I0501 03:12:19.289474 19477 net.cpp:139] Memory required for data: 86188000
I0501 03:12:19.289480 19477 layer_factory.hpp:77] Creating layer relu2
I0501 03:12:19.289486 19477 net.cpp:86] Creating Layer relu2
I0501 03:12:19.289492 19477 net.cpp:408] relu2 <- ip2
I0501 03:12:19.289497 19477 net.cpp:369] relu2 -> ip2 (in-place)
I0501 03:12:19.290223 19477 net.cpp:124] Setting up relu2
I0501 03:12:19.290235 19477 net.cpp:131] Top shape: 1000 20 (20000)
I0501 03:12:19.290254 19477 net.cpp:139] Memory required for data: 86268000
I0501 03:12:19.290258 19477 layer_factory.hpp:77] Creating layer ip3
I0501 03:12:19.290264 19477 net.cpp:86] Creating Layer ip3
I0501 03:12:19.290267 19477 net.cpp:408] ip3 <- ip2
I0501 03:12:19.290274 19477 net.cpp:382] ip3 -> ip3
I0501 03:12:19.290400 19477 net.cpp:124] Setting up ip3
I0501 03:12:19.290407 19477 net.cpp:131] Top shape: 1000 20 (20000)
I0501 03:12:19.290410 19477 net.cpp:139] Memory required for data: 86348000
I0501 03:12:19.290427 19477 layer_factory.hpp:77] Creating layer relu3
I0501 03:12:19.290432 19477 net.cpp:86] Creating Layer relu3
I0501 03:12:19.290436 19477 net.cpp:408] relu3 <- ip3
I0501 03:12:19.290441 19477 net.cpp:369] relu3 -> ip3 (in-place)
I0501 03:12:19.290591 19477 net.cpp:124] Setting up relu3
I0501 03:12:19.290598 19477 net.cpp:131] Top shape: 1000 20 (20000)
I0501 03:12:19.290601 19477 net.cpp:139] Memory required for data: 86428000
I0501 03:12:19.290604 19477 layer_factory.hpp:77] Creating layer ip4
I0501 03:12:19.290611 19477 net.cpp:86] Creating Layer ip4
I0501 03:12:19.290614 19477 net.cpp:408] ip4 <- ip3
I0501 03:12:19.290618 19477 net.cpp:382] ip4 -> ip4
I0501 03:12:19.290742 19477 net.cpp:124] Setting up ip4
I0501 03:12:19.290750 19477 net.cpp:131] Top shape: 1000 10 (10000)
I0501 03:12:19.290752 19477 net.cpp:139] Memory required for data: 86468000
I0501 03:12:19.290769 19477 layer_factory.hpp:77] Creating layer ip4_ip4_0_split
I0501 03:12:19.290777 19477 net.cpp:86] Creating Layer ip4_ip4_0_split
I0501 03:12:19.290781 19477 net.cpp:408] ip4_ip4_0_split <- ip4
I0501 03:12:19.290791 19477 net.cpp:382] ip4_ip4_0_split -> ip4_ip4_0_split_0
I0501 03:12:19.290796 19477 net.cpp:382] ip4_ip4_0_split -> ip4_ip4_0_split_1
I0501 03:12:19.290829 19477 net.cpp:124] Setting up ip4_ip4_0_split
I0501 03:12:19.290834 19477 net.cpp:131] Top shape: 1000 10 (10000)
I0501 03:12:19.290838 19477 net.cpp:131] Top shape: 1000 10 (10000)
I0501 03:12:19.290841 19477 net.cpp:139] Memory required for data: 86548000
I0501 03:12:19.290849 19477 layer_factory.hpp:77] Creating layer accuracy
I0501 03:12:19.290854 19477 net.cpp:86] Creating Layer accuracy
I0501 03:12:19.290858 19477 net.cpp:408] accuracy <- ip4_ip4_0_split_0
I0501 03:12:19.290861 19477 net.cpp:408] accuracy <- label_cifar_1_split_0
I0501 03:12:19.290868 19477 net.cpp:382] accuracy -> accuracy
…
