…
I0430 21:29:22.348225 30972 net.cpp:296] The NetState phase (0) differed from the phase (1) specified by a rule in layer cifar
I0430 21:29:22.348245 30972 net.cpp:296] The NetState phase (0) differed from the phase (1) specified by a rule in layer accuracy
I0430 21:29:22.348357 30972 net.cpp:53] Initializing net from parameters: 
name: "CIFAR"
state {
  phase: TRAIN
  level: 0
  stage: ""
}
layer {
  name: "cifar"
  type: "Data"
  top: "data"
  top: "label"
  include {
    phase: TRAIN
  }
  transform_param {
    mean_file: "examples/cifar10/mean.binaryproto"
  }
  data_param {
    source: "examples/cifar10/cifar10_train_lmdb"
    batch_size: 111
    backend: LMDB
  }
}
layer {
  name: "conv0"
  type: "Convolution"
  bottom: "data"
  top: "conv0"
  param {
    lr_mult: 1
  }
  param {
    lr_mult: 2
  }
  convolution_param {
    num_output: 8
    pad: 2
    kernel_size: 3
    stride: 1
    weight_filler {
      type: "gaussian"
      std: 0.01
    }
    bias_filler {
      type: "constant"
    }
  }
}
layer {
  name: "Sigmoid0"
  type: "Sigmoid"
  bottom: "conv0"
  top: "Sigmoid0"
}
layer {
  name: "pool0"
  type: "Pooling"
  bottom: "Sigmoid0"
  top: "pool0"
  pooling_param {
    pool: AVE
    kernel_size: 3
    stride: 2
  }
}
layer {
  name: "ip1"
  type: "InnerProduct"
  bottom: "pool0"
  top: "ip1"
  param {
    lr_mult: 1
  }
  param {
    lr_mult: 2
  }
  inner_product_param {
    num_output: 10
    weight_filler {
      type: "gaussian"
      std: 0.01
    }
    bias_filler {
      type: "constant"
    }
  }
}
layer {
  name: "relu1"
  type: "ReLU"
  bottom: "ip1"
  top: "ip1"
}
layer {
  name: "ip2"
  type: "InnerProduct"
  bottom: "ip1"
  top: "ip2"
  param {
    lr_mult: 1
  }
  param {
    lr_mult: 2
  }
  inner_product_param {
    num_output: 80
    weight_filler {
      type: "gaussian"
      std: 0.01
    }
    bias_filler {
      type: "constant"
    }
  }
}
layer {
  name: "relu2"
  type: "ReLU"
  bottom: "ip2"
  top: "ip2"
}
layer {
  name: "ip3"
  type: "InnerProduct"
  bottom: "ip2"
  top: "ip3"
  param {
    lr_mult: 1
  }
  param {
    lr_mult: 2
  }
  inner_product_param {
    num_output: 10
    weight_filler {
      type: "gaussian"
      std: 0.01
    }
    bias_filler {
      type: "constant"
    }
  }
}
layer {
  name: "loss"
  type: "SoftmaxWithLoss"
  bottom: "ip3"
  bottom: "label"
  top: "loss"
}
I0430 21:29:22.348462 30972 layer_factory.hpp:77] Creating layer cifar
I0430 21:29:22.348589 30972 db_lmdb.cpp:35] Opened lmdb examples/cifar10/cifar10_train_lmdb
I0430 21:29:22.348625 30972 net.cpp:86] Creating Layer cifar
I0430 21:29:22.348640 30972 net.cpp:382] cifar -> data
I0430 21:29:22.348671 30972 net.cpp:382] cifar -> label
I0430 21:29:22.348688 30972 data_transformer.cpp:25] Loading mean file from: examples/cifar10/mean.binaryproto
I0430 21:29:22.350975 30972 data_layer.cpp:45] output data size: 111,3,32,32
I0430 21:29:22.358842 30972 net.cpp:124] Setting up cifar
I0430 21:29:22.358860 30972 net.cpp:131] Top shape: 111 3 32 32 (340992)
I0430 21:29:22.358866 30972 net.cpp:131] Top shape: 111 (111)
I0430 21:29:22.358870 30972 net.cpp:139] Memory required for data: 1364412
I0430 21:29:22.358877 30972 layer_factory.hpp:77] Creating layer conv0
I0430 21:29:22.358901 30972 net.cpp:86] Creating Layer conv0
I0430 21:29:22.358911 30972 net.cpp:408] conv0 <- data
I0430 21:29:22.358930 30972 net.cpp:382] conv0 -> conv0
I0430 21:29:22.635582 30972 net.cpp:124] Setting up conv0
I0430 21:29:22.635644 30972 net.cpp:131] Top shape: 111 8 34 34 (1026528)
I0430 21:29:22.635648 30972 net.cpp:139] Memory required for data: 5470524
I0430 21:29:22.635663 30972 layer_factory.hpp:77] Creating layer Sigmoid0
I0430 21:29:22.635675 30972 net.cpp:86] Creating Layer Sigmoid0
I0430 21:29:22.635680 30972 net.cpp:408] Sigmoid0 <- conv0
I0430 21:29:22.635687 30972 net.cpp:382] Sigmoid0 -> Sigmoid0
I0430 21:29:22.635874 30972 net.cpp:124] Setting up Sigmoid0
I0430 21:29:22.635881 30972 net.cpp:131] Top shape: 111 8 34 34 (1026528)
I0430 21:29:22.635885 30972 net.cpp:139] Memory required for data: 9576636
I0430 21:29:22.635887 30972 layer_factory.hpp:77] Creating layer pool0
I0430 21:29:22.635895 30972 net.cpp:86] Creating Layer pool0
I0430 21:29:22.635897 30972 net.cpp:408] pool0 <- Sigmoid0
I0430 21:29:22.635902 30972 net.cpp:382] pool0 -> pool0
I0430 21:29:22.636734 30972 net.cpp:124] Setting up pool0
I0430 21:29:22.636746 30972 net.cpp:131] Top shape: 111 8 17 17 (256632)
I0430 21:29:22.636749 30972 net.cpp:139] Memory required for data: 10603164
I0430 21:29:22.636752 30972 layer_factory.hpp:77] Creating layer ip1
I0430 21:29:22.636761 30972 net.cpp:86] Creating Layer ip1
I0430 21:29:22.636765 30972 net.cpp:408] ip1 <- pool0
I0430 21:29:22.636770 30972 net.cpp:382] ip1 -> ip1
I0430 21:29:22.638298 30972 net.cpp:124] Setting up ip1
I0430 21:29:22.638310 30972 net.cpp:131] Top shape: 111 10 (1110)
I0430 21:29:22.638330 30972 net.cpp:139] Memory required for data: 10607604
I0430 21:29:22.638339 30972 layer_factory.hpp:77] Creating layer relu1
I0430 21:29:22.638344 30972 net.cpp:86] Creating Layer relu1
I0430 21:29:22.638347 30972 net.cpp:408] relu1 <- ip1
I0430 21:29:22.638351 30972 net.cpp:369] relu1 -> ip1 (in-place)
I0430 21:29:22.638533 30972 net.cpp:124] Setting up relu1
I0430 21:29:22.638542 30972 net.cpp:131] Top shape: 111 10 (1110)
I0430 21:29:22.638545 30972 net.cpp:139] Memory required for data: 10612044
I0430 21:29:22.638548 30972 layer_factory.hpp:77] Creating layer ip2
I0430 21:29:22.638556 30972 net.cpp:86] Creating Layer ip2
I0430 21:29:22.638558 30972 net.cpp:408] ip2 <- ip1
I0430 21:29:22.638563 30972 net.cpp:382] ip2 -> ip2
I0430 21:29:22.639472 30972 net.cpp:124] Setting up ip2
I0430 21:29:22.639484 30972 net.cpp:131] Top shape: 111 80 (8880)
I0430 21:29:22.639503 30972 net.cpp:139] Memory required for data: 10647564
I0430 21:29:22.639511 30972 layer_factory.hpp:77] Creating layer relu2
I0430 21:29:22.639516 30972 net.cpp:86] Creating Layer relu2
I0430 21:29:22.639520 30972 net.cpp:408] relu2 <- ip2
I0430 21:29:22.639524 30972 net.cpp:369] relu2 -> ip2 (in-place)
I0430 21:29:22.639710 30972 net.cpp:124] Setting up relu2
I0430 21:29:22.639719 30972 net.cpp:131] Top shape: 111 80 (8880)
I0430 21:29:22.639721 30972 net.cpp:139] Memory required for data: 10683084
I0430 21:29:22.639725 30972 layer_factory.hpp:77] Creating layer ip3
I0430 21:29:22.639732 30972 net.cpp:86] Creating Layer ip3
I0430 21:29:22.639736 30972 net.cpp:408] ip3 <- ip2
I0430 21:29:22.639740 30972 net.cpp:382] ip3 -> ip3
I0430 21:29:22.639863 30972 net.cpp:124] Setting up ip3
I0430 21:29:22.639871 30972 net.cpp:131] Top shape: 111 10 (1110)
I0430 21:29:22.639874 30972 net.cpp:139] Memory required for data: 10687524
I0430 21:29:22.639879 30972 layer_factory.hpp:77] Creating layer loss
I0430 21:29:22.639884 30972 net.cpp:86] Creating Layer loss
I0430 21:29:22.639888 30972 net.cpp:408] loss <- ip3
I0430 21:29:22.639891 30972 net.cpp:408] loss <- label
I0430 21:29:22.639897 30972 net.cpp:382] loss -> loss
I0430 21:29:22.639917 30972 layer_factory.hpp:77] Creating layer loss
…
I0430 21:29:22.640612 30972 solver.cpp:173] Creating test net (#0) specified by net file: ECE595/cifar/train_test/var_everything/cifar_train_test_163.prototxt
I0430 21:29:22.640666 30972 net.cpp:296] The NetState phase (1) differed from the phase (0) specified by a rule in layer cifar
I0430 21:29:22.640777 30972 net.cpp:53] Initializing net from parameters: 
name: "CIFAR"
state {
  phase: TEST
}
layer {
  name: "cifar"
  type: "Data"
  top: "data"
  top: "label"
  include {
    phase: TEST
  }
  transform_param {
    mean_file: "examples/cifar10/mean.binaryproto"
  }
  data_param {
    source: "examples/cifar10/cifar10_test_lmdb"
    batch_size: 1000
    backend: LMDB
  }
}
layer {
  name: "conv0"
  type: "Convolution"
  bottom: "data"
  top: "conv0"
  param {
    lr_mult: 1
  }
  param {
    lr_mult: 2
  }
  convolution_param {
    num_output: 8
    pad: 2
    kernel_size: 3
    stride: 1
    weight_filler {
      type: "gaussian"
      std: 0.01
    }
    bias_filler {
      type: "constant"
    }
  }
}
layer {
  name: "Sigmoid0"
  type: "Sigmoid"
  bottom: "conv0"
  top: "Sigmoid0"
}
layer {
  name: "pool0"
  type: "Pooling"
  bottom: "Sigmoid0"
  top: "pool0"
  pooling_param {
    pool: AVE
    kernel_size: 3
    stride: 2
  }
}
layer {
  name: "ip1"
  type: "InnerProduct"
  bottom: "pool0"
  top: "ip1"
  param {
    lr_mult: 1
  }
  param {
    lr_mult: 2
  }
  inner_product_param {
    num_output: 10
    weight_filler {
      type: "gaussian"
      std: 0.01
    }
    bias_filler {
      type: "constant"
    }
  }
}
layer {
  name: "relu1"
  type: "ReLU"
  bottom: "ip1"
  top: "ip1"
}
layer {
  name: "ip2"
  type: "InnerProduct"
  bottom: "ip1"
  top: "ip2"
  param {
    lr_mult: 1
  }
  param {
    lr_mult: 2
  }
  inner_product_param {
    num_output: 80
    weight_filler {
      type: "gaussian"
      std: 0.01
    }
    bias_filler {
      type: "constant"
    }
  }
}
layer {
  name: "relu2"
  type: "ReLU"
  bottom: "ip2"
  top: "ip2"
}
layer {
  name: "ip3"
  type: "InnerProduct"
  bottom: "ip2"
  top: "ip3"
  param {
    lr_mult: 1
  }
  param {
    lr_mult: 2
  }
  inner_product_param {
    num_output: 10
    weight_filler {
      type: "gaussian"
      std: 0.01
    }
    bias_filler {
      type: "constant"
    }
  }
}
layer {
  name: "accuracy"
  type: "Accuracy"
  bottom: "ip3"
  bottom: "label"
  top: "accuracy"
  include {
    phase: TEST
  }
}
layer {
  name: "loss"
  type: "SoftmaxWithLoss"
  bottom: "ip3"
  bottom: "label"
  top: "loss"
}
I0430 21:29:22.640898 30972 layer_factory.hpp:77] Creating layer cifar
I0430 21:29:22.640959 30972 db_lmdb.cpp:35] Opened lmdb examples/cifar10/cifar10_test_lmdb
I0430 21:29:22.640976 30972 net.cpp:86] Creating Layer cifar
I0430 21:29:22.640983 30972 net.cpp:382] cifar -> data
I0430 21:29:22.640995 30972 net.cpp:382] cifar -> label
I0430 21:29:22.641005 30972 data_transformer.cpp:25] Loading mean file from: examples/cifar10/mean.binaryproto
I0430 21:29:22.641225 30972 data_layer.cpp:45] output data size: 1000,3,32,32
I0430 21:29:22.662832 30972 net.cpp:124] Setting up cifar
I0430 21:29:22.662858 30972 net.cpp:131] Top shape: 1000 3 32 32 (3072000)
I0430 21:29:22.662863 30972 net.cpp:131] Top shape: 1000 (1000)
I0430 21:29:22.662866 30972 net.cpp:139] Memory required for data: 12292000
I0430 21:29:22.662871 30972 layer_factory.hpp:77] Creating layer label_cifar_1_split
I0430 21:29:22.662889 30972 net.cpp:86] Creating Layer label_cifar_1_split
I0430 21:29:22.662916 30972 net.cpp:408] label_cifar_1_split <- label
I0430 21:29:22.662925 30972 net.cpp:382] label_cifar_1_split -> label_cifar_1_split_0
I0430 21:29:22.662938 30972 net.cpp:382] label_cifar_1_split -> label_cifar_1_split_1
I0430 21:29:22.663007 30972 net.cpp:124] Setting up label_cifar_1_split
I0430 21:29:22.663015 30972 net.cpp:131] Top shape: 1000 (1000)
I0430 21:29:22.663018 30972 net.cpp:131] Top shape: 1000 (1000)
I0430 21:29:22.663022 30972 net.cpp:139] Memory required for data: 12300000
I0430 21:29:22.663025 30972 layer_factory.hpp:77] Creating layer conv0
I0430 21:29:22.663040 30972 net.cpp:86] Creating Layer conv0
I0430 21:29:22.663046 30972 net.cpp:408] conv0 <- data
I0430 21:29:22.663054 30972 net.cpp:382] conv0 -> conv0
I0430 21:29:22.664736 30972 net.cpp:124] Setting up conv0
I0430 21:29:22.664749 30972 net.cpp:131] Top shape: 1000 8 34 34 (9248000)
I0430 21:29:22.664753 30972 net.cpp:139] Memory required for data: 49292000
I0430 21:29:22.664763 30972 layer_factory.hpp:77] Creating layer Sigmoid0
I0430 21:29:22.664772 30972 net.cpp:86] Creating Layer Sigmoid0
I0430 21:29:22.664777 30972 net.cpp:408] Sigmoid0 <- conv0
I0430 21:29:22.664784 30972 net.cpp:382] Sigmoid0 -> Sigmoid0
I0430 21:29:22.665719 30972 net.cpp:124] Setting up Sigmoid0
I0430 21:29:22.665731 30972 net.cpp:131] Top shape: 1000 8 34 34 (9248000)
I0430 21:29:22.665735 30972 net.cpp:139] Memory required for data: 86284000
I0430 21:29:22.665738 30972 layer_factory.hpp:77] Creating layer pool0
I0430 21:29:22.665748 30972 net.cpp:86] Creating Layer pool0
I0430 21:29:22.665755 30972 net.cpp:408] pool0 <- Sigmoid0
I0430 21:29:22.665762 30972 net.cpp:382] pool0 -> pool0
I0430 21:29:22.666911 30972 net.cpp:124] Setting up pool0
I0430 21:29:22.666923 30972 net.cpp:131] Top shape: 1000 8 17 17 (2312000)
I0430 21:29:22.666925 30972 net.cpp:139] Memory required for data: 95532000
I0430 21:29:22.666929 30972 layer_factory.hpp:77] Creating layer ip1
I0430 21:29:22.666939 30972 net.cpp:86] Creating Layer ip1
I0430 21:29:22.666944 30972 net.cpp:408] ip1 <- pool0
I0430 21:29:22.666952 30972 net.cpp:382] ip1 -> ip1
I0430 21:29:22.667664 30972 net.cpp:124] Setting up ip1
I0430 21:29:22.667671 30972 net.cpp:131] Top shape: 1000 10 (10000)
I0430 21:29:22.667690 30972 net.cpp:139] Memory required for data: 95572000
I0430 21:29:22.667701 30972 layer_factory.hpp:77] Creating layer relu1
I0430 21:29:22.667711 30972 net.cpp:86] Creating Layer relu1
I0430 21:29:22.667716 30972 net.cpp:408] relu1 <- ip1
I0430 21:29:22.667723 30972 net.cpp:369] relu1 -> ip1 (in-place)
I0430 21:29:22.667893 30972 net.cpp:124] Setting up relu1
I0430 21:29:22.667903 30972 net.cpp:131] Top shape: 1000 10 (10000)
I0430 21:29:22.667906 30972 net.cpp:139] Memory required for data: 95612000
I0430 21:29:22.667909 30972 layer_factory.hpp:77] Creating layer ip2
I0430 21:29:22.667918 30972 net.cpp:86] Creating Layer ip2
I0430 21:29:22.667923 30972 net.cpp:408] ip2 <- ip1
I0430 21:29:22.667934 30972 net.cpp:382] ip2 -> ip2
I0430 21:29:22.668095 30972 net.cpp:124] Setting up ip2
I0430 21:29:22.668103 30972 net.cpp:131] Top shape: 1000 80 (80000)
I0430 21:29:22.668107 30972 net.cpp:139] Memory required for data: 95932000
I0430 21:29:22.668114 30972 layer_factory.hpp:77] Creating layer relu2
I0430 21:29:22.668123 30972 net.cpp:86] Creating Layer relu2
I0430 21:29:22.668128 30972 net.cpp:408] relu2 <- ip2
I0430 21:29:22.668134 30972 net.cpp:369] relu2 -> ip2 (in-place)
I0430 21:29:22.668305 30972 net.cpp:124] Setting up relu2
I0430 21:29:22.668314 30972 net.cpp:131] Top shape: 1000 80 (80000)
I0430 21:29:22.668316 30972 net.cpp:139] Memory required for data: 96252000
I0430 21:29:22.668319 30972 layer_factory.hpp:77] Creating layer ip3
I0430 21:29:22.668328 30972 net.cpp:86] Creating Layer ip3
I0430 21:29:22.668331 30972 net.cpp:408] ip3 <- ip2
I0430 21:29:22.668340 30972 net.cpp:382] ip3 -> ip3
I0430 21:29:22.668478 30972 net.cpp:124] Setting up ip3
I0430 21:29:22.668484 30972 net.cpp:131] Top shape: 1000 10 (10000)
I0430 21:29:22.668488 30972 net.cpp:139] Memory required for data: 96292000
I0430 21:29:22.668506 30972 layer_factory.hpp:77] Creating layer ip3_ip3_0_split
I0430 21:29:22.668514 30972 net.cpp:86] Creating Layer ip3_ip3_0_split
I0430 21:29:22.668519 30972 net.cpp:408] ip3_ip3_0_split <- ip3
I0430 21:29:22.668527 30972 net.cpp:382] ip3_ip3_0_split -> ip3_ip3_0_split_0
I0430 21:29:22.668536 30972 net.cpp:382] ip3_ip3_0_split -> ip3_ip3_0_split_1
I0430 21:29:22.668579 30972 net.cpp:124] Setting up ip3_ip3_0_split
I0430 21:29:22.668588 30972 net.cpp:131] Top shape: 1000 10 (10000)
I0430 21:29:22.668594 30972 net.cpp:131] Top shape: 1000 10 (10000)
I0430 21:29:22.668598 30972 net.cpp:139] Memory required for data: 96372000
I0430 21:29:22.668603 30972 layer_factory.hpp:77] Creating layer accuracy
I0430 21:29:22.668612 30972 net.cpp:86] Creating Layer accuracy
I0430 21:29:22.668617 30972 net.cpp:408] accuracy <- ip3_ip3_0_split_0
I0430 21:29:22.668623 30972 net.cpp:408] accuracy <- label_cifar_1_split_0
I0430 21:29:22.668629 30972 net.cpp:382] accuracy -> accuracy
…
