…
I0501 09:06:49.688936 13105 net.cpp:296] The NetState phase (0) differed from the phase (1) specified by a rule in layer cifar
I0501 09:06:49.688956 13105 net.cpp:296] The NetState phase (0) differed from the phase (1) specified by a rule in layer accuracy
I0501 09:06:49.689064 13105 net.cpp:53] Initializing net from parameters: 
name: "CIFAR"
state {
  phase: TRAIN
  level: 0
  stage: ""
}
layer {
  name: "cifar"
  type: "Data"
  top: "data"
  top: "label"
  include {
    phase: TRAIN
  }
  transform_param {
    mean_file: "examples/cifar10/mean.binaryproto"
  }
  data_param {
    source: "examples/cifar10/cifar10_train_lmdb"
    batch_size: 111
    backend: LMDB
  }
}
layer {
  name: "conv0"
  type: "Convolution"
  bottom: "data"
  top: "conv0"
  param {
    lr_mult: 1
  }
  param {
    lr_mult: 2
  }
  convolution_param {
    num_output: 16
    pad: 2
    kernel_size: 3
    stride: 1
    weight_filler {
      type: "gaussian"
      std: 0.01
    }
    bias_filler {
      type: "constant"
    }
  }
}
layer {
  name: "Sigmoid0"
  type: "Sigmoid"
  bottom: "conv0"
  top: "Sigmoid0"
}
layer {
  name: "pool0"
  type: "Pooling"
  bottom: "Sigmoid0"
  top: "pool0"
  pooling_param {
    pool: AVE
    kernel_size: 3
    stride: 2
  }
}
layer {
  name: "ip1"
  type: "InnerProduct"
  bottom: "pool0"
  top: "ip1"
  param {
    lr_mult: 1
  }
  param {
    lr_mult: 2
  }
  inner_product_param {
    num_output: 20
    weight_filler {
      type: "gaussian"
      std: 0.01
    }
    bias_filler {
      type: "constant"
    }
  }
}
layer {
  name: "relu1"
  type: "ReLU"
  bottom: "ip1"
  top: "ip1"
}
layer {
  name: "ip2"
  type: "InnerProduct"
  bottom: "ip1"
  top: "ip2"
  param {
    lr_mult: 1
  }
  param {
    lr_mult: 2
  }
  inner_product_param {
    num_output: 40
    weight_filler {
      type: "gaussian"
      std: 0.01
    }
    bias_filler {
      type: "constant"
    }
  }
}
layer {
  name: "relu2"
  type: "ReLU"
  bottom: "ip2"
  top: "ip2"
}
layer {
  name: "ip3"
  type: "InnerProduct"
  bottom: "ip2"
  top: "ip3"
  param {
    lr_mult: 1
  }
  param {
    lr_mult: 2
  }
  inner_product_param {
    num_output: 10
    weight_filler {
      type: "gaussian"
      std: 0.01
    }
    bias_filler {
      type: "constant"
    }
  }
}
layer {
  name: "relu3"
  type: "ReLU"
  bottom: "ip3"
  top: "ip3"
}
layer {
  name: "ip4"
  type: "InnerProduct"
  bottom: "ip3"
  top: "ip4"
  param {
    lr_mult: 1
  }
  param {
    lr_mult: 2
  }
  inner_product_param {
    num_output: 10
    weight_filler {
      type: "gaussian"
      std: 0.01
    }
    bias_filler {
      type: "constant"
    }
  }
}
layer {
  name: "loss"
  type: "SoftmaxWithLoss"
  bottom: "ip4"
  bottom: "label"
  top: "loss"
}
I0501 09:06:49.689146 13105 layer_factory.hpp:77] Creating layer cifar
I0501 09:06:49.689244 13105 db_lmdb.cpp:35] Opened lmdb examples/cifar10/cifar10_train_lmdb
I0501 09:06:49.689271 13105 net.cpp:86] Creating Layer cifar
I0501 09:06:49.689280 13105 net.cpp:382] cifar -> data
I0501 09:06:49.689303 13105 net.cpp:382] cifar -> label
I0501 09:06:49.689318 13105 data_transformer.cpp:25] Loading mean file from: examples/cifar10/mean.binaryproto
I0501 09:06:49.691471 13105 data_layer.cpp:45] output data size: 111,3,32,32
I0501 09:06:49.699447 13105 net.cpp:124] Setting up cifar
I0501 09:06:49.699467 13105 net.cpp:131] Top shape: 111 3 32 32 (340992)
I0501 09:06:49.699475 13105 net.cpp:131] Top shape: 111 (111)
I0501 09:06:49.699477 13105 net.cpp:139] Memory required for data: 1364412
I0501 09:06:49.699501 13105 layer_factory.hpp:77] Creating layer conv0
I0501 09:06:49.699520 13105 net.cpp:86] Creating Layer conv0
I0501 09:06:49.699525 13105 net.cpp:408] conv0 <- data
I0501 09:06:49.699540 13105 net.cpp:382] conv0 -> conv0
I0501 09:06:49.979763 13105 net.cpp:124] Setting up conv0
I0501 09:06:49.979804 13105 net.cpp:131] Top shape: 111 16 34 34 (2053056)
I0501 09:06:49.979807 13105 net.cpp:139] Memory required for data: 9576636
I0501 09:06:49.979822 13105 layer_factory.hpp:77] Creating layer Sigmoid0
I0501 09:06:49.979835 13105 net.cpp:86] Creating Layer Sigmoid0
I0501 09:06:49.979838 13105 net.cpp:408] Sigmoid0 <- conv0
I0501 09:06:49.979843 13105 net.cpp:382] Sigmoid0 -> Sigmoid0
I0501 09:06:49.980051 13105 net.cpp:124] Setting up Sigmoid0
I0501 09:06:49.980060 13105 net.cpp:131] Top shape: 111 16 34 34 (2053056)
I0501 09:06:49.980064 13105 net.cpp:139] Memory required for data: 17788860
I0501 09:06:49.980067 13105 layer_factory.hpp:77] Creating layer pool0
I0501 09:06:49.980074 13105 net.cpp:86] Creating Layer pool0
I0501 09:06:49.980077 13105 net.cpp:408] pool0 <- Sigmoid0
I0501 09:06:49.980082 13105 net.cpp:382] pool0 -> pool0
I0501 09:06:49.980798 13105 net.cpp:124] Setting up pool0
I0501 09:06:49.980834 13105 net.cpp:131] Top shape: 111 16 17 17 (513264)
I0501 09:06:49.980852 13105 net.cpp:139] Memory required for data: 19841916
I0501 09:06:49.980857 13105 layer_factory.hpp:77] Creating layer ip1
I0501 09:06:49.980867 13105 net.cpp:86] Creating Layer ip1
I0501 09:06:49.980871 13105 net.cpp:408] ip1 <- pool0
I0501 09:06:49.980876 13105 net.cpp:382] ip1 -> ip1
I0501 09:06:49.983410 13105 net.cpp:124] Setting up ip1
I0501 09:06:49.983418 13105 net.cpp:131] Top shape: 111 20 (2220)
I0501 09:06:49.983422 13105 net.cpp:139] Memory required for data: 19850796
I0501 09:06:49.983429 13105 layer_factory.hpp:77] Creating layer relu1
I0501 09:06:49.983434 13105 net.cpp:86] Creating Layer relu1
I0501 09:06:49.983438 13105 net.cpp:408] relu1 <- ip1
I0501 09:06:49.983441 13105 net.cpp:369] relu1 -> ip1 (in-place)
I0501 09:06:49.983600 13105 net.cpp:124] Setting up relu1
I0501 09:06:49.983608 13105 net.cpp:131] Top shape: 111 20 (2220)
I0501 09:06:49.983611 13105 net.cpp:139] Memory required for data: 19859676
I0501 09:06:49.983614 13105 layer_factory.hpp:77] Creating layer ip2
I0501 09:06:49.983619 13105 net.cpp:86] Creating Layer ip2
I0501 09:06:49.983623 13105 net.cpp:408] ip2 <- ip1
I0501 09:06:49.983628 13105 net.cpp:382] ip2 -> ip2
I0501 09:06:49.983739 13105 net.cpp:124] Setting up ip2
I0501 09:06:49.983747 13105 net.cpp:131] Top shape: 111 40 (4440)
I0501 09:06:49.983749 13105 net.cpp:139] Memory required for data: 19877436
I0501 09:06:49.983755 13105 layer_factory.hpp:77] Creating layer relu2
I0501 09:06:49.983760 13105 net.cpp:86] Creating Layer relu2
I0501 09:06:49.983763 13105 net.cpp:408] relu2 <- ip2
I0501 09:06:49.983767 13105 net.cpp:369] relu2 -> ip2 (in-place)
I0501 09:06:49.983907 13105 net.cpp:124] Setting up relu2
I0501 09:06:49.983916 13105 net.cpp:131] Top shape: 111 40 (4440)
I0501 09:06:49.983918 13105 net.cpp:139] Memory required for data: 19895196
I0501 09:06:49.983922 13105 layer_factory.hpp:77] Creating layer ip3
I0501 09:06:49.983928 13105 net.cpp:86] Creating Layer ip3
I0501 09:06:49.983932 13105 net.cpp:408] ip3 <- ip2
I0501 09:06:49.983935 13105 net.cpp:382] ip3 -> ip3
I0501 09:06:49.984028 13105 net.cpp:124] Setting up ip3
I0501 09:06:49.984035 13105 net.cpp:131] Top shape: 111 10 (1110)
I0501 09:06:49.984038 13105 net.cpp:139] Memory required for data: 19899636
I0501 09:06:49.984043 13105 layer_factory.hpp:77] Creating layer relu3
I0501 09:06:49.984048 13105 net.cpp:86] Creating Layer relu3
I0501 09:06:49.984051 13105 net.cpp:408] relu3 <- ip3
I0501 09:06:49.984055 13105 net.cpp:369] relu3 -> ip3 (in-place)
I0501 09:06:49.984210 13105 net.cpp:124] Setting up relu3
I0501 09:06:49.984217 13105 net.cpp:131] Top shape: 111 10 (1110)
I0501 09:06:49.984221 13105 net.cpp:139] Memory required for data: 19904076
I0501 09:06:49.984225 13105 layer_factory.hpp:77] Creating layer ip4
I0501 09:06:49.984244 13105 net.cpp:86] Creating Layer ip4
I0501 09:06:49.984247 13105 net.cpp:408] ip4 <- ip3
I0501 09:06:49.984252 13105 net.cpp:382] ip4 -> ip4
I0501 09:06:49.984344 13105 net.cpp:124] Setting up ip4
I0501 09:06:49.984351 13105 net.cpp:131] Top shape: 111 10 (1110)
I0501 09:06:49.984354 13105 net.cpp:139] Memory required for data: 19908516
I0501 09:06:49.984361 13105 layer_factory.hpp:77] Creating layer loss
I0501 09:06:49.984367 13105 net.cpp:86] Creating Layer loss
I0501 09:06:49.984370 13105 net.cpp:408] loss <- ip4
I0501 09:06:49.984375 13105 net.cpp:408] loss <- label
I0501 09:06:49.984380 13105 net.cpp:382] loss -> loss
I0501 09:06:49.984411 13105 layer_factory.hpp:77] Creating layer loss
…
I0501 09:06:49.985627 13105 solver.cpp:173] Creating test net (#0) specified by net file: ECE595/cifar/train_test/var_everything/cifar_train_test_530.prototxt
I0501 09:06:49.985656 13105 net.cpp:296] The NetState phase (1) differed from the phase (0) specified by a rule in layer cifar
I0501 09:06:49.985746 13105 net.cpp:53] Initializing net from parameters: 
name: "CIFAR"
state {
  phase: TEST
}
layer {
  name: "cifar"
  type: "Data"
  top: "data"
  top: "label"
  include {
    phase: TEST
  }
  transform_param {
    mean_file: "examples/cifar10/mean.binaryproto"
  }
  data_param {
    source: "examples/cifar10/cifar10_test_lmdb"
    batch_size: 1000
    backend: LMDB
  }
}
layer {
  name: "conv0"
  type: "Convolution"
  bottom: "data"
  top: "conv0"
  param {
    lr_mult: 1
  }
  param {
    lr_mult: 2
  }
  convolution_param {
    num_output: 16
    pad: 2
    kernel_size: 3
    stride: 1
    weight_filler {
      type: "gaussian"
      std: 0.01
    }
    bias_filler {
      type: "constant"
    }
  }
}
layer {
  name: "Sigmoid0"
  type: "Sigmoid"
  bottom: "conv0"
  top: "Sigmoid0"
}
layer {
  name: "pool0"
  type: "Pooling"
  bottom: "Sigmoid0"
  top: "pool0"
  pooling_param {
    pool: AVE
    kernel_size: 3
    stride: 2
  }
}
layer {
  name: "ip1"
  type: "InnerProduct"
  bottom: "pool0"
  top: "ip1"
  param {
    lr_mult: 1
  }
  param {
    lr_mult: 2
  }
  inner_product_param {
    num_output: 20
    weight_filler {
      type: "gaussian"
      std: 0.01
    }
    bias_filler {
      type: "constant"
    }
  }
}
layer {
  name: "relu1"
  type: "ReLU"
  bottom: "ip1"
  top: "ip1"
}
layer {
  name: "ip2"
  type: "InnerProduct"
  bottom: "ip1"
  top: "ip2"
  param {
    lr_mult: 1
  }
  param {
    lr_mult: 2
  }
  inner_product_param {
    num_output: 40
    weight_filler {
      type: "gaussian"
      std: 0.01
    }
    bias_filler {
      type: "constant"
    }
  }
}
layer {
  name: "relu2"
  type: "ReLU"
  bottom: "ip2"
  top: "ip2"
}
layer {
  name: "ip3"
  type: "InnerProduct"
  bottom: "ip2"
  top: "ip3"
  param {
    lr_mult: 1
  }
  param {
    lr_mult: 2
  }
  inner_product_param {
    num_output: 10
    weight_filler {
      type: "gaussian"
      std: 0.01
    }
    bias_filler {
      type: "constant"
    }
  }
}
layer {
  name: "relu3"
  type: "ReLU"
  bottom: "ip3"
  top: "ip3"
}
layer {
  name: "ip4"
  type: "InnerProduct"
  bottom: "ip3"
  top: "ip4"
  param {
    lr_mult: 1
  }
  param {
    lr_mult: 2
  }
  inner_product_param {
    num_output: 10
    weight_filler {
      type: "gaussian"
      std: 0.01
    }
    bias_filler {
      type: "constant"
    }
  }
}
layer {
  name: "accuracy"
  type: "Accuracy"
  bottom: "ip4"
  bottom: "label"
  top: "accuracy"
  include {
    phase: TEST
  }
}
layer {
  name: "loss"
  type: "SoftmaxWithLoss"
  bottom: "ip4"
  bottom: "label"
  top: "loss"
}
I0501 09:06:49.985822 13105 layer_factory.hpp:77] Creating layer cifar
I0501 09:06:49.985867 13105 db_lmdb.cpp:35] Opened lmdb examples/cifar10/cifar10_test_lmdb
I0501 09:06:49.985878 13105 net.cpp:86] Creating Layer cifar
I0501 09:06:49.985883 13105 net.cpp:382] cifar -> data
I0501 09:06:49.985891 13105 net.cpp:382] cifar -> label
I0501 09:06:49.985898 13105 data_transformer.cpp:25] Loading mean file from: examples/cifar10/mean.binaryproto
I0501 09:06:49.986044 13105 data_layer.cpp:45] output data size: 1000,3,32,32
I0501 09:06:50.008074 13105 net.cpp:124] Setting up cifar
I0501 09:06:50.008116 13105 net.cpp:131] Top shape: 1000 3 32 32 (3072000)
I0501 09:06:50.008121 13105 net.cpp:131] Top shape: 1000 (1000)
I0501 09:06:50.008124 13105 net.cpp:139] Memory required for data: 12292000
I0501 09:06:50.008131 13105 layer_factory.hpp:77] Creating layer label_cifar_1_split
I0501 09:06:50.008143 13105 net.cpp:86] Creating Layer label_cifar_1_split
I0501 09:06:50.008147 13105 net.cpp:408] label_cifar_1_split <- label
I0501 09:06:50.008154 13105 net.cpp:382] label_cifar_1_split -> label_cifar_1_split_0
I0501 09:06:50.008163 13105 net.cpp:382] label_cifar_1_split -> label_cifar_1_split_1
I0501 09:06:50.008294 13105 net.cpp:124] Setting up label_cifar_1_split
I0501 09:06:50.008302 13105 net.cpp:131] Top shape: 1000 (1000)
I0501 09:06:50.008307 13105 net.cpp:131] Top shape: 1000 (1000)
I0501 09:06:50.008311 13105 net.cpp:139] Memory required for data: 12300000
I0501 09:06:50.008313 13105 layer_factory.hpp:77] Creating layer conv0
I0501 09:06:50.008324 13105 net.cpp:86] Creating Layer conv0
I0501 09:06:50.008327 13105 net.cpp:408] conv0 <- data
I0501 09:06:50.008333 13105 net.cpp:382] conv0 -> conv0
I0501 09:06:50.010141 13105 net.cpp:124] Setting up conv0
I0501 09:06:50.010169 13105 net.cpp:131] Top shape: 1000 16 34 34 (18496000)
I0501 09:06:50.010172 13105 net.cpp:139] Memory required for data: 86284000
I0501 09:06:50.010198 13105 layer_factory.hpp:77] Creating layer Sigmoid0
I0501 09:06:50.010205 13105 net.cpp:86] Creating Layer Sigmoid0
I0501 09:06:50.010208 13105 net.cpp:408] Sigmoid0 <- conv0
I0501 09:06:50.010213 13105 net.cpp:382] Sigmoid0 -> Sigmoid0
I0501 09:06:50.010464 13105 net.cpp:124] Setting up Sigmoid0
I0501 09:06:50.010474 13105 net.cpp:131] Top shape: 1000 16 34 34 (18496000)
I0501 09:06:50.010478 13105 net.cpp:139] Memory required for data: 160268000
I0501 09:06:50.010481 13105 layer_factory.hpp:77] Creating layer pool0
I0501 09:06:50.010493 13105 net.cpp:86] Creating Layer pool0
I0501 09:06:50.010496 13105 net.cpp:408] pool0 <- Sigmoid0
I0501 09:06:50.010501 13105 net.cpp:382] pool0 -> pool0
I0501 09:06:50.010828 13105 net.cpp:124] Setting up pool0
I0501 09:06:50.010838 13105 net.cpp:131] Top shape: 1000 16 17 17 (4624000)
I0501 09:06:50.010855 13105 net.cpp:139] Memory required for data: 178764000
I0501 09:06:50.010859 13105 layer_factory.hpp:77] Creating layer ip1
I0501 09:06:50.010869 13105 net.cpp:86] Creating Layer ip1
I0501 09:06:50.010874 13105 net.cpp:408] ip1 <- pool0
I0501 09:06:50.010879 13105 net.cpp:382] ip1 -> ip1
I0501 09:06:50.014485 13105 net.cpp:124] Setting up ip1
I0501 09:06:50.014497 13105 net.cpp:131] Top shape: 1000 20 (20000)
I0501 09:06:50.014514 13105 net.cpp:139] Memory required for data: 178844000
I0501 09:06:50.014536 13105 layer_factory.hpp:77] Creating layer relu1
I0501 09:06:50.014544 13105 net.cpp:86] Creating Layer relu1
I0501 09:06:50.014549 13105 net.cpp:408] relu1 <- ip1
I0501 09:06:50.014559 13105 net.cpp:369] relu1 -> ip1 (in-place)
I0501 09:06:50.014746 13105 net.cpp:124] Setting up relu1
I0501 09:06:50.014755 13105 net.cpp:131] Top shape: 1000 20 (20000)
I0501 09:06:50.014761 13105 net.cpp:139] Memory required for data: 178924000
I0501 09:06:50.014765 13105 layer_factory.hpp:77] Creating layer ip2
I0501 09:06:50.014770 13105 net.cpp:86] Creating Layer ip2
I0501 09:06:50.014775 13105 net.cpp:408] ip2 <- ip1
I0501 09:06:50.014780 13105 net.cpp:382] ip2 -> ip2
I0501 09:06:50.014932 13105 net.cpp:124] Setting up ip2
I0501 09:06:50.014940 13105 net.cpp:131] Top shape: 1000 40 (40000)
I0501 09:06:50.014943 13105 net.cpp:139] Memory required for data: 179084000
I0501 09:06:50.014951 13105 layer_factory.hpp:77] Creating layer relu2
I0501 09:06:50.014974 13105 net.cpp:86] Creating Layer relu2
I0501 09:06:50.014978 13105 net.cpp:408] relu2 <- ip2
I0501 09:06:50.014984 13105 net.cpp:369] relu2 -> ip2 (in-place)
I0501 09:06:50.015768 13105 net.cpp:124] Setting up relu2
I0501 09:06:50.015796 13105 net.cpp:131] Top shape: 1000 40 (40000)
I0501 09:06:50.015799 13105 net.cpp:139] Memory required for data: 179244000
I0501 09:06:50.015803 13105 layer_factory.hpp:77] Creating layer ip3
I0501 09:06:50.015810 13105 net.cpp:86] Creating Layer ip3
I0501 09:06:50.015815 13105 net.cpp:408] ip3 <- ip2
I0501 09:06:50.015822 13105 net.cpp:382] ip3 -> ip3
I0501 09:06:50.015944 13105 net.cpp:124] Setting up ip3
I0501 09:06:50.015952 13105 net.cpp:131] Top shape: 1000 10 (10000)
I0501 09:06:50.015955 13105 net.cpp:139] Memory required for data: 179284000
I0501 09:06:50.015960 13105 layer_factory.hpp:77] Creating layer relu3
I0501 09:06:50.015966 13105 net.cpp:86] Creating Layer relu3
I0501 09:06:50.015969 13105 net.cpp:408] relu3 <- ip3
I0501 09:06:50.015974 13105 net.cpp:369] relu3 -> ip3 (in-place)
I0501 09:06:50.016147 13105 net.cpp:124] Setting up relu3
I0501 09:06:50.016156 13105 net.cpp:131] Top shape: 1000 10 (10000)
I0501 09:06:50.016160 13105 net.cpp:139] Memory required for data: 179324000
I0501 09:06:50.016163 13105 layer_factory.hpp:77] Creating layer ip4
I0501 09:06:50.016170 13105 net.cpp:86] Creating Layer ip4
I0501 09:06:50.016173 13105 net.cpp:408] ip4 <- ip3
I0501 09:06:50.016180 13105 net.cpp:382] ip4 -> ip4
I0501 09:06:50.016283 13105 net.cpp:124] Setting up ip4
I0501 09:06:50.016290 13105 net.cpp:131] Top shape: 1000 10 (10000)
I0501 09:06:50.016294 13105 net.cpp:139] Memory required for data: 179364000
I0501 09:06:50.016301 13105 layer_factory.hpp:77] Creating layer ip4_ip4_0_split
I0501 09:06:50.016306 13105 net.cpp:86] Creating Layer ip4_ip4_0_split
I0501 09:06:50.016309 13105 net.cpp:408] ip4_ip4_0_split <- ip4
I0501 09:06:50.016314 13105 net.cpp:382] ip4_ip4_0_split -> ip4_ip4_0_split_0
I0501 09:06:50.016320 13105 net.cpp:382] ip4_ip4_0_split -> ip4_ip4_0_split_1
I0501 09:06:50.016351 13105 net.cpp:124] Setting up ip4_ip4_0_split
I0501 09:06:50.016360 13105 net.cpp:131] Top shape: 1000 10 (10000)
I0501 09:06:50.016362 13105 net.cpp:131] Top shape: 1000 10 (10000)
I0501 09:06:50.016366 13105 net.cpp:139] Memory required for data: 179444000
I0501 09:06:50.016368 13105 layer_factory.hpp:77] Creating layer accuracy
I0501 09:06:50.016378 13105 net.cpp:86] Creating Layer accuracy
I0501 09:06:50.016381 13105 net.cpp:408] accuracy <- ip4_ip4_0_split_0
I0501 09:06:50.016386 13105 net.cpp:408] accuracy <- label_cifar_1_split_0
I0501 09:06:50.016391 13105 net.cpp:382] accuracy -> accuracy
…
