…
I0430 17:55:56.819677 21289 net.cpp:296] The NetState phase (0) differed from the phase (1) specified by a rule in layer cifar
I0430 17:55:56.819692 21289 net.cpp:296] The NetState phase (0) differed from the phase (1) specified by a rule in layer accuracy
I0430 17:55:56.819777 21289 net.cpp:53] Initializing net from parameters: 
name: "CIFAR"
state {
  phase: TRAIN
  level: 0
  stage: ""
}
layer {
  name: "cifar"
  type: "Data"
  top: "data"
  top: "label"
  include {
    phase: TRAIN
  }
  transform_param {
    mean_file: "examples/cifar10/mean.binaryproto"
  }
  data_param {
    source: "examples/cifar10/cifar10_train_lmdb"
    batch_size: 111
    backend: LMDB
  }
}
layer {
  name: "ip1"
  type: "InnerProduct"
  bottom: "data"
  top: "ip1"
  param {
    lr_mult: 1
  }
  param {
    lr_mult: 2
  }
  inner_product_param {
    num_output: 10
    weight_filler {
      type: "gaussian"
      std: 0.01
    }
    bias_filler {
      type: "constant"
    }
  }
}
layer {
  name: "relu1"
  type: "ReLU"
  bottom: "ip1"
  top: "ip1"
}
layer {
  name: "ip2"
  type: "InnerProduct"
  bottom: "ip1"
  top: "ip2"
  param {
    lr_mult: 1
  }
  param {
    lr_mult: 2
  }
  inner_product_param {
    num_output: 160
    weight_filler {
      type: "gaussian"
      std: 0.01
    }
    bias_filler {
      type: "constant"
    }
  }
}
layer {
  name: "relu2"
  type: "ReLU"
  bottom: "ip2"
  top: "ip2"
}
layer {
  name: "ip3"
  type: "InnerProduct"
  bottom: "ip2"
  top: "ip3"
  param {
    lr_mult: 1
  }
  param {
    lr_mult: 2
  }
  inner_product_param {
    num_output: 10
    weight_filler {
      type: "gaussian"
      std: 0.01
    }
    bias_filler {
      type: "constant"
    }
  }
}
layer {
  name: "relu3"
  type: "ReLU"
  bottom: "ip3"
  top: "ip3"
}
layer {
  name: "ip4"
  type: "InnerProduct"
  bottom: "ip3"
  top: "ip4"
  param {
    lr_mult: 1
  }
  param {
    lr_mult: 2
  }
  inner_product_param {
    num_output: 10
    weight_filler {
      type: "gaussian"
      std: 0.01
    }
    bias_filler {
      type: "constant"
    }
  }
}
layer {
  name: "loss"
  type: "SoftmaxWithLoss"
  bottom: "ip4"
  bottom: "label"
  top: "loss"
}
I0430 17:55:56.819847 21289 layer_factory.hpp:77] Creating layer cifar
I0430 17:55:56.819947 21289 db_lmdb.cpp:35] Opened lmdb examples/cifar10/cifar10_train_lmdb
I0430 17:55:56.819972 21289 net.cpp:86] Creating Layer cifar
I0430 17:55:56.819981 21289 net.cpp:382] cifar -> data
I0430 17:55:56.820003 21289 net.cpp:382] cifar -> label
I0430 17:55:56.820019 21289 data_transformer.cpp:25] Loading mean file from: examples/cifar10/mean.binaryproto
I0430 17:55:56.822140 21289 data_layer.cpp:45] output data size: 111,3,32,32
I0430 17:55:56.830013 21289 net.cpp:124] Setting up cifar
I0430 17:55:56.830031 21289 net.cpp:131] Top shape: 111 3 32 32 (340992)
I0430 17:55:56.830039 21289 net.cpp:131] Top shape: 111 (111)
I0430 17:55:56.830041 21289 net.cpp:139] Memory required for data: 1364412
I0430 17:55:56.830049 21289 layer_factory.hpp:77] Creating layer ip1
I0430 17:55:56.830060 21289 net.cpp:86] Creating Layer ip1
I0430 17:55:56.830065 21289 net.cpp:408] ip1 <- data
I0430 17:55:56.830076 21289 net.cpp:382] ip1 -> ip1
I0430 17:55:56.832314 21289 net.cpp:124] Setting up ip1
I0430 17:55:56.832329 21289 net.cpp:131] Top shape: 111 10 (1110)
I0430 17:55:56.832334 21289 net.cpp:139] Memory required for data: 1368852
I0430 17:55:56.832347 21289 layer_factory.hpp:77] Creating layer relu1
I0430 17:55:56.832355 21289 net.cpp:86] Creating Layer relu1
I0430 17:55:56.832376 21289 net.cpp:408] relu1 <- ip1
I0430 17:55:56.832383 21289 net.cpp:369] relu1 -> ip1 (in-place)
I0430 17:55:57.102481 21289 net.cpp:124] Setting up relu1
I0430 17:55:57.102509 21289 net.cpp:131] Top shape: 111 10 (1110)
I0430 17:55:57.102512 21289 net.cpp:139] Memory required for data: 1373292
I0430 17:55:57.102517 21289 layer_factory.hpp:77] Creating layer ip2
I0430 17:55:57.102530 21289 net.cpp:86] Creating Layer ip2
I0430 17:55:57.102533 21289 net.cpp:408] ip2 <- ip1
I0430 17:55:57.102541 21289 net.cpp:382] ip2 -> ip2
I0430 17:55:57.102700 21289 net.cpp:124] Setting up ip2
I0430 17:55:57.102708 21289 net.cpp:131] Top shape: 111 160 (17760)
I0430 17:55:57.102711 21289 net.cpp:139] Memory required for data: 1444332
I0430 17:55:57.102721 21289 layer_factory.hpp:77] Creating layer relu2
I0430 17:55:57.102730 21289 net.cpp:86] Creating Layer relu2
I0430 17:55:57.102748 21289 net.cpp:408] relu2 <- ip2
I0430 17:55:57.102752 21289 net.cpp:369] relu2 -> ip2 (in-place)
I0430 17:55:57.103509 21289 net.cpp:124] Setting up relu2
I0430 17:55:57.103521 21289 net.cpp:131] Top shape: 111 160 (17760)
I0430 17:55:57.103524 21289 net.cpp:139] Memory required for data: 1515372
I0430 17:55:57.103528 21289 layer_factory.hpp:77] Creating layer ip3
I0430 17:55:57.103534 21289 net.cpp:86] Creating Layer ip3
I0430 17:55:57.103538 21289 net.cpp:408] ip3 <- ip2
I0430 17:55:57.103543 21289 net.cpp:382] ip3 -> ip3
I0430 17:55:57.103688 21289 net.cpp:124] Setting up ip3
I0430 17:55:57.103694 21289 net.cpp:131] Top shape: 111 10 (1110)
I0430 17:55:57.103698 21289 net.cpp:139] Memory required for data: 1519812
I0430 17:55:57.103704 21289 layer_factory.hpp:77] Creating layer relu3
I0430 17:55:57.103709 21289 net.cpp:86] Creating Layer relu3
I0430 17:55:57.103715 21289 net.cpp:408] relu3 <- ip3
I0430 17:55:57.103719 21289 net.cpp:369] relu3 -> ip3 (in-place)
I0430 17:55:57.103873 21289 net.cpp:124] Setting up relu3
I0430 17:55:57.103881 21289 net.cpp:131] Top shape: 111 10 (1110)
I0430 17:55:57.103883 21289 net.cpp:139] Memory required for data: 1524252
I0430 17:55:57.103886 21289 layer_factory.hpp:77] Creating layer ip4
I0430 17:55:57.103893 21289 net.cpp:86] Creating Layer ip4
I0430 17:55:57.103895 21289 net.cpp:408] ip4 <- ip3
I0430 17:55:57.103899 21289 net.cpp:382] ip4 -> ip4
I0430 17:55:57.104019 21289 net.cpp:124] Setting up ip4
I0430 17:55:57.104027 21289 net.cpp:131] Top shape: 111 10 (1110)
I0430 17:55:57.104028 21289 net.cpp:139] Memory required for data: 1528692
I0430 17:55:57.104033 21289 layer_factory.hpp:77] Creating layer loss
I0430 17:55:57.104040 21289 net.cpp:86] Creating Layer loss
I0430 17:55:57.104043 21289 net.cpp:408] loss <- ip4
I0430 17:55:57.104046 21289 net.cpp:408] loss <- label
I0430 17:55:57.104051 21289 net.cpp:382] loss -> loss
I0430 17:55:57.104070 21289 layer_factory.hpp:77] Creating layer loss
…
I0430 17:55:57.104609 21289 solver.cpp:173] Creating test net (#0) specified by net file: ECE595/cifar/train_test/var_everything/cifar_train_test_50.prototxt
I0430 17:55:57.104646 21289 net.cpp:296] The NetState phase (1) differed from the phase (0) specified by a rule in layer cifar
I0430 17:55:57.104718 21289 net.cpp:53] Initializing net from parameters: 
name: "CIFAR"
state {
  phase: TEST
}
layer {
  name: "cifar"
  type: "Data"
  top: "data"
  top: "label"
  include {
    phase: TEST
  }
  transform_param {
    mean_file: "examples/cifar10/mean.binaryproto"
  }
  data_param {
    source: "examples/cifar10/cifar10_test_lmdb"
    batch_size: 1000
    backend: LMDB
  }
}
layer {
  name: "ip1"
  type: "InnerProduct"
  bottom: "data"
  top: "ip1"
  param {
    lr_mult: 1
  }
  param {
    lr_mult: 2
  }
  inner_product_param {
    num_output: 10
    weight_filler {
      type: "gaussian"
      std: 0.01
    }
    bias_filler {
      type: "constant"
    }
  }
}
layer {
  name: "relu1"
  type: "ReLU"
  bottom: "ip1"
  top: "ip1"
}
layer {
  name: "ip2"
  type: "InnerProduct"
  bottom: "ip1"
  top: "ip2"
  param {
    lr_mult: 1
  }
  param {
    lr_mult: 2
  }
  inner_product_param {
    num_output: 160
    weight_filler {
      type: "gaussian"
      std: 0.01
    }
    bias_filler {
      type: "constant"
    }
  }
}
layer {
  name: "relu2"
  type: "ReLU"
  bottom: "ip2"
  top: "ip2"
}
layer {
  name: "ip3"
  type: "InnerProduct"
  bottom: "ip2"
  top: "ip3"
  param {
    lr_mult: 1
  }
  param {
    lr_mult: 2
  }
  inner_product_param {
    num_output: 10
    weight_filler {
      type: "gaussian"
      std: 0.01
    }
    bias_filler {
      type: "constant"
    }
  }
}
layer {
  name: "relu3"
  type: "ReLU"
  bottom: "ip3"
  top: "ip3"
}
layer {
  name: "ip4"
  type: "InnerProduct"
  bottom: "ip3"
  top: "ip4"
  param {
    lr_mult: 1
  }
  param {
    lr_mult: 2
  }
  inner_product_param {
    num_output: 10
    weight_filler {
      type: "gaussian"
      std: 0.01
    }
    bias_filler {
      type: "constant"
    }
  }
}
layer {
  name: "accuracy"
  type: "Accuracy"
  bottom: "ip4"
  bottom: "label"
  top: "accuracy"
  include {
    phase: TEST
  }
}
layer {
  name: "loss"
  type: "SoftmaxWithLoss"
  bottom: "ip4"
  bottom: "label"
  top: "loss"
}
I0430 17:55:57.104774 21289 layer_factory.hpp:77] Creating layer cifar
I0430 17:55:57.104838 21289 db_lmdb.cpp:35] Opened lmdb examples/cifar10/cifar10_test_lmdb
I0430 17:55:57.104852 21289 net.cpp:86] Creating Layer cifar
I0430 17:55:57.104857 21289 net.cpp:382] cifar -> data
I0430 17:55:57.104864 21289 net.cpp:382] cifar -> label
I0430 17:55:57.104889 21289 data_transformer.cpp:25] Loading mean file from: examples/cifar10/mean.binaryproto
I0430 17:55:57.105028 21289 data_layer.cpp:45] output data size: 1000,3,32,32
I0430 17:55:57.127333 21289 net.cpp:124] Setting up cifar
I0430 17:55:57.127374 21289 net.cpp:131] Top shape: 1000 3 32 32 (3072000)
I0430 17:55:57.127380 21289 net.cpp:131] Top shape: 1000 (1000)
I0430 17:55:57.127383 21289 net.cpp:139] Memory required for data: 12292000
I0430 17:55:57.127390 21289 layer_factory.hpp:77] Creating layer label_cifar_1_split
I0430 17:55:57.127415 21289 net.cpp:86] Creating Layer label_cifar_1_split
I0430 17:55:57.127434 21289 net.cpp:408] label_cifar_1_split <- label
I0430 17:55:57.127441 21289 net.cpp:382] label_cifar_1_split -> label_cifar_1_split_0
I0430 17:55:57.127449 21289 net.cpp:382] label_cifar_1_split -> label_cifar_1_split_1
I0430 17:55:57.127523 21289 net.cpp:124] Setting up label_cifar_1_split
I0430 17:55:57.127530 21289 net.cpp:131] Top shape: 1000 (1000)
I0430 17:55:57.127534 21289 net.cpp:131] Top shape: 1000 (1000)
I0430 17:55:57.127537 21289 net.cpp:139] Memory required for data: 12300000
I0430 17:55:57.127540 21289 layer_factory.hpp:77] Creating layer ip1
I0430 17:55:57.127548 21289 net.cpp:86] Creating Layer ip1
I0430 17:55:57.127552 21289 net.cpp:408] ip1 <- data
I0430 17:55:57.127557 21289 net.cpp:382] ip1 -> ip1
I0430 17:55:57.128470 21289 net.cpp:124] Setting up ip1
I0430 17:55:57.128479 21289 net.cpp:131] Top shape: 1000 10 (10000)
I0430 17:55:57.128496 21289 net.cpp:139] Memory required for data: 12340000
I0430 17:55:57.128520 21289 layer_factory.hpp:77] Creating layer relu1
I0430 17:55:57.128526 21289 net.cpp:86] Creating Layer relu1
I0430 17:55:57.128530 21289 net.cpp:408] relu1 <- ip1
I0430 17:55:57.128548 21289 net.cpp:369] relu1 -> ip1 (in-place)
I0430 17:55:57.129420 21289 net.cpp:124] Setting up relu1
I0430 17:55:57.129433 21289 net.cpp:131] Top shape: 1000 10 (10000)
I0430 17:55:57.129452 21289 net.cpp:139] Memory required for data: 12380000
I0430 17:55:57.129456 21289 layer_factory.hpp:77] Creating layer ip2
I0430 17:55:57.129463 21289 net.cpp:86] Creating Layer ip2
I0430 17:55:57.129467 21289 net.cpp:408] ip2 <- ip1
I0430 17:55:57.129472 21289 net.cpp:382] ip2 -> ip2
I0430 17:55:57.130561 21289 net.cpp:124] Setting up ip2
I0430 17:55:57.130585 21289 net.cpp:131] Top shape: 1000 160 (160000)
I0430 17:55:57.130589 21289 net.cpp:139] Memory required for data: 13020000
I0430 17:55:57.130610 21289 layer_factory.hpp:77] Creating layer relu2
I0430 17:55:57.130616 21289 net.cpp:86] Creating Layer relu2
I0430 17:55:57.130620 21289 net.cpp:408] relu2 <- ip2
I0430 17:55:57.130623 21289 net.cpp:369] relu2 -> ip2 (in-place)
I0430 17:55:57.130794 21289 net.cpp:124] Setting up relu2
I0430 17:55:57.130801 21289 net.cpp:131] Top shape: 1000 160 (160000)
I0430 17:55:57.130805 21289 net.cpp:139] Memory required for data: 13660000
I0430 17:55:57.130807 21289 layer_factory.hpp:77] Creating layer ip3
I0430 17:55:57.130813 21289 net.cpp:86] Creating Layer ip3
I0430 17:55:57.130816 21289 net.cpp:408] ip3 <- ip2
I0430 17:55:57.130821 21289 net.cpp:382] ip3 -> ip3
I0430 17:55:57.130973 21289 net.cpp:124] Setting up ip3
I0430 17:55:57.130980 21289 net.cpp:131] Top shape: 1000 10 (10000)
I0430 17:55:57.130983 21289 net.cpp:139] Memory required for data: 13700000
I0430 17:55:57.130990 21289 layer_factory.hpp:77] Creating layer relu3
I0430 17:55:57.130995 21289 net.cpp:86] Creating Layer relu3
I0430 17:55:57.131000 21289 net.cpp:408] relu3 <- ip3
I0430 17:55:57.131003 21289 net.cpp:369] relu3 -> ip3 (in-place)
I0430 17:55:57.131147 21289 net.cpp:124] Setting up relu3
I0430 17:55:57.131155 21289 net.cpp:131] Top shape: 1000 10 (10000)
I0430 17:55:57.131158 21289 net.cpp:139] Memory required for data: 13740000
I0430 17:55:57.131161 21289 layer_factory.hpp:77] Creating layer ip4
I0430 17:55:57.131168 21289 net.cpp:86] Creating Layer ip4
I0430 17:55:57.131171 21289 net.cpp:408] ip4 <- ip3
I0430 17:55:57.131176 21289 net.cpp:382] ip4 -> ip4
I0430 17:55:57.131273 21289 net.cpp:124] Setting up ip4
I0430 17:55:57.131279 21289 net.cpp:131] Top shape: 1000 10 (10000)
I0430 17:55:57.131283 21289 net.cpp:139] Memory required for data: 13780000
I0430 17:55:57.131288 21289 layer_factory.hpp:77] Creating layer ip4_ip4_0_split
I0430 17:55:57.131291 21289 net.cpp:86] Creating Layer ip4_ip4_0_split
I0430 17:55:57.131295 21289 net.cpp:408] ip4_ip4_0_split <- ip4
I0430 17:55:57.131299 21289 net.cpp:382] ip4_ip4_0_split -> ip4_ip4_0_split_0
I0430 17:55:57.131305 21289 net.cpp:382] ip4_ip4_0_split -> ip4_ip4_0_split_1
I0430 17:55:57.131333 21289 net.cpp:124] Setting up ip4_ip4_0_split
I0430 17:55:57.131338 21289 net.cpp:131] Top shape: 1000 10 (10000)
I0430 17:55:57.131343 21289 net.cpp:131] Top shape: 1000 10 (10000)
I0430 17:55:57.131345 21289 net.cpp:139] Memory required for data: 13860000
I0430 17:55:57.131348 21289 layer_factory.hpp:77] Creating layer accuracy
I0430 17:55:57.131357 21289 net.cpp:86] Creating Layer accuracy
I0430 17:55:57.131361 21289 net.cpp:408] accuracy <- ip4_ip4_0_split_0
I0430 17:55:57.131364 21289 net.cpp:408] accuracy <- label_cifar_1_split_0
I0430 17:55:57.131368 21289 net.cpp:382] accuracy -> accuracy
…
