…
I0430 17:21:29.967905 19605 net.cpp:296] The NetState phase (0) differed from the phase (1) specified by a rule in layer cifar
I0430 17:21:29.967921 19605 net.cpp:296] The NetState phase (0) differed from the phase (1) specified by a rule in layer accuracy
I0430 17:21:29.968004 19605 net.cpp:53] Initializing net from parameters: 
name: "CIFAR"
state {
  phase: TRAIN
  level: 0
  stage: ""
}
layer {
  name: "cifar"
  type: "Data"
  top: "data"
  top: "label"
  include {
    phase: TRAIN
  }
  transform_param {
    mean_file: "examples/cifar10/mean.binaryproto"
  }
  data_param {
    source: "examples/cifar10/cifar10_train_lmdb"
    batch_size: 111
    backend: LMDB
  }
}
layer {
  name: "ip1"
  type: "InnerProduct"
  bottom: "data"
  top: "ip1"
  param {
    lr_mult: 1
  }
  param {
    lr_mult: 2
  }
  inner_product_param {
    num_output: 10
    weight_filler {
      type: "gaussian"
      std: 0.01
    }
    bias_filler {
      type: "constant"
    }
  }
}
layer {
  name: "relu1"
  type: "ReLU"
  bottom: "ip1"
  top: "ip1"
}
layer {
  name: "ip2"
  type: "InnerProduct"
  bottom: "ip1"
  top: "ip2"
  param {
    lr_mult: 1
  }
  param {
    lr_mult: 2
  }
  inner_product_param {
    num_output: 10
    weight_filler {
      type: "gaussian"
      std: 0.01
    }
    bias_filler {
      type: "constant"
    }
  }
}
layer {
  name: "relu2"
  type: "ReLU"
  bottom: "ip2"
  top: "ip2"
}
layer {
  name: "ip3"
  type: "InnerProduct"
  bottom: "ip2"
  top: "ip3"
  param {
    lr_mult: 1
  }
  param {
    lr_mult: 2
  }
  inner_product_param {
    num_output: 40
    weight_filler {
      type: "gaussian"
      std: 0.01
    }
    bias_filler {
      type: "constant"
    }
  }
}
layer {
  name: "relu3"
  type: "ReLU"
  bottom: "ip3"
  top: "ip3"
}
layer {
  name: "ip4"
  type: "InnerProduct"
  bottom: "ip3"
  top: "ip4"
  param {
    lr_mult: 1
  }
  param {
    lr_mult: 2
  }
  inner_product_param {
    num_output: 10
    weight_filler {
      type: "gaussian"
      std: 0.01
    }
    bias_filler {
      type: "constant"
    }
  }
}
layer {
  name: "loss"
  type: "SoftmaxWithLoss"
  bottom: "ip4"
  bottom: "label"
  top: "loss"
}
I0430 17:21:29.968071 19605 layer_factory.hpp:77] Creating layer cifar
I0430 17:21:29.968166 19605 db_lmdb.cpp:35] Opened lmdb examples/cifar10/cifar10_train_lmdb
I0430 17:21:29.968192 19605 net.cpp:86] Creating Layer cifar
I0430 17:21:29.968199 19605 net.cpp:382] cifar -> data
I0430 17:21:29.968222 19605 net.cpp:382] cifar -> label
I0430 17:21:29.968233 19605 data_transformer.cpp:25] Loading mean file from: examples/cifar10/mean.binaryproto
I0430 17:21:29.970311 19605 data_layer.cpp:45] output data size: 111,3,32,32
I0430 17:21:29.978277 19605 net.cpp:124] Setting up cifar
I0430 17:21:29.978297 19605 net.cpp:131] Top shape: 111 3 32 32 (340992)
I0430 17:21:29.978303 19605 net.cpp:131] Top shape: 111 (111)
I0430 17:21:29.978307 19605 net.cpp:139] Memory required for data: 1364412
I0430 17:21:29.978314 19605 layer_factory.hpp:77] Creating layer ip1
I0430 17:21:29.978338 19605 net.cpp:86] Creating Layer ip1
I0430 17:21:29.978343 19605 net.cpp:408] ip1 <- data
I0430 17:21:29.978355 19605 net.cpp:382] ip1 -> ip1
I0430 17:21:29.980495 19605 net.cpp:124] Setting up ip1
I0430 17:21:29.980510 19605 net.cpp:131] Top shape: 111 10 (1110)
I0430 17:21:29.980515 19605 net.cpp:139] Memory required for data: 1368852
I0430 17:21:29.980528 19605 layer_factory.hpp:77] Creating layer relu1
I0430 17:21:29.980537 19605 net.cpp:86] Creating Layer relu1
I0430 17:21:29.980556 19605 net.cpp:408] relu1 <- ip1
I0430 17:21:29.980567 19605 net.cpp:369] relu1 -> ip1 (in-place)
I0430 17:21:30.267397 19605 net.cpp:124] Setting up relu1
I0430 17:21:30.267426 19605 net.cpp:131] Top shape: 111 10 (1110)
I0430 17:21:30.267431 19605 net.cpp:139] Memory required for data: 1373292
I0430 17:21:30.267436 19605 layer_factory.hpp:77] Creating layer ip2
I0430 17:21:30.267451 19605 net.cpp:86] Creating Layer ip2
I0430 17:21:30.267454 19605 net.cpp:408] ip2 <- ip1
I0430 17:21:30.267462 19605 net.cpp:382] ip2 -> ip2
I0430 17:21:30.267593 19605 net.cpp:124] Setting up ip2
I0430 17:21:30.267602 19605 net.cpp:131] Top shape: 111 10 (1110)
I0430 17:21:30.267606 19605 net.cpp:139] Memory required for data: 1377732
I0430 17:21:30.267616 19605 layer_factory.hpp:77] Creating layer relu2
I0430 17:21:30.267626 19605 net.cpp:86] Creating Layer relu2
I0430 17:21:30.267628 19605 net.cpp:408] relu2 <- ip2
I0430 17:21:30.267633 19605 net.cpp:369] relu2 -> ip2 (in-place)
I0430 17:21:30.268455 19605 net.cpp:124] Setting up relu2
I0430 17:21:30.268468 19605 net.cpp:131] Top shape: 111 10 (1110)
I0430 17:21:30.268472 19605 net.cpp:139] Memory required for data: 1382172
I0430 17:21:30.268476 19605 layer_factory.hpp:77] Creating layer ip3
I0430 17:21:30.268483 19605 net.cpp:86] Creating Layer ip3
I0430 17:21:30.268487 19605 net.cpp:408] ip3 <- ip2
I0430 17:21:30.268492 19605 net.cpp:382] ip3 -> ip3
I0430 17:21:30.269532 19605 net.cpp:124] Setting up ip3
I0430 17:21:30.269546 19605 net.cpp:131] Top shape: 111 40 (4440)
I0430 17:21:30.269551 19605 net.cpp:139] Memory required for data: 1399932
I0430 17:21:30.269559 19605 layer_factory.hpp:77] Creating layer relu3
I0430 17:21:30.269565 19605 net.cpp:86] Creating Layer relu3
I0430 17:21:30.269569 19605 net.cpp:408] relu3 <- ip3
I0430 17:21:30.269573 19605 net.cpp:369] relu3 -> ip3 (in-place)
I0430 17:21:30.269738 19605 net.cpp:124] Setting up relu3
I0430 17:21:30.269747 19605 net.cpp:131] Top shape: 111 40 (4440)
I0430 17:21:30.269750 19605 net.cpp:139] Memory required for data: 1417692
I0430 17:21:30.269753 19605 layer_factory.hpp:77] Creating layer ip4
I0430 17:21:30.269760 19605 net.cpp:86] Creating Layer ip4
I0430 17:21:30.269763 19605 net.cpp:408] ip4 <- ip3
I0430 17:21:30.269769 19605 net.cpp:382] ip4 -> ip4
I0430 17:21:30.269876 19605 net.cpp:124] Setting up ip4
I0430 17:21:30.269882 19605 net.cpp:131] Top shape: 111 10 (1110)
I0430 17:21:30.269886 19605 net.cpp:139] Memory required for data: 1422132
I0430 17:21:30.269891 19605 layer_factory.hpp:77] Creating layer loss
I0430 17:21:30.269898 19605 net.cpp:86] Creating Layer loss
I0430 17:21:30.269901 19605 net.cpp:408] loss <- ip4
I0430 17:21:30.269906 19605 net.cpp:408] loss <- label
I0430 17:21:30.269911 19605 net.cpp:382] loss -> loss
I0430 17:21:30.269930 19605 layer_factory.hpp:77] Creating layer loss
…
I0430 17:21:30.270545 19605 solver.cpp:173] Creating test net (#0) specified by net file: ECE595/cifar/train_test/var_everything/cifar_train_test_32.prototxt
I0430 17:21:30.270587 19605 net.cpp:296] The NetState phase (1) differed from the phase (0) specified by a rule in layer cifar
I0430 17:21:30.270694 19605 net.cpp:53] Initializing net from parameters: 
name: "CIFAR"
state {
  phase: TEST
}
layer {
  name: "cifar"
  type: "Data"
  top: "data"
  top: "label"
  include {
    phase: TEST
  }
  transform_param {
    mean_file: "examples/cifar10/mean.binaryproto"
  }
  data_param {
    source: "examples/cifar10/cifar10_test_lmdb"
    batch_size: 1000
    backend: LMDB
  }
}
layer {
  name: "ip1"
  type: "InnerProduct"
  bottom: "data"
  top: "ip1"
  param {
    lr_mult: 1
  }
  param {
    lr_mult: 2
  }
  inner_product_param {
    num_output: 10
    weight_filler {
      type: "gaussian"
      std: 0.01
    }
    bias_filler {
      type: "constant"
    }
  }
}
layer {
  name: "relu1"
  type: "ReLU"
  bottom: "ip1"
  top: "ip1"
}
layer {
  name: "ip2"
  type: "InnerProduct"
  bottom: "ip1"
  top: "ip2"
  param {
    lr_mult: 1
  }
  param {
    lr_mult: 2
  }
  inner_product_param {
    num_output: 10
    weight_filler {
      type: "gaussian"
      std: 0.01
    }
    bias_filler {
      type: "constant"
    }
  }
}
layer {
  name: "relu2"
  type: "ReLU"
  bottom: "ip2"
  top: "ip2"
}
layer {
  name: "ip3"
  type: "InnerProduct"
  bottom: "ip2"
  top: "ip3"
  param {
    lr_mult: 1
  }
  param {
    lr_mult: 2
  }
  inner_product_param {
    num_output: 40
    weight_filler {
      type: "gaussian"
      std: 0.01
    }
    bias_filler {
      type: "constant"
    }
  }
}
layer {
  name: "relu3"
  type: "ReLU"
  bottom: "ip3"
  top: "ip3"
}
layer {
  name: "ip4"
  type: "InnerProduct"
  bottom: "ip3"
  top: "ip4"
  param {
    lr_mult: 1
  }
  param {
    lr_mult: 2
  }
  inner_product_param {
    num_output: 10
    weight_filler {
      type: "gaussian"
      std: 0.01
    }
    bias_filler {
      type: "constant"
    }
  }
}
layer {
  name: "accuracy"
  type: "Accuracy"
  bottom: "ip4"
  bottom: "label"
  top: "accuracy"
  include {
    phase: TEST
  }
}
layer {
  name: "loss"
  type: "SoftmaxWithLoss"
  bottom: "ip4"
  bottom: "label"
  top: "loss"
}
I0430 17:21:30.270757 19605 layer_factory.hpp:77] Creating layer cifar
I0430 17:21:30.270803 19605 db_lmdb.cpp:35] Opened lmdb examples/cifar10/cifar10_test_lmdb
I0430 17:21:30.270817 19605 net.cpp:86] Creating Layer cifar
I0430 17:21:30.270823 19605 net.cpp:382] cifar -> data
I0430 17:21:30.270830 19605 net.cpp:382] cifar -> label
I0430 17:21:30.270838 19605 data_transformer.cpp:25] Loading mean file from: examples/cifar10/mean.binaryproto
I0430 17:21:30.270987 19605 data_layer.cpp:45] output data size: 1000,3,32,32
I0430 17:21:30.293987 19605 net.cpp:124] Setting up cifar
I0430 17:21:30.294013 19605 net.cpp:131] Top shape: 1000 3 32 32 (3072000)
I0430 17:21:30.294019 19605 net.cpp:131] Top shape: 1000 (1000)
I0430 17:21:30.294023 19605 net.cpp:139] Memory required for data: 12292000
I0430 17:21:30.294028 19605 layer_factory.hpp:77] Creating layer label_cifar_1_split
I0430 17:21:30.294067 19605 net.cpp:86] Creating Layer label_cifar_1_split
I0430 17:21:30.294071 19605 net.cpp:408] label_cifar_1_split <- label
I0430 17:21:30.294078 19605 net.cpp:382] label_cifar_1_split -> label_cifar_1_split_0
I0430 17:21:30.294087 19605 net.cpp:382] label_cifar_1_split -> label_cifar_1_split_1
I0430 17:21:30.294148 19605 net.cpp:124] Setting up label_cifar_1_split
I0430 17:21:30.294154 19605 net.cpp:131] Top shape: 1000 (1000)
I0430 17:21:30.294157 19605 net.cpp:131] Top shape: 1000 (1000)
I0430 17:21:30.294160 19605 net.cpp:139] Memory required for data: 12300000
I0430 17:21:30.294163 19605 layer_factory.hpp:77] Creating layer ip1
I0430 17:21:30.294173 19605 net.cpp:86] Creating Layer ip1
I0430 17:21:30.294175 19605 net.cpp:408] ip1 <- data
I0430 17:21:30.294180 19605 net.cpp:382] ip1 -> ip1
I0430 17:21:30.295135 19605 net.cpp:124] Setting up ip1
I0430 17:21:30.295143 19605 net.cpp:131] Top shape: 1000 10 (10000)
I0430 17:21:30.295146 19605 net.cpp:139] Memory required for data: 12340000
I0430 17:21:30.295169 19605 layer_factory.hpp:77] Creating layer relu1
I0430 17:21:30.295176 19605 net.cpp:86] Creating Layer relu1
I0430 17:21:30.295179 19605 net.cpp:408] relu1 <- ip1
I0430 17:21:30.295183 19605 net.cpp:369] relu1 -> ip1 (in-place)
I0430 17:21:30.296012 19605 net.cpp:124] Setting up relu1
I0430 17:21:30.296025 19605 net.cpp:131] Top shape: 1000 10 (10000)
I0430 17:21:30.296027 19605 net.cpp:139] Memory required for data: 12380000
I0430 17:21:30.296031 19605 layer_factory.hpp:77] Creating layer ip2
I0430 17:21:30.296039 19605 net.cpp:86] Creating Layer ip2
I0430 17:21:30.296043 19605 net.cpp:408] ip2 <- ip1
I0430 17:21:30.296048 19605 net.cpp:382] ip2 -> ip2
I0430 17:21:30.297125 19605 net.cpp:124] Setting up ip2
I0430 17:21:30.297135 19605 net.cpp:131] Top shape: 1000 10 (10000)
I0430 17:21:30.297139 19605 net.cpp:139] Memory required for data: 12420000
I0430 17:21:30.297147 19605 layer_factory.hpp:77] Creating layer relu2
I0430 17:21:30.297152 19605 net.cpp:86] Creating Layer relu2
I0430 17:21:30.297157 19605 net.cpp:408] relu2 <- ip2
I0430 17:21:30.297161 19605 net.cpp:369] relu2 -> ip2 (in-place)
I0430 17:21:30.297317 19605 net.cpp:124] Setting up relu2
I0430 17:21:30.297327 19605 net.cpp:131] Top shape: 1000 10 (10000)
I0430 17:21:30.297329 19605 net.cpp:139] Memory required for data: 12460000
I0430 17:21:30.297333 19605 layer_factory.hpp:77] Creating layer ip3
I0430 17:21:30.297338 19605 net.cpp:86] Creating Layer ip3
I0430 17:21:30.297341 19605 net.cpp:408] ip3 <- ip2
I0430 17:21:30.297346 19605 net.cpp:382] ip3 -> ip3
I0430 17:21:30.297461 19605 net.cpp:124] Setting up ip3
I0430 17:21:30.297467 19605 net.cpp:131] Top shape: 1000 40 (40000)
I0430 17:21:30.297471 19605 net.cpp:139] Memory required for data: 12620000
I0430 17:21:30.297477 19605 layer_factory.hpp:77] Creating layer relu3
I0430 17:21:30.297482 19605 net.cpp:86] Creating Layer relu3
I0430 17:21:30.297485 19605 net.cpp:408] relu3 <- ip3
I0430 17:21:30.297489 19605 net.cpp:369] relu3 -> ip3 (in-place)
I0430 17:21:30.297633 19605 net.cpp:124] Setting up relu3
I0430 17:21:30.297641 19605 net.cpp:131] Top shape: 1000 40 (40000)
I0430 17:21:30.297644 19605 net.cpp:139] Memory required for data: 12780000
I0430 17:21:30.297647 19605 layer_factory.hpp:77] Creating layer ip4
I0430 17:21:30.297654 19605 net.cpp:86] Creating Layer ip4
I0430 17:21:30.297657 19605 net.cpp:408] ip4 <- ip3
I0430 17:21:30.297662 19605 net.cpp:382] ip4 -> ip4
I0430 17:21:30.297765 19605 net.cpp:124] Setting up ip4
I0430 17:21:30.297772 19605 net.cpp:131] Top shape: 1000 10 (10000)
I0430 17:21:30.297775 19605 net.cpp:139] Memory required for data: 12820000
I0430 17:21:30.297780 19605 layer_factory.hpp:77] Creating layer ip4_ip4_0_split
I0430 17:21:30.297785 19605 net.cpp:86] Creating Layer ip4_ip4_0_split
I0430 17:21:30.297788 19605 net.cpp:408] ip4_ip4_0_split <- ip4
I0430 17:21:30.297792 19605 net.cpp:382] ip4_ip4_0_split -> ip4_ip4_0_split_0
I0430 17:21:30.297798 19605 net.cpp:382] ip4_ip4_0_split -> ip4_ip4_0_split_1
I0430 17:21:30.297827 19605 net.cpp:124] Setting up ip4_ip4_0_split
I0430 17:21:30.297832 19605 net.cpp:131] Top shape: 1000 10 (10000)
I0430 17:21:30.297834 19605 net.cpp:131] Top shape: 1000 10 (10000)
I0430 17:21:30.297837 19605 net.cpp:139] Memory required for data: 12900000
I0430 17:21:30.297848 19605 layer_factory.hpp:77] Creating layer accuracy
I0430 17:21:30.297854 19605 net.cpp:86] Creating Layer accuracy
I0430 17:21:30.297857 19605 net.cpp:408] accuracy <- ip4_ip4_0_split_0
I0430 17:21:30.297861 19605 net.cpp:408] accuracy <- label_cifar_1_split_0
I0430 17:21:30.297865 19605 net.cpp:382] accuracy -> accuracy
…
