…
I0501 00:12:39.486258  6568 net.cpp:296] The NetState phase (0) differed from the phase (1) specified by a rule in layer cifar
I0501 00:12:39.486279  6568 net.cpp:296] The NetState phase (0) differed from the phase (1) specified by a rule in layer accuracy
I0501 00:12:39.486392  6568 net.cpp:53] Initializing net from parameters: 
name: "CIFAR"
state {
  phase: TRAIN
  level: 0
  stage: ""
}
layer {
  name: "cifar"
  type: "Data"
  top: "data"
  top: "label"
  include {
    phase: TRAIN
  }
  transform_param {
    mean_file: "examples/cifar10/mean.binaryproto"
  }
  data_param {
    source: "examples/cifar10/cifar10_train_lmdb"
    batch_size: 111
    backend: LMDB
  }
}
layer {
  name: "conv0"
  type: "Convolution"
  bottom: "data"
  top: "conv0"
  param {
    lr_mult: 1
  }
  param {
    lr_mult: 2
  }
  convolution_param {
    num_output: 8
    pad: 2
    kernel_size: 3
    stride: 1
    weight_filler {
      type: "gaussian"
      std: 0.01
    }
    bias_filler {
      type: "constant"
    }
  }
}
layer {
  name: "Sigmoid0"
  type: "Sigmoid"
  bottom: "conv0"
  top: "Sigmoid0"
}
layer {
  name: "pool0"
  type: "Pooling"
  bottom: "Sigmoid0"
  top: "pool0"
  pooling_param {
    pool: AVE
    kernel_size: 3
    stride: 2
  }
}
layer {
  name: "ip1"
  type: "InnerProduct"
  bottom: "pool0"
  top: "ip1"
  param {
    lr_mult: 1
  }
  param {
    lr_mult: 2
  }
  inner_product_param {
    num_output: 40
    weight_filler {
      type: "gaussian"
      std: 0.01
    }
    bias_filler {
      type: "constant"
    }
  }
}
layer {
  name: "relu1"
  type: "ReLU"
  bottom: "ip1"
  top: "ip1"
}
layer {
  name: "ip2"
  type: "InnerProduct"
  bottom: "ip1"
  top: "ip2"
  param {
    lr_mult: 1
  }
  param {
    lr_mult: 2
  }
  inner_product_param {
    num_output: 80
    weight_filler {
      type: "gaussian"
      std: 0.01
    }
    bias_filler {
      type: "constant"
    }
  }
}
layer {
  name: "relu2"
  type: "ReLU"
  bottom: "ip2"
  top: "ip2"
}
layer {
  name: "ip3"
  type: "InnerProduct"
  bottom: "ip2"
  top: "ip3"
  param {
    lr_mult: 1
  }
  param {
    lr_mult: 2
  }
  inner_product_param {
    num_output: 10
    weight_filler {
      type: "gaussian"
      std: 0.01
    }
    bias_filler {
      type: "constant"
    }
  }
}
layer {
  name: "relu3"
  type: "ReLU"
  bottom: "ip3"
  top: "ip3"
}
layer {
  name: "ip4"
  type: "InnerProduct"
  bottom: "ip3"
  top: "ip4"
  param {
    lr_mult: 1
  }
  param {
    lr_mult: 2
  }
  inner_product_param {
    num_output: 10
    weight_filler {
      type: "gaussian"
      std: 0.01
    }
    bias_filler {
      type: "constant"
    }
  }
}
layer {
  name: "loss"
  type: "SoftmaxWithLoss"
  bottom: "ip4"
  bottom: "label"
  top: "loss"
}
I0501 00:12:39.486474  6568 layer_factory.hpp:77] Creating layer cifar
I0501 00:12:39.486572  6568 db_lmdb.cpp:35] Opened lmdb examples/cifar10/cifar10_train_lmdb
I0501 00:12:39.486600  6568 net.cpp:86] Creating Layer cifar
I0501 00:12:39.486608  6568 net.cpp:382] cifar -> data
I0501 00:12:39.486630  6568 net.cpp:382] cifar -> label
I0501 00:12:39.486644  6568 data_transformer.cpp:25] Loading mean file from: examples/cifar10/mean.binaryproto
I0501 00:12:39.488765  6568 data_layer.cpp:45] output data size: 111,3,32,32
I0501 00:12:39.496681  6568 net.cpp:124] Setting up cifar
I0501 00:12:39.496701  6568 net.cpp:131] Top shape: 111 3 32 32 (340992)
I0501 00:12:39.496708  6568 net.cpp:131] Top shape: 111 (111)
I0501 00:12:39.496713  6568 net.cpp:139] Memory required for data: 1364412
I0501 00:12:39.496737  6568 layer_factory.hpp:77] Creating layer conv0
I0501 00:12:39.496754  6568 net.cpp:86] Creating Layer conv0
I0501 00:12:39.496760  6568 net.cpp:408] conv0 <- data
I0501 00:12:39.496776  6568 net.cpp:382] conv0 -> conv0
I0501 00:12:39.785552  6568 net.cpp:124] Setting up conv0
I0501 00:12:39.785581  6568 net.cpp:131] Top shape: 111 8 34 34 (1026528)
I0501 00:12:39.785586  6568 net.cpp:139] Memory required for data: 5470524
I0501 00:12:39.785603  6568 layer_factory.hpp:77] Creating layer Sigmoid0
I0501 00:12:39.785616  6568 net.cpp:86] Creating Layer Sigmoid0
I0501 00:12:39.785620  6568 net.cpp:408] Sigmoid0 <- conv0
I0501 00:12:39.785627  6568 net.cpp:382] Sigmoid0 -> Sigmoid0
I0501 00:12:39.785821  6568 net.cpp:124] Setting up Sigmoid0
I0501 00:12:39.785831  6568 net.cpp:131] Top shape: 111 8 34 34 (1026528)
I0501 00:12:39.785835  6568 net.cpp:139] Memory required for data: 9576636
I0501 00:12:39.785838  6568 layer_factory.hpp:77] Creating layer pool0
I0501 00:12:39.785846  6568 net.cpp:86] Creating Layer pool0
I0501 00:12:39.785851  6568 net.cpp:408] pool0 <- Sigmoid0
I0501 00:12:39.785856  6568 net.cpp:382] pool0 -> pool0
I0501 00:12:39.786674  6568 net.cpp:124] Setting up pool0
I0501 00:12:39.786689  6568 net.cpp:131] Top shape: 111 8 17 17 (256632)
I0501 00:12:39.786692  6568 net.cpp:139] Memory required for data: 10603164
I0501 00:12:39.786696  6568 layer_factory.hpp:77] Creating layer ip1
I0501 00:12:39.786706  6568 net.cpp:86] Creating Layer ip1
I0501 00:12:39.786710  6568 net.cpp:408] ip1 <- pool0
I0501 00:12:39.786715  6568 net.cpp:382] ip1 -> ip1
I0501 00:12:39.789633  6568 net.cpp:124] Setting up ip1
I0501 00:12:39.789643  6568 net.cpp:131] Top shape: 111 40 (4440)
I0501 00:12:39.789646  6568 net.cpp:139] Memory required for data: 10620924
I0501 00:12:39.789654  6568 layer_factory.hpp:77] Creating layer relu1
I0501 00:12:39.789660  6568 net.cpp:86] Creating Layer relu1
I0501 00:12:39.789664  6568 net.cpp:408] relu1 <- ip1
I0501 00:12:39.789669  6568 net.cpp:369] relu1 -> ip1 (in-place)
I0501 00:12:39.789829  6568 net.cpp:124] Setting up relu1
I0501 00:12:39.789837  6568 net.cpp:131] Top shape: 111 40 (4440)
I0501 00:12:39.789840  6568 net.cpp:139] Memory required for data: 10638684
I0501 00:12:39.789844  6568 layer_factory.hpp:77] Creating layer ip2
I0501 00:12:39.789850  6568 net.cpp:86] Creating Layer ip2
I0501 00:12:39.789854  6568 net.cpp:408] ip2 <- ip1
I0501 00:12:39.789860  6568 net.cpp:382] ip2 -> ip2
I0501 00:12:39.790055  6568 net.cpp:124] Setting up ip2
I0501 00:12:39.790063  6568 net.cpp:131] Top shape: 111 80 (8880)
I0501 00:12:39.790066  6568 net.cpp:139] Memory required for data: 10674204
I0501 00:12:39.790076  6568 layer_factory.hpp:77] Creating layer relu2
I0501 00:12:39.790081  6568 net.cpp:86] Creating Layer relu2
I0501 00:12:39.790084  6568 net.cpp:408] relu2 <- ip2
I0501 00:12:39.790088  6568 net.cpp:369] relu2 -> ip2 (in-place)
I0501 00:12:39.790246  6568 net.cpp:124] Setting up relu2
I0501 00:12:39.790256  6568 net.cpp:131] Top shape: 111 80 (8880)
I0501 00:12:39.790258  6568 net.cpp:139] Memory required for data: 10709724
I0501 00:12:39.790262  6568 layer_factory.hpp:77] Creating layer ip3
I0501 00:12:39.790269  6568 net.cpp:86] Creating Layer ip3
I0501 00:12:39.790273  6568 net.cpp:408] ip3 <- ip2
I0501 00:12:39.790278  6568 net.cpp:382] ip3 -> ip3
I0501 00:12:39.791366  6568 net.cpp:124] Setting up ip3
I0501 00:12:39.791381  6568 net.cpp:131] Top shape: 111 10 (1110)
I0501 00:12:39.791385  6568 net.cpp:139] Memory required for data: 10714164
I0501 00:12:39.791393  6568 layer_factory.hpp:77] Creating layer relu3
I0501 00:12:39.791399  6568 net.cpp:86] Creating Layer relu3
I0501 00:12:39.791402  6568 net.cpp:408] relu3 <- ip3
I0501 00:12:39.791407  6568 net.cpp:369] relu3 -> ip3 (in-place)
I0501 00:12:39.791574  6568 net.cpp:124] Setting up relu3
I0501 00:12:39.791582  6568 net.cpp:131] Top shape: 111 10 (1110)
I0501 00:12:39.791586  6568 net.cpp:139] Memory required for data: 10718604
I0501 00:12:39.791589  6568 layer_factory.hpp:77] Creating layer ip4
I0501 00:12:39.791612  6568 net.cpp:86] Creating Layer ip4
I0501 00:12:39.791616  6568 net.cpp:408] ip4 <- ip3
I0501 00:12:39.791630  6568 net.cpp:382] ip4 -> ip4
I0501 00:12:39.791735  6568 net.cpp:124] Setting up ip4
I0501 00:12:39.791744  6568 net.cpp:131] Top shape: 111 10 (1110)
I0501 00:12:39.791748  6568 net.cpp:139] Memory required for data: 10723044
I0501 00:12:39.791756  6568 layer_factory.hpp:77] Creating layer loss
I0501 00:12:39.791762  6568 net.cpp:86] Creating Layer loss
I0501 00:12:39.791766  6568 net.cpp:408] loss <- ip4
I0501 00:12:39.791770  6568 net.cpp:408] loss <- label
I0501 00:12:39.791775  6568 net.cpp:382] loss -> loss
I0501 00:12:39.791795  6568 layer_factory.hpp:77] Creating layer loss
…
I0501 00:12:39.793082  6568 solver.cpp:173] Creating test net (#0) specified by net file: ECE595/cifar/train_test/var_everything/cifar_train_test_250.prototxt
I0501 00:12:39.793112  6568 net.cpp:296] The NetState phase (1) differed from the phase (0) specified by a rule in layer cifar
I0501 00:12:39.793211  6568 net.cpp:53] Initializing net from parameters: 
name: "CIFAR"
state {
  phase: TEST
}
layer {
  name: "cifar"
  type: "Data"
  top: "data"
  top: "label"
  include {
    phase: TEST
  }
  transform_param {
    mean_file: "examples/cifar10/mean.binaryproto"
  }
  data_param {
    source: "examples/cifar10/cifar10_test_lmdb"
    batch_size: 1000
    backend: LMDB
  }
}
layer {
  name: "conv0"
  type: "Convolution"
  bottom: "data"
  top: "conv0"
  param {
    lr_mult: 1
  }
  param {
    lr_mult: 2
  }
  convolution_param {
    num_output: 8
    pad: 2
    kernel_size: 3
    stride: 1
    weight_filler {
      type: "gaussian"
      std: 0.01
    }
    bias_filler {
      type: "constant"
    }
  }
}
layer {
  name: "Sigmoid0"
  type: "Sigmoid"
  bottom: "conv0"
  top: "Sigmoid0"
}
layer {
  name: "pool0"
  type: "Pooling"
  bottom: "Sigmoid0"
  top: "pool0"
  pooling_param {
    pool: AVE
    kernel_size: 3
    stride: 2
  }
}
layer {
  name: "ip1"
  type: "InnerProduct"
  bottom: "pool0"
  top: "ip1"
  param {
    lr_mult: 1
  }
  param {
    lr_mult: 2
  }
  inner_product_param {
    num_output: 40
    weight_filler {
      type: "gaussian"
      std: 0.01
    }
    bias_filler {
      type: "constant"
    }
  }
}
layer {
  name: "relu1"
  type: "ReLU"
  bottom: "ip1"
  top: "ip1"
}
layer {
  name: "ip2"
  type: "InnerProduct"
  bottom: "ip1"
  top: "ip2"
  param {
    lr_mult: 1
  }
  param {
    lr_mult: 2
  }
  inner_product_param {
    num_output: 80
    weight_filler {
      type: "gaussian"
      std: 0.01
    }
    bias_filler {
      type: "constant"
    }
  }
}
layer {
  name: "relu2"
  type: "ReLU"
  bottom: "ip2"
  top: "ip2"
}
layer {
  name: "ip3"
  type: "InnerProduct"
  bottom: "ip2"
  top: "ip3"
  param {
    lr_mult: 1
  }
  param {
    lr_mult: 2
  }
  inner_product_param {
    num_output: 10
    weight_filler {
      type: "gaussian"
      std: 0.01
    }
    bias_filler {
      type: "constant"
    }
  }
}
layer {
  name: "relu3"
  type: "ReLU"
  bottom: "ip3"
  top: "ip3"
}
layer {
  name: "ip4"
  type: "InnerProduct"
  bottom: "ip3"
  top: "ip4"
  param {
    lr_mult: 1
  }
  param {
    lr_mult: 2
  }
  inner_product_param {
    num_output: 10
    weight_filler {
      type: "gaussian"
      std: 0.01
    }
    bias_filler {
      type: "constant"
    }
  }
}
layer {
  name: "accuracy"
  type: "Accuracy"
  bottom: "ip4"
  bottom: "label"
  top: "accuracy"
  include {
    phase: TEST
  }
}
layer {
  name: "loss"
  type: "SoftmaxWithLoss"
  bottom: "ip4"
  bottom: "label"
  top: "loss"
}
I0501 00:12:39.793313  6568 layer_factory.hpp:77] Creating layer cifar
I0501 00:12:39.793361  6568 db_lmdb.cpp:35] Opened lmdb examples/cifar10/cifar10_test_lmdb
I0501 00:12:39.793375  6568 net.cpp:86] Creating Layer cifar
I0501 00:12:39.793380  6568 net.cpp:382] cifar -> data
I0501 00:12:39.793387  6568 net.cpp:382] cifar -> label
I0501 00:12:39.793395  6568 data_transformer.cpp:25] Loading mean file from: examples/cifar10/mean.binaryproto
I0501 00:12:39.793558  6568 data_layer.cpp:45] output data size: 1000,3,32,32
I0501 00:12:39.816594  6568 net.cpp:124] Setting up cifar
I0501 00:12:39.816622  6568 net.cpp:131] Top shape: 1000 3 32 32 (3072000)
I0501 00:12:39.816627  6568 net.cpp:131] Top shape: 1000 (1000)
I0501 00:12:39.816630  6568 net.cpp:139] Memory required for data: 12292000
I0501 00:12:39.816635  6568 layer_factory.hpp:77] Creating layer label_cifar_1_split
I0501 00:12:39.816653  6568 net.cpp:86] Creating Layer label_cifar_1_split
I0501 00:12:39.816656  6568 net.cpp:408] label_cifar_1_split <- label
I0501 00:12:39.816664  6568 net.cpp:382] label_cifar_1_split -> label_cifar_1_split_0
I0501 00:12:39.816673  6568 net.cpp:382] label_cifar_1_split -> label_cifar_1_split_1
I0501 00:12:39.816788  6568 net.cpp:124] Setting up label_cifar_1_split
I0501 00:12:39.816797  6568 net.cpp:131] Top shape: 1000 (1000)
I0501 00:12:39.816800  6568 net.cpp:131] Top shape: 1000 (1000)
I0501 00:12:39.816803  6568 net.cpp:139] Memory required for data: 12300000
I0501 00:12:39.816807  6568 layer_factory.hpp:77] Creating layer conv0
I0501 00:12:39.816828  6568 net.cpp:86] Creating Layer conv0
I0501 00:12:39.816831  6568 net.cpp:408] conv0 <- data
I0501 00:12:39.816838  6568 net.cpp:382] conv0 -> conv0
I0501 00:12:39.818475  6568 net.cpp:124] Setting up conv0
I0501 00:12:39.818503  6568 net.cpp:131] Top shape: 1000 8 34 34 (9248000)
I0501 00:12:39.818507  6568 net.cpp:139] Memory required for data: 49292000
I0501 00:12:39.818518  6568 layer_factory.hpp:77] Creating layer Sigmoid0
I0501 00:12:39.818526  6568 net.cpp:86] Creating Layer Sigmoid0
I0501 00:12:39.818531  6568 net.cpp:408] Sigmoid0 <- conv0
I0501 00:12:39.818534  6568 net.cpp:382] Sigmoid0 -> Sigmoid0
I0501 00:12:39.818766  6568 net.cpp:124] Setting up Sigmoid0
I0501 00:12:39.818775  6568 net.cpp:131] Top shape: 1000 8 34 34 (9248000)
I0501 00:12:39.818778  6568 net.cpp:139] Memory required for data: 86284000
I0501 00:12:39.818781  6568 layer_factory.hpp:77] Creating layer pool0
I0501 00:12:39.818792  6568 net.cpp:86] Creating Layer pool0
I0501 00:12:39.818795  6568 net.cpp:408] pool0 <- Sigmoid0
I0501 00:12:39.818800  6568 net.cpp:382] pool0 -> pool0
I0501 00:12:39.819010  6568 net.cpp:124] Setting up pool0
I0501 00:12:39.819020  6568 net.cpp:131] Top shape: 1000 8 17 17 (2312000)
I0501 00:12:39.819022  6568 net.cpp:139] Memory required for data: 95532000
I0501 00:12:39.819025  6568 layer_factory.hpp:77] Creating layer ip1
I0501 00:12:39.819033  6568 net.cpp:86] Creating Layer ip1
I0501 00:12:39.819037  6568 net.cpp:408] ip1 <- pool0
I0501 00:12:39.819043  6568 net.cpp:382] ip1 -> ip1
I0501 00:12:39.822732  6568 net.cpp:124] Setting up ip1
I0501 00:12:39.822743  6568 net.cpp:131] Top shape: 1000 40 (40000)
I0501 00:12:39.822746  6568 net.cpp:139] Memory required for data: 95692000
I0501 00:12:39.822769  6568 layer_factory.hpp:77] Creating layer relu1
I0501 00:12:39.822777  6568 net.cpp:86] Creating Layer relu1
I0501 00:12:39.822780  6568 net.cpp:408] relu1 <- ip1
I0501 00:12:39.822785  6568 net.cpp:369] relu1 -> ip1 (in-place)
I0501 00:12:39.822957  6568 net.cpp:124] Setting up relu1
I0501 00:12:39.822965  6568 net.cpp:131] Top shape: 1000 40 (40000)
I0501 00:12:39.822969  6568 net.cpp:139] Memory required for data: 95852000
I0501 00:12:39.822973  6568 layer_factory.hpp:77] Creating layer ip2
I0501 00:12:39.822980  6568 net.cpp:86] Creating Layer ip2
I0501 00:12:39.822984  6568 net.cpp:408] ip2 <- ip1
I0501 00:12:39.822989  6568 net.cpp:382] ip2 -> ip2
I0501 00:12:39.823187  6568 net.cpp:124] Setting up ip2
I0501 00:12:39.823195  6568 net.cpp:131] Top shape: 1000 80 (80000)
I0501 00:12:39.823199  6568 net.cpp:139] Memory required for data: 96172000
I0501 00:12:39.823205  6568 layer_factory.hpp:77] Creating layer relu2
I0501 00:12:39.823211  6568 net.cpp:86] Creating Layer relu2
I0501 00:12:39.823215  6568 net.cpp:408] relu2 <- ip2
I0501 00:12:39.823220  6568 net.cpp:369] relu2 -> ip2 (in-place)
I0501 00:12:39.823967  6568 net.cpp:124] Setting up relu2
I0501 00:12:39.823979  6568 net.cpp:131] Top shape: 1000 80 (80000)
I0501 00:12:39.823983  6568 net.cpp:139] Memory required for data: 96492000
I0501 00:12:39.823987  6568 layer_factory.hpp:77] Creating layer ip3
I0501 00:12:39.823995  6568 net.cpp:86] Creating Layer ip3
I0501 00:12:39.823998  6568 net.cpp:408] ip3 <- ip2
I0501 00:12:39.824003  6568 net.cpp:382] ip3 -> ip3
I0501 00:12:39.824134  6568 net.cpp:124] Setting up ip3
I0501 00:12:39.824141  6568 net.cpp:131] Top shape: 1000 10 (10000)
I0501 00:12:39.824144  6568 net.cpp:139] Memory required for data: 96532000
I0501 00:12:39.824151  6568 layer_factory.hpp:77] Creating layer relu3
I0501 00:12:39.824156  6568 net.cpp:86] Creating Layer relu3
I0501 00:12:39.824158  6568 net.cpp:408] relu3 <- ip3
I0501 00:12:39.824164  6568 net.cpp:369] relu3 -> ip3 (in-place)
I0501 00:12:39.824319  6568 net.cpp:124] Setting up relu3
I0501 00:12:39.824327  6568 net.cpp:131] Top shape: 1000 10 (10000)
I0501 00:12:39.824331  6568 net.cpp:139] Memory required for data: 96572000
I0501 00:12:39.824333  6568 layer_factory.hpp:77] Creating layer ip4
I0501 00:12:39.824340  6568 net.cpp:86] Creating Layer ip4
I0501 00:12:39.824344  6568 net.cpp:408] ip4 <- ip3
I0501 00:12:39.824349  6568 net.cpp:382] ip4 -> ip4
I0501 00:12:39.824451  6568 net.cpp:124] Setting up ip4
I0501 00:12:39.824460  6568 net.cpp:131] Top shape: 1000 10 (10000)
I0501 00:12:39.824462  6568 net.cpp:139] Memory required for data: 96612000
I0501 00:12:39.824470  6568 layer_factory.hpp:77] Creating layer ip4_ip4_0_split
I0501 00:12:39.824476  6568 net.cpp:86] Creating Layer ip4_ip4_0_split
I0501 00:12:39.824478  6568 net.cpp:408] ip4_ip4_0_split <- ip4
I0501 00:12:39.824482  6568 net.cpp:382] ip4_ip4_0_split -> ip4_ip4_0_split_0
I0501 00:12:39.824487  6568 net.cpp:382] ip4_ip4_0_split -> ip4_ip4_0_split_1
I0501 00:12:39.824520  6568 net.cpp:124] Setting up ip4_ip4_0_split
I0501 00:12:39.824525  6568 net.cpp:131] Top shape: 1000 10 (10000)
I0501 00:12:39.824529  6568 net.cpp:131] Top shape: 1000 10 (10000)
I0501 00:12:39.824532  6568 net.cpp:139] Memory required for data: 96692000
I0501 00:12:39.824534  6568 layer_factory.hpp:77] Creating layer accuracy
I0501 00:12:39.824540  6568 net.cpp:86] Creating Layer accuracy
I0501 00:12:39.824543  6568 net.cpp:408] accuracy <- ip4_ip4_0_split_0
I0501 00:12:39.824548  6568 net.cpp:408] accuracy <- label_cifar_1_split_0
I0501 00:12:39.824553  6568 net.cpp:382] accuracy -> accuracy
…
