…
I0501 09:17:29.730952 13855 net.cpp:296] The NetState phase (0) differed from the phase (1) specified by a rule in layer cifar
I0501 09:17:29.730971 13855 net.cpp:296] The NetState phase (0) differed from the phase (1) specified by a rule in layer accuracy
I0501 09:17:29.731077 13855 net.cpp:53] Initializing net from parameters: 
name: "CIFAR"
state {
  phase: TRAIN
  level: 0
  stage: ""
}
layer {
  name: "cifar"
  type: "Data"
  top: "data"
  top: "label"
  include {
    phase: TRAIN
  }
  transform_param {
    mean_file: "examples/cifar10/mean.binaryproto"
  }
  data_param {
    source: "examples/cifar10/cifar10_train_lmdb"
    batch_size: 111
    backend: LMDB
  }
}
layer {
  name: "conv0"
  type: "Convolution"
  bottom: "data"
  top: "conv0"
  param {
    lr_mult: 1
  }
  param {
    lr_mult: 2
  }
  convolution_param {
    num_output: 16
    pad: 2
    kernel_size: 3
    stride: 1
    weight_filler {
      type: "gaussian"
      std: 0.01
    }
    bias_filler {
      type: "constant"
    }
  }
}
layer {
  name: "Sigmoid0"
  type: "Sigmoid"
  bottom: "conv0"
  top: "Sigmoid0"
}
layer {
  name: "pool0"
  type: "Pooling"
  bottom: "Sigmoid0"
  top: "pool0"
  pooling_param {
    pool: AVE
    kernel_size: 3
    stride: 2
  }
}
layer {
  name: "ip1"
  type: "InnerProduct"
  bottom: "pool0"
  top: "ip1"
  param {
    lr_mult: 1
  }
  param {
    lr_mult: 2
  }
  inner_product_param {
    num_output: 20
    weight_filler {
      type: "gaussian"
      std: 0.01
    }
    bias_filler {
      type: "constant"
    }
  }
}
layer {
  name: "relu1"
  type: "ReLU"
  bottom: "ip1"
  top: "ip1"
}
layer {
  name: "ip2"
  type: "InnerProduct"
  bottom: "ip1"
  top: "ip2"
  param {
    lr_mult: 1
  }
  param {
    lr_mult: 2
  }
  inner_product_param {
    num_output: 80
    weight_filler {
      type: "gaussian"
      std: 0.01
    }
    bias_filler {
      type: "constant"
    }
  }
}
layer {
  name: "relu2"
  type: "ReLU"
  bottom: "ip2"
  top: "ip2"
}
layer {
  name: "ip3"
  type: "InnerProduct"
  bottom: "ip2"
  top: "ip3"
  param {
    lr_mult: 1
  }
  param {
    lr_mult: 2
  }
  inner_product_param {
    num_output: 10
    weight_filler {
      type: "gaussian"
      std: 0.01
    }
    bias_filler {
      type: "constant"
    }
  }
}
layer {
  name: "relu3"
  type: "ReLU"
  bottom: "ip3"
  top: "ip3"
}
layer {
  name: "ip4"
  type: "InnerProduct"
  bottom: "ip3"
  top: "ip4"
  param {
    lr_mult: 1
  }
  param {
    lr_mult: 2
  }
  inner_product_param {
    num_output: 10
    weight_filler {
      type: "gaussian"
      std: 0.01
    }
    bias_filler {
      type: "constant"
    }
  }
}
layer {
  name: "loss"
  type: "SoftmaxWithLoss"
  bottom: "ip4"
  bottom: "label"
  top: "loss"
}
I0501 09:17:29.731158 13855 layer_factory.hpp:77] Creating layer cifar
I0501 09:17:29.731258 13855 db_lmdb.cpp:35] Opened lmdb examples/cifar10/cifar10_train_lmdb
I0501 09:17:29.731286 13855 net.cpp:86] Creating Layer cifar
I0501 09:17:29.731293 13855 net.cpp:382] cifar -> data
I0501 09:17:29.731315 13855 net.cpp:382] cifar -> label
I0501 09:17:29.731328 13855 data_transformer.cpp:25] Loading mean file from: examples/cifar10/mean.binaryproto
I0501 09:17:29.733494 13855 data_layer.cpp:45] output data size: 111,3,32,32
I0501 09:17:29.741515 13855 net.cpp:124] Setting up cifar
I0501 09:17:29.741535 13855 net.cpp:131] Top shape: 111 3 32 32 (340992)
I0501 09:17:29.741541 13855 net.cpp:131] Top shape: 111 (111)
I0501 09:17:29.741544 13855 net.cpp:139] Memory required for data: 1364412
I0501 09:17:29.741569 13855 layer_factory.hpp:77] Creating layer conv0
I0501 09:17:29.741590 13855 net.cpp:86] Creating Layer conv0
I0501 09:17:29.741596 13855 net.cpp:408] conv0 <- data
I0501 09:17:29.741608 13855 net.cpp:382] conv0 -> conv0
I0501 09:17:30.034730 13855 net.cpp:124] Setting up conv0
I0501 09:17:30.034762 13855 net.cpp:131] Top shape: 111 16 34 34 (2053056)
I0501 09:17:30.034767 13855 net.cpp:139] Memory required for data: 9576636
I0501 09:17:30.034786 13855 layer_factory.hpp:77] Creating layer Sigmoid0
I0501 09:17:30.034801 13855 net.cpp:86] Creating Layer Sigmoid0
I0501 09:17:30.034807 13855 net.cpp:408] Sigmoid0 <- conv0
I0501 09:17:30.034813 13855 net.cpp:382] Sigmoid0 -> Sigmoid0
I0501 09:17:30.035028 13855 net.cpp:124] Setting up Sigmoid0
I0501 09:17:30.035040 13855 net.cpp:131] Top shape: 111 16 34 34 (2053056)
I0501 09:17:30.035044 13855 net.cpp:139] Memory required for data: 17788860
I0501 09:17:30.035048 13855 layer_factory.hpp:77] Creating layer pool0
I0501 09:17:30.035056 13855 net.cpp:86] Creating Layer pool0
I0501 09:17:30.035060 13855 net.cpp:408] pool0 <- Sigmoid0
I0501 09:17:30.035066 13855 net.cpp:382] pool0 -> pool0
I0501 09:17:30.035948 13855 net.cpp:124] Setting up pool0
I0501 09:17:30.035965 13855 net.cpp:131] Top shape: 111 16 17 17 (513264)
I0501 09:17:30.035969 13855 net.cpp:139] Memory required for data: 19841916
I0501 09:17:30.035974 13855 layer_factory.hpp:77] Creating layer ip1
I0501 09:17:30.035985 13855 net.cpp:86] Creating Layer ip1
I0501 09:17:30.035989 13855 net.cpp:408] ip1 <- pool0
I0501 09:17:30.035995 13855 net.cpp:382] ip1 -> ip1
I0501 09:17:30.039294 13855 net.cpp:124] Setting up ip1
I0501 09:17:30.039304 13855 net.cpp:131] Top shape: 111 20 (2220)
I0501 09:17:30.039307 13855 net.cpp:139] Memory required for data: 19850796
I0501 09:17:30.039317 13855 layer_factory.hpp:77] Creating layer relu1
I0501 09:17:30.039324 13855 net.cpp:86] Creating Layer relu1
I0501 09:17:30.039328 13855 net.cpp:408] relu1 <- ip1
I0501 09:17:30.039333 13855 net.cpp:369] relu1 -> ip1 (in-place)
I0501 09:17:30.039515 13855 net.cpp:124] Setting up relu1
I0501 09:17:30.039525 13855 net.cpp:131] Top shape: 111 20 (2220)
I0501 09:17:30.039528 13855 net.cpp:139] Memory required for data: 19859676
I0501 09:17:30.039532 13855 layer_factory.hpp:77] Creating layer ip2
I0501 09:17:30.039541 13855 net.cpp:86] Creating Layer ip2
I0501 09:17:30.039544 13855 net.cpp:408] ip2 <- ip1
I0501 09:17:30.039553 13855 net.cpp:382] ip2 -> ip2
I0501 09:17:30.039727 13855 net.cpp:124] Setting up ip2
I0501 09:17:30.039736 13855 net.cpp:131] Top shape: 111 80 (8880)
I0501 09:17:30.039739 13855 net.cpp:139] Memory required for data: 19895196
I0501 09:17:30.039753 13855 layer_factory.hpp:77] Creating layer relu2
I0501 09:17:30.039759 13855 net.cpp:86] Creating Layer relu2
I0501 09:17:30.039763 13855 net.cpp:408] relu2 <- ip2
I0501 09:17:30.039768 13855 net.cpp:369] relu2 -> ip2 (in-place)
I0501 09:17:30.039961 13855 net.cpp:124] Setting up relu2
I0501 09:17:30.039973 13855 net.cpp:131] Top shape: 111 80 (8880)
I0501 09:17:30.039976 13855 net.cpp:139] Memory required for data: 19930716
I0501 09:17:30.039979 13855 layer_factory.hpp:77] Creating layer ip3
I0501 09:17:30.039988 13855 net.cpp:86] Creating Layer ip3
I0501 09:17:30.039993 13855 net.cpp:408] ip3 <- ip2
I0501 09:17:30.039999 13855 net.cpp:382] ip3 -> ip3
I0501 09:17:30.040144 13855 net.cpp:124] Setting up ip3
I0501 09:17:30.040153 13855 net.cpp:131] Top shape: 111 10 (1110)
I0501 09:17:30.040156 13855 net.cpp:139] Memory required for data: 19935156
I0501 09:17:30.040163 13855 layer_factory.hpp:77] Creating layer relu3
I0501 09:17:30.040169 13855 net.cpp:86] Creating Layer relu3
I0501 09:17:30.040174 13855 net.cpp:408] relu3 <- ip3
I0501 09:17:30.040179 13855 net.cpp:369] relu3 -> ip3 (in-place)
I0501 09:17:30.040364 13855 net.cpp:124] Setting up relu3
I0501 09:17:30.040374 13855 net.cpp:131] Top shape: 111 10 (1110)
I0501 09:17:30.040377 13855 net.cpp:139] Memory required for data: 19939596
I0501 09:17:30.040380 13855 layer_factory.hpp:77] Creating layer ip4
I0501 09:17:30.040408 13855 net.cpp:86] Creating Layer ip4
I0501 09:17:30.040412 13855 net.cpp:408] ip4 <- ip3
I0501 09:17:30.040419 13855 net.cpp:382] ip4 -> ip4
I0501 09:17:30.040541 13855 net.cpp:124] Setting up ip4
I0501 09:17:30.040550 13855 net.cpp:131] Top shape: 111 10 (1110)
I0501 09:17:30.040554 13855 net.cpp:139] Memory required for data: 19944036
I0501 09:17:30.040562 13855 layer_factory.hpp:77] Creating layer loss
I0501 09:17:30.040570 13855 net.cpp:86] Creating Layer loss
I0501 09:17:30.040573 13855 net.cpp:408] loss <- ip4
I0501 09:17:30.040578 13855 net.cpp:408] loss <- label
I0501 09:17:30.040585 13855 net.cpp:382] loss -> loss
I0501 09:17:30.040604 13855 layer_factory.hpp:77] Creating layer loss
…
I0501 09:17:30.042063 13855 solver.cpp:173] Creating test net (#0) specified by net file: ECE595/cifar/train_test/var_everything/cifar_train_test_535.prototxt
I0501 09:17:30.042098 13855 net.cpp:296] The NetState phase (1) differed from the phase (0) specified by a rule in layer cifar
I0501 09:17:30.042213 13855 net.cpp:53] Initializing net from parameters: 
name: "CIFAR"
state {
  phase: TEST
}
layer {
  name: "cifar"
  type: "Data"
  top: "data"
  top: "label"
  include {
    phase: TEST
  }
  transform_param {
    mean_file: "examples/cifar10/mean.binaryproto"
  }
  data_param {
    source: "examples/cifar10/cifar10_test_lmdb"
    batch_size: 1000
    backend: LMDB
  }
}
layer {
  name: "conv0"
  type: "Convolution"
  bottom: "data"
  top: "conv0"
  param {
    lr_mult: 1
  }
  param {
    lr_mult: 2
  }
  convolution_param {
    num_output: 16
    pad: 2
    kernel_size: 3
    stride: 1
    weight_filler {
      type: "gaussian"
      std: 0.01
    }
    bias_filler {
      type: "constant"
    }
  }
}
layer {
  name: "Sigmoid0"
  type: "Sigmoid"
  bottom: "conv0"
  top: "Sigmoid0"
}
layer {
  name: "pool0"
  type: "Pooling"
  bottom: "Sigmoid0"
  top: "pool0"
  pooling_param {
    pool: AVE
    kernel_size: 3
    stride: 2
  }
}
layer {
  name: "ip1"
  type: "InnerProduct"
  bottom: "pool0"
  top: "ip1"
  param {
    lr_mult: 1
  }
  param {
    lr_mult: 2
  }
  inner_product_param {
    num_output: 20
    weight_filler {
      type: "gaussian"
      std: 0.01
    }
    bias_filler {
      type: "constant"
    }
  }
}
layer {
  name: "relu1"
  type: "ReLU"
  bottom: "ip1"
  top: "ip1"
}
layer {
  name: "ip2"
  type: "InnerProduct"
  bottom: "ip1"
  top: "ip2"
  param {
    lr_mult: 1
  }
  param {
    lr_mult: 2
  }
  inner_product_param {
    num_output: 80
    weight_filler {
      type: "gaussian"
      std: 0.01
    }
    bias_filler {
      type: "constant"
    }
  }
}
layer {
  name: "relu2"
  type: "ReLU"
  bottom: "ip2"
  top: "ip2"
}
layer {
  name: "ip3"
  type: "InnerProduct"
  bottom: "ip2"
  top: "ip3"
  param {
    lr_mult: 1
  }
  param {
    lr_mult: 2
  }
  inner_product_param {
    num_output: 10
    weight_filler {
      type: "gaussian"
      std: 0.01
    }
    bias_filler {
      type: "constant"
    }
  }
}
layer {
  name: "relu3"
  type: "ReLU"
  bottom: "ip3"
  top: "ip3"
}
layer {
  name: "ip4"
  type: "InnerProduct"
  bottom: "ip3"
  top: "ip4"
  param {
    lr_mult: 1
  }
  param {
    lr_mult: 2
  }
  inner_product_param {
    num_output: 10
    weight_filler {
      type: "gaussian"
      std: 0.01
    }
    bias_filler {
      type: "constant"
    }
  }
}
layer {
  name: "accuracy"
  type: "Accuracy"
  bottom: "ip4"
  bottom: "label"
  top: "accuracy"
  include {
    phase: TEST
  }
}
layer {
  name: "loss"
  type: "SoftmaxWithLoss"
  bottom: "ip4"
  bottom: "label"
  top: "loss"
}
I0501 09:17:30.042317 13855 layer_factory.hpp:77] Creating layer cifar
I0501 09:17:30.042371 13855 db_lmdb.cpp:35] Opened lmdb examples/cifar10/cifar10_test_lmdb
I0501 09:17:30.042389 13855 net.cpp:86] Creating Layer cifar
I0501 09:17:30.042395 13855 net.cpp:382] cifar -> data
I0501 09:17:30.042405 13855 net.cpp:382] cifar -> label
I0501 09:17:30.042413 13855 data_transformer.cpp:25] Loading mean file from: examples/cifar10/mean.binaryproto
I0501 09:17:30.042590 13855 data_layer.cpp:45] output data size: 1000,3,32,32
I0501 09:17:30.068895 13855 net.cpp:124] Setting up cifar
I0501 09:17:30.068924 13855 net.cpp:131] Top shape: 1000 3 32 32 (3072000)
I0501 09:17:30.068943 13855 net.cpp:131] Top shape: 1000 (1000)
I0501 09:17:30.068948 13855 net.cpp:139] Memory required for data: 12292000
I0501 09:17:30.068954 13855 layer_factory.hpp:77] Creating layer label_cifar_1_split
I0501 09:17:30.068974 13855 net.cpp:86] Creating Layer label_cifar_1_split
I0501 09:17:30.068977 13855 net.cpp:408] label_cifar_1_split <- label
I0501 09:17:30.068984 13855 net.cpp:382] label_cifar_1_split -> label_cifar_1_split_0
I0501 09:17:30.068995 13855 net.cpp:382] label_cifar_1_split -> label_cifar_1_split_1
I0501 09:17:30.069113 13855 net.cpp:124] Setting up label_cifar_1_split
I0501 09:17:30.069123 13855 net.cpp:131] Top shape: 1000 (1000)
I0501 09:17:30.069128 13855 net.cpp:131] Top shape: 1000 (1000)
I0501 09:17:30.069133 13855 net.cpp:139] Memory required for data: 12300000
I0501 09:17:30.069135 13855 layer_factory.hpp:77] Creating layer conv0
I0501 09:17:30.069151 13855 net.cpp:86] Creating Layer conv0
I0501 09:17:30.069155 13855 net.cpp:408] conv0 <- data
I0501 09:17:30.069164 13855 net.cpp:382] conv0 -> conv0
I0501 09:17:30.071995 13855 net.cpp:124] Setting up conv0
I0501 09:17:30.072016 13855 net.cpp:131] Top shape: 1000 16 34 34 (18496000)
I0501 09:17:30.072021 13855 net.cpp:139] Memory required for data: 86284000
I0501 09:17:30.072033 13855 layer_factory.hpp:77] Creating layer Sigmoid0
I0501 09:17:30.072042 13855 net.cpp:86] Creating Layer Sigmoid0
I0501 09:17:30.072046 13855 net.cpp:408] Sigmoid0 <- conv0
I0501 09:17:30.072053 13855 net.cpp:382] Sigmoid0 -> Sigmoid0
I0501 09:17:30.072291 13855 net.cpp:124] Setting up Sigmoid0
I0501 09:17:30.072304 13855 net.cpp:131] Top shape: 1000 16 34 34 (18496000)
I0501 09:17:30.072309 13855 net.cpp:139] Memory required for data: 160268000
I0501 09:17:30.072312 13855 layer_factory.hpp:77] Creating layer pool0
I0501 09:17:30.072322 13855 net.cpp:86] Creating Layer pool0
I0501 09:17:30.072325 13855 net.cpp:408] pool0 <- Sigmoid0
I0501 09:17:30.072330 13855 net.cpp:382] pool0 -> pool0
I0501 09:17:30.072549 13855 net.cpp:124] Setting up pool0
I0501 09:17:30.072561 13855 net.cpp:131] Top shape: 1000 16 17 17 (4624000)
I0501 09:17:30.072563 13855 net.cpp:139] Memory required for data: 178764000
I0501 09:17:30.072567 13855 layer_factory.hpp:77] Creating layer ip1
I0501 09:17:30.072577 13855 net.cpp:86] Creating Layer ip1
I0501 09:17:30.072582 13855 net.cpp:408] ip1 <- pool0
I0501 09:17:30.072587 13855 net.cpp:382] ip1 -> ip1
I0501 09:17:30.075868 13855 net.cpp:124] Setting up ip1
I0501 09:17:30.075880 13855 net.cpp:131] Top shape: 1000 20 (20000)
I0501 09:17:30.075882 13855 net.cpp:139] Memory required for data: 178844000
I0501 09:17:30.075909 13855 layer_factory.hpp:77] Creating layer relu1
I0501 09:17:30.075917 13855 net.cpp:86] Creating Layer relu1
I0501 09:17:30.075922 13855 net.cpp:408] relu1 <- ip1
I0501 09:17:30.075927 13855 net.cpp:369] relu1 -> ip1 (in-place)
I0501 09:17:30.076129 13855 net.cpp:124] Setting up relu1
I0501 09:17:30.076141 13855 net.cpp:131] Top shape: 1000 20 (20000)
I0501 09:17:30.076145 13855 net.cpp:139] Memory required for data: 178924000
I0501 09:17:30.076149 13855 layer_factory.hpp:77] Creating layer ip2
I0501 09:17:30.076158 13855 net.cpp:86] Creating Layer ip2
I0501 09:17:30.076161 13855 net.cpp:408] ip2 <- ip1
I0501 09:17:30.076179 13855 net.cpp:382] ip2 -> ip2
I0501 09:17:30.076371 13855 net.cpp:124] Setting up ip2
I0501 09:17:30.076381 13855 net.cpp:131] Top shape: 1000 80 (80000)
I0501 09:17:30.076385 13855 net.cpp:139] Memory required for data: 179244000
I0501 09:17:30.076393 13855 layer_factory.hpp:77] Creating layer relu2
I0501 09:17:30.076406 13855 net.cpp:86] Creating Layer relu2
I0501 09:17:30.076411 13855 net.cpp:408] relu2 <- ip2
I0501 09:17:30.076416 13855 net.cpp:369] relu2 -> ip2 (in-place)
I0501 09:17:30.077323 13855 net.cpp:124] Setting up relu2
I0501 09:17:30.077338 13855 net.cpp:131] Top shape: 1000 80 (80000)
I0501 09:17:30.077342 13855 net.cpp:139] Memory required for data: 179564000
I0501 09:17:30.077347 13855 layer_factory.hpp:77] Creating layer ip3
I0501 09:17:30.077358 13855 net.cpp:86] Creating Layer ip3
I0501 09:17:30.077361 13855 net.cpp:408] ip3 <- ip2
I0501 09:17:30.077368 13855 net.cpp:382] ip3 -> ip3
I0501 09:17:30.077528 13855 net.cpp:124] Setting up ip3
I0501 09:17:30.077538 13855 net.cpp:131] Top shape: 1000 10 (10000)
I0501 09:17:30.077541 13855 net.cpp:139] Memory required for data: 179604000
I0501 09:17:30.077548 13855 layer_factory.hpp:77] Creating layer relu3
I0501 09:17:30.077556 13855 net.cpp:86] Creating Layer relu3
I0501 09:17:30.077560 13855 net.cpp:408] relu3 <- ip3
I0501 09:17:30.077565 13855 net.cpp:369] relu3 -> ip3 (in-place)
I0501 09:17:30.077755 13855 net.cpp:124] Setting up relu3
I0501 09:17:30.077765 13855 net.cpp:131] Top shape: 1000 10 (10000)
I0501 09:17:30.077769 13855 net.cpp:139] Memory required for data: 179644000
I0501 09:17:30.077772 13855 layer_factory.hpp:77] Creating layer ip4
I0501 09:17:30.077781 13855 net.cpp:86] Creating Layer ip4
I0501 09:17:30.077785 13855 net.cpp:408] ip4 <- ip3
I0501 09:17:30.077790 13855 net.cpp:382] ip4 -> ip4
I0501 09:17:30.077917 13855 net.cpp:124] Setting up ip4
I0501 09:17:30.077926 13855 net.cpp:131] Top shape: 1000 10 (10000)
I0501 09:17:30.077929 13855 net.cpp:139] Memory required for data: 179684000
I0501 09:17:30.077939 13855 layer_factory.hpp:77] Creating layer ip4_ip4_0_split
I0501 09:17:30.077947 13855 net.cpp:86] Creating Layer ip4_ip4_0_split
I0501 09:17:30.077950 13855 net.cpp:408] ip4_ip4_0_split <- ip4
I0501 09:17:30.077955 13855 net.cpp:382] ip4_ip4_0_split -> ip4_ip4_0_split_0
I0501 09:17:30.077962 13855 net.cpp:382] ip4_ip4_0_split -> ip4_ip4_0_split_1
I0501 09:17:30.078001 13855 net.cpp:124] Setting up ip4_ip4_0_split
I0501 09:17:30.078007 13855 net.cpp:131] Top shape: 1000 10 (10000)
I0501 09:17:30.078011 13855 net.cpp:131] Top shape: 1000 10 (10000)
I0501 09:17:30.078016 13855 net.cpp:139] Memory required for data: 179764000
I0501 09:17:30.078019 13855 layer_factory.hpp:77] Creating layer accuracy
I0501 09:17:30.078027 13855 net.cpp:86] Creating Layer accuracy
I0501 09:17:30.078030 13855 net.cpp:408] accuracy <- ip4_ip4_0_split_0
I0501 09:17:30.078035 13855 net.cpp:408] accuracy <- label_cifar_1_split_0
I0501 09:17:30.078040 13855 net.cpp:382] accuracy -> accuracy
…
