…
I0430 21:59:18.844671 32434 net.cpp:296] The NetState phase (0) differed from the phase (1) specified by a rule in layer cifar
I0430 21:59:18.844689 32434 net.cpp:296] The NetState phase (0) differed from the phase (1) specified by a rule in layer accuracy
I0430 21:59:18.844781 32434 net.cpp:53] Initializing net from parameters: 
name: "CIFAR"
state {
  phase: TRAIN
  level: 0
  stage: ""
}
layer {
  name: "cifar"
  type: "Data"
  top: "data"
  top: "label"
  include {
    phase: TRAIN
  }
  transform_param {
    mean_file: "examples/cifar10/mean.binaryproto"
  }
  data_param {
    source: "examples/cifar10/cifar10_train_lmdb"
    batch_size: 111
    backend: LMDB
  }
}
layer {
  name: "conv0"
  type: "Convolution"
  bottom: "data"
  top: "conv0"
  param {
    lr_mult: 1
  }
  param {
    lr_mult: 2
  }
  convolution_param {
    num_output: 8
    pad: 2
    kernel_size: 3
    stride: 1
    weight_filler {
      type: "gaussian"
      std: 0.01
    }
    bias_filler {
      type: "constant"
    }
  }
}
layer {
  name: "Sigmoid0"
  type: "Sigmoid"
  bottom: "conv0"
  top: "Sigmoid0"
}
layer {
  name: "pool0"
  type: "Pooling"
  bottom: "Sigmoid0"
  top: "pool0"
  pooling_param {
    pool: AVE
    kernel_size: 3
    stride: 2
  }
}
layer {
  name: "ip1"
  type: "InnerProduct"
  bottom: "pool0"
  top: "ip1"
  param {
    lr_mult: 1
  }
  param {
    lr_mult: 2
  }
  inner_product_param {
    num_output: 80
    weight_filler {
      type: "gaussian"
      std: 0.01
    }
    bias_filler {
      type: "constant"
    }
  }
}
layer {
  name: "relu1"
  type: "ReLU"
  bottom: "ip1"
  top: "ip1"
}
layer {
  name: "ip2"
  type: "InnerProduct"
  bottom: "ip1"
  top: "ip2"
  param {
    lr_mult: 1
  }
  param {
    lr_mult: 2
  }
  inner_product_param {
    num_output: 160
    weight_filler {
      type: "gaussian"
      std: 0.01
    }
    bias_filler {
      type: "constant"
    }
  }
}
layer {
  name: "relu2"
  type: "ReLU"
  bottom: "ip2"
  top: "ip2"
}
layer {
  name: "ip3"
  type: "InnerProduct"
  bottom: "ip2"
  top: "ip3"
  param {
    lr_mult: 1
  }
  param {
    lr_mult: 2
  }
  inner_product_param {
    num_output: 10
    weight_filler {
      type: "gaussian"
      std: 0.01
    }
    bias_filler {
      type: "constant"
    }
  }
}
layer {
  name: "loss"
  type: "SoftmaxWithLoss"
  bottom: "ip3"
  bottom: "label"
  top: "loss"
}
I0430 21:59:18.844866 32434 layer_factory.hpp:77] Creating layer cifar
I0430 21:59:18.844964 32434 db_lmdb.cpp:35] Opened lmdb examples/cifar10/cifar10_train_lmdb
I0430 21:59:18.844992 32434 net.cpp:86] Creating Layer cifar
I0430 21:59:18.845000 32434 net.cpp:382] cifar -> data
I0430 21:59:18.845022 32434 net.cpp:382] cifar -> label
I0430 21:59:18.845034 32434 data_transformer.cpp:25] Loading mean file from: examples/cifar10/mean.binaryproto
I0430 21:59:18.847148 32434 data_layer.cpp:45] output data size: 111,3,32,32
I0430 21:59:18.855226 32434 net.cpp:124] Setting up cifar
I0430 21:59:18.855244 32434 net.cpp:131] Top shape: 111 3 32 32 (340992)
I0430 21:59:18.855252 32434 net.cpp:131] Top shape: 111 (111)
I0430 21:59:18.855257 32434 net.cpp:139] Memory required for data: 1364412
I0430 21:59:18.855263 32434 layer_factory.hpp:77] Creating layer conv0
I0430 21:59:18.855281 32434 net.cpp:86] Creating Layer conv0
I0430 21:59:18.855288 32434 net.cpp:408] conv0 <- data
I0430 21:59:18.855301 32434 net.cpp:382] conv0 -> conv0
I0430 21:59:19.140784 32434 net.cpp:124] Setting up conv0
I0430 21:59:19.140880 32434 net.cpp:131] Top shape: 111 8 34 34 (1026528)
I0430 21:59:19.140885 32434 net.cpp:139] Memory required for data: 5470524
I0430 21:59:19.140899 32434 layer_factory.hpp:77] Creating layer Sigmoid0
I0430 21:59:19.140913 32434 net.cpp:86] Creating Layer Sigmoid0
I0430 21:59:19.140918 32434 net.cpp:408] Sigmoid0 <- conv0
I0430 21:59:19.140923 32434 net.cpp:382] Sigmoid0 -> Sigmoid0
I0430 21:59:19.141119 32434 net.cpp:124] Setting up Sigmoid0
I0430 21:59:19.141129 32434 net.cpp:131] Top shape: 111 8 34 34 (1026528)
I0430 21:59:19.141131 32434 net.cpp:139] Memory required for data: 9576636
I0430 21:59:19.141134 32434 layer_factory.hpp:77] Creating layer pool0
I0430 21:59:19.141141 32434 net.cpp:86] Creating Layer pool0
I0430 21:59:19.141144 32434 net.cpp:408] pool0 <- Sigmoid0
I0430 21:59:19.141150 32434 net.cpp:382] pool0 -> pool0
I0430 21:59:19.141926 32434 net.cpp:124] Setting up pool0
I0430 21:59:19.141938 32434 net.cpp:131] Top shape: 111 8 17 17 (256632)
I0430 21:59:19.141957 32434 net.cpp:139] Memory required for data: 10603164
I0430 21:59:19.141960 32434 layer_factory.hpp:77] Creating layer ip1
I0430 21:59:19.141970 32434 net.cpp:86] Creating Layer ip1
I0430 21:59:19.141973 32434 net.cpp:408] ip1 <- pool0
I0430 21:59:19.141978 32434 net.cpp:382] ip1 -> ip1
I0430 21:59:19.147763 32434 net.cpp:124] Setting up ip1
I0430 21:59:19.147790 32434 net.cpp:131] Top shape: 111 80 (8880)
I0430 21:59:19.147794 32434 net.cpp:139] Memory required for data: 10638684
I0430 21:59:19.147802 32434 layer_factory.hpp:77] Creating layer relu1
I0430 21:59:19.147809 32434 net.cpp:86] Creating Layer relu1
I0430 21:59:19.147812 32434 net.cpp:408] relu1 <- ip1
I0430 21:59:19.147816 32434 net.cpp:369] relu1 -> ip1 (in-place)
I0430 21:59:19.147986 32434 net.cpp:124] Setting up relu1
I0430 21:59:19.147995 32434 net.cpp:131] Top shape: 111 80 (8880)
I0430 21:59:19.147999 32434 net.cpp:139] Memory required for data: 10674204
I0430 21:59:19.148001 32434 layer_factory.hpp:77] Creating layer ip2
I0430 21:59:19.148010 32434 net.cpp:86] Creating Layer ip2
I0430 21:59:19.148012 32434 net.cpp:408] ip2 <- ip1
I0430 21:59:19.148018 32434 net.cpp:382] ip2 -> ip2
I0430 21:59:19.149303 32434 net.cpp:124] Setting up ip2
I0430 21:59:19.149317 32434 net.cpp:131] Top shape: 111 160 (17760)
I0430 21:59:19.149334 32434 net.cpp:139] Memory required for data: 10745244
I0430 21:59:19.149343 32434 layer_factory.hpp:77] Creating layer relu2
I0430 21:59:19.149350 32434 net.cpp:86] Creating Layer relu2
I0430 21:59:19.149353 32434 net.cpp:408] relu2 <- ip2
I0430 21:59:19.149359 32434 net.cpp:369] relu2 -> ip2 (in-place)
I0430 21:59:19.149520 32434 net.cpp:124] Setting up relu2
I0430 21:59:19.149530 32434 net.cpp:131] Top shape: 111 160 (17760)
I0430 21:59:19.149533 32434 net.cpp:139] Memory required for data: 10816284
I0430 21:59:19.149536 32434 layer_factory.hpp:77] Creating layer ip3
I0430 21:59:19.149544 32434 net.cpp:86] Creating Layer ip3
I0430 21:59:19.149549 32434 net.cpp:408] ip3 <- ip2
I0430 21:59:19.149554 32434 net.cpp:382] ip3 -> ip3
I0430 21:59:19.149691 32434 net.cpp:124] Setting up ip3
I0430 21:59:19.149699 32434 net.cpp:131] Top shape: 111 10 (1110)
I0430 21:59:19.149703 32434 net.cpp:139] Memory required for data: 10820724
I0430 21:59:19.149708 32434 layer_factory.hpp:77] Creating layer loss
I0430 21:59:19.149718 32434 net.cpp:86] Creating Layer loss
I0430 21:59:19.149721 32434 net.cpp:408] loss <- ip3
I0430 21:59:19.149725 32434 net.cpp:408] loss <- label
I0430 21:59:19.149730 32434 net.cpp:382] loss -> loss
I0430 21:59:19.149744 32434 layer_factory.hpp:77] Creating layer loss
…
I0430 21:59:19.150331 32434 solver.cpp:173] Creating test net (#0) specified by net file: ECE595/cifar/train_test/var_everything/cifar_train_test_179.prototxt
I0430 21:59:19.150357 32434 net.cpp:296] The NetState phase (1) differed from the phase (0) specified by a rule in layer cifar
I0430 21:59:19.150460 32434 net.cpp:53] Initializing net from parameters: 
name: "CIFAR"
state {
  phase: TEST
}
layer {
  name: "cifar"
  type: "Data"
  top: "data"
  top: "label"
  include {
    phase: TEST
  }
  transform_param {
    mean_file: "examples/cifar10/mean.binaryproto"
  }
  data_param {
    source: "examples/cifar10/cifar10_test_lmdb"
    batch_size: 1000
    backend: LMDB
  }
}
layer {
  name: "conv0"
  type: "Convolution"
  bottom: "data"
  top: "conv0"
  param {
    lr_mult: 1
  }
  param {
    lr_mult: 2
  }
  convolution_param {
    num_output: 8
    pad: 2
    kernel_size: 3
    stride: 1
    weight_filler {
      type: "gaussian"
      std: 0.01
    }
    bias_filler {
      type: "constant"
    }
  }
}
layer {
  name: "Sigmoid0"
  type: "Sigmoid"
  bottom: "conv0"
  top: "Sigmoid0"
}
layer {
  name: "pool0"
  type: "Pooling"
  bottom: "Sigmoid0"
  top: "pool0"
  pooling_param {
    pool: AVE
    kernel_size: 3
    stride: 2
  }
}
layer {
  name: "ip1"
  type: "InnerProduct"
  bottom: "pool0"
  top: "ip1"
  param {
    lr_mult: 1
  }
  param {
    lr_mult: 2
  }
  inner_product_param {
    num_output: 80
    weight_filler {
      type: "gaussian"
      std: 0.01
    }
    bias_filler {
      type: "constant"
    }
  }
}
layer {
  name: "relu1"
  type: "ReLU"
  bottom: "ip1"
  top: "ip1"
}
layer {
  name: "ip2"
  type: "InnerProduct"
  bottom: "ip1"
  top: "ip2"
  param {
    lr_mult: 1
  }
  param {
    lr_mult: 2
  }
  inner_product_param {
    num_output: 160
    weight_filler {
      type: "gaussian"
      std: 0.01
    }
    bias_filler {
      type: "constant"
    }
  }
}
layer {
  name: "relu2"
  type: "ReLU"
  bottom: "ip2"
  top: "ip2"
}
layer {
  name: "ip3"
  type: "InnerProduct"
  bottom: "ip2"
  top: "ip3"
  param {
    lr_mult: 1
  }
  param {
    lr_mult: 2
  }
  inner_product_param {
    num_output: 10
    weight_filler {
      type: "gaussian"
      std: 0.01
    }
    bias_filler {
      type: "constant"
    }
  }
}
layer {
  name: "accuracy"
  type: "Accuracy"
  bottom: "ip3"
  bottom: "label"
  top: "accuracy"
  include {
    phase: TEST
  }
}
layer {
  name: "loss"
  type: "SoftmaxWithLoss"
  bottom: "ip3"
  bottom: "label"
  top: "loss"
}
I0430 21:59:19.150529 32434 layer_factory.hpp:77] Creating layer cifar
I0430 21:59:19.150573 32434 db_lmdb.cpp:35] Opened lmdb examples/cifar10/cifar10_test_lmdb
I0430 21:59:19.150588 32434 net.cpp:86] Creating Layer cifar
I0430 21:59:19.150591 32434 net.cpp:382] cifar -> data
I0430 21:59:19.150599 32434 net.cpp:382] cifar -> label
I0430 21:59:19.150605 32434 data_transformer.cpp:25] Loading mean file from: examples/cifar10/mean.binaryproto
I0430 21:59:19.150754 32434 data_layer.cpp:45] output data size: 1000,3,32,32
I0430 21:59:19.174360 32434 net.cpp:124] Setting up cifar
I0430 21:59:19.174399 32434 net.cpp:131] Top shape: 1000 3 32 32 (3072000)
I0430 21:59:19.174420 32434 net.cpp:131] Top shape: 1000 (1000)
I0430 21:59:19.174423 32434 net.cpp:139] Memory required for data: 12292000
I0430 21:59:19.174429 32434 layer_factory.hpp:77] Creating layer label_cifar_1_split
I0430 21:59:19.174443 32434 net.cpp:86] Creating Layer label_cifar_1_split
I0430 21:59:19.174479 32434 net.cpp:408] label_cifar_1_split <- label
I0430 21:59:19.174489 32434 net.cpp:382] label_cifar_1_split -> label_cifar_1_split_0
I0430 21:59:19.174497 32434 net.cpp:382] label_cifar_1_split -> label_cifar_1_split_1
I0430 21:59:19.174552 32434 net.cpp:124] Setting up label_cifar_1_split
I0430 21:59:19.174566 32434 net.cpp:131] Top shape: 1000 (1000)
I0430 21:59:19.174569 32434 net.cpp:131] Top shape: 1000 (1000)
I0430 21:59:19.174572 32434 net.cpp:139] Memory required for data: 12300000
I0430 21:59:19.174576 32434 layer_factory.hpp:77] Creating layer conv0
I0430 21:59:19.174588 32434 net.cpp:86] Creating Layer conv0
I0430 21:59:19.174592 32434 net.cpp:408] conv0 <- data
I0430 21:59:19.174598 32434 net.cpp:382] conv0 -> conv0
I0430 21:59:19.176220 32434 net.cpp:124] Setting up conv0
I0430 21:59:19.176249 32434 net.cpp:131] Top shape: 1000 8 34 34 (9248000)
I0430 21:59:19.176254 32434 net.cpp:139] Memory required for data: 49292000
I0430 21:59:19.176264 32434 layer_factory.hpp:77] Creating layer Sigmoid0
I0430 21:59:19.176270 32434 net.cpp:86] Creating Layer Sigmoid0
I0430 21:59:19.176273 32434 net.cpp:408] Sigmoid0 <- conv0
I0430 21:59:19.176278 32434 net.cpp:382] Sigmoid0 -> Sigmoid0
I0430 21:59:19.177247 32434 net.cpp:124] Setting up Sigmoid0
I0430 21:59:19.177273 32434 net.cpp:131] Top shape: 1000 8 34 34 (9248000)
I0430 21:59:19.177276 32434 net.cpp:139] Memory required for data: 86284000
I0430 21:59:19.177280 32434 layer_factory.hpp:77] Creating layer pool0
I0430 21:59:19.177289 32434 net.cpp:86] Creating Layer pool0
I0430 21:59:19.177294 32434 net.cpp:408] pool0 <- Sigmoid0
I0430 21:59:19.177299 32434 net.cpp:382] pool0 -> pool0
I0430 21:59:19.178467 32434 net.cpp:124] Setting up pool0
I0430 21:59:19.178496 32434 net.cpp:131] Top shape: 1000 8 17 17 (2312000)
I0430 21:59:19.178500 32434 net.cpp:139] Memory required for data: 95532000
I0430 21:59:19.178504 32434 layer_factory.hpp:77] Creating layer ip1
I0430 21:59:19.178514 32434 net.cpp:86] Creating Layer ip1
I0430 21:59:19.178517 32434 net.cpp:408] ip1 <- pool0
I0430 21:59:19.178522 32434 net.cpp:382] ip1 -> ip1
I0430 21:59:19.183598 32434 net.cpp:124] Setting up ip1
I0430 21:59:19.183606 32434 net.cpp:131] Top shape: 1000 80 (80000)
I0430 21:59:19.183625 32434 net.cpp:139] Memory required for data: 95852000
I0430 21:59:19.183634 32434 layer_factory.hpp:77] Creating layer relu1
I0430 21:59:19.183640 32434 net.cpp:86] Creating Layer relu1
I0430 21:59:19.183645 32434 net.cpp:408] relu1 <- ip1
I0430 21:59:19.183650 32434 net.cpp:369] relu1 -> ip1 (in-place)
I0430 21:59:19.183802 32434 net.cpp:124] Setting up relu1
I0430 21:59:19.183811 32434 net.cpp:131] Top shape: 1000 80 (80000)
I0430 21:59:19.183815 32434 net.cpp:139] Memory required for data: 96172000
I0430 21:59:19.183817 32434 layer_factory.hpp:77] Creating layer ip2
I0430 21:59:19.183823 32434 net.cpp:86] Creating Layer ip2
I0430 21:59:19.183827 32434 net.cpp:408] ip2 <- ip1
I0430 21:59:19.183832 32434 net.cpp:382] ip2 -> ip2
I0430 21:59:19.184312 32434 net.cpp:124] Setting up ip2
I0430 21:59:19.184320 32434 net.cpp:131] Top shape: 1000 160 (160000)
I0430 21:59:19.184339 32434 net.cpp:139] Memory required for data: 96812000
I0430 21:59:19.184346 32434 layer_factory.hpp:77] Creating layer relu2
I0430 21:59:19.184352 32434 net.cpp:86] Creating Layer relu2
I0430 21:59:19.184356 32434 net.cpp:408] relu2 <- ip2
I0430 21:59:19.184360 32434 net.cpp:369] relu2 -> ip2 (in-place)
I0430 21:59:19.184533 32434 net.cpp:124] Setting up relu2
I0430 21:59:19.184541 32434 net.cpp:131] Top shape: 1000 160 (160000)
I0430 21:59:19.184545 32434 net.cpp:139] Memory required for data: 97452000
I0430 21:59:19.184548 32434 layer_factory.hpp:77] Creating layer ip3
I0430 21:59:19.184554 32434 net.cpp:86] Creating Layer ip3
I0430 21:59:19.184557 32434 net.cpp:408] ip3 <- ip2
I0430 21:59:19.184562 32434 net.cpp:382] ip3 -> ip3
I0430 21:59:19.184723 32434 net.cpp:124] Setting up ip3
I0430 21:59:19.184731 32434 net.cpp:131] Top shape: 1000 10 (10000)
I0430 21:59:19.184734 32434 net.cpp:139] Memory required for data: 97492000
I0430 21:59:19.184751 32434 layer_factory.hpp:77] Creating layer ip3_ip3_0_split
I0430 21:59:19.184757 32434 net.cpp:86] Creating Layer ip3_ip3_0_split
I0430 21:59:19.184762 32434 net.cpp:408] ip3_ip3_0_split <- ip3
I0430 21:59:19.184765 32434 net.cpp:382] ip3_ip3_0_split -> ip3_ip3_0_split_0
I0430 21:59:19.184772 32434 net.cpp:382] ip3_ip3_0_split -> ip3_ip3_0_split_1
I0430 21:59:19.184803 32434 net.cpp:124] Setting up ip3_ip3_0_split
I0430 21:59:19.184813 32434 net.cpp:131] Top shape: 1000 10 (10000)
I0430 21:59:19.184834 32434 net.cpp:131] Top shape: 1000 10 (10000)
I0430 21:59:19.184837 32434 net.cpp:139] Memory required for data: 97572000
I0430 21:59:19.184840 32434 layer_factory.hpp:77] Creating layer accuracy
I0430 21:59:19.184846 32434 net.cpp:86] Creating Layer accuracy
I0430 21:59:19.184849 32434 net.cpp:408] accuracy <- ip3_ip3_0_split_0
I0430 21:59:19.184854 32434 net.cpp:408] accuracy <- label_cifar_1_split_0
I0430 21:59:19.184859 32434 net.cpp:382] accuracy -> accuracy
…
