…
I0501 00:40:45.376107  7556 net.cpp:296] The NetState phase (0) differed from the phase (1) specified by a rule in layer cifar
I0501 00:40:45.376128  7556 net.cpp:296] The NetState phase (0) differed from the phase (1) specified by a rule in layer accuracy
I0501 00:40:45.376257  7556 net.cpp:53] Initializing net from parameters: 
name: "CIFAR"
state {
  phase: TRAIN
  level: 0
  stage: ""
}
layer {
  name: "cifar"
  type: "Data"
  top: "data"
  top: "label"
  include {
    phase: TRAIN
  }
  transform_param {
    mean_file: "examples/cifar10/mean.binaryproto"
  }
  data_param {
    source: "examples/cifar10/cifar10_train_lmdb"
    batch_size: 111
    backend: LMDB
  }
}
layer {
  name: "conv0"
  type: "Convolution"
  bottom: "data"
  top: "conv0"
  param {
    lr_mult: 1
  }
  param {
    lr_mult: 2
  }
  convolution_param {
    num_output: 8
    pad: 2
    kernel_size: 3
    stride: 1
    weight_filler {
      type: "gaussian"
      std: 0.01
    }
    bias_filler {
      type: "constant"
    }
  }
}
layer {
  name: "Sigmoid0"
  type: "Sigmoid"
  bottom: "conv0"
  top: "Sigmoid0"
}
layer {
  name: "pool0"
  type: "Pooling"
  bottom: "Sigmoid0"
  top: "pool0"
  pooling_param {
    pool: AVE
    kernel_size: 3
    stride: 2
  }
}
layer {
  name: "ip1"
  type: "InnerProduct"
  bottom: "pool0"
  top: "ip1"
  param {
    lr_mult: 1
  }
  param {
    lr_mult: 2
  }
  inner_product_param {
    num_output: 80
    weight_filler {
      type: "gaussian"
      std: 0.01
    }
    bias_filler {
      type: "constant"
    }
  }
}
layer {
  name: "relu1"
  type: "ReLU"
  bottom: "ip1"
  top: "ip1"
}
layer {
  name: "ip2"
  type: "InnerProduct"
  bottom: "ip1"
  top: "ip2"
  param {
    lr_mult: 1
  }
  param {
    lr_mult: 2
  }
  inner_product_param {
    num_output: 20
    weight_filler {
      type: "gaussian"
      std: 0.01
    }
    bias_filler {
      type: "constant"
    }
  }
}
layer {
  name: "relu2"
  type: "ReLU"
  bottom: "ip2"
  top: "ip2"
}
layer {
  name: "ip3"
  type: "InnerProduct"
  bottom: "ip2"
  top: "ip3"
  param {
    lr_mult: 1
  }
  param {
    lr_mult: 2
  }
  inner_product_param {
    num_output: 10
    weight_filler {
      type: "gaussian"
      std: 0.01
    }
    bias_filler {
      type: "constant"
    }
  }
}
layer {
  name: "relu3"
  type: "ReLU"
  bottom: "ip3"
  top: "ip3"
}
layer {
  name: "ip4"
  type: "InnerProduct"
  bottom: "ip3"
  top: "ip4"
  param {
    lr_mult: 1
  }
  param {
    lr_mult: 2
  }
  inner_product_param {
    num_output: 10
    weight_filler {
      type: "gaussian"
      std: 0.01
    }
    bias_filler {
      type: "constant"
    }
  }
}
layer {
  name: "loss"
  type: "SoftmaxWithLoss"
  bottom: "ip4"
  bottom: "label"
  top: "loss"
}
I0501 00:40:45.376366  7556 layer_factory.hpp:77] Creating layer cifar
I0501 00:40:45.376497  7556 db_lmdb.cpp:35] Opened lmdb examples/cifar10/cifar10_train_lmdb
I0501 00:40:45.376533  7556 net.cpp:86] Creating Layer cifar
I0501 00:40:45.376549  7556 net.cpp:382] cifar -> data
I0501 00:40:45.376580  7556 net.cpp:382] cifar -> label
I0501 00:40:45.376596  7556 data_transformer.cpp:25] Loading mean file from: examples/cifar10/mean.binaryproto
I0501 00:40:45.378950  7556 data_layer.cpp:45] output data size: 111,3,32,32
I0501 00:40:45.386852  7556 net.cpp:124] Setting up cifar
I0501 00:40:45.386871  7556 net.cpp:131] Top shape: 111 3 32 32 (340992)
I0501 00:40:45.386878  7556 net.cpp:131] Top shape: 111 (111)
I0501 00:40:45.386881  7556 net.cpp:139] Memory required for data: 1364412
I0501 00:40:45.386909  7556 layer_factory.hpp:77] Creating layer conv0
I0501 00:40:45.386936  7556 net.cpp:86] Creating Layer conv0
I0501 00:40:45.386946  7556 net.cpp:408] conv0 <- data
I0501 00:40:45.386966  7556 net.cpp:382] conv0 -> conv0
I0501 00:40:45.666301  7556 net.cpp:124] Setting up conv0
I0501 00:40:45.666328  7556 net.cpp:131] Top shape: 111 8 34 34 (1026528)
I0501 00:40:45.666332  7556 net.cpp:139] Memory required for data: 5470524
I0501 00:40:45.666348  7556 layer_factory.hpp:77] Creating layer Sigmoid0
I0501 00:40:45.666359  7556 net.cpp:86] Creating Layer Sigmoid0
I0501 00:40:45.666363  7556 net.cpp:408] Sigmoid0 <- conv0
I0501 00:40:45.666368  7556 net.cpp:382] Sigmoid0 -> Sigmoid0
I0501 00:40:45.666563  7556 net.cpp:124] Setting up Sigmoid0
I0501 00:40:45.666574  7556 net.cpp:131] Top shape: 111 8 34 34 (1026528)
I0501 00:40:45.666577  7556 net.cpp:139] Memory required for data: 9576636
I0501 00:40:45.666581  7556 layer_factory.hpp:77] Creating layer pool0
I0501 00:40:45.666590  7556 net.cpp:86] Creating Layer pool0
I0501 00:40:45.666596  7556 net.cpp:408] pool0 <- Sigmoid0
I0501 00:40:45.666604  7556 net.cpp:382] pool0 -> pool0
I0501 00:40:45.667330  7556 net.cpp:124] Setting up pool0
I0501 00:40:45.667342  7556 net.cpp:131] Top shape: 111 8 17 17 (256632)
I0501 00:40:45.667346  7556 net.cpp:139] Memory required for data: 10603164
I0501 00:40:45.667349  7556 layer_factory.hpp:77] Creating layer ip1
I0501 00:40:45.667358  7556 net.cpp:86] Creating Layer ip1
I0501 00:40:45.667361  7556 net.cpp:408] ip1 <- pool0
I0501 00:40:45.667366  7556 net.cpp:382] ip1 -> ip1
I0501 00:40:45.672994  7556 net.cpp:124] Setting up ip1
I0501 00:40:45.673007  7556 net.cpp:131] Top shape: 111 80 (8880)
I0501 00:40:45.673010  7556 net.cpp:139] Memory required for data: 10638684
I0501 00:40:45.673019  7556 layer_factory.hpp:77] Creating layer relu1
I0501 00:40:45.673025  7556 net.cpp:86] Creating Layer relu1
I0501 00:40:45.673029  7556 net.cpp:408] relu1 <- ip1
I0501 00:40:45.673036  7556 net.cpp:369] relu1 -> ip1 (in-place)
I0501 00:40:45.673225  7556 net.cpp:124] Setting up relu1
I0501 00:40:45.673234  7556 net.cpp:131] Top shape: 111 80 (8880)
I0501 00:40:45.673238  7556 net.cpp:139] Memory required for data: 10674204
I0501 00:40:45.673241  7556 layer_factory.hpp:77] Creating layer ip2
I0501 00:40:45.673250  7556 net.cpp:86] Creating Layer ip2
I0501 00:40:45.673255  7556 net.cpp:408] ip2 <- ip1
I0501 00:40:45.673264  7556 net.cpp:382] ip2 -> ip2
I0501 00:40:45.673410  7556 net.cpp:124] Setting up ip2
I0501 00:40:45.673418  7556 net.cpp:131] Top shape: 111 20 (2220)
I0501 00:40:45.673421  7556 net.cpp:139] Memory required for data: 10683084
I0501 00:40:45.673430  7556 layer_factory.hpp:77] Creating layer relu2
I0501 00:40:45.673440  7556 net.cpp:86] Creating Layer relu2
I0501 00:40:45.673445  7556 net.cpp:408] relu2 <- ip2
I0501 00:40:45.673451  7556 net.cpp:369] relu2 -> ip2 (in-place)
I0501 00:40:45.673619  7556 net.cpp:124] Setting up relu2
I0501 00:40:45.673626  7556 net.cpp:131] Top shape: 111 20 (2220)
I0501 00:40:45.673629  7556 net.cpp:139] Memory required for data: 10691964
I0501 00:40:45.673633  7556 layer_factory.hpp:77] Creating layer ip3
I0501 00:40:45.673645  7556 net.cpp:86] Creating Layer ip3
I0501 00:40:45.673650  7556 net.cpp:408] ip3 <- ip2
I0501 00:40:45.673660  7556 net.cpp:382] ip3 -> ip3
I0501 00:40:45.673764  7556 net.cpp:124] Setting up ip3
I0501 00:40:45.673773  7556 net.cpp:131] Top shape: 111 10 (1110)
I0501 00:40:45.673775  7556 net.cpp:139] Memory required for data: 10696404
I0501 00:40:45.673782  7556 layer_factory.hpp:77] Creating layer relu3
I0501 00:40:45.673790  7556 net.cpp:86] Creating Layer relu3
I0501 00:40:45.673794  7556 net.cpp:408] relu3 <- ip3
I0501 00:40:45.673801  7556 net.cpp:369] relu3 -> ip3 (in-place)
I0501 00:40:45.673957  7556 net.cpp:124] Setting up relu3
I0501 00:40:45.673965  7556 net.cpp:131] Top shape: 111 10 (1110)
I0501 00:40:45.673969  7556 net.cpp:139] Memory required for data: 10700844
I0501 00:40:45.673972  7556 layer_factory.hpp:77] Creating layer ip4
I0501 00:40:45.673998  7556 net.cpp:86] Creating Layer ip4
I0501 00:40:45.674005  7556 net.cpp:408] ip4 <- ip3
I0501 00:40:45.674011  7556 net.cpp:382] ip4 -> ip4
I0501 00:40:45.674118  7556 net.cpp:124] Setting up ip4
I0501 00:40:45.674125  7556 net.cpp:131] Top shape: 111 10 (1110)
I0501 00:40:45.674129  7556 net.cpp:139] Memory required for data: 10705284
I0501 00:40:45.674139  7556 layer_factory.hpp:77] Creating layer loss
I0501 00:40:45.674154  7556 net.cpp:86] Creating Layer loss
I0501 00:40:45.674159  7556 net.cpp:408] loss <- ip4
I0501 00:40:45.674165  7556 net.cpp:408] loss <- label
I0501 00:40:45.674172  7556 net.cpp:382] loss -> loss
I0501 00:40:45.674190  7556 layer_factory.hpp:77] Creating layer loss
…
I0501 00:40:45.675390  7556 solver.cpp:173] Creating test net (#0) specified by net file: ECE595/cifar/train_test/var_everything/cifar_train_test_265.prototxt
I0501 00:40:45.675424  7556 net.cpp:296] The NetState phase (1) differed from the phase (0) specified by a rule in layer cifar
I0501 00:40:45.675526  7556 net.cpp:53] Initializing net from parameters: 
name: "CIFAR"
state {
  phase: TEST
}
layer {
  name: "cifar"
  type: "Data"
  top: "data"
  top: "label"
  include {
    phase: TEST
  }
  transform_param {
    mean_file: "examples/cifar10/mean.binaryproto"
  }
  data_param {
    source: "examples/cifar10/cifar10_test_lmdb"
    batch_size: 1000
    backend: LMDB
  }
}
layer {
  name: "conv0"
  type: "Convolution"
  bottom: "data"
  top: "conv0"
  param {
    lr_mult: 1
  }
  param {
    lr_mult: 2
  }
  convolution_param {
    num_output: 8
    pad: 2
    kernel_size: 3
    stride: 1
    weight_filler {
      type: "gaussian"
      std: 0.01
    }
    bias_filler {
      type: "constant"
    }
  }
}
layer {
  name: "Sigmoid0"
  type: "Sigmoid"
  bottom: "conv0"
  top: "Sigmoid0"
}
layer {
  name: "pool0"
  type: "Pooling"
  bottom: "Sigmoid0"
  top: "pool0"
  pooling_param {
    pool: AVE
    kernel_size: 3
    stride: 2
  }
}
layer {
  name: "ip1"
  type: "InnerProduct"
  bottom: "pool0"
  top: "ip1"
  param {
    lr_mult: 1
  }
  param {
    lr_mult: 2
  }
  inner_product_param {
    num_output: 80
    weight_filler {
      type: "gaussian"
      std: 0.01
    }
    bias_filler {
      type: "constant"
    }
  }
}
layer {
  name: "relu1"
  type: "ReLU"
  bottom: "ip1"
  top: "ip1"
}
layer {
  name: "ip2"
  type: "InnerProduct"
  bottom: "ip1"
  top: "ip2"
  param {
    lr_mult: 1
  }
  param {
    lr_mult: 2
  }
  inner_product_param {
    num_output: 20
    weight_filler {
      type: "gaussian"
      std: 0.01
    }
    bias_filler {
      type: "constant"
    }
  }
}
layer {
  name: "relu2"
  type: "ReLU"
  bottom: "ip2"
  top: "ip2"
}
layer {
  name: "ip3"
  type: "InnerProduct"
  bottom: "ip2"
  top: "ip3"
  param {
    lr_mult: 1
  }
  param {
    lr_mult: 2
  }
  inner_product_param {
    num_output: 10
    weight_filler {
      type: "gaussian"
      std: 0.01
    }
    bias_filler {
      type: "constant"
    }
  }
}
layer {
  name: "relu3"
  type: "ReLU"
  bottom: "ip3"
  top: "ip3"
}
layer {
  name: "ip4"
  type: "InnerProduct"
  bottom: "ip3"
  top: "ip4"
  param {
    lr_mult: 1
  }
  param {
    lr_mult: 2
  }
  inner_product_param {
    num_output: 10
    weight_filler {
      type: "gaussian"
      std: 0.01
    }
    bias_filler {
      type: "constant"
    }
  }
}
layer {
  name: "accuracy"
  type: "Accuracy"
  bottom: "ip4"
  bottom: "label"
  top: "accuracy"
  include {
    phase: TEST
  }
}
layer {
  name: "loss"
  type: "SoftmaxWithLoss"
  bottom: "ip4"
  bottom: "label"
  top: "loss"
}
I0501 00:40:45.675637  7556 layer_factory.hpp:77] Creating layer cifar
I0501 00:40:45.675693  7556 db_lmdb.cpp:35] Opened lmdb examples/cifar10/cifar10_test_lmdb
I0501 00:40:45.675709  7556 net.cpp:86] Creating Layer cifar
I0501 00:40:45.675719  7556 net.cpp:382] cifar -> data
I0501 00:40:45.675729  7556 net.cpp:382] cifar -> label
I0501 00:40:45.675739  7556 data_transformer.cpp:25] Loading mean file from: examples/cifar10/mean.binaryproto
I0501 00:40:45.675936  7556 data_layer.cpp:45] output data size: 1000,3,32,32
I0501 00:40:45.699087  7556 net.cpp:124] Setting up cifar
I0501 00:40:45.699113  7556 net.cpp:131] Top shape: 1000 3 32 32 (3072000)
I0501 00:40:45.699118  7556 net.cpp:131] Top shape: 1000 (1000)
I0501 00:40:45.699121  7556 net.cpp:139] Memory required for data: 12292000
I0501 00:40:45.699126  7556 layer_factory.hpp:77] Creating layer label_cifar_1_split
I0501 00:40:45.699141  7556 net.cpp:86] Creating Layer label_cifar_1_split
I0501 00:40:45.699146  7556 net.cpp:408] label_cifar_1_split <- label
I0501 00:40:45.699168  7556 net.cpp:382] label_cifar_1_split -> label_cifar_1_split_0
I0501 00:40:45.699177  7556 net.cpp:382] label_cifar_1_split -> label_cifar_1_split_1
I0501 00:40:45.699304  7556 net.cpp:124] Setting up label_cifar_1_split
I0501 00:40:45.699312  7556 net.cpp:131] Top shape: 1000 (1000)
I0501 00:40:45.699316  7556 net.cpp:131] Top shape: 1000 (1000)
I0501 00:40:45.699319  7556 net.cpp:139] Memory required for data: 12300000
I0501 00:40:45.699324  7556 layer_factory.hpp:77] Creating layer conv0
I0501 00:40:45.699344  7556 net.cpp:86] Creating Layer conv0
I0501 00:40:45.699350  7556 net.cpp:408] conv0 <- data
I0501 00:40:45.699360  7556 net.cpp:382] conv0 -> conv0
I0501 00:40:45.700911  7556 net.cpp:124] Setting up conv0
I0501 00:40:45.700924  7556 net.cpp:131] Top shape: 1000 8 34 34 (9248000)
I0501 00:40:45.700927  7556 net.cpp:139] Memory required for data: 49292000
I0501 00:40:45.700937  7556 layer_factory.hpp:77] Creating layer Sigmoid0
I0501 00:40:45.700943  7556 net.cpp:86] Creating Layer Sigmoid0
I0501 00:40:45.700947  7556 net.cpp:408] Sigmoid0 <- conv0
I0501 00:40:45.700950  7556 net.cpp:382] Sigmoid0 -> Sigmoid0
I0501 00:40:45.701149  7556 net.cpp:124] Setting up Sigmoid0
I0501 00:40:45.701159  7556 net.cpp:131] Top shape: 1000 8 34 34 (9248000)
I0501 00:40:45.701162  7556 net.cpp:139] Memory required for data: 86284000
I0501 00:40:45.701165  7556 layer_factory.hpp:77] Creating layer pool0
I0501 00:40:45.701177  7556 net.cpp:86] Creating Layer pool0
I0501 00:40:45.701182  7556 net.cpp:408] pool0 <- Sigmoid0
I0501 00:40:45.701189  7556 net.cpp:382] pool0 -> pool0
I0501 00:40:45.701455  7556 net.cpp:124] Setting up pool0
I0501 00:40:45.701465  7556 net.cpp:131] Top shape: 1000 8 17 17 (2312000)
I0501 00:40:45.701468  7556 net.cpp:139] Memory required for data: 95532000
I0501 00:40:45.701472  7556 layer_factory.hpp:77] Creating layer ip1
I0501 00:40:45.701485  7556 net.cpp:86] Creating Layer ip1
I0501 00:40:45.701491  7556 net.cpp:408] ip1 <- pool0
I0501 00:40:45.701501  7556 net.cpp:382] ip1 -> ip1
I0501 00:40:45.708326  7556 net.cpp:124] Setting up ip1
I0501 00:40:45.708336  7556 net.cpp:131] Top shape: 1000 80 (80000)
I0501 00:40:45.708354  7556 net.cpp:139] Memory required for data: 95852000
I0501 00:40:45.708377  7556 layer_factory.hpp:77] Creating layer relu1
I0501 00:40:45.708385  7556 net.cpp:86] Creating Layer relu1
I0501 00:40:45.708389  7556 net.cpp:408] relu1 <- ip1
I0501 00:40:45.708395  7556 net.cpp:369] relu1 -> ip1 (in-place)
I0501 00:40:45.708581  7556 net.cpp:124] Setting up relu1
I0501 00:40:45.708591  7556 net.cpp:131] Top shape: 1000 80 (80000)
I0501 00:40:45.708595  7556 net.cpp:139] Memory required for data: 96172000
I0501 00:40:45.708598  7556 layer_factory.hpp:77] Creating layer ip2
I0501 00:40:45.708611  7556 net.cpp:86] Creating Layer ip2
I0501 00:40:45.708616  7556 net.cpp:408] ip2 <- ip1
I0501 00:40:45.708622  7556 net.cpp:382] ip2 -> ip2
I0501 00:40:45.708788  7556 net.cpp:124] Setting up ip2
I0501 00:40:45.708796  7556 net.cpp:131] Top shape: 1000 20 (20000)
I0501 00:40:45.708798  7556 net.cpp:139] Memory required for data: 96252000
I0501 00:40:45.708807  7556 layer_factory.hpp:77] Creating layer relu2
I0501 00:40:45.708829  7556 net.cpp:86] Creating Layer relu2
I0501 00:40:45.708835  7556 net.cpp:408] relu2 <- ip2
I0501 00:40:45.708842  7556 net.cpp:369] relu2 -> ip2 (in-place)
I0501 00:40:45.709647  7556 net.cpp:124] Setting up relu2
I0501 00:40:45.709659  7556 net.cpp:131] Top shape: 1000 20 (20000)
I0501 00:40:45.709662  7556 net.cpp:139] Memory required for data: 96332000
I0501 00:40:45.709681  7556 layer_factory.hpp:77] Creating layer ip3
I0501 00:40:45.709687  7556 net.cpp:86] Creating Layer ip3
I0501 00:40:45.709691  7556 net.cpp:408] ip3 <- ip2
I0501 00:40:45.709697  7556 net.cpp:382] ip3 -> ip3
I0501 00:40:45.709827  7556 net.cpp:124] Setting up ip3
I0501 00:40:45.709836  7556 net.cpp:131] Top shape: 1000 10 (10000)
I0501 00:40:45.709839  7556 net.cpp:139] Memory required for data: 96372000
I0501 00:40:45.709846  7556 layer_factory.hpp:77] Creating layer relu3
I0501 00:40:45.709852  7556 net.cpp:86] Creating Layer relu3
I0501 00:40:45.709857  7556 net.cpp:408] relu3 <- ip3
I0501 00:40:45.709866  7556 net.cpp:369] relu3 -> ip3 (in-place)
I0501 00:40:45.710057  7556 net.cpp:124] Setting up relu3
I0501 00:40:45.710067  7556 net.cpp:131] Top shape: 1000 10 (10000)
I0501 00:40:45.710069  7556 net.cpp:139] Memory required for data: 96412000
I0501 00:40:45.710073  7556 layer_factory.hpp:77] Creating layer ip4
I0501 00:40:45.710083  7556 net.cpp:86] Creating Layer ip4
I0501 00:40:45.710088  7556 net.cpp:408] ip4 <- ip3
I0501 00:40:45.710096  7556 net.cpp:382] ip4 -> ip4
I0501 00:40:45.710214  7556 net.cpp:124] Setting up ip4
I0501 00:40:45.710222  7556 net.cpp:131] Top shape: 1000 10 (10000)
I0501 00:40:45.710224  7556 net.cpp:139] Memory required for data: 96452000
I0501 00:40:45.710235  7556 layer_factory.hpp:77] Creating layer ip4_ip4_0_split
I0501 00:40:45.710243  7556 net.cpp:86] Creating Layer ip4_ip4_0_split
I0501 00:40:45.710248  7556 net.cpp:408] ip4_ip4_0_split <- ip4
I0501 00:40:45.710256  7556 net.cpp:382] ip4_ip4_0_split -> ip4_ip4_0_split_0
I0501 00:40:45.710264  7556 net.cpp:382] ip4_ip4_0_split -> ip4_ip4_0_split_1
I0501 00:40:45.710309  7556 net.cpp:124] Setting up ip4_ip4_0_split
I0501 00:40:45.710316  7556 net.cpp:131] Top shape: 1000 10 (10000)
I0501 00:40:45.710320  7556 net.cpp:131] Top shape: 1000 10 (10000)
I0501 00:40:45.710325  7556 net.cpp:139] Memory required for data: 96532000
I0501 00:40:45.710330  7556 layer_factory.hpp:77] Creating layer accuracy
I0501 00:40:45.710338  7556 net.cpp:86] Creating Layer accuracy
I0501 00:40:45.710343  7556 net.cpp:408] accuracy <- ip4_ip4_0_split_0
I0501 00:40:45.710350  7556 net.cpp:408] accuracy <- label_cifar_1_split_0
I0501 00:40:45.710357  7556 net.cpp:382] accuracy -> accuracy
…
