…
I0430 23:48:18.070264  5633 net.cpp:296] The NetState phase (0) differed from the phase (1) specified by a rule in layer cifar
I0430 23:48:18.070282  5633 net.cpp:296] The NetState phase (0) differed from the phase (1) specified by a rule in layer accuracy
I0430 23:48:18.070387  5633 net.cpp:53] Initializing net from parameters: 
name: "CIFAR"
state {
  phase: TRAIN
  level: 0
  stage: ""
}
layer {
  name: "cifar"
  type: "Data"
  top: "data"
  top: "label"
  include {
    phase: TRAIN
  }
  transform_param {
    mean_file: "examples/cifar10/mean.binaryproto"
  }
  data_param {
    source: "examples/cifar10/cifar10_train_lmdb"
    batch_size: 111
    backend: LMDB
  }
}
layer {
  name: "conv0"
  type: "Convolution"
  bottom: "data"
  top: "conv0"
  param {
    lr_mult: 1
  }
  param {
    lr_mult: 2
  }
  convolution_param {
    num_output: 8
    pad: 2
    kernel_size: 3
    stride: 1
    weight_filler {
      type: "gaussian"
      std: 0.01
    }
    bias_filler {
      type: "constant"
    }
  }
}
layer {
  name: "Sigmoid0"
  type: "Sigmoid"
  bottom: "conv0"
  top: "Sigmoid0"
}
layer {
  name: "pool0"
  type: "Pooling"
  bottom: "Sigmoid0"
  top: "pool0"
  pooling_param {
    pool: AVE
    kernel_size: 3
    stride: 2
  }
}
layer {
  name: "ip1"
  type: "InnerProduct"
  bottom: "pool0"
  top: "ip1"
  param {
    lr_mult: 1
  }
  param {
    lr_mult: 2
  }
  inner_product_param {
    num_output: 40
    weight_filler {
      type: "gaussian"
      std: 0.01
    }
    bias_filler {
      type: "constant"
    }
  }
}
layer {
  name: "relu1"
  type: "ReLU"
  bottom: "ip1"
  top: "ip1"
}
layer {
  name: "ip2"
  type: "InnerProduct"
  bottom: "ip1"
  top: "ip2"
  param {
    lr_mult: 1
  }
  param {
    lr_mult: 2
  }
  inner_product_param {
    num_output: 10
    weight_filler {
      type: "gaussian"
      std: 0.01
    }
    bias_filler {
      type: "constant"
    }
  }
}
layer {
  name: "relu2"
  type: "ReLU"
  bottom: "ip2"
  top: "ip2"
}
layer {
  name: "ip3"
  type: "InnerProduct"
  bottom: "ip2"
  top: "ip3"
  param {
    lr_mult: 1
  }
  param {
    lr_mult: 2
  }
  inner_product_param {
    num_output: 40
    weight_filler {
      type: "gaussian"
      std: 0.01
    }
    bias_filler {
      type: "constant"
    }
  }
}
layer {
  name: "relu3"
  type: "ReLU"
  bottom: "ip3"
  top: "ip3"
}
layer {
  name: "ip4"
  type: "InnerProduct"
  bottom: "ip3"
  top: "ip4"
  param {
    lr_mult: 1
  }
  param {
    lr_mult: 2
  }
  inner_product_param {
    num_output: 10
    weight_filler {
      type: "gaussian"
      std: 0.01
    }
    bias_filler {
      type: "constant"
    }
  }
}
layer {
  name: "loss"
  type: "SoftmaxWithLoss"
  bottom: "ip4"
  bottom: "label"
  top: "loss"
}
I0430 23:48:18.070468  5633 layer_factory.hpp:77] Creating layer cifar
I0430 23:48:18.070569  5633 db_lmdb.cpp:35] Opened lmdb examples/cifar10/cifar10_train_lmdb
I0430 23:48:18.070595  5633 net.cpp:86] Creating Layer cifar
I0430 23:48:18.070605  5633 net.cpp:382] cifar -> data
I0430 23:48:18.070627  5633 net.cpp:382] cifar -> label
I0430 23:48:18.070639  5633 data_transformer.cpp:25] Loading mean file from: examples/cifar10/mean.binaryproto
I0430 23:48:18.072759  5633 data_layer.cpp:45] output data size: 111,3,32,32
I0430 23:48:18.080605  5633 net.cpp:124] Setting up cifar
I0430 23:48:18.080626  5633 net.cpp:131] Top shape: 111 3 32 32 (340992)
I0430 23:48:18.080632  5633 net.cpp:131] Top shape: 111 (111)
I0430 23:48:18.080636  5633 net.cpp:139] Memory required for data: 1364412
I0430 23:48:18.080662  5633 layer_factory.hpp:77] Creating layer conv0
I0430 23:48:18.080682  5633 net.cpp:86] Creating Layer conv0
I0430 23:48:18.080698  5633 net.cpp:408] conv0 <- data
I0430 23:48:18.080714  5633 net.cpp:382] conv0 -> conv0
I0430 23:48:18.362836  5633 net.cpp:124] Setting up conv0
I0430 23:48:18.362864  5633 net.cpp:131] Top shape: 111 8 34 34 (1026528)
I0430 23:48:18.362867  5633 net.cpp:139] Memory required for data: 5470524
I0430 23:48:18.362882  5633 layer_factory.hpp:77] Creating layer Sigmoid0
I0430 23:48:18.362905  5633 net.cpp:86] Creating Layer Sigmoid0
I0430 23:48:18.362920  5633 net.cpp:408] Sigmoid0 <- conv0
I0430 23:48:18.362924  5633 net.cpp:382] Sigmoid0 -> Sigmoid0
I0430 23:48:18.363092  5633 net.cpp:124] Setting up Sigmoid0
I0430 23:48:18.363101  5633 net.cpp:131] Top shape: 111 8 34 34 (1026528)
I0430 23:48:18.363104  5633 net.cpp:139] Memory required for data: 9576636
I0430 23:48:18.363108  5633 layer_factory.hpp:77] Creating layer pool0
I0430 23:48:18.363116  5633 net.cpp:86] Creating Layer pool0
I0430 23:48:18.363118  5633 net.cpp:408] pool0 <- Sigmoid0
I0430 23:48:18.363122  5633 net.cpp:382] pool0 -> pool0
I0430 23:48:18.363832  5633 net.cpp:124] Setting up pool0
I0430 23:48:18.363845  5633 net.cpp:131] Top shape: 111 8 17 17 (256632)
I0430 23:48:18.363848  5633 net.cpp:139] Memory required for data: 10603164
I0430 23:48:18.363852  5633 layer_factory.hpp:77] Creating layer ip1
I0430 23:48:18.363862  5633 net.cpp:86] Creating Layer ip1
I0430 23:48:18.363865  5633 net.cpp:408] ip1 <- pool0
I0430 23:48:18.363870  5633 net.cpp:382] ip1 -> ip1
I0430 23:48:18.366351  5633 net.cpp:124] Setting up ip1
I0430 23:48:18.366360  5633 net.cpp:131] Top shape: 111 40 (4440)
I0430 23:48:18.366364  5633 net.cpp:139] Memory required for data: 10620924
I0430 23:48:18.366370  5633 layer_factory.hpp:77] Creating layer relu1
I0430 23:48:18.366376  5633 net.cpp:86] Creating Layer relu1
I0430 23:48:18.366379  5633 net.cpp:408] relu1 <- ip1
I0430 23:48:18.366384  5633 net.cpp:369] relu1 -> ip1 (in-place)
I0430 23:48:18.366523  5633 net.cpp:124] Setting up relu1
I0430 23:48:18.366529  5633 net.cpp:131] Top shape: 111 40 (4440)
I0430 23:48:18.366533  5633 net.cpp:139] Memory required for data: 10638684
I0430 23:48:18.366535  5633 layer_factory.hpp:77] Creating layer ip2
I0430 23:48:18.366541  5633 net.cpp:86] Creating Layer ip2
I0430 23:48:18.366544  5633 net.cpp:408] ip2 <- ip1
I0430 23:48:18.366549  5633 net.cpp:382] ip2 -> ip2
I0430 23:48:18.367450  5633 net.cpp:124] Setting up ip2
I0430 23:48:18.367462  5633 net.cpp:131] Top shape: 111 10 (1110)
I0430 23:48:18.367465  5633 net.cpp:139] Memory required for data: 10643124
I0430 23:48:18.367473  5633 layer_factory.hpp:77] Creating layer relu2
I0430 23:48:18.367480  5633 net.cpp:86] Creating Layer relu2
I0430 23:48:18.367482  5633 net.cpp:408] relu2 <- ip2
I0430 23:48:18.367486  5633 net.cpp:369] relu2 -> ip2 (in-place)
I0430 23:48:18.367635  5633 net.cpp:124] Setting up relu2
I0430 23:48:18.367642  5633 net.cpp:131] Top shape: 111 10 (1110)
I0430 23:48:18.367645  5633 net.cpp:139] Memory required for data: 10647564
I0430 23:48:18.367648  5633 layer_factory.hpp:77] Creating layer ip3
I0430 23:48:18.367655  5633 net.cpp:86] Creating Layer ip3
I0430 23:48:18.367658  5633 net.cpp:408] ip3 <- ip2
I0430 23:48:18.367663  5633 net.cpp:382] ip3 -> ip3
I0430 23:48:18.367759  5633 net.cpp:124] Setting up ip3
I0430 23:48:18.367765  5633 net.cpp:131] Top shape: 111 40 (4440)
I0430 23:48:18.367769  5633 net.cpp:139] Memory required for data: 10665324
I0430 23:48:18.367774  5633 layer_factory.hpp:77] Creating layer relu3
I0430 23:48:18.367779  5633 net.cpp:86] Creating Layer relu3
I0430 23:48:18.367782  5633 net.cpp:408] relu3 <- ip3
I0430 23:48:18.367785  5633 net.cpp:369] relu3 -> ip3 (in-place)
I0430 23:48:18.367923  5633 net.cpp:124] Setting up relu3
I0430 23:48:18.367930  5633 net.cpp:131] Top shape: 111 40 (4440)
I0430 23:48:18.367933  5633 net.cpp:139] Memory required for data: 10683084
I0430 23:48:18.367935  5633 layer_factory.hpp:77] Creating layer ip4
I0430 23:48:18.367959  5633 net.cpp:86] Creating Layer ip4
I0430 23:48:18.367977  5633 net.cpp:408] ip4 <- ip3
I0430 23:48:18.367983  5633 net.cpp:382] ip4 -> ip4
I0430 23:48:18.368083  5633 net.cpp:124] Setting up ip4
I0430 23:48:18.368089  5633 net.cpp:131] Top shape: 111 10 (1110)
I0430 23:48:18.368093  5633 net.cpp:139] Memory required for data: 10687524
I0430 23:48:18.368099  5633 layer_factory.hpp:77] Creating layer loss
I0430 23:48:18.368104  5633 net.cpp:86] Creating Layer loss
I0430 23:48:18.368108  5633 net.cpp:408] loss <- ip4
I0430 23:48:18.368111  5633 net.cpp:408] loss <- label
I0430 23:48:18.368116  5633 net.cpp:382] loss -> loss
I0430 23:48:18.368130  5633 layer_factory.hpp:77] Creating layer loss
…
I0430 23:48:18.369393  5633 solver.cpp:173] Creating test net (#0) specified by net file: ECE595/cifar/train_test/var_everything/cifar_train_test_237.prototxt
I0430 23:48:18.369420  5633 net.cpp:296] The NetState phase (1) differed from the phase (0) specified by a rule in layer cifar
I0430 23:48:18.369505  5633 net.cpp:53] Initializing net from parameters: 
name: "CIFAR"
state {
  phase: TEST
}
layer {
  name: "cifar"
  type: "Data"
  top: "data"
  top: "label"
  include {
    phase: TEST
  }
  transform_param {
    mean_file: "examples/cifar10/mean.binaryproto"
  }
  data_param {
    source: "examples/cifar10/cifar10_test_lmdb"
    batch_size: 1000
    backend: LMDB
  }
}
layer {
  name: "conv0"
  type: "Convolution"
  bottom: "data"
  top: "conv0"
  param {
    lr_mult: 1
  }
  param {
    lr_mult: 2
  }
  convolution_param {
    num_output: 8
    pad: 2
    kernel_size: 3
    stride: 1
    weight_filler {
      type: "gaussian"
      std: 0.01
    }
    bias_filler {
      type: "constant"
    }
  }
}
layer {
  name: "Sigmoid0"
  type: "Sigmoid"
  bottom: "conv0"
  top: "Sigmoid0"
}
layer {
  name: "pool0"
  type: "Pooling"
  bottom: "Sigmoid0"
  top: "pool0"
  pooling_param {
    pool: AVE
    kernel_size: 3
    stride: 2
  }
}
layer {
  name: "ip1"
  type: "InnerProduct"
  bottom: "pool0"
  top: "ip1"
  param {
    lr_mult: 1
  }
  param {
    lr_mult: 2
  }
  inner_product_param {
    num_output: 40
    weight_filler {
      type: "gaussian"
      std: 0.01
    }
    bias_filler {
      type: "constant"
    }
  }
}
layer {
  name: "relu1"
  type: "ReLU"
  bottom: "ip1"
  top: "ip1"
}
layer {
  name: "ip2"
  type: "InnerProduct"
  bottom: "ip1"
  top: "ip2"
  param {
    lr_mult: 1
  }
  param {
    lr_mult: 2
  }
  inner_product_param {
    num_output: 10
    weight_filler {
      type: "gaussian"
      std: 0.01
    }
    bias_filler {
      type: "constant"
    }
  }
}
layer {
  name: "relu2"
  type: "ReLU"
  bottom: "ip2"
  top: "ip2"
}
layer {
  name: "ip3"
  type: "InnerProduct"
  bottom: "ip2"
  top: "ip3"
  param {
    lr_mult: 1
  }
  param {
    lr_mult: 2
  }
  inner_product_param {
    num_output: 40
    weight_filler {
      type: "gaussian"
      std: 0.01
    }
    bias_filler {
      type: "constant"
    }
  }
}
layer {
  name: "relu3"
  type: "ReLU"
  bottom: "ip3"
  top: "ip3"
}
layer {
  name: "ip4"
  type: "InnerProduct"
  bottom: "ip3"
  top: "ip4"
  param {
    lr_mult: 1
  }
  param {
    lr_mult: 2
  }
  inner_product_param {
    num_output: 10
    weight_filler {
      type: "gaussian"
      std: 0.01
    }
    bias_filler {
      type: "constant"
    }
  }
}
layer {
  name: "accuracy"
  type: "Accuracy"
  bottom: "ip4"
  bottom: "label"
  top: "accuracy"
  include {
    phase: TEST
  }
}
layer {
  name: "loss"
  type: "SoftmaxWithLoss"
  bottom: "ip4"
  bottom: "label"
  top: "loss"
}
I0430 23:48:18.369580  5633 layer_factory.hpp:77] Creating layer cifar
I0430 23:48:18.369621  5633 db_lmdb.cpp:35] Opened lmdb examples/cifar10/cifar10_test_lmdb
I0430 23:48:18.369633  5633 net.cpp:86] Creating Layer cifar
I0430 23:48:18.369638  5633 net.cpp:382] cifar -> data
I0430 23:48:18.369645  5633 net.cpp:382] cifar -> label
I0430 23:48:18.369652  5633 data_transformer.cpp:25] Loading mean file from: examples/cifar10/mean.binaryproto
I0430 23:48:18.369783  5633 data_layer.cpp:45] output data size: 1000,3,32,32
I0430 23:48:18.391408  5633 net.cpp:124] Setting up cifar
I0430 23:48:18.391435  5633 net.cpp:131] Top shape: 1000 3 32 32 (3072000)
I0430 23:48:18.391440  5633 net.cpp:131] Top shape: 1000 (1000)
I0430 23:48:18.391444  5633 net.cpp:139] Memory required for data: 12292000
I0430 23:48:18.391449  5633 layer_factory.hpp:77] Creating layer label_cifar_1_split
I0430 23:48:18.391477  5633 net.cpp:86] Creating Layer label_cifar_1_split
I0430 23:48:18.391481  5633 net.cpp:408] label_cifar_1_split <- label
I0430 23:48:18.391487  5633 net.cpp:382] label_cifar_1_split -> label_cifar_1_split_0
I0430 23:48:18.391496  5633 net.cpp:382] label_cifar_1_split -> label_cifar_1_split_1
I0430 23:48:18.391588  5633 net.cpp:124] Setting up label_cifar_1_split
I0430 23:48:18.391594  5633 net.cpp:131] Top shape: 1000 (1000)
I0430 23:48:18.391598  5633 net.cpp:131] Top shape: 1000 (1000)
I0430 23:48:18.391602  5633 net.cpp:139] Memory required for data: 12300000
I0430 23:48:18.391604  5633 layer_factory.hpp:77] Creating layer conv0
I0430 23:48:18.391616  5633 net.cpp:86] Creating Layer conv0
I0430 23:48:18.391619  5633 net.cpp:408] conv0 <- data
I0430 23:48:18.391624  5633 net.cpp:382] conv0 -> conv0
I0430 23:48:18.394018  5633 net.cpp:124] Setting up conv0
I0430 23:48:18.394032  5633 net.cpp:131] Top shape: 1000 8 34 34 (9248000)
I0430 23:48:18.394037  5633 net.cpp:139] Memory required for data: 49292000
I0430 23:48:18.394062  5633 layer_factory.hpp:77] Creating layer Sigmoid0
I0430 23:48:18.394069  5633 net.cpp:86] Creating Layer Sigmoid0
I0430 23:48:18.394073  5633 net.cpp:408] Sigmoid0 <- conv0
I0430 23:48:18.394078  5633 net.cpp:382] Sigmoid0 -> Sigmoid0
I0430 23:48:18.394265  5633 net.cpp:124] Setting up Sigmoid0
I0430 23:48:18.394274  5633 net.cpp:131] Top shape: 1000 8 34 34 (9248000)
I0430 23:48:18.394278  5633 net.cpp:139] Memory required for data: 86284000
I0430 23:48:18.394280  5633 layer_factory.hpp:77] Creating layer pool0
I0430 23:48:18.394289  5633 net.cpp:86] Creating Layer pool0
I0430 23:48:18.394291  5633 net.cpp:408] pool0 <- Sigmoid0
I0430 23:48:18.394295  5633 net.cpp:382] pool0 -> pool0
I0430 23:48:18.394446  5633 net.cpp:124] Setting up pool0
I0430 23:48:18.394454  5633 net.cpp:131] Top shape: 1000 8 17 17 (2312000)
I0430 23:48:18.394456  5633 net.cpp:139] Memory required for data: 95532000
I0430 23:48:18.394459  5633 layer_factory.hpp:77] Creating layer ip1
I0430 23:48:18.394466  5633 net.cpp:86] Creating Layer ip1
I0430 23:48:18.394470  5633 net.cpp:408] ip1 <- pool0
I0430 23:48:18.394475  5633 net.cpp:382] ip1 -> ip1
I0430 23:48:18.396862  5633 net.cpp:124] Setting up ip1
I0430 23:48:18.396870  5633 net.cpp:131] Top shape: 1000 40 (40000)
I0430 23:48:18.396873  5633 net.cpp:139] Memory required for data: 95692000
I0430 23:48:18.396913  5633 layer_factory.hpp:77] Creating layer relu1
I0430 23:48:18.396919  5633 net.cpp:86] Creating Layer relu1
I0430 23:48:18.396921  5633 net.cpp:408] relu1 <- ip1
I0430 23:48:18.396926  5633 net.cpp:369] relu1 -> ip1 (in-place)
I0430 23:48:18.397099  5633 net.cpp:124] Setting up relu1
I0430 23:48:18.397107  5633 net.cpp:131] Top shape: 1000 40 (40000)
I0430 23:48:18.397126  5633 net.cpp:139] Memory required for data: 95852000
I0430 23:48:18.397130  5633 layer_factory.hpp:77] Creating layer ip2
I0430 23:48:18.397136  5633 net.cpp:86] Creating Layer ip2
I0430 23:48:18.397140  5633 net.cpp:408] ip2 <- ip1
I0430 23:48:18.397145  5633 net.cpp:382] ip2 -> ip2
I0430 23:48:18.397260  5633 net.cpp:124] Setting up ip2
I0430 23:48:18.397269  5633 net.cpp:131] Top shape: 1000 10 (10000)
I0430 23:48:18.397285  5633 net.cpp:139] Memory required for data: 95892000
I0430 23:48:18.397294  5633 layer_factory.hpp:77] Creating layer relu2
I0430 23:48:18.397315  5633 net.cpp:86] Creating Layer relu2
I0430 23:48:18.397317  5633 net.cpp:408] relu2 <- ip2
I0430 23:48:18.397322  5633 net.cpp:369] relu2 -> ip2 (in-place)
I0430 23:48:18.398069  5633 net.cpp:124] Setting up relu2
I0430 23:48:18.398082  5633 net.cpp:131] Top shape: 1000 10 (10000)
I0430 23:48:18.398100  5633 net.cpp:139] Memory required for data: 95932000
I0430 23:48:18.398103  5633 layer_factory.hpp:77] Creating layer ip3
I0430 23:48:18.398110  5633 net.cpp:86] Creating Layer ip3
I0430 23:48:18.398113  5633 net.cpp:408] ip3 <- ip2
I0430 23:48:18.398118  5633 net.cpp:382] ip3 -> ip3
I0430 23:48:18.398243  5633 net.cpp:124] Setting up ip3
I0430 23:48:18.398250  5633 net.cpp:131] Top shape: 1000 40 (40000)
I0430 23:48:18.398253  5633 net.cpp:139] Memory required for data: 96092000
I0430 23:48:18.398259  5633 layer_factory.hpp:77] Creating layer relu3
I0430 23:48:18.398264  5633 net.cpp:86] Creating Layer relu3
I0430 23:48:18.398267  5633 net.cpp:408] relu3 <- ip3
I0430 23:48:18.398272  5633 net.cpp:369] relu3 -> ip3 (in-place)
I0430 23:48:18.398416  5633 net.cpp:124] Setting up relu3
I0430 23:48:18.398423  5633 net.cpp:131] Top shape: 1000 40 (40000)
I0430 23:48:18.398427  5633 net.cpp:139] Memory required for data: 96252000
I0430 23:48:18.398429  5633 layer_factory.hpp:77] Creating layer ip4
I0430 23:48:18.398435  5633 net.cpp:86] Creating Layer ip4
I0430 23:48:18.398438  5633 net.cpp:408] ip4 <- ip3
I0430 23:48:18.398443  5633 net.cpp:382] ip4 -> ip4
I0430 23:48:18.398569  5633 net.cpp:124] Setting up ip4
I0430 23:48:18.398577  5633 net.cpp:131] Top shape: 1000 10 (10000)
I0430 23:48:18.398581  5633 net.cpp:139] Memory required for data: 96292000
I0430 23:48:18.398588  5633 layer_factory.hpp:77] Creating layer ip4_ip4_0_split
I0430 23:48:18.398594  5633 net.cpp:86] Creating Layer ip4_ip4_0_split
I0430 23:48:18.398597  5633 net.cpp:408] ip4_ip4_0_split <- ip4
I0430 23:48:18.398602  5633 net.cpp:382] ip4_ip4_0_split -> ip4_ip4_0_split_0
I0430 23:48:18.398607  5633 net.cpp:382] ip4_ip4_0_split -> ip4_ip4_0_split_1
I0430 23:48:18.398638  5633 net.cpp:124] Setting up ip4_ip4_0_split
I0430 23:48:18.398641  5633 net.cpp:131] Top shape: 1000 10 (10000)
I0430 23:48:18.398646  5633 net.cpp:131] Top shape: 1000 10 (10000)
I0430 23:48:18.398649  5633 net.cpp:139] Memory required for data: 96372000
I0430 23:48:18.398653  5633 layer_factory.hpp:77] Creating layer accuracy
I0430 23:48:18.398658  5633 net.cpp:86] Creating Layer accuracy
I0430 23:48:18.398661  5633 net.cpp:408] accuracy <- ip4_ip4_0_split_0
I0430 23:48:18.398665  5633 net.cpp:408] accuracy <- label_cifar_1_split_0
I0430 23:48:18.398670  5633 net.cpp:382] accuracy -> accuracy
…
