…
I0501 06:34:50.340044  1013 net.cpp:296] The NetState phase (0) differed from the phase (1) specified by a rule in layer cifar
I0501 06:34:50.340064  1013 net.cpp:296] The NetState phase (0) differed from the phase (1) specified by a rule in layer accuracy
I0501 06:34:50.340173  1013 net.cpp:53] Initializing net from parameters: 
name: "CIFAR"
state {
  phase: TRAIN
  level: 0
  stage: ""
}
layer {
  name: "cifar"
  type: "Data"
  top: "data"
  top: "label"
  include {
    phase: TRAIN
  }
  transform_param {
    mean_file: "examples/cifar10/mean.binaryproto"
  }
  data_param {
    source: "examples/cifar10/cifar10_train_lmdb"
    batch_size: 111
    backend: LMDB
  }
}
layer {
  name: "conv0"
  type: "Convolution"
  bottom: "data"
  top: "conv0"
  param {
    lr_mult: 1
  }
  param {
    lr_mult: 2
  }
  convolution_param {
    num_output: 8
    pad: 2
    kernel_size: 5
    stride: 1
    weight_filler {
      type: "gaussian"
      std: 0.01
    }
    bias_filler {
      type: "constant"
    }
  }
}
layer {
  name: "Sigmoid0"
  type: "Sigmoid"
  bottom: "conv0"
  top: "Sigmoid0"
}
layer {
  name: "pool0"
  type: "Pooling"
  bottom: "Sigmoid0"
  top: "pool0"
  pooling_param {
    pool: AVE
    kernel_size: 3
    stride: 2
  }
}
layer {
  name: "ip1"
  type: "InnerProduct"
  bottom: "pool0"
  top: "ip1"
  param {
    lr_mult: 1
  }
  param {
    lr_mult: 2
  }
  inner_product_param {
    num_output: 160
    weight_filler {
      type: "gaussian"
      std: 0.01
    }
    bias_filler {
      type: "constant"
    }
  }
}
layer {
  name: "relu1"
  type: "ReLU"
  bottom: "ip1"
  top: "ip1"
}
layer {
  name: "ip2"
  type: "InnerProduct"
  bottom: "ip1"
  top: "ip2"
  param {
    lr_mult: 1
  }
  param {
    lr_mult: 2
  }
  inner_product_param {
    num_output: 80
    weight_filler {
      type: "gaussian"
      std: 0.01
    }
    bias_filler {
      type: "constant"
    }
  }
}
layer {
  name: "relu2"
  type: "ReLU"
  bottom: "ip2"
  top: "ip2"
}
layer {
  name: "ip3"
  type: "InnerProduct"
  bottom: "ip2"
  top: "ip3"
  param {
    lr_mult: 1
  }
  param {
    lr_mult: 2
  }
  inner_product_param {
    num_output: 10
    weight_filler {
      type: "gaussian"
      std: 0.01
    }
    bias_filler {
      type: "constant"
    }
  }
}
layer {
  name: "relu3"
  type: "ReLU"
  bottom: "ip3"
  top: "ip3"
}
layer {
  name: "ip4"
  type: "InnerProduct"
  bottom: "ip3"
  top: "ip4"
  param {
    lr_mult: 1
  }
  param {
    lr_mult: 2
  }
  inner_product_param {
    num_output: 10
    weight_filler {
      type: "gaussian"
      std: 0.01
    }
    bias_filler {
      type: "constant"
    }
  }
}
layer {
  name: "loss"
  type: "SoftmaxWithLoss"
  bottom: "ip4"
  bottom: "label"
  top: "loss"
}
I0501 06:34:50.340255  1013 layer_factory.hpp:77] Creating layer cifar
I0501 06:34:50.340356  1013 db_lmdb.cpp:35] Opened lmdb examples/cifar10/cifar10_train_lmdb
I0501 06:34:50.340384  1013 net.cpp:86] Creating Layer cifar
I0501 06:34:50.340392  1013 net.cpp:382] cifar -> data
I0501 06:34:50.340415  1013 net.cpp:382] cifar -> label
I0501 06:34:50.340427  1013 data_transformer.cpp:25] Loading mean file from: examples/cifar10/mean.binaryproto
I0501 06:34:50.342586  1013 data_layer.cpp:45] output data size: 111,3,32,32
I0501 06:34:50.350529  1013 net.cpp:124] Setting up cifar
I0501 06:34:50.350548  1013 net.cpp:131] Top shape: 111 3 32 32 (340992)
I0501 06:34:50.350555  1013 net.cpp:131] Top shape: 111 (111)
I0501 06:34:50.350559  1013 net.cpp:139] Memory required for data: 1364412
I0501 06:34:50.350581  1013 layer_factory.hpp:77] Creating layer conv0
I0501 06:34:50.350601  1013 net.cpp:86] Creating Layer conv0
I0501 06:34:50.350606  1013 net.cpp:408] conv0 <- data
I0501 06:34:50.350620  1013 net.cpp:382] conv0 -> conv0
I0501 06:34:50.636010  1013 net.cpp:124] Setting up conv0
I0501 06:34:50.636039  1013 net.cpp:131] Top shape: 111 8 32 32 (909312)
I0501 06:34:50.636044  1013 net.cpp:139] Memory required for data: 5001660
I0501 06:34:50.636059  1013 layer_factory.hpp:77] Creating layer Sigmoid0
I0501 06:34:50.636070  1013 net.cpp:86] Creating Layer Sigmoid0
I0501 06:34:50.636075  1013 net.cpp:408] Sigmoid0 <- conv0
I0501 06:34:50.636080  1013 net.cpp:382] Sigmoid0 -> Sigmoid0
I0501 06:34:50.636255  1013 net.cpp:124] Setting up Sigmoid0
I0501 06:34:50.636265  1013 net.cpp:131] Top shape: 111 8 32 32 (909312)
I0501 06:34:50.636267  1013 net.cpp:139] Memory required for data: 8638908
I0501 06:34:50.636270  1013 layer_factory.hpp:77] Creating layer pool0
I0501 06:34:50.636277  1013 net.cpp:86] Creating Layer pool0
I0501 06:34:50.636281  1013 net.cpp:408] pool0 <- Sigmoid0
I0501 06:34:50.636287  1013 net.cpp:382] pool0 -> pool0
I0501 06:34:50.637013  1013 net.cpp:124] Setting up pool0
I0501 06:34:50.637027  1013 net.cpp:131] Top shape: 111 8 16 16 (227328)
I0501 06:34:50.637030  1013 net.cpp:139] Memory required for data: 9548220
I0501 06:34:50.637034  1013 layer_factory.hpp:77] Creating layer ip1
I0501 06:34:50.637045  1013 net.cpp:86] Creating Layer ip1
I0501 06:34:50.637049  1013 net.cpp:408] ip1 <- pool0
I0501 06:34:50.637055  1013 net.cpp:382] ip1 -> ip1
I0501 06:34:50.646438  1013 net.cpp:124] Setting up ip1
I0501 06:34:50.646450  1013 net.cpp:131] Top shape: 111 160 (17760)
I0501 06:34:50.646455  1013 net.cpp:139] Memory required for data: 9619260
I0501 06:34:50.646462  1013 layer_factory.hpp:77] Creating layer relu1
I0501 06:34:50.646469  1013 net.cpp:86] Creating Layer relu1
I0501 06:34:50.646473  1013 net.cpp:408] relu1 <- ip1
I0501 06:34:50.646477  1013 net.cpp:369] relu1 -> ip1 (in-place)
I0501 06:34:50.646648  1013 net.cpp:124] Setting up relu1
I0501 06:34:50.646657  1013 net.cpp:131] Top shape: 111 160 (17760)
I0501 06:34:50.646661  1013 net.cpp:139] Memory required for data: 9690300
I0501 06:34:50.646664  1013 layer_factory.hpp:77] Creating layer ip2
I0501 06:34:50.646672  1013 net.cpp:86] Creating Layer ip2
I0501 06:34:50.646675  1013 net.cpp:408] ip2 <- ip1
I0501 06:34:50.646682  1013 net.cpp:382] ip2 -> ip2
I0501 06:34:50.647917  1013 net.cpp:124] Setting up ip2
I0501 06:34:50.647929  1013 net.cpp:131] Top shape: 111 80 (8880)
I0501 06:34:50.647933  1013 net.cpp:139] Memory required for data: 9725820
I0501 06:34:50.647940  1013 layer_factory.hpp:77] Creating layer relu2
I0501 06:34:50.647948  1013 net.cpp:86] Creating Layer relu2
I0501 06:34:50.647951  1013 net.cpp:408] relu2 <- ip2
I0501 06:34:50.647956  1013 net.cpp:369] relu2 -> ip2 (in-place)
I0501 06:34:50.648152  1013 net.cpp:124] Setting up relu2
I0501 06:34:50.648161  1013 net.cpp:131] Top shape: 111 80 (8880)
I0501 06:34:50.648164  1013 net.cpp:139] Memory required for data: 9761340
I0501 06:34:50.648167  1013 layer_factory.hpp:77] Creating layer ip3
I0501 06:34:50.648175  1013 net.cpp:86] Creating Layer ip3
I0501 06:34:50.648178  1013 net.cpp:408] ip3 <- ip2
I0501 06:34:50.648183  1013 net.cpp:382] ip3 -> ip3
I0501 06:34:50.648290  1013 net.cpp:124] Setting up ip3
I0501 06:34:50.648298  1013 net.cpp:131] Top shape: 111 10 (1110)
I0501 06:34:50.648300  1013 net.cpp:139] Memory required for data: 9765780
I0501 06:34:50.648306  1013 layer_factory.hpp:77] Creating layer relu3
I0501 06:34:50.648310  1013 net.cpp:86] Creating Layer relu3
I0501 06:34:50.648313  1013 net.cpp:408] relu3 <- ip3
I0501 06:34:50.648317  1013 net.cpp:369] relu3 -> ip3 (in-place)
I0501 06:34:50.648458  1013 net.cpp:124] Setting up relu3
I0501 06:34:50.648465  1013 net.cpp:131] Top shape: 111 10 (1110)
I0501 06:34:50.648468  1013 net.cpp:139] Memory required for data: 9770220
I0501 06:34:50.648471  1013 layer_factory.hpp:77] Creating layer ip4
I0501 06:34:50.648491  1013 net.cpp:86] Creating Layer ip4
I0501 06:34:50.648499  1013 net.cpp:408] ip4 <- ip3
I0501 06:34:50.648519  1013 net.cpp:382] ip4 -> ip4
I0501 06:34:50.648608  1013 net.cpp:124] Setting up ip4
I0501 06:34:50.648615  1013 net.cpp:131] Top shape: 111 10 (1110)
I0501 06:34:50.648618  1013 net.cpp:139] Memory required for data: 9774660
I0501 06:34:50.648627  1013 layer_factory.hpp:77] Creating layer loss
I0501 06:34:50.648634  1013 net.cpp:86] Creating Layer loss
I0501 06:34:50.648653  1013 net.cpp:408] loss <- ip4
I0501 06:34:50.648658  1013 net.cpp:408] loss <- label
I0501 06:34:50.648663  1013 net.cpp:382] loss -> loss
I0501 06:34:50.648676  1013 layer_factory.hpp:77] Creating layer loss
…
I0501 06:34:50.650030  1013 solver.cpp:173] Creating test net (#0) specified by net file: ECE595/cifar/train_test/var_everything/cifar_train_test_455.prototxt
I0501 06:34:50.650073  1013 net.cpp:296] The NetState phase (1) differed from the phase (0) specified by a rule in layer cifar
I0501 06:34:50.650161  1013 net.cpp:53] Initializing net from parameters: 
name: "CIFAR"
state {
  phase: TEST
}
layer {
  name: "cifar"
  type: "Data"
  top: "data"
  top: "label"
  include {
    phase: TEST
  }
  transform_param {
    mean_file: "examples/cifar10/mean.binaryproto"
  }
  data_param {
    source: "examples/cifar10/cifar10_test_lmdb"
    batch_size: 1000
    backend: LMDB
  }
}
layer {
  name: "conv0"
  type: "Convolution"
  bottom: "data"
  top: "conv0"
  param {
    lr_mult: 1
  }
  param {
    lr_mult: 2
  }
  convolution_param {
    num_output: 8
    pad: 2
    kernel_size: 5
    stride: 1
    weight_filler {
      type: "gaussian"
      std: 0.01
    }
    bias_filler {
      type: "constant"
    }
  }
}
layer {
  name: "Sigmoid0"
  type: "Sigmoid"
  bottom: "conv0"
  top: "Sigmoid0"
}
layer {
  name: "pool0"
  type: "Pooling"
  bottom: "Sigmoid0"
  top: "pool0"
  pooling_param {
    pool: AVE
    kernel_size: 3
    stride: 2
  }
}
layer {
  name: "ip1"
  type: "InnerProduct"
  bottom: "pool0"
  top: "ip1"
  param {
    lr_mult: 1
  }
  param {
    lr_mult: 2
  }
  inner_product_param {
    num_output: 160
    weight_filler {
      type: "gaussian"
      std: 0.01
    }
    bias_filler {
      type: "constant"
    }
  }
}
layer {
  name: "relu1"
  type: "ReLU"
  bottom: "ip1"
  top: "ip1"
}
layer {
  name: "ip2"
  type: "InnerProduct"
  bottom: "ip1"
  top: "ip2"
  param {
    lr_mult: 1
  }
  param {
    lr_mult: 2
  }
  inner_product_param {
    num_output: 80
    weight_filler {
      type: "gaussian"
      std: 0.01
    }
    bias_filler {
      type: "constant"
    }
  }
}
layer {
  name: "relu2"
  type: "ReLU"
  bottom: "ip2"
  top: "ip2"
}
layer {
  name: "ip3"
  type: "InnerProduct"
  bottom: "ip2"
  top: "ip3"
  param {
    lr_mult: 1
  }
  param {
    lr_mult: 2
  }
  inner_product_param {
    num_output: 10
    weight_filler {
      type: "gaussian"
      std: 0.01
    }
    bias_filler {
      type: "constant"
    }
  }
}
layer {
  name: "relu3"
  type: "ReLU"
  bottom: "ip3"
  top: "ip3"
}
layer {
  name: "ip4"
  type: "InnerProduct"
  bottom: "ip3"
  top: "ip4"
  param {
    lr_mult: 1
  }
  param {
    lr_mult: 2
  }
  inner_product_param {
    num_output: 10
    weight_filler {
      type: "gaussian"
      std: 0.01
    }
    bias_filler {
      type: "constant"
    }
  }
}
layer {
  name: "accuracy"
  type: "Accuracy"
  bottom: "ip4"
  bottom: "label"
  top: "accuracy"
  include {
    phase: TEST
  }
}
layer {
  name: "loss"
  type: "SoftmaxWithLoss"
  bottom: "ip4"
  bottom: "label"
  top: "loss"
}
I0501 06:34:50.650238  1013 layer_factory.hpp:77] Creating layer cifar
I0501 06:34:50.650295  1013 db_lmdb.cpp:35] Opened lmdb examples/cifar10/cifar10_test_lmdb
I0501 06:34:50.650324  1013 net.cpp:86] Creating Layer cifar
I0501 06:34:50.650329  1013 net.cpp:382] cifar -> data
I0501 06:34:50.650336  1013 net.cpp:382] cifar -> label
I0501 06:34:50.650343  1013 data_transformer.cpp:25] Loading mean file from: examples/cifar10/mean.binaryproto
I0501 06:34:50.650477  1013 data_layer.cpp:45] output data size: 1000,3,32,32
I0501 06:34:50.671910  1013 net.cpp:124] Setting up cifar
I0501 06:34:50.671952  1013 net.cpp:131] Top shape: 1000 3 32 32 (3072000)
I0501 06:34:50.671957  1013 net.cpp:131] Top shape: 1000 (1000)
I0501 06:34:50.671962  1013 net.cpp:139] Memory required for data: 12292000
I0501 06:34:50.671967  1013 layer_factory.hpp:77] Creating layer label_cifar_1_split
I0501 06:34:50.671979  1013 net.cpp:86] Creating Layer label_cifar_1_split
I0501 06:34:50.671983  1013 net.cpp:408] label_cifar_1_split <- label
I0501 06:34:50.671989  1013 net.cpp:382] label_cifar_1_split -> label_cifar_1_split_0
I0501 06:34:50.671998  1013 net.cpp:382] label_cifar_1_split -> label_cifar_1_split_1
I0501 06:34:50.672111  1013 net.cpp:124] Setting up label_cifar_1_split
I0501 06:34:50.672118  1013 net.cpp:131] Top shape: 1000 (1000)
I0501 06:34:50.672137  1013 net.cpp:131] Top shape: 1000 (1000)
I0501 06:34:50.672139  1013 net.cpp:139] Memory required for data: 12300000
I0501 06:34:50.672143  1013 layer_factory.hpp:77] Creating layer conv0
I0501 06:34:50.672155  1013 net.cpp:86] Creating Layer conv0
I0501 06:34:50.672160  1013 net.cpp:408] conv0 <- data
I0501 06:34:50.672183  1013 net.cpp:382] conv0 -> conv0
I0501 06:34:50.673811  1013 net.cpp:124] Setting up conv0
I0501 06:34:50.673840  1013 net.cpp:131] Top shape: 1000 8 32 32 (8192000)
I0501 06:34:50.673844  1013 net.cpp:139] Memory required for data: 45068000
I0501 06:34:50.673854  1013 layer_factory.hpp:77] Creating layer Sigmoid0
I0501 06:34:50.673863  1013 net.cpp:86] Creating Layer Sigmoid0
I0501 06:34:50.673867  1013 net.cpp:408] Sigmoid0 <- conv0
I0501 06:34:50.673871  1013 net.cpp:382] Sigmoid0 -> Sigmoid0
I0501 06:34:50.675055  1013 net.cpp:124] Setting up Sigmoid0
I0501 06:34:50.675065  1013 net.cpp:131] Top shape: 1000 8 32 32 (8192000)
I0501 06:34:50.675083  1013 net.cpp:139] Memory required for data: 77836000
I0501 06:34:50.675087  1013 layer_factory.hpp:77] Creating layer pool0
I0501 06:34:50.675110  1013 net.cpp:86] Creating Layer pool0
I0501 06:34:50.675113  1013 net.cpp:408] pool0 <- Sigmoid0
I0501 06:34:50.675118  1013 net.cpp:382] pool0 -> pool0
I0501 06:34:50.675297  1013 net.cpp:124] Setting up pool0
I0501 06:34:50.675307  1013 net.cpp:131] Top shape: 1000 8 16 16 (2048000)
I0501 06:34:50.675310  1013 net.cpp:139] Memory required for data: 86028000
I0501 06:34:50.675313  1013 layer_factory.hpp:77] Creating layer ip1
I0501 06:34:50.675321  1013 net.cpp:86] Creating Layer ip1
I0501 06:34:50.675324  1013 net.cpp:408] ip1 <- pool0
I0501 06:34:50.675329  1013 net.cpp:382] ip1 -> ip1
I0501 06:34:50.684643  1013 net.cpp:124] Setting up ip1
I0501 06:34:50.684671  1013 net.cpp:131] Top shape: 1000 160 (160000)
I0501 06:34:50.684674  1013 net.cpp:139] Memory required for data: 86668000
I0501 06:34:50.684696  1013 layer_factory.hpp:77] Creating layer relu1
I0501 06:34:50.684703  1013 net.cpp:86] Creating Layer relu1
I0501 06:34:50.684707  1013 net.cpp:408] relu1 <- ip1
I0501 06:34:50.684712  1013 net.cpp:369] relu1 -> ip1 (in-place)
I0501 06:34:50.684913  1013 net.cpp:124] Setting up relu1
I0501 06:34:50.684927  1013 net.cpp:131] Top shape: 1000 160 (160000)
I0501 06:34:50.684931  1013 net.cpp:139] Memory required for data: 87308000
I0501 06:34:50.684934  1013 layer_factory.hpp:77] Creating layer ip2
I0501 06:34:50.684942  1013 net.cpp:86] Creating Layer ip2
I0501 06:34:50.684945  1013 net.cpp:408] ip2 <- ip1
I0501 06:34:50.684950  1013 net.cpp:382] ip2 -> ip2
I0501 06:34:50.685463  1013 net.cpp:124] Setting up ip2
I0501 06:34:50.685472  1013 net.cpp:131] Top shape: 1000 80 (80000)
I0501 06:34:50.685490  1013 net.cpp:139] Memory required for data: 87628000
I0501 06:34:50.685497  1013 layer_factory.hpp:77] Creating layer relu2
I0501 06:34:50.685503  1013 net.cpp:86] Creating Layer relu2
I0501 06:34:50.685506  1013 net.cpp:408] relu2 <- ip2
I0501 06:34:50.685511  1013 net.cpp:369] relu2 -> ip2 (in-place)
I0501 06:34:50.686277  1013 net.cpp:124] Setting up relu2
I0501 06:34:50.686288  1013 net.cpp:131] Top shape: 1000 80 (80000)
I0501 06:34:50.686307  1013 net.cpp:139] Memory required for data: 87948000
I0501 06:34:50.686312  1013 layer_factory.hpp:77] Creating layer ip3
I0501 06:34:50.686321  1013 net.cpp:86] Creating Layer ip3
I0501 06:34:50.686323  1013 net.cpp:408] ip3 <- ip2
I0501 06:34:50.686329  1013 net.cpp:382] ip3 -> ip3
I0501 06:34:50.686482  1013 net.cpp:124] Setting up ip3
I0501 06:34:50.686489  1013 net.cpp:131] Top shape: 1000 10 (10000)
I0501 06:34:50.686493  1013 net.cpp:139] Memory required for data: 87988000
I0501 06:34:50.686499  1013 layer_factory.hpp:77] Creating layer relu3
I0501 06:34:50.686504  1013 net.cpp:86] Creating Layer relu3
I0501 06:34:50.686507  1013 net.cpp:408] relu3 <- ip3
I0501 06:34:50.686511  1013 net.cpp:369] relu3 -> ip3 (in-place)
I0501 06:34:50.686655  1013 net.cpp:124] Setting up relu3
I0501 06:34:50.686662  1013 net.cpp:131] Top shape: 1000 10 (10000)
I0501 06:34:50.686666  1013 net.cpp:139] Memory required for data: 88028000
I0501 06:34:50.686669  1013 layer_factory.hpp:77] Creating layer ip4
I0501 06:34:50.686676  1013 net.cpp:86] Creating Layer ip4
I0501 06:34:50.686678  1013 net.cpp:408] ip4 <- ip3
I0501 06:34:50.686683  1013 net.cpp:382] ip4 -> ip4
I0501 06:34:50.686781  1013 net.cpp:124] Setting up ip4
I0501 06:34:50.686789  1013 net.cpp:131] Top shape: 1000 10 (10000)
I0501 06:34:50.686791  1013 net.cpp:139] Memory required for data: 88068000
I0501 06:34:50.686800  1013 layer_factory.hpp:77] Creating layer ip4_ip4_0_split
I0501 06:34:50.686807  1013 net.cpp:86] Creating Layer ip4_ip4_0_split
I0501 06:34:50.686826  1013 net.cpp:408] ip4_ip4_0_split <- ip4
I0501 06:34:50.686831  1013 net.cpp:382] ip4_ip4_0_split -> ip4_ip4_0_split_0
I0501 06:34:50.686836  1013 net.cpp:382] ip4_ip4_0_split -> ip4_ip4_0_split_1
I0501 06:34:50.686867  1013 net.cpp:124] Setting up ip4_ip4_0_split
I0501 06:34:50.686873  1013 net.cpp:131] Top shape: 1000 10 (10000)
I0501 06:34:50.686893  1013 net.cpp:131] Top shape: 1000 10 (10000)
I0501 06:34:50.686897  1013 net.cpp:139] Memory required for data: 88148000
I0501 06:34:50.686900  1013 layer_factory.hpp:77] Creating layer accuracy
I0501 06:34:50.686908  1013 net.cpp:86] Creating Layer accuracy
I0501 06:34:50.686910  1013 net.cpp:408] accuracy <- ip4_ip4_0_split_0
I0501 06:34:50.686915  1013 net.cpp:408] accuracy <- label_cifar_1_split_0
I0501 06:34:50.686919  1013 net.cpp:382] accuracy -> accuracy
…
