…
I0501 04:47:06.046308 26495 net.cpp:296] The NetState phase (0) differed from the phase (1) specified by a rule in layer cifar
I0501 04:47:06.046322 26495 net.cpp:296] The NetState phase (0) differed from the phase (1) specified by a rule in layer accuracy
I0501 04:47:06.046412 26495 net.cpp:53] Initializing net from parameters: 
name: "CIFAR"
state {
  phase: TRAIN
  level: 0
  stage: ""
}
layer {
  name: "cifar"
  type: "Data"
  top: "data"
  top: "label"
  include {
    phase: TRAIN
  }
  transform_param {
    mean_file: "examples/cifar10/mean.binaryproto"
  }
  data_param {
    source: "examples/cifar10/cifar10_train_lmdb"
    batch_size: 111
    backend: LMDB
  }
}
layer {
  name: "conv0"
  type: "Convolution"
  bottom: "data"
  top: "conv0"
  param {
    lr_mult: 1
  }
  param {
    lr_mult: 2
  }
  convolution_param {
    num_output: 8
    pad: 2
    kernel_size: 5
    stride: 1
    weight_filler {
      type: "gaussian"
      std: 0.01
    }
    bias_filler {
      type: "constant"
    }
  }
}
layer {
  name: "Sigmoid0"
  type: "Sigmoid"
  bottom: "conv0"
  top: "Sigmoid0"
}
layer {
  name: "pool0"
  type: "Pooling"
  bottom: "Sigmoid0"
  top: "pool0"
  pooling_param {
    pool: AVE
    kernel_size: 3
    stride: 2
  }
}
layer {
  name: "ip1"
  type: "InnerProduct"
  bottom: "pool0"
  top: "ip1"
  param {
    lr_mult: 1
  }
  param {
    lr_mult: 2
  }
  inner_product_param {
    num_output: 40
    weight_filler {
      type: "gaussian"
      std: 0.01
    }
    bias_filler {
      type: "constant"
    }
  }
}
layer {
  name: "relu1"
  type: "ReLU"
  bottom: "ip1"
  top: "ip1"
}
layer {
  name: "ip2"
  type: "InnerProduct"
  bottom: "ip1"
  top: "ip2"
  param {
    lr_mult: 1
  }
  param {
    lr_mult: 2
  }
  inner_product_param {
    num_output: 20
    weight_filler {
      type: "gaussian"
      std: 0.01
    }
    bias_filler {
      type: "constant"
    }
  }
}
layer {
  name: "relu2"
  type: "ReLU"
  bottom: "ip2"
  top: "ip2"
}
layer {
  name: "ip3"
  type: "InnerProduct"
  bottom: "ip2"
  top: "ip3"
  param {
    lr_mult: 1
  }
  param {
    lr_mult: 2
  }
  inner_product_param {
    num_output: 40
    weight_filler {
      type: "gaussian"
      std: 0.01
    }
    bias_filler {
      type: "constant"
    }
  }
}
layer {
  name: "relu3"
  type: "ReLU"
  bottom: "ip3"
  top: "ip3"
}
layer {
  name: "ip4"
  type: "InnerProduct"
  bottom: "ip3"
  top: "ip4"
  param {
    lr_mult: 1
  }
  param {
    lr_mult: 2
  }
  inner_product_param {
    num_output: 10
    weight_filler {
      type: "gaussian"
      std: 0.01
    }
    bias_filler {
      type: "constant"
    }
  }
}
layer {
  name: "loss"
  type: "SoftmaxWithLoss"
  bottom: "ip4"
  bottom: "label"
  top: "loss"
}
I0501 04:47:06.046473 26495 layer_factory.hpp:77] Creating layer cifar
I0501 04:47:06.046571 26495 db_lmdb.cpp:35] Opened lmdb examples/cifar10/cifar10_train_lmdb
I0501 04:47:06.046596 26495 net.cpp:86] Creating Layer cifar
I0501 04:47:06.046603 26495 net.cpp:382] cifar -> data
I0501 04:47:06.046622 26495 net.cpp:382] cifar -> label
I0501 04:47:06.046634 26495 data_transformer.cpp:25] Loading mean file from: examples/cifar10/mean.binaryproto
I0501 04:47:06.048440 26495 data_layer.cpp:45] output data size: 111,3,32,32
I0501 04:47:06.054882 26495 net.cpp:124] Setting up cifar
I0501 04:47:06.054913 26495 net.cpp:131] Top shape: 111 3 32 32 (340992)
I0501 04:47:06.054918 26495 net.cpp:131] Top shape: 111 (111)
I0501 04:47:06.054921 26495 net.cpp:139] Memory required for data: 1364412
I0501 04:47:06.054939 26495 layer_factory.hpp:77] Creating layer conv0
I0501 04:47:06.054955 26495 net.cpp:86] Creating Layer conv0
I0501 04:47:06.054960 26495 net.cpp:408] conv0 <- data
I0501 04:47:06.054970 26495 net.cpp:382] conv0 -> conv0
I0501 04:47:06.284471 26495 net.cpp:124] Setting up conv0
I0501 04:47:06.284497 26495 net.cpp:131] Top shape: 111 8 32 32 (909312)
I0501 04:47:06.284500 26495 net.cpp:139] Memory required for data: 5001660
I0501 04:47:06.284514 26495 layer_factory.hpp:77] Creating layer Sigmoid0
I0501 04:47:06.284525 26495 net.cpp:86] Creating Layer Sigmoid0
I0501 04:47:06.284529 26495 net.cpp:408] Sigmoid0 <- conv0
I0501 04:47:06.284534 26495 net.cpp:382] Sigmoid0 -> Sigmoid0
I0501 04:47:06.284708 26495 net.cpp:124] Setting up Sigmoid0
I0501 04:47:06.284716 26495 net.cpp:131] Top shape: 111 8 32 32 (909312)
I0501 04:47:06.284719 26495 net.cpp:139] Memory required for data: 8638908
I0501 04:47:06.284723 26495 layer_factory.hpp:77] Creating layer pool0
I0501 04:47:06.284729 26495 net.cpp:86] Creating Layer pool0
I0501 04:47:06.284732 26495 net.cpp:408] pool0 <- Sigmoid0
I0501 04:47:06.284737 26495 net.cpp:382] pool0 -> pool0
I0501 04:47:06.285521 26495 net.cpp:124] Setting up pool0
I0501 04:47:06.285549 26495 net.cpp:131] Top shape: 111 8 16 16 (227328)
I0501 04:47:06.285553 26495 net.cpp:139] Memory required for data: 9548220
I0501 04:47:06.285557 26495 layer_factory.hpp:77] Creating layer ip1
I0501 04:47:06.285567 26495 net.cpp:86] Creating Layer ip1
I0501 04:47:06.285569 26495 net.cpp:408] ip1 <- pool0
I0501 04:47:06.285574 26495 net.cpp:382] ip1 -> ip1
I0501 04:47:06.287771 26495 net.cpp:124] Setting up ip1
I0501 04:47:06.287778 26495 net.cpp:131] Top shape: 111 40 (4440)
I0501 04:47:06.287781 26495 net.cpp:139] Memory required for data: 9565980
I0501 04:47:06.287788 26495 layer_factory.hpp:77] Creating layer relu1
I0501 04:47:06.287793 26495 net.cpp:86] Creating Layer relu1
I0501 04:47:06.287796 26495 net.cpp:408] relu1 <- ip1
I0501 04:47:06.287801 26495 net.cpp:369] relu1 -> ip1 (in-place)
I0501 04:47:06.287955 26495 net.cpp:124] Setting up relu1
I0501 04:47:06.287964 26495 net.cpp:131] Top shape: 111 40 (4440)
I0501 04:47:06.287967 26495 net.cpp:139] Memory required for data: 9583740
I0501 04:47:06.287971 26495 layer_factory.hpp:77] Creating layer ip2
I0501 04:47:06.287976 26495 net.cpp:86] Creating Layer ip2
I0501 04:47:06.287979 26495 net.cpp:408] ip2 <- ip1
I0501 04:47:06.287984 26495 net.cpp:382] ip2 -> ip2
I0501 04:47:06.288084 26495 net.cpp:124] Setting up ip2
I0501 04:47:06.288090 26495 net.cpp:131] Top shape: 111 20 (2220)
I0501 04:47:06.288094 26495 net.cpp:139] Memory required for data: 9592620
I0501 04:47:06.288100 26495 layer_factory.hpp:77] Creating layer relu2
I0501 04:47:06.288103 26495 net.cpp:86] Creating Layer relu2
I0501 04:47:06.288107 26495 net.cpp:408] relu2 <- ip2
I0501 04:47:06.288111 26495 net.cpp:369] relu2 -> ip2 (in-place)
I0501 04:47:06.288250 26495 net.cpp:124] Setting up relu2
I0501 04:47:06.288257 26495 net.cpp:131] Top shape: 111 20 (2220)
I0501 04:47:06.288260 26495 net.cpp:139] Memory required for data: 9601500
I0501 04:47:06.288264 26495 layer_factory.hpp:77] Creating layer ip3
I0501 04:47:06.288270 26495 net.cpp:86] Creating Layer ip3
I0501 04:47:06.288274 26495 net.cpp:408] ip3 <- ip2
I0501 04:47:06.288278 26495 net.cpp:382] ip3 -> ip3
I0501 04:47:06.288383 26495 net.cpp:124] Setting up ip3
I0501 04:47:06.288388 26495 net.cpp:131] Top shape: 111 40 (4440)
I0501 04:47:06.288391 26495 net.cpp:139] Memory required for data: 9619260
I0501 04:47:06.288396 26495 layer_factory.hpp:77] Creating layer relu3
I0501 04:47:06.288401 26495 net.cpp:86] Creating Layer relu3
I0501 04:47:06.288404 26495 net.cpp:408] relu3 <- ip3
I0501 04:47:06.288408 26495 net.cpp:369] relu3 -> ip3 (in-place)
I0501 04:47:06.288542 26495 net.cpp:124] Setting up relu3
I0501 04:47:06.288550 26495 net.cpp:131] Top shape: 111 40 (4440)
I0501 04:47:06.288553 26495 net.cpp:139] Memory required for data: 9637020
I0501 04:47:06.288556 26495 layer_factory.hpp:77] Creating layer ip4
I0501 04:47:06.288575 26495 net.cpp:86] Creating Layer ip4
I0501 04:47:06.288578 26495 net.cpp:408] ip4 <- ip3
I0501 04:47:06.288583 26495 net.cpp:382] ip4 -> ip4
I0501 04:47:06.288678 26495 net.cpp:124] Setting up ip4
I0501 04:47:06.288686 26495 net.cpp:131] Top shape: 111 10 (1110)
I0501 04:47:06.288688 26495 net.cpp:139] Memory required for data: 9641460
I0501 04:47:06.288696 26495 layer_factory.hpp:77] Creating layer loss
I0501 04:47:06.288703 26495 net.cpp:86] Creating Layer loss
I0501 04:47:06.288722 26495 net.cpp:408] loss <- ip4
I0501 04:47:06.288725 26495 net.cpp:408] loss <- label
I0501 04:47:06.288730 26495 net.cpp:382] loss -> loss
I0501 04:47:06.288743 26495 layer_factory.hpp:77] Creating layer loss
…
I0501 04:47:06.289993 26495 solver.cpp:173] Creating test net (#0) specified by net file: ECE595/cifar/train_test/var_everything/cifar_train_test_397.prototxt
I0501 04:47:06.290035 26495 net.cpp:296] The NetState phase (1) differed from the phase (0) specified by a rule in layer cifar
I0501 04:47:06.290120 26495 net.cpp:53] Initializing net from parameters: 
name: "CIFAR"
state {
  phase: TEST
}
layer {
  name: "cifar"
  type: "Data"
  top: "data"
  top: "label"
  include {
    phase: TEST
  }
  transform_param {
    mean_file: "examples/cifar10/mean.binaryproto"
  }
  data_param {
    source: "examples/cifar10/cifar10_test_lmdb"
    batch_size: 1000
    backend: LMDB
  }
}
layer {
  name: "conv0"
  type: "Convolution"
  bottom: "data"
  top: "conv0"
  param {
    lr_mult: 1
  }
  param {
    lr_mult: 2
  }
  convolution_param {
    num_output: 8
    pad: 2
    kernel_size: 5
    stride: 1
    weight_filler {
      type: "gaussian"
      std: 0.01
    }
    bias_filler {
      type: "constant"
    }
  }
}
layer {
  name: "Sigmoid0"
  type: "Sigmoid"
  bottom: "conv0"
  top: "Sigmoid0"
}
layer {
  name: "pool0"
  type: "Pooling"
  bottom: "Sigmoid0"
  top: "pool0"
  pooling_param {
    pool: AVE
    kernel_size: 3
    stride: 2
  }
}
layer {
  name: "ip1"
  type: "InnerProduct"
  bottom: "pool0"
  top: "ip1"
  param {
    lr_mult: 1
  }
  param {
    lr_mult: 2
  }
  inner_product_param {
    num_output: 40
    weight_filler {
      type: "gaussian"
      std: 0.01
    }
    bias_filler {
      type: "constant"
    }
  }
}
layer {
  name: "relu1"
  type: "ReLU"
  bottom: "ip1"
  top: "ip1"
}
layer {
  name: "ip2"
  type: "InnerProduct"
  bottom: "ip1"
  top: "ip2"
  param {
    lr_mult: 1
  }
  param {
    lr_mult: 2
  }
  inner_product_param {
    num_output: 20
    weight_filler {
      type: "gaussian"
      std: 0.01
    }
    bias_filler {
      type: "constant"
    }
  }
}
layer {
  name: "relu2"
  type: "ReLU"
  bottom: "ip2"
  top: "ip2"
}
layer {
  name: "ip3"
  type: "InnerProduct"
  bottom: "ip2"
  top: "ip3"
  param {
    lr_mult: 1
  }
  param {
    lr_mult: 2
  }
  inner_product_param {
    num_output: 40
    weight_filler {
      type: "gaussian"
      std: 0.01
    }
    bias_filler {
      type: "constant"
    }
  }
}
layer {
  name: "relu3"
  type: "ReLU"
  bottom: "ip3"
  top: "ip3"
}
layer {
  name: "ip4"
  type: "InnerProduct"
  bottom: "ip3"
  top: "ip4"
  param {
    lr_mult: 1
  }
  param {
    lr_mult: 2
  }
  inner_product_param {
    num_output: 10
    weight_filler {
      type: "gaussian"
      std: 0.01
    }
    bias_filler {
      type: "constant"
    }
  }
}
layer {
  name: "accuracy"
  type: "Accuracy"
  bottom: "ip4"
  bottom: "label"
  top: "accuracy"
  include {
    phase: TEST
  }
}
layer {
  name: "loss"
  type: "SoftmaxWithLoss"
  bottom: "ip4"
  bottom: "label"
  top: "loss"
}
I0501 04:47:06.290194 26495 layer_factory.hpp:77] Creating layer cifar
I0501 04:47:06.290238 26495 db_lmdb.cpp:35] Opened lmdb examples/cifar10/cifar10_test_lmdb
I0501 04:47:06.290269 26495 net.cpp:86] Creating Layer cifar
I0501 04:47:06.290274 26495 net.cpp:382] cifar -> data
I0501 04:47:06.290282 26495 net.cpp:382] cifar -> label
I0501 04:47:06.290289 26495 data_transformer.cpp:25] Loading mean file from: examples/cifar10/mean.binaryproto
I0501 04:47:06.290422 26495 data_layer.cpp:45] output data size: 1000,3,32,32
I0501 04:47:06.311796 26495 net.cpp:124] Setting up cifar
I0501 04:47:06.311838 26495 net.cpp:131] Top shape: 1000 3 32 32 (3072000)
I0501 04:47:06.311844 26495 net.cpp:131] Top shape: 1000 (1000)
I0501 04:47:06.311847 26495 net.cpp:139] Memory required for data: 12292000
I0501 04:47:06.311852 26495 layer_factory.hpp:77] Creating layer label_cifar_1_split
I0501 04:47:06.311866 26495 net.cpp:86] Creating Layer label_cifar_1_split
I0501 04:47:06.311869 26495 net.cpp:408] label_cifar_1_split <- label
I0501 04:47:06.311875 26495 net.cpp:382] label_cifar_1_split -> label_cifar_1_split_0
I0501 04:47:06.311883 26495 net.cpp:382] label_cifar_1_split -> label_cifar_1_split_1
I0501 04:47:06.311987 26495 net.cpp:124] Setting up label_cifar_1_split
I0501 04:47:06.311995 26495 net.cpp:131] Top shape: 1000 (1000)
I0501 04:47:06.311998 26495 net.cpp:131] Top shape: 1000 (1000)
I0501 04:47:06.312001 26495 net.cpp:139] Memory required for data: 12300000
I0501 04:47:06.312005 26495 layer_factory.hpp:77] Creating layer conv0
I0501 04:47:06.312017 26495 net.cpp:86] Creating Layer conv0
I0501 04:47:06.312022 26495 net.cpp:408] conv0 <- data
I0501 04:47:06.312043 26495 net.cpp:382] conv0 -> conv0
I0501 04:47:06.313782 26495 net.cpp:124] Setting up conv0
I0501 04:47:06.313812 26495 net.cpp:131] Top shape: 1000 8 32 32 (8192000)
I0501 04:47:06.313815 26495 net.cpp:139] Memory required for data: 45068000
I0501 04:47:06.313840 26495 layer_factory.hpp:77] Creating layer Sigmoid0
I0501 04:47:06.313846 26495 net.cpp:86] Creating Layer Sigmoid0
I0501 04:47:06.313849 26495 net.cpp:408] Sigmoid0 <- conv0
I0501 04:47:06.313855 26495 net.cpp:382] Sigmoid0 -> Sigmoid0
I0501 04:47:06.314088 26495 net.cpp:124] Setting up Sigmoid0
I0501 04:47:06.314100 26495 net.cpp:131] Top shape: 1000 8 32 32 (8192000)
I0501 04:47:06.314102 26495 net.cpp:139] Memory required for data: 77836000
I0501 04:47:06.314106 26495 layer_factory.hpp:77] Creating layer pool0
I0501 04:47:06.314116 26495 net.cpp:86] Creating Layer pool0
I0501 04:47:06.314121 26495 net.cpp:408] pool0 <- Sigmoid0
I0501 04:47:06.314141 26495 net.cpp:382] pool0 -> pool0
I0501 04:47:06.315407 26495 net.cpp:124] Setting up pool0
I0501 04:47:06.315418 26495 net.cpp:131] Top shape: 1000 8 16 16 (2048000)
I0501 04:47:06.315436 26495 net.cpp:139] Memory required for data: 86028000
I0501 04:47:06.315440 26495 layer_factory.hpp:77] Creating layer ip1
I0501 04:47:06.315448 26495 net.cpp:86] Creating Layer ip1
I0501 04:47:06.315450 26495 net.cpp:408] ip1 <- pool0
I0501 04:47:06.315456 26495 net.cpp:382] ip1 -> ip1
I0501 04:47:06.317728 26495 net.cpp:124] Setting up ip1
I0501 04:47:06.317736 26495 net.cpp:131] Top shape: 1000 40 (40000)
I0501 04:47:06.317754 26495 net.cpp:139] Memory required for data: 86188000
I0501 04:47:06.317775 26495 layer_factory.hpp:77] Creating layer relu1
I0501 04:47:06.317780 26495 net.cpp:86] Creating Layer relu1
I0501 04:47:06.317783 26495 net.cpp:408] relu1 <- ip1
I0501 04:47:06.317788 26495 net.cpp:369] relu1 -> ip1 (in-place)
I0501 04:47:06.317983 26495 net.cpp:124] Setting up relu1
I0501 04:47:06.317994 26495 net.cpp:131] Top shape: 1000 40 (40000)
I0501 04:47:06.317998 26495 net.cpp:139] Memory required for data: 86348000
I0501 04:47:06.318001 26495 layer_factory.hpp:77] Creating layer ip2
I0501 04:47:06.318011 26495 net.cpp:86] Creating Layer ip2
I0501 04:47:06.318017 26495 net.cpp:408] ip2 <- ip1
I0501 04:47:06.318038 26495 net.cpp:382] ip2 -> ip2
I0501 04:47:06.318172 26495 net.cpp:124] Setting up ip2
I0501 04:47:06.318181 26495 net.cpp:131] Top shape: 1000 20 (20000)
I0501 04:47:06.318186 26495 net.cpp:139] Memory required for data: 86428000
I0501 04:47:06.318192 26495 layer_factory.hpp:77] Creating layer relu2
I0501 04:47:06.318198 26495 net.cpp:86] Creating Layer relu2
I0501 04:47:06.318205 26495 net.cpp:408] relu2 <- ip2
I0501 04:47:06.318210 26495 net.cpp:369] relu2 -> ip2 (in-place)
I0501 04:47:06.318989 26495 net.cpp:124] Setting up relu2
I0501 04:47:06.319000 26495 net.cpp:131] Top shape: 1000 20 (20000)
I0501 04:47:06.319020 26495 net.cpp:139] Memory required for data: 86508000
I0501 04:47:06.319022 26495 layer_factory.hpp:77] Creating layer ip3
I0501 04:47:06.319031 26495 net.cpp:86] Creating Layer ip3
I0501 04:47:06.319033 26495 net.cpp:408] ip3 <- ip2
I0501 04:47:06.319039 26495 net.cpp:382] ip3 -> ip3
I0501 04:47:06.319180 26495 net.cpp:124] Setting up ip3
I0501 04:47:06.319186 26495 net.cpp:131] Top shape: 1000 40 (40000)
I0501 04:47:06.319190 26495 net.cpp:139] Memory required for data: 86668000
I0501 04:47:06.319195 26495 layer_factory.hpp:77] Creating layer relu3
I0501 04:47:06.319200 26495 net.cpp:86] Creating Layer relu3
I0501 04:47:06.319203 26495 net.cpp:408] relu3 <- ip3
I0501 04:47:06.319208 26495 net.cpp:369] relu3 -> ip3 (in-place)
I0501 04:47:06.319362 26495 net.cpp:124] Setting up relu3
I0501 04:47:06.319370 26495 net.cpp:131] Top shape: 1000 40 (40000)
I0501 04:47:06.319373 26495 net.cpp:139] Memory required for data: 86828000
I0501 04:47:06.319376 26495 layer_factory.hpp:77] Creating layer ip4
I0501 04:47:06.319383 26495 net.cpp:86] Creating Layer ip4
I0501 04:47:06.319386 26495 net.cpp:408] ip4 <- ip3
I0501 04:47:06.319392 26495 net.cpp:382] ip4 -> ip4
I0501 04:47:06.319501 26495 net.cpp:124] Setting up ip4
I0501 04:47:06.319509 26495 net.cpp:131] Top shape: 1000 10 (10000)
I0501 04:47:06.319511 26495 net.cpp:139] Memory required for data: 86868000
I0501 04:47:06.319519 26495 layer_factory.hpp:77] Creating layer ip4_ip4_0_split
I0501 04:47:06.319526 26495 net.cpp:86] Creating Layer ip4_ip4_0_split
I0501 04:47:06.319546 26495 net.cpp:408] ip4_ip4_0_split <- ip4
I0501 04:47:06.319550 26495 net.cpp:382] ip4_ip4_0_split -> ip4_ip4_0_split_0
I0501 04:47:06.319555 26495 net.cpp:382] ip4_ip4_0_split -> ip4_ip4_0_split_1
I0501 04:47:06.319587 26495 net.cpp:124] Setting up ip4_ip4_0_split
I0501 04:47:06.319593 26495 net.cpp:131] Top shape: 1000 10 (10000)
I0501 04:47:06.319597 26495 net.cpp:131] Top shape: 1000 10 (10000)
I0501 04:47:06.319600 26495 net.cpp:139] Memory required for data: 86948000
I0501 04:47:06.319603 26495 layer_factory.hpp:77] Creating layer accuracy
I0501 04:47:06.319609 26495 net.cpp:86] Creating Layer accuracy
I0501 04:47:06.319612 26495 net.cpp:408] accuracy <- ip4_ip4_0_split_0
I0501 04:47:06.319617 26495 net.cpp:408] accuracy <- label_cifar_1_split_0
I0501 04:47:06.319622 26495 net.cpp:382] accuracy -> accuracy
…
