…
I0430 20:25:49.275666 28681 net.cpp:296] The NetState phase (0) differed from the phase (1) specified by a rule in layer cifar
I0430 20:25:49.275682 28681 net.cpp:296] The NetState phase (0) differed from the phase (1) specified by a rule in layer accuracy
I0430 20:25:49.275764 28681 net.cpp:53] Initializing net from parameters: 
name: "CIFAR"
state {
  phase: TRAIN
  level: 0
  stage: ""
}
layer {
  name: "cifar"
  type: "Data"
  top: "data"
  top: "label"
  include {
    phase: TRAIN
  }
  transform_param {
    mean_file: "examples/cifar10/mean.binaryproto"
  }
  data_param {
    source: "examples/cifar10/cifar10_train_lmdb"
    batch_size: 111
    backend: LMDB
  }
}
layer {
  name: "ip1"
  type: "InnerProduct"
  bottom: "data"
  top: "ip1"
  param {
    lr_mult: 1
  }
  param {
    lr_mult: 2
  }
  inner_product_param {
    num_output: 80
    weight_filler {
      type: "gaussian"
      std: 0.01
    }
    bias_filler {
      type: "constant"
    }
  }
}
layer {
  name: "relu1"
  type: "ReLU"
  bottom: "ip1"
  top: "ip1"
}
layer {
  name: "ip2"
  type: "InnerProduct"
  bottom: "ip1"
  top: "ip2"
  param {
    lr_mult: 1
  }
  param {
    lr_mult: 2
  }
  inner_product_param {
    num_output: 160
    weight_filler {
      type: "gaussian"
      std: 0.01
    }
    bias_filler {
      type: "constant"
    }
  }
}
layer {
  name: "relu2"
  type: "ReLU"
  bottom: "ip2"
  top: "ip2"
}
layer {
  name: "ip3"
  type: "InnerProduct"
  bottom: "ip2"
  top: "ip3"
  param {
    lr_mult: 1
  }
  param {
    lr_mult: 2
  }
  inner_product_param {
    num_output: 160
    weight_filler {
      type: "gaussian"
      std: 0.01
    }
    bias_filler {
      type: "constant"
    }
  }
}
layer {
  name: "relu3"
  type: "ReLU"
  bottom: "ip3"
  top: "ip3"
}
layer {
  name: "ip4"
  type: "InnerProduct"
  bottom: "ip3"
  top: "ip4"
  param {
    lr_mult: 1
  }
  param {
    lr_mult: 2
  }
  inner_product_param {
    num_output: 10
    weight_filler {
      type: "gaussian"
      std: 0.01
    }
    bias_filler {
      type: "constant"
    }
  }
}
layer {
  name: "loss"
  type: "SoftmaxWithLoss"
  bottom: "ip4"
  bottom: "label"
  top: "loss"
}
I0430 20:25:49.275828 28681 layer_factory.hpp:77] Creating layer cifar
I0430 20:25:49.275928 28681 db_lmdb.cpp:35] Opened lmdb examples/cifar10/cifar10_train_lmdb
I0430 20:25:49.275954 28681 net.cpp:86] Creating Layer cifar
I0430 20:25:49.275961 28681 net.cpp:382] cifar -> data
I0430 20:25:49.275985 28681 net.cpp:382] cifar -> label
I0430 20:25:49.276000 28681 data_transformer.cpp:25] Loading mean file from: examples/cifar10/mean.binaryproto
I0430 20:25:49.278123 28681 data_layer.cpp:45] output data size: 111,3,32,32
I0430 20:25:49.285992 28681 net.cpp:124] Setting up cifar
I0430 20:25:49.286011 28681 net.cpp:131] Top shape: 111 3 32 32 (340992)
I0430 20:25:49.286017 28681 net.cpp:131] Top shape: 111 (111)
I0430 20:25:49.286021 28681 net.cpp:139] Memory required for data: 1364412
I0430 20:25:49.286028 28681 layer_factory.hpp:77] Creating layer ip1
I0430 20:25:49.286041 28681 net.cpp:86] Creating Layer ip1
I0430 20:25:49.286046 28681 net.cpp:408] ip1 <- data
I0430 20:25:49.286056 28681 net.cpp:382] ip1 -> ip1
I0430 20:25:49.295228 28681 net.cpp:124] Setting up ip1
I0430 20:25:49.295243 28681 net.cpp:131] Top shape: 111 80 (8880)
I0430 20:25:49.295248 28681 net.cpp:139] Memory required for data: 1399932
I0430 20:25:49.295262 28681 layer_factory.hpp:77] Creating layer relu1
I0430 20:25:49.295271 28681 net.cpp:86] Creating Layer relu1
I0430 20:25:49.295294 28681 net.cpp:408] relu1 <- ip1
I0430 20:25:49.295300 28681 net.cpp:369] relu1 -> ip1 (in-place)
I0430 20:25:49.640313 28681 net.cpp:124] Setting up relu1
I0430 20:25:49.640348 28681 net.cpp:131] Top shape: 111 80 (8880)
I0430 20:25:49.640354 28681 net.cpp:139] Memory required for data: 1435452
I0430 20:25:49.640362 28681 layer_factory.hpp:77] Creating layer ip2
I0430 20:25:49.640378 28681 net.cpp:86] Creating Layer ip2
I0430 20:25:49.640384 28681 net.cpp:408] ip2 <- ip1
I0430 20:25:49.640395 28681 net.cpp:382] ip2 -> ip2
I0430 20:25:49.642240 28681 net.cpp:124] Setting up ip2
I0430 20:25:49.642256 28681 net.cpp:131] Top shape: 111 160 (17760)
I0430 20:25:49.642262 28681 net.cpp:139] Memory required for data: 1506492
I0430 20:25:49.642277 28681 layer_factory.hpp:77] Creating layer relu2
I0430 20:25:49.642287 28681 net.cpp:86] Creating Layer relu2
I0430 20:25:49.642293 28681 net.cpp:408] relu2 <- ip2
I0430 20:25:49.642300 28681 net.cpp:369] relu2 -> ip2 (in-place)
I0430 20:25:49.643334 28681 net.cpp:124] Setting up relu2
I0430 20:25:49.643352 28681 net.cpp:131] Top shape: 111 160 (17760)
I0430 20:25:49.643357 28681 net.cpp:139] Memory required for data: 1577532
I0430 20:25:49.643362 28681 layer_factory.hpp:77] Creating layer ip3
I0430 20:25:49.643373 28681 net.cpp:86] Creating Layer ip3
I0430 20:25:49.643378 28681 net.cpp:408] ip3 <- ip2
I0430 20:25:49.643385 28681 net.cpp:382] ip3 -> ip3
I0430 20:25:49.645668 28681 net.cpp:124] Setting up ip3
I0430 20:25:49.645684 28681 net.cpp:131] Top shape: 111 160 (17760)
I0430 20:25:49.645689 28681 net.cpp:139] Memory required for data: 1648572
I0430 20:25:49.645701 28681 layer_factory.hpp:77] Creating layer relu3
I0430 20:25:49.645709 28681 net.cpp:86] Creating Layer relu3
I0430 20:25:49.645714 28681 net.cpp:408] relu3 <- ip3
I0430 20:25:49.645721 28681 net.cpp:369] relu3 -> ip3 (in-place)
I0430 20:25:49.645938 28681 net.cpp:124] Setting up relu3
I0430 20:25:49.645951 28681 net.cpp:131] Top shape: 111 160 (17760)
I0430 20:25:49.645956 28681 net.cpp:139] Memory required for data: 1719612
I0430 20:25:49.645961 28681 layer_factory.hpp:77] Creating layer ip4
I0430 20:25:49.645969 28681 net.cpp:86] Creating Layer ip4
I0430 20:25:49.645974 28681 net.cpp:408] ip4 <- ip3
I0430 20:25:49.645982 28681 net.cpp:382] ip4 -> ip4
I0430 20:25:49.646169 28681 net.cpp:124] Setting up ip4
I0430 20:25:49.646179 28681 net.cpp:131] Top shape: 111 10 (1110)
I0430 20:25:49.646184 28681 net.cpp:139] Memory required for data: 1724052
I0430 20:25:49.646193 28681 layer_factory.hpp:77] Creating layer loss
I0430 20:25:49.646203 28681 net.cpp:86] Creating Layer loss
I0430 20:25:49.646208 28681 net.cpp:408] loss <- ip4
I0430 20:25:49.646214 28681 net.cpp:408] loss <- label
I0430 20:25:49.646224 28681 net.cpp:382] loss -> loss
I0430 20:25:49.646248 28681 layer_factory.hpp:77] Creating layer loss
…
I0430 20:25:49.647078 28681 solver.cpp:173] Creating test net (#0) specified by net file: ECE595/cifar/train_test/var_everything/cifar_train_test_129.prototxt
I0430 20:25:49.647130 28681 net.cpp:296] The NetState phase (1) differed from the phase (0) specified by a rule in layer cifar
I0430 20:25:49.647246 28681 net.cpp:53] Initializing net from parameters: 
name: "CIFAR"
state {
  phase: TEST
}
layer {
  name: "cifar"
  type: "Data"
  top: "data"
  top: "label"
  include {
    phase: TEST
  }
  transform_param {
    mean_file: "examples/cifar10/mean.binaryproto"
  }
  data_param {
    source: "examples/cifar10/cifar10_test_lmdb"
    batch_size: 1000
    backend: LMDB
  }
}
layer {
  name: "ip1"
  type: "InnerProduct"
  bottom: "data"
  top: "ip1"
  param {
    lr_mult: 1
  }
  param {
    lr_mult: 2
  }
  inner_product_param {
    num_output: 80
    weight_filler {
      type: "gaussian"
      std: 0.01
    }
    bias_filler {
      type: "constant"
    }
  }
}
layer {
  name: "relu1"
  type: "ReLU"
  bottom: "ip1"
  top: "ip1"
}
layer {
  name: "ip2"
  type: "InnerProduct"
  bottom: "ip1"
  top: "ip2"
  param {
    lr_mult: 1
  }
  param {
    lr_mult: 2
  }
  inner_product_param {
    num_output: 160
    weight_filler {
      type: "gaussian"
      std: 0.01
    }
    bias_filler {
      type: "constant"
    }
  }
}
layer {
  name: "relu2"
  type: "ReLU"
  bottom: "ip2"
  top: "ip2"
}
layer {
  name: "ip3"
  type: "InnerProduct"
  bottom: "ip2"
  top: "ip3"
  param {
    lr_mult: 1
  }
  param {
    lr_mult: 2
  }
  inner_product_param {
    num_output: 160
    weight_filler {
      type: "gaussian"
      std: 0.01
    }
    bias_filler {
      type: "constant"
    }
  }
}
layer {
  name: "relu3"
  type: "ReLU"
  bottom: "ip3"
  top: "ip3"
}
layer {
  name: "ip4"
  type: "InnerProduct"
  bottom: "ip3"
  top: "ip4"
  param {
    lr_mult: 1
  }
  param {
    lr_mult: 2
  }
  inner_product_param {
    num_output: 10
    weight_filler {
      type: "gaussian"
      std: 0.01
    }
    bias_filler {
      type: "constant"
    }
  }
}
layer {
  name: "accuracy"
  type: "Accuracy"
  bottom: "ip4"
  bottom: "label"
  top: "accuracy"
  include {
    phase: TEST
  }
}
layer {
  name: "loss"
  type: "SoftmaxWithLoss"
  bottom: "ip4"
  bottom: "label"
  top: "loss"
}
I0430 20:25:49.647341 28681 layer_factory.hpp:77] Creating layer cifar
I0430 20:25:49.647400 28681 db_lmdb.cpp:35] Opened lmdb examples/cifar10/cifar10_test_lmdb
I0430 20:25:49.647418 28681 net.cpp:86] Creating Layer cifar
I0430 20:25:49.647425 28681 net.cpp:382] cifar -> data
I0430 20:25:49.647436 28681 net.cpp:382] cifar -> label
I0430 20:25:49.647445 28681 data_transformer.cpp:25] Loading mean file from: examples/cifar10/mean.binaryproto
I0430 20:25:49.647660 28681 data_layer.cpp:45] output data size: 1000,3,32,32
I0430 20:25:49.676053 28681 net.cpp:124] Setting up cifar
I0430 20:25:49.676084 28681 net.cpp:131] Top shape: 1000 3 32 32 (3072000)
I0430 20:25:49.676092 28681 net.cpp:131] Top shape: 1000 (1000)
I0430 20:25:49.676096 28681 net.cpp:139] Memory required for data: 12292000
I0430 20:25:49.676103 28681 layer_factory.hpp:77] Creating layer label_cifar_1_split
I0430 20:25:49.676123 28681 net.cpp:86] Creating Layer label_cifar_1_split
I0430 20:25:49.676131 28681 net.cpp:408] label_cifar_1_split <- label
I0430 20:25:49.676138 28681 net.cpp:382] label_cifar_1_split -> label_cifar_1_split_0
I0430 20:25:49.676149 28681 net.cpp:382] label_cifar_1_split -> label_cifar_1_split_1
I0430 20:25:49.676232 28681 net.cpp:124] Setting up label_cifar_1_split
I0430 20:25:49.676242 28681 net.cpp:131] Top shape: 1000 (1000)
I0430 20:25:49.676247 28681 net.cpp:131] Top shape: 1000 (1000)
I0430 20:25:49.676251 28681 net.cpp:139] Memory required for data: 12300000
I0430 20:25:49.676256 28681 layer_factory.hpp:77] Creating layer ip1
I0430 20:25:49.676266 28681 net.cpp:86] Creating Layer ip1
I0430 20:25:49.676271 28681 net.cpp:408] ip1 <- data
I0430 20:25:49.676280 28681 net.cpp:382] ip1 -> ip1
I0430 20:25:49.685366 28681 net.cpp:124] Setting up ip1
I0430 20:25:49.685410 28681 net.cpp:131] Top shape: 1000 80 (80000)
I0430 20:25:49.685415 28681 net.cpp:139] Memory required for data: 12620000
I0430 20:25:49.685463 28681 layer_factory.hpp:77] Creating layer relu1
I0430 20:25:49.685473 28681 net.cpp:86] Creating Layer relu1
I0430 20:25:49.685478 28681 net.cpp:408] relu1 <- ip1
I0430 20:25:49.685488 28681 net.cpp:369] relu1 -> ip1 (in-place)
I0430 20:25:49.686657 28681 net.cpp:124] Setting up relu1
I0430 20:25:49.686672 28681 net.cpp:131] Top shape: 1000 80 (80000)
I0430 20:25:49.686676 28681 net.cpp:139] Memory required for data: 12940000
I0430 20:25:49.686681 28681 layer_factory.hpp:77] Creating layer ip2
I0430 20:25:49.686691 28681 net.cpp:86] Creating Layer ip2
I0430 20:25:49.686695 28681 net.cpp:408] ip2 <- ip1
I0430 20:25:49.686718 28681 net.cpp:382] ip2 -> ip2
I0430 20:25:49.687306 28681 net.cpp:124] Setting up ip2
I0430 20:25:49.687316 28681 net.cpp:131] Top shape: 1000 160 (160000)
I0430 20:25:49.687320 28681 net.cpp:139] Memory required for data: 13580000
I0430 20:25:49.687345 28681 layer_factory.hpp:77] Creating layer relu2
I0430 20:25:49.687353 28681 net.cpp:86] Creating Layer relu2
I0430 20:25:49.687358 28681 net.cpp:408] relu2 <- ip2
I0430 20:25:49.687363 28681 net.cpp:369] relu2 -> ip2 (in-place)
I0430 20:25:49.687572 28681 net.cpp:124] Setting up relu2
I0430 20:25:49.687582 28681 net.cpp:131] Top shape: 1000 160 (160000)
I0430 20:25:49.687587 28681 net.cpp:139] Memory required for data: 14220000
I0430 20:25:49.687592 28681 layer_factory.hpp:77] Creating layer ip3
I0430 20:25:49.687602 28681 net.cpp:86] Creating Layer ip3
I0430 20:25:49.687607 28681 net.cpp:408] ip3 <- ip2
I0430 20:25:49.687615 28681 net.cpp:382] ip3 -> ip3
I0430 20:25:49.688632 28681 net.cpp:124] Setting up ip3
I0430 20:25:49.688642 28681 net.cpp:131] Top shape: 1000 160 (160000)
I0430 20:25:49.688645 28681 net.cpp:139] Memory required for data: 14860000
I0430 20:25:49.688655 28681 layer_factory.hpp:77] Creating layer relu3
I0430 20:25:49.688663 28681 net.cpp:86] Creating Layer relu3
I0430 20:25:49.688666 28681 net.cpp:408] relu3 <- ip3
I0430 20:25:49.688688 28681 net.cpp:369] relu3 -> ip3 (in-place)
I0430 20:25:49.688913 28681 net.cpp:124] Setting up relu3
I0430 20:25:49.688925 28681 net.cpp:131] Top shape: 1000 160 (160000)
I0430 20:25:49.688930 28681 net.cpp:139] Memory required for data: 15500000
I0430 20:25:49.688935 28681 layer_factory.hpp:77] Creating layer ip4
I0430 20:25:49.688946 28681 net.cpp:86] Creating Layer ip4
I0430 20:25:49.688951 28681 net.cpp:408] ip4 <- ip3
I0430 20:25:49.688958 28681 net.cpp:382] ip4 -> ip4
I0430 20:25:49.689162 28681 net.cpp:124] Setting up ip4
I0430 20:25:49.689172 28681 net.cpp:131] Top shape: 1000 10 (10000)
I0430 20:25:49.689177 28681 net.cpp:139] Memory required for data: 15540000
I0430 20:25:49.689183 28681 layer_factory.hpp:77] Creating layer ip4_ip4_0_split
I0430 20:25:49.689193 28681 net.cpp:86] Creating Layer ip4_ip4_0_split
I0430 20:25:49.689196 28681 net.cpp:408] ip4_ip4_0_split <- ip4
I0430 20:25:49.689203 28681 net.cpp:382] ip4_ip4_0_split -> ip4_ip4_0_split_0
I0430 20:25:49.689211 28681 net.cpp:382] ip4_ip4_0_split -> ip4_ip4_0_split_1
I0430 20:25:49.689251 28681 net.cpp:124] Setting up ip4_ip4_0_split
I0430 20:25:49.689260 28681 net.cpp:131] Top shape: 1000 10 (10000)
I0430 20:25:49.689265 28681 net.cpp:131] Top shape: 1000 10 (10000)
I0430 20:25:49.689270 28681 net.cpp:139] Memory required for data: 15620000
I0430 20:25:49.689273 28681 layer_factory.hpp:77] Creating layer accuracy
I0430 20:25:49.689286 28681 net.cpp:86] Creating Layer accuracy
I0430 20:25:49.689291 28681 net.cpp:408] accuracy <- ip4_ip4_0_split_0
I0430 20:25:49.689296 28681 net.cpp:408] accuracy <- label_cifar_1_split_0
I0430 20:25:49.689302 28681 net.cpp:382] accuracy -> accuracy
…
