…
I0430 19:21:57.109163 25757 net.cpp:296] The NetState phase (0) differed from the phase (1) specified by a rule in layer cifar
I0430 19:21:57.109179 25757 net.cpp:296] The NetState phase (0) differed from the phase (1) specified by a rule in layer accuracy
I0430 19:21:57.109259 25757 net.cpp:53] Initializing net from parameters: 
name: "CIFAR"
state {
  phase: TRAIN
  level: 0
  stage: ""
}
layer {
  name: "cifar"
  type: "Data"
  top: "data"
  top: "label"
  include {
    phase: TRAIN
  }
  transform_param {
    mean_file: "examples/cifar10/mean.binaryproto"
  }
  data_param {
    source: "examples/cifar10/cifar10_train_lmdb"
    batch_size: 111
    backend: LMDB
  }
}
layer {
  name: "ip1"
  type: "InnerProduct"
  bottom: "data"
  top: "ip1"
  param {
    lr_mult: 1
  }
  param {
    lr_mult: 2
  }
  inner_product_param {
    num_output: 40
    weight_filler {
      type: "gaussian"
      std: 0.01
    }
    bias_filler {
      type: "constant"
    }
  }
}
layer {
  name: "relu1"
  type: "ReLU"
  bottom: "ip1"
  top: "ip1"
}
layer {
  name: "ip2"
  type: "InnerProduct"
  bottom: "ip1"
  top: "ip2"
  param {
    lr_mult: 1
  }
  param {
    lr_mult: 2
  }
  inner_product_param {
    num_output: 80
    weight_filler {
      type: "gaussian"
      std: 0.01
    }
    bias_filler {
      type: "constant"
    }
  }
}
layer {
  name: "relu2"
  type: "ReLU"
  bottom: "ip2"
  top: "ip2"
}
layer {
  name: "ip3"
  type: "InnerProduct"
  bottom: "ip2"
  top: "ip3"
  param {
    lr_mult: 1
  }
  param {
    lr_mult: 2
  }
  inner_product_param {
    num_output: 10
    weight_filler {
      type: "gaussian"
      std: 0.01
    }
    bias_filler {
      type: "constant"
    }
  }
}
layer {
  name: "relu3"
  type: "ReLU"
  bottom: "ip3"
  top: "ip3"
}
layer {
  name: "ip4"
  type: "InnerProduct"
  bottom: "ip3"
  top: "ip4"
  param {
    lr_mult: 1
  }
  param {
    lr_mult: 2
  }
  inner_product_param {
    num_output: 10
    weight_filler {
      type: "gaussian"
      std: 0.01
    }
    bias_filler {
      type: "constant"
    }
  }
}
layer {
  name: "loss"
  type: "SoftmaxWithLoss"
  bottom: "ip4"
  bottom: "label"
  top: "loss"
}
I0430 19:21:57.109325 25757 layer_factory.hpp:77] Creating layer cifar
I0430 19:21:57.109429 25757 db_lmdb.cpp:35] Opened lmdb examples/cifar10/cifar10_train_lmdb
I0430 19:21:57.109455 25757 net.cpp:86] Creating Layer cifar
I0430 19:21:57.109463 25757 net.cpp:382] cifar -> data
I0430 19:21:57.109486 25757 net.cpp:382] cifar -> label
I0430 19:21:57.109498 25757 data_transformer.cpp:25] Loading mean file from: examples/cifar10/mean.binaryproto
I0430 19:21:57.111623 25757 data_layer.cpp:45] output data size: 111,3,32,32
I0430 19:21:57.119550 25757 net.cpp:124] Setting up cifar
I0430 19:21:57.119570 25757 net.cpp:131] Top shape: 111 3 32 32 (340992)
I0430 19:21:57.119577 25757 net.cpp:131] Top shape: 111 (111)
I0430 19:21:57.119581 25757 net.cpp:139] Memory required for data: 1364412
I0430 19:21:57.119590 25757 layer_factory.hpp:77] Creating layer ip1
I0430 19:21:57.119599 25757 net.cpp:86] Creating Layer ip1
I0430 19:21:57.119606 25757 net.cpp:408] ip1 <- data
I0430 19:21:57.119616 25757 net.cpp:382] ip1 -> ip1
I0430 19:21:57.123854 25757 net.cpp:124] Setting up ip1
I0430 19:21:57.123868 25757 net.cpp:131] Top shape: 111 40 (4440)
I0430 19:21:57.123872 25757 net.cpp:139] Memory required for data: 1382172
I0430 19:21:57.123886 25757 layer_factory.hpp:77] Creating layer relu1
I0430 19:21:57.123895 25757 net.cpp:86] Creating Layer relu1
I0430 19:21:57.123915 25757 net.cpp:408] relu1 <- ip1
I0430 19:21:57.123922 25757 net.cpp:369] relu1 -> ip1 (in-place)
I0430 19:21:57.404624 25757 net.cpp:124] Setting up relu1
I0430 19:21:57.404654 25757 net.cpp:131] Top shape: 111 40 (4440)
I0430 19:21:57.404657 25757 net.cpp:139] Memory required for data: 1399932
I0430 19:21:57.404662 25757 layer_factory.hpp:77] Creating layer ip2
I0430 19:21:57.404675 25757 net.cpp:86] Creating Layer ip2
I0430 19:21:57.404678 25757 net.cpp:408] ip2 <- ip1
I0430 19:21:57.404685 25757 net.cpp:382] ip2 -> ip2
I0430 19:21:57.404896 25757 net.cpp:124] Setting up ip2
I0430 19:21:57.404904 25757 net.cpp:131] Top shape: 111 80 (8880)
I0430 19:21:57.404908 25757 net.cpp:139] Memory required for data: 1435452
I0430 19:21:57.404918 25757 layer_factory.hpp:77] Creating layer relu2
I0430 19:21:57.404943 25757 net.cpp:86] Creating Layer relu2
I0430 19:21:57.404947 25757 net.cpp:408] relu2 <- ip2
I0430 19:21:57.404952 25757 net.cpp:369] relu2 -> ip2 (in-place)
I0430 19:21:57.405704 25757 net.cpp:124] Setting up relu2
I0430 19:21:57.405717 25757 net.cpp:131] Top shape: 111 80 (8880)
I0430 19:21:57.405720 25757 net.cpp:139] Memory required for data: 1470972
I0430 19:21:57.405724 25757 layer_factory.hpp:77] Creating layer ip3
I0430 19:21:57.405730 25757 net.cpp:86] Creating Layer ip3
I0430 19:21:57.405733 25757 net.cpp:408] ip3 <- ip2
I0430 19:21:57.405738 25757 net.cpp:382] ip3 -> ip3
I0430 19:21:57.406668 25757 net.cpp:124] Setting up ip3
I0430 19:21:57.406682 25757 net.cpp:131] Top shape: 111 10 (1110)
I0430 19:21:57.406685 25757 net.cpp:139] Memory required for data: 1475412
I0430 19:21:57.406692 25757 layer_factory.hpp:77] Creating layer relu3
I0430 19:21:57.406698 25757 net.cpp:86] Creating Layer relu3
I0430 19:21:57.406702 25757 net.cpp:408] relu3 <- ip3
I0430 19:21:57.406705 25757 net.cpp:369] relu3 -> ip3 (in-place)
I0430 19:21:57.406889 25757 net.cpp:124] Setting up relu3
I0430 19:21:57.406898 25757 net.cpp:131] Top shape: 111 10 (1110)
I0430 19:21:57.406901 25757 net.cpp:139] Memory required for data: 1479852
I0430 19:21:57.406904 25757 layer_factory.hpp:77] Creating layer ip4
I0430 19:21:57.406910 25757 net.cpp:86] Creating Layer ip4
I0430 19:21:57.406913 25757 net.cpp:408] ip4 <- ip3
I0430 19:21:57.406919 25757 net.cpp:382] ip4 -> ip4
I0430 19:21:57.407011 25757 net.cpp:124] Setting up ip4
I0430 19:21:57.407017 25757 net.cpp:131] Top shape: 111 10 (1110)
I0430 19:21:57.407021 25757 net.cpp:139] Memory required for data: 1484292
I0430 19:21:57.407025 25757 layer_factory.hpp:77] Creating layer loss
I0430 19:21:57.407032 25757 net.cpp:86] Creating Layer loss
I0430 19:21:57.407035 25757 net.cpp:408] loss <- ip4
I0430 19:21:57.407038 25757 net.cpp:408] loss <- label
I0430 19:21:57.407043 25757 net.cpp:382] loss -> loss
I0430 19:21:57.407063 25757 layer_factory.hpp:77] Creating layer loss
…
I0430 19:21:57.407658 25757 solver.cpp:173] Creating test net (#0) specified by net file: ECE595/cifar/train_test/var_everything/cifar_train_test_95.prototxt
I0430 19:21:57.407696 25757 net.cpp:296] The NetState phase (1) differed from the phase (0) specified by a rule in layer cifar
I0430 19:21:57.407773 25757 net.cpp:53] Initializing net from parameters: 
name: "CIFAR"
state {
  phase: TEST
}
layer {
  name: "cifar"
  type: "Data"
  top: "data"
  top: "label"
  include {
    phase: TEST
  }
  transform_param {
    mean_file: "examples/cifar10/mean.binaryproto"
  }
  data_param {
    source: "examples/cifar10/cifar10_test_lmdb"
    batch_size: 1000
    backend: LMDB
  }
}
layer {
  name: "ip1"
  type: "InnerProduct"
  bottom: "data"
  top: "ip1"
  param {
    lr_mult: 1
  }
  param {
    lr_mult: 2
  }
  inner_product_param {
    num_output: 40
    weight_filler {
      type: "gaussian"
      std: 0.01
    }
    bias_filler {
      type: "constant"
    }
  }
}
layer {
  name: "relu1"
  type: "ReLU"
  bottom: "ip1"
  top: "ip1"
}
layer {
  name: "ip2"
  type: "InnerProduct"
  bottom: "ip1"
  top: "ip2"
  param {
    lr_mult: 1
  }
  param {
    lr_mult: 2
  }
  inner_product_param {
    num_output: 80
    weight_filler {
      type: "gaussian"
      std: 0.01
    }
    bias_filler {
      type: "constant"
    }
  }
}
layer {
  name: "relu2"
  type: "ReLU"
  bottom: "ip2"
  top: "ip2"
}
layer {
  name: "ip3"
  type: "InnerProduct"
  bottom: "ip2"
  top: "ip3"
  param {
    lr_mult: 1
  }
  param {
    lr_mult: 2
  }
  inner_product_param {
    num_output: 10
    weight_filler {
      type: "gaussian"
      std: 0.01
    }
    bias_filler {
      type: "constant"
    }
  }
}
layer {
  name: "relu3"
  type: "ReLU"
  bottom: "ip3"
  top: "ip3"
}
layer {
  name: "ip4"
  type: "InnerProduct"
  bottom: "ip3"
  top: "ip4"
  param {
    lr_mult: 1
  }
  param {
    lr_mult: 2
  }
  inner_product_param {
    num_output: 10
    weight_filler {
      type: "gaussian"
      std: 0.01
    }
    bias_filler {
      type: "constant"
    }
  }
}
layer {
  name: "accuracy"
  type: "Accuracy"
  bottom: "ip4"
  bottom: "label"
  top: "accuracy"
  include {
    phase: TEST
  }
}
layer {
  name: "loss"
  type: "SoftmaxWithLoss"
  bottom: "ip4"
  bottom: "label"
  top: "loss"
}
I0430 19:21:57.407831 25757 layer_factory.hpp:77] Creating layer cifar
I0430 19:21:57.407876 25757 db_lmdb.cpp:35] Opened lmdb examples/cifar10/cifar10_test_lmdb
I0430 19:21:57.407902 25757 net.cpp:86] Creating Layer cifar
I0430 19:21:57.407905 25757 net.cpp:382] cifar -> data
I0430 19:21:57.407913 25757 net.cpp:382] cifar -> label
I0430 19:21:57.407919 25757 data_transformer.cpp:25] Loading mean file from: examples/cifar10/mean.binaryproto
I0430 19:21:57.408056 25757 data_layer.cpp:45] output data size: 1000,3,32,32
I0430 19:21:57.429904 25757 net.cpp:124] Setting up cifar
I0430 19:21:57.429945 25757 net.cpp:131] Top shape: 1000 3 32 32 (3072000)
I0430 19:21:57.429951 25757 net.cpp:131] Top shape: 1000 (1000)
I0430 19:21:57.429955 25757 net.cpp:139] Memory required for data: 12292000
I0430 19:21:57.429960 25757 layer_factory.hpp:77] Creating layer label_cifar_1_split
I0430 19:21:57.429996 25757 net.cpp:86] Creating Layer label_cifar_1_split
I0430 19:21:57.430001 25757 net.cpp:408] label_cifar_1_split <- label
I0430 19:21:57.430007 25757 net.cpp:382] label_cifar_1_split -> label_cifar_1_split_0
I0430 19:21:57.430016 25757 net.cpp:382] label_cifar_1_split -> label_cifar_1_split_1
I0430 19:21:57.430143 25757 net.cpp:124] Setting up label_cifar_1_split
I0430 19:21:57.430152 25757 net.cpp:131] Top shape: 1000 (1000)
I0430 19:21:57.430156 25757 net.cpp:131] Top shape: 1000 (1000)
I0430 19:21:57.430160 25757 net.cpp:139] Memory required for data: 12300000
I0430 19:21:57.430162 25757 layer_factory.hpp:77] Creating layer ip1
I0430 19:21:57.430172 25757 net.cpp:86] Creating Layer ip1
I0430 19:21:57.430176 25757 net.cpp:408] ip1 <- data
I0430 19:21:57.430181 25757 net.cpp:382] ip1 -> ip1
I0430 19:21:57.433676 25757 net.cpp:124] Setting up ip1
I0430 19:21:57.433701 25757 net.cpp:131] Top shape: 1000 40 (40000)
I0430 19:21:57.433704 25757 net.cpp:139] Memory required for data: 12460000
I0430 19:21:57.433728 25757 layer_factory.hpp:77] Creating layer relu1
I0430 19:21:57.433734 25757 net.cpp:86] Creating Layer relu1
I0430 19:21:57.433737 25757 net.cpp:408] relu1 <- ip1
I0430 19:21:57.433758 25757 net.cpp:369] relu1 -> ip1 (in-place)
I0430 19:21:57.434577 25757 net.cpp:124] Setting up relu1
I0430 19:21:57.434589 25757 net.cpp:131] Top shape: 1000 40 (40000)
I0430 19:21:57.434608 25757 net.cpp:139] Memory required for data: 12620000
I0430 19:21:57.434612 25757 layer_factory.hpp:77] Creating layer ip2
I0430 19:21:57.434619 25757 net.cpp:86] Creating Layer ip2
I0430 19:21:57.434623 25757 net.cpp:408] ip2 <- ip1
I0430 19:21:57.434628 25757 net.cpp:382] ip2 -> ip2
I0430 19:21:57.434833 25757 net.cpp:124] Setting up ip2
I0430 19:21:57.434840 25757 net.cpp:131] Top shape: 1000 80 (80000)
I0430 19:21:57.434844 25757 net.cpp:139] Memory required for data: 12940000
I0430 19:21:57.434850 25757 layer_factory.hpp:77] Creating layer relu2
I0430 19:21:57.434856 25757 net.cpp:86] Creating Layer relu2
I0430 19:21:57.434859 25757 net.cpp:408] relu2 <- ip2
I0430 19:21:57.434864 25757 net.cpp:369] relu2 -> ip2 (in-place)
I0430 19:21:57.435034 25757 net.cpp:124] Setting up relu2
I0430 19:21:57.435044 25757 net.cpp:131] Top shape: 1000 80 (80000)
I0430 19:21:57.435046 25757 net.cpp:139] Memory required for data: 13260000
I0430 19:21:57.435050 25757 layer_factory.hpp:77] Creating layer ip3
I0430 19:21:57.435056 25757 net.cpp:86] Creating Layer ip3
I0430 19:21:57.435060 25757 net.cpp:408] ip3 <- ip2
I0430 19:21:57.435065 25757 net.cpp:382] ip3 -> ip3
I0430 19:21:57.435189 25757 net.cpp:124] Setting up ip3
I0430 19:21:57.435195 25757 net.cpp:131] Top shape: 1000 10 (10000)
I0430 19:21:57.435199 25757 net.cpp:139] Memory required for data: 13300000
I0430 19:21:57.435207 25757 layer_factory.hpp:77] Creating layer relu3
I0430 19:21:57.435214 25757 net.cpp:86] Creating Layer relu3
I0430 19:21:57.435216 25757 net.cpp:408] relu3 <- ip3
I0430 19:21:57.435220 25757 net.cpp:369] relu3 -> ip3 (in-place)
I0430 19:21:57.435384 25757 net.cpp:124] Setting up relu3
I0430 19:21:57.435392 25757 net.cpp:131] Top shape: 1000 10 (10000)
I0430 19:21:57.435396 25757 net.cpp:139] Memory required for data: 13340000
I0430 19:21:57.435400 25757 layer_factory.hpp:77] Creating layer ip4
I0430 19:21:57.435406 25757 net.cpp:86] Creating Layer ip4
I0430 19:21:57.435410 25757 net.cpp:408] ip4 <- ip3
I0430 19:21:57.435415 25757 net.cpp:382] ip4 -> ip4
I0430 19:21:57.435531 25757 net.cpp:124] Setting up ip4
I0430 19:21:57.435539 25757 net.cpp:131] Top shape: 1000 10 (10000)
I0430 19:21:57.435542 25757 net.cpp:139] Memory required for data: 13380000
I0430 19:21:57.435549 25757 layer_factory.hpp:77] Creating layer ip4_ip4_0_split
I0430 19:21:57.435554 25757 net.cpp:86] Creating Layer ip4_ip4_0_split
I0430 19:21:57.435556 25757 net.cpp:408] ip4_ip4_0_split <- ip4
I0430 19:21:57.435560 25757 net.cpp:382] ip4_ip4_0_split -> ip4_ip4_0_split_0
I0430 19:21:57.435566 25757 net.cpp:382] ip4_ip4_0_split -> ip4_ip4_0_split_1
I0430 19:21:57.435598 25757 net.cpp:124] Setting up ip4_ip4_0_split
I0430 19:21:57.435607 25757 net.cpp:131] Top shape: 1000 10 (10000)
I0430 19:21:57.435611 25757 net.cpp:131] Top shape: 1000 10 (10000)
I0430 19:21:57.435614 25757 net.cpp:139] Memory required for data: 13460000
I0430 19:21:57.435617 25757 layer_factory.hpp:77] Creating layer accuracy
I0430 19:21:57.435623 25757 net.cpp:86] Creating Layer accuracy
I0430 19:21:57.435626 25757 net.cpp:408] accuracy <- ip4_ip4_0_split_0
I0430 19:21:57.435631 25757 net.cpp:408] accuracy <- label_cifar_1_split_0
I0430 19:21:57.435636 25757 net.cpp:382] accuracy -> accuracy
…
