…
I0501 08:14:01.740746  9862 net.cpp:296] The NetState phase (0) differed from the phase (1) specified by a rule in layer cifar
I0501 08:14:01.740764  9862 net.cpp:296] The NetState phase (0) differed from the phase (1) specified by a rule in layer accuracy
I0501 08:14:01.740882  9862 net.cpp:53] Initializing net from parameters: 
name: "CIFAR"
state {
  phase: TRAIN
  level: 0
  stage: ""
}
layer {
  name: "cifar"
  type: "Data"
  top: "data"
  top: "label"
  include {
    phase: TRAIN
  }
  transform_param {
    mean_file: "examples/cifar10/mean.binaryproto"
  }
  data_param {
    source: "examples/cifar10/cifar10_train_lmdb"
    batch_size: 111
    backend: LMDB
  }
}
layer {
  name: "conv0"
  type: "Convolution"
  bottom: "data"
  top: "conv0"
  param {
    lr_mult: 1
  }
  param {
    lr_mult: 2
  }
  convolution_param {
    num_output: 16
    pad: 2
    kernel_size: 3
    stride: 1
    weight_filler {
      type: "gaussian"
      std: 0.01
    }
    bias_filler {
      type: "constant"
    }
  }
}
layer {
  name: "Sigmoid0"
  type: "Sigmoid"
  bottom: "conv0"
  top: "Sigmoid0"
}
layer {
  name: "pool0"
  type: "Pooling"
  bottom: "Sigmoid0"
  top: "pool0"
  pooling_param {
    pool: AVE
    kernel_size: 3
    stride: 2
  }
}
layer {
  name: "ip1"
  type: "InnerProduct"
  bottom: "pool0"
  top: "ip1"
  param {
    lr_mult: 1
  }
  param {
    lr_mult: 2
  }
  inner_product_param {
    num_output: 10
    weight_filler {
      type: "gaussian"
      std: 0.01
    }
    bias_filler {
      type: "constant"
    }
  }
}
layer {
  name: "relu1"
  type: "ReLU"
  bottom: "ip1"
  top: "ip1"
}
layer {
  name: "ip2"
  type: "InnerProduct"
  bottom: "ip1"
  top: "ip2"
  param {
    lr_mult: 1
  }
  param {
    lr_mult: 2
  }
  inner_product_param {
    num_output: 40
    weight_filler {
      type: "gaussian"
      std: 0.01
    }
    bias_filler {
      type: "constant"
    }
  }
}
layer {
  name: "relu2"
  type: "ReLU"
  bottom: "ip2"
  top: "ip2"
}
layer {
  name: "ip3"
  type: "InnerProduct"
  bottom: "ip2"
  top: "ip3"
  param {
    lr_mult: 1
  }
  param {
    lr_mult: 2
  }
  inner_product_param {
    num_output: 10
    weight_filler {
      type: "gaussian"
      std: 0.01
    }
    bias_filler {
      type: "constant"
    }
  }
}
layer {
  name: "relu3"
  type: "ReLU"
  bottom: "ip3"
  top: "ip3"
}
layer {
  name: "ip4"
  type: "InnerProduct"
  bottom: "ip3"
  top: "ip4"
  param {
    lr_mult: 1
  }
  param {
    lr_mult: 2
  }
  inner_product_param {
    num_output: 10
    weight_filler {
      type: "gaussian"
      std: 0.01
    }
    bias_filler {
      type: "constant"
    }
  }
}
layer {
  name: "loss"
  type: "SoftmaxWithLoss"
  bottom: "ip4"
  bottom: "label"
  top: "loss"
}
I0501 08:14:01.740962  9862 layer_factory.hpp:77] Creating layer cifar
I0501 08:14:01.741057  9862 db_lmdb.cpp:35] Opened lmdb examples/cifar10/cifar10_train_lmdb
I0501 08:14:01.741083  9862 net.cpp:86] Creating Layer cifar
I0501 08:14:01.741093  9862 net.cpp:382] cifar -> data
I0501 08:14:01.741130  9862 net.cpp:382] cifar -> label
I0501 08:14:01.741142  9862 data_transformer.cpp:25] Loading mean file from: examples/cifar10/mean.binaryproto
I0501 08:14:01.743271  9862 data_layer.cpp:45] output data size: 111,3,32,32
I0501 08:14:01.751160  9862 net.cpp:124] Setting up cifar
I0501 08:14:01.751179  9862 net.cpp:131] Top shape: 111 3 32 32 (340992)
I0501 08:14:01.751199  9862 net.cpp:131] Top shape: 111 (111)
I0501 08:14:01.751202  9862 net.cpp:139] Memory required for data: 1364412
I0501 08:14:01.751225  9862 layer_factory.hpp:77] Creating layer conv0
I0501 08:14:01.751253  9862 net.cpp:86] Creating Layer conv0
I0501 08:14:01.751258  9862 net.cpp:408] conv0 <- data
I0501 08:14:01.751271  9862 net.cpp:382] conv0 -> conv0
I0501 08:14:02.024130  9862 net.cpp:124] Setting up conv0
I0501 08:14:02.024173  9862 net.cpp:131] Top shape: 111 16 34 34 (2053056)
I0501 08:14:02.024176  9862 net.cpp:139] Memory required for data: 9576636
I0501 08:14:02.024191  9862 layer_factory.hpp:77] Creating layer Sigmoid0
I0501 08:14:02.024204  9862 net.cpp:86] Creating Layer Sigmoid0
I0501 08:14:02.024207  9862 net.cpp:408] Sigmoid0 <- conv0
I0501 08:14:02.024212  9862 net.cpp:382] Sigmoid0 -> Sigmoid0
I0501 08:14:02.024379  9862 net.cpp:124] Setting up Sigmoid0
I0501 08:14:02.024389  9862 net.cpp:131] Top shape: 111 16 34 34 (2053056)
I0501 08:14:02.024392  9862 net.cpp:139] Memory required for data: 17788860
I0501 08:14:02.024395  9862 layer_factory.hpp:77] Creating layer pool0
I0501 08:14:02.024401  9862 net.cpp:86] Creating Layer pool0
I0501 08:14:02.024405  9862 net.cpp:408] pool0 <- Sigmoid0
I0501 08:14:02.024408  9862 net.cpp:382] pool0 -> pool0
I0501 08:14:02.025144  9862 net.cpp:124] Setting up pool0
I0501 08:14:02.025172  9862 net.cpp:131] Top shape: 111 16 17 17 (513264)
I0501 08:14:02.025177  9862 net.cpp:139] Memory required for data: 19841916
I0501 08:14:02.025179  9862 layer_factory.hpp:77] Creating layer ip1
I0501 08:14:02.025188  9862 net.cpp:86] Creating Layer ip1
I0501 08:14:02.025192  9862 net.cpp:408] ip1 <- pool0
I0501 08:14:02.025197  9862 net.cpp:382] ip1 -> ip1
I0501 08:14:02.027206  9862 net.cpp:124] Setting up ip1
I0501 08:14:02.027218  9862 net.cpp:131] Top shape: 111 10 (1110)
I0501 08:14:02.027221  9862 net.cpp:139] Memory required for data: 19846356
I0501 08:14:02.027230  9862 layer_factory.hpp:77] Creating layer relu1
I0501 08:14:02.027251  9862 net.cpp:86] Creating Layer relu1
I0501 08:14:02.027254  9862 net.cpp:408] relu1 <- ip1
I0501 08:14:02.027258  9862 net.cpp:369] relu1 -> ip1 (in-place)
I0501 08:14:02.027425  9862 net.cpp:124] Setting up relu1
I0501 08:14:02.027432  9862 net.cpp:131] Top shape: 111 10 (1110)
I0501 08:14:02.027436  9862 net.cpp:139] Memory required for data: 19850796
I0501 08:14:02.027438  9862 layer_factory.hpp:77] Creating layer ip2
I0501 08:14:02.027446  9862 net.cpp:86] Creating Layer ip2
I0501 08:14:02.027448  9862 net.cpp:408] ip2 <- ip1
I0501 08:14:02.027453  9862 net.cpp:382] ip2 -> ip2
I0501 08:14:02.027556  9862 net.cpp:124] Setting up ip2
I0501 08:14:02.027564  9862 net.cpp:131] Top shape: 111 40 (4440)
I0501 08:14:02.027566  9862 net.cpp:139] Memory required for data: 19868556
I0501 08:14:02.027587  9862 layer_factory.hpp:77] Creating layer relu2
I0501 08:14:02.027592  9862 net.cpp:86] Creating Layer relu2
I0501 08:14:02.027595  9862 net.cpp:408] relu2 <- ip2
I0501 08:14:02.027616  9862 net.cpp:369] relu2 -> ip2 (in-place)
I0501 08:14:02.027761  9862 net.cpp:124] Setting up relu2
I0501 08:14:02.027770  9862 net.cpp:131] Top shape: 111 40 (4440)
I0501 08:14:02.027772  9862 net.cpp:139] Memory required for data: 19886316
I0501 08:14:02.027776  9862 layer_factory.hpp:77] Creating layer ip3
I0501 08:14:02.027782  9862 net.cpp:86] Creating Layer ip3
I0501 08:14:02.027786  9862 net.cpp:408] ip3 <- ip2
I0501 08:14:02.027791  9862 net.cpp:382] ip3 -> ip3
I0501 08:14:02.027886  9862 net.cpp:124] Setting up ip3
I0501 08:14:02.027894  9862 net.cpp:131] Top shape: 111 10 (1110)
I0501 08:14:02.027896  9862 net.cpp:139] Memory required for data: 19890756
I0501 08:14:02.027901  9862 layer_factory.hpp:77] Creating layer relu3
I0501 08:14:02.027905  9862 net.cpp:86] Creating Layer relu3
I0501 08:14:02.027909  9862 net.cpp:408] relu3 <- ip3
I0501 08:14:02.027912  9862 net.cpp:369] relu3 -> ip3 (in-place)
I0501 08:14:02.028061  9862 net.cpp:124] Setting up relu3
I0501 08:14:02.028069  9862 net.cpp:131] Top shape: 111 10 (1110)
I0501 08:14:02.028071  9862 net.cpp:139] Memory required for data: 19895196
I0501 08:14:02.028074  9862 layer_factory.hpp:77] Creating layer ip4
I0501 08:14:02.028093  9862 net.cpp:86] Creating Layer ip4
I0501 08:14:02.028097  9862 net.cpp:408] ip4 <- ip3
I0501 08:14:02.028101  9862 net.cpp:382] ip4 -> ip4
I0501 08:14:02.028192  9862 net.cpp:124] Setting up ip4
I0501 08:14:02.028199  9862 net.cpp:131] Top shape: 111 10 (1110)
I0501 08:14:02.028203  9862 net.cpp:139] Memory required for data: 19899636
I0501 08:14:02.028209  9862 layer_factory.hpp:77] Creating layer loss
I0501 08:14:02.028214  9862 net.cpp:86] Creating Layer loss
I0501 08:14:02.028218  9862 net.cpp:408] loss <- ip4
I0501 08:14:02.028221  9862 net.cpp:408] loss <- label
I0501 08:14:02.028226  9862 net.cpp:382] loss -> loss
I0501 08:14:02.028241  9862 layer_factory.hpp:77] Creating layer loss
…
I0501 08:14:02.029577  9862 solver.cpp:173] Creating test net (#0) specified by net file: ECE595/cifar/train_test/var_everything/cifar_train_test_505.prototxt
I0501 08:14:02.029604  9862 net.cpp:296] The NetState phase (1) differed from the phase (0) specified by a rule in layer cifar
I0501 08:14:02.029695  9862 net.cpp:53] Initializing net from parameters: 
name: "CIFAR"
state {
  phase: TEST
}
layer {
  name: "cifar"
  type: "Data"
  top: "data"
  top: "label"
  include {
    phase: TEST
  }
  transform_param {
    mean_file: "examples/cifar10/mean.binaryproto"
  }
  data_param {
    source: "examples/cifar10/cifar10_test_lmdb"
    batch_size: 1000
    backend: LMDB
  }
}
layer {
  name: "conv0"
  type: "Convolution"
  bottom: "data"
  top: "conv0"
  param {
    lr_mult: 1
  }
  param {
    lr_mult: 2
  }
  convolution_param {
    num_output: 16
    pad: 2
    kernel_size: 3
    stride: 1
    weight_filler {
      type: "gaussian"
      std: 0.01
    }
    bias_filler {
      type: "constant"
    }
  }
}
layer {
  name: "Sigmoid0"
  type: "Sigmoid"
  bottom: "conv0"
  top: "Sigmoid0"
}
layer {
  name: "pool0"
  type: "Pooling"
  bottom: "Sigmoid0"
  top: "pool0"
  pooling_param {
    pool: AVE
    kernel_size: 3
    stride: 2
  }
}
layer {
  name: "ip1"
  type: "InnerProduct"
  bottom: "pool0"
  top: "ip1"
  param {
    lr_mult: 1
  }
  param {
    lr_mult: 2
  }
  inner_product_param {
    num_output: 10
    weight_filler {
      type: "gaussian"
      std: 0.01
    }
    bias_filler {
      type: "constant"
    }
  }
}
layer {
  name: "relu1"
  type: "ReLU"
  bottom: "ip1"
  top: "ip1"
}
layer {
  name: "ip2"
  type: "InnerProduct"
  bottom: "ip1"
  top: "ip2"
  param {
    lr_mult: 1
  }
  param {
    lr_mult: 2
  }
  inner_product_param {
    num_output: 40
    weight_filler {
      type: "gaussian"
      std: 0.01
    }
    bias_filler {
      type: "constant"
    }
  }
}
layer {
  name: "relu2"
  type: "ReLU"
  bottom: "ip2"
  top: "ip2"
}
layer {
  name: "ip3"
  type: "InnerProduct"
  bottom: "ip2"
  top: "ip3"
  param {
    lr_mult: 1
  }
  param {
    lr_mult: 2
  }
  inner_product_param {
    num_output: 10
    weight_filler {
      type: "gaussian"
      std: 0.01
    }
    bias_filler {
      type: "constant"
    }
  }
}
layer {
  name: "relu3"
  type: "ReLU"
  bottom: "ip3"
  top: "ip3"
}
layer {
  name: "ip4"
  type: "InnerProduct"
  bottom: "ip3"
  top: "ip4"
  param {
    lr_mult: 1
  }
  param {
    lr_mult: 2
  }
  inner_product_param {
    num_output: 10
    weight_filler {
      type: "gaussian"
      std: 0.01
    }
    bias_filler {
      type: "constant"
    }
  }
}
layer {
  name: "accuracy"
  type: "Accuracy"
  bottom: "ip4"
  bottom: "label"
  top: "accuracy"
  include {
    phase: TEST
  }
}
layer {
  name: "loss"
  type: "SoftmaxWithLoss"
  bottom: "ip4"
  bottom: "label"
  top: "loss"
}
I0501 08:14:02.029784  9862 layer_factory.hpp:77] Creating layer cifar
I0501 08:14:02.029826  9862 db_lmdb.cpp:35] Opened lmdb examples/cifar10/cifar10_test_lmdb
I0501 08:14:02.029837  9862 net.cpp:86] Creating Layer cifar
I0501 08:14:02.029842  9862 net.cpp:382] cifar -> data
I0501 08:14:02.029850  9862 net.cpp:382] cifar -> label
I0501 08:14:02.029855  9862 data_transformer.cpp:25] Loading mean file from: examples/cifar10/mean.binaryproto
I0501 08:14:02.029985  9862 data_layer.cpp:45] output data size: 1000,3,32,32
I0501 08:14:02.051220  9862 net.cpp:124] Setting up cifar
I0501 08:14:02.051261  9862 net.cpp:131] Top shape: 1000 3 32 32 (3072000)
I0501 08:14:02.051278  9862 net.cpp:131] Top shape: 1000 (1000)
I0501 08:14:02.051282  9862 net.cpp:139] Memory required for data: 12292000
I0501 08:14:02.051287  9862 layer_factory.hpp:77] Creating layer label_cifar_1_split
I0501 08:14:02.051303  9862 net.cpp:86] Creating Layer label_cifar_1_split
I0501 08:14:02.051323  9862 net.cpp:408] label_cifar_1_split <- label
I0501 08:14:02.051329  9862 net.cpp:382] label_cifar_1_split -> label_cifar_1_split_0
I0501 08:14:02.051354  9862 net.cpp:382] label_cifar_1_split -> label_cifar_1_split_1
I0501 08:14:02.051455  9862 net.cpp:124] Setting up label_cifar_1_split
I0501 08:14:02.051463  9862 net.cpp:131] Top shape: 1000 (1000)
I0501 08:14:02.051467  9862 net.cpp:131] Top shape: 1000 (1000)
I0501 08:14:02.051470  9862 net.cpp:139] Memory required for data: 12300000
I0501 08:14:02.051473  9862 layer_factory.hpp:77] Creating layer conv0
I0501 08:14:02.051486  9862 net.cpp:86] Creating Layer conv0
I0501 08:14:02.051489  9862 net.cpp:408] conv0 <- data
I0501 08:14:02.051496  9862 net.cpp:382] conv0 -> conv0
I0501 08:14:02.053071  9862 net.cpp:124] Setting up conv0
I0501 08:14:02.053086  9862 net.cpp:131] Top shape: 1000 16 34 34 (18496000)
I0501 08:14:02.053089  9862 net.cpp:139] Memory required for data: 86284000
I0501 08:14:02.053099  9862 layer_factory.hpp:77] Creating layer Sigmoid0
I0501 08:14:02.053107  9862 net.cpp:86] Creating Layer Sigmoid0
I0501 08:14:02.053124  9862 net.cpp:408] Sigmoid0 <- conv0
I0501 08:14:02.053130  9862 net.cpp:382] Sigmoid0 -> Sigmoid0
I0501 08:14:02.053328  9862 net.cpp:124] Setting up Sigmoid0
I0501 08:14:02.053357  9862 net.cpp:131] Top shape: 1000 16 34 34 (18496000)
I0501 08:14:02.053361  9862 net.cpp:139] Memory required for data: 160268000
I0501 08:14:02.053365  9862 layer_factory.hpp:77] Creating layer pool0
I0501 08:14:02.053373  9862 net.cpp:86] Creating Layer pool0
I0501 08:14:02.053376  9862 net.cpp:408] pool0 <- Sigmoid0
I0501 08:14:02.053381  9862 net.cpp:382] pool0 -> pool0
I0501 08:14:02.053632  9862 net.cpp:124] Setting up pool0
I0501 08:14:02.053642  9862 net.cpp:131] Top shape: 1000 16 17 17 (4624000)
I0501 08:14:02.053644  9862 net.cpp:139] Memory required for data: 178764000
I0501 08:14:02.053647  9862 layer_factory.hpp:77] Creating layer ip1
I0501 08:14:02.053655  9862 net.cpp:86] Creating Layer ip1
I0501 08:14:02.053659  9862 net.cpp:408] ip1 <- pool0
I0501 08:14:02.053664  9862 net.cpp:382] ip1 -> ip1
I0501 08:14:02.055922  9862 net.cpp:124] Setting up ip1
I0501 08:14:02.055929  9862 net.cpp:131] Top shape: 1000 10 (10000)
I0501 08:14:02.055948  9862 net.cpp:139] Memory required for data: 178804000
I0501 08:14:02.055970  9862 layer_factory.hpp:77] Creating layer relu1
I0501 08:14:02.055976  9862 net.cpp:86] Creating Layer relu1
I0501 08:14:02.055979  9862 net.cpp:408] relu1 <- ip1
I0501 08:14:02.055999  9862 net.cpp:369] relu1 -> ip1 (in-place)
I0501 08:14:02.056180  9862 net.cpp:124] Setting up relu1
I0501 08:14:02.056187  9862 net.cpp:131] Top shape: 1000 10 (10000)
I0501 08:14:02.056190  9862 net.cpp:139] Memory required for data: 178844000
I0501 08:14:02.056195  9862 layer_factory.hpp:77] Creating layer ip2
I0501 08:14:02.056201  9862 net.cpp:86] Creating Layer ip2
I0501 08:14:02.056205  9862 net.cpp:408] ip2 <- ip1
I0501 08:14:02.056210  9862 net.cpp:382] ip2 -> ip2
I0501 08:14:02.056324  9862 net.cpp:124] Setting up ip2
I0501 08:14:02.056331  9862 net.cpp:131] Top shape: 1000 40 (40000)
I0501 08:14:02.056334  9862 net.cpp:139] Memory required for data: 179004000
I0501 08:14:02.056341  9862 layer_factory.hpp:77] Creating layer relu2
I0501 08:14:02.056349  9862 net.cpp:86] Creating Layer relu2
I0501 08:14:02.056351  9862 net.cpp:408] relu2 <- ip2
I0501 08:14:02.056355  9862 net.cpp:369] relu2 -> ip2 (in-place)
I0501 08:14:02.057129  9862 net.cpp:124] Setting up relu2
I0501 08:14:02.057157  9862 net.cpp:131] Top shape: 1000 40 (40000)
I0501 08:14:02.057174  9862 net.cpp:139] Memory required for data: 179164000
I0501 08:14:02.057178  9862 layer_factory.hpp:77] Creating layer ip3
I0501 08:14:02.057201  9862 net.cpp:86] Creating Layer ip3
I0501 08:14:02.057204  9862 net.cpp:408] ip3 <- ip2
I0501 08:14:02.057210  9862 net.cpp:382] ip3 -> ip3
I0501 08:14:02.057340  9862 net.cpp:124] Setting up ip3
I0501 08:14:02.057348  9862 net.cpp:131] Top shape: 1000 10 (10000)
I0501 08:14:02.057350  9862 net.cpp:139] Memory required for data: 179204000
I0501 08:14:02.057355  9862 layer_factory.hpp:77] Creating layer relu3
I0501 08:14:02.057360  9862 net.cpp:86] Creating Layer relu3
I0501 08:14:02.057363  9862 net.cpp:408] relu3 <- ip3
I0501 08:14:02.057368  9862 net.cpp:369] relu3 -> ip3 (in-place)
I0501 08:14:02.057521  9862 net.cpp:124] Setting up relu3
I0501 08:14:02.057529  9862 net.cpp:131] Top shape: 1000 10 (10000)
I0501 08:14:02.057533  9862 net.cpp:139] Memory required for data: 179244000
I0501 08:14:02.057535  9862 layer_factory.hpp:77] Creating layer ip4
I0501 08:14:02.057541  9862 net.cpp:86] Creating Layer ip4
I0501 08:14:02.057544  9862 net.cpp:408] ip4 <- ip3
I0501 08:14:02.057549  9862 net.cpp:382] ip4 -> ip4
I0501 08:14:02.057653  9862 net.cpp:124] Setting up ip4
I0501 08:14:02.057660  9862 net.cpp:131] Top shape: 1000 10 (10000)
I0501 08:14:02.057663  9862 net.cpp:139] Memory required for data: 179284000
I0501 08:14:02.057672  9862 layer_factory.hpp:77] Creating layer ip4_ip4_0_split
I0501 08:14:02.057677  9862 net.cpp:86] Creating Layer ip4_ip4_0_split
I0501 08:14:02.057679  9862 net.cpp:408] ip4_ip4_0_split <- ip4
I0501 08:14:02.057684  9862 net.cpp:382] ip4_ip4_0_split -> ip4_ip4_0_split_0
I0501 08:14:02.057689  9862 net.cpp:382] ip4_ip4_0_split -> ip4_ip4_0_split_1
I0501 08:14:02.057719  9862 net.cpp:124] Setting up ip4_ip4_0_split
I0501 08:14:02.057730  9862 net.cpp:131] Top shape: 1000 10 (10000)
I0501 08:14:02.057734  9862 net.cpp:131] Top shape: 1000 10 (10000)
I0501 08:14:02.057736  9862 net.cpp:139] Memory required for data: 179364000
I0501 08:14:02.057739  9862 layer_factory.hpp:77] Creating layer accuracy
I0501 08:14:02.057744  9862 net.cpp:86] Creating Layer accuracy
I0501 08:14:02.057747  9862 net.cpp:408] accuracy <- ip4_ip4_0_split_0
I0501 08:14:02.057750  9862 net.cpp:408] accuracy <- label_cifar_1_split_0
I0501 08:14:02.057755  9862 net.cpp:382] accuracy -> accuracy
…
