…
I0430 16:36:19.798480 17752 net.cpp:296] The NetState phase (0) differed from the phase (1) specified by a rule in layer cifar
I0430 16:36:19.798493 17752 net.cpp:296] The NetState phase (0) differed from the phase (1) specified by a rule in layer accuracy
I0430 16:36:19.798568 17752 net.cpp:53] Initializing net from parameters: 
name: "CIFAR"
state {
  phase: TRAIN
  level: 0
  stage: ""
}
layer {
  name: "cifar"
  type: "Data"
  top: "data"
  top: "label"
  include {
    phase: TRAIN
  }
  transform_param {
    mean_file: "examples/cifar10/mean.binaryproto"
  }
  data_param {
    source: "examples/cifar10/cifar10_train_lmdb"
    batch_size: 111
    backend: LMDB
  }
}
layer {
  name: "ip1"
  type: "InnerProduct"
  bottom: "data"
  top: "ip1"
  param {
    lr_mult: 1
  }
  param {
    lr_mult: 2
  }
  inner_product_param {
    num_output: 10
    weight_filler {
      type: "gaussian"
      std: 0.01
    }
    bias_filler {
      type: "constant"
    }
  }
}
layer {
  name: "relu1"
  type: "ReLU"
  bottom: "ip1"
  top: "ip1"
}
layer {
  name: "ip2"
  type: "InnerProduct"
  bottom: "ip1"
  top: "ip2"
  param {
    lr_mult: 1
  }
  param {
    lr_mult: 2
  }
  inner_product_param {
    num_output: 80
    weight_filler {
      type: "gaussian"
      std: 0.01
    }
    bias_filler {
      type: "constant"
    }
  }
}
layer {
  name: "relu2"
  type: "ReLU"
  bottom: "ip2"
  top: "ip2"
}
layer {
  name: "ip3"
  type: "InnerProduct"
  bottom: "ip2"
  top: "ip3"
  param {
    lr_mult: 1
  }
  param {
    lr_mult: 2
  }
  inner_product_param {
    num_output: 10
    weight_filler {
      type: "gaussian"
      std: 0.01
    }
    bias_filler {
      type: "constant"
    }
  }
}
layer {
  name: "loss"
  type: "SoftmaxWithLoss"
  bottom: "ip3"
  bottom: "label"
  top: "loss"
}
I0430 16:36:19.798631 17752 layer_factory.hpp:77] Creating layer cifar
I0430 16:36:19.798727 17752 db_lmdb.cpp:35] Opened lmdb examples/cifar10/cifar10_train_lmdb
I0430 16:36:19.798754 17752 net.cpp:86] Creating Layer cifar
I0430 16:36:19.798765 17752 net.cpp:382] cifar -> data
I0430 16:36:19.798787 17752 net.cpp:382] cifar -> label
I0430 16:36:19.798800 17752 data_transformer.cpp:25] Loading mean file from: examples/cifar10/mean.binaryproto
I0430 16:36:19.800858 17752 data_layer.cpp:45] output data size: 111,3,32,32
I0430 16:36:19.808503 17752 net.cpp:124] Setting up cifar
I0430 16:36:19.808521 17752 net.cpp:131] Top shape: 111 3 32 32 (340992)
I0430 16:36:19.808527 17752 net.cpp:131] Top shape: 111 (111)
I0430 16:36:19.808531 17752 net.cpp:139] Memory required for data: 1364412
I0430 16:36:19.808538 17752 layer_factory.hpp:77] Creating layer ip1
I0430 16:36:19.808548 17752 net.cpp:86] Creating Layer ip1
I0430 16:36:19.808553 17752 net.cpp:408] ip1 <- data
I0430 16:36:19.808567 17752 net.cpp:382] ip1 -> ip1
I0430 16:36:19.810704 17752 net.cpp:124] Setting up ip1
I0430 16:36:19.810719 17752 net.cpp:131] Top shape: 111 10 (1110)
I0430 16:36:19.810724 17752 net.cpp:139] Memory required for data: 1368852
I0430 16:36:19.810736 17752 layer_factory.hpp:77] Creating layer relu1
I0430 16:36:19.810745 17752 net.cpp:86] Creating Layer relu1
I0430 16:36:19.810750 17752 net.cpp:408] relu1 <- ip1
I0430 16:36:19.810756 17752 net.cpp:369] relu1 -> ip1 (in-place)
I0430 16:36:20.094306 17752 net.cpp:124] Setting up relu1
I0430 16:36:20.094334 17752 net.cpp:131] Top shape: 111 10 (1110)
I0430 16:36:20.094338 17752 net.cpp:139] Memory required for data: 1373292
I0430 16:36:20.094363 17752 layer_factory.hpp:77] Creating layer ip2
I0430 16:36:20.094377 17752 net.cpp:86] Creating Layer ip2
I0430 16:36:20.094382 17752 net.cpp:408] ip2 <- ip1
I0430 16:36:20.094389 17752 net.cpp:382] ip2 -> ip2
I0430 16:36:20.095407 17752 net.cpp:124] Setting up ip2
I0430 16:36:20.095420 17752 net.cpp:131] Top shape: 111 80 (8880)
I0430 16:36:20.095424 17752 net.cpp:139] Memory required for data: 1408812
I0430 16:36:20.095435 17752 layer_factory.hpp:77] Creating layer relu2
I0430 16:36:20.095443 17752 net.cpp:86] Creating Layer relu2
I0430 16:36:20.095446 17752 net.cpp:408] relu2 <- ip2
I0430 16:36:20.095453 17752 net.cpp:369] relu2 -> ip2 (in-place)
I0430 16:36:20.096195 17752 net.cpp:124] Setting up relu2
I0430 16:36:20.096209 17752 net.cpp:131] Top shape: 111 80 (8880)
I0430 16:36:20.096211 17752 net.cpp:139] Memory required for data: 1444332
I0430 16:36:20.096215 17752 layer_factory.hpp:77] Creating layer ip3
I0430 16:36:20.096223 17752 net.cpp:86] Creating Layer ip3
I0430 16:36:20.096226 17752 net.cpp:408] ip3 <- ip2
I0430 16:36:20.096232 17752 net.cpp:382] ip3 -> ip3
I0430 16:36:20.096355 17752 net.cpp:124] Setting up ip3
I0430 16:36:20.096364 17752 net.cpp:131] Top shape: 111 10 (1110)
I0430 16:36:20.096366 17752 net.cpp:139] Memory required for data: 1448772
I0430 16:36:20.096374 17752 layer_factory.hpp:77] Creating layer loss
I0430 16:36:20.096384 17752 net.cpp:86] Creating Layer loss
I0430 16:36:20.096387 17752 net.cpp:408] loss <- ip3
I0430 16:36:20.096391 17752 net.cpp:408] loss <- label
I0430 16:36:20.096396 17752 net.cpp:382] loss -> loss
I0430 16:36:20.096411 17752 layer_factory.hpp:77] Creating layer loss
…
I0430 16:36:20.096953 17752 solver.cpp:173] Creating test net (#0) specified by net file: ECE595/cifar/train_test/var_everything/cifar_train_test_8.prototxt
I0430 16:36:20.096977 17752 net.cpp:296] The NetState phase (1) differed from the phase (0) specified by a rule in layer cifar
I0430 16:36:20.097050 17752 net.cpp:53] Initializing net from parameters: 
name: "CIFAR"
state {
  phase: TEST
}
layer {
  name: "cifar"
  type: "Data"
  top: "data"
  top: "label"
  include {
    phase: TEST
  }
  transform_param {
    mean_file: "examples/cifar10/mean.binaryproto"
  }
  data_param {
    source: "examples/cifar10/cifar10_test_lmdb"
    batch_size: 1000
    backend: LMDB
  }
}
layer {
  name: "ip1"
  type: "InnerProduct"
  bottom: "data"
  top: "ip1"
  param {
    lr_mult: 1
  }
  param {
    lr_mult: 2
  }
  inner_product_param {
    num_output: 10
    weight_filler {
      type: "gaussian"
      std: 0.01
    }
    bias_filler {
      type: "constant"
    }
  }
}
layer {
  name: "relu1"
  type: "ReLU"
  bottom: "ip1"
  top: "ip1"
}
layer {
  name: "ip2"
  type: "InnerProduct"
  bottom: "ip1"
  top: "ip2"
  param {
    lr_mult: 1
  }
  param {
    lr_mult: 2
  }
  inner_product_param {
    num_output: 80
    weight_filler {
      type: "gaussian"
      std: 0.01
    }
    bias_filler {
      type: "constant"
    }
  }
}
layer {
  name: "relu2"
  type: "ReLU"
  bottom: "ip2"
  top: "ip2"
}
layer {
  name: "ip3"
  type: "InnerProduct"
  bottom: "ip2"
  top: "ip3"
  param {
    lr_mult: 1
  }
  param {
    lr_mult: 2
  }
  inner_product_param {
    num_output: 10
    weight_filler {
      type: "gaussian"
      std: 0.01
    }
    bias_filler {
      type: "constant"
    }
  }
}
layer {
  name: "accuracy"
  type: "Accuracy"
  bottom: "ip3"
  bottom: "label"
  top: "accuracy"
  include {
    phase: TEST
  }
}
layer {
  name: "loss"
  type: "SoftmaxWithLoss"
  bottom: "ip3"
  bottom: "label"
  top: "loss"
}
I0430 16:36:20.097136 17752 layer_factory.hpp:77] Creating layer cifar
I0430 16:36:20.097179 17752 db_lmdb.cpp:35] Opened lmdb examples/cifar10/cifar10_test_lmdb
I0430 16:36:20.097193 17752 net.cpp:86] Creating Layer cifar
I0430 16:36:20.097198 17752 net.cpp:382] cifar -> data
I0430 16:36:20.097206 17752 net.cpp:382] cifar -> label
I0430 16:36:20.097213 17752 data_transformer.cpp:25] Loading mean file from: examples/cifar10/mean.binaryproto
I0430 16:36:20.097359 17752 data_layer.cpp:45] output data size: 1000,3,32,32
I0430 16:36:20.119457 17752 net.cpp:124] Setting up cifar
I0430 16:36:20.119484 17752 net.cpp:131] Top shape: 1000 3 32 32 (3072000)
I0430 16:36:20.119490 17752 net.cpp:131] Top shape: 1000 (1000)
I0430 16:36:20.119494 17752 net.cpp:139] Memory required for data: 12292000
I0430 16:36:20.119499 17752 layer_factory.hpp:77] Creating layer label_cifar_1_split
I0430 16:36:20.119518 17752 net.cpp:86] Creating Layer label_cifar_1_split
I0430 16:36:20.119525 17752 net.cpp:408] label_cifar_1_split <- label
I0430 16:36:20.119532 17752 net.cpp:382] label_cifar_1_split -> label_cifar_1_split_0
I0430 16:36:20.119541 17752 net.cpp:382] label_cifar_1_split -> label_cifar_1_split_1
I0430 16:36:20.119637 17752 net.cpp:124] Setting up label_cifar_1_split
I0430 16:36:20.119644 17752 net.cpp:131] Top shape: 1000 (1000)
I0430 16:36:20.119648 17752 net.cpp:131] Top shape: 1000 (1000)
I0430 16:36:20.119652 17752 net.cpp:139] Memory required for data: 12300000
I0430 16:36:20.119654 17752 layer_factory.hpp:77] Creating layer ip1
I0430 16:36:20.119663 17752 net.cpp:86] Creating Layer ip1
I0430 16:36:20.119668 17752 net.cpp:408] ip1 <- data
I0430 16:36:20.119673 17752 net.cpp:382] ip1 -> ip1
I0430 16:36:20.120625 17752 net.cpp:124] Setting up ip1
I0430 16:36:20.120633 17752 net.cpp:131] Top shape: 1000 10 (10000)
I0430 16:36:20.120636 17752 net.cpp:139] Memory required for data: 12340000
I0430 16:36:20.120645 17752 layer_factory.hpp:77] Creating layer relu1
I0430 16:36:20.120651 17752 net.cpp:86] Creating Layer relu1
I0430 16:36:20.120653 17752 net.cpp:408] relu1 <- ip1
I0430 16:36:20.120657 17752 net.cpp:369] relu1 -> ip1 (in-place)
I0430 16:36:20.120858 17752 net.cpp:124] Setting up relu1
I0430 16:36:20.120868 17752 net.cpp:131] Top shape: 1000 10 (10000)
I0430 16:36:20.120872 17752 net.cpp:139] Memory required for data: 12380000
I0430 16:36:20.120875 17752 layer_factory.hpp:77] Creating layer ip2
I0430 16:36:20.120882 17752 net.cpp:86] Creating Layer ip2
I0430 16:36:20.120905 17752 net.cpp:408] ip2 <- ip1
I0430 16:36:20.120910 17752 net.cpp:382] ip2 -> ip2
I0430 16:36:20.121060 17752 net.cpp:124] Setting up ip2
I0430 16:36:20.121084 17752 net.cpp:131] Top shape: 1000 80 (80000)
I0430 16:36:20.121088 17752 net.cpp:139] Memory required for data: 12700000
I0430 16:36:20.121096 17752 layer_factory.hpp:77] Creating layer relu2
I0430 16:36:20.121101 17752 net.cpp:86] Creating Layer relu2
I0430 16:36:20.121105 17752 net.cpp:408] relu2 <- ip2
I0430 16:36:20.121110 17752 net.cpp:369] relu2 -> ip2 (in-place)
I0430 16:36:20.121963 17752 net.cpp:124] Setting up relu2
I0430 16:36:20.121974 17752 net.cpp:131] Top shape: 1000 80 (80000)
I0430 16:36:20.121978 17752 net.cpp:139] Memory required for data: 13020000
I0430 16:36:20.121981 17752 layer_factory.hpp:77] Creating layer ip3
I0430 16:36:20.121989 17752 net.cpp:86] Creating Layer ip3
I0430 16:36:20.121991 17752 net.cpp:408] ip3 <- ip2
I0430 16:36:20.121997 17752 net.cpp:382] ip3 -> ip3
I0430 16:36:20.123046 17752 net.cpp:124] Setting up ip3
I0430 16:36:20.123054 17752 net.cpp:131] Top shape: 1000 10 (10000)
I0430 16:36:20.123057 17752 net.cpp:139] Memory required for data: 13060000
I0430 16:36:20.123080 17752 layer_factory.hpp:77] Creating layer ip3_ip3_0_split
I0430 16:36:20.123085 17752 net.cpp:86] Creating Layer ip3_ip3_0_split
I0430 16:36:20.123088 17752 net.cpp:408] ip3_ip3_0_split <- ip3
I0430 16:36:20.123092 17752 net.cpp:382] ip3_ip3_0_split -> ip3_ip3_0_split_0
I0430 16:36:20.123098 17752 net.cpp:382] ip3_ip3_0_split -> ip3_ip3_0_split_1
I0430 16:36:20.123131 17752 net.cpp:124] Setting up ip3_ip3_0_split
I0430 16:36:20.123137 17752 net.cpp:131] Top shape: 1000 10 (10000)
I0430 16:36:20.123157 17752 net.cpp:131] Top shape: 1000 10 (10000)
I0430 16:36:20.123159 17752 net.cpp:139] Memory required for data: 13140000
I0430 16:36:20.123162 17752 layer_factory.hpp:77] Creating layer accuracy
I0430 16:36:20.123169 17752 net.cpp:86] Creating Layer accuracy
I0430 16:36:20.123172 17752 net.cpp:408] accuracy <- ip3_ip3_0_split_0
I0430 16:36:20.123177 17752 net.cpp:408] accuracy <- label_cifar_1_split_0
I0430 16:36:20.123181 17752 net.cpp:382] accuracy -> accuracy
…
