…
I0430 19:59:52.120769 27520 net.cpp:296] The NetState phase (0) differed from the phase (1) specified by a rule in layer cifar
I0430 19:59:52.120784 27520 net.cpp:296] The NetState phase (0) differed from the phase (1) specified by a rule in layer accuracy
I0430 19:59:52.120874 27520 net.cpp:53] Initializing net from parameters: 
name: "CIFAR"
state {
  phase: TRAIN
  level: 0
  stage: ""
}
layer {
  name: "cifar"
  type: "Data"
  top: "data"
  top: "label"
  include {
    phase: TRAIN
  }
  transform_param {
    mean_file: "examples/cifar10/mean.binaryproto"
  }
  data_param {
    source: "examples/cifar10/cifar10_train_lmdb"
    batch_size: 111
    backend: LMDB
  }
}
layer {
  name: "ip1"
  type: "InnerProduct"
  bottom: "data"
  top: "ip1"
  param {
    lr_mult: 1
  }
  param {
    lr_mult: 2
  }
  inner_product_param {
    num_output: 80
    weight_filler {
      type: "gaussian"
      std: 0.01
    }
    bias_filler {
      type: "constant"
    }
  }
}
layer {
  name: "relu1"
  type: "ReLU"
  bottom: "ip1"
  top: "ip1"
}
layer {
  name: "ip2"
  type: "InnerProduct"
  bottom: "ip1"
  top: "ip2"
  param {
    lr_mult: 1
  }
  param {
    lr_mult: 2
  }
  inner_product_param {
    num_output: 40
    weight_filler {
      type: "gaussian"
      std: 0.01
    }
    bias_filler {
      type: "constant"
    }
  }
}
layer {
  name: "relu2"
  type: "ReLU"
  bottom: "ip2"
  top: "ip2"
}
layer {
  name: "ip3"
  type: "InnerProduct"
  bottom: "ip2"
  top: "ip3"
  param {
    lr_mult: 1
  }
  param {
    lr_mult: 2
  }
  inner_product_param {
    num_output: 10
    weight_filler {
      type: "gaussian"
      std: 0.01
    }
    bias_filler {
      type: "constant"
    }
  }
}
layer {
  name: "relu3"
  type: "ReLU"
  bottom: "ip3"
  top: "ip3"
}
layer {
  name: "ip4"
  type: "InnerProduct"
  bottom: "ip3"
  top: "ip4"
  param {
    lr_mult: 1
  }
  param {
    lr_mult: 2
  }
  inner_product_param {
    num_output: 10
    weight_filler {
      type: "gaussian"
      std: 0.01
    }
    bias_filler {
      type: "constant"
    }
  }
}
layer {
  name: "loss"
  type: "SoftmaxWithLoss"
  bottom: "ip4"
  bottom: "label"
  top: "loss"
}
I0430 19:59:52.120949 27520 layer_factory.hpp:77] Creating layer cifar
I0430 19:59:52.121049 27520 db_lmdb.cpp:35] Opened lmdb examples/cifar10/cifar10_train_lmdb
I0430 19:59:52.121078 27520 net.cpp:86] Creating Layer cifar
I0430 19:59:52.121088 27520 net.cpp:382] cifar -> data
I0430 19:59:52.121114 27520 net.cpp:382] cifar -> label
I0430 19:59:52.121126 27520 data_transformer.cpp:25] Loading mean file from: examples/cifar10/mean.binaryproto
I0430 19:59:52.123241 27520 data_layer.cpp:45] output data size: 111,3,32,32
I0430 19:59:52.131327 27520 net.cpp:124] Setting up cifar
I0430 19:59:52.131346 27520 net.cpp:131] Top shape: 111 3 32 32 (340992)
I0430 19:59:52.131352 27520 net.cpp:131] Top shape: 111 (111)
I0430 19:59:52.131356 27520 net.cpp:139] Memory required for data: 1364412
I0430 19:59:52.131364 27520 layer_factory.hpp:77] Creating layer ip1
I0430 19:59:52.131383 27520 net.cpp:86] Creating Layer ip1
I0430 19:59:52.131389 27520 net.cpp:408] ip1 <- data
I0430 19:59:52.131400 27520 net.cpp:382] ip1 -> ip1
I0430 19:59:52.140596 27520 net.cpp:124] Setting up ip1
I0430 19:59:52.140612 27520 net.cpp:131] Top shape: 111 80 (8880)
I0430 19:59:52.140616 27520 net.cpp:139] Memory required for data: 1399932
I0430 19:59:52.140630 27520 layer_factory.hpp:77] Creating layer relu1
I0430 19:59:52.140641 27520 net.cpp:86] Creating Layer relu1
I0430 19:59:52.140662 27520 net.cpp:408] relu1 <- ip1
I0430 19:59:52.140668 27520 net.cpp:369] relu1 -> ip1 (in-place)
I0430 19:59:52.429548 27520 net.cpp:124] Setting up relu1
I0430 19:59:52.429579 27520 net.cpp:131] Top shape: 111 80 (8880)
I0430 19:59:52.429584 27520 net.cpp:139] Memory required for data: 1435452
I0430 19:59:52.429590 27520 layer_factory.hpp:77] Creating layer ip2
I0430 19:59:52.429605 27520 net.cpp:86] Creating Layer ip2
I0430 19:59:52.429610 27520 net.cpp:408] ip2 <- ip1
I0430 19:59:52.429620 27520 net.cpp:382] ip2 -> ip2
I0430 19:59:52.429870 27520 net.cpp:124] Setting up ip2
I0430 19:59:52.429880 27520 net.cpp:131] Top shape: 111 40 (4440)
I0430 19:59:52.429884 27520 net.cpp:139] Memory required for data: 1453212
I0430 19:59:52.429896 27520 layer_factory.hpp:77] Creating layer relu2
I0430 19:59:52.429910 27520 net.cpp:86] Creating Layer relu2
I0430 19:59:52.429915 27520 net.cpp:408] relu2 <- ip2
I0430 19:59:52.429920 27520 net.cpp:369] relu2 -> ip2 (in-place)
I0430 19:59:52.430830 27520 net.cpp:124] Setting up relu2
I0430 19:59:52.430845 27520 net.cpp:131] Top shape: 111 40 (4440)
I0430 19:59:52.430850 27520 net.cpp:139] Memory required for data: 1470972
I0430 19:59:52.430853 27520 layer_factory.hpp:77] Creating layer ip3
I0430 19:59:52.430863 27520 net.cpp:86] Creating Layer ip3
I0430 19:59:52.430867 27520 net.cpp:408] ip3 <- ip2
I0430 19:59:52.430873 27520 net.cpp:382] ip3 -> ip3
I0430 19:59:52.432004 27520 net.cpp:124] Setting up ip3
I0430 19:59:52.432020 27520 net.cpp:131] Top shape: 111 10 (1110)
I0430 19:59:52.432024 27520 net.cpp:139] Memory required for data: 1475412
I0430 19:59:52.432034 27520 layer_factory.hpp:77] Creating layer relu3
I0430 19:59:52.432044 27520 net.cpp:86] Creating Layer relu3
I0430 19:59:52.432047 27520 net.cpp:408] relu3 <- ip3
I0430 19:59:52.432055 27520 net.cpp:369] relu3 -> ip3 (in-place)
I0430 19:59:52.432255 27520 net.cpp:124] Setting up relu3
I0430 19:59:52.432265 27520 net.cpp:131] Top shape: 111 10 (1110)
I0430 19:59:52.432268 27520 net.cpp:139] Memory required for data: 1479852
I0430 19:59:52.432272 27520 layer_factory.hpp:77] Creating layer ip4
I0430 19:59:52.432281 27520 net.cpp:86] Creating Layer ip4
I0430 19:59:52.432288 27520 net.cpp:408] ip4 <- ip3
I0430 19:59:52.432296 27520 net.cpp:382] ip4 -> ip4
I0430 19:59:52.432415 27520 net.cpp:124] Setting up ip4
I0430 19:59:52.432425 27520 net.cpp:131] Top shape: 111 10 (1110)
I0430 19:59:52.432430 27520 net.cpp:139] Memory required for data: 1484292
I0430 19:59:52.432436 27520 layer_factory.hpp:77] Creating layer loss
I0430 19:59:52.432445 27520 net.cpp:86] Creating Layer loss
I0430 19:59:52.432451 27520 net.cpp:408] loss <- ip4
I0430 19:59:52.432456 27520 net.cpp:408] loss <- label
I0430 19:59:52.432462 27520 net.cpp:382] loss -> loss
I0430 19:59:52.432484 27520 layer_factory.hpp:77] Creating layer loss
…
I0430 19:59:52.433166 27520 solver.cpp:173] Creating test net (#0) specified by net file: ECE595/cifar/train_test/var_everything/cifar_train_test_115.prototxt
I0430 19:59:52.433212 27520 net.cpp:296] The NetState phase (1) differed from the phase (0) specified by a rule in layer cifar
I0430 19:59:52.433305 27520 net.cpp:53] Initializing net from parameters: 
name: "CIFAR"
state {
  phase: TEST
}
layer {
  name: "cifar"
  type: "Data"
  top: "data"
  top: "label"
  include {
    phase: TEST
  }
  transform_param {
    mean_file: "examples/cifar10/mean.binaryproto"
  }
  data_param {
    source: "examples/cifar10/cifar10_test_lmdb"
    batch_size: 1000
    backend: LMDB
  }
}
layer {
  name: "ip1"
  type: "InnerProduct"
  bottom: "data"
  top: "ip1"
  param {
    lr_mult: 1
  }
  param {
    lr_mult: 2
  }
  inner_product_param {
    num_output: 80
    weight_filler {
      type: "gaussian"
      std: 0.01
    }
    bias_filler {
      type: "constant"
    }
  }
}
layer {
  name: "relu1"
  type: "ReLU"
  bottom: "ip1"
  top: "ip1"
}
layer {
  name: "ip2"
  type: "InnerProduct"
  bottom: "ip1"
  top: "ip2"
  param {
    lr_mult: 1
  }
  param {
    lr_mult: 2
  }
  inner_product_param {
    num_output: 40
    weight_filler {
      type: "gaussian"
      std: 0.01
    }
    bias_filler {
      type: "constant"
    }
  }
}
layer {
  name: "relu2"
  type: "ReLU"
  bottom: "ip2"
  top: "ip2"
}
layer {
  name: "ip3"
  type: "InnerProduct"
  bottom: "ip2"
  top: "ip3"
  param {
    lr_mult: 1
  }
  param {
    lr_mult: 2
  }
  inner_product_param {
    num_output: 10
    weight_filler {
      type: "gaussian"
      std: 0.01
    }
    bias_filler {
      type: "constant"
    }
  }
}
layer {
  name: "relu3"
  type: "ReLU"
  bottom: "ip3"
  top: "ip3"
}
layer {
  name: "ip4"
  type: "InnerProduct"
  bottom: "ip3"
  top: "ip4"
  param {
    lr_mult: 1
  }
  param {
    lr_mult: 2
  }
  inner_product_param {
    num_output: 10
    weight_filler {
      type: "gaussian"
      std: 0.01
    }
    bias_filler {
      type: "constant"
    }
  }
}
layer {
  name: "accuracy"
  type: "Accuracy"
  bottom: "ip4"
  bottom: "label"
  top: "accuracy"
  include {
    phase: TEST
  }
}
layer {
  name: "loss"
  type: "SoftmaxWithLoss"
  bottom: "ip4"
  bottom: "label"
  top: "loss"
}
I0430 19:59:52.433374 27520 layer_factory.hpp:77] Creating layer cifar
I0430 19:59:52.433429 27520 db_lmdb.cpp:35] Opened lmdb examples/cifar10/cifar10_test_lmdb
I0430 19:59:52.433445 27520 net.cpp:86] Creating Layer cifar
I0430 19:59:52.433454 27520 net.cpp:382] cifar -> data
I0430 19:59:52.433464 27520 net.cpp:382] cifar -> label
I0430 19:59:52.433471 27520 data_transformer.cpp:25] Loading mean file from: examples/cifar10/mean.binaryproto
I0430 19:59:52.433640 27520 data_layer.cpp:45] output data size: 1000,3,32,32
I0430 19:59:52.459461 27520 net.cpp:124] Setting up cifar
I0430 19:59:52.459492 27520 net.cpp:131] Top shape: 1000 3 32 32 (3072000)
I0430 19:59:52.459499 27520 net.cpp:131] Top shape: 1000 (1000)
I0430 19:59:52.459503 27520 net.cpp:139] Memory required for data: 12292000
I0430 19:59:52.459511 27520 layer_factory.hpp:77] Creating layer label_cifar_1_split
I0430 19:59:52.459529 27520 net.cpp:86] Creating Layer label_cifar_1_split
I0430 19:59:52.459534 27520 net.cpp:408] label_cifar_1_split <- label
I0430 19:59:52.459542 27520 net.cpp:382] label_cifar_1_split -> label_cifar_1_split_0
I0430 19:59:52.459553 27520 net.cpp:382] label_cifar_1_split -> label_cifar_1_split_1
I0430 19:59:52.459676 27520 net.cpp:124] Setting up label_cifar_1_split
I0430 19:59:52.459686 27520 net.cpp:131] Top shape: 1000 (1000)
I0430 19:59:52.459691 27520 net.cpp:131] Top shape: 1000 (1000)
I0430 19:59:52.459693 27520 net.cpp:139] Memory required for data: 12300000
I0430 19:59:52.459697 27520 layer_factory.hpp:77] Creating layer ip1
I0430 19:59:52.459707 27520 net.cpp:86] Creating Layer ip1
I0430 19:59:52.459712 27520 net.cpp:408] ip1 <- data
I0430 19:59:52.459718 27520 net.cpp:382] ip1 -> ip1
I0430 19:59:52.468000 27520 net.cpp:124] Setting up ip1
I0430 19:59:52.468014 27520 net.cpp:131] Top shape: 1000 80 (80000)
I0430 19:59:52.468019 27520 net.cpp:139] Memory required for data: 12620000
I0430 19:59:52.468062 27520 layer_factory.hpp:77] Creating layer relu1
I0430 19:59:52.468071 27520 net.cpp:86] Creating Layer relu1
I0430 19:59:52.468075 27520 net.cpp:408] relu1 <- ip1
I0430 19:59:52.468081 27520 net.cpp:369] relu1 -> ip1 (in-place)
I0430 19:59:52.469017 27520 net.cpp:124] Setting up relu1
I0430 19:59:52.469033 27520 net.cpp:131] Top shape: 1000 80 (80000)
I0430 19:59:52.469036 27520 net.cpp:139] Memory required for data: 12940000
I0430 19:59:52.469040 27520 layer_factory.hpp:77] Creating layer ip2
I0430 19:59:52.469050 27520 net.cpp:86] Creating Layer ip2
I0430 19:59:52.469055 27520 net.cpp:408] ip2 <- ip1
I0430 19:59:52.469063 27520 net.cpp:382] ip2 -> ip2
I0430 19:59:52.469295 27520 net.cpp:124] Setting up ip2
I0430 19:59:52.469305 27520 net.cpp:131] Top shape: 1000 40 (40000)
I0430 19:59:52.469308 27520 net.cpp:139] Memory required for data: 13100000
I0430 19:59:52.469317 27520 layer_factory.hpp:77] Creating layer relu2
I0430 19:59:52.469324 27520 net.cpp:86] Creating Layer relu2
I0430 19:59:52.469328 27520 net.cpp:408] relu2 <- ip2
I0430 19:59:52.469333 27520 net.cpp:369] relu2 -> ip2 (in-place)
I0430 19:59:52.469517 27520 net.cpp:124] Setting up relu2
I0430 19:59:52.469527 27520 net.cpp:131] Top shape: 1000 40 (40000)
I0430 19:59:52.469532 27520 net.cpp:139] Memory required for data: 13260000
I0430 19:59:52.469535 27520 layer_factory.hpp:77] Creating layer ip3
I0430 19:59:52.469542 27520 net.cpp:86] Creating Layer ip3
I0430 19:59:52.469547 27520 net.cpp:408] ip3 <- ip2
I0430 19:59:52.469552 27520 net.cpp:382] ip3 -> ip3
I0430 19:59:52.469686 27520 net.cpp:124] Setting up ip3
I0430 19:59:52.469694 27520 net.cpp:131] Top shape: 1000 10 (10000)
I0430 19:59:52.469698 27520 net.cpp:139] Memory required for data: 13300000
I0430 19:59:52.469707 27520 layer_factory.hpp:77] Creating layer relu3
I0430 19:59:52.469713 27520 net.cpp:86] Creating Layer relu3
I0430 19:59:52.469717 27520 net.cpp:408] relu3 <- ip3
I0430 19:59:52.469722 27520 net.cpp:369] relu3 -> ip3 (in-place)
I0430 19:59:52.469902 27520 net.cpp:124] Setting up relu3
I0430 19:59:52.469913 27520 net.cpp:131] Top shape: 1000 10 (10000)
I0430 19:59:52.469916 27520 net.cpp:139] Memory required for data: 13340000
I0430 19:59:52.469919 27520 layer_factory.hpp:77] Creating layer ip4
I0430 19:59:52.469928 27520 net.cpp:86] Creating Layer ip4
I0430 19:59:52.469934 27520 net.cpp:408] ip4 <- ip3
I0430 19:59:52.469939 27520 net.cpp:382] ip4 -> ip4
I0430 19:59:52.470062 27520 net.cpp:124] Setting up ip4
I0430 19:59:52.470070 27520 net.cpp:131] Top shape: 1000 10 (10000)
I0430 19:59:52.470074 27520 net.cpp:139] Memory required for data: 13380000
I0430 19:59:52.470080 27520 layer_factory.hpp:77] Creating layer ip4_ip4_0_split
I0430 19:59:52.470087 27520 net.cpp:86] Creating Layer ip4_ip4_0_split
I0430 19:59:52.470090 27520 net.cpp:408] ip4_ip4_0_split <- ip4
I0430 19:59:52.470095 27520 net.cpp:382] ip4_ip4_0_split -> ip4_ip4_0_split_0
I0430 19:59:52.470103 27520 net.cpp:382] ip4_ip4_0_split -> ip4_ip4_0_split_1
I0430 19:59:52.470139 27520 net.cpp:124] Setting up ip4_ip4_0_split
I0430 19:59:52.470147 27520 net.cpp:131] Top shape: 1000 10 (10000)
I0430 19:59:52.470152 27520 net.cpp:131] Top shape: 1000 10 (10000)
I0430 19:59:52.470155 27520 net.cpp:139] Memory required for data: 13460000
I0430 19:59:52.470158 27520 layer_factory.hpp:77] Creating layer accuracy
I0430 19:59:52.470165 27520 net.cpp:86] Creating Layer accuracy
I0430 19:59:52.470170 27520 net.cpp:408] accuracy <- ip4_ip4_0_split_0
I0430 19:59:52.470173 27520 net.cpp:408] accuracy <- label_cifar_1_split_0
I0430 19:59:52.470180 27520 net.cpp:382] accuracy -> accuracy
…
