…
I0430 21:12:37.311733 30285 net.cpp:296] The NetState phase (0) differed from the phase (1) specified by a rule in layer cifar
I0430 21:12:37.311748 30285 net.cpp:296] The NetState phase (0) differed from the phase (1) specified by a rule in layer accuracy
I0430 21:12:37.311833 30285 net.cpp:53] Initializing net from parameters: 
name: "CIFAR"
state {
  phase: TRAIN
  level: 0
  stage: ""
}
layer {
  name: "cifar"
  type: "Data"
  top: "data"
  top: "label"
  include {
    phase: TRAIN
  }
  transform_param {
    mean_file: "examples/cifar10/mean.binaryproto"
  }
  data_param {
    source: "examples/cifar10/cifar10_train_lmdb"
    batch_size: 111
    backend: LMDB
  }
}
layer {
  name: "ip1"
  type: "InnerProduct"
  bottom: "data"
  top: "ip1"
  param {
    lr_mult: 1
  }
  param {
    lr_mult: 2
  }
  inner_product_param {
    num_output: 160
    weight_filler {
      type: "gaussian"
      std: 0.01
    }
    bias_filler {
      type: "constant"
    }
  }
}
layer {
  name: "relu1"
  type: "ReLU"
  bottom: "ip1"
  top: "ip1"
}
layer {
  name: "ip2"
  type: "InnerProduct"
  bottom: "ip1"
  top: "ip2"
  param {
    lr_mult: 1
  }
  param {
    lr_mult: 2
  }
  inner_product_param {
    num_output: 160
    weight_filler {
      type: "gaussian"
      std: 0.01
    }
    bias_filler {
      type: "constant"
    }
  }
}
layer {
  name: "relu2"
  type: "ReLU"
  bottom: "ip2"
  top: "ip2"
}
layer {
  name: "ip3"
  type: "InnerProduct"
  bottom: "ip2"
  top: "ip3"
  param {
    lr_mult: 1
  }
  param {
    lr_mult: 2
  }
  inner_product_param {
    num_output: 160
    weight_filler {
      type: "gaussian"
      std: 0.01
    }
    bias_filler {
      type: "constant"
    }
  }
}
layer {
  name: "relu3"
  type: "ReLU"
  bottom: "ip3"
  top: "ip3"
}
layer {
  name: "ip4"
  type: "InnerProduct"
  bottom: "ip3"
  top: "ip4"
  param {
    lr_mult: 1
  }
  param {
    lr_mult: 2
  }
  inner_product_param {
    num_output: 10
    weight_filler {
      type: "gaussian"
      std: 0.01
    }
    bias_filler {
      type: "constant"
    }
  }
}
layer {
  name: "loss"
  type: "SoftmaxWithLoss"
  bottom: "ip4"
  bottom: "label"
  top: "loss"
}
I0430 21:12:37.311903 30285 layer_factory.hpp:77] Creating layer cifar
I0430 21:12:37.311998 30285 db_lmdb.cpp:35] Opened lmdb examples/cifar10/cifar10_train_lmdb
I0430 21:12:37.312024 30285 net.cpp:86] Creating Layer cifar
I0430 21:12:37.312034 30285 net.cpp:382] cifar -> data
I0430 21:12:37.312057 30285 net.cpp:382] cifar -> label
I0430 21:12:37.312067 30285 data_transformer.cpp:25] Loading mean file from: examples/cifar10/mean.binaryproto
I0430 21:12:37.314189 30285 data_layer.cpp:45] output data size: 111,3,32,32
I0430 21:12:37.322057 30285 net.cpp:124] Setting up cifar
I0430 21:12:37.322075 30285 net.cpp:131] Top shape: 111 3 32 32 (340992)
I0430 21:12:37.322082 30285 net.cpp:131] Top shape: 111 (111)
I0430 21:12:37.322087 30285 net.cpp:139] Memory required for data: 1364412
I0430 21:12:37.322093 30285 layer_factory.hpp:77] Creating layer ip1
I0430 21:12:37.322106 30285 net.cpp:86] Creating Layer ip1
I0430 21:12:37.322111 30285 net.cpp:408] ip1 <- data
I0430 21:12:37.322123 30285 net.cpp:382] ip1 -> ip1
I0430 21:12:37.339438 30285 net.cpp:124] Setting up ip1
I0430 21:12:37.339455 30285 net.cpp:131] Top shape: 111 160 (17760)
I0430 21:12:37.339459 30285 net.cpp:139] Memory required for data: 1435452
I0430 21:12:37.339473 30285 layer_factory.hpp:77] Creating layer relu1
I0430 21:12:37.339501 30285 net.cpp:86] Creating Layer relu1
I0430 21:12:37.339505 30285 net.cpp:408] relu1 <- ip1
I0430 21:12:37.339511 30285 net.cpp:369] relu1 -> ip1 (in-place)
I0430 21:12:37.607383 30285 net.cpp:124] Setting up relu1
I0430 21:12:37.607426 30285 net.cpp:131] Top shape: 111 160 (17760)
I0430 21:12:37.607430 30285 net.cpp:139] Memory required for data: 1506492
I0430 21:12:37.607450 30285 layer_factory.hpp:77] Creating layer ip2
I0430 21:12:37.607463 30285 net.cpp:86] Creating Layer ip2
I0430 21:12:37.607482 30285 net.cpp:408] ip2 <- ip1
I0430 21:12:37.607491 30285 net.cpp:382] ip2 -> ip2
I0430 21:12:37.609125 30285 net.cpp:124] Setting up ip2
I0430 21:12:37.609153 30285 net.cpp:131] Top shape: 111 160 (17760)
I0430 21:12:37.609155 30285 net.cpp:139] Memory required for data: 1577532
I0430 21:12:37.609176 30285 layer_factory.hpp:77] Creating layer relu2
I0430 21:12:37.609194 30285 net.cpp:86] Creating Layer relu2
I0430 21:12:37.609201 30285 net.cpp:408] relu2 <- ip2
I0430 21:12:37.609205 30285 net.cpp:369] relu2 -> ip2 (in-place)
I0430 21:12:37.609930 30285 net.cpp:124] Setting up relu2
I0430 21:12:37.609941 30285 net.cpp:131] Top shape: 111 160 (17760)
I0430 21:12:37.609961 30285 net.cpp:139] Memory required for data: 1648572
I0430 21:12:37.609963 30285 layer_factory.hpp:77] Creating layer ip3
I0430 21:12:37.609971 30285 net.cpp:86] Creating Layer ip3
I0430 21:12:37.609973 30285 net.cpp:408] ip3 <- ip2
I0430 21:12:37.609978 30285 net.cpp:382] ip3 -> ip3
I0430 21:12:37.610729 30285 net.cpp:124] Setting up ip3
I0430 21:12:37.610738 30285 net.cpp:131] Top shape: 111 160 (17760)
I0430 21:12:37.610739 30285 net.cpp:139] Memory required for data: 1719612
I0430 21:12:37.610746 30285 layer_factory.hpp:77] Creating layer relu3
I0430 21:12:37.610751 30285 net.cpp:86] Creating Layer relu3
I0430 21:12:37.610754 30285 net.cpp:408] relu3 <- ip3
I0430 21:12:37.610757 30285 net.cpp:369] relu3 -> ip3 (in-place)
I0430 21:12:37.610908 30285 net.cpp:124] Setting up relu3
I0430 21:12:37.610915 30285 net.cpp:131] Top shape: 111 160 (17760)
I0430 21:12:37.610918 30285 net.cpp:139] Memory required for data: 1790652
I0430 21:12:37.610921 30285 layer_factory.hpp:77] Creating layer ip4
I0430 21:12:37.610927 30285 net.cpp:86] Creating Layer ip4
I0430 21:12:37.610930 30285 net.cpp:408] ip4 <- ip3
I0430 21:12:37.610935 30285 net.cpp:382] ip4 -> ip4
I0430 21:12:37.611060 30285 net.cpp:124] Setting up ip4
I0430 21:12:37.611066 30285 net.cpp:131] Top shape: 111 10 (1110)
I0430 21:12:37.611069 30285 net.cpp:139] Memory required for data: 1795092
I0430 21:12:37.611074 30285 layer_factory.hpp:77] Creating layer loss
I0430 21:12:37.611080 30285 net.cpp:86] Creating Layer loss
I0430 21:12:37.611083 30285 net.cpp:408] loss <- ip4
I0430 21:12:37.611086 30285 net.cpp:408] loss <- label
I0430 21:12:37.611093 30285 net.cpp:382] loss -> loss
I0430 21:12:37.611109 30285 layer_factory.hpp:77] Creating layer loss
…
I0430 21:12:37.611646 30285 solver.cpp:173] Creating test net (#0) specified by net file: ECE595/cifar/train_test/var_everything/cifar_train_test_154.prototxt
I0430 21:12:37.611714 30285 net.cpp:296] The NetState phase (1) differed from the phase (0) specified by a rule in layer cifar
I0430 21:12:37.611789 30285 net.cpp:53] Initializing net from parameters: 
name: "CIFAR"
state {
  phase: TEST
}
layer {
  name: "cifar"
  type: "Data"
  top: "data"
  top: "label"
  include {
    phase: TEST
  }
  transform_param {
    mean_file: "examples/cifar10/mean.binaryproto"
  }
  data_param {
    source: "examples/cifar10/cifar10_test_lmdb"
    batch_size: 1000
    backend: LMDB
  }
}
layer {
  name: "ip1"
  type: "InnerProduct"
  bottom: "data"
  top: "ip1"
  param {
    lr_mult: 1
  }
  param {
    lr_mult: 2
  }
  inner_product_param {
    num_output: 160
    weight_filler {
      type: "gaussian"
      std: 0.01
    }
    bias_filler {
      type: "constant"
    }
  }
}
layer {
  name: "relu1"
  type: "ReLU"
  bottom: "ip1"
  top: "ip1"
}
layer {
  name: "ip2"
  type: "InnerProduct"
  bottom: "ip1"
  top: "ip2"
  param {
    lr_mult: 1
  }
  param {
    lr_mult: 2
  }
  inner_product_param {
    num_output: 160
    weight_filler {
      type: "gaussian"
      std: 0.01
    }
    bias_filler {
      type: "constant"
    }
  }
}
layer {
  name: "relu2"
  type: "ReLU"
  bottom: "ip2"
  top: "ip2"
}
layer {
  name: "ip3"
  type: "InnerProduct"
  bottom: "ip2"
  top: "ip3"
  param {
    lr_mult: 1
  }
  param {
    lr_mult: 2
  }
  inner_product_param {
    num_output: 160
    weight_filler {
      type: "gaussian"
      std: 0.01
    }
    bias_filler {
      type: "constant"
    }
  }
}
layer {
  name: "relu3"
  type: "ReLU"
  bottom: "ip3"
  top: "ip3"
}
layer {
  name: "ip4"
  type: "InnerProduct"
  bottom: "ip3"
  top: "ip4"
  param {
    lr_mult: 1
  }
  param {
    lr_mult: 2
  }
  inner_product_param {
    num_output: 10
    weight_filler {
      type: "gaussian"
      std: 0.01
    }
    bias_filler {
      type: "constant"
    }
  }
}
layer {
  name: "accuracy"
  type: "Accuracy"
  bottom: "ip4"
  bottom: "label"
  top: "accuracy"
  include {
    phase: TEST
  }
}
layer {
  name: "loss"
  type: "SoftmaxWithLoss"
  bottom: "ip4"
  bottom: "label"
  top: "loss"
}
I0430 21:12:37.611860 30285 layer_factory.hpp:77] Creating layer cifar
I0430 21:12:37.611902 30285 db_lmdb.cpp:35] Opened lmdb examples/cifar10/cifar10_test_lmdb
I0430 21:12:37.611913 30285 net.cpp:86] Creating Layer cifar
I0430 21:12:37.611918 30285 net.cpp:382] cifar -> data
I0430 21:12:37.611925 30285 net.cpp:382] cifar -> label
I0430 21:12:37.611932 30285 data_transformer.cpp:25] Loading mean file from: examples/cifar10/mean.binaryproto
I0430 21:12:37.612062 30285 data_layer.cpp:45] output data size: 1000,3,32,32
I0430 21:12:37.634117 30285 net.cpp:124] Setting up cifar
I0430 21:12:37.634160 30285 net.cpp:131] Top shape: 1000 3 32 32 (3072000)
I0430 21:12:37.634166 30285 net.cpp:131] Top shape: 1000 (1000)
I0430 21:12:37.634168 30285 net.cpp:139] Memory required for data: 12292000
I0430 21:12:37.634174 30285 layer_factory.hpp:77] Creating layer label_cifar_1_split
I0430 21:12:37.634191 30285 net.cpp:86] Creating Layer label_cifar_1_split
I0430 21:12:37.634194 30285 net.cpp:408] label_cifar_1_split <- label
I0430 21:12:37.634201 30285 net.cpp:382] label_cifar_1_split -> label_cifar_1_split_0
I0430 21:12:37.634208 30285 net.cpp:382] label_cifar_1_split -> label_cifar_1_split_1
I0430 21:12:37.634304 30285 net.cpp:124] Setting up label_cifar_1_split
I0430 21:12:37.634311 30285 net.cpp:131] Top shape: 1000 (1000)
I0430 21:12:37.634315 30285 net.cpp:131] Top shape: 1000 (1000)
I0430 21:12:37.634317 30285 net.cpp:139] Memory required for data: 12300000
I0430 21:12:37.634320 30285 layer_factory.hpp:77] Creating layer ip1
I0430 21:12:37.634330 30285 net.cpp:86] Creating Layer ip1
I0430 21:12:37.634335 30285 net.cpp:408] ip1 <- data
I0430 21:12:37.634356 30285 net.cpp:382] ip1 -> ip1
I0430 21:12:37.648177 30285 net.cpp:124] Setting up ip1
I0430 21:12:37.648205 30285 net.cpp:131] Top shape: 1000 160 (160000)
I0430 21:12:37.648210 30285 net.cpp:139] Memory required for data: 12940000
I0430 21:12:37.648234 30285 layer_factory.hpp:77] Creating layer relu1
I0430 21:12:37.648241 30285 net.cpp:86] Creating Layer relu1
I0430 21:12:37.648246 30285 net.cpp:408] relu1 <- ip1
I0430 21:12:37.648249 30285 net.cpp:369] relu1 -> ip1 (in-place)
I0430 21:12:37.649173 30285 net.cpp:124] Setting up relu1
I0430 21:12:37.649185 30285 net.cpp:131] Top shape: 1000 160 (160000)
I0430 21:12:37.649204 30285 net.cpp:139] Memory required for data: 13580000
I0430 21:12:37.649207 30285 layer_factory.hpp:77] Creating layer ip2
I0430 21:12:37.649215 30285 net.cpp:86] Creating Layer ip2
I0430 21:12:37.649219 30285 net.cpp:408] ip2 <- ip1
I0430 21:12:37.649225 30285 net.cpp:382] ip2 -> ip2
I0430 21:12:37.650025 30285 net.cpp:124] Setting up ip2
I0430 21:12:37.650032 30285 net.cpp:131] Top shape: 1000 160 (160000)
I0430 21:12:37.650051 30285 net.cpp:139] Memory required for data: 14220000
I0430 21:12:37.650058 30285 layer_factory.hpp:77] Creating layer relu2
I0430 21:12:37.650063 30285 net.cpp:86] Creating Layer relu2
I0430 21:12:37.650066 30285 net.cpp:408] relu2 <- ip2
I0430 21:12:37.650070 30285 net.cpp:369] relu2 -> ip2 (in-place)
I0430 21:12:37.650240 30285 net.cpp:124] Setting up relu2
I0430 21:12:37.650249 30285 net.cpp:131] Top shape: 1000 160 (160000)
I0430 21:12:37.650251 30285 net.cpp:139] Memory required for data: 14860000
I0430 21:12:37.650254 30285 layer_factory.hpp:77] Creating layer ip3
I0430 21:12:37.650260 30285 net.cpp:86] Creating Layer ip3
I0430 21:12:37.650265 30285 net.cpp:408] ip3 <- ip2
I0430 21:12:37.650270 30285 net.cpp:382] ip3 -> ip3
I0430 21:12:37.651046 30285 net.cpp:124] Setting up ip3
I0430 21:12:37.651053 30285 net.cpp:131] Top shape: 1000 160 (160000)
I0430 21:12:37.651072 30285 net.cpp:139] Memory required for data: 15500000
I0430 21:12:37.651078 30285 layer_factory.hpp:77] Creating layer relu3
I0430 21:12:37.651083 30285 net.cpp:86] Creating Layer relu3
I0430 21:12:37.651085 30285 net.cpp:408] relu3 <- ip3
I0430 21:12:37.651090 30285 net.cpp:369] relu3 -> ip3 (in-place)
I0430 21:12:37.651262 30285 net.cpp:124] Setting up relu3
I0430 21:12:37.651269 30285 net.cpp:131] Top shape: 1000 160 (160000)
I0430 21:12:37.651273 30285 net.cpp:139] Memory required for data: 16140000
I0430 21:12:37.651275 30285 layer_factory.hpp:77] Creating layer ip4
I0430 21:12:37.651283 30285 net.cpp:86] Creating Layer ip4
I0430 21:12:37.651285 30285 net.cpp:408] ip4 <- ip3
I0430 21:12:37.651291 30285 net.cpp:382] ip4 -> ip4
I0430 21:12:37.651425 30285 net.cpp:124] Setting up ip4
I0430 21:12:37.651432 30285 net.cpp:131] Top shape: 1000 10 (10000)
I0430 21:12:37.651435 30285 net.cpp:139] Memory required for data: 16180000
I0430 21:12:37.651440 30285 layer_factory.hpp:77] Creating layer ip4_ip4_0_split
I0430 21:12:37.651445 30285 net.cpp:86] Creating Layer ip4_ip4_0_split
I0430 21:12:37.651448 30285 net.cpp:408] ip4_ip4_0_split <- ip4
I0430 21:12:37.651453 30285 net.cpp:382] ip4_ip4_0_split -> ip4_ip4_0_split_0
I0430 21:12:37.651458 30285 net.cpp:382] ip4_ip4_0_split -> ip4_ip4_0_split_1
I0430 21:12:37.651513 30285 net.cpp:124] Setting up ip4_ip4_0_split
I0430 21:12:37.651518 30285 net.cpp:131] Top shape: 1000 10 (10000)
I0430 21:12:37.651522 30285 net.cpp:131] Top shape: 1000 10 (10000)
I0430 21:12:37.651526 30285 net.cpp:139] Memory required for data: 16260000
I0430 21:12:37.651530 30285 layer_factory.hpp:77] Creating layer accuracy
I0430 21:12:37.651535 30285 net.cpp:86] Creating Layer accuracy
I0430 21:12:37.651537 30285 net.cpp:408] accuracy <- ip4_ip4_0_split_0
I0430 21:12:37.651541 30285 net.cpp:408] accuracy <- label_cifar_1_split_0
I0430 21:12:37.651546 30285 net.cpp:382] accuracy -> accuracy
…
