…
I0501 03:15:57.496476 19824 net.cpp:296] The NetState phase (0) differed from the phase (1) specified by a rule in layer cifar
I0501 03:15:57.496495 19824 net.cpp:296] The NetState phase (0) differed from the phase (1) specified by a rule in layer accuracy
I0501 03:15:57.496608 19824 net.cpp:53] Initializing net from parameters: 
name: "CIFAR"
state {
  phase: TRAIN
  level: 0
  stage: ""
}
layer {
  name: "cifar"
  type: "Data"
  top: "data"
  top: "label"
  include {
    phase: TRAIN
  }
  transform_param {
    mean_file: "examples/cifar10/mean.binaryproto"
  }
  data_param {
    source: "examples/cifar10/cifar10_train_lmdb"
    batch_size: 111
    backend: LMDB
  }
}
layer {
  name: "conv0"
  type: "Convolution"
  bottom: "data"
  top: "conv0"
  param {
    lr_mult: 1
  }
  param {
    lr_mult: 2
  }
  convolution_param {
    num_output: 8
    pad: 2
    kernel_size: 5
    stride: 1
    weight_filler {
      type: "gaussian"
      std: 0.01
    }
    bias_filler {
      type: "constant"
    }
  }
}
layer {
  name: "Sigmoid0"
  type: "Sigmoid"
  bottom: "conv0"
  top: "Sigmoid0"
}
layer {
  name: "pool0"
  type: "Pooling"
  bottom: "Sigmoid0"
  top: "pool0"
  pooling_param {
    pool: AVE
    kernel_size: 3
    stride: 2
  }
}
layer {
  name: "ip1"
  type: "InnerProduct"
  bottom: "pool0"
  top: "ip1"
  param {
    lr_mult: 1
  }
  param {
    lr_mult: 2
  }
  inner_product_param {
    num_output: 10
    weight_filler {
      type: "gaussian"
      std: 0.01
    }
    bias_filler {
      type: "constant"
    }
  }
}
layer {
  name: "relu1"
  type: "ReLU"
  bottom: "ip1"
  top: "ip1"
}
layer {
  name: "ip2"
  type: "InnerProduct"
  bottom: "ip1"
  top: "ip2"
  param {
    lr_mult: 1
  }
  param {
    lr_mult: 2
  }
  inner_product_param {
    num_output: 20
    weight_filler {
      type: "gaussian"
      std: 0.01
    }
    bias_filler {
      type: "constant"
    }
  }
}
layer {
  name: "relu2"
  type: "ReLU"
  bottom: "ip2"
  top: "ip2"
}
layer {
  name: "ip3"
  type: "InnerProduct"
  bottom: "ip2"
  top: "ip3"
  param {
    lr_mult: 1
  }
  param {
    lr_mult: 2
  }
  inner_product_param {
    num_output: 80
    weight_filler {
      type: "gaussian"
      std: 0.01
    }
    bias_filler {
      type: "constant"
    }
  }
}
layer {
  name: "relu3"
  type: "ReLU"
  bottom: "ip3"
  top: "ip3"
}
layer {
  name: "ip4"
  type: "InnerProduct"
  bottom: "ip3"
  top: "ip4"
  param {
    lr_mult: 1
  }
  param {
    lr_mult: 2
  }
  inner_product_param {
    num_output: 10
    weight_filler {
      type: "gaussian"
      std: 0.01
    }
    bias_filler {
      type: "constant"
    }
  }
}
layer {
  name: "loss"
  type: "SoftmaxWithLoss"
  bottom: "ip4"
  bottom: "label"
  top: "loss"
}
I0501 03:15:57.496688 19824 layer_factory.hpp:77] Creating layer cifar
I0501 03:15:57.496785 19824 db_lmdb.cpp:35] Opened lmdb examples/cifar10/cifar10_train_lmdb
I0501 03:15:57.496819 19824 net.cpp:86] Creating Layer cifar
I0501 03:15:57.496840 19824 net.cpp:382] cifar -> data
I0501 03:15:57.496861 19824 net.cpp:382] cifar -> label
I0501 03:15:57.496877 19824 data_transformer.cpp:25] Loading mean file from: examples/cifar10/mean.binaryproto
I0501 03:15:57.498997 19824 data_layer.cpp:45] output data size: 111,3,32,32
I0501 03:15:57.506878 19824 net.cpp:124] Setting up cifar
I0501 03:15:57.506897 19824 net.cpp:131] Top shape: 111 3 32 32 (340992)
I0501 03:15:57.506903 19824 net.cpp:131] Top shape: 111 (111)
I0501 03:15:57.506907 19824 net.cpp:139] Memory required for data: 1364412
I0501 03:15:57.506932 19824 layer_factory.hpp:77] Creating layer conv0
I0501 03:15:57.506950 19824 net.cpp:86] Creating Layer conv0
I0501 03:15:57.506958 19824 net.cpp:408] conv0 <- data
I0501 03:15:57.506970 19824 net.cpp:382] conv0 -> conv0
I0501 03:15:57.799078 19824 net.cpp:124] Setting up conv0
I0501 03:15:57.799110 19824 net.cpp:131] Top shape: 111 8 32 32 (909312)
I0501 03:15:57.799118 19824 net.cpp:139] Memory required for data: 5001660
I0501 03:15:57.799136 19824 layer_factory.hpp:77] Creating layer Sigmoid0
I0501 03:15:57.799149 19824 net.cpp:86] Creating Layer Sigmoid0
I0501 03:15:57.799154 19824 net.cpp:408] Sigmoid0 <- conv0
I0501 03:15:57.799160 19824 net.cpp:382] Sigmoid0 -> Sigmoid0
I0501 03:15:57.799367 19824 net.cpp:124] Setting up Sigmoid0
I0501 03:15:57.799379 19824 net.cpp:131] Top shape: 111 8 32 32 (909312)
I0501 03:15:57.799383 19824 net.cpp:139] Memory required for data: 8638908
I0501 03:15:57.799387 19824 layer_factory.hpp:77] Creating layer pool0
I0501 03:15:57.799396 19824 net.cpp:86] Creating Layer pool0
I0501 03:15:57.799399 19824 net.cpp:408] pool0 <- Sigmoid0
I0501 03:15:57.799405 19824 net.cpp:382] pool0 -> pool0
I0501 03:15:57.800297 19824 net.cpp:124] Setting up pool0
I0501 03:15:57.800313 19824 net.cpp:131] Top shape: 111 8 16 16 (227328)
I0501 03:15:57.800318 19824 net.cpp:139] Memory required for data: 9548220
I0501 03:15:57.800323 19824 layer_factory.hpp:77] Creating layer ip1
I0501 03:15:57.800334 19824 net.cpp:86] Creating Layer ip1
I0501 03:15:57.800338 19824 net.cpp:408] ip1 <- pool0
I0501 03:15:57.800345 19824 net.cpp:382] ip1 -> ip1
I0501 03:15:57.802145 19824 net.cpp:124] Setting up ip1
I0501 03:15:57.802160 19824 net.cpp:131] Top shape: 111 10 (1110)
I0501 03:15:57.802165 19824 net.cpp:139] Memory required for data: 9552660
I0501 03:15:57.802175 19824 layer_factory.hpp:77] Creating layer relu1
I0501 03:15:57.802183 19824 net.cpp:86] Creating Layer relu1
I0501 03:15:57.802187 19824 net.cpp:408] relu1 <- ip1
I0501 03:15:57.802193 19824 net.cpp:369] relu1 -> ip1 (in-place)
I0501 03:15:57.802382 19824 net.cpp:124] Setting up relu1
I0501 03:15:57.802392 19824 net.cpp:131] Top shape: 111 10 (1110)
I0501 03:15:57.802397 19824 net.cpp:139] Memory required for data: 9557100
I0501 03:15:57.802400 19824 layer_factory.hpp:77] Creating layer ip2
I0501 03:15:57.802408 19824 net.cpp:86] Creating Layer ip2
I0501 03:15:57.802412 19824 net.cpp:408] ip2 <- ip1
I0501 03:15:57.802418 19824 net.cpp:382] ip2 -> ip2
I0501 03:15:57.802536 19824 net.cpp:124] Setting up ip2
I0501 03:15:57.802544 19824 net.cpp:131] Top shape: 111 20 (2220)
I0501 03:15:57.802547 19824 net.cpp:139] Memory required for data: 9565980
I0501 03:15:57.802556 19824 layer_factory.hpp:77] Creating layer relu2
I0501 03:15:57.802562 19824 net.cpp:86] Creating Layer relu2
I0501 03:15:57.802567 19824 net.cpp:408] relu2 <- ip2
I0501 03:15:57.802572 19824 net.cpp:369] relu2 -> ip2 (in-place)
I0501 03:15:57.802752 19824 net.cpp:124] Setting up relu2
I0501 03:15:57.802762 19824 net.cpp:131] Top shape: 111 20 (2220)
I0501 03:15:57.802767 19824 net.cpp:139] Memory required for data: 9574860
I0501 03:15:57.802769 19824 layer_factory.hpp:77] Creating layer ip3
I0501 03:15:57.802778 19824 net.cpp:86] Creating Layer ip3
I0501 03:15:57.802783 19824 net.cpp:408] ip3 <- ip2
I0501 03:15:57.802788 19824 net.cpp:382] ip3 -> ip3
I0501 03:15:57.802950 19824 net.cpp:124] Setting up ip3
I0501 03:15:57.802959 19824 net.cpp:131] Top shape: 111 80 (8880)
I0501 03:15:57.802963 19824 net.cpp:139] Memory required for data: 9610380
I0501 03:15:57.802969 19824 layer_factory.hpp:77] Creating layer relu3
I0501 03:15:57.802975 19824 net.cpp:86] Creating Layer relu3
I0501 03:15:57.802979 19824 net.cpp:408] relu3 <- ip3
I0501 03:15:57.802983 19824 net.cpp:369] relu3 -> ip3 (in-place)
I0501 03:15:57.803158 19824 net.cpp:124] Setting up relu3
I0501 03:15:57.803166 19824 net.cpp:131] Top shape: 111 80 (8880)
I0501 03:15:57.803170 19824 net.cpp:139] Memory required for data: 9645900
I0501 03:15:57.803174 19824 layer_factory.hpp:77] Creating layer ip4
I0501 03:15:57.803198 19824 net.cpp:86] Creating Layer ip4
I0501 03:15:57.803202 19824 net.cpp:408] ip4 <- ip3
I0501 03:15:57.803208 19824 net.cpp:382] ip4 -> ip4
I0501 03:15:57.803344 19824 net.cpp:124] Setting up ip4
I0501 03:15:57.803354 19824 net.cpp:131] Top shape: 111 10 (1110)
I0501 03:15:57.803357 19824 net.cpp:139] Memory required for data: 9650340
I0501 03:15:57.803367 19824 layer_factory.hpp:77] Creating layer loss
I0501 03:15:57.803373 19824 net.cpp:86] Creating Layer loss
I0501 03:15:57.803377 19824 net.cpp:408] loss <- ip4
I0501 03:15:57.803382 19824 net.cpp:408] loss <- label
I0501 03:15:57.803388 19824 net.cpp:382] loss -> loss
I0501 03:15:57.803406 19824 layer_factory.hpp:77] Creating layer loss
…
I0501 03:15:57.804858 19824 solver.cpp:173] Creating test net (#0) specified by net file: ECE595/cifar/train_test/var_everything/cifar_train_test_348.prototxt
I0501 03:15:57.804893 19824 net.cpp:296] The NetState phase (1) differed from the phase (0) specified by a rule in layer cifar
I0501 03:15:57.805003 19824 net.cpp:53] Initializing net from parameters: 
name: "CIFAR"
state {
  phase: TEST
}
layer {
  name: "cifar"
  type: "Data"
  top: "data"
  top: "label"
  include {
    phase: TEST
  }
  transform_param {
    mean_file: "examples/cifar10/mean.binaryproto"
  }
  data_param {
    source: "examples/cifar10/cifar10_test_lmdb"
    batch_size: 1000
    backend: LMDB
  }
}
layer {
  name: "conv0"
  type: "Convolution"
  bottom: "data"
  top: "conv0"
  param {
    lr_mult: 1
  }
  param {
    lr_mult: 2
  }
  convolution_param {
    num_output: 8
    pad: 2
    kernel_size: 5
    stride: 1
    weight_filler {
      type: "gaussian"
      std: 0.01
    }
    bias_filler {
      type: "constant"
    }
  }
}
layer {
  name: "Sigmoid0"
  type: "Sigmoid"
  bottom: "conv0"
  top: "Sigmoid0"
}
layer {
  name: "pool0"
  type: "Pooling"
  bottom: "Sigmoid0"
  top: "pool0"
  pooling_param {
    pool: AVE
    kernel_size: 3
    stride: 2
  }
}
layer {
  name: "ip1"
  type: "InnerProduct"
  bottom: "pool0"
  top: "ip1"
  param {
    lr_mult: 1
  }
  param {
    lr_mult: 2
  }
  inner_product_param {
    num_output: 10
    weight_filler {
      type: "gaussian"
      std: 0.01
    }
    bias_filler {
      type: "constant"
    }
  }
}
layer {
  name: "relu1"
  type: "ReLU"
  bottom: "ip1"
  top: "ip1"
}
layer {
  name: "ip2"
  type: "InnerProduct"
  bottom: "ip1"
  top: "ip2"
  param {
    lr_mult: 1
  }
  param {
    lr_mult: 2
  }
  inner_product_param {
    num_output: 20
    weight_filler {
      type: "gaussian"
      std: 0.01
    }
    bias_filler {
      type: "constant"
    }
  }
}
layer {
  name: "relu2"
  type: "ReLU"
  bottom: "ip2"
  top: "ip2"
}
layer {
  name: "ip3"
  type: "InnerProduct"
  bottom: "ip2"
  top: "ip3"
  param {
    lr_mult: 1
  }
  param {
    lr_mult: 2
  }
  inner_product_param {
    num_output: 80
    weight_filler {
      type: "gaussian"
      std: 0.01
    }
    bias_filler {
      type: "constant"
    }
  }
}
layer {
  name: "relu3"
  type: "ReLU"
  bottom: "ip3"
  top: "ip3"
}
layer {
  name: "ip4"
  type: "InnerProduct"
  bottom: "ip3"
  top: "ip4"
  param {
    lr_mult: 1
  }
  param {
    lr_mult: 2
  }
  inner_product_param {
    num_output: 10
    weight_filler {
      type: "gaussian"
      std: 0.01
    }
    bias_filler {
      type: "constant"
    }
  }
}
layer {
  name: "accuracy"
  type: "Accuracy"
  bottom: "ip4"
  bottom: "label"
  top: "accuracy"
  include {
    phase: TEST
  }
}
layer {
  name: "loss"
  type: "SoftmaxWithLoss"
  bottom: "ip4"
  bottom: "label"
  top: "loss"
}
I0501 03:15:57.805099 19824 layer_factory.hpp:77] Creating layer cifar
I0501 03:15:57.805155 19824 db_lmdb.cpp:35] Opened lmdb examples/cifar10/cifar10_test_lmdb
I0501 03:15:57.805171 19824 net.cpp:86] Creating Layer cifar
I0501 03:15:57.805176 19824 net.cpp:382] cifar -> data
I0501 03:15:57.805186 19824 net.cpp:382] cifar -> label
I0501 03:15:57.805193 19824 data_transformer.cpp:25] Loading mean file from: examples/cifar10/mean.binaryproto
I0501 03:15:57.805366 19824 data_layer.cpp:45] output data size: 1000,3,32,32
I0501 03:15:57.831274 19824 net.cpp:124] Setting up cifar
I0501 03:15:57.831303 19824 net.cpp:131] Top shape: 1000 3 32 32 (3072000)
I0501 03:15:57.831310 19824 net.cpp:131] Top shape: 1000 (1000)
I0501 03:15:57.831313 19824 net.cpp:139] Memory required for data: 12292000
I0501 03:15:57.831318 19824 layer_factory.hpp:77] Creating layer label_cifar_1_split
I0501 03:15:57.831331 19824 net.cpp:86] Creating Layer label_cifar_1_split
I0501 03:15:57.831336 19824 net.cpp:408] label_cifar_1_split <- label
I0501 03:15:57.831341 19824 net.cpp:382] label_cifar_1_split -> label_cifar_1_split_0
I0501 03:15:57.831351 19824 net.cpp:382] label_cifar_1_split -> label_cifar_1_split_1
I0501 03:15:57.831460 19824 net.cpp:124] Setting up label_cifar_1_split
I0501 03:15:57.831470 19824 net.cpp:131] Top shape: 1000 (1000)
I0501 03:15:57.831473 19824 net.cpp:131] Top shape: 1000 (1000)
I0501 03:15:57.831475 19824 net.cpp:139] Memory required for data: 12300000
I0501 03:15:57.831480 19824 layer_factory.hpp:77] Creating layer conv0
I0501 03:15:57.831491 19824 net.cpp:86] Creating Layer conv0
I0501 03:15:57.831495 19824 net.cpp:408] conv0 <- data
I0501 03:15:57.831501 19824 net.cpp:382] conv0 -> conv0
I0501 03:15:57.833155 19824 net.cpp:124] Setting up conv0
I0501 03:15:57.833169 19824 net.cpp:131] Top shape: 1000 8 32 32 (8192000)
I0501 03:15:57.833173 19824 net.cpp:139] Memory required for data: 45068000
I0501 03:15:57.833183 19824 layer_factory.hpp:77] Creating layer Sigmoid0
I0501 03:15:57.833189 19824 net.cpp:86] Creating Layer Sigmoid0
I0501 03:15:57.833192 19824 net.cpp:408] Sigmoid0 <- conv0
I0501 03:15:57.833196 19824 net.cpp:382] Sigmoid0 -> Sigmoid0
I0501 03:15:57.833375 19824 net.cpp:124] Setting up Sigmoid0
I0501 03:15:57.833384 19824 net.cpp:131] Top shape: 1000 8 32 32 (8192000)
I0501 03:15:57.833389 19824 net.cpp:139] Memory required for data: 77836000
I0501 03:15:57.833391 19824 layer_factory.hpp:77] Creating layer pool0
I0501 03:15:57.833400 19824 net.cpp:86] Creating Layer pool0
I0501 03:15:57.833402 19824 net.cpp:408] pool0 <- Sigmoid0
I0501 03:15:57.833406 19824 net.cpp:382] pool0 -> pool0
I0501 03:15:57.833567 19824 net.cpp:124] Setting up pool0
I0501 03:15:57.833576 19824 net.cpp:131] Top shape: 1000 8 16 16 (2048000)
I0501 03:15:57.833580 19824 net.cpp:139] Memory required for data: 86028000
I0501 03:15:57.833583 19824 layer_factory.hpp:77] Creating layer ip1
I0501 03:15:57.833590 19824 net.cpp:86] Creating Layer ip1
I0501 03:15:57.833595 19824 net.cpp:408] ip1 <- pool0
I0501 03:15:57.833598 19824 net.cpp:382] ip1 -> ip1
I0501 03:15:57.834794 19824 net.cpp:124] Setting up ip1
I0501 03:15:57.834803 19824 net.cpp:131] Top shape: 1000 10 (10000)
I0501 03:15:57.834822 19824 net.cpp:139] Memory required for data: 86068000
I0501 03:15:57.834846 19824 layer_factory.hpp:77] Creating layer relu1
I0501 03:15:57.834854 19824 net.cpp:86] Creating Layer relu1
I0501 03:15:57.834873 19824 net.cpp:408] relu1 <- ip1
I0501 03:15:57.834878 19824 net.cpp:369] relu1 -> ip1 (in-place)
I0501 03:15:57.835067 19824 net.cpp:124] Setting up relu1
I0501 03:15:57.835077 19824 net.cpp:131] Top shape: 1000 10 (10000)
I0501 03:15:57.835079 19824 net.cpp:139] Memory required for data: 86108000
I0501 03:15:57.835083 19824 layer_factory.hpp:77] Creating layer ip2
I0501 03:15:57.835090 19824 net.cpp:86] Creating Layer ip2
I0501 03:15:57.835094 19824 net.cpp:408] ip2 <- ip1
I0501 03:15:57.835100 19824 net.cpp:382] ip2 -> ip2
I0501 03:15:57.835216 19824 net.cpp:124] Setting up ip2
I0501 03:15:57.835225 19824 net.cpp:131] Top shape: 1000 20 (20000)
I0501 03:15:57.835227 19824 net.cpp:139] Memory required for data: 86188000
I0501 03:15:57.835235 19824 layer_factory.hpp:77] Creating layer relu2
I0501 03:15:57.835240 19824 net.cpp:86] Creating Layer relu2
I0501 03:15:57.835243 19824 net.cpp:408] relu2 <- ip2
I0501 03:15:57.835247 19824 net.cpp:369] relu2 -> ip2 (in-place)
I0501 03:15:57.835991 19824 net.cpp:124] Setting up relu2
I0501 03:15:57.836004 19824 net.cpp:131] Top shape: 1000 20 (20000)
I0501 03:15:57.836007 19824 net.cpp:139] Memory required for data: 86268000
I0501 03:15:57.836010 19824 layer_factory.hpp:77] Creating layer ip3
I0501 03:15:57.836019 19824 net.cpp:86] Creating Layer ip3
I0501 03:15:57.836021 19824 net.cpp:408] ip3 <- ip2
I0501 03:15:57.836026 19824 net.cpp:382] ip3 -> ip3
I0501 03:15:57.836194 19824 net.cpp:124] Setting up ip3
I0501 03:15:57.836201 19824 net.cpp:131] Top shape: 1000 80 (80000)
I0501 03:15:57.836205 19824 net.cpp:139] Memory required for data: 86588000
I0501 03:15:57.836210 19824 layer_factory.hpp:77] Creating layer relu3
I0501 03:15:57.836215 19824 net.cpp:86] Creating Layer relu3
I0501 03:15:57.836218 19824 net.cpp:408] relu3 <- ip3
I0501 03:15:57.836222 19824 net.cpp:369] relu3 -> ip3 (in-place)
I0501 03:15:57.836380 19824 net.cpp:124] Setting up relu3
I0501 03:15:57.836390 19824 net.cpp:131] Top shape: 1000 80 (80000)
I0501 03:15:57.836392 19824 net.cpp:139] Memory required for data: 86908000
I0501 03:15:57.836395 19824 layer_factory.hpp:77] Creating layer ip4
I0501 03:15:57.836402 19824 net.cpp:86] Creating Layer ip4
I0501 03:15:57.836405 19824 net.cpp:408] ip4 <- ip3
I0501 03:15:57.836411 19824 net.cpp:382] ip4 -> ip4
I0501 03:15:57.836535 19824 net.cpp:124] Setting up ip4
I0501 03:15:57.836542 19824 net.cpp:131] Top shape: 1000 10 (10000)
I0501 03:15:57.836545 19824 net.cpp:139] Memory required for data: 86948000
I0501 03:15:57.836554 19824 layer_factory.hpp:77] Creating layer ip4_ip4_0_split
I0501 03:15:57.836558 19824 net.cpp:86] Creating Layer ip4_ip4_0_split
I0501 03:15:57.836561 19824 net.cpp:408] ip4_ip4_0_split <- ip4
I0501 03:15:57.836566 19824 net.cpp:382] ip4_ip4_0_split -> ip4_ip4_0_split_0
I0501 03:15:57.836571 19824 net.cpp:382] ip4_ip4_0_split -> ip4_ip4_0_split_1
I0501 03:15:57.836602 19824 net.cpp:124] Setting up ip4_ip4_0_split
I0501 03:15:57.836608 19824 net.cpp:131] Top shape: 1000 10 (10000)
I0501 03:15:57.836612 19824 net.cpp:131] Top shape: 1000 10 (10000)
I0501 03:15:57.836614 19824 net.cpp:139] Memory required for data: 87028000
I0501 03:15:57.836618 19824 layer_factory.hpp:77] Creating layer accuracy
I0501 03:15:57.836623 19824 net.cpp:86] Creating Layer accuracy
I0501 03:15:57.836627 19824 net.cpp:408] accuracy <- ip4_ip4_0_split_0
I0501 03:15:57.836630 19824 net.cpp:408] accuracy <- label_cifar_1_split_0
I0501 03:15:57.836634 19824 net.cpp:382] accuracy -> accuracy
…
