…
I0430 18:45:30.410223 24221 net.cpp:296] The NetState phase (0) differed from the phase (1) specified by a rule in layer cifar
I0430 18:45:30.410234 24221 net.cpp:296] The NetState phase (0) differed from the phase (1) specified by a rule in layer accuracy
I0430 18:45:30.410300 24221 net.cpp:53] Initializing net from parameters: 
name: "CIFAR"
state {
  phase: TRAIN
  level: 0
  stage: ""
}
layer {
  name: "cifar"
  type: "Data"
  top: "data"
  top: "label"
  include {
    phase: TRAIN
  }
  transform_param {
    mean_file: "examples/cifar10/mean.binaryproto"
  }
  data_param {
    source: "examples/cifar10/cifar10_train_lmdb"
    batch_size: 111
    backend: LMDB
  }
}
layer {
  name: "ip1"
  type: "InnerProduct"
  bottom: "data"
  top: "ip1"
  param {
    lr_mult: 1
  }
  param {
    lr_mult: 2
  }
  inner_product_param {
    num_output: 20
    weight_filler {
      type: "gaussian"
      std: 0.01
    }
    bias_filler {
      type: "constant"
    }
  }
}
layer {
  name: "relu1"
  type: "ReLU"
  bottom: "ip1"
  top: "ip1"
}
layer {
  name: "ip2"
  type: "InnerProduct"
  bottom: "ip1"
  top: "ip2"
  param {
    lr_mult: 1
  }
  param {
    lr_mult: 2
  }
  inner_product_param {
    num_output: 160
    weight_filler {
      type: "gaussian"
      std: 0.01
    }
    bias_filler {
      type: "constant"
    }
  }
}
layer {
  name: "relu2"
  type: "ReLU"
  bottom: "ip2"
  top: "ip2"
}
layer {
  name: "ip3"
  type: "InnerProduct"
  bottom: "ip2"
  top: "ip3"
  param {
    lr_mult: 1
  }
  param {
    lr_mult: 2
  }
  inner_product_param {
    num_output: 20
    weight_filler {
      type: "gaussian"
      std: 0.01
    }
    bias_filler {
      type: "constant"
    }
  }
}
layer {
  name: "relu3"
  type: "ReLU"
  bottom: "ip3"
  top: "ip3"
}
layer {
  name: "ip4"
  type: "InnerProduct"
  bottom: "ip3"
  top: "ip4"
  param {
    lr_mult: 1
  }
  param {
    lr_mult: 2
  }
  inner_product_param {
    num_output: 10
    weight_filler {
      type: "gaussian"
      std: 0.01
    }
    bias_filler {
      type: "constant"
    }
  }
}
layer {
  name: "loss"
  type: "SoftmaxWithLoss"
  bottom: "ip4"
  bottom: "label"
  top: "loss"
}
I0430 18:45:30.410356 24221 layer_factory.hpp:77] Creating layer cifar
I0430 18:45:30.410434 24221 db_lmdb.cpp:35] Opened lmdb examples/cifar10/cifar10_train_lmdb
I0430 18:45:30.410456 24221 net.cpp:86] Creating Layer cifar
I0430 18:45:30.410466 24221 net.cpp:382] cifar -> data
I0430 18:45:30.410485 24221 net.cpp:382] cifar -> label
I0430 18:45:30.410495 24221 data_transformer.cpp:25] Loading mean file from: examples/cifar10/mean.binaryproto
I0430 18:45:30.412236 24221 data_layer.cpp:45] output data size: 111,3,32,32
I0430 18:45:30.418831 24221 net.cpp:124] Setting up cifar
I0430 18:45:30.418846 24221 net.cpp:131] Top shape: 111 3 32 32 (340992)
I0430 18:45:30.418866 24221 net.cpp:131] Top shape: 111 (111)
I0430 18:45:30.418869 24221 net.cpp:139] Memory required for data: 1364412
I0430 18:45:30.418875 24221 layer_factory.hpp:77] Creating layer ip1
I0430 18:45:30.418887 24221 net.cpp:86] Creating Layer ip1
I0430 18:45:30.418892 24221 net.cpp:408] ip1 <- data
I0430 18:45:30.418901 24221 net.cpp:382] ip1 -> ip1
I0430 18:45:30.421569 24221 net.cpp:124] Setting up ip1
I0430 18:45:30.421586 24221 net.cpp:131] Top shape: 111 20 (2220)
I0430 18:45:30.421589 24221 net.cpp:139] Memory required for data: 1373292
I0430 18:45:30.421615 24221 layer_factory.hpp:77] Creating layer relu1
I0430 18:45:30.421623 24221 net.cpp:86] Creating Layer relu1
I0430 18:45:30.421639 24221 net.cpp:408] relu1 <- ip1
I0430 18:45:30.421644 24221 net.cpp:369] relu1 -> ip1 (in-place)
I0430 18:45:30.650507 24221 net.cpp:124] Setting up relu1
I0430 18:45:30.650535 24221 net.cpp:131] Top shape: 111 20 (2220)
I0430 18:45:30.650539 24221 net.cpp:139] Memory required for data: 1382172
I0430 18:45:30.650544 24221 layer_factory.hpp:77] Creating layer ip2
I0430 18:45:30.650557 24221 net.cpp:86] Creating Layer ip2
I0430 18:45:30.650560 24221 net.cpp:408] ip2 <- ip1
I0430 18:45:30.650568 24221 net.cpp:382] ip2 -> ip2
I0430 18:45:30.650789 24221 net.cpp:124] Setting up ip2
I0430 18:45:30.650796 24221 net.cpp:131] Top shape: 111 160 (17760)
I0430 18:45:30.650799 24221 net.cpp:139] Memory required for data: 1453212
I0430 18:45:30.650809 24221 layer_factory.hpp:77] Creating layer relu2
I0430 18:45:30.650815 24221 net.cpp:86] Creating Layer relu2
I0430 18:45:30.650818 24221 net.cpp:408] relu2 <- ip2
I0430 18:45:30.650838 24221 net.cpp:369] relu2 -> ip2 (in-place)
I0430 18:45:30.651687 24221 net.cpp:124] Setting up relu2
I0430 18:45:30.651700 24221 net.cpp:131] Top shape: 111 160 (17760)
I0430 18:45:30.651703 24221 net.cpp:139] Memory required for data: 1524252
I0430 18:45:30.651706 24221 layer_factory.hpp:77] Creating layer ip3
I0430 18:45:30.651713 24221 net.cpp:86] Creating Layer ip3
I0430 18:45:30.651716 24221 net.cpp:408] ip3 <- ip2
I0430 18:45:30.651721 24221 net.cpp:382] ip3 -> ip3
I0430 18:45:30.651903 24221 net.cpp:124] Setting up ip3
I0430 18:45:30.651911 24221 net.cpp:131] Top shape: 111 20 (2220)
I0430 18:45:30.651913 24221 net.cpp:139] Memory required for data: 1533132
I0430 18:45:30.651937 24221 layer_factory.hpp:77] Creating layer relu3
I0430 18:45:30.651942 24221 net.cpp:86] Creating Layer relu3
I0430 18:45:30.651944 24221 net.cpp:408] relu3 <- ip3
I0430 18:45:30.651948 24221 net.cpp:369] relu3 -> ip3 (in-place)
I0430 18:45:30.652091 24221 net.cpp:124] Setting up relu3
I0430 18:45:30.652097 24221 net.cpp:131] Top shape: 111 20 (2220)
I0430 18:45:30.652101 24221 net.cpp:139] Memory required for data: 1542012
I0430 18:45:30.652103 24221 layer_factory.hpp:77] Creating layer ip4
I0430 18:45:30.652109 24221 net.cpp:86] Creating Layer ip4
I0430 18:45:30.652112 24221 net.cpp:408] ip4 <- ip3
I0430 18:45:30.652117 24221 net.cpp:382] ip4 -> ip4
I0430 18:45:30.652212 24221 net.cpp:124] Setting up ip4
I0430 18:45:30.652218 24221 net.cpp:131] Top shape: 111 10 (1110)
I0430 18:45:30.652221 24221 net.cpp:139] Memory required for data: 1546452
I0430 18:45:30.652226 24221 layer_factory.hpp:77] Creating layer loss
I0430 18:45:30.652233 24221 net.cpp:86] Creating Layer loss
I0430 18:45:30.652236 24221 net.cpp:408] loss <- ip4
I0430 18:45:30.652240 24221 net.cpp:408] loss <- label
I0430 18:45:30.652259 24221 net.cpp:382] loss -> loss
I0430 18:45:30.652276 24221 layer_factory.hpp:77] Creating layer loss
…
I0430 18:45:30.652792 24221 solver.cpp:173] Creating test net (#0) specified by net file: ECE595/cifar/train_test/var_everything/cifar_train_test_76.prototxt
I0430 18:45:30.652853 24221 net.cpp:296] The NetState phase (1) differed from the phase (0) specified by a rule in layer cifar
I0430 18:45:30.652962 24221 net.cpp:53] Initializing net from parameters: 
name: "CIFAR"
state {
  phase: TEST
}
layer {
  name: "cifar"
  type: "Data"
  top: "data"
  top: "label"
  include {
    phase: TEST
  }
  transform_param {
    mean_file: "examples/cifar10/mean.binaryproto"
  }
  data_param {
    source: "examples/cifar10/cifar10_test_lmdb"
    batch_size: 1000
    backend: LMDB
  }
}
layer {
  name: "ip1"
  type: "InnerProduct"
  bottom: "data"
  top: "ip1"
  param {
    lr_mult: 1
  }
  param {
    lr_mult: 2
  }
  inner_product_param {
    num_output: 20
    weight_filler {
      type: "gaussian"
      std: 0.01
    }
    bias_filler {
      type: "constant"
    }
  }
}
layer {
  name: "relu1"
  type: "ReLU"
  bottom: "ip1"
  top: "ip1"
}
layer {
  name: "ip2"
  type: "InnerProduct"
  bottom: "ip1"
  top: "ip2"
  param {
    lr_mult: 1
  }
  param {
    lr_mult: 2
  }
  inner_product_param {
    num_output: 160
    weight_filler {
      type: "gaussian"
      std: 0.01
    }
    bias_filler {
      type: "constant"
    }
  }
}
layer {
  name: "relu2"
  type: "ReLU"
  bottom: "ip2"
  top: "ip2"
}
layer {
  name: "ip3"
  type: "InnerProduct"
  bottom: "ip2"
  top: "ip3"
  param {
    lr_mult: 1
  }
  param {
    lr_mult: 2
  }
  inner_product_param {
    num_output: 20
    weight_filler {
      type: "gaussian"
      std: 0.01
    }
    bias_filler {
      type: "constant"
    }
  }
}
layer {
  name: "relu3"
  type: "ReLU"
  bottom: "ip3"
  top: "ip3"
}
layer {
  name: "ip4"
  type: "InnerProduct"
  bottom: "ip3"
  top: "ip4"
  param {
    lr_mult: 1
  }
  param {
    lr_mult: 2
  }
  inner_product_param {
    num_output: 10
    weight_filler {
      type: "gaussian"
      std: 0.01
    }
    bias_filler {
      type: "constant"
    }
  }
}
layer {
  name: "accuracy"
  type: "Accuracy"
  bottom: "ip4"
  bottom: "label"
  top: "accuracy"
  include {
    phase: TEST
  }
}
layer {
  name: "loss"
  type: "SoftmaxWithLoss"
  bottom: "ip4"
  bottom: "label"
  top: "loss"
}
I0430 18:45:30.653040 24221 layer_factory.hpp:77] Creating layer cifar
I0430 18:45:30.653089 24221 db_lmdb.cpp:35] Opened lmdb examples/cifar10/cifar10_test_lmdb
I0430 18:45:30.653101 24221 net.cpp:86] Creating Layer cifar
I0430 18:45:30.653106 24221 net.cpp:382] cifar -> data
I0430 18:45:30.653115 24221 net.cpp:382] cifar -> label
I0430 18:45:30.653120 24221 data_transformer.cpp:25] Loading mean file from: examples/cifar10/mean.binaryproto
I0430 18:45:30.653303 24221 data_layer.cpp:45] output data size: 1000,3,32,32
I0430 18:45:30.675472 24221 net.cpp:124] Setting up cifar
I0430 18:45:30.675516 24221 net.cpp:131] Top shape: 1000 3 32 32 (3072000)
I0430 18:45:30.675523 24221 net.cpp:131] Top shape: 1000 (1000)
I0430 18:45:30.675526 24221 net.cpp:139] Memory required for data: 12292000
I0430 18:45:30.675534 24221 layer_factory.hpp:77] Creating layer label_cifar_1_split
I0430 18:45:30.675565 24221 net.cpp:86] Creating Layer label_cifar_1_split
I0430 18:45:30.675570 24221 net.cpp:408] label_cifar_1_split <- label
I0430 18:45:30.675576 24221 net.cpp:382] label_cifar_1_split -> label_cifar_1_split_0
I0430 18:45:30.675585 24221 net.cpp:382] label_cifar_1_split -> label_cifar_1_split_1
I0430 18:45:30.675686 24221 net.cpp:124] Setting up label_cifar_1_split
I0430 18:45:30.675694 24221 net.cpp:131] Top shape: 1000 (1000)
I0430 18:45:30.675698 24221 net.cpp:131] Top shape: 1000 (1000)
I0430 18:45:30.675701 24221 net.cpp:139] Memory required for data: 12300000
I0430 18:45:30.675704 24221 layer_factory.hpp:77] Creating layer ip1
I0430 18:45:30.675714 24221 net.cpp:86] Creating Layer ip1
I0430 18:45:30.675717 24221 net.cpp:408] ip1 <- data
I0430 18:45:30.675722 24221 net.cpp:382] ip1 -> ip1
I0430 18:45:30.678035 24221 net.cpp:124] Setting up ip1
I0430 18:45:30.678045 24221 net.cpp:131] Top shape: 1000 20 (20000)
I0430 18:45:30.678066 24221 net.cpp:139] Memory required for data: 12380000
I0430 18:45:30.678107 24221 layer_factory.hpp:77] Creating layer relu1
I0430 18:45:30.678113 24221 net.cpp:86] Creating Layer relu1
I0430 18:45:30.678117 24221 net.cpp:408] relu1 <- ip1
I0430 18:45:30.678139 24221 net.cpp:369] relu1 -> ip1 (in-place)
I0430 18:45:30.678977 24221 net.cpp:124] Setting up relu1
I0430 18:45:30.679006 24221 net.cpp:131] Top shape: 1000 20 (20000)
I0430 18:45:30.679011 24221 net.cpp:139] Memory required for data: 12460000
I0430 18:45:30.679015 24221 layer_factory.hpp:77] Creating layer ip2
I0430 18:45:30.679023 24221 net.cpp:86] Creating Layer ip2
I0430 18:45:30.679028 24221 net.cpp:408] ip2 <- ip1
I0430 18:45:30.679049 24221 net.cpp:382] ip2 -> ip2
I0430 18:45:30.679266 24221 net.cpp:124] Setting up ip2
I0430 18:45:30.679275 24221 net.cpp:131] Top shape: 1000 160 (160000)
I0430 18:45:30.679278 24221 net.cpp:139] Memory required for data: 13100000
I0430 18:45:30.679286 24221 layer_factory.hpp:77] Creating layer relu2
I0430 18:45:30.679292 24221 net.cpp:86] Creating Layer relu2
I0430 18:45:30.679296 24221 net.cpp:408] relu2 <- ip2
I0430 18:45:30.679301 24221 net.cpp:369] relu2 -> ip2 (in-place)
I0430 18:45:30.679467 24221 net.cpp:124] Setting up relu2
I0430 18:45:30.679476 24221 net.cpp:131] Top shape: 1000 160 (160000)
I0430 18:45:30.679481 24221 net.cpp:139] Memory required for data: 13740000
I0430 18:45:30.679483 24221 layer_factory.hpp:77] Creating layer ip3
I0430 18:45:30.679507 24221 net.cpp:86] Creating Layer ip3
I0430 18:45:30.679512 24221 net.cpp:408] ip3 <- ip2
I0430 18:45:30.679517 24221 net.cpp:382] ip3 -> ip3
I0430 18:45:30.679708 24221 net.cpp:124] Setting up ip3
I0430 18:45:30.679715 24221 net.cpp:131] Top shape: 1000 20 (20000)
I0430 18:45:30.679718 24221 net.cpp:139] Memory required for data: 13820000
I0430 18:45:30.679728 24221 layer_factory.hpp:77] Creating layer relu3
I0430 18:45:30.679733 24221 net.cpp:86] Creating Layer relu3
I0430 18:45:30.679735 24221 net.cpp:408] relu3 <- ip3
I0430 18:45:30.679740 24221 net.cpp:369] relu3 -> ip3 (in-place)
I0430 18:45:30.679898 24221 net.cpp:124] Setting up relu3
I0430 18:45:30.679906 24221 net.cpp:131] Top shape: 1000 20 (20000)
I0430 18:45:30.679909 24221 net.cpp:139] Memory required for data: 13900000
I0430 18:45:30.679913 24221 layer_factory.hpp:77] Creating layer ip4
I0430 18:45:30.679920 24221 net.cpp:86] Creating Layer ip4
I0430 18:45:30.679924 24221 net.cpp:408] ip4 <- ip3
I0430 18:45:30.679929 24221 net.cpp:382] ip4 -> ip4
I0430 18:45:30.680058 24221 net.cpp:124] Setting up ip4
I0430 18:45:30.680065 24221 net.cpp:131] Top shape: 1000 10 (10000)
I0430 18:45:30.680069 24221 net.cpp:139] Memory required for data: 13940000
I0430 18:45:30.680074 24221 layer_factory.hpp:77] Creating layer ip4_ip4_0_split
I0430 18:45:30.680080 24221 net.cpp:86] Creating Layer ip4_ip4_0_split
I0430 18:45:30.680083 24221 net.cpp:408] ip4_ip4_0_split <- ip4
I0430 18:45:30.680088 24221 net.cpp:382] ip4_ip4_0_split -> ip4_ip4_0_split_0
I0430 18:45:30.680095 24221 net.cpp:382] ip4_ip4_0_split -> ip4_ip4_0_split_1
I0430 18:45:30.680130 24221 net.cpp:124] Setting up ip4_ip4_0_split
I0430 18:45:30.680136 24221 net.cpp:131] Top shape: 1000 10 (10000)
I0430 18:45:30.680141 24221 net.cpp:131] Top shape: 1000 10 (10000)
I0430 18:45:30.680145 24221 net.cpp:139] Memory required for data: 14020000
I0430 18:45:30.680148 24221 layer_factory.hpp:77] Creating layer accuracy
I0430 18:45:30.680155 24221 net.cpp:86] Creating Layer accuracy
I0430 18:45:30.680158 24221 net.cpp:408] accuracy <- ip4_ip4_0_split_0
I0430 18:45:30.680162 24221 net.cpp:408] accuracy <- label_cifar_1_split_0
I0430 18:45:30.680167 24221 net.cpp:382] accuracy -> accuracy
…
