…
I0430 20:10:56.840355 28179 net.cpp:296] The NetState phase (0) differed from the phase (1) specified by a rule in layer cifar
I0430 20:10:56.840370 28179 net.cpp:296] The NetState phase (0) differed from the phase (1) specified by a rule in layer accuracy
I0430 20:10:56.840451 28179 net.cpp:53] Initializing net from parameters: 
name: "CIFAR"
state {
  phase: TRAIN
  level: 0
  stage: ""
}
layer {
  name: "cifar"
  type: "Data"
  top: "data"
  top: "label"
  include {
    phase: TRAIN
  }
  transform_param {
    mean_file: "examples/cifar10/mean.binaryproto"
  }
  data_param {
    source: "examples/cifar10/cifar10_train_lmdb"
    batch_size: 111
    backend: LMDB
  }
}
layer {
  name: "ip1"
  type: "InnerProduct"
  bottom: "data"
  top: "ip1"
  param {
    lr_mult: 1
  }
  param {
    lr_mult: 2
  }
  inner_product_param {
    num_output: 80
    weight_filler {
      type: "gaussian"
      std: 0.01
    }
    bias_filler {
      type: "constant"
    }
  }
}
layer {
  name: "relu1"
  type: "ReLU"
  bottom: "ip1"
  top: "ip1"
}
layer {
  name: "ip2"
  type: "InnerProduct"
  bottom: "ip1"
  top: "ip2"
  param {
    lr_mult: 1
  }
  param {
    lr_mult: 2
  }
  inner_product_param {
    num_output: 80
    weight_filler {
      type: "gaussian"
      std: 0.01
    }
    bias_filler {
      type: "constant"
    }
  }
}
layer {
  name: "relu2"
  type: "ReLU"
  bottom: "ip2"
  top: "ip2"
}
layer {
  name: "ip3"
  type: "InnerProduct"
  bottom: "ip2"
  top: "ip3"
  param {
    lr_mult: 1
  }
  param {
    lr_mult: 2
  }
  inner_product_param {
    num_output: 20
    weight_filler {
      type: "gaussian"
      std: 0.01
    }
    bias_filler {
      type: "constant"
    }
  }
}
layer {
  name: "relu3"
  type: "ReLU"
  bottom: "ip3"
  top: "ip3"
}
layer {
  name: "ip4"
  type: "InnerProduct"
  bottom: "ip3"
  top: "ip4"
  param {
    lr_mult: 1
  }
  param {
    lr_mult: 2
  }
  inner_product_param {
    num_output: 10
    weight_filler {
      type: "gaussian"
      std: 0.01
    }
    bias_filler {
      type: "constant"
    }
  }
}
layer {
  name: "loss"
  type: "SoftmaxWithLoss"
  bottom: "ip4"
  bottom: "label"
  top: "loss"
}
I0430 20:10:56.840517 28179 layer_factory.hpp:77] Creating layer cifar
I0430 20:10:56.840615 28179 db_lmdb.cpp:35] Opened lmdb examples/cifar10/cifar10_train_lmdb
I0430 20:10:56.840641 28179 net.cpp:86] Creating Layer cifar
I0430 20:10:56.840648 28179 net.cpp:382] cifar -> data
I0430 20:10:56.840670 28179 net.cpp:382] cifar -> label
I0430 20:10:56.840683 28179 data_transformer.cpp:25] Loading mean file from: examples/cifar10/mean.binaryproto
I0430 20:10:56.842797 28179 data_layer.cpp:45] output data size: 111,3,32,32
I0430 20:10:56.850649 28179 net.cpp:124] Setting up cifar
I0430 20:10:56.850667 28179 net.cpp:131] Top shape: 111 3 32 32 (340992)
I0430 20:10:56.850674 28179 net.cpp:131] Top shape: 111 (111)
I0430 20:10:56.850678 28179 net.cpp:139] Memory required for data: 1364412
I0430 20:10:56.850685 28179 layer_factory.hpp:77] Creating layer ip1
I0430 20:10:56.850697 28179 net.cpp:86] Creating Layer ip1
I0430 20:10:56.850703 28179 net.cpp:408] ip1 <- data
I0430 20:10:56.850713 28179 net.cpp:382] ip1 -> ip1
I0430 20:10:56.859935 28179 net.cpp:124] Setting up ip1
I0430 20:10:56.859951 28179 net.cpp:131] Top shape: 111 80 (8880)
I0430 20:10:56.859956 28179 net.cpp:139] Memory required for data: 1399932
I0430 20:10:56.859971 28179 layer_factory.hpp:77] Creating layer relu1
I0430 20:10:56.859979 28179 net.cpp:86] Creating Layer relu1
I0430 20:10:56.860000 28179 net.cpp:408] relu1 <- ip1
I0430 20:10:56.860007 28179 net.cpp:369] relu1 -> ip1 (in-place)
I0430 20:10:57.098706 28179 net.cpp:124] Setting up relu1
I0430 20:10:57.098747 28179 net.cpp:131] Top shape: 111 80 (8880)
I0430 20:10:57.098750 28179 net.cpp:139] Memory required for data: 1435452
I0430 20:10:57.098757 28179 layer_factory.hpp:77] Creating layer ip2
I0430 20:10:57.098769 28179 net.cpp:86] Creating Layer ip2
I0430 20:10:57.098773 28179 net.cpp:408] ip2 <- ip1
I0430 20:10:57.098781 28179 net.cpp:382] ip2 -> ip2
I0430 20:10:57.100107 28179 net.cpp:124] Setting up ip2
I0430 20:10:57.100119 28179 net.cpp:131] Top shape: 111 80 (8880)
I0430 20:10:57.100138 28179 net.cpp:139] Memory required for data: 1470972
I0430 20:10:57.100147 28179 layer_factory.hpp:77] Creating layer relu2
I0430 20:10:57.100155 28179 net.cpp:86] Creating Layer relu2
I0430 20:10:57.100158 28179 net.cpp:408] relu2 <- ip2
I0430 20:10:57.100162 28179 net.cpp:369] relu2 -> ip2 (in-place)
I0430 20:10:57.100992 28179 net.cpp:124] Setting up relu2
I0430 20:10:57.101021 28179 net.cpp:131] Top shape: 111 80 (8880)
I0430 20:10:57.101024 28179 net.cpp:139] Memory required for data: 1506492
I0430 20:10:57.101043 28179 layer_factory.hpp:77] Creating layer ip3
I0430 20:10:57.101050 28179 net.cpp:86] Creating Layer ip3
I0430 20:10:57.101053 28179 net.cpp:408] ip3 <- ip2
I0430 20:10:57.101059 28179 net.cpp:382] ip3 -> ip3
I0430 20:10:57.101227 28179 net.cpp:124] Setting up ip3
I0430 20:10:57.101235 28179 net.cpp:131] Top shape: 111 20 (2220)
I0430 20:10:57.101238 28179 net.cpp:139] Memory required for data: 1515372
I0430 20:10:57.101245 28179 layer_factory.hpp:77] Creating layer relu3
I0430 20:10:57.101251 28179 net.cpp:86] Creating Layer relu3
I0430 20:10:57.101254 28179 net.cpp:408] relu3 <- ip3
I0430 20:10:57.101258 28179 net.cpp:369] relu3 -> ip3 (in-place)
I0430 20:10:57.101433 28179 net.cpp:124] Setting up relu3
I0430 20:10:57.101440 28179 net.cpp:131] Top shape: 111 20 (2220)
I0430 20:10:57.101444 28179 net.cpp:139] Memory required for data: 1524252
I0430 20:10:57.101446 28179 layer_factory.hpp:77] Creating layer ip4
I0430 20:10:57.101452 28179 net.cpp:86] Creating Layer ip4
I0430 20:10:57.101455 28179 net.cpp:408] ip4 <- ip3
I0430 20:10:57.101460 28179 net.cpp:382] ip4 -> ip4
I0430 20:10:57.101552 28179 net.cpp:124] Setting up ip4
I0430 20:10:57.101559 28179 net.cpp:131] Top shape: 111 10 (1110)
I0430 20:10:57.101562 28179 net.cpp:139] Memory required for data: 1528692
I0430 20:10:57.101568 28179 layer_factory.hpp:77] Creating layer loss
I0430 20:10:57.101574 28179 net.cpp:86] Creating Layer loss
I0430 20:10:57.101577 28179 net.cpp:408] loss <- ip4
I0430 20:10:57.101582 28179 net.cpp:408] loss <- label
I0430 20:10:57.101586 28179 net.cpp:382] loss -> loss
I0430 20:10:57.101604 28179 layer_factory.hpp:77] Creating layer loss
…
I0430 20:10:57.102146 28179 solver.cpp:173] Creating test net (#0) specified by net file: ECE595/cifar/train_test/var_everything/cifar_train_test_121.prototxt
I0430 20:10:57.102185 28179 net.cpp:296] The NetState phase (1) differed from the phase (0) specified by a rule in layer cifar
I0430 20:10:57.102257 28179 net.cpp:53] Initializing net from parameters: 
name: "CIFAR"
state {
  phase: TEST
}
layer {
  name: "cifar"
  type: "Data"
  top: "data"
  top: "label"
  include {
    phase: TEST
  }
  transform_param {
    mean_file: "examples/cifar10/mean.binaryproto"
  }
  data_param {
    source: "examples/cifar10/cifar10_test_lmdb"
    batch_size: 1000
    backend: LMDB
  }
}
layer {
  name: "ip1"
  type: "InnerProduct"
  bottom: "data"
  top: "ip1"
  param {
    lr_mult: 1
  }
  param {
    lr_mult: 2
  }
  inner_product_param {
    num_output: 80
    weight_filler {
      type: "gaussian"
      std: 0.01
    }
    bias_filler {
      type: "constant"
    }
  }
}
layer {
  name: "relu1"
  type: "ReLU"
  bottom: "ip1"
  top: "ip1"
}
layer {
  name: "ip2"
  type: "InnerProduct"
  bottom: "ip1"
  top: "ip2"
  param {
    lr_mult: 1
  }
  param {
    lr_mult: 2
  }
  inner_product_param {
    num_output: 80
    weight_filler {
      type: "gaussian"
      std: 0.01
    }
    bias_filler {
      type: "constant"
    }
  }
}
layer {
  name: "relu2"
  type: "ReLU"
  bottom: "ip2"
  top: "ip2"
}
layer {
  name: "ip3"
  type: "InnerProduct"
  bottom: "ip2"
  top: "ip3"
  param {
    lr_mult: 1
  }
  param {
    lr_mult: 2
  }
  inner_product_param {
    num_output: 20
    weight_filler {
      type: "gaussian"
      std: 0.01
    }
    bias_filler {
      type: "constant"
    }
  }
}
layer {
  name: "relu3"
  type: "ReLU"
  bottom: "ip3"
  top: "ip3"
}
layer {
  name: "ip4"
  type: "InnerProduct"
  bottom: "ip3"
  top: "ip4"
  param {
    lr_mult: 1
  }
  param {
    lr_mult: 2
  }
  inner_product_param {
    num_output: 10
    weight_filler {
      type: "gaussian"
      std: 0.01
    }
    bias_filler {
      type: "constant"
    }
  }
}
layer {
  name: "accuracy"
  type: "Accuracy"
  bottom: "ip4"
  bottom: "label"
  top: "accuracy"
  include {
    phase: TEST
  }
}
layer {
  name: "loss"
  type: "SoftmaxWithLoss"
  bottom: "ip4"
  bottom: "label"
  top: "loss"
}
I0430 20:10:57.102331 28179 layer_factory.hpp:77] Creating layer cifar
I0430 20:10:57.102375 28179 db_lmdb.cpp:35] Opened lmdb examples/cifar10/cifar10_test_lmdb
I0430 20:10:57.102386 28179 net.cpp:86] Creating Layer cifar
I0430 20:10:57.102391 28179 net.cpp:382] cifar -> data
I0430 20:10:57.102397 28179 net.cpp:382] cifar -> label
I0430 20:10:57.102404 28179 data_transformer.cpp:25] Loading mean file from: examples/cifar10/mean.binaryproto
I0430 20:10:57.102560 28179 data_layer.cpp:45] output data size: 1000,3,32,32
I0430 20:10:57.124783 28179 net.cpp:124] Setting up cifar
I0430 20:10:57.124845 28179 net.cpp:131] Top shape: 1000 3 32 32 (3072000)
I0430 20:10:57.124851 28179 net.cpp:131] Top shape: 1000 (1000)
I0430 20:10:57.124855 28179 net.cpp:139] Memory required for data: 12292000
I0430 20:10:57.124860 28179 layer_factory.hpp:77] Creating layer label_cifar_1_split
I0430 20:10:57.124920 28179 net.cpp:86] Creating Layer label_cifar_1_split
I0430 20:10:57.124927 28179 net.cpp:408] label_cifar_1_split <- label
I0430 20:10:57.124948 28179 net.cpp:382] label_cifar_1_split -> label_cifar_1_split_0
I0430 20:10:57.124974 28179 net.cpp:382] label_cifar_1_split -> label_cifar_1_split_1
I0430 20:10:57.125079 28179 net.cpp:124] Setting up label_cifar_1_split
I0430 20:10:57.125087 28179 net.cpp:131] Top shape: 1000 (1000)
I0430 20:10:57.125092 28179 net.cpp:131] Top shape: 1000 (1000)
I0430 20:10:57.125095 28179 net.cpp:139] Memory required for data: 12300000
I0430 20:10:57.125098 28179 layer_factory.hpp:77] Creating layer ip1
I0430 20:10:57.125109 28179 net.cpp:86] Creating Layer ip1
I0430 20:10:57.125113 28179 net.cpp:408] ip1 <- data
I0430 20:10:57.125118 28179 net.cpp:382] ip1 -> ip1
I0430 20:10:57.131775 28179 net.cpp:124] Setting up ip1
I0430 20:10:57.131785 28179 net.cpp:131] Top shape: 1000 80 (80000)
I0430 20:10:57.131803 28179 net.cpp:139] Memory required for data: 12620000
I0430 20:10:57.131829 28179 layer_factory.hpp:77] Creating layer relu1
I0430 20:10:57.131834 28179 net.cpp:86] Creating Layer relu1
I0430 20:10:57.131839 28179 net.cpp:408] relu1 <- ip1
I0430 20:10:57.131842 28179 net.cpp:369] relu1 -> ip1 (in-place)
I0430 20:10:57.132684 28179 net.cpp:124] Setting up relu1
I0430 20:10:57.132696 28179 net.cpp:131] Top shape: 1000 80 (80000)
I0430 20:10:57.132716 28179 net.cpp:139] Memory required for data: 12940000
I0430 20:10:57.132720 28179 layer_factory.hpp:77] Creating layer ip2
I0430 20:10:57.132730 28179 net.cpp:86] Creating Layer ip2
I0430 20:10:57.132732 28179 net.cpp:408] ip2 <- ip1
I0430 20:10:57.132737 28179 net.cpp:382] ip2 -> ip2
I0430 20:10:57.133095 28179 net.cpp:124] Setting up ip2
I0430 20:10:57.133105 28179 net.cpp:131] Top shape: 1000 80 (80000)
I0430 20:10:57.133108 28179 net.cpp:139] Memory required for data: 13260000
I0430 20:10:57.133117 28179 layer_factory.hpp:77] Creating layer relu2
I0430 20:10:57.133123 28179 net.cpp:86] Creating Layer relu2
I0430 20:10:57.133126 28179 net.cpp:408] relu2 <- ip2
I0430 20:10:57.133131 28179 net.cpp:369] relu2 -> ip2 (in-place)
I0430 20:10:57.133338 28179 net.cpp:124] Setting up relu2
I0430 20:10:57.133349 28179 net.cpp:131] Top shape: 1000 80 (80000)
I0430 20:10:57.133352 28179 net.cpp:139] Memory required for data: 13580000
I0430 20:10:57.133355 28179 layer_factory.hpp:77] Creating layer ip3
I0430 20:10:57.133361 28179 net.cpp:86] Creating Layer ip3
I0430 20:10:57.133365 28179 net.cpp:408] ip3 <- ip2
I0430 20:10:57.133369 28179 net.cpp:382] ip3 -> ip3
I0430 20:10:57.133507 28179 net.cpp:124] Setting up ip3
I0430 20:10:57.133515 28179 net.cpp:131] Top shape: 1000 20 (20000)
I0430 20:10:57.133518 28179 net.cpp:139] Memory required for data: 13660000
I0430 20:10:57.133525 28179 layer_factory.hpp:77] Creating layer relu3
I0430 20:10:57.133530 28179 net.cpp:86] Creating Layer relu3
I0430 20:10:57.133533 28179 net.cpp:408] relu3 <- ip3
I0430 20:10:57.133538 28179 net.cpp:369] relu3 -> ip3 (in-place)
I0430 20:10:57.133692 28179 net.cpp:124] Setting up relu3
I0430 20:10:57.133702 28179 net.cpp:131] Top shape: 1000 20 (20000)
I0430 20:10:57.133704 28179 net.cpp:139] Memory required for data: 13740000
I0430 20:10:57.133708 28179 layer_factory.hpp:77] Creating layer ip4
I0430 20:10:57.133714 28179 net.cpp:86] Creating Layer ip4
I0430 20:10:57.133716 28179 net.cpp:408] ip4 <- ip3
I0430 20:10:57.133721 28179 net.cpp:382] ip4 -> ip4
I0430 20:10:57.133819 28179 net.cpp:124] Setting up ip4
I0430 20:10:57.133826 28179 net.cpp:131] Top shape: 1000 10 (10000)
I0430 20:10:57.133829 28179 net.cpp:139] Memory required for data: 13780000
I0430 20:10:57.133836 28179 layer_factory.hpp:77] Creating layer ip4_ip4_0_split
I0430 20:10:57.133841 28179 net.cpp:86] Creating Layer ip4_ip4_0_split
I0430 20:10:57.133843 28179 net.cpp:408] ip4_ip4_0_split <- ip4
I0430 20:10:57.133846 28179 net.cpp:382] ip4_ip4_0_split -> ip4_ip4_0_split_0
I0430 20:10:57.133852 28179 net.cpp:382] ip4_ip4_0_split -> ip4_ip4_0_split_1
I0430 20:10:57.133882 28179 net.cpp:124] Setting up ip4_ip4_0_split
I0430 20:10:57.133888 28179 net.cpp:131] Top shape: 1000 10 (10000)
I0430 20:10:57.133891 28179 net.cpp:131] Top shape: 1000 10 (10000)
I0430 20:10:57.133894 28179 net.cpp:139] Memory required for data: 13860000
I0430 20:10:57.133898 28179 layer_factory.hpp:77] Creating layer accuracy
I0430 20:10:57.133903 28179 net.cpp:86] Creating Layer accuracy
I0430 20:10:57.133905 28179 net.cpp:408] accuracy <- ip4_ip4_0_split_0
I0430 20:10:57.133909 28179 net.cpp:408] accuracy <- label_cifar_1_split_0
I0430 20:10:57.133913 28179 net.cpp:382] accuracy -> accuracy
…
