…
I0501 09:30:26.042628 14678 net.cpp:296] The NetState phase (0) differed from the phase (1) specified by a rule in layer cifar
I0501 09:30:26.042655 14678 net.cpp:296] The NetState phase (0) differed from the phase (1) specified by a rule in layer accuracy
I0501 09:30:26.042773 14678 net.cpp:53] Initializing net from parameters: 
name: "CIFAR"
state {
  phase: TRAIN
  level: 0
  stage: ""
}
layer {
  name: "cifar"
  type: "Data"
  top: "data"
  top: "label"
  include {
    phase: TRAIN
  }
  transform_param {
    mean_file: "examples/cifar10/mean.binaryproto"
  }
  data_param {
    source: "examples/cifar10/cifar10_train_lmdb"
    batch_size: 111
    backend: LMDB
  }
}
layer {
  name: "conv0"
  type: "Convolution"
  bottom: "data"
  top: "conv0"
  param {
    lr_mult: 1
  }
  param {
    lr_mult: 2
  }
  convolution_param {
    num_output: 16
    pad: 2
    kernel_size: 3
    stride: 1
    weight_filler {
      type: "gaussian"
      std: 0.01
    }
    bias_filler {
      type: "constant"
    }
  }
}
layer {
  name: "Sigmoid0"
  type: "Sigmoid"
  bottom: "conv0"
  top: "Sigmoid0"
}
layer {
  name: "pool0"
  type: "Pooling"
  bottom: "Sigmoid0"
  top: "pool0"
  pooling_param {
    pool: AVE
    kernel_size: 3
    stride: 2
  }
}
layer {
  name: "ip1"
  type: "InnerProduct"
  bottom: "pool0"
  top: "ip1"
  param {
    lr_mult: 1
  }
  param {
    lr_mult: 2
  }
  inner_product_param {
    num_output: 20
    weight_filler {
      type: "gaussian"
      std: 0.01
    }
    bias_filler {
      type: "constant"
    }
  }
}
layer {
  name: "relu1"
  type: "ReLU"
  bottom: "ip1"
  top: "ip1"
}
layer {
  name: "ip2"
  type: "InnerProduct"
  bottom: "ip1"
  top: "ip2"
  param {
    lr_mult: 1
  }
  param {
    lr_mult: 2
  }
  inner_product_param {
    num_output: 160
    weight_filler {
      type: "gaussian"
      std: 0.01
    }
    bias_filler {
      type: "constant"
    }
  }
}
layer {
  name: "relu2"
  type: "ReLU"
  bottom: "ip2"
  top: "ip2"
}
layer {
  name: "ip3"
  type: "InnerProduct"
  bottom: "ip2"
  top: "ip3"
  param {
    lr_mult: 1
  }
  param {
    lr_mult: 2
  }
  inner_product_param {
    num_output: 20
    weight_filler {
      type: "gaussian"
      std: 0.01
    }
    bias_filler {
      type: "constant"
    }
  }
}
layer {
  name: "relu3"
  type: "ReLU"
  bottom: "ip3"
  top: "ip3"
}
layer {
  name: "ip4"
  type: "InnerProduct"
  bottom: "ip3"
  top: "ip4"
  param {
    lr_mult: 1
  }
  param {
    lr_mult: 2
  }
  inner_product_param {
    num_output: 10
    weight_filler {
      type: "gaussian"
      std: 0.01
    }
    bias_filler {
      type: "constant"
    }
  }
}
layer {
  name: "loss"
  type: "SoftmaxWithLoss"
  bottom: "ip4"
  bottom: "label"
  top: "loss"
}
I0501 09:30:26.042886 14678 layer_factory.hpp:77] Creating layer cifar
I0501 09:30:26.043020 14678 db_lmdb.cpp:35] Opened lmdb examples/cifar10/cifar10_train_lmdb
I0501 09:30:26.043054 14678 net.cpp:86] Creating Layer cifar
I0501 09:30:26.043067 14678 net.cpp:382] cifar -> data
I0501 09:30:26.043097 14678 net.cpp:382] cifar -> label
I0501 09:30:26.043115 14678 data_transformer.cpp:25] Loading mean file from: examples/cifar10/mean.binaryproto
I0501 09:30:26.045486 14678 data_layer.cpp:45] output data size: 111,3,32,32
I0501 09:30:26.053534 14678 net.cpp:124] Setting up cifar
I0501 09:30:26.053560 14678 net.cpp:131] Top shape: 111 3 32 32 (340992)
I0501 09:30:26.053570 14678 net.cpp:131] Top shape: 111 (111)
I0501 09:30:26.053576 14678 net.cpp:139] Memory required for data: 1364412
I0501 09:30:26.053611 14678 layer_factory.hpp:77] Creating layer conv0
I0501 09:30:26.053638 14678 net.cpp:86] Creating Layer conv0
I0501 09:30:26.053648 14678 net.cpp:408] conv0 <- data
I0501 09:30:26.053664 14678 net.cpp:382] conv0 -> conv0
I0501 09:30:26.342553 14678 net.cpp:124] Setting up conv0
I0501 09:30:26.342582 14678 net.cpp:131] Top shape: 111 16 34 34 (2053056)
I0501 09:30:26.342589 14678 net.cpp:139] Memory required for data: 9576636
I0501 09:30:26.342610 14678 layer_factory.hpp:77] Creating layer Sigmoid0
I0501 09:30:26.342628 14678 net.cpp:86] Creating Layer Sigmoid0
I0501 09:30:26.342635 14678 net.cpp:408] Sigmoid0 <- conv0
I0501 09:30:26.342645 14678 net.cpp:382] Sigmoid0 -> Sigmoid0
I0501 09:30:26.342850 14678 net.cpp:124] Setting up Sigmoid0
I0501 09:30:26.342862 14678 net.cpp:131] Top shape: 111 16 34 34 (2053056)
I0501 09:30:26.342867 14678 net.cpp:139] Memory required for data: 17788860
I0501 09:30:26.342874 14678 layer_factory.hpp:77] Creating layer pool0
I0501 09:30:26.342885 14678 net.cpp:86] Creating Layer pool0
I0501 09:30:26.342890 14678 net.cpp:408] pool0 <- Sigmoid0
I0501 09:30:26.342900 14678 net.cpp:382] pool0 -> pool0
I0501 09:30:26.343719 14678 net.cpp:124] Setting up pool0
I0501 09:30:26.343734 14678 net.cpp:131] Top shape: 111 16 17 17 (513264)
I0501 09:30:26.343741 14678 net.cpp:139] Memory required for data: 19841916
I0501 09:30:26.343747 14678 layer_factory.hpp:77] Creating layer ip1
I0501 09:30:26.343761 14678 net.cpp:86] Creating Layer ip1
I0501 09:30:26.343768 14678 net.cpp:408] ip1 <- pool0
I0501 09:30:26.343777 14678 net.cpp:382] ip1 -> ip1
I0501 09:30:26.346545 14678 net.cpp:124] Setting up ip1
I0501 09:30:26.346556 14678 net.cpp:131] Top shape: 111 20 (2220)
I0501 09:30:26.346561 14678 net.cpp:139] Memory required for data: 19850796
I0501 09:30:26.346575 14678 layer_factory.hpp:77] Creating layer relu1
I0501 09:30:26.346585 14678 net.cpp:86] Creating Layer relu1
I0501 09:30:26.346590 14678 net.cpp:408] relu1 <- ip1
I0501 09:30:26.346598 14678 net.cpp:369] relu1 -> ip1 (in-place)
I0501 09:30:26.346761 14678 net.cpp:124] Setting up relu1
I0501 09:30:26.346771 14678 net.cpp:131] Top shape: 111 20 (2220)
I0501 09:30:26.346777 14678 net.cpp:139] Memory required for data: 19859676
I0501 09:30:26.346782 14678 layer_factory.hpp:77] Creating layer ip2
I0501 09:30:26.346792 14678 net.cpp:86] Creating Layer ip2
I0501 09:30:26.346797 14678 net.cpp:408] ip2 <- ip1
I0501 09:30:26.346806 14678 net.cpp:382] ip2 -> ip2
I0501 09:30:26.347000 14678 net.cpp:124] Setting up ip2
I0501 09:30:26.347009 14678 net.cpp:131] Top shape: 111 160 (17760)
I0501 09:30:26.347014 14678 net.cpp:139] Memory required for data: 19930716
I0501 09:30:26.347028 14678 layer_factory.hpp:77] Creating layer relu2
I0501 09:30:26.347035 14678 net.cpp:86] Creating Layer relu2
I0501 09:30:26.347041 14678 net.cpp:408] relu2 <- ip2
I0501 09:30:26.347048 14678 net.cpp:369] relu2 -> ip2 (in-place)
I0501 09:30:26.347210 14678 net.cpp:124] Setting up relu2
I0501 09:30:26.347219 14678 net.cpp:131] Top shape: 111 160 (17760)
I0501 09:30:26.347224 14678 net.cpp:139] Memory required for data: 20001756
I0501 09:30:26.347229 14678 layer_factory.hpp:77] Creating layer ip3
I0501 09:30:26.347241 14678 net.cpp:86] Creating Layer ip3
I0501 09:30:26.347246 14678 net.cpp:408] ip3 <- ip2
I0501 09:30:26.347255 14678 net.cpp:382] ip3 -> ip3
I0501 09:30:26.347442 14678 net.cpp:124] Setting up ip3
I0501 09:30:26.347450 14678 net.cpp:131] Top shape: 111 20 (2220)
I0501 09:30:26.347456 14678 net.cpp:139] Memory required for data: 20010636
I0501 09:30:26.347465 14678 layer_factory.hpp:77] Creating layer relu3
I0501 09:30:26.347473 14678 net.cpp:86] Creating Layer relu3
I0501 09:30:26.347478 14678 net.cpp:408] relu3 <- ip3
I0501 09:30:26.347486 14678 net.cpp:369] relu3 -> ip3 (in-place)
I0501 09:30:26.347642 14678 net.cpp:124] Setting up relu3
I0501 09:30:26.347652 14678 net.cpp:131] Top shape: 111 20 (2220)
I0501 09:30:26.347657 14678 net.cpp:139] Memory required for data: 20019516
I0501 09:30:26.347662 14678 layer_factory.hpp:77] Creating layer ip4
I0501 09:30:26.347693 14678 net.cpp:86] Creating Layer ip4
I0501 09:30:26.347702 14678 net.cpp:408] ip4 <- ip3
I0501 09:30:26.347710 14678 net.cpp:382] ip4 -> ip4
I0501 09:30:26.347821 14678 net.cpp:124] Setting up ip4
I0501 09:30:26.347831 14678 net.cpp:131] Top shape: 111 10 (1110)
I0501 09:30:26.347836 14678 net.cpp:139] Memory required for data: 20023956
I0501 09:30:26.347848 14678 layer_factory.hpp:77] Creating layer loss
I0501 09:30:26.347858 14678 net.cpp:86] Creating Layer loss
I0501 09:30:26.347864 14678 net.cpp:408] loss <- ip4
I0501 09:30:26.347872 14678 net.cpp:408] loss <- label
I0501 09:30:26.347879 14678 net.cpp:382] loss -> loss
I0501 09:30:26.347899 14678 layer_factory.hpp:77] Creating layer loss
…
I0501 09:30:26.349195 14678 solver.cpp:173] Creating test net (#0) specified by net file: ECE595/cifar/train_test/var_everything/cifar_train_test_541.prototxt
I0501 09:30:26.349233 14678 net.cpp:296] The NetState phase (1) differed from the phase (0) specified by a rule in layer cifar
I0501 09:30:26.349337 14678 net.cpp:53] Initializing net from parameters: 
name: "CIFAR"
state {
  phase: TEST
}
layer {
  name: "cifar"
  type: "Data"
  top: "data"
  top: "label"
  include {
    phase: TEST
  }
  transform_param {
    mean_file: "examples/cifar10/mean.binaryproto"
  }
  data_param {
    source: "examples/cifar10/cifar10_test_lmdb"
    batch_size: 1000
    backend: LMDB
  }
}
layer {
  name: "conv0"
  type: "Convolution"
  bottom: "data"
  top: "conv0"
  param {
    lr_mult: 1
  }
  param {
    lr_mult: 2
  }
  convolution_param {
    num_output: 16
    pad: 2
    kernel_size: 3
    stride: 1
    weight_filler {
      type: "gaussian"
      std: 0.01
    }
    bias_filler {
      type: "constant"
    }
  }
}
layer {
  name: "Sigmoid0"
  type: "Sigmoid"
  bottom: "conv0"
  top: "Sigmoid0"
}
layer {
  name: "pool0"
  type: "Pooling"
  bottom: "Sigmoid0"
  top: "pool0"
  pooling_param {
    pool: AVE
    kernel_size: 3
    stride: 2
  }
}
layer {
  name: "ip1"
  type: "InnerProduct"
  bottom: "pool0"
  top: "ip1"
  param {
    lr_mult: 1
  }
  param {
    lr_mult: 2
  }
  inner_product_param {
    num_output: 20
    weight_filler {
      type: "gaussian"
      std: 0.01
    }
    bias_filler {
      type: "constant"
    }
  }
}
layer {
  name: "relu1"
  type: "ReLU"
  bottom: "ip1"
  top: "ip1"
}
layer {
  name: "ip2"
  type: "InnerProduct"
  bottom: "ip1"
  top: "ip2"
  param {
    lr_mult: 1
  }
  param {
    lr_mult: 2
  }
  inner_product_param {
    num_output: 160
    weight_filler {
      type: "gaussian"
      std: 0.01
    }
    bias_filler {
      type: "constant"
    }
  }
}
layer {
  name: "relu2"
  type: "ReLU"
  bottom: "ip2"
  top: "ip2"
}
layer {
  name: "ip3"
  type: "InnerProduct"
  bottom: "ip2"
  top: "ip3"
  param {
    lr_mult: 1
  }
  param {
    lr_mult: 2
  }
  inner_product_param {
    num_output: 20
    weight_filler {
      type: "gaussian"
      std: 0.01
    }
    bias_filler {
      type: "constant"
    }
  }
}
layer {
  name: "relu3"
  type: "ReLU"
  bottom: "ip3"
  top: "ip3"
}
layer {
  name: "ip4"
  type: "InnerProduct"
  bottom: "ip3"
  top: "ip4"
  param {
    lr_mult: 1
  }
  param {
    lr_mult: 2
  }
  inner_product_param {
    num_output: 10
    weight_filler {
      type: "gaussian"
      std: 0.01
    }
    bias_filler {
      type: "constant"
    }
  }
}
layer {
  name: "accuracy"
  type: "Accuracy"
  bottom: "ip4"
  bottom: "label"
  top: "accuracy"
  include {
    phase: TEST
  }
}
layer {
  name: "loss"
  type: "SoftmaxWithLoss"
  bottom: "ip4"
  bottom: "label"
  top: "loss"
}
I0501 09:30:26.349454 14678 layer_factory.hpp:77] Creating layer cifar
I0501 09:30:26.349519 14678 db_lmdb.cpp:35] Opened lmdb examples/cifar10/cifar10_test_lmdb
I0501 09:30:26.349535 14678 net.cpp:86] Creating Layer cifar
I0501 09:30:26.349544 14678 net.cpp:382] cifar -> data
I0501 09:30:26.349555 14678 net.cpp:382] cifar -> label
I0501 09:30:26.349565 14678 data_transformer.cpp:25] Loading mean file from: examples/cifar10/mean.binaryproto
I0501 09:30:26.349771 14678 data_layer.cpp:45] output data size: 1000,3,32,32
I0501 09:30:26.372295 14678 net.cpp:124] Setting up cifar
I0501 09:30:26.372323 14678 net.cpp:131] Top shape: 1000 3 32 32 (3072000)
I0501 09:30:26.372331 14678 net.cpp:131] Top shape: 1000 (1000)
I0501 09:30:26.372336 14678 net.cpp:139] Memory required for data: 12292000
I0501 09:30:26.372345 14678 layer_factory.hpp:77] Creating layer label_cifar_1_split
I0501 09:30:26.372362 14678 net.cpp:86] Creating Layer label_cifar_1_split
I0501 09:30:26.372370 14678 net.cpp:408] label_cifar_1_split <- label
I0501 09:30:26.372378 14678 net.cpp:382] label_cifar_1_split -> label_cifar_1_split_0
I0501 09:30:26.372391 14678 net.cpp:382] label_cifar_1_split -> label_cifar_1_split_1
I0501 09:30:26.372455 14678 net.cpp:124] Setting up label_cifar_1_split
I0501 09:30:26.372478 14678 net.cpp:131] Top shape: 1000 (1000)
I0501 09:30:26.372483 14678 net.cpp:131] Top shape: 1000 (1000)
I0501 09:30:26.372488 14678 net.cpp:139] Memory required for data: 12300000
I0501 09:30:26.372493 14678 layer_factory.hpp:77] Creating layer conv0
I0501 09:30:26.372510 14678 net.cpp:86] Creating Layer conv0
I0501 09:30:26.372517 14678 net.cpp:408] conv0 <- data
I0501 09:30:26.372525 14678 net.cpp:382] conv0 -> conv0
I0501 09:30:26.374171 14678 net.cpp:124] Setting up conv0
I0501 09:30:26.374186 14678 net.cpp:131] Top shape: 1000 16 34 34 (18496000)
I0501 09:30:26.374192 14678 net.cpp:139] Memory required for data: 86284000
I0501 09:30:26.374224 14678 layer_factory.hpp:77] Creating layer Sigmoid0
I0501 09:30:26.374240 14678 net.cpp:86] Creating Layer Sigmoid0
I0501 09:30:26.374248 14678 net.cpp:408] Sigmoid0 <- conv0
I0501 09:30:26.374258 14678 net.cpp:382] Sigmoid0 -> Sigmoid0
I0501 09:30:26.375382 14678 net.cpp:124] Setting up Sigmoid0
I0501 09:30:26.375402 14678 net.cpp:131] Top shape: 1000 16 34 34 (18496000)
I0501 09:30:26.375407 14678 net.cpp:139] Memory required for data: 160268000
I0501 09:30:26.375429 14678 layer_factory.hpp:77] Creating layer pool0
I0501 09:30:26.375455 14678 net.cpp:86] Creating Layer pool0
I0501 09:30:26.375465 14678 net.cpp:408] pool0 <- Sigmoid0
I0501 09:30:26.375473 14678 net.cpp:382] pool0 -> pool0
I0501 09:30:26.375639 14678 net.cpp:124] Setting up pool0
I0501 09:30:26.375648 14678 net.cpp:131] Top shape: 1000 16 17 17 (4624000)
I0501 09:30:26.375653 14678 net.cpp:139] Memory required for data: 178764000
I0501 09:30:26.375658 14678 layer_factory.hpp:77] Creating layer ip1
I0501 09:30:26.375669 14678 net.cpp:86] Creating Layer ip1
I0501 09:30:26.375674 14678 net.cpp:408] ip1 <- pool0
I0501 09:30:26.375684 14678 net.cpp:382] ip1 -> ip1
I0501 09:30:26.378197 14678 net.cpp:124] Setting up ip1
I0501 09:30:26.378207 14678 net.cpp:131] Top shape: 1000 20 (20000)
I0501 09:30:26.378212 14678 net.cpp:139] Memory required for data: 178844000
I0501 09:30:26.378274 14678 layer_factory.hpp:77] Creating layer relu1
I0501 09:30:26.378284 14678 net.cpp:86] Creating Layer relu1
I0501 09:30:26.378293 14678 net.cpp:408] relu1 <- ip1
I0501 09:30:26.378301 14678 net.cpp:369] relu1 -> ip1 (in-place)
I0501 09:30:26.378479 14678 net.cpp:124] Setting up relu1
I0501 09:30:26.378489 14678 net.cpp:131] Top shape: 1000 20 (20000)
I0501 09:30:26.378494 14678 net.cpp:139] Memory required for data: 178924000
I0501 09:30:26.378499 14678 layer_factory.hpp:77] Creating layer ip2
I0501 09:30:26.378509 14678 net.cpp:86] Creating Layer ip2
I0501 09:30:26.378515 14678 net.cpp:408] ip2 <- ip1
I0501 09:30:26.378523 14678 net.cpp:382] ip2 -> ip2
I0501 09:30:26.378728 14678 net.cpp:124] Setting up ip2
I0501 09:30:26.378737 14678 net.cpp:131] Top shape: 1000 160 (160000)
I0501 09:30:26.378743 14678 net.cpp:139] Memory required for data: 179564000
I0501 09:30:26.378754 14678 layer_factory.hpp:77] Creating layer relu2
I0501 09:30:26.378764 14678 net.cpp:86] Creating Layer relu2
I0501 09:30:26.378770 14678 net.cpp:408] relu2 <- ip2
I0501 09:30:26.378777 14678 net.cpp:369] relu2 -> ip2 (in-place)
I0501 09:30:26.379505 14678 net.cpp:124] Setting up relu2
I0501 09:30:26.379519 14678 net.cpp:131] Top shape: 1000 160 (160000)
I0501 09:30:26.379525 14678 net.cpp:139] Memory required for data: 180204000
I0501 09:30:26.379545 14678 layer_factory.hpp:77] Creating layer ip3
I0501 09:30:26.379559 14678 net.cpp:86] Creating Layer ip3
I0501 09:30:26.379565 14678 net.cpp:408] ip3 <- ip2
I0501 09:30:26.379573 14678 net.cpp:382] ip3 -> ip3
I0501 09:30:26.379768 14678 net.cpp:124] Setting up ip3
I0501 09:30:26.379778 14678 net.cpp:131] Top shape: 1000 20 (20000)
I0501 09:30:26.379797 14678 net.cpp:139] Memory required for data: 180284000
I0501 09:30:26.379806 14678 layer_factory.hpp:77] Creating layer relu3
I0501 09:30:26.379814 14678 net.cpp:86] Creating Layer relu3
I0501 09:30:26.379822 14678 net.cpp:408] relu3 <- ip3
I0501 09:30:26.379828 14678 net.cpp:369] relu3 -> ip3 (in-place)
I0501 09:30:26.379987 14678 net.cpp:124] Setting up relu3
I0501 09:30:26.379995 14678 net.cpp:131] Top shape: 1000 20 (20000)
I0501 09:30:26.380000 14678 net.cpp:139] Memory required for data: 180364000
I0501 09:30:26.380005 14678 layer_factory.hpp:77] Creating layer ip4
I0501 09:30:26.380014 14678 net.cpp:86] Creating Layer ip4
I0501 09:30:26.380020 14678 net.cpp:408] ip4 <- ip3
I0501 09:30:26.380030 14678 net.cpp:382] ip4 -> ip4
I0501 09:30:26.380146 14678 net.cpp:124] Setting up ip4
I0501 09:30:26.380153 14678 net.cpp:131] Top shape: 1000 10 (10000)
I0501 09:30:26.380158 14678 net.cpp:139] Memory required for data: 180404000
I0501 09:30:26.380170 14678 layer_factory.hpp:77] Creating layer ip4_ip4_0_split
I0501 09:30:26.380178 14678 net.cpp:86] Creating Layer ip4_ip4_0_split
I0501 09:30:26.380184 14678 net.cpp:408] ip4_ip4_0_split <- ip4
I0501 09:30:26.380192 14678 net.cpp:382] ip4_ip4_0_split -> ip4_ip4_0_split_0
I0501 09:30:26.380199 14678 net.cpp:382] ip4_ip4_0_split -> ip4_ip4_0_split_1
I0501 09:30:26.380240 14678 net.cpp:124] Setting up ip4_ip4_0_split
I0501 09:30:26.380249 14678 net.cpp:131] Top shape: 1000 10 (10000)
I0501 09:30:26.380264 14678 net.cpp:131] Top shape: 1000 10 (10000)
I0501 09:30:26.380270 14678 net.cpp:139] Memory required for data: 180484000
I0501 09:30:26.380275 14678 layer_factory.hpp:77] Creating layer accuracy
I0501 09:30:26.380282 14678 net.cpp:86] Creating Layer accuracy
I0501 09:30:26.380287 14678 net.cpp:408] accuracy <- ip4_ip4_0_split_0
I0501 09:30:26.380295 14678 net.cpp:408] accuracy <- label_cifar_1_split_0
I0501 09:30:26.380301 14678 net.cpp:382] accuracy -> accuracy
…
