…
I0430 20:50:07.574492 29530 net.cpp:296] The NetState phase (0) differed from the phase (1) specified by a rule in layer cifar
I0430 20:50:07.574504 29530 net.cpp:296] The NetState phase (0) differed from the phase (1) specified by a rule in layer accuracy
I0430 20:50:07.574566 29530 net.cpp:53] Initializing net from parameters: 
name: "CIFAR"
state {
  phase: TRAIN
  level: 0
  stage: ""
}
layer {
  name: "cifar"
  type: "Data"
  top: "data"
  top: "label"
  include {
    phase: TRAIN
  }
  transform_param {
    mean_file: "examples/cifar10/mean.binaryproto"
  }
  data_param {
    source: "examples/cifar10/cifar10_train_lmdb"
    batch_size: 111
    backend: LMDB
  }
}
layer {
  name: "ip1"
  type: "InnerProduct"
  bottom: "data"
  top: "ip1"
  param {
    lr_mult: 1
  }
  param {
    lr_mult: 2
  }
  inner_product_param {
    num_output: 160
    weight_filler {
      type: "gaussian"
      std: 0.01
    }
    bias_filler {
      type: "constant"
    }
  }
}
layer {
  name: "relu1"
  type: "ReLU"
  bottom: "ip1"
  top: "ip1"
}
layer {
  name: "ip2"
  type: "InnerProduct"
  bottom: "ip1"
  top: "ip2"
  param {
    lr_mult: 1
  }
  param {
    lr_mult: 2
  }
  inner_product_param {
    num_output: 40
    weight_filler {
      type: "gaussian"
      std: 0.01
    }
    bias_filler {
      type: "constant"
    }
  }
}
layer {
  name: "relu2"
  type: "ReLU"
  bottom: "ip2"
  top: "ip2"
}
layer {
  name: "ip3"
  type: "InnerProduct"
  bottom: "ip2"
  top: "ip3"
  param {
    lr_mult: 1
  }
  param {
    lr_mult: 2
  }
  inner_product_param {
    num_output: 40
    weight_filler {
      type: "gaussian"
      std: 0.01
    }
    bias_filler {
      type: "constant"
    }
  }
}
layer {
  name: "relu3"
  type: "ReLU"
  bottom: "ip3"
  top: "ip3"
}
layer {
  name: "ip4"
  type: "InnerProduct"
  bottom: "ip3"
  top: "ip4"
  param {
    lr_mult: 1
  }
  param {
    lr_mult: 2
  }
  inner_product_param {
    num_output: 10
    weight_filler {
      type: "gaussian"
      std: 0.01
    }
    bias_filler {
      type: "constant"
    }
  }
}
layer {
  name: "loss"
  type: "SoftmaxWithLoss"
  bottom: "ip4"
  bottom: "label"
  top: "loss"
}
I0430 20:50:07.574625 29530 layer_factory.hpp:77] Creating layer cifar
I0430 20:50:07.574705 29530 db_lmdb.cpp:35] Opened lmdb examples/cifar10/cifar10_train_lmdb
I0430 20:50:07.574726 29530 net.cpp:86] Creating Layer cifar
I0430 20:50:07.574733 29530 net.cpp:382] cifar -> data
I0430 20:50:07.574750 29530 net.cpp:382] cifar -> label
I0430 20:50:07.574760 29530 data_transformer.cpp:25] Loading mean file from: examples/cifar10/mean.binaryproto
I0430 20:50:07.576630 29530 data_layer.cpp:45] output data size: 111,3,32,32
I0430 20:50:07.583196 29530 net.cpp:124] Setting up cifar
I0430 20:50:07.583240 29530 net.cpp:131] Top shape: 111 3 32 32 (340992)
I0430 20:50:07.583245 29530 net.cpp:131] Top shape: 111 (111)
I0430 20:50:07.583248 29530 net.cpp:139] Memory required for data: 1364412
I0430 20:50:07.583254 29530 layer_factory.hpp:77] Creating layer ip1
I0430 20:50:07.583263 29530 net.cpp:86] Creating Layer ip1
I0430 20:50:07.583268 29530 net.cpp:408] ip1 <- data
I0430 20:50:07.583292 29530 net.cpp:382] ip1 -> ip1
I0430 20:50:07.597018 29530 net.cpp:124] Setting up ip1
I0430 20:50:07.597030 29530 net.cpp:131] Top shape: 111 160 (17760)
I0430 20:50:07.597033 29530 net.cpp:139] Memory required for data: 1435452
I0430 20:50:07.597044 29530 layer_factory.hpp:77] Creating layer relu1
I0430 20:50:07.597081 29530 net.cpp:86] Creating Layer relu1
I0430 20:50:07.597085 29530 net.cpp:408] relu1 <- ip1
I0430 20:50:07.597090 29530 net.cpp:369] relu1 -> ip1 (in-place)
I0430 20:50:07.820914 29530 net.cpp:124] Setting up relu1
I0430 20:50:07.820940 29530 net.cpp:131] Top shape: 111 160 (17760)
I0430 20:50:07.820945 29530 net.cpp:139] Memory required for data: 1506492
I0430 20:50:07.820950 29530 layer_factory.hpp:77] Creating layer ip2
I0430 20:50:07.820961 29530 net.cpp:86] Creating Layer ip2
I0430 20:50:07.820966 29530 net.cpp:408] ip2 <- ip1
I0430 20:50:07.820972 29530 net.cpp:382] ip2 -> ip2
I0430 20:50:07.822113 29530 net.cpp:124] Setting up ip2
I0430 20:50:07.822140 29530 net.cpp:131] Top shape: 111 40 (4440)
I0430 20:50:07.822144 29530 net.cpp:139] Memory required for data: 1524252
I0430 20:50:07.822154 29530 layer_factory.hpp:77] Creating layer relu2
I0430 20:50:07.822175 29530 net.cpp:86] Creating Layer relu2
I0430 20:50:07.822178 29530 net.cpp:408] relu2 <- ip2
I0430 20:50:07.822183 29530 net.cpp:369] relu2 -> ip2 (in-place)
I0430 20:50:07.822866 29530 net.cpp:124] Setting up relu2
I0430 20:50:07.822878 29530 net.cpp:131] Top shape: 111 40 (4440)
I0430 20:50:07.822881 29530 net.cpp:139] Memory required for data: 1542012
I0430 20:50:07.822885 29530 layer_factory.hpp:77] Creating layer ip3
I0430 20:50:07.822891 29530 net.cpp:86] Creating Layer ip3
I0430 20:50:07.822895 29530 net.cpp:408] ip3 <- ip2
I0430 20:50:07.822899 29530 net.cpp:382] ip3 -> ip3
I0430 20:50:07.823048 29530 net.cpp:124] Setting up ip3
I0430 20:50:07.823056 29530 net.cpp:131] Top shape: 111 40 (4440)
I0430 20:50:07.823060 29530 net.cpp:139] Memory required for data: 1559772
I0430 20:50:07.823067 29530 layer_factory.hpp:77] Creating layer relu3
I0430 20:50:07.823072 29530 net.cpp:86] Creating Layer relu3
I0430 20:50:07.823076 29530 net.cpp:408] relu3 <- ip3
I0430 20:50:07.823081 29530 net.cpp:369] relu3 -> ip3 (in-place)
I0430 20:50:07.823221 29530 net.cpp:124] Setting up relu3
I0430 20:50:07.823230 29530 net.cpp:131] Top shape: 111 40 (4440)
I0430 20:50:07.823232 29530 net.cpp:139] Memory required for data: 1577532
I0430 20:50:07.823235 29530 layer_factory.hpp:77] Creating layer ip4
I0430 20:50:07.823241 29530 net.cpp:86] Creating Layer ip4
I0430 20:50:07.823245 29530 net.cpp:408] ip4 <- ip3
I0430 20:50:07.823248 29530 net.cpp:382] ip4 -> ip4
I0430 20:50:07.824138 29530 net.cpp:124] Setting up ip4
I0430 20:50:07.824151 29530 net.cpp:131] Top shape: 111 10 (1110)
I0430 20:50:07.824153 29530 net.cpp:139] Memory required for data: 1581972
I0430 20:50:07.824159 29530 layer_factory.hpp:77] Creating layer loss
I0430 20:50:07.824165 29530 net.cpp:86] Creating Layer loss
I0430 20:50:07.824169 29530 net.cpp:408] loss <- ip4
I0430 20:50:07.824172 29530 net.cpp:408] loss <- label
I0430 20:50:07.824177 29530 net.cpp:382] loss -> loss
I0430 20:50:07.824195 29530 layer_factory.hpp:77] Creating layer loss
…
I0430 20:50:07.824760 29530 solver.cpp:173] Creating test net (#0) specified by net file: ECE595/cifar/train_test/var_everything/cifar_train_test_142.prototxt
I0430 20:50:07.824796 29530 net.cpp:296] The NetState phase (1) differed from the phase (0) specified by a rule in layer cifar
I0430 20:50:07.824872 29530 net.cpp:53] Initializing net from parameters: 
name: "CIFAR"
state {
  phase: TEST
}
layer {
  name: "cifar"
  type: "Data"
  top: "data"
  top: "label"
  include {
    phase: TEST
  }
  transform_param {
    mean_file: "examples/cifar10/mean.binaryproto"
  }
  data_param {
    source: "examples/cifar10/cifar10_test_lmdb"
    batch_size: 1000
    backend: LMDB
  }
}
layer {
  name: "ip1"
  type: "InnerProduct"
  bottom: "data"
  top: "ip1"
  param {
    lr_mult: 1
  }
  param {
    lr_mult: 2
  }
  inner_product_param {
    num_output: 160
    weight_filler {
      type: "gaussian"
      std: 0.01
    }
    bias_filler {
      type: "constant"
    }
  }
}
layer {
  name: "relu1"
  type: "ReLU"
  bottom: "ip1"
  top: "ip1"
}
layer {
  name: "ip2"
  type: "InnerProduct"
  bottom: "ip1"
  top: "ip2"
  param {
    lr_mult: 1
  }
  param {
    lr_mult: 2
  }
  inner_product_param {
    num_output: 40
    weight_filler {
      type: "gaussian"
      std: 0.01
    }
    bias_filler {
      type: "constant"
    }
  }
}
layer {
  name: "relu2"
  type: "ReLU"
  bottom: "ip2"
  top: "ip2"
}
layer {
  name: "ip3"
  type: "InnerProduct"
  bottom: "ip2"
  top: "ip3"
  param {
    lr_mult: 1
  }
  param {
    lr_mult: 2
  }
  inner_product_param {
    num_output: 40
    weight_filler {
      type: "gaussian"
      std: 0.01
    }
    bias_filler {
      type: "constant"
    }
  }
}
layer {
  name: "relu3"
  type: "ReLU"
  bottom: "ip3"
  top: "ip3"
}
layer {
  name: "ip4"
  type: "InnerProduct"
  bottom: "ip3"
  top: "ip4"
  param {
    lr_mult: 1
  }
  param {
    lr_mult: 2
  }
  inner_product_param {
    num_output: 10
    weight_filler {
      type: "gaussian"
      std: 0.01
    }
    bias_filler {
      type: "constant"
    }
  }
}
layer {
  name: "accuracy"
  type: "Accuracy"
  bottom: "ip4"
  bottom: "label"
  top: "accuracy"
  include {
    phase: TEST
  }
}
layer {
  name: "loss"
  type: "SoftmaxWithLoss"
  bottom: "ip4"
  bottom: "label"
  top: "loss"
}
I0430 20:50:07.824945 29530 layer_factory.hpp:77] Creating layer cifar
I0430 20:50:07.825001 29530 db_lmdb.cpp:35] Opened lmdb examples/cifar10/cifar10_test_lmdb
I0430 20:50:07.825012 29530 net.cpp:86] Creating Layer cifar
I0430 20:50:07.825016 29530 net.cpp:382] cifar -> data
I0430 20:50:07.825024 29530 net.cpp:382] cifar -> label
I0430 20:50:07.825031 29530 data_transformer.cpp:25] Loading mean file from: examples/cifar10/mean.binaryproto
I0430 20:50:07.825189 29530 data_layer.cpp:45] output data size: 1000,3,32,32
I0430 20:50:07.846724 29530 net.cpp:124] Setting up cifar
I0430 20:50:07.846750 29530 net.cpp:131] Top shape: 1000 3 32 32 (3072000)
I0430 20:50:07.846755 29530 net.cpp:131] Top shape: 1000 (1000)
I0430 20:50:07.846756 29530 net.cpp:139] Memory required for data: 12292000
I0430 20:50:07.846762 29530 layer_factory.hpp:77] Creating layer label_cifar_1_split
I0430 20:50:07.846791 29530 net.cpp:86] Creating Layer label_cifar_1_split
I0430 20:50:07.846796 29530 net.cpp:408] label_cifar_1_split <- label
I0430 20:50:07.846804 29530 net.cpp:382] label_cifar_1_split -> label_cifar_1_split_0
I0430 20:50:07.846828 29530 net.cpp:382] label_cifar_1_split -> label_cifar_1_split_1
I0430 20:50:07.846947 29530 net.cpp:124] Setting up label_cifar_1_split
I0430 20:50:07.846954 29530 net.cpp:131] Top shape: 1000 (1000)
I0430 20:50:07.846973 29530 net.cpp:131] Top shape: 1000 (1000)
I0430 20:50:07.846976 29530 net.cpp:139] Memory required for data: 12300000
I0430 20:50:07.846979 29530 layer_factory.hpp:77] Creating layer ip1
I0430 20:50:07.846989 29530 net.cpp:86] Creating Layer ip1
I0430 20:50:07.846992 29530 net.cpp:408] ip1 <- data
I0430 20:50:07.846998 29530 net.cpp:382] ip1 -> ip1
I0430 20:50:07.860513 29530 net.cpp:124] Setting up ip1
I0430 20:50:07.860527 29530 net.cpp:131] Top shape: 1000 160 (160000)
I0430 20:50:07.860532 29530 net.cpp:139] Memory required for data: 12940000
I0430 20:50:07.860556 29530 layer_factory.hpp:77] Creating layer relu1
I0430 20:50:07.860563 29530 net.cpp:86] Creating Layer relu1
I0430 20:50:07.860568 29530 net.cpp:408] relu1 <- ip1
I0430 20:50:07.860574 29530 net.cpp:369] relu1 -> ip1 (in-place)
I0430 20:50:07.861457 29530 net.cpp:124] Setting up relu1
I0430 20:50:07.861475 29530 net.cpp:131] Top shape: 1000 160 (160000)
I0430 20:50:07.861481 29530 net.cpp:139] Memory required for data: 13580000
I0430 20:50:07.861487 29530 layer_factory.hpp:77] Creating layer ip2
I0430 20:50:07.861500 29530 net.cpp:86] Creating Layer ip2
I0430 20:50:07.861510 29530 net.cpp:408] ip2 <- ip1
I0430 20:50:07.861521 29530 net.cpp:382] ip2 -> ip2
I0430 20:50:07.861905 29530 net.cpp:124] Setting up ip2
I0430 20:50:07.861913 29530 net.cpp:131] Top shape: 1000 40 (40000)
I0430 20:50:07.861932 29530 net.cpp:139] Memory required for data: 13740000
I0430 20:50:07.861938 29530 layer_factory.hpp:77] Creating layer relu2
I0430 20:50:07.861943 29530 net.cpp:86] Creating Layer relu2
I0430 20:50:07.861948 29530 net.cpp:408] relu2 <- ip2
I0430 20:50:07.861953 29530 net.cpp:369] relu2 -> ip2 (in-place)
I0430 20:50:07.862139 29530 net.cpp:124] Setting up relu2
I0430 20:50:07.862149 29530 net.cpp:131] Top shape: 1000 40 (40000)
I0430 20:50:07.862152 29530 net.cpp:139] Memory required for data: 13900000
I0430 20:50:07.862156 29530 layer_factory.hpp:77] Creating layer ip3
I0430 20:50:07.862162 29530 net.cpp:86] Creating Layer ip3
I0430 20:50:07.862166 29530 net.cpp:408] ip3 <- ip2
I0430 20:50:07.862171 29530 net.cpp:382] ip3 -> ip3
I0430 20:50:07.862337 29530 net.cpp:124] Setting up ip3
I0430 20:50:07.862345 29530 net.cpp:131] Top shape: 1000 40 (40000)
I0430 20:50:07.862349 29530 net.cpp:139] Memory required for data: 14060000
I0430 20:50:07.862356 29530 layer_factory.hpp:77] Creating layer relu3
I0430 20:50:07.862362 29530 net.cpp:86] Creating Layer relu3
I0430 20:50:07.862365 29530 net.cpp:408] relu3 <- ip3
I0430 20:50:07.862370 29530 net.cpp:369] relu3 -> ip3 (in-place)
I0430 20:50:07.862550 29530 net.cpp:124] Setting up relu3
I0430 20:50:07.862558 29530 net.cpp:131] Top shape: 1000 40 (40000)
I0430 20:50:07.862562 29530 net.cpp:139] Memory required for data: 14220000
I0430 20:50:07.862565 29530 layer_factory.hpp:77] Creating layer ip4
I0430 20:50:07.862572 29530 net.cpp:86] Creating Layer ip4
I0430 20:50:07.862576 29530 net.cpp:408] ip4 <- ip3
I0430 20:50:07.862581 29530 net.cpp:382] ip4 -> ip4
I0430 20:50:07.862713 29530 net.cpp:124] Setting up ip4
I0430 20:50:07.862720 29530 net.cpp:131] Top shape: 1000 10 (10000)
I0430 20:50:07.862723 29530 net.cpp:139] Memory required for data: 14260000
I0430 20:50:07.862728 29530 layer_factory.hpp:77] Creating layer ip4_ip4_0_split
I0430 20:50:07.862733 29530 net.cpp:86] Creating Layer ip4_ip4_0_split
I0430 20:50:07.862736 29530 net.cpp:408] ip4_ip4_0_split <- ip4
I0430 20:50:07.862742 29530 net.cpp:382] ip4_ip4_0_split -> ip4_ip4_0_split_0
I0430 20:50:07.862748 29530 net.cpp:382] ip4_ip4_0_split -> ip4_ip4_0_split_1
I0430 20:50:07.862779 29530 net.cpp:124] Setting up ip4_ip4_0_split
I0430 20:50:07.862787 29530 net.cpp:131] Top shape: 1000 10 (10000)
I0430 20:50:07.862792 29530 net.cpp:131] Top shape: 1000 10 (10000)
I0430 20:50:07.862794 29530 net.cpp:139] Memory required for data: 14340000
I0430 20:50:07.862797 29530 layer_factory.hpp:77] Creating layer accuracy
I0430 20:50:07.862805 29530 net.cpp:86] Creating Layer accuracy
I0430 20:50:07.862809 29530 net.cpp:408] accuracy <- ip4_ip4_0_split_0
I0430 20:50:07.862813 29530 net.cpp:408] accuracy <- label_cifar_1_split_0
I0430 20:50:07.862818 29530 net.cpp:382] accuracy -> accuracy
…
