…
I0430 16:55:22.336401 18515 net.cpp:296] The NetState phase (0) differed from the phase (1) specified by a rule in layer cifar
I0430 16:55:22.336414 18515 net.cpp:296] The NetState phase (0) differed from the phase (1) specified by a rule in layer accuracy
I0430 16:55:22.336482 18515 net.cpp:53] Initializing net from parameters: 
name: "CIFAR"
state {
  phase: TRAIN
  level: 0
  stage: ""
}
layer {
  name: "cifar"
  type: "Data"
  top: "data"
  top: "label"
  include {
    phase: TRAIN
  }
  transform_param {
    mean_file: "examples/cifar10/mean.binaryproto"
  }
  data_param {
    source: "examples/cifar10/cifar10_train_lmdb"
    batch_size: 111
    backend: LMDB
  }
}
layer {
  name: "ip1"
  type: "InnerProduct"
  bottom: "data"
  top: "ip1"
  param {
    lr_mult: 1
  }
  param {
    lr_mult: 2
  }
  inner_product_param {
    num_output: 40
    weight_filler {
      type: "gaussian"
      std: 0.01
    }
    bias_filler {
      type: "constant"
    }
  }
}
layer {
  name: "relu1"
  type: "ReLU"
  bottom: "ip1"
  top: "ip1"
}
layer {
  name: "ip2"
  type: "InnerProduct"
  bottom: "ip1"
  top: "ip2"
  param {
    lr_mult: 1
  }
  param {
    lr_mult: 2
  }
  inner_product_param {
    num_output: 80
    weight_filler {
      type: "gaussian"
      std: 0.01
    }
    bias_filler {
      type: "constant"
    }
  }
}
layer {
  name: "relu2"
  type: "ReLU"
  bottom: "ip2"
  top: "ip2"
}
layer {
  name: "ip3"
  type: "InnerProduct"
  bottom: "ip2"
  top: "ip3"
  param {
    lr_mult: 1
  }
  param {
    lr_mult: 2
  }
  inner_product_param {
    num_output: 10
    weight_filler {
      type: "gaussian"
      std: 0.01
    }
    bias_filler {
      type: "constant"
    }
  }
}
layer {
  name: "loss"
  type: "SoftmaxWithLoss"
  bottom: "ip3"
  bottom: "label"
  top: "loss"
}
I0430 16:55:22.336536 18515 layer_factory.hpp:77] Creating layer cifar
I0430 16:55:22.336625 18515 db_lmdb.cpp:35] Opened lmdb examples/cifar10/cifar10_train_lmdb
I0430 16:55:22.336649 18515 net.cpp:86] Creating Layer cifar
I0430 16:55:22.336658 18515 net.cpp:382] cifar -> data
I0430 16:55:22.336678 18515 net.cpp:382] cifar -> label
I0430 16:55:22.336689 18515 data_transformer.cpp:25] Loading mean file from: examples/cifar10/mean.binaryproto
I0430 16:55:22.338696 18515 data_layer.cpp:45] output data size: 111,3,32,32
I0430 16:55:22.345999 18515 net.cpp:124] Setting up cifar
I0430 16:55:22.346015 18515 net.cpp:131] Top shape: 111 3 32 32 (340992)
I0430 16:55:22.346021 18515 net.cpp:131] Top shape: 111 (111)
I0430 16:55:22.346024 18515 net.cpp:139] Memory required for data: 1364412
I0430 16:55:22.346031 18515 layer_factory.hpp:77] Creating layer ip1
I0430 16:55:22.346041 18515 net.cpp:86] Creating Layer ip1
I0430 16:55:22.346046 18515 net.cpp:408] ip1 <- data
I0430 16:55:22.346056 18515 net.cpp:382] ip1 -> ip1
I0430 16:55:22.349962 18515 net.cpp:124] Setting up ip1
I0430 16:55:22.349973 18515 net.cpp:131] Top shape: 111 40 (4440)
I0430 16:55:22.349977 18515 net.cpp:139] Memory required for data: 1382172
I0430 16:55:22.349989 18515 layer_factory.hpp:77] Creating layer relu1
I0430 16:55:22.349997 18515 net.cpp:86] Creating Layer relu1
I0430 16:55:22.350000 18515 net.cpp:408] relu1 <- ip1
I0430 16:55:22.350005 18515 net.cpp:369] relu1 -> ip1 (in-place)
I0430 16:55:22.634671 18515 net.cpp:124] Setting up relu1
I0430 16:55:22.634702 18515 net.cpp:131] Top shape: 111 40 (4440)
I0430 16:55:22.634707 18515 net.cpp:139] Memory required for data: 1399932
I0430 16:55:22.634737 18515 layer_factory.hpp:77] Creating layer ip2
I0430 16:55:22.634752 18515 net.cpp:86] Creating Layer ip2
I0430 16:55:22.634757 18515 net.cpp:408] ip2 <- ip1
I0430 16:55:22.634765 18515 net.cpp:382] ip2 -> ip2
I0430 16:55:22.635015 18515 net.cpp:124] Setting up ip2
I0430 16:55:22.635027 18515 net.cpp:131] Top shape: 111 80 (8880)
I0430 16:55:22.635030 18515 net.cpp:139] Memory required for data: 1435452
I0430 16:55:22.635043 18515 layer_factory.hpp:77] Creating layer relu2
I0430 16:55:22.635051 18515 net.cpp:86] Creating Layer relu2
I0430 16:55:22.635056 18515 net.cpp:408] relu2 <- ip2
I0430 16:55:22.635061 18515 net.cpp:369] relu2 -> ip2 (in-place)
I0430 16:55:22.635972 18515 net.cpp:124] Setting up relu2
I0430 16:55:22.635988 18515 net.cpp:131] Top shape: 111 80 (8880)
I0430 16:55:22.635993 18515 net.cpp:139] Memory required for data: 1470972
I0430 16:55:22.635998 18515 layer_factory.hpp:77] Creating layer ip3
I0430 16:55:22.636005 18515 net.cpp:86] Creating Layer ip3
I0430 16:55:22.636009 18515 net.cpp:408] ip3 <- ip2
I0430 16:55:22.636015 18515 net.cpp:382] ip3 -> ip3
I0430 16:55:22.637151 18515 net.cpp:124] Setting up ip3
I0430 16:55:22.637167 18515 net.cpp:131] Top shape: 111 10 (1110)
I0430 16:55:22.637171 18515 net.cpp:139] Memory required for data: 1475412
I0430 16:55:22.637182 18515 layer_factory.hpp:77] Creating layer loss
I0430 16:55:22.637198 18515 net.cpp:86] Creating Layer loss
I0430 16:55:22.637202 18515 net.cpp:408] loss <- ip3
I0430 16:55:22.637207 18515 net.cpp:408] loss <- label
I0430 16:55:22.637213 18515 net.cpp:382] loss -> loss
I0430 16:55:22.637231 18515 layer_factory.hpp:77] Creating layer loss
…
I0430 16:55:22.637888 18515 solver.cpp:173] Creating test net (#0) specified by net file: ECE595/cifar/train_test/var_everything/cifar_train_test_18.prototxt
I0430 16:55:22.637914 18515 net.cpp:296] The NetState phase (1) differed from the phase (0) specified by a rule in layer cifar
I0430 16:55:22.638000 18515 net.cpp:53] Initializing net from parameters: 
name: "CIFAR"
state {
  phase: TEST
}
layer {
  name: "cifar"
  type: "Data"
  top: "data"
  top: "label"
  include {
    phase: TEST
  }
  transform_param {
    mean_file: "examples/cifar10/mean.binaryproto"
  }
  data_param {
    source: "examples/cifar10/cifar10_test_lmdb"
    batch_size: 1000
    backend: LMDB
  }
}
layer {
  name: "ip1"
  type: "InnerProduct"
  bottom: "data"
  top: "ip1"
  param {
    lr_mult: 1
  }
  param {
    lr_mult: 2
  }
  inner_product_param {
    num_output: 40
    weight_filler {
      type: "gaussian"
      std: 0.01
    }
    bias_filler {
      type: "constant"
    }
  }
}
layer {
  name: "relu1"
  type: "ReLU"
  bottom: "ip1"
  top: "ip1"
}
layer {
  name: "ip2"
  type: "InnerProduct"
  bottom: "ip1"
  top: "ip2"
  param {
    lr_mult: 1
  }
  param {
    lr_mult: 2
  }
  inner_product_param {
    num_output: 80
    weight_filler {
      type: "gaussian"
      std: 0.01
    }
    bias_filler {
      type: "constant"
    }
  }
}
layer {
  name: "relu2"
  type: "ReLU"
  bottom: "ip2"
  top: "ip2"
}
layer {
  name: "ip3"
  type: "InnerProduct"
  bottom: "ip2"
  top: "ip3"
  param {
    lr_mult: 1
  }
  param {
    lr_mult: 2
  }
  inner_product_param {
    num_output: 10
    weight_filler {
      type: "gaussian"
      std: 0.01
    }
    bias_filler {
      type: "constant"
    }
  }
}
layer {
  name: "accuracy"
  type: "Accuracy"
  bottom: "ip3"
  bottom: "label"
  top: "accuracy"
  include {
    phase: TEST
  }
}
layer {
  name: "loss"
  type: "SoftmaxWithLoss"
  bottom: "ip3"
  bottom: "label"
  top: "loss"
}
I0430 16:55:22.638082 18515 layer_factory.hpp:77] Creating layer cifar
I0430 16:55:22.638139 18515 db_lmdb.cpp:35] Opened lmdb examples/cifar10/cifar10_test_lmdb
I0430 16:55:22.638152 18515 net.cpp:86] Creating Layer cifar
I0430 16:55:22.638159 18515 net.cpp:382] cifar -> data
I0430 16:55:22.638170 18515 net.cpp:382] cifar -> label
I0430 16:55:22.638176 18515 data_transformer.cpp:25] Loading mean file from: examples/cifar10/mean.binaryproto
I0430 16:55:22.638355 18515 data_layer.cpp:45] output data size: 1000,3,32,32
I0430 16:55:22.664047 18515 net.cpp:124] Setting up cifar
I0430 16:55:22.664079 18515 net.cpp:131] Top shape: 1000 3 32 32 (3072000)
I0430 16:55:22.664085 18515 net.cpp:131] Top shape: 1000 (1000)
I0430 16:55:22.664089 18515 net.cpp:139] Memory required for data: 12292000
I0430 16:55:22.664095 18515 layer_factory.hpp:77] Creating layer label_cifar_1_split
I0430 16:55:22.664115 18515 net.cpp:86] Creating Layer label_cifar_1_split
I0430 16:55:22.664120 18515 net.cpp:408] label_cifar_1_split <- label
I0430 16:55:22.664127 18515 net.cpp:382] label_cifar_1_split -> label_cifar_1_split_0
I0430 16:55:22.664137 18515 net.cpp:382] label_cifar_1_split -> label_cifar_1_split_1
I0430 16:55:22.664257 18515 net.cpp:124] Setting up label_cifar_1_split
I0430 16:55:22.664266 18515 net.cpp:131] Top shape: 1000 (1000)
I0430 16:55:22.664270 18515 net.cpp:131] Top shape: 1000 (1000)
I0430 16:55:22.664274 18515 net.cpp:139] Memory required for data: 12300000
I0430 16:55:22.664278 18515 layer_factory.hpp:77] Creating layer ip1
I0430 16:55:22.664290 18515 net.cpp:86] Creating Layer ip1
I0430 16:55:22.664294 18515 net.cpp:408] ip1 <- data
I0430 16:55:22.664299 18515 net.cpp:382] ip1 -> ip1
I0430 16:55:22.668531 18515 net.cpp:124] Setting up ip1
I0430 16:55:22.668543 18515 net.cpp:131] Top shape: 1000 40 (40000)
I0430 16:55:22.668547 18515 net.cpp:139] Memory required for data: 12460000
I0430 16:55:22.668558 18515 layer_factory.hpp:77] Creating layer relu1
I0430 16:55:22.668566 18515 net.cpp:86] Creating Layer relu1
I0430 16:55:22.668570 18515 net.cpp:408] relu1 <- ip1
I0430 16:55:22.668577 18515 net.cpp:369] relu1 -> ip1 (in-place)
I0430 16:55:22.668807 18515 net.cpp:124] Setting up relu1
I0430 16:55:22.668826 18515 net.cpp:131] Top shape: 1000 40 (40000)
I0430 16:55:22.668830 18515 net.cpp:139] Memory required for data: 12620000
I0430 16:55:22.668834 18515 layer_factory.hpp:77] Creating layer ip2
I0430 16:55:22.668844 18515 net.cpp:86] Creating Layer ip2
I0430 16:55:22.668848 18515 net.cpp:408] ip2 <- ip1
I0430 16:55:22.668855 18515 net.cpp:382] ip2 -> ip2
I0430 16:55:22.669091 18515 net.cpp:124] Setting up ip2
I0430 16:55:22.669101 18515 net.cpp:131] Top shape: 1000 80 (80000)
I0430 16:55:22.669106 18515 net.cpp:139] Memory required for data: 12940000
I0430 16:55:22.669114 18515 layer_factory.hpp:77] Creating layer relu2
I0430 16:55:22.669121 18515 net.cpp:86] Creating Layer relu2
I0430 16:55:22.669124 18515 net.cpp:408] relu2 <- ip2
I0430 16:55:22.669131 18515 net.cpp:369] relu2 -> ip2 (in-place)
I0430 16:55:22.670065 18515 net.cpp:124] Setting up relu2
I0430 16:55:22.670081 18515 net.cpp:131] Top shape: 1000 80 (80000)
I0430 16:55:22.670085 18515 net.cpp:139] Memory required for data: 13260000
I0430 16:55:22.670089 18515 layer_factory.hpp:77] Creating layer ip3
I0430 16:55:22.670099 18515 net.cpp:86] Creating Layer ip3
I0430 16:55:22.670102 18515 net.cpp:408] ip3 <- ip2
I0430 16:55:22.670110 18515 net.cpp:382] ip3 -> ip3
I0430 16:55:22.670271 18515 net.cpp:124] Setting up ip3
I0430 16:55:22.670280 18515 net.cpp:131] Top shape: 1000 10 (10000)
I0430 16:55:22.670284 18515 net.cpp:139] Memory required for data: 13300000
I0430 16:55:22.670311 18515 layer_factory.hpp:77] Creating layer ip3_ip3_0_split
I0430 16:55:22.670320 18515 net.cpp:86] Creating Layer ip3_ip3_0_split
I0430 16:55:22.670323 18515 net.cpp:408] ip3_ip3_0_split <- ip3
I0430 16:55:22.670328 18515 net.cpp:382] ip3_ip3_0_split -> ip3_ip3_0_split_0
I0430 16:55:22.670336 18515 net.cpp:382] ip3_ip3_0_split -> ip3_ip3_0_split_1
I0430 16:55:22.670378 18515 net.cpp:124] Setting up ip3_ip3_0_split
I0430 16:55:22.670387 18515 net.cpp:131] Top shape: 1000 10 (10000)
I0430 16:55:22.670392 18515 net.cpp:131] Top shape: 1000 10 (10000)
I0430 16:55:22.670394 18515 net.cpp:139] Memory required for data: 13380000
I0430 16:55:22.670397 18515 layer_factory.hpp:77] Creating layer accuracy
I0430 16:55:22.670406 18515 net.cpp:86] Creating Layer accuracy
I0430 16:55:22.670410 18515 net.cpp:408] accuracy <- ip3_ip3_0_split_0
I0430 16:55:22.670415 18515 net.cpp:408] accuracy <- label_cifar_1_split_0
I0430 16:55:22.670420 18515 net.cpp:382] accuracy -> accuracy
…
