…
I0430 21:35:00.244115 31193 net.cpp:296] The NetState phase (0) differed from the phase (1) specified by a rule in layer cifar
I0430 21:35:00.244133 31193 net.cpp:296] The NetState phase (0) differed from the phase (1) specified by a rule in layer accuracy
I0430 21:35:00.244225 31193 net.cpp:53] Initializing net from parameters: 
name: "CIFAR"
state {
  phase: TRAIN
  level: 0
  stage: ""
}
layer {
  name: "cifar"
  type: "Data"
  top: "data"
  top: "label"
  include {
    phase: TRAIN
  }
  transform_param {
    mean_file: "examples/cifar10/mean.binaryproto"
  }
  data_param {
    source: "examples/cifar10/cifar10_train_lmdb"
    batch_size: 111
    backend: LMDB
  }
}
layer {
  name: "conv0"
  type: "Convolution"
  bottom: "data"
  top: "conv0"
  param {
    lr_mult: 1
  }
  param {
    lr_mult: 2
  }
  convolution_param {
    num_output: 8
    pad: 2
    kernel_size: 3
    stride: 1
    weight_filler {
      type: "gaussian"
      std: 0.01
    }
    bias_filler {
      type: "constant"
    }
  }
}
layer {
  name: "Sigmoid0"
  type: "Sigmoid"
  bottom: "conv0"
  top: "Sigmoid0"
}
layer {
  name: "pool0"
  type: "Pooling"
  bottom: "Sigmoid0"
  top: "pool0"
  pooling_param {
    pool: AVE
    kernel_size: 3
    stride: 2
  }
}
layer {
  name: "ip1"
  type: "InnerProduct"
  bottom: "pool0"
  top: "ip1"
  param {
    lr_mult: 1
  }
  param {
    lr_mult: 2
  }
  inner_product_param {
    num_output: 20
    weight_filler {
      type: "gaussian"
      std: 0.01
    }
    bias_filler {
      type: "constant"
    }
  }
}
layer {
  name: "relu1"
  type: "ReLU"
  bottom: "ip1"
  top: "ip1"
}
layer {
  name: "ip2"
  type: "InnerProduct"
  bottom: "ip1"
  top: "ip2"
  param {
    lr_mult: 1
  }
  param {
    lr_mult: 2
  }
  inner_product_param {
    num_output: 20
    weight_filler {
      type: "gaussian"
      std: 0.01
    }
    bias_filler {
      type: "constant"
    }
  }
}
layer {
  name: "relu2"
  type: "ReLU"
  bottom: "ip2"
  top: "ip2"
}
layer {
  name: "ip3"
  type: "InnerProduct"
  bottom: "ip2"
  top: "ip3"
  param {
    lr_mult: 1
  }
  param {
    lr_mult: 2
  }
  inner_product_param {
    num_output: 10
    weight_filler {
      type: "gaussian"
      std: 0.01
    }
    bias_filler {
      type: "constant"
    }
  }
}
layer {
  name: "loss"
  type: "SoftmaxWithLoss"
  bottom: "ip3"
  bottom: "label"
  top: "loss"
}
I0430 21:35:00.244300 31193 layer_factory.hpp:77] Creating layer cifar
I0430 21:35:00.244400 31193 db_lmdb.cpp:35] Opened lmdb examples/cifar10/cifar10_train_lmdb
I0430 21:35:00.244427 31193 net.cpp:86] Creating Layer cifar
I0430 21:35:00.244436 31193 net.cpp:382] cifar -> data
I0430 21:35:00.244458 31193 net.cpp:382] cifar -> label
I0430 21:35:00.244470 31193 data_transformer.cpp:25] Loading mean file from: examples/cifar10/mean.binaryproto
I0430 21:35:00.246626 31193 data_layer.cpp:45] output data size: 111,3,32,32
I0430 21:35:00.254600 31193 net.cpp:124] Setting up cifar
I0430 21:35:00.254618 31193 net.cpp:131] Top shape: 111 3 32 32 (340992)
I0430 21:35:00.254626 31193 net.cpp:131] Top shape: 111 (111)
I0430 21:35:00.254629 31193 net.cpp:139] Memory required for data: 1364412
I0430 21:35:00.254637 31193 layer_factory.hpp:77] Creating layer conv0
I0430 21:35:00.254655 31193 net.cpp:86] Creating Layer conv0
I0430 21:35:00.254662 31193 net.cpp:408] conv0 <- data
I0430 21:35:00.254674 31193 net.cpp:382] conv0 -> conv0
I0430 21:35:00.545802 31193 net.cpp:124] Setting up conv0
I0430 21:35:00.545853 31193 net.cpp:131] Top shape: 111 8 34 34 (1026528)
I0430 21:35:00.545858 31193 net.cpp:139] Memory required for data: 5470524
I0430 21:35:00.545876 31193 layer_factory.hpp:77] Creating layer Sigmoid0
I0430 21:35:00.545888 31193 net.cpp:86] Creating Layer Sigmoid0
I0430 21:35:00.545892 31193 net.cpp:408] Sigmoid0 <- conv0
I0430 21:35:00.545898 31193 net.cpp:382] Sigmoid0 -> Sigmoid0
I0430 21:35:00.546102 31193 net.cpp:124] Setting up Sigmoid0
I0430 21:35:00.546113 31193 net.cpp:131] Top shape: 111 8 34 34 (1026528)
I0430 21:35:00.546116 31193 net.cpp:139] Memory required for data: 9576636
I0430 21:35:00.546120 31193 layer_factory.hpp:77] Creating layer pool0
I0430 21:35:00.546128 31193 net.cpp:86] Creating Layer pool0
I0430 21:35:00.546131 31193 net.cpp:408] pool0 <- Sigmoid0
I0430 21:35:00.546136 31193 net.cpp:382] pool0 -> pool0
I0430 21:35:00.546955 31193 net.cpp:124] Setting up pool0
I0430 21:35:00.546970 31193 net.cpp:131] Top shape: 111 8 17 17 (256632)
I0430 21:35:00.546975 31193 net.cpp:139] Memory required for data: 10603164
I0430 21:35:00.546978 31193 layer_factory.hpp:77] Creating layer ip1
I0430 21:35:00.546988 31193 net.cpp:86] Creating Layer ip1
I0430 21:35:00.546993 31193 net.cpp:408] ip1 <- pool0
I0430 21:35:00.546998 31193 net.cpp:382] ip1 -> ip1
I0430 21:35:00.549432 31193 net.cpp:124] Setting up ip1
I0430 21:35:00.549446 31193 net.cpp:131] Top shape: 111 20 (2220)
I0430 21:35:00.549450 31193 net.cpp:139] Memory required for data: 10612044
I0430 21:35:00.549460 31193 layer_factory.hpp:77] Creating layer relu1
I0430 21:35:00.549466 31193 net.cpp:86] Creating Layer relu1
I0430 21:35:00.549470 31193 net.cpp:408] relu1 <- ip1
I0430 21:35:00.549475 31193 net.cpp:369] relu1 -> ip1 (in-place)
I0430 21:35:00.549664 31193 net.cpp:124] Setting up relu1
I0430 21:35:00.549674 31193 net.cpp:131] Top shape: 111 20 (2220)
I0430 21:35:00.549676 31193 net.cpp:139] Memory required for data: 10620924
I0430 21:35:00.549680 31193 layer_factory.hpp:77] Creating layer ip2
I0430 21:35:00.549687 31193 net.cpp:86] Creating Layer ip2
I0430 21:35:00.549690 31193 net.cpp:408] ip2 <- ip1
I0430 21:35:00.549697 31193 net.cpp:382] ip2 -> ip2
I0430 21:35:00.550710 31193 net.cpp:124] Setting up ip2
I0430 21:35:00.550724 31193 net.cpp:131] Top shape: 111 20 (2220)
I0430 21:35:00.550727 31193 net.cpp:139] Memory required for data: 10629804
I0430 21:35:00.550736 31193 layer_factory.hpp:77] Creating layer relu2
I0430 21:35:00.550743 31193 net.cpp:86] Creating Layer relu2
I0430 21:35:00.550746 31193 net.cpp:408] relu2 <- ip2
I0430 21:35:00.550752 31193 net.cpp:369] relu2 -> ip2 (in-place)
I0430 21:35:00.550945 31193 net.cpp:124] Setting up relu2
I0430 21:35:00.550954 31193 net.cpp:131] Top shape: 111 20 (2220)
I0430 21:35:00.550957 31193 net.cpp:139] Memory required for data: 10638684
I0430 21:35:00.550961 31193 layer_factory.hpp:77] Creating layer ip3
I0430 21:35:00.550971 31193 net.cpp:86] Creating Layer ip3
I0430 21:35:00.550973 31193 net.cpp:408] ip3 <- ip2
I0430 21:35:00.550979 31193 net.cpp:382] ip3 -> ip3
I0430 21:35:00.551095 31193 net.cpp:124] Setting up ip3
I0430 21:35:00.551101 31193 net.cpp:131] Top shape: 111 10 (1110)
I0430 21:35:00.551105 31193 net.cpp:139] Memory required for data: 10643124
I0430 21:35:00.551110 31193 layer_factory.hpp:77] Creating layer loss
I0430 21:35:00.551116 31193 net.cpp:86] Creating Layer loss
I0430 21:35:00.551120 31193 net.cpp:408] loss <- ip3
I0430 21:35:00.551123 31193 net.cpp:408] loss <- label
I0430 21:35:00.551131 31193 net.cpp:382] loss -> loss
I0430 21:35:00.551146 31193 layer_factory.hpp:77] Creating layer loss
…
I0430 21:35:00.551815 31193 solver.cpp:173] Creating test net (#0) specified by net file: ECE595/cifar/train_test/var_everything/cifar_train_test_166.prototxt
I0430 21:35:00.551843 31193 net.cpp:296] The NetState phase (1) differed from the phase (0) specified by a rule in layer cifar
I0430 21:35:00.551939 31193 net.cpp:53] Initializing net from parameters: 
name: "CIFAR"
state {
  phase: TEST
}
layer {
  name: "cifar"
  type: "Data"
  top: "data"
  top: "label"
  include {
    phase: TEST
  }
  transform_param {
    mean_file: "examples/cifar10/mean.binaryproto"
  }
  data_param {
    source: "examples/cifar10/cifar10_test_lmdb"
    batch_size: 1000
    backend: LMDB
  }
}
layer {
  name: "conv0"
  type: "Convolution"
  bottom: "data"
  top: "conv0"
  param {
    lr_mult: 1
  }
  param {
    lr_mult: 2
  }
  convolution_param {
    num_output: 8
    pad: 2
    kernel_size: 3
    stride: 1
    weight_filler {
      type: "gaussian"
      std: 0.01
    }
    bias_filler {
      type: "constant"
    }
  }
}
layer {
  name: "Sigmoid0"
  type: "Sigmoid"
  bottom: "conv0"
  top: "Sigmoid0"
}
layer {
  name: "pool0"
  type: "Pooling"
  bottom: "Sigmoid0"
  top: "pool0"
  pooling_param {
    pool: AVE
    kernel_size: 3
    stride: 2
  }
}
layer {
  name: "ip1"
  type: "InnerProduct"
  bottom: "pool0"
  top: "ip1"
  param {
    lr_mult: 1
  }
  param {
    lr_mult: 2
  }
  inner_product_param {
    num_output: 20
    weight_filler {
      type: "gaussian"
      std: 0.01
    }
    bias_filler {
      type: "constant"
    }
  }
}
layer {
  name: "relu1"
  type: "ReLU"
  bottom: "ip1"
  top: "ip1"
}
layer {
  name: "ip2"
  type: "InnerProduct"
  bottom: "ip1"
  top: "ip2"
  param {
    lr_mult: 1
  }
  param {
    lr_mult: 2
  }
  inner_product_param {
    num_output: 20
    weight_filler {
      type: "gaussian"
      std: 0.01
    }
    bias_filler {
      type: "constant"
    }
  }
}
layer {
  name: "relu2"
  type: "ReLU"
  bottom: "ip2"
  top: "ip2"
}
layer {
  name: "ip3"
  type: "InnerProduct"
  bottom: "ip2"
  top: "ip3"
  param {
    lr_mult: 1
  }
  param {
    lr_mult: 2
  }
  inner_product_param {
    num_output: 10
    weight_filler {
      type: "gaussian"
      std: 0.01
    }
    bias_filler {
      type: "constant"
    }
  }
}
layer {
  name: "accuracy"
  type: "Accuracy"
  bottom: "ip3"
  bottom: "label"
  top: "accuracy"
  include {
    phase: TEST
  }
}
layer {
  name: "loss"
  type: "SoftmaxWithLoss"
  bottom: "ip3"
  bottom: "label"
  top: "loss"
}
I0430 21:35:00.552013 31193 layer_factory.hpp:77] Creating layer cifar
I0430 21:35:00.552065 31193 db_lmdb.cpp:35] Opened lmdb examples/cifar10/cifar10_test_lmdb
I0430 21:35:00.552078 31193 net.cpp:86] Creating Layer cifar
I0430 21:35:00.552084 31193 net.cpp:382] cifar -> data
I0430 21:35:00.552093 31193 net.cpp:382] cifar -> label
I0430 21:35:00.552099 31193 data_transformer.cpp:25] Loading mean file from: examples/cifar10/mean.binaryproto
I0430 21:35:00.552266 31193 data_layer.cpp:45] output data size: 1000,3,32,32
I0430 21:35:00.575415 31193 net.cpp:124] Setting up cifar
I0430 21:35:00.575443 31193 net.cpp:131] Top shape: 1000 3 32 32 (3072000)
I0430 21:35:00.575449 31193 net.cpp:131] Top shape: 1000 (1000)
I0430 21:35:00.575453 31193 net.cpp:139] Memory required for data: 12292000
I0430 21:35:00.575459 31193 layer_factory.hpp:77] Creating layer label_cifar_1_split
I0430 21:35:00.575470 31193 net.cpp:86] Creating Layer label_cifar_1_split
I0430 21:35:00.575491 31193 net.cpp:408] label_cifar_1_split <- label
I0430 21:35:00.575498 31193 net.cpp:382] label_cifar_1_split -> label_cifar_1_split_0
I0430 21:35:00.575507 31193 net.cpp:382] label_cifar_1_split -> label_cifar_1_split_1
I0430 21:35:00.575628 31193 net.cpp:124] Setting up label_cifar_1_split
I0430 21:35:00.575636 31193 net.cpp:131] Top shape: 1000 (1000)
I0430 21:35:00.575640 31193 net.cpp:131] Top shape: 1000 (1000)
I0430 21:35:00.575644 31193 net.cpp:139] Memory required for data: 12300000
I0430 21:35:00.575646 31193 layer_factory.hpp:77] Creating layer conv0
I0430 21:35:00.575660 31193 net.cpp:86] Creating Layer conv0
I0430 21:35:00.575664 31193 net.cpp:408] conv0 <- data
I0430 21:35:00.575670 31193 net.cpp:382] conv0 -> conv0
I0430 21:35:00.577347 31193 net.cpp:124] Setting up conv0
I0430 21:35:00.577360 31193 net.cpp:131] Top shape: 1000 8 34 34 (9248000)
I0430 21:35:00.577364 31193 net.cpp:139] Memory required for data: 49292000
I0430 21:35:00.577373 31193 layer_factory.hpp:77] Creating layer Sigmoid0
I0430 21:35:00.577381 31193 net.cpp:86] Creating Layer Sigmoid0
I0430 21:35:00.577384 31193 net.cpp:408] Sigmoid0 <- conv0
I0430 21:35:00.577389 31193 net.cpp:382] Sigmoid0 -> Sigmoid0
I0430 21:35:00.579267 31193 net.cpp:124] Setting up Sigmoid0
I0430 21:35:00.579280 31193 net.cpp:131] Top shape: 1000 8 34 34 (9248000)
I0430 21:35:00.579284 31193 net.cpp:139] Memory required for data: 86284000
I0430 21:35:00.579288 31193 layer_factory.hpp:77] Creating layer pool0
I0430 21:35:00.579296 31193 net.cpp:86] Creating Layer pool0
I0430 21:35:00.579301 31193 net.cpp:408] pool0 <- Sigmoid0
I0430 21:35:00.579306 31193 net.cpp:382] pool0 -> pool0
I0430 21:35:00.579512 31193 net.cpp:124] Setting up pool0
I0430 21:35:00.579522 31193 net.cpp:131] Top shape: 1000 8 17 17 (2312000)
I0430 21:35:00.579525 31193 net.cpp:139] Memory required for data: 95532000
I0430 21:35:00.579529 31193 layer_factory.hpp:77] Creating layer ip1
I0430 21:35:00.579538 31193 net.cpp:86] Creating Layer ip1
I0430 21:35:00.579541 31193 net.cpp:408] ip1 <- pool0
I0430 21:35:00.579547 31193 net.cpp:382] ip1 -> ip1
I0430 21:35:00.580989 31193 net.cpp:124] Setting up ip1
I0430 21:35:00.580998 31193 net.cpp:131] Top shape: 1000 20 (20000)
I0430 21:35:00.581017 31193 net.cpp:139] Memory required for data: 95612000
I0430 21:35:00.581025 31193 layer_factory.hpp:77] Creating layer relu1
I0430 21:35:00.581033 31193 net.cpp:86] Creating Layer relu1
I0430 21:35:00.581037 31193 net.cpp:408] relu1 <- ip1
I0430 21:35:00.581043 31193 net.cpp:369] relu1 -> ip1 (in-place)
I0430 21:35:00.581235 31193 net.cpp:124] Setting up relu1
I0430 21:35:00.581245 31193 net.cpp:131] Top shape: 1000 20 (20000)
I0430 21:35:00.581249 31193 net.cpp:139] Memory required for data: 95692000
I0430 21:35:00.581252 31193 layer_factory.hpp:77] Creating layer ip2
I0430 21:35:00.581259 31193 net.cpp:86] Creating Layer ip2
I0430 21:35:00.581262 31193 net.cpp:408] ip2 <- ip1
I0430 21:35:00.581269 31193 net.cpp:382] ip2 -> ip2
I0430 21:35:00.581384 31193 net.cpp:124] Setting up ip2
I0430 21:35:00.581392 31193 net.cpp:131] Top shape: 1000 20 (20000)
I0430 21:35:00.581394 31193 net.cpp:139] Memory required for data: 95772000
I0430 21:35:00.581401 31193 layer_factory.hpp:77] Creating layer relu2
I0430 21:35:00.581408 31193 net.cpp:86] Creating Layer relu2
I0430 21:35:00.581411 31193 net.cpp:408] relu2 <- ip2
I0430 21:35:00.581416 31193 net.cpp:369] relu2 -> ip2 (in-place)
I0430 21:35:00.581578 31193 net.cpp:124] Setting up relu2
I0430 21:35:00.581585 31193 net.cpp:131] Top shape: 1000 20 (20000)
I0430 21:35:00.581588 31193 net.cpp:139] Memory required for data: 95852000
I0430 21:35:00.581591 31193 layer_factory.hpp:77] Creating layer ip3
I0430 21:35:00.581599 31193 net.cpp:86] Creating Layer ip3
I0430 21:35:00.581603 31193 net.cpp:408] ip3 <- ip2
I0430 21:35:00.581607 31193 net.cpp:382] ip3 -> ip3
I0430 21:35:00.581717 31193 net.cpp:124] Setting up ip3
I0430 21:35:00.581724 31193 net.cpp:131] Top shape: 1000 10 (10000)
I0430 21:35:00.581727 31193 net.cpp:139] Memory required for data: 95892000
I0430 21:35:00.581743 31193 layer_factory.hpp:77] Creating layer ip3_ip3_0_split
I0430 21:35:00.581748 31193 net.cpp:86] Creating Layer ip3_ip3_0_split
I0430 21:35:00.581750 31193 net.cpp:408] ip3_ip3_0_split <- ip3
I0430 21:35:00.581755 31193 net.cpp:382] ip3_ip3_0_split -> ip3_ip3_0_split_0
I0430 21:35:00.581761 31193 net.cpp:382] ip3_ip3_0_split -> ip3_ip3_0_split_1
I0430 21:35:00.581794 31193 net.cpp:124] Setting up ip3_ip3_0_split
I0430 21:35:00.581797 31193 net.cpp:131] Top shape: 1000 10 (10000)
I0430 21:35:00.581801 31193 net.cpp:131] Top shape: 1000 10 (10000)
I0430 21:35:00.581804 31193 net.cpp:139] Memory required for data: 95972000
I0430 21:35:00.581806 31193 layer_factory.hpp:77] Creating layer accuracy
I0430 21:35:00.581812 31193 net.cpp:86] Creating Layer accuracy
I0430 21:35:00.581815 31193 net.cpp:408] accuracy <- ip3_ip3_0_split_0
I0430 21:35:00.581820 31193 net.cpp:408] accuracy <- label_cifar_1_split_0
I0430 21:35:00.581823 31193 net.cpp:382] accuracy -> accuracy
…
