…
I0501 07:31:19.898807  5357 net.cpp:296] The NetState phase (0) differed from the phase (1) specified by a rule in layer cifar
I0501 07:31:19.898824  5357 net.cpp:296] The NetState phase (0) differed from the phase (1) specified by a rule in layer accuracy
I0501 07:31:19.898913  5357 net.cpp:53] Initializing net from parameters: 
name: "CIFAR"
state {
  phase: TRAIN
  level: 0
  stage: ""
}
layer {
  name: "cifar"
  type: "Data"
  top: "data"
  top: "label"
  include {
    phase: TRAIN
  }
  transform_param {
    mean_file: "examples/cifar10/mean.binaryproto"
  }
  data_param {
    source: "examples/cifar10/cifar10_train_lmdb"
    batch_size: 111
    backend: LMDB
  }
}
layer {
  name: "conv0"
  type: "Convolution"
  bottom: "data"
  top: "conv0"
  param {
    lr_mult: 1
  }
  param {
    lr_mult: 2
  }
  convolution_param {
    num_output: 16
    pad: 2
    kernel_size: 3
    stride: 1
    weight_filler {
      type: "gaussian"
      std: 0.01
    }
    bias_filler {
      type: "constant"
    }
  }
}
layer {
  name: "Sigmoid0"
  type: "Sigmoid"
  bottom: "conv0"
  top: "Sigmoid0"
}
layer {
  name: "pool0"
  type: "Pooling"
  bottom: "Sigmoid0"
  top: "pool0"
  pooling_param {
    pool: AVE
    kernel_size: 3
    stride: 2
  }
}
layer {
  name: "ip1"
  type: "InnerProduct"
  bottom: "pool0"
  top: "ip1"
  param {
    lr_mult: 1
  }
  param {
    lr_mult: 2
  }
  inner_product_param {
    num_output: 40
    weight_filler {
      type: "gaussian"
      std: 0.01
    }
    bias_filler {
      type: "constant"
    }
  }
}
layer {
  name: "relu1"
  type: "ReLU"
  bottom: "ip1"
  top: "ip1"
}
layer {
  name: "ip2"
  type: "InnerProduct"
  bottom: "ip1"
  top: "ip2"
  param {
    lr_mult: 1
  }
  param {
    lr_mult: 2
  }
  inner_product_param {
    num_output: 160
    weight_filler {
      type: "gaussian"
      std: 0.01
    }
    bias_filler {
      type: "constant"
    }
  }
}
layer {
  name: "relu2"
  type: "ReLU"
  bottom: "ip2"
  top: "ip2"
}
layer {
  name: "ip3"
  type: "InnerProduct"
  bottom: "ip2"
  top: "ip3"
  param {
    lr_mult: 1
  }
  param {
    lr_mult: 2
  }
  inner_product_param {
    num_output: 10
    weight_filler {
      type: "gaussian"
      std: 0.01
    }
    bias_filler {
      type: "constant"
    }
  }
}
layer {
  name: "loss"
  type: "SoftmaxWithLoss"
  bottom: "ip3"
  bottom: "label"
  top: "loss"
}
I0501 07:31:19.898993  5357 layer_factory.hpp:77] Creating layer cifar
I0501 07:31:19.899091  5357 db_lmdb.cpp:35] Opened lmdb examples/cifar10/cifar10_train_lmdb
I0501 07:31:19.899119  5357 net.cpp:86] Creating Layer cifar
I0501 07:31:19.899127  5357 net.cpp:382] cifar -> data
I0501 07:31:19.899150  5357 net.cpp:382] cifar -> label
I0501 07:31:19.899163  5357 data_transformer.cpp:25] Loading mean file from: examples/cifar10/mean.binaryproto
I0501 07:31:19.901314  5357 data_layer.cpp:45] output data size: 111,3,32,32
I0501 07:31:19.909325  5357 net.cpp:124] Setting up cifar
I0501 07:31:19.909344  5357 net.cpp:131] Top shape: 111 3 32 32 (340992)
I0501 07:31:19.909351  5357 net.cpp:131] Top shape: 111 (111)
I0501 07:31:19.909355  5357 net.cpp:139] Memory required for data: 1364412
I0501 07:31:19.909363  5357 layer_factory.hpp:77] Creating layer conv0
I0501 07:31:19.909382  5357 net.cpp:86] Creating Layer conv0
I0501 07:31:19.909389  5357 net.cpp:408] conv0 <- data
I0501 07:31:19.909400  5357 net.cpp:382] conv0 -> conv0
I0501 07:31:20.201021  5357 net.cpp:124] Setting up conv0
I0501 07:31:20.201074  5357 net.cpp:131] Top shape: 111 16 34 34 (2053056)
I0501 07:31:20.201081  5357 net.cpp:139] Memory required for data: 9576636
I0501 07:31:20.201098  5357 layer_factory.hpp:77] Creating layer Sigmoid0
I0501 07:31:20.201112  5357 net.cpp:86] Creating Layer Sigmoid0
I0501 07:31:20.201118  5357 net.cpp:408] Sigmoid0 <- conv0
I0501 07:31:20.201124  5357 net.cpp:382] Sigmoid0 -> Sigmoid0
I0501 07:31:20.201339  5357 net.cpp:124] Setting up Sigmoid0
I0501 07:31:20.201350  5357 net.cpp:131] Top shape: 111 16 34 34 (2053056)
I0501 07:31:20.201354  5357 net.cpp:139] Memory required for data: 17788860
I0501 07:31:20.201359  5357 layer_factory.hpp:77] Creating layer pool0
I0501 07:31:20.201366  5357 net.cpp:86] Creating Layer pool0
I0501 07:31:20.201370  5357 net.cpp:408] pool0 <- Sigmoid0
I0501 07:31:20.201376  5357 net.cpp:382] pool0 -> pool0
I0501 07:31:20.202252  5357 net.cpp:124] Setting up pool0
I0501 07:31:20.202270  5357 net.cpp:131] Top shape: 111 16 17 17 (513264)
I0501 07:31:20.202275  5357 net.cpp:139] Memory required for data: 19841916
I0501 07:31:20.202278  5357 layer_factory.hpp:77] Creating layer ip1
I0501 07:31:20.202289  5357 net.cpp:86] Creating Layer ip1
I0501 07:31:20.202293  5357 net.cpp:408] ip1 <- pool0
I0501 07:31:20.202301  5357 net.cpp:382] ip1 -> ip1
I0501 07:31:20.209506  5357 net.cpp:124] Setting up ip1
I0501 07:31:20.209522  5357 net.cpp:131] Top shape: 111 40 (4440)
I0501 07:31:20.209527  5357 net.cpp:139] Memory required for data: 19859676
I0501 07:31:20.209537  5357 layer_factory.hpp:77] Creating layer relu1
I0501 07:31:20.209543  5357 net.cpp:86] Creating Layer relu1
I0501 07:31:20.209547  5357 net.cpp:408] relu1 <- ip1
I0501 07:31:20.209553  5357 net.cpp:369] relu1 -> ip1 (in-place)
I0501 07:31:20.209740  5357 net.cpp:124] Setting up relu1
I0501 07:31:20.209751  5357 net.cpp:131] Top shape: 111 40 (4440)
I0501 07:31:20.209754  5357 net.cpp:139] Memory required for data: 19877436
I0501 07:31:20.209758  5357 layer_factory.hpp:77] Creating layer ip2
I0501 07:31:20.209766  5357 net.cpp:86] Creating Layer ip2
I0501 07:31:20.209770  5357 net.cpp:408] ip2 <- ip1
I0501 07:31:20.209776  5357 net.cpp:382] ip2 -> ip2
I0501 07:31:20.211082  5357 net.cpp:124] Setting up ip2
I0501 07:31:20.211097  5357 net.cpp:131] Top shape: 111 160 (17760)
I0501 07:31:20.211102  5357 net.cpp:139] Memory required for data: 19948476
I0501 07:31:20.211112  5357 layer_factory.hpp:77] Creating layer relu2
I0501 07:31:20.211119  5357 net.cpp:86] Creating Layer relu2
I0501 07:31:20.211123  5357 net.cpp:408] relu2 <- ip2
I0501 07:31:20.211129  5357 net.cpp:369] relu2 -> ip2 (in-place)
I0501 07:31:20.211324  5357 net.cpp:124] Setting up relu2
I0501 07:31:20.211334  5357 net.cpp:131] Top shape: 111 160 (17760)
I0501 07:31:20.211338  5357 net.cpp:139] Memory required for data: 20019516
I0501 07:31:20.211341  5357 layer_factory.hpp:77] Creating layer ip3
I0501 07:31:20.211350  5357 net.cpp:86] Creating Layer ip3
I0501 07:31:20.211354  5357 net.cpp:408] ip3 <- ip2
I0501 07:31:20.211360  5357 net.cpp:382] ip3 -> ip3
I0501 07:31:20.211526  5357 net.cpp:124] Setting up ip3
I0501 07:31:20.211535  5357 net.cpp:131] Top shape: 111 10 (1110)
I0501 07:31:20.211539  5357 net.cpp:139] Memory required for data: 20023956
I0501 07:31:20.211545  5357 layer_factory.hpp:77] Creating layer loss
I0501 07:31:20.211558  5357 net.cpp:86] Creating Layer loss
I0501 07:31:20.211562  5357 net.cpp:408] loss <- ip3
I0501 07:31:20.211566  5357 net.cpp:408] loss <- label
I0501 07:31:20.211573  5357 net.cpp:382] loss -> loss
I0501 07:31:20.211588  5357 layer_factory.hpp:77] Creating layer loss
…
I0501 07:31:20.212307  5357 solver.cpp:173] Creating test net (#0) specified by net file: ECE595/cifar/train_test/var_everything/cifar_train_test_484.prototxt
I0501 07:31:20.212337  5357 net.cpp:296] The NetState phase (1) differed from the phase (0) specified by a rule in layer cifar
I0501 07:31:20.212440  5357 net.cpp:53] Initializing net from parameters: 
name: "CIFAR"
state {
  phase: TEST
}
layer {
  name: "cifar"
  type: "Data"
  top: "data"
  top: "label"
  include {
    phase: TEST
  }
  transform_param {
    mean_file: "examples/cifar10/mean.binaryproto"
  }
  data_param {
    source: "examples/cifar10/cifar10_test_lmdb"
    batch_size: 1000
    backend: LMDB
  }
}
layer {
  name: "conv0"
  type: "Convolution"
  bottom: "data"
  top: "conv0"
  param {
    lr_mult: 1
  }
  param {
    lr_mult: 2
  }
  convolution_param {
    num_output: 16
    pad: 2
    kernel_size: 3
    stride: 1
    weight_filler {
      type: "gaussian"
      std: 0.01
    }
    bias_filler {
      type: "constant"
    }
  }
}
layer {
  name: "Sigmoid0"
  type: "Sigmoid"
  bottom: "conv0"
  top: "Sigmoid0"
}
layer {
  name: "pool0"
  type: "Pooling"
  bottom: "Sigmoid0"
  top: "pool0"
  pooling_param {
    pool: AVE
    kernel_size: 3
    stride: 2
  }
}
layer {
  name: "ip1"
  type: "InnerProduct"
  bottom: "pool0"
  top: "ip1"
  param {
    lr_mult: 1
  }
  param {
    lr_mult: 2
  }
  inner_product_param {
    num_output: 40
    weight_filler {
      type: "gaussian"
      std: 0.01
    }
    bias_filler {
      type: "constant"
    }
  }
}
layer {
  name: "relu1"
  type: "ReLU"
  bottom: "ip1"
  top: "ip1"
}
layer {
  name: "ip2"
  type: "InnerProduct"
  bottom: "ip1"
  top: "ip2"
  param {
    lr_mult: 1
  }
  param {
    lr_mult: 2
  }
  inner_product_param {
    num_output: 160
    weight_filler {
      type: "gaussian"
      std: 0.01
    }
    bias_filler {
      type: "constant"
    }
  }
}
layer {
  name: "relu2"
  type: "ReLU"
  bottom: "ip2"
  top: "ip2"
}
layer {
  name: "ip3"
  type: "InnerProduct"
  bottom: "ip2"
  top: "ip3"
  param {
    lr_mult: 1
  }
  param {
    lr_mult: 2
  }
  inner_product_param {
    num_output: 10
    weight_filler {
      type: "gaussian"
      std: 0.01
    }
    bias_filler {
      type: "constant"
    }
  }
}
layer {
  name: "accuracy"
  type: "Accuracy"
  bottom: "ip3"
  bottom: "label"
  top: "accuracy"
  include {
    phase: TEST
  }
}
layer {
  name: "loss"
  type: "SoftmaxWithLoss"
  bottom: "ip3"
  bottom: "label"
  top: "loss"
}
I0501 07:31:20.212514  5357 layer_factory.hpp:77] Creating layer cifar
I0501 07:31:20.212568  5357 db_lmdb.cpp:35] Opened lmdb examples/cifar10/cifar10_test_lmdb
I0501 07:31:20.212582  5357 net.cpp:86] Creating Layer cifar
I0501 07:31:20.212589  5357 net.cpp:382] cifar -> data
I0501 07:31:20.212597  5357 net.cpp:382] cifar -> label
I0501 07:31:20.212605  5357 data_transformer.cpp:25] Loading mean file from: examples/cifar10/mean.binaryproto
I0501 07:31:20.212775  5357 data_layer.cpp:45] output data size: 1000,3,32,32
I0501 07:31:20.238934  5357 net.cpp:124] Setting up cifar
I0501 07:31:20.238965  5357 net.cpp:131] Top shape: 1000 3 32 32 (3072000)
I0501 07:31:20.238971  5357 net.cpp:131] Top shape: 1000 (1000)
I0501 07:31:20.238976  5357 net.cpp:139] Memory required for data: 12292000
I0501 07:31:20.238982  5357 layer_factory.hpp:77] Creating layer label_cifar_1_split
I0501 07:31:20.238996  5357 net.cpp:86] Creating Layer label_cifar_1_split
I0501 07:31:20.239020  5357 net.cpp:408] label_cifar_1_split <- label
I0501 07:31:20.239028  5357 net.cpp:382] label_cifar_1_split -> label_cifar_1_split_0
I0501 07:31:20.239040  5357 net.cpp:382] label_cifar_1_split -> label_cifar_1_split_1
I0501 07:31:20.239128  5357 net.cpp:124] Setting up label_cifar_1_split
I0501 07:31:20.239137  5357 net.cpp:131] Top shape: 1000 (1000)
I0501 07:31:20.239142  5357 net.cpp:131] Top shape: 1000 (1000)
I0501 07:31:20.239145  5357 net.cpp:139] Memory required for data: 12300000
I0501 07:31:20.239150  5357 layer_factory.hpp:77] Creating layer conv0
I0501 07:31:20.239164  5357 net.cpp:86] Creating Layer conv0
I0501 07:31:20.239167  5357 net.cpp:408] conv0 <- data
I0501 07:31:20.239174  5357 net.cpp:382] conv0 -> conv0
I0501 07:31:20.241016  5357 net.cpp:124] Setting up conv0
I0501 07:31:20.241034  5357 net.cpp:131] Top shape: 1000 16 34 34 (18496000)
I0501 07:31:20.241039  5357 net.cpp:139] Memory required for data: 86284000
I0501 07:31:20.241050  5357 layer_factory.hpp:77] Creating layer Sigmoid0
I0501 07:31:20.241058  5357 net.cpp:86] Creating Layer Sigmoid0
I0501 07:31:20.241065  5357 net.cpp:408] Sigmoid0 <- conv0
I0501 07:31:20.241070  5357 net.cpp:382] Sigmoid0 -> Sigmoid0
I0501 07:31:20.243057  5357 net.cpp:124] Setting up Sigmoid0
I0501 07:31:20.243075  5357 net.cpp:131] Top shape: 1000 16 34 34 (18496000)
I0501 07:31:20.243082  5357 net.cpp:139] Memory required for data: 160268000
I0501 07:31:20.243085  5357 layer_factory.hpp:77] Creating layer pool0
I0501 07:31:20.243096  5357 net.cpp:86] Creating Layer pool0
I0501 07:31:20.243100  5357 net.cpp:408] pool0 <- Sigmoid0
I0501 07:31:20.243108  5357 net.cpp:382] pool0 -> pool0
I0501 07:31:20.243320  5357 net.cpp:124] Setting up pool0
I0501 07:31:20.243330  5357 net.cpp:131] Top shape: 1000 16 17 17 (4624000)
I0501 07:31:20.243335  5357 net.cpp:139] Memory required for data: 178764000
I0501 07:31:20.243338  5357 layer_factory.hpp:77] Creating layer ip1
I0501 07:31:20.243347  5357 net.cpp:86] Creating Layer ip1
I0501 07:31:20.243351  5357 net.cpp:408] ip1 <- pool0
I0501 07:31:20.243357  5357 net.cpp:382] ip1 -> ip1
I0501 07:31:20.249617  5357 net.cpp:124] Setting up ip1
I0501 07:31:20.249629  5357 net.cpp:131] Top shape: 1000 40 (40000)
I0501 07:31:20.249632  5357 net.cpp:139] Memory required for data: 178924000
I0501 07:31:20.249642  5357 layer_factory.hpp:77] Creating layer relu1
I0501 07:31:20.249650  5357 net.cpp:86] Creating Layer relu1
I0501 07:31:20.249653  5357 net.cpp:408] relu1 <- ip1
I0501 07:31:20.249660  5357 net.cpp:369] relu1 -> ip1 (in-place)
I0501 07:31:20.249845  5357 net.cpp:124] Setting up relu1
I0501 07:31:20.249861  5357 net.cpp:131] Top shape: 1000 40 (40000)
I0501 07:31:20.249866  5357 net.cpp:139] Memory required for data: 179084000
I0501 07:31:20.249869  5357 layer_factory.hpp:77] Creating layer ip2
I0501 07:31:20.249876  5357 net.cpp:86] Creating Layer ip2
I0501 07:31:20.249881  5357 net.cpp:408] ip2 <- ip1
I0501 07:31:20.249886  5357 net.cpp:382] ip2 -> ip2
I0501 07:31:20.250216  5357 net.cpp:124] Setting up ip2
I0501 07:31:20.250224  5357 net.cpp:131] Top shape: 1000 160 (160000)
I0501 07:31:20.250228  5357 net.cpp:139] Memory required for data: 179724000
I0501 07:31:20.250236  5357 layer_factory.hpp:77] Creating layer relu2
I0501 07:31:20.250244  5357 net.cpp:86] Creating Layer relu2
I0501 07:31:20.250248  5357 net.cpp:408] relu2 <- ip2
I0501 07:31:20.250253  5357 net.cpp:369] relu2 -> ip2 (in-place)
I0501 07:31:20.250437  5357 net.cpp:124] Setting up relu2
I0501 07:31:20.250444  5357 net.cpp:131] Top shape: 1000 160 (160000)
I0501 07:31:20.250448  5357 net.cpp:139] Memory required for data: 180364000
I0501 07:31:20.250453  5357 layer_factory.hpp:77] Creating layer ip3
I0501 07:31:20.250460  5357 net.cpp:86] Creating Layer ip3
I0501 07:31:20.250464  5357 net.cpp:408] ip3 <- ip2
I0501 07:31:20.250470  5357 net.cpp:382] ip3 -> ip3
I0501 07:31:20.250648  5357 net.cpp:124] Setting up ip3
I0501 07:31:20.250656  5357 net.cpp:131] Top shape: 1000 10 (10000)
I0501 07:31:20.250674  5357 net.cpp:139] Memory required for data: 180404000
I0501 07:31:20.250681  5357 layer_factory.hpp:77] Creating layer ip3_ip3_0_split
I0501 07:31:20.250687  5357 net.cpp:86] Creating Layer ip3_ip3_0_split
I0501 07:31:20.250691  5357 net.cpp:408] ip3_ip3_0_split <- ip3
I0501 07:31:20.250696  5357 net.cpp:382] ip3_ip3_0_split -> ip3_ip3_0_split_0
I0501 07:31:20.250704  5357 net.cpp:382] ip3_ip3_0_split -> ip3_ip3_0_split_1
I0501 07:31:20.250741  5357 net.cpp:124] Setting up ip3_ip3_0_split
I0501 07:31:20.250747  5357 net.cpp:131] Top shape: 1000 10 (10000)
I0501 07:31:20.250752  5357 net.cpp:131] Top shape: 1000 10 (10000)
I0501 07:31:20.250756  5357 net.cpp:139] Memory required for data: 180484000
I0501 07:31:20.250759  5357 layer_factory.hpp:77] Creating layer accuracy
I0501 07:31:20.250766  5357 net.cpp:86] Creating Layer accuracy
I0501 07:31:20.250771  5357 net.cpp:408] accuracy <- ip3_ip3_0_split_0
I0501 07:31:20.250775  5357 net.cpp:408] accuracy <- label_cifar_1_split_0
I0501 07:31:20.250782  5357 net.cpp:382] accuracy -> accuracy
…
