…
I0430 21:23:44.307454 30742 net.cpp:296] The NetState phase (0) differed from the phase (1) specified by a rule in layer cifar
I0430 21:23:44.307471 30742 net.cpp:296] The NetState phase (0) differed from the phase (1) specified by a rule in layer accuracy
I0430 21:23:44.307562 30742 net.cpp:53] Initializing net from parameters: 
name: "CIFAR"
state {
  phase: TRAIN
  level: 0
  stage: ""
}
layer {
  name: "cifar"
  type: "Data"
  top: "data"
  top: "label"
  include {
    phase: TRAIN
  }
  transform_param {
    mean_file: "examples/cifar10/mean.binaryproto"
  }
  data_param {
    source: "examples/cifar10/cifar10_train_lmdb"
    batch_size: 111
    backend: LMDB
  }
}
layer {
  name: "conv0"
  type: "Convolution"
  bottom: "data"
  top: "conv0"
  param {
    lr_mult: 1
  }
  param {
    lr_mult: 2
  }
  convolution_param {
    num_output: 8
    pad: 2
    kernel_size: 3
    stride: 1
    weight_filler {
      type: "gaussian"
      std: 0.01
    }
    bias_filler {
      type: "constant"
    }
  }
}
layer {
  name: "Sigmoid0"
  type: "Sigmoid"
  bottom: "conv0"
  top: "Sigmoid0"
}
layer {
  name: "pool0"
  type: "Pooling"
  bottom: "Sigmoid0"
  top: "pool0"
  pooling_param {
    pool: AVE
    kernel_size: 3
    stride: 2
  }
}
layer {
  name: "ip1"
  type: "InnerProduct"
  bottom: "pool0"
  top: "ip1"
  param {
    lr_mult: 1
  }
  param {
    lr_mult: 2
  }
  inner_product_param {
    num_output: 10
    weight_filler {
      type: "gaussian"
      std: 0.01
    }
    bias_filler {
      type: "constant"
    }
  }
}
layer {
  name: "relu1"
  type: "ReLU"
  bottom: "ip1"
  top: "ip1"
}
layer {
  name: "ip2"
  type: "InnerProduct"
  bottom: "ip1"
  top: "ip2"
  param {
    lr_mult: 1
  }
  param {
    lr_mult: 2
  }
  inner_product_param {
    num_output: 10
    weight_filler {
      type: "gaussian"
      std: 0.01
    }
    bias_filler {
      type: "constant"
    }
  }
}
layer {
  name: "relu2"
  type: "ReLU"
  bottom: "ip2"
  top: "ip2"
}
layer {
  name: "ip3"
  type: "InnerProduct"
  bottom: "ip2"
  top: "ip3"
  param {
    lr_mult: 1
  }
  param {
    lr_mult: 2
  }
  inner_product_param {
    num_output: 10
    weight_filler {
      type: "gaussian"
      std: 0.01
    }
    bias_filler {
      type: "constant"
    }
  }
}
layer {
  name: "loss"
  type: "SoftmaxWithLoss"
  bottom: "ip3"
  bottom: "label"
  top: "loss"
}
I0430 21:23:44.307638 30742 layer_factory.hpp:77] Creating layer cifar
I0430 21:23:44.307739 30742 db_lmdb.cpp:35] Opened lmdb examples/cifar10/cifar10_train_lmdb
I0430 21:23:44.307770 30742 net.cpp:86] Creating Layer cifar
I0430 21:23:44.307780 30742 net.cpp:382] cifar -> data
I0430 21:23:44.307806 30742 net.cpp:382] cifar -> label
I0430 21:23:44.307819 30742 data_transformer.cpp:25] Loading mean file from: examples/cifar10/mean.binaryproto
I0430 21:23:44.309942 30742 data_layer.cpp:45] output data size: 111,3,32,32
I0430 21:23:44.317904 30742 net.cpp:124] Setting up cifar
I0430 21:23:44.317925 30742 net.cpp:131] Top shape: 111 3 32 32 (340992)
I0430 21:23:44.317932 30742 net.cpp:131] Top shape: 111 (111)
I0430 21:23:44.317935 30742 net.cpp:139] Memory required for data: 1364412
I0430 21:23:44.317944 30742 layer_factory.hpp:77] Creating layer conv0
I0430 21:23:44.317962 30742 net.cpp:86] Creating Layer conv0
I0430 21:23:44.317967 30742 net.cpp:408] conv0 <- data
I0430 21:23:44.317980 30742 net.cpp:382] conv0 -> conv0
I0430 21:23:44.600240 30742 net.cpp:124] Setting up conv0
I0430 21:23:44.600284 30742 net.cpp:131] Top shape: 111 8 34 34 (1026528)
I0430 21:23:44.600288 30742 net.cpp:139] Memory required for data: 5470524
I0430 21:23:44.600303 30742 layer_factory.hpp:77] Creating layer Sigmoid0
I0430 21:23:44.600316 30742 net.cpp:86] Creating Layer Sigmoid0
I0430 21:23:44.600319 30742 net.cpp:408] Sigmoid0 <- conv0
I0430 21:23:44.600324 30742 net.cpp:382] Sigmoid0 -> Sigmoid0
I0430 21:23:44.600517 30742 net.cpp:124] Setting up Sigmoid0
I0430 21:23:44.600528 30742 net.cpp:131] Top shape: 111 8 34 34 (1026528)
I0430 21:23:44.600530 30742 net.cpp:139] Memory required for data: 9576636
I0430 21:23:44.600548 30742 layer_factory.hpp:77] Creating layer pool0
I0430 21:23:44.600572 30742 net.cpp:86] Creating Layer pool0
I0430 21:23:44.600576 30742 net.cpp:408] pool0 <- Sigmoid0
I0430 21:23:44.600580 30742 net.cpp:382] pool0 -> pool0
I0430 21:23:44.601359 30742 net.cpp:124] Setting up pool0
I0430 21:23:44.601372 30742 net.cpp:131] Top shape: 111 8 17 17 (256632)
I0430 21:23:44.601375 30742 net.cpp:139] Memory required for data: 10603164
I0430 21:23:44.601379 30742 layer_factory.hpp:77] Creating layer ip1
I0430 21:23:44.601388 30742 net.cpp:86] Creating Layer ip1
I0430 21:23:44.601392 30742 net.cpp:408] ip1 <- pool0
I0430 21:23:44.601397 30742 net.cpp:382] ip1 -> ip1
I0430 21:23:44.602902 30742 net.cpp:124] Setting up ip1
I0430 21:23:44.602915 30742 net.cpp:131] Top shape: 111 10 (1110)
I0430 21:23:44.602917 30742 net.cpp:139] Memory required for data: 10607604
I0430 21:23:44.602926 30742 layer_factory.hpp:77] Creating layer relu1
I0430 21:23:44.602931 30742 net.cpp:86] Creating Layer relu1
I0430 21:23:44.602934 30742 net.cpp:408] relu1 <- ip1
I0430 21:23:44.602939 30742 net.cpp:369] relu1 -> ip1 (in-place)
I0430 21:23:44.603087 30742 net.cpp:124] Setting up relu1
I0430 21:23:44.603096 30742 net.cpp:131] Top shape: 111 10 (1110)
I0430 21:23:44.603098 30742 net.cpp:139] Memory required for data: 10612044
I0430 21:23:44.603101 30742 layer_factory.hpp:77] Creating layer ip2
I0430 21:23:44.603108 30742 net.cpp:86] Creating Layer ip2
I0430 21:23:44.603111 30742 net.cpp:408] ip2 <- ip1
I0430 21:23:44.603116 30742 net.cpp:382] ip2 -> ip2
I0430 21:23:44.603205 30742 net.cpp:124] Setting up ip2
I0430 21:23:44.603212 30742 net.cpp:131] Top shape: 111 10 (1110)
I0430 21:23:44.603215 30742 net.cpp:139] Memory required for data: 10616484
I0430 21:23:44.603222 30742 layer_factory.hpp:77] Creating layer relu2
I0430 21:23:44.603227 30742 net.cpp:86] Creating Layer relu2
I0430 21:23:44.603230 30742 net.cpp:408] relu2 <- ip2
I0430 21:23:44.603235 30742 net.cpp:369] relu2 -> ip2 (in-place)
I0430 21:23:44.603379 30742 net.cpp:124] Setting up relu2
I0430 21:23:44.603386 30742 net.cpp:131] Top shape: 111 10 (1110)
I0430 21:23:44.603389 30742 net.cpp:139] Memory required for data: 10620924
I0430 21:23:44.603392 30742 layer_factory.hpp:77] Creating layer ip3
I0430 21:23:44.603400 30742 net.cpp:86] Creating Layer ip3
I0430 21:23:44.603404 30742 net.cpp:408] ip3 <- ip2
I0430 21:23:44.603408 30742 net.cpp:382] ip3 -> ip3
I0430 21:23:44.603494 30742 net.cpp:124] Setting up ip3
I0430 21:23:44.603502 30742 net.cpp:131] Top shape: 111 10 (1110)
I0430 21:23:44.603504 30742 net.cpp:139] Memory required for data: 10625364
I0430 21:23:44.603509 30742 layer_factory.hpp:77] Creating layer loss
I0430 21:23:44.603514 30742 net.cpp:86] Creating Layer loss
I0430 21:23:44.603518 30742 net.cpp:408] loss <- ip3
I0430 21:23:44.603521 30742 net.cpp:408] loss <- label
I0430 21:23:44.603526 30742 net.cpp:382] loss -> loss
I0430 21:23:44.603543 30742 layer_factory.hpp:77] Creating layer loss
…
I0430 21:23:44.604171 30742 solver.cpp:173] Creating test net (#0) specified by net file: ECE595/cifar/train_test/var_everything/cifar_train_test_160.prototxt
I0430 21:23:44.604197 30742 net.cpp:296] The NetState phase (1) differed from the phase (0) specified by a rule in layer cifar
I0430 21:23:44.604290 30742 net.cpp:53] Initializing net from parameters: 
name: "CIFAR"
state {
  phase: TEST
}
layer {
  name: "cifar"
  type: "Data"
  top: "data"
  top: "label"
  include {
    phase: TEST
  }
  transform_param {
    mean_file: "examples/cifar10/mean.binaryproto"
  }
  data_param {
    source: "examples/cifar10/cifar10_test_lmdb"
    batch_size: 1000
    backend: LMDB
  }
}
layer {
  name: "conv0"
  type: "Convolution"
  bottom: "data"
  top: "conv0"
  param {
    lr_mult: 1
  }
  param {
    lr_mult: 2
  }
  convolution_param {
    num_output: 8
    pad: 2
    kernel_size: 3
    stride: 1
    weight_filler {
      type: "gaussian"
      std: 0.01
    }
    bias_filler {
      type: "constant"
    }
  }
}
layer {
  name: "Sigmoid0"
  type: "Sigmoid"
  bottom: "conv0"
  top: "Sigmoid0"
}
layer {
  name: "pool0"
  type: "Pooling"
  bottom: "Sigmoid0"
  top: "pool0"
  pooling_param {
    pool: AVE
    kernel_size: 3
    stride: 2
  }
}
layer {
  name: "ip1"
  type: "InnerProduct"
  bottom: "pool0"
  top: "ip1"
  param {
    lr_mult: 1
  }
  param {
    lr_mult: 2
  }
  inner_product_param {
    num_output: 10
    weight_filler {
      type: "gaussian"
      std: 0.01
    }
    bias_filler {
      type: "constant"
    }
  }
}
layer {
  name: "relu1"
  type: "ReLU"
  bottom: "ip1"
  top: "ip1"
}
layer {
  name: "ip2"
  type: "InnerProduct"
  bottom: "ip1"
  top: "ip2"
  param {
    lr_mult: 1
  }
  param {
    lr_mult: 2
  }
  inner_product_param {
    num_output: 10
    weight_filler {
      type: "gaussian"
      std: 0.01
    }
    bias_filler {
      type: "constant"
    }
  }
}
layer {
  name: "relu2"
  type: "ReLU"
  bottom: "ip2"
  top: "ip2"
}
layer {
  name: "ip3"
  type: "InnerProduct"
  bottom: "ip2"
  top: "ip3"
  param {
    lr_mult: 1
  }
  param {
    lr_mult: 2
  }
  inner_product_param {
    num_output: 10
    weight_filler {
      type: "gaussian"
      std: 0.01
    }
    bias_filler {
      type: "constant"
    }
  }
}
layer {
  name: "accuracy"
  type: "Accuracy"
  bottom: "ip3"
  bottom: "label"
  top: "accuracy"
  include {
    phase: TEST
  }
}
layer {
  name: "loss"
  type: "SoftmaxWithLoss"
  bottom: "ip3"
  bottom: "label"
  top: "loss"
}
I0430 21:23:44.604356 30742 layer_factory.hpp:77] Creating layer cifar
I0430 21:23:44.604429 30742 db_lmdb.cpp:35] Opened lmdb examples/cifar10/cifar10_test_lmdb
I0430 21:23:44.604442 30742 net.cpp:86] Creating Layer cifar
I0430 21:23:44.604449 30742 net.cpp:382] cifar -> data
I0430 21:23:44.604472 30742 net.cpp:382] cifar -> label
I0430 21:23:44.604478 30742 data_transformer.cpp:25] Loading mean file from: examples/cifar10/mean.binaryproto
I0430 21:23:44.604620 30742 data_layer.cpp:45] output data size: 1000,3,32,32
I0430 21:23:44.627557 30742 net.cpp:124] Setting up cifar
I0430 21:23:44.627614 30742 net.cpp:131] Top shape: 1000 3 32 32 (3072000)
I0430 21:23:44.627619 30742 net.cpp:131] Top shape: 1000 (1000)
I0430 21:23:44.627622 30742 net.cpp:139] Memory required for data: 12292000
I0430 21:23:44.627629 30742 layer_factory.hpp:77] Creating layer label_cifar_1_split
I0430 21:23:44.627640 30742 net.cpp:86] Creating Layer label_cifar_1_split
I0430 21:23:44.627662 30742 net.cpp:408] label_cifar_1_split <- label
I0430 21:23:44.627668 30742 net.cpp:382] label_cifar_1_split -> label_cifar_1_split_0
I0430 21:23:44.627677 30742 net.cpp:382] label_cifar_1_split -> label_cifar_1_split_1
I0430 21:23:44.627758 30742 net.cpp:124] Setting up label_cifar_1_split
I0430 21:23:44.627765 30742 net.cpp:131] Top shape: 1000 (1000)
I0430 21:23:44.627769 30742 net.cpp:131] Top shape: 1000 (1000)
I0430 21:23:44.627773 30742 net.cpp:139] Memory required for data: 12300000
I0430 21:23:44.627775 30742 layer_factory.hpp:77] Creating layer conv0
I0430 21:23:44.627787 30742 net.cpp:86] Creating Layer conv0
I0430 21:23:44.627790 30742 net.cpp:408] conv0 <- data
I0430 21:23:44.627795 30742 net.cpp:382] conv0 -> conv0
I0430 21:23:44.629334 30742 net.cpp:124] Setting up conv0
I0430 21:23:44.629362 30742 net.cpp:131] Top shape: 1000 8 34 34 (9248000)
I0430 21:23:44.629366 30742 net.cpp:139] Memory required for data: 49292000
I0430 21:23:44.629391 30742 layer_factory.hpp:77] Creating layer Sigmoid0
I0430 21:23:44.629397 30742 net.cpp:86] Creating Layer Sigmoid0
I0430 21:23:44.629401 30742 net.cpp:408] Sigmoid0 <- conv0
I0430 21:23:44.629406 30742 net.cpp:382] Sigmoid0 -> Sigmoid0
I0430 21:23:44.630229 30742 net.cpp:124] Setting up Sigmoid0
I0430 21:23:44.630241 30742 net.cpp:131] Top shape: 1000 8 34 34 (9248000)
I0430 21:23:44.630245 30742 net.cpp:139] Memory required for data: 86284000
I0430 21:23:44.630249 30742 layer_factory.hpp:77] Creating layer pool0
I0430 21:23:44.630259 30742 net.cpp:86] Creating Layer pool0
I0430 21:23:44.630264 30742 net.cpp:408] pool0 <- Sigmoid0
I0430 21:23:44.630269 30742 net.cpp:382] pool0 -> pool0
I0430 21:23:44.631543 30742 net.cpp:124] Setting up pool0
I0430 21:23:44.631569 30742 net.cpp:131] Top shape: 1000 8 17 17 (2312000)
I0430 21:23:44.631572 30742 net.cpp:139] Memory required for data: 95532000
I0430 21:23:44.631592 30742 layer_factory.hpp:77] Creating layer ip1
I0430 21:23:44.631600 30742 net.cpp:86] Creating Layer ip1
I0430 21:23:44.631603 30742 net.cpp:408] ip1 <- pool0
I0430 21:23:44.631609 30742 net.cpp:382] ip1 -> ip1
I0430 21:23:44.632370 30742 net.cpp:124] Setting up ip1
I0430 21:23:44.632378 30742 net.cpp:131] Top shape: 1000 10 (10000)
I0430 21:23:44.632381 30742 net.cpp:139] Memory required for data: 95572000
I0430 21:23:44.632390 30742 layer_factory.hpp:77] Creating layer relu1
I0430 21:23:44.632395 30742 net.cpp:86] Creating Layer relu1
I0430 21:23:44.632400 30742 net.cpp:408] relu1 <- ip1
I0430 21:23:44.632405 30742 net.cpp:369] relu1 -> ip1 (in-place)
I0430 21:23:44.632567 30742 net.cpp:124] Setting up relu1
I0430 21:23:44.632576 30742 net.cpp:131] Top shape: 1000 10 (10000)
I0430 21:23:44.632580 30742 net.cpp:139] Memory required for data: 95612000
I0430 21:23:44.632582 30742 layer_factory.hpp:77] Creating layer ip2
I0430 21:23:44.632589 30742 net.cpp:86] Creating Layer ip2
I0430 21:23:44.632592 30742 net.cpp:408] ip2 <- ip1
I0430 21:23:44.632599 30742 net.cpp:382] ip2 -> ip2
I0430 21:23:44.632707 30742 net.cpp:124] Setting up ip2
I0430 21:23:44.632714 30742 net.cpp:131] Top shape: 1000 10 (10000)
I0430 21:23:44.632717 30742 net.cpp:139] Memory required for data: 95652000
I0430 21:23:44.632725 30742 layer_factory.hpp:77] Creating layer relu2
I0430 21:23:44.632730 30742 net.cpp:86] Creating Layer relu2
I0430 21:23:44.632735 30742 net.cpp:408] relu2 <- ip2
I0430 21:23:44.632740 30742 net.cpp:369] relu2 -> ip2 (in-place)
I0430 21:23:44.632971 30742 net.cpp:124] Setting up relu2
I0430 21:23:44.632980 30742 net.cpp:131] Top shape: 1000 10 (10000)
I0430 21:23:44.632984 30742 net.cpp:139] Memory required for data: 95692000
I0430 21:23:44.632987 30742 layer_factory.hpp:77] Creating layer ip3
I0430 21:23:44.632995 30742 net.cpp:86] Creating Layer ip3
I0430 21:23:44.632998 30742 net.cpp:408] ip3 <- ip2
I0430 21:23:44.633007 30742 net.cpp:382] ip3 -> ip3
I0430 21:23:44.633121 30742 net.cpp:124] Setting up ip3
I0430 21:23:44.633131 30742 net.cpp:131] Top shape: 1000 10 (10000)
I0430 21:23:44.633148 30742 net.cpp:139] Memory required for data: 95732000
I0430 21:23:44.633193 30742 layer_factory.hpp:77] Creating layer ip3_ip3_0_split
I0430 21:23:44.633199 30742 net.cpp:86] Creating Layer ip3_ip3_0_split
I0430 21:23:44.633203 30742 net.cpp:408] ip3_ip3_0_split <- ip3
I0430 21:23:44.633206 30742 net.cpp:382] ip3_ip3_0_split -> ip3_ip3_0_split_0
I0430 21:23:44.633211 30742 net.cpp:382] ip3_ip3_0_split -> ip3_ip3_0_split_1
I0430 21:23:44.633245 30742 net.cpp:124] Setting up ip3_ip3_0_split
I0430 21:23:44.633250 30742 net.cpp:131] Top shape: 1000 10 (10000)
I0430 21:23:44.633254 30742 net.cpp:131] Top shape: 1000 10 (10000)
I0430 21:23:44.633256 30742 net.cpp:139] Memory required for data: 95812000
I0430 21:23:44.633260 30742 layer_factory.hpp:77] Creating layer accuracy
I0430 21:23:44.633265 30742 net.cpp:86] Creating Layer accuracy
I0430 21:23:44.633268 30742 net.cpp:408] accuracy <- ip3_ip3_0_split_0
I0430 21:23:44.633272 30742 net.cpp:408] accuracy <- label_cifar_1_split_0
I0430 21:23:44.633277 30742 net.cpp:382] accuracy -> accuracy
…
