…
I0501 01:37:01.035732 11344 net.cpp:296] The NetState phase (0) differed from the phase (1) specified by a rule in layer cifar
I0501 01:37:01.035749 11344 net.cpp:296] The NetState phase (0) differed from the phase (1) specified by a rule in layer accuracy
I0501 01:37:01.035856 11344 net.cpp:53] Initializing net from parameters: 
name: "CIFAR"
state {
  phase: TRAIN
  level: 0
  stage: ""
}
layer {
  name: "cifar"
  type: "Data"
  top: "data"
  top: "label"
  include {
    phase: TRAIN
  }
  transform_param {
    mean_file: "examples/cifar10/mean.binaryproto"
  }
  data_param {
    source: "examples/cifar10/cifar10_train_lmdb"
    batch_size: 111
    backend: LMDB
  }
}
layer {
  name: "conv0"
  type: "Convolution"
  bottom: "data"
  top: "conv0"
  param {
    lr_mult: 1
  }
  param {
    lr_mult: 2
  }
  convolution_param {
    num_output: 8
    pad: 2
    kernel_size: 3
    stride: 1
    weight_filler {
      type: "gaussian"
      std: 0.01
    }
    bias_filler {
      type: "constant"
    }
  }
}
layer {
  name: "Sigmoid0"
  type: "Sigmoid"
  bottom: "conv0"
  top: "Sigmoid0"
}
layer {
  name: "pool0"
  type: "Pooling"
  bottom: "Sigmoid0"
  top: "pool0"
  pooling_param {
    pool: AVE
    kernel_size: 3
    stride: 2
  }
}
layer {
  name: "ip1"
  type: "InnerProduct"
  bottom: "pool0"
  top: "ip1"
  param {
    lr_mult: 1
  }
  param {
    lr_mult: 2
  }
  inner_product_param {
    num_output: 160
    weight_filler {
      type: "gaussian"
      std: 0.01
    }
    bias_filler {
      type: "constant"
    }
  }
}
layer {
  name: "relu1"
  type: "ReLU"
  bottom: "ip1"
  top: "ip1"
}
layer {
  name: "ip2"
  type: "InnerProduct"
  bottom: "ip1"
  top: "ip2"
  param {
    lr_mult: 1
  }
  param {
    lr_mult: 2
  }
  inner_product_param {
    num_output: 40
    weight_filler {
      type: "gaussian"
      std: 0.01
    }
    bias_filler {
      type: "constant"
    }
  }
}
layer {
  name: "relu2"
  type: "ReLU"
  bottom: "ip2"
  top: "ip2"
}
layer {
  name: "ip3"
  type: "InnerProduct"
  bottom: "ip2"
  top: "ip3"
  param {
    lr_mult: 1
  }
  param {
    lr_mult: 2
  }
  inner_product_param {
    num_output: 10
    weight_filler {
      type: "gaussian"
      std: 0.01
    }
    bias_filler {
      type: "constant"
    }
  }
}
layer {
  name: "relu3"
  type: "ReLU"
  bottom: "ip3"
  top: "ip3"
}
layer {
  name: "ip4"
  type: "InnerProduct"
  bottom: "ip3"
  top: "ip4"
  param {
    lr_mult: 1
  }
  param {
    lr_mult: 2
  }
  inner_product_param {
    num_output: 10
    weight_filler {
      type: "gaussian"
      std: 0.01
    }
    bias_filler {
      type: "constant"
    }
  }
}
layer {
  name: "loss"
  type: "SoftmaxWithLoss"
  bottom: "ip4"
  bottom: "label"
  top: "loss"
}
I0501 01:37:01.035936 11344 layer_factory.hpp:77] Creating layer cifar
I0501 01:37:01.036037 11344 db_lmdb.cpp:35] Opened lmdb examples/cifar10/cifar10_train_lmdb
I0501 01:37:01.036065 11344 net.cpp:86] Creating Layer cifar
I0501 01:37:01.036077 11344 net.cpp:382] cifar -> data
I0501 01:37:01.036099 11344 net.cpp:382] cifar -> label
I0501 01:37:01.036111 11344 data_transformer.cpp:25] Loading mean file from: examples/cifar10/mean.binaryproto
I0501 01:37:01.038242 11344 data_layer.cpp:45] output data size: 111,3,32,32
I0501 01:37:01.046142 11344 net.cpp:124] Setting up cifar
I0501 01:37:01.046162 11344 net.cpp:131] Top shape: 111 3 32 32 (340992)
I0501 01:37:01.046169 11344 net.cpp:131] Top shape: 111 (111)
I0501 01:37:01.046172 11344 net.cpp:139] Memory required for data: 1364412
I0501 01:37:01.046195 11344 layer_factory.hpp:77] Creating layer conv0
I0501 01:37:01.046213 11344 net.cpp:86] Creating Layer conv0
I0501 01:37:01.046219 11344 net.cpp:408] conv0 <- data
I0501 01:37:01.046232 11344 net.cpp:382] conv0 -> conv0
I0501 01:37:01.318456 11344 net.cpp:124] Setting up conv0
I0501 01:37:01.318485 11344 net.cpp:131] Top shape: 111 8 34 34 (1026528)
I0501 01:37:01.318488 11344 net.cpp:139] Memory required for data: 5470524
I0501 01:37:01.318502 11344 layer_factory.hpp:77] Creating layer Sigmoid0
I0501 01:37:01.318514 11344 net.cpp:86] Creating Layer Sigmoid0
I0501 01:37:01.318518 11344 net.cpp:408] Sigmoid0 <- conv0
I0501 01:37:01.318523 11344 net.cpp:382] Sigmoid0 -> Sigmoid0
I0501 01:37:01.318706 11344 net.cpp:124] Setting up Sigmoid0
I0501 01:37:01.318714 11344 net.cpp:131] Top shape: 111 8 34 34 (1026528)
I0501 01:37:01.318718 11344 net.cpp:139] Memory required for data: 9576636
I0501 01:37:01.318722 11344 layer_factory.hpp:77] Creating layer pool0
I0501 01:37:01.318727 11344 net.cpp:86] Creating Layer pool0
I0501 01:37:01.318732 11344 net.cpp:408] pool0 <- Sigmoid0
I0501 01:37:01.318735 11344 net.cpp:382] pool0 -> pool0
I0501 01:37:01.319489 11344 net.cpp:124] Setting up pool0
I0501 01:37:01.319502 11344 net.cpp:131] Top shape: 111 8 17 17 (256632)
I0501 01:37:01.319505 11344 net.cpp:139] Memory required for data: 10603164
I0501 01:37:01.319509 11344 layer_factory.hpp:77] Creating layer ip1
I0501 01:37:01.319519 11344 net.cpp:86] Creating Layer ip1
I0501 01:37:01.319521 11344 net.cpp:408] ip1 <- pool0
I0501 01:37:01.319526 11344 net.cpp:382] ip1 -> ip1
I0501 01:37:01.330102 11344 net.cpp:124] Setting up ip1
I0501 01:37:01.330114 11344 net.cpp:131] Top shape: 111 160 (17760)
I0501 01:37:01.330117 11344 net.cpp:139] Memory required for data: 10674204
I0501 01:37:01.330126 11344 layer_factory.hpp:77] Creating layer relu1
I0501 01:37:01.330130 11344 net.cpp:86] Creating Layer relu1
I0501 01:37:01.330134 11344 net.cpp:408] relu1 <- ip1
I0501 01:37:01.330138 11344 net.cpp:369] relu1 -> ip1 (in-place)
I0501 01:37:01.330299 11344 net.cpp:124] Setting up relu1
I0501 01:37:01.330307 11344 net.cpp:131] Top shape: 111 160 (17760)
I0501 01:37:01.330312 11344 net.cpp:139] Memory required for data: 10745244
I0501 01:37:01.330314 11344 layer_factory.hpp:77] Creating layer ip2
I0501 01:37:01.330320 11344 net.cpp:86] Creating Layer ip2
I0501 01:37:01.330323 11344 net.cpp:408] ip2 <- ip1
I0501 01:37:01.330328 11344 net.cpp:382] ip2 -> ip2
I0501 01:37:01.331383 11344 net.cpp:124] Setting up ip2
I0501 01:37:01.331395 11344 net.cpp:131] Top shape: 111 40 (4440)
I0501 01:37:01.331398 11344 net.cpp:139] Memory required for data: 10763004
I0501 01:37:01.331406 11344 layer_factory.hpp:77] Creating layer relu2
I0501 01:37:01.331411 11344 net.cpp:86] Creating Layer relu2
I0501 01:37:01.331414 11344 net.cpp:408] relu2 <- ip2
I0501 01:37:01.331418 11344 net.cpp:369] relu2 -> ip2 (in-place)
I0501 01:37:01.331588 11344 net.cpp:124] Setting up relu2
I0501 01:37:01.331596 11344 net.cpp:131] Top shape: 111 40 (4440)
I0501 01:37:01.331599 11344 net.cpp:139] Memory required for data: 10780764
I0501 01:37:01.331603 11344 layer_factory.hpp:77] Creating layer ip3
I0501 01:37:01.331610 11344 net.cpp:86] Creating Layer ip3
I0501 01:37:01.331614 11344 net.cpp:408] ip3 <- ip2
I0501 01:37:01.331619 11344 net.cpp:382] ip3 -> ip3
I0501 01:37:01.332550 11344 net.cpp:124] Setting up ip3
I0501 01:37:01.332561 11344 net.cpp:131] Top shape: 111 10 (1110)
I0501 01:37:01.332563 11344 net.cpp:139] Memory required for data: 10785204
I0501 01:37:01.332569 11344 layer_factory.hpp:77] Creating layer relu3
I0501 01:37:01.332574 11344 net.cpp:86] Creating Layer relu3
I0501 01:37:01.332577 11344 net.cpp:408] relu3 <- ip3
I0501 01:37:01.332581 11344 net.cpp:369] relu3 -> ip3 (in-place)
I0501 01:37:01.332746 11344 net.cpp:124] Setting up relu3
I0501 01:37:01.332754 11344 net.cpp:131] Top shape: 111 10 (1110)
I0501 01:37:01.332757 11344 net.cpp:139] Memory required for data: 10789644
I0501 01:37:01.332762 11344 layer_factory.hpp:77] Creating layer ip4
I0501 01:37:01.332783 11344 net.cpp:86] Creating Layer ip4
I0501 01:37:01.332787 11344 net.cpp:408] ip4 <- ip3
I0501 01:37:01.332792 11344 net.cpp:382] ip4 -> ip4
I0501 01:37:01.332928 11344 net.cpp:124] Setting up ip4
I0501 01:37:01.332937 11344 net.cpp:131] Top shape: 111 10 (1110)
I0501 01:37:01.332940 11344 net.cpp:139] Memory required for data: 10794084
I0501 01:37:01.332948 11344 layer_factory.hpp:77] Creating layer loss
I0501 01:37:01.332954 11344 net.cpp:86] Creating Layer loss
I0501 01:37:01.332957 11344 net.cpp:408] loss <- ip4
I0501 01:37:01.332962 11344 net.cpp:408] loss <- label
I0501 01:37:01.332983 11344 net.cpp:382] loss -> loss
I0501 01:37:01.332999 11344 layer_factory.hpp:77] Creating layer loss
…
I0501 01:37:01.334261 11344 solver.cpp:173] Creating test net (#0) specified by net file: ECE595/cifar/train_test/var_everything/cifar_train_test_295.prototxt
I0501 01:37:01.334305 11344 net.cpp:296] The NetState phase (1) differed from the phase (0) specified by a rule in layer cifar
I0501 01:37:01.334437 11344 net.cpp:53] Initializing net from parameters: 
name: "CIFAR"
state {
  phase: TEST
}
layer {
  name: "cifar"
  type: "Data"
  top: "data"
  top: "label"
  include {
    phase: TEST
  }
  transform_param {
    mean_file: "examples/cifar10/mean.binaryproto"
  }
  data_param {
    source: "examples/cifar10/cifar10_test_lmdb"
    batch_size: 1000
    backend: LMDB
  }
}
layer {
  name: "conv0"
  type: "Convolution"
  bottom: "data"
  top: "conv0"
  param {
    lr_mult: 1
  }
  param {
    lr_mult: 2
  }
  convolution_param {
    num_output: 8
    pad: 2
    kernel_size: 3
    stride: 1
    weight_filler {
      type: "gaussian"
      std: 0.01
    }
    bias_filler {
      type: "constant"
    }
  }
}
layer {
  name: "Sigmoid0"
  type: "Sigmoid"
  bottom: "conv0"
  top: "Sigmoid0"
}
layer {
  name: "pool0"
  type: "Pooling"
  bottom: "Sigmoid0"
  top: "pool0"
  pooling_param {
    pool: AVE
    kernel_size: 3
    stride: 2
  }
}
layer {
  name: "ip1"
  type: "InnerProduct"
  bottom: "pool0"
  top: "ip1"
  param {
    lr_mult: 1
  }
  param {
    lr_mult: 2
  }
  inner_product_param {
    num_output: 160
    weight_filler {
      type: "gaussian"
      std: 0.01
    }
    bias_filler {
      type: "constant"
    }
  }
}
layer {
  name: "relu1"
  type: "ReLU"
  bottom: "ip1"
  top: "ip1"
}
layer {
  name: "ip2"
  type: "InnerProduct"
  bottom: "ip1"
  top: "ip2"
  param {
    lr_mult: 1
  }
  param {
    lr_mult: 2
  }
  inner_product_param {
    num_output: 40
    weight_filler {
      type: "gaussian"
      std: 0.01
    }
    bias_filler {
      type: "constant"
    }
  }
}
layer {
  name: "relu2"
  type: "ReLU"
  bottom: "ip2"
  top: "ip2"
}
layer {
  name: "ip3"
  type: "InnerProduct"
  bottom: "ip2"
  top: "ip3"
  param {
    lr_mult: 1
  }
  param {
    lr_mult: 2
  }
  inner_product_param {
    num_output: 10
    weight_filler {
      type: "gaussian"
      std: 0.01
    }
    bias_filler {
      type: "constant"
    }
  }
}
layer {
  name: "relu3"
  type: "ReLU"
  bottom: "ip3"
  top: "ip3"
}
layer {
  name: "ip4"
  type: "InnerProduct"
  bottom: "ip3"
  top: "ip4"
  param {
    lr_mult: 1
  }
  param {
    lr_mult: 2
  }
  inner_product_param {
    num_output: 10
    weight_filler {
      type: "gaussian"
      std: 0.01
    }
    bias_filler {
      type: "constant"
    }
  }
}
layer {
  name: "accuracy"
  type: "Accuracy"
  bottom: "ip4"
  bottom: "label"
  top: "accuracy"
  include {
    phase: TEST
  }
}
layer {
  name: "loss"
  type: "SoftmaxWithLoss"
  bottom: "ip4"
  bottom: "label"
  top: "loss"
}
I0501 01:37:01.334514 11344 layer_factory.hpp:77] Creating layer cifar
I0501 01:37:01.334559 11344 db_lmdb.cpp:35] Opened lmdb examples/cifar10/cifar10_test_lmdb
I0501 01:37:01.334571 11344 net.cpp:86] Creating Layer cifar
I0501 01:37:01.334576 11344 net.cpp:382] cifar -> data
I0501 01:37:01.334584 11344 net.cpp:382] cifar -> label
I0501 01:37:01.334590 11344 data_transformer.cpp:25] Loading mean file from: examples/cifar10/mean.binaryproto
I0501 01:37:01.334727 11344 data_layer.cpp:45] output data size: 1000,3,32,32
I0501 01:37:01.356333 11344 net.cpp:124] Setting up cifar
I0501 01:37:01.356374 11344 net.cpp:131] Top shape: 1000 3 32 32 (3072000)
I0501 01:37:01.356379 11344 net.cpp:131] Top shape: 1000 (1000)
I0501 01:37:01.356382 11344 net.cpp:139] Memory required for data: 12292000
I0501 01:37:01.356390 11344 layer_factory.hpp:77] Creating layer label_cifar_1_split
I0501 01:37:01.356406 11344 net.cpp:86] Creating Layer label_cifar_1_split
I0501 01:37:01.356410 11344 net.cpp:408] label_cifar_1_split <- label
I0501 01:37:01.356416 11344 net.cpp:382] label_cifar_1_split -> label_cifar_1_split_0
I0501 01:37:01.356441 11344 net.cpp:382] label_cifar_1_split -> label_cifar_1_split_1
I0501 01:37:01.356537 11344 net.cpp:124] Setting up label_cifar_1_split
I0501 01:37:01.356545 11344 net.cpp:131] Top shape: 1000 (1000)
I0501 01:37:01.356549 11344 net.cpp:131] Top shape: 1000 (1000)
I0501 01:37:01.356551 11344 net.cpp:139] Memory required for data: 12300000
I0501 01:37:01.356555 11344 layer_factory.hpp:77] Creating layer conv0
I0501 01:37:01.356566 11344 net.cpp:86] Creating Layer conv0
I0501 01:37:01.356570 11344 net.cpp:408] conv0 <- data
I0501 01:37:01.356576 11344 net.cpp:382] conv0 -> conv0
I0501 01:37:01.358158 11344 net.cpp:124] Setting up conv0
I0501 01:37:01.358188 11344 net.cpp:131] Top shape: 1000 8 34 34 (9248000)
I0501 01:37:01.358192 11344 net.cpp:139] Memory required for data: 49292000
I0501 01:37:01.358201 11344 layer_factory.hpp:77] Creating layer Sigmoid0
I0501 01:37:01.358208 11344 net.cpp:86] Creating Layer Sigmoid0
I0501 01:37:01.358211 11344 net.cpp:408] Sigmoid0 <- conv0
I0501 01:37:01.358217 11344 net.cpp:382] Sigmoid0 -> Sigmoid0
I0501 01:37:01.358410 11344 net.cpp:124] Setting up Sigmoid0
I0501 01:37:01.358433 11344 net.cpp:131] Top shape: 1000 8 34 34 (9248000)
I0501 01:37:01.358438 11344 net.cpp:139] Memory required for data: 86284000
I0501 01:37:01.358440 11344 layer_factory.hpp:77] Creating layer pool0
I0501 01:37:01.358448 11344 net.cpp:86] Creating Layer pool0
I0501 01:37:01.358451 11344 net.cpp:408] pool0 <- Sigmoid0
I0501 01:37:01.358456 11344 net.cpp:382] pool0 -> pool0
I0501 01:37:01.358710 11344 net.cpp:124] Setting up pool0
I0501 01:37:01.358718 11344 net.cpp:131] Top shape: 1000 8 17 17 (2312000)
I0501 01:37:01.358721 11344 net.cpp:139] Memory required for data: 95532000
I0501 01:37:01.358724 11344 layer_factory.hpp:77] Creating layer ip1
I0501 01:37:01.358732 11344 net.cpp:86] Creating Layer ip1
I0501 01:37:01.358736 11344 net.cpp:408] ip1 <- pool0
I0501 01:37:01.358741 11344 net.cpp:382] ip1 -> ip1
I0501 01:37:01.370422 11344 net.cpp:124] Setting up ip1
I0501 01:37:01.370451 11344 net.cpp:131] Top shape: 1000 160 (160000)
I0501 01:37:01.370455 11344 net.cpp:139] Memory required for data: 96172000
I0501 01:37:01.370492 11344 layer_factory.hpp:77] Creating layer relu1
I0501 01:37:01.370499 11344 net.cpp:86] Creating Layer relu1
I0501 01:37:01.370518 11344 net.cpp:408] relu1 <- ip1
I0501 01:37:01.370523 11344 net.cpp:369] relu1 -> ip1 (in-place)
I0501 01:37:01.370689 11344 net.cpp:124] Setting up relu1
I0501 01:37:01.370699 11344 net.cpp:131] Top shape: 1000 160 (160000)
I0501 01:37:01.370702 11344 net.cpp:139] Memory required for data: 96812000
I0501 01:37:01.370705 11344 layer_factory.hpp:77] Creating layer ip2
I0501 01:37:01.370712 11344 net.cpp:86] Creating Layer ip2
I0501 01:37:01.370717 11344 net.cpp:408] ip2 <- ip1
I0501 01:37:01.370721 11344 net.cpp:382] ip2 -> ip2
I0501 01:37:01.370992 11344 net.cpp:124] Setting up ip2
I0501 01:37:01.371001 11344 net.cpp:131] Top shape: 1000 40 (40000)
I0501 01:37:01.371003 11344 net.cpp:139] Memory required for data: 96972000
I0501 01:37:01.371011 11344 layer_factory.hpp:77] Creating layer relu2
I0501 01:37:01.371016 11344 net.cpp:86] Creating Layer relu2
I0501 01:37:01.371021 11344 net.cpp:408] relu2 <- ip2
I0501 01:37:01.371024 11344 net.cpp:369] relu2 -> ip2 (in-place)
I0501 01:37:01.371803 11344 net.cpp:124] Setting up relu2
I0501 01:37:01.371814 11344 net.cpp:131] Top shape: 1000 40 (40000)
I0501 01:37:01.371834 11344 net.cpp:139] Memory required for data: 97132000
I0501 01:37:01.371836 11344 layer_factory.hpp:77] Creating layer ip3
I0501 01:37:01.371843 11344 net.cpp:86] Creating Layer ip3
I0501 01:37:01.371850 11344 net.cpp:408] ip3 <- ip2
I0501 01:37:01.371855 11344 net.cpp:382] ip3 -> ip3
I0501 01:37:01.371984 11344 net.cpp:124] Setting up ip3
I0501 01:37:01.371992 11344 net.cpp:131] Top shape: 1000 10 (10000)
I0501 01:37:01.371995 11344 net.cpp:139] Memory required for data: 97172000
I0501 01:37:01.372001 11344 layer_factory.hpp:77] Creating layer relu3
I0501 01:37:01.372006 11344 net.cpp:86] Creating Layer relu3
I0501 01:37:01.372010 11344 net.cpp:408] relu3 <- ip3
I0501 01:37:01.372014 11344 net.cpp:369] relu3 -> ip3 (in-place)
I0501 01:37:01.372160 11344 net.cpp:124] Setting up relu3
I0501 01:37:01.372169 11344 net.cpp:131] Top shape: 1000 10 (10000)
I0501 01:37:01.372171 11344 net.cpp:139] Memory required for data: 97212000
I0501 01:37:01.372174 11344 layer_factory.hpp:77] Creating layer ip4
I0501 01:37:01.372180 11344 net.cpp:86] Creating Layer ip4
I0501 01:37:01.372184 11344 net.cpp:408] ip4 <- ip3
I0501 01:37:01.372189 11344 net.cpp:382] ip4 -> ip4
I0501 01:37:01.372288 11344 net.cpp:124] Setting up ip4
I0501 01:37:01.372295 11344 net.cpp:131] Top shape: 1000 10 (10000)
I0501 01:37:01.372298 11344 net.cpp:139] Memory required for data: 97252000
I0501 01:37:01.372311 11344 layer_factory.hpp:77] Creating layer ip4_ip4_0_split
I0501 01:37:01.372315 11344 net.cpp:86] Creating Layer ip4_ip4_0_split
I0501 01:37:01.372319 11344 net.cpp:408] ip4_ip4_0_split <- ip4
I0501 01:37:01.372323 11344 net.cpp:382] ip4_ip4_0_split -> ip4_ip4_0_split_0
I0501 01:37:01.372328 11344 net.cpp:382] ip4_ip4_0_split -> ip4_ip4_0_split_1
I0501 01:37:01.372372 11344 net.cpp:124] Setting up ip4_ip4_0_split
I0501 01:37:01.372378 11344 net.cpp:131] Top shape: 1000 10 (10000)
I0501 01:37:01.372383 11344 net.cpp:131] Top shape: 1000 10 (10000)
I0501 01:37:01.372386 11344 net.cpp:139] Memory required for data: 97332000
I0501 01:37:01.372390 11344 layer_factory.hpp:77] Creating layer accuracy
I0501 01:37:01.372395 11344 net.cpp:86] Creating Layer accuracy
I0501 01:37:01.372397 11344 net.cpp:408] accuracy <- ip4_ip4_0_split_0
I0501 01:37:01.372401 11344 net.cpp:408] accuracy <- label_cifar_1_split_0
I0501 01:37:01.372406 11344 net.cpp:382] accuracy -> accuracy
…
