…
I0501 02:12:41.079488 14160 net.cpp:296] The NetState phase (0) differed from the phase (1) specified by a rule in layer cifar
I0501 02:12:41.079500 14160 net.cpp:296] The NetState phase (0) differed from the phase (1) specified by a rule in layer accuracy
I0501 02:12:41.079563 14160 net.cpp:53] Initializing net from parameters: 
name: "CIFAR"
state {
  phase: TRAIN
  level: 0
  stage: ""
}
layer {
  name: "cifar"
  type: "Data"
  top: "data"
  top: "label"
  include {
    phase: TRAIN
  }
  transform_param {
    mean_file: "examples/cifar10/mean.binaryproto"
  }
  data_param {
    source: "examples/cifar10/cifar10_train_lmdb"
    batch_size: 111
    backend: LMDB
  }
}
layer {
  name: "conv0"
  type: "Convolution"
  bottom: "data"
  top: "conv0"
  param {
    lr_mult: 1
  }
  param {
    lr_mult: 2
  }
  convolution_param {
    num_output: 8
    pad: 2
    kernel_size: 5
    stride: 1
    weight_filler {
      type: "gaussian"
      std: 0.01
    }
    bias_filler {
      type: "constant"
    }
  }
}
layer {
  name: "Sigmoid0"
  type: "Sigmoid"
  bottom: "conv0"
  top: "Sigmoid0"
}
layer {
  name: "pool0"
  type: "Pooling"
  bottom: "Sigmoid0"
  top: "pool0"
  pooling_param {
    pool: AVE
    kernel_size: 3
    stride: 2
  }
}
layer {
  name: "ip1"
  type: "InnerProduct"
  bottom: "pool0"
  top: "ip1"
  param {
    lr_mult: 1
  }
  param {
    lr_mult: 2
  }
  inner_product_param {
    num_output: 160
    weight_filler {
      type: "gaussian"
      std: 0.01
    }
    bias_filler {
      type: "constant"
    }
  }
}
layer {
  name: "relu1"
  type: "ReLU"
  bottom: "ip1"
  top: "ip1"
}
layer {
  name: "ip2"
  type: "InnerProduct"
  bottom: "ip1"
  top: "ip2"
  param {
    lr_mult: 1
  }
  param {
    lr_mult: 2
  }
  inner_product_param {
    num_output: 10
    weight_filler {
      type: "gaussian"
      std: 0.01
    }
    bias_filler {
      type: "constant"
    }
  }
}
layer {
  name: "loss"
  type: "SoftmaxWithLoss"
  bottom: "ip2"
  bottom: "label"
  top: "loss"
}
I0501 02:12:41.079646 14160 layer_factory.hpp:77] Creating layer cifar
I0501 02:12:41.079725 14160 db_lmdb.cpp:35] Opened lmdb examples/cifar10/cifar10_train_lmdb
I0501 02:12:41.079747 14160 net.cpp:86] Creating Layer cifar
I0501 02:12:41.079753 14160 net.cpp:382] cifar -> data
I0501 02:12:41.079773 14160 net.cpp:382] cifar -> label
I0501 02:12:41.079783 14160 data_transformer.cpp:25] Loading mean file from: examples/cifar10/mean.binaryproto
I0501 02:12:41.081519 14160 data_layer.cpp:45] output data size: 111,3,32,32
I0501 02:12:41.087913 14160 net.cpp:124] Setting up cifar
I0501 02:12:41.087929 14160 net.cpp:131] Top shape: 111 3 32 32 (340992)
I0501 02:12:41.087934 14160 net.cpp:131] Top shape: 111 (111)
I0501 02:12:41.087935 14160 net.cpp:139] Memory required for data: 1364412
I0501 02:12:41.087941 14160 layer_factory.hpp:77] Creating layer conv0
I0501 02:12:41.088004 14160 net.cpp:86] Creating Layer conv0
I0501 02:12:41.088011 14160 net.cpp:408] conv0 <- data
I0501 02:12:41.088021 14160 net.cpp:382] conv0 -> conv0
I0501 02:12:41.309231 14160 net.cpp:124] Setting up conv0
I0501 02:12:41.309273 14160 net.cpp:131] Top shape: 111 8 32 32 (909312)
I0501 02:12:41.309276 14160 net.cpp:139] Memory required for data: 5001660
I0501 02:12:41.309290 14160 layer_factory.hpp:77] Creating layer Sigmoid0
I0501 02:12:41.309301 14160 net.cpp:86] Creating Layer Sigmoid0
I0501 02:12:41.309305 14160 net.cpp:408] Sigmoid0 <- conv0
I0501 02:12:41.309310 14160 net.cpp:382] Sigmoid0 -> Sigmoid0
I0501 02:12:41.309522 14160 net.cpp:124] Setting up Sigmoid0
I0501 02:12:41.309531 14160 net.cpp:131] Top shape: 111 8 32 32 (909312)
I0501 02:12:41.309535 14160 net.cpp:139] Memory required for data: 8638908
I0501 02:12:41.309537 14160 layer_factory.hpp:77] Creating layer pool0
I0501 02:12:41.309543 14160 net.cpp:86] Creating Layer pool0
I0501 02:12:41.309546 14160 net.cpp:408] pool0 <- Sigmoid0
I0501 02:12:41.309551 14160 net.cpp:382] pool0 -> pool0
I0501 02:12:41.310240 14160 net.cpp:124] Setting up pool0
I0501 02:12:41.310250 14160 net.cpp:131] Top shape: 111 8 16 16 (227328)
I0501 02:12:41.310269 14160 net.cpp:139] Memory required for data: 9548220
I0501 02:12:41.310273 14160 layer_factory.hpp:77] Creating layer ip1
I0501 02:12:41.310281 14160 net.cpp:86] Creating Layer ip1
I0501 02:12:41.310286 14160 net.cpp:408] ip1 <- pool0
I0501 02:12:41.310290 14160 net.cpp:382] ip1 -> ip1
I0501 02:12:41.319237 14160 net.cpp:124] Setting up ip1
I0501 02:12:41.319249 14160 net.cpp:131] Top shape: 111 160 (17760)
I0501 02:12:41.319268 14160 net.cpp:139] Memory required for data: 9619260
I0501 02:12:41.319277 14160 layer_factory.hpp:77] Creating layer relu1
I0501 02:12:41.319283 14160 net.cpp:86] Creating Layer relu1
I0501 02:12:41.319285 14160 net.cpp:408] relu1 <- ip1
I0501 02:12:41.319290 14160 net.cpp:369] relu1 -> ip1 (in-place)
I0501 02:12:41.319468 14160 net.cpp:124] Setting up relu1
I0501 02:12:41.319475 14160 net.cpp:131] Top shape: 111 160 (17760)
I0501 02:12:41.319478 14160 net.cpp:139] Memory required for data: 9690300
I0501 02:12:41.319481 14160 layer_factory.hpp:77] Creating layer ip2
I0501 02:12:41.319489 14160 net.cpp:86] Creating Layer ip2
I0501 02:12:41.319490 14160 net.cpp:408] ip2 <- ip1
I0501 02:12:41.319495 14160 net.cpp:382] ip2 -> ip2
I0501 02:12:41.319638 14160 net.cpp:124] Setting up ip2
I0501 02:12:41.319645 14160 net.cpp:131] Top shape: 111 10 (1110)
I0501 02:12:41.319648 14160 net.cpp:139] Memory required for data: 9694740
I0501 02:12:41.319655 14160 layer_factory.hpp:77] Creating layer loss
I0501 02:12:41.319660 14160 net.cpp:86] Creating Layer loss
I0501 02:12:41.319664 14160 net.cpp:408] loss <- ip2
I0501 02:12:41.319667 14160 net.cpp:408] loss <- label
I0501 02:12:41.319672 14160 net.cpp:382] loss -> loss
I0501 02:12:41.319685 14160 layer_factory.hpp:77] Creating layer loss
…
I0501 02:12:41.320235 14160 solver.cpp:173] Creating test net (#0) specified by net file: ECE595/cifar/train_test/var_everything/cifar_train_test_314.prototxt
I0501 02:12:41.320257 14160 net.cpp:296] The NetState phase (1) differed from the phase (0) specified by a rule in layer cifar
I0501 02:12:41.320329 14160 net.cpp:53] Initializing net from parameters: 
name: "CIFAR"
state {
  phase: TEST
}
layer {
  name: "cifar"
  type: "Data"
  top: "data"
  top: "label"
  include {
    phase: TEST
  }
  transform_param {
    mean_file: "examples/cifar10/mean.binaryproto"
  }
  data_param {
    source: "examples/cifar10/cifar10_test_lmdb"
    batch_size: 1000
    backend: LMDB
  }
}
layer {
  name: "conv0"
  type: "Convolution"
  bottom: "data"
  top: "conv0"
  param {
    lr_mult: 1
  }
  param {
    lr_mult: 2
  }
  convolution_param {
    num_output: 8
    pad: 2
    kernel_size: 5
    stride: 1
    weight_filler {
      type: "gaussian"
      std: 0.01
    }
    bias_filler {
      type: "constant"
    }
  }
}
layer {
  name: "Sigmoid0"
  type: "Sigmoid"
  bottom: "conv0"
  top: "Sigmoid0"
}
layer {
  name: "pool0"
  type: "Pooling"
  bottom: "Sigmoid0"
  top: "pool0"
  pooling_param {
    pool: AVE
    kernel_size: 3
    stride: 2
  }
}
layer {
  name: "ip1"
  type: "InnerProduct"
  bottom: "pool0"
  top: "ip1"
  param {
    lr_mult: 1
  }
  param {
    lr_mult: 2
  }
  inner_product_param {
    num_output: 160
    weight_filler {
      type: "gaussian"
      std: 0.01
    }
    bias_filler {
      type: "constant"
    }
  }
}
layer {
  name: "relu1"
  type: "ReLU"
  bottom: "ip1"
  top: "ip1"
}
layer {
  name: "ip2"
  type: "InnerProduct"
  bottom: "ip1"
  top: "ip2"
  param {
    lr_mult: 1
  }
  param {
    lr_mult: 2
  }
  inner_product_param {
    num_output: 10
    weight_filler {
      type: "gaussian"
      std: 0.01
    }
    bias_filler {
      type: "constant"
    }
  }
}
layer {
  name: "accuracy"
  type: "Accuracy"
  bottom: "ip2"
  bottom: "label"
  top: "accuracy"
  include {
    phase: TEST
  }
}
layer {
  name: "loss"
  type: "SoftmaxWithLoss"
  bottom: "ip2"
  bottom: "label"
  top: "loss"
}
I0501 02:12:41.320396 14160 layer_factory.hpp:77] Creating layer cifar
I0501 02:12:41.320454 14160 db_lmdb.cpp:35] Opened lmdb examples/cifar10/cifar10_test_lmdb
I0501 02:12:41.320466 14160 net.cpp:86] Creating Layer cifar
I0501 02:12:41.320471 14160 net.cpp:382] cifar -> data
I0501 02:12:41.320477 14160 net.cpp:382] cifar -> label
I0501 02:12:41.320483 14160 data_transformer.cpp:25] Loading mean file from: examples/cifar10/mean.binaryproto
I0501 02:12:41.320614 14160 data_layer.cpp:45] output data size: 1000,3,32,32
I0501 02:12:41.342582 14160 net.cpp:124] Setting up cifar
I0501 02:12:41.342644 14160 net.cpp:131] Top shape: 1000 3 32 32 (3072000)
I0501 02:12:41.342650 14160 net.cpp:131] Top shape: 1000 (1000)
I0501 02:12:41.342653 14160 net.cpp:139] Memory required for data: 12292000
I0501 02:12:41.342658 14160 layer_factory.hpp:77] Creating layer label_cifar_1_split
I0501 02:12:41.342669 14160 net.cpp:86] Creating Layer label_cifar_1_split
I0501 02:12:41.342674 14160 net.cpp:408] label_cifar_1_split <- label
I0501 02:12:41.342679 14160 net.cpp:382] label_cifar_1_split -> label_cifar_1_split_0
I0501 02:12:41.342687 14160 net.cpp:382] label_cifar_1_split -> label_cifar_1_split_1
I0501 02:12:41.342779 14160 net.cpp:124] Setting up label_cifar_1_split
I0501 02:12:41.342787 14160 net.cpp:131] Top shape: 1000 (1000)
I0501 02:12:41.342790 14160 net.cpp:131] Top shape: 1000 (1000)
I0501 02:12:41.342793 14160 net.cpp:139] Memory required for data: 12300000
I0501 02:12:41.342797 14160 layer_factory.hpp:77] Creating layer conv0
I0501 02:12:41.342814 14160 net.cpp:86] Creating Layer conv0
I0501 02:12:41.342818 14160 net.cpp:408] conv0 <- data
I0501 02:12:41.342823 14160 net.cpp:382] conv0 -> conv0
I0501 02:12:41.344566 14160 net.cpp:124] Setting up conv0
I0501 02:12:41.344580 14160 net.cpp:131] Top shape: 1000 8 32 32 (8192000)
I0501 02:12:41.344584 14160 net.cpp:139] Memory required for data: 45068000
I0501 02:12:41.344594 14160 layer_factory.hpp:77] Creating layer Sigmoid0
I0501 02:12:41.344599 14160 net.cpp:86] Creating Layer Sigmoid0
I0501 02:12:41.344602 14160 net.cpp:408] Sigmoid0 <- conv0
I0501 02:12:41.344609 14160 net.cpp:382] Sigmoid0 -> Sigmoid0
I0501 02:12:41.344774 14160 net.cpp:124] Setting up Sigmoid0
I0501 02:12:41.344782 14160 net.cpp:131] Top shape: 1000 8 32 32 (8192000)
I0501 02:12:41.344785 14160 net.cpp:139] Memory required for data: 77836000
I0501 02:12:41.344789 14160 layer_factory.hpp:77] Creating layer pool0
I0501 02:12:41.344796 14160 net.cpp:86] Creating Layer pool0
I0501 02:12:41.344799 14160 net.cpp:408] pool0 <- Sigmoid0
I0501 02:12:41.344804 14160 net.cpp:382] pool0 -> pool0
I0501 02:12:41.345711 14160 net.cpp:124] Setting up pool0
I0501 02:12:41.345752 14160 net.cpp:131] Top shape: 1000 8 16 16 (2048000)
I0501 02:12:41.345755 14160 net.cpp:139] Memory required for data: 86028000
I0501 02:12:41.345759 14160 layer_factory.hpp:77] Creating layer ip1
I0501 02:12:41.345768 14160 net.cpp:86] Creating Layer ip1
I0501 02:12:41.345772 14160 net.cpp:408] ip1 <- pool0
I0501 02:12:41.345777 14160 net.cpp:382] ip1 -> ip1
I0501 02:12:41.355962 14160 net.cpp:124] Setting up ip1
I0501 02:12:41.355973 14160 net.cpp:131] Top shape: 1000 160 (160000)
I0501 02:12:41.355976 14160 net.cpp:139] Memory required for data: 86668000
I0501 02:12:41.355986 14160 layer_factory.hpp:77] Creating layer relu1
I0501 02:12:41.355994 14160 net.cpp:86] Creating Layer relu1
I0501 02:12:41.356014 14160 net.cpp:408] relu1 <- ip1
I0501 02:12:41.356017 14160 net.cpp:369] relu1 -> ip1 (in-place)
I0501 02:12:41.356190 14160 net.cpp:124] Setting up relu1
I0501 02:12:41.356199 14160 net.cpp:131] Top shape: 1000 160 (160000)
I0501 02:12:41.356201 14160 net.cpp:139] Memory required for data: 87308000
I0501 02:12:41.356204 14160 layer_factory.hpp:77] Creating layer ip2
I0501 02:12:41.356212 14160 net.cpp:86] Creating Layer ip2
I0501 02:12:41.356215 14160 net.cpp:408] ip2 <- ip1
I0501 02:12:41.356221 14160 net.cpp:382] ip2 -> ip2
I0501 02:12:41.356405 14160 net.cpp:124] Setting up ip2
I0501 02:12:41.356413 14160 net.cpp:131] Top shape: 1000 10 (10000)
I0501 02:12:41.356416 14160 net.cpp:139] Memory required for data: 87348000
I0501 02:12:41.356423 14160 layer_factory.hpp:77] Creating layer ip2_ip2_0_split
I0501 02:12:41.356434 14160 net.cpp:86] Creating Layer ip2_ip2_0_split
I0501 02:12:41.356438 14160 net.cpp:408] ip2_ip2_0_split <- ip2
I0501 02:12:41.356442 14160 net.cpp:382] ip2_ip2_0_split -> ip2_ip2_0_split_0
I0501 02:12:41.356447 14160 net.cpp:382] ip2_ip2_0_split -> ip2_ip2_0_split_1
I0501 02:12:41.356494 14160 net.cpp:124] Setting up ip2_ip2_0_split
I0501 02:12:41.356501 14160 net.cpp:131] Top shape: 1000 10 (10000)
I0501 02:12:41.356504 14160 net.cpp:131] Top shape: 1000 10 (10000)
I0501 02:12:41.356508 14160 net.cpp:139] Memory required for data: 87428000
I0501 02:12:41.356510 14160 layer_factory.hpp:77] Creating layer accuracy
I0501 02:12:41.356516 14160 net.cpp:86] Creating Layer accuracy
I0501 02:12:41.356519 14160 net.cpp:408] accuracy <- ip2_ip2_0_split_0
I0501 02:12:41.356523 14160 net.cpp:408] accuracy <- label_cifar_1_split_0
I0501 02:12:41.356530 14160 net.cpp:382] accuracy -> accuracy
…
