…
I0501 05:29:53.442247 29283 net.cpp:296] The NetState phase (0) differed from the phase (1) specified by a rule in layer cifar
I0501 05:29:53.442265 29283 net.cpp:296] The NetState phase (0) differed from the phase (1) specified by a rule in layer accuracy
I0501 05:29:53.442363 29283 net.cpp:53] Initializing net from parameters: 
name: "CIFAR"
state {
  phase: TRAIN
  level: 0
  stage: ""
}
layer {
  name: "cifar"
  type: "Data"
  top: "data"
  top: "label"
  include {
    phase: TRAIN
  }
  transform_param {
    mean_file: "examples/cifar10/mean.binaryproto"
  }
  data_param {
    source: "examples/cifar10/cifar10_train_lmdb"
    batch_size: 111
    backend: LMDB
  }
}
layer {
  name: "conv0"
  type: "Convolution"
  bottom: "data"
  top: "conv0"
  param {
    lr_mult: 1
  }
  param {
    lr_mult: 2
  }
  convolution_param {
    num_output: 8
    pad: 2
    kernel_size: 5
    stride: 1
    weight_filler {
      type: "gaussian"
      std: 0.01
    }
    bias_filler {
      type: "constant"
    }
  }
}
layer {
  name: "Sigmoid0"
  type: "Sigmoid"
  bottom: "conv0"
  top: "Sigmoid0"
}
layer {
  name: "pool0"
  type: "Pooling"
  bottom: "Sigmoid0"
  top: "pool0"
  pooling_param {
    pool: AVE
    kernel_size: 3
    stride: 2
  }
}
layer {
  name: "ip1"
  type: "InnerProduct"
  bottom: "pool0"
  top: "ip1"
  param {
    lr_mult: 1
  }
  param {
    lr_mult: 2
  }
  inner_product_param {
    num_output: 80
    weight_filler {
      type: "gaussian"
      std: 0.01
    }
    bias_filler {
      type: "constant"
    }
  }
}
layer {
  name: "relu1"
  type: "ReLU"
  bottom: "ip1"
  top: "ip1"
}
layer {
  name: "ip2"
  type: "InnerProduct"
  bottom: "ip1"
  top: "ip2"
  param {
    lr_mult: 1
  }
  param {
    lr_mult: 2
  }
  inner_product_param {
    num_output: 20
    weight_filler {
      type: "gaussian"
      std: 0.01
    }
    bias_filler {
      type: "constant"
    }
  }
}
layer {
  name: "relu2"
  type: "ReLU"
  bottom: "ip2"
  top: "ip2"
}
layer {
  name: "ip3"
  type: "InnerProduct"
  bottom: "ip2"
  top: "ip3"
  param {
    lr_mult: 1
  }
  param {
    lr_mult: 2
  }
  inner_product_param {
    num_output: 10
    weight_filler {
      type: "gaussian"
      std: 0.01
    }
    bias_filler {
      type: "constant"
    }
  }
}
layer {
  name: "relu3"
  type: "ReLU"
  bottom: "ip3"
  top: "ip3"
}
layer {
  name: "ip4"
  type: "InnerProduct"
  bottom: "ip3"
  top: "ip4"
  param {
    lr_mult: 1
  }
  param {
    lr_mult: 2
  }
  inner_product_param {
    num_output: 10
    weight_filler {
      type: "gaussian"
      std: 0.01
    }
    bias_filler {
      type: "constant"
    }
  }
}
layer {
  name: "loss"
  type: "SoftmaxWithLoss"
  bottom: "ip4"
  bottom: "label"
  top: "loss"
}
I0501 05:29:53.442436 29283 layer_factory.hpp:77] Creating layer cifar
I0501 05:29:53.442533 29283 db_lmdb.cpp:35] Opened lmdb examples/cifar10/cifar10_train_lmdb
I0501 05:29:53.442559 29283 net.cpp:86] Creating Layer cifar
I0501 05:29:53.442566 29283 net.cpp:382] cifar -> data
I0501 05:29:53.442590 29283 net.cpp:382] cifar -> label
I0501 05:29:53.442606 29283 data_transformer.cpp:25] Loading mean file from: examples/cifar10/mean.binaryproto
I0501 05:29:53.444703 29283 data_layer.cpp:45] output data size: 111,3,32,32
I0501 05:29:53.452764 29283 net.cpp:124] Setting up cifar
I0501 05:29:53.452783 29283 net.cpp:131] Top shape: 111 3 32 32 (340992)
I0501 05:29:53.452790 29283 net.cpp:131] Top shape: 111 (111)
I0501 05:29:53.452795 29283 net.cpp:139] Memory required for data: 1364412
I0501 05:29:53.452822 29283 layer_factory.hpp:77] Creating layer conv0
I0501 05:29:53.452841 29283 net.cpp:86] Creating Layer conv0
I0501 05:29:53.452846 29283 net.cpp:408] conv0 <- data
I0501 05:29:53.452858 29283 net.cpp:382] conv0 -> conv0
I0501 05:29:53.729149 29283 net.cpp:124] Setting up conv0
I0501 05:29:53.729176 29283 net.cpp:131] Top shape: 111 8 32 32 (909312)
I0501 05:29:53.729179 29283 net.cpp:139] Memory required for data: 5001660
I0501 05:29:53.729193 29283 layer_factory.hpp:77] Creating layer Sigmoid0
I0501 05:29:53.729204 29283 net.cpp:86] Creating Layer Sigmoid0
I0501 05:29:53.729208 29283 net.cpp:408] Sigmoid0 <- conv0
I0501 05:29:53.729213 29283 net.cpp:382] Sigmoid0 -> Sigmoid0
I0501 05:29:53.729384 29283 net.cpp:124] Setting up Sigmoid0
I0501 05:29:53.729408 29283 net.cpp:131] Top shape: 111 8 32 32 (909312)
I0501 05:29:53.729411 29283 net.cpp:139] Memory required for data: 8638908
I0501 05:29:53.729414 29283 layer_factory.hpp:77] Creating layer pool0
I0501 05:29:53.729421 29283 net.cpp:86] Creating Layer pool0
I0501 05:29:53.729424 29283 net.cpp:408] pool0 <- Sigmoid0
I0501 05:29:53.729429 29283 net.cpp:382] pool0 -> pool0
I0501 05:29:53.730146 29283 net.cpp:124] Setting up pool0
I0501 05:29:53.730159 29283 net.cpp:131] Top shape: 111 8 16 16 (227328)
I0501 05:29:53.730161 29283 net.cpp:139] Memory required for data: 9548220
I0501 05:29:53.730165 29283 layer_factory.hpp:77] Creating layer ip1
I0501 05:29:53.730173 29283 net.cpp:86] Creating Layer ip1
I0501 05:29:53.730176 29283 net.cpp:408] ip1 <- pool0
I0501 05:29:53.730181 29283 net.cpp:382] ip1 -> ip1
I0501 05:29:53.734397 29283 net.cpp:124] Setting up ip1
I0501 05:29:53.734405 29283 net.cpp:131] Top shape: 111 80 (8880)
I0501 05:29:53.734424 29283 net.cpp:139] Memory required for data: 9583740
I0501 05:29:53.734431 29283 layer_factory.hpp:77] Creating layer relu1
I0501 05:29:53.734436 29283 net.cpp:86] Creating Layer relu1
I0501 05:29:53.734441 29283 net.cpp:408] relu1 <- ip1
I0501 05:29:53.734446 29283 net.cpp:369] relu1 -> ip1 (in-place)
I0501 05:29:53.734622 29283 net.cpp:124] Setting up relu1
I0501 05:29:53.734630 29283 net.cpp:131] Top shape: 111 80 (8880)
I0501 05:29:53.734633 29283 net.cpp:139] Memory required for data: 9619260
I0501 05:29:53.734637 29283 layer_factory.hpp:77] Creating layer ip2
I0501 05:29:53.734642 29283 net.cpp:86] Creating Layer ip2
I0501 05:29:53.734644 29283 net.cpp:408] ip2 <- ip1
I0501 05:29:53.734649 29283 net.cpp:382] ip2 -> ip2
I0501 05:29:53.734772 29283 net.cpp:124] Setting up ip2
I0501 05:29:53.734779 29283 net.cpp:131] Top shape: 111 20 (2220)
I0501 05:29:53.734782 29283 net.cpp:139] Memory required for data: 9628140
I0501 05:29:53.734789 29283 layer_factory.hpp:77] Creating layer relu2
I0501 05:29:53.734793 29283 net.cpp:86] Creating Layer relu2
I0501 05:29:53.734797 29283 net.cpp:408] relu2 <- ip2
I0501 05:29:53.734800 29283 net.cpp:369] relu2 -> ip2 (in-place)
I0501 05:29:53.734949 29283 net.cpp:124] Setting up relu2
I0501 05:29:53.734957 29283 net.cpp:131] Top shape: 111 20 (2220)
I0501 05:29:53.734961 29283 net.cpp:139] Memory required for data: 9637020
I0501 05:29:53.734963 29283 layer_factory.hpp:77] Creating layer ip3
I0501 05:29:53.734971 29283 net.cpp:86] Creating Layer ip3
I0501 05:29:53.734973 29283 net.cpp:408] ip3 <- ip2
I0501 05:29:53.734977 29283 net.cpp:382] ip3 -> ip3
I0501 05:29:53.735067 29283 net.cpp:124] Setting up ip3
I0501 05:29:53.735074 29283 net.cpp:131] Top shape: 111 10 (1110)
I0501 05:29:53.735076 29283 net.cpp:139] Memory required for data: 9641460
I0501 05:29:53.735081 29283 layer_factory.hpp:77] Creating layer relu3
I0501 05:29:53.735086 29283 net.cpp:86] Creating Layer relu3
I0501 05:29:53.735090 29283 net.cpp:408] relu3 <- ip3
I0501 05:29:53.735092 29283 net.cpp:369] relu3 -> ip3 (in-place)
I0501 05:29:53.735237 29283 net.cpp:124] Setting up relu3
I0501 05:29:53.735244 29283 net.cpp:131] Top shape: 111 10 (1110)
I0501 05:29:53.735247 29283 net.cpp:139] Memory required for data: 9645900
I0501 05:29:53.735250 29283 layer_factory.hpp:77] Creating layer ip4
I0501 05:29:53.735270 29283 net.cpp:86] Creating Layer ip4
I0501 05:29:53.735272 29283 net.cpp:408] ip4 <- ip3
I0501 05:29:53.735276 29283 net.cpp:382] ip4 -> ip4
I0501 05:29:53.735360 29283 net.cpp:124] Setting up ip4
I0501 05:29:53.735368 29283 net.cpp:131] Top shape: 111 10 (1110)
I0501 05:29:53.735370 29283 net.cpp:139] Memory required for data: 9650340
I0501 05:29:53.735378 29283 layer_factory.hpp:77] Creating layer loss
I0501 05:29:53.735381 29283 net.cpp:86] Creating Layer loss
I0501 05:29:53.735384 29283 net.cpp:408] loss <- ip4
I0501 05:29:53.735388 29283 net.cpp:408] loss <- label
I0501 05:29:53.735393 29283 net.cpp:382] loss -> loss
I0501 05:29:53.735409 29283 layer_factory.hpp:77] Creating layer loss
…
I0501 05:29:53.736577 29283 solver.cpp:173] Creating test net (#0) specified by net file: ECE595/cifar/train_test/var_everything/cifar_train_test_420.prototxt
I0501 05:29:53.736604 29283 net.cpp:296] The NetState phase (1) differed from the phase (0) specified by a rule in layer cifar
I0501 05:29:53.736693 29283 net.cpp:53] Initializing net from parameters: 
name: "CIFAR"
state {
  phase: TEST
}
layer {
  name: "cifar"
  type: "Data"
  top: "data"
  top: "label"
  include {
    phase: TEST
  }
  transform_param {
    mean_file: "examples/cifar10/mean.binaryproto"
  }
  data_param {
    source: "examples/cifar10/cifar10_test_lmdb"
    batch_size: 1000
    backend: LMDB
  }
}
layer {
  name: "conv0"
  type: "Convolution"
  bottom: "data"
  top: "conv0"
  param {
    lr_mult: 1
  }
  param {
    lr_mult: 2
  }
  convolution_param {
    num_output: 8
    pad: 2
    kernel_size: 5
    stride: 1
    weight_filler {
      type: "gaussian"
      std: 0.01
    }
    bias_filler {
      type: "constant"
    }
  }
}
layer {
  name: "Sigmoid0"
  type: "Sigmoid"
  bottom: "conv0"
  top: "Sigmoid0"
}
layer {
  name: "pool0"
  type: "Pooling"
  bottom: "Sigmoid0"
  top: "pool0"
  pooling_param {
    pool: AVE
    kernel_size: 3
    stride: 2
  }
}
layer {
  name: "ip1"
  type: "InnerProduct"
  bottom: "pool0"
  top: "ip1"
  param {
    lr_mult: 1
  }
  param {
    lr_mult: 2
  }
  inner_product_param {
    num_output: 80
    weight_filler {
      type: "gaussian"
      std: 0.01
    }
    bias_filler {
      type: "constant"
    }
  }
}
layer {
  name: "relu1"
  type: "ReLU"
  bottom: "ip1"
  top: "ip1"
}
layer {
  name: "ip2"
  type: "InnerProduct"
  bottom: "ip1"
  top: "ip2"
  param {
    lr_mult: 1
  }
  param {
    lr_mult: 2
  }
  inner_product_param {
    num_output: 20
    weight_filler {
      type: "gaussian"
      std: 0.01
    }
    bias_filler {
      type: "constant"
    }
  }
}
layer {
  name: "relu2"
  type: "ReLU"
  bottom: "ip2"
  top: "ip2"
}
layer {
  name: "ip3"
  type: "InnerProduct"
  bottom: "ip2"
  top: "ip3"
  param {
    lr_mult: 1
  }
  param {
    lr_mult: 2
  }
  inner_product_param {
    num_output: 10
    weight_filler {
      type: "gaussian"
      std: 0.01
    }
    bias_filler {
      type: "constant"
    }
  }
}
layer {
  name: "relu3"
  type: "ReLU"
  bottom: "ip3"
  top: "ip3"
}
layer {
  name: "ip4"
  type: "InnerProduct"
  bottom: "ip3"
  top: "ip4"
  param {
    lr_mult: 1
  }
  param {
    lr_mult: 2
  }
  inner_product_param {
    num_output: 10
    weight_filler {
      type: "gaussian"
      std: 0.01
    }
    bias_filler {
      type: "constant"
    }
  }
}
layer {
  name: "accuracy"
  type: "Accuracy"
  bottom: "ip4"
  bottom: "label"
  top: "accuracy"
  include {
    phase: TEST
  }
}
layer {
  name: "loss"
  type: "SoftmaxWithLoss"
  bottom: "ip4"
  bottom: "label"
  top: "loss"
}
I0501 05:29:53.736773 29283 layer_factory.hpp:77] Creating layer cifar
I0501 05:29:53.736834 29283 db_lmdb.cpp:35] Opened lmdb examples/cifar10/cifar10_test_lmdb
I0501 05:29:53.736862 29283 net.cpp:86] Creating Layer cifar
I0501 05:29:53.736867 29283 net.cpp:382] cifar -> data
I0501 05:29:53.736874 29283 net.cpp:382] cifar -> label
I0501 05:29:53.736881 29283 data_transformer.cpp:25] Loading mean file from: examples/cifar10/mean.binaryproto
I0501 05:29:53.737017 29283 data_layer.cpp:45] output data size: 1000,3,32,32
I0501 05:29:53.758515 29283 net.cpp:124] Setting up cifar
I0501 05:29:53.758556 29283 net.cpp:131] Top shape: 1000 3 32 32 (3072000)
I0501 05:29:53.758561 29283 net.cpp:131] Top shape: 1000 (1000)
I0501 05:29:53.758565 29283 net.cpp:139] Memory required for data: 12292000
I0501 05:29:53.758572 29283 layer_factory.hpp:77] Creating layer label_cifar_1_split
I0501 05:29:53.758584 29283 net.cpp:86] Creating Layer label_cifar_1_split
I0501 05:29:53.758587 29283 net.cpp:408] label_cifar_1_split <- label
I0501 05:29:53.758594 29283 net.cpp:382] label_cifar_1_split -> label_cifar_1_split_0
I0501 05:29:53.758602 29283 net.cpp:382] label_cifar_1_split -> label_cifar_1_split_1
I0501 05:29:53.758713 29283 net.cpp:124] Setting up label_cifar_1_split
I0501 05:29:53.758719 29283 net.cpp:131] Top shape: 1000 (1000)
I0501 05:29:53.758723 29283 net.cpp:131] Top shape: 1000 (1000)
I0501 05:29:53.758726 29283 net.cpp:139] Memory required for data: 12300000
I0501 05:29:53.758729 29283 layer_factory.hpp:77] Creating layer conv0
I0501 05:29:53.758741 29283 net.cpp:86] Creating Layer conv0
I0501 05:29:53.758746 29283 net.cpp:408] conv0 <- data
I0501 05:29:53.758767 29283 net.cpp:382] conv0 -> conv0
I0501 05:29:53.760387 29283 net.cpp:124] Setting up conv0
I0501 05:29:53.760416 29283 net.cpp:131] Top shape: 1000 8 32 32 (8192000)
I0501 05:29:53.760421 29283 net.cpp:139] Memory required for data: 45068000
I0501 05:29:53.760429 29283 layer_factory.hpp:77] Creating layer Sigmoid0
I0501 05:29:53.760437 29283 net.cpp:86] Creating Layer Sigmoid0
I0501 05:29:53.760440 29283 net.cpp:408] Sigmoid0 <- conv0
I0501 05:29:53.760444 29283 net.cpp:382] Sigmoid0 -> Sigmoid0
I0501 05:29:53.760634 29283 net.cpp:124] Setting up Sigmoid0
I0501 05:29:53.760643 29283 net.cpp:131] Top shape: 1000 8 32 32 (8192000)
I0501 05:29:53.760646 29283 net.cpp:139] Memory required for data: 77836000
I0501 05:29:53.760649 29283 layer_factory.hpp:77] Creating layer pool0
I0501 05:29:53.760658 29283 net.cpp:86] Creating Layer pool0
I0501 05:29:53.760660 29283 net.cpp:408] pool0 <- Sigmoid0
I0501 05:29:53.760664 29283 net.cpp:382] pool0 -> pool0
I0501 05:29:53.760854 29283 net.cpp:124] Setting up pool0
I0501 05:29:53.760864 29283 net.cpp:131] Top shape: 1000 8 16 16 (2048000)
I0501 05:29:53.760866 29283 net.cpp:139] Memory required for data: 86028000
I0501 05:29:53.760869 29283 layer_factory.hpp:77] Creating layer ip1
I0501 05:29:53.760879 29283 net.cpp:86] Creating Layer ip1
I0501 05:29:53.760881 29283 net.cpp:408] ip1 <- pool0
I0501 05:29:53.760886 29283 net.cpp:382] ip1 -> ip1
I0501 05:29:53.765434 29283 net.cpp:124] Setting up ip1
I0501 05:29:53.765444 29283 net.cpp:131] Top shape: 1000 80 (80000)
I0501 05:29:53.765462 29283 net.cpp:139] Memory required for data: 86348000
I0501 05:29:53.765486 29283 layer_factory.hpp:77] Creating layer relu1
I0501 05:29:53.765491 29283 net.cpp:86] Creating Layer relu1
I0501 05:29:53.765494 29283 net.cpp:408] relu1 <- ip1
I0501 05:29:53.765499 29283 net.cpp:369] relu1 -> ip1 (in-place)
I0501 05:29:53.765676 29283 net.cpp:124] Setting up relu1
I0501 05:29:53.765683 29283 net.cpp:131] Top shape: 1000 80 (80000)
I0501 05:29:53.765687 29283 net.cpp:139] Memory required for data: 86668000
I0501 05:29:53.765691 29283 layer_factory.hpp:77] Creating layer ip2
I0501 05:29:53.765697 29283 net.cpp:86] Creating Layer ip2
I0501 05:29:53.765699 29283 net.cpp:408] ip2 <- ip1
I0501 05:29:53.765704 29283 net.cpp:382] ip2 -> ip2
I0501 05:29:53.765852 29283 net.cpp:124] Setting up ip2
I0501 05:29:53.765861 29283 net.cpp:131] Top shape: 1000 20 (20000)
I0501 05:29:53.765863 29283 net.cpp:139] Memory required for data: 86748000
I0501 05:29:53.765871 29283 layer_factory.hpp:77] Creating layer relu2
I0501 05:29:53.765877 29283 net.cpp:86] Creating Layer relu2
I0501 05:29:53.765879 29283 net.cpp:408] relu2 <- ip2
I0501 05:29:53.765883 29283 net.cpp:369] relu2 -> ip2 (in-place)
I0501 05:29:53.766629 29283 net.cpp:124] Setting up relu2
I0501 05:29:53.766643 29283 net.cpp:131] Top shape: 1000 20 (20000)
I0501 05:29:53.766661 29283 net.cpp:139] Memory required for data: 86828000
I0501 05:29:53.766664 29283 layer_factory.hpp:77] Creating layer ip3
I0501 05:29:53.766671 29283 net.cpp:86] Creating Layer ip3
I0501 05:29:53.766674 29283 net.cpp:408] ip3 <- ip2
I0501 05:29:53.766680 29283 net.cpp:382] ip3 -> ip3
I0501 05:29:53.766788 29283 net.cpp:124] Setting up ip3
I0501 05:29:53.766794 29283 net.cpp:131] Top shape: 1000 10 (10000)
I0501 05:29:53.766798 29283 net.cpp:139] Memory required for data: 86868000
I0501 05:29:53.766803 29283 layer_factory.hpp:77] Creating layer relu3
I0501 05:29:53.766808 29283 net.cpp:86] Creating Layer relu3
I0501 05:29:53.766825 29283 net.cpp:408] relu3 <- ip3
I0501 05:29:53.766829 29283 net.cpp:369] relu3 -> ip3 (in-place)
I0501 05:29:53.766966 29283 net.cpp:124] Setting up relu3
I0501 05:29:53.766973 29283 net.cpp:131] Top shape: 1000 10 (10000)
I0501 05:29:53.766976 29283 net.cpp:139] Memory required for data: 86908000
I0501 05:29:53.766980 29283 layer_factory.hpp:77] Creating layer ip4
I0501 05:29:53.766986 29283 net.cpp:86] Creating Layer ip4
I0501 05:29:53.766989 29283 net.cpp:408] ip4 <- ip3
I0501 05:29:53.766994 29283 net.cpp:382] ip4 -> ip4
I0501 05:29:53.767088 29283 net.cpp:124] Setting up ip4
I0501 05:29:53.767096 29283 net.cpp:131] Top shape: 1000 10 (10000)
I0501 05:29:53.767098 29283 net.cpp:139] Memory required for data: 86948000
I0501 05:29:53.767107 29283 layer_factory.hpp:77] Creating layer ip4_ip4_0_split
I0501 05:29:53.767112 29283 net.cpp:86] Creating Layer ip4_ip4_0_split
I0501 05:29:53.767114 29283 net.cpp:408] ip4_ip4_0_split <- ip4
I0501 05:29:53.767118 29283 net.cpp:382] ip4_ip4_0_split -> ip4_ip4_0_split_0
I0501 05:29:53.767123 29283 net.cpp:382] ip4_ip4_0_split -> ip4_ip4_0_split_1
I0501 05:29:53.767151 29283 net.cpp:124] Setting up ip4_ip4_0_split
I0501 05:29:53.767155 29283 net.cpp:131] Top shape: 1000 10 (10000)
I0501 05:29:53.767159 29283 net.cpp:131] Top shape: 1000 10 (10000)
I0501 05:29:53.767163 29283 net.cpp:139] Memory required for data: 87028000
I0501 05:29:53.767164 29283 layer_factory.hpp:77] Creating layer accuracy
I0501 05:29:53.767174 29283 net.cpp:86] Creating Layer accuracy
I0501 05:29:53.767177 29283 net.cpp:408] accuracy <- ip4_ip4_0_split_0
I0501 05:29:53.767181 29283 net.cpp:408] accuracy <- label_cifar_1_split_0
I0501 05:29:53.767185 29283 net.cpp:382] accuracy -> accuracy
…
