…
I0501 02:03:19.324928 13432 net.cpp:296] The NetState phase (0) differed from the phase (1) specified by a rule in layer cifar
I0501 02:03:19.324959 13432 net.cpp:296] The NetState phase (0) differed from the phase (1) specified by a rule in layer accuracy
I0501 02:03:19.325057 13432 net.cpp:53] Initializing net from parameters: 
name: "CIFAR"
state {
  phase: TRAIN
  level: 0
  stage: ""
}
layer {
  name: "cifar"
  type: "Data"
  top: "data"
  top: "label"
  include {
    phase: TRAIN
  }
  transform_param {
    mean_file: "examples/cifar10/mean.binaryproto"
  }
  data_param {
    source: "examples/cifar10/cifar10_train_lmdb"
    batch_size: 111
    backend: LMDB
  }
}
layer {
  name: "conv0"
  type: "Convolution"
  bottom: "data"
  top: "conv0"
  param {
    lr_mult: 1
  }
  param {
    lr_mult: 2
  }
  convolution_param {
    num_output: 8
    pad: 2
    kernel_size: 3
    stride: 1
    weight_filler {
      type: "gaussian"
      std: 0.01
    }
    bias_filler {
      type: "constant"
    }
  }
}
layer {
  name: "Sigmoid0"
  type: "Sigmoid"
  bottom: "conv0"
  top: "Sigmoid0"
}
layer {
  name: "pool0"
  type: "Pooling"
  bottom: "Sigmoid0"
  top: "pool0"
  pooling_param {
    pool: AVE
    kernel_size: 3
    stride: 2
  }
}
layer {
  name: "ip1"
  type: "InnerProduct"
  bottom: "pool0"
  top: "ip1"
  param {
    lr_mult: 1
  }
  param {
    lr_mult: 2
  }
  inner_product_param {
    num_output: 160
    weight_filler {
      type: "gaussian"
      std: 0.01
    }
    bias_filler {
      type: "constant"
    }
  }
}
layer {
  name: "relu1"
  type: "ReLU"
  bottom: "ip1"
  top: "ip1"
}
layer {
  name: "ip2"
  type: "InnerProduct"
  bottom: "ip1"
  top: "ip2"
  param {
    lr_mult: 1
  }
  param {
    lr_mult: 2
  }
  inner_product_param {
    num_output: 160
    weight_filler {
      type: "gaussian"
      std: 0.01
    }
    bias_filler {
      type: "constant"
    }
  }
}
layer {
  name: "relu2"
  type: "ReLU"
  bottom: "ip2"
  top: "ip2"
}
layer {
  name: "ip3"
  type: "InnerProduct"
  bottom: "ip2"
  top: "ip3"
  param {
    lr_mult: 1
  }
  param {
    lr_mult: 2
  }
  inner_product_param {
    num_output: 160
    weight_filler {
      type: "gaussian"
      std: 0.01
    }
    bias_filler {
      type: "constant"
    }
  }
}
layer {
  name: "relu3"
  type: "ReLU"
  bottom: "ip3"
  top: "ip3"
}
layer {
  name: "ip4"
  type: "InnerProduct"
  bottom: "ip3"
  top: "ip4"
  param {
    lr_mult: 1
  }
  param {
    lr_mult: 2
  }
  inner_product_param {
    num_output: 10
    weight_filler {
      type: "gaussian"
      std: 0.01
    }
    bias_filler {
      type: "constant"
    }
  }
}
layer {
  name: "loss"
  type: "SoftmaxWithLoss"
  bottom: "ip4"
  bottom: "label"
  top: "loss"
}
I0501 02:03:19.325117 13432 layer_factory.hpp:77] Creating layer cifar
I0501 02:03:19.325201 13432 db_lmdb.cpp:35] Opened lmdb examples/cifar10/cifar10_train_lmdb
I0501 02:03:19.325222 13432 net.cpp:86] Creating Layer cifar
I0501 02:03:19.325229 13432 net.cpp:382] cifar -> data
I0501 02:03:19.325248 13432 net.cpp:382] cifar -> label
I0501 02:03:19.325258 13432 data_transformer.cpp:25] Loading mean file from: examples/cifar10/mean.binaryproto
I0501 02:03:19.327045 13432 data_layer.cpp:45] output data size: 111,3,32,32
I0501 02:03:19.333591 13432 net.cpp:124] Setting up cifar
I0501 02:03:19.333607 13432 net.cpp:131] Top shape: 111 3 32 32 (340992)
I0501 02:03:19.333612 13432 net.cpp:131] Top shape: 111 (111)
I0501 02:03:19.333616 13432 net.cpp:139] Memory required for data: 1364412
I0501 02:03:19.333633 13432 layer_factory.hpp:77] Creating layer conv0
I0501 02:03:19.333667 13432 net.cpp:86] Creating Layer conv0
I0501 02:03:19.333672 13432 net.cpp:408] conv0 <- data
I0501 02:03:19.333681 13432 net.cpp:382] conv0 -> conv0
I0501 02:03:19.559016 13432 net.cpp:124] Setting up conv0
I0501 02:03:19.559058 13432 net.cpp:131] Top shape: 111 8 34 34 (1026528)
I0501 02:03:19.559062 13432 net.cpp:139] Memory required for data: 5470524
I0501 02:03:19.559077 13432 layer_factory.hpp:77] Creating layer Sigmoid0
I0501 02:03:19.559088 13432 net.cpp:86] Creating Layer Sigmoid0
I0501 02:03:19.559092 13432 net.cpp:408] Sigmoid0 <- conv0
I0501 02:03:19.559098 13432 net.cpp:382] Sigmoid0 -> Sigmoid0
I0501 02:03:19.559311 13432 net.cpp:124] Setting up Sigmoid0
I0501 02:03:19.559321 13432 net.cpp:131] Top shape: 111 8 34 34 (1026528)
I0501 02:03:19.559324 13432 net.cpp:139] Memory required for data: 9576636
I0501 02:03:19.559327 13432 layer_factory.hpp:77] Creating layer pool0
I0501 02:03:19.559334 13432 net.cpp:86] Creating Layer pool0
I0501 02:03:19.559337 13432 net.cpp:408] pool0 <- Sigmoid0
I0501 02:03:19.559342 13432 net.cpp:382] pool0 -> pool0
I0501 02:03:19.560070 13432 net.cpp:124] Setting up pool0
I0501 02:03:19.560083 13432 net.cpp:131] Top shape: 111 8 17 17 (256632)
I0501 02:03:19.560102 13432 net.cpp:139] Memory required for data: 10603164
I0501 02:03:19.560106 13432 layer_factory.hpp:77] Creating layer ip1
I0501 02:03:19.560114 13432 net.cpp:86] Creating Layer ip1
I0501 02:03:19.560117 13432 net.cpp:408] ip1 <- pool0
I0501 02:03:19.560122 13432 net.cpp:382] ip1 -> ip1
I0501 02:03:19.570677 13432 net.cpp:124] Setting up ip1
I0501 02:03:19.570688 13432 net.cpp:131] Top shape: 111 160 (17760)
I0501 02:03:19.570708 13432 net.cpp:139] Memory required for data: 10674204
I0501 02:03:19.570715 13432 layer_factory.hpp:77] Creating layer relu1
I0501 02:03:19.570721 13432 net.cpp:86] Creating Layer relu1
I0501 02:03:19.570724 13432 net.cpp:408] relu1 <- ip1
I0501 02:03:19.570729 13432 net.cpp:369] relu1 -> ip1 (in-place)
I0501 02:03:19.570894 13432 net.cpp:124] Setting up relu1
I0501 02:03:19.570904 13432 net.cpp:131] Top shape: 111 160 (17760)
I0501 02:03:19.570906 13432 net.cpp:139] Memory required for data: 10745244
I0501 02:03:19.570909 13432 layer_factory.hpp:77] Creating layer ip2
I0501 02:03:19.570916 13432 net.cpp:86] Creating Layer ip2
I0501 02:03:19.570919 13432 net.cpp:408] ip2 <- ip1
I0501 02:03:19.570924 13432 net.cpp:382] ip2 -> ip2
I0501 02:03:19.572530 13432 net.cpp:124] Setting up ip2
I0501 02:03:19.572561 13432 net.cpp:131] Top shape: 111 160 (17760)
I0501 02:03:19.572566 13432 net.cpp:139] Memory required for data: 10816284
I0501 02:03:19.572578 13432 layer_factory.hpp:77] Creating layer relu2
I0501 02:03:19.572587 13432 net.cpp:86] Creating Layer relu2
I0501 02:03:19.572592 13432 net.cpp:408] relu2 <- ip2
I0501 02:03:19.572614 13432 net.cpp:369] relu2 -> ip2 (in-place)
I0501 02:03:19.572803 13432 net.cpp:124] Setting up relu2
I0501 02:03:19.572834 13432 net.cpp:131] Top shape: 111 160 (17760)
I0501 02:03:19.572839 13432 net.cpp:139] Memory required for data: 10887324
I0501 02:03:19.572841 13432 layer_factory.hpp:77] Creating layer ip3
I0501 02:03:19.572849 13432 net.cpp:86] Creating Layer ip3
I0501 02:03:19.572868 13432 net.cpp:408] ip3 <- ip2
I0501 02:03:19.572875 13432 net.cpp:382] ip3 -> ip3
I0501 02:03:19.573709 13432 net.cpp:124] Setting up ip3
I0501 02:03:19.573715 13432 net.cpp:131] Top shape: 111 160 (17760)
I0501 02:03:19.573734 13432 net.cpp:139] Memory required for data: 10958364
I0501 02:03:19.573740 13432 layer_factory.hpp:77] Creating layer relu3
I0501 02:03:19.573743 13432 net.cpp:86] Creating Layer relu3
I0501 02:03:19.573746 13432 net.cpp:408] relu3 <- ip3
I0501 02:03:19.573750 13432 net.cpp:369] relu3 -> ip3 (in-place)
I0501 02:03:19.573925 13432 net.cpp:124] Setting up relu3
I0501 02:03:19.573932 13432 net.cpp:131] Top shape: 111 160 (17760)
I0501 02:03:19.573935 13432 net.cpp:139] Memory required for data: 11029404
I0501 02:03:19.573953 13432 layer_factory.hpp:77] Creating layer ip4
I0501 02:03:19.573961 13432 net.cpp:86] Creating Layer ip4
I0501 02:03:19.573963 13432 net.cpp:408] ip4 <- ip3
I0501 02:03:19.573967 13432 net.cpp:382] ip4 -> ip4
I0501 02:03:19.574102 13432 net.cpp:124] Setting up ip4
I0501 02:03:19.574110 13432 net.cpp:131] Top shape: 111 10 (1110)
I0501 02:03:19.574113 13432 net.cpp:139] Memory required for data: 11033844
I0501 02:03:19.574120 13432 layer_factory.hpp:77] Creating layer loss
I0501 02:03:19.574126 13432 net.cpp:86] Creating Layer loss
I0501 02:03:19.574128 13432 net.cpp:408] loss <- ip4
I0501 02:03:19.574132 13432 net.cpp:408] loss <- label
I0501 02:03:19.574137 13432 net.cpp:382] loss -> loss
I0501 02:03:19.574151 13432 layer_factory.hpp:77] Creating layer loss
…
I0501 02:03:19.575425 13432 solver.cpp:173] Creating test net (#0) specified by net file: ECE595/cifar/train_test/var_everything/cifar_train_test_309.prototxt
I0501 02:03:19.575453 13432 net.cpp:296] The NetState phase (1) differed from the phase (0) specified by a rule in layer cifar
I0501 02:03:19.575543 13432 net.cpp:53] Initializing net from parameters: 
name: "CIFAR"
state {
  phase: TEST
}
layer {
  name: "cifar"
  type: "Data"
  top: "data"
  top: "label"
  include {
    phase: TEST
  }
  transform_param {
    mean_file: "examples/cifar10/mean.binaryproto"
  }
  data_param {
    source: "examples/cifar10/cifar10_test_lmdb"
    batch_size: 1000
    backend: LMDB
  }
}
layer {
  name: "conv0"
  type: "Convolution"
  bottom: "data"
  top: "conv0"
  param {
    lr_mult: 1
  }
  param {
    lr_mult: 2
  }
  convolution_param {
    num_output: 8
    pad: 2
    kernel_size: 3
    stride: 1
    weight_filler {
      type: "gaussian"
      std: 0.01
    }
    bias_filler {
      type: "constant"
    }
  }
}
layer {
  name: "Sigmoid0"
  type: "Sigmoid"
  bottom: "conv0"
  top: "Sigmoid0"
}
layer {
  name: "pool0"
  type: "Pooling"
  bottom: "Sigmoid0"
  top: "pool0"
  pooling_param {
    pool: AVE
    kernel_size: 3
    stride: 2
  }
}
layer {
  name: "ip1"
  type: "InnerProduct"
  bottom: "pool0"
  top: "ip1"
  param {
    lr_mult: 1
  }
  param {
    lr_mult: 2
  }
  inner_product_param {
    num_output: 160
    weight_filler {
      type: "gaussian"
      std: 0.01
    }
    bias_filler {
      type: "constant"
    }
  }
}
layer {
  name: "relu1"
  type: "ReLU"
  bottom: "ip1"
  top: "ip1"
}
layer {
  name: "ip2"
  type: "InnerProduct"
  bottom: "ip1"
  top: "ip2"
  param {
    lr_mult: 1
  }
  param {
    lr_mult: 2
  }
  inner_product_param {
    num_output: 160
    weight_filler {
      type: "gaussian"
      std: 0.01
    }
    bias_filler {
      type: "constant"
    }
  }
}
layer {
  name: "relu2"
  type: "ReLU"
  bottom: "ip2"
  top: "ip2"
}
layer {
  name: "ip3"
  type: "InnerProduct"
  bottom: "ip2"
  top: "ip3"
  param {
    lr_mult: 1
  }
  param {
    lr_mult: 2
  }
  inner_product_param {
    num_output: 160
    weight_filler {
      type: "gaussian"
      std: 0.01
    }
    bias_filler {
      type: "constant"
    }
  }
}
layer {
  name: "relu3"
  type: "ReLU"
  bottom: "ip3"
  top: "ip3"
}
layer {
  name: "ip4"
  type: "InnerProduct"
  bottom: "ip3"
  top: "ip4"
  param {
    lr_mult: 1
  }
  param {
    lr_mult: 2
  }
  inner_product_param {
    num_output: 10
    weight_filler {
      type: "gaussian"
      std: 0.01
    }
    bias_filler {
      type: "constant"
    }
  }
}
layer {
  name: "accuracy"
  type: "Accuracy"
  bottom: "ip4"
  bottom: "label"
  top: "accuracy"
  include {
    phase: TEST
  }
}
layer {
  name: "loss"
  type: "SoftmaxWithLoss"
  bottom: "ip4"
  bottom: "label"
  top: "loss"
}
I0501 02:03:19.575619 13432 layer_factory.hpp:77] Creating layer cifar
I0501 02:03:19.575681 13432 db_lmdb.cpp:35] Opened lmdb examples/cifar10/cifar10_test_lmdb
I0501 02:03:19.575693 13432 net.cpp:86] Creating Layer cifar
I0501 02:03:19.575698 13432 net.cpp:382] cifar -> data
I0501 02:03:19.575706 13432 net.cpp:382] cifar -> label
I0501 02:03:19.575712 13432 data_transformer.cpp:25] Loading mean file from: examples/cifar10/mean.binaryproto
I0501 02:03:19.575865 13432 data_layer.cpp:45] output data size: 1000,3,32,32
I0501 02:03:19.597676 13432 net.cpp:124] Setting up cifar
I0501 02:03:19.597718 13432 net.cpp:131] Top shape: 1000 3 32 32 (3072000)
I0501 02:03:19.597723 13432 net.cpp:131] Top shape: 1000 (1000)
I0501 02:03:19.597726 13432 net.cpp:139] Memory required for data: 12292000
I0501 02:03:19.597733 13432 layer_factory.hpp:77] Creating layer label_cifar_1_split
I0501 02:03:19.597744 13432 net.cpp:86] Creating Layer label_cifar_1_split
I0501 02:03:19.597748 13432 net.cpp:408] label_cifar_1_split <- label
I0501 02:03:19.597754 13432 net.cpp:382] label_cifar_1_split -> label_cifar_1_split_0
I0501 02:03:19.597779 13432 net.cpp:382] label_cifar_1_split -> label_cifar_1_split_1
I0501 02:03:19.597882 13432 net.cpp:124] Setting up label_cifar_1_split
I0501 02:03:19.597889 13432 net.cpp:131] Top shape: 1000 (1000)
I0501 02:03:19.597893 13432 net.cpp:131] Top shape: 1000 (1000)
I0501 02:03:19.597896 13432 net.cpp:139] Memory required for data: 12300000
I0501 02:03:19.597899 13432 layer_factory.hpp:77] Creating layer conv0
I0501 02:03:19.597911 13432 net.cpp:86] Creating Layer conv0
I0501 02:03:19.597914 13432 net.cpp:408] conv0 <- data
I0501 02:03:19.597920 13432 net.cpp:382] conv0 -> conv0
I0501 02:03:19.599395 13432 net.cpp:124] Setting up conv0
I0501 02:03:19.599423 13432 net.cpp:131] Top shape: 1000 8 34 34 (9248000)
I0501 02:03:19.599427 13432 net.cpp:139] Memory required for data: 49292000
I0501 02:03:19.599436 13432 layer_factory.hpp:77] Creating layer Sigmoid0
I0501 02:03:19.599444 13432 net.cpp:86] Creating Layer Sigmoid0
I0501 02:03:19.599463 13432 net.cpp:408] Sigmoid0 <- conv0
I0501 02:03:19.599467 13432 net.cpp:382] Sigmoid0 -> Sigmoid0
I0501 02:03:19.599660 13432 net.cpp:124] Setting up Sigmoid0
I0501 02:03:19.599670 13432 net.cpp:131] Top shape: 1000 8 34 34 (9248000)
I0501 02:03:19.599673 13432 net.cpp:139] Memory required for data: 86284000
I0501 02:03:19.599676 13432 layer_factory.hpp:77] Creating layer pool0
I0501 02:03:19.599684 13432 net.cpp:86] Creating Layer pool0
I0501 02:03:19.599689 13432 net.cpp:408] pool0 <- Sigmoid0
I0501 02:03:19.599694 13432 net.cpp:382] pool0 -> pool0
I0501 02:03:19.600953 13432 net.cpp:124] Setting up pool0
I0501 02:03:19.600965 13432 net.cpp:131] Top shape: 1000 8 17 17 (2312000)
I0501 02:03:19.600983 13432 net.cpp:139] Memory required for data: 95532000
I0501 02:03:19.600986 13432 layer_factory.hpp:77] Creating layer ip1
I0501 02:03:19.600996 13432 net.cpp:86] Creating Layer ip1
I0501 02:03:19.600999 13432 net.cpp:408] ip1 <- pool0
I0501 02:03:19.601004 13432 net.cpp:382] ip1 -> ip1
I0501 02:03:19.611470 13432 net.cpp:124] Setting up ip1
I0501 02:03:19.611482 13432 net.cpp:131] Top shape: 1000 160 (160000)
I0501 02:03:19.611501 13432 net.cpp:139] Memory required for data: 96172000
I0501 02:03:19.611539 13432 layer_factory.hpp:77] Creating layer relu1
I0501 02:03:19.611547 13432 net.cpp:86] Creating Layer relu1
I0501 02:03:19.611551 13432 net.cpp:408] relu1 <- ip1
I0501 02:03:19.611555 13432 net.cpp:369] relu1 -> ip1 (in-place)
I0501 02:03:19.611754 13432 net.cpp:124] Setting up relu1
I0501 02:03:19.611764 13432 net.cpp:131] Top shape: 1000 160 (160000)
I0501 02:03:19.611768 13432 net.cpp:139] Memory required for data: 96812000
I0501 02:03:19.611771 13432 layer_factory.hpp:77] Creating layer ip2
I0501 02:03:19.611778 13432 net.cpp:86] Creating Layer ip2
I0501 02:03:19.611781 13432 net.cpp:408] ip2 <- ip1
I0501 02:03:19.611788 13432 net.cpp:382] ip2 -> ip2
I0501 02:03:19.612594 13432 net.cpp:124] Setting up ip2
I0501 02:03:19.612602 13432 net.cpp:131] Top shape: 1000 160 (160000)
I0501 02:03:19.612622 13432 net.cpp:139] Memory required for data: 97452000
I0501 02:03:19.612629 13432 layer_factory.hpp:77] Creating layer relu2
I0501 02:03:19.612635 13432 net.cpp:86] Creating Layer relu2
I0501 02:03:19.612639 13432 net.cpp:408] relu2 <- ip2
I0501 02:03:19.612643 13432 net.cpp:369] relu2 -> ip2 (in-place)
I0501 02:03:19.613497 13432 net.cpp:124] Setting up relu2
I0501 02:03:19.613508 13432 net.cpp:131] Top shape: 1000 160 (160000)
I0501 02:03:19.613528 13432 net.cpp:139] Memory required for data: 98092000
I0501 02:03:19.613531 13432 layer_factory.hpp:77] Creating layer ip3
I0501 02:03:19.613538 13432 net.cpp:86] Creating Layer ip3
I0501 02:03:19.613541 13432 net.cpp:408] ip3 <- ip2
I0501 02:03:19.613548 13432 net.cpp:382] ip3 -> ip3
I0501 02:03:19.614370 13432 net.cpp:124] Setting up ip3
I0501 02:03:19.614378 13432 net.cpp:131] Top shape: 1000 160 (160000)
I0501 02:03:19.614397 13432 net.cpp:139] Memory required for data: 98732000
I0501 02:03:19.614401 13432 layer_factory.hpp:77] Creating layer relu3
I0501 02:03:19.614408 13432 net.cpp:86] Creating Layer relu3
I0501 02:03:19.614410 13432 net.cpp:408] relu3 <- ip3
I0501 02:03:19.614415 13432 net.cpp:369] relu3 -> ip3 (in-place)
I0501 02:03:19.614585 13432 net.cpp:124] Setting up relu3
I0501 02:03:19.614593 13432 net.cpp:131] Top shape: 1000 160 (160000)
I0501 02:03:19.614596 13432 net.cpp:139] Memory required for data: 99372000
I0501 02:03:19.614599 13432 layer_factory.hpp:77] Creating layer ip4
I0501 02:03:19.614606 13432 net.cpp:86] Creating Layer ip4
I0501 02:03:19.614609 13432 net.cpp:408] ip4 <- ip3
I0501 02:03:19.614615 13432 net.cpp:382] ip4 -> ip4
I0501 02:03:19.614761 13432 net.cpp:124] Setting up ip4
I0501 02:03:19.614768 13432 net.cpp:131] Top shape: 1000 10 (10000)
I0501 02:03:19.614771 13432 net.cpp:139] Memory required for data: 99412000
I0501 02:03:19.614779 13432 layer_factory.hpp:77] Creating layer ip4_ip4_0_split
I0501 02:03:19.614784 13432 net.cpp:86] Creating Layer ip4_ip4_0_split
I0501 02:03:19.614787 13432 net.cpp:408] ip4_ip4_0_split <- ip4
I0501 02:03:19.614801 13432 net.cpp:382] ip4_ip4_0_split -> ip4_ip4_0_split_0
I0501 02:03:19.614807 13432 net.cpp:382] ip4_ip4_0_split -> ip4_ip4_0_split_1
I0501 02:03:19.614837 13432 net.cpp:124] Setting up ip4_ip4_0_split
I0501 02:03:19.614843 13432 net.cpp:131] Top shape: 1000 10 (10000)
I0501 02:03:19.614847 13432 net.cpp:131] Top shape: 1000 10 (10000)
I0501 02:03:19.614850 13432 net.cpp:139] Memory required for data: 99492000
I0501 02:03:19.614852 13432 layer_factory.hpp:77] Creating layer accuracy
I0501 02:03:19.614859 13432 net.cpp:86] Creating Layer accuracy
I0501 02:03:19.614862 13432 net.cpp:408] accuracy <- ip4_ip4_0_split_0
I0501 02:03:19.614866 13432 net.cpp:408] accuracy <- label_cifar_1_split_0
I0501 02:03:19.614871 13432 net.cpp:382] accuracy -> accuracy
…
