…
I0501 02:33:19.334393 15923 net.cpp:296] The NetState phase (0) differed from the phase (1) specified by a rule in layer cifar
I0501 02:33:19.334408 15923 net.cpp:296] The NetState phase (0) differed from the phase (1) specified by a rule in layer accuracy
I0501 02:33:19.334501 15923 net.cpp:53] Initializing net from parameters: 
name: "CIFAR"
state {
  phase: TRAIN
  level: 0
  stage: ""
}
layer {
  name: "cifar"
  type: "Data"
  top: "data"
  top: "label"
  include {
    phase: TRAIN
  }
  transform_param {
    mean_file: "examples/cifar10/mean.binaryproto"
  }
  data_param {
    source: "examples/cifar10/cifar10_train_lmdb"
    batch_size: 111
    backend: LMDB
  }
}
layer {
  name: "conv0"
  type: "Convolution"
  bottom: "data"
  top: "conv0"
  param {
    lr_mult: 1
  }
  param {
    lr_mult: 2
  }
  convolution_param {
    num_output: 8
    pad: 2
    kernel_size: 5
    stride: 1
    weight_filler {
      type: "gaussian"
      std: 0.01
    }
    bias_filler {
      type: "constant"
    }
  }
}
layer {
  name: "Sigmoid0"
  type: "Sigmoid"
  bottom: "conv0"
  top: "Sigmoid0"
}
layer {
  name: "pool0"
  type: "Pooling"
  bottom: "Sigmoid0"
  top: "pool0"
  pooling_param {
    pool: AVE
    kernel_size: 3
    stride: 2
  }
}
layer {
  name: "ip1"
  type: "InnerProduct"
  bottom: "pool0"
  top: "ip1"
  param {
    lr_mult: 1
  }
  param {
    lr_mult: 2
  }
  inner_product_param {
    num_output: 40
    weight_filler {
      type: "gaussian"
      std: 0.01
    }
    bias_filler {
      type: "constant"
    }
  }
}
layer {
  name: "relu1"
  type: "ReLU"
  bottom: "ip1"
  top: "ip1"
}
layer {
  name: "ip2"
  type: "InnerProduct"
  bottom: "ip1"
  top: "ip2"
  param {
    lr_mult: 1
  }
  param {
    lr_mult: 2
  }
  inner_product_param {
    num_output: 10
    weight_filler {
      type: "gaussian"
      std: 0.01
    }
    bias_filler {
      type: "constant"
    }
  }
}
layer {
  name: "relu2"
  type: "ReLU"
  bottom: "ip2"
  top: "ip2"
}
layer {
  name: "ip3"
  type: "InnerProduct"
  bottom: "ip2"
  top: "ip3"
  param {
    lr_mult: 1
  }
  param {
    lr_mult: 2
  }
  inner_product_param {
    num_output: 10
    weight_filler {
      type: "gaussian"
      std: 0.01
    }
    bias_filler {
      type: "constant"
    }
  }
}
layer {
  name: "loss"
  type: "SoftmaxWithLoss"
  bottom: "ip3"
  bottom: "label"
  top: "loss"
}
I0501 02:33:19.334576 15923 layer_factory.hpp:77] Creating layer cifar
I0501 02:33:19.334676 15923 db_lmdb.cpp:35] Opened lmdb examples/cifar10/cifar10_train_lmdb
I0501 02:33:19.334705 15923 net.cpp:86] Creating Layer cifar
I0501 02:33:19.334713 15923 net.cpp:382] cifar -> data
I0501 02:33:19.334735 15923 net.cpp:382] cifar -> label
I0501 02:33:19.334748 15923 data_transformer.cpp:25] Loading mean file from: examples/cifar10/mean.binaryproto
I0501 02:33:19.336845 15923 data_layer.cpp:45] output data size: 111,3,32,32
I0501 02:33:19.344738 15923 net.cpp:124] Setting up cifar
I0501 02:33:19.344758 15923 net.cpp:131] Top shape: 111 3 32 32 (340992)
I0501 02:33:19.344764 15923 net.cpp:131] Top shape: 111 (111)
I0501 02:33:19.344769 15923 net.cpp:139] Memory required for data: 1364412
I0501 02:33:19.344776 15923 layer_factory.hpp:77] Creating layer conv0
I0501 02:33:19.344794 15923 net.cpp:86] Creating Layer conv0
I0501 02:33:19.344800 15923 net.cpp:408] conv0 <- data
I0501 02:33:19.344823 15923 net.cpp:382] conv0 -> conv0
I0501 02:33:19.636837 15923 net.cpp:124] Setting up conv0
I0501 02:33:19.636896 15923 net.cpp:131] Top shape: 111 8 32 32 (909312)
I0501 02:33:19.636901 15923 net.cpp:139] Memory required for data: 5001660
I0501 02:33:19.636919 15923 layer_factory.hpp:77] Creating layer Sigmoid0
I0501 02:33:19.636934 15923 net.cpp:86] Creating Layer Sigmoid0
I0501 02:33:19.636940 15923 net.cpp:408] Sigmoid0 <- conv0
I0501 02:33:19.636946 15923 net.cpp:382] Sigmoid0 -> Sigmoid0
I0501 02:33:19.637171 15923 net.cpp:124] Setting up Sigmoid0
I0501 02:33:19.637181 15923 net.cpp:131] Top shape: 111 8 32 32 (909312)
I0501 02:33:19.637186 15923 net.cpp:139] Memory required for data: 8638908
I0501 02:33:19.637189 15923 layer_factory.hpp:77] Creating layer pool0
I0501 02:33:19.637199 15923 net.cpp:86] Creating Layer pool0
I0501 02:33:19.637203 15923 net.cpp:408] pool0 <- Sigmoid0
I0501 02:33:19.637209 15923 net.cpp:382] pool0 -> pool0
I0501 02:33:19.638106 15923 net.cpp:124] Setting up pool0
I0501 02:33:19.638123 15923 net.cpp:131] Top shape: 111 8 16 16 (227328)
I0501 02:33:19.638126 15923 net.cpp:139] Memory required for data: 9548220
I0501 02:33:19.638131 15923 layer_factory.hpp:77] Creating layer ip1
I0501 02:33:19.638146 15923 net.cpp:86] Creating Layer ip1
I0501 02:33:19.638150 15923 net.cpp:408] ip1 <- pool0
I0501 02:33:19.638157 15923 net.cpp:382] ip1 -> ip1
I0501 02:33:19.640988 15923 net.cpp:124] Setting up ip1
I0501 02:33:19.641000 15923 net.cpp:131] Top shape: 111 40 (4440)
I0501 02:33:19.641002 15923 net.cpp:139] Memory required for data: 9565980
I0501 02:33:19.641012 15923 layer_factory.hpp:77] Creating layer relu1
I0501 02:33:19.641019 15923 net.cpp:86] Creating Layer relu1
I0501 02:33:19.641022 15923 net.cpp:408] relu1 <- ip1
I0501 02:33:19.641027 15923 net.cpp:369] relu1 -> ip1 (in-place)
I0501 02:33:19.641222 15923 net.cpp:124] Setting up relu1
I0501 02:33:19.641232 15923 net.cpp:131] Top shape: 111 40 (4440)
I0501 02:33:19.641237 15923 net.cpp:139] Memory required for data: 9583740
I0501 02:33:19.641239 15923 layer_factory.hpp:77] Creating layer ip2
I0501 02:33:19.641247 15923 net.cpp:86] Creating Layer ip2
I0501 02:33:19.641252 15923 net.cpp:408] ip2 <- ip1
I0501 02:33:19.641260 15923 net.cpp:382] ip2 -> ip2
I0501 02:33:19.641388 15923 net.cpp:124] Setting up ip2
I0501 02:33:19.641396 15923 net.cpp:131] Top shape: 111 10 (1110)
I0501 02:33:19.641400 15923 net.cpp:139] Memory required for data: 9588180
I0501 02:33:19.641409 15923 layer_factory.hpp:77] Creating layer relu2
I0501 02:33:19.641417 15923 net.cpp:86] Creating Layer relu2
I0501 02:33:19.641420 15923 net.cpp:408] relu2 <- ip2
I0501 02:33:19.641425 15923 net.cpp:369] relu2 -> ip2 (in-place)
I0501 02:33:19.641618 15923 net.cpp:124] Setting up relu2
I0501 02:33:19.641626 15923 net.cpp:131] Top shape: 111 10 (1110)
I0501 02:33:19.641630 15923 net.cpp:139] Memory required for data: 9592620
I0501 02:33:19.641634 15923 layer_factory.hpp:77] Creating layer ip3
I0501 02:33:19.641643 15923 net.cpp:86] Creating Layer ip3
I0501 02:33:19.641646 15923 net.cpp:408] ip3 <- ip2
I0501 02:33:19.641654 15923 net.cpp:382] ip3 -> ip3
I0501 02:33:19.641769 15923 net.cpp:124] Setting up ip3
I0501 02:33:19.641778 15923 net.cpp:131] Top shape: 111 10 (1110)
I0501 02:33:19.641782 15923 net.cpp:139] Memory required for data: 9597060
I0501 02:33:19.641788 15923 layer_factory.hpp:77] Creating layer loss
I0501 02:33:19.641794 15923 net.cpp:86] Creating Layer loss
I0501 02:33:19.641798 15923 net.cpp:408] loss <- ip3
I0501 02:33:19.641803 15923 net.cpp:408] loss <- label
I0501 02:33:19.641809 15923 net.cpp:382] loss -> loss
I0501 02:33:19.641830 15923 layer_factory.hpp:77] Creating layer loss
…
I0501 02:33:19.642544 15923 solver.cpp:173] Creating test net (#0) specified by net file: ECE595/cifar/train_test/var_everything/cifar_train_test_325.prototxt
I0501 02:33:19.642575 15923 net.cpp:296] The NetState phase (1) differed from the phase (0) specified by a rule in layer cifar
I0501 02:33:19.642678 15923 net.cpp:53] Initializing net from parameters: 
name: "CIFAR"
state {
  phase: TEST
}
layer {
  name: "cifar"
  type: "Data"
  top: "data"
  top: "label"
  include {
    phase: TEST
  }
  transform_param {
    mean_file: "examples/cifar10/mean.binaryproto"
  }
  data_param {
    source: "examples/cifar10/cifar10_test_lmdb"
    batch_size: 1000
    backend: LMDB
  }
}
layer {
  name: "conv0"
  type: "Convolution"
  bottom: "data"
  top: "conv0"
  param {
    lr_mult: 1
  }
  param {
    lr_mult: 2
  }
  convolution_param {
    num_output: 8
    pad: 2
    kernel_size: 5
    stride: 1
    weight_filler {
      type: "gaussian"
      std: 0.01
    }
    bias_filler {
      type: "constant"
    }
  }
}
layer {
  name: "Sigmoid0"
  type: "Sigmoid"
  bottom: "conv0"
  top: "Sigmoid0"
}
layer {
  name: "pool0"
  type: "Pooling"
  bottom: "Sigmoid0"
  top: "pool0"
  pooling_param {
    pool: AVE
    kernel_size: 3
    stride: 2
  }
}
layer {
  name: "ip1"
  type: "InnerProduct"
  bottom: "pool0"
  top: "ip1"
  param {
    lr_mult: 1
  }
  param {
    lr_mult: 2
  }
  inner_product_param {
    num_output: 40
    weight_filler {
      type: "gaussian"
      std: 0.01
    }
    bias_filler {
      type: "constant"
    }
  }
}
layer {
  name: "relu1"
  type: "ReLU"
  bottom: "ip1"
  top: "ip1"
}
layer {
  name: "ip2"
  type: "InnerProduct"
  bottom: "ip1"
  top: "ip2"
  param {
    lr_mult: 1
  }
  param {
    lr_mult: 2
  }
  inner_product_param {
    num_output: 10
    weight_filler {
      type: "gaussian"
      std: 0.01
    }
    bias_filler {
      type: "constant"
    }
  }
}
layer {
  name: "relu2"
  type: "ReLU"
  bottom: "ip2"
  top: "ip2"
}
layer {
  name: "ip3"
  type: "InnerProduct"
  bottom: "ip2"
  top: "ip3"
  param {
    lr_mult: 1
  }
  param {
    lr_mult: 2
  }
  inner_product_param {
    num_output: 10
    weight_filler {
      type: "gaussian"
      std: 0.01
    }
    bias_filler {
      type: "constant"
    }
  }
}
layer {
  name: "accuracy"
  type: "Accuracy"
  bottom: "ip3"
  bottom: "label"
  top: "accuracy"
  include {
    phase: TEST
  }
}
layer {
  name: "loss"
  type: "SoftmaxWithLoss"
  bottom: "ip3"
  bottom: "label"
  top: "loss"
}
I0501 02:33:19.642760 15923 layer_factory.hpp:77] Creating layer cifar
I0501 02:33:19.642812 15923 db_lmdb.cpp:35] Opened lmdb examples/cifar10/cifar10_test_lmdb
I0501 02:33:19.642828 15923 net.cpp:86] Creating Layer cifar
I0501 02:33:19.642833 15923 net.cpp:382] cifar -> data
I0501 02:33:19.642843 15923 net.cpp:382] cifar -> label
I0501 02:33:19.642849 15923 data_transformer.cpp:25] Loading mean file from: examples/cifar10/mean.binaryproto
I0501 02:33:19.643033 15923 data_layer.cpp:45] output data size: 1000,3,32,32
I0501 02:33:19.669006 15923 net.cpp:124] Setting up cifar
I0501 02:33:19.669037 15923 net.cpp:131] Top shape: 1000 3 32 32 (3072000)
I0501 02:33:19.669044 15923 net.cpp:131] Top shape: 1000 (1000)
I0501 02:33:19.669049 15923 net.cpp:139] Memory required for data: 12292000
I0501 02:33:19.669055 15923 layer_factory.hpp:77] Creating layer label_cifar_1_split
I0501 02:33:19.669075 15923 net.cpp:86] Creating Layer label_cifar_1_split
I0501 02:33:19.669095 15923 net.cpp:408] label_cifar_1_split <- label
I0501 02:33:19.669106 15923 net.cpp:382] label_cifar_1_split -> label_cifar_1_split_0
I0501 02:33:19.669116 15923 net.cpp:382] label_cifar_1_split -> label_cifar_1_split_1
I0501 02:33:19.669219 15923 net.cpp:124] Setting up label_cifar_1_split
I0501 02:33:19.669229 15923 net.cpp:131] Top shape: 1000 (1000)
I0501 02:33:19.669234 15923 net.cpp:131] Top shape: 1000 (1000)
I0501 02:33:19.669236 15923 net.cpp:139] Memory required for data: 12300000
I0501 02:33:19.669240 15923 layer_factory.hpp:77] Creating layer conv0
I0501 02:33:19.669256 15923 net.cpp:86] Creating Layer conv0
I0501 02:33:19.669260 15923 net.cpp:408] conv0 <- data
I0501 02:33:19.669266 15923 net.cpp:382] conv0 -> conv0
I0501 02:33:19.671133 15923 net.cpp:124] Setting up conv0
I0501 02:33:19.671149 15923 net.cpp:131] Top shape: 1000 8 32 32 (8192000)
I0501 02:33:19.671154 15923 net.cpp:139] Memory required for data: 45068000
I0501 02:33:19.671169 15923 layer_factory.hpp:77] Creating layer Sigmoid0
I0501 02:33:19.671176 15923 net.cpp:86] Creating Layer Sigmoid0
I0501 02:33:19.671180 15923 net.cpp:408] Sigmoid0 <- conv0
I0501 02:33:19.671185 15923 net.cpp:382] Sigmoid0 -> Sigmoid0
I0501 02:33:19.673161 15923 net.cpp:124] Setting up Sigmoid0
I0501 02:33:19.673178 15923 net.cpp:131] Top shape: 1000 8 32 32 (8192000)
I0501 02:33:19.673183 15923 net.cpp:139] Memory required for data: 77836000
I0501 02:33:19.673187 15923 layer_factory.hpp:77] Creating layer pool0
I0501 02:33:19.673197 15923 net.cpp:86] Creating Layer pool0
I0501 02:33:19.673203 15923 net.cpp:408] pool0 <- Sigmoid0
I0501 02:33:19.673213 15923 net.cpp:382] pool0 -> pool0
I0501 02:33:19.673441 15923 net.cpp:124] Setting up pool0
I0501 02:33:19.673452 15923 net.cpp:131] Top shape: 1000 8 16 16 (2048000)
I0501 02:33:19.673456 15923 net.cpp:139] Memory required for data: 86028000
I0501 02:33:19.673460 15923 layer_factory.hpp:77] Creating layer ip1
I0501 02:33:19.673470 15923 net.cpp:86] Creating Layer ip1
I0501 02:33:19.673483 15923 net.cpp:408] ip1 <- pool0
I0501 02:33:19.673490 15923 net.cpp:382] ip1 -> ip1
I0501 02:33:19.676336 15923 net.cpp:124] Setting up ip1
I0501 02:33:19.676345 15923 net.cpp:131] Top shape: 1000 40 (40000)
I0501 02:33:19.676349 15923 net.cpp:139] Memory required for data: 86188000
I0501 02:33:19.676359 15923 layer_factory.hpp:77] Creating layer relu1
I0501 02:33:19.676367 15923 net.cpp:86] Creating Layer relu1
I0501 02:33:19.676370 15923 net.cpp:408] relu1 <- ip1
I0501 02:33:19.676375 15923 net.cpp:369] relu1 -> ip1 (in-place)
I0501 02:33:19.676573 15923 net.cpp:124] Setting up relu1
I0501 02:33:19.676584 15923 net.cpp:131] Top shape: 1000 40 (40000)
I0501 02:33:19.676587 15923 net.cpp:139] Memory required for data: 86348000
I0501 02:33:19.676591 15923 layer_factory.hpp:77] Creating layer ip2
I0501 02:33:19.676599 15923 net.cpp:86] Creating Layer ip2
I0501 02:33:19.676602 15923 net.cpp:408] ip2 <- ip1
I0501 02:33:19.676609 15923 net.cpp:382] ip2 -> ip2
I0501 02:33:19.676749 15923 net.cpp:124] Setting up ip2
I0501 02:33:19.676759 15923 net.cpp:131] Top shape: 1000 10 (10000)
I0501 02:33:19.676761 15923 net.cpp:139] Memory required for data: 86388000
I0501 02:33:19.676770 15923 layer_factory.hpp:77] Creating layer relu2
I0501 02:33:19.676777 15923 net.cpp:86] Creating Layer relu2
I0501 02:33:19.676790 15923 net.cpp:408] relu2 <- ip2
I0501 02:33:19.676796 15923 net.cpp:369] relu2 -> ip2 (in-place)
I0501 02:33:19.676997 15923 net.cpp:124] Setting up relu2
I0501 02:33:19.677008 15923 net.cpp:131] Top shape: 1000 10 (10000)
I0501 02:33:19.677012 15923 net.cpp:139] Memory required for data: 86428000
I0501 02:33:19.677016 15923 layer_factory.hpp:77] Creating layer ip3
I0501 02:33:19.677027 15923 net.cpp:86] Creating Layer ip3
I0501 02:33:19.677031 15923 net.cpp:408] ip3 <- ip2
I0501 02:33:19.677037 15923 net.cpp:382] ip3 -> ip3
I0501 02:33:19.677165 15923 net.cpp:124] Setting up ip3
I0501 02:33:19.677179 15923 net.cpp:131] Top shape: 1000 10 (10000)
I0501 02:33:19.677183 15923 net.cpp:139] Memory required for data: 86468000
I0501 02:33:19.677201 15923 layer_factory.hpp:77] Creating layer ip3_ip3_0_split
I0501 02:33:19.677207 15923 net.cpp:86] Creating Layer ip3_ip3_0_split
I0501 02:33:19.677211 15923 net.cpp:408] ip3_ip3_0_split <- ip3
I0501 02:33:19.677218 15923 net.cpp:382] ip3_ip3_0_split -> ip3_ip3_0_split_0
I0501 02:33:19.677224 15923 net.cpp:382] ip3_ip3_0_split -> ip3_ip3_0_split_1
I0501 02:33:19.677263 15923 net.cpp:124] Setting up ip3_ip3_0_split
I0501 02:33:19.677269 15923 net.cpp:131] Top shape: 1000 10 (10000)
I0501 02:33:19.677274 15923 net.cpp:131] Top shape: 1000 10 (10000)
I0501 02:33:19.677278 15923 net.cpp:139] Memory required for data: 86548000
I0501 02:33:19.677281 15923 layer_factory.hpp:77] Creating layer accuracy
I0501 02:33:19.677289 15923 net.cpp:86] Creating Layer accuracy
I0501 02:33:19.677292 15923 net.cpp:408] accuracy <- ip3_ip3_0_split_0
I0501 02:33:19.677297 15923 net.cpp:408] accuracy <- label_cifar_1_split_0
I0501 02:33:19.677304 15923 net.cpp:382] accuracy -> accuracy
…
