…
I0501 05:09:23.909765 27975 net.cpp:296] The NetState phase (0) differed from the phase (1) specified by a rule in layer cifar
I0501 05:09:23.909781 27975 net.cpp:296] The NetState phase (0) differed from the phase (1) specified by a rule in layer accuracy
I0501 05:09:23.909879 27975 net.cpp:53] Initializing net from parameters: 
name: "CIFAR"
state {
  phase: TRAIN
  level: 0
  stage: ""
}
layer {
  name: "cifar"
  type: "Data"
  top: "data"
  top: "label"
  include {
    phase: TRAIN
  }
  transform_param {
    mean_file: "examples/cifar10/mean.binaryproto"
  }
  data_param {
    source: "examples/cifar10/cifar10_train_lmdb"
    batch_size: 111
    backend: LMDB
  }
}
layer {
  name: "conv0"
  type: "Convolution"
  bottom: "data"
  top: "conv0"
  param {
    lr_mult: 1
  }
  param {
    lr_mult: 2
  }
  convolution_param {
    num_output: 8
    pad: 2
    kernel_size: 5
    stride: 1
    weight_filler {
      type: "gaussian"
      std: 0.01
    }
    bias_filler {
      type: "constant"
    }
  }
}
layer {
  name: "Sigmoid0"
  type: "Sigmoid"
  bottom: "conv0"
  top: "Sigmoid0"
}
layer {
  name: "pool0"
  type: "Pooling"
  bottom: "Sigmoid0"
  top: "pool0"
  pooling_param {
    pool: AVE
    kernel_size: 3
    stride: 2
  }
}
layer {
  name: "ip1"
  type: "InnerProduct"
  bottom: "pool0"
  top: "ip1"
  param {
    lr_mult: 1
  }
  param {
    lr_mult: 2
  }
  inner_product_param {
    num_output: 40
    weight_filler {
      type: "gaussian"
      std: 0.01
    }
    bias_filler {
      type: "constant"
    }
  }
}
layer {
  name: "relu1"
  type: "ReLU"
  bottom: "ip1"
  top: "ip1"
}
layer {
  name: "ip2"
  type: "InnerProduct"
  bottom: "ip1"
  top: "ip2"
  param {
    lr_mult: 1
  }
  param {
    lr_mult: 2
  }
  inner_product_param {
    num_output: 80
    weight_filler {
      type: "gaussian"
      std: 0.01
    }
    bias_filler {
      type: "constant"
    }
  }
}
layer {
  name: "relu2"
  type: "ReLU"
  bottom: "ip2"
  top: "ip2"
}
layer {
  name: "ip3"
  type: "InnerProduct"
  bottom: "ip2"
  top: "ip3"
  param {
    lr_mult: 1
  }
  param {
    lr_mult: 2
  }
  inner_product_param {
    num_output: 160
    weight_filler {
      type: "gaussian"
      std: 0.01
    }
    bias_filler {
      type: "constant"
    }
  }
}
layer {
  name: "relu3"
  type: "ReLU"
  bottom: "ip3"
  top: "ip3"
}
layer {
  name: "ip4"
  type: "InnerProduct"
  bottom: "ip3"
  top: "ip4"
  param {
    lr_mult: 1
  }
  param {
    lr_mult: 2
  }
  inner_product_param {
    num_output: 10
    weight_filler {
      type: "gaussian"
      std: 0.01
    }
    bias_filler {
      type: "constant"
    }
  }
}
layer {
  name: "loss"
  type: "SoftmaxWithLoss"
  bottom: "ip4"
  bottom: "label"
  top: "loss"
}
I0501 05:09:23.909973 27975 layer_factory.hpp:77] Creating layer cifar
I0501 05:09:23.910078 27975 db_lmdb.cpp:35] Opened lmdb examples/cifar10/cifar10_train_lmdb
I0501 05:09:23.910109 27975 net.cpp:86] Creating Layer cifar
I0501 05:09:23.910118 27975 net.cpp:382] cifar -> data
I0501 05:09:23.910161 27975 net.cpp:382] cifar -> label
I0501 05:09:23.910174 27975 data_transformer.cpp:25] Loading mean file from: examples/cifar10/mean.binaryproto
I0501 05:09:23.912216 27975 data_layer.cpp:45] output data size: 111,3,32,32
I0501 05:09:23.918603 27975 net.cpp:124] Setting up cifar
I0501 05:09:23.918617 27975 net.cpp:131] Top shape: 111 3 32 32 (340992)
I0501 05:09:23.918622 27975 net.cpp:131] Top shape: 111 (111)
I0501 05:09:23.918625 27975 net.cpp:139] Memory required for data: 1364412
I0501 05:09:23.918643 27975 layer_factory.hpp:77] Creating layer conv0
I0501 05:09:23.918659 27975 net.cpp:86] Creating Layer conv0
I0501 05:09:23.918666 27975 net.cpp:408] conv0 <- data
I0501 05:09:23.918679 27975 net.cpp:382] conv0 -> conv0
I0501 05:09:24.147773 27975 net.cpp:124] Setting up conv0
I0501 05:09:24.147799 27975 net.cpp:131] Top shape: 111 8 32 32 (909312)
I0501 05:09:24.147802 27975 net.cpp:139] Memory required for data: 5001660
I0501 05:09:24.147817 27975 layer_factory.hpp:77] Creating layer Sigmoid0
I0501 05:09:24.147827 27975 net.cpp:86] Creating Layer Sigmoid0
I0501 05:09:24.147831 27975 net.cpp:408] Sigmoid0 <- conv0
I0501 05:09:24.147836 27975 net.cpp:382] Sigmoid0 -> Sigmoid0
I0501 05:09:24.148013 27975 net.cpp:124] Setting up Sigmoid0
I0501 05:09:24.148023 27975 net.cpp:131] Top shape: 111 8 32 32 (909312)
I0501 05:09:24.148026 27975 net.cpp:139] Memory required for data: 8638908
I0501 05:09:24.148030 27975 layer_factory.hpp:77] Creating layer pool0
I0501 05:09:24.148038 27975 net.cpp:86] Creating Layer pool0
I0501 05:09:24.148043 27975 net.cpp:408] pool0 <- Sigmoid0
I0501 05:09:24.148051 27975 net.cpp:382] pool0 -> pool0
I0501 05:09:24.148768 27975 net.cpp:124] Setting up pool0
I0501 05:09:24.148780 27975 net.cpp:131] Top shape: 111 8 16 16 (227328)
I0501 05:09:24.148783 27975 net.cpp:139] Memory required for data: 9548220
I0501 05:09:24.148787 27975 layer_factory.hpp:77] Creating layer ip1
I0501 05:09:24.148795 27975 net.cpp:86] Creating Layer ip1
I0501 05:09:24.148799 27975 net.cpp:408] ip1 <- pool0
I0501 05:09:24.148803 27975 net.cpp:382] ip1 -> ip1
I0501 05:09:24.150938 27975 net.cpp:124] Setting up ip1
I0501 05:09:24.150946 27975 net.cpp:131] Top shape: 111 40 (4440)
I0501 05:09:24.150949 27975 net.cpp:139] Memory required for data: 9565980
I0501 05:09:24.150956 27975 layer_factory.hpp:77] Creating layer relu1
I0501 05:09:24.150961 27975 net.cpp:86] Creating Layer relu1
I0501 05:09:24.150964 27975 net.cpp:408] relu1 <- ip1
I0501 05:09:24.150969 27975 net.cpp:369] relu1 -> ip1 (in-place)
I0501 05:09:24.151129 27975 net.cpp:124] Setting up relu1
I0501 05:09:24.151137 27975 net.cpp:131] Top shape: 111 40 (4440)
I0501 05:09:24.151140 27975 net.cpp:139] Memory required for data: 9583740
I0501 05:09:24.151144 27975 layer_factory.hpp:77] Creating layer ip2
I0501 05:09:24.151151 27975 net.cpp:86] Creating Layer ip2
I0501 05:09:24.151156 27975 net.cpp:408] ip2 <- ip1
I0501 05:09:24.151163 27975 net.cpp:382] ip2 -> ip2
I0501 05:09:24.151340 27975 net.cpp:124] Setting up ip2
I0501 05:09:24.151347 27975 net.cpp:131] Top shape: 111 80 (8880)
I0501 05:09:24.151350 27975 net.cpp:139] Memory required for data: 9619260
I0501 05:09:24.151360 27975 layer_factory.hpp:77] Creating layer relu2
I0501 05:09:24.151367 27975 net.cpp:86] Creating Layer relu2
I0501 05:09:24.151372 27975 net.cpp:408] relu2 <- ip2
I0501 05:09:24.151378 27975 net.cpp:369] relu2 -> ip2 (in-place)
I0501 05:09:24.151540 27975 net.cpp:124] Setting up relu2
I0501 05:09:24.151548 27975 net.cpp:131] Top shape: 111 80 (8880)
I0501 05:09:24.151551 27975 net.cpp:139] Memory required for data: 9654780
I0501 05:09:24.151554 27975 layer_factory.hpp:77] Creating layer ip3
I0501 05:09:24.151566 27975 net.cpp:86] Creating Layer ip3
I0501 05:09:24.151571 27975 net.cpp:408] ip3 <- ip2
I0501 05:09:24.151577 27975 net.cpp:382] ip3 -> ip3
I0501 05:09:24.152839 27975 net.cpp:124] Setting up ip3
I0501 05:09:24.152850 27975 net.cpp:131] Top shape: 111 160 (17760)
I0501 05:09:24.152869 27975 net.cpp:139] Memory required for data: 9725820
I0501 05:09:24.152875 27975 layer_factory.hpp:77] Creating layer relu3
I0501 05:09:24.152880 27975 net.cpp:86] Creating Layer relu3
I0501 05:09:24.152884 27975 net.cpp:408] relu3 <- ip3
I0501 05:09:24.152889 27975 net.cpp:369] relu3 -> ip3 (in-place)
I0501 05:09:24.153071 27975 net.cpp:124] Setting up relu3
I0501 05:09:24.153080 27975 net.cpp:131] Top shape: 111 160 (17760)
I0501 05:09:24.153084 27975 net.cpp:139] Memory required for data: 9796860
I0501 05:09:24.153086 27975 layer_factory.hpp:77] Creating layer ip4
I0501 05:09:24.153111 27975 net.cpp:86] Creating Layer ip4
I0501 05:09:24.153117 27975 net.cpp:408] ip4 <- ip3
I0501 05:09:24.153126 27975 net.cpp:382] ip4 -> ip4
I0501 05:09:24.153275 27975 net.cpp:124] Setting up ip4
I0501 05:09:24.153283 27975 net.cpp:131] Top shape: 111 10 (1110)
I0501 05:09:24.153286 27975 net.cpp:139] Memory required for data: 9801300
I0501 05:09:24.153295 27975 layer_factory.hpp:77] Creating layer loss
I0501 05:09:24.153303 27975 net.cpp:86] Creating Layer loss
I0501 05:09:24.153308 27975 net.cpp:408] loss <- ip4
I0501 05:09:24.153314 27975 net.cpp:408] loss <- label
I0501 05:09:24.153322 27975 net.cpp:382] loss -> loss
I0501 05:09:24.153343 27975 layer_factory.hpp:77] Creating layer loss
…
I0501 05:09:24.154480 27975 solver.cpp:173] Creating test net (#0) specified by net file: ECE595/cifar/train_test/var_everything/cifar_train_test_409.prototxt
I0501 05:09:24.154513 27975 net.cpp:296] The NetState phase (1) differed from the phase (0) specified by a rule in layer cifar
I0501 05:09:24.154609 27975 net.cpp:53] Initializing net from parameters: 
name: "CIFAR"
state {
  phase: TEST
}
layer {
  name: "cifar"
  type: "Data"
  top: "data"
  top: "label"
  include {
    phase: TEST
  }
  transform_param {
    mean_file: "examples/cifar10/mean.binaryproto"
  }
  data_param {
    source: "examples/cifar10/cifar10_test_lmdb"
    batch_size: 1000
    backend: LMDB
  }
}
layer {
  name: "conv0"
  type: "Convolution"
  bottom: "data"
  top: "conv0"
  param {
    lr_mult: 1
  }
  param {
    lr_mult: 2
  }
  convolution_param {
    num_output: 8
    pad: 2
    kernel_size: 5
    stride: 1
    weight_filler {
      type: "gaussian"
      std: 0.01
    }
    bias_filler {
      type: "constant"
    }
  }
}
layer {
  name: "Sigmoid0"
  type: "Sigmoid"
  bottom: "conv0"
  top: "Sigmoid0"
}
layer {
  name: "pool0"
  type: "Pooling"
  bottom: "Sigmoid0"
  top: "pool0"
  pooling_param {
    pool: AVE
    kernel_size: 3
    stride: 2
  }
}
layer {
  name: "ip1"
  type: "InnerProduct"
  bottom: "pool0"
  top: "ip1"
  param {
    lr_mult: 1
  }
  param {
    lr_mult: 2
  }
  inner_product_param {
    num_output: 40
    weight_filler {
      type: "gaussian"
      std: 0.01
    }
    bias_filler {
      type: "constant"
    }
  }
}
layer {
  name: "relu1"
  type: "ReLU"
  bottom: "ip1"
  top: "ip1"
}
layer {
  name: "ip2"
  type: "InnerProduct"
  bottom: "ip1"
  top: "ip2"
  param {
    lr_mult: 1
  }
  param {
    lr_mult: 2
  }
  inner_product_param {
    num_output: 80
    weight_filler {
      type: "gaussian"
      std: 0.01
    }
    bias_filler {
      type: "constant"
    }
  }
}
layer {
  name: "relu2"
  type: "ReLU"
  bottom: "ip2"
  top: "ip2"
}
layer {
  name: "ip3"
  type: "InnerProduct"
  bottom: "ip2"
  top: "ip3"
  param {
    lr_mult: 1
  }
  param {
    lr_mult: 2
  }
  inner_product_param {
    num_output: 160
    weight_filler {
      type: "gaussian"
      std: 0.01
    }
    bias_filler {
      type: "constant"
    }
  }
}
layer {
  name: "relu3"
  type: "ReLU"
  bottom: "ip3"
  top: "ip3"
}
layer {
  name: "ip4"
  type: "InnerProduct"
  bottom: "ip3"
  top: "ip4"
  param {
    lr_mult: 1
  }
  param {
    lr_mult: 2
  }
  inner_product_param {
    num_output: 10
    weight_filler {
      type: "gaussian"
      std: 0.01
    }
    bias_filler {
      type: "constant"
    }
  }
}
layer {
  name: "accuracy"
  type: "Accuracy"
  bottom: "ip4"
  bottom: "label"
  top: "accuracy"
  include {
    phase: TEST
  }
}
layer {
  name: "loss"
  type: "SoftmaxWithLoss"
  bottom: "ip4"
  bottom: "label"
  top: "loss"
}
I0501 05:09:24.154707 27975 layer_factory.hpp:77] Creating layer cifar
I0501 05:09:24.154764 27975 db_lmdb.cpp:35] Opened lmdb examples/cifar10/cifar10_test_lmdb
I0501 05:09:24.154781 27975 net.cpp:86] Creating Layer cifar
I0501 05:09:24.154788 27975 net.cpp:382] cifar -> data
I0501 05:09:24.154814 27975 net.cpp:382] cifar -> label
I0501 05:09:24.154824 27975 data_transformer.cpp:25] Loading mean file from: examples/cifar10/mean.binaryproto
I0501 05:09:24.155001 27975 data_layer.cpp:45] output data size: 1000,3,32,32
I0501 05:09:24.176558 27975 net.cpp:124] Setting up cifar
I0501 05:09:24.176597 27975 net.cpp:131] Top shape: 1000 3 32 32 (3072000)
I0501 05:09:24.176618 27975 net.cpp:131] Top shape: 1000 (1000)
I0501 05:09:24.176621 27975 net.cpp:139] Memory required for data: 12292000
I0501 05:09:24.176628 27975 layer_factory.hpp:77] Creating layer label_cifar_1_split
I0501 05:09:24.176645 27975 net.cpp:86] Creating Layer label_cifar_1_split
I0501 05:09:24.176648 27975 net.cpp:408] label_cifar_1_split <- label
I0501 05:09:24.176656 27975 net.cpp:382] label_cifar_1_split -> label_cifar_1_split_0
I0501 05:09:24.176668 27975 net.cpp:382] label_cifar_1_split -> label_cifar_1_split_1
I0501 05:09:24.176797 27975 net.cpp:124] Setting up label_cifar_1_split
I0501 05:09:24.176805 27975 net.cpp:131] Top shape: 1000 (1000)
I0501 05:09:24.176831 27975 net.cpp:131] Top shape: 1000 (1000)
I0501 05:09:24.176834 27975 net.cpp:139] Memory required for data: 12300000
I0501 05:09:24.176837 27975 layer_factory.hpp:77] Creating layer conv0
I0501 05:09:24.176868 27975 net.cpp:86] Creating Layer conv0
I0501 05:09:24.176874 27975 net.cpp:408] conv0 <- data
I0501 05:09:24.176898 27975 net.cpp:382] conv0 -> conv0
I0501 05:09:24.178433 27975 net.cpp:124] Setting up conv0
I0501 05:09:24.178462 27975 net.cpp:131] Top shape: 1000 8 32 32 (8192000)
I0501 05:09:24.178465 27975 net.cpp:139] Memory required for data: 45068000
I0501 05:09:24.178474 27975 layer_factory.hpp:77] Creating layer Sigmoid0
I0501 05:09:24.178483 27975 net.cpp:86] Creating Layer Sigmoid0
I0501 05:09:24.178486 27975 net.cpp:408] Sigmoid0 <- conv0
I0501 05:09:24.178490 27975 net.cpp:382] Sigmoid0 -> Sigmoid0
I0501 05:09:24.178669 27975 net.cpp:124] Setting up Sigmoid0
I0501 05:09:24.178678 27975 net.cpp:131] Top shape: 1000 8 32 32 (8192000)
I0501 05:09:24.178681 27975 net.cpp:139] Memory required for data: 77836000
I0501 05:09:24.178685 27975 layer_factory.hpp:77] Creating layer pool0
I0501 05:09:24.178695 27975 net.cpp:86] Creating Layer pool0
I0501 05:09:24.178701 27975 net.cpp:408] pool0 <- Sigmoid0
I0501 05:09:24.178707 27975 net.cpp:382] pool0 -> pool0
I0501 05:09:24.178952 27975 net.cpp:124] Setting up pool0
I0501 05:09:24.178961 27975 net.cpp:131] Top shape: 1000 8 16 16 (2048000)
I0501 05:09:24.178964 27975 net.cpp:139] Memory required for data: 86028000
I0501 05:09:24.178968 27975 layer_factory.hpp:77] Creating layer ip1
I0501 05:09:24.178979 27975 net.cpp:86] Creating Layer ip1
I0501 05:09:24.178984 27975 net.cpp:408] ip1 <- pool0
I0501 05:09:24.178992 27975 net.cpp:382] ip1 -> ip1
I0501 05:09:24.182083 27975 net.cpp:124] Setting up ip1
I0501 05:09:24.182093 27975 net.cpp:131] Top shape: 1000 40 (40000)
I0501 05:09:24.182111 27975 net.cpp:139] Memory required for data: 86188000
I0501 05:09:24.182134 27975 layer_factory.hpp:77] Creating layer relu1
I0501 05:09:24.182142 27975 net.cpp:86] Creating Layer relu1
I0501 05:09:24.182144 27975 net.cpp:408] relu1 <- ip1
I0501 05:09:24.182150 27975 net.cpp:369] relu1 -> ip1 (in-place)
I0501 05:09:24.182323 27975 net.cpp:124] Setting up relu1
I0501 05:09:24.182332 27975 net.cpp:131] Top shape: 1000 40 (40000)
I0501 05:09:24.182335 27975 net.cpp:139] Memory required for data: 86348000
I0501 05:09:24.182338 27975 layer_factory.hpp:77] Creating layer ip2
I0501 05:09:24.182348 27975 net.cpp:86] Creating Layer ip2
I0501 05:09:24.182353 27975 net.cpp:408] ip2 <- ip1
I0501 05:09:24.182360 27975 net.cpp:382] ip2 -> ip2
I0501 05:09:24.182549 27975 net.cpp:124] Setting up ip2
I0501 05:09:24.182559 27975 net.cpp:131] Top shape: 1000 80 (80000)
I0501 05:09:24.182561 27975 net.cpp:139] Memory required for data: 86668000
I0501 05:09:24.182570 27975 layer_factory.hpp:77] Creating layer relu2
I0501 05:09:24.182579 27975 net.cpp:86] Creating Layer relu2
I0501 05:09:24.182585 27975 net.cpp:408] relu2 <- ip2
I0501 05:09:24.182590 27975 net.cpp:369] relu2 -> ip2 (in-place)
I0501 05:09:24.183306 27975 net.cpp:124] Setting up relu2
I0501 05:09:24.183318 27975 net.cpp:131] Top shape: 1000 80 (80000)
I0501 05:09:24.183337 27975 net.cpp:139] Memory required for data: 86988000
I0501 05:09:24.183341 27975 layer_factory.hpp:77] Creating layer ip3
I0501 05:09:24.183347 27975 net.cpp:86] Creating Layer ip3
I0501 05:09:24.183351 27975 net.cpp:408] ip3 <- ip2
I0501 05:09:24.183357 27975 net.cpp:382] ip3 -> ip3
I0501 05:09:24.183805 27975 net.cpp:124] Setting up ip3
I0501 05:09:24.183814 27975 net.cpp:131] Top shape: 1000 160 (160000)
I0501 05:09:24.183831 27975 net.cpp:139] Memory required for data: 87628000
I0501 05:09:24.183837 27975 layer_factory.hpp:77] Creating layer relu3
I0501 05:09:24.183841 27975 net.cpp:86] Creating Layer relu3
I0501 05:09:24.183845 27975 net.cpp:408] relu3 <- ip3
I0501 05:09:24.183851 27975 net.cpp:369] relu3 -> ip3 (in-place)
I0501 05:09:24.184021 27975 net.cpp:124] Setting up relu3
I0501 05:09:24.184029 27975 net.cpp:131] Top shape: 1000 160 (160000)
I0501 05:09:24.184032 27975 net.cpp:139] Memory required for data: 88268000
I0501 05:09:24.184036 27975 layer_factory.hpp:77] Creating layer ip4
I0501 05:09:24.184046 27975 net.cpp:86] Creating Layer ip4
I0501 05:09:24.184051 27975 net.cpp:408] ip4 <- ip3
I0501 05:09:24.184058 27975 net.cpp:382] ip4 -> ip4
I0501 05:09:24.184206 27975 net.cpp:124] Setting up ip4
I0501 05:09:24.184213 27975 net.cpp:131] Top shape: 1000 10 (10000)
I0501 05:09:24.184216 27975 net.cpp:139] Memory required for data: 88308000
I0501 05:09:24.184226 27975 layer_factory.hpp:77] Creating layer ip4_ip4_0_split
I0501 05:09:24.184236 27975 net.cpp:86] Creating Layer ip4_ip4_0_split
I0501 05:09:24.184240 27975 net.cpp:408] ip4_ip4_0_split <- ip4
I0501 05:09:24.184247 27975 net.cpp:382] ip4_ip4_0_split -> ip4_ip4_0_split_0
I0501 05:09:24.184255 27975 net.cpp:382] ip4_ip4_0_split -> ip4_ip4_0_split_1
I0501 05:09:24.184299 27975 net.cpp:124] Setting up ip4_ip4_0_split
I0501 05:09:24.184306 27975 net.cpp:131] Top shape: 1000 10 (10000)
I0501 05:09:24.184310 27975 net.cpp:131] Top shape: 1000 10 (10000)
I0501 05:09:24.184312 27975 net.cpp:139] Memory required for data: 88388000
I0501 05:09:24.184316 27975 layer_factory.hpp:77] Creating layer accuracy
I0501 05:09:24.184325 27975 net.cpp:86] Creating Layer accuracy
I0501 05:09:24.184330 27975 net.cpp:408] accuracy <- ip4_ip4_0_split_0
I0501 05:09:24.184336 27975 net.cpp:408] accuracy <- label_cifar_1_split_0
I0501 05:09:24.184345 27975 net.cpp:382] accuracy -> accuracy
…
