…
I0501 09:19:38.141577 14018 net.cpp:296] The NetState phase (0) differed from the phase (1) specified by a rule in layer cifar
I0501 09:19:38.141597 14018 net.cpp:296] The NetState phase (0) differed from the phase (1) specified by a rule in layer accuracy
I0501 09:19:38.141705 14018 net.cpp:53] Initializing net from parameters: 
name: "CIFAR"
state {
  phase: TRAIN
  level: 0
  stage: ""
}
layer {
  name: "cifar"
  type: "Data"
  top: "data"
  top: "label"
  include {
    phase: TRAIN
  }
  transform_param {
    mean_file: "examples/cifar10/mean.binaryproto"
  }
  data_param {
    source: "examples/cifar10/cifar10_train_lmdb"
    batch_size: 111
    backend: LMDB
  }
}
layer {
  name: "conv0"
  type: "Convolution"
  bottom: "data"
  top: "conv0"
  param {
    lr_mult: 1
  }
  param {
    lr_mult: 2
  }
  convolution_param {
    num_output: 16
    pad: 2
    kernel_size: 3
    stride: 1
    weight_filler {
      type: "gaussian"
      std: 0.01
    }
    bias_filler {
      type: "constant"
    }
  }
}
layer {
  name: "Sigmoid0"
  type: "Sigmoid"
  bottom: "conv0"
  top: "Sigmoid0"
}
layer {
  name: "pool0"
  type: "Pooling"
  bottom: "Sigmoid0"
  top: "pool0"
  pooling_param {
    pool: AVE
    kernel_size: 3
    stride: 2
  }
}
layer {
  name: "ip1"
  type: "InnerProduct"
  bottom: "pool0"
  top: "ip1"
  param {
    lr_mult: 1
  }
  param {
    lr_mult: 2
  }
  inner_product_param {
    num_output: 20
    weight_filler {
      type: "gaussian"
      std: 0.01
    }
    bias_filler {
      type: "constant"
    }
  }
}
layer {
  name: "relu1"
  type: "ReLU"
  bottom: "ip1"
  top: "ip1"
}
layer {
  name: "ip2"
  type: "InnerProduct"
  bottom: "ip1"
  top: "ip2"
  param {
    lr_mult: 1
  }
  param {
    lr_mult: 2
  }
  inner_product_param {
    num_output: 80
    weight_filler {
      type: "gaussian"
      std: 0.01
    }
    bias_filler {
      type: "constant"
    }
  }
}
layer {
  name: "relu2"
  type: "ReLU"
  bottom: "ip2"
  top: "ip2"
}
layer {
  name: "ip3"
  type: "InnerProduct"
  bottom: "ip2"
  top: "ip3"
  param {
    lr_mult: 1
  }
  param {
    lr_mult: 2
  }
  inner_product_param {
    num_output: 20
    weight_filler {
      type: "gaussian"
      std: 0.01
    }
    bias_filler {
      type: "constant"
    }
  }
}
layer {
  name: "relu3"
  type: "ReLU"
  bottom: "ip3"
  top: "ip3"
}
layer {
  name: "ip4"
  type: "InnerProduct"
  bottom: "ip3"
  top: "ip4"
  param {
    lr_mult: 1
  }
  param {
    lr_mult: 2
  }
  inner_product_param {
    num_output: 10
    weight_filler {
      type: "gaussian"
      std: 0.01
    }
    bias_filler {
      type: "constant"
    }
  }
}
layer {
  name: "loss"
  type: "SoftmaxWithLoss"
  bottom: "ip4"
  bottom: "label"
  top: "loss"
}
I0501 09:19:38.141789 14018 layer_factory.hpp:77] Creating layer cifar
I0501 09:19:38.141890 14018 db_lmdb.cpp:35] Opened lmdb examples/cifar10/cifar10_train_lmdb
I0501 09:19:38.141917 14018 net.cpp:86] Creating Layer cifar
I0501 09:19:38.141927 14018 net.cpp:382] cifar -> data
I0501 09:19:38.141950 14018 net.cpp:382] cifar -> label
I0501 09:19:38.141963 14018 data_transformer.cpp:25] Loading mean file from: examples/cifar10/mean.binaryproto
I0501 09:19:38.144140 14018 data_layer.cpp:45] output data size: 111,3,32,32
I0501 09:19:38.152112 14018 net.cpp:124] Setting up cifar
I0501 09:19:38.152132 14018 net.cpp:131] Top shape: 111 3 32 32 (340992)
I0501 09:19:38.152139 14018 net.cpp:131] Top shape: 111 (111)
I0501 09:19:38.152143 14018 net.cpp:139] Memory required for data: 1364412
I0501 09:19:38.152166 14018 layer_factory.hpp:77] Creating layer conv0
I0501 09:19:38.152184 14018 net.cpp:86] Creating Layer conv0
I0501 09:19:38.152189 14018 net.cpp:408] conv0 <- data
I0501 09:19:38.152204 14018 net.cpp:382] conv0 -> conv0
I0501 09:19:38.390957 14018 net.cpp:124] Setting up conv0
I0501 09:19:38.390998 14018 net.cpp:131] Top shape: 111 16 34 34 (2053056)
I0501 09:19:38.391002 14018 net.cpp:139] Memory required for data: 9576636
I0501 09:19:38.391018 14018 layer_factory.hpp:77] Creating layer Sigmoid0
I0501 09:19:38.391031 14018 net.cpp:86] Creating Layer Sigmoid0
I0501 09:19:38.391033 14018 net.cpp:408] Sigmoid0 <- conv0
I0501 09:19:38.391041 14018 net.cpp:382] Sigmoid0 -> Sigmoid0
I0501 09:19:38.391213 14018 net.cpp:124] Setting up Sigmoid0
I0501 09:19:38.391223 14018 net.cpp:131] Top shape: 111 16 34 34 (2053056)
I0501 09:19:38.391227 14018 net.cpp:139] Memory required for data: 17788860
I0501 09:19:38.391229 14018 layer_factory.hpp:77] Creating layer pool0
I0501 09:19:38.391237 14018 net.cpp:86] Creating Layer pool0
I0501 09:19:38.391239 14018 net.cpp:408] pool0 <- Sigmoid0
I0501 09:19:38.391243 14018 net.cpp:382] pool0 -> pool0
I0501 09:19:38.391953 14018 net.cpp:124] Setting up pool0
I0501 09:19:38.391965 14018 net.cpp:131] Top shape: 111 16 17 17 (513264)
I0501 09:19:38.391984 14018 net.cpp:139] Memory required for data: 19841916
I0501 09:19:38.391988 14018 layer_factory.hpp:77] Creating layer ip1
I0501 09:19:38.391997 14018 net.cpp:86] Creating Layer ip1
I0501 09:19:38.392000 14018 net.cpp:408] ip1 <- pool0
I0501 09:19:38.392006 14018 net.cpp:382] ip1 -> ip1
I0501 09:19:38.394701 14018 net.cpp:124] Setting up ip1
I0501 09:19:38.394711 14018 net.cpp:131] Top shape: 111 20 (2220)
I0501 09:19:38.394729 14018 net.cpp:139] Memory required for data: 19850796
I0501 09:19:38.394737 14018 layer_factory.hpp:77] Creating layer relu1
I0501 09:19:38.394742 14018 net.cpp:86] Creating Layer relu1
I0501 09:19:38.394745 14018 net.cpp:408] relu1 <- ip1
I0501 09:19:38.394749 14018 net.cpp:369] relu1 -> ip1 (in-place)
I0501 09:19:38.394920 14018 net.cpp:124] Setting up relu1
I0501 09:19:38.394929 14018 net.cpp:131] Top shape: 111 20 (2220)
I0501 09:19:38.394933 14018 net.cpp:139] Memory required for data: 19859676
I0501 09:19:38.394937 14018 layer_factory.hpp:77] Creating layer ip2
I0501 09:19:38.394942 14018 net.cpp:86] Creating Layer ip2
I0501 09:19:38.394945 14018 net.cpp:408] ip2 <- ip1
I0501 09:19:38.394950 14018 net.cpp:382] ip2 -> ip2
I0501 09:19:38.395092 14018 net.cpp:124] Setting up ip2
I0501 09:19:38.395098 14018 net.cpp:131] Top shape: 111 80 (8880)
I0501 09:19:38.395102 14018 net.cpp:139] Memory required for data: 19895196
I0501 09:19:38.395108 14018 layer_factory.hpp:77] Creating layer relu2
I0501 09:19:38.395114 14018 net.cpp:86] Creating Layer relu2
I0501 09:19:38.395117 14018 net.cpp:408] relu2 <- ip2
I0501 09:19:38.395122 14018 net.cpp:369] relu2 -> ip2 (in-place)
I0501 09:19:38.395273 14018 net.cpp:124] Setting up relu2
I0501 09:19:38.395282 14018 net.cpp:131] Top shape: 111 80 (8880)
I0501 09:19:38.395285 14018 net.cpp:139] Memory required for data: 19930716
I0501 09:19:38.395288 14018 layer_factory.hpp:77] Creating layer ip3
I0501 09:19:38.395295 14018 net.cpp:86] Creating Layer ip3
I0501 09:19:38.395298 14018 net.cpp:408] ip3 <- ip2
I0501 09:19:38.395304 14018 net.cpp:382] ip3 -> ip3
I0501 09:19:38.395438 14018 net.cpp:124] Setting up ip3
I0501 09:19:38.395445 14018 net.cpp:131] Top shape: 111 20 (2220)
I0501 09:19:38.395447 14018 net.cpp:139] Memory required for data: 19939596
I0501 09:19:38.395452 14018 layer_factory.hpp:77] Creating layer relu3
I0501 09:19:38.395457 14018 net.cpp:86] Creating Layer relu3
I0501 09:19:38.395460 14018 net.cpp:408] relu3 <- ip3
I0501 09:19:38.395465 14018 net.cpp:369] relu3 -> ip3 (in-place)
I0501 09:19:38.395612 14018 net.cpp:124] Setting up relu3
I0501 09:19:38.395620 14018 net.cpp:131] Top shape: 111 20 (2220)
I0501 09:19:38.395623 14018 net.cpp:139] Memory required for data: 19948476
I0501 09:19:38.395627 14018 layer_factory.hpp:77] Creating layer ip4
I0501 09:19:38.395648 14018 net.cpp:86] Creating Layer ip4
I0501 09:19:38.395650 14018 net.cpp:408] ip4 <- ip3
I0501 09:19:38.395654 14018 net.cpp:382] ip4 -> ip4
I0501 09:19:38.395753 14018 net.cpp:124] Setting up ip4
I0501 09:19:38.395761 14018 net.cpp:131] Top shape: 111 10 (1110)
I0501 09:19:38.395763 14018 net.cpp:139] Memory required for data: 19952916
I0501 09:19:38.395771 14018 layer_factory.hpp:77] Creating layer loss
I0501 09:19:38.395777 14018 net.cpp:86] Creating Layer loss
I0501 09:19:38.395781 14018 net.cpp:408] loss <- ip4
I0501 09:19:38.395784 14018 net.cpp:408] loss <- label
I0501 09:19:38.395789 14018 net.cpp:382] loss -> loss
I0501 09:19:38.395805 14018 layer_factory.hpp:77] Creating layer loss
…
I0501 09:19:38.397097 14018 solver.cpp:173] Creating test net (#0) specified by net file: ECE595/cifar/train_test/var_everything/cifar_train_test_536.prototxt
I0501 09:19:38.397126 14018 net.cpp:296] The NetState phase (1) differed from the phase (0) specified by a rule in layer cifar
I0501 09:19:38.397253 14018 net.cpp:53] Initializing net from parameters: 
name: "CIFAR"
state {
  phase: TEST
}
layer {
  name: "cifar"
  type: "Data"
  top: "data"
  top: "label"
  include {
    phase: TEST
  }
  transform_param {
    mean_file: "examples/cifar10/mean.binaryproto"
  }
  data_param {
    source: "examples/cifar10/cifar10_test_lmdb"
    batch_size: 1000
    backend: LMDB
  }
}
layer {
  name: "conv0"
  type: "Convolution"
  bottom: "data"
  top: "conv0"
  param {
    lr_mult: 1
  }
  param {
    lr_mult: 2
  }
  convolution_param {
    num_output: 16
    pad: 2
    kernel_size: 3
    stride: 1
    weight_filler {
      type: "gaussian"
      std: 0.01
    }
    bias_filler {
      type: "constant"
    }
  }
}
layer {
  name: "Sigmoid0"
  type: "Sigmoid"
  bottom: "conv0"
  top: "Sigmoid0"
}
layer {
  name: "pool0"
  type: "Pooling"
  bottom: "Sigmoid0"
  top: "pool0"
  pooling_param {
    pool: AVE
    kernel_size: 3
    stride: 2
  }
}
layer {
  name: "ip1"
  type: "InnerProduct"
  bottom: "pool0"
  top: "ip1"
  param {
    lr_mult: 1
  }
  param {
    lr_mult: 2
  }
  inner_product_param {
    num_output: 20
    weight_filler {
      type: "gaussian"
      std: 0.01
    }
    bias_filler {
      type: "constant"
    }
  }
}
layer {
  name: "relu1"
  type: "ReLU"
  bottom: "ip1"
  top: "ip1"
}
layer {
  name: "ip2"
  type: "InnerProduct"
  bottom: "ip1"
  top: "ip2"
  param {
    lr_mult: 1
  }
  param {
    lr_mult: 2
  }
  inner_product_param {
    num_output: 80
    weight_filler {
      type: "gaussian"
      std: 0.01
    }
    bias_filler {
      type: "constant"
    }
  }
}
layer {
  name: "relu2"
  type: "ReLU"
  bottom: "ip2"
  top: "ip2"
}
layer {
  name: "ip3"
  type: "InnerProduct"
  bottom: "ip2"
  top: "ip3"
  param {
    lr_mult: 1
  }
  param {
    lr_mult: 2
  }
  inner_product_param {
    num_output: 20
    weight_filler {
      type: "gaussian"
      std: 0.01
    }
    bias_filler {
      type: "constant"
    }
  }
}
layer {
  name: "relu3"
  type: "ReLU"
  bottom: "ip3"
  top: "ip3"
}
layer {
  name: "ip4"
  type: "InnerProduct"
  bottom: "ip3"
  top: "ip4"
  param {
    lr_mult: 1
  }
  param {
    lr_mult: 2
  }
  inner_product_param {
    num_output: 10
    weight_filler {
      type: "gaussian"
      std: 0.01
    }
    bias_filler {
      type: "constant"
    }
  }
}
layer {
  name: "accuracy"
  type: "Accuracy"
  bottom: "ip4"
  bottom: "label"
  top: "accuracy"
  include {
    phase: TEST
  }
}
layer {
  name: "loss"
  type: "SoftmaxWithLoss"
  bottom: "ip4"
  bottom: "label"
  top: "loss"
}
I0501 09:19:38.397337 14018 layer_factory.hpp:77] Creating layer cifar
I0501 09:19:38.397383 14018 db_lmdb.cpp:35] Opened lmdb examples/cifar10/cifar10_test_lmdb
I0501 09:19:38.397395 14018 net.cpp:86] Creating Layer cifar
I0501 09:19:38.397402 14018 net.cpp:382] cifar -> data
I0501 09:19:38.397408 14018 net.cpp:382] cifar -> label
I0501 09:19:38.397414 14018 data_transformer.cpp:25] Loading mean file from: examples/cifar10/mean.binaryproto
I0501 09:19:38.397559 14018 data_layer.cpp:45] output data size: 1000,3,32,32
I0501 09:19:38.418928 14018 net.cpp:124] Setting up cifar
I0501 09:19:38.418970 14018 net.cpp:131] Top shape: 1000 3 32 32 (3072000)
I0501 09:19:38.418977 14018 net.cpp:131] Top shape: 1000 (1000)
I0501 09:19:38.418980 14018 net.cpp:139] Memory required for data: 12292000
I0501 09:19:38.418985 14018 layer_factory.hpp:77] Creating layer label_cifar_1_split
I0501 09:19:38.419001 14018 net.cpp:86] Creating Layer label_cifar_1_split
I0501 09:19:38.419005 14018 net.cpp:408] label_cifar_1_split <- label
I0501 09:19:38.419011 14018 net.cpp:382] label_cifar_1_split -> label_cifar_1_split_0
I0501 09:19:38.419035 14018 net.cpp:382] label_cifar_1_split -> label_cifar_1_split_1
I0501 09:19:38.419154 14018 net.cpp:124] Setting up label_cifar_1_split
I0501 09:19:38.419162 14018 net.cpp:131] Top shape: 1000 (1000)
I0501 09:19:38.419167 14018 net.cpp:131] Top shape: 1000 (1000)
I0501 09:19:38.419169 14018 net.cpp:139] Memory required for data: 12300000
I0501 09:19:38.419173 14018 layer_factory.hpp:77] Creating layer conv0
I0501 09:19:38.419185 14018 net.cpp:86] Creating Layer conv0
I0501 09:19:38.419189 14018 net.cpp:408] conv0 <- data
I0501 09:19:38.419195 14018 net.cpp:382] conv0 -> conv0
I0501 09:19:38.420884 14018 net.cpp:124] Setting up conv0
I0501 09:19:38.420913 14018 net.cpp:131] Top shape: 1000 16 34 34 (18496000)
I0501 09:19:38.420917 14018 net.cpp:139] Memory required for data: 86284000
I0501 09:19:38.420929 14018 layer_factory.hpp:77] Creating layer Sigmoid0
I0501 09:19:38.420938 14018 net.cpp:86] Creating Layer Sigmoid0
I0501 09:19:38.420941 14018 net.cpp:408] Sigmoid0 <- conv0
I0501 09:19:38.420946 14018 net.cpp:382] Sigmoid0 -> Sigmoid0
I0501 09:19:38.421216 14018 net.cpp:124] Setting up Sigmoid0
I0501 09:19:38.421226 14018 net.cpp:131] Top shape: 1000 16 34 34 (18496000)
I0501 09:19:38.421228 14018 net.cpp:139] Memory required for data: 160268000
I0501 09:19:38.421231 14018 layer_factory.hpp:77] Creating layer pool0
I0501 09:19:38.421239 14018 net.cpp:86] Creating Layer pool0
I0501 09:19:38.421243 14018 net.cpp:408] pool0 <- Sigmoid0
I0501 09:19:38.421248 14018 net.cpp:382] pool0 -> pool0
I0501 09:19:38.421494 14018 net.cpp:124] Setting up pool0
I0501 09:19:38.421504 14018 net.cpp:131] Top shape: 1000 16 17 17 (4624000)
I0501 09:19:38.421507 14018 net.cpp:139] Memory required for data: 178764000
I0501 09:19:38.421511 14018 layer_factory.hpp:77] Creating layer ip1
I0501 09:19:38.421520 14018 net.cpp:86] Creating Layer ip1
I0501 09:19:38.421525 14018 net.cpp:408] ip1 <- pool0
I0501 09:19:38.421530 14018 net.cpp:382] ip1 -> ip1
I0501 09:19:38.425043 14018 net.cpp:124] Setting up ip1
I0501 09:19:38.425052 14018 net.cpp:131] Top shape: 1000 20 (20000)
I0501 09:19:38.425071 14018 net.cpp:139] Memory required for data: 178844000
I0501 09:19:38.425094 14018 layer_factory.hpp:77] Creating layer relu1
I0501 09:19:38.425102 14018 net.cpp:86] Creating Layer relu1
I0501 09:19:38.425106 14018 net.cpp:408] relu1 <- ip1
I0501 09:19:38.425127 14018 net.cpp:369] relu1 -> ip1 (in-place)
I0501 09:19:38.425312 14018 net.cpp:124] Setting up relu1
I0501 09:19:38.425320 14018 net.cpp:131] Top shape: 1000 20 (20000)
I0501 09:19:38.425324 14018 net.cpp:139] Memory required for data: 178924000
I0501 09:19:38.425328 14018 layer_factory.hpp:77] Creating layer ip2
I0501 09:19:38.425333 14018 net.cpp:86] Creating Layer ip2
I0501 09:19:38.425338 14018 net.cpp:408] ip2 <- ip1
I0501 09:19:38.425343 14018 net.cpp:382] ip2 -> ip2
I0501 09:19:38.425495 14018 net.cpp:124] Setting up ip2
I0501 09:19:38.425503 14018 net.cpp:131] Top shape: 1000 80 (80000)
I0501 09:19:38.425506 14018 net.cpp:139] Memory required for data: 179244000
I0501 09:19:38.425513 14018 layer_factory.hpp:77] Creating layer relu2
I0501 09:19:38.425523 14018 net.cpp:86] Creating Layer relu2
I0501 09:19:38.425525 14018 net.cpp:408] relu2 <- ip2
I0501 09:19:38.425529 14018 net.cpp:369] relu2 -> ip2 (in-place)
I0501 09:19:38.426358 14018 net.cpp:124] Setting up relu2
I0501 09:19:38.426384 14018 net.cpp:131] Top shape: 1000 80 (80000)
I0501 09:19:38.426388 14018 net.cpp:139] Memory required for data: 179564000
I0501 09:19:38.426391 14018 layer_factory.hpp:77] Creating layer ip3
I0501 09:19:38.426415 14018 net.cpp:86] Creating Layer ip3
I0501 09:19:38.426419 14018 net.cpp:408] ip3 <- ip2
I0501 09:19:38.426426 14018 net.cpp:382] ip3 -> ip3
I0501 09:19:38.426610 14018 net.cpp:124] Setting up ip3
I0501 09:19:38.426618 14018 net.cpp:131] Top shape: 1000 20 (20000)
I0501 09:19:38.426621 14018 net.cpp:139] Memory required for data: 179644000
I0501 09:19:38.426626 14018 layer_factory.hpp:77] Creating layer relu3
I0501 09:19:38.426632 14018 net.cpp:86] Creating Layer relu3
I0501 09:19:38.426635 14018 net.cpp:408] relu3 <- ip3
I0501 09:19:38.426640 14018 net.cpp:369] relu3 -> ip3 (in-place)
I0501 09:19:38.426807 14018 net.cpp:124] Setting up relu3
I0501 09:19:38.426817 14018 net.cpp:131] Top shape: 1000 20 (20000)
I0501 09:19:38.426821 14018 net.cpp:139] Memory required for data: 179724000
I0501 09:19:38.426825 14018 layer_factory.hpp:77] Creating layer ip4
I0501 09:19:38.426831 14018 net.cpp:86] Creating Layer ip4
I0501 09:19:38.426834 14018 net.cpp:408] ip4 <- ip3
I0501 09:19:38.426839 14018 net.cpp:382] ip4 -> ip4
I0501 09:19:38.426954 14018 net.cpp:124] Setting up ip4
I0501 09:19:38.426961 14018 net.cpp:131] Top shape: 1000 10 (10000)
I0501 09:19:38.426964 14018 net.cpp:139] Memory required for data: 179764000
I0501 09:19:38.426973 14018 layer_factory.hpp:77] Creating layer ip4_ip4_0_split
I0501 09:19:38.426980 14018 net.cpp:86] Creating Layer ip4_ip4_0_split
I0501 09:19:38.426982 14018 net.cpp:408] ip4_ip4_0_split <- ip4
I0501 09:19:38.426987 14018 net.cpp:382] ip4_ip4_0_split -> ip4_ip4_0_split_0
I0501 09:19:38.426992 14018 net.cpp:382] ip4_ip4_0_split -> ip4_ip4_0_split_1
I0501 09:19:38.427026 14018 net.cpp:124] Setting up ip4_ip4_0_split
I0501 09:19:38.427033 14018 net.cpp:131] Top shape: 1000 10 (10000)
I0501 09:19:38.427038 14018 net.cpp:131] Top shape: 1000 10 (10000)
I0501 09:19:38.427042 14018 net.cpp:139] Memory required for data: 179844000
I0501 09:19:38.427045 14018 layer_factory.hpp:77] Creating layer accuracy
I0501 09:19:38.427050 14018 net.cpp:86] Creating Layer accuracy
I0501 09:19:38.427054 14018 net.cpp:408] accuracy <- ip4_ip4_0_split_0
I0501 09:19:38.427057 14018 net.cpp:408] accuracy <- label_cifar_1_split_0
I0501 09:19:38.427062 14018 net.cpp:382] accuracy -> accuracy
…
