…
I0501 02:44:27.657663 17026 net.cpp:296] The NetState phase (0) differed from the phase (1) specified by a rule in layer cifar
I0501 02:44:27.657691 17026 net.cpp:296] The NetState phase (0) differed from the phase (1) specified by a rule in layer accuracy
I0501 02:44:27.657824 17026 net.cpp:53] Initializing net from parameters: 
name: "CIFAR"
state {
  phase: TRAIN
  level: 0
  stage: ""
}
layer {
  name: "cifar"
  type: "Data"
  top: "data"
  top: "label"
  include {
    phase: TRAIN
  }
  transform_param {
    mean_file: "examples/cifar10/mean.binaryproto"
  }
  data_param {
    source: "examples/cifar10/cifar10_train_lmdb"
    batch_size: 111
    backend: LMDB
  }
}
layer {
  name: "conv0"
  type: "Convolution"
  bottom: "data"
  top: "conv0"
  param {
    lr_mult: 1
  }
  param {
    lr_mult: 2
  }
  convolution_param {
    num_output: 8
    pad: 2
    kernel_size: 5
    stride: 1
    weight_filler {
      type: "gaussian"
      std: 0.01
    }
    bias_filler {
      type: "constant"
    }
  }
}
layer {
  name: "Sigmoid0"
  type: "Sigmoid"
  bottom: "conv0"
  top: "Sigmoid0"
}
layer {
  name: "pool0"
  type: "Pooling"
  bottom: "Sigmoid0"
  top: "pool0"
  pooling_param {
    pool: AVE
    kernel_size: 3
    stride: 2
  }
}
layer {
  name: "ip1"
  type: "InnerProduct"
  bottom: "pool0"
  top: "ip1"
  param {
    lr_mult: 1
  }
  param {
    lr_mult: 2
  }
  inner_product_param {
    num_output: 80
    weight_filler {
      type: "gaussian"
      std: 0.01
    }
    bias_filler {
      type: "constant"
    }
  }
}
layer {
  name: "relu1"
  type: "ReLU"
  bottom: "ip1"
  top: "ip1"
}
layer {
  name: "ip2"
  type: "InnerProduct"
  bottom: "ip1"
  top: "ip2"
  param {
    lr_mult: 1
  }
  param {
    lr_mult: 2
  }
  inner_product_param {
    num_output: 20
    weight_filler {
      type: "gaussian"
      std: 0.01
    }
    bias_filler {
      type: "constant"
    }
  }
}
layer {
  name: "relu2"
  type: "ReLU"
  bottom: "ip2"
  top: "ip2"
}
layer {
  name: "ip3"
  type: "InnerProduct"
  bottom: "ip2"
  top: "ip3"
  param {
    lr_mult: 1
  }
  param {
    lr_mult: 2
  }
  inner_product_param {
    num_output: 10
    weight_filler {
      type: "gaussian"
      std: 0.01
    }
    bias_filler {
      type: "constant"
    }
  }
}
layer {
  name: "loss"
  type: "SoftmaxWithLoss"
  bottom: "ip3"
  bottom: "label"
  top: "loss"
}
I0501 02:44:27.657888 17026 layer_factory.hpp:77] Creating layer cifar
I0501 02:44:27.657989 17026 db_lmdb.cpp:35] Opened lmdb examples/cifar10/cifar10_train_lmdb
I0501 02:44:27.658015 17026 net.cpp:86] Creating Layer cifar
I0501 02:44:27.658023 17026 net.cpp:382] cifar -> data
I0501 02:44:27.658044 17026 net.cpp:382] cifar -> label
I0501 02:44:27.658085 17026 data_transformer.cpp:25] Loading mean file from: examples/cifar10/mean.binaryproto
I0501 02:44:27.659828 17026 data_layer.cpp:45] output data size: 111,3,32,32
I0501 02:44:27.666530 17026 net.cpp:124] Setting up cifar
I0501 02:44:27.666546 17026 net.cpp:131] Top shape: 111 3 32 32 (340992)
I0501 02:44:27.666566 17026 net.cpp:131] Top shape: 111 (111)
I0501 02:44:27.666569 17026 net.cpp:139] Memory required for data: 1364412
I0501 02:44:27.666575 17026 layer_factory.hpp:77] Creating layer conv0
I0501 02:44:27.666606 17026 net.cpp:86] Creating Layer conv0
I0501 02:44:27.666611 17026 net.cpp:408] conv0 <- data
I0501 02:44:27.666620 17026 net.cpp:382] conv0 -> conv0
I0501 02:44:27.895889 17026 net.cpp:124] Setting up conv0
I0501 02:44:27.895933 17026 net.cpp:131] Top shape: 111 8 32 32 (909312)
I0501 02:44:27.895937 17026 net.cpp:139] Memory required for data: 5001660
I0501 02:44:27.895951 17026 layer_factory.hpp:77] Creating layer Sigmoid0
I0501 02:44:27.895962 17026 net.cpp:86] Creating Layer Sigmoid0
I0501 02:44:27.895967 17026 net.cpp:408] Sigmoid0 <- conv0
I0501 02:44:27.895972 17026 net.cpp:382] Sigmoid0 -> Sigmoid0
I0501 02:44:27.896164 17026 net.cpp:124] Setting up Sigmoid0
I0501 02:44:27.896173 17026 net.cpp:131] Top shape: 111 8 32 32 (909312)
I0501 02:44:27.896176 17026 net.cpp:139] Memory required for data: 8638908
I0501 02:44:27.896180 17026 layer_factory.hpp:77] Creating layer pool0
I0501 02:44:27.896186 17026 net.cpp:86] Creating Layer pool0
I0501 02:44:27.896189 17026 net.cpp:408] pool0 <- Sigmoid0
I0501 02:44:27.896194 17026 net.cpp:382] pool0 -> pool0
I0501 02:44:27.896966 17026 net.cpp:124] Setting up pool0
I0501 02:44:27.896980 17026 net.cpp:131] Top shape: 111 8 16 16 (227328)
I0501 02:44:27.896983 17026 net.cpp:139] Memory required for data: 9548220
I0501 02:44:27.896987 17026 layer_factory.hpp:77] Creating layer ip1
I0501 02:44:27.896996 17026 net.cpp:86] Creating Layer ip1
I0501 02:44:27.897001 17026 net.cpp:408] ip1 <- pool0
I0501 02:44:27.897006 17026 net.cpp:382] ip1 -> ip1
I0501 02:44:27.901198 17026 net.cpp:124] Setting up ip1
I0501 02:44:27.901206 17026 net.cpp:131] Top shape: 111 80 (8880)
I0501 02:44:27.901209 17026 net.cpp:139] Memory required for data: 9583740
I0501 02:44:27.901216 17026 layer_factory.hpp:77] Creating layer relu1
I0501 02:44:27.901221 17026 net.cpp:86] Creating Layer relu1
I0501 02:44:27.901224 17026 net.cpp:408] relu1 <- ip1
I0501 02:44:27.901227 17026 net.cpp:369] relu1 -> ip1 (in-place)
I0501 02:44:27.901382 17026 net.cpp:124] Setting up relu1
I0501 02:44:27.901391 17026 net.cpp:131] Top shape: 111 80 (8880)
I0501 02:44:27.901393 17026 net.cpp:139] Memory required for data: 9619260
I0501 02:44:27.901396 17026 layer_factory.hpp:77] Creating layer ip2
I0501 02:44:27.901402 17026 net.cpp:86] Creating Layer ip2
I0501 02:44:27.901406 17026 net.cpp:408] ip2 <- ip1
I0501 02:44:27.901409 17026 net.cpp:382] ip2 -> ip2
I0501 02:44:27.901553 17026 net.cpp:124] Setting up ip2
I0501 02:44:27.901561 17026 net.cpp:131] Top shape: 111 20 (2220)
I0501 02:44:27.901563 17026 net.cpp:139] Memory required for data: 9628140
I0501 02:44:27.901571 17026 layer_factory.hpp:77] Creating layer relu2
I0501 02:44:27.901577 17026 net.cpp:86] Creating Layer relu2
I0501 02:44:27.901597 17026 net.cpp:408] relu2 <- ip2
I0501 02:44:27.901600 17026 net.cpp:369] relu2 -> ip2 (in-place)
I0501 02:44:27.901747 17026 net.cpp:124] Setting up relu2
I0501 02:44:27.901756 17026 net.cpp:131] Top shape: 111 20 (2220)
I0501 02:44:27.901758 17026 net.cpp:139] Memory required for data: 9637020
I0501 02:44:27.901762 17026 layer_factory.hpp:77] Creating layer ip3
I0501 02:44:27.901768 17026 net.cpp:86] Creating Layer ip3
I0501 02:44:27.901772 17026 net.cpp:408] ip3 <- ip2
I0501 02:44:27.901777 17026 net.cpp:382] ip3 -> ip3
I0501 02:44:27.901916 17026 net.cpp:124] Setting up ip3
I0501 02:44:27.901921 17026 net.cpp:131] Top shape: 111 10 (1110)
I0501 02:44:27.901924 17026 net.cpp:139] Memory required for data: 9641460
I0501 02:44:27.901931 17026 layer_factory.hpp:77] Creating layer loss
I0501 02:44:27.901957 17026 net.cpp:86] Creating Layer loss
I0501 02:44:27.901960 17026 net.cpp:408] loss <- ip3
I0501 02:44:27.901964 17026 net.cpp:408] loss <- label
I0501 02:44:27.901969 17026 net.cpp:382] loss -> loss
I0501 02:44:27.901983 17026 layer_factory.hpp:77] Creating layer loss
…
I0501 02:44:27.902629 17026 solver.cpp:173] Creating test net (#0) specified by net file: ECE595/cifar/train_test/var_everything/cifar_train_test_331.prototxt
I0501 02:44:27.902683 17026 net.cpp:296] The NetState phase (1) differed from the phase (0) specified by a rule in layer cifar
I0501 02:44:27.902765 17026 net.cpp:53] Initializing net from parameters: 
name: "CIFAR"
state {
  phase: TEST
}
layer {
  name: "cifar"
  type: "Data"
  top: "data"
  top: "label"
  include {
    phase: TEST
  }
  transform_param {
    mean_file: "examples/cifar10/mean.binaryproto"
  }
  data_param {
    source: "examples/cifar10/cifar10_test_lmdb"
    batch_size: 1000
    backend: LMDB
  }
}
layer {
  name: "conv0"
  type: "Convolution"
  bottom: "data"
  top: "conv0"
  param {
    lr_mult: 1
  }
  param {
    lr_mult: 2
  }
  convolution_param {
    num_output: 8
    pad: 2
    kernel_size: 5
    stride: 1
    weight_filler {
      type: "gaussian"
      std: 0.01
    }
    bias_filler {
      type: "constant"
    }
  }
}
layer {
  name: "Sigmoid0"
  type: "Sigmoid"
  bottom: "conv0"
  top: "Sigmoid0"
}
layer {
  name: "pool0"
  type: "Pooling"
  bottom: "Sigmoid0"
  top: "pool0"
  pooling_param {
    pool: AVE
    kernel_size: 3
    stride: 2
  }
}
layer {
  name: "ip1"
  type: "InnerProduct"
  bottom: "pool0"
  top: "ip1"
  param {
    lr_mult: 1
  }
  param {
    lr_mult: 2
  }
  inner_product_param {
    num_output: 80
    weight_filler {
      type: "gaussian"
      std: 0.01
    }
    bias_filler {
      type: "constant"
    }
  }
}
layer {
  name: "relu1"
  type: "ReLU"
  bottom: "ip1"
  top: "ip1"
}
layer {
  name: "ip2"
  type: "InnerProduct"
  bottom: "ip1"
  top: "ip2"
  param {
    lr_mult: 1
  }
  param {
    lr_mult: 2
  }
  inner_product_param {
    num_output: 20
    weight_filler {
      type: "gaussian"
      std: 0.01
    }
    bias_filler {
      type: "constant"
    }
  }
}
layer {
  name: "relu2"
  type: "ReLU"
  bottom: "ip2"
  top: "ip2"
}
layer {
  name: "ip3"
  type: "InnerProduct"
  bottom: "ip2"
  top: "ip3"
  param {
    lr_mult: 1
  }
  param {
    lr_mult: 2
  }
  inner_product_param {
    num_output: 10
    weight_filler {
      type: "gaussian"
      std: 0.01
    }
    bias_filler {
      type: "constant"
    }
  }
}
layer {
  name: "accuracy"
  type: "Accuracy"
  bottom: "ip3"
  bottom: "label"
  top: "accuracy"
  include {
    phase: TEST
  }
}
layer {
  name: "loss"
  type: "SoftmaxWithLoss"
  bottom: "ip3"
  bottom: "label"
  top: "loss"
}
I0501 02:44:27.902825 17026 layer_factory.hpp:77] Creating layer cifar
I0501 02:44:27.902870 17026 db_lmdb.cpp:35] Opened lmdb examples/cifar10/cifar10_test_lmdb
I0501 02:44:27.902899 17026 net.cpp:86] Creating Layer cifar
I0501 02:44:27.902905 17026 net.cpp:382] cifar -> data
I0501 02:44:27.902912 17026 net.cpp:382] cifar -> label
I0501 02:44:27.902918 17026 data_transformer.cpp:25] Loading mean file from: examples/cifar10/mean.binaryproto
I0501 02:44:27.903074 17026 data_layer.cpp:45] output data size: 1000,3,32,32
I0501 02:44:27.924518 17026 net.cpp:124] Setting up cifar
I0501 02:44:27.924546 17026 net.cpp:131] Top shape: 1000 3 32 32 (3072000)
I0501 02:44:27.924566 17026 net.cpp:131] Top shape: 1000 (1000)
I0501 02:44:27.924571 17026 net.cpp:139] Memory required for data: 12292000
I0501 02:44:27.924576 17026 layer_factory.hpp:77] Creating layer label_cifar_1_split
I0501 02:44:27.924588 17026 net.cpp:86] Creating Layer label_cifar_1_split
I0501 02:44:27.924607 17026 net.cpp:408] label_cifar_1_split <- label
I0501 02:44:27.924612 17026 net.cpp:382] label_cifar_1_split -> label_cifar_1_split_0
I0501 02:44:27.924626 17026 net.cpp:382] label_cifar_1_split -> label_cifar_1_split_1
I0501 02:44:27.924739 17026 net.cpp:124] Setting up label_cifar_1_split
I0501 02:44:27.924748 17026 net.cpp:131] Top shape: 1000 (1000)
I0501 02:44:27.924752 17026 net.cpp:131] Top shape: 1000 (1000)
I0501 02:44:27.924757 17026 net.cpp:139] Memory required for data: 12300000
I0501 02:44:27.924760 17026 layer_factory.hpp:77] Creating layer conv0
I0501 02:44:27.924789 17026 net.cpp:86] Creating Layer conv0
I0501 02:44:27.924793 17026 net.cpp:408] conv0 <- data
I0501 02:44:27.924798 17026 net.cpp:382] conv0 -> conv0
I0501 02:44:27.926391 17026 net.cpp:124] Setting up conv0
I0501 02:44:27.926420 17026 net.cpp:131] Top shape: 1000 8 32 32 (8192000)
I0501 02:44:27.926424 17026 net.cpp:139] Memory required for data: 45068000
I0501 02:44:27.926434 17026 layer_factory.hpp:77] Creating layer Sigmoid0
I0501 02:44:27.926440 17026 net.cpp:86] Creating Layer Sigmoid0
I0501 02:44:27.926443 17026 net.cpp:408] Sigmoid0 <- conv0
I0501 02:44:27.926447 17026 net.cpp:382] Sigmoid0 -> Sigmoid0
I0501 02:44:27.927363 17026 net.cpp:124] Setting up Sigmoid0
I0501 02:44:27.927389 17026 net.cpp:131] Top shape: 1000 8 32 32 (8192000)
I0501 02:44:27.927393 17026 net.cpp:139] Memory required for data: 77836000
I0501 02:44:27.927397 17026 layer_factory.hpp:77] Creating layer pool0
I0501 02:44:27.927404 17026 net.cpp:86] Creating Layer pool0
I0501 02:44:27.927408 17026 net.cpp:408] pool0 <- Sigmoid0
I0501 02:44:27.927412 17026 net.cpp:382] pool0 -> pool0
I0501 02:44:27.928577 17026 net.cpp:124] Setting up pool0
I0501 02:44:27.928588 17026 net.cpp:131] Top shape: 1000 8 16 16 (2048000)
I0501 02:44:27.928591 17026 net.cpp:139] Memory required for data: 86028000
I0501 02:44:27.928596 17026 layer_factory.hpp:77] Creating layer ip1
I0501 02:44:27.928602 17026 net.cpp:86] Creating Layer ip1
I0501 02:44:27.928606 17026 net.cpp:408] ip1 <- pool0
I0501 02:44:27.928611 17026 net.cpp:382] ip1 -> ip1
I0501 02:44:27.933223 17026 net.cpp:124] Setting up ip1
I0501 02:44:27.933231 17026 net.cpp:131] Top shape: 1000 80 (80000)
I0501 02:44:27.933250 17026 net.cpp:139] Memory required for data: 86348000
I0501 02:44:27.933259 17026 layer_factory.hpp:77] Creating layer relu1
I0501 02:44:27.933264 17026 net.cpp:86] Creating Layer relu1
I0501 02:44:27.933267 17026 net.cpp:408] relu1 <- ip1
I0501 02:44:27.933271 17026 net.cpp:369] relu1 -> ip1 (in-place)
I0501 02:44:27.933454 17026 net.cpp:124] Setting up relu1
I0501 02:44:27.933464 17026 net.cpp:131] Top shape: 1000 80 (80000)
I0501 02:44:27.933466 17026 net.cpp:139] Memory required for data: 86668000
I0501 02:44:27.933470 17026 layer_factory.hpp:77] Creating layer ip2
I0501 02:44:27.933475 17026 net.cpp:86] Creating Layer ip2
I0501 02:44:27.933478 17026 net.cpp:408] ip2 <- ip1
I0501 02:44:27.933483 17026 net.cpp:382] ip2 -> ip2
I0501 02:44:27.933621 17026 net.cpp:124] Setting up ip2
I0501 02:44:27.933629 17026 net.cpp:131] Top shape: 1000 20 (20000)
I0501 02:44:27.933631 17026 net.cpp:139] Memory required for data: 86748000
I0501 02:44:27.933639 17026 layer_factory.hpp:77] Creating layer relu2
I0501 02:44:27.933647 17026 net.cpp:86] Creating Layer relu2
I0501 02:44:27.933667 17026 net.cpp:408] relu2 <- ip2
I0501 02:44:27.933670 17026 net.cpp:369] relu2 -> ip2 (in-place)
I0501 02:44:27.933822 17026 net.cpp:124] Setting up relu2
I0501 02:44:27.933830 17026 net.cpp:131] Top shape: 1000 20 (20000)
I0501 02:44:27.933833 17026 net.cpp:139] Memory required for data: 86828000
I0501 02:44:27.933836 17026 layer_factory.hpp:77] Creating layer ip3
I0501 02:44:27.933842 17026 net.cpp:86] Creating Layer ip3
I0501 02:44:27.933847 17026 net.cpp:408] ip3 <- ip2
I0501 02:44:27.933852 17026 net.cpp:382] ip3 -> ip3
I0501 02:44:27.933957 17026 net.cpp:124] Setting up ip3
I0501 02:44:27.933964 17026 net.cpp:131] Top shape: 1000 10 (10000)
I0501 02:44:27.933967 17026 net.cpp:139] Memory required for data: 86868000
I0501 02:44:27.933985 17026 layer_factory.hpp:77] Creating layer ip3_ip3_0_split
I0501 02:44:27.933990 17026 net.cpp:86] Creating Layer ip3_ip3_0_split
I0501 02:44:27.933995 17026 net.cpp:408] ip3_ip3_0_split <- ip3
I0501 02:44:27.933998 17026 net.cpp:382] ip3_ip3_0_split -> ip3_ip3_0_split_0
I0501 02:44:27.934005 17026 net.cpp:382] ip3_ip3_0_split -> ip3_ip3_0_split_1
I0501 02:44:27.934036 17026 net.cpp:124] Setting up ip3_ip3_0_split
I0501 02:44:27.934042 17026 net.cpp:131] Top shape: 1000 10 (10000)
I0501 02:44:27.934046 17026 net.cpp:131] Top shape: 1000 10 (10000)
I0501 02:44:27.934049 17026 net.cpp:139] Memory required for data: 86948000
I0501 02:44:27.934052 17026 layer_factory.hpp:77] Creating layer accuracy
I0501 02:44:27.934057 17026 net.cpp:86] Creating Layer accuracy
I0501 02:44:27.934062 17026 net.cpp:408] accuracy <- ip3_ip3_0_split_0
I0501 02:44:27.934065 17026 net.cpp:408] accuracy <- label_cifar_1_split_0
I0501 02:44:27.934070 17026 net.cpp:382] accuracy -> accuracy
…
