…
I0501 09:43:16.685238 15499 net.cpp:296] The NetState phase (0) differed from the phase (1) specified by a rule in layer cifar
I0501 09:43:16.685264 15499 net.cpp:296] The NetState phase (0) differed from the phase (1) specified by a rule in layer accuracy
I0501 09:43:16.685386 15499 net.cpp:53] Initializing net from parameters: 
name: "CIFAR"
state {
  phase: TRAIN
  level: 0
  stage: ""
}
layer {
  name: "cifar"
  type: "Data"
  top: "data"
  top: "label"
  include {
    phase: TRAIN
  }
  transform_param {
    mean_file: "examples/cifar10/mean.binaryproto"
  }
  data_param {
    source: "examples/cifar10/cifar10_train_lmdb"
    batch_size: 111
    backend: LMDB
  }
}
layer {
  name: "conv0"
  type: "Convolution"
  bottom: "data"
  top: "conv0"
  param {
    lr_mult: 1
  }
  param {
    lr_mult: 2
  }
  convolution_param {
    num_output: 16
    pad: 2
    kernel_size: 3
    stride: 1
    weight_filler {
      type: "gaussian"
      std: 0.01
    }
    bias_filler {
      type: "constant"
    }
  }
}
layer {
  name: "Sigmoid0"
  type: "Sigmoid"
  bottom: "conv0"
  top: "Sigmoid0"
}
layer {
  name: "pool0"
  type: "Pooling"
  bottom: "Sigmoid0"
  top: "pool0"
  pooling_param {
    pool: AVE
    kernel_size: 3
    stride: 2
  }
}
layer {
  name: "ip1"
  type: "InnerProduct"
  bottom: "pool0"
  top: "ip1"
  param {
    lr_mult: 1
  }
  param {
    lr_mult: 2
  }
  inner_product_param {
    num_output: 40
    weight_filler {
      type: "gaussian"
      std: 0.01
    }
    bias_filler {
      type: "constant"
    }
  }
}
layer {
  name: "relu1"
  type: "ReLU"
  bottom: "ip1"
  top: "ip1"
}
layer {
  name: "ip2"
  type: "InnerProduct"
  bottom: "ip1"
  top: "ip2"
  param {
    lr_mult: 1
  }
  param {
    lr_mult: 2
  }
  inner_product_param {
    num_output: 10
    weight_filler {
      type: "gaussian"
      std: 0.01
    }
    bias_filler {
      type: "constant"
    }
  }
}
layer {
  name: "relu2"
  type: "ReLU"
  bottom: "ip2"
  top: "ip2"
}
layer {
  name: "ip3"
  type: "InnerProduct"
  bottom: "ip2"
  top: "ip3"
  param {
    lr_mult: 1
  }
  param {
    lr_mult: 2
  }
  inner_product_param {
    num_output: 40
    weight_filler {
      type: "gaussian"
      std: 0.01
    }
    bias_filler {
      type: "constant"
    }
  }
}
layer {
  name: "relu3"
  type: "ReLU"
  bottom: "ip3"
  top: "ip3"
}
layer {
  name: "ip4"
  type: "InnerProduct"
  bottom: "ip3"
  top: "ip4"
  param {
    lr_mult: 1
  }
  param {
    lr_mult: 2
  }
  inner_product_param {
    num_output: 10
    weight_filler {
      type: "gaussian"
      std: 0.01
    }
    bias_filler {
      type: "constant"
    }
  }
}
layer {
  name: "loss"
  type: "SoftmaxWithLoss"
  bottom: "ip4"
  bottom: "label"
  top: "loss"
}
I0501 09:43:16.685501 15499 layer_factory.hpp:77] Creating layer cifar
I0501 09:43:16.685634 15499 db_lmdb.cpp:35] Opened lmdb examples/cifar10/cifar10_train_lmdb
I0501 09:43:16.685673 15499 net.cpp:86] Creating Layer cifar
I0501 09:43:16.685685 15499 net.cpp:382] cifar -> data
I0501 09:43:16.685719 15499 net.cpp:382] cifar -> label
I0501 09:43:16.685736 15499 data_transformer.cpp:25] Loading mean file from: examples/cifar10/mean.binaryproto
I0501 09:43:16.688093 15499 data_layer.cpp:45] output data size: 111,3,32,32
I0501 09:43:16.696100 15499 net.cpp:124] Setting up cifar
I0501 09:43:16.696123 15499 net.cpp:131] Top shape: 111 3 32 32 (340992)
I0501 09:43:16.696151 15499 net.cpp:131] Top shape: 111 (111)
I0501 09:43:16.696161 15499 net.cpp:139] Memory required for data: 1364412
I0501 09:43:16.696190 15499 layer_factory.hpp:77] Creating layer conv0
I0501 09:43:16.696223 15499 net.cpp:86] Creating Layer conv0
I0501 09:43:16.696233 15499 net.cpp:408] conv0 <- data
I0501 09:43:16.696251 15499 net.cpp:382] conv0 -> conv0
I0501 09:43:16.942920 15499 net.cpp:124] Setting up conv0
I0501 09:43:16.942948 15499 net.cpp:131] Top shape: 111 16 34 34 (2053056)
I0501 09:43:16.942953 15499 net.cpp:139] Memory required for data: 9576636
I0501 09:43:16.942983 15499 layer_factory.hpp:77] Creating layer Sigmoid0
I0501 09:43:16.942996 15499 net.cpp:86] Creating Layer Sigmoid0
I0501 09:43:16.943001 15499 net.cpp:408] Sigmoid0 <- conv0
I0501 09:43:16.943006 15499 net.cpp:382] Sigmoid0 -> Sigmoid0
I0501 09:43:16.943191 15499 net.cpp:124] Setting up Sigmoid0
I0501 09:43:16.943199 15499 net.cpp:131] Top shape: 111 16 34 34 (2053056)
I0501 09:43:16.943202 15499 net.cpp:139] Memory required for data: 17788860
I0501 09:43:16.943207 15499 layer_factory.hpp:77] Creating layer pool0
I0501 09:43:16.943212 15499 net.cpp:86] Creating Layer pool0
I0501 09:43:16.943215 15499 net.cpp:408] pool0 <- Sigmoid0
I0501 09:43:16.943220 15499 net.cpp:382] pool0 -> pool0
I0501 09:43:16.943979 15499 net.cpp:124] Setting up pool0
I0501 09:43:16.943991 15499 net.cpp:131] Top shape: 111 16 17 17 (513264)
I0501 09:43:16.943994 15499 net.cpp:139] Memory required for data: 19841916
I0501 09:43:16.944013 15499 layer_factory.hpp:77] Creating layer ip1
I0501 09:43:16.944023 15499 net.cpp:86] Creating Layer ip1
I0501 09:43:16.944028 15499 net.cpp:408] ip1 <- pool0
I0501 09:43:16.944033 15499 net.cpp:382] ip1 -> ip1
I0501 09:43:16.949751 15499 net.cpp:124] Setting up ip1
I0501 09:43:16.949764 15499 net.cpp:131] Top shape: 111 40 (4440)
I0501 09:43:16.949766 15499 net.cpp:139] Memory required for data: 19859676
I0501 09:43:16.949774 15499 layer_factory.hpp:77] Creating layer relu1
I0501 09:43:16.949780 15499 net.cpp:86] Creating Layer relu1
I0501 09:43:16.949784 15499 net.cpp:408] relu1 <- ip1
I0501 09:43:16.949789 15499 net.cpp:369] relu1 -> ip1 (in-place)
I0501 09:43:16.949934 15499 net.cpp:124] Setting up relu1
I0501 09:43:16.949941 15499 net.cpp:131] Top shape: 111 40 (4440)
I0501 09:43:16.949944 15499 net.cpp:139] Memory required for data: 19877436
I0501 09:43:16.949947 15499 layer_factory.hpp:77] Creating layer ip2
I0501 09:43:16.949954 15499 net.cpp:86] Creating Layer ip2
I0501 09:43:16.949956 15499 net.cpp:408] ip2 <- ip1
I0501 09:43:16.949961 15499 net.cpp:382] ip2 -> ip2
I0501 09:43:16.950058 15499 net.cpp:124] Setting up ip2
I0501 09:43:16.950064 15499 net.cpp:131] Top shape: 111 10 (1110)
I0501 09:43:16.950067 15499 net.cpp:139] Memory required for data: 19881876
I0501 09:43:16.950074 15499 layer_factory.hpp:77] Creating layer relu2
I0501 09:43:16.950078 15499 net.cpp:86] Creating Layer relu2
I0501 09:43:16.950081 15499 net.cpp:408] relu2 <- ip2
I0501 09:43:16.950085 15499 net.cpp:369] relu2 -> ip2 (in-place)
I0501 09:43:16.950220 15499 net.cpp:124] Setting up relu2
I0501 09:43:16.950228 15499 net.cpp:131] Top shape: 111 10 (1110)
I0501 09:43:16.950232 15499 net.cpp:139] Memory required for data: 19886316
I0501 09:43:16.950234 15499 layer_factory.hpp:77] Creating layer ip3
I0501 09:43:16.950242 15499 net.cpp:86] Creating Layer ip3
I0501 09:43:16.950244 15499 net.cpp:408] ip3 <- ip2
I0501 09:43:16.950248 15499 net.cpp:382] ip3 -> ip3
I0501 09:43:16.950348 15499 net.cpp:124] Setting up ip3
I0501 09:43:16.950356 15499 net.cpp:131] Top shape: 111 40 (4440)
I0501 09:43:16.950358 15499 net.cpp:139] Memory required for data: 19904076
I0501 09:43:16.950362 15499 layer_factory.hpp:77] Creating layer relu3
I0501 09:43:16.950367 15499 net.cpp:86] Creating Layer relu3
I0501 09:43:16.950371 15499 net.cpp:408] relu3 <- ip3
I0501 09:43:16.950374 15499 net.cpp:369] relu3 -> ip3 (in-place)
I0501 09:43:16.950522 15499 net.cpp:124] Setting up relu3
I0501 09:43:16.950531 15499 net.cpp:131] Top shape: 111 40 (4440)
I0501 09:43:16.950533 15499 net.cpp:139] Memory required for data: 19921836
I0501 09:43:16.950536 15499 layer_factory.hpp:77] Creating layer ip4
I0501 09:43:16.950570 15499 net.cpp:86] Creating Layer ip4
I0501 09:43:16.950573 15499 net.cpp:408] ip4 <- ip3
I0501 09:43:16.950578 15499 net.cpp:382] ip4 -> ip4
I0501 09:43:16.950681 15499 net.cpp:124] Setting up ip4
I0501 09:43:16.950688 15499 net.cpp:131] Top shape: 111 10 (1110)
I0501 09:43:16.950691 15499 net.cpp:139] Memory required for data: 19926276
I0501 09:43:16.950700 15499 layer_factory.hpp:77] Creating layer loss
I0501 09:43:16.950705 15499 net.cpp:86] Creating Layer loss
I0501 09:43:16.950707 15499 net.cpp:408] loss <- ip4
I0501 09:43:16.950711 15499 net.cpp:408] loss <- label
I0501 09:43:16.950716 15499 net.cpp:382] loss -> loss
I0501 09:43:16.950734 15499 layer_factory.hpp:77] Creating layer loss
…
I0501 09:43:16.951896 15499 solver.cpp:173] Creating test net (#0) specified by net file: ECE595/cifar/train_test/var_everything/cifar_train_test_547.prototxt
I0501 09:43:16.951922 15499 net.cpp:296] The NetState phase (1) differed from the phase (0) specified by a rule in layer cifar
I0501 09:43:16.952011 15499 net.cpp:53] Initializing net from parameters: 
name: "CIFAR"
state {
  phase: TEST
}
layer {
  name: "cifar"
  type: "Data"
  top: "data"
  top: "label"
  include {
    phase: TEST
  }
  transform_param {
    mean_file: "examples/cifar10/mean.binaryproto"
  }
  data_param {
    source: "examples/cifar10/cifar10_test_lmdb"
    batch_size: 1000
    backend: LMDB
  }
}
layer {
  name: "conv0"
  type: "Convolution"
  bottom: "data"
  top: "conv0"
  param {
    lr_mult: 1
  }
  param {
    lr_mult: 2
  }
  convolution_param {
    num_output: 16
    pad: 2
    kernel_size: 3
    stride: 1
    weight_filler {
      type: "gaussian"
      std: 0.01
    }
    bias_filler {
      type: "constant"
    }
  }
}
layer {
  name: "Sigmoid0"
  type: "Sigmoid"
  bottom: "conv0"
  top: "Sigmoid0"
}
layer {
  name: "pool0"
  type: "Pooling"
  bottom: "Sigmoid0"
  top: "pool0"
  pooling_param {
    pool: AVE
    kernel_size: 3
    stride: 2
  }
}
layer {
  name: "ip1"
  type: "InnerProduct"
  bottom: "pool0"
  top: "ip1"
  param {
    lr_mult: 1
  }
  param {
    lr_mult: 2
  }
  inner_product_param {
    num_output: 40
    weight_filler {
      type: "gaussian"
      std: 0.01
    }
    bias_filler {
      type: "constant"
    }
  }
}
layer {
  name: "relu1"
  type: "ReLU"
  bottom: "ip1"
  top: "ip1"
}
layer {
  name: "ip2"
  type: "InnerProduct"
  bottom: "ip1"
  top: "ip2"
  param {
    lr_mult: 1
  }
  param {
    lr_mult: 2
  }
  inner_product_param {
    num_output: 10
    weight_filler {
      type: "gaussian"
      std: 0.01
    }
    bias_filler {
      type: "constant"
    }
  }
}
layer {
  name: "relu2"
  type: "ReLU"
  bottom: "ip2"
  top: "ip2"
}
layer {
  name: "ip3"
  type: "InnerProduct"
  bottom: "ip2"
  top: "ip3"
  param {
    lr_mult: 1
  }
  param {
    lr_mult: 2
  }
  inner_product_param {
    num_output: 40
    weight_filler {
      type: "gaussian"
      std: 0.01
    }
    bias_filler {
      type: "constant"
    }
  }
}
layer {
  name: "relu3"
  type: "ReLU"
  bottom: "ip3"
  top: "ip3"
}
layer {
  name: "ip4"
  type: "InnerProduct"
  bottom: "ip3"
  top: "ip4"
  param {
    lr_mult: 1
  }
  param {
    lr_mult: 2
  }
  inner_product_param {
    num_output: 10
    weight_filler {
      type: "gaussian"
      std: 0.01
    }
    bias_filler {
      type: "constant"
    }
  }
}
layer {
  name: "accuracy"
  type: "Accuracy"
  bottom: "ip4"
  bottom: "label"
  top: "accuracy"
  include {
    phase: TEST
  }
}
layer {
  name: "loss"
  type: "SoftmaxWithLoss"
  bottom: "ip4"
  bottom: "label"
  top: "loss"
}
I0501 09:43:16.952086 15499 layer_factory.hpp:77] Creating layer cifar
I0501 09:43:16.952129 15499 db_lmdb.cpp:35] Opened lmdb examples/cifar10/cifar10_test_lmdb
I0501 09:43:16.952142 15499 net.cpp:86] Creating Layer cifar
I0501 09:43:16.952145 15499 net.cpp:382] cifar -> data
I0501 09:43:16.952152 15499 net.cpp:382] cifar -> label
I0501 09:43:16.952158 15499 data_transformer.cpp:25] Loading mean file from: examples/cifar10/mean.binaryproto
I0501 09:43:16.952297 15499 data_layer.cpp:45] output data size: 1000,3,32,32
I0501 09:43:16.974393 15499 net.cpp:124] Setting up cifar
I0501 09:43:16.974434 15499 net.cpp:131] Top shape: 1000 3 32 32 (3072000)
I0501 09:43:16.974442 15499 net.cpp:131] Top shape: 1000 (1000)
I0501 09:43:16.974444 15499 net.cpp:139] Memory required for data: 12292000
I0501 09:43:16.974449 15499 layer_factory.hpp:77] Creating layer label_cifar_1_split
I0501 09:43:16.974481 15499 net.cpp:86] Creating Layer label_cifar_1_split
I0501 09:43:16.974485 15499 net.cpp:408] label_cifar_1_split <- label
I0501 09:43:16.974493 15499 net.cpp:382] label_cifar_1_split -> label_cifar_1_split_0
I0501 09:43:16.974501 15499 net.cpp:382] label_cifar_1_split -> label_cifar_1_split_1
I0501 09:43:16.974591 15499 net.cpp:124] Setting up label_cifar_1_split
I0501 09:43:16.974599 15499 net.cpp:131] Top shape: 1000 (1000)
I0501 09:43:16.974603 15499 net.cpp:131] Top shape: 1000 (1000)
I0501 09:43:16.974606 15499 net.cpp:139] Memory required for data: 12300000
I0501 09:43:16.974609 15499 layer_factory.hpp:77] Creating layer conv0
I0501 09:43:16.974622 15499 net.cpp:86] Creating Layer conv0
I0501 09:43:16.974625 15499 net.cpp:408] conv0 <- data
I0501 09:43:16.974632 15499 net.cpp:382] conv0 -> conv0
I0501 09:43:16.976223 15499 net.cpp:124] Setting up conv0
I0501 09:43:16.976236 15499 net.cpp:131] Top shape: 1000 16 34 34 (18496000)
I0501 09:43:16.976256 15499 net.cpp:139] Memory required for data: 86284000
I0501 09:43:16.976265 15499 layer_factory.hpp:77] Creating layer Sigmoid0
I0501 09:43:16.976272 15499 net.cpp:86] Creating Layer Sigmoid0
I0501 09:43:16.976275 15499 net.cpp:408] Sigmoid0 <- conv0
I0501 09:43:16.976294 15499 net.cpp:382] Sigmoid0 -> Sigmoid0
I0501 09:43:16.977488 15499 net.cpp:124] Setting up Sigmoid0
I0501 09:43:16.977497 15499 net.cpp:131] Top shape: 1000 16 34 34 (18496000)
I0501 09:43:16.977517 15499 net.cpp:139] Memory required for data: 160268000
I0501 09:43:16.977520 15499 layer_factory.hpp:77] Creating layer pool0
I0501 09:43:16.977530 15499 net.cpp:86] Creating Layer pool0
I0501 09:43:16.977532 15499 net.cpp:408] pool0 <- Sigmoid0
I0501 09:43:16.977537 15499 net.cpp:382] pool0 -> pool0
I0501 09:43:16.977730 15499 net.cpp:124] Setting up pool0
I0501 09:43:16.977740 15499 net.cpp:131] Top shape: 1000 16 17 17 (4624000)
I0501 09:43:16.977743 15499 net.cpp:139] Memory required for data: 178764000
I0501 09:43:16.977746 15499 layer_factory.hpp:77] Creating layer ip1
I0501 09:43:16.977756 15499 net.cpp:86] Creating Layer ip1
I0501 09:43:16.977759 15499 net.cpp:408] ip1 <- pool0
I0501 09:43:16.977766 15499 net.cpp:382] ip1 -> ip1
I0501 09:43:16.982831 15499 net.cpp:124] Setting up ip1
I0501 09:43:16.982839 15499 net.cpp:131] Top shape: 1000 40 (40000)
I0501 09:43:16.982858 15499 net.cpp:139] Memory required for data: 178924000
I0501 09:43:16.982880 15499 layer_factory.hpp:77] Creating layer relu1
I0501 09:43:16.982914 15499 net.cpp:86] Creating Layer relu1
I0501 09:43:16.982918 15499 net.cpp:408] relu1 <- ip1
I0501 09:43:16.982923 15499 net.cpp:369] relu1 -> ip1 (in-place)
I0501 09:43:16.983088 15499 net.cpp:124] Setting up relu1
I0501 09:43:16.983096 15499 net.cpp:131] Top shape: 1000 40 (40000)
I0501 09:43:16.983101 15499 net.cpp:139] Memory required for data: 179084000
I0501 09:43:16.983105 15499 layer_factory.hpp:77] Creating layer ip2
I0501 09:43:16.983111 15499 net.cpp:86] Creating Layer ip2
I0501 09:43:16.983114 15499 net.cpp:408] ip2 <- ip1
I0501 09:43:16.983120 15499 net.cpp:382] ip2 -> ip2
I0501 09:43:16.983237 15499 net.cpp:124] Setting up ip2
I0501 09:43:16.983243 15499 net.cpp:131] Top shape: 1000 10 (10000)
I0501 09:43:16.983247 15499 net.cpp:139] Memory required for data: 179124000
I0501 09:43:16.983253 15499 layer_factory.hpp:77] Creating layer relu2
I0501 09:43:16.983260 15499 net.cpp:86] Creating Layer relu2
I0501 09:43:16.983263 15499 net.cpp:408] relu2 <- ip2
I0501 09:43:16.983268 15499 net.cpp:369] relu2 -> ip2 (in-place)
I0501 09:43:16.984100 15499 net.cpp:124] Setting up relu2
I0501 09:43:16.984112 15499 net.cpp:131] Top shape: 1000 10 (10000)
I0501 09:43:16.984133 15499 net.cpp:139] Memory required for data: 179164000
I0501 09:43:16.984135 15499 layer_factory.hpp:77] Creating layer ip3
I0501 09:43:16.984143 15499 net.cpp:86] Creating Layer ip3
I0501 09:43:16.984145 15499 net.cpp:408] ip3 <- ip2
I0501 09:43:16.984151 15499 net.cpp:382] ip3 -> ip3
I0501 09:43:16.984285 15499 net.cpp:124] Setting up ip3
I0501 09:43:16.984293 15499 net.cpp:131] Top shape: 1000 40 (40000)
I0501 09:43:16.984295 15499 net.cpp:139] Memory required for data: 179324000
I0501 09:43:16.984302 15499 layer_factory.hpp:77] Creating layer relu3
I0501 09:43:16.984307 15499 net.cpp:86] Creating Layer relu3
I0501 09:43:16.984309 15499 net.cpp:408] relu3 <- ip3
I0501 09:43:16.984314 15499 net.cpp:369] relu3 -> ip3 (in-place)
I0501 09:43:16.984469 15499 net.cpp:124] Setting up relu3
I0501 09:43:16.984477 15499 net.cpp:131] Top shape: 1000 40 (40000)
I0501 09:43:16.984482 15499 net.cpp:139] Memory required for data: 179484000
I0501 09:43:16.984484 15499 layer_factory.hpp:77] Creating layer ip4
I0501 09:43:16.984491 15499 net.cpp:86] Creating Layer ip4
I0501 09:43:16.984494 15499 net.cpp:408] ip4 <- ip3
I0501 09:43:16.984499 15499 net.cpp:382] ip4 -> ip4
I0501 09:43:16.984614 15499 net.cpp:124] Setting up ip4
I0501 09:43:16.984622 15499 net.cpp:131] Top shape: 1000 10 (10000)
I0501 09:43:16.984625 15499 net.cpp:139] Memory required for data: 179524000
I0501 09:43:16.984633 15499 layer_factory.hpp:77] Creating layer ip4_ip4_0_split
I0501 09:43:16.984638 15499 net.cpp:86] Creating Layer ip4_ip4_0_split
I0501 09:43:16.984642 15499 net.cpp:408] ip4_ip4_0_split <- ip4
I0501 09:43:16.984647 15499 net.cpp:382] ip4_ip4_0_split -> ip4_ip4_0_split_0
I0501 09:43:16.984652 15499 net.cpp:382] ip4_ip4_0_split -> ip4_ip4_0_split_1
I0501 09:43:16.984699 15499 net.cpp:124] Setting up ip4_ip4_0_split
I0501 09:43:16.984707 15499 net.cpp:131] Top shape: 1000 10 (10000)
I0501 09:43:16.984712 15499 net.cpp:131] Top shape: 1000 10 (10000)
I0501 09:43:16.984714 15499 net.cpp:139] Memory required for data: 179604000
I0501 09:43:16.984717 15499 layer_factory.hpp:77] Creating layer accuracy
I0501 09:43:16.984724 15499 net.cpp:86] Creating Layer accuracy
I0501 09:43:16.984726 15499 net.cpp:408] accuracy <- ip4_ip4_0_split_0
I0501 09:43:16.984730 15499 net.cpp:408] accuracy <- label_cifar_1_split_0
I0501 09:43:16.984736 15499 net.cpp:382] accuracy -> accuracy
…
