…
I0430 23:07:07.607604  4221 net.cpp:296] The NetState phase (0) differed from the phase (1) specified by a rule in layer cifar
I0430 23:07:07.607622  4221 net.cpp:296] The NetState phase (0) differed from the phase (1) specified by a rule in layer accuracy
I0430 23:07:07.607728  4221 net.cpp:53] Initializing net from parameters: 
name: "CIFAR"
state {
  phase: TRAIN
  level: 0
  stage: ""
}
layer {
  name: "cifar"
  type: "Data"
  top: "data"
  top: "label"
  include {
    phase: TRAIN
  }
  transform_param {
    mean_file: "examples/cifar10/mean.binaryproto"
  }
  data_param {
    source: "examples/cifar10/cifar10_train_lmdb"
    batch_size: 111
    backend: LMDB
  }
}
layer {
  name: "conv0"
  type: "Convolution"
  bottom: "data"
  top: "conv0"
  param {
    lr_mult: 1
  }
  param {
    lr_mult: 2
  }
  convolution_param {
    num_output: 8
    pad: 2
    kernel_size: 3
    stride: 1
    weight_filler {
      type: "gaussian"
      std: 0.01
    }
    bias_filler {
      type: "constant"
    }
  }
}
layer {
  name: "Sigmoid0"
  type: "Sigmoid"
  bottom: "conv0"
  top: "Sigmoid0"
}
layer {
  name: "pool0"
  type: "Pooling"
  bottom: "Sigmoid0"
  top: "pool0"
  pooling_param {
    pool: AVE
    kernel_size: 3
    stride: 2
  }
}
layer {
  name: "ip1"
  type: "InnerProduct"
  bottom: "pool0"
  top: "ip1"
  param {
    lr_mult: 1
  }
  param {
    lr_mult: 2
  }
  inner_product_param {
    num_output: 20
    weight_filler {
      type: "gaussian"
      std: 0.01
    }
    bias_filler {
      type: "constant"
    }
  }
}
layer {
  name: "relu1"
  type: "ReLU"
  bottom: "ip1"
  top: "ip1"
}
layer {
  name: "ip2"
  type: "InnerProduct"
  bottom: "ip1"
  top: "ip2"
  param {
    lr_mult: 1
  }
  param {
    lr_mult: 2
  }
  inner_product_param {
    num_output: 20
    weight_filler {
      type: "gaussian"
      std: 0.01
    }
    bias_filler {
      type: "constant"
    }
  }
}
layer {
  name: "relu2"
  type: "ReLU"
  bottom: "ip2"
  top: "ip2"
}
layer {
  name: "ip3"
  type: "InnerProduct"
  bottom: "ip2"
  top: "ip3"
  param {
    lr_mult: 1
  }
  param {
    lr_mult: 2
  }
  inner_product_param {
    num_output: 10
    weight_filler {
      type: "gaussian"
      std: 0.01
    }
    bias_filler {
      type: "constant"
    }
  }
}
layer {
  name: "relu3"
  type: "ReLU"
  bottom: "ip3"
  top: "ip3"
}
layer {
  name: "ip4"
  type: "InnerProduct"
  bottom: "ip3"
  top: "ip4"
  param {
    lr_mult: 1
  }
  param {
    lr_mult: 2
  }
  inner_product_param {
    num_output: 10
    weight_filler {
      type: "gaussian"
      std: 0.01
    }
    bias_filler {
      type: "constant"
    }
  }
}
layer {
  name: "loss"
  type: "SoftmaxWithLoss"
  bottom: "ip4"
  bottom: "label"
  top: "loss"
}
I0430 23:07:07.607807  4221 layer_factory.hpp:77] Creating layer cifar
I0430 23:07:07.607908  4221 db_lmdb.cpp:35] Opened lmdb examples/cifar10/cifar10_train_lmdb
I0430 23:07:07.607939  4221 net.cpp:86] Creating Layer cifar
I0430 23:07:07.607949  4221 net.cpp:382] cifar -> data
I0430 23:07:07.607975  4221 net.cpp:382] cifar -> label
I0430 23:07:07.607986  4221 data_transformer.cpp:25] Loading mean file from: examples/cifar10/mean.binaryproto
I0430 23:07:07.610105  4221 data_layer.cpp:45] output data size: 111,3,32,32
I0430 23:07:07.618007  4221 net.cpp:124] Setting up cifar
I0430 23:07:07.618026  4221 net.cpp:131] Top shape: 111 3 32 32 (340992)
I0430 23:07:07.618032  4221 net.cpp:131] Top shape: 111 (111)
I0430 23:07:07.618036  4221 net.cpp:139] Memory required for data: 1364412
I0430 23:07:07.618059  4221 layer_factory.hpp:77] Creating layer conv0
I0430 23:07:07.618078  4221 net.cpp:86] Creating Layer conv0
I0430 23:07:07.618084  4221 net.cpp:408] conv0 <- data
I0430 23:07:07.618098  4221 net.cpp:382] conv0 -> conv0
I0430 23:07:07.906352  4221 net.cpp:124] Setting up conv0
I0430 23:07:07.906379  4221 net.cpp:131] Top shape: 111 8 34 34 (1026528)
I0430 23:07:07.906384  4221 net.cpp:139] Memory required for data: 5470524
I0430 23:07:07.906400  4221 layer_factory.hpp:77] Creating layer Sigmoid0
I0430 23:07:07.906412  4221 net.cpp:86] Creating Layer Sigmoid0
I0430 23:07:07.906416  4221 net.cpp:408] Sigmoid0 <- conv0
I0430 23:07:07.906422  4221 net.cpp:382] Sigmoid0 -> Sigmoid0
I0430 23:07:07.906613  4221 net.cpp:124] Setting up Sigmoid0
I0430 23:07:07.906623  4221 net.cpp:131] Top shape: 111 8 34 34 (1026528)
I0430 23:07:07.906627  4221 net.cpp:139] Memory required for data: 9576636
I0430 23:07:07.906630  4221 layer_factory.hpp:77] Creating layer pool0
I0430 23:07:07.906637  4221 net.cpp:86] Creating Layer pool0
I0430 23:07:07.906641  4221 net.cpp:408] pool0 <- Sigmoid0
I0430 23:07:07.906646  4221 net.cpp:382] pool0 -> pool0
I0430 23:07:07.907430  4221 net.cpp:124] Setting up pool0
I0430 23:07:07.907445  4221 net.cpp:131] Top shape: 111 8 17 17 (256632)
I0430 23:07:07.907449  4221 net.cpp:139] Memory required for data: 10603164
I0430 23:07:07.907454  4221 layer_factory.hpp:77] Creating layer ip1
I0430 23:07:07.907462  4221 net.cpp:86] Creating Layer ip1
I0430 23:07:07.907466  4221 net.cpp:408] ip1 <- pool0
I0430 23:07:07.907471  4221 net.cpp:382] ip1 -> ip1
I0430 23:07:07.909843  4221 net.cpp:124] Setting up ip1
I0430 23:07:07.909857  4221 net.cpp:131] Top shape: 111 20 (2220)
I0430 23:07:07.909862  4221 net.cpp:139] Memory required for data: 10612044
I0430 23:07:07.909869  4221 layer_factory.hpp:77] Creating layer relu1
I0430 23:07:07.909876  4221 net.cpp:86] Creating Layer relu1
I0430 23:07:07.909880  4221 net.cpp:408] relu1 <- ip1
I0430 23:07:07.909885  4221 net.cpp:369] relu1 -> ip1 (in-place)
I0430 23:07:07.910051  4221 net.cpp:124] Setting up relu1
I0430 23:07:07.910060  4221 net.cpp:131] Top shape: 111 20 (2220)
I0430 23:07:07.910064  4221 net.cpp:139] Memory required for data: 10620924
I0430 23:07:07.910068  4221 layer_factory.hpp:77] Creating layer ip2
I0430 23:07:07.910074  4221 net.cpp:86] Creating Layer ip2
I0430 23:07:07.910078  4221 net.cpp:408] ip2 <- ip1
I0430 23:07:07.910084  4221 net.cpp:382] ip2 -> ip2
I0430 23:07:07.911077  4221 net.cpp:124] Setting up ip2
I0430 23:07:07.911089  4221 net.cpp:131] Top shape: 111 20 (2220)
I0430 23:07:07.911093  4221 net.cpp:139] Memory required for data: 10629804
I0430 23:07:07.911101  4221 layer_factory.hpp:77] Creating layer relu2
I0430 23:07:07.911108  4221 net.cpp:86] Creating Layer relu2
I0430 23:07:07.911111  4221 net.cpp:408] relu2 <- ip2
I0430 23:07:07.911116  4221 net.cpp:369] relu2 -> ip2 (in-place)
I0430 23:07:07.911289  4221 net.cpp:124] Setting up relu2
I0430 23:07:07.911298  4221 net.cpp:131] Top shape: 111 20 (2220)
I0430 23:07:07.911303  4221 net.cpp:139] Memory required for data: 10638684
I0430 23:07:07.911305  4221 layer_factory.hpp:77] Creating layer ip3
I0430 23:07:07.911314  4221 net.cpp:86] Creating Layer ip3
I0430 23:07:07.911316  4221 net.cpp:408] ip3 <- ip2
I0430 23:07:07.911321  4221 net.cpp:382] ip3 -> ip3
I0430 23:07:07.911424  4221 net.cpp:124] Setting up ip3
I0430 23:07:07.911432  4221 net.cpp:131] Top shape: 111 10 (1110)
I0430 23:07:07.911435  4221 net.cpp:139] Memory required for data: 10643124
I0430 23:07:07.911442  4221 layer_factory.hpp:77] Creating layer relu3
I0430 23:07:07.911445  4221 net.cpp:86] Creating Layer relu3
I0430 23:07:07.911449  4221 net.cpp:408] relu3 <- ip3
I0430 23:07:07.911453  4221 net.cpp:369] relu3 -> ip3 (in-place)
I0430 23:07:07.911628  4221 net.cpp:124] Setting up relu3
I0430 23:07:07.911635  4221 net.cpp:131] Top shape: 111 10 (1110)
I0430 23:07:07.911639  4221 net.cpp:139] Memory required for data: 10647564
I0430 23:07:07.911643  4221 layer_factory.hpp:77] Creating layer ip4
I0430 23:07:07.911666  4221 net.cpp:86] Creating Layer ip4
I0430 23:07:07.911670  4221 net.cpp:408] ip4 <- ip3
I0430 23:07:07.911675  4221 net.cpp:382] ip4 -> ip4
I0430 23:07:07.911782  4221 net.cpp:124] Setting up ip4
I0430 23:07:07.911790  4221 net.cpp:131] Top shape: 111 10 (1110)
I0430 23:07:07.911793  4221 net.cpp:139] Memory required for data: 10652004
I0430 23:07:07.911801  4221 layer_factory.hpp:77] Creating layer loss
I0430 23:07:07.911808  4221 net.cpp:86] Creating Layer loss
I0430 23:07:07.911811  4221 net.cpp:408] loss <- ip4
I0430 23:07:07.911815  4221 net.cpp:408] loss <- label
I0430 23:07:07.911821  4221 net.cpp:382] loss -> loss
I0430 23:07:07.911840  4221 layer_factory.hpp:77] Creating layer loss
…
I0430 23:07:07.913218  4221 solver.cpp:173] Creating test net (#0) specified by net file: ECE595/cifar/train_test/var_everything/cifar_train_test_215.prototxt
I0430 23:07:07.913246  4221 net.cpp:296] The NetState phase (1) differed from the phase (0) specified by a rule in layer cifar
I0430 23:07:07.913344  4221 net.cpp:53] Initializing net from parameters: 
name: "CIFAR"
state {
  phase: TEST
}
layer {
  name: "cifar"
  type: "Data"
  top: "data"
  top: "label"
  include {
    phase: TEST
  }
  transform_param {
    mean_file: "examples/cifar10/mean.binaryproto"
  }
  data_param {
    source: "examples/cifar10/cifar10_test_lmdb"
    batch_size: 1000
    backend: LMDB
  }
}
layer {
  name: "conv0"
  type: "Convolution"
  bottom: "data"
  top: "conv0"
  param {
    lr_mult: 1
  }
  param {
    lr_mult: 2
  }
  convolution_param {
    num_output: 8
    pad: 2
    kernel_size: 3
    stride: 1
    weight_filler {
      type: "gaussian"
      std: 0.01
    }
    bias_filler {
      type: "constant"
    }
  }
}
layer {
  name: "Sigmoid0"
  type: "Sigmoid"
  bottom: "conv0"
  top: "Sigmoid0"
}
layer {
  name: "pool0"
  type: "Pooling"
  bottom: "Sigmoid0"
  top: "pool0"
  pooling_param {
    pool: AVE
    kernel_size: 3
    stride: 2
  }
}
layer {
  name: "ip1"
  type: "InnerProduct"
  bottom: "pool0"
  top: "ip1"
  param {
    lr_mult: 1
  }
  param {
    lr_mult: 2
  }
  inner_product_param {
    num_output: 20
    weight_filler {
      type: "gaussian"
      std: 0.01
    }
    bias_filler {
      type: "constant"
    }
  }
}
layer {
  name: "relu1"
  type: "ReLU"
  bottom: "ip1"
  top: "ip1"
}
layer {
  name: "ip2"
  type: "InnerProduct"
  bottom: "ip1"
  top: "ip2"
  param {
    lr_mult: 1
  }
  param {
    lr_mult: 2
  }
  inner_product_param {
    num_output: 20
    weight_filler {
      type: "gaussian"
      std: 0.01
    }
    bias_filler {
      type: "constant"
    }
  }
}
layer {
  name: "relu2"
  type: "ReLU"
  bottom: "ip2"
  top: "ip2"
}
layer {
  name: "ip3"
  type: "InnerProduct"
  bottom: "ip2"
  top: "ip3"
  param {
    lr_mult: 1
  }
  param {
    lr_mult: 2
  }
  inner_product_param {
    num_output: 10
    weight_filler {
      type: "gaussian"
      std: 0.01
    }
    bias_filler {
      type: "constant"
    }
  }
}
layer {
  name: "relu3"
  type: "ReLU"
  bottom: "ip3"
  top: "ip3"
}
layer {
  name: "ip4"
  type: "InnerProduct"
  bottom: "ip3"
  top: "ip4"
  param {
    lr_mult: 1
  }
  param {
    lr_mult: 2
  }
  inner_product_param {
    num_output: 10
    weight_filler {
      type: "gaussian"
      std: 0.01
    }
    bias_filler {
      type: "constant"
    }
  }
}
layer {
  name: "accuracy"
  type: "Accuracy"
  bottom: "ip4"
  bottom: "label"
  top: "accuracy"
  include {
    phase: TEST
  }
}
layer {
  name: "loss"
  type: "SoftmaxWithLoss"
  bottom: "ip4"
  bottom: "label"
  top: "loss"
}
I0430 23:07:07.913429  4221 layer_factory.hpp:77] Creating layer cifar
I0430 23:07:07.913475  4221 db_lmdb.cpp:35] Opened lmdb examples/cifar10/cifar10_test_lmdb
I0430 23:07:07.913488  4221 net.cpp:86] Creating Layer cifar
I0430 23:07:07.913493  4221 net.cpp:382] cifar -> data
I0430 23:07:07.913501  4221 net.cpp:382] cifar -> label
I0430 23:07:07.913508  4221 data_transformer.cpp:25] Loading mean file from: examples/cifar10/mean.binaryproto
I0430 23:07:07.913656  4221 data_layer.cpp:45] output data size: 1000,3,32,32
I0430 23:07:07.937706  4221 net.cpp:124] Setting up cifar
I0430 23:07:07.937732  4221 net.cpp:131] Top shape: 1000 3 32 32 (3072000)
I0430 23:07:07.937744  4221 net.cpp:131] Top shape: 1000 (1000)
I0430 23:07:07.937748  4221 net.cpp:139] Memory required for data: 12292000
I0430 23:07:07.937753  4221 layer_factory.hpp:77] Creating layer label_cifar_1_split
I0430 23:07:07.937769  4221 net.cpp:86] Creating Layer label_cifar_1_split
I0430 23:07:07.937774  4221 net.cpp:408] label_cifar_1_split <- label
I0430 23:07:07.937780  4221 net.cpp:382] label_cifar_1_split -> label_cifar_1_split_0
I0430 23:07:07.937789  4221 net.cpp:382] label_cifar_1_split -> label_cifar_1_split_1
I0430 23:07:07.937855  4221 net.cpp:124] Setting up label_cifar_1_split
I0430 23:07:07.937861  4221 net.cpp:131] Top shape: 1000 (1000)
I0430 23:07:07.937865  4221 net.cpp:131] Top shape: 1000 (1000)
I0430 23:07:07.937867  4221 net.cpp:139] Memory required for data: 12300000
I0430 23:07:07.937871  4221 layer_factory.hpp:77] Creating layer conv0
I0430 23:07:07.937882  4221 net.cpp:86] Creating Layer conv0
I0430 23:07:07.937886  4221 net.cpp:408] conv0 <- data
I0430 23:07:07.937891  4221 net.cpp:382] conv0 -> conv0
I0430 23:07:07.940361  4221 net.cpp:124] Setting up conv0
I0430 23:07:07.940377  4221 net.cpp:131] Top shape: 1000 8 34 34 (9248000)
I0430 23:07:07.940394  4221 net.cpp:139] Memory required for data: 49292000
I0430 23:07:07.940404  4221 layer_factory.hpp:77] Creating layer Sigmoid0
I0430 23:07:07.940413  4221 net.cpp:86] Creating Layer Sigmoid0
I0430 23:07:07.940418  4221 net.cpp:408] Sigmoid0 <- conv0
I0430 23:07:07.940423  4221 net.cpp:382] Sigmoid0 -> Sigmoid0
I0430 23:07:07.940618  4221 net.cpp:124] Setting up Sigmoid0
I0430 23:07:07.940627  4221 net.cpp:131] Top shape: 1000 8 34 34 (9248000)
I0430 23:07:07.940631  4221 net.cpp:139] Memory required for data: 86284000
I0430 23:07:07.940634  4221 layer_factory.hpp:77] Creating layer pool0
I0430 23:07:07.940644  4221 net.cpp:86] Creating Layer pool0
I0430 23:07:07.940646  4221 net.cpp:408] pool0 <- Sigmoid0
I0430 23:07:07.940651  4221 net.cpp:382] pool0 -> pool0
I0430 23:07:07.940830  4221 net.cpp:124] Setting up pool0
I0430 23:07:07.940840  4221 net.cpp:131] Top shape: 1000 8 17 17 (2312000)
I0430 23:07:07.940842  4221 net.cpp:139] Memory required for data: 95532000
I0430 23:07:07.940845  4221 layer_factory.hpp:77] Creating layer ip1
I0430 23:07:07.940853  4221 net.cpp:86] Creating Layer ip1
I0430 23:07:07.940856  4221 net.cpp:408] ip1 <- pool0
I0430 23:07:07.940861  4221 net.cpp:382] ip1 -> ip1
I0430 23:07:07.942317  4221 net.cpp:124] Setting up ip1
I0430 23:07:07.942324  4221 net.cpp:131] Top shape: 1000 20 (20000)
I0430 23:07:07.942327  4221 net.cpp:139] Memory required for data: 95612000
I0430 23:07:07.942361  4221 layer_factory.hpp:77] Creating layer relu1
I0430 23:07:07.942368  4221 net.cpp:86] Creating Layer relu1
I0430 23:07:07.942370  4221 net.cpp:408] relu1 <- ip1
I0430 23:07:07.942375  4221 net.cpp:369] relu1 -> ip1 (in-place)
I0430 23:07:07.942548  4221 net.cpp:124] Setting up relu1
I0430 23:07:07.942556  4221 net.cpp:131] Top shape: 1000 20 (20000)
I0430 23:07:07.942560  4221 net.cpp:139] Memory required for data: 95692000
I0430 23:07:07.942564  4221 layer_factory.hpp:77] Creating layer ip2
I0430 23:07:07.942569  4221 net.cpp:86] Creating Layer ip2
I0430 23:07:07.942574  4221 net.cpp:408] ip2 <- ip1
I0430 23:07:07.942579  4221 net.cpp:382] ip2 -> ip2
I0430 23:07:07.942690  4221 net.cpp:124] Setting up ip2
I0430 23:07:07.942698  4221 net.cpp:131] Top shape: 1000 20 (20000)
I0430 23:07:07.942701  4221 net.cpp:139] Memory required for data: 95772000
I0430 23:07:07.942709  4221 layer_factory.hpp:77] Creating layer relu2
I0430 23:07:07.942715  4221 net.cpp:86] Creating Layer relu2
I0430 23:07:07.942719  4221 net.cpp:408] relu2 <- ip2
I0430 23:07:07.942723  4221 net.cpp:369] relu2 -> ip2 (in-place)
I0430 23:07:07.943516  4221 net.cpp:124] Setting up relu2
I0430 23:07:07.943529  4221 net.cpp:131] Top shape: 1000 20 (20000)
I0430 23:07:07.943545  4221 net.cpp:139] Memory required for data: 95852000
I0430 23:07:07.943548  4221 layer_factory.hpp:77] Creating layer ip3
I0430 23:07:07.943555  4221 net.cpp:86] Creating Layer ip3
I0430 23:07:07.943559  4221 net.cpp:408] ip3 <- ip2
I0430 23:07:07.943565  4221 net.cpp:382] ip3 -> ip3
I0430 23:07:07.943691  4221 net.cpp:124] Setting up ip3
I0430 23:07:07.943699  4221 net.cpp:131] Top shape: 1000 10 (10000)
I0430 23:07:07.943702  4221 net.cpp:139] Memory required for data: 95892000
I0430 23:07:07.943708  4221 layer_factory.hpp:77] Creating layer relu3
I0430 23:07:07.943713  4221 net.cpp:86] Creating Layer relu3
I0430 23:07:07.943717  4221 net.cpp:408] relu3 <- ip3
I0430 23:07:07.943722  4221 net.cpp:369] relu3 -> ip3 (in-place)
I0430 23:07:07.943872  4221 net.cpp:124] Setting up relu3
I0430 23:07:07.943881  4221 net.cpp:131] Top shape: 1000 10 (10000)
I0430 23:07:07.943884  4221 net.cpp:139] Memory required for data: 95932000
I0430 23:07:07.943887  4221 layer_factory.hpp:77] Creating layer ip4
I0430 23:07:07.943893  4221 net.cpp:86] Creating Layer ip4
I0430 23:07:07.943897  4221 net.cpp:408] ip4 <- ip3
I0430 23:07:07.943902  4221 net.cpp:382] ip4 -> ip4
I0430 23:07:07.944012  4221 net.cpp:124] Setting up ip4
I0430 23:07:07.944022  4221 net.cpp:131] Top shape: 1000 10 (10000)
I0430 23:07:07.944025  4221 net.cpp:139] Memory required for data: 95972000
I0430 23:07:07.944033  4221 layer_factory.hpp:77] Creating layer ip4_ip4_0_split
I0430 23:07:07.944039  4221 net.cpp:86] Creating Layer ip4_ip4_0_split
I0430 23:07:07.944042  4221 net.cpp:408] ip4_ip4_0_split <- ip4
I0430 23:07:07.944046  4221 net.cpp:382] ip4_ip4_0_split -> ip4_ip4_0_split_0
I0430 23:07:07.944051  4221 net.cpp:382] ip4_ip4_0_split -> ip4_ip4_0_split_1
I0430 23:07:07.944082  4221 net.cpp:124] Setting up ip4_ip4_0_split
I0430 23:07:07.944087  4221 net.cpp:131] Top shape: 1000 10 (10000)
I0430 23:07:07.944090  4221 net.cpp:131] Top shape: 1000 10 (10000)
I0430 23:07:07.944093  4221 net.cpp:139] Memory required for data: 96052000
I0430 23:07:07.944097  4221 layer_factory.hpp:77] Creating layer accuracy
I0430 23:07:07.944103  4221 net.cpp:86] Creating Layer accuracy
I0430 23:07:07.944105  4221 net.cpp:408] accuracy <- ip4_ip4_0_split_0
I0430 23:07:07.944109  4221 net.cpp:408] accuracy <- label_cifar_1_split_0
I0430 23:07:07.944114  4221 net.cpp:382] accuracy -> accuracy
…
