…
I0501 00:10:46.926215  6516 net.cpp:296] The NetState phase (0) differed from the phase (1) specified by a rule in layer cifar
I0501 00:10:46.926234  6516 net.cpp:296] The NetState phase (0) differed from the phase (1) specified by a rule in layer accuracy
I0501 00:10:46.926338  6516 net.cpp:53] Initializing net from parameters: 
name: "CIFAR"
state {
  phase: TRAIN
  level: 0
  stage: ""
}
layer {
  name: "cifar"
  type: "Data"
  top: "data"
  top: "label"
  include {
    phase: TRAIN
  }
  transform_param {
    mean_file: "examples/cifar10/mean.binaryproto"
  }
  data_param {
    source: "examples/cifar10/cifar10_train_lmdb"
    batch_size: 111
    backend: LMDB
  }
}
layer {
  name: "conv0"
  type: "Convolution"
  bottom: "data"
  top: "conv0"
  param {
    lr_mult: 1
  }
  param {
    lr_mult: 2
  }
  convolution_param {
    num_output: 8
    pad: 2
    kernel_size: 3
    stride: 1
    weight_filler {
      type: "gaussian"
      std: 0.01
    }
    bias_filler {
      type: "constant"
    }
  }
}
layer {
  name: "Sigmoid0"
  type: "Sigmoid"
  bottom: "conv0"
  top: "Sigmoid0"
}
layer {
  name: "pool0"
  type: "Pooling"
  bottom: "Sigmoid0"
  top: "pool0"
  pooling_param {
    pool: AVE
    kernel_size: 3
    stride: 2
  }
}
layer {
  name: "ip1"
  type: "InnerProduct"
  bottom: "pool0"
  top: "ip1"
  param {
    lr_mult: 1
  }
  param {
    lr_mult: 2
  }
  inner_product_param {
    num_output: 40
    weight_filler {
      type: "gaussian"
      std: 0.01
    }
    bias_filler {
      type: "constant"
    }
  }
}
layer {
  name: "relu1"
  type: "ReLU"
  bottom: "ip1"
  top: "ip1"
}
layer {
  name: "ip2"
  type: "InnerProduct"
  bottom: "ip1"
  top: "ip2"
  param {
    lr_mult: 1
  }
  param {
    lr_mult: 2
  }
  inner_product_param {
    num_output: 40
    weight_filler {
      type: "gaussian"
      std: 0.01
    }
    bias_filler {
      type: "constant"
    }
  }
}
layer {
  name: "relu2"
  type: "ReLU"
  bottom: "ip2"
  top: "ip2"
}
layer {
  name: "ip3"
  type: "InnerProduct"
  bottom: "ip2"
  top: "ip3"
  param {
    lr_mult: 1
  }
  param {
    lr_mult: 2
  }
  inner_product_param {
    num_output: 160
    weight_filler {
      type: "gaussian"
      std: 0.01
    }
    bias_filler {
      type: "constant"
    }
  }
}
layer {
  name: "relu3"
  type: "ReLU"
  bottom: "ip3"
  top: "ip3"
}
layer {
  name: "ip4"
  type: "InnerProduct"
  bottom: "ip3"
  top: "ip4"
  param {
    lr_mult: 1
  }
  param {
    lr_mult: 2
  }
  inner_product_param {
    num_output: 10
    weight_filler {
      type: "gaussian"
      std: 0.01
    }
    bias_filler {
      type: "constant"
    }
  }
}
layer {
  name: "loss"
  type: "SoftmaxWithLoss"
  bottom: "ip4"
  bottom: "label"
  top: "loss"
}
I0501 00:10:46.926419  6516 layer_factory.hpp:77] Creating layer cifar
I0501 00:10:46.926517  6516 db_lmdb.cpp:35] Opened lmdb examples/cifar10/cifar10_train_lmdb
I0501 00:10:46.926547  6516 net.cpp:86] Creating Layer cifar
I0501 00:10:46.926558  6516 net.cpp:382] cifar -> data
I0501 00:10:46.926584  6516 net.cpp:382] cifar -> label
I0501 00:10:46.926596  6516 data_transformer.cpp:25] Loading mean file from: examples/cifar10/mean.binaryproto
I0501 00:10:46.928707  6516 data_layer.cpp:45] output data size: 111,3,32,32
I0501 00:10:46.936640  6516 net.cpp:124] Setting up cifar
I0501 00:10:46.936661  6516 net.cpp:131] Top shape: 111 3 32 32 (340992)
I0501 00:10:46.936669  6516 net.cpp:131] Top shape: 111 (111)
I0501 00:10:46.936676  6516 net.cpp:139] Memory required for data: 1364412
I0501 00:10:46.936704  6516 layer_factory.hpp:77] Creating layer conv0
I0501 00:10:46.936723  6516 net.cpp:86] Creating Layer conv0
I0501 00:10:46.936735  6516 net.cpp:408] conv0 <- data
I0501 00:10:46.936748  6516 net.cpp:382] conv0 -> conv0
I0501 00:10:47.216776  6516 net.cpp:124] Setting up conv0
I0501 00:10:47.216804  6516 net.cpp:131] Top shape: 111 8 34 34 (1026528)
I0501 00:10:47.216809  6516 net.cpp:139] Memory required for data: 5470524
I0501 00:10:47.216830  6516 layer_factory.hpp:77] Creating layer Sigmoid0
I0501 00:10:47.216842  6516 net.cpp:86] Creating Layer Sigmoid0
I0501 00:10:47.216846  6516 net.cpp:408] Sigmoid0 <- conv0
I0501 00:10:47.216851  6516 net.cpp:382] Sigmoid0 -> Sigmoid0
I0501 00:10:47.217021  6516 net.cpp:124] Setting up Sigmoid0
I0501 00:10:47.217031  6516 net.cpp:131] Top shape: 111 8 34 34 (1026528)
I0501 00:10:47.217034  6516 net.cpp:139] Memory required for data: 9576636
I0501 00:10:47.217037  6516 layer_factory.hpp:77] Creating layer pool0
I0501 00:10:47.217043  6516 net.cpp:86] Creating Layer pool0
I0501 00:10:47.217046  6516 net.cpp:408] pool0 <- Sigmoid0
I0501 00:10:47.217051  6516 net.cpp:382] pool0 -> pool0
I0501 00:10:47.217767  6516 net.cpp:124] Setting up pool0
I0501 00:10:47.217779  6516 net.cpp:131] Top shape: 111 8 17 17 (256632)
I0501 00:10:47.217783  6516 net.cpp:139] Memory required for data: 10603164
I0501 00:10:47.217787  6516 layer_factory.hpp:77] Creating layer ip1
I0501 00:10:47.217797  6516 net.cpp:86] Creating Layer ip1
I0501 00:10:47.217799  6516 net.cpp:408] ip1 <- pool0
I0501 00:10:47.217804  6516 net.cpp:382] ip1 -> ip1
I0501 00:10:47.220258  6516 net.cpp:124] Setting up ip1
I0501 00:10:47.220265  6516 net.cpp:131] Top shape: 111 40 (4440)
I0501 00:10:47.220268  6516 net.cpp:139] Memory required for data: 10620924
I0501 00:10:47.220276  6516 layer_factory.hpp:77] Creating layer relu1
I0501 00:10:47.220281  6516 net.cpp:86] Creating Layer relu1
I0501 00:10:47.220284  6516 net.cpp:408] relu1 <- ip1
I0501 00:10:47.220288  6516 net.cpp:369] relu1 -> ip1 (in-place)
I0501 00:10:47.220463  6516 net.cpp:124] Setting up relu1
I0501 00:10:47.220470  6516 net.cpp:131] Top shape: 111 40 (4440)
I0501 00:10:47.220474  6516 net.cpp:139] Memory required for data: 10638684
I0501 00:10:47.220476  6516 layer_factory.hpp:77] Creating layer ip2
I0501 00:10:47.220482  6516 net.cpp:86] Creating Layer ip2
I0501 00:10:47.220485  6516 net.cpp:408] ip2 <- ip1
I0501 00:10:47.220490  6516 net.cpp:382] ip2 -> ip2
I0501 00:10:47.220618  6516 net.cpp:124] Setting up ip2
I0501 00:10:47.220624  6516 net.cpp:131] Top shape: 111 40 (4440)
I0501 00:10:47.220628  6516 net.cpp:139] Memory required for data: 10656444
I0501 00:10:47.220634  6516 layer_factory.hpp:77] Creating layer relu2
I0501 00:10:47.220639  6516 net.cpp:86] Creating Layer relu2
I0501 00:10:47.220643  6516 net.cpp:408] relu2 <- ip2
I0501 00:10:47.220646  6516 net.cpp:369] relu2 -> ip2 (in-place)
I0501 00:10:47.220783  6516 net.cpp:124] Setting up relu2
I0501 00:10:47.220808  6516 net.cpp:131] Top shape: 111 40 (4440)
I0501 00:10:47.220815  6516 net.cpp:139] Memory required for data: 10674204
I0501 00:10:47.220819  6516 layer_factory.hpp:77] Creating layer ip3
I0501 00:10:47.220826  6516 net.cpp:86] Creating Layer ip3
I0501 00:10:47.220829  6516 net.cpp:408] ip3 <- ip2
I0501 00:10:47.220850  6516 net.cpp:382] ip3 -> ip3
I0501 00:10:47.222017  6516 net.cpp:124] Setting up ip3
I0501 00:10:47.222028  6516 net.cpp:131] Top shape: 111 160 (17760)
I0501 00:10:47.222033  6516 net.cpp:139] Memory required for data: 10745244
I0501 00:10:47.222038  6516 layer_factory.hpp:77] Creating layer relu3
I0501 00:10:47.222043  6516 net.cpp:86] Creating Layer relu3
I0501 00:10:47.222046  6516 net.cpp:408] relu3 <- ip3
I0501 00:10:47.222050  6516 net.cpp:369] relu3 -> ip3 (in-place)
I0501 00:10:47.222198  6516 net.cpp:124] Setting up relu3
I0501 00:10:47.222206  6516 net.cpp:131] Top shape: 111 160 (17760)
I0501 00:10:47.222209  6516 net.cpp:139] Memory required for data: 10816284
I0501 00:10:47.222213  6516 layer_factory.hpp:77] Creating layer ip4
I0501 00:10:47.222239  6516 net.cpp:86] Creating Layer ip4
I0501 00:10:47.222244  6516 net.cpp:408] ip4 <- ip3
I0501 00:10:47.222247  6516 net.cpp:382] ip4 -> ip4
I0501 00:10:47.222398  6516 net.cpp:124] Setting up ip4
I0501 00:10:47.222405  6516 net.cpp:131] Top shape: 111 10 (1110)
I0501 00:10:47.222409  6516 net.cpp:139] Memory required for data: 10820724
I0501 00:10:47.222416  6516 layer_factory.hpp:77] Creating layer loss
I0501 00:10:47.222421  6516 net.cpp:86] Creating Layer loss
I0501 00:10:47.222424  6516 net.cpp:408] loss <- ip4
I0501 00:10:47.222429  6516 net.cpp:408] loss <- label
I0501 00:10:47.222434  6516 net.cpp:382] loss -> loss
I0501 00:10:47.222447  6516 layer_factory.hpp:77] Creating layer loss
…
I0501 00:10:47.223626  6516 solver.cpp:173] Creating test net (#0) specified by net file: ECE595/cifar/train_test/var_everything/cifar_train_test_249.prototxt
I0501 00:10:47.223654  6516 net.cpp:296] The NetState phase (1) differed from the phase (0) specified by a rule in layer cifar
I0501 00:10:47.223758  6516 net.cpp:53] Initializing net from parameters: 
name: "CIFAR"
state {
  phase: TEST
}
layer {
  name: "cifar"
  type: "Data"
  top: "data"
  top: "label"
  include {
    phase: TEST
  }
  transform_param {
    mean_file: "examples/cifar10/mean.binaryproto"
  }
  data_param {
    source: "examples/cifar10/cifar10_test_lmdb"
    batch_size: 1000
    backend: LMDB
  }
}
layer {
  name: "conv0"
  type: "Convolution"
  bottom: "data"
  top: "conv0"
  param {
    lr_mult: 1
  }
  param {
    lr_mult: 2
  }
  convolution_param {
    num_output: 8
    pad: 2
    kernel_size: 3
    stride: 1
    weight_filler {
      type: "gaussian"
      std: 0.01
    }
    bias_filler {
      type: "constant"
    }
  }
}
layer {
  name: "Sigmoid0"
  type: "Sigmoid"
  bottom: "conv0"
  top: "Sigmoid0"
}
layer {
  name: "pool0"
  type: "Pooling"
  bottom: "Sigmoid0"
  top: "pool0"
  pooling_param {
    pool: AVE
    kernel_size: 3
    stride: 2
  }
}
layer {
  name: "ip1"
  type: "InnerProduct"
  bottom: "pool0"
  top: "ip1"
  param {
    lr_mult: 1
  }
  param {
    lr_mult: 2
  }
  inner_product_param {
    num_output: 40
    weight_filler {
      type: "gaussian"
      std: 0.01
    }
    bias_filler {
      type: "constant"
    }
  }
}
layer {
  name: "relu1"
  type: "ReLU"
  bottom: "ip1"
  top: "ip1"
}
layer {
  name: "ip2"
  type: "InnerProduct"
  bottom: "ip1"
  top: "ip2"
  param {
    lr_mult: 1
  }
  param {
    lr_mult: 2
  }
  inner_product_param {
    num_output: 40
    weight_filler {
      type: "gaussian"
      std: 0.01
    }
    bias_filler {
      type: "constant"
    }
  }
}
layer {
  name: "relu2"
  type: "ReLU"
  bottom: "ip2"
  top: "ip2"
}
layer {
  name: "ip3"
  type: "InnerProduct"
  bottom: "ip2"
  top: "ip3"
  param {
    lr_mult: 1
  }
  param {
    lr_mult: 2
  }
  inner_product_param {
    num_output: 160
    weight_filler {
      type: "gaussian"
      std: 0.01
    }
    bias_filler {
      type: "constant"
    }
  }
}
layer {
  name: "relu3"
  type: "ReLU"
  bottom: "ip3"
  top: "ip3"
}
layer {
  name: "ip4"
  type: "InnerProduct"
  bottom: "ip3"
  top: "ip4"
  param {
    lr_mult: 1
  }
  param {
    lr_mult: 2
  }
  inner_product_param {
    num_output: 10
    weight_filler {
      type: "gaussian"
      std: 0.01
    }
    bias_filler {
      type: "constant"
    }
  }
}
layer {
  name: "accuracy"
  type: "Accuracy"
  bottom: "ip4"
  bottom: "label"
  top: "accuracy"
  include {
    phase: TEST
  }
}
layer {
  name: "loss"
  type: "SoftmaxWithLoss"
  bottom: "ip4"
  bottom: "label"
  top: "loss"
}
I0501 00:10:47.223831  6516 layer_factory.hpp:77] Creating layer cifar
I0501 00:10:47.223875  6516 db_lmdb.cpp:35] Opened lmdb examples/cifar10/cifar10_test_lmdb
I0501 00:10:47.223886  6516 net.cpp:86] Creating Layer cifar
I0501 00:10:47.223891  6516 net.cpp:382] cifar -> data
I0501 00:10:47.223898  6516 net.cpp:382] cifar -> label
I0501 00:10:47.223904  6516 data_transformer.cpp:25] Loading mean file from: examples/cifar10/mean.binaryproto
I0501 00:10:47.224042  6516 data_layer.cpp:45] output data size: 1000,3,32,32
I0501 00:10:47.246218  6516 net.cpp:124] Setting up cifar
I0501 00:10:47.246258  6516 net.cpp:131] Top shape: 1000 3 32 32 (3072000)
I0501 00:10:47.246280  6516 net.cpp:131] Top shape: 1000 (1000)
I0501 00:10:47.246284  6516 net.cpp:139] Memory required for data: 12292000
I0501 00:10:47.246289  6516 layer_factory.hpp:77] Creating layer label_cifar_1_split
I0501 00:10:47.246316  6516 net.cpp:86] Creating Layer label_cifar_1_split
I0501 00:10:47.246321  6516 net.cpp:408] label_cifar_1_split <- label
I0501 00:10:47.246326  6516 net.cpp:382] label_cifar_1_split -> label_cifar_1_split_0
I0501 00:10:47.246335  6516 net.cpp:382] label_cifar_1_split -> label_cifar_1_split_1
I0501 00:10:47.246431  6516 net.cpp:124] Setting up label_cifar_1_split
I0501 00:10:47.246439  6516 net.cpp:131] Top shape: 1000 (1000)
I0501 00:10:47.246443  6516 net.cpp:131] Top shape: 1000 (1000)
I0501 00:10:47.246445  6516 net.cpp:139] Memory required for data: 12300000
I0501 00:10:47.246448  6516 layer_factory.hpp:77] Creating layer conv0
I0501 00:10:47.246460  6516 net.cpp:86] Creating Layer conv0
I0501 00:10:47.246464  6516 net.cpp:408] conv0 <- data
I0501 00:10:47.246469  6516 net.cpp:382] conv0 -> conv0
I0501 00:10:47.248142  6516 net.cpp:124] Setting up conv0
I0501 00:10:47.248153  6516 net.cpp:131] Top shape: 1000 8 34 34 (9248000)
I0501 00:10:47.248172  6516 net.cpp:139] Memory required for data: 49292000
I0501 00:10:47.248183  6516 layer_factory.hpp:77] Creating layer Sigmoid0
I0501 00:10:47.248189  6516 net.cpp:86] Creating Layer Sigmoid0
I0501 00:10:47.248193  6516 net.cpp:408] Sigmoid0 <- conv0
I0501 00:10:47.248196  6516 net.cpp:382] Sigmoid0 -> Sigmoid0
I0501 00:10:47.248394  6516 net.cpp:124] Setting up Sigmoid0
I0501 00:10:47.248402  6516 net.cpp:131] Top shape: 1000 8 34 34 (9248000)
I0501 00:10:47.248405  6516 net.cpp:139] Memory required for data: 86284000
I0501 00:10:47.248409  6516 layer_factory.hpp:77] Creating layer pool0
I0501 00:10:47.248416  6516 net.cpp:86] Creating Layer pool0
I0501 00:10:47.248420  6516 net.cpp:408] pool0 <- Sigmoid0
I0501 00:10:47.248425  6516 net.cpp:382] pool0 -> pool0
I0501 00:10:47.248594  6516 net.cpp:124] Setting up pool0
I0501 00:10:47.248602  6516 net.cpp:131] Top shape: 1000 8 17 17 (2312000)
I0501 00:10:47.248605  6516 net.cpp:139] Memory required for data: 95532000
I0501 00:10:47.248608  6516 layer_factory.hpp:77] Creating layer ip1
I0501 00:10:47.248617  6516 net.cpp:86] Creating Layer ip1
I0501 00:10:47.248620  6516 net.cpp:408] ip1 <- pool0
I0501 00:10:47.248625  6516 net.cpp:382] ip1 -> ip1
I0501 00:10:47.251235  6516 net.cpp:124] Setting up ip1
I0501 00:10:47.251245  6516 net.cpp:131] Top shape: 1000 40 (40000)
I0501 00:10:47.251261  6516 net.cpp:139] Memory required for data: 95692000
I0501 00:10:47.251282  6516 layer_factory.hpp:77] Creating layer relu1
I0501 00:10:47.251288  6516 net.cpp:86] Creating Layer relu1
I0501 00:10:47.251291  6516 net.cpp:408] relu1 <- ip1
I0501 00:10:47.251312  6516 net.cpp:369] relu1 -> ip1 (in-place)
I0501 00:10:47.251484  6516 net.cpp:124] Setting up relu1
I0501 00:10:47.251492  6516 net.cpp:131] Top shape: 1000 40 (40000)
I0501 00:10:47.251497  6516 net.cpp:139] Memory required for data: 95852000
I0501 00:10:47.251499  6516 layer_factory.hpp:77] Creating layer ip2
I0501 00:10:47.251505  6516 net.cpp:86] Creating Layer ip2
I0501 00:10:47.251508  6516 net.cpp:408] ip2 <- ip1
I0501 00:10:47.251514  6516 net.cpp:382] ip2 -> ip2
I0501 00:10:47.251660  6516 net.cpp:124] Setting up ip2
I0501 00:10:47.251667  6516 net.cpp:131] Top shape: 1000 40 (40000)
I0501 00:10:47.251670  6516 net.cpp:139] Memory required for data: 96012000
I0501 00:10:47.251678  6516 layer_factory.hpp:77] Creating layer relu2
I0501 00:10:47.251685  6516 net.cpp:86] Creating Layer relu2
I0501 00:10:47.251688  6516 net.cpp:408] relu2 <- ip2
I0501 00:10:47.251691  6516 net.cpp:369] relu2 -> ip2 (in-place)
I0501 00:10:47.252425  6516 net.cpp:124] Setting up relu2
I0501 00:10:47.252436  6516 net.cpp:131] Top shape: 1000 40 (40000)
I0501 00:10:47.252456  6516 net.cpp:139] Memory required for data: 96172000
I0501 00:10:47.252460  6516 layer_factory.hpp:77] Creating layer ip3
I0501 00:10:47.252467  6516 net.cpp:86] Creating Layer ip3
I0501 00:10:47.252471  6516 net.cpp:408] ip3 <- ip2
I0501 00:10:47.252477  6516 net.cpp:382] ip3 -> ip3
I0501 00:10:47.252759  6516 net.cpp:124] Setting up ip3
I0501 00:10:47.252768  6516 net.cpp:131] Top shape: 1000 160 (160000)
I0501 00:10:47.252769  6516 net.cpp:139] Memory required for data: 96812000
I0501 00:10:47.252775  6516 layer_factory.hpp:77] Creating layer relu3
I0501 00:10:47.252781  6516 net.cpp:86] Creating Layer relu3
I0501 00:10:47.252784  6516 net.cpp:408] relu3 <- ip3
I0501 00:10:47.252789  6516 net.cpp:369] relu3 -> ip3 (in-place)
I0501 00:10:47.252967  6516 net.cpp:124] Setting up relu3
I0501 00:10:47.252976  6516 net.cpp:131] Top shape: 1000 160 (160000)
I0501 00:10:47.252980  6516 net.cpp:139] Memory required for data: 97452000
I0501 00:10:47.252984  6516 layer_factory.hpp:77] Creating layer ip4
I0501 00:10:47.252990  6516 net.cpp:86] Creating Layer ip4
I0501 00:10:47.252993  6516 net.cpp:408] ip4 <- ip3
I0501 00:10:47.252998  6516 net.cpp:382] ip4 -> ip4
I0501 00:10:47.253149  6516 net.cpp:124] Setting up ip4
I0501 00:10:47.253155  6516 net.cpp:131] Top shape: 1000 10 (10000)
I0501 00:10:47.253159  6516 net.cpp:139] Memory required for data: 97492000
I0501 00:10:47.253181  6516 layer_factory.hpp:77] Creating layer ip4_ip4_0_split
I0501 00:10:47.253192  6516 net.cpp:86] Creating Layer ip4_ip4_0_split
I0501 00:10:47.253196  6516 net.cpp:408] ip4_ip4_0_split <- ip4
I0501 00:10:47.253199  6516 net.cpp:382] ip4_ip4_0_split -> ip4_ip4_0_split_0
I0501 00:10:47.253204  6516 net.cpp:382] ip4_ip4_0_split -> ip4_ip4_0_split_1
I0501 00:10:47.253234  6516 net.cpp:124] Setting up ip4_ip4_0_split
I0501 00:10:47.253240  6516 net.cpp:131] Top shape: 1000 10 (10000)
I0501 00:10:47.253244  6516 net.cpp:131] Top shape: 1000 10 (10000)
I0501 00:10:47.253247  6516 net.cpp:139] Memory required for data: 97572000
I0501 00:10:47.253249  6516 layer_factory.hpp:77] Creating layer accuracy
I0501 00:10:47.253257  6516 net.cpp:86] Creating Layer accuracy
I0501 00:10:47.253259  6516 net.cpp:408] accuracy <- ip4_ip4_0_split_0
I0501 00:10:47.253263  6516 net.cpp:408] accuracy <- label_cifar_1_split_0
I0501 00:10:47.253268  6516 net.cpp:382] accuracy -> accuracy
…
