…
I0501 03:04:54.889230 18879 net.cpp:296] The NetState phase (0) differed from the phase (1) specified by a rule in layer cifar
I0501 03:04:54.889258 18879 net.cpp:296] The NetState phase (0) differed from the phase (1) specified by a rule in layer accuracy
I0501 03:04:54.889360 18879 net.cpp:53] Initializing net from parameters: 
name: "CIFAR"
state {
  phase: TRAIN
  level: 0
  stage: ""
}
layer {
  name: "cifar"
  type: "Data"
  top: "data"
  top: "label"
  include {
    phase: TRAIN
  }
  transform_param {
    mean_file: "examples/cifar10/mean.binaryproto"
  }
  data_param {
    source: "examples/cifar10/cifar10_train_lmdb"
    batch_size: 111
    backend: LMDB
  }
}
layer {
  name: "conv0"
  type: "Convolution"
  bottom: "data"
  top: "conv0"
  param {
    lr_mult: 1
  }
  param {
    lr_mult: 2
  }
  convolution_param {
    num_output: 8
    pad: 2
    kernel_size: 5
    stride: 1
    weight_filler {
      type: "gaussian"
      std: 0.01
    }
    bias_filler {
      type: "constant"
    }
  }
}
layer {
  name: "Sigmoid0"
  type: "Sigmoid"
  bottom: "conv0"
  top: "Sigmoid0"
}
layer {
  name: "pool0"
  type: "Pooling"
  bottom: "Sigmoid0"
  top: "pool0"
  pooling_param {
    pool: AVE
    kernel_size: 3
    stride: 2
  }
}
layer {
  name: "ip1"
  type: "InnerProduct"
  bottom: "pool0"
  top: "ip1"
  param {
    lr_mult: 1
  }
  param {
    lr_mult: 2
  }
  inner_product_param {
    num_output: 10
    weight_filler {
      type: "gaussian"
      std: 0.01
    }
    bias_filler {
      type: "constant"
    }
  }
}
layer {
  name: "relu1"
  type: "ReLU"
  bottom: "ip1"
  top: "ip1"
}
layer {
  name: "ip2"
  type: "InnerProduct"
  bottom: "ip1"
  top: "ip2"
  param {
    lr_mult: 1
  }
  param {
    lr_mult: 2
  }
  inner_product_param {
    num_output: 10
    weight_filler {
      type: "gaussian"
      std: 0.01
    }
    bias_filler {
      type: "constant"
    }
  }
}
layer {
  name: "relu2"
  type: "ReLU"
  bottom: "ip2"
  top: "ip2"
}
layer {
  name: "ip3"
  type: "InnerProduct"
  bottom: "ip2"
  top: "ip3"
  param {
    lr_mult: 1
  }
  param {
    lr_mult: 2
  }
  inner_product_param {
    num_output: 40
    weight_filler {
      type: "gaussian"
      std: 0.01
    }
    bias_filler {
      type: "constant"
    }
  }
}
layer {
  name: "relu3"
  type: "ReLU"
  bottom: "ip3"
  top: "ip3"
}
layer {
  name: "ip4"
  type: "InnerProduct"
  bottom: "ip3"
  top: "ip4"
  param {
    lr_mult: 1
  }
  param {
    lr_mult: 2
  }
  inner_product_param {
    num_output: 10
    weight_filler {
      type: "gaussian"
      std: 0.01
    }
    bias_filler {
      type: "constant"
    }
  }
}
layer {
  name: "loss"
  type: "SoftmaxWithLoss"
  bottom: "ip4"
  bottom: "label"
  top: "loss"
}
I0501 03:04:54.889421 18879 layer_factory.hpp:77] Creating layer cifar
I0501 03:04:54.889508 18879 db_lmdb.cpp:35] Opened lmdb examples/cifar10/cifar10_train_lmdb
I0501 03:04:54.889544 18879 net.cpp:86] Creating Layer cifar
I0501 03:04:54.889551 18879 net.cpp:382] cifar -> data
I0501 03:04:54.889585 18879 net.cpp:382] cifar -> label
I0501 03:04:54.889600 18879 data_transformer.cpp:25] Loading mean file from: examples/cifar10/mean.binaryproto
I0501 03:04:54.891448 18879 data_layer.cpp:45] output data size: 111,3,32,32
I0501 03:04:54.898001 18879 net.cpp:124] Setting up cifar
I0501 03:04:54.898017 18879 net.cpp:131] Top shape: 111 3 32 32 (340992)
I0501 03:04:54.898037 18879 net.cpp:131] Top shape: 111 (111)
I0501 03:04:54.898041 18879 net.cpp:139] Memory required for data: 1364412
I0501 03:04:54.898059 18879 layer_factory.hpp:77] Creating layer conv0
I0501 03:04:54.898073 18879 net.cpp:86] Creating Layer conv0
I0501 03:04:54.898078 18879 net.cpp:408] conv0 <- data
I0501 03:04:54.898088 18879 net.cpp:382] conv0 -> conv0
I0501 03:04:55.125937 18879 net.cpp:124] Setting up conv0
I0501 03:04:55.125980 18879 net.cpp:131] Top shape: 111 8 32 32 (909312)
I0501 03:04:55.126000 18879 net.cpp:139] Memory required for data: 5001660
I0501 03:04:55.126014 18879 layer_factory.hpp:77] Creating layer Sigmoid0
I0501 03:04:55.126027 18879 net.cpp:86] Creating Layer Sigmoid0
I0501 03:04:55.126031 18879 net.cpp:408] Sigmoid0 <- conv0
I0501 03:04:55.126037 18879 net.cpp:382] Sigmoid0 -> Sigmoid0
I0501 03:04:55.126235 18879 net.cpp:124] Setting up Sigmoid0
I0501 03:04:55.126245 18879 net.cpp:131] Top shape: 111 8 32 32 (909312)
I0501 03:04:55.126250 18879 net.cpp:139] Memory required for data: 8638908
I0501 03:04:55.126252 18879 layer_factory.hpp:77] Creating layer pool0
I0501 03:04:55.126258 18879 net.cpp:86] Creating Layer pool0
I0501 03:04:55.126261 18879 net.cpp:408] pool0 <- Sigmoid0
I0501 03:04:55.126266 18879 net.cpp:382] pool0 -> pool0
I0501 03:04:55.127024 18879 net.cpp:124] Setting up pool0
I0501 03:04:55.127038 18879 net.cpp:131] Top shape: 111 8 16 16 (227328)
I0501 03:04:55.127041 18879 net.cpp:139] Memory required for data: 9548220
I0501 03:04:55.127044 18879 layer_factory.hpp:77] Creating layer ip1
I0501 03:04:55.127053 18879 net.cpp:86] Creating Layer ip1
I0501 03:04:55.127056 18879 net.cpp:408] ip1 <- pool0
I0501 03:04:55.127063 18879 net.cpp:382] ip1 -> ip1
I0501 03:04:55.128500 18879 net.cpp:124] Setting up ip1
I0501 03:04:55.128512 18879 net.cpp:131] Top shape: 111 10 (1110)
I0501 03:04:55.128515 18879 net.cpp:139] Memory required for data: 9552660
I0501 03:04:55.128522 18879 layer_factory.hpp:77] Creating layer relu1
I0501 03:04:55.128527 18879 net.cpp:86] Creating Layer relu1
I0501 03:04:55.128530 18879 net.cpp:408] relu1 <- ip1
I0501 03:04:55.128536 18879 net.cpp:369] relu1 -> ip1 (in-place)
I0501 03:04:55.128703 18879 net.cpp:124] Setting up relu1
I0501 03:04:55.128712 18879 net.cpp:131] Top shape: 111 10 (1110)
I0501 03:04:55.128715 18879 net.cpp:139] Memory required for data: 9557100
I0501 03:04:55.128718 18879 layer_factory.hpp:77] Creating layer ip2
I0501 03:04:55.128726 18879 net.cpp:86] Creating Layer ip2
I0501 03:04:55.128728 18879 net.cpp:408] ip2 <- ip1
I0501 03:04:55.128733 18879 net.cpp:382] ip2 -> ip2
I0501 03:04:55.128829 18879 net.cpp:124] Setting up ip2
I0501 03:04:55.128837 18879 net.cpp:131] Top shape: 111 10 (1110)
I0501 03:04:55.128839 18879 net.cpp:139] Memory required for data: 9561540
I0501 03:04:55.128847 18879 layer_factory.hpp:77] Creating layer relu2
I0501 03:04:55.128852 18879 net.cpp:86] Creating Layer relu2
I0501 03:04:55.128855 18879 net.cpp:408] relu2 <- ip2
I0501 03:04:55.128859 18879 net.cpp:369] relu2 -> ip2 (in-place)
I0501 03:04:55.129005 18879 net.cpp:124] Setting up relu2
I0501 03:04:55.129014 18879 net.cpp:131] Top shape: 111 10 (1110)
I0501 03:04:55.129016 18879 net.cpp:139] Memory required for data: 9565980
I0501 03:04:55.129019 18879 layer_factory.hpp:77] Creating layer ip3
I0501 03:04:55.129027 18879 net.cpp:86] Creating Layer ip3
I0501 03:04:55.129030 18879 net.cpp:408] ip3 <- ip2
I0501 03:04:55.129036 18879 net.cpp:382] ip3 -> ip3
I0501 03:04:55.129202 18879 net.cpp:124] Setting up ip3
I0501 03:04:55.129210 18879 net.cpp:131] Top shape: 111 40 (4440)
I0501 03:04:55.129215 18879 net.cpp:139] Memory required for data: 9583740
I0501 03:04:55.129220 18879 layer_factory.hpp:77] Creating layer relu3
I0501 03:04:55.129226 18879 net.cpp:86] Creating Layer relu3
I0501 03:04:55.129233 18879 net.cpp:408] relu3 <- ip3
I0501 03:04:55.129238 18879 net.cpp:369] relu3 -> ip3 (in-place)
I0501 03:04:55.129402 18879 net.cpp:124] Setting up relu3
I0501 03:04:55.129412 18879 net.cpp:131] Top shape: 111 40 (4440)
I0501 03:04:55.129416 18879 net.cpp:139] Memory required for data: 9601500
I0501 03:04:55.129420 18879 layer_factory.hpp:77] Creating layer ip4
I0501 03:04:55.129443 18879 net.cpp:86] Creating Layer ip4
I0501 03:04:55.129447 18879 net.cpp:408] ip4 <- ip3
I0501 03:04:55.129453 18879 net.cpp:382] ip4 -> ip4
I0501 03:04:55.129611 18879 net.cpp:124] Setting up ip4
I0501 03:04:55.129618 18879 net.cpp:131] Top shape: 111 10 (1110)
I0501 03:04:55.129621 18879 net.cpp:139] Memory required for data: 9605940
I0501 03:04:55.129628 18879 layer_factory.hpp:77] Creating layer loss
I0501 03:04:55.129634 18879 net.cpp:86] Creating Layer loss
I0501 03:04:55.129637 18879 net.cpp:408] loss <- ip4
I0501 03:04:55.129640 18879 net.cpp:408] loss <- label
I0501 03:04:55.129647 18879 net.cpp:382] loss -> loss
I0501 03:04:55.129658 18879 layer_factory.hpp:77] Creating layer loss
…
I0501 03:04:55.130838 18879 solver.cpp:173] Creating test net (#0) specified by net file: ECE595/cifar/train_test/var_everything/cifar_train_test_342.prototxt
I0501 03:04:55.130864 18879 net.cpp:296] The NetState phase (1) differed from the phase (0) specified by a rule in layer cifar
I0501 03:04:55.130954 18879 net.cpp:53] Initializing net from parameters: 
name: "CIFAR"
state {
  phase: TEST
}
layer {
  name: "cifar"
  type: "Data"
  top: "data"
  top: "label"
  include {
    phase: TEST
  }
  transform_param {
    mean_file: "examples/cifar10/mean.binaryproto"
  }
  data_param {
    source: "examples/cifar10/cifar10_test_lmdb"
    batch_size: 1000
    backend: LMDB
  }
}
layer {
  name: "conv0"
  type: "Convolution"
  bottom: "data"
  top: "conv0"
  param {
    lr_mult: 1
  }
  param {
    lr_mult: 2
  }
  convolution_param {
    num_output: 8
    pad: 2
    kernel_size: 5
    stride: 1
    weight_filler {
      type: "gaussian"
      std: 0.01
    }
    bias_filler {
      type: "constant"
    }
  }
}
layer {
  name: "Sigmoid0"
  type: "Sigmoid"
  bottom: "conv0"
  top: "Sigmoid0"
}
layer {
  name: "pool0"
  type: "Pooling"
  bottom: "Sigmoid0"
  top: "pool0"
  pooling_param {
    pool: AVE
    kernel_size: 3
    stride: 2
  }
}
layer {
  name: "ip1"
  type: "InnerProduct"
  bottom: "pool0"
  top: "ip1"
  param {
    lr_mult: 1
  }
  param {
    lr_mult: 2
  }
  inner_product_param {
    num_output: 10
    weight_filler {
      type: "gaussian"
      std: 0.01
    }
    bias_filler {
      type: "constant"
    }
  }
}
layer {
  name: "relu1"
  type: "ReLU"
  bottom: "ip1"
  top: "ip1"
}
layer {
  name: "ip2"
  type: "InnerProduct"
  bottom: "ip1"
  top: "ip2"
  param {
    lr_mult: 1
  }
  param {
    lr_mult: 2
  }
  inner_product_param {
    num_output: 10
    weight_filler {
      type: "gaussian"
      std: 0.01
    }
    bias_filler {
      type: "constant"
    }
  }
}
layer {
  name: "relu2"
  type: "ReLU"
  bottom: "ip2"
  top: "ip2"
}
layer {
  name: "ip3"
  type: "InnerProduct"
  bottom: "ip2"
  top: "ip3"
  param {
    lr_mult: 1
  }
  param {
    lr_mult: 2
  }
  inner_product_param {
    num_output: 40
    weight_filler {
      type: "gaussian"
      std: 0.01
    }
    bias_filler {
      type: "constant"
    }
  }
}
layer {
  name: "relu3"
  type: "ReLU"
  bottom: "ip3"
  top: "ip3"
}
layer {
  name: "ip4"
  type: "InnerProduct"
  bottom: "ip3"
  top: "ip4"
  param {
    lr_mult: 1
  }
  param {
    lr_mult: 2
  }
  inner_product_param {
    num_output: 10
    weight_filler {
      type: "gaussian"
      std: 0.01
    }
    bias_filler {
      type: "constant"
    }
  }
}
layer {
  name: "accuracy"
  type: "Accuracy"
  bottom: "ip4"
  bottom: "label"
  top: "accuracy"
  include {
    phase: TEST
  }
}
layer {
  name: "loss"
  type: "SoftmaxWithLoss"
  bottom: "ip4"
  bottom: "label"
  top: "loss"
}
I0501 03:04:55.131031 18879 layer_factory.hpp:77] Creating layer cifar
I0501 03:04:55.131077 18879 db_lmdb.cpp:35] Opened lmdb examples/cifar10/cifar10_test_lmdb
I0501 03:04:55.131090 18879 net.cpp:86] Creating Layer cifar
I0501 03:04:55.131095 18879 net.cpp:382] cifar -> data
I0501 03:04:55.131103 18879 net.cpp:382] cifar -> label
I0501 03:04:55.131108 18879 data_transformer.cpp:25] Loading mean file from: examples/cifar10/mean.binaryproto
I0501 03:04:55.131247 18879 data_layer.cpp:45] output data size: 1000,3,32,32
I0501 03:04:55.152735 18879 net.cpp:124] Setting up cifar
I0501 03:04:55.152778 18879 net.cpp:131] Top shape: 1000 3 32 32 (3072000)
I0501 03:04:55.152786 18879 net.cpp:131] Top shape: 1000 (1000)
I0501 03:04:55.152789 18879 net.cpp:139] Memory required for data: 12292000
I0501 03:04:55.152796 18879 layer_factory.hpp:77] Creating layer label_cifar_1_split
I0501 03:04:55.152807 18879 net.cpp:86] Creating Layer label_cifar_1_split
I0501 03:04:55.152815 18879 net.cpp:408] label_cifar_1_split <- label
I0501 03:04:55.152837 18879 net.cpp:382] label_cifar_1_split -> label_cifar_1_split_0
I0501 03:04:55.152861 18879 net.cpp:382] label_cifar_1_split -> label_cifar_1_split_1
I0501 03:04:55.152983 18879 net.cpp:124] Setting up label_cifar_1_split
I0501 03:04:55.152992 18879 net.cpp:131] Top shape: 1000 (1000)
I0501 03:04:55.152995 18879 net.cpp:131] Top shape: 1000 (1000)
I0501 03:04:55.152998 18879 net.cpp:139] Memory required for data: 12300000
I0501 03:04:55.153002 18879 layer_factory.hpp:77] Creating layer conv0
I0501 03:04:55.153015 18879 net.cpp:86] Creating Layer conv0
I0501 03:04:55.153019 18879 net.cpp:408] conv0 <- data
I0501 03:04:55.153025 18879 net.cpp:382] conv0 -> conv0
I0501 03:04:55.154690 18879 net.cpp:124] Setting up conv0
I0501 03:04:55.154718 18879 net.cpp:131] Top shape: 1000 8 32 32 (8192000)
I0501 03:04:55.154722 18879 net.cpp:139] Memory required for data: 45068000
I0501 03:04:55.154731 18879 layer_factory.hpp:77] Creating layer Sigmoid0
I0501 03:04:55.154741 18879 net.cpp:86] Creating Layer Sigmoid0
I0501 03:04:55.154743 18879 net.cpp:408] Sigmoid0 <- conv0
I0501 03:04:55.154748 18879 net.cpp:382] Sigmoid0 -> Sigmoid0
I0501 03:04:55.154935 18879 net.cpp:124] Setting up Sigmoid0
I0501 03:04:55.154945 18879 net.cpp:131] Top shape: 1000 8 32 32 (8192000)
I0501 03:04:55.154948 18879 net.cpp:139] Memory required for data: 77836000
I0501 03:04:55.154950 18879 layer_factory.hpp:77] Creating layer pool0
I0501 03:04:55.154958 18879 net.cpp:86] Creating Layer pool0
I0501 03:04:55.154961 18879 net.cpp:408] pool0 <- Sigmoid0
I0501 03:04:55.154973 18879 net.cpp:382] pool0 -> pool0
I0501 03:04:55.155282 18879 net.cpp:124] Setting up pool0
I0501 03:04:55.155292 18879 net.cpp:131] Top shape: 1000 8 16 16 (2048000)
I0501 03:04:55.155313 18879 net.cpp:139] Memory required for data: 86028000
I0501 03:04:55.155315 18879 layer_factory.hpp:77] Creating layer ip1
I0501 03:04:55.155339 18879 net.cpp:86] Creating Layer ip1
I0501 03:04:55.155341 18879 net.cpp:408] ip1 <- pool0
I0501 03:04:55.155346 18879 net.cpp:382] ip1 -> ip1
I0501 03:04:55.157060 18879 net.cpp:124] Setting up ip1
I0501 03:04:55.157088 18879 net.cpp:131] Top shape: 1000 10 (10000)
I0501 03:04:55.157090 18879 net.cpp:139] Memory required for data: 86068000
I0501 03:04:55.157121 18879 layer_factory.hpp:77] Creating layer relu1
I0501 03:04:55.157129 18879 net.cpp:86] Creating Layer relu1
I0501 03:04:55.157131 18879 net.cpp:408] relu1 <- ip1
I0501 03:04:55.157137 18879 net.cpp:369] relu1 -> ip1 (in-place)
I0501 03:04:55.157354 18879 net.cpp:124] Setting up relu1
I0501 03:04:55.157379 18879 net.cpp:131] Top shape: 1000 10 (10000)
I0501 03:04:55.157383 18879 net.cpp:139] Memory required for data: 86108000
I0501 03:04:55.157402 18879 layer_factory.hpp:77] Creating layer ip2
I0501 03:04:55.157409 18879 net.cpp:86] Creating Layer ip2
I0501 03:04:55.157428 18879 net.cpp:408] ip2 <- ip1
I0501 03:04:55.157435 18879 net.cpp:382] ip2 -> ip2
I0501 03:04:55.157557 18879 net.cpp:124] Setting up ip2
I0501 03:04:55.157564 18879 net.cpp:131] Top shape: 1000 10 (10000)
I0501 03:04:55.157567 18879 net.cpp:139] Memory required for data: 86148000
I0501 03:04:55.157575 18879 layer_factory.hpp:77] Creating layer relu2
I0501 03:04:55.157583 18879 net.cpp:86] Creating Layer relu2
I0501 03:04:55.157587 18879 net.cpp:408] relu2 <- ip2
I0501 03:04:55.157591 18879 net.cpp:369] relu2 -> ip2 (in-place)
I0501 03:04:55.158393 18879 net.cpp:124] Setting up relu2
I0501 03:04:55.158406 18879 net.cpp:131] Top shape: 1000 10 (10000)
I0501 03:04:55.158426 18879 net.cpp:139] Memory required for data: 86188000
I0501 03:04:55.158428 18879 layer_factory.hpp:77] Creating layer ip3
I0501 03:04:55.158437 18879 net.cpp:86] Creating Layer ip3
I0501 03:04:55.158440 18879 net.cpp:408] ip3 <- ip2
I0501 03:04:55.158447 18879 net.cpp:382] ip3 -> ip3
I0501 03:04:55.158576 18879 net.cpp:124] Setting up ip3
I0501 03:04:55.158584 18879 net.cpp:131] Top shape: 1000 40 (40000)
I0501 03:04:55.158587 18879 net.cpp:139] Memory required for data: 86348000
I0501 03:04:55.158592 18879 layer_factory.hpp:77] Creating layer relu3
I0501 03:04:55.158597 18879 net.cpp:86] Creating Layer relu3
I0501 03:04:55.158601 18879 net.cpp:408] relu3 <- ip3
I0501 03:04:55.158604 18879 net.cpp:369] relu3 -> ip3 (in-place)
I0501 03:04:55.158788 18879 net.cpp:124] Setting up relu3
I0501 03:04:55.158798 18879 net.cpp:131] Top shape: 1000 40 (40000)
I0501 03:04:55.158802 18879 net.cpp:139] Memory required for data: 86508000
I0501 03:04:55.158804 18879 layer_factory.hpp:77] Creating layer ip4
I0501 03:04:55.158810 18879 net.cpp:86] Creating Layer ip4
I0501 03:04:55.158814 18879 net.cpp:408] ip4 <- ip3
I0501 03:04:55.158819 18879 net.cpp:382] ip4 -> ip4
I0501 03:04:55.158937 18879 net.cpp:124] Setting up ip4
I0501 03:04:55.158944 18879 net.cpp:131] Top shape: 1000 10 (10000)
I0501 03:04:55.158948 18879 net.cpp:139] Memory required for data: 86548000
I0501 03:04:55.158957 18879 layer_factory.hpp:77] Creating layer ip4_ip4_0_split
I0501 03:04:55.158962 18879 net.cpp:86] Creating Layer ip4_ip4_0_split
I0501 03:04:55.158964 18879 net.cpp:408] ip4_ip4_0_split <- ip4
I0501 03:04:55.158969 18879 net.cpp:382] ip4_ip4_0_split -> ip4_ip4_0_split_0
I0501 03:04:55.158974 18879 net.cpp:382] ip4_ip4_0_split -> ip4_ip4_0_split_1
I0501 03:04:55.159020 18879 net.cpp:124] Setting up ip4_ip4_0_split
I0501 03:04:55.159027 18879 net.cpp:131] Top shape: 1000 10 (10000)
I0501 03:04:55.159031 18879 net.cpp:131] Top shape: 1000 10 (10000)
I0501 03:04:55.159034 18879 net.cpp:139] Memory required for data: 86628000
I0501 03:04:55.159037 18879 layer_factory.hpp:77] Creating layer accuracy
I0501 03:04:55.159044 18879 net.cpp:86] Creating Layer accuracy
I0501 03:04:55.159046 18879 net.cpp:408] accuracy <- ip4_ip4_0_split_0
I0501 03:04:55.159050 18879 net.cpp:408] accuracy <- label_cifar_1_split_0
I0501 03:04:55.159054 18879 net.cpp:382] accuracy -> accuracy
…
