…
I0501 06:31:06.398424   764 net.cpp:296] The NetState phase (0) differed from the phase (1) specified by a rule in layer cifar
I0501 06:31:06.398442   764 net.cpp:296] The NetState phase (0) differed from the phase (1) specified by a rule in layer accuracy
I0501 06:31:06.398545   764 net.cpp:53] Initializing net from parameters: 
name: "CIFAR"
state {
  phase: TRAIN
  level: 0
  stage: ""
}
layer {
  name: "cifar"
  type: "Data"
  top: "data"
  top: "label"
  include {
    phase: TRAIN
  }
  transform_param {
    mean_file: "examples/cifar10/mean.binaryproto"
  }
  data_param {
    source: "examples/cifar10/cifar10_train_lmdb"
    batch_size: 111
    backend: LMDB
  }
}
layer {
  name: "conv0"
  type: "Convolution"
  bottom: "data"
  top: "conv0"
  param {
    lr_mult: 1
  }
  param {
    lr_mult: 2
  }
  convolution_param {
    num_output: 8
    pad: 2
    kernel_size: 5
    stride: 1
    weight_filler {
      type: "gaussian"
      std: 0.01
    }
    bias_filler {
      type: "constant"
    }
  }
}
layer {
  name: "Sigmoid0"
  type: "Sigmoid"
  bottom: "conv0"
  top: "Sigmoid0"
}
layer {
  name: "pool0"
  type: "Pooling"
  bottom: "Sigmoid0"
  top: "pool0"
  pooling_param {
    pool: AVE
    kernel_size: 3
    stride: 2
  }
}
layer {
  name: "ip1"
  type: "InnerProduct"
  bottom: "pool0"
  top: "ip1"
  param {
    lr_mult: 1
  }
  param {
    lr_mult: 2
  }
  inner_product_param {
    num_output: 160
    weight_filler {
      type: "gaussian"
      std: 0.01
    }
    bias_filler {
      type: "constant"
    }
  }
}
layer {
  name: "relu1"
  type: "ReLU"
  bottom: "ip1"
  top: "ip1"
}
layer {
  name: "ip2"
  type: "InnerProduct"
  bottom: "ip1"
  top: "ip2"
  param {
    lr_mult: 1
  }
  param {
    lr_mult: 2
  }
  inner_product_param {
    num_output: 40
    weight_filler {
      type: "gaussian"
      std: 0.01
    }
    bias_filler {
      type: "constant"
    }
  }
}
layer {
  name: "relu2"
  type: "ReLU"
  bottom: "ip2"
  top: "ip2"
}
layer {
  name: "ip3"
  type: "InnerProduct"
  bottom: "ip2"
  top: "ip3"
  param {
    lr_mult: 1
  }
  param {
    lr_mult: 2
  }
  inner_product_param {
    num_output: 80
    weight_filler {
      type: "gaussian"
      std: 0.01
    }
    bias_filler {
      type: "constant"
    }
  }
}
layer {
  name: "relu3"
  type: "ReLU"
  bottom: "ip3"
  top: "ip3"
}
layer {
  name: "ip4"
  type: "InnerProduct"
  bottom: "ip3"
  top: "ip4"
  param {
    lr_mult: 1
  }
  param {
    lr_mult: 2
  }
  inner_product_param {
    num_output: 10
    weight_filler {
      type: "gaussian"
      std: 0.01
    }
    bias_filler {
      type: "constant"
    }
  }
}
layer {
  name: "loss"
  type: "SoftmaxWithLoss"
  bottom: "ip4"
  bottom: "label"
  top: "loss"
}
I0501 06:31:06.398623   764 layer_factory.hpp:77] Creating layer cifar
I0501 06:31:06.398721   764 db_lmdb.cpp:35] Opened lmdb examples/cifar10/cifar10_train_lmdb
I0501 06:31:06.398748   764 net.cpp:86] Creating Layer cifar
I0501 06:31:06.398758   764 net.cpp:382] cifar -> data
I0501 06:31:06.398779   764 net.cpp:382] cifar -> label
I0501 06:31:06.398792   764 data_transformer.cpp:25] Loading mean file from: examples/cifar10/mean.binaryproto
I0501 06:31:06.400948   764 data_layer.cpp:45] output data size: 111,3,32,32
I0501 06:31:06.408910   764 net.cpp:124] Setting up cifar
I0501 06:31:06.408928   764 net.cpp:131] Top shape: 111 3 32 32 (340992)
I0501 06:31:06.408936   764 net.cpp:131] Top shape: 111 (111)
I0501 06:31:06.408938   764 net.cpp:139] Memory required for data: 1364412
I0501 06:31:06.408962   764 layer_factory.hpp:77] Creating layer conv0
I0501 06:31:06.408982   764 net.cpp:86] Creating Layer conv0
I0501 06:31:06.408987   764 net.cpp:408] conv0 <- data
I0501 06:31:06.409000   764 net.cpp:382] conv0 -> conv0
I0501 06:31:06.690814   764 net.cpp:124] Setting up conv0
I0501 06:31:06.690855   764 net.cpp:131] Top shape: 111 8 32 32 (909312)
I0501 06:31:06.690858   764 net.cpp:139] Memory required for data: 5001660
I0501 06:31:06.690874   764 layer_factory.hpp:77] Creating layer Sigmoid0
I0501 06:31:06.690887   764 net.cpp:86] Creating Layer Sigmoid0
I0501 06:31:06.690891   764 net.cpp:408] Sigmoid0 <- conv0
I0501 06:31:06.690897   764 net.cpp:382] Sigmoid0 -> Sigmoid0
I0501 06:31:06.691078   764 net.cpp:124] Setting up Sigmoid0
I0501 06:31:06.691087   764 net.cpp:131] Top shape: 111 8 32 32 (909312)
I0501 06:31:06.691090   764 net.cpp:139] Memory required for data: 8638908
I0501 06:31:06.691094   764 layer_factory.hpp:77] Creating layer pool0
I0501 06:31:06.691100   764 net.cpp:86] Creating Layer pool0
I0501 06:31:06.691103   764 net.cpp:408] pool0 <- Sigmoid0
I0501 06:31:06.691108   764 net.cpp:382] pool0 -> pool0
I0501 06:31:06.691843   764 net.cpp:124] Setting up pool0
I0501 06:31:06.691856   764 net.cpp:131] Top shape: 111 8 16 16 (227328)
I0501 06:31:06.691859   764 net.cpp:139] Memory required for data: 9548220
I0501 06:31:06.691864   764 layer_factory.hpp:77] Creating layer ip1
I0501 06:31:06.691872   764 net.cpp:86] Creating Layer ip1
I0501 06:31:06.691875   764 net.cpp:408] ip1 <- pool0
I0501 06:31:06.691880   764 net.cpp:382] ip1 -> ip1
I0501 06:31:06.701521   764 net.cpp:124] Setting up ip1
I0501 06:31:06.701534   764 net.cpp:131] Top shape: 111 160 (17760)
I0501 06:31:06.701553   764 net.cpp:139] Memory required for data: 9619260
I0501 06:31:06.701561   764 layer_factory.hpp:77] Creating layer relu1
I0501 06:31:06.701567   764 net.cpp:86] Creating Layer relu1
I0501 06:31:06.701571   764 net.cpp:408] relu1 <- ip1
I0501 06:31:06.701575   764 net.cpp:369] relu1 -> ip1 (in-place)
I0501 06:31:06.701743   764 net.cpp:124] Setting up relu1
I0501 06:31:06.701752   764 net.cpp:131] Top shape: 111 160 (17760)
I0501 06:31:06.701756   764 net.cpp:139] Memory required for data: 9690300
I0501 06:31:06.701758   764 layer_factory.hpp:77] Creating layer ip2
I0501 06:31:06.701766   764 net.cpp:86] Creating Layer ip2
I0501 06:31:06.701768   764 net.cpp:408] ip2 <- ip1
I0501 06:31:06.701774   764 net.cpp:382] ip2 -> ip2
I0501 06:31:06.702857   764 net.cpp:124] Setting up ip2
I0501 06:31:06.702870   764 net.cpp:131] Top shape: 111 40 (4440)
I0501 06:31:06.702874   764 net.cpp:139] Memory required for data: 9708060
I0501 06:31:06.702883   764 layer_factory.hpp:77] Creating layer relu2
I0501 06:31:06.702888   764 net.cpp:86] Creating Layer relu2
I0501 06:31:06.702890   764 net.cpp:408] relu2 <- ip2
I0501 06:31:06.702895   764 net.cpp:369] relu2 -> ip2 (in-place)
I0501 06:31:06.703059   764 net.cpp:124] Setting up relu2
I0501 06:31:06.703068   764 net.cpp:131] Top shape: 111 40 (4440)
I0501 06:31:06.703071   764 net.cpp:139] Memory required for data: 9725820
I0501 06:31:06.703074   764 layer_factory.hpp:77] Creating layer ip3
I0501 06:31:06.703083   764 net.cpp:86] Creating Layer ip3
I0501 06:31:06.703086   764 net.cpp:408] ip3 <- ip2
I0501 06:31:06.703091   764 net.cpp:382] ip3 -> ip3
I0501 06:31:06.703269   764 net.cpp:124] Setting up ip3
I0501 06:31:06.703276   764 net.cpp:131] Top shape: 111 80 (8880)
I0501 06:31:06.703279   764 net.cpp:139] Memory required for data: 9761340
I0501 06:31:06.703284   764 layer_factory.hpp:77] Creating layer relu3
I0501 06:31:06.703289   764 net.cpp:86] Creating Layer relu3
I0501 06:31:06.703292   764 net.cpp:408] relu3 <- ip3
I0501 06:31:06.703295   764 net.cpp:369] relu3 -> ip3 (in-place)
I0501 06:31:06.703447   764 net.cpp:124] Setting up relu3
I0501 06:31:06.703457   764 net.cpp:131] Top shape: 111 80 (8880)
I0501 06:31:06.703460   764 net.cpp:139] Memory required for data: 9796860
I0501 06:31:06.703464   764 layer_factory.hpp:77] Creating layer ip4
I0501 06:31:06.703483   764 net.cpp:86] Creating Layer ip4
I0501 06:31:06.703486   764 net.cpp:408] ip4 <- ip3
I0501 06:31:06.703492   764 net.cpp:382] ip4 -> ip4
I0501 06:31:06.703603   764 net.cpp:124] Setting up ip4
I0501 06:31:06.703609   764 net.cpp:131] Top shape: 111 10 (1110)
I0501 06:31:06.703613   764 net.cpp:139] Memory required for data: 9801300
I0501 06:31:06.703619   764 layer_factory.hpp:77] Creating layer loss
I0501 06:31:06.703626   764 net.cpp:86] Creating Layer loss
I0501 06:31:06.703629   764 net.cpp:408] loss <- ip4
I0501 06:31:06.703632   764 net.cpp:408] loss <- label
I0501 06:31:06.703639   764 net.cpp:382] loss -> loss
I0501 06:31:06.703655   764 layer_factory.hpp:77] Creating layer loss
…
I0501 06:31:06.704881   764 solver.cpp:173] Creating test net (#0) specified by net file: ECE595/cifar/train_test/var_everything/cifar_train_test_453.prototxt
I0501 06:31:06.704910   764 net.cpp:296] The NetState phase (1) differed from the phase (0) specified by a rule in layer cifar
I0501 06:31:06.705010   764 net.cpp:53] Initializing net from parameters: 
name: "CIFAR"
state {
  phase: TEST
}
layer {
  name: "cifar"
  type: "Data"
  top: "data"
  top: "label"
  include {
    phase: TEST
  }
  transform_param {
    mean_file: "examples/cifar10/mean.binaryproto"
  }
  data_param {
    source: "examples/cifar10/cifar10_test_lmdb"
    batch_size: 1000
    backend: LMDB
  }
}
layer {
  name: "conv0"
  type: "Convolution"
  bottom: "data"
  top: "conv0"
  param {
    lr_mult: 1
  }
  param {
    lr_mult: 2
  }
  convolution_param {
    num_output: 8
    pad: 2
    kernel_size: 5
    stride: 1
    weight_filler {
      type: "gaussian"
      std: 0.01
    }
    bias_filler {
      type: "constant"
    }
  }
}
layer {
  name: "Sigmoid0"
  type: "Sigmoid"
  bottom: "conv0"
  top: "Sigmoid0"
}
layer {
  name: "pool0"
  type: "Pooling"
  bottom: "Sigmoid0"
  top: "pool0"
  pooling_param {
    pool: AVE
    kernel_size: 3
    stride: 2
  }
}
layer {
  name: "ip1"
  type: "InnerProduct"
  bottom: "pool0"
  top: "ip1"
  param {
    lr_mult: 1
  }
  param {
    lr_mult: 2
  }
  inner_product_param {
    num_output: 160
    weight_filler {
      type: "gaussian"
      std: 0.01
    }
    bias_filler {
      type: "constant"
    }
  }
}
layer {
  name: "relu1"
  type: "ReLU"
  bottom: "ip1"
  top: "ip1"
}
layer {
  name: "ip2"
  type: "InnerProduct"
  bottom: "ip1"
  top: "ip2"
  param {
    lr_mult: 1
  }
  param {
    lr_mult: 2
  }
  inner_product_param {
    num_output: 40
    weight_filler {
      type: "gaussian"
      std: 0.01
    }
    bias_filler {
      type: "constant"
    }
  }
}
layer {
  name: "relu2"
  type: "ReLU"
  bottom: "ip2"
  top: "ip2"
}
layer {
  name: "ip3"
  type: "InnerProduct"
  bottom: "ip2"
  top: "ip3"
  param {
    lr_mult: 1
  }
  param {
    lr_mult: 2
  }
  inner_product_param {
    num_output: 80
    weight_filler {
      type: "gaussian"
      std: 0.01
    }
    bias_filler {
      type: "constant"
    }
  }
}
layer {
  name: "relu3"
  type: "ReLU"
  bottom: "ip3"
  top: "ip3"
}
layer {
  name: "ip4"
  type: "InnerProduct"
  bottom: "ip3"
  top: "ip4"
  param {
    lr_mult: 1
  }
  param {
    lr_mult: 2
  }
  inner_product_param {
    num_output: 10
    weight_filler {
      type: "gaussian"
      std: 0.01
    }
    bias_filler {
      type: "constant"
    }
  }
}
layer {
  name: "accuracy"
  type: "Accuracy"
  bottom: "ip4"
  bottom: "label"
  top: "accuracy"
  include {
    phase: TEST
  }
}
layer {
  name: "loss"
  type: "SoftmaxWithLoss"
  bottom: "ip4"
  bottom: "label"
  top: "loss"
}
I0501 06:31:06.705107   764 layer_factory.hpp:77] Creating layer cifar
I0501 06:31:06.705153   764 db_lmdb.cpp:35] Opened lmdb examples/cifar10/cifar10_test_lmdb
I0501 06:31:06.705165   764 net.cpp:86] Creating Layer cifar
I0501 06:31:06.705170   764 net.cpp:382] cifar -> data
I0501 06:31:06.705178   764 net.cpp:382] cifar -> label
I0501 06:31:06.705184   764 data_transformer.cpp:25] Loading mean file from: examples/cifar10/mean.binaryproto
I0501 06:31:06.705327   764 data_layer.cpp:45] output data size: 1000,3,32,32
I0501 06:31:06.727478   764 net.cpp:124] Setting up cifar
I0501 06:31:06.727520   764 net.cpp:131] Top shape: 1000 3 32 32 (3072000)
I0501 06:31:06.727545   764 net.cpp:131] Top shape: 1000 (1000)
I0501 06:31:06.727547   764 net.cpp:139] Memory required for data: 12292000
I0501 06:31:06.727555   764 layer_factory.hpp:77] Creating layer label_cifar_1_split
I0501 06:31:06.727571   764 net.cpp:86] Creating Layer label_cifar_1_split
I0501 06:31:06.727576   764 net.cpp:408] label_cifar_1_split <- label
I0501 06:31:06.727581   764 net.cpp:382] label_cifar_1_split -> label_cifar_1_split_0
I0501 06:31:06.727591   764 net.cpp:382] label_cifar_1_split -> label_cifar_1_split_1
I0501 06:31:06.727669   764 net.cpp:124] Setting up label_cifar_1_split
I0501 06:31:06.727677   764 net.cpp:131] Top shape: 1000 (1000)
I0501 06:31:06.727681   764 net.cpp:131] Top shape: 1000 (1000)
I0501 06:31:06.727684   764 net.cpp:139] Memory required for data: 12300000
I0501 06:31:06.727687   764 layer_factory.hpp:77] Creating layer conv0
I0501 06:31:06.727701   764 net.cpp:86] Creating Layer conv0
I0501 06:31:06.727705   764 net.cpp:408] conv0 <- data
I0501 06:31:06.727711   764 net.cpp:382] conv0 -> conv0
I0501 06:31:06.730304   764 net.cpp:124] Setting up conv0
I0501 06:31:06.730334   764 net.cpp:131] Top shape: 1000 8 32 32 (8192000)
I0501 06:31:06.730339   764 net.cpp:139] Memory required for data: 45068000
I0501 06:31:06.730350   764 layer_factory.hpp:77] Creating layer Sigmoid0
I0501 06:31:06.730357   764 net.cpp:86] Creating Layer Sigmoid0
I0501 06:31:06.730361   764 net.cpp:408] Sigmoid0 <- conv0
I0501 06:31:06.730366   764 net.cpp:382] Sigmoid0 -> Sigmoid0
I0501 06:31:06.730567   764 net.cpp:124] Setting up Sigmoid0
I0501 06:31:06.730576   764 net.cpp:131] Top shape: 1000 8 32 32 (8192000)
I0501 06:31:06.730579   764 net.cpp:139] Memory required for data: 77836000
I0501 06:31:06.730583   764 layer_factory.hpp:77] Creating layer pool0
I0501 06:31:06.730590   764 net.cpp:86] Creating Layer pool0
I0501 06:31:06.730594   764 net.cpp:408] pool0 <- Sigmoid0
I0501 06:31:06.730599   764 net.cpp:382] pool0 -> pool0
I0501 06:31:06.730774   764 net.cpp:124] Setting up pool0
I0501 06:31:06.730787   764 net.cpp:131] Top shape: 1000 8 16 16 (2048000)
I0501 06:31:06.730789   764 net.cpp:139] Memory required for data: 86028000
I0501 06:31:06.730792   764 layer_factory.hpp:77] Creating layer ip1
I0501 06:31:06.730799   764 net.cpp:86] Creating Layer ip1
I0501 06:31:06.730803   764 net.cpp:408] ip1 <- pool0
I0501 06:31:06.730809   764 net.cpp:382] ip1 -> ip1
I0501 06:31:06.740792   764 net.cpp:124] Setting up ip1
I0501 06:31:06.740806   764 net.cpp:131] Top shape: 1000 160 (160000)
I0501 06:31:06.740813   764 net.cpp:139] Memory required for data: 86668000
I0501 06:31:06.740838   764 layer_factory.hpp:77] Creating layer relu1
I0501 06:31:06.740845   764 net.cpp:86] Creating Layer relu1
I0501 06:31:06.740849   764 net.cpp:408] relu1 <- ip1
I0501 06:31:06.740854   764 net.cpp:369] relu1 -> ip1 (in-place)
I0501 06:31:06.741053   764 net.cpp:124] Setting up relu1
I0501 06:31:06.741063   764 net.cpp:131] Top shape: 1000 160 (160000)
I0501 06:31:06.741066   764 net.cpp:139] Memory required for data: 87308000
I0501 06:31:06.741070   764 layer_factory.hpp:77] Creating layer ip2
I0501 06:31:06.741077   764 net.cpp:86] Creating Layer ip2
I0501 06:31:06.741080   764 net.cpp:408] ip2 <- ip1
I0501 06:31:06.741086   764 net.cpp:382] ip2 -> ip2
I0501 06:31:06.741367   764 net.cpp:124] Setting up ip2
I0501 06:31:06.741374   764 net.cpp:131] Top shape: 1000 40 (40000)
I0501 06:31:06.741377   764 net.cpp:139] Memory required for data: 87468000
I0501 06:31:06.741385   764 layer_factory.hpp:77] Creating layer relu2
I0501 06:31:06.741394   764 net.cpp:86] Creating Layer relu2
I0501 06:31:06.741396   764 net.cpp:408] relu2 <- ip2
I0501 06:31:06.741400   764 net.cpp:369] relu2 -> ip2 (in-place)
I0501 06:31:06.742190   764 net.cpp:124] Setting up relu2
I0501 06:31:06.742219   764 net.cpp:131] Top shape: 1000 40 (40000)
I0501 06:31:06.742223   764 net.cpp:139] Memory required for data: 87628000
I0501 06:31:06.742226   764 layer_factory.hpp:77] Creating layer ip3
I0501 06:31:06.742233   764 net.cpp:86] Creating Layer ip3
I0501 06:31:06.742236   764 net.cpp:408] ip3 <- ip2
I0501 06:31:06.742243   764 net.cpp:382] ip3 -> ip3
I0501 06:31:06.742441   764 net.cpp:124] Setting up ip3
I0501 06:31:06.742449   764 net.cpp:131] Top shape: 1000 80 (80000)
I0501 06:31:06.742451   764 net.cpp:139] Memory required for data: 87948000
I0501 06:31:06.742457   764 layer_factory.hpp:77] Creating layer relu3
I0501 06:31:06.742462   764 net.cpp:86] Creating Layer relu3
I0501 06:31:06.742465   764 net.cpp:408] relu3 <- ip3
I0501 06:31:06.742470   764 net.cpp:369] relu3 -> ip3 (in-place)
I0501 06:31:06.742626   764 net.cpp:124] Setting up relu3
I0501 06:31:06.742635   764 net.cpp:131] Top shape: 1000 80 (80000)
I0501 06:31:06.742637   764 net.cpp:139] Memory required for data: 88268000
I0501 06:31:06.742640   764 layer_factory.hpp:77] Creating layer ip4
I0501 06:31:06.742648   764 net.cpp:86] Creating Layer ip4
I0501 06:31:06.742651   764 net.cpp:408] ip4 <- ip3
I0501 06:31:06.742657   764 net.cpp:382] ip4 -> ip4
I0501 06:31:06.742782   764 net.cpp:124] Setting up ip4
I0501 06:31:06.742790   764 net.cpp:131] Top shape: 1000 10 (10000)
I0501 06:31:06.742794   764 net.cpp:139] Memory required for data: 88308000
I0501 06:31:06.742800   764 layer_factory.hpp:77] Creating layer ip4_ip4_0_split
I0501 06:31:06.742806   764 net.cpp:86] Creating Layer ip4_ip4_0_split
I0501 06:31:06.742810   764 net.cpp:408] ip4_ip4_0_split <- ip4
I0501 06:31:06.742813   764 net.cpp:382] ip4_ip4_0_split -> ip4_ip4_0_split_0
I0501 06:31:06.742817   764 net.cpp:382] ip4_ip4_0_split -> ip4_ip4_0_split_1
I0501 06:31:06.742849   764 net.cpp:124] Setting up ip4_ip4_0_split
I0501 06:31:06.742857   764 net.cpp:131] Top shape: 1000 10 (10000)
I0501 06:31:06.742877   764 net.cpp:131] Top shape: 1000 10 (10000)
I0501 06:31:06.742879   764 net.cpp:139] Memory required for data: 88388000
I0501 06:31:06.742882   764 layer_factory.hpp:77] Creating layer accuracy
I0501 06:31:06.742888   764 net.cpp:86] Creating Layer accuracy
I0501 06:31:06.742892   764 net.cpp:408] accuracy <- ip4_ip4_0_split_0
I0501 06:31:06.742897   764 net.cpp:408] accuracy <- label_cifar_1_split_0
I0501 06:31:06.742902   764 net.cpp:382] accuracy -> accuracy
…
