…
I0430 20:12:49.895382 28244 net.cpp:296] The NetState phase (0) differed from the phase (1) specified by a rule in layer cifar
I0430 20:12:49.895397 28244 net.cpp:296] The NetState phase (0) differed from the phase (1) specified by a rule in layer accuracy
I0430 20:12:49.895479 28244 net.cpp:53] Initializing net from parameters: 
name: "CIFAR"
state {
  phase: TRAIN
  level: 0
  stage: ""
}
layer {
  name: "cifar"
  type: "Data"
  top: "data"
  top: "label"
  include {
    phase: TRAIN
  }
  transform_param {
    mean_file: "examples/cifar10/mean.binaryproto"
  }
  data_param {
    source: "examples/cifar10/cifar10_train_lmdb"
    batch_size: 111
    backend: LMDB
  }
}
layer {
  name: "ip1"
  type: "InnerProduct"
  bottom: "data"
  top: "ip1"
  param {
    lr_mult: 1
  }
  param {
    lr_mult: 2
  }
  inner_product_param {
    num_output: 80
    weight_filler {
      type: "gaussian"
      std: 0.01
    }
    bias_filler {
      type: "constant"
    }
  }
}
layer {
  name: "relu1"
  type: "ReLU"
  bottom: "ip1"
  top: "ip1"
}
layer {
  name: "ip2"
  type: "InnerProduct"
  bottom: "ip1"
  top: "ip2"
  param {
    lr_mult: 1
  }
  param {
    lr_mult: 2
  }
  inner_product_param {
    num_output: 80
    weight_filler {
      type: "gaussian"
      std: 0.01
    }
    bias_filler {
      type: "constant"
    }
  }
}
layer {
  name: "relu2"
  type: "ReLU"
  bottom: "ip2"
  top: "ip2"
}
layer {
  name: "ip3"
  type: "InnerProduct"
  bottom: "ip2"
  top: "ip3"
  param {
    lr_mult: 1
  }
  param {
    lr_mult: 2
  }
  inner_product_param {
    num_output: 40
    weight_filler {
      type: "gaussian"
      std: 0.01
    }
    bias_filler {
      type: "constant"
    }
  }
}
layer {
  name: "relu3"
  type: "ReLU"
  bottom: "ip3"
  top: "ip3"
}
layer {
  name: "ip4"
  type: "InnerProduct"
  bottom: "ip3"
  top: "ip4"
  param {
    lr_mult: 1
  }
  param {
    lr_mult: 2
  }
  inner_product_param {
    num_output: 10
    weight_filler {
      type: "gaussian"
      std: 0.01
    }
    bias_filler {
      type: "constant"
    }
  }
}
layer {
  name: "loss"
  type: "SoftmaxWithLoss"
  bottom: "ip4"
  bottom: "label"
  top: "loss"
}
I0430 20:12:49.895543 28244 layer_factory.hpp:77] Creating layer cifar
I0430 20:12:49.895642 28244 db_lmdb.cpp:35] Opened lmdb examples/cifar10/cifar10_train_lmdb
I0430 20:12:49.895671 28244 net.cpp:86] Creating Layer cifar
I0430 20:12:49.895681 28244 net.cpp:382] cifar -> data
I0430 20:12:49.895705 28244 net.cpp:382] cifar -> label
I0430 20:12:49.895723 28244 data_transformer.cpp:25] Loading mean file from: examples/cifar10/mean.binaryproto
I0430 20:12:49.897838 28244 data_layer.cpp:45] output data size: 111,3,32,32
I0430 20:12:49.905928 28244 net.cpp:124] Setting up cifar
I0430 20:12:49.905948 28244 net.cpp:131] Top shape: 111 3 32 32 (340992)
I0430 20:12:49.905954 28244 net.cpp:131] Top shape: 111 (111)
I0430 20:12:49.905958 28244 net.cpp:139] Memory required for data: 1364412
I0430 20:12:49.905967 28244 layer_factory.hpp:77] Creating layer ip1
I0430 20:12:49.905980 28244 net.cpp:86] Creating Layer ip1
I0430 20:12:49.905985 28244 net.cpp:408] ip1 <- data
I0430 20:12:49.905998 28244 net.cpp:382] ip1 -> ip1
I0430 20:12:49.915217 28244 net.cpp:124] Setting up ip1
I0430 20:12:49.915237 28244 net.cpp:131] Top shape: 111 80 (8880)
I0430 20:12:49.915241 28244 net.cpp:139] Memory required for data: 1399932
I0430 20:12:49.915256 28244 layer_factory.hpp:77] Creating layer relu1
I0430 20:12:49.915266 28244 net.cpp:86] Creating Layer relu1
I0430 20:12:49.915287 28244 net.cpp:408] relu1 <- ip1
I0430 20:12:49.915294 28244 net.cpp:369] relu1 -> ip1 (in-place)
I0430 20:12:50.191246 28244 net.cpp:124] Setting up relu1
I0430 20:12:50.191272 28244 net.cpp:131] Top shape: 111 80 (8880)
I0430 20:12:50.191275 28244 net.cpp:139] Memory required for data: 1435452
I0430 20:12:50.191280 28244 layer_factory.hpp:77] Creating layer ip2
I0430 20:12:50.191293 28244 net.cpp:86] Creating Layer ip2
I0430 20:12:50.191298 28244 net.cpp:408] ip2 <- ip1
I0430 20:12:50.191306 28244 net.cpp:382] ip2 -> ip2
I0430 20:12:50.192634 28244 net.cpp:124] Setting up ip2
I0430 20:12:50.192647 28244 net.cpp:131] Top shape: 111 80 (8880)
I0430 20:12:50.192667 28244 net.cpp:139] Memory required for data: 1470972
I0430 20:12:50.192688 28244 layer_factory.hpp:77] Creating layer relu2
I0430 20:12:50.192697 28244 net.cpp:86] Creating Layer relu2
I0430 20:12:50.192700 28244 net.cpp:408] relu2 <- ip2
I0430 20:12:50.192704 28244 net.cpp:369] relu2 -> ip2 (in-place)
I0430 20:12:50.193558 28244 net.cpp:124] Setting up relu2
I0430 20:12:50.193572 28244 net.cpp:131] Top shape: 111 80 (8880)
I0430 20:12:50.193574 28244 net.cpp:139] Memory required for data: 1506492
I0430 20:12:50.193578 28244 layer_factory.hpp:77] Creating layer ip3
I0430 20:12:50.193585 28244 net.cpp:86] Creating Layer ip3
I0430 20:12:50.193588 28244 net.cpp:408] ip3 <- ip2
I0430 20:12:50.193594 28244 net.cpp:382] ip3 -> ip3
I0430 20:12:50.193830 28244 net.cpp:124] Setting up ip3
I0430 20:12:50.193837 28244 net.cpp:131] Top shape: 111 40 (4440)
I0430 20:12:50.193841 28244 net.cpp:139] Memory required for data: 1524252
I0430 20:12:50.193850 28244 layer_factory.hpp:77] Creating layer relu3
I0430 20:12:50.193855 28244 net.cpp:86] Creating Layer relu3
I0430 20:12:50.193857 28244 net.cpp:408] relu3 <- ip3
I0430 20:12:50.193861 28244 net.cpp:369] relu3 -> ip3 (in-place)
I0430 20:12:50.194012 28244 net.cpp:124] Setting up relu3
I0430 20:12:50.194021 28244 net.cpp:131] Top shape: 111 40 (4440)
I0430 20:12:50.194025 28244 net.cpp:139] Memory required for data: 1542012
I0430 20:12:50.194028 28244 layer_factory.hpp:77] Creating layer ip4
I0430 20:12:50.194034 28244 net.cpp:86] Creating Layer ip4
I0430 20:12:50.194037 28244 net.cpp:408] ip4 <- ip3
I0430 20:12:50.194042 28244 net.cpp:382] ip4 -> ip4
I0430 20:12:50.195003 28244 net.cpp:124] Setting up ip4
I0430 20:12:50.195031 28244 net.cpp:131] Top shape: 111 10 (1110)
I0430 20:12:50.195034 28244 net.cpp:139] Memory required for data: 1546452
I0430 20:12:50.195040 28244 layer_factory.hpp:77] Creating layer loss
I0430 20:12:50.195049 28244 net.cpp:86] Creating Layer loss
I0430 20:12:50.195051 28244 net.cpp:408] loss <- ip4
I0430 20:12:50.195055 28244 net.cpp:408] loss <- label
I0430 20:12:50.195061 28244 net.cpp:382] loss -> loss
I0430 20:12:50.195094 28244 layer_factory.hpp:77] Creating layer loss
…
I0430 20:12:50.195672 28244 solver.cpp:173] Creating test net (#0) specified by net file: ECE595/cifar/train_test/var_everything/cifar_train_test_122.prototxt
I0430 20:12:50.195709 28244 net.cpp:296] The NetState phase (1) differed from the phase (0) specified by a rule in layer cifar
I0430 20:12:50.195785 28244 net.cpp:53] Initializing net from parameters: 
name: "CIFAR"
state {
  phase: TEST
}
layer {
  name: "cifar"
  type: "Data"
  top: "data"
  top: "label"
  include {
    phase: TEST
  }
  transform_param {
    mean_file: "examples/cifar10/mean.binaryproto"
  }
  data_param {
    source: "examples/cifar10/cifar10_test_lmdb"
    batch_size: 1000
    backend: LMDB
  }
}
layer {
  name: "ip1"
  type: "InnerProduct"
  bottom: "data"
  top: "ip1"
  param {
    lr_mult: 1
  }
  param {
    lr_mult: 2
  }
  inner_product_param {
    num_output: 80
    weight_filler {
      type: "gaussian"
      std: 0.01
    }
    bias_filler {
      type: "constant"
    }
  }
}
layer {
  name: "relu1"
  type: "ReLU"
  bottom: "ip1"
  top: "ip1"
}
layer {
  name: "ip2"
  type: "InnerProduct"
  bottom: "ip1"
  top: "ip2"
  param {
    lr_mult: 1
  }
  param {
    lr_mult: 2
  }
  inner_product_param {
    num_output: 80
    weight_filler {
      type: "gaussian"
      std: 0.01
    }
    bias_filler {
      type: "constant"
    }
  }
}
layer {
  name: "relu2"
  type: "ReLU"
  bottom: "ip2"
  top: "ip2"
}
layer {
  name: "ip3"
  type: "InnerProduct"
  bottom: "ip2"
  top: "ip3"
  param {
    lr_mult: 1
  }
  param {
    lr_mult: 2
  }
  inner_product_param {
    num_output: 40
    weight_filler {
      type: "gaussian"
      std: 0.01
    }
    bias_filler {
      type: "constant"
    }
  }
}
layer {
  name: "relu3"
  type: "ReLU"
  bottom: "ip3"
  top: "ip3"
}
layer {
  name: "ip4"
  type: "InnerProduct"
  bottom: "ip3"
  top: "ip4"
  param {
    lr_mult: 1
  }
  param {
    lr_mult: 2
  }
  inner_product_param {
    num_output: 10
    weight_filler {
      type: "gaussian"
      std: 0.01
    }
    bias_filler {
      type: "constant"
    }
  }
}
layer {
  name: "accuracy"
  type: "Accuracy"
  bottom: "ip4"
  bottom: "label"
  top: "accuracy"
  include {
    phase: TEST
  }
}
layer {
  name: "loss"
  type: "SoftmaxWithLoss"
  bottom: "ip4"
  bottom: "label"
  top: "loss"
}
I0430 20:12:50.195844 28244 layer_factory.hpp:77] Creating layer cifar
I0430 20:12:50.195891 28244 db_lmdb.cpp:35] Opened lmdb examples/cifar10/cifar10_test_lmdb
I0430 20:12:50.195904 28244 net.cpp:86] Creating Layer cifar
I0430 20:12:50.195909 28244 net.cpp:382] cifar -> data
I0430 20:12:50.195916 28244 net.cpp:382] cifar -> label
I0430 20:12:50.195922 28244 data_transformer.cpp:25] Loading mean file from: examples/cifar10/mean.binaryproto
I0430 20:12:50.196084 28244 data_layer.cpp:45] output data size: 1000,3,32,32
I0430 20:12:50.217727 28244 net.cpp:124] Setting up cifar
I0430 20:12:50.217767 28244 net.cpp:131] Top shape: 1000 3 32 32 (3072000)
I0430 20:12:50.217788 28244 net.cpp:131] Top shape: 1000 (1000)
I0430 20:12:50.217792 28244 net.cpp:139] Memory required for data: 12292000
I0430 20:12:50.217797 28244 layer_factory.hpp:77] Creating layer label_cifar_1_split
I0430 20:12:50.217845 28244 net.cpp:86] Creating Layer label_cifar_1_split
I0430 20:12:50.217850 28244 net.cpp:408] label_cifar_1_split <- label
I0430 20:12:50.217857 28244 net.cpp:382] label_cifar_1_split -> label_cifar_1_split_0
I0430 20:12:50.217866 28244 net.cpp:382] label_cifar_1_split -> label_cifar_1_split_1
I0430 20:12:50.217962 28244 net.cpp:124] Setting up label_cifar_1_split
I0430 20:12:50.217968 28244 net.cpp:131] Top shape: 1000 (1000)
I0430 20:12:50.217972 28244 net.cpp:131] Top shape: 1000 (1000)
I0430 20:12:50.217975 28244 net.cpp:139] Memory required for data: 12300000
I0430 20:12:50.217978 28244 layer_factory.hpp:77] Creating layer ip1
I0430 20:12:50.217988 28244 net.cpp:86] Creating Layer ip1
I0430 20:12:50.217990 28244 net.cpp:408] ip1 <- data
I0430 20:12:50.217996 28244 net.cpp:382] ip1 -> ip1
I0430 20:12:50.224575 28244 net.cpp:124] Setting up ip1
I0430 20:12:50.224586 28244 net.cpp:131] Top shape: 1000 80 (80000)
I0430 20:12:50.224604 28244 net.cpp:139] Memory required for data: 12620000
I0430 20:12:50.224629 28244 layer_factory.hpp:77] Creating layer relu1
I0430 20:12:50.224637 28244 net.cpp:86] Creating Layer relu1
I0430 20:12:50.224639 28244 net.cpp:408] relu1 <- ip1
I0430 20:12:50.224659 28244 net.cpp:369] relu1 -> ip1 (in-place)
I0430 20:12:50.225509 28244 net.cpp:124] Setting up relu1
I0430 20:12:50.225538 28244 net.cpp:131] Top shape: 1000 80 (80000)
I0430 20:12:50.225540 28244 net.cpp:139] Memory required for data: 12940000
I0430 20:12:50.225544 28244 layer_factory.hpp:77] Creating layer ip2
I0430 20:12:50.225553 28244 net.cpp:86] Creating Layer ip2
I0430 20:12:50.225556 28244 net.cpp:408] ip2 <- ip1
I0430 20:12:50.225563 28244 net.cpp:382] ip2 -> ip2
I0430 20:12:50.225862 28244 net.cpp:124] Setting up ip2
I0430 20:12:50.225870 28244 net.cpp:131] Top shape: 1000 80 (80000)
I0430 20:12:50.225873 28244 net.cpp:139] Memory required for data: 13260000
I0430 20:12:50.225880 28244 layer_factory.hpp:77] Creating layer relu2
I0430 20:12:50.225885 28244 net.cpp:86] Creating Layer relu2
I0430 20:12:50.225888 28244 net.cpp:408] relu2 <- ip2
I0430 20:12:50.225893 28244 net.cpp:369] relu2 -> ip2 (in-place)
I0430 20:12:50.226042 28244 net.cpp:124] Setting up relu2
I0430 20:12:50.226050 28244 net.cpp:131] Top shape: 1000 80 (80000)
I0430 20:12:50.226053 28244 net.cpp:139] Memory required for data: 13580000
I0430 20:12:50.226058 28244 layer_factory.hpp:77] Creating layer ip3
I0430 20:12:50.226063 28244 net.cpp:86] Creating Layer ip3
I0430 20:12:50.226066 28244 net.cpp:408] ip3 <- ip2
I0430 20:12:50.226070 28244 net.cpp:382] ip3 -> ip3
I0430 20:12:50.226250 28244 net.cpp:124] Setting up ip3
I0430 20:12:50.226258 28244 net.cpp:131] Top shape: 1000 40 (40000)
I0430 20:12:50.226260 28244 net.cpp:139] Memory required for data: 13740000
I0430 20:12:50.226267 28244 layer_factory.hpp:77] Creating layer relu3
I0430 20:12:50.226271 28244 net.cpp:86] Creating Layer relu3
I0430 20:12:50.226275 28244 net.cpp:408] relu3 <- ip3
I0430 20:12:50.226279 28244 net.cpp:369] relu3 -> ip3 (in-place)
I0430 20:12:50.226423 28244 net.cpp:124] Setting up relu3
I0430 20:12:50.226430 28244 net.cpp:131] Top shape: 1000 40 (40000)
I0430 20:12:50.226434 28244 net.cpp:139] Memory required for data: 13900000
I0430 20:12:50.226438 28244 layer_factory.hpp:77] Creating layer ip4
I0430 20:12:50.226444 28244 net.cpp:86] Creating Layer ip4
I0430 20:12:50.226447 28244 net.cpp:408] ip4 <- ip3
I0430 20:12:50.226452 28244 net.cpp:382] ip4 -> ip4
I0430 20:12:50.226573 28244 net.cpp:124] Setting up ip4
I0430 20:12:50.226580 28244 net.cpp:131] Top shape: 1000 10 (10000)
I0430 20:12:50.226583 28244 net.cpp:139] Memory required for data: 13940000
I0430 20:12:50.226590 28244 layer_factory.hpp:77] Creating layer ip4_ip4_0_split
I0430 20:12:50.226595 28244 net.cpp:86] Creating Layer ip4_ip4_0_split
I0430 20:12:50.226598 28244 net.cpp:408] ip4_ip4_0_split <- ip4
I0430 20:12:50.226603 28244 net.cpp:382] ip4_ip4_0_split -> ip4_ip4_0_split_0
I0430 20:12:50.226608 28244 net.cpp:382] ip4_ip4_0_split -> ip4_ip4_0_split_1
I0430 20:12:50.226637 28244 net.cpp:124] Setting up ip4_ip4_0_split
I0430 20:12:50.226645 28244 net.cpp:131] Top shape: 1000 10 (10000)
I0430 20:12:50.226649 28244 net.cpp:131] Top shape: 1000 10 (10000)
I0430 20:12:50.226651 28244 net.cpp:139] Memory required for data: 14020000
I0430 20:12:50.226655 28244 layer_factory.hpp:77] Creating layer accuracy
I0430 20:12:50.226665 28244 net.cpp:86] Creating Layer accuracy
I0430 20:12:50.226667 28244 net.cpp:408] accuracy <- ip4_ip4_0_split_0
I0430 20:12:50.226671 28244 net.cpp:408] accuracy <- label_cifar_1_split_0
I0430 20:12:50.226675 28244 net.cpp:382] accuracy -> accuracy
…
