…
I0501 03:29:01.476675 21056 net.cpp:296] The NetState phase (0) differed from the phase (1) specified by a rule in layer cifar
I0501 03:29:01.476692 21056 net.cpp:296] The NetState phase (0) differed from the phase (1) specified by a rule in layer accuracy
I0501 03:29:01.476790 21056 net.cpp:53] Initializing net from parameters: 
name: "CIFAR"
state {
  phase: TRAIN
  level: 0
  stage: ""
}
layer {
  name: "cifar"
  type: "Data"
  top: "data"
  top: "label"
  include {
    phase: TRAIN
  }
  transform_param {
    mean_file: "examples/cifar10/mean.binaryproto"
  }
  data_param {
    source: "examples/cifar10/cifar10_train_lmdb"
    batch_size: 111
    backend: LMDB
  }
}
layer {
  name: "conv0"
  type: "Convolution"
  bottom: "data"
  top: "conv0"
  param {
    lr_mult: 1
  }
  param {
    lr_mult: 2
  }
  convolution_param {
    num_output: 8
    pad: 2
    kernel_size: 5
    stride: 1
    weight_filler {
      type: "gaussian"
      std: 0.01
    }
    bias_filler {
      type: "constant"
    }
  }
}
layer {
  name: "Sigmoid0"
  type: "Sigmoid"
  bottom: "conv0"
  top: "Sigmoid0"
}
layer {
  name: "pool0"
  type: "Pooling"
  bottom: "Sigmoid0"
  top: "pool0"
  pooling_param {
    pool: AVE
    kernel_size: 3
    stride: 2
  }
}
layer {
  name: "ip1"
  type: "InnerProduct"
  bottom: "pool0"
  top: "ip1"
  param {
    lr_mult: 1
  }
  param {
    lr_mult: 2
  }
  inner_product_param {
    num_output: 10
    weight_filler {
      type: "gaussian"
      std: 0.01
    }
    bias_filler {
      type: "constant"
    }
  }
}
layer {
  name: "relu1"
  type: "ReLU"
  bottom: "ip1"
  top: "ip1"
}
layer {
  name: "ip2"
  type: "InnerProduct"
  bottom: "ip1"
  top: "ip2"
  param {
    lr_mult: 1
  }
  param {
    lr_mult: 2
  }
  inner_product_param {
    num_output: 80
    weight_filler {
      type: "gaussian"
      std: 0.01
    }
    bias_filler {
      type: "constant"
    }
  }
}
layer {
  name: "relu2"
  type: "ReLU"
  bottom: "ip2"
  top: "ip2"
}
layer {
  name: "ip3"
  type: "InnerProduct"
  bottom: "ip2"
  top: "ip3"
  param {
    lr_mult: 1
  }
  param {
    lr_mult: 2
  }
  inner_product_param {
    num_output: 10
    weight_filler {
      type: "gaussian"
      std: 0.01
    }
    bias_filler {
      type: "constant"
    }
  }
}
layer {
  name: "relu3"
  type: "ReLU"
  bottom: "ip3"
  top: "ip3"
}
layer {
  name: "ip4"
  type: "InnerProduct"
  bottom: "ip3"
  top: "ip4"
  param {
    lr_mult: 1
  }
  param {
    lr_mult: 2
  }
  inner_product_param {
    num_output: 10
    weight_filler {
      type: "gaussian"
      std: 0.01
    }
    bias_filler {
      type: "constant"
    }
  }
}
layer {
  name: "loss"
  type: "SoftmaxWithLoss"
  bottom: "ip4"
  bottom: "label"
  top: "loss"
}
I0501 03:29:01.476874 21056 layer_factory.hpp:77] Creating layer cifar
I0501 03:29:01.476979 21056 db_lmdb.cpp:35] Opened lmdb examples/cifar10/cifar10_train_lmdb
I0501 03:29:01.477010 21056 net.cpp:86] Creating Layer cifar
I0501 03:29:01.477020 21056 net.cpp:382] cifar -> data
I0501 03:29:01.477043 21056 net.cpp:382] cifar -> label
I0501 03:29:01.477056 21056 data_transformer.cpp:25] Loading mean file from: examples/cifar10/mean.binaryproto
I0501 03:29:01.479171 21056 data_layer.cpp:45] output data size: 111,3,32,32
I0501 03:29:01.487020 21056 net.cpp:124] Setting up cifar
I0501 03:29:01.487038 21056 net.cpp:131] Top shape: 111 3 32 32 (340992)
I0501 03:29:01.487046 21056 net.cpp:131] Top shape: 111 (111)
I0501 03:29:01.487049 21056 net.cpp:139] Memory required for data: 1364412
I0501 03:29:01.487073 21056 layer_factory.hpp:77] Creating layer conv0
I0501 03:29:01.487092 21056 net.cpp:86] Creating Layer conv0
I0501 03:29:01.487097 21056 net.cpp:408] conv0 <- data
I0501 03:29:01.487108 21056 net.cpp:382] conv0 -> conv0
I0501 03:29:01.775274 21056 net.cpp:124] Setting up conv0
I0501 03:29:01.775301 21056 net.cpp:131] Top shape: 111 8 32 32 (909312)
I0501 03:29:01.775306 21056 net.cpp:139] Memory required for data: 5001660
I0501 03:29:01.775322 21056 layer_factory.hpp:77] Creating layer Sigmoid0
I0501 03:29:01.775333 21056 net.cpp:86] Creating Layer Sigmoid0
I0501 03:29:01.775337 21056 net.cpp:408] Sigmoid0 <- conv0
I0501 03:29:01.775343 21056 net.cpp:382] Sigmoid0 -> Sigmoid0
I0501 03:29:01.775513 21056 net.cpp:124] Setting up Sigmoid0
I0501 03:29:01.775523 21056 net.cpp:131] Top shape: 111 8 32 32 (909312)
I0501 03:29:01.775527 21056 net.cpp:139] Memory required for data: 8638908
I0501 03:29:01.775529 21056 layer_factory.hpp:77] Creating layer pool0
I0501 03:29:01.775537 21056 net.cpp:86] Creating Layer pool0
I0501 03:29:01.775540 21056 net.cpp:408] pool0 <- Sigmoid0
I0501 03:29:01.775545 21056 net.cpp:382] pool0 -> pool0
I0501 03:29:01.776301 21056 net.cpp:124] Setting up pool0
I0501 03:29:01.776315 21056 net.cpp:131] Top shape: 111 8 16 16 (227328)
I0501 03:29:01.776319 21056 net.cpp:139] Memory required for data: 9548220
I0501 03:29:01.776322 21056 layer_factory.hpp:77] Creating layer ip1
I0501 03:29:01.776332 21056 net.cpp:86] Creating Layer ip1
I0501 03:29:01.776335 21056 net.cpp:408] ip1 <- pool0
I0501 03:29:01.776341 21056 net.cpp:382] ip1 -> ip1
I0501 03:29:01.777855 21056 net.cpp:124] Setting up ip1
I0501 03:29:01.777868 21056 net.cpp:131] Top shape: 111 10 (1110)
I0501 03:29:01.777871 21056 net.cpp:139] Memory required for data: 9552660
I0501 03:29:01.777879 21056 layer_factory.hpp:77] Creating layer relu1
I0501 03:29:01.777885 21056 net.cpp:86] Creating Layer relu1
I0501 03:29:01.777889 21056 net.cpp:408] relu1 <- ip1
I0501 03:29:01.777894 21056 net.cpp:369] relu1 -> ip1 (in-place)
I0501 03:29:01.778048 21056 net.cpp:124] Setting up relu1
I0501 03:29:01.778056 21056 net.cpp:131] Top shape: 111 10 (1110)
I0501 03:29:01.778059 21056 net.cpp:139] Memory required for data: 9557100
I0501 03:29:01.778064 21056 layer_factory.hpp:77] Creating layer ip2
I0501 03:29:01.778069 21056 net.cpp:86] Creating Layer ip2
I0501 03:29:01.778072 21056 net.cpp:408] ip2 <- ip1
I0501 03:29:01.778079 21056 net.cpp:382] ip2 -> ip2
I0501 03:29:01.778192 21056 net.cpp:124] Setting up ip2
I0501 03:29:01.778199 21056 net.cpp:131] Top shape: 111 80 (8880)
I0501 03:29:01.778203 21056 net.cpp:139] Memory required for data: 9592620
I0501 03:29:01.778209 21056 layer_factory.hpp:77] Creating layer relu2
I0501 03:29:01.778218 21056 net.cpp:86] Creating Layer relu2
I0501 03:29:01.778221 21056 net.cpp:408] relu2 <- ip2
I0501 03:29:01.778225 21056 net.cpp:369] relu2 -> ip2 (in-place)
I0501 03:29:01.778373 21056 net.cpp:124] Setting up relu2
I0501 03:29:01.778381 21056 net.cpp:131] Top shape: 111 80 (8880)
I0501 03:29:01.778384 21056 net.cpp:139] Memory required for data: 9628140
I0501 03:29:01.778388 21056 layer_factory.hpp:77] Creating layer ip3
I0501 03:29:01.778394 21056 net.cpp:86] Creating Layer ip3
I0501 03:29:01.778398 21056 net.cpp:408] ip3 <- ip2
I0501 03:29:01.778403 21056 net.cpp:382] ip3 -> ip3
I0501 03:29:01.778515 21056 net.cpp:124] Setting up ip3
I0501 03:29:01.778522 21056 net.cpp:131] Top shape: 111 10 (1110)
I0501 03:29:01.778525 21056 net.cpp:139] Memory required for data: 9632580
I0501 03:29:01.778530 21056 layer_factory.hpp:77] Creating layer relu3
I0501 03:29:01.778535 21056 net.cpp:86] Creating Layer relu3
I0501 03:29:01.778538 21056 net.cpp:408] relu3 <- ip3
I0501 03:29:01.778542 21056 net.cpp:369] relu3 -> ip3 (in-place)
I0501 03:29:01.778684 21056 net.cpp:124] Setting up relu3
I0501 03:29:01.778692 21056 net.cpp:131] Top shape: 111 10 (1110)
I0501 03:29:01.778695 21056 net.cpp:139] Memory required for data: 9637020
I0501 03:29:01.778698 21056 layer_factory.hpp:77] Creating layer ip4
I0501 03:29:01.778718 21056 net.cpp:86] Creating Layer ip4
I0501 03:29:01.778723 21056 net.cpp:408] ip4 <- ip3
I0501 03:29:01.778728 21056 net.cpp:382] ip4 -> ip4
I0501 03:29:01.778820 21056 net.cpp:124] Setting up ip4
I0501 03:29:01.778827 21056 net.cpp:131] Top shape: 111 10 (1110)
I0501 03:29:01.778831 21056 net.cpp:139] Memory required for data: 9641460
I0501 03:29:01.778838 21056 layer_factory.hpp:77] Creating layer loss
I0501 03:29:01.778844 21056 net.cpp:86] Creating Layer loss
I0501 03:29:01.778847 21056 net.cpp:408] loss <- ip4
I0501 03:29:01.778851 21056 net.cpp:408] loss <- label
I0501 03:29:01.778856 21056 net.cpp:382] loss -> loss
I0501 03:29:01.778870 21056 layer_factory.hpp:77] Creating layer loss
…
I0501 03:29:01.780066 21056 solver.cpp:173] Creating test net (#0) specified by net file: ECE595/cifar/train_test/var_everything/cifar_train_test_355.prototxt
I0501 03:29:01.780094 21056 net.cpp:296] The NetState phase (1) differed from the phase (0) specified by a rule in layer cifar
I0501 03:29:01.780186 21056 net.cpp:53] Initializing net from parameters: 
name: "CIFAR"
state {
  phase: TEST
}
layer {
  name: "cifar"
  type: "Data"
  top: "data"
  top: "label"
  include {
    phase: TEST
  }
  transform_param {
    mean_file: "examples/cifar10/mean.binaryproto"
  }
  data_param {
    source: "examples/cifar10/cifar10_test_lmdb"
    batch_size: 1000
    backend: LMDB
  }
}
layer {
  name: "conv0"
  type: "Convolution"
  bottom: "data"
  top: "conv0"
  param {
    lr_mult: 1
  }
  param {
    lr_mult: 2
  }
  convolution_param {
    num_output: 8
    pad: 2
    kernel_size: 5
    stride: 1
    weight_filler {
      type: "gaussian"
      std: 0.01
    }
    bias_filler {
      type: "constant"
    }
  }
}
layer {
  name: "Sigmoid0"
  type: "Sigmoid"
  bottom: "conv0"
  top: "Sigmoid0"
}
layer {
  name: "pool0"
  type: "Pooling"
  bottom: "Sigmoid0"
  top: "pool0"
  pooling_param {
    pool: AVE
    kernel_size: 3
    stride: 2
  }
}
layer {
  name: "ip1"
  type: "InnerProduct"
  bottom: "pool0"
  top: "ip1"
  param {
    lr_mult: 1
  }
  param {
    lr_mult: 2
  }
  inner_product_param {
    num_output: 10
    weight_filler {
      type: "gaussian"
      std: 0.01
    }
    bias_filler {
      type: "constant"
    }
  }
}
layer {
  name: "relu1"
  type: "ReLU"
  bottom: "ip1"
  top: "ip1"
}
layer {
  name: "ip2"
  type: "InnerProduct"
  bottom: "ip1"
  top: "ip2"
  param {
    lr_mult: 1
  }
  param {
    lr_mult: 2
  }
  inner_product_param {
    num_output: 80
    weight_filler {
      type: "gaussian"
      std: 0.01
    }
    bias_filler {
      type: "constant"
    }
  }
}
layer {
  name: "relu2"
  type: "ReLU"
  bottom: "ip2"
  top: "ip2"
}
layer {
  name: "ip3"
  type: "InnerProduct"
  bottom: "ip2"
  top: "ip3"
  param {
    lr_mult: 1
  }
  param {
    lr_mult: 2
  }
  inner_product_param {
    num_output: 10
    weight_filler {
      type: "gaussian"
      std: 0.01
    }
    bias_filler {
      type: "constant"
    }
  }
}
layer {
  name: "relu3"
  type: "ReLU"
  bottom: "ip3"
  top: "ip3"
}
layer {
  name: "ip4"
  type: "InnerProduct"
  bottom: "ip3"
  top: "ip4"
  param {
    lr_mult: 1
  }
  param {
    lr_mult: 2
  }
  inner_product_param {
    num_output: 10
    weight_filler {
      type: "gaussian"
      std: 0.01
    }
    bias_filler {
      type: "constant"
    }
  }
}
layer {
  name: "accuracy"
  type: "Accuracy"
  bottom: "ip4"
  bottom: "label"
  top: "accuracy"
  include {
    phase: TEST
  }
}
layer {
  name: "loss"
  type: "SoftmaxWithLoss"
  bottom: "ip4"
  bottom: "label"
  top: "loss"
}
I0501 03:29:01.780266 21056 layer_factory.hpp:77] Creating layer cifar
I0501 03:29:01.780310 21056 db_lmdb.cpp:35] Opened lmdb examples/cifar10/cifar10_test_lmdb
I0501 03:29:01.780323 21056 net.cpp:86] Creating Layer cifar
I0501 03:29:01.780328 21056 net.cpp:382] cifar -> data
I0501 03:29:01.780335 21056 net.cpp:382] cifar -> label
I0501 03:29:01.780342 21056 data_transformer.cpp:25] Loading mean file from: examples/cifar10/mean.binaryproto
I0501 03:29:01.780481 21056 data_layer.cpp:45] output data size: 1000,3,32,32
I0501 03:29:01.802961 21056 net.cpp:124] Setting up cifar
I0501 03:29:01.802987 21056 net.cpp:131] Top shape: 1000 3 32 32 (3072000)
I0501 03:29:01.802992 21056 net.cpp:131] Top shape: 1000 (1000)
I0501 03:29:01.802996 21056 net.cpp:139] Memory required for data: 12292000
I0501 03:29:01.803017 21056 layer_factory.hpp:77] Creating layer label_cifar_1_split
I0501 03:29:01.803028 21056 net.cpp:86] Creating Layer label_cifar_1_split
I0501 03:29:01.803032 21056 net.cpp:408] label_cifar_1_split <- label
I0501 03:29:01.803038 21056 net.cpp:382] label_cifar_1_split -> label_cifar_1_split_0
I0501 03:29:01.803047 21056 net.cpp:382] label_cifar_1_split -> label_cifar_1_split_1
I0501 03:29:01.803135 21056 net.cpp:124] Setting up label_cifar_1_split
I0501 03:29:01.803143 21056 net.cpp:131] Top shape: 1000 (1000)
I0501 03:29:01.803146 21056 net.cpp:131] Top shape: 1000 (1000)
I0501 03:29:01.803149 21056 net.cpp:139] Memory required for data: 12300000
I0501 03:29:01.803153 21056 layer_factory.hpp:77] Creating layer conv0
I0501 03:29:01.803164 21056 net.cpp:86] Creating Layer conv0
I0501 03:29:01.803167 21056 net.cpp:408] conv0 <- data
I0501 03:29:01.803172 21056 net.cpp:382] conv0 -> conv0
I0501 03:29:01.804854 21056 net.cpp:124] Setting up conv0
I0501 03:29:01.804868 21056 net.cpp:131] Top shape: 1000 8 32 32 (8192000)
I0501 03:29:01.804872 21056 net.cpp:139] Memory required for data: 45068000
I0501 03:29:01.804898 21056 layer_factory.hpp:77] Creating layer Sigmoid0
I0501 03:29:01.804905 21056 net.cpp:86] Creating Layer Sigmoid0
I0501 03:29:01.804909 21056 net.cpp:408] Sigmoid0 <- conv0
I0501 03:29:01.804913 21056 net.cpp:382] Sigmoid0 -> Sigmoid0
I0501 03:29:01.805089 21056 net.cpp:124] Setting up Sigmoid0
I0501 03:29:01.805099 21056 net.cpp:131] Top shape: 1000 8 32 32 (8192000)
I0501 03:29:01.805102 21056 net.cpp:139] Memory required for data: 77836000
I0501 03:29:01.805105 21056 layer_factory.hpp:77] Creating layer pool0
I0501 03:29:01.805114 21056 net.cpp:86] Creating Layer pool0
I0501 03:29:01.805117 21056 net.cpp:408] pool0 <- Sigmoid0
I0501 03:29:01.805121 21056 net.cpp:382] pool0 -> pool0
I0501 03:29:01.805380 21056 net.cpp:124] Setting up pool0
I0501 03:29:01.805389 21056 net.cpp:131] Top shape: 1000 8 16 16 (2048000)
I0501 03:29:01.805392 21056 net.cpp:139] Memory required for data: 86028000
I0501 03:29:01.805395 21056 layer_factory.hpp:77] Creating layer ip1
I0501 03:29:01.805403 21056 net.cpp:86] Creating Layer ip1
I0501 03:29:01.805407 21056 net.cpp:408] ip1 <- pool0
I0501 03:29:01.805411 21056 net.cpp:382] ip1 -> ip1
I0501 03:29:01.807024 21056 net.cpp:124] Setting up ip1
I0501 03:29:01.807034 21056 net.cpp:131] Top shape: 1000 10 (10000)
I0501 03:29:01.807051 21056 net.cpp:139] Memory required for data: 86068000
I0501 03:29:01.807075 21056 layer_factory.hpp:77] Creating layer relu1
I0501 03:29:01.807082 21056 net.cpp:86] Creating Layer relu1
I0501 03:29:01.807085 21056 net.cpp:408] relu1 <- ip1
I0501 03:29:01.807090 21056 net.cpp:369] relu1 -> ip1 (in-place)
I0501 03:29:01.807265 21056 net.cpp:124] Setting up relu1
I0501 03:29:01.807274 21056 net.cpp:131] Top shape: 1000 10 (10000)
I0501 03:29:01.807277 21056 net.cpp:139] Memory required for data: 86108000
I0501 03:29:01.807281 21056 layer_factory.hpp:77] Creating layer ip2
I0501 03:29:01.807288 21056 net.cpp:86] Creating Layer ip2
I0501 03:29:01.807291 21056 net.cpp:408] ip2 <- ip1
I0501 03:29:01.807296 21056 net.cpp:382] ip2 -> ip2
I0501 03:29:01.807425 21056 net.cpp:124] Setting up ip2
I0501 03:29:01.807432 21056 net.cpp:131] Top shape: 1000 80 (80000)
I0501 03:29:01.807435 21056 net.cpp:139] Memory required for data: 86428000
I0501 03:29:01.807442 21056 layer_factory.hpp:77] Creating layer relu2
I0501 03:29:01.807448 21056 net.cpp:86] Creating Layer relu2
I0501 03:29:01.807452 21056 net.cpp:408] relu2 <- ip2
I0501 03:29:01.807456 21056 net.cpp:369] relu2 -> ip2 (in-place)
I0501 03:29:01.808277 21056 net.cpp:124] Setting up relu2
I0501 03:29:01.808290 21056 net.cpp:131] Top shape: 1000 80 (80000)
I0501 03:29:01.808310 21056 net.cpp:139] Memory required for data: 86748000
I0501 03:29:01.808312 21056 layer_factory.hpp:77] Creating layer ip3
I0501 03:29:01.808320 21056 net.cpp:86] Creating Layer ip3
I0501 03:29:01.808323 21056 net.cpp:408] ip3 <- ip2
I0501 03:29:01.808328 21056 net.cpp:382] ip3 -> ip3
I0501 03:29:01.808470 21056 net.cpp:124] Setting up ip3
I0501 03:29:01.808477 21056 net.cpp:131] Top shape: 1000 10 (10000)
I0501 03:29:01.808480 21056 net.cpp:139] Memory required for data: 86788000
I0501 03:29:01.808486 21056 layer_factory.hpp:77] Creating layer relu3
I0501 03:29:01.808492 21056 net.cpp:86] Creating Layer relu3
I0501 03:29:01.808495 21056 net.cpp:408] relu3 <- ip3
I0501 03:29:01.808500 21056 net.cpp:369] relu3 -> ip3 (in-place)
I0501 03:29:01.808648 21056 net.cpp:124] Setting up relu3
I0501 03:29:01.808657 21056 net.cpp:131] Top shape: 1000 10 (10000)
I0501 03:29:01.808660 21056 net.cpp:139] Memory required for data: 86828000
I0501 03:29:01.808663 21056 layer_factory.hpp:77] Creating layer ip4
I0501 03:29:01.808670 21056 net.cpp:86] Creating Layer ip4
I0501 03:29:01.808672 21056 net.cpp:408] ip4 <- ip3
I0501 03:29:01.808677 21056 net.cpp:382] ip4 -> ip4
I0501 03:29:01.808801 21056 net.cpp:124] Setting up ip4
I0501 03:29:01.808809 21056 net.cpp:131] Top shape: 1000 10 (10000)
I0501 03:29:01.808833 21056 net.cpp:139] Memory required for data: 86868000
I0501 03:29:01.808843 21056 layer_factory.hpp:77] Creating layer ip4_ip4_0_split
I0501 03:29:01.808850 21056 net.cpp:86] Creating Layer ip4_ip4_0_split
I0501 03:29:01.808853 21056 net.cpp:408] ip4_ip4_0_split <- ip4
I0501 03:29:01.808857 21056 net.cpp:382] ip4_ip4_0_split -> ip4_ip4_0_split_0
I0501 03:29:01.808879 21056 net.cpp:382] ip4_ip4_0_split -> ip4_ip4_0_split_1
I0501 03:29:01.808923 21056 net.cpp:124] Setting up ip4_ip4_0_split
I0501 03:29:01.808930 21056 net.cpp:131] Top shape: 1000 10 (10000)
I0501 03:29:01.808934 21056 net.cpp:131] Top shape: 1000 10 (10000)
I0501 03:29:01.808938 21056 net.cpp:139] Memory required for data: 86948000
I0501 03:29:01.808941 21056 layer_factory.hpp:77] Creating layer accuracy
I0501 03:29:01.808948 21056 net.cpp:86] Creating Layer accuracy
I0501 03:29:01.808951 21056 net.cpp:408] accuracy <- ip4_ip4_0_split_0
I0501 03:29:01.808955 21056 net.cpp:408] accuracy <- label_cifar_1_split_0
I0501 03:29:01.808961 21056 net.cpp:382] accuracy -> accuracy
…
