…
I0501 01:29:29.219894 10852 net.cpp:296] The NetState phase (0) differed from the phase (1) specified by a rule in layer cifar
I0501 01:29:29.219914 10852 net.cpp:296] The NetState phase (0) differed from the phase (1) specified by a rule in layer accuracy
I0501 01:29:29.220021 10852 net.cpp:53] Initializing net from parameters: 
name: "CIFAR"
state {
  phase: TRAIN
  level: 0
  stage: ""
}
layer {
  name: "cifar"
  type: "Data"
  top: "data"
  top: "label"
  include {
    phase: TRAIN
  }
  transform_param {
    mean_file: "examples/cifar10/mean.binaryproto"
  }
  data_param {
    source: "examples/cifar10/cifar10_train_lmdb"
    batch_size: 111
    backend: LMDB
  }
}
layer {
  name: "conv0"
  type: "Convolution"
  bottom: "data"
  top: "conv0"
  param {
    lr_mult: 1
  }
  param {
    lr_mult: 2
  }
  convolution_param {
    num_output: 8
    pad: 2
    kernel_size: 3
    stride: 1
    weight_filler {
      type: "gaussian"
      std: 0.01
    }
    bias_filler {
      type: "constant"
    }
  }
}
layer {
  name: "Sigmoid0"
  type: "Sigmoid"
  bottom: "conv0"
  top: "Sigmoid0"
}
layer {
  name: "pool0"
  type: "Pooling"
  bottom: "Sigmoid0"
  top: "pool0"
  pooling_param {
    pool: AVE
    kernel_size: 3
    stride: 2
  }
}
layer {
  name: "ip1"
  type: "InnerProduct"
  bottom: "pool0"
  top: "ip1"
  param {
    lr_mult: 1
  }
  param {
    lr_mult: 2
  }
  inner_product_param {
    num_output: 160
    weight_filler {
      type: "gaussian"
      std: 0.01
    }
    bias_filler {
      type: "constant"
    }
  }
}
layer {
  name: "relu1"
  type: "ReLU"
  bottom: "ip1"
  top: "ip1"
}
layer {
  name: "ip2"
  type: "InnerProduct"
  bottom: "ip1"
  top: "ip2"
  param {
    lr_mult: 1
  }
  param {
    lr_mult: 2
  }
  inner_product_param {
    num_output: 20
    weight_filler {
      type: "gaussian"
      std: 0.01
    }
    bias_filler {
      type: "constant"
    }
  }
}
layer {
  name: "relu2"
  type: "ReLU"
  bottom: "ip2"
  top: "ip2"
}
layer {
  name: "ip3"
  type: "InnerProduct"
  bottom: "ip2"
  top: "ip3"
  param {
    lr_mult: 1
  }
  param {
    lr_mult: 2
  }
  inner_product_param {
    num_output: 20
    weight_filler {
      type: "gaussian"
      std: 0.01
    }
    bias_filler {
      type: "constant"
    }
  }
}
layer {
  name: "relu3"
  type: "ReLU"
  bottom: "ip3"
  top: "ip3"
}
layer {
  name: "ip4"
  type: "InnerProduct"
  bottom: "ip3"
  top: "ip4"
  param {
    lr_mult: 1
  }
  param {
    lr_mult: 2
  }
  inner_product_param {
    num_output: 10
    weight_filler {
      type: "gaussian"
      std: 0.01
    }
    bias_filler {
      type: "constant"
    }
  }
}
layer {
  name: "loss"
  type: "SoftmaxWithLoss"
  bottom: "ip4"
  bottom: "label"
  top: "loss"
}
I0501 01:29:29.220100 10852 layer_factory.hpp:77] Creating layer cifar
I0501 01:29:29.220201 10852 db_lmdb.cpp:35] Opened lmdb examples/cifar10/cifar10_train_lmdb
I0501 01:29:29.220227 10852 net.cpp:86] Creating Layer cifar
I0501 01:29:29.220237 10852 net.cpp:382] cifar -> data
I0501 01:29:29.220259 10852 net.cpp:382] cifar -> label
I0501 01:29:29.220271 10852 data_transformer.cpp:25] Loading mean file from: examples/cifar10/mean.binaryproto
I0501 01:29:29.222410 10852 data_layer.cpp:45] output data size: 111,3,32,32
I0501 01:29:29.230293 10852 net.cpp:124] Setting up cifar
I0501 01:29:29.230312 10852 net.cpp:131] Top shape: 111 3 32 32 (340992)
I0501 01:29:29.230319 10852 net.cpp:131] Top shape: 111 (111)
I0501 01:29:29.230322 10852 net.cpp:139] Memory required for data: 1364412
I0501 01:29:29.230346 10852 layer_factory.hpp:77] Creating layer conv0
I0501 01:29:29.230366 10852 net.cpp:86] Creating Layer conv0
I0501 01:29:29.230372 10852 net.cpp:408] conv0 <- data
I0501 01:29:29.230386 10852 net.cpp:382] conv0 -> conv0
I0501 01:29:29.524421 10852 net.cpp:124] Setting up conv0
I0501 01:29:29.524452 10852 net.cpp:131] Top shape: 111 8 34 34 (1026528)
I0501 01:29:29.524457 10852 net.cpp:139] Memory required for data: 5470524
I0501 01:29:29.524476 10852 layer_factory.hpp:77] Creating layer Sigmoid0
I0501 01:29:29.524489 10852 net.cpp:86] Creating Layer Sigmoid0
I0501 01:29:29.524494 10852 net.cpp:408] Sigmoid0 <- conv0
I0501 01:29:29.524502 10852 net.cpp:382] Sigmoid0 -> Sigmoid0
I0501 01:29:29.524714 10852 net.cpp:124] Setting up Sigmoid0
I0501 01:29:29.524725 10852 net.cpp:131] Top shape: 111 8 34 34 (1026528)
I0501 01:29:29.524729 10852 net.cpp:139] Memory required for data: 9576636
I0501 01:29:29.524734 10852 layer_factory.hpp:77] Creating layer pool0
I0501 01:29:29.524741 10852 net.cpp:86] Creating Layer pool0
I0501 01:29:29.524745 10852 net.cpp:408] pool0 <- Sigmoid0
I0501 01:29:29.524750 10852 net.cpp:382] pool0 -> pool0
I0501 01:29:29.525651 10852 net.cpp:124] Setting up pool0
I0501 01:29:29.525667 10852 net.cpp:131] Top shape: 111 8 17 17 (256632)
I0501 01:29:29.525671 10852 net.cpp:139] Memory required for data: 10603164
I0501 01:29:29.525676 10852 layer_factory.hpp:77] Creating layer ip1
I0501 01:29:29.525686 10852 net.cpp:86] Creating Layer ip1
I0501 01:29:29.525691 10852 net.cpp:408] ip1 <- pool0
I0501 01:29:29.525697 10852 net.cpp:382] ip1 -> ip1
I0501 01:29:29.538923 10852 net.cpp:124] Setting up ip1
I0501 01:29:29.538939 10852 net.cpp:131] Top shape: 111 160 (17760)
I0501 01:29:29.538944 10852 net.cpp:139] Memory required for data: 10674204
I0501 01:29:29.538954 10852 layer_factory.hpp:77] Creating layer relu1
I0501 01:29:29.538961 10852 net.cpp:86] Creating Layer relu1
I0501 01:29:29.538965 10852 net.cpp:408] relu1 <- ip1
I0501 01:29:29.538972 10852 net.cpp:369] relu1 -> ip1 (in-place)
I0501 01:29:29.539161 10852 net.cpp:124] Setting up relu1
I0501 01:29:29.539172 10852 net.cpp:131] Top shape: 111 160 (17760)
I0501 01:29:29.539175 10852 net.cpp:139] Memory required for data: 10745244
I0501 01:29:29.539180 10852 layer_factory.hpp:77] Creating layer ip2
I0501 01:29:29.539187 10852 net.cpp:86] Creating Layer ip2
I0501 01:29:29.539191 10852 net.cpp:408] ip2 <- ip1
I0501 01:29:29.539197 10852 net.cpp:382] ip2 -> ip2
I0501 01:29:29.539420 10852 net.cpp:124] Setting up ip2
I0501 01:29:29.539428 10852 net.cpp:131] Top shape: 111 20 (2220)
I0501 01:29:29.539433 10852 net.cpp:139] Memory required for data: 10754124
I0501 01:29:29.539440 10852 layer_factory.hpp:77] Creating layer relu2
I0501 01:29:29.539446 10852 net.cpp:86] Creating Layer relu2
I0501 01:29:29.539450 10852 net.cpp:408] relu2 <- ip2
I0501 01:29:29.539455 10852 net.cpp:369] relu2 -> ip2 (in-place)
I0501 01:29:29.539639 10852 net.cpp:124] Setting up relu2
I0501 01:29:29.539649 10852 net.cpp:131] Top shape: 111 20 (2220)
I0501 01:29:29.539654 10852 net.cpp:139] Memory required for data: 10763004
I0501 01:29:29.539657 10852 layer_factory.hpp:77] Creating layer ip3
I0501 01:29:29.539665 10852 net.cpp:86] Creating Layer ip3
I0501 01:29:29.539669 10852 net.cpp:408] ip3 <- ip2
I0501 01:29:29.539675 10852 net.cpp:382] ip3 -> ip3
I0501 01:29:29.540791 10852 net.cpp:124] Setting up ip3
I0501 01:29:29.540805 10852 net.cpp:131] Top shape: 111 20 (2220)
I0501 01:29:29.540817 10852 net.cpp:139] Memory required for data: 10771884
I0501 01:29:29.540825 10852 layer_factory.hpp:77] Creating layer relu3
I0501 01:29:29.540832 10852 net.cpp:86] Creating Layer relu3
I0501 01:29:29.540835 10852 net.cpp:408] relu3 <- ip3
I0501 01:29:29.540841 10852 net.cpp:369] relu3 -> ip3 (in-place)
I0501 01:29:29.541039 10852 net.cpp:124] Setting up relu3
I0501 01:29:29.541049 10852 net.cpp:131] Top shape: 111 20 (2220)
I0501 01:29:29.541054 10852 net.cpp:139] Memory required for data: 10780764
I0501 01:29:29.541057 10852 layer_factory.hpp:77] Creating layer ip4
I0501 01:29:29.541084 10852 net.cpp:86] Creating Layer ip4
I0501 01:29:29.541087 10852 net.cpp:408] ip4 <- ip3
I0501 01:29:29.541093 10852 net.cpp:382] ip4 -> ip4
I0501 01:29:29.541218 10852 net.cpp:124] Setting up ip4
I0501 01:29:29.541227 10852 net.cpp:131] Top shape: 111 10 (1110)
I0501 01:29:29.541231 10852 net.cpp:139] Memory required for data: 10785204
I0501 01:29:29.541240 10852 layer_factory.hpp:77] Creating layer loss
I0501 01:29:29.541249 10852 net.cpp:86] Creating Layer loss
I0501 01:29:29.541252 10852 net.cpp:408] loss <- ip4
I0501 01:29:29.541257 10852 net.cpp:408] loss <- label
I0501 01:29:29.541263 10852 net.cpp:382] loss -> loss
I0501 01:29:29.541280 10852 layer_factory.hpp:77] Creating layer loss
…
I0501 01:29:29.542738 10852 solver.cpp:173] Creating test net (#0) specified by net file: ECE595/cifar/train_test/var_everything/cifar_train_test_291.prototxt
I0501 01:29:29.542773 10852 net.cpp:296] The NetState phase (1) differed from the phase (0) specified by a rule in layer cifar
I0501 01:29:29.542884 10852 net.cpp:53] Initializing net from parameters: 
name: "CIFAR"
state {
  phase: TEST
}
layer {
  name: "cifar"
  type: "Data"
  top: "data"
  top: "label"
  include {
    phase: TEST
  }
  transform_param {
    mean_file: "examples/cifar10/mean.binaryproto"
  }
  data_param {
    source: "examples/cifar10/cifar10_test_lmdb"
    batch_size: 1000
    backend: LMDB
  }
}
layer {
  name: "conv0"
  type: "Convolution"
  bottom: "data"
  top: "conv0"
  param {
    lr_mult: 1
  }
  param {
    lr_mult: 2
  }
  convolution_param {
    num_output: 8
    pad: 2
    kernel_size: 3
    stride: 1
    weight_filler {
      type: "gaussian"
      std: 0.01
    }
    bias_filler {
      type: "constant"
    }
  }
}
layer {
  name: "Sigmoid0"
  type: "Sigmoid"
  bottom: "conv0"
  top: "Sigmoid0"
}
layer {
  name: "pool0"
  type: "Pooling"
  bottom: "Sigmoid0"
  top: "pool0"
  pooling_param {
    pool: AVE
    kernel_size: 3
    stride: 2
  }
}
layer {
  name: "ip1"
  type: "InnerProduct"
  bottom: "pool0"
  top: "ip1"
  param {
    lr_mult: 1
  }
  param {
    lr_mult: 2
  }
  inner_product_param {
    num_output: 160
    weight_filler {
      type: "gaussian"
      std: 0.01
    }
    bias_filler {
      type: "constant"
    }
  }
}
layer {
  name: "relu1"
  type: "ReLU"
  bottom: "ip1"
  top: "ip1"
}
layer {
  name: "ip2"
  type: "InnerProduct"
  bottom: "ip1"
  top: "ip2"
  param {
    lr_mult: 1
  }
  param {
    lr_mult: 2
  }
  inner_product_param {
    num_output: 20
    weight_filler {
      type: "gaussian"
      std: 0.01
    }
    bias_filler {
      type: "constant"
    }
  }
}
layer {
  name: "relu2"
  type: "ReLU"
  bottom: "ip2"
  top: "ip2"
}
layer {
  name: "ip3"
  type: "InnerProduct"
  bottom: "ip2"
  top: "ip3"
  param {
    lr_mult: 1
  }
  param {
    lr_mult: 2
  }
  inner_product_param {
    num_output: 20
    weight_filler {
      type: "gaussian"
      std: 0.01
    }
    bias_filler {
      type: "constant"
    }
  }
}
layer {
  name: "relu3"
  type: "ReLU"
  bottom: "ip3"
  top: "ip3"
}
layer {
  name: "ip4"
  type: "InnerProduct"
  bottom: "ip3"
  top: "ip4"
  param {
    lr_mult: 1
  }
  param {
    lr_mult: 2
  }
  inner_product_param {
    num_output: 10
    weight_filler {
      type: "gaussian"
      std: 0.01
    }
    bias_filler {
      type: "constant"
    }
  }
}
layer {
  name: "accuracy"
  type: "Accuracy"
  bottom: "ip4"
  bottom: "label"
  top: "accuracy"
  include {
    phase: TEST
  }
}
layer {
  name: "loss"
  type: "SoftmaxWithLoss"
  bottom: "ip4"
  bottom: "label"
  top: "loss"
}
I0501 01:29:29.542979 10852 layer_factory.hpp:77] Creating layer cifar
I0501 01:29:29.543030 10852 db_lmdb.cpp:35] Opened lmdb examples/cifar10/cifar10_test_lmdb
I0501 01:29:29.543047 10852 net.cpp:86] Creating Layer cifar
I0501 01:29:29.543054 10852 net.cpp:382] cifar -> data
I0501 01:29:29.543064 10852 net.cpp:382] cifar -> label
I0501 01:29:29.543073 10852 data_transformer.cpp:25] Loading mean file from: examples/cifar10/mean.binaryproto
I0501 01:29:29.543246 10852 data_layer.cpp:45] output data size: 1000,3,32,32
I0501 01:29:29.569203 10852 net.cpp:124] Setting up cifar
I0501 01:29:29.569233 10852 net.cpp:131] Top shape: 1000 3 32 32 (3072000)
I0501 01:29:29.569243 10852 net.cpp:131] Top shape: 1000 (1000)
I0501 01:29:29.569247 10852 net.cpp:139] Memory required for data: 12292000
I0501 01:29:29.569253 10852 layer_factory.hpp:77] Creating layer label_cifar_1_split
I0501 01:29:29.569267 10852 net.cpp:86] Creating Layer label_cifar_1_split
I0501 01:29:29.569272 10852 net.cpp:408] label_cifar_1_split <- label
I0501 01:29:29.569279 10852 net.cpp:382] label_cifar_1_split -> label_cifar_1_split_0
I0501 01:29:29.569290 10852 net.cpp:382] label_cifar_1_split -> label_cifar_1_split_1
I0501 01:29:29.569432 10852 net.cpp:124] Setting up label_cifar_1_split
I0501 01:29:29.569440 10852 net.cpp:131] Top shape: 1000 (1000)
I0501 01:29:29.569445 10852 net.cpp:131] Top shape: 1000 (1000)
I0501 01:29:29.569449 10852 net.cpp:139] Memory required for data: 12300000
I0501 01:29:29.569453 10852 layer_factory.hpp:77] Creating layer conv0
I0501 01:29:29.569466 10852 net.cpp:86] Creating Layer conv0
I0501 01:29:29.569473 10852 net.cpp:408] conv0 <- data
I0501 01:29:29.569480 10852 net.cpp:382] conv0 -> conv0
I0501 01:29:29.571260 10852 net.cpp:124] Setting up conv0
I0501 01:29:29.571277 10852 net.cpp:131] Top shape: 1000 8 34 34 (9248000)
I0501 01:29:29.571285 10852 net.cpp:139] Memory required for data: 49292000
I0501 01:29:29.571297 10852 layer_factory.hpp:77] Creating layer Sigmoid0
I0501 01:29:29.571305 10852 net.cpp:86] Creating Layer Sigmoid0
I0501 01:29:29.571310 10852 net.cpp:408] Sigmoid0 <- conv0
I0501 01:29:29.571316 10852 net.cpp:382] Sigmoid0 -> Sigmoid0
I0501 01:29:29.572451 10852 net.cpp:124] Setting up Sigmoid0
I0501 01:29:29.572463 10852 net.cpp:131] Top shape: 1000 8 34 34 (9248000)
I0501 01:29:29.572468 10852 net.cpp:139] Memory required for data: 86284000
I0501 01:29:29.572471 10852 layer_factory.hpp:77] Creating layer pool0
I0501 01:29:29.572481 10852 net.cpp:86] Creating Layer pool0
I0501 01:29:29.572485 10852 net.cpp:408] pool0 <- Sigmoid0
I0501 01:29:29.572491 10852 net.cpp:382] pool0 -> pool0
I0501 01:29:29.572690 10852 net.cpp:124] Setting up pool0
I0501 01:29:29.572700 10852 net.cpp:131] Top shape: 1000 8 17 17 (2312000)
I0501 01:29:29.572703 10852 net.cpp:139] Memory required for data: 95532000
I0501 01:29:29.572710 10852 layer_factory.hpp:77] Creating layer ip1
I0501 01:29:29.572718 10852 net.cpp:86] Creating Layer ip1
I0501 01:29:29.572722 10852 net.cpp:408] ip1 <- pool0
I0501 01:29:29.572728 10852 net.cpp:382] ip1 -> ip1
I0501 01:29:29.585966 10852 net.cpp:124] Setting up ip1
I0501 01:29:29.585983 10852 net.cpp:131] Top shape: 1000 160 (160000)
I0501 01:29:29.585986 10852 net.cpp:139] Memory required for data: 96172000
I0501 01:29:29.586014 10852 layer_factory.hpp:77] Creating layer relu1
I0501 01:29:29.586021 10852 net.cpp:86] Creating Layer relu1
I0501 01:29:29.586025 10852 net.cpp:408] relu1 <- ip1
I0501 01:29:29.586031 10852 net.cpp:369] relu1 -> ip1 (in-place)
I0501 01:29:29.586237 10852 net.cpp:124] Setting up relu1
I0501 01:29:29.586248 10852 net.cpp:131] Top shape: 1000 160 (160000)
I0501 01:29:29.586252 10852 net.cpp:139] Memory required for data: 96812000
I0501 01:29:29.586256 10852 layer_factory.hpp:77] Creating layer ip2
I0501 01:29:29.586263 10852 net.cpp:86] Creating Layer ip2
I0501 01:29:29.586267 10852 net.cpp:408] ip2 <- ip1
I0501 01:29:29.586273 10852 net.cpp:382] ip2 -> ip2
I0501 01:29:29.586510 10852 net.cpp:124] Setting up ip2
I0501 01:29:29.586519 10852 net.cpp:131] Top shape: 1000 20 (20000)
I0501 01:29:29.586522 10852 net.cpp:139] Memory required for data: 96892000
I0501 01:29:29.586531 10852 layer_factory.hpp:77] Creating layer relu2
I0501 01:29:29.586539 10852 net.cpp:86] Creating Layer relu2
I0501 01:29:29.586542 10852 net.cpp:408] relu2 <- ip2
I0501 01:29:29.586549 10852 net.cpp:369] relu2 -> ip2 (in-place)
I0501 01:29:29.587431 10852 net.cpp:124] Setting up relu2
I0501 01:29:29.587446 10852 net.cpp:131] Top shape: 1000 20 (20000)
I0501 01:29:29.587450 10852 net.cpp:139] Memory required for data: 96972000
I0501 01:29:29.587455 10852 layer_factory.hpp:77] Creating layer ip3
I0501 01:29:29.587463 10852 net.cpp:86] Creating Layer ip3
I0501 01:29:29.587477 10852 net.cpp:408] ip3 <- ip2
I0501 01:29:29.587484 10852 net.cpp:382] ip3 -> ip3
I0501 01:29:29.587625 10852 net.cpp:124] Setting up ip3
I0501 01:29:29.587635 10852 net.cpp:131] Top shape: 1000 20 (20000)
I0501 01:29:29.587637 10852 net.cpp:139] Memory required for data: 97052000
I0501 01:29:29.587656 10852 layer_factory.hpp:77] Creating layer relu3
I0501 01:29:29.587661 10852 net.cpp:86] Creating Layer relu3
I0501 01:29:29.587666 10852 net.cpp:408] relu3 <- ip3
I0501 01:29:29.587671 10852 net.cpp:369] relu3 -> ip3 (in-place)
I0501 01:29:29.587872 10852 net.cpp:124] Setting up relu3
I0501 01:29:29.587882 10852 net.cpp:131] Top shape: 1000 20 (20000)
I0501 01:29:29.587887 10852 net.cpp:139] Memory required for data: 97132000
I0501 01:29:29.587890 10852 layer_factory.hpp:77] Creating layer ip4
I0501 01:29:29.587898 10852 net.cpp:86] Creating Layer ip4
I0501 01:29:29.587903 10852 net.cpp:408] ip4 <- ip3
I0501 01:29:29.587909 10852 net.cpp:382] ip4 -> ip4
I0501 01:29:29.588040 10852 net.cpp:124] Setting up ip4
I0501 01:29:29.588048 10852 net.cpp:131] Top shape: 1000 10 (10000)
I0501 01:29:29.588052 10852 net.cpp:139] Memory required for data: 97172000
I0501 01:29:29.588062 10852 layer_factory.hpp:77] Creating layer ip4_ip4_0_split
I0501 01:29:29.588068 10852 net.cpp:86] Creating Layer ip4_ip4_0_split
I0501 01:29:29.588071 10852 net.cpp:408] ip4_ip4_0_split <- ip4
I0501 01:29:29.588076 10852 net.cpp:382] ip4_ip4_0_split -> ip4_ip4_0_split_0
I0501 01:29:29.588083 10852 net.cpp:382] ip4_ip4_0_split -> ip4_ip4_0_split_1
I0501 01:29:29.588119 10852 net.cpp:124] Setting up ip4_ip4_0_split
I0501 01:29:29.588129 10852 net.cpp:131] Top shape: 1000 10 (10000)
I0501 01:29:29.588134 10852 net.cpp:131] Top shape: 1000 10 (10000)
I0501 01:29:29.588136 10852 net.cpp:139] Memory required for data: 97252000
I0501 01:29:29.588140 10852 layer_factory.hpp:77] Creating layer accuracy
I0501 01:29:29.588146 10852 net.cpp:86] Creating Layer accuracy
I0501 01:29:29.588150 10852 net.cpp:408] accuracy <- ip4_ip4_0_split_0
I0501 01:29:29.588155 10852 net.cpp:408] accuracy <- label_cifar_1_split_0
I0501 01:29:29.588160 10852 net.cpp:382] accuracy -> accuracy
…
