…
I0501 02:29:35.841521 15605 net.cpp:296] The NetState phase (0) differed from the phase (1) specified by a rule in layer cifar
I0501 02:29:35.841536 15605 net.cpp:296] The NetState phase (0) differed from the phase (1) specified by a rule in layer accuracy
I0501 02:29:35.841634 15605 net.cpp:53] Initializing net from parameters: 
name: "CIFAR"
state {
  phase: TRAIN
  level: 0
  stage: ""
}
layer {
  name: "cifar"
  type: "Data"
  top: "data"
  top: "label"
  include {
    phase: TRAIN
  }
  transform_param {
    mean_file: "examples/cifar10/mean.binaryproto"
  }
  data_param {
    source: "examples/cifar10/cifar10_train_lmdb"
    batch_size: 111
    backend: LMDB
  }
}
layer {
  name: "conv0"
  type: "Convolution"
  bottom: "data"
  top: "conv0"
  param {
    lr_mult: 1
  }
  param {
    lr_mult: 2
  }
  convolution_param {
    num_output: 8
    pad: 2
    kernel_size: 5
    stride: 1
    weight_filler {
      type: "gaussian"
      std: 0.01
    }
    bias_filler {
      type: "constant"
    }
  }
}
layer {
  name: "Sigmoid0"
  type: "Sigmoid"
  bottom: "conv0"
  top: "Sigmoid0"
}
layer {
  name: "pool0"
  type: "Pooling"
  bottom: "Sigmoid0"
  top: "pool0"
  pooling_param {
    pool: AVE
    kernel_size: 3
    stride: 2
  }
}
layer {
  name: "ip1"
  type: "InnerProduct"
  bottom: "pool0"
  top: "ip1"
  param {
    lr_mult: 1
  }
  param {
    lr_mult: 2
  }
  inner_product_param {
    num_output: 20
    weight_filler {
      type: "gaussian"
      std: 0.01
    }
    bias_filler {
      type: "constant"
    }
  }
}
layer {
  name: "relu1"
  type: "ReLU"
  bottom: "ip1"
  top: "ip1"
}
layer {
  name: "ip2"
  type: "InnerProduct"
  bottom: "ip1"
  top: "ip2"
  param {
    lr_mult: 1
  }
  param {
    lr_mult: 2
  }
  inner_product_param {
    num_output: 80
    weight_filler {
      type: "gaussian"
      std: 0.01
    }
    bias_filler {
      type: "constant"
    }
  }
}
layer {
  name: "relu2"
  type: "ReLU"
  bottom: "ip2"
  top: "ip2"
}
layer {
  name: "ip3"
  type: "InnerProduct"
  bottom: "ip2"
  top: "ip3"
  param {
    lr_mult: 1
  }
  param {
    lr_mult: 2
  }
  inner_product_param {
    num_output: 10
    weight_filler {
      type: "gaussian"
      std: 0.01
    }
    bias_filler {
      type: "constant"
    }
  }
}
layer {
  name: "loss"
  type: "SoftmaxWithLoss"
  bottom: "ip3"
  bottom: "label"
  top: "loss"
}
I0501 02:29:35.841707 15605 layer_factory.hpp:77] Creating layer cifar
I0501 02:29:35.841809 15605 db_lmdb.cpp:35] Opened lmdb examples/cifar10/cifar10_train_lmdb
I0501 02:29:35.841838 15605 net.cpp:86] Creating Layer cifar
I0501 02:29:35.841847 15605 net.cpp:382] cifar -> data
I0501 02:29:35.841872 15605 net.cpp:382] cifar -> label
I0501 02:29:35.841886 15605 data_transformer.cpp:25] Loading mean file from: examples/cifar10/mean.binaryproto
I0501 02:29:35.844243 15605 data_layer.cpp:45] output data size: 111,3,32,32
I0501 02:29:35.852206 15605 net.cpp:124] Setting up cifar
I0501 02:29:35.852226 15605 net.cpp:131] Top shape: 111 3 32 32 (340992)
I0501 02:29:35.852234 15605 net.cpp:131] Top shape: 111 (111)
I0501 02:29:35.852238 15605 net.cpp:139] Memory required for data: 1364412
I0501 02:29:35.852246 15605 layer_factory.hpp:77] Creating layer conv0
I0501 02:29:35.852264 15605 net.cpp:86] Creating Layer conv0
I0501 02:29:35.852269 15605 net.cpp:408] conv0 <- data
I0501 02:29:35.852283 15605 net.cpp:382] conv0 -> conv0
I0501 02:29:36.129866 15605 net.cpp:124] Setting up conv0
I0501 02:29:36.129912 15605 net.cpp:131] Top shape: 111 8 32 32 (909312)
I0501 02:29:36.129916 15605 net.cpp:139] Memory required for data: 5001660
I0501 02:29:36.129931 15605 layer_factory.hpp:77] Creating layer Sigmoid0
I0501 02:29:36.129943 15605 net.cpp:86] Creating Layer Sigmoid0
I0501 02:29:36.129947 15605 net.cpp:408] Sigmoid0 <- conv0
I0501 02:29:36.129952 15605 net.cpp:382] Sigmoid0 -> Sigmoid0
I0501 02:29:36.130134 15605 net.cpp:124] Setting up Sigmoid0
I0501 02:29:36.130143 15605 net.cpp:131] Top shape: 111 8 32 32 (909312)
I0501 02:29:36.130146 15605 net.cpp:139] Memory required for data: 8638908
I0501 02:29:36.130149 15605 layer_factory.hpp:77] Creating layer pool0
I0501 02:29:36.130156 15605 net.cpp:86] Creating Layer pool0
I0501 02:29:36.130159 15605 net.cpp:408] pool0 <- Sigmoid0
I0501 02:29:36.130163 15605 net.cpp:382] pool0 -> pool0
I0501 02:29:36.130897 15605 net.cpp:124] Setting up pool0
I0501 02:29:36.130926 15605 net.cpp:131] Top shape: 111 8 16 16 (227328)
I0501 02:29:36.130929 15605 net.cpp:139] Memory required for data: 9548220
I0501 02:29:36.130934 15605 layer_factory.hpp:77] Creating layer ip1
I0501 02:29:36.130942 15605 net.cpp:86] Creating Layer ip1
I0501 02:29:36.130945 15605 net.cpp:408] ip1 <- pool0
I0501 02:29:36.130951 15605 net.cpp:382] ip1 -> ip1
I0501 02:29:36.132899 15605 net.cpp:124] Setting up ip1
I0501 02:29:36.132911 15605 net.cpp:131] Top shape: 111 20 (2220)
I0501 02:29:36.132930 15605 net.cpp:139] Memory required for data: 9557100
I0501 02:29:36.132937 15605 layer_factory.hpp:77] Creating layer relu1
I0501 02:29:36.132943 15605 net.cpp:86] Creating Layer relu1
I0501 02:29:36.132946 15605 net.cpp:408] relu1 <- ip1
I0501 02:29:36.132951 15605 net.cpp:369] relu1 -> ip1 (in-place)
I0501 02:29:36.133124 15605 net.cpp:124] Setting up relu1
I0501 02:29:36.133147 15605 net.cpp:131] Top shape: 111 20 (2220)
I0501 02:29:36.133150 15605 net.cpp:139] Memory required for data: 9565980
I0501 02:29:36.133153 15605 layer_factory.hpp:77] Creating layer ip2
I0501 02:29:36.133158 15605 net.cpp:86] Creating Layer ip2
I0501 02:29:36.133162 15605 net.cpp:408] ip2 <- ip1
I0501 02:29:36.133167 15605 net.cpp:382] ip2 -> ip2
I0501 02:29:36.133298 15605 net.cpp:124] Setting up ip2
I0501 02:29:36.133306 15605 net.cpp:131] Top shape: 111 80 (8880)
I0501 02:29:36.133324 15605 net.cpp:139] Memory required for data: 9601500
I0501 02:29:36.133332 15605 layer_factory.hpp:77] Creating layer relu2
I0501 02:29:36.133338 15605 net.cpp:86] Creating Layer relu2
I0501 02:29:36.133342 15605 net.cpp:408] relu2 <- ip2
I0501 02:29:36.133347 15605 net.cpp:369] relu2 -> ip2 (in-place)
I0501 02:29:36.133498 15605 net.cpp:124] Setting up relu2
I0501 02:29:36.133505 15605 net.cpp:131] Top shape: 111 80 (8880)
I0501 02:29:36.133508 15605 net.cpp:139] Memory required for data: 9637020
I0501 02:29:36.133512 15605 layer_factory.hpp:77] Creating layer ip3
I0501 02:29:36.133518 15605 net.cpp:86] Creating Layer ip3
I0501 02:29:36.133522 15605 net.cpp:408] ip3 <- ip2
I0501 02:29:36.133527 15605 net.cpp:382] ip3 -> ip3
I0501 02:29:36.133649 15605 net.cpp:124] Setting up ip3
I0501 02:29:36.133656 15605 net.cpp:131] Top shape: 111 10 (1110)
I0501 02:29:36.133658 15605 net.cpp:139] Memory required for data: 9641460
I0501 02:29:36.133663 15605 layer_factory.hpp:77] Creating layer loss
I0501 02:29:36.133669 15605 net.cpp:86] Creating Layer loss
I0501 02:29:36.133673 15605 net.cpp:408] loss <- ip3
I0501 02:29:36.133677 15605 net.cpp:408] loss <- label
I0501 02:29:36.133697 15605 net.cpp:382] loss -> loss
I0501 02:29:36.133711 15605 layer_factory.hpp:77] Creating layer loss
…
I0501 02:29:36.134302 15605 solver.cpp:173] Creating test net (#0) specified by net file: ECE595/cifar/train_test/var_everything/cifar_train_test_323.prototxt
I0501 02:29:36.134326 15605 net.cpp:296] The NetState phase (1) differed from the phase (0) specified by a rule in layer cifar
I0501 02:29:36.134410 15605 net.cpp:53] Initializing net from parameters: 
name: "CIFAR"
state {
  phase: TEST
}
layer {
  name: "cifar"
  type: "Data"
  top: "data"
  top: "label"
  include {
    phase: TEST
  }
  transform_param {
    mean_file: "examples/cifar10/mean.binaryproto"
  }
  data_param {
    source: "examples/cifar10/cifar10_test_lmdb"
    batch_size: 1000
    backend: LMDB
  }
}
layer {
  name: "conv0"
  type: "Convolution"
  bottom: "data"
  top: "conv0"
  param {
    lr_mult: 1
  }
  param {
    lr_mult: 2
  }
  convolution_param {
    num_output: 8
    pad: 2
    kernel_size: 5
    stride: 1
    weight_filler {
      type: "gaussian"
      std: 0.01
    }
    bias_filler {
      type: "constant"
    }
  }
}
layer {
  name: "Sigmoid0"
  type: "Sigmoid"
  bottom: "conv0"
  top: "Sigmoid0"
}
layer {
  name: "pool0"
  type: "Pooling"
  bottom: "Sigmoid0"
  top: "pool0"
  pooling_param {
    pool: AVE
    kernel_size: 3
    stride: 2
  }
}
layer {
  name: "ip1"
  type: "InnerProduct"
  bottom: "pool0"
  top: "ip1"
  param {
    lr_mult: 1
  }
  param {
    lr_mult: 2
  }
  inner_product_param {
    num_output: 20
    weight_filler {
      type: "gaussian"
      std: 0.01
    }
    bias_filler {
      type: "constant"
    }
  }
}
layer {
  name: "relu1"
  type: "ReLU"
  bottom: "ip1"
  top: "ip1"
}
layer {
  name: "ip2"
  type: "InnerProduct"
  bottom: "ip1"
  top: "ip2"
  param {
    lr_mult: 1
  }
  param {
    lr_mult: 2
  }
  inner_product_param {
    num_output: 80
    weight_filler {
      type: "gaussian"
      std: 0.01
    }
    bias_filler {
      type: "constant"
    }
  }
}
layer {
  name: "relu2"
  type: "ReLU"
  bottom: "ip2"
  top: "ip2"
}
layer {
  name: "ip3"
  type: "InnerProduct"
  bottom: "ip2"
  top: "ip3"
  param {
    lr_mult: 1
  }
  param {
    lr_mult: 2
  }
  inner_product_param {
    num_output: 10
    weight_filler {
      type: "gaussian"
      std: 0.01
    }
    bias_filler {
      type: "constant"
    }
  }
}
layer {
  name: "accuracy"
  type: "Accuracy"
  bottom: "ip3"
  bottom: "label"
  top: "accuracy"
  include {
    phase: TEST
  }
}
layer {
  name: "loss"
  type: "SoftmaxWithLoss"
  bottom: "ip3"
  bottom: "label"
  top: "loss"
}
I0501 02:29:36.134474 15605 layer_factory.hpp:77] Creating layer cifar
I0501 02:29:36.134519 15605 db_lmdb.cpp:35] Opened lmdb examples/cifar10/cifar10_test_lmdb
I0501 02:29:36.134532 15605 net.cpp:86] Creating Layer cifar
I0501 02:29:36.134536 15605 net.cpp:382] cifar -> data
I0501 02:29:36.134543 15605 net.cpp:382] cifar -> label
I0501 02:29:36.134549 15605 data_transformer.cpp:25] Loading mean file from: examples/cifar10/mean.binaryproto
I0501 02:29:36.134687 15605 data_layer.cpp:45] output data size: 1000,3,32,32
I0501 02:29:36.156404 15605 net.cpp:124] Setting up cifar
I0501 02:29:36.156430 15605 net.cpp:131] Top shape: 1000 3 32 32 (3072000)
I0501 02:29:36.156435 15605 net.cpp:131] Top shape: 1000 (1000)
I0501 02:29:36.156438 15605 net.cpp:139] Memory required for data: 12292000
I0501 02:29:36.156443 15605 layer_factory.hpp:77] Creating layer label_cifar_1_split
I0501 02:29:36.156472 15605 net.cpp:86] Creating Layer label_cifar_1_split
I0501 02:29:36.156491 15605 net.cpp:408] label_cifar_1_split <- label
I0501 02:29:36.156498 15605 net.cpp:382] label_cifar_1_split -> label_cifar_1_split_0
I0501 02:29:36.156507 15605 net.cpp:382] label_cifar_1_split -> label_cifar_1_split_1
I0501 02:29:36.156563 15605 net.cpp:124] Setting up label_cifar_1_split
I0501 02:29:36.156570 15605 net.cpp:131] Top shape: 1000 (1000)
I0501 02:29:36.156574 15605 net.cpp:131] Top shape: 1000 (1000)
I0501 02:29:36.156577 15605 net.cpp:139] Memory required for data: 12300000
I0501 02:29:36.156580 15605 layer_factory.hpp:77] Creating layer conv0
I0501 02:29:36.156594 15605 net.cpp:86] Creating Layer conv0
I0501 02:29:36.156596 15605 net.cpp:408] conv0 <- data
I0501 02:29:36.156601 15605 net.cpp:382] conv0 -> conv0
I0501 02:29:36.158231 15605 net.cpp:124] Setting up conv0
I0501 02:29:36.158259 15605 net.cpp:131] Top shape: 1000 8 32 32 (8192000)
I0501 02:29:36.158262 15605 net.cpp:139] Memory required for data: 45068000
I0501 02:29:36.158273 15605 layer_factory.hpp:77] Creating layer Sigmoid0
I0501 02:29:36.158280 15605 net.cpp:86] Creating Layer Sigmoid0
I0501 02:29:36.158283 15605 net.cpp:408] Sigmoid0 <- conv0
I0501 02:29:36.158288 15605 net.cpp:382] Sigmoid0 -> Sigmoid0
I0501 02:29:36.159169 15605 net.cpp:124] Setting up Sigmoid0
I0501 02:29:36.159180 15605 net.cpp:131] Top shape: 1000 8 32 32 (8192000)
I0501 02:29:36.159198 15605 net.cpp:139] Memory required for data: 77836000
I0501 02:29:36.159202 15605 layer_factory.hpp:77] Creating layer pool0
I0501 02:29:36.159209 15605 net.cpp:86] Creating Layer pool0
I0501 02:29:36.159214 15605 net.cpp:408] pool0 <- Sigmoid0
I0501 02:29:36.159220 15605 net.cpp:382] pool0 -> pool0
I0501 02:29:36.160379 15605 net.cpp:124] Setting up pool0
I0501 02:29:36.160388 15605 net.cpp:131] Top shape: 1000 8 16 16 (2048000)
I0501 02:29:36.160408 15605 net.cpp:139] Memory required for data: 86028000
I0501 02:29:36.160411 15605 layer_factory.hpp:77] Creating layer ip1
I0501 02:29:36.160420 15605 net.cpp:86] Creating Layer ip1
I0501 02:29:36.160423 15605 net.cpp:408] ip1 <- pool0
I0501 02:29:36.160429 15605 net.cpp:382] ip1 -> ip1
I0501 02:29:36.161677 15605 net.cpp:124] Setting up ip1
I0501 02:29:36.161686 15605 net.cpp:131] Top shape: 1000 20 (20000)
I0501 02:29:36.161705 15605 net.cpp:139] Memory required for data: 86108000
I0501 02:29:36.161712 15605 layer_factory.hpp:77] Creating layer relu1
I0501 02:29:36.161718 15605 net.cpp:86] Creating Layer relu1
I0501 02:29:36.161722 15605 net.cpp:408] relu1 <- ip1
I0501 02:29:36.161726 15605 net.cpp:369] relu1 -> ip1 (in-place)
I0501 02:29:36.161916 15605 net.cpp:124] Setting up relu1
I0501 02:29:36.161924 15605 net.cpp:131] Top shape: 1000 20 (20000)
I0501 02:29:36.161927 15605 net.cpp:139] Memory required for data: 86188000
I0501 02:29:36.161931 15605 layer_factory.hpp:77] Creating layer ip2
I0501 02:29:36.161936 15605 net.cpp:86] Creating Layer ip2
I0501 02:29:36.161941 15605 net.cpp:408] ip2 <- ip1
I0501 02:29:36.161947 15605 net.cpp:382] ip2 -> ip2
I0501 02:29:36.162091 15605 net.cpp:124] Setting up ip2
I0501 02:29:36.162098 15605 net.cpp:131] Top shape: 1000 80 (80000)
I0501 02:29:36.162101 15605 net.cpp:139] Memory required for data: 86508000
I0501 02:29:36.162107 15605 layer_factory.hpp:77] Creating layer relu2
I0501 02:29:36.162114 15605 net.cpp:86] Creating Layer relu2
I0501 02:29:36.162117 15605 net.cpp:408] relu2 <- ip2
I0501 02:29:36.162122 15605 net.cpp:369] relu2 -> ip2 (in-place)
I0501 02:29:36.162281 15605 net.cpp:124] Setting up relu2
I0501 02:29:36.162289 15605 net.cpp:131] Top shape: 1000 80 (80000)
I0501 02:29:36.162292 15605 net.cpp:139] Memory required for data: 86828000
I0501 02:29:36.162295 15605 layer_factory.hpp:77] Creating layer ip3
I0501 02:29:36.162302 15605 net.cpp:86] Creating Layer ip3
I0501 02:29:36.162304 15605 net.cpp:408] ip3 <- ip2
I0501 02:29:36.162310 15605 net.cpp:382] ip3 -> ip3
I0501 02:29:36.162431 15605 net.cpp:124] Setting up ip3
I0501 02:29:36.162437 15605 net.cpp:131] Top shape: 1000 10 (10000)
I0501 02:29:36.162441 15605 net.cpp:139] Memory required for data: 86868000
I0501 02:29:36.162456 15605 layer_factory.hpp:77] Creating layer ip3_ip3_0_split
I0501 02:29:36.162461 15605 net.cpp:86] Creating Layer ip3_ip3_0_split
I0501 02:29:36.162464 15605 net.cpp:408] ip3_ip3_0_split <- ip3
I0501 02:29:36.162468 15605 net.cpp:382] ip3_ip3_0_split -> ip3_ip3_0_split_0
I0501 02:29:36.162474 15605 net.cpp:382] ip3_ip3_0_split -> ip3_ip3_0_split_1
I0501 02:29:36.162505 15605 net.cpp:124] Setting up ip3_ip3_0_split
I0501 02:29:36.162510 15605 net.cpp:131] Top shape: 1000 10 (10000)
I0501 02:29:36.162513 15605 net.cpp:131] Top shape: 1000 10 (10000)
I0501 02:29:36.162516 15605 net.cpp:139] Memory required for data: 86948000
I0501 02:29:36.162520 15605 layer_factory.hpp:77] Creating layer accuracy
I0501 02:29:36.162528 15605 net.cpp:86] Creating Layer accuracy
I0501 02:29:36.162530 15605 net.cpp:408] accuracy <- ip3_ip3_0_split_0
I0501 02:29:36.162533 15605 net.cpp:408] accuracy <- label_cifar_1_split_0
I0501 02:29:36.162538 15605 net.cpp:382] accuracy -> accuracy
…
