…
I0501 01:46:27.356423 12007 net.cpp:296] The NetState phase (0) differed from the phase (1) specified by a rule in layer cifar
I0501 01:46:27.356442 12007 net.cpp:296] The NetState phase (0) differed from the phase (1) specified by a rule in layer accuracy
I0501 01:46:27.356547 12007 net.cpp:53] Initializing net from parameters: 
name: "CIFAR"
state {
  phase: TRAIN
  level: 0
  stage: ""
}
layer {
  name: "cifar"
  type: "Data"
  top: "data"
  top: "label"
  include {
    phase: TRAIN
  }
  transform_param {
    mean_file: "examples/cifar10/mean.binaryproto"
  }
  data_param {
    source: "examples/cifar10/cifar10_train_lmdb"
    batch_size: 111
    backend: LMDB
  }
}
layer {
  name: "conv0"
  type: "Convolution"
  bottom: "data"
  top: "conv0"
  param {
    lr_mult: 1
  }
  param {
    lr_mult: 2
  }
  convolution_param {
    num_output: 8
    pad: 2
    kernel_size: 3
    stride: 1
    weight_filler {
      type: "gaussian"
      std: 0.01
    }
    bias_filler {
      type: "constant"
    }
  }
}
layer {
  name: "Sigmoid0"
  type: "Sigmoid"
  bottom: "conv0"
  top: "Sigmoid0"
}
layer {
  name: "pool0"
  type: "Pooling"
  bottom: "Sigmoid0"
  top: "pool0"
  pooling_param {
    pool: AVE
    kernel_size: 3
    stride: 2
  }
}
layer {
  name: "ip1"
  type: "InnerProduct"
  bottom: "pool0"
  top: "ip1"
  param {
    lr_mult: 1
  }
  param {
    lr_mult: 2
  }
  inner_product_param {
    num_output: 160
    weight_filler {
      type: "gaussian"
      std: 0.01
    }
    bias_filler {
      type: "constant"
    }
  }
}
layer {
  name: "relu1"
  type: "ReLU"
  bottom: "ip1"
  top: "ip1"
}
layer {
  name: "ip2"
  type: "InnerProduct"
  bottom: "ip1"
  top: "ip2"
  param {
    lr_mult: 1
  }
  param {
    lr_mult: 2
  }
  inner_product_param {
    num_output: 80
    weight_filler {
      type: "gaussian"
      std: 0.01
    }
    bias_filler {
      type: "constant"
    }
  }
}
layer {
  name: "relu2"
  type: "ReLU"
  bottom: "ip2"
  top: "ip2"
}
layer {
  name: "ip3"
  type: "InnerProduct"
  bottom: "ip2"
  top: "ip3"
  param {
    lr_mult: 1
  }
  param {
    lr_mult: 2
  }
  inner_product_param {
    num_output: 10
    weight_filler {
      type: "gaussian"
      std: 0.01
    }
    bias_filler {
      type: "constant"
    }
  }
}
layer {
  name: "relu3"
  type: "ReLU"
  bottom: "ip3"
  top: "ip3"
}
layer {
  name: "ip4"
  type: "InnerProduct"
  bottom: "ip3"
  top: "ip4"
  param {
    lr_mult: 1
  }
  param {
    lr_mult: 2
  }
  inner_product_param {
    num_output: 10
    weight_filler {
      type: "gaussian"
      std: 0.01
    }
    bias_filler {
      type: "constant"
    }
  }
}
layer {
  name: "loss"
  type: "SoftmaxWithLoss"
  bottom: "ip4"
  bottom: "label"
  top: "loss"
}
I0501 01:46:27.356624 12007 layer_factory.hpp:77] Creating layer cifar
I0501 01:46:27.356721 12007 db_lmdb.cpp:35] Opened lmdb examples/cifar10/cifar10_train_lmdb
I0501 01:46:27.356746 12007 net.cpp:86] Creating Layer cifar
I0501 01:46:27.356756 12007 net.cpp:382] cifar -> data
I0501 01:46:27.356777 12007 net.cpp:382] cifar -> label
I0501 01:46:27.356788 12007 data_transformer.cpp:25] Loading mean file from: examples/cifar10/mean.binaryproto
I0501 01:46:27.358983 12007 data_layer.cpp:45] output data size: 111,3,32,32
I0501 01:46:27.366955 12007 net.cpp:124] Setting up cifar
I0501 01:46:27.366973 12007 net.cpp:131] Top shape: 111 3 32 32 (340992)
I0501 01:46:27.366981 12007 net.cpp:131] Top shape: 111 (111)
I0501 01:46:27.366983 12007 net.cpp:139] Memory required for data: 1364412
I0501 01:46:27.367007 12007 layer_factory.hpp:77] Creating layer conv0
I0501 01:46:27.367027 12007 net.cpp:86] Creating Layer conv0
I0501 01:46:27.367033 12007 net.cpp:408] conv0 <- data
I0501 01:46:27.367048 12007 net.cpp:382] conv0 -> conv0
I0501 01:46:27.644062 12007 net.cpp:124] Setting up conv0
I0501 01:46:27.644089 12007 net.cpp:131] Top shape: 111 8 34 34 (1026528)
I0501 01:46:27.644093 12007 net.cpp:139] Memory required for data: 5470524
I0501 01:46:27.644109 12007 layer_factory.hpp:77] Creating layer Sigmoid0
I0501 01:46:27.644119 12007 net.cpp:86] Creating Layer Sigmoid0
I0501 01:46:27.644122 12007 net.cpp:408] Sigmoid0 <- conv0
I0501 01:46:27.644127 12007 net.cpp:382] Sigmoid0 -> Sigmoid0
I0501 01:46:27.644292 12007 net.cpp:124] Setting up Sigmoid0
I0501 01:46:27.644301 12007 net.cpp:131] Top shape: 111 8 34 34 (1026528)
I0501 01:46:27.644304 12007 net.cpp:139] Memory required for data: 9576636
I0501 01:46:27.644307 12007 layer_factory.hpp:77] Creating layer pool0
I0501 01:46:27.644315 12007 net.cpp:86] Creating Layer pool0
I0501 01:46:27.644317 12007 net.cpp:408] pool0 <- Sigmoid0
I0501 01:46:27.644321 12007 net.cpp:382] pool0 -> pool0
I0501 01:46:27.645056 12007 net.cpp:124] Setting up pool0
I0501 01:46:27.645083 12007 net.cpp:131] Top shape: 111 8 17 17 (256632)
I0501 01:46:27.645087 12007 net.cpp:139] Memory required for data: 10603164
I0501 01:46:27.645090 12007 layer_factory.hpp:77] Creating layer ip1
I0501 01:46:27.645099 12007 net.cpp:86] Creating Layer ip1
I0501 01:46:27.645103 12007 net.cpp:408] ip1 <- pool0
I0501 01:46:27.645122 12007 net.cpp:382] ip1 -> ip1
I0501 01:46:27.655308 12007 net.cpp:124] Setting up ip1
I0501 01:46:27.655319 12007 net.cpp:131] Top shape: 111 160 (17760)
I0501 01:46:27.655323 12007 net.cpp:139] Memory required for data: 10674204
I0501 01:46:27.655330 12007 layer_factory.hpp:77] Creating layer relu1
I0501 01:46:27.655336 12007 net.cpp:86] Creating Layer relu1
I0501 01:46:27.655339 12007 net.cpp:408] relu1 <- ip1
I0501 01:46:27.655344 12007 net.cpp:369] relu1 -> ip1 (in-place)
I0501 01:46:27.655521 12007 net.cpp:124] Setting up relu1
I0501 01:46:27.655530 12007 net.cpp:131] Top shape: 111 160 (17760)
I0501 01:46:27.655534 12007 net.cpp:139] Memory required for data: 10745244
I0501 01:46:27.655536 12007 layer_factory.hpp:77] Creating layer ip2
I0501 01:46:27.655542 12007 net.cpp:86] Creating Layer ip2
I0501 01:46:27.655545 12007 net.cpp:408] ip2 <- ip1
I0501 01:46:27.655550 12007 net.cpp:382] ip2 -> ip2
I0501 01:46:27.656770 12007 net.cpp:124] Setting up ip2
I0501 01:46:27.656781 12007 net.cpp:131] Top shape: 111 80 (8880)
I0501 01:46:27.656785 12007 net.cpp:139] Memory required for data: 10780764
I0501 01:46:27.656792 12007 layer_factory.hpp:77] Creating layer relu2
I0501 01:46:27.656798 12007 net.cpp:86] Creating Layer relu2
I0501 01:46:27.656801 12007 net.cpp:408] relu2 <- ip2
I0501 01:46:27.656805 12007 net.cpp:369] relu2 -> ip2 (in-place)
I0501 01:46:27.657025 12007 net.cpp:124] Setting up relu2
I0501 01:46:27.657034 12007 net.cpp:131] Top shape: 111 80 (8880)
I0501 01:46:27.657037 12007 net.cpp:139] Memory required for data: 10816284
I0501 01:46:27.657040 12007 layer_factory.hpp:77] Creating layer ip3
I0501 01:46:27.657048 12007 net.cpp:86] Creating Layer ip3
I0501 01:46:27.657052 12007 net.cpp:408] ip3 <- ip2
I0501 01:46:27.657057 12007 net.cpp:382] ip3 -> ip3
I0501 01:46:27.657979 12007 net.cpp:124] Setting up ip3
I0501 01:46:27.657989 12007 net.cpp:131] Top shape: 111 10 (1110)
I0501 01:46:27.657994 12007 net.cpp:139] Memory required for data: 10820724
I0501 01:46:27.657999 12007 layer_factory.hpp:77] Creating layer relu3
I0501 01:46:27.658004 12007 net.cpp:86] Creating Layer relu3
I0501 01:46:27.658006 12007 net.cpp:408] relu3 <- ip3
I0501 01:46:27.658010 12007 net.cpp:369] relu3 -> ip3 (in-place)
I0501 01:46:27.658174 12007 net.cpp:124] Setting up relu3
I0501 01:46:27.658182 12007 net.cpp:131] Top shape: 111 10 (1110)
I0501 01:46:27.658185 12007 net.cpp:139] Memory required for data: 10825164
I0501 01:46:27.658188 12007 layer_factory.hpp:77] Creating layer ip4
I0501 01:46:27.658208 12007 net.cpp:86] Creating Layer ip4
I0501 01:46:27.658211 12007 net.cpp:408] ip4 <- ip3
I0501 01:46:27.658216 12007 net.cpp:382] ip4 -> ip4
I0501 01:46:27.658309 12007 net.cpp:124] Setting up ip4
I0501 01:46:27.658316 12007 net.cpp:131] Top shape: 111 10 (1110)
I0501 01:46:27.658319 12007 net.cpp:139] Memory required for data: 10829604
I0501 01:46:27.658326 12007 layer_factory.hpp:77] Creating layer loss
I0501 01:46:27.658336 12007 net.cpp:86] Creating Layer loss
I0501 01:46:27.658339 12007 net.cpp:408] loss <- ip4
I0501 01:46:27.658342 12007 net.cpp:408] loss <- label
I0501 01:46:27.658347 12007 net.cpp:382] loss -> loss
I0501 01:46:27.658360 12007 layer_factory.hpp:77] Creating layer loss
…
I0501 01:46:27.659533 12007 solver.cpp:173] Creating test net (#0) specified by net file: ECE595/cifar/train_test/var_everything/cifar_train_test_300.prototxt
I0501 01:46:27.659564 12007 net.cpp:296] The NetState phase (1) differed from the phase (0) specified by a rule in layer cifar
I0501 01:46:27.659653 12007 net.cpp:53] Initializing net from parameters: 
name: "CIFAR"
state {
  phase: TEST
}
layer {
  name: "cifar"
  type: "Data"
  top: "data"
  top: "label"
  include {
    phase: TEST
  }
  transform_param {
    mean_file: "examples/cifar10/mean.binaryproto"
  }
  data_param {
    source: "examples/cifar10/cifar10_test_lmdb"
    batch_size: 1000
    backend: LMDB
  }
}
layer {
  name: "conv0"
  type: "Convolution"
  bottom: "data"
  top: "conv0"
  param {
    lr_mult: 1
  }
  param {
    lr_mult: 2
  }
  convolution_param {
    num_output: 8
    pad: 2
    kernel_size: 3
    stride: 1
    weight_filler {
      type: "gaussian"
      std: 0.01
    }
    bias_filler {
      type: "constant"
    }
  }
}
layer {
  name: "Sigmoid0"
  type: "Sigmoid"
  bottom: "conv0"
  top: "Sigmoid0"
}
layer {
  name: "pool0"
  type: "Pooling"
  bottom: "Sigmoid0"
  top: "pool0"
  pooling_param {
    pool: AVE
    kernel_size: 3
    stride: 2
  }
}
layer {
  name: "ip1"
  type: "InnerProduct"
  bottom: "pool0"
  top: "ip1"
  param {
    lr_mult: 1
  }
  param {
    lr_mult: 2
  }
  inner_product_param {
    num_output: 160
    weight_filler {
      type: "gaussian"
      std: 0.01
    }
    bias_filler {
      type: "constant"
    }
  }
}
layer {
  name: "relu1"
  type: "ReLU"
  bottom: "ip1"
  top: "ip1"
}
layer {
  name: "ip2"
  type: "InnerProduct"
  bottom: "ip1"
  top: "ip2"
  param {
    lr_mult: 1
  }
  param {
    lr_mult: 2
  }
  inner_product_param {
    num_output: 80
    weight_filler {
      type: "gaussian"
      std: 0.01
    }
    bias_filler {
      type: "constant"
    }
  }
}
layer {
  name: "relu2"
  type: "ReLU"
  bottom: "ip2"
  top: "ip2"
}
layer {
  name: "ip3"
  type: "InnerProduct"
  bottom: "ip2"
  top: "ip3"
  param {
    lr_mult: 1
  }
  param {
    lr_mult: 2
  }
  inner_product_param {
    num_output: 10
    weight_filler {
      type: "gaussian"
      std: 0.01
    }
    bias_filler {
      type: "constant"
    }
  }
}
layer {
  name: "relu3"
  type: "ReLU"
  bottom: "ip3"
  top: "ip3"
}
layer {
  name: "ip4"
  type: "InnerProduct"
  bottom: "ip3"
  top: "ip4"
  param {
    lr_mult: 1
  }
  param {
    lr_mult: 2
  }
  inner_product_param {
    num_output: 10
    weight_filler {
      type: "gaussian"
      std: 0.01
    }
    bias_filler {
      type: "constant"
    }
  }
}
layer {
  name: "accuracy"
  type: "Accuracy"
  bottom: "ip4"
  bottom: "label"
  top: "accuracy"
  include {
    phase: TEST
  }
}
layer {
  name: "loss"
  type: "SoftmaxWithLoss"
  bottom: "ip4"
  bottom: "label"
  top: "loss"
}
I0501 01:46:27.659726 12007 layer_factory.hpp:77] Creating layer cifar
I0501 01:46:27.659785 12007 db_lmdb.cpp:35] Opened lmdb examples/cifar10/cifar10_test_lmdb
I0501 01:46:27.659797 12007 net.cpp:86] Creating Layer cifar
I0501 01:46:27.659801 12007 net.cpp:382] cifar -> data
I0501 01:46:27.659809 12007 net.cpp:382] cifar -> label
I0501 01:46:27.659816 12007 data_transformer.cpp:25] Loading mean file from: examples/cifar10/mean.binaryproto
I0501 01:46:27.659951 12007 data_layer.cpp:45] output data size: 1000,3,32,32
I0501 01:46:27.681409 12007 net.cpp:124] Setting up cifar
I0501 01:46:27.681437 12007 net.cpp:131] Top shape: 1000 3 32 32 (3072000)
I0501 01:46:27.681442 12007 net.cpp:131] Top shape: 1000 (1000)
I0501 01:46:27.681444 12007 net.cpp:139] Memory required for data: 12292000
I0501 01:46:27.681449 12007 layer_factory.hpp:77] Creating layer label_cifar_1_split
I0501 01:46:27.681460 12007 net.cpp:86] Creating Layer label_cifar_1_split
I0501 01:46:27.681464 12007 net.cpp:408] label_cifar_1_split <- label
I0501 01:46:27.681486 12007 net.cpp:382] label_cifar_1_split -> label_cifar_1_split_0
I0501 01:46:27.681494 12007 net.cpp:382] label_cifar_1_split -> label_cifar_1_split_1
I0501 01:46:27.681550 12007 net.cpp:124] Setting up label_cifar_1_split
I0501 01:46:27.681556 12007 net.cpp:131] Top shape: 1000 (1000)
I0501 01:46:27.681560 12007 net.cpp:131] Top shape: 1000 (1000)
I0501 01:46:27.681561 12007 net.cpp:139] Memory required for data: 12300000
I0501 01:46:27.681565 12007 layer_factory.hpp:77] Creating layer conv0
I0501 01:46:27.681591 12007 net.cpp:86] Creating Layer conv0
I0501 01:46:27.681594 12007 net.cpp:408] conv0 <- data
I0501 01:46:27.681599 12007 net.cpp:382] conv0 -> conv0
I0501 01:46:27.683378 12007 net.cpp:124] Setting up conv0
I0501 01:46:27.683392 12007 net.cpp:131] Top shape: 1000 8 34 34 (9248000)
I0501 01:46:27.683395 12007 net.cpp:139] Memory required for data: 49292000
I0501 01:46:27.683404 12007 layer_factory.hpp:77] Creating layer Sigmoid0
I0501 01:46:27.683425 12007 net.cpp:86] Creating Layer Sigmoid0
I0501 01:46:27.683429 12007 net.cpp:408] Sigmoid0 <- conv0
I0501 01:46:27.683435 12007 net.cpp:382] Sigmoid0 -> Sigmoid0
I0501 01:46:27.683609 12007 net.cpp:124] Setting up Sigmoid0
I0501 01:46:27.683619 12007 net.cpp:131] Top shape: 1000 8 34 34 (9248000)
I0501 01:46:27.683621 12007 net.cpp:139] Memory required for data: 86284000
I0501 01:46:27.683624 12007 layer_factory.hpp:77] Creating layer pool0
I0501 01:46:27.683632 12007 net.cpp:86] Creating Layer pool0
I0501 01:46:27.683635 12007 net.cpp:408] pool0 <- Sigmoid0
I0501 01:46:27.683640 12007 net.cpp:382] pool0 -> pool0
I0501 01:46:27.683816 12007 net.cpp:124] Setting up pool0
I0501 01:46:27.683825 12007 net.cpp:131] Top shape: 1000 8 17 17 (2312000)
I0501 01:46:27.683827 12007 net.cpp:139] Memory required for data: 95532000
I0501 01:46:27.683830 12007 layer_factory.hpp:77] Creating layer ip1
I0501 01:46:27.683840 12007 net.cpp:86] Creating Layer ip1
I0501 01:46:27.683842 12007 net.cpp:408] ip1 <- pool0
I0501 01:46:27.683848 12007 net.cpp:382] ip1 -> ip1
I0501 01:46:27.694226 12007 net.cpp:124] Setting up ip1
I0501 01:46:27.694241 12007 net.cpp:131] Top shape: 1000 160 (160000)
I0501 01:46:27.694243 12007 net.cpp:139] Memory required for data: 96172000
I0501 01:46:27.694280 12007 layer_factory.hpp:77] Creating layer relu1
I0501 01:46:27.694296 12007 net.cpp:86] Creating Layer relu1
I0501 01:46:27.694300 12007 net.cpp:408] relu1 <- ip1
I0501 01:46:27.694304 12007 net.cpp:369] relu1 -> ip1 (in-place)
I0501 01:46:27.694473 12007 net.cpp:124] Setting up relu1
I0501 01:46:27.694481 12007 net.cpp:131] Top shape: 1000 160 (160000)
I0501 01:46:27.694484 12007 net.cpp:139] Memory required for data: 96812000
I0501 01:46:27.694488 12007 layer_factory.hpp:77] Creating layer ip2
I0501 01:46:27.694495 12007 net.cpp:86] Creating Layer ip2
I0501 01:46:27.694499 12007 net.cpp:408] ip2 <- ip1
I0501 01:46:27.694504 12007 net.cpp:382] ip2 -> ip2
I0501 01:46:27.694962 12007 net.cpp:124] Setting up ip2
I0501 01:46:27.694969 12007 net.cpp:131] Top shape: 1000 80 (80000)
I0501 01:46:27.694972 12007 net.cpp:139] Memory required for data: 97132000
I0501 01:46:27.694979 12007 layer_factory.hpp:77] Creating layer relu2
I0501 01:46:27.695000 12007 net.cpp:86] Creating Layer relu2
I0501 01:46:27.695004 12007 net.cpp:408] relu2 <- ip2
I0501 01:46:27.695008 12007 net.cpp:369] relu2 -> ip2 (in-place)
I0501 01:46:27.695742 12007 net.cpp:124] Setting up relu2
I0501 01:46:27.695755 12007 net.cpp:131] Top shape: 1000 80 (80000)
I0501 01:46:27.695757 12007 net.cpp:139] Memory required for data: 97452000
I0501 01:46:27.695760 12007 layer_factory.hpp:77] Creating layer ip3
I0501 01:46:27.695767 12007 net.cpp:86] Creating Layer ip3
I0501 01:46:27.695786 12007 net.cpp:408] ip3 <- ip2
I0501 01:46:27.695791 12007 net.cpp:382] ip3 -> ip3
I0501 01:46:27.695935 12007 net.cpp:124] Setting up ip3
I0501 01:46:27.695942 12007 net.cpp:131] Top shape: 1000 10 (10000)
I0501 01:46:27.695945 12007 net.cpp:139] Memory required for data: 97492000
I0501 01:46:27.695950 12007 layer_factory.hpp:77] Creating layer relu3
I0501 01:46:27.695955 12007 net.cpp:86] Creating Layer relu3
I0501 01:46:27.695958 12007 net.cpp:408] relu3 <- ip3
I0501 01:46:27.695963 12007 net.cpp:369] relu3 -> ip3 (in-place)
I0501 01:46:27.696116 12007 net.cpp:124] Setting up relu3
I0501 01:46:27.696138 12007 net.cpp:131] Top shape: 1000 10 (10000)
I0501 01:46:27.696141 12007 net.cpp:139] Memory required for data: 97532000
I0501 01:46:27.696144 12007 layer_factory.hpp:77] Creating layer ip4
I0501 01:46:27.696151 12007 net.cpp:86] Creating Layer ip4
I0501 01:46:27.696153 12007 net.cpp:408] ip4 <- ip3
I0501 01:46:27.696158 12007 net.cpp:382] ip4 -> ip4
I0501 01:46:27.696259 12007 net.cpp:124] Setting up ip4
I0501 01:46:27.696265 12007 net.cpp:131] Top shape: 1000 10 (10000)
I0501 01:46:27.696269 12007 net.cpp:139] Memory required for data: 97572000
I0501 01:46:27.696285 12007 layer_factory.hpp:77] Creating layer ip4_ip4_0_split
I0501 01:46:27.696290 12007 net.cpp:86] Creating Layer ip4_ip4_0_split
I0501 01:46:27.696293 12007 net.cpp:408] ip4_ip4_0_split <- ip4
I0501 01:46:27.696297 12007 net.cpp:382] ip4_ip4_0_split -> ip4_ip4_0_split_0
I0501 01:46:27.696301 12007 net.cpp:382] ip4_ip4_0_split -> ip4_ip4_0_split_1
I0501 01:46:27.696333 12007 net.cpp:124] Setting up ip4_ip4_0_split
I0501 01:46:27.696338 12007 net.cpp:131] Top shape: 1000 10 (10000)
I0501 01:46:27.696341 12007 net.cpp:131] Top shape: 1000 10 (10000)
I0501 01:46:27.696344 12007 net.cpp:139] Memory required for data: 97652000
I0501 01:46:27.696346 12007 layer_factory.hpp:77] Creating layer accuracy
I0501 01:46:27.696352 12007 net.cpp:86] Creating Layer accuracy
I0501 01:46:27.696354 12007 net.cpp:408] accuracy <- ip4_ip4_0_split_0
I0501 01:46:27.696357 12007 net.cpp:408] accuracy <- label_cifar_1_split_0
I0501 01:46:27.696362 12007 net.cpp:382] accuracy -> accuracy
…
