…
I0430 20:42:36.340322 29211 net.cpp:296] The NetState phase (0) differed from the phase (1) specified by a rule in layer cifar
I0430 20:42:36.340342 29211 net.cpp:296] The NetState phase (0) differed from the phase (1) specified by a rule in layer accuracy
I0430 20:42:36.340427 29211 net.cpp:53] Initializing net from parameters: 
name: "CIFAR"
state {
  phase: TRAIN
  level: 0
  stage: ""
}
layer {
  name: "cifar"
  type: "Data"
  top: "data"
  top: "label"
  include {
    phase: TRAIN
  }
  transform_param {
    mean_file: "examples/cifar10/mean.binaryproto"
  }
  data_param {
    source: "examples/cifar10/cifar10_train_lmdb"
    batch_size: 111
    backend: LMDB
  }
}
layer {
  name: "ip1"
  type: "InnerProduct"
  bottom: "data"
  top: "ip1"
  param {
    lr_mult: 1
  }
  param {
    lr_mult: 2
  }
  inner_product_param {
    num_output: 160
    weight_filler {
      type: "gaussian"
      std: 0.01
    }
    bias_filler {
      type: "constant"
    }
  }
}
layer {
  name: "relu1"
  type: "ReLU"
  bottom: "ip1"
  top: "ip1"
}
layer {
  name: "ip2"
  type: "InnerProduct"
  bottom: "ip1"
  top: "ip2"
  param {
    lr_mult: 1
  }
  param {
    lr_mult: 2
  }
  inner_product_param {
    num_output: 20
    weight_filler {
      type: "gaussian"
      std: 0.01
    }
    bias_filler {
      type: "constant"
    }
  }
}
layer {
  name: "relu2"
  type: "ReLU"
  bottom: "ip2"
  top: "ip2"
}
layer {
  name: "ip3"
  type: "InnerProduct"
  bottom: "ip2"
  top: "ip3"
  param {
    lr_mult: 1
  }
  param {
    lr_mult: 2
  }
  inner_product_param {
    num_output: 80
    weight_filler {
      type: "gaussian"
      std: 0.01
    }
    bias_filler {
      type: "constant"
    }
  }
}
layer {
  name: "relu3"
  type: "ReLU"
  bottom: "ip3"
  top: "ip3"
}
layer {
  name: "ip4"
  type: "InnerProduct"
  bottom: "ip3"
  top: "ip4"
  param {
    lr_mult: 1
  }
  param {
    lr_mult: 2
  }
  inner_product_param {
    num_output: 10
    weight_filler {
      type: "gaussian"
      std: 0.01
    }
    bias_filler {
      type: "constant"
    }
  }
}
layer {
  name: "loss"
  type: "SoftmaxWithLoss"
  bottom: "ip4"
  bottom: "label"
  top: "loss"
}
I0430 20:42:36.340499 29211 layer_factory.hpp:77] Creating layer cifar
I0430 20:42:36.340597 29211 db_lmdb.cpp:35] Opened lmdb examples/cifar10/cifar10_train_lmdb
I0430 20:42:36.340626 29211 net.cpp:86] Creating Layer cifar
I0430 20:42:36.340636 29211 net.cpp:382] cifar -> data
I0430 20:42:36.340658 29211 net.cpp:382] cifar -> label
I0430 20:42:36.340672 29211 data_transformer.cpp:25] Loading mean file from: examples/cifar10/mean.binaryproto
I0430 20:42:36.342784 29211 data_layer.cpp:45] output data size: 111,3,32,32
I0430 20:42:36.350864 29211 net.cpp:124] Setting up cifar
I0430 20:42:36.350885 29211 net.cpp:131] Top shape: 111 3 32 32 (340992)
I0430 20:42:36.350893 29211 net.cpp:131] Top shape: 111 (111)
I0430 20:42:36.350896 29211 net.cpp:139] Memory required for data: 1364412
I0430 20:42:36.350903 29211 layer_factory.hpp:77] Creating layer ip1
I0430 20:42:36.350914 29211 net.cpp:86] Creating Layer ip1
I0430 20:42:36.350919 29211 net.cpp:408] ip1 <- data
I0430 20:42:36.350941 29211 net.cpp:382] ip1 -> ip1
I0430 20:42:36.368249 29211 net.cpp:124] Setting up ip1
I0430 20:42:36.368266 29211 net.cpp:131] Top shape: 111 160 (17760)
I0430 20:42:36.368270 29211 net.cpp:139] Memory required for data: 1435452
I0430 20:42:36.368284 29211 layer_factory.hpp:77] Creating layer relu1
I0430 20:42:36.368309 29211 net.cpp:86] Creating Layer relu1
I0430 20:42:36.368314 29211 net.cpp:408] relu1 <- ip1
I0430 20:42:36.368319 29211 net.cpp:369] relu1 -> ip1 (in-place)
I0430 20:42:36.633894 29211 net.cpp:124] Setting up relu1
I0430 20:42:36.633925 29211 net.cpp:131] Top shape: 111 160 (17760)
I0430 20:42:36.633929 29211 net.cpp:139] Memory required for data: 1506492
I0430 20:42:36.633949 29211 layer_factory.hpp:77] Creating layer ip2
I0430 20:42:36.633962 29211 net.cpp:86] Creating Layer ip2
I0430 20:42:36.633966 29211 net.cpp:408] ip2 <- ip1
I0430 20:42:36.633973 29211 net.cpp:382] ip2 -> ip2
I0430 20:42:36.634178 29211 net.cpp:124] Setting up ip2
I0430 20:42:36.634186 29211 net.cpp:131] Top shape: 111 20 (2220)
I0430 20:42:36.634191 29211 net.cpp:139] Memory required for data: 1515372
I0430 20:42:36.634199 29211 layer_factory.hpp:77] Creating layer relu2
I0430 20:42:36.634207 29211 net.cpp:86] Creating Layer relu2
I0430 20:42:36.634210 29211 net.cpp:408] relu2 <- ip2
I0430 20:42:36.634214 29211 net.cpp:369] relu2 -> ip2 (in-place)
I0430 20:42:36.634986 29211 net.cpp:124] Setting up relu2
I0430 20:42:36.634999 29211 net.cpp:131] Top shape: 111 20 (2220)
I0430 20:42:36.635001 29211 net.cpp:139] Memory required for data: 1524252
I0430 20:42:36.635005 29211 layer_factory.hpp:77] Creating layer ip3
I0430 20:42:36.635011 29211 net.cpp:86] Creating Layer ip3
I0430 20:42:36.635015 29211 net.cpp:408] ip3 <- ip2
I0430 20:42:36.635020 29211 net.cpp:382] ip3 -> ip3
I0430 20:42:36.635185 29211 net.cpp:124] Setting up ip3
I0430 20:42:36.635193 29211 net.cpp:131] Top shape: 111 80 (8880)
I0430 20:42:36.635196 29211 net.cpp:139] Memory required for data: 1559772
I0430 20:42:36.635203 29211 layer_factory.hpp:77] Creating layer relu3
I0430 20:42:36.635208 29211 net.cpp:86] Creating Layer relu3
I0430 20:42:36.635211 29211 net.cpp:408] relu3 <- ip3
I0430 20:42:36.635215 29211 net.cpp:369] relu3 -> ip3 (in-place)
I0430 20:42:36.635354 29211 net.cpp:124] Setting up relu3
I0430 20:42:36.635377 29211 net.cpp:131] Top shape: 111 80 (8880)
I0430 20:42:36.635380 29211 net.cpp:139] Memory required for data: 1595292
I0430 20:42:36.635383 29211 layer_factory.hpp:77] Creating layer ip4
I0430 20:42:36.635390 29211 net.cpp:86] Creating Layer ip4
I0430 20:42:36.635392 29211 net.cpp:408] ip4 <- ip3
I0430 20:42:36.635396 29211 net.cpp:382] ip4 -> ip4
I0430 20:42:36.636297 29211 net.cpp:124] Setting up ip4
I0430 20:42:36.636309 29211 net.cpp:131] Top shape: 111 10 (1110)
I0430 20:42:36.636328 29211 net.cpp:139] Memory required for data: 1599732
I0430 20:42:36.636333 29211 layer_factory.hpp:77] Creating layer loss
I0430 20:42:36.636340 29211 net.cpp:86] Creating Layer loss
I0430 20:42:36.636343 29211 net.cpp:408] loss <- ip4
I0430 20:42:36.636348 29211 net.cpp:408] loss <- label
I0430 20:42:36.636353 29211 net.cpp:382] loss -> loss
I0430 20:42:36.636390 29211 layer_factory.hpp:77] Creating layer loss
…
I0430 20:42:36.636946 29211 solver.cpp:173] Creating test net (#0) specified by net file: ECE595/cifar/train_test/var_everything/cifar_train_test_138.prototxt
I0430 20:42:36.636983 29211 net.cpp:296] The NetState phase (1) differed from the phase (0) specified by a rule in layer cifar
I0430 20:42:36.637058 29211 net.cpp:53] Initializing net from parameters: 
name: "CIFAR"
state {
  phase: TEST
}
layer {
  name: "cifar"
  type: "Data"
  top: "data"
  top: "label"
  include {
    phase: TEST
  }
  transform_param {
    mean_file: "examples/cifar10/mean.binaryproto"
  }
  data_param {
    source: "examples/cifar10/cifar10_test_lmdb"
    batch_size: 1000
    backend: LMDB
  }
}
layer {
  name: "ip1"
  type: "InnerProduct"
  bottom: "data"
  top: "ip1"
  param {
    lr_mult: 1
  }
  param {
    lr_mult: 2
  }
  inner_product_param {
    num_output: 160
    weight_filler {
      type: "gaussian"
      std: 0.01
    }
    bias_filler {
      type: "constant"
    }
  }
}
layer {
  name: "relu1"
  type: "ReLU"
  bottom: "ip1"
  top: "ip1"
}
layer {
  name: "ip2"
  type: "InnerProduct"
  bottom: "ip1"
  top: "ip2"
  param {
    lr_mult: 1
  }
  param {
    lr_mult: 2
  }
  inner_product_param {
    num_output: 20
    weight_filler {
      type: "gaussian"
      std: 0.01
    }
    bias_filler {
      type: "constant"
    }
  }
}
layer {
  name: "relu2"
  type: "ReLU"
  bottom: "ip2"
  top: "ip2"
}
layer {
  name: "ip3"
  type: "InnerProduct"
  bottom: "ip2"
  top: "ip3"
  param {
    lr_mult: 1
  }
  param {
    lr_mult: 2
  }
  inner_product_param {
    num_output: 80
    weight_filler {
      type: "gaussian"
      std: 0.01
    }
    bias_filler {
      type: "constant"
    }
  }
}
layer {
  name: "relu3"
  type: "ReLU"
  bottom: "ip3"
  top: "ip3"
}
layer {
  name: "ip4"
  type: "InnerProduct"
  bottom: "ip3"
  top: "ip4"
  param {
    lr_mult: 1
  }
  param {
    lr_mult: 2
  }
  inner_product_param {
    num_output: 10
    weight_filler {
      type: "gaussian"
      std: 0.01
    }
    bias_filler {
      type: "constant"
    }
  }
}
layer {
  name: "accuracy"
  type: "Accuracy"
  bottom: "ip4"
  bottom: "label"
  top: "accuracy"
  include {
    phase: TEST
  }
}
layer {
  name: "loss"
  type: "SoftmaxWithLoss"
  bottom: "ip4"
  bottom: "label"
  top: "loss"
}
I0430 20:42:36.637112 29211 layer_factory.hpp:77] Creating layer cifar
I0430 20:42:36.637158 29211 db_lmdb.cpp:35] Opened lmdb examples/cifar10/cifar10_test_lmdb
I0430 20:42:36.637171 29211 net.cpp:86] Creating Layer cifar
I0430 20:42:36.637174 29211 net.cpp:382] cifar -> data
I0430 20:42:36.637182 29211 net.cpp:382] cifar -> label
I0430 20:42:36.637188 29211 data_transformer.cpp:25] Loading mean file from: examples/cifar10/mean.binaryproto
I0430 20:42:36.637337 29211 data_layer.cpp:45] output data size: 1000,3,32,32
I0430 20:42:36.658926 29211 net.cpp:124] Setting up cifar
I0430 20:42:36.658967 29211 net.cpp:131] Top shape: 1000 3 32 32 (3072000)
I0430 20:42:36.658973 29211 net.cpp:131] Top shape: 1000 (1000)
I0430 20:42:36.658977 29211 net.cpp:139] Memory required for data: 12292000
I0430 20:42:36.658982 29211 layer_factory.hpp:77] Creating layer label_cifar_1_split
I0430 20:42:36.658998 29211 net.cpp:86] Creating Layer label_cifar_1_split
I0430 20:42:36.659001 29211 net.cpp:408] label_cifar_1_split <- label
I0430 20:42:36.659008 29211 net.cpp:382] label_cifar_1_split -> label_cifar_1_split_0
I0430 20:42:36.659032 29211 net.cpp:382] label_cifar_1_split -> label_cifar_1_split_1
I0430 20:42:36.659101 29211 net.cpp:124] Setting up label_cifar_1_split
I0430 20:42:36.659109 29211 net.cpp:131] Top shape: 1000 (1000)
I0430 20:42:36.659113 29211 net.cpp:131] Top shape: 1000 (1000)
I0430 20:42:36.659116 29211 net.cpp:139] Memory required for data: 12300000
I0430 20:42:36.659118 29211 layer_factory.hpp:77] Creating layer ip1
I0430 20:42:36.659127 29211 net.cpp:86] Creating Layer ip1
I0430 20:42:36.659131 29211 net.cpp:408] ip1 <- data
I0430 20:42:36.659135 29211 net.cpp:382] ip1 -> ip1
I0430 20:42:36.672586 29211 net.cpp:124] Setting up ip1
I0430 20:42:36.672618 29211 net.cpp:131] Top shape: 1000 160 (160000)
I0430 20:42:36.672622 29211 net.cpp:139] Memory required for data: 12940000
I0430 20:42:36.672649 29211 layer_factory.hpp:77] Creating layer relu1
I0430 20:42:36.672672 29211 net.cpp:86] Creating Layer relu1
I0430 20:42:36.672677 29211 net.cpp:408] relu1 <- ip1
I0430 20:42:36.672680 29211 net.cpp:369] relu1 -> ip1 (in-place)
I0430 20:42:36.673454 29211 net.cpp:124] Setting up relu1
I0430 20:42:36.673467 29211 net.cpp:131] Top shape: 1000 160 (160000)
I0430 20:42:36.673486 29211 net.cpp:139] Memory required for data: 13580000
I0430 20:42:36.673490 29211 layer_factory.hpp:77] Creating layer ip2
I0430 20:42:36.673498 29211 net.cpp:86] Creating Layer ip2
I0430 20:42:36.673502 29211 net.cpp:408] ip2 <- ip1
I0430 20:42:36.673507 29211 net.cpp:382] ip2 -> ip2
I0430 20:42:36.673712 29211 net.cpp:124] Setting up ip2
I0430 20:42:36.673720 29211 net.cpp:131] Top shape: 1000 20 (20000)
I0430 20:42:36.673723 29211 net.cpp:139] Memory required for data: 13660000
I0430 20:42:36.673732 29211 layer_factory.hpp:77] Creating layer relu2
I0430 20:42:36.673738 29211 net.cpp:86] Creating Layer relu2
I0430 20:42:36.673740 29211 net.cpp:408] relu2 <- ip2
I0430 20:42:36.673744 29211 net.cpp:369] relu2 -> ip2 (in-place)
I0430 20:42:36.673892 29211 net.cpp:124] Setting up relu2
I0430 20:42:36.673903 29211 net.cpp:131] Top shape: 1000 20 (20000)
I0430 20:42:36.673907 29211 net.cpp:139] Memory required for data: 13740000
I0430 20:42:36.673909 29211 layer_factory.hpp:77] Creating layer ip3
I0430 20:42:36.673915 29211 net.cpp:86] Creating Layer ip3
I0430 20:42:36.673918 29211 net.cpp:408] ip3 <- ip2
I0430 20:42:36.673923 29211 net.cpp:382] ip3 -> ip3
I0430 20:42:36.674062 29211 net.cpp:124] Setting up ip3
I0430 20:42:36.674069 29211 net.cpp:131] Top shape: 1000 80 (80000)
I0430 20:42:36.674073 29211 net.cpp:139] Memory required for data: 14060000
I0430 20:42:36.674080 29211 layer_factory.hpp:77] Creating layer relu3
I0430 20:42:36.674085 29211 net.cpp:86] Creating Layer relu3
I0430 20:42:36.674088 29211 net.cpp:408] relu3 <- ip3
I0430 20:42:36.674093 29211 net.cpp:369] relu3 -> ip3 (in-place)
I0430 20:42:36.674235 29211 net.cpp:124] Setting up relu3
I0430 20:42:36.674243 29211 net.cpp:131] Top shape: 1000 80 (80000)
I0430 20:42:36.674247 29211 net.cpp:139] Memory required for data: 14380000
I0430 20:42:36.674249 29211 layer_factory.hpp:77] Creating layer ip4
I0430 20:42:36.674257 29211 net.cpp:86] Creating Layer ip4
I0430 20:42:36.674259 29211 net.cpp:408] ip4 <- ip3
I0430 20:42:36.674265 29211 net.cpp:382] ip4 -> ip4
I0430 20:42:36.674386 29211 net.cpp:124] Setting up ip4
I0430 20:42:36.674393 29211 net.cpp:131] Top shape: 1000 10 (10000)
I0430 20:42:36.674396 29211 net.cpp:139] Memory required for data: 14420000
I0430 20:42:36.674401 29211 layer_factory.hpp:77] Creating layer ip4_ip4_0_split
I0430 20:42:36.674407 29211 net.cpp:86] Creating Layer ip4_ip4_0_split
I0430 20:42:36.674410 29211 net.cpp:408] ip4_ip4_0_split <- ip4
I0430 20:42:36.674414 29211 net.cpp:382] ip4_ip4_0_split -> ip4_ip4_0_split_0
I0430 20:42:36.674420 29211 net.cpp:382] ip4_ip4_0_split -> ip4_ip4_0_split_1
I0430 20:42:36.674450 29211 net.cpp:124] Setting up ip4_ip4_0_split
I0430 20:42:36.674458 29211 net.cpp:131] Top shape: 1000 10 (10000)
I0430 20:42:36.674465 29211 net.cpp:131] Top shape: 1000 10 (10000)
I0430 20:42:36.674468 29211 net.cpp:139] Memory required for data: 14500000
I0430 20:42:36.674471 29211 layer_factory.hpp:77] Creating layer accuracy
I0430 20:42:36.674477 29211 net.cpp:86] Creating Layer accuracy
I0430 20:42:36.674480 29211 net.cpp:408] accuracy <- ip4_ip4_0_split_0
I0430 20:42:36.674484 29211 net.cpp:408] accuracy <- label_cifar_1_split_0
I0430 20:42:36.674489 29211 net.cpp:382] accuracy -> accuracy
…
