…
I0430 21:38:44.181774 31321 net.cpp:296] The NetState phase (0) differed from the phase (1) specified by a rule in layer cifar
I0430 21:38:44.181789 31321 net.cpp:296] The NetState phase (0) differed from the phase (1) specified by a rule in layer accuracy
I0430 21:38:44.181865 31321 net.cpp:53] Initializing net from parameters: 
name: "CIFAR"
state {
  phase: TRAIN
  level: 0
  stage: ""
}
layer {
  name: "cifar"
  type: "Data"
  top: "data"
  top: "label"
  include {
    phase: TRAIN
  }
  transform_param {
    mean_file: "examples/cifar10/mean.binaryproto"
  }
  data_param {
    source: "examples/cifar10/cifar10_train_lmdb"
    batch_size: 111
    backend: LMDB
  }
}
layer {
  name: "conv0"
  type: "Convolution"
  bottom: "data"
  top: "conv0"
  param {
    lr_mult: 1
  }
  param {
    lr_mult: 2
  }
  convolution_param {
    num_output: 8
    pad: 2
    kernel_size: 3
    stride: 1
    weight_filler {
      type: "gaussian"
      std: 0.01
    }
    bias_filler {
      type: "constant"
    }
  }
}
layer {
  name: "Sigmoid0"
  type: "Sigmoid"
  bottom: "conv0"
  top: "Sigmoid0"
}
layer {
  name: "pool0"
  type: "Pooling"
  bottom: "Sigmoid0"
  top: "pool0"
  pooling_param {
    pool: AVE
    kernel_size: 3
    stride: 2
  }
}
layer {
  name: "ip1"
  type: "InnerProduct"
  bottom: "pool0"
  top: "ip1"
  param {
    lr_mult: 1
  }
  param {
    lr_mult: 2
  }
  inner_product_param {
    num_output: 20
    weight_filler {
      type: "gaussian"
      std: 0.01
    }
    bias_filler {
      type: "constant"
    }
  }
}
layer {
  name: "relu1"
  type: "ReLU"
  bottom: "ip1"
  top: "ip1"
}
layer {
  name: "ip2"
  type: "InnerProduct"
  bottom: "ip1"
  top: "ip2"
  param {
    lr_mult: 1
  }
  param {
    lr_mult: 2
  }
  inner_product_param {
    num_output: 80
    weight_filler {
      type: "gaussian"
      std: 0.01
    }
    bias_filler {
      type: "constant"
    }
  }
}
layer {
  name: "relu2"
  type: "ReLU"
  bottom: "ip2"
  top: "ip2"
}
layer {
  name: "ip3"
  type: "InnerProduct"
  bottom: "ip2"
  top: "ip3"
  param {
    lr_mult: 1
  }
  param {
    lr_mult: 2
  }
  inner_product_param {
    num_output: 10
    weight_filler {
      type: "gaussian"
      std: 0.01
    }
    bias_filler {
      type: "constant"
    }
  }
}
layer {
  name: "loss"
  type: "SoftmaxWithLoss"
  bottom: "ip3"
  bottom: "label"
  top: "loss"
}
I0430 21:38:44.181928 31321 layer_factory.hpp:77] Creating layer cifar
I0430 21:38:44.182013 31321 db_lmdb.cpp:35] Opened lmdb examples/cifar10/cifar10_train_lmdb
I0430 21:38:44.182034 31321 net.cpp:86] Creating Layer cifar
I0430 21:38:44.182042 31321 net.cpp:382] cifar -> data
I0430 21:38:44.182060 31321 net.cpp:382] cifar -> label
I0430 21:38:44.182070 31321 data_transformer.cpp:25] Loading mean file from: examples/cifar10/mean.binaryproto
I0430 21:38:44.183835 31321 data_layer.cpp:45] output data size: 111,3,32,32
I0430 21:38:44.190482 31321 net.cpp:124] Setting up cifar
I0430 21:38:44.190498 31321 net.cpp:131] Top shape: 111 3 32 32 (340992)
I0430 21:38:44.190502 31321 net.cpp:131] Top shape: 111 (111)
I0430 21:38:44.190505 31321 net.cpp:139] Memory required for data: 1364412
I0430 21:38:44.190512 31321 layer_factory.hpp:77] Creating layer conv0
I0430 21:38:44.190527 31321 net.cpp:86] Creating Layer conv0
I0430 21:38:44.190532 31321 net.cpp:408] conv0 <- data
I0430 21:38:44.190543 31321 net.cpp:382] conv0 -> conv0
I0430 21:38:44.417124 31321 net.cpp:124] Setting up conv0
I0430 21:38:44.417167 31321 net.cpp:131] Top shape: 111 8 34 34 (1026528)
I0430 21:38:44.417171 31321 net.cpp:139] Memory required for data: 5470524
I0430 21:38:44.417187 31321 layer_factory.hpp:77] Creating layer Sigmoid0
I0430 21:38:44.417198 31321 net.cpp:86] Creating Layer Sigmoid0
I0430 21:38:44.417203 31321 net.cpp:408] Sigmoid0 <- conv0
I0430 21:38:44.417208 31321 net.cpp:382] Sigmoid0 -> Sigmoid0
I0430 21:38:44.417390 31321 net.cpp:124] Setting up Sigmoid0
I0430 21:38:44.417398 31321 net.cpp:131] Top shape: 111 8 34 34 (1026528)
I0430 21:38:44.417402 31321 net.cpp:139] Memory required for data: 9576636
I0430 21:38:44.417404 31321 layer_factory.hpp:77] Creating layer pool0
I0430 21:38:44.417410 31321 net.cpp:86] Creating Layer pool0
I0430 21:38:44.417414 31321 net.cpp:408] pool0 <- Sigmoid0
I0430 21:38:44.417418 31321 net.cpp:382] pool0 -> pool0
I0430 21:38:44.418118 31321 net.cpp:124] Setting up pool0
I0430 21:38:44.418131 31321 net.cpp:131] Top shape: 111 8 17 17 (256632)
I0430 21:38:44.418135 31321 net.cpp:139] Memory required for data: 10603164
I0430 21:38:44.418138 31321 layer_factory.hpp:77] Creating layer ip1
I0430 21:38:44.418146 31321 net.cpp:86] Creating Layer ip1
I0430 21:38:44.418149 31321 net.cpp:408] ip1 <- pool0
I0430 21:38:44.418154 31321 net.cpp:382] ip1 -> ip1
I0430 21:38:44.420157 31321 net.cpp:124] Setting up ip1
I0430 21:38:44.420169 31321 net.cpp:131] Top shape: 111 20 (2220)
I0430 21:38:44.420187 31321 net.cpp:139] Memory required for data: 10612044
I0430 21:38:44.420195 31321 layer_factory.hpp:77] Creating layer relu1
I0430 21:38:44.420200 31321 net.cpp:86] Creating Layer relu1
I0430 21:38:44.420203 31321 net.cpp:408] relu1 <- ip1
I0430 21:38:44.420207 31321 net.cpp:369] relu1 -> ip1 (in-place)
I0430 21:38:44.420399 31321 net.cpp:124] Setting up relu1
I0430 21:38:44.420408 31321 net.cpp:131] Top shape: 111 20 (2220)
I0430 21:38:44.420411 31321 net.cpp:139] Memory required for data: 10620924
I0430 21:38:44.420414 31321 layer_factory.hpp:77] Creating layer ip2
I0430 21:38:44.420420 31321 net.cpp:86] Creating Layer ip2
I0430 21:38:44.420423 31321 net.cpp:408] ip2 <- ip1
I0430 21:38:44.420428 31321 net.cpp:382] ip2 -> ip2
I0430 21:38:44.420562 31321 net.cpp:124] Setting up ip2
I0430 21:38:44.420569 31321 net.cpp:131] Top shape: 111 80 (8880)
I0430 21:38:44.420572 31321 net.cpp:139] Memory required for data: 10656444
I0430 21:38:44.420578 31321 layer_factory.hpp:77] Creating layer relu2
I0430 21:38:44.420583 31321 net.cpp:86] Creating Layer relu2
I0430 21:38:44.420586 31321 net.cpp:408] relu2 <- ip2
I0430 21:38:44.420590 31321 net.cpp:369] relu2 -> ip2 (in-place)
I0430 21:38:44.420734 31321 net.cpp:124] Setting up relu2
I0430 21:38:44.420742 31321 net.cpp:131] Top shape: 111 80 (8880)
I0430 21:38:44.420744 31321 net.cpp:139] Memory required for data: 10691964
I0430 21:38:44.420747 31321 layer_factory.hpp:77] Creating layer ip3
I0430 21:38:44.420754 31321 net.cpp:86] Creating Layer ip3
I0430 21:38:44.420758 31321 net.cpp:408] ip3 <- ip2
I0430 21:38:44.420761 31321 net.cpp:382] ip3 -> ip3
I0430 21:38:44.421756 31321 net.cpp:124] Setting up ip3
I0430 21:38:44.421768 31321 net.cpp:131] Top shape: 111 10 (1110)
I0430 21:38:44.421772 31321 net.cpp:139] Memory required for data: 10696404
I0430 21:38:44.421777 31321 layer_factory.hpp:77] Creating layer loss
I0430 21:38:44.421783 31321 net.cpp:86] Creating Layer loss
I0430 21:38:44.421787 31321 net.cpp:408] loss <- ip3
I0430 21:38:44.421790 31321 net.cpp:408] loss <- label
I0430 21:38:44.421794 31321 net.cpp:382] loss -> loss
I0430 21:38:44.421811 31321 layer_factory.hpp:77] Creating layer loss
…
I0430 21:38:44.422420 31321 solver.cpp:173] Creating test net (#0) specified by net file: ECE595/cifar/train_test/var_everything/cifar_train_test_168.prototxt
I0430 21:38:44.422446 31321 net.cpp:296] The NetState phase (1) differed from the phase (0) specified by a rule in layer cifar
I0430 21:38:44.422544 31321 net.cpp:53] Initializing net from parameters: 
name: "CIFAR"
state {
  phase: TEST
}
layer {
  name: "cifar"
  type: "Data"
  top: "data"
  top: "label"
  include {
    phase: TEST
  }
  transform_param {
    mean_file: "examples/cifar10/mean.binaryproto"
  }
  data_param {
    source: "examples/cifar10/cifar10_test_lmdb"
    batch_size: 1000
    backend: LMDB
  }
}
layer {
  name: "conv0"
  type: "Convolution"
  bottom: "data"
  top: "conv0"
  param {
    lr_mult: 1
  }
  param {
    lr_mult: 2
  }
  convolution_param {
    num_output: 8
    pad: 2
    kernel_size: 3
    stride: 1
    weight_filler {
      type: "gaussian"
      std: 0.01
    }
    bias_filler {
      type: "constant"
    }
  }
}
layer {
  name: "Sigmoid0"
  type: "Sigmoid"
  bottom: "conv0"
  top: "Sigmoid0"
}
layer {
  name: "pool0"
  type: "Pooling"
  bottom: "Sigmoid0"
  top: "pool0"
  pooling_param {
    pool: AVE
    kernel_size: 3
    stride: 2
  }
}
layer {
  name: "ip1"
  type: "InnerProduct"
  bottom: "pool0"
  top: "ip1"
  param {
    lr_mult: 1
  }
  param {
    lr_mult: 2
  }
  inner_product_param {
    num_output: 20
    weight_filler {
      type: "gaussian"
      std: 0.01
    }
    bias_filler {
      type: "constant"
    }
  }
}
layer {
  name: "relu1"
  type: "ReLU"
  bottom: "ip1"
  top: "ip1"
}
layer {
  name: "ip2"
  type: "InnerProduct"
  bottom: "ip1"
  top: "ip2"
  param {
    lr_mult: 1
  }
  param {
    lr_mult: 2
  }
  inner_product_param {
    num_output: 80
    weight_filler {
      type: "gaussian"
      std: 0.01
    }
    bias_filler {
      type: "constant"
    }
  }
}
layer {
  name: "relu2"
  type: "ReLU"
  bottom: "ip2"
  top: "ip2"
}
layer {
  name: "ip3"
  type: "InnerProduct"
  bottom: "ip2"
  top: "ip3"
  param {
    lr_mult: 1
  }
  param {
    lr_mult: 2
  }
  inner_product_param {
    num_output: 10
    weight_filler {
      type: "gaussian"
      std: 0.01
    }
    bias_filler {
      type: "constant"
    }
  }
}
layer {
  name: "accuracy"
  type: "Accuracy"
  bottom: "ip3"
  bottom: "label"
  top: "accuracy"
  include {
    phase: TEST
  }
}
layer {
  name: "loss"
  type: "SoftmaxWithLoss"
  bottom: "ip3"
  bottom: "label"
  top: "loss"
}
I0430 21:38:44.422610 31321 layer_factory.hpp:77] Creating layer cifar
I0430 21:38:44.422654 31321 db_lmdb.cpp:35] Opened lmdb examples/cifar10/cifar10_test_lmdb
I0430 21:38:44.422667 31321 net.cpp:86] Creating Layer cifar
I0430 21:38:44.422672 31321 net.cpp:382] cifar -> data
I0430 21:38:44.422679 31321 net.cpp:382] cifar -> label
I0430 21:38:44.422685 31321 data_transformer.cpp:25] Loading mean file from: examples/cifar10/mean.binaryproto
I0430 21:38:44.422823 31321 data_layer.cpp:45] output data size: 1000,3,32,32
I0430 21:38:44.444169 31321 net.cpp:124] Setting up cifar
I0430 21:38:44.444195 31321 net.cpp:131] Top shape: 1000 3 32 32 (3072000)
I0430 21:38:44.444200 31321 net.cpp:131] Top shape: 1000 (1000)
I0430 21:38:44.444203 31321 net.cpp:139] Memory required for data: 12292000
I0430 21:38:44.444208 31321 layer_factory.hpp:77] Creating layer label_cifar_1_split
I0430 21:38:44.444222 31321 net.cpp:86] Creating Layer label_cifar_1_split
I0430 21:38:44.444258 31321 net.cpp:408] label_cifar_1_split <- label
I0430 21:38:44.444264 31321 net.cpp:382] label_cifar_1_split -> label_cifar_1_split_0
I0430 21:38:44.444274 31321 net.cpp:382] label_cifar_1_split -> label_cifar_1_split_1
I0430 21:38:44.444355 31321 net.cpp:124] Setting up label_cifar_1_split
I0430 21:38:44.444365 31321 net.cpp:131] Top shape: 1000 (1000)
I0430 21:38:44.444368 31321 net.cpp:131] Top shape: 1000 (1000)
I0430 21:38:44.444371 31321 net.cpp:139] Memory required for data: 12300000
I0430 21:38:44.444375 31321 layer_factory.hpp:77] Creating layer conv0
I0430 21:38:44.444386 31321 net.cpp:86] Creating Layer conv0
I0430 21:38:44.444389 31321 net.cpp:408] conv0 <- data
I0430 21:38:44.444394 31321 net.cpp:382] conv0 -> conv0
I0430 21:38:44.445897 31321 net.cpp:124] Setting up conv0
I0430 21:38:44.445910 31321 net.cpp:131] Top shape: 1000 8 34 34 (9248000)
I0430 21:38:44.445914 31321 net.cpp:139] Memory required for data: 49292000
I0430 21:38:44.445924 31321 layer_factory.hpp:77] Creating layer Sigmoid0
I0430 21:38:44.445945 31321 net.cpp:86] Creating Layer Sigmoid0
I0430 21:38:44.445948 31321 net.cpp:408] Sigmoid0 <- conv0
I0430 21:38:44.445953 31321 net.cpp:382] Sigmoid0 -> Sigmoid0
I0430 21:38:44.446785 31321 net.cpp:124] Setting up Sigmoid0
I0430 21:38:44.446815 31321 net.cpp:131] Top shape: 1000 8 34 34 (9248000)
I0430 21:38:44.446817 31321 net.cpp:139] Memory required for data: 86284000
I0430 21:38:44.446821 31321 layer_factory.hpp:77] Creating layer pool0
I0430 21:38:44.446830 31321 net.cpp:86] Creating Layer pool0
I0430 21:38:44.446847 31321 net.cpp:408] pool0 <- Sigmoid0
I0430 21:38:44.446856 31321 net.cpp:382] pool0 -> pool0
I0430 21:38:44.448094 31321 net.cpp:124] Setting up pool0
I0430 21:38:44.448104 31321 net.cpp:131] Top shape: 1000 8 17 17 (2312000)
I0430 21:38:44.448107 31321 net.cpp:139] Memory required for data: 95532000
I0430 21:38:44.448109 31321 layer_factory.hpp:77] Creating layer ip1
I0430 21:38:44.448118 31321 net.cpp:86] Creating Layer ip1
I0430 21:38:44.448137 31321 net.cpp:408] ip1 <- pool0
I0430 21:38:44.448143 31321 net.cpp:382] ip1 -> ip1
I0430 21:38:44.449515 31321 net.cpp:124] Setting up ip1
I0430 21:38:44.449522 31321 net.cpp:131] Top shape: 1000 20 (20000)
I0430 21:38:44.449525 31321 net.cpp:139] Memory required for data: 95612000
I0430 21:38:44.449533 31321 layer_factory.hpp:77] Creating layer relu1
I0430 21:38:44.449538 31321 net.cpp:86] Creating Layer relu1
I0430 21:38:44.449556 31321 net.cpp:408] relu1 <- ip1
I0430 21:38:44.449561 31321 net.cpp:369] relu1 -> ip1 (in-place)
I0430 21:38:44.449731 31321 net.cpp:124] Setting up relu1
I0430 21:38:44.449739 31321 net.cpp:131] Top shape: 1000 20 (20000)
I0430 21:38:44.449743 31321 net.cpp:139] Memory required for data: 95692000
I0430 21:38:44.449746 31321 layer_factory.hpp:77] Creating layer ip2
I0430 21:38:44.449753 31321 net.cpp:86] Creating Layer ip2
I0430 21:38:44.449756 31321 net.cpp:408] ip2 <- ip1
I0430 21:38:44.449762 31321 net.cpp:382] ip2 -> ip2
I0430 21:38:44.449923 31321 net.cpp:124] Setting up ip2
I0430 21:38:44.449929 31321 net.cpp:131] Top shape: 1000 80 (80000)
I0430 21:38:44.449932 31321 net.cpp:139] Memory required for data: 96012000
I0430 21:38:44.449939 31321 layer_factory.hpp:77] Creating layer relu2
I0430 21:38:44.449945 31321 net.cpp:86] Creating Layer relu2
I0430 21:38:44.449949 31321 net.cpp:408] relu2 <- ip2
I0430 21:38:44.449951 31321 net.cpp:369] relu2 -> ip2 (in-place)
I0430 21:38:44.450103 31321 net.cpp:124] Setting up relu2
I0430 21:38:44.450109 31321 net.cpp:131] Top shape: 1000 80 (80000)
I0430 21:38:44.450112 31321 net.cpp:139] Memory required for data: 96332000
I0430 21:38:44.450115 31321 layer_factory.hpp:77] Creating layer ip3
I0430 21:38:44.450121 31321 net.cpp:86] Creating Layer ip3
I0430 21:38:44.450124 31321 net.cpp:408] ip3 <- ip2
I0430 21:38:44.450129 31321 net.cpp:382] ip3 -> ip3
I0430 21:38:44.450243 31321 net.cpp:124] Setting up ip3
I0430 21:38:44.450249 31321 net.cpp:131] Top shape: 1000 10 (10000)
I0430 21:38:44.450253 31321 net.cpp:139] Memory required for data: 96372000
I0430 21:38:44.450268 31321 layer_factory.hpp:77] Creating layer ip3_ip3_0_split
I0430 21:38:44.450271 31321 net.cpp:86] Creating Layer ip3_ip3_0_split
I0430 21:38:44.450283 31321 net.cpp:408] ip3_ip3_0_split <- ip3
I0430 21:38:44.450287 31321 net.cpp:382] ip3_ip3_0_split -> ip3_ip3_0_split_0
I0430 21:38:44.450292 31321 net.cpp:382] ip3_ip3_0_split -> ip3_ip3_0_split_1
I0430 21:38:44.450323 31321 net.cpp:124] Setting up ip3_ip3_0_split
I0430 21:38:44.450335 31321 net.cpp:131] Top shape: 1000 10 (10000)
I0430 21:38:44.450340 31321 net.cpp:131] Top shape: 1000 10 (10000)
I0430 21:38:44.450341 31321 net.cpp:139] Memory required for data: 96452000
I0430 21:38:44.450345 31321 layer_factory.hpp:77] Creating layer accuracy
I0430 21:38:44.450350 31321 net.cpp:86] Creating Layer accuracy
I0430 21:38:44.450352 31321 net.cpp:408] accuracy <- ip3_ip3_0_split_0
I0430 21:38:44.450356 31321 net.cpp:408] accuracy <- label_cifar_1_split_0
I0430 21:38:44.450361 31321 net.cpp:382] accuracy -> accuracy
…
