…
I0501 00:25:47.049448  7009 net.cpp:296] The NetState phase (0) differed from the phase (1) specified by a rule in layer cifar
I0501 00:25:47.049464  7009 net.cpp:296] The NetState phase (0) differed from the phase (1) specified by a rule in layer accuracy
I0501 00:25:47.049562  7009 net.cpp:53] Initializing net from parameters: 
name: "CIFAR"
state {
  phase: TRAIN
  level: 0
  stage: ""
}
layer {
  name: "cifar"
  type: "Data"
  top: "data"
  top: "label"
  include {
    phase: TRAIN
  }
  transform_param {
    mean_file: "examples/cifar10/mean.binaryproto"
  }
  data_param {
    source: "examples/cifar10/cifar10_train_lmdb"
    batch_size: 111
    backend: LMDB
  }
}
layer {
  name: "conv0"
  type: "Convolution"
  bottom: "data"
  top: "conv0"
  param {
    lr_mult: 1
  }
  param {
    lr_mult: 2
  }
  convolution_param {
    num_output: 8
    pad: 2
    kernel_size: 3
    stride: 1
    weight_filler {
      type: "gaussian"
      std: 0.01
    }
    bias_filler {
      type: "constant"
    }
  }
}
layer {
  name: "Sigmoid0"
  type: "Sigmoid"
  bottom: "conv0"
  top: "Sigmoid0"
}
layer {
  name: "pool0"
  type: "Pooling"
  bottom: "Sigmoid0"
  top: "pool0"
  pooling_param {
    pool: AVE
    kernel_size: 3
    stride: 2
  }
}
layer {
  name: "ip1"
  type: "InnerProduct"
  bottom: "pool0"
  top: "ip1"
  param {
    lr_mult: 1
  }
  param {
    lr_mult: 2
  }
  inner_product_param {
    num_output: 40
    weight_filler {
      type: "gaussian"
      std: 0.01
    }
    bias_filler {
      type: "constant"
    }
  }
}
layer {
  name: "relu1"
  type: "ReLU"
  bottom: "ip1"
  top: "ip1"
}
layer {
  name: "ip2"
  type: "InnerProduct"
  bottom: "ip1"
  top: "ip2"
  param {
    lr_mult: 1
  }
  param {
    lr_mult: 2
  }
  inner_product_param {
    num_output: 160
    weight_filler {
      type: "gaussian"
      std: 0.01
    }
    bias_filler {
      type: "constant"
    }
  }
}
layer {
  name: "relu2"
  type: "ReLU"
  bottom: "ip2"
  top: "ip2"
}
layer {
  name: "ip3"
  type: "InnerProduct"
  bottom: "ip2"
  top: "ip3"
  param {
    lr_mult: 1
  }
  param {
    lr_mult: 2
  }
  inner_product_param {
    num_output: 40
    weight_filler {
      type: "gaussian"
      std: 0.01
    }
    bias_filler {
      type: "constant"
    }
  }
}
layer {
  name: "relu3"
  type: "ReLU"
  bottom: "ip3"
  top: "ip3"
}
layer {
  name: "ip4"
  type: "InnerProduct"
  bottom: "ip3"
  top: "ip4"
  param {
    lr_mult: 1
  }
  param {
    lr_mult: 2
  }
  inner_product_param {
    num_output: 10
    weight_filler {
      type: "gaussian"
      std: 0.01
    }
    bias_filler {
      type: "constant"
    }
  }
}
layer {
  name: "loss"
  type: "SoftmaxWithLoss"
  bottom: "ip4"
  bottom: "label"
  top: "loss"
}
I0501 00:25:47.049635  7009 layer_factory.hpp:77] Creating layer cifar
I0501 00:25:47.049736  7009 db_lmdb.cpp:35] Opened lmdb examples/cifar10/cifar10_train_lmdb
I0501 00:25:47.049763  7009 net.cpp:86] Creating Layer cifar
I0501 00:25:47.049772  7009 net.cpp:382] cifar -> data
I0501 00:25:47.049793  7009 net.cpp:382] cifar -> label
I0501 00:25:47.049806  7009 data_transformer.cpp:25] Loading mean file from: examples/cifar10/mean.binaryproto
I0501 00:25:47.051863  7009 data_layer.cpp:45] output data size: 111,3,32,32
I0501 00:25:47.059670  7009 net.cpp:124] Setting up cifar
I0501 00:25:47.059690  7009 net.cpp:131] Top shape: 111 3 32 32 (340992)
I0501 00:25:47.059696  7009 net.cpp:131] Top shape: 111 (111)
I0501 00:25:47.059700  7009 net.cpp:139] Memory required for data: 1364412
I0501 00:25:47.059723  7009 layer_factory.hpp:77] Creating layer conv0
I0501 00:25:47.059741  7009 net.cpp:86] Creating Layer conv0
I0501 00:25:47.059746  7009 net.cpp:408] conv0 <- data
I0501 00:25:47.059758  7009 net.cpp:382] conv0 -> conv0
I0501 00:25:47.342376  7009 net.cpp:124] Setting up conv0
I0501 00:25:47.342402  7009 net.cpp:131] Top shape: 111 8 34 34 (1026528)
I0501 00:25:47.342406  7009 net.cpp:139] Memory required for data: 5470524
I0501 00:25:47.342422  7009 layer_factory.hpp:77] Creating layer Sigmoid0
I0501 00:25:47.342432  7009 net.cpp:86] Creating Layer Sigmoid0
I0501 00:25:47.342437  7009 net.cpp:408] Sigmoid0 <- conv0
I0501 00:25:47.342442  7009 net.cpp:382] Sigmoid0 -> Sigmoid0
I0501 00:25:47.342608  7009 net.cpp:124] Setting up Sigmoid0
I0501 00:25:47.342617  7009 net.cpp:131] Top shape: 111 8 34 34 (1026528)
I0501 00:25:47.342620  7009 net.cpp:139] Memory required for data: 9576636
I0501 00:25:47.342624  7009 layer_factory.hpp:77] Creating layer pool0
I0501 00:25:47.342630  7009 net.cpp:86] Creating Layer pool0
I0501 00:25:47.342633  7009 net.cpp:408] pool0 <- Sigmoid0
I0501 00:25:47.342638  7009 net.cpp:382] pool0 -> pool0
I0501 00:25:47.343350  7009 net.cpp:124] Setting up pool0
I0501 00:25:47.343364  7009 net.cpp:131] Top shape: 111 8 17 17 (256632)
I0501 00:25:47.343366  7009 net.cpp:139] Memory required for data: 10603164
I0501 00:25:47.343370  7009 layer_factory.hpp:77] Creating layer ip1
I0501 00:25:47.343379  7009 net.cpp:86] Creating Layer ip1
I0501 00:25:47.343382  7009 net.cpp:408] ip1 <- pool0
I0501 00:25:47.343387  7009 net.cpp:382] ip1 -> ip1
I0501 00:25:47.345913  7009 net.cpp:124] Setting up ip1
I0501 00:25:47.345922  7009 net.cpp:131] Top shape: 111 40 (4440)
I0501 00:25:47.345926  7009 net.cpp:139] Memory required for data: 10620924
I0501 00:25:47.345933  7009 layer_factory.hpp:77] Creating layer relu1
I0501 00:25:47.345938  7009 net.cpp:86] Creating Layer relu1
I0501 00:25:47.345942  7009 net.cpp:408] relu1 <- ip1
I0501 00:25:47.345945  7009 net.cpp:369] relu1 -> ip1 (in-place)
I0501 00:25:47.346084  7009 net.cpp:124] Setting up relu1
I0501 00:25:47.346092  7009 net.cpp:131] Top shape: 111 40 (4440)
I0501 00:25:47.346096  7009 net.cpp:139] Memory required for data: 10638684
I0501 00:25:47.346098  7009 layer_factory.hpp:77] Creating layer ip2
I0501 00:25:47.346104  7009 net.cpp:86] Creating Layer ip2
I0501 00:25:47.346107  7009 net.cpp:408] ip2 <- ip1
I0501 00:25:47.346112  7009 net.cpp:382] ip2 -> ip2
I0501 00:25:47.347151  7009 net.cpp:124] Setting up ip2
I0501 00:25:47.347162  7009 net.cpp:131] Top shape: 111 160 (17760)
I0501 00:25:47.347165  7009 net.cpp:139] Memory required for data: 10709724
I0501 00:25:47.347173  7009 layer_factory.hpp:77] Creating layer relu2
I0501 00:25:47.347179  7009 net.cpp:86] Creating Layer relu2
I0501 00:25:47.347182  7009 net.cpp:408] relu2 <- ip2
I0501 00:25:47.347187  7009 net.cpp:369] relu2 -> ip2 (in-place)
I0501 00:25:47.347334  7009 net.cpp:124] Setting up relu2
I0501 00:25:47.347342  7009 net.cpp:131] Top shape: 111 160 (17760)
I0501 00:25:47.347345  7009 net.cpp:139] Memory required for data: 10780764
I0501 00:25:47.347348  7009 layer_factory.hpp:77] Creating layer ip3
I0501 00:25:47.347357  7009 net.cpp:86] Creating Layer ip3
I0501 00:25:47.347359  7009 net.cpp:408] ip3 <- ip2
I0501 00:25:47.347364  7009 net.cpp:382] ip3 -> ip3
I0501 00:25:47.347606  7009 net.cpp:124] Setting up ip3
I0501 00:25:47.347614  7009 net.cpp:131] Top shape: 111 40 (4440)
I0501 00:25:47.347616  7009 net.cpp:139] Memory required for data: 10798524
I0501 00:25:47.347621  7009 layer_factory.hpp:77] Creating layer relu3
I0501 00:25:47.347626  7009 net.cpp:86] Creating Layer relu3
I0501 00:25:47.347630  7009 net.cpp:408] relu3 <- ip3
I0501 00:25:47.347638  7009 net.cpp:369] relu3 -> ip3 (in-place)
I0501 00:25:47.347793  7009 net.cpp:124] Setting up relu3
I0501 00:25:47.347801  7009 net.cpp:131] Top shape: 111 40 (4440)
I0501 00:25:47.347805  7009 net.cpp:139] Memory required for data: 10816284
I0501 00:25:47.347807  7009 layer_factory.hpp:77] Creating layer ip4
I0501 00:25:47.347827  7009 net.cpp:86] Creating Layer ip4
I0501 00:25:47.347831  7009 net.cpp:408] ip4 <- ip3
I0501 00:25:47.347836  7009 net.cpp:382] ip4 -> ip4
I0501 00:25:47.348743  7009 net.cpp:124] Setting up ip4
I0501 00:25:47.348755  7009 net.cpp:131] Top shape: 111 10 (1110)
I0501 00:25:47.348758  7009 net.cpp:139] Memory required for data: 10820724
I0501 00:25:47.348767  7009 layer_factory.hpp:77] Creating layer loss
I0501 00:25:47.348773  7009 net.cpp:86] Creating Layer loss
I0501 00:25:47.348775  7009 net.cpp:408] loss <- ip4
I0501 00:25:47.348779  7009 net.cpp:408] loss <- label
I0501 00:25:47.348784  7009 net.cpp:382] loss -> loss
I0501 00:25:47.348798  7009 layer_factory.hpp:77] Creating layer loss
…
I0501 00:25:47.350066  7009 solver.cpp:173] Creating test net (#0) specified by net file: ECE595/cifar/train_test/var_everything/cifar_train_test_257.prototxt
I0501 00:25:47.350093  7009 net.cpp:296] The NetState phase (1) differed from the phase (0) specified by a rule in layer cifar
I0501 00:25:47.350183  7009 net.cpp:53] Initializing net from parameters: 
name: "CIFAR"
state {
  phase: TEST
}
layer {
  name: "cifar"
  type: "Data"
  top: "data"
  top: "label"
  include {
    phase: TEST
  }
  transform_param {
    mean_file: "examples/cifar10/mean.binaryproto"
  }
  data_param {
    source: "examples/cifar10/cifar10_test_lmdb"
    batch_size: 1000
    backend: LMDB
  }
}
layer {
  name: "conv0"
  type: "Convolution"
  bottom: "data"
  top: "conv0"
  param {
    lr_mult: 1
  }
  param {
    lr_mult: 2
  }
  convolution_param {
    num_output: 8
    pad: 2
    kernel_size: 3
    stride: 1
    weight_filler {
      type: "gaussian"
      std: 0.01
    }
    bias_filler {
      type: "constant"
    }
  }
}
layer {
  name: "Sigmoid0"
  type: "Sigmoid"
  bottom: "conv0"
  top: "Sigmoid0"
}
layer {
  name: "pool0"
  type: "Pooling"
  bottom: "Sigmoid0"
  top: "pool0"
  pooling_param {
    pool: AVE
    kernel_size: 3
    stride: 2
  }
}
layer {
  name: "ip1"
  type: "InnerProduct"
  bottom: "pool0"
  top: "ip1"
  param {
    lr_mult: 1
  }
  param {
    lr_mult: 2
  }
  inner_product_param {
    num_output: 40
    weight_filler {
      type: "gaussian"
      std: 0.01
    }
    bias_filler {
      type: "constant"
    }
  }
}
layer {
  name: "relu1"
  type: "ReLU"
  bottom: "ip1"
  top: "ip1"
}
layer {
  name: "ip2"
  type: "InnerProduct"
  bottom: "ip1"
  top: "ip2"
  param {
    lr_mult: 1
  }
  param {
    lr_mult: 2
  }
  inner_product_param {
    num_output: 160
    weight_filler {
      type: "gaussian"
      std: 0.01
    }
    bias_filler {
      type: "constant"
    }
  }
}
layer {
  name: "relu2"
  type: "ReLU"
  bottom: "ip2"
  top: "ip2"
}
layer {
  name: "ip3"
  type: "InnerProduct"
  bottom: "ip2"
  top: "ip3"
  param {
    lr_mult: 1
  }
  param {
    lr_mult: 2
  }
  inner_product_param {
    num_output: 40
    weight_filler {
      type: "gaussian"
      std: 0.01
    }
    bias_filler {
      type: "constant"
    }
  }
}
layer {
  name: "relu3"
  type: "ReLU"
  bottom: "ip3"
  top: "ip3"
}
layer {
  name: "ip4"
  type: "InnerProduct"
  bottom: "ip3"
  top: "ip4"
  param {
    lr_mult: 1
  }
  param {
    lr_mult: 2
  }
  inner_product_param {
    num_output: 10
    weight_filler {
      type: "gaussian"
      std: 0.01
    }
    bias_filler {
      type: "constant"
    }
  }
}
layer {
  name: "accuracy"
  type: "Accuracy"
  bottom: "ip4"
  bottom: "label"
  top: "accuracy"
  include {
    phase: TEST
  }
}
layer {
  name: "loss"
  type: "SoftmaxWithLoss"
  bottom: "ip4"
  bottom: "label"
  top: "loss"
}
I0501 00:25:47.350260  7009 layer_factory.hpp:77] Creating layer cifar
I0501 00:25:47.350317  7009 db_lmdb.cpp:35] Opened lmdb examples/cifar10/cifar10_test_lmdb
I0501 00:25:47.350328  7009 net.cpp:86] Creating Layer cifar
I0501 00:25:47.350332  7009 net.cpp:382] cifar -> data
I0501 00:25:47.350340  7009 net.cpp:382] cifar -> label
I0501 00:25:47.350347  7009 data_transformer.cpp:25] Loading mean file from: examples/cifar10/mean.binaryproto
I0501 00:25:47.350486  7009 data_layer.cpp:45] output data size: 1000,3,32,32
I0501 00:25:47.372176  7009 net.cpp:124] Setting up cifar
I0501 00:25:47.372220  7009 net.cpp:131] Top shape: 1000 3 32 32 (3072000)
I0501 00:25:47.372225  7009 net.cpp:131] Top shape: 1000 (1000)
I0501 00:25:47.372227  7009 net.cpp:139] Memory required for data: 12292000
I0501 00:25:47.372232  7009 layer_factory.hpp:77] Creating layer label_cifar_1_split
I0501 00:25:47.372246  7009 net.cpp:86] Creating Layer label_cifar_1_split
I0501 00:25:47.372251  7009 net.cpp:408] label_cifar_1_split <- label
I0501 00:25:47.372256  7009 net.cpp:382] label_cifar_1_split -> label_cifar_1_split_0
I0501 00:25:47.372280  7009 net.cpp:382] label_cifar_1_split -> label_cifar_1_split_1
I0501 00:25:47.372373  7009 net.cpp:124] Setting up label_cifar_1_split
I0501 00:25:47.372381  7009 net.cpp:131] Top shape: 1000 (1000)
I0501 00:25:47.372385  7009 net.cpp:131] Top shape: 1000 (1000)
I0501 00:25:47.372387  7009 net.cpp:139] Memory required for data: 12300000
I0501 00:25:47.372390  7009 layer_factory.hpp:77] Creating layer conv0
I0501 00:25:47.372403  7009 net.cpp:86] Creating Layer conv0
I0501 00:25:47.372406  7009 net.cpp:408] conv0 <- data
I0501 00:25:47.372416  7009 net.cpp:382] conv0 -> conv0
I0501 00:25:47.375032  7009 net.cpp:124] Setting up conv0
I0501 00:25:47.375063  7009 net.cpp:131] Top shape: 1000 8 34 34 (9248000)
I0501 00:25:47.375066  7009 net.cpp:139] Memory required for data: 49292000
I0501 00:25:47.375077  7009 layer_factory.hpp:77] Creating layer Sigmoid0
I0501 00:25:47.375083  7009 net.cpp:86] Creating Layer Sigmoid0
I0501 00:25:47.375087  7009 net.cpp:408] Sigmoid0 <- conv0
I0501 00:25:47.375092  7009 net.cpp:382] Sigmoid0 -> Sigmoid0
I0501 00:25:47.375314  7009 net.cpp:124] Setting up Sigmoid0
I0501 00:25:47.375324  7009 net.cpp:131] Top shape: 1000 8 34 34 (9248000)
I0501 00:25:47.375327  7009 net.cpp:139] Memory required for data: 86284000
I0501 00:25:47.375330  7009 layer_factory.hpp:77] Creating layer pool0
I0501 00:25:47.375339  7009 net.cpp:86] Creating Layer pool0
I0501 00:25:47.375344  7009 net.cpp:408] pool0 <- Sigmoid0
I0501 00:25:47.375347  7009 net.cpp:382] pool0 -> pool0
I0501 00:25:47.375530  7009 net.cpp:124] Setting up pool0
I0501 00:25:47.375540  7009 net.cpp:131] Top shape: 1000 8 17 17 (2312000)
I0501 00:25:47.375542  7009 net.cpp:139] Memory required for data: 95532000
I0501 00:25:47.375545  7009 layer_factory.hpp:77] Creating layer ip1
I0501 00:25:47.375553  7009 net.cpp:86] Creating Layer ip1
I0501 00:25:47.375557  7009 net.cpp:408] ip1 <- pool0
I0501 00:25:47.375562  7009 net.cpp:382] ip1 -> ip1
I0501 00:25:47.378072  7009 net.cpp:124] Setting up ip1
I0501 00:25:47.378080  7009 net.cpp:131] Top shape: 1000 40 (40000)
I0501 00:25:47.378098  7009 net.cpp:139] Memory required for data: 95692000
I0501 00:25:47.378119  7009 layer_factory.hpp:77] Creating layer relu1
I0501 00:25:47.378126  7009 net.cpp:86] Creating Layer relu1
I0501 00:25:47.378129  7009 net.cpp:408] relu1 <- ip1
I0501 00:25:47.378134  7009 net.cpp:369] relu1 -> ip1 (in-place)
I0501 00:25:47.378307  7009 net.cpp:124] Setting up relu1
I0501 00:25:47.378316  7009 net.cpp:131] Top shape: 1000 40 (40000)
I0501 00:25:47.378319  7009 net.cpp:139] Memory required for data: 95852000
I0501 00:25:47.378324  7009 layer_factory.hpp:77] Creating layer ip2
I0501 00:25:47.378334  7009 net.cpp:86] Creating Layer ip2
I0501 00:25:47.378336  7009 net.cpp:408] ip2 <- ip1
I0501 00:25:47.378340  7009 net.cpp:382] ip2 -> ip2
I0501 00:25:47.378643  7009 net.cpp:124] Setting up ip2
I0501 00:25:47.378665  7009 net.cpp:131] Top shape: 1000 160 (160000)
I0501 00:25:47.378669  7009 net.cpp:139] Memory required for data: 96492000
I0501 00:25:47.378691  7009 layer_factory.hpp:77] Creating layer relu2
I0501 00:25:47.378713  7009 net.cpp:86] Creating Layer relu2
I0501 00:25:47.378716  7009 net.cpp:408] relu2 <- ip2
I0501 00:25:47.378720  7009 net.cpp:369] relu2 -> ip2 (in-place)
I0501 00:25:47.379526  7009 net.cpp:124] Setting up relu2
I0501 00:25:47.379554  7009 net.cpp:131] Top shape: 1000 160 (160000)
I0501 00:25:47.379557  7009 net.cpp:139] Memory required for data: 97132000
I0501 00:25:47.379561  7009 layer_factory.hpp:77] Creating layer ip3
I0501 00:25:47.379567  7009 net.cpp:86] Creating Layer ip3
I0501 00:25:47.379572  7009 net.cpp:408] ip3 <- ip2
I0501 00:25:47.379578  7009 net.cpp:382] ip3 -> ip3
I0501 00:25:47.379884  7009 net.cpp:124] Setting up ip3
I0501 00:25:47.379891  7009 net.cpp:131] Top shape: 1000 40 (40000)
I0501 00:25:47.379894  7009 net.cpp:139] Memory required for data: 97292000
I0501 00:25:47.379900  7009 layer_factory.hpp:77] Creating layer relu3
I0501 00:25:47.379905  7009 net.cpp:86] Creating Layer relu3
I0501 00:25:47.379909  7009 net.cpp:408] relu3 <- ip3
I0501 00:25:47.379914  7009 net.cpp:369] relu3 -> ip3 (in-place)
I0501 00:25:47.380064  7009 net.cpp:124] Setting up relu3
I0501 00:25:47.380071  7009 net.cpp:131] Top shape: 1000 40 (40000)
I0501 00:25:47.380074  7009 net.cpp:139] Memory required for data: 97452000
I0501 00:25:47.380077  7009 layer_factory.hpp:77] Creating layer ip4
I0501 00:25:47.380084  7009 net.cpp:86] Creating Layer ip4
I0501 00:25:47.380087  7009 net.cpp:408] ip4 <- ip3
I0501 00:25:47.380094  7009 net.cpp:382] ip4 -> ip4
I0501 00:25:47.380203  7009 net.cpp:124] Setting up ip4
I0501 00:25:47.380213  7009 net.cpp:131] Top shape: 1000 10 (10000)
I0501 00:25:47.380216  7009 net.cpp:139] Memory required for data: 97492000
I0501 00:25:47.380224  7009 layer_factory.hpp:77] Creating layer ip4_ip4_0_split
I0501 00:25:47.380229  7009 net.cpp:86] Creating Layer ip4_ip4_0_split
I0501 00:25:47.380233  7009 net.cpp:408] ip4_ip4_0_split <- ip4
I0501 00:25:47.380236  7009 net.cpp:382] ip4_ip4_0_split -> ip4_ip4_0_split_0
I0501 00:25:47.380241  7009 net.cpp:382] ip4_ip4_0_split -> ip4_ip4_0_split_1
I0501 00:25:47.380271  7009 net.cpp:124] Setting up ip4_ip4_0_split
I0501 00:25:47.380276  7009 net.cpp:131] Top shape: 1000 10 (10000)
I0501 00:25:47.380281  7009 net.cpp:131] Top shape: 1000 10 (10000)
I0501 00:25:47.380285  7009 net.cpp:139] Memory required for data: 97572000
I0501 00:25:47.380287  7009 layer_factory.hpp:77] Creating layer accuracy
I0501 00:25:47.380292  7009 net.cpp:86] Creating Layer accuracy
I0501 00:25:47.380295  7009 net.cpp:408] accuracy <- ip4_ip4_0_split_0
I0501 00:25:47.380298  7009 net.cpp:408] accuracy <- label_cifar_1_split_0
I0501 00:25:47.380304  7009 net.cpp:382] accuracy -> accuracy
…
