…
I0430 23:03:21.842005  4091 net.cpp:296] The NetState phase (0) differed from the phase (1) specified by a rule in layer cifar
I0430 23:03:21.842025  4091 net.cpp:296] The NetState phase (0) differed from the phase (1) specified by a rule in layer accuracy
I0430 23:03:21.842133  4091 net.cpp:53] Initializing net from parameters: 
name: "CIFAR"
state {
  phase: TRAIN
  level: 0
  stage: ""
}
layer {
  name: "cifar"
  type: "Data"
  top: "data"
  top: "label"
  include {
    phase: TRAIN
  }
  transform_param {
    mean_file: "examples/cifar10/mean.binaryproto"
  }
  data_param {
    source: "examples/cifar10/cifar10_train_lmdb"
    batch_size: 111
    backend: LMDB
  }
}
layer {
  name: "conv0"
  type: "Convolution"
  bottom: "data"
  top: "conv0"
  param {
    lr_mult: 1
  }
  param {
    lr_mult: 2
  }
  convolution_param {
    num_output: 8
    pad: 2
    kernel_size: 3
    stride: 1
    weight_filler {
      type: "gaussian"
      std: 0.01
    }
    bias_filler {
      type: "constant"
    }
  }
}
layer {
  name: "Sigmoid0"
  type: "Sigmoid"
  bottom: "conv0"
  top: "Sigmoid0"
}
layer {
  name: "pool0"
  type: "Pooling"
  bottom: "Sigmoid0"
  top: "pool0"
  pooling_param {
    pool: AVE
    kernel_size: 3
    stride: 2
  }
}
layer {
  name: "ip1"
  type: "InnerProduct"
  bottom: "pool0"
  top: "ip1"
  param {
    lr_mult: 1
  }
  param {
    lr_mult: 2
  }
  inner_product_param {
    num_output: 20
    weight_filler {
      type: "gaussian"
      std: 0.01
    }
    bias_filler {
      type: "constant"
    }
  }
}
layer {
  name: "relu1"
  type: "ReLU"
  bottom: "ip1"
  top: "ip1"
}
layer {
  name: "ip2"
  type: "InnerProduct"
  bottom: "ip1"
  top: "ip2"
  param {
    lr_mult: 1
  }
  param {
    lr_mult: 2
  }
  inner_product_param {
    num_output: 10
    weight_filler {
      type: "gaussian"
      std: 0.01
    }
    bias_filler {
      type: "constant"
    }
  }
}
layer {
  name: "relu2"
  type: "ReLU"
  bottom: "ip2"
  top: "ip2"
}
layer {
  name: "ip3"
  type: "InnerProduct"
  bottom: "ip2"
  top: "ip3"
  param {
    lr_mult: 1
  }
  param {
    lr_mult: 2
  }
  inner_product_param {
    num_output: 80
    weight_filler {
      type: "gaussian"
      std: 0.01
    }
    bias_filler {
      type: "constant"
    }
  }
}
layer {
  name: "relu3"
  type: "ReLU"
  bottom: "ip3"
  top: "ip3"
}
layer {
  name: "ip4"
  type: "InnerProduct"
  bottom: "ip3"
  top: "ip4"
  param {
    lr_mult: 1
  }
  param {
    lr_mult: 2
  }
  inner_product_param {
    num_output: 10
    weight_filler {
      type: "gaussian"
      std: 0.01
    }
    bias_filler {
      type: "constant"
    }
  }
}
layer {
  name: "loss"
  type: "SoftmaxWithLoss"
  bottom: "ip4"
  bottom: "label"
  top: "loss"
}
I0430 23:03:21.842213  4091 layer_factory.hpp:77] Creating layer cifar
I0430 23:03:21.842315  4091 db_lmdb.cpp:35] Opened lmdb examples/cifar10/cifar10_train_lmdb
I0430 23:03:21.842344  4091 net.cpp:86] Creating Layer cifar
I0430 23:03:21.842356  4091 net.cpp:382] cifar -> data
I0430 23:03:21.842382  4091 net.cpp:382] cifar -> label
I0430 23:03:21.842394  4091 data_transformer.cpp:25] Loading mean file from: examples/cifar10/mean.binaryproto
I0430 23:03:21.844492  4091 data_layer.cpp:45] output data size: 111,3,32,32
I0430 23:03:21.852342  4091 net.cpp:124] Setting up cifar
I0430 23:03:21.852361  4091 net.cpp:131] Top shape: 111 3 32 32 (340992)
I0430 23:03:21.852367  4091 net.cpp:131] Top shape: 111 (111)
I0430 23:03:21.852371  4091 net.cpp:139] Memory required for data: 1364412
I0430 23:03:21.852396  4091 layer_factory.hpp:77] Creating layer conv0
I0430 23:03:21.852414  4091 net.cpp:86] Creating Layer conv0
I0430 23:03:21.852421  4091 net.cpp:408] conv0 <- data
I0430 23:03:21.852437  4091 net.cpp:382] conv0 -> conv0
I0430 23:03:22.144567  4091 net.cpp:124] Setting up conv0
I0430 23:03:22.144600  4091 net.cpp:131] Top shape: 111 8 34 34 (1026528)
I0430 23:03:22.144605  4091 net.cpp:139] Memory required for data: 5470524
I0430 23:03:22.144623  4091 layer_factory.hpp:77] Creating layer Sigmoid0
I0430 23:03:22.144639  4091 net.cpp:86] Creating Layer Sigmoid0
I0430 23:03:22.144644  4091 net.cpp:408] Sigmoid0 <- conv0
I0430 23:03:22.144649  4091 net.cpp:382] Sigmoid0 -> Sigmoid0
I0430 23:03:22.144872  4091 net.cpp:124] Setting up Sigmoid0
I0430 23:03:22.144884  4091 net.cpp:131] Top shape: 111 8 34 34 (1026528)
I0430 23:03:22.144888  4091 net.cpp:139] Memory required for data: 9576636
I0430 23:03:22.144892  4091 layer_factory.hpp:77] Creating layer pool0
I0430 23:03:22.144901  4091 net.cpp:86] Creating Layer pool0
I0430 23:03:22.144907  4091 net.cpp:408] pool0 <- Sigmoid0
I0430 23:03:22.144913  4091 net.cpp:382] pool0 -> pool0
I0430 23:03:22.145790  4091 net.cpp:124] Setting up pool0
I0430 23:03:22.145807  4091 net.cpp:131] Top shape: 111 8 17 17 (256632)
I0430 23:03:22.145812  4091 net.cpp:139] Memory required for data: 10603164
I0430 23:03:22.145815  4091 layer_factory.hpp:77] Creating layer ip1
I0430 23:03:22.145828  4091 net.cpp:86] Creating Layer ip1
I0430 23:03:22.145833  4091 net.cpp:408] ip1 <- pool0
I0430 23:03:22.145840  4091 net.cpp:382] ip1 -> ip1
I0430 23:03:22.148474  4091 net.cpp:124] Setting up ip1
I0430 23:03:22.148490  4091 net.cpp:131] Top shape: 111 20 (2220)
I0430 23:03:22.148495  4091 net.cpp:139] Memory required for data: 10612044
I0430 23:03:22.148505  4091 layer_factory.hpp:77] Creating layer relu1
I0430 23:03:22.148512  4091 net.cpp:86] Creating Layer relu1
I0430 23:03:22.148516  4091 net.cpp:408] relu1 <- ip1
I0430 23:03:22.148524  4091 net.cpp:369] relu1 -> ip1 (in-place)
I0430 23:03:22.148715  4091 net.cpp:124] Setting up relu1
I0430 23:03:22.148726  4091 net.cpp:131] Top shape: 111 20 (2220)
I0430 23:03:22.148730  4091 net.cpp:139] Memory required for data: 10620924
I0430 23:03:22.148735  4091 layer_factory.hpp:77] Creating layer ip2
I0430 23:03:22.148742  4091 net.cpp:86] Creating Layer ip2
I0430 23:03:22.148748  4091 net.cpp:408] ip2 <- ip1
I0430 23:03:22.148754  4091 net.cpp:382] ip2 -> ip2
I0430 23:03:22.148882  4091 net.cpp:124] Setting up ip2
I0430 23:03:22.148892  4091 net.cpp:131] Top shape: 111 10 (1110)
I0430 23:03:22.148896  4091 net.cpp:139] Memory required for data: 10625364
I0430 23:03:22.148905  4091 layer_factory.hpp:77] Creating layer relu2
I0430 23:03:22.148911  4091 net.cpp:86] Creating Layer relu2
I0430 23:03:22.148916  4091 net.cpp:408] relu2 <- ip2
I0430 23:03:22.148921  4091 net.cpp:369] relu2 -> ip2 (in-place)
I0430 23:03:22.149104  4091 net.cpp:124] Setting up relu2
I0430 23:03:22.149114  4091 net.cpp:131] Top shape: 111 10 (1110)
I0430 23:03:22.149117  4091 net.cpp:139] Memory required for data: 10629804
I0430 23:03:22.149122  4091 layer_factory.hpp:77] Creating layer ip3
I0430 23:03:22.149132  4091 net.cpp:86] Creating Layer ip3
I0430 23:03:22.149137  4091 net.cpp:408] ip3 <- ip2
I0430 23:03:22.149143  4091 net.cpp:382] ip3 -> ip3
I0430 23:03:22.150275  4091 net.cpp:124] Setting up ip3
I0430 23:03:22.150290  4091 net.cpp:131] Top shape: 111 80 (8880)
I0430 23:03:22.150295  4091 net.cpp:139] Memory required for data: 10665324
I0430 23:03:22.150302  4091 layer_factory.hpp:77] Creating layer relu3
I0430 23:03:22.150310  4091 net.cpp:86] Creating Layer relu3
I0430 23:03:22.150313  4091 net.cpp:408] relu3 <- ip3
I0430 23:03:22.150321  4091 net.cpp:369] relu3 -> ip3 (in-place)
I0430 23:03:22.150514  4091 net.cpp:124] Setting up relu3
I0430 23:03:22.150524  4091 net.cpp:131] Top shape: 111 80 (8880)
I0430 23:03:22.150528  4091 net.cpp:139] Memory required for data: 10700844
I0430 23:03:22.150532  4091 layer_factory.hpp:77] Creating layer ip4
I0430 23:03:22.150557  4091 net.cpp:86] Creating Layer ip4
I0430 23:03:22.150562  4091 net.cpp:408] ip4 <- ip3
I0430 23:03:22.150568  4091 net.cpp:382] ip4 -> ip4
I0430 23:03:22.150708  4091 net.cpp:124] Setting up ip4
I0430 23:03:22.150718  4091 net.cpp:131] Top shape: 111 10 (1110)
I0430 23:03:22.150722  4091 net.cpp:139] Memory required for data: 10705284
I0430 23:03:22.150732  4091 layer_factory.hpp:77] Creating layer loss
I0430 23:03:22.150738  4091 net.cpp:86] Creating Layer loss
I0430 23:03:22.150741  4091 net.cpp:408] loss <- ip4
I0430 23:03:22.150746  4091 net.cpp:408] loss <- label
I0430 23:03:22.150753  4091 net.cpp:382] loss -> loss
I0430 23:03:22.150768  4091 layer_factory.hpp:77] Creating layer loss
…
I0430 23:03:22.152207  4091 solver.cpp:173] Creating test net (#0) specified by net file: ECE595/cifar/train_test/var_everything/cifar_train_test_213.prototxt
I0430 23:03:22.152240  4091 net.cpp:296] The NetState phase (1) differed from the phase (0) specified by a rule in layer cifar
I0430 23:03:22.152354  4091 net.cpp:53] Initializing net from parameters: 
name: "CIFAR"
state {
  phase: TEST
}
layer {
  name: "cifar"
  type: "Data"
  top: "data"
  top: "label"
  include {
    phase: TEST
  }
  transform_param {
    mean_file: "examples/cifar10/mean.binaryproto"
  }
  data_param {
    source: "examples/cifar10/cifar10_test_lmdb"
    batch_size: 1000
    backend: LMDB
  }
}
layer {
  name: "conv0"
  type: "Convolution"
  bottom: "data"
  top: "conv0"
  param {
    lr_mult: 1
  }
  param {
    lr_mult: 2
  }
  convolution_param {
    num_output: 8
    pad: 2
    kernel_size: 3
    stride: 1
    weight_filler {
      type: "gaussian"
      std: 0.01
    }
    bias_filler {
      type: "constant"
    }
  }
}
layer {
  name: "Sigmoid0"
  type: "Sigmoid"
  bottom: "conv0"
  top: "Sigmoid0"
}
layer {
  name: "pool0"
  type: "Pooling"
  bottom: "Sigmoid0"
  top: "pool0"
  pooling_param {
    pool: AVE
    kernel_size: 3
    stride: 2
  }
}
layer {
  name: "ip1"
  type: "InnerProduct"
  bottom: "pool0"
  top: "ip1"
  param {
    lr_mult: 1
  }
  param {
    lr_mult: 2
  }
  inner_product_param {
    num_output: 20
    weight_filler {
      type: "gaussian"
      std: 0.01
    }
    bias_filler {
      type: "constant"
    }
  }
}
layer {
  name: "relu1"
  type: "ReLU"
  bottom: "ip1"
  top: "ip1"
}
layer {
  name: "ip2"
  type: "InnerProduct"
  bottom: "ip1"
  top: "ip2"
  param {
    lr_mult: 1
  }
  param {
    lr_mult: 2
  }
  inner_product_param {
    num_output: 10
    weight_filler {
      type: "gaussian"
      std: 0.01
    }
    bias_filler {
      type: "constant"
    }
  }
}
layer {
  name: "relu2"
  type: "ReLU"
  bottom: "ip2"
  top: "ip2"
}
layer {
  name: "ip3"
  type: "InnerProduct"
  bottom: "ip2"
  top: "ip3"
  param {
    lr_mult: 1
  }
  param {
    lr_mult: 2
  }
  inner_product_param {
    num_output: 80
    weight_filler {
      type: "gaussian"
      std: 0.01
    }
    bias_filler {
      type: "constant"
    }
  }
}
layer {
  name: "relu3"
  type: "ReLU"
  bottom: "ip3"
  top: "ip3"
}
layer {
  name: "ip4"
  type: "InnerProduct"
  bottom: "ip3"
  top: "ip4"
  param {
    lr_mult: 1
  }
  param {
    lr_mult: 2
  }
  inner_product_param {
    num_output: 10
    weight_filler {
      type: "gaussian"
      std: 0.01
    }
    bias_filler {
      type: "constant"
    }
  }
}
layer {
  name: "accuracy"
  type: "Accuracy"
  bottom: "ip4"
  bottom: "label"
  top: "accuracy"
  include {
    phase: TEST
  }
}
layer {
  name: "loss"
  type: "SoftmaxWithLoss"
  bottom: "ip4"
  bottom: "label"
  top: "loss"
}
I0430 23:03:22.152448  4091 layer_factory.hpp:77] Creating layer cifar
I0430 23:03:22.152505  4091 db_lmdb.cpp:35] Opened lmdb examples/cifar10/cifar10_test_lmdb
I0430 23:03:22.152519  4091 net.cpp:86] Creating Layer cifar
I0430 23:03:22.152525  4091 net.cpp:382] cifar -> data
I0430 23:03:22.152534  4091 net.cpp:382] cifar -> label
I0430 23:03:22.152542  4091 data_transformer.cpp:25] Loading mean file from: examples/cifar10/mean.binaryproto
I0430 23:03:22.152711  4091 data_layer.cpp:45] output data size: 1000,3,32,32
I0430 23:03:22.178534  4091 net.cpp:124] Setting up cifar
I0430 23:03:22.178568  4091 net.cpp:131] Top shape: 1000 3 32 32 (3072000)
I0430 23:03:22.178575  4091 net.cpp:131] Top shape: 1000 (1000)
I0430 23:03:22.178580  4091 net.cpp:139] Memory required for data: 12292000
I0430 23:03:22.178586  4091 layer_factory.hpp:77] Creating layer label_cifar_1_split
I0430 23:03:22.178602  4091 net.cpp:86] Creating Layer label_cifar_1_split
I0430 23:03:22.178607  4091 net.cpp:408] label_cifar_1_split <- label
I0430 23:03:22.178613  4091 net.cpp:382] label_cifar_1_split -> label_cifar_1_split_0
I0430 23:03:22.178623  4091 net.cpp:382] label_cifar_1_split -> label_cifar_1_split_1
I0430 23:03:22.178745  4091 net.cpp:124] Setting up label_cifar_1_split
I0430 23:03:22.178753  4091 net.cpp:131] Top shape: 1000 (1000)
I0430 23:03:22.178757  4091 net.cpp:131] Top shape: 1000 (1000)
I0430 23:03:22.178761  4091 net.cpp:139] Memory required for data: 12300000
I0430 23:03:22.178764  4091 layer_factory.hpp:77] Creating layer conv0
I0430 23:03:22.178778  4091 net.cpp:86] Creating Layer conv0
I0430 23:03:22.178782  4091 net.cpp:408] conv0 <- data
I0430 23:03:22.178788  4091 net.cpp:382] conv0 -> conv0
I0430 23:03:22.180444  4091 net.cpp:124] Setting up conv0
I0430 23:03:22.180459  4091 net.cpp:131] Top shape: 1000 8 34 34 (9248000)
I0430 23:03:22.180464  4091 net.cpp:139] Memory required for data: 49292000
I0430 23:03:22.180474  4091 layer_factory.hpp:77] Creating layer Sigmoid0
I0430 23:03:22.180482  4091 net.cpp:86] Creating Layer Sigmoid0
I0430 23:03:22.180485  4091 net.cpp:408] Sigmoid0 <- conv0
I0430 23:03:22.180491  4091 net.cpp:382] Sigmoid0 -> Sigmoid0
I0430 23:03:22.180682  4091 net.cpp:124] Setting up Sigmoid0
I0430 23:03:22.180692  4091 net.cpp:131] Top shape: 1000 8 34 34 (9248000)
I0430 23:03:22.180696  4091 net.cpp:139] Memory required for data: 86284000
I0430 23:03:22.180701  4091 layer_factory.hpp:77] Creating layer pool0
I0430 23:03:22.180708  4091 net.cpp:86] Creating Layer pool0
I0430 23:03:22.180712  4091 net.cpp:408] pool0 <- Sigmoid0
I0430 23:03:22.180717  4091 net.cpp:382] pool0 -> pool0
I0430 23:03:22.180999  4091 net.cpp:124] Setting up pool0
I0430 23:03:22.181008  4091 net.cpp:131] Top shape: 1000 8 17 17 (2312000)
I0430 23:03:22.181012  4091 net.cpp:139] Memory required for data: 95532000
I0430 23:03:22.181016  4091 layer_factory.hpp:77] Creating layer ip1
I0430 23:03:22.181025  4091 net.cpp:86] Creating Layer ip1
I0430 23:03:22.181030  4091 net.cpp:408] ip1 <- pool0
I0430 23:03:22.181035  4091 net.cpp:382] ip1 -> ip1
I0430 23:03:22.183495  4091 net.cpp:124] Setting up ip1
I0430 23:03:22.183506  4091 net.cpp:131] Top shape: 1000 20 (20000)
I0430 23:03:22.183509  4091 net.cpp:139] Memory required for data: 95612000
I0430 23:03:22.183534  4091 layer_factory.hpp:77] Creating layer relu1
I0430 23:03:22.183540  4091 net.cpp:86] Creating Layer relu1
I0430 23:03:22.183544  4091 net.cpp:408] relu1 <- ip1
I0430 23:03:22.183549  4091 net.cpp:369] relu1 -> ip1 (in-place)
I0430 23:03:22.183727  4091 net.cpp:124] Setting up relu1
I0430 23:03:22.183737  4091 net.cpp:131] Top shape: 1000 20 (20000)
I0430 23:03:22.183740  4091 net.cpp:139] Memory required for data: 95692000
I0430 23:03:22.183744  4091 layer_factory.hpp:77] Creating layer ip2
I0430 23:03:22.183751  4091 net.cpp:86] Creating Layer ip2
I0430 23:03:22.183754  4091 net.cpp:408] ip2 <- ip1
I0430 23:03:22.183760  4091 net.cpp:382] ip2 -> ip2
I0430 23:03:22.183881  4091 net.cpp:124] Setting up ip2
I0430 23:03:22.183889  4091 net.cpp:131] Top shape: 1000 10 (10000)
I0430 23:03:22.183893  4091 net.cpp:139] Memory required for data: 95732000
I0430 23:03:22.183902  4091 layer_factory.hpp:77] Creating layer relu2
I0430 23:03:22.183907  4091 net.cpp:86] Creating Layer relu2
I0430 23:03:22.183912  4091 net.cpp:408] relu2 <- ip2
I0430 23:03:22.183915  4091 net.cpp:369] relu2 -> ip2 (in-place)
I0430 23:03:22.184733  4091 net.cpp:124] Setting up relu2
I0430 23:03:22.184747  4091 net.cpp:131] Top shape: 1000 10 (10000)
I0430 23:03:22.184751  4091 net.cpp:139] Memory required for data: 95772000
I0430 23:03:22.184754  4091 layer_factory.hpp:77] Creating layer ip3
I0430 23:03:22.184762  4091 net.cpp:86] Creating Layer ip3
I0430 23:03:22.184767  4091 net.cpp:408] ip3 <- ip2
I0430 23:03:22.184773  4091 net.cpp:382] ip3 -> ip3
I0430 23:03:22.184945  4091 net.cpp:124] Setting up ip3
I0430 23:03:22.184954  4091 net.cpp:131] Top shape: 1000 80 (80000)
I0430 23:03:22.184959  4091 net.cpp:139] Memory required for data: 96092000
I0430 23:03:22.184965  4091 layer_factory.hpp:77] Creating layer relu3
I0430 23:03:22.184972  4091 net.cpp:86] Creating Layer relu3
I0430 23:03:22.184975  4091 net.cpp:408] relu3 <- ip3
I0430 23:03:22.184980  4091 net.cpp:369] relu3 -> ip3 (in-place)
I0430 23:03:22.185145  4091 net.cpp:124] Setting up relu3
I0430 23:03:22.185153  4091 net.cpp:131] Top shape: 1000 80 (80000)
I0430 23:03:22.185158  4091 net.cpp:139] Memory required for data: 96412000
I0430 23:03:22.185161  4091 layer_factory.hpp:77] Creating layer ip4
I0430 23:03:22.185168  4091 net.cpp:86] Creating Layer ip4
I0430 23:03:22.185171  4091 net.cpp:408] ip4 <- ip3
I0430 23:03:22.185178  4091 net.cpp:382] ip4 -> ip4
I0430 23:03:22.185308  4091 net.cpp:124] Setting up ip4
I0430 23:03:22.185317  4091 net.cpp:131] Top shape: 1000 10 (10000)
I0430 23:03:22.185319  4091 net.cpp:139] Memory required for data: 96452000
I0430 23:03:22.185329  4091 layer_factory.hpp:77] Creating layer ip4_ip4_0_split
I0430 23:03:22.185335  4091 net.cpp:86] Creating Layer ip4_ip4_0_split
I0430 23:03:22.185338  4091 net.cpp:408] ip4_ip4_0_split <- ip4
I0430 23:03:22.185344  4091 net.cpp:382] ip4_ip4_0_split -> ip4_ip4_0_split_0
I0430 23:03:22.185350  4091 net.cpp:382] ip4_ip4_0_split -> ip4_ip4_0_split_1
I0430 23:03:22.185384  4091 net.cpp:124] Setting up ip4_ip4_0_split
I0430 23:03:22.185391  4091 net.cpp:131] Top shape: 1000 10 (10000)
I0430 23:03:22.185395  4091 net.cpp:131] Top shape: 1000 10 (10000)
I0430 23:03:22.185400  4091 net.cpp:139] Memory required for data: 96532000
I0430 23:03:22.185403  4091 layer_factory.hpp:77] Creating layer accuracy
I0430 23:03:22.185410  4091 net.cpp:86] Creating Layer accuracy
I0430 23:03:22.185413  4091 net.cpp:408] accuracy <- ip4_ip4_0_split_0
I0430 23:03:22.185417  4091 net.cpp:408] accuracy <- label_cifar_1_split_0
I0430 23:03:22.185423  4091 net.cpp:382] accuracy -> accuracy
…
