…
I0501 01:42:41.750367 11685 net.cpp:296] The NetState phase (0) differed from the phase (1) specified by a rule in layer cifar
I0501 01:42:41.750385 11685 net.cpp:296] The NetState phase (0) differed from the phase (1) specified by a rule in layer accuracy
I0501 01:42:41.750468 11685 net.cpp:53] Initializing net from parameters: 
name: "CIFAR"
state {
  phase: TRAIN
  level: 0
  stage: ""
}
layer {
  name: "cifar"
  type: "Data"
  top: "data"
  top: "label"
  include {
    phase: TRAIN
  }
  transform_param {
    mean_file: "examples/cifar10/mean.binaryproto"
  }
  data_param {
    source: "examples/cifar10/cifar10_train_lmdb"
    batch_size: 111
    backend: LMDB
  }
}
layer {
  name: "conv0"
  type: "Convolution"
  bottom: "data"
  top: "conv0"
  param {
    lr_mult: 1
  }
  param {
    lr_mult: 2
  }
  convolution_param {
    num_output: 8
    pad: 2
    kernel_size: 3
    stride: 1
    weight_filler {
      type: "gaussian"
      std: 0.01
    }
    bias_filler {
      type: "constant"
    }
  }
}
layer {
  name: "Sigmoid0"
  type: "Sigmoid"
  bottom: "conv0"
  top: "Sigmoid0"
}
layer {
  name: "pool0"
  type: "Pooling"
  bottom: "Sigmoid0"
  top: "pool0"
  pooling_param {
    pool: AVE
    kernel_size: 3
    stride: 2
  }
}
layer {
  name: "ip1"
  type: "InnerProduct"
  bottom: "pool0"
  top: "ip1"
  param {
    lr_mult: 1
  }
  param {
    lr_mult: 2
  }
  inner_product_param {
    num_output: 160
    weight_filler {
      type: "gaussian"
      std: 0.01
    }
    bias_filler {
      type: "constant"
    }
  }
}
layer {
  name: "relu1"
  type: "ReLU"
  bottom: "ip1"
  top: "ip1"
}
layer {
  name: "ip2"
  type: "InnerProduct"
  bottom: "ip1"
  top: "ip2"
  param {
    lr_mult: 1
  }
  param {
    lr_mult: 2
  }
  inner_product_param {
    num_output: 40
    weight_filler {
      type: "gaussian"
      std: 0.01
    }
    bias_filler {
      type: "constant"
    }
  }
}
layer {
  name: "relu2"
  type: "ReLU"
  bottom: "ip2"
  top: "ip2"
}
layer {
  name: "ip3"
  type: "InnerProduct"
  bottom: "ip2"
  top: "ip3"
  param {
    lr_mult: 1
  }
  param {
    lr_mult: 2
  }
  inner_product_param {
    num_output: 80
    weight_filler {
      type: "gaussian"
      std: 0.01
    }
    bias_filler {
      type: "constant"
    }
  }
}
layer {
  name: "relu3"
  type: "ReLU"
  bottom: "ip3"
  top: "ip3"
}
layer {
  name: "ip4"
  type: "InnerProduct"
  bottom: "ip3"
  top: "ip4"
  param {
    lr_mult: 1
  }
  param {
    lr_mult: 2
  }
  inner_product_param {
    num_output: 10
    weight_filler {
      type: "gaussian"
      std: 0.01
    }
    bias_filler {
      type: "constant"
    }
  }
}
layer {
  name: "loss"
  type: "SoftmaxWithLoss"
  bottom: "ip4"
  bottom: "label"
  top: "loss"
}
I0501 01:42:41.750532 11685 layer_factory.hpp:77] Creating layer cifar
I0501 01:42:41.750613 11685 db_lmdb.cpp:35] Opened lmdb examples/cifar10/cifar10_train_lmdb
I0501 01:42:41.750636 11685 net.cpp:86] Creating Layer cifar
I0501 01:42:41.750658 11685 net.cpp:382] cifar -> data
I0501 01:42:41.750675 11685 net.cpp:382] cifar -> label
I0501 01:42:41.750689 11685 data_transformer.cpp:25] Loading mean file from: examples/cifar10/mean.binaryproto
I0501 01:42:41.752411 11685 data_layer.cpp:45] output data size: 111,3,32,32
I0501 01:42:41.758854 11685 net.cpp:124] Setting up cifar
I0501 01:42:41.758884 11685 net.cpp:131] Top shape: 111 3 32 32 (340992)
I0501 01:42:41.758889 11685 net.cpp:131] Top shape: 111 (111)
I0501 01:42:41.758893 11685 net.cpp:139] Memory required for data: 1364412
I0501 01:42:41.758910 11685 layer_factory.hpp:77] Creating layer conv0
I0501 01:42:41.758926 11685 net.cpp:86] Creating Layer conv0
I0501 01:42:41.758931 11685 net.cpp:408] conv0 <- data
I0501 01:42:41.758941 11685 net.cpp:382] conv0 -> conv0
I0501 01:42:41.985576 11685 net.cpp:124] Setting up conv0
I0501 01:42:41.985618 11685 net.cpp:131] Top shape: 111 8 34 34 (1026528)
I0501 01:42:41.985622 11685 net.cpp:139] Memory required for data: 5470524
I0501 01:42:41.985637 11685 layer_factory.hpp:77] Creating layer Sigmoid0
I0501 01:42:41.985648 11685 net.cpp:86] Creating Layer Sigmoid0
I0501 01:42:41.985652 11685 net.cpp:408] Sigmoid0 <- conv0
I0501 01:42:41.985658 11685 net.cpp:382] Sigmoid0 -> Sigmoid0
I0501 01:42:41.985852 11685 net.cpp:124] Setting up Sigmoid0
I0501 01:42:41.985860 11685 net.cpp:131] Top shape: 111 8 34 34 (1026528)
I0501 01:42:41.985863 11685 net.cpp:139] Memory required for data: 9576636
I0501 01:42:41.985867 11685 layer_factory.hpp:77] Creating layer pool0
I0501 01:42:41.985873 11685 net.cpp:86] Creating Layer pool0
I0501 01:42:41.985877 11685 net.cpp:408] pool0 <- Sigmoid0
I0501 01:42:41.985882 11685 net.cpp:382] pool0 -> pool0
I0501 01:42:41.986565 11685 net.cpp:124] Setting up pool0
I0501 01:42:41.986577 11685 net.cpp:131] Top shape: 111 8 17 17 (256632)
I0501 01:42:41.986595 11685 net.cpp:139] Memory required for data: 10603164
I0501 01:42:41.986599 11685 layer_factory.hpp:77] Creating layer ip1
I0501 01:42:41.986608 11685 net.cpp:86] Creating Layer ip1
I0501 01:42:41.986613 11685 net.cpp:408] ip1 <- pool0
I0501 01:42:41.986616 11685 net.cpp:382] ip1 -> ip1
I0501 01:42:41.996554 11685 net.cpp:124] Setting up ip1
I0501 01:42:41.996567 11685 net.cpp:131] Top shape: 111 160 (17760)
I0501 01:42:41.996585 11685 net.cpp:139] Memory required for data: 10674204
I0501 01:42:41.996593 11685 layer_factory.hpp:77] Creating layer relu1
I0501 01:42:41.996599 11685 net.cpp:86] Creating Layer relu1
I0501 01:42:41.996603 11685 net.cpp:408] relu1 <- ip1
I0501 01:42:41.996608 11685 net.cpp:369] relu1 -> ip1 (in-place)
I0501 01:42:41.996779 11685 net.cpp:124] Setting up relu1
I0501 01:42:41.996788 11685 net.cpp:131] Top shape: 111 160 (17760)
I0501 01:42:41.996790 11685 net.cpp:139] Memory required for data: 10745244
I0501 01:42:41.996793 11685 layer_factory.hpp:77] Creating layer ip2
I0501 01:42:41.996799 11685 net.cpp:86] Creating Layer ip2
I0501 01:42:41.996803 11685 net.cpp:408] ip2 <- ip1
I0501 01:42:41.996807 11685 net.cpp:382] ip2 -> ip2
I0501 01:42:41.997874 11685 net.cpp:124] Setting up ip2
I0501 01:42:41.997884 11685 net.cpp:131] Top shape: 111 40 (4440)
I0501 01:42:41.997903 11685 net.cpp:139] Memory required for data: 10763004
I0501 01:42:41.997911 11685 layer_factory.hpp:77] Creating layer relu2
I0501 01:42:41.997917 11685 net.cpp:86] Creating Layer relu2
I0501 01:42:41.997920 11685 net.cpp:408] relu2 <- ip2
I0501 01:42:41.997925 11685 net.cpp:369] relu2 -> ip2 (in-place)
I0501 01:42:41.998095 11685 net.cpp:124] Setting up relu2
I0501 01:42:41.998102 11685 net.cpp:131] Top shape: 111 40 (4440)
I0501 01:42:41.998106 11685 net.cpp:139] Memory required for data: 10780764
I0501 01:42:41.998108 11685 layer_factory.hpp:77] Creating layer ip3
I0501 01:42:41.998116 11685 net.cpp:86] Creating Layer ip3
I0501 01:42:41.998119 11685 net.cpp:408] ip3 <- ip2
I0501 01:42:41.998123 11685 net.cpp:382] ip3 -> ip3
I0501 01:42:41.998312 11685 net.cpp:124] Setting up ip3
I0501 01:42:41.998319 11685 net.cpp:131] Top shape: 111 80 (8880)
I0501 01:42:41.998322 11685 net.cpp:139] Memory required for data: 10816284
I0501 01:42:41.998327 11685 layer_factory.hpp:77] Creating layer relu3
I0501 01:42:41.998332 11685 net.cpp:86] Creating Layer relu3
I0501 01:42:41.998335 11685 net.cpp:408] relu3 <- ip3
I0501 01:42:41.998339 11685 net.cpp:369] relu3 -> ip3 (in-place)
I0501 01:42:41.998476 11685 net.cpp:124] Setting up relu3
I0501 01:42:41.998484 11685 net.cpp:131] Top shape: 111 80 (8880)
I0501 01:42:41.998486 11685 net.cpp:139] Memory required for data: 10851804
I0501 01:42:41.998489 11685 layer_factory.hpp:77] Creating layer ip4
I0501 01:42:41.998509 11685 net.cpp:86] Creating Layer ip4
I0501 01:42:41.998517 11685 net.cpp:408] ip4 <- ip3
I0501 01:42:41.998535 11685 net.cpp:382] ip4 -> ip4
I0501 01:42:41.999481 11685 net.cpp:124] Setting up ip4
I0501 01:42:41.999493 11685 net.cpp:131] Top shape: 111 10 (1110)
I0501 01:42:41.999496 11685 net.cpp:139] Memory required for data: 10856244
I0501 01:42:41.999505 11685 layer_factory.hpp:77] Creating layer loss
I0501 01:42:41.999510 11685 net.cpp:86] Creating Layer loss
I0501 01:42:41.999512 11685 net.cpp:408] loss <- ip4
I0501 01:42:41.999516 11685 net.cpp:408] loss <- label
I0501 01:42:41.999521 11685 net.cpp:382] loss -> loss
I0501 01:42:41.999534 11685 layer_factory.hpp:77] Creating layer loss
…
I0501 01:42:42.000761 11685 solver.cpp:173] Creating test net (#0) specified by net file: ECE595/cifar/train_test/var_everything/cifar_train_test_298.prototxt
I0501 01:42:42.000789 11685 net.cpp:296] The NetState phase (1) differed from the phase (0) specified by a rule in layer cifar
I0501 01:42:42.000932 11685 net.cpp:53] Initializing net from parameters: 
name: "CIFAR"
state {
  phase: TEST
}
layer {
  name: "cifar"
  type: "Data"
  top: "data"
  top: "label"
  include {
    phase: TEST
  }
  transform_param {
    mean_file: "examples/cifar10/mean.binaryproto"
  }
  data_param {
    source: "examples/cifar10/cifar10_test_lmdb"
    batch_size: 1000
    backend: LMDB
  }
}
layer {
  name: "conv0"
  type: "Convolution"
  bottom: "data"
  top: "conv0"
  param {
    lr_mult: 1
  }
  param {
    lr_mult: 2
  }
  convolution_param {
    num_output: 8
    pad: 2
    kernel_size: 3
    stride: 1
    weight_filler {
      type: "gaussian"
      std: 0.01
    }
    bias_filler {
      type: "constant"
    }
  }
}
layer {
  name: "Sigmoid0"
  type: "Sigmoid"
  bottom: "conv0"
  top: "Sigmoid0"
}
layer {
  name: "pool0"
  type: "Pooling"
  bottom: "Sigmoid0"
  top: "pool0"
  pooling_param {
    pool: AVE
    kernel_size: 3
    stride: 2
  }
}
layer {
  name: "ip1"
  type: "InnerProduct"
  bottom: "pool0"
  top: "ip1"
  param {
    lr_mult: 1
  }
  param {
    lr_mult: 2
  }
  inner_product_param {
    num_output: 160
    weight_filler {
      type: "gaussian"
      std: 0.01
    }
    bias_filler {
      type: "constant"
    }
  }
}
layer {
  name: "relu1"
  type: "ReLU"
  bottom: "ip1"
  top: "ip1"
}
layer {
  name: "ip2"
  type: "InnerProduct"
  bottom: "ip1"
  top: "ip2"
  param {
    lr_mult: 1
  }
  param {
    lr_mult: 2
  }
  inner_product_param {
    num_output: 40
    weight_filler {
      type: "gaussian"
      std: 0.01
    }
    bias_filler {
      type: "constant"
    }
  }
}
layer {
  name: "relu2"
  type: "ReLU"
  bottom: "ip2"
  top: "ip2"
}
layer {
  name: "ip3"
  type: "InnerProduct"
  bottom: "ip2"
  top: "ip3"
  param {
    lr_mult: 1
  }
  param {
    lr_mult: 2
  }
  inner_product_param {
    num_output: 80
    weight_filler {
      type: "gaussian"
      std: 0.01
    }
    bias_filler {
      type: "constant"
    }
  }
}
layer {
  name: "relu3"
  type: "ReLU"
  bottom: "ip3"
  top: "ip3"
}
layer {
  name: "ip4"
  type: "InnerProduct"
  bottom: "ip3"
  top: "ip4"
  param {
    lr_mult: 1
  }
  param {
    lr_mult: 2
  }
  inner_product_param {
    num_output: 10
    weight_filler {
      type: "gaussian"
      std: 0.01
    }
    bias_filler {
      type: "constant"
    }
  }
}
layer {
  name: "accuracy"
  type: "Accuracy"
  bottom: "ip4"
  bottom: "label"
  top: "accuracy"
  include {
    phase: TEST
  }
}
layer {
  name: "loss"
  type: "SoftmaxWithLoss"
  bottom: "ip4"
  bottom: "label"
  top: "loss"
}
I0501 01:42:42.001019 11685 layer_factory.hpp:77] Creating layer cifar
I0501 01:42:42.001080 11685 db_lmdb.cpp:35] Opened lmdb examples/cifar10/cifar10_test_lmdb
I0501 01:42:42.001092 11685 net.cpp:86] Creating Layer cifar
I0501 01:42:42.001097 11685 net.cpp:382] cifar -> data
I0501 01:42:42.001106 11685 net.cpp:382] cifar -> label
I0501 01:42:42.001113 11685 data_transformer.cpp:25] Loading mean file from: examples/cifar10/mean.binaryproto
I0501 01:42:42.001289 11685 data_layer.cpp:45] output data size: 1000,3,32,32
I0501 01:42:42.022526 11685 net.cpp:124] Setting up cifar
I0501 01:42:42.022565 11685 net.cpp:131] Top shape: 1000 3 32 32 (3072000)
I0501 01:42:42.022572 11685 net.cpp:131] Top shape: 1000 (1000)
I0501 01:42:42.022573 11685 net.cpp:139] Memory required for data: 12292000
I0501 01:42:42.022579 11685 layer_factory.hpp:77] Creating layer label_cifar_1_split
I0501 01:42:42.022593 11685 net.cpp:86] Creating Layer label_cifar_1_split
I0501 01:42:42.022596 11685 net.cpp:408] label_cifar_1_split <- label
I0501 01:42:42.022601 11685 net.cpp:382] label_cifar_1_split -> label_cifar_1_split_0
I0501 01:42:42.022624 11685 net.cpp:382] label_cifar_1_split -> label_cifar_1_split_1
I0501 01:42:42.022725 11685 net.cpp:124] Setting up label_cifar_1_split
I0501 01:42:42.022733 11685 net.cpp:131] Top shape: 1000 (1000)
I0501 01:42:42.022737 11685 net.cpp:131] Top shape: 1000 (1000)
I0501 01:42:42.022740 11685 net.cpp:139] Memory required for data: 12300000
I0501 01:42:42.022743 11685 layer_factory.hpp:77] Creating layer conv0
I0501 01:42:42.022773 11685 net.cpp:86] Creating Layer conv0
I0501 01:42:42.022775 11685 net.cpp:408] conv0 <- data
I0501 01:42:42.022783 11685 net.cpp:382] conv0 -> conv0
I0501 01:42:42.024526 11685 net.cpp:124] Setting up conv0
I0501 01:42:42.024539 11685 net.cpp:131] Top shape: 1000 8 34 34 (9248000)
I0501 01:42:42.024557 11685 net.cpp:139] Memory required for data: 49292000
I0501 01:42:42.024569 11685 layer_factory.hpp:77] Creating layer Sigmoid0
I0501 01:42:42.024575 11685 net.cpp:86] Creating Layer Sigmoid0
I0501 01:42:42.024579 11685 net.cpp:408] Sigmoid0 <- conv0
I0501 01:42:42.024583 11685 net.cpp:382] Sigmoid0 -> Sigmoid0
I0501 01:42:42.024775 11685 net.cpp:124] Setting up Sigmoid0
I0501 01:42:42.024785 11685 net.cpp:131] Top shape: 1000 8 34 34 (9248000)
I0501 01:42:42.024787 11685 net.cpp:139] Memory required for data: 86284000
I0501 01:42:42.024791 11685 layer_factory.hpp:77] Creating layer pool0
I0501 01:42:42.024799 11685 net.cpp:86] Creating Layer pool0
I0501 01:42:42.024802 11685 net.cpp:408] pool0 <- Sigmoid0
I0501 01:42:42.024829 11685 net.cpp:382] pool0 -> pool0
I0501 01:42:42.025113 11685 net.cpp:124] Setting up pool0
I0501 01:42:42.025123 11685 net.cpp:131] Top shape: 1000 8 17 17 (2312000)
I0501 01:42:42.025126 11685 net.cpp:139] Memory required for data: 95532000
I0501 01:42:42.025130 11685 layer_factory.hpp:77] Creating layer ip1
I0501 01:42:42.025138 11685 net.cpp:86] Creating Layer ip1
I0501 01:42:42.025141 11685 net.cpp:408] ip1 <- pool0
I0501 01:42:42.025161 11685 net.cpp:382] ip1 -> ip1
I0501 01:42:42.036401 11685 net.cpp:124] Setting up ip1
I0501 01:42:42.036430 11685 net.cpp:131] Top shape: 1000 160 (160000)
I0501 01:42:42.036433 11685 net.cpp:139] Memory required for data: 96172000
I0501 01:42:42.036456 11685 layer_factory.hpp:77] Creating layer relu1
I0501 01:42:42.036463 11685 net.cpp:86] Creating Layer relu1
I0501 01:42:42.036468 11685 net.cpp:408] relu1 <- ip1
I0501 01:42:42.036487 11685 net.cpp:369] relu1 -> ip1 (in-place)
I0501 01:42:42.036659 11685 net.cpp:124] Setting up relu1
I0501 01:42:42.036669 11685 net.cpp:131] Top shape: 1000 160 (160000)
I0501 01:42:42.036671 11685 net.cpp:139] Memory required for data: 96812000
I0501 01:42:42.036674 11685 layer_factory.hpp:77] Creating layer ip2
I0501 01:42:42.036682 11685 net.cpp:86] Creating Layer ip2
I0501 01:42:42.036685 11685 net.cpp:408] ip2 <- ip1
I0501 01:42:42.036690 11685 net.cpp:382] ip2 -> ip2
I0501 01:42:42.037075 11685 net.cpp:124] Setting up ip2
I0501 01:42:42.037084 11685 net.cpp:131] Top shape: 1000 40 (40000)
I0501 01:42:42.037103 11685 net.cpp:139] Memory required for data: 96972000
I0501 01:42:42.037112 11685 layer_factory.hpp:77] Creating layer relu2
I0501 01:42:42.037120 11685 net.cpp:86] Creating Layer relu2
I0501 01:42:42.037123 11685 net.cpp:408] relu2 <- ip2
I0501 01:42:42.037128 11685 net.cpp:369] relu2 -> ip2 (in-place)
I0501 01:42:42.037920 11685 net.cpp:124] Setting up relu2
I0501 01:42:42.037931 11685 net.cpp:131] Top shape: 1000 40 (40000)
I0501 01:42:42.037950 11685 net.cpp:139] Memory required for data: 97132000
I0501 01:42:42.037953 11685 layer_factory.hpp:77] Creating layer ip3
I0501 01:42:42.037961 11685 net.cpp:86] Creating Layer ip3
I0501 01:42:42.037964 11685 net.cpp:408] ip3 <- ip2
I0501 01:42:42.037971 11685 net.cpp:382] ip3 -> ip3
I0501 01:42:42.038197 11685 net.cpp:124] Setting up ip3
I0501 01:42:42.038208 11685 net.cpp:131] Top shape: 1000 80 (80000)
I0501 01:42:42.038210 11685 net.cpp:139] Memory required for data: 97452000
I0501 01:42:42.038215 11685 layer_factory.hpp:77] Creating layer relu3
I0501 01:42:42.038220 11685 net.cpp:86] Creating Layer relu3
I0501 01:42:42.038223 11685 net.cpp:408] relu3 <- ip3
I0501 01:42:42.038228 11685 net.cpp:369] relu3 -> ip3 (in-place)
I0501 01:42:42.038398 11685 net.cpp:124] Setting up relu3
I0501 01:42:42.038408 11685 net.cpp:131] Top shape: 1000 80 (80000)
I0501 01:42:42.038410 11685 net.cpp:139] Memory required for data: 97772000
I0501 01:42:42.038414 11685 layer_factory.hpp:77] Creating layer ip4
I0501 01:42:42.038419 11685 net.cpp:86] Creating Layer ip4
I0501 01:42:42.038422 11685 net.cpp:408] ip4 <- ip3
I0501 01:42:42.038429 11685 net.cpp:382] ip4 -> ip4
I0501 01:42:42.038550 11685 net.cpp:124] Setting up ip4
I0501 01:42:42.038558 11685 net.cpp:131] Top shape: 1000 10 (10000)
I0501 01:42:42.038560 11685 net.cpp:139] Memory required for data: 97812000
I0501 01:42:42.038570 11685 layer_factory.hpp:77] Creating layer ip4_ip4_0_split
I0501 01:42:42.038575 11685 net.cpp:86] Creating Layer ip4_ip4_0_split
I0501 01:42:42.038578 11685 net.cpp:408] ip4_ip4_0_split <- ip4
I0501 01:42:42.038583 11685 net.cpp:382] ip4_ip4_0_split -> ip4_ip4_0_split_0
I0501 01:42:42.038589 11685 net.cpp:382] ip4_ip4_0_split -> ip4_ip4_0_split_1
I0501 01:42:42.038630 11685 net.cpp:124] Setting up ip4_ip4_0_split
I0501 01:42:42.038636 11685 net.cpp:131] Top shape: 1000 10 (10000)
I0501 01:42:42.038640 11685 net.cpp:131] Top shape: 1000 10 (10000)
I0501 01:42:42.038642 11685 net.cpp:139] Memory required for data: 97892000
I0501 01:42:42.038645 11685 layer_factory.hpp:77] Creating layer accuracy
I0501 01:42:42.038651 11685 net.cpp:86] Creating Layer accuracy
I0501 01:42:42.038655 11685 net.cpp:408] accuracy <- ip4_ip4_0_split_0
I0501 01:42:42.038658 11685 net.cpp:408] accuracy <- label_cifar_1_split_0
I0501 01:42:42.038662 11685 net.cpp:382] accuracy -> accuracy
…
