…
I0430 22:38:40.653236  2765 net.cpp:296] The NetState phase (0) differed from the phase (1) specified by a rule in layer cifar
I0430 22:38:40.653256  2765 net.cpp:296] The NetState phase (0) differed from the phase (1) specified by a rule in layer accuracy
I0430 22:38:40.653360  2765 net.cpp:53] Initializing net from parameters: 
name: "CIFAR"
state {
  phase: TRAIN
  level: 0
  stage: ""
}
layer {
  name: "cifar"
  type: "Data"
  top: "data"
  top: "label"
  include {
    phase: TRAIN
  }
  transform_param {
    mean_file: "examples/cifar10/mean.binaryproto"
  }
  data_param {
    source: "examples/cifar10/cifar10_train_lmdb"
    batch_size: 111
    backend: LMDB
  }
}
layer {
  name: "conv0"
  type: "Convolution"
  bottom: "data"
  top: "conv0"
  param {
    lr_mult: 1
  }
  param {
    lr_mult: 2
  }
  convolution_param {
    num_output: 8
    pad: 2
    kernel_size: 3
    stride: 1
    weight_filler {
      type: "gaussian"
      std: 0.01
    }
    bias_filler {
      type: "constant"
    }
  }
}
layer {
  name: "Sigmoid0"
  type: "Sigmoid"
  bottom: "conv0"
  top: "Sigmoid0"
}
layer {
  name: "pool0"
  type: "Pooling"
  bottom: "Sigmoid0"
  top: "pool0"
  pooling_param {
    pool: AVE
    kernel_size: 3
    stride: 2
  }
}
layer {
  name: "ip1"
  type: "InnerProduct"
  bottom: "pool0"
  top: "ip1"
  param {
    lr_mult: 1
  }
  param {
    lr_mult: 2
  }
  inner_product_param {
    num_output: 10
    weight_filler {
      type: "gaussian"
      std: 0.01
    }
    bias_filler {
      type: "constant"
    }
  }
}
layer {
  name: "relu1"
  type: "ReLU"
  bottom: "ip1"
  top: "ip1"
}
layer {
  name: "ip2"
  type: "InnerProduct"
  bottom: "ip1"
  top: "ip2"
  param {
    lr_mult: 1
  }
  param {
    lr_mult: 2
  }
  inner_product_param {
    num_output: 80
    weight_filler {
      type: "gaussian"
      std: 0.01
    }
    bias_filler {
      type: "constant"
    }
  }
}
layer {
  name: "relu2"
  type: "ReLU"
  bottom: "ip2"
  top: "ip2"
}
layer {
  name: "ip3"
  type: "InnerProduct"
  bottom: "ip2"
  top: "ip3"
  param {
    lr_mult: 1
  }
  param {
    lr_mult: 2
  }
  inner_product_param {
    num_output: 10
    weight_filler {
      type: "gaussian"
      std: 0.01
    }
    bias_filler {
      type: "constant"
    }
  }
}
layer {
  name: "relu3"
  type: "ReLU"
  bottom: "ip3"
  top: "ip3"
}
layer {
  name: "ip4"
  type: "InnerProduct"
  bottom: "ip3"
  top: "ip4"
  param {
    lr_mult: 1
  }
  param {
    lr_mult: 2
  }
  inner_product_param {
    num_output: 10
    weight_filler {
      type: "gaussian"
      std: 0.01
    }
    bias_filler {
      type: "constant"
    }
  }
}
layer {
  name: "loss"
  type: "SoftmaxWithLoss"
  bottom: "ip4"
  bottom: "label"
  top: "loss"
}
I0430 22:38:40.653440  2765 layer_factory.hpp:77] Creating layer cifar
I0430 22:38:40.653539  2765 db_lmdb.cpp:35] Opened lmdb examples/cifar10/cifar10_train_lmdb
I0430 22:38:40.653568  2765 net.cpp:86] Creating Layer cifar
I0430 22:38:40.653576  2765 net.cpp:382] cifar -> data
I0430 22:38:40.653599  2765 net.cpp:382] cifar -> label
I0430 22:38:40.653610  2765 data_transformer.cpp:25] Loading mean file from: examples/cifar10/mean.binaryproto
I0430 22:38:40.655716  2765 data_layer.cpp:45] output data size: 111,3,32,32
I0430 22:38:40.663590  2765 net.cpp:124] Setting up cifar
I0430 22:38:40.663609  2765 net.cpp:131] Top shape: 111 3 32 32 (340992)
I0430 22:38:40.663615  2765 net.cpp:131] Top shape: 111 (111)
I0430 22:38:40.663619  2765 net.cpp:139] Memory required for data: 1364412
I0430 22:38:40.663643  2765 layer_factory.hpp:77] Creating layer conv0
I0430 22:38:40.663663  2765 net.cpp:86] Creating Layer conv0
I0430 22:38:40.663669  2765 net.cpp:408] conv0 <- data
I0430 22:38:40.663686  2765 net.cpp:382] conv0 -> conv0
I0430 22:38:40.949401  2765 net.cpp:124] Setting up conv0
I0430 22:38:40.949429  2765 net.cpp:131] Top shape: 111 8 34 34 (1026528)
I0430 22:38:40.949434  2765 net.cpp:139] Memory required for data: 5470524
I0430 22:38:40.949450  2765 layer_factory.hpp:77] Creating layer Sigmoid0
I0430 22:38:40.949461  2765 net.cpp:86] Creating Layer Sigmoid0
I0430 22:38:40.949465  2765 net.cpp:408] Sigmoid0 <- conv0
I0430 22:38:40.949471  2765 net.cpp:382] Sigmoid0 -> Sigmoid0
I0430 22:38:40.949656  2765 net.cpp:124] Setting up Sigmoid0
I0430 22:38:40.949667  2765 net.cpp:131] Top shape: 111 8 34 34 (1026528)
I0430 22:38:40.949671  2765 net.cpp:139] Memory required for data: 9576636
I0430 22:38:40.949673  2765 layer_factory.hpp:77] Creating layer pool0
I0430 22:38:40.949681  2765 net.cpp:86] Creating Layer pool0
I0430 22:38:40.949684  2765 net.cpp:408] pool0 <- Sigmoid0
I0430 22:38:40.949688  2765 net.cpp:382] pool0 -> pool0
I0430 22:38:40.950448  2765 net.cpp:124] Setting up pool0
I0430 22:38:40.950461  2765 net.cpp:131] Top shape: 111 8 17 17 (256632)
I0430 22:38:40.950465  2765 net.cpp:139] Memory required for data: 10603164
I0430 22:38:40.950469  2765 layer_factory.hpp:77] Creating layer ip1
I0430 22:38:40.950477  2765 net.cpp:86] Creating Layer ip1
I0430 22:38:40.950481  2765 net.cpp:408] ip1 <- pool0
I0430 22:38:40.950487  2765 net.cpp:382] ip1 -> ip1
I0430 22:38:40.952036  2765 net.cpp:124] Setting up ip1
I0430 22:38:40.952049  2765 net.cpp:131] Top shape: 111 10 (1110)
I0430 22:38:40.952052  2765 net.cpp:139] Memory required for data: 10607604
I0430 22:38:40.952060  2765 layer_factory.hpp:77] Creating layer relu1
I0430 22:38:40.952066  2765 net.cpp:86] Creating Layer relu1
I0430 22:38:40.952070  2765 net.cpp:408] relu1 <- ip1
I0430 22:38:40.952076  2765 net.cpp:369] relu1 -> ip1 (in-place)
I0430 22:38:40.952239  2765 net.cpp:124] Setting up relu1
I0430 22:38:40.952249  2765 net.cpp:131] Top shape: 111 10 (1110)
I0430 22:38:40.952251  2765 net.cpp:139] Memory required for data: 10612044
I0430 22:38:40.952255  2765 layer_factory.hpp:77] Creating layer ip2
I0430 22:38:40.952262  2765 net.cpp:86] Creating Layer ip2
I0430 22:38:40.952265  2765 net.cpp:408] ip2 <- ip1
I0430 22:38:40.952270  2765 net.cpp:382] ip2 -> ip2
I0430 22:38:40.953222  2765 net.cpp:124] Setting up ip2
I0430 22:38:40.953233  2765 net.cpp:131] Top shape: 111 80 (8880)
I0430 22:38:40.953238  2765 net.cpp:139] Memory required for data: 10647564
I0430 22:38:40.953245  2765 layer_factory.hpp:77] Creating layer relu2
I0430 22:38:40.953250  2765 net.cpp:86] Creating Layer relu2
I0430 22:38:40.953253  2765 net.cpp:408] relu2 <- ip2
I0430 22:38:40.953261  2765 net.cpp:369] relu2 -> ip2 (in-place)
I0430 22:38:40.953434  2765 net.cpp:124] Setting up relu2
I0430 22:38:40.953444  2765 net.cpp:131] Top shape: 111 80 (8880)
I0430 22:38:40.953446  2765 net.cpp:139] Memory required for data: 10683084
I0430 22:38:40.953449  2765 layer_factory.hpp:77] Creating layer ip3
I0430 22:38:40.953459  2765 net.cpp:86] Creating Layer ip3
I0430 22:38:40.953461  2765 net.cpp:408] ip3 <- ip2
I0430 22:38:40.953467  2765 net.cpp:382] ip3 -> ip3
I0430 22:38:40.953584  2765 net.cpp:124] Setting up ip3
I0430 22:38:40.953591  2765 net.cpp:131] Top shape: 111 10 (1110)
I0430 22:38:40.953594  2765 net.cpp:139] Memory required for data: 10687524
I0430 22:38:40.953600  2765 layer_factory.hpp:77] Creating layer relu3
I0430 22:38:40.953605  2765 net.cpp:86] Creating Layer relu3
I0430 22:38:40.953608  2765 net.cpp:408] relu3 <- ip3
I0430 22:38:40.953613  2765 net.cpp:369] relu3 -> ip3 (in-place)
I0430 22:38:40.953768  2765 net.cpp:124] Setting up relu3
I0430 22:38:40.953776  2765 net.cpp:131] Top shape: 111 10 (1110)
I0430 22:38:40.953779  2765 net.cpp:139] Memory required for data: 10691964
I0430 22:38:40.953783  2765 layer_factory.hpp:77] Creating layer ip4
I0430 22:38:40.953804  2765 net.cpp:86] Creating Layer ip4
I0430 22:38:40.953809  2765 net.cpp:408] ip4 <- ip3
I0430 22:38:40.953814  2765 net.cpp:382] ip4 -> ip4
I0430 22:38:40.953914  2765 net.cpp:124] Setting up ip4
I0430 22:38:40.953922  2765 net.cpp:131] Top shape: 111 10 (1110)
I0430 22:38:40.953924  2765 net.cpp:139] Memory required for data: 10696404
I0430 22:38:40.953933  2765 layer_factory.hpp:77] Creating layer loss
I0430 22:38:40.953938  2765 net.cpp:86] Creating Layer loss
I0430 22:38:40.953940  2765 net.cpp:408] loss <- ip4
I0430 22:38:40.953944  2765 net.cpp:408] loss <- label
I0430 22:38:40.953950  2765 net.cpp:382] loss -> loss
I0430 22:38:40.953966  2765 layer_factory.hpp:77] Creating layer loss
…
I0430 22:38:40.955186  2765 solver.cpp:173] Creating test net (#0) specified by net file: ECE595/cifar/train_test/var_everything/cifar_train_test_200.prototxt
I0430 22:38:40.955214  2765 net.cpp:296] The NetState phase (1) differed from the phase (0) specified by a rule in layer cifar
I0430 22:38:40.955312  2765 net.cpp:53] Initializing net from parameters: 
name: "CIFAR"
state {
  phase: TEST
}
layer {
  name: "cifar"
  type: "Data"
  top: "data"
  top: "label"
  include {
    phase: TEST
  }
  transform_param {
    mean_file: "examples/cifar10/mean.binaryproto"
  }
  data_param {
    source: "examples/cifar10/cifar10_test_lmdb"
    batch_size: 1000
    backend: LMDB
  }
}
layer {
  name: "conv0"
  type: "Convolution"
  bottom: "data"
  top: "conv0"
  param {
    lr_mult: 1
  }
  param {
    lr_mult: 2
  }
  convolution_param {
    num_output: 8
    pad: 2
    kernel_size: 3
    stride: 1
    weight_filler {
      type: "gaussian"
      std: 0.01
    }
    bias_filler {
      type: "constant"
    }
  }
}
layer {
  name: "Sigmoid0"
  type: "Sigmoid"
  bottom: "conv0"
  top: "Sigmoid0"
}
layer {
  name: "pool0"
  type: "Pooling"
  bottom: "Sigmoid0"
  top: "pool0"
  pooling_param {
    pool: AVE
    kernel_size: 3
    stride: 2
  }
}
layer {
  name: "ip1"
  type: "InnerProduct"
  bottom: "pool0"
  top: "ip1"
  param {
    lr_mult: 1
  }
  param {
    lr_mult: 2
  }
  inner_product_param {
    num_output: 10
    weight_filler {
      type: "gaussian"
      std: 0.01
    }
    bias_filler {
      type: "constant"
    }
  }
}
layer {
  name: "relu1"
  type: "ReLU"
  bottom: "ip1"
  top: "ip1"
}
layer {
  name: "ip2"
  type: "InnerProduct"
  bottom: "ip1"
  top: "ip2"
  param {
    lr_mult: 1
  }
  param {
    lr_mult: 2
  }
  inner_product_param {
    num_output: 80
    weight_filler {
      type: "gaussian"
      std: 0.01
    }
    bias_filler {
      type: "constant"
    }
  }
}
layer {
  name: "relu2"
  type: "ReLU"
  bottom: "ip2"
  top: "ip2"
}
layer {
  name: "ip3"
  type: "InnerProduct"
  bottom: "ip2"
  top: "ip3"
  param {
    lr_mult: 1
  }
  param {
    lr_mult: 2
  }
  inner_product_param {
    num_output: 10
    weight_filler {
      type: "gaussian"
      std: 0.01
    }
    bias_filler {
      type: "constant"
    }
  }
}
layer {
  name: "relu3"
  type: "ReLU"
  bottom: "ip3"
  top: "ip3"
}
layer {
  name: "ip4"
  type: "InnerProduct"
  bottom: "ip3"
  top: "ip4"
  param {
    lr_mult: 1
  }
  param {
    lr_mult: 2
  }
  inner_product_param {
    num_output: 10
    weight_filler {
      type: "gaussian"
      std: 0.01
    }
    bias_filler {
      type: "constant"
    }
  }
}
layer {
  name: "accuracy"
  type: "Accuracy"
  bottom: "ip4"
  bottom: "label"
  top: "accuracy"
  include {
    phase: TEST
  }
}
layer {
  name: "loss"
  type: "SoftmaxWithLoss"
  bottom: "ip4"
  bottom: "label"
  top: "loss"
}
I0430 22:38:40.955394  2765 layer_factory.hpp:77] Creating layer cifar
I0430 22:38:40.955438  2765 db_lmdb.cpp:35] Opened lmdb examples/cifar10/cifar10_test_lmdb
I0430 22:38:40.955451  2765 net.cpp:86] Creating Layer cifar
I0430 22:38:40.955456  2765 net.cpp:382] cifar -> data
I0430 22:38:40.955463  2765 net.cpp:382] cifar -> label
I0430 22:38:40.955469  2765 data_transformer.cpp:25] Loading mean file from: examples/cifar10/mean.binaryproto
I0430 22:38:40.955616  2765 data_layer.cpp:45] output data size: 1000,3,32,32
I0430 22:38:40.977803  2765 net.cpp:124] Setting up cifar
I0430 22:38:40.977844  2765 net.cpp:131] Top shape: 1000 3 32 32 (3072000)
I0430 22:38:40.977850  2765 net.cpp:131] Top shape: 1000 (1000)
I0430 22:38:40.977854  2765 net.cpp:139] Memory required for data: 12292000
I0430 22:38:40.977859  2765 layer_factory.hpp:77] Creating layer label_cifar_1_split
I0430 22:38:40.977875  2765 net.cpp:86] Creating Layer label_cifar_1_split
I0430 22:38:40.977880  2765 net.cpp:408] label_cifar_1_split <- label
I0430 22:38:40.977887  2765 net.cpp:382] label_cifar_1_split -> label_cifar_1_split_0
I0430 22:38:40.977895  2765 net.cpp:382] label_cifar_1_split -> label_cifar_1_split_1
I0430 22:38:40.977974  2765 net.cpp:124] Setting up label_cifar_1_split
I0430 22:38:40.977983  2765 net.cpp:131] Top shape: 1000 (1000)
I0430 22:38:40.977987  2765 net.cpp:131] Top shape: 1000 (1000)
I0430 22:38:40.977989  2765 net.cpp:139] Memory required for data: 12300000
I0430 22:38:40.977993  2765 layer_factory.hpp:77] Creating layer conv0
I0430 22:38:40.978006  2765 net.cpp:86] Creating Layer conv0
I0430 22:38:40.978010  2765 net.cpp:408] conv0 <- data
I0430 22:38:40.978015  2765 net.cpp:382] conv0 -> conv0
I0430 22:38:40.979734  2765 net.cpp:124] Setting up conv0
I0430 22:38:40.979763  2765 net.cpp:131] Top shape: 1000 8 34 34 (9248000)
I0430 22:38:40.979768  2765 net.cpp:139] Memory required for data: 49292000
I0430 22:38:40.979778  2765 layer_factory.hpp:77] Creating layer Sigmoid0
I0430 22:38:40.979784  2765 net.cpp:86] Creating Layer Sigmoid0
I0430 22:38:40.979787  2765 net.cpp:408] Sigmoid0 <- conv0
I0430 22:38:40.979794  2765 net.cpp:382] Sigmoid0 -> Sigmoid0
I0430 22:38:40.981185  2765 net.cpp:124] Setting up Sigmoid0
I0430 22:38:40.981212  2765 net.cpp:131] Top shape: 1000 8 34 34 (9248000)
I0430 22:38:40.981216  2765 net.cpp:139] Memory required for data: 86284000
I0430 22:38:40.981220  2765 layer_factory.hpp:77] Creating layer pool0
I0430 22:38:40.981240  2765 net.cpp:86] Creating Layer pool0
I0430 22:38:40.981245  2765 net.cpp:408] pool0 <- Sigmoid0
I0430 22:38:40.981250  2765 net.cpp:382] pool0 -> pool0
I0430 22:38:40.981468  2765 net.cpp:124] Setting up pool0
I0430 22:38:40.981477  2765 net.cpp:131] Top shape: 1000 8 17 17 (2312000)
I0430 22:38:40.981482  2765 net.cpp:139] Memory required for data: 95532000
I0430 22:38:40.981484  2765 layer_factory.hpp:77] Creating layer ip1
I0430 22:38:40.981494  2765 net.cpp:86] Creating Layer ip1
I0430 22:38:40.981498  2765 net.cpp:408] ip1 <- pool0
I0430 22:38:40.981504  2765 net.cpp:382] ip1 -> ip1
I0430 22:38:40.982249  2765 net.cpp:124] Setting up ip1
I0430 22:38:40.982256  2765 net.cpp:131] Top shape: 1000 10 (10000)
I0430 22:38:40.982259  2765 net.cpp:139] Memory required for data: 95572000
I0430 22:38:40.982281  2765 layer_factory.hpp:77] Creating layer relu1
I0430 22:38:40.982287  2765 net.cpp:86] Creating Layer relu1
I0430 22:38:40.982290  2765 net.cpp:408] relu1 <- ip1
I0430 22:38:40.982301  2765 net.cpp:369] relu1 -> ip1 (in-place)
I0430 22:38:40.982463  2765 net.cpp:124] Setting up relu1
I0430 22:38:40.982472  2765 net.cpp:131] Top shape: 1000 10 (10000)
I0430 22:38:40.982475  2765 net.cpp:139] Memory required for data: 95612000
I0430 22:38:40.982478  2765 layer_factory.hpp:77] Creating layer ip2
I0430 22:38:40.982484  2765 net.cpp:86] Creating Layer ip2
I0430 22:38:40.982487  2765 net.cpp:408] ip2 <- ip1
I0430 22:38:40.982492  2765 net.cpp:382] ip2 -> ip2
I0430 22:38:40.982615  2765 net.cpp:124] Setting up ip2
I0430 22:38:40.982622  2765 net.cpp:131] Top shape: 1000 80 (80000)
I0430 22:38:40.982625  2765 net.cpp:139] Memory required for data: 95932000
I0430 22:38:40.982633  2765 layer_factory.hpp:77] Creating layer relu2
I0430 22:38:40.982640  2765 net.cpp:86] Creating Layer relu2
I0430 22:38:40.982643  2765 net.cpp:408] relu2 <- ip2
I0430 22:38:40.982647  2765 net.cpp:369] relu2 -> ip2 (in-place)
I0430 22:38:40.983374  2765 net.cpp:124] Setting up relu2
I0430 22:38:40.983391  2765 net.cpp:131] Top shape: 1000 80 (80000)
I0430 22:38:40.983393  2765 net.cpp:139] Memory required for data: 96252000
I0430 22:38:40.983397  2765 layer_factory.hpp:77] Creating layer ip3
I0430 22:38:40.983404  2765 net.cpp:86] Creating Layer ip3
I0430 22:38:40.983407  2765 net.cpp:408] ip3 <- ip2
I0430 22:38:40.983414  2765 net.cpp:382] ip3 -> ip3
I0430 22:38:40.983538  2765 net.cpp:124] Setting up ip3
I0430 22:38:40.983547  2765 net.cpp:131] Top shape: 1000 10 (10000)
I0430 22:38:40.983551  2765 net.cpp:139] Memory required for data: 96292000
I0430 22:38:40.983556  2765 layer_factory.hpp:77] Creating layer relu3
I0430 22:38:40.983561  2765 net.cpp:86] Creating Layer relu3
I0430 22:38:40.983563  2765 net.cpp:408] relu3 <- ip3
I0430 22:38:40.983567  2765 net.cpp:369] relu3 -> ip3 (in-place)
I0430 22:38:40.983721  2765 net.cpp:124] Setting up relu3
I0430 22:38:40.983729  2765 net.cpp:131] Top shape: 1000 10 (10000)
I0430 22:38:40.983733  2765 net.cpp:139] Memory required for data: 96332000
I0430 22:38:40.983736  2765 layer_factory.hpp:77] Creating layer ip4
I0430 22:38:40.983743  2765 net.cpp:86] Creating Layer ip4
I0430 22:38:40.983750  2765 net.cpp:408] ip4 <- ip3
I0430 22:38:40.983755  2765 net.cpp:382] ip4 -> ip4
I0430 22:38:40.983856  2765 net.cpp:124] Setting up ip4
I0430 22:38:40.983863  2765 net.cpp:131] Top shape: 1000 10 (10000)
I0430 22:38:40.983866  2765 net.cpp:139] Memory required for data: 96372000
I0430 22:38:40.983875  2765 layer_factory.hpp:77] Creating layer ip4_ip4_0_split
I0430 22:38:40.983880  2765 net.cpp:86] Creating Layer ip4_ip4_0_split
I0430 22:38:40.983883  2765 net.cpp:408] ip4_ip4_0_split <- ip4
I0430 22:38:40.983887  2765 net.cpp:382] ip4_ip4_0_split -> ip4_ip4_0_split_0
I0430 22:38:40.983893  2765 net.cpp:382] ip4_ip4_0_split -> ip4_ip4_0_split_1
I0430 22:38:40.983922  2765 net.cpp:124] Setting up ip4_ip4_0_split
I0430 22:38:40.983927  2765 net.cpp:131] Top shape: 1000 10 (10000)
I0430 22:38:40.983932  2765 net.cpp:131] Top shape: 1000 10 (10000)
I0430 22:38:40.983934  2765 net.cpp:139] Memory required for data: 96452000
I0430 22:38:40.983937  2765 layer_factory.hpp:77] Creating layer accuracy
I0430 22:38:40.983943  2765 net.cpp:86] Creating Layer accuracy
I0430 22:38:40.983947  2765 net.cpp:408] accuracy <- ip4_ip4_0_split_0
I0430 22:38:40.983950  2765 net.cpp:408] accuracy <- label_cifar_1_split_0
I0430 22:38:40.983954  2765 net.cpp:382] accuracy -> accuracy
…
