…
I0501 03:23:24.135709 20474 net.cpp:296] The NetState phase (0) differed from the phase (1) specified by a rule in layer cifar
I0501 03:23:24.135728 20474 net.cpp:296] The NetState phase (0) differed from the phase (1) specified by a rule in layer accuracy
I0501 03:23:24.135834 20474 net.cpp:53] Initializing net from parameters: 
name: "CIFAR"
state {
  phase: TRAIN
  level: 0
  stage: ""
}
layer {
  name: "cifar"
  type: "Data"
  top: "data"
  top: "label"
  include {
    phase: TRAIN
  }
  transform_param {
    mean_file: "examples/cifar10/mean.binaryproto"
  }
  data_param {
    source: "examples/cifar10/cifar10_train_lmdb"
    batch_size: 111
    backend: LMDB
  }
}
layer {
  name: "conv0"
  type: "Convolution"
  bottom: "data"
  top: "conv0"
  param {
    lr_mult: 1
  }
  param {
    lr_mult: 2
  }
  convolution_param {
    num_output: 8
    pad: 2
    kernel_size: 5
    stride: 1
    weight_filler {
      type: "gaussian"
      std: 0.01
    }
    bias_filler {
      type: "constant"
    }
  }
}
layer {
  name: "Sigmoid0"
  type: "Sigmoid"
  bottom: "conv0"
  top: "Sigmoid0"
}
layer {
  name: "pool0"
  type: "Pooling"
  bottom: "Sigmoid0"
  top: "pool0"
  pooling_param {
    pool: AVE
    kernel_size: 3
    stride: 2
  }
}
layer {
  name: "ip1"
  type: "InnerProduct"
  bottom: "pool0"
  top: "ip1"
  param {
    lr_mult: 1
  }
  param {
    lr_mult: 2
  }
  inner_product_param {
    num_output: 10
    weight_filler {
      type: "gaussian"
      std: 0.01
    }
    bias_filler {
      type: "constant"
    }
  }
}
layer {
  name: "relu1"
  type: "ReLU"
  bottom: "ip1"
  top: "ip1"
}
layer {
  name: "ip2"
  type: "InnerProduct"
  bottom: "ip1"
  top: "ip2"
  param {
    lr_mult: 1
  }
  param {
    lr_mult: 2
  }
  inner_product_param {
    num_output: 40
    weight_filler {
      type: "gaussian"
      std: 0.01
    }
    bias_filler {
      type: "constant"
    }
  }
}
layer {
  name: "relu2"
  type: "ReLU"
  bottom: "ip2"
  top: "ip2"
}
layer {
  name: "ip3"
  type: "InnerProduct"
  bottom: "ip2"
  top: "ip3"
  param {
    lr_mult: 1
  }
  param {
    lr_mult: 2
  }
  inner_product_param {
    num_output: 40
    weight_filler {
      type: "gaussian"
      std: 0.01
    }
    bias_filler {
      type: "constant"
    }
  }
}
layer {
  name: "relu3"
  type: "ReLU"
  bottom: "ip3"
  top: "ip3"
}
layer {
  name: "ip4"
  type: "InnerProduct"
  bottom: "ip3"
  top: "ip4"
  param {
    lr_mult: 1
  }
  param {
    lr_mult: 2
  }
  inner_product_param {
    num_output: 10
    weight_filler {
      type: "gaussian"
      std: 0.01
    }
    bias_filler {
      type: "constant"
    }
  }
}
layer {
  name: "loss"
  type: "SoftmaxWithLoss"
  bottom: "ip4"
  bottom: "label"
  top: "loss"
}
I0501 03:23:24.135917 20474 layer_factory.hpp:77] Creating layer cifar
I0501 03:23:24.136018 20474 db_lmdb.cpp:35] Opened lmdb examples/cifar10/cifar10_train_lmdb
I0501 03:23:24.136045 20474 net.cpp:86] Creating Layer cifar
I0501 03:23:24.136054 20474 net.cpp:382] cifar -> data
I0501 03:23:24.136077 20474 net.cpp:382] cifar -> label
I0501 03:23:24.136090 20474 data_transformer.cpp:25] Loading mean file from: examples/cifar10/mean.binaryproto
I0501 03:23:24.138209 20474 data_layer.cpp:45] output data size: 111,3,32,32
I0501 03:23:24.146076 20474 net.cpp:124] Setting up cifar
I0501 03:23:24.146096 20474 net.cpp:131] Top shape: 111 3 32 32 (340992)
I0501 03:23:24.146103 20474 net.cpp:131] Top shape: 111 (111)
I0501 03:23:24.146106 20474 net.cpp:139] Memory required for data: 1364412
I0501 03:23:24.146129 20474 layer_factory.hpp:77] Creating layer conv0
I0501 03:23:24.146148 20474 net.cpp:86] Creating Layer conv0
I0501 03:23:24.146155 20474 net.cpp:408] conv0 <- data
I0501 03:23:24.146168 20474 net.cpp:382] conv0 -> conv0
I0501 03:23:24.427891 20474 net.cpp:124] Setting up conv0
I0501 03:23:24.427917 20474 net.cpp:131] Top shape: 111 8 32 32 (909312)
I0501 03:23:24.427920 20474 net.cpp:139] Memory required for data: 5001660
I0501 03:23:24.427935 20474 layer_factory.hpp:77] Creating layer Sigmoid0
I0501 03:23:24.427947 20474 net.cpp:86] Creating Layer Sigmoid0
I0501 03:23:24.427953 20474 net.cpp:408] Sigmoid0 <- conv0
I0501 03:23:24.427958 20474 net.cpp:382] Sigmoid0 -> Sigmoid0
I0501 03:23:24.428114 20474 net.cpp:124] Setting up Sigmoid0
I0501 03:23:24.428123 20474 net.cpp:131] Top shape: 111 8 32 32 (909312)
I0501 03:23:24.428127 20474 net.cpp:139] Memory required for data: 8638908
I0501 03:23:24.428129 20474 layer_factory.hpp:77] Creating layer pool0
I0501 03:23:24.428136 20474 net.cpp:86] Creating Layer pool0
I0501 03:23:24.428139 20474 net.cpp:408] pool0 <- Sigmoid0
I0501 03:23:24.428143 20474 net.cpp:382] pool0 -> pool0
I0501 03:23:24.428861 20474 net.cpp:124] Setting up pool0
I0501 03:23:24.428874 20474 net.cpp:131] Top shape: 111 8 16 16 (227328)
I0501 03:23:24.428894 20474 net.cpp:139] Memory required for data: 9548220
I0501 03:23:24.428897 20474 layer_factory.hpp:77] Creating layer ip1
I0501 03:23:24.428923 20474 net.cpp:86] Creating Layer ip1
I0501 03:23:24.428926 20474 net.cpp:408] ip1 <- pool0
I0501 03:23:24.428932 20474 net.cpp:382] ip1 -> ip1
I0501 03:23:24.430388 20474 net.cpp:124] Setting up ip1
I0501 03:23:24.430399 20474 net.cpp:131] Top shape: 111 10 (1110)
I0501 03:23:24.430403 20474 net.cpp:139] Memory required for data: 9552660
I0501 03:23:24.430410 20474 layer_factory.hpp:77] Creating layer relu1
I0501 03:23:24.430416 20474 net.cpp:86] Creating Layer relu1
I0501 03:23:24.430419 20474 net.cpp:408] relu1 <- ip1
I0501 03:23:24.430424 20474 net.cpp:369] relu1 -> ip1 (in-place)
I0501 03:23:24.430586 20474 net.cpp:124] Setting up relu1
I0501 03:23:24.430594 20474 net.cpp:131] Top shape: 111 10 (1110)
I0501 03:23:24.430598 20474 net.cpp:139] Memory required for data: 9557100
I0501 03:23:24.430600 20474 layer_factory.hpp:77] Creating layer ip2
I0501 03:23:24.430608 20474 net.cpp:86] Creating Layer ip2
I0501 03:23:24.430613 20474 net.cpp:408] ip2 <- ip1
I0501 03:23:24.430618 20474 net.cpp:382] ip2 -> ip2
I0501 03:23:24.430713 20474 net.cpp:124] Setting up ip2
I0501 03:23:24.430721 20474 net.cpp:131] Top shape: 111 40 (4440)
I0501 03:23:24.430723 20474 net.cpp:139] Memory required for data: 9574860
I0501 03:23:24.430730 20474 layer_factory.hpp:77] Creating layer relu2
I0501 03:23:24.430734 20474 net.cpp:86] Creating Layer relu2
I0501 03:23:24.430737 20474 net.cpp:408] relu2 <- ip2
I0501 03:23:24.430742 20474 net.cpp:369] relu2 -> ip2 (in-place)
I0501 03:23:24.430899 20474 net.cpp:124] Setting up relu2
I0501 03:23:24.430907 20474 net.cpp:131] Top shape: 111 40 (4440)
I0501 03:23:24.430910 20474 net.cpp:139] Memory required for data: 9592620
I0501 03:23:24.430913 20474 layer_factory.hpp:77] Creating layer ip3
I0501 03:23:24.430920 20474 net.cpp:86] Creating Layer ip3
I0501 03:23:24.430923 20474 net.cpp:408] ip3 <- ip2
I0501 03:23:24.430927 20474 net.cpp:382] ip3 -> ip3
I0501 03:23:24.431066 20474 net.cpp:124] Setting up ip3
I0501 03:23:24.431073 20474 net.cpp:131] Top shape: 111 40 (4440)
I0501 03:23:24.431077 20474 net.cpp:139] Memory required for data: 9610380
I0501 03:23:24.431082 20474 layer_factory.hpp:77] Creating layer relu3
I0501 03:23:24.431085 20474 net.cpp:86] Creating Layer relu3
I0501 03:23:24.431089 20474 net.cpp:408] relu3 <- ip3
I0501 03:23:24.431092 20474 net.cpp:369] relu3 -> ip3 (in-place)
I0501 03:23:24.431228 20474 net.cpp:124] Setting up relu3
I0501 03:23:24.431236 20474 net.cpp:131] Top shape: 111 40 (4440)
I0501 03:23:24.431238 20474 net.cpp:139] Memory required for data: 9628140
I0501 03:23:24.431241 20474 layer_factory.hpp:77] Creating layer ip4
I0501 03:23:24.431262 20474 net.cpp:86] Creating Layer ip4
I0501 03:23:24.431265 20474 net.cpp:408] ip4 <- ip3
I0501 03:23:24.431270 20474 net.cpp:382] ip4 -> ip4
I0501 03:23:24.431383 20474 net.cpp:124] Setting up ip4
I0501 03:23:24.431391 20474 net.cpp:131] Top shape: 111 10 (1110)
I0501 03:23:24.431393 20474 net.cpp:139] Memory required for data: 9632580
I0501 03:23:24.431401 20474 layer_factory.hpp:77] Creating layer loss
I0501 03:23:24.431406 20474 net.cpp:86] Creating Layer loss
I0501 03:23:24.431409 20474 net.cpp:408] loss <- ip4
I0501 03:23:24.431412 20474 net.cpp:408] loss <- label
I0501 03:23:24.431417 20474 net.cpp:382] loss -> loss
I0501 03:23:24.431430 20474 layer_factory.hpp:77] Creating layer loss
…
I0501 03:23:24.432555 20474 solver.cpp:173] Creating test net (#0) specified by net file: ECE595/cifar/train_test/var_everything/cifar_train_test_352.prototxt
I0501 03:23:24.432582 20474 net.cpp:296] The NetState phase (1) differed from the phase (0) specified by a rule in layer cifar
I0501 03:23:24.432670 20474 net.cpp:53] Initializing net from parameters: 
name: "CIFAR"
state {
  phase: TEST
}
layer {
  name: "cifar"
  type: "Data"
  top: "data"
  top: "label"
  include {
    phase: TEST
  }
  transform_param {
    mean_file: "examples/cifar10/mean.binaryproto"
  }
  data_param {
    source: "examples/cifar10/cifar10_test_lmdb"
    batch_size: 1000
    backend: LMDB
  }
}
layer {
  name: "conv0"
  type: "Convolution"
  bottom: "data"
  top: "conv0"
  param {
    lr_mult: 1
  }
  param {
    lr_mult: 2
  }
  convolution_param {
    num_output: 8
    pad: 2
    kernel_size: 5
    stride: 1
    weight_filler {
      type: "gaussian"
      std: 0.01
    }
    bias_filler {
      type: "constant"
    }
  }
}
layer {
  name: "Sigmoid0"
  type: "Sigmoid"
  bottom: "conv0"
  top: "Sigmoid0"
}
layer {
  name: "pool0"
  type: "Pooling"
  bottom: "Sigmoid0"
  top: "pool0"
  pooling_param {
    pool: AVE
    kernel_size: 3
    stride: 2
  }
}
layer {
  name: "ip1"
  type: "InnerProduct"
  bottom: "pool0"
  top: "ip1"
  param {
    lr_mult: 1
  }
  param {
    lr_mult: 2
  }
  inner_product_param {
    num_output: 10
    weight_filler {
      type: "gaussian"
      std: 0.01
    }
    bias_filler {
      type: "constant"
    }
  }
}
layer {
  name: "relu1"
  type: "ReLU"
  bottom: "ip1"
  top: "ip1"
}
layer {
  name: "ip2"
  type: "InnerProduct"
  bottom: "ip1"
  top: "ip2"
  param {
    lr_mult: 1
  }
  param {
    lr_mult: 2
  }
  inner_product_param {
    num_output: 40
    weight_filler {
      type: "gaussian"
      std: 0.01
    }
    bias_filler {
      type: "constant"
    }
  }
}
layer {
  name: "relu2"
  type: "ReLU"
  bottom: "ip2"
  top: "ip2"
}
layer {
  name: "ip3"
  type: "InnerProduct"
  bottom: "ip2"
  top: "ip3"
  param {
    lr_mult: 1
  }
  param {
    lr_mult: 2
  }
  inner_product_param {
    num_output: 40
    weight_filler {
      type: "gaussian"
      std: 0.01
    }
    bias_filler {
      type: "constant"
    }
  }
}
layer {
  name: "relu3"
  type: "ReLU"
  bottom: "ip3"
  top: "ip3"
}
layer {
  name: "ip4"
  type: "InnerProduct"
  bottom: "ip3"
  top: "ip4"
  param {
    lr_mult: 1
  }
  param {
    lr_mult: 2
  }
  inner_product_param {
    num_output: 10
    weight_filler {
      type: "gaussian"
      std: 0.01
    }
    bias_filler {
      type: "constant"
    }
  }
}
layer {
  name: "accuracy"
  type: "Accuracy"
  bottom: "ip4"
  bottom: "label"
  top: "accuracy"
  include {
    phase: TEST
  }
}
layer {
  name: "loss"
  type: "SoftmaxWithLoss"
  bottom: "ip4"
  bottom: "label"
  top: "loss"
}
I0501 03:23:24.432744 20474 layer_factory.hpp:77] Creating layer cifar
I0501 03:23:24.432786 20474 db_lmdb.cpp:35] Opened lmdb examples/cifar10/cifar10_test_lmdb
I0501 03:23:24.432798 20474 net.cpp:86] Creating Layer cifar
I0501 03:23:24.432802 20474 net.cpp:382] cifar -> data
I0501 03:23:24.432829 20474 net.cpp:382] cifar -> label
I0501 03:23:24.432852 20474 data_transformer.cpp:25] Loading mean file from: examples/cifar10/mean.binaryproto
I0501 03:23:24.432991 20474 data_layer.cpp:45] output data size: 1000,3,32,32
I0501 03:23:24.454913 20474 net.cpp:124] Setting up cifar
I0501 03:23:24.454954 20474 net.cpp:131] Top shape: 1000 3 32 32 (3072000)
I0501 03:23:24.454959 20474 net.cpp:131] Top shape: 1000 (1000)
I0501 03:23:24.454962 20474 net.cpp:139] Memory required for data: 12292000
I0501 03:23:24.454968 20474 layer_factory.hpp:77] Creating layer label_cifar_1_split
I0501 03:23:24.454982 20474 net.cpp:86] Creating Layer label_cifar_1_split
I0501 03:23:24.454985 20474 net.cpp:408] label_cifar_1_split <- label
I0501 03:23:24.454991 20474 net.cpp:382] label_cifar_1_split -> label_cifar_1_split_0
I0501 03:23:24.455014 20474 net.cpp:382] label_cifar_1_split -> label_cifar_1_split_1
I0501 03:23:24.455101 20474 net.cpp:124] Setting up label_cifar_1_split
I0501 03:23:24.455109 20474 net.cpp:131] Top shape: 1000 (1000)
I0501 03:23:24.455113 20474 net.cpp:131] Top shape: 1000 (1000)
I0501 03:23:24.455116 20474 net.cpp:139] Memory required for data: 12300000
I0501 03:23:24.455119 20474 layer_factory.hpp:77] Creating layer conv0
I0501 03:23:24.455132 20474 net.cpp:86] Creating Layer conv0
I0501 03:23:24.455134 20474 net.cpp:408] conv0 <- data
I0501 03:23:24.455139 20474 net.cpp:382] conv0 -> conv0
I0501 03:23:24.457554 20474 net.cpp:124] Setting up conv0
I0501 03:23:24.457586 20474 net.cpp:131] Top shape: 1000 8 32 32 (8192000)
I0501 03:23:24.457589 20474 net.cpp:139] Memory required for data: 45068000
I0501 03:23:24.457599 20474 layer_factory.hpp:77] Creating layer Sigmoid0
I0501 03:23:24.457607 20474 net.cpp:86] Creating Layer Sigmoid0
I0501 03:23:24.457610 20474 net.cpp:408] Sigmoid0 <- conv0
I0501 03:23:24.457615 20474 net.cpp:382] Sigmoid0 -> Sigmoid0
I0501 03:23:24.457839 20474 net.cpp:124] Setting up Sigmoid0
I0501 03:23:24.457849 20474 net.cpp:131] Top shape: 1000 8 32 32 (8192000)
I0501 03:23:24.457852 20474 net.cpp:139] Memory required for data: 77836000
I0501 03:23:24.457855 20474 layer_factory.hpp:77] Creating layer pool0
I0501 03:23:24.457864 20474 net.cpp:86] Creating Layer pool0
I0501 03:23:24.457867 20474 net.cpp:408] pool0 <- Sigmoid0
I0501 03:23:24.457872 20474 net.cpp:382] pool0 -> pool0
I0501 03:23:24.458050 20474 net.cpp:124] Setting up pool0
I0501 03:23:24.458058 20474 net.cpp:131] Top shape: 1000 8 16 16 (2048000)
I0501 03:23:24.458062 20474 net.cpp:139] Memory required for data: 86028000
I0501 03:23:24.458065 20474 layer_factory.hpp:77] Creating layer ip1
I0501 03:23:24.458073 20474 net.cpp:86] Creating Layer ip1
I0501 03:23:24.458076 20474 net.cpp:408] ip1 <- pool0
I0501 03:23:24.458081 20474 net.cpp:382] ip1 -> ip1
I0501 03:23:24.458730 20474 net.cpp:124] Setting up ip1
I0501 03:23:24.458739 20474 net.cpp:131] Top shape: 1000 10 (10000)
I0501 03:23:24.458756 20474 net.cpp:139] Memory required for data: 86068000
I0501 03:23:24.458793 20474 layer_factory.hpp:77] Creating layer relu1
I0501 03:23:24.458799 20474 net.cpp:86] Creating Layer relu1
I0501 03:23:24.458802 20474 net.cpp:408] relu1 <- ip1
I0501 03:23:24.458822 20474 net.cpp:369] relu1 -> ip1 (in-place)
I0501 03:23:24.458977 20474 net.cpp:124] Setting up relu1
I0501 03:23:24.458986 20474 net.cpp:131] Top shape: 1000 10 (10000)
I0501 03:23:24.458989 20474 net.cpp:139] Memory required for data: 86108000
I0501 03:23:24.458992 20474 layer_factory.hpp:77] Creating layer ip2
I0501 03:23:24.458998 20474 net.cpp:86] Creating Layer ip2
I0501 03:23:24.459002 20474 net.cpp:408] ip2 <- ip1
I0501 03:23:24.459007 20474 net.cpp:382] ip2 -> ip2
I0501 03:23:24.459136 20474 net.cpp:124] Setting up ip2
I0501 03:23:24.459144 20474 net.cpp:131] Top shape: 1000 40 (40000)
I0501 03:23:24.459147 20474 net.cpp:139] Memory required for data: 86268000
I0501 03:23:24.459154 20474 layer_factory.hpp:77] Creating layer relu2
I0501 03:23:24.459161 20474 net.cpp:86] Creating Layer relu2
I0501 03:23:24.459163 20474 net.cpp:408] relu2 <- ip2
I0501 03:23:24.459167 20474 net.cpp:369] relu2 -> ip2 (in-place)
I0501 03:23:24.459920 20474 net.cpp:124] Setting up relu2
I0501 03:23:24.459931 20474 net.cpp:131] Top shape: 1000 40 (40000)
I0501 03:23:24.459950 20474 net.cpp:139] Memory required for data: 86428000
I0501 03:23:24.459954 20474 layer_factory.hpp:77] Creating layer ip3
I0501 03:23:24.459962 20474 net.cpp:86] Creating Layer ip3
I0501 03:23:24.459966 20474 net.cpp:408] ip3 <- ip2
I0501 03:23:24.459971 20474 net.cpp:382] ip3 -> ip3
I0501 03:23:24.460136 20474 net.cpp:124] Setting up ip3
I0501 03:23:24.460144 20474 net.cpp:131] Top shape: 1000 40 (40000)
I0501 03:23:24.460147 20474 net.cpp:139] Memory required for data: 86588000
I0501 03:23:24.460153 20474 layer_factory.hpp:77] Creating layer relu3
I0501 03:23:24.460158 20474 net.cpp:86] Creating Layer relu3
I0501 03:23:24.460161 20474 net.cpp:408] relu3 <- ip3
I0501 03:23:24.460166 20474 net.cpp:369] relu3 -> ip3 (in-place)
I0501 03:23:24.460332 20474 net.cpp:124] Setting up relu3
I0501 03:23:24.460340 20474 net.cpp:131] Top shape: 1000 40 (40000)
I0501 03:23:24.460343 20474 net.cpp:139] Memory required for data: 86748000
I0501 03:23:24.460346 20474 layer_factory.hpp:77] Creating layer ip4
I0501 03:23:24.460351 20474 net.cpp:86] Creating Layer ip4
I0501 03:23:24.460355 20474 net.cpp:408] ip4 <- ip3
I0501 03:23:24.460361 20474 net.cpp:382] ip4 -> ip4
I0501 03:23:24.460471 20474 net.cpp:124] Setting up ip4
I0501 03:23:24.460479 20474 net.cpp:131] Top shape: 1000 10 (10000)
I0501 03:23:24.460481 20474 net.cpp:139] Memory required for data: 86788000
I0501 03:23:24.460489 20474 layer_factory.hpp:77] Creating layer ip4_ip4_0_split
I0501 03:23:24.460494 20474 net.cpp:86] Creating Layer ip4_ip4_0_split
I0501 03:23:24.460497 20474 net.cpp:408] ip4_ip4_0_split <- ip4
I0501 03:23:24.460502 20474 net.cpp:382] ip4_ip4_0_split -> ip4_ip4_0_split_0
I0501 03:23:24.460507 20474 net.cpp:382] ip4_ip4_0_split -> ip4_ip4_0_split_1
I0501 03:23:24.460536 20474 net.cpp:124] Setting up ip4_ip4_0_split
I0501 03:23:24.460544 20474 net.cpp:131] Top shape: 1000 10 (10000)
I0501 03:23:24.460548 20474 net.cpp:131] Top shape: 1000 10 (10000)
I0501 03:23:24.460551 20474 net.cpp:139] Memory required for data: 86868000
I0501 03:23:24.460553 20474 layer_factory.hpp:77] Creating layer accuracy
I0501 03:23:24.460559 20474 net.cpp:86] Creating Layer accuracy
I0501 03:23:24.460562 20474 net.cpp:408] accuracy <- ip4_ip4_0_split_0
I0501 03:23:24.460566 20474 net.cpp:408] accuracy <- label_cifar_1_split_0
I0501 03:23:24.460571 20474 net.cpp:382] accuracy -> accuracy
…
