…
I0430 18:09:06.515993 22310 net.cpp:296] The NetState phase (0) differed from the phase (1) specified by a rule in layer cifar
I0430 18:09:06.516011 22310 net.cpp:296] The NetState phase (0) differed from the phase (1) specified by a rule in layer accuracy
I0430 18:09:06.516098 22310 net.cpp:53] Initializing net from parameters: 
name: "CIFAR"
state {
  phase: TRAIN
  level: 0
  stage: ""
}
layer {
  name: "cifar"
  type: "Data"
  top: "data"
  top: "label"
  include {
    phase: TRAIN
  }
  transform_param {
    mean_file: "examples/cifar10/mean.binaryproto"
  }
  data_param {
    source: "examples/cifar10/cifar10_train_lmdb"
    batch_size: 111
    backend: LMDB
  }
}
layer {
  name: "ip1"
  type: "InnerProduct"
  bottom: "data"
  top: "ip1"
  param {
    lr_mult: 1
  }
  param {
    lr_mult: 2
  }
  inner_product_param {
    num_output: 20
    weight_filler {
      type: "gaussian"
      std: 0.01
    }
    bias_filler {
      type: "constant"
    }
  }
}
layer {
  name: "relu1"
  type: "ReLU"
  bottom: "ip1"
  top: "ip1"
}
layer {
  name: "ip2"
  type: "InnerProduct"
  bottom: "ip1"
  top: "ip2"
  param {
    lr_mult: 1
  }
  param {
    lr_mult: 2
  }
  inner_product_param {
    num_output: 10
    weight_filler {
      type: "gaussian"
      std: 0.01
    }
    bias_filler {
      type: "constant"
    }
  }
}
layer {
  name: "relu2"
  type: "ReLU"
  bottom: "ip2"
  top: "ip2"
}
layer {
  name: "ip3"
  type: "InnerProduct"
  bottom: "ip2"
  top: "ip3"
  param {
    lr_mult: 1
  }
  param {
    lr_mult: 2
  }
  inner_product_param {
    num_output: 40
    weight_filler {
      type: "gaussian"
      std: 0.01
    }
    bias_filler {
      type: "constant"
    }
  }
}
layer {
  name: "relu3"
  type: "ReLU"
  bottom: "ip3"
  top: "ip3"
}
layer {
  name: "ip4"
  type: "InnerProduct"
  bottom: "ip3"
  top: "ip4"
  param {
    lr_mult: 1
  }
  param {
    lr_mult: 2
  }
  inner_product_param {
    num_output: 10
    weight_filler {
      type: "gaussian"
      std: 0.01
    }
    bias_filler {
      type: "constant"
    }
  }
}
layer {
  name: "loss"
  type: "SoftmaxWithLoss"
  bottom: "ip4"
  bottom: "label"
  top: "loss"
}
I0430 18:09:06.516170 22310 layer_factory.hpp:77] Creating layer cifar
I0430 18:09:06.516269 22310 db_lmdb.cpp:35] Opened lmdb examples/cifar10/cifar10_train_lmdb
I0430 18:09:06.516296 22310 net.cpp:86] Creating Layer cifar
I0430 18:09:06.516305 22310 net.cpp:382] cifar -> data
I0430 18:09:06.516329 22310 net.cpp:382] cifar -> label
I0430 18:09:06.516340 22310 data_transformer.cpp:25] Loading mean file from: examples/cifar10/mean.binaryproto
I0430 18:09:06.518491 22310 data_layer.cpp:45] output data size: 111,3,32,32
I0430 18:09:06.526414 22310 net.cpp:124] Setting up cifar
I0430 18:09:06.526434 22310 net.cpp:131] Top shape: 111 3 32 32 (340992)
I0430 18:09:06.526440 22310 net.cpp:131] Top shape: 111 (111)
I0430 18:09:06.526443 22310 net.cpp:139] Memory required for data: 1364412
I0430 18:09:06.526453 22310 layer_factory.hpp:77] Creating layer ip1
I0430 18:09:06.526464 22310 net.cpp:86] Creating Layer ip1
I0430 18:09:06.526469 22310 net.cpp:408] ip1 <- data
I0430 18:09:06.526481 22310 net.cpp:382] ip1 -> ip1
I0430 18:09:06.529702 22310 net.cpp:124] Setting up ip1
I0430 18:09:06.529718 22310 net.cpp:131] Top shape: 111 20 (2220)
I0430 18:09:06.529723 22310 net.cpp:139] Memory required for data: 1373292
I0430 18:09:06.529737 22310 layer_factory.hpp:77] Creating layer relu1
I0430 18:09:06.529747 22310 net.cpp:86] Creating Layer relu1
I0430 18:09:06.529767 22310 net.cpp:408] relu1 <- ip1
I0430 18:09:06.529773 22310 net.cpp:369] relu1 -> ip1 (in-place)
I0430 18:09:06.799062 22310 net.cpp:124] Setting up relu1
I0430 18:09:06.799088 22310 net.cpp:131] Top shape: 111 20 (2220)
I0430 18:09:06.799091 22310 net.cpp:139] Memory required for data: 1382172
I0430 18:09:06.799096 22310 layer_factory.hpp:77] Creating layer ip2
I0430 18:09:06.799108 22310 net.cpp:86] Creating Layer ip2
I0430 18:09:06.799113 22310 net.cpp:408] ip2 <- ip1
I0430 18:09:06.799120 22310 net.cpp:382] ip2 -> ip2
I0430 18:09:06.799258 22310 net.cpp:124] Setting up ip2
I0430 18:09:06.799266 22310 net.cpp:131] Top shape: 111 10 (1110)
I0430 18:09:06.799269 22310 net.cpp:139] Memory required for data: 1386612
I0430 18:09:06.799278 22310 layer_factory.hpp:77] Creating layer relu2
I0430 18:09:06.799288 22310 net.cpp:86] Creating Layer relu2
I0430 18:09:06.799291 22310 net.cpp:408] relu2 <- ip2
I0430 18:09:06.799295 22310 net.cpp:369] relu2 -> ip2 (in-place)
I0430 18:09:06.800046 22310 net.cpp:124] Setting up relu2
I0430 18:09:06.800058 22310 net.cpp:131] Top shape: 111 10 (1110)
I0430 18:09:06.800062 22310 net.cpp:139] Memory required for data: 1391052
I0430 18:09:06.800065 22310 layer_factory.hpp:77] Creating layer ip3
I0430 18:09:06.800072 22310 net.cpp:86] Creating Layer ip3
I0430 18:09:06.800077 22310 net.cpp:408] ip3 <- ip2
I0430 18:09:06.800098 22310 net.cpp:382] ip3 -> ip3
I0430 18:09:06.801030 22310 net.cpp:124] Setting up ip3
I0430 18:09:06.801043 22310 net.cpp:131] Top shape: 111 40 (4440)
I0430 18:09:06.801048 22310 net.cpp:139] Memory required for data: 1408812
I0430 18:09:06.801070 22310 layer_factory.hpp:77] Creating layer relu3
I0430 18:09:06.801076 22310 net.cpp:86] Creating Layer relu3
I0430 18:09:06.801079 22310 net.cpp:408] relu3 <- ip3
I0430 18:09:06.801084 22310 net.cpp:369] relu3 -> ip3 (in-place)
I0430 18:09:06.801247 22310 net.cpp:124] Setting up relu3
I0430 18:09:06.801255 22310 net.cpp:131] Top shape: 111 40 (4440)
I0430 18:09:06.801259 22310 net.cpp:139] Memory required for data: 1426572
I0430 18:09:06.801261 22310 layer_factory.hpp:77] Creating layer ip4
I0430 18:09:06.801267 22310 net.cpp:86] Creating Layer ip4
I0430 18:09:06.801270 22310 net.cpp:408] ip4 <- ip3
I0430 18:09:06.801275 22310 net.cpp:382] ip4 -> ip4
I0430 18:09:06.801372 22310 net.cpp:124] Setting up ip4
I0430 18:09:06.801378 22310 net.cpp:131] Top shape: 111 10 (1110)
I0430 18:09:06.801381 22310 net.cpp:139] Memory required for data: 1431012
I0430 18:09:06.801386 22310 layer_factory.hpp:77] Creating layer loss
I0430 18:09:06.801393 22310 net.cpp:86] Creating Layer loss
I0430 18:09:06.801396 22310 net.cpp:408] loss <- ip4
I0430 18:09:06.801400 22310 net.cpp:408] loss <- label
I0430 18:09:06.801405 22310 net.cpp:382] loss -> loss
I0430 18:09:06.801424 22310 layer_factory.hpp:77] Creating layer loss
…
I0430 18:09:06.801954 22310 solver.cpp:173] Creating test net (#0) specified by net file: ECE595/cifar/train_test/var_everything/cifar_train_test_57.prototxt
I0430 18:09:06.801991 22310 net.cpp:296] The NetState phase (1) differed from the phase (0) specified by a rule in layer cifar
I0430 18:09:06.802064 22310 net.cpp:53] Initializing net from parameters: 
name: "CIFAR"
state {
  phase: TEST
}
layer {
  name: "cifar"
  type: "Data"
  top: "data"
  top: "label"
  include {
    phase: TEST
  }
  transform_param {
    mean_file: "examples/cifar10/mean.binaryproto"
  }
  data_param {
    source: "examples/cifar10/cifar10_test_lmdb"
    batch_size: 1000
    backend: LMDB
  }
}
layer {
  name: "ip1"
  type: "InnerProduct"
  bottom: "data"
  top: "ip1"
  param {
    lr_mult: 1
  }
  param {
    lr_mult: 2
  }
  inner_product_param {
    num_output: 20
    weight_filler {
      type: "gaussian"
      std: 0.01
    }
    bias_filler {
      type: "constant"
    }
  }
}
layer {
  name: "relu1"
  type: "ReLU"
  bottom: "ip1"
  top: "ip1"
}
layer {
  name: "ip2"
  type: "InnerProduct"
  bottom: "ip1"
  top: "ip2"
  param {
    lr_mult: 1
  }
  param {
    lr_mult: 2
  }
  inner_product_param {
    num_output: 10
    weight_filler {
      type: "gaussian"
      std: 0.01
    }
    bias_filler {
      type: "constant"
    }
  }
}
layer {
  name: "relu2"
  type: "ReLU"
  bottom: "ip2"
  top: "ip2"
}
layer {
  name: "ip3"
  type: "InnerProduct"
  bottom: "ip2"
  top: "ip3"
  param {
    lr_mult: 1
  }
  param {
    lr_mult: 2
  }
  inner_product_param {
    num_output: 40
    weight_filler {
      type: "gaussian"
      std: 0.01
    }
    bias_filler {
      type: "constant"
    }
  }
}
layer {
  name: "relu3"
  type: "ReLU"
  bottom: "ip3"
  top: "ip3"
}
layer {
  name: "ip4"
  type: "InnerProduct"
  bottom: "ip3"
  top: "ip4"
  param {
    lr_mult: 1
  }
  param {
    lr_mult: 2
  }
  inner_product_param {
    num_output: 10
    weight_filler {
      type: "gaussian"
      std: 0.01
    }
    bias_filler {
      type: "constant"
    }
  }
}
layer {
  name: "accuracy"
  type: "Accuracy"
  bottom: "ip4"
  bottom: "label"
  top: "accuracy"
  include {
    phase: TEST
  }
}
layer {
  name: "loss"
  type: "SoftmaxWithLoss"
  bottom: "ip4"
  bottom: "label"
  top: "loss"
}
I0430 18:09:06.802122 22310 layer_factory.hpp:77] Creating layer cifar
I0430 18:09:06.802166 22310 db_lmdb.cpp:35] Opened lmdb examples/cifar10/cifar10_test_lmdb
I0430 18:09:06.802179 22310 net.cpp:86] Creating Layer cifar
I0430 18:09:06.802184 22310 net.cpp:382] cifar -> data
I0430 18:09:06.802191 22310 net.cpp:382] cifar -> label
I0430 18:09:06.802197 22310 data_transformer.cpp:25] Loading mean file from: examples/cifar10/mean.binaryproto
I0430 18:09:06.802332 22310 data_layer.cpp:45] output data size: 1000,3,32,32
I0430 18:09:06.823976 22310 net.cpp:124] Setting up cifar
I0430 18:09:06.824002 22310 net.cpp:131] Top shape: 1000 3 32 32 (3072000)
I0430 18:09:06.824007 22310 net.cpp:131] Top shape: 1000 (1000)
I0430 18:09:06.824010 22310 net.cpp:139] Memory required for data: 12292000
I0430 18:09:06.824031 22310 layer_factory.hpp:77] Creating layer label_cifar_1_split
I0430 18:09:06.824048 22310 net.cpp:86] Creating Layer label_cifar_1_split
I0430 18:09:06.824051 22310 net.cpp:408] label_cifar_1_split <- label
I0430 18:09:06.824057 22310 net.cpp:382] label_cifar_1_split -> label_cifar_1_split_0
I0430 18:09:06.824065 22310 net.cpp:382] label_cifar_1_split -> label_cifar_1_split_1
I0430 18:09:06.824131 22310 net.cpp:124] Setting up label_cifar_1_split
I0430 18:09:06.824138 22310 net.cpp:131] Top shape: 1000 (1000)
I0430 18:09:06.824142 22310 net.cpp:131] Top shape: 1000 (1000)
I0430 18:09:06.824146 22310 net.cpp:139] Memory required for data: 12300000
I0430 18:09:06.824147 22310 layer_factory.hpp:77] Creating layer ip1
I0430 18:09:06.824157 22310 net.cpp:86] Creating Layer ip1
I0430 18:09:06.824160 22310 net.cpp:408] ip1 <- data
I0430 18:09:06.824164 22310 net.cpp:382] ip1 -> ip1
I0430 18:09:06.826742 22310 net.cpp:124] Setting up ip1
I0430 18:09:06.826753 22310 net.cpp:131] Top shape: 1000 20 (20000)
I0430 18:09:06.826756 22310 net.cpp:139] Memory required for data: 12380000
I0430 18:09:06.826804 22310 layer_factory.hpp:77] Creating layer relu1
I0430 18:09:06.826812 22310 net.cpp:86] Creating Layer relu1
I0430 18:09:06.826814 22310 net.cpp:408] relu1 <- ip1
I0430 18:09:06.826819 22310 net.cpp:369] relu1 -> ip1 (in-place)
I0430 18:09:06.827567 22310 net.cpp:124] Setting up relu1
I0430 18:09:06.827579 22310 net.cpp:131] Top shape: 1000 20 (20000)
I0430 18:09:06.827584 22310 net.cpp:139] Memory required for data: 12460000
I0430 18:09:06.827587 22310 layer_factory.hpp:77] Creating layer ip2
I0430 18:09:06.827611 22310 net.cpp:86] Creating Layer ip2
I0430 18:09:06.827615 22310 net.cpp:408] ip2 <- ip1
I0430 18:09:06.827620 22310 net.cpp:382] ip2 -> ip2
I0430 18:09:06.827726 22310 net.cpp:124] Setting up ip2
I0430 18:09:06.827734 22310 net.cpp:131] Top shape: 1000 10 (10000)
I0430 18:09:06.827738 22310 net.cpp:139] Memory required for data: 12500000
I0430 18:09:06.827744 22310 layer_factory.hpp:77] Creating layer relu2
I0430 18:09:06.827749 22310 net.cpp:86] Creating Layer relu2
I0430 18:09:06.827752 22310 net.cpp:408] relu2 <- ip2
I0430 18:09:06.827756 22310 net.cpp:369] relu2 -> ip2 (in-place)
I0430 18:09:06.827899 22310 net.cpp:124] Setting up relu2
I0430 18:09:06.827906 22310 net.cpp:131] Top shape: 1000 10 (10000)
I0430 18:09:06.827909 22310 net.cpp:139] Memory required for data: 12540000
I0430 18:09:06.827913 22310 layer_factory.hpp:77] Creating layer ip3
I0430 18:09:06.827919 22310 net.cpp:86] Creating Layer ip3
I0430 18:09:06.827922 22310 net.cpp:408] ip3 <- ip2
I0430 18:09:06.827927 22310 net.cpp:382] ip3 -> ip3
I0430 18:09:06.828049 22310 net.cpp:124] Setting up ip3
I0430 18:09:06.828055 22310 net.cpp:131] Top shape: 1000 40 (40000)
I0430 18:09:06.828059 22310 net.cpp:139] Memory required for data: 12700000
I0430 18:09:06.828066 22310 layer_factory.hpp:77] Creating layer relu3
I0430 18:09:06.828071 22310 net.cpp:86] Creating Layer relu3
I0430 18:09:06.828074 22310 net.cpp:408] relu3 <- ip3
I0430 18:09:06.828078 22310 net.cpp:369] relu3 -> ip3 (in-place)
I0430 18:09:06.828219 22310 net.cpp:124] Setting up relu3
I0430 18:09:06.828227 22310 net.cpp:131] Top shape: 1000 40 (40000)
I0430 18:09:06.828230 22310 net.cpp:139] Memory required for data: 12860000
I0430 18:09:06.828233 22310 layer_factory.hpp:77] Creating layer ip4
I0430 18:09:06.828240 22310 net.cpp:86] Creating Layer ip4
I0430 18:09:06.828243 22310 net.cpp:408] ip4 <- ip3
I0430 18:09:06.828248 22310 net.cpp:382] ip4 -> ip4
I0430 18:09:06.828353 22310 net.cpp:124] Setting up ip4
I0430 18:09:06.828361 22310 net.cpp:131] Top shape: 1000 10 (10000)
I0430 18:09:06.828363 22310 net.cpp:139] Memory required for data: 12900000
I0430 18:09:06.828368 22310 layer_factory.hpp:77] Creating layer ip4_ip4_0_split
I0430 18:09:06.828373 22310 net.cpp:86] Creating Layer ip4_ip4_0_split
I0430 18:09:06.828377 22310 net.cpp:408] ip4_ip4_0_split <- ip4
I0430 18:09:06.828382 22310 net.cpp:382] ip4_ip4_0_split -> ip4_ip4_0_split_0
I0430 18:09:06.828402 22310 net.cpp:382] ip4_ip4_0_split -> ip4_ip4_0_split_1
I0430 18:09:06.828430 22310 net.cpp:124] Setting up ip4_ip4_0_split
I0430 18:09:06.828436 22310 net.cpp:131] Top shape: 1000 10 (10000)
I0430 18:09:06.828439 22310 net.cpp:131] Top shape: 1000 10 (10000)
I0430 18:09:06.828443 22310 net.cpp:139] Memory required for data: 12980000
I0430 18:09:06.828445 22310 layer_factory.hpp:77] Creating layer accuracy
I0430 18:09:06.828451 22310 net.cpp:86] Creating Layer accuracy
I0430 18:09:06.828455 22310 net.cpp:408] accuracy <- ip4_ip4_0_split_0
I0430 18:09:06.828459 22310 net.cpp:408] accuracy <- label_cifar_1_split_0
I0430 18:09:06.828462 22310 net.cpp:382] accuracy -> accuracy
…
