…
I0430 22:42:27.115936  3024 net.cpp:296] The NetState phase (0) differed from the phase (1) specified by a rule in layer cifar
I0430 22:42:27.115955  3024 net.cpp:296] The NetState phase (0) differed from the phase (1) specified by a rule in layer accuracy
I0430 22:42:27.116066  3024 net.cpp:53] Initializing net from parameters: 
name: "CIFAR"
state {
  phase: TRAIN
  level: 0
  stage: ""
}
layer {
  name: "cifar"
  type: "Data"
  top: "data"
  top: "label"
  include {
    phase: TRAIN
  }
  transform_param {
    mean_file: "examples/cifar10/mean.binaryproto"
  }
  data_param {
    source: "examples/cifar10/cifar10_train_lmdb"
    batch_size: 111
    backend: LMDB
  }
}
layer {
  name: "conv0"
  type: "Convolution"
  bottom: "data"
  top: "conv0"
  param {
    lr_mult: 1
  }
  param {
    lr_mult: 2
  }
  convolution_param {
    num_output: 8
    pad: 2
    kernel_size: 3
    stride: 1
    weight_filler {
      type: "gaussian"
      std: 0.01
    }
    bias_filler {
      type: "constant"
    }
  }
}
layer {
  name: "Sigmoid0"
  type: "Sigmoid"
  bottom: "conv0"
  top: "Sigmoid0"
}
layer {
  name: "pool0"
  type: "Pooling"
  bottom: "Sigmoid0"
  top: "pool0"
  pooling_param {
    pool: AVE
    kernel_size: 3
    stride: 2
  }
}
layer {
  name: "ip1"
  type: "InnerProduct"
  bottom: "pool0"
  top: "ip1"
  param {
    lr_mult: 1
  }
  param {
    lr_mult: 2
  }
  inner_product_param {
    num_output: 10
    weight_filler {
      type: "gaussian"
      std: 0.01
    }
    bias_filler {
      type: "constant"
    }
  }
}
layer {
  name: "relu1"
  type: "ReLU"
  bottom: "ip1"
  top: "ip1"
}
layer {
  name: "ip2"
  type: "InnerProduct"
  bottom: "ip1"
  top: "ip2"
  param {
    lr_mult: 1
  }
  param {
    lr_mult: 2
  }
  inner_product_param {
    num_output: 80
    weight_filler {
      type: "gaussian"
      std: 0.01
    }
    bias_filler {
      type: "constant"
    }
  }
}
layer {
  name: "relu2"
  type: "ReLU"
  bottom: "ip2"
  top: "ip2"
}
layer {
  name: "ip3"
  type: "InnerProduct"
  bottom: "ip2"
  top: "ip3"
  param {
    lr_mult: 1
  }
  param {
    lr_mult: 2
  }
  inner_product_param {
    num_output: 40
    weight_filler {
      type: "gaussian"
      std: 0.01
    }
    bias_filler {
      type: "constant"
    }
  }
}
layer {
  name: "relu3"
  type: "ReLU"
  bottom: "ip3"
  top: "ip3"
}
layer {
  name: "ip4"
  type: "InnerProduct"
  bottom: "ip3"
  top: "ip4"
  param {
    lr_mult: 1
  }
  param {
    lr_mult: 2
  }
  inner_product_param {
    num_output: 10
    weight_filler {
      type: "gaussian"
      std: 0.01
    }
    bias_filler {
      type: "constant"
    }
  }
}
layer {
  name: "loss"
  type: "SoftmaxWithLoss"
  bottom: "ip4"
  bottom: "label"
  top: "loss"
}
I0430 22:42:27.116145  3024 layer_factory.hpp:77] Creating layer cifar
I0430 22:42:27.116246  3024 db_lmdb.cpp:35] Opened lmdb examples/cifar10/cifar10_train_lmdb
I0430 22:42:27.116276  3024 net.cpp:86] Creating Layer cifar
I0430 22:42:27.116287  3024 net.cpp:382] cifar -> data
I0430 22:42:27.116312  3024 net.cpp:382] cifar -> label
I0430 22:42:27.116324  3024 data_transformer.cpp:25] Loading mean file from: examples/cifar10/mean.binaryproto
I0430 22:42:27.118469  3024 data_layer.cpp:45] output data size: 111,3,32,32
I0430 22:42:27.126348  3024 net.cpp:124] Setting up cifar
I0430 22:42:27.126368  3024 net.cpp:131] Top shape: 111 3 32 32 (340992)
I0430 22:42:27.126375  3024 net.cpp:131] Top shape: 111 (111)
I0430 22:42:27.126379  3024 net.cpp:139] Memory required for data: 1364412
I0430 22:42:27.126402  3024 layer_factory.hpp:77] Creating layer conv0
I0430 22:42:27.126421  3024 net.cpp:86] Creating Layer conv0
I0430 22:42:27.126435  3024 net.cpp:408] conv0 <- data
I0430 22:42:27.126448  3024 net.cpp:382] conv0 -> conv0
I0430 22:42:27.404598  3024 net.cpp:124] Setting up conv0
I0430 22:42:27.404624  3024 net.cpp:131] Top shape: 111 8 34 34 (1026528)
I0430 22:42:27.404629  3024 net.cpp:139] Memory required for data: 5470524
I0430 22:42:27.404659  3024 layer_factory.hpp:77] Creating layer Sigmoid0
I0430 22:42:27.404671  3024 net.cpp:86] Creating Layer Sigmoid0
I0430 22:42:27.404676  3024 net.cpp:408] Sigmoid0 <- conv0
I0430 22:42:27.404681  3024 net.cpp:382] Sigmoid0 -> Sigmoid0
I0430 22:42:27.404943  3024 net.cpp:124] Setting up Sigmoid0
I0430 22:42:27.404955  3024 net.cpp:131] Top shape: 111 8 34 34 (1026528)
I0430 22:42:27.404959  3024 net.cpp:139] Memory required for data: 9576636
I0430 22:42:27.404963  3024 layer_factory.hpp:77] Creating layer pool0
I0430 22:42:27.404970  3024 net.cpp:86] Creating Layer pool0
I0430 22:42:27.404974  3024 net.cpp:408] pool0 <- Sigmoid0
I0430 22:42:27.404979  3024 net.cpp:382] pool0 -> pool0
I0430 22:42:27.405794  3024 net.cpp:124] Setting up pool0
I0430 22:42:27.405808  3024 net.cpp:131] Top shape: 111 8 17 17 (256632)
I0430 22:42:27.405812  3024 net.cpp:139] Memory required for data: 10603164
I0430 22:42:27.405833  3024 layer_factory.hpp:77] Creating layer ip1
I0430 22:42:27.405841  3024 net.cpp:86] Creating Layer ip1
I0430 22:42:27.405848  3024 net.cpp:408] ip1 <- pool0
I0430 22:42:27.405853  3024 net.cpp:382] ip1 -> ip1
I0430 22:42:27.407408  3024 net.cpp:124] Setting up ip1
I0430 22:42:27.407420  3024 net.cpp:131] Top shape: 111 10 (1110)
I0430 22:42:27.407423  3024 net.cpp:139] Memory required for data: 10607604
I0430 22:42:27.407446  3024 layer_factory.hpp:77] Creating layer relu1
I0430 22:42:27.407454  3024 net.cpp:86] Creating Layer relu1
I0430 22:42:27.407457  3024 net.cpp:408] relu1 <- ip1
I0430 22:42:27.407462  3024 net.cpp:369] relu1 -> ip1 (in-place)
I0430 22:42:27.407631  3024 net.cpp:124] Setting up relu1
I0430 22:42:27.407640  3024 net.cpp:131] Top shape: 111 10 (1110)
I0430 22:42:27.407644  3024 net.cpp:139] Memory required for data: 10612044
I0430 22:42:27.407647  3024 layer_factory.hpp:77] Creating layer ip2
I0430 22:42:27.407654  3024 net.cpp:86] Creating Layer ip2
I0430 22:42:27.407656  3024 net.cpp:408] ip2 <- ip1
I0430 22:42:27.407661  3024 net.cpp:382] ip2 -> ip2
I0430 22:42:27.408607  3024 net.cpp:124] Setting up ip2
I0430 22:42:27.408618  3024 net.cpp:131] Top shape: 111 80 (8880)
I0430 22:42:27.408622  3024 net.cpp:139] Memory required for data: 10647564
I0430 22:42:27.408648  3024 layer_factory.hpp:77] Creating layer relu2
I0430 22:42:27.408655  3024 net.cpp:86] Creating Layer relu2
I0430 22:42:27.408659  3024 net.cpp:408] relu2 <- ip2
I0430 22:42:27.408663  3024 net.cpp:369] relu2 -> ip2 (in-place)
I0430 22:42:27.408852  3024 net.cpp:124] Setting up relu2
I0430 22:42:27.408864  3024 net.cpp:131] Top shape: 111 80 (8880)
I0430 22:42:27.408882  3024 net.cpp:139] Memory required for data: 10683084
I0430 22:42:27.408885  3024 layer_factory.hpp:77] Creating layer ip3
I0430 22:42:27.408907  3024 net.cpp:86] Creating Layer ip3
I0430 22:42:27.408910  3024 net.cpp:408] ip3 <- ip2
I0430 22:42:27.408915  3024 net.cpp:382] ip3 -> ip3
I0430 22:42:27.409106  3024 net.cpp:124] Setting up ip3
I0430 22:42:27.409113  3024 net.cpp:131] Top shape: 111 40 (4440)
I0430 22:42:27.409117  3024 net.cpp:139] Memory required for data: 10700844
I0430 22:42:27.409122  3024 layer_factory.hpp:77] Creating layer relu3
I0430 22:42:27.409127  3024 net.cpp:86] Creating Layer relu3
I0430 22:42:27.409144  3024 net.cpp:408] relu3 <- ip3
I0430 22:42:27.409148  3024 net.cpp:369] relu3 -> ip3 (in-place)
I0430 22:42:27.409301  3024 net.cpp:124] Setting up relu3
I0430 22:42:27.409308  3024 net.cpp:131] Top shape: 111 40 (4440)
I0430 22:42:27.409312  3024 net.cpp:139] Memory required for data: 10718604
I0430 22:42:27.409314  3024 layer_factory.hpp:77] Creating layer ip4
I0430 22:42:27.409334  3024 net.cpp:86] Creating Layer ip4
I0430 22:42:27.409340  3024 net.cpp:408] ip4 <- ip3
I0430 22:42:27.409360  3024 net.cpp:382] ip4 -> ip4
I0430 22:42:27.409471  3024 net.cpp:124] Setting up ip4
I0430 22:42:27.409478  3024 net.cpp:131] Top shape: 111 10 (1110)
I0430 22:42:27.409482  3024 net.cpp:139] Memory required for data: 10723044
I0430 22:42:27.409489  3024 layer_factory.hpp:77] Creating layer loss
I0430 22:42:27.409497  3024 net.cpp:86] Creating Layer loss
I0430 22:42:27.409517  3024 net.cpp:408] loss <- ip4
I0430 22:42:27.409520  3024 net.cpp:408] loss <- label
I0430 22:42:27.409525  3024 net.cpp:382] loss -> loss
I0430 22:42:27.409540  3024 layer_factory.hpp:77] Creating layer loss
…
I0430 22:42:27.410827  3024 solver.cpp:173] Creating test net (#0) specified by net file: ECE595/cifar/train_test/var_everything/cifar_train_test_202.prototxt
I0430 22:42:27.410856  3024 net.cpp:296] The NetState phase (1) differed from the phase (0) specified by a rule in layer cifar
I0430 22:42:27.410953  3024 net.cpp:53] Initializing net from parameters: 
name: "CIFAR"
state {
  phase: TEST
}
layer {
  name: "cifar"
  type: "Data"
  top: "data"
  top: "label"
  include {
    phase: TEST
  }
  transform_param {
    mean_file: "examples/cifar10/mean.binaryproto"
  }
  data_param {
    source: "examples/cifar10/cifar10_test_lmdb"
    batch_size: 1000
    backend: LMDB
  }
}
layer {
  name: "conv0"
  type: "Convolution"
  bottom: "data"
  top: "conv0"
  param {
    lr_mult: 1
  }
  param {
    lr_mult: 2
  }
  convolution_param {
    num_output: 8
    pad: 2
    kernel_size: 3
    stride: 1
    weight_filler {
      type: "gaussian"
      std: 0.01
    }
    bias_filler {
      type: "constant"
    }
  }
}
layer {
  name: "Sigmoid0"
  type: "Sigmoid"
  bottom: "conv0"
  top: "Sigmoid0"
}
layer {
  name: "pool0"
  type: "Pooling"
  bottom: "Sigmoid0"
  top: "pool0"
  pooling_param {
    pool: AVE
    kernel_size: 3
    stride: 2
  }
}
layer {
  name: "ip1"
  type: "InnerProduct"
  bottom: "pool0"
  top: "ip1"
  param {
    lr_mult: 1
  }
  param {
    lr_mult: 2
  }
  inner_product_param {
    num_output: 10
    weight_filler {
      type: "gaussian"
      std: 0.01
    }
    bias_filler {
      type: "constant"
    }
  }
}
layer {
  name: "relu1"
  type: "ReLU"
  bottom: "ip1"
  top: "ip1"
}
layer {
  name: "ip2"
  type: "InnerProduct"
  bottom: "ip1"
  top: "ip2"
  param {
    lr_mult: 1
  }
  param {
    lr_mult: 2
  }
  inner_product_param {
    num_output: 80
    weight_filler {
      type: "gaussian"
      std: 0.01
    }
    bias_filler {
      type: "constant"
    }
  }
}
layer {
  name: "relu2"
  type: "ReLU"
  bottom: "ip2"
  top: "ip2"
}
layer {
  name: "ip3"
  type: "InnerProduct"
  bottom: "ip2"
  top: "ip3"
  param {
    lr_mult: 1
  }
  param {
    lr_mult: 2
  }
  inner_product_param {
    num_output: 40
    weight_filler {
      type: "gaussian"
      std: 0.01
    }
    bias_filler {
      type: "constant"
    }
  }
}
layer {
  name: "relu3"
  type: "ReLU"
  bottom: "ip3"
  top: "ip3"
}
layer {
  name: "ip4"
  type: "InnerProduct"
  bottom: "ip3"
  top: "ip4"
  param {
    lr_mult: 1
  }
  param {
    lr_mult: 2
  }
  inner_product_param {
    num_output: 10
    weight_filler {
      type: "gaussian"
      std: 0.01
    }
    bias_filler {
      type: "constant"
    }
  }
}
layer {
  name: "accuracy"
  type: "Accuracy"
  bottom: "ip4"
  bottom: "label"
  top: "accuracy"
  include {
    phase: TEST
  }
}
layer {
  name: "loss"
  type: "SoftmaxWithLoss"
  bottom: "ip4"
  bottom: "label"
  top: "loss"
}
I0430 22:42:27.411039  3024 layer_factory.hpp:77] Creating layer cifar
I0430 22:42:27.411084  3024 db_lmdb.cpp:35] Opened lmdb examples/cifar10/cifar10_test_lmdb
I0430 22:42:27.411111  3024 net.cpp:86] Creating Layer cifar
I0430 22:42:27.411116  3024 net.cpp:382] cifar -> data
I0430 22:42:27.411125  3024 net.cpp:382] cifar -> label
I0430 22:42:27.411133  3024 data_transformer.cpp:25] Loading mean file from: examples/cifar10/mean.binaryproto
I0430 22:42:27.411280  3024 data_layer.cpp:45] output data size: 1000,3,32,32
I0430 22:42:27.433929  3024 net.cpp:124] Setting up cifar
I0430 22:42:27.433971  3024 net.cpp:131] Top shape: 1000 3 32 32 (3072000)
I0430 22:42:27.433977  3024 net.cpp:131] Top shape: 1000 (1000)
I0430 22:42:27.433980  3024 net.cpp:139] Memory required for data: 12292000
I0430 22:42:27.433989  3024 layer_factory.hpp:77] Creating layer label_cifar_1_split
I0430 22:42:27.434005  3024 net.cpp:86] Creating Layer label_cifar_1_split
I0430 22:42:27.434013  3024 net.cpp:408] label_cifar_1_split <- label
I0430 22:42:27.434020  3024 net.cpp:382] label_cifar_1_split -> label_cifar_1_split_0
I0430 22:42:27.434028  3024 net.cpp:382] label_cifar_1_split -> label_cifar_1_split_1
I0430 22:42:27.434090  3024 net.cpp:124] Setting up label_cifar_1_split
I0430 22:42:27.434106  3024 net.cpp:131] Top shape: 1000 (1000)
I0430 22:42:27.434110  3024 net.cpp:131] Top shape: 1000 (1000)
I0430 22:42:27.434113  3024 net.cpp:139] Memory required for data: 12300000
I0430 22:42:27.434116  3024 layer_factory.hpp:77] Creating layer conv0
I0430 22:42:27.434130  3024 net.cpp:86] Creating Layer conv0
I0430 22:42:27.434134  3024 net.cpp:408] conv0 <- data
I0430 22:42:27.434140  3024 net.cpp:382] conv0 -> conv0
I0430 22:42:27.435899  3024 net.cpp:124] Setting up conv0
I0430 22:42:27.435928  3024 net.cpp:131] Top shape: 1000 8 34 34 (9248000)
I0430 22:42:27.435932  3024 net.cpp:139] Memory required for data: 49292000
I0430 22:42:27.435943  3024 layer_factory.hpp:77] Creating layer Sigmoid0
I0430 22:42:27.435951  3024 net.cpp:86] Creating Layer Sigmoid0
I0430 22:42:27.435955  3024 net.cpp:408] Sigmoid0 <- conv0
I0430 22:42:27.435959  3024 net.cpp:382] Sigmoid0 -> Sigmoid0
I0430 22:42:27.436172  3024 net.cpp:124] Setting up Sigmoid0
I0430 22:42:27.436182  3024 net.cpp:131] Top shape: 1000 8 34 34 (9248000)
I0430 22:42:27.436185  3024 net.cpp:139] Memory required for data: 86284000
I0430 22:42:27.436189  3024 layer_factory.hpp:77] Creating layer pool0
I0430 22:42:27.436197  3024 net.cpp:86] Creating Layer pool0
I0430 22:42:27.436200  3024 net.cpp:408] pool0 <- Sigmoid0
I0430 22:42:27.436206  3024 net.cpp:382] pool0 -> pool0
I0430 22:42:27.437525  3024 net.cpp:124] Setting up pool0
I0430 22:42:27.437556  3024 net.cpp:131] Top shape: 1000 8 17 17 (2312000)
I0430 22:42:27.437559  3024 net.cpp:139] Memory required for data: 95532000
I0430 22:42:27.437563  3024 layer_factory.hpp:77] Creating layer ip1
I0430 22:42:27.437574  3024 net.cpp:86] Creating Layer ip1
I0430 22:42:27.437578  3024 net.cpp:408] ip1 <- pool0
I0430 22:42:27.437583  3024 net.cpp:382] ip1 -> ip1
I0430 22:42:27.438395  3024 net.cpp:124] Setting up ip1
I0430 22:42:27.438403  3024 net.cpp:131] Top shape: 1000 10 (10000)
I0430 22:42:27.438422  3024 net.cpp:139] Memory required for data: 95572000
I0430 22:42:27.438446  3024 layer_factory.hpp:77] Creating layer relu1
I0430 22:42:27.438453  3024 net.cpp:86] Creating Layer relu1
I0430 22:42:27.438472  3024 net.cpp:408] relu1 <- ip1
I0430 22:42:27.438477  3024 net.cpp:369] relu1 -> ip1 (in-place)
I0430 22:42:27.438663  3024 net.cpp:124] Setting up relu1
I0430 22:42:27.438674  3024 net.cpp:131] Top shape: 1000 10 (10000)
I0430 22:42:27.438678  3024 net.cpp:139] Memory required for data: 95612000
I0430 22:42:27.438681  3024 layer_factory.hpp:77] Creating layer ip2
I0430 22:42:27.438690  3024 net.cpp:86] Creating Layer ip2
I0430 22:42:27.438694  3024 net.cpp:408] ip2 <- ip1
I0430 22:42:27.438699  3024 net.cpp:382] ip2 -> ip2
I0430 22:42:27.438848  3024 net.cpp:124] Setting up ip2
I0430 22:42:27.438858  3024 net.cpp:131] Top shape: 1000 80 (80000)
I0430 22:42:27.438861  3024 net.cpp:139] Memory required for data: 95932000
I0430 22:42:27.438869  3024 layer_factory.hpp:77] Creating layer relu2
I0430 22:42:27.438876  3024 net.cpp:86] Creating Layer relu2
I0430 22:42:27.438880  3024 net.cpp:408] relu2 <- ip2
I0430 22:42:27.438884  3024 net.cpp:369] relu2 -> ip2 (in-place)
I0430 22:42:27.439695  3024 net.cpp:124] Setting up relu2
I0430 22:42:27.439708  3024 net.cpp:131] Top shape: 1000 80 (80000)
I0430 22:42:27.439726  3024 net.cpp:139] Memory required for data: 96252000
I0430 22:42:27.439730  3024 layer_factory.hpp:77] Creating layer ip3
I0430 22:42:27.439738  3024 net.cpp:86] Creating Layer ip3
I0430 22:42:27.439740  3024 net.cpp:408] ip3 <- ip2
I0430 22:42:27.439748  3024 net.cpp:382] ip3 -> ip3
I0430 22:42:27.439976  3024 net.cpp:124] Setting up ip3
I0430 22:42:27.439985  3024 net.cpp:131] Top shape: 1000 40 (40000)
I0430 22:42:27.439988  3024 net.cpp:139] Memory required for data: 96412000
I0430 22:42:27.439995  3024 layer_factory.hpp:77] Creating layer relu3
I0430 22:42:27.440001  3024 net.cpp:86] Creating Layer relu3
I0430 22:42:27.440003  3024 net.cpp:408] relu3 <- ip3
I0430 22:42:27.440009  3024 net.cpp:369] relu3 -> ip3 (in-place)
I0430 22:42:27.440181  3024 net.cpp:124] Setting up relu3
I0430 22:42:27.440191  3024 net.cpp:131] Top shape: 1000 40 (40000)
I0430 22:42:27.440194  3024 net.cpp:139] Memory required for data: 96572000
I0430 22:42:27.440197  3024 layer_factory.hpp:77] Creating layer ip4
I0430 22:42:27.440206  3024 net.cpp:86] Creating Layer ip4
I0430 22:42:27.440208  3024 net.cpp:408] ip4 <- ip3
I0430 22:42:27.440213  3024 net.cpp:382] ip4 -> ip4
I0430 22:42:27.440336  3024 net.cpp:124] Setting up ip4
I0430 22:42:27.440343  3024 net.cpp:131] Top shape: 1000 10 (10000)
I0430 22:42:27.440346  3024 net.cpp:139] Memory required for data: 96612000
I0430 22:42:27.440356  3024 layer_factory.hpp:77] Creating layer ip4_ip4_0_split
I0430 22:42:27.440361  3024 net.cpp:86] Creating Layer ip4_ip4_0_split
I0430 22:42:27.440363  3024 net.cpp:408] ip4_ip4_0_split <- ip4
I0430 22:42:27.440369  3024 net.cpp:382] ip4_ip4_0_split -> ip4_ip4_0_split_0
I0430 22:42:27.440374  3024 net.cpp:382] ip4_ip4_0_split -> ip4_ip4_0_split_1
I0430 22:42:27.440407  3024 net.cpp:124] Setting up ip4_ip4_0_split
I0430 22:42:27.440414  3024 net.cpp:131] Top shape: 1000 10 (10000)
I0430 22:42:27.440418  3024 net.cpp:131] Top shape: 1000 10 (10000)
I0430 22:42:27.440429  3024 net.cpp:139] Memory required for data: 96692000
I0430 22:42:27.440433  3024 layer_factory.hpp:77] Creating layer accuracy
I0430 22:42:27.440439  3024 net.cpp:86] Creating Layer accuracy
I0430 22:42:27.440443  3024 net.cpp:408] accuracy <- ip4_ip4_0_split_0
I0430 22:42:27.440448  3024 net.cpp:408] accuracy <- label_cifar_1_split_0
I0430 22:42:27.440454  3024 net.cpp:382] accuracy -> accuracy
…
