…
I0501 09:08:58.077061 13264 net.cpp:296] The NetState phase (0) differed from the phase (1) specified by a rule in layer cifar
I0501 09:08:58.077080 13264 net.cpp:296] The NetState phase (0) differed from the phase (1) specified by a rule in layer accuracy
I0501 09:08:58.077180 13264 net.cpp:53] Initializing net from parameters: 
name: "CIFAR"
state {
  phase: TRAIN
  level: 0
  stage: ""
}
layer {
  name: "cifar"
  type: "Data"
  top: "data"
  top: "label"
  include {
    phase: TRAIN
  }
  transform_param {
    mean_file: "examples/cifar10/mean.binaryproto"
  }
  data_param {
    source: "examples/cifar10/cifar10_train_lmdb"
    batch_size: 111
    backend: LMDB
  }
}
layer {
  name: "conv0"
  type: "Convolution"
  bottom: "data"
  top: "conv0"
  param {
    lr_mult: 1
  }
  param {
    lr_mult: 2
  }
  convolution_param {
    num_output: 16
    pad: 2
    kernel_size: 3
    stride: 1
    weight_filler {
      type: "gaussian"
      std: 0.01
    }
    bias_filler {
      type: "constant"
    }
  }
}
layer {
  name: "Sigmoid0"
  type: "Sigmoid"
  bottom: "conv0"
  top: "Sigmoid0"
}
layer {
  name: "pool0"
  type: "Pooling"
  bottom: "Sigmoid0"
  top: "pool0"
  pooling_param {
    pool: AVE
    kernel_size: 3
    stride: 2
  }
}
layer {
  name: "ip1"
  type: "InnerProduct"
  bottom: "pool0"
  top: "ip1"
  param {
    lr_mult: 1
  }
  param {
    lr_mult: 2
  }
  inner_product_param {
    num_output: 20
    weight_filler {
      type: "gaussian"
      std: 0.01
    }
    bias_filler {
      type: "constant"
    }
  }
}
layer {
  name: "relu1"
  type: "ReLU"
  bottom: "ip1"
  top: "ip1"
}
layer {
  name: "ip2"
  type: "InnerProduct"
  bottom: "ip1"
  top: "ip2"
  param {
    lr_mult: 1
  }
  param {
    lr_mult: 2
  }
  inner_product_param {
    num_output: 40
    weight_filler {
      type: "gaussian"
      std: 0.01
    }
    bias_filler {
      type: "constant"
    }
  }
}
layer {
  name: "relu2"
  type: "ReLU"
  bottom: "ip2"
  top: "ip2"
}
layer {
  name: "ip3"
  type: "InnerProduct"
  bottom: "ip2"
  top: "ip3"
  param {
    lr_mult: 1
  }
  param {
    lr_mult: 2
  }
  inner_product_param {
    num_output: 20
    weight_filler {
      type: "gaussian"
      std: 0.01
    }
    bias_filler {
      type: "constant"
    }
  }
}
layer {
  name: "relu3"
  type: "ReLU"
  bottom: "ip3"
  top: "ip3"
}
layer {
  name: "ip4"
  type: "InnerProduct"
  bottom: "ip3"
  top: "ip4"
  param {
    lr_mult: 1
  }
  param {
    lr_mult: 2
  }
  inner_product_param {
    num_output: 10
    weight_filler {
      type: "gaussian"
      std: 0.01
    }
    bias_filler {
      type: "constant"
    }
  }
}
layer {
  name: "loss"
  type: "SoftmaxWithLoss"
  bottom: "ip4"
  bottom: "label"
  top: "loss"
}
I0501 09:08:58.077253 13264 layer_factory.hpp:77] Creating layer cifar
I0501 09:08:58.077356 13264 db_lmdb.cpp:35] Opened lmdb examples/cifar10/cifar10_train_lmdb
I0501 09:08:58.077383 13264 net.cpp:86] Creating Layer cifar
I0501 09:08:58.077391 13264 net.cpp:382] cifar -> data
I0501 09:08:58.077414 13264 net.cpp:382] cifar -> label
I0501 09:08:58.077425 13264 data_transformer.cpp:25] Loading mean file from: examples/cifar10/mean.binaryproto
I0501 09:08:58.079586 13264 data_layer.cpp:45] output data size: 111,3,32,32
I0501 09:08:58.087563 13264 net.cpp:124] Setting up cifar
I0501 09:08:58.087581 13264 net.cpp:131] Top shape: 111 3 32 32 (340992)
I0501 09:08:58.087587 13264 net.cpp:131] Top shape: 111 (111)
I0501 09:08:58.087591 13264 net.cpp:139] Memory required for data: 1364412
I0501 09:08:58.087615 13264 layer_factory.hpp:77] Creating layer conv0
I0501 09:08:58.087635 13264 net.cpp:86] Creating Layer conv0
I0501 09:08:58.087640 13264 net.cpp:408] conv0 <- data
I0501 09:08:58.087651 13264 net.cpp:382] conv0 -> conv0
I0501 09:08:58.368456 13264 net.cpp:124] Setting up conv0
I0501 09:08:58.368499 13264 net.cpp:131] Top shape: 111 16 34 34 (2053056)
I0501 09:08:58.368504 13264 net.cpp:139] Memory required for data: 9576636
I0501 09:08:58.368518 13264 layer_factory.hpp:77] Creating layer Sigmoid0
I0501 09:08:58.368530 13264 net.cpp:86] Creating Layer Sigmoid0
I0501 09:08:58.368535 13264 net.cpp:408] Sigmoid0 <- conv0
I0501 09:08:58.368541 13264 net.cpp:382] Sigmoid0 -> Sigmoid0
I0501 09:08:58.368746 13264 net.cpp:124] Setting up Sigmoid0
I0501 09:08:58.368755 13264 net.cpp:131] Top shape: 111 16 34 34 (2053056)
I0501 09:08:58.368758 13264 net.cpp:139] Memory required for data: 17788860
I0501 09:08:58.368762 13264 layer_factory.hpp:77] Creating layer pool0
I0501 09:08:58.368767 13264 net.cpp:86] Creating Layer pool0
I0501 09:08:58.368770 13264 net.cpp:408] pool0 <- Sigmoid0
I0501 09:08:58.368775 13264 net.cpp:382] pool0 -> pool0
I0501 09:08:58.369467 13264 net.cpp:124] Setting up pool0
I0501 09:08:58.369480 13264 net.cpp:131] Top shape: 111 16 17 17 (513264)
I0501 09:08:58.369484 13264 net.cpp:139] Memory required for data: 19841916
I0501 09:08:58.369488 13264 layer_factory.hpp:77] Creating layer ip1
I0501 09:08:58.369496 13264 net.cpp:86] Creating Layer ip1
I0501 09:08:58.369499 13264 net.cpp:408] ip1 <- pool0
I0501 09:08:58.369504 13264 net.cpp:382] ip1 -> ip1
I0501 09:08:58.371940 13264 net.cpp:124] Setting up ip1
I0501 09:08:58.371948 13264 net.cpp:131] Top shape: 111 20 (2220)
I0501 09:08:58.371951 13264 net.cpp:139] Memory required for data: 19850796
I0501 09:08:58.371958 13264 layer_factory.hpp:77] Creating layer relu1
I0501 09:08:58.371963 13264 net.cpp:86] Creating Layer relu1
I0501 09:08:58.371966 13264 net.cpp:408] relu1 <- ip1
I0501 09:08:58.371970 13264 net.cpp:369] relu1 -> ip1 (in-place)
I0501 09:08:58.372104 13264 net.cpp:124] Setting up relu1
I0501 09:08:58.372112 13264 net.cpp:131] Top shape: 111 20 (2220)
I0501 09:08:58.372115 13264 net.cpp:139] Memory required for data: 19859676
I0501 09:08:58.372117 13264 layer_factory.hpp:77] Creating layer ip2
I0501 09:08:58.372123 13264 net.cpp:86] Creating Layer ip2
I0501 09:08:58.372126 13264 net.cpp:408] ip2 <- ip1
I0501 09:08:58.372130 13264 net.cpp:382] ip2 -> ip2
I0501 09:08:58.372232 13264 net.cpp:124] Setting up ip2
I0501 09:08:58.372239 13264 net.cpp:131] Top shape: 111 40 (4440)
I0501 09:08:58.372242 13264 net.cpp:139] Memory required for data: 19877436
I0501 09:08:58.372248 13264 layer_factory.hpp:77] Creating layer relu2
I0501 09:08:58.372253 13264 net.cpp:86] Creating Layer relu2
I0501 09:08:58.372256 13264 net.cpp:408] relu2 <- ip2
I0501 09:08:58.372261 13264 net.cpp:369] relu2 -> ip2 (in-place)
I0501 09:08:58.372390 13264 net.cpp:124] Setting up relu2
I0501 09:08:58.372398 13264 net.cpp:131] Top shape: 111 40 (4440)
I0501 09:08:58.372401 13264 net.cpp:139] Memory required for data: 19895196
I0501 09:08:58.372403 13264 layer_factory.hpp:77] Creating layer ip3
I0501 09:08:58.372411 13264 net.cpp:86] Creating Layer ip3
I0501 09:08:58.372413 13264 net.cpp:408] ip3 <- ip2
I0501 09:08:58.372417 13264 net.cpp:382] ip3 -> ip3
I0501 09:08:58.372519 13264 net.cpp:124] Setting up ip3
I0501 09:08:58.372524 13264 net.cpp:131] Top shape: 111 20 (2220)
I0501 09:08:58.372527 13264 net.cpp:139] Memory required for data: 19904076
I0501 09:08:58.372532 13264 layer_factory.hpp:77] Creating layer relu3
I0501 09:08:58.372536 13264 net.cpp:86] Creating Layer relu3
I0501 09:08:58.372539 13264 net.cpp:408] relu3 <- ip3
I0501 09:08:58.372544 13264 net.cpp:369] relu3 -> ip3 (in-place)
I0501 09:08:58.372689 13264 net.cpp:124] Setting up relu3
I0501 09:08:58.372697 13264 net.cpp:131] Top shape: 111 20 (2220)
I0501 09:08:58.372700 13264 net.cpp:139] Memory required for data: 19912956
I0501 09:08:58.372704 13264 layer_factory.hpp:77] Creating layer ip4
I0501 09:08:58.372722 13264 net.cpp:86] Creating Layer ip4
I0501 09:08:58.372725 13264 net.cpp:408] ip4 <- ip3
I0501 09:08:58.372730 13264 net.cpp:382] ip4 -> ip4
I0501 09:08:58.372825 13264 net.cpp:124] Setting up ip4
I0501 09:08:58.372848 13264 net.cpp:131] Top shape: 111 10 (1110)
I0501 09:08:58.372851 13264 net.cpp:139] Memory required for data: 19917396
I0501 09:08:58.372859 13264 layer_factory.hpp:77] Creating layer loss
I0501 09:08:58.372864 13264 net.cpp:86] Creating Layer loss
I0501 09:08:58.372869 13264 net.cpp:408] loss <- ip4
I0501 09:08:58.372871 13264 net.cpp:408] loss <- label
I0501 09:08:58.372876 13264 net.cpp:382] loss -> loss
I0501 09:08:58.372895 13264 layer_factory.hpp:77] Creating layer loss
…
I0501 09:08:58.374089 13264 solver.cpp:173] Creating test net (#0) specified by net file: ECE595/cifar/train_test/var_everything/cifar_train_test_531.prototxt
I0501 09:08:58.374115 13264 net.cpp:296] The NetState phase (1) differed from the phase (0) specified by a rule in layer cifar
I0501 09:08:58.374202 13264 net.cpp:53] Initializing net from parameters: 
name: "CIFAR"
state {
  phase: TEST
}
layer {
  name: "cifar"
  type: "Data"
  top: "data"
  top: "label"
  include {
    phase: TEST
  }
  transform_param {
    mean_file: "examples/cifar10/mean.binaryproto"
  }
  data_param {
    source: "examples/cifar10/cifar10_test_lmdb"
    batch_size: 1000
    backend: LMDB
  }
}
layer {
  name: "conv0"
  type: "Convolution"
  bottom: "data"
  top: "conv0"
  param {
    lr_mult: 1
  }
  param {
    lr_mult: 2
  }
  convolution_param {
    num_output: 16
    pad: 2
    kernel_size: 3
    stride: 1
    weight_filler {
      type: "gaussian"
      std: 0.01
    }
    bias_filler {
      type: "constant"
    }
  }
}
layer {
  name: "Sigmoid0"
  type: "Sigmoid"
  bottom: "conv0"
  top: "Sigmoid0"
}
layer {
  name: "pool0"
  type: "Pooling"
  bottom: "Sigmoid0"
  top: "pool0"
  pooling_param {
    pool: AVE
    kernel_size: 3
    stride: 2
  }
}
layer {
  name: "ip1"
  type: "InnerProduct"
  bottom: "pool0"
  top: "ip1"
  param {
    lr_mult: 1
  }
  param {
    lr_mult: 2
  }
  inner_product_param {
    num_output: 20
    weight_filler {
      type: "gaussian"
      std: 0.01
    }
    bias_filler {
      type: "constant"
    }
  }
}
layer {
  name: "relu1"
  type: "ReLU"
  bottom: "ip1"
  top: "ip1"
}
layer {
  name: "ip2"
  type: "InnerProduct"
  bottom: "ip1"
  top: "ip2"
  param {
    lr_mult: 1
  }
  param {
    lr_mult: 2
  }
  inner_product_param {
    num_output: 40
    weight_filler {
      type: "gaussian"
      std: 0.01
    }
    bias_filler {
      type: "constant"
    }
  }
}
layer {
  name: "relu2"
  type: "ReLU"
  bottom: "ip2"
  top: "ip2"
}
layer {
  name: "ip3"
  type: "InnerProduct"
  bottom: "ip2"
  top: "ip3"
  param {
    lr_mult: 1
  }
  param {
    lr_mult: 2
  }
  inner_product_param {
    num_output: 20
    weight_filler {
      type: "gaussian"
      std: 0.01
    }
    bias_filler {
      type: "constant"
    }
  }
}
layer {
  name: "relu3"
  type: "ReLU"
  bottom: "ip3"
  top: "ip3"
}
layer {
  name: "ip4"
  type: "InnerProduct"
  bottom: "ip3"
  top: "ip4"
  param {
    lr_mult: 1
  }
  param {
    lr_mult: 2
  }
  inner_product_param {
    num_output: 10
    weight_filler {
      type: "gaussian"
      std: 0.01
    }
    bias_filler {
      type: "constant"
    }
  }
}
layer {
  name: "accuracy"
  type: "Accuracy"
  bottom: "ip4"
  bottom: "label"
  top: "accuracy"
  include {
    phase: TEST
  }
}
layer {
  name: "loss"
  type: "SoftmaxWithLoss"
  bottom: "ip4"
  bottom: "label"
  top: "loss"
}
I0501 09:08:58.374275 13264 layer_factory.hpp:77] Creating layer cifar
I0501 09:08:58.374317 13264 db_lmdb.cpp:35] Opened lmdb examples/cifar10/cifar10_test_lmdb
I0501 09:08:58.374328 13264 net.cpp:86] Creating Layer cifar
I0501 09:08:58.374333 13264 net.cpp:382] cifar -> data
I0501 09:08:58.374341 13264 net.cpp:382] cifar -> label
I0501 09:08:58.374346 13264 data_transformer.cpp:25] Loading mean file from: examples/cifar10/mean.binaryproto
I0501 09:08:58.374475 13264 data_layer.cpp:45] output data size: 1000,3,32,32
I0501 09:08:58.396003 13264 net.cpp:124] Setting up cifar
I0501 09:08:58.396044 13264 net.cpp:131] Top shape: 1000 3 32 32 (3072000)
I0501 09:08:58.396050 13264 net.cpp:131] Top shape: 1000 (1000)
I0501 09:08:58.396054 13264 net.cpp:139] Memory required for data: 12292000
I0501 09:08:58.396059 13264 layer_factory.hpp:77] Creating layer label_cifar_1_split
I0501 09:08:58.396070 13264 net.cpp:86] Creating Layer label_cifar_1_split
I0501 09:08:58.396075 13264 net.cpp:408] label_cifar_1_split <- label
I0501 09:08:58.396080 13264 net.cpp:382] label_cifar_1_split -> label_cifar_1_split_0
I0501 09:08:58.396105 13264 net.cpp:382] label_cifar_1_split -> label_cifar_1_split_1
I0501 09:08:58.396190 13264 net.cpp:124] Setting up label_cifar_1_split
I0501 09:08:58.396198 13264 net.cpp:131] Top shape: 1000 (1000)
I0501 09:08:58.396203 13264 net.cpp:131] Top shape: 1000 (1000)
I0501 09:08:58.396204 13264 net.cpp:139] Memory required for data: 12300000
I0501 09:08:58.396208 13264 layer_factory.hpp:77] Creating layer conv0
I0501 09:08:58.396219 13264 net.cpp:86] Creating Layer conv0
I0501 09:08:58.396222 13264 net.cpp:408] conv0 <- data
I0501 09:08:58.396227 13264 net.cpp:382] conv0 -> conv0
I0501 09:08:58.397891 13264 net.cpp:124] Setting up conv0
I0501 09:08:58.397920 13264 net.cpp:131] Top shape: 1000 16 34 34 (18496000)
I0501 09:08:58.397924 13264 net.cpp:139] Memory required for data: 86284000
I0501 09:08:58.397933 13264 layer_factory.hpp:77] Creating layer Sigmoid0
I0501 09:08:58.397940 13264 net.cpp:86] Creating Layer Sigmoid0
I0501 09:08:58.397943 13264 net.cpp:408] Sigmoid0 <- conv0
I0501 09:08:58.397948 13264 net.cpp:382] Sigmoid0 -> Sigmoid0
I0501 09:08:58.398149 13264 net.cpp:124] Setting up Sigmoid0
I0501 09:08:58.398159 13264 net.cpp:131] Top shape: 1000 16 34 34 (18496000)
I0501 09:08:58.398161 13264 net.cpp:139] Memory required for data: 160268000
I0501 09:08:58.398164 13264 layer_factory.hpp:77] Creating layer pool0
I0501 09:08:58.398172 13264 net.cpp:86] Creating Layer pool0
I0501 09:08:58.398175 13264 net.cpp:408] pool0 <- Sigmoid0
I0501 09:08:58.398181 13264 net.cpp:382] pool0 -> pool0
I0501 09:08:58.398417 13264 net.cpp:124] Setting up pool0
I0501 09:08:58.398427 13264 net.cpp:131] Top shape: 1000 16 17 17 (4624000)
I0501 09:08:58.398429 13264 net.cpp:139] Memory required for data: 178764000
I0501 09:08:58.398433 13264 layer_factory.hpp:77] Creating layer ip1
I0501 09:08:58.398440 13264 net.cpp:86] Creating Layer ip1
I0501 09:08:58.398444 13264 net.cpp:408] ip1 <- pool0
I0501 09:08:58.398449 13264 net.cpp:382] ip1 -> ip1
I0501 09:08:58.401985 13264 net.cpp:124] Setting up ip1
I0501 09:08:58.401994 13264 net.cpp:131] Top shape: 1000 20 (20000)
I0501 09:08:58.402014 13264 net.cpp:139] Memory required for data: 178844000
I0501 09:08:58.402035 13264 layer_factory.hpp:77] Creating layer relu1
I0501 09:08:58.402042 13264 net.cpp:86] Creating Layer relu1
I0501 09:08:58.402045 13264 net.cpp:408] relu1 <- ip1
I0501 09:08:58.402050 13264 net.cpp:369] relu1 -> ip1 (in-place)
I0501 09:08:58.402237 13264 net.cpp:124] Setting up relu1
I0501 09:08:58.402245 13264 net.cpp:131] Top shape: 1000 20 (20000)
I0501 09:08:58.402250 13264 net.cpp:139] Memory required for data: 178924000
I0501 09:08:58.402252 13264 layer_factory.hpp:77] Creating layer ip2
I0501 09:08:58.402258 13264 net.cpp:86] Creating Layer ip2
I0501 09:08:58.402261 13264 net.cpp:408] ip2 <- ip1
I0501 09:08:58.402266 13264 net.cpp:382] ip2 -> ip2
I0501 09:08:58.402385 13264 net.cpp:124] Setting up ip2
I0501 09:08:58.402392 13264 net.cpp:131] Top shape: 1000 40 (40000)
I0501 09:08:58.402396 13264 net.cpp:139] Memory required for data: 179084000
I0501 09:08:58.402403 13264 layer_factory.hpp:77] Creating layer relu2
I0501 09:08:58.402410 13264 net.cpp:86] Creating Layer relu2
I0501 09:08:58.402412 13264 net.cpp:408] relu2 <- ip2
I0501 09:08:58.402416 13264 net.cpp:369] relu2 -> ip2 (in-place)
I0501 09:08:58.403154 13264 net.cpp:124] Setting up relu2
I0501 09:08:58.403165 13264 net.cpp:131] Top shape: 1000 40 (40000)
I0501 09:08:58.403184 13264 net.cpp:139] Memory required for data: 179244000
I0501 09:08:58.403187 13264 layer_factory.hpp:77] Creating layer ip3
I0501 09:08:58.403194 13264 net.cpp:86] Creating Layer ip3
I0501 09:08:58.403198 13264 net.cpp:408] ip3 <- ip2
I0501 09:08:58.403203 13264 net.cpp:382] ip3 -> ip3
I0501 09:08:58.403354 13264 net.cpp:124] Setting up ip3
I0501 09:08:58.403362 13264 net.cpp:131] Top shape: 1000 20 (20000)
I0501 09:08:58.403364 13264 net.cpp:139] Memory required for data: 179324000
I0501 09:08:58.403370 13264 layer_factory.hpp:77] Creating layer relu3
I0501 09:08:58.403375 13264 net.cpp:86] Creating Layer relu3
I0501 09:08:58.403378 13264 net.cpp:408] relu3 <- ip3
I0501 09:08:58.403383 13264 net.cpp:369] relu3 -> ip3 (in-place)
I0501 09:08:58.403534 13264 net.cpp:124] Setting up relu3
I0501 09:08:58.403542 13264 net.cpp:131] Top shape: 1000 20 (20000)
I0501 09:08:58.403545 13264 net.cpp:139] Memory required for data: 179404000
I0501 09:08:58.403548 13264 layer_factory.hpp:77] Creating layer ip4
I0501 09:08:58.403554 13264 net.cpp:86] Creating Layer ip4
I0501 09:08:58.403558 13264 net.cpp:408] ip4 <- ip3
I0501 09:08:58.403563 13264 net.cpp:382] ip4 -> ip4
I0501 09:08:58.403677 13264 net.cpp:124] Setting up ip4
I0501 09:08:58.403684 13264 net.cpp:131] Top shape: 1000 10 (10000)
I0501 09:08:58.403687 13264 net.cpp:139] Memory required for data: 179444000
I0501 09:08:58.403695 13264 layer_factory.hpp:77] Creating layer ip4_ip4_0_split
I0501 09:08:58.403699 13264 net.cpp:86] Creating Layer ip4_ip4_0_split
I0501 09:08:58.403703 13264 net.cpp:408] ip4_ip4_0_split <- ip4
I0501 09:08:58.403707 13264 net.cpp:382] ip4_ip4_0_split -> ip4_ip4_0_split_0
I0501 09:08:58.403712 13264 net.cpp:382] ip4_ip4_0_split -> ip4_ip4_0_split_1
I0501 09:08:58.403739 13264 net.cpp:124] Setting up ip4_ip4_0_split
I0501 09:08:58.403743 13264 net.cpp:131] Top shape: 1000 10 (10000)
I0501 09:08:58.403748 13264 net.cpp:131] Top shape: 1000 10 (10000)
I0501 09:08:58.403750 13264 net.cpp:139] Memory required for data: 179524000
I0501 09:08:58.403753 13264 layer_factory.hpp:77] Creating layer accuracy
I0501 09:08:58.403759 13264 net.cpp:86] Creating Layer accuracy
I0501 09:08:58.403761 13264 net.cpp:408] accuracy <- ip4_ip4_0_split_0
I0501 09:08:58.403765 13264 net.cpp:408] accuracy <- label_cifar_1_split_0
I0501 09:08:58.403769 13264 net.cpp:382] accuracy -> accuracy
…
