…
I0501 07:15:09.011751  4216 net.cpp:296] The NetState phase (0) differed from the phase (1) specified by a rule in layer cifar
I0501 07:15:09.011768  4216 net.cpp:296] The NetState phase (0) differed from the phase (1) specified by a rule in layer accuracy
I0501 07:15:09.011855  4216 net.cpp:53] Initializing net from parameters: 
name: "CIFAR"
state {
  phase: TRAIN
  level: 0
  stage: ""
}
layer {
  name: "cifar"
  type: "Data"
  top: "data"
  top: "label"
  include {
    phase: TRAIN
  }
  transform_param {
    mean_file: "examples/cifar10/mean.binaryproto"
  }
  data_param {
    source: "examples/cifar10/cifar10_train_lmdb"
    batch_size: 111
    backend: LMDB
  }
}
layer {
  name: "conv0"
  type: "Convolution"
  bottom: "data"
  top: "conv0"
  param {
    lr_mult: 1
  }
  param {
    lr_mult: 2
  }
  convolution_param {
    num_output: 16
    pad: 2
    kernel_size: 3
    stride: 1
    weight_filler {
      type: "gaussian"
      std: 0.01
    }
    bias_filler {
      type: "constant"
    }
  }
}
layer {
  name: "Sigmoid0"
  type: "Sigmoid"
  bottom: "conv0"
  top: "Sigmoid0"
}
layer {
  name: "pool0"
  type: "Pooling"
  bottom: "Sigmoid0"
  top: "pool0"
  pooling_param {
    pool: AVE
    kernel_size: 3
    stride: 2
  }
}
layer {
  name: "ip1"
  type: "InnerProduct"
  bottom: "pool0"
  top: "ip1"
  param {
    lr_mult: 1
  }
  param {
    lr_mult: 2
  }
  inner_product_param {
    num_output: 20
    weight_filler {
      type: "gaussian"
      std: 0.01
    }
    bias_filler {
      type: "constant"
    }
  }
}
layer {
  name: "relu1"
  type: "ReLU"
  bottom: "ip1"
  top: "ip1"
}
layer {
  name: "ip2"
  type: "InnerProduct"
  bottom: "ip1"
  top: "ip2"
  param {
    lr_mult: 1
  }
  param {
    lr_mult: 2
  }
  inner_product_param {
    num_output: 20
    weight_filler {
      type: "gaussian"
      std: 0.01
    }
    bias_filler {
      type: "constant"
    }
  }
}
layer {
  name: "relu2"
  type: "ReLU"
  bottom: "ip2"
  top: "ip2"
}
layer {
  name: "ip3"
  type: "InnerProduct"
  bottom: "ip2"
  top: "ip3"
  param {
    lr_mult: 1
  }
  param {
    lr_mult: 2
  }
  inner_product_param {
    num_output: 10
    weight_filler {
      type: "gaussian"
      std: 0.01
    }
    bias_filler {
      type: "constant"
    }
  }
}
layer {
  name: "loss"
  type: "SoftmaxWithLoss"
  bottom: "ip3"
  bottom: "label"
  top: "loss"
}
I0501 07:15:09.011924  4216 layer_factory.hpp:77] Creating layer cifar
I0501 07:15:09.012025  4216 db_lmdb.cpp:35] Opened lmdb examples/cifar10/cifar10_train_lmdb
I0501 07:15:09.012051  4216 net.cpp:86] Creating Layer cifar
I0501 07:15:09.012059  4216 net.cpp:382] cifar -> data
I0501 07:15:09.012082  4216 net.cpp:382] cifar -> label
I0501 07:15:09.012094  4216 data_transformer.cpp:25] Loading mean file from: examples/cifar10/mean.binaryproto
I0501 07:15:09.014259  4216 data_layer.cpp:45] output data size: 111,3,32,32
I0501 07:15:09.022258  4216 net.cpp:124] Setting up cifar
I0501 07:15:09.022276  4216 net.cpp:131] Top shape: 111 3 32 32 (340992)
I0501 07:15:09.022284  4216 net.cpp:131] Top shape: 111 (111)
I0501 07:15:09.022287  4216 net.cpp:139] Memory required for data: 1364412
I0501 07:15:09.022295  4216 layer_factory.hpp:77] Creating layer conv0
I0501 07:15:09.022313  4216 net.cpp:86] Creating Layer conv0
I0501 07:15:09.022320  4216 net.cpp:408] conv0 <- data
I0501 07:15:09.022332  4216 net.cpp:382] conv0 -> conv0
I0501 07:15:09.315405  4216 net.cpp:124] Setting up conv0
I0501 07:15:09.315460  4216 net.cpp:131] Top shape: 111 16 34 34 (2053056)
I0501 07:15:09.315466  4216 net.cpp:139] Memory required for data: 9576636
I0501 07:15:09.315485  4216 layer_factory.hpp:77] Creating layer Sigmoid0
I0501 07:15:09.315498  4216 net.cpp:86] Creating Layer Sigmoid0
I0501 07:15:09.315503  4216 net.cpp:408] Sigmoid0 <- conv0
I0501 07:15:09.315510  4216 net.cpp:382] Sigmoid0 -> Sigmoid0
I0501 07:15:09.315727  4216 net.cpp:124] Setting up Sigmoid0
I0501 07:15:09.315740  4216 net.cpp:131] Top shape: 111 16 34 34 (2053056)
I0501 07:15:09.315744  4216 net.cpp:139] Memory required for data: 17788860
I0501 07:15:09.315748  4216 layer_factory.hpp:77] Creating layer pool0
I0501 07:15:09.315757  4216 net.cpp:86] Creating Layer pool0
I0501 07:15:09.315762  4216 net.cpp:408] pool0 <- Sigmoid0
I0501 07:15:09.315767  4216 net.cpp:382] pool0 -> pool0
I0501 07:15:09.316648  4216 net.cpp:124] Setting up pool0
I0501 07:15:09.316665  4216 net.cpp:131] Top shape: 111 16 17 17 (513264)
I0501 07:15:09.316670  4216 net.cpp:139] Memory required for data: 19841916
I0501 07:15:09.316674  4216 layer_factory.hpp:77] Creating layer ip1
I0501 07:15:09.316686  4216 net.cpp:86] Creating Layer ip1
I0501 07:15:09.316690  4216 net.cpp:408] ip1 <- pool0
I0501 07:15:09.316700  4216 net.cpp:382] ip1 -> ip1
I0501 07:15:09.319901  4216 net.cpp:124] Setting up ip1
I0501 07:15:09.319912  4216 net.cpp:131] Top shape: 111 20 (2220)
I0501 07:15:09.319916  4216 net.cpp:139] Memory required for data: 19850796
I0501 07:15:09.319926  4216 layer_factory.hpp:77] Creating layer relu1
I0501 07:15:09.319933  4216 net.cpp:86] Creating Layer relu1
I0501 07:15:09.319937  4216 net.cpp:408] relu1 <- ip1
I0501 07:15:09.319944  4216 net.cpp:369] relu1 -> ip1 (in-place)
I0501 07:15:09.320133  4216 net.cpp:124] Setting up relu1
I0501 07:15:09.320144  4216 net.cpp:131] Top shape: 111 20 (2220)
I0501 07:15:09.320148  4216 net.cpp:139] Memory required for data: 19859676
I0501 07:15:09.320152  4216 layer_factory.hpp:77] Creating layer ip2
I0501 07:15:09.320160  4216 net.cpp:86] Creating Layer ip2
I0501 07:15:09.320163  4216 net.cpp:408] ip2 <- ip1
I0501 07:15:09.320170  4216 net.cpp:382] ip2 -> ip2
I0501 07:15:09.320297  4216 net.cpp:124] Setting up ip2
I0501 07:15:09.320304  4216 net.cpp:131] Top shape: 111 20 (2220)
I0501 07:15:09.320308  4216 net.cpp:139] Memory required for data: 19868556
I0501 07:15:09.320317  4216 layer_factory.hpp:77] Creating layer relu2
I0501 07:15:09.320323  4216 net.cpp:86] Creating Layer relu2
I0501 07:15:09.320327  4216 net.cpp:408] relu2 <- ip2
I0501 07:15:09.320333  4216 net.cpp:369] relu2 -> ip2 (in-place)
I0501 07:15:09.320523  4216 net.cpp:124] Setting up relu2
I0501 07:15:09.320533  4216 net.cpp:131] Top shape: 111 20 (2220)
I0501 07:15:09.320538  4216 net.cpp:139] Memory required for data: 19877436
I0501 07:15:09.320541  4216 layer_factory.hpp:77] Creating layer ip3
I0501 07:15:09.320550  4216 net.cpp:86] Creating Layer ip3
I0501 07:15:09.320554  4216 net.cpp:408] ip3 <- ip2
I0501 07:15:09.320560  4216 net.cpp:382] ip3 -> ip3
I0501 07:15:09.320677  4216 net.cpp:124] Setting up ip3
I0501 07:15:09.320684  4216 net.cpp:131] Top shape: 111 10 (1110)
I0501 07:15:09.320688  4216 net.cpp:139] Memory required for data: 19881876
I0501 07:15:09.320695  4216 layer_factory.hpp:77] Creating layer loss
I0501 07:15:09.320703  4216 net.cpp:86] Creating Layer loss
I0501 07:15:09.320706  4216 net.cpp:408] loss <- ip3
I0501 07:15:09.320710  4216 net.cpp:408] loss <- label
I0501 07:15:09.320716  4216 net.cpp:382] loss -> loss
I0501 07:15:09.320737  4216 layer_factory.hpp:77] Creating layer loss
…
I0501 07:15:09.321485  4216 solver.cpp:173] Creating test net (#0) specified by net file: ECE595/cifar/train_test/var_everything/cifar_train_test_476.prototxt
I0501 07:15:09.321517  4216 net.cpp:296] The NetState phase (1) differed from the phase (0) specified by a rule in layer cifar
I0501 07:15:09.321631  4216 net.cpp:53] Initializing net from parameters: 
name: "CIFAR"
state {
  phase: TEST
}
layer {
  name: "cifar"
  type: "Data"
  top: "data"
  top: "label"
  include {
    phase: TEST
  }
  transform_param {
    mean_file: "examples/cifar10/mean.binaryproto"
  }
  data_param {
    source: "examples/cifar10/cifar10_test_lmdb"
    batch_size: 1000
    backend: LMDB
  }
}
layer {
  name: "conv0"
  type: "Convolution"
  bottom: "data"
  top: "conv0"
  param {
    lr_mult: 1
  }
  param {
    lr_mult: 2
  }
  convolution_param {
    num_output: 16
    pad: 2
    kernel_size: 3
    stride: 1
    weight_filler {
      type: "gaussian"
      std: 0.01
    }
    bias_filler {
      type: "constant"
    }
  }
}
layer {
  name: "Sigmoid0"
  type: "Sigmoid"
  bottom: "conv0"
  top: "Sigmoid0"
}
layer {
  name: "pool0"
  type: "Pooling"
  bottom: "Sigmoid0"
  top: "pool0"
  pooling_param {
    pool: AVE
    kernel_size: 3
    stride: 2
  }
}
layer {
  name: "ip1"
  type: "InnerProduct"
  bottom: "pool0"
  top: "ip1"
  param {
    lr_mult: 1
  }
  param {
    lr_mult: 2
  }
  inner_product_param {
    num_output: 20
    weight_filler {
      type: "gaussian"
      std: 0.01
    }
    bias_filler {
      type: "constant"
    }
  }
}
layer {
  name: "relu1"
  type: "ReLU"
  bottom: "ip1"
  top: "ip1"
}
layer {
  name: "ip2"
  type: "InnerProduct"
  bottom: "ip1"
  top: "ip2"
  param {
    lr_mult: 1
  }
  param {
    lr_mult: 2
  }
  inner_product_param {
    num_output: 20
    weight_filler {
      type: "gaussian"
      std: 0.01
    }
    bias_filler {
      type: "constant"
    }
  }
}
layer {
  name: "relu2"
  type: "ReLU"
  bottom: "ip2"
  top: "ip2"
}
layer {
  name: "ip3"
  type: "InnerProduct"
  bottom: "ip2"
  top: "ip3"
  param {
    lr_mult: 1
  }
  param {
    lr_mult: 2
  }
  inner_product_param {
    num_output: 10
    weight_filler {
      type: "gaussian"
      std: 0.01
    }
    bias_filler {
      type: "constant"
    }
  }
}
layer {
  name: "accuracy"
  type: "Accuracy"
  bottom: "ip3"
  bottom: "label"
  top: "accuracy"
  include {
    phase: TEST
  }
}
layer {
  name: "loss"
  type: "SoftmaxWithLoss"
  bottom: "ip3"
  bottom: "label"
  top: "loss"
}
I0501 07:15:09.321710  4216 layer_factory.hpp:77] Creating layer cifar
I0501 07:15:09.321766  4216 db_lmdb.cpp:35] Opened lmdb examples/cifar10/cifar10_test_lmdb
I0501 07:15:09.321781  4216 net.cpp:86] Creating Layer cifar
I0501 07:15:09.321789  4216 net.cpp:382] cifar -> data
I0501 07:15:09.321797  4216 net.cpp:382] cifar -> label
I0501 07:15:09.321805  4216 data_transformer.cpp:25] Loading mean file from: examples/cifar10/mean.binaryproto
I0501 07:15:09.321988  4216 data_layer.cpp:45] output data size: 1000,3,32,32
I0501 07:15:09.347513  4216 net.cpp:124] Setting up cifar
I0501 07:15:09.347543  4216 net.cpp:131] Top shape: 1000 3 32 32 (3072000)
I0501 07:15:09.347550  4216 net.cpp:131] Top shape: 1000 (1000)
I0501 07:15:09.347553  4216 net.cpp:139] Memory required for data: 12292000
I0501 07:15:09.347559  4216 layer_factory.hpp:77] Creating layer label_cifar_1_split
I0501 07:15:09.347579  4216 net.cpp:86] Creating Layer label_cifar_1_split
I0501 07:15:09.347602  4216 net.cpp:408] label_cifar_1_split <- label
I0501 07:15:09.347611  4216 net.cpp:382] label_cifar_1_split -> label_cifar_1_split_0
I0501 07:15:09.347621  4216 net.cpp:382] label_cifar_1_split -> label_cifar_1_split_1
I0501 07:15:09.347693  4216 net.cpp:124] Setting up label_cifar_1_split
I0501 07:15:09.347702  4216 net.cpp:131] Top shape: 1000 (1000)
I0501 07:15:09.347707  4216 net.cpp:131] Top shape: 1000 (1000)
I0501 07:15:09.347710  4216 net.cpp:139] Memory required for data: 12300000
I0501 07:15:09.347713  4216 layer_factory.hpp:77] Creating layer conv0
I0501 07:15:09.347728  4216 net.cpp:86] Creating Layer conv0
I0501 07:15:09.347733  4216 net.cpp:408] conv0 <- data
I0501 07:15:09.347739  4216 net.cpp:382] conv0 -> conv0
I0501 07:15:09.349632  4216 net.cpp:124] Setting up conv0
I0501 07:15:09.349649  4216 net.cpp:131] Top shape: 1000 16 34 34 (18496000)
I0501 07:15:09.349654  4216 net.cpp:139] Memory required for data: 86284000
I0501 07:15:09.349665  4216 layer_factory.hpp:77] Creating layer Sigmoid0
I0501 07:15:09.349673  4216 net.cpp:86] Creating Layer Sigmoid0
I0501 07:15:09.349678  4216 net.cpp:408] Sigmoid0 <- conv0
I0501 07:15:09.349683  4216 net.cpp:382] Sigmoid0 -> Sigmoid0
I0501 07:15:09.351624  4216 net.cpp:124] Setting up Sigmoid0
I0501 07:15:09.351639  4216 net.cpp:131] Top shape: 1000 16 34 34 (18496000)
I0501 07:15:09.351644  4216 net.cpp:139] Memory required for data: 160268000
I0501 07:15:09.351647  4216 layer_factory.hpp:77] Creating layer pool0
I0501 07:15:09.351657  4216 net.cpp:86] Creating Layer pool0
I0501 07:15:09.351661  4216 net.cpp:408] pool0 <- Sigmoid0
I0501 07:15:09.351668  4216 net.cpp:382] pool0 -> pool0
I0501 07:15:09.351872  4216 net.cpp:124] Setting up pool0
I0501 07:15:09.351884  4216 net.cpp:131] Top shape: 1000 16 17 17 (4624000)
I0501 07:15:09.351888  4216 net.cpp:139] Memory required for data: 178764000
I0501 07:15:09.351891  4216 layer_factory.hpp:77] Creating layer ip1
I0501 07:15:09.351902  4216 net.cpp:86] Creating Layer ip1
I0501 07:15:09.351905  4216 net.cpp:408] ip1 <- pool0
I0501 07:15:09.351912  4216 net.cpp:382] ip1 -> ip1
I0501 07:15:09.354845  4216 net.cpp:124] Setting up ip1
I0501 07:15:09.354854  4216 net.cpp:131] Top shape: 1000 20 (20000)
I0501 07:15:09.354857  4216 net.cpp:139] Memory required for data: 178844000
I0501 07:15:09.354867  4216 layer_factory.hpp:77] Creating layer relu1
I0501 07:15:09.354873  4216 net.cpp:86] Creating Layer relu1
I0501 07:15:09.354877  4216 net.cpp:408] relu1 <- ip1
I0501 07:15:09.354883  4216 net.cpp:369] relu1 -> ip1 (in-place)
I0501 07:15:09.355063  4216 net.cpp:124] Setting up relu1
I0501 07:15:09.355073  4216 net.cpp:131] Top shape: 1000 20 (20000)
I0501 07:15:09.355077  4216 net.cpp:139] Memory required for data: 178924000
I0501 07:15:09.355080  4216 layer_factory.hpp:77] Creating layer ip2
I0501 07:15:09.355093  4216 net.cpp:86] Creating Layer ip2
I0501 07:15:09.355095  4216 net.cpp:408] ip2 <- ip1
I0501 07:15:09.355103  4216 net.cpp:382] ip2 -> ip2
I0501 07:15:09.355233  4216 net.cpp:124] Setting up ip2
I0501 07:15:09.355242  4216 net.cpp:131] Top shape: 1000 20 (20000)
I0501 07:15:09.355245  4216 net.cpp:139] Memory required for data: 179004000
I0501 07:15:09.355253  4216 layer_factory.hpp:77] Creating layer relu2
I0501 07:15:09.355260  4216 net.cpp:86] Creating Layer relu2
I0501 07:15:09.355264  4216 net.cpp:408] relu2 <- ip2
I0501 07:15:09.355268  4216 net.cpp:369] relu2 -> ip2 (in-place)
I0501 07:15:09.355451  4216 net.cpp:124] Setting up relu2
I0501 07:15:09.355460  4216 net.cpp:131] Top shape: 1000 20 (20000)
I0501 07:15:09.355464  4216 net.cpp:139] Memory required for data: 179084000
I0501 07:15:09.355468  4216 layer_factory.hpp:77] Creating layer ip3
I0501 07:15:09.355474  4216 net.cpp:86] Creating Layer ip3
I0501 07:15:09.355479  4216 net.cpp:408] ip3 <- ip2
I0501 07:15:09.355485  4216 net.cpp:382] ip3 -> ip3
I0501 07:15:09.355607  4216 net.cpp:124] Setting up ip3
I0501 07:15:09.355617  4216 net.cpp:131] Top shape: 1000 10 (10000)
I0501 07:15:09.355630  4216 net.cpp:139] Memory required for data: 179124000
I0501 07:15:09.355638  4216 layer_factory.hpp:77] Creating layer ip3_ip3_0_split
I0501 07:15:09.355643  4216 net.cpp:86] Creating Layer ip3_ip3_0_split
I0501 07:15:09.355646  4216 net.cpp:408] ip3_ip3_0_split <- ip3
I0501 07:15:09.355654  4216 net.cpp:382] ip3_ip3_0_split -> ip3_ip3_0_split_0
I0501 07:15:09.355659  4216 net.cpp:382] ip3_ip3_0_split -> ip3_ip3_0_split_1
I0501 07:15:09.355695  4216 net.cpp:124] Setting up ip3_ip3_0_split
I0501 07:15:09.355700  4216 net.cpp:131] Top shape: 1000 10 (10000)
I0501 07:15:09.355705  4216 net.cpp:131] Top shape: 1000 10 (10000)
I0501 07:15:09.355707  4216 net.cpp:139] Memory required for data: 179204000
I0501 07:15:09.355711  4216 layer_factory.hpp:77] Creating layer accuracy
I0501 07:15:09.355718  4216 net.cpp:86] Creating Layer accuracy
I0501 07:15:09.355721  4216 net.cpp:408] accuracy <- ip3_ip3_0_split_0
I0501 07:15:09.355726  4216 net.cpp:408] accuracy <- label_cifar_1_split_0
I0501 07:15:09.355731  4216 net.cpp:382] accuracy -> accuracy
…
