…
I0501 01:27:35.830629 10680 net.cpp:296] The NetState phase (0) differed from the phase (1) specified by a rule in layer cifar
I0501 01:27:35.830649 10680 net.cpp:296] The NetState phase (0) differed from the phase (1) specified by a rule in layer accuracy
I0501 01:27:35.830757 10680 net.cpp:53] Initializing net from parameters: 
name: "CIFAR"
state {
  phase: TRAIN
  level: 0
  stage: ""
}
layer {
  name: "cifar"
  type: "Data"
  top: "data"
  top: "label"
  include {
    phase: TRAIN
  }
  transform_param {
    mean_file: "examples/cifar10/mean.binaryproto"
  }
  data_param {
    source: "examples/cifar10/cifar10_train_lmdb"
    batch_size: 111
    backend: LMDB
  }
}
layer {
  name: "conv0"
  type: "Convolution"
  bottom: "data"
  top: "conv0"
  param {
    lr_mult: 1
  }
  param {
    lr_mult: 2
  }
  convolution_param {
    num_output: 8
    pad: 2
    kernel_size: 3
    stride: 1
    weight_filler {
      type: "gaussian"
      std: 0.01
    }
    bias_filler {
      type: "constant"
    }
  }
}
layer {
  name: "Sigmoid0"
  type: "Sigmoid"
  bottom: "conv0"
  top: "Sigmoid0"
}
layer {
  name: "pool0"
  type: "Pooling"
  bottom: "Sigmoid0"
  top: "pool0"
  pooling_param {
    pool: AVE
    kernel_size: 3
    stride: 2
  }
}
layer {
  name: "ip1"
  type: "InnerProduct"
  bottom: "pool0"
  top: "ip1"
  param {
    lr_mult: 1
  }
  param {
    lr_mult: 2
  }
  inner_product_param {
    num_output: 160
    weight_filler {
      type: "gaussian"
      std: 0.01
    }
    bias_filler {
      type: "constant"
    }
  }
}
layer {
  name: "relu1"
  type: "ReLU"
  bottom: "ip1"
  top: "ip1"
}
layer {
  name: "ip2"
  type: "InnerProduct"
  bottom: "ip1"
  top: "ip2"
  param {
    lr_mult: 1
  }
  param {
    lr_mult: 2
  }
  inner_product_param {
    num_output: 20
    weight_filler {
      type: "gaussian"
      std: 0.01
    }
    bias_filler {
      type: "constant"
    }
  }
}
layer {
  name: "relu2"
  type: "ReLU"
  bottom: "ip2"
  top: "ip2"
}
layer {
  name: "ip3"
  type: "InnerProduct"
  bottom: "ip2"
  top: "ip3"
  param {
    lr_mult: 1
  }
  param {
    lr_mult: 2
  }
  inner_product_param {
    num_output: 10
    weight_filler {
      type: "gaussian"
      std: 0.01
    }
    bias_filler {
      type: "constant"
    }
  }
}
layer {
  name: "relu3"
  type: "ReLU"
  bottom: "ip3"
  top: "ip3"
}
layer {
  name: "ip4"
  type: "InnerProduct"
  bottom: "ip3"
  top: "ip4"
  param {
    lr_mult: 1
  }
  param {
    lr_mult: 2
  }
  inner_product_param {
    num_output: 10
    weight_filler {
      type: "gaussian"
      std: 0.01
    }
    bias_filler {
      type: "constant"
    }
  }
}
layer {
  name: "loss"
  type: "SoftmaxWithLoss"
  bottom: "ip4"
  bottom: "label"
  top: "loss"
}
I0501 01:27:35.830835 10680 layer_factory.hpp:77] Creating layer cifar
I0501 01:27:35.830935 10680 db_lmdb.cpp:35] Opened lmdb examples/cifar10/cifar10_train_lmdb
I0501 01:27:35.830963 10680 net.cpp:86] Creating Layer cifar
I0501 01:27:35.830971 10680 net.cpp:382] cifar -> data
I0501 01:27:35.830993 10680 net.cpp:382] cifar -> label
I0501 01:27:35.831004 10680 data_transformer.cpp:25] Loading mean file from: examples/cifar10/mean.binaryproto
I0501 01:27:35.833117 10680 data_layer.cpp:45] output data size: 111,3,32,32
I0501 01:27:35.840996 10680 net.cpp:124] Setting up cifar
I0501 01:27:35.841015 10680 net.cpp:131] Top shape: 111 3 32 32 (340992)
I0501 01:27:35.841022 10680 net.cpp:131] Top shape: 111 (111)
I0501 01:27:35.841025 10680 net.cpp:139] Memory required for data: 1364412
I0501 01:27:35.841049 10680 layer_factory.hpp:77] Creating layer conv0
I0501 01:27:35.841069 10680 net.cpp:86] Creating Layer conv0
I0501 01:27:35.841075 10680 net.cpp:408] conv0 <- data
I0501 01:27:35.841089 10680 net.cpp:382] conv0 -> conv0
I0501 01:27:36.133968 10680 net.cpp:124] Setting up conv0
I0501 01:27:36.134001 10680 net.cpp:131] Top shape: 111 8 34 34 (1026528)
I0501 01:27:36.134006 10680 net.cpp:139] Memory required for data: 5470524
I0501 01:27:36.134024 10680 layer_factory.hpp:77] Creating layer Sigmoid0
I0501 01:27:36.134038 10680 net.cpp:86] Creating Layer Sigmoid0
I0501 01:27:36.134043 10680 net.cpp:408] Sigmoid0 <- conv0
I0501 01:27:36.134049 10680 net.cpp:382] Sigmoid0 -> Sigmoid0
I0501 01:27:36.134265 10680 net.cpp:124] Setting up Sigmoid0
I0501 01:27:36.134277 10680 net.cpp:131] Top shape: 111 8 34 34 (1026528)
I0501 01:27:36.134281 10680 net.cpp:139] Memory required for data: 9576636
I0501 01:27:36.134285 10680 layer_factory.hpp:77] Creating layer pool0
I0501 01:27:36.134294 10680 net.cpp:86] Creating Layer pool0
I0501 01:27:36.134299 10680 net.cpp:408] pool0 <- Sigmoid0
I0501 01:27:36.134304 10680 net.cpp:382] pool0 -> pool0
I0501 01:27:36.135187 10680 net.cpp:124] Setting up pool0
I0501 01:27:36.135205 10680 net.cpp:131] Top shape: 111 8 17 17 (256632)
I0501 01:27:36.135208 10680 net.cpp:139] Memory required for data: 10603164
I0501 01:27:36.135212 10680 layer_factory.hpp:77] Creating layer ip1
I0501 01:27:36.135228 10680 net.cpp:86] Creating Layer ip1
I0501 01:27:36.135233 10680 net.cpp:408] ip1 <- pool0
I0501 01:27:36.135239 10680 net.cpp:382] ip1 -> ip1
I0501 01:27:36.148448 10680 net.cpp:124] Setting up ip1
I0501 01:27:36.148463 10680 net.cpp:131] Top shape: 111 160 (17760)
I0501 01:27:36.148468 10680 net.cpp:139] Memory required for data: 10674204
I0501 01:27:36.148478 10680 layer_factory.hpp:77] Creating layer relu1
I0501 01:27:36.148485 10680 net.cpp:86] Creating Layer relu1
I0501 01:27:36.148489 10680 net.cpp:408] relu1 <- ip1
I0501 01:27:36.148496 10680 net.cpp:369] relu1 -> ip1 (in-place)
I0501 01:27:36.148684 10680 net.cpp:124] Setting up relu1
I0501 01:27:36.148695 10680 net.cpp:131] Top shape: 111 160 (17760)
I0501 01:27:36.148699 10680 net.cpp:139] Memory required for data: 10745244
I0501 01:27:36.148703 10680 layer_factory.hpp:77] Creating layer ip2
I0501 01:27:36.148711 10680 net.cpp:86] Creating Layer ip2
I0501 01:27:36.148715 10680 net.cpp:408] ip2 <- ip1
I0501 01:27:36.148721 10680 net.cpp:382] ip2 -> ip2
I0501 01:27:36.148954 10680 net.cpp:124] Setting up ip2
I0501 01:27:36.148964 10680 net.cpp:131] Top shape: 111 20 (2220)
I0501 01:27:36.148967 10680 net.cpp:139] Memory required for data: 10754124
I0501 01:27:36.148977 10680 layer_factory.hpp:77] Creating layer relu2
I0501 01:27:36.148983 10680 net.cpp:86] Creating Layer relu2
I0501 01:27:36.148986 10680 net.cpp:408] relu2 <- ip2
I0501 01:27:36.148993 10680 net.cpp:369] relu2 -> ip2 (in-place)
I0501 01:27:36.149175 10680 net.cpp:124] Setting up relu2
I0501 01:27:36.149186 10680 net.cpp:131] Top shape: 111 20 (2220)
I0501 01:27:36.149190 10680 net.cpp:139] Memory required for data: 10763004
I0501 01:27:36.149194 10680 layer_factory.hpp:77] Creating layer ip3
I0501 01:27:36.149202 10680 net.cpp:86] Creating Layer ip3
I0501 01:27:36.149206 10680 net.cpp:408] ip3 <- ip2
I0501 01:27:36.149212 10680 net.cpp:382] ip3 -> ip3
I0501 01:27:36.149329 10680 net.cpp:124] Setting up ip3
I0501 01:27:36.149338 10680 net.cpp:131] Top shape: 111 10 (1110)
I0501 01:27:36.149341 10680 net.cpp:139] Memory required for data: 10767444
I0501 01:27:36.149348 10680 layer_factory.hpp:77] Creating layer relu3
I0501 01:27:36.149353 10680 net.cpp:86] Creating Layer relu3
I0501 01:27:36.149358 10680 net.cpp:408] relu3 <- ip3
I0501 01:27:36.149363 10680 net.cpp:369] relu3 -> ip3 (in-place)
I0501 01:27:36.149534 10680 net.cpp:124] Setting up relu3
I0501 01:27:36.149544 10680 net.cpp:131] Top shape: 111 10 (1110)
I0501 01:27:36.149549 10680 net.cpp:139] Memory required for data: 10771884
I0501 01:27:36.149552 10680 layer_factory.hpp:77] Creating layer ip4
I0501 01:27:36.149579 10680 net.cpp:86] Creating Layer ip4
I0501 01:27:36.149582 10680 net.cpp:408] ip4 <- ip3
I0501 01:27:36.149588 10680 net.cpp:382] ip4 -> ip4
I0501 01:27:36.149704 10680 net.cpp:124] Setting up ip4
I0501 01:27:36.149713 10680 net.cpp:131] Top shape: 111 10 (1110)
I0501 01:27:36.149718 10680 net.cpp:139] Memory required for data: 10776324
I0501 01:27:36.149726 10680 layer_factory.hpp:77] Creating layer loss
I0501 01:27:36.149734 10680 net.cpp:86] Creating Layer loss
I0501 01:27:36.149736 10680 net.cpp:408] loss <- ip4
I0501 01:27:36.149741 10680 net.cpp:408] loss <- label
I0501 01:27:36.149747 10680 net.cpp:382] loss -> loss
I0501 01:27:36.149767 10680 layer_factory.hpp:77] Creating layer loss
…
I0501 01:27:36.151202 10680 solver.cpp:173] Creating test net (#0) specified by net file: ECE595/cifar/train_test/var_everything/cifar_train_test_290.prototxt
I0501 01:27:36.151234 10680 net.cpp:296] The NetState phase (1) differed from the phase (0) specified by a rule in layer cifar
I0501 01:27:36.151345 10680 net.cpp:53] Initializing net from parameters: 
name: "CIFAR"
state {
  phase: TEST
}
layer {
  name: "cifar"
  type: "Data"
  top: "data"
  top: "label"
  include {
    phase: TEST
  }
  transform_param {
    mean_file: "examples/cifar10/mean.binaryproto"
  }
  data_param {
    source: "examples/cifar10/cifar10_test_lmdb"
    batch_size: 1000
    backend: LMDB
  }
}
layer {
  name: "conv0"
  type: "Convolution"
  bottom: "data"
  top: "conv0"
  param {
    lr_mult: 1
  }
  param {
    lr_mult: 2
  }
  convolution_param {
    num_output: 8
    pad: 2
    kernel_size: 3
    stride: 1
    weight_filler {
      type: "gaussian"
      std: 0.01
    }
    bias_filler {
      type: "constant"
    }
  }
}
layer {
  name: "Sigmoid0"
  type: "Sigmoid"
  bottom: "conv0"
  top: "Sigmoid0"
}
layer {
  name: "pool0"
  type: "Pooling"
  bottom: "Sigmoid0"
  top: "pool0"
  pooling_param {
    pool: AVE
    kernel_size: 3
    stride: 2
  }
}
layer {
  name: "ip1"
  type: "InnerProduct"
  bottom: "pool0"
  top: "ip1"
  param {
    lr_mult: 1
  }
  param {
    lr_mult: 2
  }
  inner_product_param {
    num_output: 160
    weight_filler {
      type: "gaussian"
      std: 0.01
    }
    bias_filler {
      type: "constant"
    }
  }
}
layer {
  name: "relu1"
  type: "ReLU"
  bottom: "ip1"
  top: "ip1"
}
layer {
  name: "ip2"
  type: "InnerProduct"
  bottom: "ip1"
  top: "ip2"
  param {
    lr_mult: 1
  }
  param {
    lr_mult: 2
  }
  inner_product_param {
    num_output: 20
    weight_filler {
      type: "gaussian"
      std: 0.01
    }
    bias_filler {
      type: "constant"
    }
  }
}
layer {
  name: "relu2"
  type: "ReLU"
  bottom: "ip2"
  top: "ip2"
}
layer {
  name: "ip3"
  type: "InnerProduct"
  bottom: "ip2"
  top: "ip3"
  param {
    lr_mult: 1
  }
  param {
    lr_mult: 2
  }
  inner_product_param {
    num_output: 10
    weight_filler {
      type: "gaussian"
      std: 0.01
    }
    bias_filler {
      type: "constant"
    }
  }
}
layer {
  name: "relu3"
  type: "ReLU"
  bottom: "ip3"
  top: "ip3"
}
layer {
  name: "ip4"
  type: "InnerProduct"
  bottom: "ip3"
  top: "ip4"
  param {
    lr_mult: 1
  }
  param {
    lr_mult: 2
  }
  inner_product_param {
    num_output: 10
    weight_filler {
      type: "gaussian"
      std: 0.01
    }
    bias_filler {
      type: "constant"
    }
  }
}
layer {
  name: "accuracy"
  type: "Accuracy"
  bottom: "ip4"
  bottom: "label"
  top: "accuracy"
  include {
    phase: TEST
  }
}
layer {
  name: "loss"
  type: "SoftmaxWithLoss"
  bottom: "ip4"
  bottom: "label"
  top: "loss"
}
I0501 01:27:36.151443 10680 layer_factory.hpp:77] Creating layer cifar
I0501 01:27:36.151497 10680 db_lmdb.cpp:35] Opened lmdb examples/cifar10/cifar10_test_lmdb
I0501 01:27:36.151511 10680 net.cpp:86] Creating Layer cifar
I0501 01:27:36.151516 10680 net.cpp:382] cifar -> data
I0501 01:27:36.151525 10680 net.cpp:382] cifar -> label
I0501 01:27:36.151533 10680 data_transformer.cpp:25] Loading mean file from: examples/cifar10/mean.binaryproto
I0501 01:27:36.151706 10680 data_layer.cpp:45] output data size: 1000,3,32,32
I0501 01:27:36.178483 10680 net.cpp:124] Setting up cifar
I0501 01:27:36.178513 10680 net.cpp:131] Top shape: 1000 3 32 32 (3072000)
I0501 01:27:36.178520 10680 net.cpp:131] Top shape: 1000 (1000)
I0501 01:27:36.178524 10680 net.cpp:139] Memory required for data: 12292000
I0501 01:27:36.178531 10680 layer_factory.hpp:77] Creating layer label_cifar_1_split
I0501 01:27:36.178550 10680 net.cpp:86] Creating Layer label_cifar_1_split
I0501 01:27:36.178555 10680 net.cpp:408] label_cifar_1_split <- label
I0501 01:27:36.178562 10680 net.cpp:382] label_cifar_1_split -> label_cifar_1_split_0
I0501 01:27:36.178572 10680 net.cpp:382] label_cifar_1_split -> label_cifar_1_split_1
I0501 01:27:36.178705 10680 net.cpp:124] Setting up label_cifar_1_split
I0501 01:27:36.178715 10680 net.cpp:131] Top shape: 1000 (1000)
I0501 01:27:36.178719 10680 net.cpp:131] Top shape: 1000 (1000)
I0501 01:27:36.178724 10680 net.cpp:139] Memory required for data: 12300000
I0501 01:27:36.178727 10680 layer_factory.hpp:77] Creating layer conv0
I0501 01:27:36.178741 10680 net.cpp:86] Creating Layer conv0
I0501 01:27:36.178745 10680 net.cpp:408] conv0 <- data
I0501 01:27:36.178752 10680 net.cpp:382] conv0 -> conv0
I0501 01:27:36.181486 10680 net.cpp:124] Setting up conv0
I0501 01:27:36.181505 10680 net.cpp:131] Top shape: 1000 8 34 34 (9248000)
I0501 01:27:36.181509 10680 net.cpp:139] Memory required for data: 49292000
I0501 01:27:36.181521 10680 layer_factory.hpp:77] Creating layer Sigmoid0
I0501 01:27:36.181529 10680 net.cpp:86] Creating Layer Sigmoid0
I0501 01:27:36.181535 10680 net.cpp:408] Sigmoid0 <- conv0
I0501 01:27:36.181540 10680 net.cpp:382] Sigmoid0 -> Sigmoid0
I0501 01:27:36.181785 10680 net.cpp:124] Setting up Sigmoid0
I0501 01:27:36.181797 10680 net.cpp:131] Top shape: 1000 8 34 34 (9248000)
I0501 01:27:36.181802 10680 net.cpp:139] Memory required for data: 86284000
I0501 01:27:36.181805 10680 layer_factory.hpp:77] Creating layer pool0
I0501 01:27:36.181814 10680 net.cpp:86] Creating Layer pool0
I0501 01:27:36.181818 10680 net.cpp:408] pool0 <- Sigmoid0
I0501 01:27:36.181825 10680 net.cpp:382] pool0 -> pool0
I0501 01:27:36.182032 10680 net.cpp:124] Setting up pool0
I0501 01:27:36.182044 10680 net.cpp:131] Top shape: 1000 8 17 17 (2312000)
I0501 01:27:36.182047 10680 net.cpp:139] Memory required for data: 95532000
I0501 01:27:36.182050 10680 layer_factory.hpp:77] Creating layer ip1
I0501 01:27:36.182060 10680 net.cpp:86] Creating Layer ip1
I0501 01:27:36.182065 10680 net.cpp:408] ip1 <- pool0
I0501 01:27:36.182070 10680 net.cpp:382] ip1 -> ip1
I0501 01:27:36.195308 10680 net.cpp:124] Setting up ip1
I0501 01:27:36.195325 10680 net.cpp:131] Top shape: 1000 160 (160000)
I0501 01:27:36.195329 10680 net.cpp:139] Memory required for data: 96172000
I0501 01:27:36.195356 10680 layer_factory.hpp:77] Creating layer relu1
I0501 01:27:36.195368 10680 net.cpp:86] Creating Layer relu1
I0501 01:27:36.195371 10680 net.cpp:408] relu1 <- ip1
I0501 01:27:36.195376 10680 net.cpp:369] relu1 -> ip1 (in-place)
I0501 01:27:36.195592 10680 net.cpp:124] Setting up relu1
I0501 01:27:36.195605 10680 net.cpp:131] Top shape: 1000 160 (160000)
I0501 01:27:36.195608 10680 net.cpp:139] Memory required for data: 96812000
I0501 01:27:36.195612 10680 layer_factory.hpp:77] Creating layer ip2
I0501 01:27:36.195621 10680 net.cpp:86] Creating Layer ip2
I0501 01:27:36.195626 10680 net.cpp:408] ip2 <- ip1
I0501 01:27:36.195631 10680 net.cpp:382] ip2 -> ip2
I0501 01:27:36.195874 10680 net.cpp:124] Setting up ip2
I0501 01:27:36.195883 10680 net.cpp:131] Top shape: 1000 20 (20000)
I0501 01:27:36.195888 10680 net.cpp:139] Memory required for data: 96892000
I0501 01:27:36.195896 10680 layer_factory.hpp:77] Creating layer relu2
I0501 01:27:36.195904 10680 net.cpp:86] Creating Layer relu2
I0501 01:27:36.195909 10680 net.cpp:408] relu2 <- ip2
I0501 01:27:36.195914 10680 net.cpp:369] relu2 -> ip2 (in-place)
I0501 01:27:36.196805 10680 net.cpp:124] Setting up relu2
I0501 01:27:36.196827 10680 net.cpp:131] Top shape: 1000 20 (20000)
I0501 01:27:36.196831 10680 net.cpp:139] Memory required for data: 96972000
I0501 01:27:36.196835 10680 layer_factory.hpp:77] Creating layer ip3
I0501 01:27:36.196843 10680 net.cpp:86] Creating Layer ip3
I0501 01:27:36.196847 10680 net.cpp:408] ip3 <- ip2
I0501 01:27:36.196856 10680 net.cpp:382] ip3 -> ip3
I0501 01:27:36.197002 10680 net.cpp:124] Setting up ip3
I0501 01:27:36.197012 10680 net.cpp:131] Top shape: 1000 10 (10000)
I0501 01:27:36.197016 10680 net.cpp:139] Memory required for data: 97012000
I0501 01:27:36.197023 10680 layer_factory.hpp:77] Creating layer relu3
I0501 01:27:36.197031 10680 net.cpp:86] Creating Layer relu3
I0501 01:27:36.197034 10680 net.cpp:408] relu3 <- ip3
I0501 01:27:36.197041 10680 net.cpp:369] relu3 -> ip3 (in-place)
I0501 01:27:36.197235 10680 net.cpp:124] Setting up relu3
I0501 01:27:36.197247 10680 net.cpp:131] Top shape: 1000 10 (10000)
I0501 01:27:36.197250 10680 net.cpp:139] Memory required for data: 97052000
I0501 01:27:36.197254 10680 layer_factory.hpp:77] Creating layer ip4
I0501 01:27:36.197263 10680 net.cpp:86] Creating Layer ip4
I0501 01:27:36.197266 10680 net.cpp:408] ip4 <- ip3
I0501 01:27:36.197273 10680 net.cpp:382] ip4 -> ip4
I0501 01:27:36.197403 10680 net.cpp:124] Setting up ip4
I0501 01:27:36.197412 10680 net.cpp:131] Top shape: 1000 10 (10000)
I0501 01:27:36.197415 10680 net.cpp:139] Memory required for data: 97092000
I0501 01:27:36.197425 10680 layer_factory.hpp:77] Creating layer ip4_ip4_0_split
I0501 01:27:36.197432 10680 net.cpp:86] Creating Layer ip4_ip4_0_split
I0501 01:27:36.197435 10680 net.cpp:408] ip4_ip4_0_split <- ip4
I0501 01:27:36.197441 10680 net.cpp:382] ip4_ip4_0_split -> ip4_ip4_0_split_0
I0501 01:27:36.197448 10680 net.cpp:382] ip4_ip4_0_split -> ip4_ip4_0_split_1
I0501 01:27:36.197487 10680 net.cpp:124] Setting up ip4_ip4_0_split
I0501 01:27:36.197496 10680 net.cpp:131] Top shape: 1000 10 (10000)
I0501 01:27:36.197501 10680 net.cpp:131] Top shape: 1000 10 (10000)
I0501 01:27:36.197504 10680 net.cpp:139] Memory required for data: 97172000
I0501 01:27:36.197509 10680 layer_factory.hpp:77] Creating layer accuracy
I0501 01:27:36.197516 10680 net.cpp:86] Creating Layer accuracy
I0501 01:27:36.197520 10680 net.cpp:408] accuracy <- ip4_ip4_0_split_0
I0501 01:27:36.197525 10680 net.cpp:408] accuracy <- label_cifar_1_split_0
I0501 01:27:36.197531 10680 net.cpp:382] accuracy -> accuracy
…
