…
I0430 17:00:59.118557 18658 net.cpp:296] The NetState phase (0) differed from the phase (1) specified by a rule in layer cifar
I0430 17:00:59.118569 18658 net.cpp:296] The NetState phase (0) differed from the phase (1) specified by a rule in layer accuracy
I0430 17:00:59.118639 18658 net.cpp:53] Initializing net from parameters: 
name: "CIFAR"
state {
  phase: TRAIN
  level: 0
  stage: ""
}
layer {
  name: "cifar"
  type: "Data"
  top: "data"
  top: "label"
  include {
    phase: TRAIN
  }
  transform_param {
    mean_file: "examples/cifar10/mean.binaryproto"
  }
  data_param {
    source: "examples/cifar10/cifar10_train_lmdb"
    batch_size: 111
    backend: LMDB
  }
}
layer {
  name: "ip1"
  type: "InnerProduct"
  bottom: "data"
  top: "ip1"
  param {
    lr_mult: 1
  }
  param {
    lr_mult: 2
  }
  inner_product_param {
    num_output: 80
    weight_filler {
      type: "gaussian"
      std: 0.01
    }
    bias_filler {
      type: "constant"
    }
  }
}
layer {
  name: "relu1"
  type: "ReLU"
  bottom: "ip1"
  top: "ip1"
}
layer {
  name: "ip2"
  type: "InnerProduct"
  bottom: "ip1"
  top: "ip2"
  param {
    lr_mult: 1
  }
  param {
    lr_mult: 2
  }
  inner_product_param {
    num_output: 20
    weight_filler {
      type: "gaussian"
      std: 0.01
    }
    bias_filler {
      type: "constant"
    }
  }
}
layer {
  name: "relu2"
  type: "ReLU"
  bottom: "ip2"
  top: "ip2"
}
layer {
  name: "ip3"
  type: "InnerProduct"
  bottom: "ip2"
  top: "ip3"
  param {
    lr_mult: 1
  }
  param {
    lr_mult: 2
  }
  inner_product_param {
    num_output: 10
    weight_filler {
      type: "gaussian"
      std: 0.01
    }
    bias_filler {
      type: "constant"
    }
  }
}
layer {
  name: "loss"
  type: "SoftmaxWithLoss"
  bottom: "ip3"
  bottom: "label"
  top: "loss"
}
I0430 17:00:59.118688 18658 layer_factory.hpp:77] Creating layer cifar
I0430 17:00:59.118769 18658 db_lmdb.cpp:35] Opened lmdb examples/cifar10/cifar10_train_lmdb
I0430 17:00:59.118791 18658 net.cpp:86] Creating Layer cifar
I0430 17:00:59.118798 18658 net.cpp:382] cifar -> data
I0430 17:00:59.118816 18658 net.cpp:382] cifar -> label
I0430 17:00:59.118825 18658 data_transformer.cpp:25] Loading mean file from: examples/cifar10/mean.binaryproto
I0430 17:00:59.120652 18658 data_layer.cpp:45] output data size: 111,3,32,32
I0430 17:00:59.127313 18658 net.cpp:124] Setting up cifar
I0430 17:00:59.127346 18658 net.cpp:131] Top shape: 111 3 32 32 (340992)
I0430 17:00:59.127351 18658 net.cpp:131] Top shape: 111 (111)
I0430 17:00:59.127354 18658 net.cpp:139] Memory required for data: 1364412
I0430 17:00:59.127360 18658 layer_factory.hpp:77] Creating layer ip1
I0430 17:00:59.127385 18658 net.cpp:86] Creating Layer ip1
I0430 17:00:59.127390 18658 net.cpp:408] ip1 <- data
I0430 17:00:59.127400 18658 net.cpp:382] ip1 -> ip1
I0430 17:00:59.134657 18658 net.cpp:124] Setting up ip1
I0430 17:00:59.134686 18658 net.cpp:131] Top shape: 111 80 (8880)
I0430 17:00:59.134690 18658 net.cpp:139] Memory required for data: 1399932
I0430 17:00:59.134701 18658 layer_factory.hpp:77] Creating layer relu1
I0430 17:00:59.134709 18658 net.cpp:86] Creating Layer relu1
I0430 17:00:59.134728 18658 net.cpp:408] relu1 <- ip1
I0430 17:00:59.134733 18658 net.cpp:369] relu1 -> ip1 (in-place)
I0430 17:00:59.363121 18658 net.cpp:124] Setting up relu1
I0430 17:00:59.363165 18658 net.cpp:131] Top shape: 111 80 (8880)
I0430 17:00:59.363169 18658 net.cpp:139] Memory required for data: 1435452
I0430 17:00:59.363204 18658 layer_factory.hpp:77] Creating layer ip2
I0430 17:00:59.363232 18658 net.cpp:86] Creating Layer ip2
I0430 17:00:59.363236 18658 net.cpp:408] ip2 <- ip1
I0430 17:00:59.363245 18658 net.cpp:382] ip2 -> ip2
I0430 17:00:59.363404 18658 net.cpp:124] Setting up ip2
I0430 17:00:59.363412 18658 net.cpp:131] Top shape: 111 20 (2220)
I0430 17:00:59.363415 18658 net.cpp:139] Memory required for data: 1444332
I0430 17:00:59.363425 18658 layer_factory.hpp:77] Creating layer relu2
I0430 17:00:59.363432 18658 net.cpp:86] Creating Layer relu2
I0430 17:00:59.363435 18658 net.cpp:408] relu2 <- ip2
I0430 17:00:59.363440 18658 net.cpp:369] relu2 -> ip2 (in-place)
I0430 17:00:59.364269 18658 net.cpp:124] Setting up relu2
I0430 17:00:59.364280 18658 net.cpp:131] Top shape: 111 20 (2220)
I0430 17:00:59.364300 18658 net.cpp:139] Memory required for data: 1453212
I0430 17:00:59.364302 18658 layer_factory.hpp:77] Creating layer ip3
I0430 17:00:59.364310 18658 net.cpp:86] Creating Layer ip3
I0430 17:00:59.364312 18658 net.cpp:408] ip3 <- ip2
I0430 17:00:59.364317 18658 net.cpp:382] ip3 -> ip3
I0430 17:00:59.364430 18658 net.cpp:124] Setting up ip3
I0430 17:00:59.364439 18658 net.cpp:131] Top shape: 111 10 (1110)
I0430 17:00:59.364441 18658 net.cpp:139] Memory required for data: 1457652
I0430 17:00:59.364449 18658 layer_factory.hpp:77] Creating layer loss
I0430 17:00:59.364454 18658 net.cpp:86] Creating Layer loss
I0430 17:00:59.364457 18658 net.cpp:408] loss <- ip3
I0430 17:00:59.364461 18658 net.cpp:408] loss <- label
I0430 17:00:59.364466 18658 net.cpp:382] loss -> loss
I0430 17:00:59.364480 18658 layer_factory.hpp:77] Creating layer loss
…
I0430 17:00:59.365023 18658 solver.cpp:173] Creating test net (#0) specified by net file: ECE595/cifar/train_test/var_everything/cifar_train_test_21.prototxt
I0430 17:00:59.365061 18658 net.cpp:296] The NetState phase (1) differed from the phase (0) specified by a rule in layer cifar
I0430 17:00:59.365154 18658 net.cpp:53] Initializing net from parameters: 
name: "CIFAR"
state {
  phase: TEST
}
layer {
  name: "cifar"
  type: "Data"
  top: "data"
  top: "label"
  include {
    phase: TEST
  }
  transform_param {
    mean_file: "examples/cifar10/mean.binaryproto"
  }
  data_param {
    source: "examples/cifar10/cifar10_test_lmdb"
    batch_size: 1000
    backend: LMDB
  }
}
layer {
  name: "ip1"
  type: "InnerProduct"
  bottom: "data"
  top: "ip1"
  param {
    lr_mult: 1
  }
  param {
    lr_mult: 2
  }
  inner_product_param {
    num_output: 80
    weight_filler {
      type: "gaussian"
      std: 0.01
    }
    bias_filler {
      type: "constant"
    }
  }
}
layer {
  name: "relu1"
  type: "ReLU"
  bottom: "ip1"
  top: "ip1"
}
layer {
  name: "ip2"
  type: "InnerProduct"
  bottom: "ip1"
  top: "ip2"
  param {
    lr_mult: 1
  }
  param {
    lr_mult: 2
  }
  inner_product_param {
    num_output: 20
    weight_filler {
      type: "gaussian"
      std: 0.01
    }
    bias_filler {
      type: "constant"
    }
  }
}
layer {
  name: "relu2"
  type: "ReLU"
  bottom: "ip2"
  top: "ip2"
}
layer {
  name: "ip3"
  type: "InnerProduct"
  bottom: "ip2"
  top: "ip3"
  param {
    lr_mult: 1
  }
  param {
    lr_mult: 2
  }
  inner_product_param {
    num_output: 10
    weight_filler {
      type: "gaussian"
      std: 0.01
    }
    bias_filler {
      type: "constant"
    }
  }
}
layer {
  name: "accuracy"
  type: "Accuracy"
  bottom: "ip3"
  bottom: "label"
  top: "accuracy"
  include {
    phase: TEST
  }
}
layer {
  name: "loss"
  type: "SoftmaxWithLoss"
  bottom: "ip3"
  bottom: "label"
  top: "loss"
}
I0430 17:00:59.365239 18658 layer_factory.hpp:77] Creating layer cifar
I0430 17:00:59.365288 18658 db_lmdb.cpp:35] Opened lmdb examples/cifar10/cifar10_test_lmdb
I0430 17:00:59.365300 18658 net.cpp:86] Creating Layer cifar
I0430 17:00:59.365305 18658 net.cpp:382] cifar -> data
I0430 17:00:59.365314 18658 net.cpp:382] cifar -> label
I0430 17:00:59.365320 18658 data_transformer.cpp:25] Loading mean file from: examples/cifar10/mean.binaryproto
I0430 17:00:59.365491 18658 data_layer.cpp:45] output data size: 1000,3,32,32
I0430 17:00:59.388033 18658 net.cpp:124] Setting up cifar
I0430 17:00:59.388077 18658 net.cpp:131] Top shape: 1000 3 32 32 (3072000)
I0430 17:00:59.388082 18658 net.cpp:131] Top shape: 1000 (1000)
I0430 17:00:59.388085 18658 net.cpp:139] Memory required for data: 12292000
I0430 17:00:59.388093 18658 layer_factory.hpp:77] Creating layer label_cifar_1_split
I0430 17:00:59.388110 18658 net.cpp:86] Creating Layer label_cifar_1_split
I0430 17:00:59.388114 18658 net.cpp:408] label_cifar_1_split <- label
I0430 17:00:59.388136 18658 net.cpp:382] label_cifar_1_split -> label_cifar_1_split_0
I0430 17:00:59.388144 18658 net.cpp:382] label_cifar_1_split -> label_cifar_1_split_1
I0430 17:00:59.388224 18658 net.cpp:124] Setting up label_cifar_1_split
I0430 17:00:59.388232 18658 net.cpp:131] Top shape: 1000 (1000)
I0430 17:00:59.388236 18658 net.cpp:131] Top shape: 1000 (1000)
I0430 17:00:59.388239 18658 net.cpp:139] Memory required for data: 12300000
I0430 17:00:59.388242 18658 layer_factory.hpp:77] Creating layer ip1
I0430 17:00:59.388250 18658 net.cpp:86] Creating Layer ip1
I0430 17:00:59.388253 18658 net.cpp:408] ip1 <- data
I0430 17:00:59.388258 18658 net.cpp:382] ip1 -> ip1
I0430 17:00:59.395102 18658 net.cpp:124] Setting up ip1
I0430 17:00:59.395113 18658 net.cpp:131] Top shape: 1000 80 (80000)
I0430 17:00:59.395133 18658 net.cpp:139] Memory required for data: 12620000
I0430 17:00:59.395143 18658 layer_factory.hpp:77] Creating layer relu1
I0430 17:00:59.395150 18658 net.cpp:86] Creating Layer relu1
I0430 17:00:59.395153 18658 net.cpp:408] relu1 <- ip1
I0430 17:00:59.395157 18658 net.cpp:369] relu1 -> ip1 (in-place)
I0430 17:00:59.395354 18658 net.cpp:124] Setting up relu1
I0430 17:00:59.395364 18658 net.cpp:131] Top shape: 1000 80 (80000)
I0430 17:00:59.395367 18658 net.cpp:139] Memory required for data: 12940000
I0430 17:00:59.395371 18658 layer_factory.hpp:77] Creating layer ip2
I0430 17:00:59.395378 18658 net.cpp:86] Creating Layer ip2
I0430 17:00:59.395381 18658 net.cpp:408] ip2 <- ip1
I0430 17:00:59.395387 18658 net.cpp:382] ip2 -> ip2
I0430 17:00:59.395529 18658 net.cpp:124] Setting up ip2
I0430 17:00:59.395552 18658 net.cpp:131] Top shape: 1000 20 (20000)
I0430 17:00:59.395556 18658 net.cpp:139] Memory required for data: 13020000
I0430 17:00:59.395563 18658 layer_factory.hpp:77] Creating layer relu2
I0430 17:00:59.395568 18658 net.cpp:86] Creating Layer relu2
I0430 17:00:59.395571 18658 net.cpp:408] relu2 <- ip2
I0430 17:00:59.395576 18658 net.cpp:369] relu2 -> ip2 (in-place)
I0430 17:00:59.396358 18658 net.cpp:124] Setting up relu2
I0430 17:00:59.396370 18658 net.cpp:131] Top shape: 1000 20 (20000)
I0430 17:00:59.396389 18658 net.cpp:139] Memory required for data: 13100000
I0430 17:00:59.396392 18658 layer_factory.hpp:77] Creating layer ip3
I0430 17:00:59.396400 18658 net.cpp:86] Creating Layer ip3
I0430 17:00:59.396404 18658 net.cpp:408] ip3 <- ip2
I0430 17:00:59.396409 18658 net.cpp:382] ip3 -> ip3
I0430 17:00:59.396534 18658 net.cpp:124] Setting up ip3
I0430 17:00:59.396543 18658 net.cpp:131] Top shape: 1000 10 (10000)
I0430 17:00:59.396545 18658 net.cpp:139] Memory required for data: 13140000
I0430 17:00:59.396567 18658 layer_factory.hpp:77] Creating layer ip3_ip3_0_split
I0430 17:00:59.396574 18658 net.cpp:86] Creating Layer ip3_ip3_0_split
I0430 17:00:59.396576 18658 net.cpp:408] ip3_ip3_0_split <- ip3
I0430 17:00:59.396580 18658 net.cpp:382] ip3_ip3_0_split -> ip3_ip3_0_split_0
I0430 17:00:59.396586 18658 net.cpp:382] ip3_ip3_0_split -> ip3_ip3_0_split_1
I0430 17:00:59.396620 18658 net.cpp:124] Setting up ip3_ip3_0_split
I0430 17:00:59.396625 18658 net.cpp:131] Top shape: 1000 10 (10000)
I0430 17:00:59.396643 18658 net.cpp:131] Top shape: 1000 10 (10000)
I0430 17:00:59.396646 18658 net.cpp:139] Memory required for data: 13220000
I0430 17:00:59.396649 18658 layer_factory.hpp:77] Creating layer accuracy
I0430 17:00:59.396662 18658 net.cpp:86] Creating Layer accuracy
I0430 17:00:59.396666 18658 net.cpp:408] accuracy <- ip3_ip3_0_split_0
I0430 17:00:59.396669 18658 net.cpp:408] accuracy <- label_cifar_1_split_0
I0430 17:00:59.396674 18658 net.cpp:382] accuracy -> accuracy
…
