…
I0501 01:06:56.420075  9239 net.cpp:296] The NetState phase (0) differed from the phase (1) specified by a rule in layer cifar
I0501 01:06:56.420114  9239 net.cpp:296] The NetState phase (0) differed from the phase (1) specified by a rule in layer accuracy
I0501 01:06:56.420231  9239 net.cpp:53] Initializing net from parameters: 
name: "CIFAR"
state {
  phase: TRAIN
  level: 0
  stage: ""
}
layer {
  name: "cifar"
  type: "Data"
  top: "data"
  top: "label"
  include {
    phase: TRAIN
  }
  transform_param {
    mean_file: "examples/cifar10/mean.binaryproto"
  }
  data_param {
    source: "examples/cifar10/cifar10_train_lmdb"
    batch_size: 111
    backend: LMDB
  }
}
layer {
  name: "conv0"
  type: "Convolution"
  bottom: "data"
  top: "conv0"
  param {
    lr_mult: 1
  }
  param {
    lr_mult: 2
  }
  convolution_param {
    num_output: 8
    pad: 2
    kernel_size: 3
    stride: 1
    weight_filler {
      type: "gaussian"
      std: 0.01
    }
    bias_filler {
      type: "constant"
    }
  }
}
layer {
  name: "Sigmoid0"
  type: "Sigmoid"
  bottom: "conv0"
  top: "Sigmoid0"
}
layer {
  name: "pool0"
  type: "Pooling"
  bottom: "Sigmoid0"
  top: "pool0"
  pooling_param {
    pool: AVE
    kernel_size: 3
    stride: 2
  }
}
layer {
  name: "ip1"
  type: "InnerProduct"
  bottom: "pool0"
  top: "ip1"
  param {
    lr_mult: 1
  }
  param {
    lr_mult: 2
  }
  inner_product_param {
    num_output: 80
    weight_filler {
      type: "gaussian"
      std: 0.01
    }
    bias_filler {
      type: "constant"
    }
  }
}
layer {
  name: "relu1"
  type: "ReLU"
  bottom: "ip1"
  top: "ip1"
}
layer {
  name: "ip2"
  type: "InnerProduct"
  bottom: "ip1"
  top: "ip2"
  param {
    lr_mult: 1
  }
  param {
    lr_mult: 2
  }
  inner_product_param {
    num_output: 80
    weight_filler {
      type: "gaussian"
      std: 0.01
    }
    bias_filler {
      type: "constant"
    }
  }
}
layer {
  name: "relu2"
  type: "ReLU"
  bottom: "ip2"
  top: "ip2"
}
layer {
  name: "ip3"
  type: "InnerProduct"
  bottom: "ip2"
  top: "ip3"
  param {
    lr_mult: 1
  }
  param {
    lr_mult: 2
  }
  inner_product_param {
    num_output: 160
    weight_filler {
      type: "gaussian"
      std: 0.01
    }
    bias_filler {
      type: "constant"
    }
  }
}
layer {
  name: "relu3"
  type: "ReLU"
  bottom: "ip3"
  top: "ip3"
}
layer {
  name: "ip4"
  type: "InnerProduct"
  bottom: "ip3"
  top: "ip4"
  param {
    lr_mult: 1
  }
  param {
    lr_mult: 2
  }
  inner_product_param {
    num_output: 10
    weight_filler {
      type: "gaussian"
      std: 0.01
    }
    bias_filler {
      type: "constant"
    }
  }
}
layer {
  name: "loss"
  type: "SoftmaxWithLoss"
  bottom: "ip4"
  bottom: "label"
  top: "loss"
}
I0501 01:06:56.420321  9239 layer_factory.hpp:77] Creating layer cifar
I0501 01:06:56.420419  9239 db_lmdb.cpp:35] Opened lmdb examples/cifar10/cifar10_train_lmdb
I0501 01:06:56.420447  9239 net.cpp:86] Creating Layer cifar
I0501 01:06:56.420455  9239 net.cpp:382] cifar -> data
I0501 01:06:56.420476  9239 net.cpp:382] cifar -> label
I0501 01:06:56.420490  9239 data_transformer.cpp:25] Loading mean file from: examples/cifar10/mean.binaryproto
I0501 01:06:56.422621  9239 data_layer.cpp:45] output data size: 111,3,32,32
I0501 01:06:56.430553  9239 net.cpp:124] Setting up cifar
I0501 01:06:56.430572  9239 net.cpp:131] Top shape: 111 3 32 32 (340992)
I0501 01:06:56.430579  9239 net.cpp:131] Top shape: 111 (111)
I0501 01:06:56.430583  9239 net.cpp:139] Memory required for data: 1364412
I0501 01:06:56.430606  9239 layer_factory.hpp:77] Creating layer conv0
I0501 01:06:56.430624  9239 net.cpp:86] Creating Layer conv0
I0501 01:06:56.430629  9239 net.cpp:408] conv0 <- data
I0501 01:06:56.430642  9239 net.cpp:382] conv0 -> conv0
I0501 01:06:56.721582  9239 net.cpp:124] Setting up conv0
I0501 01:06:56.721613  9239 net.cpp:131] Top shape: 111 8 34 34 (1026528)
I0501 01:06:56.721619  9239 net.cpp:139] Memory required for data: 5470524
I0501 01:06:56.721637  9239 layer_factory.hpp:77] Creating layer Sigmoid0
I0501 01:06:56.721652  9239 net.cpp:86] Creating Layer Sigmoid0
I0501 01:06:56.721655  9239 net.cpp:408] Sigmoid0 <- conv0
I0501 01:06:56.721662  9239 net.cpp:382] Sigmoid0 -> Sigmoid0
I0501 01:06:56.721877  9239 net.cpp:124] Setting up Sigmoid0
I0501 01:06:56.721889  9239 net.cpp:131] Top shape: 111 8 34 34 (1026528)
I0501 01:06:56.721892  9239 net.cpp:139] Memory required for data: 9576636
I0501 01:06:56.721896  9239 layer_factory.hpp:77] Creating layer pool0
I0501 01:06:56.721904  9239 net.cpp:86] Creating Layer pool0
I0501 01:06:56.721909  9239 net.cpp:408] pool0 <- Sigmoid0
I0501 01:06:56.721915  9239 net.cpp:382] pool0 -> pool0
I0501 01:06:56.722791  9239 net.cpp:124] Setting up pool0
I0501 01:06:56.722807  9239 net.cpp:131] Top shape: 111 8 17 17 (256632)
I0501 01:06:56.722812  9239 net.cpp:139] Memory required for data: 10603164
I0501 01:06:56.722816  9239 layer_factory.hpp:77] Creating layer ip1
I0501 01:06:56.722828  9239 net.cpp:86] Creating Layer ip1
I0501 01:06:56.722832  9239 net.cpp:408] ip1 <- pool0
I0501 01:06:56.722839  9239 net.cpp:382] ip1 -> ip1
I0501 01:06:56.729838  9239 net.cpp:124] Setting up ip1
I0501 01:06:56.729853  9239 net.cpp:131] Top shape: 111 80 (8880)
I0501 01:06:56.729857  9239 net.cpp:139] Memory required for data: 10638684
I0501 01:06:56.729866  9239 layer_factory.hpp:77] Creating layer relu1
I0501 01:06:56.729874  9239 net.cpp:86] Creating Layer relu1
I0501 01:06:56.729878  9239 net.cpp:408] relu1 <- ip1
I0501 01:06:56.729884  9239 net.cpp:369] relu1 -> ip1 (in-place)
I0501 01:06:56.730062  9239 net.cpp:124] Setting up relu1
I0501 01:06:56.730072  9239 net.cpp:131] Top shape: 111 80 (8880)
I0501 01:06:56.730077  9239 net.cpp:139] Memory required for data: 10674204
I0501 01:06:56.730080  9239 layer_factory.hpp:77] Creating layer ip2
I0501 01:06:56.730087  9239 net.cpp:86] Creating Layer ip2
I0501 01:06:56.730092  9239 net.cpp:408] ip2 <- ip1
I0501 01:06:56.730098  9239 net.cpp:382] ip2 -> ip2
I0501 01:06:56.731351  9239 net.cpp:124] Setting up ip2
I0501 01:06:56.731366  9239 net.cpp:131] Top shape: 111 80 (8880)
I0501 01:06:56.731370  9239 net.cpp:139] Memory required for data: 10709724
I0501 01:06:56.731379  9239 layer_factory.hpp:77] Creating layer relu2
I0501 01:06:56.731386  9239 net.cpp:86] Creating Layer relu2
I0501 01:06:56.731390  9239 net.cpp:408] relu2 <- ip2
I0501 01:06:56.731395  9239 net.cpp:369] relu2 -> ip2 (in-place)
I0501 01:06:56.731582  9239 net.cpp:124] Setting up relu2
I0501 01:06:56.731592  9239 net.cpp:131] Top shape: 111 80 (8880)
I0501 01:06:56.731595  9239 net.cpp:139] Memory required for data: 10745244
I0501 01:06:56.731600  9239 layer_factory.hpp:77] Creating layer ip3
I0501 01:06:56.731608  9239 net.cpp:86] Creating Layer ip3
I0501 01:06:56.731612  9239 net.cpp:408] ip3 <- ip2
I0501 01:06:56.731618  9239 net.cpp:382] ip3 -> ip3
I0501 01:06:56.732121  9239 net.cpp:124] Setting up ip3
I0501 01:06:56.732130  9239 net.cpp:131] Top shape: 111 160 (17760)
I0501 01:06:56.732133  9239 net.cpp:139] Memory required for data: 10816284
I0501 01:06:56.732139  9239 layer_factory.hpp:77] Creating layer relu3
I0501 01:06:56.732144  9239 net.cpp:86] Creating Layer relu3
I0501 01:06:56.732148  9239 net.cpp:408] relu3 <- ip3
I0501 01:06:56.732153  9239 net.cpp:369] relu3 -> ip3 (in-place)
I0501 01:06:56.732326  9239 net.cpp:124] Setting up relu3
I0501 01:06:56.732334  9239 net.cpp:131] Top shape: 111 160 (17760)
I0501 01:06:56.732338  9239 net.cpp:139] Memory required for data: 10887324
I0501 01:06:56.732342  9239 layer_factory.hpp:77] Creating layer ip4
I0501 01:06:56.732365  9239 net.cpp:86] Creating Layer ip4
I0501 01:06:56.732369  9239 net.cpp:408] ip4 <- ip3
I0501 01:06:56.732375  9239 net.cpp:382] ip4 -> ip4
I0501 01:06:56.732538  9239 net.cpp:124] Setting up ip4
I0501 01:06:56.732547  9239 net.cpp:131] Top shape: 111 10 (1110)
I0501 01:06:56.732552  9239 net.cpp:139] Memory required for data: 10891764
I0501 01:06:56.732559  9239 layer_factory.hpp:77] Creating layer loss
I0501 01:06:56.732566  9239 net.cpp:86] Creating Layer loss
I0501 01:06:56.732569  9239 net.cpp:408] loss <- ip4
I0501 01:06:56.732574  9239 net.cpp:408] loss <- label
I0501 01:06:56.732580  9239 net.cpp:382] loss -> loss
I0501 01:06:56.732599  9239 layer_factory.hpp:77] Creating layer loss
…
I0501 01:06:56.733997  9239 solver.cpp:173] Creating test net (#0) specified by net file: ECE595/cifar/train_test/var_everything/cifar_train_test_279.prototxt
I0501 01:06:56.734030  9239 net.cpp:296] The NetState phase (1) differed from the phase (0) specified by a rule in layer cifar
I0501 01:06:56.734136  9239 net.cpp:53] Initializing net from parameters: 
name: "CIFAR"
state {
  phase: TEST
}
layer {
  name: "cifar"
  type: "Data"
  top: "data"
  top: "label"
  include {
    phase: TEST
  }
  transform_param {
    mean_file: "examples/cifar10/mean.binaryproto"
  }
  data_param {
    source: "examples/cifar10/cifar10_test_lmdb"
    batch_size: 1000
    backend: LMDB
  }
}
layer {
  name: "conv0"
  type: "Convolution"
  bottom: "data"
  top: "conv0"
  param {
    lr_mult: 1
  }
  param {
    lr_mult: 2
  }
  convolution_param {
    num_output: 8
    pad: 2
    kernel_size: 3
    stride: 1
    weight_filler {
      type: "gaussian"
      std: 0.01
    }
    bias_filler {
      type: "constant"
    }
  }
}
layer {
  name: "Sigmoid0"
  type: "Sigmoid"
  bottom: "conv0"
  top: "Sigmoid0"
}
layer {
  name: "pool0"
  type: "Pooling"
  bottom: "Sigmoid0"
  top: "pool0"
  pooling_param {
    pool: AVE
    kernel_size: 3
    stride: 2
  }
}
layer {
  name: "ip1"
  type: "InnerProduct"
  bottom: "pool0"
  top: "ip1"
  param {
    lr_mult: 1
  }
  param {
    lr_mult: 2
  }
  inner_product_param {
    num_output: 80
    weight_filler {
      type: "gaussian"
      std: 0.01
    }
    bias_filler {
      type: "constant"
    }
  }
}
layer {
  name: "relu1"
  type: "ReLU"
  bottom: "ip1"
  top: "ip1"
}
layer {
  name: "ip2"
  type: "InnerProduct"
  bottom: "ip1"
  top: "ip2"
  param {
    lr_mult: 1
  }
  param {
    lr_mult: 2
  }
  inner_product_param {
    num_output: 80
    weight_filler {
      type: "gaussian"
      std: 0.01
    }
    bias_filler {
      type: "constant"
    }
  }
}
layer {
  name: "relu2"
  type: "ReLU"
  bottom: "ip2"
  top: "ip2"
}
layer {
  name: "ip3"
  type: "InnerProduct"
  bottom: "ip2"
  top: "ip3"
  param {
    lr_mult: 1
  }
  param {
    lr_mult: 2
  }
  inner_product_param {
    num_output: 160
    weight_filler {
      type: "gaussian"
      std: 0.01
    }
    bias_filler {
      type: "constant"
    }
  }
}
layer {
  name: "relu3"
  type: "ReLU"
  bottom: "ip3"
  top: "ip3"
}
layer {
  name: "ip4"
  type: "InnerProduct"
  bottom: "ip3"
  top: "ip4"
  param {
    lr_mult: 1
  }
  param {
    lr_mult: 2
  }
  inner_product_param {
    num_output: 10
    weight_filler {
      type: "gaussian"
      std: 0.01
    }
    bias_filler {
      type: "constant"
    }
  }
}
layer {
  name: "accuracy"
  type: "Accuracy"
  bottom: "ip4"
  bottom: "label"
  top: "accuracy"
  include {
    phase: TEST
  }
}
layer {
  name: "loss"
  type: "SoftmaxWithLoss"
  bottom: "ip4"
  bottom: "label"
  top: "loss"
}
I0501 01:06:56.734227  9239 layer_factory.hpp:77] Creating layer cifar
I0501 01:06:56.734280  9239 db_lmdb.cpp:35] Opened lmdb examples/cifar10/cifar10_test_lmdb
I0501 01:06:56.734294  9239 net.cpp:86] Creating Layer cifar
I0501 01:06:56.734300  9239 net.cpp:382] cifar -> data
I0501 01:06:56.734309  9239 net.cpp:382] cifar -> label
I0501 01:06:56.734316  9239 data_transformer.cpp:25] Loading mean file from: examples/cifar10/mean.binaryproto
I0501 01:06:56.734486  9239 data_layer.cpp:45] output data size: 1000,3,32,32
I0501 01:06:56.760198  9239 net.cpp:124] Setting up cifar
I0501 01:06:56.760226  9239 net.cpp:131] Top shape: 1000 3 32 32 (3072000)
I0501 01:06:56.760232  9239 net.cpp:131] Top shape: 1000 (1000)
I0501 01:06:56.760236  9239 net.cpp:139] Memory required for data: 12292000
I0501 01:06:56.760241  9239 layer_factory.hpp:77] Creating layer label_cifar_1_split
I0501 01:06:56.760282  9239 net.cpp:86] Creating Layer label_cifar_1_split
I0501 01:06:56.760288  9239 net.cpp:408] label_cifar_1_split <- label
I0501 01:06:56.760294  9239 net.cpp:382] label_cifar_1_split -> label_cifar_1_split_0
I0501 01:06:56.760304  9239 net.cpp:382] label_cifar_1_split -> label_cifar_1_split_1
I0501 01:06:56.760448  9239 net.cpp:124] Setting up label_cifar_1_split
I0501 01:06:56.760457  9239 net.cpp:131] Top shape: 1000 (1000)
I0501 01:06:56.760460  9239 net.cpp:131] Top shape: 1000 (1000)
I0501 01:06:56.760463  9239 net.cpp:139] Memory required for data: 12300000
I0501 01:06:56.760466  9239 layer_factory.hpp:77] Creating layer conv0
I0501 01:06:56.760481  9239 net.cpp:86] Creating Layer conv0
I0501 01:06:56.760485  9239 net.cpp:408] conv0 <- data
I0501 01:06:56.760493  9239 net.cpp:382] conv0 -> conv0
I0501 01:06:56.762202  9239 net.cpp:124] Setting up conv0
I0501 01:06:56.762217  9239 net.cpp:131] Top shape: 1000 8 34 34 (9248000)
I0501 01:06:56.762220  9239 net.cpp:139] Memory required for data: 49292000
I0501 01:06:56.762230  9239 layer_factory.hpp:77] Creating layer Sigmoid0
I0501 01:06:56.762238  9239 net.cpp:86] Creating Layer Sigmoid0
I0501 01:06:56.762249  9239 net.cpp:408] Sigmoid0 <- conv0
I0501 01:06:56.762257  9239 net.cpp:382] Sigmoid0 -> Sigmoid0
I0501 01:06:56.763392  9239 net.cpp:124] Setting up Sigmoid0
I0501 01:06:56.763404  9239 net.cpp:131] Top shape: 1000 8 34 34 (9248000)
I0501 01:06:56.763408  9239 net.cpp:139] Memory required for data: 86284000
I0501 01:06:56.763411  9239 layer_factory.hpp:77] Creating layer pool0
I0501 01:06:56.763427  9239 net.cpp:86] Creating Layer pool0
I0501 01:06:56.763430  9239 net.cpp:408] pool0 <- Sigmoid0
I0501 01:06:56.763435  9239 net.cpp:382] pool0 -> pool0
I0501 01:06:56.763623  9239 net.cpp:124] Setting up pool0
I0501 01:06:56.763633  9239 net.cpp:131] Top shape: 1000 8 17 17 (2312000)
I0501 01:06:56.763636  9239 net.cpp:139] Memory required for data: 95532000
I0501 01:06:56.763639  9239 layer_factory.hpp:77] Creating layer ip1
I0501 01:06:56.763648  9239 net.cpp:86] Creating Layer ip1
I0501 01:06:56.763651  9239 net.cpp:408] ip1 <- pool0
I0501 01:06:56.763658  9239 net.cpp:382] ip1 -> ip1
I0501 01:06:56.769191  9239 net.cpp:124] Setting up ip1
I0501 01:06:56.769201  9239 net.cpp:131] Top shape: 1000 80 (80000)
I0501 01:06:56.769204  9239 net.cpp:139] Memory required for data: 95852000
I0501 01:06:56.769227  9239 layer_factory.hpp:77] Creating layer relu1
I0501 01:06:56.769233  9239 net.cpp:86] Creating Layer relu1
I0501 01:06:56.769237  9239 net.cpp:408] relu1 <- ip1
I0501 01:06:56.769243  9239 net.cpp:369] relu1 -> ip1 (in-place)
I0501 01:06:56.769424  9239 net.cpp:124] Setting up relu1
I0501 01:06:56.769433  9239 net.cpp:131] Top shape: 1000 80 (80000)
I0501 01:06:56.769436  9239 net.cpp:139] Memory required for data: 96172000
I0501 01:06:56.769439  9239 layer_factory.hpp:77] Creating layer ip2
I0501 01:06:56.769448  9239 net.cpp:86] Creating Layer ip2
I0501 01:06:56.769450  9239 net.cpp:408] ip2 <- ip1
I0501 01:06:56.769459  9239 net.cpp:382] ip2 -> ip2
I0501 01:06:56.769757  9239 net.cpp:124] Setting up ip2
I0501 01:06:56.769765  9239 net.cpp:131] Top shape: 1000 80 (80000)
I0501 01:06:56.769769  9239 net.cpp:139] Memory required for data: 96492000
I0501 01:06:56.769776  9239 layer_factory.hpp:77] Creating layer relu2
I0501 01:06:56.769783  9239 net.cpp:86] Creating Layer relu2
I0501 01:06:56.769795  9239 net.cpp:408] relu2 <- ip2
I0501 01:06:56.769801  9239 net.cpp:369] relu2 -> ip2 (in-place)
I0501 01:06:56.770601  9239 net.cpp:124] Setting up relu2
I0501 01:06:56.770615  9239 net.cpp:131] Top shape: 1000 80 (80000)
I0501 01:06:56.770620  9239 net.cpp:139] Memory required for data: 96812000
I0501 01:06:56.770623  9239 layer_factory.hpp:77] Creating layer ip3
I0501 01:06:56.770632  9239 net.cpp:86] Creating Layer ip3
I0501 01:06:56.770634  9239 net.cpp:408] ip3 <- ip2
I0501 01:06:56.770642  9239 net.cpp:382] ip3 -> ip3
I0501 01:06:56.771126  9239 net.cpp:124] Setting up ip3
I0501 01:06:56.771136  9239 net.cpp:131] Top shape: 1000 160 (160000)
I0501 01:06:56.771138  9239 net.cpp:139] Memory required for data: 97452000
I0501 01:06:56.771144  9239 layer_factory.hpp:77] Creating layer relu3
I0501 01:06:56.771150  9239 net.cpp:86] Creating Layer relu3
I0501 01:06:56.771153  9239 net.cpp:408] relu3 <- ip3
I0501 01:06:56.771157  9239 net.cpp:369] relu3 -> ip3 (in-place)
I0501 01:06:56.771328  9239 net.cpp:124] Setting up relu3
I0501 01:06:56.771337  9239 net.cpp:131] Top shape: 1000 160 (160000)
I0501 01:06:56.771340  9239 net.cpp:139] Memory required for data: 98092000
I0501 01:06:56.771343  9239 layer_factory.hpp:77] Creating layer ip4
I0501 01:06:56.771349  9239 net.cpp:86] Creating Layer ip4
I0501 01:06:56.771353  9239 net.cpp:408] ip4 <- ip3
I0501 01:06:56.771358  9239 net.cpp:382] ip4 -> ip4
I0501 01:06:56.771524  9239 net.cpp:124] Setting up ip4
I0501 01:06:56.771533  9239 net.cpp:131] Top shape: 1000 10 (10000)
I0501 01:06:56.771544  9239 net.cpp:139] Memory required for data: 98132000
I0501 01:06:56.771553  9239 layer_factory.hpp:77] Creating layer ip4_ip4_0_split
I0501 01:06:56.771559  9239 net.cpp:86] Creating Layer ip4_ip4_0_split
I0501 01:06:56.771561  9239 net.cpp:408] ip4_ip4_0_split <- ip4
I0501 01:06:56.771567  9239 net.cpp:382] ip4_ip4_0_split -> ip4_ip4_0_split_0
I0501 01:06:56.771572  9239 net.cpp:382] ip4_ip4_0_split -> ip4_ip4_0_split_1
I0501 01:06:56.771607  9239 net.cpp:124] Setting up ip4_ip4_0_split
I0501 01:06:56.771612  9239 net.cpp:131] Top shape: 1000 10 (10000)
I0501 01:06:56.771616  9239 net.cpp:131] Top shape: 1000 10 (10000)
I0501 01:06:56.771620  9239 net.cpp:139] Memory required for data: 98212000
I0501 01:06:56.771622  9239 layer_factory.hpp:77] Creating layer accuracy
I0501 01:06:56.771630  9239 net.cpp:86] Creating Layer accuracy
I0501 01:06:56.771632  9239 net.cpp:408] accuracy <- ip4_ip4_0_split_0
I0501 01:06:56.771637  9239 net.cpp:408] accuracy <- label_cifar_1_split_0
I0501 01:06:56.771642  9239 net.cpp:382] accuracy -> accuracy
…
