…
I0430 22:06:49.121886   513 net.cpp:296] The NetState phase (0) differed from the phase (1) specified by a rule in layer cifar
I0430 22:06:49.121902   513 net.cpp:296] The NetState phase (0) differed from the phase (1) specified by a rule in layer accuracy
I0430 22:06:49.121992   513 net.cpp:53] Initializing net from parameters: 
name: "CIFAR"
state {
  phase: TRAIN
  level: 0
  stage: ""
}
layer {
  name: "cifar"
  type: "Data"
  top: "data"
  top: "label"
  include {
    phase: TRAIN
  }
  transform_param {
    mean_file: "examples/cifar10/mean.binaryproto"
  }
  data_param {
    source: "examples/cifar10/cifar10_train_lmdb"
    batch_size: 111
    backend: LMDB
  }
}
layer {
  name: "conv0"
  type: "Convolution"
  bottom: "data"
  top: "conv0"
  param {
    lr_mult: 1
  }
  param {
    lr_mult: 2
  }
  convolution_param {
    num_output: 8
    pad: 2
    kernel_size: 3
    stride: 1
    weight_filler {
      type: "gaussian"
      std: 0.01
    }
    bias_filler {
      type: "constant"
    }
  }
}
layer {
  name: "Sigmoid0"
  type: "Sigmoid"
  bottom: "conv0"
  top: "Sigmoid0"
}
layer {
  name: "pool0"
  type: "Pooling"
  bottom: "Sigmoid0"
  top: "pool0"
  pooling_param {
    pool: AVE
    kernel_size: 3
    stride: 2
  }
}
layer {
  name: "ip1"
  type: "InnerProduct"
  bottom: "pool0"
  top: "ip1"
  param {
    lr_mult: 1
  }
  param {
    lr_mult: 2
  }
  inner_product_param {
    num_output: 160
    weight_filler {
      type: "gaussian"
      std: 0.01
    }
    bias_filler {
      type: "constant"
    }
  }
}
layer {
  name: "relu1"
  type: "ReLU"
  bottom: "ip1"
  top: "ip1"
}
layer {
  name: "ip2"
  type: "InnerProduct"
  bottom: "ip1"
  top: "ip2"
  param {
    lr_mult: 1
  }
  param {
    lr_mult: 2
  }
  inner_product_param {
    num_output: 80
    weight_filler {
      type: "gaussian"
      std: 0.01
    }
    bias_filler {
      type: "constant"
    }
  }
}
layer {
  name: "relu2"
  type: "ReLU"
  bottom: "ip2"
  top: "ip2"
}
layer {
  name: "ip3"
  type: "InnerProduct"
  bottom: "ip2"
  top: "ip3"
  param {
    lr_mult: 1
  }
  param {
    lr_mult: 2
  }
  inner_product_param {
    num_output: 10
    weight_filler {
      type: "gaussian"
      std: 0.01
    }
    bias_filler {
      type: "constant"
    }
  }
}
layer {
  name: "loss"
  type: "SoftmaxWithLoss"
  bottom: "ip3"
  bottom: "label"
  top: "loss"
}
I0430 22:06:49.122061   513 layer_factory.hpp:77] Creating layer cifar
I0430 22:06:49.122169   513 db_lmdb.cpp:35] Opened lmdb examples/cifar10/cifar10_train_lmdb
I0430 22:06:49.122200   513 net.cpp:86] Creating Layer cifar
I0430 22:06:49.122208   513 net.cpp:382] cifar -> data
I0430 22:06:49.122231   513 net.cpp:382] cifar -> label
I0430 22:06:49.122246   513 data_transformer.cpp:25] Loading mean file from: examples/cifar10/mean.binaryproto
I0430 22:06:49.124361   513 data_layer.cpp:45] output data size: 111,3,32,32
I0430 22:06:49.132227   513 net.cpp:124] Setting up cifar
I0430 22:06:49.132246   513 net.cpp:131] Top shape: 111 3 32 32 (340992)
I0430 22:06:49.132253   513 net.cpp:131] Top shape: 111 (111)
I0430 22:06:49.132257   513 net.cpp:139] Memory required for data: 1364412
I0430 22:06:49.132266   513 layer_factory.hpp:77] Creating layer conv0
I0430 22:06:49.132283   513 net.cpp:86] Creating Layer conv0
I0430 22:06:49.132289   513 net.cpp:408] conv0 <- data
I0430 22:06:49.132302   513 net.cpp:382] conv0 -> conv0
I0430 22:06:49.423178   513 net.cpp:124] Setting up conv0
I0430 22:06:49.423231   513 net.cpp:131] Top shape: 111 8 34 34 (1026528)
I0430 22:06:49.423238   513 net.cpp:139] Memory required for data: 5470524
I0430 22:06:49.423255   513 layer_factory.hpp:77] Creating layer Sigmoid0
I0430 22:06:49.423269   513 net.cpp:86] Creating Layer Sigmoid0
I0430 22:06:49.423274   513 net.cpp:408] Sigmoid0 <- conv0
I0430 22:06:49.423280   513 net.cpp:382] Sigmoid0 -> Sigmoid0
I0430 22:06:49.423498   513 net.cpp:124] Setting up Sigmoid0
I0430 22:06:49.423511   513 net.cpp:131] Top shape: 111 8 34 34 (1026528)
I0430 22:06:49.423514   513 net.cpp:139] Memory required for data: 9576636
I0430 22:06:49.423518   513 layer_factory.hpp:77] Creating layer pool0
I0430 22:06:49.423527   513 net.cpp:86] Creating Layer pool0
I0430 22:06:49.423532   513 net.cpp:408] pool0 <- Sigmoid0
I0430 22:06:49.423537   513 net.cpp:382] pool0 -> pool0
I0430 22:06:49.424414   513 net.cpp:124] Setting up pool0
I0430 22:06:49.424432   513 net.cpp:131] Top shape: 111 8 17 17 (256632)
I0430 22:06:49.424437   513 net.cpp:139] Memory required for data: 10603164
I0430 22:06:49.424440   513 layer_factory.hpp:77] Creating layer ip1
I0430 22:06:49.424451   513 net.cpp:86] Creating Layer ip1
I0430 22:06:49.424456   513 net.cpp:408] ip1 <- pool0
I0430 22:06:49.424463   513 net.cpp:382] ip1 -> ip1
I0430 22:06:49.437712   513 net.cpp:124] Setting up ip1
I0430 22:06:49.437728   513 net.cpp:131] Top shape: 111 160 (17760)
I0430 22:06:49.437732   513 net.cpp:139] Memory required for data: 10674204
I0430 22:06:49.437742   513 layer_factory.hpp:77] Creating layer relu1
I0430 22:06:49.437750   513 net.cpp:86] Creating Layer relu1
I0430 22:06:49.437754   513 net.cpp:408] relu1 <- ip1
I0430 22:06:49.437760   513 net.cpp:369] relu1 -> ip1 (in-place)
I0430 22:06:49.437945   513 net.cpp:124] Setting up relu1
I0430 22:06:49.437957   513 net.cpp:131] Top shape: 111 160 (17760)
I0430 22:06:49.437960   513 net.cpp:139] Memory required for data: 10745244
I0430 22:06:49.437964   513 layer_factory.hpp:77] Creating layer ip2
I0430 22:06:49.437973   513 net.cpp:86] Creating Layer ip2
I0430 22:06:49.437975   513 net.cpp:408] ip2 <- ip1
I0430 22:06:49.437981   513 net.cpp:382] ip2 -> ip2
I0430 22:06:49.439503   513 net.cpp:124] Setting up ip2
I0430 22:06:49.439518   513 net.cpp:131] Top shape: 111 80 (8880)
I0430 22:06:49.439523   513 net.cpp:139] Memory required for data: 10780764
I0430 22:06:49.439533   513 layer_factory.hpp:77] Creating layer relu2
I0430 22:06:49.439540   513 net.cpp:86] Creating Layer relu2
I0430 22:06:49.439545   513 net.cpp:408] relu2 <- ip2
I0430 22:06:49.439550   513 net.cpp:369] relu2 -> ip2 (in-place)
I0430 22:06:49.439746   513 net.cpp:124] Setting up relu2
I0430 22:06:49.439757   513 net.cpp:131] Top shape: 111 80 (8880)
I0430 22:06:49.439761   513 net.cpp:139] Memory required for data: 10816284
I0430 22:06:49.439765   513 layer_factory.hpp:77] Creating layer ip3
I0430 22:06:49.439775   513 net.cpp:86] Creating Layer ip3
I0430 22:06:49.439779   513 net.cpp:408] ip3 <- ip2
I0430 22:06:49.439785   513 net.cpp:382] ip3 -> ip3
I0430 22:06:49.440909   513 net.cpp:124] Setting up ip3
I0430 22:06:49.440925   513 net.cpp:131] Top shape: 111 10 (1110)
I0430 22:06:49.440929   513 net.cpp:139] Memory required for data: 10820724
I0430 22:06:49.440937   513 layer_factory.hpp:77] Creating layer loss
I0430 22:06:49.440944   513 net.cpp:86] Creating Layer loss
I0430 22:06:49.440948   513 net.cpp:408] loss <- ip3
I0430 22:06:49.440953   513 net.cpp:408] loss <- label
I0430 22:06:49.440959   513 net.cpp:382] loss -> loss
I0430 22:06:49.440978   513 layer_factory.hpp:77] Creating layer loss
…
I0430 22:06:49.441716   513 solver.cpp:173] Creating test net (#0) specified by net file: ECE595/cifar/train_test/var_everything/cifar_train_test_183.prototxt
I0430 22:06:49.441748   513 net.cpp:296] The NetState phase (1) differed from the phase (0) specified by a rule in layer cifar
I0430 22:06:49.441851   513 net.cpp:53] Initializing net from parameters: 
name: "CIFAR"
state {
  phase: TEST
}
layer {
  name: "cifar"
  type: "Data"
  top: "data"
  top: "label"
  include {
    phase: TEST
  }
  transform_param {
    mean_file: "examples/cifar10/mean.binaryproto"
  }
  data_param {
    source: "examples/cifar10/cifar10_test_lmdb"
    batch_size: 1000
    backend: LMDB
  }
}
layer {
  name: "conv0"
  type: "Convolution"
  bottom: "data"
  top: "conv0"
  param {
    lr_mult: 1
  }
  param {
    lr_mult: 2
  }
  convolution_param {
    num_output: 8
    pad: 2
    kernel_size: 3
    stride: 1
    weight_filler {
      type: "gaussian"
      std: 0.01
    }
    bias_filler {
      type: "constant"
    }
  }
}
layer {
  name: "Sigmoid0"
  type: "Sigmoid"
  bottom: "conv0"
  top: "Sigmoid0"
}
layer {
  name: "pool0"
  type: "Pooling"
  bottom: "Sigmoid0"
  top: "pool0"
  pooling_param {
    pool: AVE
    kernel_size: 3
    stride: 2
  }
}
layer {
  name: "ip1"
  type: "InnerProduct"
  bottom: "pool0"
  top: "ip1"
  param {
    lr_mult: 1
  }
  param {
    lr_mult: 2
  }
  inner_product_param {
    num_output: 160
    weight_filler {
      type: "gaussian"
      std: 0.01
    }
    bias_filler {
      type: "constant"
    }
  }
}
layer {
  name: "relu1"
  type: "ReLU"
  bottom: "ip1"
  top: "ip1"
}
layer {
  name: "ip2"
  type: "InnerProduct"
  bottom: "ip1"
  top: "ip2"
  param {
    lr_mult: 1
  }
  param {
    lr_mult: 2
  }
  inner_product_param {
    num_output: 80
    weight_filler {
      type: "gaussian"
      std: 0.01
    }
    bias_filler {
      type: "constant"
    }
  }
}
layer {
  name: "relu2"
  type: "ReLU"
  bottom: "ip2"
  top: "ip2"
}
layer {
  name: "ip3"
  type: "InnerProduct"
  bottom: "ip2"
  top: "ip3"
  param {
    lr_mult: 1
  }
  param {
    lr_mult: 2
  }
  inner_product_param {
    num_output: 10
    weight_filler {
      type: "gaussian"
      std: 0.01
    }
    bias_filler {
      type: "constant"
    }
  }
}
layer {
  name: "accuracy"
  type: "Accuracy"
  bottom: "ip3"
  bottom: "label"
  top: "accuracy"
  include {
    phase: TEST
  }
}
layer {
  name: "loss"
  type: "SoftmaxWithLoss"
  bottom: "ip3"
  bottom: "label"
  top: "loss"
}
I0430 22:06:49.441926   513 layer_factory.hpp:77] Creating layer cifar
I0430 22:06:49.441982   513 db_lmdb.cpp:35] Opened lmdb examples/cifar10/cifar10_test_lmdb
I0430 22:06:49.441997   513 net.cpp:86] Creating Layer cifar
I0430 22:06:49.442003   513 net.cpp:382] cifar -> data
I0430 22:06:49.442011   513 net.cpp:382] cifar -> label
I0430 22:06:49.442019   513 data_transformer.cpp:25] Loading mean file from: examples/cifar10/mean.binaryproto
I0430 22:06:49.442190   513 data_layer.cpp:45] output data size: 1000,3,32,32
I0430 22:06:49.468150   513 net.cpp:124] Setting up cifar
I0430 22:06:49.468183   513 net.cpp:131] Top shape: 1000 3 32 32 (3072000)
I0430 22:06:49.468190   513 net.cpp:131] Top shape: 1000 (1000)
I0430 22:06:49.468194   513 net.cpp:139] Memory required for data: 12292000
I0430 22:06:49.468201   513 layer_factory.hpp:77] Creating layer label_cifar_1_split
I0430 22:06:49.468216   513 net.cpp:86] Creating Layer label_cifar_1_split
I0430 22:06:49.468237   513 net.cpp:408] label_cifar_1_split <- label
I0430 22:06:49.468245   513 net.cpp:382] label_cifar_1_split -> label_cifar_1_split_0
I0430 22:06:49.468256   513 net.cpp:382] label_cifar_1_split -> label_cifar_1_split_1
I0430 22:06:49.468334   513 net.cpp:124] Setting up label_cifar_1_split
I0430 22:06:49.468344   513 net.cpp:131] Top shape: 1000 (1000)
I0430 22:06:49.468349   513 net.cpp:131] Top shape: 1000 (1000)
I0430 22:06:49.468353   513 net.cpp:139] Memory required for data: 12300000
I0430 22:06:49.468356   513 layer_factory.hpp:77] Creating layer conv0
I0430 22:06:49.468371   513 net.cpp:86] Creating Layer conv0
I0430 22:06:49.468375   513 net.cpp:408] conv0 <- data
I0430 22:06:49.468381   513 net.cpp:382] conv0 -> conv0
I0430 22:06:49.470197   513 net.cpp:124] Setting up conv0
I0430 22:06:49.470216   513 net.cpp:131] Top shape: 1000 8 34 34 (9248000)
I0430 22:06:49.470221   513 net.cpp:139] Memory required for data: 49292000
I0430 22:06:49.470232   513 layer_factory.hpp:77] Creating layer Sigmoid0
I0430 22:06:49.470242   513 net.cpp:86] Creating Layer Sigmoid0
I0430 22:06:49.470245   513 net.cpp:408] Sigmoid0 <- conv0
I0430 22:06:49.470250   513 net.cpp:382] Sigmoid0 -> Sigmoid0
I0430 22:06:49.472203   513 net.cpp:124] Setting up Sigmoid0
I0430 22:06:49.472220   513 net.cpp:131] Top shape: 1000 8 34 34 (9248000)
I0430 22:06:49.472224   513 net.cpp:139] Memory required for data: 86284000
I0430 22:06:49.472229   513 layer_factory.hpp:77] Creating layer pool0
I0430 22:06:49.472240   513 net.cpp:86] Creating Layer pool0
I0430 22:06:49.472244   513 net.cpp:408] pool0 <- Sigmoid0
I0430 22:06:49.472250   513 net.cpp:382] pool0 -> pool0
I0430 22:06:49.472458   513 net.cpp:124] Setting up pool0
I0430 22:06:49.472470   513 net.cpp:131] Top shape: 1000 8 17 17 (2312000)
I0430 22:06:49.472473   513 net.cpp:139] Memory required for data: 95532000
I0430 22:06:49.472477   513 layer_factory.hpp:77] Creating layer ip1
I0430 22:06:49.472487   513 net.cpp:86] Creating Layer ip1
I0430 22:06:49.472494   513 net.cpp:408] ip1 <- pool0
I0430 22:06:49.472501   513 net.cpp:382] ip1 -> ip1
I0430 22:06:49.485725   513 net.cpp:124] Setting up ip1
I0430 22:06:49.485743   513 net.cpp:131] Top shape: 1000 160 (160000)
I0430 22:06:49.485746   513 net.cpp:139] Memory required for data: 96172000
I0430 22:06:49.485757   513 layer_factory.hpp:77] Creating layer relu1
I0430 22:06:49.485764   513 net.cpp:86] Creating Layer relu1
I0430 22:06:49.485769   513 net.cpp:408] relu1 <- ip1
I0430 22:06:49.485774   513 net.cpp:369] relu1 -> ip1 (in-place)
I0430 22:06:49.485967   513 net.cpp:124] Setting up relu1
I0430 22:06:49.485980   513 net.cpp:131] Top shape: 1000 160 (160000)
I0430 22:06:49.485983   513 net.cpp:139] Memory required for data: 96812000
I0430 22:06:49.485988   513 layer_factory.hpp:77] Creating layer ip2
I0430 22:06:49.485996   513 net.cpp:86] Creating Layer ip2
I0430 22:06:49.486002   513 net.cpp:408] ip2 <- ip1
I0430 22:06:49.486009   513 net.cpp:382] ip2 -> ip2
I0430 22:06:49.486555   513 net.cpp:124] Setting up ip2
I0430 22:06:49.486567   513 net.cpp:131] Top shape: 1000 80 (80000)
I0430 22:06:49.486570   513 net.cpp:139] Memory required for data: 97132000
I0430 22:06:49.486579   513 layer_factory.hpp:77] Creating layer relu2
I0430 22:06:49.486587   513 net.cpp:86] Creating Layer relu2
I0430 22:06:49.486590   513 net.cpp:408] relu2 <- ip2
I0430 22:06:49.486595   513 net.cpp:369] relu2 -> ip2 (in-place)
I0430 22:06:49.486781   513 net.cpp:124] Setting up relu2
I0430 22:06:49.486791   513 net.cpp:131] Top shape: 1000 80 (80000)
I0430 22:06:49.486795   513 net.cpp:139] Memory required for data: 97452000
I0430 22:06:49.486799   513 layer_factory.hpp:77] Creating layer ip3
I0430 22:06:49.486806   513 net.cpp:86] Creating Layer ip3
I0430 22:06:49.486810   513 net.cpp:408] ip3 <- ip2
I0430 22:06:49.486816   513 net.cpp:382] ip3 -> ip3
I0430 22:06:49.486961   513 net.cpp:124] Setting up ip3
I0430 22:06:49.486970   513 net.cpp:131] Top shape: 1000 10 (10000)
I0430 22:06:49.486974   513 net.cpp:139] Memory required for data: 97492000
I0430 22:06:49.486994   513 layer_factory.hpp:77] Creating layer ip3_ip3_0_split
I0430 22:06:49.487002   513 net.cpp:86] Creating Layer ip3_ip3_0_split
I0430 22:06:49.487006   513 net.cpp:408] ip3_ip3_0_split <- ip3
I0430 22:06:49.487012   513 net.cpp:382] ip3_ip3_0_split -> ip3_ip3_0_split_0
I0430 22:06:49.487020   513 net.cpp:382] ip3_ip3_0_split -> ip3_ip3_0_split_1
I0430 22:06:49.487056   513 net.cpp:124] Setting up ip3_ip3_0_split
I0430 22:06:49.487064   513 net.cpp:131] Top shape: 1000 10 (10000)
I0430 22:06:49.487069   513 net.cpp:131] Top shape: 1000 10 (10000)
I0430 22:06:49.487072   513 net.cpp:139] Memory required for data: 97572000
I0430 22:06:49.487077   513 layer_factory.hpp:77] Creating layer accuracy
I0430 22:06:49.487084   513 net.cpp:86] Creating Layer accuracy
I0430 22:06:49.487087   513 net.cpp:408] accuracy <- ip3_ip3_0_split_0
I0430 22:06:49.487092   513 net.cpp:408] accuracy <- label_cifar_1_split_0
I0430 22:06:49.487098   513 net.cpp:382] accuracy -> accuracy
…
