…
I0501 08:09:46.842744  9570 net.cpp:296] The NetState phase (0) differed from the phase (1) specified by a rule in layer cifar
I0501 08:09:46.842762  9570 net.cpp:296] The NetState phase (0) differed from the phase (1) specified by a rule in layer accuracy
I0501 08:09:46.842862  9570 net.cpp:53] Initializing net from parameters: 
name: "CIFAR"
state {
  phase: TRAIN
  level: 0
  stage: ""
}
layer {
  name: "cifar"
  type: "Data"
  top: "data"
  top: "label"
  include {
    phase: TRAIN
  }
  transform_param {
    mean_file: "examples/cifar10/mean.binaryproto"
  }
  data_param {
    source: "examples/cifar10/cifar10_train_lmdb"
    batch_size: 111
    backend: LMDB
  }
}
layer {
  name: "conv0"
  type: "Convolution"
  bottom: "data"
  top: "conv0"
  param {
    lr_mult: 1
  }
  param {
    lr_mult: 2
  }
  convolution_param {
    num_output: 16
    pad: 2
    kernel_size: 3
    stride: 1
    weight_filler {
      type: "gaussian"
      std: 0.01
    }
    bias_filler {
      type: "constant"
    }
  }
}
layer {
  name: "Sigmoid0"
  type: "Sigmoid"
  bottom: "conv0"
  top: "Sigmoid0"
}
layer {
  name: "pool0"
  type: "Pooling"
  bottom: "Sigmoid0"
  top: "pool0"
  pooling_param {
    pool: AVE
    kernel_size: 3
    stride: 2
  }
}
layer {
  name: "ip1"
  type: "InnerProduct"
  bottom: "pool0"
  top: "ip1"
  param {
    lr_mult: 1
  }
  param {
    lr_mult: 2
  }
  inner_product_param {
    num_output: 10
    weight_filler {
      type: "gaussian"
      std: 0.01
    }
    bias_filler {
      type: "constant"
    }
  }
}
layer {
  name: "relu1"
  type: "ReLU"
  bottom: "ip1"
  top: "ip1"
}
layer {
  name: "ip2"
  type: "InnerProduct"
  bottom: "ip1"
  top: "ip2"
  param {
    lr_mult: 1
  }
  param {
    lr_mult: 2
  }
  inner_product_param {
    num_output: 20
    weight_filler {
      type: "gaussian"
      std: 0.01
    }
    bias_filler {
      type: "constant"
    }
  }
}
layer {
  name: "relu2"
  type: "ReLU"
  bottom: "ip2"
  top: "ip2"
}
layer {
  name: "ip3"
  type: "InnerProduct"
  bottom: "ip2"
  top: "ip3"
  param {
    lr_mult: 1
  }
  param {
    lr_mult: 2
  }
  inner_product_param {
    num_output: 80
    weight_filler {
      type: "gaussian"
      std: 0.01
    }
    bias_filler {
      type: "constant"
    }
  }
}
layer {
  name: "relu3"
  type: "ReLU"
  bottom: "ip3"
  top: "ip3"
}
layer {
  name: "ip4"
  type: "InnerProduct"
  bottom: "ip3"
  top: "ip4"
  param {
    lr_mult: 1
  }
  param {
    lr_mult: 2
  }
  inner_product_param {
    num_output: 10
    weight_filler {
      type: "gaussian"
      std: 0.01
    }
    bias_filler {
      type: "constant"
    }
  }
}
layer {
  name: "loss"
  type: "SoftmaxWithLoss"
  bottom: "ip4"
  bottom: "label"
  top: "loss"
}
I0501 08:09:46.842934  9570 layer_factory.hpp:77] Creating layer cifar
I0501 08:09:46.843029  9570 db_lmdb.cpp:35] Opened lmdb examples/cifar10/cifar10_train_lmdb
I0501 08:09:46.843055  9570 net.cpp:86] Creating Layer cifar
I0501 08:09:46.843063  9570 net.cpp:382] cifar -> data
I0501 08:09:46.843086  9570 net.cpp:382] cifar -> label
I0501 08:09:46.843098  9570 data_transformer.cpp:25] Loading mean file from: examples/cifar10/mean.binaryproto
I0501 08:09:46.845247  9570 data_layer.cpp:45] output data size: 111,3,32,32
I0501 08:09:46.853111  9570 net.cpp:124] Setting up cifar
I0501 08:09:46.853132  9570 net.cpp:131] Top shape: 111 3 32 32 (340992)
I0501 08:09:46.853137  9570 net.cpp:131] Top shape: 111 (111)
I0501 08:09:46.853142  9570 net.cpp:139] Memory required for data: 1364412
I0501 08:09:46.853164  9570 layer_factory.hpp:77] Creating layer conv0
I0501 08:09:46.853183  9570 net.cpp:86] Creating Layer conv0
I0501 08:09:46.853188  9570 net.cpp:408] conv0 <- data
I0501 08:09:46.853199  9570 net.cpp:382] conv0 -> conv0
I0501 08:09:47.137367  9570 net.cpp:124] Setting up conv0
I0501 08:09:47.137394  9570 net.cpp:131] Top shape: 111 16 34 34 (2053056)
I0501 08:09:47.137398  9570 net.cpp:139] Memory required for data: 9576636
I0501 08:09:47.137413  9570 layer_factory.hpp:77] Creating layer Sigmoid0
I0501 08:09:47.137424  9570 net.cpp:86] Creating Layer Sigmoid0
I0501 08:09:47.137429  9570 net.cpp:408] Sigmoid0 <- conv0
I0501 08:09:47.137434  9570 net.cpp:382] Sigmoid0 -> Sigmoid0
I0501 08:09:47.137612  9570 net.cpp:124] Setting up Sigmoid0
I0501 08:09:47.137621  9570 net.cpp:131] Top shape: 111 16 34 34 (2053056)
I0501 08:09:47.137624  9570 net.cpp:139] Memory required for data: 17788860
I0501 08:09:47.137629  9570 layer_factory.hpp:77] Creating layer pool0
I0501 08:09:47.137635  9570 net.cpp:86] Creating Layer pool0
I0501 08:09:47.137639  9570 net.cpp:408] pool0 <- Sigmoid0
I0501 08:09:47.137643  9570 net.cpp:382] pool0 -> pool0
I0501 08:09:47.138409  9570 net.cpp:124] Setting up pool0
I0501 08:09:47.138422  9570 net.cpp:131] Top shape: 111 16 17 17 (513264)
I0501 08:09:47.138425  9570 net.cpp:139] Memory required for data: 19841916
I0501 08:09:47.138429  9570 layer_factory.hpp:77] Creating layer ip1
I0501 08:09:47.138438  9570 net.cpp:86] Creating Layer ip1
I0501 08:09:47.138442  9570 net.cpp:408] ip1 <- pool0
I0501 08:09:47.138447  9570 net.cpp:382] ip1 -> ip1
I0501 08:09:47.140708  9570 net.cpp:124] Setting up ip1
I0501 08:09:47.140722  9570 net.cpp:131] Top shape: 111 10 (1110)
I0501 08:09:47.140725  9570 net.cpp:139] Memory required for data: 19846356
I0501 08:09:47.140733  9570 layer_factory.hpp:77] Creating layer relu1
I0501 08:09:47.140739  9570 net.cpp:86] Creating Layer relu1
I0501 08:09:47.140743  9570 net.cpp:408] relu1 <- ip1
I0501 08:09:47.140748  9570 net.cpp:369] relu1 -> ip1 (in-place)
I0501 08:09:47.140945  9570 net.cpp:124] Setting up relu1
I0501 08:09:47.140955  9570 net.cpp:131] Top shape: 111 10 (1110)
I0501 08:09:47.140959  9570 net.cpp:139] Memory required for data: 19850796
I0501 08:09:47.140962  9570 layer_factory.hpp:77] Creating layer ip2
I0501 08:09:47.140969  9570 net.cpp:86] Creating Layer ip2
I0501 08:09:47.140972  9570 net.cpp:408] ip2 <- ip1
I0501 08:09:47.140979  9570 net.cpp:382] ip2 -> ip2
I0501 08:09:47.141083  9570 net.cpp:124] Setting up ip2
I0501 08:09:47.141091  9570 net.cpp:131] Top shape: 111 20 (2220)
I0501 08:09:47.141094  9570 net.cpp:139] Memory required for data: 19859676
I0501 08:09:47.141103  9570 layer_factory.hpp:77] Creating layer relu2
I0501 08:09:47.141108  9570 net.cpp:86] Creating Layer relu2
I0501 08:09:47.141111  9570 net.cpp:408] relu2 <- ip2
I0501 08:09:47.141115  9570 net.cpp:369] relu2 -> ip2 (in-place)
I0501 08:09:47.141288  9570 net.cpp:124] Setting up relu2
I0501 08:09:47.141310  9570 net.cpp:131] Top shape: 111 20 (2220)
I0501 08:09:47.141314  9570 net.cpp:139] Memory required for data: 19868556
I0501 08:09:47.141316  9570 layer_factory.hpp:77] Creating layer ip3
I0501 08:09:47.141324  9570 net.cpp:86] Creating Layer ip3
I0501 08:09:47.141327  9570 net.cpp:408] ip3 <- ip2
I0501 08:09:47.141331  9570 net.cpp:382] ip3 -> ip3
I0501 08:09:47.141468  9570 net.cpp:124] Setting up ip3
I0501 08:09:47.141474  9570 net.cpp:131] Top shape: 111 80 (8880)
I0501 08:09:47.141477  9570 net.cpp:139] Memory required for data: 19904076
I0501 08:09:47.141482  9570 layer_factory.hpp:77] Creating layer relu3
I0501 08:09:47.141487  9570 net.cpp:86] Creating Layer relu3
I0501 08:09:47.141490  9570 net.cpp:408] relu3 <- ip3
I0501 08:09:47.141494  9570 net.cpp:369] relu3 -> ip3 (in-place)
I0501 08:09:47.141635  9570 net.cpp:124] Setting up relu3
I0501 08:09:47.141644  9570 net.cpp:131] Top shape: 111 80 (8880)
I0501 08:09:47.141646  9570 net.cpp:139] Memory required for data: 19939596
I0501 08:09:47.141649  9570 layer_factory.hpp:77] Creating layer ip4
I0501 08:09:47.141669  9570 net.cpp:86] Creating Layer ip4
I0501 08:09:47.141674  9570 net.cpp:408] ip4 <- ip3
I0501 08:09:47.141679  9570 net.cpp:382] ip4 -> ip4
I0501 08:09:47.141790  9570 net.cpp:124] Setting up ip4
I0501 08:09:47.141798  9570 net.cpp:131] Top shape: 111 10 (1110)
I0501 08:09:47.141801  9570 net.cpp:139] Memory required for data: 19944036
I0501 08:09:47.141808  9570 layer_factory.hpp:77] Creating layer loss
I0501 08:09:47.141813  9570 net.cpp:86] Creating Layer loss
I0501 08:09:47.141816  9570 net.cpp:408] loss <- ip4
I0501 08:09:47.141820  9570 net.cpp:408] loss <- label
I0501 08:09:47.141825  9570 net.cpp:382] loss -> loss
I0501 08:09:47.141842  9570 layer_factory.hpp:77] Creating layer loss
…
I0501 08:09:47.143108  9570 solver.cpp:173] Creating test net (#0) specified by net file: ECE595/cifar/train_test/var_everything/cifar_train_test_503.prototxt
I0501 08:09:47.143136  9570 net.cpp:296] The NetState phase (1) differed from the phase (0) specified by a rule in layer cifar
I0501 08:09:47.143249  9570 net.cpp:53] Initializing net from parameters: 
name: "CIFAR"
state {
  phase: TEST
}
layer {
  name: "cifar"
  type: "Data"
  top: "data"
  top: "label"
  include {
    phase: TEST
  }
  transform_param {
    mean_file: "examples/cifar10/mean.binaryproto"
  }
  data_param {
    source: "examples/cifar10/cifar10_test_lmdb"
    batch_size: 1000
    backend: LMDB
  }
}
layer {
  name: "conv0"
  type: "Convolution"
  bottom: "data"
  top: "conv0"
  param {
    lr_mult: 1
  }
  param {
    lr_mult: 2
  }
  convolution_param {
    num_output: 16
    pad: 2
    kernel_size: 3
    stride: 1
    weight_filler {
      type: "gaussian"
      std: 0.01
    }
    bias_filler {
      type: "constant"
    }
  }
}
layer {
  name: "Sigmoid0"
  type: "Sigmoid"
  bottom: "conv0"
  top: "Sigmoid0"
}
layer {
  name: "pool0"
  type: "Pooling"
  bottom: "Sigmoid0"
  top: "pool0"
  pooling_param {
    pool: AVE
    kernel_size: 3
    stride: 2
  }
}
layer {
  name: "ip1"
  type: "InnerProduct"
  bottom: "pool0"
  top: "ip1"
  param {
    lr_mult: 1
  }
  param {
    lr_mult: 2
  }
  inner_product_param {
    num_output: 10
    weight_filler {
      type: "gaussian"
      std: 0.01
    }
    bias_filler {
      type: "constant"
    }
  }
}
layer {
  name: "relu1"
  type: "ReLU"
  bottom: "ip1"
  top: "ip1"
}
layer {
  name: "ip2"
  type: "InnerProduct"
  bottom: "ip1"
  top: "ip2"
  param {
    lr_mult: 1
  }
  param {
    lr_mult: 2
  }
  inner_product_param {
    num_output: 20
    weight_filler {
      type: "gaussian"
      std: 0.01
    }
    bias_filler {
      type: "constant"
    }
  }
}
layer {
  name: "relu2"
  type: "ReLU"
  bottom: "ip2"
  top: "ip2"
}
layer {
  name: "ip3"
  type: "InnerProduct"
  bottom: "ip2"
  top: "ip3"
  param {
    lr_mult: 1
  }
  param {
    lr_mult: 2
  }
  inner_product_param {
    num_output: 80
    weight_filler {
      type: "gaussian"
      std: 0.01
    }
    bias_filler {
      type: "constant"
    }
  }
}
layer {
  name: "relu3"
  type: "ReLU"
  bottom: "ip3"
  top: "ip3"
}
layer {
  name: "ip4"
  type: "InnerProduct"
  bottom: "ip3"
  top: "ip4"
  param {
    lr_mult: 1
  }
  param {
    lr_mult: 2
  }
  inner_product_param {
    num_output: 10
    weight_filler {
      type: "gaussian"
      std: 0.01
    }
    bias_filler {
      type: "constant"
    }
  }
}
layer {
  name: "accuracy"
  type: "Accuracy"
  bottom: "ip4"
  bottom: "label"
  top: "accuracy"
  include {
    phase: TEST
  }
}
layer {
  name: "loss"
  type: "SoftmaxWithLoss"
  bottom: "ip4"
  bottom: "label"
  top: "loss"
}
I0501 08:09:47.143332  9570 layer_factory.hpp:77] Creating layer cifar
I0501 08:09:47.143375  9570 db_lmdb.cpp:35] Opened lmdb examples/cifar10/cifar10_test_lmdb
I0501 08:09:47.143388  9570 net.cpp:86] Creating Layer cifar
I0501 08:09:47.143393  9570 net.cpp:382] cifar -> data
I0501 08:09:47.143402  9570 net.cpp:382] cifar -> label
I0501 08:09:47.143409  9570 data_transformer.cpp:25] Loading mean file from: examples/cifar10/mean.binaryproto
I0501 08:09:47.143570  9570 data_layer.cpp:45] output data size: 1000,3,32,32
I0501 08:09:47.165967  9570 net.cpp:124] Setting up cifar
I0501 08:09:47.165994  9570 net.cpp:131] Top shape: 1000 3 32 32 (3072000)
I0501 08:09:47.165999  9570 net.cpp:131] Top shape: 1000 (1000)
I0501 08:09:47.166002  9570 net.cpp:139] Memory required for data: 12292000
I0501 08:09:47.166007  9570 layer_factory.hpp:77] Creating layer label_cifar_1_split
I0501 08:09:47.166024  9570 net.cpp:86] Creating Layer label_cifar_1_split
I0501 08:09:47.166028  9570 net.cpp:408] label_cifar_1_split <- label
I0501 08:09:47.166033  9570 net.cpp:382] label_cifar_1_split -> label_cifar_1_split_0
I0501 08:09:47.166043  9570 net.cpp:382] label_cifar_1_split -> label_cifar_1_split_1
I0501 08:09:47.166147  9570 net.cpp:124] Setting up label_cifar_1_split
I0501 08:09:47.166155  9570 net.cpp:131] Top shape: 1000 (1000)
I0501 08:09:47.166159  9570 net.cpp:131] Top shape: 1000 (1000)
I0501 08:09:47.166162  9570 net.cpp:139] Memory required for data: 12300000
I0501 08:09:47.166165  9570 layer_factory.hpp:77] Creating layer conv0
I0501 08:09:47.166178  9570 net.cpp:86] Creating Layer conv0
I0501 08:09:47.166182  9570 net.cpp:408] conv0 <- data
I0501 08:09:47.166188  9570 net.cpp:382] conv0 -> conv0
I0501 08:09:47.168612  9570 net.cpp:124] Setting up conv0
I0501 08:09:47.168627  9570 net.cpp:131] Top shape: 1000 16 34 34 (18496000)
I0501 08:09:47.168630  9570 net.cpp:139] Memory required for data: 86284000
I0501 08:09:47.168639  9570 layer_factory.hpp:77] Creating layer Sigmoid0
I0501 08:09:47.168647  9570 net.cpp:86] Creating Layer Sigmoid0
I0501 08:09:47.168649  9570 net.cpp:408] Sigmoid0 <- conv0
I0501 08:09:47.168655  9570 net.cpp:382] Sigmoid0 -> Sigmoid0
I0501 08:09:47.168912  9570 net.cpp:124] Setting up Sigmoid0
I0501 08:09:47.168923  9570 net.cpp:131] Top shape: 1000 16 34 34 (18496000)
I0501 08:09:47.168927  9570 net.cpp:139] Memory required for data: 160268000
I0501 08:09:47.168931  9570 layer_factory.hpp:77] Creating layer pool0
I0501 08:09:47.168939  9570 net.cpp:86] Creating Layer pool0
I0501 08:09:47.168943  9570 net.cpp:408] pool0 <- Sigmoid0
I0501 08:09:47.168948  9570 net.cpp:382] pool0 -> pool0
I0501 08:09:47.169147  9570 net.cpp:124] Setting up pool0
I0501 08:09:47.169157  9570 net.cpp:131] Top shape: 1000 16 17 17 (4624000)
I0501 08:09:47.169160  9570 net.cpp:139] Memory required for data: 178764000
I0501 08:09:47.169163  9570 layer_factory.hpp:77] Creating layer ip1
I0501 08:09:47.169183  9570 net.cpp:86] Creating Layer ip1
I0501 08:09:47.169185  9570 net.cpp:408] ip1 <- pool0
I0501 08:09:47.169206  9570 net.cpp:382] ip1 -> ip1
I0501 08:09:47.170584  9570 net.cpp:124] Setting up ip1
I0501 08:09:47.170593  9570 net.cpp:131] Top shape: 1000 10 (10000)
I0501 08:09:47.170609  9570 net.cpp:139] Memory required for data: 178804000
I0501 08:09:47.170631  9570 layer_factory.hpp:77] Creating layer relu1
I0501 08:09:47.170637  9570 net.cpp:86] Creating Layer relu1
I0501 08:09:47.170640  9570 net.cpp:408] relu1 <- ip1
I0501 08:09:47.170645  9570 net.cpp:369] relu1 -> ip1 (in-place)
I0501 08:09:47.170845  9570 net.cpp:124] Setting up relu1
I0501 08:09:47.170853  9570 net.cpp:131] Top shape: 1000 10 (10000)
I0501 08:09:47.170857  9570 net.cpp:139] Memory required for data: 178844000
I0501 08:09:47.170861  9570 layer_factory.hpp:77] Creating layer ip2
I0501 08:09:47.170866  9570 net.cpp:86] Creating Layer ip2
I0501 08:09:47.170869  9570 net.cpp:408] ip2 <- ip1
I0501 08:09:47.170876  9570 net.cpp:382] ip2 -> ip2
I0501 08:09:47.170990  9570 net.cpp:124] Setting up ip2
I0501 08:09:47.170997  9570 net.cpp:131] Top shape: 1000 20 (20000)
I0501 08:09:47.171000  9570 net.cpp:139] Memory required for data: 178924000
I0501 08:09:47.171010  9570 layer_factory.hpp:77] Creating layer relu2
I0501 08:09:47.171016  9570 net.cpp:86] Creating Layer relu2
I0501 08:09:47.171020  9570 net.cpp:408] relu2 <- ip2
I0501 08:09:47.171023  9570 net.cpp:369] relu2 -> ip2 (in-place)
I0501 08:09:47.171775  9570 net.cpp:124] Setting up relu2
I0501 08:09:47.171787  9570 net.cpp:131] Top shape: 1000 20 (20000)
I0501 08:09:47.171805  9570 net.cpp:139] Memory required for data: 179004000
I0501 08:09:47.171808  9570 layer_factory.hpp:77] Creating layer ip3
I0501 08:09:47.171816  9570 net.cpp:86] Creating Layer ip3
I0501 08:09:47.171821  9570 net.cpp:408] ip3 <- ip2
I0501 08:09:47.171841  9570 net.cpp:382] ip3 -> ip3
I0501 08:09:47.172013  9570 net.cpp:124] Setting up ip3
I0501 08:09:47.172020  9570 net.cpp:131] Top shape: 1000 80 (80000)
I0501 08:09:47.172024  9570 net.cpp:139] Memory required for data: 179324000
I0501 08:09:47.172029  9570 layer_factory.hpp:77] Creating layer relu3
I0501 08:09:47.172034  9570 net.cpp:86] Creating Layer relu3
I0501 08:09:47.172036  9570 net.cpp:408] relu3 <- ip3
I0501 08:09:47.172041  9570 net.cpp:369] relu3 -> ip3 (in-place)
I0501 08:09:47.172204  9570 net.cpp:124] Setting up relu3
I0501 08:09:47.172214  9570 net.cpp:131] Top shape: 1000 80 (80000)
I0501 08:09:47.172216  9570 net.cpp:139] Memory required for data: 179644000
I0501 08:09:47.172219  9570 layer_factory.hpp:77] Creating layer ip4
I0501 08:09:47.172225  9570 net.cpp:86] Creating Layer ip4
I0501 08:09:47.172230  9570 net.cpp:408] ip4 <- ip3
I0501 08:09:47.172235  9570 net.cpp:382] ip4 -> ip4
I0501 08:09:47.172360  9570 net.cpp:124] Setting up ip4
I0501 08:09:47.172368  9570 net.cpp:131] Top shape: 1000 10 (10000)
I0501 08:09:47.172370  9570 net.cpp:139] Memory required for data: 179684000
I0501 08:09:47.172379  9570 layer_factory.hpp:77] Creating layer ip4_ip4_0_split
I0501 08:09:47.172384  9570 net.cpp:86] Creating Layer ip4_ip4_0_split
I0501 08:09:47.172387  9570 net.cpp:408] ip4_ip4_0_split <- ip4
I0501 08:09:47.172392  9570 net.cpp:382] ip4_ip4_0_split -> ip4_ip4_0_split_0
I0501 08:09:47.172397  9570 net.cpp:382] ip4_ip4_0_split -> ip4_ip4_0_split_1
I0501 08:09:47.172427  9570 net.cpp:124] Setting up ip4_ip4_0_split
I0501 08:09:47.172432  9570 net.cpp:131] Top shape: 1000 10 (10000)
I0501 08:09:47.172436  9570 net.cpp:131] Top shape: 1000 10 (10000)
I0501 08:09:47.172439  9570 net.cpp:139] Memory required for data: 179764000
I0501 08:09:47.172442  9570 layer_factory.hpp:77] Creating layer accuracy
I0501 08:09:47.172447  9570 net.cpp:86] Creating Layer accuracy
I0501 08:09:47.172451  9570 net.cpp:408] accuracy <- ip4_ip4_0_split_0
I0501 08:09:47.172454  9570 net.cpp:408] accuracy <- label_cifar_1_split_0
I0501 08:09:47.172458  9570 net.cpp:382] accuracy -> accuracy
…
