…
I0501 04:39:41.854606 26053 net.cpp:296] The NetState phase (0) differed from the phase (1) specified by a rule in layer cifar
I0501 04:39:41.854625 26053 net.cpp:296] The NetState phase (0) differed from the phase (1) specified by a rule in layer accuracy
I0501 04:39:41.854732 26053 net.cpp:53] Initializing net from parameters: 
name: "CIFAR"
state {
  phase: TRAIN
  level: 0
  stage: ""
}
layer {
  name: "cifar"
  type: "Data"
  top: "data"
  top: "label"
  include {
    phase: TRAIN
  }
  transform_param {
    mean_file: "examples/cifar10/mean.binaryproto"
  }
  data_param {
    source: "examples/cifar10/cifar10_train_lmdb"
    batch_size: 111
    backend: LMDB
  }
}
layer {
  name: "conv0"
  type: "Convolution"
  bottom: "data"
  top: "conv0"
  param {
    lr_mult: 1
  }
  param {
    lr_mult: 2
  }
  convolution_param {
    num_output: 8
    pad: 2
    kernel_size: 5
    stride: 1
    weight_filler {
      type: "gaussian"
      std: 0.01
    }
    bias_filler {
      type: "constant"
    }
  }
}
layer {
  name: "Sigmoid0"
  type: "Sigmoid"
  bottom: "conv0"
  top: "Sigmoid0"
}
layer {
  name: "pool0"
  type: "Pooling"
  bottom: "Sigmoid0"
  top: "pool0"
  pooling_param {
    pool: AVE
    kernel_size: 3
    stride: 2
  }
}
layer {
  name: "ip1"
  type: "InnerProduct"
  bottom: "pool0"
  top: "ip1"
  param {
    lr_mult: 1
  }
  param {
    lr_mult: 2
  }
  inner_product_param {
    num_output: 40
    weight_filler {
      type: "gaussian"
      std: 0.01
    }
    bias_filler {
      type: "constant"
    }
  }
}
layer {
  name: "relu1"
  type: "ReLU"
  bottom: "ip1"
  top: "ip1"
}
layer {
  name: "ip2"
  type: "InnerProduct"
  bottom: "ip1"
  top: "ip2"
  param {
    lr_mult: 1
  }
  param {
    lr_mult: 2
  }
  inner_product_param {
    num_output: 10
    weight_filler {
      type: "gaussian"
      std: 0.01
    }
    bias_filler {
      type: "constant"
    }
  }
}
layer {
  name: "relu2"
  type: "ReLU"
  bottom: "ip2"
  top: "ip2"
}
layer {
  name: "ip3"
  type: "InnerProduct"
  bottom: "ip2"
  top: "ip3"
  param {
    lr_mult: 1
  }
  param {
    lr_mult: 2
  }
  inner_product_param {
    num_output: 80
    weight_filler {
      type: "gaussian"
      std: 0.01
    }
    bias_filler {
      type: "constant"
    }
  }
}
layer {
  name: "relu3"
  type: "ReLU"
  bottom: "ip3"
  top: "ip3"
}
layer {
  name: "ip4"
  type: "InnerProduct"
  bottom: "ip3"
  top: "ip4"
  param {
    lr_mult: 1
  }
  param {
    lr_mult: 2
  }
  inner_product_param {
    num_output: 10
    weight_filler {
      type: "gaussian"
      std: 0.01
    }
    bias_filler {
      type: "constant"
    }
  }
}
layer {
  name: "loss"
  type: "SoftmaxWithLoss"
  bottom: "ip4"
  bottom: "label"
  top: "loss"
}
I0501 04:39:41.854811 26053 layer_factory.hpp:77] Creating layer cifar
I0501 04:39:41.854912 26053 db_lmdb.cpp:35] Opened lmdb examples/cifar10/cifar10_train_lmdb
I0501 04:39:41.854939 26053 net.cpp:86] Creating Layer cifar
I0501 04:39:41.854948 26053 net.cpp:382] cifar -> data
I0501 04:39:41.854971 26053 net.cpp:382] cifar -> label
I0501 04:39:41.854984 26053 data_transformer.cpp:25] Loading mean file from: examples/cifar10/mean.binaryproto
I0501 04:39:41.857151 26053 data_layer.cpp:45] output data size: 111,3,32,32
I0501 04:39:41.865036 26053 net.cpp:124] Setting up cifar
I0501 04:39:41.865056 26053 net.cpp:131] Top shape: 111 3 32 32 (340992)
I0501 04:39:41.865063 26053 net.cpp:131] Top shape: 111 (111)
I0501 04:39:41.865068 26053 net.cpp:139] Memory required for data: 1364412
I0501 04:39:41.865092 26053 layer_factory.hpp:77] Creating layer conv0
I0501 04:39:41.865109 26053 net.cpp:86] Creating Layer conv0
I0501 04:39:41.865115 26053 net.cpp:408] conv0 <- data
I0501 04:39:41.865129 26053 net.cpp:382] conv0 -> conv0
I0501 04:39:42.132005 26053 net.cpp:124] Setting up conv0
I0501 04:39:42.132031 26053 net.cpp:131] Top shape: 111 8 32 32 (909312)
I0501 04:39:42.132035 26053 net.cpp:139] Memory required for data: 5001660
I0501 04:39:42.132050 26053 layer_factory.hpp:77] Creating layer Sigmoid0
I0501 04:39:42.132061 26053 net.cpp:86] Creating Layer Sigmoid0
I0501 04:39:42.132064 26053 net.cpp:408] Sigmoid0 <- conv0
I0501 04:39:42.132069 26053 net.cpp:382] Sigmoid0 -> Sigmoid0
I0501 04:39:42.132241 26053 net.cpp:124] Setting up Sigmoid0
I0501 04:39:42.132251 26053 net.cpp:131] Top shape: 111 8 32 32 (909312)
I0501 04:39:42.132253 26053 net.cpp:139] Memory required for data: 8638908
I0501 04:39:42.132256 26053 layer_factory.hpp:77] Creating layer pool0
I0501 04:39:42.132262 26053 net.cpp:86] Creating Layer pool0
I0501 04:39:42.132266 26053 net.cpp:408] pool0 <- Sigmoid0
I0501 04:39:42.132271 26053 net.cpp:382] pool0 -> pool0
I0501 04:39:42.133044 26053 net.cpp:124] Setting up pool0
I0501 04:39:42.133057 26053 net.cpp:131] Top shape: 111 8 16 16 (227328)
I0501 04:39:42.133075 26053 net.cpp:139] Memory required for data: 9548220
I0501 04:39:42.133080 26053 layer_factory.hpp:77] Creating layer ip1
I0501 04:39:42.133090 26053 net.cpp:86] Creating Layer ip1
I0501 04:39:42.133092 26053 net.cpp:408] ip1 <- pool0
I0501 04:39:42.133097 26053 net.cpp:382] ip1 -> ip1
I0501 04:39:42.135233 26053 net.cpp:124] Setting up ip1
I0501 04:39:42.135241 26053 net.cpp:131] Top shape: 111 40 (4440)
I0501 04:39:42.135242 26053 net.cpp:139] Memory required for data: 9565980
I0501 04:39:42.135249 26053 layer_factory.hpp:77] Creating layer relu1
I0501 04:39:42.135255 26053 net.cpp:86] Creating Layer relu1
I0501 04:39:42.135258 26053 net.cpp:408] relu1 <- ip1
I0501 04:39:42.135262 26053 net.cpp:369] relu1 -> ip1 (in-place)
I0501 04:39:42.135421 26053 net.cpp:124] Setting up relu1
I0501 04:39:42.135428 26053 net.cpp:131] Top shape: 111 40 (4440)
I0501 04:39:42.135432 26053 net.cpp:139] Memory required for data: 9583740
I0501 04:39:42.135433 26053 layer_factory.hpp:77] Creating layer ip2
I0501 04:39:42.135439 26053 net.cpp:86] Creating Layer ip2
I0501 04:39:42.135442 26053 net.cpp:408] ip2 <- ip1
I0501 04:39:42.135447 26053 net.cpp:382] ip2 -> ip2
I0501 04:39:42.135543 26053 net.cpp:124] Setting up ip2
I0501 04:39:42.135550 26053 net.cpp:131] Top shape: 111 10 (1110)
I0501 04:39:42.135553 26053 net.cpp:139] Memory required for data: 9588180
I0501 04:39:42.135560 26053 layer_factory.hpp:77] Creating layer relu2
I0501 04:39:42.135565 26053 net.cpp:86] Creating Layer relu2
I0501 04:39:42.135567 26053 net.cpp:408] relu2 <- ip2
I0501 04:39:42.135572 26053 net.cpp:369] relu2 -> ip2 (in-place)
I0501 04:39:42.135715 26053 net.cpp:124] Setting up relu2
I0501 04:39:42.135722 26053 net.cpp:131] Top shape: 111 10 (1110)
I0501 04:39:42.135725 26053 net.cpp:139] Memory required for data: 9592620
I0501 04:39:42.135727 26053 layer_factory.hpp:77] Creating layer ip3
I0501 04:39:42.135735 26053 net.cpp:86] Creating Layer ip3
I0501 04:39:42.135737 26053 net.cpp:408] ip3 <- ip2
I0501 04:39:42.135742 26053 net.cpp:382] ip3 -> ip3
I0501 04:39:42.135854 26053 net.cpp:124] Setting up ip3
I0501 04:39:42.135859 26053 net.cpp:131] Top shape: 111 80 (8880)
I0501 04:39:42.135862 26053 net.cpp:139] Memory required for data: 9628140
I0501 04:39:42.135867 26053 layer_factory.hpp:77] Creating layer relu3
I0501 04:39:42.135871 26053 net.cpp:86] Creating Layer relu3
I0501 04:39:42.135875 26053 net.cpp:408] relu3 <- ip3
I0501 04:39:42.135879 26053 net.cpp:369] relu3 -> ip3 (in-place)
I0501 04:39:42.136039 26053 net.cpp:124] Setting up relu3
I0501 04:39:42.136045 26053 net.cpp:131] Top shape: 111 80 (8880)
I0501 04:39:42.136049 26053 net.cpp:139] Memory required for data: 9663660
I0501 04:39:42.136051 26053 layer_factory.hpp:77] Creating layer ip4
I0501 04:39:42.136072 26053 net.cpp:86] Creating Layer ip4
I0501 04:39:42.136075 26053 net.cpp:408] ip4 <- ip3
I0501 04:39:42.136080 26053 net.cpp:382] ip4 -> ip4
I0501 04:39:42.136190 26053 net.cpp:124] Setting up ip4
I0501 04:39:42.136198 26053 net.cpp:131] Top shape: 111 10 (1110)
I0501 04:39:42.136215 26053 net.cpp:139] Memory required for data: 9668100
I0501 04:39:42.136222 26053 layer_factory.hpp:77] Creating layer loss
I0501 04:39:42.136229 26053 net.cpp:86] Creating Layer loss
I0501 04:39:42.136231 26053 net.cpp:408] loss <- ip4
I0501 04:39:42.136234 26053 net.cpp:408] loss <- label
I0501 04:39:42.136240 26053 net.cpp:382] loss -> loss
I0501 04:39:42.136255 26053 layer_factory.hpp:77] Creating layer loss
…
I0501 04:39:42.137467 26053 solver.cpp:173] Creating test net (#0) specified by net file: ECE595/cifar/train_test/var_everything/cifar_train_test_393.prototxt
I0501 04:39:42.137495 26053 net.cpp:296] The NetState phase (1) differed from the phase (0) specified by a rule in layer cifar
I0501 04:39:42.137586 26053 net.cpp:53] Initializing net from parameters: 
name: "CIFAR"
state {
  phase: TEST
}
layer {
  name: "cifar"
  type: "Data"
  top: "data"
  top: "label"
  include {
    phase: TEST
  }
  transform_param {
    mean_file: "examples/cifar10/mean.binaryproto"
  }
  data_param {
    source: "examples/cifar10/cifar10_test_lmdb"
    batch_size: 1000
    backend: LMDB
  }
}
layer {
  name: "conv0"
  type: "Convolution"
  bottom: "data"
  top: "conv0"
  param {
    lr_mult: 1
  }
  param {
    lr_mult: 2
  }
  convolution_param {
    num_output: 8
    pad: 2
    kernel_size: 5
    stride: 1
    weight_filler {
      type: "gaussian"
      std: 0.01
    }
    bias_filler {
      type: "constant"
    }
  }
}
layer {
  name: "Sigmoid0"
  type: "Sigmoid"
  bottom: "conv0"
  top: "Sigmoid0"
}
layer {
  name: "pool0"
  type: "Pooling"
  bottom: "Sigmoid0"
  top: "pool0"
  pooling_param {
    pool: AVE
    kernel_size: 3
    stride: 2
  }
}
layer {
  name: "ip1"
  type: "InnerProduct"
  bottom: "pool0"
  top: "ip1"
  param {
    lr_mult: 1
  }
  param {
    lr_mult: 2
  }
  inner_product_param {
    num_output: 40
    weight_filler {
      type: "gaussian"
      std: 0.01
    }
    bias_filler {
      type: "constant"
    }
  }
}
layer {
  name: "relu1"
  type: "ReLU"
  bottom: "ip1"
  top: "ip1"
}
layer {
  name: "ip2"
  type: "InnerProduct"
  bottom: "ip1"
  top: "ip2"
  param {
    lr_mult: 1
  }
  param {
    lr_mult: 2
  }
  inner_product_param {
    num_output: 10
    weight_filler {
      type: "gaussian"
      std: 0.01
    }
    bias_filler {
      type: "constant"
    }
  }
}
layer {
  name: "relu2"
  type: "ReLU"
  bottom: "ip2"
  top: "ip2"
}
layer {
  name: "ip3"
  type: "InnerProduct"
  bottom: "ip2"
  top: "ip3"
  param {
    lr_mult: 1
  }
  param {
    lr_mult: 2
  }
  inner_product_param {
    num_output: 80
    weight_filler {
      type: "gaussian"
      std: 0.01
    }
    bias_filler {
      type: "constant"
    }
  }
}
layer {
  name: "relu3"
  type: "ReLU"
  bottom: "ip3"
  top: "ip3"
}
layer {
  name: "ip4"
  type: "InnerProduct"
  bottom: "ip3"
  top: "ip4"
  param {
    lr_mult: 1
  }
  param {
    lr_mult: 2
  }
  inner_product_param {
    num_output: 10
    weight_filler {
      type: "gaussian"
      std: 0.01
    }
    bias_filler {
      type: "constant"
    }
  }
}
layer {
  name: "accuracy"
  type: "Accuracy"
  bottom: "ip4"
  bottom: "label"
  top: "accuracy"
  include {
    phase: TEST
  }
}
layer {
  name: "loss"
  type: "SoftmaxWithLoss"
  bottom: "ip4"
  bottom: "label"
  top: "loss"
}
I0501 04:39:42.137665 26053 layer_factory.hpp:77] Creating layer cifar
I0501 04:39:42.137711 26053 db_lmdb.cpp:35] Opened lmdb examples/cifar10/cifar10_test_lmdb
I0501 04:39:42.137723 26053 net.cpp:86] Creating Layer cifar
I0501 04:39:42.137728 26053 net.cpp:382] cifar -> data
I0501 04:39:42.137737 26053 net.cpp:382] cifar -> label
I0501 04:39:42.137742 26053 data_transformer.cpp:25] Loading mean file from: examples/cifar10/mean.binaryproto
I0501 04:39:42.137876 26053 data_layer.cpp:45] output data size: 1000,3,32,32
I0501 04:39:42.159482 26053 net.cpp:124] Setting up cifar
I0501 04:39:42.159524 26053 net.cpp:131] Top shape: 1000 3 32 32 (3072000)
I0501 04:39:42.159543 26053 net.cpp:131] Top shape: 1000 (1000)
I0501 04:39:42.159546 26053 net.cpp:139] Memory required for data: 12292000
I0501 04:39:42.159551 26053 layer_factory.hpp:77] Creating layer label_cifar_1_split
I0501 04:39:42.159582 26053 net.cpp:86] Creating Layer label_cifar_1_split
I0501 04:39:42.159586 26053 net.cpp:408] label_cifar_1_split <- label
I0501 04:39:42.159592 26053 net.cpp:382] label_cifar_1_split -> label_cifar_1_split_0
I0501 04:39:42.159600 26053 net.cpp:382] label_cifar_1_split -> label_cifar_1_split_1
I0501 04:39:42.159688 26053 net.cpp:124] Setting up label_cifar_1_split
I0501 04:39:42.159696 26053 net.cpp:131] Top shape: 1000 (1000)
I0501 04:39:42.159699 26053 net.cpp:131] Top shape: 1000 (1000)
I0501 04:39:42.159703 26053 net.cpp:139] Memory required for data: 12300000
I0501 04:39:42.159705 26053 layer_factory.hpp:77] Creating layer conv0
I0501 04:39:42.159718 26053 net.cpp:86] Creating Layer conv0
I0501 04:39:42.159720 26053 net.cpp:408] conv0 <- data
I0501 04:39:42.159726 26053 net.cpp:382] conv0 -> conv0
I0501 04:39:42.161487 26053 net.cpp:124] Setting up conv0
I0501 04:39:42.161500 26053 net.cpp:131] Top shape: 1000 8 32 32 (8192000)
I0501 04:39:42.161520 26053 net.cpp:139] Memory required for data: 45068000
I0501 04:39:42.161528 26053 layer_factory.hpp:77] Creating layer Sigmoid0
I0501 04:39:42.161536 26053 net.cpp:86] Creating Layer Sigmoid0
I0501 04:39:42.161540 26053 net.cpp:408] Sigmoid0 <- conv0
I0501 04:39:42.161543 26053 net.cpp:382] Sigmoid0 -> Sigmoid0
I0501 04:39:42.161732 26053 net.cpp:124] Setting up Sigmoid0
I0501 04:39:42.161741 26053 net.cpp:131] Top shape: 1000 8 32 32 (8192000)
I0501 04:39:42.161743 26053 net.cpp:139] Memory required for data: 77836000
I0501 04:39:42.161746 26053 layer_factory.hpp:77] Creating layer pool0
I0501 04:39:42.161754 26053 net.cpp:86] Creating Layer pool0
I0501 04:39:42.161757 26053 net.cpp:408] pool0 <- Sigmoid0
I0501 04:39:42.161762 26053 net.cpp:382] pool0 -> pool0
I0501 04:39:42.161924 26053 net.cpp:124] Setting up pool0
I0501 04:39:42.161932 26053 net.cpp:131] Top shape: 1000 8 16 16 (2048000)
I0501 04:39:42.161936 26053 net.cpp:139] Memory required for data: 86028000
I0501 04:39:42.161938 26053 layer_factory.hpp:77] Creating layer ip1
I0501 04:39:42.161972 26053 net.cpp:86] Creating Layer ip1
I0501 04:39:42.161975 26053 net.cpp:408] ip1 <- pool0
I0501 04:39:42.161980 26053 net.cpp:382] ip1 -> ip1
I0501 04:39:42.164297 26053 net.cpp:124] Setting up ip1
I0501 04:39:42.164305 26053 net.cpp:131] Top shape: 1000 40 (40000)
I0501 04:39:42.164324 26053 net.cpp:139] Memory required for data: 86188000
I0501 04:39:42.164347 26053 layer_factory.hpp:77] Creating layer relu1
I0501 04:39:42.164353 26053 net.cpp:86] Creating Layer relu1
I0501 04:39:42.164356 26053 net.cpp:408] relu1 <- ip1
I0501 04:39:42.164361 26053 net.cpp:369] relu1 -> ip1 (in-place)
I0501 04:39:42.164584 26053 net.cpp:124] Setting up relu1
I0501 04:39:42.164592 26053 net.cpp:131] Top shape: 1000 40 (40000)
I0501 04:39:42.164597 26053 net.cpp:139] Memory required for data: 86348000
I0501 04:39:42.164600 26053 layer_factory.hpp:77] Creating layer ip2
I0501 04:39:42.164607 26053 net.cpp:86] Creating Layer ip2
I0501 04:39:42.164610 26053 net.cpp:408] ip2 <- ip1
I0501 04:39:42.164615 26053 net.cpp:382] ip2 -> ip2
I0501 04:39:42.164749 26053 net.cpp:124] Setting up ip2
I0501 04:39:42.164757 26053 net.cpp:131] Top shape: 1000 10 (10000)
I0501 04:39:42.164759 26053 net.cpp:139] Memory required for data: 86388000
I0501 04:39:42.164767 26053 layer_factory.hpp:77] Creating layer relu2
I0501 04:39:42.164773 26053 net.cpp:86] Creating Layer relu2
I0501 04:39:42.164777 26053 net.cpp:408] relu2 <- ip2
I0501 04:39:42.164782 26053 net.cpp:369] relu2 -> ip2 (in-place)
I0501 04:39:42.165580 26053 net.cpp:124] Setting up relu2
I0501 04:39:42.165591 26053 net.cpp:131] Top shape: 1000 10 (10000)
I0501 04:39:42.165611 26053 net.cpp:139] Memory required for data: 86428000
I0501 04:39:42.165614 26053 layer_factory.hpp:77] Creating layer ip3
I0501 04:39:42.165621 26053 net.cpp:86] Creating Layer ip3
I0501 04:39:42.165626 26053 net.cpp:408] ip3 <- ip2
I0501 04:39:42.165632 26053 net.cpp:382] ip3 -> ip3
I0501 04:39:42.165779 26053 net.cpp:124] Setting up ip3
I0501 04:39:42.165802 26053 net.cpp:131] Top shape: 1000 80 (80000)
I0501 04:39:42.165804 26053 net.cpp:139] Memory required for data: 86748000
I0501 04:39:42.165810 26053 layer_factory.hpp:77] Creating layer relu3
I0501 04:39:42.165815 26053 net.cpp:86] Creating Layer relu3
I0501 04:39:42.165818 26053 net.cpp:408] relu3 <- ip3
I0501 04:39:42.165822 26053 net.cpp:369] relu3 -> ip3 (in-place)
I0501 04:39:42.165971 26053 net.cpp:124] Setting up relu3
I0501 04:39:42.165978 26053 net.cpp:131] Top shape: 1000 80 (80000)
I0501 04:39:42.165982 26053 net.cpp:139] Memory required for data: 87068000
I0501 04:39:42.165984 26053 layer_factory.hpp:77] Creating layer ip4
I0501 04:39:42.165990 26053 net.cpp:86] Creating Layer ip4
I0501 04:39:42.165993 26053 net.cpp:408] ip4 <- ip3
I0501 04:39:42.165998 26053 net.cpp:382] ip4 -> ip4
I0501 04:39:42.166116 26053 net.cpp:124] Setting up ip4
I0501 04:39:42.166123 26053 net.cpp:131] Top shape: 1000 10 (10000)
I0501 04:39:42.166126 26053 net.cpp:139] Memory required for data: 87108000
I0501 04:39:42.166134 26053 layer_factory.hpp:77] Creating layer ip4_ip4_0_split
I0501 04:39:42.166139 26053 net.cpp:86] Creating Layer ip4_ip4_0_split
I0501 04:39:42.166142 26053 net.cpp:408] ip4_ip4_0_split <- ip4
I0501 04:39:42.166147 26053 net.cpp:382] ip4_ip4_0_split -> ip4_ip4_0_split_0
I0501 04:39:42.166152 26053 net.cpp:382] ip4_ip4_0_split -> ip4_ip4_0_split_1
I0501 04:39:42.166182 26053 net.cpp:124] Setting up ip4_ip4_0_split
I0501 04:39:42.166185 26053 net.cpp:131] Top shape: 1000 10 (10000)
I0501 04:39:42.166189 26053 net.cpp:131] Top shape: 1000 10 (10000)
I0501 04:39:42.166191 26053 net.cpp:139] Memory required for data: 87188000
I0501 04:39:42.166194 26053 layer_factory.hpp:77] Creating layer accuracy
I0501 04:39:42.166200 26053 net.cpp:86] Creating Layer accuracy
I0501 04:39:42.166203 26053 net.cpp:408] accuracy <- ip4_ip4_0_split_0
I0501 04:39:42.166224 26053 net.cpp:408] accuracy <- label_cifar_1_split_0
I0501 04:39:42.166229 26053 net.cpp:382] accuracy -> accuracy
…
