…
I0430 22:21:42.200100  1728 net.cpp:296] The NetState phase (0) differed from the phase (1) specified by a rule in layer cifar
I0430 22:21:42.200119  1728 net.cpp:296] The NetState phase (0) differed from the phase (1) specified by a rule in layer accuracy
I0430 22:21:42.200217  1728 net.cpp:53] Initializing net from parameters: 
name: "CIFAR"
state {
  phase: TRAIN
  level: 0
  stage: ""
}
layer {
  name: "cifar"
  type: "Data"
  top: "data"
  top: "label"
  include {
    phase: TRAIN
  }
  transform_param {
    mean_file: "examples/cifar10/mean.binaryproto"
  }
  data_param {
    source: "examples/cifar10/cifar10_train_lmdb"
    batch_size: 111
    backend: LMDB
  }
}
layer {
  name: "conv0"
  type: "Convolution"
  bottom: "data"
  top: "conv0"
  param {
    lr_mult: 1
  }
  param {
    lr_mult: 2
  }
  convolution_param {
    num_output: 8
    pad: 2
    kernel_size: 3
    stride: 1
    weight_filler {
      type: "gaussian"
      std: 0.01
    }
    bias_filler {
      type: "constant"
    }
  }
}
layer {
  name: "Sigmoid0"
  type: "Sigmoid"
  bottom: "conv0"
  top: "Sigmoid0"
}
layer {
  name: "pool0"
  type: "Pooling"
  bottom: "Sigmoid0"
  top: "pool0"
  pooling_param {
    pool: AVE
    kernel_size: 3
    stride: 2
  }
}
layer {
  name: "ip1"
  type: "InnerProduct"
  bottom: "pool0"
  top: "ip1"
  param {
    lr_mult: 1
  }
  param {
    lr_mult: 2
  }
  inner_product_param {
    num_output: 10
    weight_filler {
      type: "gaussian"
      std: 0.01
    }
    bias_filler {
      type: "constant"
    }
  }
}
layer {
  name: "relu1"
  type: "ReLU"
  bottom: "ip1"
  top: "ip1"
}
layer {
  name: "ip2"
  type: "InnerProduct"
  bottom: "ip1"
  top: "ip2"
  param {
    lr_mult: 1
  }
  param {
    lr_mult: 2
  }
  inner_product_param {
    num_output: 20
    weight_filler {
      type: "gaussian"
      std: 0.01
    }
    bias_filler {
      type: "constant"
    }
  }
}
layer {
  name: "relu2"
  type: "ReLU"
  bottom: "ip2"
  top: "ip2"
}
layer {
  name: "ip3"
  type: "InnerProduct"
  bottom: "ip2"
  top: "ip3"
  param {
    lr_mult: 1
  }
  param {
    lr_mult: 2
  }
  inner_product_param {
    num_output: 20
    weight_filler {
      type: "gaussian"
      std: 0.01
    }
    bias_filler {
      type: "constant"
    }
  }
}
layer {
  name: "relu3"
  type: "ReLU"
  bottom: "ip3"
  top: "ip3"
}
layer {
  name: "ip4"
  type: "InnerProduct"
  bottom: "ip3"
  top: "ip4"
  param {
    lr_mult: 1
  }
  param {
    lr_mult: 2
  }
  inner_product_param {
    num_output: 10
    weight_filler {
      type: "gaussian"
      std: 0.01
    }
    bias_filler {
      type: "constant"
    }
  }
}
layer {
  name: "loss"
  type: "SoftmaxWithLoss"
  bottom: "ip4"
  bottom: "label"
  top: "loss"
}
I0430 22:21:42.200290  1728 layer_factory.hpp:77] Creating layer cifar
I0430 22:21:42.200378  1728 db_lmdb.cpp:35] Opened lmdb examples/cifar10/cifar10_train_lmdb
I0430 22:21:42.200404  1728 net.cpp:86] Creating Layer cifar
I0430 22:21:42.200412  1728 net.cpp:382] cifar -> data
I0430 22:21:42.200431  1728 net.cpp:382] cifar -> label
I0430 22:21:42.200443  1728 data_transformer.cpp:25] Loading mean file from: examples/cifar10/mean.binaryproto
I0430 22:21:42.202395  1728 data_layer.cpp:45] output data size: 111,3,32,32
I0430 22:21:42.209602  1728 net.cpp:124] Setting up cifar
I0430 22:21:42.209619  1728 net.cpp:131] Top shape: 111 3 32 32 (340992)
I0430 22:21:42.209638  1728 net.cpp:131] Top shape: 111 (111)
I0430 22:21:42.209641  1728 net.cpp:139] Memory required for data: 1364412
I0430 22:21:42.209663  1728 layer_factory.hpp:77] Creating layer conv0
I0430 22:21:42.209679  1728 net.cpp:86] Creating Layer conv0
I0430 22:21:42.209684  1728 net.cpp:408] conv0 <- data
I0430 22:21:42.209697  1728 net.cpp:382] conv0 -> conv0
I0430 22:21:42.441414  1728 net.cpp:124] Setting up conv0
I0430 22:21:42.441455  1728 net.cpp:131] Top shape: 111 8 34 34 (1026528)
I0430 22:21:42.441459  1728 net.cpp:139] Memory required for data: 5470524
I0430 22:21:42.441473  1728 layer_factory.hpp:77] Creating layer Sigmoid0
I0430 22:21:42.441485  1728 net.cpp:86] Creating Layer Sigmoid0
I0430 22:21:42.441489  1728 net.cpp:408] Sigmoid0 <- conv0
I0430 22:21:42.441495  1728 net.cpp:382] Sigmoid0 -> Sigmoid0
I0430 22:21:42.441715  1728 net.cpp:124] Setting up Sigmoid0
I0430 22:21:42.441725  1728 net.cpp:131] Top shape: 111 8 34 34 (1026528)
I0430 22:21:42.441727  1728 net.cpp:139] Memory required for data: 9576636
I0430 22:21:42.441731  1728 layer_factory.hpp:77] Creating layer pool0
I0430 22:21:42.441738  1728 net.cpp:86] Creating Layer pool0
I0430 22:21:42.441741  1728 net.cpp:408] pool0 <- Sigmoid0
I0430 22:21:42.441745  1728 net.cpp:382] pool0 -> pool0
I0430 22:21:42.442538  1728 net.cpp:124] Setting up pool0
I0430 22:21:42.442550  1728 net.cpp:131] Top shape: 111 8 17 17 (256632)
I0430 22:21:42.442553  1728 net.cpp:139] Memory required for data: 10603164
I0430 22:21:42.442572  1728 layer_factory.hpp:77] Creating layer ip1
I0430 22:21:42.442581  1728 net.cpp:86] Creating Layer ip1
I0430 22:21:42.442584  1728 net.cpp:408] ip1 <- pool0
I0430 22:21:42.442589  1728 net.cpp:382] ip1 -> ip1
I0430 22:21:42.444124  1728 net.cpp:124] Setting up ip1
I0430 22:21:42.444135  1728 net.cpp:131] Top shape: 111 10 (1110)
I0430 22:21:42.444154  1728 net.cpp:139] Memory required for data: 10607604
I0430 22:21:42.444162  1728 layer_factory.hpp:77] Creating layer relu1
I0430 22:21:42.444169  1728 net.cpp:86] Creating Layer relu1
I0430 22:21:42.444171  1728 net.cpp:408] relu1 <- ip1
I0430 22:21:42.444175  1728 net.cpp:369] relu1 -> ip1 (in-place)
I0430 22:21:42.444316  1728 net.cpp:124] Setting up relu1
I0430 22:21:42.444324  1728 net.cpp:131] Top shape: 111 10 (1110)
I0430 22:21:42.444327  1728 net.cpp:139] Memory required for data: 10612044
I0430 22:21:42.444330  1728 layer_factory.hpp:77] Creating layer ip2
I0430 22:21:42.444336  1728 net.cpp:86] Creating Layer ip2
I0430 22:21:42.444339  1728 net.cpp:408] ip2 <- ip1
I0430 22:21:42.444344  1728 net.cpp:382] ip2 -> ip2
I0430 22:21:42.444434  1728 net.cpp:124] Setting up ip2
I0430 22:21:42.444440  1728 net.cpp:131] Top shape: 111 20 (2220)
I0430 22:21:42.444443  1728 net.cpp:139] Memory required for data: 10620924
I0430 22:21:42.444450  1728 layer_factory.hpp:77] Creating layer relu2
I0430 22:21:42.444455  1728 net.cpp:86] Creating Layer relu2
I0430 22:21:42.444458  1728 net.cpp:408] relu2 <- ip2
I0430 22:21:42.444463  1728 net.cpp:369] relu2 -> ip2 (in-place)
I0430 22:21:42.444597  1728 net.cpp:124] Setting up relu2
I0430 22:21:42.444605  1728 net.cpp:131] Top shape: 111 20 (2220)
I0430 22:21:42.444608  1728 net.cpp:139] Memory required for data: 10629804
I0430 22:21:42.444610  1728 layer_factory.hpp:77] Creating layer ip3
I0430 22:21:42.444617  1728 net.cpp:86] Creating Layer ip3
I0430 22:21:42.444620  1728 net.cpp:408] ip3 <- ip2
I0430 22:21:42.444624  1728 net.cpp:382] ip3 -> ip3
I0430 22:21:42.445643  1728 net.cpp:124] Setting up ip3
I0430 22:21:42.445655  1728 net.cpp:131] Top shape: 111 20 (2220)
I0430 22:21:42.445658  1728 net.cpp:139] Memory required for data: 10638684
I0430 22:21:42.445663  1728 layer_factory.hpp:77] Creating layer relu3
I0430 22:21:42.445668  1728 net.cpp:86] Creating Layer relu3
I0430 22:21:42.445672  1728 net.cpp:408] relu3 <- ip3
I0430 22:21:42.445675  1728 net.cpp:369] relu3 -> ip3 (in-place)
I0430 22:21:42.445816  1728 net.cpp:124] Setting up relu3
I0430 22:21:42.445823  1728 net.cpp:131] Top shape: 111 20 (2220)
I0430 22:21:42.445827  1728 net.cpp:139] Memory required for data: 10647564
I0430 22:21:42.445829  1728 layer_factory.hpp:77] Creating layer ip4
I0430 22:21:42.445848  1728 net.cpp:86] Creating Layer ip4
I0430 22:21:42.445852  1728 net.cpp:408] ip4 <- ip3
I0430 22:21:42.445855  1728 net.cpp:382] ip4 -> ip4
I0430 22:21:42.445960  1728 net.cpp:124] Setting up ip4
I0430 22:21:42.445967  1728 net.cpp:131] Top shape: 111 10 (1110)
I0430 22:21:42.445971  1728 net.cpp:139] Memory required for data: 10652004
I0430 22:21:42.445977  1728 layer_factory.hpp:77] Creating layer loss
I0430 22:21:42.445983  1728 net.cpp:86] Creating Layer loss
I0430 22:21:42.445986  1728 net.cpp:408] loss <- ip4
I0430 22:21:42.445989  1728 net.cpp:408] loss <- label
I0430 22:21:42.445994  1728 net.cpp:382] loss -> loss
I0430 22:21:42.446010  1728 layer_factory.hpp:77] Creating layer loss
…
I0430 22:21:42.447180  1728 solver.cpp:173] Creating test net (#0) specified by net file: ECE595/cifar/train_test/var_everything/cifar_train_test_191.prototxt
I0430 22:21:42.447207  1728 net.cpp:296] The NetState phase (1) differed from the phase (0) specified by a rule in layer cifar
I0430 22:21:42.447319  1728 net.cpp:53] Initializing net from parameters: 
name: "CIFAR"
state {
  phase: TEST
}
layer {
  name: "cifar"
  type: "Data"
  top: "data"
  top: "label"
  include {
    phase: TEST
  }
  transform_param {
    mean_file: "examples/cifar10/mean.binaryproto"
  }
  data_param {
    source: "examples/cifar10/cifar10_test_lmdb"
    batch_size: 1000
    backend: LMDB
  }
}
layer {
  name: "conv0"
  type: "Convolution"
  bottom: "data"
  top: "conv0"
  param {
    lr_mult: 1
  }
  param {
    lr_mult: 2
  }
  convolution_param {
    num_output: 8
    pad: 2
    kernel_size: 3
    stride: 1
    weight_filler {
      type: "gaussian"
      std: 0.01
    }
    bias_filler {
      type: "constant"
    }
  }
}
layer {
  name: "Sigmoid0"
  type: "Sigmoid"
  bottom: "conv0"
  top: "Sigmoid0"
}
layer {
  name: "pool0"
  type: "Pooling"
  bottom: "Sigmoid0"
  top: "pool0"
  pooling_param {
    pool: AVE
    kernel_size: 3
    stride: 2
  }
}
layer {
  name: "ip1"
  type: "InnerProduct"
  bottom: "pool0"
  top: "ip1"
  param {
    lr_mult: 1
  }
  param {
    lr_mult: 2
  }
  inner_product_param {
    num_output: 10
    weight_filler {
      type: "gaussian"
      std: 0.01
    }
    bias_filler {
      type: "constant"
    }
  }
}
layer {
  name: "relu1"
  type: "ReLU"
  bottom: "ip1"
  top: "ip1"
}
layer {
  name: "ip2"
  type: "InnerProduct"
  bottom: "ip1"
  top: "ip2"
  param {
    lr_mult: 1
  }
  param {
    lr_mult: 2
  }
  inner_product_param {
    num_output: 20
    weight_filler {
      type: "gaussian"
      std: 0.01
    }
    bias_filler {
      type: "constant"
    }
  }
}
layer {
  name: "relu2"
  type: "ReLU"
  bottom: "ip2"
  top: "ip2"
}
layer {
  name: "ip3"
  type: "InnerProduct"
  bottom: "ip2"
  top: "ip3"
  param {
    lr_mult: 1
  }
  param {
    lr_mult: 2
  }
  inner_product_param {
    num_output: 20
    weight_filler {
      type: "gaussian"
      std: 0.01
    }
    bias_filler {
      type: "constant"
    }
  }
}
layer {
  name: "relu3"
  type: "ReLU"
  bottom: "ip3"
  top: "ip3"
}
layer {
  name: "ip4"
  type: "InnerProduct"
  bottom: "ip3"
  top: "ip4"
  param {
    lr_mult: 1
  }
  param {
    lr_mult: 2
  }
  inner_product_param {
    num_output: 10
    weight_filler {
      type: "gaussian"
      std: 0.01
    }
    bias_filler {
      type: "constant"
    }
  }
}
layer {
  name: "accuracy"
  type: "Accuracy"
  bottom: "ip4"
  bottom: "label"
  top: "accuracy"
  include {
    phase: TEST
  }
}
layer {
  name: "loss"
  type: "SoftmaxWithLoss"
  bottom: "ip4"
  bottom: "label"
  top: "loss"
}
I0430 22:21:42.447419  1728 layer_factory.hpp:77] Creating layer cifar
I0430 22:21:42.447463  1728 db_lmdb.cpp:35] Opened lmdb examples/cifar10/cifar10_test_lmdb
I0430 22:21:42.447474  1728 net.cpp:86] Creating Layer cifar
I0430 22:21:42.447479  1728 net.cpp:382] cifar -> data
I0430 22:21:42.447485  1728 net.cpp:382] cifar -> label
I0430 22:21:42.447491  1728 data_transformer.cpp:25] Loading mean file from: examples/cifar10/mean.binaryproto
I0430 22:21:42.447619  1728 data_layer.cpp:45] output data size: 1000,3,32,32
I0430 22:21:42.470417  1728 net.cpp:124] Setting up cifar
I0430 22:21:42.470458  1728 net.cpp:131] Top shape: 1000 3 32 32 (3072000)
I0430 22:21:42.470463  1728 net.cpp:131] Top shape: 1000 (1000)
I0430 22:21:42.470465  1728 net.cpp:139] Memory required for data: 12292000
I0430 22:21:42.470471  1728 layer_factory.hpp:77] Creating layer label_cifar_1_split
I0430 22:21:42.470504  1728 net.cpp:86] Creating Layer label_cifar_1_split
I0430 22:21:42.470510  1728 net.cpp:408] label_cifar_1_split <- label
I0430 22:21:42.470515  1728 net.cpp:382] label_cifar_1_split -> label_cifar_1_split_0
I0430 22:21:42.470525  1728 net.cpp:382] label_cifar_1_split -> label_cifar_1_split_1
I0430 22:21:42.470619  1728 net.cpp:124] Setting up label_cifar_1_split
I0430 22:21:42.470626  1728 net.cpp:131] Top shape: 1000 (1000)
I0430 22:21:42.470630  1728 net.cpp:131] Top shape: 1000 (1000)
I0430 22:21:42.470633  1728 net.cpp:139] Memory required for data: 12300000
I0430 22:21:42.470635  1728 layer_factory.hpp:77] Creating layer conv0
I0430 22:21:42.470648  1728 net.cpp:86] Creating Layer conv0
I0430 22:21:42.470650  1728 net.cpp:408] conv0 <- data
I0430 22:21:42.470655  1728 net.cpp:382] conv0 -> conv0
I0430 22:21:42.472278  1728 net.cpp:124] Setting up conv0
I0430 22:21:42.472307  1728 net.cpp:131] Top shape: 1000 8 34 34 (9248000)
I0430 22:21:42.472311  1728 net.cpp:139] Memory required for data: 49292000
I0430 22:21:42.472321  1728 layer_factory.hpp:77] Creating layer Sigmoid0
I0430 22:21:42.472328  1728 net.cpp:86] Creating Layer Sigmoid0
I0430 22:21:42.472332  1728 net.cpp:408] Sigmoid0 <- conv0
I0430 22:21:42.472337  1728 net.cpp:382] Sigmoid0 -> Sigmoid0
I0430 22:21:42.472519  1728 net.cpp:124] Setting up Sigmoid0
I0430 22:21:42.472527  1728 net.cpp:131] Top shape: 1000 8 34 34 (9248000)
I0430 22:21:42.472532  1728 net.cpp:139] Memory required for data: 86284000
I0430 22:21:42.472534  1728 layer_factory.hpp:77] Creating layer pool0
I0430 22:21:42.472542  1728 net.cpp:86] Creating Layer pool0
I0430 22:21:42.472544  1728 net.cpp:408] pool0 <- Sigmoid0
I0430 22:21:42.472548  1728 net.cpp:382] pool0 -> pool0
I0430 22:21:42.472698  1728 net.cpp:124] Setting up pool0
I0430 22:21:42.472707  1728 net.cpp:131] Top shape: 1000 8 17 17 (2312000)
I0430 22:21:42.472709  1728 net.cpp:139] Memory required for data: 95532000
I0430 22:21:42.472712  1728 layer_factory.hpp:77] Creating layer ip1
I0430 22:21:42.472719  1728 net.cpp:86] Creating Layer ip1
I0430 22:21:42.472723  1728 net.cpp:408] ip1 <- pool0
I0430 22:21:42.472728  1728 net.cpp:382] ip1 -> ip1
I0430 22:21:42.473994  1728 net.cpp:124] Setting up ip1
I0430 22:21:42.474004  1728 net.cpp:131] Top shape: 1000 10 (10000)
I0430 22:21:42.474022  1728 net.cpp:139] Memory required for data: 95572000
I0430 22:21:42.474046  1728 layer_factory.hpp:77] Creating layer relu1
I0430 22:21:42.474052  1728 net.cpp:86] Creating Layer relu1
I0430 22:21:42.474056  1728 net.cpp:408] relu1 <- ip1
I0430 22:21:42.474059  1728 net.cpp:369] relu1 -> ip1 (in-place)
I0430 22:21:42.474212  1728 net.cpp:124] Setting up relu1
I0430 22:21:42.474220  1728 net.cpp:131] Top shape: 1000 10 (10000)
I0430 22:21:42.474225  1728 net.cpp:139] Memory required for data: 95612000
I0430 22:21:42.474227  1728 layer_factory.hpp:77] Creating layer ip2
I0430 22:21:42.474232  1728 net.cpp:86] Creating Layer ip2
I0430 22:21:42.474236  1728 net.cpp:408] ip2 <- ip1
I0430 22:21:42.474241  1728 net.cpp:382] ip2 -> ip2
I0430 22:21:42.474344  1728 net.cpp:124] Setting up ip2
I0430 22:21:42.474351  1728 net.cpp:131] Top shape: 1000 20 (20000)
I0430 22:21:42.474354  1728 net.cpp:139] Memory required for data: 95692000
I0430 22:21:42.474361  1728 layer_factory.hpp:77] Creating layer relu2
I0430 22:21:42.474382  1728 net.cpp:86] Creating Layer relu2
I0430 22:21:42.474386  1728 net.cpp:408] relu2 <- ip2
I0430 22:21:42.474390  1728 net.cpp:369] relu2 -> ip2 (in-place)
I0430 22:21:42.475169  1728 net.cpp:124] Setting up relu2
I0430 22:21:42.475180  1728 net.cpp:131] Top shape: 1000 20 (20000)
I0430 22:21:42.475203  1728 net.cpp:139] Memory required for data: 95772000
I0430 22:21:42.475206  1728 layer_factory.hpp:77] Creating layer ip3
I0430 22:21:42.475220  1728 net.cpp:86] Creating Layer ip3
I0430 22:21:42.475224  1728 net.cpp:408] ip3 <- ip2
I0430 22:21:42.475229  1728 net.cpp:382] ip3 -> ip3
I0430 22:21:42.475337  1728 net.cpp:124] Setting up ip3
I0430 22:21:42.475344  1728 net.cpp:131] Top shape: 1000 20 (20000)
I0430 22:21:42.475347  1728 net.cpp:139] Memory required for data: 95852000
I0430 22:21:42.475353  1728 layer_factory.hpp:77] Creating layer relu3
I0430 22:21:42.475358  1728 net.cpp:86] Creating Layer relu3
I0430 22:21:42.475360  1728 net.cpp:408] relu3 <- ip3
I0430 22:21:42.475365  1728 net.cpp:369] relu3 -> ip3 (in-place)
I0430 22:21:42.475522  1728 net.cpp:124] Setting up relu3
I0430 22:21:42.475536  1728 net.cpp:131] Top shape: 1000 20 (20000)
I0430 22:21:42.475539  1728 net.cpp:139] Memory required for data: 95932000
I0430 22:21:42.475543  1728 layer_factory.hpp:77] Creating layer ip4
I0430 22:21:42.475548  1728 net.cpp:86] Creating Layer ip4
I0430 22:21:42.475551  1728 net.cpp:408] ip4 <- ip3
I0430 22:21:42.475558  1728 net.cpp:382] ip4 -> ip4
I0430 22:21:42.475657  1728 net.cpp:124] Setting up ip4
I0430 22:21:42.475664  1728 net.cpp:131] Top shape: 1000 10 (10000)
I0430 22:21:42.475667  1728 net.cpp:139] Memory required for data: 95972000
I0430 22:21:42.475675  1728 layer_factory.hpp:77] Creating layer ip4_ip4_0_split
I0430 22:21:42.475680  1728 net.cpp:86] Creating Layer ip4_ip4_0_split
I0430 22:21:42.475683  1728 net.cpp:408] ip4_ip4_0_split <- ip4
I0430 22:21:42.475688  1728 net.cpp:382] ip4_ip4_0_split -> ip4_ip4_0_split_0
I0430 22:21:42.475693  1728 net.cpp:382] ip4_ip4_0_split -> ip4_ip4_0_split_1
I0430 22:21:42.475721  1728 net.cpp:124] Setting up ip4_ip4_0_split
I0430 22:21:42.475726  1728 net.cpp:131] Top shape: 1000 10 (10000)
I0430 22:21:42.475729  1728 net.cpp:131] Top shape: 1000 10 (10000)
I0430 22:21:42.475733  1728 net.cpp:139] Memory required for data: 96052000
I0430 22:21:42.475735  1728 layer_factory.hpp:77] Creating layer accuracy
I0430 22:21:42.475740  1728 net.cpp:86] Creating Layer accuracy
I0430 22:21:42.475744  1728 net.cpp:408] accuracy <- ip4_ip4_0_split_0
I0430 22:21:42.475749  1728 net.cpp:408] accuracy <- label_cifar_1_split_0
I0430 22:21:42.475754  1728 net.cpp:382] accuracy -> accuracy
…
