…
I0430 22:03:04.634039 32697 net.cpp:296] The NetState phase (0) differed from the phase (1) specified by a rule in layer cifar
I0430 22:03:04.634057 32697 net.cpp:296] The NetState phase (0) differed from the phase (1) specified by a rule in layer accuracy
I0430 22:03:04.634148 32697 net.cpp:53] Initializing net from parameters: 
name: "CIFAR"
state {
  phase: TRAIN
  level: 0
  stage: ""
}
layer {
  name: "cifar"
  type: "Data"
  top: "data"
  top: "label"
  include {
    phase: TRAIN
  }
  transform_param {
    mean_file: "examples/cifar10/mean.binaryproto"
  }
  data_param {
    source: "examples/cifar10/cifar10_train_lmdb"
    batch_size: 111
    backend: LMDB
  }
}
layer {
  name: "conv0"
  type: "Convolution"
  bottom: "data"
  top: "conv0"
  param {
    lr_mult: 1
  }
  param {
    lr_mult: 2
  }
  convolution_param {
    num_output: 8
    pad: 2
    kernel_size: 3
    stride: 1
    weight_filler {
      type: "gaussian"
      std: 0.01
    }
    bias_filler {
      type: "constant"
    }
  }
}
layer {
  name: "Sigmoid0"
  type: "Sigmoid"
  bottom: "conv0"
  top: "Sigmoid0"
}
layer {
  name: "pool0"
  type: "Pooling"
  bottom: "Sigmoid0"
  top: "pool0"
  pooling_param {
    pool: AVE
    kernel_size: 3
    stride: 2
  }
}
layer {
  name: "ip1"
  type: "InnerProduct"
  bottom: "pool0"
  top: "ip1"
  param {
    lr_mult: 1
  }
  param {
    lr_mult: 2
  }
  inner_product_param {
    num_output: 160
    weight_filler {
      type: "gaussian"
      std: 0.01
    }
    bias_filler {
      type: "constant"
    }
  }
}
layer {
  name: "relu1"
  type: "ReLU"
  bottom: "ip1"
  top: "ip1"
}
layer {
  name: "ip2"
  type: "InnerProduct"
  bottom: "ip1"
  top: "ip2"
  param {
    lr_mult: 1
  }
  param {
    lr_mult: 2
  }
  inner_product_param {
    num_output: 20
    weight_filler {
      type: "gaussian"
      std: 0.01
    }
    bias_filler {
      type: "constant"
    }
  }
}
layer {
  name: "relu2"
  type: "ReLU"
  bottom: "ip2"
  top: "ip2"
}
layer {
  name: "ip3"
  type: "InnerProduct"
  bottom: "ip2"
  top: "ip3"
  param {
    lr_mult: 1
  }
  param {
    lr_mult: 2
  }
  inner_product_param {
    num_output: 10
    weight_filler {
      type: "gaussian"
      std: 0.01
    }
    bias_filler {
      type: "constant"
    }
  }
}
layer {
  name: "loss"
  type: "SoftmaxWithLoss"
  bottom: "ip3"
  bottom: "label"
  top: "loss"
}
I0430 22:03:04.634224 32697 layer_factory.hpp:77] Creating layer cifar
I0430 22:03:04.634325 32697 db_lmdb.cpp:35] Opened lmdb examples/cifar10/cifar10_train_lmdb
I0430 22:03:04.634356 32697 net.cpp:86] Creating Layer cifar
I0430 22:03:04.634366 32697 net.cpp:382] cifar -> data
I0430 22:03:04.634389 32697 net.cpp:382] cifar -> label
I0430 22:03:04.634403 32697 data_transformer.cpp:25] Loading mean file from: examples/cifar10/mean.binaryproto
I0430 22:03:04.636512 32697 data_layer.cpp:45] output data size: 111,3,32,32
I0430 22:03:04.644623 32697 net.cpp:124] Setting up cifar
I0430 22:03:04.644644 32697 net.cpp:131] Top shape: 111 3 32 32 (340992)
I0430 22:03:04.644649 32697 net.cpp:131] Top shape: 111 (111)
I0430 22:03:04.644654 32697 net.cpp:139] Memory required for data: 1364412
I0430 22:03:04.644660 32697 layer_factory.hpp:77] Creating layer conv0
I0430 22:03:04.644678 32697 net.cpp:86] Creating Layer conv0
I0430 22:03:04.644685 32697 net.cpp:408] conv0 <- data
I0430 22:03:04.644696 32697 net.cpp:382] conv0 -> conv0
I0430 22:03:04.887636 32697 net.cpp:124] Setting up conv0
I0430 22:03:04.887699 32697 net.cpp:131] Top shape: 111 8 34 34 (1026528)
I0430 22:03:04.887704 32697 net.cpp:139] Memory required for data: 5470524
I0430 22:03:04.887719 32697 layer_factory.hpp:77] Creating layer Sigmoid0
I0430 22:03:04.887730 32697 net.cpp:86] Creating Layer Sigmoid0
I0430 22:03:04.887734 32697 net.cpp:408] Sigmoid0 <- conv0
I0430 22:03:04.887739 32697 net.cpp:382] Sigmoid0 -> Sigmoid0
I0430 22:03:04.887946 32697 net.cpp:124] Setting up Sigmoid0
I0430 22:03:04.887956 32697 net.cpp:131] Top shape: 111 8 34 34 (1026528)
I0430 22:03:04.887959 32697 net.cpp:139] Memory required for data: 9576636
I0430 22:03:04.887962 32697 layer_factory.hpp:77] Creating layer pool0
I0430 22:03:04.887969 32697 net.cpp:86] Creating Layer pool0
I0430 22:03:04.887972 32697 net.cpp:408] pool0 <- Sigmoid0
I0430 22:03:04.887976 32697 net.cpp:382] pool0 -> pool0
I0430 22:03:04.888720 32697 net.cpp:124] Setting up pool0
I0430 22:03:04.888747 32697 net.cpp:131] Top shape: 111 8 17 17 (256632)
I0430 22:03:04.888751 32697 net.cpp:139] Memory required for data: 10603164
I0430 22:03:04.888753 32697 layer_factory.hpp:77] Creating layer ip1
I0430 22:03:04.888763 32697 net.cpp:86] Creating Layer ip1
I0430 22:03:04.888767 32697 net.cpp:408] ip1 <- pool0
I0430 22:03:04.888772 32697 net.cpp:382] ip1 -> ip1
I0430 22:03:04.899320 32697 net.cpp:124] Setting up ip1
I0430 22:03:04.899333 32697 net.cpp:131] Top shape: 111 160 (17760)
I0430 22:03:04.899351 32697 net.cpp:139] Memory required for data: 10674204
I0430 22:03:04.899359 32697 layer_factory.hpp:77] Creating layer relu1
I0430 22:03:04.899365 32697 net.cpp:86] Creating Layer relu1
I0430 22:03:04.899369 32697 net.cpp:408] relu1 <- ip1
I0430 22:03:04.899374 32697 net.cpp:369] relu1 -> ip1 (in-place)
I0430 22:03:04.899543 32697 net.cpp:124] Setting up relu1
I0430 22:03:04.899551 32697 net.cpp:131] Top shape: 111 160 (17760)
I0430 22:03:04.899554 32697 net.cpp:139] Memory required for data: 10745244
I0430 22:03:04.899557 32697 layer_factory.hpp:77] Creating layer ip2
I0430 22:03:04.899564 32697 net.cpp:86] Creating Layer ip2
I0430 22:03:04.899567 32697 net.cpp:408] ip2 <- ip1
I0430 22:03:04.899572 32697 net.cpp:382] ip2 -> ip2
I0430 22:03:04.899776 32697 net.cpp:124] Setting up ip2
I0430 22:03:04.899783 32697 net.cpp:131] Top shape: 111 20 (2220)
I0430 22:03:04.899786 32697 net.cpp:139] Memory required for data: 10754124
I0430 22:03:04.899793 32697 layer_factory.hpp:77] Creating layer relu2
I0430 22:03:04.899801 32697 net.cpp:86] Creating Layer relu2
I0430 22:03:04.899821 32697 net.cpp:408] relu2 <- ip2
I0430 22:03:04.899826 32697 net.cpp:369] relu2 -> ip2 (in-place)
I0430 22:03:04.899999 32697 net.cpp:124] Setting up relu2
I0430 22:03:04.900007 32697 net.cpp:131] Top shape: 111 20 (2220)
I0430 22:03:04.900010 32697 net.cpp:139] Memory required for data: 10763004
I0430 22:03:04.900013 32697 layer_factory.hpp:77] Creating layer ip3
I0430 22:03:04.900022 32697 net.cpp:86] Creating Layer ip3
I0430 22:03:04.900024 32697 net.cpp:408] ip3 <- ip2
I0430 22:03:04.900029 32697 net.cpp:382] ip3 -> ip3
I0430 22:03:04.900174 32697 net.cpp:124] Setting up ip3
I0430 22:03:04.900182 32697 net.cpp:131] Top shape: 111 10 (1110)
I0430 22:03:04.900185 32697 net.cpp:139] Memory required for data: 10767444
I0430 22:03:04.900192 32697 layer_factory.hpp:77] Creating layer loss
I0430 22:03:04.900197 32697 net.cpp:86] Creating Layer loss
I0430 22:03:04.900200 32697 net.cpp:408] loss <- ip3
I0430 22:03:04.900204 32697 net.cpp:408] loss <- label
I0430 22:03:04.900224 32697 net.cpp:382] loss -> loss
I0430 22:03:04.900243 32697 layer_factory.hpp:77] Creating layer loss
…
I0430 22:03:04.901033 32697 solver.cpp:173] Creating test net (#0) specified by net file: ECE595/cifar/train_test/var_everything/cifar_train_test_181.prototxt
I0430 22:03:04.901074 32697 net.cpp:296] The NetState phase (1) differed from the phase (0) specified by a rule in layer cifar
I0430 22:03:04.901206 32697 net.cpp:53] Initializing net from parameters: 
name: "CIFAR"
state {
  phase: TEST
}
layer {
  name: "cifar"
  type: "Data"
  top: "data"
  top: "label"
  include {
    phase: TEST
  }
  transform_param {
    mean_file: "examples/cifar10/mean.binaryproto"
  }
  data_param {
    source: "examples/cifar10/cifar10_test_lmdb"
    batch_size: 1000
    backend: LMDB
  }
}
layer {
  name: "conv0"
  type: "Convolution"
  bottom: "data"
  top: "conv0"
  param {
    lr_mult: 1
  }
  param {
    lr_mult: 2
  }
  convolution_param {
    num_output: 8
    pad: 2
    kernel_size: 3
    stride: 1
    weight_filler {
      type: "gaussian"
      std: 0.01
    }
    bias_filler {
      type: "constant"
    }
  }
}
layer {
  name: "Sigmoid0"
  type: "Sigmoid"
  bottom: "conv0"
  top: "Sigmoid0"
}
layer {
  name: "pool0"
  type: "Pooling"
  bottom: "Sigmoid0"
  top: "pool0"
  pooling_param {
    pool: AVE
    kernel_size: 3
    stride: 2
  }
}
layer {
  name: "ip1"
  type: "InnerProduct"
  bottom: "pool0"
  top: "ip1"
  param {
    lr_mult: 1
  }
  param {
    lr_mult: 2
  }
  inner_product_param {
    num_output: 160
    weight_filler {
      type: "gaussian"
      std: 0.01
    }
    bias_filler {
      type: "constant"
    }
  }
}
layer {
  name: "relu1"
  type: "ReLU"
  bottom: "ip1"
  top: "ip1"
}
layer {
  name: "ip2"
  type: "InnerProduct"
  bottom: "ip1"
  top: "ip2"
  param {
    lr_mult: 1
  }
  param {
    lr_mult: 2
  }
  inner_product_param {
    num_output: 20
    weight_filler {
      type: "gaussian"
      std: 0.01
    }
    bias_filler {
      type: "constant"
    }
  }
}
layer {
  name: "relu2"
  type: "ReLU"
  bottom: "ip2"
  top: "ip2"
}
layer {
  name: "ip3"
  type: "InnerProduct"
  bottom: "ip2"
  top: "ip3"
  param {
    lr_mult: 1
  }
  param {
    lr_mult: 2
  }
  inner_product_param {
    num_output: 10
    weight_filler {
      type: "gaussian"
      std: 0.01
    }
    bias_filler {
      type: "constant"
    }
  }
}
layer {
  name: "accuracy"
  type: "Accuracy"
  bottom: "ip3"
  bottom: "label"
  top: "accuracy"
  include {
    phase: TEST
  }
}
layer {
  name: "loss"
  type: "SoftmaxWithLoss"
  bottom: "ip3"
  bottom: "label"
  top: "loss"
}
I0430 22:03:04.901270 32697 layer_factory.hpp:77] Creating layer cifar
I0430 22:03:04.901334 32697 db_lmdb.cpp:35] Opened lmdb examples/cifar10/cifar10_test_lmdb
I0430 22:03:04.901346 32697 net.cpp:86] Creating Layer cifar
I0430 22:03:04.901351 32697 net.cpp:382] cifar -> data
I0430 22:03:04.901360 32697 net.cpp:382] cifar -> label
I0430 22:03:04.901365 32697 data_transformer.cpp:25] Loading mean file from: examples/cifar10/mean.binaryproto
I0430 22:03:04.901518 32697 data_layer.cpp:45] output data size: 1000,3,32,32
I0430 22:03:04.924257 32697 net.cpp:124] Setting up cifar
I0430 22:03:04.924299 32697 net.cpp:131] Top shape: 1000 3 32 32 (3072000)
I0430 22:03:04.924304 32697 net.cpp:131] Top shape: 1000 (1000)
I0430 22:03:04.924309 32697 net.cpp:139] Memory required for data: 12292000
I0430 22:03:04.924314 32697 layer_factory.hpp:77] Creating layer label_cifar_1_split
I0430 22:03:04.924330 32697 net.cpp:86] Creating Layer label_cifar_1_split
I0430 22:03:04.924367 32697 net.cpp:408] label_cifar_1_split <- label
I0430 22:03:04.924373 32697 net.cpp:382] label_cifar_1_split -> label_cifar_1_split_0
I0430 22:03:04.924382 32697 net.cpp:382] label_cifar_1_split -> label_cifar_1_split_1
I0430 22:03:04.924474 32697 net.cpp:124] Setting up label_cifar_1_split
I0430 22:03:04.924480 32697 net.cpp:131] Top shape: 1000 (1000)
I0430 22:03:04.924484 32697 net.cpp:131] Top shape: 1000 (1000)
I0430 22:03:04.924487 32697 net.cpp:139] Memory required for data: 12300000
I0430 22:03:04.924490 32697 layer_factory.hpp:77] Creating layer conv0
I0430 22:03:04.924502 32697 net.cpp:86] Creating Layer conv0
I0430 22:03:04.924505 32697 net.cpp:408] conv0 <- data
I0430 22:03:04.924510 32697 net.cpp:382] conv0 -> conv0
I0430 22:03:04.926225 32697 net.cpp:124] Setting up conv0
I0430 22:03:04.926239 32697 net.cpp:131] Top shape: 1000 8 34 34 (9248000)
I0430 22:03:04.926244 32697 net.cpp:139] Memory required for data: 49292000
I0430 22:03:04.926268 32697 layer_factory.hpp:77] Creating layer Sigmoid0
I0430 22:03:04.926275 32697 net.cpp:86] Creating Layer Sigmoid0
I0430 22:03:04.926278 32697 net.cpp:408] Sigmoid0 <- conv0
I0430 22:03:04.926283 32697 net.cpp:382] Sigmoid0 -> Sigmoid0
I0430 22:03:04.927141 32697 net.cpp:124] Setting up Sigmoid0
I0430 22:03:04.927153 32697 net.cpp:131] Top shape: 1000 8 34 34 (9248000)
I0430 22:03:04.927173 32697 net.cpp:139] Memory required for data: 86284000
I0430 22:03:04.927176 32697 layer_factory.hpp:77] Creating layer pool0
I0430 22:03:04.927184 32697 net.cpp:86] Creating Layer pool0
I0430 22:03:04.927188 32697 net.cpp:408] pool0 <- Sigmoid0
I0430 22:03:04.927193 32697 net.cpp:382] pool0 -> pool0
I0430 22:03:04.928350 32697 net.cpp:124] Setting up pool0
I0430 22:03:04.928361 32697 net.cpp:131] Top shape: 1000 8 17 17 (2312000)
I0430 22:03:04.928380 32697 net.cpp:139] Memory required for data: 95532000
I0430 22:03:04.928383 32697 layer_factory.hpp:77] Creating layer ip1
I0430 22:03:04.928391 32697 net.cpp:86] Creating Layer ip1
I0430 22:03:04.928395 32697 net.cpp:408] ip1 <- pool0
I0430 22:03:04.928414 32697 net.cpp:382] ip1 -> ip1
I0430 22:03:04.939167 32697 net.cpp:124] Setting up ip1
I0430 22:03:04.939195 32697 net.cpp:131] Top shape: 1000 160 (160000)
I0430 22:03:04.939199 32697 net.cpp:139] Memory required for data: 96172000
I0430 22:03:04.939208 32697 layer_factory.hpp:77] Creating layer relu1
I0430 22:03:04.939214 32697 net.cpp:86] Creating Layer relu1
I0430 22:03:04.939218 32697 net.cpp:408] relu1 <- ip1
I0430 22:03:04.939223 32697 net.cpp:369] relu1 -> ip1 (in-place)
I0430 22:03:04.939424 32697 net.cpp:124] Setting up relu1
I0430 22:03:04.939432 32697 net.cpp:131] Top shape: 1000 160 (160000)
I0430 22:03:04.939435 32697 net.cpp:139] Memory required for data: 96812000
I0430 22:03:04.939440 32697 layer_factory.hpp:77] Creating layer ip2
I0430 22:03:04.939446 32697 net.cpp:86] Creating Layer ip2
I0430 22:03:04.939450 32697 net.cpp:408] ip2 <- ip1
I0430 22:03:04.939455 32697 net.cpp:382] ip2 -> ip2
I0430 22:03:04.939647 32697 net.cpp:124] Setting up ip2
I0430 22:03:04.939654 32697 net.cpp:131] Top shape: 1000 20 (20000)
I0430 22:03:04.939657 32697 net.cpp:139] Memory required for data: 96892000
I0430 22:03:04.939664 32697 layer_factory.hpp:77] Creating layer relu2
I0430 22:03:04.939671 32697 net.cpp:86] Creating Layer relu2
I0430 22:03:04.939673 32697 net.cpp:408] relu2 <- ip2
I0430 22:03:04.939677 32697 net.cpp:369] relu2 -> ip2 (in-place)
I0430 22:03:04.939837 32697 net.cpp:124] Setting up relu2
I0430 22:03:04.939846 32697 net.cpp:131] Top shape: 1000 20 (20000)
I0430 22:03:04.939848 32697 net.cpp:139] Memory required for data: 96972000
I0430 22:03:04.939851 32697 layer_factory.hpp:77] Creating layer ip3
I0430 22:03:04.939857 32697 net.cpp:86] Creating Layer ip3
I0430 22:03:04.939860 32697 net.cpp:408] ip3 <- ip2
I0430 22:03:04.939865 32697 net.cpp:382] ip3 -> ip3
I0430 22:03:04.939975 32697 net.cpp:124] Setting up ip3
I0430 22:03:04.939980 32697 net.cpp:131] Top shape: 1000 10 (10000)
I0430 22:03:04.939983 32697 net.cpp:139] Memory required for data: 97012000
I0430 22:03:04.940001 32697 layer_factory.hpp:77] Creating layer ip3_ip3_0_split
I0430 22:03:04.940006 32697 net.cpp:86] Creating Layer ip3_ip3_0_split
I0430 22:03:04.940008 32697 net.cpp:408] ip3_ip3_0_split <- ip3
I0430 22:03:04.940012 32697 net.cpp:382] ip3_ip3_0_split -> ip3_ip3_0_split_0
I0430 22:03:04.940018 32697 net.cpp:382] ip3_ip3_0_split -> ip3_ip3_0_split_1
I0430 22:03:04.940050 32697 net.cpp:124] Setting up ip3_ip3_0_split
I0430 22:03:04.940055 32697 net.cpp:131] Top shape: 1000 10 (10000)
I0430 22:03:04.940059 32697 net.cpp:131] Top shape: 1000 10 (10000)
I0430 22:03:04.940062 32697 net.cpp:139] Memory required for data: 97092000
I0430 22:03:04.940064 32697 layer_factory.hpp:77] Creating layer accuracy
I0430 22:03:04.940070 32697 net.cpp:86] Creating Layer accuracy
I0430 22:03:04.940073 32697 net.cpp:408] accuracy <- ip3_ip3_0_split_0
I0430 22:03:04.940078 32697 net.cpp:408] accuracy <- label_cifar_1_split_0
I0430 22:03:04.940081 32697 net.cpp:382] accuracy -> accuracy
…
