…
I0430 23:37:03.885932  5184 net.cpp:296] The NetState phase (0) differed from the phase (1) specified by a rule in layer cifar
I0430 23:37:03.885948  5184 net.cpp:296] The NetState phase (0) differed from the phase (1) specified by a rule in layer accuracy
I0430 23:37:03.886046  5184 net.cpp:53] Initializing net from parameters: 
name: "CIFAR"
state {
  phase: TRAIN
  level: 0
  stage: ""
}
layer {
  name: "cifar"
  type: "Data"
  top: "data"
  top: "label"
  include {
    phase: TRAIN
  }
  transform_param {
    mean_file: "examples/cifar10/mean.binaryproto"
  }
  data_param {
    source: "examples/cifar10/cifar10_train_lmdb"
    batch_size: 111
    backend: LMDB
  }
}
layer {
  name: "conv0"
  type: "Convolution"
  bottom: "data"
  top: "conv0"
  param {
    lr_mult: 1
  }
  param {
    lr_mult: 2
  }
  convolution_param {
    num_output: 8
    pad: 2
    kernel_size: 3
    stride: 1
    weight_filler {
      type: "gaussian"
      std: 0.01
    }
    bias_filler {
      type: "constant"
    }
  }
}
layer {
  name: "Sigmoid0"
  type: "Sigmoid"
  bottom: "conv0"
  top: "Sigmoid0"
}
layer {
  name: "pool0"
  type: "Pooling"
  bottom: "Sigmoid0"
  top: "pool0"
  pooling_param {
    pool: AVE
    kernel_size: 3
    stride: 2
  }
}
layer {
  name: "ip1"
  type: "InnerProduct"
  bottom: "pool0"
  top: "ip1"
  param {
    lr_mult: 1
  }
  param {
    lr_mult: 2
  }
  inner_product_param {
    num_output: 20
    weight_filler {
      type: "gaussian"
      std: 0.01
    }
    bias_filler {
      type: "constant"
    }
  }
}
layer {
  name: "relu1"
  type: "ReLU"
  bottom: "ip1"
  top: "ip1"
}
layer {
  name: "ip2"
  type: "InnerProduct"
  bottom: "ip1"
  top: "ip2"
  param {
    lr_mult: 1
  }
  param {
    lr_mult: 2
  }
  inner_product_param {
    num_output: 160
    weight_filler {
      type: "gaussian"
      std: 0.01
    }
    bias_filler {
      type: "constant"
    }
  }
}
layer {
  name: "relu2"
  type: "ReLU"
  bottom: "ip2"
  top: "ip2"
}
layer {
  name: "ip3"
  type: "InnerProduct"
  bottom: "ip2"
  top: "ip3"
  param {
    lr_mult: 1
  }
  param {
    lr_mult: 2
  }
  inner_product_param {
    num_output: 20
    weight_filler {
      type: "gaussian"
      std: 0.01
    }
    bias_filler {
      type: "constant"
    }
  }
}
layer {
  name: "relu3"
  type: "ReLU"
  bottom: "ip3"
  top: "ip3"
}
layer {
  name: "ip4"
  type: "InnerProduct"
  bottom: "ip3"
  top: "ip4"
  param {
    lr_mult: 1
  }
  param {
    lr_mult: 2
  }
  inner_product_param {
    num_output: 10
    weight_filler {
      type: "gaussian"
      std: 0.01
    }
    bias_filler {
      type: "constant"
    }
  }
}
layer {
  name: "loss"
  type: "SoftmaxWithLoss"
  bottom: "ip4"
  bottom: "label"
  top: "loss"
}
I0430 23:37:03.886128  5184 layer_factory.hpp:77] Creating layer cifar
I0430 23:37:03.886234  5184 db_lmdb.cpp:35] Opened lmdb examples/cifar10/cifar10_train_lmdb
I0430 23:37:03.886266  5184 net.cpp:86] Creating Layer cifar
I0430 23:37:03.886276  5184 net.cpp:382] cifar -> data
I0430 23:37:03.886302  5184 net.cpp:382] cifar -> label
I0430 23:37:03.886317  5184 data_transformer.cpp:25] Loading mean file from: examples/cifar10/mean.binaryproto
I0430 23:37:03.888330  5184 data_layer.cpp:45] output data size: 111,3,32,32
I0430 23:37:03.895128  5184 net.cpp:124] Setting up cifar
I0430 23:37:03.895143  5184 net.cpp:131] Top shape: 111 3 32 32 (340992)
I0430 23:37:03.895148  5184 net.cpp:131] Top shape: 111 (111)
I0430 23:37:03.895153  5184 net.cpp:139] Memory required for data: 1364412
I0430 23:37:03.895170  5184 layer_factory.hpp:77] Creating layer conv0
I0430 23:37:03.895186  5184 net.cpp:86] Creating Layer conv0
I0430 23:37:03.895192  5184 net.cpp:408] conv0 <- data
I0430 23:37:03.895205  5184 net.cpp:382] conv0 -> conv0
I0430 23:37:04.126940  5184 net.cpp:124] Setting up conv0
I0430 23:37:04.126982  5184 net.cpp:131] Top shape: 111 8 34 34 (1026528)
I0430 23:37:04.126986  5184 net.cpp:139] Memory required for data: 5470524
I0430 23:37:04.127017  5184 layer_factory.hpp:77] Creating layer Sigmoid0
I0430 23:37:04.127027  5184 net.cpp:86] Creating Layer Sigmoid0
I0430 23:37:04.127032  5184 net.cpp:408] Sigmoid0 <- conv0
I0430 23:37:04.127053  5184 net.cpp:382] Sigmoid0 -> Sigmoid0
I0430 23:37:04.127224  5184 net.cpp:124] Setting up Sigmoid0
I0430 23:37:04.127233  5184 net.cpp:131] Top shape: 111 8 34 34 (1026528)
I0430 23:37:04.127236  5184 net.cpp:139] Memory required for data: 9576636
I0430 23:37:04.127239  5184 layer_factory.hpp:77] Creating layer pool0
I0430 23:37:04.127246  5184 net.cpp:86] Creating Layer pool0
I0430 23:37:04.127249  5184 net.cpp:408] pool0 <- Sigmoid0
I0430 23:37:04.127254  5184 net.cpp:382] pool0 -> pool0
I0430 23:37:04.127990  5184 net.cpp:124] Setting up pool0
I0430 23:37:04.128017  5184 net.cpp:131] Top shape: 111 8 17 17 (256632)
I0430 23:37:04.128021  5184 net.cpp:139] Memory required for data: 10603164
I0430 23:37:04.128024  5184 layer_factory.hpp:77] Creating layer ip1
I0430 23:37:04.128033  5184 net.cpp:86] Creating Layer ip1
I0430 23:37:04.128036  5184 net.cpp:408] ip1 <- pool0
I0430 23:37:04.128041  5184 net.cpp:382] ip1 -> ip1
I0430 23:37:04.130251  5184 net.cpp:124] Setting up ip1
I0430 23:37:04.130264  5184 net.cpp:131] Top shape: 111 20 (2220)
I0430 23:37:04.130282  5184 net.cpp:139] Memory required for data: 10612044
I0430 23:37:04.130306  5184 layer_factory.hpp:77] Creating layer relu1
I0430 23:37:04.130311  5184 net.cpp:86] Creating Layer relu1
I0430 23:37:04.130314  5184 net.cpp:408] relu1 <- ip1
I0430 23:37:04.130319  5184 net.cpp:369] relu1 -> ip1 (in-place)
I0430 23:37:04.130499  5184 net.cpp:124] Setting up relu1
I0430 23:37:04.130507  5184 net.cpp:131] Top shape: 111 20 (2220)
I0430 23:37:04.130511  5184 net.cpp:139] Memory required for data: 10620924
I0430 23:37:04.130514  5184 layer_factory.hpp:77] Creating layer ip2
I0430 23:37:04.130520  5184 net.cpp:86] Creating Layer ip2
I0430 23:37:04.130524  5184 net.cpp:408] ip2 <- ip1
I0430 23:37:04.130529  5184 net.cpp:382] ip2 -> ip2
I0430 23:37:04.130709  5184 net.cpp:124] Setting up ip2
I0430 23:37:04.130715  5184 net.cpp:131] Top shape: 111 160 (17760)
I0430 23:37:04.130718  5184 net.cpp:139] Memory required for data: 10691964
I0430 23:37:04.130725  5184 layer_factory.hpp:77] Creating layer relu2
I0430 23:37:04.130730  5184 net.cpp:86] Creating Layer relu2
I0430 23:37:04.130733  5184 net.cpp:408] relu2 <- ip2
I0430 23:37:04.130738  5184 net.cpp:369] relu2 -> ip2 (in-place)
I0430 23:37:04.130892  5184 net.cpp:124] Setting up relu2
I0430 23:37:04.130899  5184 net.cpp:131] Top shape: 111 160 (17760)
I0430 23:37:04.130903  5184 net.cpp:139] Memory required for data: 10763004
I0430 23:37:04.130905  5184 layer_factory.hpp:77] Creating layer ip3
I0430 23:37:04.130913  5184 net.cpp:86] Creating Layer ip3
I0430 23:37:04.130915  5184 net.cpp:408] ip3 <- ip2
I0430 23:37:04.130919  5184 net.cpp:382] ip3 -> ip3
I0430 23:37:04.131101  5184 net.cpp:124] Setting up ip3
I0430 23:37:04.131108  5184 net.cpp:131] Top shape: 111 20 (2220)
I0430 23:37:04.131110  5184 net.cpp:139] Memory required for data: 10771884
I0430 23:37:04.131115  5184 layer_factory.hpp:77] Creating layer relu3
I0430 23:37:04.131120  5184 net.cpp:86] Creating Layer relu3
I0430 23:37:04.131124  5184 net.cpp:408] relu3 <- ip3
I0430 23:37:04.131127  5184 net.cpp:369] relu3 -> ip3 (in-place)
I0430 23:37:04.131265  5184 net.cpp:124] Setting up relu3
I0430 23:37:04.131273  5184 net.cpp:131] Top shape: 111 20 (2220)
I0430 23:37:04.131276  5184 net.cpp:139] Memory required for data: 10780764
I0430 23:37:04.131278  5184 layer_factory.hpp:77] Creating layer ip4
I0430 23:37:04.131299  5184 net.cpp:86] Creating Layer ip4
I0430 23:37:04.131316  5184 net.cpp:408] ip4 <- ip3
I0430 23:37:04.131321  5184 net.cpp:382] ip4 -> ip4
I0430 23:37:04.131428  5184 net.cpp:124] Setting up ip4
I0430 23:37:04.131435  5184 net.cpp:131] Top shape: 111 10 (1110)
I0430 23:37:04.131438  5184 net.cpp:139] Memory required for data: 10785204
I0430 23:37:04.131445  5184 layer_factory.hpp:77] Creating layer loss
I0430 23:37:04.131450  5184 net.cpp:86] Creating Layer loss
I0430 23:37:04.131453  5184 net.cpp:408] loss <- ip4
I0430 23:37:04.131456  5184 net.cpp:408] loss <- label
I0430 23:37:04.131461  5184 net.cpp:382] loss -> loss
I0430 23:37:04.131477  5184 layer_factory.hpp:77] Creating layer loss
…
I0430 23:37:04.132685  5184 solver.cpp:173] Creating test net (#0) specified by net file: ECE595/cifar/train_test/var_everything/cifar_train_test_231.prototxt
I0430 23:37:04.132711  5184 net.cpp:296] The NetState phase (1) differed from the phase (0) specified by a rule in layer cifar
I0430 23:37:04.132802  5184 net.cpp:53] Initializing net from parameters: 
name: "CIFAR"
state {
  phase: TEST
}
layer {
  name: "cifar"
  type: "Data"
  top: "data"
  top: "label"
  include {
    phase: TEST
  }
  transform_param {
    mean_file: "examples/cifar10/mean.binaryproto"
  }
  data_param {
    source: "examples/cifar10/cifar10_test_lmdb"
    batch_size: 1000
    backend: LMDB
  }
}
layer {
  name: "conv0"
  type: "Convolution"
  bottom: "data"
  top: "conv0"
  param {
    lr_mult: 1
  }
  param {
    lr_mult: 2
  }
  convolution_param {
    num_output: 8
    pad: 2
    kernel_size: 3
    stride: 1
    weight_filler {
      type: "gaussian"
      std: 0.01
    }
    bias_filler {
      type: "constant"
    }
  }
}
layer {
  name: "Sigmoid0"
  type: "Sigmoid"
  bottom: "conv0"
  top: "Sigmoid0"
}
layer {
  name: "pool0"
  type: "Pooling"
  bottom: "Sigmoid0"
  top: "pool0"
  pooling_param {
    pool: AVE
    kernel_size: 3
    stride: 2
  }
}
layer {
  name: "ip1"
  type: "InnerProduct"
  bottom: "pool0"
  top: "ip1"
  param {
    lr_mult: 1
  }
  param {
    lr_mult: 2
  }
  inner_product_param {
    num_output: 20
    weight_filler {
      type: "gaussian"
      std: 0.01
    }
    bias_filler {
      type: "constant"
    }
  }
}
layer {
  name: "relu1"
  type: "ReLU"
  bottom: "ip1"
  top: "ip1"
}
layer {
  name: "ip2"
  type: "InnerProduct"
  bottom: "ip1"
  top: "ip2"
  param {
    lr_mult: 1
  }
  param {
    lr_mult: 2
  }
  inner_product_param {
    num_output: 160
    weight_filler {
      type: "gaussian"
      std: 0.01
    }
    bias_filler {
      type: "constant"
    }
  }
}
layer {
  name: "relu2"
  type: "ReLU"
  bottom: "ip2"
  top: "ip2"
}
layer {
  name: "ip3"
  type: "InnerProduct"
  bottom: "ip2"
  top: "ip3"
  param {
    lr_mult: 1
  }
  param {
    lr_mult: 2
  }
  inner_product_param {
    num_output: 20
    weight_filler {
      type: "gaussian"
      std: 0.01
    }
    bias_filler {
      type: "constant"
    }
  }
}
layer {
  name: "relu3"
  type: "ReLU"
  bottom: "ip3"
  top: "ip3"
}
layer {
  name: "ip4"
  type: "InnerProduct"
  bottom: "ip3"
  top: "ip4"
  param {
    lr_mult: 1
  }
  param {
    lr_mult: 2
  }
  inner_product_param {
    num_output: 10
    weight_filler {
      type: "gaussian"
      std: 0.01
    }
    bias_filler {
      type: "constant"
    }
  }
}
layer {
  name: "accuracy"
  type: "Accuracy"
  bottom: "ip4"
  bottom: "label"
  top: "accuracy"
  include {
    phase: TEST
  }
}
layer {
  name: "loss"
  type: "SoftmaxWithLoss"
  bottom: "ip4"
  bottom: "label"
  top: "loss"
}
I0430 23:37:04.132910  5184 layer_factory.hpp:77] Creating layer cifar
I0430 23:37:04.132956  5184 db_lmdb.cpp:35] Opened lmdb examples/cifar10/cifar10_test_lmdb
I0430 23:37:04.132968  5184 net.cpp:86] Creating Layer cifar
I0430 23:37:04.132972  5184 net.cpp:382] cifar -> data
I0430 23:37:04.132980  5184 net.cpp:382] cifar -> label
I0430 23:37:04.132987  5184 data_transformer.cpp:25] Loading mean file from: examples/cifar10/mean.binaryproto
I0430 23:37:04.133122  5184 data_layer.cpp:45] output data size: 1000,3,32,32
I0430 23:37:04.155458  5184 net.cpp:124] Setting up cifar
I0430 23:37:04.155513  5184 net.cpp:131] Top shape: 1000 3 32 32 (3072000)
I0430 23:37:04.155519  5184 net.cpp:131] Top shape: 1000 (1000)
I0430 23:37:04.155521  5184 net.cpp:139] Memory required for data: 12292000
I0430 23:37:04.155527  5184 layer_factory.hpp:77] Creating layer label_cifar_1_split
I0430 23:37:04.155544  5184 net.cpp:86] Creating Layer label_cifar_1_split
I0430 23:37:04.155549  5184 net.cpp:408] label_cifar_1_split <- label
I0430 23:37:04.155553  5184 net.cpp:382] label_cifar_1_split -> label_cifar_1_split_0
I0430 23:37:04.155580  5184 net.cpp:382] label_cifar_1_split -> label_cifar_1_split_1
I0430 23:37:04.155652  5184 net.cpp:124] Setting up label_cifar_1_split
I0430 23:37:04.155659  5184 net.cpp:131] Top shape: 1000 (1000)
I0430 23:37:04.155663  5184 net.cpp:131] Top shape: 1000 (1000)
I0430 23:37:04.155665  5184 net.cpp:139] Memory required for data: 12300000
I0430 23:37:04.155668  5184 layer_factory.hpp:77] Creating layer conv0
I0430 23:37:04.155679  5184 net.cpp:86] Creating Layer conv0
I0430 23:37:04.155683  5184 net.cpp:408] conv0 <- data
I0430 23:37:04.155688  5184 net.cpp:382] conv0 -> conv0
I0430 23:37:04.157389  5184 net.cpp:124] Setting up conv0
I0430 23:37:04.157419  5184 net.cpp:131] Top shape: 1000 8 34 34 (9248000)
I0430 23:37:04.157423  5184 net.cpp:139] Memory required for data: 49292000
I0430 23:37:04.157433  5184 layer_factory.hpp:77] Creating layer Sigmoid0
I0430 23:37:04.157439  5184 net.cpp:86] Creating Layer Sigmoid0
I0430 23:37:04.157444  5184 net.cpp:408] Sigmoid0 <- conv0
I0430 23:37:04.157447  5184 net.cpp:382] Sigmoid0 -> Sigmoid0
I0430 23:37:04.157655  5184 net.cpp:124] Setting up Sigmoid0
I0430 23:37:04.157665  5184 net.cpp:131] Top shape: 1000 8 34 34 (9248000)
I0430 23:37:04.157667  5184 net.cpp:139] Memory required for data: 86284000
I0430 23:37:04.157670  5184 layer_factory.hpp:77] Creating layer pool0
I0430 23:37:04.157680  5184 net.cpp:86] Creating Layer pool0
I0430 23:37:04.157682  5184 net.cpp:408] pool0 <- Sigmoid0
I0430 23:37:04.157686  5184 net.cpp:382] pool0 -> pool0
I0430 23:37:04.157851  5184 net.cpp:124] Setting up pool0
I0430 23:37:04.157860  5184 net.cpp:131] Top shape: 1000 8 17 17 (2312000)
I0430 23:37:04.157862  5184 net.cpp:139] Memory required for data: 95532000
I0430 23:37:04.157866  5184 layer_factory.hpp:77] Creating layer ip1
I0430 23:37:04.157872  5184 net.cpp:86] Creating Layer ip1
I0430 23:37:04.157876  5184 net.cpp:408] ip1 <- pool0
I0430 23:37:04.157881  5184 net.cpp:382] ip1 -> ip1
I0430 23:37:04.159334  5184 net.cpp:124] Setting up ip1
I0430 23:37:04.159344  5184 net.cpp:131] Top shape: 1000 20 (20000)
I0430 23:37:04.159363  5184 net.cpp:139] Memory required for data: 95612000
I0430 23:37:04.159385  5184 layer_factory.hpp:77] Creating layer relu1
I0430 23:37:04.159391  5184 net.cpp:86] Creating Layer relu1
I0430 23:37:04.159394  5184 net.cpp:408] relu1 <- ip1
I0430 23:37:04.159399  5184 net.cpp:369] relu1 -> ip1 (in-place)
I0430 23:37:04.159598  5184 net.cpp:124] Setting up relu1
I0430 23:37:04.159606  5184 net.cpp:131] Top shape: 1000 20 (20000)
I0430 23:37:04.159610  5184 net.cpp:139] Memory required for data: 95692000
I0430 23:37:04.159612  5184 layer_factory.hpp:77] Creating layer ip2
I0430 23:37:04.159618  5184 net.cpp:86] Creating Layer ip2
I0430 23:37:04.159624  5184 net.cpp:408] ip2 <- ip1
I0430 23:37:04.159628  5184 net.cpp:382] ip2 -> ip2
I0430 23:37:04.159819  5184 net.cpp:124] Setting up ip2
I0430 23:37:04.159827  5184 net.cpp:131] Top shape: 1000 160 (160000)
I0430 23:37:04.159831  5184 net.cpp:139] Memory required for data: 96332000
I0430 23:37:04.159837  5184 layer_factory.hpp:77] Creating layer relu2
I0430 23:37:04.159858  5184 net.cpp:86] Creating Layer relu2
I0430 23:37:04.159862  5184 net.cpp:408] relu2 <- ip2
I0430 23:37:04.159873  5184 net.cpp:369] relu2 -> ip2 (in-place)
I0430 23:37:04.160609  5184 net.cpp:124] Setting up relu2
I0430 23:37:04.160620  5184 net.cpp:131] Top shape: 1000 160 (160000)
I0430 23:37:04.160642  5184 net.cpp:139] Memory required for data: 96972000
I0430 23:37:04.160660  5184 layer_factory.hpp:77] Creating layer ip3
I0430 23:37:04.160668  5184 net.cpp:86] Creating Layer ip3
I0430 23:37:04.160671  5184 net.cpp:408] ip3 <- ip2
I0430 23:37:04.160676  5184 net.cpp:382] ip3 -> ip3
I0430 23:37:04.160907  5184 net.cpp:124] Setting up ip3
I0430 23:37:04.160917  5184 net.cpp:131] Top shape: 1000 20 (20000)
I0430 23:37:04.160919  5184 net.cpp:139] Memory required for data: 97052000
I0430 23:37:04.160924  5184 layer_factory.hpp:77] Creating layer relu3
I0430 23:37:04.160930  5184 net.cpp:86] Creating Layer relu3
I0430 23:37:04.160933  5184 net.cpp:408] relu3 <- ip3
I0430 23:37:04.160938  5184 net.cpp:369] relu3 -> ip3 (in-place)
I0430 23:37:04.161109  5184 net.cpp:124] Setting up relu3
I0430 23:37:04.161118  5184 net.cpp:131] Top shape: 1000 20 (20000)
I0430 23:37:04.161121  5184 net.cpp:139] Memory required for data: 97132000
I0430 23:37:04.161124  5184 layer_factory.hpp:77] Creating layer ip4
I0430 23:37:04.161131  5184 net.cpp:86] Creating Layer ip4
I0430 23:37:04.161134  5184 net.cpp:408] ip4 <- ip3
I0430 23:37:04.161154  5184 net.cpp:382] ip4 -> ip4
I0430 23:37:04.161262  5184 net.cpp:124] Setting up ip4
I0430 23:37:04.161268  5184 net.cpp:131] Top shape: 1000 10 (10000)
I0430 23:37:04.161270  5184 net.cpp:139] Memory required for data: 97172000
I0430 23:37:04.161279  5184 layer_factory.hpp:77] Creating layer ip4_ip4_0_split
I0430 23:37:04.161284  5184 net.cpp:86] Creating Layer ip4_ip4_0_split
I0430 23:37:04.161288  5184 net.cpp:408] ip4_ip4_0_split <- ip4
I0430 23:37:04.161291  5184 net.cpp:382] ip4_ip4_0_split -> ip4_ip4_0_split_0
I0430 23:37:04.161295  5184 net.cpp:382] ip4_ip4_0_split -> ip4_ip4_0_split_1
I0430 23:37:04.161325  5184 net.cpp:124] Setting up ip4_ip4_0_split
I0430 23:37:04.161329  5184 net.cpp:131] Top shape: 1000 10 (10000)
I0430 23:37:04.161334  5184 net.cpp:131] Top shape: 1000 10 (10000)
I0430 23:37:04.161336  5184 net.cpp:139] Memory required for data: 97252000
I0430 23:37:04.161339  5184 layer_factory.hpp:77] Creating layer accuracy
I0430 23:37:04.161345  5184 net.cpp:86] Creating Layer accuracy
I0430 23:37:04.161347  5184 net.cpp:408] accuracy <- ip4_ip4_0_split_0
I0430 23:37:04.161351  5184 net.cpp:408] accuracy <- label_cifar_1_split_0
I0430 23:37:04.161356  5184 net.cpp:382] accuracy -> accuracy
…
