…
I0430 17:48:18.576321 20771 net.cpp:296] The NetState phase (0) differed from the phase (1) specified by a rule in layer cifar
I0430 17:48:18.576334 20771 net.cpp:296] The NetState phase (0) differed from the phase (1) specified by a rule in layer accuracy
I0430 17:48:18.576398 20771 net.cpp:53] Initializing net from parameters: 
name: "CIFAR"
state {
  phase: TRAIN
  level: 0
  stage: ""
}
layer {
  name: "cifar"
  type: "Data"
  top: "data"
  top: "label"
  include {
    phase: TRAIN
  }
  transform_param {
    mean_file: "examples/cifar10/mean.binaryproto"
  }
  data_param {
    source: "examples/cifar10/cifar10_train_lmdb"
    batch_size: 111
    backend: LMDB
  }
}
layer {
  name: "ip1"
  type: "InnerProduct"
  bottom: "data"
  top: "ip1"
  param {
    lr_mult: 1
  }
  param {
    lr_mult: 2
  }
  inner_product_param {
    num_output: 10
    weight_filler {
      type: "gaussian"
      std: 0.01
    }
    bias_filler {
      type: "constant"
    }
  }
}
layer {
  name: "relu1"
  type: "ReLU"
  bottom: "ip1"
  top: "ip1"
}
layer {
  name: "ip2"
  type: "InnerProduct"
  bottom: "ip1"
  top: "ip2"
  param {
    lr_mult: 1
  }
  param {
    lr_mult: 2
  }
  inner_product_param {
    num_output: 80
    weight_filler {
      type: "gaussian"
      std: 0.01
    }
    bias_filler {
      type: "constant"
    }
  }
}
layer {
  name: "relu2"
  type: "ReLU"
  bottom: "ip2"
  top: "ip2"
}
layer {
  name: "ip3"
  type: "InnerProduct"
  bottom: "ip2"
  top: "ip3"
  param {
    lr_mult: 1
  }
  param {
    lr_mult: 2
  }
  inner_product_param {
    num_output: 20
    weight_filler {
      type: "gaussian"
      std: 0.01
    }
    bias_filler {
      type: "constant"
    }
  }
}
layer {
  name: "relu3"
  type: "ReLU"
  bottom: "ip3"
  top: "ip3"
}
layer {
  name: "ip4"
  type: "InnerProduct"
  bottom: "ip3"
  top: "ip4"
  param {
    lr_mult: 1
  }
  param {
    lr_mult: 2
  }
  inner_product_param {
    num_output: 10
    weight_filler {
      type: "gaussian"
      std: 0.01
    }
    bias_filler {
      type: "constant"
    }
  }
}
layer {
  name: "loss"
  type: "SoftmaxWithLoss"
  bottom: "ip4"
  bottom: "label"
  top: "loss"
}
I0430 17:48:18.576453 20771 layer_factory.hpp:77] Creating layer cifar
I0430 17:48:18.576531 20771 db_lmdb.cpp:35] Opened lmdb examples/cifar10/cifar10_train_lmdb
I0430 17:48:18.576552 20771 net.cpp:86] Creating Layer cifar
I0430 17:48:18.576558 20771 net.cpp:382] cifar -> data
I0430 17:48:18.576577 20771 net.cpp:382] cifar -> label
I0430 17:48:18.576586 20771 data_transformer.cpp:25] Loading mean file from: examples/cifar10/mean.binaryproto
I0430 17:48:18.578372 20771 data_layer.cpp:45] output data size: 111,3,32,32
I0430 17:48:18.584846 20771 net.cpp:124] Setting up cifar
I0430 17:48:18.584895 20771 net.cpp:131] Top shape: 111 3 32 32 (340992)
I0430 17:48:18.584902 20771 net.cpp:131] Top shape: 111 (111)
I0430 17:48:18.584904 20771 net.cpp:139] Memory required for data: 1364412
I0430 17:48:18.584913 20771 layer_factory.hpp:77] Creating layer ip1
I0430 17:48:18.584925 20771 net.cpp:86] Creating Layer ip1
I0430 17:48:18.584930 20771 net.cpp:408] ip1 <- data
I0430 17:48:18.584940 20771 net.cpp:382] ip1 -> ip1
I0430 17:48:18.586694 20771 net.cpp:124] Setting up ip1
I0430 17:48:18.586705 20771 net.cpp:131] Top shape: 111 10 (1110)
I0430 17:48:18.586724 20771 net.cpp:139] Memory required for data: 1368852
I0430 17:48:18.586735 20771 layer_factory.hpp:77] Creating layer relu1
I0430 17:48:18.586745 20771 net.cpp:86] Creating Layer relu1
I0430 17:48:18.586776 20771 net.cpp:408] relu1 <- ip1
I0430 17:48:18.586781 20771 net.cpp:369] relu1 -> ip1 (in-place)
I0430 17:48:18.809216 20771 net.cpp:124] Setting up relu1
I0430 17:48:18.809257 20771 net.cpp:131] Top shape: 111 10 (1110)
I0430 17:48:18.809262 20771 net.cpp:139] Memory required for data: 1373292
I0430 17:48:18.809267 20771 layer_factory.hpp:77] Creating layer ip2
I0430 17:48:18.809294 20771 net.cpp:86] Creating Layer ip2
I0430 17:48:18.809298 20771 net.cpp:408] ip2 <- ip1
I0430 17:48:18.809305 20771 net.cpp:382] ip2 -> ip2
I0430 17:48:18.810314 20771 net.cpp:124] Setting up ip2
I0430 17:48:18.810325 20771 net.cpp:131] Top shape: 111 80 (8880)
I0430 17:48:18.810328 20771 net.cpp:139] Memory required for data: 1408812
I0430 17:48:18.810338 20771 layer_factory.hpp:77] Creating layer relu2
I0430 17:48:18.810345 20771 net.cpp:86] Creating Layer relu2
I0430 17:48:18.810348 20771 net.cpp:408] relu2 <- ip2
I0430 17:48:18.810353 20771 net.cpp:369] relu2 -> ip2 (in-place)
I0430 17:48:18.811059 20771 net.cpp:124] Setting up relu2
I0430 17:48:18.811070 20771 net.cpp:131] Top shape: 111 80 (8880)
I0430 17:48:18.811074 20771 net.cpp:139] Memory required for data: 1444332
I0430 17:48:18.811077 20771 layer_factory.hpp:77] Creating layer ip3
I0430 17:48:18.811084 20771 net.cpp:86] Creating Layer ip3
I0430 17:48:18.811087 20771 net.cpp:408] ip3 <- ip2
I0430 17:48:18.811092 20771 net.cpp:382] ip3 -> ip3
I0430 17:48:18.811239 20771 net.cpp:124] Setting up ip3
I0430 17:48:18.811246 20771 net.cpp:131] Top shape: 111 20 (2220)
I0430 17:48:18.811249 20771 net.cpp:139] Memory required for data: 1453212
I0430 17:48:18.811257 20771 layer_factory.hpp:77] Creating layer relu3
I0430 17:48:18.811261 20771 net.cpp:86] Creating Layer relu3
I0430 17:48:18.811264 20771 net.cpp:408] relu3 <- ip3
I0430 17:48:18.811269 20771 net.cpp:369] relu3 -> ip3 (in-place)
I0430 17:48:18.811427 20771 net.cpp:124] Setting up relu3
I0430 17:48:18.811435 20771 net.cpp:131] Top shape: 111 20 (2220)
I0430 17:48:18.811439 20771 net.cpp:139] Memory required for data: 1462092
I0430 17:48:18.811442 20771 layer_factory.hpp:77] Creating layer ip4
I0430 17:48:18.811449 20771 net.cpp:86] Creating Layer ip4
I0430 17:48:18.811451 20771 net.cpp:408] ip4 <- ip3
I0430 17:48:18.811455 20771 net.cpp:382] ip4 -> ip4
I0430 17:48:18.811549 20771 net.cpp:124] Setting up ip4
I0430 17:48:18.811556 20771 net.cpp:131] Top shape: 111 10 (1110)
I0430 17:48:18.811559 20771 net.cpp:139] Memory required for data: 1466532
I0430 17:48:18.811564 20771 layer_factory.hpp:77] Creating layer loss
I0430 17:48:18.811570 20771 net.cpp:86] Creating Layer loss
I0430 17:48:18.811573 20771 net.cpp:408] loss <- ip4
I0430 17:48:18.811578 20771 net.cpp:408] loss <- label
I0430 17:48:18.811583 20771 net.cpp:382] loss -> loss
I0430 17:48:18.811599 20771 layer_factory.hpp:77] Creating layer loss
…
I0430 17:48:18.812140 20771 solver.cpp:173] Creating test net (#0) specified by net file: ECE595/cifar/train_test/var_everything/cifar_train_test_46.prototxt
I0430 17:48:18.812177 20771 net.cpp:296] The NetState phase (1) differed from the phase (0) specified by a rule in layer cifar
I0430 17:48:18.812249 20771 net.cpp:53] Initializing net from parameters: 
name: "CIFAR"
state {
  phase: TEST
}
layer {
  name: "cifar"
  type: "Data"
  top: "data"
  top: "label"
  include {
    phase: TEST
  }
  transform_param {
    mean_file: "examples/cifar10/mean.binaryproto"
  }
  data_param {
    source: "examples/cifar10/cifar10_test_lmdb"
    batch_size: 1000
    backend: LMDB
  }
}
layer {
  name: "ip1"
  type: "InnerProduct"
  bottom: "data"
  top: "ip1"
  param {
    lr_mult: 1
  }
  param {
    lr_mult: 2
  }
  inner_product_param {
    num_output: 10
    weight_filler {
      type: "gaussian"
      std: 0.01
    }
    bias_filler {
      type: "constant"
    }
  }
}
layer {
  name: "relu1"
  type: "ReLU"
  bottom: "ip1"
  top: "ip1"
}
layer {
  name: "ip2"
  type: "InnerProduct"
  bottom: "ip1"
  top: "ip2"
  param {
    lr_mult: 1
  }
  param {
    lr_mult: 2
  }
  inner_product_param {
    num_output: 80
    weight_filler {
      type: "gaussian"
      std: 0.01
    }
    bias_filler {
      type: "constant"
    }
  }
}
layer {
  name: "relu2"
  type: "ReLU"
  bottom: "ip2"
  top: "ip2"
}
layer {
  name: "ip3"
  type: "InnerProduct"
  bottom: "ip2"
  top: "ip3"
  param {
    lr_mult: 1
  }
  param {
    lr_mult: 2
  }
  inner_product_param {
    num_output: 20
    weight_filler {
      type: "gaussian"
      std: 0.01
    }
    bias_filler {
      type: "constant"
    }
  }
}
layer {
  name: "relu3"
  type: "ReLU"
  bottom: "ip3"
  top: "ip3"
}
layer {
  name: "ip4"
  type: "InnerProduct"
  bottom: "ip3"
  top: "ip4"
  param {
    lr_mult: 1
  }
  param {
    lr_mult: 2
  }
  inner_product_param {
    num_output: 10
    weight_filler {
      type: "gaussian"
      std: 0.01
    }
    bias_filler {
      type: "constant"
    }
  }
}
layer {
  name: "accuracy"
  type: "Accuracy"
  bottom: "ip4"
  bottom: "label"
  top: "accuracy"
  include {
    phase: TEST
  }
}
layer {
  name: "loss"
  type: "SoftmaxWithLoss"
  bottom: "ip4"
  bottom: "label"
  top: "loss"
}
I0430 17:48:18.812304 20771 layer_factory.hpp:77] Creating layer cifar
I0430 17:48:18.812346 20771 db_lmdb.cpp:35] Opened lmdb examples/cifar10/cifar10_test_lmdb
I0430 17:48:18.812358 20771 net.cpp:86] Creating Layer cifar
I0430 17:48:18.812362 20771 net.cpp:382] cifar -> data
I0430 17:48:18.812369 20771 net.cpp:382] cifar -> label
I0430 17:48:18.812376 20771 data_transformer.cpp:25] Loading mean file from: examples/cifar10/mean.binaryproto
I0430 17:48:18.812513 20771 data_layer.cpp:45] output data size: 1000,3,32,32
I0430 17:48:18.833513 20771 net.cpp:124] Setting up cifar
I0430 17:48:18.833555 20771 net.cpp:131] Top shape: 1000 3 32 32 (3072000)
I0430 17:48:18.833561 20771 net.cpp:131] Top shape: 1000 (1000)
I0430 17:48:18.833564 20771 net.cpp:139] Memory required for data: 12292000
I0430 17:48:18.833571 20771 layer_factory.hpp:77] Creating layer label_cifar_1_split
I0430 17:48:18.833587 20771 net.cpp:86] Creating Layer label_cifar_1_split
I0430 17:48:18.833591 20771 net.cpp:408] label_cifar_1_split <- label
I0430 17:48:18.833598 20771 net.cpp:382] label_cifar_1_split -> label_cifar_1_split_0
I0430 17:48:18.833622 20771 net.cpp:382] label_cifar_1_split -> label_cifar_1_split_1
I0430 17:48:18.833698 20771 net.cpp:124] Setting up label_cifar_1_split
I0430 17:48:18.833705 20771 net.cpp:131] Top shape: 1000 (1000)
I0430 17:48:18.833709 20771 net.cpp:131] Top shape: 1000 (1000)
I0430 17:48:18.833711 20771 net.cpp:139] Memory required for data: 12300000
I0430 17:48:18.833714 20771 layer_factory.hpp:77] Creating layer ip1
I0430 17:48:18.833724 20771 net.cpp:86] Creating Layer ip1
I0430 17:48:18.833726 20771 net.cpp:408] ip1 <- data
I0430 17:48:18.833731 20771 net.cpp:382] ip1 -> ip1
I0430 17:48:18.834730 20771 net.cpp:124] Setting up ip1
I0430 17:48:18.834738 20771 net.cpp:131] Top shape: 1000 10 (10000)
I0430 17:48:18.834756 20771 net.cpp:139] Memory required for data: 12340000
I0430 17:48:18.834780 20771 layer_factory.hpp:77] Creating layer relu1
I0430 17:48:18.834787 20771 net.cpp:86] Creating Layer relu1
I0430 17:48:18.834790 20771 net.cpp:408] relu1 <- ip1
I0430 17:48:18.834810 20771 net.cpp:369] relu1 -> ip1 (in-place)
I0430 17:48:18.835561 20771 net.cpp:124] Setting up relu1
I0430 17:48:18.835572 20771 net.cpp:131] Top shape: 1000 10 (10000)
I0430 17:48:18.835590 20771 net.cpp:139] Memory required for data: 12380000
I0430 17:48:18.835594 20771 layer_factory.hpp:77] Creating layer ip2
I0430 17:48:18.835602 20771 net.cpp:86] Creating Layer ip2
I0430 17:48:18.835605 20771 net.cpp:408] ip2 <- ip1
I0430 17:48:18.835610 20771 net.cpp:382] ip2 -> ip2
I0430 17:48:18.835777 20771 net.cpp:124] Setting up ip2
I0430 17:48:18.835783 20771 net.cpp:131] Top shape: 1000 80 (80000)
I0430 17:48:18.835786 20771 net.cpp:139] Memory required for data: 12700000
I0430 17:48:18.835794 20771 layer_factory.hpp:77] Creating layer relu2
I0430 17:48:18.835799 20771 net.cpp:86] Creating Layer relu2
I0430 17:48:18.835803 20771 net.cpp:408] relu2 <- ip2
I0430 17:48:18.835808 20771 net.cpp:369] relu2 -> ip2 (in-place)
I0430 17:48:18.836942 20771 net.cpp:124] Setting up relu2
I0430 17:48:18.836952 20771 net.cpp:131] Top shape: 1000 80 (80000)
I0430 17:48:18.836966 20771 net.cpp:139] Memory required for data: 13020000
I0430 17:48:18.836971 20771 layer_factory.hpp:77] Creating layer ip3
I0430 17:48:18.836978 20771 net.cpp:86] Creating Layer ip3
I0430 17:48:18.836982 20771 net.cpp:408] ip3 <- ip2
I0430 17:48:18.836987 20771 net.cpp:382] ip3 -> ip3
I0430 17:48:18.837162 20771 net.cpp:124] Setting up ip3
I0430 17:48:18.837168 20771 net.cpp:131] Top shape: 1000 20 (20000)
I0430 17:48:18.837172 20771 net.cpp:139] Memory required for data: 13100000
I0430 17:48:18.837179 20771 layer_factory.hpp:77] Creating layer relu3
I0430 17:48:18.837185 20771 net.cpp:86] Creating Layer relu3
I0430 17:48:18.837188 20771 net.cpp:408] relu3 <- ip3
I0430 17:48:18.837193 20771 net.cpp:369] relu3 -> ip3 (in-place)
I0430 17:48:18.837364 20771 net.cpp:124] Setting up relu3
I0430 17:48:18.837373 20771 net.cpp:131] Top shape: 1000 20 (20000)
I0430 17:48:18.837376 20771 net.cpp:139] Memory required for data: 13180000
I0430 17:48:18.837379 20771 layer_factory.hpp:77] Creating layer ip4
I0430 17:48:18.837388 20771 net.cpp:86] Creating Layer ip4
I0430 17:48:18.837390 20771 net.cpp:408] ip4 <- ip3
I0430 17:48:18.837395 20771 net.cpp:382] ip4 -> ip4
I0430 17:48:18.837501 20771 net.cpp:124] Setting up ip4
I0430 17:48:18.837507 20771 net.cpp:131] Top shape: 1000 10 (10000)
I0430 17:48:18.837510 20771 net.cpp:139] Memory required for data: 13220000
I0430 17:48:18.837517 20771 layer_factory.hpp:77] Creating layer ip4_ip4_0_split
I0430 17:48:18.837522 20771 net.cpp:86] Creating Layer ip4_ip4_0_split
I0430 17:48:18.837524 20771 net.cpp:408] ip4_ip4_0_split <- ip4
I0430 17:48:18.837529 20771 net.cpp:382] ip4_ip4_0_split -> ip4_ip4_0_split_0
I0430 17:48:18.837535 20771 net.cpp:382] ip4_ip4_0_split -> ip4_ip4_0_split_1
I0430 17:48:18.837568 20771 net.cpp:124] Setting up ip4_ip4_0_split
I0430 17:48:18.837575 20771 net.cpp:131] Top shape: 1000 10 (10000)
I0430 17:48:18.837579 20771 net.cpp:131] Top shape: 1000 10 (10000)
I0430 17:48:18.837581 20771 net.cpp:139] Memory required for data: 13300000
I0430 17:48:18.837586 20771 layer_factory.hpp:77] Creating layer accuracy
I0430 17:48:18.837592 20771 net.cpp:86] Creating Layer accuracy
I0430 17:48:18.837595 20771 net.cpp:408] accuracy <- ip4_ip4_0_split_0
I0430 17:48:18.837599 20771 net.cpp:408] accuracy <- label_cifar_1_split_0
I0430 17:48:18.837604 20771 net.cpp:382] accuracy -> accuracy
…
