…
I0501 03:03:03.673672 18693 net.cpp:296] The NetState phase (0) differed from the phase (1) specified by a rule in layer cifar
I0501 03:03:03.673687 18693 net.cpp:296] The NetState phase (0) differed from the phase (1) specified by a rule in layer accuracy
I0501 03:03:03.673784 18693 net.cpp:53] Initializing net from parameters: 
name: "CIFAR"
state {
  phase: TRAIN
  level: 0
  stage: ""
}
layer {
  name: "cifar"
  type: "Data"
  top: "data"
  top: "label"
  include {
    phase: TRAIN
  }
  transform_param {
    mean_file: "examples/cifar10/mean.binaryproto"
  }
  data_param {
    source: "examples/cifar10/cifar10_train_lmdb"
    batch_size: 111
    backend: LMDB
  }
}
layer {
  name: "conv0"
  type: "Convolution"
  bottom: "data"
  top: "conv0"
  param {
    lr_mult: 1
  }
  param {
    lr_mult: 2
  }
  convolution_param {
    num_output: 8
    pad: 2
    kernel_size: 5
    stride: 1
    weight_filler {
      type: "gaussian"
      std: 0.01
    }
    bias_filler {
      type: "constant"
    }
  }
}
layer {
  name: "Sigmoid0"
  type: "Sigmoid"
  bottom: "conv0"
  top: "Sigmoid0"
}
layer {
  name: "pool0"
  type: "Pooling"
  bottom: "Sigmoid0"
  top: "pool0"
  pooling_param {
    pool: AVE
    kernel_size: 3
    stride: 2
  }
}
layer {
  name: "ip1"
  type: "InnerProduct"
  bottom: "pool0"
  top: "ip1"
  param {
    lr_mult: 1
  }
  param {
    lr_mult: 2
  }
  inner_product_param {
    num_output: 10
    weight_filler {
      type: "gaussian"
      std: 0.01
    }
    bias_filler {
      type: "constant"
    }
  }
}
layer {
  name: "relu1"
  type: "ReLU"
  bottom: "ip1"
  top: "ip1"
}
layer {
  name: "ip2"
  type: "InnerProduct"
  bottom: "ip1"
  top: "ip2"
  param {
    lr_mult: 1
  }
  param {
    lr_mult: 2
  }
  inner_product_param {
    num_output: 10
    weight_filler {
      type: "gaussian"
      std: 0.01
    }
    bias_filler {
      type: "constant"
    }
  }
}
layer {
  name: "relu2"
  type: "ReLU"
  bottom: "ip2"
  top: "ip2"
}
layer {
  name: "ip3"
  type: "InnerProduct"
  bottom: "ip2"
  top: "ip3"
  param {
    lr_mult: 1
  }
  param {
    lr_mult: 2
  }
  inner_product_param {
    num_output: 20
    weight_filler {
      type: "gaussian"
      std: 0.01
    }
    bias_filler {
      type: "constant"
    }
  }
}
layer {
  name: "relu3"
  type: "ReLU"
  bottom: "ip3"
  top: "ip3"
}
layer {
  name: "ip4"
  type: "InnerProduct"
  bottom: "ip3"
  top: "ip4"
  param {
    lr_mult: 1
  }
  param {
    lr_mult: 2
  }
  inner_product_param {
    num_output: 10
    weight_filler {
      type: "gaussian"
      std: 0.01
    }
    bias_filler {
      type: "constant"
    }
  }
}
layer {
  name: "loss"
  type: "SoftmaxWithLoss"
  bottom: "ip4"
  bottom: "label"
  top: "loss"
}
I0501 03:03:03.673844 18693 layer_factory.hpp:77] Creating layer cifar
I0501 03:03:03.673928 18693 db_lmdb.cpp:35] Opened lmdb examples/cifar10/cifar10_train_lmdb
I0501 03:03:03.673959 18693 net.cpp:86] Creating Layer cifar
I0501 03:03:03.673966 18693 net.cpp:382] cifar -> data
I0501 03:03:03.673985 18693 net.cpp:382] cifar -> label
I0501 03:03:03.673998 18693 data_transformer.cpp:25] Loading mean file from: examples/cifar10/mean.binaryproto
I0501 03:03:03.675751 18693 data_layer.cpp:45] output data size: 111,3,32,32
I0501 03:03:03.682111 18693 net.cpp:124] Setting up cifar
I0501 03:03:03.682126 18693 net.cpp:131] Top shape: 111 3 32 32 (340992)
I0501 03:03:03.682130 18693 net.cpp:131] Top shape: 111 (111)
I0501 03:03:03.682133 18693 net.cpp:139] Memory required for data: 1364412
I0501 03:03:03.682152 18693 layer_factory.hpp:77] Creating layer conv0
I0501 03:03:03.682164 18693 net.cpp:86] Creating Layer conv0
I0501 03:03:03.682169 18693 net.cpp:408] conv0 <- data
I0501 03:03:03.682194 18693 net.cpp:382] conv0 -> conv0
I0501 03:03:03.913671 18693 net.cpp:124] Setting up conv0
I0501 03:03:03.913697 18693 net.cpp:131] Top shape: 111 8 32 32 (909312)
I0501 03:03:03.913702 18693 net.cpp:139] Memory required for data: 5001660
I0501 03:03:03.913717 18693 layer_factory.hpp:77] Creating layer Sigmoid0
I0501 03:03:03.913743 18693 net.cpp:86] Creating Layer Sigmoid0
I0501 03:03:03.913748 18693 net.cpp:408] Sigmoid0 <- conv0
I0501 03:03:03.913753 18693 net.cpp:382] Sigmoid0 -> Sigmoid0
I0501 03:03:03.913925 18693 net.cpp:124] Setting up Sigmoid0
I0501 03:03:03.913934 18693 net.cpp:131] Top shape: 111 8 32 32 (909312)
I0501 03:03:03.913938 18693 net.cpp:139] Memory required for data: 8638908
I0501 03:03:03.913941 18693 layer_factory.hpp:77] Creating layer pool0
I0501 03:03:03.913949 18693 net.cpp:86] Creating Layer pool0
I0501 03:03:03.913951 18693 net.cpp:408] pool0 <- Sigmoid0
I0501 03:03:03.913956 18693 net.cpp:382] pool0 -> pool0
I0501 03:03:03.914686 18693 net.cpp:124] Setting up pool0
I0501 03:03:03.914698 18693 net.cpp:131] Top shape: 111 8 16 16 (227328)
I0501 03:03:03.914702 18693 net.cpp:139] Memory required for data: 9548220
I0501 03:03:03.914705 18693 layer_factory.hpp:77] Creating layer ip1
I0501 03:03:03.914714 18693 net.cpp:86] Creating Layer ip1
I0501 03:03:03.914717 18693 net.cpp:408] ip1 <- pool0
I0501 03:03:03.914723 18693 net.cpp:382] ip1 -> ip1
I0501 03:03:03.916110 18693 net.cpp:124] Setting up ip1
I0501 03:03:03.916122 18693 net.cpp:131] Top shape: 111 10 (1110)
I0501 03:03:03.916126 18693 net.cpp:139] Memory required for data: 9552660
I0501 03:03:03.916133 18693 layer_factory.hpp:77] Creating layer relu1
I0501 03:03:03.916139 18693 net.cpp:86] Creating Layer relu1
I0501 03:03:03.916143 18693 net.cpp:408] relu1 <- ip1
I0501 03:03:03.916147 18693 net.cpp:369] relu1 -> ip1 (in-place)
I0501 03:03:03.916292 18693 net.cpp:124] Setting up relu1
I0501 03:03:03.916316 18693 net.cpp:131] Top shape: 111 10 (1110)
I0501 03:03:03.916319 18693 net.cpp:139] Memory required for data: 9557100
I0501 03:03:03.916323 18693 layer_factory.hpp:77] Creating layer ip2
I0501 03:03:03.916329 18693 net.cpp:86] Creating Layer ip2
I0501 03:03:03.916332 18693 net.cpp:408] ip2 <- ip1
I0501 03:03:03.916337 18693 net.cpp:382] ip2 -> ip2
I0501 03:03:03.916425 18693 net.cpp:124] Setting up ip2
I0501 03:03:03.916432 18693 net.cpp:131] Top shape: 111 10 (1110)
I0501 03:03:03.916435 18693 net.cpp:139] Memory required for data: 9561540
I0501 03:03:03.916442 18693 layer_factory.hpp:77] Creating layer relu2
I0501 03:03:03.916447 18693 net.cpp:86] Creating Layer relu2
I0501 03:03:03.916450 18693 net.cpp:408] relu2 <- ip2
I0501 03:03:03.916455 18693 net.cpp:369] relu2 -> ip2 (in-place)
I0501 03:03:03.916599 18693 net.cpp:124] Setting up relu2
I0501 03:03:03.916606 18693 net.cpp:131] Top shape: 111 10 (1110)
I0501 03:03:03.916610 18693 net.cpp:139] Memory required for data: 9565980
I0501 03:03:03.916612 18693 layer_factory.hpp:77] Creating layer ip3
I0501 03:03:03.916620 18693 net.cpp:86] Creating Layer ip3
I0501 03:03:03.916637 18693 net.cpp:408] ip3 <- ip2
I0501 03:03:03.916641 18693 net.cpp:382] ip3 -> ip3
I0501 03:03:03.916728 18693 net.cpp:124] Setting up ip3
I0501 03:03:03.916735 18693 net.cpp:131] Top shape: 111 20 (2220)
I0501 03:03:03.916738 18693 net.cpp:139] Memory required for data: 9574860
I0501 03:03:03.916743 18693 layer_factory.hpp:77] Creating layer relu3
I0501 03:03:03.916748 18693 net.cpp:86] Creating Layer relu3
I0501 03:03:03.916750 18693 net.cpp:408] relu3 <- ip3
I0501 03:03:03.916754 18693 net.cpp:369] relu3 -> ip3 (in-place)
I0501 03:03:03.916929 18693 net.cpp:124] Setting up relu3
I0501 03:03:03.916939 18693 net.cpp:131] Top shape: 111 20 (2220)
I0501 03:03:03.916942 18693 net.cpp:139] Memory required for data: 9583740
I0501 03:03:03.916945 18693 layer_factory.hpp:77] Creating layer ip4
I0501 03:03:03.916967 18693 net.cpp:86] Creating Layer ip4
I0501 03:03:03.916970 18693 net.cpp:408] ip4 <- ip3
I0501 03:03:03.916975 18693 net.cpp:382] ip4 -> ip4
I0501 03:03:03.917068 18693 net.cpp:124] Setting up ip4
I0501 03:03:03.917076 18693 net.cpp:131] Top shape: 111 10 (1110)
I0501 03:03:03.917079 18693 net.cpp:139] Memory required for data: 9588180
I0501 03:03:03.917088 18693 layer_factory.hpp:77] Creating layer loss
I0501 03:03:03.917093 18693 net.cpp:86] Creating Layer loss
I0501 03:03:03.917096 18693 net.cpp:408] loss <- ip4
I0501 03:03:03.917100 18693 net.cpp:408] loss <- label
I0501 03:03:03.917105 18693 net.cpp:382] loss -> loss
I0501 03:03:03.917119 18693 layer_factory.hpp:77] Creating layer loss
…
I0501 03:03:03.918298 18693 solver.cpp:173] Creating test net (#0) specified by net file: ECE595/cifar/train_test/var_everything/cifar_train_test_341.prototxt
I0501 03:03:03.918324 18693 net.cpp:296] The NetState phase (1) differed from the phase (0) specified by a rule in layer cifar
I0501 03:03:03.918411 18693 net.cpp:53] Initializing net from parameters: 
name: "CIFAR"
state {
  phase: TEST
}
layer {
  name: "cifar"
  type: "Data"
  top: "data"
  top: "label"
  include {
    phase: TEST
  }
  transform_param {
    mean_file: "examples/cifar10/mean.binaryproto"
  }
  data_param {
    source: "examples/cifar10/cifar10_test_lmdb"
    batch_size: 1000
    backend: LMDB
  }
}
layer {
  name: "conv0"
  type: "Convolution"
  bottom: "data"
  top: "conv0"
  param {
    lr_mult: 1
  }
  param {
    lr_mult: 2
  }
  convolution_param {
    num_output: 8
    pad: 2
    kernel_size: 5
    stride: 1
    weight_filler {
      type: "gaussian"
      std: 0.01
    }
    bias_filler {
      type: "constant"
    }
  }
}
layer {
  name: "Sigmoid0"
  type: "Sigmoid"
  bottom: "conv0"
  top: "Sigmoid0"
}
layer {
  name: "pool0"
  type: "Pooling"
  bottom: "Sigmoid0"
  top: "pool0"
  pooling_param {
    pool: AVE
    kernel_size: 3
    stride: 2
  }
}
layer {
  name: "ip1"
  type: "InnerProduct"
  bottom: "pool0"
  top: "ip1"
  param {
    lr_mult: 1
  }
  param {
    lr_mult: 2
  }
  inner_product_param {
    num_output: 10
    weight_filler {
      type: "gaussian"
      std: 0.01
    }
    bias_filler {
      type: "constant"
    }
  }
}
layer {
  name: "relu1"
  type: "ReLU"
  bottom: "ip1"
  top: "ip1"
}
layer {
  name: "ip2"
  type: "InnerProduct"
  bottom: "ip1"
  top: "ip2"
  param {
    lr_mult: 1
  }
  param {
    lr_mult: 2
  }
  inner_product_param {
    num_output: 10
    weight_filler {
      type: "gaussian"
      std: 0.01
    }
    bias_filler {
      type: "constant"
    }
  }
}
layer {
  name: "relu2"
  type: "ReLU"
  bottom: "ip2"
  top: "ip2"
}
layer {
  name: "ip3"
  type: "InnerProduct"
  bottom: "ip2"
  top: "ip3"
  param {
    lr_mult: 1
  }
  param {
    lr_mult: 2
  }
  inner_product_param {
    num_output: 20
    weight_filler {
      type: "gaussian"
      std: 0.01
    }
    bias_filler {
      type: "constant"
    }
  }
}
layer {
  name: "relu3"
  type: "ReLU"
  bottom: "ip3"
  top: "ip3"
}
layer {
  name: "ip4"
  type: "InnerProduct"
  bottom: "ip3"
  top: "ip4"
  param {
    lr_mult: 1
  }
  param {
    lr_mult: 2
  }
  inner_product_param {
    num_output: 10
    weight_filler {
      type: "gaussian"
      std: 0.01
    }
    bias_filler {
      type: "constant"
    }
  }
}
layer {
  name: "accuracy"
  type: "Accuracy"
  bottom: "ip4"
  bottom: "label"
  top: "accuracy"
  include {
    phase: TEST
  }
}
layer {
  name: "loss"
  type: "SoftmaxWithLoss"
  bottom: "ip4"
  bottom: "label"
  top: "loss"
}
I0501 03:03:03.918483 18693 layer_factory.hpp:77] Creating layer cifar
I0501 03:03:03.918545 18693 db_lmdb.cpp:35] Opened lmdb examples/cifar10/cifar10_test_lmdb
I0501 03:03:03.918556 18693 net.cpp:86] Creating Layer cifar
I0501 03:03:03.918560 18693 net.cpp:382] cifar -> data
I0501 03:03:03.918568 18693 net.cpp:382] cifar -> label
I0501 03:03:03.918576 18693 data_transformer.cpp:25] Loading mean file from: examples/cifar10/mean.binaryproto
I0501 03:03:03.918709 18693 data_layer.cpp:45] output data size: 1000,3,32,32
I0501 03:03:03.940145 18693 net.cpp:124] Setting up cifar
I0501 03:03:03.940187 18693 net.cpp:131] Top shape: 1000 3 32 32 (3072000)
I0501 03:03:03.940193 18693 net.cpp:131] Top shape: 1000 (1000)
I0501 03:03:03.940196 18693 net.cpp:139] Memory required for data: 12292000
I0501 03:03:03.940202 18693 layer_factory.hpp:77] Creating layer label_cifar_1_split
I0501 03:03:03.940214 18693 net.cpp:86] Creating Layer label_cifar_1_split
I0501 03:03:03.940218 18693 net.cpp:408] label_cifar_1_split <- label
I0501 03:03:03.940224 18693 net.cpp:382] label_cifar_1_split -> label_cifar_1_split_0
I0501 03:03:03.940248 18693 net.cpp:382] label_cifar_1_split -> label_cifar_1_split_1
I0501 03:03:03.940338 18693 net.cpp:124] Setting up label_cifar_1_split
I0501 03:03:03.940346 18693 net.cpp:131] Top shape: 1000 (1000)
I0501 03:03:03.940349 18693 net.cpp:131] Top shape: 1000 (1000)
I0501 03:03:03.940352 18693 net.cpp:139] Memory required for data: 12300000
I0501 03:03:03.940356 18693 layer_factory.hpp:77] Creating layer conv0
I0501 03:03:03.940368 18693 net.cpp:86] Creating Layer conv0
I0501 03:03:03.940371 18693 net.cpp:408] conv0 <- data
I0501 03:03:03.940376 18693 net.cpp:382] conv0 -> conv0
I0501 03:03:03.942059 18693 net.cpp:124] Setting up conv0
I0501 03:03:03.942088 18693 net.cpp:131] Top shape: 1000 8 32 32 (8192000)
I0501 03:03:03.942091 18693 net.cpp:139] Memory required for data: 45068000
I0501 03:03:03.942101 18693 layer_factory.hpp:77] Creating layer Sigmoid0
I0501 03:03:03.942108 18693 net.cpp:86] Creating Layer Sigmoid0
I0501 03:03:03.942111 18693 net.cpp:408] Sigmoid0 <- conv0
I0501 03:03:03.942116 18693 net.cpp:382] Sigmoid0 -> Sigmoid0
I0501 03:03:03.942291 18693 net.cpp:124] Setting up Sigmoid0
I0501 03:03:03.942301 18693 net.cpp:131] Top shape: 1000 8 32 32 (8192000)
I0501 03:03:03.942303 18693 net.cpp:139] Memory required for data: 77836000
I0501 03:03:03.942307 18693 layer_factory.hpp:77] Creating layer pool0
I0501 03:03:03.942315 18693 net.cpp:86] Creating Layer pool0
I0501 03:03:03.942318 18693 net.cpp:408] pool0 <- Sigmoid0
I0501 03:03:03.942323 18693 net.cpp:382] pool0 -> pool0
I0501 03:03:03.942473 18693 net.cpp:124] Setting up pool0
I0501 03:03:03.942482 18693 net.cpp:131] Top shape: 1000 8 16 16 (2048000)
I0501 03:03:03.942486 18693 net.cpp:139] Memory required for data: 86028000
I0501 03:03:03.942488 18693 layer_factory.hpp:77] Creating layer ip1
I0501 03:03:03.942497 18693 net.cpp:86] Creating Layer ip1
I0501 03:03:03.942499 18693 net.cpp:408] ip1 <- pool0
I0501 03:03:03.942504 18693 net.cpp:382] ip1 -> ip1
I0501 03:03:03.943770 18693 net.cpp:124] Setting up ip1
I0501 03:03:03.943780 18693 net.cpp:131] Top shape: 1000 10 (10000)
I0501 03:03:03.943799 18693 net.cpp:139] Memory required for data: 86068000
I0501 03:03:03.943821 18693 layer_factory.hpp:77] Creating layer relu1
I0501 03:03:03.943827 18693 net.cpp:86] Creating Layer relu1
I0501 03:03:03.943831 18693 net.cpp:408] relu1 <- ip1
I0501 03:03:03.943851 18693 net.cpp:369] relu1 -> ip1 (in-place)
I0501 03:03:03.944007 18693 net.cpp:124] Setting up relu1
I0501 03:03:03.944016 18693 net.cpp:131] Top shape: 1000 10 (10000)
I0501 03:03:03.944020 18693 net.cpp:139] Memory required for data: 86108000
I0501 03:03:03.944022 18693 layer_factory.hpp:77] Creating layer ip2
I0501 03:03:03.944030 18693 net.cpp:86] Creating Layer ip2
I0501 03:03:03.944033 18693 net.cpp:408] ip2 <- ip1
I0501 03:03:03.944038 18693 net.cpp:382] ip2 -> ip2
I0501 03:03:03.944136 18693 net.cpp:124] Setting up ip2
I0501 03:03:03.944144 18693 net.cpp:131] Top shape: 1000 10 (10000)
I0501 03:03:03.944147 18693 net.cpp:139] Memory required for data: 86148000
I0501 03:03:03.944154 18693 layer_factory.hpp:77] Creating layer relu2
I0501 03:03:03.944160 18693 net.cpp:86] Creating Layer relu2
I0501 03:03:03.944164 18693 net.cpp:408] relu2 <- ip2
I0501 03:03:03.944167 18693 net.cpp:369] relu2 -> ip2 (in-place)
I0501 03:03:03.944913 18693 net.cpp:124] Setting up relu2
I0501 03:03:03.944941 18693 net.cpp:131] Top shape: 1000 10 (10000)
I0501 03:03:03.944944 18693 net.cpp:139] Memory required for data: 86188000
I0501 03:03:03.944948 18693 layer_factory.hpp:77] Creating layer ip3
I0501 03:03:03.944955 18693 net.cpp:86] Creating Layer ip3
I0501 03:03:03.944959 18693 net.cpp:408] ip3 <- ip2
I0501 03:03:03.944964 18693 net.cpp:382] ip3 -> ip3
I0501 03:03:03.945087 18693 net.cpp:124] Setting up ip3
I0501 03:03:03.945096 18693 net.cpp:131] Top shape: 1000 20 (20000)
I0501 03:03:03.945098 18693 net.cpp:139] Memory required for data: 86268000
I0501 03:03:03.945104 18693 layer_factory.hpp:77] Creating layer relu3
I0501 03:03:03.945109 18693 net.cpp:86] Creating Layer relu3
I0501 03:03:03.945113 18693 net.cpp:408] relu3 <- ip3
I0501 03:03:03.945117 18693 net.cpp:369] relu3 -> ip3 (in-place)
I0501 03:03:03.945271 18693 net.cpp:124] Setting up relu3
I0501 03:03:03.945278 18693 net.cpp:131] Top shape: 1000 20 (20000)
I0501 03:03:03.945281 18693 net.cpp:139] Memory required for data: 86348000
I0501 03:03:03.945284 18693 layer_factory.hpp:77] Creating layer ip4
I0501 03:03:03.945291 18693 net.cpp:86] Creating Layer ip4
I0501 03:03:03.945294 18693 net.cpp:408] ip4 <- ip3
I0501 03:03:03.945299 18693 net.cpp:382] ip4 -> ip4
I0501 03:03:03.945397 18693 net.cpp:124] Setting up ip4
I0501 03:03:03.945405 18693 net.cpp:131] Top shape: 1000 10 (10000)
I0501 03:03:03.945407 18693 net.cpp:139] Memory required for data: 86388000
I0501 03:03:03.945415 18693 layer_factory.hpp:77] Creating layer ip4_ip4_0_split
I0501 03:03:03.945420 18693 net.cpp:86] Creating Layer ip4_ip4_0_split
I0501 03:03:03.945423 18693 net.cpp:408] ip4_ip4_0_split <- ip4
I0501 03:03:03.945428 18693 net.cpp:382] ip4_ip4_0_split -> ip4_ip4_0_split_0
I0501 03:03:03.945433 18693 net.cpp:382] ip4_ip4_0_split -> ip4_ip4_0_split_1
I0501 03:03:03.945461 18693 net.cpp:124] Setting up ip4_ip4_0_split
I0501 03:03:03.945466 18693 net.cpp:131] Top shape: 1000 10 (10000)
I0501 03:03:03.945471 18693 net.cpp:131] Top shape: 1000 10 (10000)
I0501 03:03:03.945472 18693 net.cpp:139] Memory required for data: 86468000
I0501 03:03:03.945475 18693 layer_factory.hpp:77] Creating layer accuracy
I0501 03:03:03.945482 18693 net.cpp:86] Creating Layer accuracy
I0501 03:03:03.945485 18693 net.cpp:408] accuracy <- ip4_ip4_0_split_0
I0501 03:03:03.945489 18693 net.cpp:408] accuracy <- label_cifar_1_split_0
I0501 03:03:03.945494 18693 net.cpp:382] accuracy -> accuracy
…
