…
I0501 05:59:38.193194 31148 net.cpp:296] The NetState phase (0) differed from the phase (1) specified by a rule in layer cifar
I0501 05:59:38.193214 31148 net.cpp:296] The NetState phase (0) differed from the phase (1) specified by a rule in layer accuracy
I0501 05:59:38.193321 31148 net.cpp:53] Initializing net from parameters: 
name: "CIFAR"
state {
  phase: TRAIN
  level: 0
  stage: ""
}
layer {
  name: "cifar"
  type: "Data"
  top: "data"
  top: "label"
  include {
    phase: TRAIN
  }
  transform_param {
    mean_file: "examples/cifar10/mean.binaryproto"
  }
  data_param {
    source: "examples/cifar10/cifar10_train_lmdb"
    batch_size: 111
    backend: LMDB
  }
}
layer {
  name: "conv0"
  type: "Convolution"
  bottom: "data"
  top: "conv0"
  param {
    lr_mult: 1
  }
  param {
    lr_mult: 2
  }
  convolution_param {
    num_output: 8
    pad: 2
    kernel_size: 5
    stride: 1
    weight_filler {
      type: "gaussian"
      std: 0.01
    }
    bias_filler {
      type: "constant"
    }
  }
}
layer {
  name: "Sigmoid0"
  type: "Sigmoid"
  bottom: "conv0"
  top: "Sigmoid0"
}
layer {
  name: "pool0"
  type: "Pooling"
  bottom: "Sigmoid0"
  top: "pool0"
  pooling_param {
    pool: AVE
    kernel_size: 3
    stride: 2
  }
}
layer {
  name: "ip1"
  type: "InnerProduct"
  bottom: "pool0"
  top: "ip1"
  param {
    lr_mult: 1
  }
  param {
    lr_mult: 2
  }
  inner_product_param {
    num_output: 80
    weight_filler {
      type: "gaussian"
      std: 0.01
    }
    bias_filler {
      type: "constant"
    }
  }
}
layer {
  name: "relu1"
  type: "ReLU"
  bottom: "ip1"
  top: "ip1"
}
layer {
  name: "ip2"
  type: "InnerProduct"
  bottom: "ip1"
  top: "ip2"
  param {
    lr_mult: 1
  }
  param {
    lr_mult: 2
  }
  inner_product_param {
    num_output: 160
    weight_filler {
      type: "gaussian"
      std: 0.01
    }
    bias_filler {
      type: "constant"
    }
  }
}
layer {
  name: "relu2"
  type: "ReLU"
  bottom: "ip2"
  top: "ip2"
}
layer {
  name: "ip3"
  type: "InnerProduct"
  bottom: "ip2"
  top: "ip3"
  param {
    lr_mult: 1
  }
  param {
    lr_mult: 2
  }
  inner_product_param {
    num_output: 20
    weight_filler {
      type: "gaussian"
      std: 0.01
    }
    bias_filler {
      type: "constant"
    }
  }
}
layer {
  name: "relu3"
  type: "ReLU"
  bottom: "ip3"
  top: "ip3"
}
layer {
  name: "ip4"
  type: "InnerProduct"
  bottom: "ip3"
  top: "ip4"
  param {
    lr_mult: 1
  }
  param {
    lr_mult: 2
  }
  inner_product_param {
    num_output: 10
    weight_filler {
      type: "gaussian"
      std: 0.01
    }
    bias_filler {
      type: "constant"
    }
  }
}
layer {
  name: "loss"
  type: "SoftmaxWithLoss"
  bottom: "ip4"
  bottom: "label"
  top: "loss"
}
I0501 05:59:38.193398 31148 layer_factory.hpp:77] Creating layer cifar
I0501 05:59:38.193500 31148 db_lmdb.cpp:35] Opened lmdb examples/cifar10/cifar10_train_lmdb
I0501 05:59:38.193527 31148 net.cpp:86] Creating Layer cifar
I0501 05:59:38.193536 31148 net.cpp:382] cifar -> data
I0501 05:59:38.193559 31148 net.cpp:382] cifar -> label
I0501 05:59:38.193572 31148 data_transformer.cpp:25] Loading mean file from: examples/cifar10/mean.binaryproto
I0501 05:59:38.195724 31148 data_layer.cpp:45] output data size: 111,3,32,32
I0501 05:59:38.203634 31148 net.cpp:124] Setting up cifar
I0501 05:59:38.203654 31148 net.cpp:131] Top shape: 111 3 32 32 (340992)
I0501 05:59:38.203660 31148 net.cpp:131] Top shape: 111 (111)
I0501 05:59:38.203662 31148 net.cpp:139] Memory required for data: 1364412
I0501 05:59:38.203685 31148 layer_factory.hpp:77] Creating layer conv0
I0501 05:59:38.203706 31148 net.cpp:86] Creating Layer conv0
I0501 05:59:38.203711 31148 net.cpp:408] conv0 <- data
I0501 05:59:38.203724 31148 net.cpp:382] conv0 -> conv0
I0501 05:59:38.485252 31148 net.cpp:124] Setting up conv0
I0501 05:59:38.485280 31148 net.cpp:131] Top shape: 111 8 32 32 (909312)
I0501 05:59:38.485283 31148 net.cpp:139] Memory required for data: 5001660
I0501 05:59:38.485297 31148 layer_factory.hpp:77] Creating layer Sigmoid0
I0501 05:59:38.485308 31148 net.cpp:86] Creating Layer Sigmoid0
I0501 05:59:38.485312 31148 net.cpp:408] Sigmoid0 <- conv0
I0501 05:59:38.485317 31148 net.cpp:382] Sigmoid0 -> Sigmoid0
I0501 05:59:38.485507 31148 net.cpp:124] Setting up Sigmoid0
I0501 05:59:38.485517 31148 net.cpp:131] Top shape: 111 8 32 32 (909312)
I0501 05:59:38.485519 31148 net.cpp:139] Memory required for data: 8638908
I0501 05:59:38.485522 31148 layer_factory.hpp:77] Creating layer pool0
I0501 05:59:38.485529 31148 net.cpp:86] Creating Layer pool0
I0501 05:59:38.485532 31148 net.cpp:408] pool0 <- Sigmoid0
I0501 05:59:38.485536 31148 net.cpp:382] pool0 -> pool0
I0501 05:59:38.486263 31148 net.cpp:124] Setting up pool0
I0501 05:59:38.486276 31148 net.cpp:131] Top shape: 111 8 16 16 (227328)
I0501 05:59:38.486279 31148 net.cpp:139] Memory required for data: 9548220
I0501 05:59:38.486282 31148 layer_factory.hpp:77] Creating layer ip1
I0501 05:59:38.486291 31148 net.cpp:86] Creating Layer ip1
I0501 05:59:38.486294 31148 net.cpp:408] ip1 <- pool0
I0501 05:59:38.486299 31148 net.cpp:382] ip1 -> ip1
I0501 05:59:38.490504 31148 net.cpp:124] Setting up ip1
I0501 05:59:38.490511 31148 net.cpp:131] Top shape: 111 80 (8880)
I0501 05:59:38.490514 31148 net.cpp:139] Memory required for data: 9583740
I0501 05:59:38.490521 31148 layer_factory.hpp:77] Creating layer relu1
I0501 05:59:38.490526 31148 net.cpp:86] Creating Layer relu1
I0501 05:59:38.490530 31148 net.cpp:408] relu1 <- ip1
I0501 05:59:38.490533 31148 net.cpp:369] relu1 -> ip1 (in-place)
I0501 05:59:38.490675 31148 net.cpp:124] Setting up relu1
I0501 05:59:38.490684 31148 net.cpp:131] Top shape: 111 80 (8880)
I0501 05:59:38.490686 31148 net.cpp:139] Memory required for data: 9619260
I0501 05:59:38.490689 31148 layer_factory.hpp:77] Creating layer ip2
I0501 05:59:38.490695 31148 net.cpp:86] Creating Layer ip2
I0501 05:59:38.490700 31148 net.cpp:408] ip2 <- ip1
I0501 05:59:38.490703 31148 net.cpp:382] ip2 -> ip2
I0501 05:59:38.491906 31148 net.cpp:124] Setting up ip2
I0501 05:59:38.491919 31148 net.cpp:131] Top shape: 111 160 (17760)
I0501 05:59:38.491921 31148 net.cpp:139] Memory required for data: 9690300
I0501 05:59:38.491928 31148 layer_factory.hpp:77] Creating layer relu2
I0501 05:59:38.491933 31148 net.cpp:86] Creating Layer relu2
I0501 05:59:38.491936 31148 net.cpp:408] relu2 <- ip2
I0501 05:59:38.491941 31148 net.cpp:369] relu2 -> ip2 (in-place)
I0501 05:59:38.492090 31148 net.cpp:124] Setting up relu2
I0501 05:59:38.492099 31148 net.cpp:131] Top shape: 111 160 (17760)
I0501 05:59:38.492101 31148 net.cpp:139] Memory required for data: 9761340
I0501 05:59:38.492105 31148 layer_factory.hpp:77] Creating layer ip3
I0501 05:59:38.492111 31148 net.cpp:86] Creating Layer ip3
I0501 05:59:38.492115 31148 net.cpp:408] ip3 <- ip2
I0501 05:59:38.492120 31148 net.cpp:382] ip3 -> ip3
I0501 05:59:38.492285 31148 net.cpp:124] Setting up ip3
I0501 05:59:38.492307 31148 net.cpp:131] Top shape: 111 20 (2220)
I0501 05:59:38.492311 31148 net.cpp:139] Memory required for data: 9770220
I0501 05:59:38.492316 31148 layer_factory.hpp:77] Creating layer relu3
I0501 05:59:38.492321 31148 net.cpp:86] Creating Layer relu3
I0501 05:59:38.492323 31148 net.cpp:408] relu3 <- ip3
I0501 05:59:38.492327 31148 net.cpp:369] relu3 -> ip3 (in-place)
I0501 05:59:38.492465 31148 net.cpp:124] Setting up relu3
I0501 05:59:38.492472 31148 net.cpp:131] Top shape: 111 20 (2220)
I0501 05:59:38.492475 31148 net.cpp:139] Memory required for data: 9779100
I0501 05:59:38.492478 31148 layer_factory.hpp:77] Creating layer ip4
I0501 05:59:38.492498 31148 net.cpp:86] Creating Layer ip4
I0501 05:59:38.492501 31148 net.cpp:408] ip4 <- ip3
I0501 05:59:38.492506 31148 net.cpp:382] ip4 -> ip4
I0501 05:59:38.492601 31148 net.cpp:124] Setting up ip4
I0501 05:59:38.492622 31148 net.cpp:131] Top shape: 111 10 (1110)
I0501 05:59:38.492625 31148 net.cpp:139] Memory required for data: 9783540
I0501 05:59:38.492632 31148 layer_factory.hpp:77] Creating layer loss
I0501 05:59:38.492642 31148 net.cpp:86] Creating Layer loss
I0501 05:59:38.492645 31148 net.cpp:408] loss <- ip4
I0501 05:59:38.492648 31148 net.cpp:408] loss <- label
I0501 05:59:38.492653 31148 net.cpp:382] loss -> loss
I0501 05:59:38.492666 31148 layer_factory.hpp:77] Creating layer loss
…
I0501 05:59:38.493894 31148 solver.cpp:173] Creating test net (#0) specified by net file: ECE595/cifar/train_test/var_everything/cifar_train_test_436.prototxt
I0501 05:59:38.493921 31148 net.cpp:296] The NetState phase (1) differed from the phase (0) specified by a rule in layer cifar
I0501 05:59:38.494010 31148 net.cpp:53] Initializing net from parameters: 
name: "CIFAR"
state {
  phase: TEST
}
layer {
  name: "cifar"
  type: "Data"
  top: "data"
  top: "label"
  include {
    phase: TEST
  }
  transform_param {
    mean_file: "examples/cifar10/mean.binaryproto"
  }
  data_param {
    source: "examples/cifar10/cifar10_test_lmdb"
    batch_size: 1000
    backend: LMDB
  }
}
layer {
  name: "conv0"
  type: "Convolution"
  bottom: "data"
  top: "conv0"
  param {
    lr_mult: 1
  }
  param {
    lr_mult: 2
  }
  convolution_param {
    num_output: 8
    pad: 2
    kernel_size: 5
    stride: 1
    weight_filler {
      type: "gaussian"
      std: 0.01
    }
    bias_filler {
      type: "constant"
    }
  }
}
layer {
  name: "Sigmoid0"
  type: "Sigmoid"
  bottom: "conv0"
  top: "Sigmoid0"
}
layer {
  name: "pool0"
  type: "Pooling"
  bottom: "Sigmoid0"
  top: "pool0"
  pooling_param {
    pool: AVE
    kernel_size: 3
    stride: 2
  }
}
layer {
  name: "ip1"
  type: "InnerProduct"
  bottom: "pool0"
  top: "ip1"
  param {
    lr_mult: 1
  }
  param {
    lr_mult: 2
  }
  inner_product_param {
    num_output: 80
    weight_filler {
      type: "gaussian"
      std: 0.01
    }
    bias_filler {
      type: "constant"
    }
  }
}
layer {
  name: "relu1"
  type: "ReLU"
  bottom: "ip1"
  top: "ip1"
}
layer {
  name: "ip2"
  type: "InnerProduct"
  bottom: "ip1"
  top: "ip2"
  param {
    lr_mult: 1
  }
  param {
    lr_mult: 2
  }
  inner_product_param {
    num_output: 160
    weight_filler {
      type: "gaussian"
      std: 0.01
    }
    bias_filler {
      type: "constant"
    }
  }
}
layer {
  name: "relu2"
  type: "ReLU"
  bottom: "ip2"
  top: "ip2"
}
layer {
  name: "ip3"
  type: "InnerProduct"
  bottom: "ip2"
  top: "ip3"
  param {
    lr_mult: 1
  }
  param {
    lr_mult: 2
  }
  inner_product_param {
    num_output: 20
    weight_filler {
      type: "gaussian"
      std: 0.01
    }
    bias_filler {
      type: "constant"
    }
  }
}
layer {
  name: "relu3"
  type: "ReLU"
  bottom: "ip3"
  top: "ip3"
}
layer {
  name: "ip4"
  type: "InnerProduct"
  bottom: "ip3"
  top: "ip4"
  param {
    lr_mult: 1
  }
  param {
    lr_mult: 2
  }
  inner_product_param {
    num_output: 10
    weight_filler {
      type: "gaussian"
      std: 0.01
    }
    bias_filler {
      type: "constant"
    }
  }
}
layer {
  name: "accuracy"
  type: "Accuracy"
  bottom: "ip4"
  bottom: "label"
  top: "accuracy"
  include {
    phase: TEST
  }
}
layer {
  name: "loss"
  type: "SoftmaxWithLoss"
  bottom: "ip4"
  bottom: "label"
  top: "loss"
}
I0501 05:59:38.494092 31148 layer_factory.hpp:77] Creating layer cifar
I0501 05:59:38.494135 31148 db_lmdb.cpp:35] Opened lmdb examples/cifar10/cifar10_test_lmdb
I0501 05:59:38.494148 31148 net.cpp:86] Creating Layer cifar
I0501 05:59:38.494153 31148 net.cpp:382] cifar -> data
I0501 05:59:38.494158 31148 net.cpp:382] cifar -> label
I0501 05:59:38.494165 31148 data_transformer.cpp:25] Loading mean file from: examples/cifar10/mean.binaryproto
I0501 05:59:38.494294 31148 data_layer.cpp:45] output data size: 1000,3,32,32
I0501 05:59:38.516089 31148 net.cpp:124] Setting up cifar
I0501 05:59:38.516116 31148 net.cpp:131] Top shape: 1000 3 32 32 (3072000)
I0501 05:59:38.516122 31148 net.cpp:131] Top shape: 1000 (1000)
I0501 05:59:38.516125 31148 net.cpp:139] Memory required for data: 12292000
I0501 05:59:38.516131 31148 layer_factory.hpp:77] Creating layer label_cifar_1_split
I0501 05:59:38.516144 31148 net.cpp:86] Creating Layer label_cifar_1_split
I0501 05:59:38.516147 31148 net.cpp:408] label_cifar_1_split <- label
I0501 05:59:38.516154 31148 net.cpp:382] label_cifar_1_split -> label_cifar_1_split_0
I0501 05:59:38.516161 31148 net.cpp:382] label_cifar_1_split -> label_cifar_1_split_1
I0501 05:59:38.516211 31148 net.cpp:124] Setting up label_cifar_1_split
I0501 05:59:38.516216 31148 net.cpp:131] Top shape: 1000 (1000)
I0501 05:59:38.516219 31148 net.cpp:131] Top shape: 1000 (1000)
I0501 05:59:38.516222 31148 net.cpp:139] Memory required for data: 12300000
I0501 05:59:38.516224 31148 layer_factory.hpp:77] Creating layer conv0
I0501 05:59:38.516235 31148 net.cpp:86] Creating Layer conv0
I0501 05:59:38.516238 31148 net.cpp:408] conv0 <- data
I0501 05:59:38.516243 31148 net.cpp:382] conv0 -> conv0
I0501 05:59:38.518075 31148 net.cpp:124] Setting up conv0
I0501 05:59:38.518090 31148 net.cpp:131] Top shape: 1000 8 32 32 (8192000)
I0501 05:59:38.518093 31148 net.cpp:139] Memory required for data: 45068000
I0501 05:59:38.518102 31148 layer_factory.hpp:77] Creating layer Sigmoid0
I0501 05:59:38.518123 31148 net.cpp:86] Creating Layer Sigmoid0
I0501 05:59:38.518127 31148 net.cpp:408] Sigmoid0 <- conv0
I0501 05:59:38.518131 31148 net.cpp:382] Sigmoid0 -> Sigmoid0
I0501 05:59:38.518301 31148 net.cpp:124] Setting up Sigmoid0
I0501 05:59:38.518309 31148 net.cpp:131] Top shape: 1000 8 32 32 (8192000)
I0501 05:59:38.518313 31148 net.cpp:139] Memory required for data: 77836000
I0501 05:59:38.518316 31148 layer_factory.hpp:77] Creating layer pool0
I0501 05:59:38.518323 31148 net.cpp:86] Creating Layer pool0
I0501 05:59:38.518326 31148 net.cpp:408] pool0 <- Sigmoid0
I0501 05:59:38.518332 31148 net.cpp:382] pool0 -> pool0
I0501 05:59:38.518517 31148 net.cpp:124] Setting up pool0
I0501 05:59:38.518527 31148 net.cpp:131] Top shape: 1000 8 16 16 (2048000)
I0501 05:59:38.518529 31148 net.cpp:139] Memory required for data: 86028000
I0501 05:59:38.518532 31148 layer_factory.hpp:77] Creating layer ip1
I0501 05:59:38.518540 31148 net.cpp:86] Creating Layer ip1
I0501 05:59:38.518543 31148 net.cpp:408] ip1 <- pool0
I0501 05:59:38.518548 31148 net.cpp:382] ip1 -> ip1
I0501 05:59:38.523036 31148 net.cpp:124] Setting up ip1
I0501 05:59:38.523047 31148 net.cpp:131] Top shape: 1000 80 (80000)
I0501 05:59:38.523051 31148 net.cpp:139] Memory required for data: 86348000
I0501 05:59:38.523087 31148 layer_factory.hpp:77] Creating layer relu1
I0501 05:59:38.523093 31148 net.cpp:86] Creating Layer relu1
I0501 05:59:38.523097 31148 net.cpp:408] relu1 <- ip1
I0501 05:59:38.523102 31148 net.cpp:369] relu1 -> ip1 (in-place)
I0501 05:59:38.523283 31148 net.cpp:124] Setting up relu1
I0501 05:59:38.523291 31148 net.cpp:131] Top shape: 1000 80 (80000)
I0501 05:59:38.523294 31148 net.cpp:139] Memory required for data: 86668000
I0501 05:59:38.523298 31148 layer_factory.hpp:77] Creating layer ip2
I0501 05:59:38.523304 31148 net.cpp:86] Creating Layer ip2
I0501 05:59:38.523308 31148 net.cpp:408] ip2 <- ip1
I0501 05:59:38.523313 31148 net.cpp:382] ip2 -> ip2
I0501 05:59:38.523744 31148 net.cpp:124] Setting up ip2
I0501 05:59:38.523752 31148 net.cpp:131] Top shape: 1000 160 (160000)
I0501 05:59:38.523756 31148 net.cpp:139] Memory required for data: 87308000
I0501 05:59:38.523762 31148 layer_factory.hpp:77] Creating layer relu2
I0501 05:59:38.523784 31148 net.cpp:86] Creating Layer relu2
I0501 05:59:38.523787 31148 net.cpp:408] relu2 <- ip2
I0501 05:59:38.523790 31148 net.cpp:369] relu2 -> ip2 (in-place)
I0501 05:59:38.524549 31148 net.cpp:124] Setting up relu2
I0501 05:59:38.524561 31148 net.cpp:131] Top shape: 1000 160 (160000)
I0501 05:59:38.524564 31148 net.cpp:139] Memory required for data: 87948000
I0501 05:59:38.524567 31148 layer_factory.hpp:77] Creating layer ip3
I0501 05:59:38.524575 31148 net.cpp:86] Creating Layer ip3
I0501 05:59:38.524595 31148 net.cpp:408] ip3 <- ip2
I0501 05:59:38.524600 31148 net.cpp:382] ip3 -> ip3
I0501 05:59:38.524782 31148 net.cpp:124] Setting up ip3
I0501 05:59:38.524790 31148 net.cpp:131] Top shape: 1000 20 (20000)
I0501 05:59:38.524793 31148 net.cpp:139] Memory required for data: 88028000
I0501 05:59:38.524798 31148 layer_factory.hpp:77] Creating layer relu3
I0501 05:59:38.524802 31148 net.cpp:86] Creating Layer relu3
I0501 05:59:38.524806 31148 net.cpp:408] relu3 <- ip3
I0501 05:59:38.524814 31148 net.cpp:369] relu3 -> ip3 (in-place)
I0501 05:59:38.524988 31148 net.cpp:124] Setting up relu3
I0501 05:59:38.524996 31148 net.cpp:131] Top shape: 1000 20 (20000)
I0501 05:59:38.524999 31148 net.cpp:139] Memory required for data: 88108000
I0501 05:59:38.525002 31148 layer_factory.hpp:77] Creating layer ip4
I0501 05:59:38.525009 31148 net.cpp:86] Creating Layer ip4
I0501 05:59:38.525013 31148 net.cpp:408] ip4 <- ip3
I0501 05:59:38.525017 31148 net.cpp:382] ip4 -> ip4
I0501 05:59:38.525161 31148 net.cpp:124] Setting up ip4
I0501 05:59:38.525168 31148 net.cpp:131] Top shape: 1000 10 (10000)
I0501 05:59:38.525171 31148 net.cpp:139] Memory required for data: 88148000
I0501 05:59:38.525178 31148 layer_factory.hpp:77] Creating layer ip4_ip4_0_split
I0501 05:59:38.525185 31148 net.cpp:86] Creating Layer ip4_ip4_0_split
I0501 05:59:38.525187 31148 net.cpp:408] ip4_ip4_0_split <- ip4
I0501 05:59:38.525192 31148 net.cpp:382] ip4_ip4_0_split -> ip4_ip4_0_split_0
I0501 05:59:38.525197 31148 net.cpp:382] ip4_ip4_0_split -> ip4_ip4_0_split_1
I0501 05:59:38.525228 31148 net.cpp:124] Setting up ip4_ip4_0_split
I0501 05:59:38.525233 31148 net.cpp:131] Top shape: 1000 10 (10000)
I0501 05:59:38.525235 31148 net.cpp:131] Top shape: 1000 10 (10000)
I0501 05:59:38.525238 31148 net.cpp:139] Memory required for data: 88228000
I0501 05:59:38.525241 31148 layer_factory.hpp:77] Creating layer accuracy
I0501 05:59:38.525246 31148 net.cpp:86] Creating Layer accuracy
I0501 05:59:38.525249 31148 net.cpp:408] accuracy <- ip4_ip4_0_split_0
I0501 05:59:38.525252 31148 net.cpp:408] accuracy <- label_cifar_1_split_0
I0501 05:59:38.525257 31148 net.cpp:382] accuracy -> accuracy
…
