…
I0430 16:38:13.682457 17876 net.cpp:296] The NetState phase (0) differed from the phase (1) specified by a rule in layer cifar
I0430 16:38:13.682471 17876 net.cpp:296] The NetState phase (0) differed from the phase (1) specified by a rule in layer accuracy
I0430 16:38:13.682548 17876 net.cpp:53] Initializing net from parameters: 
name: "CIFAR"
state {
  phase: TRAIN
  level: 0
  stage: ""
}
layer {
  name: "cifar"
  type: "Data"
  top: "data"
  top: "label"
  include {
    phase: TRAIN
  }
  transform_param {
    mean_file: "examples/cifar10/mean.binaryproto"
  }
  data_param {
    source: "examples/cifar10/cifar10_train_lmdb"
    batch_size: 111
    backend: LMDB
  }
}
layer {
  name: "ip1"
  type: "InnerProduct"
  bottom: "data"
  top: "ip1"
  param {
    lr_mult: 1
  }
  param {
    lr_mult: 2
  }
  inner_product_param {
    num_output: 10
    weight_filler {
      type: "gaussian"
      std: 0.01
    }
    bias_filler {
      type: "constant"
    }
  }
}
layer {
  name: "relu1"
  type: "ReLU"
  bottom: "ip1"
  top: "ip1"
}
layer {
  name: "ip2"
  type: "InnerProduct"
  bottom: "ip1"
  top: "ip2"
  param {
    lr_mult: 1
  }
  param {
    lr_mult: 2
  }
  inner_product_param {
    num_output: 160
    weight_filler {
      type: "gaussian"
      std: 0.01
    }
    bias_filler {
      type: "constant"
    }
  }
}
layer {
  name: "relu2"
  type: "ReLU"
  bottom: "ip2"
  top: "ip2"
}
layer {
  name: "ip3"
  type: "InnerProduct"
  bottom: "ip2"
  top: "ip3"
  param {
    lr_mult: 1
  }
  param {
    lr_mult: 2
  }
  inner_product_param {
    num_output: 10
    weight_filler {
      type: "gaussian"
      std: 0.01
    }
    bias_filler {
      type: "constant"
    }
  }
}
layer {
  name: "loss"
  type: "SoftmaxWithLoss"
  bottom: "ip3"
  bottom: "label"
  top: "loss"
}
I0430 16:38:13.682611 17876 layer_factory.hpp:77] Creating layer cifar
I0430 16:38:13.682713 17876 db_lmdb.cpp:35] Opened lmdb examples/cifar10/cifar10_train_lmdb
I0430 16:38:13.682741 17876 net.cpp:86] Creating Layer cifar
I0430 16:38:13.682751 17876 net.cpp:382] cifar -> data
I0430 16:38:13.682775 17876 net.cpp:382] cifar -> label
I0430 16:38:13.682790 17876 data_transformer.cpp:25] Loading mean file from: examples/cifar10/mean.binaryproto
I0430 16:38:13.684913 17876 data_layer.cpp:45] output data size: 111,3,32,32
I0430 16:38:13.692827 17876 net.cpp:124] Setting up cifar
I0430 16:38:13.692847 17876 net.cpp:131] Top shape: 111 3 32 32 (340992)
I0430 16:38:13.692852 17876 net.cpp:131] Top shape: 111 (111)
I0430 16:38:13.692857 17876 net.cpp:139] Memory required for data: 1364412
I0430 16:38:13.692864 17876 layer_factory.hpp:77] Creating layer ip1
I0430 16:38:13.692876 17876 net.cpp:86] Creating Layer ip1
I0430 16:38:13.692881 17876 net.cpp:408] ip1 <- data
I0430 16:38:13.692895 17876 net.cpp:382] ip1 -> ip1
I0430 16:38:13.695083 17876 net.cpp:124] Setting up ip1
I0430 16:38:13.695098 17876 net.cpp:131] Top shape: 111 10 (1110)
I0430 16:38:13.695103 17876 net.cpp:139] Memory required for data: 1368852
I0430 16:38:13.695117 17876 layer_factory.hpp:77] Creating layer relu1
I0430 16:38:13.695127 17876 net.cpp:86] Creating Layer relu1
I0430 16:38:13.695130 17876 net.cpp:408] relu1 <- ip1
I0430 16:38:13.695137 17876 net.cpp:369] relu1 -> ip1 (in-place)
I0430 16:38:13.982141 17876 net.cpp:124] Setting up relu1
I0430 16:38:13.982173 17876 net.cpp:131] Top shape: 111 10 (1110)
I0430 16:38:13.982178 17876 net.cpp:139] Memory required for data: 1373292
I0430 16:38:13.982206 17876 layer_factory.hpp:77] Creating layer ip2
I0430 16:38:13.982223 17876 net.cpp:86] Creating Layer ip2
I0430 16:38:13.982228 17876 net.cpp:408] ip2 <- ip1
I0430 16:38:13.982236 17876 net.cpp:382] ip2 -> ip2
I0430 16:38:13.982424 17876 net.cpp:124] Setting up ip2
I0430 16:38:13.982434 17876 net.cpp:131] Top shape: 111 160 (17760)
I0430 16:38:13.982439 17876 net.cpp:139] Memory required for data: 1444332
I0430 16:38:13.982450 17876 layer_factory.hpp:77] Creating layer relu2
I0430 16:38:13.982461 17876 net.cpp:86] Creating Layer relu2
I0430 16:38:13.982466 17876 net.cpp:408] relu2 <- ip2
I0430 16:38:13.982471 17876 net.cpp:369] relu2 -> ip2 (in-place)
I0430 16:38:13.983366 17876 net.cpp:124] Setting up relu2
I0430 16:38:13.983381 17876 net.cpp:131] Top shape: 111 160 (17760)
I0430 16:38:13.983386 17876 net.cpp:139] Memory required for data: 1515372
I0430 16:38:13.983391 17876 layer_factory.hpp:77] Creating layer ip3
I0430 16:38:13.983399 17876 net.cpp:86] Creating Layer ip3
I0430 16:38:13.983403 17876 net.cpp:408] ip3 <- ip2
I0430 16:38:13.983409 17876 net.cpp:382] ip3 -> ip3
I0430 16:38:13.983583 17876 net.cpp:124] Setting up ip3
I0430 16:38:13.983593 17876 net.cpp:131] Top shape: 111 10 (1110)
I0430 16:38:13.983597 17876 net.cpp:139] Memory required for data: 1519812
I0430 16:38:13.983606 17876 layer_factory.hpp:77] Creating layer loss
I0430 16:38:13.983614 17876 net.cpp:86] Creating Layer loss
I0430 16:38:13.983618 17876 net.cpp:408] loss <- ip3
I0430 16:38:13.983623 17876 net.cpp:408] loss <- label
I0430 16:38:13.983629 17876 net.cpp:382] loss -> loss
I0430 16:38:13.983647 17876 layer_factory.hpp:77] Creating layer loss
…
I0430 16:38:13.984275 17876 solver.cpp:173] Creating test net (#0) specified by net file: ECE595/cifar/train_test/var_everything/cifar_train_test_9.prototxt
I0430 16:38:13.984302 17876 net.cpp:296] The NetState phase (1) differed from the phase (0) specified by a rule in layer cifar
I0430 16:38:13.984385 17876 net.cpp:53] Initializing net from parameters: 
name: "CIFAR"
state {
  phase: TEST
}
layer {
  name: "cifar"
  type: "Data"
  top: "data"
  top: "label"
  include {
    phase: TEST
  }
  transform_param {
    mean_file: "examples/cifar10/mean.binaryproto"
  }
  data_param {
    source: "examples/cifar10/cifar10_test_lmdb"
    batch_size: 1000
    backend: LMDB
  }
}
layer {
  name: "ip1"
  type: "InnerProduct"
  bottom: "data"
  top: "ip1"
  param {
    lr_mult: 1
  }
  param {
    lr_mult: 2
  }
  inner_product_param {
    num_output: 10
    weight_filler {
      type: "gaussian"
      std: 0.01
    }
    bias_filler {
      type: "constant"
    }
  }
}
layer {
  name: "relu1"
  type: "ReLU"
  bottom: "ip1"
  top: "ip1"
}
layer {
  name: "ip2"
  type: "InnerProduct"
  bottom: "ip1"
  top: "ip2"
  param {
    lr_mult: 1
  }
  param {
    lr_mult: 2
  }
  inner_product_param {
    num_output: 160
    weight_filler {
      type: "gaussian"
      std: 0.01
    }
    bias_filler {
      type: "constant"
    }
  }
}
layer {
  name: "relu2"
  type: "ReLU"
  bottom: "ip2"
  top: "ip2"
}
layer {
  name: "ip3"
  type: "InnerProduct"
  bottom: "ip2"
  top: "ip3"
  param {
    lr_mult: 1
  }
  param {
    lr_mult: 2
  }
  inner_product_param {
    num_output: 10
    weight_filler {
      type: "gaussian"
      std: 0.01
    }
    bias_filler {
      type: "constant"
    }
  }
}
layer {
  name: "accuracy"
  type: "Accuracy"
  bottom: "ip3"
  bottom: "label"
  top: "accuracy"
  include {
    phase: TEST
  }
}
layer {
  name: "loss"
  type: "SoftmaxWithLoss"
  bottom: "ip3"
  bottom: "label"
  top: "loss"
}
I0430 16:38:13.984467 17876 layer_factory.hpp:77] Creating layer cifar
I0430 16:38:13.984519 17876 db_lmdb.cpp:35] Opened lmdb examples/cifar10/cifar10_test_lmdb
I0430 16:38:13.984534 17876 net.cpp:86] Creating Layer cifar
I0430 16:38:13.984539 17876 net.cpp:382] cifar -> data
I0430 16:38:13.984549 17876 net.cpp:382] cifar -> label
I0430 16:38:13.984556 17876 data_transformer.cpp:25] Loading mean file from: examples/cifar10/mean.binaryproto
I0430 16:38:13.984725 17876 data_layer.cpp:45] output data size: 1000,3,32,32
I0430 16:38:14.011603 17876 net.cpp:124] Setting up cifar
I0430 16:38:14.011634 17876 net.cpp:131] Top shape: 1000 3 32 32 (3072000)
I0430 16:38:14.011642 17876 net.cpp:131] Top shape: 1000 (1000)
I0430 16:38:14.011646 17876 net.cpp:139] Memory required for data: 12292000
I0430 16:38:14.011652 17876 layer_factory.hpp:77] Creating layer label_cifar_1_split
I0430 16:38:14.011673 17876 net.cpp:86] Creating Layer label_cifar_1_split
I0430 16:38:14.011678 17876 net.cpp:408] label_cifar_1_split <- label
I0430 16:38:14.011685 17876 net.cpp:382] label_cifar_1_split -> label_cifar_1_split_0
I0430 16:38:14.011696 17876 net.cpp:382] label_cifar_1_split -> label_cifar_1_split_1
I0430 16:38:14.011801 17876 net.cpp:124] Setting up label_cifar_1_split
I0430 16:38:14.011811 17876 net.cpp:131] Top shape: 1000 (1000)
I0430 16:38:14.011816 17876 net.cpp:131] Top shape: 1000 (1000)
I0430 16:38:14.011819 17876 net.cpp:139] Memory required for data: 12300000
I0430 16:38:14.011823 17876 layer_factory.hpp:77] Creating layer ip1
I0430 16:38:14.011833 17876 net.cpp:86] Creating Layer ip1
I0430 16:38:14.011837 17876 net.cpp:408] ip1 <- data
I0430 16:38:14.011844 17876 net.cpp:382] ip1 -> ip1
I0430 16:38:14.013020 17876 net.cpp:124] Setting up ip1
I0430 16:38:14.013031 17876 net.cpp:131] Top shape: 1000 10 (10000)
I0430 16:38:14.013034 17876 net.cpp:139] Memory required for data: 12340000
I0430 16:38:14.013046 17876 layer_factory.hpp:77] Creating layer relu1
I0430 16:38:14.013054 17876 net.cpp:86] Creating Layer relu1
I0430 16:38:14.013058 17876 net.cpp:408] relu1 <- ip1
I0430 16:38:14.013063 17876 net.cpp:369] relu1 -> ip1 (in-place)
I0430 16:38:14.014348 17876 net.cpp:124] Setting up relu1
I0430 16:38:14.014360 17876 net.cpp:131] Top shape: 1000 10 (10000)
I0430 16:38:14.014364 17876 net.cpp:139] Memory required for data: 12380000
I0430 16:38:14.014369 17876 layer_factory.hpp:77] Creating layer ip2
I0430 16:38:14.014379 17876 net.cpp:86] Creating Layer ip2
I0430 16:38:14.014384 17876 net.cpp:408] ip2 <- ip1
I0430 16:38:14.014389 17876 net.cpp:382] ip2 -> ip2
I0430 16:38:14.014564 17876 net.cpp:124] Setting up ip2
I0430 16:38:14.014575 17876 net.cpp:131] Top shape: 1000 160 (160000)
I0430 16:38:14.014580 17876 net.cpp:139] Memory required for data: 13020000
I0430 16:38:14.014588 17876 layer_factory.hpp:77] Creating layer relu2
I0430 16:38:14.014595 17876 net.cpp:86] Creating Layer relu2
I0430 16:38:14.014600 17876 net.cpp:408] relu2 <- ip2
I0430 16:38:14.014605 17876 net.cpp:369] relu2 -> ip2 (in-place)
I0430 16:38:14.015514 17876 net.cpp:124] Setting up relu2
I0430 16:38:14.015529 17876 net.cpp:131] Top shape: 1000 160 (160000)
I0430 16:38:14.015534 17876 net.cpp:139] Memory required for data: 13660000
I0430 16:38:14.015538 17876 layer_factory.hpp:77] Creating layer ip3
I0430 16:38:14.015547 17876 net.cpp:86] Creating Layer ip3
I0430 16:38:14.015552 17876 net.cpp:408] ip3 <- ip2
I0430 16:38:14.015558 17876 net.cpp:382] ip3 -> ip3
I0430 16:38:14.015736 17876 net.cpp:124] Setting up ip3
I0430 16:38:14.015748 17876 net.cpp:131] Top shape: 1000 10 (10000)
I0430 16:38:14.015751 17876 net.cpp:139] Memory required for data: 13700000
I0430 16:38:14.015779 17876 layer_factory.hpp:77] Creating layer ip3_ip3_0_split
I0430 16:38:14.015785 17876 net.cpp:86] Creating Layer ip3_ip3_0_split
I0430 16:38:14.015790 17876 net.cpp:408] ip3_ip3_0_split <- ip3
I0430 16:38:14.015796 17876 net.cpp:382] ip3_ip3_0_split -> ip3_ip3_0_split_0
I0430 16:38:14.015803 17876 net.cpp:382] ip3_ip3_0_split -> ip3_ip3_0_split_1
I0430 16:38:14.015846 17876 net.cpp:124] Setting up ip3_ip3_0_split
I0430 16:38:14.015854 17876 net.cpp:131] Top shape: 1000 10 (10000)
I0430 16:38:14.015859 17876 net.cpp:131] Top shape: 1000 10 (10000)
I0430 16:38:14.015863 17876 net.cpp:139] Memory required for data: 13780000
I0430 16:38:14.015866 17876 layer_factory.hpp:77] Creating layer accuracy
I0430 16:38:14.015874 17876 net.cpp:86] Creating Layer accuracy
I0430 16:38:14.015879 17876 net.cpp:408] accuracy <- ip3_ip3_0_split_0
I0430 16:38:14.015884 17876 net.cpp:408] accuracy <- label_cifar_1_split_0
I0430 16:38:14.015889 17876 net.cpp:382] accuracy -> accuracy
…
