…
I0430 18:07:13.894584 22126 net.cpp:296] The NetState phase (0) differed from the phase (1) specified by a rule in layer cifar
I0430 18:07:13.894599 22126 net.cpp:296] The NetState phase (0) differed from the phase (1) specified by a rule in layer accuracy
I0430 18:07:13.894683 22126 net.cpp:53] Initializing net from parameters: 
name: "CIFAR"
state {
  phase: TRAIN
  level: 0
  stage: ""
}
layer {
  name: "cifar"
  type: "Data"
  top: "data"
  top: "label"
  include {
    phase: TRAIN
  }
  transform_param {
    mean_file: "examples/cifar10/mean.binaryproto"
  }
  data_param {
    source: "examples/cifar10/cifar10_train_lmdb"
    batch_size: 111
    backend: LMDB
  }
}
layer {
  name: "ip1"
  type: "InnerProduct"
  bottom: "data"
  top: "ip1"
  param {
    lr_mult: 1
  }
  param {
    lr_mult: 2
  }
  inner_product_param {
    num_output: 20
    weight_filler {
      type: "gaussian"
      std: 0.01
    }
    bias_filler {
      type: "constant"
    }
  }
}
layer {
  name: "relu1"
  type: "ReLU"
  bottom: "ip1"
  top: "ip1"
}
layer {
  name: "ip2"
  type: "InnerProduct"
  bottom: "ip1"
  top: "ip2"
  param {
    lr_mult: 1
  }
  param {
    lr_mult: 2
  }
  inner_product_param {
    num_output: 10
    weight_filler {
      type: "gaussian"
      std: 0.01
    }
    bias_filler {
      type: "constant"
    }
  }
}
layer {
  name: "relu2"
  type: "ReLU"
  bottom: "ip2"
  top: "ip2"
}
layer {
  name: "ip3"
  type: "InnerProduct"
  bottom: "ip2"
  top: "ip3"
  param {
    lr_mult: 1
  }
  param {
    lr_mult: 2
  }
  inner_product_param {
    num_output: 20
    weight_filler {
      type: "gaussian"
      std: 0.01
    }
    bias_filler {
      type: "constant"
    }
  }
}
layer {
  name: "relu3"
  type: "ReLU"
  bottom: "ip3"
  top: "ip3"
}
layer {
  name: "ip4"
  type: "InnerProduct"
  bottom: "ip3"
  top: "ip4"
  param {
    lr_mult: 1
  }
  param {
    lr_mult: 2
  }
  inner_product_param {
    num_output: 10
    weight_filler {
      type: "gaussian"
      std: 0.01
    }
    bias_filler {
      type: "constant"
    }
  }
}
layer {
  name: "loss"
  type: "SoftmaxWithLoss"
  bottom: "ip4"
  bottom: "label"
  top: "loss"
}
I0430 18:07:13.894753 22126 layer_factory.hpp:77] Creating layer cifar
I0430 18:07:13.894850 22126 db_lmdb.cpp:35] Opened lmdb examples/cifar10/cifar10_train_lmdb
I0430 18:07:13.894875 22126 net.cpp:86] Creating Layer cifar
I0430 18:07:13.894884 22126 net.cpp:382] cifar -> data
I0430 18:07:13.894906 22126 net.cpp:382] cifar -> label
I0430 18:07:13.894917 22126 data_transformer.cpp:25] Loading mean file from: examples/cifar10/mean.binaryproto
I0430 18:07:13.897043 22126 data_layer.cpp:45] output data size: 111,3,32,32
I0430 18:07:13.904945 22126 net.cpp:124] Setting up cifar
I0430 18:07:13.904963 22126 net.cpp:131] Top shape: 111 3 32 32 (340992)
I0430 18:07:13.904973 22126 net.cpp:131] Top shape: 111 (111)
I0430 18:07:13.904986 22126 net.cpp:139] Memory required for data: 1364412
I0430 18:07:13.904994 22126 layer_factory.hpp:77] Creating layer ip1
I0430 18:07:13.905006 22126 net.cpp:86] Creating Layer ip1
I0430 18:07:13.905011 22126 net.cpp:408] ip1 <- data
I0430 18:07:13.905023 22126 net.cpp:382] ip1 -> ip1
I0430 18:07:13.908254 22126 net.cpp:124] Setting up ip1
I0430 18:07:13.908270 22126 net.cpp:131] Top shape: 111 20 (2220)
I0430 18:07:13.908274 22126 net.cpp:139] Memory required for data: 1373292
I0430 18:07:13.908300 22126 layer_factory.hpp:77] Creating layer relu1
I0430 18:07:13.908311 22126 net.cpp:86] Creating Layer relu1
I0430 18:07:13.908336 22126 net.cpp:408] relu1 <- ip1
I0430 18:07:13.908344 22126 net.cpp:369] relu1 -> ip1 (in-place)
I0430 18:07:14.180246 22126 net.cpp:124] Setting up relu1
I0430 18:07:14.180289 22126 net.cpp:131] Top shape: 111 20 (2220)
I0430 18:07:14.180294 22126 net.cpp:139] Memory required for data: 1382172
I0430 18:07:14.180299 22126 layer_factory.hpp:77] Creating layer ip2
I0430 18:07:14.180310 22126 net.cpp:86] Creating Layer ip2
I0430 18:07:14.180315 22126 net.cpp:408] ip2 <- ip1
I0430 18:07:14.180322 22126 net.cpp:382] ip2 -> ip2
I0430 18:07:14.180457 22126 net.cpp:124] Setting up ip2
I0430 18:07:14.180464 22126 net.cpp:131] Top shape: 111 10 (1110)
I0430 18:07:14.180469 22126 net.cpp:139] Memory required for data: 1386612
I0430 18:07:14.180477 22126 layer_factory.hpp:77] Creating layer relu2
I0430 18:07:14.180486 22126 net.cpp:86] Creating Layer relu2
I0430 18:07:14.180491 22126 net.cpp:408] relu2 <- ip2
I0430 18:07:14.180495 22126 net.cpp:369] relu2 -> ip2 (in-place)
I0430 18:07:14.181285 22126 net.cpp:124] Setting up relu2
I0430 18:07:14.181298 22126 net.cpp:131] Top shape: 111 10 (1110)
I0430 18:07:14.181300 22126 net.cpp:139] Memory required for data: 1391052
I0430 18:07:14.181303 22126 layer_factory.hpp:77] Creating layer ip3
I0430 18:07:14.181309 22126 net.cpp:86] Creating Layer ip3
I0430 18:07:14.181313 22126 net.cpp:408] ip3 <- ip2
I0430 18:07:14.181318 22126 net.cpp:382] ip3 -> ip3
I0430 18:07:14.181427 22126 net.cpp:124] Setting up ip3
I0430 18:07:14.181434 22126 net.cpp:131] Top shape: 111 20 (2220)
I0430 18:07:14.181437 22126 net.cpp:139] Memory required for data: 1399932
I0430 18:07:14.181444 22126 layer_factory.hpp:77] Creating layer relu3
I0430 18:07:14.181449 22126 net.cpp:86] Creating Layer relu3
I0430 18:07:14.181452 22126 net.cpp:408] relu3 <- ip3
I0430 18:07:14.181457 22126 net.cpp:369] relu3 -> ip3 (in-place)
I0430 18:07:14.181586 22126 net.cpp:124] Setting up relu3
I0430 18:07:14.181593 22126 net.cpp:131] Top shape: 111 20 (2220)
I0430 18:07:14.181596 22126 net.cpp:139] Memory required for data: 1408812
I0430 18:07:14.181599 22126 layer_factory.hpp:77] Creating layer ip4
I0430 18:07:14.181605 22126 net.cpp:86] Creating Layer ip4
I0430 18:07:14.181608 22126 net.cpp:408] ip4 <- ip3
I0430 18:07:14.181612 22126 net.cpp:382] ip4 -> ip4
I0430 18:07:14.181715 22126 net.cpp:124] Setting up ip4
I0430 18:07:14.181720 22126 net.cpp:131] Top shape: 111 10 (1110)
I0430 18:07:14.181723 22126 net.cpp:139] Memory required for data: 1413252
I0430 18:07:14.181728 22126 layer_factory.hpp:77] Creating layer loss
I0430 18:07:14.181735 22126 net.cpp:86] Creating Layer loss
I0430 18:07:14.181737 22126 net.cpp:408] loss <- ip4
I0430 18:07:14.181741 22126 net.cpp:408] loss <- label
I0430 18:07:14.181746 22126 net.cpp:382] loss -> loss
I0430 18:07:14.181764 22126 layer_factory.hpp:77] Creating layer loss
…
I0430 18:07:14.182296 22126 solver.cpp:173] Creating test net (#0) specified by net file: ECE595/cifar/train_test/var_everything/cifar_train_test_56.prototxt
I0430 18:07:14.182359 22126 net.cpp:296] The NetState phase (1) differed from the phase (0) specified by a rule in layer cifar
I0430 18:07:14.182432 22126 net.cpp:53] Initializing net from parameters: 
name: "CIFAR"
state {
  phase: TEST
}
layer {
  name: "cifar"
  type: "Data"
  top: "data"
  top: "label"
  include {
    phase: TEST
  }
  transform_param {
    mean_file: "examples/cifar10/mean.binaryproto"
  }
  data_param {
    source: "examples/cifar10/cifar10_test_lmdb"
    batch_size: 1000
    backend: LMDB
  }
}
layer {
  name: "ip1"
  type: "InnerProduct"
  bottom: "data"
  top: "ip1"
  param {
    lr_mult: 1
  }
  param {
    lr_mult: 2
  }
  inner_product_param {
    num_output: 20
    weight_filler {
      type: "gaussian"
      std: 0.01
    }
    bias_filler {
      type: "constant"
    }
  }
}
layer {
  name: "relu1"
  type: "ReLU"
  bottom: "ip1"
  top: "ip1"
}
layer {
  name: "ip2"
  type: "InnerProduct"
  bottom: "ip1"
  top: "ip2"
  param {
    lr_mult: 1
  }
  param {
    lr_mult: 2
  }
  inner_product_param {
    num_output: 10
    weight_filler {
      type: "gaussian"
      std: 0.01
    }
    bias_filler {
      type: "constant"
    }
  }
}
layer {
  name: "relu2"
  type: "ReLU"
  bottom: "ip2"
  top: "ip2"
}
layer {
  name: "ip3"
  type: "InnerProduct"
  bottom: "ip2"
  top: "ip3"
  param {
    lr_mult: 1
  }
  param {
    lr_mult: 2
  }
  inner_product_param {
    num_output: 20
    weight_filler {
      type: "gaussian"
      std: 0.01
    }
    bias_filler {
      type: "constant"
    }
  }
}
layer {
  name: "relu3"
  type: "ReLU"
  bottom: "ip3"
  top: "ip3"
}
layer {
  name: "ip4"
  type: "InnerProduct"
  bottom: "ip3"
  top: "ip4"
  param {
    lr_mult: 1
  }
  param {
    lr_mult: 2
  }
  inner_product_param {
    num_output: 10
    weight_filler {
      type: "gaussian"
      std: 0.01
    }
    bias_filler {
      type: "constant"
    }
  }
}
layer {
  name: "accuracy"
  type: "Accuracy"
  bottom: "ip4"
  bottom: "label"
  top: "accuracy"
  include {
    phase: TEST
  }
}
layer {
  name: "loss"
  type: "SoftmaxWithLoss"
  bottom: "ip4"
  bottom: "label"
  top: "loss"
}
I0430 18:07:14.182487 22126 layer_factory.hpp:77] Creating layer cifar
I0430 18:07:14.182546 22126 db_lmdb.cpp:35] Opened lmdb examples/cifar10/cifar10_test_lmdb
I0430 18:07:14.182559 22126 net.cpp:86] Creating Layer cifar
I0430 18:07:14.182562 22126 net.cpp:382] cifar -> data
I0430 18:07:14.182569 22126 net.cpp:382] cifar -> label
I0430 18:07:14.182575 22126 data_transformer.cpp:25] Loading mean file from: examples/cifar10/mean.binaryproto
I0430 18:07:14.182714 22126 data_layer.cpp:45] output data size: 1000,3,32,32
I0430 18:07:14.205615 22126 net.cpp:124] Setting up cifar
I0430 18:07:14.205662 22126 net.cpp:131] Top shape: 1000 3 32 32 (3072000)
I0430 18:07:14.205670 22126 net.cpp:131] Top shape: 1000 (1000)
I0430 18:07:14.205675 22126 net.cpp:139] Memory required for data: 12292000
I0430 18:07:14.205683 22126 layer_factory.hpp:77] Creating layer label_cifar_1_split
I0430 18:07:14.205704 22126 net.cpp:86] Creating Layer label_cifar_1_split
I0430 18:07:14.205726 22126 net.cpp:408] label_cifar_1_split <- label
I0430 18:07:14.205735 22126 net.cpp:382] label_cifar_1_split -> label_cifar_1_split_0
I0430 18:07:14.205770 22126 net.cpp:382] label_cifar_1_split -> label_cifar_1_split_1
I0430 18:07:14.205819 22126 net.cpp:124] Setting up label_cifar_1_split
I0430 18:07:14.205827 22126 net.cpp:131] Top shape: 1000 (1000)
I0430 18:07:14.205832 22126 net.cpp:131] Top shape: 1000 (1000)
I0430 18:07:14.205834 22126 net.cpp:139] Memory required for data: 12300000
I0430 18:07:14.205838 22126 layer_factory.hpp:77] Creating layer ip1
I0430 18:07:14.205847 22126 net.cpp:86] Creating Layer ip1
I0430 18:07:14.205850 22126 net.cpp:408] ip1 <- data
I0430 18:07:14.205855 22126 net.cpp:382] ip1 -> ip1
I0430 18:07:14.207803 22126 net.cpp:124] Setting up ip1
I0430 18:07:14.207813 22126 net.cpp:131] Top shape: 1000 20 (20000)
I0430 18:07:14.207830 22126 net.cpp:139] Memory required for data: 12380000
I0430 18:07:14.207855 22126 layer_factory.hpp:77] Creating layer relu1
I0430 18:07:14.207864 22126 net.cpp:86] Creating Layer relu1
I0430 18:07:14.207867 22126 net.cpp:408] relu1 <- ip1
I0430 18:07:14.207871 22126 net.cpp:369] relu1 -> ip1 (in-place)
I0430 18:07:14.208678 22126 net.cpp:124] Setting up relu1
I0430 18:07:14.208689 22126 net.cpp:131] Top shape: 1000 20 (20000)
I0430 18:07:14.208708 22126 net.cpp:139] Memory required for data: 12460000
I0430 18:07:14.208711 22126 layer_factory.hpp:77] Creating layer ip2
I0430 18:07:14.208719 22126 net.cpp:86] Creating Layer ip2
I0430 18:07:14.208724 22126 net.cpp:408] ip2 <- ip1
I0430 18:07:14.208729 22126 net.cpp:382] ip2 -> ip2
I0430 18:07:14.208878 22126 net.cpp:124] Setting up ip2
I0430 18:07:14.208885 22126 net.cpp:131] Top shape: 1000 10 (10000)
I0430 18:07:14.208889 22126 net.cpp:139] Memory required for data: 12500000
I0430 18:07:14.208896 22126 layer_factory.hpp:77] Creating layer relu2
I0430 18:07:14.208902 22126 net.cpp:86] Creating Layer relu2
I0430 18:07:14.208905 22126 net.cpp:408] relu2 <- ip2
I0430 18:07:14.208909 22126 net.cpp:369] relu2 -> ip2 (in-place)
I0430 18:07:14.209079 22126 net.cpp:124] Setting up relu2
I0430 18:07:14.209087 22126 net.cpp:131] Top shape: 1000 10 (10000)
I0430 18:07:14.209091 22126 net.cpp:139] Memory required for data: 12540000
I0430 18:07:14.209095 22126 layer_factory.hpp:77] Creating layer ip3
I0430 18:07:14.209100 22126 net.cpp:86] Creating Layer ip3
I0430 18:07:14.209103 22126 net.cpp:408] ip3 <- ip2
I0430 18:07:14.209108 22126 net.cpp:382] ip3 -> ip3
I0430 18:07:14.209233 22126 net.cpp:124] Setting up ip3
I0430 18:07:14.209249 22126 net.cpp:131] Top shape: 1000 20 (20000)
I0430 18:07:14.209252 22126 net.cpp:139] Memory required for data: 12620000
I0430 18:07:14.209259 22126 layer_factory.hpp:77] Creating layer relu3
I0430 18:07:14.209266 22126 net.cpp:86] Creating Layer relu3
I0430 18:07:14.209270 22126 net.cpp:408] relu3 <- ip3
I0430 18:07:14.209275 22126 net.cpp:369] relu3 -> ip3 (in-place)
I0430 18:07:14.209424 22126 net.cpp:124] Setting up relu3
I0430 18:07:14.209430 22126 net.cpp:131] Top shape: 1000 20 (20000)
I0430 18:07:14.209434 22126 net.cpp:139] Memory required for data: 12700000
I0430 18:07:14.209439 22126 layer_factory.hpp:77] Creating layer ip4
I0430 18:07:14.209445 22126 net.cpp:86] Creating Layer ip4
I0430 18:07:14.209448 22126 net.cpp:408] ip4 <- ip3
I0430 18:07:14.209453 22126 net.cpp:382] ip4 -> ip4
I0430 18:07:14.209566 22126 net.cpp:124] Setting up ip4
I0430 18:07:14.209573 22126 net.cpp:131] Top shape: 1000 10 (10000)
I0430 18:07:14.209576 22126 net.cpp:139] Memory required for data: 12740000
I0430 18:07:14.209583 22126 layer_factory.hpp:77] Creating layer ip4_ip4_0_split
I0430 18:07:14.209588 22126 net.cpp:86] Creating Layer ip4_ip4_0_split
I0430 18:07:14.209590 22126 net.cpp:408] ip4_ip4_0_split <- ip4
I0430 18:07:14.209594 22126 net.cpp:382] ip4_ip4_0_split -> ip4_ip4_0_split_0
I0430 18:07:14.209600 22126 net.cpp:382] ip4_ip4_0_split -> ip4_ip4_0_split_1
I0430 18:07:14.209628 22126 net.cpp:124] Setting up ip4_ip4_0_split
I0430 18:07:14.209635 22126 net.cpp:131] Top shape: 1000 10 (10000)
I0430 18:07:14.209638 22126 net.cpp:131] Top shape: 1000 10 (10000)
I0430 18:07:14.209641 22126 net.cpp:139] Memory required for data: 12820000
I0430 18:07:14.209645 22126 layer_factory.hpp:77] Creating layer accuracy
I0430 18:07:14.209650 22126 net.cpp:86] Creating Layer accuracy
I0430 18:07:14.209652 22126 net.cpp:408] accuracy <- ip4_ip4_0_split_0
I0430 18:07:14.209656 22126 net.cpp:408] accuracy <- label_cifar_1_split_0
I0430 18:07:14.209661 22126 net.cpp:382] accuracy -> accuracy
…
