…
I0430 19:04:42.138630 25129 net.cpp:296] The NetState phase (0) differed from the phase (1) specified by a rule in layer cifar
I0430 19:04:42.138658 25129 net.cpp:296] The NetState phase (0) differed from the phase (1) specified by a rule in layer accuracy
I0430 19:04:42.138773 25129 net.cpp:53] Initializing net from parameters: 
name: "CIFAR"
state {
  phase: TRAIN
  level: 0
  stage: ""
}
layer {
  name: "cifar"
  type: "Data"
  top: "data"
  top: "label"
  include {
    phase: TRAIN
  }
  transform_param {
    mean_file: "examples/cifar10/mean.binaryproto"
  }
  data_param {
    source: "examples/cifar10/cifar10_train_lmdb"
    batch_size: 111
    backend: LMDB
  }
}
layer {
  name: "ip1"
  type: "InnerProduct"
  bottom: "data"
  top: "ip1"
  param {
    lr_mult: 1
  }
  param {
    lr_mult: 2
  }
  inner_product_param {
    num_output: 40
    weight_filler {
      type: "gaussian"
      std: 0.01
    }
    bias_filler {
      type: "constant"
    }
  }
}
layer {
  name: "relu1"
  type: "ReLU"
  bottom: "ip1"
  top: "ip1"
}
layer {
  name: "ip2"
  type: "InnerProduct"
  bottom: "ip1"
  top: "ip2"
  param {
    lr_mult: 1
  }
  param {
    lr_mult: 2
  }
  inner_product_param {
    num_output: 20
    weight_filler {
      type: "gaussian"
      std: 0.01
    }
    bias_filler {
      type: "constant"
    }
  }
}
layer {
  name: "relu2"
  type: "ReLU"
  bottom: "ip2"
  top: "ip2"
}
layer {
  name: "ip3"
  type: "InnerProduct"
  bottom: "ip2"
  top: "ip3"
  param {
    lr_mult: 1
  }
  param {
    lr_mult: 2
  }
  inner_product_param {
    num_output: 20
    weight_filler {
      type: "gaussian"
      std: 0.01
    }
    bias_filler {
      type: "constant"
    }
  }
}
layer {
  name: "relu3"
  type: "ReLU"
  bottom: "ip3"
  top: "ip3"
}
layer {
  name: "ip4"
  type: "InnerProduct"
  bottom: "ip3"
  top: "ip4"
  param {
    lr_mult: 1
  }
  param {
    lr_mult: 2
  }
  inner_product_param {
    num_output: 10
    weight_filler {
      type: "gaussian"
      std: 0.01
    }
    bias_filler {
      type: "constant"
    }
  }
}
layer {
  name: "loss"
  type: "SoftmaxWithLoss"
  bottom: "ip4"
  bottom: "label"
  top: "loss"
}
I0430 19:04:42.138833 25129 layer_factory.hpp:77] Creating layer cifar
I0430 19:04:42.138917 25129 db_lmdb.cpp:35] Opened lmdb examples/cifar10/cifar10_train_lmdb
I0430 19:04:42.138939 25129 net.cpp:86] Creating Layer cifar
I0430 19:04:42.138947 25129 net.cpp:382] cifar -> data
I0430 19:04:42.138964 25129 net.cpp:382] cifar -> label
I0430 19:04:42.138974 25129 data_transformer.cpp:25] Loading mean file from: examples/cifar10/mean.binaryproto
I0430 19:04:42.140771 25129 data_layer.cpp:45] output data size: 111,3,32,32
I0430 19:04:42.147366 25129 net.cpp:124] Setting up cifar
I0430 19:04:42.147397 25129 net.cpp:131] Top shape: 111 3 32 32 (340992)
I0430 19:04:42.147402 25129 net.cpp:131] Top shape: 111 (111)
I0430 19:04:42.147404 25129 net.cpp:139] Memory required for data: 1364412
I0430 19:04:42.147410 25129 layer_factory.hpp:77] Creating layer ip1
I0430 19:04:42.147419 25129 net.cpp:86] Creating Layer ip1
I0430 19:04:42.147424 25129 net.cpp:408] ip1 <- data
I0430 19:04:42.147450 25129 net.cpp:382] ip1 -> ip1
I0430 19:04:42.150959 25129 net.cpp:124] Setting up ip1
I0430 19:04:42.150969 25129 net.cpp:131] Top shape: 111 40 (4440)
I0430 19:04:42.150986 25129 net.cpp:139] Memory required for data: 1382172
I0430 19:04:42.150997 25129 layer_factory.hpp:77] Creating layer relu1
I0430 19:04:42.151005 25129 net.cpp:86] Creating Layer relu1
I0430 19:04:42.151021 25129 net.cpp:408] relu1 <- ip1
I0430 19:04:42.151041 25129 net.cpp:369] relu1 -> ip1 (in-place)
I0430 19:04:42.375291 25129 net.cpp:124] Setting up relu1
I0430 19:04:42.375334 25129 net.cpp:131] Top shape: 111 40 (4440)
I0430 19:04:42.375339 25129 net.cpp:139] Memory required for data: 1399932
I0430 19:04:42.375344 25129 layer_factory.hpp:77] Creating layer ip2
I0430 19:04:42.375358 25129 net.cpp:86] Creating Layer ip2
I0430 19:04:42.375362 25129 net.cpp:408] ip2 <- ip1
I0430 19:04:42.375370 25129 net.cpp:382] ip2 -> ip2
I0430 19:04:42.376449 25129 net.cpp:124] Setting up ip2
I0430 19:04:42.376477 25129 net.cpp:131] Top shape: 111 20 (2220)
I0430 19:04:42.376482 25129 net.cpp:139] Memory required for data: 1408812
I0430 19:04:42.376490 25129 layer_factory.hpp:77] Creating layer relu2
I0430 19:04:42.376498 25129 net.cpp:86] Creating Layer relu2
I0430 19:04:42.376502 25129 net.cpp:408] relu2 <- ip2
I0430 19:04:42.376507 25129 net.cpp:369] relu2 -> ip2 (in-place)
I0430 19:04:42.377280 25129 net.cpp:124] Setting up relu2
I0430 19:04:42.377292 25129 net.cpp:131] Top shape: 111 20 (2220)
I0430 19:04:42.377311 25129 net.cpp:139] Memory required for data: 1417692
I0430 19:04:42.377315 25129 layer_factory.hpp:77] Creating layer ip3
I0430 19:04:42.377321 25129 net.cpp:86] Creating Layer ip3
I0430 19:04:42.377326 25129 net.cpp:408] ip3 <- ip2
I0430 19:04:42.377331 25129 net.cpp:382] ip3 -> ip3
I0430 19:04:42.377447 25129 net.cpp:124] Setting up ip3
I0430 19:04:42.377456 25129 net.cpp:131] Top shape: 111 20 (2220)
I0430 19:04:42.377460 25129 net.cpp:139] Memory required for data: 1426572
I0430 19:04:42.377467 25129 layer_factory.hpp:77] Creating layer relu3
I0430 19:04:42.377472 25129 net.cpp:86] Creating Layer relu3
I0430 19:04:42.377475 25129 net.cpp:408] relu3 <- ip3
I0430 19:04:42.377480 25129 net.cpp:369] relu3 -> ip3 (in-place)
I0430 19:04:42.377615 25129 net.cpp:124] Setting up relu3
I0430 19:04:42.377624 25129 net.cpp:131] Top shape: 111 20 (2220)
I0430 19:04:42.377626 25129 net.cpp:139] Memory required for data: 1435452
I0430 19:04:42.377630 25129 layer_factory.hpp:77] Creating layer ip4
I0430 19:04:42.377636 25129 net.cpp:86] Creating Layer ip4
I0430 19:04:42.377640 25129 net.cpp:408] ip4 <- ip3
I0430 19:04:42.377645 25129 net.cpp:382] ip4 -> ip4
I0430 19:04:42.377734 25129 net.cpp:124] Setting up ip4
I0430 19:04:42.377741 25129 net.cpp:131] Top shape: 111 10 (1110)
I0430 19:04:42.377744 25129 net.cpp:139] Memory required for data: 1439892
I0430 19:04:42.377750 25129 layer_factory.hpp:77] Creating layer loss
I0430 19:04:42.377756 25129 net.cpp:86] Creating Layer loss
I0430 19:04:42.377759 25129 net.cpp:408] loss <- ip4
I0430 19:04:42.377763 25129 net.cpp:408] loss <- label
I0430 19:04:42.377768 25129 net.cpp:382] loss -> loss
I0430 19:04:42.377784 25129 layer_factory.hpp:77] Creating layer loss
…
I0430 19:04:42.378389 25129 solver.cpp:173] Creating test net (#0) specified by net file: ECE595/cifar/train_test/var_everything/cifar_train_test_86.prototxt
I0430 19:04:42.378428 25129 net.cpp:296] The NetState phase (1) differed from the phase (0) specified by a rule in layer cifar
I0430 19:04:42.378502 25129 net.cpp:53] Initializing net from parameters: 
name: "CIFAR"
state {
  phase: TEST
}
layer {
  name: "cifar"
  type: "Data"
  top: "data"
  top: "label"
  include {
    phase: TEST
  }
  transform_param {
    mean_file: "examples/cifar10/mean.binaryproto"
  }
  data_param {
    source: "examples/cifar10/cifar10_test_lmdb"
    batch_size: 1000
    backend: LMDB
  }
}
layer {
  name: "ip1"
  type: "InnerProduct"
  bottom: "data"
  top: "ip1"
  param {
    lr_mult: 1
  }
  param {
    lr_mult: 2
  }
  inner_product_param {
    num_output: 40
    weight_filler {
      type: "gaussian"
      std: 0.01
    }
    bias_filler {
      type: "constant"
    }
  }
}
layer {
  name: "relu1"
  type: "ReLU"
  bottom: "ip1"
  top: "ip1"
}
layer {
  name: "ip2"
  type: "InnerProduct"
  bottom: "ip1"
  top: "ip2"
  param {
    lr_mult: 1
  }
  param {
    lr_mult: 2
  }
  inner_product_param {
    num_output: 20
    weight_filler {
      type: "gaussian"
      std: 0.01
    }
    bias_filler {
      type: "constant"
    }
  }
}
layer {
  name: "relu2"
  type: "ReLU"
  bottom: "ip2"
  top: "ip2"
}
layer {
  name: "ip3"
  type: "InnerProduct"
  bottom: "ip2"
  top: "ip3"
  param {
    lr_mult: 1
  }
  param {
    lr_mult: 2
  }
  inner_product_param {
    num_output: 20
    weight_filler {
      type: "gaussian"
      std: 0.01
    }
    bias_filler {
      type: "constant"
    }
  }
}
layer {
  name: "relu3"
  type: "ReLU"
  bottom: "ip3"
  top: "ip3"
}
layer {
  name: "ip4"
  type: "InnerProduct"
  bottom: "ip3"
  top: "ip4"
  param {
    lr_mult: 1
  }
  param {
    lr_mult: 2
  }
  inner_product_param {
    num_output: 10
    weight_filler {
      type: "gaussian"
      std: 0.01
    }
    bias_filler {
      type: "constant"
    }
  }
}
layer {
  name: "accuracy"
  type: "Accuracy"
  bottom: "ip4"
  bottom: "label"
  top: "accuracy"
  include {
    phase: TEST
  }
}
layer {
  name: "loss"
  type: "SoftmaxWithLoss"
  bottom: "ip4"
  bottom: "label"
  top: "loss"
}
I0430 19:04:42.378559 25129 layer_factory.hpp:77] Creating layer cifar
I0430 19:04:42.378602 25129 db_lmdb.cpp:35] Opened lmdb examples/cifar10/cifar10_test_lmdb
I0430 19:04:42.378614 25129 net.cpp:86] Creating Layer cifar
I0430 19:04:42.378618 25129 net.cpp:382] cifar -> data
I0430 19:04:42.378626 25129 net.cpp:382] cifar -> label
I0430 19:04:42.378633 25129 data_transformer.cpp:25] Loading mean file from: examples/cifar10/mean.binaryproto
I0430 19:04:42.378767 25129 data_layer.cpp:45] output data size: 1000,3,32,32
I0430 19:04:42.400712 25129 net.cpp:124] Setting up cifar
I0430 19:04:42.400753 25129 net.cpp:131] Top shape: 1000 3 32 32 (3072000)
I0430 19:04:42.400758 25129 net.cpp:131] Top shape: 1000 (1000)
I0430 19:04:42.400763 25129 net.cpp:139] Memory required for data: 12292000
I0430 19:04:42.400768 25129 layer_factory.hpp:77] Creating layer label_cifar_1_split
I0430 19:04:42.400784 25129 net.cpp:86] Creating Layer label_cifar_1_split
I0430 19:04:42.400789 25129 net.cpp:408] label_cifar_1_split <- label
I0430 19:04:42.400794 25129 net.cpp:382] label_cifar_1_split -> label_cifar_1_split_0
I0430 19:04:42.400825 25129 net.cpp:382] label_cifar_1_split -> label_cifar_1_split_1
I0430 19:04:42.400955 25129 net.cpp:124] Setting up label_cifar_1_split
I0430 19:04:42.400964 25129 net.cpp:131] Top shape: 1000 (1000)
I0430 19:04:42.400967 25129 net.cpp:131] Top shape: 1000 (1000)
I0430 19:04:42.400971 25129 net.cpp:139] Memory required for data: 12300000
I0430 19:04:42.400974 25129 layer_factory.hpp:77] Creating layer ip1
I0430 19:04:42.400985 25129 net.cpp:86] Creating Layer ip1
I0430 19:04:42.400988 25129 net.cpp:408] ip1 <- data
I0430 19:04:42.400993 25129 net.cpp:382] ip1 -> ip1
I0430 19:04:42.404356 25129 net.cpp:124] Setting up ip1
I0430 19:04:42.404366 25129 net.cpp:131] Top shape: 1000 40 (40000)
I0430 19:04:42.404386 25129 net.cpp:139] Memory required for data: 12460000
I0430 19:04:42.404409 25129 layer_factory.hpp:77] Creating layer relu1
I0430 19:04:42.404417 25129 net.cpp:86] Creating Layer relu1
I0430 19:04:42.404419 25129 net.cpp:408] relu1 <- ip1
I0430 19:04:42.404439 25129 net.cpp:369] relu1 -> ip1 (in-place)
I0430 19:04:42.405220 25129 net.cpp:124] Setting up relu1
I0430 19:04:42.405236 25129 net.cpp:131] Top shape: 1000 40 (40000)
I0430 19:04:42.405256 25129 net.cpp:139] Memory required for data: 12620000
I0430 19:04:42.405258 25129 layer_factory.hpp:77] Creating layer ip2
I0430 19:04:42.405282 25129 net.cpp:86] Creating Layer ip2
I0430 19:04:42.405285 25129 net.cpp:408] ip2 <- ip1
I0430 19:04:42.405292 25129 net.cpp:382] ip2 -> ip2
I0430 19:04:42.405429 25129 net.cpp:124] Setting up ip2
I0430 19:04:42.405437 25129 net.cpp:131] Top shape: 1000 20 (20000)
I0430 19:04:42.405441 25129 net.cpp:139] Memory required for data: 12700000
I0430 19:04:42.405448 25129 layer_factory.hpp:77] Creating layer relu2
I0430 19:04:42.405453 25129 net.cpp:86] Creating Layer relu2
I0430 19:04:42.405457 25129 net.cpp:408] relu2 <- ip2
I0430 19:04:42.405460 25129 net.cpp:369] relu2 -> ip2 (in-place)
I0430 19:04:42.405619 25129 net.cpp:124] Setting up relu2
I0430 19:04:42.405627 25129 net.cpp:131] Top shape: 1000 20 (20000)
I0430 19:04:42.405630 25129 net.cpp:139] Memory required for data: 12780000
I0430 19:04:42.405633 25129 layer_factory.hpp:77] Creating layer ip3
I0430 19:04:42.405639 25129 net.cpp:86] Creating Layer ip3
I0430 19:04:42.405642 25129 net.cpp:408] ip3 <- ip2
I0430 19:04:42.405647 25129 net.cpp:382] ip3 -> ip3
I0430 19:04:42.405746 25129 net.cpp:124] Setting up ip3
I0430 19:04:42.405753 25129 net.cpp:131] Top shape: 1000 20 (20000)
I0430 19:04:42.405756 25129 net.cpp:139] Memory required for data: 12860000
I0430 19:04:42.405763 25129 layer_factory.hpp:77] Creating layer relu3
I0430 19:04:42.405769 25129 net.cpp:86] Creating Layer relu3
I0430 19:04:42.405772 25129 net.cpp:408] relu3 <- ip3
I0430 19:04:42.405776 25129 net.cpp:369] relu3 -> ip3 (in-place)
I0430 19:04:42.405911 25129 net.cpp:124] Setting up relu3
I0430 19:04:42.405920 25129 net.cpp:131] Top shape: 1000 20 (20000)
I0430 19:04:42.405922 25129 net.cpp:139] Memory required for data: 12940000
I0430 19:04:42.405926 25129 layer_factory.hpp:77] Creating layer ip4
I0430 19:04:42.405933 25129 net.cpp:86] Creating Layer ip4
I0430 19:04:42.405936 25129 net.cpp:408] ip4 <- ip3
I0430 19:04:42.405941 25129 net.cpp:382] ip4 -> ip4
I0430 19:04:42.406038 25129 net.cpp:124] Setting up ip4
I0430 19:04:42.406045 25129 net.cpp:131] Top shape: 1000 10 (10000)
I0430 19:04:42.406049 25129 net.cpp:139] Memory required for data: 12980000
I0430 19:04:42.406054 25129 layer_factory.hpp:77] Creating layer ip4_ip4_0_split
I0430 19:04:42.406059 25129 net.cpp:86] Creating Layer ip4_ip4_0_split
I0430 19:04:42.406061 25129 net.cpp:408] ip4_ip4_0_split <- ip4
I0430 19:04:42.406066 25129 net.cpp:382] ip4_ip4_0_split -> ip4_ip4_0_split_0
I0430 19:04:42.406072 25129 net.cpp:382] ip4_ip4_0_split -> ip4_ip4_0_split_1
I0430 19:04:42.406100 25129 net.cpp:124] Setting up ip4_ip4_0_split
I0430 19:04:42.406105 25129 net.cpp:131] Top shape: 1000 10 (10000)
I0430 19:04:42.406108 25129 net.cpp:131] Top shape: 1000 10 (10000)
I0430 19:04:42.406111 25129 net.cpp:139] Memory required for data: 13060000
I0430 19:04:42.406114 25129 layer_factory.hpp:77] Creating layer accuracy
I0430 19:04:42.406121 25129 net.cpp:86] Creating Layer accuracy
I0430 19:04:42.406123 25129 net.cpp:408] accuracy <- ip4_ip4_0_split_0
I0430 19:04:42.406127 25129 net.cpp:408] accuracy <- label_cifar_1_split_0
I0430 19:04:42.406131 25129 net.cpp:382] accuracy -> accuracy
…
