…
I0501 08:32:51.620323 11074 net.cpp:296] The NetState phase (0) differed from the phase (1) specified by a rule in layer cifar
I0501 08:32:51.620337 11074 net.cpp:296] The NetState phase (0) differed from the phase (1) specified by a rule in layer accuracy
I0501 08:32:51.620432 11074 net.cpp:53] Initializing net from parameters: 
name: "CIFAR"
state {
  phase: TRAIN
  level: 0
  stage: ""
}
layer {
  name: "cifar"
  type: "Data"
  top: "data"
  top: "label"
  include {
    phase: TRAIN
  }
  transform_param {
    mean_file: "examples/cifar10/mean.binaryproto"
  }
  data_param {
    source: "examples/cifar10/cifar10_train_lmdb"
    batch_size: 111
    backend: LMDB
  }
}
layer {
  name: "conv0"
  type: "Convolution"
  bottom: "data"
  top: "conv0"
  param {
    lr_mult: 1
  }
  param {
    lr_mult: 2
  }
  convolution_param {
    num_output: 16
    pad: 2
    kernel_size: 3
    stride: 1
    weight_filler {
      type: "gaussian"
      std: 0.01
    }
    bias_filler {
      type: "constant"
    }
  }
}
layer {
  name: "Sigmoid0"
  type: "Sigmoid"
  bottom: "conv0"
  top: "Sigmoid0"
}
layer {
  name: "pool0"
  type: "Pooling"
  bottom: "Sigmoid0"
  top: "pool0"
  pooling_param {
    pool: AVE
    kernel_size: 3
    stride: 2
  }
}
layer {
  name: "ip1"
  type: "InnerProduct"
  bottom: "pool0"
  top: "ip1"
  param {
    lr_mult: 1
  }
  param {
    lr_mult: 2
  }
  inner_product_param {
    num_output: 10
    weight_filler {
      type: "gaussian"
      std: 0.01
    }
    bias_filler {
      type: "constant"
    }
  }
}
layer {
  name: "relu1"
  type: "ReLU"
  bottom: "ip1"
  top: "ip1"
}
layer {
  name: "ip2"
  type: "InnerProduct"
  bottom: "ip1"
  top: "ip2"
  param {
    lr_mult: 1
  }
  param {
    lr_mult: 2
  }
  inner_product_param {
    num_output: 80
    weight_filler {
      type: "gaussian"
      std: 0.01
    }
    bias_filler {
      type: "constant"
    }
  }
}
layer {
  name: "relu2"
  type: "ReLU"
  bottom: "ip2"
  top: "ip2"
}
layer {
  name: "ip3"
  type: "InnerProduct"
  bottom: "ip2"
  top: "ip3"
  param {
    lr_mult: 1
  }
  param {
    lr_mult: 2
  }
  inner_product_param {
    num_output: 160
    weight_filler {
      type: "gaussian"
      std: 0.01
    }
    bias_filler {
      type: "constant"
    }
  }
}
layer {
  name: "relu3"
  type: "ReLU"
  bottom: "ip3"
  top: "ip3"
}
layer {
  name: "ip4"
  type: "InnerProduct"
  bottom: "ip3"
  top: "ip4"
  param {
    lr_mult: 1
  }
  param {
    lr_mult: 2
  }
  inner_product_param {
    num_output: 10
    weight_filler {
      type: "gaussian"
      std: 0.01
    }
    bias_filler {
      type: "constant"
    }
  }
}
layer {
  name: "loss"
  type: "SoftmaxWithLoss"
  bottom: "ip4"
  bottom: "label"
  top: "loss"
}
I0501 08:32:51.620496 11074 layer_factory.hpp:77] Creating layer cifar
I0501 08:32:51.620575 11074 db_lmdb.cpp:35] Opened lmdb examples/cifar10/cifar10_train_lmdb
I0501 08:32:51.620596 11074 net.cpp:86] Creating Layer cifar
I0501 08:32:51.620605 11074 net.cpp:382] cifar -> data
I0501 08:32:51.620625 11074 net.cpp:382] cifar -> label
I0501 08:32:51.620633 11074 data_transformer.cpp:25] Loading mean file from: examples/cifar10/mean.binaryproto
I0501 08:32:51.622544 11074 data_layer.cpp:45] output data size: 111,3,32,32
I0501 08:32:51.629190 11074 net.cpp:124] Setting up cifar
I0501 08:32:51.629205 11074 net.cpp:131] Top shape: 111 3 32 32 (340992)
I0501 08:32:51.629209 11074 net.cpp:131] Top shape: 111 (111)
I0501 08:32:51.629212 11074 net.cpp:139] Memory required for data: 1364412
I0501 08:32:51.629230 11074 layer_factory.hpp:77] Creating layer conv0
I0501 08:32:51.629283 11074 net.cpp:86] Creating Layer conv0
I0501 08:32:51.629289 11074 net.cpp:408] conv0 <- data
I0501 08:32:51.629299 11074 net.cpp:382] conv0 -> conv0
I0501 08:32:51.856981 11074 net.cpp:124] Setting up conv0
I0501 08:32:51.857023 11074 net.cpp:131] Top shape: 111 16 34 34 (2053056)
I0501 08:32:51.857026 11074 net.cpp:139] Memory required for data: 9576636
I0501 08:32:51.857041 11074 layer_factory.hpp:77] Creating layer Sigmoid0
I0501 08:32:51.857053 11074 net.cpp:86] Creating Layer Sigmoid0
I0501 08:32:51.857058 11074 net.cpp:408] Sigmoid0 <- conv0
I0501 08:32:51.857062 11074 net.cpp:382] Sigmoid0 -> Sigmoid0
I0501 08:32:51.857261 11074 net.cpp:124] Setting up Sigmoid0
I0501 08:32:51.857271 11074 net.cpp:131] Top shape: 111 16 34 34 (2053056)
I0501 08:32:51.857275 11074 net.cpp:139] Memory required for data: 17788860
I0501 08:32:51.857277 11074 layer_factory.hpp:77] Creating layer pool0
I0501 08:32:51.857285 11074 net.cpp:86] Creating Layer pool0
I0501 08:32:51.857287 11074 net.cpp:408] pool0 <- Sigmoid0
I0501 08:32:51.857292 11074 net.cpp:382] pool0 -> pool0
I0501 08:32:51.857986 11074 net.cpp:124] Setting up pool0
I0501 08:32:51.857998 11074 net.cpp:131] Top shape: 111 16 17 17 (513264)
I0501 08:32:51.858018 11074 net.cpp:139] Memory required for data: 19841916
I0501 08:32:51.858021 11074 layer_factory.hpp:77] Creating layer ip1
I0501 08:32:51.858031 11074 net.cpp:86] Creating Layer ip1
I0501 08:32:51.858033 11074 net.cpp:408] ip1 <- pool0
I0501 08:32:51.858039 11074 net.cpp:382] ip1 -> ip1
I0501 08:32:51.860069 11074 net.cpp:124] Setting up ip1
I0501 08:32:51.860081 11074 net.cpp:131] Top shape: 111 10 (1110)
I0501 08:32:51.860101 11074 net.cpp:139] Memory required for data: 19846356
I0501 08:32:51.860110 11074 layer_factory.hpp:77] Creating layer relu1
I0501 08:32:51.860116 11074 net.cpp:86] Creating Layer relu1
I0501 08:32:51.860118 11074 net.cpp:408] relu1 <- ip1
I0501 08:32:51.860123 11074 net.cpp:369] relu1 -> ip1 (in-place)
I0501 08:32:51.860318 11074 net.cpp:124] Setting up relu1
I0501 08:32:51.860327 11074 net.cpp:131] Top shape: 111 10 (1110)
I0501 08:32:51.860330 11074 net.cpp:139] Memory required for data: 19850796
I0501 08:32:51.860340 11074 layer_factory.hpp:77] Creating layer ip2
I0501 08:32:51.860347 11074 net.cpp:86] Creating Layer ip2
I0501 08:32:51.860349 11074 net.cpp:408] ip2 <- ip1
I0501 08:32:51.860354 11074 net.cpp:382] ip2 -> ip2
I0501 08:32:51.860471 11074 net.cpp:124] Setting up ip2
I0501 08:32:51.860478 11074 net.cpp:131] Top shape: 111 80 (8880)
I0501 08:32:51.860481 11074 net.cpp:139] Memory required for data: 19886316
I0501 08:32:51.860488 11074 layer_factory.hpp:77] Creating layer relu2
I0501 08:32:51.860493 11074 net.cpp:86] Creating Layer relu2
I0501 08:32:51.860496 11074 net.cpp:408] relu2 <- ip2
I0501 08:32:51.860515 11074 net.cpp:369] relu2 -> ip2 (in-place)
I0501 08:32:51.860649 11074 net.cpp:124] Setting up relu2
I0501 08:32:51.860657 11074 net.cpp:131] Top shape: 111 80 (8880)
I0501 08:32:51.860661 11074 net.cpp:139] Memory required for data: 19921836
I0501 08:32:51.860663 11074 layer_factory.hpp:77] Creating layer ip3
I0501 08:32:51.860671 11074 net.cpp:86] Creating Layer ip3
I0501 08:32:51.860673 11074 net.cpp:408] ip3 <- ip2
I0501 08:32:51.860678 11074 net.cpp:382] ip3 -> ip3
I0501 08:32:51.861935 11074 net.cpp:124] Setting up ip3
I0501 08:32:51.861948 11074 net.cpp:131] Top shape: 111 160 (17760)
I0501 08:32:51.861950 11074 net.cpp:139] Memory required for data: 19992876
I0501 08:32:51.861956 11074 layer_factory.hpp:77] Creating layer relu3
I0501 08:32:51.861961 11074 net.cpp:86] Creating Layer relu3
I0501 08:32:51.861965 11074 net.cpp:408] relu3 <- ip3
I0501 08:32:51.861969 11074 net.cpp:369] relu3 -> ip3 (in-place)
I0501 08:32:51.862143 11074 net.cpp:124] Setting up relu3
I0501 08:32:51.862151 11074 net.cpp:131] Top shape: 111 160 (17760)
I0501 08:32:51.862154 11074 net.cpp:139] Memory required for data: 20063916
I0501 08:32:51.862157 11074 layer_factory.hpp:77] Creating layer ip4
I0501 08:32:51.862177 11074 net.cpp:86] Creating Layer ip4
I0501 08:32:51.862181 11074 net.cpp:408] ip4 <- ip3
I0501 08:32:51.862186 11074 net.cpp:382] ip4 -> ip4
I0501 08:32:51.862320 11074 net.cpp:124] Setting up ip4
I0501 08:32:51.862329 11074 net.cpp:131] Top shape: 111 10 (1110)
I0501 08:32:51.862331 11074 net.cpp:139] Memory required for data: 20068356
I0501 08:32:51.862339 11074 layer_factory.hpp:77] Creating layer loss
I0501 08:32:51.862344 11074 net.cpp:86] Creating Layer loss
I0501 08:32:51.862349 11074 net.cpp:408] loss <- ip4
I0501 08:32:51.862351 11074 net.cpp:408] loss <- label
I0501 08:32:51.862356 11074 net.cpp:382] loss -> loss
I0501 08:32:51.862388 11074 layer_factory.hpp:77] Creating layer loss
…
I0501 08:32:51.863605 11074 solver.cpp:173] Creating test net (#0) specified by net file: ECE595/cifar/train_test/var_everything/cifar_train_test_514.prototxt
I0501 08:32:51.863631 11074 net.cpp:296] The NetState phase (1) differed from the phase (0) specified by a rule in layer cifar
I0501 08:32:51.863718 11074 net.cpp:53] Initializing net from parameters: 
name: "CIFAR"
state {
  phase: TEST
}
layer {
  name: "cifar"
  type: "Data"
  top: "data"
  top: "label"
  include {
    phase: TEST
  }
  transform_param {
    mean_file: "examples/cifar10/mean.binaryproto"
  }
  data_param {
    source: "examples/cifar10/cifar10_test_lmdb"
    batch_size: 1000
    backend: LMDB
  }
}
layer {
  name: "conv0"
  type: "Convolution"
  bottom: "data"
  top: "conv0"
  param {
    lr_mult: 1
  }
  param {
    lr_mult: 2
  }
  convolution_param {
    num_output: 16
    pad: 2
    kernel_size: 3
    stride: 1
    weight_filler {
      type: "gaussian"
      std: 0.01
    }
    bias_filler {
      type: "constant"
    }
  }
}
layer {
  name: "Sigmoid0"
  type: "Sigmoid"
  bottom: "conv0"
  top: "Sigmoid0"
}
layer {
  name: "pool0"
  type: "Pooling"
  bottom: "Sigmoid0"
  top: "pool0"
  pooling_param {
    pool: AVE
    kernel_size: 3
    stride: 2
  }
}
layer {
  name: "ip1"
  type: "InnerProduct"
  bottom: "pool0"
  top: "ip1"
  param {
    lr_mult: 1
  }
  param {
    lr_mult: 2
  }
  inner_product_param {
    num_output: 10
    weight_filler {
      type: "gaussian"
      std: 0.01
    }
    bias_filler {
      type: "constant"
    }
  }
}
layer {
  name: "relu1"
  type: "ReLU"
  bottom: "ip1"
  top: "ip1"
}
layer {
  name: "ip2"
  type: "InnerProduct"
  bottom: "ip1"
  top: "ip2"
  param {
    lr_mult: 1
  }
  param {
    lr_mult: 2
  }
  inner_product_param {
    num_output: 80
    weight_filler {
      type: "gaussian"
      std: 0.01
    }
    bias_filler {
      type: "constant"
    }
  }
}
layer {
  name: "relu2"
  type: "ReLU"
  bottom: "ip2"
  top: "ip2"
}
layer {
  name: "ip3"
  type: "InnerProduct"
  bottom: "ip2"
  top: "ip3"
  param {
    lr_mult: 1
  }
  param {
    lr_mult: 2
  }
  inner_product_param {
    num_output: 160
    weight_filler {
      type: "gaussian"
      std: 0.01
    }
    bias_filler {
      type: "constant"
    }
  }
}
layer {
  name: "relu3"
  type: "ReLU"
  bottom: "ip3"
  top: "ip3"
}
layer {
  name: "ip4"
  type: "InnerProduct"
  bottom: "ip3"
  top: "ip4"
  param {
    lr_mult: 1
  }
  param {
    lr_mult: 2
  }
  inner_product_param {
    num_output: 10
    weight_filler {
      type: "gaussian"
      std: 0.01
    }
    bias_filler {
      type: "constant"
    }
  }
}
layer {
  name: "accuracy"
  type: "Accuracy"
  bottom: "ip4"
  bottom: "label"
  top: "accuracy"
  include {
    phase: TEST
  }
}
layer {
  name: "loss"
  type: "SoftmaxWithLoss"
  bottom: "ip4"
  bottom: "label"
  top: "loss"
}
I0501 08:32:51.863793 11074 layer_factory.hpp:77] Creating layer cifar
I0501 08:32:51.863836 11074 db_lmdb.cpp:35] Opened lmdb examples/cifar10/cifar10_test_lmdb
I0501 08:32:51.863847 11074 net.cpp:86] Creating Layer cifar
I0501 08:32:51.863852 11074 net.cpp:382] cifar -> data
I0501 08:32:51.863860 11074 net.cpp:382] cifar -> label
I0501 08:32:51.863867 11074 data_transformer.cpp:25] Loading mean file from: examples/cifar10/mean.binaryproto
I0501 08:32:51.863998 11074 data_layer.cpp:45] output data size: 1000,3,32,32
I0501 08:32:51.885917 11074 net.cpp:124] Setting up cifar
I0501 08:32:51.885942 11074 net.cpp:131] Top shape: 1000 3 32 32 (3072000)
I0501 08:32:51.885948 11074 net.cpp:131] Top shape: 1000 (1000)
I0501 08:32:51.885951 11074 net.cpp:139] Memory required for data: 12292000
I0501 08:32:51.885957 11074 layer_factory.hpp:77] Creating layer label_cifar_1_split
I0501 08:32:51.885968 11074 net.cpp:86] Creating Layer label_cifar_1_split
I0501 08:32:51.885972 11074 net.cpp:408] label_cifar_1_split <- label
I0501 08:32:51.885979 11074 net.cpp:382] label_cifar_1_split -> label_cifar_1_split_0
I0501 08:32:51.885987 11074 net.cpp:382] label_cifar_1_split -> label_cifar_1_split_1
I0501 08:32:51.886054 11074 net.cpp:124] Setting up label_cifar_1_split
I0501 08:32:51.886060 11074 net.cpp:131] Top shape: 1000 (1000)
I0501 08:32:51.886065 11074 net.cpp:131] Top shape: 1000 (1000)
I0501 08:32:51.886066 11074 net.cpp:139] Memory required for data: 12300000
I0501 08:32:51.886070 11074 layer_factory.hpp:77] Creating layer conv0
I0501 08:32:51.886082 11074 net.cpp:86] Creating Layer conv0
I0501 08:32:51.886085 11074 net.cpp:408] conv0 <- data
I0501 08:32:51.886090 11074 net.cpp:382] conv0 -> conv0
I0501 08:32:51.887729 11074 net.cpp:124] Setting up conv0
I0501 08:32:51.887742 11074 net.cpp:131] Top shape: 1000 16 34 34 (18496000)
I0501 08:32:51.887747 11074 net.cpp:139] Memory required for data: 86284000
I0501 08:32:51.887756 11074 layer_factory.hpp:77] Creating layer Sigmoid0
I0501 08:32:51.887763 11074 net.cpp:86] Creating Layer Sigmoid0
I0501 08:32:51.887766 11074 net.cpp:408] Sigmoid0 <- conv0
I0501 08:32:51.887770 11074 net.cpp:382] Sigmoid0 -> Sigmoid0
I0501 08:32:51.887969 11074 net.cpp:124] Setting up Sigmoid0
I0501 08:32:51.887979 11074 net.cpp:131] Top shape: 1000 16 34 34 (18496000)
I0501 08:32:51.887981 11074 net.cpp:139] Memory required for data: 160268000
I0501 08:32:51.887985 11074 layer_factory.hpp:77] Creating layer pool0
I0501 08:32:51.887994 11074 net.cpp:86] Creating Layer pool0
I0501 08:32:51.887996 11074 net.cpp:408] pool0 <- Sigmoid0
I0501 08:32:51.888001 11074 net.cpp:382] pool0 -> pool0
I0501 08:32:51.888170 11074 net.cpp:124] Setting up pool0
I0501 08:32:51.888178 11074 net.cpp:131] Top shape: 1000 16 17 17 (4624000)
I0501 08:32:51.888181 11074 net.cpp:139] Memory required for data: 178764000
I0501 08:32:51.888185 11074 layer_factory.hpp:77] Creating layer ip1
I0501 08:32:51.888191 11074 net.cpp:86] Creating Layer ip1
I0501 08:32:51.888195 11074 net.cpp:408] ip1 <- pool0
I0501 08:32:51.888200 11074 net.cpp:382] ip1 -> ip1
I0501 08:32:51.889725 11074 net.cpp:124] Setting up ip1
I0501 08:32:51.889734 11074 net.cpp:131] Top shape: 1000 10 (10000)
I0501 08:32:51.889737 11074 net.cpp:139] Memory required for data: 178804000
I0501 08:32:51.889760 11074 layer_factory.hpp:77] Creating layer relu1
I0501 08:32:51.889765 11074 net.cpp:86] Creating Layer relu1
I0501 08:32:51.889797 11074 net.cpp:408] relu1 <- ip1
I0501 08:32:51.889816 11074 net.cpp:369] relu1 -> ip1 (in-place)
I0501 08:32:51.889987 11074 net.cpp:124] Setting up relu1
I0501 08:32:51.889999 11074 net.cpp:131] Top shape: 1000 10 (10000)
I0501 08:32:51.890002 11074 net.cpp:139] Memory required for data: 178844000
I0501 08:32:51.890005 11074 layer_factory.hpp:77] Creating layer ip2
I0501 08:32:51.890012 11074 net.cpp:86] Creating Layer ip2
I0501 08:32:51.890015 11074 net.cpp:408] ip2 <- ip1
I0501 08:32:51.890020 11074 net.cpp:382] ip2 -> ip2
I0501 08:32:51.890141 11074 net.cpp:124] Setting up ip2
I0501 08:32:51.890149 11074 net.cpp:131] Top shape: 1000 80 (80000)
I0501 08:32:51.890152 11074 net.cpp:139] Memory required for data: 179164000
I0501 08:32:51.890161 11074 layer_factory.hpp:77] Creating layer relu2
I0501 08:32:51.890166 11074 net.cpp:86] Creating Layer relu2
I0501 08:32:51.890169 11074 net.cpp:408] relu2 <- ip2
I0501 08:32:51.890172 11074 net.cpp:369] relu2 -> ip2 (in-place)
I0501 08:32:51.890939 11074 net.cpp:124] Setting up relu2
I0501 08:32:51.890951 11074 net.cpp:131] Top shape: 1000 80 (80000)
I0501 08:32:51.890969 11074 net.cpp:139] Memory required for data: 179484000
I0501 08:32:51.890974 11074 layer_factory.hpp:77] Creating layer ip3
I0501 08:32:51.890980 11074 net.cpp:86] Creating Layer ip3
I0501 08:32:51.890985 11074 net.cpp:408] ip3 <- ip2
I0501 08:32:51.890991 11074 net.cpp:382] ip3 -> ip3
I0501 08:32:51.891459 11074 net.cpp:124] Setting up ip3
I0501 08:32:51.891468 11074 net.cpp:131] Top shape: 1000 160 (160000)
I0501 08:32:51.891485 11074 net.cpp:139] Memory required for data: 180124000
I0501 08:32:51.891490 11074 layer_factory.hpp:77] Creating layer relu3
I0501 08:32:51.891495 11074 net.cpp:86] Creating Layer relu3
I0501 08:32:51.891499 11074 net.cpp:408] relu3 <- ip3
I0501 08:32:51.891504 11074 net.cpp:369] relu3 -> ip3 (in-place)
I0501 08:32:51.891679 11074 net.cpp:124] Setting up relu3
I0501 08:32:51.891686 11074 net.cpp:131] Top shape: 1000 160 (160000)
I0501 08:32:51.891690 11074 net.cpp:139] Memory required for data: 180764000
I0501 08:32:51.891693 11074 layer_factory.hpp:77] Creating layer ip4
I0501 08:32:51.891700 11074 net.cpp:86] Creating Layer ip4
I0501 08:32:51.891703 11074 net.cpp:408] ip4 <- ip3
I0501 08:32:51.891708 11074 net.cpp:382] ip4 -> ip4
I0501 08:32:51.891850 11074 net.cpp:124] Setting up ip4
I0501 08:32:51.891858 11074 net.cpp:131] Top shape: 1000 10 (10000)
I0501 08:32:51.891861 11074 net.cpp:139] Memory required for data: 180804000
I0501 08:32:51.891870 11074 layer_factory.hpp:77] Creating layer ip4_ip4_0_split
I0501 08:32:51.891875 11074 net.cpp:86] Creating Layer ip4_ip4_0_split
I0501 08:32:51.891877 11074 net.cpp:408] ip4_ip4_0_split <- ip4
I0501 08:32:51.891882 11074 net.cpp:382] ip4_ip4_0_split -> ip4_ip4_0_split_0
I0501 08:32:51.891887 11074 net.cpp:382] ip4_ip4_0_split -> ip4_ip4_0_split_1
I0501 08:32:51.891918 11074 net.cpp:124] Setting up ip4_ip4_0_split
I0501 08:32:51.891926 11074 net.cpp:131] Top shape: 1000 10 (10000)
I0501 08:32:51.891929 11074 net.cpp:131] Top shape: 1000 10 (10000)
I0501 08:32:51.891932 11074 net.cpp:139] Memory required for data: 180884000
I0501 08:32:51.891935 11074 layer_factory.hpp:77] Creating layer accuracy
I0501 08:32:51.891942 11074 net.cpp:86] Creating Layer accuracy
I0501 08:32:51.891944 11074 net.cpp:408] accuracy <- ip4_ip4_0_split_0
I0501 08:32:51.891948 11074 net.cpp:408] accuracy <- label_cifar_1_split_0
I0501 08:32:51.891953 11074 net.cpp:382] accuracy -> accuracy
…
