…
I0430 18:37:48.145578 23859 net.cpp:296] The NetState phase (0) differed from the phase (1) specified by a rule in layer cifar
I0430 18:37:48.145606 23859 net.cpp:296] The NetState phase (0) differed from the phase (1) specified by a rule in layer accuracy
I0430 18:37:48.145689 23859 net.cpp:53] Initializing net from parameters: 
name: "CIFAR"
state {
  phase: TRAIN
  level: 0
  stage: ""
}
layer {
  name: "cifar"
  type: "Data"
  top: "data"
  top: "label"
  include {
    phase: TRAIN
  }
  transform_param {
    mean_file: "examples/cifar10/mean.binaryproto"
  }
  data_param {
    source: "examples/cifar10/cifar10_train_lmdb"
    batch_size: 111
    backend: LMDB
  }
}
layer {
  name: "ip1"
  type: "InnerProduct"
  bottom: "data"
  top: "ip1"
  param {
    lr_mult: 1
  }
  param {
    lr_mult: 2
  }
  inner_product_param {
    num_output: 20
    weight_filler {
      type: "gaussian"
      std: 0.01
    }
    bias_filler {
      type: "constant"
    }
  }
}
layer {
  name: "relu1"
  type: "ReLU"
  bottom: "ip1"
  top: "ip1"
}
layer {
  name: "ip2"
  type: "InnerProduct"
  bottom: "ip1"
  top: "ip2"
  param {
    lr_mult: 1
  }
  param {
    lr_mult: 2
  }
  inner_product_param {
    num_output: 80
    weight_filler {
      type: "gaussian"
      std: 0.01
    }
    bias_filler {
      type: "constant"
    }
  }
}
layer {
  name: "relu2"
  type: "ReLU"
  bottom: "ip2"
  top: "ip2"
}
layer {
  name: "ip3"
  type: "InnerProduct"
  bottom: "ip2"
  top: "ip3"
  param {
    lr_mult: 1
  }
  param {
    lr_mult: 2
  }
  inner_product_param {
    num_output: 40
    weight_filler {
      type: "gaussian"
      std: 0.01
    }
    bias_filler {
      type: "constant"
    }
  }
}
layer {
  name: "relu3"
  type: "ReLU"
  bottom: "ip3"
  top: "ip3"
}
layer {
  name: "ip4"
  type: "InnerProduct"
  bottom: "ip3"
  top: "ip4"
  param {
    lr_mult: 1
  }
  param {
    lr_mult: 2
  }
  inner_product_param {
    num_output: 10
    weight_filler {
      type: "gaussian"
      std: 0.01
    }
    bias_filler {
      type: "constant"
    }
  }
}
layer {
  name: "loss"
  type: "SoftmaxWithLoss"
  bottom: "ip4"
  bottom: "label"
  top: "loss"
}
I0430 18:37:48.145753 23859 layer_factory.hpp:77] Creating layer cifar
I0430 18:37:48.145834 23859 db_lmdb.cpp:35] Opened lmdb examples/cifar10/cifar10_train_lmdb
I0430 18:37:48.145856 23859 net.cpp:86] Creating Layer cifar
I0430 18:37:48.145864 23859 net.cpp:382] cifar -> data
I0430 18:37:48.145882 23859 net.cpp:382] cifar -> label
I0430 18:37:48.145891 23859 data_transformer.cpp:25] Loading mean file from: examples/cifar10/mean.binaryproto
I0430 18:37:48.147719 23859 data_layer.cpp:45] output data size: 111,3,32,32
I0430 18:37:48.154350 23859 net.cpp:124] Setting up cifar
I0430 18:37:48.154397 23859 net.cpp:131] Top shape: 111 3 32 32 (340992)
I0430 18:37:48.154402 23859 net.cpp:131] Top shape: 111 (111)
I0430 18:37:48.154404 23859 net.cpp:139] Memory required for data: 1364412
I0430 18:37:48.154410 23859 layer_factory.hpp:77] Creating layer ip1
I0430 18:37:48.154419 23859 net.cpp:86] Creating Layer ip1
I0430 18:37:48.154423 23859 net.cpp:408] ip1 <- data
I0430 18:37:48.154433 23859 net.cpp:382] ip1 -> ip1
I0430 18:37:48.157310 23859 net.cpp:124] Setting up ip1
I0430 18:37:48.157320 23859 net.cpp:131] Top shape: 111 20 (2220)
I0430 18:37:48.157342 23859 net.cpp:139] Memory required for data: 1373292
I0430 18:37:48.157353 23859 layer_factory.hpp:77] Creating layer relu1
I0430 18:37:48.157361 23859 net.cpp:86] Creating Layer relu1
I0430 18:37:48.157378 23859 net.cpp:408] relu1 <- ip1
I0430 18:37:48.157383 23859 net.cpp:369] relu1 -> ip1 (in-place)
I0430 18:37:48.388319 23859 net.cpp:124] Setting up relu1
I0430 18:37:48.388347 23859 net.cpp:131] Top shape: 111 20 (2220)
I0430 18:37:48.388351 23859 net.cpp:139] Memory required for data: 1382172
I0430 18:37:48.388356 23859 layer_factory.hpp:77] Creating layer ip2
I0430 18:37:48.388368 23859 net.cpp:86] Creating Layer ip2
I0430 18:37:48.388372 23859 net.cpp:408] ip2 <- ip1
I0430 18:37:48.388380 23859 net.cpp:382] ip2 -> ip2
I0430 18:37:48.388563 23859 net.cpp:124] Setting up ip2
I0430 18:37:48.388571 23859 net.cpp:131] Top shape: 111 80 (8880)
I0430 18:37:48.388574 23859 net.cpp:139] Memory required for data: 1417692
I0430 18:37:48.388584 23859 layer_factory.hpp:77] Creating layer relu2
I0430 18:37:48.388609 23859 net.cpp:86] Creating Layer relu2
I0430 18:37:48.388612 23859 net.cpp:408] relu2 <- ip2
I0430 18:37:48.388617 23859 net.cpp:369] relu2 -> ip2 (in-place)
I0430 18:37:48.389454 23859 net.cpp:124] Setting up relu2
I0430 18:37:48.389467 23859 net.cpp:131] Top shape: 111 80 (8880)
I0430 18:37:48.389487 23859 net.cpp:139] Memory required for data: 1453212
I0430 18:37:48.389489 23859 layer_factory.hpp:77] Creating layer ip3
I0430 18:37:48.389497 23859 net.cpp:86] Creating Layer ip3
I0430 18:37:48.389499 23859 net.cpp:408] ip3 <- ip2
I0430 18:37:48.389505 23859 net.cpp:382] ip3 -> ip3
I0430 18:37:48.389700 23859 net.cpp:124] Setting up ip3
I0430 18:37:48.389708 23859 net.cpp:131] Top shape: 111 40 (4440)
I0430 18:37:48.389711 23859 net.cpp:139] Memory required for data: 1470972
I0430 18:37:48.389719 23859 layer_factory.hpp:77] Creating layer relu3
I0430 18:37:48.389724 23859 net.cpp:86] Creating Layer relu3
I0430 18:37:48.389726 23859 net.cpp:408] relu3 <- ip3
I0430 18:37:48.389730 23859 net.cpp:369] relu3 -> ip3 (in-place)
I0430 18:37:48.389873 23859 net.cpp:124] Setting up relu3
I0430 18:37:48.389880 23859 net.cpp:131] Top shape: 111 40 (4440)
I0430 18:37:48.389883 23859 net.cpp:139] Memory required for data: 1488732
I0430 18:37:48.389886 23859 layer_factory.hpp:77] Creating layer ip4
I0430 18:37:48.389891 23859 net.cpp:86] Creating Layer ip4
I0430 18:37:48.389894 23859 net.cpp:408] ip4 <- ip3
I0430 18:37:48.389899 23859 net.cpp:382] ip4 -> ip4
I0430 18:37:48.390846 23859 net.cpp:124] Setting up ip4
I0430 18:37:48.390856 23859 net.cpp:131] Top shape: 111 10 (1110)
I0430 18:37:48.390875 23859 net.cpp:139] Memory required for data: 1493172
I0430 18:37:48.390882 23859 layer_factory.hpp:77] Creating layer loss
I0430 18:37:48.390887 23859 net.cpp:86] Creating Layer loss
I0430 18:37:48.390892 23859 net.cpp:408] loss <- ip4
I0430 18:37:48.390895 23859 net.cpp:408] loss <- label
I0430 18:37:48.390900 23859 net.cpp:382] loss -> loss
I0430 18:37:48.390933 23859 layer_factory.hpp:77] Creating layer loss
…
I0430 18:37:48.391516 23859 solver.cpp:173] Creating test net (#0) specified by net file: ECE595/cifar/train_test/var_everything/cifar_train_test_72.prototxt
I0430 18:37:48.391554 23859 net.cpp:296] The NetState phase (1) differed from the phase (0) specified by a rule in layer cifar
I0430 18:37:48.391628 23859 net.cpp:53] Initializing net from parameters: 
name: "CIFAR"
state {
  phase: TEST
}
layer {
  name: "cifar"
  type: "Data"
  top: "data"
  top: "label"
  include {
    phase: TEST
  }
  transform_param {
    mean_file: "examples/cifar10/mean.binaryproto"
  }
  data_param {
    source: "examples/cifar10/cifar10_test_lmdb"
    batch_size: 1000
    backend: LMDB
  }
}
layer {
  name: "ip1"
  type: "InnerProduct"
  bottom: "data"
  top: "ip1"
  param {
    lr_mult: 1
  }
  param {
    lr_mult: 2
  }
  inner_product_param {
    num_output: 20
    weight_filler {
      type: "gaussian"
      std: 0.01
    }
    bias_filler {
      type: "constant"
    }
  }
}
layer {
  name: "relu1"
  type: "ReLU"
  bottom: "ip1"
  top: "ip1"
}
layer {
  name: "ip2"
  type: "InnerProduct"
  bottom: "ip1"
  top: "ip2"
  param {
    lr_mult: 1
  }
  param {
    lr_mult: 2
  }
  inner_product_param {
    num_output: 80
    weight_filler {
      type: "gaussian"
      std: 0.01
    }
    bias_filler {
      type: "constant"
    }
  }
}
layer {
  name: "relu2"
  type: "ReLU"
  bottom: "ip2"
  top: "ip2"
}
layer {
  name: "ip3"
  type: "InnerProduct"
  bottom: "ip2"
  top: "ip3"
  param {
    lr_mult: 1
  }
  param {
    lr_mult: 2
  }
  inner_product_param {
    num_output: 40
    weight_filler {
      type: "gaussian"
      std: 0.01
    }
    bias_filler {
      type: "constant"
    }
  }
}
layer {
  name: "relu3"
  type: "ReLU"
  bottom: "ip3"
  top: "ip3"
}
layer {
  name: "ip4"
  type: "InnerProduct"
  bottom: "ip3"
  top: "ip4"
  param {
    lr_mult: 1
  }
  param {
    lr_mult: 2
  }
  inner_product_param {
    num_output: 10
    weight_filler {
      type: "gaussian"
      std: 0.01
    }
    bias_filler {
      type: "constant"
    }
  }
}
layer {
  name: "accuracy"
  type: "Accuracy"
  bottom: "ip4"
  bottom: "label"
  top: "accuracy"
  include {
    phase: TEST
  }
}
layer {
  name: "loss"
  type: "SoftmaxWithLoss"
  bottom: "ip4"
  bottom: "label"
  top: "loss"
}
I0430 18:37:48.391685 23859 layer_factory.hpp:77] Creating layer cifar
I0430 18:37:48.391729 23859 db_lmdb.cpp:35] Opened lmdb examples/cifar10/cifar10_test_lmdb
I0430 18:37:48.391741 23859 net.cpp:86] Creating Layer cifar
I0430 18:37:48.391746 23859 net.cpp:382] cifar -> data
I0430 18:37:48.391753 23859 net.cpp:382] cifar -> label
I0430 18:37:48.391759 23859 data_transformer.cpp:25] Loading mean file from: examples/cifar10/mean.binaryproto
I0430 18:37:48.391892 23859 data_layer.cpp:45] output data size: 1000,3,32,32
I0430 18:37:48.413559 23859 net.cpp:124] Setting up cifar
I0430 18:37:48.413600 23859 net.cpp:131] Top shape: 1000 3 32 32 (3072000)
I0430 18:37:48.413622 23859 net.cpp:131] Top shape: 1000 (1000)
I0430 18:37:48.413627 23859 net.cpp:139] Memory required for data: 12292000
I0430 18:37:48.413633 23859 layer_factory.hpp:77] Creating layer label_cifar_1_split
I0430 18:37:48.413650 23859 net.cpp:86] Creating Layer label_cifar_1_split
I0430 18:37:48.413653 23859 net.cpp:408] label_cifar_1_split <- label
I0430 18:37:48.413674 23859 net.cpp:382] label_cifar_1_split -> label_cifar_1_split_0
I0430 18:37:48.413684 23859 net.cpp:382] label_cifar_1_split -> label_cifar_1_split_1
I0430 18:37:48.413774 23859 net.cpp:124] Setting up label_cifar_1_split
I0430 18:37:48.413790 23859 net.cpp:131] Top shape: 1000 (1000)
I0430 18:37:48.413794 23859 net.cpp:131] Top shape: 1000 (1000)
I0430 18:37:48.413796 23859 net.cpp:139] Memory required for data: 12300000
I0430 18:37:48.413800 23859 layer_factory.hpp:77] Creating layer ip1
I0430 18:37:48.413810 23859 net.cpp:86] Creating Layer ip1
I0430 18:37:48.413812 23859 net.cpp:408] ip1 <- data
I0430 18:37:48.413817 23859 net.cpp:382] ip1 -> ip1
I0430 18:37:48.416384 23859 net.cpp:124] Setting up ip1
I0430 18:37:48.416394 23859 net.cpp:131] Top shape: 1000 20 (20000)
I0430 18:37:48.416414 23859 net.cpp:139] Memory required for data: 12380000
I0430 18:37:48.416438 23859 layer_factory.hpp:77] Creating layer relu1
I0430 18:37:48.416445 23859 net.cpp:86] Creating Layer relu1
I0430 18:37:48.416450 23859 net.cpp:408] relu1 <- ip1
I0430 18:37:48.416470 23859 net.cpp:369] relu1 -> ip1 (in-place)
I0430 18:37:48.417289 23859 net.cpp:124] Setting up relu1
I0430 18:37:48.417335 23859 net.cpp:131] Top shape: 1000 20 (20000)
I0430 18:37:48.417340 23859 net.cpp:139] Memory required for data: 12460000
I0430 18:37:48.417342 23859 layer_factory.hpp:77] Creating layer ip2
I0430 18:37:48.417352 23859 net.cpp:86] Creating Layer ip2
I0430 18:37:48.417356 23859 net.cpp:408] ip2 <- ip1
I0430 18:37:48.417361 23859 net.cpp:382] ip2 -> ip2
I0430 18:37:48.417536 23859 net.cpp:124] Setting up ip2
I0430 18:37:48.417543 23859 net.cpp:131] Top shape: 1000 80 (80000)
I0430 18:37:48.417547 23859 net.cpp:139] Memory required for data: 12780000
I0430 18:37:48.417556 23859 layer_factory.hpp:77] Creating layer relu2
I0430 18:37:48.417562 23859 net.cpp:86] Creating Layer relu2
I0430 18:37:48.417565 23859 net.cpp:408] relu2 <- ip2
I0430 18:37:48.417570 23859 net.cpp:369] relu2 -> ip2 (in-place)
I0430 18:37:48.417757 23859 net.cpp:124] Setting up relu2
I0430 18:37:48.417775 23859 net.cpp:131] Top shape: 1000 80 (80000)
I0430 18:37:48.417778 23859 net.cpp:139] Memory required for data: 13100000
I0430 18:37:48.417781 23859 layer_factory.hpp:77] Creating layer ip3
I0430 18:37:48.417788 23859 net.cpp:86] Creating Layer ip3
I0430 18:37:48.417793 23859 net.cpp:408] ip3 <- ip2
I0430 18:37:48.417798 23859 net.cpp:382] ip3 -> ip3
I0430 18:37:48.417984 23859 net.cpp:124] Setting up ip3
I0430 18:37:48.417990 23859 net.cpp:131] Top shape: 1000 40 (40000)
I0430 18:37:48.417994 23859 net.cpp:139] Memory required for data: 13260000
I0430 18:37:48.418000 23859 layer_factory.hpp:77] Creating layer relu3
I0430 18:37:48.418005 23859 net.cpp:86] Creating Layer relu3
I0430 18:37:48.418009 23859 net.cpp:408] relu3 <- ip3
I0430 18:37:48.418014 23859 net.cpp:369] relu3 -> ip3 (in-place)
I0430 18:37:48.418179 23859 net.cpp:124] Setting up relu3
I0430 18:37:48.418186 23859 net.cpp:131] Top shape: 1000 40 (40000)
I0430 18:37:48.418190 23859 net.cpp:139] Memory required for data: 13420000
I0430 18:37:48.418193 23859 layer_factory.hpp:77] Creating layer ip4
I0430 18:37:48.418200 23859 net.cpp:86] Creating Layer ip4
I0430 18:37:48.418205 23859 net.cpp:408] ip4 <- ip3
I0430 18:37:48.418210 23859 net.cpp:382] ip4 -> ip4
I0430 18:37:48.418323 23859 net.cpp:124] Setting up ip4
I0430 18:37:48.418329 23859 net.cpp:131] Top shape: 1000 10 (10000)
I0430 18:37:48.418334 23859 net.cpp:139] Memory required for data: 13460000
I0430 18:37:48.418339 23859 layer_factory.hpp:77] Creating layer ip4_ip4_0_split
I0430 18:37:48.418344 23859 net.cpp:86] Creating Layer ip4_ip4_0_split
I0430 18:37:48.418347 23859 net.cpp:408] ip4_ip4_0_split <- ip4
I0430 18:37:48.418351 23859 net.cpp:382] ip4_ip4_0_split -> ip4_ip4_0_split_0
I0430 18:37:48.418359 23859 net.cpp:382] ip4_ip4_0_split -> ip4_ip4_0_split_1
I0430 18:37:48.418393 23859 net.cpp:124] Setting up ip4_ip4_0_split
I0430 18:37:48.418401 23859 net.cpp:131] Top shape: 1000 10 (10000)
I0430 18:37:48.418404 23859 net.cpp:131] Top shape: 1000 10 (10000)
I0430 18:37:48.418407 23859 net.cpp:139] Memory required for data: 13540000
I0430 18:37:48.418411 23859 layer_factory.hpp:77] Creating layer accuracy
I0430 18:37:48.418416 23859 net.cpp:86] Creating Layer accuracy
I0430 18:37:48.418421 23859 net.cpp:408] accuracy <- ip4_ip4_0_split_0
I0430 18:37:48.418424 23859 net.cpp:408] accuracy <- label_cifar_1_split_0
I0430 18:37:48.418429 23859 net.cpp:382] accuracy -> accuracy
…
