…
I0501 00:14:31.817394  6669 net.cpp:296] The NetState phase (0) differed from the phase (1) specified by a rule in layer cifar
I0501 00:14:31.817425  6669 net.cpp:296] The NetState phase (0) differed from the phase (1) specified by a rule in layer accuracy
I0501 00:14:31.817523  6669 net.cpp:53] Initializing net from parameters: 
name: "CIFAR"
state {
  phase: TRAIN
  level: 0
  stage: ""
}
layer {
  name: "cifar"
  type: "Data"
  top: "data"
  top: "label"
  include {
    phase: TRAIN
  }
  transform_param {
    mean_file: "examples/cifar10/mean.binaryproto"
  }
  data_param {
    source: "examples/cifar10/cifar10_train_lmdb"
    batch_size: 111
    backend: LMDB
  }
}
layer {
  name: "conv0"
  type: "Convolution"
  bottom: "data"
  top: "conv0"
  param {
    lr_mult: 1
  }
  param {
    lr_mult: 2
  }
  convolution_param {
    num_output: 8
    pad: 2
    kernel_size: 3
    stride: 1
    weight_filler {
      type: "gaussian"
      std: 0.01
    }
    bias_filler {
      type: "constant"
    }
  }
}
layer {
  name: "Sigmoid0"
  type: "Sigmoid"
  bottom: "conv0"
  top: "Sigmoid0"
}
layer {
  name: "pool0"
  type: "Pooling"
  bottom: "Sigmoid0"
  top: "pool0"
  pooling_param {
    pool: AVE
    kernel_size: 3
    stride: 2
  }
}
layer {
  name: "ip1"
  type: "InnerProduct"
  bottom: "pool0"
  top: "ip1"
  param {
    lr_mult: 1
  }
  param {
    lr_mult: 2
  }
  inner_product_param {
    num_output: 40
    weight_filler {
      type: "gaussian"
      std: 0.01
    }
    bias_filler {
      type: "constant"
    }
  }
}
layer {
  name: "relu1"
  type: "ReLU"
  bottom: "ip1"
  top: "ip1"
}
layer {
  name: "ip2"
  type: "InnerProduct"
  bottom: "ip1"
  top: "ip2"
  param {
    lr_mult: 1
  }
  param {
    lr_mult: 2
  }
  inner_product_param {
    num_output: 80
    weight_filler {
      type: "gaussian"
      std: 0.01
    }
    bias_filler {
      type: "constant"
    }
  }
}
layer {
  name: "relu2"
  type: "ReLU"
  bottom: "ip2"
  top: "ip2"
}
layer {
  name: "ip3"
  type: "InnerProduct"
  bottom: "ip2"
  top: "ip3"
  param {
    lr_mult: 1
  }
  param {
    lr_mult: 2
  }
  inner_product_param {
    num_output: 20
    weight_filler {
      type: "gaussian"
      std: 0.01
    }
    bias_filler {
      type: "constant"
    }
  }
}
layer {
  name: "relu3"
  type: "ReLU"
  bottom: "ip3"
  top: "ip3"
}
layer {
  name: "ip4"
  type: "InnerProduct"
  bottom: "ip3"
  top: "ip4"
  param {
    lr_mult: 1
  }
  param {
    lr_mult: 2
  }
  inner_product_param {
    num_output: 10
    weight_filler {
      type: "gaussian"
      std: 0.01
    }
    bias_filler {
      type: "constant"
    }
  }
}
layer {
  name: "loss"
  type: "SoftmaxWithLoss"
  bottom: "ip4"
  bottom: "label"
  top: "loss"
}
I0501 00:14:31.817589  6669 layer_factory.hpp:77] Creating layer cifar
I0501 00:14:31.817698  6669 db_lmdb.cpp:35] Opened lmdb examples/cifar10/cifar10_train_lmdb
I0501 00:14:31.817720  6669 net.cpp:86] Creating Layer cifar
I0501 00:14:31.817731  6669 net.cpp:382] cifar -> data
I0501 00:14:31.817750  6669 net.cpp:382] cifar -> label
I0501 00:14:31.817761  6669 data_transformer.cpp:25] Loading mean file from: examples/cifar10/mean.binaryproto
I0501 00:14:31.819483  6669 data_layer.cpp:45] output data size: 111,3,32,32
I0501 00:14:31.826128  6669 net.cpp:124] Setting up cifar
I0501 00:14:31.826160  6669 net.cpp:131] Top shape: 111 3 32 32 (340992)
I0501 00:14:31.826165  6669 net.cpp:131] Top shape: 111 (111)
I0501 00:14:31.826167  6669 net.cpp:139] Memory required for data: 1364412
I0501 00:14:31.826187  6669 layer_factory.hpp:77] Creating layer conv0
I0501 00:14:31.826236  6669 net.cpp:86] Creating Layer conv0
I0501 00:14:31.826241  6669 net.cpp:408] conv0 <- data
I0501 00:14:31.826253  6669 net.cpp:382] conv0 -> conv0
I0501 00:14:32.046845  6669 net.cpp:124] Setting up conv0
I0501 00:14:32.046872  6669 net.cpp:131] Top shape: 111 8 34 34 (1026528)
I0501 00:14:32.046876  6669 net.cpp:139] Memory required for data: 5470524
I0501 00:14:32.046890  6669 layer_factory.hpp:77] Creating layer Sigmoid0
I0501 00:14:32.046900  6669 net.cpp:86] Creating Layer Sigmoid0
I0501 00:14:32.046903  6669 net.cpp:408] Sigmoid0 <- conv0
I0501 00:14:32.046908  6669 net.cpp:382] Sigmoid0 -> Sigmoid0
I0501 00:14:32.047098  6669 net.cpp:124] Setting up Sigmoid0
I0501 00:14:32.047108  6669 net.cpp:131] Top shape: 111 8 34 34 (1026528)
I0501 00:14:32.047111  6669 net.cpp:139] Memory required for data: 9576636
I0501 00:14:32.047116  6669 layer_factory.hpp:77] Creating layer pool0
I0501 00:14:32.047122  6669 net.cpp:86] Creating Layer pool0
I0501 00:14:32.047125  6669 net.cpp:408] pool0 <- Sigmoid0
I0501 00:14:32.047130  6669 net.cpp:382] pool0 -> pool0
I0501 00:14:32.047835  6669 net.cpp:124] Setting up pool0
I0501 00:14:32.047847  6669 net.cpp:131] Top shape: 111 8 17 17 (256632)
I0501 00:14:32.047852  6669 net.cpp:139] Memory required for data: 10603164
I0501 00:14:32.047854  6669 layer_factory.hpp:77] Creating layer ip1
I0501 00:14:32.047863  6669 net.cpp:86] Creating Layer ip1
I0501 00:14:32.047865  6669 net.cpp:408] ip1 <- pool0
I0501 00:14:32.047870  6669 net.cpp:382] ip1 -> ip1
I0501 00:14:32.050645  6669 net.cpp:124] Setting up ip1
I0501 00:14:32.050654  6669 net.cpp:131] Top shape: 111 40 (4440)
I0501 00:14:32.050673  6669 net.cpp:139] Memory required for data: 10620924
I0501 00:14:32.050680  6669 layer_factory.hpp:77] Creating layer relu1
I0501 00:14:32.050685  6669 net.cpp:86] Creating Layer relu1
I0501 00:14:32.050690  6669 net.cpp:408] relu1 <- ip1
I0501 00:14:32.050694  6669 net.cpp:369] relu1 -> ip1 (in-place)
I0501 00:14:32.050863  6669 net.cpp:124] Setting up relu1
I0501 00:14:32.050871  6669 net.cpp:131] Top shape: 111 40 (4440)
I0501 00:14:32.050874  6669 net.cpp:139] Memory required for data: 10638684
I0501 00:14:32.050878  6669 layer_factory.hpp:77] Creating layer ip2
I0501 00:14:32.050884  6669 net.cpp:86] Creating Layer ip2
I0501 00:14:32.050887  6669 net.cpp:408] ip2 <- ip1
I0501 00:14:32.050892  6669 net.cpp:382] ip2 -> ip2
I0501 00:14:32.051115  6669 net.cpp:124] Setting up ip2
I0501 00:14:32.051122  6669 net.cpp:131] Top shape: 111 80 (8880)
I0501 00:14:32.051126  6669 net.cpp:139] Memory required for data: 10674204
I0501 00:14:32.051133  6669 layer_factory.hpp:77] Creating layer relu2
I0501 00:14:32.051156  6669 net.cpp:86] Creating Layer relu2
I0501 00:14:32.051159  6669 net.cpp:408] relu2 <- ip2
I0501 00:14:32.051163  6669 net.cpp:369] relu2 -> ip2 (in-place)
I0501 00:14:32.051311  6669 net.cpp:124] Setting up relu2
I0501 00:14:32.051321  6669 net.cpp:131] Top shape: 111 80 (8880)
I0501 00:14:32.051323  6669 net.cpp:139] Memory required for data: 10709724
I0501 00:14:32.051326  6669 layer_factory.hpp:77] Creating layer ip3
I0501 00:14:32.051350  6669 net.cpp:86] Creating Layer ip3
I0501 00:14:32.051369  6669 net.cpp:408] ip3 <- ip2
I0501 00:14:32.051374  6669 net.cpp:382] ip3 -> ip3
I0501 00:14:32.051537  6669 net.cpp:124] Setting up ip3
I0501 00:14:32.051545  6669 net.cpp:131] Top shape: 111 20 (2220)
I0501 00:14:32.051548  6669 net.cpp:139] Memory required for data: 10718604
I0501 00:14:32.051553  6669 layer_factory.hpp:77] Creating layer relu3
I0501 00:14:32.051558  6669 net.cpp:86] Creating Layer relu3
I0501 00:14:32.051561  6669 net.cpp:408] relu3 <- ip3
I0501 00:14:32.051566  6669 net.cpp:369] relu3 -> ip3 (in-place)
I0501 00:14:32.051734  6669 net.cpp:124] Setting up relu3
I0501 00:14:32.051743  6669 net.cpp:131] Top shape: 111 20 (2220)
I0501 00:14:32.051745  6669 net.cpp:139] Memory required for data: 10727484
I0501 00:14:32.051748  6669 layer_factory.hpp:77] Creating layer ip4
I0501 00:14:32.051766  6669 net.cpp:86] Creating Layer ip4
I0501 00:14:32.051772  6669 net.cpp:408] ip4 <- ip3
I0501 00:14:32.051792  6669 net.cpp:382] ip4 -> ip4
I0501 00:14:32.051890  6669 net.cpp:124] Setting up ip4
I0501 00:14:32.051898  6669 net.cpp:131] Top shape: 111 10 (1110)
I0501 00:14:32.051901  6669 net.cpp:139] Memory required for data: 10731924
I0501 00:14:32.051908  6669 layer_factory.hpp:77] Creating layer loss
I0501 00:14:32.051914  6669 net.cpp:86] Creating Layer loss
I0501 00:14:32.051918  6669 net.cpp:408] loss <- ip4
I0501 00:14:32.051921  6669 net.cpp:408] loss <- label
I0501 00:14:32.051926  6669 net.cpp:382] loss -> loss
I0501 00:14:32.051944  6669 layer_factory.hpp:77] Creating layer loss
…
I0501 00:14:32.053264  6669 solver.cpp:173] Creating test net (#0) specified by net file: ECE595/cifar/train_test/var_everything/cifar_train_test_251.prototxt
I0501 00:14:32.053306  6669 net.cpp:296] The NetState phase (1) differed from the phase (0) specified by a rule in layer cifar
I0501 00:14:32.053397  6669 net.cpp:53] Initializing net from parameters: 
name: "CIFAR"
state {
  phase: TEST
}
layer {
  name: "cifar"
  type: "Data"
  top: "data"
  top: "label"
  include {
    phase: TEST
  }
  transform_param {
    mean_file: "examples/cifar10/mean.binaryproto"
  }
  data_param {
    source: "examples/cifar10/cifar10_test_lmdb"
    batch_size: 1000
    backend: LMDB
  }
}
layer {
  name: "conv0"
  type: "Convolution"
  bottom: "data"
  top: "conv0"
  param {
    lr_mult: 1
  }
  param {
    lr_mult: 2
  }
  convolution_param {
    num_output: 8
    pad: 2
    kernel_size: 3
    stride: 1
    weight_filler {
      type: "gaussian"
      std: 0.01
    }
    bias_filler {
      type: "constant"
    }
  }
}
layer {
  name: "Sigmoid0"
  type: "Sigmoid"
  bottom: "conv0"
  top: "Sigmoid0"
}
layer {
  name: "pool0"
  type: "Pooling"
  bottom: "Sigmoid0"
  top: "pool0"
  pooling_param {
    pool: AVE
    kernel_size: 3
    stride: 2
  }
}
layer {
  name: "ip1"
  type: "InnerProduct"
  bottom: "pool0"
  top: "ip1"
  param {
    lr_mult: 1
  }
  param {
    lr_mult: 2
  }
  inner_product_param {
    num_output: 40
    weight_filler {
      type: "gaussian"
      std: 0.01
    }
    bias_filler {
      type: "constant"
    }
  }
}
layer {
  name: "relu1"
  type: "ReLU"
  bottom: "ip1"
  top: "ip1"
}
layer {
  name: "ip2"
  type: "InnerProduct"
  bottom: "ip1"
  top: "ip2"
  param {
    lr_mult: 1
  }
  param {
    lr_mult: 2
  }
  inner_product_param {
    num_output: 80
    weight_filler {
      type: "gaussian"
      std: 0.01
    }
    bias_filler {
      type: "constant"
    }
  }
}
layer {
  name: "relu2"
  type: "ReLU"
  bottom: "ip2"
  top: "ip2"
}
layer {
  name: "ip3"
  type: "InnerProduct"
  bottom: "ip2"
  top: "ip3"
  param {
    lr_mult: 1
  }
  param {
    lr_mult: 2
  }
  inner_product_param {
    num_output: 20
    weight_filler {
      type: "gaussian"
      std: 0.01
    }
    bias_filler {
      type: "constant"
    }
  }
}
layer {
  name: "relu3"
  type: "ReLU"
  bottom: "ip3"
  top: "ip3"
}
layer {
  name: "ip4"
  type: "InnerProduct"
  bottom: "ip3"
  top: "ip4"
  param {
    lr_mult: 1
  }
  param {
    lr_mult: 2
  }
  inner_product_param {
    num_output: 10
    weight_filler {
      type: "gaussian"
      std: 0.01
    }
    bias_filler {
      type: "constant"
    }
  }
}
layer {
  name: "accuracy"
  type: "Accuracy"
  bottom: "ip4"
  bottom: "label"
  top: "accuracy"
  include {
    phase: TEST
  }
}
layer {
  name: "loss"
  type: "SoftmaxWithLoss"
  bottom: "ip4"
  bottom: "label"
  top: "loss"
}
I0501 00:14:32.053478  6669 layer_factory.hpp:77] Creating layer cifar
I0501 00:14:32.053522  6669 db_lmdb.cpp:35] Opened lmdb examples/cifar10/cifar10_test_lmdb
I0501 00:14:32.053536  6669 net.cpp:86] Creating Layer cifar
I0501 00:14:32.053542  6669 net.cpp:382] cifar -> data
I0501 00:14:32.053565  6669 net.cpp:382] cifar -> label
I0501 00:14:32.053572  6669 data_transformer.cpp:25] Loading mean file from: examples/cifar10/mean.binaryproto
I0501 00:14:32.053735  6669 data_layer.cpp:45] output data size: 1000,3,32,32
I0501 00:14:32.076942  6669 net.cpp:124] Setting up cifar
I0501 00:14:32.076985  6669 net.cpp:131] Top shape: 1000 3 32 32 (3072000)
I0501 00:14:32.076992  6669 net.cpp:131] Top shape: 1000 (1000)
I0501 00:14:32.076995  6669 net.cpp:139] Memory required for data: 12292000
I0501 00:14:32.077003  6669 layer_factory.hpp:77] Creating layer label_cifar_1_split
I0501 00:14:32.077018  6669 net.cpp:86] Creating Layer label_cifar_1_split
I0501 00:14:32.077023  6669 net.cpp:408] label_cifar_1_split <- label
I0501 00:14:32.077029  6669 net.cpp:382] label_cifar_1_split -> label_cifar_1_split_0
I0501 00:14:32.077039  6669 net.cpp:382] label_cifar_1_split -> label_cifar_1_split_1
I0501 00:14:32.077122  6669 net.cpp:124] Setting up label_cifar_1_split
I0501 00:14:32.077131  6669 net.cpp:131] Top shape: 1000 (1000)
I0501 00:14:32.077136  6669 net.cpp:131] Top shape: 1000 (1000)
I0501 00:14:32.077138  6669 net.cpp:139] Memory required for data: 12300000
I0501 00:14:32.077142  6669 layer_factory.hpp:77] Creating layer conv0
I0501 00:14:32.077154  6669 net.cpp:86] Creating Layer conv0
I0501 00:14:32.077160  6669 net.cpp:408] conv0 <- data
I0501 00:14:32.077181  6669 net.cpp:382] conv0 -> conv0
I0501 00:14:32.079582  6669 net.cpp:124] Setting up conv0
I0501 00:14:32.079596  6669 net.cpp:131] Top shape: 1000 8 34 34 (9248000)
I0501 00:14:32.079615  6669 net.cpp:139] Memory required for data: 49292000
I0501 00:14:32.079624  6669 layer_factory.hpp:77] Creating layer Sigmoid0
I0501 00:14:32.079632  6669 net.cpp:86] Creating Layer Sigmoid0
I0501 00:14:32.079634  6669 net.cpp:408] Sigmoid0 <- conv0
I0501 00:14:32.079639  6669 net.cpp:382] Sigmoid0 -> Sigmoid0
I0501 00:14:32.079823  6669 net.cpp:124] Setting up Sigmoid0
I0501 00:14:32.079831  6669 net.cpp:131] Top shape: 1000 8 34 34 (9248000)
I0501 00:14:32.079834  6669 net.cpp:139] Memory required for data: 86284000
I0501 00:14:32.079838  6669 layer_factory.hpp:77] Creating layer pool0
I0501 00:14:32.079845  6669 net.cpp:86] Creating Layer pool0
I0501 00:14:32.079849  6669 net.cpp:408] pool0 <- Sigmoid0
I0501 00:14:32.079854  6669 net.cpp:382] pool0 -> pool0
I0501 00:14:32.080026  6669 net.cpp:124] Setting up pool0
I0501 00:14:32.080035  6669 net.cpp:131] Top shape: 1000 8 17 17 (2312000)
I0501 00:14:32.080039  6669 net.cpp:139] Memory required for data: 95532000
I0501 00:14:32.080042  6669 layer_factory.hpp:77] Creating layer ip1
I0501 00:14:32.080049  6669 net.cpp:86] Creating Layer ip1
I0501 00:14:32.080054  6669 net.cpp:408] ip1 <- pool0
I0501 00:14:32.080059  6669 net.cpp:382] ip1 -> ip1
I0501 00:14:32.082653  6669 net.cpp:124] Setting up ip1
I0501 00:14:32.082659  6669 net.cpp:131] Top shape: 1000 40 (40000)
I0501 00:14:32.082679  6669 net.cpp:139] Memory required for data: 95692000
I0501 00:14:32.082698  6669 layer_factory.hpp:77] Creating layer relu1
I0501 00:14:32.082705  6669 net.cpp:86] Creating Layer relu1
I0501 00:14:32.082708  6669 net.cpp:408] relu1 <- ip1
I0501 00:14:32.082712  6669 net.cpp:369] relu1 -> ip1 (in-place)
I0501 00:14:32.082877  6669 net.cpp:124] Setting up relu1
I0501 00:14:32.082885  6669 net.cpp:131] Top shape: 1000 40 (40000)
I0501 00:14:32.082888  6669 net.cpp:139] Memory required for data: 95852000
I0501 00:14:32.082891  6669 layer_factory.hpp:77] Creating layer ip2
I0501 00:14:32.082898  6669 net.cpp:86] Creating Layer ip2
I0501 00:14:32.082901  6669 net.cpp:408] ip2 <- ip1
I0501 00:14:32.082906  6669 net.cpp:382] ip2 -> ip2
I0501 00:14:32.083086  6669 net.cpp:124] Setting up ip2
I0501 00:14:32.083093  6669 net.cpp:131] Top shape: 1000 80 (80000)
I0501 00:14:32.083097  6669 net.cpp:139] Memory required for data: 96172000
I0501 00:14:32.083104  6669 layer_factory.hpp:77] Creating layer relu2
I0501 00:14:32.083109  6669 net.cpp:86] Creating Layer relu2
I0501 00:14:32.083112  6669 net.cpp:408] relu2 <- ip2
I0501 00:14:32.083117  6669 net.cpp:369] relu2 -> ip2 (in-place)
I0501 00:14:32.083878  6669 net.cpp:124] Setting up relu2
I0501 00:14:32.083890  6669 net.cpp:131] Top shape: 1000 80 (80000)
I0501 00:14:32.083909  6669 net.cpp:139] Memory required for data: 96492000
I0501 00:14:32.083912  6669 layer_factory.hpp:77] Creating layer ip3
I0501 00:14:32.083920  6669 net.cpp:86] Creating Layer ip3
I0501 00:14:32.083922  6669 net.cpp:408] ip3 <- ip2
I0501 00:14:32.083928  6669 net.cpp:382] ip3 -> ip3
I0501 00:14:32.084079  6669 net.cpp:124] Setting up ip3
I0501 00:14:32.084085  6669 net.cpp:131] Top shape: 1000 20 (20000)
I0501 00:14:32.084089  6669 net.cpp:139] Memory required for data: 96572000
I0501 00:14:32.084095  6669 layer_factory.hpp:77] Creating layer relu3
I0501 00:14:32.084100  6669 net.cpp:86] Creating Layer relu3
I0501 00:14:32.084103  6669 net.cpp:408] relu3 <- ip3
I0501 00:14:32.084107  6669 net.cpp:369] relu3 -> ip3 (in-place)
I0501 00:14:32.084246  6669 net.cpp:124] Setting up relu3
I0501 00:14:32.084254  6669 net.cpp:131] Top shape: 1000 20 (20000)
I0501 00:14:32.084257  6669 net.cpp:139] Memory required for data: 96652000
I0501 00:14:32.084276  6669 layer_factory.hpp:77] Creating layer ip4
I0501 00:14:32.084283  6669 net.cpp:86] Creating Layer ip4
I0501 00:14:32.084286  6669 net.cpp:408] ip4 <- ip3
I0501 00:14:32.084291  6669 net.cpp:382] ip4 -> ip4
I0501 00:14:32.084419  6669 net.cpp:124] Setting up ip4
I0501 00:14:32.084425  6669 net.cpp:131] Top shape: 1000 10 (10000)
I0501 00:14:32.084429  6669 net.cpp:139] Memory required for data: 96692000
I0501 00:14:32.084436  6669 layer_factory.hpp:77] Creating layer ip4_ip4_0_split
I0501 00:14:32.084442  6669 net.cpp:86] Creating Layer ip4_ip4_0_split
I0501 00:14:32.084445  6669 net.cpp:408] ip4_ip4_0_split <- ip4
I0501 00:14:32.084450  6669 net.cpp:382] ip4_ip4_0_split -> ip4_ip4_0_split_0
I0501 00:14:32.084456  6669 net.cpp:382] ip4_ip4_0_split -> ip4_ip4_0_split_1
I0501 00:14:32.084486  6669 net.cpp:124] Setting up ip4_ip4_0_split
I0501 00:14:32.084493  6669 net.cpp:131] Top shape: 1000 10 (10000)
I0501 00:14:32.084497  6669 net.cpp:131] Top shape: 1000 10 (10000)
I0501 00:14:32.084501  6669 net.cpp:139] Memory required for data: 96772000
I0501 00:14:32.084503  6669 layer_factory.hpp:77] Creating layer accuracy
I0501 00:14:32.084508  6669 net.cpp:86] Creating Layer accuracy
I0501 00:14:32.084511  6669 net.cpp:408] accuracy <- ip4_ip4_0_split_0
I0501 00:14:32.084517  6669 net.cpp:408] accuracy <- label_cifar_1_split_0
I0501 00:14:32.084520  6669 net.cpp:382] accuracy -> accuracy
…
