…
I0430 18:47:25.244562 24288 net.cpp:296] The NetState phase (0) differed from the phase (1) specified by a rule in layer cifar
I0430 18:47:25.244585 24288 net.cpp:296] The NetState phase (0) differed from the phase (1) specified by a rule in layer accuracy
I0430 18:47:25.244680 24288 net.cpp:53] Initializing net from parameters: 
name: "CIFAR"
state {
  phase: TRAIN
  level: 0
  stage: ""
}
layer {
  name: "cifar"
  type: "Data"
  top: "data"
  top: "label"
  include {
    phase: TRAIN
  }
  transform_param {
    mean_file: "examples/cifar10/mean.binaryproto"
  }
  data_param {
    source: "examples/cifar10/cifar10_train_lmdb"
    batch_size: 111
    backend: LMDB
  }
}
layer {
  name: "ip1"
  type: "InnerProduct"
  bottom: "data"
  top: "ip1"
  param {
    lr_mult: 1
  }
  param {
    lr_mult: 2
  }
  inner_product_param {
    num_output: 20
    weight_filler {
      type: "gaussian"
      std: 0.01
    }
    bias_filler {
      type: "constant"
    }
  }
}
layer {
  name: "relu1"
  type: "ReLU"
  bottom: "ip1"
  top: "ip1"
}
layer {
  name: "ip2"
  type: "InnerProduct"
  bottom: "ip1"
  top: "ip2"
  param {
    lr_mult: 1
  }
  param {
    lr_mult: 2
  }
  inner_product_param {
    num_output: 160
    weight_filler {
      type: "gaussian"
      std: 0.01
    }
    bias_filler {
      type: "constant"
    }
  }
}
layer {
  name: "relu2"
  type: "ReLU"
  bottom: "ip2"
  top: "ip2"
}
layer {
  name: "ip3"
  type: "InnerProduct"
  bottom: "ip2"
  top: "ip3"
  param {
    lr_mult: 1
  }
  param {
    lr_mult: 2
  }
  inner_product_param {
    num_output: 40
    weight_filler {
      type: "gaussian"
      std: 0.01
    }
    bias_filler {
      type: "constant"
    }
  }
}
layer {
  name: "relu3"
  type: "ReLU"
  bottom: "ip3"
  top: "ip3"
}
layer {
  name: "ip4"
  type: "InnerProduct"
  bottom: "ip3"
  top: "ip4"
  param {
    lr_mult: 1
  }
  param {
    lr_mult: 2
  }
  inner_product_param {
    num_output: 10
    weight_filler {
      type: "gaussian"
      std: 0.01
    }
    bias_filler {
      type: "constant"
    }
  }
}
layer {
  name: "loss"
  type: "SoftmaxWithLoss"
  bottom: "ip4"
  bottom: "label"
  top: "loss"
}
I0430 18:47:25.244783 24288 layer_factory.hpp:77] Creating layer cifar
I0430 18:47:25.244917 24288 db_lmdb.cpp:35] Opened lmdb examples/cifar10/cifar10_train_lmdb
I0430 18:47:25.244956 24288 net.cpp:86] Creating Layer cifar
I0430 18:47:25.244971 24288 net.cpp:382] cifar -> data
I0430 18:47:25.245002 24288 net.cpp:382] cifar -> label
I0430 18:47:25.245021 24288 data_transformer.cpp:25] Loading mean file from: examples/cifar10/mean.binaryproto
I0430 18:47:25.247269 24288 data_layer.cpp:45] output data size: 111,3,32,32
I0430 18:47:25.255183 24288 net.cpp:124] Setting up cifar
I0430 18:47:25.255204 24288 net.cpp:131] Top shape: 111 3 32 32 (340992)
I0430 18:47:25.255214 24288 net.cpp:131] Top shape: 111 (111)
I0430 18:47:25.255220 24288 net.cpp:139] Memory required for data: 1364412
I0430 18:47:25.255233 24288 layer_factory.hpp:77] Creating layer ip1
I0430 18:47:25.255252 24288 net.cpp:86] Creating Layer ip1
I0430 18:47:25.255265 24288 net.cpp:408] ip1 <- data
I0430 18:47:25.255285 24288 net.cpp:382] ip1 -> ip1
I0430 18:47:25.258476 24288 net.cpp:124] Setting up ip1
I0430 18:47:25.258496 24288 net.cpp:131] Top shape: 111 20 (2220)
I0430 18:47:25.258502 24288 net.cpp:139] Memory required for data: 1373292
I0430 18:47:25.258524 24288 layer_factory.hpp:77] Creating layer relu1
I0430 18:47:25.258548 24288 net.cpp:86] Creating Layer relu1
I0430 18:47:25.258572 24288 net.cpp:408] relu1 <- ip1
I0430 18:47:25.258584 24288 net.cpp:369] relu1 -> ip1 (in-place)
I0430 18:47:25.546406 24288 net.cpp:124] Setting up relu1
I0430 18:47:25.546439 24288 net.cpp:131] Top shape: 111 20 (2220)
I0430 18:47:25.546447 24288 net.cpp:139] Memory required for data: 1382172
I0430 18:47:25.546455 24288 layer_factory.hpp:77] Creating layer ip2
I0430 18:47:25.546475 24288 net.cpp:86] Creating Layer ip2
I0430 18:47:25.546484 24288 net.cpp:408] ip2 <- ip1
I0430 18:47:25.546499 24288 net.cpp:382] ip2 -> ip2
I0430 18:47:25.546743 24288 net.cpp:124] Setting up ip2
I0430 18:47:25.546756 24288 net.cpp:131] Top shape: 111 160 (17760)
I0430 18:47:25.546763 24288 net.cpp:139] Memory required for data: 1453212
I0430 18:47:25.546782 24288 layer_factory.hpp:77] Creating layer relu2
I0430 18:47:25.546798 24288 net.cpp:86] Creating Layer relu2
I0430 18:47:25.546808 24288 net.cpp:408] relu2 <- ip2
I0430 18:47:25.546816 24288 net.cpp:369] relu2 -> ip2 (in-place)
I0430 18:47:25.547719 24288 net.cpp:124] Setting up relu2
I0430 18:47:25.547737 24288 net.cpp:131] Top shape: 111 160 (17760)
I0430 18:47:25.547744 24288 net.cpp:139] Memory required for data: 1524252
I0430 18:47:25.547751 24288 layer_factory.hpp:77] Creating layer ip3
I0430 18:47:25.547765 24288 net.cpp:86] Creating Layer ip3
I0430 18:47:25.547771 24288 net.cpp:408] ip3 <- ip2
I0430 18:47:25.547781 24288 net.cpp:382] ip3 -> ip3
I0430 18:47:25.549134 24288 net.cpp:124] Setting up ip3
I0430 18:47:25.549152 24288 net.cpp:131] Top shape: 111 40 (4440)
I0430 18:47:25.549160 24288 net.cpp:139] Memory required for data: 1542012
I0430 18:47:25.549175 24288 layer_factory.hpp:77] Creating layer relu3
I0430 18:47:25.549186 24288 net.cpp:86] Creating Layer relu3
I0430 18:47:25.549193 24288 net.cpp:408] relu3 <- ip3
I0430 18:47:25.549202 24288 net.cpp:369] relu3 -> ip3 (in-place)
I0430 18:47:25.549404 24288 net.cpp:124] Setting up relu3
I0430 18:47:25.549417 24288 net.cpp:131] Top shape: 111 40 (4440)
I0430 18:47:25.549422 24288 net.cpp:139] Memory required for data: 1559772
I0430 18:47:25.549429 24288 layer_factory.hpp:77] Creating layer ip4
I0430 18:47:25.549441 24288 net.cpp:86] Creating Layer ip4
I0430 18:47:25.549448 24288 net.cpp:408] ip4 <- ip3
I0430 18:47:25.549458 24288 net.cpp:382] ip4 -> ip4
I0430 18:47:25.550576 24288 net.cpp:124] Setting up ip4
I0430 18:47:25.550595 24288 net.cpp:131] Top shape: 111 10 (1110)
I0430 18:47:25.550601 24288 net.cpp:139] Memory required for data: 1564212
I0430 18:47:25.550612 24288 layer_factory.hpp:77] Creating layer loss
I0430 18:47:25.550626 24288 net.cpp:86] Creating Layer loss
I0430 18:47:25.550633 24288 net.cpp:408] loss <- ip4
I0430 18:47:25.550642 24288 net.cpp:408] loss <- label
I0430 18:47:25.550653 24288 net.cpp:382] loss -> loss
I0430 18:47:25.550684 24288 layer_factory.hpp:77] Creating layer loss
…
I0430 18:47:25.551434 24288 solver.cpp:173] Creating test net (#0) specified by net file: ECE595/cifar/train_test/var_everything/cifar_train_test_77.prototxt
I0430 18:47:25.551492 24288 net.cpp:296] The NetState phase (1) differed from the phase (0) specified by a rule in layer cifar
I0430 18:47:25.551595 24288 net.cpp:53] Initializing net from parameters: 
name: "CIFAR"
state {
  phase: TEST
}
layer {
  name: "cifar"
  type: "Data"
  top: "data"
  top: "label"
  include {
    phase: TEST
  }
  transform_param {
    mean_file: "examples/cifar10/mean.binaryproto"
  }
  data_param {
    source: "examples/cifar10/cifar10_test_lmdb"
    batch_size: 1000
    backend: LMDB
  }
}
layer {
  name: "ip1"
  type: "InnerProduct"
  bottom: "data"
  top: "ip1"
  param {
    lr_mult: 1
  }
  param {
    lr_mult: 2
  }
  inner_product_param {
    num_output: 20
    weight_filler {
      type: "gaussian"
      std: 0.01
    }
    bias_filler {
      type: "constant"
    }
  }
}
layer {
  name: "relu1"
  type: "ReLU"
  bottom: "ip1"
  top: "ip1"
}
layer {
  name: "ip2"
  type: "InnerProduct"
  bottom: "ip1"
  top: "ip2"
  param {
    lr_mult: 1
  }
  param {
    lr_mult: 2
  }
  inner_product_param {
    num_output: 160
    weight_filler {
      type: "gaussian"
      std: 0.01
    }
    bias_filler {
      type: "constant"
    }
  }
}
layer {
  name: "relu2"
  type: "ReLU"
  bottom: "ip2"
  top: "ip2"
}
layer {
  name: "ip3"
  type: "InnerProduct"
  bottom: "ip2"
  top: "ip3"
  param {
    lr_mult: 1
  }
  param {
    lr_mult: 2
  }
  inner_product_param {
    num_output: 40
    weight_filler {
      type: "gaussian"
      std: 0.01
    }
    bias_filler {
      type: "constant"
    }
  }
}
layer {
  name: "relu3"
  type: "ReLU"
  bottom: "ip3"
  top: "ip3"
}
layer {
  name: "ip4"
  type: "InnerProduct"
  bottom: "ip3"
  top: "ip4"
  param {
    lr_mult: 1
  }
  param {
    lr_mult: 2
  }
  inner_product_param {
    num_output: 10
    weight_filler {
      type: "gaussian"
      std: 0.01
    }
    bias_filler {
      type: "constant"
    }
  }
}
layer {
  name: "accuracy"
  type: "Accuracy"
  bottom: "ip4"
  bottom: "label"
  top: "accuracy"
  include {
    phase: TEST
  }
}
layer {
  name: "loss"
  type: "SoftmaxWithLoss"
  bottom: "ip4"
  bottom: "label"
  top: "loss"
}
I0430 18:47:25.551703 24288 layer_factory.hpp:77] Creating layer cifar
I0430 18:47:25.551774 24288 db_lmdb.cpp:35] Opened lmdb examples/cifar10/cifar10_test_lmdb
I0430 18:47:25.551795 24288 net.cpp:86] Creating Layer cifar
I0430 18:47:25.551805 24288 net.cpp:382] cifar -> data
I0430 18:47:25.551820 24288 net.cpp:382] cifar -> label
I0430 18:47:25.551831 24288 data_transformer.cpp:25] Loading mean file from: examples/cifar10/mean.binaryproto
I0430 18:47:25.552078 24288 data_layer.cpp:45] output data size: 1000,3,32,32
I0430 18:47:25.577992 24288 net.cpp:124] Setting up cifar
I0430 18:47:25.578027 24288 net.cpp:131] Top shape: 1000 3 32 32 (3072000)
I0430 18:47:25.578037 24288 net.cpp:131] Top shape: 1000 (1000)
I0430 18:47:25.578043 24288 net.cpp:139] Memory required for data: 12292000
I0430 18:47:25.578053 24288 layer_factory.hpp:77] Creating layer label_cifar_1_split
I0430 18:47:25.578078 24288 net.cpp:86] Creating Layer label_cifar_1_split
I0430 18:47:25.578085 24288 net.cpp:408] label_cifar_1_split <- label
I0430 18:47:25.578097 24288 net.cpp:382] label_cifar_1_split -> label_cifar_1_split_0
I0430 18:47:25.578114 24288 net.cpp:382] label_cifar_1_split -> label_cifar_1_split_1
I0430 18:47:25.578208 24288 net.cpp:124] Setting up label_cifar_1_split
I0430 18:47:25.578219 24288 net.cpp:131] Top shape: 1000 (1000)
I0430 18:47:25.578227 24288 net.cpp:131] Top shape: 1000 (1000)
I0430 18:47:25.578233 24288 net.cpp:139] Memory required for data: 12300000
I0430 18:47:25.578240 24288 layer_factory.hpp:77] Creating layer ip1
I0430 18:47:25.578256 24288 net.cpp:86] Creating Layer ip1
I0430 18:47:25.578268 24288 net.cpp:408] ip1 <- data
I0430 18:47:25.578277 24288 net.cpp:382] ip1 -> ip1
I0430 18:47:25.580852 24288 net.cpp:124] Setting up ip1
I0430 18:47:25.580866 24288 net.cpp:131] Top shape: 1000 20 (20000)
I0430 18:47:25.580873 24288 net.cpp:139] Memory required for data: 12380000
I0430 18:47:25.580916 24288 layer_factory.hpp:77] Creating layer relu1
I0430 18:47:25.580931 24288 net.cpp:86] Creating Layer relu1
I0430 18:47:25.580945 24288 net.cpp:408] relu1 <- ip1
I0430 18:47:25.580955 24288 net.cpp:369] relu1 -> ip1 (in-place)
I0430 18:47:25.581881 24288 net.cpp:124] Setting up relu1
I0430 18:47:25.581898 24288 net.cpp:131] Top shape: 1000 20 (20000)
I0430 18:47:25.581907 24288 net.cpp:139] Memory required for data: 12460000
I0430 18:47:25.581913 24288 layer_factory.hpp:77] Creating layer ip2
I0430 18:47:25.581929 24288 net.cpp:86] Creating Layer ip2
I0430 18:47:25.581938 24288 net.cpp:408] ip2 <- ip1
I0430 18:47:25.581948 24288 net.cpp:382] ip2 -> ip2
I0430 18:47:25.582190 24288 net.cpp:124] Setting up ip2
I0430 18:47:25.582202 24288 net.cpp:131] Top shape: 1000 160 (160000)
I0430 18:47:25.582208 24288 net.cpp:139] Memory required for data: 13100000
I0430 18:47:25.582224 24288 layer_factory.hpp:77] Creating layer relu2
I0430 18:47:25.582234 24288 net.cpp:86] Creating Layer relu2
I0430 18:47:25.582242 24288 net.cpp:408] relu2 <- ip2
I0430 18:47:25.582252 24288 net.cpp:369] relu2 -> ip2 (in-place)
I0430 18:47:25.582454 24288 net.cpp:124] Setting up relu2
I0430 18:47:25.582468 24288 net.cpp:131] Top shape: 1000 160 (160000)
I0430 18:47:25.582474 24288 net.cpp:139] Memory required for data: 13740000
I0430 18:47:25.582481 24288 layer_factory.hpp:77] Creating layer ip3
I0430 18:47:25.582495 24288 net.cpp:86] Creating Layer ip3
I0430 18:47:25.582501 24288 net.cpp:408] ip3 <- ip2
I0430 18:47:25.582511 24288 net.cpp:382] ip3 -> ip3
I0430 18:47:25.582867 24288 net.cpp:124] Setting up ip3
I0430 18:47:25.582878 24288 net.cpp:131] Top shape: 1000 40 (40000)
I0430 18:47:25.582885 24288 net.cpp:139] Memory required for data: 13900000
I0430 18:47:25.582900 24288 layer_factory.hpp:77] Creating layer relu3
I0430 18:47:25.582916 24288 net.cpp:86] Creating Layer relu3
I0430 18:47:25.582926 24288 net.cpp:408] relu3 <- ip3
I0430 18:47:25.582937 24288 net.cpp:369] relu3 -> ip3 (in-place)
I0430 18:47:25.583147 24288 net.cpp:124] Setting up relu3
I0430 18:47:25.583158 24288 net.cpp:131] Top shape: 1000 40 (40000)
I0430 18:47:25.583164 24288 net.cpp:139] Memory required for data: 14060000
I0430 18:47:25.583171 24288 layer_factory.hpp:77] Creating layer ip4
I0430 18:47:25.583189 24288 net.cpp:86] Creating Layer ip4
I0430 18:47:25.583196 24288 net.cpp:408] ip4 <- ip3
I0430 18:47:25.583209 24288 net.cpp:382] ip4 -> ip4
I0430 18:47:25.583356 24288 net.cpp:124] Setting up ip4
I0430 18:47:25.583370 24288 net.cpp:131] Top shape: 1000 10 (10000)
I0430 18:47:25.583376 24288 net.cpp:139] Memory required for data: 14100000
I0430 18:47:25.583387 24288 layer_factory.hpp:77] Creating layer ip4_ip4_0_split
I0430 18:47:25.583397 24288 net.cpp:86] Creating Layer ip4_ip4_0_split
I0430 18:47:25.583403 24288 net.cpp:408] ip4_ip4_0_split <- ip4
I0430 18:47:25.583412 24288 net.cpp:382] ip4_ip4_0_split -> ip4_ip4_0_split_0
I0430 18:47:25.583425 24288 net.cpp:382] ip4_ip4_0_split -> ip4_ip4_0_split_1
I0430 18:47:25.583475 24288 net.cpp:124] Setting up ip4_ip4_0_split
I0430 18:47:25.583487 24288 net.cpp:131] Top shape: 1000 10 (10000)
I0430 18:47:25.583493 24288 net.cpp:131] Top shape: 1000 10 (10000)
I0430 18:47:25.583499 24288 net.cpp:139] Memory required for data: 14180000
I0430 18:47:25.583505 24288 layer_factory.hpp:77] Creating layer accuracy
I0430 18:47:25.583515 24288 net.cpp:86] Creating Layer accuracy
I0430 18:47:25.583523 24288 net.cpp:408] accuracy <- ip4_ip4_0_split_0
I0430 18:47:25.583531 24288 net.cpp:408] accuracy <- label_cifar_1_split_0
I0430 18:47:25.583542 24288 net.cpp:382] accuracy -> accuracy
…
