…
I0430 19:41:08.404353 26530 net.cpp:296] The NetState phase (0) differed from the phase (1) specified by a rule in layer cifar
I0430 19:41:08.404371 26530 net.cpp:296] The NetState phase (0) differed from the phase (1) specified by a rule in layer accuracy
I0430 19:41:08.404454 26530 net.cpp:53] Initializing net from parameters: 
name: "CIFAR"
state {
  phase: TRAIN
  level: 0
  stage: ""
}
layer {
  name: "cifar"
  type: "Data"
  top: "data"
  top: "label"
  include {
    phase: TRAIN
  }
  transform_param {
    mean_file: "examples/cifar10/mean.binaryproto"
  }
  data_param {
    source: "examples/cifar10/cifar10_train_lmdb"
    batch_size: 111
    backend: LMDB
  }
}
layer {
  name: "ip1"
  type: "InnerProduct"
  bottom: "data"
  top: "ip1"
  param {
    lr_mult: 1
  }
  param {
    lr_mult: 2
  }
  inner_product_param {
    num_output: 80
    weight_filler {
      type: "gaussian"
      std: 0.01
    }
    bias_filler {
      type: "constant"
    }
  }
}
layer {
  name: "relu1"
  type: "ReLU"
  bottom: "ip1"
  top: "ip1"
}
layer {
  name: "ip2"
  type: "InnerProduct"
  bottom: "ip1"
  top: "ip2"
  param {
    lr_mult: 1
  }
  param {
    lr_mult: 2
  }
  inner_product_param {
    num_output: 10
    weight_filler {
      type: "gaussian"
      std: 0.01
    }
    bias_filler {
      type: "constant"
    }
  }
}
layer {
  name: "relu2"
  type: "ReLU"
  bottom: "ip2"
  top: "ip2"
}
layer {
  name: "ip3"
  type: "InnerProduct"
  bottom: "ip2"
  top: "ip3"
  param {
    lr_mult: 1
  }
  param {
    lr_mult: 2
  }
  inner_product_param {
    num_output: 10
    weight_filler {
      type: "gaussian"
      std: 0.01
    }
    bias_filler {
      type: "constant"
    }
  }
}
layer {
  name: "relu3"
  type: "ReLU"
  bottom: "ip3"
  top: "ip3"
}
layer {
  name: "ip4"
  type: "InnerProduct"
  bottom: "ip3"
  top: "ip4"
  param {
    lr_mult: 1
  }
  param {
    lr_mult: 2
  }
  inner_product_param {
    num_output: 10
    weight_filler {
      type: "gaussian"
      std: 0.01
    }
    bias_filler {
      type: "constant"
    }
  }
}
layer {
  name: "loss"
  type: "SoftmaxWithLoss"
  bottom: "ip4"
  bottom: "label"
  top: "loss"
}
I0430 19:41:08.404525 26530 layer_factory.hpp:77] Creating layer cifar
I0430 19:41:08.404623 26530 db_lmdb.cpp:35] Opened lmdb examples/cifar10/cifar10_train_lmdb
I0430 19:41:08.404650 26530 net.cpp:86] Creating Layer cifar
I0430 19:41:08.404657 26530 net.cpp:382] cifar -> data
I0430 19:41:08.404680 26530 net.cpp:382] cifar -> label
I0430 19:41:08.404691 26530 data_transformer.cpp:25] Loading mean file from: examples/cifar10/mean.binaryproto
I0430 19:41:08.406795 26530 data_layer.cpp:45] output data size: 111,3,32,32
I0430 19:41:08.415343 26530 net.cpp:124] Setting up cifar
I0430 19:41:08.415364 26530 net.cpp:131] Top shape: 111 3 32 32 (340992)
I0430 19:41:08.415371 26530 net.cpp:131] Top shape: 111 (111)
I0430 19:41:08.415375 26530 net.cpp:139] Memory required for data: 1364412
I0430 19:41:08.415382 26530 layer_factory.hpp:77] Creating layer ip1
I0430 19:41:08.415395 26530 net.cpp:86] Creating Layer ip1
I0430 19:41:08.415401 26530 net.cpp:408] ip1 <- data
I0430 19:41:08.415412 26530 net.cpp:382] ip1 -> ip1
I0430 19:41:08.424753 26530 net.cpp:124] Setting up ip1
I0430 19:41:08.424772 26530 net.cpp:131] Top shape: 111 80 (8880)
I0430 19:41:08.424775 26530 net.cpp:139] Memory required for data: 1399932
I0430 19:41:08.424790 26530 layer_factory.hpp:77] Creating layer relu1
I0430 19:41:08.424799 26530 net.cpp:86] Creating Layer relu1
I0430 19:41:08.424826 26530 net.cpp:408] relu1 <- ip1
I0430 19:41:08.424834 26530 net.cpp:369] relu1 -> ip1 (in-place)
I0430 19:41:08.660387 26530 net.cpp:124] Setting up relu1
I0430 19:41:08.660429 26530 net.cpp:131] Top shape: 111 80 (8880)
I0430 19:41:08.660434 26530 net.cpp:139] Memory required for data: 1435452
I0430 19:41:08.660439 26530 layer_factory.hpp:77] Creating layer ip2
I0430 19:41:08.660450 26530 net.cpp:86] Creating Layer ip2
I0430 19:41:08.660454 26530 net.cpp:408] ip2 <- ip1
I0430 19:41:08.660461 26530 net.cpp:382] ip2 -> ip2
I0430 19:41:08.661542 26530 net.cpp:124] Setting up ip2
I0430 19:41:08.661571 26530 net.cpp:131] Top shape: 111 10 (1110)
I0430 19:41:08.661574 26530 net.cpp:139] Memory required for data: 1439892
I0430 19:41:08.661586 26530 layer_factory.hpp:77] Creating layer relu2
I0430 19:41:08.661592 26530 net.cpp:86] Creating Layer relu2
I0430 19:41:08.661597 26530 net.cpp:408] relu2 <- ip2
I0430 19:41:08.661600 26530 net.cpp:369] relu2 -> ip2 (in-place)
I0430 19:41:08.662353 26530 net.cpp:124] Setting up relu2
I0430 19:41:08.662364 26530 net.cpp:131] Top shape: 111 10 (1110)
I0430 19:41:08.662366 26530 net.cpp:139] Memory required for data: 1444332
I0430 19:41:08.662369 26530 layer_factory.hpp:77] Creating layer ip3
I0430 19:41:08.662376 26530 net.cpp:86] Creating Layer ip3
I0430 19:41:08.662379 26530 net.cpp:408] ip3 <- ip2
I0430 19:41:08.662384 26530 net.cpp:382] ip3 -> ip3
I0430 19:41:08.662488 26530 net.cpp:124] Setting up ip3
I0430 19:41:08.662495 26530 net.cpp:131] Top shape: 111 10 (1110)
I0430 19:41:08.662498 26530 net.cpp:139] Memory required for data: 1448772
I0430 19:41:08.662505 26530 layer_factory.hpp:77] Creating layer relu3
I0430 19:41:08.662510 26530 net.cpp:86] Creating Layer relu3
I0430 19:41:08.662513 26530 net.cpp:408] relu3 <- ip3
I0430 19:41:08.662533 26530 net.cpp:369] relu3 -> ip3 (in-place)
I0430 19:41:08.662667 26530 net.cpp:124] Setting up relu3
I0430 19:41:08.662675 26530 net.cpp:131] Top shape: 111 10 (1110)
I0430 19:41:08.662678 26530 net.cpp:139] Memory required for data: 1453212
I0430 19:41:08.662681 26530 layer_factory.hpp:77] Creating layer ip4
I0430 19:41:08.662688 26530 net.cpp:86] Creating Layer ip4
I0430 19:41:08.662690 26530 net.cpp:408] ip4 <- ip3
I0430 19:41:08.662695 26530 net.cpp:382] ip4 -> ip4
I0430 19:41:08.662780 26530 net.cpp:124] Setting up ip4
I0430 19:41:08.662786 26530 net.cpp:131] Top shape: 111 10 (1110)
I0430 19:41:08.662788 26530 net.cpp:139] Memory required for data: 1457652
I0430 19:41:08.662794 26530 layer_factory.hpp:77] Creating layer loss
I0430 19:41:08.662801 26530 net.cpp:86] Creating Layer loss
I0430 19:41:08.662803 26530 net.cpp:408] loss <- ip4
I0430 19:41:08.662806 26530 net.cpp:408] loss <- label
I0430 19:41:08.662811 26530 net.cpp:382] loss -> loss
I0430 19:41:08.662829 26530 layer_factory.hpp:77] Creating layer loss
…
I0430 19:41:08.663390 26530 solver.cpp:173] Creating test net (#0) specified by net file: ECE595/cifar/train_test/var_everything/cifar_train_test_105.prototxt
I0430 19:41:08.663426 26530 net.cpp:296] The NetState phase (1) differed from the phase (0) specified by a rule in layer cifar
I0430 19:41:08.663498 26530 net.cpp:53] Initializing net from parameters: 
name: "CIFAR"
state {
  phase: TEST
}
layer {
  name: "cifar"
  type: "Data"
  top: "data"
  top: "label"
  include {
    phase: TEST
  }
  transform_param {
    mean_file: "examples/cifar10/mean.binaryproto"
  }
  data_param {
    source: "examples/cifar10/cifar10_test_lmdb"
    batch_size: 1000
    backend: LMDB
  }
}
layer {
  name: "ip1"
  type: "InnerProduct"
  bottom: "data"
  top: "ip1"
  param {
    lr_mult: 1
  }
  param {
    lr_mult: 2
  }
  inner_product_param {
    num_output: 80
    weight_filler {
      type: "gaussian"
      std: 0.01
    }
    bias_filler {
      type: "constant"
    }
  }
}
layer {
  name: "relu1"
  type: "ReLU"
  bottom: "ip1"
  top: "ip1"
}
layer {
  name: "ip2"
  type: "InnerProduct"
  bottom: "ip1"
  top: "ip2"
  param {
    lr_mult: 1
  }
  param {
    lr_mult: 2
  }
  inner_product_param {
    num_output: 10
    weight_filler {
      type: "gaussian"
      std: 0.01
    }
    bias_filler {
      type: "constant"
    }
  }
}
layer {
  name: "relu2"
  type: "ReLU"
  bottom: "ip2"
  top: "ip2"
}
layer {
  name: "ip3"
  type: "InnerProduct"
  bottom: "ip2"
  top: "ip3"
  param {
    lr_mult: 1
  }
  param {
    lr_mult: 2
  }
  inner_product_param {
    num_output: 10
    weight_filler {
      type: "gaussian"
      std: 0.01
    }
    bias_filler {
      type: "constant"
    }
  }
}
layer {
  name: "relu3"
  type: "ReLU"
  bottom: "ip3"
  top: "ip3"
}
layer {
  name: "ip4"
  type: "InnerProduct"
  bottom: "ip3"
  top: "ip4"
  param {
    lr_mult: 1
  }
  param {
    lr_mult: 2
  }
  inner_product_param {
    num_output: 10
    weight_filler {
      type: "gaussian"
      std: 0.01
    }
    bias_filler {
      type: "constant"
    }
  }
}
layer {
  name: "accuracy"
  type: "Accuracy"
  bottom: "ip4"
  bottom: "label"
  top: "accuracy"
  include {
    phase: TEST
  }
}
layer {
  name: "loss"
  type: "SoftmaxWithLoss"
  bottom: "ip4"
  bottom: "label"
  top: "loss"
}
I0430 19:41:08.663553 26530 layer_factory.hpp:77] Creating layer cifar
I0430 19:41:08.663597 26530 db_lmdb.cpp:35] Opened lmdb examples/cifar10/cifar10_test_lmdb
I0430 19:41:08.663609 26530 net.cpp:86] Creating Layer cifar
I0430 19:41:08.663614 26530 net.cpp:382] cifar -> data
I0430 19:41:08.663636 26530 net.cpp:382] cifar -> label
I0430 19:41:08.663642 26530 data_transformer.cpp:25] Loading mean file from: examples/cifar10/mean.binaryproto
I0430 19:41:08.663779 26530 data_layer.cpp:45] output data size: 1000,3,32,32
I0430 19:41:08.685168 26530 net.cpp:124] Setting up cifar
I0430 19:41:08.685209 26530 net.cpp:131] Top shape: 1000 3 32 32 (3072000)
I0430 19:41:08.685230 26530 net.cpp:131] Top shape: 1000 (1000)
I0430 19:41:08.685235 26530 net.cpp:139] Memory required for data: 12292000
I0430 19:41:08.685240 26530 layer_factory.hpp:77] Creating layer label_cifar_1_split
I0430 19:41:08.685256 26530 net.cpp:86] Creating Layer label_cifar_1_split
I0430 19:41:08.685276 26530 net.cpp:408] label_cifar_1_split <- label
I0430 19:41:08.685281 26530 net.cpp:382] label_cifar_1_split -> label_cifar_1_split_0
I0430 19:41:08.685289 26530 net.cpp:382] label_cifar_1_split -> label_cifar_1_split_1
I0430 19:41:08.685422 26530 net.cpp:124] Setting up label_cifar_1_split
I0430 19:41:08.685431 26530 net.cpp:131] Top shape: 1000 (1000)
I0430 19:41:08.685433 26530 net.cpp:131] Top shape: 1000 (1000)
I0430 19:41:08.685436 26530 net.cpp:139] Memory required for data: 12300000
I0430 19:41:08.685439 26530 layer_factory.hpp:77] Creating layer ip1
I0430 19:41:08.685448 26530 net.cpp:86] Creating Layer ip1
I0430 19:41:08.685452 26530 net.cpp:408] ip1 <- data
I0430 19:41:08.685456 26530 net.cpp:382] ip1 -> ip1
I0430 19:41:08.692246 26530 net.cpp:124] Setting up ip1
I0430 19:41:08.692255 26530 net.cpp:131] Top shape: 1000 80 (80000)
I0430 19:41:08.692276 26530 net.cpp:139] Memory required for data: 12620000
I0430 19:41:08.692301 26530 layer_factory.hpp:77] Creating layer relu1
I0430 19:41:08.692322 26530 net.cpp:86] Creating Layer relu1
I0430 19:41:08.692324 26530 net.cpp:408] relu1 <- ip1
I0430 19:41:08.692328 26530 net.cpp:369] relu1 -> ip1 (in-place)
I0430 19:41:08.693125 26530 net.cpp:124] Setting up relu1
I0430 19:41:08.693152 26530 net.cpp:131] Top shape: 1000 80 (80000)
I0430 19:41:08.693171 26530 net.cpp:139] Memory required for data: 12940000
I0430 19:41:08.693176 26530 layer_factory.hpp:77] Creating layer ip2
I0430 19:41:08.693184 26530 net.cpp:86] Creating Layer ip2
I0430 19:41:08.693188 26530 net.cpp:408] ip2 <- ip1
I0430 19:41:08.693193 26530 net.cpp:382] ip2 -> ip2
I0430 19:41:08.693318 26530 net.cpp:124] Setting up ip2
I0430 19:41:08.693326 26530 net.cpp:131] Top shape: 1000 10 (10000)
I0430 19:41:08.693330 26530 net.cpp:139] Memory required for data: 12980000
I0430 19:41:08.693337 26530 layer_factory.hpp:77] Creating layer relu2
I0430 19:41:08.693342 26530 net.cpp:86] Creating Layer relu2
I0430 19:41:08.693346 26530 net.cpp:408] relu2 <- ip2
I0430 19:41:08.693349 26530 net.cpp:369] relu2 -> ip2 (in-place)
I0430 19:41:08.693509 26530 net.cpp:124] Setting up relu2
I0430 19:41:08.693517 26530 net.cpp:131] Top shape: 1000 10 (10000)
I0430 19:41:08.693521 26530 net.cpp:139] Memory required for data: 13020000
I0430 19:41:08.693523 26530 layer_factory.hpp:77] Creating layer ip3
I0430 19:41:08.693529 26530 net.cpp:86] Creating Layer ip3
I0430 19:41:08.693532 26530 net.cpp:408] ip3 <- ip2
I0430 19:41:08.693536 26530 net.cpp:382] ip3 -> ip3
I0430 19:41:08.693637 26530 net.cpp:124] Setting up ip3
I0430 19:41:08.693645 26530 net.cpp:131] Top shape: 1000 10 (10000)
I0430 19:41:08.693648 26530 net.cpp:139] Memory required for data: 13060000
I0430 19:41:08.693655 26530 layer_factory.hpp:77] Creating layer relu3
I0430 19:41:08.693660 26530 net.cpp:86] Creating Layer relu3
I0430 19:41:08.693663 26530 net.cpp:408] relu3 <- ip3
I0430 19:41:08.693667 26530 net.cpp:369] relu3 -> ip3 (in-place)
I0430 19:41:08.693806 26530 net.cpp:124] Setting up relu3
I0430 19:41:08.693814 26530 net.cpp:131] Top shape: 1000 10 (10000)
I0430 19:41:08.693817 26530 net.cpp:139] Memory required for data: 13100000
I0430 19:41:08.693820 26530 layer_factory.hpp:77] Creating layer ip4
I0430 19:41:08.693827 26530 net.cpp:86] Creating Layer ip4
I0430 19:41:08.693830 26530 net.cpp:408] ip4 <- ip3
I0430 19:41:08.693835 26530 net.cpp:382] ip4 -> ip4
I0430 19:41:08.693928 26530 net.cpp:124] Setting up ip4
I0430 19:41:08.693934 26530 net.cpp:131] Top shape: 1000 10 (10000)
I0430 19:41:08.693938 26530 net.cpp:139] Memory required for data: 13140000
I0430 19:41:08.693943 26530 layer_factory.hpp:77] Creating layer ip4_ip4_0_split
I0430 19:41:08.693948 26530 net.cpp:86] Creating Layer ip4_ip4_0_split
I0430 19:41:08.693950 26530 net.cpp:408] ip4_ip4_0_split <- ip4
I0430 19:41:08.693955 26530 net.cpp:382] ip4_ip4_0_split -> ip4_ip4_0_split_0
I0430 19:41:08.693961 26530 net.cpp:382] ip4_ip4_0_split -> ip4_ip4_0_split_1
I0430 19:41:08.693989 26530 net.cpp:124] Setting up ip4_ip4_0_split
I0430 19:41:08.693994 26530 net.cpp:131] Top shape: 1000 10 (10000)
I0430 19:41:08.693997 26530 net.cpp:131] Top shape: 1000 10 (10000)
I0430 19:41:08.694000 26530 net.cpp:139] Memory required for data: 13220000
I0430 19:41:08.694002 26530 layer_factory.hpp:77] Creating layer accuracy
I0430 19:41:08.694010 26530 net.cpp:86] Creating Layer accuracy
I0430 19:41:08.694012 26530 net.cpp:408] accuracy <- ip4_ip4_0_split_0
I0430 19:41:08.694016 26530 net.cpp:408] accuracy <- label_cifar_1_split_0
I0430 19:41:08.694020 26530 net.cpp:382] accuracy -> accuracy
…
