…
I0430 23:40:48.730631  5331 net.cpp:296] The NetState phase (0) differed from the phase (1) specified by a rule in layer cifar
I0430 23:40:48.730645  5331 net.cpp:296] The NetState phase (0) differed from the phase (1) specified by a rule in layer accuracy
I0430 23:40:48.730739  5331 net.cpp:53] Initializing net from parameters: 
name: "CIFAR"
state {
  phase: TRAIN
  level: 0
  stage: ""
}
layer {
  name: "cifar"
  type: "Data"
  top: "data"
  top: "label"
  include {
    phase: TRAIN
  }
  transform_param {
    mean_file: "examples/cifar10/mean.binaryproto"
  }
  data_param {
    source: "examples/cifar10/cifar10_train_lmdb"
    batch_size: 111
    backend: LMDB
  }
}
layer {
  name: "conv0"
  type: "Convolution"
  bottom: "data"
  top: "conv0"
  param {
    lr_mult: 1
  }
  param {
    lr_mult: 2
  }
  convolution_param {
    num_output: 8
    pad: 2
    kernel_size: 3
    stride: 1
    weight_filler {
      type: "gaussian"
      std: 0.01
    }
    bias_filler {
      type: "constant"
    }
  }
}
layer {
  name: "Sigmoid0"
  type: "Sigmoid"
  bottom: "conv0"
  top: "Sigmoid0"
}
layer {
  name: "pool0"
  type: "Pooling"
  bottom: "Sigmoid0"
  top: "pool0"
  pooling_param {
    pool: AVE
    kernel_size: 3
    stride: 2
  }
}
layer {
  name: "ip1"
  type: "InnerProduct"
  bottom: "pool0"
  top: "ip1"
  param {
    lr_mult: 1
  }
  param {
    lr_mult: 2
  }
  inner_product_param {
    num_output: 20
    weight_filler {
      type: "gaussian"
      std: 0.01
    }
    bias_filler {
      type: "constant"
    }
  }
}
layer {
  name: "relu1"
  type: "ReLU"
  bottom: "ip1"
  top: "ip1"
}
layer {
  name: "ip2"
  type: "InnerProduct"
  bottom: "ip1"
  top: "ip2"
  param {
    lr_mult: 1
  }
  param {
    lr_mult: 2
  }
  inner_product_param {
    num_output: 160
    weight_filler {
      type: "gaussian"
      std: 0.01
    }
    bias_filler {
      type: "constant"
    }
  }
}
layer {
  name: "relu2"
  type: "ReLU"
  bottom: "ip2"
  top: "ip2"
}
layer {
  name: "ip3"
  type: "InnerProduct"
  bottom: "ip2"
  top: "ip3"
  param {
    lr_mult: 1
  }
  param {
    lr_mult: 2
  }
  inner_product_param {
    num_output: 80
    weight_filler {
      type: "gaussian"
      std: 0.01
    }
    bias_filler {
      type: "constant"
    }
  }
}
layer {
  name: "relu3"
  type: "ReLU"
  bottom: "ip3"
  top: "ip3"
}
layer {
  name: "ip4"
  type: "InnerProduct"
  bottom: "ip3"
  top: "ip4"
  param {
    lr_mult: 1
  }
  param {
    lr_mult: 2
  }
  inner_product_param {
    num_output: 10
    weight_filler {
      type: "gaussian"
      std: 0.01
    }
    bias_filler {
      type: "constant"
    }
  }
}
layer {
  name: "loss"
  type: "SoftmaxWithLoss"
  bottom: "ip4"
  bottom: "label"
  top: "loss"
}
I0430 23:40:48.730798  5331 layer_factory.hpp:77] Creating layer cifar
I0430 23:40:48.730878  5331 db_lmdb.cpp:35] Opened lmdb examples/cifar10/cifar10_train_lmdb
I0430 23:40:48.730900  5331 net.cpp:86] Creating Layer cifar
I0430 23:40:48.730906  5331 net.cpp:382] cifar -> data
I0430 23:40:48.730924  5331 net.cpp:382] cifar -> label
I0430 23:40:48.730937  5331 data_transformer.cpp:25] Loading mean file from: examples/cifar10/mean.binaryproto
I0430 23:40:48.732738  5331 data_layer.cpp:45] output data size: 111,3,32,32
I0430 23:40:48.739173  5331 net.cpp:124] Setting up cifar
I0430 23:40:48.739187  5331 net.cpp:131] Top shape: 111 3 32 32 (340992)
I0430 23:40:48.739192  5331 net.cpp:131] Top shape: 111 (111)
I0430 23:40:48.739195  5331 net.cpp:139] Memory required for data: 1364412
I0430 23:40:48.739213  5331 layer_factory.hpp:77] Creating layer conv0
I0430 23:40:48.739226  5331 net.cpp:86] Creating Layer conv0
I0430 23:40:48.739230  5331 net.cpp:408] conv0 <- data
I0430 23:40:48.739255  5331 net.cpp:382] conv0 -> conv0
I0430 23:40:48.967911  5331 net.cpp:124] Setting up conv0
I0430 23:40:48.967957  5331 net.cpp:131] Top shape: 111 8 34 34 (1026528)
I0430 23:40:48.967962  5331 net.cpp:139] Memory required for data: 5470524
I0430 23:40:48.967977  5331 layer_factory.hpp:77] Creating layer Sigmoid0
I0430 23:40:48.967988  5331 net.cpp:86] Creating Layer Sigmoid0
I0430 23:40:48.967993  5331 net.cpp:408] Sigmoid0 <- conv0
I0430 23:40:48.968014  5331 net.cpp:382] Sigmoid0 -> Sigmoid0
I0430 23:40:48.968190  5331 net.cpp:124] Setting up Sigmoid0
I0430 23:40:48.968200  5331 net.cpp:131] Top shape: 111 8 34 34 (1026528)
I0430 23:40:48.968204  5331 net.cpp:139] Memory required for data: 9576636
I0430 23:40:48.968207  5331 layer_factory.hpp:77] Creating layer pool0
I0430 23:40:48.968215  5331 net.cpp:86] Creating Layer pool0
I0430 23:40:48.968219  5331 net.cpp:408] pool0 <- Sigmoid0
I0430 23:40:48.968222  5331 net.cpp:382] pool0 -> pool0
I0430 23:40:48.968955  5331 net.cpp:124] Setting up pool0
I0430 23:40:48.968967  5331 net.cpp:131] Top shape: 111 8 17 17 (256632)
I0430 23:40:48.968986  5331 net.cpp:139] Memory required for data: 10603164
I0430 23:40:48.968991  5331 layer_factory.hpp:77] Creating layer ip1
I0430 23:40:48.969002  5331 net.cpp:86] Creating Layer ip1
I0430 23:40:48.969004  5331 net.cpp:408] ip1 <- pool0
I0430 23:40:48.969010  5331 net.cpp:382] ip1 -> ip1
I0430 23:40:48.971089  5331 net.cpp:124] Setting up ip1
I0430 23:40:48.971101  5331 net.cpp:131] Top shape: 111 20 (2220)
I0430 23:40:48.971104  5331 net.cpp:139] Memory required for data: 10612044
I0430 23:40:48.971112  5331 layer_factory.hpp:77] Creating layer relu1
I0430 23:40:48.971117  5331 net.cpp:86] Creating Layer relu1
I0430 23:40:48.971120  5331 net.cpp:408] relu1 <- ip1
I0430 23:40:48.971125  5331 net.cpp:369] relu1 -> ip1 (in-place)
I0430 23:40:48.971304  5331 net.cpp:124] Setting up relu1
I0430 23:40:48.971313  5331 net.cpp:131] Top shape: 111 20 (2220)
I0430 23:40:48.971318  5331 net.cpp:139] Memory required for data: 10620924
I0430 23:40:48.971320  5331 layer_factory.hpp:77] Creating layer ip2
I0430 23:40:48.971326  5331 net.cpp:86] Creating Layer ip2
I0430 23:40:48.971329  5331 net.cpp:408] ip2 <- ip1
I0430 23:40:48.971334  5331 net.cpp:382] ip2 -> ip2
I0430 23:40:48.971508  5331 net.cpp:124] Setting up ip2
I0430 23:40:48.971514  5331 net.cpp:131] Top shape: 111 160 (17760)
I0430 23:40:48.971518  5331 net.cpp:139] Memory required for data: 10691964
I0430 23:40:48.971525  5331 layer_factory.hpp:77] Creating layer relu2
I0430 23:40:48.971529  5331 net.cpp:86] Creating Layer relu2
I0430 23:40:48.971532  5331 net.cpp:408] relu2 <- ip2
I0430 23:40:48.971536  5331 net.cpp:369] relu2 -> ip2 (in-place)
I0430 23:40:48.971688  5331 net.cpp:124] Setting up relu2
I0430 23:40:48.971696  5331 net.cpp:131] Top shape: 111 160 (17760)
I0430 23:40:48.971699  5331 net.cpp:139] Memory required for data: 10763004
I0430 23:40:48.971702  5331 layer_factory.hpp:77] Creating layer ip3
I0430 23:40:48.971709  5331 net.cpp:86] Creating Layer ip3
I0430 23:40:48.971712  5331 net.cpp:408] ip3 <- ip2
I0430 23:40:48.971716  5331 net.cpp:382] ip3 -> ip3
I0430 23:40:48.972970  5331 net.cpp:124] Setting up ip3
I0430 23:40:48.972982  5331 net.cpp:131] Top shape: 111 80 (8880)
I0430 23:40:48.973001  5331 net.cpp:139] Memory required for data: 10798524
I0430 23:40:48.973007  5331 layer_factory.hpp:77] Creating layer relu3
I0430 23:40:48.973012  5331 net.cpp:86] Creating Layer relu3
I0430 23:40:48.973016  5331 net.cpp:408] relu3 <- ip3
I0430 23:40:48.973019  5331 net.cpp:369] relu3 -> ip3 (in-place)
I0430 23:40:48.973215  5331 net.cpp:124] Setting up relu3
I0430 23:40:48.973223  5331 net.cpp:131] Top shape: 111 80 (8880)
I0430 23:40:48.973227  5331 net.cpp:139] Memory required for data: 10834044
I0430 23:40:48.973229  5331 layer_factory.hpp:77] Creating layer ip4
I0430 23:40:48.973249  5331 net.cpp:86] Creating Layer ip4
I0430 23:40:48.973253  5331 net.cpp:408] ip4 <- ip3
I0430 23:40:48.973258  5331 net.cpp:382] ip4 -> ip4
I0430 23:40:48.974194  5331 net.cpp:124] Setting up ip4
I0430 23:40:48.974205  5331 net.cpp:131] Top shape: 111 10 (1110)
I0430 23:40:48.974207  5331 net.cpp:139] Memory required for data: 10838484
I0430 23:40:48.974215  5331 layer_factory.hpp:77] Creating layer loss
I0430 23:40:48.974220  5331 net.cpp:86] Creating Layer loss
I0430 23:40:48.974223  5331 net.cpp:408] loss <- ip4
I0430 23:40:48.974226  5331 net.cpp:408] loss <- label
I0430 23:40:48.974231  5331 net.cpp:382] loss -> loss
I0430 23:40:48.974246  5331 layer_factory.hpp:77] Creating layer loss
…
I0430 23:40:48.975422  5331 solver.cpp:173] Creating test net (#0) specified by net file: ECE595/cifar/train_test/var_everything/cifar_train_test_233.prototxt
I0430 23:40:48.975450  5331 net.cpp:296] The NetState phase (1) differed from the phase (0) specified by a rule in layer cifar
I0430 23:40:48.975546  5331 net.cpp:53] Initializing net from parameters: 
name: "CIFAR"
state {
  phase: TEST
}
layer {
  name: "cifar"
  type: "Data"
  top: "data"
  top: "label"
  include {
    phase: TEST
  }
  transform_param {
    mean_file: "examples/cifar10/mean.binaryproto"
  }
  data_param {
    source: "examples/cifar10/cifar10_test_lmdb"
    batch_size: 1000
    backend: LMDB
  }
}
layer {
  name: "conv0"
  type: "Convolution"
  bottom: "data"
  top: "conv0"
  param {
    lr_mult: 1
  }
  param {
    lr_mult: 2
  }
  convolution_param {
    num_output: 8
    pad: 2
    kernel_size: 3
    stride: 1
    weight_filler {
      type: "gaussian"
      std: 0.01
    }
    bias_filler {
      type: "constant"
    }
  }
}
layer {
  name: "Sigmoid0"
  type: "Sigmoid"
  bottom: "conv0"
  top: "Sigmoid0"
}
layer {
  name: "pool0"
  type: "Pooling"
  bottom: "Sigmoid0"
  top: "pool0"
  pooling_param {
    pool: AVE
    kernel_size: 3
    stride: 2
  }
}
layer {
  name: "ip1"
  type: "InnerProduct"
  bottom: "pool0"
  top: "ip1"
  param {
    lr_mult: 1
  }
  param {
    lr_mult: 2
  }
  inner_product_param {
    num_output: 20
    weight_filler {
      type: "gaussian"
      std: 0.01
    }
    bias_filler {
      type: "constant"
    }
  }
}
layer {
  name: "relu1"
  type: "ReLU"
  bottom: "ip1"
  top: "ip1"
}
layer {
  name: "ip2"
  type: "InnerProduct"
  bottom: "ip1"
  top: "ip2"
  param {
    lr_mult: 1
  }
  param {
    lr_mult: 2
  }
  inner_product_param {
    num_output: 160
    weight_filler {
      type: "gaussian"
      std: 0.01
    }
    bias_filler {
      type: "constant"
    }
  }
}
layer {
  name: "relu2"
  type: "ReLU"
  bottom: "ip2"
  top: "ip2"
}
layer {
  name: "ip3"
  type: "InnerProduct"
  bottom: "ip2"
  top: "ip3"
  param {
    lr_mult: 1
  }
  param {
    lr_mult: 2
  }
  inner_product_param {
    num_output: 80
    weight_filler {
      type: "gaussian"
      std: 0.01
    }
    bias_filler {
      type: "constant"
    }
  }
}
layer {
  name: "relu3"
  type: "ReLU"
  bottom: "ip3"
  top: "ip3"
}
layer {
  name: "ip4"
  type: "InnerProduct"
  bottom: "ip3"
  top: "ip4"
  param {
    lr_mult: 1
  }
  param {
    lr_mult: 2
  }
  inner_product_param {
    num_output: 10
    weight_filler {
      type: "gaussian"
      std: 0.01
    }
    bias_filler {
      type: "constant"
    }
  }
}
layer {
  name: "accuracy"
  type: "Accuracy"
  bottom: "ip4"
  bottom: "label"
  top: "accuracy"
  include {
    phase: TEST
  }
}
layer {
  name: "loss"
  type: "SoftmaxWithLoss"
  bottom: "ip4"
  bottom: "label"
  top: "loss"
}
I0430 23:40:48.975654  5331 layer_factory.hpp:77] Creating layer cifar
I0430 23:40:48.975699  5331 db_lmdb.cpp:35] Opened lmdb examples/cifar10/cifar10_test_lmdb
I0430 23:40:48.975710  5331 net.cpp:86] Creating Layer cifar
I0430 23:40:48.975714  5331 net.cpp:382] cifar -> data
I0430 23:40:48.975723  5331 net.cpp:382] cifar -> label
I0430 23:40:48.975729  5331 data_transformer.cpp:25] Loading mean file from: examples/cifar10/mean.binaryproto
I0430 23:40:48.975867  5331 data_layer.cpp:45] output data size: 1000,3,32,32
I0430 23:40:48.997261  5331 net.cpp:124] Setting up cifar
I0430 23:40:48.997287  5331 net.cpp:131] Top shape: 1000 3 32 32 (3072000)
I0430 23:40:48.997293  5331 net.cpp:131] Top shape: 1000 (1000)
I0430 23:40:48.997298  5331 net.cpp:139] Memory required for data: 12292000
I0430 23:40:48.997303  5331 layer_factory.hpp:77] Creating layer label_cifar_1_split
I0430 23:40:48.997314  5331 net.cpp:86] Creating Layer label_cifar_1_split
I0430 23:40:48.997318  5331 net.cpp:408] label_cifar_1_split <- label
I0430 23:40:48.997339  5331 net.cpp:382] label_cifar_1_split -> label_cifar_1_split_0
I0430 23:40:48.997347  5331 net.cpp:382] label_cifar_1_split -> label_cifar_1_split_1
I0430 23:40:48.997442  5331 net.cpp:124] Setting up label_cifar_1_split
I0430 23:40:48.997449  5331 net.cpp:131] Top shape: 1000 (1000)
I0430 23:40:48.997452  5331 net.cpp:131] Top shape: 1000 (1000)
I0430 23:40:48.997455  5331 net.cpp:139] Memory required for data: 12300000
I0430 23:40:48.997458  5331 layer_factory.hpp:77] Creating layer conv0
I0430 23:40:48.997469  5331 net.cpp:86] Creating Layer conv0
I0430 23:40:48.997473  5331 net.cpp:408] conv0 <- data
I0430 23:40:48.997478  5331 net.cpp:382] conv0 -> conv0
I0430 23:40:48.999195  5331 net.cpp:124] Setting up conv0
I0430 23:40:48.999208  5331 net.cpp:131] Top shape: 1000 8 34 34 (9248000)
I0430 23:40:48.999212  5331 net.cpp:139] Memory required for data: 49292000
I0430 23:40:48.999220  5331 layer_factory.hpp:77] Creating layer Sigmoid0
I0430 23:40:48.999241  5331 net.cpp:86] Creating Layer Sigmoid0
I0430 23:40:48.999245  5331 net.cpp:408] Sigmoid0 <- conv0
I0430 23:40:48.999249  5331 net.cpp:382] Sigmoid0 -> Sigmoid0
I0430 23:40:48.999413  5331 net.cpp:124] Setting up Sigmoid0
I0430 23:40:48.999423  5331 net.cpp:131] Top shape: 1000 8 34 34 (9248000)
I0430 23:40:48.999425  5331 net.cpp:139] Memory required for data: 86284000
I0430 23:40:48.999428  5331 layer_factory.hpp:77] Creating layer pool0
I0430 23:40:48.999436  5331 net.cpp:86] Creating Layer pool0
I0430 23:40:48.999439  5331 net.cpp:408] pool0 <- Sigmoid0
I0430 23:40:48.999444  5331 net.cpp:382] pool0 -> pool0
I0430 23:40:48.999593  5331 net.cpp:124] Setting up pool0
I0430 23:40:48.999601  5331 net.cpp:131] Top shape: 1000 8 17 17 (2312000)
I0430 23:40:48.999604  5331 net.cpp:139] Memory required for data: 95532000
I0430 23:40:48.999608  5331 layer_factory.hpp:77] Creating layer ip1
I0430 23:40:48.999614  5331 net.cpp:86] Creating Layer ip1
I0430 23:40:48.999616  5331 net.cpp:408] ip1 <- pool0
I0430 23:40:48.999621  5331 net.cpp:382] ip1 -> ip1
I0430 23:40:49.001049  5331 net.cpp:124] Setting up ip1
I0430 23:40:49.001060  5331 net.cpp:131] Top shape: 1000 20 (20000)
I0430 23:40:49.001062  5331 net.cpp:139] Memory required for data: 95612000
I0430 23:40:49.001099  5331 layer_factory.hpp:77] Creating layer relu1
I0430 23:40:49.001106  5331 net.cpp:86] Creating Layer relu1
I0430 23:40:49.001109  5331 net.cpp:408] relu1 <- ip1
I0430 23:40:49.001128  5331 net.cpp:369] relu1 -> ip1 (in-place)
I0430 23:40:49.001296  5331 net.cpp:124] Setting up relu1
I0430 23:40:49.001305  5331 net.cpp:131] Top shape: 1000 20 (20000)
I0430 23:40:49.001308  5331 net.cpp:139] Memory required for data: 95692000
I0430 23:40:49.001312  5331 layer_factory.hpp:77] Creating layer ip2
I0430 23:40:49.001317  5331 net.cpp:86] Creating Layer ip2
I0430 23:40:49.001320  5331 net.cpp:408] ip2 <- ip1
I0430 23:40:49.001325  5331 net.cpp:382] ip2 -> ip2
I0430 23:40:49.001508  5331 net.cpp:124] Setting up ip2
I0430 23:40:49.001516  5331 net.cpp:131] Top shape: 1000 160 (160000)
I0430 23:40:49.001519  5331 net.cpp:139] Memory required for data: 96332000
I0430 23:40:49.001526  5331 layer_factory.hpp:77] Creating layer relu2
I0430 23:40:49.001531  5331 net.cpp:86] Creating Layer relu2
I0430 23:40:49.001534  5331 net.cpp:408] relu2 <- ip2
I0430 23:40:49.001538  5331 net.cpp:369] relu2 -> ip2 (in-place)
I0430 23:40:49.002279  5331 net.cpp:124] Setting up relu2
I0430 23:40:49.002291  5331 net.cpp:131] Top shape: 1000 160 (160000)
I0430 23:40:49.002295  5331 net.cpp:139] Memory required for data: 96972000
I0430 23:40:49.002321  5331 layer_factory.hpp:77] Creating layer ip3
I0430 23:40:49.002328  5331 net.cpp:86] Creating Layer ip3
I0430 23:40:49.002331  5331 net.cpp:408] ip3 <- ip2
I0430 23:40:49.002336  5331 net.cpp:382] ip3 -> ip3
I0430 23:40:49.002779  5331 net.cpp:124] Setting up ip3
I0430 23:40:49.002786  5331 net.cpp:131] Top shape: 1000 80 (80000)
I0430 23:40:49.002789  5331 net.cpp:139] Memory required for data: 97292000
I0430 23:40:49.002801  5331 layer_factory.hpp:77] Creating layer relu3
I0430 23:40:49.002821  5331 net.cpp:86] Creating Layer relu3
I0430 23:40:49.002825  5331 net.cpp:408] relu3 <- ip3
I0430 23:40:49.002828  5331 net.cpp:369] relu3 -> ip3 (in-place)
I0430 23:40:49.002969  5331 net.cpp:124] Setting up relu3
I0430 23:40:49.002977  5331 net.cpp:131] Top shape: 1000 80 (80000)
I0430 23:40:49.002980  5331 net.cpp:139] Memory required for data: 97612000
I0430 23:40:49.002984  5331 layer_factory.hpp:77] Creating layer ip4
I0430 23:40:49.002990  5331 net.cpp:86] Creating Layer ip4
I0430 23:40:49.002991  5331 net.cpp:408] ip4 <- ip3
I0430 23:40:49.002996  5331 net.cpp:382] ip4 -> ip4
I0430 23:40:49.003129  5331 net.cpp:124] Setting up ip4
I0430 23:40:49.003135  5331 net.cpp:131] Top shape: 1000 10 (10000)
I0430 23:40:49.003139  5331 net.cpp:139] Memory required for data: 97652000
I0430 23:40:49.003147  5331 layer_factory.hpp:77] Creating layer ip4_ip4_0_split
I0430 23:40:49.003152  5331 net.cpp:86] Creating Layer ip4_ip4_0_split
I0430 23:40:49.003154  5331 net.cpp:408] ip4_ip4_0_split <- ip4
I0430 23:40:49.003159  5331 net.cpp:382] ip4_ip4_0_split -> ip4_ip4_0_split_0
I0430 23:40:49.003165  5331 net.cpp:382] ip4_ip4_0_split -> ip4_ip4_0_split_1
I0430 23:40:49.003191  5331 net.cpp:124] Setting up ip4_ip4_0_split
I0430 23:40:49.003196  5331 net.cpp:131] Top shape: 1000 10 (10000)
I0430 23:40:49.003199  5331 net.cpp:131] Top shape: 1000 10 (10000)
I0430 23:40:49.003202  5331 net.cpp:139] Memory required for data: 97732000
I0430 23:40:49.003206  5331 layer_factory.hpp:77] Creating layer accuracy
I0430 23:40:49.003211  5331 net.cpp:86] Creating Layer accuracy
I0430 23:40:49.003213  5331 net.cpp:408] accuracy <- ip4_ip4_0_split_0
I0430 23:40:49.003217  5331 net.cpp:408] accuracy <- label_cifar_1_split_0
I0430 23:40:49.003222  5331 net.cpp:382] accuracy -> accuracy
…
