…
I0501 06:44:07.381731  1680 net.cpp:296] The NetState phase (0) differed from the phase (1) specified by a rule in layer cifar
I0501 06:44:07.381757  1680 net.cpp:296] The NetState phase (0) differed from the phase (1) specified by a rule in layer accuracy
I0501 06:44:07.381878  1680 net.cpp:53] Initializing net from parameters: 
name: "CIFAR"
state {
  phase: TRAIN
  level: 0
  stage: ""
}
layer {
  name: "cifar"
  type: "Data"
  top: "data"
  top: "label"
  include {
    phase: TRAIN
  }
  transform_param {
    mean_file: "examples/cifar10/mean.binaryproto"
  }
  data_param {
    source: "examples/cifar10/cifar10_train_lmdb"
    batch_size: 111
    backend: LMDB
  }
}
layer {
  name: "conv0"
  type: "Convolution"
  bottom: "data"
  top: "conv0"
  param {
    lr_mult: 1
  }
  param {
    lr_mult: 2
  }
  convolution_param {
    num_output: 8
    pad: 2
    kernel_size: 5
    stride: 1
    weight_filler {
      type: "gaussian"
      std: 0.01
    }
    bias_filler {
      type: "constant"
    }
  }
}
layer {
  name: "Sigmoid0"
  type: "Sigmoid"
  bottom: "conv0"
  top: "Sigmoid0"
}
layer {
  name: "pool0"
  type: "Pooling"
  bottom: "Sigmoid0"
  top: "pool0"
  pooling_param {
    pool: AVE
    kernel_size: 3
    stride: 2
  }
}
layer {
  name: "ip1"
  type: "InnerProduct"
  bottom: "pool0"
  top: "ip1"
  param {
    lr_mult: 1
  }
  param {
    lr_mult: 2
  }
  inner_product_param {
    num_output: 160
    weight_filler {
      type: "gaussian"
      std: 0.01
    }
    bias_filler {
      type: "constant"
    }
  }
}
layer {
  name: "relu1"
  type: "ReLU"
  bottom: "ip1"
  top: "ip1"
}
layer {
  name: "ip2"
  type: "InnerProduct"
  bottom: "ip1"
  top: "ip2"
  param {
    lr_mult: 1
  }
  param {
    lr_mult: 2
  }
  inner_product_param {
    num_output: 160
    weight_filler {
      type: "gaussian"
      std: 0.01
    }
    bias_filler {
      type: "constant"
    }
  }
}
layer {
  name: "relu2"
  type: "ReLU"
  bottom: "ip2"
  top: "ip2"
}
layer {
  name: "ip3"
  type: "InnerProduct"
  bottom: "ip2"
  top: "ip3"
  param {
    lr_mult: 1
  }
  param {
    lr_mult: 2
  }
  inner_product_param {
    num_output: 10
    weight_filler {
      type: "gaussian"
      std: 0.01
    }
    bias_filler {
      type: "constant"
    }
  }
}
layer {
  name: "relu3"
  type: "ReLU"
  bottom: "ip3"
  top: "ip3"
}
layer {
  name: "ip4"
  type: "InnerProduct"
  bottom: "ip3"
  top: "ip4"
  param {
    lr_mult: 1
  }
  param {
    lr_mult: 2
  }
  inner_product_param {
    num_output: 10
    weight_filler {
      type: "gaussian"
      std: 0.01
    }
    bias_filler {
      type: "constant"
    }
  }
}
layer {
  name: "loss"
  type: "SoftmaxWithLoss"
  bottom: "ip4"
  bottom: "label"
  top: "loss"
}
I0501 06:44:07.381989  1680 layer_factory.hpp:77] Creating layer cifar
I0501 06:44:07.382122  1680 db_lmdb.cpp:35] Opened lmdb examples/cifar10/cifar10_train_lmdb
I0501 06:44:07.382158  1680 net.cpp:86] Creating Layer cifar
I0501 06:44:07.382176  1680 net.cpp:382] cifar -> data
I0501 06:44:07.382206  1680 net.cpp:382] cifar -> label
I0501 06:44:07.382225  1680 data_transformer.cpp:25] Loading mean file from: examples/cifar10/mean.binaryproto
I0501 06:44:07.384613  1680 data_layer.cpp:45] output data size: 111,3,32,32
I0501 06:44:07.392844  1680 net.cpp:124] Setting up cifar
I0501 06:44:07.392868  1680 net.cpp:131] Top shape: 111 3 32 32 (340992)
I0501 06:44:07.392879  1680 net.cpp:131] Top shape: 111 (111)
I0501 06:44:07.392884  1680 net.cpp:139] Memory required for data: 1364412
I0501 06:44:07.392921  1680 layer_factory.hpp:77] Creating layer conv0
I0501 06:44:07.392951  1680 net.cpp:86] Creating Layer conv0
I0501 06:44:07.392959  1680 net.cpp:408] conv0 <- data
I0501 06:44:07.392979  1680 net.cpp:382] conv0 -> conv0
I0501 06:44:07.685075  1680 net.cpp:124] Setting up conv0
I0501 06:44:07.685111  1680 net.cpp:131] Top shape: 111 8 32 32 (909312)
I0501 06:44:07.685117  1680 net.cpp:139] Memory required for data: 5001660
I0501 06:44:07.685142  1680 layer_factory.hpp:77] Creating layer Sigmoid0
I0501 06:44:07.685160  1680 net.cpp:86] Creating Layer Sigmoid0
I0501 06:44:07.685168  1680 net.cpp:408] Sigmoid0 <- conv0
I0501 06:44:07.685179  1680 net.cpp:382] Sigmoid0 -> Sigmoid0
I0501 06:44:07.685390  1680 net.cpp:124] Setting up Sigmoid0
I0501 06:44:07.685403  1680 net.cpp:131] Top shape: 111 8 32 32 (909312)
I0501 06:44:07.685410  1680 net.cpp:139] Memory required for data: 8638908
I0501 06:44:07.685415  1680 layer_factory.hpp:77] Creating layer pool0
I0501 06:44:07.685427  1680 net.cpp:86] Creating Layer pool0
I0501 06:44:07.685433  1680 net.cpp:408] pool0 <- Sigmoid0
I0501 06:44:07.685442  1680 net.cpp:382] pool0 -> pool0
I0501 06:44:07.686300  1680 net.cpp:124] Setting up pool0
I0501 06:44:07.686318  1680 net.cpp:131] Top shape: 111 8 16 16 (227328)
I0501 06:44:07.686326  1680 net.cpp:139] Memory required for data: 9548220
I0501 06:44:07.686332  1680 layer_factory.hpp:77] Creating layer ip1
I0501 06:44:07.686353  1680 net.cpp:86] Creating Layer ip1
I0501 06:44:07.686365  1680 net.cpp:408] ip1 <- pool0
I0501 06:44:07.686377  1680 net.cpp:382] ip1 -> ip1
I0501 06:44:07.697734  1680 net.cpp:124] Setting up ip1
I0501 06:44:07.697751  1680 net.cpp:131] Top shape: 111 160 (17760)
I0501 06:44:07.697757  1680 net.cpp:139] Memory required for data: 9619260
I0501 06:44:07.697772  1680 layer_factory.hpp:77] Creating layer relu1
I0501 06:44:07.697782  1680 net.cpp:86] Creating Layer relu1
I0501 06:44:07.697789  1680 net.cpp:408] relu1 <- ip1
I0501 06:44:07.697798  1680 net.cpp:369] relu1 -> ip1 (in-place)
I0501 06:44:07.697978  1680 net.cpp:124] Setting up relu1
I0501 06:44:07.697990  1680 net.cpp:131] Top shape: 111 160 (17760)
I0501 06:44:07.697995  1680 net.cpp:139] Memory required for data: 9690300
I0501 06:44:07.698001  1680 layer_factory.hpp:77] Creating layer ip2
I0501 06:44:07.698012  1680 net.cpp:86] Creating Layer ip2
I0501 06:44:07.698019  1680 net.cpp:408] ip2 <- ip1
I0501 06:44:07.698027  1680 net.cpp:382] ip2 -> ip2
I0501 06:44:07.699817  1680 net.cpp:124] Setting up ip2
I0501 06:44:07.699834  1680 net.cpp:131] Top shape: 111 160 (17760)
I0501 06:44:07.699841  1680 net.cpp:139] Memory required for data: 9761340
I0501 06:44:07.699856  1680 layer_factory.hpp:77] Creating layer relu2
I0501 06:44:07.699865  1680 net.cpp:86] Creating Layer relu2
I0501 06:44:07.699872  1680 net.cpp:408] relu2 <- ip2
I0501 06:44:07.699880  1680 net.cpp:369] relu2 -> ip2 (in-place)
I0501 06:44:07.700073  1680 net.cpp:124] Setting up relu2
I0501 06:44:07.700084  1680 net.cpp:131] Top shape: 111 160 (17760)
I0501 06:44:07.700090  1680 net.cpp:139] Memory required for data: 9832380
I0501 06:44:07.700096  1680 layer_factory.hpp:77] Creating layer ip3
I0501 06:44:07.700109  1680 net.cpp:86] Creating Layer ip3
I0501 06:44:07.700115  1680 net.cpp:408] ip3 <- ip2
I0501 06:44:07.700125  1680 net.cpp:382] ip3 -> ip3
I0501 06:44:07.700284  1680 net.cpp:124] Setting up ip3
I0501 06:44:07.700294  1680 net.cpp:131] Top shape: 111 10 (1110)
I0501 06:44:07.700300  1680 net.cpp:139] Memory required for data: 9836820
I0501 06:44:07.700310  1680 layer_factory.hpp:77] Creating layer relu3
I0501 06:44:07.700320  1680 net.cpp:86] Creating Layer relu3
I0501 06:44:07.700325  1680 net.cpp:408] relu3 <- ip3
I0501 06:44:07.700333  1680 net.cpp:369] relu3 -> ip3 (in-place)
I0501 06:44:07.700507  1680 net.cpp:124] Setting up relu3
I0501 06:44:07.700518  1680 net.cpp:131] Top shape: 111 10 (1110)
I0501 06:44:07.700523  1680 net.cpp:139] Memory required for data: 9841260
I0501 06:44:07.700529  1680 layer_factory.hpp:77] Creating layer ip4
I0501 06:44:07.700558  1680 net.cpp:86] Creating Layer ip4
I0501 06:44:07.700569  1680 net.cpp:408] ip4 <- ip3
I0501 06:44:07.700578  1680 net.cpp:382] ip4 -> ip4
I0501 06:44:07.700696  1680 net.cpp:124] Setting up ip4
I0501 06:44:07.700706  1680 net.cpp:131] Top shape: 111 10 (1110)
I0501 06:44:07.700712  1680 net.cpp:139] Memory required for data: 9845700
I0501 06:44:07.700726  1680 layer_factory.hpp:77] Creating layer loss
I0501 06:44:07.700736  1680 net.cpp:86] Creating Layer loss
I0501 06:44:07.700742  1680 net.cpp:408] loss <- ip4
I0501 06:44:07.700749  1680 net.cpp:408] loss <- label
I0501 06:44:07.700758  1680 net.cpp:382] loss -> loss
I0501 06:44:07.700783  1680 layer_factory.hpp:77] Creating layer loss
…
I0501 06:44:07.702185  1680 solver.cpp:173] Creating test net (#0) specified by net file: ECE595/cifar/train_test/var_everything/cifar_train_test_460.prototxt
I0501 06:44:07.702226  1680 net.cpp:296] The NetState phase (1) differed from the phase (0) specified by a rule in layer cifar
I0501 06:44:07.702337  1680 net.cpp:53] Initializing net from parameters: 
name: "CIFAR"
state {
  phase: TEST
}
layer {
  name: "cifar"
  type: "Data"
  top: "data"
  top: "label"
  include {
    phase: TEST
  }
  transform_param {
    mean_file: "examples/cifar10/mean.binaryproto"
  }
  data_param {
    source: "examples/cifar10/cifar10_test_lmdb"
    batch_size: 1000
    backend: LMDB
  }
}
layer {
  name: "conv0"
  type: "Convolution"
  bottom: "data"
  top: "conv0"
  param {
    lr_mult: 1
  }
  param {
    lr_mult: 2
  }
  convolution_param {
    num_output: 8
    pad: 2
    kernel_size: 5
    stride: 1
    weight_filler {
      type: "gaussian"
      std: 0.01
    }
    bias_filler {
      type: "constant"
    }
  }
}
layer {
  name: "Sigmoid0"
  type: "Sigmoid"
  bottom: "conv0"
  top: "Sigmoid0"
}
layer {
  name: "pool0"
  type: "Pooling"
  bottom: "Sigmoid0"
  top: "pool0"
  pooling_param {
    pool: AVE
    kernel_size: 3
    stride: 2
  }
}
layer {
  name: "ip1"
  type: "InnerProduct"
  bottom: "pool0"
  top: "ip1"
  param {
    lr_mult: 1
  }
  param {
    lr_mult: 2
  }
  inner_product_param {
    num_output: 160
    weight_filler {
      type: "gaussian"
      std: 0.01
    }
    bias_filler {
      type: "constant"
    }
  }
}
layer {
  name: "relu1"
  type: "ReLU"
  bottom: "ip1"
  top: "ip1"
}
layer {
  name: "ip2"
  type: "InnerProduct"
  bottom: "ip1"
  top: "ip2"
  param {
    lr_mult: 1
  }
  param {
    lr_mult: 2
  }
  inner_product_param {
    num_output: 160
    weight_filler {
      type: "gaussian"
      std: 0.01
    }
    bias_filler {
      type: "constant"
    }
  }
}
layer {
  name: "relu2"
  type: "ReLU"
  bottom: "ip2"
  top: "ip2"
}
layer {
  name: "ip3"
  type: "InnerProduct"
  bottom: "ip2"
  top: "ip3"
  param {
    lr_mult: 1
  }
  param {
    lr_mult: 2
  }
  inner_product_param {
    num_output: 10
    weight_filler {
      type: "gaussian"
      std: 0.01
    }
    bias_filler {
      type: "constant"
    }
  }
}
layer {
  name: "relu3"
  type: "ReLU"
  bottom: "ip3"
  top: "ip3"
}
layer {
  name: "ip4"
  type: "InnerProduct"
  bottom: "ip3"
  top: "ip4"
  param {
    lr_mult: 1
  }
  param {
    lr_mult: 2
  }
  inner_product_param {
    num_output: 10
    weight_filler {
      type: "gaussian"
      std: 0.01
    }
    bias_filler {
      type: "constant"
    }
  }
}
layer {
  name: "accuracy"
  type: "Accuracy"
  bottom: "ip4"
  bottom: "label"
  top: "accuracy"
  include {
    phase: TEST
  }
}
layer {
  name: "loss"
  type: "SoftmaxWithLoss"
  bottom: "ip4"
  bottom: "label"
  top: "loss"
}
I0501 06:44:07.702461  1680 layer_factory.hpp:77] Creating layer cifar
I0501 06:44:07.702527  1680 db_lmdb.cpp:35] Opened lmdb examples/cifar10/cifar10_test_lmdb
I0501 06:44:07.702545  1680 net.cpp:86] Creating Layer cifar
I0501 06:44:07.702554  1680 net.cpp:382] cifar -> data
I0501 06:44:07.702567  1680 net.cpp:382] cifar -> label
I0501 06:44:07.702579  1680 data_transformer.cpp:25] Loading mean file from: examples/cifar10/mean.binaryproto
I0501 06:44:07.702810  1680 data_layer.cpp:45] output data size: 1000,3,32,32
I0501 06:44:07.726595  1680 net.cpp:124] Setting up cifar
I0501 06:44:07.726626  1680 net.cpp:131] Top shape: 1000 3 32 32 (3072000)
I0501 06:44:07.726635  1680 net.cpp:131] Top shape: 1000 (1000)
I0501 06:44:07.726640  1680 net.cpp:139] Memory required for data: 12292000
I0501 06:44:07.726649  1680 layer_factory.hpp:77] Creating layer label_cifar_1_split
I0501 06:44:07.726670  1680 net.cpp:86] Creating Layer label_cifar_1_split
I0501 06:44:07.726677  1680 net.cpp:408] label_cifar_1_split <- label
I0501 06:44:07.726687  1680 net.cpp:382] label_cifar_1_split -> label_cifar_1_split_0
I0501 06:44:07.726707  1680 net.cpp:382] label_cifar_1_split -> label_cifar_1_split_1
I0501 06:44:07.726801  1680 net.cpp:124] Setting up label_cifar_1_split
I0501 06:44:07.726811  1680 net.cpp:131] Top shape: 1000 (1000)
I0501 06:44:07.726819  1680 net.cpp:131] Top shape: 1000 (1000)
I0501 06:44:07.726824  1680 net.cpp:139] Memory required for data: 12300000
I0501 06:44:07.726828  1680 layer_factory.hpp:77] Creating layer conv0
I0501 06:44:07.726847  1680 net.cpp:86] Creating Layer conv0
I0501 06:44:07.726855  1680 net.cpp:408] conv0 <- data
I0501 06:44:07.726864  1680 net.cpp:382] conv0 -> conv0
I0501 06:44:07.728390  1680 net.cpp:124] Setting up conv0
I0501 06:44:07.728406  1680 net.cpp:131] Top shape: 1000 8 32 32 (8192000)
I0501 06:44:07.728412  1680 net.cpp:139] Memory required for data: 45068000
I0501 06:44:07.728428  1680 layer_factory.hpp:77] Creating layer Sigmoid0
I0501 06:44:07.728440  1680 net.cpp:86] Creating Layer Sigmoid0
I0501 06:44:07.728446  1680 net.cpp:408] Sigmoid0 <- conv0
I0501 06:44:07.728453  1680 net.cpp:382] Sigmoid0 -> Sigmoid0
I0501 06:44:07.729604  1680 net.cpp:124] Setting up Sigmoid0
I0501 06:44:07.729616  1680 net.cpp:131] Top shape: 1000 8 32 32 (8192000)
I0501 06:44:07.729622  1680 net.cpp:139] Memory required for data: 77836000
I0501 06:44:07.729627  1680 layer_factory.hpp:77] Creating layer pool0
I0501 06:44:07.729640  1680 net.cpp:86] Creating Layer pool0
I0501 06:44:07.729645  1680 net.cpp:408] pool0 <- Sigmoid0
I0501 06:44:07.729655  1680 net.cpp:382] pool0 -> pool0
I0501 06:44:07.729842  1680 net.cpp:124] Setting up pool0
I0501 06:44:07.729852  1680 net.cpp:131] Top shape: 1000 8 16 16 (2048000)
I0501 06:44:07.729857  1680 net.cpp:139] Memory required for data: 86028000
I0501 06:44:07.729862  1680 layer_factory.hpp:77] Creating layer ip1
I0501 06:44:07.729876  1680 net.cpp:86] Creating Layer ip1
I0501 06:44:07.729882  1680 net.cpp:408] ip1 <- pool0
I0501 06:44:07.729890  1680 net.cpp:382] ip1 -> ip1
I0501 06:44:07.739753  1680 net.cpp:124] Setting up ip1
I0501 06:44:07.739769  1680 net.cpp:131] Top shape: 1000 160 (160000)
I0501 06:44:07.739775  1680 net.cpp:139] Memory required for data: 86668000
I0501 06:44:07.739807  1680 layer_factory.hpp:77] Creating layer relu1
I0501 06:44:07.739819  1680 net.cpp:86] Creating Layer relu1
I0501 06:44:07.739825  1680 net.cpp:408] relu1 <- ip1
I0501 06:44:07.739835  1680 net.cpp:369] relu1 -> ip1 (in-place)
I0501 06:44:07.740025  1680 net.cpp:124] Setting up relu1
I0501 06:44:07.740036  1680 net.cpp:131] Top shape: 1000 160 (160000)
I0501 06:44:07.740041  1680 net.cpp:139] Memory required for data: 87308000
I0501 06:44:07.740047  1680 layer_factory.hpp:77] Creating layer ip2
I0501 06:44:07.740058  1680 net.cpp:86] Creating Layer ip2
I0501 06:44:07.740064  1680 net.cpp:408] ip2 <- ip1
I0501 06:44:07.740072  1680 net.cpp:382] ip2 -> ip2
I0501 06:44:07.740926  1680 net.cpp:124] Setting up ip2
I0501 06:44:07.740937  1680 net.cpp:131] Top shape: 1000 160 (160000)
I0501 06:44:07.740942  1680 net.cpp:139] Memory required for data: 87948000
I0501 06:44:07.740970  1680 layer_factory.hpp:77] Creating layer relu2
I0501 06:44:07.740981  1680 net.cpp:86] Creating Layer relu2
I0501 06:44:07.740991  1680 net.cpp:408] relu2 <- ip2
I0501 06:44:07.741003  1680 net.cpp:369] relu2 -> ip2 (in-place)
I0501 06:44:07.741782  1680 net.cpp:124] Setting up relu2
I0501 06:44:07.741796  1680 net.cpp:131] Top shape: 1000 160 (160000)
I0501 06:44:07.741802  1680 net.cpp:139] Memory required for data: 88588000
I0501 06:44:07.741808  1680 layer_factory.hpp:77] Creating layer ip3
I0501 06:44:07.741821  1680 net.cpp:86] Creating Layer ip3
I0501 06:44:07.741825  1680 net.cpp:408] ip3 <- ip2
I0501 06:44:07.741834  1680 net.cpp:382] ip3 -> ip3
I0501 06:44:07.741997  1680 net.cpp:124] Setting up ip3
I0501 06:44:07.742007  1680 net.cpp:131] Top shape: 1000 10 (10000)
I0501 06:44:07.742013  1680 net.cpp:139] Memory required for data: 88628000
I0501 06:44:07.742022  1680 layer_factory.hpp:77] Creating layer relu3
I0501 06:44:07.742030  1680 net.cpp:86] Creating Layer relu3
I0501 06:44:07.742035  1680 net.cpp:408] relu3 <- ip3
I0501 06:44:07.742043  1680 net.cpp:369] relu3 -> ip3 (in-place)
I0501 06:44:07.742213  1680 net.cpp:124] Setting up relu3
I0501 06:44:07.742224  1680 net.cpp:131] Top shape: 1000 10 (10000)
I0501 06:44:07.742229  1680 net.cpp:139] Memory required for data: 88668000
I0501 06:44:07.742234  1680 layer_factory.hpp:77] Creating layer ip4
I0501 06:44:07.742244  1680 net.cpp:86] Creating Layer ip4
I0501 06:44:07.742249  1680 net.cpp:408] ip4 <- ip3
I0501 06:44:07.742259  1680 net.cpp:382] ip4 -> ip4
I0501 06:44:07.742377  1680 net.cpp:124] Setting up ip4
I0501 06:44:07.742385  1680 net.cpp:131] Top shape: 1000 10 (10000)
I0501 06:44:07.742390  1680 net.cpp:139] Memory required for data: 88708000
I0501 06:44:07.742403  1680 layer_factory.hpp:77] Creating layer ip4_ip4_0_split
I0501 06:44:07.742413  1680 net.cpp:86] Creating Layer ip4_ip4_0_split
I0501 06:44:07.742420  1680 net.cpp:408] ip4_ip4_0_split <- ip4
I0501 06:44:07.742427  1680 net.cpp:382] ip4_ip4_0_split -> ip4_ip4_0_split_0
I0501 06:44:07.742435  1680 net.cpp:382] ip4_ip4_0_split -> ip4_ip4_0_split_1
I0501 06:44:07.742477  1680 net.cpp:124] Setting up ip4_ip4_0_split
I0501 06:44:07.742485  1680 net.cpp:131] Top shape: 1000 10 (10000)
I0501 06:44:07.742491  1680 net.cpp:131] Top shape: 1000 10 (10000)
I0501 06:44:07.742496  1680 net.cpp:139] Memory required for data: 88788000
I0501 06:44:07.742501  1680 layer_factory.hpp:77] Creating layer accuracy
I0501 06:44:07.742508  1680 net.cpp:86] Creating Layer accuracy
I0501 06:44:07.742513  1680 net.cpp:408] accuracy <- ip4_ip4_0_split_0
I0501 06:44:07.742521  1680 net.cpp:408] accuracy <- label_cifar_1_split_0
I0501 06:44:07.742529  1680 net.cpp:382] accuracy -> accuracy
…
