…
I0501 04:06:16.791146 23897 net.cpp:296] The NetState phase (0) differed from the phase (1) specified by a rule in layer cifar
I0501 04:06:16.791164 23897 net.cpp:296] The NetState phase (0) differed from the phase (1) specified by a rule in layer accuracy
I0501 04:06:16.791263 23897 net.cpp:53] Initializing net from parameters: 
name: "CIFAR"
state {
  phase: TRAIN
  level: 0
  stage: ""
}
layer {
  name: "cifar"
  type: "Data"
  top: "data"
  top: "label"
  include {
    phase: TRAIN
  }
  transform_param {
    mean_file: "examples/cifar10/mean.binaryproto"
  }
  data_param {
    source: "examples/cifar10/cifar10_train_lmdb"
    batch_size: 111
    backend: LMDB
  }
}
layer {
  name: "conv0"
  type: "Convolution"
  bottom: "data"
  top: "conv0"
  param {
    lr_mult: 1
  }
  param {
    lr_mult: 2
  }
  convolution_param {
    num_output: 8
    pad: 2
    kernel_size: 5
    stride: 1
    weight_filler {
      type: "gaussian"
      std: 0.01
    }
    bias_filler {
      type: "constant"
    }
  }
}
layer {
  name: "Sigmoid0"
  type: "Sigmoid"
  bottom: "conv0"
  top: "Sigmoid0"
}
layer {
  name: "pool0"
  type: "Pooling"
  bottom: "Sigmoid0"
  top: "pool0"
  pooling_param {
    pool: AVE
    kernel_size: 3
    stride: 2
  }
}
layer {
  name: "ip1"
  type: "InnerProduct"
  bottom: "pool0"
  top: "ip1"
  param {
    lr_mult: 1
  }
  param {
    lr_mult: 2
  }
  inner_product_param {
    num_output: 20
    weight_filler {
      type: "gaussian"
      std: 0.01
    }
    bias_filler {
      type: "constant"
    }
  }
}
layer {
  name: "relu1"
  type: "ReLU"
  bottom: "ip1"
  top: "ip1"
}
layer {
  name: "ip2"
  type: "InnerProduct"
  bottom: "ip1"
  top: "ip2"
  param {
    lr_mult: 1
  }
  param {
    lr_mult: 2
  }
  inner_product_param {
    num_output: 40
    weight_filler {
      type: "gaussian"
      std: 0.01
    }
    bias_filler {
      type: "constant"
    }
  }
}
layer {
  name: "relu2"
  type: "ReLU"
  bottom: "ip2"
  top: "ip2"
}
layer {
  name: "ip3"
  type: "InnerProduct"
  bottom: "ip2"
  top: "ip3"
  param {
    lr_mult: 1
  }
  param {
    lr_mult: 2
  }
  inner_product_param {
    num_output: 10
    weight_filler {
      type: "gaussian"
      std: 0.01
    }
    bias_filler {
      type: "constant"
    }
  }
}
layer {
  name: "relu3"
  type: "ReLU"
  bottom: "ip3"
  top: "ip3"
}
layer {
  name: "ip4"
  type: "InnerProduct"
  bottom: "ip3"
  top: "ip4"
  param {
    lr_mult: 1
  }
  param {
    lr_mult: 2
  }
  inner_product_param {
    num_output: 10
    weight_filler {
      type: "gaussian"
      std: 0.01
    }
    bias_filler {
      type: "constant"
    }
  }
}
layer {
  name: "loss"
  type: "SoftmaxWithLoss"
  bottom: "ip4"
  bottom: "label"
  top: "loss"
}
I0501 04:06:16.791337 23897 layer_factory.hpp:77] Creating layer cifar
I0501 04:06:16.791436 23897 db_lmdb.cpp:35] Opened lmdb examples/cifar10/cifar10_train_lmdb
I0501 04:06:16.791462 23897 net.cpp:86] Creating Layer cifar
I0501 04:06:16.791471 23897 net.cpp:382] cifar -> data
I0501 04:06:16.791493 23897 net.cpp:382] cifar -> label
I0501 04:06:16.791505 23897 data_transformer.cpp:25] Loading mean file from: examples/cifar10/mean.binaryproto
I0501 04:06:16.793640 23897 data_layer.cpp:45] output data size: 111,3,32,32
I0501 04:06:16.801501 23897 net.cpp:124] Setting up cifar
I0501 04:06:16.801520 23897 net.cpp:131] Top shape: 111 3 32 32 (340992)
I0501 04:06:16.801527 23897 net.cpp:131] Top shape: 111 (111)
I0501 04:06:16.801530 23897 net.cpp:139] Memory required for data: 1364412
I0501 04:06:16.801553 23897 layer_factory.hpp:77] Creating layer conv0
I0501 04:06:16.801573 23897 net.cpp:86] Creating Layer conv0
I0501 04:06:16.801579 23897 net.cpp:408] conv0 <- data
I0501 04:06:16.801591 23897 net.cpp:382] conv0 -> conv0
I0501 04:06:17.080018 23897 net.cpp:124] Setting up conv0
I0501 04:06:17.080044 23897 net.cpp:131] Top shape: 111 8 32 32 (909312)
I0501 04:06:17.080049 23897 net.cpp:139] Memory required for data: 5001660
I0501 04:06:17.080063 23897 layer_factory.hpp:77] Creating layer Sigmoid0
I0501 04:06:17.080075 23897 net.cpp:86] Creating Layer Sigmoid0
I0501 04:06:17.080078 23897 net.cpp:408] Sigmoid0 <- conv0
I0501 04:06:17.080083 23897 net.cpp:382] Sigmoid0 -> Sigmoid0
I0501 04:06:17.080260 23897 net.cpp:124] Setting up Sigmoid0
I0501 04:06:17.080269 23897 net.cpp:131] Top shape: 111 8 32 32 (909312)
I0501 04:06:17.080272 23897 net.cpp:139] Memory required for data: 8638908
I0501 04:06:17.080276 23897 layer_factory.hpp:77] Creating layer pool0
I0501 04:06:17.080282 23897 net.cpp:86] Creating Layer pool0
I0501 04:06:17.080286 23897 net.cpp:408] pool0 <- Sigmoid0
I0501 04:06:17.080291 23897 net.cpp:382] pool0 -> pool0
I0501 04:06:17.081008 23897 net.cpp:124] Setting up pool0
I0501 04:06:17.081022 23897 net.cpp:131] Top shape: 111 8 16 16 (227328)
I0501 04:06:17.081025 23897 net.cpp:139] Memory required for data: 9548220
I0501 04:06:17.081028 23897 layer_factory.hpp:77] Creating layer ip1
I0501 04:06:17.081037 23897 net.cpp:86] Creating Layer ip1
I0501 04:06:17.081039 23897 net.cpp:408] ip1 <- pool0
I0501 04:06:17.081044 23897 net.cpp:382] ip1 -> ip1
I0501 04:06:17.083024 23897 net.cpp:124] Setting up ip1
I0501 04:06:17.083036 23897 net.cpp:131] Top shape: 111 20 (2220)
I0501 04:06:17.083039 23897 net.cpp:139] Memory required for data: 9557100
I0501 04:06:17.083047 23897 layer_factory.hpp:77] Creating layer relu1
I0501 04:06:17.083053 23897 net.cpp:86] Creating Layer relu1
I0501 04:06:17.083056 23897 net.cpp:408] relu1 <- ip1
I0501 04:06:17.083060 23897 net.cpp:369] relu1 -> ip1 (in-place)
I0501 04:06:17.083216 23897 net.cpp:124] Setting up relu1
I0501 04:06:17.083225 23897 net.cpp:131] Top shape: 111 20 (2220)
I0501 04:06:17.083228 23897 net.cpp:139] Memory required for data: 9565980
I0501 04:06:17.083231 23897 layer_factory.hpp:77] Creating layer ip2
I0501 04:06:17.083238 23897 net.cpp:86] Creating Layer ip2
I0501 04:06:17.083240 23897 net.cpp:408] ip2 <- ip1
I0501 04:06:17.083245 23897 net.cpp:382] ip2 -> ip2
I0501 04:06:17.083350 23897 net.cpp:124] Setting up ip2
I0501 04:06:17.083359 23897 net.cpp:131] Top shape: 111 40 (4440)
I0501 04:06:17.083361 23897 net.cpp:139] Memory required for data: 9583740
I0501 04:06:17.083369 23897 layer_factory.hpp:77] Creating layer relu2
I0501 04:06:17.083372 23897 net.cpp:86] Creating Layer relu2
I0501 04:06:17.083375 23897 net.cpp:408] relu2 <- ip2
I0501 04:06:17.083379 23897 net.cpp:369] relu2 -> ip2 (in-place)
I0501 04:06:17.083549 23897 net.cpp:124] Setting up relu2
I0501 04:06:17.083557 23897 net.cpp:131] Top shape: 111 40 (4440)
I0501 04:06:17.083560 23897 net.cpp:139] Memory required for data: 9601500
I0501 04:06:17.083564 23897 layer_factory.hpp:77] Creating layer ip3
I0501 04:06:17.083571 23897 net.cpp:86] Creating Layer ip3
I0501 04:06:17.083575 23897 net.cpp:408] ip3 <- ip2
I0501 04:06:17.083582 23897 net.cpp:382] ip3 -> ip3
I0501 04:06:17.083685 23897 net.cpp:124] Setting up ip3
I0501 04:06:17.083693 23897 net.cpp:131] Top shape: 111 10 (1110)
I0501 04:06:17.083695 23897 net.cpp:139] Memory required for data: 9605940
I0501 04:06:17.083700 23897 layer_factory.hpp:77] Creating layer relu3
I0501 04:06:17.083704 23897 net.cpp:86] Creating Layer relu3
I0501 04:06:17.083708 23897 net.cpp:408] relu3 <- ip3
I0501 04:06:17.083711 23897 net.cpp:369] relu3 -> ip3 (in-place)
I0501 04:06:17.083868 23897 net.cpp:124] Setting up relu3
I0501 04:06:17.083875 23897 net.cpp:131] Top shape: 111 10 (1110)
I0501 04:06:17.083878 23897 net.cpp:139] Memory required for data: 9610380
I0501 04:06:17.083880 23897 layer_factory.hpp:77] Creating layer ip4
I0501 04:06:17.083900 23897 net.cpp:86] Creating Layer ip4
I0501 04:06:17.083904 23897 net.cpp:408] ip4 <- ip3
I0501 04:06:17.083909 23897 net.cpp:382] ip4 -> ip4
I0501 04:06:17.084002 23897 net.cpp:124] Setting up ip4
I0501 04:06:17.084008 23897 net.cpp:131] Top shape: 111 10 (1110)
I0501 04:06:17.084010 23897 net.cpp:139] Memory required for data: 9614820
I0501 04:06:17.084017 23897 layer_factory.hpp:77] Creating layer loss
I0501 04:06:17.084024 23897 net.cpp:86] Creating Layer loss
I0501 04:06:17.084026 23897 net.cpp:408] loss <- ip4
I0501 04:06:17.084030 23897 net.cpp:408] loss <- label
I0501 04:06:17.084035 23897 net.cpp:382] loss -> loss
I0501 04:06:17.084050 23897 layer_factory.hpp:77] Creating layer loss
…
I0501 04:06:17.085332 23897 solver.cpp:173] Creating test net (#0) specified by net file: ECE595/cifar/train_test/var_everything/cifar_train_test_375.prototxt
I0501 04:06:17.085386 23897 net.cpp:296] The NetState phase (1) differed from the phase (0) specified by a rule in layer cifar
I0501 04:06:17.085490 23897 net.cpp:53] Initializing net from parameters: 
name: "CIFAR"
state {
  phase: TEST
}
layer {
  name: "cifar"
  type: "Data"
  top: "data"
  top: "label"
  include {
    phase: TEST
  }
  transform_param {
    mean_file: "examples/cifar10/mean.binaryproto"
  }
  data_param {
    source: "examples/cifar10/cifar10_test_lmdb"
    batch_size: 1000
    backend: LMDB
  }
}
layer {
  name: "conv0"
  type: "Convolution"
  bottom: "data"
  top: "conv0"
  param {
    lr_mult: 1
  }
  param {
    lr_mult: 2
  }
  convolution_param {
    num_output: 8
    pad: 2
    kernel_size: 5
    stride: 1
    weight_filler {
      type: "gaussian"
      std: 0.01
    }
    bias_filler {
      type: "constant"
    }
  }
}
layer {
  name: "Sigmoid0"
  type: "Sigmoid"
  bottom: "conv0"
  top: "Sigmoid0"
}
layer {
  name: "pool0"
  type: "Pooling"
  bottom: "Sigmoid0"
  top: "pool0"
  pooling_param {
    pool: AVE
    kernel_size: 3
    stride: 2
  }
}
layer {
  name: "ip1"
  type: "InnerProduct"
  bottom: "pool0"
  top: "ip1"
  param {
    lr_mult: 1
  }
  param {
    lr_mult: 2
  }
  inner_product_param {
    num_output: 20
    weight_filler {
      type: "gaussian"
      std: 0.01
    }
    bias_filler {
      type: "constant"
    }
  }
}
layer {
  name: "relu1"
  type: "ReLU"
  bottom: "ip1"
  top: "ip1"
}
layer {
  name: "ip2"
  type: "InnerProduct"
  bottom: "ip1"
  top: "ip2"
  param {
    lr_mult: 1
  }
  param {
    lr_mult: 2
  }
  inner_product_param {
    num_output: 40
    weight_filler {
      type: "gaussian"
      std: 0.01
    }
    bias_filler {
      type: "constant"
    }
  }
}
layer {
  name: "relu2"
  type: "ReLU"
  bottom: "ip2"
  top: "ip2"
}
layer {
  name: "ip3"
  type: "InnerProduct"
  bottom: "ip2"
  top: "ip3"
  param {
    lr_mult: 1
  }
  param {
    lr_mult: 2
  }
  inner_product_param {
    num_output: 10
    weight_filler {
      type: "gaussian"
      std: 0.01
    }
    bias_filler {
      type: "constant"
    }
  }
}
layer {
  name: "relu3"
  type: "ReLU"
  bottom: "ip3"
  top: "ip3"
}
layer {
  name: "ip4"
  type: "InnerProduct"
  bottom: "ip3"
  top: "ip4"
  param {
    lr_mult: 1
  }
  param {
    lr_mult: 2
  }
  inner_product_param {
    num_output: 10
    weight_filler {
      type: "gaussian"
      std: 0.01
    }
    bias_filler {
      type: "constant"
    }
  }
}
layer {
  name: "accuracy"
  type: "Accuracy"
  bottom: "ip4"
  bottom: "label"
  top: "accuracy"
  include {
    phase: TEST
  }
}
layer {
  name: "loss"
  type: "SoftmaxWithLoss"
  bottom: "ip4"
  bottom: "label"
  top: "loss"
}
I0501 04:06:17.085572 23897 layer_factory.hpp:77] Creating layer cifar
I0501 04:06:17.085646 23897 db_lmdb.cpp:35] Opened lmdb examples/cifar10/cifar10_test_lmdb
I0501 04:06:17.085659 23897 net.cpp:86] Creating Layer cifar
I0501 04:06:17.085664 23897 net.cpp:382] cifar -> data
I0501 04:06:17.085671 23897 net.cpp:382] cifar -> label
I0501 04:06:17.085677 23897 data_transformer.cpp:25] Loading mean file from: examples/cifar10/mean.binaryproto
I0501 04:06:17.085819 23897 data_layer.cpp:45] output data size: 1000,3,32,32
I0501 04:06:17.107549 23897 net.cpp:124] Setting up cifar
I0501 04:06:17.107589 23897 net.cpp:131] Top shape: 1000 3 32 32 (3072000)
I0501 04:06:17.107595 23897 net.cpp:131] Top shape: 1000 (1000)
I0501 04:06:17.107597 23897 net.cpp:139] Memory required for data: 12292000
I0501 04:06:17.107604 23897 layer_factory.hpp:77] Creating layer label_cifar_1_split
I0501 04:06:17.107619 23897 net.cpp:86] Creating Layer label_cifar_1_split
I0501 04:06:17.107622 23897 net.cpp:408] label_cifar_1_split <- label
I0501 04:06:17.107630 23897 net.cpp:382] label_cifar_1_split -> label_cifar_1_split_0
I0501 04:06:17.107653 23897 net.cpp:382] label_cifar_1_split -> label_cifar_1_split_1
I0501 04:06:17.107749 23897 net.cpp:124] Setting up label_cifar_1_split
I0501 04:06:17.107758 23897 net.cpp:131] Top shape: 1000 (1000)
I0501 04:06:17.107761 23897 net.cpp:131] Top shape: 1000 (1000)
I0501 04:06:17.107764 23897 net.cpp:139] Memory required for data: 12300000
I0501 04:06:17.107767 23897 layer_factory.hpp:77] Creating layer conv0
I0501 04:06:17.107782 23897 net.cpp:86] Creating Layer conv0
I0501 04:06:17.107786 23897 net.cpp:408] conv0 <- data
I0501 04:06:17.107791 23897 net.cpp:382] conv0 -> conv0
I0501 04:06:17.110579 23897 net.cpp:124] Setting up conv0
I0501 04:06:17.110610 23897 net.cpp:131] Top shape: 1000 8 32 32 (8192000)
I0501 04:06:17.110612 23897 net.cpp:139] Memory required for data: 45068000
I0501 04:06:17.110622 23897 layer_factory.hpp:77] Creating layer Sigmoid0
I0501 04:06:17.110631 23897 net.cpp:86] Creating Layer Sigmoid0
I0501 04:06:17.110635 23897 net.cpp:408] Sigmoid0 <- conv0
I0501 04:06:17.110656 23897 net.cpp:382] Sigmoid0 -> Sigmoid0
I0501 04:06:17.110862 23897 net.cpp:124] Setting up Sigmoid0
I0501 04:06:17.110872 23897 net.cpp:131] Top shape: 1000 8 32 32 (8192000)
I0501 04:06:17.110875 23897 net.cpp:139] Memory required for data: 77836000
I0501 04:06:17.110878 23897 layer_factory.hpp:77] Creating layer pool0
I0501 04:06:17.110888 23897 net.cpp:86] Creating Layer pool0
I0501 04:06:17.110890 23897 net.cpp:408] pool0 <- Sigmoid0
I0501 04:06:17.110896 23897 net.cpp:382] pool0 -> pool0
I0501 04:06:17.111081 23897 net.cpp:124] Setting up pool0
I0501 04:06:17.111090 23897 net.cpp:131] Top shape: 1000 8 16 16 (2048000)
I0501 04:06:17.111093 23897 net.cpp:139] Memory required for data: 86028000
I0501 04:06:17.111096 23897 layer_factory.hpp:77] Creating layer ip1
I0501 04:06:17.111104 23897 net.cpp:86] Creating Layer ip1
I0501 04:06:17.111107 23897 net.cpp:408] ip1 <- pool0
I0501 04:06:17.111114 23897 net.cpp:382] ip1 -> ip1
I0501 04:06:17.112309 23897 net.cpp:124] Setting up ip1
I0501 04:06:17.112318 23897 net.cpp:131] Top shape: 1000 20 (20000)
I0501 04:06:17.112335 23897 net.cpp:139] Memory required for data: 86108000
I0501 04:06:17.112356 23897 layer_factory.hpp:77] Creating layer relu1
I0501 04:06:17.112362 23897 net.cpp:86] Creating Layer relu1
I0501 04:06:17.112365 23897 net.cpp:408] relu1 <- ip1
I0501 04:06:17.112370 23897 net.cpp:369] relu1 -> ip1 (in-place)
I0501 04:06:17.112548 23897 net.cpp:124] Setting up relu1
I0501 04:06:17.112556 23897 net.cpp:131] Top shape: 1000 20 (20000)
I0501 04:06:17.112560 23897 net.cpp:139] Memory required for data: 86188000
I0501 04:06:17.112563 23897 layer_factory.hpp:77] Creating layer ip2
I0501 04:06:17.112571 23897 net.cpp:86] Creating Layer ip2
I0501 04:06:17.112574 23897 net.cpp:408] ip2 <- ip1
I0501 04:06:17.112579 23897 net.cpp:382] ip2 -> ip2
I0501 04:06:17.112704 23897 net.cpp:124] Setting up ip2
I0501 04:06:17.112711 23897 net.cpp:131] Top shape: 1000 40 (40000)
I0501 04:06:17.112713 23897 net.cpp:139] Memory required for data: 86348000
I0501 04:06:17.112720 23897 layer_factory.hpp:77] Creating layer relu2
I0501 04:06:17.112726 23897 net.cpp:86] Creating Layer relu2
I0501 04:06:17.112730 23897 net.cpp:408] relu2 <- ip2
I0501 04:06:17.112733 23897 net.cpp:369] relu2 -> ip2 (in-place)
I0501 04:06:17.113590 23897 net.cpp:124] Setting up relu2
I0501 04:06:17.113617 23897 net.cpp:131] Top shape: 1000 40 (40000)
I0501 04:06:17.113621 23897 net.cpp:139] Memory required for data: 86508000
I0501 04:06:17.113625 23897 layer_factory.hpp:77] Creating layer ip3
I0501 04:06:17.113647 23897 net.cpp:86] Creating Layer ip3
I0501 04:06:17.113651 23897 net.cpp:408] ip3 <- ip2
I0501 04:06:17.113656 23897 net.cpp:382] ip3 -> ip3
I0501 04:06:17.113773 23897 net.cpp:124] Setting up ip3
I0501 04:06:17.113781 23897 net.cpp:131] Top shape: 1000 10 (10000)
I0501 04:06:17.113785 23897 net.cpp:139] Memory required for data: 86548000
I0501 04:06:17.113790 23897 layer_factory.hpp:77] Creating layer relu3
I0501 04:06:17.113795 23897 net.cpp:86] Creating Layer relu3
I0501 04:06:17.113797 23897 net.cpp:408] relu3 <- ip3
I0501 04:06:17.113802 23897 net.cpp:369] relu3 -> ip3 (in-place)
I0501 04:06:17.113970 23897 net.cpp:124] Setting up relu3
I0501 04:06:17.113979 23897 net.cpp:131] Top shape: 1000 10 (10000)
I0501 04:06:17.113982 23897 net.cpp:139] Memory required for data: 86588000
I0501 04:06:17.113986 23897 layer_factory.hpp:77] Creating layer ip4
I0501 04:06:17.113992 23897 net.cpp:86] Creating Layer ip4
I0501 04:06:17.113996 23897 net.cpp:408] ip4 <- ip3
I0501 04:06:17.113999 23897 net.cpp:382] ip4 -> ip4
I0501 04:06:17.114106 23897 net.cpp:124] Setting up ip4
I0501 04:06:17.114114 23897 net.cpp:131] Top shape: 1000 10 (10000)
I0501 04:06:17.114117 23897 net.cpp:139] Memory required for data: 86628000
I0501 04:06:17.114125 23897 layer_factory.hpp:77] Creating layer ip4_ip4_0_split
I0501 04:06:17.114131 23897 net.cpp:86] Creating Layer ip4_ip4_0_split
I0501 04:06:17.114135 23897 net.cpp:408] ip4_ip4_0_split <- ip4
I0501 04:06:17.114140 23897 net.cpp:382] ip4_ip4_0_split -> ip4_ip4_0_split_0
I0501 04:06:17.114145 23897 net.cpp:382] ip4_ip4_0_split -> ip4_ip4_0_split_1
I0501 04:06:17.114176 23897 net.cpp:124] Setting up ip4_ip4_0_split
I0501 04:06:17.114181 23897 net.cpp:131] Top shape: 1000 10 (10000)
I0501 04:06:17.114186 23897 net.cpp:131] Top shape: 1000 10 (10000)
I0501 04:06:17.114187 23897 net.cpp:139] Memory required for data: 86708000
I0501 04:06:17.114190 23897 layer_factory.hpp:77] Creating layer accuracy
I0501 04:06:17.114197 23897 net.cpp:86] Creating Layer accuracy
I0501 04:06:17.114199 23897 net.cpp:408] accuracy <- ip4_ip4_0_split_0
I0501 04:06:17.114203 23897 net.cpp:408] accuracy <- label_cifar_1_split_0
I0501 04:06:17.114208 23897 net.cpp:382] accuracy -> accuracy
…
