…
I0430 22:12:24.529943   957 net.cpp:296] The NetState phase (0) differed from the phase (1) specified by a rule in layer cifar
I0430 22:12:24.529961   957 net.cpp:296] The NetState phase (0) differed from the phase (1) specified by a rule in layer accuracy
I0430 22:12:24.530069   957 net.cpp:53] Initializing net from parameters: 
name: "CIFAR"
state {
  phase: TRAIN
  level: 0
  stage: ""
}
layer {
  name: "cifar"
  type: "Data"
  top: "data"
  top: "label"
  include {
    phase: TRAIN
  }
  transform_param {
    mean_file: "examples/cifar10/mean.binaryproto"
  }
  data_param {
    source: "examples/cifar10/cifar10_train_lmdb"
    batch_size: 111
    backend: LMDB
  }
}
layer {
  name: "conv0"
  type: "Convolution"
  bottom: "data"
  top: "conv0"
  param {
    lr_mult: 1
  }
  param {
    lr_mult: 2
  }
  convolution_param {
    num_output: 8
    pad: 2
    kernel_size: 3
    stride: 1
    weight_filler {
      type: "gaussian"
      std: 0.01
    }
    bias_filler {
      type: "constant"
    }
  }
}
layer {
  name: "Sigmoid0"
  type: "Sigmoid"
  bottom: "conv0"
  top: "Sigmoid0"
}
layer {
  name: "pool0"
  type: "Pooling"
  bottom: "Sigmoid0"
  top: "pool0"
  pooling_param {
    pool: AVE
    kernel_size: 3
    stride: 2
  }
}
layer {
  name: "ip1"
  type: "InnerProduct"
  bottom: "pool0"
  top: "ip1"
  param {
    lr_mult: 1
  }
  param {
    lr_mult: 2
  }
  inner_product_param {
    num_output: 10
    weight_filler {
      type: "gaussian"
      std: 0.01
    }
    bias_filler {
      type: "constant"
    }
  }
}
layer {
  name: "relu1"
  type: "ReLU"
  bottom: "ip1"
  top: "ip1"
}
layer {
  name: "ip2"
  type: "InnerProduct"
  bottom: "ip1"
  top: "ip2"
  param {
    lr_mult: 1
  }
  param {
    lr_mult: 2
  }
  inner_product_param {
    num_output: 10
    weight_filler {
      type: "gaussian"
      std: 0.01
    }
    bias_filler {
      type: "constant"
    }
  }
}
layer {
  name: "relu2"
  type: "ReLU"
  bottom: "ip2"
  top: "ip2"
}
layer {
  name: "ip3"
  type: "InnerProduct"
  bottom: "ip2"
  top: "ip3"
  param {
    lr_mult: 1
  }
  param {
    lr_mult: 2
  }
  inner_product_param {
    num_output: 20
    weight_filler {
      type: "gaussian"
      std: 0.01
    }
    bias_filler {
      type: "constant"
    }
  }
}
layer {
  name: "relu3"
  type: "ReLU"
  bottom: "ip3"
  top: "ip3"
}
layer {
  name: "ip4"
  type: "InnerProduct"
  bottom: "ip3"
  top: "ip4"
  param {
    lr_mult: 1
  }
  param {
    lr_mult: 2
  }
  inner_product_param {
    num_output: 10
    weight_filler {
      type: "gaussian"
      std: 0.01
    }
    bias_filler {
      type: "constant"
    }
  }
}
layer {
  name: "loss"
  type: "SoftmaxWithLoss"
  bottom: "ip4"
  bottom: "label"
  top: "loss"
}
I0430 22:12:24.530148   957 layer_factory.hpp:77] Creating layer cifar
I0430 22:12:24.530247   957 db_lmdb.cpp:35] Opened lmdb examples/cifar10/cifar10_train_lmdb
I0430 22:12:24.530274   957 net.cpp:86] Creating Layer cifar
I0430 22:12:24.530283   957 net.cpp:382] cifar -> data
I0430 22:12:24.530305   957 net.cpp:382] cifar -> label
I0430 22:12:24.530318   957 data_transformer.cpp:25] Loading mean file from: examples/cifar10/mean.binaryproto
I0430 22:12:24.532418   957 data_layer.cpp:45] output data size: 111,3,32,32
I0430 22:12:24.540276   957 net.cpp:124] Setting up cifar
I0430 22:12:24.540297   957 net.cpp:131] Top shape: 111 3 32 32 (340992)
I0430 22:12:24.540302   957 net.cpp:131] Top shape: 111 (111)
I0430 22:12:24.540307   957 net.cpp:139] Memory required for data: 1364412
I0430 22:12:24.540328   957 layer_factory.hpp:77] Creating layer conv0
I0430 22:12:24.540349   957 net.cpp:86] Creating Layer conv0
I0430 22:12:24.540354   957 net.cpp:408] conv0 <- data
I0430 22:12:24.540367   957 net.cpp:382] conv0 -> conv0
I0430 22:12:24.833344   957 net.cpp:124] Setting up conv0
I0430 22:12:24.833376   957 net.cpp:131] Top shape: 111 8 34 34 (1026528)
I0430 22:12:24.833381   957 net.cpp:139] Memory required for data: 5470524
I0430 22:12:24.833400   957 layer_factory.hpp:77] Creating layer Sigmoid0
I0430 22:12:24.833413   957 net.cpp:86] Creating Layer Sigmoid0
I0430 22:12:24.833418   957 net.cpp:408] Sigmoid0 <- conv0
I0430 22:12:24.833425   957 net.cpp:382] Sigmoid0 -> Sigmoid0
I0430 22:12:24.833640   957 net.cpp:124] Setting up Sigmoid0
I0430 22:12:24.833652   957 net.cpp:131] Top shape: 111 8 34 34 (1026528)
I0430 22:12:24.833657   957 net.cpp:139] Memory required for data: 9576636
I0430 22:12:24.833660   957 layer_factory.hpp:77] Creating layer pool0
I0430 22:12:24.833668   957 net.cpp:86] Creating Layer pool0
I0430 22:12:24.833673   957 net.cpp:408] pool0 <- Sigmoid0
I0430 22:12:24.833678   957 net.cpp:382] pool0 -> pool0
I0430 22:12:24.834558   957 net.cpp:124] Setting up pool0
I0430 22:12:24.834575   957 net.cpp:131] Top shape: 111 8 17 17 (256632)
I0430 22:12:24.834579   957 net.cpp:139] Memory required for data: 10603164
I0430 22:12:24.834584   957 layer_factory.hpp:77] Creating layer ip1
I0430 22:12:24.834595   957 net.cpp:86] Creating Layer ip1
I0430 22:12:24.834599   957 net.cpp:408] ip1 <- pool0
I0430 22:12:24.834606   957 net.cpp:382] ip1 -> ip1
I0430 22:12:24.836473   957 net.cpp:124] Setting up ip1
I0430 22:12:24.836488   957 net.cpp:131] Top shape: 111 10 (1110)
I0430 22:12:24.836493   957 net.cpp:139] Memory required for data: 10607604
I0430 22:12:24.836503   957 layer_factory.hpp:77] Creating layer relu1
I0430 22:12:24.836510   957 net.cpp:86] Creating Layer relu1
I0430 22:12:24.836514   957 net.cpp:408] relu1 <- ip1
I0430 22:12:24.836520   957 net.cpp:369] relu1 -> ip1 (in-place)
I0430 22:12:24.836711   957 net.cpp:124] Setting up relu1
I0430 22:12:24.836722   957 net.cpp:131] Top shape: 111 10 (1110)
I0430 22:12:24.836726   957 net.cpp:139] Memory required for data: 10612044
I0430 22:12:24.836730   957 layer_factory.hpp:77] Creating layer ip2
I0430 22:12:24.836738   957 net.cpp:86] Creating Layer ip2
I0430 22:12:24.836742   957 net.cpp:408] ip2 <- ip1
I0430 22:12:24.836748   957 net.cpp:382] ip2 -> ip2
I0430 22:12:24.836874   957 net.cpp:124] Setting up ip2
I0430 22:12:24.836882   957 net.cpp:131] Top shape: 111 10 (1110)
I0430 22:12:24.836886   957 net.cpp:139] Memory required for data: 10616484
I0430 22:12:24.836895   957 layer_factory.hpp:77] Creating layer relu2
I0430 22:12:24.836902   957 net.cpp:86] Creating Layer relu2
I0430 22:12:24.836906   957 net.cpp:408] relu2 <- ip2
I0430 22:12:24.836911   957 net.cpp:369] relu2 -> ip2 (in-place)
I0430 22:12:24.837095   957 net.cpp:124] Setting up relu2
I0430 22:12:24.837105   957 net.cpp:131] Top shape: 111 10 (1110)
I0430 22:12:24.837110   957 net.cpp:139] Memory required for data: 10620924
I0430 22:12:24.837113   957 layer_factory.hpp:77] Creating layer ip3
I0430 22:12:24.837122   957 net.cpp:86] Creating Layer ip3
I0430 22:12:24.837126   957 net.cpp:408] ip3 <- ip2
I0430 22:12:24.837132   957 net.cpp:382] ip3 -> ip3
I0430 22:12:24.837250   957 net.cpp:124] Setting up ip3
I0430 22:12:24.837260   957 net.cpp:131] Top shape: 111 20 (2220)
I0430 22:12:24.837262   957 net.cpp:139] Memory required for data: 10629804
I0430 22:12:24.837270   957 layer_factory.hpp:77] Creating layer relu3
I0430 22:12:24.837275   957 net.cpp:86] Creating Layer relu3
I0430 22:12:24.837278   957 net.cpp:408] relu3 <- ip3
I0430 22:12:24.837283   957 net.cpp:369] relu3 -> ip3 (in-place)
I0430 22:12:24.837460   957 net.cpp:124] Setting up relu3
I0430 22:12:24.837471   957 net.cpp:131] Top shape: 111 20 (2220)
I0430 22:12:24.837473   957 net.cpp:139] Memory required for data: 10638684
I0430 22:12:24.837477   957 layer_factory.hpp:77] Creating layer ip4
I0430 22:12:24.837502   957 net.cpp:86] Creating Layer ip4
I0430 22:12:24.837507   957 net.cpp:408] ip4 <- ip3
I0430 22:12:24.837513   957 net.cpp:382] ip4 -> ip4
I0430 22:12:24.837633   957 net.cpp:124] Setting up ip4
I0430 22:12:24.837642   957 net.cpp:131] Top shape: 111 10 (1110)
I0430 22:12:24.837646   957 net.cpp:139] Memory required for data: 10643124
I0430 22:12:24.837656   957 layer_factory.hpp:77] Creating layer loss
I0430 22:12:24.837664   957 net.cpp:86] Creating Layer loss
I0430 22:12:24.837667   957 net.cpp:408] loss <- ip4
I0430 22:12:24.837672   957 net.cpp:408] loss <- label
I0430 22:12:24.837678   957 net.cpp:382] loss -> loss
I0430 22:12:24.837699   957 layer_factory.hpp:77] Creating layer loss
…
I0430 22:12:24.839141   957 solver.cpp:173] Creating test net (#0) specified by net file: ECE595/cifar/train_test/var_everything/cifar_train_test_186.prototxt
I0430 22:12:24.839175   957 net.cpp:296] The NetState phase (1) differed from the phase (0) specified by a rule in layer cifar
I0430 22:12:24.839285   957 net.cpp:53] Initializing net from parameters: 
name: "CIFAR"
state {
  phase: TEST
}
layer {
  name: "cifar"
  type: "Data"
  top: "data"
  top: "label"
  include {
    phase: TEST
  }
  transform_param {
    mean_file: "examples/cifar10/mean.binaryproto"
  }
  data_param {
    source: "examples/cifar10/cifar10_test_lmdb"
    batch_size: 1000
    backend: LMDB
  }
}
layer {
  name: "conv0"
  type: "Convolution"
  bottom: "data"
  top: "conv0"
  param {
    lr_mult: 1
  }
  param {
    lr_mult: 2
  }
  convolution_param {
    num_output: 8
    pad: 2
    kernel_size: 3
    stride: 1
    weight_filler {
      type: "gaussian"
      std: 0.01
    }
    bias_filler {
      type: "constant"
    }
  }
}
layer {
  name: "Sigmoid0"
  type: "Sigmoid"
  bottom: "conv0"
  top: "Sigmoid0"
}
layer {
  name: "pool0"
  type: "Pooling"
  bottom: "Sigmoid0"
  top: "pool0"
  pooling_param {
    pool: AVE
    kernel_size: 3
    stride: 2
  }
}
layer {
  name: "ip1"
  type: "InnerProduct"
  bottom: "pool0"
  top: "ip1"
  param {
    lr_mult: 1
  }
  param {
    lr_mult: 2
  }
  inner_product_param {
    num_output: 10
    weight_filler {
      type: "gaussian"
      std: 0.01
    }
    bias_filler {
      type: "constant"
    }
  }
}
layer {
  name: "relu1"
  type: "ReLU"
  bottom: "ip1"
  top: "ip1"
}
layer {
  name: "ip2"
  type: "InnerProduct"
  bottom: "ip1"
  top: "ip2"
  param {
    lr_mult: 1
  }
  param {
    lr_mult: 2
  }
  inner_product_param {
    num_output: 10
    weight_filler {
      type: "gaussian"
      std: 0.01
    }
    bias_filler {
      type: "constant"
    }
  }
}
layer {
  name: "relu2"
  type: "ReLU"
  bottom: "ip2"
  top: "ip2"
}
layer {
  name: "ip3"
  type: "InnerProduct"
  bottom: "ip2"
  top: "ip3"
  param {
    lr_mult: 1
  }
  param {
    lr_mult: 2
  }
  inner_product_param {
    num_output: 20
    weight_filler {
      type: "gaussian"
      std: 0.01
    }
    bias_filler {
      type: "constant"
    }
  }
}
layer {
  name: "relu3"
  type: "ReLU"
  bottom: "ip3"
  top: "ip3"
}
layer {
  name: "ip4"
  type: "InnerProduct"
  bottom: "ip3"
  top: "ip4"
  param {
    lr_mult: 1
  }
  param {
    lr_mult: 2
  }
  inner_product_param {
    num_output: 10
    weight_filler {
      type: "gaussian"
      std: 0.01
    }
    bias_filler {
      type: "constant"
    }
  }
}
layer {
  name: "accuracy"
  type: "Accuracy"
  bottom: "ip4"
  bottom: "label"
  top: "accuracy"
  include {
    phase: TEST
  }
}
layer {
  name: "loss"
  type: "SoftmaxWithLoss"
  bottom: "ip4"
  bottom: "label"
  top: "loss"
}
I0430 22:12:24.839380   957 layer_factory.hpp:77] Creating layer cifar
I0430 22:12:24.839434   957 db_lmdb.cpp:35] Opened lmdb examples/cifar10/cifar10_test_lmdb
I0430 22:12:24.839448   957 net.cpp:86] Creating Layer cifar
I0430 22:12:24.839454   957 net.cpp:382] cifar -> data
I0430 22:12:24.839463   957 net.cpp:382] cifar -> label
I0430 22:12:24.839471   957 data_transformer.cpp:25] Loading mean file from: examples/cifar10/mean.binaryproto
I0430 22:12:24.839650   957 data_layer.cpp:45] output data size: 1000,3,32,32
I0430 22:12:24.866492   957 net.cpp:124] Setting up cifar
I0430 22:12:24.866523   957 net.cpp:131] Top shape: 1000 3 32 32 (3072000)
I0430 22:12:24.866529   957 net.cpp:131] Top shape: 1000 (1000)
I0430 22:12:24.866533   957 net.cpp:139] Memory required for data: 12292000
I0430 22:12:24.866540   957 layer_factory.hpp:77] Creating layer label_cifar_1_split
I0430 22:12:24.866559   957 net.cpp:86] Creating Layer label_cifar_1_split
I0430 22:12:24.866564   957 net.cpp:408] label_cifar_1_split <- label
I0430 22:12:24.866571   957 net.cpp:382] label_cifar_1_split -> label_cifar_1_split_0
I0430 22:12:24.866581   957 net.cpp:382] label_cifar_1_split -> label_cifar_1_split_1
I0430 22:12:24.866714   957 net.cpp:124] Setting up label_cifar_1_split
I0430 22:12:24.866724   957 net.cpp:131] Top shape: 1000 (1000)
I0430 22:12:24.866729   957 net.cpp:131] Top shape: 1000 (1000)
I0430 22:12:24.866734   957 net.cpp:139] Memory required for data: 12300000
I0430 22:12:24.866737   957 layer_factory.hpp:77] Creating layer conv0
I0430 22:12:24.866751   957 net.cpp:86] Creating Layer conv0
I0430 22:12:24.866757   957 net.cpp:408] conv0 <- data
I0430 22:12:24.866765   957 net.cpp:382] conv0 -> conv0
I0430 22:12:24.868544   957 net.cpp:124] Setting up conv0
I0430 22:12:24.868561   957 net.cpp:131] Top shape: 1000 8 34 34 (9248000)
I0430 22:12:24.868566   957 net.cpp:139] Memory required for data: 49292000
I0430 22:12:24.868577   957 layer_factory.hpp:77] Creating layer Sigmoid0
I0430 22:12:24.868587   957 net.cpp:86] Creating Layer Sigmoid0
I0430 22:12:24.868590   957 net.cpp:408] Sigmoid0 <- conv0
I0430 22:12:24.868597   957 net.cpp:382] Sigmoid0 -> Sigmoid0
I0430 22:12:24.869791   957 net.cpp:124] Setting up Sigmoid0
I0430 22:12:24.869806   957 net.cpp:131] Top shape: 1000 8 34 34 (9248000)
I0430 22:12:24.869809   957 net.cpp:139] Memory required for data: 86284000
I0430 22:12:24.869813   957 layer_factory.hpp:77] Creating layer pool0
I0430 22:12:24.869824   957 net.cpp:86] Creating Layer pool0
I0430 22:12:24.869828   957 net.cpp:408] pool0 <- Sigmoid0
I0430 22:12:24.869835   957 net.cpp:382] pool0 -> pool0
I0430 22:12:24.870038   957 net.cpp:124] Setting up pool0
I0430 22:12:24.870048   957 net.cpp:131] Top shape: 1000 8 17 17 (2312000)
I0430 22:12:24.870052   957 net.cpp:139] Memory required for data: 95532000
I0430 22:12:24.870057   957 layer_factory.hpp:77] Creating layer ip1
I0430 22:12:24.870066   957 net.cpp:86] Creating Layer ip1
I0430 22:12:24.870070   957 net.cpp:408] ip1 <- pool0
I0430 22:12:24.870077   957 net.cpp:382] ip1 -> ip1
I0430 22:12:24.870990   957 net.cpp:124] Setting up ip1
I0430 22:12:24.870998   957 net.cpp:131] Top shape: 1000 10 (10000)
I0430 22:12:24.871002   957 net.cpp:139] Memory required for data: 95572000
I0430 22:12:24.871028   957 layer_factory.hpp:77] Creating layer relu1
I0430 22:12:24.871037   957 net.cpp:86] Creating Layer relu1
I0430 22:12:24.871042   957 net.cpp:408] relu1 <- ip1
I0430 22:12:24.871047   957 net.cpp:369] relu1 -> ip1 (in-place)
I0430 22:12:24.871242   957 net.cpp:124] Setting up relu1
I0430 22:12:24.871253   957 net.cpp:131] Top shape: 1000 10 (10000)
I0430 22:12:24.871256   957 net.cpp:139] Memory required for data: 95612000
I0430 22:12:24.871260   957 layer_factory.hpp:77] Creating layer ip2
I0430 22:12:24.871268   957 net.cpp:86] Creating Layer ip2
I0430 22:12:24.871273   957 net.cpp:408] ip2 <- ip1
I0430 22:12:24.871279   957 net.cpp:382] ip2 -> ip2
I0430 22:12:24.871403   957 net.cpp:124] Setting up ip2
I0430 22:12:24.871412   957 net.cpp:131] Top shape: 1000 10 (10000)
I0430 22:12:24.871417   957 net.cpp:139] Memory required for data: 95652000
I0430 22:12:24.871425   957 layer_factory.hpp:77] Creating layer relu2
I0430 22:12:24.871433   957 net.cpp:86] Creating Layer relu2
I0430 22:12:24.871439   957 net.cpp:408] relu2 <- ip2
I0430 22:12:24.871444   957 net.cpp:369] relu2 -> ip2 (in-place)
I0430 22:12:24.872334   957 net.cpp:124] Setting up relu2
I0430 22:12:24.872349   957 net.cpp:131] Top shape: 1000 10 (10000)
I0430 22:12:24.872354   957 net.cpp:139] Memory required for data: 95692000
I0430 22:12:24.872357   957 layer_factory.hpp:77] Creating layer ip3
I0430 22:12:24.872366   957 net.cpp:86] Creating Layer ip3
I0430 22:12:24.872370   957 net.cpp:408] ip3 <- ip2
I0430 22:12:24.872378   957 net.cpp:382] ip3 -> ip3
I0430 22:12:24.872514   957 net.cpp:124] Setting up ip3
I0430 22:12:24.872524   957 net.cpp:131] Top shape: 1000 20 (20000)
I0430 22:12:24.872527   957 net.cpp:139] Memory required for data: 95772000
I0430 22:12:24.872534   957 layer_factory.hpp:77] Creating layer relu3
I0430 22:12:24.872541   957 net.cpp:86] Creating Layer relu3
I0430 22:12:24.872545   957 net.cpp:408] relu3 <- ip3
I0430 22:12:24.872550   957 net.cpp:369] relu3 -> ip3 (in-place)
I0430 22:12:24.872732   957 net.cpp:124] Setting up relu3
I0430 22:12:24.872747   957 net.cpp:131] Top shape: 1000 20 (20000)
I0430 22:12:24.872751   957 net.cpp:139] Memory required for data: 95852000
I0430 22:12:24.872756   957 layer_factory.hpp:77] Creating layer ip4
I0430 22:12:24.872763   957 net.cpp:86] Creating Layer ip4
I0430 22:12:24.872767   957 net.cpp:408] ip4 <- ip3
I0430 22:12:24.872773   957 net.cpp:382] ip4 -> ip4
I0430 22:12:24.872908   957 net.cpp:124] Setting up ip4
I0430 22:12:24.872918   957 net.cpp:131] Top shape: 1000 10 (10000)
I0430 22:12:24.872922   957 net.cpp:139] Memory required for data: 95892000
I0430 22:12:24.872932   957 layer_factory.hpp:77] Creating layer ip4_ip4_0_split
I0430 22:12:24.872938   957 net.cpp:86] Creating Layer ip4_ip4_0_split
I0430 22:12:24.872943   957 net.cpp:408] ip4_ip4_0_split <- ip4
I0430 22:12:24.872949   957 net.cpp:382] ip4_ip4_0_split -> ip4_ip4_0_split_0
I0430 22:12:24.872956   957 net.cpp:382] ip4_ip4_0_split -> ip4_ip4_0_split_1
I0430 22:12:24.872993   957 net.cpp:124] Setting up ip4_ip4_0_split
I0430 22:12:24.873000   957 net.cpp:131] Top shape: 1000 10 (10000)
I0430 22:12:24.873005   957 net.cpp:131] Top shape: 1000 10 (10000)
I0430 22:12:24.873008   957 net.cpp:139] Memory required for data: 95972000
I0430 22:12:24.873013   957 layer_factory.hpp:77] Creating layer accuracy
I0430 22:12:24.873019   957 net.cpp:86] Creating Layer accuracy
I0430 22:12:24.873033   957 net.cpp:408] accuracy <- ip4_ip4_0_split_0
I0430 22:12:24.873037   957 net.cpp:408] accuracy <- label_cifar_1_split_0
I0430 22:12:24.873044   957 net.cpp:382] accuracy -> accuracy
…
