…
I0430 16:34:27.306064 17694 net.cpp:296] The NetState phase (0) differed from the phase (1) specified by a rule in layer cifar
I0430 16:34:27.306079 17694 net.cpp:296] The NetState phase (0) differed from the phase (1) specified by a rule in layer accuracy
I0430 16:34:27.306155 17694 net.cpp:53] Initializing net from parameters: 
name: "CIFAR"
state {
  phase: TRAIN
  level: 0
  stage: ""
}
layer {
  name: "cifar"
  type: "Data"
  top: "data"
  top: "label"
  include {
    phase: TRAIN
  }
  transform_param {
    mean_file: "examples/cifar10/mean.binaryproto"
  }
  data_param {
    source: "examples/cifar10/cifar10_train_lmdb"
    batch_size: 111
    backend: LMDB
  }
}
layer {
  name: "ip1"
  type: "InnerProduct"
  bottom: "data"
  top: "ip1"
  param {
    lr_mult: 1
  }
  param {
    lr_mult: 2
  }
  inner_product_param {
    num_output: 10
    weight_filler {
      type: "gaussian"
      std: 0.01
    }
    bias_filler {
      type: "constant"
    }
  }
}
layer {
  name: "relu1"
  type: "ReLU"
  bottom: "ip1"
  top: "ip1"
}
layer {
  name: "ip2"
  type: "InnerProduct"
  bottom: "ip1"
  top: "ip2"
  param {
    lr_mult: 1
  }
  param {
    lr_mult: 2
  }
  inner_product_param {
    num_output: 40
    weight_filler {
      type: "gaussian"
      std: 0.01
    }
    bias_filler {
      type: "constant"
    }
  }
}
layer {
  name: "relu2"
  type: "ReLU"
  bottom: "ip2"
  top: "ip2"
}
layer {
  name: "ip3"
  type: "InnerProduct"
  bottom: "ip2"
  top: "ip3"
  param {
    lr_mult: 1
  }
  param {
    lr_mult: 2
  }
  inner_product_param {
    num_output: 10
    weight_filler {
      type: "gaussian"
      std: 0.01
    }
    bias_filler {
      type: "constant"
    }
  }
}
layer {
  name: "loss"
  type: "SoftmaxWithLoss"
  bottom: "ip3"
  bottom: "label"
  top: "loss"
}
I0430 16:34:27.306221 17694 layer_factory.hpp:77] Creating layer cifar
I0430 16:34:27.306318 17694 db_lmdb.cpp:35] Opened lmdb examples/cifar10/cifar10_train_lmdb
I0430 16:34:27.306347 17694 net.cpp:86] Creating Layer cifar
I0430 16:34:27.306354 17694 net.cpp:382] cifar -> data
I0430 16:34:27.306378 17694 net.cpp:382] cifar -> label
I0430 16:34:27.306391 17694 data_transformer.cpp:25] Loading mean file from: examples/cifar10/mean.binaryproto
I0430 16:34:27.308493 17694 data_layer.cpp:45] output data size: 111,3,32,32
I0430 16:34:27.316578 17694 net.cpp:124] Setting up cifar
I0430 16:34:27.316598 17694 net.cpp:131] Top shape: 111 3 32 32 (340992)
I0430 16:34:27.316606 17694 net.cpp:131] Top shape: 111 (111)
I0430 16:34:27.316609 17694 net.cpp:139] Memory required for data: 1364412
I0430 16:34:27.316617 17694 layer_factory.hpp:77] Creating layer ip1
I0430 16:34:27.316630 17694 net.cpp:86] Creating Layer ip1
I0430 16:34:27.316637 17694 net.cpp:408] ip1 <- data
I0430 16:34:27.316649 17694 net.cpp:382] ip1 -> ip1
I0430 16:34:27.318857 17694 net.cpp:124] Setting up ip1
I0430 16:34:27.318874 17694 net.cpp:131] Top shape: 111 10 (1110)
I0430 16:34:27.318878 17694 net.cpp:139] Memory required for data: 1368852
I0430 16:34:27.318892 17694 layer_factory.hpp:77] Creating layer relu1
I0430 16:34:27.318902 17694 net.cpp:86] Creating Layer relu1
I0430 16:34:27.318905 17694 net.cpp:408] relu1 <- ip1
I0430 16:34:27.318910 17694 net.cpp:369] relu1 -> ip1 (in-place)
I0430 16:34:27.597954 17694 net.cpp:124] Setting up relu1
I0430 16:34:27.597981 17694 net.cpp:131] Top shape: 111 10 (1110)
I0430 16:34:27.597985 17694 net.cpp:139] Memory required for data: 1373292
I0430 16:34:27.598013 17694 layer_factory.hpp:77] Creating layer ip2
I0430 16:34:27.598026 17694 net.cpp:86] Creating Layer ip2
I0430 16:34:27.598045 17694 net.cpp:408] ip2 <- ip1
I0430 16:34:27.598053 17694 net.cpp:382] ip2 -> ip2
I0430 16:34:27.599050 17694 net.cpp:124] Setting up ip2
I0430 16:34:27.599062 17694 net.cpp:131] Top shape: 111 40 (4440)
I0430 16:34:27.599066 17694 net.cpp:139] Memory required for data: 1391052
I0430 16:34:27.599074 17694 layer_factory.hpp:77] Creating layer relu2
I0430 16:34:27.599082 17694 net.cpp:86] Creating Layer relu2
I0430 16:34:27.599086 17694 net.cpp:408] relu2 <- ip2
I0430 16:34:27.599090 17694 net.cpp:369] relu2 -> ip2 (in-place)
I0430 16:34:27.599792 17694 net.cpp:124] Setting up relu2
I0430 16:34:27.599803 17694 net.cpp:131] Top shape: 111 40 (4440)
I0430 16:34:27.599807 17694 net.cpp:139] Memory required for data: 1408812
I0430 16:34:27.599809 17694 layer_factory.hpp:77] Creating layer ip3
I0430 16:34:27.599817 17694 net.cpp:86] Creating Layer ip3
I0430 16:34:27.599819 17694 net.cpp:408] ip3 <- ip2
I0430 16:34:27.599824 17694 net.cpp:382] ip3 -> ip3
I0430 16:34:27.599928 17694 net.cpp:124] Setting up ip3
I0430 16:34:27.599936 17694 net.cpp:131] Top shape: 111 10 (1110)
I0430 16:34:27.599938 17694 net.cpp:139] Memory required for data: 1413252
I0430 16:34:27.599946 17694 layer_factory.hpp:77] Creating layer loss
I0430 16:34:27.599951 17694 net.cpp:86] Creating Layer loss
I0430 16:34:27.599954 17694 net.cpp:408] loss <- ip3
I0430 16:34:27.599958 17694 net.cpp:408] loss <- label
I0430 16:34:27.599963 17694 net.cpp:382] loss -> loss
I0430 16:34:27.599982 17694 layer_factory.hpp:77] Creating layer loss
…
I0430 16:34:27.600472 17694 solver.cpp:173] Creating test net (#0) specified by net file: ECE595/cifar/train_test/var_everything/cifar_train_test_7.prototxt
I0430 16:34:27.600493 17694 net.cpp:296] The NetState phase (1) differed from the phase (0) specified by a rule in layer cifar
I0430 16:34:27.600559 17694 net.cpp:53] Initializing net from parameters: 
name: "CIFAR"
state {
  phase: TEST
}
layer {
  name: "cifar"
  type: "Data"
  top: "data"
  top: "label"
  include {
    phase: TEST
  }
  transform_param {
    mean_file: "examples/cifar10/mean.binaryproto"
  }
  data_param {
    source: "examples/cifar10/cifar10_test_lmdb"
    batch_size: 1000
    backend: LMDB
  }
}
layer {
  name: "ip1"
  type: "InnerProduct"
  bottom: "data"
  top: "ip1"
  param {
    lr_mult: 1
  }
  param {
    lr_mult: 2
  }
  inner_product_param {
    num_output: 10
    weight_filler {
      type: "gaussian"
      std: 0.01
    }
    bias_filler {
      type: "constant"
    }
  }
}
layer {
  name: "relu1"
  type: "ReLU"
  bottom: "ip1"
  top: "ip1"
}
layer {
  name: "ip2"
  type: "InnerProduct"
  bottom: "ip1"
  top: "ip2"
  param {
    lr_mult: 1
  }
  param {
    lr_mult: 2
  }
  inner_product_param {
    num_output: 40
    weight_filler {
      type: "gaussian"
      std: 0.01
    }
    bias_filler {
      type: "constant"
    }
  }
}
layer {
  name: "relu2"
  type: "ReLU"
  bottom: "ip2"
  top: "ip2"
}
layer {
  name: "ip3"
  type: "InnerProduct"
  bottom: "ip2"
  top: "ip3"
  param {
    lr_mult: 1
  }
  param {
    lr_mult: 2
  }
  inner_product_param {
    num_output: 10
    weight_filler {
      type: "gaussian"
      std: 0.01
    }
    bias_filler {
      type: "constant"
    }
  }
}
layer {
  name: "accuracy"
  type: "Accuracy"
  bottom: "ip3"
  bottom: "label"
  top: "accuracy"
  include {
    phase: TEST
  }
}
layer {
  name: "loss"
  type: "SoftmaxWithLoss"
  bottom: "ip3"
  bottom: "label"
  top: "loss"
}
I0430 16:34:27.600625 17694 layer_factory.hpp:77] Creating layer cifar
I0430 16:34:27.600667 17694 db_lmdb.cpp:35] Opened lmdb examples/cifar10/cifar10_test_lmdb
I0430 16:34:27.600679 17694 net.cpp:86] Creating Layer cifar
I0430 16:34:27.600683 17694 net.cpp:382] cifar -> data
I0430 16:34:27.600692 17694 net.cpp:382] cifar -> label
I0430 16:34:27.600697 17694 data_transformer.cpp:25] Loading mean file from: examples/cifar10/mean.binaryproto
I0430 16:34:27.600855 17694 data_layer.cpp:45] output data size: 1000,3,32,32
I0430 16:34:27.622546 17694 net.cpp:124] Setting up cifar
I0430 16:34:27.622572 17694 net.cpp:131] Top shape: 1000 3 32 32 (3072000)
I0430 16:34:27.622577 17694 net.cpp:131] Top shape: 1000 (1000)
I0430 16:34:27.622581 17694 net.cpp:139] Memory required for data: 12292000
I0430 16:34:27.622586 17694 layer_factory.hpp:77] Creating layer label_cifar_1_split
I0430 16:34:27.622623 17694 net.cpp:86] Creating Layer label_cifar_1_split
I0430 16:34:27.622628 17694 net.cpp:408] label_cifar_1_split <- label
I0430 16:34:27.622633 17694 net.cpp:382] label_cifar_1_split -> label_cifar_1_split_0
I0430 16:34:27.622642 17694 net.cpp:382] label_cifar_1_split -> label_cifar_1_split_1
I0430 16:34:27.622690 17694 net.cpp:124] Setting up label_cifar_1_split
I0430 16:34:27.622695 17694 net.cpp:131] Top shape: 1000 (1000)
I0430 16:34:27.622699 17694 net.cpp:131] Top shape: 1000 (1000)
I0430 16:34:27.622701 17694 net.cpp:139] Memory required for data: 12300000
I0430 16:34:27.622704 17694 layer_factory.hpp:77] Creating layer ip1
I0430 16:34:27.622712 17694 net.cpp:86] Creating Layer ip1
I0430 16:34:27.622715 17694 net.cpp:408] ip1 <- data
I0430 16:34:27.622720 17694 net.cpp:382] ip1 -> ip1
I0430 16:34:27.623652 17694 net.cpp:124] Setting up ip1
I0430 16:34:27.623661 17694 net.cpp:131] Top shape: 1000 10 (10000)
I0430 16:34:27.623664 17694 net.cpp:139] Memory required for data: 12340000
I0430 16:34:27.623673 17694 layer_factory.hpp:77] Creating layer relu1
I0430 16:34:27.623679 17694 net.cpp:86] Creating Layer relu1
I0430 16:34:27.623682 17694 net.cpp:408] relu1 <- ip1
I0430 16:34:27.623685 17694 net.cpp:369] relu1 -> ip1 (in-place)
I0430 16:34:27.623858 17694 net.cpp:124] Setting up relu1
I0430 16:34:27.623867 17694 net.cpp:131] Top shape: 1000 10 (10000)
I0430 16:34:27.623869 17694 net.cpp:139] Memory required for data: 12380000
I0430 16:34:27.623872 17694 layer_factory.hpp:77] Creating layer ip2
I0430 16:34:27.623879 17694 net.cpp:86] Creating Layer ip2
I0430 16:34:27.623883 17694 net.cpp:408] ip2 <- ip1
I0430 16:34:27.623888 17694 net.cpp:382] ip2 -> ip2
I0430 16:34:27.623996 17694 net.cpp:124] Setting up ip2
I0430 16:34:27.624001 17694 net.cpp:131] Top shape: 1000 40 (40000)
I0430 16:34:27.624004 17694 net.cpp:139] Memory required for data: 12540000
I0430 16:34:27.624011 17694 layer_factory.hpp:77] Creating layer relu2
I0430 16:34:27.624016 17694 net.cpp:86] Creating Layer relu2
I0430 16:34:27.624018 17694 net.cpp:408] relu2 <- ip2
I0430 16:34:27.624022 17694 net.cpp:369] relu2 -> ip2 (in-place)
I0430 16:34:27.624840 17694 net.cpp:124] Setting up relu2
I0430 16:34:27.624852 17694 net.cpp:131] Top shape: 1000 40 (40000)
I0430 16:34:27.624856 17694 net.cpp:139] Memory required for data: 12700000
I0430 16:34:27.624860 17694 layer_factory.hpp:77] Creating layer ip3
I0430 16:34:27.624866 17694 net.cpp:86] Creating Layer ip3
I0430 16:34:27.624869 17694 net.cpp:408] ip3 <- ip2
I0430 16:34:27.624889 17694 net.cpp:382] ip3 -> ip3
I0430 16:34:27.625988 17694 net.cpp:124] Setting up ip3
I0430 16:34:27.625998 17694 net.cpp:131] Top shape: 1000 10 (10000)
I0430 16:34:27.626000 17694 net.cpp:139] Memory required for data: 12740000
I0430 16:34:27.626021 17694 layer_factory.hpp:77] Creating layer ip3_ip3_0_split
I0430 16:34:27.626027 17694 net.cpp:86] Creating Layer ip3_ip3_0_split
I0430 16:34:27.626030 17694 net.cpp:408] ip3_ip3_0_split <- ip3
I0430 16:34:27.626034 17694 net.cpp:382] ip3_ip3_0_split -> ip3_ip3_0_split_0
I0430 16:34:27.626040 17694 net.cpp:382] ip3_ip3_0_split -> ip3_ip3_0_split_1
I0430 16:34:27.626071 17694 net.cpp:124] Setting up ip3_ip3_0_split
I0430 16:34:27.626075 17694 net.cpp:131] Top shape: 1000 10 (10000)
I0430 16:34:27.626078 17694 net.cpp:131] Top shape: 1000 10 (10000)
I0430 16:34:27.626081 17694 net.cpp:139] Memory required for data: 12820000
I0430 16:34:27.626085 17694 layer_factory.hpp:77] Creating layer accuracy
I0430 16:34:27.626091 17694 net.cpp:86] Creating Layer accuracy
I0430 16:34:27.626093 17694 net.cpp:408] accuracy <- ip3_ip3_0_split_0
I0430 16:34:27.626103 17694 net.cpp:408] accuracy <- label_cifar_1_split_0
I0430 16:34:27.626107 17694 net.cpp:382] accuracy -> accuracy
…
