…
I0430 22:04:56.057817   409 net.cpp:296] The NetState phase (0) differed from the phase (1) specified by a rule in layer cifar
I0430 22:04:56.057835   409 net.cpp:296] The NetState phase (0) differed from the phase (1) specified by a rule in layer accuracy
I0430 22:04:56.057927   409 net.cpp:53] Initializing net from parameters: 
name: "CIFAR"
state {
  phase: TRAIN
  level: 0
  stage: ""
}
layer {
  name: "cifar"
  type: "Data"
  top: "data"
  top: "label"
  include {
    phase: TRAIN
  }
  transform_param {
    mean_file: "examples/cifar10/mean.binaryproto"
  }
  data_param {
    source: "examples/cifar10/cifar10_train_lmdb"
    batch_size: 111
    backend: LMDB
  }
}
layer {
  name: "conv0"
  type: "Convolution"
  bottom: "data"
  top: "conv0"
  param {
    lr_mult: 1
  }
  param {
    lr_mult: 2
  }
  convolution_param {
    num_output: 8
    pad: 2
    kernel_size: 3
    stride: 1
    weight_filler {
      type: "gaussian"
      std: 0.01
    }
    bias_filler {
      type: "constant"
    }
  }
}
layer {
  name: "Sigmoid0"
  type: "Sigmoid"
  bottom: "conv0"
  top: "Sigmoid0"
}
layer {
  name: "pool0"
  type: "Pooling"
  bottom: "Sigmoid0"
  top: "pool0"
  pooling_param {
    pool: AVE
    kernel_size: 3
    stride: 2
  }
}
layer {
  name: "ip1"
  type: "InnerProduct"
  bottom: "pool0"
  top: "ip1"
  param {
    lr_mult: 1
  }
  param {
    lr_mult: 2
  }
  inner_product_param {
    num_output: 160
    weight_filler {
      type: "gaussian"
      std: 0.01
    }
    bias_filler {
      type: "constant"
    }
  }
}
layer {
  name: "relu1"
  type: "ReLU"
  bottom: "ip1"
  top: "ip1"
}
layer {
  name: "ip2"
  type: "InnerProduct"
  bottom: "ip1"
  top: "ip2"
  param {
    lr_mult: 1
  }
  param {
    lr_mult: 2
  }
  inner_product_param {
    num_output: 40
    weight_filler {
      type: "gaussian"
      std: 0.01
    }
    bias_filler {
      type: "constant"
    }
  }
}
layer {
  name: "relu2"
  type: "ReLU"
  bottom: "ip2"
  top: "ip2"
}
layer {
  name: "ip3"
  type: "InnerProduct"
  bottom: "ip2"
  top: "ip3"
  param {
    lr_mult: 1
  }
  param {
    lr_mult: 2
  }
  inner_product_param {
    num_output: 10
    weight_filler {
      type: "gaussian"
      std: 0.01
    }
    bias_filler {
      type: "constant"
    }
  }
}
layer {
  name: "loss"
  type: "SoftmaxWithLoss"
  bottom: "ip3"
  bottom: "label"
  top: "loss"
}
I0430 22:04:56.057999   409 layer_factory.hpp:77] Creating layer cifar
I0430 22:04:56.058094   409 db_lmdb.cpp:35] Opened lmdb examples/cifar10/cifar10_train_lmdb
I0430 22:04:56.058121   409 net.cpp:86] Creating Layer cifar
I0430 22:04:56.058128   409 net.cpp:382] cifar -> data
I0430 22:04:56.058149   409 net.cpp:382] cifar -> label
I0430 22:04:56.058166   409 data_transformer.cpp:25] Loading mean file from: examples/cifar10/mean.binaryproto
I0430 22:04:56.060232   409 data_layer.cpp:45] output data size: 111,3,32,32
I0430 22:04:56.068017   409 net.cpp:124] Setting up cifar
I0430 22:04:56.068037   409 net.cpp:131] Top shape: 111 3 32 32 (340992)
I0430 22:04:56.068044   409 net.cpp:131] Top shape: 111 (111)
I0430 22:04:56.068048   409 net.cpp:139] Memory required for data: 1364412
I0430 22:04:56.068056   409 layer_factory.hpp:77] Creating layer conv0
I0430 22:04:56.068074   409 net.cpp:86] Creating Layer conv0
I0430 22:04:56.068080   409 net.cpp:408] conv0 <- data
I0430 22:04:56.068094   409 net.cpp:382] conv0 -> conv0
I0430 22:04:56.359098   409 net.cpp:124] Setting up conv0
I0430 22:04:56.359150   409 net.cpp:131] Top shape: 111 8 34 34 (1026528)
I0430 22:04:56.359156   409 net.cpp:139] Memory required for data: 5470524
I0430 22:04:56.359174   409 layer_factory.hpp:77] Creating layer Sigmoid0
I0430 22:04:56.359186   409 net.cpp:86] Creating Layer Sigmoid0
I0430 22:04:56.359191   409 net.cpp:408] Sigmoid0 <- conv0
I0430 22:04:56.359199   409 net.cpp:382] Sigmoid0 -> Sigmoid0
I0430 22:04:56.359412   409 net.cpp:124] Setting up Sigmoid0
I0430 22:04:56.359424   409 net.cpp:131] Top shape: 111 8 34 34 (1026528)
I0430 22:04:56.359428   409 net.cpp:139] Memory required for data: 9576636
I0430 22:04:56.359432   409 layer_factory.hpp:77] Creating layer pool0
I0430 22:04:56.359441   409 net.cpp:86] Creating Layer pool0
I0430 22:04:56.359443   409 net.cpp:408] pool0 <- Sigmoid0
I0430 22:04:56.359449   409 net.cpp:382] pool0 -> pool0
I0430 22:04:56.360321   409 net.cpp:124] Setting up pool0
I0430 22:04:56.360337   409 net.cpp:131] Top shape: 111 8 17 17 (256632)
I0430 22:04:56.360340   409 net.cpp:139] Memory required for data: 10603164
I0430 22:04:56.360345   409 layer_factory.hpp:77] Creating layer ip1
I0430 22:04:56.360355   409 net.cpp:86] Creating Layer ip1
I0430 22:04:56.360359   409 net.cpp:408] ip1 <- pool0
I0430 22:04:56.360365   409 net.cpp:382] ip1 -> ip1
I0430 22:04:56.373580   409 net.cpp:124] Setting up ip1
I0430 22:04:56.373595   409 net.cpp:131] Top shape: 111 160 (17760)
I0430 22:04:56.373600   409 net.cpp:139] Memory required for data: 10674204
I0430 22:04:56.373610   409 layer_factory.hpp:77] Creating layer relu1
I0430 22:04:56.373617   409 net.cpp:86] Creating Layer relu1
I0430 22:04:56.373621   409 net.cpp:408] relu1 <- ip1
I0430 22:04:56.373627   409 net.cpp:369] relu1 -> ip1 (in-place)
I0430 22:04:56.373814   409 net.cpp:124] Setting up relu1
I0430 22:04:56.373826   409 net.cpp:131] Top shape: 111 160 (17760)
I0430 22:04:56.373828   409 net.cpp:139] Memory required for data: 10745244
I0430 22:04:56.373832   409 layer_factory.hpp:77] Creating layer ip2
I0430 22:04:56.373839   409 net.cpp:86] Creating Layer ip2
I0430 22:04:56.373843   409 net.cpp:408] ip2 <- ip1
I0430 22:04:56.373849   409 net.cpp:382] ip2 -> ip2
I0430 22:04:56.375128   409 net.cpp:124] Setting up ip2
I0430 22:04:56.375144   409 net.cpp:131] Top shape: 111 40 (4440)
I0430 22:04:56.375147   409 net.cpp:139] Memory required for data: 10763004
I0430 22:04:56.375157   409 layer_factory.hpp:77] Creating layer relu2
I0430 22:04:56.375164   409 net.cpp:86] Creating Layer relu2
I0430 22:04:56.375167   409 net.cpp:408] relu2 <- ip2
I0430 22:04:56.375174   409 net.cpp:369] relu2 -> ip2 (in-place)
I0430 22:04:56.375370   409 net.cpp:124] Setting up relu2
I0430 22:04:56.375380   409 net.cpp:131] Top shape: 111 40 (4440)
I0430 22:04:56.375385   409 net.cpp:139] Memory required for data: 10780764
I0430 22:04:56.375387   409 layer_factory.hpp:77] Creating layer ip3
I0430 22:04:56.375396   409 net.cpp:86] Creating Layer ip3
I0430 22:04:56.375401   409 net.cpp:408] ip3 <- ip2
I0430 22:04:56.375407   409 net.cpp:382] ip3 -> ip3
I0430 22:04:56.376472   409 net.cpp:124] Setting up ip3
I0430 22:04:56.376487   409 net.cpp:131] Top shape: 111 10 (1110)
I0430 22:04:56.376492   409 net.cpp:139] Memory required for data: 10785204
I0430 22:04:56.376498   409 layer_factory.hpp:77] Creating layer loss
I0430 22:04:56.376505   409 net.cpp:86] Creating Layer loss
I0430 22:04:56.376509   409 net.cpp:408] loss <- ip3
I0430 22:04:56.376514   409 net.cpp:408] loss <- label
I0430 22:04:56.376520   409 net.cpp:382] loss -> loss
I0430 22:04:56.376538   409 layer_factory.hpp:77] Creating layer loss
…
I0430 22:04:56.377267   409 solver.cpp:173] Creating test net (#0) specified by net file: ECE595/cifar/train_test/var_everything/cifar_train_test_182.prototxt
I0430 22:04:56.377297   409 net.cpp:296] The NetState phase (1) differed from the phase (0) specified by a rule in layer cifar
I0430 22:04:56.377398   409 net.cpp:53] Initializing net from parameters: 
name: "CIFAR"
state {
  phase: TEST
}
layer {
  name: "cifar"
  type: "Data"
  top: "data"
  top: "label"
  include {
    phase: TEST
  }
  transform_param {
    mean_file: "examples/cifar10/mean.binaryproto"
  }
  data_param {
    source: "examples/cifar10/cifar10_test_lmdb"
    batch_size: 1000
    backend: LMDB
  }
}
layer {
  name: "conv0"
  type: "Convolution"
  bottom: "data"
  top: "conv0"
  param {
    lr_mult: 1
  }
  param {
    lr_mult: 2
  }
  convolution_param {
    num_output: 8
    pad: 2
    kernel_size: 3
    stride: 1
    weight_filler {
      type: "gaussian"
      std: 0.01
    }
    bias_filler {
      type: "constant"
    }
  }
}
layer {
  name: "Sigmoid0"
  type: "Sigmoid"
  bottom: "conv0"
  top: "Sigmoid0"
}
layer {
  name: "pool0"
  type: "Pooling"
  bottom: "Sigmoid0"
  top: "pool0"
  pooling_param {
    pool: AVE
    kernel_size: 3
    stride: 2
  }
}
layer {
  name: "ip1"
  type: "InnerProduct"
  bottom: "pool0"
  top: "ip1"
  param {
    lr_mult: 1
  }
  param {
    lr_mult: 2
  }
  inner_product_param {
    num_output: 160
    weight_filler {
      type: "gaussian"
      std: 0.01
    }
    bias_filler {
      type: "constant"
    }
  }
}
layer {
  name: "relu1"
  type: "ReLU"
  bottom: "ip1"
  top: "ip1"
}
layer {
  name: "ip2"
  type: "InnerProduct"
  bottom: "ip1"
  top: "ip2"
  param {
    lr_mult: 1
  }
  param {
    lr_mult: 2
  }
  inner_product_param {
    num_output: 40
    weight_filler {
      type: "gaussian"
      std: 0.01
    }
    bias_filler {
      type: "constant"
    }
  }
}
layer {
  name: "relu2"
  type: "ReLU"
  bottom: "ip2"
  top: "ip2"
}
layer {
  name: "ip3"
  type: "InnerProduct"
  bottom: "ip2"
  top: "ip3"
  param {
    lr_mult: 1
  }
  param {
    lr_mult: 2
  }
  inner_product_param {
    num_output: 10
    weight_filler {
      type: "gaussian"
      std: 0.01
    }
    bias_filler {
      type: "constant"
    }
  }
}
layer {
  name: "accuracy"
  type: "Accuracy"
  bottom: "ip3"
  bottom: "label"
  top: "accuracy"
  include {
    phase: TEST
  }
}
layer {
  name: "loss"
  type: "SoftmaxWithLoss"
  bottom: "ip3"
  bottom: "label"
  top: "loss"
}
I0430 22:04:56.377472   409 layer_factory.hpp:77] Creating layer cifar
I0430 22:04:56.377526   409 db_lmdb.cpp:35] Opened lmdb examples/cifar10/cifar10_test_lmdb
I0430 22:04:56.377538   409 net.cpp:86] Creating Layer cifar
I0430 22:04:56.377544   409 net.cpp:382] cifar -> data
I0430 22:04:56.377553   409 net.cpp:382] cifar -> label
I0430 22:04:56.377562   409 data_transformer.cpp:25] Loading mean file from: examples/cifar10/mean.binaryproto
I0430 22:04:56.377732   409 data_layer.cpp:45] output data size: 1000,3,32,32
I0430 22:04:56.402928   409 net.cpp:124] Setting up cifar
I0430 22:04:56.402956   409 net.cpp:131] Top shape: 1000 3 32 32 (3072000)
I0430 22:04:56.402963   409 net.cpp:131] Top shape: 1000 (1000)
I0430 22:04:56.402967   409 net.cpp:139] Memory required for data: 12292000
I0430 22:04:56.402973   409 layer_factory.hpp:77] Creating layer label_cifar_1_split
I0430 22:04:56.402987   409 net.cpp:86] Creating Layer label_cifar_1_split
I0430 22:04:56.403010   409 net.cpp:408] label_cifar_1_split <- label
I0430 22:04:56.403018   409 net.cpp:382] label_cifar_1_split -> label_cifar_1_split_0
I0430 22:04:56.403028   409 net.cpp:382] label_cifar_1_split -> label_cifar_1_split_1
I0430 22:04:56.403152   409 net.cpp:124] Setting up label_cifar_1_split
I0430 22:04:56.403162   409 net.cpp:131] Top shape: 1000 (1000)
I0430 22:04:56.403167   409 net.cpp:131] Top shape: 1000 (1000)
I0430 22:04:56.403170   409 net.cpp:139] Memory required for data: 12300000
I0430 22:04:56.403174   409 layer_factory.hpp:77] Creating layer conv0
I0430 22:04:56.403188   409 net.cpp:86] Creating Layer conv0
I0430 22:04:56.403192   409 net.cpp:408] conv0 <- data
I0430 22:04:56.403198   409 net.cpp:382] conv0 -> conv0
I0430 22:04:56.404925   409 net.cpp:124] Setting up conv0
I0430 22:04:56.404942   409 net.cpp:131] Top shape: 1000 8 34 34 (9248000)
I0430 22:04:56.404947   409 net.cpp:139] Memory required for data: 49292000
I0430 22:04:56.404958   409 layer_factory.hpp:77] Creating layer Sigmoid0
I0430 22:04:56.404966   409 net.cpp:86] Creating Layer Sigmoid0
I0430 22:04:56.404970   409 net.cpp:408] Sigmoid0 <- conv0
I0430 22:04:56.404976   409 net.cpp:382] Sigmoid0 -> Sigmoid0
I0430 22:04:56.405956   409 net.cpp:124] Setting up Sigmoid0
I0430 22:04:56.405971   409 net.cpp:131] Top shape: 1000 8 34 34 (9248000)
I0430 22:04:56.405974   409 net.cpp:139] Memory required for data: 86284000
I0430 22:04:56.405978   409 layer_factory.hpp:77] Creating layer pool0
I0430 22:04:56.405988   409 net.cpp:86] Creating Layer pool0
I0430 22:04:56.405992   409 net.cpp:408] pool0 <- Sigmoid0
I0430 22:04:56.405998   409 net.cpp:382] pool0 -> pool0
I0430 22:04:56.407157   409 net.cpp:124] Setting up pool0
I0430 22:04:56.407171   409 net.cpp:131] Top shape: 1000 8 17 17 (2312000)
I0430 22:04:56.407174   409 net.cpp:139] Memory required for data: 95532000
I0430 22:04:56.407178   409 layer_factory.hpp:77] Creating layer ip1
I0430 22:04:56.407188   409 net.cpp:86] Creating Layer ip1
I0430 22:04:56.407192   409 net.cpp:408] ip1 <- pool0
I0430 22:04:56.407199   409 net.cpp:382] ip1 -> ip1
I0430 22:04:56.420382   409 net.cpp:124] Setting up ip1
I0430 22:04:56.420399   409 net.cpp:131] Top shape: 1000 160 (160000)
I0430 22:04:56.420404   409 net.cpp:139] Memory required for data: 96172000
I0430 22:04:56.420414   409 layer_factory.hpp:77] Creating layer relu1
I0430 22:04:56.420423   409 net.cpp:86] Creating Layer relu1
I0430 22:04:56.420426   409 net.cpp:408] relu1 <- ip1
I0430 22:04:56.420433   409 net.cpp:369] relu1 -> ip1 (in-place)
I0430 22:04:56.420642   409 net.cpp:124] Setting up relu1
I0430 22:04:56.420655   409 net.cpp:131] Top shape: 1000 160 (160000)
I0430 22:04:56.420660   409 net.cpp:139] Memory required for data: 96812000
I0430 22:04:56.420662   409 layer_factory.hpp:77] Creating layer ip2
I0430 22:04:56.420670   409 net.cpp:86] Creating Layer ip2
I0430 22:04:56.420675   409 net.cpp:408] ip2 <- ip1
I0430 22:04:56.420680   409 net.cpp:382] ip2 -> ip2
I0430 22:04:56.421022   409 net.cpp:124] Setting up ip2
I0430 22:04:56.421033   409 net.cpp:131] Top shape: 1000 40 (40000)
I0430 22:04:56.421037   409 net.cpp:139] Memory required for data: 96972000
I0430 22:04:56.421046   409 layer_factory.hpp:77] Creating layer relu2
I0430 22:04:56.421053   409 net.cpp:86] Creating Layer relu2
I0430 22:04:56.421057   409 net.cpp:408] relu2 <- ip2
I0430 22:04:56.421062   409 net.cpp:369] relu2 -> ip2 (in-place)
I0430 22:04:56.421253   409 net.cpp:124] Setting up relu2
I0430 22:04:56.421263   409 net.cpp:131] Top shape: 1000 40 (40000)
I0430 22:04:56.421267   409 net.cpp:139] Memory required for data: 97132000
I0430 22:04:56.421272   409 layer_factory.hpp:77] Creating layer ip3
I0430 22:04:56.421279   409 net.cpp:86] Creating Layer ip3
I0430 22:04:56.421283   409 net.cpp:408] ip3 <- ip2
I0430 22:04:56.421288   409 net.cpp:382] ip3 -> ip3
I0430 22:04:56.421421   409 net.cpp:124] Setting up ip3
I0430 22:04:56.421429   409 net.cpp:131] Top shape: 1000 10 (10000)
I0430 22:04:56.421432   409 net.cpp:139] Memory required for data: 97172000
I0430 22:04:56.421452   409 layer_factory.hpp:77] Creating layer ip3_ip3_0_split
I0430 22:04:56.421459   409 net.cpp:86] Creating Layer ip3_ip3_0_split
I0430 22:04:56.421463   409 net.cpp:408] ip3_ip3_0_split <- ip3
I0430 22:04:56.421468   409 net.cpp:382] ip3_ip3_0_split -> ip3_ip3_0_split_0
I0430 22:04:56.421475   409 net.cpp:382] ip3_ip3_0_split -> ip3_ip3_0_split_1
I0430 22:04:56.421514   409 net.cpp:124] Setting up ip3_ip3_0_split
I0430 22:04:56.421521   409 net.cpp:131] Top shape: 1000 10 (10000)
I0430 22:04:56.421525   409 net.cpp:131] Top shape: 1000 10 (10000)
I0430 22:04:56.421530   409 net.cpp:139] Memory required for data: 97252000
I0430 22:04:56.421532   409 layer_factory.hpp:77] Creating layer accuracy
I0430 22:04:56.421540   409 net.cpp:86] Creating Layer accuracy
I0430 22:04:56.421543   409 net.cpp:408] accuracy <- ip3_ip3_0_split_0
I0430 22:04:56.421548   409 net.cpp:408] accuracy <- label_cifar_1_split_0
I0430 22:04:56.421555   409 net.cpp:382] accuracy -> accuracy
…
