…
I0501 01:33:14.641337 11126 net.cpp:296] The NetState phase (0) differed from the phase (1) specified by a rule in layer cifar
I0501 01:33:14.641355 11126 net.cpp:296] The NetState phase (0) differed from the phase (1) specified by a rule in layer accuracy
I0501 01:33:14.641453 11126 net.cpp:53] Initializing net from parameters: 
name: "CIFAR"
state {
  phase: TRAIN
  level: 0
  stage: ""
}
layer {
  name: "cifar"
  type: "Data"
  top: "data"
  top: "label"
  include {
    phase: TRAIN
  }
  transform_param {
    mean_file: "examples/cifar10/mean.binaryproto"
  }
  data_param {
    source: "examples/cifar10/cifar10_train_lmdb"
    batch_size: 111
    backend: LMDB
  }
}
layer {
  name: "conv0"
  type: "Convolution"
  bottom: "data"
  top: "conv0"
  param {
    lr_mult: 1
  }
  param {
    lr_mult: 2
  }
  convolution_param {
    num_output: 8
    pad: 2
    kernel_size: 3
    stride: 1
    weight_filler {
      type: "gaussian"
      std: 0.01
    }
    bias_filler {
      type: "constant"
    }
  }
}
layer {
  name: "Sigmoid0"
  type: "Sigmoid"
  bottom: "conv0"
  top: "Sigmoid0"
}
layer {
  name: "pool0"
  type: "Pooling"
  bottom: "Sigmoid0"
  top: "pool0"
  pooling_param {
    pool: AVE
    kernel_size: 3
    stride: 2
  }
}
layer {
  name: "ip1"
  type: "InnerProduct"
  bottom: "pool0"
  top: "ip1"
  param {
    lr_mult: 1
  }
  param {
    lr_mult: 2
  }
  inner_product_param {
    num_output: 160
    weight_filler {
      type: "gaussian"
      std: 0.01
    }
    bias_filler {
      type: "constant"
    }
  }
}
layer {
  name: "relu1"
  type: "ReLU"
  bottom: "ip1"
  top: "ip1"
}
layer {
  name: "ip2"
  type: "InnerProduct"
  bottom: "ip1"
  top: "ip2"
  param {
    lr_mult: 1
  }
  param {
    lr_mult: 2
  }
  inner_product_param {
    num_output: 20
    weight_filler {
      type: "gaussian"
      std: 0.01
    }
    bias_filler {
      type: "constant"
    }
  }
}
layer {
  name: "relu2"
  type: "ReLU"
  bottom: "ip2"
  top: "ip2"
}
layer {
  name: "ip3"
  type: "InnerProduct"
  bottom: "ip2"
  top: "ip3"
  param {
    lr_mult: 1
  }
  param {
    lr_mult: 2
  }
  inner_product_param {
    num_output: 80
    weight_filler {
      type: "gaussian"
      std: 0.01
    }
    bias_filler {
      type: "constant"
    }
  }
}
layer {
  name: "relu3"
  type: "ReLU"
  bottom: "ip3"
  top: "ip3"
}
layer {
  name: "ip4"
  type: "InnerProduct"
  bottom: "ip3"
  top: "ip4"
  param {
    lr_mult: 1
  }
  param {
    lr_mult: 2
  }
  inner_product_param {
    num_output: 10
    weight_filler {
      type: "gaussian"
      std: 0.01
    }
    bias_filler {
      type: "constant"
    }
  }
}
layer {
  name: "loss"
  type: "SoftmaxWithLoss"
  bottom: "ip4"
  bottom: "label"
  top: "loss"
}
I0501 01:33:14.641527 11126 layer_factory.hpp:77] Creating layer cifar
I0501 01:33:14.641626 11126 db_lmdb.cpp:35] Opened lmdb examples/cifar10/cifar10_train_lmdb
I0501 01:33:14.641654 11126 net.cpp:86] Creating Layer cifar
I0501 01:33:14.641660 11126 net.cpp:382] cifar -> data
I0501 01:33:14.641683 11126 net.cpp:382] cifar -> label
I0501 01:33:14.641695 11126 data_transformer.cpp:25] Loading mean file from: examples/cifar10/mean.binaryproto
I0501 01:33:14.643832 11126 data_layer.cpp:45] output data size: 111,3,32,32
I0501 01:33:14.651934 11126 net.cpp:124] Setting up cifar
I0501 01:33:14.651954 11126 net.cpp:131] Top shape: 111 3 32 32 (340992)
I0501 01:33:14.651960 11126 net.cpp:131] Top shape: 111 (111)
I0501 01:33:14.651964 11126 net.cpp:139] Memory required for data: 1364412
I0501 01:33:14.651988 11126 layer_factory.hpp:77] Creating layer conv0
I0501 01:33:14.652006 11126 net.cpp:86] Creating Layer conv0
I0501 01:33:14.652012 11126 net.cpp:408] conv0 <- data
I0501 01:33:14.652024 11126 net.cpp:382] conv0 -> conv0
I0501 01:33:14.939283 11126 net.cpp:124] Setting up conv0
I0501 01:33:14.939311 11126 net.cpp:131] Top shape: 111 8 34 34 (1026528)
I0501 01:33:14.939316 11126 net.cpp:139] Memory required for data: 5470524
I0501 01:33:14.939332 11126 layer_factory.hpp:77] Creating layer Sigmoid0
I0501 01:33:14.939343 11126 net.cpp:86] Creating Layer Sigmoid0
I0501 01:33:14.939347 11126 net.cpp:408] Sigmoid0 <- conv0
I0501 01:33:14.939352 11126 net.cpp:382] Sigmoid0 -> Sigmoid0
I0501 01:33:14.939535 11126 net.cpp:124] Setting up Sigmoid0
I0501 01:33:14.939545 11126 net.cpp:131] Top shape: 111 8 34 34 (1026528)
I0501 01:33:14.939548 11126 net.cpp:139] Memory required for data: 9576636
I0501 01:33:14.939551 11126 layer_factory.hpp:77] Creating layer pool0
I0501 01:33:14.939559 11126 net.cpp:86] Creating Layer pool0
I0501 01:33:14.939563 11126 net.cpp:408] pool0 <- Sigmoid0
I0501 01:33:14.939568 11126 net.cpp:382] pool0 -> pool0
I0501 01:33:14.940325 11126 net.cpp:124] Setting up pool0
I0501 01:33:14.940340 11126 net.cpp:131] Top shape: 111 8 17 17 (256632)
I0501 01:33:14.940342 11126 net.cpp:139] Memory required for data: 10603164
I0501 01:33:14.940346 11126 layer_factory.hpp:77] Creating layer ip1
I0501 01:33:14.940356 11126 net.cpp:86] Creating Layer ip1
I0501 01:33:14.940359 11126 net.cpp:408] ip1 <- pool0
I0501 01:33:14.940364 11126 net.cpp:382] ip1 -> ip1
I0501 01:33:14.951525 11126 net.cpp:124] Setting up ip1
I0501 01:33:14.951537 11126 net.cpp:131] Top shape: 111 160 (17760)
I0501 01:33:14.951541 11126 net.cpp:139] Memory required for data: 10674204
I0501 01:33:14.951550 11126 layer_factory.hpp:77] Creating layer relu1
I0501 01:33:14.951556 11126 net.cpp:86] Creating Layer relu1
I0501 01:33:14.951560 11126 net.cpp:408] relu1 <- ip1
I0501 01:33:14.951563 11126 net.cpp:369] relu1 -> ip1 (in-place)
I0501 01:33:14.951717 11126 net.cpp:124] Setting up relu1
I0501 01:33:14.951726 11126 net.cpp:131] Top shape: 111 160 (17760)
I0501 01:33:14.951730 11126 net.cpp:139] Memory required for data: 10745244
I0501 01:33:14.951732 11126 layer_factory.hpp:77] Creating layer ip2
I0501 01:33:14.951740 11126 net.cpp:86] Creating Layer ip2
I0501 01:33:14.951742 11126 net.cpp:408] ip2 <- ip1
I0501 01:33:14.951747 11126 net.cpp:382] ip2 -> ip2
I0501 01:33:14.951928 11126 net.cpp:124] Setting up ip2
I0501 01:33:14.951936 11126 net.cpp:131] Top shape: 111 20 (2220)
I0501 01:33:14.951938 11126 net.cpp:139] Memory required for data: 10754124
I0501 01:33:14.951946 11126 layer_factory.hpp:77] Creating layer relu2
I0501 01:33:14.951951 11126 net.cpp:86] Creating Layer relu2
I0501 01:33:14.951953 11126 net.cpp:408] relu2 <- ip2
I0501 01:33:14.951957 11126 net.cpp:369] relu2 -> ip2 (in-place)
I0501 01:33:14.952108 11126 net.cpp:124] Setting up relu2
I0501 01:33:14.952116 11126 net.cpp:131] Top shape: 111 20 (2220)
I0501 01:33:14.952119 11126 net.cpp:139] Memory required for data: 10763004
I0501 01:33:14.952122 11126 layer_factory.hpp:77] Creating layer ip3
I0501 01:33:14.952131 11126 net.cpp:86] Creating Layer ip3
I0501 01:33:14.952133 11126 net.cpp:408] ip3 <- ip2
I0501 01:33:14.952138 11126 net.cpp:382] ip3 -> ip3
I0501 01:33:14.952268 11126 net.cpp:124] Setting up ip3
I0501 01:33:14.952275 11126 net.cpp:131] Top shape: 111 80 (8880)
I0501 01:33:14.952278 11126 net.cpp:139] Memory required for data: 10798524
I0501 01:33:14.952283 11126 layer_factory.hpp:77] Creating layer relu3
I0501 01:33:14.952288 11126 net.cpp:86] Creating Layer relu3
I0501 01:33:14.952291 11126 net.cpp:408] relu3 <- ip3
I0501 01:33:14.952296 11126 net.cpp:369] relu3 -> ip3 (in-place)
I0501 01:33:14.952435 11126 net.cpp:124] Setting up relu3
I0501 01:33:14.952443 11126 net.cpp:131] Top shape: 111 80 (8880)
I0501 01:33:14.952446 11126 net.cpp:139] Memory required for data: 10834044
I0501 01:33:14.952448 11126 layer_factory.hpp:77] Creating layer ip4
I0501 01:33:14.952468 11126 net.cpp:86] Creating Layer ip4
I0501 01:33:14.952471 11126 net.cpp:408] ip4 <- ip3
I0501 01:33:14.952476 11126 net.cpp:382] ip4 -> ip4
I0501 01:33:14.953421 11126 net.cpp:124] Setting up ip4
I0501 01:33:14.953433 11126 net.cpp:131] Top shape: 111 10 (1110)
I0501 01:33:14.953438 11126 net.cpp:139] Memory required for data: 10838484
I0501 01:33:14.953445 11126 layer_factory.hpp:77] Creating layer loss
I0501 01:33:14.953456 11126 net.cpp:86] Creating Layer loss
I0501 01:33:14.953460 11126 net.cpp:408] loss <- ip4
I0501 01:33:14.953464 11126 net.cpp:408] loss <- label
I0501 01:33:14.953469 11126 net.cpp:382] loss -> loss
I0501 01:33:14.953487 11126 layer_factory.hpp:77] Creating layer loss
…
I0501 01:33:14.954679 11126 solver.cpp:173] Creating test net (#0) specified by net file: ECE595/cifar/train_test/var_everything/cifar_train_test_293.prototxt
I0501 01:33:14.954707 11126 net.cpp:296] The NetState phase (1) differed from the phase (0) specified by a rule in layer cifar
I0501 01:33:14.954805 11126 net.cpp:53] Initializing net from parameters: 
name: "CIFAR"
state {
  phase: TEST
}
layer {
  name: "cifar"
  type: "Data"
  top: "data"
  top: "label"
  include {
    phase: TEST
  }
  transform_param {
    mean_file: "examples/cifar10/mean.binaryproto"
  }
  data_param {
    source: "examples/cifar10/cifar10_test_lmdb"
    batch_size: 1000
    backend: LMDB
  }
}
layer {
  name: "conv0"
  type: "Convolution"
  bottom: "data"
  top: "conv0"
  param {
    lr_mult: 1
  }
  param {
    lr_mult: 2
  }
  convolution_param {
    num_output: 8
    pad: 2
    kernel_size: 3
    stride: 1
    weight_filler {
      type: "gaussian"
      std: 0.01
    }
    bias_filler {
      type: "constant"
    }
  }
}
layer {
  name: "Sigmoid0"
  type: "Sigmoid"
  bottom: "conv0"
  top: "Sigmoid0"
}
layer {
  name: "pool0"
  type: "Pooling"
  bottom: "Sigmoid0"
  top: "pool0"
  pooling_param {
    pool: AVE
    kernel_size: 3
    stride: 2
  }
}
layer {
  name: "ip1"
  type: "InnerProduct"
  bottom: "pool0"
  top: "ip1"
  param {
    lr_mult: 1
  }
  param {
    lr_mult: 2
  }
  inner_product_param {
    num_output: 160
    weight_filler {
      type: "gaussian"
      std: 0.01
    }
    bias_filler {
      type: "constant"
    }
  }
}
layer {
  name: "relu1"
  type: "ReLU"
  bottom: "ip1"
  top: "ip1"
}
layer {
  name: "ip2"
  type: "InnerProduct"
  bottom: "ip1"
  top: "ip2"
  param {
    lr_mult: 1
  }
  param {
    lr_mult: 2
  }
  inner_product_param {
    num_output: 20
    weight_filler {
      type: "gaussian"
      std: 0.01
    }
    bias_filler {
      type: "constant"
    }
  }
}
layer {
  name: "relu2"
  type: "ReLU"
  bottom: "ip2"
  top: "ip2"
}
layer {
  name: "ip3"
  type: "InnerProduct"
  bottom: "ip2"
  top: "ip3"
  param {
    lr_mult: 1
  }
  param {
    lr_mult: 2
  }
  inner_product_param {
    num_output: 80
    weight_filler {
      type: "gaussian"
      std: 0.01
    }
    bias_filler {
      type: "constant"
    }
  }
}
layer {
  name: "relu3"
  type: "ReLU"
  bottom: "ip3"
  top: "ip3"
}
layer {
  name: "ip4"
  type: "InnerProduct"
  bottom: "ip3"
  top: "ip4"
  param {
    lr_mult: 1
  }
  param {
    lr_mult: 2
  }
  inner_product_param {
    num_output: 10
    weight_filler {
      type: "gaussian"
      std: 0.01
    }
    bias_filler {
      type: "constant"
    }
  }
}
layer {
  name: "accuracy"
  type: "Accuracy"
  bottom: "ip4"
  bottom: "label"
  top: "accuracy"
  include {
    phase: TEST
  }
}
layer {
  name: "loss"
  type: "SoftmaxWithLoss"
  bottom: "ip4"
  bottom: "label"
  top: "loss"
}
I0501 01:33:14.954883 11126 layer_factory.hpp:77] Creating layer cifar
I0501 01:33:14.954931 11126 db_lmdb.cpp:35] Opened lmdb examples/cifar10/cifar10_test_lmdb
I0501 01:33:14.954942 11126 net.cpp:86] Creating Layer cifar
I0501 01:33:14.954946 11126 net.cpp:382] cifar -> data
I0501 01:33:14.954954 11126 net.cpp:382] cifar -> label
I0501 01:33:14.954962 11126 data_transformer.cpp:25] Loading mean file from: examples/cifar10/mean.binaryproto
I0501 01:33:14.955106 11126 data_layer.cpp:45] output data size: 1000,3,32,32
I0501 01:33:14.977321 11126 net.cpp:124] Setting up cifar
I0501 01:33:14.977346 11126 net.cpp:131] Top shape: 1000 3 32 32 (3072000)
I0501 01:33:14.977351 11126 net.cpp:131] Top shape: 1000 (1000)
I0501 01:33:14.977355 11126 net.cpp:139] Memory required for data: 12292000
I0501 01:33:14.977360 11126 layer_factory.hpp:77] Creating layer label_cifar_1_split
I0501 01:33:14.977372 11126 net.cpp:86] Creating Layer label_cifar_1_split
I0501 01:33:14.977376 11126 net.cpp:408] label_cifar_1_split <- label
I0501 01:33:14.977382 11126 net.cpp:382] label_cifar_1_split -> label_cifar_1_split_0
I0501 01:33:14.977391 11126 net.cpp:382] label_cifar_1_split -> label_cifar_1_split_1
I0501 01:33:14.977480 11126 net.cpp:124] Setting up label_cifar_1_split
I0501 01:33:14.977488 11126 net.cpp:131] Top shape: 1000 (1000)
I0501 01:33:14.977491 11126 net.cpp:131] Top shape: 1000 (1000)
I0501 01:33:14.977494 11126 net.cpp:139] Memory required for data: 12300000
I0501 01:33:14.977497 11126 layer_factory.hpp:77] Creating layer conv0
I0501 01:33:14.977509 11126 net.cpp:86] Creating Layer conv0
I0501 01:33:14.977511 11126 net.cpp:408] conv0 <- data
I0501 01:33:14.977516 11126 net.cpp:382] conv0 -> conv0
I0501 01:33:14.979118 11126 net.cpp:124] Setting up conv0
I0501 01:33:14.979131 11126 net.cpp:131] Top shape: 1000 8 34 34 (9248000)
I0501 01:33:14.979135 11126 net.cpp:139] Memory required for data: 49292000
I0501 01:33:14.979146 11126 layer_factory.hpp:77] Creating layer Sigmoid0
I0501 01:33:14.979151 11126 net.cpp:86] Creating Layer Sigmoid0
I0501 01:33:14.979156 11126 net.cpp:408] Sigmoid0 <- conv0
I0501 01:33:14.979159 11126 net.cpp:382] Sigmoid0 -> Sigmoid0
I0501 01:33:14.979348 11126 net.cpp:124] Setting up Sigmoid0
I0501 01:33:14.979357 11126 net.cpp:131] Top shape: 1000 8 34 34 (9248000)
I0501 01:33:14.979360 11126 net.cpp:139] Memory required for data: 86284000
I0501 01:33:14.979364 11126 layer_factory.hpp:77] Creating layer pool0
I0501 01:33:14.979372 11126 net.cpp:86] Creating Layer pool0
I0501 01:33:14.979375 11126 net.cpp:408] pool0 <- Sigmoid0
I0501 01:33:14.979379 11126 net.cpp:382] pool0 -> pool0
I0501 01:33:14.979660 11126 net.cpp:124] Setting up pool0
I0501 01:33:14.979670 11126 net.cpp:131] Top shape: 1000 8 17 17 (2312000)
I0501 01:33:14.979673 11126 net.cpp:139] Memory required for data: 95532000
I0501 01:33:14.979676 11126 layer_factory.hpp:77] Creating layer ip1
I0501 01:33:14.979684 11126 net.cpp:86] Creating Layer ip1
I0501 01:33:14.979687 11126 net.cpp:408] ip1 <- pool0
I0501 01:33:14.979692 11126 net.cpp:382] ip1 -> ip1
I0501 01:33:14.991224 11126 net.cpp:124] Setting up ip1
I0501 01:33:14.991252 11126 net.cpp:131] Top shape: 1000 160 (160000)
I0501 01:33:14.991255 11126 net.cpp:139] Memory required for data: 96172000
I0501 01:33:14.991278 11126 layer_factory.hpp:77] Creating layer relu1
I0501 01:33:14.991286 11126 net.cpp:86] Creating Layer relu1
I0501 01:33:14.991304 11126 net.cpp:408] relu1 <- ip1
I0501 01:33:14.991309 11126 net.cpp:369] relu1 -> ip1 (in-place)
I0501 01:33:14.991523 11126 net.cpp:124] Setting up relu1
I0501 01:33:14.991531 11126 net.cpp:131] Top shape: 1000 160 (160000)
I0501 01:33:14.991534 11126 net.cpp:139] Memory required for data: 96812000
I0501 01:33:14.991539 11126 layer_factory.hpp:77] Creating layer ip2
I0501 01:33:14.991547 11126 net.cpp:86] Creating Layer ip2
I0501 01:33:14.991550 11126 net.cpp:408] ip2 <- ip1
I0501 01:33:14.991555 11126 net.cpp:382] ip2 -> ip2
I0501 01:33:14.991745 11126 net.cpp:124] Setting up ip2
I0501 01:33:14.991752 11126 net.cpp:131] Top shape: 1000 20 (20000)
I0501 01:33:14.991755 11126 net.cpp:139] Memory required for data: 96892000
I0501 01:33:14.991763 11126 layer_factory.hpp:77] Creating layer relu2
I0501 01:33:14.991768 11126 net.cpp:86] Creating Layer relu2
I0501 01:33:14.991771 11126 net.cpp:408] relu2 <- ip2
I0501 01:33:14.991775 11126 net.cpp:369] relu2 -> ip2 (in-place)
I0501 01:33:14.992509 11126 net.cpp:124] Setting up relu2
I0501 01:33:14.992522 11126 net.cpp:131] Top shape: 1000 20 (20000)
I0501 01:33:14.992539 11126 net.cpp:139] Memory required for data: 96972000
I0501 01:33:14.992542 11126 layer_factory.hpp:77] Creating layer ip3
I0501 01:33:14.992564 11126 net.cpp:86] Creating Layer ip3
I0501 01:33:14.992568 11126 net.cpp:408] ip3 <- ip2
I0501 01:33:14.992574 11126 net.cpp:382] ip3 -> ip3
I0501 01:33:14.992738 11126 net.cpp:124] Setting up ip3
I0501 01:33:14.992745 11126 net.cpp:131] Top shape: 1000 80 (80000)
I0501 01:33:14.992748 11126 net.cpp:139] Memory required for data: 97292000
I0501 01:33:14.992753 11126 layer_factory.hpp:77] Creating layer relu3
I0501 01:33:14.992758 11126 net.cpp:86] Creating Layer relu3
I0501 01:33:14.992761 11126 net.cpp:408] relu3 <- ip3
I0501 01:33:14.992765 11126 net.cpp:369] relu3 -> ip3 (in-place)
I0501 01:33:14.992969 11126 net.cpp:124] Setting up relu3
I0501 01:33:14.992980 11126 net.cpp:131] Top shape: 1000 80 (80000)
I0501 01:33:14.992982 11126 net.cpp:139] Memory required for data: 97612000
I0501 01:33:14.992986 11126 layer_factory.hpp:77] Creating layer ip4
I0501 01:33:14.992992 11126 net.cpp:86] Creating Layer ip4
I0501 01:33:14.992995 11126 net.cpp:408] ip4 <- ip3
I0501 01:33:14.993001 11126 net.cpp:382] ip4 -> ip4
I0501 01:33:14.993134 11126 net.cpp:124] Setting up ip4
I0501 01:33:14.993141 11126 net.cpp:131] Top shape: 1000 10 (10000)
I0501 01:33:14.993144 11126 net.cpp:139] Memory required for data: 97652000
I0501 01:33:14.993154 11126 layer_factory.hpp:77] Creating layer ip4_ip4_0_split
I0501 01:33:14.993158 11126 net.cpp:86] Creating Layer ip4_ip4_0_split
I0501 01:33:14.993161 11126 net.cpp:408] ip4_ip4_0_split <- ip4
I0501 01:33:14.993177 11126 net.cpp:382] ip4_ip4_0_split -> ip4_ip4_0_split_0
I0501 01:33:14.993197 11126 net.cpp:382] ip4_ip4_0_split -> ip4_ip4_0_split_1
I0501 01:33:14.993228 11126 net.cpp:124] Setting up ip4_ip4_0_split
I0501 01:33:14.993233 11126 net.cpp:131] Top shape: 1000 10 (10000)
I0501 01:33:14.993237 11126 net.cpp:131] Top shape: 1000 10 (10000)
I0501 01:33:14.993239 11126 net.cpp:139] Memory required for data: 97732000
I0501 01:33:14.993242 11126 layer_factory.hpp:77] Creating layer accuracy
I0501 01:33:14.993248 11126 net.cpp:86] Creating Layer accuracy
I0501 01:33:14.993252 11126 net.cpp:408] accuracy <- ip4_ip4_0_split_0
I0501 01:33:14.993255 11126 net.cpp:408] accuracy <- label_cifar_1_split_0
I0501 01:33:14.993259 11126 net.cpp:382] accuracy -> accuracy
…
