…
I0501 05:55:56.000701 30913 net.cpp:296] The NetState phase (0) differed from the phase (1) specified by a rule in layer cifar
I0501 05:55:56.000720 30913 net.cpp:296] The NetState phase (0) differed from the phase (1) specified by a rule in layer accuracy
I0501 05:55:56.000833 30913 net.cpp:53] Initializing net from parameters: 
name: "CIFAR"
state {
  phase: TRAIN
  level: 0
  stage: ""
}
layer {
  name: "cifar"
  type: "Data"
  top: "data"
  top: "label"
  include {
    phase: TRAIN
  }
  transform_param {
    mean_file: "examples/cifar10/mean.binaryproto"
  }
  data_param {
    source: "examples/cifar10/cifar10_train_lmdb"
    batch_size: 111
    backend: LMDB
  }
}
layer {
  name: "conv0"
  type: "Convolution"
  bottom: "data"
  top: "conv0"
  param {
    lr_mult: 1
  }
  param {
    lr_mult: 2
  }
  convolution_param {
    num_output: 8
    pad: 2
    kernel_size: 5
    stride: 1
    weight_filler {
      type: "gaussian"
      std: 0.01
    }
    bias_filler {
      type: "constant"
    }
  }
}
layer {
  name: "Sigmoid0"
  type: "Sigmoid"
  bottom: "conv0"
  top: "Sigmoid0"
}
layer {
  name: "pool0"
  type: "Pooling"
  bottom: "Sigmoid0"
  top: "pool0"
  pooling_param {
    pool: AVE
    kernel_size: 3
    stride: 2
  }
}
layer {
  name: "ip1"
  type: "InnerProduct"
  bottom: "pool0"
  top: "ip1"
  param {
    lr_mult: 1
  }
  param {
    lr_mult: 2
  }
  inner_product_param {
    num_output: 80
    weight_filler {
      type: "gaussian"
      std: 0.01
    }
    bias_filler {
      type: "constant"
    }
  }
}
layer {
  name: "relu1"
  type: "ReLU"
  bottom: "ip1"
  top: "ip1"
}
layer {
  name: "ip2"
  type: "InnerProduct"
  bottom: "ip1"
  top: "ip2"
  param {
    lr_mult: 1
  }
  param {
    lr_mult: 2
  }
  inner_product_param {
    num_output: 80
    weight_filler {
      type: "gaussian"
      std: 0.01
    }
    bias_filler {
      type: "constant"
    }
  }
}
layer {
  name: "relu2"
  type: "ReLU"
  bottom: "ip2"
  top: "ip2"
}
layer {
  name: "ip3"
  type: "InnerProduct"
  bottom: "ip2"
  top: "ip3"
  param {
    lr_mult: 1
  }
  param {
    lr_mult: 2
  }
  inner_product_param {
    num_output: 160
    weight_filler {
      type: "gaussian"
      std: 0.01
    }
    bias_filler {
      type: "constant"
    }
  }
}
layer {
  name: "relu3"
  type: "ReLU"
  bottom: "ip3"
  top: "ip3"
}
layer {
  name: "ip4"
  type: "InnerProduct"
  bottom: "ip3"
  top: "ip4"
  param {
    lr_mult: 1
  }
  param {
    lr_mult: 2
  }
  inner_product_param {
    num_output: 10
    weight_filler {
      type: "gaussian"
      std: 0.01
    }
    bias_filler {
      type: "constant"
    }
  }
}
layer {
  name: "loss"
  type: "SoftmaxWithLoss"
  bottom: "ip4"
  bottom: "label"
  top: "loss"
}
I0501 05:55:56.000916 30913 layer_factory.hpp:77] Creating layer cifar
I0501 05:55:56.001013 30913 db_lmdb.cpp:35] Opened lmdb examples/cifar10/cifar10_train_lmdb
I0501 05:55:56.001039 30913 net.cpp:86] Creating Layer cifar
I0501 05:55:56.001046 30913 net.cpp:382] cifar -> data
I0501 05:55:56.001070 30913 net.cpp:382] cifar -> label
I0501 05:55:56.001082 30913 data_transformer.cpp:25] Loading mean file from: examples/cifar10/mean.binaryproto
I0501 05:55:56.003250 30913 data_layer.cpp:45] output data size: 111,3,32,32
I0501 05:55:56.011157 30913 net.cpp:124] Setting up cifar
I0501 05:55:56.011178 30913 net.cpp:131] Top shape: 111 3 32 32 (340992)
I0501 05:55:56.011183 30913 net.cpp:131] Top shape: 111 (111)
I0501 05:55:56.011188 30913 net.cpp:139] Memory required for data: 1364412
I0501 05:55:56.011214 30913 layer_factory.hpp:77] Creating layer conv0
I0501 05:55:56.011250 30913 net.cpp:86] Creating Layer conv0
I0501 05:55:56.011255 30913 net.cpp:408] conv0 <- data
I0501 05:55:56.011267 30913 net.cpp:382] conv0 -> conv0
I0501 05:55:56.294257 30913 net.cpp:124] Setting up conv0
I0501 05:55:56.294286 30913 net.cpp:131] Top shape: 111 8 32 32 (909312)
I0501 05:55:56.294289 30913 net.cpp:139] Memory required for data: 5001660
I0501 05:55:56.294304 30913 layer_factory.hpp:77] Creating layer Sigmoid0
I0501 05:55:56.294317 30913 net.cpp:86] Creating Layer Sigmoid0
I0501 05:55:56.294325 30913 net.cpp:408] Sigmoid0 <- conv0
I0501 05:55:56.294332 30913 net.cpp:382] Sigmoid0 -> Sigmoid0
I0501 05:55:56.294512 30913 net.cpp:124] Setting up Sigmoid0
I0501 05:55:56.294525 30913 net.cpp:131] Top shape: 111 8 32 32 (909312)
I0501 05:55:56.294529 30913 net.cpp:139] Memory required for data: 8638908
I0501 05:55:56.294533 30913 layer_factory.hpp:77] Creating layer pool0
I0501 05:55:56.294540 30913 net.cpp:86] Creating Layer pool0
I0501 05:55:56.294546 30913 net.cpp:408] pool0 <- Sigmoid0
I0501 05:55:56.294550 30913 net.cpp:382] pool0 -> pool0
I0501 05:55:56.295286 30913 net.cpp:124] Setting up pool0
I0501 05:55:56.295300 30913 net.cpp:131] Top shape: 111 8 16 16 (227328)
I0501 05:55:56.295305 30913 net.cpp:139] Memory required for data: 9548220
I0501 05:55:56.295308 30913 layer_factory.hpp:77] Creating layer ip1
I0501 05:55:56.295321 30913 net.cpp:86] Creating Layer ip1
I0501 05:55:56.295326 30913 net.cpp:408] ip1 <- pool0
I0501 05:55:56.295332 30913 net.cpp:382] ip1 -> ip1
I0501 05:55:56.299690 30913 net.cpp:124] Setting up ip1
I0501 05:55:56.299698 30913 net.cpp:131] Top shape: 111 80 (8880)
I0501 05:55:56.299701 30913 net.cpp:139] Memory required for data: 9583740
I0501 05:55:56.299710 30913 layer_factory.hpp:77] Creating layer relu1
I0501 05:55:56.299717 30913 net.cpp:86] Creating Layer relu1
I0501 05:55:56.299721 30913 net.cpp:408] relu1 <- ip1
I0501 05:55:56.299724 30913 net.cpp:369] relu1 -> ip1 (in-place)
I0501 05:55:56.299877 30913 net.cpp:124] Setting up relu1
I0501 05:55:56.299885 30913 net.cpp:131] Top shape: 111 80 (8880)
I0501 05:55:56.299888 30913 net.cpp:139] Memory required for data: 9619260
I0501 05:55:56.299892 30913 layer_factory.hpp:77] Creating layer ip2
I0501 05:55:56.299898 30913 net.cpp:86] Creating Layer ip2
I0501 05:55:56.299901 30913 net.cpp:408] ip2 <- ip1
I0501 05:55:56.299906 30913 net.cpp:382] ip2 -> ip2
I0501 05:55:56.301005 30913 net.cpp:124] Setting up ip2
I0501 05:55:56.301029 30913 net.cpp:131] Top shape: 111 80 (8880)
I0501 05:55:56.301033 30913 net.cpp:139] Memory required for data: 9654780
I0501 05:55:56.301041 30913 layer_factory.hpp:77] Creating layer relu2
I0501 05:55:56.301046 30913 net.cpp:86] Creating Layer relu2
I0501 05:55:56.301049 30913 net.cpp:408] relu2 <- ip2
I0501 05:55:56.301054 30913 net.cpp:369] relu2 -> ip2 (in-place)
I0501 05:55:56.301249 30913 net.cpp:124] Setting up relu2
I0501 05:55:56.301257 30913 net.cpp:131] Top shape: 111 80 (8880)
I0501 05:55:56.301260 30913 net.cpp:139] Memory required for data: 9690300
I0501 05:55:56.301264 30913 layer_factory.hpp:77] Creating layer ip3
I0501 05:55:56.301272 30913 net.cpp:86] Creating Layer ip3
I0501 05:55:56.301275 30913 net.cpp:408] ip3 <- ip2
I0501 05:55:56.301280 30913 net.cpp:382] ip3 -> ip3
I0501 05:55:56.301699 30913 net.cpp:124] Setting up ip3
I0501 05:55:56.301707 30913 net.cpp:131] Top shape: 111 160 (17760)
I0501 05:55:56.301709 30913 net.cpp:139] Memory required for data: 9761340
I0501 05:55:56.301714 30913 layer_factory.hpp:77] Creating layer relu3
I0501 05:55:56.301719 30913 net.cpp:86] Creating Layer relu3
I0501 05:55:56.301722 30913 net.cpp:408] relu3 <- ip3
I0501 05:55:56.301725 30913 net.cpp:369] relu3 -> ip3 (in-place)
I0501 05:55:56.301877 30913 net.cpp:124] Setting up relu3
I0501 05:55:56.301884 30913 net.cpp:131] Top shape: 111 160 (17760)
I0501 05:55:56.301887 30913 net.cpp:139] Memory required for data: 9832380
I0501 05:55:56.301889 30913 layer_factory.hpp:77] Creating layer ip4
I0501 05:55:56.301913 30913 net.cpp:86] Creating Layer ip4
I0501 05:55:56.301915 30913 net.cpp:408] ip4 <- ip3
I0501 05:55:56.301921 30913 net.cpp:382] ip4 -> ip4
I0501 05:55:56.302058 30913 net.cpp:124] Setting up ip4
I0501 05:55:56.302064 30913 net.cpp:131] Top shape: 111 10 (1110)
I0501 05:55:56.302067 30913 net.cpp:139] Memory required for data: 9836820
I0501 05:55:56.302075 30913 layer_factory.hpp:77] Creating layer loss
I0501 05:55:56.302081 30913 net.cpp:86] Creating Layer loss
I0501 05:55:56.302084 30913 net.cpp:408] loss <- ip4
I0501 05:55:56.302088 30913 net.cpp:408] loss <- label
I0501 05:55:56.302094 30913 net.cpp:382] loss -> loss
I0501 05:55:56.302110 30913 layer_factory.hpp:77] Creating layer loss
…
I0501 05:55:56.303282 30913 solver.cpp:173] Creating test net (#0) specified by net file: ECE595/cifar/train_test/var_everything/cifar_train_test_434.prototxt
I0501 05:55:56.303308 30913 net.cpp:296] The NetState phase (1) differed from the phase (0) specified by a rule in layer cifar
I0501 05:55:56.303403 30913 net.cpp:53] Initializing net from parameters: 
name: "CIFAR"
state {
  phase: TEST
}
layer {
  name: "cifar"
  type: "Data"
  top: "data"
  top: "label"
  include {
    phase: TEST
  }
  transform_param {
    mean_file: "examples/cifar10/mean.binaryproto"
  }
  data_param {
    source: "examples/cifar10/cifar10_test_lmdb"
    batch_size: 1000
    backend: LMDB
  }
}
layer {
  name: "conv0"
  type: "Convolution"
  bottom: "data"
  top: "conv0"
  param {
    lr_mult: 1
  }
  param {
    lr_mult: 2
  }
  convolution_param {
    num_output: 8
    pad: 2
    kernel_size: 5
    stride: 1
    weight_filler {
      type: "gaussian"
      std: 0.01
    }
    bias_filler {
      type: "constant"
    }
  }
}
layer {
  name: "Sigmoid0"
  type: "Sigmoid"
  bottom: "conv0"
  top: "Sigmoid0"
}
layer {
  name: "pool0"
  type: "Pooling"
  bottom: "Sigmoid0"
  top: "pool0"
  pooling_param {
    pool: AVE
    kernel_size: 3
    stride: 2
  }
}
layer {
  name: "ip1"
  type: "InnerProduct"
  bottom: "pool0"
  top: "ip1"
  param {
    lr_mult: 1
  }
  param {
    lr_mult: 2
  }
  inner_product_param {
    num_output: 80
    weight_filler {
      type: "gaussian"
      std: 0.01
    }
    bias_filler {
      type: "constant"
    }
  }
}
layer {
  name: "relu1"
  type: "ReLU"
  bottom: "ip1"
  top: "ip1"
}
layer {
  name: "ip2"
  type: "InnerProduct"
  bottom: "ip1"
  top: "ip2"
  param {
    lr_mult: 1
  }
  param {
    lr_mult: 2
  }
  inner_product_param {
    num_output: 80
    weight_filler {
      type: "gaussian"
      std: 0.01
    }
    bias_filler {
      type: "constant"
    }
  }
}
layer {
  name: "relu2"
  type: "ReLU"
  bottom: "ip2"
  top: "ip2"
}
layer {
  name: "ip3"
  type: "InnerProduct"
  bottom: "ip2"
  top: "ip3"
  param {
    lr_mult: 1
  }
  param {
    lr_mult: 2
  }
  inner_product_param {
    num_output: 160
    weight_filler {
      type: "gaussian"
      std: 0.01
    }
    bias_filler {
      type: "constant"
    }
  }
}
layer {
  name: "relu3"
  type: "ReLU"
  bottom: "ip3"
  top: "ip3"
}
layer {
  name: "ip4"
  type: "InnerProduct"
  bottom: "ip3"
  top: "ip4"
  param {
    lr_mult: 1
  }
  param {
    lr_mult: 2
  }
  inner_product_param {
    num_output: 10
    weight_filler {
      type: "gaussian"
      std: 0.01
    }
    bias_filler {
      type: "constant"
    }
  }
}
layer {
  name: "accuracy"
  type: "Accuracy"
  bottom: "ip4"
  bottom: "label"
  top: "accuracy"
  include {
    phase: TEST
  }
}
layer {
  name: "loss"
  type: "SoftmaxWithLoss"
  bottom: "ip4"
  bottom: "label"
  top: "loss"
}
I0501 05:55:56.303486 30913 layer_factory.hpp:77] Creating layer cifar
I0501 05:55:56.303529 30913 db_lmdb.cpp:35] Opened lmdb examples/cifar10/cifar10_test_lmdb
I0501 05:55:56.303540 30913 net.cpp:86] Creating Layer cifar
I0501 05:55:56.303545 30913 net.cpp:382] cifar -> data
I0501 05:55:56.303552 30913 net.cpp:382] cifar -> label
I0501 05:55:56.303558 30913 data_transformer.cpp:25] Loading mean file from: examples/cifar10/mean.binaryproto
I0501 05:55:56.303714 30913 data_layer.cpp:45] output data size: 1000,3,32,32
I0501 05:55:56.325438 30913 net.cpp:124] Setting up cifar
I0501 05:55:56.325462 30913 net.cpp:131] Top shape: 1000 3 32 32 (3072000)
I0501 05:55:56.325469 30913 net.cpp:131] Top shape: 1000 (1000)
I0501 05:55:56.325471 30913 net.cpp:139] Memory required for data: 12292000
I0501 05:55:56.325476 30913 layer_factory.hpp:77] Creating layer label_cifar_1_split
I0501 05:55:56.325492 30913 net.cpp:86] Creating Layer label_cifar_1_split
I0501 05:55:56.325496 30913 net.cpp:408] label_cifar_1_split <- label
I0501 05:55:56.325501 30913 net.cpp:382] label_cifar_1_split -> label_cifar_1_split_0
I0501 05:55:56.325510 30913 net.cpp:382] label_cifar_1_split -> label_cifar_1_split_1
I0501 05:55:56.325588 30913 net.cpp:124] Setting up label_cifar_1_split
I0501 05:55:56.325595 30913 net.cpp:131] Top shape: 1000 (1000)
I0501 05:55:56.325598 30913 net.cpp:131] Top shape: 1000 (1000)
I0501 05:55:56.325601 30913 net.cpp:139] Memory required for data: 12300000
I0501 05:55:56.325604 30913 layer_factory.hpp:77] Creating layer conv0
I0501 05:55:56.325618 30913 net.cpp:86] Creating Layer conv0
I0501 05:55:56.325621 30913 net.cpp:408] conv0 <- data
I0501 05:55:56.325626 30913 net.cpp:382] conv0 -> conv0
I0501 05:55:56.328037 30913 net.cpp:124] Setting up conv0
I0501 05:55:56.328052 30913 net.cpp:131] Top shape: 1000 8 32 32 (8192000)
I0501 05:55:56.328054 30913 net.cpp:139] Memory required for data: 45068000
I0501 05:55:56.328065 30913 layer_factory.hpp:77] Creating layer Sigmoid0
I0501 05:55:56.328071 30913 net.cpp:86] Creating Layer Sigmoid0
I0501 05:55:56.328076 30913 net.cpp:408] Sigmoid0 <- conv0
I0501 05:55:56.328081 30913 net.cpp:382] Sigmoid0 -> Sigmoid0
I0501 05:55:56.328253 30913 net.cpp:124] Setting up Sigmoid0
I0501 05:55:56.328263 30913 net.cpp:131] Top shape: 1000 8 32 32 (8192000)
I0501 05:55:56.328265 30913 net.cpp:139] Memory required for data: 77836000
I0501 05:55:56.328269 30913 layer_factory.hpp:77] Creating layer pool0
I0501 05:55:56.328277 30913 net.cpp:86] Creating Layer pool0
I0501 05:55:56.328280 30913 net.cpp:408] pool0 <- Sigmoid0
I0501 05:55:56.328284 30913 net.cpp:382] pool0 -> pool0
I0501 05:55:56.328476 30913 net.cpp:124] Setting up pool0
I0501 05:55:56.328485 30913 net.cpp:131] Top shape: 1000 8 16 16 (2048000)
I0501 05:55:56.328488 30913 net.cpp:139] Memory required for data: 86028000
I0501 05:55:56.328491 30913 layer_factory.hpp:77] Creating layer ip1
I0501 05:55:56.328498 30913 net.cpp:86] Creating Layer ip1
I0501 05:55:56.328501 30913 net.cpp:408] ip1 <- pool0
I0501 05:55:56.328507 30913 net.cpp:382] ip1 -> ip1
I0501 05:55:56.332878 30913 net.cpp:124] Setting up ip1
I0501 05:55:56.332886 30913 net.cpp:131] Top shape: 1000 80 (80000)
I0501 05:55:56.332890 30913 net.cpp:139] Memory required for data: 86348000
I0501 05:55:56.332912 30913 layer_factory.hpp:77] Creating layer relu1
I0501 05:55:56.332921 30913 net.cpp:86] Creating Layer relu1
I0501 05:55:56.332924 30913 net.cpp:408] relu1 <- ip1
I0501 05:55:56.332929 30913 net.cpp:369] relu1 -> ip1 (in-place)
I0501 05:55:56.333102 30913 net.cpp:124] Setting up relu1
I0501 05:55:56.333111 30913 net.cpp:131] Top shape: 1000 80 (80000)
I0501 05:55:56.333113 30913 net.cpp:139] Memory required for data: 86668000
I0501 05:55:56.333132 30913 layer_factory.hpp:77] Creating layer ip2
I0501 05:55:56.333153 30913 net.cpp:86] Creating Layer ip2
I0501 05:55:56.333156 30913 net.cpp:408] ip2 <- ip1
I0501 05:55:56.333163 30913 net.cpp:382] ip2 -> ip2
I0501 05:55:56.333420 30913 net.cpp:124] Setting up ip2
I0501 05:55:56.333426 30913 net.cpp:131] Top shape: 1000 80 (80000)
I0501 05:55:56.333429 30913 net.cpp:139] Memory required for data: 86988000
I0501 05:55:56.333436 30913 layer_factory.hpp:77] Creating layer relu2
I0501 05:55:56.333442 30913 net.cpp:86] Creating Layer relu2
I0501 05:55:56.333446 30913 net.cpp:408] relu2 <- ip2
I0501 05:55:56.333448 30913 net.cpp:369] relu2 -> ip2 (in-place)
I0501 05:55:56.334189 30913 net.cpp:124] Setting up relu2
I0501 05:55:56.334202 30913 net.cpp:131] Top shape: 1000 80 (80000)
I0501 05:55:56.334205 30913 net.cpp:139] Memory required for data: 87308000
I0501 05:55:56.334208 30913 layer_factory.hpp:77] Creating layer ip3
I0501 05:55:56.334216 30913 net.cpp:86] Creating Layer ip3
I0501 05:55:56.334219 30913 net.cpp:408] ip3 <- ip2
I0501 05:55:56.334225 30913 net.cpp:382] ip3 -> ip3
I0501 05:55:56.334655 30913 net.cpp:124] Setting up ip3
I0501 05:55:56.334662 30913 net.cpp:131] Top shape: 1000 160 (160000)
I0501 05:55:56.334666 30913 net.cpp:139] Memory required for data: 87948000
I0501 05:55:56.334671 30913 layer_factory.hpp:77] Creating layer relu3
I0501 05:55:56.334692 30913 net.cpp:86] Creating Layer relu3
I0501 05:55:56.334694 30913 net.cpp:408] relu3 <- ip3
I0501 05:55:56.334699 30913 net.cpp:369] relu3 -> ip3 (in-place)
I0501 05:55:56.334849 30913 net.cpp:124] Setting up relu3
I0501 05:55:56.334856 30913 net.cpp:131] Top shape: 1000 160 (160000)
I0501 05:55:56.334861 30913 net.cpp:139] Memory required for data: 88588000
I0501 05:55:56.334863 30913 layer_factory.hpp:77] Creating layer ip4
I0501 05:55:56.334869 30913 net.cpp:86] Creating Layer ip4
I0501 05:55:56.334872 30913 net.cpp:408] ip4 <- ip3
I0501 05:55:56.334879 30913 net.cpp:382] ip4 -> ip4
I0501 05:55:56.335031 30913 net.cpp:124] Setting up ip4
I0501 05:55:56.335037 30913 net.cpp:131] Top shape: 1000 10 (10000)
I0501 05:55:56.335041 30913 net.cpp:139] Memory required for data: 88628000
I0501 05:55:56.335048 30913 layer_factory.hpp:77] Creating layer ip4_ip4_0_split
I0501 05:55:56.335054 30913 net.cpp:86] Creating Layer ip4_ip4_0_split
I0501 05:55:56.335058 30913 net.cpp:408] ip4_ip4_0_split <- ip4
I0501 05:55:56.335062 30913 net.cpp:382] ip4_ip4_0_split -> ip4_ip4_0_split_0
I0501 05:55:56.335067 30913 net.cpp:382] ip4_ip4_0_split -> ip4_ip4_0_split_1
I0501 05:55:56.335098 30913 net.cpp:124] Setting up ip4_ip4_0_split
I0501 05:55:56.335104 30913 net.cpp:131] Top shape: 1000 10 (10000)
I0501 05:55:56.335108 30913 net.cpp:131] Top shape: 1000 10 (10000)
I0501 05:55:56.335111 30913 net.cpp:139] Memory required for data: 88708000
I0501 05:55:56.335114 30913 layer_factory.hpp:77] Creating layer accuracy
I0501 05:55:56.335119 30913 net.cpp:86] Creating Layer accuracy
I0501 05:55:56.335122 30913 net.cpp:408] accuracy <- ip4_ip4_0_split_0
I0501 05:55:56.335126 30913 net.cpp:408] accuracy <- label_cifar_1_split_0
I0501 05:55:56.335132 30913 net.cpp:382] accuracy -> accuracy
…
