…
I0501 01:31:21.849012 10989 net.cpp:296] The NetState phase (0) differed from the phase (1) specified by a rule in layer cifar
I0501 01:31:21.849031 10989 net.cpp:296] The NetState phase (0) differed from the phase (1) specified by a rule in layer accuracy
I0501 01:31:21.849138 10989 net.cpp:53] Initializing net from parameters: 
name: "CIFAR"
state {
  phase: TRAIN
  level: 0
  stage: ""
}
layer {
  name: "cifar"
  type: "Data"
  top: "data"
  top: "label"
  include {
    phase: TRAIN
  }
  transform_param {
    mean_file: "examples/cifar10/mean.binaryproto"
  }
  data_param {
    source: "examples/cifar10/cifar10_train_lmdb"
    batch_size: 111
    backend: LMDB
  }
}
layer {
  name: "conv0"
  type: "Convolution"
  bottom: "data"
  top: "conv0"
  param {
    lr_mult: 1
  }
  param {
    lr_mult: 2
  }
  convolution_param {
    num_output: 8
    pad: 2
    kernel_size: 3
    stride: 1
    weight_filler {
      type: "gaussian"
      std: 0.01
    }
    bias_filler {
      type: "constant"
    }
  }
}
layer {
  name: "Sigmoid0"
  type: "Sigmoid"
  bottom: "conv0"
  top: "Sigmoid0"
}
layer {
  name: "pool0"
  type: "Pooling"
  bottom: "Sigmoid0"
  top: "pool0"
  pooling_param {
    pool: AVE
    kernel_size: 3
    stride: 2
  }
}
layer {
  name: "ip1"
  type: "InnerProduct"
  bottom: "pool0"
  top: "ip1"
  param {
    lr_mult: 1
  }
  param {
    lr_mult: 2
  }
  inner_product_param {
    num_output: 160
    weight_filler {
      type: "gaussian"
      std: 0.01
    }
    bias_filler {
      type: "constant"
    }
  }
}
layer {
  name: "relu1"
  type: "ReLU"
  bottom: "ip1"
  top: "ip1"
}
layer {
  name: "ip2"
  type: "InnerProduct"
  bottom: "ip1"
  top: "ip2"
  param {
    lr_mult: 1
  }
  param {
    lr_mult: 2
  }
  inner_product_param {
    num_output: 20
    weight_filler {
      type: "gaussian"
      std: 0.01
    }
    bias_filler {
      type: "constant"
    }
  }
}
layer {
  name: "relu2"
  type: "ReLU"
  bottom: "ip2"
  top: "ip2"
}
layer {
  name: "ip3"
  type: "InnerProduct"
  bottom: "ip2"
  top: "ip3"
  param {
    lr_mult: 1
  }
  param {
    lr_mult: 2
  }
  inner_product_param {
    num_output: 40
    weight_filler {
      type: "gaussian"
      std: 0.01
    }
    bias_filler {
      type: "constant"
    }
  }
}
layer {
  name: "relu3"
  type: "ReLU"
  bottom: "ip3"
  top: "ip3"
}
layer {
  name: "ip4"
  type: "InnerProduct"
  bottom: "ip3"
  top: "ip4"
  param {
    lr_mult: 1
  }
  param {
    lr_mult: 2
  }
  inner_product_param {
    num_output: 10
    weight_filler {
      type: "gaussian"
      std: 0.01
    }
    bias_filler {
      type: "constant"
    }
  }
}
layer {
  name: "loss"
  type: "SoftmaxWithLoss"
  bottom: "ip4"
  bottom: "label"
  top: "loss"
}
I0501 01:31:21.849216 10989 layer_factory.hpp:77] Creating layer cifar
I0501 01:31:21.849314 10989 db_lmdb.cpp:35] Opened lmdb examples/cifar10/cifar10_train_lmdb
I0501 01:31:21.849344 10989 net.cpp:86] Creating Layer cifar
I0501 01:31:21.849351 10989 net.cpp:382] cifar -> data
I0501 01:31:21.849375 10989 net.cpp:382] cifar -> label
I0501 01:31:21.849386 10989 data_transformer.cpp:25] Loading mean file from: examples/cifar10/mean.binaryproto
I0501 01:31:21.851478 10989 data_layer.cpp:45] output data size: 111,3,32,32
I0501 01:31:21.859364 10989 net.cpp:124] Setting up cifar
I0501 01:31:21.859385 10989 net.cpp:131] Top shape: 111 3 32 32 (340992)
I0501 01:31:21.859392 10989 net.cpp:131] Top shape: 111 (111)
I0501 01:31:21.859396 10989 net.cpp:139] Memory required for data: 1364412
I0501 01:31:21.859419 10989 layer_factory.hpp:77] Creating layer conv0
I0501 01:31:21.859437 10989 net.cpp:86] Creating Layer conv0
I0501 01:31:21.859443 10989 net.cpp:408] conv0 <- data
I0501 01:31:21.859455 10989 net.cpp:382] conv0 -> conv0
I0501 01:31:22.136370 10989 net.cpp:124] Setting up conv0
I0501 01:31:22.136399 10989 net.cpp:131] Top shape: 111 8 34 34 (1026528)
I0501 01:31:22.136402 10989 net.cpp:139] Memory required for data: 5470524
I0501 01:31:22.136416 10989 layer_factory.hpp:77] Creating layer Sigmoid0
I0501 01:31:22.136428 10989 net.cpp:86] Creating Layer Sigmoid0
I0501 01:31:22.136432 10989 net.cpp:408] Sigmoid0 <- conv0
I0501 01:31:22.136437 10989 net.cpp:382] Sigmoid0 -> Sigmoid0
I0501 01:31:22.136625 10989 net.cpp:124] Setting up Sigmoid0
I0501 01:31:22.136634 10989 net.cpp:131] Top shape: 111 8 34 34 (1026528)
I0501 01:31:22.136637 10989 net.cpp:139] Memory required for data: 9576636
I0501 01:31:22.136641 10989 layer_factory.hpp:77] Creating layer pool0
I0501 01:31:22.136647 10989 net.cpp:86] Creating Layer pool0
I0501 01:31:22.136651 10989 net.cpp:408] pool0 <- Sigmoid0
I0501 01:31:22.136654 10989 net.cpp:382] pool0 -> pool0
I0501 01:31:22.137377 10989 net.cpp:124] Setting up pool0
I0501 01:31:22.137389 10989 net.cpp:131] Top shape: 111 8 17 17 (256632)
I0501 01:31:22.137392 10989 net.cpp:139] Memory required for data: 10603164
I0501 01:31:22.137397 10989 layer_factory.hpp:77] Creating layer ip1
I0501 01:31:22.137405 10989 net.cpp:86] Creating Layer ip1
I0501 01:31:22.137408 10989 net.cpp:408] ip1 <- pool0
I0501 01:31:22.137413 10989 net.cpp:382] ip1 -> ip1
I0501 01:31:22.147728 10989 net.cpp:124] Setting up ip1
I0501 01:31:22.147740 10989 net.cpp:131] Top shape: 111 160 (17760)
I0501 01:31:22.147759 10989 net.cpp:139] Memory required for data: 10674204
I0501 01:31:22.147766 10989 layer_factory.hpp:77] Creating layer relu1
I0501 01:31:22.147773 10989 net.cpp:86] Creating Layer relu1
I0501 01:31:22.147776 10989 net.cpp:408] relu1 <- ip1
I0501 01:31:22.147780 10989 net.cpp:369] relu1 -> ip1 (in-place)
I0501 01:31:22.147943 10989 net.cpp:124] Setting up relu1
I0501 01:31:22.147953 10989 net.cpp:131] Top shape: 111 160 (17760)
I0501 01:31:22.147955 10989 net.cpp:139] Memory required for data: 10745244
I0501 01:31:22.147958 10989 layer_factory.hpp:77] Creating layer ip2
I0501 01:31:22.147964 10989 net.cpp:86] Creating Layer ip2
I0501 01:31:22.147969 10989 net.cpp:408] ip2 <- ip1
I0501 01:31:22.147974 10989 net.cpp:382] ip2 -> ip2
I0501 01:31:22.148149 10989 net.cpp:124] Setting up ip2
I0501 01:31:22.148156 10989 net.cpp:131] Top shape: 111 20 (2220)
I0501 01:31:22.148159 10989 net.cpp:139] Memory required for data: 10754124
I0501 01:31:22.148166 10989 layer_factory.hpp:77] Creating layer relu2
I0501 01:31:22.148170 10989 net.cpp:86] Creating Layer relu2
I0501 01:31:22.148174 10989 net.cpp:408] relu2 <- ip2
I0501 01:31:22.148177 10989 net.cpp:369] relu2 -> ip2 (in-place)
I0501 01:31:22.148320 10989 net.cpp:124] Setting up relu2
I0501 01:31:22.148329 10989 net.cpp:131] Top shape: 111 20 (2220)
I0501 01:31:22.148331 10989 net.cpp:139] Memory required for data: 10763004
I0501 01:31:22.148334 10989 layer_factory.hpp:77] Creating layer ip3
I0501 01:31:22.148341 10989 net.cpp:86] Creating Layer ip3
I0501 01:31:22.148344 10989 net.cpp:408] ip3 <- ip2
I0501 01:31:22.148349 10989 net.cpp:382] ip3 -> ip3
I0501 01:31:22.149343 10989 net.cpp:124] Setting up ip3
I0501 01:31:22.149354 10989 net.cpp:131] Top shape: 111 40 (4440)
I0501 01:31:22.149374 10989 net.cpp:139] Memory required for data: 10780764
I0501 01:31:22.149379 10989 layer_factory.hpp:77] Creating layer relu3
I0501 01:31:22.149384 10989 net.cpp:86] Creating Layer relu3
I0501 01:31:22.149389 10989 net.cpp:408] relu3 <- ip3
I0501 01:31:22.149392 10989 net.cpp:369] relu3 -> ip3 (in-place)
I0501 01:31:22.149556 10989 net.cpp:124] Setting up relu3
I0501 01:31:22.149565 10989 net.cpp:131] Top shape: 111 40 (4440)
I0501 01:31:22.149569 10989 net.cpp:139] Memory required for data: 10798524
I0501 01:31:22.149571 10989 layer_factory.hpp:77] Creating layer ip4
I0501 01:31:22.149591 10989 net.cpp:86] Creating Layer ip4
I0501 01:31:22.149595 10989 net.cpp:408] ip4 <- ip3
I0501 01:31:22.149600 10989 net.cpp:382] ip4 -> ip4
I0501 01:31:22.149701 10989 net.cpp:124] Setting up ip4
I0501 01:31:22.149709 10989 net.cpp:131] Top shape: 111 10 (1110)
I0501 01:31:22.149713 10989 net.cpp:139] Memory required for data: 10802964
I0501 01:31:22.149720 10989 layer_factory.hpp:77] Creating layer loss
I0501 01:31:22.149725 10989 net.cpp:86] Creating Layer loss
I0501 01:31:22.149729 10989 net.cpp:408] loss <- ip4
I0501 01:31:22.149732 10989 net.cpp:408] loss <- label
I0501 01:31:22.149737 10989 net.cpp:382] loss -> loss
I0501 01:31:22.149750 10989 layer_factory.hpp:77] Creating layer loss
…
I0501 01:31:22.150943 10989 solver.cpp:173] Creating test net (#0) specified by net file: ECE595/cifar/train_test/var_everything/cifar_train_test_292.prototxt
I0501 01:31:22.150969 10989 net.cpp:296] The NetState phase (1) differed from the phase (0) specified by a rule in layer cifar
I0501 01:31:22.151059 10989 net.cpp:53] Initializing net from parameters: 
name: "CIFAR"
state {
  phase: TEST
}
layer {
  name: "cifar"
  type: "Data"
  top: "data"
  top: "label"
  include {
    phase: TEST
  }
  transform_param {
    mean_file: "examples/cifar10/mean.binaryproto"
  }
  data_param {
    source: "examples/cifar10/cifar10_test_lmdb"
    batch_size: 1000
    backend: LMDB
  }
}
layer {
  name: "conv0"
  type: "Convolution"
  bottom: "data"
  top: "conv0"
  param {
    lr_mult: 1
  }
  param {
    lr_mult: 2
  }
  convolution_param {
    num_output: 8
    pad: 2
    kernel_size: 3
    stride: 1
    weight_filler {
      type: "gaussian"
      std: 0.01
    }
    bias_filler {
      type: "constant"
    }
  }
}
layer {
  name: "Sigmoid0"
  type: "Sigmoid"
  bottom: "conv0"
  top: "Sigmoid0"
}
layer {
  name: "pool0"
  type: "Pooling"
  bottom: "Sigmoid0"
  top: "pool0"
  pooling_param {
    pool: AVE
    kernel_size: 3
    stride: 2
  }
}
layer {
  name: "ip1"
  type: "InnerProduct"
  bottom: "pool0"
  top: "ip1"
  param {
    lr_mult: 1
  }
  param {
    lr_mult: 2
  }
  inner_product_param {
    num_output: 160
    weight_filler {
      type: "gaussian"
      std: 0.01
    }
    bias_filler {
      type: "constant"
    }
  }
}
layer {
  name: "relu1"
  type: "ReLU"
  bottom: "ip1"
  top: "ip1"
}
layer {
  name: "ip2"
  type: "InnerProduct"
  bottom: "ip1"
  top: "ip2"
  param {
    lr_mult: 1
  }
  param {
    lr_mult: 2
  }
  inner_product_param {
    num_output: 20
    weight_filler {
      type: "gaussian"
      std: 0.01
    }
    bias_filler {
      type: "constant"
    }
  }
}
layer {
  name: "relu2"
  type: "ReLU"
  bottom: "ip2"
  top: "ip2"
}
layer {
  name: "ip3"
  type: "InnerProduct"
  bottom: "ip2"
  top: "ip3"
  param {
    lr_mult: 1
  }
  param {
    lr_mult: 2
  }
  inner_product_param {
    num_output: 40
    weight_filler {
      type: "gaussian"
      std: 0.01
    }
    bias_filler {
      type: "constant"
    }
  }
}
layer {
  name: "relu3"
  type: "ReLU"
  bottom: "ip3"
  top: "ip3"
}
layer {
  name: "ip4"
  type: "InnerProduct"
  bottom: "ip3"
  top: "ip4"
  param {
    lr_mult: 1
  }
  param {
    lr_mult: 2
  }
  inner_product_param {
    num_output: 10
    weight_filler {
      type: "gaussian"
      std: 0.01
    }
    bias_filler {
      type: "constant"
    }
  }
}
layer {
  name: "accuracy"
  type: "Accuracy"
  bottom: "ip4"
  bottom: "label"
  top: "accuracy"
  include {
    phase: TEST
  }
}
layer {
  name: "loss"
  type: "SoftmaxWithLoss"
  bottom: "ip4"
  bottom: "label"
  top: "loss"
}
I0501 01:31:22.151135 10989 layer_factory.hpp:77] Creating layer cifar
I0501 01:31:22.151183 10989 db_lmdb.cpp:35] Opened lmdb examples/cifar10/cifar10_test_lmdb
I0501 01:31:22.151196 10989 net.cpp:86] Creating Layer cifar
I0501 01:31:22.151201 10989 net.cpp:382] cifar -> data
I0501 01:31:22.151208 10989 net.cpp:382] cifar -> label
I0501 01:31:22.151214 10989 data_transformer.cpp:25] Loading mean file from: examples/cifar10/mean.binaryproto
I0501 01:31:22.151350 10989 data_layer.cpp:45] output data size: 1000,3,32,32
I0501 01:31:22.173600 10989 net.cpp:124] Setting up cifar
I0501 01:31:22.173641 10989 net.cpp:131] Top shape: 1000 3 32 32 (3072000)
I0501 01:31:22.173648 10989 net.cpp:131] Top shape: 1000 (1000)
I0501 01:31:22.173651 10989 net.cpp:139] Memory required for data: 12292000
I0501 01:31:22.173660 10989 layer_factory.hpp:77] Creating layer label_cifar_1_split
I0501 01:31:22.173671 10989 net.cpp:86] Creating Layer label_cifar_1_split
I0501 01:31:22.173676 10989 net.cpp:408] label_cifar_1_split <- label
I0501 01:31:22.173681 10989 net.cpp:382] label_cifar_1_split -> label_cifar_1_split_0
I0501 01:31:22.173707 10989 net.cpp:382] label_cifar_1_split -> label_cifar_1_split_1
I0501 01:31:22.173789 10989 net.cpp:124] Setting up label_cifar_1_split
I0501 01:31:22.173797 10989 net.cpp:131] Top shape: 1000 (1000)
I0501 01:31:22.173801 10989 net.cpp:131] Top shape: 1000 (1000)
I0501 01:31:22.173804 10989 net.cpp:139] Memory required for data: 12300000
I0501 01:31:22.173807 10989 layer_factory.hpp:77] Creating layer conv0
I0501 01:31:22.173820 10989 net.cpp:86] Creating Layer conv0
I0501 01:31:22.173823 10989 net.cpp:408] conv0 <- data
I0501 01:31:22.173828 10989 net.cpp:382] conv0 -> conv0
I0501 01:31:22.175495 10989 net.cpp:124] Setting up conv0
I0501 01:31:22.175524 10989 net.cpp:131] Top shape: 1000 8 34 34 (9248000)
I0501 01:31:22.175529 10989 net.cpp:139] Memory required for data: 49292000
I0501 01:31:22.175539 10989 layer_factory.hpp:77] Creating layer Sigmoid0
I0501 01:31:22.175545 10989 net.cpp:86] Creating Layer Sigmoid0
I0501 01:31:22.175549 10989 net.cpp:408] Sigmoid0 <- conv0
I0501 01:31:22.175554 10989 net.cpp:382] Sigmoid0 -> Sigmoid0
I0501 01:31:22.175741 10989 net.cpp:124] Setting up Sigmoid0
I0501 01:31:22.175750 10989 net.cpp:131] Top shape: 1000 8 34 34 (9248000)
I0501 01:31:22.175755 10989 net.cpp:139] Memory required for data: 86284000
I0501 01:31:22.175757 10989 layer_factory.hpp:77] Creating layer pool0
I0501 01:31:22.175765 10989 net.cpp:86] Creating Layer pool0
I0501 01:31:22.175768 10989 net.cpp:408] pool0 <- Sigmoid0
I0501 01:31:22.175772 10989 net.cpp:382] pool0 -> pool0
I0501 01:31:22.175940 10989 net.cpp:124] Setting up pool0
I0501 01:31:22.175951 10989 net.cpp:131] Top shape: 1000 8 17 17 (2312000)
I0501 01:31:22.175953 10989 net.cpp:139] Memory required for data: 95532000
I0501 01:31:22.175956 10989 layer_factory.hpp:77] Creating layer ip1
I0501 01:31:22.175981 10989 net.cpp:86] Creating Layer ip1
I0501 01:31:22.175984 10989 net.cpp:408] ip1 <- pool0
I0501 01:31:22.175992 10989 net.cpp:382] ip1 -> ip1
I0501 01:31:22.186820 10989 net.cpp:124] Setting up ip1
I0501 01:31:22.186833 10989 net.cpp:131] Top shape: 1000 160 (160000)
I0501 01:31:22.186851 10989 net.cpp:139] Memory required for data: 96172000
I0501 01:31:22.186874 10989 layer_factory.hpp:77] Creating layer relu1
I0501 01:31:22.186880 10989 net.cpp:86] Creating Layer relu1
I0501 01:31:22.186884 10989 net.cpp:408] relu1 <- ip1
I0501 01:31:22.186904 10989 net.cpp:369] relu1 -> ip1 (in-place)
I0501 01:31:22.187083 10989 net.cpp:124] Setting up relu1
I0501 01:31:22.187093 10989 net.cpp:131] Top shape: 1000 160 (160000)
I0501 01:31:22.187096 10989 net.cpp:139] Memory required for data: 96812000
I0501 01:31:22.187100 10989 layer_factory.hpp:77] Creating layer ip2
I0501 01:31:22.187108 10989 net.cpp:86] Creating Layer ip2
I0501 01:31:22.187110 10989 net.cpp:408] ip2 <- ip1
I0501 01:31:22.187116 10989 net.cpp:382] ip2 -> ip2
I0501 01:31:22.187315 10989 net.cpp:124] Setting up ip2
I0501 01:31:22.187324 10989 net.cpp:131] Top shape: 1000 20 (20000)
I0501 01:31:22.187335 10989 net.cpp:139] Memory required for data: 96892000
I0501 01:31:22.187342 10989 layer_factory.hpp:77] Creating layer relu2
I0501 01:31:22.187350 10989 net.cpp:86] Creating Layer relu2
I0501 01:31:22.187353 10989 net.cpp:408] relu2 <- ip2
I0501 01:31:22.187357 10989 net.cpp:369] relu2 -> ip2 (in-place)
I0501 01:31:22.188134 10989 net.cpp:124] Setting up relu2
I0501 01:31:22.188146 10989 net.cpp:131] Top shape: 1000 20 (20000)
I0501 01:31:22.188149 10989 net.cpp:139] Memory required for data: 96972000
I0501 01:31:22.188153 10989 layer_factory.hpp:77] Creating layer ip3
I0501 01:31:22.188177 10989 net.cpp:86] Creating Layer ip3
I0501 01:31:22.188181 10989 net.cpp:408] ip3 <- ip2
I0501 01:31:22.188187 10989 net.cpp:382] ip3 -> ip3
I0501 01:31:22.188316 10989 net.cpp:124] Setting up ip3
I0501 01:31:22.188326 10989 net.cpp:131] Top shape: 1000 40 (40000)
I0501 01:31:22.188329 10989 net.cpp:139] Memory required for data: 97132000
I0501 01:31:22.188335 10989 layer_factory.hpp:77] Creating layer relu3
I0501 01:31:22.188341 10989 net.cpp:86] Creating Layer relu3
I0501 01:31:22.188344 10989 net.cpp:408] relu3 <- ip3
I0501 01:31:22.188349 10989 net.cpp:369] relu3 -> ip3 (in-place)
I0501 01:31:22.188508 10989 net.cpp:124] Setting up relu3
I0501 01:31:22.188515 10989 net.cpp:131] Top shape: 1000 40 (40000)
I0501 01:31:22.188520 10989 net.cpp:139] Memory required for data: 97292000
I0501 01:31:22.188524 10989 layer_factory.hpp:77] Creating layer ip4
I0501 01:31:22.188530 10989 net.cpp:86] Creating Layer ip4
I0501 01:31:22.188534 10989 net.cpp:408] ip4 <- ip3
I0501 01:31:22.188539 10989 net.cpp:382] ip4 -> ip4
I0501 01:31:22.188654 10989 net.cpp:124] Setting up ip4
I0501 01:31:22.188661 10989 net.cpp:131] Top shape: 1000 10 (10000)
I0501 01:31:22.188664 10989 net.cpp:139] Memory required for data: 97332000
I0501 01:31:22.188673 10989 layer_factory.hpp:77] Creating layer ip4_ip4_0_split
I0501 01:31:22.188678 10989 net.cpp:86] Creating Layer ip4_ip4_0_split
I0501 01:31:22.188681 10989 net.cpp:408] ip4_ip4_0_split <- ip4
I0501 01:31:22.188685 10989 net.cpp:382] ip4_ip4_0_split -> ip4_ip4_0_split_0
I0501 01:31:22.188693 10989 net.cpp:382] ip4_ip4_0_split -> ip4_ip4_0_split_1
I0501 01:31:22.188722 10989 net.cpp:124] Setting up ip4_ip4_0_split
I0501 01:31:22.188729 10989 net.cpp:131] Top shape: 1000 10 (10000)
I0501 01:31:22.188732 10989 net.cpp:131] Top shape: 1000 10 (10000)
I0501 01:31:22.188735 10989 net.cpp:139] Memory required for data: 97412000
I0501 01:31:22.188737 10989 layer_factory.hpp:77] Creating layer accuracy
I0501 01:31:22.188745 10989 net.cpp:86] Creating Layer accuracy
I0501 01:31:22.188747 10989 net.cpp:408] accuracy <- ip4_ip4_0_split_0
I0501 01:31:22.188751 10989 net.cpp:408] accuracy <- label_cifar_1_split_0
I0501 01:31:22.188755 10989 net.cpp:382] accuracy -> accuracy
…
