…
I0501 05:11:16.443681 28086 net.cpp:296] The NetState phase (0) differed from the phase (1) specified by a rule in layer cifar
I0501 05:11:16.443697 28086 net.cpp:296] The NetState phase (0) differed from the phase (1) specified by a rule in layer accuracy
I0501 05:11:16.443811 28086 net.cpp:53] Initializing net from parameters: 
name: "CIFAR"
state {
  phase: TRAIN
  level: 0
  stage: ""
}
layer {
  name: "cifar"
  type: "Data"
  top: "data"
  top: "label"
  include {
    phase: TRAIN
  }
  transform_param {
    mean_file: "examples/cifar10/mean.binaryproto"
  }
  data_param {
    source: "examples/cifar10/cifar10_train_lmdb"
    batch_size: 111
    backend: LMDB
  }
}
layer {
  name: "conv0"
  type: "Convolution"
  bottom: "data"
  top: "conv0"
  param {
    lr_mult: 1
  }
  param {
    lr_mult: 2
  }
  convolution_param {
    num_output: 8
    pad: 2
    kernel_size: 5
    stride: 1
    weight_filler {
      type: "gaussian"
      std: 0.01
    }
    bias_filler {
      type: "constant"
    }
  }
}
layer {
  name: "Sigmoid0"
  type: "Sigmoid"
  bottom: "conv0"
  top: "Sigmoid0"
}
layer {
  name: "pool0"
  type: "Pooling"
  bottom: "Sigmoid0"
  top: "pool0"
  pooling_param {
    pool: AVE
    kernel_size: 3
    stride: 2
  }
}
layer {
  name: "ip1"
  type: "InnerProduct"
  bottom: "pool0"
  top: "ip1"
  param {
    lr_mult: 1
  }
  param {
    lr_mult: 2
  }
  inner_product_param {
    num_output: 40
    weight_filler {
      type: "gaussian"
      std: 0.01
    }
    bias_filler {
      type: "constant"
    }
  }
}
layer {
  name: "relu1"
  type: "ReLU"
  bottom: "ip1"
  top: "ip1"
}
layer {
  name: "ip2"
  type: "InnerProduct"
  bottom: "ip1"
  top: "ip2"
  param {
    lr_mult: 1
  }
  param {
    lr_mult: 2
  }
  inner_product_param {
    num_output: 160
    weight_filler {
      type: "gaussian"
      std: 0.01
    }
    bias_filler {
      type: "constant"
    }
  }
}
layer {
  name: "relu2"
  type: "ReLU"
  bottom: "ip2"
  top: "ip2"
}
layer {
  name: "ip3"
  type: "InnerProduct"
  bottom: "ip2"
  top: "ip3"
  param {
    lr_mult: 1
  }
  param {
    lr_mult: 2
  }
  inner_product_param {
    num_output: 10
    weight_filler {
      type: "gaussian"
      std: 0.01
    }
    bias_filler {
      type: "constant"
    }
  }
}
layer {
  name: "relu3"
  type: "ReLU"
  bottom: "ip3"
  top: "ip3"
}
layer {
  name: "ip4"
  type: "InnerProduct"
  bottom: "ip3"
  top: "ip4"
  param {
    lr_mult: 1
  }
  param {
    lr_mult: 2
  }
  inner_product_param {
    num_output: 10
    weight_filler {
      type: "gaussian"
      std: 0.01
    }
    bias_filler {
      type: "constant"
    }
  }
}
layer {
  name: "loss"
  type: "SoftmaxWithLoss"
  bottom: "ip4"
  bottom: "label"
  top: "loss"
}
I0501 05:11:16.443876 28086 layer_factory.hpp:77] Creating layer cifar
I0501 05:11:16.443953 28086 db_lmdb.cpp:35] Opened lmdb examples/cifar10/cifar10_train_lmdb
I0501 05:11:16.443976 28086 net.cpp:86] Creating Layer cifar
I0501 05:11:16.443984 28086 net.cpp:382] cifar -> data
I0501 05:11:16.444002 28086 net.cpp:382] cifar -> label
I0501 05:11:16.444012 28086 data_transformer.cpp:25] Loading mean file from: examples/cifar10/mean.binaryproto
I0501 05:11:16.445821 28086 data_layer.cpp:45] output data size: 111,3,32,32
I0501 05:11:16.452121 28086 net.cpp:124] Setting up cifar
I0501 05:11:16.452134 28086 net.cpp:131] Top shape: 111 3 32 32 (340992)
I0501 05:11:16.452141 28086 net.cpp:131] Top shape: 111 (111)
I0501 05:11:16.452143 28086 net.cpp:139] Memory required for data: 1364412
I0501 05:11:16.452160 28086 layer_factory.hpp:77] Creating layer conv0
I0501 05:11:16.452190 28086 net.cpp:86] Creating Layer conv0
I0501 05:11:16.452194 28086 net.cpp:408] conv0 <- data
I0501 05:11:16.452203 28086 net.cpp:382] conv0 -> conv0
I0501 05:11:16.682335 28086 net.cpp:124] Setting up conv0
I0501 05:11:16.682363 28086 net.cpp:131] Top shape: 111 8 32 32 (909312)
I0501 05:11:16.682365 28086 net.cpp:139] Memory required for data: 5001660
I0501 05:11:16.682379 28086 layer_factory.hpp:77] Creating layer Sigmoid0
I0501 05:11:16.682390 28086 net.cpp:86] Creating Layer Sigmoid0
I0501 05:11:16.682394 28086 net.cpp:408] Sigmoid0 <- conv0
I0501 05:11:16.682399 28086 net.cpp:382] Sigmoid0 -> Sigmoid0
I0501 05:11:16.682569 28086 net.cpp:124] Setting up Sigmoid0
I0501 05:11:16.682579 28086 net.cpp:131] Top shape: 111 8 32 32 (909312)
I0501 05:11:16.682581 28086 net.cpp:139] Memory required for data: 8638908
I0501 05:11:16.682585 28086 layer_factory.hpp:77] Creating layer pool0
I0501 05:11:16.682591 28086 net.cpp:86] Creating Layer pool0
I0501 05:11:16.682595 28086 net.cpp:408] pool0 <- Sigmoid0
I0501 05:11:16.682598 28086 net.cpp:382] pool0 -> pool0
I0501 05:11:16.683295 28086 net.cpp:124] Setting up pool0
I0501 05:11:16.683307 28086 net.cpp:131] Top shape: 111 8 16 16 (227328)
I0501 05:11:16.683326 28086 net.cpp:139] Memory required for data: 9548220
I0501 05:11:16.683329 28086 layer_factory.hpp:77] Creating layer ip1
I0501 05:11:16.683338 28086 net.cpp:86] Creating Layer ip1
I0501 05:11:16.683342 28086 net.cpp:408] ip1 <- pool0
I0501 05:11:16.683347 28086 net.cpp:382] ip1 -> ip1
I0501 05:11:16.685608 28086 net.cpp:124] Setting up ip1
I0501 05:11:16.685617 28086 net.cpp:131] Top shape: 111 40 (4440)
I0501 05:11:16.685636 28086 net.cpp:139] Memory required for data: 9565980
I0501 05:11:16.685643 28086 layer_factory.hpp:77] Creating layer relu1
I0501 05:11:16.685648 28086 net.cpp:86] Creating Layer relu1
I0501 05:11:16.685652 28086 net.cpp:408] relu1 <- ip1
I0501 05:11:16.685657 28086 net.cpp:369] relu1 -> ip1 (in-place)
I0501 05:11:16.685827 28086 net.cpp:124] Setting up relu1
I0501 05:11:16.685835 28086 net.cpp:131] Top shape: 111 40 (4440)
I0501 05:11:16.685838 28086 net.cpp:139] Memory required for data: 9583740
I0501 05:11:16.685842 28086 layer_factory.hpp:77] Creating layer ip2
I0501 05:11:16.685847 28086 net.cpp:86] Creating Layer ip2
I0501 05:11:16.685850 28086 net.cpp:408] ip2 <- ip1
I0501 05:11:16.685856 28086 net.cpp:382] ip2 -> ip2
I0501 05:11:16.686916 28086 net.cpp:124] Setting up ip2
I0501 05:11:16.686928 28086 net.cpp:131] Top shape: 111 160 (17760)
I0501 05:11:16.686931 28086 net.cpp:139] Memory required for data: 9654780
I0501 05:11:16.686939 28086 layer_factory.hpp:77] Creating layer relu2
I0501 05:11:16.686944 28086 net.cpp:86] Creating Layer relu2
I0501 05:11:16.686947 28086 net.cpp:408] relu2 <- ip2
I0501 05:11:16.686951 28086 net.cpp:369] relu2 -> ip2 (in-place)
I0501 05:11:16.687122 28086 net.cpp:124] Setting up relu2
I0501 05:11:16.687131 28086 net.cpp:131] Top shape: 111 160 (17760)
I0501 05:11:16.687134 28086 net.cpp:139] Memory required for data: 9725820
I0501 05:11:16.687137 28086 layer_factory.hpp:77] Creating layer ip3
I0501 05:11:16.687145 28086 net.cpp:86] Creating Layer ip3
I0501 05:11:16.687149 28086 net.cpp:408] ip3 <- ip2
I0501 05:11:16.687155 28086 net.cpp:382] ip3 -> ip3
I0501 05:11:16.687285 28086 net.cpp:124] Setting up ip3
I0501 05:11:16.687292 28086 net.cpp:131] Top shape: 111 10 (1110)
I0501 05:11:16.687295 28086 net.cpp:139] Memory required for data: 9730260
I0501 05:11:16.687300 28086 layer_factory.hpp:77] Creating layer relu3
I0501 05:11:16.687304 28086 net.cpp:86] Creating Layer relu3
I0501 05:11:16.687307 28086 net.cpp:408] relu3 <- ip3
I0501 05:11:16.687311 28086 net.cpp:369] relu3 -> ip3 (in-place)
I0501 05:11:16.687470 28086 net.cpp:124] Setting up relu3
I0501 05:11:16.687477 28086 net.cpp:131] Top shape: 111 10 (1110)
I0501 05:11:16.687480 28086 net.cpp:139] Memory required for data: 9734700
I0501 05:11:16.687484 28086 layer_factory.hpp:77] Creating layer ip4
I0501 05:11:16.687503 28086 net.cpp:86] Creating Layer ip4
I0501 05:11:16.687511 28086 net.cpp:408] ip4 <- ip3
I0501 05:11:16.687517 28086 net.cpp:382] ip4 -> ip4
I0501 05:11:16.687613 28086 net.cpp:124] Setting up ip4
I0501 05:11:16.687621 28086 net.cpp:131] Top shape: 111 10 (1110)
I0501 05:11:16.687624 28086 net.cpp:139] Memory required for data: 9739140
I0501 05:11:16.687630 28086 layer_factory.hpp:77] Creating layer loss
I0501 05:11:16.687640 28086 net.cpp:86] Creating Layer loss
I0501 05:11:16.687644 28086 net.cpp:408] loss <- ip4
I0501 05:11:16.687649 28086 net.cpp:408] loss <- label
I0501 05:11:16.687654 28086 net.cpp:382] loss -> loss
I0501 05:11:16.687664 28086 layer_factory.hpp:77] Creating layer loss
…
I0501 05:11:16.688925 28086 solver.cpp:173] Creating test net (#0) specified by net file: ECE595/cifar/train_test/var_everything/cifar_train_test_410.prototxt
I0501 05:11:16.688983 28086 net.cpp:296] The NetState phase (1) differed from the phase (0) specified by a rule in layer cifar
I0501 05:11:16.689095 28086 net.cpp:53] Initializing net from parameters: 
name: "CIFAR"
state {
  phase: TEST
}
layer {
  name: "cifar"
  type: "Data"
  top: "data"
  top: "label"
  include {
    phase: TEST
  }
  transform_param {
    mean_file: "examples/cifar10/mean.binaryproto"
  }
  data_param {
    source: "examples/cifar10/cifar10_test_lmdb"
    batch_size: 1000
    backend: LMDB
  }
}
layer {
  name: "conv0"
  type: "Convolution"
  bottom: "data"
  top: "conv0"
  param {
    lr_mult: 1
  }
  param {
    lr_mult: 2
  }
  convolution_param {
    num_output: 8
    pad: 2
    kernel_size: 5
    stride: 1
    weight_filler {
      type: "gaussian"
      std: 0.01
    }
    bias_filler {
      type: "constant"
    }
  }
}
layer {
  name: "Sigmoid0"
  type: "Sigmoid"
  bottom: "conv0"
  top: "Sigmoid0"
}
layer {
  name: "pool0"
  type: "Pooling"
  bottom: "Sigmoid0"
  top: "pool0"
  pooling_param {
    pool: AVE
    kernel_size: 3
    stride: 2
  }
}
layer {
  name: "ip1"
  type: "InnerProduct"
  bottom: "pool0"
  top: "ip1"
  param {
    lr_mult: 1
  }
  param {
    lr_mult: 2
  }
  inner_product_param {
    num_output: 40
    weight_filler {
      type: "gaussian"
      std: 0.01
    }
    bias_filler {
      type: "constant"
    }
  }
}
layer {
  name: "relu1"
  type: "ReLU"
  bottom: "ip1"
  top: "ip1"
}
layer {
  name: "ip2"
  type: "InnerProduct"
  bottom: "ip1"
  top: "ip2"
  param {
    lr_mult: 1
  }
  param {
    lr_mult: 2
  }
  inner_product_param {
    num_output: 160
    weight_filler {
      type: "gaussian"
      std: 0.01
    }
    bias_filler {
      type: "constant"
    }
  }
}
layer {
  name: "relu2"
  type: "ReLU"
  bottom: "ip2"
  top: "ip2"
}
layer {
  name: "ip3"
  type: "InnerProduct"
  bottom: "ip2"
  top: "ip3"
  param {
    lr_mult: 1
  }
  param {
    lr_mult: 2
  }
  inner_product_param {
    num_output: 10
    weight_filler {
      type: "gaussian"
      std: 0.01
    }
    bias_filler {
      type: "constant"
    }
  }
}
layer {
  name: "relu3"
  type: "ReLU"
  bottom: "ip3"
  top: "ip3"
}
layer {
  name: "ip4"
  type: "InnerProduct"
  bottom: "ip3"
  top: "ip4"
  param {
    lr_mult: 1
  }
  param {
    lr_mult: 2
  }
  inner_product_param {
    num_output: 10
    weight_filler {
      type: "gaussian"
      std: 0.01
    }
    bias_filler {
      type: "constant"
    }
  }
}
layer {
  name: "accuracy"
  type: "Accuracy"
  bottom: "ip4"
  bottom: "label"
  top: "accuracy"
  include {
    phase: TEST
  }
}
layer {
  name: "loss"
  type: "SoftmaxWithLoss"
  bottom: "ip4"
  bottom: "label"
  top: "loss"
}
I0501 05:11:16.689205 28086 layer_factory.hpp:77] Creating layer cifar
I0501 05:11:16.689247 28086 db_lmdb.cpp:35] Opened lmdb examples/cifar10/cifar10_test_lmdb
I0501 05:11:16.689260 28086 net.cpp:86] Creating Layer cifar
I0501 05:11:16.689263 28086 net.cpp:382] cifar -> data
I0501 05:11:16.689270 28086 net.cpp:382] cifar -> label
I0501 05:11:16.689276 28086 data_transformer.cpp:25] Loading mean file from: examples/cifar10/mean.binaryproto
I0501 05:11:16.689414 28086 data_layer.cpp:45] output data size: 1000,3,32,32
I0501 05:11:16.710676 28086 net.cpp:124] Setting up cifar
I0501 05:11:16.710702 28086 net.cpp:131] Top shape: 1000 3 32 32 (3072000)
I0501 05:11:16.710708 28086 net.cpp:131] Top shape: 1000 (1000)
I0501 05:11:16.710711 28086 net.cpp:139] Memory required for data: 12292000
I0501 05:11:16.710716 28086 layer_factory.hpp:77] Creating layer label_cifar_1_split
I0501 05:11:16.710728 28086 net.cpp:86] Creating Layer label_cifar_1_split
I0501 05:11:16.710746 28086 net.cpp:408] label_cifar_1_split <- label
I0501 05:11:16.710752 28086 net.cpp:382] label_cifar_1_split -> label_cifar_1_split_0
I0501 05:11:16.710777 28086 net.cpp:382] label_cifar_1_split -> label_cifar_1_split_1
I0501 05:11:16.710885 28086 net.cpp:124] Setting up label_cifar_1_split
I0501 05:11:16.710893 28086 net.cpp:131] Top shape: 1000 (1000)
I0501 05:11:16.710897 28086 net.cpp:131] Top shape: 1000 (1000)
I0501 05:11:16.710901 28086 net.cpp:139] Memory required for data: 12300000
I0501 05:11:16.710903 28086 layer_factory.hpp:77] Creating layer conv0
I0501 05:11:16.710916 28086 net.cpp:86] Creating Layer conv0
I0501 05:11:16.710919 28086 net.cpp:408] conv0 <- data
I0501 05:11:16.710924 28086 net.cpp:382] conv0 -> conv0
I0501 05:11:16.713500 28086 net.cpp:124] Setting up conv0
I0501 05:11:16.713513 28086 net.cpp:131] Top shape: 1000 8 32 32 (8192000)
I0501 05:11:16.713517 28086 net.cpp:139] Memory required for data: 45068000
I0501 05:11:16.713526 28086 layer_factory.hpp:77] Creating layer Sigmoid0
I0501 05:11:16.713548 28086 net.cpp:86] Creating Layer Sigmoid0
I0501 05:11:16.713551 28086 net.cpp:408] Sigmoid0 <- conv0
I0501 05:11:16.713557 28086 net.cpp:382] Sigmoid0 -> Sigmoid0
I0501 05:11:16.713748 28086 net.cpp:124] Setting up Sigmoid0
I0501 05:11:16.713757 28086 net.cpp:131] Top shape: 1000 8 32 32 (8192000)
I0501 05:11:16.713760 28086 net.cpp:139] Memory required for data: 77836000
I0501 05:11:16.713764 28086 layer_factory.hpp:77] Creating layer pool0
I0501 05:11:16.713773 28086 net.cpp:86] Creating Layer pool0
I0501 05:11:16.713776 28086 net.cpp:408] pool0 <- Sigmoid0
I0501 05:11:16.713780 28086 net.cpp:382] pool0 -> pool0
I0501 05:11:16.713946 28086 net.cpp:124] Setting up pool0
I0501 05:11:16.713955 28086 net.cpp:131] Top shape: 1000 8 16 16 (2048000)
I0501 05:11:16.713958 28086 net.cpp:139] Memory required for data: 86028000
I0501 05:11:16.713960 28086 layer_factory.hpp:77] Creating layer ip1
I0501 05:11:16.713968 28086 net.cpp:86] Creating Layer ip1
I0501 05:11:16.713970 28086 net.cpp:408] ip1 <- pool0
I0501 05:11:16.713976 28086 net.cpp:382] ip1 -> ip1
I0501 05:11:16.716161 28086 net.cpp:124] Setting up ip1
I0501 05:11:16.716168 28086 net.cpp:131] Top shape: 1000 40 (40000)
I0501 05:11:16.716171 28086 net.cpp:139] Memory required for data: 86188000
I0501 05:11:16.716208 28086 layer_factory.hpp:77] Creating layer relu1
I0501 05:11:16.716215 28086 net.cpp:86] Creating Layer relu1
I0501 05:11:16.716218 28086 net.cpp:408] relu1 <- ip1
I0501 05:11:16.716238 28086 net.cpp:369] relu1 -> ip1 (in-place)
I0501 05:11:16.716400 28086 net.cpp:124] Setting up relu1
I0501 05:11:16.716408 28086 net.cpp:131] Top shape: 1000 40 (40000)
I0501 05:11:16.716410 28086 net.cpp:139] Memory required for data: 86348000
I0501 05:11:16.716413 28086 layer_factory.hpp:77] Creating layer ip2
I0501 05:11:16.716420 28086 net.cpp:86] Creating Layer ip2
I0501 05:11:16.716423 28086 net.cpp:408] ip2 <- ip1
I0501 05:11:16.716428 28086 net.cpp:382] ip2 -> ip2
I0501 05:11:16.716683 28086 net.cpp:124] Setting up ip2
I0501 05:11:16.716691 28086 net.cpp:131] Top shape: 1000 160 (160000)
I0501 05:11:16.716693 28086 net.cpp:139] Memory required for data: 86988000
I0501 05:11:16.716701 28086 layer_factory.hpp:77] Creating layer relu2
I0501 05:11:16.716707 28086 net.cpp:86] Creating Layer relu2
I0501 05:11:16.716711 28086 net.cpp:408] relu2 <- ip2
I0501 05:11:16.716714 28086 net.cpp:369] relu2 -> ip2 (in-place)
I0501 05:11:16.717561 28086 net.cpp:124] Setting up relu2
I0501 05:11:16.717574 28086 net.cpp:131] Top shape: 1000 160 (160000)
I0501 05:11:16.717577 28086 net.cpp:139] Memory required for data: 87628000
I0501 05:11:16.717581 28086 layer_factory.hpp:77] Creating layer ip3
I0501 05:11:16.717603 28086 net.cpp:86] Creating Layer ip3
I0501 05:11:16.717607 28086 net.cpp:408] ip3 <- ip2
I0501 05:11:16.717612 28086 net.cpp:382] ip3 -> ip3
I0501 05:11:16.717756 28086 net.cpp:124] Setting up ip3
I0501 05:11:16.717763 28086 net.cpp:131] Top shape: 1000 10 (10000)
I0501 05:11:16.717767 28086 net.cpp:139] Memory required for data: 87668000
I0501 05:11:16.717772 28086 layer_factory.hpp:77] Creating layer relu3
I0501 05:11:16.717777 28086 net.cpp:86] Creating Layer relu3
I0501 05:11:16.717780 28086 net.cpp:408] relu3 <- ip3
I0501 05:11:16.717784 28086 net.cpp:369] relu3 -> ip3 (in-place)
I0501 05:11:16.717931 28086 net.cpp:124] Setting up relu3
I0501 05:11:16.717939 28086 net.cpp:131] Top shape: 1000 10 (10000)
I0501 05:11:16.717942 28086 net.cpp:139] Memory required for data: 87708000
I0501 05:11:16.717945 28086 layer_factory.hpp:77] Creating layer ip4
I0501 05:11:16.717952 28086 net.cpp:86] Creating Layer ip4
I0501 05:11:16.717954 28086 net.cpp:408] ip4 <- ip3
I0501 05:11:16.717958 28086 net.cpp:382] ip4 -> ip4
I0501 05:11:16.718058 28086 net.cpp:124] Setting up ip4
I0501 05:11:16.718065 28086 net.cpp:131] Top shape: 1000 10 (10000)
I0501 05:11:16.718067 28086 net.cpp:139] Memory required for data: 87748000
I0501 05:11:16.718075 28086 layer_factory.hpp:77] Creating layer ip4_ip4_0_split
I0501 05:11:16.718080 28086 net.cpp:86] Creating Layer ip4_ip4_0_split
I0501 05:11:16.718083 28086 net.cpp:408] ip4_ip4_0_split <- ip4
I0501 05:11:16.718087 28086 net.cpp:382] ip4_ip4_0_split -> ip4_ip4_0_split_0
I0501 05:11:16.718108 28086 net.cpp:382] ip4_ip4_0_split -> ip4_ip4_0_split_1
I0501 05:11:16.718139 28086 net.cpp:124] Setting up ip4_ip4_0_split
I0501 05:11:16.718145 28086 net.cpp:131] Top shape: 1000 10 (10000)
I0501 05:11:16.718148 28086 net.cpp:131] Top shape: 1000 10 (10000)
I0501 05:11:16.718152 28086 net.cpp:139] Memory required for data: 87828000
I0501 05:11:16.718154 28086 layer_factory.hpp:77] Creating layer accuracy
I0501 05:11:16.718160 28086 net.cpp:86] Creating Layer accuracy
I0501 05:11:16.718163 28086 net.cpp:408] accuracy <- ip4_ip4_0_split_0
I0501 05:11:16.718166 28086 net.cpp:408] accuracy <- label_cifar_1_split_0
I0501 05:11:16.718171 28086 net.cpp:382] accuracy -> accuracy
…
