…
I0501 04:34:07.445128 25700 net.cpp:296] The NetState phase (0) differed from the phase (1) specified by a rule in layer cifar
I0501 04:34:07.445147 25700 net.cpp:296] The NetState phase (0) differed from the phase (1) specified by a rule in layer accuracy
I0501 04:34:07.445271 25700 net.cpp:53] Initializing net from parameters: 
name: "CIFAR"
state {
  phase: TRAIN
  level: 0
  stage: ""
}
layer {
  name: "cifar"
  type: "Data"
  top: "data"
  top: "label"
  include {
    phase: TRAIN
  }
  transform_param {
    mean_file: "examples/cifar10/mean.binaryproto"
  }
  data_param {
    source: "examples/cifar10/cifar10_train_lmdb"
    batch_size: 111
    backend: LMDB
  }
}
layer {
  name: "conv0"
  type: "Convolution"
  bottom: "data"
  top: "conv0"
  param {
    lr_mult: 1
  }
  param {
    lr_mult: 2
  }
  convolution_param {
    num_output: 8
    pad: 2
    kernel_size: 5
    stride: 1
    weight_filler {
      type: "gaussian"
      std: 0.01
    }
    bias_filler {
      type: "constant"
    }
  }
}
layer {
  name: "Sigmoid0"
  type: "Sigmoid"
  bottom: "conv0"
  top: "Sigmoid0"
}
layer {
  name: "pool0"
  type: "Pooling"
  bottom: "Sigmoid0"
  top: "pool0"
  pooling_param {
    pool: AVE
    kernel_size: 3
    stride: 2
  }
}
layer {
  name: "ip1"
  type: "InnerProduct"
  bottom: "pool0"
  top: "ip1"
  param {
    lr_mult: 1
  }
  param {
    lr_mult: 2
  }
  inner_product_param {
    num_output: 40
    weight_filler {
      type: "gaussian"
      std: 0.01
    }
    bias_filler {
      type: "constant"
    }
  }
}
layer {
  name: "relu1"
  type: "ReLU"
  bottom: "ip1"
  top: "ip1"
}
layer {
  name: "ip2"
  type: "InnerProduct"
  bottom: "ip1"
  top: "ip2"
  param {
    lr_mult: 1
  }
  param {
    lr_mult: 2
  }
  inner_product_param {
    num_output: 10
    weight_filler {
      type: "gaussian"
      std: 0.01
    }
    bias_filler {
      type: "constant"
    }
  }
}
layer {
  name: "relu2"
  type: "ReLU"
  bottom: "ip2"
  top: "ip2"
}
layer {
  name: "ip3"
  type: "InnerProduct"
  bottom: "ip2"
  top: "ip3"
  param {
    lr_mult: 1
  }
  param {
    lr_mult: 2
  }
  inner_product_param {
    num_output: 10
    weight_filler {
      type: "gaussian"
      std: 0.01
    }
    bias_filler {
      type: "constant"
    }
  }
}
layer {
  name: "relu3"
  type: "ReLU"
  bottom: "ip3"
  top: "ip3"
}
layer {
  name: "ip4"
  type: "InnerProduct"
  bottom: "ip3"
  top: "ip4"
  param {
    lr_mult: 1
  }
  param {
    lr_mult: 2
  }
  inner_product_param {
    num_output: 10
    weight_filler {
      type: "gaussian"
      std: 0.01
    }
    bias_filler {
      type: "constant"
    }
  }
}
layer {
  name: "loss"
  type: "SoftmaxWithLoss"
  bottom: "ip4"
  bottom: "label"
  top: "loss"
}
I0501 04:34:07.445380 25700 layer_factory.hpp:77] Creating layer cifar
I0501 04:34:07.445510 25700 db_lmdb.cpp:35] Opened lmdb examples/cifar10/cifar10_train_lmdb
I0501 04:34:07.445549 25700 net.cpp:86] Creating Layer cifar
I0501 04:34:07.445562 25700 net.cpp:382] cifar -> data
I0501 04:34:07.445592 25700 net.cpp:382] cifar -> label
I0501 04:34:07.445610 25700 data_transformer.cpp:25] Loading mean file from: examples/cifar10/mean.binaryproto
I0501 04:34:07.447995 25700 data_layer.cpp:45] output data size: 111,3,32,32
I0501 04:34:07.455924 25700 net.cpp:124] Setting up cifar
I0501 04:34:07.455945 25700 net.cpp:131] Top shape: 111 3 32 32 (340992)
I0501 04:34:07.455951 25700 net.cpp:131] Top shape: 111 (111)
I0501 04:34:07.455955 25700 net.cpp:139] Memory required for data: 1364412
I0501 04:34:07.455977 25700 layer_factory.hpp:77] Creating layer conv0
I0501 04:34:07.456001 25700 net.cpp:86] Creating Layer conv0
I0501 04:34:07.456010 25700 net.cpp:408] conv0 <- data
I0501 04:34:07.456027 25700 net.cpp:382] conv0 -> conv0
I0501 04:34:07.736970 25700 net.cpp:124] Setting up conv0
I0501 04:34:07.736996 25700 net.cpp:131] Top shape: 111 8 32 32 (909312)
I0501 04:34:07.737000 25700 net.cpp:139] Memory required for data: 5001660
I0501 04:34:07.737017 25700 layer_factory.hpp:77] Creating layer Sigmoid0
I0501 04:34:07.737032 25700 net.cpp:86] Creating Layer Sigmoid0
I0501 04:34:07.737040 25700 net.cpp:408] Sigmoid0 <- conv0
I0501 04:34:07.737047 25700 net.cpp:382] Sigmoid0 -> Sigmoid0
I0501 04:34:07.737270 25700 net.cpp:124] Setting up Sigmoid0
I0501 04:34:07.737280 25700 net.cpp:131] Top shape: 111 8 32 32 (909312)
I0501 04:34:07.737283 25700 net.cpp:139] Memory required for data: 8638908
I0501 04:34:07.737288 25700 layer_factory.hpp:77] Creating layer pool0
I0501 04:34:07.737298 25700 net.cpp:86] Creating Layer pool0
I0501 04:34:07.737303 25700 net.cpp:408] pool0 <- Sigmoid0
I0501 04:34:07.737310 25700 net.cpp:382] pool0 -> pool0
I0501 04:34:07.738057 25700 net.cpp:124] Setting up pool0
I0501 04:34:07.738070 25700 net.cpp:131] Top shape: 111 8 16 16 (227328)
I0501 04:34:07.738073 25700 net.cpp:139] Memory required for data: 9548220
I0501 04:34:07.738076 25700 layer_factory.hpp:77] Creating layer ip1
I0501 04:34:07.738086 25700 net.cpp:86] Creating Layer ip1
I0501 04:34:07.738090 25700 net.cpp:408] ip1 <- pool0
I0501 04:34:07.738095 25700 net.cpp:382] ip1 -> ip1
I0501 04:34:07.740244 25700 net.cpp:124] Setting up ip1
I0501 04:34:07.740252 25700 net.cpp:131] Top shape: 111 40 (4440)
I0501 04:34:07.740257 25700 net.cpp:139] Memory required for data: 9565980
I0501 04:34:07.740263 25700 layer_factory.hpp:77] Creating layer relu1
I0501 04:34:07.740268 25700 net.cpp:86] Creating Layer relu1
I0501 04:34:07.740272 25700 net.cpp:408] relu1 <- ip1
I0501 04:34:07.740275 25700 net.cpp:369] relu1 -> ip1 (in-place)
I0501 04:34:07.740435 25700 net.cpp:124] Setting up relu1
I0501 04:34:07.740444 25700 net.cpp:131] Top shape: 111 40 (4440)
I0501 04:34:07.740447 25700 net.cpp:139] Memory required for data: 9583740
I0501 04:34:07.740450 25700 layer_factory.hpp:77] Creating layer ip2
I0501 04:34:07.740459 25700 net.cpp:86] Creating Layer ip2
I0501 04:34:07.740465 25700 net.cpp:408] ip2 <- ip1
I0501 04:34:07.740473 25700 net.cpp:382] ip2 -> ip2
I0501 04:34:07.740576 25700 net.cpp:124] Setting up ip2
I0501 04:34:07.740582 25700 net.cpp:131] Top shape: 111 10 (1110)
I0501 04:34:07.740586 25700 net.cpp:139] Memory required for data: 9588180
I0501 04:34:07.740594 25700 layer_factory.hpp:77] Creating layer relu2
I0501 04:34:07.740602 25700 net.cpp:86] Creating Layer relu2
I0501 04:34:07.740607 25700 net.cpp:408] relu2 <- ip2
I0501 04:34:07.740614 25700 net.cpp:369] relu2 -> ip2 (in-place)
I0501 04:34:07.740761 25700 net.cpp:124] Setting up relu2
I0501 04:34:07.740769 25700 net.cpp:131] Top shape: 111 10 (1110)
I0501 04:34:07.740772 25700 net.cpp:139] Memory required for data: 9592620
I0501 04:34:07.740777 25700 layer_factory.hpp:77] Creating layer ip3
I0501 04:34:07.740787 25700 net.cpp:86] Creating Layer ip3
I0501 04:34:07.740792 25700 net.cpp:408] ip3 <- ip2
I0501 04:34:07.740799 25700 net.cpp:382] ip3 -> ip3
I0501 04:34:07.740926 25700 net.cpp:124] Setting up ip3
I0501 04:34:07.740934 25700 net.cpp:131] Top shape: 111 10 (1110)
I0501 04:34:07.740938 25700 net.cpp:139] Memory required for data: 9597060
I0501 04:34:07.740944 25700 layer_factory.hpp:77] Creating layer relu3
I0501 04:34:07.740952 25700 net.cpp:86] Creating Layer relu3
I0501 04:34:07.740958 25700 net.cpp:408] relu3 <- ip3
I0501 04:34:07.740965 25700 net.cpp:369] relu3 -> ip3 (in-place)
I0501 04:34:07.741116 25700 net.cpp:124] Setting up relu3
I0501 04:34:07.741122 25700 net.cpp:131] Top shape: 111 10 (1110)
I0501 04:34:07.741125 25700 net.cpp:139] Memory required for data: 9601500
I0501 04:34:07.741129 25700 layer_factory.hpp:77] Creating layer ip4
I0501 04:34:07.741170 25700 net.cpp:86] Creating Layer ip4
I0501 04:34:07.741176 25700 net.cpp:408] ip4 <- ip3
I0501 04:34:07.741184 25700 net.cpp:382] ip4 -> ip4
I0501 04:34:07.741281 25700 net.cpp:124] Setting up ip4
I0501 04:34:07.741287 25700 net.cpp:131] Top shape: 111 10 (1110)
I0501 04:34:07.741291 25700 net.cpp:139] Memory required for data: 9605940
I0501 04:34:07.741300 25700 layer_factory.hpp:77] Creating layer loss
I0501 04:34:07.741308 25700 net.cpp:86] Creating Layer loss
I0501 04:34:07.741313 25700 net.cpp:408] loss <- ip4
I0501 04:34:07.741319 25700 net.cpp:408] loss <- label
I0501 04:34:07.741328 25700 net.cpp:382] loss -> loss
I0501 04:34:07.741350 25700 layer_factory.hpp:77] Creating layer loss
…
I0501 04:34:07.742519 25700 solver.cpp:173] Creating test net (#0) specified by net file: ECE595/cifar/train_test/var_everything/cifar_train_test_390.prototxt
I0501 04:34:07.742548 25700 net.cpp:296] The NetState phase (1) differed from the phase (0) specified by a rule in layer cifar
I0501 04:34:07.742646 25700 net.cpp:53] Initializing net from parameters: 
name: "CIFAR"
state {
  phase: TEST
}
layer {
  name: "cifar"
  type: "Data"
  top: "data"
  top: "label"
  include {
    phase: TEST
  }
  transform_param {
    mean_file: "examples/cifar10/mean.binaryproto"
  }
  data_param {
    source: "examples/cifar10/cifar10_test_lmdb"
    batch_size: 1000
    backend: LMDB
  }
}
layer {
  name: "conv0"
  type: "Convolution"
  bottom: "data"
  top: "conv0"
  param {
    lr_mult: 1
  }
  param {
    lr_mult: 2
  }
  convolution_param {
    num_output: 8
    pad: 2
    kernel_size: 5
    stride: 1
    weight_filler {
      type: "gaussian"
      std: 0.01
    }
    bias_filler {
      type: "constant"
    }
  }
}
layer {
  name: "Sigmoid0"
  type: "Sigmoid"
  bottom: "conv0"
  top: "Sigmoid0"
}
layer {
  name: "pool0"
  type: "Pooling"
  bottom: "Sigmoid0"
  top: "pool0"
  pooling_param {
    pool: AVE
    kernel_size: 3
    stride: 2
  }
}
layer {
  name: "ip1"
  type: "InnerProduct"
  bottom: "pool0"
  top: "ip1"
  param {
    lr_mult: 1
  }
  param {
    lr_mult: 2
  }
  inner_product_param {
    num_output: 40
    weight_filler {
      type: "gaussian"
      std: 0.01
    }
    bias_filler {
      type: "constant"
    }
  }
}
layer {
  name: "relu1"
  type: "ReLU"
  bottom: "ip1"
  top: "ip1"
}
layer {
  name: "ip2"
  type: "InnerProduct"
  bottom: "ip1"
  top: "ip2"
  param {
    lr_mult: 1
  }
  param {
    lr_mult: 2
  }
  inner_product_param {
    num_output: 10
    weight_filler {
      type: "gaussian"
      std: 0.01
    }
    bias_filler {
      type: "constant"
    }
  }
}
layer {
  name: "relu2"
  type: "ReLU"
  bottom: "ip2"
  top: "ip2"
}
layer {
  name: "ip3"
  type: "InnerProduct"
  bottom: "ip2"
  top: "ip3"
  param {
    lr_mult: 1
  }
  param {
    lr_mult: 2
  }
  inner_product_param {
    num_output: 10
    weight_filler {
      type: "gaussian"
      std: 0.01
    }
    bias_filler {
      type: "constant"
    }
  }
}
layer {
  name: "relu3"
  type: "ReLU"
  bottom: "ip3"
  top: "ip3"
}
layer {
  name: "ip4"
  type: "InnerProduct"
  bottom: "ip3"
  top: "ip4"
  param {
    lr_mult: 1
  }
  param {
    lr_mult: 2
  }
  inner_product_param {
    num_output: 10
    weight_filler {
      type: "gaussian"
      std: 0.01
    }
    bias_filler {
      type: "constant"
    }
  }
}
layer {
  name: "accuracy"
  type: "Accuracy"
  bottom: "ip4"
  bottom: "label"
  top: "accuracy"
  include {
    phase: TEST
  }
}
layer {
  name: "loss"
  type: "SoftmaxWithLoss"
  bottom: "ip4"
  bottom: "label"
  top: "loss"
}
I0501 04:34:07.742748 25700 layer_factory.hpp:77] Creating layer cifar
I0501 04:34:07.742805 25700 db_lmdb.cpp:35] Opened lmdb examples/cifar10/cifar10_test_lmdb
I0501 04:34:07.742822 25700 net.cpp:86] Creating Layer cifar
I0501 04:34:07.742830 25700 net.cpp:382] cifar -> data
I0501 04:34:07.742841 25700 net.cpp:382] cifar -> label
I0501 04:34:07.742851 25700 data_transformer.cpp:25] Loading mean file from: examples/cifar10/mean.binaryproto
I0501 04:34:07.743033 25700 data_layer.cpp:45] output data size: 1000,3,32,32
I0501 04:34:07.765046 25700 net.cpp:124] Setting up cifar
I0501 04:34:07.765099 25700 net.cpp:131] Top shape: 1000 3 32 32 (3072000)
I0501 04:34:07.765105 25700 net.cpp:131] Top shape: 1000 (1000)
I0501 04:34:07.765122 25700 net.cpp:139] Memory required for data: 12292000
I0501 04:34:07.765130 25700 layer_factory.hpp:77] Creating layer label_cifar_1_split
I0501 04:34:07.765146 25700 net.cpp:86] Creating Layer label_cifar_1_split
I0501 04:34:07.765149 25700 net.cpp:408] label_cifar_1_split <- label
I0501 04:34:07.765158 25700 net.cpp:382] label_cifar_1_split -> label_cifar_1_split_0
I0501 04:34:07.765171 25700 net.cpp:382] label_cifar_1_split -> label_cifar_1_split_1
I0501 04:34:07.765244 25700 net.cpp:124] Setting up label_cifar_1_split
I0501 04:34:07.765254 25700 net.cpp:131] Top shape: 1000 (1000)
I0501 04:34:07.765259 25700 net.cpp:131] Top shape: 1000 (1000)
I0501 04:34:07.765262 25700 net.cpp:139] Memory required for data: 12300000
I0501 04:34:07.765266 25700 layer_factory.hpp:77] Creating layer conv0
I0501 04:34:07.765283 25700 net.cpp:86] Creating Layer conv0
I0501 04:34:07.765290 25700 net.cpp:408] conv0 <- data
I0501 04:34:07.765297 25700 net.cpp:382] conv0 -> conv0
I0501 04:34:07.767210 25700 net.cpp:124] Setting up conv0
I0501 04:34:07.767228 25700 net.cpp:131] Top shape: 1000 8 32 32 (8192000)
I0501 04:34:07.767235 25700 net.cpp:139] Memory required for data: 45068000
I0501 04:34:07.767251 25700 layer_factory.hpp:77] Creating layer Sigmoid0
I0501 04:34:07.767261 25700 net.cpp:86] Creating Layer Sigmoid0
I0501 04:34:07.767267 25700 net.cpp:408] Sigmoid0 <- conv0
I0501 04:34:07.767276 25700 net.cpp:382] Sigmoid0 -> Sigmoid0
I0501 04:34:07.767482 25700 net.cpp:124] Setting up Sigmoid0
I0501 04:34:07.767491 25700 net.cpp:131] Top shape: 1000 8 32 32 (8192000)
I0501 04:34:07.767495 25700 net.cpp:139] Memory required for data: 77836000
I0501 04:34:07.767499 25700 layer_factory.hpp:77] Creating layer pool0
I0501 04:34:07.767508 25700 net.cpp:86] Creating Layer pool0
I0501 04:34:07.767511 25700 net.cpp:408] pool0 <- Sigmoid0
I0501 04:34:07.767531 25700 net.cpp:382] pool0 -> pool0
I0501 04:34:07.767796 25700 net.cpp:124] Setting up pool0
I0501 04:34:07.767805 25700 net.cpp:131] Top shape: 1000 8 16 16 (2048000)
I0501 04:34:07.767808 25700 net.cpp:139] Memory required for data: 86028000
I0501 04:34:07.767812 25700 layer_factory.hpp:77] Creating layer ip1
I0501 04:34:07.767819 25700 net.cpp:86] Creating Layer ip1
I0501 04:34:07.767823 25700 net.cpp:408] ip1 <- pool0
I0501 04:34:07.767828 25700 net.cpp:382] ip1 -> ip1
I0501 04:34:07.771129 25700 net.cpp:124] Setting up ip1
I0501 04:34:07.771140 25700 net.cpp:131] Top shape: 1000 40 (40000)
I0501 04:34:07.771144 25700 net.cpp:139] Memory required for data: 86188000
I0501 04:34:07.771184 25700 layer_factory.hpp:77] Creating layer relu1
I0501 04:34:07.771191 25700 net.cpp:86] Creating Layer relu1
I0501 04:34:07.771195 25700 net.cpp:408] relu1 <- ip1
I0501 04:34:07.771200 25700 net.cpp:369] relu1 -> ip1 (in-place)
I0501 04:34:07.771370 25700 net.cpp:124] Setting up relu1
I0501 04:34:07.771379 25700 net.cpp:131] Top shape: 1000 40 (40000)
I0501 04:34:07.771383 25700 net.cpp:139] Memory required for data: 86348000
I0501 04:34:07.771386 25700 layer_factory.hpp:77] Creating layer ip2
I0501 04:34:07.771392 25700 net.cpp:86] Creating Layer ip2
I0501 04:34:07.771396 25700 net.cpp:408] ip2 <- ip1
I0501 04:34:07.771401 25700 net.cpp:382] ip2 -> ip2
I0501 04:34:07.771519 25700 net.cpp:124] Setting up ip2
I0501 04:34:07.771526 25700 net.cpp:131] Top shape: 1000 10 (10000)
I0501 04:34:07.771529 25700 net.cpp:139] Memory required for data: 86388000
I0501 04:34:07.771538 25700 layer_factory.hpp:77] Creating layer relu2
I0501 04:34:07.771543 25700 net.cpp:86] Creating Layer relu2
I0501 04:34:07.771548 25700 net.cpp:408] relu2 <- ip2
I0501 04:34:07.771551 25700 net.cpp:369] relu2 -> ip2 (in-place)
I0501 04:34:07.772357 25700 net.cpp:124] Setting up relu2
I0501 04:34:07.772370 25700 net.cpp:131] Top shape: 1000 10 (10000)
I0501 04:34:07.772389 25700 net.cpp:139] Memory required for data: 86428000
I0501 04:34:07.772393 25700 layer_factory.hpp:77] Creating layer ip3
I0501 04:34:07.772400 25700 net.cpp:86] Creating Layer ip3
I0501 04:34:07.772404 25700 net.cpp:408] ip3 <- ip2
I0501 04:34:07.772423 25700 net.cpp:382] ip3 -> ip3
I0501 04:34:07.772548 25700 net.cpp:124] Setting up ip3
I0501 04:34:07.772557 25700 net.cpp:131] Top shape: 1000 10 (10000)
I0501 04:34:07.772559 25700 net.cpp:139] Memory required for data: 86468000
I0501 04:34:07.772565 25700 layer_factory.hpp:77] Creating layer relu3
I0501 04:34:07.772570 25700 net.cpp:86] Creating Layer relu3
I0501 04:34:07.772574 25700 net.cpp:408] relu3 <- ip3
I0501 04:34:07.772578 25700 net.cpp:369] relu3 -> ip3 (in-place)
I0501 04:34:07.772730 25700 net.cpp:124] Setting up relu3
I0501 04:34:07.772738 25700 net.cpp:131] Top shape: 1000 10 (10000)
I0501 04:34:07.772742 25700 net.cpp:139] Memory required for data: 86508000
I0501 04:34:07.772744 25700 layer_factory.hpp:77] Creating layer ip4
I0501 04:34:07.772750 25700 net.cpp:86] Creating Layer ip4
I0501 04:34:07.772753 25700 net.cpp:408] ip4 <- ip3
I0501 04:34:07.772758 25700 net.cpp:382] ip4 -> ip4
I0501 04:34:07.772867 25700 net.cpp:124] Setting up ip4
I0501 04:34:07.772876 25700 net.cpp:131] Top shape: 1000 10 (10000)
I0501 04:34:07.772878 25700 net.cpp:139] Memory required for data: 86548000
I0501 04:34:07.772887 25700 layer_factory.hpp:77] Creating layer ip4_ip4_0_split
I0501 04:34:07.772892 25700 net.cpp:86] Creating Layer ip4_ip4_0_split
I0501 04:34:07.772896 25700 net.cpp:408] ip4_ip4_0_split <- ip4
I0501 04:34:07.772899 25700 net.cpp:382] ip4_ip4_0_split -> ip4_ip4_0_split_0
I0501 04:34:07.772905 25700 net.cpp:382] ip4_ip4_0_split -> ip4_ip4_0_split_1
I0501 04:34:07.772938 25700 net.cpp:124] Setting up ip4_ip4_0_split
I0501 04:34:07.772943 25700 net.cpp:131] Top shape: 1000 10 (10000)
I0501 04:34:07.772948 25700 net.cpp:131] Top shape: 1000 10 (10000)
I0501 04:34:07.772950 25700 net.cpp:139] Memory required for data: 86628000
I0501 04:34:07.772953 25700 layer_factory.hpp:77] Creating layer accuracy
I0501 04:34:07.772959 25700 net.cpp:86] Creating Layer accuracy
I0501 04:34:07.772963 25700 net.cpp:408] accuracy <- ip4_ip4_0_split_0
I0501 04:34:07.772967 25700 net.cpp:408] accuracy <- label_cifar_1_split_0
I0501 04:34:07.772971 25700 net.cpp:382] accuracy -> accuracy
…
