…
I0501 08:56:20.392238 12480 net.cpp:296] The NetState phase (0) differed from the phase (1) specified by a rule in layer cifar
I0501 08:56:20.392256 12480 net.cpp:296] The NetState phase (0) differed from the phase (1) specified by a rule in layer accuracy
I0501 08:56:20.392355 12480 net.cpp:53] Initializing net from parameters: 
name: "CIFAR"
state {
  phase: TRAIN
  level: 0
  stage: ""
}
layer {
  name: "cifar"
  type: "Data"
  top: "data"
  top: "label"
  include {
    phase: TRAIN
  }
  transform_param {
    mean_file: "examples/cifar10/mean.binaryproto"
  }
  data_param {
    source: "examples/cifar10/cifar10_train_lmdb"
    batch_size: 111
    backend: LMDB
  }
}
layer {
  name: "conv0"
  type: "Convolution"
  bottom: "data"
  top: "conv0"
  param {
    lr_mult: 1
  }
  param {
    lr_mult: 2
  }
  convolution_param {
    num_output: 16
    pad: 2
    kernel_size: 3
    stride: 1
    weight_filler {
      type: "gaussian"
      std: 0.01
    }
    bias_filler {
      type: "constant"
    }
  }
}
layer {
  name: "Sigmoid0"
  type: "Sigmoid"
  bottom: "conv0"
  top: "Sigmoid0"
}
layer {
  name: "pool0"
  type: "Pooling"
  bottom: "Sigmoid0"
  top: "pool0"
  pooling_param {
    pool: AVE
    kernel_size: 3
    stride: 2
  }
}
layer {
  name: "ip1"
  type: "InnerProduct"
  bottom: "pool0"
  top: "ip1"
  param {
    lr_mult: 1
  }
  param {
    lr_mult: 2
  }
  inner_product_param {
    num_output: 20
    weight_filler {
      type: "gaussian"
      std: 0.01
    }
    bias_filler {
      type: "constant"
    }
  }
}
layer {
  name: "relu1"
  type: "ReLU"
  bottom: "ip1"
  top: "ip1"
}
layer {
  name: "ip2"
  type: "InnerProduct"
  bottom: "ip1"
  top: "ip2"
  param {
    lr_mult: 1
  }
  param {
    lr_mult: 2
  }
  inner_product_param {
    num_output: 20
    weight_filler {
      type: "gaussian"
      std: 0.01
    }
    bias_filler {
      type: "constant"
    }
  }
}
layer {
  name: "relu2"
  type: "ReLU"
  bottom: "ip2"
  top: "ip2"
}
layer {
  name: "ip3"
  type: "InnerProduct"
  bottom: "ip2"
  top: "ip3"
  param {
    lr_mult: 1
  }
  param {
    lr_mult: 2
  }
  inner_product_param {
    num_output: 10
    weight_filler {
      type: "gaussian"
      std: 0.01
    }
    bias_filler {
      type: "constant"
    }
  }
}
layer {
  name: "relu3"
  type: "ReLU"
  bottom: "ip3"
  top: "ip3"
}
layer {
  name: "ip4"
  type: "InnerProduct"
  bottom: "ip3"
  top: "ip4"
  param {
    lr_mult: 1
  }
  param {
    lr_mult: 2
  }
  inner_product_param {
    num_output: 10
    weight_filler {
      type: "gaussian"
      std: 0.01
    }
    bias_filler {
      type: "constant"
    }
  }
}
layer {
  name: "loss"
  type: "SoftmaxWithLoss"
  bottom: "ip4"
  bottom: "label"
  top: "loss"
}
I0501 08:56:20.392429 12480 layer_factory.hpp:77] Creating layer cifar
I0501 08:56:20.392529 12480 db_lmdb.cpp:35] Opened lmdb examples/cifar10/cifar10_train_lmdb
I0501 08:56:20.392555 12480 net.cpp:86] Creating Layer cifar
I0501 08:56:20.392563 12480 net.cpp:382] cifar -> data
I0501 08:56:20.392585 12480 net.cpp:382] cifar -> label
I0501 08:56:20.392598 12480 data_transformer.cpp:25] Loading mean file from: examples/cifar10/mean.binaryproto
I0501 08:56:20.394775 12480 data_layer.cpp:45] output data size: 111,3,32,32
I0501 08:56:20.402807 12480 net.cpp:124] Setting up cifar
I0501 08:56:20.402827 12480 net.cpp:131] Top shape: 111 3 32 32 (340992)
I0501 08:56:20.402832 12480 net.cpp:131] Top shape: 111 (111)
I0501 08:56:20.402837 12480 net.cpp:139] Memory required for data: 1364412
I0501 08:56:20.402860 12480 layer_factory.hpp:77] Creating layer conv0
I0501 08:56:20.402879 12480 net.cpp:86] Creating Layer conv0
I0501 08:56:20.402885 12480 net.cpp:408] conv0 <- data
I0501 08:56:20.402896 12480 net.cpp:382] conv0 -> conv0
I0501 08:56:20.695835 12480 net.cpp:124] Setting up conv0
I0501 08:56:20.695868 12480 net.cpp:131] Top shape: 111 16 34 34 (2053056)
I0501 08:56:20.695873 12480 net.cpp:139] Memory required for data: 9576636
I0501 08:56:20.695890 12480 layer_factory.hpp:77] Creating layer Sigmoid0
I0501 08:56:20.695904 12480 net.cpp:86] Creating Layer Sigmoid0
I0501 08:56:20.695909 12480 net.cpp:408] Sigmoid0 <- conv0
I0501 08:56:20.695916 12480 net.cpp:382] Sigmoid0 -> Sigmoid0
I0501 08:56:20.696137 12480 net.cpp:124] Setting up Sigmoid0
I0501 08:56:20.696149 12480 net.cpp:131] Top shape: 111 16 34 34 (2053056)
I0501 08:56:20.696153 12480 net.cpp:139] Memory required for data: 17788860
I0501 08:56:20.696157 12480 layer_factory.hpp:77] Creating layer pool0
I0501 08:56:20.696166 12480 net.cpp:86] Creating Layer pool0
I0501 08:56:20.696169 12480 net.cpp:408] pool0 <- Sigmoid0
I0501 08:56:20.696175 12480 net.cpp:382] pool0 -> pool0
I0501 08:56:20.697060 12480 net.cpp:124] Setting up pool0
I0501 08:56:20.697077 12480 net.cpp:131] Top shape: 111 16 17 17 (513264)
I0501 08:56:20.697082 12480 net.cpp:139] Memory required for data: 19841916
I0501 08:56:20.697087 12480 layer_factory.hpp:77] Creating layer ip1
I0501 08:56:20.697098 12480 net.cpp:86] Creating Layer ip1
I0501 08:56:20.697103 12480 net.cpp:408] ip1 <- pool0
I0501 08:56:20.697109 12480 net.cpp:382] ip1 -> ip1
I0501 08:56:20.700289 12480 net.cpp:124] Setting up ip1
I0501 08:56:20.700299 12480 net.cpp:131] Top shape: 111 20 (2220)
I0501 08:56:20.700302 12480 net.cpp:139] Memory required for data: 19850796
I0501 08:56:20.700311 12480 layer_factory.hpp:77] Creating layer relu1
I0501 08:56:20.700317 12480 net.cpp:86] Creating Layer relu1
I0501 08:56:20.700321 12480 net.cpp:408] relu1 <- ip1
I0501 08:56:20.700326 12480 net.cpp:369] relu1 -> ip1 (in-place)
I0501 08:56:20.700508 12480 net.cpp:124] Setting up relu1
I0501 08:56:20.700520 12480 net.cpp:131] Top shape: 111 20 (2220)
I0501 08:56:20.700523 12480 net.cpp:139] Memory required for data: 19859676
I0501 08:56:20.700526 12480 layer_factory.hpp:77] Creating layer ip2
I0501 08:56:20.700534 12480 net.cpp:86] Creating Layer ip2
I0501 08:56:20.700538 12480 net.cpp:408] ip2 <- ip1
I0501 08:56:20.700543 12480 net.cpp:382] ip2 -> ip2
I0501 08:56:20.700678 12480 net.cpp:124] Setting up ip2
I0501 08:56:20.700687 12480 net.cpp:131] Top shape: 111 20 (2220)
I0501 08:56:20.700690 12480 net.cpp:139] Memory required for data: 19868556
I0501 08:56:20.700700 12480 layer_factory.hpp:77] Creating layer relu2
I0501 08:56:20.700706 12480 net.cpp:86] Creating Layer relu2
I0501 08:56:20.700708 12480 net.cpp:408] relu2 <- ip2
I0501 08:56:20.700713 12480 net.cpp:369] relu2 -> ip2 (in-place)
I0501 08:56:20.700906 12480 net.cpp:124] Setting up relu2
I0501 08:56:20.700917 12480 net.cpp:131] Top shape: 111 20 (2220)
I0501 08:56:20.700922 12480 net.cpp:139] Memory required for data: 19877436
I0501 08:56:20.700925 12480 layer_factory.hpp:77] Creating layer ip3
I0501 08:56:20.700934 12480 net.cpp:86] Creating Layer ip3
I0501 08:56:20.700938 12480 net.cpp:408] ip3 <- ip2
I0501 08:56:20.700944 12480 net.cpp:382] ip3 -> ip3
I0501 08:56:20.701066 12480 net.cpp:124] Setting up ip3
I0501 08:56:20.701074 12480 net.cpp:131] Top shape: 111 10 (1110)
I0501 08:56:20.701078 12480 net.cpp:139] Memory required for data: 19881876
I0501 08:56:20.701084 12480 layer_factory.hpp:77] Creating layer relu3
I0501 08:56:20.701092 12480 net.cpp:86] Creating Layer relu3
I0501 08:56:20.701095 12480 net.cpp:408] relu3 <- ip3
I0501 08:56:20.701099 12480 net.cpp:369] relu3 -> ip3 (in-place)
I0501 08:56:20.701287 12480 net.cpp:124] Setting up relu3
I0501 08:56:20.701297 12480 net.cpp:131] Top shape: 111 10 (1110)
I0501 08:56:20.701302 12480 net.cpp:139] Memory required for data: 19886316
I0501 08:56:20.701304 12480 layer_factory.hpp:77] Creating layer ip4
I0501 08:56:20.701330 12480 net.cpp:86] Creating Layer ip4
I0501 08:56:20.701334 12480 net.cpp:408] ip4 <- ip3
I0501 08:56:20.701339 12480 net.cpp:382] ip4 -> ip4
I0501 08:56:20.701467 12480 net.cpp:124] Setting up ip4
I0501 08:56:20.701475 12480 net.cpp:131] Top shape: 111 10 (1110)
I0501 08:56:20.701479 12480 net.cpp:139] Memory required for data: 19890756
I0501 08:56:20.701489 12480 layer_factory.hpp:77] Creating layer loss
I0501 08:56:20.701495 12480 net.cpp:86] Creating Layer loss
I0501 08:56:20.701499 12480 net.cpp:408] loss <- ip4
I0501 08:56:20.701503 12480 net.cpp:408] loss <- label
I0501 08:56:20.701510 12480 net.cpp:382] loss -> loss
I0501 08:56:20.701529 12480 layer_factory.hpp:77] Creating layer loss
…
I0501 08:56:20.703001 12480 solver.cpp:173] Creating test net (#0) specified by net file: ECE595/cifar/train_test/var_everything/cifar_train_test_525.prototxt
I0501 08:56:20.703034 12480 net.cpp:296] The NetState phase (1) differed from the phase (0) specified by a rule in layer cifar
I0501 08:56:20.703150 12480 net.cpp:53] Initializing net from parameters: 
name: "CIFAR"
state {
  phase: TEST
}
layer {
  name: "cifar"
  type: "Data"
  top: "data"
  top: "label"
  include {
    phase: TEST
  }
  transform_param {
    mean_file: "examples/cifar10/mean.binaryproto"
  }
  data_param {
    source: "examples/cifar10/cifar10_test_lmdb"
    batch_size: 1000
    backend: LMDB
  }
}
layer {
  name: "conv0"
  type: "Convolution"
  bottom: "data"
  top: "conv0"
  param {
    lr_mult: 1
  }
  param {
    lr_mult: 2
  }
  convolution_param {
    num_output: 16
    pad: 2
    kernel_size: 3
    stride: 1
    weight_filler {
      type: "gaussian"
      std: 0.01
    }
    bias_filler {
      type: "constant"
    }
  }
}
layer {
  name: "Sigmoid0"
  type: "Sigmoid"
  bottom: "conv0"
  top: "Sigmoid0"
}
layer {
  name: "pool0"
  type: "Pooling"
  bottom: "Sigmoid0"
  top: "pool0"
  pooling_param {
    pool: AVE
    kernel_size: 3
    stride: 2
  }
}
layer {
  name: "ip1"
  type: "InnerProduct"
  bottom: "pool0"
  top: "ip1"
  param {
    lr_mult: 1
  }
  param {
    lr_mult: 2
  }
  inner_product_param {
    num_output: 20
    weight_filler {
      type: "gaussian"
      std: 0.01
    }
    bias_filler {
      type: "constant"
    }
  }
}
layer {
  name: "relu1"
  type: "ReLU"
  bottom: "ip1"
  top: "ip1"
}
layer {
  name: "ip2"
  type: "InnerProduct"
  bottom: "ip1"
  top: "ip2"
  param {
    lr_mult: 1
  }
  param {
    lr_mult: 2
  }
  inner_product_param {
    num_output: 20
    weight_filler {
      type: "gaussian"
      std: 0.01
    }
    bias_filler {
      type: "constant"
    }
  }
}
layer {
  name: "relu2"
  type: "ReLU"
  bottom: "ip2"
  top: "ip2"
}
layer {
  name: "ip3"
  type: "InnerProduct"
  bottom: "ip2"
  top: "ip3"
  param {
    lr_mult: 1
  }
  param {
    lr_mult: 2
  }
  inner_product_param {
    num_output: 10
    weight_filler {
      type: "gaussian"
      std: 0.01
    }
    bias_filler {
      type: "constant"
    }
  }
}
layer {
  name: "relu3"
  type: "ReLU"
  bottom: "ip3"
  top: "ip3"
}
layer {
  name: "ip4"
  type: "InnerProduct"
  bottom: "ip3"
  top: "ip4"
  param {
    lr_mult: 1
  }
  param {
    lr_mult: 2
  }
  inner_product_param {
    num_output: 10
    weight_filler {
      type: "gaussian"
      std: 0.01
    }
    bias_filler {
      type: "constant"
    }
  }
}
layer {
  name: "accuracy"
  type: "Accuracy"
  bottom: "ip4"
  bottom: "label"
  top: "accuracy"
  include {
    phase: TEST
  }
}
layer {
  name: "loss"
  type: "SoftmaxWithLoss"
  bottom: "ip4"
  bottom: "label"
  top: "loss"
}
I0501 08:56:20.703248 12480 layer_factory.hpp:77] Creating layer cifar
I0501 08:56:20.703301 12480 db_lmdb.cpp:35] Opened lmdb examples/cifar10/cifar10_test_lmdb
I0501 08:56:20.703315 12480 net.cpp:86] Creating Layer cifar
I0501 08:56:20.703322 12480 net.cpp:382] cifar -> data
I0501 08:56:20.703331 12480 net.cpp:382] cifar -> label
I0501 08:56:20.703339 12480 data_transformer.cpp:25] Loading mean file from: examples/cifar10/mean.binaryproto
I0501 08:56:20.703519 12480 data_layer.cpp:45] output data size: 1000,3,32,32
I0501 08:56:20.729440 12480 net.cpp:124] Setting up cifar
I0501 08:56:20.729472 12480 net.cpp:131] Top shape: 1000 3 32 32 (3072000)
I0501 08:56:20.729480 12480 net.cpp:131] Top shape: 1000 (1000)
I0501 08:56:20.729482 12480 net.cpp:139] Memory required for data: 12292000
I0501 08:56:20.729490 12480 layer_factory.hpp:77] Creating layer label_cifar_1_split
I0501 08:56:20.729503 12480 net.cpp:86] Creating Layer label_cifar_1_split
I0501 08:56:20.729509 12480 net.cpp:408] label_cifar_1_split <- label
I0501 08:56:20.729516 12480 net.cpp:382] label_cifar_1_split -> label_cifar_1_split_0
I0501 08:56:20.729531 12480 net.cpp:382] label_cifar_1_split -> label_cifar_1_split_1
I0501 08:56:20.729658 12480 net.cpp:124] Setting up label_cifar_1_split
I0501 08:56:20.729668 12480 net.cpp:131] Top shape: 1000 (1000)
I0501 08:56:20.729673 12480 net.cpp:131] Top shape: 1000 (1000)
I0501 08:56:20.729676 12480 net.cpp:139] Memory required for data: 12300000
I0501 08:56:20.729679 12480 layer_factory.hpp:77] Creating layer conv0
I0501 08:56:20.729697 12480 net.cpp:86] Creating Layer conv0
I0501 08:56:20.729702 12480 net.cpp:408] conv0 <- data
I0501 08:56:20.729709 12480 net.cpp:382] conv0 -> conv0
I0501 08:56:20.731546 12480 net.cpp:124] Setting up conv0
I0501 08:56:20.731562 12480 net.cpp:131] Top shape: 1000 16 34 34 (18496000)
I0501 08:56:20.731567 12480 net.cpp:139] Memory required for data: 86284000
I0501 08:56:20.731581 12480 layer_factory.hpp:77] Creating layer Sigmoid0
I0501 08:56:20.731590 12480 net.cpp:86] Creating Layer Sigmoid0
I0501 08:56:20.731593 12480 net.cpp:408] Sigmoid0 <- conv0
I0501 08:56:20.731600 12480 net.cpp:382] Sigmoid0 -> Sigmoid0
I0501 08:56:20.732769 12480 net.cpp:124] Setting up Sigmoid0
I0501 08:56:20.732782 12480 net.cpp:131] Top shape: 1000 16 34 34 (18496000)
I0501 08:56:20.732785 12480 net.cpp:139] Memory required for data: 160268000
I0501 08:56:20.732790 12480 layer_factory.hpp:77] Creating layer pool0
I0501 08:56:20.732802 12480 net.cpp:86] Creating Layer pool0
I0501 08:56:20.732806 12480 net.cpp:408] pool0 <- Sigmoid0
I0501 08:56:20.732822 12480 net.cpp:382] pool0 -> pool0
I0501 08:56:20.733036 12480 net.cpp:124] Setting up pool0
I0501 08:56:20.733048 12480 net.cpp:131] Top shape: 1000 16 17 17 (4624000)
I0501 08:56:20.733052 12480 net.cpp:139] Memory required for data: 178764000
I0501 08:56:20.733057 12480 layer_factory.hpp:77] Creating layer ip1
I0501 08:56:20.733065 12480 net.cpp:86] Creating Layer ip1
I0501 08:56:20.733069 12480 net.cpp:408] ip1 <- pool0
I0501 08:56:20.733077 12480 net.cpp:382] ip1 -> ip1
I0501 08:56:20.736263 12480 net.cpp:124] Setting up ip1
I0501 08:56:20.736273 12480 net.cpp:131] Top shape: 1000 20 (20000)
I0501 08:56:20.736276 12480 net.cpp:139] Memory required for data: 178844000
I0501 08:56:20.736301 12480 layer_factory.hpp:77] Creating layer relu1
I0501 08:56:20.736309 12480 net.cpp:86] Creating Layer relu1
I0501 08:56:20.736312 12480 net.cpp:408] relu1 <- ip1
I0501 08:56:20.736318 12480 net.cpp:369] relu1 -> ip1 (in-place)
I0501 08:56:20.736522 12480 net.cpp:124] Setting up relu1
I0501 08:56:20.736532 12480 net.cpp:131] Top shape: 1000 20 (20000)
I0501 08:56:20.736536 12480 net.cpp:139] Memory required for data: 178924000
I0501 08:56:20.736541 12480 layer_factory.hpp:77] Creating layer ip2
I0501 08:56:20.736549 12480 net.cpp:86] Creating Layer ip2
I0501 08:56:20.736554 12480 net.cpp:408] ip2 <- ip1
I0501 08:56:20.736562 12480 net.cpp:382] ip2 -> ip2
I0501 08:56:20.736702 12480 net.cpp:124] Setting up ip2
I0501 08:56:20.736711 12480 net.cpp:131] Top shape: 1000 20 (20000)
I0501 08:56:20.736714 12480 net.cpp:139] Memory required for data: 179004000
I0501 08:56:20.736723 12480 layer_factory.hpp:77] Creating layer relu2
I0501 08:56:20.736730 12480 net.cpp:86] Creating Layer relu2
I0501 08:56:20.736734 12480 net.cpp:408] relu2 <- ip2
I0501 08:56:20.736739 12480 net.cpp:369] relu2 -> ip2 (in-place)
I0501 08:56:20.737642 12480 net.cpp:124] Setting up relu2
I0501 08:56:20.737658 12480 net.cpp:131] Top shape: 1000 20 (20000)
I0501 08:56:20.737663 12480 net.cpp:139] Memory required for data: 179084000
I0501 08:56:20.737666 12480 layer_factory.hpp:77] Creating layer ip3
I0501 08:56:20.737675 12480 net.cpp:86] Creating Layer ip3
I0501 08:56:20.737679 12480 net.cpp:408] ip3 <- ip2
I0501 08:56:20.737686 12480 net.cpp:382] ip3 -> ip3
I0501 08:56:20.737828 12480 net.cpp:124] Setting up ip3
I0501 08:56:20.737838 12480 net.cpp:131] Top shape: 1000 10 (10000)
I0501 08:56:20.737841 12480 net.cpp:139] Memory required for data: 179124000
I0501 08:56:20.737848 12480 layer_factory.hpp:77] Creating layer relu3
I0501 08:56:20.737854 12480 net.cpp:86] Creating Layer relu3
I0501 08:56:20.737859 12480 net.cpp:408] relu3 <- ip3
I0501 08:56:20.737864 12480 net.cpp:369] relu3 -> ip3 (in-place)
I0501 08:56:20.738057 12480 net.cpp:124] Setting up relu3
I0501 08:56:20.738067 12480 net.cpp:131] Top shape: 1000 10 (10000)
I0501 08:56:20.738071 12480 net.cpp:139] Memory required for data: 179164000
I0501 08:56:20.738075 12480 layer_factory.hpp:77] Creating layer ip4
I0501 08:56:20.738082 12480 net.cpp:86] Creating Layer ip4
I0501 08:56:20.738086 12480 net.cpp:408] ip4 <- ip3
I0501 08:56:20.738093 12480 net.cpp:382] ip4 -> ip4
I0501 08:56:20.738224 12480 net.cpp:124] Setting up ip4
I0501 08:56:20.738231 12480 net.cpp:131] Top shape: 1000 10 (10000)
I0501 08:56:20.738235 12480 net.cpp:139] Memory required for data: 179204000
I0501 08:56:20.738243 12480 layer_factory.hpp:77] Creating layer ip4_ip4_0_split
I0501 08:56:20.738251 12480 net.cpp:86] Creating Layer ip4_ip4_0_split
I0501 08:56:20.738255 12480 net.cpp:408] ip4_ip4_0_split <- ip4
I0501 08:56:20.738260 12480 net.cpp:382] ip4_ip4_0_split -> ip4_ip4_0_split_0
I0501 08:56:20.738266 12480 net.cpp:382] ip4_ip4_0_split -> ip4_ip4_0_split_1
I0501 08:56:20.738304 12480 net.cpp:124] Setting up ip4_ip4_0_split
I0501 08:56:20.738312 12480 net.cpp:131] Top shape: 1000 10 (10000)
I0501 08:56:20.738317 12480 net.cpp:131] Top shape: 1000 10 (10000)
I0501 08:56:20.738319 12480 net.cpp:139] Memory required for data: 179284000
I0501 08:56:20.738322 12480 layer_factory.hpp:77] Creating layer accuracy
I0501 08:56:20.738330 12480 net.cpp:86] Creating Layer accuracy
I0501 08:56:20.738333 12480 net.cpp:408] accuracy <- ip4_ip4_0_split_0
I0501 08:56:20.738338 12480 net.cpp:408] accuracy <- label_cifar_1_split_0
I0501 08:56:20.738344 12480 net.cpp:382] accuracy -> accuracy
…
