…
I0430 17:15:53.675834 19198 net.cpp:296] The NetState phase (0) differed from the phase (1) specified by a rule in layer cifar
I0430 17:15:53.675848 19198 net.cpp:296] The NetState phase (0) differed from the phase (1) specified by a rule in layer accuracy
I0430 17:15:53.675923 19198 net.cpp:53] Initializing net from parameters: 
name: "CIFAR"
state {
  phase: TRAIN
  level: 0
  stage: ""
}
layer {
  name: "cifar"
  type: "Data"
  top: "data"
  top: "label"
  include {
    phase: TRAIN
  }
  transform_param {
    mean_file: "examples/cifar10/mean.binaryproto"
  }
  data_param {
    source: "examples/cifar10/cifar10_train_lmdb"
    batch_size: 111
    backend: LMDB
  }
}
layer {
  name: "ip1"
  type: "InnerProduct"
  bottom: "data"
  top: "ip1"
  param {
    lr_mult: 1
  }
  param {
    lr_mult: 2
  }
  inner_product_param {
    num_output: 160
    weight_filler {
      type: "gaussian"
      std: 0.01
    }
    bias_filler {
      type: "constant"
    }
  }
}
layer {
  name: "relu1"
  type: "ReLU"
  bottom: "ip1"
  top: "ip1"
}
layer {
  name: "ip2"
  type: "InnerProduct"
  bottom: "ip1"
  top: "ip2"
  param {
    lr_mult: 1
  }
  param {
    lr_mult: 2
  }
  inner_product_param {
    num_output: 160
    weight_filler {
      type: "gaussian"
      std: 0.01
    }
    bias_filler {
      type: "constant"
    }
  }
}
layer {
  name: "relu2"
  type: "ReLU"
  bottom: "ip2"
  top: "ip2"
}
layer {
  name: "ip3"
  type: "InnerProduct"
  bottom: "ip2"
  top: "ip3"
  param {
    lr_mult: 1
  }
  param {
    lr_mult: 2
  }
  inner_product_param {
    num_output: 10
    weight_filler {
      type: "gaussian"
      std: 0.01
    }
    bias_filler {
      type: "constant"
    }
  }
}
layer {
  name: "loss"
  type: "SoftmaxWithLoss"
  bottom: "ip3"
  bottom: "label"
  top: "loss"
}
I0430 17:15:53.675987 19198 layer_factory.hpp:77] Creating layer cifar
I0430 17:15:53.676089 19198 db_lmdb.cpp:35] Opened lmdb examples/cifar10/cifar10_train_lmdb
I0430 17:15:53.676120 19198 net.cpp:86] Creating Layer cifar
I0430 17:15:53.676129 19198 net.cpp:382] cifar -> data
I0430 17:15:53.676156 19198 net.cpp:382] cifar -> label
I0430 17:15:53.676172 19198 data_transformer.cpp:25] Loading mean file from: examples/cifar10/mean.binaryproto
I0430 17:15:53.678297 19198 data_layer.cpp:45] output data size: 111,3,32,32
I0430 17:15:53.686187 19198 net.cpp:124] Setting up cifar
I0430 17:15:53.686208 19198 net.cpp:131] Top shape: 111 3 32 32 (340992)
I0430 17:15:53.686214 19198 net.cpp:131] Top shape: 111 (111)
I0430 17:15:53.686218 19198 net.cpp:139] Memory required for data: 1364412
I0430 17:15:53.686225 19198 layer_factory.hpp:77] Creating layer ip1
I0430 17:15:53.686238 19198 net.cpp:86] Creating Layer ip1
I0430 17:15:53.686242 19198 net.cpp:408] ip1 <- data
I0430 17:15:53.686256 19198 net.cpp:382] ip1 -> ip1
I0430 17:15:53.703480 19198 net.cpp:124] Setting up ip1
I0430 17:15:53.703495 19198 net.cpp:131] Top shape: 111 160 (17760)
I0430 17:15:53.703500 19198 net.cpp:139] Memory required for data: 1435452
I0430 17:15:53.703513 19198 layer_factory.hpp:77] Creating layer relu1
I0430 17:15:53.703522 19198 net.cpp:86] Creating Layer relu1
I0430 17:15:53.703526 19198 net.cpp:408] relu1 <- ip1
I0430 17:15:53.703532 19198 net.cpp:369] relu1 -> ip1 (in-place)
I0430 17:15:53.987686 19198 net.cpp:124] Setting up relu1
I0430 17:15:53.987713 19198 net.cpp:131] Top shape: 111 160 (17760)
I0430 17:15:53.987718 19198 net.cpp:139] Memory required for data: 1506492
I0430 17:15:53.987743 19198 layer_factory.hpp:77] Creating layer ip2
I0430 17:15:53.987756 19198 net.cpp:86] Creating Layer ip2
I0430 17:15:53.987761 19198 net.cpp:408] ip2 <- ip1
I0430 17:15:53.987768 19198 net.cpp:382] ip2 -> ip2
I0430 17:15:53.989483 19198 net.cpp:124] Setting up ip2
I0430 17:15:53.989497 19198 net.cpp:131] Top shape: 111 160 (17760)
I0430 17:15:53.989501 19198 net.cpp:139] Memory required for data: 1577532
I0430 17:15:53.989511 19198 layer_factory.hpp:77] Creating layer relu2
I0430 17:15:53.989519 19198 net.cpp:86] Creating Layer relu2
I0430 17:15:53.989522 19198 net.cpp:408] relu2 <- ip2
I0430 17:15:53.989527 19198 net.cpp:369] relu2 -> ip2 (in-place)
I0430 17:15:53.990270 19198 net.cpp:124] Setting up relu2
I0430 17:15:53.990283 19198 net.cpp:131] Top shape: 111 160 (17760)
I0430 17:15:53.990288 19198 net.cpp:139] Memory required for data: 1648572
I0430 17:15:53.990291 19198 layer_factory.hpp:77] Creating layer ip3
I0430 17:15:53.990299 19198 net.cpp:86] Creating Layer ip3
I0430 17:15:53.990303 19198 net.cpp:408] ip3 <- ip2
I0430 17:15:53.990309 19198 net.cpp:382] ip3 -> ip3
I0430 17:15:53.990453 19198 net.cpp:124] Setting up ip3
I0430 17:15:53.990461 19198 net.cpp:131] Top shape: 111 10 (1110)
I0430 17:15:53.990464 19198 net.cpp:139] Memory required for data: 1653012
I0430 17:15:53.990473 19198 layer_factory.hpp:77] Creating layer loss
I0430 17:15:53.990478 19198 net.cpp:86] Creating Layer loss
I0430 17:15:53.990481 19198 net.cpp:408] loss <- ip3
I0430 17:15:53.990485 19198 net.cpp:408] loss <- label
I0430 17:15:53.990491 19198 net.cpp:382] loss -> loss
I0430 17:15:53.990509 19198 layer_factory.hpp:77] Creating layer loss
…
I0430 17:15:53.991049 19198 solver.cpp:173] Creating test net (#0) specified by net file: ECE595/cifar/train_test/var_everything/cifar_train_test_29.prototxt
I0430 17:15:53.991071 19198 net.cpp:296] The NetState phase (1) differed from the phase (0) specified by a rule in layer cifar
I0430 17:15:53.991140 19198 net.cpp:53] Initializing net from parameters: 
name: "CIFAR"
state {
  phase: TEST
}
layer {
  name: "cifar"
  type: "Data"
  top: "data"
  top: "label"
  include {
    phase: TEST
  }
  transform_param {
    mean_file: "examples/cifar10/mean.binaryproto"
  }
  data_param {
    source: "examples/cifar10/cifar10_test_lmdb"
    batch_size: 1000
    backend: LMDB
  }
}
layer {
  name: "ip1"
  type: "InnerProduct"
  bottom: "data"
  top: "ip1"
  param {
    lr_mult: 1
  }
  param {
    lr_mult: 2
  }
  inner_product_param {
    num_output: 160
    weight_filler {
      type: "gaussian"
      std: 0.01
    }
    bias_filler {
      type: "constant"
    }
  }
}
layer {
  name: "relu1"
  type: "ReLU"
  bottom: "ip1"
  top: "ip1"
}
layer {
  name: "ip2"
  type: "InnerProduct"
  bottom: "ip1"
  top: "ip2"
  param {
    lr_mult: 1
  }
  param {
    lr_mult: 2
  }
  inner_product_param {
    num_output: 160
    weight_filler {
      type: "gaussian"
      std: 0.01
    }
    bias_filler {
      type: "constant"
    }
  }
}
layer {
  name: "relu2"
  type: "ReLU"
  bottom: "ip2"
  top: "ip2"
}
layer {
  name: "ip3"
  type: "InnerProduct"
  bottom: "ip2"
  top: "ip3"
  param {
    lr_mult: 1
  }
  param {
    lr_mult: 2
  }
  inner_product_param {
    num_output: 10
    weight_filler {
      type: "gaussian"
      std: 0.01
    }
    bias_filler {
      type: "constant"
    }
  }
}
layer {
  name: "accuracy"
  type: "Accuracy"
  bottom: "ip3"
  bottom: "label"
  top: "accuracy"
  include {
    phase: TEST
  }
}
layer {
  name: "loss"
  type: "SoftmaxWithLoss"
  bottom: "ip3"
  bottom: "label"
  top: "loss"
}
I0430 17:15:53.991207 19198 layer_factory.hpp:77] Creating layer cifar
I0430 17:15:53.991255 19198 db_lmdb.cpp:35] Opened lmdb examples/cifar10/cifar10_test_lmdb
I0430 17:15:53.991266 19198 net.cpp:86] Creating Layer cifar
I0430 17:15:53.991271 19198 net.cpp:382] cifar -> data
I0430 17:15:53.991279 19198 net.cpp:382] cifar -> label
I0430 17:15:53.991286 19198 data_transformer.cpp:25] Loading mean file from: examples/cifar10/mean.binaryproto
I0430 17:15:53.991431 19198 data_layer.cpp:45] output data size: 1000,3,32,32
I0430 17:15:54.014291 19198 net.cpp:124] Setting up cifar
I0430 17:15:54.014314 19198 net.cpp:131] Top shape: 1000 3 32 32 (3072000)
I0430 17:15:54.014320 19198 net.cpp:131] Top shape: 1000 (1000)
I0430 17:15:54.014324 19198 net.cpp:139] Memory required for data: 12292000
I0430 17:15:54.014330 19198 layer_factory.hpp:77] Creating layer label_cifar_1_split
I0430 17:15:54.014346 19198 net.cpp:86] Creating Layer label_cifar_1_split
I0430 17:15:54.014350 19198 net.cpp:408] label_cifar_1_split <- label
I0430 17:15:54.014356 19198 net.cpp:382] label_cifar_1_split -> label_cifar_1_split_0
I0430 17:15:54.014365 19198 net.cpp:382] label_cifar_1_split -> label_cifar_1_split_1
I0430 17:15:54.014468 19198 net.cpp:124] Setting up label_cifar_1_split
I0430 17:15:54.014477 19198 net.cpp:131] Top shape: 1000 (1000)
I0430 17:15:54.014480 19198 net.cpp:131] Top shape: 1000 (1000)
I0430 17:15:54.014483 19198 net.cpp:139] Memory required for data: 12300000
I0430 17:15:54.014487 19198 layer_factory.hpp:77] Creating layer ip1
I0430 17:15:54.014495 19198 net.cpp:86] Creating Layer ip1
I0430 17:15:54.014498 19198 net.cpp:408] ip1 <- data
I0430 17:15:54.014503 19198 net.cpp:382] ip1 -> ip1
I0430 17:15:54.028085 19198 net.cpp:124] Setting up ip1
I0430 17:15:54.028100 19198 net.cpp:131] Top shape: 1000 160 (160000)
I0430 17:15:54.028105 19198 net.cpp:139] Memory required for data: 12940000
I0430 17:15:54.028115 19198 layer_factory.hpp:77] Creating layer relu1
I0430 17:15:54.028121 19198 net.cpp:86] Creating Layer relu1
I0430 17:15:54.028125 19198 net.cpp:408] relu1 <- ip1
I0430 17:15:54.028129 19198 net.cpp:369] relu1 -> ip1 (in-place)
I0430 17:15:54.028326 19198 net.cpp:124] Setting up relu1
I0430 17:15:54.028336 19198 net.cpp:131] Top shape: 1000 160 (160000)
I0430 17:15:54.028339 19198 net.cpp:139] Memory required for data: 13580000
I0430 17:15:54.028342 19198 layer_factory.hpp:77] Creating layer ip2
I0430 17:15:54.028350 19198 net.cpp:86] Creating Layer ip2
I0430 17:15:54.028353 19198 net.cpp:408] ip2 <- ip1
I0430 17:15:54.028358 19198 net.cpp:382] ip2 -> ip2
I0430 17:15:54.029121 19198 net.cpp:124] Setting up ip2
I0430 17:15:54.029129 19198 net.cpp:131] Top shape: 1000 160 (160000)
I0430 17:15:54.029132 19198 net.cpp:139] Memory required for data: 14220000
I0430 17:15:54.029139 19198 layer_factory.hpp:77] Creating layer relu2
I0430 17:15:54.029145 19198 net.cpp:86] Creating Layer relu2
I0430 17:15:54.029147 19198 net.cpp:408] relu2 <- ip2
I0430 17:15:54.029151 19198 net.cpp:369] relu2 -> ip2 (in-place)
I0430 17:15:54.029912 19198 net.cpp:124] Setting up relu2
I0430 17:15:54.029940 19198 net.cpp:131] Top shape: 1000 160 (160000)
I0430 17:15:54.029944 19198 net.cpp:139] Memory required for data: 14860000
I0430 17:15:54.029948 19198 layer_factory.hpp:77] Creating layer ip3
I0430 17:15:54.029955 19198 net.cpp:86] Creating Layer ip3
I0430 17:15:54.029959 19198 net.cpp:408] ip3 <- ip2
I0430 17:15:54.029965 19198 net.cpp:382] ip3 -> ip3
I0430 17:15:54.030134 19198 net.cpp:124] Setting up ip3
I0430 17:15:54.030143 19198 net.cpp:131] Top shape: 1000 10 (10000)
I0430 17:15:54.030146 19198 net.cpp:139] Memory required for data: 14900000
I0430 17:15:54.030169 19198 layer_factory.hpp:77] Creating layer ip3_ip3_0_split
I0430 17:15:54.030175 19198 net.cpp:86] Creating Layer ip3_ip3_0_split
I0430 17:15:54.030179 19198 net.cpp:408] ip3_ip3_0_split <- ip3
I0430 17:15:54.030184 19198 net.cpp:382] ip3_ip3_0_split -> ip3_ip3_0_split_0
I0430 17:15:54.030189 19198 net.cpp:382] ip3_ip3_0_split -> ip3_ip3_0_split_1
I0430 17:15:54.030223 19198 net.cpp:124] Setting up ip3_ip3_0_split
I0430 17:15:54.030230 19198 net.cpp:131] Top shape: 1000 10 (10000)
I0430 17:15:54.030233 19198 net.cpp:131] Top shape: 1000 10 (10000)
I0430 17:15:54.030236 19198 net.cpp:139] Memory required for data: 14980000
I0430 17:15:54.030239 19198 layer_factory.hpp:77] Creating layer accuracy
I0430 17:15:54.030249 19198 net.cpp:86] Creating Layer accuracy
I0430 17:15:54.030253 19198 net.cpp:408] accuracy <- ip3_ip3_0_split_0
I0430 17:15:54.030258 19198 net.cpp:408] accuracy <- label_cifar_1_split_0
I0430 17:15:54.030262 19198 net.cpp:382] accuracy -> accuracy
…
