…
I0430 23:55:46.355096  5961 net.cpp:296] The NetState phase (0) differed from the phase (1) specified by a rule in layer cifar
I0430 23:55:46.355114  5961 net.cpp:296] The NetState phase (0) differed from the phase (1) specified by a rule in layer accuracy
I0430 23:55:46.355222  5961 net.cpp:53] Initializing net from parameters: 
name: "CIFAR"
state {
  phase: TRAIN
  level: 0
  stage: ""
}
layer {
  name: "cifar"
  type: "Data"
  top: "data"
  top: "label"
  include {
    phase: TRAIN
  }
  transform_param {
    mean_file: "examples/cifar10/mean.binaryproto"
  }
  data_param {
    source: "examples/cifar10/cifar10_train_lmdb"
    batch_size: 111
    backend: LMDB
  }
}
layer {
  name: "conv0"
  type: "Convolution"
  bottom: "data"
  top: "conv0"
  param {
    lr_mult: 1
  }
  param {
    lr_mult: 2
  }
  convolution_param {
    num_output: 8
    pad: 2
    kernel_size: 3
    stride: 1
    weight_filler {
      type: "gaussian"
      std: 0.01
    }
    bias_filler {
      type: "constant"
    }
  }
}
layer {
  name: "Sigmoid0"
  type: "Sigmoid"
  bottom: "conv0"
  top: "Sigmoid0"
}
layer {
  name: "pool0"
  type: "Pooling"
  bottom: "Sigmoid0"
  top: "pool0"
  pooling_param {
    pool: AVE
    kernel_size: 3
    stride: 2
  }
}
layer {
  name: "ip1"
  type: "InnerProduct"
  bottom: "pool0"
  top: "ip1"
  param {
    lr_mult: 1
  }
  param {
    lr_mult: 2
  }
  inner_product_param {
    num_output: 40
    weight_filler {
      type: "gaussian"
      std: 0.01
    }
    bias_filler {
      type: "constant"
    }
  }
}
layer {
  name: "relu1"
  type: "ReLU"
  bottom: "ip1"
  top: "ip1"
}
layer {
  name: "ip2"
  type: "InnerProduct"
  bottom: "ip1"
  top: "ip2"
  param {
    lr_mult: 1
  }
  param {
    lr_mult: 2
  }
  inner_product_param {
    num_output: 20
    weight_filler {
      type: "gaussian"
      std: 0.01
    }
    bias_filler {
      type: "constant"
    }
  }
}
layer {
  name: "relu2"
  type: "ReLU"
  bottom: "ip2"
  top: "ip2"
}
layer {
  name: "ip3"
  type: "InnerProduct"
  bottom: "ip2"
  top: "ip3"
  param {
    lr_mult: 1
  }
  param {
    lr_mult: 2
  }
  inner_product_param {
    num_output: 20
    weight_filler {
      type: "gaussian"
      std: 0.01
    }
    bias_filler {
      type: "constant"
    }
  }
}
layer {
  name: "relu3"
  type: "ReLU"
  bottom: "ip3"
  top: "ip3"
}
layer {
  name: "ip4"
  type: "InnerProduct"
  bottom: "ip3"
  top: "ip4"
  param {
    lr_mult: 1
  }
  param {
    lr_mult: 2
  }
  inner_product_param {
    num_output: 10
    weight_filler {
      type: "gaussian"
      std: 0.01
    }
    bias_filler {
      type: "constant"
    }
  }
}
layer {
  name: "loss"
  type: "SoftmaxWithLoss"
  bottom: "ip4"
  bottom: "label"
  top: "loss"
}
I0430 23:55:46.355304  5961 layer_factory.hpp:77] Creating layer cifar
I0430 23:55:46.355404  5961 db_lmdb.cpp:35] Opened lmdb examples/cifar10/cifar10_train_lmdb
I0430 23:55:46.355432  5961 net.cpp:86] Creating Layer cifar
I0430 23:55:46.355442  5961 net.cpp:382] cifar -> data
I0430 23:55:46.355464  5961 net.cpp:382] cifar -> label
I0430 23:55:46.355476  5961 data_transformer.cpp:25] Loading mean file from: examples/cifar10/mean.binaryproto
I0430 23:55:46.357599  5961 data_layer.cpp:45] output data size: 111,3,32,32
I0430 23:55:46.365479  5961 net.cpp:124] Setting up cifar
I0430 23:55:46.365499  5961 net.cpp:131] Top shape: 111 3 32 32 (340992)
I0430 23:55:46.365504  5961 net.cpp:131] Top shape: 111 (111)
I0430 23:55:46.365507  5961 net.cpp:139] Memory required for data: 1364412
I0430 23:55:46.365530  5961 layer_factory.hpp:77] Creating layer conv0
I0430 23:55:46.365550  5961 net.cpp:86] Creating Layer conv0
I0430 23:55:46.365557  5961 net.cpp:408] conv0 <- data
I0430 23:55:46.365571  5961 net.cpp:382] conv0 -> conv0
I0430 23:55:46.651620  5961 net.cpp:124] Setting up conv0
I0430 23:55:46.651648  5961 net.cpp:131] Top shape: 111 8 34 34 (1026528)
I0430 23:55:46.651653  5961 net.cpp:139] Memory required for data: 5470524
I0430 23:55:46.651666  5961 layer_factory.hpp:77] Creating layer Sigmoid0
I0430 23:55:46.651679  5961 net.cpp:86] Creating Layer Sigmoid0
I0430 23:55:46.651684  5961 net.cpp:408] Sigmoid0 <- conv0
I0430 23:55:46.651688  5961 net.cpp:382] Sigmoid0 -> Sigmoid0
I0430 23:55:46.651880  5961 net.cpp:124] Setting up Sigmoid0
I0430 23:55:46.651890  5961 net.cpp:131] Top shape: 111 8 34 34 (1026528)
I0430 23:55:46.651893  5961 net.cpp:139] Memory required for data: 9576636
I0430 23:55:46.651896  5961 layer_factory.hpp:77] Creating layer pool0
I0430 23:55:46.651902  5961 net.cpp:86] Creating Layer pool0
I0430 23:55:46.651906  5961 net.cpp:408] pool0 <- Sigmoid0
I0430 23:55:46.651911  5961 net.cpp:382] pool0 -> pool0
I0430 23:55:46.652680  5961 net.cpp:124] Setting up pool0
I0430 23:55:46.652694  5961 net.cpp:131] Top shape: 111 8 17 17 (256632)
I0430 23:55:46.652698  5961 net.cpp:139] Memory required for data: 10603164
I0430 23:55:46.652701  5961 layer_factory.hpp:77] Creating layer ip1
I0430 23:55:46.652712  5961 net.cpp:86] Creating Layer ip1
I0430 23:55:46.652715  5961 net.cpp:408] ip1 <- pool0
I0430 23:55:46.652720  5961 net.cpp:382] ip1 -> ip1
I0430 23:55:46.655503  5961 net.cpp:124] Setting up ip1
I0430 23:55:46.655513  5961 net.cpp:131] Top shape: 111 40 (4440)
I0430 23:55:46.655515  5961 net.cpp:139] Memory required for data: 10620924
I0430 23:55:46.655524  5961 layer_factory.hpp:77] Creating layer relu1
I0430 23:55:46.655529  5961 net.cpp:86] Creating Layer relu1
I0430 23:55:46.655531  5961 net.cpp:408] relu1 <- ip1
I0430 23:55:46.655537  5961 net.cpp:369] relu1 -> ip1 (in-place)
I0430 23:55:46.655704  5961 net.cpp:124] Setting up relu1
I0430 23:55:46.655712  5961 net.cpp:131] Top shape: 111 40 (4440)
I0430 23:55:46.655716  5961 net.cpp:139] Memory required for data: 10638684
I0430 23:55:46.655719  5961 layer_factory.hpp:77] Creating layer ip2
I0430 23:55:46.655743  5961 net.cpp:86] Creating Layer ip2
I0430 23:55:46.655746  5961 net.cpp:408] ip2 <- ip1
I0430 23:55:46.655751  5961 net.cpp:382] ip2 -> ip2
I0430 23:55:46.656756  5961 net.cpp:124] Setting up ip2
I0430 23:55:46.656769  5961 net.cpp:131] Top shape: 111 20 (2220)
I0430 23:55:46.656772  5961 net.cpp:139] Memory required for data: 10647564
I0430 23:55:46.656780  5961 layer_factory.hpp:77] Creating layer relu2
I0430 23:55:46.656785  5961 net.cpp:86] Creating Layer relu2
I0430 23:55:46.656788  5961 net.cpp:408] relu2 <- ip2
I0430 23:55:46.656796  5961 net.cpp:369] relu2 -> ip2 (in-place)
I0430 23:55:46.657002  5961 net.cpp:124] Setting up relu2
I0430 23:55:46.657012  5961 net.cpp:131] Top shape: 111 20 (2220)
I0430 23:55:46.657016  5961 net.cpp:139] Memory required for data: 10656444
I0430 23:55:46.657019  5961 layer_factory.hpp:77] Creating layer ip3
I0430 23:55:46.657029  5961 net.cpp:86] Creating Layer ip3
I0430 23:55:46.657032  5961 net.cpp:408] ip3 <- ip2
I0430 23:55:46.657039  5961 net.cpp:382] ip3 -> ip3
I0430 23:55:46.657176  5961 net.cpp:124] Setting up ip3
I0430 23:55:46.657182  5961 net.cpp:131] Top shape: 111 20 (2220)
I0430 23:55:46.657186  5961 net.cpp:139] Memory required for data: 10665324
I0430 23:55:46.657191  5961 layer_factory.hpp:77] Creating layer relu3
I0430 23:55:46.657197  5961 net.cpp:86] Creating Layer relu3
I0430 23:55:46.657200  5961 net.cpp:408] relu3 <- ip3
I0430 23:55:46.657218  5961 net.cpp:369] relu3 -> ip3 (in-place)
I0430 23:55:46.657382  5961 net.cpp:124] Setting up relu3
I0430 23:55:46.657389  5961 net.cpp:131] Top shape: 111 20 (2220)
I0430 23:55:46.657392  5961 net.cpp:139] Memory required for data: 10674204
I0430 23:55:46.657395  5961 layer_factory.hpp:77] Creating layer ip4
I0430 23:55:46.657416  5961 net.cpp:86] Creating Layer ip4
I0430 23:55:46.657420  5961 net.cpp:408] ip4 <- ip3
I0430 23:55:46.657426  5961 net.cpp:382] ip4 -> ip4
I0430 23:55:46.657532  5961 net.cpp:124] Setting up ip4
I0430 23:55:46.657541  5961 net.cpp:131] Top shape: 111 10 (1110)
I0430 23:55:46.657543  5961 net.cpp:139] Memory required for data: 10678644
I0430 23:55:46.657551  5961 layer_factory.hpp:77] Creating layer loss
I0430 23:55:46.657555  5961 net.cpp:86] Creating Layer loss
I0430 23:55:46.657559  5961 net.cpp:408] loss <- ip4
I0430 23:55:46.657562  5961 net.cpp:408] loss <- label
I0430 23:55:46.657568  5961 net.cpp:382] loss -> loss
I0430 23:55:46.657584  5961 layer_factory.hpp:77] Creating layer loss
…
I0430 23:55:46.658844  5961 solver.cpp:173] Creating test net (#0) specified by net file: ECE595/cifar/train_test/var_everything/cifar_train_test_241.prototxt
I0430 23:55:46.658874  5961 net.cpp:296] The NetState phase (1) differed from the phase (0) specified by a rule in layer cifar
I0430 23:55:46.658978  5961 net.cpp:53] Initializing net from parameters: 
name: "CIFAR"
state {
  phase: TEST
}
layer {
  name: "cifar"
  type: "Data"
  top: "data"
  top: "label"
  include {
    phase: TEST
  }
  transform_param {
    mean_file: "examples/cifar10/mean.binaryproto"
  }
  data_param {
    source: "examples/cifar10/cifar10_test_lmdb"
    batch_size: 1000
    backend: LMDB
  }
}
layer {
  name: "conv0"
  type: "Convolution"
  bottom: "data"
  top: "conv0"
  param {
    lr_mult: 1
  }
  param {
    lr_mult: 2
  }
  convolution_param {
    num_output: 8
    pad: 2
    kernel_size: 3
    stride: 1
    weight_filler {
      type: "gaussian"
      std: 0.01
    }
    bias_filler {
      type: "constant"
    }
  }
}
layer {
  name: "Sigmoid0"
  type: "Sigmoid"
  bottom: "conv0"
  top: "Sigmoid0"
}
layer {
  name: "pool0"
  type: "Pooling"
  bottom: "Sigmoid0"
  top: "pool0"
  pooling_param {
    pool: AVE
    kernel_size: 3
    stride: 2
  }
}
layer {
  name: "ip1"
  type: "InnerProduct"
  bottom: "pool0"
  top: "ip1"
  param {
    lr_mult: 1
  }
  param {
    lr_mult: 2
  }
  inner_product_param {
    num_output: 40
    weight_filler {
      type: "gaussian"
      std: 0.01
    }
    bias_filler {
      type: "constant"
    }
  }
}
layer {
  name: "relu1"
  type: "ReLU"
  bottom: "ip1"
  top: "ip1"
}
layer {
  name: "ip2"
  type: "InnerProduct"
  bottom: "ip1"
  top: "ip2"
  param {
    lr_mult: 1
  }
  param {
    lr_mult: 2
  }
  inner_product_param {
    num_output: 20
    weight_filler {
      type: "gaussian"
      std: 0.01
    }
    bias_filler {
      type: "constant"
    }
  }
}
layer {
  name: "relu2"
  type: "ReLU"
  bottom: "ip2"
  top: "ip2"
}
layer {
  name: "ip3"
  type: "InnerProduct"
  bottom: "ip2"
  top: "ip3"
  param {
    lr_mult: 1
  }
  param {
    lr_mult: 2
  }
  inner_product_param {
    num_output: 20
    weight_filler {
      type: "gaussian"
      std: 0.01
    }
    bias_filler {
      type: "constant"
    }
  }
}
layer {
  name: "relu3"
  type: "ReLU"
  bottom: "ip3"
  top: "ip3"
}
layer {
  name: "ip4"
  type: "InnerProduct"
  bottom: "ip3"
  top: "ip4"
  param {
    lr_mult: 1
  }
  param {
    lr_mult: 2
  }
  inner_product_param {
    num_output: 10
    weight_filler {
      type: "gaussian"
      std: 0.01
    }
    bias_filler {
      type: "constant"
    }
  }
}
layer {
  name: "accuracy"
  type: "Accuracy"
  bottom: "ip4"
  bottom: "label"
  top: "accuracy"
  include {
    phase: TEST
  }
}
layer {
  name: "loss"
  type: "SoftmaxWithLoss"
  bottom: "ip4"
  bottom: "label"
  top: "loss"
}
I0430 23:55:46.659096  5961 layer_factory.hpp:77] Creating layer cifar
I0430 23:55:46.659140  5961 db_lmdb.cpp:35] Opened lmdb examples/cifar10/cifar10_test_lmdb
I0430 23:55:46.659152  5961 net.cpp:86] Creating Layer cifar
I0430 23:55:46.659158  5961 net.cpp:382] cifar -> data
I0430 23:55:46.659167  5961 net.cpp:382] cifar -> label
I0430 23:55:46.659173  5961 data_transformer.cpp:25] Loading mean file from: examples/cifar10/mean.binaryproto
I0430 23:55:46.659329  5961 data_layer.cpp:45] output data size: 1000,3,32,32
I0430 23:55:46.682310  5961 net.cpp:124] Setting up cifar
I0430 23:55:46.682337  5961 net.cpp:131] Top shape: 1000 3 32 32 (3072000)
I0430 23:55:46.682343  5961 net.cpp:131] Top shape: 1000 (1000)
I0430 23:55:46.682345  5961 net.cpp:139] Memory required for data: 12292000
I0430 23:55:46.682351  5961 layer_factory.hpp:77] Creating layer label_cifar_1_split
I0430 23:55:46.682368  5961 net.cpp:86] Creating Layer label_cifar_1_split
I0430 23:55:46.682371  5961 net.cpp:408] label_cifar_1_split <- label
I0430 23:55:46.682379  5961 net.cpp:382] label_cifar_1_split -> label_cifar_1_split_0
I0430 23:55:46.682387  5961 net.cpp:382] label_cifar_1_split -> label_cifar_1_split_1
I0430 23:55:46.682502  5961 net.cpp:124] Setting up label_cifar_1_split
I0430 23:55:46.682512  5961 net.cpp:131] Top shape: 1000 (1000)
I0430 23:55:46.682515  5961 net.cpp:131] Top shape: 1000 (1000)
I0430 23:55:46.682518  5961 net.cpp:139] Memory required for data: 12300000
I0430 23:55:46.682521  5961 layer_factory.hpp:77] Creating layer conv0
I0430 23:55:46.682535  5961 net.cpp:86] Creating Layer conv0
I0430 23:55:46.682538  5961 net.cpp:408] conv0 <- data
I0430 23:55:46.682543  5961 net.cpp:382] conv0 -> conv0
I0430 23:55:46.684092  5961 net.cpp:124] Setting up conv0
I0430 23:55:46.684105  5961 net.cpp:131] Top shape: 1000 8 34 34 (9248000)
I0430 23:55:46.684108  5961 net.cpp:139] Memory required for data: 49292000
I0430 23:55:46.684118  5961 layer_factory.hpp:77] Creating layer Sigmoid0
I0430 23:55:46.684125  5961 net.cpp:86] Creating Layer Sigmoid0
I0430 23:55:46.684128  5961 net.cpp:408] Sigmoid0 <- conv0
I0430 23:55:46.684134  5961 net.cpp:382] Sigmoid0 -> Sigmoid0
I0430 23:55:46.684362  5961 net.cpp:124] Setting up Sigmoid0
I0430 23:55:46.684371  5961 net.cpp:131] Top shape: 1000 8 34 34 (9248000)
I0430 23:55:46.684376  5961 net.cpp:139] Memory required for data: 86284000
I0430 23:55:46.684378  5961 layer_factory.hpp:77] Creating layer pool0
I0430 23:55:46.684387  5961 net.cpp:86] Creating Layer pool0
I0430 23:55:46.684391  5961 net.cpp:408] pool0 <- Sigmoid0
I0430 23:55:46.684396  5961 net.cpp:382] pool0 -> pool0
I0430 23:55:46.685616  5961 net.cpp:124] Setting up pool0
I0430 23:55:46.685628  5961 net.cpp:131] Top shape: 1000 8 17 17 (2312000)
I0430 23:55:46.685631  5961 net.cpp:139] Memory required for data: 95532000
I0430 23:55:46.685634  5961 layer_factory.hpp:77] Creating layer ip1
I0430 23:55:46.685643  5961 net.cpp:86] Creating Layer ip1
I0430 23:55:46.685647  5961 net.cpp:408] ip1 <- pool0
I0430 23:55:46.685652  5961 net.cpp:382] ip1 -> ip1
I0430 23:55:46.688292  5961 net.cpp:124] Setting up ip1
I0430 23:55:46.688300  5961 net.cpp:131] Top shape: 1000 40 (40000)
I0430 23:55:46.688303  5961 net.cpp:139] Memory required for data: 95692000
I0430 23:55:46.688324  5961 layer_factory.hpp:77] Creating layer relu1
I0430 23:55:46.688331  5961 net.cpp:86] Creating Layer relu1
I0430 23:55:46.688334  5961 net.cpp:408] relu1 <- ip1
I0430 23:55:46.688338  5961 net.cpp:369] relu1 -> ip1 (in-place)
I0430 23:55:46.688526  5961 net.cpp:124] Setting up relu1
I0430 23:55:46.688537  5961 net.cpp:131] Top shape: 1000 40 (40000)
I0430 23:55:46.688541  5961 net.cpp:139] Memory required for data: 95852000
I0430 23:55:46.688544  5961 layer_factory.hpp:77] Creating layer ip2
I0430 23:55:46.688550  5961 net.cpp:86] Creating Layer ip2
I0430 23:55:46.688570  5961 net.cpp:408] ip2 <- ip1
I0430 23:55:46.688575  5961 net.cpp:382] ip2 -> ip2
I0430 23:55:46.688714  5961 net.cpp:124] Setting up ip2
I0430 23:55:46.688721  5961 net.cpp:131] Top shape: 1000 20 (20000)
I0430 23:55:46.688724  5961 net.cpp:139] Memory required for data: 95932000
I0430 23:55:46.688732  5961 layer_factory.hpp:77] Creating layer relu2
I0430 23:55:46.688740  5961 net.cpp:86] Creating Layer relu2
I0430 23:55:46.688743  5961 net.cpp:408] relu2 <- ip2
I0430 23:55:46.688748  5961 net.cpp:369] relu2 -> ip2 (in-place)
I0430 23:55:46.689577  5961 net.cpp:124] Setting up relu2
I0430 23:55:46.689590  5961 net.cpp:131] Top shape: 1000 20 (20000)
I0430 23:55:46.689594  5961 net.cpp:139] Memory required for data: 96012000
I0430 23:55:46.689597  5961 layer_factory.hpp:77] Creating layer ip3
I0430 23:55:46.689604  5961 net.cpp:86] Creating Layer ip3
I0430 23:55:46.689607  5961 net.cpp:408] ip3 <- ip2
I0430 23:55:46.689615  5961 net.cpp:382] ip3 -> ip3
I0430 23:55:46.689772  5961 net.cpp:124] Setting up ip3
I0430 23:55:46.689780  5961 net.cpp:131] Top shape: 1000 20 (20000)
I0430 23:55:46.689784  5961 net.cpp:139] Memory required for data: 96092000
I0430 23:55:46.689790  5961 layer_factory.hpp:77] Creating layer relu3
I0430 23:55:46.689795  5961 net.cpp:86] Creating Layer relu3
I0430 23:55:46.689798  5961 net.cpp:408] relu3 <- ip3
I0430 23:55:46.689805  5961 net.cpp:369] relu3 -> ip3 (in-place)
I0430 23:55:46.689970  5961 net.cpp:124] Setting up relu3
I0430 23:55:46.689978  5961 net.cpp:131] Top shape: 1000 20 (20000)
I0430 23:55:46.689981  5961 net.cpp:139] Memory required for data: 96172000
I0430 23:55:46.689985  5961 layer_factory.hpp:77] Creating layer ip4
I0430 23:55:46.690006  5961 net.cpp:86] Creating Layer ip4
I0430 23:55:46.690009  5961 net.cpp:408] ip4 <- ip3
I0430 23:55:46.690014  5961 net.cpp:382] ip4 -> ip4
I0430 23:55:46.690127  5961 net.cpp:124] Setting up ip4
I0430 23:55:46.690135  5961 net.cpp:131] Top shape: 1000 10 (10000)
I0430 23:55:46.690137  5961 net.cpp:139] Memory required for data: 96212000
I0430 23:55:46.690145  5961 layer_factory.hpp:77] Creating layer ip4_ip4_0_split
I0430 23:55:46.690152  5961 net.cpp:86] Creating Layer ip4_ip4_0_split
I0430 23:55:46.690155  5961 net.cpp:408] ip4_ip4_0_split <- ip4
I0430 23:55:46.690160  5961 net.cpp:382] ip4_ip4_0_split -> ip4_ip4_0_split_0
I0430 23:55:46.690165  5961 net.cpp:382] ip4_ip4_0_split -> ip4_ip4_0_split_1
I0430 23:55:46.690197  5961 net.cpp:124] Setting up ip4_ip4_0_split
I0430 23:55:46.690207  5961 net.cpp:131] Top shape: 1000 10 (10000)
I0430 23:55:46.690212  5961 net.cpp:131] Top shape: 1000 10 (10000)
I0430 23:55:46.690214  5961 net.cpp:139] Memory required for data: 96292000
I0430 23:55:46.690217  5961 layer_factory.hpp:77] Creating layer accuracy
I0430 23:55:46.690223  5961 net.cpp:86] Creating Layer accuracy
I0430 23:55:46.690227  5961 net.cpp:408] accuracy <- ip4_ip4_0_split_0
I0430 23:55:46.690230  5961 net.cpp:408] accuracy <- label_cifar_1_split_0
I0430 23:55:46.690235  5961 net.cpp:382] accuracy -> accuracy
…
