…
I0501 06:55:22.078686  2569 net.cpp:296] The NetState phase (0) differed from the phase (1) specified by a rule in layer cifar
I0501 06:55:22.078701  2569 net.cpp:296] The NetState phase (0) differed from the phase (1) specified by a rule in layer accuracy
I0501 06:55:22.078783  2569 net.cpp:53] Initializing net from parameters: 
name: "CIFAR"
state {
  phase: TRAIN
  level: 0
  stage: ""
}
layer {
  name: "cifar"
  type: "Data"
  top: "data"
  top: "label"
  include {
    phase: TRAIN
  }
  transform_param {
    mean_file: "examples/cifar10/mean.binaryproto"
  }
  data_param {
    source: "examples/cifar10/cifar10_train_lmdb"
    batch_size: 111
    backend: LMDB
  }
}
layer {
  name: "conv0"
  type: "Convolution"
  bottom: "data"
  top: "conv0"
  param {
    lr_mult: 1
  }
  param {
    lr_mult: 2
  }
  convolution_param {
    num_output: 16
    pad: 2
    kernel_size: 3
    stride: 1
    weight_filler {
      type: "gaussian"
      std: 0.01
    }
    bias_filler {
      type: "constant"
    }
  }
}
layer {
  name: "Sigmoid0"
  type: "Sigmoid"
  bottom: "conv0"
  top: "Sigmoid0"
}
layer {
  name: "pool0"
  type: "Pooling"
  bottom: "Sigmoid0"
  top: "pool0"
  pooling_param {
    pool: AVE
    kernel_size: 3
    stride: 2
  }
}
layer {
  name: "ip1"
  type: "InnerProduct"
  bottom: "pool0"
  top: "ip1"
  param {
    lr_mult: 1
  }
  param {
    lr_mult: 2
  }
  inner_product_param {
    num_output: 20
    weight_filler {
      type: "gaussian"
      std: 0.01
    }
    bias_filler {
      type: "constant"
    }
  }
}
layer {
  name: "relu1"
  type: "ReLU"
  bottom: "ip1"
  top: "ip1"
}
layer {
  name: "ip2"
  type: "InnerProduct"
  bottom: "ip1"
  top: "ip2"
  param {
    lr_mult: 1
  }
  param {
    lr_mult: 2
  }
  inner_product_param {
    num_output: 10
    weight_filler {
      type: "gaussian"
      std: 0.01
    }
    bias_filler {
      type: "constant"
    }
  }
}
layer {
  name: "loss"
  type: "SoftmaxWithLoss"
  bottom: "ip2"
  bottom: "label"
  top: "loss"
}
I0501 06:55:22.078853  2569 layer_factory.hpp:77] Creating layer cifar
I0501 06:55:22.078953  2569 db_lmdb.cpp:35] Opened lmdb examples/cifar10/cifar10_train_lmdb
I0501 06:55:22.078980  2569 net.cpp:86] Creating Layer cifar
I0501 06:55:22.078989  2569 net.cpp:382] cifar -> data
I0501 06:55:22.079011  2569 net.cpp:382] cifar -> label
I0501 06:55:22.079025  2569 data_transformer.cpp:25] Loading mean file from: examples/cifar10/mean.binaryproto
I0501 06:55:22.081205  2569 data_layer.cpp:45] output data size: 111,3,32,32
I0501 06:55:22.089185  2569 net.cpp:124] Setting up cifar
I0501 06:55:22.089203  2569 net.cpp:131] Top shape: 111 3 32 32 (340992)
I0501 06:55:22.089210  2569 net.cpp:131] Top shape: 111 (111)
I0501 06:55:22.089213  2569 net.cpp:139] Memory required for data: 1364412
I0501 06:55:22.089221  2569 layer_factory.hpp:77] Creating layer conv0
I0501 06:55:22.089241  2569 net.cpp:86] Creating Layer conv0
I0501 06:55:22.089246  2569 net.cpp:408] conv0 <- data
I0501 06:55:22.089260  2569 net.cpp:382] conv0 -> conv0
I0501 06:55:22.378854  2569 net.cpp:124] Setting up conv0
I0501 06:55:22.378883  2569 net.cpp:131] Top shape: 111 16 34 34 (2053056)
I0501 06:55:22.378887  2569 net.cpp:139] Memory required for data: 9576636
I0501 06:55:22.378903  2569 layer_factory.hpp:77] Creating layer Sigmoid0
I0501 06:55:22.378916  2569 net.cpp:86] Creating Layer Sigmoid0
I0501 06:55:22.378919  2569 net.cpp:408] Sigmoid0 <- conv0
I0501 06:55:22.378926  2569 net.cpp:382] Sigmoid0 -> Sigmoid0
I0501 06:55:22.379148  2569 net.cpp:124] Setting up Sigmoid0
I0501 06:55:22.379158  2569 net.cpp:131] Top shape: 111 16 34 34 (2053056)
I0501 06:55:22.379161  2569 net.cpp:139] Memory required for data: 17788860
I0501 06:55:22.379165  2569 layer_factory.hpp:77] Creating layer pool0
I0501 06:55:22.379173  2569 net.cpp:86] Creating Layer pool0
I0501 06:55:22.379178  2569 net.cpp:408] pool0 <- Sigmoid0
I0501 06:55:22.379182  2569 net.cpp:382] pool0 -> pool0
I0501 06:55:22.379988  2569 net.cpp:124] Setting up pool0
I0501 06:55:22.380003  2569 net.cpp:131] Top shape: 111 16 17 17 (513264)
I0501 06:55:22.380007  2569 net.cpp:139] Memory required for data: 19841916
I0501 06:55:22.380010  2569 layer_factory.hpp:77] Creating layer ip1
I0501 06:55:22.380020  2569 net.cpp:86] Creating Layer ip1
I0501 06:55:22.380023  2569 net.cpp:408] ip1 <- pool0
I0501 06:55:22.380030  2569 net.cpp:382] ip1 -> ip1
I0501 06:55:22.382832  2569 net.cpp:124] Setting up ip1
I0501 06:55:22.382841  2569 net.cpp:131] Top shape: 111 20 (2220)
I0501 06:55:22.382844  2569 net.cpp:139] Memory required for data: 19850796
I0501 06:55:22.382853  2569 layer_factory.hpp:77] Creating layer relu1
I0501 06:55:22.382860  2569 net.cpp:86] Creating Layer relu1
I0501 06:55:22.382863  2569 net.cpp:408] relu1 <- ip1
I0501 06:55:22.382868  2569 net.cpp:369] relu1 -> ip1 (in-place)
I0501 06:55:22.383033  2569 net.cpp:124] Setting up relu1
I0501 06:55:22.383041  2569 net.cpp:131] Top shape: 111 20 (2220)
I0501 06:55:22.383044  2569 net.cpp:139] Memory required for data: 19859676
I0501 06:55:22.383057  2569 layer_factory.hpp:77] Creating layer ip2
I0501 06:55:22.383066  2569 net.cpp:86] Creating Layer ip2
I0501 06:55:22.383070  2569 net.cpp:408] ip2 <- ip1
I0501 06:55:22.383076  2569 net.cpp:382] ip2 -> ip2
I0501 06:55:22.383182  2569 net.cpp:124] Setting up ip2
I0501 06:55:22.383189  2569 net.cpp:131] Top shape: 111 10 (1110)
I0501 06:55:22.383193  2569 net.cpp:139] Memory required for data: 19864116
I0501 06:55:22.383200  2569 layer_factory.hpp:77] Creating layer loss
I0501 06:55:22.383205  2569 net.cpp:86] Creating Layer loss
I0501 06:55:22.383209  2569 net.cpp:408] loss <- ip2
I0501 06:55:22.383213  2569 net.cpp:408] loss <- label
I0501 06:55:22.383219  2569 net.cpp:382] loss -> loss
I0501 06:55:22.383235  2569 layer_factory.hpp:77] Creating layer loss
…
I0501 06:55:22.383831  2569 solver.cpp:173] Creating test net (#0) specified by net file: ECE595/cifar/train_test/var_everything/cifar_train_test_466.prototxt
I0501 06:55:22.383857  2569 net.cpp:296] The NetState phase (1) differed from the phase (0) specified by a rule in layer cifar
I0501 06:55:22.383935  2569 net.cpp:53] Initializing net from parameters: 
name: "CIFAR"
state {
  phase: TEST
}
layer {
  name: "cifar"
  type: "Data"
  top: "data"
  top: "label"
  include {
    phase: TEST
  }
  transform_param {
    mean_file: "examples/cifar10/mean.binaryproto"
  }
  data_param {
    source: "examples/cifar10/cifar10_test_lmdb"
    batch_size: 1000
    backend: LMDB
  }
}
layer {
  name: "conv0"
  type: "Convolution"
  bottom: "data"
  top: "conv0"
  param {
    lr_mult: 1
  }
  param {
    lr_mult: 2
  }
  convolution_param {
    num_output: 16
    pad: 2
    kernel_size: 3
    stride: 1
    weight_filler {
      type: "gaussian"
      std: 0.01
    }
    bias_filler {
      type: "constant"
    }
  }
}
layer {
  name: "Sigmoid0"
  type: "Sigmoid"
  bottom: "conv0"
  top: "Sigmoid0"
}
layer {
  name: "pool0"
  type: "Pooling"
  bottom: "Sigmoid0"
  top: "pool0"
  pooling_param {
    pool: AVE
    kernel_size: 3
    stride: 2
  }
}
layer {
  name: "ip1"
  type: "InnerProduct"
  bottom: "pool0"
  top: "ip1"
  param {
    lr_mult: 1
  }
  param {
    lr_mult: 2
  }
  inner_product_param {
    num_output: 20
    weight_filler {
      type: "gaussian"
      std: 0.01
    }
    bias_filler {
      type: "constant"
    }
  }
}
layer {
  name: "relu1"
  type: "ReLU"
  bottom: "ip1"
  top: "ip1"
}
layer {
  name: "ip2"
  type: "InnerProduct"
  bottom: "ip1"
  top: "ip2"
  param {
    lr_mult: 1
  }
  param {
    lr_mult: 2
  }
  inner_product_param {
    num_output: 10
    weight_filler {
      type: "gaussian"
      std: 0.01
    }
    bias_filler {
      type: "constant"
    }
  }
}
layer {
  name: "accuracy"
  type: "Accuracy"
  bottom: "ip2"
  bottom: "label"
  top: "accuracy"
  include {
    phase: TEST
  }
}
layer {
  name: "loss"
  type: "SoftmaxWithLoss"
  bottom: "ip2"
  bottom: "label"
  top: "loss"
}
I0501 06:55:22.384012  2569 layer_factory.hpp:77] Creating layer cifar
I0501 06:55:22.384060  2569 db_lmdb.cpp:35] Opened lmdb examples/cifar10/cifar10_test_lmdb
I0501 06:55:22.384076  2569 net.cpp:86] Creating Layer cifar
I0501 06:55:22.384083  2569 net.cpp:382] cifar -> data
I0501 06:55:22.384091  2569 net.cpp:382] cifar -> label
I0501 06:55:22.384099  2569 data_transformer.cpp:25] Loading mean file from: examples/cifar10/mean.binaryproto
I0501 06:55:22.384253  2569 data_layer.cpp:45] output data size: 1000,3,32,32
I0501 06:55:22.407126  2569 net.cpp:124] Setting up cifar
I0501 06:55:22.407153  2569 net.cpp:131] Top shape: 1000 3 32 32 (3072000)
I0501 06:55:22.407160  2569 net.cpp:131] Top shape: 1000 (1000)
I0501 06:55:22.407163  2569 net.cpp:139] Memory required for data: 12292000
I0501 06:55:22.407169  2569 layer_factory.hpp:77] Creating layer label_cifar_1_split
I0501 06:55:22.407181  2569 net.cpp:86] Creating Layer label_cifar_1_split
I0501 06:55:22.407186  2569 net.cpp:408] label_cifar_1_split <- label
I0501 06:55:22.407192  2569 net.cpp:382] label_cifar_1_split -> label_cifar_1_split_0
I0501 06:55:22.407202  2569 net.cpp:382] label_cifar_1_split -> label_cifar_1_split_1
I0501 06:55:22.407277  2569 net.cpp:124] Setting up label_cifar_1_split
I0501 06:55:22.407292  2569 net.cpp:131] Top shape: 1000 (1000)
I0501 06:55:22.407296  2569 net.cpp:131] Top shape: 1000 (1000)
I0501 06:55:22.407299  2569 net.cpp:139] Memory required for data: 12300000
I0501 06:55:22.407302  2569 layer_factory.hpp:77] Creating layer conv0
I0501 06:55:22.407315  2569 net.cpp:86] Creating Layer conv0
I0501 06:55:22.407318  2569 net.cpp:408] conv0 <- data
I0501 06:55:22.407325  2569 net.cpp:382] conv0 -> conv0
I0501 06:55:22.408962  2569 net.cpp:124] Setting up conv0
I0501 06:55:22.408977  2569 net.cpp:131] Top shape: 1000 16 34 34 (18496000)
I0501 06:55:22.408980  2569 net.cpp:139] Memory required for data: 86284000
I0501 06:55:22.408991  2569 layer_factory.hpp:77] Creating layer Sigmoid0
I0501 06:55:22.408998  2569 net.cpp:86] Creating Layer Sigmoid0
I0501 06:55:22.409003  2569 net.cpp:408] Sigmoid0 <- conv0
I0501 06:55:22.409006  2569 net.cpp:382] Sigmoid0 -> Sigmoid0
I0501 06:55:22.409185  2569 net.cpp:124] Setting up Sigmoid0
I0501 06:55:22.409195  2569 net.cpp:131] Top shape: 1000 16 34 34 (18496000)
I0501 06:55:22.409198  2569 net.cpp:139] Memory required for data: 160268000
I0501 06:55:22.409202  2569 layer_factory.hpp:77] Creating layer pool0
I0501 06:55:22.409209  2569 net.cpp:86] Creating Layer pool0
I0501 06:55:22.409212  2569 net.cpp:408] pool0 <- Sigmoid0
I0501 06:55:22.409217  2569 net.cpp:382] pool0 -> pool0
I0501 06:55:22.410085  2569 net.cpp:124] Setting up pool0
I0501 06:55:22.410109  2569 net.cpp:131] Top shape: 1000 16 17 17 (4624000)
I0501 06:55:22.410114  2569 net.cpp:139] Memory required for data: 178764000
I0501 06:55:22.410116  2569 layer_factory.hpp:77] Creating layer ip1
I0501 06:55:22.410125  2569 net.cpp:86] Creating Layer ip1
I0501 06:55:22.410127  2569 net.cpp:408] ip1 <- pool0
I0501 06:55:22.410133  2569 net.cpp:382] ip1 -> ip1
I0501 06:55:22.413651  2569 net.cpp:124] Setting up ip1
I0501 06:55:22.413661  2569 net.cpp:131] Top shape: 1000 20 (20000)
I0501 06:55:22.413664  2569 net.cpp:139] Memory required for data: 178844000
I0501 06:55:22.413672  2569 layer_factory.hpp:77] Creating layer relu1
I0501 06:55:22.413679  2569 net.cpp:86] Creating Layer relu1
I0501 06:55:22.413682  2569 net.cpp:408] relu1 <- ip1
I0501 06:55:22.413687  2569 net.cpp:369] relu1 -> ip1 (in-place)
I0501 06:55:22.413843  2569 net.cpp:124] Setting up relu1
I0501 06:55:22.413851  2569 net.cpp:131] Top shape: 1000 20 (20000)
I0501 06:55:22.413854  2569 net.cpp:139] Memory required for data: 178924000
I0501 06:55:22.413856  2569 layer_factory.hpp:77] Creating layer ip2
I0501 06:55:22.413862  2569 net.cpp:86] Creating Layer ip2
I0501 06:55:22.413866  2569 net.cpp:408] ip2 <- ip1
I0501 06:55:22.413872  2569 net.cpp:382] ip2 -> ip2
I0501 06:55:22.413976  2569 net.cpp:124] Setting up ip2
I0501 06:55:22.413985  2569 net.cpp:131] Top shape: 1000 10 (10000)
I0501 06:55:22.413986  2569 net.cpp:139] Memory required for data: 178964000
I0501 06:55:22.413993  2569 layer_factory.hpp:77] Creating layer ip2_ip2_0_split
I0501 06:55:22.414000  2569 net.cpp:86] Creating Layer ip2_ip2_0_split
I0501 06:55:22.414002  2569 net.cpp:408] ip2_ip2_0_split <- ip2
I0501 06:55:22.414007  2569 net.cpp:382] ip2_ip2_0_split -> ip2_ip2_0_split_0
I0501 06:55:22.414012  2569 net.cpp:382] ip2_ip2_0_split -> ip2_ip2_0_split_1
I0501 06:55:22.414041  2569 net.cpp:124] Setting up ip2_ip2_0_split
I0501 06:55:22.414047  2569 net.cpp:131] Top shape: 1000 10 (10000)
I0501 06:55:22.414049  2569 net.cpp:131] Top shape: 1000 10 (10000)
I0501 06:55:22.414052  2569 net.cpp:139] Memory required for data: 179044000
I0501 06:55:22.414055  2569 layer_factory.hpp:77] Creating layer accuracy
I0501 06:55:22.414064  2569 net.cpp:86] Creating Layer accuracy
I0501 06:55:22.414067  2569 net.cpp:408] accuracy <- ip2_ip2_0_split_0
I0501 06:55:22.414072  2569 net.cpp:408] accuracy <- label_cifar_1_split_0
I0501 06:55:22.414077  2569 net.cpp:382] accuracy -> accuracy
…
