…
I0501 07:25:16.408921  4964 net.cpp:296] The NetState phase (0) differed from the phase (1) specified by a rule in layer cifar
I0501 07:25:16.408939  4964 net.cpp:296] The NetState phase (0) differed from the phase (1) specified by a rule in layer accuracy
I0501 07:25:16.409034  4964 net.cpp:53] Initializing net from parameters: 
name: "CIFAR"
state {
  phase: TRAIN
  level: 0
  stage: ""
}
layer {
  name: "cifar"
  type: "Data"
  top: "data"
  top: "label"
  include {
    phase: TRAIN
  }
  transform_param {
    mean_file: "examples/cifar10/mean.binaryproto"
  }
  data_param {
    source: "examples/cifar10/cifar10_train_lmdb"
    batch_size: 111
    backend: LMDB
  }
}
layer {
  name: "conv0"
  type: "Convolution"
  bottom: "data"
  top: "conv0"
  param {
    lr_mult: 1
  }
  param {
    lr_mult: 2
  }
  convolution_param {
    num_output: 16
    pad: 2
    kernel_size: 3
    stride: 1
    weight_filler {
      type: "gaussian"
      std: 0.01
    }
    bias_filler {
      type: "constant"
    }
  }
}
layer {
  name: "Sigmoid0"
  type: "Sigmoid"
  bottom: "conv0"
  top: "Sigmoid0"
}
layer {
  name: "pool0"
  type: "Pooling"
  bottom: "Sigmoid0"
  top: "pool0"
  pooling_param {
    pool: AVE
    kernel_size: 3
    stride: 2
  }
}
layer {
  name: "ip1"
  type: "InnerProduct"
  bottom: "pool0"
  top: "ip1"
  param {
    lr_mult: 1
  }
  param {
    lr_mult: 2
  }
  inner_product_param {
    num_output: 40
    weight_filler {
      type: "gaussian"
      std: 0.01
    }
    bias_filler {
      type: "constant"
    }
  }
}
layer {
  name: "relu1"
  type: "ReLU"
  bottom: "ip1"
  top: "ip1"
}
layer {
  name: "ip2"
  type: "InnerProduct"
  bottom: "ip1"
  top: "ip2"
  param {
    lr_mult: 1
  }
  param {
    lr_mult: 2
  }
  inner_product_param {
    num_output: 20
    weight_filler {
      type: "gaussian"
      std: 0.01
    }
    bias_filler {
      type: "constant"
    }
  }
}
layer {
  name: "relu2"
  type: "ReLU"
  bottom: "ip2"
  top: "ip2"
}
layer {
  name: "ip3"
  type: "InnerProduct"
  bottom: "ip2"
  top: "ip3"
  param {
    lr_mult: 1
  }
  param {
    lr_mult: 2
  }
  inner_product_param {
    num_output: 10
    weight_filler {
      type: "gaussian"
      std: 0.01
    }
    bias_filler {
      type: "constant"
    }
  }
}
layer {
  name: "loss"
  type: "SoftmaxWithLoss"
  bottom: "ip3"
  bottom: "label"
  top: "loss"
}
I0501 07:25:16.409109  4964 layer_factory.hpp:77] Creating layer cifar
I0501 07:25:16.409204  4964 db_lmdb.cpp:35] Opened lmdb examples/cifar10/cifar10_train_lmdb
I0501 07:25:16.409230  4964 net.cpp:86] Creating Layer cifar
I0501 07:25:16.409238  4964 net.cpp:382] cifar -> data
I0501 07:25:16.409261  4964 net.cpp:382] cifar -> label
I0501 07:25:16.409272  4964 data_transformer.cpp:25] Loading mean file from: examples/cifar10/mean.binaryproto
I0501 07:25:16.411417  4964 data_layer.cpp:45] output data size: 111,3,32,32
I0501 07:25:16.419364  4964 net.cpp:124] Setting up cifar
I0501 07:25:16.419385  4964 net.cpp:131] Top shape: 111 3 32 32 (340992)
I0501 07:25:16.419391  4964 net.cpp:131] Top shape: 111 (111)
I0501 07:25:16.419395  4964 net.cpp:139] Memory required for data: 1364412
I0501 07:25:16.419402  4964 layer_factory.hpp:77] Creating layer conv0
I0501 07:25:16.419435  4964 net.cpp:86] Creating Layer conv0
I0501 07:25:16.419440  4964 net.cpp:408] conv0 <- data
I0501 07:25:16.419452  4964 net.cpp:382] conv0 -> conv0
I0501 07:25:16.707684  4964 net.cpp:124] Setting up conv0
I0501 07:25:16.707729  4964 net.cpp:131] Top shape: 111 16 34 34 (2053056)
I0501 07:25:16.707733  4964 net.cpp:139] Memory required for data: 9576636
I0501 07:25:16.707748  4964 layer_factory.hpp:77] Creating layer Sigmoid0
I0501 07:25:16.707759  4964 net.cpp:86] Creating Layer Sigmoid0
I0501 07:25:16.707763  4964 net.cpp:408] Sigmoid0 <- conv0
I0501 07:25:16.707769  4964 net.cpp:382] Sigmoid0 -> Sigmoid0
I0501 07:25:16.707950  4964 net.cpp:124] Setting up Sigmoid0
I0501 07:25:16.707960  4964 net.cpp:131] Top shape: 111 16 34 34 (2053056)
I0501 07:25:16.707964  4964 net.cpp:139] Memory required for data: 17788860
I0501 07:25:16.707967  4964 layer_factory.hpp:77] Creating layer pool0
I0501 07:25:16.707974  4964 net.cpp:86] Creating Layer pool0
I0501 07:25:16.707978  4964 net.cpp:408] pool0 <- Sigmoid0
I0501 07:25:16.707981  4964 net.cpp:382] pool0 -> pool0
I0501 07:25:16.708716  4964 net.cpp:124] Setting up pool0
I0501 07:25:16.708729  4964 net.cpp:131] Top shape: 111 16 17 17 (513264)
I0501 07:25:16.708732  4964 net.cpp:139] Memory required for data: 19841916
I0501 07:25:16.708736  4964 layer_factory.hpp:77] Creating layer ip1
I0501 07:25:16.708745  4964 net.cpp:86] Creating Layer ip1
I0501 07:25:16.708750  4964 net.cpp:408] ip1 <- pool0
I0501 07:25:16.708755  4964 net.cpp:382] ip1 -> ip1
I0501 07:25:16.714602  4964 net.cpp:124] Setting up ip1
I0501 07:25:16.714614  4964 net.cpp:131] Top shape: 111 40 (4440)
I0501 07:25:16.714618  4964 net.cpp:139] Memory required for data: 19859676
I0501 07:25:16.714627  4964 layer_factory.hpp:77] Creating layer relu1
I0501 07:25:16.714632  4964 net.cpp:86] Creating Layer relu1
I0501 07:25:16.714634  4964 net.cpp:408] relu1 <- ip1
I0501 07:25:16.714639  4964 net.cpp:369] relu1 -> ip1 (in-place)
I0501 07:25:16.714790  4964 net.cpp:124] Setting up relu1
I0501 07:25:16.714799  4964 net.cpp:131] Top shape: 111 40 (4440)
I0501 07:25:16.714802  4964 net.cpp:139] Memory required for data: 19877436
I0501 07:25:16.714805  4964 layer_factory.hpp:77] Creating layer ip2
I0501 07:25:16.714812  4964 net.cpp:86] Creating Layer ip2
I0501 07:25:16.714814  4964 net.cpp:408] ip2 <- ip1
I0501 07:25:16.714819  4964 net.cpp:382] ip2 -> ip2
I0501 07:25:16.714931  4964 net.cpp:124] Setting up ip2
I0501 07:25:16.714937  4964 net.cpp:131] Top shape: 111 20 (2220)
I0501 07:25:16.714941  4964 net.cpp:139] Memory required for data: 19886316
I0501 07:25:16.714947  4964 layer_factory.hpp:77] Creating layer relu2
I0501 07:25:16.714951  4964 net.cpp:86] Creating Layer relu2
I0501 07:25:16.714956  4964 net.cpp:408] relu2 <- ip2
I0501 07:25:16.714959  4964 net.cpp:369] relu2 -> ip2 (in-place)
I0501 07:25:16.715107  4964 net.cpp:124] Setting up relu2
I0501 07:25:16.715116  4964 net.cpp:131] Top shape: 111 20 (2220)
I0501 07:25:16.715118  4964 net.cpp:139] Memory required for data: 19895196
I0501 07:25:16.715121  4964 layer_factory.hpp:77] Creating layer ip3
I0501 07:25:16.715129  4964 net.cpp:86] Creating Layer ip3
I0501 07:25:16.715132  4964 net.cpp:408] ip3 <- ip2
I0501 07:25:16.715137  4964 net.cpp:382] ip3 -> ip3
I0501 07:25:16.715227  4964 net.cpp:124] Setting up ip3
I0501 07:25:16.715234  4964 net.cpp:131] Top shape: 111 10 (1110)
I0501 07:25:16.715236  4964 net.cpp:139] Memory required for data: 19899636
I0501 07:25:16.715241  4964 layer_factory.hpp:77] Creating layer loss
I0501 07:25:16.715246  4964 net.cpp:86] Creating Layer loss
I0501 07:25:16.715250  4964 net.cpp:408] loss <- ip3
I0501 07:25:16.715253  4964 net.cpp:408] loss <- label
I0501 07:25:16.715258  4964 net.cpp:382] loss -> loss
I0501 07:25:16.715276  4964 layer_factory.hpp:77] Creating layer loss
…
I0501 07:25:16.715847  4964 solver.cpp:173] Creating test net (#0) specified by net file: ECE595/cifar/train_test/var_everything/cifar_train_test_481.prototxt
I0501 07:25:16.715873  4964 net.cpp:296] The NetState phase (1) differed from the phase (0) specified by a rule in layer cifar
I0501 07:25:16.715960  4964 net.cpp:53] Initializing net from parameters: 
name: "CIFAR"
state {
  phase: TEST
}
layer {
  name: "cifar"
  type: "Data"
  top: "data"
  top: "label"
  include {
    phase: TEST
  }
  transform_param {
    mean_file: "examples/cifar10/mean.binaryproto"
  }
  data_param {
    source: "examples/cifar10/cifar10_test_lmdb"
    batch_size: 1000
    backend: LMDB
  }
}
layer {
  name: "conv0"
  type: "Convolution"
  bottom: "data"
  top: "conv0"
  param {
    lr_mult: 1
  }
  param {
    lr_mult: 2
  }
  convolution_param {
    num_output: 16
    pad: 2
    kernel_size: 3
    stride: 1
    weight_filler {
      type: "gaussian"
      std: 0.01
    }
    bias_filler {
      type: "constant"
    }
  }
}
layer {
  name: "Sigmoid0"
  type: "Sigmoid"
  bottom: "conv0"
  top: "Sigmoid0"
}
layer {
  name: "pool0"
  type: "Pooling"
  bottom: "Sigmoid0"
  top: "pool0"
  pooling_param {
    pool: AVE
    kernel_size: 3
    stride: 2
  }
}
layer {
  name: "ip1"
  type: "InnerProduct"
  bottom: "pool0"
  top: "ip1"
  param {
    lr_mult: 1
  }
  param {
    lr_mult: 2
  }
  inner_product_param {
    num_output: 40
    weight_filler {
      type: "gaussian"
      std: 0.01
    }
    bias_filler {
      type: "constant"
    }
  }
}
layer {
  name: "relu1"
  type: "ReLU"
  bottom: "ip1"
  top: "ip1"
}
layer {
  name: "ip2"
  type: "InnerProduct"
  bottom: "ip1"
  top: "ip2"
  param {
    lr_mult: 1
  }
  param {
    lr_mult: 2
  }
  inner_product_param {
    num_output: 20
    weight_filler {
      type: "gaussian"
      std: 0.01
    }
    bias_filler {
      type: "constant"
    }
  }
}
layer {
  name: "relu2"
  type: "ReLU"
  bottom: "ip2"
  top: "ip2"
}
layer {
  name: "ip3"
  type: "InnerProduct"
  bottom: "ip2"
  top: "ip3"
  param {
    lr_mult: 1
  }
  param {
    lr_mult: 2
  }
  inner_product_param {
    num_output: 10
    weight_filler {
      type: "gaussian"
      std: 0.01
    }
    bias_filler {
      type: "constant"
    }
  }
}
layer {
  name: "accuracy"
  type: "Accuracy"
  bottom: "ip3"
  bottom: "label"
  top: "accuracy"
  include {
    phase: TEST
  }
}
layer {
  name: "loss"
  type: "SoftmaxWithLoss"
  bottom: "ip3"
  bottom: "label"
  top: "loss"
}
I0501 07:25:16.716020  4964 layer_factory.hpp:77] Creating layer cifar
I0501 07:25:16.716063  4964 db_lmdb.cpp:35] Opened lmdb examples/cifar10/cifar10_test_lmdb
I0501 07:25:16.716073  4964 net.cpp:86] Creating Layer cifar
I0501 07:25:16.716078  4964 net.cpp:382] cifar -> data
I0501 07:25:16.716085  4964 net.cpp:382] cifar -> label
I0501 07:25:16.716091  4964 data_transformer.cpp:25] Loading mean file from: examples/cifar10/mean.binaryproto
I0501 07:25:16.716225  4964 data_layer.cpp:45] output data size: 1000,3,32,32
I0501 07:25:16.738224  4964 net.cpp:124] Setting up cifar
I0501 07:25:16.738252  4964 net.cpp:131] Top shape: 1000 3 32 32 (3072000)
I0501 07:25:16.738258  4964 net.cpp:131] Top shape: 1000 (1000)
I0501 07:25:16.738261  4964 net.cpp:139] Memory required for data: 12292000
I0501 07:25:16.738267  4964 layer_factory.hpp:77] Creating layer label_cifar_1_split
I0501 07:25:16.738279  4964 net.cpp:86] Creating Layer label_cifar_1_split
I0501 07:25:16.738297  4964 net.cpp:408] label_cifar_1_split <- label
I0501 07:25:16.738303  4964 net.cpp:382] label_cifar_1_split -> label_cifar_1_split_0
I0501 07:25:16.738312  4964 net.cpp:382] label_cifar_1_split -> label_cifar_1_split_1
I0501 07:25:16.738394  4964 net.cpp:124] Setting up label_cifar_1_split
I0501 07:25:16.738401  4964 net.cpp:131] Top shape: 1000 (1000)
I0501 07:25:16.738405  4964 net.cpp:131] Top shape: 1000 (1000)
I0501 07:25:16.738409  4964 net.cpp:139] Memory required for data: 12300000
I0501 07:25:16.738410  4964 layer_factory.hpp:77] Creating layer conv0
I0501 07:25:16.738422  4964 net.cpp:86] Creating Layer conv0
I0501 07:25:16.738425  4964 net.cpp:408] conv0 <- data
I0501 07:25:16.738430  4964 net.cpp:382] conv0 -> conv0
I0501 07:25:16.739826  4964 net.cpp:124] Setting up conv0
I0501 07:25:16.739840  4964 net.cpp:131] Top shape: 1000 16 34 34 (18496000)
I0501 07:25:16.739843  4964 net.cpp:139] Memory required for data: 86284000
I0501 07:25:16.739852  4964 layer_factory.hpp:77] Creating layer Sigmoid0
I0501 07:25:16.739859  4964 net.cpp:86] Creating Layer Sigmoid0
I0501 07:25:16.739862  4964 net.cpp:408] Sigmoid0 <- conv0
I0501 07:25:16.739866  4964 net.cpp:382] Sigmoid0 -> Sigmoid0
I0501 07:25:16.740682  4964 net.cpp:124] Setting up Sigmoid0
I0501 07:25:16.740694  4964 net.cpp:131] Top shape: 1000 16 34 34 (18496000)
I0501 07:25:16.740698  4964 net.cpp:139] Memory required for data: 160268000
I0501 07:25:16.740701  4964 layer_factory.hpp:77] Creating layer pool0
I0501 07:25:16.740710  4964 net.cpp:86] Creating Layer pool0
I0501 07:25:16.740713  4964 net.cpp:408] pool0 <- Sigmoid0
I0501 07:25:16.740717  4964 net.cpp:382] pool0 -> pool0
I0501 07:25:16.741017  4964 net.cpp:124] Setting up pool0
I0501 07:25:16.741029  4964 net.cpp:131] Top shape: 1000 16 17 17 (4624000)
I0501 07:25:16.741032  4964 net.cpp:139] Memory required for data: 178764000
I0501 07:25:16.741036  4964 layer_factory.hpp:77] Creating layer ip1
I0501 07:25:16.741044  4964 net.cpp:86] Creating Layer ip1
I0501 07:25:16.741047  4964 net.cpp:408] ip1 <- pool0
I0501 07:25:16.741052  4964 net.cpp:382] ip1 -> ip1
I0501 07:25:16.746767  4964 net.cpp:124] Setting up ip1
I0501 07:25:16.746778  4964 net.cpp:131] Top shape: 1000 40 (40000)
I0501 07:25:16.746780  4964 net.cpp:139] Memory required for data: 178924000
I0501 07:25:16.746788  4964 layer_factory.hpp:77] Creating layer relu1
I0501 07:25:16.746794  4964 net.cpp:86] Creating Layer relu1
I0501 07:25:16.746798  4964 net.cpp:408] relu1 <- ip1
I0501 07:25:16.746803  4964 net.cpp:369] relu1 -> ip1 (in-place)
I0501 07:25:16.746953  4964 net.cpp:124] Setting up relu1
I0501 07:25:16.746960  4964 net.cpp:131] Top shape: 1000 40 (40000)
I0501 07:25:16.746963  4964 net.cpp:139] Memory required for data: 179084000
I0501 07:25:16.746966  4964 layer_factory.hpp:77] Creating layer ip2
I0501 07:25:16.746973  4964 net.cpp:86] Creating Layer ip2
I0501 07:25:16.746976  4964 net.cpp:408] ip2 <- ip1
I0501 07:25:16.746980  4964 net.cpp:382] ip2 -> ip2
I0501 07:25:16.747094  4964 net.cpp:124] Setting up ip2
I0501 07:25:16.747102  4964 net.cpp:131] Top shape: 1000 20 (20000)
I0501 07:25:16.747104  4964 net.cpp:139] Memory required for data: 179164000
I0501 07:25:16.747112  4964 layer_factory.hpp:77] Creating layer relu2
I0501 07:25:16.747117  4964 net.cpp:86] Creating Layer relu2
I0501 07:25:16.747120  4964 net.cpp:408] relu2 <- ip2
I0501 07:25:16.747124  4964 net.cpp:369] relu2 -> ip2 (in-place)
I0501 07:25:16.747265  4964 net.cpp:124] Setting up relu2
I0501 07:25:16.747273  4964 net.cpp:131] Top shape: 1000 20 (20000)
I0501 07:25:16.747277  4964 net.cpp:139] Memory required for data: 179244000
I0501 07:25:16.747279  4964 layer_factory.hpp:77] Creating layer ip3
I0501 07:25:16.747284  4964 net.cpp:86] Creating Layer ip3
I0501 07:25:16.747287  4964 net.cpp:408] ip3 <- ip2
I0501 07:25:16.747292  4964 net.cpp:382] ip3 -> ip3
I0501 07:25:16.747387  4964 net.cpp:124] Setting up ip3
I0501 07:25:16.747395  4964 net.cpp:131] Top shape: 1000 10 (10000)
I0501 07:25:16.747406  4964 net.cpp:139] Memory required for data: 179284000
I0501 07:25:16.747412  4964 layer_factory.hpp:77] Creating layer ip3_ip3_0_split
I0501 07:25:16.747417  4964 net.cpp:86] Creating Layer ip3_ip3_0_split
I0501 07:25:16.747421  4964 net.cpp:408] ip3_ip3_0_split <- ip3
I0501 07:25:16.747424  4964 net.cpp:382] ip3_ip3_0_split -> ip3_ip3_0_split_0
I0501 07:25:16.747429  4964 net.cpp:382] ip3_ip3_0_split -> ip3_ip3_0_split_1
I0501 07:25:16.747459  4964 net.cpp:124] Setting up ip3_ip3_0_split
I0501 07:25:16.747464  4964 net.cpp:131] Top shape: 1000 10 (10000)
I0501 07:25:16.747467  4964 net.cpp:131] Top shape: 1000 10 (10000)
I0501 07:25:16.747470  4964 net.cpp:139] Memory required for data: 179364000
I0501 07:25:16.747473  4964 layer_factory.hpp:77] Creating layer accuracy
I0501 07:25:16.747478  4964 net.cpp:86] Creating Layer accuracy
I0501 07:25:16.747481  4964 net.cpp:408] accuracy <- ip3_ip3_0_split_0
I0501 07:25:16.747484  4964 net.cpp:408] accuracy <- label_cifar_1_split_0
I0501 07:25:16.747489  4964 net.cpp:382] accuracy -> accuracy
…
