…
I0501 03:36:28.686978 21779 net.cpp:296] The NetState phase (0) differed from the phase (1) specified by a rule in layer cifar
I0501 03:36:28.687002 21779 net.cpp:296] The NetState phase (0) differed from the phase (1) specified by a rule in layer accuracy
I0501 03:36:28.687111 21779 net.cpp:53] Initializing net from parameters: 
name: "CIFAR"
state {
  phase: TRAIN
  level: 0
  stage: ""
}
layer {
  name: "cifar"
  type: "Data"
  top: "data"
  top: "label"
  include {
    phase: TRAIN
  }
  transform_param {
    mean_file: "examples/cifar10/mean.binaryproto"
  }
  data_param {
    source: "examples/cifar10/cifar10_train_lmdb"
    batch_size: 111
    backend: LMDB
  }
}
layer {
  name: "conv0"
  type: "Convolution"
  bottom: "data"
  top: "conv0"
  param {
    lr_mult: 1
  }
  param {
    lr_mult: 2
  }
  convolution_param {
    num_output: 8
    pad: 2
    kernel_size: 5
    stride: 1
    weight_filler {
      type: "gaussian"
      std: 0.01
    }
    bias_filler {
      type: "constant"
    }
  }
}
layer {
  name: "Sigmoid0"
  type: "Sigmoid"
  bottom: "conv0"
  top: "Sigmoid0"
}
layer {
  name: "pool0"
  type: "Pooling"
  bottom: "Sigmoid0"
  top: "pool0"
  pooling_param {
    pool: AVE
    kernel_size: 3
    stride: 2
  }
}
layer {
  name: "ip1"
  type: "InnerProduct"
  bottom: "pool0"
  top: "ip1"
  param {
    lr_mult: 1
  }
  param {
    lr_mult: 2
  }
  inner_product_param {
    num_output: 10
    weight_filler {
      type: "gaussian"
      std: 0.01
    }
    bias_filler {
      type: "constant"
    }
  }
}
layer {
  name: "relu1"
  type: "ReLU"
  bottom: "ip1"
  top: "ip1"
}
layer {
  name: "ip2"
  type: "InnerProduct"
  bottom: "ip1"
  top: "ip2"
  param {
    lr_mult: 1
  }
  param {
    lr_mult: 2
  }
  inner_product_param {
    num_output: 80
    weight_filler {
      type: "gaussian"
      std: 0.01
    }
    bias_filler {
      type: "constant"
    }
  }
}
layer {
  name: "relu2"
  type: "ReLU"
  bottom: "ip2"
  top: "ip2"
}
layer {
  name: "ip3"
  type: "InnerProduct"
  bottom: "ip2"
  top: "ip3"
  param {
    lr_mult: 1
  }
  param {
    lr_mult: 2
  }
  inner_product_param {
    num_output: 160
    weight_filler {
      type: "gaussian"
      std: 0.01
    }
    bias_filler {
      type: "constant"
    }
  }
}
layer {
  name: "relu3"
  type: "ReLU"
  bottom: "ip3"
  top: "ip3"
}
layer {
  name: "ip4"
  type: "InnerProduct"
  bottom: "ip3"
  top: "ip4"
  param {
    lr_mult: 1
  }
  param {
    lr_mult: 2
  }
  inner_product_param {
    num_output: 10
    weight_filler {
      type: "gaussian"
      std: 0.01
    }
    bias_filler {
      type: "constant"
    }
  }
}
layer {
  name: "loss"
  type: "SoftmaxWithLoss"
  bottom: "ip4"
  bottom: "label"
  top: "loss"
}
I0501 03:36:28.687217 21779 layer_factory.hpp:77] Creating layer cifar
I0501 03:36:28.687362 21779 db_lmdb.cpp:35] Opened lmdb examples/cifar10/cifar10_train_lmdb
I0501 03:36:28.687398 21779 net.cpp:86] Creating Layer cifar
I0501 03:36:28.687412 21779 net.cpp:382] cifar -> data
I0501 03:36:28.687443 21779 net.cpp:382] cifar -> label
I0501 03:36:28.687459 21779 data_transformer.cpp:25] Loading mean file from: examples/cifar10/mean.binaryproto
I0501 03:36:28.689785 21779 data_layer.cpp:45] output data size: 111,3,32,32
I0501 03:36:28.697665 21779 net.cpp:124] Setting up cifar
I0501 03:36:28.697687 21779 net.cpp:131] Top shape: 111 3 32 32 (340992)
I0501 03:36:28.697697 21779 net.cpp:131] Top shape: 111 (111)
I0501 03:36:28.697703 21779 net.cpp:139] Memory required for data: 1364412
I0501 03:36:28.697733 21779 layer_factory.hpp:77] Creating layer conv0
I0501 03:36:28.697769 21779 net.cpp:86] Creating Layer conv0
I0501 03:36:28.697777 21779 net.cpp:408] conv0 <- data
I0501 03:36:28.697795 21779 net.cpp:382] conv0 -> conv0
I0501 03:36:28.989408 21779 net.cpp:124] Setting up conv0
I0501 03:36:28.989442 21779 net.cpp:131] Top shape: 111 8 32 32 (909312)
I0501 03:36:28.989450 21779 net.cpp:139] Memory required for data: 5001660
I0501 03:36:28.989475 21779 layer_factory.hpp:77] Creating layer Sigmoid0
I0501 03:36:28.989493 21779 net.cpp:86] Creating Layer Sigmoid0
I0501 03:36:28.989502 21779 net.cpp:408] Sigmoid0 <- conv0
I0501 03:36:28.989513 21779 net.cpp:382] Sigmoid0 -> Sigmoid0
I0501 03:36:28.989730 21779 net.cpp:124] Setting up Sigmoid0
I0501 03:36:28.989743 21779 net.cpp:131] Top shape: 111 8 32 32 (909312)
I0501 03:36:28.989749 21779 net.cpp:139] Memory required for data: 8638908
I0501 03:36:28.989756 21779 layer_factory.hpp:77] Creating layer pool0
I0501 03:36:28.989768 21779 net.cpp:86] Creating Layer pool0
I0501 03:36:28.989775 21779 net.cpp:408] pool0 <- Sigmoid0
I0501 03:36:28.989784 21779 net.cpp:382] pool0 -> pool0
I0501 03:36:28.990680 21779 net.cpp:124] Setting up pool0
I0501 03:36:28.990698 21779 net.cpp:131] Top shape: 111 8 16 16 (227328)
I0501 03:36:28.990705 21779 net.cpp:139] Memory required for data: 9548220
I0501 03:36:28.990712 21779 layer_factory.hpp:77] Creating layer ip1
I0501 03:36:28.990728 21779 net.cpp:86] Creating Layer ip1
I0501 03:36:28.990736 21779 net.cpp:408] ip1 <- pool0
I0501 03:36:28.990747 21779 net.cpp:382] ip1 -> ip1
I0501 03:36:28.992561 21779 net.cpp:124] Setting up ip1
I0501 03:36:28.992579 21779 net.cpp:131] Top shape: 111 10 (1110)
I0501 03:36:28.992586 21779 net.cpp:139] Memory required for data: 9552660
I0501 03:36:28.992601 21779 layer_factory.hpp:77] Creating layer relu1
I0501 03:36:28.992614 21779 net.cpp:86] Creating Layer relu1
I0501 03:36:28.992620 21779 net.cpp:408] relu1 <- ip1
I0501 03:36:28.992630 21779 net.cpp:369] relu1 -> ip1 (in-place)
I0501 03:36:28.992839 21779 net.cpp:124] Setting up relu1
I0501 03:36:28.992852 21779 net.cpp:131] Top shape: 111 10 (1110)
I0501 03:36:28.992858 21779 net.cpp:139] Memory required for data: 9557100
I0501 03:36:28.992866 21779 layer_factory.hpp:77] Creating layer ip2
I0501 03:36:28.992877 21779 net.cpp:86] Creating Layer ip2
I0501 03:36:28.992884 21779 net.cpp:408] ip2 <- ip1
I0501 03:36:28.992894 21779 net.cpp:382] ip2 -> ip2
I0501 03:36:28.993050 21779 net.cpp:124] Setting up ip2
I0501 03:36:28.993062 21779 net.cpp:131] Top shape: 111 80 (8880)
I0501 03:36:28.993067 21779 net.cpp:139] Memory required for data: 9592620
I0501 03:36:28.993082 21779 layer_factory.hpp:77] Creating layer relu2
I0501 03:36:28.993091 21779 net.cpp:86] Creating Layer relu2
I0501 03:36:28.993098 21779 net.cpp:408] relu2 <- ip2
I0501 03:36:28.993108 21779 net.cpp:369] relu2 -> ip2 (in-place)
I0501 03:36:28.993305 21779 net.cpp:124] Setting up relu2
I0501 03:36:28.993317 21779 net.cpp:131] Top shape: 111 80 (8880)
I0501 03:36:28.993324 21779 net.cpp:139] Memory required for data: 9628140
I0501 03:36:28.993330 21779 layer_factory.hpp:77] Creating layer ip3
I0501 03:36:28.993342 21779 net.cpp:86] Creating Layer ip3
I0501 03:36:28.993350 21779 net.cpp:408] ip3 <- ip2
I0501 03:36:28.993360 21779 net.cpp:382] ip3 -> ip3
I0501 03:36:28.994890 21779 net.cpp:124] Setting up ip3
I0501 03:36:28.994906 21779 net.cpp:131] Top shape: 111 160 (17760)
I0501 03:36:28.994913 21779 net.cpp:139] Memory required for data: 9699180
I0501 03:36:28.994925 21779 layer_factory.hpp:77] Creating layer relu3
I0501 03:36:28.994936 21779 net.cpp:86] Creating Layer relu3
I0501 03:36:28.994943 21779 net.cpp:408] relu3 <- ip3
I0501 03:36:28.994952 21779 net.cpp:369] relu3 -> ip3 (in-place)
I0501 03:36:28.995159 21779 net.cpp:124] Setting up relu3
I0501 03:36:28.995172 21779 net.cpp:131] Top shape: 111 160 (17760)
I0501 03:36:28.995178 21779 net.cpp:139] Memory required for data: 9770220
I0501 03:36:28.995185 21779 layer_factory.hpp:77] Creating layer ip4
I0501 03:36:28.995221 21779 net.cpp:86] Creating Layer ip4
I0501 03:36:28.995234 21779 net.cpp:408] ip4 <- ip3
I0501 03:36:28.995244 21779 net.cpp:382] ip4 -> ip4
I0501 03:36:28.995424 21779 net.cpp:124] Setting up ip4
I0501 03:36:28.995436 21779 net.cpp:131] Top shape: 111 10 (1110)
I0501 03:36:28.995442 21779 net.cpp:139] Memory required for data: 9774660
I0501 03:36:28.995457 21779 layer_factory.hpp:77] Creating layer loss
I0501 03:36:28.995468 21779 net.cpp:86] Creating Layer loss
I0501 03:36:28.995476 21779 net.cpp:408] loss <- ip4
I0501 03:36:28.995483 21779 net.cpp:408] loss <- label
I0501 03:36:28.995493 21779 net.cpp:382] loss -> loss
I0501 03:36:28.995517 21779 layer_factory.hpp:77] Creating layer loss
…
I0501 03:36:28.997046 21779 solver.cpp:173] Creating test net (#0) specified by net file: ECE595/cifar/train_test/var_everything/cifar_train_test_359.prototxt
I0501 03:36:28.997093 21779 net.cpp:296] The NetState phase (1) differed from the phase (0) specified by a rule in layer cifar
I0501 03:36:28.997216 21779 net.cpp:53] Initializing net from parameters: 
name: "CIFAR"
state {
  phase: TEST
}
layer {
  name: "cifar"
  type: "Data"
  top: "data"
  top: "label"
  include {
    phase: TEST
  }
  transform_param {
    mean_file: "examples/cifar10/mean.binaryproto"
  }
  data_param {
    source: "examples/cifar10/cifar10_test_lmdb"
    batch_size: 1000
    backend: LMDB
  }
}
layer {
  name: "conv0"
  type: "Convolution"
  bottom: "data"
  top: "conv0"
  param {
    lr_mult: 1
  }
  param {
    lr_mult: 2
  }
  convolution_param {
    num_output: 8
    pad: 2
    kernel_size: 5
    stride: 1
    weight_filler {
      type: "gaussian"
      std: 0.01
    }
    bias_filler {
      type: "constant"
    }
  }
}
layer {
  name: "Sigmoid0"
  type: "Sigmoid"
  bottom: "conv0"
  top: "Sigmoid0"
}
layer {
  name: "pool0"
  type: "Pooling"
  bottom: "Sigmoid0"
  top: "pool0"
  pooling_param {
    pool: AVE
    kernel_size: 3
    stride: 2
  }
}
layer {
  name: "ip1"
  type: "InnerProduct"
  bottom: "pool0"
  top: "ip1"
  param {
    lr_mult: 1
  }
  param {
    lr_mult: 2
  }
  inner_product_param {
    num_output: 10
    weight_filler {
      type: "gaussian"
      std: 0.01
    }
    bias_filler {
      type: "constant"
    }
  }
}
layer {
  name: "relu1"
  type: "ReLU"
  bottom: "ip1"
  top: "ip1"
}
layer {
  name: "ip2"
  type: "InnerProduct"
  bottom: "ip1"
  top: "ip2"
  param {
    lr_mult: 1
  }
  param {
    lr_mult: 2
  }
  inner_product_param {
    num_output: 80
    weight_filler {
      type: "gaussian"
      std: 0.01
    }
    bias_filler {
      type: "constant"
    }
  }
}
layer {
  name: "relu2"
  type: "ReLU"
  bottom: "ip2"
  top: "ip2"
}
layer {
  name: "ip3"
  type: "InnerProduct"
  bottom: "ip2"
  top: "ip3"
  param {
    lr_mult: 1
  }
  param {
    lr_mult: 2
  }
  inner_product_param {
    num_output: 160
    weight_filler {
      type: "gaussian"
      std: 0.01
    }
    bias_filler {
      type: "constant"
    }
  }
}
layer {
  name: "relu3"
  type: "ReLU"
  bottom: "ip3"
  top: "ip3"
}
layer {
  name: "ip4"
  type: "InnerProduct"
  bottom: "ip3"
  top: "ip4"
  param {
    lr_mult: 1
  }
  param {
    lr_mult: 2
  }
  inner_product_param {
    num_output: 10
    weight_filler {
      type: "gaussian"
      std: 0.01
    }
    bias_filler {
      type: "constant"
    }
  }
}
layer {
  name: "accuracy"
  type: "Accuracy"
  bottom: "ip4"
  bottom: "label"
  top: "accuracy"
  include {
    phase: TEST
  }
}
layer {
  name: "loss"
  type: "SoftmaxWithLoss"
  bottom: "ip4"
  bottom: "label"
  top: "loss"
}
I0501 03:36:28.997352 21779 layer_factory.hpp:77] Creating layer cifar
I0501 03:36:28.997426 21779 db_lmdb.cpp:35] Opened lmdb examples/cifar10/cifar10_test_lmdb
I0501 03:36:28.997447 21779 net.cpp:86] Creating Layer cifar
I0501 03:36:28.997457 21779 net.cpp:382] cifar -> data
I0501 03:36:28.997470 21779 net.cpp:382] cifar -> label
I0501 03:36:28.997483 21779 data_transformer.cpp:25] Loading mean file from: examples/cifar10/mean.binaryproto
I0501 03:36:28.997725 21779 data_layer.cpp:45] output data size: 1000,3,32,32
I0501 03:36:29.024204 21779 net.cpp:124] Setting up cifar
I0501 03:36:29.024233 21779 net.cpp:131] Top shape: 1000 3 32 32 (3072000)
I0501 03:36:29.024242 21779 net.cpp:131] Top shape: 1000 (1000)
I0501 03:36:29.024248 21779 net.cpp:139] Memory required for data: 12292000
I0501 03:36:29.024257 21779 layer_factory.hpp:77] Creating layer label_cifar_1_split
I0501 03:36:29.024274 21779 net.cpp:86] Creating Layer label_cifar_1_split
I0501 03:36:29.024282 21779 net.cpp:408] label_cifar_1_split <- label
I0501 03:36:29.024292 21779 net.cpp:382] label_cifar_1_split -> label_cifar_1_split_0
I0501 03:36:29.024307 21779 net.cpp:382] label_cifar_1_split -> label_cifar_1_split_1
I0501 03:36:29.024381 21779 net.cpp:124] Setting up label_cifar_1_split
I0501 03:36:29.024392 21779 net.cpp:131] Top shape: 1000 (1000)
I0501 03:36:29.024399 21779 net.cpp:131] Top shape: 1000 (1000)
I0501 03:36:29.024405 21779 net.cpp:139] Memory required for data: 12300000
I0501 03:36:29.024411 21779 layer_factory.hpp:77] Creating layer conv0
I0501 03:36:29.024430 21779 net.cpp:86] Creating Layer conv0
I0501 03:36:29.024438 21779 net.cpp:408] conv0 <- data
I0501 03:36:29.024449 21779 net.cpp:382] conv0 -> conv0
I0501 03:36:29.026188 21779 net.cpp:124] Setting up conv0
I0501 03:36:29.026211 21779 net.cpp:131] Top shape: 1000 8 32 32 (8192000)
I0501 03:36:29.026218 21779 net.cpp:139] Memory required for data: 45068000
I0501 03:36:29.026237 21779 layer_factory.hpp:77] Creating layer Sigmoid0
I0501 03:36:29.026247 21779 net.cpp:86] Creating Layer Sigmoid0
I0501 03:36:29.026259 21779 net.cpp:408] Sigmoid0 <- conv0
I0501 03:36:29.026270 21779 net.cpp:382] Sigmoid0 -> Sigmoid0
I0501 03:36:29.027418 21779 net.cpp:124] Setting up Sigmoid0
I0501 03:36:29.027434 21779 net.cpp:131] Top shape: 1000 8 32 32 (8192000)
I0501 03:36:29.027441 21779 net.cpp:139] Memory required for data: 77836000
I0501 03:36:29.027446 21779 layer_factory.hpp:77] Creating layer pool0
I0501 03:36:29.027458 21779 net.cpp:86] Creating Layer pool0
I0501 03:36:29.027464 21779 net.cpp:408] pool0 <- Sigmoid0
I0501 03:36:29.027472 21779 net.cpp:382] pool0 -> pool0
I0501 03:36:29.027679 21779 net.cpp:124] Setting up pool0
I0501 03:36:29.027691 21779 net.cpp:131] Top shape: 1000 8 16 16 (2048000)
I0501 03:36:29.027696 21779 net.cpp:139] Memory required for data: 86028000
I0501 03:36:29.027703 21779 layer_factory.hpp:77] Creating layer ip1
I0501 03:36:29.027714 21779 net.cpp:86] Creating Layer ip1
I0501 03:36:29.027721 21779 net.cpp:408] ip1 <- pool0
I0501 03:36:29.027731 21779 net.cpp:382] ip1 -> ip1
I0501 03:36:29.028473 21779 net.cpp:124] Setting up ip1
I0501 03:36:29.028486 21779 net.cpp:131] Top shape: 1000 10 (10000)
I0501 03:36:29.028492 21779 net.cpp:139] Memory required for data: 86068000
I0501 03:36:29.028528 21779 layer_factory.hpp:77] Creating layer relu1
I0501 03:36:29.028540 21779 net.cpp:86] Creating Layer relu1
I0501 03:36:29.028548 21779 net.cpp:408] relu1 <- ip1
I0501 03:36:29.028554 21779 net.cpp:369] relu1 -> ip1 (in-place)
I0501 03:36:29.028760 21779 net.cpp:124] Setting up relu1
I0501 03:36:29.028774 21779 net.cpp:131] Top shape: 1000 10 (10000)
I0501 03:36:29.028780 21779 net.cpp:139] Memory required for data: 86108000
I0501 03:36:29.028786 21779 layer_factory.hpp:77] Creating layer ip2
I0501 03:36:29.028798 21779 net.cpp:86] Creating Layer ip2
I0501 03:36:29.028805 21779 net.cpp:408] ip2 <- ip1
I0501 03:36:29.028822 21779 net.cpp:382] ip2 -> ip2
I0501 03:36:29.028986 21779 net.cpp:124] Setting up ip2
I0501 03:36:29.028997 21779 net.cpp:131] Top shape: 1000 80 (80000)
I0501 03:36:29.029002 21779 net.cpp:139] Memory required for data: 86428000
I0501 03:36:29.029016 21779 layer_factory.hpp:77] Creating layer relu2
I0501 03:36:29.029027 21779 net.cpp:86] Creating Layer relu2
I0501 03:36:29.029034 21779 net.cpp:408] relu2 <- ip2
I0501 03:36:29.029044 21779 net.cpp:369] relu2 -> ip2 (in-place)
I0501 03:36:29.029898 21779 net.cpp:124] Setting up relu2
I0501 03:36:29.029914 21779 net.cpp:131] Top shape: 1000 80 (80000)
I0501 03:36:29.029920 21779 net.cpp:139] Memory required for data: 86748000
I0501 03:36:29.029927 21779 layer_factory.hpp:77] Creating layer ip3
I0501 03:36:29.029938 21779 net.cpp:86] Creating Layer ip3
I0501 03:36:29.029944 21779 net.cpp:408] ip3 <- ip2
I0501 03:36:29.029956 21779 net.cpp:382] ip3 -> ip3
I0501 03:36:29.030472 21779 net.cpp:124] Setting up ip3
I0501 03:36:29.030483 21779 net.cpp:131] Top shape: 1000 160 (160000)
I0501 03:36:29.030488 21779 net.cpp:139] Memory required for data: 87388000
I0501 03:36:29.030499 21779 layer_factory.hpp:77] Creating layer relu3
I0501 03:36:29.030508 21779 net.cpp:86] Creating Layer relu3
I0501 03:36:29.030514 21779 net.cpp:408] relu3 <- ip3
I0501 03:36:29.030524 21779 net.cpp:369] relu3 -> ip3 (in-place)
I0501 03:36:29.030709 21779 net.cpp:124] Setting up relu3
I0501 03:36:29.030721 21779 net.cpp:131] Top shape: 1000 160 (160000)
I0501 03:36:29.030727 21779 net.cpp:139] Memory required for data: 88028000
I0501 03:36:29.030733 21779 layer_factory.hpp:77] Creating layer ip4
I0501 03:36:29.030743 21779 net.cpp:86] Creating Layer ip4
I0501 03:36:29.030750 21779 net.cpp:408] ip4 <- ip3
I0501 03:36:29.030760 21779 net.cpp:382] ip4 -> ip4
I0501 03:36:29.030931 21779 net.cpp:124] Setting up ip4
I0501 03:36:29.030941 21779 net.cpp:131] Top shape: 1000 10 (10000)
I0501 03:36:29.030946 21779 net.cpp:139] Memory required for data: 88068000
I0501 03:36:29.030961 21779 layer_factory.hpp:77] Creating layer ip4_ip4_0_split
I0501 03:36:29.030969 21779 net.cpp:86] Creating Layer ip4_ip4_0_split
I0501 03:36:29.030975 21779 net.cpp:408] ip4_ip4_0_split <- ip4
I0501 03:36:29.030983 21779 net.cpp:382] ip4_ip4_0_split -> ip4_ip4_0_split_0
I0501 03:36:29.030995 21779 net.cpp:382] ip4_ip4_0_split -> ip4_ip4_0_split_1
I0501 03:36:29.031039 21779 net.cpp:124] Setting up ip4_ip4_0_split
I0501 03:36:29.031049 21779 net.cpp:131] Top shape: 1000 10 (10000)
I0501 03:36:29.031055 21779 net.cpp:131] Top shape: 1000 10 (10000)
I0501 03:36:29.031060 21779 net.cpp:139] Memory required for data: 88148000
I0501 03:36:29.031066 21779 layer_factory.hpp:77] Creating layer accuracy
I0501 03:36:29.031077 21779 net.cpp:86] Creating Layer accuracy
I0501 03:36:29.031083 21779 net.cpp:408] accuracy <- ip4_ip4_0_split_0
I0501 03:36:29.031091 21779 net.cpp:408] accuracy <- label_cifar_1_split_0
I0501 03:36:29.031100 21779 net.cpp:382] accuracy -> accuracy
…
