…
I0501 08:47:52.567313 12014 net.cpp:296] The NetState phase (0) differed from the phase (1) specified by a rule in layer cifar
I0501 08:47:52.567327 12014 net.cpp:296] The NetState phase (0) differed from the phase (1) specified by a rule in layer accuracy
I0501 08:47:52.567421 12014 net.cpp:53] Initializing net from parameters: 
name: "CIFAR"
state {
  phase: TRAIN
  level: 0
  stage: ""
}
layer {
  name: "cifar"
  type: "Data"
  top: "data"
  top: "label"
  include {
    phase: TRAIN
  }
  transform_param {
    mean_file: "examples/cifar10/mean.binaryproto"
  }
  data_param {
    source: "examples/cifar10/cifar10_train_lmdb"
    batch_size: 111
    backend: LMDB
  }
}
layer {
  name: "conv0"
  type: "Convolution"
  bottom: "data"
  top: "conv0"
  param {
    lr_mult: 1
  }
  param {
    lr_mult: 2
  }
  convolution_param {
    num_output: 16
    pad: 2
    kernel_size: 3
    stride: 1
    weight_filler {
      type: "gaussian"
      std: 0.01
    }
    bias_filler {
      type: "constant"
    }
  }
}
layer {
  name: "Sigmoid0"
  type: "Sigmoid"
  bottom: "conv0"
  top: "Sigmoid0"
}
layer {
  name: "pool0"
  type: "Pooling"
  bottom: "Sigmoid0"
  top: "pool0"
  pooling_param {
    pool: AVE
    kernel_size: 3
    stride: 2
  }
}
layer {
  name: "ip1"
  type: "InnerProduct"
  bottom: "pool0"
  top: "ip1"
  param {
    lr_mult: 1
  }
  param {
    lr_mult: 2
  }
  inner_product_param {
    num_output: 20
    weight_filler {
      type: "gaussian"
      std: 0.01
    }
    bias_filler {
      type: "constant"
    }
  }
}
layer {
  name: "relu1"
  type: "ReLU"
  bottom: "ip1"
  top: "ip1"
}
layer {
  name: "ip2"
  type: "InnerProduct"
  bottom: "ip1"
  top: "ip2"
  param {
    lr_mult: 1
  }
  param {
    lr_mult: 2
  }
  inner_product_param {
    num_output: 10
    weight_filler {
      type: "gaussian"
      std: 0.01
    }
    bias_filler {
      type: "constant"
    }
  }
}
layer {
  name: "relu2"
  type: "ReLU"
  bottom: "ip2"
  top: "ip2"
}
layer {
  name: "ip3"
  type: "InnerProduct"
  bottom: "ip2"
  top: "ip3"
  param {
    lr_mult: 1
  }
  param {
    lr_mult: 2
  }
  inner_product_param {
    num_output: 20
    weight_filler {
      type: "gaussian"
      std: 0.01
    }
    bias_filler {
      type: "constant"
    }
  }
}
layer {
  name: "relu3"
  type: "ReLU"
  bottom: "ip3"
  top: "ip3"
}
layer {
  name: "ip4"
  type: "InnerProduct"
  bottom: "ip3"
  top: "ip4"
  param {
    lr_mult: 1
  }
  param {
    lr_mult: 2
  }
  inner_product_param {
    num_output: 10
    weight_filler {
      type: "gaussian"
      std: 0.01
    }
    bias_filler {
      type: "constant"
    }
  }
}
layer {
  name: "loss"
  type: "SoftmaxWithLoss"
  bottom: "ip4"
  bottom: "label"
  top: "loss"
}
I0501 08:47:52.567490 12014 layer_factory.hpp:77] Creating layer cifar
I0501 08:47:52.567570 12014 db_lmdb.cpp:35] Opened lmdb examples/cifar10/cifar10_train_lmdb
I0501 08:47:52.567591 12014 net.cpp:86] Creating Layer cifar
I0501 08:47:52.567600 12014 net.cpp:382] cifar -> data
I0501 08:47:52.567617 12014 net.cpp:382] cifar -> label
I0501 08:47:52.567626 12014 data_transformer.cpp:25] Loading mean file from: examples/cifar10/mean.binaryproto
I0501 08:47:52.569452 12014 data_layer.cpp:45] output data size: 111,3,32,32
I0501 08:47:52.575798 12014 net.cpp:124] Setting up cifar
I0501 08:47:52.575829 12014 net.cpp:131] Top shape: 111 3 32 32 (340992)
I0501 08:47:52.575861 12014 net.cpp:131] Top shape: 111 (111)
I0501 08:47:52.575865 12014 net.cpp:139] Memory required for data: 1364412
I0501 08:47:52.575882 12014 layer_factory.hpp:77] Creating layer conv0
I0501 08:47:52.575898 12014 net.cpp:86] Creating Layer conv0
I0501 08:47:52.575908 12014 net.cpp:408] conv0 <- data
I0501 08:47:52.575919 12014 net.cpp:382] conv0 -> conv0
I0501 08:47:52.803733 12014 net.cpp:124] Setting up conv0
I0501 08:47:52.803759 12014 net.cpp:131] Top shape: 111 16 34 34 (2053056)
I0501 08:47:52.803763 12014 net.cpp:139] Memory required for data: 9576636
I0501 08:47:52.803793 12014 layer_factory.hpp:77] Creating layer Sigmoid0
I0501 08:47:52.803804 12014 net.cpp:86] Creating Layer Sigmoid0
I0501 08:47:52.803809 12014 net.cpp:408] Sigmoid0 <- conv0
I0501 08:47:52.803814 12014 net.cpp:382] Sigmoid0 -> Sigmoid0
I0501 08:47:52.803985 12014 net.cpp:124] Setting up Sigmoid0
I0501 08:47:52.803993 12014 net.cpp:131] Top shape: 111 16 34 34 (2053056)
I0501 08:47:52.803997 12014 net.cpp:139] Memory required for data: 17788860
I0501 08:47:52.803999 12014 layer_factory.hpp:77] Creating layer pool0
I0501 08:47:52.804006 12014 net.cpp:86] Creating Layer pool0
I0501 08:47:52.804009 12014 net.cpp:408] pool0 <- Sigmoid0
I0501 08:47:52.804014 12014 net.cpp:382] pool0 -> pool0
I0501 08:47:52.804769 12014 net.cpp:124] Setting up pool0
I0501 08:47:52.804782 12014 net.cpp:131] Top shape: 111 16 17 17 (513264)
I0501 08:47:52.804785 12014 net.cpp:139] Memory required for data: 19841916
I0501 08:47:52.804806 12014 layer_factory.hpp:77] Creating layer ip1
I0501 08:47:52.804836 12014 net.cpp:86] Creating Layer ip1
I0501 08:47:52.804839 12014 net.cpp:408] ip1 <- pool0
I0501 08:47:52.804844 12014 net.cpp:382] ip1 -> ip1
I0501 08:47:52.807488 12014 net.cpp:124] Setting up ip1
I0501 08:47:52.807497 12014 net.cpp:131] Top shape: 111 20 (2220)
I0501 08:47:52.807500 12014 net.cpp:139] Memory required for data: 19850796
I0501 08:47:52.807523 12014 layer_factory.hpp:77] Creating layer relu1
I0501 08:47:52.807530 12014 net.cpp:86] Creating Layer relu1
I0501 08:47:52.807533 12014 net.cpp:408] relu1 <- ip1
I0501 08:47:52.807538 12014 net.cpp:369] relu1 -> ip1 (in-place)
I0501 08:47:52.807703 12014 net.cpp:124] Setting up relu1
I0501 08:47:52.807710 12014 net.cpp:131] Top shape: 111 20 (2220)
I0501 08:47:52.807713 12014 net.cpp:139] Memory required for data: 19859676
I0501 08:47:52.807716 12014 layer_factory.hpp:77] Creating layer ip2
I0501 08:47:52.807723 12014 net.cpp:86] Creating Layer ip2
I0501 08:47:52.807725 12014 net.cpp:408] ip2 <- ip1
I0501 08:47:52.807730 12014 net.cpp:382] ip2 -> ip2
I0501 08:47:52.807822 12014 net.cpp:124] Setting up ip2
I0501 08:47:52.807828 12014 net.cpp:131] Top shape: 111 10 (1110)
I0501 08:47:52.807832 12014 net.cpp:139] Memory required for data: 19864116
I0501 08:47:52.807838 12014 layer_factory.hpp:77] Creating layer relu2
I0501 08:47:52.807842 12014 net.cpp:86] Creating Layer relu2
I0501 08:47:52.807845 12014 net.cpp:408] relu2 <- ip2
I0501 08:47:52.807849 12014 net.cpp:369] relu2 -> ip2 (in-place)
I0501 08:47:52.807992 12014 net.cpp:124] Setting up relu2
I0501 08:47:52.807999 12014 net.cpp:131] Top shape: 111 10 (1110)
I0501 08:47:52.808002 12014 net.cpp:139] Memory required for data: 19868556
I0501 08:47:52.808006 12014 layer_factory.hpp:77] Creating layer ip3
I0501 08:47:52.808012 12014 net.cpp:86] Creating Layer ip3
I0501 08:47:52.808015 12014 net.cpp:408] ip3 <- ip2
I0501 08:47:52.808019 12014 net.cpp:382] ip3 -> ip3
I0501 08:47:52.808109 12014 net.cpp:124] Setting up ip3
I0501 08:47:52.808115 12014 net.cpp:131] Top shape: 111 20 (2220)
I0501 08:47:52.808117 12014 net.cpp:139] Memory required for data: 19877436
I0501 08:47:52.808122 12014 layer_factory.hpp:77] Creating layer relu3
I0501 08:47:52.808126 12014 net.cpp:86] Creating Layer relu3
I0501 08:47:52.808130 12014 net.cpp:408] relu3 <- ip3
I0501 08:47:52.808133 12014 net.cpp:369] relu3 -> ip3 (in-place)
I0501 08:47:52.808269 12014 net.cpp:124] Setting up relu3
I0501 08:47:52.808276 12014 net.cpp:131] Top shape: 111 20 (2220)
I0501 08:47:52.808279 12014 net.cpp:139] Memory required for data: 19886316
I0501 08:47:52.808282 12014 layer_factory.hpp:77] Creating layer ip4
I0501 08:47:52.808301 12014 net.cpp:86] Creating Layer ip4
I0501 08:47:52.808305 12014 net.cpp:408] ip4 <- ip3
I0501 08:47:52.808310 12014 net.cpp:382] ip4 -> ip4
I0501 08:47:52.808400 12014 net.cpp:124] Setting up ip4
I0501 08:47:52.808408 12014 net.cpp:131] Top shape: 111 10 (1110)
I0501 08:47:52.808409 12014 net.cpp:139] Memory required for data: 19890756
I0501 08:47:52.808418 12014 layer_factory.hpp:77] Creating layer loss
I0501 08:47:52.808423 12014 net.cpp:86] Creating Layer loss
I0501 08:47:52.808425 12014 net.cpp:408] loss <- ip4
I0501 08:47:52.808429 12014 net.cpp:408] loss <- label
I0501 08:47:52.808449 12014 net.cpp:382] loss -> loss
I0501 08:47:52.808462 12014 layer_factory.hpp:77] Creating layer loss
…
I0501 08:47:52.809701 12014 solver.cpp:173] Creating test net (#0) specified by net file: ECE595/cifar/train_test/var_everything/cifar_train_test_521.prototxt
I0501 08:47:52.809744 12014 net.cpp:296] The NetState phase (1) differed from the phase (0) specified by a rule in layer cifar
I0501 08:47:52.809852 12014 net.cpp:53] Initializing net from parameters: 
name: "CIFAR"
state {
  phase: TEST
}
layer {
  name: "cifar"
  type: "Data"
  top: "data"
  top: "label"
  include {
    phase: TEST
  }
  transform_param {
    mean_file: "examples/cifar10/mean.binaryproto"
  }
  data_param {
    source: "examples/cifar10/cifar10_test_lmdb"
    batch_size: 1000
    backend: LMDB
  }
}
layer {
  name: "conv0"
  type: "Convolution"
  bottom: "data"
  top: "conv0"
  param {
    lr_mult: 1
  }
  param {
    lr_mult: 2
  }
  convolution_param {
    num_output: 16
    pad: 2
    kernel_size: 3
    stride: 1
    weight_filler {
      type: "gaussian"
      std: 0.01
    }
    bias_filler {
      type: "constant"
    }
  }
}
layer {
  name: "Sigmoid0"
  type: "Sigmoid"
  bottom: "conv0"
  top: "Sigmoid0"
}
layer {
  name: "pool0"
  type: "Pooling"
  bottom: "Sigmoid0"
  top: "pool0"
  pooling_param {
    pool: AVE
    kernel_size: 3
    stride: 2
  }
}
layer {
  name: "ip1"
  type: "InnerProduct"
  bottom: "pool0"
  top: "ip1"
  param {
    lr_mult: 1
  }
  param {
    lr_mult: 2
  }
  inner_product_param {
    num_output: 20
    weight_filler {
      type: "gaussian"
      std: 0.01
    }
    bias_filler {
      type: "constant"
    }
  }
}
layer {
  name: "relu1"
  type: "ReLU"
  bottom: "ip1"
  top: "ip1"
}
layer {
  name: "ip2"
  type: "InnerProduct"
  bottom: "ip1"
  top: "ip2"
  param {
    lr_mult: 1
  }
  param {
    lr_mult: 2
  }
  inner_product_param {
    num_output: 10
    weight_filler {
      type: "gaussian"
      std: 0.01
    }
    bias_filler {
      type: "constant"
    }
  }
}
layer {
  name: "relu2"
  type: "ReLU"
  bottom: "ip2"
  top: "ip2"
}
layer {
  name: "ip3"
  type: "InnerProduct"
  bottom: "ip2"
  top: "ip3"
  param {
    lr_mult: 1
  }
  param {
    lr_mult: 2
  }
  inner_product_param {
    num_output: 20
    weight_filler {
      type: "gaussian"
      std: 0.01
    }
    bias_filler {
      type: "constant"
    }
  }
}
layer {
  name: "relu3"
  type: "ReLU"
  bottom: "ip3"
  top: "ip3"
}
layer {
  name: "ip4"
  type: "InnerProduct"
  bottom: "ip3"
  top: "ip4"
  param {
    lr_mult: 1
  }
  param {
    lr_mult: 2
  }
  inner_product_param {
    num_output: 10
    weight_filler {
      type: "gaussian"
      std: 0.01
    }
    bias_filler {
      type: "constant"
    }
  }
}
layer {
  name: "accuracy"
  type: "Accuracy"
  bottom: "ip4"
  bottom: "label"
  top: "accuracy"
  include {
    phase: TEST
  }
}
layer {
  name: "loss"
  type: "SoftmaxWithLoss"
  bottom: "ip4"
  bottom: "label"
  top: "loss"
}
I0501 08:47:52.809931 12014 layer_factory.hpp:77] Creating layer cifar
I0501 08:47:52.809974 12014 db_lmdb.cpp:35] Opened lmdb examples/cifar10/cifar10_test_lmdb
I0501 08:47:52.809986 12014 net.cpp:86] Creating Layer cifar
I0501 08:47:52.809991 12014 net.cpp:382] cifar -> data
I0501 08:47:52.809999 12014 net.cpp:382] cifar -> label
I0501 08:47:52.810020 12014 data_transformer.cpp:25] Loading mean file from: examples/cifar10/mean.binaryproto
I0501 08:47:52.810154 12014 data_layer.cpp:45] output data size: 1000,3,32,32
I0501 08:47:52.832712 12014 net.cpp:124] Setting up cifar
I0501 08:47:52.832754 12014 net.cpp:131] Top shape: 1000 3 32 32 (3072000)
I0501 08:47:52.832762 12014 net.cpp:131] Top shape: 1000 (1000)
I0501 08:47:52.832764 12014 net.cpp:139] Memory required for data: 12292000
I0501 08:47:52.832770 12014 layer_factory.hpp:77] Creating layer label_cifar_1_split
I0501 08:47:52.832782 12014 net.cpp:86] Creating Layer label_cifar_1_split
I0501 08:47:52.832787 12014 net.cpp:408] label_cifar_1_split <- label
I0501 08:47:52.832792 12014 net.cpp:382] label_cifar_1_split -> label_cifar_1_split_0
I0501 08:47:52.832823 12014 net.cpp:382] label_cifar_1_split -> label_cifar_1_split_1
I0501 08:47:52.832916 12014 net.cpp:124] Setting up label_cifar_1_split
I0501 08:47:52.832932 12014 net.cpp:131] Top shape: 1000 (1000)
I0501 08:47:52.832937 12014 net.cpp:131] Top shape: 1000 (1000)
I0501 08:47:52.832939 12014 net.cpp:139] Memory required for data: 12300000
I0501 08:47:52.832943 12014 layer_factory.hpp:77] Creating layer conv0
I0501 08:47:52.832957 12014 net.cpp:86] Creating Layer conv0
I0501 08:47:52.832959 12014 net.cpp:408] conv0 <- data
I0501 08:47:52.832965 12014 net.cpp:382] conv0 -> conv0
I0501 08:47:52.835460 12014 net.cpp:124] Setting up conv0
I0501 08:47:52.835489 12014 net.cpp:131] Top shape: 1000 16 34 34 (18496000)
I0501 08:47:52.835494 12014 net.cpp:139] Memory required for data: 86284000
I0501 08:47:52.835503 12014 layer_factory.hpp:77] Creating layer Sigmoid0
I0501 08:47:52.835510 12014 net.cpp:86] Creating Layer Sigmoid0
I0501 08:47:52.835512 12014 net.cpp:408] Sigmoid0 <- conv0
I0501 08:47:52.835517 12014 net.cpp:382] Sigmoid0 -> Sigmoid0
I0501 08:47:52.835733 12014 net.cpp:124] Setting up Sigmoid0
I0501 08:47:52.835742 12014 net.cpp:131] Top shape: 1000 16 34 34 (18496000)
I0501 08:47:52.835747 12014 net.cpp:139] Memory required for data: 160268000
I0501 08:47:52.835749 12014 layer_factory.hpp:77] Creating layer pool0
I0501 08:47:52.835757 12014 net.cpp:86] Creating Layer pool0
I0501 08:47:52.835762 12014 net.cpp:408] pool0 <- Sigmoid0
I0501 08:47:52.835767 12014 net.cpp:382] pool0 -> pool0
I0501 08:47:52.835969 12014 net.cpp:124] Setting up pool0
I0501 08:47:52.835978 12014 net.cpp:131] Top shape: 1000 16 17 17 (4624000)
I0501 08:47:52.835981 12014 net.cpp:139] Memory required for data: 178764000
I0501 08:47:52.835984 12014 layer_factory.hpp:77] Creating layer ip1
I0501 08:47:52.835993 12014 net.cpp:86] Creating Layer ip1
I0501 08:47:52.835995 12014 net.cpp:408] ip1 <- pool0
I0501 08:47:52.836000 12014 net.cpp:382] ip1 -> ip1
I0501 08:47:52.838620 12014 net.cpp:124] Setting up ip1
I0501 08:47:52.838629 12014 net.cpp:131] Top shape: 1000 20 (20000)
I0501 08:47:52.838646 12014 net.cpp:139] Memory required for data: 178844000
I0501 08:47:52.838667 12014 layer_factory.hpp:77] Creating layer relu1
I0501 08:47:52.838673 12014 net.cpp:86] Creating Layer relu1
I0501 08:47:52.838677 12014 net.cpp:408] relu1 <- ip1
I0501 08:47:52.838681 12014 net.cpp:369] relu1 -> ip1 (in-place)
I0501 08:47:52.838855 12014 net.cpp:124] Setting up relu1
I0501 08:47:52.838863 12014 net.cpp:131] Top shape: 1000 20 (20000)
I0501 08:47:52.838867 12014 net.cpp:139] Memory required for data: 178924000
I0501 08:47:52.838871 12014 layer_factory.hpp:77] Creating layer ip2
I0501 08:47:52.838876 12014 net.cpp:86] Creating Layer ip2
I0501 08:47:52.838881 12014 net.cpp:408] ip2 <- ip1
I0501 08:47:52.838886 12014 net.cpp:382] ip2 -> ip2
I0501 08:47:52.838994 12014 net.cpp:124] Setting up ip2
I0501 08:47:52.839000 12014 net.cpp:131] Top shape: 1000 10 (10000)
I0501 08:47:52.839004 12014 net.cpp:139] Memory required for data: 178964000
I0501 08:47:52.839011 12014 layer_factory.hpp:77] Creating layer relu2
I0501 08:47:52.839017 12014 net.cpp:86] Creating Layer relu2
I0501 08:47:52.839020 12014 net.cpp:408] relu2 <- ip2
I0501 08:47:52.839025 12014 net.cpp:369] relu2 -> ip2 (in-place)
I0501 08:47:52.839805 12014 net.cpp:124] Setting up relu2
I0501 08:47:52.839818 12014 net.cpp:131] Top shape: 1000 10 (10000)
I0501 08:47:52.839838 12014 net.cpp:139] Memory required for data: 179004000
I0501 08:47:52.839841 12014 layer_factory.hpp:77] Creating layer ip3
I0501 08:47:52.839848 12014 net.cpp:86] Creating Layer ip3
I0501 08:47:52.839851 12014 net.cpp:408] ip3 <- ip2
I0501 08:47:52.839859 12014 net.cpp:382] ip3 -> ip3
I0501 08:47:52.839979 12014 net.cpp:124] Setting up ip3
I0501 08:47:52.839987 12014 net.cpp:131] Top shape: 1000 20 (20000)
I0501 08:47:52.839990 12014 net.cpp:139] Memory required for data: 179084000
I0501 08:47:52.839996 12014 layer_factory.hpp:77] Creating layer relu3
I0501 08:47:52.840001 12014 net.cpp:86] Creating Layer relu3
I0501 08:47:52.840004 12014 net.cpp:408] relu3 <- ip3
I0501 08:47:52.840008 12014 net.cpp:369] relu3 -> ip3 (in-place)
I0501 08:47:52.840157 12014 net.cpp:124] Setting up relu3
I0501 08:47:52.840165 12014 net.cpp:131] Top shape: 1000 20 (20000)
I0501 08:47:52.840168 12014 net.cpp:139] Memory required for data: 179164000
I0501 08:47:52.840171 12014 layer_factory.hpp:77] Creating layer ip4
I0501 08:47:52.840178 12014 net.cpp:86] Creating Layer ip4
I0501 08:47:52.840196 12014 net.cpp:408] ip4 <- ip3
I0501 08:47:52.840203 12014 net.cpp:382] ip4 -> ip4
I0501 08:47:52.840306 12014 net.cpp:124] Setting up ip4
I0501 08:47:52.840313 12014 net.cpp:131] Top shape: 1000 10 (10000)
I0501 08:47:52.840317 12014 net.cpp:139] Memory required for data: 179204000
I0501 08:47:52.840325 12014 layer_factory.hpp:77] Creating layer ip4_ip4_0_split
I0501 08:47:52.840330 12014 net.cpp:86] Creating Layer ip4_ip4_0_split
I0501 08:47:52.840333 12014 net.cpp:408] ip4_ip4_0_split <- ip4
I0501 08:47:52.840337 12014 net.cpp:382] ip4_ip4_0_split -> ip4_ip4_0_split_0
I0501 08:47:52.840343 12014 net.cpp:382] ip4_ip4_0_split -> ip4_ip4_0_split_1
I0501 08:47:52.840373 12014 net.cpp:124] Setting up ip4_ip4_0_split
I0501 08:47:52.840379 12014 net.cpp:131] Top shape: 1000 10 (10000)
I0501 08:47:52.840382 12014 net.cpp:131] Top shape: 1000 10 (10000)
I0501 08:47:52.840385 12014 net.cpp:139] Memory required for data: 179284000
I0501 08:47:52.840389 12014 layer_factory.hpp:77] Creating layer accuracy
I0501 08:47:52.840394 12014 net.cpp:86] Creating Layer accuracy
I0501 08:47:52.840397 12014 net.cpp:408] accuracy <- ip4_ip4_0_split_0
I0501 08:47:52.840401 12014 net.cpp:408] accuracy <- label_cifar_1_split_0
I0501 08:47:52.840406 12014 net.cpp:382] accuracy -> accuracy
…
