…
I0501 09:04:40.166798 12994 net.cpp:296] The NetState phase (0) differed from the phase (1) specified by a rule in layer cifar
I0501 09:04:40.166816 12994 net.cpp:296] The NetState phase (0) differed from the phase (1) specified by a rule in layer accuracy
I0501 09:04:40.166915 12994 net.cpp:53] Initializing net from parameters: 
name: "CIFAR"
state {
  phase: TRAIN
  level: 0
  stage: ""
}
layer {
  name: "cifar"
  type: "Data"
  top: "data"
  top: "label"
  include {
    phase: TRAIN
  }
  transform_param {
    mean_file: "examples/cifar10/mean.binaryproto"
  }
  data_param {
    source: "examples/cifar10/cifar10_train_lmdb"
    batch_size: 111
    backend: LMDB
  }
}
layer {
  name: "conv0"
  type: "Convolution"
  bottom: "data"
  top: "conv0"
  param {
    lr_mult: 1
  }
  param {
    lr_mult: 2
  }
  convolution_param {
    num_output: 16
    pad: 2
    kernel_size: 3
    stride: 1
    weight_filler {
      type: "gaussian"
      std: 0.01
    }
    bias_filler {
      type: "constant"
    }
  }
}
layer {
  name: "Sigmoid0"
  type: "Sigmoid"
  bottom: "conv0"
  top: "Sigmoid0"
}
layer {
  name: "pool0"
  type: "Pooling"
  bottom: "Sigmoid0"
  top: "pool0"
  pooling_param {
    pool: AVE
    kernel_size: 3
    stride: 2
  }
}
layer {
  name: "ip1"
  type: "InnerProduct"
  bottom: "pool0"
  top: "ip1"
  param {
    lr_mult: 1
  }
  param {
    lr_mult: 2
  }
  inner_product_param {
    num_output: 20
    weight_filler {
      type: "gaussian"
      std: 0.01
    }
    bias_filler {
      type: "constant"
    }
  }
}
layer {
  name: "relu1"
  type: "ReLU"
  bottom: "ip1"
  top: "ip1"
}
layer {
  name: "ip2"
  type: "InnerProduct"
  bottom: "ip1"
  top: "ip2"
  param {
    lr_mult: 1
  }
  param {
    lr_mult: 2
  }
  inner_product_param {
    num_output: 20
    weight_filler {
      type: "gaussian"
      std: 0.01
    }
    bias_filler {
      type: "constant"
    }
  }
}
layer {
  name: "relu2"
  type: "ReLU"
  bottom: "ip2"
  top: "ip2"
}
layer {
  name: "ip3"
  type: "InnerProduct"
  bottom: "ip2"
  top: "ip3"
  param {
    lr_mult: 1
  }
  param {
    lr_mult: 2
  }
  inner_product_param {
    num_output: 160
    weight_filler {
      type: "gaussian"
      std: 0.01
    }
    bias_filler {
      type: "constant"
    }
  }
}
layer {
  name: "relu3"
  type: "ReLU"
  bottom: "ip3"
  top: "ip3"
}
layer {
  name: "ip4"
  type: "InnerProduct"
  bottom: "ip3"
  top: "ip4"
  param {
    lr_mult: 1
  }
  param {
    lr_mult: 2
  }
  inner_product_param {
    num_output: 10
    weight_filler {
      type: "gaussian"
      std: 0.01
    }
    bias_filler {
      type: "constant"
    }
  }
}
layer {
  name: "loss"
  type: "SoftmaxWithLoss"
  bottom: "ip4"
  bottom: "label"
  top: "loss"
}
I0501 09:04:40.166988 12994 layer_factory.hpp:77] Creating layer cifar
I0501 09:04:40.167086 12994 db_lmdb.cpp:35] Opened lmdb examples/cifar10/cifar10_train_lmdb
I0501 09:04:40.167114 12994 net.cpp:86] Creating Layer cifar
I0501 09:04:40.167121 12994 net.cpp:382] cifar -> data
I0501 09:04:40.167145 12994 net.cpp:382] cifar -> label
I0501 09:04:40.167157 12994 data_transformer.cpp:25] Loading mean file from: examples/cifar10/mean.binaryproto
I0501 09:04:40.169328 12994 data_layer.cpp:45] output data size: 111,3,32,32
I0501 09:04:40.177281 12994 net.cpp:124] Setting up cifar
I0501 09:04:40.177299 12994 net.cpp:131] Top shape: 111 3 32 32 (340992)
I0501 09:04:40.177305 12994 net.cpp:131] Top shape: 111 (111)
I0501 09:04:40.177309 12994 net.cpp:139] Memory required for data: 1364412
I0501 09:04:40.177332 12994 layer_factory.hpp:77] Creating layer conv0
I0501 09:04:40.177350 12994 net.cpp:86] Creating Layer conv0
I0501 09:04:40.177355 12994 net.cpp:408] conv0 <- data
I0501 09:04:40.177366 12994 net.cpp:382] conv0 -> conv0
I0501 09:04:40.460876 12994 net.cpp:124] Setting up conv0
I0501 09:04:40.460903 12994 net.cpp:131] Top shape: 111 16 34 34 (2053056)
I0501 09:04:40.460908 12994 net.cpp:139] Memory required for data: 9576636
I0501 09:04:40.460923 12994 layer_factory.hpp:77] Creating layer Sigmoid0
I0501 09:04:40.460934 12994 net.cpp:86] Creating Layer Sigmoid0
I0501 09:04:40.460938 12994 net.cpp:408] Sigmoid0 <- conv0
I0501 09:04:40.460944 12994 net.cpp:382] Sigmoid0 -> Sigmoid0
I0501 09:04:40.461112 12994 net.cpp:124] Setting up Sigmoid0
I0501 09:04:40.461122 12994 net.cpp:131] Top shape: 111 16 34 34 (2053056)
I0501 09:04:40.461125 12994 net.cpp:139] Memory required for data: 17788860
I0501 09:04:40.461128 12994 layer_factory.hpp:77] Creating layer pool0
I0501 09:04:40.461134 12994 net.cpp:86] Creating Layer pool0
I0501 09:04:40.461138 12994 net.cpp:408] pool0 <- Sigmoid0
I0501 09:04:40.461143 12994 net.cpp:382] pool0 -> pool0
I0501 09:04:40.461859 12994 net.cpp:124] Setting up pool0
I0501 09:04:40.461872 12994 net.cpp:131] Top shape: 111 16 17 17 (513264)
I0501 09:04:40.461875 12994 net.cpp:139] Memory required for data: 19841916
I0501 09:04:40.461879 12994 layer_factory.hpp:77] Creating layer ip1
I0501 09:04:40.461889 12994 net.cpp:86] Creating Layer ip1
I0501 09:04:40.461891 12994 net.cpp:408] ip1 <- pool0
I0501 09:04:40.461896 12994 net.cpp:382] ip1 -> ip1
I0501 09:04:40.464397 12994 net.cpp:124] Setting up ip1
I0501 09:04:40.464406 12994 net.cpp:131] Top shape: 111 20 (2220)
I0501 09:04:40.464408 12994 net.cpp:139] Memory required for data: 19850796
I0501 09:04:40.464416 12994 layer_factory.hpp:77] Creating layer relu1
I0501 09:04:40.464421 12994 net.cpp:86] Creating Layer relu1
I0501 09:04:40.464424 12994 net.cpp:408] relu1 <- ip1
I0501 09:04:40.464428 12994 net.cpp:369] relu1 -> ip1 (in-place)
I0501 09:04:40.464582 12994 net.cpp:124] Setting up relu1
I0501 09:04:40.464591 12994 net.cpp:131] Top shape: 111 20 (2220)
I0501 09:04:40.464593 12994 net.cpp:139] Memory required for data: 19859676
I0501 09:04:40.464596 12994 layer_factory.hpp:77] Creating layer ip2
I0501 09:04:40.464602 12994 net.cpp:86] Creating Layer ip2
I0501 09:04:40.464606 12994 net.cpp:408] ip2 <- ip1
I0501 09:04:40.464612 12994 net.cpp:382] ip2 -> ip2
I0501 09:04:40.464717 12994 net.cpp:124] Setting up ip2
I0501 09:04:40.464725 12994 net.cpp:131] Top shape: 111 20 (2220)
I0501 09:04:40.464727 12994 net.cpp:139] Memory required for data: 19868556
I0501 09:04:40.464735 12994 layer_factory.hpp:77] Creating layer relu2
I0501 09:04:40.464740 12994 net.cpp:86] Creating Layer relu2
I0501 09:04:40.464743 12994 net.cpp:408] relu2 <- ip2
I0501 09:04:40.464748 12994 net.cpp:369] relu2 -> ip2 (in-place)
I0501 09:04:40.464926 12994 net.cpp:124] Setting up relu2
I0501 09:04:40.464934 12994 net.cpp:131] Top shape: 111 20 (2220)
I0501 09:04:40.464937 12994 net.cpp:139] Memory required for data: 19877436
I0501 09:04:40.464941 12994 layer_factory.hpp:77] Creating layer ip3
I0501 09:04:40.464948 12994 net.cpp:86] Creating Layer ip3
I0501 09:04:40.464952 12994 net.cpp:408] ip3 <- ip2
I0501 09:04:40.464957 12994 net.cpp:382] ip3 -> ip3
I0501 09:04:40.465152 12994 net.cpp:124] Setting up ip3
I0501 09:04:40.465159 12994 net.cpp:131] Top shape: 111 160 (17760)
I0501 09:04:40.465162 12994 net.cpp:139] Memory required for data: 19948476
I0501 09:04:40.465167 12994 layer_factory.hpp:77] Creating layer relu3
I0501 09:04:40.465173 12994 net.cpp:86] Creating Layer relu3
I0501 09:04:40.465176 12994 net.cpp:408] relu3 <- ip3
I0501 09:04:40.465180 12994 net.cpp:369] relu3 -> ip3 (in-place)
I0501 09:04:40.465335 12994 net.cpp:124] Setting up relu3
I0501 09:04:40.465342 12994 net.cpp:131] Top shape: 111 160 (17760)
I0501 09:04:40.465345 12994 net.cpp:139] Memory required for data: 20019516
I0501 09:04:40.465348 12994 layer_factory.hpp:77] Creating layer ip4
I0501 09:04:40.465368 12994 net.cpp:86] Creating Layer ip4
I0501 09:04:40.465373 12994 net.cpp:408] ip4 <- ip3
I0501 09:04:40.465376 12994 net.cpp:382] ip4 -> ip4
I0501 09:04:40.465505 12994 net.cpp:124] Setting up ip4
I0501 09:04:40.465512 12994 net.cpp:131] Top shape: 111 10 (1110)
I0501 09:04:40.465515 12994 net.cpp:139] Memory required for data: 20023956
I0501 09:04:40.465523 12994 layer_factory.hpp:77] Creating layer loss
I0501 09:04:40.465528 12994 net.cpp:86] Creating Layer loss
I0501 09:04:40.465531 12994 net.cpp:408] loss <- ip4
I0501 09:04:40.465535 12994 net.cpp:408] loss <- label
I0501 09:04:40.465540 12994 net.cpp:382] loss -> loss
I0501 09:04:40.465555 12994 layer_factory.hpp:77] Creating layer loss
…
I0501 09:04:40.466708 12994 solver.cpp:173] Creating test net (#0) specified by net file: ECE595/cifar/train_test/var_everything/cifar_train_test_529.prototxt
I0501 09:04:40.466750 12994 net.cpp:296] The NetState phase (1) differed from the phase (0) specified by a rule in layer cifar
I0501 09:04:40.466846 12994 net.cpp:53] Initializing net from parameters: 
name: "CIFAR"
state {
  phase: TEST
}
layer {
  name: "cifar"
  type: "Data"
  top: "data"
  top: "label"
  include {
    phase: TEST
  }
  transform_param {
    mean_file: "examples/cifar10/mean.binaryproto"
  }
  data_param {
    source: "examples/cifar10/cifar10_test_lmdb"
    batch_size: 1000
    backend: LMDB
  }
}
layer {
  name: "conv0"
  type: "Convolution"
  bottom: "data"
  top: "conv0"
  param {
    lr_mult: 1
  }
  param {
    lr_mult: 2
  }
  convolution_param {
    num_output: 16
    pad: 2
    kernel_size: 3
    stride: 1
    weight_filler {
      type: "gaussian"
      std: 0.01
    }
    bias_filler {
      type: "constant"
    }
  }
}
layer {
  name: "Sigmoid0"
  type: "Sigmoid"
  bottom: "conv0"
  top: "Sigmoid0"
}
layer {
  name: "pool0"
  type: "Pooling"
  bottom: "Sigmoid0"
  top: "pool0"
  pooling_param {
    pool: AVE
    kernel_size: 3
    stride: 2
  }
}
layer {
  name: "ip1"
  type: "InnerProduct"
  bottom: "pool0"
  top: "ip1"
  param {
    lr_mult: 1
  }
  param {
    lr_mult: 2
  }
  inner_product_param {
    num_output: 20
    weight_filler {
      type: "gaussian"
      std: 0.01
    }
    bias_filler {
      type: "constant"
    }
  }
}
layer {
  name: "relu1"
  type: "ReLU"
  bottom: "ip1"
  top: "ip1"
}
layer {
  name: "ip2"
  type: "InnerProduct"
  bottom: "ip1"
  top: "ip2"
  param {
    lr_mult: 1
  }
  param {
    lr_mult: 2
  }
  inner_product_param {
    num_output: 20
    weight_filler {
      type: "gaussian"
      std: 0.01
    }
    bias_filler {
      type: "constant"
    }
  }
}
layer {
  name: "relu2"
  type: "ReLU"
  bottom: "ip2"
  top: "ip2"
}
layer {
  name: "ip3"
  type: "InnerProduct"
  bottom: "ip2"
  top: "ip3"
  param {
    lr_mult: 1
  }
  param {
    lr_mult: 2
  }
  inner_product_param {
    num_output: 160
    weight_filler {
      type: "gaussian"
      std: 0.01
    }
    bias_filler {
      type: "constant"
    }
  }
}
layer {
  name: "relu3"
  type: "ReLU"
  bottom: "ip3"
  top: "ip3"
}
layer {
  name: "ip4"
  type: "InnerProduct"
  bottom: "ip3"
  top: "ip4"
  param {
    lr_mult: 1
  }
  param {
    lr_mult: 2
  }
  inner_product_param {
    num_output: 10
    weight_filler {
      type: "gaussian"
      std: 0.01
    }
    bias_filler {
      type: "constant"
    }
  }
}
layer {
  name: "accuracy"
  type: "Accuracy"
  bottom: "ip4"
  bottom: "label"
  top: "accuracy"
  include {
    phase: TEST
  }
}
layer {
  name: "loss"
  type: "SoftmaxWithLoss"
  bottom: "ip4"
  bottom: "label"
  top: "loss"
}
I0501 09:04:40.466927 12994 layer_factory.hpp:77] Creating layer cifar
I0501 09:04:40.466971 12994 db_lmdb.cpp:35] Opened lmdb examples/cifar10/cifar10_test_lmdb
I0501 09:04:40.467013 12994 net.cpp:86] Creating Layer cifar
I0501 09:04:40.467020 12994 net.cpp:382] cifar -> data
I0501 09:04:40.467027 12994 net.cpp:382] cifar -> label
I0501 09:04:40.467034 12994 data_transformer.cpp:25] Loading mean file from: examples/cifar10/mean.binaryproto
I0501 09:04:40.467197 12994 data_layer.cpp:45] output data size: 1000,3,32,32
I0501 09:04:40.488651 12994 net.cpp:124] Setting up cifar
I0501 09:04:40.488677 12994 net.cpp:131] Top shape: 1000 3 32 32 (3072000)
I0501 09:04:40.488683 12994 net.cpp:131] Top shape: 1000 (1000)
I0501 09:04:40.488687 12994 net.cpp:139] Memory required for data: 12292000
I0501 09:04:40.488692 12994 layer_factory.hpp:77] Creating layer label_cifar_1_split
I0501 09:04:40.488731 12994 net.cpp:86] Creating Layer label_cifar_1_split
I0501 09:04:40.488736 12994 net.cpp:408] label_cifar_1_split <- label
I0501 09:04:40.488741 12994 net.cpp:382] label_cifar_1_split -> label_cifar_1_split_0
I0501 09:04:40.488750 12994 net.cpp:382] label_cifar_1_split -> label_cifar_1_split_1
I0501 09:04:40.488925 12994 net.cpp:124] Setting up label_cifar_1_split
I0501 09:04:40.488934 12994 net.cpp:131] Top shape: 1000 (1000)
I0501 09:04:40.488939 12994 net.cpp:131] Top shape: 1000 (1000)
I0501 09:04:40.488941 12994 net.cpp:139] Memory required for data: 12300000
I0501 09:04:40.488946 12994 layer_factory.hpp:77] Creating layer conv0
I0501 09:04:40.488960 12994 net.cpp:86] Creating Layer conv0
I0501 09:04:40.488965 12994 net.cpp:408] conv0 <- data
I0501 09:04:40.488972 12994 net.cpp:382] conv0 -> conv0
I0501 09:04:40.490588 12994 net.cpp:124] Setting up conv0
I0501 09:04:40.490602 12994 net.cpp:131] Top shape: 1000 16 34 34 (18496000)
I0501 09:04:40.490620 12994 net.cpp:139] Memory required for data: 86284000
I0501 09:04:40.490629 12994 layer_factory.hpp:77] Creating layer Sigmoid0
I0501 09:04:40.490636 12994 net.cpp:86] Creating Layer Sigmoid0
I0501 09:04:40.490640 12994 net.cpp:408] Sigmoid0 <- conv0
I0501 09:04:40.490644 12994 net.cpp:382] Sigmoid0 -> Sigmoid0
I0501 09:04:40.490838 12994 net.cpp:124] Setting up Sigmoid0
I0501 09:04:40.490846 12994 net.cpp:131] Top shape: 1000 16 34 34 (18496000)
I0501 09:04:40.490849 12994 net.cpp:139] Memory required for data: 160268000
I0501 09:04:40.490852 12994 layer_factory.hpp:77] Creating layer pool0
I0501 09:04:40.490859 12994 net.cpp:86] Creating Layer pool0
I0501 09:04:40.490864 12994 net.cpp:408] pool0 <- Sigmoid0
I0501 09:04:40.490869 12994 net.cpp:382] pool0 -> pool0
I0501 09:04:40.491171 12994 net.cpp:124] Setting up pool0
I0501 09:04:40.491180 12994 net.cpp:131] Top shape: 1000 16 17 17 (4624000)
I0501 09:04:40.491199 12994 net.cpp:139] Memory required for data: 178764000
I0501 09:04:40.491201 12994 layer_factory.hpp:77] Creating layer ip1
I0501 09:04:40.491210 12994 net.cpp:86] Creating Layer ip1
I0501 09:04:40.491215 12994 net.cpp:408] ip1 <- pool0
I0501 09:04:40.491235 12994 net.cpp:382] ip1 -> ip1
I0501 09:04:40.494763 12994 net.cpp:124] Setting up ip1
I0501 09:04:40.494772 12994 net.cpp:131] Top shape: 1000 20 (20000)
I0501 09:04:40.494791 12994 net.cpp:139] Memory required for data: 178844000
I0501 09:04:40.494812 12994 layer_factory.hpp:77] Creating layer relu1
I0501 09:04:40.494819 12994 net.cpp:86] Creating Layer relu1
I0501 09:04:40.494823 12994 net.cpp:408] relu1 <- ip1
I0501 09:04:40.494828 12994 net.cpp:369] relu1 -> ip1 (in-place)
I0501 09:04:40.495009 12994 net.cpp:124] Setting up relu1
I0501 09:04:40.495018 12994 net.cpp:131] Top shape: 1000 20 (20000)
I0501 09:04:40.495021 12994 net.cpp:139] Memory required for data: 178924000
I0501 09:04:40.495025 12994 layer_factory.hpp:77] Creating layer ip2
I0501 09:04:40.495031 12994 net.cpp:86] Creating Layer ip2
I0501 09:04:40.495034 12994 net.cpp:408] ip2 <- ip1
I0501 09:04:40.495040 12994 net.cpp:382] ip2 -> ip2
I0501 09:04:40.495151 12994 net.cpp:124] Setting up ip2
I0501 09:04:40.495157 12994 net.cpp:131] Top shape: 1000 20 (20000)
I0501 09:04:40.495160 12994 net.cpp:139] Memory required for data: 179004000
I0501 09:04:40.495167 12994 layer_factory.hpp:77] Creating layer relu2
I0501 09:04:40.495173 12994 net.cpp:86] Creating Layer relu2
I0501 09:04:40.495179 12994 net.cpp:408] relu2 <- ip2
I0501 09:04:40.495183 12994 net.cpp:369] relu2 -> ip2 (in-place)
I0501 09:04:40.496019 12994 net.cpp:124] Setting up relu2
I0501 09:04:40.496031 12994 net.cpp:131] Top shape: 1000 20 (20000)
I0501 09:04:40.496049 12994 net.cpp:139] Memory required for data: 179084000
I0501 09:04:40.496052 12994 layer_factory.hpp:77] Creating layer ip3
I0501 09:04:40.496062 12994 net.cpp:86] Creating Layer ip3
I0501 09:04:40.496065 12994 net.cpp:408] ip3 <- ip2
I0501 09:04:40.496071 12994 net.cpp:382] ip3 -> ip3
I0501 09:04:40.496276 12994 net.cpp:124] Setting up ip3
I0501 09:04:40.496284 12994 net.cpp:131] Top shape: 1000 160 (160000)
I0501 09:04:40.496287 12994 net.cpp:139] Memory required for data: 179724000
I0501 09:04:40.496292 12994 layer_factory.hpp:77] Creating layer relu3
I0501 09:04:40.496297 12994 net.cpp:86] Creating Layer relu3
I0501 09:04:40.496300 12994 net.cpp:408] relu3 <- ip3
I0501 09:04:40.496304 12994 net.cpp:369] relu3 -> ip3 (in-place)
I0501 09:04:40.496454 12994 net.cpp:124] Setting up relu3
I0501 09:04:40.496464 12994 net.cpp:131] Top shape: 1000 160 (160000)
I0501 09:04:40.496466 12994 net.cpp:139] Memory required for data: 180364000
I0501 09:04:40.496469 12994 layer_factory.hpp:77] Creating layer ip4
I0501 09:04:40.496475 12994 net.cpp:86] Creating Layer ip4
I0501 09:04:40.496479 12994 net.cpp:408] ip4 <- ip3
I0501 09:04:40.496485 12994 net.cpp:382] ip4 -> ip4
I0501 09:04:40.496641 12994 net.cpp:124] Setting up ip4
I0501 09:04:40.496649 12994 net.cpp:131] Top shape: 1000 10 (10000)
I0501 09:04:40.496651 12994 net.cpp:139] Memory required for data: 180404000
I0501 09:04:40.496659 12994 layer_factory.hpp:77] Creating layer ip4_ip4_0_split
I0501 09:04:40.496665 12994 net.cpp:86] Creating Layer ip4_ip4_0_split
I0501 09:04:40.496668 12994 net.cpp:408] ip4_ip4_0_split <- ip4
I0501 09:04:40.496672 12994 net.cpp:382] ip4_ip4_0_split -> ip4_ip4_0_split_0
I0501 09:04:40.496678 12994 net.cpp:382] ip4_ip4_0_split -> ip4_ip4_0_split_1
I0501 09:04:40.496709 12994 net.cpp:124] Setting up ip4_ip4_0_split
I0501 09:04:40.496716 12994 net.cpp:131] Top shape: 1000 10 (10000)
I0501 09:04:40.496721 12994 net.cpp:131] Top shape: 1000 10 (10000)
I0501 09:04:40.496723 12994 net.cpp:139] Memory required for data: 180484000
I0501 09:04:40.496726 12994 layer_factory.hpp:77] Creating layer accuracy
I0501 09:04:40.496733 12994 net.cpp:86] Creating Layer accuracy
I0501 09:04:40.496737 12994 net.cpp:408] accuracy <- ip4_ip4_0_split_0
I0501 09:04:40.496740 12994 net.cpp:408] accuracy <- label_cifar_1_split_0
I0501 09:04:40.496744 12994 net.cpp:382] accuracy -> accuracy
…
