…
I0430 20:22:10.116904 28541 net.cpp:296] The NetState phase (0) differed from the phase (1) specified by a rule in layer cifar
I0430 20:22:10.116919 28541 net.cpp:296] The NetState phase (0) differed from the phase (1) specified by a rule in layer accuracy
I0430 20:22:10.117020 28541 net.cpp:53] Initializing net from parameters: 
name: "CIFAR"
state {
  phase: TRAIN
  level: 0
  stage: ""
}
layer {
  name: "cifar"
  type: "Data"
  top: "data"
  top: "label"
  include {
    phase: TRAIN
  }
  transform_param {
    mean_file: "examples/cifar10/mean.binaryproto"
  }
  data_param {
    source: "examples/cifar10/cifar10_train_lmdb"
    batch_size: 111
    backend: LMDB
  }
}
layer {
  name: "ip1"
  type: "InnerProduct"
  bottom: "data"
  top: "ip1"
  param {
    lr_mult: 1
  }
  param {
    lr_mult: 2
  }
  inner_product_param {
    num_output: 80
    weight_filler {
      type: "gaussian"
      std: 0.01
    }
    bias_filler {
      type: "constant"
    }
  }
}
layer {
  name: "relu1"
  type: "ReLU"
  bottom: "ip1"
  top: "ip1"
}
layer {
  name: "ip2"
  type: "InnerProduct"
  bottom: "ip1"
  top: "ip2"
  param {
    lr_mult: 1
  }
  param {
    lr_mult: 2
  }
  inner_product_param {
    num_output: 160
    weight_filler {
      type: "gaussian"
      std: 0.01
    }
    bias_filler {
      type: "constant"
    }
  }
}
layer {
  name: "relu2"
  type: "ReLU"
  bottom: "ip2"
  top: "ip2"
}
layer {
  name: "ip3"
  type: "InnerProduct"
  bottom: "ip2"
  top: "ip3"
  param {
    lr_mult: 1
  }
  param {
    lr_mult: 2
  }
  inner_product_param {
    num_output: 40
    weight_filler {
      type: "gaussian"
      std: 0.01
    }
    bias_filler {
      type: "constant"
    }
  }
}
layer {
  name: "relu3"
  type: "ReLU"
  bottom: "ip3"
  top: "ip3"
}
layer {
  name: "ip4"
  type: "InnerProduct"
  bottom: "ip3"
  top: "ip4"
  param {
    lr_mult: 1
  }
  param {
    lr_mult: 2
  }
  inner_product_param {
    num_output: 10
    weight_filler {
      type: "gaussian"
      std: 0.01
    }
    bias_filler {
      type: "constant"
    }
  }
}
layer {
  name: "loss"
  type: "SoftmaxWithLoss"
  bottom: "ip4"
  bottom: "label"
  top: "loss"
}
I0430 20:22:10.117080 28541 layer_factory.hpp:77] Creating layer cifar
I0430 20:22:10.117193 28541 db_lmdb.cpp:35] Opened lmdb examples/cifar10/cifar10_train_lmdb
I0430 20:22:10.117229 28541 net.cpp:86] Creating Layer cifar
I0430 20:22:10.117235 28541 net.cpp:382] cifar -> data
I0430 20:22:10.117254 28541 net.cpp:382] cifar -> label
I0430 20:22:10.117264 28541 data_transformer.cpp:25] Loading mean file from: examples/cifar10/mean.binaryproto
I0430 20:22:10.118952 28541 data_layer.cpp:45] output data size: 111,3,32,32
I0430 20:22:10.125479 28541 net.cpp:124] Setting up cifar
I0430 20:22:10.125526 28541 net.cpp:131] Top shape: 111 3 32 32 (340992)
I0430 20:22:10.125532 28541 net.cpp:131] Top shape: 111 (111)
I0430 20:22:10.125535 28541 net.cpp:139] Memory required for data: 1364412
I0430 20:22:10.125541 28541 layer_factory.hpp:77] Creating layer ip1
I0430 20:22:10.125551 28541 net.cpp:86] Creating Layer ip1
I0430 20:22:10.125556 28541 net.cpp:408] ip1 <- data
I0430 20:22:10.125581 28541 net.cpp:382] ip1 -> ip1
I0430 20:22:10.132690 28541 net.cpp:124] Setting up ip1
I0430 20:22:10.132719 28541 net.cpp:131] Top shape: 111 80 (8880)
I0430 20:22:10.132722 28541 net.cpp:139] Memory required for data: 1399932
I0430 20:22:10.132733 28541 layer_factory.hpp:77] Creating layer relu1
I0430 20:22:10.132741 28541 net.cpp:86] Creating Layer relu1
I0430 20:22:10.132772 28541 net.cpp:408] relu1 <- ip1
I0430 20:22:10.132777 28541 net.cpp:369] relu1 -> ip1 (in-place)
I0430 20:22:10.353024 28541 net.cpp:124] Setting up relu1
I0430 20:22:10.353067 28541 net.cpp:131] Top shape: 111 80 (8880)
I0430 20:22:10.353071 28541 net.cpp:139] Memory required for data: 1435452
I0430 20:22:10.353077 28541 layer_factory.hpp:77] Creating layer ip2
I0430 20:22:10.353090 28541 net.cpp:86] Creating Layer ip2
I0430 20:22:10.353093 28541 net.cpp:408] ip2 <- ip1
I0430 20:22:10.353101 28541 net.cpp:382] ip2 -> ip2
I0430 20:22:10.354403 28541 net.cpp:124] Setting up ip2
I0430 20:22:10.354414 28541 net.cpp:131] Top shape: 111 160 (17760)
I0430 20:22:10.354418 28541 net.cpp:139] Memory required for data: 1506492
I0430 20:22:10.354427 28541 layer_factory.hpp:77] Creating layer relu2
I0430 20:22:10.354434 28541 net.cpp:86] Creating Layer relu2
I0430 20:22:10.354437 28541 net.cpp:408] relu2 <- ip2
I0430 20:22:10.354441 28541 net.cpp:369] relu2 -> ip2 (in-place)
I0430 20:22:10.355166 28541 net.cpp:124] Setting up relu2
I0430 20:22:10.355177 28541 net.cpp:131] Top shape: 111 160 (17760)
I0430 20:22:10.355180 28541 net.cpp:139] Memory required for data: 1577532
I0430 20:22:10.355183 28541 layer_factory.hpp:77] Creating layer ip3
I0430 20:22:10.355190 28541 net.cpp:86] Creating Layer ip3
I0430 20:22:10.355193 28541 net.cpp:408] ip3 <- ip2
I0430 20:22:10.355198 28541 net.cpp:382] ip3 -> ip3
I0430 20:22:10.355456 28541 net.cpp:124] Setting up ip3
I0430 20:22:10.355464 28541 net.cpp:131] Top shape: 111 40 (4440)
I0430 20:22:10.355468 28541 net.cpp:139] Memory required for data: 1595292
I0430 20:22:10.355474 28541 layer_factory.hpp:77] Creating layer relu3
I0430 20:22:10.355479 28541 net.cpp:86] Creating Layer relu3
I0430 20:22:10.355482 28541 net.cpp:408] relu3 <- ip3
I0430 20:22:10.355486 28541 net.cpp:369] relu3 -> ip3 (in-place)
I0430 20:22:10.355623 28541 net.cpp:124] Setting up relu3
I0430 20:22:10.355631 28541 net.cpp:131] Top shape: 111 40 (4440)
I0430 20:22:10.355634 28541 net.cpp:139] Memory required for data: 1613052
I0430 20:22:10.355638 28541 layer_factory.hpp:77] Creating layer ip4
I0430 20:22:10.355643 28541 net.cpp:86] Creating Layer ip4
I0430 20:22:10.355645 28541 net.cpp:408] ip4 <- ip3
I0430 20:22:10.355650 28541 net.cpp:382] ip4 -> ip4
I0430 20:22:10.356552 28541 net.cpp:124] Setting up ip4
I0430 20:22:10.356562 28541 net.cpp:131] Top shape: 111 10 (1110)
I0430 20:22:10.356565 28541 net.cpp:139] Memory required for data: 1617492
I0430 20:22:10.356570 28541 layer_factory.hpp:77] Creating layer loss
I0430 20:22:10.356577 28541 net.cpp:86] Creating Layer loss
I0430 20:22:10.356580 28541 net.cpp:408] loss <- ip4
I0430 20:22:10.356583 28541 net.cpp:408] loss <- label
I0430 20:22:10.356588 28541 net.cpp:382] loss -> loss
I0430 20:22:10.356606 28541 layer_factory.hpp:77] Creating layer loss
…
I0430 20:22:10.357213 28541 solver.cpp:173] Creating test net (#0) specified by net file: ECE595/cifar/train_test/var_everything/cifar_train_test_127.prototxt
I0430 20:22:10.357251 28541 net.cpp:296] The NetState phase (1) differed from the phase (0) specified by a rule in layer cifar
I0430 20:22:10.357324 28541 net.cpp:53] Initializing net from parameters: 
name: "CIFAR"
state {
  phase: TEST
}
layer {
  name: "cifar"
  type: "Data"
  top: "data"
  top: "label"
  include {
    phase: TEST
  }
  transform_param {
    mean_file: "examples/cifar10/mean.binaryproto"
  }
  data_param {
    source: "examples/cifar10/cifar10_test_lmdb"
    batch_size: 1000
    backend: LMDB
  }
}
layer {
  name: "ip1"
  type: "InnerProduct"
  bottom: "data"
  top: "ip1"
  param {
    lr_mult: 1
  }
  param {
    lr_mult: 2
  }
  inner_product_param {
    num_output: 80
    weight_filler {
      type: "gaussian"
      std: 0.01
    }
    bias_filler {
      type: "constant"
    }
  }
}
layer {
  name: "relu1"
  type: "ReLU"
  bottom: "ip1"
  top: "ip1"
}
layer {
  name: "ip2"
  type: "InnerProduct"
  bottom: "ip1"
  top: "ip2"
  param {
    lr_mult: 1
  }
  param {
    lr_mult: 2
  }
  inner_product_param {
    num_output: 160
    weight_filler {
      type: "gaussian"
      std: 0.01
    }
    bias_filler {
      type: "constant"
    }
  }
}
layer {
  name: "relu2"
  type: "ReLU"
  bottom: "ip2"
  top: "ip2"
}
layer {
  name: "ip3"
  type: "InnerProduct"
  bottom: "ip2"
  top: "ip3"
  param {
    lr_mult: 1
  }
  param {
    lr_mult: 2
  }
  inner_product_param {
    num_output: 40
    weight_filler {
      type: "gaussian"
      std: 0.01
    }
    bias_filler {
      type: "constant"
    }
  }
}
layer {
  name: "relu3"
  type: "ReLU"
  bottom: "ip3"
  top: "ip3"
}
layer {
  name: "ip4"
  type: "InnerProduct"
  bottom: "ip3"
  top: "ip4"
  param {
    lr_mult: 1
  }
  param {
    lr_mult: 2
  }
  inner_product_param {
    num_output: 10
    weight_filler {
      type: "gaussian"
      std: 0.01
    }
    bias_filler {
      type: "constant"
    }
  }
}
layer {
  name: "accuracy"
  type: "Accuracy"
  bottom: "ip4"
  bottom: "label"
  top: "accuracy"
  include {
    phase: TEST
  }
}
layer {
  name: "loss"
  type: "SoftmaxWithLoss"
  bottom: "ip4"
  bottom: "label"
  top: "loss"
}
I0430 20:22:10.357395 28541 layer_factory.hpp:77] Creating layer cifar
I0430 20:22:10.357439 28541 db_lmdb.cpp:35] Opened lmdb examples/cifar10/cifar10_test_lmdb
I0430 20:22:10.357450 28541 net.cpp:86] Creating Layer cifar
I0430 20:22:10.357455 28541 net.cpp:382] cifar -> data
I0430 20:22:10.357461 28541 net.cpp:382] cifar -> label
I0430 20:22:10.357467 28541 data_transformer.cpp:25] Loading mean file from: examples/cifar10/mean.binaryproto
I0430 20:22:10.357599 28541 data_layer.cpp:45] output data size: 1000,3,32,32
I0430 20:22:10.378514 28541 net.cpp:124] Setting up cifar
I0430 20:22:10.378556 28541 net.cpp:131] Top shape: 1000 3 32 32 (3072000)
I0430 20:22:10.378561 28541 net.cpp:131] Top shape: 1000 (1000)
I0430 20:22:10.378564 28541 net.cpp:139] Memory required for data: 12292000
I0430 20:22:10.378571 28541 layer_factory.hpp:77] Creating layer label_cifar_1_split
I0430 20:22:10.378587 28541 net.cpp:86] Creating Layer label_cifar_1_split
I0430 20:22:10.378590 28541 net.cpp:408] label_cifar_1_split <- label
I0430 20:22:10.378597 28541 net.cpp:382] label_cifar_1_split -> label_cifar_1_split_0
I0430 20:22:10.378621 28541 net.cpp:382] label_cifar_1_split -> label_cifar_1_split_1
I0430 20:22:10.378700 28541 net.cpp:124] Setting up label_cifar_1_split
I0430 20:22:10.378707 28541 net.cpp:131] Top shape: 1000 (1000)
I0430 20:22:10.378711 28541 net.cpp:131] Top shape: 1000 (1000)
I0430 20:22:10.378715 28541 net.cpp:139] Memory required for data: 12300000
I0430 20:22:10.378717 28541 layer_factory.hpp:77] Creating layer ip1
I0430 20:22:10.378726 28541 net.cpp:86] Creating Layer ip1
I0430 20:22:10.378729 28541 net.cpp:408] ip1 <- data
I0430 20:22:10.378734 28541 net.cpp:382] ip1 -> ip1
I0430 20:22:10.385382 28541 net.cpp:124] Setting up ip1
I0430 20:22:10.385393 28541 net.cpp:131] Top shape: 1000 80 (80000)
I0430 20:22:10.385416 28541 net.cpp:139] Memory required for data: 12620000
I0430 20:22:10.385454 28541 layer_factory.hpp:77] Creating layer relu1
I0430 20:22:10.385478 28541 net.cpp:86] Creating Layer relu1
I0430 20:22:10.385480 28541 net.cpp:408] relu1 <- ip1
I0430 20:22:10.385484 28541 net.cpp:369] relu1 -> ip1 (in-place)
I0430 20:22:10.386268 28541 net.cpp:124] Setting up relu1
I0430 20:22:10.386281 28541 net.cpp:131] Top shape: 1000 80 (80000)
I0430 20:22:10.386299 28541 net.cpp:139] Memory required for data: 12940000
I0430 20:22:10.386302 28541 layer_factory.hpp:77] Creating layer ip2
I0430 20:22:10.386310 28541 net.cpp:86] Creating Layer ip2
I0430 20:22:10.386314 28541 net.cpp:408] ip2 <- ip1
I0430 20:22:10.386320 28541 net.cpp:382] ip2 -> ip2
I0430 20:22:10.386843 28541 net.cpp:124] Setting up ip2
I0430 20:22:10.386850 28541 net.cpp:131] Top shape: 1000 160 (160000)
I0430 20:22:10.386869 28541 net.cpp:139] Memory required for data: 13580000
I0430 20:22:10.386876 28541 layer_factory.hpp:77] Creating layer relu2
I0430 20:22:10.386883 28541 net.cpp:86] Creating Layer relu2
I0430 20:22:10.386886 28541 net.cpp:408] relu2 <- ip2
I0430 20:22:10.386890 28541 net.cpp:369] relu2 -> ip2 (in-place)
I0430 20:22:10.387107 28541 net.cpp:124] Setting up relu2
I0430 20:22:10.387117 28541 net.cpp:131] Top shape: 1000 160 (160000)
I0430 20:22:10.387120 28541 net.cpp:139] Memory required for data: 14220000
I0430 20:22:10.387123 28541 layer_factory.hpp:77] Creating layer ip3
I0430 20:22:10.387130 28541 net.cpp:86] Creating Layer ip3
I0430 20:22:10.387133 28541 net.cpp:408] ip3 <- ip2
I0430 20:22:10.387138 28541 net.cpp:382] ip3 -> ip3
I0430 20:22:10.387418 28541 net.cpp:124] Setting up ip3
I0430 20:22:10.387424 28541 net.cpp:131] Top shape: 1000 40 (40000)
I0430 20:22:10.387428 28541 net.cpp:139] Memory required for data: 14380000
I0430 20:22:10.387434 28541 layer_factory.hpp:77] Creating layer relu3
I0430 20:22:10.387440 28541 net.cpp:86] Creating Layer relu3
I0430 20:22:10.387444 28541 net.cpp:408] relu3 <- ip3
I0430 20:22:10.387447 28541 net.cpp:369] relu3 -> ip3 (in-place)
I0430 20:22:10.387593 28541 net.cpp:124] Setting up relu3
I0430 20:22:10.387601 28541 net.cpp:131] Top shape: 1000 40 (40000)
I0430 20:22:10.387604 28541 net.cpp:139] Memory required for data: 14540000
I0430 20:22:10.387608 28541 layer_factory.hpp:77] Creating layer ip4
I0430 20:22:10.387630 28541 net.cpp:86] Creating Layer ip4
I0430 20:22:10.387634 28541 net.cpp:408] ip4 <- ip3
I0430 20:22:10.387639 28541 net.cpp:382] ip4 -> ip4
I0430 20:22:10.387748 28541 net.cpp:124] Setting up ip4
I0430 20:22:10.387754 28541 net.cpp:131] Top shape: 1000 10 (10000)
I0430 20:22:10.387758 28541 net.cpp:139] Memory required for data: 14580000
I0430 20:22:10.387763 28541 layer_factory.hpp:77] Creating layer ip4_ip4_0_split
I0430 20:22:10.387768 28541 net.cpp:86] Creating Layer ip4_ip4_0_split
I0430 20:22:10.387770 28541 net.cpp:408] ip4_ip4_0_split <- ip4
I0430 20:22:10.387774 28541 net.cpp:382] ip4_ip4_0_split -> ip4_ip4_0_split_0
I0430 20:22:10.387780 28541 net.cpp:382] ip4_ip4_0_split -> ip4_ip4_0_split_1
I0430 20:22:10.387809 28541 net.cpp:124] Setting up ip4_ip4_0_split
I0430 20:22:10.387814 28541 net.cpp:131] Top shape: 1000 10 (10000)
I0430 20:22:10.387817 28541 net.cpp:131] Top shape: 1000 10 (10000)
I0430 20:22:10.387820 28541 net.cpp:139] Memory required for data: 14660000
I0430 20:22:10.387823 28541 layer_factory.hpp:77] Creating layer accuracy
I0430 20:22:10.387830 28541 net.cpp:86] Creating Layer accuracy
I0430 20:22:10.387832 28541 net.cpp:408] accuracy <- ip4_ip4_0_split_0
I0430 20:22:10.387835 28541 net.cpp:408] accuracy <- label_cifar_1_split_0
I0430 20:22:10.387840 28541 net.cpp:382] accuracy -> accuracy
…
