…
I0430 23:29:33.420541  4972 net.cpp:296] The NetState phase (0) differed from the phase (1) specified by a rule in layer cifar
I0430 23:29:33.420559  4972 net.cpp:296] The NetState phase (0) differed from the phase (1) specified by a rule in layer accuracy
I0430 23:29:33.420665  4972 net.cpp:53] Initializing net from parameters: 
name: "CIFAR"
state {
  phase: TRAIN
  level: 0
  stage: ""
}
layer {
  name: "cifar"
  type: "Data"
  top: "data"
  top: "label"
  include {
    phase: TRAIN
  }
  transform_param {
    mean_file: "examples/cifar10/mean.binaryproto"
  }
  data_param {
    source: "examples/cifar10/cifar10_train_lmdb"
    batch_size: 111
    backend: LMDB
  }
}
layer {
  name: "conv0"
  type: "Convolution"
  bottom: "data"
  top: "conv0"
  param {
    lr_mult: 1
  }
  param {
    lr_mult: 2
  }
  convolution_param {
    num_output: 8
    pad: 2
    kernel_size: 3
    stride: 1
    weight_filler {
      type: "gaussian"
      std: 0.01
    }
    bias_filler {
      type: "constant"
    }
  }
}
layer {
  name: "Sigmoid0"
  type: "Sigmoid"
  bottom: "conv0"
  top: "Sigmoid0"
}
layer {
  name: "pool0"
  type: "Pooling"
  bottom: "Sigmoid0"
  top: "pool0"
  pooling_param {
    pool: AVE
    kernel_size: 3
    stride: 2
  }
}
layer {
  name: "ip1"
  type: "InnerProduct"
  bottom: "pool0"
  top: "ip1"
  param {
    lr_mult: 1
  }
  param {
    lr_mult: 2
  }
  inner_product_param {
    num_output: 20
    weight_filler {
      type: "gaussian"
      std: 0.01
    }
    bias_filler {
      type: "constant"
    }
  }
}
layer {
  name: "relu1"
  type: "ReLU"
  bottom: "ip1"
  top: "ip1"
}
layer {
  name: "ip2"
  type: "InnerProduct"
  bottom: "ip1"
  top: "ip2"
  param {
    lr_mult: 1
  }
  param {
    lr_mult: 2
  }
  inner_product_param {
    num_output: 80
    weight_filler {
      type: "gaussian"
      std: 0.01
    }
    bias_filler {
      type: "constant"
    }
  }
}
layer {
  name: "relu2"
  type: "ReLU"
  bottom: "ip2"
  top: "ip2"
}
layer {
  name: "ip3"
  type: "InnerProduct"
  bottom: "ip2"
  top: "ip3"
  param {
    lr_mult: 1
  }
  param {
    lr_mult: 2
  }
  inner_product_param {
    num_output: 40
    weight_filler {
      type: "gaussian"
      std: 0.01
    }
    bias_filler {
      type: "constant"
    }
  }
}
layer {
  name: "relu3"
  type: "ReLU"
  bottom: "ip3"
  top: "ip3"
}
layer {
  name: "ip4"
  type: "InnerProduct"
  bottom: "ip3"
  top: "ip4"
  param {
    lr_mult: 1
  }
  param {
    lr_mult: 2
  }
  inner_product_param {
    num_output: 10
    weight_filler {
      type: "gaussian"
      std: 0.01
    }
    bias_filler {
      type: "constant"
    }
  }
}
layer {
  name: "loss"
  type: "SoftmaxWithLoss"
  bottom: "ip4"
  bottom: "label"
  top: "loss"
}
I0430 23:29:33.420743  4972 layer_factory.hpp:77] Creating layer cifar
I0430 23:29:33.420871  4972 db_lmdb.cpp:35] Opened lmdb examples/cifar10/cifar10_train_lmdb
I0430 23:29:33.420897  4972 net.cpp:86] Creating Layer cifar
I0430 23:29:33.420907  4972 net.cpp:382] cifar -> data
I0430 23:29:33.420928  4972 net.cpp:382] cifar -> label
I0430 23:29:33.420940  4972 data_transformer.cpp:25] Loading mean file from: examples/cifar10/mean.binaryproto
I0430 23:29:33.423039  4972 data_layer.cpp:45] output data size: 111,3,32,32
I0430 23:29:33.430902  4972 net.cpp:124] Setting up cifar
I0430 23:29:33.430919  4972 net.cpp:131] Top shape: 111 3 32 32 (340992)
I0430 23:29:33.430927  4972 net.cpp:131] Top shape: 111 (111)
I0430 23:29:33.430929  4972 net.cpp:139] Memory required for data: 1364412
I0430 23:29:33.430953  4972 layer_factory.hpp:77] Creating layer conv0
I0430 23:29:33.430974  4972 net.cpp:86] Creating Layer conv0
I0430 23:29:33.430979  4972 net.cpp:408] conv0 <- data
I0430 23:29:33.430992  4972 net.cpp:382] conv0 -> conv0
I0430 23:29:33.725009  4972 net.cpp:124] Setting up conv0
I0430 23:29:33.725040  4972 net.cpp:131] Top shape: 111 8 34 34 (1026528)
I0430 23:29:33.725045  4972 net.cpp:139] Memory required for data: 5470524
I0430 23:29:33.725062  4972 layer_factory.hpp:77] Creating layer Sigmoid0
I0430 23:29:33.725076  4972 net.cpp:86] Creating Layer Sigmoid0
I0430 23:29:33.725081  4972 net.cpp:408] Sigmoid0 <- conv0
I0430 23:29:33.725087  4972 net.cpp:382] Sigmoid0 -> Sigmoid0
I0430 23:29:33.725293  4972 net.cpp:124] Setting up Sigmoid0
I0430 23:29:33.725304  4972 net.cpp:131] Top shape: 111 8 34 34 (1026528)
I0430 23:29:33.725308  4972 net.cpp:139] Memory required for data: 9576636
I0430 23:29:33.725311  4972 layer_factory.hpp:77] Creating layer pool0
I0430 23:29:33.725319  4972 net.cpp:86] Creating Layer pool0
I0430 23:29:33.725323  4972 net.cpp:408] pool0 <- Sigmoid0
I0430 23:29:33.725328  4972 net.cpp:382] pool0 -> pool0
I0430 23:29:33.726172  4972 net.cpp:124] Setting up pool0
I0430 23:29:33.726188  4972 net.cpp:131] Top shape: 111 8 17 17 (256632)
I0430 23:29:33.726192  4972 net.cpp:139] Memory required for data: 10603164
I0430 23:29:33.726197  4972 layer_factory.hpp:77] Creating layer ip1
I0430 23:29:33.726207  4972 net.cpp:86] Creating Layer ip1
I0430 23:29:33.726212  4972 net.cpp:408] ip1 <- pool0
I0430 23:29:33.726218  4972 net.cpp:382] ip1 -> ip1
I0430 23:29:33.728770  4972 net.cpp:124] Setting up ip1
I0430 23:29:33.728785  4972 net.cpp:131] Top shape: 111 20 (2220)
I0430 23:29:33.728790  4972 net.cpp:139] Memory required for data: 10612044
I0430 23:29:33.728798  4972 layer_factory.hpp:77] Creating layer relu1
I0430 23:29:33.728806  4972 net.cpp:86] Creating Layer relu1
I0430 23:29:33.728816  4972 net.cpp:408] relu1 <- ip1
I0430 23:29:33.728823  4972 net.cpp:369] relu1 -> ip1 (in-place)
I0430 23:29:33.729002  4972 net.cpp:124] Setting up relu1
I0430 23:29:33.729013  4972 net.cpp:131] Top shape: 111 20 (2220)
I0430 23:29:33.729017  4972 net.cpp:139] Memory required for data: 10620924
I0430 23:29:33.729022  4972 layer_factory.hpp:77] Creating layer ip2
I0430 23:29:33.729028  4972 net.cpp:86] Creating Layer ip2
I0430 23:29:33.729033  4972 net.cpp:408] ip2 <- ip1
I0430 23:29:33.729038  4972 net.cpp:382] ip2 -> ip2
I0430 23:29:33.729205  4972 net.cpp:124] Setting up ip2
I0430 23:29:33.729213  4972 net.cpp:131] Top shape: 111 80 (8880)
I0430 23:29:33.729218  4972 net.cpp:139] Memory required for data: 10656444
I0430 23:29:33.729226  4972 layer_factory.hpp:77] Creating layer relu2
I0430 23:29:33.729231  4972 net.cpp:86] Creating Layer relu2
I0430 23:29:33.729235  4972 net.cpp:408] relu2 <- ip2
I0430 23:29:33.729240  4972 net.cpp:369] relu2 -> ip2 (in-place)
I0430 23:29:33.729413  4972 net.cpp:124] Setting up relu2
I0430 23:29:33.729423  4972 net.cpp:131] Top shape: 111 80 (8880)
I0430 23:29:33.729426  4972 net.cpp:139] Memory required for data: 10691964
I0430 23:29:33.729430  4972 layer_factory.hpp:77] Creating layer ip3
I0430 23:29:33.729439  4972 net.cpp:86] Creating Layer ip3
I0430 23:29:33.729442  4972 net.cpp:408] ip3 <- ip2
I0430 23:29:33.729449  4972 net.cpp:382] ip3 -> ip3
I0430 23:29:33.729656  4972 net.cpp:124] Setting up ip3
I0430 23:29:33.729665  4972 net.cpp:131] Top shape: 111 40 (4440)
I0430 23:29:33.729668  4972 net.cpp:139] Memory required for data: 10709724
I0430 23:29:33.729674  4972 layer_factory.hpp:77] Creating layer relu3
I0430 23:29:33.729679  4972 net.cpp:86] Creating Layer relu3
I0430 23:29:33.729683  4972 net.cpp:408] relu3 <- ip3
I0430 23:29:33.729688  4972 net.cpp:369] relu3 -> ip3 (in-place)
I0430 23:29:33.729852  4972 net.cpp:124] Setting up relu3
I0430 23:29:33.729861  4972 net.cpp:131] Top shape: 111 40 (4440)
I0430 23:29:33.729866  4972 net.cpp:139] Memory required for data: 10727484
I0430 23:29:33.729868  4972 layer_factory.hpp:77] Creating layer ip4
I0430 23:29:33.729892  4972 net.cpp:86] Creating Layer ip4
I0430 23:29:33.729897  4972 net.cpp:408] ip4 <- ip3
I0430 23:29:33.729902  4972 net.cpp:382] ip4 -> ip4
I0430 23:29:33.730974  4972 net.cpp:124] Setting up ip4
I0430 23:29:33.730988  4972 net.cpp:131] Top shape: 111 10 (1110)
I0430 23:29:33.730993  4972 net.cpp:139] Memory required for data: 10731924
I0430 23:29:33.731003  4972 layer_factory.hpp:77] Creating layer loss
I0430 23:29:33.731010  4972 net.cpp:86] Creating Layer loss
I0430 23:29:33.731014  4972 net.cpp:408] loss <- ip4
I0430 23:29:33.731019  4972 net.cpp:408] loss <- label
I0430 23:29:33.731025  4972 net.cpp:382] loss -> loss
I0430 23:29:33.731045  4972 layer_factory.hpp:77] Creating layer loss
…
I0430 23:29:33.732415  4972 solver.cpp:173] Creating test net (#0) specified by net file: ECE595/cifar/train_test/var_everything/cifar_train_test_227.prototxt
I0430 23:29:33.732446  4972 net.cpp:296] The NetState phase (1) differed from the phase (0) specified by a rule in layer cifar
I0430 23:29:33.732553  4972 net.cpp:53] Initializing net from parameters: 
name: "CIFAR"
state {
  phase: TEST
}
layer {
  name: "cifar"
  type: "Data"
  top: "data"
  top: "label"
  include {
    phase: TEST
  }
  transform_param {
    mean_file: "examples/cifar10/mean.binaryproto"
  }
  data_param {
    source: "examples/cifar10/cifar10_test_lmdb"
    batch_size: 1000
    backend: LMDB
  }
}
layer {
  name: "conv0"
  type: "Convolution"
  bottom: "data"
  top: "conv0"
  param {
    lr_mult: 1
  }
  param {
    lr_mult: 2
  }
  convolution_param {
    num_output: 8
    pad: 2
    kernel_size: 3
    stride: 1
    weight_filler {
      type: "gaussian"
      std: 0.01
    }
    bias_filler {
      type: "constant"
    }
  }
}
layer {
  name: "Sigmoid0"
  type: "Sigmoid"
  bottom: "conv0"
  top: "Sigmoid0"
}
layer {
  name: "pool0"
  type: "Pooling"
  bottom: "Sigmoid0"
  top: "pool0"
  pooling_param {
    pool: AVE
    kernel_size: 3
    stride: 2
  }
}
layer {
  name: "ip1"
  type: "InnerProduct"
  bottom: "pool0"
  top: "ip1"
  param {
    lr_mult: 1
  }
  param {
    lr_mult: 2
  }
  inner_product_param {
    num_output: 20
    weight_filler {
      type: "gaussian"
      std: 0.01
    }
    bias_filler {
      type: "constant"
    }
  }
}
layer {
  name: "relu1"
  type: "ReLU"
  bottom: "ip1"
  top: "ip1"
}
layer {
  name: "ip2"
  type: "InnerProduct"
  bottom: "ip1"
  top: "ip2"
  param {
    lr_mult: 1
  }
  param {
    lr_mult: 2
  }
  inner_product_param {
    num_output: 80
    weight_filler {
      type: "gaussian"
      std: 0.01
    }
    bias_filler {
      type: "constant"
    }
  }
}
layer {
  name: "relu2"
  type: "ReLU"
  bottom: "ip2"
  top: "ip2"
}
layer {
  name: "ip3"
  type: "InnerProduct"
  bottom: "ip2"
  top: "ip3"
  param {
    lr_mult: 1
  }
  param {
    lr_mult: 2
  }
  inner_product_param {
    num_output: 40
    weight_filler {
      type: "gaussian"
      std: 0.01
    }
    bias_filler {
      type: "constant"
    }
  }
}
layer {
  name: "relu3"
  type: "ReLU"
  bottom: "ip3"
  top: "ip3"
}
layer {
  name: "ip4"
  type: "InnerProduct"
  bottom: "ip3"
  top: "ip4"
  param {
    lr_mult: 1
  }
  param {
    lr_mult: 2
  }
  inner_product_param {
    num_output: 10
    weight_filler {
      type: "gaussian"
      std: 0.01
    }
    bias_filler {
      type: "constant"
    }
  }
}
layer {
  name: "accuracy"
  type: "Accuracy"
  bottom: "ip4"
  bottom: "label"
  top: "accuracy"
  include {
    phase: TEST
  }
}
layer {
  name: "loss"
  type: "SoftmaxWithLoss"
  bottom: "ip4"
  bottom: "label"
  top: "loss"
}
I0430 23:29:33.732641  4972 layer_factory.hpp:77] Creating layer cifar
I0430 23:29:33.732695  4972 db_lmdb.cpp:35] Opened lmdb examples/cifar10/cifar10_test_lmdb
I0430 23:29:33.732709  4972 net.cpp:86] Creating Layer cifar
I0430 23:29:33.732714  4972 net.cpp:382] cifar -> data
I0430 23:29:33.732723  4972 net.cpp:382] cifar -> label
I0430 23:29:33.732731  4972 data_transformer.cpp:25] Loading mean file from: examples/cifar10/mean.binaryproto
I0430 23:29:33.732900  4972 data_layer.cpp:45] output data size: 1000,3,32,32
I0430 23:29:33.757081  4972 net.cpp:124] Setting up cifar
I0430 23:29:33.757107  4972 net.cpp:131] Top shape: 1000 3 32 32 (3072000)
I0430 23:29:33.757113  4972 net.cpp:131] Top shape: 1000 (1000)
I0430 23:29:33.757117  4972 net.cpp:139] Memory required for data: 12292000
I0430 23:29:33.757123  4972 layer_factory.hpp:77] Creating layer label_cifar_1_split
I0430 23:29:33.757141  4972 net.cpp:86] Creating Layer label_cifar_1_split
I0430 23:29:33.757146  4972 net.cpp:408] label_cifar_1_split <- label
I0430 23:29:33.757153  4972 net.cpp:382] label_cifar_1_split -> label_cifar_1_split_0
I0430 23:29:33.757164  4972 net.cpp:382] label_cifar_1_split -> label_cifar_1_split_1
I0430 23:29:33.757289  4972 net.cpp:124] Setting up label_cifar_1_split
I0430 23:29:33.757297  4972 net.cpp:131] Top shape: 1000 (1000)
I0430 23:29:33.757302  4972 net.cpp:131] Top shape: 1000 (1000)
I0430 23:29:33.757304  4972 net.cpp:139] Memory required for data: 12300000
I0430 23:29:33.757308  4972 layer_factory.hpp:77] Creating layer conv0
I0430 23:29:33.757319  4972 net.cpp:86] Creating Layer conv0
I0430 23:29:33.757323  4972 net.cpp:408] conv0 <- data
I0430 23:29:33.757328  4972 net.cpp:382] conv0 -> conv0
I0430 23:29:33.758960  4972 net.cpp:124] Setting up conv0
I0430 23:29:33.758976  4972 net.cpp:131] Top shape: 1000 8 34 34 (9248000)
I0430 23:29:33.758980  4972 net.cpp:139] Memory required for data: 49292000
I0430 23:29:33.758991  4972 layer_factory.hpp:77] Creating layer Sigmoid0
I0430 23:29:33.758998  4972 net.cpp:86] Creating Layer Sigmoid0
I0430 23:29:33.759001  4972 net.cpp:408] Sigmoid0 <- conv0
I0430 23:29:33.759006  4972 net.cpp:382] Sigmoid0 -> Sigmoid0
I0430 23:29:33.759181  4972 net.cpp:124] Setting up Sigmoid0
I0430 23:29:33.759189  4972 net.cpp:131] Top shape: 1000 8 34 34 (9248000)
I0430 23:29:33.759193  4972 net.cpp:139] Memory required for data: 86284000
I0430 23:29:33.759196  4972 layer_factory.hpp:77] Creating layer pool0
I0430 23:29:33.759205  4972 net.cpp:86] Creating Layer pool0
I0430 23:29:33.759212  4972 net.cpp:408] pool0 <- Sigmoid0
I0430 23:29:33.759217  4972 net.cpp:382] pool0 -> pool0
I0430 23:29:33.759445  4972 net.cpp:124] Setting up pool0
I0430 23:29:33.759454  4972 net.cpp:131] Top shape: 1000 8 17 17 (2312000)
I0430 23:29:33.759459  4972 net.cpp:139] Memory required for data: 95532000
I0430 23:29:33.759462  4972 layer_factory.hpp:77] Creating layer ip1
I0430 23:29:33.759469  4972 net.cpp:86] Creating Layer ip1
I0430 23:29:33.759474  4972 net.cpp:408] ip1 <- pool0
I0430 23:29:33.759479  4972 net.cpp:382] ip1 -> ip1
I0430 23:29:33.761814  4972 net.cpp:124] Setting up ip1
I0430 23:29:33.761826  4972 net.cpp:131] Top shape: 1000 20 (20000)
I0430 23:29:33.761829  4972 net.cpp:139] Memory required for data: 95612000
I0430 23:29:33.761852  4972 layer_factory.hpp:77] Creating layer relu1
I0430 23:29:33.761859  4972 net.cpp:86] Creating Layer relu1
I0430 23:29:33.761863  4972 net.cpp:408] relu1 <- ip1
I0430 23:29:33.761868  4972 net.cpp:369] relu1 -> ip1 (in-place)
I0430 23:29:33.762030  4972 net.cpp:124] Setting up relu1
I0430 23:29:33.762039  4972 net.cpp:131] Top shape: 1000 20 (20000)
I0430 23:29:33.762043  4972 net.cpp:139] Memory required for data: 95692000
I0430 23:29:33.762046  4972 layer_factory.hpp:77] Creating layer ip2
I0430 23:29:33.762053  4972 net.cpp:86] Creating Layer ip2
I0430 23:29:33.762056  4972 net.cpp:408] ip2 <- ip1
I0430 23:29:33.762061  4972 net.cpp:382] ip2 -> ip2
I0430 23:29:33.762213  4972 net.cpp:124] Setting up ip2
I0430 23:29:33.762222  4972 net.cpp:131] Top shape: 1000 80 (80000)
I0430 23:29:33.762224  4972 net.cpp:139] Memory required for data: 96012000
I0430 23:29:33.762233  4972 layer_factory.hpp:77] Creating layer relu2
I0430 23:29:33.762240  4972 net.cpp:86] Creating Layer relu2
I0430 23:29:33.762244  4972 net.cpp:408] relu2 <- ip2
I0430 23:29:33.762248  4972 net.cpp:369] relu2 -> ip2 (in-place)
I0430 23:29:33.763015  4972 net.cpp:124] Setting up relu2
I0430 23:29:33.763028  4972 net.cpp:131] Top shape: 1000 80 (80000)
I0430 23:29:33.763032  4972 net.cpp:139] Memory required for data: 96332000
I0430 23:29:33.763036  4972 layer_factory.hpp:77] Creating layer ip3
I0430 23:29:33.763042  4972 net.cpp:86] Creating Layer ip3
I0430 23:29:33.763046  4972 net.cpp:408] ip3 <- ip2
I0430 23:29:33.763052  4972 net.cpp:382] ip3 -> ip3
I0430 23:29:33.763248  4972 net.cpp:124] Setting up ip3
I0430 23:29:33.763263  4972 net.cpp:131] Top shape: 1000 40 (40000)
I0430 23:29:33.763267  4972 net.cpp:139] Memory required for data: 96492000
I0430 23:29:33.763273  4972 layer_factory.hpp:77] Creating layer relu3
I0430 23:29:33.763280  4972 net.cpp:86] Creating Layer relu3
I0430 23:29:33.763283  4972 net.cpp:408] relu3 <- ip3
I0430 23:29:33.763303  4972 net.cpp:369] relu3 -> ip3 (in-place)
I0430 23:29:33.763453  4972 net.cpp:124] Setting up relu3
I0430 23:29:33.763461  4972 net.cpp:131] Top shape: 1000 40 (40000)
I0430 23:29:33.763465  4972 net.cpp:139] Memory required for data: 96652000
I0430 23:29:33.763474  4972 layer_factory.hpp:77] Creating layer ip4
I0430 23:29:33.763481  4972 net.cpp:86] Creating Layer ip4
I0430 23:29:33.763484  4972 net.cpp:408] ip4 <- ip3
I0430 23:29:33.763490  4972 net.cpp:382] ip4 -> ip4
I0430 23:29:33.763600  4972 net.cpp:124] Setting up ip4
I0430 23:29:33.763607  4972 net.cpp:131] Top shape: 1000 10 (10000)
I0430 23:29:33.763612  4972 net.cpp:139] Memory required for data: 96692000
I0430 23:29:33.763620  4972 layer_factory.hpp:77] Creating layer ip4_ip4_0_split
I0430 23:29:33.763628  4972 net.cpp:86] Creating Layer ip4_ip4_0_split
I0430 23:29:33.763630  4972 net.cpp:408] ip4_ip4_0_split <- ip4
I0430 23:29:33.763635  4972 net.cpp:382] ip4_ip4_0_split -> ip4_ip4_0_split_0
I0430 23:29:33.763640  4972 net.cpp:382] ip4_ip4_0_split -> ip4_ip4_0_split_1
I0430 23:29:33.763672  4972 net.cpp:124] Setting up ip4_ip4_0_split
I0430 23:29:33.763681  4972 net.cpp:131] Top shape: 1000 10 (10000)
I0430 23:29:33.763685  4972 net.cpp:131] Top shape: 1000 10 (10000)
I0430 23:29:33.763689  4972 net.cpp:139] Memory required for data: 96772000
I0430 23:29:33.763700  4972 layer_factory.hpp:77] Creating layer accuracy
I0430 23:29:33.763706  4972 net.cpp:86] Creating Layer accuracy
I0430 23:29:33.763710  4972 net.cpp:408] accuracy <- ip4_ip4_0_split_0
I0430 23:29:33.763715  4972 net.cpp:408] accuracy <- label_cifar_1_split_0
I0430 23:29:33.763720  4972 net.cpp:382] accuracy -> accuracy
…
