…
I0501 06:18:04.948026 32372 net.cpp:296] The NetState phase (0) differed from the phase (1) specified by a rule in layer cifar
I0501 06:18:04.948050 32372 net.cpp:296] The NetState phase (0) differed from the phase (1) specified by a rule in layer accuracy
I0501 06:18:04.948181 32372 net.cpp:53] Initializing net from parameters: 
name: "CIFAR"
state {
  phase: TRAIN
  level: 0
  stage: ""
}
layer {
  name: "cifar"
  type: "Data"
  top: "data"
  top: "label"
  include {
    phase: TRAIN
  }
  transform_param {
    mean_file: "examples/cifar10/mean.binaryproto"
  }
  data_param {
    source: "examples/cifar10/cifar10_train_lmdb"
    batch_size: 111
    backend: LMDB
  }
}
layer {
  name: "conv0"
  type: "Convolution"
  bottom: "data"
  top: "conv0"
  param {
    lr_mult: 1
  }
  param {
    lr_mult: 2
  }
  convolution_param {
    num_output: 8
    pad: 2
    kernel_size: 5
    stride: 1
    weight_filler {
      type: "gaussian"
      std: 0.01
    }
    bias_filler {
      type: "constant"
    }
  }
}
layer {
  name: "Sigmoid0"
  type: "Sigmoid"
  bottom: "conv0"
  top: "Sigmoid0"
}
layer {
  name: "pool0"
  type: "Pooling"
  bottom: "Sigmoid0"
  top: "pool0"
  pooling_param {
    pool: AVE
    kernel_size: 3
    stride: 2
  }
}
layer {
  name: "ip1"
  type: "InnerProduct"
  bottom: "pool0"
  top: "ip1"
  param {
    lr_mult: 1
  }
  param {
    lr_mult: 2
  }
  inner_product_param {
    num_output: 160
    weight_filler {
      type: "gaussian"
      std: 0.01
    }
    bias_filler {
      type: "constant"
    }
  }
}
layer {
  name: "relu1"
  type: "ReLU"
  bottom: "ip1"
  top: "ip1"
}
layer {
  name: "ip2"
  type: "InnerProduct"
  bottom: "ip1"
  top: "ip2"
  param {
    lr_mult: 1
  }
  param {
    lr_mult: 2
  }
  inner_product_param {
    num_output: 20
    weight_filler {
      type: "gaussian"
      std: 0.01
    }
    bias_filler {
      type: "constant"
    }
  }
}
layer {
  name: "relu2"
  type: "ReLU"
  bottom: "ip2"
  top: "ip2"
}
layer {
  name: "ip3"
  type: "InnerProduct"
  bottom: "ip2"
  top: "ip3"
  param {
    lr_mult: 1
  }
  param {
    lr_mult: 2
  }
  inner_product_param {
    num_output: 20
    weight_filler {
      type: "gaussian"
      std: 0.01
    }
    bias_filler {
      type: "constant"
    }
  }
}
layer {
  name: "relu3"
  type: "ReLU"
  bottom: "ip3"
  top: "ip3"
}
layer {
  name: "ip4"
  type: "InnerProduct"
  bottom: "ip3"
  top: "ip4"
  param {
    lr_mult: 1
  }
  param {
    lr_mult: 2
  }
  inner_product_param {
    num_output: 10
    weight_filler {
      type: "gaussian"
      std: 0.01
    }
    bias_filler {
      type: "constant"
    }
  }
}
layer {
  name: "loss"
  type: "SoftmaxWithLoss"
  bottom: "ip4"
  bottom: "label"
  top: "loss"
}
I0501 06:18:04.948297 32372 layer_factory.hpp:77] Creating layer cifar
I0501 06:18:04.948431 32372 db_lmdb.cpp:35] Opened lmdb examples/cifar10/cifar10_train_lmdb
I0501 06:18:04.948467 32372 net.cpp:86] Creating Layer cifar
I0501 06:18:04.948482 32372 net.cpp:382] cifar -> data
I0501 06:18:04.948513 32372 net.cpp:382] cifar -> label
I0501 06:18:04.948531 32372 data_transformer.cpp:25] Loading mean file from: examples/cifar10/mean.binaryproto
I0501 06:18:04.950933 32372 data_layer.cpp:45] output data size: 111,3,32,32
I0501 06:18:04.958897 32372 net.cpp:124] Setting up cifar
I0501 06:18:04.958921 32372 net.cpp:131] Top shape: 111 3 32 32 (340992)
I0501 06:18:04.958932 32372 net.cpp:131] Top shape: 111 (111)
I0501 06:18:04.958938 32372 net.cpp:139] Memory required for data: 1364412
I0501 06:18:04.958969 32372 layer_factory.hpp:77] Creating layer conv0
I0501 06:18:04.958997 32372 net.cpp:86] Creating Layer conv0
I0501 06:18:04.959008 32372 net.cpp:408] conv0 <- data
I0501 06:18:04.959026 32372 net.cpp:382] conv0 -> conv0
I0501 06:18:05.250790 32372 net.cpp:124] Setting up conv0
I0501 06:18:05.250823 32372 net.cpp:131] Top shape: 111 8 32 32 (909312)
I0501 06:18:05.250830 32372 net.cpp:139] Memory required for data: 5001660
I0501 06:18:05.250855 32372 layer_factory.hpp:77] Creating layer Sigmoid0
I0501 06:18:05.250874 32372 net.cpp:86] Creating Layer Sigmoid0
I0501 06:18:05.250888 32372 net.cpp:408] Sigmoid0 <- conv0
I0501 06:18:05.250898 32372 net.cpp:382] Sigmoid0 -> Sigmoid0
I0501 06:18:05.251107 32372 net.cpp:124] Setting up Sigmoid0
I0501 06:18:05.251121 32372 net.cpp:131] Top shape: 111 8 32 32 (909312)
I0501 06:18:05.251127 32372 net.cpp:139] Memory required for data: 8638908
I0501 06:18:05.251133 32372 layer_factory.hpp:77] Creating layer pool0
I0501 06:18:05.251163 32372 net.cpp:86] Creating Layer pool0
I0501 06:18:05.251170 32372 net.cpp:408] pool0 <- Sigmoid0
I0501 06:18:05.251179 32372 net.cpp:382] pool0 -> pool0
I0501 06:18:05.252038 32372 net.cpp:124] Setting up pool0
I0501 06:18:05.252056 32372 net.cpp:131] Top shape: 111 8 16 16 (227328)
I0501 06:18:05.252063 32372 net.cpp:139] Memory required for data: 9548220
I0501 06:18:05.252069 32372 layer_factory.hpp:77] Creating layer ip1
I0501 06:18:05.252084 32372 net.cpp:86] Creating Layer ip1
I0501 06:18:05.252091 32372 net.cpp:408] ip1 <- pool0
I0501 06:18:05.252101 32372 net.cpp:382] ip1 -> ip1
I0501 06:18:05.263538 32372 net.cpp:124] Setting up ip1
I0501 06:18:05.263555 32372 net.cpp:131] Top shape: 111 160 (17760)
I0501 06:18:05.263561 32372 net.cpp:139] Memory required for data: 9619260
I0501 06:18:05.263576 32372 layer_factory.hpp:77] Creating layer relu1
I0501 06:18:05.263586 32372 net.cpp:86] Creating Layer relu1
I0501 06:18:05.263592 32372 net.cpp:408] relu1 <- ip1
I0501 06:18:05.263602 32372 net.cpp:369] relu1 -> ip1 (in-place)
I0501 06:18:05.263785 32372 net.cpp:124] Setting up relu1
I0501 06:18:05.263797 32372 net.cpp:131] Top shape: 111 160 (17760)
I0501 06:18:05.263803 32372 net.cpp:139] Memory required for data: 9690300
I0501 06:18:05.263809 32372 layer_factory.hpp:77] Creating layer ip2
I0501 06:18:05.263820 32372 net.cpp:86] Creating Layer ip2
I0501 06:18:05.263826 32372 net.cpp:408] ip2 <- ip1
I0501 06:18:05.263836 32372 net.cpp:382] ip2 -> ip2
I0501 06:18:05.264048 32372 net.cpp:124] Setting up ip2
I0501 06:18:05.264058 32372 net.cpp:131] Top shape: 111 20 (2220)
I0501 06:18:05.264065 32372 net.cpp:139] Memory required for data: 9699180
I0501 06:18:05.264077 32372 layer_factory.hpp:77] Creating layer relu2
I0501 06:18:05.264086 32372 net.cpp:86] Creating Layer relu2
I0501 06:18:05.264092 32372 net.cpp:408] relu2 <- ip2
I0501 06:18:05.264101 32372 net.cpp:369] relu2 -> ip2 (in-place)
I0501 06:18:05.264282 32372 net.cpp:124] Setting up relu2
I0501 06:18:05.264293 32372 net.cpp:131] Top shape: 111 20 (2220)
I0501 06:18:05.264299 32372 net.cpp:139] Memory required for data: 9708060
I0501 06:18:05.264304 32372 layer_factory.hpp:77] Creating layer ip3
I0501 06:18:05.264317 32372 net.cpp:86] Creating Layer ip3
I0501 06:18:05.264323 32372 net.cpp:408] ip3 <- ip2
I0501 06:18:05.264333 32372 net.cpp:382] ip3 -> ip3
I0501 06:18:05.264454 32372 net.cpp:124] Setting up ip3
I0501 06:18:05.264464 32372 net.cpp:131] Top shape: 111 20 (2220)
I0501 06:18:05.264470 32372 net.cpp:139] Memory required for data: 9716940
I0501 06:18:05.264480 32372 layer_factory.hpp:77] Creating layer relu3
I0501 06:18:05.264489 32372 net.cpp:86] Creating Layer relu3
I0501 06:18:05.264495 32372 net.cpp:408] relu3 <- ip3
I0501 06:18:05.264503 32372 net.cpp:369] relu3 -> ip3 (in-place)
I0501 06:18:05.264675 32372 net.cpp:124] Setting up relu3
I0501 06:18:05.264686 32372 net.cpp:131] Top shape: 111 20 (2220)
I0501 06:18:05.264691 32372 net.cpp:139] Memory required for data: 9725820
I0501 06:18:05.264698 32372 layer_factory.hpp:77] Creating layer ip4
I0501 06:18:05.264724 32372 net.cpp:86] Creating Layer ip4
I0501 06:18:05.264731 32372 net.cpp:408] ip4 <- ip3
I0501 06:18:05.264740 32372 net.cpp:382] ip4 -> ip4
I0501 06:18:05.264868 32372 net.cpp:124] Setting up ip4
I0501 06:18:05.264879 32372 net.cpp:131] Top shape: 111 10 (1110)
I0501 06:18:05.264884 32372 net.cpp:139] Memory required for data: 9730260
I0501 06:18:05.264899 32372 layer_factory.hpp:77] Creating layer loss
I0501 06:18:05.264909 32372 net.cpp:86] Creating Layer loss
I0501 06:18:05.264914 32372 net.cpp:408] loss <- ip4
I0501 06:18:05.264921 32372 net.cpp:408] loss <- label
I0501 06:18:05.264930 32372 net.cpp:382] loss -> loss
I0501 06:18:05.264956 32372 layer_factory.hpp:77] Creating layer loss
…
I0501 06:18:05.266341 32372 solver.cpp:173] Creating test net (#0) specified by net file: ECE595/cifar/train_test/var_everything/cifar_train_test_446.prototxt
I0501 06:18:05.266381 32372 net.cpp:296] The NetState phase (1) differed from the phase (0) specified by a rule in layer cifar
I0501 06:18:05.266492 32372 net.cpp:53] Initializing net from parameters: 
name: "CIFAR"
state {
  phase: TEST
}
layer {
  name: "cifar"
  type: "Data"
  top: "data"
  top: "label"
  include {
    phase: TEST
  }
  transform_param {
    mean_file: "examples/cifar10/mean.binaryproto"
  }
  data_param {
    source: "examples/cifar10/cifar10_test_lmdb"
    batch_size: 1000
    backend: LMDB
  }
}
layer {
  name: "conv0"
  type: "Convolution"
  bottom: "data"
  top: "conv0"
  param {
    lr_mult: 1
  }
  param {
    lr_mult: 2
  }
  convolution_param {
    num_output: 8
    pad: 2
    kernel_size: 5
    stride: 1
    weight_filler {
      type: "gaussian"
      std: 0.01
    }
    bias_filler {
      type: "constant"
    }
  }
}
layer {
  name: "Sigmoid0"
  type: "Sigmoid"
  bottom: "conv0"
  top: "Sigmoid0"
}
layer {
  name: "pool0"
  type: "Pooling"
  bottom: "Sigmoid0"
  top: "pool0"
  pooling_param {
    pool: AVE
    kernel_size: 3
    stride: 2
  }
}
layer {
  name: "ip1"
  type: "InnerProduct"
  bottom: "pool0"
  top: "ip1"
  param {
    lr_mult: 1
  }
  param {
    lr_mult: 2
  }
  inner_product_param {
    num_output: 160
    weight_filler {
      type: "gaussian"
      std: 0.01
    }
    bias_filler {
      type: "constant"
    }
  }
}
layer {
  name: "relu1"
  type: "ReLU"
  bottom: "ip1"
  top: "ip1"
}
layer {
  name: "ip2"
  type: "InnerProduct"
  bottom: "ip1"
  top: "ip2"
  param {
    lr_mult: 1
  }
  param {
    lr_mult: 2
  }
  inner_product_param {
    num_output: 20
    weight_filler {
      type: "gaussian"
      std: 0.01
    }
    bias_filler {
      type: "constant"
    }
  }
}
layer {
  name: "relu2"
  type: "ReLU"
  bottom: "ip2"
  top: "ip2"
}
layer {
  name: "ip3"
  type: "InnerProduct"
  bottom: "ip2"
  top: "ip3"
  param {
    lr_mult: 1
  }
  param {
    lr_mult: 2
  }
  inner_product_param {
    num_output: 20
    weight_filler {
      type: "gaussian"
      std: 0.01
    }
    bias_filler {
      type: "constant"
    }
  }
}
layer {
  name: "relu3"
  type: "ReLU"
  bottom: "ip3"
  top: "ip3"
}
layer {
  name: "ip4"
  type: "InnerProduct"
  bottom: "ip3"
  top: "ip4"
  param {
    lr_mult: 1
  }
  param {
    lr_mult: 2
  }
  inner_product_param {
    num_output: 10
    weight_filler {
      type: "gaussian"
      std: 0.01
    }
    bias_filler {
      type: "constant"
    }
  }
}
layer {
  name: "accuracy"
  type: "Accuracy"
  bottom: "ip4"
  bottom: "label"
  top: "accuracy"
  include {
    phase: TEST
  }
}
layer {
  name: "loss"
  type: "SoftmaxWithLoss"
  bottom: "ip4"
  bottom: "label"
  top: "loss"
}
I0501 06:18:05.266616 32372 layer_factory.hpp:77] Creating layer cifar
I0501 06:18:05.266685 32372 db_lmdb.cpp:35] Opened lmdb examples/cifar10/cifar10_test_lmdb
I0501 06:18:05.266705 32372 net.cpp:86] Creating Layer cifar
I0501 06:18:05.266715 32372 net.cpp:382] cifar -> data
I0501 06:18:05.266727 32372 net.cpp:382] cifar -> label
I0501 06:18:05.266738 32372 data_transformer.cpp:25] Loading mean file from: examples/cifar10/mean.binaryproto
I0501 06:18:05.266957 32372 data_layer.cpp:45] output data size: 1000,3,32,32
I0501 06:18:05.290705 32372 net.cpp:124] Setting up cifar
I0501 06:18:05.290735 32372 net.cpp:131] Top shape: 1000 3 32 32 (3072000)
I0501 06:18:05.290743 32372 net.cpp:131] Top shape: 1000 (1000)
I0501 06:18:05.290748 32372 net.cpp:139] Memory required for data: 12292000
I0501 06:18:05.290757 32372 layer_factory.hpp:77] Creating layer label_cifar_1_split
I0501 06:18:05.290778 32372 net.cpp:86] Creating Layer label_cifar_1_split
I0501 06:18:05.290786 32372 net.cpp:408] label_cifar_1_split <- label
I0501 06:18:05.290796 32372 net.cpp:382] label_cifar_1_split -> label_cifar_1_split_0
I0501 06:18:05.290810 32372 net.cpp:382] label_cifar_1_split -> label_cifar_1_split_1
I0501 06:18:05.290901 32372 net.cpp:124] Setting up label_cifar_1_split
I0501 06:18:05.290911 32372 net.cpp:131] Top shape: 1000 (1000)
I0501 06:18:05.290917 32372 net.cpp:131] Top shape: 1000 (1000)
I0501 06:18:05.290922 32372 net.cpp:139] Memory required for data: 12300000
I0501 06:18:05.290928 32372 layer_factory.hpp:77] Creating layer conv0
I0501 06:18:05.290946 32372 net.cpp:86] Creating Layer conv0
I0501 06:18:05.290956 32372 net.cpp:408] conv0 <- data
I0501 06:18:05.290964 32372 net.cpp:382] conv0 -> conv0
I0501 06:18:05.292431 32372 net.cpp:124] Setting up conv0
I0501 06:18:05.292448 32372 net.cpp:131] Top shape: 1000 8 32 32 (8192000)
I0501 06:18:05.292455 32372 net.cpp:139] Memory required for data: 45068000
I0501 06:18:05.292470 32372 layer_factory.hpp:77] Creating layer Sigmoid0
I0501 06:18:05.292480 32372 net.cpp:86] Creating Layer Sigmoid0
I0501 06:18:05.292486 32372 net.cpp:408] Sigmoid0 <- conv0
I0501 06:18:05.292495 32372 net.cpp:382] Sigmoid0 -> Sigmoid0
I0501 06:18:05.293644 32372 net.cpp:124] Setting up Sigmoid0
I0501 06:18:05.293658 32372 net.cpp:131] Top shape: 1000 8 32 32 (8192000)
I0501 06:18:05.293663 32372 net.cpp:139] Memory required for data: 77836000
I0501 06:18:05.293669 32372 layer_factory.hpp:77] Creating layer pool0
I0501 06:18:05.293681 32372 net.cpp:86] Creating Layer pool0
I0501 06:18:05.293690 32372 net.cpp:408] pool0 <- Sigmoid0
I0501 06:18:05.293699 32372 net.cpp:382] pool0 -> pool0
I0501 06:18:05.293884 32372 net.cpp:124] Setting up pool0
I0501 06:18:05.293895 32372 net.cpp:131] Top shape: 1000 8 16 16 (2048000)
I0501 06:18:05.293901 32372 net.cpp:139] Memory required for data: 86028000
I0501 06:18:05.293906 32372 layer_factory.hpp:77] Creating layer ip1
I0501 06:18:05.293920 32372 net.cpp:86] Creating Layer ip1
I0501 06:18:05.293926 32372 net.cpp:408] ip1 <- pool0
I0501 06:18:05.293938 32372 net.cpp:382] ip1 -> ip1
I0501 06:18:05.303905 32372 net.cpp:124] Setting up ip1
I0501 06:18:05.303921 32372 net.cpp:131] Top shape: 1000 160 (160000)
I0501 06:18:05.303926 32372 net.cpp:139] Memory required for data: 86668000
I0501 06:18:05.303957 32372 layer_factory.hpp:77] Creating layer relu1
I0501 06:18:05.303967 32372 net.cpp:86] Creating Layer relu1
I0501 06:18:05.303978 32372 net.cpp:408] relu1 <- ip1
I0501 06:18:05.303988 32372 net.cpp:369] relu1 -> ip1 (in-place)
I0501 06:18:05.304168 32372 net.cpp:124] Setting up relu1
I0501 06:18:05.304178 32372 net.cpp:131] Top shape: 1000 160 (160000)
I0501 06:18:05.304183 32372 net.cpp:139] Memory required for data: 87308000
I0501 06:18:05.304188 32372 layer_factory.hpp:77] Creating layer ip2
I0501 06:18:05.304200 32372 net.cpp:86] Creating Layer ip2
I0501 06:18:05.304206 32372 net.cpp:408] ip2 <- ip1
I0501 06:18:05.304214 32372 net.cpp:382] ip2 -> ip2
I0501 06:18:05.304420 32372 net.cpp:124] Setting up ip2
I0501 06:18:05.304430 32372 net.cpp:131] Top shape: 1000 20 (20000)
I0501 06:18:05.304436 32372 net.cpp:139] Memory required for data: 87388000
I0501 06:18:05.304447 32372 layer_factory.hpp:77] Creating layer relu2
I0501 06:18:05.304460 32372 net.cpp:86] Creating Layer relu2
I0501 06:18:05.304468 32372 net.cpp:408] relu2 <- ip2
I0501 06:18:05.304476 32372 net.cpp:369] relu2 -> ip2 (in-place)
I0501 06:18:05.305239 32372 net.cpp:124] Setting up relu2
I0501 06:18:05.305254 32372 net.cpp:131] Top shape: 1000 20 (20000)
I0501 06:18:05.305259 32372 net.cpp:139] Memory required for data: 87468000
I0501 06:18:05.305265 32372 layer_factory.hpp:77] Creating layer ip3
I0501 06:18:05.305279 32372 net.cpp:86] Creating Layer ip3
I0501 06:18:05.305284 32372 net.cpp:408] ip3 <- ip2
I0501 06:18:05.305295 32372 net.cpp:382] ip3 -> ip3
I0501 06:18:05.305421 32372 net.cpp:124] Setting up ip3
I0501 06:18:05.305433 32372 net.cpp:131] Top shape: 1000 20 (20000)
I0501 06:18:05.305438 32372 net.cpp:139] Memory required for data: 87548000
I0501 06:18:05.305447 32372 layer_factory.hpp:77] Creating layer relu3
I0501 06:18:05.305455 32372 net.cpp:86] Creating Layer relu3
I0501 06:18:05.305460 32372 net.cpp:408] relu3 <- ip3
I0501 06:18:05.305467 32372 net.cpp:369] relu3 -> ip3 (in-place)
I0501 06:18:05.305634 32372 net.cpp:124] Setting up relu3
I0501 06:18:05.305644 32372 net.cpp:131] Top shape: 1000 20 (20000)
I0501 06:18:05.305651 32372 net.cpp:139] Memory required for data: 87628000
I0501 06:18:05.305657 32372 layer_factory.hpp:77] Creating layer ip4
I0501 06:18:05.305666 32372 net.cpp:86] Creating Layer ip4
I0501 06:18:05.305671 32372 net.cpp:408] ip4 <- ip3
I0501 06:18:05.305682 32372 net.cpp:382] ip4 -> ip4
I0501 06:18:05.305802 32372 net.cpp:124] Setting up ip4
I0501 06:18:05.305812 32372 net.cpp:131] Top shape: 1000 10 (10000)
I0501 06:18:05.305816 32372 net.cpp:139] Memory required for data: 87668000
I0501 06:18:05.305830 32372 layer_factory.hpp:77] Creating layer ip4_ip4_0_split
I0501 06:18:05.305840 32372 net.cpp:86] Creating Layer ip4_ip4_0_split
I0501 06:18:05.305847 32372 net.cpp:408] ip4_ip4_0_split <- ip4
I0501 06:18:05.305855 32372 net.cpp:382] ip4_ip4_0_split -> ip4_ip4_0_split_0
I0501 06:18:05.305866 32372 net.cpp:382] ip4_ip4_0_split -> ip4_ip4_0_split_1
I0501 06:18:05.305905 32372 net.cpp:124] Setting up ip4_ip4_0_split
I0501 06:18:05.305913 32372 net.cpp:131] Top shape: 1000 10 (10000)
I0501 06:18:05.305919 32372 net.cpp:131] Top shape: 1000 10 (10000)
I0501 06:18:05.305924 32372 net.cpp:139] Memory required for data: 87748000
I0501 06:18:05.305929 32372 layer_factory.hpp:77] Creating layer accuracy
I0501 06:18:05.305939 32372 net.cpp:86] Creating Layer accuracy
I0501 06:18:05.305944 32372 net.cpp:408] accuracy <- ip4_ip4_0_split_0
I0501 06:18:05.305951 32372 net.cpp:408] accuracy <- label_cifar_1_split_0
I0501 06:18:05.305958 32372 net.cpp:382] accuracy -> accuracy
…
