…
I0501 09:02:35.029518 12844 net.cpp:296] The NetState phase (0) differed from the phase (1) specified by a rule in layer cifar
I0501 09:02:35.029547 12844 net.cpp:296] The NetState phase (0) differed from the phase (1) specified by a rule in layer accuracy
I0501 09:02:35.029683 12844 net.cpp:53] Initializing net from parameters: 
name: "CIFAR"
state {
  phase: TRAIN
  level: 0
  stage: ""
}
layer {
  name: "cifar"
  type: "Data"
  top: "data"
  top: "label"
  include {
    phase: TRAIN
  }
  transform_param {
    mean_file: "examples/cifar10/mean.binaryproto"
  }
  data_param {
    source: "examples/cifar10/cifar10_train_lmdb"
    batch_size: 111
    backend: LMDB
  }
}
layer {
  name: "conv0"
  type: "Convolution"
  bottom: "data"
  top: "conv0"
  param {
    lr_mult: 1
  }
  param {
    lr_mult: 2
  }
  convolution_param {
    num_output: 16
    pad: 2
    kernel_size: 3
    stride: 1
    weight_filler {
      type: "gaussian"
      std: 0.01
    }
    bias_filler {
      type: "constant"
    }
  }
}
layer {
  name: "Sigmoid0"
  type: "Sigmoid"
  bottom: "conv0"
  top: "Sigmoid0"
}
layer {
  name: "pool0"
  type: "Pooling"
  bottom: "Sigmoid0"
  top: "pool0"
  pooling_param {
    pool: AVE
    kernel_size: 3
    stride: 2
  }
}
layer {
  name: "ip1"
  type: "InnerProduct"
  bottom: "pool0"
  top: "ip1"
  param {
    lr_mult: 1
  }
  param {
    lr_mult: 2
  }
  inner_product_param {
    num_output: 20
    weight_filler {
      type: "gaussian"
      std: 0.01
    }
    bias_filler {
      type: "constant"
    }
  }
}
layer {
  name: "relu1"
  type: "ReLU"
  bottom: "ip1"
  top: "ip1"
}
layer {
  name: "ip2"
  type: "InnerProduct"
  bottom: "ip1"
  top: "ip2"
  param {
    lr_mult: 1
  }
  param {
    lr_mult: 2
  }
  inner_product_param {
    num_output: 20
    weight_filler {
      type: "gaussian"
      std: 0.01
    }
    bias_filler {
      type: "constant"
    }
  }
}
layer {
  name: "relu2"
  type: "ReLU"
  bottom: "ip2"
  top: "ip2"
}
layer {
  name: "ip3"
  type: "InnerProduct"
  bottom: "ip2"
  top: "ip3"
  param {
    lr_mult: 1
  }
  param {
    lr_mult: 2
  }
  inner_product_param {
    num_output: 80
    weight_filler {
      type: "gaussian"
      std: 0.01
    }
    bias_filler {
      type: "constant"
    }
  }
}
layer {
  name: "relu3"
  type: "ReLU"
  bottom: "ip3"
  top: "ip3"
}
layer {
  name: "ip4"
  type: "InnerProduct"
  bottom: "ip3"
  top: "ip4"
  param {
    lr_mult: 1
  }
  param {
    lr_mult: 2
  }
  inner_product_param {
    num_output: 10
    weight_filler {
      type: "gaussian"
      std: 0.01
    }
    bias_filler {
      type: "constant"
    }
  }
}
layer {
  name: "loss"
  type: "SoftmaxWithLoss"
  bottom: "ip4"
  bottom: "label"
  top: "loss"
}
I0501 09:02:35.029768 12844 layer_factory.hpp:77] Creating layer cifar
I0501 09:02:35.029875 12844 db_lmdb.cpp:35] Opened lmdb examples/cifar10/cifar10_train_lmdb
I0501 09:02:35.029918 12844 net.cpp:86] Creating Layer cifar
I0501 09:02:35.029930 12844 net.cpp:382] cifar -> data
I0501 09:02:35.029953 12844 net.cpp:382] cifar -> label
I0501 09:02:35.029970 12844 data_transformer.cpp:25] Loading mean file from: examples/cifar10/mean.binaryproto
I0501 09:02:35.032027 12844 data_layer.cpp:45] output data size: 111,3,32,32
I0501 09:02:35.038769 12844 net.cpp:124] Setting up cifar
I0501 09:02:35.038784 12844 net.cpp:131] Top shape: 111 3 32 32 (340992)
I0501 09:02:35.038789 12844 net.cpp:131] Top shape: 111 (111)
I0501 09:02:35.038792 12844 net.cpp:139] Memory required for data: 1364412
I0501 09:02:35.038810 12844 layer_factory.hpp:77] Creating layer conv0
I0501 09:02:35.038831 12844 net.cpp:86] Creating Layer conv0
I0501 09:02:35.038838 12844 net.cpp:408] conv0 <- data
I0501 09:02:35.038854 12844 net.cpp:382] conv0 -> conv0
I0501 09:02:35.266585 12844 net.cpp:124] Setting up conv0
I0501 09:02:35.266613 12844 net.cpp:131] Top shape: 111 16 34 34 (2053056)
I0501 09:02:35.266616 12844 net.cpp:139] Memory required for data: 9576636
I0501 09:02:35.266631 12844 layer_factory.hpp:77] Creating layer Sigmoid0
I0501 09:02:35.266643 12844 net.cpp:86] Creating Layer Sigmoid0
I0501 09:02:35.266646 12844 net.cpp:408] Sigmoid0 <- conv0
I0501 09:02:35.266651 12844 net.cpp:382] Sigmoid0 -> Sigmoid0
I0501 09:02:35.266847 12844 net.cpp:124] Setting up Sigmoid0
I0501 09:02:35.266857 12844 net.cpp:131] Top shape: 111 16 34 34 (2053056)
I0501 09:02:35.266861 12844 net.cpp:139] Memory required for data: 17788860
I0501 09:02:35.266865 12844 layer_factory.hpp:77] Creating layer pool0
I0501 09:02:35.266890 12844 net.cpp:86] Creating Layer pool0
I0501 09:02:35.266896 12844 net.cpp:408] pool0 <- Sigmoid0
I0501 09:02:35.266902 12844 net.cpp:382] pool0 -> pool0
I0501 09:02:35.267659 12844 net.cpp:124] Setting up pool0
I0501 09:02:35.267671 12844 net.cpp:131] Top shape: 111 16 17 17 (513264)
I0501 09:02:35.267674 12844 net.cpp:139] Memory required for data: 19841916
I0501 09:02:35.267678 12844 layer_factory.hpp:77] Creating layer ip1
I0501 09:02:35.267685 12844 net.cpp:86] Creating Layer ip1
I0501 09:02:35.267688 12844 net.cpp:408] ip1 <- pool0
I0501 09:02:35.267693 12844 net.cpp:382] ip1 -> ip1
I0501 09:02:35.270279 12844 net.cpp:124] Setting up ip1
I0501 09:02:35.270288 12844 net.cpp:131] Top shape: 111 20 (2220)
I0501 09:02:35.270306 12844 net.cpp:139] Memory required for data: 19850796
I0501 09:02:35.270314 12844 layer_factory.hpp:77] Creating layer relu1
I0501 09:02:35.270320 12844 net.cpp:86] Creating Layer relu1
I0501 09:02:35.270324 12844 net.cpp:408] relu1 <- ip1
I0501 09:02:35.270329 12844 net.cpp:369] relu1 -> ip1 (in-place)
I0501 09:02:35.270515 12844 net.cpp:124] Setting up relu1
I0501 09:02:35.270524 12844 net.cpp:131] Top shape: 111 20 (2220)
I0501 09:02:35.270527 12844 net.cpp:139] Memory required for data: 19859676
I0501 09:02:35.270530 12844 layer_factory.hpp:77] Creating layer ip2
I0501 09:02:35.270539 12844 net.cpp:86] Creating Layer ip2
I0501 09:02:35.270543 12844 net.cpp:408] ip2 <- ip1
I0501 09:02:35.270550 12844 net.cpp:382] ip2 -> ip2
I0501 09:02:35.270670 12844 net.cpp:124] Setting up ip2
I0501 09:02:35.270679 12844 net.cpp:131] Top shape: 111 20 (2220)
I0501 09:02:35.270683 12844 net.cpp:139] Memory required for data: 19868556
I0501 09:02:35.270691 12844 layer_factory.hpp:77] Creating layer relu2
I0501 09:02:35.270699 12844 net.cpp:86] Creating Layer relu2
I0501 09:02:35.270704 12844 net.cpp:408] relu2 <- ip2
I0501 09:02:35.270710 12844 net.cpp:369] relu2 -> ip2 (in-place)
I0501 09:02:35.270861 12844 net.cpp:124] Setting up relu2
I0501 09:02:35.270869 12844 net.cpp:131] Top shape: 111 20 (2220)
I0501 09:02:35.270872 12844 net.cpp:139] Memory required for data: 19877436
I0501 09:02:35.270875 12844 layer_factory.hpp:77] Creating layer ip3
I0501 09:02:35.270886 12844 net.cpp:86] Creating Layer ip3
I0501 09:02:35.270890 12844 net.cpp:408] ip3 <- ip2
I0501 09:02:35.270900 12844 net.cpp:382] ip3 -> ip3
I0501 09:02:35.271040 12844 net.cpp:124] Setting up ip3
I0501 09:02:35.271047 12844 net.cpp:131] Top shape: 111 80 (8880)
I0501 09:02:35.271050 12844 net.cpp:139] Memory required for data: 19912956
I0501 09:02:35.271055 12844 layer_factory.hpp:77] Creating layer relu3
I0501 09:02:35.271062 12844 net.cpp:86] Creating Layer relu3
I0501 09:02:35.271067 12844 net.cpp:408] relu3 <- ip3
I0501 09:02:35.271072 12844 net.cpp:369] relu3 -> ip3 (in-place)
I0501 09:02:35.271221 12844 net.cpp:124] Setting up relu3
I0501 09:02:35.271229 12844 net.cpp:131] Top shape: 111 80 (8880)
I0501 09:02:35.271232 12844 net.cpp:139] Memory required for data: 19948476
I0501 09:02:35.271235 12844 layer_factory.hpp:77] Creating layer ip4
I0501 09:02:35.271261 12844 net.cpp:86] Creating Layer ip4
I0501 09:02:35.271281 12844 net.cpp:408] ip4 <- ip3
I0501 09:02:35.271291 12844 net.cpp:382] ip4 -> ip4
I0501 09:02:35.271419 12844 net.cpp:124] Setting up ip4
I0501 09:02:35.271426 12844 net.cpp:131] Top shape: 111 10 (1110)
I0501 09:02:35.271430 12844 net.cpp:139] Memory required for data: 19952916
I0501 09:02:35.271438 12844 layer_factory.hpp:77] Creating layer loss
I0501 09:02:35.271448 12844 net.cpp:86] Creating Layer loss
I0501 09:02:35.271453 12844 net.cpp:408] loss <- ip4
I0501 09:02:35.271459 12844 net.cpp:408] loss <- label
I0501 09:02:35.271466 12844 net.cpp:382] loss -> loss
I0501 09:02:35.271488 12844 layer_factory.hpp:77] Creating layer loss
…
I0501 09:02:35.272696 12844 solver.cpp:173] Creating test net (#0) specified by net file: ECE595/cifar/train_test/var_everything/cifar_train_test_528.prototxt
I0501 09:02:35.272724 12844 net.cpp:296] The NetState phase (1) differed from the phase (0) specified by a rule in layer cifar
I0501 09:02:35.272847 12844 net.cpp:53] Initializing net from parameters: 
name: "CIFAR"
state {
  phase: TEST
}
layer {
  name: "cifar"
  type: "Data"
  top: "data"
  top: "label"
  include {
    phase: TEST
  }
  transform_param {
    mean_file: "examples/cifar10/mean.binaryproto"
  }
  data_param {
    source: "examples/cifar10/cifar10_test_lmdb"
    batch_size: 1000
    backend: LMDB
  }
}
layer {
  name: "conv0"
  type: "Convolution"
  bottom: "data"
  top: "conv0"
  param {
    lr_mult: 1
  }
  param {
    lr_mult: 2
  }
  convolution_param {
    num_output: 16
    pad: 2
    kernel_size: 3
    stride: 1
    weight_filler {
      type: "gaussian"
      std: 0.01
    }
    bias_filler {
      type: "constant"
    }
  }
}
layer {
  name: "Sigmoid0"
  type: "Sigmoid"
  bottom: "conv0"
  top: "Sigmoid0"
}
layer {
  name: "pool0"
  type: "Pooling"
  bottom: "Sigmoid0"
  top: "pool0"
  pooling_param {
    pool: AVE
    kernel_size: 3
    stride: 2
  }
}
layer {
  name: "ip1"
  type: "InnerProduct"
  bottom: "pool0"
  top: "ip1"
  param {
    lr_mult: 1
  }
  param {
    lr_mult: 2
  }
  inner_product_param {
    num_output: 20
    weight_filler {
      type: "gaussian"
      std: 0.01
    }
    bias_filler {
      type: "constant"
    }
  }
}
layer {
  name: "relu1"
  type: "ReLU"
  bottom: "ip1"
  top: "ip1"
}
layer {
  name: "ip2"
  type: "InnerProduct"
  bottom: "ip1"
  top: "ip2"
  param {
    lr_mult: 1
  }
  param {
    lr_mult: 2
  }
  inner_product_param {
    num_output: 20
    weight_filler {
      type: "gaussian"
      std: 0.01
    }
    bias_filler {
      type: "constant"
    }
  }
}
layer {
  name: "relu2"
  type: "ReLU"
  bottom: "ip2"
  top: "ip2"
}
layer {
  name: "ip3"
  type: "InnerProduct"
  bottom: "ip2"
  top: "ip3"
  param {
    lr_mult: 1
  }
  param {
    lr_mult: 2
  }
  inner_product_param {
    num_output: 80
    weight_filler {
      type: "gaussian"
      std: 0.01
    }
    bias_filler {
      type: "constant"
    }
  }
}
layer {
  name: "relu3"
  type: "ReLU"
  bottom: "ip3"
  top: "ip3"
}
layer {
  name: "ip4"
  type: "InnerProduct"
  bottom: "ip3"
  top: "ip4"
  param {
    lr_mult: 1
  }
  param {
    lr_mult: 2
  }
  inner_product_param {
    num_output: 10
    weight_filler {
      type: "gaussian"
      std: 0.01
    }
    bias_filler {
      type: "constant"
    }
  }
}
layer {
  name: "accuracy"
  type: "Accuracy"
  bottom: "ip4"
  bottom: "label"
  top: "accuracy"
  include {
    phase: TEST
  }
}
layer {
  name: "loss"
  type: "SoftmaxWithLoss"
  bottom: "ip4"
  bottom: "label"
  top: "loss"
}
I0501 09:02:35.272974 12844 layer_factory.hpp:77] Creating layer cifar
I0501 09:02:35.273032 12844 db_lmdb.cpp:35] Opened lmdb examples/cifar10/cifar10_test_lmdb
I0501 09:02:35.273049 12844 net.cpp:86] Creating Layer cifar
I0501 09:02:35.273057 12844 net.cpp:382] cifar -> data
I0501 09:02:35.273068 12844 net.cpp:382] cifar -> label
I0501 09:02:35.273078 12844 data_transformer.cpp:25] Loading mean file from: examples/cifar10/mean.binaryproto
I0501 09:02:35.273296 12844 data_layer.cpp:45] output data size: 1000,3,32,32
I0501 09:02:35.294389 12844 net.cpp:124] Setting up cifar
I0501 09:02:35.294415 12844 net.cpp:131] Top shape: 1000 3 32 32 (3072000)
I0501 09:02:35.294420 12844 net.cpp:131] Top shape: 1000 (1000)
I0501 09:02:35.294423 12844 net.cpp:139] Memory required for data: 12292000
I0501 09:02:35.294428 12844 layer_factory.hpp:77] Creating layer label_cifar_1_split
I0501 09:02:35.294440 12844 net.cpp:86] Creating Layer label_cifar_1_split
I0501 09:02:35.294445 12844 net.cpp:408] label_cifar_1_split <- label
I0501 09:02:35.294456 12844 net.cpp:382] label_cifar_1_split -> label_cifar_1_split_0
I0501 09:02:35.294466 12844 net.cpp:382] label_cifar_1_split -> label_cifar_1_split_1
I0501 09:02:35.294584 12844 net.cpp:124] Setting up label_cifar_1_split
I0501 09:02:35.294591 12844 net.cpp:131] Top shape: 1000 (1000)
I0501 09:02:35.294595 12844 net.cpp:131] Top shape: 1000 (1000)
I0501 09:02:35.294597 12844 net.cpp:139] Memory required for data: 12300000
I0501 09:02:35.294600 12844 layer_factory.hpp:77] Creating layer conv0
I0501 09:02:35.294617 12844 net.cpp:86] Creating Layer conv0
I0501 09:02:35.294622 12844 net.cpp:408] conv0 <- data
I0501 09:02:35.294631 12844 net.cpp:382] conv0 -> conv0
I0501 09:02:35.296316 12844 net.cpp:124] Setting up conv0
I0501 09:02:35.296329 12844 net.cpp:131] Top shape: 1000 16 34 34 (18496000)
I0501 09:02:35.296332 12844 net.cpp:139] Memory required for data: 86284000
I0501 09:02:35.296341 12844 layer_factory.hpp:77] Creating layer Sigmoid0
I0501 09:02:35.296350 12844 net.cpp:86] Creating Layer Sigmoid0
I0501 09:02:35.296355 12844 net.cpp:408] Sigmoid0 <- conv0
I0501 09:02:35.296362 12844 net.cpp:382] Sigmoid0 -> Sigmoid0
I0501 09:02:35.296573 12844 net.cpp:124] Setting up Sigmoid0
I0501 09:02:35.296583 12844 net.cpp:131] Top shape: 1000 16 34 34 (18496000)
I0501 09:02:35.296586 12844 net.cpp:139] Memory required for data: 160268000
I0501 09:02:35.296589 12844 layer_factory.hpp:77] Creating layer pool0
I0501 09:02:35.296600 12844 net.cpp:86] Creating Layer pool0
I0501 09:02:35.296605 12844 net.cpp:408] pool0 <- Sigmoid0
I0501 09:02:35.296615 12844 net.cpp:382] pool0 -> pool0
I0501 09:02:35.296835 12844 net.cpp:124] Setting up pool0
I0501 09:02:35.296845 12844 net.cpp:131] Top shape: 1000 16 17 17 (4624000)
I0501 09:02:35.296849 12844 net.cpp:139] Memory required for data: 178764000
I0501 09:02:35.296851 12844 layer_factory.hpp:77] Creating layer ip1
I0501 09:02:35.296859 12844 net.cpp:86] Creating Layer ip1
I0501 09:02:35.296880 12844 net.cpp:408] ip1 <- pool0
I0501 09:02:35.296895 12844 net.cpp:382] ip1 -> ip1
I0501 09:02:35.299376 12844 net.cpp:124] Setting up ip1
I0501 09:02:35.299384 12844 net.cpp:131] Top shape: 1000 20 (20000)
I0501 09:02:35.299387 12844 net.cpp:139] Memory required for data: 178844000
I0501 09:02:35.299412 12844 layer_factory.hpp:77] Creating layer relu1
I0501 09:02:35.299422 12844 net.cpp:86] Creating Layer relu1
I0501 09:02:35.299427 12844 net.cpp:408] relu1 <- ip1
I0501 09:02:35.299432 12844 net.cpp:369] relu1 -> ip1 (in-place)
I0501 09:02:35.299674 12844 net.cpp:124] Setting up relu1
I0501 09:02:35.299690 12844 net.cpp:131] Top shape: 1000 20 (20000)
I0501 09:02:35.299693 12844 net.cpp:139] Memory required for data: 178924000
I0501 09:02:35.299697 12844 layer_factory.hpp:77] Creating layer ip2
I0501 09:02:35.299707 12844 net.cpp:86] Creating Layer ip2
I0501 09:02:35.299713 12844 net.cpp:408] ip2 <- ip1
I0501 09:02:35.299738 12844 net.cpp:382] ip2 -> ip2
I0501 09:02:35.299908 12844 net.cpp:124] Setting up ip2
I0501 09:02:35.299916 12844 net.cpp:131] Top shape: 1000 20 (20000)
I0501 09:02:35.299919 12844 net.cpp:139] Memory required for data: 179004000
I0501 09:02:35.299928 12844 layer_factory.hpp:77] Creating layer relu2
I0501 09:02:35.299937 12844 net.cpp:86] Creating Layer relu2
I0501 09:02:35.299965 12844 net.cpp:408] relu2 <- ip2
I0501 09:02:35.299974 12844 net.cpp:369] relu2 -> ip2 (in-place)
I0501 09:02:35.300740 12844 net.cpp:124] Setting up relu2
I0501 09:02:35.300752 12844 net.cpp:131] Top shape: 1000 20 (20000)
I0501 09:02:35.300755 12844 net.cpp:139] Memory required for data: 179084000
I0501 09:02:35.300758 12844 layer_factory.hpp:77] Creating layer ip3
I0501 09:02:35.300767 12844 net.cpp:86] Creating Layer ip3
I0501 09:02:35.300772 12844 net.cpp:408] ip3 <- ip2
I0501 09:02:35.300781 12844 net.cpp:382] ip3 -> ip3
I0501 09:02:35.300989 12844 net.cpp:124] Setting up ip3
I0501 09:02:35.300999 12844 net.cpp:131] Top shape: 1000 80 (80000)
I0501 09:02:35.301002 12844 net.cpp:139] Memory required for data: 179404000
I0501 09:02:35.301008 12844 layer_factory.hpp:77] Creating layer relu3
I0501 09:02:35.301017 12844 net.cpp:86] Creating Layer relu3
I0501 09:02:35.301023 12844 net.cpp:408] relu3 <- ip3
I0501 09:02:35.301029 12844 net.cpp:369] relu3 -> ip3 (in-place)
I0501 09:02:35.301231 12844 net.cpp:124] Setting up relu3
I0501 09:02:35.301239 12844 net.cpp:131] Top shape: 1000 80 (80000)
I0501 09:02:35.301242 12844 net.cpp:139] Memory required for data: 179724000
I0501 09:02:35.301245 12844 layer_factory.hpp:77] Creating layer ip4
I0501 09:02:35.301262 12844 net.cpp:86] Creating Layer ip4
I0501 09:02:35.301267 12844 net.cpp:408] ip4 <- ip3
I0501 09:02:35.301275 12844 net.cpp:382] ip4 -> ip4
I0501 09:02:35.301405 12844 net.cpp:124] Setting up ip4
I0501 09:02:35.301414 12844 net.cpp:131] Top shape: 1000 10 (10000)
I0501 09:02:35.301416 12844 net.cpp:139] Memory required for data: 179764000
I0501 09:02:35.301434 12844 layer_factory.hpp:77] Creating layer ip4_ip4_0_split
I0501 09:02:35.301441 12844 net.cpp:86] Creating Layer ip4_ip4_0_split
I0501 09:02:35.301445 12844 net.cpp:408] ip4_ip4_0_split <- ip4
I0501 09:02:35.301451 12844 net.cpp:382] ip4_ip4_0_split -> ip4_ip4_0_split_0
I0501 09:02:35.301460 12844 net.cpp:382] ip4_ip4_0_split -> ip4_ip4_0_split_1
I0501 09:02:35.301502 12844 net.cpp:124] Setting up ip4_ip4_0_split
I0501 09:02:35.301517 12844 net.cpp:131] Top shape: 1000 10 (10000)
I0501 09:02:35.301522 12844 net.cpp:131] Top shape: 1000 10 (10000)
I0501 09:02:35.301525 12844 net.cpp:139] Memory required for data: 179844000
I0501 09:02:35.301530 12844 layer_factory.hpp:77] Creating layer accuracy
I0501 09:02:35.301542 12844 net.cpp:86] Creating Layer accuracy
I0501 09:02:35.301548 12844 net.cpp:408] accuracy <- ip4_ip4_0_split_0
I0501 09:02:35.301554 12844 net.cpp:408] accuracy <- label_cifar_1_split_0
I0501 09:02:35.301561 12844 net.cpp:382] accuracy -> accuracy
…
