…
I0501 04:52:36.867313 26816 net.cpp:296] The NetState phase (0) differed from the phase (1) specified by a rule in layer cifar
I0501 04:52:36.867333 26816 net.cpp:296] The NetState phase (0) differed from the phase (1) specified by a rule in layer accuracy
I0501 04:52:36.867439 26816 net.cpp:53] Initializing net from parameters: 
name: "CIFAR"
state {
  phase: TRAIN
  level: 0
  stage: ""
}
layer {
  name: "cifar"
  type: "Data"
  top: "data"
  top: "label"
  include {
    phase: TRAIN
  }
  transform_param {
    mean_file: "examples/cifar10/mean.binaryproto"
  }
  data_param {
    source: "examples/cifar10/cifar10_train_lmdb"
    batch_size: 111
    backend: LMDB
  }
}
layer {
  name: "conv0"
  type: "Convolution"
  bottom: "data"
  top: "conv0"
  param {
    lr_mult: 1
  }
  param {
    lr_mult: 2
  }
  convolution_param {
    num_output: 8
    pad: 2
    kernel_size: 5
    stride: 1
    weight_filler {
      type: "gaussian"
      std: 0.01
    }
    bias_filler {
      type: "constant"
    }
  }
}
layer {
  name: "Sigmoid0"
  type: "Sigmoid"
  bottom: "conv0"
  top: "Sigmoid0"
}
layer {
  name: "pool0"
  type: "Pooling"
  bottom: "Sigmoid0"
  top: "pool0"
  pooling_param {
    pool: AVE
    kernel_size: 3
    stride: 2
  }
}
layer {
  name: "ip1"
  type: "InnerProduct"
  bottom: "pool0"
  top: "ip1"
  param {
    lr_mult: 1
  }
  param {
    lr_mult: 2
  }
  inner_product_param {
    num_output: 40
    weight_filler {
      type: "gaussian"
      std: 0.01
    }
    bias_filler {
      type: "constant"
    }
  }
}
layer {
  name: "relu1"
  type: "ReLU"
  bottom: "ip1"
  top: "ip1"
}
layer {
  name: "ip2"
  type: "InnerProduct"
  bottom: "ip1"
  top: "ip2"
  param {
    lr_mult: 1
  }
  param {
    lr_mult: 2
  }
  inner_product_param {
    num_output: 40
    weight_filler {
      type: "gaussian"
      std: 0.01
    }
    bias_filler {
      type: "constant"
    }
  }
}
layer {
  name: "relu2"
  type: "ReLU"
  bottom: "ip2"
  top: "ip2"
}
layer {
  name: "ip3"
  type: "InnerProduct"
  bottom: "ip2"
  top: "ip3"
  param {
    lr_mult: 1
  }
  param {
    lr_mult: 2
  }
  inner_product_param {
    num_output: 10
    weight_filler {
      type: "gaussian"
      std: 0.01
    }
    bias_filler {
      type: "constant"
    }
  }
}
layer {
  name: "relu3"
  type: "ReLU"
  bottom: "ip3"
  top: "ip3"
}
layer {
  name: "ip4"
  type: "InnerProduct"
  bottom: "ip3"
  top: "ip4"
  param {
    lr_mult: 1
  }
  param {
    lr_mult: 2
  }
  inner_product_param {
    num_output: 10
    weight_filler {
      type: "gaussian"
      std: 0.01
    }
    bias_filler {
      type: "constant"
    }
  }
}
layer {
  name: "loss"
  type: "SoftmaxWithLoss"
  bottom: "ip4"
  bottom: "label"
  top: "loss"
}
I0501 04:52:36.867517 26816 layer_factory.hpp:77] Creating layer cifar
I0501 04:52:36.867614 26816 db_lmdb.cpp:35] Opened lmdb examples/cifar10/cifar10_train_lmdb
I0501 04:52:36.867640 26816 net.cpp:86] Creating Layer cifar
I0501 04:52:36.867648 26816 net.cpp:382] cifar -> data
I0501 04:52:36.867671 26816 net.cpp:382] cifar -> label
I0501 04:52:36.867681 26816 data_transformer.cpp:25] Loading mean file from: examples/cifar10/mean.binaryproto
I0501 04:52:36.869853 26816 data_layer.cpp:45] output data size: 111,3,32,32
I0501 04:52:36.877807 26816 net.cpp:124] Setting up cifar
I0501 04:52:36.877826 26816 net.cpp:131] Top shape: 111 3 32 32 (340992)
I0501 04:52:36.877832 26816 net.cpp:131] Top shape: 111 (111)
I0501 04:52:36.877836 26816 net.cpp:139] Memory required for data: 1364412
I0501 04:52:36.877857 26816 layer_factory.hpp:77] Creating layer conv0
I0501 04:52:36.877877 26816 net.cpp:86] Creating Layer conv0
I0501 04:52:36.877883 26816 net.cpp:408] conv0 <- data
I0501 04:52:36.877897 26816 net.cpp:382] conv0 -> conv0
I0501 04:52:37.151870 26816 net.cpp:124] Setting up conv0
I0501 04:52:37.151896 26816 net.cpp:131] Top shape: 111 8 32 32 (909312)
I0501 04:52:37.151899 26816 net.cpp:139] Memory required for data: 5001660
I0501 04:52:37.151913 26816 layer_factory.hpp:77] Creating layer Sigmoid0
I0501 04:52:37.151924 26816 net.cpp:86] Creating Layer Sigmoid0
I0501 04:52:37.151928 26816 net.cpp:408] Sigmoid0 <- conv0
I0501 04:52:37.151933 26816 net.cpp:382] Sigmoid0 -> Sigmoid0
I0501 04:52:37.152103 26816 net.cpp:124] Setting up Sigmoid0
I0501 04:52:37.152113 26816 net.cpp:131] Top shape: 111 8 32 32 (909312)
I0501 04:52:37.152117 26816 net.cpp:139] Memory required for data: 8638908
I0501 04:52:37.152119 26816 layer_factory.hpp:77] Creating layer pool0
I0501 04:52:37.152127 26816 net.cpp:86] Creating Layer pool0
I0501 04:52:37.152129 26816 net.cpp:408] pool0 <- Sigmoid0
I0501 04:52:37.152133 26816 net.cpp:382] pool0 -> pool0
I0501 04:52:37.152897 26816 net.cpp:124] Setting up pool0
I0501 04:52:37.152910 26816 net.cpp:131] Top shape: 111 8 16 16 (227328)
I0501 04:52:37.152928 26816 net.cpp:139] Memory required for data: 9548220
I0501 04:52:37.152932 26816 layer_factory.hpp:77] Creating layer ip1
I0501 04:52:37.152941 26816 net.cpp:86] Creating Layer ip1
I0501 04:52:37.152945 26816 net.cpp:408] ip1 <- pool0
I0501 04:52:37.152951 26816 net.cpp:382] ip1 -> ip1
I0501 04:52:37.155066 26816 net.cpp:124] Setting up ip1
I0501 04:52:37.155073 26816 net.cpp:131] Top shape: 111 40 (4440)
I0501 04:52:37.155076 26816 net.cpp:139] Memory required for data: 9565980
I0501 04:52:37.155082 26816 layer_factory.hpp:77] Creating layer relu1
I0501 04:52:37.155088 26816 net.cpp:86] Creating Layer relu1
I0501 04:52:37.155092 26816 net.cpp:408] relu1 <- ip1
I0501 04:52:37.155094 26816 net.cpp:369] relu1 -> ip1 (in-place)
I0501 04:52:37.155247 26816 net.cpp:124] Setting up relu1
I0501 04:52:37.155256 26816 net.cpp:131] Top shape: 111 40 (4440)
I0501 04:52:37.155258 26816 net.cpp:139] Memory required for data: 9583740
I0501 04:52:37.155261 26816 layer_factory.hpp:77] Creating layer ip2
I0501 04:52:37.155267 26816 net.cpp:86] Creating Layer ip2
I0501 04:52:37.155269 26816 net.cpp:408] ip2 <- ip1
I0501 04:52:37.155274 26816 net.cpp:382] ip2 -> ip2
I0501 04:52:37.155397 26816 net.cpp:124] Setting up ip2
I0501 04:52:37.155403 26816 net.cpp:131] Top shape: 111 40 (4440)
I0501 04:52:37.155406 26816 net.cpp:139] Memory required for data: 9601500
I0501 04:52:37.155413 26816 layer_factory.hpp:77] Creating layer relu2
I0501 04:52:37.155417 26816 net.cpp:86] Creating Layer relu2
I0501 04:52:37.155421 26816 net.cpp:408] relu2 <- ip2
I0501 04:52:37.155424 26816 net.cpp:369] relu2 -> ip2 (in-place)
I0501 04:52:37.155561 26816 net.cpp:124] Setting up relu2
I0501 04:52:37.155568 26816 net.cpp:131] Top shape: 111 40 (4440)
I0501 04:52:37.155571 26816 net.cpp:139] Memory required for data: 9619260
I0501 04:52:37.155575 26816 layer_factory.hpp:77] Creating layer ip3
I0501 04:52:37.155580 26816 net.cpp:86] Creating Layer ip3
I0501 04:52:37.155583 26816 net.cpp:408] ip3 <- ip2
I0501 04:52:37.155587 26816 net.cpp:382] ip3 -> ip3
I0501 04:52:37.155679 26816 net.cpp:124] Setting up ip3
I0501 04:52:37.155685 26816 net.cpp:131] Top shape: 111 10 (1110)
I0501 04:52:37.155689 26816 net.cpp:139] Memory required for data: 9623700
I0501 04:52:37.155692 26816 layer_factory.hpp:77] Creating layer relu3
I0501 04:52:37.155696 26816 net.cpp:86] Creating Layer relu3
I0501 04:52:37.155699 26816 net.cpp:408] relu3 <- ip3
I0501 04:52:37.155704 26816 net.cpp:369] relu3 -> ip3 (in-place)
I0501 04:52:37.155853 26816 net.cpp:124] Setting up relu3
I0501 04:52:37.155861 26816 net.cpp:131] Top shape: 111 10 (1110)
I0501 04:52:37.155864 26816 net.cpp:139] Memory required for data: 9628140
I0501 04:52:37.155866 26816 layer_factory.hpp:77] Creating layer ip4
I0501 04:52:37.155886 26816 net.cpp:86] Creating Layer ip4
I0501 04:52:37.155889 26816 net.cpp:408] ip4 <- ip3
I0501 04:52:37.155894 26816 net.cpp:382] ip4 -> ip4
I0501 04:52:37.155984 26816 net.cpp:124] Setting up ip4
I0501 04:52:37.155992 26816 net.cpp:131] Top shape: 111 10 (1110)
I0501 04:52:37.155994 26816 net.cpp:139] Memory required for data: 9632580
I0501 04:52:37.156002 26816 layer_factory.hpp:77] Creating layer loss
I0501 04:52:37.156007 26816 net.cpp:86] Creating Layer loss
I0501 04:52:37.156009 26816 net.cpp:408] loss <- ip4
I0501 04:52:37.156013 26816 net.cpp:408] loss <- label
I0501 04:52:37.156018 26816 net.cpp:382] loss -> loss
I0501 04:52:37.156034 26816 layer_factory.hpp:77] Creating layer loss
…
I0501 04:52:37.157275 26816 solver.cpp:173] Creating test net (#0) specified by net file: ECE595/cifar/train_test/var_everything/cifar_train_test_400.prototxt
I0501 04:52:37.157316 26816 net.cpp:296] The NetState phase (1) differed from the phase (0) specified by a rule in layer cifar
I0501 04:52:37.157431 26816 net.cpp:53] Initializing net from parameters: 
name: "CIFAR"
state {
  phase: TEST
}
layer {
  name: "cifar"
  type: "Data"
  top: "data"
  top: "label"
  include {
    phase: TEST
  }
  transform_param {
    mean_file: "examples/cifar10/mean.binaryproto"
  }
  data_param {
    source: "examples/cifar10/cifar10_test_lmdb"
    batch_size: 1000
    backend: LMDB
  }
}
layer {
  name: "conv0"
  type: "Convolution"
  bottom: "data"
  top: "conv0"
  param {
    lr_mult: 1
  }
  param {
    lr_mult: 2
  }
  convolution_param {
    num_output: 8
    pad: 2
    kernel_size: 5
    stride: 1
    weight_filler {
      type: "gaussian"
      std: 0.01
    }
    bias_filler {
      type: "constant"
    }
  }
}
layer {
  name: "Sigmoid0"
  type: "Sigmoid"
  bottom: "conv0"
  top: "Sigmoid0"
}
layer {
  name: "pool0"
  type: "Pooling"
  bottom: "Sigmoid0"
  top: "pool0"
  pooling_param {
    pool: AVE
    kernel_size: 3
    stride: 2
  }
}
layer {
  name: "ip1"
  type: "InnerProduct"
  bottom: "pool0"
  top: "ip1"
  param {
    lr_mult: 1
  }
  param {
    lr_mult: 2
  }
  inner_product_param {
    num_output: 40
    weight_filler {
      type: "gaussian"
      std: 0.01
    }
    bias_filler {
      type: "constant"
    }
  }
}
layer {
  name: "relu1"
  type: "ReLU"
  bottom: "ip1"
  top: "ip1"
}
layer {
  name: "ip2"
  type: "InnerProduct"
  bottom: "ip1"
  top: "ip2"
  param {
    lr_mult: 1
  }
  param {
    lr_mult: 2
  }
  inner_product_param {
    num_output: 40
    weight_filler {
      type: "gaussian"
      std: 0.01
    }
    bias_filler {
      type: "constant"
    }
  }
}
layer {
  name: "relu2"
  type: "ReLU"
  bottom: "ip2"
  top: "ip2"
}
layer {
  name: "ip3"
  type: "InnerProduct"
  bottom: "ip2"
  top: "ip3"
  param {
    lr_mult: 1
  }
  param {
    lr_mult: 2
  }
  inner_product_param {
    num_output: 10
    weight_filler {
      type: "gaussian"
      std: 0.01
    }
    bias_filler {
      type: "constant"
    }
  }
}
layer {
  name: "relu3"
  type: "ReLU"
  bottom: "ip3"
  top: "ip3"
}
layer {
  name: "ip4"
  type: "InnerProduct"
  bottom: "ip3"
  top: "ip4"
  param {
    lr_mult: 1
  }
  param {
    lr_mult: 2
  }
  inner_product_param {
    num_output: 10
    weight_filler {
      type: "gaussian"
      std: 0.01
    }
    bias_filler {
      type: "constant"
    }
  }
}
layer {
  name: "accuracy"
  type: "Accuracy"
  bottom: "ip4"
  bottom: "label"
  top: "accuracy"
  include {
    phase: TEST
  }
}
layer {
  name: "loss"
  type: "SoftmaxWithLoss"
  bottom: "ip4"
  bottom: "label"
  top: "loss"
}
I0501 04:52:37.157505 26816 layer_factory.hpp:77] Creating layer cifar
I0501 04:52:37.157548 26816 db_lmdb.cpp:35] Opened lmdb examples/cifar10/cifar10_test_lmdb
I0501 04:52:37.157560 26816 net.cpp:86] Creating Layer cifar
I0501 04:52:37.157564 26816 net.cpp:382] cifar -> data
I0501 04:52:37.157572 26816 net.cpp:382] cifar -> label
I0501 04:52:37.157577 26816 data_transformer.cpp:25] Loading mean file from: examples/cifar10/mean.binaryproto
I0501 04:52:37.157709 26816 data_layer.cpp:45] output data size: 1000,3,32,32
I0501 04:52:37.179806 26816 net.cpp:124] Setting up cifar
I0501 04:52:37.179847 26816 net.cpp:131] Top shape: 1000 3 32 32 (3072000)
I0501 04:52:37.179852 26816 net.cpp:131] Top shape: 1000 (1000)
I0501 04:52:37.179855 26816 net.cpp:139] Memory required for data: 12292000
I0501 04:52:37.179860 26816 layer_factory.hpp:77] Creating layer label_cifar_1_split
I0501 04:52:37.179877 26816 net.cpp:86] Creating Layer label_cifar_1_split
I0501 04:52:37.179882 26816 net.cpp:408] label_cifar_1_split <- label
I0501 04:52:37.179886 26816 net.cpp:382] label_cifar_1_split -> label_cifar_1_split_0
I0501 04:52:37.179895 26816 net.cpp:382] label_cifar_1_split -> label_cifar_1_split_1
I0501 04:52:37.179967 26816 net.cpp:124] Setting up label_cifar_1_split
I0501 04:52:37.179973 26816 net.cpp:131] Top shape: 1000 (1000)
I0501 04:52:37.179976 26816 net.cpp:131] Top shape: 1000 (1000)
I0501 04:52:37.179980 26816 net.cpp:139] Memory required for data: 12300000
I0501 04:52:37.179982 26816 layer_factory.hpp:77] Creating layer conv0
I0501 04:52:37.179994 26816 net.cpp:86] Creating Layer conv0
I0501 04:52:37.179997 26816 net.cpp:408] conv0 <- data
I0501 04:52:37.180002 26816 net.cpp:382] conv0 -> conv0
I0501 04:52:37.181689 26816 net.cpp:124] Setting up conv0
I0501 04:52:37.181704 26816 net.cpp:131] Top shape: 1000 8 32 32 (8192000)
I0501 04:52:37.181706 26816 net.cpp:139] Memory required for data: 45068000
I0501 04:52:37.181715 26816 layer_factory.hpp:77] Creating layer Sigmoid0
I0501 04:52:37.181721 26816 net.cpp:86] Creating Layer Sigmoid0
I0501 04:52:37.181725 26816 net.cpp:408] Sigmoid0 <- conv0
I0501 04:52:37.181730 26816 net.cpp:382] Sigmoid0 -> Sigmoid0
I0501 04:52:37.181890 26816 net.cpp:124] Setting up Sigmoid0
I0501 04:52:37.181898 26816 net.cpp:131] Top shape: 1000 8 32 32 (8192000)
I0501 04:52:37.181901 26816 net.cpp:139] Memory required for data: 77836000
I0501 04:52:37.181905 26816 layer_factory.hpp:77] Creating layer pool0
I0501 04:52:37.181912 26816 net.cpp:86] Creating Layer pool0
I0501 04:52:37.181916 26816 net.cpp:408] pool0 <- Sigmoid0
I0501 04:52:37.181921 26816 net.cpp:382] pool0 -> pool0
I0501 04:52:37.182090 26816 net.cpp:124] Setting up pool0
I0501 04:52:37.182098 26816 net.cpp:131] Top shape: 1000 8 16 16 (2048000)
I0501 04:52:37.182101 26816 net.cpp:139] Memory required for data: 86028000
I0501 04:52:37.182104 26816 layer_factory.hpp:77] Creating layer ip1
I0501 04:52:37.182111 26816 net.cpp:86] Creating Layer ip1
I0501 04:52:37.182114 26816 net.cpp:408] ip1 <- pool0
I0501 04:52:37.182119 26816 net.cpp:382] ip1 -> ip1
I0501 04:52:37.184403 26816 net.cpp:124] Setting up ip1
I0501 04:52:37.184412 26816 net.cpp:131] Top shape: 1000 40 (40000)
I0501 04:52:37.184430 26816 net.cpp:139] Memory required for data: 86188000
I0501 04:52:37.184453 26816 layer_factory.hpp:77] Creating layer relu1
I0501 04:52:37.184473 26816 net.cpp:86] Creating Layer relu1
I0501 04:52:37.184475 26816 net.cpp:408] relu1 <- ip1
I0501 04:52:37.184479 26816 net.cpp:369] relu1 -> ip1 (in-place)
I0501 04:52:37.184633 26816 net.cpp:124] Setting up relu1
I0501 04:52:37.184640 26816 net.cpp:131] Top shape: 1000 40 (40000)
I0501 04:52:37.184643 26816 net.cpp:139] Memory required for data: 86348000
I0501 04:52:37.184646 26816 layer_factory.hpp:77] Creating layer ip2
I0501 04:52:37.184653 26816 net.cpp:86] Creating Layer ip2
I0501 04:52:37.184655 26816 net.cpp:408] ip2 <- ip1
I0501 04:52:37.184660 26816 net.cpp:382] ip2 -> ip2
I0501 04:52:37.184794 26816 net.cpp:124] Setting up ip2
I0501 04:52:37.184800 26816 net.cpp:131] Top shape: 1000 40 (40000)
I0501 04:52:37.184803 26816 net.cpp:139] Memory required for data: 86508000
I0501 04:52:37.184831 26816 layer_factory.hpp:77] Creating layer relu2
I0501 04:52:37.184839 26816 net.cpp:86] Creating Layer relu2
I0501 04:52:37.184856 26816 net.cpp:408] relu2 <- ip2
I0501 04:52:37.184860 26816 net.cpp:369] relu2 -> ip2 (in-place)
I0501 04:52:37.185637 26816 net.cpp:124] Setting up relu2
I0501 04:52:37.185649 26816 net.cpp:131] Top shape: 1000 40 (40000)
I0501 04:52:37.185667 26816 net.cpp:139] Memory required for data: 86668000
I0501 04:52:37.185672 26816 layer_factory.hpp:77] Creating layer ip3
I0501 04:52:37.185678 26816 net.cpp:86] Creating Layer ip3
I0501 04:52:37.185680 26816 net.cpp:408] ip3 <- ip2
I0501 04:52:37.185686 26816 net.cpp:382] ip3 -> ip3
I0501 04:52:37.185796 26816 net.cpp:124] Setting up ip3
I0501 04:52:37.185802 26816 net.cpp:131] Top shape: 1000 10 (10000)
I0501 04:52:37.185806 26816 net.cpp:139] Memory required for data: 86708000
I0501 04:52:37.185811 26816 layer_factory.hpp:77] Creating layer relu3
I0501 04:52:37.185819 26816 net.cpp:86] Creating Layer relu3
I0501 04:52:37.185822 26816 net.cpp:408] relu3 <- ip3
I0501 04:52:37.185827 26816 net.cpp:369] relu3 -> ip3 (in-place)
I0501 04:52:37.185969 26816 net.cpp:124] Setting up relu3
I0501 04:52:37.185978 26816 net.cpp:131] Top shape: 1000 10 (10000)
I0501 04:52:37.185981 26816 net.cpp:139] Memory required for data: 86748000
I0501 04:52:37.185984 26816 layer_factory.hpp:77] Creating layer ip4
I0501 04:52:37.185992 26816 net.cpp:86] Creating Layer ip4
I0501 04:52:37.185994 26816 net.cpp:408] ip4 <- ip3
I0501 04:52:37.186000 26816 net.cpp:382] ip4 -> ip4
I0501 04:52:37.186101 26816 net.cpp:124] Setting up ip4
I0501 04:52:37.186107 26816 net.cpp:131] Top shape: 1000 10 (10000)
I0501 04:52:37.186110 26816 net.cpp:139] Memory required for data: 86788000
I0501 04:52:37.186117 26816 layer_factory.hpp:77] Creating layer ip4_ip4_0_split
I0501 04:52:37.186122 26816 net.cpp:86] Creating Layer ip4_ip4_0_split
I0501 04:52:37.186125 26816 net.cpp:408] ip4_ip4_0_split <- ip4
I0501 04:52:37.186128 26816 net.cpp:382] ip4_ip4_0_split -> ip4_ip4_0_split_0
I0501 04:52:37.186134 26816 net.cpp:382] ip4_ip4_0_split -> ip4_ip4_0_split_1
I0501 04:52:37.186163 26816 net.cpp:124] Setting up ip4_ip4_0_split
I0501 04:52:37.186167 26816 net.cpp:131] Top shape: 1000 10 (10000)
I0501 04:52:37.186170 26816 net.cpp:131] Top shape: 1000 10 (10000)
I0501 04:52:37.186173 26816 net.cpp:139] Memory required for data: 86868000
I0501 04:52:37.186175 26816 layer_factory.hpp:77] Creating layer accuracy
I0501 04:52:37.186182 26816 net.cpp:86] Creating Layer accuracy
I0501 04:52:37.186184 26816 net.cpp:408] accuracy <- ip4_ip4_0_split_0
I0501 04:52:37.186188 26816 net.cpp:408] accuracy <- label_cifar_1_split_0
I0501 04:52:37.186192 26816 net.cpp:382] accuracy -> accuracy
…
