…
I0430 18:51:16.268339 24495 net.cpp:296] The NetState phase (0) differed from the phase (1) specified by a rule in layer cifar
I0430 18:51:16.268355 24495 net.cpp:296] The NetState phase (0) differed from the phase (1) specified by a rule in layer accuracy
I0430 18:51:16.268440 24495 net.cpp:53] Initializing net from parameters: 
name: "CIFAR"
state {
  phase: TRAIN
  level: 0
  stage: ""
}
layer {
  name: "cifar"
  type: "Data"
  top: "data"
  top: "label"
  include {
    phase: TRAIN
  }
  transform_param {
    mean_file: "examples/cifar10/mean.binaryproto"
  }
  data_param {
    source: "examples/cifar10/cifar10_train_lmdb"
    batch_size: 111
    backend: LMDB
  }
}
layer {
  name: "ip1"
  type: "InnerProduct"
  bottom: "data"
  top: "ip1"
  param {
    lr_mult: 1
  }
  param {
    lr_mult: 2
  }
  inner_product_param {
    num_output: 20
    weight_filler {
      type: "gaussian"
      std: 0.01
    }
    bias_filler {
      type: "constant"
    }
  }
}
layer {
  name: "relu1"
  type: "ReLU"
  bottom: "ip1"
  top: "ip1"
}
layer {
  name: "ip2"
  type: "InnerProduct"
  bottom: "ip1"
  top: "ip2"
  param {
    lr_mult: 1
  }
  param {
    lr_mult: 2
  }
  inner_product_param {
    num_output: 160
    weight_filler {
      type: "gaussian"
      std: 0.01
    }
    bias_filler {
      type: "constant"
    }
  }
}
layer {
  name: "relu2"
  type: "ReLU"
  bottom: "ip2"
  top: "ip2"
}
layer {
  name: "ip3"
  type: "InnerProduct"
  bottom: "ip2"
  top: "ip3"
  param {
    lr_mult: 1
  }
  param {
    lr_mult: 2
  }
  inner_product_param {
    num_output: 160
    weight_filler {
      type: "gaussian"
      std: 0.01
    }
    bias_filler {
      type: "constant"
    }
  }
}
layer {
  name: "relu3"
  type: "ReLU"
  bottom: "ip3"
  top: "ip3"
}
layer {
  name: "ip4"
  type: "InnerProduct"
  bottom: "ip3"
  top: "ip4"
  param {
    lr_mult: 1
  }
  param {
    lr_mult: 2
  }
  inner_product_param {
    num_output: 10
    weight_filler {
      type: "gaussian"
      std: 0.01
    }
    bias_filler {
      type: "constant"
    }
  }
}
layer {
  name: "loss"
  type: "SoftmaxWithLoss"
  bottom: "ip4"
  bottom: "label"
  top: "loss"
}
I0430 18:51:16.268509 24495 layer_factory.hpp:77] Creating layer cifar
I0430 18:51:16.268611 24495 db_lmdb.cpp:35] Opened lmdb examples/cifar10/cifar10_train_lmdb
I0430 18:51:16.268640 24495 net.cpp:86] Creating Layer cifar
I0430 18:51:16.268648 24495 net.cpp:382] cifar -> data
I0430 18:51:16.268671 24495 net.cpp:382] cifar -> label
I0430 18:51:16.268683 24495 data_transformer.cpp:25] Loading mean file from: examples/cifar10/mean.binaryproto
I0430 18:51:16.270838 24495 data_layer.cpp:45] output data size: 111,3,32,32
I0430 18:51:16.278729 24495 net.cpp:124] Setting up cifar
I0430 18:51:16.278748 24495 net.cpp:131] Top shape: 111 3 32 32 (340992)
I0430 18:51:16.278755 24495 net.cpp:131] Top shape: 111 (111)
I0430 18:51:16.278759 24495 net.cpp:139] Memory required for data: 1364412
I0430 18:51:16.278766 24495 layer_factory.hpp:77] Creating layer ip1
I0430 18:51:16.278807 24495 net.cpp:86] Creating Layer ip1
I0430 18:51:16.278815 24495 net.cpp:408] ip1 <- data
I0430 18:51:16.278826 24495 net.cpp:382] ip1 -> ip1
I0430 18:51:16.282016 24495 net.cpp:124] Setting up ip1
I0430 18:51:16.282032 24495 net.cpp:131] Top shape: 111 20 (2220)
I0430 18:51:16.282035 24495 net.cpp:139] Memory required for data: 1373292
I0430 18:51:16.282048 24495 layer_factory.hpp:77] Creating layer relu1
I0430 18:51:16.282059 24495 net.cpp:86] Creating Layer relu1
I0430 18:51:16.282079 24495 net.cpp:408] relu1 <- ip1
I0430 18:51:16.282085 24495 net.cpp:369] relu1 -> ip1 (in-place)
I0430 18:51:16.562708 24495 net.cpp:124] Setting up relu1
I0430 18:51:16.562737 24495 net.cpp:131] Top shape: 111 20 (2220)
I0430 18:51:16.562742 24495 net.cpp:139] Memory required for data: 1382172
I0430 18:51:16.562747 24495 layer_factory.hpp:77] Creating layer ip2
I0430 18:51:16.562760 24495 net.cpp:86] Creating Layer ip2
I0430 18:51:16.562765 24495 net.cpp:408] ip2 <- ip1
I0430 18:51:16.562772 24495 net.cpp:382] ip2 -> ip2
I0430 18:51:16.562978 24495 net.cpp:124] Setting up ip2
I0430 18:51:16.562986 24495 net.cpp:131] Top shape: 111 160 (17760)
I0430 18:51:16.562990 24495 net.cpp:139] Memory required for data: 1453212
I0430 18:51:16.562999 24495 layer_factory.hpp:77] Creating layer relu2
I0430 18:51:16.563007 24495 net.cpp:86] Creating Layer relu2
I0430 18:51:16.563010 24495 net.cpp:408] relu2 <- ip2
I0430 18:51:16.563015 24495 net.cpp:369] relu2 -> ip2 (in-place)
I0430 18:51:16.563794 24495 net.cpp:124] Setting up relu2
I0430 18:51:16.563807 24495 net.cpp:131] Top shape: 111 160 (17760)
I0430 18:51:16.563810 24495 net.cpp:139] Memory required for data: 1524252
I0430 18:51:16.563814 24495 layer_factory.hpp:77] Creating layer ip3
I0430 18:51:16.563822 24495 net.cpp:86] Creating Layer ip3
I0430 18:51:16.563825 24495 net.cpp:408] ip3 <- ip2
I0430 18:51:16.563830 24495 net.cpp:382] ip3 -> ip3
I0430 18:51:16.564641 24495 net.cpp:124] Setting up ip3
I0430 18:51:16.564651 24495 net.cpp:131] Top shape: 111 160 (17760)
I0430 18:51:16.564653 24495 net.cpp:139] Memory required for data: 1595292
I0430 18:51:16.564661 24495 layer_factory.hpp:77] Creating layer relu3
I0430 18:51:16.564666 24495 net.cpp:86] Creating Layer relu3
I0430 18:51:16.564669 24495 net.cpp:408] relu3 <- ip3
I0430 18:51:16.564673 24495 net.cpp:369] relu3 -> ip3 (in-place)
I0430 18:51:16.564833 24495 net.cpp:124] Setting up relu3
I0430 18:51:16.564843 24495 net.cpp:131] Top shape: 111 160 (17760)
I0430 18:51:16.564847 24495 net.cpp:139] Memory required for data: 1666332
I0430 18:51:16.564851 24495 layer_factory.hpp:77] Creating layer ip4
I0430 18:51:16.564857 24495 net.cpp:86] Creating Layer ip4
I0430 18:51:16.564859 24495 net.cpp:408] ip4 <- ip3
I0430 18:51:16.564864 24495 net.cpp:382] ip4 -> ip4
I0430 18:51:16.565002 24495 net.cpp:124] Setting up ip4
I0430 18:51:16.565009 24495 net.cpp:131] Top shape: 111 10 (1110)
I0430 18:51:16.565012 24495 net.cpp:139] Memory required for data: 1670772
I0430 18:51:16.565017 24495 layer_factory.hpp:77] Creating layer loss
I0430 18:51:16.565024 24495 net.cpp:86] Creating Layer loss
I0430 18:51:16.565027 24495 net.cpp:408] loss <- ip4
I0430 18:51:16.565032 24495 net.cpp:408] loss <- label
I0430 18:51:16.565037 24495 net.cpp:382] loss -> loss
I0430 18:51:16.565054 24495 layer_factory.hpp:77] Creating layer loss
…
I0430 18:51:16.565618 24495 solver.cpp:173] Creating test net (#0) specified by net file: ECE595/cifar/train_test/var_everything/cifar_train_test_79.prototxt
I0430 18:51:16.565656 24495 net.cpp:296] The NetState phase (1) differed from the phase (0) specified by a rule in layer cifar
I0430 18:51:16.565732 24495 net.cpp:53] Initializing net from parameters: 
name: "CIFAR"
state {
  phase: TEST
}
layer {
  name: "cifar"
  type: "Data"
  top: "data"
  top: "label"
  include {
    phase: TEST
  }
  transform_param {
    mean_file: "examples/cifar10/mean.binaryproto"
  }
  data_param {
    source: "examples/cifar10/cifar10_test_lmdb"
    batch_size: 1000
    backend: LMDB
  }
}
layer {
  name: "ip1"
  type: "InnerProduct"
  bottom: "data"
  top: "ip1"
  param {
    lr_mult: 1
  }
  param {
    lr_mult: 2
  }
  inner_product_param {
    num_output: 20
    weight_filler {
      type: "gaussian"
      std: 0.01
    }
    bias_filler {
      type: "constant"
    }
  }
}
layer {
  name: "relu1"
  type: "ReLU"
  bottom: "ip1"
  top: "ip1"
}
layer {
  name: "ip2"
  type: "InnerProduct"
  bottom: "ip1"
  top: "ip2"
  param {
    lr_mult: 1
  }
  param {
    lr_mult: 2
  }
  inner_product_param {
    num_output: 160
    weight_filler {
      type: "gaussian"
      std: 0.01
    }
    bias_filler {
      type: "constant"
    }
  }
}
layer {
  name: "relu2"
  type: "ReLU"
  bottom: "ip2"
  top: "ip2"
}
layer {
  name: "ip3"
  type: "InnerProduct"
  bottom: "ip2"
  top: "ip3"
  param {
    lr_mult: 1
  }
  param {
    lr_mult: 2
  }
  inner_product_param {
    num_output: 160
    weight_filler {
      type: "gaussian"
      std: 0.01
    }
    bias_filler {
      type: "constant"
    }
  }
}
layer {
  name: "relu3"
  type: "ReLU"
  bottom: "ip3"
  top: "ip3"
}
layer {
  name: "ip4"
  type: "InnerProduct"
  bottom: "ip3"
  top: "ip4"
  param {
    lr_mult: 1
  }
  param {
    lr_mult: 2
  }
  inner_product_param {
    num_output: 10
    weight_filler {
      type: "gaussian"
      std: 0.01
    }
    bias_filler {
      type: "constant"
    }
  }
}
layer {
  name: "accuracy"
  type: "Accuracy"
  bottom: "ip4"
  bottom: "label"
  top: "accuracy"
  include {
    phase: TEST
  }
}
layer {
  name: "loss"
  type: "SoftmaxWithLoss"
  bottom: "ip4"
  bottom: "label"
  top: "loss"
}
I0430 18:51:16.565790 24495 layer_factory.hpp:77] Creating layer cifar
I0430 18:51:16.565836 24495 db_lmdb.cpp:35] Opened lmdb examples/cifar10/cifar10_test_lmdb
I0430 18:51:16.565848 24495 net.cpp:86] Creating Layer cifar
I0430 18:51:16.565853 24495 net.cpp:382] cifar -> data
I0430 18:51:16.565860 24495 net.cpp:382] cifar -> label
I0430 18:51:16.565867 24495 data_transformer.cpp:25] Loading mean file from: examples/cifar10/mean.binaryproto
I0430 18:51:16.566009 24495 data_layer.cpp:45] output data size: 1000,3,32,32
I0430 18:51:16.588860 24495 net.cpp:124] Setting up cifar
I0430 18:51:16.588918 24495 net.cpp:131] Top shape: 1000 3 32 32 (3072000)
I0430 18:51:16.588924 24495 net.cpp:131] Top shape: 1000 (1000)
I0430 18:51:16.588928 24495 net.cpp:139] Memory required for data: 12292000
I0430 18:51:16.588934 24495 layer_factory.hpp:77] Creating layer label_cifar_1_split
I0430 18:51:16.588951 24495 net.cpp:86] Creating Layer label_cifar_1_split
I0430 18:51:16.588956 24495 net.cpp:408] label_cifar_1_split <- label
I0430 18:51:16.588963 24495 net.cpp:382] label_cifar_1_split -> label_cifar_1_split_0
I0430 18:51:16.588971 24495 net.cpp:382] label_cifar_1_split -> label_cifar_1_split_1
I0430 18:51:16.589073 24495 net.cpp:124] Setting up label_cifar_1_split
I0430 18:51:16.589097 24495 net.cpp:131] Top shape: 1000 (1000)
I0430 18:51:16.589102 24495 net.cpp:131] Top shape: 1000 (1000)
I0430 18:51:16.589104 24495 net.cpp:139] Memory required for data: 12300000
I0430 18:51:16.589107 24495 layer_factory.hpp:77] Creating layer ip1
I0430 18:51:16.589118 24495 net.cpp:86] Creating Layer ip1
I0430 18:51:16.589120 24495 net.cpp:408] ip1 <- data
I0430 18:51:16.589140 24495 net.cpp:382] ip1 -> ip1
I0430 18:51:16.591821 24495 net.cpp:124] Setting up ip1
I0430 18:51:16.591831 24495 net.cpp:131] Top shape: 1000 20 (20000)
I0430 18:51:16.591835 24495 net.cpp:139] Memory required for data: 12380000
I0430 18:51:16.591858 24495 layer_factory.hpp:77] Creating layer relu1
I0430 18:51:16.591866 24495 net.cpp:86] Creating Layer relu1
I0430 18:51:16.591868 24495 net.cpp:408] relu1 <- ip1
I0430 18:51:16.591872 24495 net.cpp:369] relu1 -> ip1 (in-place)
I0430 18:51:16.592614 24495 net.cpp:124] Setting up relu1
I0430 18:51:16.592627 24495 net.cpp:131] Top shape: 1000 20 (20000)
I0430 18:51:16.592630 24495 net.cpp:139] Memory required for data: 12460000
I0430 18:51:16.592633 24495 layer_factory.hpp:77] Creating layer ip2
I0430 18:51:16.592643 24495 net.cpp:86] Creating Layer ip2
I0430 18:51:16.592645 24495 net.cpp:408] ip2 <- ip1
I0430 18:51:16.592659 24495 net.cpp:382] ip2 -> ip2
I0430 18:51:16.592874 24495 net.cpp:124] Setting up ip2
I0430 18:51:16.592881 24495 net.cpp:131] Top shape: 1000 160 (160000)
I0430 18:51:16.592885 24495 net.cpp:139] Memory required for data: 13100000
I0430 18:51:16.592892 24495 layer_factory.hpp:77] Creating layer relu2
I0430 18:51:16.592905 24495 net.cpp:86] Creating Layer relu2
I0430 18:51:16.592907 24495 net.cpp:408] relu2 <- ip2
I0430 18:51:16.592911 24495 net.cpp:369] relu2 -> ip2 (in-place)
I0430 18:51:16.593056 24495 net.cpp:124] Setting up relu2
I0430 18:51:16.593065 24495 net.cpp:131] Top shape: 1000 160 (160000)
I0430 18:51:16.593073 24495 net.cpp:139] Memory required for data: 13740000
I0430 18:51:16.593076 24495 layer_factory.hpp:77] Creating layer ip3
I0430 18:51:16.593082 24495 net.cpp:86] Creating Layer ip3
I0430 18:51:16.593086 24495 net.cpp:408] ip3 <- ip2
I0430 18:51:16.593091 24495 net.cpp:382] ip3 -> ip3
I0430 18:51:16.593911 24495 net.cpp:124] Setting up ip3
I0430 18:51:16.593919 24495 net.cpp:131] Top shape: 1000 160 (160000)
I0430 18:51:16.593921 24495 net.cpp:139] Memory required for data: 14380000
I0430 18:51:16.593927 24495 layer_factory.hpp:77] Creating layer relu3
I0430 18:51:16.593932 24495 net.cpp:86] Creating Layer relu3
I0430 18:51:16.593935 24495 net.cpp:408] relu3 <- ip3
I0430 18:51:16.593940 24495 net.cpp:369] relu3 -> ip3 (in-place)
I0430 18:51:16.594077 24495 net.cpp:124] Setting up relu3
I0430 18:51:16.594085 24495 net.cpp:131] Top shape: 1000 160 (160000)
I0430 18:51:16.594089 24495 net.cpp:139] Memory required for data: 15020000
I0430 18:51:16.594092 24495 layer_factory.hpp:77] Creating layer ip4
I0430 18:51:16.594099 24495 net.cpp:86] Creating Layer ip4
I0430 18:51:16.594101 24495 net.cpp:408] ip4 <- ip3
I0430 18:51:16.594106 24495 net.cpp:382] ip4 -> ip4
I0430 18:51:16.594235 24495 net.cpp:124] Setting up ip4
I0430 18:51:16.594241 24495 net.cpp:131] Top shape: 1000 10 (10000)
I0430 18:51:16.594244 24495 net.cpp:139] Memory required for data: 15060000
I0430 18:51:16.594249 24495 layer_factory.hpp:77] Creating layer ip4_ip4_0_split
I0430 18:51:16.594254 24495 net.cpp:86] Creating Layer ip4_ip4_0_split
I0430 18:51:16.594256 24495 net.cpp:408] ip4_ip4_0_split <- ip4
I0430 18:51:16.594260 24495 net.cpp:382] ip4_ip4_0_split -> ip4_ip4_0_split_0
I0430 18:51:16.594266 24495 net.cpp:382] ip4_ip4_0_split -> ip4_ip4_0_split_1
I0430 18:51:16.594295 24495 net.cpp:124] Setting up ip4_ip4_0_split
I0430 18:51:16.594300 24495 net.cpp:131] Top shape: 1000 10 (10000)
I0430 18:51:16.594305 24495 net.cpp:131] Top shape: 1000 10 (10000)
I0430 18:51:16.594306 24495 net.cpp:139] Memory required for data: 15140000
I0430 18:51:16.594310 24495 layer_factory.hpp:77] Creating layer accuracy
I0430 18:51:16.594314 24495 net.cpp:86] Creating Layer accuracy
I0430 18:51:16.594317 24495 net.cpp:408] accuracy <- ip4_ip4_0_split_0
I0430 18:51:16.594321 24495 net.cpp:408] accuracy <- label_cifar_1_split_0
I0430 18:51:16.594324 24495 net.cpp:382] accuracy -> accuracy
…
