…
I0501 08:16:04.618749  9962 net.cpp:296] The NetState phase (0) differed from the phase (1) specified by a rule in layer cifar
I0501 08:16:04.618769  9962 net.cpp:296] The NetState phase (0) differed from the phase (1) specified by a rule in layer accuracy
I0501 08:16:04.618875  9962 net.cpp:53] Initializing net from parameters: 
name: "CIFAR"
state {
  phase: TRAIN
  level: 0
  stage: ""
}
layer {
  name: "cifar"
  type: "Data"
  top: "data"
  top: "label"
  include {
    phase: TRAIN
  }
  transform_param {
    mean_file: "examples/cifar10/mean.binaryproto"
  }
  data_param {
    source: "examples/cifar10/cifar10_train_lmdb"
    batch_size: 111
    backend: LMDB
  }
}
layer {
  name: "conv0"
  type: "Convolution"
  bottom: "data"
  top: "conv0"
  param {
    lr_mult: 1
  }
  param {
    lr_mult: 2
  }
  convolution_param {
    num_output: 16
    pad: 2
    kernel_size: 3
    stride: 1
    weight_filler {
      type: "gaussian"
      std: 0.01
    }
    bias_filler {
      type: "constant"
    }
  }
}
layer {
  name: "Sigmoid0"
  type: "Sigmoid"
  bottom: "conv0"
  top: "Sigmoid0"
}
layer {
  name: "pool0"
  type: "Pooling"
  bottom: "Sigmoid0"
  top: "pool0"
  pooling_param {
    pool: AVE
    kernel_size: 3
    stride: 2
  }
}
layer {
  name: "ip1"
  type: "InnerProduct"
  bottom: "pool0"
  top: "ip1"
  param {
    lr_mult: 1
  }
  param {
    lr_mult: 2
  }
  inner_product_param {
    num_output: 10
    weight_filler {
      type: "gaussian"
      std: 0.01
    }
    bias_filler {
      type: "constant"
    }
  }
}
layer {
  name: "relu1"
  type: "ReLU"
  bottom: "ip1"
  top: "ip1"
}
layer {
  name: "ip2"
  type: "InnerProduct"
  bottom: "ip1"
  top: "ip2"
  param {
    lr_mult: 1
  }
  param {
    lr_mult: 2
  }
  inner_product_param {
    num_output: 40
    weight_filler {
      type: "gaussian"
      std: 0.01
    }
    bias_filler {
      type: "constant"
    }
  }
}
layer {
  name: "relu2"
  type: "ReLU"
  bottom: "ip2"
  top: "ip2"
}
layer {
  name: "ip3"
  type: "InnerProduct"
  bottom: "ip2"
  top: "ip3"
  param {
    lr_mult: 1
  }
  param {
    lr_mult: 2
  }
  inner_product_param {
    num_output: 20
    weight_filler {
      type: "gaussian"
      std: 0.01
    }
    bias_filler {
      type: "constant"
    }
  }
}
layer {
  name: "relu3"
  type: "ReLU"
  bottom: "ip3"
  top: "ip3"
}
layer {
  name: "ip4"
  type: "InnerProduct"
  bottom: "ip3"
  top: "ip4"
  param {
    lr_mult: 1
  }
  param {
    lr_mult: 2
  }
  inner_product_param {
    num_output: 10
    weight_filler {
      type: "gaussian"
      std: 0.01
    }
    bias_filler {
      type: "constant"
    }
  }
}
layer {
  name: "loss"
  type: "SoftmaxWithLoss"
  bottom: "ip4"
  bottom: "label"
  top: "loss"
}
I0501 08:16:04.618955  9962 layer_factory.hpp:77] Creating layer cifar
I0501 08:16:04.619055  9962 db_lmdb.cpp:35] Opened lmdb examples/cifar10/cifar10_train_lmdb
I0501 08:16:04.619083  9962 net.cpp:86] Creating Layer cifar
I0501 08:16:04.619092  9962 net.cpp:382] cifar -> data
I0501 08:16:04.619115  9962 net.cpp:382] cifar -> label
I0501 08:16:04.619127  9962 data_transformer.cpp:25] Loading mean file from: examples/cifar10/mean.binaryproto
I0501 08:16:04.621253  9962 data_layer.cpp:45] output data size: 111,3,32,32
I0501 08:16:04.629113  9962 net.cpp:124] Setting up cifar
I0501 08:16:04.629132  9962 net.cpp:131] Top shape: 111 3 32 32 (340992)
I0501 08:16:04.629140  9962 net.cpp:131] Top shape: 111 (111)
I0501 08:16:04.629144  9962 net.cpp:139] Memory required for data: 1364412
I0501 08:16:04.629168  9962 layer_factory.hpp:77] Creating layer conv0
I0501 08:16:04.629184  9962 net.cpp:86] Creating Layer conv0
I0501 08:16:04.629190  9962 net.cpp:408] conv0 <- data
I0501 08:16:04.629204  9962 net.cpp:382] conv0 -> conv0
I0501 08:16:04.914325  9962 net.cpp:124] Setting up conv0
I0501 08:16:04.914352  9962 net.cpp:131] Top shape: 111 16 34 34 (2053056)
I0501 08:16:04.914357  9962 net.cpp:139] Memory required for data: 9576636
I0501 08:16:04.914371  9962 layer_factory.hpp:77] Creating layer Sigmoid0
I0501 08:16:04.914383  9962 net.cpp:86] Creating Layer Sigmoid0
I0501 08:16:04.914387  9962 net.cpp:408] Sigmoid0 <- conv0
I0501 08:16:04.914392  9962 net.cpp:382] Sigmoid0 -> Sigmoid0
I0501 08:16:04.914569  9962 net.cpp:124] Setting up Sigmoid0
I0501 08:16:04.914579  9962 net.cpp:131] Top shape: 111 16 34 34 (2053056)
I0501 08:16:04.914582  9962 net.cpp:139] Memory required for data: 17788860
I0501 08:16:04.914587  9962 layer_factory.hpp:77] Creating layer pool0
I0501 08:16:04.914593  9962 net.cpp:86] Creating Layer pool0
I0501 08:16:04.914597  9962 net.cpp:408] pool0 <- Sigmoid0
I0501 08:16:04.914600  9962 net.cpp:382] pool0 -> pool0
I0501 08:16:04.915365  9962 net.cpp:124] Setting up pool0
I0501 08:16:04.915380  9962 net.cpp:131] Top shape: 111 16 17 17 (513264)
I0501 08:16:04.915382  9962 net.cpp:139] Memory required for data: 19841916
I0501 08:16:04.915386  9962 layer_factory.hpp:77] Creating layer ip1
I0501 08:16:04.915395  9962 net.cpp:86] Creating Layer ip1
I0501 08:16:04.915400  9962 net.cpp:408] ip1 <- pool0
I0501 08:16:04.915405  9962 net.cpp:382] ip1 -> ip1
I0501 08:16:04.917620  9962 net.cpp:124] Setting up ip1
I0501 08:16:04.917632  9962 net.cpp:131] Top shape: 111 10 (1110)
I0501 08:16:04.917636  9962 net.cpp:139] Memory required for data: 19846356
I0501 08:16:04.917644  9962 layer_factory.hpp:77] Creating layer relu1
I0501 08:16:04.917651  9962 net.cpp:86] Creating Layer relu1
I0501 08:16:04.917654  9962 net.cpp:408] relu1 <- ip1
I0501 08:16:04.917659  9962 net.cpp:369] relu1 -> ip1 (in-place)
I0501 08:16:04.917814  9962 net.cpp:124] Setting up relu1
I0501 08:16:04.917824  9962 net.cpp:131] Top shape: 111 10 (1110)
I0501 08:16:04.917826  9962 net.cpp:139] Memory required for data: 19850796
I0501 08:16:04.917830  9962 layer_factory.hpp:77] Creating layer ip2
I0501 08:16:04.917836  9962 net.cpp:86] Creating Layer ip2
I0501 08:16:04.917840  9962 net.cpp:408] ip2 <- ip1
I0501 08:16:04.917845  9962 net.cpp:382] ip2 -> ip2
I0501 08:16:04.917949  9962 net.cpp:124] Setting up ip2
I0501 08:16:04.917956  9962 net.cpp:131] Top shape: 111 40 (4440)
I0501 08:16:04.917960  9962 net.cpp:139] Memory required for data: 19868556
I0501 08:16:04.917968  9962 layer_factory.hpp:77] Creating layer relu2
I0501 08:16:04.917974  9962 net.cpp:86] Creating Layer relu2
I0501 08:16:04.917979  9962 net.cpp:408] relu2 <- ip2
I0501 08:16:04.917987  9962 net.cpp:369] relu2 -> ip2 (in-place)
I0501 08:16:04.918154  9962 net.cpp:124] Setting up relu2
I0501 08:16:04.918164  9962 net.cpp:131] Top shape: 111 40 (4440)
I0501 08:16:04.918166  9962 net.cpp:139] Memory required for data: 19886316
I0501 08:16:04.918170  9962 layer_factory.hpp:77] Creating layer ip3
I0501 08:16:04.918177  9962 net.cpp:86] Creating Layer ip3
I0501 08:16:04.918184  9962 net.cpp:408] ip3 <- ip2
I0501 08:16:04.918189  9962 net.cpp:382] ip3 -> ip3
I0501 08:16:04.918305  9962 net.cpp:124] Setting up ip3
I0501 08:16:04.918313  9962 net.cpp:131] Top shape: 111 20 (2220)
I0501 08:16:04.918315  9962 net.cpp:139] Memory required for data: 19895196
I0501 08:16:04.918321  9962 layer_factory.hpp:77] Creating layer relu3
I0501 08:16:04.918340  9962 net.cpp:86] Creating Layer relu3
I0501 08:16:04.918345  9962 net.cpp:408] relu3 <- ip3
I0501 08:16:04.918349  9962 net.cpp:369] relu3 -> ip3 (in-place)
I0501 08:16:04.918491  9962 net.cpp:124] Setting up relu3
I0501 08:16:04.918499  9962 net.cpp:131] Top shape: 111 20 (2220)
I0501 08:16:04.918503  9962 net.cpp:139] Memory required for data: 19904076
I0501 08:16:04.918506  9962 layer_factory.hpp:77] Creating layer ip4
I0501 08:16:04.918525  9962 net.cpp:86] Creating Layer ip4
I0501 08:16:04.918529  9962 net.cpp:408] ip4 <- ip3
I0501 08:16:04.918534  9962 net.cpp:382] ip4 -> ip4
I0501 08:16:04.918628  9962 net.cpp:124] Setting up ip4
I0501 08:16:04.918637  9962 net.cpp:131] Top shape: 111 10 (1110)
I0501 08:16:04.918639  9962 net.cpp:139] Memory required for data: 19908516
I0501 08:16:04.918648  9962 layer_factory.hpp:77] Creating layer loss
I0501 08:16:04.918659  9962 net.cpp:86] Creating Layer loss
I0501 08:16:04.918663  9962 net.cpp:408] loss <- ip4
I0501 08:16:04.918666  9962 net.cpp:408] loss <- label
I0501 08:16:04.918671  9962 net.cpp:382] loss -> loss
I0501 08:16:04.918684  9962 layer_factory.hpp:77] Creating layer loss
…
I0501 08:16:04.919883  9962 solver.cpp:173] Creating test net (#0) specified by net file: ECE595/cifar/train_test/var_everything/cifar_train_test_506.prototxt
I0501 08:16:04.919910  9962 net.cpp:296] The NetState phase (1) differed from the phase (0) specified by a rule in layer cifar
I0501 08:16:04.920002  9962 net.cpp:53] Initializing net from parameters: 
name: "CIFAR"
state {
  phase: TEST
}
layer {
  name: "cifar"
  type: "Data"
  top: "data"
  top: "label"
  include {
    phase: TEST
  }
  transform_param {
    mean_file: "examples/cifar10/mean.binaryproto"
  }
  data_param {
    source: "examples/cifar10/cifar10_test_lmdb"
    batch_size: 1000
    backend: LMDB
  }
}
layer {
  name: "conv0"
  type: "Convolution"
  bottom: "data"
  top: "conv0"
  param {
    lr_mult: 1
  }
  param {
    lr_mult: 2
  }
  convolution_param {
    num_output: 16
    pad: 2
    kernel_size: 3
    stride: 1
    weight_filler {
      type: "gaussian"
      std: 0.01
    }
    bias_filler {
      type: "constant"
    }
  }
}
layer {
  name: "Sigmoid0"
  type: "Sigmoid"
  bottom: "conv0"
  top: "Sigmoid0"
}
layer {
  name: "pool0"
  type: "Pooling"
  bottom: "Sigmoid0"
  top: "pool0"
  pooling_param {
    pool: AVE
    kernel_size: 3
    stride: 2
  }
}
layer {
  name: "ip1"
  type: "InnerProduct"
  bottom: "pool0"
  top: "ip1"
  param {
    lr_mult: 1
  }
  param {
    lr_mult: 2
  }
  inner_product_param {
    num_output: 10
    weight_filler {
      type: "gaussian"
      std: 0.01
    }
    bias_filler {
      type: "constant"
    }
  }
}
layer {
  name: "relu1"
  type: "ReLU"
  bottom: "ip1"
  top: "ip1"
}
layer {
  name: "ip2"
  type: "InnerProduct"
  bottom: "ip1"
  top: "ip2"
  param {
    lr_mult: 1
  }
  param {
    lr_mult: 2
  }
  inner_product_param {
    num_output: 40
    weight_filler {
      type: "gaussian"
      std: 0.01
    }
    bias_filler {
      type: "constant"
    }
  }
}
layer {
  name: "relu2"
  type: "ReLU"
  bottom: "ip2"
  top: "ip2"
}
layer {
  name: "ip3"
  type: "InnerProduct"
  bottom: "ip2"
  top: "ip3"
  param {
    lr_mult: 1
  }
  param {
    lr_mult: 2
  }
  inner_product_param {
    num_output: 20
    weight_filler {
      type: "gaussian"
      std: 0.01
    }
    bias_filler {
      type: "constant"
    }
  }
}
layer {
  name: "relu3"
  type: "ReLU"
  bottom: "ip3"
  top: "ip3"
}
layer {
  name: "ip4"
  type: "InnerProduct"
  bottom: "ip3"
  top: "ip4"
  param {
    lr_mult: 1
  }
  param {
    lr_mult: 2
  }
  inner_product_param {
    num_output: 10
    weight_filler {
      type: "gaussian"
      std: 0.01
    }
    bias_filler {
      type: "constant"
    }
  }
}
layer {
  name: "accuracy"
  type: "Accuracy"
  bottom: "ip4"
  bottom: "label"
  top: "accuracy"
  include {
    phase: TEST
  }
}
layer {
  name: "loss"
  type: "SoftmaxWithLoss"
  bottom: "ip4"
  bottom: "label"
  top: "loss"
}
I0501 08:16:04.920080  9962 layer_factory.hpp:77] Creating layer cifar
I0501 08:16:04.920123  9962 db_lmdb.cpp:35] Opened lmdb examples/cifar10/cifar10_test_lmdb
I0501 08:16:04.920138  9962 net.cpp:86] Creating Layer cifar
I0501 08:16:04.920143  9962 net.cpp:382] cifar -> data
I0501 08:16:04.920151  9962 net.cpp:382] cifar -> label
I0501 08:16:04.920159  9962 data_transformer.cpp:25] Loading mean file from: examples/cifar10/mean.binaryproto
I0501 08:16:04.920318  9962 data_layer.cpp:45] output data size: 1000,3,32,32
I0501 08:16:04.942545  9962 net.cpp:124] Setting up cifar
I0501 08:16:04.942587  9962 net.cpp:131] Top shape: 1000 3 32 32 (3072000)
I0501 08:16:04.942594  9962 net.cpp:131] Top shape: 1000 (1000)
I0501 08:16:04.942597  9962 net.cpp:139] Memory required for data: 12292000
I0501 08:16:04.942603  9962 layer_factory.hpp:77] Creating layer label_cifar_1_split
I0501 08:16:04.942615  9962 net.cpp:86] Creating Layer label_cifar_1_split
I0501 08:16:04.942620  9962 net.cpp:408] label_cifar_1_split <- label
I0501 08:16:04.942625  9962 net.cpp:382] label_cifar_1_split -> label_cifar_1_split_0
I0501 08:16:04.942634  9962 net.cpp:382] label_cifar_1_split -> label_cifar_1_split_1
I0501 08:16:04.942730  9962 net.cpp:124] Setting up label_cifar_1_split
I0501 08:16:04.942739  9962 net.cpp:131] Top shape: 1000 (1000)
I0501 08:16:04.942742  9962 net.cpp:131] Top shape: 1000 (1000)
I0501 08:16:04.942744  9962 net.cpp:139] Memory required for data: 12300000
I0501 08:16:04.942749  9962 layer_factory.hpp:77] Creating layer conv0
I0501 08:16:04.942760  9962 net.cpp:86] Creating Layer conv0
I0501 08:16:04.942766  9962 net.cpp:408] conv0 <- data
I0501 08:16:04.942788  9962 net.cpp:382] conv0 -> conv0
I0501 08:16:04.944490  9962 net.cpp:124] Setting up conv0
I0501 08:16:04.944521  9962 net.cpp:131] Top shape: 1000 16 34 34 (18496000)
I0501 08:16:04.944525  9962 net.cpp:139] Memory required for data: 86284000
I0501 08:16:04.944535  9962 layer_factory.hpp:77] Creating layer Sigmoid0
I0501 08:16:04.944542  9962 net.cpp:86] Creating Layer Sigmoid0
I0501 08:16:04.944545  9962 net.cpp:408] Sigmoid0 <- conv0
I0501 08:16:04.944551  9962 net.cpp:382] Sigmoid0 -> Sigmoid0
I0501 08:16:04.944749  9962 net.cpp:124] Setting up Sigmoid0
I0501 08:16:04.944758  9962 net.cpp:131] Top shape: 1000 16 34 34 (18496000)
I0501 08:16:04.944761  9962 net.cpp:139] Memory required for data: 160268000
I0501 08:16:04.944764  9962 layer_factory.hpp:77] Creating layer pool0
I0501 08:16:04.944773  9962 net.cpp:86] Creating Layer pool0
I0501 08:16:04.944777  9962 net.cpp:408] pool0 <- Sigmoid0
I0501 08:16:04.944782  9962 net.cpp:382] pool0 -> pool0
I0501 08:16:04.945096  9962 net.cpp:124] Setting up pool0
I0501 08:16:04.945106  9962 net.cpp:131] Top shape: 1000 16 17 17 (4624000)
I0501 08:16:04.945111  9962 net.cpp:139] Memory required for data: 178764000
I0501 08:16:04.945113  9962 layer_factory.hpp:77] Creating layer ip1
I0501 08:16:04.945137  9962 net.cpp:86] Creating Layer ip1
I0501 08:16:04.945139  9962 net.cpp:408] ip1 <- pool0
I0501 08:16:04.945147  9962 net.cpp:382] ip1 -> ip1
I0501 08:16:04.947449  9962 net.cpp:124] Setting up ip1
I0501 08:16:04.947458  9962 net.cpp:131] Top shape: 1000 10 (10000)
I0501 08:16:04.947479  9962 net.cpp:139] Memory required for data: 178804000
I0501 08:16:04.947500  9962 layer_factory.hpp:77] Creating layer relu1
I0501 08:16:04.947506  9962 net.cpp:86] Creating Layer relu1
I0501 08:16:04.947510  9962 net.cpp:408] relu1 <- ip1
I0501 08:16:04.947531  9962 net.cpp:369] relu1 -> ip1 (in-place)
I0501 08:16:04.947712  9962 net.cpp:124] Setting up relu1
I0501 08:16:04.947721  9962 net.cpp:131] Top shape: 1000 10 (10000)
I0501 08:16:04.947726  9962 net.cpp:139] Memory required for data: 178844000
I0501 08:16:04.947728  9962 layer_factory.hpp:77] Creating layer ip2
I0501 08:16:04.947736  9962 net.cpp:86] Creating Layer ip2
I0501 08:16:04.947739  9962 net.cpp:408] ip2 <- ip1
I0501 08:16:04.947746  9962 net.cpp:382] ip2 -> ip2
I0501 08:16:04.947881  9962 net.cpp:124] Setting up ip2
I0501 08:16:04.947888  9962 net.cpp:131] Top shape: 1000 40 (40000)
I0501 08:16:04.947891  9962 net.cpp:139] Memory required for data: 179004000
I0501 08:16:04.947898  9962 layer_factory.hpp:77] Creating layer relu2
I0501 08:16:04.947906  9962 net.cpp:86] Creating Layer relu2
I0501 08:16:04.947908  9962 net.cpp:408] relu2 <- ip2
I0501 08:16:04.947913  9962 net.cpp:369] relu2 -> ip2 (in-place)
I0501 08:16:04.948681  9962 net.cpp:124] Setting up relu2
I0501 08:16:04.948694  9962 net.cpp:131] Top shape: 1000 40 (40000)
I0501 08:16:04.948715  9962 net.cpp:139] Memory required for data: 179164000
I0501 08:16:04.948719  9962 layer_factory.hpp:77] Creating layer ip3
I0501 08:16:04.948729  9962 net.cpp:86] Creating Layer ip3
I0501 08:16:04.948731  9962 net.cpp:408] ip3 <- ip2
I0501 08:16:04.948736  9962 net.cpp:382] ip3 -> ip3
I0501 08:16:04.948912  9962 net.cpp:124] Setting up ip3
I0501 08:16:04.948922  9962 net.cpp:131] Top shape: 1000 20 (20000)
I0501 08:16:04.948940  9962 net.cpp:139] Memory required for data: 179244000
I0501 08:16:04.948946  9962 layer_factory.hpp:77] Creating layer relu3
I0501 08:16:04.948952  9962 net.cpp:86] Creating Layer relu3
I0501 08:16:04.948956  9962 net.cpp:408] relu3 <- ip3
I0501 08:16:04.948961  9962 net.cpp:369] relu3 -> ip3 (in-place)
I0501 08:16:04.949120  9962 net.cpp:124] Setting up relu3
I0501 08:16:04.949144  9962 net.cpp:131] Top shape: 1000 20 (20000)
I0501 08:16:04.949147  9962 net.cpp:139] Memory required for data: 179324000
I0501 08:16:04.949151  9962 layer_factory.hpp:77] Creating layer ip4
I0501 08:16:04.949157  9962 net.cpp:86] Creating Layer ip4
I0501 08:16:04.949162  9962 net.cpp:408] ip4 <- ip3
I0501 08:16:04.949167  9962 net.cpp:382] ip4 -> ip4
I0501 08:16:04.949276  9962 net.cpp:124] Setting up ip4
I0501 08:16:04.949283  9962 net.cpp:131] Top shape: 1000 10 (10000)
I0501 08:16:04.949286  9962 net.cpp:139] Memory required for data: 179364000
I0501 08:16:04.949295  9962 layer_factory.hpp:77] Creating layer ip4_ip4_0_split
I0501 08:16:04.949300  9962 net.cpp:86] Creating Layer ip4_ip4_0_split
I0501 08:16:04.949302  9962 net.cpp:408] ip4_ip4_0_split <- ip4
I0501 08:16:04.949316  9962 net.cpp:382] ip4_ip4_0_split -> ip4_ip4_0_split_0
I0501 08:16:04.949321  9962 net.cpp:382] ip4_ip4_0_split -> ip4_ip4_0_split_1
I0501 08:16:04.949354  9962 net.cpp:124] Setting up ip4_ip4_0_split
I0501 08:16:04.949362  9962 net.cpp:131] Top shape: 1000 10 (10000)
I0501 08:16:04.949365  9962 net.cpp:131] Top shape: 1000 10 (10000)
I0501 08:16:04.949368  9962 net.cpp:139] Memory required for data: 179444000
I0501 08:16:04.949370  9962 layer_factory.hpp:77] Creating layer accuracy
I0501 08:16:04.949378  9962 net.cpp:86] Creating Layer accuracy
I0501 08:16:04.949380  9962 net.cpp:408] accuracy <- ip4_ip4_0_split_0
I0501 08:16:04.949390  9962 net.cpp:408] accuracy <- label_cifar_1_split_0
I0501 08:16:04.949395  9962 net.cpp:382] accuracy -> accuracy
…
