…
I0501 07:17:10.504079  4366 net.cpp:296] The NetState phase (0) differed from the phase (1) specified by a rule in layer cifar
I0501 07:17:10.504096  4366 net.cpp:296] The NetState phase (0) differed from the phase (1) specified by a rule in layer accuracy
I0501 07:17:10.504184  4366 net.cpp:53] Initializing net from parameters: 
name: "CIFAR"
state {
  phase: TRAIN
  level: 0
  stage: ""
}
layer {
  name: "cifar"
  type: "Data"
  top: "data"
  top: "label"
  include {
    phase: TRAIN
  }
  transform_param {
    mean_file: "examples/cifar10/mean.binaryproto"
  }
  data_param {
    source: "examples/cifar10/cifar10_train_lmdb"
    batch_size: 111
    backend: LMDB
  }
}
layer {
  name: "conv0"
  type: "Convolution"
  bottom: "data"
  top: "conv0"
  param {
    lr_mult: 1
  }
  param {
    lr_mult: 2
  }
  convolution_param {
    num_output: 16
    pad: 2
    kernel_size: 3
    stride: 1
    weight_filler {
      type: "gaussian"
      std: 0.01
    }
    bias_filler {
      type: "constant"
    }
  }
}
layer {
  name: "Sigmoid0"
  type: "Sigmoid"
  bottom: "conv0"
  top: "Sigmoid0"
}
layer {
  name: "pool0"
  type: "Pooling"
  bottom: "Sigmoid0"
  top: "pool0"
  pooling_param {
    pool: AVE
    kernel_size: 3
    stride: 2
  }
}
layer {
  name: "ip1"
  type: "InnerProduct"
  bottom: "pool0"
  top: "ip1"
  param {
    lr_mult: 1
  }
  param {
    lr_mult: 2
  }
  inner_product_param {
    num_output: 20
    weight_filler {
      type: "gaussian"
      std: 0.01
    }
    bias_filler {
      type: "constant"
    }
  }
}
layer {
  name: "relu1"
  type: "ReLU"
  bottom: "ip1"
  top: "ip1"
}
layer {
  name: "ip2"
  type: "InnerProduct"
  bottom: "ip1"
  top: "ip2"
  param {
    lr_mult: 1
  }
  param {
    lr_mult: 2
  }
  inner_product_param {
    num_output: 40
    weight_filler {
      type: "gaussian"
      std: 0.01
    }
    bias_filler {
      type: "constant"
    }
  }
}
layer {
  name: "relu2"
  type: "ReLU"
  bottom: "ip2"
  top: "ip2"
}
layer {
  name: "ip3"
  type: "InnerProduct"
  bottom: "ip2"
  top: "ip3"
  param {
    lr_mult: 1
  }
  param {
    lr_mult: 2
  }
  inner_product_param {
    num_output: 10
    weight_filler {
      type: "gaussian"
      std: 0.01
    }
    bias_filler {
      type: "constant"
    }
  }
}
layer {
  name: "loss"
  type: "SoftmaxWithLoss"
  bottom: "ip3"
  bottom: "label"
  top: "loss"
}
I0501 07:17:10.504251  4366 layer_factory.hpp:77] Creating layer cifar
I0501 07:17:10.504350  4366 db_lmdb.cpp:35] Opened lmdb examples/cifar10/cifar10_train_lmdb
I0501 07:17:10.504376  4366 net.cpp:86] Creating Layer cifar
I0501 07:17:10.504384  4366 net.cpp:382] cifar -> data
I0501 07:17:10.504407  4366 net.cpp:382] cifar -> label
I0501 07:17:10.504420  4366 data_transformer.cpp:25] Loading mean file from: examples/cifar10/mean.binaryproto
I0501 07:17:10.506585  4366 data_layer.cpp:45] output data size: 111,3,32,32
I0501 07:17:10.514566  4366 net.cpp:124] Setting up cifar
I0501 07:17:10.514585  4366 net.cpp:131] Top shape: 111 3 32 32 (340992)
I0501 07:17:10.514590  4366 net.cpp:131] Top shape: 111 (111)
I0501 07:17:10.514595  4366 net.cpp:139] Memory required for data: 1364412
I0501 07:17:10.514603  4366 layer_factory.hpp:77] Creating layer conv0
I0501 07:17:10.514621  4366 net.cpp:86] Creating Layer conv0
I0501 07:17:10.514627  4366 net.cpp:408] conv0 <- data
I0501 07:17:10.514641  4366 net.cpp:382] conv0 -> conv0
I0501 07:17:10.806373  4366 net.cpp:124] Setting up conv0
I0501 07:17:10.806427  4366 net.cpp:131] Top shape: 111 16 34 34 (2053056)
I0501 07:17:10.806432  4366 net.cpp:139] Memory required for data: 9576636
I0501 07:17:10.806449  4366 layer_factory.hpp:77] Creating layer Sigmoid0
I0501 07:17:10.806463  4366 net.cpp:86] Creating Layer Sigmoid0
I0501 07:17:10.806468  4366 net.cpp:408] Sigmoid0 <- conv0
I0501 07:17:10.806475  4366 net.cpp:382] Sigmoid0 -> Sigmoid0
I0501 07:17:10.806694  4366 net.cpp:124] Setting up Sigmoid0
I0501 07:17:10.806706  4366 net.cpp:131] Top shape: 111 16 34 34 (2053056)
I0501 07:17:10.806710  4366 net.cpp:139] Memory required for data: 17788860
I0501 07:17:10.806715  4366 layer_factory.hpp:77] Creating layer pool0
I0501 07:17:10.806722  4366 net.cpp:86] Creating Layer pool0
I0501 07:17:10.806726  4366 net.cpp:408] pool0 <- Sigmoid0
I0501 07:17:10.806731  4366 net.cpp:382] pool0 -> pool0
I0501 07:17:10.807617  4366 net.cpp:124] Setting up pool0
I0501 07:17:10.807633  4366 net.cpp:131] Top shape: 111 16 17 17 (513264)
I0501 07:17:10.807638  4366 net.cpp:139] Memory required for data: 19841916
I0501 07:17:10.807642  4366 layer_factory.hpp:77] Creating layer ip1
I0501 07:17:10.807653  4366 net.cpp:86] Creating Layer ip1
I0501 07:17:10.807657  4366 net.cpp:408] ip1 <- pool0
I0501 07:17:10.807663  4366 net.cpp:382] ip1 -> ip1
I0501 07:17:10.810839  4366 net.cpp:124] Setting up ip1
I0501 07:17:10.810849  4366 net.cpp:131] Top shape: 111 20 (2220)
I0501 07:17:10.810853  4366 net.cpp:139] Memory required for data: 19850796
I0501 07:17:10.810863  4366 layer_factory.hpp:77] Creating layer relu1
I0501 07:17:10.810868  4366 net.cpp:86] Creating Layer relu1
I0501 07:17:10.810873  4366 net.cpp:408] relu1 <- ip1
I0501 07:17:10.810878  4366 net.cpp:369] relu1 -> ip1 (in-place)
I0501 07:17:10.811061  4366 net.cpp:124] Setting up relu1
I0501 07:17:10.811071  4366 net.cpp:131] Top shape: 111 20 (2220)
I0501 07:17:10.811075  4366 net.cpp:139] Memory required for data: 19859676
I0501 07:17:10.811079  4366 layer_factory.hpp:77] Creating layer ip2
I0501 07:17:10.811085  4366 net.cpp:86] Creating Layer ip2
I0501 07:17:10.811089  4366 net.cpp:408] ip2 <- ip1
I0501 07:17:10.811095  4366 net.cpp:382] ip2 -> ip2
I0501 07:17:10.811233  4366 net.cpp:124] Setting up ip2
I0501 07:17:10.811241  4366 net.cpp:131] Top shape: 111 40 (4440)
I0501 07:17:10.811245  4366 net.cpp:139] Memory required for data: 19877436
I0501 07:17:10.811254  4366 layer_factory.hpp:77] Creating layer relu2
I0501 07:17:10.811259  4366 net.cpp:86] Creating Layer relu2
I0501 07:17:10.811264  4366 net.cpp:408] relu2 <- ip2
I0501 07:17:10.811269  4366 net.cpp:369] relu2 -> ip2 (in-place)
I0501 07:17:10.811447  4366 net.cpp:124] Setting up relu2
I0501 07:17:10.811456  4366 net.cpp:131] Top shape: 111 40 (4440)
I0501 07:17:10.811460  4366 net.cpp:139] Memory required for data: 19895196
I0501 07:17:10.811463  4366 layer_factory.hpp:77] Creating layer ip3
I0501 07:17:10.811472  4366 net.cpp:86] Creating Layer ip3
I0501 07:17:10.811476  4366 net.cpp:408] ip3 <- ip2
I0501 07:17:10.811482  4366 net.cpp:382] ip3 -> ip3
I0501 07:17:10.811602  4366 net.cpp:124] Setting up ip3
I0501 07:17:10.811610  4366 net.cpp:131] Top shape: 111 10 (1110)
I0501 07:17:10.811614  4366 net.cpp:139] Memory required for data: 19899636
I0501 07:17:10.811620  4366 layer_factory.hpp:77] Creating layer loss
I0501 07:17:10.811627  4366 net.cpp:86] Creating Layer loss
I0501 07:17:10.811631  4366 net.cpp:408] loss <- ip3
I0501 07:17:10.811635  4366 net.cpp:408] loss <- label
I0501 07:17:10.811641  4366 net.cpp:382] loss -> loss
I0501 07:17:10.811662  4366 layer_factory.hpp:77] Creating layer loss
…
I0501 07:17:10.812378  4366 solver.cpp:173] Creating test net (#0) specified by net file: ECE595/cifar/train_test/var_everything/cifar_train_test_477.prototxt
I0501 07:17:10.812408  4366 net.cpp:296] The NetState phase (1) differed from the phase (0) specified by a rule in layer cifar
I0501 07:17:10.812510  4366 net.cpp:53] Initializing net from parameters: 
name: "CIFAR"
state {
  phase: TEST
}
layer {
  name: "cifar"
  type: "Data"
  top: "data"
  top: "label"
  include {
    phase: TEST
  }
  transform_param {
    mean_file: "examples/cifar10/mean.binaryproto"
  }
  data_param {
    source: "examples/cifar10/cifar10_test_lmdb"
    batch_size: 1000
    backend: LMDB
  }
}
layer {
  name: "conv0"
  type: "Convolution"
  bottom: "data"
  top: "conv0"
  param {
    lr_mult: 1
  }
  param {
    lr_mult: 2
  }
  convolution_param {
    num_output: 16
    pad: 2
    kernel_size: 3
    stride: 1
    weight_filler {
      type: "gaussian"
      std: 0.01
    }
    bias_filler {
      type: "constant"
    }
  }
}
layer {
  name: "Sigmoid0"
  type: "Sigmoid"
  bottom: "conv0"
  top: "Sigmoid0"
}
layer {
  name: "pool0"
  type: "Pooling"
  bottom: "Sigmoid0"
  top: "pool0"
  pooling_param {
    pool: AVE
    kernel_size: 3
    stride: 2
  }
}
layer {
  name: "ip1"
  type: "InnerProduct"
  bottom: "pool0"
  top: "ip1"
  param {
    lr_mult: 1
  }
  param {
    lr_mult: 2
  }
  inner_product_param {
    num_output: 20
    weight_filler {
      type: "gaussian"
      std: 0.01
    }
    bias_filler {
      type: "constant"
    }
  }
}
layer {
  name: "relu1"
  type: "ReLU"
  bottom: "ip1"
  top: "ip1"
}
layer {
  name: "ip2"
  type: "InnerProduct"
  bottom: "ip1"
  top: "ip2"
  param {
    lr_mult: 1
  }
  param {
    lr_mult: 2
  }
  inner_product_param {
    num_output: 40
    weight_filler {
      type: "gaussian"
      std: 0.01
    }
    bias_filler {
      type: "constant"
    }
  }
}
layer {
  name: "relu2"
  type: "ReLU"
  bottom: "ip2"
  top: "ip2"
}
layer {
  name: "ip3"
  type: "InnerProduct"
  bottom: "ip2"
  top: "ip3"
  param {
    lr_mult: 1
  }
  param {
    lr_mult: 2
  }
  inner_product_param {
    num_output: 10
    weight_filler {
      type: "gaussian"
      std: 0.01
    }
    bias_filler {
      type: "constant"
    }
  }
}
layer {
  name: "accuracy"
  type: "Accuracy"
  bottom: "ip3"
  bottom: "label"
  top: "accuracy"
  include {
    phase: TEST
  }
}
layer {
  name: "loss"
  type: "SoftmaxWithLoss"
  bottom: "ip3"
  bottom: "label"
  top: "loss"
}
I0501 07:17:10.812583  4366 layer_factory.hpp:77] Creating layer cifar
I0501 07:17:10.812638  4366 db_lmdb.cpp:35] Opened lmdb examples/cifar10/cifar10_test_lmdb
I0501 07:17:10.812652  4366 net.cpp:86] Creating Layer cifar
I0501 07:17:10.812659  4366 net.cpp:382] cifar -> data
I0501 07:17:10.812667  4366 net.cpp:382] cifar -> label
I0501 07:17:10.812675  4366 data_transformer.cpp:25] Loading mean file from: examples/cifar10/mean.binaryproto
I0501 07:17:10.812856  4366 data_layer.cpp:45] output data size: 1000,3,32,32
I0501 07:17:10.838815  4366 net.cpp:124] Setting up cifar
I0501 07:17:10.838846  4366 net.cpp:131] Top shape: 1000 3 32 32 (3072000)
I0501 07:17:10.838853  4366 net.cpp:131] Top shape: 1000 (1000)
I0501 07:17:10.838857  4366 net.cpp:139] Memory required for data: 12292000
I0501 07:17:10.838865  4366 layer_factory.hpp:77] Creating layer label_cifar_1_split
I0501 07:17:10.838878  4366 net.cpp:86] Creating Layer label_cifar_1_split
I0501 07:17:10.838907  4366 net.cpp:408] label_cifar_1_split <- label
I0501 07:17:10.838914  4366 net.cpp:382] label_cifar_1_split -> label_cifar_1_split_0
I0501 07:17:10.838925  4366 net.cpp:382] label_cifar_1_split -> label_cifar_1_split_1
I0501 07:17:10.839062  4366 net.cpp:124] Setting up label_cifar_1_split
I0501 07:17:10.839072  4366 net.cpp:131] Top shape: 1000 (1000)
I0501 07:17:10.839077  4366 net.cpp:131] Top shape: 1000 (1000)
I0501 07:17:10.839081  4366 net.cpp:139] Memory required for data: 12300000
I0501 07:17:10.839084  4366 layer_factory.hpp:77] Creating layer conv0
I0501 07:17:10.839100  4366 net.cpp:86] Creating Layer conv0
I0501 07:17:10.839104  4366 net.cpp:408] conv0 <- data
I0501 07:17:10.839112  4366 net.cpp:382] conv0 -> conv0
I0501 07:17:10.840874  4366 net.cpp:124] Setting up conv0
I0501 07:17:10.840890  4366 net.cpp:131] Top shape: 1000 16 34 34 (18496000)
I0501 07:17:10.840895  4366 net.cpp:139] Memory required for data: 86284000
I0501 07:17:10.840908  4366 layer_factory.hpp:77] Creating layer Sigmoid0
I0501 07:17:10.840921  4366 net.cpp:86] Creating Layer Sigmoid0
I0501 07:17:10.840926  4366 net.cpp:408] Sigmoid0 <- conv0
I0501 07:17:10.840932  4366 net.cpp:382] Sigmoid0 -> Sigmoid0
I0501 07:17:10.841962  4366 net.cpp:124] Setting up Sigmoid0
I0501 07:17:10.841979  4366 net.cpp:131] Top shape: 1000 16 34 34 (18496000)
I0501 07:17:10.841984  4366 net.cpp:139] Memory required for data: 160268000
I0501 07:17:10.841987  4366 layer_factory.hpp:77] Creating layer pool0
I0501 07:17:10.841997  4366 net.cpp:86] Creating Layer pool0
I0501 07:17:10.842001  4366 net.cpp:408] pool0 <- Sigmoid0
I0501 07:17:10.842007  4366 net.cpp:382] pool0 -> pool0
I0501 07:17:10.843173  4366 net.cpp:124] Setting up pool0
I0501 07:17:10.843185  4366 net.cpp:131] Top shape: 1000 16 17 17 (4624000)
I0501 07:17:10.843189  4366 net.cpp:139] Memory required for data: 178764000
I0501 07:17:10.843194  4366 layer_factory.hpp:77] Creating layer ip1
I0501 07:17:10.843204  4366 net.cpp:86] Creating Layer ip1
I0501 07:17:10.843209  4366 net.cpp:408] ip1 <- pool0
I0501 07:17:10.843215  4366 net.cpp:382] ip1 -> ip1
I0501 07:17:10.846406  4366 net.cpp:124] Setting up ip1
I0501 07:17:10.846416  4366 net.cpp:131] Top shape: 1000 20 (20000)
I0501 07:17:10.846421  4366 net.cpp:139] Memory required for data: 178844000
I0501 07:17:10.846431  4366 layer_factory.hpp:77] Creating layer relu1
I0501 07:17:10.846436  4366 net.cpp:86] Creating Layer relu1
I0501 07:17:10.846441  4366 net.cpp:408] relu1 <- ip1
I0501 07:17:10.846446  4366 net.cpp:369] relu1 -> ip1 (in-place)
I0501 07:17:10.846637  4366 net.cpp:124] Setting up relu1
I0501 07:17:10.846647  4366 net.cpp:131] Top shape: 1000 20 (20000)
I0501 07:17:10.846652  4366 net.cpp:139] Memory required for data: 178924000
I0501 07:17:10.846654  4366 layer_factory.hpp:77] Creating layer ip2
I0501 07:17:10.846662  4366 net.cpp:86] Creating Layer ip2
I0501 07:17:10.846667  4366 net.cpp:408] ip2 <- ip1
I0501 07:17:10.846673  4366 net.cpp:382] ip2 -> ip2
I0501 07:17:10.846822  4366 net.cpp:124] Setting up ip2
I0501 07:17:10.846832  4366 net.cpp:131] Top shape: 1000 40 (40000)
I0501 07:17:10.846835  4366 net.cpp:139] Memory required for data: 179084000
I0501 07:17:10.846844  4366 layer_factory.hpp:77] Creating layer relu2
I0501 07:17:10.846851  4366 net.cpp:86] Creating Layer relu2
I0501 07:17:10.846855  4366 net.cpp:408] relu2 <- ip2
I0501 07:17:10.846860  4366 net.cpp:369] relu2 -> ip2 (in-place)
I0501 07:17:10.847043  4366 net.cpp:124] Setting up relu2
I0501 07:17:10.847054  4366 net.cpp:131] Top shape: 1000 40 (40000)
I0501 07:17:10.847057  4366 net.cpp:139] Memory required for data: 179244000
I0501 07:17:10.847060  4366 layer_factory.hpp:77] Creating layer ip3
I0501 07:17:10.847067  4366 net.cpp:86] Creating Layer ip3
I0501 07:17:10.847071  4366 net.cpp:408] ip3 <- ip2
I0501 07:17:10.847077  4366 net.cpp:382] ip3 -> ip3
I0501 07:17:10.847208  4366 net.cpp:124] Setting up ip3
I0501 07:17:10.847215  4366 net.cpp:131] Top shape: 1000 10 (10000)
I0501 07:17:10.847236  4366 net.cpp:139] Memory required for data: 179284000
I0501 07:17:10.847244  4366 layer_factory.hpp:77] Creating layer ip3_ip3_0_split
I0501 07:17:10.847250  4366 net.cpp:86] Creating Layer ip3_ip3_0_split
I0501 07:17:10.847254  4366 net.cpp:408] ip3_ip3_0_split <- ip3
I0501 07:17:10.847259  4366 net.cpp:382] ip3_ip3_0_split -> ip3_ip3_0_split_0
I0501 07:17:10.847267  4366 net.cpp:382] ip3_ip3_0_split -> ip3_ip3_0_split_1
I0501 07:17:10.847306  4366 net.cpp:124] Setting up ip3_ip3_0_split
I0501 07:17:10.847311  4366 net.cpp:131] Top shape: 1000 10 (10000)
I0501 07:17:10.847316  4366 net.cpp:131] Top shape: 1000 10 (10000)
I0501 07:17:10.847319  4366 net.cpp:139] Memory required for data: 179364000
I0501 07:17:10.847323  4366 layer_factory.hpp:77] Creating layer accuracy
I0501 07:17:10.847329  4366 net.cpp:86] Creating Layer accuracy
I0501 07:17:10.847332  4366 net.cpp:408] accuracy <- ip3_ip3_0_split_0
I0501 07:17:10.847338  4366 net.cpp:408] accuracy <- label_cifar_1_split_0
I0501 07:17:10.847344  4366 net.cpp:382] accuracy -> accuracy
…
