…
I0501 05:33:36.415724 29527 net.cpp:296] The NetState phase (0) differed from the phase (1) specified by a rule in layer cifar
I0501 05:33:36.415740 29527 net.cpp:296] The NetState phase (0) differed from the phase (1) specified by a rule in layer accuracy
I0501 05:33:36.415833 29527 net.cpp:53] Initializing net from parameters: 
name: "CIFAR"
state {
  phase: TRAIN
  level: 0
  stage: ""
}
layer {
  name: "cifar"
  type: "Data"
  top: "data"
  top: "label"
  include {
    phase: TRAIN
  }
  transform_param {
    mean_file: "examples/cifar10/mean.binaryproto"
  }
  data_param {
    source: "examples/cifar10/cifar10_train_lmdb"
    batch_size: 111
    backend: LMDB
  }
}
layer {
  name: "conv0"
  type: "Convolution"
  bottom: "data"
  top: "conv0"
  param {
    lr_mult: 1
  }
  param {
    lr_mult: 2
  }
  convolution_param {
    num_output: 8
    pad: 2
    kernel_size: 5
    stride: 1
    weight_filler {
      type: "gaussian"
      std: 0.01
    }
    bias_filler {
      type: "constant"
    }
  }
}
layer {
  name: "Sigmoid0"
  type: "Sigmoid"
  bottom: "conv0"
  top: "Sigmoid0"
}
layer {
  name: "pool0"
  type: "Pooling"
  bottom: "Sigmoid0"
  top: "pool0"
  pooling_param {
    pool: AVE
    kernel_size: 3
    stride: 2
  }
}
layer {
  name: "ip1"
  type: "InnerProduct"
  bottom: "pool0"
  top: "ip1"
  param {
    lr_mult: 1
  }
  param {
    lr_mult: 2
  }
  inner_product_param {
    num_output: 80
    weight_filler {
      type: "gaussian"
      std: 0.01
    }
    bias_filler {
      type: "constant"
    }
  }
}
layer {
  name: "relu1"
  type: "ReLU"
  bottom: "ip1"
  top: "ip1"
}
layer {
  name: "ip2"
  type: "InnerProduct"
  bottom: "ip1"
  top: "ip2"
  param {
    lr_mult: 1
  }
  param {
    lr_mult: 2
  }
  inner_product_param {
    num_output: 20
    weight_filler {
      type: "gaussian"
      std: 0.01
    }
    bias_filler {
      type: "constant"
    }
  }
}
layer {
  name: "relu2"
  type: "ReLU"
  bottom: "ip2"
  top: "ip2"
}
layer {
  name: "ip3"
  type: "InnerProduct"
  bottom: "ip2"
  top: "ip3"
  param {
    lr_mult: 1
  }
  param {
    lr_mult: 2
  }
  inner_product_param {
    num_output: 40
    weight_filler {
      type: "gaussian"
      std: 0.01
    }
    bias_filler {
      type: "constant"
    }
  }
}
layer {
  name: "relu3"
  type: "ReLU"
  bottom: "ip3"
  top: "ip3"
}
layer {
  name: "ip4"
  type: "InnerProduct"
  bottom: "ip3"
  top: "ip4"
  param {
    lr_mult: 1
  }
  param {
    lr_mult: 2
  }
  inner_product_param {
    num_output: 10
    weight_filler {
      type: "gaussian"
      std: 0.01
    }
    bias_filler {
      type: "constant"
    }
  }
}
layer {
  name: "loss"
  type: "SoftmaxWithLoss"
  bottom: "ip4"
  bottom: "label"
  top: "loss"
}
I0501 05:33:36.415894 29527 layer_factory.hpp:77] Creating layer cifar
I0501 05:33:36.415974 29527 db_lmdb.cpp:35] Opened lmdb examples/cifar10/cifar10_train_lmdb
I0501 05:33:36.415997 29527 net.cpp:86] Creating Layer cifar
I0501 05:33:36.416003 29527 net.cpp:382] cifar -> data
I0501 05:33:36.416023 29527 net.cpp:382] cifar -> label
I0501 05:33:36.416031 29527 data_transformer.cpp:25] Loading mean file from: examples/cifar10/mean.binaryproto
I0501 05:33:36.417846 29527 data_layer.cpp:45] output data size: 111,3,32,32
I0501 05:33:36.424151 29527 net.cpp:124] Setting up cifar
I0501 05:33:36.424165 29527 net.cpp:131] Top shape: 111 3 32 32 (340992)
I0501 05:33:36.424170 29527 net.cpp:131] Top shape: 111 (111)
I0501 05:33:36.424173 29527 net.cpp:139] Memory required for data: 1364412
I0501 05:33:36.424190 29527 layer_factory.hpp:77] Creating layer conv0
I0501 05:33:36.424204 29527 net.cpp:86] Creating Layer conv0
I0501 05:33:36.424208 29527 net.cpp:408] conv0 <- data
I0501 05:33:36.424233 29527 net.cpp:382] conv0 -> conv0
I0501 05:33:36.661468 29527 net.cpp:124] Setting up conv0
I0501 05:33:36.661510 29527 net.cpp:131] Top shape: 111 8 32 32 (909312)
I0501 05:33:36.661514 29527 net.cpp:139] Memory required for data: 5001660
I0501 05:33:36.661527 29527 layer_factory.hpp:77] Creating layer Sigmoid0
I0501 05:33:36.661540 29527 net.cpp:86] Creating Layer Sigmoid0
I0501 05:33:36.661543 29527 net.cpp:408] Sigmoid0 <- conv0
I0501 05:33:36.661550 29527 net.cpp:382] Sigmoid0 -> Sigmoid0
I0501 05:33:36.661741 29527 net.cpp:124] Setting up Sigmoid0
I0501 05:33:36.661751 29527 net.cpp:131] Top shape: 111 8 32 32 (909312)
I0501 05:33:36.661753 29527 net.cpp:139] Memory required for data: 8638908
I0501 05:33:36.661756 29527 layer_factory.hpp:77] Creating layer pool0
I0501 05:33:36.661764 29527 net.cpp:86] Creating Layer pool0
I0501 05:33:36.661767 29527 net.cpp:408] pool0 <- Sigmoid0
I0501 05:33:36.661772 29527 net.cpp:382] pool0 -> pool0
I0501 05:33:36.662516 29527 net.cpp:124] Setting up pool0
I0501 05:33:36.662545 29527 net.cpp:131] Top shape: 111 8 16 16 (227328)
I0501 05:33:36.662549 29527 net.cpp:139] Memory required for data: 9548220
I0501 05:33:36.662552 29527 layer_factory.hpp:77] Creating layer ip1
I0501 05:33:36.662560 29527 net.cpp:86] Creating Layer ip1
I0501 05:33:36.662564 29527 net.cpp:408] ip1 <- pool0
I0501 05:33:36.662569 29527 net.cpp:382] ip1 -> ip1
I0501 05:33:36.667071 29527 net.cpp:124] Setting up ip1
I0501 05:33:36.667080 29527 net.cpp:131] Top shape: 111 80 (8880)
I0501 05:33:36.667083 29527 net.cpp:139] Memory required for data: 9583740
I0501 05:33:36.667090 29527 layer_factory.hpp:77] Creating layer relu1
I0501 05:33:36.667098 29527 net.cpp:86] Creating Layer relu1
I0501 05:33:36.667100 29527 net.cpp:408] relu1 <- ip1
I0501 05:33:36.667120 29527 net.cpp:369] relu1 -> ip1 (in-place)
I0501 05:33:36.667285 29527 net.cpp:124] Setting up relu1
I0501 05:33:36.667294 29527 net.cpp:131] Top shape: 111 80 (8880)
I0501 05:33:36.667312 29527 net.cpp:139] Memory required for data: 9619260
I0501 05:33:36.667315 29527 layer_factory.hpp:77] Creating layer ip2
I0501 05:33:36.667325 29527 net.cpp:86] Creating Layer ip2
I0501 05:33:36.667342 29527 net.cpp:408] ip2 <- ip1
I0501 05:33:36.667348 29527 net.cpp:382] ip2 -> ip2
I0501 05:33:36.667484 29527 net.cpp:124] Setting up ip2
I0501 05:33:36.667490 29527 net.cpp:131] Top shape: 111 20 (2220)
I0501 05:33:36.667493 29527 net.cpp:139] Memory required for data: 9628140
I0501 05:33:36.667500 29527 layer_factory.hpp:77] Creating layer relu2
I0501 05:33:36.667507 29527 net.cpp:86] Creating Layer relu2
I0501 05:33:36.667511 29527 net.cpp:408] relu2 <- ip2
I0501 05:33:36.667515 29527 net.cpp:369] relu2 -> ip2 (in-place)
I0501 05:33:36.667687 29527 net.cpp:124] Setting up relu2
I0501 05:33:36.667695 29527 net.cpp:131] Top shape: 111 20 (2220)
I0501 05:33:36.667698 29527 net.cpp:139] Memory required for data: 9637020
I0501 05:33:36.667701 29527 layer_factory.hpp:77] Creating layer ip3
I0501 05:33:36.667709 29527 net.cpp:86] Creating Layer ip3
I0501 05:33:36.667712 29527 net.cpp:408] ip3 <- ip2
I0501 05:33:36.667718 29527 net.cpp:382] ip3 -> ip3
I0501 05:33:36.667831 29527 net.cpp:124] Setting up ip3
I0501 05:33:36.667840 29527 net.cpp:131] Top shape: 111 40 (4440)
I0501 05:33:36.667842 29527 net.cpp:139] Memory required for data: 9654780
I0501 05:33:36.667847 29527 layer_factory.hpp:77] Creating layer relu3
I0501 05:33:36.667852 29527 net.cpp:86] Creating Layer relu3
I0501 05:33:36.667855 29527 net.cpp:408] relu3 <- ip3
I0501 05:33:36.667860 29527 net.cpp:369] relu3 -> ip3 (in-place)
I0501 05:33:36.668022 29527 net.cpp:124] Setting up relu3
I0501 05:33:36.668030 29527 net.cpp:131] Top shape: 111 40 (4440)
I0501 05:33:36.668033 29527 net.cpp:139] Memory required for data: 9672540
I0501 05:33:36.668036 29527 layer_factory.hpp:77] Creating layer ip4
I0501 05:33:36.668056 29527 net.cpp:86] Creating Layer ip4
I0501 05:33:36.668059 29527 net.cpp:408] ip4 <- ip3
I0501 05:33:36.668064 29527 net.cpp:382] ip4 -> ip4
I0501 05:33:36.668171 29527 net.cpp:124] Setting up ip4
I0501 05:33:36.668179 29527 net.cpp:131] Top shape: 111 10 (1110)
I0501 05:33:36.668181 29527 net.cpp:139] Memory required for data: 9676980
I0501 05:33:36.668191 29527 layer_factory.hpp:77] Creating layer loss
I0501 05:33:36.668196 29527 net.cpp:86] Creating Layer loss
I0501 05:33:36.668200 29527 net.cpp:408] loss <- ip4
I0501 05:33:36.668202 29527 net.cpp:408] loss <- label
I0501 05:33:36.668208 29527 net.cpp:382] loss -> loss
I0501 05:33:36.668225 29527 layer_factory.hpp:77] Creating layer loss
…
I0501 05:33:36.669508 29527 solver.cpp:173] Creating test net (#0) specified by net file: ECE595/cifar/train_test/var_everything/cifar_train_test_422.prototxt
I0501 05:33:36.669536 29527 net.cpp:296] The NetState phase (1) differed from the phase (0) specified by a rule in layer cifar
I0501 05:33:36.669631 29527 net.cpp:53] Initializing net from parameters: 
name: "CIFAR"
state {
  phase: TEST
}
layer {
  name: "cifar"
  type: "Data"
  top: "data"
  top: "label"
  include {
    phase: TEST
  }
  transform_param {
    mean_file: "examples/cifar10/mean.binaryproto"
  }
  data_param {
    source: "examples/cifar10/cifar10_test_lmdb"
    batch_size: 1000
    backend: LMDB
  }
}
layer {
  name: "conv0"
  type: "Convolution"
  bottom: "data"
  top: "conv0"
  param {
    lr_mult: 1
  }
  param {
    lr_mult: 2
  }
  convolution_param {
    num_output: 8
    pad: 2
    kernel_size: 5
    stride: 1
    weight_filler {
      type: "gaussian"
      std: 0.01
    }
    bias_filler {
      type: "constant"
    }
  }
}
layer {
  name: "Sigmoid0"
  type: "Sigmoid"
  bottom: "conv0"
  top: "Sigmoid0"
}
layer {
  name: "pool0"
  type: "Pooling"
  bottom: "Sigmoid0"
  top: "pool0"
  pooling_param {
    pool: AVE
    kernel_size: 3
    stride: 2
  }
}
layer {
  name: "ip1"
  type: "InnerProduct"
  bottom: "pool0"
  top: "ip1"
  param {
    lr_mult: 1
  }
  param {
    lr_mult: 2
  }
  inner_product_param {
    num_output: 80
    weight_filler {
      type: "gaussian"
      std: 0.01
    }
    bias_filler {
      type: "constant"
    }
  }
}
layer {
  name: "relu1"
  type: "ReLU"
  bottom: "ip1"
  top: "ip1"
}
layer {
  name: "ip2"
  type: "InnerProduct"
  bottom: "ip1"
  top: "ip2"
  param {
    lr_mult: 1
  }
  param {
    lr_mult: 2
  }
  inner_product_param {
    num_output: 20
    weight_filler {
      type: "gaussian"
      std: 0.01
    }
    bias_filler {
      type: "constant"
    }
  }
}
layer {
  name: "relu2"
  type: "ReLU"
  bottom: "ip2"
  top: "ip2"
}
layer {
  name: "ip3"
  type: "InnerProduct"
  bottom: "ip2"
  top: "ip3"
  param {
    lr_mult: 1
  }
  param {
    lr_mult: 2
  }
  inner_product_param {
    num_output: 40
    weight_filler {
      type: "gaussian"
      std: 0.01
    }
    bias_filler {
      type: "constant"
    }
  }
}
layer {
  name: "relu3"
  type: "ReLU"
  bottom: "ip3"
  top: "ip3"
}
layer {
  name: "ip4"
  type: "InnerProduct"
  bottom: "ip3"
  top: "ip4"
  param {
    lr_mult: 1
  }
  param {
    lr_mult: 2
  }
  inner_product_param {
    num_output: 10
    weight_filler {
      type: "gaussian"
      std: 0.01
    }
    bias_filler {
      type: "constant"
    }
  }
}
layer {
  name: "accuracy"
  type: "Accuracy"
  bottom: "ip4"
  bottom: "label"
  top: "accuracy"
  include {
    phase: TEST
  }
}
layer {
  name: "loss"
  type: "SoftmaxWithLoss"
  bottom: "ip4"
  bottom: "label"
  top: "loss"
}
I0501 05:33:36.669713 29527 layer_factory.hpp:77] Creating layer cifar
I0501 05:33:36.669775 29527 db_lmdb.cpp:35] Opened lmdb examples/cifar10/cifar10_test_lmdb
I0501 05:33:36.669787 29527 net.cpp:86] Creating Layer cifar
I0501 05:33:36.669793 29527 net.cpp:382] cifar -> data
I0501 05:33:36.669800 29527 net.cpp:382] cifar -> label
I0501 05:33:36.669806 29527 data_transformer.cpp:25] Loading mean file from: examples/cifar10/mean.binaryproto
I0501 05:33:36.669953 29527 data_layer.cpp:45] output data size: 1000,3,32,32
I0501 05:33:36.692062 29527 net.cpp:124] Setting up cifar
I0501 05:33:36.692088 29527 net.cpp:131] Top shape: 1000 3 32 32 (3072000)
I0501 05:33:36.692093 29527 net.cpp:131] Top shape: 1000 (1000)
I0501 05:33:36.692096 29527 net.cpp:139] Memory required for data: 12292000
I0501 05:33:36.692101 29527 layer_factory.hpp:77] Creating layer label_cifar_1_split
I0501 05:33:36.692117 29527 net.cpp:86] Creating Layer label_cifar_1_split
I0501 05:33:36.692137 29527 net.cpp:408] label_cifar_1_split <- label
I0501 05:33:36.692142 29527 net.cpp:382] label_cifar_1_split -> label_cifar_1_split_0
I0501 05:33:36.692152 29527 net.cpp:382] label_cifar_1_split -> label_cifar_1_split_1
I0501 05:33:36.692240 29527 net.cpp:124] Setting up label_cifar_1_split
I0501 05:33:36.692248 29527 net.cpp:131] Top shape: 1000 (1000)
I0501 05:33:36.692252 29527 net.cpp:131] Top shape: 1000 (1000)
I0501 05:33:36.692255 29527 net.cpp:139] Memory required for data: 12300000
I0501 05:33:36.692257 29527 layer_factory.hpp:77] Creating layer conv0
I0501 05:33:36.692271 29527 net.cpp:86] Creating Layer conv0
I0501 05:33:36.692275 29527 net.cpp:408] conv0 <- data
I0501 05:33:36.692279 29527 net.cpp:382] conv0 -> conv0
I0501 05:33:36.693989 29527 net.cpp:124] Setting up conv0
I0501 05:33:36.694002 29527 net.cpp:131] Top shape: 1000 8 32 32 (8192000)
I0501 05:33:36.694005 29527 net.cpp:139] Memory required for data: 45068000
I0501 05:33:36.694015 29527 layer_factory.hpp:77] Creating layer Sigmoid0
I0501 05:33:36.694022 29527 net.cpp:86] Creating Layer Sigmoid0
I0501 05:33:36.694041 29527 net.cpp:408] Sigmoid0 <- conv0
I0501 05:33:36.694046 29527 net.cpp:382] Sigmoid0 -> Sigmoid0
I0501 05:33:36.694236 29527 net.cpp:124] Setting up Sigmoid0
I0501 05:33:36.694247 29527 net.cpp:131] Top shape: 1000 8 32 32 (8192000)
I0501 05:33:36.694249 29527 net.cpp:139] Memory required for data: 77836000
I0501 05:33:36.694252 29527 layer_factory.hpp:77] Creating layer pool0
I0501 05:33:36.694262 29527 net.cpp:86] Creating Layer pool0
I0501 05:33:36.694264 29527 net.cpp:408] pool0 <- Sigmoid0
I0501 05:33:36.694268 29527 net.cpp:382] pool0 -> pool0
I0501 05:33:36.694519 29527 net.cpp:124] Setting up pool0
I0501 05:33:36.694526 29527 net.cpp:131] Top shape: 1000 8 16 16 (2048000)
I0501 05:33:36.694530 29527 net.cpp:139] Memory required for data: 86028000
I0501 05:33:36.694533 29527 layer_factory.hpp:77] Creating layer ip1
I0501 05:33:36.694541 29527 net.cpp:86] Creating Layer ip1
I0501 05:33:36.694545 29527 net.cpp:408] ip1 <- pool0
I0501 05:33:36.694550 29527 net.cpp:382] ip1 -> ip1
I0501 05:33:36.700055 29527 net.cpp:124] Setting up ip1
I0501 05:33:36.700064 29527 net.cpp:131] Top shape: 1000 80 (80000)
I0501 05:33:36.700067 29527 net.cpp:139] Memory required for data: 86348000
I0501 05:33:36.700089 29527 layer_factory.hpp:77] Creating layer relu1
I0501 05:33:36.700096 29527 net.cpp:86] Creating Layer relu1
I0501 05:33:36.700099 29527 net.cpp:408] relu1 <- ip1
I0501 05:33:36.700104 29527 net.cpp:369] relu1 -> ip1 (in-place)
I0501 05:33:36.700273 29527 net.cpp:124] Setting up relu1
I0501 05:33:36.700283 29527 net.cpp:131] Top shape: 1000 80 (80000)
I0501 05:33:36.700285 29527 net.cpp:139] Memory required for data: 86668000
I0501 05:33:36.700289 29527 layer_factory.hpp:77] Creating layer ip2
I0501 05:33:36.700295 29527 net.cpp:86] Creating Layer ip2
I0501 05:33:36.700299 29527 net.cpp:408] ip2 <- ip1
I0501 05:33:36.700304 29527 net.cpp:382] ip2 -> ip2
I0501 05:33:36.700464 29527 net.cpp:124] Setting up ip2
I0501 05:33:36.700472 29527 net.cpp:131] Top shape: 1000 20 (20000)
I0501 05:33:36.700475 29527 net.cpp:139] Memory required for data: 86748000
I0501 05:33:36.700482 29527 layer_factory.hpp:77] Creating layer relu2
I0501 05:33:36.700489 29527 net.cpp:86] Creating Layer relu2
I0501 05:33:36.700492 29527 net.cpp:408] relu2 <- ip2
I0501 05:33:36.700497 29527 net.cpp:369] relu2 -> ip2 (in-place)
I0501 05:33:36.701310 29527 net.cpp:124] Setting up relu2
I0501 05:33:36.701323 29527 net.cpp:131] Top shape: 1000 20 (20000)
I0501 05:33:36.701326 29527 net.cpp:139] Memory required for data: 86828000
I0501 05:33:36.701329 29527 layer_factory.hpp:77] Creating layer ip3
I0501 05:33:36.701337 29527 net.cpp:86] Creating Layer ip3
I0501 05:33:36.701355 29527 net.cpp:408] ip3 <- ip2
I0501 05:33:36.701362 29527 net.cpp:382] ip3 -> ip3
I0501 05:33:36.701493 29527 net.cpp:124] Setting up ip3
I0501 05:33:36.701500 29527 net.cpp:131] Top shape: 1000 40 (40000)
I0501 05:33:36.701519 29527 net.cpp:139] Memory required for data: 86988000
I0501 05:33:36.701524 29527 layer_factory.hpp:77] Creating layer relu3
I0501 05:33:36.701530 29527 net.cpp:86] Creating Layer relu3
I0501 05:33:36.701534 29527 net.cpp:408] relu3 <- ip3
I0501 05:33:36.701537 29527 net.cpp:369] relu3 -> ip3 (in-place)
I0501 05:33:36.701716 29527 net.cpp:124] Setting up relu3
I0501 05:33:36.701725 29527 net.cpp:131] Top shape: 1000 40 (40000)
I0501 05:33:36.701728 29527 net.cpp:139] Memory required for data: 87148000
I0501 05:33:36.701731 29527 layer_factory.hpp:77] Creating layer ip4
I0501 05:33:36.701737 29527 net.cpp:86] Creating Layer ip4
I0501 05:33:36.701741 29527 net.cpp:408] ip4 <- ip3
I0501 05:33:36.701747 29527 net.cpp:382] ip4 -> ip4
I0501 05:33:36.701864 29527 net.cpp:124] Setting up ip4
I0501 05:33:36.701871 29527 net.cpp:131] Top shape: 1000 10 (10000)
I0501 05:33:36.701874 29527 net.cpp:139] Memory required for data: 87188000
I0501 05:33:36.701881 29527 layer_factory.hpp:77] Creating layer ip4_ip4_0_split
I0501 05:33:36.701886 29527 net.cpp:86] Creating Layer ip4_ip4_0_split
I0501 05:33:36.701889 29527 net.cpp:408] ip4_ip4_0_split <- ip4
I0501 05:33:36.701894 29527 net.cpp:382] ip4_ip4_0_split -> ip4_ip4_0_split_0
I0501 05:33:36.701900 29527 net.cpp:382] ip4_ip4_0_split -> ip4_ip4_0_split_1
I0501 05:33:36.701941 29527 net.cpp:124] Setting up ip4_ip4_0_split
I0501 05:33:36.701946 29527 net.cpp:131] Top shape: 1000 10 (10000)
I0501 05:33:36.701951 29527 net.cpp:131] Top shape: 1000 10 (10000)
I0501 05:33:36.701953 29527 net.cpp:139] Memory required for data: 87268000
I0501 05:33:36.701956 29527 layer_factory.hpp:77] Creating layer accuracy
I0501 05:33:36.701962 29527 net.cpp:86] Creating Layer accuracy
I0501 05:33:36.701966 29527 net.cpp:408] accuracy <- ip4_ip4_0_split_0
I0501 05:33:36.701969 29527 net.cpp:408] accuracy <- label_cifar_1_split_0
I0501 05:33:36.701973 29527 net.cpp:382] accuracy -> accuracy
…
