…
I0430 21:51:51.680335 31855 net.cpp:296] The NetState phase (0) differed from the phase (1) specified by a rule in layer cifar
I0430 21:51:51.680349 31855 net.cpp:296] The NetState phase (0) differed from the phase (1) specified by a rule in layer accuracy
I0430 21:51:51.680426 31855 net.cpp:53] Initializing net from parameters: 
name: "CIFAR"
state {
  phase: TRAIN
  level: 0
  stage: ""
}
layer {
  name: "cifar"
  type: "Data"
  top: "data"
  top: "label"
  include {
    phase: TRAIN
  }
  transform_param {
    mean_file: "examples/cifar10/mean.binaryproto"
  }
  data_param {
    source: "examples/cifar10/cifar10_train_lmdb"
    batch_size: 111
    backend: LMDB
  }
}
layer {
  name: "conv0"
  type: "Convolution"
  bottom: "data"
  top: "conv0"
  param {
    lr_mult: 1
  }
  param {
    lr_mult: 2
  }
  convolution_param {
    num_output: 8
    pad: 2
    kernel_size: 3
    stride: 1
    weight_filler {
      type: "gaussian"
      std: 0.01
    }
    bias_filler {
      type: "constant"
    }
  }
}
layer {
  name: "Sigmoid0"
  type: "Sigmoid"
  bottom: "conv0"
  top: "Sigmoid0"
}
layer {
  name: "pool0"
  type: "Pooling"
  bottom: "Sigmoid0"
  top: "pool0"
  pooling_param {
    pool: AVE
    kernel_size: 3
    stride: 2
  }
}
layer {
  name: "ip1"
  type: "InnerProduct"
  bottom: "pool0"
  top: "ip1"
  param {
    lr_mult: 1
  }
  param {
    lr_mult: 2
  }
  inner_product_param {
    num_output: 80
    weight_filler {
      type: "gaussian"
      std: 0.01
    }
    bias_filler {
      type: "constant"
    }
  }
}
layer {
  name: "relu1"
  type: "ReLU"
  bottom: "ip1"
  top: "ip1"
}
layer {
  name: "ip2"
  type: "InnerProduct"
  bottom: "ip1"
  top: "ip2"
  param {
    lr_mult: 1
  }
  param {
    lr_mult: 2
  }
  inner_product_param {
    num_output: 10
    weight_filler {
      type: "gaussian"
      std: 0.01
    }
    bias_filler {
      type: "constant"
    }
  }
}
layer {
  name: "relu2"
  type: "ReLU"
  bottom: "ip2"
  top: "ip2"
}
layer {
  name: "ip3"
  type: "InnerProduct"
  bottom: "ip2"
  top: "ip3"
  param {
    lr_mult: 1
  }
  param {
    lr_mult: 2
  }
  inner_product_param {
    num_output: 10
    weight_filler {
      type: "gaussian"
      std: 0.01
    }
    bias_filler {
      type: "constant"
    }
  }
}
layer {
  name: "loss"
  type: "SoftmaxWithLoss"
  bottom: "ip3"
  bottom: "label"
  top: "loss"
}
I0430 21:51:51.680485 31855 layer_factory.hpp:77] Creating layer cifar
I0430 21:51:51.680570 31855 db_lmdb.cpp:35] Opened lmdb examples/cifar10/cifar10_train_lmdb
I0430 21:51:51.680593 31855 net.cpp:86] Creating Layer cifar
I0430 21:51:51.680599 31855 net.cpp:382] cifar -> data
I0430 21:51:51.680619 31855 net.cpp:382] cifar -> label
I0430 21:51:51.680629 31855 data_transformer.cpp:25] Loading mean file from: examples/cifar10/mean.binaryproto
I0430 21:51:51.682495 31855 data_layer.cpp:45] output data size: 111,3,32,32
I0430 21:51:51.689378 31855 net.cpp:124] Setting up cifar
I0430 21:51:51.689393 31855 net.cpp:131] Top shape: 111 3 32 32 (340992)
I0430 21:51:51.689399 31855 net.cpp:131] Top shape: 111 (111)
I0430 21:51:51.689401 31855 net.cpp:139] Memory required for data: 1364412
I0430 21:51:51.689409 31855 layer_factory.hpp:77] Creating layer conv0
I0430 21:51:51.689424 31855 net.cpp:86] Creating Layer conv0
I0430 21:51:51.689429 31855 net.cpp:408] conv0 <- data
I0430 21:51:51.689438 31855 net.cpp:382] conv0 -> conv0
I0430 21:51:51.916834 31855 net.cpp:124] Setting up conv0
I0430 21:51:51.916895 31855 net.cpp:131] Top shape: 111 8 34 34 (1026528)
I0430 21:51:51.916900 31855 net.cpp:139] Memory required for data: 5470524
I0430 21:51:51.916916 31855 layer_factory.hpp:77] Creating layer Sigmoid0
I0430 21:51:51.916929 31855 net.cpp:86] Creating Layer Sigmoid0
I0430 21:51:51.916932 31855 net.cpp:408] Sigmoid0 <- conv0
I0430 21:51:51.916937 31855 net.cpp:382] Sigmoid0 -> Sigmoid0
I0430 21:51:51.917119 31855 net.cpp:124] Setting up Sigmoid0
I0430 21:51:51.917129 31855 net.cpp:131] Top shape: 111 8 34 34 (1026528)
I0430 21:51:51.917132 31855 net.cpp:139] Memory required for data: 9576636
I0430 21:51:51.917135 31855 layer_factory.hpp:77] Creating layer pool0
I0430 21:51:51.917142 31855 net.cpp:86] Creating Layer pool0
I0430 21:51:51.917145 31855 net.cpp:408] pool0 <- Sigmoid0
I0430 21:51:51.917150 31855 net.cpp:382] pool0 -> pool0
I0430 21:51:51.917901 31855 net.cpp:124] Setting up pool0
I0430 21:51:51.917930 31855 net.cpp:131] Top shape: 111 8 17 17 (256632)
I0430 21:51:51.917933 31855 net.cpp:139] Memory required for data: 10603164
I0430 21:51:51.917937 31855 layer_factory.hpp:77] Creating layer ip1
I0430 21:51:51.917946 31855 net.cpp:86] Creating Layer ip1
I0430 21:51:51.917949 31855 net.cpp:408] ip1 <- pool0
I0430 21:51:51.917954 31855 net.cpp:382] ip1 -> ip1
I0430 21:51:51.923552 31855 net.cpp:124] Setting up ip1
I0430 21:51:51.923565 31855 net.cpp:131] Top shape: 111 80 (8880)
I0430 21:51:51.923584 31855 net.cpp:139] Memory required for data: 10638684
I0430 21:51:51.923593 31855 layer_factory.hpp:77] Creating layer relu1
I0430 21:51:51.923598 31855 net.cpp:86] Creating Layer relu1
I0430 21:51:51.923601 31855 net.cpp:408] relu1 <- ip1
I0430 21:51:51.923605 31855 net.cpp:369] relu1 -> ip1 (in-place)
I0430 21:51:51.923771 31855 net.cpp:124] Setting up relu1
I0430 21:51:51.923779 31855 net.cpp:131] Top shape: 111 80 (8880)
I0430 21:51:51.923782 31855 net.cpp:139] Memory required for data: 10674204
I0430 21:51:51.923785 31855 layer_factory.hpp:77] Creating layer ip2
I0430 21:51:51.923792 31855 net.cpp:86] Creating Layer ip2
I0430 21:51:51.923795 31855 net.cpp:408] ip2 <- ip1
I0430 21:51:51.923799 31855 net.cpp:382] ip2 -> ip2
I0430 21:51:51.924712 31855 net.cpp:124] Setting up ip2
I0430 21:51:51.924724 31855 net.cpp:131] Top shape: 111 10 (1110)
I0430 21:51:51.924742 31855 net.cpp:139] Memory required for data: 10678644
I0430 21:51:51.924751 31855 layer_factory.hpp:77] Creating layer relu2
I0430 21:51:51.924756 31855 net.cpp:86] Creating Layer relu2
I0430 21:51:51.924758 31855 net.cpp:408] relu2 <- ip2
I0430 21:51:51.924762 31855 net.cpp:369] relu2 -> ip2 (in-place)
I0430 21:51:51.925024 31855 net.cpp:124] Setting up relu2
I0430 21:51:51.925041 31855 net.cpp:131] Top shape: 111 10 (1110)
I0430 21:51:51.925045 31855 net.cpp:139] Memory required for data: 10683084
I0430 21:51:51.925048 31855 layer_factory.hpp:77] Creating layer ip3
I0430 21:51:51.925056 31855 net.cpp:86] Creating Layer ip3
I0430 21:51:51.925060 31855 net.cpp:408] ip3 <- ip2
I0430 21:51:51.925065 31855 net.cpp:382] ip3 -> ip3
I0430 21:51:51.925185 31855 net.cpp:124] Setting up ip3
I0430 21:51:51.925192 31855 net.cpp:131] Top shape: 111 10 (1110)
I0430 21:51:51.925195 31855 net.cpp:139] Memory required for data: 10687524
I0430 21:51:51.925201 31855 layer_factory.hpp:77] Creating layer loss
I0430 21:51:51.925221 31855 net.cpp:86] Creating Layer loss
I0430 21:51:51.925225 31855 net.cpp:408] loss <- ip3
I0430 21:51:51.925243 31855 net.cpp:408] loss <- label
I0430 21:51:51.925248 31855 net.cpp:382] loss -> loss
I0430 21:51:51.925276 31855 layer_factory.hpp:77] Creating layer loss
…
I0430 21:51:51.925848 31855 solver.cpp:173] Creating test net (#0) specified by net file: ECE595/cifar/train_test/var_everything/cifar_train_test_175.prototxt
I0430 21:51:51.925873 31855 net.cpp:296] The NetState phase (1) differed from the phase (0) specified by a rule in layer cifar
I0430 21:51:51.925956 31855 net.cpp:53] Initializing net from parameters: 
name: "CIFAR"
state {
  phase: TEST
}
layer {
  name: "cifar"
  type: "Data"
  top: "data"
  top: "label"
  include {
    phase: TEST
  }
  transform_param {
    mean_file: "examples/cifar10/mean.binaryproto"
  }
  data_param {
    source: "examples/cifar10/cifar10_test_lmdb"
    batch_size: 1000
    backend: LMDB
  }
}
layer {
  name: "conv0"
  type: "Convolution"
  bottom: "data"
  top: "conv0"
  param {
    lr_mult: 1
  }
  param {
    lr_mult: 2
  }
  convolution_param {
    num_output: 8
    pad: 2
    kernel_size: 3
    stride: 1
    weight_filler {
      type: "gaussian"
      std: 0.01
    }
    bias_filler {
      type: "constant"
    }
  }
}
layer {
  name: "Sigmoid0"
  type: "Sigmoid"
  bottom: "conv0"
  top: "Sigmoid0"
}
layer {
  name: "pool0"
  type: "Pooling"
  bottom: "Sigmoid0"
  top: "pool0"
  pooling_param {
    pool: AVE
    kernel_size: 3
    stride: 2
  }
}
layer {
  name: "ip1"
  type: "InnerProduct"
  bottom: "pool0"
  top: "ip1"
  param {
    lr_mult: 1
  }
  param {
    lr_mult: 2
  }
  inner_product_param {
    num_output: 80
    weight_filler {
      type: "gaussian"
      std: 0.01
    }
    bias_filler {
      type: "constant"
    }
  }
}
layer {
  name: "relu1"
  type: "ReLU"
  bottom: "ip1"
  top: "ip1"
}
layer {
  name: "ip2"
  type: "InnerProduct"
  bottom: "ip1"
  top: "ip2"
  param {
    lr_mult: 1
  }
  param {
    lr_mult: 2
  }
  inner_product_param {
    num_output: 10
    weight_filler {
      type: "gaussian"
      std: 0.01
    }
    bias_filler {
      type: "constant"
    }
  }
}
layer {
  name: "relu2"
  type: "ReLU"
  bottom: "ip2"
  top: "ip2"
}
layer {
  name: "ip3"
  type: "InnerProduct"
  bottom: "ip2"
  top: "ip3"
  param {
    lr_mult: 1
  }
  param {
    lr_mult: 2
  }
  inner_product_param {
    num_output: 10
    weight_filler {
      type: "gaussian"
      std: 0.01
    }
    bias_filler {
      type: "constant"
    }
  }
}
layer {
  name: "accuracy"
  type: "Accuracy"
  bottom: "ip3"
  bottom: "label"
  top: "accuracy"
  include {
    phase: TEST
  }
}
layer {
  name: "loss"
  type: "SoftmaxWithLoss"
  bottom: "ip3"
  bottom: "label"
  top: "loss"
}
I0430 21:51:51.926017 31855 layer_factory.hpp:77] Creating layer cifar
I0430 21:51:51.926060 31855 db_lmdb.cpp:35] Opened lmdb examples/cifar10/cifar10_test_lmdb
I0430 21:51:51.926072 31855 net.cpp:86] Creating Layer cifar
I0430 21:51:51.926076 31855 net.cpp:382] cifar -> data
I0430 21:51:51.926084 31855 net.cpp:382] cifar -> label
I0430 21:51:51.926090 31855 data_transformer.cpp:25] Loading mean file from: examples/cifar10/mean.binaryproto
I0430 21:51:51.926226 31855 data_layer.cpp:45] output data size: 1000,3,32,32
I0430 21:51:51.947612 31855 net.cpp:124] Setting up cifar
I0430 21:51:51.947654 31855 net.cpp:131] Top shape: 1000 3 32 32 (3072000)
I0430 21:51:51.947659 31855 net.cpp:131] Top shape: 1000 (1000)
I0430 21:51:51.947664 31855 net.cpp:139] Memory required for data: 12292000
I0430 21:51:51.947669 31855 layer_factory.hpp:77] Creating layer label_cifar_1_split
I0430 21:51:51.947681 31855 net.cpp:86] Creating Layer label_cifar_1_split
I0430 21:51:51.947718 31855 net.cpp:408] label_cifar_1_split <- label
I0430 21:51:51.947726 31855 net.cpp:382] label_cifar_1_split -> label_cifar_1_split_0
I0430 21:51:51.947736 31855 net.cpp:382] label_cifar_1_split -> label_cifar_1_split_1
I0430 21:51:51.947818 31855 net.cpp:124] Setting up label_cifar_1_split
I0430 21:51:51.947826 31855 net.cpp:131] Top shape: 1000 (1000)
I0430 21:51:51.947830 31855 net.cpp:131] Top shape: 1000 (1000)
I0430 21:51:51.947834 31855 net.cpp:139] Memory required for data: 12300000
I0430 21:51:51.947836 31855 layer_factory.hpp:77] Creating layer conv0
I0430 21:51:51.947849 31855 net.cpp:86] Creating Layer conv0
I0430 21:51:51.947852 31855 net.cpp:408] conv0 <- data
I0430 21:51:51.947859 31855 net.cpp:382] conv0 -> conv0
I0430 21:51:51.949461 31855 net.cpp:124] Setting up conv0
I0430 21:51:51.949491 31855 net.cpp:131] Top shape: 1000 8 34 34 (9248000)
I0430 21:51:51.949494 31855 net.cpp:139] Memory required for data: 49292000
I0430 21:51:51.949506 31855 layer_factory.hpp:77] Creating layer Sigmoid0
I0430 21:51:51.949512 31855 net.cpp:86] Creating Layer Sigmoid0
I0430 21:51:51.949514 31855 net.cpp:408] Sigmoid0 <- conv0
I0430 21:51:51.949519 31855 net.cpp:382] Sigmoid0 -> Sigmoid0
I0430 21:51:51.950418 31855 net.cpp:124] Setting up Sigmoid0
I0430 21:51:51.950429 31855 net.cpp:131] Top shape: 1000 8 34 34 (9248000)
I0430 21:51:51.950448 31855 net.cpp:139] Memory required for data: 86284000
I0430 21:51:51.950451 31855 layer_factory.hpp:77] Creating layer pool0
I0430 21:51:51.950460 31855 net.cpp:86] Creating Layer pool0
I0430 21:51:51.950464 31855 net.cpp:408] pool0 <- Sigmoid0
I0430 21:51:51.950469 31855 net.cpp:382] pool0 -> pool0
I0430 21:51:51.951624 31855 net.cpp:124] Setting up pool0
I0430 21:51:51.951634 31855 net.cpp:131] Top shape: 1000 8 17 17 (2312000)
I0430 21:51:51.951653 31855 net.cpp:139] Memory required for data: 95532000
I0430 21:51:51.951656 31855 layer_factory.hpp:77] Creating layer ip1
I0430 21:51:51.951664 31855 net.cpp:86] Creating Layer ip1
I0430 21:51:51.951668 31855 net.cpp:408] ip1 <- pool0
I0430 21:51:51.951673 31855 net.cpp:382] ip1 -> ip1
I0430 21:51:51.956573 31855 net.cpp:124] Setting up ip1
I0430 21:51:51.956581 31855 net.cpp:131] Top shape: 1000 80 (80000)
I0430 21:51:51.956600 31855 net.cpp:139] Memory required for data: 95852000
I0430 21:51:51.956609 31855 layer_factory.hpp:77] Creating layer relu1
I0430 21:51:51.956614 31855 net.cpp:86] Creating Layer relu1
I0430 21:51:51.956617 31855 net.cpp:408] relu1 <- ip1
I0430 21:51:51.956622 31855 net.cpp:369] relu1 -> ip1 (in-place)
I0430 21:51:51.956795 31855 net.cpp:124] Setting up relu1
I0430 21:51:51.956804 31855 net.cpp:131] Top shape: 1000 80 (80000)
I0430 21:51:51.956807 31855 net.cpp:139] Memory required for data: 96172000
I0430 21:51:51.956815 31855 layer_factory.hpp:77] Creating layer ip2
I0430 21:51:51.956835 31855 net.cpp:86] Creating Layer ip2
I0430 21:51:51.956838 31855 net.cpp:408] ip2 <- ip1
I0430 21:51:51.956845 31855 net.cpp:382] ip2 -> ip2
I0430 21:51:51.956996 31855 net.cpp:124] Setting up ip2
I0430 21:51:51.957005 31855 net.cpp:131] Top shape: 1000 10 (10000)
I0430 21:51:51.957008 31855 net.cpp:139] Memory required for data: 96212000
I0430 21:51:51.957016 31855 layer_factory.hpp:77] Creating layer relu2
I0430 21:51:51.957023 31855 net.cpp:86] Creating Layer relu2
I0430 21:51:51.957033 31855 net.cpp:408] relu2 <- ip2
I0430 21:51:51.957037 31855 net.cpp:369] relu2 -> ip2 (in-place)
I0430 21:51:51.957226 31855 net.cpp:124] Setting up relu2
I0430 21:51:51.957236 31855 net.cpp:131] Top shape: 1000 10 (10000)
I0430 21:51:51.957238 31855 net.cpp:139] Memory required for data: 96252000
I0430 21:51:51.957242 31855 layer_factory.hpp:77] Creating layer ip3
I0430 21:51:51.957247 31855 net.cpp:86] Creating Layer ip3
I0430 21:51:51.957252 31855 net.cpp:408] ip3 <- ip2
I0430 21:51:51.957258 31855 net.cpp:382] ip3 -> ip3
I0430 21:51:51.957363 31855 net.cpp:124] Setting up ip3
I0430 21:51:51.957370 31855 net.cpp:131] Top shape: 1000 10 (10000)
I0430 21:51:51.957373 31855 net.cpp:139] Memory required for data: 96292000
I0430 21:51:51.957389 31855 layer_factory.hpp:77] Creating layer ip3_ip3_0_split
I0430 21:51:51.957398 31855 net.cpp:86] Creating Layer ip3_ip3_0_split
I0430 21:51:51.957401 31855 net.cpp:408] ip3_ip3_0_split <- ip3
I0430 21:51:51.957406 31855 net.cpp:382] ip3_ip3_0_split -> ip3_ip3_0_split_0
I0430 21:51:51.957411 31855 net.cpp:382] ip3_ip3_0_split -> ip3_ip3_0_split_1
I0430 21:51:51.957444 31855 net.cpp:124] Setting up ip3_ip3_0_split
I0430 21:51:51.957449 31855 net.cpp:131] Top shape: 1000 10 (10000)
I0430 21:51:51.957454 31855 net.cpp:131] Top shape: 1000 10 (10000)
I0430 21:51:51.957456 31855 net.cpp:139] Memory required for data: 96372000
I0430 21:51:51.957459 31855 layer_factory.hpp:77] Creating layer accuracy
I0430 21:51:51.957480 31855 net.cpp:86] Creating Layer accuracy
I0430 21:51:51.957484 31855 net.cpp:408] accuracy <- ip3_ip3_0_split_0
I0430 21:51:51.957487 31855 net.cpp:408] accuracy <- label_cifar_1_split_0
I0430 21:51:51.957491 31855 net.cpp:382] accuracy -> accuracy
…
