…
I0430 21:57:26.767303 32245 net.cpp:296] The NetState phase (0) differed from the phase (1) specified by a rule in layer cifar
I0430 21:57:26.767318 32245 net.cpp:296] The NetState phase (0) differed from the phase (1) specified by a rule in layer accuracy
I0430 21:57:26.767388 32245 net.cpp:53] Initializing net from parameters: 
name: "CIFAR"
state {
  phase: TRAIN
  level: 0
  stage: ""
}
layer {
  name: "cifar"
  type: "Data"
  top: "data"
  top: "label"
  include {
    phase: TRAIN
  }
  transform_param {
    mean_file: "examples/cifar10/mean.binaryproto"
  }
  data_param {
    source: "examples/cifar10/cifar10_train_lmdb"
    batch_size: 111
    backend: LMDB
  }
}
layer {
  name: "conv0"
  type: "Convolution"
  bottom: "data"
  top: "conv0"
  param {
    lr_mult: 1
  }
  param {
    lr_mult: 2
  }
  convolution_param {
    num_output: 8
    pad: 2
    kernel_size: 3
    stride: 1
    weight_filler {
      type: "gaussian"
      std: 0.01
    }
    bias_filler {
      type: "constant"
    }
  }
}
layer {
  name: "Sigmoid0"
  type: "Sigmoid"
  bottom: "conv0"
  top: "Sigmoid0"
}
layer {
  name: "pool0"
  type: "Pooling"
  bottom: "Sigmoid0"
  top: "pool0"
  pooling_param {
    pool: AVE
    kernel_size: 3
    stride: 2
  }
}
layer {
  name: "ip1"
  type: "InnerProduct"
  bottom: "pool0"
  top: "ip1"
  param {
    lr_mult: 1
  }
  param {
    lr_mult: 2
  }
  inner_product_param {
    num_output: 80
    weight_filler {
      type: "gaussian"
      std: 0.01
    }
    bias_filler {
      type: "constant"
    }
  }
}
layer {
  name: "relu1"
  type: "ReLU"
  bottom: "ip1"
  top: "ip1"
}
layer {
  name: "ip2"
  type: "InnerProduct"
  bottom: "ip1"
  top: "ip2"
  param {
    lr_mult: 1
  }
  param {
    lr_mult: 2
  }
  inner_product_param {
    num_output: 80
    weight_filler {
      type: "gaussian"
      std: 0.01
    }
    bias_filler {
      type: "constant"
    }
  }
}
layer {
  name: "relu2"
  type: "ReLU"
  bottom: "ip2"
  top: "ip2"
}
layer {
  name: "ip3"
  type: "InnerProduct"
  bottom: "ip2"
  top: "ip3"
  param {
    lr_mult: 1
  }
  param {
    lr_mult: 2
  }
  inner_product_param {
    num_output: 10
    weight_filler {
      type: "gaussian"
      std: 0.01
    }
    bias_filler {
      type: "constant"
    }
  }
}
layer {
  name: "loss"
  type: "SoftmaxWithLoss"
  bottom: "ip3"
  bottom: "label"
  top: "loss"
}
I0430 21:57:26.767447 32245 layer_factory.hpp:77] Creating layer cifar
I0430 21:57:26.767524 32245 db_lmdb.cpp:35] Opened lmdb examples/cifar10/cifar10_train_lmdb
I0430 21:57:26.767545 32245 net.cpp:86] Creating Layer cifar
I0430 21:57:26.767554 32245 net.cpp:382] cifar -> data
I0430 21:57:26.767572 32245 net.cpp:382] cifar -> label
I0430 21:57:26.767585 32245 data_transformer.cpp:25] Loading mean file from: examples/cifar10/mean.binaryproto
I0430 21:57:26.769304 32245 data_layer.cpp:45] output data size: 111,3,32,32
I0430 21:57:26.775743 32245 net.cpp:124] Setting up cifar
I0430 21:57:26.775758 32245 net.cpp:131] Top shape: 111 3 32 32 (340992)
I0430 21:57:26.775763 32245 net.cpp:131] Top shape: 111 (111)
I0430 21:57:26.775764 32245 net.cpp:139] Memory required for data: 1364412
I0430 21:57:26.775770 32245 layer_factory.hpp:77] Creating layer conv0
I0430 21:57:26.775784 32245 net.cpp:86] Creating Layer conv0
I0430 21:57:26.775789 32245 net.cpp:408] conv0 <- data
I0430 21:57:26.775835 32245 net.cpp:382] conv0 -> conv0
I0430 21:57:26.999863 32245 net.cpp:124] Setting up conv0
I0430 21:57:26.999907 32245 net.cpp:131] Top shape: 111 8 34 34 (1026528)
I0430 21:57:26.999912 32245 net.cpp:139] Memory required for data: 5470524
I0430 21:57:26.999924 32245 layer_factory.hpp:77] Creating layer Sigmoid0
I0430 21:57:26.999936 32245 net.cpp:86] Creating Layer Sigmoid0
I0430 21:57:26.999939 32245 net.cpp:408] Sigmoid0 <- conv0
I0430 21:57:26.999944 32245 net.cpp:382] Sigmoid0 -> Sigmoid0
I0430 21:57:27.000135 32245 net.cpp:124] Setting up Sigmoid0
I0430 21:57:27.000145 32245 net.cpp:131] Top shape: 111 8 34 34 (1026528)
I0430 21:57:27.000149 32245 net.cpp:139] Memory required for data: 9576636
I0430 21:57:27.000151 32245 layer_factory.hpp:77] Creating layer pool0
I0430 21:57:27.000159 32245 net.cpp:86] Creating Layer pool0
I0430 21:57:27.000161 32245 net.cpp:408] pool0 <- Sigmoid0
I0430 21:57:27.000165 32245 net.cpp:382] pool0 -> pool0
I0430 21:57:27.000874 32245 net.cpp:124] Setting up pool0
I0430 21:57:27.000902 32245 net.cpp:131] Top shape: 111 8 17 17 (256632)
I0430 21:57:27.000905 32245 net.cpp:139] Memory required for data: 10603164
I0430 21:57:27.000908 32245 layer_factory.hpp:77] Creating layer ip1
I0430 21:57:27.000918 32245 net.cpp:86] Creating Layer ip1
I0430 21:57:27.000922 32245 net.cpp:408] ip1 <- pool0
I0430 21:57:27.000928 32245 net.cpp:382] ip1 -> ip1
I0430 21:57:27.006314 32245 net.cpp:124] Setting up ip1
I0430 21:57:27.006325 32245 net.cpp:131] Top shape: 111 80 (8880)
I0430 21:57:27.006328 32245 net.cpp:139] Memory required for data: 10638684
I0430 21:57:27.006336 32245 layer_factory.hpp:77] Creating layer relu1
I0430 21:57:27.006341 32245 net.cpp:86] Creating Layer relu1
I0430 21:57:27.006345 32245 net.cpp:408] relu1 <- ip1
I0430 21:57:27.006350 32245 net.cpp:369] relu1 -> ip1 (in-place)
I0430 21:57:27.006515 32245 net.cpp:124] Setting up relu1
I0430 21:57:27.006525 32245 net.cpp:131] Top shape: 111 80 (8880)
I0430 21:57:27.006527 32245 net.cpp:139] Memory required for data: 10674204
I0430 21:57:27.006531 32245 layer_factory.hpp:77] Creating layer ip2
I0430 21:57:27.006536 32245 net.cpp:86] Creating Layer ip2
I0430 21:57:27.006538 32245 net.cpp:408] ip2 <- ip1
I0430 21:57:27.006544 32245 net.cpp:382] ip2 -> ip2
I0430 21:57:27.007598 32245 net.cpp:124] Setting up ip2
I0430 21:57:27.007609 32245 net.cpp:131] Top shape: 111 80 (8880)
I0430 21:57:27.007628 32245 net.cpp:139] Memory required for data: 10709724
I0430 21:57:27.007637 32245 layer_factory.hpp:77] Creating layer relu2
I0430 21:57:27.007642 32245 net.cpp:86] Creating Layer relu2
I0430 21:57:27.007645 32245 net.cpp:408] relu2 <- ip2
I0430 21:57:27.007650 32245 net.cpp:369] relu2 -> ip2 (in-place)
I0430 21:57:27.007830 32245 net.cpp:124] Setting up relu2
I0430 21:57:27.007853 32245 net.cpp:131] Top shape: 111 80 (8880)
I0430 21:57:27.007858 32245 net.cpp:139] Memory required for data: 10745244
I0430 21:57:27.007860 32245 layer_factory.hpp:77] Creating layer ip3
I0430 21:57:27.007868 32245 net.cpp:86] Creating Layer ip3
I0430 21:57:27.007870 32245 net.cpp:408] ip3 <- ip2
I0430 21:57:27.007875 32245 net.cpp:382] ip3 -> ip3
I0430 21:57:27.008766 32245 net.cpp:124] Setting up ip3
I0430 21:57:27.008777 32245 net.cpp:131] Top shape: 111 10 (1110)
I0430 21:57:27.008780 32245 net.cpp:139] Memory required for data: 10749684
I0430 21:57:27.008785 32245 layer_factory.hpp:77] Creating layer loss
I0430 21:57:27.008790 32245 net.cpp:86] Creating Layer loss
I0430 21:57:27.008793 32245 net.cpp:408] loss <- ip3
I0430 21:57:27.008797 32245 net.cpp:408] loss <- label
I0430 21:57:27.008802 32245 net.cpp:382] loss -> loss
I0430 21:57:27.008836 32245 layer_factory.hpp:77] Creating layer loss
…
I0430 21:57:27.009467 32245 solver.cpp:173] Creating test net (#0) specified by net file: ECE595/cifar/train_test/var_everything/cifar_train_test_178.prototxt
I0430 21:57:27.009491 32245 net.cpp:296] The NetState phase (1) differed from the phase (0) specified by a rule in layer cifar
I0430 21:57:27.009573 32245 net.cpp:53] Initializing net from parameters: 
name: "CIFAR"
state {
  phase: TEST
}
layer {
  name: "cifar"
  type: "Data"
  top: "data"
  top: "label"
  include {
    phase: TEST
  }
  transform_param {
    mean_file: "examples/cifar10/mean.binaryproto"
  }
  data_param {
    source: "examples/cifar10/cifar10_test_lmdb"
    batch_size: 1000
    backend: LMDB
  }
}
layer {
  name: "conv0"
  type: "Convolution"
  bottom: "data"
  top: "conv0"
  param {
    lr_mult: 1
  }
  param {
    lr_mult: 2
  }
  convolution_param {
    num_output: 8
    pad: 2
    kernel_size: 3
    stride: 1
    weight_filler {
      type: "gaussian"
      std: 0.01
    }
    bias_filler {
      type: "constant"
    }
  }
}
layer {
  name: "Sigmoid0"
  type: "Sigmoid"
  bottom: "conv0"
  top: "Sigmoid0"
}
layer {
  name: "pool0"
  type: "Pooling"
  bottom: "Sigmoid0"
  top: "pool0"
  pooling_param {
    pool: AVE
    kernel_size: 3
    stride: 2
  }
}
layer {
  name: "ip1"
  type: "InnerProduct"
  bottom: "pool0"
  top: "ip1"
  param {
    lr_mult: 1
  }
  param {
    lr_mult: 2
  }
  inner_product_param {
    num_output: 80
    weight_filler {
      type: "gaussian"
      std: 0.01
    }
    bias_filler {
      type: "constant"
    }
  }
}
layer {
  name: "relu1"
  type: "ReLU"
  bottom: "ip1"
  top: "ip1"
}
layer {
  name: "ip2"
  type: "InnerProduct"
  bottom: "ip1"
  top: "ip2"
  param {
    lr_mult: 1
  }
  param {
    lr_mult: 2
  }
  inner_product_param {
    num_output: 80
    weight_filler {
      type: "gaussian"
      std: 0.01
    }
    bias_filler {
      type: "constant"
    }
  }
}
layer {
  name: "relu2"
  type: "ReLU"
  bottom: "ip2"
  top: "ip2"
}
layer {
  name: "ip3"
  type: "InnerProduct"
  bottom: "ip2"
  top: "ip3"
  param {
    lr_mult: 1
  }
  param {
    lr_mult: 2
  }
  inner_product_param {
    num_output: 10
    weight_filler {
      type: "gaussian"
      std: 0.01
    }
    bias_filler {
      type: "constant"
    }
  }
}
layer {
  name: "accuracy"
  type: "Accuracy"
  bottom: "ip3"
  bottom: "label"
  top: "accuracy"
  include {
    phase: TEST
  }
}
layer {
  name: "loss"
  type: "SoftmaxWithLoss"
  bottom: "ip3"
  bottom: "label"
  top: "loss"
}
I0430 21:57:27.009636 32245 layer_factory.hpp:77] Creating layer cifar
I0430 21:57:27.009682 32245 db_lmdb.cpp:35] Opened lmdb examples/cifar10/cifar10_test_lmdb
I0430 21:57:27.009693 32245 net.cpp:86] Creating Layer cifar
I0430 21:57:27.009698 32245 net.cpp:382] cifar -> data
I0430 21:57:27.009706 32245 net.cpp:382] cifar -> label
I0430 21:57:27.009711 32245 data_transformer.cpp:25] Loading mean file from: examples/cifar10/mean.binaryproto
I0430 21:57:27.009855 32245 data_layer.cpp:45] output data size: 1000,3,32,32
I0430 21:57:27.031795 32245 net.cpp:124] Setting up cifar
I0430 21:57:27.031821 32245 net.cpp:131] Top shape: 1000 3 32 32 (3072000)
I0430 21:57:27.031826 32245 net.cpp:131] Top shape: 1000 (1000)
I0430 21:57:27.031828 32245 net.cpp:139] Memory required for data: 12292000
I0430 21:57:27.031834 32245 layer_factory.hpp:77] Creating layer label_cifar_1_split
I0430 21:57:27.031846 32245 net.cpp:86] Creating Layer label_cifar_1_split
I0430 21:57:27.031877 32245 net.cpp:408] label_cifar_1_split <- label
I0430 21:57:27.031883 32245 net.cpp:382] label_cifar_1_split -> label_cifar_1_split_0
I0430 21:57:27.031889 32245 net.cpp:382] label_cifar_1_split -> label_cifar_1_split_1
I0430 21:57:27.031975 32245 net.cpp:124] Setting up label_cifar_1_split
I0430 21:57:27.031981 32245 net.cpp:131] Top shape: 1000 (1000)
I0430 21:57:27.031985 32245 net.cpp:131] Top shape: 1000 (1000)
I0430 21:57:27.031987 32245 net.cpp:139] Memory required for data: 12300000
I0430 21:57:27.031991 32245 layer_factory.hpp:77] Creating layer conv0
I0430 21:57:27.032002 32245 net.cpp:86] Creating Layer conv0
I0430 21:57:27.032006 32245 net.cpp:408] conv0 <- data
I0430 21:57:27.032011 32245 net.cpp:382] conv0 -> conv0
I0430 21:57:27.033696 32245 net.cpp:124] Setting up conv0
I0430 21:57:27.033710 32245 net.cpp:131] Top shape: 1000 8 34 34 (9248000)
I0430 21:57:27.033713 32245 net.cpp:139] Memory required for data: 49292000
I0430 21:57:27.033721 32245 layer_factory.hpp:77] Creating layer Sigmoid0
I0430 21:57:27.033745 32245 net.cpp:86] Creating Layer Sigmoid0
I0430 21:57:27.033747 32245 net.cpp:408] Sigmoid0 <- conv0
I0430 21:57:27.033752 32245 net.cpp:382] Sigmoid0 -> Sigmoid0
I0430 21:57:27.035538 32245 net.cpp:124] Setting up Sigmoid0
I0430 21:57:27.035552 32245 net.cpp:131] Top shape: 1000 8 34 34 (9248000)
I0430 21:57:27.035555 32245 net.cpp:139] Memory required for data: 86284000
I0430 21:57:27.035559 32245 layer_factory.hpp:77] Creating layer pool0
I0430 21:57:27.035583 32245 net.cpp:86] Creating Layer pool0
I0430 21:57:27.035586 32245 net.cpp:408] pool0 <- Sigmoid0
I0430 21:57:27.035593 32245 net.cpp:382] pool0 -> pool0
I0430 21:57:27.035780 32245 net.cpp:124] Setting up pool0
I0430 21:57:27.035790 32245 net.cpp:131] Top shape: 1000 8 17 17 (2312000)
I0430 21:57:27.035794 32245 net.cpp:139] Memory required for data: 95532000
I0430 21:57:27.035796 32245 layer_factory.hpp:77] Creating layer ip1
I0430 21:57:27.035804 32245 net.cpp:86] Creating Layer ip1
I0430 21:57:27.035807 32245 net.cpp:408] ip1 <- pool0
I0430 21:57:27.035814 32245 net.cpp:382] ip1 -> ip1
I0430 21:57:27.040716 32245 net.cpp:124] Setting up ip1
I0430 21:57:27.040724 32245 net.cpp:131] Top shape: 1000 80 (80000)
I0430 21:57:27.040727 32245 net.cpp:139] Memory required for data: 95852000
I0430 21:57:27.040735 32245 layer_factory.hpp:77] Creating layer relu1
I0430 21:57:27.040740 32245 net.cpp:86] Creating Layer relu1
I0430 21:57:27.040742 32245 net.cpp:408] relu1 <- ip1
I0430 21:57:27.040762 32245 net.cpp:369] relu1 -> ip1 (in-place)
I0430 21:57:27.040990 32245 net.cpp:124] Setting up relu1
I0430 21:57:27.041000 32245 net.cpp:131] Top shape: 1000 80 (80000)
I0430 21:57:27.041004 32245 net.cpp:139] Memory required for data: 96172000
I0430 21:57:27.041008 32245 layer_factory.hpp:77] Creating layer ip2
I0430 21:57:27.041015 32245 net.cpp:86] Creating Layer ip2
I0430 21:57:27.041019 32245 net.cpp:408] ip2 <- ip1
I0430 21:57:27.041023 32245 net.cpp:382] ip2 -> ip2
I0430 21:57:27.041374 32245 net.cpp:124] Setting up ip2
I0430 21:57:27.041396 32245 net.cpp:131] Top shape: 1000 80 (80000)
I0430 21:57:27.041399 32245 net.cpp:139] Memory required for data: 96492000
I0430 21:57:27.041405 32245 layer_factory.hpp:77] Creating layer relu2
I0430 21:57:27.041425 32245 net.cpp:86] Creating Layer relu2
I0430 21:57:27.041429 32245 net.cpp:408] relu2 <- ip2
I0430 21:57:27.041441 32245 net.cpp:369] relu2 -> ip2 (in-place)
I0430 21:57:27.041601 32245 net.cpp:124] Setting up relu2
I0430 21:57:27.041610 32245 net.cpp:131] Top shape: 1000 80 (80000)
I0430 21:57:27.041612 32245 net.cpp:139] Memory required for data: 96812000
I0430 21:57:27.041615 32245 layer_factory.hpp:77] Creating layer ip3
I0430 21:57:27.041622 32245 net.cpp:86] Creating Layer ip3
I0430 21:57:27.041625 32245 net.cpp:408] ip3 <- ip2
I0430 21:57:27.041630 32245 net.cpp:382] ip3 -> ip3
I0430 21:57:27.041762 32245 net.cpp:124] Setting up ip3
I0430 21:57:27.041770 32245 net.cpp:131] Top shape: 1000 10 (10000)
I0430 21:57:27.041772 32245 net.cpp:139] Memory required for data: 96852000
I0430 21:57:27.041788 32245 layer_factory.hpp:77] Creating layer ip3_ip3_0_split
I0430 21:57:27.041793 32245 net.cpp:86] Creating Layer ip3_ip3_0_split
I0430 21:57:27.041795 32245 net.cpp:408] ip3_ip3_0_split <- ip3
I0430 21:57:27.041800 32245 net.cpp:382] ip3_ip3_0_split -> ip3_ip3_0_split_0
I0430 21:57:27.041805 32245 net.cpp:382] ip3_ip3_0_split -> ip3_ip3_0_split_1
I0430 21:57:27.041836 32245 net.cpp:124] Setting up ip3_ip3_0_split
I0430 21:57:27.041839 32245 net.cpp:131] Top shape: 1000 10 (10000)
I0430 21:57:27.041843 32245 net.cpp:131] Top shape: 1000 10 (10000)
I0430 21:57:27.041846 32245 net.cpp:139] Memory required for data: 96932000
I0430 21:57:27.041848 32245 layer_factory.hpp:77] Creating layer accuracy
I0430 21:57:27.041853 32245 net.cpp:86] Creating Layer accuracy
I0430 21:57:27.041857 32245 net.cpp:408] accuracy <- ip3_ip3_0_split_0
I0430 21:57:27.041859 32245 net.cpp:408] accuracy <- label_cifar_1_split_0
I0430 21:57:27.041864 32245 net.cpp:382] accuracy -> accuracy
…
