…
I0430 19:46:44.057533 26811 net.cpp:296] The NetState phase (0) differed from the phase (1) specified by a rule in layer cifar
I0430 19:46:44.057549 26811 net.cpp:296] The NetState phase (0) differed from the phase (1) specified by a rule in layer accuracy
I0430 19:46:44.057632 26811 net.cpp:53] Initializing net from parameters: 
name: "CIFAR"
state {
  phase: TRAIN
  level: 0
  stage: ""
}
layer {
  name: "cifar"
  type: "Data"
  top: "data"
  top: "label"
  include {
    phase: TRAIN
  }
  transform_param {
    mean_file: "examples/cifar10/mean.binaryproto"
  }
  data_param {
    source: "examples/cifar10/cifar10_train_lmdb"
    batch_size: 111
    backend: LMDB
  }
}
layer {
  name: "ip1"
  type: "InnerProduct"
  bottom: "data"
  top: "ip1"
  param {
    lr_mult: 1
  }
  param {
    lr_mult: 2
  }
  inner_product_param {
    num_output: 80
    weight_filler {
      type: "gaussian"
      std: 0.01
    }
    bias_filler {
      type: "constant"
    }
  }
}
layer {
  name: "relu1"
  type: "ReLU"
  bottom: "ip1"
  top: "ip1"
}
layer {
  name: "ip2"
  type: "InnerProduct"
  bottom: "ip1"
  top: "ip2"
  param {
    lr_mult: 1
  }
  param {
    lr_mult: 2
  }
  inner_product_param {
    num_output: 10
    weight_filler {
      type: "gaussian"
      std: 0.01
    }
    bias_filler {
      type: "constant"
    }
  }
}
layer {
  name: "relu2"
  type: "ReLU"
  bottom: "ip2"
  top: "ip2"
}
layer {
  name: "ip3"
  type: "InnerProduct"
  bottom: "ip2"
  top: "ip3"
  param {
    lr_mult: 1
  }
  param {
    lr_mult: 2
  }
  inner_product_param {
    num_output: 80
    weight_filler {
      type: "gaussian"
      std: 0.01
    }
    bias_filler {
      type: "constant"
    }
  }
}
layer {
  name: "relu3"
  type: "ReLU"
  bottom: "ip3"
  top: "ip3"
}
layer {
  name: "ip4"
  type: "InnerProduct"
  bottom: "ip3"
  top: "ip4"
  param {
    lr_mult: 1
  }
  param {
    lr_mult: 2
  }
  inner_product_param {
    num_output: 10
    weight_filler {
      type: "gaussian"
      std: 0.01
    }
    bias_filler {
      type: "constant"
    }
  }
}
layer {
  name: "loss"
  type: "SoftmaxWithLoss"
  bottom: "ip4"
  bottom: "label"
  top: "loss"
}
I0430 19:46:44.057695 26811 layer_factory.hpp:77] Creating layer cifar
I0430 19:46:44.057801 26811 db_lmdb.cpp:35] Opened lmdb examples/cifar10/cifar10_train_lmdb
I0430 19:46:44.057835 26811 net.cpp:86] Creating Layer cifar
I0430 19:46:44.057842 26811 net.cpp:382] cifar -> data
I0430 19:46:44.057865 26811 net.cpp:382] cifar -> label
I0430 19:46:44.057878 26811 data_transformer.cpp:25] Loading mean file from: examples/cifar10/mean.binaryproto
I0430 19:46:44.059986 26811 data_layer.cpp:45] output data size: 111,3,32,32
I0430 19:46:44.067873 26811 net.cpp:124] Setting up cifar
I0430 19:46:44.067891 26811 net.cpp:131] Top shape: 111 3 32 32 (340992)
I0430 19:46:44.067898 26811 net.cpp:131] Top shape: 111 (111)
I0430 19:46:44.067903 26811 net.cpp:139] Memory required for data: 1364412
I0430 19:46:44.067910 26811 layer_factory.hpp:77] Creating layer ip1
I0430 19:46:44.067921 26811 net.cpp:86] Creating Layer ip1
I0430 19:46:44.067927 26811 net.cpp:408] ip1 <- data
I0430 19:46:44.067939 26811 net.cpp:382] ip1 -> ip1
I0430 19:46:44.077145 26811 net.cpp:124] Setting up ip1
I0430 19:46:44.077162 26811 net.cpp:131] Top shape: 111 80 (8880)
I0430 19:46:44.077167 26811 net.cpp:139] Memory required for data: 1399932
I0430 19:46:44.077181 26811 layer_factory.hpp:77] Creating layer relu1
I0430 19:46:44.077191 26811 net.cpp:86] Creating Layer relu1
I0430 19:46:44.077213 26811 net.cpp:408] relu1 <- ip1
I0430 19:46:44.077219 26811 net.cpp:369] relu1 -> ip1 (in-place)
I0430 19:46:44.366107 26811 net.cpp:124] Setting up relu1
I0430 19:46:44.366138 26811 net.cpp:131] Top shape: 111 80 (8880)
I0430 19:46:44.366143 26811 net.cpp:139] Memory required for data: 1435452
I0430 19:46:44.366149 26811 layer_factory.hpp:77] Creating layer ip2
I0430 19:46:44.366163 26811 net.cpp:86] Creating Layer ip2
I0430 19:46:44.366168 26811 net.cpp:408] ip2 <- ip1
I0430 19:46:44.366176 26811 net.cpp:382] ip2 -> ip2
I0430 19:46:44.367331 26811 net.cpp:124] Setting up ip2
I0430 19:46:44.367347 26811 net.cpp:131] Top shape: 111 10 (1110)
I0430 19:46:44.367350 26811 net.cpp:139] Memory required for data: 1439892
I0430 19:46:44.367362 26811 layer_factory.hpp:77] Creating layer relu2
I0430 19:46:44.367375 26811 net.cpp:86] Creating Layer relu2
I0430 19:46:44.367379 26811 net.cpp:408] relu2 <- ip2
I0430 19:46:44.367385 26811 net.cpp:369] relu2 -> ip2 (in-place)
I0430 19:46:44.368218 26811 net.cpp:124] Setting up relu2
I0430 19:46:44.368233 26811 net.cpp:131] Top shape: 111 10 (1110)
I0430 19:46:44.368237 26811 net.cpp:139] Memory required for data: 1444332
I0430 19:46:44.368242 26811 layer_factory.hpp:77] Creating layer ip3
I0430 19:46:44.368249 26811 net.cpp:86] Creating Layer ip3
I0430 19:46:44.368253 26811 net.cpp:408] ip3 <- ip2
I0430 19:46:44.368260 26811 net.cpp:382] ip3 -> ip3
I0430 19:46:44.368413 26811 net.cpp:124] Setting up ip3
I0430 19:46:44.368422 26811 net.cpp:131] Top shape: 111 80 (8880)
I0430 19:46:44.368427 26811 net.cpp:139] Memory required for data: 1479852
I0430 19:46:44.368436 26811 layer_factory.hpp:77] Creating layer relu3
I0430 19:46:44.368441 26811 net.cpp:86] Creating Layer relu3
I0430 19:46:44.368445 26811 net.cpp:408] relu3 <- ip3
I0430 19:46:44.368451 26811 net.cpp:369] relu3 -> ip3 (in-place)
I0430 19:46:44.368630 26811 net.cpp:124] Setting up relu3
I0430 19:46:44.368640 26811 net.cpp:131] Top shape: 111 80 (8880)
I0430 19:46:44.368643 26811 net.cpp:139] Memory required for data: 1515372
I0430 19:46:44.368646 26811 layer_factory.hpp:77] Creating layer ip4
I0430 19:46:44.368654 26811 net.cpp:86] Creating Layer ip4
I0430 19:46:44.368657 26811 net.cpp:408] ip4 <- ip3
I0430 19:46:44.368664 26811 net.cpp:382] ip4 -> ip4
I0430 19:46:44.368801 26811 net.cpp:124] Setting up ip4
I0430 19:46:44.368815 26811 net.cpp:131] Top shape: 111 10 (1110)
I0430 19:46:44.368819 26811 net.cpp:139] Memory required for data: 1519812
I0430 19:46:44.368826 26811 layer_factory.hpp:77] Creating layer loss
I0430 19:46:44.368834 26811 net.cpp:86] Creating Layer loss
I0430 19:46:44.368837 26811 net.cpp:408] loss <- ip4
I0430 19:46:44.368841 26811 net.cpp:408] loss <- label
I0430 19:46:44.368849 26811 net.cpp:382] loss -> loss
I0430 19:46:44.368870 26811 layer_factory.hpp:77] Creating layer loss
…
I0430 19:46:44.369520 26811 solver.cpp:173] Creating test net (#0) specified by net file: ECE595/cifar/train_test/var_everything/cifar_train_test_108.prototxt
I0430 19:46:44.369563 26811 net.cpp:296] The NetState phase (1) differed from the phase (0) specified by a rule in layer cifar
I0430 19:46:44.369649 26811 net.cpp:53] Initializing net from parameters: 
name: "CIFAR"
state {
  phase: TEST
}
layer {
  name: "cifar"
  type: "Data"
  top: "data"
  top: "label"
  include {
    phase: TEST
  }
  transform_param {
    mean_file: "examples/cifar10/mean.binaryproto"
  }
  data_param {
    source: "examples/cifar10/cifar10_test_lmdb"
    batch_size: 1000
    backend: LMDB
  }
}
layer {
  name: "ip1"
  type: "InnerProduct"
  bottom: "data"
  top: "ip1"
  param {
    lr_mult: 1
  }
  param {
    lr_mult: 2
  }
  inner_product_param {
    num_output: 80
    weight_filler {
      type: "gaussian"
      std: 0.01
    }
    bias_filler {
      type: "constant"
    }
  }
}
layer {
  name: "relu1"
  type: "ReLU"
  bottom: "ip1"
  top: "ip1"
}
layer {
  name: "ip2"
  type: "InnerProduct"
  bottom: "ip1"
  top: "ip2"
  param {
    lr_mult: 1
  }
  param {
    lr_mult: 2
  }
  inner_product_param {
    num_output: 10
    weight_filler {
      type: "gaussian"
      std: 0.01
    }
    bias_filler {
      type: "constant"
    }
  }
}
layer {
  name: "relu2"
  type: "ReLU"
  bottom: "ip2"
  top: "ip2"
}
layer {
  name: "ip3"
  type: "InnerProduct"
  bottom: "ip2"
  top: "ip3"
  param {
    lr_mult: 1
  }
  param {
    lr_mult: 2
  }
  inner_product_param {
    num_output: 80
    weight_filler {
      type: "gaussian"
      std: 0.01
    }
    bias_filler {
      type: "constant"
    }
  }
}
layer {
  name: "relu3"
  type: "ReLU"
  bottom: "ip3"
  top: "ip3"
}
layer {
  name: "ip4"
  type: "InnerProduct"
  bottom: "ip3"
  top: "ip4"
  param {
    lr_mult: 1
  }
  param {
    lr_mult: 2
  }
  inner_product_param {
    num_output: 10
    weight_filler {
      type: "gaussian"
      std: 0.01
    }
    bias_filler {
      type: "constant"
    }
  }
}
layer {
  name: "accuracy"
  type: "Accuracy"
  bottom: "ip4"
  bottom: "label"
  top: "accuracy"
  include {
    phase: TEST
  }
}
layer {
  name: "loss"
  type: "SoftmaxWithLoss"
  bottom: "ip4"
  bottom: "label"
  top: "loss"
}
I0430 19:46:44.369731 26811 layer_factory.hpp:77] Creating layer cifar
I0430 19:46:44.369784 26811 db_lmdb.cpp:35] Opened lmdb examples/cifar10/cifar10_test_lmdb
I0430 19:46:44.369799 26811 net.cpp:86] Creating Layer cifar
I0430 19:46:44.369804 26811 net.cpp:382] cifar -> data
I0430 19:46:44.369814 26811 net.cpp:382] cifar -> label
I0430 19:46:44.369822 26811 data_transformer.cpp:25] Loading mean file from: examples/cifar10/mean.binaryproto
I0430 19:46:44.369993 26811 data_layer.cpp:45] output data size: 1000,3,32,32
I0430 19:46:44.394093 26811 net.cpp:124] Setting up cifar
I0430 19:46:44.394120 26811 net.cpp:131] Top shape: 1000 3 32 32 (3072000)
I0430 19:46:44.394140 26811 net.cpp:131] Top shape: 1000 (1000)
I0430 19:46:44.394143 26811 net.cpp:139] Memory required for data: 12292000
I0430 19:46:44.394150 26811 layer_factory.hpp:77] Creating layer label_cifar_1_split
I0430 19:46:44.394166 26811 net.cpp:86] Creating Layer label_cifar_1_split
I0430 19:46:44.394171 26811 net.cpp:408] label_cifar_1_split <- label
I0430 19:46:44.394177 26811 net.cpp:382] label_cifar_1_split -> label_cifar_1_split_0
I0430 19:46:44.394186 26811 net.cpp:382] label_cifar_1_split -> label_cifar_1_split_1
I0430 19:46:44.394270 26811 net.cpp:124] Setting up label_cifar_1_split
I0430 19:46:44.394279 26811 net.cpp:131] Top shape: 1000 (1000)
I0430 19:46:44.394282 26811 net.cpp:131] Top shape: 1000 (1000)
I0430 19:46:44.394285 26811 net.cpp:139] Memory required for data: 12300000
I0430 19:46:44.394289 26811 layer_factory.hpp:77] Creating layer ip1
I0430 19:46:44.394297 26811 net.cpp:86] Creating Layer ip1
I0430 19:46:44.394300 26811 net.cpp:408] ip1 <- data
I0430 19:46:44.394306 26811 net.cpp:382] ip1 -> ip1
I0430 19:46:44.401459 26811 net.cpp:124] Setting up ip1
I0430 19:46:44.401471 26811 net.cpp:131] Top shape: 1000 80 (80000)
I0430 19:46:44.401474 26811 net.cpp:139] Memory required for data: 12620000
I0430 19:46:44.401499 26811 layer_factory.hpp:77] Creating layer relu1
I0430 19:46:44.401506 26811 net.cpp:86] Creating Layer relu1
I0430 19:46:44.401510 26811 net.cpp:408] relu1 <- ip1
I0430 19:46:44.401517 26811 net.cpp:369] relu1 -> ip1 (in-place)
I0430 19:46:44.402334 26811 net.cpp:124] Setting up relu1
I0430 19:46:44.402348 26811 net.cpp:131] Top shape: 1000 80 (80000)
I0430 19:46:44.402350 26811 net.cpp:139] Memory required for data: 12940000
I0430 19:46:44.402354 26811 layer_factory.hpp:77] Creating layer ip2
I0430 19:46:44.402362 26811 net.cpp:86] Creating Layer ip2
I0430 19:46:44.402365 26811 net.cpp:408] ip2 <- ip1
I0430 19:46:44.402372 26811 net.cpp:382] ip2 -> ip2
I0430 19:46:44.402513 26811 net.cpp:124] Setting up ip2
I0430 19:46:44.402519 26811 net.cpp:131] Top shape: 1000 10 (10000)
I0430 19:46:44.402523 26811 net.cpp:139] Memory required for data: 12980000
I0430 19:46:44.402530 26811 layer_factory.hpp:77] Creating layer relu2
I0430 19:46:44.402535 26811 net.cpp:86] Creating Layer relu2
I0430 19:46:44.402539 26811 net.cpp:408] relu2 <- ip2
I0430 19:46:44.402544 26811 net.cpp:369] relu2 -> ip2 (in-place)
I0430 19:46:44.402706 26811 net.cpp:124] Setting up relu2
I0430 19:46:44.402715 26811 net.cpp:131] Top shape: 1000 10 (10000)
I0430 19:46:44.402719 26811 net.cpp:139] Memory required for data: 13020000
I0430 19:46:44.402721 26811 layer_factory.hpp:77] Creating layer ip3
I0430 19:46:44.402729 26811 net.cpp:86] Creating Layer ip3
I0430 19:46:44.402734 26811 net.cpp:408] ip3 <- ip2
I0430 19:46:44.402737 26811 net.cpp:382] ip3 -> ip3
I0430 19:46:44.402865 26811 net.cpp:124] Setting up ip3
I0430 19:46:44.402873 26811 net.cpp:131] Top shape: 1000 80 (80000)
I0430 19:46:44.402875 26811 net.cpp:139] Memory required for data: 13340000
I0430 19:46:44.402882 26811 layer_factory.hpp:77] Creating layer relu3
I0430 19:46:44.402889 26811 net.cpp:86] Creating Layer relu3
I0430 19:46:44.402892 26811 net.cpp:408] relu3 <- ip3
I0430 19:46:44.402896 26811 net.cpp:369] relu3 -> ip3 (in-place)
I0430 19:46:44.403055 26811 net.cpp:124] Setting up relu3
I0430 19:46:44.403064 26811 net.cpp:131] Top shape: 1000 80 (80000)
I0430 19:46:44.403067 26811 net.cpp:139] Memory required for data: 13660000
I0430 19:46:44.403070 26811 layer_factory.hpp:77] Creating layer ip4
I0430 19:46:44.403079 26811 net.cpp:86] Creating Layer ip4
I0430 19:46:44.403082 26811 net.cpp:408] ip4 <- ip3
I0430 19:46:44.403089 26811 net.cpp:382] ip4 -> ip4
I0430 19:46:44.403214 26811 net.cpp:124] Setting up ip4
I0430 19:46:44.403223 26811 net.cpp:131] Top shape: 1000 10 (10000)
I0430 19:46:44.403225 26811 net.cpp:139] Memory required for data: 13700000
I0430 19:46:44.403230 26811 layer_factory.hpp:77] Creating layer ip4_ip4_0_split
I0430 19:46:44.403235 26811 net.cpp:86] Creating Layer ip4_ip4_0_split
I0430 19:46:44.403246 26811 net.cpp:408] ip4_ip4_0_split <- ip4
I0430 19:46:44.403251 26811 net.cpp:382] ip4_ip4_0_split -> ip4_ip4_0_split_0
I0430 19:46:44.403257 26811 net.cpp:382] ip4_ip4_0_split -> ip4_ip4_0_split_1
I0430 19:46:44.403292 26811 net.cpp:124] Setting up ip4_ip4_0_split
I0430 19:46:44.403298 26811 net.cpp:131] Top shape: 1000 10 (10000)
I0430 19:46:44.403302 26811 net.cpp:131] Top shape: 1000 10 (10000)
I0430 19:46:44.403306 26811 net.cpp:139] Memory required for data: 13780000
I0430 19:46:44.403313 26811 layer_factory.hpp:77] Creating layer accuracy
I0430 19:46:44.403318 26811 net.cpp:86] Creating Layer accuracy
I0430 19:46:44.403321 26811 net.cpp:408] accuracy <- ip4_ip4_0_split_0
I0430 19:46:44.403326 26811 net.cpp:408] accuracy <- label_cifar_1_split_0
I0430 19:46:44.403331 26811 net.cpp:382] accuracy -> accuracy
…
