…
I0430 17:54:03.658874 21189 net.cpp:296] The NetState phase (0) differed from the phase (1) specified by a rule in layer cifar
I0430 17:54:03.658892 21189 net.cpp:296] The NetState phase (0) differed from the phase (1) specified by a rule in layer accuracy
I0430 17:54:03.658978 21189 net.cpp:53] Initializing net from parameters: 
name: "CIFAR"
state {
  phase: TRAIN
  level: 0
  stage: ""
}
layer {
  name: "cifar"
  type: "Data"
  top: "data"
  top: "label"
  include {
    phase: TRAIN
  }
  transform_param {
    mean_file: "examples/cifar10/mean.binaryproto"
  }
  data_param {
    source: "examples/cifar10/cifar10_train_lmdb"
    batch_size: 111
    backend: LMDB
  }
}
layer {
  name: "ip1"
  type: "InnerProduct"
  bottom: "data"
  top: "ip1"
  param {
    lr_mult: 1
  }
  param {
    lr_mult: 2
  }
  inner_product_param {
    num_output: 10
    weight_filler {
      type: "gaussian"
      std: 0.01
    }
    bias_filler {
      type: "constant"
    }
  }
}
layer {
  name: "relu1"
  type: "ReLU"
  bottom: "ip1"
  top: "ip1"
}
layer {
  name: "ip2"
  type: "InnerProduct"
  bottom: "ip1"
  top: "ip2"
  param {
    lr_mult: 1
  }
  param {
    lr_mult: 2
  }
  inner_product_param {
    num_output: 80
    weight_filler {
      type: "gaussian"
      std: 0.01
    }
    bias_filler {
      type: "constant"
    }
  }
}
layer {
  name: "relu2"
  type: "ReLU"
  bottom: "ip2"
  top: "ip2"
}
layer {
  name: "ip3"
  type: "InnerProduct"
  bottom: "ip2"
  top: "ip3"
  param {
    lr_mult: 1
  }
  param {
    lr_mult: 2
  }
  inner_product_param {
    num_output: 160
    weight_filler {
      type: "gaussian"
      std: 0.01
    }
    bias_filler {
      type: "constant"
    }
  }
}
layer {
  name: "relu3"
  type: "ReLU"
  bottom: "ip3"
  top: "ip3"
}
layer {
  name: "ip4"
  type: "InnerProduct"
  bottom: "ip3"
  top: "ip4"
  param {
    lr_mult: 1
  }
  param {
    lr_mult: 2
  }
  inner_product_param {
    num_output: 10
    weight_filler {
      type: "gaussian"
      std: 0.01
    }
    bias_filler {
      type: "constant"
    }
  }
}
layer {
  name: "loss"
  type: "SoftmaxWithLoss"
  bottom: "ip4"
  bottom: "label"
  top: "loss"
}
I0430 17:54:03.659050 21189 layer_factory.hpp:77] Creating layer cifar
I0430 17:54:03.659152 21189 db_lmdb.cpp:35] Opened lmdb examples/cifar10/cifar10_train_lmdb
I0430 17:54:03.659178 21189 net.cpp:86] Creating Layer cifar
I0430 17:54:03.659184 21189 net.cpp:382] cifar -> data
I0430 17:54:03.659209 21189 net.cpp:382] cifar -> label
I0430 17:54:03.659222 21189 data_transformer.cpp:25] Loading mean file from: examples/cifar10/mean.binaryproto
I0430 17:54:03.661357 21189 data_layer.cpp:45] output data size: 111,3,32,32
I0430 17:54:03.669270 21189 net.cpp:124] Setting up cifar
I0430 17:54:03.669291 21189 net.cpp:131] Top shape: 111 3 32 32 (340992)
I0430 17:54:03.669296 21189 net.cpp:131] Top shape: 111 (111)
I0430 17:54:03.669301 21189 net.cpp:139] Memory required for data: 1364412
I0430 17:54:03.669307 21189 layer_factory.hpp:77] Creating layer ip1
I0430 17:54:03.669320 21189 net.cpp:86] Creating Layer ip1
I0430 17:54:03.669327 21189 net.cpp:408] ip1 <- data
I0430 17:54:03.669339 21189 net.cpp:382] ip1 -> ip1
I0430 17:54:03.671507 21189 net.cpp:124] Setting up ip1
I0430 17:54:03.671522 21189 net.cpp:131] Top shape: 111 10 (1110)
I0430 17:54:03.671526 21189 net.cpp:139] Memory required for data: 1368852
I0430 17:54:03.671542 21189 layer_factory.hpp:77] Creating layer relu1
I0430 17:54:03.671551 21189 net.cpp:86] Creating Layer relu1
I0430 17:54:03.671571 21189 net.cpp:408] relu1 <- ip1
I0430 17:54:03.671582 21189 net.cpp:369] relu1 -> ip1 (in-place)
I0430 17:54:03.935331 21189 net.cpp:124] Setting up relu1
I0430 17:54:03.935374 21189 net.cpp:131] Top shape: 111 10 (1110)
I0430 17:54:03.935377 21189 net.cpp:139] Memory required for data: 1373292
I0430 17:54:03.935384 21189 layer_factory.hpp:77] Creating layer ip2
I0430 17:54:03.935397 21189 net.cpp:86] Creating Layer ip2
I0430 17:54:03.935401 21189 net.cpp:408] ip2 <- ip1
I0430 17:54:03.935410 21189 net.cpp:382] ip2 -> ip2
I0430 17:54:03.936472 21189 net.cpp:124] Setting up ip2
I0430 17:54:03.936501 21189 net.cpp:131] Top shape: 111 80 (8880)
I0430 17:54:03.936504 21189 net.cpp:139] Memory required for data: 1408812
I0430 17:54:03.936514 21189 layer_factory.hpp:77] Creating layer relu2
I0430 17:54:03.936522 21189 net.cpp:86] Creating Layer relu2
I0430 17:54:03.936527 21189 net.cpp:408] relu2 <- ip2
I0430 17:54:03.936530 21189 net.cpp:369] relu2 -> ip2 (in-place)
I0430 17:54:03.937371 21189 net.cpp:124] Setting up relu2
I0430 17:54:03.937399 21189 net.cpp:131] Top shape: 111 80 (8880)
I0430 17:54:03.937403 21189 net.cpp:139] Memory required for data: 1444332
I0430 17:54:03.937407 21189 layer_factory.hpp:77] Creating layer ip3
I0430 17:54:03.937413 21189 net.cpp:86] Creating Layer ip3
I0430 17:54:03.937418 21189 net.cpp:408] ip3 <- ip2
I0430 17:54:03.937423 21189 net.cpp:382] ip3 -> ip3
I0430 17:54:03.938740 21189 net.cpp:124] Setting up ip3
I0430 17:54:03.938752 21189 net.cpp:131] Top shape: 111 160 (17760)
I0430 17:54:03.938772 21189 net.cpp:139] Memory required for data: 1515372
I0430 17:54:03.938781 21189 layer_factory.hpp:77] Creating layer relu3
I0430 17:54:03.938786 21189 net.cpp:86] Creating Layer relu3
I0430 17:54:03.938789 21189 net.cpp:408] relu3 <- ip3
I0430 17:54:03.938794 21189 net.cpp:369] relu3 -> ip3 (in-place)
I0430 17:54:03.938967 21189 net.cpp:124] Setting up relu3
I0430 17:54:03.938977 21189 net.cpp:131] Top shape: 111 160 (17760)
I0430 17:54:03.938979 21189 net.cpp:139] Memory required for data: 1586412
I0430 17:54:03.938982 21189 layer_factory.hpp:77] Creating layer ip4
I0430 17:54:03.938989 21189 net.cpp:86] Creating Layer ip4
I0430 17:54:03.938992 21189 net.cpp:408] ip4 <- ip3
I0430 17:54:03.938997 21189 net.cpp:382] ip4 -> ip4
I0430 17:54:03.939153 21189 net.cpp:124] Setting up ip4
I0430 17:54:03.939162 21189 net.cpp:131] Top shape: 111 10 (1110)
I0430 17:54:03.939164 21189 net.cpp:139] Memory required for data: 1590852
I0430 17:54:03.939170 21189 layer_factory.hpp:77] Creating layer loss
I0430 17:54:03.939178 21189 net.cpp:86] Creating Layer loss
I0430 17:54:03.939184 21189 net.cpp:408] loss <- ip4
I0430 17:54:03.939188 21189 net.cpp:408] loss <- label
I0430 17:54:03.939194 21189 net.cpp:382] loss -> loss
I0430 17:54:03.939213 21189 layer_factory.hpp:77] Creating layer loss
…
I0430 17:54:03.939811 21189 solver.cpp:173] Creating test net (#0) specified by net file: ECE595/cifar/train_test/var_everything/cifar_train_test_49.prototxt
I0430 17:54:03.939851 21189 net.cpp:296] The NetState phase (1) differed from the phase (0) specified by a rule in layer cifar
I0430 17:54:03.939929 21189 net.cpp:53] Initializing net from parameters: 
name: "CIFAR"
state {
  phase: TEST
}
layer {
  name: "cifar"
  type: "Data"
  top: "data"
  top: "label"
  include {
    phase: TEST
  }
  transform_param {
    mean_file: "examples/cifar10/mean.binaryproto"
  }
  data_param {
    source: "examples/cifar10/cifar10_test_lmdb"
    batch_size: 1000
    backend: LMDB
  }
}
layer {
  name: "ip1"
  type: "InnerProduct"
  bottom: "data"
  top: "ip1"
  param {
    lr_mult: 1
  }
  param {
    lr_mult: 2
  }
  inner_product_param {
    num_output: 10
    weight_filler {
      type: "gaussian"
      std: 0.01
    }
    bias_filler {
      type: "constant"
    }
  }
}
layer {
  name: "relu1"
  type: "ReLU"
  bottom: "ip1"
  top: "ip1"
}
layer {
  name: "ip2"
  type: "InnerProduct"
  bottom: "ip1"
  top: "ip2"
  param {
    lr_mult: 1
  }
  param {
    lr_mult: 2
  }
  inner_product_param {
    num_output: 80
    weight_filler {
      type: "gaussian"
      std: 0.01
    }
    bias_filler {
      type: "constant"
    }
  }
}
layer {
  name: "relu2"
  type: "ReLU"
  bottom: "ip2"
  top: "ip2"
}
layer {
  name: "ip3"
  type: "InnerProduct"
  bottom: "ip2"
  top: "ip3"
  param {
    lr_mult: 1
  }
  param {
    lr_mult: 2
  }
  inner_product_param {
    num_output: 160
    weight_filler {
      type: "gaussian"
      std: 0.01
    }
    bias_filler {
      type: "constant"
    }
  }
}
layer {
  name: "relu3"
  type: "ReLU"
  bottom: "ip3"
  top: "ip3"
}
layer {
  name: "ip4"
  type: "InnerProduct"
  bottom: "ip3"
  top: "ip4"
  param {
    lr_mult: 1
  }
  param {
    lr_mult: 2
  }
  inner_product_param {
    num_output: 10
    weight_filler {
      type: "gaussian"
      std: 0.01
    }
    bias_filler {
      type: "constant"
    }
  }
}
layer {
  name: "accuracy"
  type: "Accuracy"
  bottom: "ip4"
  bottom: "label"
  top: "accuracy"
  include {
    phase: TEST
  }
}
layer {
  name: "loss"
  type: "SoftmaxWithLoss"
  bottom: "ip4"
  bottom: "label"
  top: "loss"
}
I0430 17:54:03.939990 21189 layer_factory.hpp:77] Creating layer cifar
I0430 17:54:03.940034 21189 db_lmdb.cpp:35] Opened lmdb examples/cifar10/cifar10_test_lmdb
I0430 17:54:03.940047 21189 net.cpp:86] Creating Layer cifar
I0430 17:54:03.940052 21189 net.cpp:382] cifar -> data
I0430 17:54:03.940060 21189 net.cpp:382] cifar -> label
I0430 17:54:03.940066 21189 data_transformer.cpp:25] Loading mean file from: examples/cifar10/mean.binaryproto
I0430 17:54:03.940228 21189 data_layer.cpp:45] output data size: 1000,3,32,32
I0430 17:54:03.962474 21189 net.cpp:124] Setting up cifar
I0430 17:54:03.962499 21189 net.cpp:131] Top shape: 1000 3 32 32 (3072000)
I0430 17:54:03.962507 21189 net.cpp:131] Top shape: 1000 (1000)
I0430 17:54:03.962510 21189 net.cpp:139] Memory required for data: 12292000
I0430 17:54:03.962517 21189 layer_factory.hpp:77] Creating layer label_cifar_1_split
I0430 17:54:03.962568 21189 net.cpp:86] Creating Layer label_cifar_1_split
I0430 17:54:03.962574 21189 net.cpp:408] label_cifar_1_split <- label
I0430 17:54:03.962579 21189 net.cpp:382] label_cifar_1_split -> label_cifar_1_split_0
I0430 17:54:03.962589 21189 net.cpp:382] label_cifar_1_split -> label_cifar_1_split_1
I0430 17:54:03.962641 21189 net.cpp:124] Setting up label_cifar_1_split
I0430 17:54:03.962647 21189 net.cpp:131] Top shape: 1000 (1000)
I0430 17:54:03.962651 21189 net.cpp:131] Top shape: 1000 (1000)
I0430 17:54:03.962653 21189 net.cpp:139] Memory required for data: 12300000
I0430 17:54:03.962656 21189 layer_factory.hpp:77] Creating layer ip1
I0430 17:54:03.962666 21189 net.cpp:86] Creating Layer ip1
I0430 17:54:03.962669 21189 net.cpp:408] ip1 <- data
I0430 17:54:03.962674 21189 net.cpp:382] ip1 -> ip1
I0430 17:54:03.963675 21189 net.cpp:124] Setting up ip1
I0430 17:54:03.963685 21189 net.cpp:131] Top shape: 1000 10 (10000)
I0430 17:54:03.963688 21189 net.cpp:139] Memory required for data: 12340000
I0430 17:54:03.963726 21189 layer_factory.hpp:77] Creating layer relu1
I0430 17:54:03.963733 21189 net.cpp:86] Creating Layer relu1
I0430 17:54:03.963737 21189 net.cpp:408] relu1 <- ip1
I0430 17:54:03.963742 21189 net.cpp:369] relu1 -> ip1 (in-place)
I0430 17:54:03.964637 21189 net.cpp:124] Setting up relu1
I0430 17:54:03.964649 21189 net.cpp:131] Top shape: 1000 10 (10000)
I0430 17:54:03.964653 21189 net.cpp:139] Memory required for data: 12380000
I0430 17:54:03.964658 21189 layer_factory.hpp:77] Creating layer ip2
I0430 17:54:03.964665 21189 net.cpp:86] Creating Layer ip2
I0430 17:54:03.964684 21189 net.cpp:408] ip2 <- ip1
I0430 17:54:03.964689 21189 net.cpp:382] ip2 -> ip2
I0430 17:54:03.965791 21189 net.cpp:124] Setting up ip2
I0430 17:54:03.965801 21189 net.cpp:131] Top shape: 1000 80 (80000)
I0430 17:54:03.965806 21189 net.cpp:139] Memory required for data: 12700000
I0430 17:54:03.965813 21189 layer_factory.hpp:77] Creating layer relu2
I0430 17:54:03.965819 21189 net.cpp:86] Creating Layer relu2
I0430 17:54:03.965837 21189 net.cpp:408] relu2 <- ip2
I0430 17:54:03.965842 21189 net.cpp:369] relu2 -> ip2 (in-place)
I0430 17:54:03.965999 21189 net.cpp:124] Setting up relu2
I0430 17:54:03.966008 21189 net.cpp:131] Top shape: 1000 80 (80000)
I0430 17:54:03.966012 21189 net.cpp:139] Memory required for data: 13020000
I0430 17:54:03.966014 21189 layer_factory.hpp:77] Creating layer ip3
I0430 17:54:03.966020 21189 net.cpp:86] Creating Layer ip3
I0430 17:54:03.966023 21189 net.cpp:408] ip3 <- ip2
I0430 17:54:03.966028 21189 net.cpp:382] ip3 -> ip3
I0430 17:54:03.966469 21189 net.cpp:124] Setting up ip3
I0430 17:54:03.966476 21189 net.cpp:131] Top shape: 1000 160 (160000)
I0430 17:54:03.966480 21189 net.cpp:139] Memory required for data: 13660000
I0430 17:54:03.966487 21189 layer_factory.hpp:77] Creating layer relu3
I0430 17:54:03.966492 21189 net.cpp:86] Creating Layer relu3
I0430 17:54:03.966495 21189 net.cpp:408] relu3 <- ip3
I0430 17:54:03.966500 21189 net.cpp:369] relu3 -> ip3 (in-place)
I0430 17:54:03.966650 21189 net.cpp:124] Setting up relu3
I0430 17:54:03.966656 21189 net.cpp:131] Top shape: 1000 160 (160000)
I0430 17:54:03.966660 21189 net.cpp:139] Memory required for data: 14300000
I0430 17:54:03.966663 21189 layer_factory.hpp:77] Creating layer ip4
I0430 17:54:03.966670 21189 net.cpp:86] Creating Layer ip4
I0430 17:54:03.966673 21189 net.cpp:408] ip4 <- ip3
I0430 17:54:03.966678 21189 net.cpp:382] ip4 -> ip4
I0430 17:54:03.966817 21189 net.cpp:124] Setting up ip4
I0430 17:54:03.966825 21189 net.cpp:131] Top shape: 1000 10 (10000)
I0430 17:54:03.966828 21189 net.cpp:139] Memory required for data: 14340000
I0430 17:54:03.966833 21189 layer_factory.hpp:77] Creating layer ip4_ip4_0_split
I0430 17:54:03.966838 21189 net.cpp:86] Creating Layer ip4_ip4_0_split
I0430 17:54:03.966841 21189 net.cpp:408] ip4_ip4_0_split <- ip4
I0430 17:54:03.966845 21189 net.cpp:382] ip4_ip4_0_split -> ip4_ip4_0_split_0
I0430 17:54:03.966852 21189 net.cpp:382] ip4_ip4_0_split -> ip4_ip4_0_split_1
I0430 17:54:03.966881 21189 net.cpp:124] Setting up ip4_ip4_0_split
I0430 17:54:03.966886 21189 net.cpp:131] Top shape: 1000 10 (10000)
I0430 17:54:03.966891 21189 net.cpp:131] Top shape: 1000 10 (10000)
I0430 17:54:03.966892 21189 net.cpp:139] Memory required for data: 14420000
I0430 17:54:03.966895 21189 layer_factory.hpp:77] Creating layer accuracy
I0430 17:54:03.966905 21189 net.cpp:86] Creating Layer accuracy
I0430 17:54:03.966909 21189 net.cpp:408] accuracy <- ip4_ip4_0_split_0
I0430 17:54:03.966913 21189 net.cpp:408] accuracy <- label_cifar_1_split_0
I0430 17:54:03.966917 21189 net.cpp:382] accuracy -> accuracy
…
