…
I0430 19:37:17.773020 26360 net.cpp:296] The NetState phase (0) differed from the phase (1) specified by a rule in layer cifar
I0430 19:37:17.773041 26360 net.cpp:296] The NetState phase (0) differed from the phase (1) specified by a rule in layer accuracy
I0430 19:37:17.773133 26360 net.cpp:53] Initializing net from parameters: 
name: "CIFAR"
state {
  phase: TRAIN
  level: 0
  stage: ""
}
layer {
  name: "cifar"
  type: "Data"
  top: "data"
  top: "label"
  include {
    phase: TRAIN
  }
  transform_param {
    mean_file: "examples/cifar10/mean.binaryproto"
  }
  data_param {
    source: "examples/cifar10/cifar10_train_lmdb"
    batch_size: 111
    backend: LMDB
  }
}
layer {
  name: "ip1"
  type: "InnerProduct"
  bottom: "data"
  top: "ip1"
  param {
    lr_mult: 1
  }
  param {
    lr_mult: 2
  }
  inner_product_param {
    num_output: 40
    weight_filler {
      type: "gaussian"
      std: 0.01
    }
    bias_filler {
      type: "constant"
    }
  }
}
layer {
  name: "relu1"
  type: "ReLU"
  bottom: "ip1"
  top: "ip1"
}
layer {
  name: "ip2"
  type: "InnerProduct"
  bottom: "ip1"
  top: "ip2"
  param {
    lr_mult: 1
  }
  param {
    lr_mult: 2
  }
  inner_product_param {
    num_output: 160
    weight_filler {
      type: "gaussian"
      std: 0.01
    }
    bias_filler {
      type: "constant"
    }
  }
}
layer {
  name: "relu2"
  type: "ReLU"
  bottom: "ip2"
  top: "ip2"
}
layer {
  name: "ip3"
  type: "InnerProduct"
  bottom: "ip2"
  top: "ip3"
  param {
    lr_mult: 1
  }
  param {
    lr_mult: 2
  }
  inner_product_param {
    num_output: 80
    weight_filler {
      type: "gaussian"
      std: 0.01
    }
    bias_filler {
      type: "constant"
    }
  }
}
layer {
  name: "relu3"
  type: "ReLU"
  bottom: "ip3"
  top: "ip3"
}
layer {
  name: "ip4"
  type: "InnerProduct"
  bottom: "ip3"
  top: "ip4"
  param {
    lr_mult: 1
  }
  param {
    lr_mult: 2
  }
  inner_product_param {
    num_output: 10
    weight_filler {
      type: "gaussian"
      std: 0.01
    }
    bias_filler {
      type: "constant"
    }
  }
}
layer {
  name: "loss"
  type: "SoftmaxWithLoss"
  bottom: "ip4"
  bottom: "label"
  top: "loss"
}
I0430 19:37:17.773200 26360 layer_factory.hpp:77] Creating layer cifar
I0430 19:37:17.773301 26360 db_lmdb.cpp:35] Opened lmdb examples/cifar10/cifar10_train_lmdb
I0430 19:37:17.773331 26360 net.cpp:86] Creating Layer cifar
I0430 19:37:17.773341 26360 net.cpp:382] cifar -> data
I0430 19:37:17.773365 26360 net.cpp:382] cifar -> label
I0430 19:37:17.773378 26360 data_transformer.cpp:25] Loading mean file from: examples/cifar10/mean.binaryproto
I0430 19:37:17.775485 26360 data_layer.cpp:45] output data size: 111,3,32,32
I0430 19:37:17.783387 26360 net.cpp:124] Setting up cifar
I0430 19:37:17.783406 26360 net.cpp:131] Top shape: 111 3 32 32 (340992)
I0430 19:37:17.783412 26360 net.cpp:131] Top shape: 111 (111)
I0430 19:37:17.783416 26360 net.cpp:139] Memory required for data: 1364412
I0430 19:37:17.783424 26360 layer_factory.hpp:77] Creating layer ip1
I0430 19:37:17.783435 26360 net.cpp:86] Creating Layer ip1
I0430 19:37:17.783442 26360 net.cpp:408] ip1 <- data
I0430 19:37:17.783457 26360 net.cpp:382] ip1 -> ip1
I0430 19:37:17.787717 26360 net.cpp:124] Setting up ip1
I0430 19:37:17.787729 26360 net.cpp:131] Top shape: 111 40 (4440)
I0430 19:37:17.787734 26360 net.cpp:139] Memory required for data: 1382172
I0430 19:37:17.787748 26360 layer_factory.hpp:77] Creating layer relu1
I0430 19:37:17.787756 26360 net.cpp:86] Creating Layer relu1
I0430 19:37:17.787777 26360 net.cpp:408] relu1 <- ip1
I0430 19:37:17.787783 26360 net.cpp:369] relu1 -> ip1 (in-place)
I0430 19:37:18.076833 26360 net.cpp:124] Setting up relu1
I0430 19:37:18.076865 26360 net.cpp:131] Top shape: 111 40 (4440)
I0430 19:37:18.076870 26360 net.cpp:139] Memory required for data: 1399932
I0430 19:37:18.076877 26360 layer_factory.hpp:77] Creating layer ip2
I0430 19:37:18.076892 26360 net.cpp:86] Creating Layer ip2
I0430 19:37:18.076897 26360 net.cpp:408] ip2 <- ip1
I0430 19:37:18.076906 26360 net.cpp:382] ip2 -> ip2
I0430 19:37:18.078290 26360 net.cpp:124] Setting up ip2
I0430 19:37:18.078306 26360 net.cpp:131] Top shape: 111 160 (17760)
I0430 19:37:18.078310 26360 net.cpp:139] Memory required for data: 1470972
I0430 19:37:18.078323 26360 layer_factory.hpp:77] Creating layer relu2
I0430 19:37:18.078332 26360 net.cpp:86] Creating Layer relu2
I0430 19:37:18.078337 26360 net.cpp:408] relu2 <- ip2
I0430 19:37:18.078342 26360 net.cpp:369] relu2 -> ip2 (in-place)
I0430 19:37:18.079202 26360 net.cpp:124] Setting up relu2
I0430 19:37:18.079217 26360 net.cpp:131] Top shape: 111 160 (17760)
I0430 19:37:18.079222 26360 net.cpp:139] Memory required for data: 1542012
I0430 19:37:18.079226 26360 layer_factory.hpp:77] Creating layer ip3
I0430 19:37:18.079234 26360 net.cpp:86] Creating Layer ip3
I0430 19:37:18.079238 26360 net.cpp:408] ip3 <- ip2
I0430 19:37:18.079246 26360 net.cpp:382] ip3 -> ip3
I0430 19:37:18.079778 26360 net.cpp:124] Setting up ip3
I0430 19:37:18.079788 26360 net.cpp:131] Top shape: 111 80 (8880)
I0430 19:37:18.079792 26360 net.cpp:139] Memory required for data: 1577532
I0430 19:37:18.079802 26360 layer_factory.hpp:77] Creating layer relu3
I0430 19:37:18.079808 26360 net.cpp:86] Creating Layer relu3
I0430 19:37:18.079813 26360 net.cpp:408] relu3 <- ip3
I0430 19:37:18.079816 26360 net.cpp:369] relu3 -> ip3 (in-place)
I0430 19:37:18.079994 26360 net.cpp:124] Setting up relu3
I0430 19:37:18.080004 26360 net.cpp:131] Top shape: 111 80 (8880)
I0430 19:37:18.080008 26360 net.cpp:139] Memory required for data: 1613052
I0430 19:37:18.080013 26360 layer_factory.hpp:77] Creating layer ip4
I0430 19:37:18.080020 26360 net.cpp:86] Creating Layer ip4
I0430 19:37:18.080027 26360 net.cpp:408] ip4 <- ip3
I0430 19:37:18.080034 26360 net.cpp:382] ip4 -> ip4
I0430 19:37:18.081146 26360 net.cpp:124] Setting up ip4
I0430 19:37:18.081161 26360 net.cpp:131] Top shape: 111 10 (1110)
I0430 19:37:18.081164 26360 net.cpp:139] Memory required for data: 1617492
I0430 19:37:18.081172 26360 layer_factory.hpp:77] Creating layer loss
I0430 19:37:18.081181 26360 net.cpp:86] Creating Layer loss
I0430 19:37:18.081185 26360 net.cpp:408] loss <- ip4
I0430 19:37:18.081190 26360 net.cpp:408] loss <- label
I0430 19:37:18.081197 26360 net.cpp:382] loss -> loss
I0430 19:37:18.081236 26360 layer_factory.hpp:77] Creating layer loss
…
I0430 19:37:18.081908 26360 solver.cpp:173] Creating test net (#0) specified by net file: ECE595/cifar/train_test/var_everything/cifar_train_test_103.prototxt
I0430 19:37:18.081954 26360 net.cpp:296] The NetState phase (1) differed from the phase (0) specified by a rule in layer cifar
I0430 19:37:18.082047 26360 net.cpp:53] Initializing net from parameters: 
name: "CIFAR"
state {
  phase: TEST
}
layer {
  name: "cifar"
  type: "Data"
  top: "data"
  top: "label"
  include {
    phase: TEST
  }
  transform_param {
    mean_file: "examples/cifar10/mean.binaryproto"
  }
  data_param {
    source: "examples/cifar10/cifar10_test_lmdb"
    batch_size: 1000
    backend: LMDB
  }
}
layer {
  name: "ip1"
  type: "InnerProduct"
  bottom: "data"
  top: "ip1"
  param {
    lr_mult: 1
  }
  param {
    lr_mult: 2
  }
  inner_product_param {
    num_output: 40
    weight_filler {
      type: "gaussian"
      std: 0.01
    }
    bias_filler {
      type: "constant"
    }
  }
}
layer {
  name: "relu1"
  type: "ReLU"
  bottom: "ip1"
  top: "ip1"
}
layer {
  name: "ip2"
  type: "InnerProduct"
  bottom: "ip1"
  top: "ip2"
  param {
    lr_mult: 1
  }
  param {
    lr_mult: 2
  }
  inner_product_param {
    num_output: 160
    weight_filler {
      type: "gaussian"
      std: 0.01
    }
    bias_filler {
      type: "constant"
    }
  }
}
layer {
  name: "relu2"
  type: "ReLU"
  bottom: "ip2"
  top: "ip2"
}
layer {
  name: "ip3"
  type: "InnerProduct"
  bottom: "ip2"
  top: "ip3"
  param {
    lr_mult: 1
  }
  param {
    lr_mult: 2
  }
  inner_product_param {
    num_output: 80
    weight_filler {
      type: "gaussian"
      std: 0.01
    }
    bias_filler {
      type: "constant"
    }
  }
}
layer {
  name: "relu3"
  type: "ReLU"
  bottom: "ip3"
  top: "ip3"
}
layer {
  name: "ip4"
  type: "InnerProduct"
  bottom: "ip3"
  top: "ip4"
  param {
    lr_mult: 1
  }
  param {
    lr_mult: 2
  }
  inner_product_param {
    num_output: 10
    weight_filler {
      type: "gaussian"
      std: 0.01
    }
    bias_filler {
      type: "constant"
    }
  }
}
layer {
  name: "accuracy"
  type: "Accuracy"
  bottom: "ip4"
  bottom: "label"
  top: "accuracy"
  include {
    phase: TEST
  }
}
layer {
  name: "loss"
  type: "SoftmaxWithLoss"
  bottom: "ip4"
  bottom: "label"
  top: "loss"
}
I0430 19:37:18.082118 26360 layer_factory.hpp:77] Creating layer cifar
I0430 19:37:18.082175 26360 db_lmdb.cpp:35] Opened lmdb examples/cifar10/cifar10_test_lmdb
I0430 19:37:18.082190 26360 net.cpp:86] Creating Layer cifar
I0430 19:37:18.082198 26360 net.cpp:382] cifar -> data
I0430 19:37:18.082209 26360 net.cpp:382] cifar -> label
I0430 19:37:18.082218 26360 data_transformer.cpp:25] Loading mean file from: examples/cifar10/mean.binaryproto
I0430 19:37:18.082386 26360 data_layer.cpp:45] output data size: 1000,3,32,32
I0430 19:37:18.108150 26360 net.cpp:124] Setting up cifar
I0430 19:37:18.108180 26360 net.cpp:131] Top shape: 1000 3 32 32 (3072000)
I0430 19:37:18.108187 26360 net.cpp:131] Top shape: 1000 (1000)
I0430 19:37:18.108191 26360 net.cpp:139] Memory required for data: 12292000
I0430 19:37:18.108197 26360 layer_factory.hpp:77] Creating layer label_cifar_1_split
I0430 19:37:18.108218 26360 net.cpp:86] Creating Layer label_cifar_1_split
I0430 19:37:18.108223 26360 net.cpp:408] label_cifar_1_split <- label
I0430 19:37:18.108234 26360 net.cpp:382] label_cifar_1_split -> label_cifar_1_split_0
I0430 19:37:18.108256 26360 net.cpp:382] label_cifar_1_split -> label_cifar_1_split_1
I0430 19:37:18.108371 26360 net.cpp:124] Setting up label_cifar_1_split
I0430 19:37:18.108381 26360 net.cpp:131] Top shape: 1000 (1000)
I0430 19:37:18.108386 26360 net.cpp:131] Top shape: 1000 (1000)
I0430 19:37:18.108389 26360 net.cpp:139] Memory required for data: 12300000
I0430 19:37:18.108394 26360 layer_factory.hpp:77] Creating layer ip1
I0430 19:37:18.108404 26360 net.cpp:86] Creating Layer ip1
I0430 19:37:18.108412 26360 net.cpp:408] ip1 <- data
I0430 19:37:18.108418 26360 net.cpp:382] ip1 -> ip1
I0430 19:37:18.112646 26360 net.cpp:124] Setting up ip1
I0430 19:37:18.112659 26360 net.cpp:131] Top shape: 1000 40 (40000)
I0430 19:37:18.112663 26360 net.cpp:139] Memory required for data: 12460000
I0430 19:37:18.112691 26360 layer_factory.hpp:77] Creating layer relu1
I0430 19:37:18.112699 26360 net.cpp:86] Creating Layer relu1
I0430 19:37:18.112704 26360 net.cpp:408] relu1 <- ip1
I0430 19:37:18.112709 26360 net.cpp:369] relu1 -> ip1 (in-place)
I0430 19:37:18.113634 26360 net.cpp:124] Setting up relu1
I0430 19:37:18.113651 26360 net.cpp:131] Top shape: 1000 40 (40000)
I0430 19:37:18.113654 26360 net.cpp:139] Memory required for data: 12620000
I0430 19:37:18.113659 26360 layer_factory.hpp:77] Creating layer ip2
I0430 19:37:18.113668 26360 net.cpp:86] Creating Layer ip2
I0430 19:37:18.113673 26360 net.cpp:408] ip2 <- ip1
I0430 19:37:18.113682 26360 net.cpp:382] ip2 -> ip2
I0430 19:37:18.114014 26360 net.cpp:124] Setting up ip2
I0430 19:37:18.114023 26360 net.cpp:131] Top shape: 1000 160 (160000)
I0430 19:37:18.114027 26360 net.cpp:139] Memory required for data: 13260000
I0430 19:37:18.114037 26360 layer_factory.hpp:77] Creating layer relu2
I0430 19:37:18.114042 26360 net.cpp:86] Creating Layer relu2
I0430 19:37:18.114047 26360 net.cpp:408] relu2 <- ip2
I0430 19:37:18.114051 26360 net.cpp:369] relu2 -> ip2 (in-place)
I0430 19:37:18.114245 26360 net.cpp:124] Setting up relu2
I0430 19:37:18.114255 26360 net.cpp:131] Top shape: 1000 160 (160000)
I0430 19:37:18.114259 26360 net.cpp:139] Memory required for data: 13900000
I0430 19:37:18.114264 26360 layer_factory.hpp:77] Creating layer ip3
I0430 19:37:18.114284 26360 net.cpp:86] Creating Layer ip3
I0430 19:37:18.114289 26360 net.cpp:408] ip3 <- ip2
I0430 19:37:18.114295 26360 net.cpp:382] ip3 -> ip3
I0430 19:37:18.114833 26360 net.cpp:124] Setting up ip3
I0430 19:37:18.114842 26360 net.cpp:131] Top shape: 1000 80 (80000)
I0430 19:37:18.114846 26360 net.cpp:139] Memory required for data: 14220000
I0430 19:37:18.114856 26360 layer_factory.hpp:77] Creating layer relu3
I0430 19:37:18.114861 26360 net.cpp:86] Creating Layer relu3
I0430 19:37:18.114866 26360 net.cpp:408] relu3 <- ip3
I0430 19:37:18.114871 26360 net.cpp:369] relu3 -> ip3 (in-place)
I0430 19:37:18.115056 26360 net.cpp:124] Setting up relu3
I0430 19:37:18.115066 26360 net.cpp:131] Top shape: 1000 80 (80000)
I0430 19:37:18.115069 26360 net.cpp:139] Memory required for data: 14540000
I0430 19:37:18.115073 26360 layer_factory.hpp:77] Creating layer ip4
I0430 19:37:18.115082 26360 net.cpp:86] Creating Layer ip4
I0430 19:37:18.115088 26360 net.cpp:408] ip4 <- ip3
I0430 19:37:18.115095 26360 net.cpp:382] ip4 -> ip4
I0430 19:37:18.115233 26360 net.cpp:124] Setting up ip4
I0430 19:37:18.115242 26360 net.cpp:131] Top shape: 1000 10 (10000)
I0430 19:37:18.115247 26360 net.cpp:139] Memory required for data: 14580000
I0430 19:37:18.115252 26360 layer_factory.hpp:77] Creating layer ip4_ip4_0_split
I0430 19:37:18.115260 26360 net.cpp:86] Creating Layer ip4_ip4_0_split
I0430 19:37:18.115264 26360 net.cpp:408] ip4_ip4_0_split <- ip4
I0430 19:37:18.115269 26360 net.cpp:382] ip4_ip4_0_split -> ip4_ip4_0_split_0
I0430 19:37:18.115276 26360 net.cpp:382] ip4_ip4_0_split -> ip4_ip4_0_split_1
I0430 19:37:18.115310 26360 net.cpp:124] Setting up ip4_ip4_0_split
I0430 19:37:18.115316 26360 net.cpp:131] Top shape: 1000 10 (10000)
I0430 19:37:18.115320 26360 net.cpp:131] Top shape: 1000 10 (10000)
I0430 19:37:18.115325 26360 net.cpp:139] Memory required for data: 14660000
I0430 19:37:18.115329 26360 layer_factory.hpp:77] Creating layer accuracy
I0430 19:37:18.115335 26360 net.cpp:86] Creating Layer accuracy
I0430 19:37:18.115339 26360 net.cpp:408] accuracy <- ip4_ip4_0_split_0
I0430 19:37:18.115345 26360 net.cpp:408] accuracy <- label_cifar_1_split_0
I0430 19:37:18.115350 26360 net.cpp:382] accuracy -> accuracy
…
