…
I0430 17:25:20.943274 19710 net.cpp:296] The NetState phase (0) differed from the phase (1) specified by a rule in layer cifar
I0430 17:25:20.943290 19710 net.cpp:296] The NetState phase (0) differed from the phase (1) specified by a rule in layer accuracy
I0430 17:25:20.943375 19710 net.cpp:53] Initializing net from parameters: 
name: "CIFAR"
state {
  phase: TRAIN
  level: 0
  stage: ""
}
layer {
  name: "cifar"
  type: "Data"
  top: "data"
  top: "label"
  include {
    phase: TRAIN
  }
  transform_param {
    mean_file: "examples/cifar10/mean.binaryproto"
  }
  data_param {
    source: "examples/cifar10/cifar10_train_lmdb"
    batch_size: 111
    backend: LMDB
  }
}
layer {
  name: "ip1"
  type: "InnerProduct"
  bottom: "data"
  top: "ip1"
  param {
    lr_mult: 1
  }
  param {
    lr_mult: 2
  }
  inner_product_param {
    num_output: 10
    weight_filler {
      type: "gaussian"
      std: 0.01
    }
    bias_filler {
      type: "constant"
    }
  }
}
layer {
  name: "relu1"
  type: "ReLU"
  bottom: "ip1"
  top: "ip1"
}
layer {
  name: "ip2"
  type: "InnerProduct"
  bottom: "ip1"
  top: "ip2"
  param {
    lr_mult: 1
  }
  param {
    lr_mult: 2
  }
  inner_product_param {
    num_output: 10
    weight_filler {
      type: "gaussian"
      std: 0.01
    }
    bias_filler {
      type: "constant"
    }
  }
}
layer {
  name: "relu2"
  type: "ReLU"
  bottom: "ip2"
  top: "ip2"
}
layer {
  name: "ip3"
  type: "InnerProduct"
  bottom: "ip2"
  top: "ip3"
  param {
    lr_mult: 1
  }
  param {
    lr_mult: 2
  }
  inner_product_param {
    num_output: 160
    weight_filler {
      type: "gaussian"
      std: 0.01
    }
    bias_filler {
      type: "constant"
    }
  }
}
layer {
  name: "relu3"
  type: "ReLU"
  bottom: "ip3"
  top: "ip3"
}
layer {
  name: "ip4"
  type: "InnerProduct"
  bottom: "ip3"
  top: "ip4"
  param {
    lr_mult: 1
  }
  param {
    lr_mult: 2
  }
  inner_product_param {
    num_output: 10
    weight_filler {
      type: "gaussian"
      std: 0.01
    }
    bias_filler {
      type: "constant"
    }
  }
}
layer {
  name: "loss"
  type: "SoftmaxWithLoss"
  bottom: "ip4"
  bottom: "label"
  top: "loss"
}
I0430 17:25:20.943450 19710 layer_factory.hpp:77] Creating layer cifar
I0430 17:25:20.943547 19710 db_lmdb.cpp:35] Opened lmdb examples/cifar10/cifar10_train_lmdb
I0430 17:25:20.943572 19710 net.cpp:86] Creating Layer cifar
I0430 17:25:20.943581 19710 net.cpp:382] cifar -> data
I0430 17:25:20.943603 19710 net.cpp:382] cifar -> label
I0430 17:25:20.943619 19710 data_transformer.cpp:25] Loading mean file from: examples/cifar10/mean.binaryproto
I0430 17:25:20.945749 19710 data_layer.cpp:45] output data size: 111,3,32,32
I0430 17:25:20.953614 19710 net.cpp:124] Setting up cifar
I0430 17:25:20.953634 19710 net.cpp:131] Top shape: 111 3 32 32 (340992)
I0430 17:25:20.953640 19710 net.cpp:131] Top shape: 111 (111)
I0430 17:25:20.953644 19710 net.cpp:139] Memory required for data: 1364412
I0430 17:25:20.953651 19710 layer_factory.hpp:77] Creating layer ip1
I0430 17:25:20.953676 19710 net.cpp:86] Creating Layer ip1
I0430 17:25:20.953683 19710 net.cpp:408] ip1 <- data
I0430 17:25:20.953694 19710 net.cpp:382] ip1 -> ip1
I0430 17:25:20.955875 19710 net.cpp:124] Setting up ip1
I0430 17:25:20.955890 19710 net.cpp:131] Top shape: 111 10 (1110)
I0430 17:25:20.955894 19710 net.cpp:139] Memory required for data: 1368852
I0430 17:25:20.955907 19710 layer_factory.hpp:77] Creating layer relu1
I0430 17:25:20.955919 19710 net.cpp:86] Creating Layer relu1
I0430 17:25:20.955937 19710 net.cpp:408] relu1 <- ip1
I0430 17:25:20.955945 19710 net.cpp:369] relu1 -> ip1 (in-place)
I0430 17:25:21.207155 19710 net.cpp:124] Setting up relu1
I0430 17:25:21.207182 19710 net.cpp:131] Top shape: 111 10 (1110)
I0430 17:25:21.207186 19710 net.cpp:139] Memory required for data: 1373292
I0430 17:25:21.207191 19710 layer_factory.hpp:77] Creating layer ip2
I0430 17:25:21.207203 19710 net.cpp:86] Creating Layer ip2
I0430 17:25:21.207207 19710 net.cpp:408] ip2 <- ip1
I0430 17:25:21.207214 19710 net.cpp:382] ip2 -> ip2
I0430 17:25:21.207340 19710 net.cpp:124] Setting up ip2
I0430 17:25:21.207347 19710 net.cpp:131] Top shape: 111 10 (1110)
I0430 17:25:21.207350 19710 net.cpp:139] Memory required for data: 1377732
I0430 17:25:21.207360 19710 layer_factory.hpp:77] Creating layer relu2
I0430 17:25:21.207366 19710 net.cpp:86] Creating Layer relu2
I0430 17:25:21.207370 19710 net.cpp:408] relu2 <- ip2
I0430 17:25:21.207373 19710 net.cpp:369] relu2 -> ip2 (in-place)
I0430 17:25:21.208096 19710 net.cpp:124] Setting up relu2
I0430 17:25:21.208108 19710 net.cpp:131] Top shape: 111 10 (1110)
I0430 17:25:21.208112 19710 net.cpp:139] Memory required for data: 1382172
I0430 17:25:21.208114 19710 layer_factory.hpp:77] Creating layer ip3
I0430 17:25:21.208122 19710 net.cpp:86] Creating Layer ip3
I0430 17:25:21.208123 19710 net.cpp:408] ip3 <- ip2
I0430 17:25:21.208129 19710 net.cpp:382] ip3 -> ip3
I0430 17:25:21.208269 19710 net.cpp:124] Setting up ip3
I0430 17:25:21.208277 19710 net.cpp:131] Top shape: 111 160 (17760)
I0430 17:25:21.208281 19710 net.cpp:139] Memory required for data: 1453212
I0430 17:25:21.208287 19710 layer_factory.hpp:77] Creating layer relu3
I0430 17:25:21.208292 19710 net.cpp:86] Creating Layer relu3
I0430 17:25:21.208295 19710 net.cpp:408] relu3 <- ip3
I0430 17:25:21.208298 19710 net.cpp:369] relu3 -> ip3 (in-place)
I0430 17:25:21.208431 19710 net.cpp:124] Setting up relu3
I0430 17:25:21.208437 19710 net.cpp:131] Top shape: 111 160 (17760)
I0430 17:25:21.208441 19710 net.cpp:139] Memory required for data: 1524252
I0430 17:25:21.208443 19710 layer_factory.hpp:77] Creating layer ip4
I0430 17:25:21.208449 19710 net.cpp:86] Creating Layer ip4
I0430 17:25:21.208452 19710 net.cpp:408] ip4 <- ip3
I0430 17:25:21.208456 19710 net.cpp:382] ip4 -> ip4
I0430 17:25:21.208600 19710 net.cpp:124] Setting up ip4
I0430 17:25:21.208606 19710 net.cpp:131] Top shape: 111 10 (1110)
I0430 17:25:21.208609 19710 net.cpp:139] Memory required for data: 1528692
I0430 17:25:21.208614 19710 layer_factory.hpp:77] Creating layer loss
I0430 17:25:21.208621 19710 net.cpp:86] Creating Layer loss
I0430 17:25:21.208624 19710 net.cpp:408] loss <- ip4
I0430 17:25:21.208628 19710 net.cpp:408] loss <- label
I0430 17:25:21.208632 19710 net.cpp:382] loss -> loss
I0430 17:25:21.208650 19710 layer_factory.hpp:77] Creating layer loss
…
I0430 17:25:21.209218 19710 solver.cpp:173] Creating test net (#0) specified by net file: ECE595/cifar/train_test/var_everything/cifar_train_test_34.prototxt
I0430 17:25:21.209264 19710 net.cpp:296] The NetState phase (1) differed from the phase (0) specified by a rule in layer cifar
I0430 17:25:21.209336 19710 net.cpp:53] Initializing net from parameters: 
name: "CIFAR"
state {
  phase: TEST
}
layer {
  name: "cifar"
  type: "Data"
  top: "data"
  top: "label"
  include {
    phase: TEST
  }
  transform_param {
    mean_file: "examples/cifar10/mean.binaryproto"
  }
  data_param {
    source: "examples/cifar10/cifar10_test_lmdb"
    batch_size: 1000
    backend: LMDB
  }
}
layer {
  name: "ip1"
  type: "InnerProduct"
  bottom: "data"
  top: "ip1"
  param {
    lr_mult: 1
  }
  param {
    lr_mult: 2
  }
  inner_product_param {
    num_output: 10
    weight_filler {
      type: "gaussian"
      std: 0.01
    }
    bias_filler {
      type: "constant"
    }
  }
}
layer {
  name: "relu1"
  type: "ReLU"
  bottom: "ip1"
  top: "ip1"
}
layer {
  name: "ip2"
  type: "InnerProduct"
  bottom: "ip1"
  top: "ip2"
  param {
    lr_mult: 1
  }
  param {
    lr_mult: 2
  }
  inner_product_param {
    num_output: 10
    weight_filler {
      type: "gaussian"
      std: 0.01
    }
    bias_filler {
      type: "constant"
    }
  }
}
layer {
  name: "relu2"
  type: "ReLU"
  bottom: "ip2"
  top: "ip2"
}
layer {
  name: "ip3"
  type: "InnerProduct"
  bottom: "ip2"
  top: "ip3"
  param {
    lr_mult: 1
  }
  param {
    lr_mult: 2
  }
  inner_product_param {
    num_output: 160
    weight_filler {
      type: "gaussian"
      std: 0.01
    }
    bias_filler {
      type: "constant"
    }
  }
}
layer {
  name: "relu3"
  type: "ReLU"
  bottom: "ip3"
  top: "ip3"
}
layer {
  name: "ip4"
  type: "InnerProduct"
  bottom: "ip3"
  top: "ip4"
  param {
    lr_mult: 1
  }
  param {
    lr_mult: 2
  }
  inner_product_param {
    num_output: 10
    weight_filler {
      type: "gaussian"
      std: 0.01
    }
    bias_filler {
      type: "constant"
    }
  }
}
layer {
  name: "accuracy"
  type: "Accuracy"
  bottom: "ip4"
  bottom: "label"
  top: "accuracy"
  include {
    phase: TEST
  }
}
layer {
  name: "loss"
  type: "SoftmaxWithLoss"
  bottom: "ip4"
  bottom: "label"
  top: "loss"
}
I0430 17:25:21.209398 19710 layer_factory.hpp:77] Creating layer cifar
I0430 17:25:21.209439 19710 db_lmdb.cpp:35] Opened lmdb examples/cifar10/cifar10_test_lmdb
I0430 17:25:21.209450 19710 net.cpp:86] Creating Layer cifar
I0430 17:25:21.209455 19710 net.cpp:382] cifar -> data
I0430 17:25:21.209461 19710 net.cpp:382] cifar -> label
I0430 17:25:21.209467 19710 data_transformer.cpp:25] Loading mean file from: examples/cifar10/mean.binaryproto
I0430 17:25:21.209614 19710 data_layer.cpp:45] output data size: 1000,3,32,32
I0430 17:25:21.233072 19710 net.cpp:124] Setting up cifar
I0430 17:25:21.233098 19710 net.cpp:131] Top shape: 1000 3 32 32 (3072000)
I0430 17:25:21.233105 19710 net.cpp:131] Top shape: 1000 (1000)
I0430 17:25:21.233108 19710 net.cpp:139] Memory required for data: 12292000
I0430 17:25:21.233114 19710 layer_factory.hpp:77] Creating layer label_cifar_1_split
I0430 17:25:21.233130 19710 net.cpp:86] Creating Layer label_cifar_1_split
I0430 17:25:21.233134 19710 net.cpp:408] label_cifar_1_split <- label
I0430 17:25:21.233140 19710 net.cpp:382] label_cifar_1_split -> label_cifar_1_split_0
I0430 17:25:21.233150 19710 net.cpp:382] label_cifar_1_split -> label_cifar_1_split_1
I0430 17:25:21.233238 19710 net.cpp:124] Setting up label_cifar_1_split
I0430 17:25:21.233247 19710 net.cpp:131] Top shape: 1000 (1000)
I0430 17:25:21.233250 19710 net.cpp:131] Top shape: 1000 (1000)
I0430 17:25:21.233253 19710 net.cpp:139] Memory required for data: 12300000
I0430 17:25:21.233256 19710 layer_factory.hpp:77] Creating layer ip1
I0430 17:25:21.233268 19710 net.cpp:86] Creating Layer ip1
I0430 17:25:21.233270 19710 net.cpp:408] ip1 <- data
I0430 17:25:21.233276 19710 net.cpp:382] ip1 -> ip1
I0430 17:25:21.234302 19710 net.cpp:124] Setting up ip1
I0430 17:25:21.234309 19710 net.cpp:131] Top shape: 1000 10 (10000)
I0430 17:25:21.234328 19710 net.cpp:139] Memory required for data: 12340000
I0430 17:25:21.234351 19710 layer_factory.hpp:77] Creating layer relu1
I0430 17:25:21.234357 19710 net.cpp:86] Creating Layer relu1
I0430 17:25:21.234360 19710 net.cpp:408] relu1 <- ip1
I0430 17:25:21.234381 19710 net.cpp:369] relu1 -> ip1 (in-place)
I0430 17:25:21.235250 19710 net.cpp:124] Setting up relu1
I0430 17:25:21.235262 19710 net.cpp:131] Top shape: 1000 10 (10000)
I0430 17:25:21.235281 19710 net.cpp:139] Memory required for data: 12380000
I0430 17:25:21.235285 19710 layer_factory.hpp:77] Creating layer ip2
I0430 17:25:21.235293 19710 net.cpp:86] Creating Layer ip2
I0430 17:25:21.235298 19710 net.cpp:408] ip2 <- ip1
I0430 17:25:21.235303 19710 net.cpp:382] ip2 -> ip2
I0430 17:25:21.236470 19710 net.cpp:124] Setting up ip2
I0430 17:25:21.236480 19710 net.cpp:131] Top shape: 1000 10 (10000)
I0430 17:25:21.236498 19710 net.cpp:139] Memory required for data: 12420000
I0430 17:25:21.236506 19710 layer_factory.hpp:77] Creating layer relu2
I0430 17:25:21.236513 19710 net.cpp:86] Creating Layer relu2
I0430 17:25:21.236516 19710 net.cpp:408] relu2 <- ip2
I0430 17:25:21.236521 19710 net.cpp:369] relu2 -> ip2 (in-place)
I0430 17:25:21.236707 19710 net.cpp:124] Setting up relu2
I0430 17:25:21.236716 19710 net.cpp:131] Top shape: 1000 10 (10000)
I0430 17:25:21.236721 19710 net.cpp:139] Memory required for data: 12460000
I0430 17:25:21.236724 19710 layer_factory.hpp:77] Creating layer ip3
I0430 17:25:21.236732 19710 net.cpp:86] Creating Layer ip3
I0430 17:25:21.236735 19710 net.cpp:408] ip3 <- ip2
I0430 17:25:21.236740 19710 net.cpp:382] ip3 -> ip3
I0430 17:25:21.236903 19710 net.cpp:124] Setting up ip3
I0430 17:25:21.236912 19710 net.cpp:131] Top shape: 1000 160 (160000)
I0430 17:25:21.236915 19710 net.cpp:139] Memory required for data: 13100000
I0430 17:25:21.236924 19710 layer_factory.hpp:77] Creating layer relu3
I0430 17:25:21.236930 19710 net.cpp:86] Creating Layer relu3
I0430 17:25:21.236933 19710 net.cpp:408] relu3 <- ip3
I0430 17:25:21.236939 19710 net.cpp:369] relu3 -> ip3 (in-place)
I0430 17:25:21.237121 19710 net.cpp:124] Setting up relu3
I0430 17:25:21.237129 19710 net.cpp:131] Top shape: 1000 160 (160000)
I0430 17:25:21.237133 19710 net.cpp:139] Memory required for data: 13740000
I0430 17:25:21.237136 19710 layer_factory.hpp:77] Creating layer ip4
I0430 17:25:21.237144 19710 net.cpp:86] Creating Layer ip4
I0430 17:25:21.237149 19710 net.cpp:408] ip4 <- ip3
I0430 17:25:21.237154 19710 net.cpp:382] ip4 -> ip4
I0430 17:25:21.237321 19710 net.cpp:124] Setting up ip4
I0430 17:25:21.237329 19710 net.cpp:131] Top shape: 1000 10 (10000)
I0430 17:25:21.237332 19710 net.cpp:139] Memory required for data: 13780000
I0430 17:25:21.237339 19710 layer_factory.hpp:77] Creating layer ip4_ip4_0_split
I0430 17:25:21.237344 19710 net.cpp:86] Creating Layer ip4_ip4_0_split
I0430 17:25:21.237346 19710 net.cpp:408] ip4_ip4_0_split <- ip4
I0430 17:25:21.237350 19710 net.cpp:382] ip4_ip4_0_split -> ip4_ip4_0_split_0
I0430 17:25:21.237356 19710 net.cpp:382] ip4_ip4_0_split -> ip4_ip4_0_split_1
I0430 17:25:21.237390 19710 net.cpp:124] Setting up ip4_ip4_0_split
I0430 17:25:21.237396 19710 net.cpp:131] Top shape: 1000 10 (10000)
I0430 17:25:21.237399 19710 net.cpp:131] Top shape: 1000 10 (10000)
I0430 17:25:21.237402 19710 net.cpp:139] Memory required for data: 13860000
I0430 17:25:21.237406 19710 layer_factory.hpp:77] Creating layer accuracy
I0430 17:25:21.237414 19710 net.cpp:86] Creating Layer accuracy
I0430 17:25:21.237417 19710 net.cpp:408] accuracy <- ip4_ip4_0_split_0
I0430 17:25:21.237421 19710 net.cpp:408] accuracy <- label_cifar_1_split_0
I0430 17:25:21.237427 19710 net.cpp:382] accuracy -> accuracy
…
