…
I0430 18:41:38.615834 23994 net.cpp:296] The NetState phase (0) differed from the phase (1) specified by a rule in layer cifar
I0430 18:41:38.615852 23994 net.cpp:296] The NetState phase (0) differed from the phase (1) specified by a rule in layer accuracy
I0430 18:41:38.615952 23994 net.cpp:53] Initializing net from parameters: 
name: "CIFAR"
state {
  phase: TRAIN
  level: 0
  stage: ""
}
layer {
  name: "cifar"
  type: "Data"
  top: "data"
  top: "label"
  include {
    phase: TRAIN
  }
  transform_param {
    mean_file: "examples/cifar10/mean.binaryproto"
  }
  data_param {
    source: "examples/cifar10/cifar10_train_lmdb"
    batch_size: 111
    backend: LMDB
  }
}
layer {
  name: "ip1"
  type: "InnerProduct"
  bottom: "data"
  top: "ip1"
  param {
    lr_mult: 1
  }
  param {
    lr_mult: 2
  }
  inner_product_param {
    num_output: 20
    weight_filler {
      type: "gaussian"
      std: 0.01
    }
    bias_filler {
      type: "constant"
    }
  }
}
layer {
  name: "relu1"
  type: "ReLU"
  bottom: "ip1"
  top: "ip1"
}
layer {
  name: "ip2"
  type: "InnerProduct"
  bottom: "ip1"
  top: "ip2"
  param {
    lr_mult: 1
  }
  param {
    lr_mult: 2
  }
  inner_product_param {
    num_output: 80
    weight_filler {
      type: "gaussian"
      std: 0.01
    }
    bias_filler {
      type: "constant"
    }
  }
}
layer {
  name: "relu2"
  type: "ReLU"
  bottom: "ip2"
  top: "ip2"
}
layer {
  name: "ip3"
  type: "InnerProduct"
  bottom: "ip2"
  top: "ip3"
  param {
    lr_mult: 1
  }
  param {
    lr_mult: 2
  }
  inner_product_param {
    num_output: 160
    weight_filler {
      type: "gaussian"
      std: 0.01
    }
    bias_filler {
      type: "constant"
    }
  }
}
layer {
  name: "relu3"
  type: "ReLU"
  bottom: "ip3"
  top: "ip3"
}
layer {
  name: "ip4"
  type: "InnerProduct"
  bottom: "ip3"
  top: "ip4"
  param {
    lr_mult: 1
  }
  param {
    lr_mult: 2
  }
  inner_product_param {
    num_output: 10
    weight_filler {
      type: "gaussian"
      std: 0.01
    }
    bias_filler {
      type: "constant"
    }
  }
}
layer {
  name: "loss"
  type: "SoftmaxWithLoss"
  bottom: "ip4"
  bottom: "label"
  top: "loss"
}
I0430 18:41:38.616034 23994 layer_factory.hpp:77] Creating layer cifar
I0430 18:41:38.616148 23994 db_lmdb.cpp:35] Opened lmdb examples/cifar10/cifar10_train_lmdb
I0430 18:41:38.616178 23994 net.cpp:86] Creating Layer cifar
I0430 18:41:38.616189 23994 net.cpp:382] cifar -> data
I0430 18:41:38.616214 23994 net.cpp:382] cifar -> label
I0430 18:41:38.616227 23994 data_transformer.cpp:25] Loading mean file from: examples/cifar10/mean.binaryproto
I0430 18:41:38.618687 23994 data_layer.cpp:45] output data size: 111,3,32,32
I0430 18:41:38.627665 23994 net.cpp:124] Setting up cifar
I0430 18:41:38.627687 23994 net.cpp:131] Top shape: 111 3 32 32 (340992)
I0430 18:41:38.627694 23994 net.cpp:131] Top shape: 111 (111)
I0430 18:41:38.627698 23994 net.cpp:139] Memory required for data: 1364412
I0430 18:41:38.627707 23994 layer_factory.hpp:77] Creating layer ip1
I0430 18:41:38.627722 23994 net.cpp:86] Creating Layer ip1
I0430 18:41:38.627728 23994 net.cpp:408] ip1 <- data
I0430 18:41:38.627741 23994 net.cpp:382] ip1 -> ip1
I0430 18:41:38.631266 23994 net.cpp:124] Setting up ip1
I0430 18:41:38.631284 23994 net.cpp:131] Top shape: 111 20 (2220)
I0430 18:41:38.631289 23994 net.cpp:139] Memory required for data: 1373292
I0430 18:41:38.631305 23994 layer_factory.hpp:77] Creating layer relu1
I0430 18:41:38.631316 23994 net.cpp:86] Creating Layer relu1
I0430 18:41:38.631341 23994 net.cpp:408] relu1 <- ip1
I0430 18:41:38.631348 23994 net.cpp:369] relu1 -> ip1 (in-place)
I0430 18:41:38.919852 23994 net.cpp:124] Setting up relu1
I0430 18:41:38.919883 23994 net.cpp:131] Top shape: 111 20 (2220)
I0430 18:41:38.919888 23994 net.cpp:139] Memory required for data: 1382172
I0430 18:41:38.919895 23994 layer_factory.hpp:77] Creating layer ip2
I0430 18:41:38.919909 23994 net.cpp:86] Creating Layer ip2
I0430 18:41:38.919915 23994 net.cpp:408] ip2 <- ip1
I0430 18:41:38.919924 23994 net.cpp:382] ip2 -> ip2
I0430 18:41:38.920116 23994 net.cpp:124] Setting up ip2
I0430 18:41:38.920126 23994 net.cpp:131] Top shape: 111 80 (8880)
I0430 18:41:38.920130 23994 net.cpp:139] Memory required for data: 1417692
I0430 18:41:38.920142 23994 layer_factory.hpp:77] Creating layer relu2
I0430 18:41:38.920150 23994 net.cpp:86] Creating Layer relu2
I0430 18:41:38.920155 23994 net.cpp:408] relu2 <- ip2
I0430 18:41:38.920159 23994 net.cpp:369] relu2 -> ip2 (in-place)
I0430 18:41:38.921061 23994 net.cpp:124] Setting up relu2
I0430 18:41:38.921077 23994 net.cpp:131] Top shape: 111 80 (8880)
I0430 18:41:38.921080 23994 net.cpp:139] Memory required for data: 1453212
I0430 18:41:38.921084 23994 layer_factory.hpp:77] Creating layer ip3
I0430 18:41:38.921092 23994 net.cpp:86] Creating Layer ip3
I0430 18:41:38.921097 23994 net.cpp:408] ip3 <- ip2
I0430 18:41:38.921103 23994 net.cpp:382] ip3 -> ip3
I0430 18:41:38.922621 23994 net.cpp:124] Setting up ip3
I0430 18:41:38.922636 23994 net.cpp:131] Top shape: 111 160 (17760)
I0430 18:41:38.922641 23994 net.cpp:139] Memory required for data: 1524252
I0430 18:41:38.922650 23994 layer_factory.hpp:77] Creating layer relu3
I0430 18:41:38.922657 23994 net.cpp:86] Creating Layer relu3
I0430 18:41:38.922662 23994 net.cpp:408] relu3 <- ip3
I0430 18:41:38.922668 23994 net.cpp:369] relu3 -> ip3 (in-place)
I0430 18:41:38.922859 23994 net.cpp:124] Setting up relu3
I0430 18:41:38.922870 23994 net.cpp:131] Top shape: 111 160 (17760)
I0430 18:41:38.922874 23994 net.cpp:139] Memory required for data: 1595292
I0430 18:41:38.922878 23994 layer_factory.hpp:77] Creating layer ip4
I0430 18:41:38.922885 23994 net.cpp:86] Creating Layer ip4
I0430 18:41:38.922889 23994 net.cpp:408] ip4 <- ip3
I0430 18:41:38.922895 23994 net.cpp:382] ip4 -> ip4
I0430 18:41:38.923063 23994 net.cpp:124] Setting up ip4
I0430 18:41:38.923072 23994 net.cpp:131] Top shape: 111 10 (1110)
I0430 18:41:38.923075 23994 net.cpp:139] Memory required for data: 1599732
I0430 18:41:38.923082 23994 layer_factory.hpp:77] Creating layer loss
I0430 18:41:38.923090 23994 net.cpp:86] Creating Layer loss
I0430 18:41:38.923094 23994 net.cpp:408] loss <- ip4
I0430 18:41:38.923099 23994 net.cpp:408] loss <- label
I0430 18:41:38.923105 23994 net.cpp:382] loss -> loss
I0430 18:41:38.923126 23994 layer_factory.hpp:77] Creating layer loss
…
I0430 18:41:38.923806 23994 solver.cpp:173] Creating test net (#0) specified by net file: ECE595/cifar/train_test/var_everything/cifar_train_test_74.prototxt
I0430 18:41:38.923851 23994 net.cpp:296] The NetState phase (1) differed from the phase (0) specified by a rule in layer cifar
I0430 18:41:38.923943 23994 net.cpp:53] Initializing net from parameters: 
name: "CIFAR"
state {
  phase: TEST
}
layer {
  name: "cifar"
  type: "Data"
  top: "data"
  top: "label"
  include {
    phase: TEST
  }
  transform_param {
    mean_file: "examples/cifar10/mean.binaryproto"
  }
  data_param {
    source: "examples/cifar10/cifar10_test_lmdb"
    batch_size: 1000
    backend: LMDB
  }
}
layer {
  name: "ip1"
  type: "InnerProduct"
  bottom: "data"
  top: "ip1"
  param {
    lr_mult: 1
  }
  param {
    lr_mult: 2
  }
  inner_product_param {
    num_output: 20
    weight_filler {
      type: "gaussian"
      std: 0.01
    }
    bias_filler {
      type: "constant"
    }
  }
}
layer {
  name: "relu1"
  type: "ReLU"
  bottom: "ip1"
  top: "ip1"
}
layer {
  name: "ip2"
  type: "InnerProduct"
  bottom: "ip1"
  top: "ip2"
  param {
    lr_mult: 1
  }
  param {
    lr_mult: 2
  }
  inner_product_param {
    num_output: 80
    weight_filler {
      type: "gaussian"
      std: 0.01
    }
    bias_filler {
      type: "constant"
    }
  }
}
layer {
  name: "relu2"
  type: "ReLU"
  bottom: "ip2"
  top: "ip2"
}
layer {
  name: "ip3"
  type: "InnerProduct"
  bottom: "ip2"
  top: "ip3"
  param {
    lr_mult: 1
  }
  param {
    lr_mult: 2
  }
  inner_product_param {
    num_output: 160
    weight_filler {
      type: "gaussian"
      std: 0.01
    }
    bias_filler {
      type: "constant"
    }
  }
}
layer {
  name: "relu3"
  type: "ReLU"
  bottom: "ip3"
  top: "ip3"
}
layer {
  name: "ip4"
  type: "InnerProduct"
  bottom: "ip3"
  top: "ip4"
  param {
    lr_mult: 1
  }
  param {
    lr_mult: 2
  }
  inner_product_param {
    num_output: 10
    weight_filler {
      type: "gaussian"
      std: 0.01
    }
    bias_filler {
      type: "constant"
    }
  }
}
layer {
  name: "accuracy"
  type: "Accuracy"
  bottom: "ip4"
  bottom: "label"
  top: "accuracy"
  include {
    phase: TEST
  }
}
layer {
  name: "loss"
  type: "SoftmaxWithLoss"
  bottom: "ip4"
  bottom: "label"
  top: "loss"
}
I0430 18:41:38.924015 23994 layer_factory.hpp:77] Creating layer cifar
I0430 18:41:38.924069 23994 db_lmdb.cpp:35] Opened lmdb examples/cifar10/cifar10_test_lmdb
I0430 18:41:38.924083 23994 net.cpp:86] Creating Layer cifar
I0430 18:41:38.924089 23994 net.cpp:382] cifar -> data
I0430 18:41:38.924098 23994 net.cpp:382] cifar -> label
I0430 18:41:38.924106 23994 data_transformer.cpp:25] Loading mean file from: examples/cifar10/mean.binaryproto
I0430 18:41:38.924279 23994 data_layer.cpp:45] output data size: 1000,3,32,32
I0430 18:41:38.950934 23994 net.cpp:124] Setting up cifar
I0430 18:41:38.950965 23994 net.cpp:131] Top shape: 1000 3 32 32 (3072000)
I0430 18:41:38.950973 23994 net.cpp:131] Top shape: 1000 (1000)
I0430 18:41:38.950976 23994 net.cpp:139] Memory required for data: 12292000
I0430 18:41:38.950984 23994 layer_factory.hpp:77] Creating layer label_cifar_1_split
I0430 18:41:38.951004 23994 net.cpp:86] Creating Layer label_cifar_1_split
I0430 18:41:38.951009 23994 net.cpp:408] label_cifar_1_split <- label
I0430 18:41:38.951015 23994 net.cpp:382] label_cifar_1_split -> label_cifar_1_split_0
I0430 18:41:38.951026 23994 net.cpp:382] label_cifar_1_split -> label_cifar_1_split_1
I0430 18:41:38.951134 23994 net.cpp:124] Setting up label_cifar_1_split
I0430 18:41:38.951143 23994 net.cpp:131] Top shape: 1000 (1000)
I0430 18:41:38.951148 23994 net.cpp:131] Top shape: 1000 (1000)
I0430 18:41:38.951151 23994 net.cpp:139] Memory required for data: 12300000
I0430 18:41:38.951155 23994 layer_factory.hpp:77] Creating layer ip1
I0430 18:41:38.951166 23994 net.cpp:86] Creating Layer ip1
I0430 18:41:38.951169 23994 net.cpp:408] ip1 <- data
I0430 18:41:38.951175 23994 net.cpp:382] ip1 -> ip1
I0430 18:41:38.953552 23994 net.cpp:124] Setting up ip1
I0430 18:41:38.953565 23994 net.cpp:131] Top shape: 1000 20 (20000)
I0430 18:41:38.953569 23994 net.cpp:139] Memory required for data: 12380000
I0430 18:41:38.953598 23994 layer_factory.hpp:77] Creating layer relu1
I0430 18:41:38.953608 23994 net.cpp:86] Creating Layer relu1
I0430 18:41:38.953611 23994 net.cpp:408] relu1 <- ip1
I0430 18:41:38.953616 23994 net.cpp:369] relu1 -> ip1 (in-place)
I0430 18:41:38.954555 23994 net.cpp:124] Setting up relu1
I0430 18:41:38.954571 23994 net.cpp:131] Top shape: 1000 20 (20000)
I0430 18:41:38.954574 23994 net.cpp:139] Memory required for data: 12460000
I0430 18:41:38.954578 23994 layer_factory.hpp:77] Creating layer ip2
I0430 18:41:38.954588 23994 net.cpp:86] Creating Layer ip2
I0430 18:41:38.954592 23994 net.cpp:408] ip2 <- ip1
I0430 18:41:38.954599 23994 net.cpp:382] ip2 -> ip2
I0430 18:41:38.954782 23994 net.cpp:124] Setting up ip2
I0430 18:41:38.954792 23994 net.cpp:131] Top shape: 1000 80 (80000)
I0430 18:41:38.954797 23994 net.cpp:139] Memory required for data: 12780000
I0430 18:41:38.954807 23994 layer_factory.hpp:77] Creating layer relu2
I0430 18:41:38.954813 23994 net.cpp:86] Creating Layer relu2
I0430 18:41:38.954818 23994 net.cpp:408] relu2 <- ip2
I0430 18:41:38.954823 23994 net.cpp:369] relu2 -> ip2 (in-place)
I0430 18:41:38.955008 23994 net.cpp:124] Setting up relu2
I0430 18:41:38.955018 23994 net.cpp:131] Top shape: 1000 80 (80000)
I0430 18:41:38.955021 23994 net.cpp:139] Memory required for data: 13100000
I0430 18:41:38.955024 23994 layer_factory.hpp:77] Creating layer ip3
I0430 18:41:38.955032 23994 net.cpp:86] Creating Layer ip3
I0430 18:41:38.955036 23994 net.cpp:408] ip3 <- ip2
I0430 18:41:38.955042 23994 net.cpp:382] ip3 -> ip3
I0430 18:41:38.955576 23994 net.cpp:124] Setting up ip3
I0430 18:41:38.955585 23994 net.cpp:131] Top shape: 1000 160 (160000)
I0430 18:41:38.955588 23994 net.cpp:139] Memory required for data: 13740000
I0430 18:41:38.955597 23994 layer_factory.hpp:77] Creating layer relu3
I0430 18:41:38.955603 23994 net.cpp:86] Creating Layer relu3
I0430 18:41:38.955607 23994 net.cpp:408] relu3 <- ip3
I0430 18:41:38.955612 23994 net.cpp:369] relu3 -> ip3 (in-place)
I0430 18:41:38.955792 23994 net.cpp:124] Setting up relu3
I0430 18:41:38.955802 23994 net.cpp:131] Top shape: 1000 160 (160000)
I0430 18:41:38.955806 23994 net.cpp:139] Memory required for data: 14380000
I0430 18:41:38.955811 23994 layer_factory.hpp:77] Creating layer ip4
I0430 18:41:38.955818 23994 net.cpp:86] Creating Layer ip4
I0430 18:41:38.955822 23994 net.cpp:408] ip4 <- ip3
I0430 18:41:38.955828 23994 net.cpp:382] ip4 -> ip4
I0430 18:41:38.956002 23994 net.cpp:124] Setting up ip4
I0430 18:41:38.956010 23994 net.cpp:131] Top shape: 1000 10 (10000)
I0430 18:41:38.956014 23994 net.cpp:139] Memory required for data: 14420000
I0430 18:41:38.956020 23994 layer_factory.hpp:77] Creating layer ip4_ip4_0_split
I0430 18:41:38.956027 23994 net.cpp:86] Creating Layer ip4_ip4_0_split
I0430 18:41:38.956030 23994 net.cpp:408] ip4_ip4_0_split <- ip4
I0430 18:41:38.956035 23994 net.cpp:382] ip4_ip4_0_split -> ip4_ip4_0_split_0
I0430 18:41:38.956043 23994 net.cpp:382] ip4_ip4_0_split -> ip4_ip4_0_split_1
I0430 18:41:38.956081 23994 net.cpp:124] Setting up ip4_ip4_0_split
I0430 18:41:38.956089 23994 net.cpp:131] Top shape: 1000 10 (10000)
I0430 18:41:38.956094 23994 net.cpp:131] Top shape: 1000 10 (10000)
I0430 18:41:38.956097 23994 net.cpp:139] Memory required for data: 14500000
I0430 18:41:38.956101 23994 layer_factory.hpp:77] Creating layer accuracy
I0430 18:41:38.956113 23994 net.cpp:86] Creating Layer accuracy
I0430 18:41:38.956117 23994 net.cpp:408] accuracy <- ip4_ip4_0_split_0
I0430 18:41:38.956122 23994 net.cpp:408] accuracy <- label_cifar_1_split_0
I0430 18:41:38.956127 23994 net.cpp:382] accuracy -> accuracy
…
