…
I0501 07:33:22.890177  5637 net.cpp:296] The NetState phase (0) differed from the phase (1) specified by a rule in layer cifar
I0501 07:33:22.890192  5637 net.cpp:296] The NetState phase (0) differed from the phase (1) specified by a rule in layer accuracy
I0501 07:33:22.890283  5637 net.cpp:53] Initializing net from parameters: 
name: "CIFAR"
state {
  phase: TRAIN
  level: 0
  stage: ""
}
layer {
  name: "cifar"
  type: "Data"
  top: "data"
  top: "label"
  include {
    phase: TRAIN
  }
  transform_param {
    mean_file: "examples/cifar10/mean.binaryproto"
  }
  data_param {
    source: "examples/cifar10/cifar10_train_lmdb"
    batch_size: 111
    backend: LMDB
  }
}
layer {
  name: "conv0"
  type: "Convolution"
  bottom: "data"
  top: "conv0"
  param {
    lr_mult: 1
  }
  param {
    lr_mult: 2
  }
  convolution_param {
    num_output: 16
    pad: 2
    kernel_size: 3
    stride: 1
    weight_filler {
      type: "gaussian"
      std: 0.01
    }
    bias_filler {
      type: "constant"
    }
  }
}
layer {
  name: "Sigmoid0"
  type: "Sigmoid"
  bottom: "conv0"
  top: "Sigmoid0"
}
layer {
  name: "pool0"
  type: "Pooling"
  bottom: "Sigmoid0"
  top: "pool0"
  pooling_param {
    pool: AVE
    kernel_size: 3
    stride: 2
  }
}
layer {
  name: "ip1"
  type: "InnerProduct"
  bottom: "pool0"
  top: "ip1"
  param {
    lr_mult: 1
  }
  param {
    lr_mult: 2
  }
  inner_product_param {
    num_output: 80
    weight_filler {
      type: "gaussian"
      std: 0.01
    }
    bias_filler {
      type: "constant"
    }
  }
}
layer {
  name: "relu1"
  type: "ReLU"
  bottom: "ip1"
  top: "ip1"
}
layer {
  name: "ip2"
  type: "InnerProduct"
  bottom: "ip1"
  top: "ip2"
  param {
    lr_mult: 1
  }
  param {
    lr_mult: 2
  }
  inner_product_param {
    num_output: 10
    weight_filler {
      type: "gaussian"
      std: 0.01
    }
    bias_filler {
      type: "constant"
    }
  }
}
layer {
  name: "relu2"
  type: "ReLU"
  bottom: "ip2"
  top: "ip2"
}
layer {
  name: "ip3"
  type: "InnerProduct"
  bottom: "ip2"
  top: "ip3"
  param {
    lr_mult: 1
  }
  param {
    lr_mult: 2
  }
  inner_product_param {
    num_output: 10
    weight_filler {
      type: "gaussian"
      std: 0.01
    }
    bias_filler {
      type: "constant"
    }
  }
}
layer {
  name: "loss"
  type: "SoftmaxWithLoss"
  bottom: "ip3"
  bottom: "label"
  top: "loss"
}
I0501 07:33:22.890362  5637 layer_factory.hpp:77] Creating layer cifar
I0501 07:33:22.890463  5637 db_lmdb.cpp:35] Opened lmdb examples/cifar10/cifar10_train_lmdb
I0501 07:33:22.890492  5637 net.cpp:86] Creating Layer cifar
I0501 07:33:22.890503  5637 net.cpp:382] cifar -> data
I0501 07:33:22.890529  5637 net.cpp:382] cifar -> label
I0501 07:33:22.890542  5637 data_transformer.cpp:25] Loading mean file from: examples/cifar10/mean.binaryproto
I0501 07:33:22.892704  5637 data_layer.cpp:45] output data size: 111,3,32,32
I0501 07:33:22.900674  5637 net.cpp:124] Setting up cifar
I0501 07:33:22.900693  5637 net.cpp:131] Top shape: 111 3 32 32 (340992)
I0501 07:33:22.900701  5637 net.cpp:131] Top shape: 111 (111)
I0501 07:33:22.900703  5637 net.cpp:139] Memory required for data: 1364412
I0501 07:33:22.900712  5637 layer_factory.hpp:77] Creating layer conv0
I0501 07:33:22.900732  5637 net.cpp:86] Creating Layer conv0
I0501 07:33:22.900738  5637 net.cpp:408] conv0 <- data
I0501 07:33:22.900751  5637 net.cpp:382] conv0 -> conv0
I0501 07:33:23.194416  5637 net.cpp:124] Setting up conv0
I0501 07:33:23.194473  5637 net.cpp:131] Top shape: 111 16 34 34 (2053056)
I0501 07:33:23.194478  5637 net.cpp:139] Memory required for data: 9576636
I0501 07:33:23.194496  5637 layer_factory.hpp:77] Creating layer Sigmoid0
I0501 07:33:23.194510  5637 net.cpp:86] Creating Layer Sigmoid0
I0501 07:33:23.194515  5637 net.cpp:408] Sigmoid0 <- conv0
I0501 07:33:23.194521  5637 net.cpp:382] Sigmoid0 -> Sigmoid0
I0501 07:33:23.194739  5637 net.cpp:124] Setting up Sigmoid0
I0501 07:33:23.194751  5637 net.cpp:131] Top shape: 111 16 34 34 (2053056)
I0501 07:33:23.194756  5637 net.cpp:139] Memory required for data: 17788860
I0501 07:33:23.194759  5637 layer_factory.hpp:77] Creating layer pool0
I0501 07:33:23.194767  5637 net.cpp:86] Creating Layer pool0
I0501 07:33:23.194775  5637 net.cpp:408] pool0 <- Sigmoid0
I0501 07:33:23.194780  5637 net.cpp:382] pool0 -> pool0
I0501 07:33:23.195673  5637 net.cpp:124] Setting up pool0
I0501 07:33:23.195690  5637 net.cpp:131] Top shape: 111 16 17 17 (513264)
I0501 07:33:23.195694  5637 net.cpp:139] Memory required for data: 19841916
I0501 07:33:23.195698  5637 layer_factory.hpp:77] Creating layer ip1
I0501 07:33:23.195710  5637 net.cpp:86] Creating Layer ip1
I0501 07:33:23.195714  5637 net.cpp:408] ip1 <- pool0
I0501 07:33:23.195721  5637 net.cpp:382] ip1 -> ip1
I0501 07:33:23.208781  5637 net.cpp:124] Setting up ip1
I0501 07:33:23.208796  5637 net.cpp:131] Top shape: 111 80 (8880)
I0501 07:33:23.208801  5637 net.cpp:139] Memory required for data: 19877436
I0501 07:33:23.208814  5637 layer_factory.hpp:77] Creating layer relu1
I0501 07:33:23.208822  5637 net.cpp:86] Creating Layer relu1
I0501 07:33:23.208827  5637 net.cpp:408] relu1 <- ip1
I0501 07:33:23.208832  5637 net.cpp:369] relu1 -> ip1 (in-place)
I0501 07:33:23.209017  5637 net.cpp:124] Setting up relu1
I0501 07:33:23.209026  5637 net.cpp:131] Top shape: 111 80 (8880)
I0501 07:33:23.209030  5637 net.cpp:139] Memory required for data: 19912956
I0501 07:33:23.209034  5637 layer_factory.hpp:77] Creating layer ip2
I0501 07:33:23.209043  5637 net.cpp:86] Creating Layer ip2
I0501 07:33:23.209048  5637 net.cpp:408] ip2 <- ip1
I0501 07:33:23.209055  5637 net.cpp:382] ip2 -> ip2
I0501 07:33:23.209189  5637 net.cpp:124] Setting up ip2
I0501 07:33:23.209198  5637 net.cpp:131] Top shape: 111 10 (1110)
I0501 07:33:23.209202  5637 net.cpp:139] Memory required for data: 19917396
I0501 07:33:23.209210  5637 layer_factory.hpp:77] Creating layer relu2
I0501 07:33:23.209218  5637 net.cpp:86] Creating Layer relu2
I0501 07:33:23.209223  5637 net.cpp:408] relu2 <- ip2
I0501 07:33:23.209228  5637 net.cpp:369] relu2 -> ip2 (in-place)
I0501 07:33:23.209408  5637 net.cpp:124] Setting up relu2
I0501 07:33:23.209416  5637 net.cpp:131] Top shape: 111 10 (1110)
I0501 07:33:23.209420  5637 net.cpp:139] Memory required for data: 19921836
I0501 07:33:23.209424  5637 layer_factory.hpp:77] Creating layer ip3
I0501 07:33:23.209432  5637 net.cpp:86] Creating Layer ip3
I0501 07:33:23.209437  5637 net.cpp:408] ip3 <- ip2
I0501 07:33:23.209444  5637 net.cpp:382] ip3 -> ip3
I0501 07:33:23.209550  5637 net.cpp:124] Setting up ip3
I0501 07:33:23.209558  5637 net.cpp:131] Top shape: 111 10 (1110)
I0501 07:33:23.209563  5637 net.cpp:139] Memory required for data: 19926276
I0501 07:33:23.209568  5637 layer_factory.hpp:77] Creating layer loss
I0501 07:33:23.209576  5637 net.cpp:86] Creating Layer loss
I0501 07:33:23.209580  5637 net.cpp:408] loss <- ip3
I0501 07:33:23.209584  5637 net.cpp:408] loss <- label
I0501 07:33:23.209590  5637 net.cpp:382] loss -> loss
I0501 07:33:23.209611  5637 layer_factory.hpp:77] Creating layer loss
…
I0501 07:33:23.210304  5637 solver.cpp:173] Creating test net (#0) specified by net file: ECE595/cifar/train_test/var_everything/cifar_train_test_485.prototxt
I0501 07:33:23.210333  5637 net.cpp:296] The NetState phase (1) differed from the phase (0) specified by a rule in layer cifar
I0501 07:33:23.210430  5637 net.cpp:53] Initializing net from parameters: 
name: "CIFAR"
state {
  phase: TEST
}
layer {
  name: "cifar"
  type: "Data"
  top: "data"
  top: "label"
  include {
    phase: TEST
  }
  transform_param {
    mean_file: "examples/cifar10/mean.binaryproto"
  }
  data_param {
    source: "examples/cifar10/cifar10_test_lmdb"
    batch_size: 1000
    backend: LMDB
  }
}
layer {
  name: "conv0"
  type: "Convolution"
  bottom: "data"
  top: "conv0"
  param {
    lr_mult: 1
  }
  param {
    lr_mult: 2
  }
  convolution_param {
    num_output: 16
    pad: 2
    kernel_size: 3
    stride: 1
    weight_filler {
      type: "gaussian"
      std: 0.01
    }
    bias_filler {
      type: "constant"
    }
  }
}
layer {
  name: "Sigmoid0"
  type: "Sigmoid"
  bottom: "conv0"
  top: "Sigmoid0"
}
layer {
  name: "pool0"
  type: "Pooling"
  bottom: "Sigmoid0"
  top: "pool0"
  pooling_param {
    pool: AVE
    kernel_size: 3
    stride: 2
  }
}
layer {
  name: "ip1"
  type: "InnerProduct"
  bottom: "pool0"
  top: "ip1"
  param {
    lr_mult: 1
  }
  param {
    lr_mult: 2
  }
  inner_product_param {
    num_output: 80
    weight_filler {
      type: "gaussian"
      std: 0.01
    }
    bias_filler {
      type: "constant"
    }
  }
}
layer {
  name: "relu1"
  type: "ReLU"
  bottom: "ip1"
  top: "ip1"
}
layer {
  name: "ip2"
  type: "InnerProduct"
  bottom: "ip1"
  top: "ip2"
  param {
    lr_mult: 1
  }
  param {
    lr_mult: 2
  }
  inner_product_param {
    num_output: 10
    weight_filler {
      type: "gaussian"
      std: 0.01
    }
    bias_filler {
      type: "constant"
    }
  }
}
layer {
  name: "relu2"
  type: "ReLU"
  bottom: "ip2"
  top: "ip2"
}
layer {
  name: "ip3"
  type: "InnerProduct"
  bottom: "ip2"
  top: "ip3"
  param {
    lr_mult: 1
  }
  param {
    lr_mult: 2
  }
  inner_product_param {
    num_output: 10
    weight_filler {
      type: "gaussian"
      std: 0.01
    }
    bias_filler {
      type: "constant"
    }
  }
}
layer {
  name: "accuracy"
  type: "Accuracy"
  bottom: "ip3"
  bottom: "label"
  top: "accuracy"
  include {
    phase: TEST
  }
}
layer {
  name: "loss"
  type: "SoftmaxWithLoss"
  bottom: "ip3"
  bottom: "label"
  top: "loss"
}
I0501 07:33:23.210503  5637 layer_factory.hpp:77] Creating layer cifar
I0501 07:33:23.210556  5637 db_lmdb.cpp:35] Opened lmdb examples/cifar10/cifar10_test_lmdb
I0501 07:33:23.210575  5637 net.cpp:86] Creating Layer cifar
I0501 07:33:23.210582  5637 net.cpp:382] cifar -> data
I0501 07:33:23.210592  5637 net.cpp:382] cifar -> label
I0501 07:33:23.210602  5637 data_transformer.cpp:25] Loading mean file from: examples/cifar10/mean.binaryproto
I0501 07:33:23.210767  5637 data_layer.cpp:45] output data size: 1000,3,32,32
I0501 07:33:23.235504  5637 net.cpp:124] Setting up cifar
I0501 07:33:23.235530  5637 net.cpp:131] Top shape: 1000 3 32 32 (3072000)
I0501 07:33:23.235538  5637 net.cpp:131] Top shape: 1000 (1000)
I0501 07:33:23.235541  5637 net.cpp:139] Memory required for data: 12292000
I0501 07:33:23.235548  5637 layer_factory.hpp:77] Creating layer label_cifar_1_split
I0501 07:33:23.235566  5637 net.cpp:86] Creating Layer label_cifar_1_split
I0501 07:33:23.235584  5637 net.cpp:408] label_cifar_1_split <- label
I0501 07:33:23.235591  5637 net.cpp:382] label_cifar_1_split -> label_cifar_1_split_0
I0501 07:33:23.235606  5637 net.cpp:382] label_cifar_1_split -> label_cifar_1_split_1
I0501 07:33:23.235703  5637 net.cpp:124] Setting up label_cifar_1_split
I0501 07:33:23.235713  5637 net.cpp:131] Top shape: 1000 (1000)
I0501 07:33:23.235718  5637 net.cpp:131] Top shape: 1000 (1000)
I0501 07:33:23.235721  5637 net.cpp:139] Memory required for data: 12300000
I0501 07:33:23.235724  5637 layer_factory.hpp:77] Creating layer conv0
I0501 07:33:23.235738  5637 net.cpp:86] Creating Layer conv0
I0501 07:33:23.235745  5637 net.cpp:408] conv0 <- data
I0501 07:33:23.235751  5637 net.cpp:382] conv0 -> conv0
I0501 07:33:23.237413  5637 net.cpp:124] Setting up conv0
I0501 07:33:23.237429  5637 net.cpp:131] Top shape: 1000 16 34 34 (18496000)
I0501 07:33:23.237433  5637 net.cpp:139] Memory required for data: 86284000
I0501 07:33:23.237444  5637 layer_factory.hpp:77] Creating layer Sigmoid0
I0501 07:33:23.237454  5637 net.cpp:86] Creating Layer Sigmoid0
I0501 07:33:23.237457  5637 net.cpp:408] Sigmoid0 <- conv0
I0501 07:33:23.237462  5637 net.cpp:382] Sigmoid0 -> Sigmoid0
I0501 07:33:23.239321  5637 net.cpp:124] Setting up Sigmoid0
I0501 07:33:23.239338  5637 net.cpp:131] Top shape: 1000 16 34 34 (18496000)
I0501 07:33:23.239342  5637 net.cpp:139] Memory required for data: 160268000
I0501 07:33:23.239347  5637 layer_factory.hpp:77] Creating layer pool0
I0501 07:33:23.239357  5637 net.cpp:86] Creating Layer pool0
I0501 07:33:23.239361  5637 net.cpp:408] pool0 <- Sigmoid0
I0501 07:33:23.239367  5637 net.cpp:382] pool0 -> pool0
I0501 07:33:23.239552  5637 net.cpp:124] Setting up pool0
I0501 07:33:23.239562  5637 net.cpp:131] Top shape: 1000 16 17 17 (4624000)
I0501 07:33:23.239565  5637 net.cpp:139] Memory required for data: 178764000
I0501 07:33:23.239568  5637 layer_factory.hpp:77] Creating layer ip1
I0501 07:33:23.239576  5637 net.cpp:86] Creating Layer ip1
I0501 07:33:23.239584  5637 net.cpp:408] ip1 <- pool0
I0501 07:33:23.239590  5637 net.cpp:382] ip1 -> ip1
I0501 07:33:23.251438  5637 net.cpp:124] Setting up ip1
I0501 07:33:23.251456  5637 net.cpp:131] Top shape: 1000 80 (80000)
I0501 07:33:23.251461  5637 net.cpp:139] Memory required for data: 179084000
I0501 07:33:23.251472  5637 layer_factory.hpp:77] Creating layer relu1
I0501 07:33:23.251483  5637 net.cpp:86] Creating Layer relu1
I0501 07:33:23.251487  5637 net.cpp:408] relu1 <- ip1
I0501 07:33:23.251492  5637 net.cpp:369] relu1 -> ip1 (in-place)
I0501 07:33:23.251683  5637 net.cpp:124] Setting up relu1
I0501 07:33:23.251693  5637 net.cpp:131] Top shape: 1000 80 (80000)
I0501 07:33:23.251696  5637 net.cpp:139] Memory required for data: 179404000
I0501 07:33:23.251700  5637 layer_factory.hpp:77] Creating layer ip2
I0501 07:33:23.251708  5637 net.cpp:86] Creating Layer ip2
I0501 07:33:23.251714  5637 net.cpp:408] ip2 <- ip1
I0501 07:33:23.251720  5637 net.cpp:382] ip2 -> ip2
I0501 07:33:23.251860  5637 net.cpp:124] Setting up ip2
I0501 07:33:23.251868  5637 net.cpp:131] Top shape: 1000 10 (10000)
I0501 07:33:23.251873  5637 net.cpp:139] Memory required for data: 179444000
I0501 07:33:23.251880  5637 layer_factory.hpp:77] Creating layer relu2
I0501 07:33:23.251889  5637 net.cpp:86] Creating Layer relu2
I0501 07:33:23.251893  5637 net.cpp:408] relu2 <- ip2
I0501 07:33:23.251898  5637 net.cpp:369] relu2 -> ip2 (in-place)
I0501 07:33:23.252079  5637 net.cpp:124] Setting up relu2
I0501 07:33:23.252087  5637 net.cpp:131] Top shape: 1000 10 (10000)
I0501 07:33:23.252091  5637 net.cpp:139] Memory required for data: 179484000
I0501 07:33:23.252094  5637 layer_factory.hpp:77] Creating layer ip3
I0501 07:33:23.252101  5637 net.cpp:86] Creating Layer ip3
I0501 07:33:23.252105  5637 net.cpp:408] ip3 <- ip2
I0501 07:33:23.252111  5637 net.cpp:382] ip3 -> ip3
I0501 07:33:23.252233  5637 net.cpp:124] Setting up ip3
I0501 07:33:23.252241  5637 net.cpp:131] Top shape: 1000 10 (10000)
I0501 07:33:23.252259  5637 net.cpp:139] Memory required for data: 179524000
I0501 07:33:23.252280  5637 layer_factory.hpp:77] Creating layer ip3_ip3_0_split
I0501 07:33:23.252286  5637 net.cpp:86] Creating Layer ip3_ip3_0_split
I0501 07:33:23.252290  5637 net.cpp:408] ip3_ip3_0_split <- ip3
I0501 07:33:23.252295  5637 net.cpp:382] ip3_ip3_0_split -> ip3_ip3_0_split_0
I0501 07:33:23.252300  5637 net.cpp:382] ip3_ip3_0_split -> ip3_ip3_0_split_1
I0501 07:33:23.252332  5637 net.cpp:124] Setting up ip3_ip3_0_split
I0501 07:33:23.252339  5637 net.cpp:131] Top shape: 1000 10 (10000)
I0501 07:33:23.252343  5637 net.cpp:131] Top shape: 1000 10 (10000)
I0501 07:33:23.252346  5637 net.cpp:139] Memory required for data: 179604000
I0501 07:33:23.252349  5637 layer_factory.hpp:77] Creating layer accuracy
I0501 07:33:23.252355  5637 net.cpp:86] Creating Layer accuracy
I0501 07:33:23.252358  5637 net.cpp:408] accuracy <- ip3_ip3_0_split_0
I0501 07:33:23.252362  5637 net.cpp:408] accuracy <- label_cifar_1_split_0
I0501 07:33:23.252367  5637 net.cpp:382] accuracy -> accuracy
…
