…
I0501 06:01:29.734347 31258 net.cpp:296] The NetState phase (0) differed from the phase (1) specified by a rule in layer cifar
I0501 06:01:29.734391 31258 net.cpp:296] The NetState phase (0) differed from the phase (1) specified by a rule in layer accuracy
I0501 06:01:29.734488 31258 net.cpp:53] Initializing net from parameters: 
name: "CIFAR"
state {
  phase: TRAIN
  level: 0
  stage: ""
}
layer {
  name: "cifar"
  type: "Data"
  top: "data"
  top: "label"
  include {
    phase: TRAIN
  }
  transform_param {
    mean_file: "examples/cifar10/mean.binaryproto"
  }
  data_param {
    source: "examples/cifar10/cifar10_train_lmdb"
    batch_size: 111
    backend: LMDB
  }
}
layer {
  name: "conv0"
  type: "Convolution"
  bottom: "data"
  top: "conv0"
  param {
    lr_mult: 1
  }
  param {
    lr_mult: 2
  }
  convolution_param {
    num_output: 8
    pad: 2
    kernel_size: 5
    stride: 1
    weight_filler {
      type: "gaussian"
      std: 0.01
    }
    bias_filler {
      type: "constant"
    }
  }
}
layer {
  name: "Sigmoid0"
  type: "Sigmoid"
  bottom: "conv0"
  top: "Sigmoid0"
}
layer {
  name: "pool0"
  type: "Pooling"
  bottom: "Sigmoid0"
  top: "pool0"
  pooling_param {
    pool: AVE
    kernel_size: 3
    stride: 2
  }
}
layer {
  name: "ip1"
  type: "InnerProduct"
  bottom: "pool0"
  top: "ip1"
  param {
    lr_mult: 1
  }
  param {
    lr_mult: 2
  }
  inner_product_param {
    num_output: 80
    weight_filler {
      type: "gaussian"
      std: 0.01
    }
    bias_filler {
      type: "constant"
    }
  }
}
layer {
  name: "relu1"
  type: "ReLU"
  bottom: "ip1"
  top: "ip1"
}
layer {
  name: "ip2"
  type: "InnerProduct"
  bottom: "ip1"
  top: "ip2"
  param {
    lr_mult: 1
  }
  param {
    lr_mult: 2
  }
  inner_product_param {
    num_output: 160
    weight_filler {
      type: "gaussian"
      std: 0.01
    }
    bias_filler {
      type: "constant"
    }
  }
}
layer {
  name: "relu2"
  type: "ReLU"
  bottom: "ip2"
  top: "ip2"
}
layer {
  name: "ip3"
  type: "InnerProduct"
  bottom: "ip2"
  top: "ip3"
  param {
    lr_mult: 1
  }
  param {
    lr_mult: 2
  }
  inner_product_param {
    num_output: 40
    weight_filler {
      type: "gaussian"
      std: 0.01
    }
    bias_filler {
      type: "constant"
    }
  }
}
layer {
  name: "relu3"
  type: "ReLU"
  bottom: "ip3"
  top: "ip3"
}
layer {
  name: "ip4"
  type: "InnerProduct"
  bottom: "ip3"
  top: "ip4"
  param {
    lr_mult: 1
  }
  param {
    lr_mult: 2
  }
  inner_product_param {
    num_output: 10
    weight_filler {
      type: "gaussian"
      std: 0.01
    }
    bias_filler {
      type: "constant"
    }
  }
}
layer {
  name: "loss"
  type: "SoftmaxWithLoss"
  bottom: "ip4"
  bottom: "label"
  top: "loss"
}
I0501 06:01:29.734547 31258 layer_factory.hpp:77] Creating layer cifar
I0501 06:01:29.734628 31258 db_lmdb.cpp:35] Opened lmdb examples/cifar10/cifar10_train_lmdb
I0501 06:01:29.734652 31258 net.cpp:86] Creating Layer cifar
I0501 06:01:29.734659 31258 net.cpp:382] cifar -> data
I0501 06:01:29.734678 31258 net.cpp:382] cifar -> label
I0501 06:01:29.734689 31258 data_transformer.cpp:25] Loading mean file from: examples/cifar10/mean.binaryproto
I0501 06:01:29.736541 31258 data_layer.cpp:45] output data size: 111,3,32,32
I0501 06:01:29.743157 31258 net.cpp:124] Setting up cifar
I0501 06:01:29.743188 31258 net.cpp:131] Top shape: 111 3 32 32 (340992)
I0501 06:01:29.743193 31258 net.cpp:131] Top shape: 111 (111)
I0501 06:01:29.743196 31258 net.cpp:139] Memory required for data: 1364412
I0501 06:01:29.743216 31258 layer_factory.hpp:77] Creating layer conv0
I0501 06:01:29.743232 31258 net.cpp:86] Creating Layer conv0
I0501 06:01:29.743237 31258 net.cpp:408] conv0 <- data
I0501 06:01:29.743245 31258 net.cpp:382] conv0 -> conv0
I0501 06:01:29.975903 31258 net.cpp:124] Setting up conv0
I0501 06:01:29.975930 31258 net.cpp:131] Top shape: 111 8 32 32 (909312)
I0501 06:01:29.975934 31258 net.cpp:139] Memory required for data: 5001660
I0501 06:01:29.975949 31258 layer_factory.hpp:77] Creating layer Sigmoid0
I0501 06:01:29.975960 31258 net.cpp:86] Creating Layer Sigmoid0
I0501 06:01:29.975963 31258 net.cpp:408] Sigmoid0 <- conv0
I0501 06:01:29.975968 31258 net.cpp:382] Sigmoid0 -> Sigmoid0
I0501 06:01:29.976137 31258 net.cpp:124] Setting up Sigmoid0
I0501 06:01:29.976146 31258 net.cpp:131] Top shape: 111 8 32 32 (909312)
I0501 06:01:29.976166 31258 net.cpp:139] Memory required for data: 8638908
I0501 06:01:29.976168 31258 layer_factory.hpp:77] Creating layer pool0
I0501 06:01:29.976176 31258 net.cpp:86] Creating Layer pool0
I0501 06:01:29.976181 31258 net.cpp:408] pool0 <- Sigmoid0
I0501 06:01:29.976186 31258 net.cpp:382] pool0 -> pool0
I0501 06:01:29.976936 31258 net.cpp:124] Setting up pool0
I0501 06:01:29.976964 31258 net.cpp:131] Top shape: 111 8 16 16 (227328)
I0501 06:01:29.976968 31258 net.cpp:139] Memory required for data: 9548220
I0501 06:01:29.976970 31258 layer_factory.hpp:77] Creating layer ip1
I0501 06:01:29.976979 31258 net.cpp:86] Creating Layer ip1
I0501 06:01:29.976982 31258 net.cpp:408] ip1 <- pool0
I0501 06:01:29.976987 31258 net.cpp:382] ip1 -> ip1
I0501 06:01:29.981123 31258 net.cpp:124] Setting up ip1
I0501 06:01:29.981132 31258 net.cpp:131] Top shape: 111 80 (8880)
I0501 06:01:29.981150 31258 net.cpp:139] Memory required for data: 9583740
I0501 06:01:29.981158 31258 layer_factory.hpp:77] Creating layer relu1
I0501 06:01:29.981164 31258 net.cpp:86] Creating Layer relu1
I0501 06:01:29.981168 31258 net.cpp:408] relu1 <- ip1
I0501 06:01:29.981173 31258 net.cpp:369] relu1 -> ip1 (in-place)
I0501 06:01:29.981349 31258 net.cpp:124] Setting up relu1
I0501 06:01:29.981358 31258 net.cpp:131] Top shape: 111 80 (8880)
I0501 06:01:29.981360 31258 net.cpp:139] Memory required for data: 9619260
I0501 06:01:29.981364 31258 layer_factory.hpp:77] Creating layer ip2
I0501 06:01:29.981369 31258 net.cpp:86] Creating Layer ip2
I0501 06:01:29.981372 31258 net.cpp:408] ip2 <- ip1
I0501 06:01:29.981377 31258 net.cpp:382] ip2 -> ip2
I0501 06:01:29.982597 31258 net.cpp:124] Setting up ip2
I0501 06:01:29.982609 31258 net.cpp:131] Top shape: 111 160 (17760)
I0501 06:01:29.982611 31258 net.cpp:139] Memory required for data: 9690300
I0501 06:01:29.982620 31258 layer_factory.hpp:77] Creating layer relu2
I0501 06:01:29.982625 31258 net.cpp:86] Creating Layer relu2
I0501 06:01:29.982627 31258 net.cpp:408] relu2 <- ip2
I0501 06:01:29.982630 31258 net.cpp:369] relu2 -> ip2 (in-place)
I0501 06:01:29.982815 31258 net.cpp:124] Setting up relu2
I0501 06:01:29.982823 31258 net.cpp:131] Top shape: 111 160 (17760)
I0501 06:01:29.982826 31258 net.cpp:139] Memory required for data: 9761340
I0501 06:01:29.982830 31258 layer_factory.hpp:77] Creating layer ip3
I0501 06:01:29.982836 31258 net.cpp:86] Creating Layer ip3
I0501 06:01:29.982841 31258 net.cpp:408] ip3 <- ip2
I0501 06:01:29.982844 31258 net.cpp:382] ip3 -> ip3
I0501 06:01:29.983124 31258 net.cpp:124] Setting up ip3
I0501 06:01:29.983131 31258 net.cpp:131] Top shape: 111 40 (4440)
I0501 06:01:29.983135 31258 net.cpp:139] Memory required for data: 9779100
I0501 06:01:29.983140 31258 layer_factory.hpp:77] Creating layer relu3
I0501 06:01:29.983144 31258 net.cpp:86] Creating Layer relu3
I0501 06:01:29.983147 31258 net.cpp:408] relu3 <- ip3
I0501 06:01:29.983151 31258 net.cpp:369] relu3 -> ip3 (in-place)
I0501 06:01:29.983294 31258 net.cpp:124] Setting up relu3
I0501 06:01:29.983301 31258 net.cpp:131] Top shape: 111 40 (4440)
I0501 06:01:29.983304 31258 net.cpp:139] Memory required for data: 9796860
I0501 06:01:29.983307 31258 layer_factory.hpp:77] Creating layer ip4
I0501 06:01:29.983340 31258 net.cpp:86] Creating Layer ip4
I0501 06:01:29.983343 31258 net.cpp:408] ip4 <- ip3
I0501 06:01:29.983347 31258 net.cpp:382] ip4 -> ip4
I0501 06:01:29.983439 31258 net.cpp:124] Setting up ip4
I0501 06:01:29.983446 31258 net.cpp:131] Top shape: 111 10 (1110)
I0501 06:01:29.983449 31258 net.cpp:139] Memory required for data: 9801300
I0501 06:01:29.983456 31258 layer_factory.hpp:77] Creating layer loss
I0501 06:01:29.983460 31258 net.cpp:86] Creating Layer loss
I0501 06:01:29.983464 31258 net.cpp:408] loss <- ip4
I0501 06:01:29.983467 31258 net.cpp:408] loss <- label
I0501 06:01:29.983472 31258 net.cpp:382] loss -> loss
I0501 06:01:29.983484 31258 layer_factory.hpp:77] Creating layer loss
…
I0501 06:01:29.984657 31258 solver.cpp:173] Creating test net (#0) specified by net file: ECE595/cifar/train_test/var_everything/cifar_train_test_437.prototxt
I0501 06:01:29.984683 31258 net.cpp:296] The NetState phase (1) differed from the phase (0) specified by a rule in layer cifar
I0501 06:01:29.984769 31258 net.cpp:53] Initializing net from parameters: 
name: "CIFAR"
state {
  phase: TEST
}
layer {
  name: "cifar"
  type: "Data"
  top: "data"
  top: "label"
  include {
    phase: TEST
  }
  transform_param {
    mean_file: "examples/cifar10/mean.binaryproto"
  }
  data_param {
    source: "examples/cifar10/cifar10_test_lmdb"
    batch_size: 1000
    backend: LMDB
  }
}
layer {
  name: "conv0"
  type: "Convolution"
  bottom: "data"
  top: "conv0"
  param {
    lr_mult: 1
  }
  param {
    lr_mult: 2
  }
  convolution_param {
    num_output: 8
    pad: 2
    kernel_size: 5
    stride: 1
    weight_filler {
      type: "gaussian"
      std: 0.01
    }
    bias_filler {
      type: "constant"
    }
  }
}
layer {
  name: "Sigmoid0"
  type: "Sigmoid"
  bottom: "conv0"
  top: "Sigmoid0"
}
layer {
  name: "pool0"
  type: "Pooling"
  bottom: "Sigmoid0"
  top: "pool0"
  pooling_param {
    pool: AVE
    kernel_size: 3
    stride: 2
  }
}
layer {
  name: "ip1"
  type: "InnerProduct"
  bottom: "pool0"
  top: "ip1"
  param {
    lr_mult: 1
  }
  param {
    lr_mult: 2
  }
  inner_product_param {
    num_output: 80
    weight_filler {
      type: "gaussian"
      std: 0.01
    }
    bias_filler {
      type: "constant"
    }
  }
}
layer {
  name: "relu1"
  type: "ReLU"
  bottom: "ip1"
  top: "ip1"
}
layer {
  name: "ip2"
  type: "InnerProduct"
  bottom: "ip1"
  top: "ip2"
  param {
    lr_mult: 1
  }
  param {
    lr_mult: 2
  }
  inner_product_param {
    num_output: 160
    weight_filler {
      type: "gaussian"
      std: 0.01
    }
    bias_filler {
      type: "constant"
    }
  }
}
layer {
  name: "relu2"
  type: "ReLU"
  bottom: "ip2"
  top: "ip2"
}
layer {
  name: "ip3"
  type: "InnerProduct"
  bottom: "ip2"
  top: "ip3"
  param {
    lr_mult: 1
  }
  param {
    lr_mult: 2
  }
  inner_product_param {
    num_output: 40
    weight_filler {
      type: "gaussian"
      std: 0.01
    }
    bias_filler {
      type: "constant"
    }
  }
}
layer {
  name: "relu3"
  type: "ReLU"
  bottom: "ip3"
  top: "ip3"
}
layer {
  name: "ip4"
  type: "InnerProduct"
  bottom: "ip3"
  top: "ip4"
  param {
    lr_mult: 1
  }
  param {
    lr_mult: 2
  }
  inner_product_param {
    num_output: 10
    weight_filler {
      type: "gaussian"
      std: 0.01
    }
    bias_filler {
      type: "constant"
    }
  }
}
layer {
  name: "accuracy"
  type: "Accuracy"
  bottom: "ip4"
  bottom: "label"
  top: "accuracy"
  include {
    phase: TEST
  }
}
layer {
  name: "loss"
  type: "SoftmaxWithLoss"
  bottom: "ip4"
  bottom: "label"
  top: "loss"
}
I0501 06:01:29.984864 31258 layer_factory.hpp:77] Creating layer cifar
I0501 06:01:29.984941 31258 db_lmdb.cpp:35] Opened lmdb examples/cifar10/cifar10_test_lmdb
I0501 06:01:29.984953 31258 net.cpp:86] Creating Layer cifar
I0501 06:01:29.984958 31258 net.cpp:382] cifar -> data
I0501 06:01:29.984966 31258 net.cpp:382] cifar -> label
I0501 06:01:29.984972 31258 data_transformer.cpp:25] Loading mean file from: examples/cifar10/mean.binaryproto
I0501 06:01:29.985126 31258 data_layer.cpp:45] output data size: 1000,3,32,32
I0501 06:01:30.006212 31258 net.cpp:124] Setting up cifar
I0501 06:01:30.006253 31258 net.cpp:131] Top shape: 1000 3 32 32 (3072000)
I0501 06:01:30.006258 31258 net.cpp:131] Top shape: 1000 (1000)
I0501 06:01:30.006261 31258 net.cpp:139] Memory required for data: 12292000
I0501 06:01:30.006266 31258 layer_factory.hpp:77] Creating layer label_cifar_1_split
I0501 06:01:30.006278 31258 net.cpp:86] Creating Layer label_cifar_1_split
I0501 06:01:30.006283 31258 net.cpp:408] label_cifar_1_split <- label
I0501 06:01:30.006288 31258 net.cpp:382] label_cifar_1_split -> label_cifar_1_split_0
I0501 06:01:30.006295 31258 net.cpp:382] label_cifar_1_split -> label_cifar_1_split_1
I0501 06:01:30.006412 31258 net.cpp:124] Setting up label_cifar_1_split
I0501 06:01:30.006418 31258 net.cpp:131] Top shape: 1000 (1000)
I0501 06:01:30.006422 31258 net.cpp:131] Top shape: 1000 (1000)
I0501 06:01:30.006424 31258 net.cpp:139] Memory required for data: 12300000
I0501 06:01:30.006428 31258 layer_factory.hpp:77] Creating layer conv0
I0501 06:01:30.006439 31258 net.cpp:86] Creating Layer conv0
I0501 06:01:30.006443 31258 net.cpp:408] conv0 <- data
I0501 06:01:30.006449 31258 net.cpp:382] conv0 -> conv0
I0501 06:01:30.008149 31258 net.cpp:124] Setting up conv0
I0501 06:01:30.008177 31258 net.cpp:131] Top shape: 1000 8 32 32 (8192000)
I0501 06:01:30.008182 31258 net.cpp:139] Memory required for data: 45068000
I0501 06:01:30.008191 31258 layer_factory.hpp:77] Creating layer Sigmoid0
I0501 06:01:30.008198 31258 net.cpp:86] Creating Layer Sigmoid0
I0501 06:01:30.008201 31258 net.cpp:408] Sigmoid0 <- conv0
I0501 06:01:30.008206 31258 net.cpp:382] Sigmoid0 -> Sigmoid0
I0501 06:01:30.008409 31258 net.cpp:124] Setting up Sigmoid0
I0501 06:01:30.008419 31258 net.cpp:131] Top shape: 1000 8 32 32 (8192000)
I0501 06:01:30.008421 31258 net.cpp:139] Memory required for data: 77836000
I0501 06:01:30.008424 31258 layer_factory.hpp:77] Creating layer pool0
I0501 06:01:30.008433 31258 net.cpp:86] Creating Layer pool0
I0501 06:01:30.008436 31258 net.cpp:408] pool0 <- Sigmoid0
I0501 06:01:30.008440 31258 net.cpp:382] pool0 -> pool0
I0501 06:01:30.008605 31258 net.cpp:124] Setting up pool0
I0501 06:01:30.008617 31258 net.cpp:131] Top shape: 1000 8 16 16 (2048000)
I0501 06:01:30.008620 31258 net.cpp:139] Memory required for data: 86028000
I0501 06:01:30.008623 31258 layer_factory.hpp:77] Creating layer ip1
I0501 06:01:30.008630 31258 net.cpp:86] Creating Layer ip1
I0501 06:01:30.008633 31258 net.cpp:408] ip1 <- pool0
I0501 06:01:30.008640 31258 net.cpp:382] ip1 -> ip1
I0501 06:01:30.012910 31258 net.cpp:124] Setting up ip1
I0501 06:01:30.012920 31258 net.cpp:131] Top shape: 1000 80 (80000)
I0501 06:01:30.012938 31258 net.cpp:139] Memory required for data: 86348000
I0501 06:01:30.012960 31258 layer_factory.hpp:77] Creating layer relu1
I0501 06:01:30.012966 31258 net.cpp:86] Creating Layer relu1
I0501 06:01:30.012969 31258 net.cpp:408] relu1 <- ip1
I0501 06:01:30.012975 31258 net.cpp:369] relu1 -> ip1 (in-place)
I0501 06:01:30.013178 31258 net.cpp:124] Setting up relu1
I0501 06:01:30.013187 31258 net.cpp:131] Top shape: 1000 80 (80000)
I0501 06:01:30.013190 31258 net.cpp:139] Memory required for data: 86668000
I0501 06:01:30.013193 31258 layer_factory.hpp:77] Creating layer ip2
I0501 06:01:30.013200 31258 net.cpp:86] Creating Layer ip2
I0501 06:01:30.013203 31258 net.cpp:408] ip2 <- ip1
I0501 06:01:30.013207 31258 net.cpp:382] ip2 -> ip2
I0501 06:01:30.013687 31258 net.cpp:124] Setting up ip2
I0501 06:01:30.013694 31258 net.cpp:131] Top shape: 1000 160 (160000)
I0501 06:01:30.013711 31258 net.cpp:139] Memory required for data: 87308000
I0501 06:01:30.013718 31258 layer_factory.hpp:77] Creating layer relu2
I0501 06:01:30.013738 31258 net.cpp:86] Creating Layer relu2
I0501 06:01:30.013741 31258 net.cpp:408] relu2 <- ip2
I0501 06:01:30.013746 31258 net.cpp:369] relu2 -> ip2 (in-place)
I0501 06:01:30.014508 31258 net.cpp:124] Setting up relu2
I0501 06:01:30.014519 31258 net.cpp:131] Top shape: 1000 160 (160000)
I0501 06:01:30.014539 31258 net.cpp:139] Memory required for data: 87948000
I0501 06:01:30.014541 31258 layer_factory.hpp:77] Creating layer ip3
I0501 06:01:30.014549 31258 net.cpp:86] Creating Layer ip3
I0501 06:01:30.014554 31258 net.cpp:408] ip3 <- ip2
I0501 06:01:30.014560 31258 net.cpp:382] ip3 -> ip3
I0501 06:01:30.014868 31258 net.cpp:124] Setting up ip3
I0501 06:01:30.014875 31258 net.cpp:131] Top shape: 1000 40 (40000)
I0501 06:01:30.014878 31258 net.cpp:139] Memory required for data: 88108000
I0501 06:01:30.014884 31258 layer_factory.hpp:77] Creating layer relu3
I0501 06:01:30.014889 31258 net.cpp:86] Creating Layer relu3
I0501 06:01:30.014892 31258 net.cpp:408] relu3 <- ip3
I0501 06:01:30.014897 31258 net.cpp:369] relu3 -> ip3 (in-place)
I0501 06:01:30.015048 31258 net.cpp:124] Setting up relu3
I0501 06:01:30.015056 31258 net.cpp:131] Top shape: 1000 40 (40000)
I0501 06:01:30.015060 31258 net.cpp:139] Memory required for data: 88268000
I0501 06:01:30.015064 31258 layer_factory.hpp:77] Creating layer ip4
I0501 06:01:30.015069 31258 net.cpp:86] Creating Layer ip4
I0501 06:01:30.015072 31258 net.cpp:408] ip4 <- ip3
I0501 06:01:30.015077 31258 net.cpp:382] ip4 -> ip4
I0501 06:01:30.015187 31258 net.cpp:124] Setting up ip4
I0501 06:01:30.015194 31258 net.cpp:131] Top shape: 1000 10 (10000)
I0501 06:01:30.015197 31258 net.cpp:139] Memory required for data: 88308000
I0501 06:01:30.015204 31258 layer_factory.hpp:77] Creating layer ip4_ip4_0_split
I0501 06:01:30.015210 31258 net.cpp:86] Creating Layer ip4_ip4_0_split
I0501 06:01:30.015221 31258 net.cpp:408] ip4_ip4_0_split <- ip4
I0501 06:01:30.015225 31258 net.cpp:382] ip4_ip4_0_split -> ip4_ip4_0_split_0
I0501 06:01:30.015230 31258 net.cpp:382] ip4_ip4_0_split -> ip4_ip4_0_split_1
I0501 06:01:30.015262 31258 net.cpp:124] Setting up ip4_ip4_0_split
I0501 06:01:30.015269 31258 net.cpp:131] Top shape: 1000 10 (10000)
I0501 06:01:30.015272 31258 net.cpp:131] Top shape: 1000 10 (10000)
I0501 06:01:30.015275 31258 net.cpp:139] Memory required for data: 88388000
I0501 06:01:30.015277 31258 layer_factory.hpp:77] Creating layer accuracy
I0501 06:01:30.015283 31258 net.cpp:86] Creating Layer accuracy
I0501 06:01:30.015286 31258 net.cpp:408] accuracy <- ip4_ip4_0_split_0
I0501 06:01:30.015290 31258 net.cpp:408] accuracy <- label_cifar_1_split_0
I0501 06:01:30.015295 31258 net.cpp:382] accuracy -> accuracy
…
