…
I0430 21:25:35.978992 30800 net.cpp:296] The NetState phase (0) differed from the phase (1) specified by a rule in layer cifar
I0430 21:25:35.979009 30800 net.cpp:296] The NetState phase (0) differed from the phase (1) specified by a rule in layer accuracy
I0430 21:25:35.979100 30800 net.cpp:53] Initializing net from parameters: 
name: "CIFAR"
state {
  phase: TRAIN
  level: 0
  stage: ""
}
layer {
  name: "cifar"
  type: "Data"
  top: "data"
  top: "label"
  include {
    phase: TRAIN
  }
  transform_param {
    mean_file: "examples/cifar10/mean.binaryproto"
  }
  data_param {
    source: "examples/cifar10/cifar10_train_lmdb"
    batch_size: 111
    backend: LMDB
  }
}
layer {
  name: "conv0"
  type: "Convolution"
  bottom: "data"
  top: "conv0"
  param {
    lr_mult: 1
  }
  param {
    lr_mult: 2
  }
  convolution_param {
    num_output: 8
    pad: 2
    kernel_size: 3
    stride: 1
    weight_filler {
      type: "gaussian"
      std: 0.01
    }
    bias_filler {
      type: "constant"
    }
  }
}
layer {
  name: "Sigmoid0"
  type: "Sigmoid"
  bottom: "conv0"
  top: "Sigmoid0"
}
layer {
  name: "pool0"
  type: "Pooling"
  bottom: "Sigmoid0"
  top: "pool0"
  pooling_param {
    pool: AVE
    kernel_size: 3
    stride: 2
  }
}
layer {
  name: "ip1"
  type: "InnerProduct"
  bottom: "pool0"
  top: "ip1"
  param {
    lr_mult: 1
  }
  param {
    lr_mult: 2
  }
  inner_product_param {
    num_output: 10
    weight_filler {
      type: "gaussian"
      std: 0.01
    }
    bias_filler {
      type: "constant"
    }
  }
}
layer {
  name: "relu1"
  type: "ReLU"
  bottom: "ip1"
  top: "ip1"
}
layer {
  name: "ip2"
  type: "InnerProduct"
  bottom: "ip1"
  top: "ip2"
  param {
    lr_mult: 1
  }
  param {
    lr_mult: 2
  }
  inner_product_param {
    num_output: 20
    weight_filler {
      type: "gaussian"
      std: 0.01
    }
    bias_filler {
      type: "constant"
    }
  }
}
layer {
  name: "relu2"
  type: "ReLU"
  bottom: "ip2"
  top: "ip2"
}
layer {
  name: "ip3"
  type: "InnerProduct"
  bottom: "ip2"
  top: "ip3"
  param {
    lr_mult: 1
  }
  param {
    lr_mult: 2
  }
  inner_product_param {
    num_output: 10
    weight_filler {
      type: "gaussian"
      std: 0.01
    }
    bias_filler {
      type: "constant"
    }
  }
}
layer {
  name: "loss"
  type: "SoftmaxWithLoss"
  bottom: "ip3"
  bottom: "label"
  top: "loss"
}
I0430 21:25:35.979176 30800 layer_factory.hpp:77] Creating layer cifar
I0430 21:25:35.979276 30800 db_lmdb.cpp:35] Opened lmdb examples/cifar10/cifar10_train_lmdb
I0430 21:25:35.979302 30800 net.cpp:86] Creating Layer cifar
I0430 21:25:35.979310 30800 net.cpp:382] cifar -> data
I0430 21:25:35.979334 30800 net.cpp:382] cifar -> label
I0430 21:25:35.979347 30800 data_transformer.cpp:25] Loading mean file from: examples/cifar10/mean.binaryproto
I0430 21:25:35.981462 30800 data_layer.cpp:45] output data size: 111,3,32,32
I0430 21:25:35.989336 30800 net.cpp:124] Setting up cifar
I0430 21:25:35.989356 30800 net.cpp:131] Top shape: 111 3 32 32 (340992)
I0430 21:25:35.989362 30800 net.cpp:131] Top shape: 111 (111)
I0430 21:25:35.989365 30800 net.cpp:139] Memory required for data: 1364412
I0430 21:25:35.989373 30800 layer_factory.hpp:77] Creating layer conv0
I0430 21:25:35.989394 30800 net.cpp:86] Creating Layer conv0
I0430 21:25:35.989400 30800 net.cpp:408] conv0 <- data
I0430 21:25:35.989413 30800 net.cpp:382] conv0 -> conv0
I0430 21:25:36.279201 30800 net.cpp:124] Setting up conv0
I0430 21:25:36.279255 30800 net.cpp:131] Top shape: 111 8 34 34 (1026528)
I0430 21:25:36.279261 30800 net.cpp:139] Memory required for data: 5470524
I0430 21:25:36.279278 30800 layer_factory.hpp:77] Creating layer Sigmoid0
I0430 21:25:36.279294 30800 net.cpp:86] Creating Layer Sigmoid0
I0430 21:25:36.279299 30800 net.cpp:408] Sigmoid0 <- conv0
I0430 21:25:36.279305 30800 net.cpp:382] Sigmoid0 -> Sigmoid0
I0430 21:25:36.279523 30800 net.cpp:124] Setting up Sigmoid0
I0430 21:25:36.279536 30800 net.cpp:131] Top shape: 111 8 34 34 (1026528)
I0430 21:25:36.279539 30800 net.cpp:139] Memory required for data: 9576636
I0430 21:25:36.279543 30800 layer_factory.hpp:77] Creating layer pool0
I0430 21:25:36.279551 30800 net.cpp:86] Creating Layer pool0
I0430 21:25:36.279556 30800 net.cpp:408] pool0 <- Sigmoid0
I0430 21:25:36.279561 30800 net.cpp:382] pool0 -> pool0
I0430 21:25:36.280443 30800 net.cpp:124] Setting up pool0
I0430 21:25:36.280458 30800 net.cpp:131] Top shape: 111 8 17 17 (256632)
I0430 21:25:36.280463 30800 net.cpp:139] Memory required for data: 10603164
I0430 21:25:36.280467 30800 layer_factory.hpp:77] Creating layer ip1
I0430 21:25:36.280478 30800 net.cpp:86] Creating Layer ip1
I0430 21:25:36.280483 30800 net.cpp:408] ip1 <- pool0
I0430 21:25:36.280489 30800 net.cpp:382] ip1 -> ip1
I0430 21:25:36.282351 30800 net.cpp:124] Setting up ip1
I0430 21:25:36.282366 30800 net.cpp:131] Top shape: 111 10 (1110)
I0430 21:25:36.282371 30800 net.cpp:139] Memory required for data: 10607604
I0430 21:25:36.282380 30800 layer_factory.hpp:77] Creating layer relu1
I0430 21:25:36.282387 30800 net.cpp:86] Creating Layer relu1
I0430 21:25:36.282392 30800 net.cpp:408] relu1 <- ip1
I0430 21:25:36.282398 30800 net.cpp:369] relu1 -> ip1 (in-place)
I0430 21:25:36.282585 30800 net.cpp:124] Setting up relu1
I0430 21:25:36.282596 30800 net.cpp:131] Top shape: 111 10 (1110)
I0430 21:25:36.282600 30800 net.cpp:139] Memory required for data: 10612044
I0430 21:25:36.282604 30800 layer_factory.hpp:77] Creating layer ip2
I0430 21:25:36.282613 30800 net.cpp:86] Creating Layer ip2
I0430 21:25:36.282616 30800 net.cpp:408] ip2 <- ip1
I0430 21:25:36.282621 30800 net.cpp:382] ip2 -> ip2
I0430 21:25:36.282747 30800 net.cpp:124] Setting up ip2
I0430 21:25:36.282755 30800 net.cpp:131] Top shape: 111 20 (2220)
I0430 21:25:36.282759 30800 net.cpp:139] Memory required for data: 10620924
I0430 21:25:36.282768 30800 layer_factory.hpp:77] Creating layer relu2
I0430 21:25:36.282774 30800 net.cpp:86] Creating Layer relu2
I0430 21:25:36.282778 30800 net.cpp:408] relu2 <- ip2
I0430 21:25:36.282783 30800 net.cpp:369] relu2 -> ip2 (in-place)
I0430 21:25:36.282977 30800 net.cpp:124] Setting up relu2
I0430 21:25:36.282987 30800 net.cpp:131] Top shape: 111 20 (2220)
I0430 21:25:36.282991 30800 net.cpp:139] Memory required for data: 10629804
I0430 21:25:36.282995 30800 layer_factory.hpp:77] Creating layer ip3
I0430 21:25:36.283004 30800 net.cpp:86] Creating Layer ip3
I0430 21:25:36.283008 30800 net.cpp:408] ip3 <- ip2
I0430 21:25:36.283015 30800 net.cpp:382] ip3 -> ip3
I0430 21:25:36.283138 30800 net.cpp:124] Setting up ip3
I0430 21:25:36.283146 30800 net.cpp:131] Top shape: 111 10 (1110)
I0430 21:25:36.283149 30800 net.cpp:139] Memory required for data: 10634244
I0430 21:25:36.283156 30800 layer_factory.hpp:77] Creating layer loss
I0430 21:25:36.283162 30800 net.cpp:86] Creating Layer loss
I0430 21:25:36.283166 30800 net.cpp:408] loss <- ip3
I0430 21:25:36.283170 30800 net.cpp:408] loss <- label
I0430 21:25:36.283179 30800 net.cpp:382] loss -> loss
I0430 21:25:36.283197 30800 layer_factory.hpp:77] Creating layer loss
…
I0430 21:25:36.283926 30800 solver.cpp:173] Creating test net (#0) specified by net file: ECE595/cifar/train_test/var_everything/cifar_train_test_161.prototxt
I0430 21:25:36.283957 30800 net.cpp:296] The NetState phase (1) differed from the phase (0) specified by a rule in layer cifar
I0430 21:25:36.284062 30800 net.cpp:53] Initializing net from parameters: 
name: "CIFAR"
state {
  phase: TEST
}
layer {
  name: "cifar"
  type: "Data"
  top: "data"
  top: "label"
  include {
    phase: TEST
  }
  transform_param {
    mean_file: "examples/cifar10/mean.binaryproto"
  }
  data_param {
    source: "examples/cifar10/cifar10_test_lmdb"
    batch_size: 1000
    backend: LMDB
  }
}
layer {
  name: "conv0"
  type: "Convolution"
  bottom: "data"
  top: "conv0"
  param {
    lr_mult: 1
  }
  param {
    lr_mult: 2
  }
  convolution_param {
    num_output: 8
    pad: 2
    kernel_size: 3
    stride: 1
    weight_filler {
      type: "gaussian"
      std: 0.01
    }
    bias_filler {
      type: "constant"
    }
  }
}
layer {
  name: "Sigmoid0"
  type: "Sigmoid"
  bottom: "conv0"
  top: "Sigmoid0"
}
layer {
  name: "pool0"
  type: "Pooling"
  bottom: "Sigmoid0"
  top: "pool0"
  pooling_param {
    pool: AVE
    kernel_size: 3
    stride: 2
  }
}
layer {
  name: "ip1"
  type: "InnerProduct"
  bottom: "pool0"
  top: "ip1"
  param {
    lr_mult: 1
  }
  param {
    lr_mult: 2
  }
  inner_product_param {
    num_output: 10
    weight_filler {
      type: "gaussian"
      std: 0.01
    }
    bias_filler {
      type: "constant"
    }
  }
}
layer {
  name: "relu1"
  type: "ReLU"
  bottom: "ip1"
  top: "ip1"
}
layer {
  name: "ip2"
  type: "InnerProduct"
  bottom: "ip1"
  top: "ip2"
  param {
    lr_mult: 1
  }
  param {
    lr_mult: 2
  }
  inner_product_param {
    num_output: 20
    weight_filler {
      type: "gaussian"
      std: 0.01
    }
    bias_filler {
      type: "constant"
    }
  }
}
layer {
  name: "relu2"
  type: "ReLU"
  bottom: "ip2"
  top: "ip2"
}
layer {
  name: "ip3"
  type: "InnerProduct"
  bottom: "ip2"
  top: "ip3"
  param {
    lr_mult: 1
  }
  param {
    lr_mult: 2
  }
  inner_product_param {
    num_output: 10
    weight_filler {
      type: "gaussian"
      std: 0.01
    }
    bias_filler {
      type: "constant"
    }
  }
}
layer {
  name: "accuracy"
  type: "Accuracy"
  bottom: "ip3"
  bottom: "label"
  top: "accuracy"
  include {
    phase: TEST
  }
}
layer {
  name: "loss"
  type: "SoftmaxWithLoss"
  bottom: "ip3"
  bottom: "label"
  top: "loss"
}
I0430 21:25:36.284142 30800 layer_factory.hpp:77] Creating layer cifar
I0430 21:25:36.284196 30800 db_lmdb.cpp:35] Opened lmdb examples/cifar10/cifar10_test_lmdb
I0430 21:25:36.284210 30800 net.cpp:86] Creating Layer cifar
I0430 21:25:36.284216 30800 net.cpp:382] cifar -> data
I0430 21:25:36.284226 30800 net.cpp:382] cifar -> label
I0430 21:25:36.284235 30800 data_transformer.cpp:25] Loading mean file from: examples/cifar10/mean.binaryproto
I0430 21:25:36.284418 30800 data_layer.cpp:45] output data size: 1000,3,32,32
I0430 21:25:36.310962 30800 net.cpp:124] Setting up cifar
I0430 21:25:36.310992 30800 net.cpp:131] Top shape: 1000 3 32 32 (3072000)
I0430 21:25:36.311012 30800 net.cpp:131] Top shape: 1000 (1000)
I0430 21:25:36.311015 30800 net.cpp:139] Memory required for data: 12292000
I0430 21:25:36.311022 30800 layer_factory.hpp:77] Creating layer label_cifar_1_split
I0430 21:25:36.311040 30800 net.cpp:86] Creating Layer label_cifar_1_split
I0430 21:25:36.311064 30800 net.cpp:408] label_cifar_1_split <- label
I0430 21:25:36.311071 30800 net.cpp:382] label_cifar_1_split -> label_cifar_1_split_0
I0430 21:25:36.311081 30800 net.cpp:382] label_cifar_1_split -> label_cifar_1_split_1
I0430 21:25:36.311146 30800 net.cpp:124] Setting up label_cifar_1_split
I0430 21:25:36.311153 30800 net.cpp:131] Top shape: 1000 (1000)
I0430 21:25:36.311158 30800 net.cpp:131] Top shape: 1000 (1000)
I0430 21:25:36.311161 30800 net.cpp:139] Memory required for data: 12300000
I0430 21:25:36.311164 30800 layer_factory.hpp:77] Creating layer conv0
I0430 21:25:36.311180 30800 net.cpp:86] Creating Layer conv0
I0430 21:25:36.311183 30800 net.cpp:408] conv0 <- data
I0430 21:25:36.311190 30800 net.cpp:382] conv0 -> conv0
I0430 21:25:36.313029 30800 net.cpp:124] Setting up conv0
I0430 21:25:36.313045 30800 net.cpp:131] Top shape: 1000 8 34 34 (9248000)
I0430 21:25:36.313050 30800 net.cpp:139] Memory required for data: 49292000
I0430 21:25:36.313060 30800 layer_factory.hpp:77] Creating layer Sigmoid0
I0430 21:25:36.313069 30800 net.cpp:86] Creating Layer Sigmoid0
I0430 21:25:36.313072 30800 net.cpp:408] Sigmoid0 <- conv0
I0430 21:25:36.313078 30800 net.cpp:382] Sigmoid0 -> Sigmoid0
I0430 21:25:36.314067 30800 net.cpp:124] Setting up Sigmoid0
I0430 21:25:36.314081 30800 net.cpp:131] Top shape: 1000 8 34 34 (9248000)
I0430 21:25:36.314085 30800 net.cpp:139] Memory required for data: 86284000
I0430 21:25:36.314090 30800 layer_factory.hpp:77] Creating layer pool0
I0430 21:25:36.314100 30800 net.cpp:86] Creating Layer pool0
I0430 21:25:36.314105 30800 net.cpp:408] pool0 <- Sigmoid0
I0430 21:25:36.314111 30800 net.cpp:382] pool0 -> pool0
I0430 21:25:36.315276 30800 net.cpp:124] Setting up pool0
I0430 21:25:36.315289 30800 net.cpp:131] Top shape: 1000 8 17 17 (2312000)
I0430 21:25:36.315291 30800 net.cpp:139] Memory required for data: 95532000
I0430 21:25:36.315296 30800 layer_factory.hpp:77] Creating layer ip1
I0430 21:25:36.315304 30800 net.cpp:86] Creating Layer ip1
I0430 21:25:36.315309 30800 net.cpp:408] ip1 <- pool0
I0430 21:25:36.315315 30800 net.cpp:382] ip1 -> ip1
I0430 21:25:36.316181 30800 net.cpp:124] Setting up ip1
I0430 21:25:36.316190 30800 net.cpp:131] Top shape: 1000 10 (10000)
I0430 21:25:36.316193 30800 net.cpp:139] Memory required for data: 95572000
I0430 21:25:36.316203 30800 layer_factory.hpp:77] Creating layer relu1
I0430 21:25:36.316210 30800 net.cpp:86] Creating Layer relu1
I0430 21:25:36.316213 30800 net.cpp:408] relu1 <- ip1
I0430 21:25:36.316220 30800 net.cpp:369] relu1 -> ip1 (in-place)
I0430 21:25:36.316406 30800 net.cpp:124] Setting up relu1
I0430 21:25:36.316416 30800 net.cpp:131] Top shape: 1000 10 (10000)
I0430 21:25:36.316419 30800 net.cpp:139] Memory required for data: 95612000
I0430 21:25:36.316423 30800 layer_factory.hpp:77] Creating layer ip2
I0430 21:25:36.316431 30800 net.cpp:86] Creating Layer ip2
I0430 21:25:36.316435 30800 net.cpp:408] ip2 <- ip1
I0430 21:25:36.316440 30800 net.cpp:382] ip2 -> ip2
I0430 21:25:36.316573 30800 net.cpp:124] Setting up ip2
I0430 21:25:36.316582 30800 net.cpp:131] Top shape: 1000 20 (20000)
I0430 21:25:36.316586 30800 net.cpp:139] Memory required for data: 95692000
I0430 21:25:36.316594 30800 layer_factory.hpp:77] Creating layer relu2
I0430 21:25:36.316602 30800 net.cpp:86] Creating Layer relu2
I0430 21:25:36.316606 30800 net.cpp:408] relu2 <- ip2
I0430 21:25:36.316612 30800 net.cpp:369] relu2 -> ip2 (in-place)
I0430 21:25:36.316795 30800 net.cpp:124] Setting up relu2
I0430 21:25:36.316805 30800 net.cpp:131] Top shape: 1000 20 (20000)
I0430 21:25:36.316815 30800 net.cpp:139] Memory required for data: 95772000
I0430 21:25:36.316819 30800 layer_factory.hpp:77] Creating layer ip3
I0430 21:25:36.316828 30800 net.cpp:86] Creating Layer ip3
I0430 21:25:36.316831 30800 net.cpp:408] ip3 <- ip2
I0430 21:25:36.316839 30800 net.cpp:382] ip3 -> ip3
I0430 21:25:36.316967 30800 net.cpp:124] Setting up ip3
I0430 21:25:36.316977 30800 net.cpp:131] Top shape: 1000 10 (10000)
I0430 21:25:36.316979 30800 net.cpp:139] Memory required for data: 95812000
I0430 21:25:36.316998 30800 layer_factory.hpp:77] Creating layer ip3_ip3_0_split
I0430 21:25:36.317004 30800 net.cpp:86] Creating Layer ip3_ip3_0_split
I0430 21:25:36.317008 30800 net.cpp:408] ip3_ip3_0_split <- ip3
I0430 21:25:36.317013 30800 net.cpp:382] ip3_ip3_0_split -> ip3_ip3_0_split_0
I0430 21:25:36.317019 30800 net.cpp:382] ip3_ip3_0_split -> ip3_ip3_0_split_1
I0430 21:25:36.317059 30800 net.cpp:124] Setting up ip3_ip3_0_split
I0430 21:25:36.317066 30800 net.cpp:131] Top shape: 1000 10 (10000)
I0430 21:25:36.317071 30800 net.cpp:131] Top shape: 1000 10 (10000)
I0430 21:25:36.317075 30800 net.cpp:139] Memory required for data: 95892000
I0430 21:25:36.317077 30800 layer_factory.hpp:77] Creating layer accuracy
I0430 21:25:36.317085 30800 net.cpp:86] Creating Layer accuracy
I0430 21:25:36.317088 30800 net.cpp:408] accuracy <- ip3_ip3_0_split_0
I0430 21:25:36.317093 30800 net.cpp:408] accuracy <- label_cifar_1_split_0
I0430 21:25:36.317098 30800 net.cpp:382] accuracy -> accuracy
…
