…
I0501 03:45:48.103742 22499 net.cpp:296] The NetState phase (0) differed from the phase (1) specified by a rule in layer cifar
I0501 03:45:48.103766 22499 net.cpp:296] The NetState phase (0) differed from the phase (1) specified by a rule in layer accuracy
I0501 03:45:48.103875 22499 net.cpp:53] Initializing net from parameters: 
name: "CIFAR"
state {
  phase: TRAIN
  level: 0
  stage: ""
}
layer {
  name: "cifar"
  type: "Data"
  top: "data"
  top: "label"
  include {
    phase: TRAIN
  }
  transform_param {
    mean_file: "examples/cifar10/mean.binaryproto"
  }
  data_param {
    source: "examples/cifar10/cifar10_train_lmdb"
    batch_size: 111
    backend: LMDB
  }
}
layer {
  name: "conv0"
  type: "Convolution"
  bottom: "data"
  top: "conv0"
  param {
    lr_mult: 1
  }
  param {
    lr_mult: 2
  }
  convolution_param {
    num_output: 8
    pad: 2
    kernel_size: 5
    stride: 1
    weight_filler {
      type: "gaussian"
      std: 0.01
    }
    bias_filler {
      type: "constant"
    }
  }
}
layer {
  name: "Sigmoid0"
  type: "Sigmoid"
  bottom: "conv0"
  top: "Sigmoid0"
}
layer {
  name: "pool0"
  type: "Pooling"
  bottom: "Sigmoid0"
  top: "pool0"
  pooling_param {
    pool: AVE
    kernel_size: 3
    stride: 2
  }
}
layer {
  name: "ip1"
  type: "InnerProduct"
  bottom: "pool0"
  top: "ip1"
  param {
    lr_mult: 1
  }
  param {
    lr_mult: 2
  }
  inner_product_param {
    num_output: 10
    weight_filler {
      type: "gaussian"
      std: 0.01
    }
    bias_filler {
      type: "constant"
    }
  }
}
layer {
  name: "relu1"
  type: "ReLU"
  bottom: "ip1"
  top: "ip1"
}
layer {
  name: "ip2"
  type: "InnerProduct"
  bottom: "ip1"
  top: "ip2"
  param {
    lr_mult: 1
  }
  param {
    lr_mult: 2
  }
  inner_product_param {
    num_output: 160
    weight_filler {
      type: "gaussian"
      std: 0.01
    }
    bias_filler {
      type: "constant"
    }
  }
}
layer {
  name: "relu2"
  type: "ReLU"
  bottom: "ip2"
  top: "ip2"
}
layer {
  name: "ip3"
  type: "InnerProduct"
  bottom: "ip2"
  top: "ip3"
  param {
    lr_mult: 1
  }
  param {
    lr_mult: 2
  }
  inner_product_param {
    num_output: 160
    weight_filler {
      type: "gaussian"
      std: 0.01
    }
    bias_filler {
      type: "constant"
    }
  }
}
layer {
  name: "relu3"
  type: "ReLU"
  bottom: "ip3"
  top: "ip3"
}
layer {
  name: "ip4"
  type: "InnerProduct"
  bottom: "ip3"
  top: "ip4"
  param {
    lr_mult: 1
  }
  param {
    lr_mult: 2
  }
  inner_product_param {
    num_output: 10
    weight_filler {
      type: "gaussian"
      std: 0.01
    }
    bias_filler {
      type: "constant"
    }
  }
}
layer {
  name: "loss"
  type: "SoftmaxWithLoss"
  bottom: "ip4"
  bottom: "label"
  top: "loss"
}
I0501 03:45:48.103981 22499 layer_factory.hpp:77] Creating layer cifar
I0501 03:45:48.104109 22499 db_lmdb.cpp:35] Opened lmdb examples/cifar10/cifar10_train_lmdb
I0501 03:45:48.104145 22499 net.cpp:86] Creating Layer cifar
I0501 03:45:48.104156 22499 net.cpp:382] cifar -> data
I0501 03:45:48.104188 22499 net.cpp:382] cifar -> label
I0501 03:45:48.104205 22499 data_transformer.cpp:25] Loading mean file from: examples/cifar10/mean.binaryproto
I0501 03:45:48.106537 22499 data_layer.cpp:45] output data size: 111,3,32,32
I0501 03:45:48.114375 22499 net.cpp:124] Setting up cifar
I0501 03:45:48.114398 22499 net.cpp:131] Top shape: 111 3 32 32 (340992)
I0501 03:45:48.114408 22499 net.cpp:131] Top shape: 111 (111)
I0501 03:45:48.114415 22499 net.cpp:139] Memory required for data: 1364412
I0501 03:45:48.114454 22499 layer_factory.hpp:77] Creating layer conv0
I0501 03:45:48.114485 22499 net.cpp:86] Creating Layer conv0
I0501 03:45:48.114495 22499 net.cpp:408] conv0 <- data
I0501 03:45:48.114512 22499 net.cpp:382] conv0 -> conv0
I0501 03:45:48.404459 22499 net.cpp:124] Setting up conv0
I0501 03:45:48.404491 22499 net.cpp:131] Top shape: 111 8 32 32 (909312)
I0501 03:45:48.404498 22499 net.cpp:139] Memory required for data: 5001660
I0501 03:45:48.404520 22499 layer_factory.hpp:77] Creating layer Sigmoid0
I0501 03:45:48.404538 22499 net.cpp:86] Creating Layer Sigmoid0
I0501 03:45:48.404546 22499 net.cpp:408] Sigmoid0 <- conv0
I0501 03:45:48.404556 22499 net.cpp:382] Sigmoid0 -> Sigmoid0
I0501 03:45:48.404757 22499 net.cpp:124] Setting up Sigmoid0
I0501 03:45:48.404767 22499 net.cpp:131] Top shape: 111 8 32 32 (909312)
I0501 03:45:48.404770 22499 net.cpp:139] Memory required for data: 8638908
I0501 03:45:48.404774 22499 layer_factory.hpp:77] Creating layer pool0
I0501 03:45:48.404783 22499 net.cpp:86] Creating Layer pool0
I0501 03:45:48.404786 22499 net.cpp:408] pool0 <- Sigmoid0
I0501 03:45:48.404791 22499 net.cpp:382] pool0 -> pool0
I0501 03:45:48.405624 22499 net.cpp:124] Setting up pool0
I0501 03:45:48.405640 22499 net.cpp:131] Top shape: 111 8 16 16 (227328)
I0501 03:45:48.405644 22499 net.cpp:139] Memory required for data: 9548220
I0501 03:45:48.405648 22499 layer_factory.hpp:77] Creating layer ip1
I0501 03:45:48.405659 22499 net.cpp:86] Creating Layer ip1
I0501 03:45:48.405663 22499 net.cpp:408] ip1 <- pool0
I0501 03:45:48.405669 22499 net.cpp:382] ip1 -> ip1
I0501 03:45:48.407332 22499 net.cpp:124] Setting up ip1
I0501 03:45:48.407346 22499 net.cpp:131] Top shape: 111 10 (1110)
I0501 03:45:48.407351 22499 net.cpp:139] Memory required for data: 9552660
I0501 03:45:48.407359 22499 layer_factory.hpp:77] Creating layer relu1
I0501 03:45:48.407366 22499 net.cpp:86] Creating Layer relu1
I0501 03:45:48.407371 22499 net.cpp:408] relu1 <- ip1
I0501 03:45:48.407376 22499 net.cpp:369] relu1 -> ip1 (in-place)
I0501 03:45:48.407547 22499 net.cpp:124] Setting up relu1
I0501 03:45:48.407557 22499 net.cpp:131] Top shape: 111 10 (1110)
I0501 03:45:48.407560 22499 net.cpp:139] Memory required for data: 9557100
I0501 03:45:48.407563 22499 layer_factory.hpp:77] Creating layer ip2
I0501 03:45:48.407572 22499 net.cpp:86] Creating Layer ip2
I0501 03:45:48.407574 22499 net.cpp:408] ip2 <- ip1
I0501 03:45:48.407580 22499 net.cpp:382] ip2 -> ip2
I0501 03:45:48.407727 22499 net.cpp:124] Setting up ip2
I0501 03:45:48.407734 22499 net.cpp:131] Top shape: 111 160 (17760)
I0501 03:45:48.407737 22499 net.cpp:139] Memory required for data: 9628140
I0501 03:45:48.407747 22499 layer_factory.hpp:77] Creating layer relu2
I0501 03:45:48.407752 22499 net.cpp:86] Creating Layer relu2
I0501 03:45:48.407755 22499 net.cpp:408] relu2 <- ip2
I0501 03:45:48.407759 22499 net.cpp:369] relu2 -> ip2 (in-place)
I0501 03:45:48.407924 22499 net.cpp:124] Setting up relu2
I0501 03:45:48.407933 22499 net.cpp:131] Top shape: 111 160 (17760)
I0501 03:45:48.407938 22499 net.cpp:139] Memory required for data: 9699180
I0501 03:45:48.407940 22499 layer_factory.hpp:77] Creating layer ip3
I0501 03:45:48.407948 22499 net.cpp:86] Creating Layer ip3
I0501 03:45:48.407953 22499 net.cpp:408] ip3 <- ip2
I0501 03:45:48.407958 22499 net.cpp:382] ip3 -> ip3
I0501 03:45:48.408828 22499 net.cpp:124] Setting up ip3
I0501 03:45:48.408836 22499 net.cpp:131] Top shape: 111 160 (17760)
I0501 03:45:48.408839 22499 net.cpp:139] Memory required for data: 9770220
I0501 03:45:48.408846 22499 layer_factory.hpp:77] Creating layer relu3
I0501 03:45:48.408851 22499 net.cpp:86] Creating Layer relu3
I0501 03:45:48.408855 22499 net.cpp:408] relu3 <- ip3
I0501 03:45:48.408859 22499 net.cpp:369] relu3 -> ip3 (in-place)
I0501 03:45:48.409025 22499 net.cpp:124] Setting up relu3
I0501 03:45:48.409034 22499 net.cpp:131] Top shape: 111 160 (17760)
I0501 03:45:48.409037 22499 net.cpp:139] Memory required for data: 9841260
I0501 03:45:48.409041 22499 layer_factory.hpp:77] Creating layer ip4
I0501 03:45:48.409065 22499 net.cpp:86] Creating Layer ip4
I0501 03:45:48.409068 22499 net.cpp:408] ip4 <- ip3
I0501 03:45:48.409073 22499 net.cpp:382] ip4 -> ip4
I0501 03:45:48.409226 22499 net.cpp:124] Setting up ip4
I0501 03:45:48.409235 22499 net.cpp:131] Top shape: 111 10 (1110)
I0501 03:45:48.409238 22499 net.cpp:139] Memory required for data: 9845700
I0501 03:45:48.409247 22499 layer_factory.hpp:77] Creating layer loss
I0501 03:45:48.409253 22499 net.cpp:86] Creating Layer loss
I0501 03:45:48.409256 22499 net.cpp:408] loss <- ip4
I0501 03:45:48.409261 22499 net.cpp:408] loss <- label
I0501 03:45:48.409266 22499 net.cpp:382] loss -> loss
I0501 03:45:48.409281 22499 layer_factory.hpp:77] Creating layer loss
…
I0501 03:45:48.410581 22499 solver.cpp:173] Creating test net (#0) specified by net file: ECE595/cifar/train_test/var_everything/cifar_train_test_364.prototxt
I0501 03:45:48.410611 22499 net.cpp:296] The NetState phase (1) differed from the phase (0) specified by a rule in layer cifar
I0501 03:45:48.410708 22499 net.cpp:53] Initializing net from parameters: 
name: "CIFAR"
state {
  phase: TEST
}
layer {
  name: "cifar"
  type: "Data"
  top: "data"
  top: "label"
  include {
    phase: TEST
  }
  transform_param {
    mean_file: "examples/cifar10/mean.binaryproto"
  }
  data_param {
    source: "examples/cifar10/cifar10_test_lmdb"
    batch_size: 1000
    backend: LMDB
  }
}
layer {
  name: "conv0"
  type: "Convolution"
  bottom: "data"
  top: "conv0"
  param {
    lr_mult: 1
  }
  param {
    lr_mult: 2
  }
  convolution_param {
    num_output: 8
    pad: 2
    kernel_size: 5
    stride: 1
    weight_filler {
      type: "gaussian"
      std: 0.01
    }
    bias_filler {
      type: "constant"
    }
  }
}
layer {
  name: "Sigmoid0"
  type: "Sigmoid"
  bottom: "conv0"
  top: "Sigmoid0"
}
layer {
  name: "pool0"
  type: "Pooling"
  bottom: "Sigmoid0"
  top: "pool0"
  pooling_param {
    pool: AVE
    kernel_size: 3
    stride: 2
  }
}
layer {
  name: "ip1"
  type: "InnerProduct"
  bottom: "pool0"
  top: "ip1"
  param {
    lr_mult: 1
  }
  param {
    lr_mult: 2
  }
  inner_product_param {
    num_output: 10
    weight_filler {
      type: "gaussian"
      std: 0.01
    }
    bias_filler {
      type: "constant"
    }
  }
}
layer {
  name: "relu1"
  type: "ReLU"
  bottom: "ip1"
  top: "ip1"
}
layer {
  name: "ip2"
  type: "InnerProduct"
  bottom: "ip1"
  top: "ip2"
  param {
    lr_mult: 1
  }
  param {
    lr_mult: 2
  }
  inner_product_param {
    num_output: 160
    weight_filler {
      type: "gaussian"
      std: 0.01
    }
    bias_filler {
      type: "constant"
    }
  }
}
layer {
  name: "relu2"
  type: "ReLU"
  bottom: "ip2"
  top: "ip2"
}
layer {
  name: "ip3"
  type: "InnerProduct"
  bottom: "ip2"
  top: "ip3"
  param {
    lr_mult: 1
  }
  param {
    lr_mult: 2
  }
  inner_product_param {
    num_output: 160
    weight_filler {
      type: "gaussian"
      std: 0.01
    }
    bias_filler {
      type: "constant"
    }
  }
}
layer {
  name: "relu3"
  type: "ReLU"
  bottom: "ip3"
  top: "ip3"
}
layer {
  name: "ip4"
  type: "InnerProduct"
  bottom: "ip3"
  top: "ip4"
  param {
    lr_mult: 1
  }
  param {
    lr_mult: 2
  }
  inner_product_param {
    num_output: 10
    weight_filler {
      type: "gaussian"
      std: 0.01
    }
    bias_filler {
      type: "constant"
    }
  }
}
layer {
  name: "accuracy"
  type: "Accuracy"
  bottom: "ip4"
  bottom: "label"
  top: "accuracy"
  include {
    phase: TEST
  }
}
layer {
  name: "loss"
  type: "SoftmaxWithLoss"
  bottom: "ip4"
  bottom: "label"
  top: "loss"
}
I0501 03:45:48.410791 22499 layer_factory.hpp:77] Creating layer cifar
I0501 03:45:48.410840 22499 db_lmdb.cpp:35] Opened lmdb examples/cifar10/cifar10_test_lmdb
I0501 03:45:48.410852 22499 net.cpp:86] Creating Layer cifar
I0501 03:45:48.410857 22499 net.cpp:382] cifar -> data
I0501 03:45:48.410866 22499 net.cpp:382] cifar -> label
I0501 03:45:48.410873 22499 data_transformer.cpp:25] Loading mean file from: examples/cifar10/mean.binaryproto
I0501 03:45:48.411022 22499 data_layer.cpp:45] output data size: 1000,3,32,32
I0501 03:45:48.434257 22499 net.cpp:124] Setting up cifar
I0501 03:45:48.434283 22499 net.cpp:131] Top shape: 1000 3 32 32 (3072000)
I0501 03:45:48.434289 22499 net.cpp:131] Top shape: 1000 (1000)
I0501 03:45:48.434293 22499 net.cpp:139] Memory required for data: 12292000
I0501 03:45:48.434298 22499 layer_factory.hpp:77] Creating layer label_cifar_1_split
I0501 03:45:48.434310 22499 net.cpp:86] Creating Layer label_cifar_1_split
I0501 03:45:48.434314 22499 net.cpp:408] label_cifar_1_split <- label
I0501 03:45:48.434321 22499 net.cpp:382] label_cifar_1_split -> label_cifar_1_split_0
I0501 03:45:48.434330 22499 net.cpp:382] label_cifar_1_split -> label_cifar_1_split_1
I0501 03:45:48.434456 22499 net.cpp:124] Setting up label_cifar_1_split
I0501 03:45:48.434463 22499 net.cpp:131] Top shape: 1000 (1000)
I0501 03:45:48.434468 22499 net.cpp:131] Top shape: 1000 (1000)
I0501 03:45:48.434470 22499 net.cpp:139] Memory required for data: 12300000
I0501 03:45:48.434473 22499 layer_factory.hpp:77] Creating layer conv0
I0501 03:45:48.434485 22499 net.cpp:86] Creating Layer conv0
I0501 03:45:48.434489 22499 net.cpp:408] conv0 <- data
I0501 03:45:48.434494 22499 net.cpp:382] conv0 -> conv0
I0501 03:45:48.436098 22499 net.cpp:124] Setting up conv0
I0501 03:45:48.436112 22499 net.cpp:131] Top shape: 1000 8 32 32 (8192000)
I0501 03:45:48.436116 22499 net.cpp:139] Memory required for data: 45068000
I0501 03:45:48.436127 22499 layer_factory.hpp:77] Creating layer Sigmoid0
I0501 03:45:48.436133 22499 net.cpp:86] Creating Layer Sigmoid0
I0501 03:45:48.436137 22499 net.cpp:408] Sigmoid0 <- conv0
I0501 03:45:48.436141 22499 net.cpp:382] Sigmoid0 -> Sigmoid0
I0501 03:45:48.436331 22499 net.cpp:124] Setting up Sigmoid0
I0501 03:45:48.436342 22499 net.cpp:131] Top shape: 1000 8 32 32 (8192000)
I0501 03:45:48.436344 22499 net.cpp:139] Memory required for data: 77836000
I0501 03:45:48.436347 22499 layer_factory.hpp:77] Creating layer pool0
I0501 03:45:48.436355 22499 net.cpp:86] Creating Layer pool0
I0501 03:45:48.436359 22499 net.cpp:408] pool0 <- Sigmoid0
I0501 03:45:48.436364 22499 net.cpp:382] pool0 -> pool0
I0501 03:45:48.436651 22499 net.cpp:124] Setting up pool0
I0501 03:45:48.436661 22499 net.cpp:131] Top shape: 1000 8 16 16 (2048000)
I0501 03:45:48.436663 22499 net.cpp:139] Memory required for data: 86028000
I0501 03:45:48.436667 22499 layer_factory.hpp:77] Creating layer ip1
I0501 03:45:48.436676 22499 net.cpp:86] Creating Layer ip1
I0501 03:45:48.436678 22499 net.cpp:408] ip1 <- pool0
I0501 03:45:48.436683 22499 net.cpp:382] ip1 -> ip1
I0501 03:45:48.438261 22499 net.cpp:124] Setting up ip1
I0501 03:45:48.438271 22499 net.cpp:131] Top shape: 1000 10 (10000)
I0501 03:45:48.438275 22499 net.cpp:139] Memory required for data: 86068000
I0501 03:45:48.438298 22499 layer_factory.hpp:77] Creating layer relu1
I0501 03:45:48.438304 22499 net.cpp:86] Creating Layer relu1
I0501 03:45:48.438308 22499 net.cpp:408] relu1 <- ip1
I0501 03:45:48.438313 22499 net.cpp:369] relu1 -> ip1 (in-place)
I0501 03:45:48.438478 22499 net.cpp:124] Setting up relu1
I0501 03:45:48.438488 22499 net.cpp:131] Top shape: 1000 10 (10000)
I0501 03:45:48.438490 22499 net.cpp:139] Memory required for data: 86108000
I0501 03:45:48.438493 22499 layer_factory.hpp:77] Creating layer ip2
I0501 03:45:48.438499 22499 net.cpp:86] Creating Layer ip2
I0501 03:45:48.438503 22499 net.cpp:408] ip2 <- ip1
I0501 03:45:48.438508 22499 net.cpp:382] ip2 -> ip2
I0501 03:45:48.438650 22499 net.cpp:124] Setting up ip2
I0501 03:45:48.438657 22499 net.cpp:131] Top shape: 1000 160 (160000)
I0501 03:45:48.438669 22499 net.cpp:139] Memory required for data: 86748000
I0501 03:45:48.438676 22499 layer_factory.hpp:77] Creating layer relu2
I0501 03:45:48.438683 22499 net.cpp:86] Creating Layer relu2
I0501 03:45:48.438686 22499 net.cpp:408] relu2 <- ip2
I0501 03:45:48.438690 22499 net.cpp:369] relu2 -> ip2 (in-place)
I0501 03:45:48.439434 22499 net.cpp:124] Setting up relu2
I0501 03:45:48.439446 22499 net.cpp:131] Top shape: 1000 160 (160000)
I0501 03:45:48.439450 22499 net.cpp:139] Memory required for data: 87388000
I0501 03:45:48.439453 22499 layer_factory.hpp:77] Creating layer ip3
I0501 03:45:48.439460 22499 net.cpp:86] Creating Layer ip3
I0501 03:45:48.439463 22499 net.cpp:408] ip3 <- ip2
I0501 03:45:48.439469 22499 net.cpp:382] ip3 -> ip3
I0501 03:45:48.440259 22499 net.cpp:124] Setting up ip3
I0501 03:45:48.440268 22499 net.cpp:131] Top shape: 1000 160 (160000)
I0501 03:45:48.440271 22499 net.cpp:139] Memory required for data: 88028000
I0501 03:45:48.440277 22499 layer_factory.hpp:77] Creating layer relu3
I0501 03:45:48.440282 22499 net.cpp:86] Creating Layer relu3
I0501 03:45:48.440285 22499 net.cpp:408] relu3 <- ip3
I0501 03:45:48.440289 22499 net.cpp:369] relu3 -> ip3 (in-place)
I0501 03:45:48.440439 22499 net.cpp:124] Setting up relu3
I0501 03:45:48.440446 22499 net.cpp:131] Top shape: 1000 160 (160000)
I0501 03:45:48.440450 22499 net.cpp:139] Memory required for data: 88668000
I0501 03:45:48.440454 22499 layer_factory.hpp:77] Creating layer ip4
I0501 03:45:48.440459 22499 net.cpp:86] Creating Layer ip4
I0501 03:45:48.440462 22499 net.cpp:408] ip4 <- ip3
I0501 03:45:48.440467 22499 net.cpp:382] ip4 -> ip4
I0501 03:45:48.440609 22499 net.cpp:124] Setting up ip4
I0501 03:45:48.440618 22499 net.cpp:131] Top shape: 1000 10 (10000)
I0501 03:45:48.440620 22499 net.cpp:139] Memory required for data: 88708000
I0501 03:45:48.440629 22499 layer_factory.hpp:77] Creating layer ip4_ip4_0_split
I0501 03:45:48.440634 22499 net.cpp:86] Creating Layer ip4_ip4_0_split
I0501 03:45:48.440637 22499 net.cpp:408] ip4_ip4_0_split <- ip4
I0501 03:45:48.440641 22499 net.cpp:382] ip4_ip4_0_split -> ip4_ip4_0_split_0
I0501 03:45:48.440647 22499 net.cpp:382] ip4_ip4_0_split -> ip4_ip4_0_split_1
I0501 03:45:48.440676 22499 net.cpp:124] Setting up ip4_ip4_0_split
I0501 03:45:48.440681 22499 net.cpp:131] Top shape: 1000 10 (10000)
I0501 03:45:48.440685 22499 net.cpp:131] Top shape: 1000 10 (10000)
I0501 03:45:48.440687 22499 net.cpp:139] Memory required for data: 88788000
I0501 03:45:48.440690 22499 layer_factory.hpp:77] Creating layer accuracy
I0501 03:45:48.440696 22499 net.cpp:86] Creating Layer accuracy
I0501 03:45:48.440699 22499 net.cpp:408] accuracy <- ip4_ip4_0_split_0
I0501 03:45:48.440703 22499 net.cpp:408] accuracy <- label_cifar_1_split_0
I0501 03:45:48.440707 22499 net.cpp:382] accuracy -> accuracy
…
