…
I0430 16:43:55.583497 18185 net.cpp:296] The NetState phase (0) differed from the phase (1) specified by a rule in layer cifar
I0430 16:43:55.583511 18185 net.cpp:296] The NetState phase (0) differed from the phase (1) specified by a rule in layer accuracy
I0430 16:43:55.583585 18185 net.cpp:53] Initializing net from parameters: 
name: "CIFAR"
state {
  phase: TRAIN
  level: 0
  stage: ""
}
layer {
  name: "cifar"
  type: "Data"
  top: "data"
  top: "label"
  include {
    phase: TRAIN
  }
  transform_param {
    mean_file: "examples/cifar10/mean.binaryproto"
  }
  data_param {
    source: "examples/cifar10/cifar10_train_lmdb"
    batch_size: 111
    backend: LMDB
  }
}
layer {
  name: "ip1"
  type: "InnerProduct"
  bottom: "data"
  top: "ip1"
  param {
    lr_mult: 1
  }
  param {
    lr_mult: 2
  }
  inner_product_param {
    num_output: 20
    weight_filler {
      type: "gaussian"
      std: 0.01
    }
    bias_filler {
      type: "constant"
    }
  }
}
layer {
  name: "relu1"
  type: "ReLU"
  bottom: "ip1"
  top: "ip1"
}
layer {
  name: "ip2"
  type: "InnerProduct"
  bottom: "ip1"
  top: "ip2"
  param {
    lr_mult: 1
  }
  param {
    lr_mult: 2
  }
  inner_product_param {
    num_output: 40
    weight_filler {
      type: "gaussian"
      std: 0.01
    }
    bias_filler {
      type: "constant"
    }
  }
}
layer {
  name: "relu2"
  type: "ReLU"
  bottom: "ip2"
  top: "ip2"
}
layer {
  name: "ip3"
  type: "InnerProduct"
  bottom: "ip2"
  top: "ip3"
  param {
    lr_mult: 1
  }
  param {
    lr_mult: 2
  }
  inner_product_param {
    num_output: 10
    weight_filler {
      type: "gaussian"
      std: 0.01
    }
    bias_filler {
      type: "constant"
    }
  }
}
layer {
  name: "loss"
  type: "SoftmaxWithLoss"
  bottom: "ip3"
  bottom: "label"
  top: "loss"
}
I0430 16:43:55.583652 18185 layer_factory.hpp:77] Creating layer cifar
I0430 16:43:55.583750 18185 db_lmdb.cpp:35] Opened lmdb examples/cifar10/cifar10_train_lmdb
I0430 16:43:55.583778 18185 net.cpp:86] Creating Layer cifar
I0430 16:43:55.583786 18185 net.cpp:382] cifar -> data
I0430 16:43:55.583808 18185 net.cpp:382] cifar -> label
I0430 16:43:55.583819 18185 data_transformer.cpp:25] Loading mean file from: examples/cifar10/mean.binaryproto
I0430 16:43:55.585950 18185 data_layer.cpp:45] output data size: 111,3,32,32
I0430 16:43:55.593855 18185 net.cpp:124] Setting up cifar
I0430 16:43:55.593874 18185 net.cpp:131] Top shape: 111 3 32 32 (340992)
I0430 16:43:55.593880 18185 net.cpp:131] Top shape: 111 (111)
I0430 16:43:55.593883 18185 net.cpp:139] Memory required for data: 1364412
I0430 16:43:55.593891 18185 layer_factory.hpp:77] Creating layer ip1
I0430 16:43:55.593905 18185 net.cpp:86] Creating Layer ip1
I0430 16:43:55.593911 18185 net.cpp:408] ip1 <- data
I0430 16:43:55.593924 18185 net.cpp:382] ip1 -> ip1
I0430 16:43:55.597117 18185 net.cpp:124] Setting up ip1
I0430 16:43:55.597143 18185 net.cpp:131] Top shape: 111 20 (2220)
I0430 16:43:55.597147 18185 net.cpp:139] Memory required for data: 1373292
I0430 16:43:55.597162 18185 layer_factory.hpp:77] Creating layer relu1
I0430 16:43:55.597172 18185 net.cpp:86] Creating Layer relu1
I0430 16:43:55.597177 18185 net.cpp:408] relu1 <- ip1
I0430 16:43:55.597182 18185 net.cpp:369] relu1 -> ip1 (in-place)
I0430 16:43:55.885671 18185 net.cpp:124] Setting up relu1
I0430 16:43:55.885705 18185 net.cpp:131] Top shape: 111 20 (2220)
I0430 16:43:55.885710 18185 net.cpp:139] Memory required for data: 1382172
I0430 16:43:55.885742 18185 layer_factory.hpp:77] Creating layer ip2
I0430 16:43:55.885756 18185 net.cpp:86] Creating Layer ip2
I0430 16:43:55.885761 18185 net.cpp:408] ip2 <- ip1
I0430 16:43:55.885771 18185 net.cpp:382] ip2 -> ip2
I0430 16:43:55.886957 18185 net.cpp:124] Setting up ip2
I0430 16:43:55.886973 18185 net.cpp:131] Top shape: 111 40 (4440)
I0430 16:43:55.886978 18185 net.cpp:139] Memory required for data: 1399932
I0430 16:43:55.886991 18185 layer_factory.hpp:77] Creating layer relu2
I0430 16:43:55.886999 18185 net.cpp:86] Creating Layer relu2
I0430 16:43:55.887004 18185 net.cpp:408] relu2 <- ip2
I0430 16:43:55.887009 18185 net.cpp:369] relu2 -> ip2 (in-place)
I0430 16:43:55.887900 18185 net.cpp:124] Setting up relu2
I0430 16:43:55.887917 18185 net.cpp:131] Top shape: 111 40 (4440)
I0430 16:43:55.887920 18185 net.cpp:139] Memory required for data: 1417692
I0430 16:43:55.887925 18185 layer_factory.hpp:77] Creating layer ip3
I0430 16:43:55.887934 18185 net.cpp:86] Creating Layer ip3
I0430 16:43:55.887938 18185 net.cpp:408] ip3 <- ip2
I0430 16:43:55.887944 18185 net.cpp:382] ip3 -> ip3
I0430 16:43:55.888074 18185 net.cpp:124] Setting up ip3
I0430 16:43:55.888084 18185 net.cpp:131] Top shape: 111 10 (1110)
I0430 16:43:55.888088 18185 net.cpp:139] Memory required for data: 1422132
I0430 16:43:55.888098 18185 layer_factory.hpp:77] Creating layer loss
I0430 16:43:55.888104 18185 net.cpp:86] Creating Layer loss
I0430 16:43:55.888108 18185 net.cpp:408] loss <- ip3
I0430 16:43:55.888113 18185 net.cpp:408] loss <- label
I0430 16:43:55.888120 18185 net.cpp:382] loss -> loss
I0430 16:43:55.888142 18185 layer_factory.hpp:77] Creating layer loss
…
I0430 16:43:55.888756 18185 solver.cpp:173] Creating test net (#0) specified by net file: ECE595/cifar/train_test/var_everything/cifar_train_test_12.prototxt
I0430 16:43:55.888783 18185 net.cpp:296] The NetState phase (1) differed from the phase (0) specified by a rule in layer cifar
I0430 16:43:55.888875 18185 net.cpp:53] Initializing net from parameters: 
name: "CIFAR"
state {
  phase: TEST
}
layer {
  name: "cifar"
  type: "Data"
  top: "data"
  top: "label"
  include {
    phase: TEST
  }
  transform_param {
    mean_file: "examples/cifar10/mean.binaryproto"
  }
  data_param {
    source: "examples/cifar10/cifar10_test_lmdb"
    batch_size: 1000
    backend: LMDB
  }
}
layer {
  name: "ip1"
  type: "InnerProduct"
  bottom: "data"
  top: "ip1"
  param {
    lr_mult: 1
  }
  param {
    lr_mult: 2
  }
  inner_product_param {
    num_output: 20
    weight_filler {
      type: "gaussian"
      std: 0.01
    }
    bias_filler {
      type: "constant"
    }
  }
}
layer {
  name: "relu1"
  type: "ReLU"
  bottom: "ip1"
  top: "ip1"
}
layer {
  name: "ip2"
  type: "InnerProduct"
  bottom: "ip1"
  top: "ip2"
  param {
    lr_mult: 1
  }
  param {
    lr_mult: 2
  }
  inner_product_param {
    num_output: 40
    weight_filler {
      type: "gaussian"
      std: 0.01
    }
    bias_filler {
      type: "constant"
    }
  }
}
layer {
  name: "relu2"
  type: "ReLU"
  bottom: "ip2"
  top: "ip2"
}
layer {
  name: "ip3"
  type: "InnerProduct"
  bottom: "ip2"
  top: "ip3"
  param {
    lr_mult: 1
  }
  param {
    lr_mult: 2
  }
  inner_product_param {
    num_output: 10
    weight_filler {
      type: "gaussian"
      std: 0.01
    }
    bias_filler {
      type: "constant"
    }
  }
}
layer {
  name: "accuracy"
  type: "Accuracy"
  bottom: "ip3"
  bottom: "label"
  top: "accuracy"
  include {
    phase: TEST
  }
}
layer {
  name: "loss"
  type: "SoftmaxWithLoss"
  bottom: "ip3"
  bottom: "label"
  top: "loss"
}
I0430 16:43:55.888957 18185 layer_factory.hpp:77] Creating layer cifar
I0430 16:43:55.889009 18185 db_lmdb.cpp:35] Opened lmdb examples/cifar10/cifar10_test_lmdb
I0430 16:43:55.889024 18185 net.cpp:86] Creating Layer cifar
I0430 16:43:55.889029 18185 net.cpp:382] cifar -> data
I0430 16:43:55.889039 18185 net.cpp:382] cifar -> label
I0430 16:43:55.889046 18185 data_transformer.cpp:25] Loading mean file from: examples/cifar10/mean.binaryproto
I0430 16:43:55.889214 18185 data_layer.cpp:45] output data size: 1000,3,32,32
I0430 16:43:55.915035 18185 net.cpp:124] Setting up cifar
I0430 16:43:55.915066 18185 net.cpp:131] Top shape: 1000 3 32 32 (3072000)
I0430 16:43:55.915073 18185 net.cpp:131] Top shape: 1000 (1000)
I0430 16:43:55.915078 18185 net.cpp:139] Memory required for data: 12292000
I0430 16:43:55.915086 18185 layer_factory.hpp:77] Creating layer label_cifar_1_split
I0430 16:43:55.915104 18185 net.cpp:86] Creating Layer label_cifar_1_split
I0430 16:43:55.915109 18185 net.cpp:408] label_cifar_1_split <- label
I0430 16:43:55.915117 18185 net.cpp:382] label_cifar_1_split -> label_cifar_1_split_0
I0430 16:43:55.915127 18185 net.cpp:382] label_cifar_1_split -> label_cifar_1_split_1
I0430 16:43:55.915246 18185 net.cpp:124] Setting up label_cifar_1_split
I0430 16:43:55.915256 18185 net.cpp:131] Top shape: 1000 (1000)
I0430 16:43:55.915261 18185 net.cpp:131] Top shape: 1000 (1000)
I0430 16:43:55.915263 18185 net.cpp:139] Memory required for data: 12300000
I0430 16:43:55.915267 18185 layer_factory.hpp:77] Creating layer ip1
I0430 16:43:55.915277 18185 net.cpp:86] Creating Layer ip1
I0430 16:43:55.915282 18185 net.cpp:408] ip1 <- data
I0430 16:43:55.915287 18185 net.cpp:382] ip1 -> ip1
I0430 16:43:55.917768 18185 net.cpp:124] Setting up ip1
I0430 16:43:55.917783 18185 net.cpp:131] Top shape: 1000 20 (20000)
I0430 16:43:55.917786 18185 net.cpp:139] Memory required for data: 12380000
I0430 16:43:55.917798 18185 layer_factory.hpp:77] Creating layer relu1
I0430 16:43:55.917806 18185 net.cpp:86] Creating Layer relu1
I0430 16:43:55.917810 18185 net.cpp:408] relu1 <- ip1
I0430 16:43:55.917816 18185 net.cpp:369] relu1 -> ip1 (in-place)
I0430 16:43:55.918038 18185 net.cpp:124] Setting up relu1
I0430 16:43:55.918051 18185 net.cpp:131] Top shape: 1000 20 (20000)
I0430 16:43:55.918056 18185 net.cpp:139] Memory required for data: 12460000
I0430 16:43:55.918059 18185 layer_factory.hpp:77] Creating layer ip2
I0430 16:43:55.918068 18185 net.cpp:86] Creating Layer ip2
I0430 16:43:55.918073 18185 net.cpp:408] ip2 <- ip1
I0430 16:43:55.918079 18185 net.cpp:382] ip2 -> ip2
I0430 16:43:55.918237 18185 net.cpp:124] Setting up ip2
I0430 16:43:55.918246 18185 net.cpp:131] Top shape: 1000 40 (40000)
I0430 16:43:55.918249 18185 net.cpp:139] Memory required for data: 12620000
I0430 16:43:55.918258 18185 layer_factory.hpp:77] Creating layer relu2
I0430 16:43:55.918264 18185 net.cpp:86] Creating Layer relu2
I0430 16:43:55.918268 18185 net.cpp:408] relu2 <- ip2
I0430 16:43:55.918273 18185 net.cpp:369] relu2 -> ip2 (in-place)
I0430 16:43:55.919188 18185 net.cpp:124] Setting up relu2
I0430 16:43:55.919204 18185 net.cpp:131] Top shape: 1000 40 (40000)
I0430 16:43:55.919209 18185 net.cpp:139] Memory required for data: 12780000
I0430 16:43:55.919214 18185 layer_factory.hpp:77] Creating layer ip3
I0430 16:43:55.919222 18185 net.cpp:86] Creating Layer ip3
I0430 16:43:55.919226 18185 net.cpp:408] ip3 <- ip2
I0430 16:43:55.919234 18185 net.cpp:382] ip3 -> ip3
I0430 16:43:55.919375 18185 net.cpp:124] Setting up ip3
I0430 16:43:55.919384 18185 net.cpp:131] Top shape: 1000 10 (10000)
I0430 16:43:55.919389 18185 net.cpp:139] Memory required for data: 12820000
I0430 16:43:55.919415 18185 layer_factory.hpp:77] Creating layer ip3_ip3_0_split
I0430 16:43:55.919422 18185 net.cpp:86] Creating Layer ip3_ip3_0_split
I0430 16:43:55.919426 18185 net.cpp:408] ip3_ip3_0_split <- ip3
I0430 16:43:55.919433 18185 net.cpp:382] ip3_ip3_0_split -> ip3_ip3_0_split_0
I0430 16:43:55.919440 18185 net.cpp:382] ip3_ip3_0_split -> ip3_ip3_0_split_1
I0430 16:43:55.919481 18185 net.cpp:124] Setting up ip3_ip3_0_split
I0430 16:43:55.919486 18185 net.cpp:131] Top shape: 1000 10 (10000)
I0430 16:43:55.919492 18185 net.cpp:131] Top shape: 1000 10 (10000)
I0430 16:43:55.919494 18185 net.cpp:139] Memory required for data: 12900000
I0430 16:43:55.919498 18185 layer_factory.hpp:77] Creating layer accuracy
I0430 16:43:55.919507 18185 net.cpp:86] Creating Layer accuracy
I0430 16:43:55.919510 18185 net.cpp:408] accuracy <- ip3_ip3_0_split_0
I0430 16:43:55.919515 18185 net.cpp:408] accuracy <- label_cifar_1_split_0
I0430 16:43:55.919523 18185 net.cpp:382] accuracy -> accuracy
…
