…
I0430 23:25:53.616317  4834 net.cpp:296] The NetState phase (0) differed from the phase (1) specified by a rule in layer cifar
I0430 23:25:53.616336  4834 net.cpp:296] The NetState phase (0) differed from the phase (1) specified by a rule in layer accuracy
I0430 23:25:53.616446  4834 net.cpp:53] Initializing net from parameters: 
name: "CIFAR"
state {
  phase: TRAIN
  level: 0
  stage: ""
}
layer {
  name: "cifar"
  type: "Data"
  top: "data"
  top: "label"
  include {
    phase: TRAIN
  }
  transform_param {
    mean_file: "examples/cifar10/mean.binaryproto"
  }
  data_param {
    source: "examples/cifar10/cifar10_train_lmdb"
    batch_size: 111
    backend: LMDB
  }
}
layer {
  name: "conv0"
  type: "Convolution"
  bottom: "data"
  top: "conv0"
  param {
    lr_mult: 1
  }
  param {
    lr_mult: 2
  }
  convolution_param {
    num_output: 8
    pad: 2
    kernel_size: 3
    stride: 1
    weight_filler {
      type: "gaussian"
      std: 0.01
    }
    bias_filler {
      type: "constant"
    }
  }
}
layer {
  name: "Sigmoid0"
  type: "Sigmoid"
  bottom: "conv0"
  top: "Sigmoid0"
}
layer {
  name: "pool0"
  type: "Pooling"
  bottom: "Sigmoid0"
  top: "pool0"
  pooling_param {
    pool: AVE
    kernel_size: 3
    stride: 2
  }
}
layer {
  name: "ip1"
  type: "InnerProduct"
  bottom: "pool0"
  top: "ip1"
  param {
    lr_mult: 1
  }
  param {
    lr_mult: 2
  }
  inner_product_param {
    num_output: 20
    weight_filler {
      type: "gaussian"
      std: 0.01
    }
    bias_filler {
      type: "constant"
    }
  }
}
layer {
  name: "relu1"
  type: "ReLU"
  bottom: "ip1"
  top: "ip1"
}
layer {
  name: "ip2"
  type: "InnerProduct"
  bottom: "ip1"
  top: "ip2"
  param {
    lr_mult: 1
  }
  param {
    lr_mult: 2
  }
  inner_product_param {
    num_output: 80
    weight_filler {
      type: "gaussian"
      std: 0.01
    }
    bias_filler {
      type: "constant"
    }
  }
}
layer {
  name: "relu2"
  type: "ReLU"
  bottom: "ip2"
  top: "ip2"
}
layer {
  name: "ip3"
  type: "InnerProduct"
  bottom: "ip2"
  top: "ip3"
  param {
    lr_mult: 1
  }
  param {
    lr_mult: 2
  }
  inner_product_param {
    num_output: 10
    weight_filler {
      type: "gaussian"
      std: 0.01
    }
    bias_filler {
      type: "constant"
    }
  }
}
layer {
  name: "relu3"
  type: "ReLU"
  bottom: "ip3"
  top: "ip3"
}
layer {
  name: "ip4"
  type: "InnerProduct"
  bottom: "ip3"
  top: "ip4"
  param {
    lr_mult: 1
  }
  param {
    lr_mult: 2
  }
  inner_product_param {
    num_output: 10
    weight_filler {
      type: "gaussian"
      std: 0.01
    }
    bias_filler {
      type: "constant"
    }
  }
}
layer {
  name: "loss"
  type: "SoftmaxWithLoss"
  bottom: "ip4"
  bottom: "label"
  top: "loss"
}
I0430 23:25:53.616523  4834 layer_factory.hpp:77] Creating layer cifar
I0430 23:25:53.616621  4834 db_lmdb.cpp:35] Opened lmdb examples/cifar10/cifar10_train_lmdb
I0430 23:25:53.616648  4834 net.cpp:86] Creating Layer cifar
I0430 23:25:53.616657  4834 net.cpp:382] cifar -> data
I0430 23:25:53.616678  4834 net.cpp:382] cifar -> label
I0430 23:25:53.616691  4834 data_transformer.cpp:25] Loading mean file from: examples/cifar10/mean.binaryproto
I0430 23:25:53.618811  4834 data_layer.cpp:45] output data size: 111,3,32,32
I0430 23:25:53.626731  4834 net.cpp:124] Setting up cifar
I0430 23:25:53.626751  4834 net.cpp:131] Top shape: 111 3 32 32 (340992)
I0430 23:25:53.626760  4834 net.cpp:131] Top shape: 111 (111)
I0430 23:25:53.626763  4834 net.cpp:139] Memory required for data: 1364412
I0430 23:25:53.626786  4834 layer_factory.hpp:77] Creating layer conv0
I0430 23:25:53.626804  4834 net.cpp:86] Creating Layer conv0
I0430 23:25:53.626809  4834 net.cpp:408] conv0 <- data
I0430 23:25:53.626837  4834 net.cpp:382] conv0 -> conv0
I0430 23:25:53.948392  4834 net.cpp:124] Setting up conv0
I0430 23:25:53.948426  4834 net.cpp:131] Top shape: 111 8 34 34 (1026528)
I0430 23:25:53.948431  4834 net.cpp:139] Memory required for data: 5470524
I0430 23:25:53.948448  4834 layer_factory.hpp:77] Creating layer Sigmoid0
I0430 23:25:53.948462  4834 net.cpp:86] Creating Layer Sigmoid0
I0430 23:25:53.948467  4834 net.cpp:408] Sigmoid0 <- conv0
I0430 23:25:53.948475  4834 net.cpp:382] Sigmoid0 -> Sigmoid0
I0430 23:25:53.948714  4834 net.cpp:124] Setting up Sigmoid0
I0430 23:25:53.948727  4834 net.cpp:131] Top shape: 111 8 34 34 (1026528)
I0430 23:25:53.948732  4834 net.cpp:139] Memory required for data: 9576636
I0430 23:25:53.948738  4834 layer_factory.hpp:77] Creating layer pool0
I0430 23:25:53.948750  4834 net.cpp:86] Creating Layer pool0
I0430 23:25:53.948757  4834 net.cpp:408] pool0 <- Sigmoid0
I0430 23:25:53.948766  4834 net.cpp:382] pool0 -> pool0
I0430 23:25:53.949669  4834 net.cpp:124] Setting up pool0
I0430 23:25:53.949687  4834 net.cpp:131] Top shape: 111 8 17 17 (256632)
I0430 23:25:53.949692  4834 net.cpp:139] Memory required for data: 10603164
I0430 23:25:53.949695  4834 layer_factory.hpp:77] Creating layer ip1
I0430 23:25:53.949707  4834 net.cpp:86] Creating Layer ip1
I0430 23:25:53.949712  4834 net.cpp:408] ip1 <- pool0
I0430 23:25:53.949717  4834 net.cpp:382] ip1 -> ip1
I0430 23:25:53.952378  4834 net.cpp:124] Setting up ip1
I0430 23:25:53.952394  4834 net.cpp:131] Top shape: 111 20 (2220)
I0430 23:25:53.952399  4834 net.cpp:139] Memory required for data: 10612044
I0430 23:25:53.952409  4834 layer_factory.hpp:77] Creating layer relu1
I0430 23:25:53.952415  4834 net.cpp:86] Creating Layer relu1
I0430 23:25:53.952419  4834 net.cpp:408] relu1 <- ip1
I0430 23:25:53.952425  4834 net.cpp:369] relu1 -> ip1 (in-place)
I0430 23:25:53.952639  4834 net.cpp:124] Setting up relu1
I0430 23:25:53.952651  4834 net.cpp:131] Top shape: 111 20 (2220)
I0430 23:25:53.952656  4834 net.cpp:139] Memory required for data: 10620924
I0430 23:25:53.952661  4834 layer_factory.hpp:77] Creating layer ip2
I0430 23:25:53.952673  4834 net.cpp:86] Creating Layer ip2
I0430 23:25:53.952680  4834 net.cpp:408] ip2 <- ip1
I0430 23:25:53.952690  4834 net.cpp:382] ip2 -> ip2
I0430 23:25:53.952890  4834 net.cpp:124] Setting up ip2
I0430 23:25:53.952900  4834 net.cpp:131] Top shape: 111 80 (8880)
I0430 23:25:53.952905  4834 net.cpp:139] Memory required for data: 10656444
I0430 23:25:53.952919  4834 layer_factory.hpp:77] Creating layer relu2
I0430 23:25:53.952929  4834 net.cpp:86] Creating Layer relu2
I0430 23:25:53.952939  4834 net.cpp:408] relu2 <- ip2
I0430 23:25:53.952949  4834 net.cpp:369] relu2 -> ip2 (in-place)
I0430 23:25:53.953148  4834 net.cpp:124] Setting up relu2
I0430 23:25:53.953158  4834 net.cpp:131] Top shape: 111 80 (8880)
I0430 23:25:53.953163  4834 net.cpp:139] Memory required for data: 10691964
I0430 23:25:53.953171  4834 layer_factory.hpp:77] Creating layer ip3
I0430 23:25:53.953183  4834 net.cpp:86] Creating Layer ip3
I0430 23:25:53.953191  4834 net.cpp:408] ip3 <- ip2
I0430 23:25:53.953200  4834 net.cpp:382] ip3 -> ip3
I0430 23:25:53.954351  4834 net.cpp:124] Setting up ip3
I0430 23:25:53.954366  4834 net.cpp:131] Top shape: 111 10 (1110)
I0430 23:25:53.954371  4834 net.cpp:139] Memory required for data: 10696404
I0430 23:25:53.954378  4834 layer_factory.hpp:77] Creating layer relu3
I0430 23:25:53.954385  4834 net.cpp:86] Creating Layer relu3
I0430 23:25:53.954390  4834 net.cpp:408] relu3 <- ip3
I0430 23:25:53.954396  4834 net.cpp:369] relu3 -> ip3 (in-place)
I0430 23:25:53.954614  4834 net.cpp:124] Setting up relu3
I0430 23:25:53.954625  4834 net.cpp:131] Top shape: 111 10 (1110)
I0430 23:25:53.954630  4834 net.cpp:139] Memory required for data: 10700844
I0430 23:25:53.954637  4834 layer_factory.hpp:77] Creating layer ip4
I0430 23:25:53.954674  4834 net.cpp:86] Creating Layer ip4
I0430 23:25:53.954685  4834 net.cpp:408] ip4 <- ip3
I0430 23:25:53.954695  4834 net.cpp:382] ip4 -> ip4
I0430 23:25:53.954831  4834 net.cpp:124] Setting up ip4
I0430 23:25:53.954841  4834 net.cpp:131] Top shape: 111 10 (1110)
I0430 23:25:53.954846  4834 net.cpp:139] Memory required for data: 10705284
I0430 23:25:53.954861  4834 layer_factory.hpp:77] Creating layer loss
I0430 23:25:53.954874  4834 net.cpp:86] Creating Layer loss
I0430 23:25:53.954883  4834 net.cpp:408] loss <- ip4
I0430 23:25:53.954891  4834 net.cpp:408] loss <- label
I0430 23:25:53.954901  4834 net.cpp:382] loss -> loss
I0430 23:25:53.954929  4834 layer_factory.hpp:77] Creating layer loss
…
I0430 23:25:53.956441  4834 solver.cpp:173] Creating test net (#0) specified by net file: ECE595/cifar/train_test/var_everything/cifar_train_test_225.prototxt
I0430 23:25:53.956476  4834 net.cpp:296] The NetState phase (1) differed from the phase (0) specified by a rule in layer cifar
I0430 23:25:53.956606  4834 net.cpp:53] Initializing net from parameters: 
name: "CIFAR"
state {
  phase: TEST
}
layer {
  name: "cifar"
  type: "Data"
  top: "data"
  top: "label"
  include {
    phase: TEST
  }
  transform_param {
    mean_file: "examples/cifar10/mean.binaryproto"
  }
  data_param {
    source: "examples/cifar10/cifar10_test_lmdb"
    batch_size: 1000
    backend: LMDB
  }
}
layer {
  name: "conv0"
  type: "Convolution"
  bottom: "data"
  top: "conv0"
  param {
    lr_mult: 1
  }
  param {
    lr_mult: 2
  }
  convolution_param {
    num_output: 8
    pad: 2
    kernel_size: 3
    stride: 1
    weight_filler {
      type: "gaussian"
      std: 0.01
    }
    bias_filler {
      type: "constant"
    }
  }
}
layer {
  name: "Sigmoid0"
  type: "Sigmoid"
  bottom: "conv0"
  top: "Sigmoid0"
}
layer {
  name: "pool0"
  type: "Pooling"
  bottom: "Sigmoid0"
  top: "pool0"
  pooling_param {
    pool: AVE
    kernel_size: 3
    stride: 2
  }
}
layer {
  name: "ip1"
  type: "InnerProduct"
  bottom: "pool0"
  top: "ip1"
  param {
    lr_mult: 1
  }
  param {
    lr_mult: 2
  }
  inner_product_param {
    num_output: 20
    weight_filler {
      type: "gaussian"
      std: 0.01
    }
    bias_filler {
      type: "constant"
    }
  }
}
layer {
  name: "relu1"
  type: "ReLU"
  bottom: "ip1"
  top: "ip1"
}
layer {
  name: "ip2"
  type: "InnerProduct"
  bottom: "ip1"
  top: "ip2"
  param {
    lr_mult: 1
  }
  param {
    lr_mult: 2
  }
  inner_product_param {
    num_output: 80
    weight_filler {
      type: "gaussian"
      std: 0.01
    }
    bias_filler {
      type: "constant"
    }
  }
}
layer {
  name: "relu2"
  type: "ReLU"
  bottom: "ip2"
  top: "ip2"
}
layer {
  name: "ip3"
  type: "InnerProduct"
  bottom: "ip2"
  top: "ip3"
  param {
    lr_mult: 1
  }
  param {
    lr_mult: 2
  }
  inner_product_param {
    num_output: 10
    weight_filler {
      type: "gaussian"
      std: 0.01
    }
    bias_filler {
      type: "constant"
    }
  }
}
layer {
  name: "relu3"
  type: "ReLU"
  bottom: "ip3"
  top: "ip3"
}
layer {
  name: "ip4"
  type: "InnerProduct"
  bottom: "ip3"
  top: "ip4"
  param {
    lr_mult: 1
  }
  param {
    lr_mult: 2
  }
  inner_product_param {
    num_output: 10
    weight_filler {
      type: "gaussian"
      std: 0.01
    }
    bias_filler {
      type: "constant"
    }
  }
}
layer {
  name: "accuracy"
  type: "Accuracy"
  bottom: "ip4"
  bottom: "label"
  top: "accuracy"
  include {
    phase: TEST
  }
}
layer {
  name: "loss"
  type: "SoftmaxWithLoss"
  bottom: "ip4"
  bottom: "label"
  top: "loss"
}
I0430 23:25:53.956739  4834 layer_factory.hpp:77] Creating layer cifar
I0430 23:25:53.956820  4834 db_lmdb.cpp:35] Opened lmdb examples/cifar10/cifar10_test_lmdb
I0430 23:25:53.956841  4834 net.cpp:86] Creating Layer cifar
I0430 23:25:53.956851  4834 net.cpp:382] cifar -> data
I0430 23:25:53.956872  4834 net.cpp:382] cifar -> label
I0430 23:25:53.956884  4834 data_transformer.cpp:25] Loading mean file from: examples/cifar10/mean.binaryproto
I0430 23:25:53.957124  4834 data_layer.cpp:45] output data size: 1000,3,32,32
I0430 23:25:53.983353  4834 net.cpp:124] Setting up cifar
I0430 23:25:53.983384  4834 net.cpp:131] Top shape: 1000 3 32 32 (3072000)
I0430 23:25:53.983392  4834 net.cpp:131] Top shape: 1000 (1000)
I0430 23:25:53.983395  4834 net.cpp:139] Memory required for data: 12292000
I0430 23:25:53.983402  4834 layer_factory.hpp:77] Creating layer label_cifar_1_split
I0430 23:25:53.983420  4834 net.cpp:86] Creating Layer label_cifar_1_split
I0430 23:25:53.983427  4834 net.cpp:408] label_cifar_1_split <- label
I0430 23:25:53.983433  4834 net.cpp:382] label_cifar_1_split -> label_cifar_1_split_0
I0430 23:25:53.983445  4834 net.cpp:382] label_cifar_1_split -> label_cifar_1_split_1
I0430 23:25:53.983583  4834 net.cpp:124] Setting up label_cifar_1_split
I0430 23:25:53.983594  4834 net.cpp:131] Top shape: 1000 (1000)
I0430 23:25:53.983599  4834 net.cpp:131] Top shape: 1000 (1000)
I0430 23:25:53.983603  4834 net.cpp:139] Memory required for data: 12300000
I0430 23:25:53.983610  4834 layer_factory.hpp:77] Creating layer conv0
I0430 23:25:53.983630  4834 net.cpp:86] Creating Layer conv0
I0430 23:25:53.983638  4834 net.cpp:408] conv0 <- data
I0430 23:25:53.983647  4834 net.cpp:382] conv0 -> conv0
I0430 23:25:53.986467  4834 net.cpp:124] Setting up conv0
I0430 23:25:53.986486  4834 net.cpp:131] Top shape: 1000 8 34 34 (9248000)
I0430 23:25:53.986491  4834 net.cpp:139] Memory required for data: 49292000
I0430 23:25:53.986503  4834 layer_factory.hpp:77] Creating layer Sigmoid0
I0430 23:25:53.986511  4834 net.cpp:86] Creating Layer Sigmoid0
I0430 23:25:53.986515  4834 net.cpp:408] Sigmoid0 <- conv0
I0430 23:25:53.986522  4834 net.cpp:382] Sigmoid0 -> Sigmoid0
I0430 23:25:53.986778  4834 net.cpp:124] Setting up Sigmoid0
I0430 23:25:53.986789  4834 net.cpp:131] Top shape: 1000 8 34 34 (9248000)
I0430 23:25:53.986793  4834 net.cpp:139] Memory required for data: 86284000
I0430 23:25:53.986799  4834 layer_factory.hpp:77] Creating layer pool0
I0430 23:25:53.986814  4834 net.cpp:86] Creating Layer pool0
I0430 23:25:53.986822  4834 net.cpp:408] pool0 <- Sigmoid0
I0430 23:25:53.986831  4834 net.cpp:382] pool0 -> pool0
I0430 23:25:53.987053  4834 net.cpp:124] Setting up pool0
I0430 23:25:53.987067  4834 net.cpp:131] Top shape: 1000 8 17 17 (2312000)
I0430 23:25:53.987071  4834 net.cpp:139] Memory required for data: 95532000
I0430 23:25:53.987076  4834 layer_factory.hpp:77] Creating layer ip1
I0430 23:25:53.987087  4834 net.cpp:86] Creating Layer ip1
I0430 23:25:53.987094  4834 net.cpp:408] ip1 <- pool0
I0430 23:25:53.987105  4834 net.cpp:382] ip1 -> ip1
I0430 23:25:53.988786  4834 net.cpp:124] Setting up ip1
I0430 23:25:53.988797  4834 net.cpp:131] Top shape: 1000 20 (20000)
I0430 23:25:53.988801  4834 net.cpp:139] Memory required for data: 95612000
I0430 23:25:53.988837  4834 layer_factory.hpp:77] Creating layer relu1
I0430 23:25:53.988845  4834 net.cpp:86] Creating Layer relu1
I0430 23:25:53.988852  4834 net.cpp:408] relu1 <- ip1
I0430 23:25:53.988859  4834 net.cpp:369] relu1 -> ip1 (in-place)
I0430 23:25:53.989094  4834 net.cpp:124] Setting up relu1
I0430 23:25:53.989106  4834 net.cpp:131] Top shape: 1000 20 (20000)
I0430 23:25:53.989110  4834 net.cpp:139] Memory required for data: 95692000
I0430 23:25:53.989116  4834 layer_factory.hpp:77] Creating layer ip2
I0430 23:25:53.989128  4834 net.cpp:86] Creating Layer ip2
I0430 23:25:53.989135  4834 net.cpp:408] ip2 <- ip1
I0430 23:25:53.989145  4834 net.cpp:382] ip2 -> ip2
I0430 23:25:53.989348  4834 net.cpp:124] Setting up ip2
I0430 23:25:53.989358  4834 net.cpp:131] Top shape: 1000 80 (80000)
I0430 23:25:53.989363  4834 net.cpp:139] Memory required for data: 96012000
I0430 23:25:53.989377  4834 layer_factory.hpp:77] Creating layer relu2
I0430 23:25:53.989388  4834 net.cpp:86] Creating Layer relu2
I0430 23:25:53.989394  4834 net.cpp:408] relu2 <- ip2
I0430 23:25:53.989405  4834 net.cpp:369] relu2 -> ip2 (in-place)
I0430 23:25:53.990314  4834 net.cpp:124] Setting up relu2
I0430 23:25:53.990329  4834 net.cpp:131] Top shape: 1000 80 (80000)
I0430 23:25:53.990332  4834 net.cpp:139] Memory required for data: 96332000
I0430 23:25:53.990336  4834 layer_factory.hpp:77] Creating layer ip3
I0430 23:25:53.990346  4834 net.cpp:86] Creating Layer ip3
I0430 23:25:53.990350  4834 net.cpp:408] ip3 <- ip2
I0430 23:25:53.990356  4834 net.cpp:382] ip3 -> ip3
I0430 23:25:53.990541  4834 net.cpp:124] Setting up ip3
I0430 23:25:53.990552  4834 net.cpp:131] Top shape: 1000 10 (10000)
I0430 23:25:53.990556  4834 net.cpp:139] Memory required for data: 96372000
I0430 23:25:53.990566  4834 layer_factory.hpp:77] Creating layer relu3
I0430 23:25:53.990577  4834 net.cpp:86] Creating Layer relu3
I0430 23:25:53.990583  4834 net.cpp:408] relu3 <- ip3
I0430 23:25:53.990592  4834 net.cpp:369] relu3 -> ip3 (in-place)
I0430 23:25:53.990798  4834 net.cpp:124] Setting up relu3
I0430 23:25:53.990809  4834 net.cpp:131] Top shape: 1000 10 (10000)
I0430 23:25:53.990813  4834 net.cpp:139] Memory required for data: 96412000
I0430 23:25:53.990818  4834 layer_factory.hpp:77] Creating layer ip4
I0430 23:25:53.990834  4834 net.cpp:86] Creating Layer ip4
I0430 23:25:53.990840  4834 net.cpp:408] ip4 <- ip3
I0430 23:25:53.990852  4834 net.cpp:382] ip4 -> ip4
I0430 23:25:53.990996  4834 net.cpp:124] Setting up ip4
I0430 23:25:53.991008  4834 net.cpp:131] Top shape: 1000 10 (10000)
I0430 23:25:53.991011  4834 net.cpp:139] Memory required for data: 96452000
I0430 23:25:53.991027  4834 layer_factory.hpp:77] Creating layer ip4_ip4_0_split
I0430 23:25:53.991037  4834 net.cpp:86] Creating Layer ip4_ip4_0_split
I0430 23:25:53.991044  4834 net.cpp:408] ip4_ip4_0_split <- ip4
I0430 23:25:53.991052  4834 net.cpp:382] ip4_ip4_0_split -> ip4_ip4_0_split_0
I0430 23:25:53.991062  4834 net.cpp:382] ip4_ip4_0_split -> ip4_ip4_0_split_1
I0430 23:25:53.991117  4834 net.cpp:124] Setting up ip4_ip4_0_split
I0430 23:25:53.991125  4834 net.cpp:131] Top shape: 1000 10 (10000)
I0430 23:25:53.991130  4834 net.cpp:131] Top shape: 1000 10 (10000)
I0430 23:25:53.991135  4834 net.cpp:139] Memory required for data: 96532000
I0430 23:25:53.991142  4834 layer_factory.hpp:77] Creating layer accuracy
I0430 23:25:53.991154  4834 net.cpp:86] Creating Layer accuracy
I0430 23:25:53.991161  4834 net.cpp:408] accuracy <- ip4_ip4_0_split_0
I0430 23:25:53.991168  4834 net.cpp:408] accuracy <- label_cifar_1_split_0
I0430 23:25:53.991178  4834 net.cpp:382] accuracy -> accuracy
…
