…
I0501 04:11:52.439126 24217 net.cpp:296] The NetState phase (0) differed from the phase (1) specified by a rule in layer cifar
I0501 04:11:52.439154 24217 net.cpp:296] The NetState phase (0) differed from the phase (1) specified by a rule in layer accuracy
I0501 04:11:52.439273 24217 net.cpp:53] Initializing net from parameters: 
name: "CIFAR"
state {
  phase: TRAIN
  level: 0
  stage: ""
}
layer {
  name: "cifar"
  type: "Data"
  top: "data"
  top: "label"
  include {
    phase: TRAIN
  }
  transform_param {
    mean_file: "examples/cifar10/mean.binaryproto"
  }
  data_param {
    source: "examples/cifar10/cifar10_train_lmdb"
    batch_size: 111
    backend: LMDB
  }
}
layer {
  name: "conv0"
  type: "Convolution"
  bottom: "data"
  top: "conv0"
  param {
    lr_mult: 1
  }
  param {
    lr_mult: 2
  }
  convolution_param {
    num_output: 8
    pad: 2
    kernel_size: 5
    stride: 1
    weight_filler {
      type: "gaussian"
      std: 0.01
    }
    bias_filler {
      type: "constant"
    }
  }
}
layer {
  name: "Sigmoid0"
  type: "Sigmoid"
  bottom: "conv0"
  top: "Sigmoid0"
}
layer {
  name: "pool0"
  type: "Pooling"
  bottom: "Sigmoid0"
  top: "pool0"
  pooling_param {
    pool: AVE
    kernel_size: 3
    stride: 2
  }
}
layer {
  name: "ip1"
  type: "InnerProduct"
  bottom: "pool0"
  top: "ip1"
  param {
    lr_mult: 1
  }
  param {
    lr_mult: 2
  }
  inner_product_param {
    num_output: 20
    weight_filler {
      type: "gaussian"
      std: 0.01
    }
    bias_filler {
      type: "constant"
    }
  }
}
layer {
  name: "relu1"
  type: "ReLU"
  bottom: "ip1"
  top: "ip1"
}
layer {
  name: "ip2"
  type: "InnerProduct"
  bottom: "ip1"
  top: "ip2"
  param {
    lr_mult: 1
  }
  param {
    lr_mult: 2
  }
  inner_product_param {
    num_output: 40
    weight_filler {
      type: "gaussian"
      std: 0.01
    }
    bias_filler {
      type: "constant"
    }
  }
}
layer {
  name: "relu2"
  type: "ReLU"
  bottom: "ip2"
  top: "ip2"
}
layer {
  name: "ip3"
  type: "InnerProduct"
  bottom: "ip2"
  top: "ip3"
  param {
    lr_mult: 1
  }
  param {
    lr_mult: 2
  }
  inner_product_param {
    num_output: 80
    weight_filler {
      type: "gaussian"
      std: 0.01
    }
    bias_filler {
      type: "constant"
    }
  }
}
layer {
  name: "relu3"
  type: "ReLU"
  bottom: "ip3"
  top: "ip3"
}
layer {
  name: "ip4"
  type: "InnerProduct"
  bottom: "ip3"
  top: "ip4"
  param {
    lr_mult: 1
  }
  param {
    lr_mult: 2
  }
  inner_product_param {
    num_output: 10
    weight_filler {
      type: "gaussian"
      std: 0.01
    }
    bias_filler {
      type: "constant"
    }
  }
}
layer {
  name: "loss"
  type: "SoftmaxWithLoss"
  bottom: "ip4"
  bottom: "label"
  top: "loss"
}
I0501 04:11:52.439388 24217 layer_factory.hpp:77] Creating layer cifar
I0501 04:11:52.439522 24217 db_lmdb.cpp:35] Opened lmdb examples/cifar10/cifar10_train_lmdb
I0501 04:11:52.439559 24217 net.cpp:86] Creating Layer cifar
I0501 04:11:52.439571 24217 net.cpp:382] cifar -> data
I0501 04:11:52.439602 24217 net.cpp:382] cifar -> label
I0501 04:11:52.439620 24217 data_transformer.cpp:25] Loading mean file from: examples/cifar10/mean.binaryproto
I0501 04:11:52.442003 24217 data_layer.cpp:45] output data size: 111,3,32,32
I0501 04:11:52.449951 24217 net.cpp:124] Setting up cifar
I0501 04:11:52.449972 24217 net.cpp:131] Top shape: 111 3 32 32 (340992)
I0501 04:11:52.449982 24217 net.cpp:131] Top shape: 111 (111)
I0501 04:11:52.449990 24217 net.cpp:139] Memory required for data: 1364412
I0501 04:11:52.450026 24217 layer_factory.hpp:77] Creating layer conv0
I0501 04:11:52.450057 24217 net.cpp:86] Creating Layer conv0
I0501 04:11:52.450067 24217 net.cpp:408] conv0 <- data
I0501 04:11:52.450085 24217 net.cpp:382] conv0 -> conv0
I0501 04:11:52.742653 24217 net.cpp:124] Setting up conv0
I0501 04:11:52.742683 24217 net.cpp:131] Top shape: 111 8 32 32 (909312)
I0501 04:11:52.742689 24217 net.cpp:139] Memory required for data: 5001660
I0501 04:11:52.742712 24217 layer_factory.hpp:77] Creating layer Sigmoid0
I0501 04:11:52.742728 24217 net.cpp:86] Creating Layer Sigmoid0
I0501 04:11:52.742736 24217 net.cpp:408] Sigmoid0 <- conv0
I0501 04:11:52.742745 24217 net.cpp:382] Sigmoid0 -> Sigmoid0
I0501 04:11:52.742944 24217 net.cpp:124] Setting up Sigmoid0
I0501 04:11:52.742955 24217 net.cpp:131] Top shape: 111 8 32 32 (909312)
I0501 04:11:52.742961 24217 net.cpp:139] Memory required for data: 8638908
I0501 04:11:52.742966 24217 layer_factory.hpp:77] Creating layer pool0
I0501 04:11:52.742977 24217 net.cpp:86] Creating Layer pool0
I0501 04:11:52.742985 24217 net.cpp:408] pool0 <- Sigmoid0
I0501 04:11:52.742992 24217 net.cpp:382] pool0 -> pool0
I0501 04:11:52.743794 24217 net.cpp:124] Setting up pool0
I0501 04:11:52.743810 24217 net.cpp:131] Top shape: 111 8 16 16 (227328)
I0501 04:11:52.743818 24217 net.cpp:139] Memory required for data: 9548220
I0501 04:11:52.743824 24217 layer_factory.hpp:77] Creating layer ip1
I0501 04:11:52.743839 24217 net.cpp:86] Creating Layer ip1
I0501 04:11:52.743844 24217 net.cpp:408] ip1 <- pool0
I0501 04:11:52.743854 24217 net.cpp:382] ip1 -> ip1
I0501 04:11:52.746031 24217 net.cpp:124] Setting up ip1
I0501 04:11:52.746047 24217 net.cpp:131] Top shape: 111 20 (2220)
I0501 04:11:52.746052 24217 net.cpp:139] Memory required for data: 9557100
I0501 04:11:52.746065 24217 layer_factory.hpp:77] Creating layer relu1
I0501 04:11:52.746075 24217 net.cpp:86] Creating Layer relu1
I0501 04:11:52.746081 24217 net.cpp:408] relu1 <- ip1
I0501 04:11:52.746089 24217 net.cpp:369] relu1 -> ip1 (in-place)
I0501 04:11:52.746260 24217 net.cpp:124] Setting up relu1
I0501 04:11:52.746271 24217 net.cpp:131] Top shape: 111 20 (2220)
I0501 04:11:52.746278 24217 net.cpp:139] Memory required for data: 9565980
I0501 04:11:52.746282 24217 layer_factory.hpp:77] Creating layer ip2
I0501 04:11:52.746294 24217 net.cpp:86] Creating Layer ip2
I0501 04:11:52.746299 24217 net.cpp:408] ip2 <- ip1
I0501 04:11:52.746309 24217 net.cpp:382] ip2 -> ip2
I0501 04:11:52.746450 24217 net.cpp:124] Setting up ip2
I0501 04:11:52.746460 24217 net.cpp:131] Top shape: 111 40 (4440)
I0501 04:11:52.746465 24217 net.cpp:139] Memory required for data: 9583740
I0501 04:11:52.746477 24217 layer_factory.hpp:77] Creating layer relu2
I0501 04:11:52.746486 24217 net.cpp:86] Creating Layer relu2
I0501 04:11:52.746492 24217 net.cpp:408] relu2 <- ip2
I0501 04:11:52.746500 24217 net.cpp:369] relu2 -> ip2 (in-place)
I0501 04:11:52.746667 24217 net.cpp:124] Setting up relu2
I0501 04:11:52.746677 24217 net.cpp:131] Top shape: 111 40 (4440)
I0501 04:11:52.746682 24217 net.cpp:139] Memory required for data: 9601500
I0501 04:11:52.746688 24217 layer_factory.hpp:77] Creating layer ip3
I0501 04:11:52.746700 24217 net.cpp:86] Creating Layer ip3
I0501 04:11:52.746706 24217 net.cpp:408] ip3 <- ip2
I0501 04:11:52.746714 24217 net.cpp:382] ip3 -> ip3
I0501 04:11:52.746912 24217 net.cpp:124] Setting up ip3
I0501 04:11:52.746922 24217 net.cpp:131] Top shape: 111 80 (8880)
I0501 04:11:52.746927 24217 net.cpp:139] Memory required for data: 9637020
I0501 04:11:52.746935 24217 layer_factory.hpp:77] Creating layer relu3
I0501 04:11:52.746943 24217 net.cpp:86] Creating Layer relu3
I0501 04:11:52.746949 24217 net.cpp:408] relu3 <- ip3
I0501 04:11:52.746956 24217 net.cpp:369] relu3 -> ip3 (in-place)
I0501 04:11:52.747117 24217 net.cpp:124] Setting up relu3
I0501 04:11:52.747128 24217 net.cpp:131] Top shape: 111 80 (8880)
I0501 04:11:52.747133 24217 net.cpp:139] Memory required for data: 9672540
I0501 04:11:52.747138 24217 layer_factory.hpp:77] Creating layer ip4
I0501 04:11:52.747169 24217 net.cpp:86] Creating Layer ip4
I0501 04:11:52.747179 24217 net.cpp:408] ip4 <- ip3
I0501 04:11:52.747189 24217 net.cpp:382] ip4 -> ip4
I0501 04:11:52.747318 24217 net.cpp:124] Setting up ip4
I0501 04:11:52.747326 24217 net.cpp:131] Top shape: 111 10 (1110)
I0501 04:11:52.747331 24217 net.cpp:139] Memory required for data: 9676980
I0501 04:11:52.747344 24217 layer_factory.hpp:77] Creating layer loss
I0501 04:11:52.747354 24217 net.cpp:86] Creating Layer loss
I0501 04:11:52.747359 24217 net.cpp:408] loss <- ip4
I0501 04:11:52.747365 24217 net.cpp:408] loss <- label
I0501 04:11:52.747373 24217 net.cpp:382] loss -> loss
I0501 04:11:52.747393 24217 layer_factory.hpp:77] Creating layer loss
…
I0501 04:11:52.748697 24217 solver.cpp:173] Creating test net (#0) specified by net file: ECE595/cifar/train_test/var_everything/cifar_train_test_378.prototxt
I0501 04:11:52.748733 24217 net.cpp:296] The NetState phase (1) differed from the phase (0) specified by a rule in layer cifar
I0501 04:11:52.748845 24217 net.cpp:53] Initializing net from parameters: 
name: "CIFAR"
state {
  phase: TEST
}
layer {
  name: "cifar"
  type: "Data"
  top: "data"
  top: "label"
  include {
    phase: TEST
  }
  transform_param {
    mean_file: "examples/cifar10/mean.binaryproto"
  }
  data_param {
    source: "examples/cifar10/cifar10_test_lmdb"
    batch_size: 1000
    backend: LMDB
  }
}
layer {
  name: "conv0"
  type: "Convolution"
  bottom: "data"
  top: "conv0"
  param {
    lr_mult: 1
  }
  param {
    lr_mult: 2
  }
  convolution_param {
    num_output: 8
    pad: 2
    kernel_size: 5
    stride: 1
    weight_filler {
      type: "gaussian"
      std: 0.01
    }
    bias_filler {
      type: "constant"
    }
  }
}
layer {
  name: "Sigmoid0"
  type: "Sigmoid"
  bottom: "conv0"
  top: "Sigmoid0"
}
layer {
  name: "pool0"
  type: "Pooling"
  bottom: "Sigmoid0"
  top: "pool0"
  pooling_param {
    pool: AVE
    kernel_size: 3
    stride: 2
  }
}
layer {
  name: "ip1"
  type: "InnerProduct"
  bottom: "pool0"
  top: "ip1"
  param {
    lr_mult: 1
  }
  param {
    lr_mult: 2
  }
  inner_product_param {
    num_output: 20
    weight_filler {
      type: "gaussian"
      std: 0.01
    }
    bias_filler {
      type: "constant"
    }
  }
}
layer {
  name: "relu1"
  type: "ReLU"
  bottom: "ip1"
  top: "ip1"
}
layer {
  name: "ip2"
  type: "InnerProduct"
  bottom: "ip1"
  top: "ip2"
  param {
    lr_mult: 1
  }
  param {
    lr_mult: 2
  }
  inner_product_param {
    num_output: 40
    weight_filler {
      type: "gaussian"
      std: 0.01
    }
    bias_filler {
      type: "constant"
    }
  }
}
layer {
  name: "relu2"
  type: "ReLU"
  bottom: "ip2"
  top: "ip2"
}
layer {
  name: "ip3"
  type: "InnerProduct"
  bottom: "ip2"
  top: "ip3"
  param {
    lr_mult: 1
  }
  param {
    lr_mult: 2
  }
  inner_product_param {
    num_output: 80
    weight_filler {
      type: "gaussian"
      std: 0.01
    }
    bias_filler {
      type: "constant"
    }
  }
}
layer {
  name: "relu3"
  type: "ReLU"
  bottom: "ip3"
  top: "ip3"
}
layer {
  name: "ip4"
  type: "InnerProduct"
  bottom: "ip3"
  top: "ip4"
  param {
    lr_mult: 1
  }
  param {
    lr_mult: 2
  }
  inner_product_param {
    num_output: 10
    weight_filler {
      type: "gaussian"
      std: 0.01
    }
    bias_filler {
      type: "constant"
    }
  }
}
layer {
  name: "accuracy"
  type: "Accuracy"
  bottom: "ip4"
  bottom: "label"
  top: "accuracy"
  include {
    phase: TEST
  }
}
layer {
  name: "loss"
  type: "SoftmaxWithLoss"
  bottom: "ip4"
  bottom: "label"
  top: "loss"
}
I0501 04:11:52.748962 24217 layer_factory.hpp:77] Creating layer cifar
I0501 04:11:52.749042 24217 db_lmdb.cpp:35] Opened lmdb examples/cifar10/cifar10_test_lmdb
I0501 04:11:52.749060 24217 net.cpp:86] Creating Layer cifar
I0501 04:11:52.749069 24217 net.cpp:382] cifar -> data
I0501 04:11:52.749081 24217 net.cpp:382] cifar -> label
I0501 04:11:52.749092 24217 data_transformer.cpp:25] Loading mean file from: examples/cifar10/mean.binaryproto
I0501 04:11:52.749315 24217 data_layer.cpp:45] output data size: 1000,3,32,32
I0501 04:11:52.771953 24217 net.cpp:124] Setting up cifar
I0501 04:11:52.771982 24217 net.cpp:131] Top shape: 1000 3 32 32 (3072000)
I0501 04:11:52.771991 24217 net.cpp:131] Top shape: 1000 (1000)
I0501 04:11:52.771996 24217 net.cpp:139] Memory required for data: 12292000
I0501 04:11:52.772003 24217 layer_factory.hpp:77] Creating layer label_cifar_1_split
I0501 04:11:52.772019 24217 net.cpp:86] Creating Layer label_cifar_1_split
I0501 04:11:52.772025 24217 net.cpp:408] label_cifar_1_split <- label
I0501 04:11:52.772035 24217 net.cpp:382] label_cifar_1_split -> label_cifar_1_split_0
I0501 04:11:52.772048 24217 net.cpp:382] label_cifar_1_split -> label_cifar_1_split_1
I0501 04:11:52.772145 24217 net.cpp:124] Setting up label_cifar_1_split
I0501 04:11:52.772155 24217 net.cpp:131] Top shape: 1000 (1000)
I0501 04:11:52.772161 24217 net.cpp:131] Top shape: 1000 (1000)
I0501 04:11:52.772166 24217 net.cpp:139] Memory required for data: 12300000
I0501 04:11:52.772171 24217 layer_factory.hpp:77] Creating layer conv0
I0501 04:11:52.772188 24217 net.cpp:86] Creating Layer conv0
I0501 04:11:52.772195 24217 net.cpp:408] conv0 <- data
I0501 04:11:52.772203 24217 net.cpp:382] conv0 -> conv0
I0501 04:11:52.773607 24217 net.cpp:124] Setting up conv0
I0501 04:11:52.773622 24217 net.cpp:131] Top shape: 1000 8 32 32 (8192000)
I0501 04:11:52.773628 24217 net.cpp:139] Memory required for data: 45068000
I0501 04:11:52.773643 24217 layer_factory.hpp:77] Creating layer Sigmoid0
I0501 04:11:52.773653 24217 net.cpp:86] Creating Layer Sigmoid0
I0501 04:11:52.773659 24217 net.cpp:408] Sigmoid0 <- conv0
I0501 04:11:52.773668 24217 net.cpp:382] Sigmoid0 -> Sigmoid0
I0501 04:11:52.774799 24217 net.cpp:124] Setting up Sigmoid0
I0501 04:11:52.774811 24217 net.cpp:131] Top shape: 1000 8 32 32 (8192000)
I0501 04:11:52.774816 24217 net.cpp:139] Memory required for data: 77836000
I0501 04:11:52.774821 24217 layer_factory.hpp:77] Creating layer pool0
I0501 04:11:52.774833 24217 net.cpp:86] Creating Layer pool0
I0501 04:11:52.774839 24217 net.cpp:408] pool0 <- Sigmoid0
I0501 04:11:52.774847 24217 net.cpp:382] pool0 -> pool0
I0501 04:11:52.775017 24217 net.cpp:124] Setting up pool0
I0501 04:11:52.775027 24217 net.cpp:131] Top shape: 1000 8 16 16 (2048000)
I0501 04:11:52.775032 24217 net.cpp:139] Memory required for data: 86028000
I0501 04:11:52.775037 24217 layer_factory.hpp:77] Creating layer ip1
I0501 04:11:52.775048 24217 net.cpp:86] Creating Layer ip1
I0501 04:11:52.775054 24217 net.cpp:408] ip1 <- pool0
I0501 04:11:52.775063 24217 net.cpp:382] ip1 -> ip1
I0501 04:11:52.776228 24217 net.cpp:124] Setting up ip1
I0501 04:11:52.776238 24217 net.cpp:131] Top shape: 1000 20 (20000)
I0501 04:11:52.776243 24217 net.cpp:139] Memory required for data: 86108000
I0501 04:11:52.776275 24217 layer_factory.hpp:77] Creating layer relu1
I0501 04:11:52.776286 24217 net.cpp:86] Creating Layer relu1
I0501 04:11:52.776293 24217 net.cpp:408] relu1 <- ip1
I0501 04:11:52.776299 24217 net.cpp:369] relu1 -> ip1 (in-place)
I0501 04:11:52.776461 24217 net.cpp:124] Setting up relu1
I0501 04:11:52.776471 24217 net.cpp:131] Top shape: 1000 20 (20000)
I0501 04:11:52.776476 24217 net.cpp:139] Memory required for data: 86188000
I0501 04:11:52.776481 24217 layer_factory.hpp:77] Creating layer ip2
I0501 04:11:52.776490 24217 net.cpp:86] Creating Layer ip2
I0501 04:11:52.776496 24217 net.cpp:408] ip2 <- ip1
I0501 04:11:52.776504 24217 net.cpp:382] ip2 -> ip2
I0501 04:11:52.776635 24217 net.cpp:124] Setting up ip2
I0501 04:11:52.776644 24217 net.cpp:131] Top shape: 1000 40 (40000)
I0501 04:11:52.776649 24217 net.cpp:139] Memory required for data: 86348000
I0501 04:11:52.776660 24217 layer_factory.hpp:77] Creating layer relu2
I0501 04:11:52.776670 24217 net.cpp:86] Creating Layer relu2
I0501 04:11:52.776676 24217 net.cpp:408] relu2 <- ip2
I0501 04:11:52.776684 24217 net.cpp:369] relu2 -> ip2 (in-place)
I0501 04:11:52.777421 24217 net.cpp:124] Setting up relu2
I0501 04:11:52.777439 24217 net.cpp:131] Top shape: 1000 40 (40000)
I0501 04:11:52.777444 24217 net.cpp:139] Memory required for data: 86508000
I0501 04:11:52.777451 24217 layer_factory.hpp:77] Creating layer ip3
I0501 04:11:52.777460 24217 net.cpp:86] Creating Layer ip3
I0501 04:11:52.777467 24217 net.cpp:408] ip3 <- ip2
I0501 04:11:52.777474 24217 net.cpp:382] ip3 -> ip3
I0501 04:11:52.777668 24217 net.cpp:124] Setting up ip3
I0501 04:11:52.777678 24217 net.cpp:131] Top shape: 1000 80 (80000)
I0501 04:11:52.777683 24217 net.cpp:139] Memory required for data: 86828000
I0501 04:11:52.777691 24217 layer_factory.hpp:77] Creating layer relu3
I0501 04:11:52.777700 24217 net.cpp:86] Creating Layer relu3
I0501 04:11:52.777705 24217 net.cpp:408] relu3 <- ip3
I0501 04:11:52.777712 24217 net.cpp:369] relu3 -> ip3 (in-place)
I0501 04:11:52.777865 24217 net.cpp:124] Setting up relu3
I0501 04:11:52.777875 24217 net.cpp:131] Top shape: 1000 80 (80000)
I0501 04:11:52.777880 24217 net.cpp:139] Memory required for data: 87148000
I0501 04:11:52.777885 24217 layer_factory.hpp:77] Creating layer ip4
I0501 04:11:52.777895 24217 net.cpp:86] Creating Layer ip4
I0501 04:11:52.777901 24217 net.cpp:408] ip4 <- ip3
I0501 04:11:52.777909 24217 net.cpp:382] ip4 -> ip4
I0501 04:11:52.778034 24217 net.cpp:124] Setting up ip4
I0501 04:11:52.778043 24217 net.cpp:131] Top shape: 1000 10 (10000)
I0501 04:11:52.778048 24217 net.cpp:139] Memory required for data: 87188000
I0501 04:11:52.778060 24217 layer_factory.hpp:77] Creating layer ip4_ip4_0_split
I0501 04:11:52.778071 24217 net.cpp:86] Creating Layer ip4_ip4_0_split
I0501 04:11:52.778077 24217 net.cpp:408] ip4_ip4_0_split <- ip4
I0501 04:11:52.778085 24217 net.cpp:382] ip4_ip4_0_split -> ip4_ip4_0_split_0
I0501 04:11:52.778095 24217 net.cpp:382] ip4_ip4_0_split -> ip4_ip4_0_split_1
I0501 04:11:52.778133 24217 net.cpp:124] Setting up ip4_ip4_0_split
I0501 04:11:52.778141 24217 net.cpp:131] Top shape: 1000 10 (10000)
I0501 04:11:52.778147 24217 net.cpp:131] Top shape: 1000 10 (10000)
I0501 04:11:52.778152 24217 net.cpp:139] Memory required for data: 87268000
I0501 04:11:52.778157 24217 layer_factory.hpp:77] Creating layer accuracy
I0501 04:11:52.778165 24217 net.cpp:86] Creating Layer accuracy
I0501 04:11:52.778172 24217 net.cpp:408] accuracy <- ip4_ip4_0_split_0
I0501 04:11:52.778178 24217 net.cpp:408] accuracy <- label_cifar_1_split_0
I0501 04:11:52.778185 24217 net.cpp:382] accuracy -> accuracy
…
