…
I0501 06:36:43.177289  1096 net.cpp:296] The NetState phase (0) differed from the phase (1) specified by a rule in layer cifar
I0501 06:36:43.177305  1096 net.cpp:296] The NetState phase (0) differed from the phase (1) specified by a rule in layer accuracy
I0501 06:36:43.177387  1096 net.cpp:53] Initializing net from parameters: 
name: "CIFAR"
state {
  phase: TRAIN
  level: 0
  stage: ""
}
layer {
  name: "cifar"
  type: "Data"
  top: "data"
  top: "label"
  include {
    phase: TRAIN
  }
  transform_param {
    mean_file: "examples/cifar10/mean.binaryproto"
  }
  data_param {
    source: "examples/cifar10/cifar10_train_lmdb"
    batch_size: 111
    backend: LMDB
  }
}
layer {
  name: "conv0"
  type: "Convolution"
  bottom: "data"
  top: "conv0"
  param {
    lr_mult: 1
  }
  param {
    lr_mult: 2
  }
  convolution_param {
    num_output: 8
    pad: 2
    kernel_size: 5
    stride: 1
    weight_filler {
      type: "gaussian"
      std: 0.01
    }
    bias_filler {
      type: "constant"
    }
  }
}
layer {
  name: "Sigmoid0"
  type: "Sigmoid"
  bottom: "conv0"
  top: "Sigmoid0"
}
layer {
  name: "pool0"
  type: "Pooling"
  bottom: "Sigmoid0"
  top: "pool0"
  pooling_param {
    pool: AVE
    kernel_size: 3
    stride: 2
  }
}
layer {
  name: "ip1"
  type: "InnerProduct"
  bottom: "pool0"
  top: "ip1"
  param {
    lr_mult: 1
  }
  param {
    lr_mult: 2
  }
  inner_product_param {
    num_output: 160
    weight_filler {
      type: "gaussian"
      std: 0.01
    }
    bias_filler {
      type: "constant"
    }
  }
}
layer {
  name: "relu1"
  type: "ReLU"
  bottom: "ip1"
  top: "ip1"
}
layer {
  name: "ip2"
  type: "InnerProduct"
  bottom: "ip1"
  top: "ip2"
  param {
    lr_mult: 1
  }
  param {
    lr_mult: 2
  }
  inner_product_param {
    num_output: 80
    weight_filler {
      type: "gaussian"
      std: 0.01
    }
    bias_filler {
      type: "constant"
    }
  }
}
layer {
  name: "relu2"
  type: "ReLU"
  bottom: "ip2"
  top: "ip2"
}
layer {
  name: "ip3"
  type: "InnerProduct"
  bottom: "ip2"
  top: "ip3"
  param {
    lr_mult: 1
  }
  param {
    lr_mult: 2
  }
  inner_product_param {
    num_output: 20
    weight_filler {
      type: "gaussian"
      std: 0.01
    }
    bias_filler {
      type: "constant"
    }
  }
}
layer {
  name: "relu3"
  type: "ReLU"
  bottom: "ip3"
  top: "ip3"
}
layer {
  name: "ip4"
  type: "InnerProduct"
  bottom: "ip3"
  top: "ip4"
  param {
    lr_mult: 1
  }
  param {
    lr_mult: 2
  }
  inner_product_param {
    num_output: 10
    weight_filler {
      type: "gaussian"
      std: 0.01
    }
    bias_filler {
      type: "constant"
    }
  }
}
layer {
  name: "loss"
  type: "SoftmaxWithLoss"
  bottom: "ip4"
  bottom: "label"
  top: "loss"
}
I0501 06:36:43.177449  1096 layer_factory.hpp:77] Creating layer cifar
I0501 06:36:43.177531  1096 db_lmdb.cpp:35] Opened lmdb examples/cifar10/cifar10_train_lmdb
I0501 06:36:43.177551  1096 net.cpp:86] Creating Layer cifar
I0501 06:36:43.177559  1096 net.cpp:382] cifar -> data
I0501 06:36:43.177577  1096 net.cpp:382] cifar -> label
I0501 06:36:43.177587  1096 data_transformer.cpp:25] Loading mean file from: examples/cifar10/mean.binaryproto
I0501 06:36:43.179330  1096 data_layer.cpp:45] output data size: 111,3,32,32
I0501 06:36:43.185804  1096 net.cpp:124] Setting up cifar
I0501 06:36:43.185835  1096 net.cpp:131] Top shape: 111 3 32 32 (340992)
I0501 06:36:43.185840  1096 net.cpp:131] Top shape: 111 (111)
I0501 06:36:43.185842  1096 net.cpp:139] Memory required for data: 1364412
I0501 06:36:43.185861  1096 layer_factory.hpp:77] Creating layer conv0
I0501 06:36:43.185878  1096 net.cpp:86] Creating Layer conv0
I0501 06:36:43.185883  1096 net.cpp:408] conv0 <- data
I0501 06:36:43.185894  1096 net.cpp:382] conv0 -> conv0
I0501 06:36:43.421025  1096 net.cpp:124] Setting up conv0
I0501 06:36:43.421067  1096 net.cpp:131] Top shape: 111 8 32 32 (909312)
I0501 06:36:43.421072  1096 net.cpp:139] Memory required for data: 5001660
I0501 06:36:43.421088  1096 layer_factory.hpp:77] Creating layer Sigmoid0
I0501 06:36:43.421100  1096 net.cpp:86] Creating Layer Sigmoid0
I0501 06:36:43.421105  1096 net.cpp:408] Sigmoid0 <- conv0
I0501 06:36:43.421111  1096 net.cpp:382] Sigmoid0 -> Sigmoid0
I0501 06:36:43.421350  1096 net.cpp:124] Setting up Sigmoid0
I0501 06:36:43.421358  1096 net.cpp:131] Top shape: 111 8 32 32 (909312)
I0501 06:36:43.421362  1096 net.cpp:139] Memory required for data: 8638908
I0501 06:36:43.421365  1096 layer_factory.hpp:77] Creating layer pool0
I0501 06:36:43.421372  1096 net.cpp:86] Creating Layer pool0
I0501 06:36:43.421375  1096 net.cpp:408] pool0 <- Sigmoid0
I0501 06:36:43.421380  1096 net.cpp:382] pool0 -> pool0
I0501 06:36:43.422116  1096 net.cpp:124] Setting up pool0
I0501 06:36:43.422144  1096 net.cpp:131] Top shape: 111 8 16 16 (227328)
I0501 06:36:43.422147  1096 net.cpp:139] Memory required for data: 9548220
I0501 06:36:43.422152  1096 layer_factory.hpp:77] Creating layer ip1
I0501 06:36:43.422160  1096 net.cpp:86] Creating Layer ip1
I0501 06:36:43.422163  1096 net.cpp:408] ip1 <- pool0
I0501 06:36:43.422168  1096 net.cpp:382] ip1 -> ip1
I0501 06:36:43.431633  1096 net.cpp:124] Setting up ip1
I0501 06:36:43.431645  1096 net.cpp:131] Top shape: 111 160 (17760)
I0501 06:36:43.431665  1096 net.cpp:139] Memory required for data: 9619260
I0501 06:36:43.431673  1096 layer_factory.hpp:77] Creating layer relu1
I0501 06:36:43.431679  1096 net.cpp:86] Creating Layer relu1
I0501 06:36:43.431681  1096 net.cpp:408] relu1 <- ip1
I0501 06:36:43.431686  1096 net.cpp:369] relu1 -> ip1 (in-place)
I0501 06:36:43.431846  1096 net.cpp:124] Setting up relu1
I0501 06:36:43.431855  1096 net.cpp:131] Top shape: 111 160 (17760)
I0501 06:36:43.431859  1096 net.cpp:139] Memory required for data: 9690300
I0501 06:36:43.431861  1096 layer_factory.hpp:77] Creating layer ip2
I0501 06:36:43.431885  1096 net.cpp:86] Creating Layer ip2
I0501 06:36:43.431890  1096 net.cpp:408] ip2 <- ip1
I0501 06:36:43.431895  1096 net.cpp:382] ip2 -> ip2
I0501 06:36:43.433156  1096 net.cpp:124] Setting up ip2
I0501 06:36:43.433166  1096 net.cpp:131] Top shape: 111 80 (8880)
I0501 06:36:43.433185  1096 net.cpp:139] Memory required for data: 9725820
I0501 06:36:43.433193  1096 layer_factory.hpp:77] Creating layer relu2
I0501 06:36:43.433199  1096 net.cpp:86] Creating Layer relu2
I0501 06:36:43.433202  1096 net.cpp:408] relu2 <- ip2
I0501 06:36:43.433207  1096 net.cpp:369] relu2 -> ip2 (in-place)
I0501 06:36:43.433387  1096 net.cpp:124] Setting up relu2
I0501 06:36:43.433395  1096 net.cpp:131] Top shape: 111 80 (8880)
I0501 06:36:43.433398  1096 net.cpp:139] Memory required for data: 9761340
I0501 06:36:43.433401  1096 layer_factory.hpp:77] Creating layer ip3
I0501 06:36:43.433408  1096 net.cpp:86] Creating Layer ip3
I0501 06:36:43.433413  1096 net.cpp:408] ip3 <- ip2
I0501 06:36:43.433416  1096 net.cpp:382] ip3 -> ip3
I0501 06:36:43.433539  1096 net.cpp:124] Setting up ip3
I0501 06:36:43.433547  1096 net.cpp:131] Top shape: 111 20 (2220)
I0501 06:36:43.433548  1096 net.cpp:139] Memory required for data: 9770220
I0501 06:36:43.433553  1096 layer_factory.hpp:77] Creating layer relu3
I0501 06:36:43.433558  1096 net.cpp:86] Creating Layer relu3
I0501 06:36:43.433562  1096 net.cpp:408] relu3 <- ip3
I0501 06:36:43.433565  1096 net.cpp:369] relu3 -> ip3 (in-place)
I0501 06:36:43.433715  1096 net.cpp:124] Setting up relu3
I0501 06:36:43.433723  1096 net.cpp:131] Top shape: 111 20 (2220)
I0501 06:36:43.433727  1096 net.cpp:139] Memory required for data: 9779100
I0501 06:36:43.433729  1096 layer_factory.hpp:77] Creating layer ip4
I0501 06:36:43.433749  1096 net.cpp:86] Creating Layer ip4
I0501 06:36:43.433755  1096 net.cpp:408] ip4 <- ip3
I0501 06:36:43.433776  1096 net.cpp:382] ip4 -> ip4
I0501 06:36:43.433871  1096 net.cpp:124] Setting up ip4
I0501 06:36:43.433878  1096 net.cpp:131] Top shape: 111 10 (1110)
I0501 06:36:43.433881  1096 net.cpp:139] Memory required for data: 9783540
I0501 06:36:43.433889  1096 layer_factory.hpp:77] Creating layer loss
I0501 06:36:43.433895  1096 net.cpp:86] Creating Layer loss
I0501 06:36:43.433898  1096 net.cpp:408] loss <- ip4
I0501 06:36:43.433902  1096 net.cpp:408] loss <- label
I0501 06:36:43.433907  1096 net.cpp:382] loss -> loss
I0501 06:36:43.433923  1096 layer_factory.hpp:77] Creating layer loss
…
I0501 06:36:43.435190  1096 solver.cpp:173] Creating test net (#0) specified by net file: ECE595/cifar/train_test/var_everything/cifar_train_test_456.prototxt
I0501 06:36:43.435219  1096 net.cpp:296] The NetState phase (1) differed from the phase (0) specified by a rule in layer cifar
I0501 06:36:43.435325  1096 net.cpp:53] Initializing net from parameters: 
name: "CIFAR"
state {
  phase: TEST
}
layer {
  name: "cifar"
  type: "Data"
  top: "data"
  top: "label"
  include {
    phase: TEST
  }
  transform_param {
    mean_file: "examples/cifar10/mean.binaryproto"
  }
  data_param {
    source: "examples/cifar10/cifar10_test_lmdb"
    batch_size: 1000
    backend: LMDB
  }
}
layer {
  name: "conv0"
  type: "Convolution"
  bottom: "data"
  top: "conv0"
  param {
    lr_mult: 1
  }
  param {
    lr_mult: 2
  }
  convolution_param {
    num_output: 8
    pad: 2
    kernel_size: 5
    stride: 1
    weight_filler {
      type: "gaussian"
      std: 0.01
    }
    bias_filler {
      type: "constant"
    }
  }
}
layer {
  name: "Sigmoid0"
  type: "Sigmoid"
  bottom: "conv0"
  top: "Sigmoid0"
}
layer {
  name: "pool0"
  type: "Pooling"
  bottom: "Sigmoid0"
  top: "pool0"
  pooling_param {
    pool: AVE
    kernel_size: 3
    stride: 2
  }
}
layer {
  name: "ip1"
  type: "InnerProduct"
  bottom: "pool0"
  top: "ip1"
  param {
    lr_mult: 1
  }
  param {
    lr_mult: 2
  }
  inner_product_param {
    num_output: 160
    weight_filler {
      type: "gaussian"
      std: 0.01
    }
    bias_filler {
      type: "constant"
    }
  }
}
layer {
  name: "relu1"
  type: "ReLU"
  bottom: "ip1"
  top: "ip1"
}
layer {
  name: "ip2"
  type: "InnerProduct"
  bottom: "ip1"
  top: "ip2"
  param {
    lr_mult: 1
  }
  param {
    lr_mult: 2
  }
  inner_product_param {
    num_output: 80
    weight_filler {
      type: "gaussian"
      std: 0.01
    }
    bias_filler {
      type: "constant"
    }
  }
}
layer {
  name: "relu2"
  type: "ReLU"
  bottom: "ip2"
  top: "ip2"
}
layer {
  name: "ip3"
  type: "InnerProduct"
  bottom: "ip2"
  top: "ip3"
  param {
    lr_mult: 1
  }
  param {
    lr_mult: 2
  }
  inner_product_param {
    num_output: 20
    weight_filler {
      type: "gaussian"
      std: 0.01
    }
    bias_filler {
      type: "constant"
    }
  }
}
layer {
  name: "relu3"
  type: "ReLU"
  bottom: "ip3"
  top: "ip3"
}
layer {
  name: "ip4"
  type: "InnerProduct"
  bottom: "ip3"
  top: "ip4"
  param {
    lr_mult: 1
  }
  param {
    lr_mult: 2
  }
  inner_product_param {
    num_output: 10
    weight_filler {
      type: "gaussian"
      std: 0.01
    }
    bias_filler {
      type: "constant"
    }
  }
}
layer {
  name: "accuracy"
  type: "Accuracy"
  bottom: "ip4"
  bottom: "label"
  top: "accuracy"
  include {
    phase: TEST
  }
}
layer {
  name: "loss"
  type: "SoftmaxWithLoss"
  bottom: "ip4"
  bottom: "label"
  top: "loss"
}
I0501 06:36:43.435401  1096 layer_factory.hpp:77] Creating layer cifar
I0501 06:36:43.435446  1096 db_lmdb.cpp:35] Opened lmdb examples/cifar10/cifar10_test_lmdb
I0501 06:36:43.435457  1096 net.cpp:86] Creating Layer cifar
I0501 06:36:43.435461  1096 net.cpp:382] cifar -> data
I0501 06:36:43.435469  1096 net.cpp:382] cifar -> label
I0501 06:36:43.435475  1096 data_transformer.cpp:25] Loading mean file from: examples/cifar10/mean.binaryproto
I0501 06:36:43.435618  1096 data_layer.cpp:45] output data size: 1000,3,32,32
I0501 06:36:43.457099  1096 net.cpp:124] Setting up cifar
I0501 06:36:43.457140  1096 net.cpp:131] Top shape: 1000 3 32 32 (3072000)
I0501 06:36:43.457146  1096 net.cpp:131] Top shape: 1000 (1000)
I0501 06:36:43.457165  1096 net.cpp:139] Memory required for data: 12292000
I0501 06:36:43.457170  1096 layer_factory.hpp:77] Creating layer label_cifar_1_split
I0501 06:36:43.457201  1096 net.cpp:86] Creating Layer label_cifar_1_split
I0501 06:36:43.457206  1096 net.cpp:408] label_cifar_1_split <- label
I0501 06:36:43.457211  1096 net.cpp:382] label_cifar_1_split -> label_cifar_1_split_0
I0501 06:36:43.457221  1096 net.cpp:382] label_cifar_1_split -> label_cifar_1_split_1
I0501 06:36:43.457324  1096 net.cpp:124] Setting up label_cifar_1_split
I0501 06:36:43.457331  1096 net.cpp:131] Top shape: 1000 (1000)
I0501 06:36:43.457334  1096 net.cpp:131] Top shape: 1000 (1000)
I0501 06:36:43.457337  1096 net.cpp:139] Memory required for data: 12300000
I0501 06:36:43.457340  1096 layer_factory.hpp:77] Creating layer conv0
I0501 06:36:43.457367  1096 net.cpp:86] Creating Layer conv0
I0501 06:36:43.457370  1096 net.cpp:408] conv0 <- data
I0501 06:36:43.457376  1096 net.cpp:382] conv0 -> conv0
I0501 06:36:43.458890  1096 net.cpp:124] Setting up conv0
I0501 06:36:43.458919  1096 net.cpp:131] Top shape: 1000 8 32 32 (8192000)
I0501 06:36:43.458922  1096 net.cpp:139] Memory required for data: 45068000
I0501 06:36:43.458931  1096 layer_factory.hpp:77] Creating layer Sigmoid0
I0501 06:36:43.458940  1096 net.cpp:86] Creating Layer Sigmoid0
I0501 06:36:43.458943  1096 net.cpp:408] Sigmoid0 <- conv0
I0501 06:36:43.458947  1096 net.cpp:382] Sigmoid0 -> Sigmoid0
I0501 06:36:43.459102  1096 net.cpp:124] Setting up Sigmoid0
I0501 06:36:43.459111  1096 net.cpp:131] Top shape: 1000 8 32 32 (8192000)
I0501 06:36:43.459115  1096 net.cpp:139] Memory required for data: 77836000
I0501 06:36:43.459117  1096 layer_factory.hpp:77] Creating layer pool0
I0501 06:36:43.459125  1096 net.cpp:86] Creating Layer pool0
I0501 06:36:43.459127  1096 net.cpp:408] pool0 <- Sigmoid0
I0501 06:36:43.459132  1096 net.cpp:382] pool0 -> pool0
I0501 06:36:43.459316  1096 net.cpp:124] Setting up pool0
I0501 06:36:43.459324  1096 net.cpp:131] Top shape: 1000 8 16 16 (2048000)
I0501 06:36:43.459327  1096 net.cpp:139] Memory required for data: 86028000
I0501 06:36:43.459331  1096 layer_factory.hpp:77] Creating layer ip1
I0501 06:36:43.459337  1096 net.cpp:86] Creating Layer ip1
I0501 06:36:43.459341  1096 net.cpp:408] ip1 <- pool0
I0501 06:36:43.459345  1096 net.cpp:382] ip1 -> ip1
I0501 06:36:43.468768  1096 net.cpp:124] Setting up ip1
I0501 06:36:43.468797  1096 net.cpp:131] Top shape: 1000 160 (160000)
I0501 06:36:43.468801  1096 net.cpp:139] Memory required for data: 86668000
I0501 06:36:43.468843  1096 layer_factory.hpp:77] Creating layer relu1
I0501 06:36:43.468852  1096 net.cpp:86] Creating Layer relu1
I0501 06:36:43.468854  1096 net.cpp:408] relu1 <- ip1
I0501 06:36:43.468859  1096 net.cpp:369] relu1 -> ip1 (in-place)
I0501 06:36:43.469027  1096 net.cpp:124] Setting up relu1
I0501 06:36:43.469035  1096 net.cpp:131] Top shape: 1000 160 (160000)
I0501 06:36:43.469038  1096 net.cpp:139] Memory required for data: 87308000
I0501 06:36:43.469043  1096 layer_factory.hpp:77] Creating layer ip2
I0501 06:36:43.469050  1096 net.cpp:86] Creating Layer ip2
I0501 06:36:43.469053  1096 net.cpp:408] ip2 <- ip1
I0501 06:36:43.469058  1096 net.cpp:382] ip2 -> ip2
I0501 06:36:43.469545  1096 net.cpp:124] Setting up ip2
I0501 06:36:43.469552  1096 net.cpp:131] Top shape: 1000 80 (80000)
I0501 06:36:43.469570  1096 net.cpp:139] Memory required for data: 87628000
I0501 06:36:43.469576  1096 layer_factory.hpp:77] Creating layer relu2
I0501 06:36:43.469583  1096 net.cpp:86] Creating Layer relu2
I0501 06:36:43.469585  1096 net.cpp:408] relu2 <- ip2
I0501 06:36:43.469589  1096 net.cpp:369] relu2 -> ip2 (in-place)
I0501 06:36:43.470355  1096 net.cpp:124] Setting up relu2
I0501 06:36:43.470366  1096 net.cpp:131] Top shape: 1000 80 (80000)
I0501 06:36:43.470386  1096 net.cpp:139] Memory required for data: 87948000
I0501 06:36:43.470388  1096 layer_factory.hpp:77] Creating layer ip3
I0501 06:36:43.470396  1096 net.cpp:86] Creating Layer ip3
I0501 06:36:43.470398  1096 net.cpp:408] ip3 <- ip2
I0501 06:36:43.470404  1096 net.cpp:382] ip3 -> ip3
I0501 06:36:43.470557  1096 net.cpp:124] Setting up ip3
I0501 06:36:43.470564  1096 net.cpp:131] Top shape: 1000 20 (20000)
I0501 06:36:43.470568  1096 net.cpp:139] Memory required for data: 88028000
I0501 06:36:43.470573  1096 layer_factory.hpp:77] Creating layer relu3
I0501 06:36:43.470578  1096 net.cpp:86] Creating Layer relu3
I0501 06:36:43.470582  1096 net.cpp:408] relu3 <- ip3
I0501 06:36:43.470585  1096 net.cpp:369] relu3 -> ip3 (in-place)
I0501 06:36:43.470724  1096 net.cpp:124] Setting up relu3
I0501 06:36:43.470732  1096 net.cpp:131] Top shape: 1000 20 (20000)
I0501 06:36:43.470736  1096 net.cpp:139] Memory required for data: 88108000
I0501 06:36:43.470738  1096 layer_factory.hpp:77] Creating layer ip4
I0501 06:36:43.470744  1096 net.cpp:86] Creating Layer ip4
I0501 06:36:43.470747  1096 net.cpp:408] ip4 <- ip3
I0501 06:36:43.470752  1096 net.cpp:382] ip4 -> ip4
I0501 06:36:43.470849  1096 net.cpp:124] Setting up ip4
I0501 06:36:43.470854  1096 net.cpp:131] Top shape: 1000 10 (10000)
I0501 06:36:43.470857  1096 net.cpp:139] Memory required for data: 88148000
I0501 06:36:43.470865  1096 layer_factory.hpp:77] Creating layer ip4_ip4_0_split
I0501 06:36:43.470880  1096 net.cpp:86] Creating Layer ip4_ip4_0_split
I0501 06:36:43.470882  1096 net.cpp:408] ip4_ip4_0_split <- ip4
I0501 06:36:43.470886  1096 net.cpp:382] ip4_ip4_0_split -> ip4_ip4_0_split_0
I0501 06:36:43.470892  1096 net.cpp:382] ip4_ip4_0_split -> ip4_ip4_0_split_1
I0501 06:36:43.470924  1096 net.cpp:124] Setting up ip4_ip4_0_split
I0501 06:36:43.470929  1096 net.cpp:131] Top shape: 1000 10 (10000)
I0501 06:36:43.470932  1096 net.cpp:131] Top shape: 1000 10 (10000)
I0501 06:36:43.470935  1096 net.cpp:139] Memory required for data: 88228000
I0501 06:36:43.470937  1096 layer_factory.hpp:77] Creating layer accuracy
I0501 06:36:43.470944  1096 net.cpp:86] Creating Layer accuracy
I0501 06:36:43.470947  1096 net.cpp:408] accuracy <- ip4_ip4_0_split_0
I0501 06:36:43.470957  1096 net.cpp:408] accuracy <- label_cifar_1_split_0
I0501 06:36:43.470963  1096 net.cpp:382] accuracy -> accuracy
…
