…
I0430 21:27:28.867945 30871 net.cpp:296] The NetState phase (0) differed from the phase (1) specified by a rule in layer cifar
I0430 21:27:28.867961 30871 net.cpp:296] The NetState phase (0) differed from the phase (1) specified by a rule in layer accuracy
I0430 21:27:28.868053 30871 net.cpp:53] Initializing net from parameters: 
name: "CIFAR"
state {
  phase: TRAIN
  level: 0
  stage: ""
}
layer {
  name: "cifar"
  type: "Data"
  top: "data"
  top: "label"
  include {
    phase: TRAIN
  }
  transform_param {
    mean_file: "examples/cifar10/mean.binaryproto"
  }
  data_param {
    source: "examples/cifar10/cifar10_train_lmdb"
    batch_size: 111
    backend: LMDB
  }
}
layer {
  name: "conv0"
  type: "Convolution"
  bottom: "data"
  top: "conv0"
  param {
    lr_mult: 1
  }
  param {
    lr_mult: 2
  }
  convolution_param {
    num_output: 8
    pad: 2
    kernel_size: 3
    stride: 1
    weight_filler {
      type: "gaussian"
      std: 0.01
    }
    bias_filler {
      type: "constant"
    }
  }
}
layer {
  name: "Sigmoid0"
  type: "Sigmoid"
  bottom: "conv0"
  top: "Sigmoid0"
}
layer {
  name: "pool0"
  type: "Pooling"
  bottom: "Sigmoid0"
  top: "pool0"
  pooling_param {
    pool: AVE
    kernel_size: 3
    stride: 2
  }
}
layer {
  name: "ip1"
  type: "InnerProduct"
  bottom: "pool0"
  top: "ip1"
  param {
    lr_mult: 1
  }
  param {
    lr_mult: 2
  }
  inner_product_param {
    num_output: 10
    weight_filler {
      type: "gaussian"
      std: 0.01
    }
    bias_filler {
      type: "constant"
    }
  }
}
layer {
  name: "relu1"
  type: "ReLU"
  bottom: "ip1"
  top: "ip1"
}
layer {
  name: "ip2"
  type: "InnerProduct"
  bottom: "ip1"
  top: "ip2"
  param {
    lr_mult: 1
  }
  param {
    lr_mult: 2
  }
  inner_product_param {
    num_output: 40
    weight_filler {
      type: "gaussian"
      std: 0.01
    }
    bias_filler {
      type: "constant"
    }
  }
}
layer {
  name: "relu2"
  type: "ReLU"
  bottom: "ip2"
  top: "ip2"
}
layer {
  name: "ip3"
  type: "InnerProduct"
  bottom: "ip2"
  top: "ip3"
  param {
    lr_mult: 1
  }
  param {
    lr_mult: 2
  }
  inner_product_param {
    num_output: 10
    weight_filler {
      type: "gaussian"
      std: 0.01
    }
    bias_filler {
      type: "constant"
    }
  }
}
layer {
  name: "loss"
  type: "SoftmaxWithLoss"
  bottom: "ip3"
  bottom: "label"
  top: "loss"
}
I0430 21:27:28.868127 30871 layer_factory.hpp:77] Creating layer cifar
I0430 21:27:28.868227 30871 db_lmdb.cpp:35] Opened lmdb examples/cifar10/cifar10_train_lmdb
I0430 21:27:28.868254 30871 net.cpp:86] Creating Layer cifar
I0430 21:27:28.868263 30871 net.cpp:382] cifar -> data
I0430 21:27:28.868286 30871 net.cpp:382] cifar -> label
I0430 21:27:28.868299 30871 data_transformer.cpp:25] Loading mean file from: examples/cifar10/mean.binaryproto
I0430 21:27:28.870409 30871 data_layer.cpp:45] output data size: 111,3,32,32
I0430 21:27:28.878289 30871 net.cpp:124] Setting up cifar
I0430 21:27:28.878307 30871 net.cpp:131] Top shape: 111 3 32 32 (340992)
I0430 21:27:28.878316 30871 net.cpp:131] Top shape: 111 (111)
I0430 21:27:28.878320 30871 net.cpp:139] Memory required for data: 1364412
I0430 21:27:28.878327 30871 layer_factory.hpp:77] Creating layer conv0
I0430 21:27:28.878345 30871 net.cpp:86] Creating Layer conv0
I0430 21:27:28.878351 30871 net.cpp:408] conv0 <- data
I0430 21:27:28.878363 30871 net.cpp:382] conv0 -> conv0
I0430 21:27:29.155985 30871 net.cpp:124] Setting up conv0
I0430 21:27:29.156029 30871 net.cpp:131] Top shape: 111 8 34 34 (1026528)
I0430 21:27:29.156034 30871 net.cpp:139] Memory required for data: 5470524
I0430 21:27:29.156049 30871 layer_factory.hpp:77] Creating layer Sigmoid0
I0430 21:27:29.156059 30871 net.cpp:86] Creating Layer Sigmoid0
I0430 21:27:29.156064 30871 net.cpp:408] Sigmoid0 <- conv0
I0430 21:27:29.156069 30871 net.cpp:382] Sigmoid0 -> Sigmoid0
I0430 21:27:29.156265 30871 net.cpp:124] Setting up Sigmoid0
I0430 21:27:29.156273 30871 net.cpp:131] Top shape: 111 8 34 34 (1026528)
I0430 21:27:29.156283 30871 net.cpp:139] Memory required for data: 9576636
I0430 21:27:29.156286 30871 layer_factory.hpp:77] Creating layer pool0
I0430 21:27:29.156294 30871 net.cpp:86] Creating Layer pool0
I0430 21:27:29.156297 30871 net.cpp:408] pool0 <- Sigmoid0
I0430 21:27:29.156301 30871 net.cpp:382] pool0 -> pool0
I0430 21:27:29.157024 30871 net.cpp:124] Setting up pool0
I0430 21:27:29.157037 30871 net.cpp:131] Top shape: 111 8 17 17 (256632)
I0430 21:27:29.157040 30871 net.cpp:139] Memory required for data: 10603164
I0430 21:27:29.157044 30871 layer_factory.hpp:77] Creating layer ip1
I0430 21:27:29.157054 30871 net.cpp:86] Creating Layer ip1
I0430 21:27:29.157074 30871 net.cpp:408] ip1 <- pool0
I0430 21:27:29.157081 30871 net.cpp:382] ip1 -> ip1
I0430 21:27:29.158650 30871 net.cpp:124] Setting up ip1
I0430 21:27:29.158663 30871 net.cpp:131] Top shape: 111 10 (1110)
I0430 21:27:29.158665 30871 net.cpp:139] Memory required for data: 10607604
I0430 21:27:29.158674 30871 layer_factory.hpp:77] Creating layer relu1
I0430 21:27:29.158679 30871 net.cpp:86] Creating Layer relu1
I0430 21:27:29.158682 30871 net.cpp:408] relu1 <- ip1
I0430 21:27:29.158686 30871 net.cpp:369] relu1 -> ip1 (in-place)
I0430 21:27:29.158828 30871 net.cpp:124] Setting up relu1
I0430 21:27:29.158835 30871 net.cpp:131] Top shape: 111 10 (1110)
I0430 21:27:29.158838 30871 net.cpp:139] Memory required for data: 10612044
I0430 21:27:29.158841 30871 layer_factory.hpp:77] Creating layer ip2
I0430 21:27:29.158848 30871 net.cpp:86] Creating Layer ip2
I0430 21:27:29.158850 30871 net.cpp:408] ip2 <- ip1
I0430 21:27:29.158855 30871 net.cpp:382] ip2 -> ip2
I0430 21:27:29.159770 30871 net.cpp:124] Setting up ip2
I0430 21:27:29.159781 30871 net.cpp:131] Top shape: 111 40 (4440)
I0430 21:27:29.159785 30871 net.cpp:139] Memory required for data: 10629804
I0430 21:27:29.159792 30871 layer_factory.hpp:77] Creating layer relu2
I0430 21:27:29.159798 30871 net.cpp:86] Creating Layer relu2
I0430 21:27:29.159801 30871 net.cpp:408] relu2 <- ip2
I0430 21:27:29.159806 30871 net.cpp:369] relu2 -> ip2 (in-place)
I0430 21:27:29.159987 30871 net.cpp:124] Setting up relu2
I0430 21:27:29.159996 30871 net.cpp:131] Top shape: 111 40 (4440)
I0430 21:27:29.159998 30871 net.cpp:139] Memory required for data: 10647564
I0430 21:27:29.160001 30871 layer_factory.hpp:77] Creating layer ip3
I0430 21:27:29.160008 30871 net.cpp:86] Creating Layer ip3
I0430 21:27:29.160012 30871 net.cpp:408] ip3 <- ip2
I0430 21:27:29.160017 30871 net.cpp:382] ip3 -> ip3
I0430 21:27:29.160111 30871 net.cpp:124] Setting up ip3
I0430 21:27:29.160117 30871 net.cpp:131] Top shape: 111 10 (1110)
I0430 21:27:29.160120 30871 net.cpp:139] Memory required for data: 10652004
I0430 21:27:29.160125 30871 layer_factory.hpp:77] Creating layer loss
I0430 21:27:29.160130 30871 net.cpp:86] Creating Layer loss
I0430 21:27:29.160133 30871 net.cpp:408] loss <- ip3
I0430 21:27:29.160136 30871 net.cpp:408] loss <- label
I0430 21:27:29.160141 30871 net.cpp:382] loss -> loss
I0430 21:27:29.160156 30871 layer_factory.hpp:77] Creating layer loss
…
I0430 21:27:29.160753 30871 solver.cpp:173] Creating test net (#0) specified by net file: ECE595/cifar/train_test/var_everything/cifar_train_test_162.prototxt
I0430 21:27:29.160776 30871 net.cpp:296] The NetState phase (1) differed from the phase (0) specified by a rule in layer cifar
I0430 21:27:29.160897 30871 net.cpp:53] Initializing net from parameters: 
name: "CIFAR"
state {
  phase: TEST
}
layer {
  name: "cifar"
  type: "Data"
  top: "data"
  top: "label"
  include {
    phase: TEST
  }
  transform_param {
    mean_file: "examples/cifar10/mean.binaryproto"
  }
  data_param {
    source: "examples/cifar10/cifar10_test_lmdb"
    batch_size: 1000
    backend: LMDB
  }
}
layer {
  name: "conv0"
  type: "Convolution"
  bottom: "data"
  top: "conv0"
  param {
    lr_mult: 1
  }
  param {
    lr_mult: 2
  }
  convolution_param {
    num_output: 8
    pad: 2
    kernel_size: 3
    stride: 1
    weight_filler {
      type: "gaussian"
      std: 0.01
    }
    bias_filler {
      type: "constant"
    }
  }
}
layer {
  name: "Sigmoid0"
  type: "Sigmoid"
  bottom: "conv0"
  top: "Sigmoid0"
}
layer {
  name: "pool0"
  type: "Pooling"
  bottom: "Sigmoid0"
  top: "pool0"
  pooling_param {
    pool: AVE
    kernel_size: 3
    stride: 2
  }
}
layer {
  name: "ip1"
  type: "InnerProduct"
  bottom: "pool0"
  top: "ip1"
  param {
    lr_mult: 1
  }
  param {
    lr_mult: 2
  }
  inner_product_param {
    num_output: 10
    weight_filler {
      type: "gaussian"
      std: 0.01
    }
    bias_filler {
      type: "constant"
    }
  }
}
layer {
  name: "relu1"
  type: "ReLU"
  bottom: "ip1"
  top: "ip1"
}
layer {
  name: "ip2"
  type: "InnerProduct"
  bottom: "ip1"
  top: "ip2"
  param {
    lr_mult: 1
  }
  param {
    lr_mult: 2
  }
  inner_product_param {
    num_output: 40
    weight_filler {
      type: "gaussian"
      std: 0.01
    }
    bias_filler {
      type: "constant"
    }
  }
}
layer {
  name: "relu2"
  type: "ReLU"
  bottom: "ip2"
  top: "ip2"
}
layer {
  name: "ip3"
  type: "InnerProduct"
  bottom: "ip2"
  top: "ip3"
  param {
    lr_mult: 1
  }
  param {
    lr_mult: 2
  }
  inner_product_param {
    num_output: 10
    weight_filler {
      type: "gaussian"
      std: 0.01
    }
    bias_filler {
      type: "constant"
    }
  }
}
layer {
  name: "accuracy"
  type: "Accuracy"
  bottom: "ip3"
  bottom: "label"
  top: "accuracy"
  include {
    phase: TEST
  }
}
layer {
  name: "loss"
  type: "SoftmaxWithLoss"
  bottom: "ip3"
  bottom: "label"
  top: "loss"
}
I0430 21:27:29.160960 30871 layer_factory.hpp:77] Creating layer cifar
I0430 21:27:29.161006 30871 db_lmdb.cpp:35] Opened lmdb examples/cifar10/cifar10_test_lmdb
I0430 21:27:29.161018 30871 net.cpp:86] Creating Layer cifar
I0430 21:27:29.161023 30871 net.cpp:382] cifar -> data
I0430 21:27:29.161031 30871 net.cpp:382] cifar -> label
I0430 21:27:29.161037 30871 data_transformer.cpp:25] Loading mean file from: examples/cifar10/mean.binaryproto
I0430 21:27:29.161203 30871 data_layer.cpp:45] output data size: 1000,3,32,32
I0430 21:27:29.182754 30871 net.cpp:124] Setting up cifar
I0430 21:27:29.182780 30871 net.cpp:131] Top shape: 1000 3 32 32 (3072000)
I0430 21:27:29.182786 30871 net.cpp:131] Top shape: 1000 (1000)
I0430 21:27:29.182790 30871 net.cpp:139] Memory required for data: 12292000
I0430 21:27:29.182795 30871 layer_factory.hpp:77] Creating layer label_cifar_1_split
I0430 21:27:29.182807 30871 net.cpp:86] Creating Layer label_cifar_1_split
I0430 21:27:29.182828 30871 net.cpp:408] label_cifar_1_split <- label
I0430 21:27:29.182834 30871 net.cpp:382] label_cifar_1_split -> label_cifar_1_split_0
I0430 21:27:29.182858 30871 net.cpp:382] label_cifar_1_split -> label_cifar_1_split_1
I0430 21:27:29.182946 30871 net.cpp:124] Setting up label_cifar_1_split
I0430 21:27:29.182953 30871 net.cpp:131] Top shape: 1000 (1000)
I0430 21:27:29.182957 30871 net.cpp:131] Top shape: 1000 (1000)
I0430 21:27:29.182960 30871 net.cpp:139] Memory required for data: 12300000
I0430 21:27:29.182963 30871 layer_factory.hpp:77] Creating layer conv0
I0430 21:27:29.182974 30871 net.cpp:86] Creating Layer conv0
I0430 21:27:29.182978 30871 net.cpp:408] conv0 <- data
I0430 21:27:29.182983 30871 net.cpp:382] conv0 -> conv0
I0430 21:27:29.184437 30871 net.cpp:124] Setting up conv0
I0430 21:27:29.184463 30871 net.cpp:131] Top shape: 1000 8 34 34 (9248000)
I0430 21:27:29.184468 30871 net.cpp:139] Memory required for data: 49292000
I0430 21:27:29.184476 30871 layer_factory.hpp:77] Creating layer Sigmoid0
I0430 21:27:29.184484 30871 net.cpp:86] Creating Layer Sigmoid0
I0430 21:27:29.184487 30871 net.cpp:408] Sigmoid0 <- conv0
I0430 21:27:29.184492 30871 net.cpp:382] Sigmoid0 -> Sigmoid0
I0430 21:27:29.186316 30871 net.cpp:124] Setting up Sigmoid0
I0430 21:27:29.186329 30871 net.cpp:131] Top shape: 1000 8 34 34 (9248000)
I0430 21:27:29.186332 30871 net.cpp:139] Memory required for data: 86284000
I0430 21:27:29.186336 30871 layer_factory.hpp:77] Creating layer pool0
I0430 21:27:29.186345 30871 net.cpp:86] Creating Layer pool0
I0430 21:27:29.186348 30871 net.cpp:408] pool0 <- Sigmoid0
I0430 21:27:29.186353 30871 net.cpp:382] pool0 -> pool0
I0430 21:27:29.186544 30871 net.cpp:124] Setting up pool0
I0430 21:27:29.186553 30871 net.cpp:131] Top shape: 1000 8 17 17 (2312000)
I0430 21:27:29.186556 30871 net.cpp:139] Memory required for data: 95532000
I0430 21:27:29.186559 30871 layer_factory.hpp:77] Creating layer ip1
I0430 21:27:29.186568 30871 net.cpp:86] Creating Layer ip1
I0430 21:27:29.186571 30871 net.cpp:408] ip1 <- pool0
I0430 21:27:29.186576 30871 net.cpp:382] ip1 -> ip1
I0430 21:27:29.187304 30871 net.cpp:124] Setting up ip1
I0430 21:27:29.187311 30871 net.cpp:131] Top shape: 1000 10 (10000)
I0430 21:27:29.187314 30871 net.cpp:139] Memory required for data: 95572000
I0430 21:27:29.187321 30871 layer_factory.hpp:77] Creating layer relu1
I0430 21:27:29.187326 30871 net.cpp:86] Creating Layer relu1
I0430 21:27:29.187330 30871 net.cpp:408] relu1 <- ip1
I0430 21:27:29.187333 30871 net.cpp:369] relu1 -> ip1 (in-place)
I0430 21:27:29.187486 30871 net.cpp:124] Setting up relu1
I0430 21:27:29.187495 30871 net.cpp:131] Top shape: 1000 10 (10000)
I0430 21:27:29.187499 30871 net.cpp:139] Memory required for data: 95612000
I0430 21:27:29.187501 30871 layer_factory.hpp:77] Creating layer ip2
I0430 21:27:29.187507 30871 net.cpp:86] Creating Layer ip2
I0430 21:27:29.187510 30871 net.cpp:408] ip2 <- ip1
I0430 21:27:29.187515 30871 net.cpp:382] ip2 -> ip2
I0430 21:27:29.187638 30871 net.cpp:124] Setting up ip2
I0430 21:27:29.187646 30871 net.cpp:131] Top shape: 1000 40 (40000)
I0430 21:27:29.187649 30871 net.cpp:139] Memory required for data: 95772000
I0430 21:27:29.187656 30871 layer_factory.hpp:77] Creating layer relu2
I0430 21:27:29.187664 30871 net.cpp:86] Creating Layer relu2
I0430 21:27:29.187667 30871 net.cpp:408] relu2 <- ip2
I0430 21:27:29.187670 30871 net.cpp:369] relu2 -> ip2 (in-place)
I0430 21:27:29.187816 30871 net.cpp:124] Setting up relu2
I0430 21:27:29.187824 30871 net.cpp:131] Top shape: 1000 40 (40000)
I0430 21:27:29.187829 30871 net.cpp:139] Memory required for data: 95932000
I0430 21:27:29.187831 30871 layer_factory.hpp:77] Creating layer ip3
I0430 21:27:29.187837 30871 net.cpp:86] Creating Layer ip3
I0430 21:27:29.187840 30871 net.cpp:408] ip3 <- ip2
I0430 21:27:29.187844 30871 net.cpp:382] ip3 -> ip3
I0430 21:27:29.187961 30871 net.cpp:124] Setting up ip3
I0430 21:27:29.187968 30871 net.cpp:131] Top shape: 1000 10 (10000)
I0430 21:27:29.187973 30871 net.cpp:139] Memory required for data: 95972000
I0430 21:27:29.187995 30871 layer_factory.hpp:77] Creating layer ip3_ip3_0_split
I0430 21:27:29.188001 30871 net.cpp:86] Creating Layer ip3_ip3_0_split
I0430 21:27:29.188005 30871 net.cpp:408] ip3_ip3_0_split <- ip3
I0430 21:27:29.188009 30871 net.cpp:382] ip3_ip3_0_split -> ip3_ip3_0_split_0
I0430 21:27:29.188015 30871 net.cpp:382] ip3_ip3_0_split -> ip3_ip3_0_split_1
I0430 21:27:29.188045 30871 net.cpp:124] Setting up ip3_ip3_0_split
I0430 21:27:29.188052 30871 net.cpp:131] Top shape: 1000 10 (10000)
I0430 21:27:29.188055 30871 net.cpp:131] Top shape: 1000 10 (10000)
I0430 21:27:29.188063 30871 net.cpp:139] Memory required for data: 96052000
I0430 21:27:29.188066 30871 layer_factory.hpp:77] Creating layer accuracy
I0430 21:27:29.188072 30871 net.cpp:86] Creating Layer accuracy
I0430 21:27:29.188076 30871 net.cpp:408] accuracy <- ip3_ip3_0_split_0
I0430 21:27:29.188079 30871 net.cpp:408] accuracy <- label_cifar_1_split_0
I0430 21:27:29.188083 30871 net.cpp:382] accuracy -> accuracy
…
