…
I0430 20:03:33.745718 27710 net.cpp:296] The NetState phase (0) differed from the phase (1) specified by a rule in layer cifar
I0430 20:03:33.745738 27710 net.cpp:296] The NetState phase (0) differed from the phase (1) specified by a rule in layer accuracy
I0430 20:03:33.745823 27710 net.cpp:53] Initializing net from parameters: 
name: "CIFAR"
state {
  phase: TRAIN
  level: 0
  stage: ""
}
layer {
  name: "cifar"
  type: "Data"
  top: "data"
  top: "label"
  include {
    phase: TRAIN
  }
  transform_param {
    mean_file: "examples/cifar10/mean.binaryproto"
  }
  data_param {
    source: "examples/cifar10/cifar10_train_lmdb"
    batch_size: 111
    backend: LMDB
  }
}
layer {
  name: "ip1"
  type: "InnerProduct"
  bottom: "data"
  top: "ip1"
  param {
    lr_mult: 1
  }
  param {
    lr_mult: 2
  }
  inner_product_param {
    num_output: 80
    weight_filler {
      type: "gaussian"
      std: 0.01
    }
    bias_filler {
      type: "constant"
    }
  }
}
layer {
  name: "relu1"
  type: "ReLU"
  bottom: "ip1"
  top: "ip1"
}
layer {
  name: "ip2"
  type: "InnerProduct"
  bottom: "ip1"
  top: "ip2"
  param {
    lr_mult: 1
  }
  param {
    lr_mult: 2
  }
  inner_product_param {
    num_output: 40
    weight_filler {
      type: "gaussian"
      std: 0.01
    }
    bias_filler {
      type: "constant"
    }
  }
}
layer {
  name: "relu2"
  type: "ReLU"
  bottom: "ip2"
  top: "ip2"
}
layer {
  name: "ip3"
  type: "InnerProduct"
  bottom: "ip2"
  top: "ip3"
  param {
    lr_mult: 1
  }
  param {
    lr_mult: 2
  }
  inner_product_param {
    num_output: 40
    weight_filler {
      type: "gaussian"
      std: 0.01
    }
    bias_filler {
      type: "constant"
    }
  }
}
layer {
  name: "relu3"
  type: "ReLU"
  bottom: "ip3"
  top: "ip3"
}
layer {
  name: "ip4"
  type: "InnerProduct"
  bottom: "ip3"
  top: "ip4"
  param {
    lr_mult: 1
  }
  param {
    lr_mult: 2
  }
  inner_product_param {
    num_output: 10
    weight_filler {
      type: "gaussian"
      std: 0.01
    }
    bias_filler {
      type: "constant"
    }
  }
}
layer {
  name: "loss"
  type: "SoftmaxWithLoss"
  bottom: "ip4"
  bottom: "label"
  top: "loss"
}
I0430 20:03:33.745893 27710 layer_factory.hpp:77] Creating layer cifar
I0430 20:03:33.745995 27710 db_lmdb.cpp:35] Opened lmdb examples/cifar10/cifar10_train_lmdb
I0430 20:03:33.746024 27710 net.cpp:86] Creating Layer cifar
I0430 20:03:33.746033 27710 net.cpp:382] cifar -> data
I0430 20:03:33.746057 27710 net.cpp:382] cifar -> label
I0430 20:03:33.746074 27710 data_transformer.cpp:25] Loading mean file from: examples/cifar10/mean.binaryproto
I0430 20:03:33.748184 27710 data_layer.cpp:45] output data size: 111,3,32,32
I0430 20:03:33.756321 27710 net.cpp:124] Setting up cifar
I0430 20:03:33.756340 27710 net.cpp:131] Top shape: 111 3 32 32 (340992)
I0430 20:03:33.756346 27710 net.cpp:131] Top shape: 111 (111)
I0430 20:03:33.756350 27710 net.cpp:139] Memory required for data: 1364412
I0430 20:03:33.756357 27710 layer_factory.hpp:77] Creating layer ip1
I0430 20:03:33.756372 27710 net.cpp:86] Creating Layer ip1
I0430 20:03:33.756377 27710 net.cpp:408] ip1 <- data
I0430 20:03:33.756392 27710 net.cpp:382] ip1 -> ip1
I0430 20:03:33.765647 27710 net.cpp:124] Setting up ip1
I0430 20:03:33.765664 27710 net.cpp:131] Top shape: 111 80 (8880)
I0430 20:03:33.765668 27710 net.cpp:139] Memory required for data: 1399932
I0430 20:03:33.765684 27710 layer_factory.hpp:77] Creating layer relu1
I0430 20:03:33.765694 27710 net.cpp:86] Creating Layer relu1
I0430 20:03:33.765714 27710 net.cpp:408] relu1 <- ip1
I0430 20:03:33.765724 27710 net.cpp:369] relu1 -> ip1 (in-place)
I0430 20:03:34.053443 27710 net.cpp:124] Setting up relu1
I0430 20:03:34.053473 27710 net.cpp:131] Top shape: 111 80 (8880)
I0430 20:03:34.053478 27710 net.cpp:139] Memory required for data: 1435452
I0430 20:03:34.053484 27710 layer_factory.hpp:77] Creating layer ip2
I0430 20:03:34.053499 27710 net.cpp:86] Creating Layer ip2
I0430 20:03:34.053505 27710 net.cpp:408] ip2 <- ip1
I0430 20:03:34.053514 27710 net.cpp:382] ip2 -> ip2
I0430 20:03:34.053797 27710 net.cpp:124] Setting up ip2
I0430 20:03:34.053812 27710 net.cpp:131] Top shape: 111 40 (4440)
I0430 20:03:34.053817 27710 net.cpp:139] Memory required for data: 1453212
I0430 20:03:34.053834 27710 layer_factory.hpp:77] Creating layer relu2
I0430 20:03:34.053848 27710 net.cpp:86] Creating Layer relu2
I0430 20:03:34.053858 27710 net.cpp:408] relu2 <- ip2
I0430 20:03:34.053865 27710 net.cpp:369] relu2 -> ip2 (in-place)
I0430 20:03:34.054790 27710 net.cpp:124] Setting up relu2
I0430 20:03:34.054805 27710 net.cpp:131] Top shape: 111 40 (4440)
I0430 20:03:34.054811 27710 net.cpp:139] Memory required for data: 1470972
I0430 20:03:34.054814 27710 layer_factory.hpp:77] Creating layer ip3
I0430 20:03:34.054823 27710 net.cpp:86] Creating Layer ip3
I0430 20:03:34.054827 27710 net.cpp:408] ip3 <- ip2
I0430 20:03:34.054833 27710 net.cpp:382] ip3 -> ip3
I0430 20:03:34.054999 27710 net.cpp:124] Setting up ip3
I0430 20:03:34.055008 27710 net.cpp:131] Top shape: 111 40 (4440)
I0430 20:03:34.055012 27710 net.cpp:139] Memory required for data: 1488732
I0430 20:03:34.055023 27710 layer_factory.hpp:77] Creating layer relu3
I0430 20:03:34.055043 27710 net.cpp:86] Creating Layer relu3
I0430 20:03:34.055052 27710 net.cpp:408] relu3 <- ip3
I0430 20:03:34.055060 27710 net.cpp:369] relu3 -> ip3 (in-place)
I0430 20:03:34.055256 27710 net.cpp:124] Setting up relu3
I0430 20:03:34.055268 27710 net.cpp:131] Top shape: 111 40 (4440)
I0430 20:03:34.055271 27710 net.cpp:139] Memory required for data: 1506492
I0430 20:03:34.055275 27710 layer_factory.hpp:77] Creating layer ip4
I0430 20:03:34.055282 27710 net.cpp:86] Creating Layer ip4
I0430 20:03:34.055289 27710 net.cpp:408] ip4 <- ip3
I0430 20:03:34.055294 27710 net.cpp:382] ip4 -> ip4
I0430 20:03:34.056418 27710 net.cpp:124] Setting up ip4
I0430 20:03:34.056434 27710 net.cpp:131] Top shape: 111 10 (1110)
I0430 20:03:34.056438 27710 net.cpp:139] Memory required for data: 1510932
I0430 20:03:34.056447 27710 layer_factory.hpp:77] Creating layer loss
I0430 20:03:34.056454 27710 net.cpp:86] Creating Layer loss
I0430 20:03:34.056458 27710 net.cpp:408] loss <- ip4
I0430 20:03:34.056464 27710 net.cpp:408] loss <- label
I0430 20:03:34.056470 27710 net.cpp:382] loss -> loss
I0430 20:03:34.056493 27710 layer_factory.hpp:77] Creating layer loss
…
I0430 20:03:34.057180 27710 solver.cpp:173] Creating test net (#0) specified by net file: ECE595/cifar/train_test/var_everything/cifar_train_test_117.prototxt
I0430 20:03:34.057226 27710 net.cpp:296] The NetState phase (1) differed from the phase (0) specified by a rule in layer cifar
I0430 20:03:34.057318 27710 net.cpp:53] Initializing net from parameters: 
name: "CIFAR"
state {
  phase: TEST
}
layer {
  name: "cifar"
  type: "Data"
  top: "data"
  top: "label"
  include {
    phase: TEST
  }
  transform_param {
    mean_file: "examples/cifar10/mean.binaryproto"
  }
  data_param {
    source: "examples/cifar10/cifar10_test_lmdb"
    batch_size: 1000
    backend: LMDB
  }
}
layer {
  name: "ip1"
  type: "InnerProduct"
  bottom: "data"
  top: "ip1"
  param {
    lr_mult: 1
  }
  param {
    lr_mult: 2
  }
  inner_product_param {
    num_output: 80
    weight_filler {
      type: "gaussian"
      std: 0.01
    }
    bias_filler {
      type: "constant"
    }
  }
}
layer {
  name: "relu1"
  type: "ReLU"
  bottom: "ip1"
  top: "ip1"
}
layer {
  name: "ip2"
  type: "InnerProduct"
  bottom: "ip1"
  top: "ip2"
  param {
    lr_mult: 1
  }
  param {
    lr_mult: 2
  }
  inner_product_param {
    num_output: 40
    weight_filler {
      type: "gaussian"
      std: 0.01
    }
    bias_filler {
      type: "constant"
    }
  }
}
layer {
  name: "relu2"
  type: "ReLU"
  bottom: "ip2"
  top: "ip2"
}
layer {
  name: "ip3"
  type: "InnerProduct"
  bottom: "ip2"
  top: "ip3"
  param {
    lr_mult: 1
  }
  param {
    lr_mult: 2
  }
  inner_product_param {
    num_output: 40
    weight_filler {
      type: "gaussian"
      std: 0.01
    }
    bias_filler {
      type: "constant"
    }
  }
}
layer {
  name: "relu3"
  type: "ReLU"
  bottom: "ip3"
  top: "ip3"
}
layer {
  name: "ip4"
  type: "InnerProduct"
  bottom: "ip3"
  top: "ip4"
  param {
    lr_mult: 1
  }
  param {
    lr_mult: 2
  }
  inner_product_param {
    num_output: 10
    weight_filler {
      type: "gaussian"
      std: 0.01
    }
    bias_filler {
      type: "constant"
    }
  }
}
layer {
  name: "accuracy"
  type: "Accuracy"
  bottom: "ip4"
  bottom: "label"
  top: "accuracy"
  include {
    phase: TEST
  }
}
layer {
  name: "loss"
  type: "SoftmaxWithLoss"
  bottom: "ip4"
  bottom: "label"
  top: "loss"
}
I0430 20:03:34.057389 27710 layer_factory.hpp:77] Creating layer cifar
I0430 20:03:34.057440 27710 db_lmdb.cpp:35] Opened lmdb examples/cifar10/cifar10_test_lmdb
I0430 20:03:34.057454 27710 net.cpp:86] Creating Layer cifar
I0430 20:03:34.057459 27710 net.cpp:382] cifar -> data
I0430 20:03:34.057469 27710 net.cpp:382] cifar -> label
I0430 20:03:34.057476 27710 data_transformer.cpp:25] Loading mean file from: examples/cifar10/mean.binaryproto
I0430 20:03:34.057644 27710 data_layer.cpp:45] output data size: 1000,3,32,32
I0430 20:03:34.083544 27710 net.cpp:124] Setting up cifar
I0430 20:03:34.083575 27710 net.cpp:131] Top shape: 1000 3 32 32 (3072000)
I0430 20:03:34.083582 27710 net.cpp:131] Top shape: 1000 (1000)
I0430 20:03:34.083586 27710 net.cpp:139] Memory required for data: 12292000
I0430 20:03:34.083592 27710 layer_factory.hpp:77] Creating layer label_cifar_1_split
I0430 20:03:34.083611 27710 net.cpp:86] Creating Layer label_cifar_1_split
I0430 20:03:34.083617 27710 net.cpp:408] label_cifar_1_split <- label
I0430 20:03:34.083624 27710 net.cpp:382] label_cifar_1_split -> label_cifar_1_split_0
I0430 20:03:34.083634 27710 net.cpp:382] label_cifar_1_split -> label_cifar_1_split_1
I0430 20:03:34.083725 27710 net.cpp:124] Setting up label_cifar_1_split
I0430 20:03:34.083735 27710 net.cpp:131] Top shape: 1000 (1000)
I0430 20:03:34.083739 27710 net.cpp:131] Top shape: 1000 (1000)
I0430 20:03:34.083744 27710 net.cpp:139] Memory required for data: 12300000
I0430 20:03:34.083747 27710 layer_factory.hpp:77] Creating layer ip1
I0430 20:03:34.083758 27710 net.cpp:86] Creating Layer ip1
I0430 20:03:34.083762 27710 net.cpp:408] ip1 <- data
I0430 20:03:34.083767 27710 net.cpp:382] ip1 -> ip1
I0430 20:03:34.092056 27710 net.cpp:124] Setting up ip1
I0430 20:03:34.092069 27710 net.cpp:131] Top shape: 1000 80 (80000)
I0430 20:03:34.092073 27710 net.cpp:139] Memory required for data: 12620000
I0430 20:03:34.092103 27710 layer_factory.hpp:77] Creating layer relu1
I0430 20:03:34.092110 27710 net.cpp:86] Creating Layer relu1
I0430 20:03:34.092114 27710 net.cpp:408] relu1 <- ip1
I0430 20:03:34.092119 27710 net.cpp:369] relu1 -> ip1 (in-place)
I0430 20:03:34.093053 27710 net.cpp:124] Setting up relu1
I0430 20:03:34.093070 27710 net.cpp:131] Top shape: 1000 80 (80000)
I0430 20:03:34.093073 27710 net.cpp:139] Memory required for data: 12940000
I0430 20:03:34.093078 27710 layer_factory.hpp:77] Creating layer ip2
I0430 20:03:34.093087 27710 net.cpp:86] Creating Layer ip2
I0430 20:03:34.093092 27710 net.cpp:408] ip2 <- ip1
I0430 20:03:34.093098 27710 net.cpp:382] ip2 -> ip2
I0430 20:03:34.093333 27710 net.cpp:124] Setting up ip2
I0430 20:03:34.093341 27710 net.cpp:131] Top shape: 1000 40 (40000)
I0430 20:03:34.093346 27710 net.cpp:139] Memory required for data: 13100000
I0430 20:03:34.093354 27710 layer_factory.hpp:77] Creating layer relu2
I0430 20:03:34.093360 27710 net.cpp:86] Creating Layer relu2
I0430 20:03:34.093364 27710 net.cpp:408] relu2 <- ip2
I0430 20:03:34.093370 27710 net.cpp:369] relu2 -> ip2 (in-place)
I0430 20:03:34.093556 27710 net.cpp:124] Setting up relu2
I0430 20:03:34.093566 27710 net.cpp:131] Top shape: 1000 40 (40000)
I0430 20:03:34.093570 27710 net.cpp:139] Memory required for data: 13260000
I0430 20:03:34.093575 27710 layer_factory.hpp:77] Creating layer ip3
I0430 20:03:34.093582 27710 net.cpp:86] Creating Layer ip3
I0430 20:03:34.093586 27710 net.cpp:408] ip3 <- ip2
I0430 20:03:34.093592 27710 net.cpp:382] ip3 -> ip3
I0430 20:03:34.093757 27710 net.cpp:124] Setting up ip3
I0430 20:03:34.093765 27710 net.cpp:131] Top shape: 1000 40 (40000)
I0430 20:03:34.093770 27710 net.cpp:139] Memory required for data: 13420000
I0430 20:03:34.093778 27710 layer_factory.hpp:77] Creating layer relu3
I0430 20:03:34.093785 27710 net.cpp:86] Creating Layer relu3
I0430 20:03:34.093788 27710 net.cpp:408] relu3 <- ip3
I0430 20:03:34.093792 27710 net.cpp:369] relu3 -> ip3 (in-place)
I0430 20:03:34.093976 27710 net.cpp:124] Setting up relu3
I0430 20:03:34.093986 27710 net.cpp:131] Top shape: 1000 40 (40000)
I0430 20:03:34.093989 27710 net.cpp:139] Memory required for data: 13580000
I0430 20:03:34.093992 27710 layer_factory.hpp:77] Creating layer ip4
I0430 20:03:34.094002 27710 net.cpp:86] Creating Layer ip4
I0430 20:03:34.094005 27710 net.cpp:408] ip4 <- ip3
I0430 20:03:34.094010 27710 net.cpp:382] ip4 -> ip4
I0430 20:03:34.094142 27710 net.cpp:124] Setting up ip4
I0430 20:03:34.094151 27710 net.cpp:131] Top shape: 1000 10 (10000)
I0430 20:03:34.094154 27710 net.cpp:139] Memory required for data: 13620000
I0430 20:03:34.094161 27710 layer_factory.hpp:77] Creating layer ip4_ip4_0_split
I0430 20:03:34.094167 27710 net.cpp:86] Creating Layer ip4_ip4_0_split
I0430 20:03:34.094171 27710 net.cpp:408] ip4_ip4_0_split <- ip4
I0430 20:03:34.094175 27710 net.cpp:382] ip4_ip4_0_split -> ip4_ip4_0_split_0
I0430 20:03:34.094183 27710 net.cpp:382] ip4_ip4_0_split -> ip4_ip4_0_split_1
I0430 20:03:34.094218 27710 net.cpp:124] Setting up ip4_ip4_0_split
I0430 20:03:34.094225 27710 net.cpp:131] Top shape: 1000 10 (10000)
I0430 20:03:34.094230 27710 net.cpp:131] Top shape: 1000 10 (10000)
I0430 20:03:34.094233 27710 net.cpp:139] Memory required for data: 13700000
I0430 20:03:34.094238 27710 layer_factory.hpp:77] Creating layer accuracy
I0430 20:03:34.094249 27710 net.cpp:86] Creating Layer accuracy
I0430 20:03:34.094252 27710 net.cpp:408] accuracy <- ip4_ip4_0_split_0
I0430 20:03:34.094257 27710 net.cpp:408] accuracy <- label_cifar_1_split_0
I0430 20:03:34.094262 27710 net.cpp:382] accuracy -> accuracy
…
