…
I0430 22:16:10.788349  1295 net.cpp:296] The NetState phase (0) differed from the phase (1) specified by a rule in layer cifar
I0430 22:16:10.788369  1295 net.cpp:296] The NetState phase (0) differed from the phase (1) specified by a rule in layer accuracy
I0430 22:16:10.788475  1295 net.cpp:53] Initializing net from parameters: 
name: "CIFAR"
state {
  phase: TRAIN
  level: 0
  stage: ""
}
layer {
  name: "cifar"
  type: "Data"
  top: "data"
  top: "label"
  include {
    phase: TRAIN
  }
  transform_param {
    mean_file: "examples/cifar10/mean.binaryproto"
  }
  data_param {
    source: "examples/cifar10/cifar10_train_lmdb"
    batch_size: 111
    backend: LMDB
  }
}
layer {
  name: "conv0"
  type: "Convolution"
  bottom: "data"
  top: "conv0"
  param {
    lr_mult: 1
  }
  param {
    lr_mult: 2
  }
  convolution_param {
    num_output: 8
    pad: 2
    kernel_size: 3
    stride: 1
    weight_filler {
      type: "gaussian"
      std: 0.01
    }
    bias_filler {
      type: "constant"
    }
  }
}
layer {
  name: "Sigmoid0"
  type: "Sigmoid"
  bottom: "conv0"
  top: "Sigmoid0"
}
layer {
  name: "pool0"
  type: "Pooling"
  bottom: "Sigmoid0"
  top: "pool0"
  pooling_param {
    pool: AVE
    kernel_size: 3
    stride: 2
  }
}
layer {
  name: "ip1"
  type: "InnerProduct"
  bottom: "pool0"
  top: "ip1"
  param {
    lr_mult: 1
  }
  param {
    lr_mult: 2
  }
  inner_product_param {
    num_output: 10
    weight_filler {
      type: "gaussian"
      std: 0.01
    }
    bias_filler {
      type: "constant"
    }
  }
}
layer {
  name: "relu1"
  type: "ReLU"
  bottom: "ip1"
  top: "ip1"
}
layer {
  name: "ip2"
  type: "InnerProduct"
  bottom: "ip1"
  top: "ip2"
  param {
    lr_mult: 1
  }
  param {
    lr_mult: 2
  }
  inner_product_param {
    num_output: 10
    weight_filler {
      type: "gaussian"
      std: 0.01
    }
    bias_filler {
      type: "constant"
    }
  }
}
layer {
  name: "relu2"
  type: "ReLU"
  bottom: "ip2"
  top: "ip2"
}
layer {
  name: "ip3"
  type: "InnerProduct"
  bottom: "ip2"
  top: "ip3"
  param {
    lr_mult: 1
  }
  param {
    lr_mult: 2
  }
  inner_product_param {
    num_output: 80
    weight_filler {
      type: "gaussian"
      std: 0.01
    }
    bias_filler {
      type: "constant"
    }
  }
}
layer {
  name: "relu3"
  type: "ReLU"
  bottom: "ip3"
  top: "ip3"
}
layer {
  name: "ip4"
  type: "InnerProduct"
  bottom: "ip3"
  top: "ip4"
  param {
    lr_mult: 1
  }
  param {
    lr_mult: 2
  }
  inner_product_param {
    num_output: 10
    weight_filler {
      type: "gaussian"
      std: 0.01
    }
    bias_filler {
      type: "constant"
    }
  }
}
layer {
  name: "loss"
  type: "SoftmaxWithLoss"
  bottom: "ip4"
  bottom: "label"
  top: "loss"
}
I0430 22:16:10.788558  1295 layer_factory.hpp:77] Creating layer cifar
I0430 22:16:10.788656  1295 db_lmdb.cpp:35] Opened lmdb examples/cifar10/cifar10_train_lmdb
I0430 22:16:10.788683  1295 net.cpp:86] Creating Layer cifar
I0430 22:16:10.788693  1295 net.cpp:382] cifar -> data
I0430 22:16:10.788717  1295 net.cpp:382] cifar -> label
I0430 22:16:10.788728  1295 data_transformer.cpp:25] Loading mean file from: examples/cifar10/mean.binaryproto
I0430 22:16:10.790846  1295 data_layer.cpp:45] output data size: 111,3,32,32
I0430 22:16:10.798699  1295 net.cpp:124] Setting up cifar
I0430 22:16:10.798719  1295 net.cpp:131] Top shape: 111 3 32 32 (340992)
I0430 22:16:10.798725  1295 net.cpp:131] Top shape: 111 (111)
I0430 22:16:10.798728  1295 net.cpp:139] Memory required for data: 1364412
I0430 22:16:10.798753  1295 layer_factory.hpp:77] Creating layer conv0
I0430 22:16:10.798773  1295 net.cpp:86] Creating Layer conv0
I0430 22:16:10.798777  1295 net.cpp:408] conv0 <- data
I0430 22:16:10.798794  1295 net.cpp:382] conv0 -> conv0
I0430 22:16:11.082697  1295 net.cpp:124] Setting up conv0
I0430 22:16:11.082725  1295 net.cpp:131] Top shape: 111 8 34 34 (1026528)
I0430 22:16:11.082728  1295 net.cpp:139] Memory required for data: 5470524
I0430 22:16:11.082743  1295 layer_factory.hpp:77] Creating layer Sigmoid0
I0430 22:16:11.082756  1295 net.cpp:86] Creating Layer Sigmoid0
I0430 22:16:11.082759  1295 net.cpp:408] Sigmoid0 <- conv0
I0430 22:16:11.082764  1295 net.cpp:382] Sigmoid0 -> Sigmoid0
I0430 22:16:11.082942  1295 net.cpp:124] Setting up Sigmoid0
I0430 22:16:11.082952  1295 net.cpp:131] Top shape: 111 8 34 34 (1026528)
I0430 22:16:11.082954  1295 net.cpp:139] Memory required for data: 9576636
I0430 22:16:11.082957  1295 layer_factory.hpp:77] Creating layer pool0
I0430 22:16:11.082964  1295 net.cpp:86] Creating Layer pool0
I0430 22:16:11.082967  1295 net.cpp:408] pool0 <- Sigmoid0
I0430 22:16:11.082973  1295 net.cpp:382] pool0 -> pool0
I0430 22:16:11.083706  1295 net.cpp:124] Setting up pool0
I0430 22:16:11.083720  1295 net.cpp:131] Top shape: 111 8 17 17 (256632)
I0430 22:16:11.083724  1295 net.cpp:139] Memory required for data: 10603164
I0430 22:16:11.083727  1295 layer_factory.hpp:77] Creating layer ip1
I0430 22:16:11.083736  1295 net.cpp:86] Creating Layer ip1
I0430 22:16:11.083739  1295 net.cpp:408] ip1 <- pool0
I0430 22:16:11.083745  1295 net.cpp:382] ip1 -> ip1
I0430 22:16:11.085299  1295 net.cpp:124] Setting up ip1
I0430 22:16:11.085311  1295 net.cpp:131] Top shape: 111 10 (1110)
I0430 22:16:11.085315  1295 net.cpp:139] Memory required for data: 10607604
I0430 22:16:11.085322  1295 layer_factory.hpp:77] Creating layer relu1
I0430 22:16:11.085330  1295 net.cpp:86] Creating Layer relu1
I0430 22:16:11.085332  1295 net.cpp:408] relu1 <- ip1
I0430 22:16:11.085336  1295 net.cpp:369] relu1 -> ip1 (in-place)
I0430 22:16:11.085489  1295 net.cpp:124] Setting up relu1
I0430 22:16:11.085497  1295 net.cpp:131] Top shape: 111 10 (1110)
I0430 22:16:11.085500  1295 net.cpp:139] Memory required for data: 10612044
I0430 22:16:11.085503  1295 layer_factory.hpp:77] Creating layer ip2
I0430 22:16:11.085510  1295 net.cpp:86] Creating Layer ip2
I0430 22:16:11.085512  1295 net.cpp:408] ip2 <- ip1
I0430 22:16:11.085517  1295 net.cpp:382] ip2 -> ip2
I0430 22:16:11.085609  1295 net.cpp:124] Setting up ip2
I0430 22:16:11.085616  1295 net.cpp:131] Top shape: 111 10 (1110)
I0430 22:16:11.085619  1295 net.cpp:139] Memory required for data: 10616484
I0430 22:16:11.085626  1295 layer_factory.hpp:77] Creating layer relu2
I0430 22:16:11.085630  1295 net.cpp:86] Creating Layer relu2
I0430 22:16:11.085633  1295 net.cpp:408] relu2 <- ip2
I0430 22:16:11.085638  1295 net.cpp:369] relu2 -> ip2 (in-place)
I0430 22:16:11.085782  1295 net.cpp:124] Setting up relu2
I0430 22:16:11.085789  1295 net.cpp:131] Top shape: 111 10 (1110)
I0430 22:16:11.085793  1295 net.cpp:139] Memory required for data: 10620924
I0430 22:16:11.085795  1295 layer_factory.hpp:77] Creating layer ip3
I0430 22:16:11.085803  1295 net.cpp:86] Creating Layer ip3
I0430 22:16:11.085805  1295 net.cpp:408] ip3 <- ip2
I0430 22:16:11.085810  1295 net.cpp:382] ip3 -> ip3
I0430 22:16:11.086755  1295 net.cpp:124] Setting up ip3
I0430 22:16:11.086766  1295 net.cpp:131] Top shape: 111 80 (8880)
I0430 22:16:11.086769  1295 net.cpp:139] Memory required for data: 10656444
I0430 22:16:11.086776  1295 layer_factory.hpp:77] Creating layer relu3
I0430 22:16:11.086781  1295 net.cpp:86] Creating Layer relu3
I0430 22:16:11.086784  1295 net.cpp:408] relu3 <- ip3
I0430 22:16:11.086788  1295 net.cpp:369] relu3 -> ip3 (in-place)
I0430 22:16:11.086941  1295 net.cpp:124] Setting up relu3
I0430 22:16:11.086949  1295 net.cpp:131] Top shape: 111 80 (8880)
I0430 22:16:11.086952  1295 net.cpp:139] Memory required for data: 10691964
I0430 22:16:11.086956  1295 layer_factory.hpp:77] Creating layer ip4
I0430 22:16:11.086976  1295 net.cpp:86] Creating Layer ip4
I0430 22:16:11.086978  1295 net.cpp:408] ip4 <- ip3
I0430 22:16:11.086983  1295 net.cpp:382] ip4 -> ip4
I0430 22:16:11.087097  1295 net.cpp:124] Setting up ip4
I0430 22:16:11.087105  1295 net.cpp:131] Top shape: 111 10 (1110)
I0430 22:16:11.087108  1295 net.cpp:139] Memory required for data: 10696404
I0430 22:16:11.087116  1295 layer_factory.hpp:77] Creating layer loss
I0430 22:16:11.087121  1295 net.cpp:86] Creating Layer loss
I0430 22:16:11.087123  1295 net.cpp:408] loss <- ip4
I0430 22:16:11.087127  1295 net.cpp:408] loss <- label
I0430 22:16:11.087132  1295 net.cpp:382] loss -> loss
I0430 22:16:11.087148  1295 layer_factory.hpp:77] Creating layer loss
…
I0430 22:16:11.088340  1295 solver.cpp:173] Creating test net (#0) specified by net file: ECE595/cifar/train_test/var_everything/cifar_train_test_188.prototxt
I0430 22:16:11.088367  1295 net.cpp:296] The NetState phase (1) differed from the phase (0) specified by a rule in layer cifar
I0430 22:16:11.088456  1295 net.cpp:53] Initializing net from parameters: 
name: "CIFAR"
state {
  phase: TEST
}
layer {
  name: "cifar"
  type: "Data"
  top: "data"
  top: "label"
  include {
    phase: TEST
  }
  transform_param {
    mean_file: "examples/cifar10/mean.binaryproto"
  }
  data_param {
    source: "examples/cifar10/cifar10_test_lmdb"
    batch_size: 1000
    backend: LMDB
  }
}
layer {
  name: "conv0"
  type: "Convolution"
  bottom: "data"
  top: "conv0"
  param {
    lr_mult: 1
  }
  param {
    lr_mult: 2
  }
  convolution_param {
    num_output: 8
    pad: 2
    kernel_size: 3
    stride: 1
    weight_filler {
      type: "gaussian"
      std: 0.01
    }
    bias_filler {
      type: "constant"
    }
  }
}
layer {
  name: "Sigmoid0"
  type: "Sigmoid"
  bottom: "conv0"
  top: "Sigmoid0"
}
layer {
  name: "pool0"
  type: "Pooling"
  bottom: "Sigmoid0"
  top: "pool0"
  pooling_param {
    pool: AVE
    kernel_size: 3
    stride: 2
  }
}
layer {
  name: "ip1"
  type: "InnerProduct"
  bottom: "pool0"
  top: "ip1"
  param {
    lr_mult: 1
  }
  param {
    lr_mult: 2
  }
  inner_product_param {
    num_output: 10
    weight_filler {
      type: "gaussian"
      std: 0.01
    }
    bias_filler {
      type: "constant"
    }
  }
}
layer {
  name: "relu1"
  type: "ReLU"
  bottom: "ip1"
  top: "ip1"
}
layer {
  name: "ip2"
  type: "InnerProduct"
  bottom: "ip1"
  top: "ip2"
  param {
    lr_mult: 1
  }
  param {
    lr_mult: 2
  }
  inner_product_param {
    num_output: 10
    weight_filler {
      type: "gaussian"
      std: 0.01
    }
    bias_filler {
      type: "constant"
    }
  }
}
layer {
  name: "relu2"
  type: "ReLU"
  bottom: "ip2"
  top: "ip2"
}
layer {
  name: "ip3"
  type: "InnerProduct"
  bottom: "ip2"
  top: "ip3"
  param {
    lr_mult: 1
  }
  param {
    lr_mult: 2
  }
  inner_product_param {
    num_output: 80
    weight_filler {
      type: "gaussian"
      std: 0.01
    }
    bias_filler {
      type: "constant"
    }
  }
}
layer {
  name: "relu3"
  type: "ReLU"
  bottom: "ip3"
  top: "ip3"
}
layer {
  name: "ip4"
  type: "InnerProduct"
  bottom: "ip3"
  top: "ip4"
  param {
    lr_mult: 1
  }
  param {
    lr_mult: 2
  }
  inner_product_param {
    num_output: 10
    weight_filler {
      type: "gaussian"
      std: 0.01
    }
    bias_filler {
      type: "constant"
    }
  }
}
layer {
  name: "accuracy"
  type: "Accuracy"
  bottom: "ip4"
  bottom: "label"
  top: "accuracy"
  include {
    phase: TEST
  }
}
layer {
  name: "loss"
  type: "SoftmaxWithLoss"
  bottom: "ip4"
  bottom: "label"
  top: "loss"
}
I0430 22:16:11.088531  1295 layer_factory.hpp:77] Creating layer cifar
I0430 22:16:11.088577  1295 db_lmdb.cpp:35] Opened lmdb examples/cifar10/cifar10_test_lmdb
I0430 22:16:11.088588  1295 net.cpp:86] Creating Layer cifar
I0430 22:16:11.088593  1295 net.cpp:382] cifar -> data
I0430 22:16:11.088600  1295 net.cpp:382] cifar -> label
I0430 22:16:11.088608  1295 data_transformer.cpp:25] Loading mean file from: examples/cifar10/mean.binaryproto
I0430 22:16:11.088744  1295 data_layer.cpp:45] output data size: 1000,3,32,32
I0430 22:16:11.110378  1295 net.cpp:124] Setting up cifar
I0430 22:16:11.110417  1295 net.cpp:131] Top shape: 1000 3 32 32 (3072000)
I0430 22:16:11.110424  1295 net.cpp:131] Top shape: 1000 (1000)
I0430 22:16:11.110426  1295 net.cpp:139] Memory required for data: 12292000
I0430 22:16:11.110432  1295 layer_factory.hpp:77] Creating layer label_cifar_1_split
I0430 22:16:11.110447  1295 net.cpp:86] Creating Layer label_cifar_1_split
I0430 22:16:11.110451  1295 net.cpp:408] label_cifar_1_split <- label
I0430 22:16:11.110457  1295 net.cpp:382] label_cifar_1_split -> label_cifar_1_split_0
I0430 22:16:11.110481  1295 net.cpp:382] label_cifar_1_split -> label_cifar_1_split_1
I0430 22:16:11.110587  1295 net.cpp:124] Setting up label_cifar_1_split
I0430 22:16:11.110595  1295 net.cpp:131] Top shape: 1000 (1000)
I0430 22:16:11.110599  1295 net.cpp:131] Top shape: 1000 (1000)
I0430 22:16:11.110601  1295 net.cpp:139] Memory required for data: 12300000
I0430 22:16:11.110605  1295 layer_factory.hpp:77] Creating layer conv0
I0430 22:16:11.110616  1295 net.cpp:86] Creating Layer conv0
I0430 22:16:11.110620  1295 net.cpp:408] conv0 <- data
I0430 22:16:11.110625  1295 net.cpp:382] conv0 -> conv0
I0430 22:16:11.112182  1295 net.cpp:124] Setting up conv0
I0430 22:16:11.112210  1295 net.cpp:131] Top shape: 1000 8 34 34 (9248000)
I0430 22:16:11.112215  1295 net.cpp:139] Memory required for data: 49292000
I0430 22:16:11.112224  1295 layer_factory.hpp:77] Creating layer Sigmoid0
I0430 22:16:11.112231  1295 net.cpp:86] Creating Layer Sigmoid0
I0430 22:16:11.112234  1295 net.cpp:408] Sigmoid0 <- conv0
I0430 22:16:11.112238  1295 net.cpp:382] Sigmoid0 -> Sigmoid0
I0430 22:16:11.112427  1295 net.cpp:124] Setting up Sigmoid0
I0430 22:16:11.112437  1295 net.cpp:131] Top shape: 1000 8 34 34 (9248000)
I0430 22:16:11.112440  1295 net.cpp:139] Memory required for data: 86284000
I0430 22:16:11.112443  1295 layer_factory.hpp:77] Creating layer pool0
I0430 22:16:11.112452  1295 net.cpp:86] Creating Layer pool0
I0430 22:16:11.112455  1295 net.cpp:408] pool0 <- Sigmoid0
I0430 22:16:11.112473  1295 net.cpp:382] pool0 -> pool0
I0430 22:16:11.112718  1295 net.cpp:124] Setting up pool0
I0430 22:16:11.112732  1295 net.cpp:131] Top shape: 1000 8 17 17 (2312000)
I0430 22:16:11.112735  1295 net.cpp:139] Memory required for data: 95532000
I0430 22:16:11.112740  1295 layer_factory.hpp:77] Creating layer ip1
I0430 22:16:11.112746  1295 net.cpp:86] Creating Layer ip1
I0430 22:16:11.112749  1295 net.cpp:408] ip1 <- pool0
I0430 22:16:11.112754  1295 net.cpp:382] ip1 -> ip1
I0430 22:16:11.114429  1295 net.cpp:124] Setting up ip1
I0430 22:16:11.114439  1295 net.cpp:131] Top shape: 1000 10 (10000)
I0430 22:16:11.114457  1295 net.cpp:139] Memory required for data: 95572000
I0430 22:16:11.114480  1295 layer_factory.hpp:77] Creating layer relu1
I0430 22:16:11.114485  1295 net.cpp:86] Creating Layer relu1
I0430 22:16:11.114490  1295 net.cpp:408] relu1 <- ip1
I0430 22:16:11.114508  1295 net.cpp:369] relu1 -> ip1 (in-place)
I0430 22:16:11.114684  1295 net.cpp:124] Setting up relu1
I0430 22:16:11.114693  1295 net.cpp:131] Top shape: 1000 10 (10000)
I0430 22:16:11.114696  1295 net.cpp:139] Memory required for data: 95612000
I0430 22:16:11.114699  1295 layer_factory.hpp:77] Creating layer ip2
I0430 22:16:11.114706  1295 net.cpp:86] Creating Layer ip2
I0430 22:16:11.114708  1295 net.cpp:408] ip2 <- ip1
I0430 22:16:11.114713  1295 net.cpp:382] ip2 -> ip2
I0430 22:16:11.114814  1295 net.cpp:124] Setting up ip2
I0430 22:16:11.114821  1295 net.cpp:131] Top shape: 1000 10 (10000)
I0430 22:16:11.114825  1295 net.cpp:139] Memory required for data: 95652000
I0430 22:16:11.114831  1295 layer_factory.hpp:77] Creating layer relu2
I0430 22:16:11.114837  1295 net.cpp:86] Creating Layer relu2
I0430 22:16:11.114840  1295 net.cpp:408] relu2 <- ip2
I0430 22:16:11.114845  1295 net.cpp:369] relu2 -> ip2 (in-place)
I0430 22:16:11.115591  1295 net.cpp:124] Setting up relu2
I0430 22:16:11.115602  1295 net.cpp:131] Top shape: 1000 10 (10000)
I0430 22:16:11.115620  1295 net.cpp:139] Memory required for data: 95692000
I0430 22:16:11.115624  1295 layer_factory.hpp:77] Creating layer ip3
I0430 22:16:11.115631  1295 net.cpp:86] Creating Layer ip3
I0430 22:16:11.115634  1295 net.cpp:408] ip3 <- ip2
I0430 22:16:11.115645  1295 net.cpp:382] ip3 -> ip3
I0430 22:16:11.115816  1295 net.cpp:124] Setting up ip3
I0430 22:16:11.115824  1295 net.cpp:131] Top shape: 1000 80 (80000)
I0430 22:16:11.115828  1295 net.cpp:139] Memory required for data: 96012000
I0430 22:16:11.115833  1295 layer_factory.hpp:77] Creating layer relu3
I0430 22:16:11.115838  1295 net.cpp:86] Creating Layer relu3
I0430 22:16:11.115840  1295 net.cpp:408] relu3 <- ip3
I0430 22:16:11.115844  1295 net.cpp:369] relu3 -> ip3 (in-place)
I0430 22:16:11.115998  1295 net.cpp:124] Setting up relu3
I0430 22:16:11.116005  1295 net.cpp:131] Top shape: 1000 80 (80000)
I0430 22:16:11.116008  1295 net.cpp:139] Memory required for data: 96332000
I0430 22:16:11.116011  1295 layer_factory.hpp:77] Creating layer ip4
I0430 22:16:11.116019  1295 net.cpp:86] Creating Layer ip4
I0430 22:16:11.116030  1295 net.cpp:408] ip4 <- ip3
I0430 22:16:11.116036  1295 net.cpp:382] ip4 -> ip4
I0430 22:16:11.116156  1295 net.cpp:124] Setting up ip4
I0430 22:16:11.116165  1295 net.cpp:131] Top shape: 1000 10 (10000)
I0430 22:16:11.116168  1295 net.cpp:139] Memory required for data: 96372000
I0430 22:16:11.116176  1295 layer_factory.hpp:77] Creating layer ip4_ip4_0_split
I0430 22:16:11.116196  1295 net.cpp:86] Creating Layer ip4_ip4_0_split
I0430 22:16:11.116199  1295 net.cpp:408] ip4_ip4_0_split <- ip4
I0430 22:16:11.116204  1295 net.cpp:382] ip4_ip4_0_split -> ip4_ip4_0_split_0
I0430 22:16:11.116209  1295 net.cpp:382] ip4_ip4_0_split -> ip4_ip4_0_split_1
I0430 22:16:11.116240  1295 net.cpp:124] Setting up ip4_ip4_0_split
I0430 22:16:11.116247  1295 net.cpp:131] Top shape: 1000 10 (10000)
I0430 22:16:11.116256  1295 net.cpp:131] Top shape: 1000 10 (10000)
I0430 22:16:11.116259  1295 net.cpp:139] Memory required for data: 96452000
I0430 22:16:11.116262  1295 layer_factory.hpp:77] Creating layer accuracy
I0430 22:16:11.116267  1295 net.cpp:86] Creating Layer accuracy
I0430 22:16:11.116271  1295 net.cpp:408] accuracy <- ip4_ip4_0_split_0
I0430 22:16:11.116274  1295 net.cpp:408] accuracy <- label_cifar_1_split_0
I0430 22:16:11.116281  1295 net.cpp:382] accuracy -> accuracy
…
