…
I0430 20:44:29.364006 29307 net.cpp:296] The NetState phase (0) differed from the phase (1) specified by a rule in layer cifar
I0430 20:44:29.364023 29307 net.cpp:296] The NetState phase (0) differed from the phase (1) specified by a rule in layer accuracy
I0430 20:44:29.364130 29307 net.cpp:53] Initializing net from parameters: 
name: "CIFAR"
state {
  phase: TRAIN
  level: 0
  stage: ""
}
layer {
  name: "cifar"
  type: "Data"
  top: "data"
  top: "label"
  include {
    phase: TRAIN
  }
  transform_param {
    mean_file: "examples/cifar10/mean.binaryproto"
  }
  data_param {
    source: "examples/cifar10/cifar10_train_lmdb"
    batch_size: 111
    backend: LMDB
  }
}
layer {
  name: "ip1"
  type: "InnerProduct"
  bottom: "data"
  top: "ip1"
  param {
    lr_mult: 1
  }
  param {
    lr_mult: 2
  }
  inner_product_param {
    num_output: 160
    weight_filler {
      type: "gaussian"
      std: 0.01
    }
    bias_filler {
      type: "constant"
    }
  }
}
layer {
  name: "relu1"
  type: "ReLU"
  bottom: "ip1"
  top: "ip1"
}
layer {
  name: "ip2"
  type: "InnerProduct"
  bottom: "ip1"
  top: "ip2"
  param {
    lr_mult: 1
  }
  param {
    lr_mult: 2
  }
  inner_product_param {
    num_output: 20
    weight_filler {
      type: "gaussian"
      std: 0.01
    }
    bias_filler {
      type: "constant"
    }
  }
}
layer {
  name: "relu2"
  type: "ReLU"
  bottom: "ip2"
  top: "ip2"
}
layer {
  name: "ip3"
  type: "InnerProduct"
  bottom: "ip2"
  top: "ip3"
  param {
    lr_mult: 1
  }
  param {
    lr_mult: 2
  }
  inner_product_param {
    num_output: 160
    weight_filler {
      type: "gaussian"
      std: 0.01
    }
    bias_filler {
      type: "constant"
    }
  }
}
layer {
  name: "relu3"
  type: "ReLU"
  bottom: "ip3"
  top: "ip3"
}
layer {
  name: "ip4"
  type: "InnerProduct"
  bottom: "ip3"
  top: "ip4"
  param {
    lr_mult: 1
  }
  param {
    lr_mult: 2
  }
  inner_product_param {
    num_output: 10
    weight_filler {
      type: "gaussian"
      std: 0.01
    }
    bias_filler {
      type: "constant"
    }
  }
}
layer {
  name: "loss"
  type: "SoftmaxWithLoss"
  bottom: "ip4"
  bottom: "label"
  top: "loss"
}
I0430 20:44:29.364228 29307 layer_factory.hpp:77] Creating layer cifar
I0430 20:44:29.364361 29307 db_lmdb.cpp:35] Opened lmdb examples/cifar10/cifar10_train_lmdb
I0430 20:44:29.364398 29307 net.cpp:86] Creating Layer cifar
I0430 20:44:29.364411 29307 net.cpp:382] cifar -> data
I0430 20:44:29.364442 29307 net.cpp:382] cifar -> label
I0430 20:44:29.364460 29307 data_transformer.cpp:25] Loading mean file from: examples/cifar10/mean.binaryproto
I0430 20:44:29.366740 29307 data_layer.cpp:45] output data size: 111,3,32,32
I0430 20:44:29.374672 29307 net.cpp:124] Setting up cifar
I0430 20:44:29.374691 29307 net.cpp:131] Top shape: 111 3 32 32 (340992)
I0430 20:44:29.374698 29307 net.cpp:131] Top shape: 111 (111)
I0430 20:44:29.374703 29307 net.cpp:139] Memory required for data: 1364412
I0430 20:44:29.374711 29307 layer_factory.hpp:77] Creating layer ip1
I0430 20:44:29.374722 29307 net.cpp:86] Creating Layer ip1
I0430 20:44:29.374729 29307 net.cpp:408] ip1 <- data
I0430 20:44:29.374745 29307 net.cpp:382] ip1 -> ip1
I0430 20:44:29.392079 29307 net.cpp:124] Setting up ip1
I0430 20:44:29.392096 29307 net.cpp:131] Top shape: 111 160 (17760)
I0430 20:44:29.392099 29307 net.cpp:139] Memory required for data: 1435452
I0430 20:44:29.392115 29307 layer_factory.hpp:77] Creating layer relu1
I0430 20:44:29.392146 29307 net.cpp:86] Creating Layer relu1
I0430 20:44:29.392154 29307 net.cpp:408] relu1 <- ip1
I0430 20:44:29.392164 29307 net.cpp:369] relu1 -> ip1 (in-place)
I0430 20:44:29.699616 29307 net.cpp:124] Setting up relu1
I0430 20:44:29.699654 29307 net.cpp:131] Top shape: 111 160 (17760)
I0430 20:44:29.699661 29307 net.cpp:139] Memory required for data: 1506492
I0430 20:44:29.699666 29307 layer_factory.hpp:77] Creating layer ip2
I0430 20:44:29.699683 29307 net.cpp:86] Creating Layer ip2
I0430 20:44:29.699689 29307 net.cpp:408] ip2 <- ip1
I0430 20:44:29.699699 29307 net.cpp:382] ip2 -> ip2
I0430 20:44:29.699968 29307 net.cpp:124] Setting up ip2
I0430 20:44:29.699980 29307 net.cpp:131] Top shape: 111 20 (2220)
I0430 20:44:29.699983 29307 net.cpp:139] Memory required for data: 1515372
I0430 20:44:29.699995 29307 layer_factory.hpp:77] Creating layer relu2
I0430 20:44:29.700004 29307 net.cpp:86] Creating Layer relu2
I0430 20:44:29.700008 29307 net.cpp:408] relu2 <- ip2
I0430 20:44:29.700014 29307 net.cpp:369] relu2 -> ip2 (in-place)
I0430 20:44:29.700975 29307 net.cpp:124] Setting up relu2
I0430 20:44:29.700992 29307 net.cpp:131] Top shape: 111 20 (2220)
I0430 20:44:29.700997 29307 net.cpp:139] Memory required for data: 1524252
I0430 20:44:29.701002 29307 layer_factory.hpp:77] Creating layer ip3
I0430 20:44:29.701011 29307 net.cpp:86] Creating Layer ip3
I0430 20:44:29.701015 29307 net.cpp:408] ip3 <- ip2
I0430 20:44:29.701022 29307 net.cpp:382] ip3 -> ip3
I0430 20:44:29.701261 29307 net.cpp:124] Setting up ip3
I0430 20:44:29.701272 29307 net.cpp:131] Top shape: 111 160 (17760)
I0430 20:44:29.701275 29307 net.cpp:139] Memory required for data: 1595292
I0430 20:44:29.701285 29307 layer_factory.hpp:77] Creating layer relu3
I0430 20:44:29.701292 29307 net.cpp:86] Creating Layer relu3
I0430 20:44:29.701297 29307 net.cpp:408] relu3 <- ip3
I0430 20:44:29.701303 29307 net.cpp:369] relu3 -> ip3 (in-place)
I0430 20:44:29.701495 29307 net.cpp:124] Setting up relu3
I0430 20:44:29.701505 29307 net.cpp:131] Top shape: 111 160 (17760)
I0430 20:44:29.701509 29307 net.cpp:139] Memory required for data: 1666332
I0430 20:44:29.701514 29307 layer_factory.hpp:77] Creating layer ip4
I0430 20:44:29.701521 29307 net.cpp:86] Creating Layer ip4
I0430 20:44:29.701525 29307 net.cpp:408] ip4 <- ip3
I0430 20:44:29.701531 29307 net.cpp:382] ip4 -> ip4
I0430 20:44:29.701704 29307 net.cpp:124] Setting up ip4
I0430 20:44:29.701714 29307 net.cpp:131] Top shape: 111 10 (1110)
I0430 20:44:29.701717 29307 net.cpp:139] Memory required for data: 1670772
I0430 20:44:29.701725 29307 layer_factory.hpp:77] Creating layer loss
I0430 20:44:29.701732 29307 net.cpp:86] Creating Layer loss
I0430 20:44:29.701736 29307 net.cpp:408] loss <- ip4
I0430 20:44:29.701742 29307 net.cpp:408] loss <- label
I0430 20:44:29.701750 29307 net.cpp:382] loss -> loss
I0430 20:44:29.701766 29307 layer_factory.hpp:77] Creating layer loss
…
I0430 20:44:29.702482 29307 solver.cpp:173] Creating test net (#0) specified by net file: ECE595/cifar/train_test/var_everything/cifar_train_test_139.prototxt
I0430 20:44:29.702529 29307 net.cpp:296] The NetState phase (1) differed from the phase (0) specified by a rule in layer cifar
I0430 20:44:29.702630 29307 net.cpp:53] Initializing net from parameters: 
name: "CIFAR"
state {
  phase: TEST
}
layer {
  name: "cifar"
  type: "Data"
  top: "data"
  top: "label"
  include {
    phase: TEST
  }
  transform_param {
    mean_file: "examples/cifar10/mean.binaryproto"
  }
  data_param {
    source: "examples/cifar10/cifar10_test_lmdb"
    batch_size: 1000
    backend: LMDB
  }
}
layer {
  name: "ip1"
  type: "InnerProduct"
  bottom: "data"
  top: "ip1"
  param {
    lr_mult: 1
  }
  param {
    lr_mult: 2
  }
  inner_product_param {
    num_output: 160
    weight_filler {
      type: "gaussian"
      std: 0.01
    }
    bias_filler {
      type: "constant"
    }
  }
}
layer {
  name: "relu1"
  type: "ReLU"
  bottom: "ip1"
  top: "ip1"
}
layer {
  name: "ip2"
  type: "InnerProduct"
  bottom: "ip1"
  top: "ip2"
  param {
    lr_mult: 1
  }
  param {
    lr_mult: 2
  }
  inner_product_param {
    num_output: 20
    weight_filler {
      type: "gaussian"
      std: 0.01
    }
    bias_filler {
      type: "constant"
    }
  }
}
layer {
  name: "relu2"
  type: "ReLU"
  bottom: "ip2"
  top: "ip2"
}
layer {
  name: "ip3"
  type: "InnerProduct"
  bottom: "ip2"
  top: "ip3"
  param {
    lr_mult: 1
  }
  param {
    lr_mult: 2
  }
  inner_product_param {
    num_output: 160
    weight_filler {
      type: "gaussian"
      std: 0.01
    }
    bias_filler {
      type: "constant"
    }
  }
}
layer {
  name: "relu3"
  type: "ReLU"
  bottom: "ip3"
  top: "ip3"
}
layer {
  name: "ip4"
  type: "InnerProduct"
  bottom: "ip3"
  top: "ip4"
  param {
    lr_mult: 1
  }
  param {
    lr_mult: 2
  }
  inner_product_param {
    num_output: 10
    weight_filler {
      type: "gaussian"
      std: 0.01
    }
    bias_filler {
      type: "constant"
    }
  }
}
layer {
  name: "accuracy"
  type: "Accuracy"
  bottom: "ip4"
  bottom: "label"
  top: "accuracy"
  include {
    phase: TEST
  }
}
layer {
  name: "loss"
  type: "SoftmaxWithLoss"
  bottom: "ip4"
  bottom: "label"
  top: "loss"
}
I0430 20:44:29.702716 29307 layer_factory.hpp:77] Creating layer cifar
I0430 20:44:29.702772 29307 db_lmdb.cpp:35] Opened lmdb examples/cifar10/cifar10_test_lmdb
I0430 20:44:29.702787 29307 net.cpp:86] Creating Layer cifar
I0430 20:44:29.702793 29307 net.cpp:382] cifar -> data
I0430 20:44:29.702805 29307 net.cpp:382] cifar -> label
I0430 20:44:29.702812 29307 data_transformer.cpp:25] Loading mean file from: examples/cifar10/mean.binaryproto
I0430 20:44:29.702994 29307 data_layer.cpp:45] output data size: 1000,3,32,32
I0430 20:44:29.729991 29307 net.cpp:124] Setting up cifar
I0430 20:44:29.730031 29307 net.cpp:131] Top shape: 1000 3 32 32 (3072000)
I0430 20:44:29.730037 29307 net.cpp:131] Top shape: 1000 (1000)
I0430 20:44:29.730041 29307 net.cpp:139] Memory required for data: 12292000
I0430 20:44:29.730048 29307 layer_factory.hpp:77] Creating layer label_cifar_1_split
I0430 20:44:29.730085 29307 net.cpp:86] Creating Layer label_cifar_1_split
I0430 20:44:29.730092 29307 net.cpp:408] label_cifar_1_split <- label
I0430 20:44:29.730098 29307 net.cpp:382] label_cifar_1_split -> label_cifar_1_split_0
I0430 20:44:29.730108 29307 net.cpp:382] label_cifar_1_split -> label_cifar_1_split_1
I0430 20:44:29.730238 29307 net.cpp:124] Setting up label_cifar_1_split
I0430 20:44:29.730248 29307 net.cpp:131] Top shape: 1000 (1000)
I0430 20:44:29.730252 29307 net.cpp:131] Top shape: 1000 (1000)
I0430 20:44:29.730257 29307 net.cpp:139] Memory required for data: 12300000
I0430 20:44:29.730259 29307 layer_factory.hpp:77] Creating layer ip1
I0430 20:44:29.730270 29307 net.cpp:86] Creating Layer ip1
I0430 20:44:29.730273 29307 net.cpp:408] ip1 <- data
I0430 20:44:29.730279 29307 net.cpp:382] ip1 -> ip1
I0430 20:44:29.747453 29307 net.cpp:124] Setting up ip1
I0430 20:44:29.747470 29307 net.cpp:131] Top shape: 1000 160 (160000)
I0430 20:44:29.747475 29307 net.cpp:139] Memory required for data: 12940000
I0430 20:44:29.747505 29307 layer_factory.hpp:77] Creating layer relu1
I0430 20:44:29.747514 29307 net.cpp:86] Creating Layer relu1
I0430 20:44:29.747519 29307 net.cpp:408] relu1 <- ip1
I0430 20:44:29.747524 29307 net.cpp:369] relu1 -> ip1 (in-place)
I0430 20:44:29.748440 29307 net.cpp:124] Setting up relu1
I0430 20:44:29.748455 29307 net.cpp:131] Top shape: 1000 160 (160000)
I0430 20:44:29.748458 29307 net.cpp:139] Memory required for data: 13580000
I0430 20:44:29.748463 29307 layer_factory.hpp:77] Creating layer ip2
I0430 20:44:29.748472 29307 net.cpp:86] Creating Layer ip2
I0430 20:44:29.748477 29307 net.cpp:408] ip2 <- ip1
I0430 20:44:29.748486 29307 net.cpp:382] ip2 -> ip2
I0430 20:44:29.748726 29307 net.cpp:124] Setting up ip2
I0430 20:44:29.748734 29307 net.cpp:131] Top shape: 1000 20 (20000)
I0430 20:44:29.748739 29307 net.cpp:139] Memory required for data: 13660000
I0430 20:44:29.748747 29307 layer_factory.hpp:77] Creating layer relu2
I0430 20:44:29.748754 29307 net.cpp:86] Creating Layer relu2
I0430 20:44:29.748757 29307 net.cpp:408] relu2 <- ip2
I0430 20:44:29.748762 29307 net.cpp:369] relu2 -> ip2 (in-place)
I0430 20:44:29.748960 29307 net.cpp:124] Setting up relu2
I0430 20:44:29.748970 29307 net.cpp:131] Top shape: 1000 20 (20000)
I0430 20:44:29.748973 29307 net.cpp:139] Memory required for data: 13740000
I0430 20:44:29.748977 29307 layer_factory.hpp:77] Creating layer ip3
I0430 20:44:29.748986 29307 net.cpp:86] Creating Layer ip3
I0430 20:44:29.748991 29307 net.cpp:408] ip3 <- ip2
I0430 20:44:29.748996 29307 net.cpp:382] ip3 -> ip3
I0430 20:44:29.749223 29307 net.cpp:124] Setting up ip3
I0430 20:44:29.749231 29307 net.cpp:131] Top shape: 1000 160 (160000)
I0430 20:44:29.749235 29307 net.cpp:139] Memory required for data: 14380000
I0430 20:44:29.749243 29307 layer_factory.hpp:77] Creating layer relu3
I0430 20:44:29.749249 29307 net.cpp:86] Creating Layer relu3
I0430 20:44:29.749253 29307 net.cpp:408] relu3 <- ip3
I0430 20:44:29.749258 29307 net.cpp:369] relu3 -> ip3 (in-place)
I0430 20:44:29.749444 29307 net.cpp:124] Setting up relu3
I0430 20:44:29.749454 29307 net.cpp:131] Top shape: 1000 160 (160000)
I0430 20:44:29.749459 29307 net.cpp:139] Memory required for data: 15020000
I0430 20:44:29.749462 29307 layer_factory.hpp:77] Creating layer ip4
I0430 20:44:29.749471 29307 net.cpp:86] Creating Layer ip4
I0430 20:44:29.749475 29307 net.cpp:408] ip4 <- ip3
I0430 20:44:29.749481 29307 net.cpp:382] ip4 -> ip4
I0430 20:44:29.749655 29307 net.cpp:124] Setting up ip4
I0430 20:44:29.749663 29307 net.cpp:131] Top shape: 1000 10 (10000)
I0430 20:44:29.749667 29307 net.cpp:139] Memory required for data: 15060000
I0430 20:44:29.749673 29307 layer_factory.hpp:77] Creating layer ip4_ip4_0_split
I0430 20:44:29.749680 29307 net.cpp:86] Creating Layer ip4_ip4_0_split
I0430 20:44:29.749683 29307 net.cpp:408] ip4_ip4_0_split <- ip4
I0430 20:44:29.749688 29307 net.cpp:382] ip4_ip4_0_split -> ip4_ip4_0_split_0
I0430 20:44:29.749696 29307 net.cpp:382] ip4_ip4_0_split -> ip4_ip4_0_split_1
I0430 20:44:29.749734 29307 net.cpp:124] Setting up ip4_ip4_0_split
I0430 20:44:29.749742 29307 net.cpp:131] Top shape: 1000 10 (10000)
I0430 20:44:29.749747 29307 net.cpp:131] Top shape: 1000 10 (10000)
I0430 20:44:29.749749 29307 net.cpp:139] Memory required for data: 15140000
I0430 20:44:29.749752 29307 layer_factory.hpp:77] Creating layer accuracy
I0430 20:44:29.749763 29307 net.cpp:86] Creating Layer accuracy
I0430 20:44:29.749768 29307 net.cpp:408] accuracy <- ip4_ip4_0_split_0
I0430 20:44:29.749771 29307 net.cpp:408] accuracy <- label_cifar_1_split_0
I0430 20:44:29.749779 29307 net.cpp:382] accuracy -> accuracy
…
