…
I0501 00:20:09.578281  6831 net.cpp:296] The NetState phase (0) differed from the phase (1) specified by a rule in layer cifar
I0501 00:20:09.578312  6831 net.cpp:296] The NetState phase (0) differed from the phase (1) specified by a rule in layer accuracy
I0501 00:20:09.578428  6831 net.cpp:53] Initializing net from parameters: 
name: "CIFAR"
state {
  phase: TRAIN
  level: 0
  stage: ""
}
layer {
  name: "cifar"
  type: "Data"
  top: "data"
  top: "label"
  include {
    phase: TRAIN
  }
  transform_param {
    mean_file: "examples/cifar10/mean.binaryproto"
  }
  data_param {
    source: "examples/cifar10/cifar10_train_lmdb"
    batch_size: 111
    backend: LMDB
  }
}
layer {
  name: "conv0"
  type: "Convolution"
  bottom: "data"
  top: "conv0"
  param {
    lr_mult: 1
  }
  param {
    lr_mult: 2
  }
  convolution_param {
    num_output: 8
    pad: 2
    kernel_size: 3
    stride: 1
    weight_filler {
      type: "gaussian"
      std: 0.01
    }
    bias_filler {
      type: "constant"
    }
  }
}
layer {
  name: "Sigmoid0"
  type: "Sigmoid"
  bottom: "conv0"
  top: "Sigmoid0"
}
layer {
  name: "pool0"
  type: "Pooling"
  bottom: "Sigmoid0"
  top: "pool0"
  pooling_param {
    pool: AVE
    kernel_size: 3
    stride: 2
  }
}
layer {
  name: "ip1"
  type: "InnerProduct"
  bottom: "pool0"
  top: "ip1"
  param {
    lr_mult: 1
  }
  param {
    lr_mult: 2
  }
  inner_product_param {
    num_output: 40
    weight_filler {
      type: "gaussian"
      std: 0.01
    }
    bias_filler {
      type: "constant"
    }
  }
}
layer {
  name: "relu1"
  type: "ReLU"
  bottom: "ip1"
  top: "ip1"
}
layer {
  name: "ip2"
  type: "InnerProduct"
  bottom: "ip1"
  top: "ip2"
  param {
    lr_mult: 1
  }
  param {
    lr_mult: 2
  }
  inner_product_param {
    num_output: 80
    weight_filler {
      type: "gaussian"
      std: 0.01
    }
    bias_filler {
      type: "constant"
    }
  }
}
layer {
  name: "relu2"
  type: "ReLU"
  bottom: "ip2"
  top: "ip2"
}
layer {
  name: "ip3"
  type: "InnerProduct"
  bottom: "ip2"
  top: "ip3"
  param {
    lr_mult: 1
  }
  param {
    lr_mult: 2
  }
  inner_product_param {
    num_output: 160
    weight_filler {
      type: "gaussian"
      std: 0.01
    }
    bias_filler {
      type: "constant"
    }
  }
}
layer {
  name: "relu3"
  type: "ReLU"
  bottom: "ip3"
  top: "ip3"
}
layer {
  name: "ip4"
  type: "InnerProduct"
  bottom: "ip3"
  top: "ip4"
  param {
    lr_mult: 1
  }
  param {
    lr_mult: 2
  }
  inner_product_param {
    num_output: 10
    weight_filler {
      type: "gaussian"
      std: 0.01
    }
    bias_filler {
      type: "constant"
    }
  }
}
layer {
  name: "loss"
  type: "SoftmaxWithLoss"
  bottom: "ip4"
  bottom: "label"
  top: "loss"
}
I0501 00:20:09.578492  6831 layer_factory.hpp:77] Creating layer cifar
I0501 00:20:09.578577  6831 db_lmdb.cpp:35] Opened lmdb examples/cifar10/cifar10_train_lmdb
I0501 00:20:09.578599  6831 net.cpp:86] Creating Layer cifar
I0501 00:20:09.578605  6831 net.cpp:382] cifar -> data
I0501 00:20:09.578625  6831 net.cpp:382] cifar -> label
I0501 00:20:09.578639  6831 data_transformer.cpp:25] Loading mean file from: examples/cifar10/mean.binaryproto
I0501 00:20:09.580451  6831 data_layer.cpp:45] output data size: 111,3,32,32
I0501 00:20:09.586843  6831 net.cpp:124] Setting up cifar
I0501 00:20:09.586856  6831 net.cpp:131] Top shape: 111 3 32 32 (340992)
I0501 00:20:09.586863  6831 net.cpp:131] Top shape: 111 (111)
I0501 00:20:09.586865  6831 net.cpp:139] Memory required for data: 1364412
I0501 00:20:09.586885  6831 layer_factory.hpp:77] Creating layer conv0
I0501 00:20:09.586916  6831 net.cpp:86] Creating Layer conv0
I0501 00:20:09.586921  6831 net.cpp:408] conv0 <- data
I0501 00:20:09.586930  6831 net.cpp:382] conv0 -> conv0
I0501 00:20:09.814452  6831 net.cpp:124] Setting up conv0
I0501 00:20:09.814494  6831 net.cpp:131] Top shape: 111 8 34 34 (1026528)
I0501 00:20:09.814498  6831 net.cpp:139] Memory required for data: 5470524
I0501 00:20:09.814512  6831 layer_factory.hpp:77] Creating layer Sigmoid0
I0501 00:20:09.814523  6831 net.cpp:86] Creating Layer Sigmoid0
I0501 00:20:09.814527  6831 net.cpp:408] Sigmoid0 <- conv0
I0501 00:20:09.814532  6831 net.cpp:382] Sigmoid0 -> Sigmoid0
I0501 00:20:09.814695  6831 net.cpp:124] Setting up Sigmoid0
I0501 00:20:09.814705  6831 net.cpp:131] Top shape: 111 8 34 34 (1026528)
I0501 00:20:09.814708  6831 net.cpp:139] Memory required for data: 9576636
I0501 00:20:09.814712  6831 layer_factory.hpp:77] Creating layer pool0
I0501 00:20:09.814718  6831 net.cpp:86] Creating Layer pool0
I0501 00:20:09.814721  6831 net.cpp:408] pool0 <- Sigmoid0
I0501 00:20:09.814741  6831 net.cpp:382] pool0 -> pool0
I0501 00:20:09.815452  6831 net.cpp:124] Setting up pool0
I0501 00:20:09.815464  6831 net.cpp:131] Top shape: 111 8 17 17 (256632)
I0501 00:20:09.815467  6831 net.cpp:139] Memory required for data: 10603164
I0501 00:20:09.815470  6831 layer_factory.hpp:77] Creating layer ip1
I0501 00:20:09.815479  6831 net.cpp:86] Creating Layer ip1
I0501 00:20:09.815482  6831 net.cpp:408] ip1 <- pool0
I0501 00:20:09.815487  6831 net.cpp:382] ip1 -> ip1
I0501 00:20:09.817955  6831 net.cpp:124] Setting up ip1
I0501 00:20:09.817962  6831 net.cpp:131] Top shape: 111 40 (4440)
I0501 00:20:09.817965  6831 net.cpp:139] Memory required for data: 10620924
I0501 00:20:09.817971  6831 layer_factory.hpp:77] Creating layer relu1
I0501 00:20:09.817976  6831 net.cpp:86] Creating Layer relu1
I0501 00:20:09.817980  6831 net.cpp:408] relu1 <- ip1
I0501 00:20:09.817983  6831 net.cpp:369] relu1 -> ip1 (in-place)
I0501 00:20:09.818156  6831 net.cpp:124] Setting up relu1
I0501 00:20:09.818164  6831 net.cpp:131] Top shape: 111 40 (4440)
I0501 00:20:09.818167  6831 net.cpp:139] Memory required for data: 10638684
I0501 00:20:09.818171  6831 layer_factory.hpp:77] Creating layer ip2
I0501 00:20:09.818176  6831 net.cpp:86] Creating Layer ip2
I0501 00:20:09.818179  6831 net.cpp:408] ip2 <- ip1
I0501 00:20:09.818184  6831 net.cpp:382] ip2 -> ip2
I0501 00:20:09.818377  6831 net.cpp:124] Setting up ip2
I0501 00:20:09.818384  6831 net.cpp:131] Top shape: 111 80 (8880)
I0501 00:20:09.818387  6831 net.cpp:139] Memory required for data: 10674204
I0501 00:20:09.818393  6831 layer_factory.hpp:77] Creating layer relu2
I0501 00:20:09.818398  6831 net.cpp:86] Creating Layer relu2
I0501 00:20:09.818401  6831 net.cpp:408] relu2 <- ip2
I0501 00:20:09.818404  6831 net.cpp:369] relu2 -> ip2 (in-place)
I0501 00:20:09.818542  6831 net.cpp:124] Setting up relu2
I0501 00:20:09.818550  6831 net.cpp:131] Top shape: 111 80 (8880)
I0501 00:20:09.818553  6831 net.cpp:139] Memory required for data: 10709724
I0501 00:20:09.818557  6831 layer_factory.hpp:77] Creating layer ip3
I0501 00:20:09.818563  6831 net.cpp:86] Creating Layer ip3
I0501 00:20:09.818567  6831 net.cpp:408] ip3 <- ip2
I0501 00:20:09.818570  6831 net.cpp:382] ip3 -> ip3
I0501 00:20:09.819744  6831 net.cpp:124] Setting up ip3
I0501 00:20:09.819756  6831 net.cpp:131] Top shape: 111 160 (17760)
I0501 00:20:09.819759  6831 net.cpp:139] Memory required for data: 10780764
I0501 00:20:09.819764  6831 layer_factory.hpp:77] Creating layer relu3
I0501 00:20:09.819769  6831 net.cpp:86] Creating Layer relu3
I0501 00:20:09.819772  6831 net.cpp:408] relu3 <- ip3
I0501 00:20:09.819777  6831 net.cpp:369] relu3 -> ip3 (in-place)
I0501 00:20:09.819936  6831 net.cpp:124] Setting up relu3
I0501 00:20:09.819943  6831 net.cpp:131] Top shape: 111 160 (17760)
I0501 00:20:09.819947  6831 net.cpp:139] Memory required for data: 10851804
I0501 00:20:09.819949  6831 layer_factory.hpp:77] Creating layer ip4
I0501 00:20:09.819969  6831 net.cpp:86] Creating Layer ip4
I0501 00:20:09.819972  6831 net.cpp:408] ip4 <- ip3
I0501 00:20:09.819977  6831 net.cpp:382] ip4 -> ip4
I0501 00:20:09.820103  6831 net.cpp:124] Setting up ip4
I0501 00:20:09.820111  6831 net.cpp:131] Top shape: 111 10 (1110)
I0501 00:20:09.820114  6831 net.cpp:139] Memory required for data: 10856244
I0501 00:20:09.820122  6831 layer_factory.hpp:77] Creating layer loss
I0501 00:20:09.820127  6831 net.cpp:86] Creating Layer loss
I0501 00:20:09.820129  6831 net.cpp:408] loss <- ip4
I0501 00:20:09.820132  6831 net.cpp:408] loss <- label
I0501 00:20:09.820137  6831 net.cpp:382] loss -> loss
I0501 00:20:09.820150  6831 layer_factory.hpp:77] Creating layer loss
…
I0501 00:20:09.821442  6831 solver.cpp:173] Creating test net (#0) specified by net file: ECE595/cifar/train_test/var_everything/cifar_train_test_254.prototxt
I0501 00:20:09.821513  6831 net.cpp:296] The NetState phase (1) differed from the phase (0) specified by a rule in layer cifar
I0501 00:20:09.821617  6831 net.cpp:53] Initializing net from parameters: 
name: "CIFAR"
state {
  phase: TEST
}
layer {
  name: "cifar"
  type: "Data"
  top: "data"
  top: "label"
  include {
    phase: TEST
  }
  transform_param {
    mean_file: "examples/cifar10/mean.binaryproto"
  }
  data_param {
    source: "examples/cifar10/cifar10_test_lmdb"
    batch_size: 1000
    backend: LMDB
  }
}
layer {
  name: "conv0"
  type: "Convolution"
  bottom: "data"
  top: "conv0"
  param {
    lr_mult: 1
  }
  param {
    lr_mult: 2
  }
  convolution_param {
    num_output: 8
    pad: 2
    kernel_size: 3
    stride: 1
    weight_filler {
      type: "gaussian"
      std: 0.01
    }
    bias_filler {
      type: "constant"
    }
  }
}
layer {
  name: "Sigmoid0"
  type: "Sigmoid"
  bottom: "conv0"
  top: "Sigmoid0"
}
layer {
  name: "pool0"
  type: "Pooling"
  bottom: "Sigmoid0"
  top: "pool0"
  pooling_param {
    pool: AVE
    kernel_size: 3
    stride: 2
  }
}
layer {
  name: "ip1"
  type: "InnerProduct"
  bottom: "pool0"
  top: "ip1"
  param {
    lr_mult: 1
  }
  param {
    lr_mult: 2
  }
  inner_product_param {
    num_output: 40
    weight_filler {
      type: "gaussian"
      std: 0.01
    }
    bias_filler {
      type: "constant"
    }
  }
}
layer {
  name: "relu1"
  type: "ReLU"
  bottom: "ip1"
  top: "ip1"
}
layer {
  name: "ip2"
  type: "InnerProduct"
  bottom: "ip1"
  top: "ip2"
  param {
    lr_mult: 1
  }
  param {
    lr_mult: 2
  }
  inner_product_param {
    num_output: 80
    weight_filler {
      type: "gaussian"
      std: 0.01
    }
    bias_filler {
      type: "constant"
    }
  }
}
layer {
  name: "relu2"
  type: "ReLU"
  bottom: "ip2"
  top: "ip2"
}
layer {
  name: "ip3"
  type: "InnerProduct"
  bottom: "ip2"
  top: "ip3"
  param {
    lr_mult: 1
  }
  param {
    lr_mult: 2
  }
  inner_product_param {
    num_output: 160
    weight_filler {
      type: "gaussian"
      std: 0.01
    }
    bias_filler {
      type: "constant"
    }
  }
}
layer {
  name: "relu3"
  type: "ReLU"
  bottom: "ip3"
  top: "ip3"
}
layer {
  name: "ip4"
  type: "InnerProduct"
  bottom: "ip3"
  top: "ip4"
  param {
    lr_mult: 1
  }
  param {
    lr_mult: 2
  }
  inner_product_param {
    num_output: 10
    weight_filler {
      type: "gaussian"
      std: 0.01
    }
    bias_filler {
      type: "constant"
    }
  }
}
layer {
  name: "accuracy"
  type: "Accuracy"
  bottom: "ip4"
  bottom: "label"
  top: "accuracy"
  include {
    phase: TEST
  }
}
layer {
  name: "loss"
  type: "SoftmaxWithLoss"
  bottom: "ip4"
  bottom: "label"
  top: "loss"
}
I0501 00:20:09.821707  6831 layer_factory.hpp:77] Creating layer cifar
I0501 00:20:09.821751  6831 db_lmdb.cpp:35] Opened lmdb examples/cifar10/cifar10_test_lmdb
I0501 00:20:09.821763  6831 net.cpp:86] Creating Layer cifar
I0501 00:20:09.821766  6831 net.cpp:382] cifar -> data
I0501 00:20:09.821774  6831 net.cpp:382] cifar -> label
I0501 00:20:09.821779  6831 data_transformer.cpp:25] Loading mean file from: examples/cifar10/mean.binaryproto
I0501 00:20:09.821910  6831 data_layer.cpp:45] output data size: 1000,3,32,32
I0501 00:20:09.844039  6831 net.cpp:124] Setting up cifar
I0501 00:20:09.844066  6831 net.cpp:131] Top shape: 1000 3 32 32 (3072000)
I0501 00:20:09.844071  6831 net.cpp:131] Top shape: 1000 (1000)
I0501 00:20:09.844074  6831 net.cpp:139] Memory required for data: 12292000
I0501 00:20:09.844079  6831 layer_factory.hpp:77] Creating layer label_cifar_1_split
I0501 00:20:09.844091  6831 net.cpp:86] Creating Layer label_cifar_1_split
I0501 00:20:09.844095  6831 net.cpp:408] label_cifar_1_split <- label
I0501 00:20:09.844116  6831 net.cpp:382] label_cifar_1_split -> label_cifar_1_split_0
I0501 00:20:09.844125  6831 net.cpp:382] label_cifar_1_split -> label_cifar_1_split_1
I0501 00:20:09.844194  6831 net.cpp:124] Setting up label_cifar_1_split
I0501 00:20:09.844199  6831 net.cpp:131] Top shape: 1000 (1000)
I0501 00:20:09.844203  6831 net.cpp:131] Top shape: 1000 (1000)
I0501 00:20:09.844205  6831 net.cpp:139] Memory required for data: 12300000
I0501 00:20:09.844208  6831 layer_factory.hpp:77] Creating layer conv0
I0501 00:20:09.844219  6831 net.cpp:86] Creating Layer conv0
I0501 00:20:09.844223  6831 net.cpp:408] conv0 <- data
I0501 00:20:09.844228  6831 net.cpp:382] conv0 -> conv0
I0501 00:20:09.845929  6831 net.cpp:124] Setting up conv0
I0501 00:20:09.845942  6831 net.cpp:131] Top shape: 1000 8 34 34 (9248000)
I0501 00:20:09.845945  6831 net.cpp:139] Memory required for data: 49292000
I0501 00:20:09.845954  6831 layer_factory.hpp:77] Creating layer Sigmoid0
I0501 00:20:09.845960  6831 net.cpp:86] Creating Layer Sigmoid0
I0501 00:20:09.845978  6831 net.cpp:408] Sigmoid0 <- conv0
I0501 00:20:09.845983  6831 net.cpp:382] Sigmoid0 -> Sigmoid0
I0501 00:20:09.846143  6831 net.cpp:124] Setting up Sigmoid0
I0501 00:20:09.846153  6831 net.cpp:131] Top shape: 1000 8 34 34 (9248000)
I0501 00:20:09.846156  6831 net.cpp:139] Memory required for data: 86284000
I0501 00:20:09.846159  6831 layer_factory.hpp:77] Creating layer pool0
I0501 00:20:09.846166  6831 net.cpp:86] Creating Layer pool0
I0501 00:20:09.846169  6831 net.cpp:408] pool0 <- Sigmoid0
I0501 00:20:09.846174  6831 net.cpp:382] pool0 -> pool0
I0501 00:20:09.846323  6831 net.cpp:124] Setting up pool0
I0501 00:20:09.846330  6831 net.cpp:131] Top shape: 1000 8 17 17 (2312000)
I0501 00:20:09.846333  6831 net.cpp:139] Memory required for data: 95532000
I0501 00:20:09.846336  6831 layer_factory.hpp:77] Creating layer ip1
I0501 00:20:09.846343  6831 net.cpp:86] Creating Layer ip1
I0501 00:20:09.846346  6831 net.cpp:408] ip1 <- pool0
I0501 00:20:09.846350  6831 net.cpp:382] ip1 -> ip1
I0501 00:20:09.848767  6831 net.cpp:124] Setting up ip1
I0501 00:20:09.848775  6831 net.cpp:131] Top shape: 1000 40 (40000)
I0501 00:20:09.848778  6831 net.cpp:139] Memory required for data: 95692000
I0501 00:20:09.848821  6831 layer_factory.hpp:77] Creating layer relu1
I0501 00:20:09.848845  6831 net.cpp:86] Creating Layer relu1
I0501 00:20:09.848847  6831 net.cpp:408] relu1 <- ip1
I0501 00:20:09.848852  6831 net.cpp:369] relu1 -> ip1 (in-place)
I0501 00:20:09.849028  6831 net.cpp:124] Setting up relu1
I0501 00:20:09.849037  6831 net.cpp:131] Top shape: 1000 40 (40000)
I0501 00:20:09.849040  6831 net.cpp:139] Memory required for data: 95852000
I0501 00:20:09.849043  6831 layer_factory.hpp:77] Creating layer ip2
I0501 00:20:09.849050  6831 net.cpp:86] Creating Layer ip2
I0501 00:20:09.849052  6831 net.cpp:408] ip2 <- ip1
I0501 00:20:09.849082  6831 net.cpp:382] ip2 -> ip2
I0501 00:20:09.849310  6831 net.cpp:124] Setting up ip2
I0501 00:20:09.849318  6831 net.cpp:131] Top shape: 1000 80 (80000)
I0501 00:20:09.849323  6831 net.cpp:139] Memory required for data: 96172000
I0501 00:20:09.849329  6831 layer_factory.hpp:77] Creating layer relu2
I0501 00:20:09.849335  6831 net.cpp:86] Creating Layer relu2
I0501 00:20:09.849339  6831 net.cpp:408] relu2 <- ip2
I0501 00:20:09.849342  6831 net.cpp:369] relu2 -> ip2 (in-place)
I0501 00:20:09.850168  6831 net.cpp:124] Setting up relu2
I0501 00:20:09.850179  6831 net.cpp:131] Top shape: 1000 80 (80000)
I0501 00:20:09.850183  6831 net.cpp:139] Memory required for data: 96492000
I0501 00:20:09.850186  6831 layer_factory.hpp:77] Creating layer ip3
I0501 00:20:09.850193  6831 net.cpp:86] Creating Layer ip3
I0501 00:20:09.850213  6831 net.cpp:408] ip3 <- ip2
I0501 00:20:09.850217  6831 net.cpp:382] ip3 -> ip3
I0501 00:20:09.850682  6831 net.cpp:124] Setting up ip3
I0501 00:20:09.850688  6831 net.cpp:131] Top shape: 1000 160 (160000)
I0501 00:20:09.850692  6831 net.cpp:139] Memory required for data: 97132000
I0501 00:20:09.850697  6831 layer_factory.hpp:77] Creating layer relu3
I0501 00:20:09.850702  6831 net.cpp:86] Creating Layer relu3
I0501 00:20:09.850720  6831 net.cpp:408] relu3 <- ip3
I0501 00:20:09.850723  6831 net.cpp:369] relu3 -> ip3 (in-place)
I0501 00:20:09.850877  6831 net.cpp:124] Setting up relu3
I0501 00:20:09.850900  6831 net.cpp:131] Top shape: 1000 160 (160000)
I0501 00:20:09.850903  6831 net.cpp:139] Memory required for data: 97772000
I0501 00:20:09.850906  6831 layer_factory.hpp:77] Creating layer ip4
I0501 00:20:09.850921  6831 net.cpp:86] Creating Layer ip4
I0501 00:20:09.850924  6831 net.cpp:408] ip4 <- ip3
I0501 00:20:09.850929  6831 net.cpp:382] ip4 -> ip4
I0501 00:20:09.851068  6831 net.cpp:124] Setting up ip4
I0501 00:20:09.851075  6831 net.cpp:131] Top shape: 1000 10 (10000)
I0501 00:20:09.851078  6831 net.cpp:139] Memory required for data: 97812000
I0501 00:20:09.851088  6831 layer_factory.hpp:77] Creating layer ip4_ip4_0_split
I0501 00:20:09.851092  6831 net.cpp:86] Creating Layer ip4_ip4_0_split
I0501 00:20:09.851095  6831 net.cpp:408] ip4_ip4_0_split <- ip4
I0501 00:20:09.851099  6831 net.cpp:382] ip4_ip4_0_split -> ip4_ip4_0_split_0
I0501 00:20:09.851105  6831 net.cpp:382] ip4_ip4_0_split -> ip4_ip4_0_split_1
I0501 00:20:09.851142  6831 net.cpp:124] Setting up ip4_ip4_0_split
I0501 00:20:09.851148  6831 net.cpp:131] Top shape: 1000 10 (10000)
I0501 00:20:09.851158  6831 net.cpp:131] Top shape: 1000 10 (10000)
I0501 00:20:09.851161  6831 net.cpp:139] Memory required for data: 97892000
I0501 00:20:09.851164  6831 layer_factory.hpp:77] Creating layer accuracy
I0501 00:20:09.851169  6831 net.cpp:86] Creating Layer accuracy
I0501 00:20:09.851172  6831 net.cpp:408] accuracy <- ip4_ip4_0_split_0
I0501 00:20:09.851176  6831 net.cpp:408] accuracy <- label_cifar_1_split_0
I0501 00:20:09.851181  6831 net.cpp:382] accuracy -> accuracy
…
