…
I0430 23:46:25.513325  5522 net.cpp:296] The NetState phase (0) differed from the phase (1) specified by a rule in layer cifar
I0430 23:46:25.513346  5522 net.cpp:296] The NetState phase (0) differed from the phase (1) specified by a rule in layer accuracy
I0430 23:46:25.513468  5522 net.cpp:53] Initializing net from parameters: 
name: "CIFAR"
state {
  phase: TRAIN
  level: 0
  stage: ""
}
layer {
  name: "cifar"
  type: "Data"
  top: "data"
  top: "label"
  include {
    phase: TRAIN
  }
  transform_param {
    mean_file: "examples/cifar10/mean.binaryproto"
  }
  data_param {
    source: "examples/cifar10/cifar10_train_lmdb"
    batch_size: 111
    backend: LMDB
  }
}
layer {
  name: "conv0"
  type: "Convolution"
  bottom: "data"
  top: "conv0"
  param {
    lr_mult: 1
  }
  param {
    lr_mult: 2
  }
  convolution_param {
    num_output: 8
    pad: 2
    kernel_size: 3
    stride: 1
    weight_filler {
      type: "gaussian"
      std: 0.01
    }
    bias_filler {
      type: "constant"
    }
  }
}
layer {
  name: "Sigmoid0"
  type: "Sigmoid"
  bottom: "conv0"
  top: "Sigmoid0"
}
layer {
  name: "pool0"
  type: "Pooling"
  bottom: "Sigmoid0"
  top: "pool0"
  pooling_param {
    pool: AVE
    kernel_size: 3
    stride: 2
  }
}
layer {
  name: "ip1"
  type: "InnerProduct"
  bottom: "pool0"
  top: "ip1"
  param {
    lr_mult: 1
  }
  param {
    lr_mult: 2
  }
  inner_product_param {
    num_output: 40
    weight_filler {
      type: "gaussian"
      std: 0.01
    }
    bias_filler {
      type: "constant"
    }
  }
}
layer {
  name: "relu1"
  type: "ReLU"
  bottom: "ip1"
  top: "ip1"
}
layer {
  name: "ip2"
  type: "InnerProduct"
  bottom: "ip1"
  top: "ip2"
  param {
    lr_mult: 1
  }
  param {
    lr_mult: 2
  }
  inner_product_param {
    num_output: 10
    weight_filler {
      type: "gaussian"
      std: 0.01
    }
    bias_filler {
      type: "constant"
    }
  }
}
layer {
  name: "relu2"
  type: "ReLU"
  bottom: "ip2"
  top: "ip2"
}
layer {
  name: "ip3"
  type: "InnerProduct"
  bottom: "ip2"
  top: "ip3"
  param {
    lr_mult: 1
  }
  param {
    lr_mult: 2
  }
  inner_product_param {
    num_output: 20
    weight_filler {
      type: "gaussian"
      std: 0.01
    }
    bias_filler {
      type: "constant"
    }
  }
}
layer {
  name: "relu3"
  type: "ReLU"
  bottom: "ip3"
  top: "ip3"
}
layer {
  name: "ip4"
  type: "InnerProduct"
  bottom: "ip3"
  top: "ip4"
  param {
    lr_mult: 1
  }
  param {
    lr_mult: 2
  }
  inner_product_param {
    num_output: 10
    weight_filler {
      type: "gaussian"
      std: 0.01
    }
    bias_filler {
      type: "constant"
    }
  }
}
layer {
  name: "loss"
  type: "SoftmaxWithLoss"
  bottom: "ip4"
  bottom: "label"
  top: "loss"
}
I0430 23:46:25.513576  5522 layer_factory.hpp:77] Creating layer cifar
I0430 23:46:25.513705  5522 db_lmdb.cpp:35] Opened lmdb examples/cifar10/cifar10_train_lmdb
I0430 23:46:25.513741  5522 net.cpp:86] Creating Layer cifar
I0430 23:46:25.513754  5522 net.cpp:382] cifar -> data
I0430 23:46:25.513783  5522 net.cpp:382] cifar -> label
I0430 23:46:25.513800  5522 data_transformer.cpp:25] Loading mean file from: examples/cifar10/mean.binaryproto
I0430 23:46:25.516157  5522 data_layer.cpp:45] output data size: 111,3,32,32
I0430 23:46:25.524050  5522 net.cpp:124] Setting up cifar
I0430 23:46:25.524071  5522 net.cpp:131] Top shape: 111 3 32 32 (340992)
I0430 23:46:25.524077  5522 net.cpp:131] Top shape: 111 (111)
I0430 23:46:25.524080  5522 net.cpp:139] Memory required for data: 1364412
I0430 23:46:25.524104  5522 layer_factory.hpp:77] Creating layer conv0
I0430 23:46:25.524123  5522 net.cpp:86] Creating Layer conv0
I0430 23:46:25.524129  5522 net.cpp:408] conv0 <- data
I0430 23:46:25.524145  5522 net.cpp:382] conv0 -> conv0
I0430 23:46:25.807286  5522 net.cpp:124] Setting up conv0
I0430 23:46:25.807313  5522 net.cpp:131] Top shape: 111 8 34 34 (1026528)
I0430 23:46:25.807318  5522 net.cpp:139] Memory required for data: 5470524
I0430 23:46:25.807333  5522 layer_factory.hpp:77] Creating layer Sigmoid0
I0430 23:46:25.807345  5522 net.cpp:86] Creating Layer Sigmoid0
I0430 23:46:25.807349  5522 net.cpp:408] Sigmoid0 <- conv0
I0430 23:46:25.807354  5522 net.cpp:382] Sigmoid0 -> Sigmoid0
I0430 23:46:25.807554  5522 net.cpp:124] Setting up Sigmoid0
I0430 23:46:25.807565  5522 net.cpp:131] Top shape: 111 8 34 34 (1026528)
I0430 23:46:25.807569  5522 net.cpp:139] Memory required for data: 9576636
I0430 23:46:25.807572  5522 layer_factory.hpp:77] Creating layer pool0
I0430 23:46:25.807579  5522 net.cpp:86] Creating Layer pool0
I0430 23:46:25.807585  5522 net.cpp:408] pool0 <- Sigmoid0
I0430 23:46:25.807593  5522 net.cpp:382] pool0 -> pool0
I0430 23:46:25.808346  5522 net.cpp:124] Setting up pool0
I0430 23:46:25.808359  5522 net.cpp:131] Top shape: 111 8 17 17 (256632)
I0430 23:46:25.808363  5522 net.cpp:139] Memory required for data: 10603164
I0430 23:46:25.808367  5522 layer_factory.hpp:77] Creating layer ip1
I0430 23:46:25.808380  5522 net.cpp:86] Creating Layer ip1
I0430 23:46:25.808383  5522 net.cpp:408] ip1 <- pool0
I0430 23:46:25.808390  5522 net.cpp:382] ip1 -> ip1
I0430 23:46:25.810994  5522 net.cpp:124] Setting up ip1
I0430 23:46:25.811003  5522 net.cpp:131] Top shape: 111 40 (4440)
I0430 23:46:25.811007  5522 net.cpp:139] Memory required for data: 10620924
I0430 23:46:25.811014  5522 layer_factory.hpp:77] Creating layer relu1
I0430 23:46:25.811020  5522 net.cpp:86] Creating Layer relu1
I0430 23:46:25.811023  5522 net.cpp:408] relu1 <- ip1
I0430 23:46:25.811028  5522 net.cpp:369] relu1 -> ip1 (in-place)
I0430 23:46:25.811202  5522 net.cpp:124] Setting up relu1
I0430 23:46:25.811210  5522 net.cpp:131] Top shape: 111 40 (4440)
I0430 23:46:25.811213  5522 net.cpp:139] Memory required for data: 10638684
I0430 23:46:25.811216  5522 layer_factory.hpp:77] Creating layer ip2
I0430 23:46:25.811223  5522 net.cpp:86] Creating Layer ip2
I0430 23:46:25.811226  5522 net.cpp:408] ip2 <- ip1
I0430 23:46:25.811231  5522 net.cpp:382] ip2 -> ip2
I0430 23:46:25.812186  5522 net.cpp:124] Setting up ip2
I0430 23:46:25.812198  5522 net.cpp:131] Top shape: 111 10 (1110)
I0430 23:46:25.812201  5522 net.cpp:139] Memory required for data: 10643124
I0430 23:46:25.812211  5522 layer_factory.hpp:77] Creating layer relu2
I0430 23:46:25.812216  5522 net.cpp:86] Creating Layer relu2
I0430 23:46:25.812219  5522 net.cpp:408] relu2 <- ip2
I0430 23:46:25.812224  5522 net.cpp:369] relu2 -> ip2 (in-place)
I0430 23:46:25.812404  5522 net.cpp:124] Setting up relu2
I0430 23:46:25.812414  5522 net.cpp:131] Top shape: 111 10 (1110)
I0430 23:46:25.812417  5522 net.cpp:139] Memory required for data: 10647564
I0430 23:46:25.812422  5522 layer_factory.hpp:77] Creating layer ip3
I0430 23:46:25.812429  5522 net.cpp:86] Creating Layer ip3
I0430 23:46:25.812435  5522 net.cpp:408] ip3 <- ip2
I0430 23:46:25.812443  5522 net.cpp:382] ip3 -> ip3
I0430 23:46:25.812557  5522 net.cpp:124] Setting up ip3
I0430 23:46:25.812566  5522 net.cpp:131] Top shape: 111 20 (2220)
I0430 23:46:25.812568  5522 net.cpp:139] Memory required for data: 10656444
I0430 23:46:25.812574  5522 layer_factory.hpp:77] Creating layer relu3
I0430 23:46:25.812579  5522 net.cpp:86] Creating Layer relu3
I0430 23:46:25.812583  5522 net.cpp:408] relu3 <- ip3
I0430 23:46:25.812587  5522 net.cpp:369] relu3 -> ip3 (in-place)
I0430 23:46:25.812749  5522 net.cpp:124] Setting up relu3
I0430 23:46:25.812758  5522 net.cpp:131] Top shape: 111 20 (2220)
I0430 23:46:25.812762  5522 net.cpp:139] Memory required for data: 10665324
I0430 23:46:25.812764  5522 layer_factory.hpp:77] Creating layer ip4
I0430 23:46:25.812784  5522 net.cpp:86] Creating Layer ip4
I0430 23:46:25.812790  5522 net.cpp:408] ip4 <- ip3
I0430 23:46:25.812798  5522 net.cpp:382] ip4 -> ip4
I0430 23:46:25.812934  5522 net.cpp:124] Setting up ip4
I0430 23:46:25.812943  5522 net.cpp:131] Top shape: 111 10 (1110)
I0430 23:46:25.812947  5522 net.cpp:139] Memory required for data: 10669764
I0430 23:46:25.812954  5522 layer_factory.hpp:77] Creating layer loss
I0430 23:46:25.812960  5522 net.cpp:86] Creating Layer loss
I0430 23:46:25.812968  5522 net.cpp:408] loss <- ip4
I0430 23:46:25.812988  5522 net.cpp:408] loss <- label
I0430 23:46:25.812997  5522 net.cpp:382] loss -> loss
I0430 23:46:25.813020  5522 layer_factory.hpp:77] Creating layer loss
…
I0430 23:46:25.814290  5522 solver.cpp:173] Creating test net (#0) specified by net file: ECE595/cifar/train_test/var_everything/cifar_train_test_236.prototxt
I0430 23:46:25.814317  5522 net.cpp:296] The NetState phase (1) differed from the phase (0) specified by a rule in layer cifar
I0430 23:46:25.814427  5522 net.cpp:53] Initializing net from parameters: 
name: "CIFAR"
state {
  phase: TEST
}
layer {
  name: "cifar"
  type: "Data"
  top: "data"
  top: "label"
  include {
    phase: TEST
  }
  transform_param {
    mean_file: "examples/cifar10/mean.binaryproto"
  }
  data_param {
    source: "examples/cifar10/cifar10_test_lmdb"
    batch_size: 1000
    backend: LMDB
  }
}
layer {
  name: "conv0"
  type: "Convolution"
  bottom: "data"
  top: "conv0"
  param {
    lr_mult: 1
  }
  param {
    lr_mult: 2
  }
  convolution_param {
    num_output: 8
    pad: 2
    kernel_size: 3
    stride: 1
    weight_filler {
      type: "gaussian"
      std: 0.01
    }
    bias_filler {
      type: "constant"
    }
  }
}
layer {
  name: "Sigmoid0"
  type: "Sigmoid"
  bottom: "conv0"
  top: "Sigmoid0"
}
layer {
  name: "pool0"
  type: "Pooling"
  bottom: "Sigmoid0"
  top: "pool0"
  pooling_param {
    pool: AVE
    kernel_size: 3
    stride: 2
  }
}
layer {
  name: "ip1"
  type: "InnerProduct"
  bottom: "pool0"
  top: "ip1"
  param {
    lr_mult: 1
  }
  param {
    lr_mult: 2
  }
  inner_product_param {
    num_output: 40
    weight_filler {
      type: "gaussian"
      std: 0.01
    }
    bias_filler {
      type: "constant"
    }
  }
}
layer {
  name: "relu1"
  type: "ReLU"
  bottom: "ip1"
  top: "ip1"
}
layer {
  name: "ip2"
  type: "InnerProduct"
  bottom: "ip1"
  top: "ip2"
  param {
    lr_mult: 1
  }
  param {
    lr_mult: 2
  }
  inner_product_param {
    num_output: 10
    weight_filler {
      type: "gaussian"
      std: 0.01
    }
    bias_filler {
      type: "constant"
    }
  }
}
layer {
  name: "relu2"
  type: "ReLU"
  bottom: "ip2"
  top: "ip2"
}
layer {
  name: "ip3"
  type: "InnerProduct"
  bottom: "ip2"
  top: "ip3"
  param {
    lr_mult: 1
  }
  param {
    lr_mult: 2
  }
  inner_product_param {
    num_output: 20
    weight_filler {
      type: "gaussian"
      std: 0.01
    }
    bias_filler {
      type: "constant"
    }
  }
}
layer {
  name: "relu3"
  type: "ReLU"
  bottom: "ip3"
  top: "ip3"
}
layer {
  name: "ip4"
  type: "InnerProduct"
  bottom: "ip3"
  top: "ip4"
  param {
    lr_mult: 1
  }
  param {
    lr_mult: 2
  }
  inner_product_param {
    num_output: 10
    weight_filler {
      type: "gaussian"
      std: 0.01
    }
    bias_filler {
      type: "constant"
    }
  }
}
layer {
  name: "accuracy"
  type: "Accuracy"
  bottom: "ip4"
  bottom: "label"
  top: "accuracy"
  include {
    phase: TEST
  }
}
layer {
  name: "loss"
  type: "SoftmaxWithLoss"
  bottom: "ip4"
  bottom: "label"
  top: "loss"
}
I0430 23:46:25.814507  5522 layer_factory.hpp:77] Creating layer cifar
I0430 23:46:25.814553  5522 db_lmdb.cpp:35] Opened lmdb examples/cifar10/cifar10_test_lmdb
I0430 23:46:25.814574  5522 net.cpp:86] Creating Layer cifar
I0430 23:46:25.814581  5522 net.cpp:382] cifar -> data
I0430 23:46:25.814592  5522 net.cpp:382] cifar -> label
I0430 23:46:25.814602  5522 data_transformer.cpp:25] Loading mean file from: examples/cifar10/mean.binaryproto
I0430 23:46:25.814813  5522 data_layer.cpp:45] output data size: 1000,3,32,32
I0430 23:46:25.837088  5522 net.cpp:124] Setting up cifar
I0430 23:46:25.837132  5522 net.cpp:131] Top shape: 1000 3 32 32 (3072000)
I0430 23:46:25.837154  5522 net.cpp:131] Top shape: 1000 (1000)
I0430 23:46:25.837157  5522 net.cpp:139] Memory required for data: 12292000
I0430 23:46:25.837164  5522 layer_factory.hpp:77] Creating layer label_cifar_1_split
I0430 23:46:25.837196  5522 net.cpp:86] Creating Layer label_cifar_1_split
I0430 23:46:25.837218  5522 net.cpp:408] label_cifar_1_split <- label
I0430 23:46:25.837239  5522 net.cpp:382] label_cifar_1_split -> label_cifar_1_split_0
I0430 23:46:25.837250  5522 net.cpp:382] label_cifar_1_split -> label_cifar_1_split_1
I0430 23:46:25.837352  5522 net.cpp:124] Setting up label_cifar_1_split
I0430 23:46:25.837360  5522 net.cpp:131] Top shape: 1000 (1000)
I0430 23:46:25.837364  5522 net.cpp:131] Top shape: 1000 (1000)
I0430 23:46:25.837368  5522 net.cpp:139] Memory required for data: 12300000
I0430 23:46:25.837373  5522 layer_factory.hpp:77] Creating layer conv0
I0430 23:46:25.837388  5522 net.cpp:86] Creating Layer conv0
I0430 23:46:25.837394  5522 net.cpp:408] conv0 <- data
I0430 23:46:25.837402  5522 net.cpp:382] conv0 -> conv0
I0430 23:46:25.838785  5522 net.cpp:124] Setting up conv0
I0430 23:46:25.838798  5522 net.cpp:131] Top shape: 1000 8 34 34 (9248000)
I0430 23:46:25.838801  5522 net.cpp:139] Memory required for data: 49292000
I0430 23:46:25.838811  5522 layer_factory.hpp:77] Creating layer Sigmoid0
I0430 23:46:25.838819  5522 net.cpp:86] Creating Layer Sigmoid0
I0430 23:46:25.838821  5522 net.cpp:408] Sigmoid0 <- conv0
I0430 23:46:25.838825  5522 net.cpp:382] Sigmoid0 -> Sigmoid0
I0430 23:46:25.839963  5522 net.cpp:124] Setting up Sigmoid0
I0430 23:46:25.839975  5522 net.cpp:131] Top shape: 1000 8 34 34 (9248000)
I0430 23:46:25.839978  5522 net.cpp:139] Memory required for data: 86284000
I0430 23:46:25.839982  5522 layer_factory.hpp:77] Creating layer pool0
I0430 23:46:25.839989  5522 net.cpp:86] Creating Layer pool0
I0430 23:46:25.839993  5522 net.cpp:408] pool0 <- Sigmoid0
I0430 23:46:25.839998  5522 net.cpp:382] pool0 -> pool0
I0430 23:46:25.840178  5522 net.cpp:124] Setting up pool0
I0430 23:46:25.840186  5522 net.cpp:131] Top shape: 1000 8 17 17 (2312000)
I0430 23:46:25.840189  5522 net.cpp:139] Memory required for data: 95532000
I0430 23:46:25.840193  5522 layer_factory.hpp:77] Creating layer ip1
I0430 23:46:25.840203  5522 net.cpp:86] Creating Layer ip1
I0430 23:46:25.840207  5522 net.cpp:408] ip1 <- pool0
I0430 23:46:25.840215  5522 net.cpp:382] ip1 -> ip1
I0430 23:46:25.842783  5522 net.cpp:124] Setting up ip1
I0430 23:46:25.842793  5522 net.cpp:131] Top shape: 1000 40 (40000)
I0430 23:46:25.842815  5522 net.cpp:139] Memory required for data: 95692000
I0430 23:46:25.842839  5522 layer_factory.hpp:77] Creating layer relu1
I0430 23:46:25.842844  5522 net.cpp:86] Creating Layer relu1
I0430 23:46:25.842847  5522 net.cpp:408] relu1 <- ip1
I0430 23:46:25.842852  5522 net.cpp:369] relu1 -> ip1 (in-place)
I0430 23:46:25.843024  5522 net.cpp:124] Setting up relu1
I0430 23:46:25.843032  5522 net.cpp:131] Top shape: 1000 40 (40000)
I0430 23:46:25.843036  5522 net.cpp:139] Memory required for data: 95852000
I0430 23:46:25.843040  5522 layer_factory.hpp:77] Creating layer ip2
I0430 23:46:25.843046  5522 net.cpp:86] Creating Layer ip2
I0430 23:46:25.843050  5522 net.cpp:408] ip2 <- ip1
I0430 23:46:25.843055  5522 net.cpp:382] ip2 -> ip2
I0430 23:46:25.843216  5522 net.cpp:124] Setting up ip2
I0430 23:46:25.843225  5522 net.cpp:131] Top shape: 1000 10 (10000)
I0430 23:46:25.843227  5522 net.cpp:139] Memory required for data: 95892000
I0430 23:46:25.843235  5522 layer_factory.hpp:77] Creating layer relu2
I0430 23:46:25.843261  5522 net.cpp:86] Creating Layer relu2
I0430 23:46:25.843266  5522 net.cpp:408] relu2 <- ip2
I0430 23:46:25.843273  5522 net.cpp:369] relu2 -> ip2 (in-place)
I0430 23:46:25.844029  5522 net.cpp:124] Setting up relu2
I0430 23:46:25.844058  5522 net.cpp:131] Top shape: 1000 10 (10000)
I0430 23:46:25.844061  5522 net.cpp:139] Memory required for data: 95932000
I0430 23:46:25.844080  5522 layer_factory.hpp:77] Creating layer ip3
I0430 23:46:25.844089  5522 net.cpp:86] Creating Layer ip3
I0430 23:46:25.844091  5522 net.cpp:408] ip3 <- ip2
I0430 23:46:25.844097  5522 net.cpp:382] ip3 -> ip3
I0430 23:46:25.844250  5522 net.cpp:124] Setting up ip3
I0430 23:46:25.844259  5522 net.cpp:131] Top shape: 1000 20 (20000)
I0430 23:46:25.844262  5522 net.cpp:139] Memory required for data: 96012000
I0430 23:46:25.844269  5522 layer_factory.hpp:77] Creating layer relu3
I0430 23:46:25.844275  5522 net.cpp:86] Creating Layer relu3
I0430 23:46:25.844281  5522 net.cpp:408] relu3 <- ip3
I0430 23:46:25.844288  5522 net.cpp:369] relu3 -> ip3 (in-place)
I0430 23:46:25.844470  5522 net.cpp:124] Setting up relu3
I0430 23:46:25.844480  5522 net.cpp:131] Top shape: 1000 20 (20000)
I0430 23:46:25.844482  5522 net.cpp:139] Memory required for data: 96092000
I0430 23:46:25.844499  5522 layer_factory.hpp:77] Creating layer ip4
I0430 23:46:25.844511  5522 net.cpp:86] Creating Layer ip4
I0430 23:46:25.844518  5522 net.cpp:408] ip4 <- ip3
I0430 23:46:25.844528  5522 net.cpp:382] ip4 -> ip4
I0430 23:46:25.844669  5522 net.cpp:124] Setting up ip4
I0430 23:46:25.844677  5522 net.cpp:131] Top shape: 1000 10 (10000)
I0430 23:46:25.844681  5522 net.cpp:139] Memory required for data: 96132000
I0430 23:46:25.844689  5522 layer_factory.hpp:77] Creating layer ip4_ip4_0_split
I0430 23:46:25.844715  5522 net.cpp:86] Creating Layer ip4_ip4_0_split
I0430 23:46:25.844722  5522 net.cpp:408] ip4_ip4_0_split <- ip4
I0430 23:46:25.844728  5522 net.cpp:382] ip4_ip4_0_split -> ip4_ip4_0_split_0
I0430 23:46:25.844738  5522 net.cpp:382] ip4_ip4_0_split -> ip4_ip4_0_split_1
I0430 23:46:25.844779  5522 net.cpp:124] Setting up ip4_ip4_0_split
I0430 23:46:25.844789  5522 net.cpp:131] Top shape: 1000 10 (10000)
I0430 23:46:25.844795  5522 net.cpp:131] Top shape: 1000 10 (10000)
I0430 23:46:25.844804  5522 net.cpp:139] Memory required for data: 96212000
I0430 23:46:25.844813  5522 layer_factory.hpp:77] Creating layer accuracy
I0430 23:46:25.844840  5522 net.cpp:86] Creating Layer accuracy
I0430 23:46:25.844846  5522 net.cpp:408] accuracy <- ip4_ip4_0_split_0
I0430 23:46:25.844854  5522 net.cpp:408] accuracy <- label_cifar_1_split_0
I0430 23:46:25.844867  5522 net.cpp:382] accuracy -> accuracy
…
