…
I0501 03:38:20.668937 21932 net.cpp:296] The NetState phase (0) differed from the phase (1) specified by a rule in layer cifar
I0501 03:38:20.668963 21932 net.cpp:296] The NetState phase (0) differed from the phase (1) specified by a rule in layer accuracy
I0501 03:38:20.669085 21932 net.cpp:53] Initializing net from parameters: 
name: "CIFAR"
state {
  phase: TRAIN
  level: 0
  stage: ""
}
layer {
  name: "cifar"
  type: "Data"
  top: "data"
  top: "label"
  include {
    phase: TRAIN
  }
  transform_param {
    mean_file: "examples/cifar10/mean.binaryproto"
  }
  data_param {
    source: "examples/cifar10/cifar10_train_lmdb"
    batch_size: 111
    backend: LMDB
  }
}
layer {
  name: "conv0"
  type: "Convolution"
  bottom: "data"
  top: "conv0"
  param {
    lr_mult: 1
  }
  param {
    lr_mult: 2
  }
  convolution_param {
    num_output: 8
    pad: 2
    kernel_size: 5
    stride: 1
    weight_filler {
      type: "gaussian"
      std: 0.01
    }
    bias_filler {
      type: "constant"
    }
  }
}
layer {
  name: "Sigmoid0"
  type: "Sigmoid"
  bottom: "conv0"
  top: "Sigmoid0"
}
layer {
  name: "pool0"
  type: "Pooling"
  bottom: "Sigmoid0"
  top: "pool0"
  pooling_param {
    pool: AVE
    kernel_size: 3
    stride: 2
  }
}
layer {
  name: "ip1"
  type: "InnerProduct"
  bottom: "pool0"
  top: "ip1"
  param {
    lr_mult: 1
  }
  param {
    lr_mult: 2
  }
  inner_product_param {
    num_output: 10
    weight_filler {
      type: "gaussian"
      std: 0.01
    }
    bias_filler {
      type: "constant"
    }
  }
}
layer {
  name: "relu1"
  type: "ReLU"
  bottom: "ip1"
  top: "ip1"
}
layer {
  name: "ip2"
  type: "InnerProduct"
  bottom: "ip1"
  top: "ip2"
  param {
    lr_mult: 1
  }
  param {
    lr_mult: 2
  }
  inner_product_param {
    num_output: 160
    weight_filler {
      type: "gaussian"
      std: 0.01
    }
    bias_filler {
      type: "constant"
    }
  }
}
layer {
  name: "relu2"
  type: "ReLU"
  bottom: "ip2"
  top: "ip2"
}
layer {
  name: "ip3"
  type: "InnerProduct"
  bottom: "ip2"
  top: "ip3"
  param {
    lr_mult: 1
  }
  param {
    lr_mult: 2
  }
  inner_product_param {
    num_output: 10
    weight_filler {
      type: "gaussian"
      std: 0.01
    }
    bias_filler {
      type: "constant"
    }
  }
}
layer {
  name: "relu3"
  type: "ReLU"
  bottom: "ip3"
  top: "ip3"
}
layer {
  name: "ip4"
  type: "InnerProduct"
  bottom: "ip3"
  top: "ip4"
  param {
    lr_mult: 1
  }
  param {
    lr_mult: 2
  }
  inner_product_param {
    num_output: 10
    weight_filler {
      type: "gaussian"
      std: 0.01
    }
    bias_filler {
      type: "constant"
    }
  }
}
layer {
  name: "loss"
  type: "SoftmaxWithLoss"
  bottom: "ip4"
  bottom: "label"
  top: "loss"
}
I0501 03:38:20.669200 21932 layer_factory.hpp:77] Creating layer cifar
I0501 03:38:20.669332 21932 db_lmdb.cpp:35] Opened lmdb examples/cifar10/cifar10_train_lmdb
I0501 03:38:20.669369 21932 net.cpp:86] Creating Layer cifar
I0501 03:38:20.669384 21932 net.cpp:382] cifar -> data
I0501 03:38:20.669414 21932 net.cpp:382] cifar -> label
I0501 03:38:20.669432 21932 data_transformer.cpp:25] Loading mean file from: examples/cifar10/mean.binaryproto
I0501 03:38:20.671792 21932 data_layer.cpp:45] output data size: 111,3,32,32
I0501 03:38:20.679733 21932 net.cpp:124] Setting up cifar
I0501 03:38:20.679754 21932 net.cpp:131] Top shape: 111 3 32 32 (340992)
I0501 03:38:20.679767 21932 net.cpp:131] Top shape: 111 (111)
I0501 03:38:20.679774 21932 net.cpp:139] Memory required for data: 1364412
I0501 03:38:20.679811 21932 layer_factory.hpp:77] Creating layer conv0
I0501 03:38:20.679837 21932 net.cpp:86] Creating Layer conv0
I0501 03:38:20.679846 21932 net.cpp:408] conv0 <- data
I0501 03:38:20.679869 21932 net.cpp:382] conv0 -> conv0
I0501 03:38:20.971410 21932 net.cpp:124] Setting up conv0
I0501 03:38:20.971446 21932 net.cpp:131] Top shape: 111 8 32 32 (909312)
I0501 03:38:20.971452 21932 net.cpp:139] Memory required for data: 5001660
I0501 03:38:20.971477 21932 layer_factory.hpp:77] Creating layer Sigmoid0
I0501 03:38:20.971495 21932 net.cpp:86] Creating Layer Sigmoid0
I0501 03:38:20.971504 21932 net.cpp:408] Sigmoid0 <- conv0
I0501 03:38:20.971514 21932 net.cpp:382] Sigmoid0 -> Sigmoid0
I0501 03:38:20.971745 21932 net.cpp:124] Setting up Sigmoid0
I0501 03:38:20.971758 21932 net.cpp:131] Top shape: 111 8 32 32 (909312)
I0501 03:38:20.971765 21932 net.cpp:139] Memory required for data: 8638908
I0501 03:38:20.971771 21932 layer_factory.hpp:77] Creating layer pool0
I0501 03:38:20.971783 21932 net.cpp:86] Creating Layer pool0
I0501 03:38:20.971791 21932 net.cpp:408] pool0 <- Sigmoid0
I0501 03:38:20.971801 21932 net.cpp:382] pool0 -> pool0
I0501 03:38:20.972695 21932 net.cpp:124] Setting up pool0
I0501 03:38:20.972714 21932 net.cpp:131] Top shape: 111 8 16 16 (227328)
I0501 03:38:20.972721 21932 net.cpp:139] Memory required for data: 9548220
I0501 03:38:20.972728 21932 layer_factory.hpp:77] Creating layer ip1
I0501 03:38:20.972744 21932 net.cpp:86] Creating Layer ip1
I0501 03:38:20.972751 21932 net.cpp:408] ip1 <- pool0
I0501 03:38:20.972762 21932 net.cpp:382] ip1 -> ip1
I0501 03:38:20.974573 21932 net.cpp:124] Setting up ip1
I0501 03:38:20.974591 21932 net.cpp:131] Top shape: 111 10 (1110)
I0501 03:38:20.974598 21932 net.cpp:139] Memory required for data: 9552660
I0501 03:38:20.974614 21932 layer_factory.hpp:77] Creating layer relu1
I0501 03:38:20.974627 21932 net.cpp:86] Creating Layer relu1
I0501 03:38:20.974633 21932 net.cpp:408] relu1 <- ip1
I0501 03:38:20.974642 21932 net.cpp:369] relu1 -> ip1 (in-place)
I0501 03:38:20.974843 21932 net.cpp:124] Setting up relu1
I0501 03:38:20.974855 21932 net.cpp:131] Top shape: 111 10 (1110)
I0501 03:38:20.974862 21932 net.cpp:139] Memory required for data: 9557100
I0501 03:38:20.974869 21932 layer_factory.hpp:77] Creating layer ip2
I0501 03:38:20.974880 21932 net.cpp:86] Creating Layer ip2
I0501 03:38:20.974887 21932 net.cpp:408] ip2 <- ip1
I0501 03:38:20.974897 21932 net.cpp:382] ip2 -> ip2
I0501 03:38:20.975073 21932 net.cpp:124] Setting up ip2
I0501 03:38:20.975085 21932 net.cpp:131] Top shape: 111 160 (17760)
I0501 03:38:20.975091 21932 net.cpp:139] Memory required for data: 9628140
I0501 03:38:20.975106 21932 layer_factory.hpp:77] Creating layer relu2
I0501 03:38:20.975116 21932 net.cpp:86] Creating Layer relu2
I0501 03:38:20.975122 21932 net.cpp:408] relu2 <- ip2
I0501 03:38:20.975131 21932 net.cpp:369] relu2 -> ip2 (in-place)
I0501 03:38:20.975328 21932 net.cpp:124] Setting up relu2
I0501 03:38:20.975340 21932 net.cpp:131] Top shape: 111 160 (17760)
I0501 03:38:20.975347 21932 net.cpp:139] Memory required for data: 9699180
I0501 03:38:20.975353 21932 layer_factory.hpp:77] Creating layer ip3
I0501 03:38:20.975368 21932 net.cpp:86] Creating Layer ip3
I0501 03:38:20.975374 21932 net.cpp:408] ip3 <- ip2
I0501 03:38:20.975384 21932 net.cpp:382] ip3 -> ip3
I0501 03:38:20.975563 21932 net.cpp:124] Setting up ip3
I0501 03:38:20.975574 21932 net.cpp:131] Top shape: 111 10 (1110)
I0501 03:38:20.975579 21932 net.cpp:139] Memory required for data: 9703620
I0501 03:38:20.975590 21932 layer_factory.hpp:77] Creating layer relu3
I0501 03:38:20.975600 21932 net.cpp:86] Creating Layer relu3
I0501 03:38:20.975607 21932 net.cpp:408] relu3 <- ip3
I0501 03:38:20.975615 21932 net.cpp:369] relu3 -> ip3 (in-place)
I0501 03:38:20.975807 21932 net.cpp:124] Setting up relu3
I0501 03:38:20.975819 21932 net.cpp:131] Top shape: 111 10 (1110)
I0501 03:38:20.975826 21932 net.cpp:139] Memory required for data: 9708060
I0501 03:38:20.975832 21932 layer_factory.hpp:77] Creating layer ip4
I0501 03:38:20.975868 21932 net.cpp:86] Creating Layer ip4
I0501 03:38:20.975877 21932 net.cpp:408] ip4 <- ip3
I0501 03:38:20.975886 21932 net.cpp:382] ip4 -> ip4
I0501 03:38:20.976012 21932 net.cpp:124] Setting up ip4
I0501 03:38:20.976024 21932 net.cpp:131] Top shape: 111 10 (1110)
I0501 03:38:20.976030 21932 net.cpp:139] Memory required for data: 9712500
I0501 03:38:20.976045 21932 layer_factory.hpp:77] Creating layer loss
I0501 03:38:20.976065 21932 net.cpp:86] Creating Layer loss
I0501 03:38:20.976071 21932 net.cpp:408] loss <- ip4
I0501 03:38:20.976079 21932 net.cpp:408] loss <- label
I0501 03:38:20.976089 21932 net.cpp:382] loss -> loss
I0501 03:38:20.976111 21932 layer_factory.hpp:77] Creating layer loss
…
I0501 03:38:20.977648 21932 solver.cpp:173] Creating test net (#0) specified by net file: ECE595/cifar/train_test/var_everything/cifar_train_test_360.prototxt
I0501 03:38:20.977690 21932 net.cpp:296] The NetState phase (1) differed from the phase (0) specified by a rule in layer cifar
I0501 03:38:20.977813 21932 net.cpp:53] Initializing net from parameters: 
name: "CIFAR"
state {
  phase: TEST
}
layer {
  name: "cifar"
  type: "Data"
  top: "data"
  top: "label"
  include {
    phase: TEST
  }
  transform_param {
    mean_file: "examples/cifar10/mean.binaryproto"
  }
  data_param {
    source: "examples/cifar10/cifar10_test_lmdb"
    batch_size: 1000
    backend: LMDB
  }
}
layer {
  name: "conv0"
  type: "Convolution"
  bottom: "data"
  top: "conv0"
  param {
    lr_mult: 1
  }
  param {
    lr_mult: 2
  }
  convolution_param {
    num_output: 8
    pad: 2
    kernel_size: 5
    stride: 1
    weight_filler {
      type: "gaussian"
      std: 0.01
    }
    bias_filler {
      type: "constant"
    }
  }
}
layer {
  name: "Sigmoid0"
  type: "Sigmoid"
  bottom: "conv0"
  top: "Sigmoid0"
}
layer {
  name: "pool0"
  type: "Pooling"
  bottom: "Sigmoid0"
  top: "pool0"
  pooling_param {
    pool: AVE
    kernel_size: 3
    stride: 2
  }
}
layer {
  name: "ip1"
  type: "InnerProduct"
  bottom: "pool0"
  top: "ip1"
  param {
    lr_mult: 1
  }
  param {
    lr_mult: 2
  }
  inner_product_param {
    num_output: 10
    weight_filler {
      type: "gaussian"
      std: 0.01
    }
    bias_filler {
      type: "constant"
    }
  }
}
layer {
  name: "relu1"
  type: "ReLU"
  bottom: "ip1"
  top: "ip1"
}
layer {
  name: "ip2"
  type: "InnerProduct"
  bottom: "ip1"
  top: "ip2"
  param {
    lr_mult: 1
  }
  param {
    lr_mult: 2
  }
  inner_product_param {
    num_output: 160
    weight_filler {
      type: "gaussian"
      std: 0.01
    }
    bias_filler {
      type: "constant"
    }
  }
}
layer {
  name: "relu2"
  type: "ReLU"
  bottom: "ip2"
  top: "ip2"
}
layer {
  name: "ip3"
  type: "InnerProduct"
  bottom: "ip2"
  top: "ip3"
  param {
    lr_mult: 1
  }
  param {
    lr_mult: 2
  }
  inner_product_param {
    num_output: 10
    weight_filler {
      type: "gaussian"
      std: 0.01
    }
    bias_filler {
      type: "constant"
    }
  }
}
layer {
  name: "relu3"
  type: "ReLU"
  bottom: "ip3"
  top: "ip3"
}
layer {
  name: "ip4"
  type: "InnerProduct"
  bottom: "ip3"
  top: "ip4"
  param {
    lr_mult: 1
  }
  param {
    lr_mult: 2
  }
  inner_product_param {
    num_output: 10
    weight_filler {
      type: "gaussian"
      std: 0.01
    }
    bias_filler {
      type: "constant"
    }
  }
}
layer {
  name: "accuracy"
  type: "Accuracy"
  bottom: "ip4"
  bottom: "label"
  top: "accuracy"
  include {
    phase: TEST
  }
}
layer {
  name: "loss"
  type: "SoftmaxWithLoss"
  bottom: "ip4"
  bottom: "label"
  top: "loss"
}
I0501 03:38:20.977952 21932 layer_factory.hpp:77] Creating layer cifar
I0501 03:38:20.978022 21932 db_lmdb.cpp:35] Opened lmdb examples/cifar10/cifar10_test_lmdb
I0501 03:38:20.978044 21932 net.cpp:86] Creating Layer cifar
I0501 03:38:20.978054 21932 net.cpp:382] cifar -> data
I0501 03:38:20.978067 21932 net.cpp:382] cifar -> label
I0501 03:38:20.978080 21932 data_transformer.cpp:25] Loading mean file from: examples/cifar10/mean.binaryproto
I0501 03:38:20.978325 21932 data_layer.cpp:45] output data size: 1000,3,32,32
I0501 03:38:21.004484 21932 net.cpp:124] Setting up cifar
I0501 03:38:21.004518 21932 net.cpp:131] Top shape: 1000 3 32 32 (3072000)
I0501 03:38:21.004528 21932 net.cpp:131] Top shape: 1000 (1000)
I0501 03:38:21.004534 21932 net.cpp:139] Memory required for data: 12292000
I0501 03:38:21.004542 21932 layer_factory.hpp:77] Creating layer label_cifar_1_split
I0501 03:38:21.004559 21932 net.cpp:86] Creating Layer label_cifar_1_split
I0501 03:38:21.004568 21932 net.cpp:408] label_cifar_1_split <- label
I0501 03:38:21.004578 21932 net.cpp:382] label_cifar_1_split -> label_cifar_1_split_0
I0501 03:38:21.004595 21932 net.cpp:382] label_cifar_1_split -> label_cifar_1_split_1
I0501 03:38:21.004694 21932 net.cpp:124] Setting up label_cifar_1_split
I0501 03:38:21.004704 21932 net.cpp:131] Top shape: 1000 (1000)
I0501 03:38:21.004712 21932 net.cpp:131] Top shape: 1000 (1000)
I0501 03:38:21.004719 21932 net.cpp:139] Memory required for data: 12300000
I0501 03:38:21.004724 21932 layer_factory.hpp:77] Creating layer conv0
I0501 03:38:21.004745 21932 net.cpp:86] Creating Layer conv0
I0501 03:38:21.004752 21932 net.cpp:408] conv0 <- data
I0501 03:38:21.004763 21932 net.cpp:382] conv0 -> conv0
I0501 03:38:21.007472 21932 net.cpp:124] Setting up conv0
I0501 03:38:21.007491 21932 net.cpp:131] Top shape: 1000 8 32 32 (8192000)
I0501 03:38:21.007498 21932 net.cpp:139] Memory required for data: 45068000
I0501 03:38:21.007516 21932 layer_factory.hpp:77] Creating layer Sigmoid0
I0501 03:38:21.007530 21932 net.cpp:86] Creating Layer Sigmoid0
I0501 03:38:21.007545 21932 net.cpp:408] Sigmoid0 <- conv0
I0501 03:38:21.007555 21932 net.cpp:382] Sigmoid0 -> Sigmoid0
I0501 03:38:21.007786 21932 net.cpp:124] Setting up Sigmoid0
I0501 03:38:21.007799 21932 net.cpp:131] Top shape: 1000 8 32 32 (8192000)
I0501 03:38:21.007805 21932 net.cpp:139] Memory required for data: 77836000
I0501 03:38:21.007812 21932 layer_factory.hpp:77] Creating layer pool0
I0501 03:38:21.007824 21932 net.cpp:86] Creating Layer pool0
I0501 03:38:21.007833 21932 net.cpp:408] pool0 <- Sigmoid0
I0501 03:38:21.007843 21932 net.cpp:382] pool0 -> pool0
I0501 03:38:21.008054 21932 net.cpp:124] Setting up pool0
I0501 03:38:21.008066 21932 net.cpp:131] Top shape: 1000 8 16 16 (2048000)
I0501 03:38:21.008072 21932 net.cpp:139] Memory required for data: 86028000
I0501 03:38:21.008078 21932 layer_factory.hpp:77] Creating layer ip1
I0501 03:38:21.008092 21932 net.cpp:86] Creating Layer ip1
I0501 03:38:21.008098 21932 net.cpp:408] ip1 <- pool0
I0501 03:38:21.008108 21932 net.cpp:382] ip1 -> ip1
I0501 03:38:21.008895 21932 net.cpp:124] Setting up ip1
I0501 03:38:21.008909 21932 net.cpp:131] Top shape: 1000 10 (10000)
I0501 03:38:21.008918 21932 net.cpp:139] Memory required for data: 86068000
I0501 03:38:21.008947 21932 layer_factory.hpp:77] Creating layer relu1
I0501 03:38:21.008963 21932 net.cpp:86] Creating Layer relu1
I0501 03:38:21.008970 21932 net.cpp:408] relu1 <- ip1
I0501 03:38:21.008978 21932 net.cpp:369] relu1 -> ip1 (in-place)
I0501 03:38:21.009186 21932 net.cpp:124] Setting up relu1
I0501 03:38:21.009198 21932 net.cpp:131] Top shape: 1000 10 (10000)
I0501 03:38:21.009204 21932 net.cpp:139] Memory required for data: 86108000
I0501 03:38:21.009212 21932 layer_factory.hpp:77] Creating layer ip2
I0501 03:38:21.009223 21932 net.cpp:86] Creating Layer ip2
I0501 03:38:21.009229 21932 net.cpp:408] ip2 <- ip1
I0501 03:38:21.009243 21932 net.cpp:382] ip2 -> ip2
I0501 03:38:21.009435 21932 net.cpp:124] Setting up ip2
I0501 03:38:21.009448 21932 net.cpp:131] Top shape: 1000 160 (160000)
I0501 03:38:21.009454 21932 net.cpp:139] Memory required for data: 86748000
I0501 03:38:21.009469 21932 layer_factory.hpp:77] Creating layer relu2
I0501 03:38:21.009482 21932 net.cpp:86] Creating Layer relu2
I0501 03:38:21.009490 21932 net.cpp:408] relu2 <- ip2
I0501 03:38:21.009497 21932 net.cpp:369] relu2 -> ip2 (in-place)
I0501 03:38:21.010370 21932 net.cpp:124] Setting up relu2
I0501 03:38:21.010387 21932 net.cpp:131] Top shape: 1000 160 (160000)
I0501 03:38:21.010395 21932 net.cpp:139] Memory required for data: 87388000
I0501 03:38:21.010401 21932 layer_factory.hpp:77] Creating layer ip3
I0501 03:38:21.010412 21932 net.cpp:86] Creating Layer ip3
I0501 03:38:21.010419 21932 net.cpp:408] ip3 <- ip2
I0501 03:38:21.010432 21932 net.cpp:382] ip3 -> ip3
I0501 03:38:21.010623 21932 net.cpp:124] Setting up ip3
I0501 03:38:21.010634 21932 net.cpp:131] Top shape: 1000 10 (10000)
I0501 03:38:21.010641 21932 net.cpp:139] Memory required for data: 87428000
I0501 03:38:21.010653 21932 layer_factory.hpp:77] Creating layer relu3
I0501 03:38:21.010663 21932 net.cpp:86] Creating Layer relu3
I0501 03:38:21.010669 21932 net.cpp:408] relu3 <- ip3
I0501 03:38:21.010679 21932 net.cpp:369] relu3 -> ip3 (in-place)
I0501 03:38:21.010877 21932 net.cpp:124] Setting up relu3
I0501 03:38:21.010888 21932 net.cpp:131] Top shape: 1000 10 (10000)
I0501 03:38:21.010895 21932 net.cpp:139] Memory required for data: 87468000
I0501 03:38:21.010900 21932 layer_factory.hpp:77] Creating layer ip4
I0501 03:38:21.010913 21932 net.cpp:86] Creating Layer ip4
I0501 03:38:21.010921 21932 net.cpp:408] ip4 <- ip3
I0501 03:38:21.010929 21932 net.cpp:382] ip4 -> ip4
I0501 03:38:21.011065 21932 net.cpp:124] Setting up ip4
I0501 03:38:21.011076 21932 net.cpp:131] Top shape: 1000 10 (10000)
I0501 03:38:21.011081 21932 net.cpp:139] Memory required for data: 87508000
I0501 03:38:21.011096 21932 layer_factory.hpp:77] Creating layer ip4_ip4_0_split
I0501 03:38:21.011106 21932 net.cpp:86] Creating Layer ip4_ip4_0_split
I0501 03:38:21.011116 21932 net.cpp:408] ip4_ip4_0_split <- ip4
I0501 03:38:21.011126 21932 net.cpp:382] ip4_ip4_0_split -> ip4_ip4_0_split_0
I0501 03:38:21.011153 21932 net.cpp:382] ip4_ip4_0_split -> ip4_ip4_0_split_1
I0501 03:38:21.011200 21932 net.cpp:124] Setting up ip4_ip4_0_split
I0501 03:38:21.011209 21932 net.cpp:131] Top shape: 1000 10 (10000)
I0501 03:38:21.011217 21932 net.cpp:131] Top shape: 1000 10 (10000)
I0501 03:38:21.011224 21932 net.cpp:139] Memory required for data: 87588000
I0501 03:38:21.011229 21932 layer_factory.hpp:77] Creating layer accuracy
I0501 03:38:21.011241 21932 net.cpp:86] Creating Layer accuracy
I0501 03:38:21.011248 21932 net.cpp:408] accuracy <- ip4_ip4_0_split_0
I0501 03:38:21.011255 21932 net.cpp:408] accuracy <- label_cifar_1_split_0
I0501 03:38:21.011266 21932 net.cpp:382] accuracy -> accuracy
…
