…
I0430 22:19:48.944267  1612 net.cpp:296] The NetState phase (0) differed from the phase (1) specified by a rule in layer cifar
I0430 22:19:48.944281  1612 net.cpp:296] The NetState phase (0) differed from the phase (1) specified by a rule in layer accuracy
I0430 22:19:48.944377  1612 net.cpp:53] Initializing net from parameters: 
name: "CIFAR"
state {
  phase: TRAIN
  level: 0
  stage: ""
}
layer {
  name: "cifar"
  type: "Data"
  top: "data"
  top: "label"
  include {
    phase: TRAIN
  }
  transform_param {
    mean_file: "examples/cifar10/mean.binaryproto"
  }
  data_param {
    source: "examples/cifar10/cifar10_train_lmdb"
    batch_size: 111
    backend: LMDB
  }
}
layer {
  name: "conv0"
  type: "Convolution"
  bottom: "data"
  top: "conv0"
  param {
    lr_mult: 1
  }
  param {
    lr_mult: 2
  }
  convolution_param {
    num_output: 8
    pad: 2
    kernel_size: 3
    stride: 1
    weight_filler {
      type: "gaussian"
      std: 0.01
    }
    bias_filler {
      type: "constant"
    }
  }
}
layer {
  name: "Sigmoid0"
  type: "Sigmoid"
  bottom: "conv0"
  top: "Sigmoid0"
}
layer {
  name: "pool0"
  type: "Pooling"
  bottom: "Sigmoid0"
  top: "pool0"
  pooling_param {
    pool: AVE
    kernel_size: 3
    stride: 2
  }
}
layer {
  name: "ip1"
  type: "InnerProduct"
  bottom: "pool0"
  top: "ip1"
  param {
    lr_mult: 1
  }
  param {
    lr_mult: 2
  }
  inner_product_param {
    num_output: 10
    weight_filler {
      type: "gaussian"
      std: 0.01
    }
    bias_filler {
      type: "constant"
    }
  }
}
layer {
  name: "relu1"
  type: "ReLU"
  bottom: "ip1"
  top: "ip1"
}
layer {
  name: "ip2"
  type: "InnerProduct"
  bottom: "ip1"
  top: "ip2"
  param {
    lr_mult: 1
  }
  param {
    lr_mult: 2
  }
  inner_product_param {
    num_output: 20
    weight_filler {
      type: "gaussian"
      std: 0.01
    }
    bias_filler {
      type: "constant"
    }
  }
}
layer {
  name: "relu2"
  type: "ReLU"
  bottom: "ip2"
  top: "ip2"
}
layer {
  name: "ip3"
  type: "InnerProduct"
  bottom: "ip2"
  top: "ip3"
  param {
    lr_mult: 1
  }
  param {
    lr_mult: 2
  }
  inner_product_param {
    num_output: 10
    weight_filler {
      type: "gaussian"
      std: 0.01
    }
    bias_filler {
      type: "constant"
    }
  }
}
layer {
  name: "relu3"
  type: "ReLU"
  bottom: "ip3"
  top: "ip3"
}
layer {
  name: "ip4"
  type: "InnerProduct"
  bottom: "ip3"
  top: "ip4"
  param {
    lr_mult: 1
  }
  param {
    lr_mult: 2
  }
  inner_product_param {
    num_output: 10
    weight_filler {
      type: "gaussian"
      std: 0.01
    }
    bias_filler {
      type: "constant"
    }
  }
}
layer {
  name: "loss"
  type: "SoftmaxWithLoss"
  bottom: "ip4"
  bottom: "label"
  top: "loss"
}
I0430 22:19:48.944440  1612 layer_factory.hpp:77] Creating layer cifar
I0430 22:19:48.944521  1612 db_lmdb.cpp:35] Opened lmdb examples/cifar10/cifar10_train_lmdb
I0430 22:19:48.944543  1612 net.cpp:86] Creating Layer cifar
I0430 22:19:48.944551  1612 net.cpp:382] cifar -> data
I0430 22:19:48.944569  1612 net.cpp:382] cifar -> label
I0430 22:19:48.944578  1612 data_transformer.cpp:25] Loading mean file from: examples/cifar10/mean.binaryproto
I0430 22:19:48.946348  1612 data_layer.cpp:45] output data size: 111,3,32,32
I0430 22:19:48.952651  1612 net.cpp:124] Setting up cifar
I0430 22:19:48.952664  1612 net.cpp:131] Top shape: 111 3 32 32 (340992)
I0430 22:19:48.952684  1612 net.cpp:131] Top shape: 111 (111)
I0430 22:19:48.952687  1612 net.cpp:139] Memory required for data: 1364412
I0430 22:19:48.952705  1612 layer_factory.hpp:77] Creating layer conv0
I0430 22:19:48.952735  1612 net.cpp:86] Creating Layer conv0
I0430 22:19:48.952740  1612 net.cpp:408] conv0 <- data
I0430 22:19:48.952769  1612 net.cpp:382] conv0 -> conv0
I0430 22:19:49.250604  1612 net.cpp:124] Setting up conv0
I0430 22:19:49.250634  1612 net.cpp:131] Top shape: 111 8 34 34 (1026528)
I0430 22:19:49.250639  1612 net.cpp:139] Memory required for data: 5470524
I0430 22:19:49.250658  1612 layer_factory.hpp:77] Creating layer Sigmoid0
I0430 22:19:49.250674  1612 net.cpp:86] Creating Layer Sigmoid0
I0430 22:19:49.250677  1612 net.cpp:408] Sigmoid0 <- conv0
I0430 22:19:49.250684  1612 net.cpp:382] Sigmoid0 -> Sigmoid0
I0430 22:19:49.250896  1612 net.cpp:124] Setting up Sigmoid0
I0430 22:19:49.250907  1612 net.cpp:131] Top shape: 111 8 34 34 (1026528)
I0430 22:19:49.250911  1612 net.cpp:139] Memory required for data: 9576636
I0430 22:19:49.250916  1612 layer_factory.hpp:77] Creating layer pool0
I0430 22:19:49.250923  1612 net.cpp:86] Creating Layer pool0
I0430 22:19:49.250927  1612 net.cpp:408] pool0 <- Sigmoid0
I0430 22:19:49.250932  1612 net.cpp:382] pool0 -> pool0
I0430 22:19:49.251797  1612 net.cpp:124] Setting up pool0
I0430 22:19:49.251813  1612 net.cpp:131] Top shape: 111 8 17 17 (256632)
I0430 22:19:49.251818  1612 net.cpp:139] Memory required for data: 10603164
I0430 22:19:49.251822  1612 layer_factory.hpp:77] Creating layer ip1
I0430 22:19:49.251833  1612 net.cpp:86] Creating Layer ip1
I0430 22:19:49.251837  1612 net.cpp:408] ip1 <- pool0
I0430 22:19:49.251843  1612 net.cpp:382] ip1 -> ip1
I0430 22:19:49.253698  1612 net.cpp:124] Setting up ip1
I0430 22:19:49.253713  1612 net.cpp:131] Top shape: 111 10 (1110)
I0430 22:19:49.253720  1612 net.cpp:139] Memory required for data: 10607604
I0430 22:19:49.253728  1612 layer_factory.hpp:77] Creating layer relu1
I0430 22:19:49.253736  1612 net.cpp:86] Creating Layer relu1
I0430 22:19:49.253741  1612 net.cpp:408] relu1 <- ip1
I0430 22:19:49.253746  1612 net.cpp:369] relu1 -> ip1 (in-place)
I0430 22:19:49.253929  1612 net.cpp:124] Setting up relu1
I0430 22:19:49.253939  1612 net.cpp:131] Top shape: 111 10 (1110)
I0430 22:19:49.253943  1612 net.cpp:139] Memory required for data: 10612044
I0430 22:19:49.253947  1612 layer_factory.hpp:77] Creating layer ip2
I0430 22:19:49.253954  1612 net.cpp:86] Creating Layer ip2
I0430 22:19:49.253958  1612 net.cpp:408] ip2 <- ip1
I0430 22:19:49.253963  1612 net.cpp:382] ip2 -> ip2
I0430 22:19:49.254081  1612 net.cpp:124] Setting up ip2
I0430 22:19:49.254088  1612 net.cpp:131] Top shape: 111 20 (2220)
I0430 22:19:49.254092  1612 net.cpp:139] Memory required for data: 10620924
I0430 22:19:49.254101  1612 layer_factory.hpp:77] Creating layer relu2
I0430 22:19:49.254107  1612 net.cpp:86] Creating Layer relu2
I0430 22:19:49.254111  1612 net.cpp:408] relu2 <- ip2
I0430 22:19:49.254115  1612 net.cpp:369] relu2 -> ip2 (in-place)
I0430 22:19:49.254292  1612 net.cpp:124] Setting up relu2
I0430 22:19:49.254302  1612 net.cpp:131] Top shape: 111 20 (2220)
I0430 22:19:49.254305  1612 net.cpp:139] Memory required for data: 10629804
I0430 22:19:49.254308  1612 layer_factory.hpp:77] Creating layer ip3
I0430 22:19:49.254317  1612 net.cpp:86] Creating Layer ip3
I0430 22:19:49.254320  1612 net.cpp:408] ip3 <- ip2
I0430 22:19:49.254326  1612 net.cpp:382] ip3 -> ip3
I0430 22:19:49.254438  1612 net.cpp:124] Setting up ip3
I0430 22:19:49.254446  1612 net.cpp:131] Top shape: 111 10 (1110)
I0430 22:19:49.254451  1612 net.cpp:139] Memory required for data: 10634244
I0430 22:19:49.254456  1612 layer_factory.hpp:77] Creating layer relu3
I0430 22:19:49.254462  1612 net.cpp:86] Creating Layer relu3
I0430 22:19:49.254465  1612 net.cpp:408] relu3 <- ip3
I0430 22:19:49.254469  1612 net.cpp:369] relu3 -> ip3 (in-place)
I0430 22:19:49.254639  1612 net.cpp:124] Setting up relu3
I0430 22:19:49.254648  1612 net.cpp:131] Top shape: 111 10 (1110)
I0430 22:19:49.254652  1612 net.cpp:139] Memory required for data: 10638684
I0430 22:19:49.254655  1612 layer_factory.hpp:77] Creating layer ip4
I0430 22:19:49.254679  1612 net.cpp:86] Creating Layer ip4
I0430 22:19:49.254683  1612 net.cpp:408] ip4 <- ip3
I0430 22:19:49.254688  1612 net.cpp:382] ip4 -> ip4
I0430 22:19:49.254801  1612 net.cpp:124] Setting up ip4
I0430 22:19:49.254811  1612 net.cpp:131] Top shape: 111 10 (1110)
I0430 22:19:49.254813  1612 net.cpp:139] Memory required for data: 10643124
I0430 22:19:49.254822  1612 layer_factory.hpp:77] Creating layer loss
I0430 22:19:49.254828  1612 net.cpp:86] Creating Layer loss
I0430 22:19:49.254832  1612 net.cpp:408] loss <- ip4
I0430 22:19:49.254837  1612 net.cpp:408] loss <- label
I0430 22:19:49.254842  1612 net.cpp:382] loss -> loss
I0430 22:19:49.254863  1612 layer_factory.hpp:77] Creating layer loss
…
I0430 22:19:49.256280  1612 solver.cpp:173] Creating test net (#0) specified by net file: ECE595/cifar/train_test/var_everything/cifar_train_test_190.prototxt
I0430 22:19:49.256312  1612 net.cpp:296] The NetState phase (1) differed from the phase (0) specified by a rule in layer cifar
I0430 22:19:49.256423  1612 net.cpp:53] Initializing net from parameters: 
name: "CIFAR"
state {
  phase: TEST
}
layer {
  name: "cifar"
  type: "Data"
  top: "data"
  top: "label"
  include {
    phase: TEST
  }
  transform_param {
    mean_file: "examples/cifar10/mean.binaryproto"
  }
  data_param {
    source: "examples/cifar10/cifar10_test_lmdb"
    batch_size: 1000
    backend: LMDB
  }
}
layer {
  name: "conv0"
  type: "Convolution"
  bottom: "data"
  top: "conv0"
  param {
    lr_mult: 1
  }
  param {
    lr_mult: 2
  }
  convolution_param {
    num_output: 8
    pad: 2
    kernel_size: 3
    stride: 1
    weight_filler {
      type: "gaussian"
      std: 0.01
    }
    bias_filler {
      type: "constant"
    }
  }
}
layer {
  name: "Sigmoid0"
  type: "Sigmoid"
  bottom: "conv0"
  top: "Sigmoid0"
}
layer {
  name: "pool0"
  type: "Pooling"
  bottom: "Sigmoid0"
  top: "pool0"
  pooling_param {
    pool: AVE
    kernel_size: 3
    stride: 2
  }
}
layer {
  name: "ip1"
  type: "InnerProduct"
  bottom: "pool0"
  top: "ip1"
  param {
    lr_mult: 1
  }
  param {
    lr_mult: 2
  }
  inner_product_param {
    num_output: 10
    weight_filler {
      type: "gaussian"
      std: 0.01
    }
    bias_filler {
      type: "constant"
    }
  }
}
layer {
  name: "relu1"
  type: "ReLU"
  bottom: "ip1"
  top: "ip1"
}
layer {
  name: "ip2"
  type: "InnerProduct"
  bottom: "ip1"
  top: "ip2"
  param {
    lr_mult: 1
  }
  param {
    lr_mult: 2
  }
  inner_product_param {
    num_output: 20
    weight_filler {
      type: "gaussian"
      std: 0.01
    }
    bias_filler {
      type: "constant"
    }
  }
}
layer {
  name: "relu2"
  type: "ReLU"
  bottom: "ip2"
  top: "ip2"
}
layer {
  name: "ip3"
  type: "InnerProduct"
  bottom: "ip2"
  top: "ip3"
  param {
    lr_mult: 1
  }
  param {
    lr_mult: 2
  }
  inner_product_param {
    num_output: 10
    weight_filler {
      type: "gaussian"
      std: 0.01
    }
    bias_filler {
      type: "constant"
    }
  }
}
layer {
  name: "relu3"
  type: "ReLU"
  bottom: "ip3"
  top: "ip3"
}
layer {
  name: "ip4"
  type: "InnerProduct"
  bottom: "ip3"
  top: "ip4"
  param {
    lr_mult: 1
  }
  param {
    lr_mult: 2
  }
  inner_product_param {
    num_output: 10
    weight_filler {
      type: "gaussian"
      std: 0.01
    }
    bias_filler {
      type: "constant"
    }
  }
}
layer {
  name: "accuracy"
  type: "Accuracy"
  bottom: "ip4"
  bottom: "label"
  top: "accuracy"
  include {
    phase: TEST
  }
}
layer {
  name: "loss"
  type: "SoftmaxWithLoss"
  bottom: "ip4"
  bottom: "label"
  top: "loss"
}
I0430 22:19:49.256516  1612 layer_factory.hpp:77] Creating layer cifar
I0430 22:19:49.256568  1612 db_lmdb.cpp:35] Opened lmdb examples/cifar10/cifar10_test_lmdb
I0430 22:19:49.256582  1612 net.cpp:86] Creating Layer cifar
I0430 22:19:49.256588  1612 net.cpp:382] cifar -> data
I0430 22:19:49.256597  1612 net.cpp:382] cifar -> label
I0430 22:19:49.256605  1612 data_transformer.cpp:25] Loading mean file from: examples/cifar10/mean.binaryproto
I0430 22:19:49.256778  1612 data_layer.cpp:45] output data size: 1000,3,32,32
I0430 22:19:49.283041  1612 net.cpp:124] Setting up cifar
I0430 22:19:49.283071  1612 net.cpp:131] Top shape: 1000 3 32 32 (3072000)
I0430 22:19:49.283077  1612 net.cpp:131] Top shape: 1000 (1000)
I0430 22:19:49.283082  1612 net.cpp:139] Memory required for data: 12292000
I0430 22:19:49.283087  1612 layer_factory.hpp:77] Creating layer label_cifar_1_split
I0430 22:19:49.283102  1612 net.cpp:86] Creating Layer label_cifar_1_split
I0430 22:19:49.283107  1612 net.cpp:408] label_cifar_1_split <- label
I0430 22:19:49.283113  1612 net.cpp:382] label_cifar_1_split -> label_cifar_1_split_0
I0430 22:19:49.283123  1612 net.cpp:382] label_cifar_1_split -> label_cifar_1_split_1
I0430 22:19:49.283262  1612 net.cpp:124] Setting up label_cifar_1_split
I0430 22:19:49.283272  1612 net.cpp:131] Top shape: 1000 (1000)
I0430 22:19:49.283277  1612 net.cpp:131] Top shape: 1000 (1000)
I0430 22:19:49.283280  1612 net.cpp:139] Memory required for data: 12300000
I0430 22:19:49.283284  1612 layer_factory.hpp:77] Creating layer conv0
I0430 22:19:49.283299  1612 net.cpp:86] Creating Layer conv0
I0430 22:19:49.283303  1612 net.cpp:408] conv0 <- data
I0430 22:19:49.283309  1612 net.cpp:382] conv0 -> conv0
I0430 22:19:49.286067  1612 net.cpp:124] Setting up conv0
I0430 22:19:49.286087  1612 net.cpp:131] Top shape: 1000 8 34 34 (9248000)
I0430 22:19:49.286090  1612 net.cpp:139] Memory required for data: 49292000
I0430 22:19:49.286103  1612 layer_factory.hpp:77] Creating layer Sigmoid0
I0430 22:19:49.286110  1612 net.cpp:86] Creating Layer Sigmoid0
I0430 22:19:49.286116  1612 net.cpp:408] Sigmoid0 <- conv0
I0430 22:19:49.286123  1612 net.cpp:382] Sigmoid0 -> Sigmoid0
I0430 22:19:49.286355  1612 net.cpp:124] Setting up Sigmoid0
I0430 22:19:49.286365  1612 net.cpp:131] Top shape: 1000 8 34 34 (9248000)
I0430 22:19:49.286370  1612 net.cpp:139] Memory required for data: 86284000
I0430 22:19:49.286373  1612 layer_factory.hpp:77] Creating layer pool0
I0430 22:19:49.286382  1612 net.cpp:86] Creating Layer pool0
I0430 22:19:49.286386  1612 net.cpp:408] pool0 <- Sigmoid0
I0430 22:19:49.286394  1612 net.cpp:382] pool0 -> pool0
I0430 22:19:49.286600  1612 net.cpp:124] Setting up pool0
I0430 22:19:49.286610  1612 net.cpp:131] Top shape: 1000 8 17 17 (2312000)
I0430 22:19:49.286613  1612 net.cpp:139] Memory required for data: 95532000
I0430 22:19:49.286617  1612 layer_factory.hpp:77] Creating layer ip1
I0430 22:19:49.286628  1612 net.cpp:86] Creating Layer ip1
I0430 22:19:49.286633  1612 net.cpp:408] ip1 <- pool0
I0430 22:19:49.286638  1612 net.cpp:382] ip1 -> ip1
I0430 22:19:49.287549  1612 net.cpp:124] Setting up ip1
I0430 22:19:49.287559  1612 net.cpp:131] Top shape: 1000 10 (10000)
I0430 22:19:49.287561  1612 net.cpp:139] Memory required for data: 95572000
I0430 22:19:49.287595  1612 layer_factory.hpp:77] Creating layer relu1
I0430 22:19:49.287603  1612 net.cpp:86] Creating Layer relu1
I0430 22:19:49.287607  1612 net.cpp:408] relu1 <- ip1
I0430 22:19:49.287612  1612 net.cpp:369] relu1 -> ip1 (in-place)
I0430 22:19:49.287811  1612 net.cpp:124] Setting up relu1
I0430 22:19:49.287822  1612 net.cpp:131] Top shape: 1000 10 (10000)
I0430 22:19:49.287825  1612 net.cpp:139] Memory required for data: 95612000
I0430 22:19:49.287829  1612 layer_factory.hpp:77] Creating layer ip2
I0430 22:19:49.287838  1612 net.cpp:86] Creating Layer ip2
I0430 22:19:49.287842  1612 net.cpp:408] ip2 <- ip1
I0430 22:19:49.287847  1612 net.cpp:382] ip2 -> ip2
I0430 22:19:49.287981  1612 net.cpp:124] Setting up ip2
I0430 22:19:49.287989  1612 net.cpp:131] Top shape: 1000 20 (20000)
I0430 22:19:49.287993  1612 net.cpp:139] Memory required for data: 95692000
I0430 22:19:49.288002  1612 layer_factory.hpp:77] Creating layer relu2
I0430 22:19:49.288010  1612 net.cpp:86] Creating Layer relu2
I0430 22:19:49.288014  1612 net.cpp:408] relu2 <- ip2
I0430 22:19:49.288022  1612 net.cpp:369] relu2 -> ip2 (in-place)
I0430 22:19:49.288933  1612 net.cpp:124] Setting up relu2
I0430 22:19:49.288949  1612 net.cpp:131] Top shape: 1000 20 (20000)
I0430 22:19:49.288952  1612 net.cpp:139] Memory required for data: 95772000
I0430 22:19:49.288956  1612 layer_factory.hpp:77] Creating layer ip3
I0430 22:19:49.288964  1612 net.cpp:86] Creating Layer ip3
I0430 22:19:49.288969  1612 net.cpp:408] ip3 <- ip2
I0430 22:19:49.288976  1612 net.cpp:382] ip3 -> ip3
I0430 22:19:49.289113  1612 net.cpp:124] Setting up ip3
I0430 22:19:49.289121  1612 net.cpp:131] Top shape: 1000 10 (10000)
I0430 22:19:49.289124  1612 net.cpp:139] Memory required for data: 95812000
I0430 22:19:49.289131  1612 layer_factory.hpp:77] Creating layer relu3
I0430 22:19:49.289137  1612 net.cpp:86] Creating Layer relu3
I0430 22:19:49.289141  1612 net.cpp:408] relu3 <- ip3
I0430 22:19:49.289147  1612 net.cpp:369] relu3 -> ip3 (in-place)
I0430 22:19:49.289337  1612 net.cpp:124] Setting up relu3
I0430 22:19:49.289347  1612 net.cpp:131] Top shape: 1000 10 (10000)
I0430 22:19:49.289351  1612 net.cpp:139] Memory required for data: 95852000
I0430 22:19:49.289355  1612 layer_factory.hpp:77] Creating layer ip4
I0430 22:19:49.289363  1612 net.cpp:86] Creating Layer ip4
I0430 22:19:49.289367  1612 net.cpp:408] ip4 <- ip3
I0430 22:19:49.289372  1612 net.cpp:382] ip4 -> ip4
I0430 22:19:49.289499  1612 net.cpp:124] Setting up ip4
I0430 22:19:49.289506  1612 net.cpp:131] Top shape: 1000 10 (10000)
I0430 22:19:49.289510  1612 net.cpp:139] Memory required for data: 95892000
I0430 22:19:49.289520  1612 layer_factory.hpp:77] Creating layer ip4_ip4_0_split
I0430 22:19:49.289525  1612 net.cpp:86] Creating Layer ip4_ip4_0_split
I0430 22:19:49.289528  1612 net.cpp:408] ip4_ip4_0_split <- ip4
I0430 22:19:49.289535  1612 net.cpp:382] ip4_ip4_0_split -> ip4_ip4_0_split_0
I0430 22:19:49.289541  1612 net.cpp:382] ip4_ip4_0_split -> ip4_ip4_0_split_1
I0430 22:19:49.289578  1612 net.cpp:124] Setting up ip4_ip4_0_split
I0430 22:19:49.289587  1612 net.cpp:131] Top shape: 1000 10 (10000)
I0430 22:19:49.289590  1612 net.cpp:131] Top shape: 1000 10 (10000)
I0430 22:19:49.289594  1612 net.cpp:139] Memory required for data: 95972000
I0430 22:19:49.289597  1612 layer_factory.hpp:77] Creating layer accuracy
I0430 22:19:49.289603  1612 net.cpp:86] Creating Layer accuracy
I0430 22:19:49.289608  1612 net.cpp:408] accuracy <- ip4_ip4_0_split_0
I0430 22:19:49.289611  1612 net.cpp:408] accuracy <- label_cifar_1_split_0
I0430 22:19:49.289618  1612 net.cpp:382] accuracy -> accuracy
…
