…
I0501 06:03:22.074705 31401 net.cpp:296] The NetState phase (0) differed from the phase (1) specified by a rule in layer cifar
I0501 06:03:22.074720 31401 net.cpp:296] The NetState phase (0) differed from the phase (1) specified by a rule in layer accuracy
I0501 06:03:22.074807 31401 net.cpp:53] Initializing net from parameters: 
name: "CIFAR"
state {
  phase: TRAIN
  level: 0
  stage: ""
}
layer {
  name: "cifar"
  type: "Data"
  top: "data"
  top: "label"
  include {
    phase: TRAIN
  }
  transform_param {
    mean_file: "examples/cifar10/mean.binaryproto"
  }
  data_param {
    source: "examples/cifar10/cifar10_train_lmdb"
    batch_size: 111
    backend: LMDB
  }
}
layer {
  name: "conv0"
  type: "Convolution"
  bottom: "data"
  top: "conv0"
  param {
    lr_mult: 1
  }
  param {
    lr_mult: 2
  }
  convolution_param {
    num_output: 8
    pad: 2
    kernel_size: 5
    stride: 1
    weight_filler {
      type: "gaussian"
      std: 0.01
    }
    bias_filler {
      type: "constant"
    }
  }
}
layer {
  name: "Sigmoid0"
  type: "Sigmoid"
  bottom: "conv0"
  top: "Sigmoid0"
}
layer {
  name: "pool0"
  type: "Pooling"
  bottom: "Sigmoid0"
  top: "pool0"
  pooling_param {
    pool: AVE
    kernel_size: 3
    stride: 2
  }
}
layer {
  name: "ip1"
  type: "InnerProduct"
  bottom: "pool0"
  top: "ip1"
  param {
    lr_mult: 1
  }
  param {
    lr_mult: 2
  }
  inner_product_param {
    num_output: 80
    weight_filler {
      type: "gaussian"
      std: 0.01
    }
    bias_filler {
      type: "constant"
    }
  }
}
layer {
  name: "relu1"
  type: "ReLU"
  bottom: "ip1"
  top: "ip1"
}
layer {
  name: "ip2"
  type: "InnerProduct"
  bottom: "ip1"
  top: "ip2"
  param {
    lr_mult: 1
  }
  param {
    lr_mult: 2
  }
  inner_product_param {
    num_output: 160
    weight_filler {
      type: "gaussian"
      std: 0.01
    }
    bias_filler {
      type: "constant"
    }
  }
}
layer {
  name: "relu2"
  type: "ReLU"
  bottom: "ip2"
  top: "ip2"
}
layer {
  name: "ip3"
  type: "InnerProduct"
  bottom: "ip2"
  top: "ip3"
  param {
    lr_mult: 1
  }
  param {
    lr_mult: 2
  }
  inner_product_param {
    num_output: 80
    weight_filler {
      type: "gaussian"
      std: 0.01
    }
    bias_filler {
      type: "constant"
    }
  }
}
layer {
  name: "relu3"
  type: "ReLU"
  bottom: "ip3"
  top: "ip3"
}
layer {
  name: "ip4"
  type: "InnerProduct"
  bottom: "ip3"
  top: "ip4"
  param {
    lr_mult: 1
  }
  param {
    lr_mult: 2
  }
  inner_product_param {
    num_output: 10
    weight_filler {
      type: "gaussian"
      std: 0.01
    }
    bias_filler {
      type: "constant"
    }
  }
}
layer {
  name: "loss"
  type: "SoftmaxWithLoss"
  bottom: "ip4"
  bottom: "label"
  top: "loss"
}
I0501 06:03:22.074873 31401 layer_factory.hpp:77] Creating layer cifar
I0501 06:03:22.074971 31401 db_lmdb.cpp:35] Opened lmdb examples/cifar10/cifar10_train_lmdb
I0501 06:03:22.074993 31401 net.cpp:86] Creating Layer cifar
I0501 06:03:22.075001 31401 net.cpp:382] cifar -> data
I0501 06:03:22.075021 31401 net.cpp:382] cifar -> label
I0501 06:03:22.075031 31401 data_transformer.cpp:25] Loading mean file from: examples/cifar10/mean.binaryproto
I0501 06:03:22.076941 31401 data_layer.cpp:45] output data size: 111,3,32,32
I0501 06:03:22.083663 31401 net.cpp:124] Setting up cifar
I0501 06:03:22.083693 31401 net.cpp:131] Top shape: 111 3 32 32 (340992)
I0501 06:03:22.083714 31401 net.cpp:131] Top shape: 111 (111)
I0501 06:03:22.083717 31401 net.cpp:139] Memory required for data: 1364412
I0501 06:03:22.083735 31401 layer_factory.hpp:77] Creating layer conv0
I0501 06:03:22.083755 31401 net.cpp:86] Creating Layer conv0
I0501 06:03:22.083760 31401 net.cpp:408] conv0 <- data
I0501 06:03:22.083770 31401 net.cpp:382] conv0 -> conv0
I0501 06:03:22.321620 31401 net.cpp:124] Setting up conv0
I0501 06:03:22.321662 31401 net.cpp:131] Top shape: 111 8 32 32 (909312)
I0501 06:03:22.321666 31401 net.cpp:139] Memory required for data: 5001660
I0501 06:03:22.321682 31401 layer_factory.hpp:77] Creating layer Sigmoid0
I0501 06:03:22.321693 31401 net.cpp:86] Creating Layer Sigmoid0
I0501 06:03:22.321697 31401 net.cpp:408] Sigmoid0 <- conv0
I0501 06:03:22.321703 31401 net.cpp:382] Sigmoid0 -> Sigmoid0
I0501 06:03:22.321902 31401 net.cpp:124] Setting up Sigmoid0
I0501 06:03:22.321912 31401 net.cpp:131] Top shape: 111 8 32 32 (909312)
I0501 06:03:22.321915 31401 net.cpp:139] Memory required for data: 8638908
I0501 06:03:22.321919 31401 layer_factory.hpp:77] Creating layer pool0
I0501 06:03:22.321925 31401 net.cpp:86] Creating Layer pool0
I0501 06:03:22.321931 31401 net.cpp:408] pool0 <- Sigmoid0
I0501 06:03:22.321952 31401 net.cpp:382] pool0 -> pool0
I0501 06:03:22.322724 31401 net.cpp:124] Setting up pool0
I0501 06:03:22.322753 31401 net.cpp:131] Top shape: 111 8 16 16 (227328)
I0501 06:03:22.322757 31401 net.cpp:139] Memory required for data: 9548220
I0501 06:03:22.322760 31401 layer_factory.hpp:77] Creating layer ip1
I0501 06:03:22.322769 31401 net.cpp:86] Creating Layer ip1
I0501 06:03:22.322772 31401 net.cpp:408] ip1 <- pool0
I0501 06:03:22.322777 31401 net.cpp:382] ip1 -> ip1
I0501 06:03:22.327236 31401 net.cpp:124] Setting up ip1
I0501 06:03:22.327244 31401 net.cpp:131] Top shape: 111 80 (8880)
I0501 06:03:22.327263 31401 net.cpp:139] Memory required for data: 9583740
I0501 06:03:22.327271 31401 layer_factory.hpp:77] Creating layer relu1
I0501 06:03:22.327276 31401 net.cpp:86] Creating Layer relu1
I0501 06:03:22.327280 31401 net.cpp:408] relu1 <- ip1
I0501 06:03:22.327285 31401 net.cpp:369] relu1 -> ip1 (in-place)
I0501 06:03:22.327464 31401 net.cpp:124] Setting up relu1
I0501 06:03:22.327473 31401 net.cpp:131] Top shape: 111 80 (8880)
I0501 06:03:22.327476 31401 net.cpp:139] Memory required for data: 9619260
I0501 06:03:22.327479 31401 layer_factory.hpp:77] Creating layer ip2
I0501 06:03:22.327486 31401 net.cpp:86] Creating Layer ip2
I0501 06:03:22.327489 31401 net.cpp:408] ip2 <- ip1
I0501 06:03:22.327494 31401 net.cpp:382] ip2 -> ip2
I0501 06:03:22.328867 31401 net.cpp:124] Setting up ip2
I0501 06:03:22.328879 31401 net.cpp:131] Top shape: 111 160 (17760)
I0501 06:03:22.328898 31401 net.cpp:139] Memory required for data: 9690300
I0501 06:03:22.328907 31401 layer_factory.hpp:77] Creating layer relu2
I0501 06:03:22.328912 31401 net.cpp:86] Creating Layer relu2
I0501 06:03:22.328917 31401 net.cpp:408] relu2 <- ip2
I0501 06:03:22.328920 31401 net.cpp:369] relu2 -> ip2 (in-place)
I0501 06:03:22.329097 31401 net.cpp:124] Setting up relu2
I0501 06:03:22.329120 31401 net.cpp:131] Top shape: 111 160 (17760)
I0501 06:03:22.329123 31401 net.cpp:139] Memory required for data: 9761340
I0501 06:03:22.329126 31401 layer_factory.hpp:77] Creating layer ip3
I0501 06:03:22.329134 31401 net.cpp:86] Creating Layer ip3
I0501 06:03:22.329138 31401 net.cpp:408] ip3 <- ip2
I0501 06:03:22.329143 31401 net.cpp:382] ip3 -> ip3
I0501 06:03:22.329596 31401 net.cpp:124] Setting up ip3
I0501 06:03:22.329602 31401 net.cpp:131] Top shape: 111 80 (8880)
I0501 06:03:22.329620 31401 net.cpp:139] Memory required for data: 9796860
I0501 06:03:22.329625 31401 layer_factory.hpp:77] Creating layer relu3
I0501 06:03:22.329630 31401 net.cpp:86] Creating Layer relu3
I0501 06:03:22.329633 31401 net.cpp:408] relu3 <- ip3
I0501 06:03:22.329638 31401 net.cpp:369] relu3 -> ip3 (in-place)
I0501 06:03:22.329802 31401 net.cpp:124] Setting up relu3
I0501 06:03:22.329809 31401 net.cpp:131] Top shape: 111 80 (8880)
I0501 06:03:22.329813 31401 net.cpp:139] Memory required for data: 9832380
I0501 06:03:22.329816 31401 layer_factory.hpp:77] Creating layer ip4
I0501 06:03:22.329838 31401 net.cpp:86] Creating Layer ip4
I0501 06:03:22.329841 31401 net.cpp:408] ip4 <- ip3
I0501 06:03:22.329846 31401 net.cpp:382] ip4 -> ip4
I0501 06:03:22.329972 31401 net.cpp:124] Setting up ip4
I0501 06:03:22.329979 31401 net.cpp:131] Top shape: 111 10 (1110)
I0501 06:03:22.329982 31401 net.cpp:139] Memory required for data: 9836820
I0501 06:03:22.329989 31401 layer_factory.hpp:77] Creating layer loss
I0501 06:03:22.329995 31401 net.cpp:86] Creating Layer loss
I0501 06:03:22.329998 31401 net.cpp:408] loss <- ip4
I0501 06:03:22.330003 31401 net.cpp:408] loss <- label
I0501 06:03:22.330008 31401 net.cpp:382] loss -> loss
I0501 06:03:22.330019 31401 layer_factory.hpp:77] Creating layer loss
…
I0501 06:03:22.331357 31401 solver.cpp:173] Creating test net (#0) specified by net file: ECE595/cifar/train_test/var_everything/cifar_train_test_438.prototxt
I0501 06:03:22.331383 31401 net.cpp:296] The NetState phase (1) differed from the phase (0) specified by a rule in layer cifar
I0501 06:03:22.331472 31401 net.cpp:53] Initializing net from parameters: 
name: "CIFAR"
state {
  phase: TEST
}
layer {
  name: "cifar"
  type: "Data"
  top: "data"
  top: "label"
  include {
    phase: TEST
  }
  transform_param {
    mean_file: "examples/cifar10/mean.binaryproto"
  }
  data_param {
    source: "examples/cifar10/cifar10_test_lmdb"
    batch_size: 1000
    backend: LMDB
  }
}
layer {
  name: "conv0"
  type: "Convolution"
  bottom: "data"
  top: "conv0"
  param {
    lr_mult: 1
  }
  param {
    lr_mult: 2
  }
  convolution_param {
    num_output: 8
    pad: 2
    kernel_size: 5
    stride: 1
    weight_filler {
      type: "gaussian"
      std: 0.01
    }
    bias_filler {
      type: "constant"
    }
  }
}
layer {
  name: "Sigmoid0"
  type: "Sigmoid"
  bottom: "conv0"
  top: "Sigmoid0"
}
layer {
  name: "pool0"
  type: "Pooling"
  bottom: "Sigmoid0"
  top: "pool0"
  pooling_param {
    pool: AVE
    kernel_size: 3
    stride: 2
  }
}
layer {
  name: "ip1"
  type: "InnerProduct"
  bottom: "pool0"
  top: "ip1"
  param {
    lr_mult: 1
  }
  param {
    lr_mult: 2
  }
  inner_product_param {
    num_output: 80
    weight_filler {
      type: "gaussian"
      std: 0.01
    }
    bias_filler {
      type: "constant"
    }
  }
}
layer {
  name: "relu1"
  type: "ReLU"
  bottom: "ip1"
  top: "ip1"
}
layer {
  name: "ip2"
  type: "InnerProduct"
  bottom: "ip1"
  top: "ip2"
  param {
    lr_mult: 1
  }
  param {
    lr_mult: 2
  }
  inner_product_param {
    num_output: 160
    weight_filler {
      type: "gaussian"
      std: 0.01
    }
    bias_filler {
      type: "constant"
    }
  }
}
layer {
  name: "relu2"
  type: "ReLU"
  bottom: "ip2"
  top: "ip2"
}
layer {
  name: "ip3"
  type: "InnerProduct"
  bottom: "ip2"
  top: "ip3"
  param {
    lr_mult: 1
  }
  param {
    lr_mult: 2
  }
  inner_product_param {
    num_output: 80
    weight_filler {
      type: "gaussian"
      std: 0.01
    }
    bias_filler {
      type: "constant"
    }
  }
}
layer {
  name: "relu3"
  type: "ReLU"
  bottom: "ip3"
  top: "ip3"
}
layer {
  name: "ip4"
  type: "InnerProduct"
  bottom: "ip3"
  top: "ip4"
  param {
    lr_mult: 1
  }
  param {
    lr_mult: 2
  }
  inner_product_param {
    num_output: 10
    weight_filler {
      type: "gaussian"
      std: 0.01
    }
    bias_filler {
      type: "constant"
    }
  }
}
layer {
  name: "accuracy"
  type: "Accuracy"
  bottom: "ip4"
  bottom: "label"
  top: "accuracy"
  include {
    phase: TEST
  }
}
layer {
  name: "loss"
  type: "SoftmaxWithLoss"
  bottom: "ip4"
  bottom: "label"
  top: "loss"
}
I0501 06:03:22.331547 31401 layer_factory.hpp:77] Creating layer cifar
I0501 06:03:22.331591 31401 db_lmdb.cpp:35] Opened lmdb examples/cifar10/cifar10_test_lmdb
I0501 06:03:22.331603 31401 net.cpp:86] Creating Layer cifar
I0501 06:03:22.331607 31401 net.cpp:382] cifar -> data
I0501 06:03:22.331615 31401 net.cpp:382] cifar -> label
I0501 06:03:22.331621 31401 data_transformer.cpp:25] Loading mean file from: examples/cifar10/mean.binaryproto
I0501 06:03:22.331769 31401 data_layer.cpp:45] output data size: 1000,3,32,32
I0501 06:03:22.354082 31401 net.cpp:124] Setting up cifar
I0501 06:03:22.354125 31401 net.cpp:131] Top shape: 1000 3 32 32 (3072000)
I0501 06:03:22.354130 31401 net.cpp:131] Top shape: 1000 (1000)
I0501 06:03:22.354133 31401 net.cpp:139] Memory required for data: 12292000
I0501 06:03:22.354140 31401 layer_factory.hpp:77] Creating layer label_cifar_1_split
I0501 06:03:22.354151 31401 net.cpp:86] Creating Layer label_cifar_1_split
I0501 06:03:22.354156 31401 net.cpp:408] label_cifar_1_split <- label
I0501 06:03:22.354162 31401 net.cpp:382] label_cifar_1_split -> label_cifar_1_split_0
I0501 06:03:22.354171 31401 net.cpp:382] label_cifar_1_split -> label_cifar_1_split_1
I0501 06:03:22.354257 31401 net.cpp:124] Setting up label_cifar_1_split
I0501 06:03:22.354265 31401 net.cpp:131] Top shape: 1000 (1000)
I0501 06:03:22.354269 31401 net.cpp:131] Top shape: 1000 (1000)
I0501 06:03:22.354272 31401 net.cpp:139] Memory required for data: 12300000
I0501 06:03:22.354275 31401 layer_factory.hpp:77] Creating layer conv0
I0501 06:03:22.354287 31401 net.cpp:86] Creating Layer conv0
I0501 06:03:22.354291 31401 net.cpp:408] conv0 <- data
I0501 06:03:22.354296 31401 net.cpp:382] conv0 -> conv0
I0501 06:03:22.355950 31401 net.cpp:124] Setting up conv0
I0501 06:03:22.355980 31401 net.cpp:131] Top shape: 1000 8 32 32 (8192000)
I0501 06:03:22.355984 31401 net.cpp:139] Memory required for data: 45068000
I0501 06:03:22.355995 31401 layer_factory.hpp:77] Creating layer Sigmoid0
I0501 06:03:22.356003 31401 net.cpp:86] Creating Layer Sigmoid0
I0501 06:03:22.356006 31401 net.cpp:408] Sigmoid0 <- conv0
I0501 06:03:22.356010 31401 net.cpp:382] Sigmoid0 -> Sigmoid0
I0501 06:03:22.356184 31401 net.cpp:124] Setting up Sigmoid0
I0501 06:03:22.356194 31401 net.cpp:131] Top shape: 1000 8 32 32 (8192000)
I0501 06:03:22.356196 31401 net.cpp:139] Memory required for data: 77836000
I0501 06:03:22.356199 31401 layer_factory.hpp:77] Creating layer pool0
I0501 06:03:22.356207 31401 net.cpp:86] Creating Layer pool0
I0501 06:03:22.356225 31401 net.cpp:408] pool0 <- Sigmoid0
I0501 06:03:22.356230 31401 net.cpp:382] pool0 -> pool0
I0501 06:03:22.356463 31401 net.cpp:124] Setting up pool0
I0501 06:03:22.356472 31401 net.cpp:131] Top shape: 1000 8 16 16 (2048000)
I0501 06:03:22.356475 31401 net.cpp:139] Memory required for data: 86028000
I0501 06:03:22.356479 31401 layer_factory.hpp:77] Creating layer ip1
I0501 06:03:22.356487 31401 net.cpp:86] Creating Layer ip1
I0501 06:03:22.356490 31401 net.cpp:408] ip1 <- pool0
I0501 06:03:22.356495 31401 net.cpp:382] ip1 -> ip1
I0501 06:03:22.361959 31401 net.cpp:124] Setting up ip1
I0501 06:03:22.361970 31401 net.cpp:131] Top shape: 1000 80 (80000)
I0501 06:03:22.361989 31401 net.cpp:139] Memory required for data: 86348000
I0501 06:03:22.362012 31401 layer_factory.hpp:77] Creating layer relu1
I0501 06:03:22.362020 31401 net.cpp:86] Creating Layer relu1
I0501 06:03:22.362023 31401 net.cpp:408] relu1 <- ip1
I0501 06:03:22.362027 31401 net.cpp:369] relu1 -> ip1 (in-place)
I0501 06:03:22.362200 31401 net.cpp:124] Setting up relu1
I0501 06:03:22.362210 31401 net.cpp:131] Top shape: 1000 80 (80000)
I0501 06:03:22.362213 31401 net.cpp:139] Memory required for data: 86668000
I0501 06:03:22.362216 31401 layer_factory.hpp:77] Creating layer ip2
I0501 06:03:22.362223 31401 net.cpp:86] Creating Layer ip2
I0501 06:03:22.362227 31401 net.cpp:408] ip2 <- ip1
I0501 06:03:22.362233 31401 net.cpp:382] ip2 -> ip2
I0501 06:03:22.362700 31401 net.cpp:124] Setting up ip2
I0501 06:03:22.362709 31401 net.cpp:131] Top shape: 1000 160 (160000)
I0501 06:03:22.362727 31401 net.cpp:139] Memory required for data: 87308000
I0501 06:03:22.362735 31401 layer_factory.hpp:77] Creating layer relu2
I0501 06:03:22.362741 31401 net.cpp:86] Creating Layer relu2
I0501 06:03:22.362745 31401 net.cpp:408] relu2 <- ip2
I0501 06:03:22.362748 31401 net.cpp:369] relu2 -> ip2 (in-place)
I0501 06:03:22.363497 31401 net.cpp:124] Setting up relu2
I0501 06:03:22.363509 31401 net.cpp:131] Top shape: 1000 160 (160000)
I0501 06:03:22.363528 31401 net.cpp:139] Memory required for data: 87948000
I0501 06:03:22.363531 31401 layer_factory.hpp:77] Creating layer ip3
I0501 06:03:22.363539 31401 net.cpp:86] Creating Layer ip3
I0501 06:03:22.363543 31401 net.cpp:408] ip3 <- ip2
I0501 06:03:22.363548 31401 net.cpp:382] ip3 -> ip3
I0501 06:03:22.364061 31401 net.cpp:124] Setting up ip3
I0501 06:03:22.364070 31401 net.cpp:131] Top shape: 1000 80 (80000)
I0501 06:03:22.364089 31401 net.cpp:139] Memory required for data: 88268000
I0501 06:03:22.364094 31401 layer_factory.hpp:77] Creating layer relu3
I0501 06:03:22.364114 31401 net.cpp:86] Creating Layer relu3
I0501 06:03:22.364117 31401 net.cpp:408] relu3 <- ip3
I0501 06:03:22.364137 31401 net.cpp:369] relu3 -> ip3 (in-place)
I0501 06:03:22.364295 31401 net.cpp:124] Setting up relu3
I0501 06:03:22.364305 31401 net.cpp:131] Top shape: 1000 80 (80000)
I0501 06:03:22.364308 31401 net.cpp:139] Memory required for data: 88588000
I0501 06:03:22.364311 31401 layer_factory.hpp:77] Creating layer ip4
I0501 06:03:22.364318 31401 net.cpp:86] Creating Layer ip4
I0501 06:03:22.364321 31401 net.cpp:408] ip4 <- ip3
I0501 06:03:22.364326 31401 net.cpp:382] ip4 -> ip4
I0501 06:03:22.364469 31401 net.cpp:124] Setting up ip4
I0501 06:03:22.364475 31401 net.cpp:131] Top shape: 1000 10 (10000)
I0501 06:03:22.364478 31401 net.cpp:139] Memory required for data: 88628000
I0501 06:03:22.364487 31401 layer_factory.hpp:77] Creating layer ip4_ip4_0_split
I0501 06:03:22.364492 31401 net.cpp:86] Creating Layer ip4_ip4_0_split
I0501 06:03:22.364495 31401 net.cpp:408] ip4_ip4_0_split <- ip4
I0501 06:03:22.364500 31401 net.cpp:382] ip4_ip4_0_split -> ip4_ip4_0_split_0
I0501 06:03:22.364506 31401 net.cpp:382] ip4_ip4_0_split -> ip4_ip4_0_split_1
I0501 06:03:22.364537 31401 net.cpp:124] Setting up ip4_ip4_0_split
I0501 06:03:22.364542 31401 net.cpp:131] Top shape: 1000 10 (10000)
I0501 06:03:22.364545 31401 net.cpp:131] Top shape: 1000 10 (10000)
I0501 06:03:22.364547 31401 net.cpp:139] Memory required for data: 88708000
I0501 06:03:22.364550 31401 layer_factory.hpp:77] Creating layer accuracy
I0501 06:03:22.364557 31401 net.cpp:86] Creating Layer accuracy
I0501 06:03:22.364559 31401 net.cpp:408] accuracy <- ip4_ip4_0_split_0
I0501 06:03:22.364563 31401 net.cpp:408] accuracy <- label_cifar_1_split_0
I0501 06:03:22.364569 31401 net.cpp:382] accuracy -> accuracy
…
