…
I0501 07:48:52.914003  7414 net.cpp:296] The NetState phase (0) differed from the phase (1) specified by a rule in layer cifar
I0501 07:48:52.914019  7414 net.cpp:296] The NetState phase (0) differed from the phase (1) specified by a rule in layer accuracy
I0501 07:48:52.914113  7414 net.cpp:53] Initializing net from parameters: 
name: "CIFAR"
state {
  phase: TRAIN
  level: 0
  stage: ""
}
layer {
  name: "cifar"
  type: "Data"
  top: "data"
  top: "label"
  include {
    phase: TRAIN
  }
  transform_param {
    mean_file: "examples/cifar10/mean.binaryproto"
  }
  data_param {
    source: "examples/cifar10/cifar10_train_lmdb"
    batch_size: 111
    backend: LMDB
  }
}
layer {
  name: "conv0"
  type: "Convolution"
  bottom: "data"
  top: "conv0"
  param {
    lr_mult: 1
  }
  param {
    lr_mult: 2
  }
  convolution_param {
    num_output: 16
    pad: 2
    kernel_size: 3
    stride: 1
    weight_filler {
      type: "gaussian"
      std: 0.01
    }
    bias_filler {
      type: "constant"
    }
  }
}
layer {
  name: "Sigmoid0"
  type: "Sigmoid"
  bottom: "conv0"
  top: "Sigmoid0"
}
layer {
  name: "pool0"
  type: "Pooling"
  bottom: "Sigmoid0"
  top: "pool0"
  pooling_param {
    pool: AVE
    kernel_size: 3
    stride: 2
  }
}
layer {
  name: "ip1"
  type: "InnerProduct"
  bottom: "pool0"
  top: "ip1"
  param {
    lr_mult: 1
  }
  param {
    lr_mult: 2
  }
  inner_product_param {
    num_output: 160
    weight_filler {
      type: "gaussian"
      std: 0.01
    }
    bias_filler {
      type: "constant"
    }
  }
}
layer {
  name: "relu1"
  type: "ReLU"
  bottom: "ip1"
  top: "ip1"
}
layer {
  name: "ip2"
  type: "InnerProduct"
  bottom: "ip1"
  top: "ip2"
  param {
    lr_mult: 1
  }
  param {
    lr_mult: 2
  }
  inner_product_param {
    num_output: 80
    weight_filler {
      type: "gaussian"
      std: 0.01
    }
    bias_filler {
      type: "constant"
    }
  }
}
layer {
  name: "relu2"
  type: "ReLU"
  bottom: "ip2"
  top: "ip2"
}
layer {
  name: "ip3"
  type: "InnerProduct"
  bottom: "ip2"
  top: "ip3"
  param {
    lr_mult: 1
  }
  param {
    lr_mult: 2
  }
  inner_product_param {
    num_output: 10
    weight_filler {
      type: "gaussian"
      std: 0.01
    }
    bias_filler {
      type: "constant"
    }
  }
}
layer {
  name: "loss"
  type: "SoftmaxWithLoss"
  bottom: "ip3"
  bottom: "label"
  top: "loss"
}
I0501 07:48:52.914187  7414 layer_factory.hpp:77] Creating layer cifar
I0501 07:48:52.914290  7414 db_lmdb.cpp:35] Opened lmdb examples/cifar10/cifar10_train_lmdb
I0501 07:48:52.914319  7414 net.cpp:86] Creating Layer cifar
I0501 07:48:52.914330  7414 net.cpp:382] cifar -> data
I0501 07:48:52.914367  7414 net.cpp:382] cifar -> label
I0501 07:48:52.914379  7414 data_transformer.cpp:25] Loading mean file from: examples/cifar10/mean.binaryproto
I0501 07:48:52.916493  7414 data_layer.cpp:45] output data size: 111,3,32,32
I0501 07:48:52.924407  7414 net.cpp:124] Setting up cifar
I0501 07:48:52.924427  7414 net.cpp:131] Top shape: 111 3 32 32 (340992)
I0501 07:48:52.924433  7414 net.cpp:131] Top shape: 111 (111)
I0501 07:48:52.924437  7414 net.cpp:139] Memory required for data: 1364412
I0501 07:48:52.924444  7414 layer_factory.hpp:77] Creating layer conv0
I0501 07:48:52.924463  7414 net.cpp:86] Creating Layer conv0
I0501 07:48:52.924468  7414 net.cpp:408] conv0 <- data
I0501 07:48:52.924481  7414 net.cpp:382] conv0 -> conv0
I0501 07:48:53.188148  7414 net.cpp:124] Setting up conv0
I0501 07:48:53.188191  7414 net.cpp:131] Top shape: 111 16 34 34 (2053056)
I0501 07:48:53.188196  7414 net.cpp:139] Memory required for data: 9576636
I0501 07:48:53.188210  7414 layer_factory.hpp:77] Creating layer Sigmoid0
I0501 07:48:53.188221  7414 net.cpp:86] Creating Layer Sigmoid0
I0501 07:48:53.188225  7414 net.cpp:408] Sigmoid0 <- conv0
I0501 07:48:53.188230  7414 net.cpp:382] Sigmoid0 -> Sigmoid0
I0501 07:48:53.188413  7414 net.cpp:124] Setting up Sigmoid0
I0501 07:48:53.188422  7414 net.cpp:131] Top shape: 111 16 34 34 (2053056)
I0501 07:48:53.188426  7414 net.cpp:139] Memory required for data: 17788860
I0501 07:48:53.188429  7414 layer_factory.hpp:77] Creating layer pool0
I0501 07:48:53.188436  7414 net.cpp:86] Creating Layer pool0
I0501 07:48:53.188439  7414 net.cpp:408] pool0 <- Sigmoid0
I0501 07:48:53.188443  7414 net.cpp:382] pool0 -> pool0
I0501 07:48:53.189194  7414 net.cpp:124] Setting up pool0
I0501 07:48:53.189221  7414 net.cpp:131] Top shape: 111 16 17 17 (513264)
I0501 07:48:53.189225  7414 net.cpp:139] Memory required for data: 19841916
I0501 07:48:53.189229  7414 layer_factory.hpp:77] Creating layer ip1
I0501 07:48:53.189237  7414 net.cpp:86] Creating Layer ip1
I0501 07:48:53.189240  7414 net.cpp:408] ip1 <- pool0
I0501 07:48:53.189261  7414 net.cpp:382] ip1 -> ip1
I0501 07:48:53.208416  7414 net.cpp:124] Setting up ip1
I0501 07:48:53.208428  7414 net.cpp:131] Top shape: 111 160 (17760)
I0501 07:48:53.208431  7414 net.cpp:139] Memory required for data: 19912956
I0501 07:48:53.208438  7414 layer_factory.hpp:77] Creating layer relu1
I0501 07:48:53.208444  7414 net.cpp:86] Creating Layer relu1
I0501 07:48:53.208447  7414 net.cpp:408] relu1 <- ip1
I0501 07:48:53.208453  7414 net.cpp:369] relu1 -> ip1 (in-place)
I0501 07:48:53.208647  7414 net.cpp:124] Setting up relu1
I0501 07:48:53.208655  7414 net.cpp:131] Top shape: 111 160 (17760)
I0501 07:48:53.208658  7414 net.cpp:139] Memory required for data: 19983996
I0501 07:48:53.208662  7414 layer_factory.hpp:77] Creating layer ip2
I0501 07:48:53.208673  7414 net.cpp:86] Creating Layer ip2
I0501 07:48:53.208675  7414 net.cpp:408] ip2 <- ip1
I0501 07:48:53.208680  7414 net.cpp:382] ip2 -> ip2
I0501 07:48:53.209930  7414 net.cpp:124] Setting up ip2
I0501 07:48:53.209942  7414 net.cpp:131] Top shape: 111 80 (8880)
I0501 07:48:53.209945  7414 net.cpp:139] Memory required for data: 20019516
I0501 07:48:53.209952  7414 layer_factory.hpp:77] Creating layer relu2
I0501 07:48:53.209959  7414 net.cpp:86] Creating Layer relu2
I0501 07:48:53.209962  7414 net.cpp:408] relu2 <- ip2
I0501 07:48:53.209966  7414 net.cpp:369] relu2 -> ip2 (in-place)
I0501 07:48:53.210147  7414 net.cpp:124] Setting up relu2
I0501 07:48:53.210156  7414 net.cpp:131] Top shape: 111 80 (8880)
I0501 07:48:53.210160  7414 net.cpp:139] Memory required for data: 20055036
I0501 07:48:53.210163  7414 layer_factory.hpp:77] Creating layer ip3
I0501 07:48:53.210170  7414 net.cpp:86] Creating Layer ip3
I0501 07:48:53.210173  7414 net.cpp:408] ip3 <- ip2
I0501 07:48:53.210180  7414 net.cpp:382] ip3 -> ip3
I0501 07:48:53.210294  7414 net.cpp:124] Setting up ip3
I0501 07:48:53.210300  7414 net.cpp:131] Top shape: 111 10 (1110)
I0501 07:48:53.210304  7414 net.cpp:139] Memory required for data: 20059476
I0501 07:48:53.210309  7414 layer_factory.hpp:77] Creating layer loss
I0501 07:48:53.210319  7414 net.cpp:86] Creating Layer loss
I0501 07:48:53.210325  7414 net.cpp:408] loss <- ip3
I0501 07:48:53.210327  7414 net.cpp:408] loss <- label
I0501 07:48:53.210348  7414 net.cpp:382] loss -> loss
I0501 07:48:53.210362  7414 layer_factory.hpp:77] Creating layer loss
…
I0501 07:48:53.211092  7414 solver.cpp:173] Creating test net (#0) specified by net file: ECE595/cifar/train_test/var_everything/cifar_train_test_493.prototxt
I0501 07:48:53.211117  7414 net.cpp:296] The NetState phase (1) differed from the phase (0) specified by a rule in layer cifar
I0501 07:48:53.211212  7414 net.cpp:53] Initializing net from parameters: 
name: "CIFAR"
state {
  phase: TEST
}
layer {
  name: "cifar"
  type: "Data"
  top: "data"
  top: "label"
  include {
    phase: TEST
  }
  transform_param {
    mean_file: "examples/cifar10/mean.binaryproto"
  }
  data_param {
    source: "examples/cifar10/cifar10_test_lmdb"
    batch_size: 1000
    backend: LMDB
  }
}
layer {
  name: "conv0"
  type: "Convolution"
  bottom: "data"
  top: "conv0"
  param {
    lr_mult: 1
  }
  param {
    lr_mult: 2
  }
  convolution_param {
    num_output: 16
    pad: 2
    kernel_size: 3
    stride: 1
    weight_filler {
      type: "gaussian"
      std: 0.01
    }
    bias_filler {
      type: "constant"
    }
  }
}
layer {
  name: "Sigmoid0"
  type: "Sigmoid"
  bottom: "conv0"
  top: "Sigmoid0"
}
layer {
  name: "pool0"
  type: "Pooling"
  bottom: "Sigmoid0"
  top: "pool0"
  pooling_param {
    pool: AVE
    kernel_size: 3
    stride: 2
  }
}
layer {
  name: "ip1"
  type: "InnerProduct"
  bottom: "pool0"
  top: "ip1"
  param {
    lr_mult: 1
  }
  param {
    lr_mult: 2
  }
  inner_product_param {
    num_output: 160
    weight_filler {
      type: "gaussian"
      std: 0.01
    }
    bias_filler {
      type: "constant"
    }
  }
}
layer {
  name: "relu1"
  type: "ReLU"
  bottom: "ip1"
  top: "ip1"
}
layer {
  name: "ip2"
  type: "InnerProduct"
  bottom: "ip1"
  top: "ip2"
  param {
    lr_mult: 1
  }
  param {
    lr_mult: 2
  }
  inner_product_param {
    num_output: 80
    weight_filler {
      type: "gaussian"
      std: 0.01
    }
    bias_filler {
      type: "constant"
    }
  }
}
layer {
  name: "relu2"
  type: "ReLU"
  bottom: "ip2"
  top: "ip2"
}
layer {
  name: "ip3"
  type: "InnerProduct"
  bottom: "ip2"
  top: "ip3"
  param {
    lr_mult: 1
  }
  param {
    lr_mult: 2
  }
  inner_product_param {
    num_output: 10
    weight_filler {
      type: "gaussian"
      std: 0.01
    }
    bias_filler {
      type: "constant"
    }
  }
}
layer {
  name: "accuracy"
  type: "Accuracy"
  bottom: "ip3"
  bottom: "label"
  top: "accuracy"
  include {
    phase: TEST
  }
}
layer {
  name: "loss"
  type: "SoftmaxWithLoss"
  bottom: "ip3"
  bottom: "label"
  top: "loss"
}
I0501 07:48:53.211278  7414 layer_factory.hpp:77] Creating layer cifar
I0501 07:48:53.211319  7414 db_lmdb.cpp:35] Opened lmdb examples/cifar10/cifar10_test_lmdb
I0501 07:48:53.211333  7414 net.cpp:86] Creating Layer cifar
I0501 07:48:53.211336  7414 net.cpp:382] cifar -> data
I0501 07:48:53.211344  7414 net.cpp:382] cifar -> label
I0501 07:48:53.211350  7414 data_transformer.cpp:25] Loading mean file from: examples/cifar10/mean.binaryproto
I0501 07:48:53.211508  7414 data_layer.cpp:45] output data size: 1000,3,32,32
I0501 07:48:53.233050  7414 net.cpp:124] Setting up cifar
I0501 07:48:53.233078  7414 net.cpp:131] Top shape: 1000 3 32 32 (3072000)
I0501 07:48:53.233083  7414 net.cpp:131] Top shape: 1000 (1000)
I0501 07:48:53.233086  7414 net.cpp:139] Memory required for data: 12292000
I0501 07:48:53.233093  7414 layer_factory.hpp:77] Creating layer label_cifar_1_split
I0501 07:48:53.233120  7414 net.cpp:86] Creating Layer label_cifar_1_split
I0501 07:48:53.233139  7414 net.cpp:408] label_cifar_1_split <- label
I0501 07:48:53.233147  7414 net.cpp:382] label_cifar_1_split -> label_cifar_1_split_0
I0501 07:48:53.233171  7414 net.cpp:382] label_cifar_1_split -> label_cifar_1_split_1
I0501 07:48:53.233240  7414 net.cpp:124] Setting up label_cifar_1_split
I0501 07:48:53.233247  7414 net.cpp:131] Top shape: 1000 (1000)
I0501 07:48:53.233250  7414 net.cpp:131] Top shape: 1000 (1000)
I0501 07:48:53.233253  7414 net.cpp:139] Memory required for data: 12300000
I0501 07:48:53.233256  7414 layer_factory.hpp:77] Creating layer conv0
I0501 07:48:53.233275  7414 net.cpp:86] Creating Layer conv0
I0501 07:48:53.233278  7414 net.cpp:408] conv0 <- data
I0501 07:48:53.233284  7414 net.cpp:382] conv0 -> conv0
I0501 07:48:53.235023  7414 net.cpp:124] Setting up conv0
I0501 07:48:53.235052  7414 net.cpp:131] Top shape: 1000 16 34 34 (18496000)
I0501 07:48:53.235055  7414 net.cpp:139] Memory required for data: 86284000
I0501 07:48:53.235065  7414 layer_factory.hpp:77] Creating layer Sigmoid0
I0501 07:48:53.235072  7414 net.cpp:86] Creating Layer Sigmoid0
I0501 07:48:53.235075  7414 net.cpp:408] Sigmoid0 <- conv0
I0501 07:48:53.235080  7414 net.cpp:382] Sigmoid0 -> Sigmoid0
I0501 07:48:53.235936  7414 net.cpp:124] Setting up Sigmoid0
I0501 07:48:53.235949  7414 net.cpp:131] Top shape: 1000 16 34 34 (18496000)
I0501 07:48:53.235966  7414 net.cpp:139] Memory required for data: 160268000
I0501 07:48:53.235970  7414 layer_factory.hpp:77] Creating layer pool0
I0501 07:48:53.235980  7414 net.cpp:86] Creating Layer pool0
I0501 07:48:53.235983  7414 net.cpp:408] pool0 <- Sigmoid0
I0501 07:48:53.235987  7414 net.cpp:382] pool0 -> pool0
I0501 07:48:53.237242  7414 net.cpp:124] Setting up pool0
I0501 07:48:53.237258  7414 net.cpp:131] Top shape: 1000 16 17 17 (4624000)
I0501 07:48:53.237262  7414 net.cpp:139] Memory required for data: 178764000
I0501 07:48:53.237265  7414 layer_factory.hpp:77] Creating layer ip1
I0501 07:48:53.237290  7414 net.cpp:86] Creating Layer ip1
I0501 07:48:53.237294  7414 net.cpp:408] ip1 <- pool0
I0501 07:48:53.237301  7414 net.cpp:382] ip1 -> ip1
I0501 07:48:53.257479  7414 net.cpp:124] Setting up ip1
I0501 07:48:53.257509  7414 net.cpp:131] Top shape: 1000 160 (160000)
I0501 07:48:53.257513  7414 net.cpp:139] Memory required for data: 179404000
I0501 07:48:53.257522  7414 layer_factory.hpp:77] Creating layer relu1
I0501 07:48:53.257531  7414 net.cpp:86] Creating Layer relu1
I0501 07:48:53.257534  7414 net.cpp:408] relu1 <- ip1
I0501 07:48:53.257539  7414 net.cpp:369] relu1 -> ip1 (in-place)
I0501 07:48:53.257751  7414 net.cpp:124] Setting up relu1
I0501 07:48:53.257761  7414 net.cpp:131] Top shape: 1000 160 (160000)
I0501 07:48:53.257763  7414 net.cpp:139] Memory required for data: 180044000
I0501 07:48:53.257766  7414 layer_factory.hpp:77] Creating layer ip2
I0501 07:48:53.257776  7414 net.cpp:86] Creating Layer ip2
I0501 07:48:53.257779  7414 net.cpp:408] ip2 <- ip1
I0501 07:48:53.257786  7414 net.cpp:382] ip2 -> ip2
I0501 07:48:53.258265  7414 net.cpp:124] Setting up ip2
I0501 07:48:53.258273  7414 net.cpp:131] Top shape: 1000 80 (80000)
I0501 07:48:53.258292  7414 net.cpp:139] Memory required for data: 180364000
I0501 07:48:53.258298  7414 layer_factory.hpp:77] Creating layer relu2
I0501 07:48:53.258304  7414 net.cpp:86] Creating Layer relu2
I0501 07:48:53.258307  7414 net.cpp:408] relu2 <- ip2
I0501 07:48:53.258312  7414 net.cpp:369] relu2 -> ip2 (in-place)
I0501 07:48:53.258494  7414 net.cpp:124] Setting up relu2
I0501 07:48:53.258502  7414 net.cpp:131] Top shape: 1000 80 (80000)
I0501 07:48:53.258505  7414 net.cpp:139] Memory required for data: 180684000
I0501 07:48:53.258508  7414 layer_factory.hpp:77] Creating layer ip3
I0501 07:48:53.258514  7414 net.cpp:86] Creating Layer ip3
I0501 07:48:53.258517  7414 net.cpp:408] ip3 <- ip2
I0501 07:48:53.258522  7414 net.cpp:382] ip3 -> ip3
I0501 07:48:53.258651  7414 net.cpp:124] Setting up ip3
I0501 07:48:53.258658  7414 net.cpp:131] Top shape: 1000 10 (10000)
I0501 07:48:53.258677  7414 net.cpp:139] Memory required for data: 180724000
I0501 07:48:53.258692  7414 layer_factory.hpp:77] Creating layer ip3_ip3_0_split
I0501 07:48:53.258697  7414 net.cpp:86] Creating Layer ip3_ip3_0_split
I0501 07:48:53.258699  7414 net.cpp:408] ip3_ip3_0_split <- ip3
I0501 07:48:53.258705  7414 net.cpp:382] ip3_ip3_0_split -> ip3_ip3_0_split_0
I0501 07:48:53.258711  7414 net.cpp:382] ip3_ip3_0_split -> ip3_ip3_0_split_1
I0501 07:48:53.258759  7414 net.cpp:124] Setting up ip3_ip3_0_split
I0501 07:48:53.258769  7414 net.cpp:131] Top shape: 1000 10 (10000)
I0501 07:48:53.258771  7414 net.cpp:131] Top shape: 1000 10 (10000)
I0501 07:48:53.258774  7414 net.cpp:139] Memory required for data: 180804000
I0501 07:48:53.258777  7414 layer_factory.hpp:77] Creating layer accuracy
I0501 07:48:53.258783  7414 net.cpp:86] Creating Layer accuracy
I0501 07:48:53.258786  7414 net.cpp:408] accuracy <- ip3_ip3_0_split_0
I0501 07:48:53.258790  7414 net.cpp:408] accuracy <- label_cifar_1_split_0
I0501 07:48:53.258795  7414 net.cpp:382] accuracy -> accuracy
…
