…
I0501 07:13:11.154477  4085 net.cpp:296] The NetState phase (0) differed from the phase (1) specified by a rule in layer cifar
I0501 07:13:11.154494  4085 net.cpp:296] The NetState phase (0) differed from the phase (1) specified by a rule in layer accuracy
I0501 07:13:11.154585  4085 net.cpp:53] Initializing net from parameters: 
name: "CIFAR"
state {
  phase: TRAIN
  level: 0
  stage: ""
}
layer {
  name: "cifar"
  type: "Data"
  top: "data"
  top: "label"
  include {
    phase: TRAIN
  }
  transform_param {
    mean_file: "examples/cifar10/mean.binaryproto"
  }
  data_param {
    source: "examples/cifar10/cifar10_train_lmdb"
    batch_size: 111
    backend: LMDB
  }
}
layer {
  name: "conv0"
  type: "Convolution"
  bottom: "data"
  top: "conv0"
  param {
    lr_mult: 1
  }
  param {
    lr_mult: 2
  }
  convolution_param {
    num_output: 16
    pad: 2
    kernel_size: 3
    stride: 1
    weight_filler {
      type: "gaussian"
      std: 0.01
    }
    bias_filler {
      type: "constant"
    }
  }
}
layer {
  name: "Sigmoid0"
  type: "Sigmoid"
  bottom: "conv0"
  top: "Sigmoid0"
}
layer {
  name: "pool0"
  type: "Pooling"
  bottom: "Sigmoid0"
  top: "pool0"
  pooling_param {
    pool: AVE
    kernel_size: 3
    stride: 2
  }
}
layer {
  name: "ip1"
  type: "InnerProduct"
  bottom: "pool0"
  top: "ip1"
  param {
    lr_mult: 1
  }
  param {
    lr_mult: 2
  }
  inner_product_param {
    num_output: 20
    weight_filler {
      type: "gaussian"
      std: 0.01
    }
    bias_filler {
      type: "constant"
    }
  }
}
layer {
  name: "relu1"
  type: "ReLU"
  bottom: "ip1"
  top: "ip1"
}
layer {
  name: "ip2"
  type: "InnerProduct"
  bottom: "ip1"
  top: "ip2"
  param {
    lr_mult: 1
  }
  param {
    lr_mult: 2
  }
  inner_product_param {
    num_output: 10
    weight_filler {
      type: "gaussian"
      std: 0.01
    }
    bias_filler {
      type: "constant"
    }
  }
}
layer {
  name: "relu2"
  type: "ReLU"
  bottom: "ip2"
  top: "ip2"
}
layer {
  name: "ip3"
  type: "InnerProduct"
  bottom: "ip2"
  top: "ip3"
  param {
    lr_mult: 1
  }
  param {
    lr_mult: 2
  }
  inner_product_param {
    num_output: 10
    weight_filler {
      type: "gaussian"
      std: 0.01
    }
    bias_filler {
      type: "constant"
    }
  }
}
layer {
  name: "loss"
  type: "SoftmaxWithLoss"
  bottom: "ip3"
  bottom: "label"
  top: "loss"
}
I0501 07:13:11.154664  4085 layer_factory.hpp:77] Creating layer cifar
I0501 07:13:11.154764  4085 db_lmdb.cpp:35] Opened lmdb examples/cifar10/cifar10_train_lmdb
I0501 07:13:11.154793  4085 net.cpp:86] Creating Layer cifar
I0501 07:13:11.154801  4085 net.cpp:382] cifar -> data
I0501 07:13:11.154824  4085 net.cpp:382] cifar -> label
I0501 07:13:11.154837  4085 data_transformer.cpp:25] Loading mean file from: examples/cifar10/mean.binaryproto
I0501 07:13:11.157012  4085 data_layer.cpp:45] output data size: 111,3,32,32
I0501 07:13:11.165184  4085 net.cpp:124] Setting up cifar
I0501 07:13:11.165205  4085 net.cpp:131] Top shape: 111 3 32 32 (340992)
I0501 07:13:11.165210  4085 net.cpp:131] Top shape: 111 (111)
I0501 07:13:11.165215  4085 net.cpp:139] Memory required for data: 1364412
I0501 07:13:11.165228  4085 layer_factory.hpp:77] Creating layer conv0
I0501 07:13:11.165249  4085 net.cpp:86] Creating Layer conv0
I0501 07:13:11.165254  4085 net.cpp:408] conv0 <- data
I0501 07:13:11.165267  4085 net.cpp:382] conv0 -> conv0
I0501 07:13:11.457080  4085 net.cpp:124] Setting up conv0
I0501 07:13:11.457139  4085 net.cpp:131] Top shape: 111 16 34 34 (2053056)
I0501 07:13:11.457145  4085 net.cpp:139] Memory required for data: 9576636
I0501 07:13:11.457165  4085 layer_factory.hpp:77] Creating layer Sigmoid0
I0501 07:13:11.457178  4085 net.cpp:86] Creating Layer Sigmoid0
I0501 07:13:11.457183  4085 net.cpp:408] Sigmoid0 <- conv0
I0501 07:13:11.457190  4085 net.cpp:382] Sigmoid0 -> Sigmoid0
I0501 07:13:11.457408  4085 net.cpp:124] Setting up Sigmoid0
I0501 07:13:11.457420  4085 net.cpp:131] Top shape: 111 16 34 34 (2053056)
I0501 07:13:11.457424  4085 net.cpp:139] Memory required for data: 17788860
I0501 07:13:11.457428  4085 layer_factory.hpp:77] Creating layer pool0
I0501 07:13:11.457437  4085 net.cpp:86] Creating Layer pool0
I0501 07:13:11.457442  4085 net.cpp:408] pool0 <- Sigmoid0
I0501 07:13:11.457446  4085 net.cpp:382] pool0 -> pool0
I0501 07:13:11.458323  4085 net.cpp:124] Setting up pool0
I0501 07:13:11.458340  4085 net.cpp:131] Top shape: 111 16 17 17 (513264)
I0501 07:13:11.458344  4085 net.cpp:139] Memory required for data: 19841916
I0501 07:13:11.458349  4085 layer_factory.hpp:77] Creating layer ip1
I0501 07:13:11.458371  4085 net.cpp:86] Creating Layer ip1
I0501 07:13:11.458375  4085 net.cpp:408] ip1 <- pool0
I0501 07:13:11.458381  4085 net.cpp:382] ip1 -> ip1
I0501 07:13:11.461422  4085 net.cpp:124] Setting up ip1
I0501 07:13:11.461432  4085 net.cpp:131] Top shape: 111 20 (2220)
I0501 07:13:11.461436  4085 net.cpp:139] Memory required for data: 19850796
I0501 07:13:11.461446  4085 layer_factory.hpp:77] Creating layer relu1
I0501 07:13:11.461452  4085 net.cpp:86] Creating Layer relu1
I0501 07:13:11.461455  4085 net.cpp:408] relu1 <- ip1
I0501 07:13:11.461460  4085 net.cpp:369] relu1 -> ip1 (in-place)
I0501 07:13:11.461637  4085 net.cpp:124] Setting up relu1
I0501 07:13:11.461647  4085 net.cpp:131] Top shape: 111 20 (2220)
I0501 07:13:11.461650  4085 net.cpp:139] Memory required for data: 19859676
I0501 07:13:11.461653  4085 layer_factory.hpp:77] Creating layer ip2
I0501 07:13:11.461660  4085 net.cpp:86] Creating Layer ip2
I0501 07:13:11.461664  4085 net.cpp:408] ip2 <- ip1
I0501 07:13:11.461669  4085 net.cpp:382] ip2 -> ip2
I0501 07:13:11.461778  4085 net.cpp:124] Setting up ip2
I0501 07:13:11.461786  4085 net.cpp:131] Top shape: 111 10 (1110)
I0501 07:13:11.461789  4085 net.cpp:139] Memory required for data: 19864116
I0501 07:13:11.461798  4085 layer_factory.hpp:77] Creating layer relu2
I0501 07:13:11.461803  4085 net.cpp:86] Creating Layer relu2
I0501 07:13:11.461807  4085 net.cpp:408] relu2 <- ip2
I0501 07:13:11.461812  4085 net.cpp:369] relu2 -> ip2 (in-place)
I0501 07:13:11.461995  4085 net.cpp:124] Setting up relu2
I0501 07:13:11.462004  4085 net.cpp:131] Top shape: 111 10 (1110)
I0501 07:13:11.462007  4085 net.cpp:139] Memory required for data: 19868556
I0501 07:13:11.462011  4085 layer_factory.hpp:77] Creating layer ip3
I0501 07:13:11.462020  4085 net.cpp:86] Creating Layer ip3
I0501 07:13:11.462023  4085 net.cpp:408] ip3 <- ip2
I0501 07:13:11.462030  4085 net.cpp:382] ip3 -> ip3
I0501 07:13:11.462144  4085 net.cpp:124] Setting up ip3
I0501 07:13:11.462152  4085 net.cpp:131] Top shape: 111 10 (1110)
I0501 07:13:11.462155  4085 net.cpp:139] Memory required for data: 19872996
I0501 07:13:11.462162  4085 layer_factory.hpp:77] Creating layer loss
I0501 07:13:11.462167  4085 net.cpp:86] Creating Layer loss
I0501 07:13:11.462172  4085 net.cpp:408] loss <- ip3
I0501 07:13:11.462175  4085 net.cpp:408] loss <- label
I0501 07:13:11.462182  4085 net.cpp:382] loss -> loss
I0501 07:13:11.462198  4085 layer_factory.hpp:77] Creating layer loss
…
I0501 07:13:11.462888  4085 solver.cpp:173] Creating test net (#0) specified by net file: ECE595/cifar/train_test/var_everything/cifar_train_test_475.prototxt
I0501 07:13:11.462918  4085 net.cpp:296] The NetState phase (1) differed from the phase (0) specified by a rule in layer cifar
I0501 07:13:11.463017  4085 net.cpp:53] Initializing net from parameters: 
name: "CIFAR"
state {
  phase: TEST
}
layer {
  name: "cifar"
  type: "Data"
  top: "data"
  top: "label"
  include {
    phase: TEST
  }
  transform_param {
    mean_file: "examples/cifar10/mean.binaryproto"
  }
  data_param {
    source: "examples/cifar10/cifar10_test_lmdb"
    batch_size: 1000
    backend: LMDB
  }
}
layer {
  name: "conv0"
  type: "Convolution"
  bottom: "data"
  top: "conv0"
  param {
    lr_mult: 1
  }
  param {
    lr_mult: 2
  }
  convolution_param {
    num_output: 16
    pad: 2
    kernel_size: 3
    stride: 1
    weight_filler {
      type: "gaussian"
      std: 0.01
    }
    bias_filler {
      type: "constant"
    }
  }
}
layer {
  name: "Sigmoid0"
  type: "Sigmoid"
  bottom: "conv0"
  top: "Sigmoid0"
}
layer {
  name: "pool0"
  type: "Pooling"
  bottom: "Sigmoid0"
  top: "pool0"
  pooling_param {
    pool: AVE
    kernel_size: 3
    stride: 2
  }
}
layer {
  name: "ip1"
  type: "InnerProduct"
  bottom: "pool0"
  top: "ip1"
  param {
    lr_mult: 1
  }
  param {
    lr_mult: 2
  }
  inner_product_param {
    num_output: 20
    weight_filler {
      type: "gaussian"
      std: 0.01
    }
    bias_filler {
      type: "constant"
    }
  }
}
layer {
  name: "relu1"
  type: "ReLU"
  bottom: "ip1"
  top: "ip1"
}
layer {
  name: "ip2"
  type: "InnerProduct"
  bottom: "ip1"
  top: "ip2"
  param {
    lr_mult: 1
  }
  param {
    lr_mult: 2
  }
  inner_product_param {
    num_output: 10
    weight_filler {
      type: "gaussian"
      std: 0.01
    }
    bias_filler {
      type: "constant"
    }
  }
}
layer {
  name: "relu2"
  type: "ReLU"
  bottom: "ip2"
  top: "ip2"
}
layer {
  name: "ip3"
  type: "InnerProduct"
  bottom: "ip2"
  top: "ip3"
  param {
    lr_mult: 1
  }
  param {
    lr_mult: 2
  }
  inner_product_param {
    num_output: 10
    weight_filler {
      type: "gaussian"
      std: 0.01
    }
    bias_filler {
      type: "constant"
    }
  }
}
layer {
  name: "accuracy"
  type: "Accuracy"
  bottom: "ip3"
  bottom: "label"
  top: "accuracy"
  include {
    phase: TEST
  }
}
layer {
  name: "loss"
  type: "SoftmaxWithLoss"
  bottom: "ip3"
  bottom: "label"
  top: "loss"
}
I0501 07:13:11.463095  4085 layer_factory.hpp:77] Creating layer cifar
I0501 07:13:11.463150  4085 db_lmdb.cpp:35] Opened lmdb examples/cifar10/cifar10_test_lmdb
I0501 07:13:11.463165  4085 net.cpp:86] Creating Layer cifar
I0501 07:13:11.463171  4085 net.cpp:382] cifar -> data
I0501 07:13:11.463179  4085 net.cpp:382] cifar -> label
I0501 07:13:11.463188  4085 data_transformer.cpp:25] Loading mean file from: examples/cifar10/mean.binaryproto
I0501 07:13:11.463363  4085 data_layer.cpp:45] output data size: 1000,3,32,32
I0501 07:13:11.488174  4085 net.cpp:124] Setting up cifar
I0501 07:13:11.488204  4085 net.cpp:131] Top shape: 1000 3 32 32 (3072000)
I0501 07:13:11.488209  4085 net.cpp:131] Top shape: 1000 (1000)
I0501 07:13:11.488212  4085 net.cpp:139] Memory required for data: 12292000
I0501 07:13:11.488219  4085 layer_factory.hpp:77] Creating layer label_cifar_1_split
I0501 07:13:11.488232  4085 net.cpp:86] Creating Layer label_cifar_1_split
I0501 07:13:11.488257  4085 net.cpp:408] label_cifar_1_split <- label
I0501 07:13:11.488265  4085 net.cpp:382] label_cifar_1_split -> label_cifar_1_split_0
I0501 07:13:11.488275  4085 net.cpp:382] label_cifar_1_split -> label_cifar_1_split_1
I0501 07:13:11.488365  4085 net.cpp:124] Setting up label_cifar_1_split
I0501 07:13:11.488374  4085 net.cpp:131] Top shape: 1000 (1000)
I0501 07:13:11.488379  4085 net.cpp:131] Top shape: 1000 (1000)
I0501 07:13:11.488381  4085 net.cpp:139] Memory required for data: 12300000
I0501 07:13:11.488385  4085 layer_factory.hpp:77] Creating layer conv0
I0501 07:13:11.488399  4085 net.cpp:86] Creating Layer conv0
I0501 07:13:11.488404  4085 net.cpp:408] conv0 <- data
I0501 07:13:11.488410  4085 net.cpp:382] conv0 -> conv0
I0501 07:13:11.490133  4085 net.cpp:124] Setting up conv0
I0501 07:13:11.490149  4085 net.cpp:131] Top shape: 1000 16 34 34 (18496000)
I0501 07:13:11.490152  4085 net.cpp:139] Memory required for data: 86284000
I0501 07:13:11.490162  4085 layer_factory.hpp:77] Creating layer Sigmoid0
I0501 07:13:11.490170  4085 net.cpp:86] Creating Layer Sigmoid0
I0501 07:13:11.490173  4085 net.cpp:408] Sigmoid0 <- conv0
I0501 07:13:11.490180  4085 net.cpp:382] Sigmoid0 -> Sigmoid0
I0501 07:13:11.492038  4085 net.cpp:124] Setting up Sigmoid0
I0501 07:13:11.492053  4085 net.cpp:131] Top shape: 1000 16 34 34 (18496000)
I0501 07:13:11.492056  4085 net.cpp:139] Memory required for data: 160268000
I0501 07:13:11.492060  4085 layer_factory.hpp:77] Creating layer pool0
I0501 07:13:11.492071  4085 net.cpp:86] Creating Layer pool0
I0501 07:13:11.492075  4085 net.cpp:408] pool0 <- Sigmoid0
I0501 07:13:11.492080  4085 net.cpp:382] pool0 -> pool0
I0501 07:13:11.492280  4085 net.cpp:124] Setting up pool0
I0501 07:13:11.492290  4085 net.cpp:131] Top shape: 1000 16 17 17 (4624000)
I0501 07:13:11.492292  4085 net.cpp:139] Memory required for data: 178764000
I0501 07:13:11.492296  4085 layer_factory.hpp:77] Creating layer ip1
I0501 07:13:11.492303  4085 net.cpp:86] Creating Layer ip1
I0501 07:13:11.492307  4085 net.cpp:408] ip1 <- pool0
I0501 07:13:11.492313  4085 net.cpp:382] ip1 -> ip1
I0501 07:13:11.495131  4085 net.cpp:124] Setting up ip1
I0501 07:13:11.495141  4085 net.cpp:131] Top shape: 1000 20 (20000)
I0501 07:13:11.495144  4085 net.cpp:139] Memory required for data: 178844000
I0501 07:13:11.495152  4085 layer_factory.hpp:77] Creating layer relu1
I0501 07:13:11.495159  4085 net.cpp:86] Creating Layer relu1
I0501 07:13:11.495174  4085 net.cpp:408] relu1 <- ip1
I0501 07:13:11.495179  4085 net.cpp:369] relu1 -> ip1 (in-place)
I0501 07:13:11.495353  4085 net.cpp:124] Setting up relu1
I0501 07:13:11.495362  4085 net.cpp:131] Top shape: 1000 20 (20000)
I0501 07:13:11.495371  4085 net.cpp:139] Memory required for data: 178924000
I0501 07:13:11.495375  4085 layer_factory.hpp:77] Creating layer ip2
I0501 07:13:11.495386  4085 net.cpp:86] Creating Layer ip2
I0501 07:13:11.495389  4085 net.cpp:408] ip2 <- ip1
I0501 07:13:11.495396  4085 net.cpp:382] ip2 -> ip2
I0501 07:13:11.495519  4085 net.cpp:124] Setting up ip2
I0501 07:13:11.495527  4085 net.cpp:131] Top shape: 1000 10 (10000)
I0501 07:13:11.495530  4085 net.cpp:139] Memory required for data: 178964000
I0501 07:13:11.495538  4085 layer_factory.hpp:77] Creating layer relu2
I0501 07:13:11.495545  4085 net.cpp:86] Creating Layer relu2
I0501 07:13:11.495548  4085 net.cpp:408] relu2 <- ip2
I0501 07:13:11.495554  4085 net.cpp:369] relu2 -> ip2 (in-place)
I0501 07:13:11.495724  4085 net.cpp:124] Setting up relu2
I0501 07:13:11.495733  4085 net.cpp:131] Top shape: 1000 10 (10000)
I0501 07:13:11.495736  4085 net.cpp:139] Memory required for data: 179004000
I0501 07:13:11.495739  4085 layer_factory.hpp:77] Creating layer ip3
I0501 07:13:11.495746  4085 net.cpp:86] Creating Layer ip3
I0501 07:13:11.495750  4085 net.cpp:408] ip3 <- ip2
I0501 07:13:11.495754  4085 net.cpp:382] ip3 -> ip3
I0501 07:13:11.495864  4085 net.cpp:124] Setting up ip3
I0501 07:13:11.495872  4085 net.cpp:131] Top shape: 1000 10 (10000)
I0501 07:13:11.495887  4085 net.cpp:139] Memory required for data: 179044000
I0501 07:13:11.495894  4085 layer_factory.hpp:77] Creating layer ip3_ip3_0_split
I0501 07:13:11.495901  4085 net.cpp:86] Creating Layer ip3_ip3_0_split
I0501 07:13:11.495904  4085 net.cpp:408] ip3_ip3_0_split <- ip3
I0501 07:13:11.495908  4085 net.cpp:382] ip3_ip3_0_split -> ip3_ip3_0_split_0
I0501 07:13:11.495914  4085 net.cpp:382] ip3_ip3_0_split -> ip3_ip3_0_split_1
I0501 07:13:11.495949  4085 net.cpp:124] Setting up ip3_ip3_0_split
I0501 07:13:11.495954  4085 net.cpp:131] Top shape: 1000 10 (10000)
I0501 07:13:11.495959  4085 net.cpp:131] Top shape: 1000 10 (10000)
I0501 07:13:11.495961  4085 net.cpp:139] Memory required for data: 179124000
I0501 07:13:11.495965  4085 layer_factory.hpp:77] Creating layer accuracy
I0501 07:13:11.495970  4085 net.cpp:86] Creating Layer accuracy
I0501 07:13:11.495975  4085 net.cpp:408] accuracy <- ip3_ip3_0_split_0
I0501 07:13:11.495978  4085 net.cpp:408] accuracy <- label_cifar_1_split_0
I0501 07:13:11.495985  4085 net.cpp:382] accuracy -> accuracy
…
