…
I0430 18:55:05.736886 24675 net.cpp:296] The NetState phase (0) differed from the phase (1) specified by a rule in layer cifar
I0430 18:55:05.736903 24675 net.cpp:296] The NetState phase (0) differed from the phase (1) specified by a rule in layer accuracy
I0430 18:55:05.737006 24675 net.cpp:53] Initializing net from parameters: 
name: "CIFAR"
state {
  phase: TRAIN
  level: 0
  stage: ""
}
layer {
  name: "cifar"
  type: "Data"
  top: "data"
  top: "label"
  include {
    phase: TRAIN
  }
  transform_param {
    mean_file: "examples/cifar10/mean.binaryproto"
  }
  data_param {
    source: "examples/cifar10/cifar10_train_lmdb"
    batch_size: 111
    backend: LMDB
  }
}
layer {
  name: "ip1"
  type: "InnerProduct"
  bottom: "data"
  top: "ip1"
  param {
    lr_mult: 1
  }
  param {
    lr_mult: 2
  }
  inner_product_param {
    num_output: 40
    weight_filler {
      type: "gaussian"
      std: 0.01
    }
    bias_filler {
      type: "constant"
    }
  }
}
layer {
  name: "relu1"
  type: "ReLU"
  bottom: "ip1"
  top: "ip1"
}
layer {
  name: "ip2"
  type: "InnerProduct"
  bottom: "ip1"
  top: "ip2"
  param {
    lr_mult: 1
  }
  param {
    lr_mult: 2
  }
  inner_product_param {
    num_output: 10
    weight_filler {
      type: "gaussian"
      std: 0.01
    }
    bias_filler {
      type: "constant"
    }
  }
}
layer {
  name: "relu2"
  type: "ReLU"
  bottom: "ip2"
  top: "ip2"
}
layer {
  name: "ip3"
  type: "InnerProduct"
  bottom: "ip2"
  top: "ip3"
  param {
    lr_mult: 1
  }
  param {
    lr_mult: 2
  }
  inner_product_param {
    num_output: 20
    weight_filler {
      type: "gaussian"
      std: 0.01
    }
    bias_filler {
      type: "constant"
    }
  }
}
layer {
  name: "relu3"
  type: "ReLU"
  bottom: "ip3"
  top: "ip3"
}
layer {
  name: "ip4"
  type: "InnerProduct"
  bottom: "ip3"
  top: "ip4"
  param {
    lr_mult: 1
  }
  param {
    lr_mult: 2
  }
  inner_product_param {
    num_output: 10
    weight_filler {
      type: "gaussian"
      std: 0.01
    }
    bias_filler {
      type: "constant"
    }
  }
}
layer {
  name: "loss"
  type: "SoftmaxWithLoss"
  bottom: "ip4"
  bottom: "label"
  top: "loss"
}
I0430 18:55:05.737098 24675 layer_factory.hpp:77] Creating layer cifar
I0430 18:55:05.737231 24675 db_lmdb.cpp:35] Opened lmdb examples/cifar10/cifar10_train_lmdb
I0430 18:55:05.737267 24675 net.cpp:86] Creating Layer cifar
I0430 18:55:05.737282 24675 net.cpp:382] cifar -> data
I0430 18:55:05.737311 24675 net.cpp:382] cifar -> label
I0430 18:55:05.737329 24675 data_transformer.cpp:25] Loading mean file from: examples/cifar10/mean.binaryproto
I0430 18:55:05.739629 24675 data_layer.cpp:45] output data size: 111,3,32,32
I0430 18:55:05.747562 24675 net.cpp:124] Setting up cifar
I0430 18:55:05.747582 24675 net.cpp:131] Top shape: 111 3 32 32 (340992)
I0430 18:55:05.747588 24675 net.cpp:131] Top shape: 111 (111)
I0430 18:55:05.747592 24675 net.cpp:139] Memory required for data: 1364412
I0430 18:55:05.747601 24675 layer_factory.hpp:77] Creating layer ip1
I0430 18:55:05.747611 24675 net.cpp:86] Creating Layer ip1
I0430 18:55:05.747617 24675 net.cpp:408] ip1 <- data
I0430 18:55:05.747632 24675 net.cpp:382] ip1 -> ip1
I0430 18:55:05.751883 24675 net.cpp:124] Setting up ip1
I0430 18:55:05.751896 24675 net.cpp:131] Top shape: 111 40 (4440)
I0430 18:55:05.751899 24675 net.cpp:139] Memory required for data: 1382172
I0430 18:55:05.751914 24675 layer_factory.hpp:77] Creating layer relu1
I0430 18:55:05.751924 24675 net.cpp:86] Creating Layer relu1
I0430 18:55:05.751945 24675 net.cpp:408] relu1 <- ip1
I0430 18:55:05.751953 24675 net.cpp:369] relu1 -> ip1 (in-place)
I0430 18:55:06.024338 24675 net.cpp:124] Setting up relu1
I0430 18:55:06.024366 24675 net.cpp:131] Top shape: 111 40 (4440)
I0430 18:55:06.024370 24675 net.cpp:139] Memory required for data: 1399932
I0430 18:55:06.024375 24675 layer_factory.hpp:77] Creating layer ip2
I0430 18:55:06.024387 24675 net.cpp:86] Creating Layer ip2
I0430 18:55:06.024391 24675 net.cpp:408] ip2 <- ip1
I0430 18:55:06.024399 24675 net.cpp:382] ip2 -> ip2
I0430 18:55:06.025502 24675 net.cpp:124] Setting up ip2
I0430 18:55:06.025516 24675 net.cpp:131] Top shape: 111 10 (1110)
I0430 18:55:06.025518 24675 net.cpp:139] Memory required for data: 1404372
I0430 18:55:06.025527 24675 layer_factory.hpp:77] Creating layer relu2
I0430 18:55:06.025534 24675 net.cpp:86] Creating Layer relu2
I0430 18:55:06.025537 24675 net.cpp:408] relu2 <- ip2
I0430 18:55:06.025542 24675 net.cpp:369] relu2 -> ip2 (in-place)
I0430 18:55:06.026271 24675 net.cpp:124] Setting up relu2
I0430 18:55:06.026283 24675 net.cpp:131] Top shape: 111 10 (1110)
I0430 18:55:06.026286 24675 net.cpp:139] Memory required for data: 1408812
I0430 18:55:06.026289 24675 layer_factory.hpp:77] Creating layer ip3
I0430 18:55:06.026296 24675 net.cpp:86] Creating Layer ip3
I0430 18:55:06.026299 24675 net.cpp:408] ip3 <- ip2
I0430 18:55:06.026304 24675 net.cpp:382] ip3 -> ip3
I0430 18:55:06.026419 24675 net.cpp:124] Setting up ip3
I0430 18:55:06.026427 24675 net.cpp:131] Top shape: 111 20 (2220)
I0430 18:55:06.026430 24675 net.cpp:139] Memory required for data: 1417692
I0430 18:55:06.026439 24675 layer_factory.hpp:77] Creating layer relu3
I0430 18:55:06.026446 24675 net.cpp:86] Creating Layer relu3
I0430 18:55:06.026451 24675 net.cpp:408] relu3 <- ip3
I0430 18:55:06.026458 24675 net.cpp:369] relu3 -> ip3 (in-place)
I0430 18:55:06.026620 24675 net.cpp:124] Setting up relu3
I0430 18:55:06.026628 24675 net.cpp:131] Top shape: 111 20 (2220)
I0430 18:55:06.026631 24675 net.cpp:139] Memory required for data: 1426572
I0430 18:55:06.026635 24675 layer_factory.hpp:77] Creating layer ip4
I0430 18:55:06.026643 24675 net.cpp:86] Creating Layer ip4
I0430 18:55:06.026648 24675 net.cpp:408] ip4 <- ip3
I0430 18:55:06.026656 24675 net.cpp:382] ip4 -> ip4
I0430 18:55:06.026757 24675 net.cpp:124] Setting up ip4
I0430 18:55:06.026763 24675 net.cpp:131] Top shape: 111 10 (1110)
I0430 18:55:06.026767 24675 net.cpp:139] Memory required for data: 1431012
I0430 18:55:06.026773 24675 layer_factory.hpp:77] Creating layer loss
I0430 18:55:06.026782 24675 net.cpp:86] Creating Layer loss
I0430 18:55:06.026787 24675 net.cpp:408] loss <- ip4
I0430 18:55:06.026793 24675 net.cpp:408] loss <- label
I0430 18:55:06.026800 24675 net.cpp:382] loss -> loss
I0430 18:55:06.026823 24675 layer_factory.hpp:77] Creating layer loss
…
I0430 18:55:06.027427 24675 solver.cpp:173] Creating test net (#0) specified by net file: ECE595/cifar/train_test/var_everything/cifar_train_test_81.prototxt
I0430 18:55:06.027468 24675 net.cpp:296] The NetState phase (1) differed from the phase (0) specified by a rule in layer cifar
I0430 18:55:06.027554 24675 net.cpp:53] Initializing net from parameters: 
name: "CIFAR"
state {
  phase: TEST
}
layer {
  name: "cifar"
  type: "Data"
  top: "data"
  top: "label"
  include {
    phase: TEST
  }
  transform_param {
    mean_file: "examples/cifar10/mean.binaryproto"
  }
  data_param {
    source: "examples/cifar10/cifar10_test_lmdb"
    batch_size: 1000
    backend: LMDB
  }
}
layer {
  name: "ip1"
  type: "InnerProduct"
  bottom: "data"
  top: "ip1"
  param {
    lr_mult: 1
  }
  param {
    lr_mult: 2
  }
  inner_product_param {
    num_output: 40
    weight_filler {
      type: "gaussian"
      std: 0.01
    }
    bias_filler {
      type: "constant"
    }
  }
}
layer {
  name: "relu1"
  type: "ReLU"
  bottom: "ip1"
  top: "ip1"
}
layer {
  name: "ip2"
  type: "InnerProduct"
  bottom: "ip1"
  top: "ip2"
  param {
    lr_mult: 1
  }
  param {
    lr_mult: 2
  }
  inner_product_param {
    num_output: 10
    weight_filler {
      type: "gaussian"
      std: 0.01
    }
    bias_filler {
      type: "constant"
    }
  }
}
layer {
  name: "relu2"
  type: "ReLU"
  bottom: "ip2"
  top: "ip2"
}
layer {
  name: "ip3"
  type: "InnerProduct"
  bottom: "ip2"
  top: "ip3"
  param {
    lr_mult: 1
  }
  param {
    lr_mult: 2
  }
  inner_product_param {
    num_output: 20
    weight_filler {
      type: "gaussian"
      std: 0.01
    }
    bias_filler {
      type: "constant"
    }
  }
}
layer {
  name: "relu3"
  type: "ReLU"
  bottom: "ip3"
  top: "ip3"
}
layer {
  name: "ip4"
  type: "InnerProduct"
  bottom: "ip3"
  top: "ip4"
  param {
    lr_mult: 1
  }
  param {
    lr_mult: 2
  }
  inner_product_param {
    num_output: 10
    weight_filler {
      type: "gaussian"
      std: 0.01
    }
    bias_filler {
      type: "constant"
    }
  }
}
layer {
  name: "accuracy"
  type: "Accuracy"
  bottom: "ip4"
  bottom: "label"
  top: "accuracy"
  include {
    phase: TEST
  }
}
layer {
  name: "loss"
  type: "SoftmaxWithLoss"
  bottom: "ip4"
  bottom: "label"
  top: "loss"
}
I0430 18:55:06.027634 24675 layer_factory.hpp:77] Creating layer cifar
I0430 18:55:06.027691 24675 db_lmdb.cpp:35] Opened lmdb examples/cifar10/cifar10_test_lmdb
I0430 18:55:06.027706 24675 net.cpp:86] Creating Layer cifar
I0430 18:55:06.027714 24675 net.cpp:382] cifar -> data
I0430 18:55:06.027724 24675 net.cpp:382] cifar -> label
I0430 18:55:06.027734 24675 data_transformer.cpp:25] Loading mean file from: examples/cifar10/mean.binaryproto
I0430 18:55:06.027925 24675 data_layer.cpp:45] output data size: 1000,3,32,32
I0430 18:55:06.049465 24675 net.cpp:124] Setting up cifar
I0430 18:55:06.049507 24675 net.cpp:131] Top shape: 1000 3 32 32 (3072000)
I0430 18:55:06.049512 24675 net.cpp:131] Top shape: 1000 (1000)
I0430 18:55:06.049515 24675 net.cpp:139] Memory required for data: 12292000
I0430 18:55:06.049520 24675 layer_factory.hpp:77] Creating layer label_cifar_1_split
I0430 18:55:06.049537 24675 net.cpp:86] Creating Layer label_cifar_1_split
I0430 18:55:06.049540 24675 net.cpp:408] label_cifar_1_split <- label
I0430 18:55:06.049547 24675 net.cpp:382] label_cifar_1_split -> label_cifar_1_split_0
I0430 18:55:06.049561 24675 net.cpp:382] label_cifar_1_split -> label_cifar_1_split_1
I0430 18:55:06.049691 24675 net.cpp:124] Setting up label_cifar_1_split
I0430 18:55:06.049700 24675 net.cpp:131] Top shape: 1000 (1000)
I0430 18:55:06.049703 24675 net.cpp:131] Top shape: 1000 (1000)
I0430 18:55:06.049705 24675 net.cpp:139] Memory required for data: 12300000
I0430 18:55:06.049710 24675 layer_factory.hpp:77] Creating layer ip1
I0430 18:55:06.049723 24675 net.cpp:86] Creating Layer ip1
I0430 18:55:06.049728 24675 net.cpp:408] ip1 <- data
I0430 18:55:06.049736 24675 net.cpp:382] ip1 -> ip1
I0430 18:55:06.053133 24675 net.cpp:124] Setting up ip1
I0430 18:55:06.053143 24675 net.cpp:131] Top shape: 1000 40 (40000)
I0430 18:55:06.053161 24675 net.cpp:139] Memory required for data: 12460000
I0430 18:55:06.053201 24675 layer_factory.hpp:77] Creating layer relu1
I0430 18:55:06.053210 24675 net.cpp:86] Creating Layer relu1
I0430 18:55:06.053215 24675 net.cpp:408] relu1 <- ip1
I0430 18:55:06.053223 24675 net.cpp:369] relu1 -> ip1 (in-place)
I0430 18:55:06.053999 24675 net.cpp:124] Setting up relu1
I0430 18:55:06.054013 24675 net.cpp:131] Top shape: 1000 40 (40000)
I0430 18:55:06.054035 24675 net.cpp:139] Memory required for data: 12620000
I0430 18:55:06.054039 24675 layer_factory.hpp:77] Creating layer ip2
I0430 18:55:06.054047 24675 net.cpp:86] Creating Layer ip2
I0430 18:55:06.054050 24675 net.cpp:408] ip2 <- ip1
I0430 18:55:06.054055 24675 net.cpp:382] ip2 -> ip2
I0430 18:55:06.054188 24675 net.cpp:124] Setting up ip2
I0430 18:55:06.054196 24675 net.cpp:131] Top shape: 1000 10 (10000)
I0430 18:55:06.054199 24675 net.cpp:139] Memory required for data: 12660000
I0430 18:55:06.054221 24675 layer_factory.hpp:77] Creating layer relu2
I0430 18:55:06.054231 24675 net.cpp:86] Creating Layer relu2
I0430 18:55:06.054235 24675 net.cpp:408] relu2 <- ip2
I0430 18:55:06.054242 24675 net.cpp:369] relu2 -> ip2 (in-place)
I0430 18:55:06.054410 24675 net.cpp:124] Setting up relu2
I0430 18:55:06.054422 24675 net.cpp:131] Top shape: 1000 10 (10000)
I0430 18:55:06.054426 24675 net.cpp:139] Memory required for data: 12700000
I0430 18:55:06.054430 24675 layer_factory.hpp:77] Creating layer ip3
I0430 18:55:06.054440 24675 net.cpp:86] Creating Layer ip3
I0430 18:55:06.054445 24675 net.cpp:408] ip3 <- ip2
I0430 18:55:06.054455 24675 net.cpp:382] ip3 -> ip3
I0430 18:55:06.054589 24675 net.cpp:124] Setting up ip3
I0430 18:55:06.054596 24675 net.cpp:131] Top shape: 1000 20 (20000)
I0430 18:55:06.054600 24675 net.cpp:139] Memory required for data: 12780000
I0430 18:55:06.054610 24675 layer_factory.hpp:77] Creating layer relu3
I0430 18:55:06.054616 24675 net.cpp:86] Creating Layer relu3
I0430 18:55:06.054621 24675 net.cpp:408] relu3 <- ip3
I0430 18:55:06.054638 24675 net.cpp:369] relu3 -> ip3 (in-place)
I0430 18:55:06.054798 24675 net.cpp:124] Setting up relu3
I0430 18:55:06.054807 24675 net.cpp:131] Top shape: 1000 20 (20000)
I0430 18:55:06.054811 24675 net.cpp:139] Memory required for data: 12860000
I0430 18:55:06.054813 24675 layer_factory.hpp:77] Creating layer ip4
I0430 18:55:06.054823 24675 net.cpp:86] Creating Layer ip4
I0430 18:55:06.054829 24675 net.cpp:408] ip4 <- ip3
I0430 18:55:06.054838 24675 net.cpp:382] ip4 -> ip4
I0430 18:55:06.054950 24675 net.cpp:124] Setting up ip4
I0430 18:55:06.054957 24675 net.cpp:131] Top shape: 1000 10 (10000)
I0430 18:55:06.054960 24675 net.cpp:139] Memory required for data: 12900000
I0430 18:55:06.054967 24675 layer_factory.hpp:77] Creating layer ip4_ip4_0_split
I0430 18:55:06.054975 24675 net.cpp:86] Creating Layer ip4_ip4_0_split
I0430 18:55:06.054980 24675 net.cpp:408] ip4_ip4_0_split <- ip4
I0430 18:55:06.054987 24675 net.cpp:382] ip4_ip4_0_split -> ip4_ip4_0_split_0
I0430 18:55:06.054996 24675 net.cpp:382] ip4_ip4_0_split -> ip4_ip4_0_split_1
I0430 18:55:06.055038 24675 net.cpp:124] Setting up ip4_ip4_0_split
I0430 18:55:06.055047 24675 net.cpp:131] Top shape: 1000 10 (10000)
I0430 18:55:06.055052 24675 net.cpp:131] Top shape: 1000 10 (10000)
I0430 18:55:06.055054 24675 net.cpp:139] Memory required for data: 12980000
I0430 18:55:06.055059 24675 layer_factory.hpp:77] Creating layer accuracy
I0430 18:55:06.055068 24675 net.cpp:86] Creating Layer accuracy
I0430 18:55:06.055073 24675 net.cpp:408] accuracy <- ip4_ip4_0_split_0
I0430 18:55:06.055078 24675 net.cpp:408] accuracy <- label_cifar_1_split_0
I0430 18:55:06.055084 24675 net.cpp:382] accuracy -> accuracy
…
