…
I0501 00:35:10.343098  7352 net.cpp:296] The NetState phase (0) differed from the phase (1) specified by a rule in layer cifar
I0501 00:35:10.343112  7352 net.cpp:296] The NetState phase (0) differed from the phase (1) specified by a rule in layer accuracy
I0501 00:35:10.343195  7352 net.cpp:53] Initializing net from parameters: 
name: "CIFAR"
state {
  phase: TRAIN
  level: 0
  stage: ""
}
layer {
  name: "cifar"
  type: "Data"
  top: "data"
  top: "label"
  include {
    phase: TRAIN
  }
  transform_param {
    mean_file: "examples/cifar10/mean.binaryproto"
  }
  data_param {
    source: "examples/cifar10/cifar10_train_lmdb"
    batch_size: 111
    backend: LMDB
  }
}
layer {
  name: "conv0"
  type: "Convolution"
  bottom: "data"
  top: "conv0"
  param {
    lr_mult: 1
  }
  param {
    lr_mult: 2
  }
  convolution_param {
    num_output: 8
    pad: 2
    kernel_size: 3
    stride: 1
    weight_filler {
      type: "gaussian"
      std: 0.01
    }
    bias_filler {
      type: "constant"
    }
  }
}
layer {
  name: "Sigmoid0"
  type: "Sigmoid"
  bottom: "conv0"
  top: "Sigmoid0"
}
layer {
  name: "pool0"
  type: "Pooling"
  bottom: "Sigmoid0"
  top: "pool0"
  pooling_param {
    pool: AVE
    kernel_size: 3
    stride: 2
  }
}
layer {
  name: "ip1"
  type: "InnerProduct"
  bottom: "pool0"
  top: "ip1"
  param {
    lr_mult: 1
  }
  param {
    lr_mult: 2
  }
  inner_product_param {
    num_output: 80
    weight_filler {
      type: "gaussian"
      std: 0.01
    }
    bias_filler {
      type: "constant"
    }
  }
}
layer {
  name: "relu1"
  type: "ReLU"
  bottom: "ip1"
  top: "ip1"
}
layer {
  name: "ip2"
  type: "InnerProduct"
  bottom: "ip1"
  top: "ip2"
  param {
    lr_mult: 1
  }
  param {
    lr_mult: 2
  }
  inner_product_param {
    num_output: 10
    weight_filler {
      type: "gaussian"
      std: 0.01
    }
    bias_filler {
      type: "constant"
    }
  }
}
layer {
  name: "relu2"
  type: "ReLU"
  bottom: "ip2"
  top: "ip2"
}
layer {
  name: "ip3"
  type: "InnerProduct"
  bottom: "ip2"
  top: "ip3"
  param {
    lr_mult: 1
  }
  param {
    lr_mult: 2
  }
  inner_product_param {
    num_output: 40
    weight_filler {
      type: "gaussian"
      std: 0.01
    }
    bias_filler {
      type: "constant"
    }
  }
}
layer {
  name: "relu3"
  type: "ReLU"
  bottom: "ip3"
  top: "ip3"
}
layer {
  name: "ip4"
  type: "InnerProduct"
  bottom: "ip3"
  top: "ip4"
  param {
    lr_mult: 1
  }
  param {
    lr_mult: 2
  }
  inner_product_param {
    num_output: 10
    weight_filler {
      type: "gaussian"
      std: 0.01
    }
    bias_filler {
      type: "constant"
    }
  }
}
layer {
  name: "loss"
  type: "SoftmaxWithLoss"
  bottom: "ip4"
  bottom: "label"
  top: "loss"
}
I0501 00:35:10.343257  7352 layer_factory.hpp:77] Creating layer cifar
I0501 00:35:10.343336  7352 db_lmdb.cpp:35] Opened lmdb examples/cifar10/cifar10_train_lmdb
I0501 00:35:10.343358  7352 net.cpp:86] Creating Layer cifar
I0501 00:35:10.343364  7352 net.cpp:382] cifar -> data
I0501 00:35:10.343382  7352 net.cpp:382] cifar -> label
I0501 00:35:10.343392  7352 data_transformer.cpp:25] Loading mean file from: examples/cifar10/mean.binaryproto
I0501 00:35:10.345168  7352 data_layer.cpp:45] output data size: 111,3,32,32
I0501 00:35:10.351730  7352 net.cpp:124] Setting up cifar
I0501 00:35:10.351776  7352 net.cpp:131] Top shape: 111 3 32 32 (340992)
I0501 00:35:10.351781  7352 net.cpp:131] Top shape: 111 (111)
I0501 00:35:10.351784  7352 net.cpp:139] Memory required for data: 1364412
I0501 00:35:10.351819  7352 layer_factory.hpp:77] Creating layer conv0
I0501 00:35:10.351851  7352 net.cpp:86] Creating Layer conv0
I0501 00:35:10.351856  7352 net.cpp:408] conv0 <- data
I0501 00:35:10.351866  7352 net.cpp:382] conv0 -> conv0
I0501 00:35:10.576922  7352 net.cpp:124] Setting up conv0
I0501 00:35:10.576963  7352 net.cpp:131] Top shape: 111 8 34 34 (1026528)
I0501 00:35:10.576967  7352 net.cpp:139] Memory required for data: 5470524
I0501 00:35:10.576982  7352 layer_factory.hpp:77] Creating layer Sigmoid0
I0501 00:35:10.576995  7352 net.cpp:86] Creating Layer Sigmoid0
I0501 00:35:10.577000  7352 net.cpp:408] Sigmoid0 <- conv0
I0501 00:35:10.577020  7352 net.cpp:382] Sigmoid0 -> Sigmoid0
I0501 00:35:10.577250  7352 net.cpp:124] Setting up Sigmoid0
I0501 00:35:10.577258  7352 net.cpp:131] Top shape: 111 8 34 34 (1026528)
I0501 00:35:10.577261  7352 net.cpp:139] Memory required for data: 9576636
I0501 00:35:10.577265  7352 layer_factory.hpp:77] Creating layer pool0
I0501 00:35:10.577271  7352 net.cpp:86] Creating Layer pool0
I0501 00:35:10.577275  7352 net.cpp:408] pool0 <- Sigmoid0
I0501 00:35:10.577280  7352 net.cpp:382] pool0 -> pool0
I0501 00:35:10.577996  7352 net.cpp:124] Setting up pool0
I0501 00:35:10.578022  7352 net.cpp:131] Top shape: 111 8 17 17 (256632)
I0501 00:35:10.578027  7352 net.cpp:139] Memory required for data: 10603164
I0501 00:35:10.578029  7352 layer_factory.hpp:77] Creating layer ip1
I0501 00:35:10.578038  7352 net.cpp:86] Creating Layer ip1
I0501 00:35:10.578042  7352 net.cpp:408] ip1 <- pool0
I0501 00:35:10.578047  7352 net.cpp:382] ip1 -> ip1
I0501 00:35:10.583513  7352 net.cpp:124] Setting up ip1
I0501 00:35:10.583524  7352 net.cpp:131] Top shape: 111 80 (8880)
I0501 00:35:10.583528  7352 net.cpp:139] Memory required for data: 10638684
I0501 00:35:10.583535  7352 layer_factory.hpp:77] Creating layer relu1
I0501 00:35:10.583540  7352 net.cpp:86] Creating Layer relu1
I0501 00:35:10.583544  7352 net.cpp:408] relu1 <- ip1
I0501 00:35:10.583547  7352 net.cpp:369] relu1 -> ip1 (in-place)
I0501 00:35:10.583705  7352 net.cpp:124] Setting up relu1
I0501 00:35:10.583714  7352 net.cpp:131] Top shape: 111 80 (8880)
I0501 00:35:10.583716  7352 net.cpp:139] Memory required for data: 10674204
I0501 00:35:10.583719  7352 layer_factory.hpp:77] Creating layer ip2
I0501 00:35:10.583725  7352 net.cpp:86] Creating Layer ip2
I0501 00:35:10.583729  7352 net.cpp:408] ip2 <- ip1
I0501 00:35:10.583734  7352 net.cpp:382] ip2 -> ip2
I0501 00:35:10.584622  7352 net.cpp:124] Setting up ip2
I0501 00:35:10.584635  7352 net.cpp:131] Top shape: 111 10 (1110)
I0501 00:35:10.584637  7352 net.cpp:139] Memory required for data: 10678644
I0501 00:35:10.584645  7352 layer_factory.hpp:77] Creating layer relu2
I0501 00:35:10.584650  7352 net.cpp:86] Creating Layer relu2
I0501 00:35:10.584652  7352 net.cpp:408] relu2 <- ip2
I0501 00:35:10.584656  7352 net.cpp:369] relu2 -> ip2 (in-place)
I0501 00:35:10.584862  7352 net.cpp:124] Setting up relu2
I0501 00:35:10.584872  7352 net.cpp:131] Top shape: 111 10 (1110)
I0501 00:35:10.584874  7352 net.cpp:139] Memory required for data: 10683084
I0501 00:35:10.584878  7352 layer_factory.hpp:77] Creating layer ip3
I0501 00:35:10.584885  7352 net.cpp:86] Creating Layer ip3
I0501 00:35:10.584888  7352 net.cpp:408] ip3 <- ip2
I0501 00:35:10.584893  7352 net.cpp:382] ip3 -> ip3
I0501 00:35:10.584996  7352 net.cpp:124] Setting up ip3
I0501 00:35:10.585003  7352 net.cpp:131] Top shape: 111 40 (4440)
I0501 00:35:10.585006  7352 net.cpp:139] Memory required for data: 10700844
I0501 00:35:10.585012  7352 layer_factory.hpp:77] Creating layer relu3
I0501 00:35:10.585017  7352 net.cpp:86] Creating Layer relu3
I0501 00:35:10.585021  7352 net.cpp:408] relu3 <- ip3
I0501 00:35:10.585024  7352 net.cpp:369] relu3 -> ip3 (in-place)
I0501 00:35:10.585201  7352 net.cpp:124] Setting up relu3
I0501 00:35:10.585207  7352 net.cpp:131] Top shape: 111 40 (4440)
I0501 00:35:10.585211  7352 net.cpp:139] Memory required for data: 10718604
I0501 00:35:10.585213  7352 layer_factory.hpp:77] Creating layer ip4
I0501 00:35:10.585233  7352 net.cpp:86] Creating Layer ip4
I0501 00:35:10.585237  7352 net.cpp:408] ip4 <- ip3
I0501 00:35:10.585242  7352 net.cpp:382] ip4 -> ip4
I0501 00:35:10.585336  7352 net.cpp:124] Setting up ip4
I0501 00:35:10.585343  7352 net.cpp:131] Top shape: 111 10 (1110)
I0501 00:35:10.585346  7352 net.cpp:139] Memory required for data: 10723044
I0501 00:35:10.585353  7352 layer_factory.hpp:77] Creating layer loss
I0501 00:35:10.585361  7352 net.cpp:86] Creating Layer loss
I0501 00:35:10.585366  7352 net.cpp:408] loss <- ip4
I0501 00:35:10.585372  7352 net.cpp:408] loss <- label
I0501 00:35:10.585378  7352 net.cpp:382] loss -> loss
I0501 00:35:10.585394  7352 layer_factory.hpp:77] Creating layer loss
…
I0501 00:35:10.586536  7352 solver.cpp:173] Creating test net (#0) specified by net file: ECE595/cifar/train_test/var_everything/cifar_train_test_262.prototxt
I0501 00:35:10.586563  7352 net.cpp:296] The NetState phase (1) differed from the phase (0) specified by a rule in layer cifar
I0501 00:35:10.586652  7352 net.cpp:53] Initializing net from parameters: 
name: "CIFAR"
state {
  phase: TEST
}
layer {
  name: "cifar"
  type: "Data"
  top: "data"
  top: "label"
  include {
    phase: TEST
  }
  transform_param {
    mean_file: "examples/cifar10/mean.binaryproto"
  }
  data_param {
    source: "examples/cifar10/cifar10_test_lmdb"
    batch_size: 1000
    backend: LMDB
  }
}
layer {
  name: "conv0"
  type: "Convolution"
  bottom: "data"
  top: "conv0"
  param {
    lr_mult: 1
  }
  param {
    lr_mult: 2
  }
  convolution_param {
    num_output: 8
    pad: 2
    kernel_size: 3
    stride: 1
    weight_filler {
      type: "gaussian"
      std: 0.01
    }
    bias_filler {
      type: "constant"
    }
  }
}
layer {
  name: "Sigmoid0"
  type: "Sigmoid"
  bottom: "conv0"
  top: "Sigmoid0"
}
layer {
  name: "pool0"
  type: "Pooling"
  bottom: "Sigmoid0"
  top: "pool0"
  pooling_param {
    pool: AVE
    kernel_size: 3
    stride: 2
  }
}
layer {
  name: "ip1"
  type: "InnerProduct"
  bottom: "pool0"
  top: "ip1"
  param {
    lr_mult: 1
  }
  param {
    lr_mult: 2
  }
  inner_product_param {
    num_output: 80
    weight_filler {
      type: "gaussian"
      std: 0.01
    }
    bias_filler {
      type: "constant"
    }
  }
}
layer {
  name: "relu1"
  type: "ReLU"
  bottom: "ip1"
  top: "ip1"
}
layer {
  name: "ip2"
  type: "InnerProduct"
  bottom: "ip1"
  top: "ip2"
  param {
    lr_mult: 1
  }
  param {
    lr_mult: 2
  }
  inner_product_param {
    num_output: 10
    weight_filler {
      type: "gaussian"
      std: 0.01
    }
    bias_filler {
      type: "constant"
    }
  }
}
layer {
  name: "relu2"
  type: "ReLU"
  bottom: "ip2"
  top: "ip2"
}
layer {
  name: "ip3"
  type: "InnerProduct"
  bottom: "ip2"
  top: "ip3"
  param {
    lr_mult: 1
  }
  param {
    lr_mult: 2
  }
  inner_product_param {
    num_output: 40
    weight_filler {
      type: "gaussian"
      std: 0.01
    }
    bias_filler {
      type: "constant"
    }
  }
}
layer {
  name: "relu3"
  type: "ReLU"
  bottom: "ip3"
  top: "ip3"
}
layer {
  name: "ip4"
  type: "InnerProduct"
  bottom: "ip3"
  top: "ip4"
  param {
    lr_mult: 1
  }
  param {
    lr_mult: 2
  }
  inner_product_param {
    num_output: 10
    weight_filler {
      type: "gaussian"
      std: 0.01
    }
    bias_filler {
      type: "constant"
    }
  }
}
layer {
  name: "accuracy"
  type: "Accuracy"
  bottom: "ip4"
  bottom: "label"
  top: "accuracy"
  include {
    phase: TEST
  }
}
layer {
  name: "loss"
  type: "SoftmaxWithLoss"
  bottom: "ip4"
  bottom: "label"
  top: "loss"
}
I0501 00:35:10.586726  7352 layer_factory.hpp:77] Creating layer cifar
I0501 00:35:10.586772  7352 db_lmdb.cpp:35] Opened lmdb examples/cifar10/cifar10_test_lmdb
I0501 00:35:10.586783  7352 net.cpp:86] Creating Layer cifar
I0501 00:35:10.586787  7352 net.cpp:382] cifar -> data
I0501 00:35:10.586796  7352 net.cpp:382] cifar -> label
I0501 00:35:10.586802  7352 data_transformer.cpp:25] Loading mean file from: examples/cifar10/mean.binaryproto
I0501 00:35:10.586933  7352 data_layer.cpp:45] output data size: 1000,3,32,32
I0501 00:35:10.607913  7352 net.cpp:124] Setting up cifar
I0501 00:35:10.607952  7352 net.cpp:131] Top shape: 1000 3 32 32 (3072000)
I0501 00:35:10.607959  7352 net.cpp:131] Top shape: 1000 (1000)
I0501 00:35:10.607961  7352 net.cpp:139] Memory required for data: 12292000
I0501 00:35:10.607966  7352 layer_factory.hpp:77] Creating layer label_cifar_1_split
I0501 00:35:10.607982  7352 net.cpp:86] Creating Layer label_cifar_1_split
I0501 00:35:10.607986  7352 net.cpp:408] label_cifar_1_split <- label
I0501 00:35:10.607993  7352 net.cpp:382] label_cifar_1_split -> label_cifar_1_split_0
I0501 00:35:10.608017  7352 net.cpp:382] label_cifar_1_split -> label_cifar_1_split_1
I0501 00:35:10.608114  7352 net.cpp:124] Setting up label_cifar_1_split
I0501 00:35:10.608120  7352 net.cpp:131] Top shape: 1000 (1000)
I0501 00:35:10.608124  7352 net.cpp:131] Top shape: 1000 (1000)
I0501 00:35:10.608127  7352 net.cpp:139] Memory required for data: 12300000
I0501 00:35:10.608130  7352 layer_factory.hpp:77] Creating layer conv0
I0501 00:35:10.608141  7352 net.cpp:86] Creating Layer conv0
I0501 00:35:10.608144  7352 net.cpp:408] conv0 <- data
I0501 00:35:10.608150  7352 net.cpp:382] conv0 -> conv0
I0501 00:35:10.609652  7352 net.cpp:124] Setting up conv0
I0501 00:35:10.609679  7352 net.cpp:131] Top shape: 1000 8 34 34 (9248000)
I0501 00:35:10.609683  7352 net.cpp:139] Memory required for data: 49292000
I0501 00:35:10.609694  7352 layer_factory.hpp:77] Creating layer Sigmoid0
I0501 00:35:10.609699  7352 net.cpp:86] Creating Layer Sigmoid0
I0501 00:35:10.609704  7352 net.cpp:408] Sigmoid0 <- conv0
I0501 00:35:10.609711  7352 net.cpp:382] Sigmoid0 -> Sigmoid0
I0501 00:35:10.610899  7352 net.cpp:124] Setting up Sigmoid0
I0501 00:35:10.610909  7352 net.cpp:131] Top shape: 1000 8 34 34 (9248000)
I0501 00:35:10.610929  7352 net.cpp:139] Memory required for data: 86284000
I0501 00:35:10.610932  7352 layer_factory.hpp:77] Creating layer pool0
I0501 00:35:10.610939  7352 net.cpp:86] Creating Layer pool0
I0501 00:35:10.610944  7352 net.cpp:408] pool0 <- Sigmoid0
I0501 00:35:10.610947  7352 net.cpp:382] pool0 -> pool0
I0501 00:35:10.611131  7352 net.cpp:124] Setting up pool0
I0501 00:35:10.611140  7352 net.cpp:131] Top shape: 1000 8 17 17 (2312000)
I0501 00:35:10.611143  7352 net.cpp:139] Memory required for data: 95532000
I0501 00:35:10.611146  7352 layer_factory.hpp:77] Creating layer ip1
I0501 00:35:10.611155  7352 net.cpp:86] Creating Layer ip1
I0501 00:35:10.611157  7352 net.cpp:408] ip1 <- pool0
I0501 00:35:10.611166  7352 net.cpp:382] ip1 -> ip1
I0501 00:35:10.615790  7352 net.cpp:124] Setting up ip1
I0501 00:35:10.615798  7352 net.cpp:131] Top shape: 1000 80 (80000)
I0501 00:35:10.615818  7352 net.cpp:139] Memory required for data: 95852000
I0501 00:35:10.615839  7352 layer_factory.hpp:77] Creating layer relu1
I0501 00:35:10.615845  7352 net.cpp:86] Creating Layer relu1
I0501 00:35:10.615849  7352 net.cpp:408] relu1 <- ip1
I0501 00:35:10.615867  7352 net.cpp:369] relu1 -> ip1 (in-place)
I0501 00:35:10.616039  7352 net.cpp:124] Setting up relu1
I0501 00:35:10.616049  7352 net.cpp:131] Top shape: 1000 80 (80000)
I0501 00:35:10.616051  7352 net.cpp:139] Memory required for data: 96172000
I0501 00:35:10.616055  7352 layer_factory.hpp:77] Creating layer ip2
I0501 00:35:10.616060  7352 net.cpp:86] Creating Layer ip2
I0501 00:35:10.616063  7352 net.cpp:408] ip2 <- ip1
I0501 00:35:10.616071  7352 net.cpp:382] ip2 -> ip2
I0501 00:35:10.616196  7352 net.cpp:124] Setting up ip2
I0501 00:35:10.616204  7352 net.cpp:131] Top shape: 1000 10 (10000)
I0501 00:35:10.616206  7352 net.cpp:139] Memory required for data: 96212000
I0501 00:35:10.616214  7352 layer_factory.hpp:77] Creating layer relu2
I0501 00:35:10.616219  7352 net.cpp:86] Creating Layer relu2
I0501 00:35:10.616222  7352 net.cpp:408] relu2 <- ip2
I0501 00:35:10.616227  7352 net.cpp:369] relu2 -> ip2 (in-place)
I0501 00:35:10.617074  7352 net.cpp:124] Setting up relu2
I0501 00:35:10.617101  7352 net.cpp:131] Top shape: 1000 10 (10000)
I0501 00:35:10.617120  7352 net.cpp:139] Memory required for data: 96252000
I0501 00:35:10.617123  7352 layer_factory.hpp:77] Creating layer ip3
I0501 00:35:10.617130  7352 net.cpp:86] Creating Layer ip3
I0501 00:35:10.617135  7352 net.cpp:408] ip3 <- ip2
I0501 00:35:10.617139  7352 net.cpp:382] ip3 -> ip3
I0501 00:35:10.617272  7352 net.cpp:124] Setting up ip3
I0501 00:35:10.617280  7352 net.cpp:131] Top shape: 1000 40 (40000)
I0501 00:35:10.617283  7352 net.cpp:139] Memory required for data: 96412000
I0501 00:35:10.617288  7352 layer_factory.hpp:77] Creating layer relu3
I0501 00:35:10.617295  7352 net.cpp:86] Creating Layer relu3
I0501 00:35:10.617297  7352 net.cpp:408] relu3 <- ip3
I0501 00:35:10.617301  7352 net.cpp:369] relu3 -> ip3 (in-place)
I0501 00:35:10.617455  7352 net.cpp:124] Setting up relu3
I0501 00:35:10.617462  7352 net.cpp:131] Top shape: 1000 40 (40000)
I0501 00:35:10.617465  7352 net.cpp:139] Memory required for data: 96572000
I0501 00:35:10.617468  7352 layer_factory.hpp:77] Creating layer ip4
I0501 00:35:10.617475  7352 net.cpp:86] Creating Layer ip4
I0501 00:35:10.617478  7352 net.cpp:408] ip4 <- ip3
I0501 00:35:10.617482  7352 net.cpp:382] ip4 -> ip4
I0501 00:35:10.617593  7352 net.cpp:124] Setting up ip4
I0501 00:35:10.617599  7352 net.cpp:131] Top shape: 1000 10 (10000)
I0501 00:35:10.617602  7352 net.cpp:139] Memory required for data: 96612000
I0501 00:35:10.617610  7352 layer_factory.hpp:77] Creating layer ip4_ip4_0_split
I0501 00:35:10.617616  7352 net.cpp:86] Creating Layer ip4_ip4_0_split
I0501 00:35:10.617619  7352 net.cpp:408] ip4_ip4_0_split <- ip4
I0501 00:35:10.617624  7352 net.cpp:382] ip4_ip4_0_split -> ip4_ip4_0_split_0
I0501 00:35:10.617627  7352 net.cpp:382] ip4_ip4_0_split -> ip4_ip4_0_split_1
I0501 00:35:10.617660  7352 net.cpp:124] Setting up ip4_ip4_0_split
I0501 00:35:10.617667  7352 net.cpp:131] Top shape: 1000 10 (10000)
I0501 00:35:10.617671  7352 net.cpp:131] Top shape: 1000 10 (10000)
I0501 00:35:10.617673  7352 net.cpp:139] Memory required for data: 96692000
I0501 00:35:10.617676  7352 layer_factory.hpp:77] Creating layer accuracy
I0501 00:35:10.617683  7352 net.cpp:86] Creating Layer accuracy
I0501 00:35:10.617686  7352 net.cpp:408] accuracy <- ip4_ip4_0_split_0
I0501 00:35:10.617689  7352 net.cpp:408] accuracy <- label_cifar_1_split_0
I0501 00:35:10.617693  7352 net.cpp:382] accuracy -> accuracy
…
