…
I0430 18:35:53.464203 23755 net.cpp:296] The NetState phase (0) differed from the phase (1) specified by a rule in layer cifar
I0430 18:35:53.464218 23755 net.cpp:296] The NetState phase (0) differed from the phase (1) specified by a rule in layer accuracy
I0430 18:35:53.464303 23755 net.cpp:53] Initializing net from parameters: 
name: "CIFAR"
state {
  phase: TRAIN
  level: 0
  stage: ""
}
layer {
  name: "cifar"
  type: "Data"
  top: "data"
  top: "label"
  include {
    phase: TRAIN
  }
  transform_param {
    mean_file: "examples/cifar10/mean.binaryproto"
  }
  data_param {
    source: "examples/cifar10/cifar10_train_lmdb"
    batch_size: 111
    backend: LMDB
  }
}
layer {
  name: "ip1"
  type: "InnerProduct"
  bottom: "data"
  top: "ip1"
  param {
    lr_mult: 1
  }
  param {
    lr_mult: 2
  }
  inner_product_param {
    num_output: 20
    weight_filler {
      type: "gaussian"
      std: 0.01
    }
    bias_filler {
      type: "constant"
    }
  }
}
layer {
  name: "relu1"
  type: "ReLU"
  bottom: "ip1"
  top: "ip1"
}
layer {
  name: "ip2"
  type: "InnerProduct"
  bottom: "ip1"
  top: "ip2"
  param {
    lr_mult: 1
  }
  param {
    lr_mult: 2
  }
  inner_product_param {
    num_output: 80
    weight_filler {
      type: "gaussian"
      std: 0.01
    }
    bias_filler {
      type: "constant"
    }
  }
}
layer {
  name: "relu2"
  type: "ReLU"
  bottom: "ip2"
  top: "ip2"
}
layer {
  name: "ip3"
  type: "InnerProduct"
  bottom: "ip2"
  top: "ip3"
  param {
    lr_mult: 1
  }
  param {
    lr_mult: 2
  }
  inner_product_param {
    num_output: 20
    weight_filler {
      type: "gaussian"
      std: 0.01
    }
    bias_filler {
      type: "constant"
    }
  }
}
layer {
  name: "relu3"
  type: "ReLU"
  bottom: "ip3"
  top: "ip3"
}
layer {
  name: "ip4"
  type: "InnerProduct"
  bottom: "ip3"
  top: "ip4"
  param {
    lr_mult: 1
  }
  param {
    lr_mult: 2
  }
  inner_product_param {
    num_output: 10
    weight_filler {
      type: "gaussian"
      std: 0.01
    }
    bias_filler {
      type: "constant"
    }
  }
}
layer {
  name: "loss"
  type: "SoftmaxWithLoss"
  bottom: "ip4"
  bottom: "label"
  top: "loss"
}
I0430 18:35:53.464365 23755 layer_factory.hpp:77] Creating layer cifar
I0430 18:35:53.464464 23755 db_lmdb.cpp:35] Opened lmdb examples/cifar10/cifar10_train_lmdb
I0430 18:35:53.464493 23755 net.cpp:86] Creating Layer cifar
I0430 18:35:53.464503 23755 net.cpp:382] cifar -> data
I0430 18:35:53.464526 23755 net.cpp:382] cifar -> label
I0430 18:35:53.464540 23755 data_transformer.cpp:25] Loading mean file from: examples/cifar10/mean.binaryproto
I0430 18:35:53.466665 23755 data_layer.cpp:45] output data size: 111,3,32,32
I0430 18:35:53.474539 23755 net.cpp:124] Setting up cifar
I0430 18:35:53.474557 23755 net.cpp:131] Top shape: 111 3 32 32 (340992)
I0430 18:35:53.474565 23755 net.cpp:131] Top shape: 111 (111)
I0430 18:35:53.474568 23755 net.cpp:139] Memory required for data: 1364412
I0430 18:35:53.474576 23755 layer_factory.hpp:77] Creating layer ip1
I0430 18:35:53.474617 23755 net.cpp:86] Creating Layer ip1
I0430 18:35:53.474627 23755 net.cpp:408] ip1 <- data
I0430 18:35:53.474638 23755 net.cpp:382] ip1 -> ip1
I0430 18:35:53.477838 23755 net.cpp:124] Setting up ip1
I0430 18:35:53.477854 23755 net.cpp:131] Top shape: 111 20 (2220)
I0430 18:35:53.477859 23755 net.cpp:139] Memory required for data: 1373292
I0430 18:35:53.477874 23755 layer_factory.hpp:77] Creating layer relu1
I0430 18:35:53.477882 23755 net.cpp:86] Creating Layer relu1
I0430 18:35:53.477903 23755 net.cpp:408] relu1 <- ip1
I0430 18:35:53.477910 23755 net.cpp:369] relu1 -> ip1 (in-place)
I0430 18:35:53.765719 23755 net.cpp:124] Setting up relu1
I0430 18:35:53.765753 23755 net.cpp:131] Top shape: 111 20 (2220)
I0430 18:35:53.765758 23755 net.cpp:139] Memory required for data: 1382172
I0430 18:35:53.765763 23755 layer_factory.hpp:77] Creating layer ip2
I0430 18:35:53.765779 23755 net.cpp:86] Creating Layer ip2
I0430 18:35:53.765784 23755 net.cpp:408] ip2 <- ip1
I0430 18:35:53.765794 23755 net.cpp:382] ip2 -> ip2
I0430 18:35:53.765990 23755 net.cpp:124] Setting up ip2
I0430 18:35:53.766000 23755 net.cpp:131] Top shape: 111 80 (8880)
I0430 18:35:53.766003 23755 net.cpp:139] Memory required for data: 1417692
I0430 18:35:53.766016 23755 layer_factory.hpp:77] Creating layer relu2
I0430 18:35:53.766024 23755 net.cpp:86] Creating Layer relu2
I0430 18:35:53.766028 23755 net.cpp:408] relu2 <- ip2
I0430 18:35:53.766033 23755 net.cpp:369] relu2 -> ip2 (in-place)
I0430 18:35:53.766937 23755 net.cpp:124] Setting up relu2
I0430 18:35:53.766952 23755 net.cpp:131] Top shape: 111 80 (8880)
I0430 18:35:53.766957 23755 net.cpp:139] Memory required for data: 1453212
I0430 18:35:53.766960 23755 layer_factory.hpp:77] Creating layer ip3
I0430 18:35:53.766969 23755 net.cpp:86] Creating Layer ip3
I0430 18:35:53.766973 23755 net.cpp:408] ip3 <- ip2
I0430 18:35:53.766979 23755 net.cpp:382] ip3 -> ip3
I0430 18:35:53.767153 23755 net.cpp:124] Setting up ip3
I0430 18:35:53.767163 23755 net.cpp:131] Top shape: 111 20 (2220)
I0430 18:35:53.767168 23755 net.cpp:139] Memory required for data: 1462092
I0430 18:35:53.767176 23755 layer_factory.hpp:77] Creating layer relu3
I0430 18:35:53.767182 23755 net.cpp:86] Creating Layer relu3
I0430 18:35:53.767186 23755 net.cpp:408] relu3 <- ip3
I0430 18:35:53.767191 23755 net.cpp:369] relu3 -> ip3 (in-place)
I0430 18:35:53.767369 23755 net.cpp:124] Setting up relu3
I0430 18:35:53.767379 23755 net.cpp:131] Top shape: 111 20 (2220)
I0430 18:35:53.767382 23755 net.cpp:139] Memory required for data: 1470972
I0430 18:35:53.767385 23755 layer_factory.hpp:77] Creating layer ip4
I0430 18:35:53.767393 23755 net.cpp:86] Creating Layer ip4
I0430 18:35:53.767396 23755 net.cpp:408] ip4 <- ip3
I0430 18:35:53.767402 23755 net.cpp:382] ip4 -> ip4
I0430 18:35:53.767519 23755 net.cpp:124] Setting up ip4
I0430 18:35:53.767529 23755 net.cpp:131] Top shape: 111 10 (1110)
I0430 18:35:53.767531 23755 net.cpp:139] Memory required for data: 1475412
I0430 18:35:53.767539 23755 layer_factory.hpp:77] Creating layer loss
I0430 18:35:53.767545 23755 net.cpp:86] Creating Layer loss
I0430 18:35:53.767549 23755 net.cpp:408] loss <- ip4
I0430 18:35:53.767554 23755 net.cpp:408] loss <- label
I0430 18:35:53.767560 23755 net.cpp:382] loss -> loss
I0430 18:35:53.767583 23755 layer_factory.hpp:77] Creating layer loss
…
I0430 18:35:53.768249 23755 solver.cpp:173] Creating test net (#0) specified by net file: ECE595/cifar/train_test/var_everything/cifar_train_test_71.prototxt
I0430 18:35:53.768296 23755 net.cpp:296] The NetState phase (1) differed from the phase (0) specified by a rule in layer cifar
I0430 18:35:53.768388 23755 net.cpp:53] Initializing net from parameters: 
name: "CIFAR"
state {
  phase: TEST
}
layer {
  name: "cifar"
  type: "Data"
  top: "data"
  top: "label"
  include {
    phase: TEST
  }
  transform_param {
    mean_file: "examples/cifar10/mean.binaryproto"
  }
  data_param {
    source: "examples/cifar10/cifar10_test_lmdb"
    batch_size: 1000
    backend: LMDB
  }
}
layer {
  name: "ip1"
  type: "InnerProduct"
  bottom: "data"
  top: "ip1"
  param {
    lr_mult: 1
  }
  param {
    lr_mult: 2
  }
  inner_product_param {
    num_output: 20
    weight_filler {
      type: "gaussian"
      std: 0.01
    }
    bias_filler {
      type: "constant"
    }
  }
}
layer {
  name: "relu1"
  type: "ReLU"
  bottom: "ip1"
  top: "ip1"
}
layer {
  name: "ip2"
  type: "InnerProduct"
  bottom: "ip1"
  top: "ip2"
  param {
    lr_mult: 1
  }
  param {
    lr_mult: 2
  }
  inner_product_param {
    num_output: 80
    weight_filler {
      type: "gaussian"
      std: 0.01
    }
    bias_filler {
      type: "constant"
    }
  }
}
layer {
  name: "relu2"
  type: "ReLU"
  bottom: "ip2"
  top: "ip2"
}
layer {
  name: "ip3"
  type: "InnerProduct"
  bottom: "ip2"
  top: "ip3"
  param {
    lr_mult: 1
  }
  param {
    lr_mult: 2
  }
  inner_product_param {
    num_output: 20
    weight_filler {
      type: "gaussian"
      std: 0.01
    }
    bias_filler {
      type: "constant"
    }
  }
}
layer {
  name: "relu3"
  type: "ReLU"
  bottom: "ip3"
  top: "ip3"
}
layer {
  name: "ip4"
  type: "InnerProduct"
  bottom: "ip3"
  top: "ip4"
  param {
    lr_mult: 1
  }
  param {
    lr_mult: 2
  }
  inner_product_param {
    num_output: 10
    weight_filler {
      type: "gaussian"
      std: 0.01
    }
    bias_filler {
      type: "constant"
    }
  }
}
layer {
  name: "accuracy"
  type: "Accuracy"
  bottom: "ip4"
  bottom: "label"
  top: "accuracy"
  include {
    phase: TEST
  }
}
layer {
  name: "loss"
  type: "SoftmaxWithLoss"
  bottom: "ip4"
  bottom: "label"
  top: "loss"
}
I0430 18:35:53.768460 23755 layer_factory.hpp:77] Creating layer cifar
I0430 18:35:53.768520 23755 db_lmdb.cpp:35] Opened lmdb examples/cifar10/cifar10_test_lmdb
I0430 18:35:53.768534 23755 net.cpp:86] Creating Layer cifar
I0430 18:35:53.768540 23755 net.cpp:382] cifar -> data
I0430 18:35:53.768550 23755 net.cpp:382] cifar -> label
I0430 18:35:53.768558 23755 data_transformer.cpp:25] Loading mean file from: examples/cifar10/mean.binaryproto
I0430 18:35:53.768729 23755 data_layer.cpp:45] output data size: 1000,3,32,32
I0430 18:35:53.795438 23755 net.cpp:124] Setting up cifar
I0430 18:35:53.795467 23755 net.cpp:131] Top shape: 1000 3 32 32 (3072000)
I0430 18:35:53.795475 23755 net.cpp:131] Top shape: 1000 (1000)
I0430 18:35:53.795478 23755 net.cpp:139] Memory required for data: 12292000
I0430 18:35:53.795485 23755 layer_factory.hpp:77] Creating layer label_cifar_1_split
I0430 18:35:53.795516 23755 net.cpp:86] Creating Layer label_cifar_1_split
I0430 18:35:53.795522 23755 net.cpp:408] label_cifar_1_split <- label
I0430 18:35:53.795531 23755 net.cpp:382] label_cifar_1_split -> label_cifar_1_split_0
I0430 18:35:53.795541 23755 net.cpp:382] label_cifar_1_split -> label_cifar_1_split_1
I0430 18:35:53.795670 23755 net.cpp:124] Setting up label_cifar_1_split
I0430 18:35:53.795680 23755 net.cpp:131] Top shape: 1000 (1000)
I0430 18:35:53.795684 23755 net.cpp:131] Top shape: 1000 (1000)
I0430 18:35:53.795688 23755 net.cpp:139] Memory required for data: 12300000
I0430 18:35:53.795692 23755 layer_factory.hpp:77] Creating layer ip1
I0430 18:35:53.795702 23755 net.cpp:86] Creating Layer ip1
I0430 18:35:53.795706 23755 net.cpp:408] ip1 <- data
I0430 18:35:53.795712 23755 net.cpp:382] ip1 -> ip1
I0430 18:35:53.798322 23755 net.cpp:124] Setting up ip1
I0430 18:35:53.798336 23755 net.cpp:131] Top shape: 1000 20 (20000)
I0430 18:35:53.798341 23755 net.cpp:139] Memory required for data: 12380000
I0430 18:35:53.798369 23755 layer_factory.hpp:77] Creating layer relu1
I0430 18:35:53.798378 23755 net.cpp:86] Creating Layer relu1
I0430 18:35:53.798382 23755 net.cpp:408] relu1 <- ip1
I0430 18:35:53.798388 23755 net.cpp:369] relu1 -> ip1 (in-place)
I0430 18:35:53.799302 23755 net.cpp:124] Setting up relu1
I0430 18:35:53.799319 23755 net.cpp:131] Top shape: 1000 20 (20000)
I0430 18:35:53.799322 23755 net.cpp:139] Memory required for data: 12460000
I0430 18:35:53.799327 23755 layer_factory.hpp:77] Creating layer ip2
I0430 18:35:53.799337 23755 net.cpp:86] Creating Layer ip2
I0430 18:35:53.799341 23755 net.cpp:408] ip2 <- ip1
I0430 18:35:53.799347 23755 net.cpp:382] ip2 -> ip2
I0430 18:35:53.799527 23755 net.cpp:124] Setting up ip2
I0430 18:35:53.799546 23755 net.cpp:131] Top shape: 1000 80 (80000)
I0430 18:35:53.799551 23755 net.cpp:139] Memory required for data: 12780000
I0430 18:35:53.799559 23755 layer_factory.hpp:77] Creating layer relu2
I0430 18:35:53.799566 23755 net.cpp:86] Creating Layer relu2
I0430 18:35:53.799569 23755 net.cpp:408] relu2 <- ip2
I0430 18:35:53.799574 23755 net.cpp:369] relu2 -> ip2 (in-place)
I0430 18:35:53.799758 23755 net.cpp:124] Setting up relu2
I0430 18:35:53.799768 23755 net.cpp:131] Top shape: 1000 80 (80000)
I0430 18:35:53.799772 23755 net.cpp:139] Memory required for data: 13100000
I0430 18:35:53.799777 23755 layer_factory.hpp:77] Creating layer ip3
I0430 18:35:53.799784 23755 net.cpp:86] Creating Layer ip3
I0430 18:35:53.799788 23755 net.cpp:408] ip3 <- ip2
I0430 18:35:53.799794 23755 net.cpp:382] ip3 -> ip3
I0430 18:35:53.799963 23755 net.cpp:124] Setting up ip3
I0430 18:35:53.799973 23755 net.cpp:131] Top shape: 1000 20 (20000)
I0430 18:35:53.799975 23755 net.cpp:139] Memory required for data: 13180000
I0430 18:35:53.799984 23755 layer_factory.hpp:77] Creating layer relu3
I0430 18:35:53.799991 23755 net.cpp:86] Creating Layer relu3
I0430 18:35:53.799994 23755 net.cpp:408] relu3 <- ip3
I0430 18:35:53.799999 23755 net.cpp:369] relu3 -> ip3 (in-place)
I0430 18:35:53.800175 23755 net.cpp:124] Setting up relu3
I0430 18:35:53.800184 23755 net.cpp:131] Top shape: 1000 20 (20000)
I0430 18:35:53.800189 23755 net.cpp:139] Memory required for data: 13260000
I0430 18:35:53.800194 23755 layer_factory.hpp:77] Creating layer ip4
I0430 18:35:53.800202 23755 net.cpp:86] Creating Layer ip4
I0430 18:35:53.800206 23755 net.cpp:408] ip4 <- ip3
I0430 18:35:53.800212 23755 net.cpp:382] ip4 -> ip4
I0430 18:35:53.800336 23755 net.cpp:124] Setting up ip4
I0430 18:35:53.800345 23755 net.cpp:131] Top shape: 1000 10 (10000)
I0430 18:35:53.800348 23755 net.cpp:139] Memory required for data: 13300000
I0430 18:35:53.800355 23755 layer_factory.hpp:77] Creating layer ip4_ip4_0_split
I0430 18:35:53.800361 23755 net.cpp:86] Creating Layer ip4_ip4_0_split
I0430 18:35:53.800365 23755 net.cpp:408] ip4_ip4_0_split <- ip4
I0430 18:35:53.800370 23755 net.cpp:382] ip4_ip4_0_split -> ip4_ip4_0_split_0
I0430 18:35:53.800377 23755 net.cpp:382] ip4_ip4_0_split -> ip4_ip4_0_split_1
I0430 18:35:53.800415 23755 net.cpp:124] Setting up ip4_ip4_0_split
I0430 18:35:53.800422 23755 net.cpp:131] Top shape: 1000 10 (10000)
I0430 18:35:53.800427 23755 net.cpp:131] Top shape: 1000 10 (10000)
I0430 18:35:53.800431 23755 net.cpp:139] Memory required for data: 13380000
I0430 18:35:53.800433 23755 layer_factory.hpp:77] Creating layer accuracy
I0430 18:35:53.800441 23755 net.cpp:86] Creating Layer accuracy
I0430 18:35:53.800444 23755 net.cpp:408] accuracy <- ip4_ip4_0_split_0
I0430 18:35:53.800449 23755 net.cpp:408] accuracy <- label_cifar_1_split_0
I0430 18:35:53.800454 23755 net.cpp:382] accuracy -> accuracy
…
