…
I0430 20:59:29.216570 29868 net.cpp:296] The NetState phase (0) differed from the phase (1) specified by a rule in layer cifar
I0430 20:59:29.216586 29868 net.cpp:296] The NetState phase (0) differed from the phase (1) specified by a rule in layer accuracy
I0430 20:59:29.216670 29868 net.cpp:53] Initializing net from parameters: 
name: "CIFAR"
state {
  phase: TRAIN
  level: 0
  stage: ""
}
layer {
  name: "cifar"
  type: "Data"
  top: "data"
  top: "label"
  include {
    phase: TRAIN
  }
  transform_param {
    mean_file: "examples/cifar10/mean.binaryproto"
  }
  data_param {
    source: "examples/cifar10/cifar10_train_lmdb"
    batch_size: 111
    backend: LMDB
  }
}
layer {
  name: "ip1"
  type: "InnerProduct"
  bottom: "data"
  top: "ip1"
  param {
    lr_mult: 1
  }
  param {
    lr_mult: 2
  }
  inner_product_param {
    num_output: 160
    weight_filler {
      type: "gaussian"
      std: 0.01
    }
    bias_filler {
      type: "constant"
    }
  }
}
layer {
  name: "relu1"
  type: "ReLU"
  bottom: "ip1"
  top: "ip1"
}
layer {
  name: "ip2"
  type: "InnerProduct"
  bottom: "ip1"
  top: "ip2"
  param {
    lr_mult: 1
  }
  param {
    lr_mult: 2
  }
  inner_product_param {
    num_output: 80
    weight_filler {
      type: "gaussian"
      std: 0.01
    }
    bias_filler {
      type: "constant"
    }
  }
}
layer {
  name: "relu2"
  type: "ReLU"
  bottom: "ip2"
  top: "ip2"
}
layer {
  name: "ip3"
  type: "InnerProduct"
  bottom: "ip2"
  top: "ip3"
  param {
    lr_mult: 1
  }
  param {
    lr_mult: 2
  }
  inner_product_param {
    num_output: 40
    weight_filler {
      type: "gaussian"
      std: 0.01
    }
    bias_filler {
      type: "constant"
    }
  }
}
layer {
  name: "relu3"
  type: "ReLU"
  bottom: "ip3"
  top: "ip3"
}
layer {
  name: "ip4"
  type: "InnerProduct"
  bottom: "ip3"
  top: "ip4"
  param {
    lr_mult: 1
  }
  param {
    lr_mult: 2
  }
  inner_product_param {
    num_output: 10
    weight_filler {
      type: "gaussian"
      std: 0.01
    }
    bias_filler {
      type: "constant"
    }
  }
}
layer {
  name: "loss"
  type: "SoftmaxWithLoss"
  bottom: "ip4"
  bottom: "label"
  top: "loss"
}
I0430 20:59:29.216737 29868 layer_factory.hpp:77] Creating layer cifar
I0430 20:59:29.216850 29868 db_lmdb.cpp:35] Opened lmdb examples/cifar10/cifar10_train_lmdb
I0430 20:59:29.216881 29868 net.cpp:86] Creating Layer cifar
I0430 20:59:29.216892 29868 net.cpp:382] cifar -> data
I0430 20:59:29.216917 29868 net.cpp:382] cifar -> label
I0430 20:59:29.216931 29868 data_transformer.cpp:25] Loading mean file from: examples/cifar10/mean.binaryproto
I0430 20:59:29.219032 29868 data_layer.cpp:45] output data size: 111,3,32,32
I0430 20:59:29.227102 29868 net.cpp:124] Setting up cifar
I0430 20:59:29.227123 29868 net.cpp:131] Top shape: 111 3 32 32 (340992)
I0430 20:59:29.227129 29868 net.cpp:131] Top shape: 111 (111)
I0430 20:59:29.227133 29868 net.cpp:139] Memory required for data: 1364412
I0430 20:59:29.227141 29868 layer_factory.hpp:77] Creating layer ip1
I0430 20:59:29.227152 29868 net.cpp:86] Creating Layer ip1
I0430 20:59:29.227161 29868 net.cpp:408] ip1 <- data
I0430 20:59:29.227174 29868 net.cpp:382] ip1 -> ip1
I0430 20:59:29.244417 29868 net.cpp:124] Setting up ip1
I0430 20:59:29.244434 29868 net.cpp:131] Top shape: 111 160 (17760)
I0430 20:59:29.244439 29868 net.cpp:139] Memory required for data: 1435452
I0430 20:59:29.244453 29868 layer_factory.hpp:77] Creating layer relu1
I0430 20:59:29.244479 29868 net.cpp:86] Creating Layer relu1
I0430 20:59:29.244484 29868 net.cpp:408] relu1 <- ip1
I0430 20:59:29.244490 29868 net.cpp:369] relu1 -> ip1 (in-place)
I0430 20:59:29.523803 29868 net.cpp:124] Setting up relu1
I0430 20:59:29.523834 29868 net.cpp:131] Top shape: 111 160 (17760)
I0430 20:59:29.523838 29868 net.cpp:139] Memory required for data: 1506492
I0430 20:59:29.523844 29868 layer_factory.hpp:77] Creating layer ip2
I0430 20:59:29.523856 29868 net.cpp:86] Creating Layer ip2
I0430 20:59:29.523861 29868 net.cpp:408] ip2 <- ip1
I0430 20:59:29.523869 29868 net.cpp:382] ip2 -> ip2
I0430 20:59:29.525218 29868 net.cpp:124] Setting up ip2
I0430 20:59:29.525233 29868 net.cpp:131] Top shape: 111 80 (8880)
I0430 20:59:29.525236 29868 net.cpp:139] Memory required for data: 1542012
I0430 20:59:29.525245 29868 layer_factory.hpp:77] Creating layer relu2
I0430 20:59:29.525254 29868 net.cpp:86] Creating Layer relu2
I0430 20:59:29.525256 29868 net.cpp:408] relu2 <- ip2
I0430 20:59:29.525260 29868 net.cpp:369] relu2 -> ip2 (in-place)
I0430 20:59:29.525996 29868 net.cpp:124] Setting up relu2
I0430 20:59:29.526010 29868 net.cpp:131] Top shape: 111 80 (8880)
I0430 20:59:29.526012 29868 net.cpp:139] Memory required for data: 1577532
I0430 20:59:29.526016 29868 layer_factory.hpp:77] Creating layer ip3
I0430 20:59:29.526023 29868 net.cpp:86] Creating Layer ip3
I0430 20:59:29.526026 29868 net.cpp:408] ip3 <- ip2
I0430 20:59:29.526031 29868 net.cpp:382] ip3 -> ip3
I0430 20:59:29.526211 29868 net.cpp:124] Setting up ip3
I0430 20:59:29.526221 29868 net.cpp:131] Top shape: 111 40 (4440)
I0430 20:59:29.526224 29868 net.cpp:139] Memory required for data: 1595292
I0430 20:59:29.526232 29868 layer_factory.hpp:77] Creating layer relu3
I0430 20:59:29.526237 29868 net.cpp:86] Creating Layer relu3
I0430 20:59:29.526239 29868 net.cpp:408] relu3 <- ip3
I0430 20:59:29.526243 29868 net.cpp:369] relu3 -> ip3 (in-place)
I0430 20:59:29.526386 29868 net.cpp:124] Setting up relu3
I0430 20:59:29.526396 29868 net.cpp:131] Top shape: 111 40 (4440)
I0430 20:59:29.526398 29868 net.cpp:139] Memory required for data: 1613052
I0430 20:59:29.526402 29868 layer_factory.hpp:77] Creating layer ip4
I0430 20:59:29.526407 29868 net.cpp:86] Creating Layer ip4
I0430 20:59:29.526410 29868 net.cpp:408] ip4 <- ip3
I0430 20:59:29.526415 29868 net.cpp:382] ip4 -> ip4
I0430 20:59:29.527349 29868 net.cpp:124] Setting up ip4
I0430 20:59:29.527361 29868 net.cpp:131] Top shape: 111 10 (1110)
I0430 20:59:29.527365 29868 net.cpp:139] Memory required for data: 1617492
I0430 20:59:29.527371 29868 layer_factory.hpp:77] Creating layer loss
I0430 20:59:29.527379 29868 net.cpp:86] Creating Layer loss
I0430 20:59:29.527381 29868 net.cpp:408] loss <- ip4
I0430 20:59:29.527385 29868 net.cpp:408] loss <- label
I0430 20:59:29.527390 29868 net.cpp:382] loss -> loss
I0430 20:59:29.527410 29868 layer_factory.hpp:77] Creating layer loss
…
I0430 20:59:29.527983 29868 solver.cpp:173] Creating test net (#0) specified by net file: ECE595/cifar/train_test/var_everything/cifar_train_test_147.prototxt
I0430 20:59:29.528036 29868 net.cpp:296] The NetState phase (1) differed from the phase (0) specified by a rule in layer cifar
I0430 20:59:29.528117 29868 net.cpp:53] Initializing net from parameters: 
name: "CIFAR"
state {
  phase: TEST
}
layer {
  name: "cifar"
  type: "Data"
  top: "data"
  top: "label"
  include {
    phase: TEST
  }
  transform_param {
    mean_file: "examples/cifar10/mean.binaryproto"
  }
  data_param {
    source: "examples/cifar10/cifar10_test_lmdb"
    batch_size: 1000
    backend: LMDB
  }
}
layer {
  name: "ip1"
  type: "InnerProduct"
  bottom: "data"
  top: "ip1"
  param {
    lr_mult: 1
  }
  param {
    lr_mult: 2
  }
  inner_product_param {
    num_output: 160
    weight_filler {
      type: "gaussian"
      std: 0.01
    }
    bias_filler {
      type: "constant"
    }
  }
}
layer {
  name: "relu1"
  type: "ReLU"
  bottom: "ip1"
  top: "ip1"
}
layer {
  name: "ip2"
  type: "InnerProduct"
  bottom: "ip1"
  top: "ip2"
  param {
    lr_mult: 1
  }
  param {
    lr_mult: 2
  }
  inner_product_param {
    num_output: 80
    weight_filler {
      type: "gaussian"
      std: 0.01
    }
    bias_filler {
      type: "constant"
    }
  }
}
layer {
  name: "relu2"
  type: "ReLU"
  bottom: "ip2"
  top: "ip2"
}
layer {
  name: "ip3"
  type: "InnerProduct"
  bottom: "ip2"
  top: "ip3"
  param {
    lr_mult: 1
  }
  param {
    lr_mult: 2
  }
  inner_product_param {
    num_output: 40
    weight_filler {
      type: "gaussian"
      std: 0.01
    }
    bias_filler {
      type: "constant"
    }
  }
}
layer {
  name: "relu3"
  type: "ReLU"
  bottom: "ip3"
  top: "ip3"
}
layer {
  name: "ip4"
  type: "InnerProduct"
  bottom: "ip3"
  top: "ip4"
  param {
    lr_mult: 1
  }
  param {
    lr_mult: 2
  }
  inner_product_param {
    num_output: 10
    weight_filler {
      type: "gaussian"
      std: 0.01
    }
    bias_filler {
      type: "constant"
    }
  }
}
layer {
  name: "accuracy"
  type: "Accuracy"
  bottom: "ip4"
  bottom: "label"
  top: "accuracy"
  include {
    phase: TEST
  }
}
layer {
  name: "loss"
  type: "SoftmaxWithLoss"
  bottom: "ip4"
  bottom: "label"
  top: "loss"
}
I0430 20:59:29.528175 29868 layer_factory.hpp:77] Creating layer cifar
I0430 20:59:29.528235 29868 db_lmdb.cpp:35] Opened lmdb examples/cifar10/cifar10_test_lmdb
I0430 20:59:29.528247 29868 net.cpp:86] Creating Layer cifar
I0430 20:59:29.528251 29868 net.cpp:382] cifar -> data
I0430 20:59:29.528259 29868 net.cpp:382] cifar -> label
I0430 20:59:29.528265 29868 data_transformer.cpp:25] Loading mean file from: examples/cifar10/mean.binaryproto
I0430 20:59:29.528408 29868 data_layer.cpp:45] output data size: 1000,3,32,32
I0430 20:59:29.550143 29868 net.cpp:124] Setting up cifar
I0430 20:59:29.550184 29868 net.cpp:131] Top shape: 1000 3 32 32 (3072000)
I0430 20:59:29.550189 29868 net.cpp:131] Top shape: 1000 (1000)
I0430 20:59:29.550194 29868 net.cpp:139] Memory required for data: 12292000
I0430 20:59:29.550199 29868 layer_factory.hpp:77] Creating layer label_cifar_1_split
I0430 20:59:29.550249 29868 net.cpp:86] Creating Layer label_cifar_1_split
I0430 20:59:29.550254 29868 net.cpp:408] label_cifar_1_split <- label
I0430 20:59:29.550261 29868 net.cpp:382] label_cifar_1_split -> label_cifar_1_split_0
I0430 20:59:29.550271 29868 net.cpp:382] label_cifar_1_split -> label_cifar_1_split_1
I0430 20:59:29.550361 29868 net.cpp:124] Setting up label_cifar_1_split
I0430 20:59:29.550370 29868 net.cpp:131] Top shape: 1000 (1000)
I0430 20:59:29.550374 29868 net.cpp:131] Top shape: 1000 (1000)
I0430 20:59:29.550377 29868 net.cpp:139] Memory required for data: 12300000
I0430 20:59:29.550380 29868 layer_factory.hpp:77] Creating layer ip1
I0430 20:59:29.550390 29868 net.cpp:86] Creating Layer ip1
I0430 20:59:29.550392 29868 net.cpp:408] ip1 <- data
I0430 20:59:29.550397 29868 net.cpp:382] ip1 -> ip1
I0430 20:59:29.564446 29868 net.cpp:124] Setting up ip1
I0430 20:59:29.564477 29868 net.cpp:131] Top shape: 1000 160 (160000)
I0430 20:59:29.564482 29868 net.cpp:139] Memory required for data: 12940000
I0430 20:59:29.564507 29868 layer_factory.hpp:77] Creating layer relu1
I0430 20:59:29.564514 29868 net.cpp:86] Creating Layer relu1
I0430 20:59:29.564534 29868 net.cpp:408] relu1 <- ip1
I0430 20:59:29.564539 29868 net.cpp:369] relu1 -> ip1 (in-place)
I0430 20:59:29.565351 29868 net.cpp:124] Setting up relu1
I0430 20:59:29.565379 29868 net.cpp:131] Top shape: 1000 160 (160000)
I0430 20:59:29.565383 29868 net.cpp:139] Memory required for data: 13580000
I0430 20:59:29.565387 29868 layer_factory.hpp:77] Creating layer ip2
I0430 20:59:29.565395 29868 net.cpp:86] Creating Layer ip2
I0430 20:59:29.565399 29868 net.cpp:408] ip2 <- ip1
I0430 20:59:29.565404 29868 net.cpp:382] ip2 -> ip2
I0430 20:59:29.565913 29868 net.cpp:124] Setting up ip2
I0430 20:59:29.565922 29868 net.cpp:131] Top shape: 1000 80 (80000)
I0430 20:59:29.565940 29868 net.cpp:139] Memory required for data: 13900000
I0430 20:59:29.565948 29868 layer_factory.hpp:77] Creating layer relu2
I0430 20:59:29.565953 29868 net.cpp:86] Creating Layer relu2
I0430 20:59:29.565958 29868 net.cpp:408] relu2 <- ip2
I0430 20:59:29.565979 29868 net.cpp:369] relu2 -> ip2 (in-place)
I0430 20:59:29.566169 29868 net.cpp:124] Setting up relu2
I0430 20:59:29.566179 29868 net.cpp:131] Top shape: 1000 80 (80000)
I0430 20:59:29.566182 29868 net.cpp:139] Memory required for data: 14220000
I0430 20:59:29.566186 29868 layer_factory.hpp:77] Creating layer ip3
I0430 20:59:29.566192 29868 net.cpp:86] Creating Layer ip3
I0430 20:59:29.566195 29868 net.cpp:408] ip3 <- ip2
I0430 20:59:29.566201 29868 net.cpp:382] ip3 -> ip3
I0430 20:59:29.566407 29868 net.cpp:124] Setting up ip3
I0430 20:59:29.566416 29868 net.cpp:131] Top shape: 1000 40 (40000)
I0430 20:59:29.566419 29868 net.cpp:139] Memory required for data: 14380000
I0430 20:59:29.566426 29868 layer_factory.hpp:77] Creating layer relu3
I0430 20:59:29.566431 29868 net.cpp:86] Creating Layer relu3
I0430 20:59:29.566434 29868 net.cpp:408] relu3 <- ip3
I0430 20:59:29.566438 29868 net.cpp:369] relu3 -> ip3 (in-place)
I0430 20:59:29.566588 29868 net.cpp:124] Setting up relu3
I0430 20:59:29.566597 29868 net.cpp:131] Top shape: 1000 40 (40000)
I0430 20:59:29.566601 29868 net.cpp:139] Memory required for data: 14540000
I0430 20:59:29.566604 29868 layer_factory.hpp:77] Creating layer ip4
I0430 20:59:29.566612 29868 net.cpp:86] Creating Layer ip4
I0430 20:59:29.566615 29868 net.cpp:408] ip4 <- ip3
I0430 20:59:29.566620 29868 net.cpp:382] ip4 -> ip4
I0430 20:59:29.566730 29868 net.cpp:124] Setting up ip4
I0430 20:59:29.566737 29868 net.cpp:131] Top shape: 1000 10 (10000)
I0430 20:59:29.566740 29868 net.cpp:139] Memory required for data: 14580000
I0430 20:59:29.566746 29868 layer_factory.hpp:77] Creating layer ip4_ip4_0_split
I0430 20:59:29.566751 29868 net.cpp:86] Creating Layer ip4_ip4_0_split
I0430 20:59:29.566754 29868 net.cpp:408] ip4_ip4_0_split <- ip4
I0430 20:59:29.566758 29868 net.cpp:382] ip4_ip4_0_split -> ip4_ip4_0_split_0
I0430 20:59:29.566766 29868 net.cpp:382] ip4_ip4_0_split -> ip4_ip4_0_split_1
I0430 20:59:29.566797 29868 net.cpp:124] Setting up ip4_ip4_0_split
I0430 20:59:29.566802 29868 net.cpp:131] Top shape: 1000 10 (10000)
I0430 20:59:29.566804 29868 net.cpp:131] Top shape: 1000 10 (10000)
I0430 20:59:29.566807 29868 net.cpp:139] Memory required for data: 14660000
I0430 20:59:29.566810 29868 layer_factory.hpp:77] Creating layer accuracy
I0430 20:59:29.566817 29868 net.cpp:86] Creating Layer accuracy
I0430 20:59:29.566819 29868 net.cpp:408] accuracy <- ip4_ip4_0_split_0
I0430 20:59:29.566823 29868 net.cpp:408] accuracy <- label_cifar_1_split_0
I0430 20:59:29.566828 29868 net.cpp:382] accuracy -> accuracy
…
