…
I0501 02:35:10.712419 16109 net.cpp:296] The NetState phase (0) differed from the phase (1) specified by a rule in layer cifar
I0501 02:35:10.712437 16109 net.cpp:296] The NetState phase (0) differed from the phase (1) specified by a rule in layer accuracy
I0501 02:35:10.712548 16109 net.cpp:53] Initializing net from parameters: 
name: "CIFAR"
state {
  phase: TRAIN
  level: 0
  stage: ""
}
layer {
  name: "cifar"
  type: "Data"
  top: "data"
  top: "label"
  include {
    phase: TRAIN
  }
  transform_param {
    mean_file: "examples/cifar10/mean.binaryproto"
  }
  data_param {
    source: "examples/cifar10/cifar10_train_lmdb"
    batch_size: 111
    backend: LMDB
  }
}
layer {
  name: "conv0"
  type: "Convolution"
  bottom: "data"
  top: "conv0"
  param {
    lr_mult: 1
  }
  param {
    lr_mult: 2
  }
  convolution_param {
    num_output: 8
    pad: 2
    kernel_size: 5
    stride: 1
    weight_filler {
      type: "gaussian"
      std: 0.01
    }
    bias_filler {
      type: "constant"
    }
  }
}
layer {
  name: "Sigmoid0"
  type: "Sigmoid"
  bottom: "conv0"
  top: "Sigmoid0"
}
layer {
  name: "pool0"
  type: "Pooling"
  bottom: "Sigmoid0"
  top: "pool0"
  pooling_param {
    pool: AVE
    kernel_size: 3
    stride: 2
  }
}
layer {
  name: "ip1"
  type: "InnerProduct"
  bottom: "pool0"
  top: "ip1"
  param {
    lr_mult: 1
  }
  param {
    lr_mult: 2
  }
  inner_product_param {
    num_output: 40
    weight_filler {
      type: "gaussian"
      std: 0.01
    }
    bias_filler {
      type: "constant"
    }
  }
}
layer {
  name: "relu1"
  type: "ReLU"
  bottom: "ip1"
  top: "ip1"
}
layer {
  name: "ip2"
  type: "InnerProduct"
  bottom: "ip1"
  top: "ip2"
  param {
    lr_mult: 1
  }
  param {
    lr_mult: 2
  }
  inner_product_param {
    num_output: 20
    weight_filler {
      type: "gaussian"
      std: 0.01
    }
    bias_filler {
      type: "constant"
    }
  }
}
layer {
  name: "relu2"
  type: "ReLU"
  bottom: "ip2"
  top: "ip2"
}
layer {
  name: "ip3"
  type: "InnerProduct"
  bottom: "ip2"
  top: "ip3"
  param {
    lr_mult: 1
  }
  param {
    lr_mult: 2
  }
  inner_product_param {
    num_output: 10
    weight_filler {
      type: "gaussian"
      std: 0.01
    }
    bias_filler {
      type: "constant"
    }
  }
}
layer {
  name: "loss"
  type: "SoftmaxWithLoss"
  bottom: "ip3"
  bottom: "label"
  top: "loss"
}
I0501 02:35:10.712641 16109 layer_factory.hpp:77] Creating layer cifar
I0501 02:35:10.712774 16109 db_lmdb.cpp:35] Opened lmdb examples/cifar10/cifar10_train_lmdb
I0501 02:35:10.712817 16109 net.cpp:86] Creating Layer cifar
I0501 02:35:10.712832 16109 net.cpp:382] cifar -> data
I0501 02:35:10.712864 16109 net.cpp:382] cifar -> label
I0501 02:35:10.712882 16109 data_transformer.cpp:25] Loading mean file from: examples/cifar10/mean.binaryproto
I0501 02:35:10.715179 16109 data_layer.cpp:45] output data size: 111,3,32,32
I0501 02:35:10.723088 16109 net.cpp:124] Setting up cifar
I0501 02:35:10.723107 16109 net.cpp:131] Top shape: 111 3 32 32 (340992)
I0501 02:35:10.723114 16109 net.cpp:131] Top shape: 111 (111)
I0501 02:35:10.723119 16109 net.cpp:139] Memory required for data: 1364412
I0501 02:35:10.723126 16109 layer_factory.hpp:77] Creating layer conv0
I0501 02:35:10.723145 16109 net.cpp:86] Creating Layer conv0
I0501 02:35:10.723150 16109 net.cpp:408] conv0 <- data
I0501 02:35:10.723167 16109 net.cpp:382] conv0 -> conv0
I0501 02:35:11.006069 16109 net.cpp:124] Setting up conv0
I0501 02:35:11.006112 16109 net.cpp:131] Top shape: 111 8 32 32 (909312)
I0501 02:35:11.006117 16109 net.cpp:139] Memory required for data: 5001660
I0501 02:35:11.006134 16109 layer_factory.hpp:77] Creating layer Sigmoid0
I0501 02:35:11.006145 16109 net.cpp:86] Creating Layer Sigmoid0
I0501 02:35:11.006150 16109 net.cpp:408] Sigmoid0 <- conv0
I0501 02:35:11.006155 16109 net.cpp:382] Sigmoid0 -> Sigmoid0
I0501 02:35:11.006345 16109 net.cpp:124] Setting up Sigmoid0
I0501 02:35:11.006356 16109 net.cpp:131] Top shape: 111 8 32 32 (909312)
I0501 02:35:11.006359 16109 net.cpp:139] Memory required for data: 8638908
I0501 02:35:11.006364 16109 layer_factory.hpp:77] Creating layer pool0
I0501 02:35:11.006374 16109 net.cpp:86] Creating Layer pool0
I0501 02:35:11.006379 16109 net.cpp:408] pool0 <- Sigmoid0
I0501 02:35:11.006387 16109 net.cpp:382] pool0 -> pool0
I0501 02:35:11.007117 16109 net.cpp:124] Setting up pool0
I0501 02:35:11.007130 16109 net.cpp:131] Top shape: 111 8 16 16 (227328)
I0501 02:35:11.007134 16109 net.cpp:139] Memory required for data: 9548220
I0501 02:35:11.007138 16109 layer_factory.hpp:77] Creating layer ip1
I0501 02:35:11.007148 16109 net.cpp:86] Creating Layer ip1
I0501 02:35:11.007150 16109 net.cpp:408] ip1 <- pool0
I0501 02:35:11.007155 16109 net.cpp:382] ip1 -> ip1
I0501 02:35:11.009402 16109 net.cpp:124] Setting up ip1
I0501 02:35:11.009413 16109 net.cpp:131] Top shape: 111 40 (4440)
I0501 02:35:11.009415 16109 net.cpp:139] Memory required for data: 9565980
I0501 02:35:11.009423 16109 layer_factory.hpp:77] Creating layer relu1
I0501 02:35:11.009429 16109 net.cpp:86] Creating Layer relu1
I0501 02:35:11.009433 16109 net.cpp:408] relu1 <- ip1
I0501 02:35:11.009438 16109 net.cpp:369] relu1 -> ip1 (in-place)
I0501 02:35:11.009613 16109 net.cpp:124] Setting up relu1
I0501 02:35:11.009623 16109 net.cpp:131] Top shape: 111 40 (4440)
I0501 02:35:11.009625 16109 net.cpp:139] Memory required for data: 9583740
I0501 02:35:11.009629 16109 layer_factory.hpp:77] Creating layer ip2
I0501 02:35:11.009640 16109 net.cpp:86] Creating Layer ip2
I0501 02:35:11.009645 16109 net.cpp:408] ip2 <- ip1
I0501 02:35:11.009654 16109 net.cpp:382] ip2 -> ip2
I0501 02:35:11.009773 16109 net.cpp:124] Setting up ip2
I0501 02:35:11.009783 16109 net.cpp:131] Top shape: 111 20 (2220)
I0501 02:35:11.009786 16109 net.cpp:139] Memory required for data: 9592620
I0501 02:35:11.009798 16109 layer_factory.hpp:77] Creating layer relu2
I0501 02:35:11.009805 16109 net.cpp:86] Creating Layer relu2
I0501 02:35:11.009810 16109 net.cpp:408] relu2 <- ip2
I0501 02:35:11.009817 16109 net.cpp:369] relu2 -> ip2 (in-place)
I0501 02:35:11.009980 16109 net.cpp:124] Setting up relu2
I0501 02:35:11.009989 16109 net.cpp:131] Top shape: 111 20 (2220)
I0501 02:35:11.009992 16109 net.cpp:139] Memory required for data: 9601500
I0501 02:35:11.009996 16109 layer_factory.hpp:77] Creating layer ip3
I0501 02:35:11.010009 16109 net.cpp:86] Creating Layer ip3
I0501 02:35:11.010015 16109 net.cpp:408] ip3 <- ip2
I0501 02:35:11.010022 16109 net.cpp:382] ip3 -> ip3
I0501 02:35:11.010128 16109 net.cpp:124] Setting up ip3
I0501 02:35:11.010136 16109 net.cpp:131] Top shape: 111 10 (1110)
I0501 02:35:11.010139 16109 net.cpp:139] Memory required for data: 9605940
I0501 02:35:11.010146 16109 layer_factory.hpp:77] Creating layer loss
I0501 02:35:11.010154 16109 net.cpp:86] Creating Layer loss
I0501 02:35:11.010159 16109 net.cpp:408] loss <- ip3
I0501 02:35:11.010165 16109 net.cpp:408] loss <- label
I0501 02:35:11.010172 16109 net.cpp:382] loss -> loss
I0501 02:35:11.010192 16109 layer_factory.hpp:77] Creating layer loss
…
I0501 02:35:11.010828 16109 solver.cpp:173] Creating test net (#0) specified by net file: ECE595/cifar/train_test/var_everything/cifar_train_test_326.prototxt
I0501 02:35:11.010859 16109 net.cpp:296] The NetState phase (1) differed from the phase (0) specified by a rule in layer cifar
I0501 02:35:11.010953 16109 net.cpp:53] Initializing net from parameters: 
name: "CIFAR"
state {
  phase: TEST
}
layer {
  name: "cifar"
  type: "Data"
  top: "data"
  top: "label"
  include {
    phase: TEST
  }
  transform_param {
    mean_file: "examples/cifar10/mean.binaryproto"
  }
  data_param {
    source: "examples/cifar10/cifar10_test_lmdb"
    batch_size: 1000
    backend: LMDB
  }
}
layer {
  name: "conv0"
  type: "Convolution"
  bottom: "data"
  top: "conv0"
  param {
    lr_mult: 1
  }
  param {
    lr_mult: 2
  }
  convolution_param {
    num_output: 8
    pad: 2
    kernel_size: 5
    stride: 1
    weight_filler {
      type: "gaussian"
      std: 0.01
    }
    bias_filler {
      type: "constant"
    }
  }
}
layer {
  name: "Sigmoid0"
  type: "Sigmoid"
  bottom: "conv0"
  top: "Sigmoid0"
}
layer {
  name: "pool0"
  type: "Pooling"
  bottom: "Sigmoid0"
  top: "pool0"
  pooling_param {
    pool: AVE
    kernel_size: 3
    stride: 2
  }
}
layer {
  name: "ip1"
  type: "InnerProduct"
  bottom: "pool0"
  top: "ip1"
  param {
    lr_mult: 1
  }
  param {
    lr_mult: 2
  }
  inner_product_param {
    num_output: 40
    weight_filler {
      type: "gaussian"
      std: 0.01
    }
    bias_filler {
      type: "constant"
    }
  }
}
layer {
  name: "relu1"
  type: "ReLU"
  bottom: "ip1"
  top: "ip1"
}
layer {
  name: "ip2"
  type: "InnerProduct"
  bottom: "ip1"
  top: "ip2"
  param {
    lr_mult: 1
  }
  param {
    lr_mult: 2
  }
  inner_product_param {
    num_output: 20
    weight_filler {
      type: "gaussian"
      std: 0.01
    }
    bias_filler {
      type: "constant"
    }
  }
}
layer {
  name: "relu2"
  type: "ReLU"
  bottom: "ip2"
  top: "ip2"
}
layer {
  name: "ip3"
  type: "InnerProduct"
  bottom: "ip2"
  top: "ip3"
  param {
    lr_mult: 1
  }
  param {
    lr_mult: 2
  }
  inner_product_param {
    num_output: 10
    weight_filler {
      type: "gaussian"
      std: 0.01
    }
    bias_filler {
      type: "constant"
    }
  }
}
layer {
  name: "accuracy"
  type: "Accuracy"
  bottom: "ip3"
  bottom: "label"
  top: "accuracy"
  include {
    phase: TEST
  }
}
layer {
  name: "loss"
  type: "SoftmaxWithLoss"
  bottom: "ip3"
  bottom: "label"
  top: "loss"
}
I0501 02:35:11.011042 16109 layer_factory.hpp:77] Creating layer cifar
I0501 02:35:11.011104 16109 db_lmdb.cpp:35] Opened lmdb examples/cifar10/cifar10_test_lmdb
I0501 02:35:11.011121 16109 net.cpp:86] Creating Layer cifar
I0501 02:35:11.011131 16109 net.cpp:382] cifar -> data
I0501 02:35:11.011142 16109 net.cpp:382] cifar -> label
I0501 02:35:11.011152 16109 data_transformer.cpp:25] Loading mean file from: examples/cifar10/mean.binaryproto
I0501 02:35:11.011343 16109 data_layer.cpp:45] output data size: 1000,3,32,32
I0501 02:35:11.033179 16109 net.cpp:124] Setting up cifar
I0501 02:35:11.033222 16109 net.cpp:131] Top shape: 1000 3 32 32 (3072000)
I0501 02:35:11.033228 16109 net.cpp:131] Top shape: 1000 (1000)
I0501 02:35:11.033231 16109 net.cpp:139] Memory required for data: 12292000
I0501 02:35:11.033252 16109 layer_factory.hpp:77] Creating layer label_cifar_1_split
I0501 02:35:11.033268 16109 net.cpp:86] Creating Layer label_cifar_1_split
I0501 02:35:11.033305 16109 net.cpp:408] label_cifar_1_split <- label
I0501 02:35:11.033316 16109 net.cpp:382] label_cifar_1_split -> label_cifar_1_split_0
I0501 02:35:11.033329 16109 net.cpp:382] label_cifar_1_split -> label_cifar_1_split_1
I0501 02:35:11.033614 16109 net.cpp:124] Setting up label_cifar_1_split
I0501 02:35:11.033638 16109 net.cpp:131] Top shape: 1000 (1000)
I0501 02:35:11.033643 16109 net.cpp:131] Top shape: 1000 (1000)
I0501 02:35:11.033648 16109 net.cpp:139] Memory required for data: 12300000
I0501 02:35:11.033653 16109 layer_factory.hpp:77] Creating layer conv0
I0501 02:35:11.033669 16109 net.cpp:86] Creating Layer conv0
I0501 02:35:11.033674 16109 net.cpp:408] conv0 <- data
I0501 02:35:11.033687 16109 net.cpp:382] conv0 -> conv0
I0501 02:35:11.035239 16109 net.cpp:124] Setting up conv0
I0501 02:35:11.035253 16109 net.cpp:131] Top shape: 1000 8 32 32 (8192000)
I0501 02:35:11.035256 16109 net.cpp:139] Memory required for data: 45068000
I0501 02:35:11.035282 16109 layer_factory.hpp:77] Creating layer Sigmoid0
I0501 02:35:11.035292 16109 net.cpp:86] Creating Layer Sigmoid0
I0501 02:35:11.035297 16109 net.cpp:408] Sigmoid0 <- conv0
I0501 02:35:11.035306 16109 net.cpp:382] Sigmoid0 -> Sigmoid0
I0501 02:35:11.036211 16109 net.cpp:124] Setting up Sigmoid0
I0501 02:35:11.036223 16109 net.cpp:131] Top shape: 1000 8 32 32 (8192000)
I0501 02:35:11.036226 16109 net.cpp:139] Memory required for data: 77836000
I0501 02:35:11.036231 16109 layer_factory.hpp:77] Creating layer pool0
I0501 02:35:11.036242 16109 net.cpp:86] Creating Layer pool0
I0501 02:35:11.036247 16109 net.cpp:408] pool0 <- Sigmoid0
I0501 02:35:11.036255 16109 net.cpp:382] pool0 -> pool0
I0501 02:35:11.037412 16109 net.cpp:124] Setting up pool0
I0501 02:35:11.037428 16109 net.cpp:131] Top shape: 1000 8 16 16 (2048000)
I0501 02:35:11.037438 16109 net.cpp:139] Memory required for data: 86028000
I0501 02:35:11.037443 16109 layer_factory.hpp:77] Creating layer ip1
I0501 02:35:11.037454 16109 net.cpp:86] Creating Layer ip1
I0501 02:35:11.037461 16109 net.cpp:408] ip1 <- pool0
I0501 02:35:11.037470 16109 net.cpp:382] ip1 -> ip1
I0501 02:35:11.039656 16109 net.cpp:124] Setting up ip1
I0501 02:35:11.039666 16109 net.cpp:131] Top shape: 1000 40 (40000)
I0501 02:35:11.039669 16109 net.cpp:139] Memory required for data: 86188000
I0501 02:35:11.039679 16109 layer_factory.hpp:77] Creating layer relu1
I0501 02:35:11.039687 16109 net.cpp:86] Creating Layer relu1
I0501 02:35:11.039692 16109 net.cpp:408] relu1 <- ip1
I0501 02:35:11.039701 16109 net.cpp:369] relu1 -> ip1 (in-place)
I0501 02:35:11.039872 16109 net.cpp:124] Setting up relu1
I0501 02:35:11.039897 16109 net.cpp:131] Top shape: 1000 40 (40000)
I0501 02:35:11.039901 16109 net.cpp:139] Memory required for data: 86348000
I0501 02:35:11.039904 16109 layer_factory.hpp:77] Creating layer ip2
I0501 02:35:11.039916 16109 net.cpp:86] Creating Layer ip2
I0501 02:35:11.039922 16109 net.cpp:408] ip2 <- ip1
I0501 02:35:11.039932 16109 net.cpp:382] ip2 -> ip2
I0501 02:35:11.040074 16109 net.cpp:124] Setting up ip2
I0501 02:35:11.040083 16109 net.cpp:131] Top shape: 1000 20 (20000)
I0501 02:35:11.040086 16109 net.cpp:139] Memory required for data: 86428000
I0501 02:35:11.040094 16109 layer_factory.hpp:77] Creating layer relu2
I0501 02:35:11.040103 16109 net.cpp:86] Creating Layer relu2
I0501 02:35:11.040108 16109 net.cpp:408] relu2 <- ip2
I0501 02:35:11.040114 16109 net.cpp:369] relu2 -> ip2 (in-place)
I0501 02:35:11.040307 16109 net.cpp:124] Setting up relu2
I0501 02:35:11.040315 16109 net.cpp:131] Top shape: 1000 20 (20000)
I0501 02:35:11.040318 16109 net.cpp:139] Memory required for data: 86508000
I0501 02:35:11.040323 16109 layer_factory.hpp:77] Creating layer ip3
I0501 02:35:11.040330 16109 net.cpp:86] Creating Layer ip3
I0501 02:35:11.040334 16109 net.cpp:408] ip3 <- ip2
I0501 02:35:11.040344 16109 net.cpp:382] ip3 -> ip3
I0501 02:35:11.040469 16109 net.cpp:124] Setting up ip3
I0501 02:35:11.040493 16109 net.cpp:131] Top shape: 1000 10 (10000)
I0501 02:35:11.040496 16109 net.cpp:139] Memory required for data: 86548000
I0501 02:35:11.040518 16109 layer_factory.hpp:77] Creating layer ip3_ip3_0_split
I0501 02:35:11.040534 16109 net.cpp:86] Creating Layer ip3_ip3_0_split
I0501 02:35:11.040539 16109 net.cpp:408] ip3_ip3_0_split <- ip3
I0501 02:35:11.040547 16109 net.cpp:382] ip3_ip3_0_split -> ip3_ip3_0_split_0
I0501 02:35:11.040554 16109 net.cpp:382] ip3_ip3_0_split -> ip3_ip3_0_split_1
I0501 02:35:11.040599 16109 net.cpp:124] Setting up ip3_ip3_0_split
I0501 02:35:11.040609 16109 net.cpp:131] Top shape: 1000 10 (10000)
I0501 02:35:11.040616 16109 net.cpp:131] Top shape: 1000 10 (10000)
I0501 02:35:11.040621 16109 net.cpp:139] Memory required for data: 86628000
I0501 02:35:11.040626 16109 layer_factory.hpp:77] Creating layer accuracy
I0501 02:35:11.040633 16109 net.cpp:86] Creating Layer accuracy
I0501 02:35:11.040638 16109 net.cpp:408] accuracy <- ip3_ip3_0_split_0
I0501 02:35:11.040644 16109 net.cpp:408] accuracy <- label_cifar_1_split_0
I0501 02:35:11.040652 16109 net.cpp:382] accuracy -> accuracy
…
