…
I0501 00:48:13.090128  8064 net.cpp:296] The NetState phase (0) differed from the phase (1) specified by a rule in layer cifar
I0501 00:48:13.090142  8064 net.cpp:296] The NetState phase (0) differed from the phase (1) specified by a rule in layer accuracy
I0501 00:48:13.090225  8064 net.cpp:53] Initializing net from parameters: 
name: "CIFAR"
state {
  phase: TRAIN
  level: 0
  stage: ""
}
layer {
  name: "cifar"
  type: "Data"
  top: "data"
  top: "label"
  include {
    phase: TRAIN
  }
  transform_param {
    mean_file: "examples/cifar10/mean.binaryproto"
  }
  data_param {
    source: "examples/cifar10/cifar10_train_lmdb"
    batch_size: 111
    backend: LMDB
  }
}
layer {
  name: "conv0"
  type: "Convolution"
  bottom: "data"
  top: "conv0"
  param {
    lr_mult: 1
  }
  param {
    lr_mult: 2
  }
  convolution_param {
    num_output: 8
    pad: 2
    kernel_size: 3
    stride: 1
    weight_filler {
      type: "gaussian"
      std: 0.01
    }
    bias_filler {
      type: "constant"
    }
  }
}
layer {
  name: "Sigmoid0"
  type: "Sigmoid"
  bottom: "conv0"
  top: "Sigmoid0"
}
layer {
  name: "pool0"
  type: "Pooling"
  bottom: "Sigmoid0"
  top: "pool0"
  pooling_param {
    pool: AVE
    kernel_size: 3
    stride: 2
  }
}
layer {
  name: "ip1"
  type: "InnerProduct"
  bottom: "pool0"
  top: "ip1"
  param {
    lr_mult: 1
  }
  param {
    lr_mult: 2
  }
  inner_product_param {
    num_output: 80
    weight_filler {
      type: "gaussian"
      std: 0.01
    }
    bias_filler {
      type: "constant"
    }
  }
}
layer {
  name: "relu1"
  type: "ReLU"
  bottom: "ip1"
  top: "ip1"
}
layer {
  name: "ip2"
  type: "InnerProduct"
  bottom: "ip1"
  top: "ip2"
  param {
    lr_mult: 1
  }
  param {
    lr_mult: 2
  }
  inner_product_param {
    num_output: 20
    weight_filler {
      type: "gaussian"
      std: 0.01
    }
    bias_filler {
      type: "constant"
    }
  }
}
layer {
  name: "relu2"
  type: "ReLU"
  bottom: "ip2"
  top: "ip2"
}
layer {
  name: "ip3"
  type: "InnerProduct"
  bottom: "ip2"
  top: "ip3"
  param {
    lr_mult: 1
  }
  param {
    lr_mult: 2
  }
  inner_product_param {
    num_output: 160
    weight_filler {
      type: "gaussian"
      std: 0.01
    }
    bias_filler {
      type: "constant"
    }
  }
}
layer {
  name: "relu3"
  type: "ReLU"
  bottom: "ip3"
  top: "ip3"
}
layer {
  name: "ip4"
  type: "InnerProduct"
  bottom: "ip3"
  top: "ip4"
  param {
    lr_mult: 1
  }
  param {
    lr_mult: 2
  }
  inner_product_param {
    num_output: 10
    weight_filler {
      type: "gaussian"
      std: 0.01
    }
    bias_filler {
      type: "constant"
    }
  }
}
layer {
  name: "loss"
  type: "SoftmaxWithLoss"
  bottom: "ip4"
  bottom: "label"
  top: "loss"
}
I0501 00:48:13.090289  8064 layer_factory.hpp:77] Creating layer cifar
I0501 00:48:13.090368  8064 db_lmdb.cpp:35] Opened lmdb examples/cifar10/cifar10_train_lmdb
I0501 00:48:13.090389  8064 net.cpp:86] Creating Layer cifar
I0501 00:48:13.090396  8064 net.cpp:382] cifar -> data
I0501 00:48:13.090415  8064 net.cpp:382] cifar -> label
I0501 00:48:13.090425  8064 data_transformer.cpp:25] Loading mean file from: examples/cifar10/mean.binaryproto
I0501 00:48:13.092118  8064 data_layer.cpp:45] output data size: 111,3,32,32
I0501 00:48:13.098492  8064 net.cpp:124] Setting up cifar
I0501 00:48:13.098506  8064 net.cpp:131] Top shape: 111 3 32 32 (340992)
I0501 00:48:13.098526  8064 net.cpp:131] Top shape: 111 (111)
I0501 00:48:13.098529  8064 net.cpp:139] Memory required for data: 1364412
I0501 00:48:13.098547  8064 layer_factory.hpp:77] Creating layer conv0
I0501 00:48:13.098582  8064 net.cpp:86] Creating Layer conv0
I0501 00:48:13.098587  8064 net.cpp:408] conv0 <- data
I0501 00:48:13.098598  8064 net.cpp:382] conv0 -> conv0
I0501 00:48:13.328286  8064 net.cpp:124] Setting up conv0
I0501 00:48:13.328327  8064 net.cpp:131] Top shape: 111 8 34 34 (1026528)
I0501 00:48:13.328331  8064 net.cpp:139] Memory required for data: 5470524
I0501 00:48:13.328346  8064 layer_factory.hpp:77] Creating layer Sigmoid0
I0501 00:48:13.328359  8064 net.cpp:86] Creating Layer Sigmoid0
I0501 00:48:13.328363  8064 net.cpp:408] Sigmoid0 <- conv0
I0501 00:48:13.328368  8064 net.cpp:382] Sigmoid0 -> Sigmoid0
I0501 00:48:13.328593  8064 net.cpp:124] Setting up Sigmoid0
I0501 00:48:13.328603  8064 net.cpp:131] Top shape: 111 8 34 34 (1026528)
I0501 00:48:13.328605  8064 net.cpp:139] Memory required for data: 9576636
I0501 00:48:13.328608  8064 layer_factory.hpp:77] Creating layer pool0
I0501 00:48:13.328615  8064 net.cpp:86] Creating Layer pool0
I0501 00:48:13.328621  8064 net.cpp:408] pool0 <- Sigmoid0
I0501 00:48:13.328626  8064 net.cpp:382] pool0 -> pool0
I0501 00:48:13.329402  8064 net.cpp:124] Setting up pool0
I0501 00:48:13.329432  8064 net.cpp:131] Top shape: 111 8 17 17 (256632)
I0501 00:48:13.329434  8064 net.cpp:139] Memory required for data: 10603164
I0501 00:48:13.329438  8064 layer_factory.hpp:77] Creating layer ip1
I0501 00:48:13.329448  8064 net.cpp:86] Creating Layer ip1
I0501 00:48:13.329452  8064 net.cpp:408] ip1 <- pool0
I0501 00:48:13.329458  8064 net.cpp:382] ip1 -> ip1
I0501 00:48:13.335223  8064 net.cpp:124] Setting up ip1
I0501 00:48:13.335234  8064 net.cpp:131] Top shape: 111 80 (8880)
I0501 00:48:13.335254  8064 net.cpp:139] Memory required for data: 10638684
I0501 00:48:13.335261  8064 layer_factory.hpp:77] Creating layer relu1
I0501 00:48:13.335270  8064 net.cpp:86] Creating Layer relu1
I0501 00:48:13.335274  8064 net.cpp:408] relu1 <- ip1
I0501 00:48:13.335278  8064 net.cpp:369] relu1 -> ip1 (in-place)
I0501 00:48:13.335456  8064 net.cpp:124] Setting up relu1
I0501 00:48:13.335465  8064 net.cpp:131] Top shape: 111 80 (8880)
I0501 00:48:13.335469  8064 net.cpp:139] Memory required for data: 10674204
I0501 00:48:13.335472  8064 layer_factory.hpp:77] Creating layer ip2
I0501 00:48:13.335480  8064 net.cpp:86] Creating Layer ip2
I0501 00:48:13.335485  8064 net.cpp:408] ip2 <- ip1
I0501 00:48:13.335507  8064 net.cpp:382] ip2 -> ip2
I0501 00:48:13.335687  8064 net.cpp:124] Setting up ip2
I0501 00:48:13.335695  8064 net.cpp:131] Top shape: 111 20 (2220)
I0501 00:48:13.335697  8064 net.cpp:139] Memory required for data: 10683084
I0501 00:48:13.335705  8064 layer_factory.hpp:77] Creating layer relu2
I0501 00:48:13.335712  8064 net.cpp:86] Creating Layer relu2
I0501 00:48:13.335731  8064 net.cpp:408] relu2 <- ip2
I0501 00:48:13.335736  8064 net.cpp:369] relu2 -> ip2 (in-place)
I0501 00:48:13.335932  8064 net.cpp:124] Setting up relu2
I0501 00:48:13.335940  8064 net.cpp:131] Top shape: 111 20 (2220)
I0501 00:48:13.335944  8064 net.cpp:139] Memory required for data: 10691964
I0501 00:48:13.335947  8064 layer_factory.hpp:77] Creating layer ip3
I0501 00:48:13.335957  8064 net.cpp:86] Creating Layer ip3
I0501 00:48:13.335959  8064 net.cpp:408] ip3 <- ip2
I0501 00:48:13.335965  8064 net.cpp:382] ip3 -> ip3
I0501 00:48:13.336160  8064 net.cpp:124] Setting up ip3
I0501 00:48:13.336168  8064 net.cpp:131] Top shape: 111 160 (17760)
I0501 00:48:13.336169  8064 net.cpp:139] Memory required for data: 10763004
I0501 00:48:13.336175  8064 layer_factory.hpp:77] Creating layer relu3
I0501 00:48:13.336180  8064 net.cpp:86] Creating Layer relu3
I0501 00:48:13.336184  8064 net.cpp:408] relu3 <- ip3
I0501 00:48:13.336187  8064 net.cpp:369] relu3 -> ip3 (in-place)
I0501 00:48:13.336333  8064 net.cpp:124] Setting up relu3
I0501 00:48:13.336343  8064 net.cpp:131] Top shape: 111 160 (17760)
I0501 00:48:13.336345  8064 net.cpp:139] Memory required for data: 10834044
I0501 00:48:13.336349  8064 layer_factory.hpp:77] Creating layer ip4
I0501 00:48:13.336366  8064 net.cpp:86] Creating Layer ip4
I0501 00:48:13.336372  8064 net.cpp:408] ip4 <- ip3
I0501 00:48:13.336395  8064 net.cpp:382] ip4 -> ip4
I0501 00:48:13.336531  8064 net.cpp:124] Setting up ip4
I0501 00:48:13.336539  8064 net.cpp:131] Top shape: 111 10 (1110)
I0501 00:48:13.336541  8064 net.cpp:139] Memory required for data: 10838484
I0501 00:48:13.336549  8064 layer_factory.hpp:77] Creating layer loss
I0501 00:48:13.336555  8064 net.cpp:86] Creating Layer loss
I0501 00:48:13.336557  8064 net.cpp:408] loss <- ip4
I0501 00:48:13.336561  8064 net.cpp:408] loss <- label
I0501 00:48:13.336567  8064 net.cpp:382] loss -> loss
I0501 00:48:13.336583  8064 layer_factory.hpp:77] Creating layer loss
…
I0501 00:48:13.337905  8064 solver.cpp:173] Creating test net (#0) specified by net file: ECE595/cifar/train_test/var_everything/cifar_train_test_269.prototxt
I0501 00:48:13.337932  8064 net.cpp:296] The NetState phase (1) differed from the phase (0) specified by a rule in layer cifar
I0501 00:48:13.338044  8064 net.cpp:53] Initializing net from parameters: 
name: "CIFAR"
state {
  phase: TEST
}
layer {
  name: "cifar"
  type: "Data"
  top: "data"
  top: "label"
  include {
    phase: TEST
  }
  transform_param {
    mean_file: "examples/cifar10/mean.binaryproto"
  }
  data_param {
    source: "examples/cifar10/cifar10_test_lmdb"
    batch_size: 1000
    backend: LMDB
  }
}
layer {
  name: "conv0"
  type: "Convolution"
  bottom: "data"
  top: "conv0"
  param {
    lr_mult: 1
  }
  param {
    lr_mult: 2
  }
  convolution_param {
    num_output: 8
    pad: 2
    kernel_size: 3
    stride: 1
    weight_filler {
      type: "gaussian"
      std: 0.01
    }
    bias_filler {
      type: "constant"
    }
  }
}
layer {
  name: "Sigmoid0"
  type: "Sigmoid"
  bottom: "conv0"
  top: "Sigmoid0"
}
layer {
  name: "pool0"
  type: "Pooling"
  bottom: "Sigmoid0"
  top: "pool0"
  pooling_param {
    pool: AVE
    kernel_size: 3
    stride: 2
  }
}
layer {
  name: "ip1"
  type: "InnerProduct"
  bottom: "pool0"
  top: "ip1"
  param {
    lr_mult: 1
  }
  param {
    lr_mult: 2
  }
  inner_product_param {
    num_output: 80
    weight_filler {
      type: "gaussian"
      std: 0.01
    }
    bias_filler {
      type: "constant"
    }
  }
}
layer {
  name: "relu1"
  type: "ReLU"
  bottom: "ip1"
  top: "ip1"
}
layer {
  name: "ip2"
  type: "InnerProduct"
  bottom: "ip1"
  top: "ip2"
  param {
    lr_mult: 1
  }
  param {
    lr_mult: 2
  }
  inner_product_param {
    num_output: 20
    weight_filler {
      type: "gaussian"
      std: 0.01
    }
    bias_filler {
      type: "constant"
    }
  }
}
layer {
  name: "relu2"
  type: "ReLU"
  bottom: "ip2"
  top: "ip2"
}
layer {
  name: "ip3"
  type: "InnerProduct"
  bottom: "ip2"
  top: "ip3"
  param {
    lr_mult: 1
  }
  param {
    lr_mult: 2
  }
  inner_product_param {
    num_output: 160
    weight_filler {
      type: "gaussian"
      std: 0.01
    }
    bias_filler {
      type: "constant"
    }
  }
}
layer {
  name: "relu3"
  type: "ReLU"
  bottom: "ip3"
  top: "ip3"
}
layer {
  name: "ip4"
  type: "InnerProduct"
  bottom: "ip3"
  top: "ip4"
  param {
    lr_mult: 1
  }
  param {
    lr_mult: 2
  }
  inner_product_param {
    num_output: 10
    weight_filler {
      type: "gaussian"
      std: 0.01
    }
    bias_filler {
      type: "constant"
    }
  }
}
layer {
  name: "accuracy"
  type: "Accuracy"
  bottom: "ip4"
  bottom: "label"
  top: "accuracy"
  include {
    phase: TEST
  }
}
layer {
  name: "loss"
  type: "SoftmaxWithLoss"
  bottom: "ip4"
  bottom: "label"
  top: "loss"
}
I0501 00:48:13.338129  8064 layer_factory.hpp:77] Creating layer cifar
I0501 00:48:13.338172  8064 db_lmdb.cpp:35] Opened lmdb examples/cifar10/cifar10_test_lmdb
I0501 00:48:13.338187  8064 net.cpp:86] Creating Layer cifar
I0501 00:48:13.338192  8064 net.cpp:382] cifar -> data
I0501 00:48:13.338199  8064 net.cpp:382] cifar -> label
I0501 00:48:13.338205  8064 data_transformer.cpp:25] Loading mean file from: examples/cifar10/mean.binaryproto
I0501 00:48:13.338363  8064 data_layer.cpp:45] output data size: 1000,3,32,32
I0501 00:48:13.361943  8064 net.cpp:124] Setting up cifar
I0501 00:48:13.361999  8064 net.cpp:131] Top shape: 1000 3 32 32 (3072000)
I0501 00:48:13.362005  8064 net.cpp:131] Top shape: 1000 (1000)
I0501 00:48:13.362009  8064 net.cpp:139] Memory required for data: 12292000
I0501 00:48:13.362013  8064 layer_factory.hpp:77] Creating layer label_cifar_1_split
I0501 00:48:13.362030  8064 net.cpp:86] Creating Layer label_cifar_1_split
I0501 00:48:13.362033  8064 net.cpp:408] label_cifar_1_split <- label
I0501 00:48:13.362041  8064 net.cpp:382] label_cifar_1_split -> label_cifar_1_split_0
I0501 00:48:13.362066  8064 net.cpp:382] label_cifar_1_split -> label_cifar_1_split_1
I0501 00:48:13.362161  8064 net.cpp:124] Setting up label_cifar_1_split
I0501 00:48:13.362170  8064 net.cpp:131] Top shape: 1000 (1000)
I0501 00:48:13.362174  8064 net.cpp:131] Top shape: 1000 (1000)
I0501 00:48:13.362177  8064 net.cpp:139] Memory required for data: 12300000
I0501 00:48:13.362180  8064 layer_factory.hpp:77] Creating layer conv0
I0501 00:48:13.362196  8064 net.cpp:86] Creating Layer conv0
I0501 00:48:13.362200  8064 net.cpp:408] conv0 <- data
I0501 00:48:13.362205  8064 net.cpp:382] conv0 -> conv0
I0501 00:48:13.363755  8064 net.cpp:124] Setting up conv0
I0501 00:48:13.363768  8064 net.cpp:131] Top shape: 1000 8 34 34 (9248000)
I0501 00:48:13.363786  8064 net.cpp:139] Memory required for data: 49292000
I0501 00:48:13.363796  8064 layer_factory.hpp:77] Creating layer Sigmoid0
I0501 00:48:13.363803  8064 net.cpp:86] Creating Layer Sigmoid0
I0501 00:48:13.363806  8064 net.cpp:408] Sigmoid0 <- conv0
I0501 00:48:13.363811  8064 net.cpp:382] Sigmoid0 -> Sigmoid0
I0501 00:48:13.365043  8064 net.cpp:124] Setting up Sigmoid0
I0501 00:48:13.365056  8064 net.cpp:131] Top shape: 1000 8 34 34 (9248000)
I0501 00:48:13.365059  8064 net.cpp:139] Memory required for data: 86284000
I0501 00:48:13.365064  8064 layer_factory.hpp:77] Creating layer pool0
I0501 00:48:13.365073  8064 net.cpp:86] Creating Layer pool0
I0501 00:48:13.365077  8064 net.cpp:408] pool0 <- Sigmoid0
I0501 00:48:13.365097  8064 net.cpp:382] pool0 -> pool0
I0501 00:48:13.365295  8064 net.cpp:124] Setting up pool0
I0501 00:48:13.365304  8064 net.cpp:131] Top shape: 1000 8 17 17 (2312000)
I0501 00:48:13.365308  8064 net.cpp:139] Memory required for data: 95532000
I0501 00:48:13.365310  8064 layer_factory.hpp:77] Creating layer ip1
I0501 00:48:13.365319  8064 net.cpp:86] Creating Layer ip1
I0501 00:48:13.365324  8064 net.cpp:408] ip1 <- pool0
I0501 00:48:13.365329  8064 net.cpp:382] ip1 -> ip1
I0501 00:48:13.370250  8064 net.cpp:124] Setting up ip1
I0501 00:48:13.370260  8064 net.cpp:131] Top shape: 1000 80 (80000)
I0501 00:48:13.370280  8064 net.cpp:139] Memory required for data: 95852000
I0501 00:48:13.370301  8064 layer_factory.hpp:77] Creating layer relu1
I0501 00:48:13.370307  8064 net.cpp:86] Creating Layer relu1
I0501 00:48:13.370311  8064 net.cpp:408] relu1 <- ip1
I0501 00:48:13.370314  8064 net.cpp:369] relu1 -> ip1 (in-place)
I0501 00:48:13.370478  8064 net.cpp:124] Setting up relu1
I0501 00:48:13.370489  8064 net.cpp:131] Top shape: 1000 80 (80000)
I0501 00:48:13.370492  8064 net.cpp:139] Memory required for data: 96172000
I0501 00:48:13.370496  8064 layer_factory.hpp:77] Creating layer ip2
I0501 00:48:13.370501  8064 net.cpp:86] Creating Layer ip2
I0501 00:48:13.370506  8064 net.cpp:408] ip2 <- ip1
I0501 00:48:13.370510  8064 net.cpp:382] ip2 -> ip2
I0501 00:48:13.370674  8064 net.cpp:124] Setting up ip2
I0501 00:48:13.370683  8064 net.cpp:131] Top shape: 1000 20 (20000)
I0501 00:48:13.370687  8064 net.cpp:139] Memory required for data: 96252000
I0501 00:48:13.370693  8064 layer_factory.hpp:77] Creating layer relu2
I0501 00:48:13.370699  8064 net.cpp:86] Creating Layer relu2
I0501 00:48:13.370702  8064 net.cpp:408] relu2 <- ip2
I0501 00:48:13.370708  8064 net.cpp:369] relu2 -> ip2 (in-place)
I0501 00:48:13.371465  8064 net.cpp:124] Setting up relu2
I0501 00:48:13.371476  8064 net.cpp:131] Top shape: 1000 20 (20000)
I0501 00:48:13.371495  8064 net.cpp:139] Memory required for data: 96332000
I0501 00:48:13.371498  8064 layer_factory.hpp:77] Creating layer ip3
I0501 00:48:13.371505  8064 net.cpp:86] Creating Layer ip3
I0501 00:48:13.371508  8064 net.cpp:408] ip3 <- ip2
I0501 00:48:13.371515  8064 net.cpp:382] ip3 -> ip3
I0501 00:48:13.371738  8064 net.cpp:124] Setting up ip3
I0501 00:48:13.371747  8064 net.cpp:131] Top shape: 1000 160 (160000)
I0501 00:48:13.371749  8064 net.cpp:139] Memory required for data: 96972000
I0501 00:48:13.371754  8064 layer_factory.hpp:77] Creating layer relu3
I0501 00:48:13.371760  8064 net.cpp:86] Creating Layer relu3
I0501 00:48:13.371764  8064 net.cpp:408] relu3 <- ip3
I0501 00:48:13.371768  8064 net.cpp:369] relu3 -> ip3 (in-place)
I0501 00:48:13.371924  8064 net.cpp:124] Setting up relu3
I0501 00:48:13.371932  8064 net.cpp:131] Top shape: 1000 160 (160000)
I0501 00:48:13.371935  8064 net.cpp:139] Memory required for data: 97612000
I0501 00:48:13.371939  8064 layer_factory.hpp:77] Creating layer ip4
I0501 00:48:13.371947  8064 net.cpp:86] Creating Layer ip4
I0501 00:48:13.371949  8064 net.cpp:408] ip4 <- ip3
I0501 00:48:13.371954  8064 net.cpp:382] ip4 -> ip4
I0501 00:48:13.372110  8064 net.cpp:124] Setting up ip4
I0501 00:48:13.372117  8064 net.cpp:131] Top shape: 1000 10 (10000)
I0501 00:48:13.372120  8064 net.cpp:139] Memory required for data: 97652000
I0501 00:48:13.372128  8064 layer_factory.hpp:77] Creating layer ip4_ip4_0_split
I0501 00:48:13.372133  8064 net.cpp:86] Creating Layer ip4_ip4_0_split
I0501 00:48:13.372135  8064 net.cpp:408] ip4_ip4_0_split <- ip4
I0501 00:48:13.372140  8064 net.cpp:382] ip4_ip4_0_split -> ip4_ip4_0_split_0
I0501 00:48:13.372146  8064 net.cpp:382] ip4_ip4_0_split -> ip4_ip4_0_split_1
I0501 00:48:13.372176  8064 net.cpp:124] Setting up ip4_ip4_0_split
I0501 00:48:13.372186  8064 net.cpp:131] Top shape: 1000 10 (10000)
I0501 00:48:13.372189  8064 net.cpp:131] Top shape: 1000 10 (10000)
I0501 00:48:13.372192  8064 net.cpp:139] Memory required for data: 97732000
I0501 00:48:13.372195  8064 layer_factory.hpp:77] Creating layer accuracy
I0501 00:48:13.372202  8064 net.cpp:86] Creating Layer accuracy
I0501 00:48:13.372205  8064 net.cpp:408] accuracy <- ip4_ip4_0_split_0
I0501 00:48:13.372208  8064 net.cpp:408] accuracy <- label_cifar_1_split_0
I0501 00:48:13.372213  8064 net.cpp:382] accuracy -> accuracy
…
