…
I0430 20:18:27.255192 28438 net.cpp:296] The NetState phase (0) differed from the phase (1) specified by a rule in layer cifar
I0430 20:18:27.255208 28438 net.cpp:296] The NetState phase (0) differed from the phase (1) specified by a rule in layer accuracy
I0430 20:18:27.255290 28438 net.cpp:53] Initializing net from parameters: 
name: "CIFAR"
state {
  phase: TRAIN
  level: 0
  stage: ""
}
layer {
  name: "cifar"
  type: "Data"
  top: "data"
  top: "label"
  include {
    phase: TRAIN
  }
  transform_param {
    mean_file: "examples/cifar10/mean.binaryproto"
  }
  data_param {
    source: "examples/cifar10/cifar10_train_lmdb"
    batch_size: 111
    backend: LMDB
  }
}
layer {
  name: "ip1"
  type: "InnerProduct"
  bottom: "data"
  top: "ip1"
  param {
    lr_mult: 1
  }
  param {
    lr_mult: 2
  }
  inner_product_param {
    num_output: 80
    weight_filler {
      type: "gaussian"
      std: 0.01
    }
    bias_filler {
      type: "constant"
    }
  }
}
layer {
  name: "relu1"
  type: "ReLU"
  bottom: "ip1"
  top: "ip1"
}
layer {
  name: "ip2"
  type: "InnerProduct"
  bottom: "ip1"
  top: "ip2"
  param {
    lr_mult: 1
  }
  param {
    lr_mult: 2
  }
  inner_product_param {
    num_output: 160
    weight_filler {
      type: "gaussian"
      std: 0.01
    }
    bias_filler {
      type: "constant"
    }
  }
}
layer {
  name: "relu2"
  type: "ReLU"
  bottom: "ip2"
  top: "ip2"
}
layer {
  name: "ip3"
  type: "InnerProduct"
  bottom: "ip2"
  top: "ip3"
  param {
    lr_mult: 1
  }
  param {
    lr_mult: 2
  }
  inner_product_param {
    num_output: 10
    weight_filler {
      type: "gaussian"
      std: 0.01
    }
    bias_filler {
      type: "constant"
    }
  }
}
layer {
  name: "relu3"
  type: "ReLU"
  bottom: "ip3"
  top: "ip3"
}
layer {
  name: "ip4"
  type: "InnerProduct"
  bottom: "ip3"
  top: "ip4"
  param {
    lr_mult: 1
  }
  param {
    lr_mult: 2
  }
  inner_product_param {
    num_output: 10
    weight_filler {
      type: "gaussian"
      std: 0.01
    }
    bias_filler {
      type: "constant"
    }
  }
}
layer {
  name: "loss"
  type: "SoftmaxWithLoss"
  bottom: "ip4"
  bottom: "label"
  top: "loss"
}
I0430 20:18:27.255355 28438 layer_factory.hpp:77] Creating layer cifar
I0430 20:18:27.255460 28438 db_lmdb.cpp:35] Opened lmdb examples/cifar10/cifar10_train_lmdb
I0430 20:18:27.255488 28438 net.cpp:86] Creating Layer cifar
I0430 20:18:27.255496 28438 net.cpp:382] cifar -> data
I0430 20:18:27.255519 28438 net.cpp:382] cifar -> label
I0430 20:18:27.255532 28438 data_transformer.cpp:25] Loading mean file from: examples/cifar10/mean.binaryproto
I0430 20:18:27.257706 28438 data_layer.cpp:45] output data size: 111,3,32,32
I0430 20:18:27.265584 28438 net.cpp:124] Setting up cifar
I0430 20:18:27.265606 28438 net.cpp:131] Top shape: 111 3 32 32 (340992)
I0430 20:18:27.265614 28438 net.cpp:131] Top shape: 111 (111)
I0430 20:18:27.265619 28438 net.cpp:139] Memory required for data: 1364412
I0430 20:18:27.265635 28438 layer_factory.hpp:77] Creating layer ip1
I0430 20:18:27.265647 28438 net.cpp:86] Creating Layer ip1
I0430 20:18:27.265653 28438 net.cpp:408] ip1 <- data
I0430 20:18:27.265666 28438 net.cpp:382] ip1 -> ip1
I0430 20:18:27.274993 28438 net.cpp:124] Setting up ip1
I0430 20:18:27.275009 28438 net.cpp:131] Top shape: 111 80 (8880)
I0430 20:18:27.275015 28438 net.cpp:139] Memory required for data: 1399932
I0430 20:18:27.275030 28438 layer_factory.hpp:77] Creating layer relu1
I0430 20:18:27.275041 28438 net.cpp:86] Creating Layer relu1
I0430 20:18:27.275063 28438 net.cpp:408] relu1 <- ip1
I0430 20:18:27.275068 28438 net.cpp:369] relu1 -> ip1 (in-place)
I0430 20:18:27.552625 28438 net.cpp:124] Setting up relu1
I0430 20:18:27.552654 28438 net.cpp:131] Top shape: 111 80 (8880)
I0430 20:18:27.552657 28438 net.cpp:139] Memory required for data: 1435452
I0430 20:18:27.552662 28438 layer_factory.hpp:77] Creating layer ip2
I0430 20:18:27.552675 28438 net.cpp:86] Creating Layer ip2
I0430 20:18:27.552680 28438 net.cpp:408] ip2 <- ip1
I0430 20:18:27.552687 28438 net.cpp:382] ip2 -> ip2
I0430 20:18:27.554036 28438 net.cpp:124] Setting up ip2
I0430 20:18:27.554049 28438 net.cpp:131] Top shape: 111 160 (17760)
I0430 20:18:27.554054 28438 net.cpp:139] Memory required for data: 1506492
I0430 20:18:27.554064 28438 layer_factory.hpp:77] Creating layer relu2
I0430 20:18:27.554071 28438 net.cpp:86] Creating Layer relu2
I0430 20:18:27.554075 28438 net.cpp:408] relu2 <- ip2
I0430 20:18:27.554080 28438 net.cpp:369] relu2 -> ip2 (in-place)
I0430 20:18:27.554795 28438 net.cpp:124] Setting up relu2
I0430 20:18:27.554806 28438 net.cpp:131] Top shape: 111 160 (17760)
I0430 20:18:27.554810 28438 net.cpp:139] Memory required for data: 1577532
I0430 20:18:27.554813 28438 layer_factory.hpp:77] Creating layer ip3
I0430 20:18:27.554821 28438 net.cpp:86] Creating Layer ip3
I0430 20:18:27.554823 28438 net.cpp:408] ip3 <- ip2
I0430 20:18:27.554829 28438 net.cpp:382] ip3 -> ip3
I0430 20:18:27.554972 28438 net.cpp:124] Setting up ip3
I0430 20:18:27.554980 28438 net.cpp:131] Top shape: 111 10 (1110)
I0430 20:18:27.554983 28438 net.cpp:139] Memory required for data: 1581972
I0430 20:18:27.554991 28438 layer_factory.hpp:77] Creating layer relu3
I0430 20:18:27.554997 28438 net.cpp:86] Creating Layer relu3
I0430 20:18:27.555001 28438 net.cpp:408] relu3 <- ip3
I0430 20:18:27.555007 28438 net.cpp:369] relu3 -> ip3 (in-place)
I0430 20:18:27.555160 28438 net.cpp:124] Setting up relu3
I0430 20:18:27.555169 28438 net.cpp:131] Top shape: 111 10 (1110)
I0430 20:18:27.555172 28438 net.cpp:139] Memory required for data: 1586412
I0430 20:18:27.555176 28438 layer_factory.hpp:77] Creating layer ip4
I0430 20:18:27.555183 28438 net.cpp:86] Creating Layer ip4
I0430 20:18:27.555186 28438 net.cpp:408] ip4 <- ip3
I0430 20:18:27.555191 28438 net.cpp:382] ip4 -> ip4
I0430 20:18:27.555287 28438 net.cpp:124] Setting up ip4
I0430 20:18:27.555294 28438 net.cpp:131] Top shape: 111 10 (1110)
I0430 20:18:27.555297 28438 net.cpp:139] Memory required for data: 1590852
I0430 20:18:27.555304 28438 layer_factory.hpp:77] Creating layer loss
I0430 20:18:27.555310 28438 net.cpp:86] Creating Layer loss
I0430 20:18:27.555312 28438 net.cpp:408] loss <- ip4
I0430 20:18:27.555316 28438 net.cpp:408] loss <- label
I0430 20:18:27.555322 28438 net.cpp:382] loss -> loss
I0430 20:18:27.555341 28438 layer_factory.hpp:77] Creating layer loss
…
I0430 20:18:27.555893 28438 solver.cpp:173] Creating test net (#0) specified by net file: ECE595/cifar/train_test/var_everything/cifar_train_test_125.prototxt
I0430 20:18:27.555928 28438 net.cpp:296] The NetState phase (1) differed from the phase (0) specified by a rule in layer cifar
I0430 20:18:27.556001 28438 net.cpp:53] Initializing net from parameters: 
name: "CIFAR"
state {
  phase: TEST
}
layer {
  name: "cifar"
  type: "Data"
  top: "data"
  top: "label"
  include {
    phase: TEST
  }
  transform_param {
    mean_file: "examples/cifar10/mean.binaryproto"
  }
  data_param {
    source: "examples/cifar10/cifar10_test_lmdb"
    batch_size: 1000
    backend: LMDB
  }
}
layer {
  name: "ip1"
  type: "InnerProduct"
  bottom: "data"
  top: "ip1"
  param {
    lr_mult: 1
  }
  param {
    lr_mult: 2
  }
  inner_product_param {
    num_output: 80
    weight_filler {
      type: "gaussian"
      std: 0.01
    }
    bias_filler {
      type: "constant"
    }
  }
}
layer {
  name: "relu1"
  type: "ReLU"
  bottom: "ip1"
  top: "ip1"
}
layer {
  name: "ip2"
  type: "InnerProduct"
  bottom: "ip1"
  top: "ip2"
  param {
    lr_mult: 1
  }
  param {
    lr_mult: 2
  }
  inner_product_param {
    num_output: 160
    weight_filler {
      type: "gaussian"
      std: 0.01
    }
    bias_filler {
      type: "constant"
    }
  }
}
layer {
  name: "relu2"
  type: "ReLU"
  bottom: "ip2"
  top: "ip2"
}
layer {
  name: "ip3"
  type: "InnerProduct"
  bottom: "ip2"
  top: "ip3"
  param {
    lr_mult: 1
  }
  param {
    lr_mult: 2
  }
  inner_product_param {
    num_output: 10
    weight_filler {
      type: "gaussian"
      std: 0.01
    }
    bias_filler {
      type: "constant"
    }
  }
}
layer {
  name: "relu3"
  type: "ReLU"
  bottom: "ip3"
  top: "ip3"
}
layer {
  name: "ip4"
  type: "InnerProduct"
  bottom: "ip3"
  top: "ip4"
  param {
    lr_mult: 1
  }
  param {
    lr_mult: 2
  }
  inner_product_param {
    num_output: 10
    weight_filler {
      type: "gaussian"
      std: 0.01
    }
    bias_filler {
      type: "constant"
    }
  }
}
layer {
  name: "accuracy"
  type: "Accuracy"
  bottom: "ip4"
  bottom: "label"
  top: "accuracy"
  include {
    phase: TEST
  }
}
layer {
  name: "loss"
  type: "SoftmaxWithLoss"
  bottom: "ip4"
  bottom: "label"
  top: "loss"
}
I0430 20:18:27.556067 28438 layer_factory.hpp:77] Creating layer cifar
I0430 20:18:27.556113 28438 db_lmdb.cpp:35] Opened lmdb examples/cifar10/cifar10_test_lmdb
I0430 20:18:27.556125 28438 net.cpp:86] Creating Layer cifar
I0430 20:18:27.556130 28438 net.cpp:382] cifar -> data
I0430 20:18:27.556138 28438 net.cpp:382] cifar -> label
I0430 20:18:27.556144 28438 data_transformer.cpp:25] Loading mean file from: examples/cifar10/mean.binaryproto
I0430 20:18:27.556293 28438 data_layer.cpp:45] output data size: 1000,3,32,32
I0430 20:18:27.578390 28438 net.cpp:124] Setting up cifar
I0430 20:18:27.578433 28438 net.cpp:131] Top shape: 1000 3 32 32 (3072000)
I0430 20:18:27.578438 28438 net.cpp:131] Top shape: 1000 (1000)
I0430 20:18:27.578441 28438 net.cpp:139] Memory required for data: 12292000
I0430 20:18:27.578446 28438 layer_factory.hpp:77] Creating layer label_cifar_1_split
I0430 20:18:27.578480 28438 net.cpp:86] Creating Layer label_cifar_1_split
I0430 20:18:27.578483 28438 net.cpp:408] label_cifar_1_split <- label
I0430 20:18:27.578490 28438 net.cpp:382] label_cifar_1_split -> label_cifar_1_split_0
I0430 20:18:27.578497 28438 net.cpp:382] label_cifar_1_split -> label_cifar_1_split_1
I0430 20:18:27.578601 28438 net.cpp:124] Setting up label_cifar_1_split
I0430 20:18:27.578608 28438 net.cpp:131] Top shape: 1000 (1000)
I0430 20:18:27.578613 28438 net.cpp:131] Top shape: 1000 (1000)
I0430 20:18:27.578615 28438 net.cpp:139] Memory required for data: 12300000
I0430 20:18:27.578619 28438 layer_factory.hpp:77] Creating layer ip1
I0430 20:18:27.578629 28438 net.cpp:86] Creating Layer ip1
I0430 20:18:27.578632 28438 net.cpp:408] ip1 <- data
I0430 20:18:27.578637 28438 net.cpp:382] ip1 -> ip1
I0430 20:18:27.585254 28438 net.cpp:124] Setting up ip1
I0430 20:18:27.585265 28438 net.cpp:131] Top shape: 1000 80 (80000)
I0430 20:18:27.585283 28438 net.cpp:139] Memory required for data: 12620000
I0430 20:18:27.585309 28438 layer_factory.hpp:77] Creating layer relu1
I0430 20:18:27.585315 28438 net.cpp:86] Creating Layer relu1
I0430 20:18:27.585319 28438 net.cpp:408] relu1 <- ip1
I0430 20:18:27.585340 28438 net.cpp:369] relu1 -> ip1 (in-place)
I0430 20:18:27.586144 28438 net.cpp:124] Setting up relu1
I0430 20:18:27.586156 28438 net.cpp:131] Top shape: 1000 80 (80000)
I0430 20:18:27.586179 28438 net.cpp:139] Memory required for data: 12940000
I0430 20:18:27.586184 28438 layer_factory.hpp:77] Creating layer ip2
I0430 20:18:27.586192 28438 net.cpp:86] Creating Layer ip2
I0430 20:18:27.586196 28438 net.cpp:408] ip2 <- ip1
I0430 20:18:27.586200 28438 net.cpp:382] ip2 -> ip2
I0430 20:18:27.586694 28438 net.cpp:124] Setting up ip2
I0430 20:18:27.586704 28438 net.cpp:131] Top shape: 1000 160 (160000)
I0430 20:18:27.586722 28438 net.cpp:139] Memory required for data: 13580000
I0430 20:18:27.586730 28438 layer_factory.hpp:77] Creating layer relu2
I0430 20:18:27.586736 28438 net.cpp:86] Creating Layer relu2
I0430 20:18:27.586740 28438 net.cpp:408] relu2 <- ip2
I0430 20:18:27.586760 28438 net.cpp:369] relu2 -> ip2 (in-place)
I0430 20:18:27.586936 28438 net.cpp:124] Setting up relu2
I0430 20:18:27.586946 28438 net.cpp:131] Top shape: 1000 160 (160000)
I0430 20:18:27.586948 28438 net.cpp:139] Memory required for data: 14220000
I0430 20:18:27.586951 28438 layer_factory.hpp:77] Creating layer ip3
I0430 20:18:27.586961 28438 net.cpp:86] Creating Layer ip3
I0430 20:18:27.586963 28438 net.cpp:408] ip3 <- ip2
I0430 20:18:27.586967 28438 net.cpp:382] ip3 -> ip3
I0430 20:18:27.587112 28438 net.cpp:124] Setting up ip3
I0430 20:18:27.587119 28438 net.cpp:131] Top shape: 1000 10 (10000)
I0430 20:18:27.587122 28438 net.cpp:139] Memory required for data: 14260000
I0430 20:18:27.587131 28438 layer_factory.hpp:77] Creating layer relu3
I0430 20:18:27.587136 28438 net.cpp:86] Creating Layer relu3
I0430 20:18:27.587141 28438 net.cpp:408] relu3 <- ip3
I0430 20:18:27.587144 28438 net.cpp:369] relu3 -> ip3 (in-place)
I0430 20:18:27.587297 28438 net.cpp:124] Setting up relu3
I0430 20:18:27.587306 28438 net.cpp:131] Top shape: 1000 10 (10000)
I0430 20:18:27.587309 28438 net.cpp:139] Memory required for data: 14300000
I0430 20:18:27.587312 28438 layer_factory.hpp:77] Creating layer ip4
I0430 20:18:27.587321 28438 net.cpp:86] Creating Layer ip4
I0430 20:18:27.587324 28438 net.cpp:408] ip4 <- ip3
I0430 20:18:27.587330 28438 net.cpp:382] ip4 -> ip4
I0430 20:18:27.587432 28438 net.cpp:124] Setting up ip4
I0430 20:18:27.587440 28438 net.cpp:131] Top shape: 1000 10 (10000)
I0430 20:18:27.587443 28438 net.cpp:139] Memory required for data: 14340000
I0430 20:18:27.587448 28438 layer_factory.hpp:77] Creating layer ip4_ip4_0_split
I0430 20:18:27.587453 28438 net.cpp:86] Creating Layer ip4_ip4_0_split
I0430 20:18:27.587456 28438 net.cpp:408] ip4_ip4_0_split <- ip4
I0430 20:18:27.587461 28438 net.cpp:382] ip4_ip4_0_split -> ip4_ip4_0_split_0
I0430 20:18:27.587468 28438 net.cpp:382] ip4_ip4_0_split -> ip4_ip4_0_split_1
I0430 20:18:27.587501 28438 net.cpp:124] Setting up ip4_ip4_0_split
I0430 20:18:27.587507 28438 net.cpp:131] Top shape: 1000 10 (10000)
I0430 20:18:27.587510 28438 net.cpp:131] Top shape: 1000 10 (10000)
I0430 20:18:27.587513 28438 net.cpp:139] Memory required for data: 14420000
I0430 20:18:27.587517 28438 layer_factory.hpp:77] Creating layer accuracy
I0430 20:18:27.587525 28438 net.cpp:86] Creating Layer accuracy
I0430 20:18:27.587529 28438 net.cpp:408] accuracy <- ip4_ip4_0_split_0
I0430 20:18:27.587532 28438 net.cpp:408] accuracy <- label_cifar_1_split_0
I0430 20:18:27.587538 28438 net.cpp:382] accuracy -> accuracy
…
