…
I0430 18:05:25.466840 22034 net.cpp:296] The NetState phase (0) differed from the phase (1) specified by a rule in layer cifar
I0430 18:05:25.466856 22034 net.cpp:296] The NetState phase (0) differed from the phase (1) specified by a rule in layer accuracy
I0430 18:05:25.466939 22034 net.cpp:53] Initializing net from parameters: 
name: "CIFAR"
state {
  phase: TRAIN
  level: 0
  stage: ""
}
layer {
  name: "cifar"
  type: "Data"
  top: "data"
  top: "label"
  include {
    phase: TRAIN
  }
  transform_param {
    mean_file: "examples/cifar10/mean.binaryproto"
  }
  data_param {
    source: "examples/cifar10/cifar10_train_lmdb"
    batch_size: 111
    backend: LMDB
  }
}
layer {
  name: "ip1"
  type: "InnerProduct"
  bottom: "data"
  top: "ip1"
  param {
    lr_mult: 1
  }
  param {
    lr_mult: 2
  }
  inner_product_param {
    num_output: 20
    weight_filler {
      type: "gaussian"
      std: 0.01
    }
    bias_filler {
      type: "constant"
    }
  }
}
layer {
  name: "relu1"
  type: "ReLU"
  bottom: "ip1"
  top: "ip1"
}
layer {
  name: "ip2"
  type: "InnerProduct"
  bottom: "ip1"
  top: "ip2"
  param {
    lr_mult: 1
  }
  param {
    lr_mult: 2
  }
  inner_product_param {
    num_output: 10
    weight_filler {
      type: "gaussian"
      std: 0.01
    }
    bias_filler {
      type: "constant"
    }
  }
}
layer {
  name: "relu2"
  type: "ReLU"
  bottom: "ip2"
  top: "ip2"
}
layer {
  name: "ip3"
  type: "InnerProduct"
  bottom: "ip2"
  top: "ip3"
  param {
    lr_mult: 1
  }
  param {
    lr_mult: 2
  }
  inner_product_param {
    num_output: 10
    weight_filler {
      type: "gaussian"
      std: 0.01
    }
    bias_filler {
      type: "constant"
    }
  }
}
layer {
  name: "relu3"
  type: "ReLU"
  bottom: "ip3"
  top: "ip3"
}
layer {
  name: "ip4"
  type: "InnerProduct"
  bottom: "ip3"
  top: "ip4"
  param {
    lr_mult: 1
  }
  param {
    lr_mult: 2
  }
  inner_product_param {
    num_output: 10
    weight_filler {
      type: "gaussian"
      std: 0.01
    }
    bias_filler {
      type: "constant"
    }
  }
}
layer {
  name: "loss"
  type: "SoftmaxWithLoss"
  bottom: "ip4"
  bottom: "label"
  top: "loss"
}
I0430 18:05:25.467011 22034 layer_factory.hpp:77] Creating layer cifar
I0430 18:05:25.467108 22034 db_lmdb.cpp:35] Opened lmdb examples/cifar10/cifar10_train_lmdb
I0430 18:05:25.467135 22034 net.cpp:86] Creating Layer cifar
I0430 18:05:25.467142 22034 net.cpp:382] cifar -> data
I0430 18:05:25.467167 22034 net.cpp:382] cifar -> label
I0430 18:05:25.467180 22034 data_transformer.cpp:25] Loading mean file from: examples/cifar10/mean.binaryproto
I0430 18:05:25.469300 22034 data_layer.cpp:45] output data size: 111,3,32,32
I0430 18:05:25.477192 22034 net.cpp:124] Setting up cifar
I0430 18:05:25.477211 22034 net.cpp:131] Top shape: 111 3 32 32 (340992)
I0430 18:05:25.477219 22034 net.cpp:131] Top shape: 111 (111)
I0430 18:05:25.477223 22034 net.cpp:139] Memory required for data: 1364412
I0430 18:05:25.477231 22034 layer_factory.hpp:77] Creating layer ip1
I0430 18:05:25.477242 22034 net.cpp:86] Creating Layer ip1
I0430 18:05:25.477248 22034 net.cpp:408] ip1 <- data
I0430 18:05:25.477259 22034 net.cpp:382] ip1 -> ip1
I0430 18:05:25.480507 22034 net.cpp:124] Setting up ip1
I0430 18:05:25.480525 22034 net.cpp:131] Top shape: 111 20 (2220)
I0430 18:05:25.480530 22034 net.cpp:139] Memory required for data: 1373292
I0430 18:05:25.480545 22034 layer_factory.hpp:77] Creating layer relu1
I0430 18:05:25.480552 22034 net.cpp:86] Creating Layer relu1
I0430 18:05:25.480572 22034 net.cpp:408] relu1 <- ip1
I0430 18:05:25.480579 22034 net.cpp:369] relu1 -> ip1 (in-place)
I0430 18:05:25.754357 22034 net.cpp:124] Setting up relu1
I0430 18:05:25.754384 22034 net.cpp:131] Top shape: 111 20 (2220)
I0430 18:05:25.754389 22034 net.cpp:139] Memory required for data: 1382172
I0430 18:05:25.754393 22034 layer_factory.hpp:77] Creating layer ip2
I0430 18:05:25.754405 22034 net.cpp:86] Creating Layer ip2
I0430 18:05:25.754408 22034 net.cpp:408] ip2 <- ip1
I0430 18:05:25.754417 22034 net.cpp:382] ip2 -> ip2
I0430 18:05:25.754549 22034 net.cpp:124] Setting up ip2
I0430 18:05:25.754557 22034 net.cpp:131] Top shape: 111 10 (1110)
I0430 18:05:25.754561 22034 net.cpp:139] Memory required for data: 1386612
I0430 18:05:25.754570 22034 layer_factory.hpp:77] Creating layer relu2
I0430 18:05:25.754576 22034 net.cpp:86] Creating Layer relu2
I0430 18:05:25.754580 22034 net.cpp:408] relu2 <- ip2
I0430 18:05:25.754583 22034 net.cpp:369] relu2 -> ip2 (in-place)
I0430 18:05:25.755285 22034 net.cpp:124] Setting up relu2
I0430 18:05:25.755297 22034 net.cpp:131] Top shape: 111 10 (1110)
I0430 18:05:25.755301 22034 net.cpp:139] Memory required for data: 1391052
I0430 18:05:25.755304 22034 layer_factory.hpp:77] Creating layer ip3
I0430 18:05:25.755311 22034 net.cpp:86] Creating Layer ip3
I0430 18:05:25.755313 22034 net.cpp:408] ip3 <- ip2
I0430 18:05:25.755318 22034 net.cpp:382] ip3 -> ip3
I0430 18:05:25.755424 22034 net.cpp:124] Setting up ip3
I0430 18:05:25.755432 22034 net.cpp:131] Top shape: 111 10 (1110)
I0430 18:05:25.755435 22034 net.cpp:139] Memory required for data: 1395492
I0430 18:05:25.755442 22034 layer_factory.hpp:77] Creating layer relu3
I0430 18:05:25.755446 22034 net.cpp:86] Creating Layer relu3
I0430 18:05:25.755450 22034 net.cpp:408] relu3 <- ip3
I0430 18:05:25.755453 22034 net.cpp:369] relu3 -> ip3 (in-place)
I0430 18:05:25.755589 22034 net.cpp:124] Setting up relu3
I0430 18:05:25.755596 22034 net.cpp:131] Top shape: 111 10 (1110)
I0430 18:05:25.755599 22034 net.cpp:139] Memory required for data: 1399932
I0430 18:05:25.755602 22034 layer_factory.hpp:77] Creating layer ip4
I0430 18:05:25.755609 22034 net.cpp:86] Creating Layer ip4
I0430 18:05:25.755611 22034 net.cpp:408] ip4 <- ip3
I0430 18:05:25.755616 22034 net.cpp:382] ip4 -> ip4
I0430 18:05:25.755702 22034 net.cpp:124] Setting up ip4
I0430 18:05:25.755724 22034 net.cpp:131] Top shape: 111 10 (1110)
I0430 18:05:25.755728 22034 net.cpp:139] Memory required for data: 1404372
I0430 18:05:25.755733 22034 layer_factory.hpp:77] Creating layer loss
I0430 18:05:25.755739 22034 net.cpp:86] Creating Layer loss
I0430 18:05:25.755743 22034 net.cpp:408] loss <- ip4
I0430 18:05:25.755745 22034 net.cpp:408] loss <- label
I0430 18:05:25.755750 22034 net.cpp:382] loss -> loss
I0430 18:05:25.755784 22034 layer_factory.hpp:77] Creating layer loss
…
I0430 18:05:25.756364 22034 solver.cpp:173] Creating test net (#0) specified by net file: ECE595/cifar/train_test/var_everything/cifar_train_test_55.prototxt
I0430 18:05:25.756400 22034 net.cpp:296] The NetState phase (1) differed from the phase (0) specified by a rule in layer cifar
I0430 18:05:25.756477 22034 net.cpp:53] Initializing net from parameters: 
name: "CIFAR"
state {
  phase: TEST
}
layer {
  name: "cifar"
  type: "Data"
  top: "data"
  top: "label"
  include {
    phase: TEST
  }
  transform_param {
    mean_file: "examples/cifar10/mean.binaryproto"
  }
  data_param {
    source: "examples/cifar10/cifar10_test_lmdb"
    batch_size: 1000
    backend: LMDB
  }
}
layer {
  name: "ip1"
  type: "InnerProduct"
  bottom: "data"
  top: "ip1"
  param {
    lr_mult: 1
  }
  param {
    lr_mult: 2
  }
  inner_product_param {
    num_output: 20
    weight_filler {
      type: "gaussian"
      std: 0.01
    }
    bias_filler {
      type: "constant"
    }
  }
}
layer {
  name: "relu1"
  type: "ReLU"
  bottom: "ip1"
  top: "ip1"
}
layer {
  name: "ip2"
  type: "InnerProduct"
  bottom: "ip1"
  top: "ip2"
  param {
    lr_mult: 1
  }
  param {
    lr_mult: 2
  }
  inner_product_param {
    num_output: 10
    weight_filler {
      type: "gaussian"
      std: 0.01
    }
    bias_filler {
      type: "constant"
    }
  }
}
layer {
  name: "relu2"
  type: "ReLU"
  bottom: "ip2"
  top: "ip2"
}
layer {
  name: "ip3"
  type: "InnerProduct"
  bottom: "ip2"
  top: "ip3"
  param {
    lr_mult: 1
  }
  param {
    lr_mult: 2
  }
  inner_product_param {
    num_output: 10
    weight_filler {
      type: "gaussian"
      std: 0.01
    }
    bias_filler {
      type: "constant"
    }
  }
}
layer {
  name: "relu3"
  type: "ReLU"
  bottom: "ip3"
  top: "ip3"
}
layer {
  name: "ip4"
  type: "InnerProduct"
  bottom: "ip3"
  top: "ip4"
  param {
    lr_mult: 1
  }
  param {
    lr_mult: 2
  }
  inner_product_param {
    num_output: 10
    weight_filler {
      type: "gaussian"
      std: 0.01
    }
    bias_filler {
      type: "constant"
    }
  }
}
layer {
  name: "accuracy"
  type: "Accuracy"
  bottom: "ip4"
  bottom: "label"
  top: "accuracy"
  include {
    phase: TEST
  }
}
layer {
  name: "loss"
  type: "SoftmaxWithLoss"
  bottom: "ip4"
  bottom: "label"
  top: "loss"
}
I0430 18:05:25.756538 22034 layer_factory.hpp:77] Creating layer cifar
I0430 18:05:25.756580 22034 db_lmdb.cpp:35] Opened lmdb examples/cifar10/cifar10_test_lmdb
I0430 18:05:25.756592 22034 net.cpp:86] Creating Layer cifar
I0430 18:05:25.756597 22034 net.cpp:382] cifar -> data
I0430 18:05:25.756604 22034 net.cpp:382] cifar -> label
I0430 18:05:25.756610 22034 data_transformer.cpp:25] Loading mean file from: examples/cifar10/mean.binaryproto
I0430 18:05:25.756753 22034 data_layer.cpp:45] output data size: 1000,3,32,32
I0430 18:05:25.778877 22034 net.cpp:124] Setting up cifar
I0430 18:05:25.778918 22034 net.cpp:131] Top shape: 1000 3 32 32 (3072000)
I0430 18:05:25.778924 22034 net.cpp:131] Top shape: 1000 (1000)
I0430 18:05:25.778926 22034 net.cpp:139] Memory required for data: 12292000
I0430 18:05:25.778933 22034 layer_factory.hpp:77] Creating layer label_cifar_1_split
I0430 18:05:25.778949 22034 net.cpp:86] Creating Layer label_cifar_1_split
I0430 18:05:25.778954 22034 net.cpp:408] label_cifar_1_split <- label
I0430 18:05:25.778961 22034 net.cpp:382] label_cifar_1_split -> label_cifar_1_split_0
I0430 18:05:25.778985 22034 net.cpp:382] label_cifar_1_split -> label_cifar_1_split_1
I0430 18:05:25.779114 22034 net.cpp:124] Setting up label_cifar_1_split
I0430 18:05:25.779124 22034 net.cpp:131] Top shape: 1000 (1000)
I0430 18:05:25.779127 22034 net.cpp:131] Top shape: 1000 (1000)
I0430 18:05:25.779129 22034 net.cpp:139] Memory required for data: 12300000
I0430 18:05:25.779134 22034 layer_factory.hpp:77] Creating layer ip1
I0430 18:05:25.779142 22034 net.cpp:86] Creating Layer ip1
I0430 18:05:25.779145 22034 net.cpp:408] ip1 <- data
I0430 18:05:25.779151 22034 net.cpp:382] ip1 -> ip1
I0430 18:05:25.781827 22034 net.cpp:124] Setting up ip1
I0430 18:05:25.781838 22034 net.cpp:131] Top shape: 1000 20 (20000)
I0430 18:05:25.781842 22034 net.cpp:139] Memory required for data: 12380000
I0430 18:05:25.781867 22034 layer_factory.hpp:77] Creating layer relu1
I0430 18:05:25.781878 22034 net.cpp:86] Creating Layer relu1
I0430 18:05:25.781883 22034 net.cpp:408] relu1 <- ip1
I0430 18:05:25.781888 22034 net.cpp:369] relu1 -> ip1 (in-place)
I0430 18:05:25.782685 22034 net.cpp:124] Setting up relu1
I0430 18:05:25.782698 22034 net.cpp:131] Top shape: 1000 20 (20000)
I0430 18:05:25.782702 22034 net.cpp:139] Memory required for data: 12460000
I0430 18:05:25.782706 22034 layer_factory.hpp:77] Creating layer ip2
I0430 18:05:25.782714 22034 net.cpp:86] Creating Layer ip2
I0430 18:05:25.782718 22034 net.cpp:408] ip2 <- ip1
I0430 18:05:25.782724 22034 net.cpp:382] ip2 -> ip2
I0430 18:05:25.782845 22034 net.cpp:124] Setting up ip2
I0430 18:05:25.782853 22034 net.cpp:131] Top shape: 1000 10 (10000)
I0430 18:05:25.782856 22034 net.cpp:139] Memory required for data: 12500000
I0430 18:05:25.782865 22034 layer_factory.hpp:77] Creating layer relu2
I0430 18:05:25.782871 22034 net.cpp:86] Creating Layer relu2
I0430 18:05:25.782873 22034 net.cpp:408] relu2 <- ip2
I0430 18:05:25.782877 22034 net.cpp:369] relu2 -> ip2 (in-place)
I0430 18:05:25.783041 22034 net.cpp:124] Setting up relu2
I0430 18:05:25.783051 22034 net.cpp:131] Top shape: 1000 10 (10000)
I0430 18:05:25.783053 22034 net.cpp:139] Memory required for data: 12540000
I0430 18:05:25.783056 22034 layer_factory.hpp:77] Creating layer ip3
I0430 18:05:25.783063 22034 net.cpp:86] Creating Layer ip3
I0430 18:05:25.783066 22034 net.cpp:408] ip3 <- ip2
I0430 18:05:25.783072 22034 net.cpp:382] ip3 -> ip3
I0430 18:05:25.783181 22034 net.cpp:124] Setting up ip3
I0430 18:05:25.783190 22034 net.cpp:131] Top shape: 1000 10 (10000)
I0430 18:05:25.783192 22034 net.cpp:139] Memory required for data: 12580000
I0430 18:05:25.783200 22034 layer_factory.hpp:77] Creating layer relu3
I0430 18:05:25.783206 22034 net.cpp:86] Creating Layer relu3
I0430 18:05:25.783210 22034 net.cpp:408] relu3 <- ip3
I0430 18:05:25.783215 22034 net.cpp:369] relu3 -> ip3 (in-place)
I0430 18:05:25.783375 22034 net.cpp:124] Setting up relu3
I0430 18:05:25.783383 22034 net.cpp:131] Top shape: 1000 10 (10000)
I0430 18:05:25.783386 22034 net.cpp:139] Memory required for data: 12620000
I0430 18:05:25.783390 22034 layer_factory.hpp:77] Creating layer ip4
I0430 18:05:25.783399 22034 net.cpp:86] Creating Layer ip4
I0430 18:05:25.783403 22034 net.cpp:408] ip4 <- ip3
I0430 18:05:25.783408 22034 net.cpp:382] ip4 -> ip4
I0430 18:05:25.783514 22034 net.cpp:124] Setting up ip4
I0430 18:05:25.783521 22034 net.cpp:131] Top shape: 1000 10 (10000)
I0430 18:05:25.783524 22034 net.cpp:139] Memory required for data: 12660000
I0430 18:05:25.783529 22034 layer_factory.hpp:77] Creating layer ip4_ip4_0_split
I0430 18:05:25.783536 22034 net.cpp:86] Creating Layer ip4_ip4_0_split
I0430 18:05:25.783540 22034 net.cpp:408] ip4_ip4_0_split <- ip4
I0430 18:05:25.783543 22034 net.cpp:382] ip4_ip4_0_split -> ip4_ip4_0_split_0
I0430 18:05:25.783550 22034 net.cpp:382] ip4_ip4_0_split -> ip4_ip4_0_split_1
I0430 18:05:25.783582 22034 net.cpp:124] Setting up ip4_ip4_0_split
I0430 18:05:25.783589 22034 net.cpp:131] Top shape: 1000 10 (10000)
I0430 18:05:25.783593 22034 net.cpp:131] Top shape: 1000 10 (10000)
I0430 18:05:25.783596 22034 net.cpp:139] Memory required for data: 12740000
I0430 18:05:25.783598 22034 layer_factory.hpp:77] Creating layer accuracy
I0430 18:05:25.783605 22034 net.cpp:86] Creating Layer accuracy
I0430 18:05:25.783608 22034 net.cpp:408] accuracy <- ip4_ip4_0_split_0
I0430 18:05:25.783612 22034 net.cpp:408] accuracy <- label_cifar_1_split_0
I0430 18:05:25.783617 22034 net.cpp:382] accuracy -> accuracy
…
