…
I0430 22:34:54.690330  2570 net.cpp:296] The NetState phase (0) differed from the phase (1) specified by a rule in layer cifar
I0430 22:34:54.690374  2570 net.cpp:296] The NetState phase (0) differed from the phase (1) specified by a rule in layer accuracy
I0430 22:34:54.690497  2570 net.cpp:53] Initializing net from parameters: 
name: "CIFAR"
state {
  phase: TRAIN
  level: 0
  stage: ""
}
layer {
  name: "cifar"
  type: "Data"
  top: "data"
  top: "label"
  include {
    phase: TRAIN
  }
  transform_param {
    mean_file: "examples/cifar10/mean.binaryproto"
  }
  data_param {
    source: "examples/cifar10/cifar10_train_lmdb"
    batch_size: 111
    backend: LMDB
  }
}
layer {
  name: "conv0"
  type: "Convolution"
  bottom: "data"
  top: "conv0"
  param {
    lr_mult: 1
  }
  param {
    lr_mult: 2
  }
  convolution_param {
    num_output: 8
    pad: 2
    kernel_size: 3
    stride: 1
    weight_filler {
      type: "gaussian"
      std: 0.01
    }
    bias_filler {
      type: "constant"
    }
  }
}
layer {
  name: "Sigmoid0"
  type: "Sigmoid"
  bottom: "conv0"
  top: "Sigmoid0"
}
layer {
  name: "pool0"
  type: "Pooling"
  bottom: "Sigmoid0"
  top: "pool0"
  pooling_param {
    pool: AVE
    kernel_size: 3
    stride: 2
  }
}
layer {
  name: "ip1"
  type: "InnerProduct"
  bottom: "pool0"
  top: "ip1"
  param {
    lr_mult: 1
  }
  param {
    lr_mult: 2
  }
  inner_product_param {
    num_output: 10
    weight_filler {
      type: "gaussian"
      std: 0.01
    }
    bias_filler {
      type: "constant"
    }
  }
}
layer {
  name: "relu1"
  type: "ReLU"
  bottom: "ip1"
  top: "ip1"
}
layer {
  name: "ip2"
  type: "InnerProduct"
  bottom: "ip1"
  top: "ip2"
  param {
    lr_mult: 1
  }
  param {
    lr_mult: 2
  }
  inner_product_param {
    num_output: 40
    weight_filler {
      type: "gaussian"
      std: 0.01
    }
    bias_filler {
      type: "constant"
    }
  }
}
layer {
  name: "relu2"
  type: "ReLU"
  bottom: "ip2"
  top: "ip2"
}
layer {
  name: "ip3"
  type: "InnerProduct"
  bottom: "ip2"
  top: "ip3"
  param {
    lr_mult: 1
  }
  param {
    lr_mult: 2
  }
  inner_product_param {
    num_output: 80
    weight_filler {
      type: "gaussian"
      std: 0.01
    }
    bias_filler {
      type: "constant"
    }
  }
}
layer {
  name: "relu3"
  type: "ReLU"
  bottom: "ip3"
  top: "ip3"
}
layer {
  name: "ip4"
  type: "InnerProduct"
  bottom: "ip3"
  top: "ip4"
  param {
    lr_mult: 1
  }
  param {
    lr_mult: 2
  }
  inner_product_param {
    num_output: 10
    weight_filler {
      type: "gaussian"
      std: 0.01
    }
    bias_filler {
      type: "constant"
    }
  }
}
layer {
  name: "loss"
  type: "SoftmaxWithLoss"
  bottom: "ip4"
  bottom: "label"
  top: "loss"
}
I0430 22:34:54.690577  2570 layer_factory.hpp:77] Creating layer cifar
I0430 22:34:54.690659  2570 db_lmdb.cpp:35] Opened lmdb examples/cifar10/cifar10_train_lmdb
I0430 22:34:54.690681  2570 net.cpp:86] Creating Layer cifar
I0430 22:34:54.690690  2570 net.cpp:382] cifar -> data
I0430 22:34:54.690709  2570 net.cpp:382] cifar -> label
I0430 22:34:54.690723  2570 data_transformer.cpp:25] Loading mean file from: examples/cifar10/mean.binaryproto
I0430 22:34:54.692450  2570 data_layer.cpp:45] output data size: 111,3,32,32
I0430 22:34:54.698946  2570 net.cpp:124] Setting up cifar
I0430 22:34:54.698977  2570 net.cpp:131] Top shape: 111 3 32 32 (340992)
I0430 22:34:54.698982  2570 net.cpp:131] Top shape: 111 (111)
I0430 22:34:54.698984  2570 net.cpp:139] Memory required for data: 1364412
I0430 22:34:54.699003  2570 layer_factory.hpp:77] Creating layer conv0
I0430 22:34:54.699019  2570 net.cpp:86] Creating Layer conv0
I0430 22:34:54.699024  2570 net.cpp:408] conv0 <- data
I0430 22:34:54.699034  2570 net.cpp:382] conv0 -> conv0
I0430 22:34:54.927289  2570 net.cpp:124] Setting up conv0
I0430 22:34:54.927314  2570 net.cpp:131] Top shape: 111 8 34 34 (1026528)
I0430 22:34:54.927317  2570 net.cpp:139] Memory required for data: 5470524
I0430 22:34:54.927331  2570 layer_factory.hpp:77] Creating layer Sigmoid0
I0430 22:34:54.927342  2570 net.cpp:86] Creating Layer Sigmoid0
I0430 22:34:54.927346  2570 net.cpp:408] Sigmoid0 <- conv0
I0430 22:34:54.927351  2570 net.cpp:382] Sigmoid0 -> Sigmoid0
I0430 22:34:54.927554  2570 net.cpp:124] Setting up Sigmoid0
I0430 22:34:54.927563  2570 net.cpp:131] Top shape: 111 8 34 34 (1026528)
I0430 22:34:54.927567  2570 net.cpp:139] Memory required for data: 9576636
I0430 22:34:54.927569  2570 layer_factory.hpp:77] Creating layer pool0
I0430 22:34:54.927577  2570 net.cpp:86] Creating Layer pool0
I0430 22:34:54.927582  2570 net.cpp:408] pool0 <- Sigmoid0
I0430 22:34:54.927603  2570 net.cpp:382] pool0 -> pool0
I0430 22:34:54.928344  2570 net.cpp:124] Setting up pool0
I0430 22:34:54.928372  2570 net.cpp:131] Top shape: 111 8 17 17 (256632)
I0430 22:34:54.928375  2570 net.cpp:139] Memory required for data: 10603164
I0430 22:34:54.928380  2570 layer_factory.hpp:77] Creating layer ip1
I0430 22:34:54.928403  2570 net.cpp:86] Creating Layer ip1
I0430 22:34:54.928406  2570 net.cpp:408] ip1 <- pool0
I0430 22:34:54.928411  2570 net.cpp:382] ip1 -> ip1
I0430 22:34:54.929944  2570 net.cpp:124] Setting up ip1
I0430 22:34:54.929956  2570 net.cpp:131] Top shape: 111 10 (1110)
I0430 22:34:54.929960  2570 net.cpp:139] Memory required for data: 10607604
I0430 22:34:54.929967  2570 layer_factory.hpp:77] Creating layer relu1
I0430 22:34:54.929972  2570 net.cpp:86] Creating Layer relu1
I0430 22:34:54.929975  2570 net.cpp:408] relu1 <- ip1
I0430 22:34:54.929980  2570 net.cpp:369] relu1 -> ip1 (in-place)
I0430 22:34:54.930148  2570 net.cpp:124] Setting up relu1
I0430 22:34:54.930156  2570 net.cpp:131] Top shape: 111 10 (1110)
I0430 22:34:54.930160  2570 net.cpp:139] Memory required for data: 10612044
I0430 22:34:54.930162  2570 layer_factory.hpp:77] Creating layer ip2
I0430 22:34:54.930168  2570 net.cpp:86] Creating Layer ip2
I0430 22:34:54.930171  2570 net.cpp:408] ip2 <- ip1
I0430 22:34:54.930177  2570 net.cpp:382] ip2 -> ip2
I0430 22:34:54.931078  2570 net.cpp:124] Setting up ip2
I0430 22:34:54.931089  2570 net.cpp:131] Top shape: 111 40 (4440)
I0430 22:34:54.931092  2570 net.cpp:139] Memory required for data: 10629804
I0430 22:34:54.931100  2570 layer_factory.hpp:77] Creating layer relu2
I0430 22:34:54.931105  2570 net.cpp:86] Creating Layer relu2
I0430 22:34:54.931108  2570 net.cpp:408] relu2 <- ip2
I0430 22:34:54.931113  2570 net.cpp:369] relu2 -> ip2 (in-place)
I0430 22:34:54.931288  2570 net.cpp:124] Setting up relu2
I0430 22:34:54.931296  2570 net.cpp:131] Top shape: 111 40 (4440)
I0430 22:34:54.931298  2570 net.cpp:139] Memory required for data: 10647564
I0430 22:34:54.931301  2570 layer_factory.hpp:77] Creating layer ip3
I0430 22:34:54.931309  2570 net.cpp:86] Creating Layer ip3
I0430 22:34:54.931314  2570 net.cpp:408] ip3 <- ip2
I0430 22:34:54.931335  2570 net.cpp:382] ip3 -> ip3
I0430 22:34:54.931516  2570 net.cpp:124] Setting up ip3
I0430 22:34:54.931524  2570 net.cpp:131] Top shape: 111 80 (8880)
I0430 22:34:54.931527  2570 net.cpp:139] Memory required for data: 10683084
I0430 22:34:54.931532  2570 layer_factory.hpp:77] Creating layer relu3
I0430 22:34:54.931537  2570 net.cpp:86] Creating Layer relu3
I0430 22:34:54.931540  2570 net.cpp:408] relu3 <- ip3
I0430 22:34:54.931545  2570 net.cpp:369] relu3 -> ip3 (in-place)
I0430 22:34:54.931710  2570 net.cpp:124] Setting up relu3
I0430 22:34:54.931718  2570 net.cpp:131] Top shape: 111 80 (8880)
I0430 22:34:54.931721  2570 net.cpp:139] Memory required for data: 10718604
I0430 22:34:54.931725  2570 layer_factory.hpp:77] Creating layer ip4
I0430 22:34:54.931744  2570 net.cpp:86] Creating Layer ip4
I0430 22:34:54.931749  2570 net.cpp:408] ip4 <- ip3
I0430 22:34:54.931771  2570 net.cpp:382] ip4 -> ip4
I0430 22:34:54.931913  2570 net.cpp:124] Setting up ip4
I0430 22:34:54.931922  2570 net.cpp:131] Top shape: 111 10 (1110)
I0430 22:34:54.931926  2570 net.cpp:139] Memory required for data: 10723044
I0430 22:34:54.931933  2570 layer_factory.hpp:77] Creating layer loss
I0430 22:34:54.931938  2570 net.cpp:86] Creating Layer loss
I0430 22:34:54.931941  2570 net.cpp:408] loss <- ip4
I0430 22:34:54.931946  2570 net.cpp:408] loss <- label
I0430 22:34:54.931951  2570 net.cpp:382] loss -> loss
I0430 22:34:54.931967  2570 layer_factory.hpp:77] Creating layer loss
…
I0430 22:34:54.933296  2570 solver.cpp:173] Creating test net (#0) specified by net file: ECE595/cifar/train_test/var_everything/cifar_train_test_198.prototxt
I0430 22:34:54.933336  2570 net.cpp:296] The NetState phase (1) differed from the phase (0) specified by a rule in layer cifar
I0430 22:34:54.933428  2570 net.cpp:53] Initializing net from parameters: 
name: "CIFAR"
state {
  phase: TEST
}
layer {
  name: "cifar"
  type: "Data"
  top: "data"
  top: "label"
  include {
    phase: TEST
  }
  transform_param {
    mean_file: "examples/cifar10/mean.binaryproto"
  }
  data_param {
    source: "examples/cifar10/cifar10_test_lmdb"
    batch_size: 1000
    backend: LMDB
  }
}
layer {
  name: "conv0"
  type: "Convolution"
  bottom: "data"
  top: "conv0"
  param {
    lr_mult: 1
  }
  param {
    lr_mult: 2
  }
  convolution_param {
    num_output: 8
    pad: 2
    kernel_size: 3
    stride: 1
    weight_filler {
      type: "gaussian"
      std: 0.01
    }
    bias_filler {
      type: "constant"
    }
  }
}
layer {
  name: "Sigmoid0"
  type: "Sigmoid"
  bottom: "conv0"
  top: "Sigmoid0"
}
layer {
  name: "pool0"
  type: "Pooling"
  bottom: "Sigmoid0"
  top: "pool0"
  pooling_param {
    pool: AVE
    kernel_size: 3
    stride: 2
  }
}
layer {
  name: "ip1"
  type: "InnerProduct"
  bottom: "pool0"
  top: "ip1"
  param {
    lr_mult: 1
  }
  param {
    lr_mult: 2
  }
  inner_product_param {
    num_output: 10
    weight_filler {
      type: "gaussian"
      std: 0.01
    }
    bias_filler {
      type: "constant"
    }
  }
}
layer {
  name: "relu1"
  type: "ReLU"
  bottom: "ip1"
  top: "ip1"
}
layer {
  name: "ip2"
  type: "InnerProduct"
  bottom: "ip1"
  top: "ip2"
  param {
    lr_mult: 1
  }
  param {
    lr_mult: 2
  }
  inner_product_param {
    num_output: 40
    weight_filler {
      type: "gaussian"
      std: 0.01
    }
    bias_filler {
      type: "constant"
    }
  }
}
layer {
  name: "relu2"
  type: "ReLU"
  bottom: "ip2"
  top: "ip2"
}
layer {
  name: "ip3"
  type: "InnerProduct"
  bottom: "ip2"
  top: "ip3"
  param {
    lr_mult: 1
  }
  param {
    lr_mult: 2
  }
  inner_product_param {
    num_output: 80
    weight_filler {
      type: "gaussian"
      std: 0.01
    }
    bias_filler {
      type: "constant"
    }
  }
}
layer {
  name: "relu3"
  type: "ReLU"
  bottom: "ip3"
  top: "ip3"
}
layer {
  name: "ip4"
  type: "InnerProduct"
  bottom: "ip3"
  top: "ip4"
  param {
    lr_mult: 1
  }
  param {
    lr_mult: 2
  }
  inner_product_param {
    num_output: 10
    weight_filler {
      type: "gaussian"
      std: 0.01
    }
    bias_filler {
      type: "constant"
    }
  }
}
layer {
  name: "accuracy"
  type: "Accuracy"
  bottom: "ip4"
  bottom: "label"
  top: "accuracy"
  include {
    phase: TEST
  }
}
layer {
  name: "loss"
  type: "SoftmaxWithLoss"
  bottom: "ip4"
  bottom: "label"
  top: "loss"
}
I0430 22:34:54.933507  2570 layer_factory.hpp:77] Creating layer cifar
I0430 22:34:54.933550  2570 db_lmdb.cpp:35] Opened lmdb examples/cifar10/cifar10_test_lmdb
I0430 22:34:54.933579  2570 net.cpp:86] Creating Layer cifar
I0430 22:34:54.933584  2570 net.cpp:382] cifar -> data
I0430 22:34:54.933593  2570 net.cpp:382] cifar -> label
I0430 22:34:54.933599  2570 data_transformer.cpp:25] Loading mean file from: examples/cifar10/mean.binaryproto
I0430 22:34:54.933742  2570 data_layer.cpp:45] output data size: 1000,3,32,32
I0430 22:34:54.955261  2570 net.cpp:124] Setting up cifar
I0430 22:34:54.955302  2570 net.cpp:131] Top shape: 1000 3 32 32 (3072000)
I0430 22:34:54.955307  2570 net.cpp:131] Top shape: 1000 (1000)
I0430 22:34:54.955309  2570 net.cpp:139] Memory required for data: 12292000
I0430 22:34:54.955314  2570 layer_factory.hpp:77] Creating layer label_cifar_1_split
I0430 22:34:54.955327  2570 net.cpp:86] Creating Layer label_cifar_1_split
I0430 22:34:54.955332  2570 net.cpp:408] label_cifar_1_split <- label
I0430 22:34:54.955338  2570 net.cpp:382] label_cifar_1_split -> label_cifar_1_split_0
I0430 22:34:54.955361  2570 net.cpp:382] label_cifar_1_split -> label_cifar_1_split_1
I0430 22:34:54.955456  2570 net.cpp:124] Setting up label_cifar_1_split
I0430 22:34:54.955463  2570 net.cpp:131] Top shape: 1000 (1000)
I0430 22:34:54.955466  2570 net.cpp:131] Top shape: 1000 (1000)
I0430 22:34:54.955469  2570 net.cpp:139] Memory required for data: 12300000
I0430 22:34:54.955472  2570 layer_factory.hpp:77] Creating layer conv0
I0430 22:34:54.955484  2570 net.cpp:86] Creating Layer conv0
I0430 22:34:54.955487  2570 net.cpp:408] conv0 <- data
I0430 22:34:54.955493  2570 net.cpp:382] conv0 -> conv0
I0430 22:34:54.957255  2570 net.cpp:124] Setting up conv0
I0430 22:34:54.957268  2570 net.cpp:131] Top shape: 1000 8 34 34 (9248000)
I0430 22:34:54.957286  2570 net.cpp:139] Memory required for data: 49292000
I0430 22:34:54.957298  2570 layer_factory.hpp:77] Creating layer Sigmoid0
I0430 22:34:54.957304  2570 net.cpp:86] Creating Layer Sigmoid0
I0430 22:34:54.957307  2570 net.cpp:408] Sigmoid0 <- conv0
I0430 22:34:54.957311  2570 net.cpp:382] Sigmoid0 -> Sigmoid0
I0430 22:34:54.957505  2570 net.cpp:124] Setting up Sigmoid0
I0430 22:34:54.957515  2570 net.cpp:131] Top shape: 1000 8 34 34 (9248000)
I0430 22:34:54.957517  2570 net.cpp:139] Memory required for data: 86284000
I0430 22:34:54.957520  2570 layer_factory.hpp:77] Creating layer pool0
I0430 22:34:54.957528  2570 net.cpp:86] Creating Layer pool0
I0430 22:34:54.957531  2570 net.cpp:408] pool0 <- Sigmoid0
I0430 22:34:54.957536  2570 net.cpp:382] pool0 -> pool0
I0430 22:34:54.957770  2570 net.cpp:124] Setting up pool0
I0430 22:34:54.957779  2570 net.cpp:131] Top shape: 1000 8 17 17 (2312000)
I0430 22:34:54.957782  2570 net.cpp:139] Memory required for data: 95532000
I0430 22:34:54.957785  2570 layer_factory.hpp:77] Creating layer ip1
I0430 22:34:54.957792  2570 net.cpp:86] Creating Layer ip1
I0430 22:34:54.957795  2570 net.cpp:408] ip1 <- pool0
I0430 22:34:54.957804  2570 net.cpp:382] ip1 -> ip1
I0430 22:34:54.959504  2570 net.cpp:124] Setting up ip1
I0430 22:34:54.959513  2570 net.cpp:131] Top shape: 1000 10 (10000)
I0430 22:34:54.959530  2570 net.cpp:139] Memory required for data: 95572000
I0430 22:34:54.959553  2570 layer_factory.hpp:77] Creating layer relu1
I0430 22:34:54.959559  2570 net.cpp:86] Creating Layer relu1
I0430 22:34:54.959563  2570 net.cpp:408] relu1 <- ip1
I0430 22:34:54.959583  2570 net.cpp:369] relu1 -> ip1 (in-place)
I0430 22:34:54.959753  2570 net.cpp:124] Setting up relu1
I0430 22:34:54.959763  2570 net.cpp:131] Top shape: 1000 10 (10000)
I0430 22:34:54.959765  2570 net.cpp:139] Memory required for data: 95612000
I0430 22:34:54.959769  2570 layer_factory.hpp:77] Creating layer ip2
I0430 22:34:54.959792  2570 net.cpp:86] Creating Layer ip2
I0430 22:34:54.959795  2570 net.cpp:408] ip2 <- ip1
I0430 22:34:54.959800  2570 net.cpp:382] ip2 -> ip2
I0430 22:34:54.959916  2570 net.cpp:124] Setting up ip2
I0430 22:34:54.959923  2570 net.cpp:131] Top shape: 1000 40 (40000)
I0430 22:34:54.959926  2570 net.cpp:139] Memory required for data: 95772000
I0430 22:34:54.959933  2570 layer_factory.hpp:77] Creating layer relu2
I0430 22:34:54.959939  2570 net.cpp:86] Creating Layer relu2
I0430 22:34:54.959942  2570 net.cpp:408] relu2 <- ip2
I0430 22:34:54.959946  2570 net.cpp:369] relu2 -> ip2 (in-place)
I0430 22:34:54.960687  2570 net.cpp:124] Setting up relu2
I0430 22:34:54.960701  2570 net.cpp:131] Top shape: 1000 40 (40000)
I0430 22:34:54.960718  2570 net.cpp:139] Memory required for data: 95932000
I0430 22:34:54.960721  2570 layer_factory.hpp:77] Creating layer ip3
I0430 22:34:54.960728  2570 net.cpp:86] Creating Layer ip3
I0430 22:34:54.960731  2570 net.cpp:408] ip3 <- ip2
I0430 22:34:54.960738  2570 net.cpp:382] ip3 -> ip3
I0430 22:34:54.960952  2570 net.cpp:124] Setting up ip3
I0430 22:34:54.960961  2570 net.cpp:131] Top shape: 1000 80 (80000)
I0430 22:34:54.960964  2570 net.cpp:139] Memory required for data: 96252000
I0430 22:34:54.960970  2570 layer_factory.hpp:77] Creating layer relu3
I0430 22:34:54.960975  2570 net.cpp:86] Creating Layer relu3
I0430 22:34:54.960978  2570 net.cpp:408] relu3 <- ip3
I0430 22:34:54.960983  2570 net.cpp:369] relu3 -> ip3 (in-place)
I0430 22:34:54.961135  2570 net.cpp:124] Setting up relu3
I0430 22:34:54.961143  2570 net.cpp:131] Top shape: 1000 80 (80000)
I0430 22:34:54.961146  2570 net.cpp:139] Memory required for data: 96572000
I0430 22:34:54.961149  2570 layer_factory.hpp:77] Creating layer ip4
I0430 22:34:54.961155  2570 net.cpp:86] Creating Layer ip4
I0430 22:34:54.961158  2570 net.cpp:408] ip4 <- ip3
I0430 22:34:54.961163  2570 net.cpp:382] ip4 -> ip4
I0430 22:34:54.961302  2570 net.cpp:124] Setting up ip4
I0430 22:34:54.961310  2570 net.cpp:131] Top shape: 1000 10 (10000)
I0430 22:34:54.961313  2570 net.cpp:139] Memory required for data: 96612000
I0430 22:34:54.961320  2570 layer_factory.hpp:77] Creating layer ip4_ip4_0_split
I0430 22:34:54.961325  2570 net.cpp:86] Creating Layer ip4_ip4_0_split
I0430 22:34:54.961328  2570 net.cpp:408] ip4_ip4_0_split <- ip4
I0430 22:34:54.961333  2570 net.cpp:382] ip4_ip4_0_split -> ip4_ip4_0_split_0
I0430 22:34:54.961338  2570 net.cpp:382] ip4_ip4_0_split -> ip4_ip4_0_split_1
I0430 22:34:54.961369  2570 net.cpp:124] Setting up ip4_ip4_0_split
I0430 22:34:54.961375  2570 net.cpp:131] Top shape: 1000 10 (10000)
I0430 22:34:54.961380  2570 net.cpp:131] Top shape: 1000 10 (10000)
I0430 22:34:54.961382  2570 net.cpp:139] Memory required for data: 96692000
I0430 22:34:54.961385  2570 layer_factory.hpp:77] Creating layer accuracy
I0430 22:34:54.961395  2570 net.cpp:86] Creating Layer accuracy
I0430 22:34:54.961398  2570 net.cpp:408] accuracy <- ip4_ip4_0_split_0
I0430 22:34:54.961402  2570 net.cpp:408] accuracy <- label_cifar_1_split_0
I0430 22:34:54.961407  2570 net.cpp:382] accuracy -> accuracy
…
