…
I0501 02:16:26.352753 14477 net.cpp:296] The NetState phase (0) differed from the phase (1) specified by a rule in layer cifar
I0501 02:16:26.352776 14477 net.cpp:296] The NetState phase (0) differed from the phase (1) specified by a rule in layer accuracy
I0501 02:16:26.352887 14477 net.cpp:53] Initializing net from parameters: 
name: "CIFAR"
state {
  phase: TRAIN
  level: 0
  stage: ""
}
layer {
  name: "cifar"
  type: "Data"
  top: "data"
  top: "label"
  include {
    phase: TRAIN
  }
  transform_param {
    mean_file: "examples/cifar10/mean.binaryproto"
  }
  data_param {
    source: "examples/cifar10/cifar10_train_lmdb"
    batch_size: 111
    backend: LMDB
  }
}
layer {
  name: "conv0"
  type: "Convolution"
  bottom: "data"
  top: "conv0"
  param {
    lr_mult: 1
  }
  param {
    lr_mult: 2
  }
  convolution_param {
    num_output: 8
    pad: 2
    kernel_size: 5
    stride: 1
    weight_filler {
      type: "gaussian"
      std: 0.01
    }
    bias_filler {
      type: "constant"
    }
  }
}
layer {
  name: "Sigmoid0"
  type: "Sigmoid"
  bottom: "conv0"
  top: "Sigmoid0"
}
layer {
  name: "pool0"
  type: "Pooling"
  bottom: "Sigmoid0"
  top: "pool0"
  pooling_param {
    pool: AVE
    kernel_size: 3
    stride: 2
  }
}
layer {
  name: "ip1"
  type: "InnerProduct"
  bottom: "pool0"
  top: "ip1"
  param {
    lr_mult: 1
  }
  param {
    lr_mult: 2
  }
  inner_product_param {
    num_output: 10
    weight_filler {
      type: "gaussian"
      std: 0.01
    }
    bias_filler {
      type: "constant"
    }
  }
}
layer {
  name: "relu1"
  type: "ReLU"
  bottom: "ip1"
  top: "ip1"
}
layer {
  name: "ip2"
  type: "InnerProduct"
  bottom: "ip1"
  top: "ip2"
  param {
    lr_mult: 1
  }
  param {
    lr_mult: 2
  }
  inner_product_param {
    num_output: 20
    weight_filler {
      type: "gaussian"
      std: 0.01
    }
    bias_filler {
      type: "constant"
    }
  }
}
layer {
  name: "relu2"
  type: "ReLU"
  bottom: "ip2"
  top: "ip2"
}
layer {
  name: "ip3"
  type: "InnerProduct"
  bottom: "ip2"
  top: "ip3"
  param {
    lr_mult: 1
  }
  param {
    lr_mult: 2
  }
  inner_product_param {
    num_output: 10
    weight_filler {
      type: "gaussian"
      std: 0.01
    }
    bias_filler {
      type: "constant"
    }
  }
}
layer {
  name: "loss"
  type: "SoftmaxWithLoss"
  bottom: "ip3"
  bottom: "label"
  top: "loss"
}
I0501 02:16:26.352996 14477 layer_factory.hpp:77] Creating layer cifar
I0501 02:16:26.353133 14477 db_lmdb.cpp:35] Opened lmdb examples/cifar10/cifar10_train_lmdb
I0501 02:16:26.353169 14477 net.cpp:86] Creating Layer cifar
I0501 02:16:26.353183 14477 net.cpp:382] cifar -> data
I0501 02:16:26.353214 14477 net.cpp:382] cifar -> label
I0501 02:16:26.353232 14477 data_transformer.cpp:25] Loading mean file from: examples/cifar10/mean.binaryproto
I0501 02:16:26.355510 14477 data_layer.cpp:45] output data size: 111,3,32,32
I0501 02:16:26.363401 14477 net.cpp:124] Setting up cifar
I0501 02:16:26.363423 14477 net.cpp:131] Top shape: 111 3 32 32 (340992)
I0501 02:16:26.363433 14477 net.cpp:131] Top shape: 111 (111)
I0501 02:16:26.363440 14477 net.cpp:139] Memory required for data: 1364412
I0501 02:16:26.363451 14477 layer_factory.hpp:77] Creating layer conv0
I0501 02:16:26.363477 14477 net.cpp:86] Creating Layer conv0
I0501 02:16:26.363488 14477 net.cpp:408] conv0 <- data
I0501 02:16:26.363508 14477 net.cpp:382] conv0 -> conv0
I0501 02:16:26.653466 14477 net.cpp:124] Setting up conv0
I0501 02:16:26.653518 14477 net.cpp:131] Top shape: 111 8 32 32 (909312)
I0501 02:16:26.653525 14477 net.cpp:139] Memory required for data: 5001660
I0501 02:16:26.653548 14477 layer_factory.hpp:77] Creating layer Sigmoid0
I0501 02:16:26.653566 14477 net.cpp:86] Creating Layer Sigmoid0
I0501 02:16:26.653576 14477 net.cpp:408] Sigmoid0 <- conv0
I0501 02:16:26.653587 14477 net.cpp:382] Sigmoid0 -> Sigmoid0
I0501 02:16:26.653792 14477 net.cpp:124] Setting up Sigmoid0
I0501 02:16:26.653807 14477 net.cpp:131] Top shape: 111 8 32 32 (909312)
I0501 02:16:26.653813 14477 net.cpp:139] Memory required for data: 8638908
I0501 02:16:26.653820 14477 layer_factory.hpp:77] Creating layer pool0
I0501 02:16:26.653831 14477 net.cpp:86] Creating Layer pool0
I0501 02:16:26.653836 14477 net.cpp:408] pool0 <- Sigmoid0
I0501 02:16:26.653846 14477 net.cpp:382] pool0 -> pool0
I0501 02:16:26.654664 14477 net.cpp:124] Setting up pool0
I0501 02:16:26.654680 14477 net.cpp:131] Top shape: 111 8 16 16 (227328)
I0501 02:16:26.654687 14477 net.cpp:139] Memory required for data: 9548220
I0501 02:16:26.654693 14477 layer_factory.hpp:77] Creating layer ip1
I0501 02:16:26.654707 14477 net.cpp:86] Creating Layer ip1
I0501 02:16:26.654714 14477 net.cpp:408] ip1 <- pool0
I0501 02:16:26.654723 14477 net.cpp:382] ip1 -> ip1
I0501 02:16:26.656323 14477 net.cpp:124] Setting up ip1
I0501 02:16:26.656339 14477 net.cpp:131] Top shape: 111 10 (1110)
I0501 02:16:26.656345 14477 net.cpp:139] Memory required for data: 9552660
I0501 02:16:26.656359 14477 layer_factory.hpp:77] Creating layer relu1
I0501 02:16:26.656369 14477 net.cpp:86] Creating Layer relu1
I0501 02:16:26.656375 14477 net.cpp:408] relu1 <- ip1
I0501 02:16:26.656383 14477 net.cpp:369] relu1 -> ip1 (in-place)
I0501 02:16:26.656561 14477 net.cpp:124] Setting up relu1
I0501 02:16:26.656574 14477 net.cpp:131] Top shape: 111 10 (1110)
I0501 02:16:26.656579 14477 net.cpp:139] Memory required for data: 9557100
I0501 02:16:26.656584 14477 layer_factory.hpp:77] Creating layer ip2
I0501 02:16:26.656595 14477 net.cpp:86] Creating Layer ip2
I0501 02:16:26.656600 14477 net.cpp:408] ip2 <- ip1
I0501 02:16:26.656610 14477 net.cpp:382] ip2 -> ip2
I0501 02:16:26.656723 14477 net.cpp:124] Setting up ip2
I0501 02:16:26.656733 14477 net.cpp:131] Top shape: 111 20 (2220)
I0501 02:16:26.656738 14477 net.cpp:139] Memory required for data: 9565980
I0501 02:16:26.656751 14477 layer_factory.hpp:77] Creating layer relu2
I0501 02:16:26.656760 14477 net.cpp:86] Creating Layer relu2
I0501 02:16:26.656766 14477 net.cpp:408] relu2 <- ip2
I0501 02:16:26.656774 14477 net.cpp:369] relu2 -> ip2 (in-place)
I0501 02:16:26.656956 14477 net.cpp:124] Setting up relu2
I0501 02:16:26.656967 14477 net.cpp:131] Top shape: 111 20 (2220)
I0501 02:16:26.656972 14477 net.cpp:139] Memory required for data: 9574860
I0501 02:16:26.656978 14477 layer_factory.hpp:77] Creating layer ip3
I0501 02:16:26.656991 14477 net.cpp:86] Creating Layer ip3
I0501 02:16:26.656996 14477 net.cpp:408] ip3 <- ip2
I0501 02:16:26.657016 14477 net.cpp:382] ip3 -> ip3
I0501 02:16:26.657121 14477 net.cpp:124] Setting up ip3
I0501 02:16:26.657130 14477 net.cpp:131] Top shape: 111 10 (1110)
I0501 02:16:26.657135 14477 net.cpp:139] Memory required for data: 9579300
I0501 02:16:26.657145 14477 layer_factory.hpp:77] Creating layer loss
I0501 02:16:26.657153 14477 net.cpp:86] Creating Layer loss
I0501 02:16:26.657160 14477 net.cpp:408] loss <- ip3
I0501 02:16:26.657166 14477 net.cpp:408] loss <- label
I0501 02:16:26.657174 14477 net.cpp:382] loss -> loss
I0501 02:16:26.657200 14477 layer_factory.hpp:77] Creating layer loss
…
I0501 02:16:26.657860 14477 solver.cpp:173] Creating test net (#0) specified by net file: ECE595/cifar/train_test/var_everything/cifar_train_test_316.prototxt
I0501 02:16:26.657894 14477 net.cpp:296] The NetState phase (1) differed from the phase (0) specified by a rule in layer cifar
I0501 02:16:26.657990 14477 net.cpp:53] Initializing net from parameters: 
name: "CIFAR"
state {
  phase: TEST
}
layer {
  name: "cifar"
  type: "Data"
  top: "data"
  top: "label"
  include {
    phase: TEST
  }
  transform_param {
    mean_file: "examples/cifar10/mean.binaryproto"
  }
  data_param {
    source: "examples/cifar10/cifar10_test_lmdb"
    batch_size: 1000
    backend: LMDB
  }
}
layer {
  name: "conv0"
  type: "Convolution"
  bottom: "data"
  top: "conv0"
  param {
    lr_mult: 1
  }
  param {
    lr_mult: 2
  }
  convolution_param {
    num_output: 8
    pad: 2
    kernel_size: 5
    stride: 1
    weight_filler {
      type: "gaussian"
      std: 0.01
    }
    bias_filler {
      type: "constant"
    }
  }
}
layer {
  name: "Sigmoid0"
  type: "Sigmoid"
  bottom: "conv0"
  top: "Sigmoid0"
}
layer {
  name: "pool0"
  type: "Pooling"
  bottom: "Sigmoid0"
  top: "pool0"
  pooling_param {
    pool: AVE
    kernel_size: 3
    stride: 2
  }
}
layer {
  name: "ip1"
  type: "InnerProduct"
  bottom: "pool0"
  top: "ip1"
  param {
    lr_mult: 1
  }
  param {
    lr_mult: 2
  }
  inner_product_param {
    num_output: 10
    weight_filler {
      type: "gaussian"
      std: 0.01
    }
    bias_filler {
      type: "constant"
    }
  }
}
layer {
  name: "relu1"
  type: "ReLU"
  bottom: "ip1"
  top: "ip1"
}
layer {
  name: "ip2"
  type: "InnerProduct"
  bottom: "ip1"
  top: "ip2"
  param {
    lr_mult: 1
  }
  param {
    lr_mult: 2
  }
  inner_product_param {
    num_output: 20
    weight_filler {
      type: "gaussian"
      std: 0.01
    }
    bias_filler {
      type: "constant"
    }
  }
}
layer {
  name: "relu2"
  type: "ReLU"
  bottom: "ip2"
  top: "ip2"
}
layer {
  name: "ip3"
  type: "InnerProduct"
  bottom: "ip2"
  top: "ip3"
  param {
    lr_mult: 1
  }
  param {
    lr_mult: 2
  }
  inner_product_param {
    num_output: 10
    weight_filler {
      type: "gaussian"
      std: 0.01
    }
    bias_filler {
      type: "constant"
    }
  }
}
layer {
  name: "accuracy"
  type: "Accuracy"
  bottom: "ip3"
  bottom: "label"
  top: "accuracy"
  include {
    phase: TEST
  }
}
layer {
  name: "loss"
  type: "SoftmaxWithLoss"
  bottom: "ip3"
  bottom: "label"
  top: "loss"
}
I0501 02:16:26.658089 14477 layer_factory.hpp:77] Creating layer cifar
I0501 02:16:26.658152 14477 db_lmdb.cpp:35] Opened lmdb examples/cifar10/cifar10_test_lmdb
I0501 02:16:26.658170 14477 net.cpp:86] Creating Layer cifar
I0501 02:16:26.658179 14477 net.cpp:382] cifar -> data
I0501 02:16:26.658191 14477 net.cpp:382] cifar -> label
I0501 02:16:26.658202 14477 data_transformer.cpp:25] Loading mean file from: examples/cifar10/mean.binaryproto
I0501 02:16:26.658407 14477 data_layer.cpp:45] output data size: 1000,3,32,32
I0501 02:16:26.681130 14477 net.cpp:124] Setting up cifar
I0501 02:16:26.681159 14477 net.cpp:131] Top shape: 1000 3 32 32 (3072000)
I0501 02:16:26.681169 14477 net.cpp:131] Top shape: 1000 (1000)
I0501 02:16:26.681174 14477 net.cpp:139] Memory required for data: 12292000
I0501 02:16:26.681180 14477 layer_factory.hpp:77] Creating layer label_cifar_1_split
I0501 02:16:26.681200 14477 net.cpp:86] Creating Layer label_cifar_1_split
I0501 02:16:26.681227 14477 net.cpp:408] label_cifar_1_split <- label
I0501 02:16:26.681237 14477 net.cpp:382] label_cifar_1_split -> label_cifar_1_split_0
I0501 02:16:26.681254 14477 net.cpp:382] label_cifar_1_split -> label_cifar_1_split_1
I0501 02:16:26.681340 14477 net.cpp:124] Setting up label_cifar_1_split
I0501 02:16:26.681349 14477 net.cpp:131] Top shape: 1000 (1000)
I0501 02:16:26.681355 14477 net.cpp:131] Top shape: 1000 (1000)
I0501 02:16:26.681360 14477 net.cpp:139] Memory required for data: 12300000
I0501 02:16:26.681365 14477 layer_factory.hpp:77] Creating layer conv0
I0501 02:16:26.681382 14477 net.cpp:86] Creating Layer conv0
I0501 02:16:26.681388 14477 net.cpp:408] conv0 <- data
I0501 02:16:26.681397 14477 net.cpp:382] conv0 -> conv0
I0501 02:16:26.682839 14477 net.cpp:124] Setting up conv0
I0501 02:16:26.682855 14477 net.cpp:131] Top shape: 1000 8 32 32 (8192000)
I0501 02:16:26.682862 14477 net.cpp:139] Memory required for data: 45068000
I0501 02:16:26.682875 14477 layer_factory.hpp:77] Creating layer Sigmoid0
I0501 02:16:26.682885 14477 net.cpp:86] Creating Layer Sigmoid0
I0501 02:16:26.682895 14477 net.cpp:408] Sigmoid0 <- conv0
I0501 02:16:26.682904 14477 net.cpp:382] Sigmoid0 -> Sigmoid0
I0501 02:16:26.683758 14477 net.cpp:124] Setting up Sigmoid0
I0501 02:16:26.683771 14477 net.cpp:131] Top shape: 1000 8 32 32 (8192000)
I0501 02:16:26.683779 14477 net.cpp:139] Memory required for data: 77836000
I0501 02:16:26.683784 14477 layer_factory.hpp:77] Creating layer pool0
I0501 02:16:26.683796 14477 net.cpp:86] Creating Layer pool0
I0501 02:16:26.683801 14477 net.cpp:408] pool0 <- Sigmoid0
I0501 02:16:26.683810 14477 net.cpp:382] pool0 -> pool0
I0501 02:16:26.684952 14477 net.cpp:124] Setting up pool0
I0501 02:16:26.684964 14477 net.cpp:131] Top shape: 1000 8 16 16 (2048000)
I0501 02:16:26.684969 14477 net.cpp:139] Memory required for data: 86028000
I0501 02:16:26.684989 14477 layer_factory.hpp:77] Creating layer ip1
I0501 02:16:26.685001 14477 net.cpp:86] Creating Layer ip1
I0501 02:16:26.685006 14477 net.cpp:408] ip1 <- pool0
I0501 02:16:26.685015 14477 net.cpp:382] ip1 -> ip1
I0501 02:16:26.685669 14477 net.cpp:124] Setting up ip1
I0501 02:16:26.685679 14477 net.cpp:131] Top shape: 1000 10 (10000)
I0501 02:16:26.685684 14477 net.cpp:139] Memory required for data: 86068000
I0501 02:16:26.685696 14477 layer_factory.hpp:77] Creating layer relu1
I0501 02:16:26.685704 14477 net.cpp:86] Creating Layer relu1
I0501 02:16:26.685714 14477 net.cpp:408] relu1 <- ip1
I0501 02:16:26.685721 14477 net.cpp:369] relu1 -> ip1 (in-place)
I0501 02:16:26.685874 14477 net.cpp:124] Setting up relu1
I0501 02:16:26.685884 14477 net.cpp:131] Top shape: 1000 10 (10000)
I0501 02:16:26.685889 14477 net.cpp:139] Memory required for data: 86108000
I0501 02:16:26.685894 14477 layer_factory.hpp:77] Creating layer ip2
I0501 02:16:26.685904 14477 net.cpp:86] Creating Layer ip2
I0501 02:16:26.685909 14477 net.cpp:408] ip2 <- ip1
I0501 02:16:26.685919 14477 net.cpp:382] ip2 -> ip2
I0501 02:16:26.686030 14477 net.cpp:124] Setting up ip2
I0501 02:16:26.686039 14477 net.cpp:131] Top shape: 1000 20 (20000)
I0501 02:16:26.686044 14477 net.cpp:139] Memory required for data: 86188000
I0501 02:16:26.686055 14477 layer_factory.hpp:77] Creating layer relu2
I0501 02:16:26.686065 14477 net.cpp:86] Creating Layer relu2
I0501 02:16:26.686071 14477 net.cpp:408] relu2 <- ip2
I0501 02:16:26.686079 14477 net.cpp:369] relu2 -> ip2 (in-place)
I0501 02:16:26.686233 14477 net.cpp:124] Setting up relu2
I0501 02:16:26.686241 14477 net.cpp:131] Top shape: 1000 20 (20000)
I0501 02:16:26.686246 14477 net.cpp:139] Memory required for data: 86268000
I0501 02:16:26.686251 14477 layer_factory.hpp:77] Creating layer ip3
I0501 02:16:26.686260 14477 net.cpp:86] Creating Layer ip3
I0501 02:16:26.686265 14477 net.cpp:408] ip3 <- ip2
I0501 02:16:26.686273 14477 net.cpp:382] ip3 -> ip3
I0501 02:16:26.686380 14477 net.cpp:124] Setting up ip3
I0501 02:16:26.686389 14477 net.cpp:131] Top shape: 1000 10 (10000)
I0501 02:16:26.686393 14477 net.cpp:139] Memory required for data: 86308000
I0501 02:16:26.686414 14477 layer_factory.hpp:77] Creating layer ip3_ip3_0_split
I0501 02:16:26.686424 14477 net.cpp:86] Creating Layer ip3_ip3_0_split
I0501 02:16:26.686429 14477 net.cpp:408] ip3_ip3_0_split <- ip3
I0501 02:16:26.686436 14477 net.cpp:382] ip3_ip3_0_split -> ip3_ip3_0_split_0
I0501 02:16:26.686445 14477 net.cpp:382] ip3_ip3_0_split -> ip3_ip3_0_split_1
I0501 02:16:26.686486 14477 net.cpp:124] Setting up ip3_ip3_0_split
I0501 02:16:26.686492 14477 net.cpp:131] Top shape: 1000 10 (10000)
I0501 02:16:26.686498 14477 net.cpp:131] Top shape: 1000 10 (10000)
I0501 02:16:26.686503 14477 net.cpp:139] Memory required for data: 86388000
I0501 02:16:26.686508 14477 layer_factory.hpp:77] Creating layer accuracy
I0501 02:16:26.686517 14477 net.cpp:86] Creating Layer accuracy
I0501 02:16:26.686522 14477 net.cpp:408] accuracy <- ip3_ip3_0_split_0
I0501 02:16:26.686529 14477 net.cpp:408] accuracy <- label_cifar_1_split_0
I0501 02:16:26.686537 14477 net.cpp:382] accuracy -> accuracy
…
