…
I0430 20:01:43.391822 27577 net.cpp:296] The NetState phase (0) differed from the phase (1) specified by a rule in layer cifar
I0430 20:01:43.391834 27577 net.cpp:296] The NetState phase (0) differed from the phase (1) specified by a rule in layer accuracy
I0430 20:01:43.391902 27577 net.cpp:53] Initializing net from parameters: 
name: "CIFAR"
state {
  phase: TRAIN
  level: 0
  stage: ""
}
layer {
  name: "cifar"
  type: "Data"
  top: "data"
  top: "label"
  include {
    phase: TRAIN
  }
  transform_param {
    mean_file: "examples/cifar10/mean.binaryproto"
  }
  data_param {
    source: "examples/cifar10/cifar10_train_lmdb"
    batch_size: 111
    backend: LMDB
  }
}
layer {
  name: "ip1"
  type: "InnerProduct"
  bottom: "data"
  top: "ip1"
  param {
    lr_mult: 1
  }
  param {
    lr_mult: 2
  }
  inner_product_param {
    num_output: 80
    weight_filler {
      type: "gaussian"
      std: 0.01
    }
    bias_filler {
      type: "constant"
    }
  }
}
layer {
  name: "relu1"
  type: "ReLU"
  bottom: "ip1"
  top: "ip1"
}
layer {
  name: "ip2"
  type: "InnerProduct"
  bottom: "ip1"
  top: "ip2"
  param {
    lr_mult: 1
  }
  param {
    lr_mult: 2
  }
  inner_product_param {
    num_output: 40
    weight_filler {
      type: "gaussian"
      std: 0.01
    }
    bias_filler {
      type: "constant"
    }
  }
}
layer {
  name: "relu2"
  type: "ReLU"
  bottom: "ip2"
  top: "ip2"
}
layer {
  name: "ip3"
  type: "InnerProduct"
  bottom: "ip2"
  top: "ip3"
  param {
    lr_mult: 1
  }
  param {
    lr_mult: 2
  }
  inner_product_param {
    num_output: 20
    weight_filler {
      type: "gaussian"
      std: 0.01
    }
    bias_filler {
      type: "constant"
    }
  }
}
layer {
  name: "relu3"
  type: "ReLU"
  bottom: "ip3"
  top: "ip3"
}
layer {
  name: "ip4"
  type: "InnerProduct"
  bottom: "ip3"
  top: "ip4"
  param {
    lr_mult: 1
  }
  param {
    lr_mult: 2
  }
  inner_product_param {
    num_output: 10
    weight_filler {
      type: "gaussian"
      std: 0.01
    }
    bias_filler {
      type: "constant"
    }
  }
}
layer {
  name: "loss"
  type: "SoftmaxWithLoss"
  bottom: "ip4"
  bottom: "label"
  top: "loss"
}
I0430 20:01:43.391958 27577 layer_factory.hpp:77] Creating layer cifar
I0430 20:01:43.392040 27577 db_lmdb.cpp:35] Opened lmdb examples/cifar10/cifar10_train_lmdb
I0430 20:01:43.392063 27577 net.cpp:86] Creating Layer cifar
I0430 20:01:43.392072 27577 net.cpp:382] cifar -> data
I0430 20:01:43.392105 27577 net.cpp:382] cifar -> label
I0430 20:01:43.392117 27577 data_transformer.cpp:25] Loading mean file from: examples/cifar10/mean.binaryproto
I0430 20:01:43.393895 27577 data_layer.cpp:45] output data size: 111,3,32,32
I0430 20:01:43.400307 27577 net.cpp:124] Setting up cifar
I0430 20:01:43.400337 27577 net.cpp:131] Top shape: 111 3 32 32 (340992)
I0430 20:01:43.400342 27577 net.cpp:131] Top shape: 111 (111)
I0430 20:01:43.400346 27577 net.cpp:139] Memory required for data: 1364412
I0430 20:01:43.400352 27577 layer_factory.hpp:77] Creating layer ip1
I0430 20:01:43.400394 27577 net.cpp:86] Creating Layer ip1
I0430 20:01:43.400404 27577 net.cpp:408] ip1 <- data
I0430 20:01:43.400413 27577 net.cpp:382] ip1 -> ip1
I0430 20:01:43.407665 27577 net.cpp:124] Setting up ip1
I0430 20:01:43.407677 27577 net.cpp:131] Top shape: 111 80 (8880)
I0430 20:01:43.407697 27577 net.cpp:139] Memory required for data: 1399932
I0430 20:01:43.407708 27577 layer_factory.hpp:77] Creating layer relu1
I0430 20:01:43.407717 27577 net.cpp:86] Creating Layer relu1
I0430 20:01:43.407765 27577 net.cpp:408] relu1 <- ip1
I0430 20:01:43.407770 27577 net.cpp:369] relu1 -> ip1 (in-place)
I0430 20:01:43.633831 27577 net.cpp:124] Setting up relu1
I0430 20:01:43.633858 27577 net.cpp:131] Top shape: 111 80 (8880)
I0430 20:01:43.633862 27577 net.cpp:139] Memory required for data: 1435452
I0430 20:01:43.633867 27577 layer_factory.hpp:77] Creating layer ip2
I0430 20:01:43.633879 27577 net.cpp:86] Creating Layer ip2
I0430 20:01:43.633883 27577 net.cpp:408] ip2 <- ip1
I0430 20:01:43.633891 27577 net.cpp:382] ip2 -> ip2
I0430 20:01:43.634096 27577 net.cpp:124] Setting up ip2
I0430 20:01:43.634104 27577 net.cpp:131] Top shape: 111 40 (4440)
I0430 20:01:43.634107 27577 net.cpp:139] Memory required for data: 1453212
I0430 20:01:43.634116 27577 layer_factory.hpp:77] Creating layer relu2
I0430 20:01:43.634124 27577 net.cpp:86] Creating Layer relu2
I0430 20:01:43.634126 27577 net.cpp:408] relu2 <- ip2
I0430 20:01:43.634130 27577 net.cpp:369] relu2 -> ip2 (in-place)
I0430 20:01:43.634954 27577 net.cpp:124] Setting up relu2
I0430 20:01:43.634966 27577 net.cpp:131] Top shape: 111 40 (4440)
I0430 20:01:43.634969 27577 net.cpp:139] Memory required for data: 1470972
I0430 20:01:43.634974 27577 layer_factory.hpp:77] Creating layer ip3
I0430 20:01:43.634979 27577 net.cpp:86] Creating Layer ip3
I0430 20:01:43.634982 27577 net.cpp:408] ip3 <- ip2
I0430 20:01:43.634987 27577 net.cpp:382] ip3 -> ip3
I0430 20:01:43.635921 27577 net.cpp:124] Setting up ip3
I0430 20:01:43.635932 27577 net.cpp:131] Top shape: 111 20 (2220)
I0430 20:01:43.635936 27577 net.cpp:139] Memory required for data: 1479852
I0430 20:01:43.635943 27577 layer_factory.hpp:77] Creating layer relu3
I0430 20:01:43.635948 27577 net.cpp:86] Creating Layer relu3
I0430 20:01:43.635951 27577 net.cpp:408] relu3 <- ip3
I0430 20:01:43.635956 27577 net.cpp:369] relu3 -> ip3 (in-place)
I0430 20:01:43.636118 27577 net.cpp:124] Setting up relu3
I0430 20:01:43.636126 27577 net.cpp:131] Top shape: 111 20 (2220)
I0430 20:01:43.636129 27577 net.cpp:139] Memory required for data: 1488732
I0430 20:01:43.636132 27577 layer_factory.hpp:77] Creating layer ip4
I0430 20:01:43.636138 27577 net.cpp:86] Creating Layer ip4
I0430 20:01:43.636142 27577 net.cpp:408] ip4 <- ip3
I0430 20:01:43.636147 27577 net.cpp:382] ip4 -> ip4
I0430 20:01:43.636237 27577 net.cpp:124] Setting up ip4
I0430 20:01:43.636243 27577 net.cpp:131] Top shape: 111 10 (1110)
I0430 20:01:43.636246 27577 net.cpp:139] Memory required for data: 1493172
I0430 20:01:43.636251 27577 layer_factory.hpp:77] Creating layer loss
I0430 20:01:43.636257 27577 net.cpp:86] Creating Layer loss
I0430 20:01:43.636261 27577 net.cpp:408] loss <- ip4
I0430 20:01:43.636265 27577 net.cpp:408] loss <- label
I0430 20:01:43.636270 27577 net.cpp:382] loss -> loss
I0430 20:01:43.636284 27577 layer_factory.hpp:77] Creating layer loss
…
I0430 20:01:43.636803 27577 solver.cpp:173] Creating test net (#0) specified by net file: ECE595/cifar/train_test/var_everything/cifar_train_test_116.prototxt
I0430 20:01:43.636878 27577 net.cpp:296] The NetState phase (1) differed from the phase (0) specified by a rule in layer cifar
I0430 20:01:43.636961 27577 net.cpp:53] Initializing net from parameters: 
name: "CIFAR"
state {
  phase: TEST
}
layer {
  name: "cifar"
  type: "Data"
  top: "data"
  top: "label"
  include {
    phase: TEST
  }
  transform_param {
    mean_file: "examples/cifar10/mean.binaryproto"
  }
  data_param {
    source: "examples/cifar10/cifar10_test_lmdb"
    batch_size: 1000
    backend: LMDB
  }
}
layer {
  name: "ip1"
  type: "InnerProduct"
  bottom: "data"
  top: "ip1"
  param {
    lr_mult: 1
  }
  param {
    lr_mult: 2
  }
  inner_product_param {
    num_output: 80
    weight_filler {
      type: "gaussian"
      std: 0.01
    }
    bias_filler {
      type: "constant"
    }
  }
}
layer {
  name: "relu1"
  type: "ReLU"
  bottom: "ip1"
  top: "ip1"
}
layer {
  name: "ip2"
  type: "InnerProduct"
  bottom: "ip1"
  top: "ip2"
  param {
    lr_mult: 1
  }
  param {
    lr_mult: 2
  }
  inner_product_param {
    num_output: 40
    weight_filler {
      type: "gaussian"
      std: 0.01
    }
    bias_filler {
      type: "constant"
    }
  }
}
layer {
  name: "relu2"
  type: "ReLU"
  bottom: "ip2"
  top: "ip2"
}
layer {
  name: "ip3"
  type: "InnerProduct"
  bottom: "ip2"
  top: "ip3"
  param {
    lr_mult: 1
  }
  param {
    lr_mult: 2
  }
  inner_product_param {
    num_output: 20
    weight_filler {
      type: "gaussian"
      std: 0.01
    }
    bias_filler {
      type: "constant"
    }
  }
}
layer {
  name: "relu3"
  type: "ReLU"
  bottom: "ip3"
  top: "ip3"
}
layer {
  name: "ip4"
  type: "InnerProduct"
  bottom: "ip3"
  top: "ip4"
  param {
    lr_mult: 1
  }
  param {
    lr_mult: 2
  }
  inner_product_param {
    num_output: 10
    weight_filler {
      type: "gaussian"
      std: 0.01
    }
    bias_filler {
      type: "constant"
    }
  }
}
layer {
  name: "accuracy"
  type: "Accuracy"
  bottom: "ip4"
  bottom: "label"
  top: "accuracy"
  include {
    phase: TEST
  }
}
layer {
  name: "loss"
  type: "SoftmaxWithLoss"
  bottom: "ip4"
  bottom: "label"
  top: "loss"
}
I0430 20:01:43.637022 27577 layer_factory.hpp:77] Creating layer cifar
I0430 20:01:43.637068 27577 db_lmdb.cpp:35] Opened lmdb examples/cifar10/cifar10_test_lmdb
I0430 20:01:43.637080 27577 net.cpp:86] Creating Layer cifar
I0430 20:01:43.637084 27577 net.cpp:382] cifar -> data
I0430 20:01:43.637092 27577 net.cpp:382] cifar -> label
I0430 20:01:43.637099 27577 data_transformer.cpp:25] Loading mean file from: examples/cifar10/mean.binaryproto
I0430 20:01:43.637264 27577 data_layer.cpp:45] output data size: 1000,3,32,32
I0430 20:01:43.658691 27577 net.cpp:124] Setting up cifar
I0430 20:01:43.658731 27577 net.cpp:131] Top shape: 1000 3 32 32 (3072000)
I0430 20:01:43.658737 27577 net.cpp:131] Top shape: 1000 (1000)
I0430 20:01:43.658741 27577 net.cpp:139] Memory required for data: 12292000
I0430 20:01:43.658747 27577 layer_factory.hpp:77] Creating layer label_cifar_1_split
I0430 20:01:43.658787 27577 net.cpp:86] Creating Layer label_cifar_1_split
I0430 20:01:43.658792 27577 net.cpp:408] label_cifar_1_split <- label
I0430 20:01:43.658797 27577 net.cpp:382] label_cifar_1_split -> label_cifar_1_split_0
I0430 20:01:43.658808 27577 net.cpp:382] label_cifar_1_split -> label_cifar_1_split_1
I0430 20:01:43.658885 27577 net.cpp:124] Setting up label_cifar_1_split
I0430 20:01:43.658891 27577 net.cpp:131] Top shape: 1000 (1000)
I0430 20:01:43.658895 27577 net.cpp:131] Top shape: 1000 (1000)
I0430 20:01:43.658898 27577 net.cpp:139] Memory required for data: 12300000
I0430 20:01:43.658901 27577 layer_factory.hpp:77] Creating layer ip1
I0430 20:01:43.658911 27577 net.cpp:86] Creating Layer ip1
I0430 20:01:43.658915 27577 net.cpp:408] ip1 <- data
I0430 20:01:43.658921 27577 net.cpp:382] ip1 -> ip1
I0430 20:01:43.665509 27577 net.cpp:124] Setting up ip1
I0430 20:01:43.665519 27577 net.cpp:131] Top shape: 1000 80 (80000)
I0430 20:01:43.665539 27577 net.cpp:139] Memory required for data: 12620000
I0430 20:01:43.665577 27577 layer_factory.hpp:77] Creating layer relu1
I0430 20:01:43.665601 27577 net.cpp:86] Creating Layer relu1
I0430 20:01:43.665604 27577 net.cpp:408] relu1 <- ip1
I0430 20:01:43.665609 27577 net.cpp:369] relu1 -> ip1 (in-place)
I0430 20:01:43.666409 27577 net.cpp:124] Setting up relu1
I0430 20:01:43.666421 27577 net.cpp:131] Top shape: 1000 80 (80000)
I0430 20:01:43.666445 27577 net.cpp:139] Memory required for data: 12940000
I0430 20:01:43.666448 27577 layer_factory.hpp:77] Creating layer ip2
I0430 20:01:43.666457 27577 net.cpp:86] Creating Layer ip2
I0430 20:01:43.666476 27577 net.cpp:408] ip2 <- ip1
I0430 20:01:43.666482 27577 net.cpp:382] ip2 -> ip2
I0430 20:01:43.666671 27577 net.cpp:124] Setting up ip2
I0430 20:01:43.666679 27577 net.cpp:131] Top shape: 1000 40 (40000)
I0430 20:01:43.666683 27577 net.cpp:139] Memory required for data: 13100000
I0430 20:01:43.666690 27577 layer_factory.hpp:77] Creating layer relu2
I0430 20:01:43.666695 27577 net.cpp:86] Creating Layer relu2
I0430 20:01:43.666698 27577 net.cpp:408] relu2 <- ip2
I0430 20:01:43.666702 27577 net.cpp:369] relu2 -> ip2 (in-place)
I0430 20:01:43.666857 27577 net.cpp:124] Setting up relu2
I0430 20:01:43.666865 27577 net.cpp:131] Top shape: 1000 40 (40000)
I0430 20:01:43.666868 27577 net.cpp:139] Memory required for data: 13260000
I0430 20:01:43.666872 27577 layer_factory.hpp:77] Creating layer ip3
I0430 20:01:43.666878 27577 net.cpp:86] Creating Layer ip3
I0430 20:01:43.666882 27577 net.cpp:408] ip3 <- ip2
I0430 20:01:43.666887 27577 net.cpp:382] ip3 -> ip3
I0430 20:01:43.667007 27577 net.cpp:124] Setting up ip3
I0430 20:01:43.667013 27577 net.cpp:131] Top shape: 1000 20 (20000)
I0430 20:01:43.667016 27577 net.cpp:139] Memory required for data: 13340000
I0430 20:01:43.667023 27577 layer_factory.hpp:77] Creating layer relu3
I0430 20:01:43.667029 27577 net.cpp:86] Creating Layer relu3
I0430 20:01:43.667033 27577 net.cpp:408] relu3 <- ip3
I0430 20:01:43.667038 27577 net.cpp:369] relu3 -> ip3 (in-place)
I0430 20:01:43.667189 27577 net.cpp:124] Setting up relu3
I0430 20:01:43.667196 27577 net.cpp:131] Top shape: 1000 20 (20000)
I0430 20:01:43.667201 27577 net.cpp:139] Memory required for data: 13420000
I0430 20:01:43.667203 27577 layer_factory.hpp:77] Creating layer ip4
I0430 20:01:43.667212 27577 net.cpp:86] Creating Layer ip4
I0430 20:01:43.667214 27577 net.cpp:408] ip4 <- ip3
I0430 20:01:43.667222 27577 net.cpp:382] ip4 -> ip4
I0430 20:01:43.667327 27577 net.cpp:124] Setting up ip4
I0430 20:01:43.667333 27577 net.cpp:131] Top shape: 1000 10 (10000)
I0430 20:01:43.667336 27577 net.cpp:139] Memory required for data: 13460000
I0430 20:01:43.667342 27577 layer_factory.hpp:77] Creating layer ip4_ip4_0_split
I0430 20:01:43.667347 27577 net.cpp:86] Creating Layer ip4_ip4_0_split
I0430 20:01:43.667351 27577 net.cpp:408] ip4_ip4_0_split <- ip4
I0430 20:01:43.667356 27577 net.cpp:382] ip4_ip4_0_split -> ip4_ip4_0_split_0
I0430 20:01:43.667362 27577 net.cpp:382] ip4_ip4_0_split -> ip4_ip4_0_split_1
I0430 20:01:43.667393 27577 net.cpp:124] Setting up ip4_ip4_0_split
I0430 20:01:43.667399 27577 net.cpp:131] Top shape: 1000 10 (10000)
I0430 20:01:43.667402 27577 net.cpp:131] Top shape: 1000 10 (10000)
I0430 20:01:43.667405 27577 net.cpp:139] Memory required for data: 13540000
I0430 20:01:43.667408 27577 layer_factory.hpp:77] Creating layer accuracy
I0430 20:01:43.667415 27577 net.cpp:86] Creating Layer accuracy
I0430 20:01:43.667418 27577 net.cpp:408] accuracy <- ip4_ip4_0_split_0
I0430 20:01:43.667423 27577 net.cpp:408] accuracy <- label_cifar_1_split_0
I0430 20:01:43.667426 27577 net.cpp:382] accuracy -> accuracy
…
