…
I0430 21:53:43.139550 32007 net.cpp:296] The NetState phase (0) differed from the phase (1) specified by a rule in layer cifar
I0430 21:53:43.139569 32007 net.cpp:296] The NetState phase (0) differed from the phase (1) specified by a rule in layer accuracy
I0430 21:53:43.139659 32007 net.cpp:53] Initializing net from parameters: 
name: "CIFAR"
state {
  phase: TRAIN
  level: 0
  stage: ""
}
layer {
  name: "cifar"
  type: "Data"
  top: "data"
  top: "label"
  include {
    phase: TRAIN
  }
  transform_param {
    mean_file: "examples/cifar10/mean.binaryproto"
  }
  data_param {
    source: "examples/cifar10/cifar10_train_lmdb"
    batch_size: 111
    backend: LMDB
  }
}
layer {
  name: "conv0"
  type: "Convolution"
  bottom: "data"
  top: "conv0"
  param {
    lr_mult: 1
  }
  param {
    lr_mult: 2
  }
  convolution_param {
    num_output: 8
    pad: 2
    kernel_size: 3
    stride: 1
    weight_filler {
      type: "gaussian"
      std: 0.01
    }
    bias_filler {
      type: "constant"
    }
  }
}
layer {
  name: "Sigmoid0"
  type: "Sigmoid"
  bottom: "conv0"
  top: "Sigmoid0"
}
layer {
  name: "pool0"
  type: "Pooling"
  bottom: "Sigmoid0"
  top: "pool0"
  pooling_param {
    pool: AVE
    kernel_size: 3
    stride: 2
  }
}
layer {
  name: "ip1"
  type: "InnerProduct"
  bottom: "pool0"
  top: "ip1"
  param {
    lr_mult: 1
  }
  param {
    lr_mult: 2
  }
  inner_product_param {
    num_output: 80
    weight_filler {
      type: "gaussian"
      std: 0.01
    }
    bias_filler {
      type: "constant"
    }
  }
}
layer {
  name: "relu1"
  type: "ReLU"
  bottom: "ip1"
  top: "ip1"
}
layer {
  name: "ip2"
  type: "InnerProduct"
  bottom: "ip1"
  top: "ip2"
  param {
    lr_mult: 1
  }
  param {
    lr_mult: 2
  }
  inner_product_param {
    num_output: 20
    weight_filler {
      type: "gaussian"
      std: 0.01
    }
    bias_filler {
      type: "constant"
    }
  }
}
layer {
  name: "relu2"
  type: "ReLU"
  bottom: "ip2"
  top: "ip2"
}
layer {
  name: "ip3"
  type: "InnerProduct"
  bottom: "ip2"
  top: "ip3"
  param {
    lr_mult: 1
  }
  param {
    lr_mult: 2
  }
  inner_product_param {
    num_output: 10
    weight_filler {
      type: "gaussian"
      std: 0.01
    }
    bias_filler {
      type: "constant"
    }
  }
}
layer {
  name: "loss"
  type: "SoftmaxWithLoss"
  bottom: "ip3"
  bottom: "label"
  top: "loss"
}
I0430 21:53:43.139729 32007 layer_factory.hpp:77] Creating layer cifar
I0430 21:53:43.139837 32007 db_lmdb.cpp:35] Opened lmdb examples/cifar10/cifar10_train_lmdb
I0430 21:53:43.139866 32007 net.cpp:86] Creating Layer cifar
I0430 21:53:43.139875 32007 net.cpp:382] cifar -> data
I0430 21:53:43.139899 32007 net.cpp:382] cifar -> label
I0430 21:53:43.139912 32007 data_transformer.cpp:25] Loading mean file from: examples/cifar10/mean.binaryproto
I0430 21:53:43.142029 32007 data_layer.cpp:45] output data size: 111,3,32,32
I0430 21:53:43.150107 32007 net.cpp:124] Setting up cifar
I0430 21:53:43.150128 32007 net.cpp:131] Top shape: 111 3 32 32 (340992)
I0430 21:53:43.150135 32007 net.cpp:131] Top shape: 111 (111)
I0430 21:53:43.150141 32007 net.cpp:139] Memory required for data: 1364412
I0430 21:53:43.150151 32007 layer_factory.hpp:77] Creating layer conv0
I0430 21:53:43.150171 32007 net.cpp:86] Creating Layer conv0
I0430 21:53:43.150178 32007 net.cpp:408] conv0 <- data
I0430 21:53:43.150192 32007 net.cpp:382] conv0 -> conv0
I0430 21:53:43.435889 32007 net.cpp:124] Setting up conv0
I0430 21:53:43.435935 32007 net.cpp:131] Top shape: 111 8 34 34 (1026528)
I0430 21:53:43.435940 32007 net.cpp:139] Memory required for data: 5470524
I0430 21:53:43.435957 32007 layer_factory.hpp:77] Creating layer Sigmoid0
I0430 21:53:43.435971 32007 net.cpp:86] Creating Layer Sigmoid0
I0430 21:53:43.435976 32007 net.cpp:408] Sigmoid0 <- conv0
I0430 21:53:43.435983 32007 net.cpp:382] Sigmoid0 -> Sigmoid0
I0430 21:53:43.436169 32007 net.cpp:124] Setting up Sigmoid0
I0430 21:53:43.436180 32007 net.cpp:131] Top shape: 111 8 34 34 (1026528)
I0430 21:53:43.436185 32007 net.cpp:139] Memory required for data: 9576636
I0430 21:53:43.436189 32007 layer_factory.hpp:77] Creating layer pool0
I0430 21:53:43.436197 32007 net.cpp:86] Creating Layer pool0
I0430 21:53:43.436203 32007 net.cpp:408] pool0 <- Sigmoid0
I0430 21:53:43.436208 32007 net.cpp:382] pool0 -> pool0
I0430 21:53:43.436974 32007 net.cpp:124] Setting up pool0
I0430 21:53:43.436987 32007 net.cpp:131] Top shape: 111 8 17 17 (256632)
I0430 21:53:43.436992 32007 net.cpp:139] Memory required for data: 10603164
I0430 21:53:43.436996 32007 layer_factory.hpp:77] Creating layer ip1
I0430 21:53:43.437007 32007 net.cpp:86] Creating Layer ip1
I0430 21:53:43.437012 32007 net.cpp:408] ip1 <- pool0
I0430 21:53:43.437018 32007 net.cpp:382] ip1 -> ip1
I0430 21:53:43.443111 32007 net.cpp:124] Setting up ip1
I0430 21:53:43.443125 32007 net.cpp:131] Top shape: 111 80 (8880)
I0430 21:53:43.443130 32007 net.cpp:139] Memory required for data: 10638684
I0430 21:53:43.443140 32007 layer_factory.hpp:77] Creating layer relu1
I0430 21:53:43.443146 32007 net.cpp:86] Creating Layer relu1
I0430 21:53:43.443151 32007 net.cpp:408] relu1 <- ip1
I0430 21:53:43.443157 32007 net.cpp:369] relu1 -> ip1 (in-place)
I0430 21:53:43.443320 32007 net.cpp:124] Setting up relu1
I0430 21:53:43.443331 32007 net.cpp:131] Top shape: 111 80 (8880)
I0430 21:53:43.443336 32007 net.cpp:139] Memory required for data: 10674204
I0430 21:53:43.443339 32007 layer_factory.hpp:77] Creating layer ip2
I0430 21:53:43.443347 32007 net.cpp:86] Creating Layer ip2
I0430 21:53:43.443351 32007 net.cpp:408] ip2 <- ip1
I0430 21:53:43.443357 32007 net.cpp:382] ip2 -> ip2
I0430 21:53:43.443503 32007 net.cpp:124] Setting up ip2
I0430 21:53:43.443512 32007 net.cpp:131] Top shape: 111 20 (2220)
I0430 21:53:43.443516 32007 net.cpp:139] Memory required for data: 10683084
I0430 21:53:43.443526 32007 layer_factory.hpp:77] Creating layer relu2
I0430 21:53:43.443531 32007 net.cpp:86] Creating Layer relu2
I0430 21:53:43.443536 32007 net.cpp:408] relu2 <- ip2
I0430 21:53:43.443541 32007 net.cpp:369] relu2 -> ip2 (in-place)
I0430 21:53:43.443698 32007 net.cpp:124] Setting up relu2
I0430 21:53:43.443707 32007 net.cpp:131] Top shape: 111 20 (2220)
I0430 21:53:43.443712 32007 net.cpp:139] Memory required for data: 10691964
I0430 21:53:43.443717 32007 layer_factory.hpp:77] Creating layer ip3
I0430 21:53:43.443724 32007 net.cpp:86] Creating Layer ip3
I0430 21:53:43.443729 32007 net.cpp:408] ip3 <- ip2
I0430 21:53:43.443735 32007 net.cpp:382] ip3 -> ip3
I0430 21:53:43.443835 32007 net.cpp:124] Setting up ip3
I0430 21:53:43.443843 32007 net.cpp:131] Top shape: 111 10 (1110)
I0430 21:53:43.443847 32007 net.cpp:139] Memory required for data: 10696404
I0430 21:53:43.443853 32007 layer_factory.hpp:77] Creating layer loss
I0430 21:53:43.443866 32007 net.cpp:86] Creating Layer loss
I0430 21:53:43.443871 32007 net.cpp:408] loss <- ip3
I0430 21:53:43.443876 32007 net.cpp:408] loss <- label
I0430 21:53:43.443881 32007 net.cpp:382] loss -> loss
I0430 21:53:43.443897 32007 layer_factory.hpp:77] Creating layer loss
…
I0430 21:53:43.444519 32007 solver.cpp:173] Creating test net (#0) specified by net file: ECE595/cifar/train_test/var_everything/cifar_train_test_176.prototxt
I0430 21:53:43.444546 32007 net.cpp:296] The NetState phase (1) differed from the phase (0) specified by a rule in layer cifar
I0430 21:53:43.444633 32007 net.cpp:53] Initializing net from parameters: 
name: "CIFAR"
state {
  phase: TEST
}
layer {
  name: "cifar"
  type: "Data"
  top: "data"
  top: "label"
  include {
    phase: TEST
  }
  transform_param {
    mean_file: "examples/cifar10/mean.binaryproto"
  }
  data_param {
    source: "examples/cifar10/cifar10_test_lmdb"
    batch_size: 1000
    backend: LMDB
  }
}
layer {
  name: "conv0"
  type: "Convolution"
  bottom: "data"
  top: "conv0"
  param {
    lr_mult: 1
  }
  param {
    lr_mult: 2
  }
  convolution_param {
    num_output: 8
    pad: 2
    kernel_size: 3
    stride: 1
    weight_filler {
      type: "gaussian"
      std: 0.01
    }
    bias_filler {
      type: "constant"
    }
  }
}
layer {
  name: "Sigmoid0"
  type: "Sigmoid"
  bottom: "conv0"
  top: "Sigmoid0"
}
layer {
  name: "pool0"
  type: "Pooling"
  bottom: "Sigmoid0"
  top: "pool0"
  pooling_param {
    pool: AVE
    kernel_size: 3
    stride: 2
  }
}
layer {
  name: "ip1"
  type: "InnerProduct"
  bottom: "pool0"
  top: "ip1"
  param {
    lr_mult: 1
  }
  param {
    lr_mult: 2
  }
  inner_product_param {
    num_output: 80
    weight_filler {
      type: "gaussian"
      std: 0.01
    }
    bias_filler {
      type: "constant"
    }
  }
}
layer {
  name: "relu1"
  type: "ReLU"
  bottom: "ip1"
  top: "ip1"
}
layer {
  name: "ip2"
  type: "InnerProduct"
  bottom: "ip1"
  top: "ip2"
  param {
    lr_mult: 1
  }
  param {
    lr_mult: 2
  }
  inner_product_param {
    num_output: 20
    weight_filler {
      type: "gaussian"
      std: 0.01
    }
    bias_filler {
      type: "constant"
    }
  }
}
layer {
  name: "relu2"
  type: "ReLU"
  bottom: "ip2"
  top: "ip2"
}
layer {
  name: "ip3"
  type: "InnerProduct"
  bottom: "ip2"
  top: "ip3"
  param {
    lr_mult: 1
  }
  param {
    lr_mult: 2
  }
  inner_product_param {
    num_output: 10
    weight_filler {
      type: "gaussian"
      std: 0.01
    }
    bias_filler {
      type: "constant"
    }
  }
}
layer {
  name: "accuracy"
  type: "Accuracy"
  bottom: "ip3"
  bottom: "label"
  top: "accuracy"
  include {
    phase: TEST
  }
}
layer {
  name: "loss"
  type: "SoftmaxWithLoss"
  bottom: "ip3"
  bottom: "label"
  top: "loss"
}
I0430 21:53:43.444701 32007 layer_factory.hpp:77] Creating layer cifar
I0430 21:53:43.444751 32007 db_lmdb.cpp:35] Opened lmdb examples/cifar10/cifar10_test_lmdb
I0430 21:53:43.444764 32007 net.cpp:86] Creating Layer cifar
I0430 21:53:43.444771 32007 net.cpp:382] cifar -> data
I0430 21:53:43.444779 32007 net.cpp:382] cifar -> label
I0430 21:53:43.444787 32007 data_transformer.cpp:25] Loading mean file from: examples/cifar10/mean.binaryproto
I0430 21:53:43.444942 32007 data_layer.cpp:45] output data size: 1000,3,32,32
I0430 21:53:43.467944 32007 net.cpp:124] Setting up cifar
I0430 21:53:43.467972 32007 net.cpp:131] Top shape: 1000 3 32 32 (3072000)
I0430 21:53:43.467978 32007 net.cpp:131] Top shape: 1000 (1000)
I0430 21:53:43.467983 32007 net.cpp:139] Memory required for data: 12292000
I0430 21:53:43.467989 32007 layer_factory.hpp:77] Creating layer label_cifar_1_split
I0430 21:53:43.468003 32007 net.cpp:86] Creating Layer label_cifar_1_split
I0430 21:53:43.468025 32007 net.cpp:408] label_cifar_1_split <- label
I0430 21:53:43.468032 32007 net.cpp:382] label_cifar_1_split -> label_cifar_1_split_0
I0430 21:53:43.468041 32007 net.cpp:382] label_cifar_1_split -> label_cifar_1_split_1
I0430 21:53:43.468142 32007 net.cpp:124] Setting up label_cifar_1_split
I0430 21:53:43.468149 32007 net.cpp:131] Top shape: 1000 (1000)
I0430 21:53:43.468154 32007 net.cpp:131] Top shape: 1000 (1000)
I0430 21:53:43.468158 32007 net.cpp:139] Memory required for data: 12300000
I0430 21:53:43.468163 32007 layer_factory.hpp:77] Creating layer conv0
I0430 21:53:43.468174 32007 net.cpp:86] Creating Layer conv0
I0430 21:53:43.468179 32007 net.cpp:408] conv0 <- data
I0430 21:53:43.468185 32007 net.cpp:382] conv0 -> conv0
I0430 21:53:43.469774 32007 net.cpp:124] Setting up conv0
I0430 21:53:43.469790 32007 net.cpp:131] Top shape: 1000 8 34 34 (9248000)
I0430 21:53:43.469794 32007 net.cpp:139] Memory required for data: 49292000
I0430 21:53:43.469805 32007 layer_factory.hpp:77] Creating layer Sigmoid0
I0430 21:53:43.469811 32007 net.cpp:86] Creating Layer Sigmoid0
I0430 21:53:43.469815 32007 net.cpp:408] Sigmoid0 <- conv0
I0430 21:53:43.469821 32007 net.cpp:382] Sigmoid0 -> Sigmoid0
I0430 21:53:43.470679 32007 net.cpp:124] Setting up Sigmoid0
I0430 21:53:43.470690 32007 net.cpp:131] Top shape: 1000 8 34 34 (9248000)
I0430 21:53:43.470695 32007 net.cpp:139] Memory required for data: 86284000
I0430 21:53:43.470698 32007 layer_factory.hpp:77] Creating layer pool0
I0430 21:53:43.470706 32007 net.cpp:86] Creating Layer pool0
I0430 21:53:43.470710 32007 net.cpp:408] pool0 <- Sigmoid0
I0430 21:53:43.470717 32007 net.cpp:382] pool0 -> pool0
I0430 21:53:43.471855 32007 net.cpp:124] Setting up pool0
I0430 21:53:43.471866 32007 net.cpp:131] Top shape: 1000 8 17 17 (2312000)
I0430 21:53:43.471870 32007 net.cpp:139] Memory required for data: 95532000
I0430 21:53:43.471874 32007 layer_factory.hpp:77] Creating layer ip1
I0430 21:53:43.471884 32007 net.cpp:86] Creating Layer ip1
I0430 21:53:43.471887 32007 net.cpp:408] ip1 <- pool0
I0430 21:53:43.471892 32007 net.cpp:382] ip1 -> ip1
I0430 21:53:43.476817 32007 net.cpp:124] Setting up ip1
I0430 21:53:43.476827 32007 net.cpp:131] Top shape: 1000 80 (80000)
I0430 21:53:43.476838 32007 net.cpp:139] Memory required for data: 95852000
I0430 21:53:43.476847 32007 layer_factory.hpp:77] Creating layer relu1
I0430 21:53:43.476853 32007 net.cpp:86] Creating Layer relu1
I0430 21:53:43.476858 32007 net.cpp:408] relu1 <- ip1
I0430 21:53:43.476864 32007 net.cpp:369] relu1 -> ip1 (in-place)
I0430 21:53:43.477039 32007 net.cpp:124] Setting up relu1
I0430 21:53:43.477048 32007 net.cpp:131] Top shape: 1000 80 (80000)
I0430 21:53:43.477052 32007 net.cpp:139] Memory required for data: 96172000
I0430 21:53:43.477056 32007 layer_factory.hpp:77] Creating layer ip2
I0430 21:53:43.477064 32007 net.cpp:86] Creating Layer ip2
I0430 21:53:43.477084 32007 net.cpp:408] ip2 <- ip1
I0430 21:53:43.477092 32007 net.cpp:382] ip2 -> ip2
I0430 21:53:43.477244 32007 net.cpp:124] Setting up ip2
I0430 21:53:43.477254 32007 net.cpp:131] Top shape: 1000 20 (20000)
I0430 21:53:43.477259 32007 net.cpp:139] Memory required for data: 96252000
I0430 21:53:43.477267 32007 layer_factory.hpp:77] Creating layer relu2
I0430 21:53:43.477274 32007 net.cpp:86] Creating Layer relu2
I0430 21:53:43.477278 32007 net.cpp:408] relu2 <- ip2
I0430 21:53:43.477283 32007 net.cpp:369] relu2 -> ip2 (in-place)
I0430 21:53:43.477476 32007 net.cpp:124] Setting up relu2
I0430 21:53:43.477485 32007 net.cpp:131] Top shape: 1000 20 (20000)
I0430 21:53:43.477489 32007 net.cpp:139] Memory required for data: 96332000
I0430 21:53:43.477494 32007 layer_factory.hpp:77] Creating layer ip3
I0430 21:53:43.477499 32007 net.cpp:86] Creating Layer ip3
I0430 21:53:43.477504 32007 net.cpp:408] ip3 <- ip2
I0430 21:53:43.477511 32007 net.cpp:382] ip3 -> ip3
I0430 21:53:43.477625 32007 net.cpp:124] Setting up ip3
I0430 21:53:43.477634 32007 net.cpp:131] Top shape: 1000 10 (10000)
I0430 21:53:43.477638 32007 net.cpp:139] Memory required for data: 96372000
I0430 21:53:43.477654 32007 layer_factory.hpp:77] Creating layer ip3_ip3_0_split
I0430 21:53:43.477661 32007 net.cpp:86] Creating Layer ip3_ip3_0_split
I0430 21:53:43.477664 32007 net.cpp:408] ip3_ip3_0_split <- ip3
I0430 21:53:43.477671 32007 net.cpp:382] ip3_ip3_0_split -> ip3_ip3_0_split_0
I0430 21:53:43.477677 32007 net.cpp:382] ip3_ip3_0_split -> ip3_ip3_0_split_1
I0430 21:53:43.477712 32007 net.cpp:124] Setting up ip3_ip3_0_split
I0430 21:53:43.477720 32007 net.cpp:131] Top shape: 1000 10 (10000)
I0430 21:53:43.477725 32007 net.cpp:131] Top shape: 1000 10 (10000)
I0430 21:53:43.477730 32007 net.cpp:139] Memory required for data: 96452000
I0430 21:53:43.477732 32007 layer_factory.hpp:77] Creating layer accuracy
I0430 21:53:43.477740 32007 net.cpp:86] Creating Layer accuracy
I0430 21:53:43.477743 32007 net.cpp:408] accuracy <- ip3_ip3_0_split_0
I0430 21:53:43.477748 32007 net.cpp:408] accuracy <- label_cifar_1_split_0
I0430 21:53:43.477753 32007 net.cpp:382] accuracy -> accuracy
…
