…
I0501 09:11:04.586297 13393 net.cpp:296] The NetState phase (0) differed from the phase (1) specified by a rule in layer cifar
I0501 09:11:04.586314 13393 net.cpp:296] The NetState phase (0) differed from the phase (1) specified by a rule in layer accuracy
I0501 09:11:04.586414 13393 net.cpp:53] Initializing net from parameters: 
name: "CIFAR"
state {
  phase: TRAIN
  level: 0
  stage: ""
}
layer {
  name: "cifar"
  type: "Data"
  top: "data"
  top: "label"
  include {
    phase: TRAIN
  }
  transform_param {
    mean_file: "examples/cifar10/mean.binaryproto"
  }
  data_param {
    source: "examples/cifar10/cifar10_train_lmdb"
    batch_size: 111
    backend: LMDB
  }
}
layer {
  name: "conv0"
  type: "Convolution"
  bottom: "data"
  top: "conv0"
  param {
    lr_mult: 1
  }
  param {
    lr_mult: 2
  }
  convolution_param {
    num_output: 16
    pad: 2
    kernel_size: 3
    stride: 1
    weight_filler {
      type: "gaussian"
      std: 0.01
    }
    bias_filler {
      type: "constant"
    }
  }
}
layer {
  name: "Sigmoid0"
  type: "Sigmoid"
  bottom: "conv0"
  top: "Sigmoid0"
}
layer {
  name: "pool0"
  type: "Pooling"
  bottom: "Sigmoid0"
  top: "pool0"
  pooling_param {
    pool: AVE
    kernel_size: 3
    stride: 2
  }
}
layer {
  name: "ip1"
  type: "InnerProduct"
  bottom: "pool0"
  top: "ip1"
  param {
    lr_mult: 1
  }
  param {
    lr_mult: 2
  }
  inner_product_param {
    num_output: 20
    weight_filler {
      type: "gaussian"
      std: 0.01
    }
    bias_filler {
      type: "constant"
    }
  }
}
layer {
  name: "relu1"
  type: "ReLU"
  bottom: "ip1"
  top: "ip1"
}
layer {
  name: "ip2"
  type: "InnerProduct"
  bottom: "ip1"
  top: "ip2"
  param {
    lr_mult: 1
  }
  param {
    lr_mult: 2
  }
  inner_product_param {
    num_output: 40
    weight_filler {
      type: "gaussian"
      std: 0.01
    }
    bias_filler {
      type: "constant"
    }
  }
}
layer {
  name: "relu2"
  type: "ReLU"
  bottom: "ip2"
  top: "ip2"
}
layer {
  name: "ip3"
  type: "InnerProduct"
  bottom: "ip2"
  top: "ip3"
  param {
    lr_mult: 1
  }
  param {
    lr_mult: 2
  }
  inner_product_param {
    num_output: 40
    weight_filler {
      type: "gaussian"
      std: 0.01
    }
    bias_filler {
      type: "constant"
    }
  }
}
layer {
  name: "relu3"
  type: "ReLU"
  bottom: "ip3"
  top: "ip3"
}
layer {
  name: "ip4"
  type: "InnerProduct"
  bottom: "ip3"
  top: "ip4"
  param {
    lr_mult: 1
  }
  param {
    lr_mult: 2
  }
  inner_product_param {
    num_output: 10
    weight_filler {
      type: "gaussian"
      std: 0.01
    }
    bias_filler {
      type: "constant"
    }
  }
}
layer {
  name: "loss"
  type: "SoftmaxWithLoss"
  bottom: "ip4"
  bottom: "label"
  top: "loss"
}
I0501 09:11:04.586488 13393 layer_factory.hpp:77] Creating layer cifar
I0501 09:11:04.586587 13393 db_lmdb.cpp:35] Opened lmdb examples/cifar10/cifar10_train_lmdb
I0501 09:11:04.586614 13393 net.cpp:86] Creating Layer cifar
I0501 09:11:04.586622 13393 net.cpp:382] cifar -> data
I0501 09:11:04.586645 13393 net.cpp:382] cifar -> label
I0501 09:11:04.586658 13393 data_transformer.cpp:25] Loading mean file from: examples/cifar10/mean.binaryproto
I0501 09:11:04.588824 13393 data_layer.cpp:45] output data size: 111,3,32,32
I0501 09:11:04.596789 13393 net.cpp:124] Setting up cifar
I0501 09:11:04.596817 13393 net.cpp:131] Top shape: 111 3 32 32 (340992)
I0501 09:11:04.596823 13393 net.cpp:131] Top shape: 111 (111)
I0501 09:11:04.596827 13393 net.cpp:139] Memory required for data: 1364412
I0501 09:11:04.596850 13393 layer_factory.hpp:77] Creating layer conv0
I0501 09:11:04.596869 13393 net.cpp:86] Creating Layer conv0
I0501 09:11:04.596881 13393 net.cpp:408] conv0 <- data
I0501 09:11:04.596894 13393 net.cpp:382] conv0 -> conv0
I0501 09:11:04.869585 13393 net.cpp:124] Setting up conv0
I0501 09:11:04.869611 13393 net.cpp:131] Top shape: 111 16 34 34 (2053056)
I0501 09:11:04.869614 13393 net.cpp:139] Memory required for data: 9576636
I0501 09:11:04.869628 13393 layer_factory.hpp:77] Creating layer Sigmoid0
I0501 09:11:04.869639 13393 net.cpp:86] Creating Layer Sigmoid0
I0501 09:11:04.869643 13393 net.cpp:408] Sigmoid0 <- conv0
I0501 09:11:04.869648 13393 net.cpp:382] Sigmoid0 -> Sigmoid0
I0501 09:11:04.869829 13393 net.cpp:124] Setting up Sigmoid0
I0501 09:11:04.869838 13393 net.cpp:131] Top shape: 111 16 34 34 (2053056)
I0501 09:11:04.869843 13393 net.cpp:139] Memory required for data: 17788860
I0501 09:11:04.869845 13393 layer_factory.hpp:77] Creating layer pool0
I0501 09:11:04.869853 13393 net.cpp:86] Creating Layer pool0
I0501 09:11:04.869855 13393 net.cpp:408] pool0 <- Sigmoid0
I0501 09:11:04.869859 13393 net.cpp:382] pool0 -> pool0
I0501 09:11:04.870553 13393 net.cpp:124] Setting up pool0
I0501 09:11:04.870566 13393 net.cpp:131] Top shape: 111 16 17 17 (513264)
I0501 09:11:04.870569 13393 net.cpp:139] Memory required for data: 19841916
I0501 09:11:04.870573 13393 layer_factory.hpp:77] Creating layer ip1
I0501 09:11:04.870581 13393 net.cpp:86] Creating Layer ip1
I0501 09:11:04.870586 13393 net.cpp:408] ip1 <- pool0
I0501 09:11:04.870606 13393 net.cpp:382] ip1 -> ip1
I0501 09:11:04.873041 13393 net.cpp:124] Setting up ip1
I0501 09:11:04.873049 13393 net.cpp:131] Top shape: 111 20 (2220)
I0501 09:11:04.873069 13393 net.cpp:139] Memory required for data: 19850796
I0501 09:11:04.873076 13393 layer_factory.hpp:77] Creating layer relu1
I0501 09:11:04.873081 13393 net.cpp:86] Creating Layer relu1
I0501 09:11:04.873086 13393 net.cpp:408] relu1 <- ip1
I0501 09:11:04.873090 13393 net.cpp:369] relu1 -> ip1 (in-place)
I0501 09:11:04.873263 13393 net.cpp:124] Setting up relu1
I0501 09:11:04.873271 13393 net.cpp:131] Top shape: 111 20 (2220)
I0501 09:11:04.873275 13393 net.cpp:139] Memory required for data: 19859676
I0501 09:11:04.873277 13393 layer_factory.hpp:77] Creating layer ip2
I0501 09:11:04.873283 13393 net.cpp:86] Creating Layer ip2
I0501 09:11:04.873286 13393 net.cpp:408] ip2 <- ip1
I0501 09:11:04.873291 13393 net.cpp:382] ip2 -> ip2
I0501 09:11:04.873400 13393 net.cpp:124] Setting up ip2
I0501 09:11:04.873406 13393 net.cpp:131] Top shape: 111 40 (4440)
I0501 09:11:04.873409 13393 net.cpp:139] Memory required for data: 19877436
I0501 09:11:04.873416 13393 layer_factory.hpp:77] Creating layer relu2
I0501 09:11:04.873421 13393 net.cpp:86] Creating Layer relu2
I0501 09:11:04.873423 13393 net.cpp:408] relu2 <- ip2
I0501 09:11:04.873427 13393 net.cpp:369] relu2 -> ip2 (in-place)
I0501 09:11:04.873564 13393 net.cpp:124] Setting up relu2
I0501 09:11:04.873571 13393 net.cpp:131] Top shape: 111 40 (4440)
I0501 09:11:04.873574 13393 net.cpp:139] Memory required for data: 19895196
I0501 09:11:04.873577 13393 layer_factory.hpp:77] Creating layer ip3
I0501 09:11:04.873584 13393 net.cpp:86] Creating Layer ip3
I0501 09:11:04.873586 13393 net.cpp:408] ip3 <- ip2
I0501 09:11:04.873591 13393 net.cpp:382] ip3 -> ip3
I0501 09:11:04.873733 13393 net.cpp:124] Setting up ip3
I0501 09:11:04.873739 13393 net.cpp:131] Top shape: 111 40 (4440)
I0501 09:11:04.873742 13393 net.cpp:139] Memory required for data: 19912956
I0501 09:11:04.873747 13393 layer_factory.hpp:77] Creating layer relu3
I0501 09:11:04.873752 13393 net.cpp:86] Creating Layer relu3
I0501 09:11:04.873755 13393 net.cpp:408] relu3 <- ip3
I0501 09:11:04.873759 13393 net.cpp:369] relu3 -> ip3 (in-place)
I0501 09:11:04.873898 13393 net.cpp:124] Setting up relu3
I0501 09:11:04.873904 13393 net.cpp:131] Top shape: 111 40 (4440)
I0501 09:11:04.873908 13393 net.cpp:139] Memory required for data: 19930716
I0501 09:11:04.873910 13393 layer_factory.hpp:77] Creating layer ip4
I0501 09:11:04.873929 13393 net.cpp:86] Creating Layer ip4
I0501 09:11:04.873935 13393 net.cpp:408] ip4 <- ip3
I0501 09:11:04.873955 13393 net.cpp:382] ip4 -> ip4
I0501 09:11:04.874070 13393 net.cpp:124] Setting up ip4
I0501 09:11:04.874076 13393 net.cpp:131] Top shape: 111 10 (1110)
I0501 09:11:04.874079 13393 net.cpp:139] Memory required for data: 19935156
I0501 09:11:04.874088 13393 layer_factory.hpp:77] Creating layer loss
I0501 09:11:04.874097 13393 net.cpp:86] Creating Layer loss
I0501 09:11:04.874102 13393 net.cpp:408] loss <- ip4
I0501 09:11:04.874105 13393 net.cpp:408] loss <- label
I0501 09:11:04.874110 13393 net.cpp:382] loss -> loss
I0501 09:11:04.874124 13393 layer_factory.hpp:77] Creating layer loss
…
I0501 09:11:04.875362 13393 solver.cpp:173] Creating test net (#0) specified by net file: ECE595/cifar/train_test/var_everything/cifar_train_test_532.prototxt
I0501 09:11:04.875404 13393 net.cpp:296] The NetState phase (1) differed from the phase (0) specified by a rule in layer cifar
I0501 09:11:04.875490 13393 net.cpp:53] Initializing net from parameters: 
name: "CIFAR"
state {
  phase: TEST
}
layer {
  name: "cifar"
  type: "Data"
  top: "data"
  top: "label"
  include {
    phase: TEST
  }
  transform_param {
    mean_file: "examples/cifar10/mean.binaryproto"
  }
  data_param {
    source: "examples/cifar10/cifar10_test_lmdb"
    batch_size: 1000
    backend: LMDB
  }
}
layer {
  name: "conv0"
  type: "Convolution"
  bottom: "data"
  top: "conv0"
  param {
    lr_mult: 1
  }
  param {
    lr_mult: 2
  }
  convolution_param {
    num_output: 16
    pad: 2
    kernel_size: 3
    stride: 1
    weight_filler {
      type: "gaussian"
      std: 0.01
    }
    bias_filler {
      type: "constant"
    }
  }
}
layer {
  name: "Sigmoid0"
  type: "Sigmoid"
  bottom: "conv0"
  top: "Sigmoid0"
}
layer {
  name: "pool0"
  type: "Pooling"
  bottom: "Sigmoid0"
  top: "pool0"
  pooling_param {
    pool: AVE
    kernel_size: 3
    stride: 2
  }
}
layer {
  name: "ip1"
  type: "InnerProduct"
  bottom: "pool0"
  top: "ip1"
  param {
    lr_mult: 1
  }
  param {
    lr_mult: 2
  }
  inner_product_param {
    num_output: 20
    weight_filler {
      type: "gaussian"
      std: 0.01
    }
    bias_filler {
      type: "constant"
    }
  }
}
layer {
  name: "relu1"
  type: "ReLU"
  bottom: "ip1"
  top: "ip1"
}
layer {
  name: "ip2"
  type: "InnerProduct"
  bottom: "ip1"
  top: "ip2"
  param {
    lr_mult: 1
  }
  param {
    lr_mult: 2
  }
  inner_product_param {
    num_output: 40
    weight_filler {
      type: "gaussian"
      std: 0.01
    }
    bias_filler {
      type: "constant"
    }
  }
}
layer {
  name: "relu2"
  type: "ReLU"
  bottom: "ip2"
  top: "ip2"
}
layer {
  name: "ip3"
  type: "InnerProduct"
  bottom: "ip2"
  top: "ip3"
  param {
    lr_mult: 1
  }
  param {
    lr_mult: 2
  }
  inner_product_param {
    num_output: 40
    weight_filler {
      type: "gaussian"
      std: 0.01
    }
    bias_filler {
      type: "constant"
    }
  }
}
layer {
  name: "relu3"
  type: "ReLU"
  bottom: "ip3"
  top: "ip3"
}
layer {
  name: "ip4"
  type: "InnerProduct"
  bottom: "ip3"
  top: "ip4"
  param {
    lr_mult: 1
  }
  param {
    lr_mult: 2
  }
  inner_product_param {
    num_output: 10
    weight_filler {
      type: "gaussian"
      std: 0.01
    }
    bias_filler {
      type: "constant"
    }
  }
}
layer {
  name: "accuracy"
  type: "Accuracy"
  bottom: "ip4"
  bottom: "label"
  top: "accuracy"
  include {
    phase: TEST
  }
}
layer {
  name: "loss"
  type: "SoftmaxWithLoss"
  bottom: "ip4"
  bottom: "label"
  top: "loss"
}
I0501 09:11:04.875564 13393 layer_factory.hpp:77] Creating layer cifar
I0501 09:11:04.875607 13393 db_lmdb.cpp:35] Opened lmdb examples/cifar10/cifar10_test_lmdb
I0501 09:11:04.875636 13393 net.cpp:86] Creating Layer cifar
I0501 09:11:04.875643 13393 net.cpp:382] cifar -> data
I0501 09:11:04.875649 13393 net.cpp:382] cifar -> label
I0501 09:11:04.875656 13393 data_transformer.cpp:25] Loading mean file from: examples/cifar10/mean.binaryproto
I0501 09:11:04.875793 13393 data_layer.cpp:45] output data size: 1000,3,32,32
I0501 09:11:04.897228 13393 net.cpp:124] Setting up cifar
I0501 09:11:04.897269 13393 net.cpp:131] Top shape: 1000 3 32 32 (3072000)
I0501 09:11:04.897274 13393 net.cpp:131] Top shape: 1000 (1000)
I0501 09:11:04.897277 13393 net.cpp:139] Memory required for data: 12292000
I0501 09:11:04.897282 13393 layer_factory.hpp:77] Creating layer label_cifar_1_split
I0501 09:11:04.897295 13393 net.cpp:86] Creating Layer label_cifar_1_split
I0501 09:11:04.897299 13393 net.cpp:408] label_cifar_1_split <- label
I0501 09:11:04.897305 13393 net.cpp:382] label_cifar_1_split -> label_cifar_1_split_0
I0501 09:11:04.897313 13393 net.cpp:382] label_cifar_1_split -> label_cifar_1_split_1
I0501 09:11:04.897423 13393 net.cpp:124] Setting up label_cifar_1_split
I0501 09:11:04.897429 13393 net.cpp:131] Top shape: 1000 (1000)
I0501 09:11:04.897433 13393 net.cpp:131] Top shape: 1000 (1000)
I0501 09:11:04.897435 13393 net.cpp:139] Memory required for data: 12300000
I0501 09:11:04.897439 13393 layer_factory.hpp:77] Creating layer conv0
I0501 09:11:04.897450 13393 net.cpp:86] Creating Layer conv0
I0501 09:11:04.897455 13393 net.cpp:408] conv0 <- data
I0501 09:11:04.897476 13393 net.cpp:382] conv0 -> conv0
I0501 09:11:04.899123 13393 net.cpp:124] Setting up conv0
I0501 09:11:04.899135 13393 net.cpp:131] Top shape: 1000 16 34 34 (18496000)
I0501 09:11:04.899155 13393 net.cpp:139] Memory required for data: 86284000
I0501 09:11:04.899179 13393 layer_factory.hpp:77] Creating layer Sigmoid0
I0501 09:11:04.899188 13393 net.cpp:86] Creating Layer Sigmoid0
I0501 09:11:04.899190 13393 net.cpp:408] Sigmoid0 <- conv0
I0501 09:11:04.899194 13393 net.cpp:382] Sigmoid0 -> Sigmoid0
I0501 09:11:04.899391 13393 net.cpp:124] Setting up Sigmoid0
I0501 09:11:04.899400 13393 net.cpp:131] Top shape: 1000 16 34 34 (18496000)
I0501 09:11:04.899404 13393 net.cpp:139] Memory required for data: 160268000
I0501 09:11:04.899406 13393 layer_factory.hpp:77] Creating layer pool0
I0501 09:11:04.899415 13393 net.cpp:86] Creating Layer pool0
I0501 09:11:04.899418 13393 net.cpp:408] pool0 <- Sigmoid0
I0501 09:11:04.899423 13393 net.cpp:382] pool0 -> pool0
I0501 09:11:04.899628 13393 net.cpp:124] Setting up pool0
I0501 09:11:04.899637 13393 net.cpp:131] Top shape: 1000 16 17 17 (4624000)
I0501 09:11:04.899641 13393 net.cpp:139] Memory required for data: 178764000
I0501 09:11:04.899643 13393 layer_factory.hpp:77] Creating layer ip1
I0501 09:11:04.899651 13393 net.cpp:86] Creating Layer ip1
I0501 09:11:04.899653 13393 net.cpp:408] ip1 <- pool0
I0501 09:11:04.899659 13393 net.cpp:382] ip1 -> ip1
I0501 09:11:04.902276 13393 net.cpp:124] Setting up ip1
I0501 09:11:04.902285 13393 net.cpp:131] Top shape: 1000 20 (20000)
I0501 09:11:04.902288 13393 net.cpp:139] Memory required for data: 178844000
I0501 09:11:04.902326 13393 layer_factory.hpp:77] Creating layer relu1
I0501 09:11:04.902333 13393 net.cpp:86] Creating Layer relu1
I0501 09:11:04.902335 13393 net.cpp:408] relu1 <- ip1
I0501 09:11:04.902341 13393 net.cpp:369] relu1 -> ip1 (in-place)
I0501 09:11:04.902542 13393 net.cpp:124] Setting up relu1
I0501 09:11:04.902550 13393 net.cpp:131] Top shape: 1000 20 (20000)
I0501 09:11:04.902554 13393 net.cpp:139] Memory required for data: 178924000
I0501 09:11:04.902556 13393 layer_factory.hpp:77] Creating layer ip2
I0501 09:11:04.902561 13393 net.cpp:86] Creating Layer ip2
I0501 09:11:04.902566 13393 net.cpp:408] ip2 <- ip1
I0501 09:11:04.902570 13393 net.cpp:382] ip2 -> ip2
I0501 09:11:04.902696 13393 net.cpp:124] Setting up ip2
I0501 09:11:04.902704 13393 net.cpp:131] Top shape: 1000 40 (40000)
I0501 09:11:04.902706 13393 net.cpp:139] Memory required for data: 179084000
I0501 09:11:04.902714 13393 layer_factory.hpp:77] Creating layer relu2
I0501 09:11:04.902719 13393 net.cpp:86] Creating Layer relu2
I0501 09:11:04.902722 13393 net.cpp:408] relu2 <- ip2
I0501 09:11:04.902727 13393 net.cpp:369] relu2 -> ip2 (in-place)
I0501 09:11:04.903481 13393 net.cpp:124] Setting up relu2
I0501 09:11:04.903493 13393 net.cpp:131] Top shape: 1000 40 (40000)
I0501 09:11:04.903512 13393 net.cpp:139] Memory required for data: 179244000
I0501 09:11:04.903517 13393 layer_factory.hpp:77] Creating layer ip3
I0501 09:11:04.903524 13393 net.cpp:86] Creating Layer ip3
I0501 09:11:04.903527 13393 net.cpp:408] ip3 <- ip2
I0501 09:11:04.903532 13393 net.cpp:382] ip3 -> ip3
I0501 09:11:04.903709 13393 net.cpp:124] Setting up ip3
I0501 09:11:04.903717 13393 net.cpp:131] Top shape: 1000 40 (40000)
I0501 09:11:04.903719 13393 net.cpp:139] Memory required for data: 179404000
I0501 09:11:04.903725 13393 layer_factory.hpp:77] Creating layer relu3
I0501 09:11:04.903731 13393 net.cpp:86] Creating Layer relu3
I0501 09:11:04.903734 13393 net.cpp:408] relu3 <- ip3
I0501 09:11:04.903738 13393 net.cpp:369] relu3 -> ip3 (in-place)
I0501 09:11:04.903887 13393 net.cpp:124] Setting up relu3
I0501 09:11:04.903894 13393 net.cpp:131] Top shape: 1000 40 (40000)
I0501 09:11:04.903898 13393 net.cpp:139] Memory required for data: 179564000
I0501 09:11:04.903900 13393 layer_factory.hpp:77] Creating layer ip4
I0501 09:11:04.903908 13393 net.cpp:86] Creating Layer ip4
I0501 09:11:04.903911 13393 net.cpp:408] ip4 <- ip3
I0501 09:11:04.903925 13393 net.cpp:382] ip4 -> ip4
I0501 09:11:04.904034 13393 net.cpp:124] Setting up ip4
I0501 09:11:04.904042 13393 net.cpp:131] Top shape: 1000 10 (10000)
I0501 09:11:04.904043 13393 net.cpp:139] Memory required for data: 179604000
I0501 09:11:04.904052 13393 layer_factory.hpp:77] Creating layer ip4_ip4_0_split
I0501 09:11:04.904057 13393 net.cpp:86] Creating Layer ip4_ip4_0_split
I0501 09:11:04.904059 13393 net.cpp:408] ip4_ip4_0_split <- ip4
I0501 09:11:04.904063 13393 net.cpp:382] ip4_ip4_0_split -> ip4_ip4_0_split_0
I0501 09:11:04.904069 13393 net.cpp:382] ip4_ip4_0_split -> ip4_ip4_0_split_1
I0501 09:11:04.904100 13393 net.cpp:124] Setting up ip4_ip4_0_split
I0501 09:11:04.904108 13393 net.cpp:131] Top shape: 1000 10 (10000)
I0501 09:11:04.904111 13393 net.cpp:131] Top shape: 1000 10 (10000)
I0501 09:11:04.904114 13393 net.cpp:139] Memory required for data: 179684000
I0501 09:11:04.904116 13393 layer_factory.hpp:77] Creating layer accuracy
I0501 09:11:04.904122 13393 net.cpp:86] Creating Layer accuracy
I0501 09:11:04.904125 13393 net.cpp:408] accuracy <- ip4_ip4_0_split_0
I0501 09:11:04.904129 13393 net.cpp:408] accuracy <- label_cifar_1_split_0
I0501 09:11:04.904134 13393 net.cpp:382] accuracy -> accuracy
…
