…
I0430 23:01:28.937312  3998 net.cpp:296] The NetState phase (0) differed from the phase (1) specified by a rule in layer cifar
I0430 23:01:28.937350  3998 net.cpp:296] The NetState phase (0) differed from the phase (1) specified by a rule in layer accuracy
I0430 23:01:28.937503  3998 net.cpp:53] Initializing net from parameters: 
name: "CIFAR"
state {
  phase: TRAIN
  level: 0
  stage: ""
}
layer {
  name: "cifar"
  type: "Data"
  top: "data"
  top: "label"
  include {
    phase: TRAIN
  }
  transform_param {
    mean_file: "examples/cifar10/mean.binaryproto"
  }
  data_param {
    source: "examples/cifar10/cifar10_train_lmdb"
    batch_size: 111
    backend: LMDB
  }
}
layer {
  name: "conv0"
  type: "Convolution"
  bottom: "data"
  top: "conv0"
  param {
    lr_mult: 1
  }
  param {
    lr_mult: 2
  }
  convolution_param {
    num_output: 8
    pad: 2
    kernel_size: 3
    stride: 1
    weight_filler {
      type: "gaussian"
      std: 0.01
    }
    bias_filler {
      type: "constant"
    }
  }
}
layer {
  name: "Sigmoid0"
  type: "Sigmoid"
  bottom: "conv0"
  top: "Sigmoid0"
}
layer {
  name: "pool0"
  type: "Pooling"
  bottom: "Sigmoid0"
  top: "pool0"
  pooling_param {
    pool: AVE
    kernel_size: 3
    stride: 2
  }
}
layer {
  name: "ip1"
  type: "InnerProduct"
  bottom: "pool0"
  top: "ip1"
  param {
    lr_mult: 1
  }
  param {
    lr_mult: 2
  }
  inner_product_param {
    num_output: 20
    weight_filler {
      type: "gaussian"
      std: 0.01
    }
    bias_filler {
      type: "constant"
    }
  }
}
layer {
  name: "relu1"
  type: "ReLU"
  bottom: "ip1"
  top: "ip1"
}
layer {
  name: "ip2"
  type: "InnerProduct"
  bottom: "ip1"
  top: "ip2"
  param {
    lr_mult: 1
  }
  param {
    lr_mult: 2
  }
  inner_product_param {
    num_output: 10
    weight_filler {
      type: "gaussian"
      std: 0.01
    }
    bias_filler {
      type: "constant"
    }
  }
}
layer {
  name: "relu2"
  type: "ReLU"
  bottom: "ip2"
  top: "ip2"
}
layer {
  name: "ip3"
  type: "InnerProduct"
  bottom: "ip2"
  top: "ip3"
  param {
    lr_mult: 1
  }
  param {
    lr_mult: 2
  }
  inner_product_param {
    num_output: 40
    weight_filler {
      type: "gaussian"
      std: 0.01
    }
    bias_filler {
      type: "constant"
    }
  }
}
layer {
  name: "relu3"
  type: "ReLU"
  bottom: "ip3"
  top: "ip3"
}
layer {
  name: "ip4"
  type: "InnerProduct"
  bottom: "ip3"
  top: "ip4"
  param {
    lr_mult: 1
  }
  param {
    lr_mult: 2
  }
  inner_product_param {
    num_output: 10
    weight_filler {
      type: "gaussian"
      std: 0.01
    }
    bias_filler {
      type: "constant"
    }
  }
}
layer {
  name: "loss"
  type: "SoftmaxWithLoss"
  bottom: "ip4"
  bottom: "label"
  top: "loss"
}
I0430 23:01:28.937618  3998 layer_factory.hpp:77] Creating layer cifar
I0430 23:01:28.937759  3998 db_lmdb.cpp:35] Opened lmdb examples/cifar10/cifar10_train_lmdb
I0430 23:01:28.937798  3998 net.cpp:86] Creating Layer cifar
I0430 23:01:28.937814  3998 net.cpp:382] cifar -> data
I0430 23:01:28.937846  3998 net.cpp:382] cifar -> label
I0430 23:01:28.937865  3998 data_transformer.cpp:25] Loading mean file from: examples/cifar10/mean.binaryproto
I0430 23:01:28.940729  3998 data_layer.cpp:45] output data size: 111,3,32,32
I0430 23:01:28.951302  3998 net.cpp:124] Setting up cifar
I0430 23:01:28.951328  3998 net.cpp:131] Top shape: 111 3 32 32 (340992)
I0430 23:01:28.951335  3998 net.cpp:131] Top shape: 111 (111)
I0430 23:01:28.951340  3998 net.cpp:139] Memory required for data: 1364412
I0430 23:01:28.951372  3998 layer_factory.hpp:77] Creating layer conv0
I0430 23:01:28.951398  3998 net.cpp:86] Creating Layer conv0
I0430 23:01:28.951409  3998 net.cpp:408] conv0 <- data
I0430 23:01:28.951426  3998 net.cpp:382] conv0 -> conv0
I0430 23:01:29.253336  3998 net.cpp:124] Setting up conv0
I0430 23:01:29.253367  3998 net.cpp:131] Top shape: 111 8 34 34 (1026528)
I0430 23:01:29.253372  3998 net.cpp:139] Memory required for data: 5470524
I0430 23:01:29.253391  3998 layer_factory.hpp:77] Creating layer Sigmoid0
I0430 23:01:29.253406  3998 net.cpp:86] Creating Layer Sigmoid0
I0430 23:01:29.253412  3998 net.cpp:408] Sigmoid0 <- conv0
I0430 23:01:29.253417  3998 net.cpp:382] Sigmoid0 -> Sigmoid0
I0430 23:01:29.253631  3998 net.cpp:124] Setting up Sigmoid0
I0430 23:01:29.253643  3998 net.cpp:131] Top shape: 111 8 34 34 (1026528)
I0430 23:01:29.253648  3998 net.cpp:139] Memory required for data: 9576636
I0430 23:01:29.253651  3998 layer_factory.hpp:77] Creating layer pool0
I0430 23:01:29.253659  3998 net.cpp:86] Creating Layer pool0
I0430 23:01:29.253664  3998 net.cpp:408] pool0 <- Sigmoid0
I0430 23:01:29.253669  3998 net.cpp:382] pool0 -> pool0
I0430 23:01:29.254549  3998 net.cpp:124] Setting up pool0
I0430 23:01:29.254565  3998 net.cpp:131] Top shape: 111 8 17 17 (256632)
I0430 23:01:29.254570  3998 net.cpp:139] Memory required for data: 10603164
I0430 23:01:29.254575  3998 layer_factory.hpp:77] Creating layer ip1
I0430 23:01:29.254585  3998 net.cpp:86] Creating Layer ip1
I0430 23:01:29.254590  3998 net.cpp:408] ip1 <- pool0
I0430 23:01:29.254597  3998 net.cpp:382] ip1 -> ip1
I0430 23:01:29.257236  3998 net.cpp:124] Setting up ip1
I0430 23:01:29.257251  3998 net.cpp:131] Top shape: 111 20 (2220)
I0430 23:01:29.257256  3998 net.cpp:139] Memory required for data: 10612044
I0430 23:01:29.257266  3998 layer_factory.hpp:77] Creating layer relu1
I0430 23:01:29.257272  3998 net.cpp:86] Creating Layer relu1
I0430 23:01:29.257277  3998 net.cpp:408] relu1 <- ip1
I0430 23:01:29.257282  3998 net.cpp:369] relu1 -> ip1 (in-place)
I0430 23:01:29.257472  3998 net.cpp:124] Setting up relu1
I0430 23:01:29.257481  3998 net.cpp:131] Top shape: 111 20 (2220)
I0430 23:01:29.257485  3998 net.cpp:139] Memory required for data: 10620924
I0430 23:01:29.257489  3998 layer_factory.hpp:77] Creating layer ip2
I0430 23:01:29.257498  3998 net.cpp:86] Creating Layer ip2
I0430 23:01:29.257501  3998 net.cpp:408] ip2 <- ip1
I0430 23:01:29.257508  3998 net.cpp:382] ip2 -> ip2
I0430 23:01:29.257623  3998 net.cpp:124] Setting up ip2
I0430 23:01:29.257632  3998 net.cpp:131] Top shape: 111 10 (1110)
I0430 23:01:29.257637  3998 net.cpp:139] Memory required for data: 10625364
I0430 23:01:29.257645  3998 layer_factory.hpp:77] Creating layer relu2
I0430 23:01:29.257650  3998 net.cpp:86] Creating Layer relu2
I0430 23:01:29.257654  3998 net.cpp:408] relu2 <- ip2
I0430 23:01:29.257659  3998 net.cpp:369] relu2 -> ip2 (in-place)
I0430 23:01:29.257840  3998 net.cpp:124] Setting up relu2
I0430 23:01:29.257849  3998 net.cpp:131] Top shape: 111 10 (1110)
I0430 23:01:29.257853  3998 net.cpp:139] Memory required for data: 10629804
I0430 23:01:29.257858  3998 layer_factory.hpp:77] Creating layer ip3
I0430 23:01:29.257866  3998 net.cpp:86] Creating Layer ip3
I0430 23:01:29.257870  3998 net.cpp:408] ip3 <- ip2
I0430 23:01:29.257876  3998 net.cpp:382] ip3 -> ip3
I0430 23:01:29.258980  3998 net.cpp:124] Setting up ip3
I0430 23:01:29.258996  3998 net.cpp:131] Top shape: 111 40 (4440)
I0430 23:01:29.259001  3998 net.cpp:139] Memory required for data: 10647564
I0430 23:01:29.259007  3998 layer_factory.hpp:77] Creating layer relu3
I0430 23:01:29.259014  3998 net.cpp:86] Creating Layer relu3
I0430 23:01:29.259018  3998 net.cpp:408] relu3 <- ip3
I0430 23:01:29.259023  3998 net.cpp:369] relu3 -> ip3 (in-place)
I0430 23:01:29.259215  3998 net.cpp:124] Setting up relu3
I0430 23:01:29.259225  3998 net.cpp:131] Top shape: 111 40 (4440)
I0430 23:01:29.259229  3998 net.cpp:139] Memory required for data: 10665324
I0430 23:01:29.259233  3998 layer_factory.hpp:77] Creating layer ip4
I0430 23:01:29.259259  3998 net.cpp:86] Creating Layer ip4
I0430 23:01:29.259263  3998 net.cpp:408] ip4 <- ip3
I0430 23:01:29.259270  3998 net.cpp:382] ip4 -> ip4
I0430 23:01:29.259397  3998 net.cpp:124] Setting up ip4
I0430 23:01:29.259407  3998 net.cpp:131] Top shape: 111 10 (1110)
I0430 23:01:29.259410  3998 net.cpp:139] Memory required for data: 10669764
I0430 23:01:29.259420  3998 layer_factory.hpp:77] Creating layer loss
I0430 23:01:29.259426  3998 net.cpp:86] Creating Layer loss
I0430 23:01:29.259430  3998 net.cpp:408] loss <- ip4
I0430 23:01:29.259434  3998 net.cpp:408] loss <- label
I0430 23:01:29.259441  3998 net.cpp:382] loss -> loss
I0430 23:01:29.259457  3998 layer_factory.hpp:77] Creating layer loss
…
I0430 23:01:29.260921  3998 solver.cpp:173] Creating test net (#0) specified by net file: ECE595/cifar/train_test/var_everything/cifar_train_test_212.prototxt
I0430 23:01:29.260954  3998 net.cpp:296] The NetState phase (1) differed from the phase (0) specified by a rule in layer cifar
I0430 23:01:29.261065  3998 net.cpp:53] Initializing net from parameters: 
name: "CIFAR"
state {
  phase: TEST
}
layer {
  name: "cifar"
  type: "Data"
  top: "data"
  top: "label"
  include {
    phase: TEST
  }
  transform_param {
    mean_file: "examples/cifar10/mean.binaryproto"
  }
  data_param {
    source: "examples/cifar10/cifar10_test_lmdb"
    batch_size: 1000
    backend: LMDB
  }
}
layer {
  name: "conv0"
  type: "Convolution"
  bottom: "data"
  top: "conv0"
  param {
    lr_mult: 1
  }
  param {
    lr_mult: 2
  }
  convolution_param {
    num_output: 8
    pad: 2
    kernel_size: 3
    stride: 1
    weight_filler {
      type: "gaussian"
      std: 0.01
    }
    bias_filler {
      type: "constant"
    }
  }
}
layer {
  name: "Sigmoid0"
  type: "Sigmoid"
  bottom: "conv0"
  top: "Sigmoid0"
}
layer {
  name: "pool0"
  type: "Pooling"
  bottom: "Sigmoid0"
  top: "pool0"
  pooling_param {
    pool: AVE
    kernel_size: 3
    stride: 2
  }
}
layer {
  name: "ip1"
  type: "InnerProduct"
  bottom: "pool0"
  top: "ip1"
  param {
    lr_mult: 1
  }
  param {
    lr_mult: 2
  }
  inner_product_param {
    num_output: 20
    weight_filler {
      type: "gaussian"
      std: 0.01
    }
    bias_filler {
      type: "constant"
    }
  }
}
layer {
  name: "relu1"
  type: "ReLU"
  bottom: "ip1"
  top: "ip1"
}
layer {
  name: "ip2"
  type: "InnerProduct"
  bottom: "ip1"
  top: "ip2"
  param {
    lr_mult: 1
  }
  param {
    lr_mult: 2
  }
  inner_product_param {
    num_output: 10
    weight_filler {
      type: "gaussian"
      std: 0.01
    }
    bias_filler {
      type: "constant"
    }
  }
}
layer {
  name: "relu2"
  type: "ReLU"
  bottom: "ip2"
  top: "ip2"
}
layer {
  name: "ip3"
  type: "InnerProduct"
  bottom: "ip2"
  top: "ip3"
  param {
    lr_mult: 1
  }
  param {
    lr_mult: 2
  }
  inner_product_param {
    num_output: 40
    weight_filler {
      type: "gaussian"
      std: 0.01
    }
    bias_filler {
      type: "constant"
    }
  }
}
layer {
  name: "relu3"
  type: "ReLU"
  bottom: "ip3"
  top: "ip3"
}
layer {
  name: "ip4"
  type: "InnerProduct"
  bottom: "ip3"
  top: "ip4"
  param {
    lr_mult: 1
  }
  param {
    lr_mult: 2
  }
  inner_product_param {
    num_output: 10
    weight_filler {
      type: "gaussian"
      std: 0.01
    }
    bias_filler {
      type: "constant"
    }
  }
}
layer {
  name: "accuracy"
  type: "Accuracy"
  bottom: "ip4"
  bottom: "label"
  top: "accuracy"
  include {
    phase: TEST
  }
}
layer {
  name: "loss"
  type: "SoftmaxWithLoss"
  bottom: "ip4"
  bottom: "label"
  top: "loss"
}
I0430 23:01:29.261162  3998 layer_factory.hpp:77] Creating layer cifar
I0430 23:01:29.261216  3998 db_lmdb.cpp:35] Opened lmdb examples/cifar10/cifar10_test_lmdb
I0430 23:01:29.261231  3998 net.cpp:86] Creating Layer cifar
I0430 23:01:29.261236  3998 net.cpp:382] cifar -> data
I0430 23:01:29.261246  3998 net.cpp:382] cifar -> label
I0430 23:01:29.261253  3998 data_transformer.cpp:25] Loading mean file from: examples/cifar10/mean.binaryproto
I0430 23:01:29.261425  3998 data_layer.cpp:45] output data size: 1000,3,32,32
I0430 23:01:29.287417  3998 net.cpp:124] Setting up cifar
I0430 23:01:29.287447  3998 net.cpp:131] Top shape: 1000 3 32 32 (3072000)
I0430 23:01:29.287456  3998 net.cpp:131] Top shape: 1000 (1000)
I0430 23:01:29.287459  3998 net.cpp:139] Memory required for data: 12292000
I0430 23:01:29.287467  3998 layer_factory.hpp:77] Creating layer label_cifar_1_split
I0430 23:01:29.287480  3998 net.cpp:86] Creating Layer label_cifar_1_split
I0430 23:01:29.287485  3998 net.cpp:408] label_cifar_1_split <- label
I0430 23:01:29.287492  3998 net.cpp:382] label_cifar_1_split -> label_cifar_1_split_0
I0430 23:01:29.287503  3998 net.cpp:382] label_cifar_1_split -> label_cifar_1_split_1
I0430 23:01:29.287626  3998 net.cpp:124] Setting up label_cifar_1_split
I0430 23:01:29.287636  3998 net.cpp:131] Top shape: 1000 (1000)
I0430 23:01:29.287642  3998 net.cpp:131] Top shape: 1000 (1000)
I0430 23:01:29.287644  3998 net.cpp:139] Memory required for data: 12300000
I0430 23:01:29.287648  3998 layer_factory.hpp:77] Creating layer conv0
I0430 23:01:29.287663  3998 net.cpp:86] Creating Layer conv0
I0430 23:01:29.287667  3998 net.cpp:408] conv0 <- data
I0430 23:01:29.287674  3998 net.cpp:382] conv0 -> conv0
I0430 23:01:29.289438  3998 net.cpp:124] Setting up conv0
I0430 23:01:29.289454  3998 net.cpp:131] Top shape: 1000 8 34 34 (9248000)
I0430 23:01:29.289459  3998 net.cpp:139] Memory required for data: 49292000
I0430 23:01:29.289471  3998 layer_factory.hpp:77] Creating layer Sigmoid0
I0430 23:01:29.289480  3998 net.cpp:86] Creating Layer Sigmoid0
I0430 23:01:29.289484  3998 net.cpp:408] Sigmoid0 <- conv0
I0430 23:01:29.289490  3998 net.cpp:382] Sigmoid0 -> Sigmoid0
I0430 23:01:29.290645  3998 net.cpp:124] Setting up Sigmoid0
I0430 23:01:29.290657  3998 net.cpp:131] Top shape: 1000 8 34 34 (9248000)
I0430 23:01:29.290662  3998 net.cpp:139] Memory required for data: 86284000
I0430 23:01:29.290666  3998 layer_factory.hpp:77] Creating layer pool0
I0430 23:01:29.290675  3998 net.cpp:86] Creating Layer pool0
I0430 23:01:29.290679  3998 net.cpp:408] pool0 <- Sigmoid0
I0430 23:01:29.290685  3998 net.cpp:382] pool0 -> pool0
I0430 23:01:29.290904  3998 net.cpp:124] Setting up pool0
I0430 23:01:29.290915  3998 net.cpp:131] Top shape: 1000 8 17 17 (2312000)
I0430 23:01:29.290918  3998 net.cpp:139] Memory required for data: 95532000
I0430 23:01:29.290922  3998 layer_factory.hpp:77] Creating layer ip1
I0430 23:01:29.290931  3998 net.cpp:86] Creating Layer ip1
I0430 23:01:29.290935  3998 net.cpp:408] ip1 <- pool0
I0430 23:01:29.290941  3998 net.cpp:382] ip1 -> ip1
I0430 23:01:29.292595  3998 net.cpp:124] Setting up ip1
I0430 23:01:29.292606  3998 net.cpp:131] Top shape: 1000 20 (20000)
I0430 23:01:29.292610  3998 net.cpp:139] Memory required for data: 95612000
I0430 23:01:29.292636  3998 layer_factory.hpp:77] Creating layer relu1
I0430 23:01:29.292644  3998 net.cpp:86] Creating Layer relu1
I0430 23:01:29.292647  3998 net.cpp:408] relu1 <- ip1
I0430 23:01:29.292652  3998 net.cpp:369] relu1 -> ip1 (in-place)
I0430 23:01:29.292855  3998 net.cpp:124] Setting up relu1
I0430 23:01:29.292865  3998 net.cpp:131] Top shape: 1000 20 (20000)
I0430 23:01:29.292870  3998 net.cpp:139] Memory required for data: 95692000
I0430 23:01:29.292875  3998 layer_factory.hpp:77] Creating layer ip2
I0430 23:01:29.292881  3998 net.cpp:86] Creating Layer ip2
I0430 23:01:29.292886  3998 net.cpp:408] ip2 <- ip1
I0430 23:01:29.292891  3998 net.cpp:382] ip2 -> ip2
I0430 23:01:29.293025  3998 net.cpp:124] Setting up ip2
I0430 23:01:29.293033  3998 net.cpp:131] Top shape: 1000 10 (10000)
I0430 23:01:29.293037  3998 net.cpp:139] Memory required for data: 95732000
I0430 23:01:29.293046  3998 layer_factory.hpp:77] Creating layer relu2
I0430 23:01:29.293053  3998 net.cpp:86] Creating Layer relu2
I0430 23:01:29.293057  3998 net.cpp:408] relu2 <- ip2
I0430 23:01:29.293061  3998 net.cpp:369] relu2 -> ip2 (in-place)
I0430 23:01:29.293949  3998 net.cpp:124] Setting up relu2
I0430 23:01:29.293965  3998 net.cpp:131] Top shape: 1000 10 (10000)
I0430 23:01:29.293970  3998 net.cpp:139] Memory required for data: 95772000
I0430 23:01:29.293975  3998 layer_factory.hpp:77] Creating layer ip3
I0430 23:01:29.293983  3998 net.cpp:86] Creating Layer ip3
I0430 23:01:29.293987  3998 net.cpp:408] ip3 <- ip2
I0430 23:01:29.293993  3998 net.cpp:382] ip3 -> ip3
I0430 23:01:29.294137  3998 net.cpp:124] Setting up ip3
I0430 23:01:29.294145  3998 net.cpp:131] Top shape: 1000 40 (40000)
I0430 23:01:29.294149  3998 net.cpp:139] Memory required for data: 95932000
I0430 23:01:29.294157  3998 layer_factory.hpp:77] Creating layer relu3
I0430 23:01:29.294163  3998 net.cpp:86] Creating Layer relu3
I0430 23:01:29.294167  3998 net.cpp:408] relu3 <- ip3
I0430 23:01:29.294172  3998 net.cpp:369] relu3 -> ip3 (in-place)
I0430 23:01:29.294355  3998 net.cpp:124] Setting up relu3
I0430 23:01:29.294365  3998 net.cpp:131] Top shape: 1000 40 (40000)
I0430 23:01:29.294369  3998 net.cpp:139] Memory required for data: 96092000
I0430 23:01:29.294373  3998 layer_factory.hpp:77] Creating layer ip4
I0430 23:01:29.294380  3998 net.cpp:86] Creating Layer ip4
I0430 23:01:29.294384  3998 net.cpp:408] ip4 <- ip3
I0430 23:01:29.294390  3998 net.cpp:382] ip4 -> ip4
I0430 23:01:29.294523  3998 net.cpp:124] Setting up ip4
I0430 23:01:29.294531  3998 net.cpp:131] Top shape: 1000 10 (10000)
I0430 23:01:29.294536  3998 net.cpp:139] Memory required for data: 96132000
I0430 23:01:29.294546  3998 layer_factory.hpp:77] Creating layer ip4_ip4_0_split
I0430 23:01:29.294553  3998 net.cpp:86] Creating Layer ip4_ip4_0_split
I0430 23:01:29.294555  3998 net.cpp:408] ip4_ip4_0_split <- ip4
I0430 23:01:29.294561  3998 net.cpp:382] ip4_ip4_0_split -> ip4_ip4_0_split_0
I0430 23:01:29.294569  3998 net.cpp:382] ip4_ip4_0_split -> ip4_ip4_0_split_1
I0430 23:01:29.294605  3998 net.cpp:124] Setting up ip4_ip4_0_split
I0430 23:01:29.294613  3998 net.cpp:131] Top shape: 1000 10 (10000)
I0430 23:01:29.294618  3998 net.cpp:131] Top shape: 1000 10 (10000)
I0430 23:01:29.294621  3998 net.cpp:139] Memory required for data: 96212000
I0430 23:01:29.294625  3998 layer_factory.hpp:77] Creating layer accuracy
I0430 23:01:29.294631  3998 net.cpp:86] Creating Layer accuracy
I0430 23:01:29.294636  3998 net.cpp:408] accuracy <- ip4_ip4_0_split_0
I0430 23:01:29.294641  3998 net.cpp:408] accuracy <- label_cifar_1_split_0
I0430 23:01:29.294646  3998 net.cpp:382] accuracy -> accuracy
…
