…
I0430 19:43:01.232960 26636 net.cpp:296] The NetState phase (0) differed from the phase (1) specified by a rule in layer cifar
I0430 19:43:01.232978 26636 net.cpp:296] The NetState phase (0) differed from the phase (1) specified by a rule in layer accuracy
I0430 19:43:01.233062 26636 net.cpp:53] Initializing net from parameters: 
name: "CIFAR"
state {
  phase: TRAIN
  level: 0
  stage: ""
}
layer {
  name: "cifar"
  type: "Data"
  top: "data"
  top: "label"
  include {
    phase: TRAIN
  }
  transform_param {
    mean_file: "examples/cifar10/mean.binaryproto"
  }
  data_param {
    source: "examples/cifar10/cifar10_train_lmdb"
    batch_size: 111
    backend: LMDB
  }
}
layer {
  name: "ip1"
  type: "InnerProduct"
  bottom: "data"
  top: "ip1"
  param {
    lr_mult: 1
  }
  param {
    lr_mult: 2
  }
  inner_product_param {
    num_output: 80
    weight_filler {
      type: "gaussian"
      std: 0.01
    }
    bias_filler {
      type: "constant"
    }
  }
}
layer {
  name: "relu1"
  type: "ReLU"
  bottom: "ip1"
  top: "ip1"
}
layer {
  name: "ip2"
  type: "InnerProduct"
  bottom: "ip1"
  top: "ip2"
  param {
    lr_mult: 1
  }
  param {
    lr_mult: 2
  }
  inner_product_param {
    num_output: 10
    weight_filler {
      type: "gaussian"
      std: 0.01
    }
    bias_filler {
      type: "constant"
    }
  }
}
layer {
  name: "relu2"
  type: "ReLU"
  bottom: "ip2"
  top: "ip2"
}
layer {
  name: "ip3"
  type: "InnerProduct"
  bottom: "ip2"
  top: "ip3"
  param {
    lr_mult: 1
  }
  param {
    lr_mult: 2
  }
  inner_product_param {
    num_output: 20
    weight_filler {
      type: "gaussian"
      std: 0.01
    }
    bias_filler {
      type: "constant"
    }
  }
}
layer {
  name: "relu3"
  type: "ReLU"
  bottom: "ip3"
  top: "ip3"
}
layer {
  name: "ip4"
  type: "InnerProduct"
  bottom: "ip3"
  top: "ip4"
  param {
    lr_mult: 1
  }
  param {
    lr_mult: 2
  }
  inner_product_param {
    num_output: 10
    weight_filler {
      type: "gaussian"
      std: 0.01
    }
    bias_filler {
      type: "constant"
    }
  }
}
layer {
  name: "loss"
  type: "SoftmaxWithLoss"
  bottom: "ip4"
  bottom: "label"
  top: "loss"
}
I0430 19:43:01.233134 26636 layer_factory.hpp:77] Creating layer cifar
I0430 19:43:01.233234 26636 db_lmdb.cpp:35] Opened lmdb examples/cifar10/cifar10_train_lmdb
I0430 19:43:01.233260 26636 net.cpp:86] Creating Layer cifar
I0430 19:43:01.233269 26636 net.cpp:382] cifar -> data
I0430 19:43:01.233291 26636 net.cpp:382] cifar -> label
I0430 19:43:01.233304 26636 data_transformer.cpp:25] Loading mean file from: examples/cifar10/mean.binaryproto
I0430 19:43:01.235419 26636 data_layer.cpp:45] output data size: 111,3,32,32
I0430 19:43:01.243320 26636 net.cpp:124] Setting up cifar
I0430 19:43:01.243338 26636 net.cpp:131] Top shape: 111 3 32 32 (340992)
I0430 19:43:01.243345 26636 net.cpp:131] Top shape: 111 (111)
I0430 19:43:01.243348 26636 net.cpp:139] Memory required for data: 1364412
I0430 19:43:01.243355 26636 layer_factory.hpp:77] Creating layer ip1
I0430 19:43:01.243366 26636 net.cpp:86] Creating Layer ip1
I0430 19:43:01.243371 26636 net.cpp:408] ip1 <- data
I0430 19:43:01.243383 26636 net.cpp:382] ip1 -> ip1
I0430 19:43:01.252624 26636 net.cpp:124] Setting up ip1
I0430 19:43:01.252645 26636 net.cpp:131] Top shape: 111 80 (8880)
I0430 19:43:01.252652 26636 net.cpp:139] Memory required for data: 1399932
I0430 19:43:01.252671 26636 layer_factory.hpp:77] Creating layer relu1
I0430 19:43:01.252681 26636 net.cpp:86] Creating Layer relu1
I0430 19:43:01.252701 26636 net.cpp:408] relu1 <- ip1
I0430 19:43:01.252709 26636 net.cpp:369] relu1 -> ip1 (in-place)
I0430 19:43:01.517307 26636 net.cpp:124] Setting up relu1
I0430 19:43:01.517348 26636 net.cpp:131] Top shape: 111 80 (8880)
I0430 19:43:01.517351 26636 net.cpp:139] Memory required for data: 1435452
I0430 19:43:01.517356 26636 layer_factory.hpp:77] Creating layer ip2
I0430 19:43:01.517367 26636 net.cpp:86] Creating Layer ip2
I0430 19:43:01.517371 26636 net.cpp:408] ip2 <- ip1
I0430 19:43:01.517379 26636 net.cpp:382] ip2 -> ip2
I0430 19:43:01.518353 26636 net.cpp:124] Setting up ip2
I0430 19:43:01.518365 26636 net.cpp:131] Top shape: 111 10 (1110)
I0430 19:43:01.518384 26636 net.cpp:139] Memory required for data: 1439892
I0430 19:43:01.518394 26636 layer_factory.hpp:77] Creating layer relu2
I0430 19:43:01.518402 26636 net.cpp:86] Creating Layer relu2
I0430 19:43:01.518406 26636 net.cpp:408] relu2 <- ip2
I0430 19:43:01.518410 26636 net.cpp:369] relu2 -> ip2 (in-place)
I0430 19:43:01.519327 26636 net.cpp:124] Setting up relu2
I0430 19:43:01.519340 26636 net.cpp:131] Top shape: 111 10 (1110)
I0430 19:43:01.519343 26636 net.cpp:139] Memory required for data: 1444332
I0430 19:43:01.519347 26636 layer_factory.hpp:77] Creating layer ip3
I0430 19:43:01.519354 26636 net.cpp:86] Creating Layer ip3
I0430 19:43:01.519357 26636 net.cpp:408] ip3 <- ip2
I0430 19:43:01.519362 26636 net.cpp:382] ip3 -> ip3
I0430 19:43:01.519460 26636 net.cpp:124] Setting up ip3
I0430 19:43:01.519467 26636 net.cpp:131] Top shape: 111 20 (2220)
I0430 19:43:01.519470 26636 net.cpp:139] Memory required for data: 1453212
I0430 19:43:01.519479 26636 layer_factory.hpp:77] Creating layer relu3
I0430 19:43:01.519482 26636 net.cpp:86] Creating Layer relu3
I0430 19:43:01.519485 26636 net.cpp:408] relu3 <- ip3
I0430 19:43:01.519490 26636 net.cpp:369] relu3 -> ip3 (in-place)
I0430 19:43:01.519646 26636 net.cpp:124] Setting up relu3
I0430 19:43:01.519655 26636 net.cpp:131] Top shape: 111 20 (2220)
I0430 19:43:01.519659 26636 net.cpp:139] Memory required for data: 1462092
I0430 19:43:01.519661 26636 layer_factory.hpp:77] Creating layer ip4
I0430 19:43:01.519666 26636 net.cpp:86] Creating Layer ip4
I0430 19:43:01.519670 26636 net.cpp:408] ip4 <- ip3
I0430 19:43:01.519690 26636 net.cpp:382] ip4 -> ip4
I0430 19:43:01.519803 26636 net.cpp:124] Setting up ip4
I0430 19:43:01.519810 26636 net.cpp:131] Top shape: 111 10 (1110)
I0430 19:43:01.519812 26636 net.cpp:139] Memory required for data: 1466532
I0430 19:43:01.519819 26636 layer_factory.hpp:77] Creating layer loss
I0430 19:43:01.519824 26636 net.cpp:86] Creating Layer loss
I0430 19:43:01.519829 26636 net.cpp:408] loss <- ip4
I0430 19:43:01.519831 26636 net.cpp:408] loss <- label
I0430 19:43:01.519836 26636 net.cpp:382] loss -> loss
I0430 19:43:01.519851 26636 layer_factory.hpp:77] Creating layer loss
…
I0430 19:43:01.520381 26636 solver.cpp:173] Creating test net (#0) specified by net file: ECE595/cifar/train_test/var_everything/cifar_train_test_106.prototxt
I0430 19:43:01.520416 26636 net.cpp:296] The NetState phase (1) differed from the phase (0) specified by a rule in layer cifar
I0430 19:43:01.520488 26636 net.cpp:53] Initializing net from parameters: 
name: "CIFAR"
state {
  phase: TEST
}
layer {
  name: "cifar"
  type: "Data"
  top: "data"
  top: "label"
  include {
    phase: TEST
  }
  transform_param {
    mean_file: "examples/cifar10/mean.binaryproto"
  }
  data_param {
    source: "examples/cifar10/cifar10_test_lmdb"
    batch_size: 1000
    backend: LMDB
  }
}
layer {
  name: "ip1"
  type: "InnerProduct"
  bottom: "data"
  top: "ip1"
  param {
    lr_mult: 1
  }
  param {
    lr_mult: 2
  }
  inner_product_param {
    num_output: 80
    weight_filler {
      type: "gaussian"
      std: 0.01
    }
    bias_filler {
      type: "constant"
    }
  }
}
layer {
  name: "relu1"
  type: "ReLU"
  bottom: "ip1"
  top: "ip1"
}
layer {
  name: "ip2"
  type: "InnerProduct"
  bottom: "ip1"
  top: "ip2"
  param {
    lr_mult: 1
  }
  param {
    lr_mult: 2
  }
  inner_product_param {
    num_output: 10
    weight_filler {
      type: "gaussian"
      std: 0.01
    }
    bias_filler {
      type: "constant"
    }
  }
}
layer {
  name: "relu2"
  type: "ReLU"
  bottom: "ip2"
  top: "ip2"
}
layer {
  name: "ip3"
  type: "InnerProduct"
  bottom: "ip2"
  top: "ip3"
  param {
    lr_mult: 1
  }
  param {
    lr_mult: 2
  }
  inner_product_param {
    num_output: 20
    weight_filler {
      type: "gaussian"
      std: 0.01
    }
    bias_filler {
      type: "constant"
    }
  }
}
layer {
  name: "relu3"
  type: "ReLU"
  bottom: "ip3"
  top: "ip3"
}
layer {
  name: "ip4"
  type: "InnerProduct"
  bottom: "ip3"
  top: "ip4"
  param {
    lr_mult: 1
  }
  param {
    lr_mult: 2
  }
  inner_product_param {
    num_output: 10
    weight_filler {
      type: "gaussian"
      std: 0.01
    }
    bias_filler {
      type: "constant"
    }
  }
}
layer {
  name: "accuracy"
  type: "Accuracy"
  bottom: "ip4"
  bottom: "label"
  top: "accuracy"
  include {
    phase: TEST
  }
}
layer {
  name: "loss"
  type: "SoftmaxWithLoss"
  bottom: "ip4"
  bottom: "label"
  top: "loss"
}
I0430 19:43:01.520545 26636 layer_factory.hpp:77] Creating layer cifar
I0430 19:43:01.520586 26636 db_lmdb.cpp:35] Opened lmdb examples/cifar10/cifar10_test_lmdb
I0430 19:43:01.520596 26636 net.cpp:86] Creating Layer cifar
I0430 19:43:01.520599 26636 net.cpp:382] cifar -> data
I0430 19:43:01.520606 26636 net.cpp:382] cifar -> label
I0430 19:43:01.520613 26636 data_transformer.cpp:25] Loading mean file from: examples/cifar10/mean.binaryproto
I0430 19:43:01.520745 26636 data_layer.cpp:45] output data size: 1000,3,32,32
I0430 19:43:01.542385 26636 net.cpp:124] Setting up cifar
I0430 19:43:01.542428 26636 net.cpp:131] Top shape: 1000 3 32 32 (3072000)
I0430 19:43:01.542433 26636 net.cpp:131] Top shape: 1000 (1000)
I0430 19:43:01.542436 26636 net.cpp:139] Memory required for data: 12292000
I0430 19:43:01.542444 26636 layer_factory.hpp:77] Creating layer label_cifar_1_split
I0430 19:43:01.542461 26636 net.cpp:86] Creating Layer label_cifar_1_split
I0430 19:43:01.542465 26636 net.cpp:408] label_cifar_1_split <- label
I0430 19:43:01.542471 26636 net.cpp:382] label_cifar_1_split -> label_cifar_1_split_0
I0430 19:43:01.542480 26636 net.cpp:382] label_cifar_1_split -> label_cifar_1_split_1
I0430 19:43:01.542562 26636 net.cpp:124] Setting up label_cifar_1_split
I0430 19:43:01.542569 26636 net.cpp:131] Top shape: 1000 (1000)
I0430 19:43:01.542572 26636 net.cpp:131] Top shape: 1000 (1000)
I0430 19:43:01.542575 26636 net.cpp:139] Memory required for data: 12300000
I0430 19:43:01.542578 26636 layer_factory.hpp:77] Creating layer ip1
I0430 19:43:01.542587 26636 net.cpp:86] Creating Layer ip1
I0430 19:43:01.542590 26636 net.cpp:408] ip1 <- data
I0430 19:43:01.542594 26636 net.cpp:382] ip1 -> ip1
I0430 19:43:01.549090 26636 net.cpp:124] Setting up ip1
I0430 19:43:01.549100 26636 net.cpp:131] Top shape: 1000 80 (80000)
I0430 19:43:01.549119 26636 net.cpp:139] Memory required for data: 12620000
I0430 19:43:01.549160 26636 layer_factory.hpp:77] Creating layer relu1
I0430 19:43:01.549166 26636 net.cpp:86] Creating Layer relu1
I0430 19:43:01.549170 26636 net.cpp:408] relu1 <- ip1
I0430 19:43:01.549188 26636 net.cpp:369] relu1 -> ip1 (in-place)
I0430 19:43:01.549950 26636 net.cpp:124] Setting up relu1
I0430 19:43:01.549962 26636 net.cpp:131] Top shape: 1000 80 (80000)
I0430 19:43:01.549981 26636 net.cpp:139] Memory required for data: 12940000
I0430 19:43:01.549985 26636 layer_factory.hpp:77] Creating layer ip2
I0430 19:43:01.549994 26636 net.cpp:86] Creating Layer ip2
I0430 19:43:01.549998 26636 net.cpp:408] ip2 <- ip1
I0430 19:43:01.550002 26636 net.cpp:382] ip2 -> ip2
I0430 19:43:01.550127 26636 net.cpp:124] Setting up ip2
I0430 19:43:01.550134 26636 net.cpp:131] Top shape: 1000 10 (10000)
I0430 19:43:01.550137 26636 net.cpp:139] Memory required for data: 12980000
I0430 19:43:01.550145 26636 layer_factory.hpp:77] Creating layer relu2
I0430 19:43:01.550151 26636 net.cpp:86] Creating Layer relu2
I0430 19:43:01.550154 26636 net.cpp:408] relu2 <- ip2
I0430 19:43:01.550158 26636 net.cpp:369] relu2 -> ip2 (in-place)
I0430 19:43:01.550310 26636 net.cpp:124] Setting up relu2
I0430 19:43:01.550318 26636 net.cpp:131] Top shape: 1000 10 (10000)
I0430 19:43:01.550321 26636 net.cpp:139] Memory required for data: 13020000
I0430 19:43:01.550324 26636 layer_factory.hpp:77] Creating layer ip3
I0430 19:43:01.550331 26636 net.cpp:86] Creating Layer ip3
I0430 19:43:01.550334 26636 net.cpp:408] ip3 <- ip2
I0430 19:43:01.550338 26636 net.cpp:382] ip3 -> ip3
I0430 19:43:01.550444 26636 net.cpp:124] Setting up ip3
I0430 19:43:01.550452 26636 net.cpp:131] Top shape: 1000 20 (20000)
I0430 19:43:01.550456 26636 net.cpp:139] Memory required for data: 13100000
I0430 19:43:01.550462 26636 layer_factory.hpp:77] Creating layer relu3
I0430 19:43:01.550468 26636 net.cpp:86] Creating Layer relu3
I0430 19:43:01.550472 26636 net.cpp:408] relu3 <- ip3
I0430 19:43:01.550475 26636 net.cpp:369] relu3 -> ip3 (in-place)
I0430 19:43:01.550631 26636 net.cpp:124] Setting up relu3
I0430 19:43:01.550639 26636 net.cpp:131] Top shape: 1000 20 (20000)
I0430 19:43:01.550642 26636 net.cpp:139] Memory required for data: 13180000
I0430 19:43:01.550645 26636 layer_factory.hpp:77] Creating layer ip4
I0430 19:43:01.550653 26636 net.cpp:86] Creating Layer ip4
I0430 19:43:01.550657 26636 net.cpp:408] ip4 <- ip3
I0430 19:43:01.550662 26636 net.cpp:382] ip4 -> ip4
I0430 19:43:01.550763 26636 net.cpp:124] Setting up ip4
I0430 19:43:01.550770 26636 net.cpp:131] Top shape: 1000 10 (10000)
I0430 19:43:01.550772 26636 net.cpp:139] Memory required for data: 13220000
I0430 19:43:01.550777 26636 layer_factory.hpp:77] Creating layer ip4_ip4_0_split
I0430 19:43:01.550782 26636 net.cpp:86] Creating Layer ip4_ip4_0_split
I0430 19:43:01.550786 26636 net.cpp:408] ip4_ip4_0_split <- ip4
I0430 19:43:01.550789 26636 net.cpp:382] ip4_ip4_0_split -> ip4_ip4_0_split_0
I0430 19:43:01.550796 26636 net.cpp:382] ip4_ip4_0_split -> ip4_ip4_0_split_1
I0430 19:43:01.550823 26636 net.cpp:124] Setting up ip4_ip4_0_split
I0430 19:43:01.550839 26636 net.cpp:131] Top shape: 1000 10 (10000)
I0430 19:43:01.550843 26636 net.cpp:131] Top shape: 1000 10 (10000)
I0430 19:43:01.550845 26636 net.cpp:139] Memory required for data: 13300000
I0430 19:43:01.550848 26636 layer_factory.hpp:77] Creating layer accuracy
I0430 19:43:01.550855 26636 net.cpp:86] Creating Layer accuracy
I0430 19:43:01.550858 26636 net.cpp:408] accuracy <- ip4_ip4_0_split_0
I0430 19:43:01.550863 26636 net.cpp:408] accuracy <- label_cifar_1_split_0
I0430 19:43:01.550868 26636 net.cpp:382] accuracy -> accuracy
…
