…
I0430 21:20:02.639662 30606 net.cpp:296] The NetState phase (0) differed from the phase (1) specified by a rule in layer cifar
I0430 21:20:02.639690 30606 net.cpp:296] The NetState phase (0) differed from the phase (1) specified by a rule in layer accuracy
I0430 21:20:02.639770 30606 net.cpp:53] Initializing net from parameters: 
name: "CIFAR"
state {
  phase: TRAIN
  level: 0
  stage: ""
}
layer {
  name: "cifar"
  type: "Data"
  top: "data"
  top: "label"
  include {
    phase: TRAIN
  }
  transform_param {
    mean_file: "examples/cifar10/mean.binaryproto"
  }
  data_param {
    source: "examples/cifar10/cifar10_train_lmdb"
    batch_size: 111
    backend: LMDB
  }
}
layer {
  name: "conv0"
  type: "Convolution"
  bottom: "data"
  top: "conv0"
  param {
    lr_mult: 1
  }
  param {
    lr_mult: 2
  }
  convolution_param {
    num_output: 8
    pad: 2
    kernel_size: 3
    stride: 1
    weight_filler {
      type: "gaussian"
      std: 0.01
    }
    bias_filler {
      type: "constant"
    }
  }
}
layer {
  name: "Sigmoid0"
  type: "Sigmoid"
  bottom: "conv0"
  top: "Sigmoid0"
}
layer {
  name: "pool0"
  type: "Pooling"
  bottom: "Sigmoid0"
  top: "pool0"
  pooling_param {
    pool: AVE
    kernel_size: 3
    stride: 2
  }
}
layer {
  name: "ip1"
  type: "InnerProduct"
  bottom: "pool0"
  top: "ip1"
  param {
    lr_mult: 1
  }
  param {
    lr_mult: 2
  }
  inner_product_param {
    num_output: 80
    weight_filler {
      type: "gaussian"
      std: 0.01
    }
    bias_filler {
      type: "constant"
    }
  }
}
layer {
  name: "relu1"
  type: "ReLU"
  bottom: "ip1"
  top: "ip1"
}
layer {
  name: "ip2"
  type: "InnerProduct"
  bottom: "ip1"
  top: "ip2"
  param {
    lr_mult: 1
  }
  param {
    lr_mult: 2
  }
  inner_product_param {
    num_output: 10
    weight_filler {
      type: "gaussian"
      std: 0.01
    }
    bias_filler {
      type: "constant"
    }
  }
}
layer {
  name: "loss"
  type: "SoftmaxWithLoss"
  bottom: "ip2"
  bottom: "label"
  top: "loss"
}
I0430 21:20:02.639847 30606 layer_factory.hpp:77] Creating layer cifar
I0430 21:20:02.639950 30606 db_lmdb.cpp:35] Opened lmdb examples/cifar10/cifar10_train_lmdb
I0430 21:20:02.639979 30606 net.cpp:86] Creating Layer cifar
I0430 21:20:02.639988 30606 net.cpp:382] cifar -> data
I0430 21:20:02.640013 30606 net.cpp:382] cifar -> label
I0430 21:20:02.640031 30606 data_transformer.cpp:25] Loading mean file from: examples/cifar10/mean.binaryproto
I0430 21:20:02.641855 30606 data_layer.cpp:45] output data size: 111,3,32,32
I0430 21:20:02.648314 30606 net.cpp:124] Setting up cifar
I0430 21:20:02.648345 30606 net.cpp:131] Top shape: 111 3 32 32 (340992)
I0430 21:20:02.648360 30606 net.cpp:131] Top shape: 111 (111)
I0430 21:20:02.648366 30606 net.cpp:139] Memory required for data: 1364412
I0430 21:20:02.648375 30606 layer_factory.hpp:77] Creating layer conv0
I0430 21:20:02.648394 30606 net.cpp:86] Creating Layer conv0
I0430 21:20:02.648403 30606 net.cpp:408] conv0 <- data
I0430 21:20:02.648422 30606 net.cpp:382] conv0 -> conv0
I0430 21:20:02.873747 30606 net.cpp:124] Setting up conv0
I0430 21:20:02.873772 30606 net.cpp:131] Top shape: 111 8 34 34 (1026528)
I0430 21:20:02.873776 30606 net.cpp:139] Memory required for data: 5470524
I0430 21:20:02.873790 30606 layer_factory.hpp:77] Creating layer Sigmoid0
I0430 21:20:02.873801 30606 net.cpp:86] Creating Layer Sigmoid0
I0430 21:20:02.873805 30606 net.cpp:408] Sigmoid0 <- conv0
I0430 21:20:02.873811 30606 net.cpp:382] Sigmoid0 -> Sigmoid0
I0430 21:20:02.874001 30606 net.cpp:124] Setting up Sigmoid0
I0430 21:20:02.874012 30606 net.cpp:131] Top shape: 111 8 34 34 (1026528)
I0430 21:20:02.874017 30606 net.cpp:139] Memory required for data: 9576636
I0430 21:20:02.874022 30606 layer_factory.hpp:77] Creating layer pool0
I0430 21:20:02.874030 30606 net.cpp:86] Creating Layer pool0
I0430 21:20:02.874035 30606 net.cpp:408] pool0 <- Sigmoid0
I0430 21:20:02.874042 30606 net.cpp:382] pool0 -> pool0
I0430 21:20:02.874714 30606 net.cpp:124] Setting up pool0
I0430 21:20:02.874727 30606 net.cpp:131] Top shape: 111 8 17 17 (256632)
I0430 21:20:02.874747 30606 net.cpp:139] Memory required for data: 10603164
I0430 21:20:02.874750 30606 layer_factory.hpp:77] Creating layer ip1
I0430 21:20:02.874764 30606 net.cpp:86] Creating Layer ip1
I0430 21:20:02.874769 30606 net.cpp:408] ip1 <- pool0
I0430 21:20:02.874778 30606 net.cpp:382] ip1 -> ip1
I0430 21:20:02.880225 30606 net.cpp:124] Setting up ip1
I0430 21:20:02.880237 30606 net.cpp:131] Top shape: 111 80 (8880)
I0430 21:20:02.880257 30606 net.cpp:139] Memory required for data: 10638684
I0430 21:20:02.880265 30606 layer_factory.hpp:77] Creating layer relu1
I0430 21:20:02.880271 30606 net.cpp:86] Creating Layer relu1
I0430 21:20:02.880275 30606 net.cpp:408] relu1 <- ip1
I0430 21:20:02.880282 30606 net.cpp:369] relu1 -> ip1 (in-place)
I0430 21:20:02.880448 30606 net.cpp:124] Setting up relu1
I0430 21:20:02.880456 30606 net.cpp:131] Top shape: 111 80 (8880)
I0430 21:20:02.880460 30606 net.cpp:139] Memory required for data: 10674204
I0430 21:20:02.880465 30606 layer_factory.hpp:77] Creating layer ip2
I0430 21:20:02.880473 30606 net.cpp:86] Creating Layer ip2
I0430 21:20:02.880481 30606 net.cpp:408] ip2 <- ip1
I0430 21:20:02.880489 30606 net.cpp:382] ip2 -> ip2
I0430 21:20:02.881391 30606 net.cpp:124] Setting up ip2
I0430 21:20:02.881402 30606 net.cpp:131] Top shape: 111 10 (1110)
I0430 21:20:02.881422 30606 net.cpp:139] Memory required for data: 10678644
I0430 21:20:02.881445 30606 layer_factory.hpp:77] Creating layer loss
I0430 21:20:02.881453 30606 net.cpp:86] Creating Layer loss
I0430 21:20:02.881456 30606 net.cpp:408] loss <- ip2
I0430 21:20:02.881463 30606 net.cpp:408] loss <- label
I0430 21:20:02.881470 30606 net.cpp:382] loss -> loss
I0430 21:20:02.881491 30606 layer_factory.hpp:77] Creating layer loss
…
I0430 21:20:02.882053 30606 solver.cpp:173] Creating test net (#0) specified by net file: ECE595/cifar/train_test/var_everything/cifar_train_test_158.prototxt
I0430 21:20:02.882083 30606 net.cpp:296] The NetState phase (1) differed from the phase (0) specified by a rule in layer cifar
I0430 21:20:02.882161 30606 net.cpp:53] Initializing net from parameters: 
name: "CIFAR"
state {
  phase: TEST
}
layer {
  name: "cifar"
  type: "Data"
  top: "data"
  top: "label"
  include {
    phase: TEST
  }
  transform_param {
    mean_file: "examples/cifar10/mean.binaryproto"
  }
  data_param {
    source: "examples/cifar10/cifar10_test_lmdb"
    batch_size: 1000
    backend: LMDB
  }
}
layer {
  name: "conv0"
  type: "Convolution"
  bottom: "data"
  top: "conv0"
  param {
    lr_mult: 1
  }
  param {
    lr_mult: 2
  }
  convolution_param {
    num_output: 8
    pad: 2
    kernel_size: 3
    stride: 1
    weight_filler {
      type: "gaussian"
      std: 0.01
    }
    bias_filler {
      type: "constant"
    }
  }
}
layer {
  name: "Sigmoid0"
  type: "Sigmoid"
  bottom: "conv0"
  top: "Sigmoid0"
}
layer {
  name: "pool0"
  type: "Pooling"
  bottom: "Sigmoid0"
  top: "pool0"
  pooling_param {
    pool: AVE
    kernel_size: 3
    stride: 2
  }
}
layer {
  name: "ip1"
  type: "InnerProduct"
  bottom: "pool0"
  top: "ip1"
  param {
    lr_mult: 1
  }
  param {
    lr_mult: 2
  }
  inner_product_param {
    num_output: 80
    weight_filler {
      type: "gaussian"
      std: 0.01
    }
    bias_filler {
      type: "constant"
    }
  }
}
layer {
  name: "relu1"
  type: "ReLU"
  bottom: "ip1"
  top: "ip1"
}
layer {
  name: "ip2"
  type: "InnerProduct"
  bottom: "ip1"
  top: "ip2"
  param {
    lr_mult: 1
  }
  param {
    lr_mult: 2
  }
  inner_product_param {
    num_output: 10
    weight_filler {
      type: "gaussian"
      std: 0.01
    }
    bias_filler {
      type: "constant"
    }
  }
}
layer {
  name: "accuracy"
  type: "Accuracy"
  bottom: "ip2"
  bottom: "label"
  top: "accuracy"
  include {
    phase: TEST
  }
}
layer {
  name: "loss"
  type: "SoftmaxWithLoss"
  bottom: "ip2"
  bottom: "label"
  top: "loss"
}
I0430 21:20:02.882266 30606 layer_factory.hpp:77] Creating layer cifar
I0430 21:20:02.882321 30606 db_lmdb.cpp:35] Opened lmdb examples/cifar10/cifar10_test_lmdb
I0430 21:20:02.882338 30606 net.cpp:86] Creating Layer cifar
I0430 21:20:02.882345 30606 net.cpp:382] cifar -> data
I0430 21:20:02.882356 30606 net.cpp:382] cifar -> label
I0430 21:20:02.882365 30606 data_transformer.cpp:25] Loading mean file from: examples/cifar10/mean.binaryproto
I0430 21:20:02.882565 30606 data_layer.cpp:45] output data size: 1000,3,32,32
I0430 21:20:02.904207 30606 net.cpp:124] Setting up cifar
I0430 21:20:02.904263 30606 net.cpp:131] Top shape: 1000 3 32 32 (3072000)
I0430 21:20:02.904268 30606 net.cpp:131] Top shape: 1000 (1000)
I0430 21:20:02.904271 30606 net.cpp:139] Memory required for data: 12292000
I0430 21:20:02.904278 30606 layer_factory.hpp:77] Creating layer label_cifar_1_split
I0430 21:20:02.904294 30606 net.cpp:86] Creating Layer label_cifar_1_split
I0430 21:20:02.904297 30606 net.cpp:408] label_cifar_1_split <- label
I0430 21:20:02.904305 30606 net.cpp:382] label_cifar_1_split -> label_cifar_1_split_0
I0430 21:20:02.904317 30606 net.cpp:382] label_cifar_1_split -> label_cifar_1_split_1
I0430 21:20:02.904450 30606 net.cpp:124] Setting up label_cifar_1_split
I0430 21:20:02.904459 30606 net.cpp:131] Top shape: 1000 (1000)
I0430 21:20:02.904462 30606 net.cpp:131] Top shape: 1000 (1000)
I0430 21:20:02.904466 30606 net.cpp:139] Memory required for data: 12300000
I0430 21:20:02.904471 30606 layer_factory.hpp:77] Creating layer conv0
I0430 21:20:02.904487 30606 net.cpp:86] Creating Layer conv0
I0430 21:20:02.904494 30606 net.cpp:408] conv0 <- data
I0430 21:20:02.904501 30606 net.cpp:382] conv0 -> conv0
I0430 21:20:02.907071 30606 net.cpp:124] Setting up conv0
I0430 21:20:02.907101 30606 net.cpp:131] Top shape: 1000 8 34 34 (9248000)
I0430 21:20:02.907105 30606 net.cpp:139] Memory required for data: 49292000
I0430 21:20:02.907115 30606 layer_factory.hpp:77] Creating layer Sigmoid0
I0430 21:20:02.907122 30606 net.cpp:86] Creating Layer Sigmoid0
I0430 21:20:02.907125 30606 net.cpp:408] Sigmoid0 <- conv0
I0430 21:20:02.907130 30606 net.cpp:382] Sigmoid0 -> Sigmoid0
I0430 21:20:02.907320 30606 net.cpp:124] Setting up Sigmoid0
I0430 21:20:02.907330 30606 net.cpp:131] Top shape: 1000 8 34 34 (9248000)
I0430 21:20:02.907332 30606 net.cpp:139] Memory required for data: 86284000
I0430 21:20:02.907336 30606 layer_factory.hpp:77] Creating layer pool0
I0430 21:20:02.907346 30606 net.cpp:86] Creating Layer pool0
I0430 21:20:02.907352 30606 net.cpp:408] pool0 <- Sigmoid0
I0430 21:20:02.907359 30606 net.cpp:382] pool0 -> pool0
I0430 21:20:02.908133 30606 net.cpp:124] Setting up pool0
I0430 21:20:02.908154 30606 net.cpp:131] Top shape: 1000 8 17 17 (2312000)
I0430 21:20:02.908174 30606 net.cpp:139] Memory required for data: 95532000
I0430 21:20:02.908177 30606 layer_factory.hpp:77] Creating layer ip1
I0430 21:20:02.908185 30606 net.cpp:86] Creating Layer ip1
I0430 21:20:02.908188 30606 net.cpp:408] ip1 <- pool0
I0430 21:20:02.908193 30606 net.cpp:382] ip1 -> ip1
I0430 21:20:02.913051 30606 net.cpp:124] Setting up ip1
I0430 21:20:02.913063 30606 net.cpp:131] Top shape: 1000 80 (80000)
I0430 21:20:02.913065 30606 net.cpp:139] Memory required for data: 95852000
I0430 21:20:02.913074 30606 layer_factory.hpp:77] Creating layer relu1
I0430 21:20:02.913080 30606 net.cpp:86] Creating Layer relu1
I0430 21:20:02.913085 30606 net.cpp:408] relu1 <- ip1
I0430 21:20:02.913092 30606 net.cpp:369] relu1 -> ip1 (in-place)
I0430 21:20:02.913275 30606 net.cpp:124] Setting up relu1
I0430 21:20:02.913283 30606 net.cpp:131] Top shape: 1000 80 (80000)
I0430 21:20:02.913287 30606 net.cpp:139] Memory required for data: 96172000
I0430 21:20:02.913292 30606 layer_factory.hpp:77] Creating layer ip2
I0430 21:20:02.913302 30606 net.cpp:86] Creating Layer ip2
I0430 21:20:02.913307 30606 net.cpp:408] ip2 <- ip1
I0430 21:20:02.913316 30606 net.cpp:382] ip2 -> ip2
I0430 21:20:02.913444 30606 net.cpp:124] Setting up ip2
I0430 21:20:02.913452 30606 net.cpp:131] Top shape: 1000 10 (10000)
I0430 21:20:02.913456 30606 net.cpp:139] Memory required for data: 96212000
I0430 21:20:02.913467 30606 layer_factory.hpp:77] Creating layer ip2_ip2_0_split
I0430 21:20:02.913477 30606 net.cpp:86] Creating Layer ip2_ip2_0_split
I0430 21:20:02.913483 30606 net.cpp:408] ip2_ip2_0_split <- ip2
I0430 21:20:02.913491 30606 net.cpp:382] ip2_ip2_0_split -> ip2_ip2_0_split_0
I0430 21:20:02.913499 30606 net.cpp:382] ip2_ip2_0_split -> ip2_ip2_0_split_1
I0430 21:20:02.913539 30606 net.cpp:124] Setting up ip2_ip2_0_split
I0430 21:20:02.913547 30606 net.cpp:131] Top shape: 1000 10 (10000)
I0430 21:20:02.913549 30606 net.cpp:131] Top shape: 1000 10 (10000)
I0430 21:20:02.913553 30606 net.cpp:139] Memory required for data: 96292000
I0430 21:20:02.913558 30606 layer_factory.hpp:77] Creating layer accuracy
I0430 21:20:02.913568 30606 net.cpp:86] Creating Layer accuracy
I0430 21:20:02.913573 30606 net.cpp:408] accuracy <- ip2_ip2_0_split_0
I0430 21:20:02.913580 30606 net.cpp:408] accuracy <- label_cifar_1_split_0
I0430 21:20:02.913586 30606 net.cpp:382] accuracy -> accuracy
…
