…
I0501 06:47:49.874930  1973 net.cpp:296] The NetState phase (0) differed from the phase (1) specified by a rule in layer cifar
I0501 06:47:49.874946  1973 net.cpp:296] The NetState phase (0) differed from the phase (1) specified by a rule in layer accuracy
I0501 06:47:49.875072  1973 net.cpp:53] Initializing net from parameters: 
name: "CIFAR"
state {
  phase: TRAIN
  level: 0
  stage: ""
}
layer {
  name: "cifar"
  type: "Data"
  top: "data"
  top: "label"
  include {
    phase: TRAIN
  }
  transform_param {
    mean_file: "examples/cifar10/mean.binaryproto"
  }
  data_param {
    source: "examples/cifar10/cifar10_train_lmdb"
    batch_size: 111
    backend: LMDB
  }
}
layer {
  name: "conv0"
  type: "Convolution"
  bottom: "data"
  top: "conv0"
  param {
    lr_mult: 1
  }
  param {
    lr_mult: 2
  }
  convolution_param {
    num_output: 8
    pad: 2
    kernel_size: 5
    stride: 1
    weight_filler {
      type: "gaussian"
      std: 0.01
    }
    bias_filler {
      type: "constant"
    }
  }
}
layer {
  name: "Sigmoid0"
  type: "Sigmoid"
  bottom: "conv0"
  top: "Sigmoid0"
}
layer {
  name: "pool0"
  type: "Pooling"
  bottom: "Sigmoid0"
  top: "pool0"
  pooling_param {
    pool: AVE
    kernel_size: 3
    stride: 2
  }
}
layer {
  name: "ip1"
  type: "InnerProduct"
  bottom: "pool0"
  top: "ip1"
  param {
    lr_mult: 1
  }
  param {
    lr_mult: 2
  }
  inner_product_param {
    num_output: 160
    weight_filler {
      type: "gaussian"
      std: 0.01
    }
    bias_filler {
      type: "constant"
    }
  }
}
layer {
  name: "relu1"
  type: "ReLU"
  bottom: "ip1"
  top: "ip1"
}
layer {
  name: "ip2"
  type: "InnerProduct"
  bottom: "ip1"
  top: "ip2"
  param {
    lr_mult: 1
  }
  param {
    lr_mult: 2
  }
  inner_product_param {
    num_output: 160
    weight_filler {
      type: "gaussian"
      std: 0.01
    }
    bias_filler {
      type: "constant"
    }
  }
}
layer {
  name: "relu2"
  type: "ReLU"
  bottom: "ip2"
  top: "ip2"
}
layer {
  name: "ip3"
  type: "InnerProduct"
  bottom: "ip2"
  top: "ip3"
  param {
    lr_mult: 1
  }
  param {
    lr_mult: 2
  }
  inner_product_param {
    num_output: 40
    weight_filler {
      type: "gaussian"
      std: 0.01
    }
    bias_filler {
      type: "constant"
    }
  }
}
layer {
  name: "relu3"
  type: "ReLU"
  bottom: "ip3"
  top: "ip3"
}
layer {
  name: "ip4"
  type: "InnerProduct"
  bottom: "ip3"
  top: "ip4"
  param {
    lr_mult: 1
  }
  param {
    lr_mult: 2
  }
  inner_product_param {
    num_output: 10
    weight_filler {
      type: "gaussian"
      std: 0.01
    }
    bias_filler {
      type: "constant"
    }
  }
}
layer {
  name: "loss"
  type: "SoftmaxWithLoss"
  bottom: "ip4"
  bottom: "label"
  top: "loss"
}
I0501 06:47:49.875136  1973 layer_factory.hpp:77] Creating layer cifar
I0501 06:47:49.875218  1973 db_lmdb.cpp:35] Opened lmdb examples/cifar10/cifar10_train_lmdb
I0501 06:47:49.875239  1973 net.cpp:86] Creating Layer cifar
I0501 06:47:49.875247  1973 net.cpp:382] cifar -> data
I0501 06:47:49.875265  1973 net.cpp:382] cifar -> label
I0501 06:47:49.875274  1973 data_transformer.cpp:25] Loading mean file from: examples/cifar10/mean.binaryproto
I0501 06:47:49.877111  1973 data_layer.cpp:45] output data size: 111,3,32,32
I0501 06:47:49.883607  1973 net.cpp:124] Setting up cifar
I0501 06:47:49.883623  1973 net.cpp:131] Top shape: 111 3 32 32 (340992)
I0501 06:47:49.883628  1973 net.cpp:131] Top shape: 111 (111)
I0501 06:47:49.883631  1973 net.cpp:139] Memory required for data: 1364412
I0501 06:47:49.883648  1973 layer_factory.hpp:77] Creating layer conv0
I0501 06:47:49.883680  1973 net.cpp:86] Creating Layer conv0
I0501 06:47:49.883685  1973 net.cpp:408] conv0 <- data
I0501 06:47:49.883694  1973 net.cpp:382] conv0 -> conv0
I0501 06:47:50.114778  1973 net.cpp:124] Setting up conv0
I0501 06:47:50.114804  1973 net.cpp:131] Top shape: 111 8 32 32 (909312)
I0501 06:47:50.114809  1973 net.cpp:139] Memory required for data: 5001660
I0501 06:47:50.114823  1973 layer_factory.hpp:77] Creating layer Sigmoid0
I0501 06:47:50.114835  1973 net.cpp:86] Creating Layer Sigmoid0
I0501 06:47:50.114838  1973 net.cpp:408] Sigmoid0 <- conv0
I0501 06:47:50.114843  1973 net.cpp:382] Sigmoid0 -> Sigmoid0
I0501 06:47:50.115048  1973 net.cpp:124] Setting up Sigmoid0
I0501 06:47:50.115057  1973 net.cpp:131] Top shape: 111 8 32 32 (909312)
I0501 06:47:50.115061  1973 net.cpp:139] Memory required for data: 8638908
I0501 06:47:50.115064  1973 layer_factory.hpp:77] Creating layer pool0
I0501 06:47:50.115072  1973 net.cpp:86] Creating Layer pool0
I0501 06:47:50.115074  1973 net.cpp:408] pool0 <- Sigmoid0
I0501 06:47:50.115079  1973 net.cpp:382] pool0 -> pool0
I0501 06:47:50.115820  1973 net.cpp:124] Setting up pool0
I0501 06:47:50.115833  1973 net.cpp:131] Top shape: 111 8 16 16 (227328)
I0501 06:47:50.115836  1973 net.cpp:139] Memory required for data: 9548220
I0501 06:47:50.115839  1973 layer_factory.hpp:77] Creating layer ip1
I0501 06:47:50.115847  1973 net.cpp:86] Creating Layer ip1
I0501 06:47:50.115851  1973 net.cpp:408] ip1 <- pool0
I0501 06:47:50.115855  1973 net.cpp:382] ip1 -> ip1
I0501 06:47:50.124796  1973 net.cpp:124] Setting up ip1
I0501 06:47:50.124810  1973 net.cpp:131] Top shape: 111 160 (17760)
I0501 06:47:50.124814  1973 net.cpp:139] Memory required for data: 9619260
I0501 06:47:50.124822  1973 layer_factory.hpp:77] Creating layer relu1
I0501 06:47:50.124843  1973 net.cpp:86] Creating Layer relu1
I0501 06:47:50.124846  1973 net.cpp:408] relu1 <- ip1
I0501 06:47:50.124851  1973 net.cpp:369] relu1 -> ip1 (in-place)
I0501 06:47:50.125016  1973 net.cpp:124] Setting up relu1
I0501 06:47:50.125025  1973 net.cpp:131] Top shape: 111 160 (17760)
I0501 06:47:50.125028  1973 net.cpp:139] Memory required for data: 9690300
I0501 06:47:50.125031  1973 layer_factory.hpp:77] Creating layer ip2
I0501 06:47:50.125038  1973 net.cpp:86] Creating Layer ip2
I0501 06:47:50.125041  1973 net.cpp:408] ip2 <- ip1
I0501 06:47:50.125046  1973 net.cpp:382] ip2 -> ip2
I0501 06:47:50.126633  1973 net.cpp:124] Setting up ip2
I0501 06:47:50.126646  1973 net.cpp:131] Top shape: 111 160 (17760)
I0501 06:47:50.126648  1973 net.cpp:139] Memory required for data: 9761340
I0501 06:47:50.126657  1973 layer_factory.hpp:77] Creating layer relu2
I0501 06:47:50.126662  1973 net.cpp:86] Creating Layer relu2
I0501 06:47:50.126664  1973 net.cpp:408] relu2 <- ip2
I0501 06:47:50.126668  1973 net.cpp:369] relu2 -> ip2 (in-place)
I0501 06:47:50.126837  1973 net.cpp:124] Setting up relu2
I0501 06:47:50.126847  1973 net.cpp:131] Top shape: 111 160 (17760)
I0501 06:47:50.126849  1973 net.cpp:139] Memory required for data: 9832380
I0501 06:47:50.126852  1973 layer_factory.hpp:77] Creating layer ip3
I0501 06:47:50.126859  1973 net.cpp:86] Creating Layer ip3
I0501 06:47:50.126863  1973 net.cpp:408] ip3 <- ip2
I0501 06:47:50.126868  1973 net.cpp:382] ip3 -> ip3
I0501 06:47:50.127923  1973 net.cpp:124] Setting up ip3
I0501 06:47:50.127935  1973 net.cpp:131] Top shape: 111 40 (4440)
I0501 06:47:50.127938  1973 net.cpp:139] Memory required for data: 9850140
I0501 06:47:50.127943  1973 layer_factory.hpp:77] Creating layer relu3
I0501 06:47:50.127949  1973 net.cpp:86] Creating Layer relu3
I0501 06:47:50.127952  1973 net.cpp:408] relu3 <- ip3
I0501 06:47:50.127956  1973 net.cpp:369] relu3 -> ip3 (in-place)
I0501 06:47:50.128118  1973 net.cpp:124] Setting up relu3
I0501 06:47:50.128127  1973 net.cpp:131] Top shape: 111 40 (4440)
I0501 06:47:50.128130  1973 net.cpp:139] Memory required for data: 9867900
I0501 06:47:50.128132  1973 layer_factory.hpp:77] Creating layer ip4
I0501 06:47:50.128154  1973 net.cpp:86] Creating Layer ip4
I0501 06:47:50.128157  1973 net.cpp:408] ip4 <- ip3
I0501 06:47:50.128161  1973 net.cpp:382] ip4 -> ip4
I0501 06:47:50.128278  1973 net.cpp:124] Setting up ip4
I0501 06:47:50.128284  1973 net.cpp:131] Top shape: 111 10 (1110)
I0501 06:47:50.128288  1973 net.cpp:139] Memory required for data: 9872340
I0501 06:47:50.128295  1973 layer_factory.hpp:77] Creating layer loss
I0501 06:47:50.128303  1973 net.cpp:86] Creating Layer loss
I0501 06:47:50.128305  1973 net.cpp:408] loss <- ip4
I0501 06:47:50.128309  1973 net.cpp:408] loss <- label
I0501 06:47:50.128314  1973 net.cpp:382] loss -> loss
I0501 06:47:50.128327  1973 layer_factory.hpp:77] Creating layer loss
…
I0501 06:47:50.129531  1973 solver.cpp:173] Creating test net (#0) specified by net file: ECE595/cifar/train_test/var_everything/cifar_train_test_462.prototxt
I0501 06:47:50.129559  1973 net.cpp:296] The NetState phase (1) differed from the phase (0) specified by a rule in layer cifar
I0501 06:47:50.129663  1973 net.cpp:53] Initializing net from parameters: 
name: "CIFAR"
state {
  phase: TEST
}
layer {
  name: "cifar"
  type: "Data"
  top: "data"
  top: "label"
  include {
    phase: TEST
  }
  transform_param {
    mean_file: "examples/cifar10/mean.binaryproto"
  }
  data_param {
    source: "examples/cifar10/cifar10_test_lmdb"
    batch_size: 1000
    backend: LMDB
  }
}
layer {
  name: "conv0"
  type: "Convolution"
  bottom: "data"
  top: "conv0"
  param {
    lr_mult: 1
  }
  param {
    lr_mult: 2
  }
  convolution_param {
    num_output: 8
    pad: 2
    kernel_size: 5
    stride: 1
    weight_filler {
      type: "gaussian"
      std: 0.01
    }
    bias_filler {
      type: "constant"
    }
  }
}
layer {
  name: "Sigmoid0"
  type: "Sigmoid"
  bottom: "conv0"
  top: "Sigmoid0"
}
layer {
  name: "pool0"
  type: "Pooling"
  bottom: "Sigmoid0"
  top: "pool0"
  pooling_param {
    pool: AVE
    kernel_size: 3
    stride: 2
  }
}
layer {
  name: "ip1"
  type: "InnerProduct"
  bottom: "pool0"
  top: "ip1"
  param {
    lr_mult: 1
  }
  param {
    lr_mult: 2
  }
  inner_product_param {
    num_output: 160
    weight_filler {
      type: "gaussian"
      std: 0.01
    }
    bias_filler {
      type: "constant"
    }
  }
}
layer {
  name: "relu1"
  type: "ReLU"
  bottom: "ip1"
  top: "ip1"
}
layer {
  name: "ip2"
  type: "InnerProduct"
  bottom: "ip1"
  top: "ip2"
  param {
    lr_mult: 1
  }
  param {
    lr_mult: 2
  }
  inner_product_param {
    num_output: 160
    weight_filler {
      type: "gaussian"
      std: 0.01
    }
    bias_filler {
      type: "constant"
    }
  }
}
layer {
  name: "relu2"
  type: "ReLU"
  bottom: "ip2"
  top: "ip2"
}
layer {
  name: "ip3"
  type: "InnerProduct"
  bottom: "ip2"
  top: "ip3"
  param {
    lr_mult: 1
  }
  param {
    lr_mult: 2
  }
  inner_product_param {
    num_output: 40
    weight_filler {
      type: "gaussian"
      std: 0.01
    }
    bias_filler {
      type: "constant"
    }
  }
}
layer {
  name: "relu3"
  type: "ReLU"
  bottom: "ip3"
  top: "ip3"
}
layer {
  name: "ip4"
  type: "InnerProduct"
  bottom: "ip3"
  top: "ip4"
  param {
    lr_mult: 1
  }
  param {
    lr_mult: 2
  }
  inner_product_param {
    num_output: 10
    weight_filler {
      type: "gaussian"
      std: 0.01
    }
    bias_filler {
      type: "constant"
    }
  }
}
layer {
  name: "accuracy"
  type: "Accuracy"
  bottom: "ip4"
  bottom: "label"
  top: "accuracy"
  include {
    phase: TEST
  }
}
layer {
  name: "loss"
  type: "SoftmaxWithLoss"
  bottom: "ip4"
  bottom: "label"
  top: "loss"
}
I0501 06:47:50.129739  1973 layer_factory.hpp:77] Creating layer cifar
I0501 06:47:50.129786  1973 db_lmdb.cpp:35] Opened lmdb examples/cifar10/cifar10_test_lmdb
I0501 06:47:50.129797  1973 net.cpp:86] Creating Layer cifar
I0501 06:47:50.129802  1973 net.cpp:382] cifar -> data
I0501 06:47:50.129809  1973 net.cpp:382] cifar -> label
I0501 06:47:50.129815  1973 data_transformer.cpp:25] Loading mean file from: examples/cifar10/mean.binaryproto
I0501 06:47:50.129948  1973 data_layer.cpp:45] output data size: 1000,3,32,32
I0501 06:47:50.151661  1973 net.cpp:124] Setting up cifar
I0501 06:47:50.151702  1973 net.cpp:131] Top shape: 1000 3 32 32 (3072000)
I0501 06:47:50.151708  1973 net.cpp:131] Top shape: 1000 (1000)
I0501 06:47:50.151715  1973 net.cpp:139] Memory required for data: 12292000
I0501 06:47:50.151721  1973 layer_factory.hpp:77] Creating layer label_cifar_1_split
I0501 06:47:50.151731  1973 net.cpp:86] Creating Layer label_cifar_1_split
I0501 06:47:50.151736  1973 net.cpp:408] label_cifar_1_split <- label
I0501 06:47:50.151742  1973 net.cpp:382] label_cifar_1_split -> label_cifar_1_split_0
I0501 06:47:50.151751  1973 net.cpp:382] label_cifar_1_split -> label_cifar_1_split_1
I0501 06:47:50.151808  1973 net.cpp:124] Setting up label_cifar_1_split
I0501 06:47:50.151814  1973 net.cpp:131] Top shape: 1000 (1000)
I0501 06:47:50.151818  1973 net.cpp:131] Top shape: 1000 (1000)
I0501 06:47:50.151821  1973 net.cpp:139] Memory required for data: 12300000
I0501 06:47:50.151824  1973 layer_factory.hpp:77] Creating layer conv0
I0501 06:47:50.151836  1973 net.cpp:86] Creating Layer conv0
I0501 06:47:50.151840  1973 net.cpp:408] conv0 <- data
I0501 06:47:50.151845  1973 net.cpp:382] conv0 -> conv0
I0501 06:47:50.153679  1973 net.cpp:124] Setting up conv0
I0501 06:47:50.153708  1973 net.cpp:131] Top shape: 1000 8 32 32 (8192000)
I0501 06:47:50.153712  1973 net.cpp:139] Memory required for data: 45068000
I0501 06:47:50.153723  1973 layer_factory.hpp:77] Creating layer Sigmoid0
I0501 06:47:50.153729  1973 net.cpp:86] Creating Layer Sigmoid0
I0501 06:47:50.153733  1973 net.cpp:408] Sigmoid0 <- conv0
I0501 06:47:50.153736  1973 net.cpp:382] Sigmoid0 -> Sigmoid0
I0501 06:47:50.153898  1973 net.cpp:124] Setting up Sigmoid0
I0501 06:47:50.153906  1973 net.cpp:131] Top shape: 1000 8 32 32 (8192000)
I0501 06:47:50.153909  1973 net.cpp:139] Memory required for data: 77836000
I0501 06:47:50.153913  1973 layer_factory.hpp:77] Creating layer pool0
I0501 06:47:50.153920  1973 net.cpp:86] Creating Layer pool0
I0501 06:47:50.153923  1973 net.cpp:408] pool0 <- Sigmoid0
I0501 06:47:50.153928  1973 net.cpp:382] pool0 -> pool0
I0501 06:47:50.154155  1973 net.cpp:124] Setting up pool0
I0501 06:47:50.154165  1973 net.cpp:131] Top shape: 1000 8 16 16 (2048000)
I0501 06:47:50.154167  1973 net.cpp:139] Memory required for data: 86028000
I0501 06:47:50.154170  1973 layer_factory.hpp:77] Creating layer ip1
I0501 06:47:50.154178  1973 net.cpp:86] Creating Layer ip1
I0501 06:47:50.154181  1973 net.cpp:408] ip1 <- pool0
I0501 06:47:50.154186  1973 net.cpp:382] ip1 -> ip1
I0501 06:47:50.164870  1973 net.cpp:124] Setting up ip1
I0501 06:47:50.164883  1973 net.cpp:131] Top shape: 1000 160 (160000)
I0501 06:47:50.164887  1973 net.cpp:139] Memory required for data: 86668000
I0501 06:47:50.164943  1973 layer_factory.hpp:77] Creating layer relu1
I0501 06:47:50.164952  1973 net.cpp:86] Creating Layer relu1
I0501 06:47:50.164971  1973 net.cpp:408] relu1 <- ip1
I0501 06:47:50.164976  1973 net.cpp:369] relu1 -> ip1 (in-place)
I0501 06:47:50.165163  1973 net.cpp:124] Setting up relu1
I0501 06:47:50.165174  1973 net.cpp:131] Top shape: 1000 160 (160000)
I0501 06:47:50.165177  1973 net.cpp:139] Memory required for data: 87308000
I0501 06:47:50.165184  1973 layer_factory.hpp:77] Creating layer ip2
I0501 06:47:50.165194  1973 net.cpp:86] Creating Layer ip2
I0501 06:47:50.165200  1973 net.cpp:408] ip2 <- ip1
I0501 06:47:50.165210  1973 net.cpp:382] ip2 -> ip2
I0501 06:47:50.166097  1973 net.cpp:124] Setting up ip2
I0501 06:47:50.166106  1973 net.cpp:131] Top shape: 1000 160 (160000)
I0501 06:47:50.166126  1973 net.cpp:139] Memory required for data: 87948000
I0501 06:47:50.166134  1973 layer_factory.hpp:77] Creating layer relu2
I0501 06:47:50.166141  1973 net.cpp:86] Creating Layer relu2
I0501 06:47:50.166144  1973 net.cpp:408] relu2 <- ip2
I0501 06:47:50.166149  1973 net.cpp:369] relu2 -> ip2 (in-place)
I0501 06:47:50.166961  1973 net.cpp:124] Setting up relu2
I0501 06:47:50.166975  1973 net.cpp:131] Top shape: 1000 160 (160000)
I0501 06:47:50.166996  1973 net.cpp:139] Memory required for data: 88588000
I0501 06:47:50.167001  1973 layer_factory.hpp:77] Creating layer ip3
I0501 06:47:50.167011  1973 net.cpp:86] Creating Layer ip3
I0501 06:47:50.167013  1973 net.cpp:408] ip3 <- ip2
I0501 06:47:50.167019  1973 net.cpp:382] ip3 -> ip3
I0501 06:47:50.167338  1973 net.cpp:124] Setting up ip3
I0501 06:47:50.167347  1973 net.cpp:131] Top shape: 1000 40 (40000)
I0501 06:47:50.167351  1973 net.cpp:139] Memory required for data: 88748000
I0501 06:47:50.167358  1973 layer_factory.hpp:77] Creating layer relu3
I0501 06:47:50.167364  1973 net.cpp:86] Creating Layer relu3
I0501 06:47:50.167368  1973 net.cpp:408] relu3 <- ip3
I0501 06:47:50.167372  1973 net.cpp:369] relu3 -> ip3 (in-place)
I0501 06:47:50.167553  1973 net.cpp:124] Setting up relu3
I0501 06:47:50.167562  1973 net.cpp:131] Top shape: 1000 40 (40000)
I0501 06:47:50.167565  1973 net.cpp:139] Memory required for data: 88908000
I0501 06:47:50.167568  1973 layer_factory.hpp:77] Creating layer ip4
I0501 06:47:50.167575  1973 net.cpp:86] Creating Layer ip4
I0501 06:47:50.167580  1973 net.cpp:408] ip4 <- ip3
I0501 06:47:50.167585  1973 net.cpp:382] ip4 -> ip4
I0501 06:47:50.167704  1973 net.cpp:124] Setting up ip4
I0501 06:47:50.167712  1973 net.cpp:131] Top shape: 1000 10 (10000)
I0501 06:47:50.167716  1973 net.cpp:139] Memory required for data: 88948000
I0501 06:47:50.167724  1973 layer_factory.hpp:77] Creating layer ip4_ip4_0_split
I0501 06:47:50.167731  1973 net.cpp:86] Creating Layer ip4_ip4_0_split
I0501 06:47:50.167734  1973 net.cpp:408] ip4_ip4_0_split <- ip4
I0501 06:47:50.167753  1973 net.cpp:382] ip4_ip4_0_split -> ip4_ip4_0_split_0
I0501 06:47:50.167759  1973 net.cpp:382] ip4_ip4_0_split -> ip4_ip4_0_split_1
I0501 06:47:50.167789  1973 net.cpp:124] Setting up ip4_ip4_0_split
I0501 06:47:50.167793  1973 net.cpp:131] Top shape: 1000 10 (10000)
I0501 06:47:50.167798  1973 net.cpp:131] Top shape: 1000 10 (10000)
I0501 06:47:50.167801  1973 net.cpp:139] Memory required for data: 89028000
I0501 06:47:50.167804  1973 layer_factory.hpp:77] Creating layer accuracy
I0501 06:47:50.167810  1973 net.cpp:86] Creating Layer accuracy
I0501 06:47:50.167814  1973 net.cpp:408] accuracy <- ip4_ip4_0_split_0
I0501 06:47:50.167819  1973 net.cpp:408] accuracy <- label_cifar_1_split_0
I0501 06:47:50.167822  1973 net.cpp:382] accuracy -> accuracy
…
