…
I0430 21:36:51.281199 31228 net.cpp:296] The NetState phase (0) differed from the phase (1) specified by a rule in layer cifar
I0430 21:36:51.281217 31228 net.cpp:296] The NetState phase (0) differed from the phase (1) specified by a rule in layer accuracy
I0430 21:36:51.281311 31228 net.cpp:53] Initializing net from parameters: 
name: "CIFAR"
state {
  phase: TRAIN
  level: 0
  stage: ""
}
layer {
  name: "cifar"
  type: "Data"
  top: "data"
  top: "label"
  include {
    phase: TRAIN
  }
  transform_param {
    mean_file: "examples/cifar10/mean.binaryproto"
  }
  data_param {
    source: "examples/cifar10/cifar10_train_lmdb"
    batch_size: 111
    backend: LMDB
  }
}
layer {
  name: "conv0"
  type: "Convolution"
  bottom: "data"
  top: "conv0"
  param {
    lr_mult: 1
  }
  param {
    lr_mult: 2
  }
  convolution_param {
    num_output: 8
    pad: 2
    kernel_size: 3
    stride: 1
    weight_filler {
      type: "gaussian"
      std: 0.01
    }
    bias_filler {
      type: "constant"
    }
  }
}
layer {
  name: "Sigmoid0"
  type: "Sigmoid"
  bottom: "conv0"
  top: "Sigmoid0"
}
layer {
  name: "pool0"
  type: "Pooling"
  bottom: "Sigmoid0"
  top: "pool0"
  pooling_param {
    pool: AVE
    kernel_size: 3
    stride: 2
  }
}
layer {
  name: "ip1"
  type: "InnerProduct"
  bottom: "pool0"
  top: "ip1"
  param {
    lr_mult: 1
  }
  param {
    lr_mult: 2
  }
  inner_product_param {
    num_output: 20
    weight_filler {
      type: "gaussian"
      std: 0.01
    }
    bias_filler {
      type: "constant"
    }
  }
}
layer {
  name: "relu1"
  type: "ReLU"
  bottom: "ip1"
  top: "ip1"
}
layer {
  name: "ip2"
  type: "InnerProduct"
  bottom: "ip1"
  top: "ip2"
  param {
    lr_mult: 1
  }
  param {
    lr_mult: 2
  }
  inner_product_param {
    num_output: 40
    weight_filler {
      type: "gaussian"
      std: 0.01
    }
    bias_filler {
      type: "constant"
    }
  }
}
layer {
  name: "relu2"
  type: "ReLU"
  bottom: "ip2"
  top: "ip2"
}
layer {
  name: "ip3"
  type: "InnerProduct"
  bottom: "ip2"
  top: "ip3"
  param {
    lr_mult: 1
  }
  param {
    lr_mult: 2
  }
  inner_product_param {
    num_output: 10
    weight_filler {
      type: "gaussian"
      std: 0.01
    }
    bias_filler {
      type: "constant"
    }
  }
}
layer {
  name: "loss"
  type: "SoftmaxWithLoss"
  bottom: "ip3"
  bottom: "label"
  top: "loss"
}
I0430 21:36:51.281385 31228 layer_factory.hpp:77] Creating layer cifar
I0430 21:36:51.281486 31228 db_lmdb.cpp:35] Opened lmdb examples/cifar10/cifar10_train_lmdb
I0430 21:36:51.281514 31228 net.cpp:86] Creating Layer cifar
I0430 21:36:51.281522 31228 net.cpp:382] cifar -> data
I0430 21:36:51.281545 31228 net.cpp:382] cifar -> label
I0430 21:36:51.281559 31228 data_transformer.cpp:25] Loading mean file from: examples/cifar10/mean.binaryproto
I0430 21:36:51.283659 31228 data_layer.cpp:45] output data size: 111,3,32,32
I0430 21:36:51.291523 31228 net.cpp:124] Setting up cifar
I0430 21:36:51.291543 31228 net.cpp:131] Top shape: 111 3 32 32 (340992)
I0430 21:36:51.291549 31228 net.cpp:131] Top shape: 111 (111)
I0430 21:36:51.291553 31228 net.cpp:139] Memory required for data: 1364412
I0430 21:36:51.291561 31228 layer_factory.hpp:77] Creating layer conv0
I0430 21:36:51.291579 31228 net.cpp:86] Creating Layer conv0
I0430 21:36:51.291584 31228 net.cpp:408] conv0 <- data
I0430 21:36:51.291597 31228 net.cpp:382] conv0 -> conv0
I0430 21:36:51.580610 31228 net.cpp:124] Setting up conv0
I0430 21:36:51.580658 31228 net.cpp:131] Top shape: 111 8 34 34 (1026528)
I0430 21:36:51.580663 31228 net.cpp:139] Memory required for data: 5470524
I0430 21:36:51.580679 31228 layer_factory.hpp:77] Creating layer Sigmoid0
I0430 21:36:51.580693 31228 net.cpp:86] Creating Layer Sigmoid0
I0430 21:36:51.580698 31228 net.cpp:408] Sigmoid0 <- conv0
I0430 21:36:51.580703 31228 net.cpp:382] Sigmoid0 -> Sigmoid0
I0430 21:36:51.580901 31228 net.cpp:124] Setting up Sigmoid0
I0430 21:36:51.580911 31228 net.cpp:131] Top shape: 111 8 34 34 (1026528)
I0430 21:36:51.580915 31228 net.cpp:139] Memory required for data: 9576636
I0430 21:36:51.580919 31228 layer_factory.hpp:77] Creating layer pool0
I0430 21:36:51.580925 31228 net.cpp:86] Creating Layer pool0
I0430 21:36:51.580929 31228 net.cpp:408] pool0 <- Sigmoid0
I0430 21:36:51.580935 31228 net.cpp:382] pool0 -> pool0
I0430 21:36:51.581719 31228 net.cpp:124] Setting up pool0
I0430 21:36:51.581732 31228 net.cpp:131] Top shape: 111 8 17 17 (256632)
I0430 21:36:51.581737 31228 net.cpp:139] Memory required for data: 10603164
I0430 21:36:51.581740 31228 layer_factory.hpp:77] Creating layer ip1
I0430 21:36:51.581750 31228 net.cpp:86] Creating Layer ip1
I0430 21:36:51.581754 31228 net.cpp:408] ip1 <- pool0
I0430 21:36:51.581759 31228 net.cpp:382] ip1 -> ip1
I0430 21:36:51.584079 31228 net.cpp:124] Setting up ip1
I0430 21:36:51.584091 31228 net.cpp:131] Top shape: 111 20 (2220)
I0430 21:36:51.584095 31228 net.cpp:139] Memory required for data: 10612044
I0430 21:36:51.584103 31228 layer_factory.hpp:77] Creating layer relu1
I0430 21:36:51.584110 31228 net.cpp:86] Creating Layer relu1
I0430 21:36:51.584115 31228 net.cpp:408] relu1 <- ip1
I0430 21:36:51.584118 31228 net.cpp:369] relu1 -> ip1 (in-place)
I0430 21:36:51.584283 31228 net.cpp:124] Setting up relu1
I0430 21:36:51.584292 31228 net.cpp:131] Top shape: 111 20 (2220)
I0430 21:36:51.584295 31228 net.cpp:139] Memory required for data: 10620924
I0430 21:36:51.584300 31228 layer_factory.hpp:77] Creating layer ip2
I0430 21:36:51.584306 31228 net.cpp:86] Creating Layer ip2
I0430 21:36:51.584309 31228 net.cpp:408] ip2 <- ip1
I0430 21:36:51.584314 31228 net.cpp:382] ip2 -> ip2
I0430 21:36:51.585321 31228 net.cpp:124] Setting up ip2
I0430 21:36:51.585335 31228 net.cpp:131] Top shape: 111 40 (4440)
I0430 21:36:51.585338 31228 net.cpp:139] Memory required for data: 10638684
I0430 21:36:51.585347 31228 layer_factory.hpp:77] Creating layer relu2
I0430 21:36:51.585353 31228 net.cpp:86] Creating Layer relu2
I0430 21:36:51.585357 31228 net.cpp:408] relu2 <- ip2
I0430 21:36:51.585361 31228 net.cpp:369] relu2 -> ip2 (in-place)
I0430 21:36:51.585536 31228 net.cpp:124] Setting up relu2
I0430 21:36:51.585546 31228 net.cpp:131] Top shape: 111 40 (4440)
I0430 21:36:51.585549 31228 net.cpp:139] Memory required for data: 10656444
I0430 21:36:51.585552 31228 layer_factory.hpp:77] Creating layer ip3
I0430 21:36:51.585561 31228 net.cpp:86] Creating Layer ip3
I0430 21:36:51.585564 31228 net.cpp:408] ip3 <- ip2
I0430 21:36:51.585569 31228 net.cpp:382] ip3 -> ip3
I0430 21:36:51.585680 31228 net.cpp:124] Setting up ip3
I0430 21:36:51.585686 31228 net.cpp:131] Top shape: 111 10 (1110)
I0430 21:36:51.585690 31228 net.cpp:139] Memory required for data: 10660884
I0430 21:36:51.585695 31228 layer_factory.hpp:77] Creating layer loss
I0430 21:36:51.585700 31228 net.cpp:86] Creating Layer loss
I0430 21:36:51.585705 31228 net.cpp:408] loss <- ip3
I0430 21:36:51.585708 31228 net.cpp:408] loss <- label
I0430 21:36:51.585713 31228 net.cpp:382] loss -> loss
I0430 21:36:51.585731 31228 layer_factory.hpp:77] Creating layer loss
…
I0430 21:36:51.586367 31228 solver.cpp:173] Creating test net (#0) specified by net file: ECE595/cifar/train_test/var_everything/cifar_train_test_167.prototxt
I0430 21:36:51.586395 31228 net.cpp:296] The NetState phase (1) differed from the phase (0) specified by a rule in layer cifar
I0430 21:36:51.586483 31228 net.cpp:53] Initializing net from parameters: 
name: "CIFAR"
state {
  phase: TEST
}
layer {
  name: "cifar"
  type: "Data"
  top: "data"
  top: "label"
  include {
    phase: TEST
  }
  transform_param {
    mean_file: "examples/cifar10/mean.binaryproto"
  }
  data_param {
    source: "examples/cifar10/cifar10_test_lmdb"
    batch_size: 1000
    backend: LMDB
  }
}
layer {
  name: "conv0"
  type: "Convolution"
  bottom: "data"
  top: "conv0"
  param {
    lr_mult: 1
  }
  param {
    lr_mult: 2
  }
  convolution_param {
    num_output: 8
    pad: 2
    kernel_size: 3
    stride: 1
    weight_filler {
      type: "gaussian"
      std: 0.01
    }
    bias_filler {
      type: "constant"
    }
  }
}
layer {
  name: "Sigmoid0"
  type: "Sigmoid"
  bottom: "conv0"
  top: "Sigmoid0"
}
layer {
  name: "pool0"
  type: "Pooling"
  bottom: "Sigmoid0"
  top: "pool0"
  pooling_param {
    pool: AVE
    kernel_size: 3
    stride: 2
  }
}
layer {
  name: "ip1"
  type: "InnerProduct"
  bottom: "pool0"
  top: "ip1"
  param {
    lr_mult: 1
  }
  param {
    lr_mult: 2
  }
  inner_product_param {
    num_output: 20
    weight_filler {
      type: "gaussian"
      std: 0.01
    }
    bias_filler {
      type: "constant"
    }
  }
}
layer {
  name: "relu1"
  type: "ReLU"
  bottom: "ip1"
  top: "ip1"
}
layer {
  name: "ip2"
  type: "InnerProduct"
  bottom: "ip1"
  top: "ip2"
  param {
    lr_mult: 1
  }
  param {
    lr_mult: 2
  }
  inner_product_param {
    num_output: 40
    weight_filler {
      type: "gaussian"
      std: 0.01
    }
    bias_filler {
      type: "constant"
    }
  }
}
layer {
  name: "relu2"
  type: "ReLU"
  bottom: "ip2"
  top: "ip2"
}
layer {
  name: "ip3"
  type: "InnerProduct"
  bottom: "ip2"
  top: "ip3"
  param {
    lr_mult: 1
  }
  param {
    lr_mult: 2
  }
  inner_product_param {
    num_output: 10
    weight_filler {
      type: "gaussian"
      std: 0.01
    }
    bias_filler {
      type: "constant"
    }
  }
}
layer {
  name: "accuracy"
  type: "Accuracy"
  bottom: "ip3"
  bottom: "label"
  top: "accuracy"
  include {
    phase: TEST
  }
}
layer {
  name: "loss"
  type: "SoftmaxWithLoss"
  bottom: "ip3"
  bottom: "label"
  top: "loss"
}
I0430 21:36:51.586550 31228 layer_factory.hpp:77] Creating layer cifar
I0430 21:36:51.586598 31228 db_lmdb.cpp:35] Opened lmdb examples/cifar10/cifar10_test_lmdb
I0430 21:36:51.586612 31228 net.cpp:86] Creating Layer cifar
I0430 21:36:51.586617 31228 net.cpp:382] cifar -> data
I0430 21:36:51.586625 31228 net.cpp:382] cifar -> label
I0430 21:36:51.586632 31228 data_transformer.cpp:25] Loading mean file from: examples/cifar10/mean.binaryproto
I0430 21:36:51.586782 31228 data_layer.cpp:45] output data size: 1000,3,32,32
I0430 21:36:51.609485 31228 net.cpp:124] Setting up cifar
I0430 21:36:51.609511 31228 net.cpp:131] Top shape: 1000 3 32 32 (3072000)
I0430 21:36:51.609518 31228 net.cpp:131] Top shape: 1000 (1000)
I0430 21:36:51.609520 31228 net.cpp:139] Memory required for data: 12292000
I0430 21:36:51.609526 31228 layer_factory.hpp:77] Creating layer label_cifar_1_split
I0430 21:36:51.609551 31228 net.cpp:86] Creating Layer label_cifar_1_split
I0430 21:36:51.609575 31228 net.cpp:408] label_cifar_1_split <- label
I0430 21:36:51.609580 31228 net.cpp:382] label_cifar_1_split -> label_cifar_1_split_0
I0430 21:36:51.609589 31228 net.cpp:382] label_cifar_1_split -> label_cifar_1_split_1
I0430 21:36:51.609693 31228 net.cpp:124] Setting up label_cifar_1_split
I0430 21:36:51.609700 31228 net.cpp:131] Top shape: 1000 (1000)
I0430 21:36:51.609704 31228 net.cpp:131] Top shape: 1000 (1000)
I0430 21:36:51.609707 31228 net.cpp:139] Memory required for data: 12300000
I0430 21:36:51.609710 31228 layer_factory.hpp:77] Creating layer conv0
I0430 21:36:51.609722 31228 net.cpp:86] Creating Layer conv0
I0430 21:36:51.609725 31228 net.cpp:408] conv0 <- data
I0430 21:36:51.609730 31228 net.cpp:382] conv0 -> conv0
I0430 21:36:51.611325 31228 net.cpp:124] Setting up conv0
I0430 21:36:51.611338 31228 net.cpp:131] Top shape: 1000 8 34 34 (9248000)
I0430 21:36:51.611342 31228 net.cpp:139] Memory required for data: 49292000
I0430 21:36:51.611352 31228 layer_factory.hpp:77] Creating layer Sigmoid0
I0430 21:36:51.611358 31228 net.cpp:86] Creating Layer Sigmoid0
I0430 21:36:51.611361 31228 net.cpp:408] Sigmoid0 <- conv0
I0430 21:36:51.611366 31228 net.cpp:382] Sigmoid0 -> Sigmoid0
I0430 21:36:51.612195 31228 net.cpp:124] Setting up Sigmoid0
I0430 21:36:51.612207 31228 net.cpp:131] Top shape: 1000 8 34 34 (9248000)
I0430 21:36:51.612210 31228 net.cpp:139] Memory required for data: 86284000
I0430 21:36:51.612215 31228 layer_factory.hpp:77] Creating layer pool0
I0430 21:36:51.612223 31228 net.cpp:86] Creating Layer pool0
I0430 21:36:51.612226 31228 net.cpp:408] pool0 <- Sigmoid0
I0430 21:36:51.612231 31228 net.cpp:382] pool0 -> pool0
I0430 21:36:51.613356 31228 net.cpp:124] Setting up pool0
I0430 21:36:51.613368 31228 net.cpp:131] Top shape: 1000 8 17 17 (2312000)
I0430 21:36:51.613370 31228 net.cpp:139] Memory required for data: 95532000
I0430 21:36:51.613373 31228 layer_factory.hpp:77] Creating layer ip1
I0430 21:36:51.613381 31228 net.cpp:86] Creating Layer ip1
I0430 21:36:51.613384 31228 net.cpp:408] ip1 <- pool0
I0430 21:36:51.613389 31228 net.cpp:382] ip1 -> ip1
I0430 21:36:51.614742 31228 net.cpp:124] Setting up ip1
I0430 21:36:51.614748 31228 net.cpp:131] Top shape: 1000 20 (20000)
I0430 21:36:51.614751 31228 net.cpp:139] Memory required for data: 95612000
I0430 21:36:51.614759 31228 layer_factory.hpp:77] Creating layer relu1
I0430 21:36:51.614765 31228 net.cpp:86] Creating Layer relu1
I0430 21:36:51.614768 31228 net.cpp:408] relu1 <- ip1
I0430 21:36:51.614773 31228 net.cpp:369] relu1 -> ip1 (in-place)
I0430 21:36:51.614923 31228 net.cpp:124] Setting up relu1
I0430 21:36:51.614931 31228 net.cpp:131] Top shape: 1000 20 (20000)
I0430 21:36:51.614934 31228 net.cpp:139] Memory required for data: 95692000
I0430 21:36:51.614938 31228 layer_factory.hpp:77] Creating layer ip2
I0430 21:36:51.614943 31228 net.cpp:86] Creating Layer ip2
I0430 21:36:51.614946 31228 net.cpp:408] ip2 <- ip1
I0430 21:36:51.614951 31228 net.cpp:382] ip2 -> ip2
I0430 21:36:51.615074 31228 net.cpp:124] Setting up ip2
I0430 21:36:51.615082 31228 net.cpp:131] Top shape: 1000 40 (40000)
I0430 21:36:51.615084 31228 net.cpp:139] Memory required for data: 95852000
I0430 21:36:51.615092 31228 layer_factory.hpp:77] Creating layer relu2
I0430 21:36:51.615097 31228 net.cpp:86] Creating Layer relu2
I0430 21:36:51.615100 31228 net.cpp:408] relu2 <- ip2
I0430 21:36:51.615104 31228 net.cpp:369] relu2 -> ip2 (in-place)
I0430 21:36:51.615257 31228 net.cpp:124] Setting up relu2
I0430 21:36:51.615264 31228 net.cpp:131] Top shape: 1000 40 (40000)
I0430 21:36:51.615267 31228 net.cpp:139] Memory required for data: 96012000
I0430 21:36:51.615270 31228 layer_factory.hpp:77] Creating layer ip3
I0430 21:36:51.615276 31228 net.cpp:86] Creating Layer ip3
I0430 21:36:51.615279 31228 net.cpp:408] ip3 <- ip2
I0430 21:36:51.615284 31228 net.cpp:382] ip3 -> ip3
I0430 21:36:51.615391 31228 net.cpp:124] Setting up ip3
I0430 21:36:51.615399 31228 net.cpp:131] Top shape: 1000 10 (10000)
I0430 21:36:51.615402 31228 net.cpp:139] Memory required for data: 96052000
I0430 21:36:51.615418 31228 layer_factory.hpp:77] Creating layer ip3_ip3_0_split
I0430 21:36:51.615424 31228 net.cpp:86] Creating Layer ip3_ip3_0_split
I0430 21:36:51.615427 31228 net.cpp:408] ip3_ip3_0_split <- ip3
I0430 21:36:51.615432 31228 net.cpp:382] ip3_ip3_0_split -> ip3_ip3_0_split_0
I0430 21:36:51.615437 31228 net.cpp:382] ip3_ip3_0_split -> ip3_ip3_0_split_1
I0430 21:36:51.615468 31228 net.cpp:124] Setting up ip3_ip3_0_split
I0430 21:36:51.615473 31228 net.cpp:131] Top shape: 1000 10 (10000)
I0430 21:36:51.615483 31228 net.cpp:131] Top shape: 1000 10 (10000)
I0430 21:36:51.615486 31228 net.cpp:139] Memory required for data: 96132000
I0430 21:36:51.615489 31228 layer_factory.hpp:77] Creating layer accuracy
I0430 21:36:51.615495 31228 net.cpp:86] Creating Layer accuracy
I0430 21:36:51.615499 31228 net.cpp:408] accuracy <- ip3_ip3_0_split_0
I0430 21:36:51.615502 31228 net.cpp:408] accuracy <- label_cifar_1_split_0
I0430 21:36:51.615507 31228 net.cpp:382] accuracy -> accuracy
…
