…
I0430 21:10:44.995028 30230 net.cpp:296] The NetState phase (0) differed from the phase (1) specified by a rule in layer cifar
I0430 21:10:44.995039 30230 net.cpp:296] The NetState phase (0) differed from the phase (1) specified by a rule in layer accuracy
I0430 21:10:44.995105 30230 net.cpp:53] Initializing net from parameters: 
name: "CIFAR"
state {
  phase: TRAIN
  level: 0
  stage: ""
}
layer {
  name: "cifar"
  type: "Data"
  top: "data"
  top: "label"
  include {
    phase: TRAIN
  }
  transform_param {
    mean_file: "examples/cifar10/mean.binaryproto"
  }
  data_param {
    source: "examples/cifar10/cifar10_train_lmdb"
    batch_size: 111
    backend: LMDB
  }
}
layer {
  name: "ip1"
  type: "InnerProduct"
  bottom: "data"
  top: "ip1"
  param {
    lr_mult: 1
  }
  param {
    lr_mult: 2
  }
  inner_product_param {
    num_output: 160
    weight_filler {
      type: "gaussian"
      std: 0.01
    }
    bias_filler {
      type: "constant"
    }
  }
}
layer {
  name: "relu1"
  type: "ReLU"
  bottom: "ip1"
  top: "ip1"
}
layer {
  name: "ip2"
  type: "InnerProduct"
  bottom: "ip1"
  top: "ip2"
  param {
    lr_mult: 1
  }
  param {
    lr_mult: 2
  }
  inner_product_param {
    num_output: 160
    weight_filler {
      type: "gaussian"
      std: 0.01
    }
    bias_filler {
      type: "constant"
    }
  }
}
layer {
  name: "relu2"
  type: "ReLU"
  bottom: "ip2"
  top: "ip2"
}
layer {
  name: "ip3"
  type: "InnerProduct"
  bottom: "ip2"
  top: "ip3"
  param {
    lr_mult: 1
  }
  param {
    lr_mult: 2
  }
  inner_product_param {
    num_output: 80
    weight_filler {
      type: "gaussian"
      std: 0.01
    }
    bias_filler {
      type: "constant"
    }
  }
}
layer {
  name: "relu3"
  type: "ReLU"
  bottom: "ip3"
  top: "ip3"
}
layer {
  name: "ip4"
  type: "InnerProduct"
  bottom: "ip3"
  top: "ip4"
  param {
    lr_mult: 1
  }
  param {
    lr_mult: 2
  }
  inner_product_param {
    num_output: 10
    weight_filler {
      type: "gaussian"
      std: 0.01
    }
    bias_filler {
      type: "constant"
    }
  }
}
layer {
  name: "loss"
  type: "SoftmaxWithLoss"
  bottom: "ip4"
  bottom: "label"
  top: "loss"
}
I0430 21:10:44.995154 30230 layer_factory.hpp:77] Creating layer cifar
I0430 21:10:44.995234 30230 db_lmdb.cpp:35] Opened lmdb examples/cifar10/cifar10_train_lmdb
I0430 21:10:44.995257 30230 net.cpp:86] Creating Layer cifar
I0430 21:10:44.995265 30230 net.cpp:382] cifar -> data
I0430 21:10:44.995283 30230 net.cpp:382] cifar -> label
I0430 21:10:44.995295 30230 data_transformer.cpp:25] Loading mean file from: examples/cifar10/mean.binaryproto
I0430 21:10:44.996963 30230 data_layer.cpp:45] output data size: 111,3,32,32
I0430 21:10:45.003327 30230 net.cpp:124] Setting up cifar
I0430 21:10:45.003340 30230 net.cpp:131] Top shape: 111 3 32 32 (340992)
I0430 21:10:45.003345 30230 net.cpp:131] Top shape: 111 (111)
I0430 21:10:45.003348 30230 net.cpp:139] Memory required for data: 1364412
I0430 21:10:45.003355 30230 layer_factory.hpp:77] Creating layer ip1
I0430 21:10:45.003363 30230 net.cpp:86] Creating Layer ip1
I0430 21:10:45.003367 30230 net.cpp:408] ip1 <- data
I0430 21:10:45.003376 30230 net.cpp:382] ip1 -> ip1
I0430 21:10:45.016852 30230 net.cpp:124] Setting up ip1
I0430 21:10:45.016866 30230 net.cpp:131] Top shape: 111 160 (17760)
I0430 21:10:45.016870 30230 net.cpp:139] Memory required for data: 1435452
I0430 21:10:45.016881 30230 layer_factory.hpp:77] Creating layer relu1
I0430 21:10:45.016903 30230 net.cpp:86] Creating Layer relu1
I0430 21:10:45.016907 30230 net.cpp:408] relu1 <- ip1
I0430 21:10:45.016912 30230 net.cpp:369] relu1 -> ip1 (in-place)
I0430 21:10:45.241564 30230 net.cpp:124] Setting up relu1
I0430 21:10:45.241611 30230 net.cpp:131] Top shape: 111 160 (17760)
I0430 21:10:45.241614 30230 net.cpp:139] Memory required for data: 1506492
I0430 21:10:45.241619 30230 layer_factory.hpp:77] Creating layer ip2
I0430 21:10:45.241633 30230 net.cpp:86] Creating Layer ip2
I0430 21:10:45.241638 30230 net.cpp:408] ip2 <- ip1
I0430 21:10:45.241660 30230 net.cpp:382] ip2 -> ip2
I0430 21:10:45.243439 30230 net.cpp:124] Setting up ip2
I0430 21:10:45.243451 30230 net.cpp:131] Top shape: 111 160 (17760)
I0430 21:10:45.243470 30230 net.cpp:139] Memory required for data: 1577532
I0430 21:10:45.243479 30230 layer_factory.hpp:77] Creating layer relu2
I0430 21:10:45.243486 30230 net.cpp:86] Creating Layer relu2
I0430 21:10:45.243490 30230 net.cpp:408] relu2 <- ip2
I0430 21:10:45.243494 30230 net.cpp:369] relu2 -> ip2 (in-place)
I0430 21:10:45.244252 30230 net.cpp:124] Setting up relu2
I0430 21:10:45.244263 30230 net.cpp:131] Top shape: 111 160 (17760)
I0430 21:10:45.244283 30230 net.cpp:139] Memory required for data: 1648572
I0430 21:10:45.244287 30230 layer_factory.hpp:77] Creating layer ip3
I0430 21:10:45.244293 30230 net.cpp:86] Creating Layer ip3
I0430 21:10:45.244297 30230 net.cpp:408] ip3 <- ip2
I0430 21:10:45.244302 30230 net.cpp:382] ip3 -> ip3
I0430 21:10:45.245633 30230 net.cpp:124] Setting up ip3
I0430 21:10:45.245661 30230 net.cpp:131] Top shape: 111 80 (8880)
I0430 21:10:45.245666 30230 net.cpp:139] Memory required for data: 1684092
I0430 21:10:45.245672 30230 layer_factory.hpp:77] Creating layer relu3
I0430 21:10:45.245678 30230 net.cpp:86] Creating Layer relu3
I0430 21:10:45.245682 30230 net.cpp:408] relu3 <- ip3
I0430 21:10:45.245687 30230 net.cpp:369] relu3 -> ip3 (in-place)
I0430 21:10:45.245853 30230 net.cpp:124] Setting up relu3
I0430 21:10:45.245862 30230 net.cpp:131] Top shape: 111 80 (8880)
I0430 21:10:45.245865 30230 net.cpp:139] Memory required for data: 1719612
I0430 21:10:45.245868 30230 layer_factory.hpp:77] Creating layer ip4
I0430 21:10:45.245874 30230 net.cpp:86] Creating Layer ip4
I0430 21:10:45.245877 30230 net.cpp:408] ip4 <- ip3
I0430 21:10:45.245882 30230 net.cpp:382] ip4 -> ip4
I0430 21:10:45.246834 30230 net.cpp:124] Setting up ip4
I0430 21:10:45.246845 30230 net.cpp:131] Top shape: 111 10 (1110)
I0430 21:10:45.246865 30230 net.cpp:139] Memory required for data: 1724052
I0430 21:10:45.246870 30230 layer_factory.hpp:77] Creating layer loss
I0430 21:10:45.246876 30230 net.cpp:86] Creating Layer loss
I0430 21:10:45.246881 30230 net.cpp:408] loss <- ip4
I0430 21:10:45.246884 30230 net.cpp:408] loss <- label
I0430 21:10:45.246889 30230 net.cpp:382] loss -> loss
I0430 21:10:45.246908 30230 layer_factory.hpp:77] Creating layer loss
…
I0430 21:10:45.247560 30230 solver.cpp:173] Creating test net (#0) specified by net file: ECE595/cifar/train_test/var_everything/cifar_train_test_153.prototxt
I0430 21:10:45.247611 30230 net.cpp:296] The NetState phase (1) differed from the phase (0) specified by a rule in layer cifar
I0430 21:10:45.247685 30230 net.cpp:53] Initializing net from parameters: 
name: "CIFAR"
state {
  phase: TEST
}
layer {
  name: "cifar"
  type: "Data"
  top: "data"
  top: "label"
  include {
    phase: TEST
  }
  transform_param {
    mean_file: "examples/cifar10/mean.binaryproto"
  }
  data_param {
    source: "examples/cifar10/cifar10_test_lmdb"
    batch_size: 1000
    backend: LMDB
  }
}
layer {
  name: "ip1"
  type: "InnerProduct"
  bottom: "data"
  top: "ip1"
  param {
    lr_mult: 1
  }
  param {
    lr_mult: 2
  }
  inner_product_param {
    num_output: 160
    weight_filler {
      type: "gaussian"
      std: 0.01
    }
    bias_filler {
      type: "constant"
    }
  }
}
layer {
  name: "relu1"
  type: "ReLU"
  bottom: "ip1"
  top: "ip1"
}
layer {
  name: "ip2"
  type: "InnerProduct"
  bottom: "ip1"
  top: "ip2"
  param {
    lr_mult: 1
  }
  param {
    lr_mult: 2
  }
  inner_product_param {
    num_output: 160
    weight_filler {
      type: "gaussian"
      std: 0.01
    }
    bias_filler {
      type: "constant"
    }
  }
}
layer {
  name: "relu2"
  type: "ReLU"
  bottom: "ip2"
  top: "ip2"
}
layer {
  name: "ip3"
  type: "InnerProduct"
  bottom: "ip2"
  top: "ip3"
  param {
    lr_mult: 1
  }
  param {
    lr_mult: 2
  }
  inner_product_param {
    num_output: 80
    weight_filler {
      type: "gaussian"
      std: 0.01
    }
    bias_filler {
      type: "constant"
    }
  }
}
layer {
  name: "relu3"
  type: "ReLU"
  bottom: "ip3"
  top: "ip3"
}
layer {
  name: "ip4"
  type: "InnerProduct"
  bottom: "ip3"
  top: "ip4"
  param {
    lr_mult: 1
  }
  param {
    lr_mult: 2
  }
  inner_product_param {
    num_output: 10
    weight_filler {
      type: "gaussian"
      std: 0.01
    }
    bias_filler {
      type: "constant"
    }
  }
}
layer {
  name: "accuracy"
  type: "Accuracy"
  bottom: "ip4"
  bottom: "label"
  top: "accuracy"
  include {
    phase: TEST
  }
}
layer {
  name: "loss"
  type: "SoftmaxWithLoss"
  bottom: "ip4"
  bottom: "label"
  top: "loss"
}
I0430 21:10:45.247742 30230 layer_factory.hpp:77] Creating layer cifar
I0430 21:10:45.247788 30230 db_lmdb.cpp:35] Opened lmdb examples/cifar10/cifar10_test_lmdb
I0430 21:10:45.247802 30230 net.cpp:86] Creating Layer cifar
I0430 21:10:45.247810 30230 net.cpp:382] cifar -> data
I0430 21:10:45.247817 30230 net.cpp:382] cifar -> label
I0430 21:10:45.247823 30230 data_transformer.cpp:25] Loading mean file from: examples/cifar10/mean.binaryproto
I0430 21:10:45.247959 30230 data_layer.cpp:45] output data size: 1000,3,32,32
I0430 21:10:45.269917 30230 net.cpp:124] Setting up cifar
I0430 21:10:45.269959 30230 net.cpp:131] Top shape: 1000 3 32 32 (3072000)
I0430 21:10:45.269973 30230 net.cpp:131] Top shape: 1000 (1000)
I0430 21:10:45.269978 30230 net.cpp:139] Memory required for data: 12292000
I0430 21:10:45.269982 30230 layer_factory.hpp:77] Creating layer label_cifar_1_split
I0430 21:10:45.270000 30230 net.cpp:86] Creating Layer label_cifar_1_split
I0430 21:10:45.270004 30230 net.cpp:408] label_cifar_1_split <- label
I0430 21:10:45.270011 30230 net.cpp:382] label_cifar_1_split -> label_cifar_1_split_0
I0430 21:10:45.270037 30230 net.cpp:382] label_cifar_1_split -> label_cifar_1_split_1
I0430 21:10:45.270113 30230 net.cpp:124] Setting up label_cifar_1_split
I0430 21:10:45.270120 30230 net.cpp:131] Top shape: 1000 (1000)
I0430 21:10:45.270124 30230 net.cpp:131] Top shape: 1000 (1000)
I0430 21:10:45.270128 30230 net.cpp:139] Memory required for data: 12300000
I0430 21:10:45.270130 30230 layer_factory.hpp:77] Creating layer ip1
I0430 21:10:45.270140 30230 net.cpp:86] Creating Layer ip1
I0430 21:10:45.270145 30230 net.cpp:408] ip1 <- data
I0430 21:10:45.270166 30230 net.cpp:382] ip1 -> ip1
I0430 21:10:45.283354 30230 net.cpp:124] Setting up ip1
I0430 21:10:45.283383 30230 net.cpp:131] Top shape: 1000 160 (160000)
I0430 21:10:45.283387 30230 net.cpp:139] Memory required for data: 12940000
I0430 21:10:45.283411 30230 layer_factory.hpp:77] Creating layer relu1
I0430 21:10:45.283418 30230 net.cpp:86] Creating Layer relu1
I0430 21:10:45.283421 30230 net.cpp:408] relu1 <- ip1
I0430 21:10:45.283427 30230 net.cpp:369] relu1 -> ip1 (in-place)
I0430 21:10:45.284214 30230 net.cpp:124] Setting up relu1
I0430 21:10:45.284226 30230 net.cpp:131] Top shape: 1000 160 (160000)
I0430 21:10:45.284245 30230 net.cpp:139] Memory required for data: 13580000
I0430 21:10:45.284250 30230 layer_factory.hpp:77] Creating layer ip2
I0430 21:10:45.284272 30230 net.cpp:86] Creating Layer ip2
I0430 21:10:45.284276 30230 net.cpp:408] ip2 <- ip1
I0430 21:10:45.284281 30230 net.cpp:382] ip2 -> ip2
I0430 21:10:45.285111 30230 net.cpp:124] Setting up ip2
I0430 21:10:45.285120 30230 net.cpp:131] Top shape: 1000 160 (160000)
I0430 21:10:45.285140 30230 net.cpp:139] Memory required for data: 14220000
I0430 21:10:45.285161 30230 layer_factory.hpp:77] Creating layer relu2
I0430 21:10:45.285167 30230 net.cpp:86] Creating Layer relu2
I0430 21:10:45.285171 30230 net.cpp:408] relu2 <- ip2
I0430 21:10:45.285174 30230 net.cpp:369] relu2 -> ip2 (in-place)
I0430 21:10:45.285326 30230 net.cpp:124] Setting up relu2
I0430 21:10:45.285336 30230 net.cpp:131] Top shape: 1000 160 (160000)
I0430 21:10:45.285338 30230 net.cpp:139] Memory required for data: 14860000
I0430 21:10:45.285341 30230 layer_factory.hpp:77] Creating layer ip3
I0430 21:10:45.285347 30230 net.cpp:86] Creating Layer ip3
I0430 21:10:45.285351 30230 net.cpp:408] ip3 <- ip2
I0430 21:10:45.285356 30230 net.cpp:382] ip3 -> ip3
I0430 21:10:45.285800 30230 net.cpp:124] Setting up ip3
I0430 21:10:45.285807 30230 net.cpp:131] Top shape: 1000 80 (80000)
I0430 21:10:45.285825 30230 net.cpp:139] Memory required for data: 15180000
I0430 21:10:45.285832 30230 layer_factory.hpp:77] Creating layer relu3
I0430 21:10:45.285837 30230 net.cpp:86] Creating Layer relu3
I0430 21:10:45.285840 30230 net.cpp:408] relu3 <- ip3
I0430 21:10:45.285845 30230 net.cpp:369] relu3 -> ip3 (in-place)
I0430 21:10:45.286001 30230 net.cpp:124] Setting up relu3
I0430 21:10:45.286008 30230 net.cpp:131] Top shape: 1000 80 (80000)
I0430 21:10:45.286012 30230 net.cpp:139] Memory required for data: 15500000
I0430 21:10:45.286015 30230 layer_factory.hpp:77] Creating layer ip4
I0430 21:10:45.286023 30230 net.cpp:86] Creating Layer ip4
I0430 21:10:45.286026 30230 net.cpp:408] ip4 <- ip3
I0430 21:10:45.286031 30230 net.cpp:382] ip4 -> ip4
I0430 21:10:45.286149 30230 net.cpp:124] Setting up ip4
I0430 21:10:45.286155 30230 net.cpp:131] Top shape: 1000 10 (10000)
I0430 21:10:45.286159 30230 net.cpp:139] Memory required for data: 15540000
I0430 21:10:45.286164 30230 layer_factory.hpp:77] Creating layer ip4_ip4_0_split
I0430 21:10:45.286168 30230 net.cpp:86] Creating Layer ip4_ip4_0_split
I0430 21:10:45.286172 30230 net.cpp:408] ip4_ip4_0_split <- ip4
I0430 21:10:45.286176 30230 net.cpp:382] ip4_ip4_0_split -> ip4_ip4_0_split_0
I0430 21:10:45.286182 30230 net.cpp:382] ip4_ip4_0_split -> ip4_ip4_0_split_1
I0430 21:10:45.286211 30230 net.cpp:124] Setting up ip4_ip4_0_split
I0430 21:10:45.286217 30230 net.cpp:131] Top shape: 1000 10 (10000)
I0430 21:10:45.286221 30230 net.cpp:131] Top shape: 1000 10 (10000)
I0430 21:10:45.286224 30230 net.cpp:139] Memory required for data: 15620000
I0430 21:10:45.286227 30230 layer_factory.hpp:77] Creating layer accuracy
I0430 21:10:45.286233 30230 net.cpp:86] Creating Layer accuracy
I0430 21:10:45.286237 30230 net.cpp:408] accuracy <- ip4_ip4_0_split_0
I0430 21:10:45.286240 30230 net.cpp:408] accuracy <- label_cifar_1_split_0
I0430 21:10:45.286244 30230 net.cpp:382] accuracy -> accuracy
…
