…
I0430 20:57:36.592757 29766 net.cpp:296] The NetState phase (0) differed from the phase (1) specified by a rule in layer cifar
I0430 20:57:36.592773 29766 net.cpp:296] The NetState phase (0) differed from the phase (1) specified by a rule in layer accuracy
I0430 20:57:36.592864 29766 net.cpp:53] Initializing net from parameters: 
name: "CIFAR"
state {
  phase: TRAIN
  level: 0
  stage: ""
}
layer {
  name: "cifar"
  type: "Data"
  top: "data"
  top: "label"
  include {
    phase: TRAIN
  }
  transform_param {
    mean_file: "examples/cifar10/mean.binaryproto"
  }
  data_param {
    source: "examples/cifar10/cifar10_train_lmdb"
    batch_size: 111
    backend: LMDB
  }
}
layer {
  name: "ip1"
  type: "InnerProduct"
  bottom: "data"
  top: "ip1"
  param {
    lr_mult: 1
  }
  param {
    lr_mult: 2
  }
  inner_product_param {
    num_output: 160
    weight_filler {
      type: "gaussian"
      std: 0.01
    }
    bias_filler {
      type: "constant"
    }
  }
}
layer {
  name: "relu1"
  type: "ReLU"
  bottom: "ip1"
  top: "ip1"
}
layer {
  name: "ip2"
  type: "InnerProduct"
  bottom: "ip1"
  top: "ip2"
  param {
    lr_mult: 1
  }
  param {
    lr_mult: 2
  }
  inner_product_param {
    num_output: 80
    weight_filler {
      type: "gaussian"
      std: 0.01
    }
    bias_filler {
      type: "constant"
    }
  }
}
layer {
  name: "relu2"
  type: "ReLU"
  bottom: "ip2"
  top: "ip2"
}
layer {
  name: "ip3"
  type: "InnerProduct"
  bottom: "ip2"
  top: "ip3"
  param {
    lr_mult: 1
  }
  param {
    lr_mult: 2
  }
  inner_product_param {
    num_output: 20
    weight_filler {
      type: "gaussian"
      std: 0.01
    }
    bias_filler {
      type: "constant"
    }
  }
}
layer {
  name: "relu3"
  type: "ReLU"
  bottom: "ip3"
  top: "ip3"
}
layer {
  name: "ip4"
  type: "InnerProduct"
  bottom: "ip3"
  top: "ip4"
  param {
    lr_mult: 1
  }
  param {
    lr_mult: 2
  }
  inner_product_param {
    num_output: 10
    weight_filler {
      type: "gaussian"
      std: 0.01
    }
    bias_filler {
      type: "constant"
    }
  }
}
layer {
  name: "loss"
  type: "SoftmaxWithLoss"
  bottom: "ip4"
  bottom: "label"
  top: "loss"
}
I0430 20:57:36.592928 29766 layer_factory.hpp:77] Creating layer cifar
I0430 20:57:36.593029 29766 db_lmdb.cpp:35] Opened lmdb examples/cifar10/cifar10_train_lmdb
I0430 20:57:36.593056 29766 net.cpp:86] Creating Layer cifar
I0430 20:57:36.593065 29766 net.cpp:382] cifar -> data
I0430 20:57:36.593087 29766 net.cpp:382] cifar -> label
I0430 20:57:36.593101 29766 data_transformer.cpp:25] Loading mean file from: examples/cifar10/mean.binaryproto
I0430 20:57:36.595203 29766 data_layer.cpp:45] output data size: 111,3,32,32
I0430 20:57:36.603072 29766 net.cpp:124] Setting up cifar
I0430 20:57:36.603091 29766 net.cpp:131] Top shape: 111 3 32 32 (340992)
I0430 20:57:36.603097 29766 net.cpp:131] Top shape: 111 (111)
I0430 20:57:36.603101 29766 net.cpp:139] Memory required for data: 1364412
I0430 20:57:36.603109 29766 layer_factory.hpp:77] Creating layer ip1
I0430 20:57:36.603121 29766 net.cpp:86] Creating Layer ip1
I0430 20:57:36.603126 29766 net.cpp:408] ip1 <- data
I0430 20:57:36.603137 29766 net.cpp:382] ip1 -> ip1
I0430 20:57:36.620385 29766 net.cpp:124] Setting up ip1
I0430 20:57:36.620401 29766 net.cpp:131] Top shape: 111 160 (17760)
I0430 20:57:36.620405 29766 net.cpp:139] Memory required for data: 1435452
I0430 20:57:36.620420 29766 layer_factory.hpp:77] Creating layer relu1
I0430 20:57:36.620445 29766 net.cpp:86] Creating Layer relu1
I0430 20:57:36.620450 29766 net.cpp:408] relu1 <- ip1
I0430 20:57:36.620456 29766 net.cpp:369] relu1 -> ip1 (in-place)
I0430 20:57:36.902474 29766 net.cpp:124] Setting up relu1
I0430 20:57:36.902504 29766 net.cpp:131] Top shape: 111 160 (17760)
I0430 20:57:36.902509 29766 net.cpp:139] Memory required for data: 1506492
I0430 20:57:36.902514 29766 layer_factory.hpp:77] Creating layer ip2
I0430 20:57:36.902528 29766 net.cpp:86] Creating Layer ip2
I0430 20:57:36.902532 29766 net.cpp:408] ip2 <- ip1
I0430 20:57:36.902539 29766 net.cpp:382] ip2 -> ip2
I0430 20:57:36.903923 29766 net.cpp:124] Setting up ip2
I0430 20:57:36.903935 29766 net.cpp:131] Top shape: 111 80 (8880)
I0430 20:57:36.903939 29766 net.cpp:139] Memory required for data: 1542012
I0430 20:57:36.903950 29766 layer_factory.hpp:77] Creating layer relu2
I0430 20:57:36.903959 29766 net.cpp:86] Creating Layer relu2
I0430 20:57:36.903961 29766 net.cpp:408] relu2 <- ip2
I0430 20:57:36.903969 29766 net.cpp:369] relu2 -> ip2 (in-place)
I0430 20:57:36.904714 29766 net.cpp:124] Setting up relu2
I0430 20:57:36.904727 29766 net.cpp:131] Top shape: 111 80 (8880)
I0430 20:57:36.904732 29766 net.cpp:139] Memory required for data: 1577532
I0430 20:57:36.904736 29766 layer_factory.hpp:77] Creating layer ip3
I0430 20:57:36.904743 29766 net.cpp:86] Creating Layer ip3
I0430 20:57:36.904747 29766 net.cpp:408] ip3 <- ip2
I0430 20:57:36.904752 29766 net.cpp:382] ip3 -> ip3
I0430 20:57:36.904903 29766 net.cpp:124] Setting up ip3
I0430 20:57:36.904912 29766 net.cpp:131] Top shape: 111 20 (2220)
I0430 20:57:36.904917 29766 net.cpp:139] Memory required for data: 1586412
I0430 20:57:36.904924 29766 layer_factory.hpp:77] Creating layer relu3
I0430 20:57:36.904932 29766 net.cpp:86] Creating Layer relu3
I0430 20:57:36.904935 29766 net.cpp:408] relu3 <- ip3
I0430 20:57:36.904939 29766 net.cpp:369] relu3 -> ip3 (in-place)
I0430 20:57:36.905113 29766 net.cpp:124] Setting up relu3
I0430 20:57:36.905122 29766 net.cpp:131] Top shape: 111 20 (2220)
I0430 20:57:36.905124 29766 net.cpp:139] Memory required for data: 1595292
I0430 20:57:36.905128 29766 layer_factory.hpp:77] Creating layer ip4
I0430 20:57:36.905134 29766 net.cpp:86] Creating Layer ip4
I0430 20:57:36.905138 29766 net.cpp:408] ip4 <- ip3
I0430 20:57:36.905143 29766 net.cpp:382] ip4 -> ip4
I0430 20:57:36.905247 29766 net.cpp:124] Setting up ip4
I0430 20:57:36.905254 29766 net.cpp:131] Top shape: 111 10 (1110)
I0430 20:57:36.905256 29766 net.cpp:139] Memory required for data: 1599732
I0430 20:57:36.905262 29766 layer_factory.hpp:77] Creating layer loss
I0430 20:57:36.905268 29766 net.cpp:86] Creating Layer loss
I0430 20:57:36.905272 29766 net.cpp:408] loss <- ip4
I0430 20:57:36.905275 29766 net.cpp:408] loss <- label
I0430 20:57:36.905280 29766 net.cpp:382] loss -> loss
I0430 20:57:36.905297 29766 layer_factory.hpp:77] Creating layer loss
…
I0430 20:57:36.905903 29766 solver.cpp:173] Creating test net (#0) specified by net file: ECE595/cifar/train_test/var_everything/cifar_train_test_146.prototxt
I0430 20:57:36.905941 29766 net.cpp:296] The NetState phase (1) differed from the phase (0) specified by a rule in layer cifar
I0430 20:57:36.906033 29766 net.cpp:53] Initializing net from parameters: 
name: "CIFAR"
state {
  phase: TEST
}
layer {
  name: "cifar"
  type: "Data"
  top: "data"
  top: "label"
  include {
    phase: TEST
  }
  transform_param {
    mean_file: "examples/cifar10/mean.binaryproto"
  }
  data_param {
    source: "examples/cifar10/cifar10_test_lmdb"
    batch_size: 1000
    backend: LMDB
  }
}
layer {
  name: "ip1"
  type: "InnerProduct"
  bottom: "data"
  top: "ip1"
  param {
    lr_mult: 1
  }
  param {
    lr_mult: 2
  }
  inner_product_param {
    num_output: 160
    weight_filler {
      type: "gaussian"
      std: 0.01
    }
    bias_filler {
      type: "constant"
    }
  }
}
layer {
  name: "relu1"
  type: "ReLU"
  bottom: "ip1"
  top: "ip1"
}
layer {
  name: "ip2"
  type: "InnerProduct"
  bottom: "ip1"
  top: "ip2"
  param {
    lr_mult: 1
  }
  param {
    lr_mult: 2
  }
  inner_product_param {
    num_output: 80
    weight_filler {
      type: "gaussian"
      std: 0.01
    }
    bias_filler {
      type: "constant"
    }
  }
}
layer {
  name: "relu2"
  type: "ReLU"
  bottom: "ip2"
  top: "ip2"
}
layer {
  name: "ip3"
  type: "InnerProduct"
  bottom: "ip2"
  top: "ip3"
  param {
    lr_mult: 1
  }
  param {
    lr_mult: 2
  }
  inner_product_param {
    num_output: 20
    weight_filler {
      type: "gaussian"
      std: 0.01
    }
    bias_filler {
      type: "constant"
    }
  }
}
layer {
  name: "relu3"
  type: "ReLU"
  bottom: "ip3"
  top: "ip3"
}
layer {
  name: "ip4"
  type: "InnerProduct"
  bottom: "ip3"
  top: "ip4"
  param {
    lr_mult: 1
  }
  param {
    lr_mult: 2
  }
  inner_product_param {
    num_output: 10
    weight_filler {
      type: "gaussian"
      std: 0.01
    }
    bias_filler {
      type: "constant"
    }
  }
}
layer {
  name: "accuracy"
  type: "Accuracy"
  bottom: "ip4"
  bottom: "label"
  top: "accuracy"
  include {
    phase: TEST
  }
}
layer {
  name: "loss"
  type: "SoftmaxWithLoss"
  bottom: "ip4"
  bottom: "label"
  top: "loss"
}
I0430 20:57:36.906101 29766 layer_factory.hpp:77] Creating layer cifar
I0430 20:57:36.906146 29766 db_lmdb.cpp:35] Opened lmdb examples/cifar10/cifar10_test_lmdb
I0430 20:57:36.906159 29766 net.cpp:86] Creating Layer cifar
I0430 20:57:36.906164 29766 net.cpp:382] cifar -> data
I0430 20:57:36.906172 29766 net.cpp:382] cifar -> label
I0430 20:57:36.906180 29766 data_transformer.cpp:25] Loading mean file from: examples/cifar10/mean.binaryproto
I0430 20:57:36.906347 29766 data_layer.cpp:45] output data size: 1000,3,32,32
I0430 20:57:36.929440 29766 net.cpp:124] Setting up cifar
I0430 20:57:36.929466 29766 net.cpp:131] Top shape: 1000 3 32 32 (3072000)
I0430 20:57:36.929471 29766 net.cpp:131] Top shape: 1000 (1000)
I0430 20:57:36.929474 29766 net.cpp:139] Memory required for data: 12292000
I0430 20:57:36.929481 29766 layer_factory.hpp:77] Creating layer label_cifar_1_split
I0430 20:57:36.929509 29766 net.cpp:86] Creating Layer label_cifar_1_split
I0430 20:57:36.929513 29766 net.cpp:408] label_cifar_1_split <- label
I0430 20:57:36.929523 29766 net.cpp:382] label_cifar_1_split -> label_cifar_1_split_0
I0430 20:57:36.929533 29766 net.cpp:382] label_cifar_1_split -> label_cifar_1_split_1
I0430 20:57:36.929649 29766 net.cpp:124] Setting up label_cifar_1_split
I0430 20:57:36.929656 29766 net.cpp:131] Top shape: 1000 (1000)
I0430 20:57:36.929661 29766 net.cpp:131] Top shape: 1000 (1000)
I0430 20:57:36.929662 29766 net.cpp:139] Memory required for data: 12300000
I0430 20:57:36.929666 29766 layer_factory.hpp:77] Creating layer ip1
I0430 20:57:36.929675 29766 net.cpp:86] Creating Layer ip1
I0430 20:57:36.929678 29766 net.cpp:408] ip1 <- data
I0430 20:57:36.929684 29766 net.cpp:382] ip1 -> ip1
I0430 20:57:36.943250 29766 net.cpp:124] Setting up ip1
I0430 20:57:36.943264 29766 net.cpp:131] Top shape: 1000 160 (160000)
I0430 20:57:36.943266 29766 net.cpp:139] Memory required for data: 12940000
I0430 20:57:36.943290 29766 layer_factory.hpp:77] Creating layer relu1
I0430 20:57:36.943298 29766 net.cpp:86] Creating Layer relu1
I0430 20:57:36.943301 29766 net.cpp:408] relu1 <- ip1
I0430 20:57:36.943307 29766 net.cpp:369] relu1 -> ip1 (in-place)
I0430 20:57:36.944123 29766 net.cpp:124] Setting up relu1
I0430 20:57:36.944135 29766 net.cpp:131] Top shape: 1000 160 (160000)
I0430 20:57:36.944139 29766 net.cpp:139] Memory required for data: 13580000
I0430 20:57:36.944141 29766 layer_factory.hpp:77] Creating layer ip2
I0430 20:57:36.944151 29766 net.cpp:86] Creating Layer ip2
I0430 20:57:36.944154 29766 net.cpp:408] ip2 <- ip1
I0430 20:57:36.944159 29766 net.cpp:382] ip2 -> ip2
I0430 20:57:36.944628 29766 net.cpp:124] Setting up ip2
I0430 20:57:36.944635 29766 net.cpp:131] Top shape: 1000 80 (80000)
I0430 20:57:36.944639 29766 net.cpp:139] Memory required for data: 13900000
I0430 20:57:36.944646 29766 layer_factory.hpp:77] Creating layer relu2
I0430 20:57:36.944653 29766 net.cpp:86] Creating Layer relu2
I0430 20:57:36.944654 29766 net.cpp:408] relu2 <- ip2
I0430 20:57:36.944659 29766 net.cpp:369] relu2 -> ip2 (in-place)
I0430 20:57:36.944844 29766 net.cpp:124] Setting up relu2
I0430 20:57:36.944854 29766 net.cpp:131] Top shape: 1000 80 (80000)
I0430 20:57:36.944856 29766 net.cpp:139] Memory required for data: 14220000
I0430 20:57:36.944859 29766 layer_factory.hpp:77] Creating layer ip3
I0430 20:57:36.944867 29766 net.cpp:86] Creating Layer ip3
I0430 20:57:36.944871 29766 net.cpp:408] ip3 <- ip2
I0430 20:57:36.944875 29766 net.cpp:382] ip3 -> ip3
I0430 20:57:36.945024 29766 net.cpp:124] Setting up ip3
I0430 20:57:36.945031 29766 net.cpp:131] Top shape: 1000 20 (20000)
I0430 20:57:36.945034 29766 net.cpp:139] Memory required for data: 14300000
I0430 20:57:36.945041 29766 layer_factory.hpp:77] Creating layer relu3
I0430 20:57:36.945046 29766 net.cpp:86] Creating Layer relu3
I0430 20:57:36.945050 29766 net.cpp:408] relu3 <- ip3
I0430 20:57:36.945053 29766 net.cpp:369] relu3 -> ip3 (in-place)
I0430 20:57:36.945225 29766 net.cpp:124] Setting up relu3
I0430 20:57:36.945232 29766 net.cpp:131] Top shape: 1000 20 (20000)
I0430 20:57:36.945235 29766 net.cpp:139] Memory required for data: 14380000
I0430 20:57:36.945238 29766 layer_factory.hpp:77] Creating layer ip4
I0430 20:57:36.945246 29766 net.cpp:86] Creating Layer ip4
I0430 20:57:36.945250 29766 net.cpp:408] ip4 <- ip3
I0430 20:57:36.945255 29766 net.cpp:382] ip4 -> ip4
I0430 20:57:36.945366 29766 net.cpp:124] Setting up ip4
I0430 20:57:36.945374 29766 net.cpp:131] Top shape: 1000 10 (10000)
I0430 20:57:36.945376 29766 net.cpp:139] Memory required for data: 14420000
I0430 20:57:36.945381 29766 layer_factory.hpp:77] Creating layer ip4_ip4_0_split
I0430 20:57:36.945387 29766 net.cpp:86] Creating Layer ip4_ip4_0_split
I0430 20:57:36.945391 29766 net.cpp:408] ip4_ip4_0_split <- ip4
I0430 20:57:36.945395 29766 net.cpp:382] ip4_ip4_0_split -> ip4_ip4_0_split_0
I0430 20:57:36.945400 29766 net.cpp:382] ip4_ip4_0_split -> ip4_ip4_0_split_1
I0430 20:57:36.945431 29766 net.cpp:124] Setting up ip4_ip4_0_split
I0430 20:57:36.945436 29766 net.cpp:131] Top shape: 1000 10 (10000)
I0430 20:57:36.945441 29766 net.cpp:131] Top shape: 1000 10 (10000)
I0430 20:57:36.945442 29766 net.cpp:139] Memory required for data: 14500000
I0430 20:57:36.945446 29766 layer_factory.hpp:77] Creating layer accuracy
I0430 20:57:36.945451 29766 net.cpp:86] Creating Layer accuracy
I0430 20:57:36.945454 29766 net.cpp:408] accuracy <- ip4_ip4_0_split_0
I0430 20:57:36.945458 29766 net.cpp:408] accuracy <- label_cifar_1_split_0
I0430 20:57:36.945463 29766 net.cpp:382] accuracy -> accuracy
…
