…
I0430 19:58:00.300941 27443 net.cpp:296] The NetState phase (0) differed from the phase (1) specified by a rule in layer cifar
I0430 19:58:00.300961 27443 net.cpp:296] The NetState phase (0) differed from the phase (1) specified by a rule in layer accuracy
I0430 19:58:00.301053 27443 net.cpp:53] Initializing net from parameters: 
name: "CIFAR"
state {
  phase: TRAIN
  level: 0
  stage: ""
}
layer {
  name: "cifar"
  type: "Data"
  top: "data"
  top: "label"
  include {
    phase: TRAIN
  }
  transform_param {
    mean_file: "examples/cifar10/mean.binaryproto"
  }
  data_param {
    source: "examples/cifar10/cifar10_train_lmdb"
    batch_size: 111
    backend: LMDB
  }
}
layer {
  name: "ip1"
  type: "InnerProduct"
  bottom: "data"
  top: "ip1"
  param {
    lr_mult: 1
  }
  param {
    lr_mult: 2
  }
  inner_product_param {
    num_output: 80
    weight_filler {
      type: "gaussian"
      std: 0.01
    }
    bias_filler {
      type: "constant"
    }
  }
}
layer {
  name: "relu1"
  type: "ReLU"
  bottom: "ip1"
  top: "ip1"
}
layer {
  name: "ip2"
  type: "InnerProduct"
  bottom: "ip1"
  top: "ip2"
  param {
    lr_mult: 1
  }
  param {
    lr_mult: 2
  }
  inner_product_param {
    num_output: 20
    weight_filler {
      type: "gaussian"
      std: 0.01
    }
    bias_filler {
      type: "constant"
    }
  }
}
layer {
  name: "relu2"
  type: "ReLU"
  bottom: "ip2"
  top: "ip2"
}
layer {
  name: "ip3"
  type: "InnerProduct"
  bottom: "ip2"
  top: "ip3"
  param {
    lr_mult: 1
  }
  param {
    lr_mult: 2
  }
  inner_product_param {
    num_output: 160
    weight_filler {
      type: "gaussian"
      std: 0.01
    }
    bias_filler {
      type: "constant"
    }
  }
}
layer {
  name: "relu3"
  type: "ReLU"
  bottom: "ip3"
  top: "ip3"
}
layer {
  name: "ip4"
  type: "InnerProduct"
  bottom: "ip3"
  top: "ip4"
  param {
    lr_mult: 1
  }
  param {
    lr_mult: 2
  }
  inner_product_param {
    num_output: 10
    weight_filler {
      type: "gaussian"
      std: 0.01
    }
    bias_filler {
      type: "constant"
    }
  }
}
layer {
  name: "loss"
  type: "SoftmaxWithLoss"
  bottom: "ip4"
  bottom: "label"
  top: "loss"
}
I0430 19:58:00.301120 27443 layer_factory.hpp:77] Creating layer cifar
I0430 19:58:00.301221 27443 db_lmdb.cpp:35] Opened lmdb examples/cifar10/cifar10_train_lmdb
I0430 19:58:00.301251 27443 net.cpp:86] Creating Layer cifar
I0430 19:58:00.301261 27443 net.cpp:382] cifar -> data
I0430 19:58:00.301287 27443 net.cpp:382] cifar -> label
I0430 19:58:00.301309 27443 data_transformer.cpp:25] Loading mean file from: examples/cifar10/mean.binaryproto
I0430 19:58:00.303429 27443 data_layer.cpp:45] output data size: 111,3,32,32
I0430 19:58:00.311305 27443 net.cpp:124] Setting up cifar
I0430 19:58:00.311326 27443 net.cpp:131] Top shape: 111 3 32 32 (340992)
I0430 19:58:00.311332 27443 net.cpp:131] Top shape: 111 (111)
I0430 19:58:00.311336 27443 net.cpp:139] Memory required for data: 1364412
I0430 19:58:00.311343 27443 layer_factory.hpp:77] Creating layer ip1
I0430 19:58:00.311354 27443 net.cpp:86] Creating Layer ip1
I0430 19:58:00.311360 27443 net.cpp:408] ip1 <- data
I0430 19:58:00.311374 27443 net.cpp:382] ip1 -> ip1
I0430 19:58:00.320607 27443 net.cpp:124] Setting up ip1
I0430 19:58:00.320623 27443 net.cpp:131] Top shape: 111 80 (8880)
I0430 19:58:00.320627 27443 net.cpp:139] Memory required for data: 1399932
I0430 19:58:00.320641 27443 layer_factory.hpp:77] Creating layer relu1
I0430 19:58:00.320650 27443 net.cpp:86] Creating Layer relu1
I0430 19:58:00.320672 27443 net.cpp:408] relu1 <- ip1
I0430 19:58:00.320677 27443 net.cpp:369] relu1 -> ip1 (in-place)
I0430 19:58:00.602787 27443 net.cpp:124] Setting up relu1
I0430 19:58:00.602813 27443 net.cpp:131] Top shape: 111 80 (8880)
I0430 19:58:00.602816 27443 net.cpp:139] Memory required for data: 1435452
I0430 19:58:00.602821 27443 layer_factory.hpp:77] Creating layer ip2
I0430 19:58:00.602833 27443 net.cpp:86] Creating Layer ip2
I0430 19:58:00.602838 27443 net.cpp:408] ip2 <- ip1
I0430 19:58:00.602844 27443 net.cpp:382] ip2 -> ip2
I0430 19:58:00.602993 27443 net.cpp:124] Setting up ip2
I0430 19:58:00.603001 27443 net.cpp:131] Top shape: 111 20 (2220)
I0430 19:58:00.603004 27443 net.cpp:139] Memory required for data: 1444332
I0430 19:58:00.603013 27443 layer_factory.hpp:77] Creating layer relu2
I0430 19:58:00.603021 27443 net.cpp:86] Creating Layer relu2
I0430 19:58:00.603024 27443 net.cpp:408] relu2 <- ip2
I0430 19:58:00.603029 27443 net.cpp:369] relu2 -> ip2 (in-place)
I0430 19:58:00.603756 27443 net.cpp:124] Setting up relu2
I0430 19:58:00.603768 27443 net.cpp:131] Top shape: 111 20 (2220)
I0430 19:58:00.603772 27443 net.cpp:139] Memory required for data: 1453212
I0430 19:58:00.603775 27443 layer_factory.hpp:77] Creating layer ip3
I0430 19:58:00.603782 27443 net.cpp:86] Creating Layer ip3
I0430 19:58:00.603785 27443 net.cpp:408] ip3 <- ip2
I0430 19:58:00.603790 27443 net.cpp:382] ip3 -> ip3
I0430 19:58:00.603967 27443 net.cpp:124] Setting up ip3
I0430 19:58:00.603976 27443 net.cpp:131] Top shape: 111 160 (17760)
I0430 19:58:00.603978 27443 net.cpp:139] Memory required for data: 1524252
I0430 19:58:00.603986 27443 layer_factory.hpp:77] Creating layer relu3
I0430 19:58:00.603991 27443 net.cpp:86] Creating Layer relu3
I0430 19:58:00.603993 27443 net.cpp:408] relu3 <- ip3
I0430 19:58:00.603997 27443 net.cpp:369] relu3 -> ip3 (in-place)
I0430 19:58:00.604135 27443 net.cpp:124] Setting up relu3
I0430 19:58:00.604143 27443 net.cpp:131] Top shape: 111 160 (17760)
I0430 19:58:00.604146 27443 net.cpp:139] Memory required for data: 1595292
I0430 19:58:00.604151 27443 layer_factory.hpp:77] Creating layer ip4
I0430 19:58:00.604156 27443 net.cpp:86] Creating Layer ip4
I0430 19:58:00.604158 27443 net.cpp:408] ip4 <- ip3
I0430 19:58:00.604163 27443 net.cpp:382] ip4 -> ip4
I0430 19:58:00.604290 27443 net.cpp:124] Setting up ip4
I0430 19:58:00.604296 27443 net.cpp:131] Top shape: 111 10 (1110)
I0430 19:58:00.604300 27443 net.cpp:139] Memory required for data: 1599732
I0430 19:58:00.604305 27443 layer_factory.hpp:77] Creating layer loss
I0430 19:58:00.604310 27443 net.cpp:86] Creating Layer loss
I0430 19:58:00.604313 27443 net.cpp:408] loss <- ip4
I0430 19:58:00.604316 27443 net.cpp:408] loss <- label
I0430 19:58:00.604322 27443 net.cpp:382] loss -> loss
I0430 19:58:00.604339 27443 layer_factory.hpp:77] Creating layer loss
…
I0430 19:58:00.604948 27443 solver.cpp:173] Creating test net (#0) specified by net file: ECE595/cifar/train_test/var_everything/cifar_train_test_114.prototxt
I0430 19:58:00.605031 27443 net.cpp:296] The NetState phase (1) differed from the phase (0) specified by a rule in layer cifar
I0430 19:58:00.605108 27443 net.cpp:53] Initializing net from parameters: 
name: "CIFAR"
state {
  phase: TEST
}
layer {
  name: "cifar"
  type: "Data"
  top: "data"
  top: "label"
  include {
    phase: TEST
  }
  transform_param {
    mean_file: "examples/cifar10/mean.binaryproto"
  }
  data_param {
    source: "examples/cifar10/cifar10_test_lmdb"
    batch_size: 1000
    backend: LMDB
  }
}
layer {
  name: "ip1"
  type: "InnerProduct"
  bottom: "data"
  top: "ip1"
  param {
    lr_mult: 1
  }
  param {
    lr_mult: 2
  }
  inner_product_param {
    num_output: 80
    weight_filler {
      type: "gaussian"
      std: 0.01
    }
    bias_filler {
      type: "constant"
    }
  }
}
layer {
  name: "relu1"
  type: "ReLU"
  bottom: "ip1"
  top: "ip1"
}
layer {
  name: "ip2"
  type: "InnerProduct"
  bottom: "ip1"
  top: "ip2"
  param {
    lr_mult: 1
  }
  param {
    lr_mult: 2
  }
  inner_product_param {
    num_output: 20
    weight_filler {
      type: "gaussian"
      std: 0.01
    }
    bias_filler {
      type: "constant"
    }
  }
}
layer {
  name: "relu2"
  type: "ReLU"
  bottom: "ip2"
  top: "ip2"
}
layer {
  name: "ip3"
  type: "InnerProduct"
  bottom: "ip2"
  top: "ip3"
  param {
    lr_mult: 1
  }
  param {
    lr_mult: 2
  }
  inner_product_param {
    num_output: 160
    weight_filler {
      type: "gaussian"
      std: 0.01
    }
    bias_filler {
      type: "constant"
    }
  }
}
layer {
  name: "relu3"
  type: "ReLU"
  bottom: "ip3"
  top: "ip3"
}
layer {
  name: "ip4"
  type: "InnerProduct"
  bottom: "ip3"
  top: "ip4"
  param {
    lr_mult: 1
  }
  param {
    lr_mult: 2
  }
  inner_product_param {
    num_output: 10
    weight_filler {
      type: "gaussian"
      std: 0.01
    }
    bias_filler {
      type: "constant"
    }
  }
}
layer {
  name: "accuracy"
  type: "Accuracy"
  bottom: "ip4"
  bottom: "label"
  top: "accuracy"
  include {
    phase: TEST
  }
}
layer {
  name: "loss"
  type: "SoftmaxWithLoss"
  bottom: "ip4"
  bottom: "label"
  top: "loss"
}
I0430 19:58:00.605180 27443 layer_factory.hpp:77] Creating layer cifar
I0430 19:58:00.605226 27443 db_lmdb.cpp:35] Opened lmdb examples/cifar10/cifar10_test_lmdb
I0430 19:58:00.605240 27443 net.cpp:86] Creating Layer cifar
I0430 19:58:00.605244 27443 net.cpp:382] cifar -> data
I0430 19:58:00.605252 27443 net.cpp:382] cifar -> label
I0430 19:58:00.605258 27443 data_transformer.cpp:25] Loading mean file from: examples/cifar10/mean.binaryproto
I0430 19:58:00.605396 27443 data_layer.cpp:45] output data size: 1000,3,32,32
I0430 19:58:00.627982 27443 net.cpp:124] Setting up cifar
I0430 19:58:00.628041 27443 net.cpp:131] Top shape: 1000 3 32 32 (3072000)
I0430 19:58:00.628046 27443 net.cpp:131] Top shape: 1000 (1000)
I0430 19:58:00.628049 27443 net.cpp:139] Memory required for data: 12292000
I0430 19:58:00.628056 27443 layer_factory.hpp:77] Creating layer label_cifar_1_split
I0430 19:58:00.628072 27443 net.cpp:86] Creating Layer label_cifar_1_split
I0430 19:58:00.628077 27443 net.cpp:408] label_cifar_1_split <- label
I0430 19:58:00.628082 27443 net.cpp:382] label_cifar_1_split -> label_cifar_1_split_0
I0430 19:58:00.628092 27443 net.cpp:382] label_cifar_1_split -> label_cifar_1_split_1
I0430 19:58:00.628172 27443 net.cpp:124] Setting up label_cifar_1_split
I0430 19:58:00.628180 27443 net.cpp:131] Top shape: 1000 (1000)
I0430 19:58:00.628185 27443 net.cpp:131] Top shape: 1000 (1000)
I0430 19:58:00.628186 27443 net.cpp:139] Memory required for data: 12300000
I0430 19:58:00.628190 27443 layer_factory.hpp:77] Creating layer ip1
I0430 19:58:00.628199 27443 net.cpp:86] Creating Layer ip1
I0430 19:58:00.628202 27443 net.cpp:408] ip1 <- data
I0430 19:58:00.628207 27443 net.cpp:382] ip1 -> ip1
I0430 19:58:00.634862 27443 net.cpp:124] Setting up ip1
I0430 19:58:00.634872 27443 net.cpp:131] Top shape: 1000 80 (80000)
I0430 19:58:00.634891 27443 net.cpp:139] Memory required for data: 12620000
I0430 19:58:00.634914 27443 layer_factory.hpp:77] Creating layer relu1
I0430 19:58:00.634922 27443 net.cpp:86] Creating Layer relu1
I0430 19:58:00.634924 27443 net.cpp:408] relu1 <- ip1
I0430 19:58:00.634944 27443 net.cpp:369] relu1 -> ip1 (in-place)
I0430 19:58:00.635738 27443 net.cpp:124] Setting up relu1
I0430 19:58:00.635751 27443 net.cpp:131] Top shape: 1000 80 (80000)
I0430 19:58:00.635769 27443 net.cpp:139] Memory required for data: 12940000
I0430 19:58:00.635773 27443 layer_factory.hpp:77] Creating layer ip2
I0430 19:58:00.635782 27443 net.cpp:86] Creating Layer ip2
I0430 19:58:00.635784 27443 net.cpp:408] ip2 <- ip1
I0430 19:58:00.635789 27443 net.cpp:382] ip2 -> ip2
I0430 19:58:00.635946 27443 net.cpp:124] Setting up ip2
I0430 19:58:00.635954 27443 net.cpp:131] Top shape: 1000 20 (20000)
I0430 19:58:00.635972 27443 net.cpp:139] Memory required for data: 13020000
I0430 19:58:00.635979 27443 layer_factory.hpp:77] Creating layer relu2
I0430 19:58:00.635987 27443 net.cpp:86] Creating Layer relu2
I0430 19:58:00.635989 27443 net.cpp:408] relu2 <- ip2
I0430 19:58:00.635993 27443 net.cpp:369] relu2 -> ip2 (in-place)
I0430 19:58:00.636142 27443 net.cpp:124] Setting up relu2
I0430 19:58:00.636150 27443 net.cpp:131] Top shape: 1000 20 (20000)
I0430 19:58:00.636153 27443 net.cpp:139] Memory required for data: 13100000
I0430 19:58:00.636157 27443 layer_factory.hpp:77] Creating layer ip3
I0430 19:58:00.636162 27443 net.cpp:86] Creating Layer ip3
I0430 19:58:00.636165 27443 net.cpp:408] ip3 <- ip2
I0430 19:58:00.636170 27443 net.cpp:382] ip3 -> ip3
I0430 19:58:00.636361 27443 net.cpp:124] Setting up ip3
I0430 19:58:00.636368 27443 net.cpp:131] Top shape: 1000 160 (160000)
I0430 19:58:00.636371 27443 net.cpp:139] Memory required for data: 13740000
I0430 19:58:00.636378 27443 layer_factory.hpp:77] Creating layer relu3
I0430 19:58:00.636382 27443 net.cpp:86] Creating Layer relu3
I0430 19:58:00.636385 27443 net.cpp:408] relu3 <- ip3
I0430 19:58:00.636390 27443 net.cpp:369] relu3 -> ip3 (in-place)
I0430 19:58:00.636529 27443 net.cpp:124] Setting up relu3
I0430 19:58:00.636538 27443 net.cpp:131] Top shape: 1000 160 (160000)
I0430 19:58:00.636540 27443 net.cpp:139] Memory required for data: 14380000
I0430 19:58:00.636543 27443 layer_factory.hpp:77] Creating layer ip4
I0430 19:58:00.636550 27443 net.cpp:86] Creating Layer ip4
I0430 19:58:00.636554 27443 net.cpp:408] ip4 <- ip3
I0430 19:58:00.636559 27443 net.cpp:382] ip4 -> ip4
I0430 19:58:00.636689 27443 net.cpp:124] Setting up ip4
I0430 19:58:00.636695 27443 net.cpp:131] Top shape: 1000 10 (10000)
I0430 19:58:00.636699 27443 net.cpp:139] Memory required for data: 14420000
I0430 19:58:00.636704 27443 layer_factory.hpp:77] Creating layer ip4_ip4_0_split
I0430 19:58:00.636709 27443 net.cpp:86] Creating Layer ip4_ip4_0_split
I0430 19:58:00.636711 27443 net.cpp:408] ip4_ip4_0_split <- ip4
I0430 19:58:00.636715 27443 net.cpp:382] ip4_ip4_0_split -> ip4_ip4_0_split_0
I0430 19:58:00.636723 27443 net.cpp:382] ip4_ip4_0_split -> ip4_ip4_0_split_1
I0430 19:58:00.636751 27443 net.cpp:124] Setting up ip4_ip4_0_split
I0430 19:58:00.636756 27443 net.cpp:131] Top shape: 1000 10 (10000)
I0430 19:58:00.636760 27443 net.cpp:131] Top shape: 1000 10 (10000)
I0430 19:58:00.636764 27443 net.cpp:139] Memory required for data: 14500000
I0430 19:58:00.636765 27443 layer_factory.hpp:77] Creating layer accuracy
I0430 19:58:00.636771 27443 net.cpp:86] Creating Layer accuracy
I0430 19:58:00.636775 27443 net.cpp:408] accuracy <- ip4_ip4_0_split_0
I0430 19:58:00.636786 27443 net.cpp:408] accuracy <- label_cifar_1_split_0
I0430 19:58:00.636791 27443 net.cpp:382] accuracy -> accuracy
…
