…
I0430 21:44:21.373257 31544 net.cpp:296] The NetState phase (0) differed from the phase (1) specified by a rule in layer cifar
I0430 21:44:21.373276 31544 net.cpp:296] The NetState phase (0) differed from the phase (1) specified by a rule in layer accuracy
I0430 21:44:21.373368 31544 net.cpp:53] Initializing net from parameters: 
name: "CIFAR"
state {
  phase: TRAIN
  level: 0
  stage: ""
}
layer {
  name: "cifar"
  type: "Data"
  top: "data"
  top: "label"
  include {
    phase: TRAIN
  }
  transform_param {
    mean_file: "examples/cifar10/mean.binaryproto"
  }
  data_param {
    source: "examples/cifar10/cifar10_train_lmdb"
    batch_size: 111
    backend: LMDB
  }
}
layer {
  name: "conv0"
  type: "Convolution"
  bottom: "data"
  top: "conv0"
  param {
    lr_mult: 1
  }
  param {
    lr_mult: 2
  }
  convolution_param {
    num_output: 8
    pad: 2
    kernel_size: 3
    stride: 1
    weight_filler {
      type: "gaussian"
      std: 0.01
    }
    bias_filler {
      type: "constant"
    }
  }
}
layer {
  name: "Sigmoid0"
  type: "Sigmoid"
  bottom: "conv0"
  top: "Sigmoid0"
}
layer {
  name: "pool0"
  type: "Pooling"
  bottom: "Sigmoid0"
  top: "pool0"
  pooling_param {
    pool: AVE
    kernel_size: 3
    stride: 2
  }
}
layer {
  name: "ip1"
  type: "InnerProduct"
  bottom: "pool0"
  top: "ip1"
  param {
    lr_mult: 1
  }
  param {
    lr_mult: 2
  }
  inner_product_param {
    num_output: 40
    weight_filler {
      type: "gaussian"
      std: 0.01
    }
    bias_filler {
      type: "constant"
    }
  }
}
layer {
  name: "relu1"
  type: "ReLU"
  bottom: "ip1"
  top: "ip1"
}
layer {
  name: "ip2"
  type: "InnerProduct"
  bottom: "ip1"
  top: "ip2"
  param {
    lr_mult: 1
  }
  param {
    lr_mult: 2
  }
  inner_product_param {
    num_output: 20
    weight_filler {
      type: "gaussian"
      std: 0.01
    }
    bias_filler {
      type: "constant"
    }
  }
}
layer {
  name: "relu2"
  type: "ReLU"
  bottom: "ip2"
  top: "ip2"
}
layer {
  name: "ip3"
  type: "InnerProduct"
  bottom: "ip2"
  top: "ip3"
  param {
    lr_mult: 1
  }
  param {
    lr_mult: 2
  }
  inner_product_param {
    num_output: 10
    weight_filler {
      type: "gaussian"
      std: 0.01
    }
    bias_filler {
      type: "constant"
    }
  }
}
layer {
  name: "loss"
  type: "SoftmaxWithLoss"
  bottom: "ip3"
  bottom: "label"
  top: "loss"
}
I0430 21:44:21.373445 31544 layer_factory.hpp:77] Creating layer cifar
I0430 21:44:21.373546 31544 db_lmdb.cpp:35] Opened lmdb examples/cifar10/cifar10_train_lmdb
I0430 21:44:21.373575 31544 net.cpp:86] Creating Layer cifar
I0430 21:44:21.373586 31544 net.cpp:382] cifar -> data
I0430 21:44:21.373610 31544 net.cpp:382] cifar -> label
I0430 21:44:21.373623 31544 data_transformer.cpp:25] Loading mean file from: examples/cifar10/mean.binaryproto
I0430 21:44:21.375741 31544 data_layer.cpp:45] output data size: 111,3,32,32
I0430 21:44:21.383615 31544 net.cpp:124] Setting up cifar
I0430 21:44:21.383635 31544 net.cpp:131] Top shape: 111 3 32 32 (340992)
I0430 21:44:21.383641 31544 net.cpp:131] Top shape: 111 (111)
I0430 21:44:21.383644 31544 net.cpp:139] Memory required for data: 1364412
I0430 21:44:21.383652 31544 layer_factory.hpp:77] Creating layer conv0
I0430 21:44:21.383698 31544 net.cpp:86] Creating Layer conv0
I0430 21:44:21.383708 31544 net.cpp:408] conv0 <- data
I0430 21:44:21.383721 31544 net.cpp:382] conv0 -> conv0
I0430 21:44:21.671839 31544 net.cpp:124] Setting up conv0
I0430 21:44:21.671887 31544 net.cpp:131] Top shape: 111 8 34 34 (1026528)
I0430 21:44:21.671892 31544 net.cpp:139] Memory required for data: 5470524
I0430 21:44:21.671910 31544 layer_factory.hpp:77] Creating layer Sigmoid0
I0430 21:44:21.671921 31544 net.cpp:86] Creating Layer Sigmoid0
I0430 21:44:21.671926 31544 net.cpp:408] Sigmoid0 <- conv0
I0430 21:44:21.671931 31544 net.cpp:382] Sigmoid0 -> Sigmoid0
I0430 21:44:21.672125 31544 net.cpp:124] Setting up Sigmoid0
I0430 21:44:21.672135 31544 net.cpp:131] Top shape: 111 8 34 34 (1026528)
I0430 21:44:21.672139 31544 net.cpp:139] Memory required for data: 9576636
I0430 21:44:21.672143 31544 layer_factory.hpp:77] Creating layer pool0
I0430 21:44:21.672150 31544 net.cpp:86] Creating Layer pool0
I0430 21:44:21.672154 31544 net.cpp:408] pool0 <- Sigmoid0
I0430 21:44:21.672159 31544 net.cpp:382] pool0 -> pool0
I0430 21:44:21.672967 31544 net.cpp:124] Setting up pool0
I0430 21:44:21.672982 31544 net.cpp:131] Top shape: 111 8 17 17 (256632)
I0430 21:44:21.672986 31544 net.cpp:139] Memory required for data: 10603164
I0430 21:44:21.672991 31544 layer_factory.hpp:77] Creating layer ip1
I0430 21:44:21.673002 31544 net.cpp:86] Creating Layer ip1
I0430 21:44:21.673007 31544 net.cpp:408] ip1 <- pool0
I0430 21:44:21.673013 31544 net.cpp:382] ip1 -> ip1
I0430 21:44:21.675824 31544 net.cpp:124] Setting up ip1
I0430 21:44:21.675834 31544 net.cpp:131] Top shape: 111 40 (4440)
I0430 21:44:21.675837 31544 net.cpp:139] Memory required for data: 10620924
I0430 21:44:21.675846 31544 layer_factory.hpp:77] Creating layer relu1
I0430 21:44:21.675853 31544 net.cpp:86] Creating Layer relu1
I0430 21:44:21.675855 31544 net.cpp:408] relu1 <- ip1
I0430 21:44:21.675861 31544 net.cpp:369] relu1 -> ip1 (in-place)
I0430 21:44:21.676033 31544 net.cpp:124] Setting up relu1
I0430 21:44:21.676041 31544 net.cpp:131] Top shape: 111 40 (4440)
I0430 21:44:21.676045 31544 net.cpp:139] Memory required for data: 10638684
I0430 21:44:21.676048 31544 layer_factory.hpp:77] Creating layer ip2
I0430 21:44:21.676056 31544 net.cpp:86] Creating Layer ip2
I0430 21:44:21.676059 31544 net.cpp:408] ip2 <- ip1
I0430 21:44:21.676065 31544 net.cpp:382] ip2 -> ip2
I0430 21:44:21.677081 31544 net.cpp:124] Setting up ip2
I0430 21:44:21.677094 31544 net.cpp:131] Top shape: 111 20 (2220)
I0430 21:44:21.677098 31544 net.cpp:139] Memory required for data: 10647564
I0430 21:44:21.677108 31544 layer_factory.hpp:77] Creating layer relu2
I0430 21:44:21.677114 31544 net.cpp:86] Creating Layer relu2
I0430 21:44:21.677119 31544 net.cpp:408] relu2 <- ip2
I0430 21:44:21.677124 31544 net.cpp:369] relu2 -> ip2 (in-place)
I0430 21:44:21.677305 31544 net.cpp:124] Setting up relu2
I0430 21:44:21.677315 31544 net.cpp:131] Top shape: 111 20 (2220)
I0430 21:44:21.677319 31544 net.cpp:139] Memory required for data: 10656444
I0430 21:44:21.677322 31544 layer_factory.hpp:77] Creating layer ip3
I0430 21:44:21.677331 31544 net.cpp:86] Creating Layer ip3
I0430 21:44:21.677336 31544 net.cpp:408] ip3 <- ip2
I0430 21:44:21.677345 31544 net.cpp:382] ip3 -> ip3
I0430 21:44:21.677453 31544 net.cpp:124] Setting up ip3
I0430 21:44:21.677461 31544 net.cpp:131] Top shape: 111 10 (1110)
I0430 21:44:21.677464 31544 net.cpp:139] Memory required for data: 10660884
I0430 21:44:21.677471 31544 layer_factory.hpp:77] Creating layer loss
I0430 21:44:21.677477 31544 net.cpp:86] Creating Layer loss
I0430 21:44:21.677480 31544 net.cpp:408] loss <- ip3
I0430 21:44:21.677484 31544 net.cpp:408] loss <- label
I0430 21:44:21.677490 31544 net.cpp:382] loss -> loss
I0430 21:44:21.677508 31544 layer_factory.hpp:77] Creating layer loss
…
I0430 21:44:21.678159 31544 solver.cpp:173] Creating test net (#0) specified by net file: ECE595/cifar/train_test/var_everything/cifar_train_test_171.prototxt
I0430 21:44:21.678186 31544 net.cpp:296] The NetState phase (1) differed from the phase (0) specified by a rule in layer cifar
I0430 21:44:21.678293 31544 net.cpp:53] Initializing net from parameters: 
name: "CIFAR"
state {
  phase: TEST
}
layer {
  name: "cifar"
  type: "Data"
  top: "data"
  top: "label"
  include {
    phase: TEST
  }
  transform_param {
    mean_file: "examples/cifar10/mean.binaryproto"
  }
  data_param {
    source: "examples/cifar10/cifar10_test_lmdb"
    batch_size: 1000
    backend: LMDB
  }
}
layer {
  name: "conv0"
  type: "Convolution"
  bottom: "data"
  top: "conv0"
  param {
    lr_mult: 1
  }
  param {
    lr_mult: 2
  }
  convolution_param {
    num_output: 8
    pad: 2
    kernel_size: 3
    stride: 1
    weight_filler {
      type: "gaussian"
      std: 0.01
    }
    bias_filler {
      type: "constant"
    }
  }
}
layer {
  name: "Sigmoid0"
  type: "Sigmoid"
  bottom: "conv0"
  top: "Sigmoid0"
}
layer {
  name: "pool0"
  type: "Pooling"
  bottom: "Sigmoid0"
  top: "pool0"
  pooling_param {
    pool: AVE
    kernel_size: 3
    stride: 2
  }
}
layer {
  name: "ip1"
  type: "InnerProduct"
  bottom: "pool0"
  top: "ip1"
  param {
    lr_mult: 1
  }
  param {
    lr_mult: 2
  }
  inner_product_param {
    num_output: 40
    weight_filler {
      type: "gaussian"
      std: 0.01
    }
    bias_filler {
      type: "constant"
    }
  }
}
layer {
  name: "relu1"
  type: "ReLU"
  bottom: "ip1"
  top: "ip1"
}
layer {
  name: "ip2"
  type: "InnerProduct"
  bottom: "ip1"
  top: "ip2"
  param {
    lr_mult: 1
  }
  param {
    lr_mult: 2
  }
  inner_product_param {
    num_output: 20
    weight_filler {
      type: "gaussian"
      std: 0.01
    }
    bias_filler {
      type: "constant"
    }
  }
}
layer {
  name: "relu2"
  type: "ReLU"
  bottom: "ip2"
  top: "ip2"
}
layer {
  name: "ip3"
  type: "InnerProduct"
  bottom: "ip2"
  top: "ip3"
  param {
    lr_mult: 1
  }
  param {
    lr_mult: 2
  }
  inner_product_param {
    num_output: 10
    weight_filler {
      type: "gaussian"
      std: 0.01
    }
    bias_filler {
      type: "constant"
    }
  }
}
layer {
  name: "accuracy"
  type: "Accuracy"
  bottom: "ip3"
  bottom: "label"
  top: "accuracy"
  include {
    phase: TEST
  }
}
layer {
  name: "loss"
  type: "SoftmaxWithLoss"
  bottom: "ip3"
  bottom: "label"
  top: "loss"
}
I0430 21:44:21.678367 31544 layer_factory.hpp:77] Creating layer cifar
I0430 21:44:21.678413 31544 db_lmdb.cpp:35] Opened lmdb examples/cifar10/cifar10_test_lmdb
I0430 21:44:21.678428 31544 net.cpp:86] Creating Layer cifar
I0430 21:44:21.678436 31544 net.cpp:382] cifar -> data
I0430 21:44:21.678444 31544 net.cpp:382] cifar -> label
I0430 21:44:21.678453 31544 data_transformer.cpp:25] Loading mean file from: examples/cifar10/mean.binaryproto
I0430 21:44:21.678616 31544 data_layer.cpp:45] output data size: 1000,3,32,32
I0430 21:44:21.701236 31544 net.cpp:124] Setting up cifar
I0430 21:44:21.701263 31544 net.cpp:131] Top shape: 1000 3 32 32 (3072000)
I0430 21:44:21.701269 31544 net.cpp:131] Top shape: 1000 (1000)
I0430 21:44:21.701272 31544 net.cpp:139] Memory required for data: 12292000
I0430 21:44:21.701277 31544 layer_factory.hpp:77] Creating layer label_cifar_1_split
I0430 21:44:21.701293 31544 net.cpp:86] Creating Layer label_cifar_1_split
I0430 21:44:21.701309 31544 net.cpp:408] label_cifar_1_split <- label
I0430 21:44:21.701318 31544 net.cpp:382] label_cifar_1_split -> label_cifar_1_split_0
I0430 21:44:21.701330 31544 net.cpp:382] label_cifar_1_split -> label_cifar_1_split_1
I0430 21:44:21.701431 31544 net.cpp:124] Setting up label_cifar_1_split
I0430 21:44:21.701438 31544 net.cpp:131] Top shape: 1000 (1000)
I0430 21:44:21.701442 31544 net.cpp:131] Top shape: 1000 (1000)
I0430 21:44:21.701445 31544 net.cpp:139] Memory required for data: 12300000
I0430 21:44:21.701449 31544 layer_factory.hpp:77] Creating layer conv0
I0430 21:44:21.701462 31544 net.cpp:86] Creating Layer conv0
I0430 21:44:21.701467 31544 net.cpp:408] conv0 <- data
I0430 21:44:21.701491 31544 net.cpp:382] conv0 -> conv0
I0430 21:44:21.703104 31544 net.cpp:124] Setting up conv0
I0430 21:44:21.703117 31544 net.cpp:131] Top shape: 1000 8 34 34 (9248000)
I0430 21:44:21.703121 31544 net.cpp:139] Memory required for data: 49292000
I0430 21:44:21.703131 31544 layer_factory.hpp:77] Creating layer Sigmoid0
I0430 21:44:21.703137 31544 net.cpp:86] Creating Layer Sigmoid0
I0430 21:44:21.703141 31544 net.cpp:408] Sigmoid0 <- conv0
I0430 21:44:21.703146 31544 net.cpp:382] Sigmoid0 -> Sigmoid0
I0430 21:44:21.704949 31544 net.cpp:124] Setting up Sigmoid0
I0430 21:44:21.704964 31544 net.cpp:131] Top shape: 1000 8 34 34 (9248000)
I0430 21:44:21.704967 31544 net.cpp:139] Memory required for data: 86284000
I0430 21:44:21.704972 31544 layer_factory.hpp:77] Creating layer pool0
I0430 21:44:21.704982 31544 net.cpp:86] Creating Layer pool0
I0430 21:44:21.704985 31544 net.cpp:408] pool0 <- Sigmoid0
I0430 21:44:21.704990 31544 net.cpp:382] pool0 -> pool0
I0430 21:44:21.705178 31544 net.cpp:124] Setting up pool0
I0430 21:44:21.705188 31544 net.cpp:131] Top shape: 1000 8 17 17 (2312000)
I0430 21:44:21.705190 31544 net.cpp:139] Memory required for data: 95532000
I0430 21:44:21.705194 31544 layer_factory.hpp:77] Creating layer ip1
I0430 21:44:21.705201 31544 net.cpp:86] Creating Layer ip1
I0430 21:44:21.705204 31544 net.cpp:408] ip1 <- pool0
I0430 21:44:21.705210 31544 net.cpp:382] ip1 -> ip1
I0430 21:44:21.707813 31544 net.cpp:124] Setting up ip1
I0430 21:44:21.707820 31544 net.cpp:131] Top shape: 1000 40 (40000)
I0430 21:44:21.707839 31544 net.cpp:139] Memory required for data: 95692000
I0430 21:44:21.707862 31544 layer_factory.hpp:77] Creating layer relu1
I0430 21:44:21.707870 31544 net.cpp:86] Creating Layer relu1
I0430 21:44:21.707872 31544 net.cpp:408] relu1 <- ip1
I0430 21:44:21.707877 31544 net.cpp:369] relu1 -> ip1 (in-place)
I0430 21:44:21.708036 31544 net.cpp:124] Setting up relu1
I0430 21:44:21.708045 31544 net.cpp:131] Top shape: 1000 40 (40000)
I0430 21:44:21.708048 31544 net.cpp:139] Memory required for data: 95852000
I0430 21:44:21.708052 31544 layer_factory.hpp:77] Creating layer ip2
I0430 21:44:21.708062 31544 net.cpp:86] Creating Layer ip2
I0430 21:44:21.708065 31544 net.cpp:408] ip2 <- ip1
I0430 21:44:21.708071 31544 net.cpp:382] ip2 -> ip2
I0430 21:44:21.708197 31544 net.cpp:124] Setting up ip2
I0430 21:44:21.708204 31544 net.cpp:131] Top shape: 1000 20 (20000)
I0430 21:44:21.708207 31544 net.cpp:139] Memory required for data: 95932000
I0430 21:44:21.708214 31544 layer_factory.hpp:77] Creating layer relu2
I0430 21:44:21.708221 31544 net.cpp:86] Creating Layer relu2
I0430 21:44:21.708225 31544 net.cpp:408] relu2 <- ip2
I0430 21:44:21.708228 31544 net.cpp:369] relu2 -> ip2 (in-place)
I0430 21:44:21.708386 31544 net.cpp:124] Setting up relu2
I0430 21:44:21.708395 31544 net.cpp:131] Top shape: 1000 20 (20000)
I0430 21:44:21.708398 31544 net.cpp:139] Memory required for data: 96012000
I0430 21:44:21.708401 31544 layer_factory.hpp:77] Creating layer ip3
I0430 21:44:21.708407 31544 net.cpp:86] Creating Layer ip3
I0430 21:44:21.708411 31544 net.cpp:408] ip3 <- ip2
I0430 21:44:21.708417 31544 net.cpp:382] ip3 -> ip3
I0430 21:44:21.708528 31544 net.cpp:124] Setting up ip3
I0430 21:44:21.708534 31544 net.cpp:131] Top shape: 1000 10 (10000)
I0430 21:44:21.708537 31544 net.cpp:139] Memory required for data: 96052000
I0430 21:44:21.708554 31544 layer_factory.hpp:77] Creating layer ip3_ip3_0_split
I0430 21:44:21.708559 31544 net.cpp:86] Creating Layer ip3_ip3_0_split
I0430 21:44:21.708561 31544 net.cpp:408] ip3_ip3_0_split <- ip3
I0430 21:44:21.708567 31544 net.cpp:382] ip3_ip3_0_split -> ip3_ip3_0_split_0
I0430 21:44:21.708572 31544 net.cpp:382] ip3_ip3_0_split -> ip3_ip3_0_split_1
I0430 21:44:21.708606 31544 net.cpp:124] Setting up ip3_ip3_0_split
I0430 21:44:21.708611 31544 net.cpp:131] Top shape: 1000 10 (10000)
I0430 21:44:21.708616 31544 net.cpp:131] Top shape: 1000 10 (10000)
I0430 21:44:21.708617 31544 net.cpp:139] Memory required for data: 96132000
I0430 21:44:21.708621 31544 layer_factory.hpp:77] Creating layer accuracy
I0430 21:44:21.708627 31544 net.cpp:86] Creating Layer accuracy
I0430 21:44:21.708631 31544 net.cpp:408] accuracy <- ip3_ip3_0_split_0
I0430 21:44:21.708633 31544 net.cpp:408] accuracy <- label_cifar_1_split_0
I0430 21:44:21.708637 31544 net.cpp:382] accuracy -> accuracy
…
