…
I0501 06:08:50.659886 31804 net.cpp:296] The NetState phase (0) differed from the phase (1) specified by a rule in layer cifar
I0501 06:08:50.659905 31804 net.cpp:296] The NetState phase (0) differed from the phase (1) specified by a rule in layer accuracy
I0501 06:08:50.660007 31804 net.cpp:53] Initializing net from parameters: 
name: "CIFAR"
state {
  phase: TRAIN
  level: 0
  stage: ""
}
layer {
  name: "cifar"
  type: "Data"
  top: "data"
  top: "label"
  include {
    phase: TRAIN
  }
  transform_param {
    mean_file: "examples/cifar10/mean.binaryproto"
  }
  data_param {
    source: "examples/cifar10/cifar10_train_lmdb"
    batch_size: 111
    backend: LMDB
  }
}
layer {
  name: "conv0"
  type: "Convolution"
  bottom: "data"
  top: "conv0"
  param {
    lr_mult: 1
  }
  param {
    lr_mult: 2
  }
  convolution_param {
    num_output: 8
    pad: 2
    kernel_size: 5
    stride: 1
    weight_filler {
      type: "gaussian"
      std: 0.01
    }
    bias_filler {
      type: "constant"
    }
  }
}
layer {
  name: "Sigmoid0"
  type: "Sigmoid"
  bottom: "conv0"
  top: "Sigmoid0"
}
layer {
  name: "pool0"
  type: "Pooling"
  bottom: "Sigmoid0"
  top: "pool0"
  pooling_param {
    pool: AVE
    kernel_size: 3
    stride: 2
  }
}
layer {
  name: "ip1"
  type: "InnerProduct"
  bottom: "pool0"
  top: "ip1"
  param {
    lr_mult: 1
  }
  param {
    lr_mult: 2
  }
  inner_product_param {
    num_output: 160
    weight_filler {
      type: "gaussian"
      std: 0.01
    }
    bias_filler {
      type: "constant"
    }
  }
}
layer {
  name: "relu1"
  type: "ReLU"
  bottom: "ip1"
  top: "ip1"
}
layer {
  name: "ip2"
  type: "InnerProduct"
  bottom: "ip1"
  top: "ip2"
  param {
    lr_mult: 1
  }
  param {
    lr_mult: 2
  }
  inner_product_param {
    num_output: 10
    weight_filler {
      type: "gaussian"
      std: 0.01
    }
    bias_filler {
      type: "constant"
    }
  }
}
layer {
  name: "relu2"
  type: "ReLU"
  bottom: "ip2"
  top: "ip2"
}
layer {
  name: "ip3"
  type: "InnerProduct"
  bottom: "ip2"
  top: "ip3"
  param {
    lr_mult: 1
  }
  param {
    lr_mult: 2
  }
  inner_product_param {
    num_output: 20
    weight_filler {
      type: "gaussian"
      std: 0.01
    }
    bias_filler {
      type: "constant"
    }
  }
}
layer {
  name: "relu3"
  type: "ReLU"
  bottom: "ip3"
  top: "ip3"
}
layer {
  name: "ip4"
  type: "InnerProduct"
  bottom: "ip3"
  top: "ip4"
  param {
    lr_mult: 1
  }
  param {
    lr_mult: 2
  }
  inner_product_param {
    num_output: 10
    weight_filler {
      type: "gaussian"
      std: 0.01
    }
    bias_filler {
      type: "constant"
    }
  }
}
layer {
  name: "loss"
  type: "SoftmaxWithLoss"
  bottom: "ip4"
  bottom: "label"
  top: "loss"
}
I0501 06:08:50.660082 31804 layer_factory.hpp:77] Creating layer cifar
I0501 06:08:50.660179 31804 db_lmdb.cpp:35] Opened lmdb examples/cifar10/cifar10_train_lmdb
I0501 06:08:50.660207 31804 net.cpp:86] Creating Layer cifar
I0501 06:08:50.660214 31804 net.cpp:382] cifar -> data
I0501 06:08:50.660236 31804 net.cpp:382] cifar -> label
I0501 06:08:50.660248 31804 data_transformer.cpp:25] Loading mean file from: examples/cifar10/mean.binaryproto
I0501 06:08:50.662405 31804 data_layer.cpp:45] output data size: 111,3,32,32
I0501 06:08:50.670348 31804 net.cpp:124] Setting up cifar
I0501 06:08:50.670367 31804 net.cpp:131] Top shape: 111 3 32 32 (340992)
I0501 06:08:50.670372 31804 net.cpp:131] Top shape: 111 (111)
I0501 06:08:50.670377 31804 net.cpp:139] Memory required for data: 1364412
I0501 06:08:50.670403 31804 layer_factory.hpp:77] Creating layer conv0
I0501 06:08:50.670423 31804 net.cpp:86] Creating Layer conv0
I0501 06:08:50.670428 31804 net.cpp:408] conv0 <- data
I0501 06:08:50.670439 31804 net.cpp:382] conv0 -> conv0
I0501 06:08:50.959702 31804 net.cpp:124] Setting up conv0
I0501 06:08:50.959730 31804 net.cpp:131] Top shape: 111 8 32 32 (909312)
I0501 06:08:50.959735 31804 net.cpp:139] Memory required for data: 5001660
I0501 06:08:50.959751 31804 layer_factory.hpp:77] Creating layer Sigmoid0
I0501 06:08:50.959764 31804 net.cpp:86] Creating Layer Sigmoid0
I0501 06:08:50.959767 31804 net.cpp:408] Sigmoid0 <- conv0
I0501 06:08:50.959772 31804 net.cpp:382] Sigmoid0 -> Sigmoid0
I0501 06:08:50.959965 31804 net.cpp:124] Setting up Sigmoid0
I0501 06:08:50.959975 31804 net.cpp:131] Top shape: 111 8 32 32 (909312)
I0501 06:08:50.959980 31804 net.cpp:139] Memory required for data: 8638908
I0501 06:08:50.959982 31804 layer_factory.hpp:77] Creating layer pool0
I0501 06:08:50.959990 31804 net.cpp:86] Creating Layer pool0
I0501 06:08:50.959993 31804 net.cpp:408] pool0 <- Sigmoid0
I0501 06:08:50.959998 31804 net.cpp:382] pool0 -> pool0
I0501 06:08:50.960786 31804 net.cpp:124] Setting up pool0
I0501 06:08:50.960800 31804 net.cpp:131] Top shape: 111 8 16 16 (227328)
I0501 06:08:50.960803 31804 net.cpp:139] Memory required for data: 9548220
I0501 06:08:50.960806 31804 layer_factory.hpp:77] Creating layer ip1
I0501 06:08:50.960824 31804 net.cpp:86] Creating Layer ip1
I0501 06:08:50.960827 31804 net.cpp:408] ip1 <- pool0
I0501 06:08:50.960832 31804 net.cpp:382] ip1 -> ip1
I0501 06:08:50.970664 31804 net.cpp:124] Setting up ip1
I0501 06:08:50.970677 31804 net.cpp:131] Top shape: 111 160 (17760)
I0501 06:08:50.970680 31804 net.cpp:139] Memory required for data: 9619260
I0501 06:08:50.970688 31804 layer_factory.hpp:77] Creating layer relu1
I0501 06:08:50.970695 31804 net.cpp:86] Creating Layer relu1
I0501 06:08:50.970698 31804 net.cpp:408] relu1 <- ip1
I0501 06:08:50.970705 31804 net.cpp:369] relu1 -> ip1 (in-place)
I0501 06:08:50.970868 31804 net.cpp:124] Setting up relu1
I0501 06:08:50.970878 31804 net.cpp:131] Top shape: 111 160 (17760)
I0501 06:08:50.970881 31804 net.cpp:139] Memory required for data: 9690300
I0501 06:08:50.970885 31804 layer_factory.hpp:77] Creating layer ip2
I0501 06:08:50.970891 31804 net.cpp:86] Creating Layer ip2
I0501 06:08:50.970894 31804 net.cpp:408] ip2 <- ip1
I0501 06:08:50.970899 31804 net.cpp:382] ip2 -> ip2
I0501 06:08:50.971037 31804 net.cpp:124] Setting up ip2
I0501 06:08:50.971045 31804 net.cpp:131] Top shape: 111 10 (1110)
I0501 06:08:50.971047 31804 net.cpp:139] Memory required for data: 9694740
I0501 06:08:50.971055 31804 layer_factory.hpp:77] Creating layer relu2
I0501 06:08:50.971060 31804 net.cpp:86] Creating Layer relu2
I0501 06:08:50.971062 31804 net.cpp:408] relu2 <- ip2
I0501 06:08:50.971068 31804 net.cpp:369] relu2 -> ip2 (in-place)
I0501 06:08:50.971230 31804 net.cpp:124] Setting up relu2
I0501 06:08:50.971240 31804 net.cpp:131] Top shape: 111 10 (1110)
I0501 06:08:50.971242 31804 net.cpp:139] Memory required for data: 9699180
I0501 06:08:50.971246 31804 layer_factory.hpp:77] Creating layer ip3
I0501 06:08:50.971254 31804 net.cpp:86] Creating Layer ip3
I0501 06:08:50.971257 31804 net.cpp:408] ip3 <- ip2
I0501 06:08:50.971262 31804 net.cpp:382] ip3 -> ip3
I0501 06:08:50.971364 31804 net.cpp:124] Setting up ip3
I0501 06:08:50.971370 31804 net.cpp:131] Top shape: 111 20 (2220)
I0501 06:08:50.971374 31804 net.cpp:139] Memory required for data: 9708060
I0501 06:08:50.971379 31804 layer_factory.hpp:77] Creating layer relu3
I0501 06:08:50.971384 31804 net.cpp:86] Creating Layer relu3
I0501 06:08:50.971385 31804 net.cpp:408] relu3 <- ip3
I0501 06:08:50.971390 31804 net.cpp:369] relu3 -> ip3 (in-place)
I0501 06:08:50.971546 31804 net.cpp:124] Setting up relu3
I0501 06:08:50.971554 31804 net.cpp:131] Top shape: 111 20 (2220)
I0501 06:08:50.971557 31804 net.cpp:139] Memory required for data: 9716940
I0501 06:08:50.971560 31804 layer_factory.hpp:77] Creating layer ip4
I0501 06:08:50.971582 31804 net.cpp:86] Creating Layer ip4
I0501 06:08:50.971585 31804 net.cpp:408] ip4 <- ip3
I0501 06:08:50.971590 31804 net.cpp:382] ip4 -> ip4
I0501 06:08:50.971693 31804 net.cpp:124] Setting up ip4
I0501 06:08:50.971700 31804 net.cpp:131] Top shape: 111 10 (1110)
I0501 06:08:50.971704 31804 net.cpp:139] Memory required for data: 9721380
I0501 06:08:50.971711 31804 layer_factory.hpp:77] Creating layer loss
I0501 06:08:50.971716 31804 net.cpp:86] Creating Layer loss
I0501 06:08:50.971719 31804 net.cpp:408] loss <- ip4
I0501 06:08:50.971724 31804 net.cpp:408] loss <- label
I0501 06:08:50.971729 31804 net.cpp:382] loss -> loss
I0501 06:08:50.971745 31804 layer_factory.hpp:77] Creating layer loss
…
I0501 06:08:50.972985 31804 solver.cpp:173] Creating test net (#0) specified by net file: ECE595/cifar/train_test/var_everything/cifar_train_test_441.prototxt
I0501 06:08:50.973014 31804 net.cpp:296] The NetState phase (1) differed from the phase (0) specified by a rule in layer cifar
I0501 06:08:50.973114 31804 net.cpp:53] Initializing net from parameters: 
name: "CIFAR"
state {
  phase: TEST
}
layer {
  name: "cifar"
  type: "Data"
  top: "data"
  top: "label"
  include {
    phase: TEST
  }
  transform_param {
    mean_file: "examples/cifar10/mean.binaryproto"
  }
  data_param {
    source: "examples/cifar10/cifar10_test_lmdb"
    batch_size: 1000
    backend: LMDB
  }
}
layer {
  name: "conv0"
  type: "Convolution"
  bottom: "data"
  top: "conv0"
  param {
    lr_mult: 1
  }
  param {
    lr_mult: 2
  }
  convolution_param {
    num_output: 8
    pad: 2
    kernel_size: 5
    stride: 1
    weight_filler {
      type: "gaussian"
      std: 0.01
    }
    bias_filler {
      type: "constant"
    }
  }
}
layer {
  name: "Sigmoid0"
  type: "Sigmoid"
  bottom: "conv0"
  top: "Sigmoid0"
}
layer {
  name: "pool0"
  type: "Pooling"
  bottom: "Sigmoid0"
  top: "pool0"
  pooling_param {
    pool: AVE
    kernel_size: 3
    stride: 2
  }
}
layer {
  name: "ip1"
  type: "InnerProduct"
  bottom: "pool0"
  top: "ip1"
  param {
    lr_mult: 1
  }
  param {
    lr_mult: 2
  }
  inner_product_param {
    num_output: 160
    weight_filler {
      type: "gaussian"
      std: 0.01
    }
    bias_filler {
      type: "constant"
    }
  }
}
layer {
  name: "relu1"
  type: "ReLU"
  bottom: "ip1"
  top: "ip1"
}
layer {
  name: "ip2"
  type: "InnerProduct"
  bottom: "ip1"
  top: "ip2"
  param {
    lr_mult: 1
  }
  param {
    lr_mult: 2
  }
  inner_product_param {
    num_output: 10
    weight_filler {
      type: "gaussian"
      std: 0.01
    }
    bias_filler {
      type: "constant"
    }
  }
}
layer {
  name: "relu2"
  type: "ReLU"
  bottom: "ip2"
  top: "ip2"
}
layer {
  name: "ip3"
  type: "InnerProduct"
  bottom: "ip2"
  top: "ip3"
  param {
    lr_mult: 1
  }
  param {
    lr_mult: 2
  }
  inner_product_param {
    num_output: 20
    weight_filler {
      type: "gaussian"
      std: 0.01
    }
    bias_filler {
      type: "constant"
    }
  }
}
layer {
  name: "relu3"
  type: "ReLU"
  bottom: "ip3"
  top: "ip3"
}
layer {
  name: "ip4"
  type: "InnerProduct"
  bottom: "ip3"
  top: "ip4"
  param {
    lr_mult: 1
  }
  param {
    lr_mult: 2
  }
  inner_product_param {
    num_output: 10
    weight_filler {
      type: "gaussian"
      std: 0.01
    }
    bias_filler {
      type: "constant"
    }
  }
}
layer {
  name: "accuracy"
  type: "Accuracy"
  bottom: "ip4"
  bottom: "label"
  top: "accuracy"
  include {
    phase: TEST
  }
}
layer {
  name: "loss"
  type: "SoftmaxWithLoss"
  bottom: "ip4"
  bottom: "label"
  top: "loss"
}
I0501 06:08:50.973217 31804 layer_factory.hpp:77] Creating layer cifar
I0501 06:08:50.973263 31804 db_lmdb.cpp:35] Opened lmdb examples/cifar10/cifar10_test_lmdb
I0501 06:08:50.973275 31804 net.cpp:86] Creating Layer cifar
I0501 06:08:50.973281 31804 net.cpp:382] cifar -> data
I0501 06:08:50.973289 31804 net.cpp:382] cifar -> label
I0501 06:08:50.973295 31804 data_transformer.cpp:25] Loading mean file from: examples/cifar10/mean.binaryproto
I0501 06:08:50.973443 31804 data_layer.cpp:45] output data size: 1000,3,32,32
I0501 06:08:50.995581 31804 net.cpp:124] Setting up cifar
I0501 06:08:50.995605 31804 net.cpp:131] Top shape: 1000 3 32 32 (3072000)
I0501 06:08:50.995611 31804 net.cpp:131] Top shape: 1000 (1000)
I0501 06:08:50.995613 31804 net.cpp:139] Memory required for data: 12292000
I0501 06:08:50.995620 31804 layer_factory.hpp:77] Creating layer label_cifar_1_split
I0501 06:08:50.995664 31804 net.cpp:86] Creating Layer label_cifar_1_split
I0501 06:08:50.995669 31804 net.cpp:408] label_cifar_1_split <- label
I0501 06:08:50.995676 31804 net.cpp:382] label_cifar_1_split -> label_cifar_1_split_0
I0501 06:08:50.995699 31804 net.cpp:382] label_cifar_1_split -> label_cifar_1_split_1
I0501 06:08:50.995828 31804 net.cpp:124] Setting up label_cifar_1_split
I0501 06:08:50.995836 31804 net.cpp:131] Top shape: 1000 (1000)
I0501 06:08:50.995841 31804 net.cpp:131] Top shape: 1000 (1000)
I0501 06:08:50.995843 31804 net.cpp:139] Memory required for data: 12300000
I0501 06:08:50.995846 31804 layer_factory.hpp:77] Creating layer conv0
I0501 06:08:50.995859 31804 net.cpp:86] Creating Layer conv0
I0501 06:08:50.995863 31804 net.cpp:408] conv0 <- data
I0501 06:08:50.995869 31804 net.cpp:382] conv0 -> conv0
I0501 06:08:50.997500 31804 net.cpp:124] Setting up conv0
I0501 06:08:50.997515 31804 net.cpp:131] Top shape: 1000 8 32 32 (8192000)
I0501 06:08:50.997519 31804 net.cpp:139] Memory required for data: 45068000
I0501 06:08:50.997529 31804 layer_factory.hpp:77] Creating layer Sigmoid0
I0501 06:08:50.997535 31804 net.cpp:86] Creating Layer Sigmoid0
I0501 06:08:50.997539 31804 net.cpp:408] Sigmoid0 <- conv0
I0501 06:08:50.997542 31804 net.cpp:382] Sigmoid0 -> Sigmoid0
I0501 06:08:50.997741 31804 net.cpp:124] Setting up Sigmoid0
I0501 06:08:50.997751 31804 net.cpp:131] Top shape: 1000 8 32 32 (8192000)
I0501 06:08:50.997755 31804 net.cpp:139] Memory required for data: 77836000
I0501 06:08:50.997757 31804 layer_factory.hpp:77] Creating layer pool0
I0501 06:08:50.997766 31804 net.cpp:86] Creating Layer pool0
I0501 06:08:50.997769 31804 net.cpp:408] pool0 <- Sigmoid0
I0501 06:08:50.997773 31804 net.cpp:382] pool0 -> pool0
I0501 06:08:50.998134 31804 net.cpp:124] Setting up pool0
I0501 06:08:50.998159 31804 net.cpp:131] Top shape: 1000 8 16 16 (2048000)
I0501 06:08:50.998162 31804 net.cpp:139] Memory required for data: 86028000
I0501 06:08:50.998165 31804 layer_factory.hpp:77] Creating layer ip1
I0501 06:08:50.998174 31804 net.cpp:86] Creating Layer ip1
I0501 06:08:50.998178 31804 net.cpp:408] ip1 <- pool0
I0501 06:08:50.998183 31804 net.cpp:382] ip1 -> ip1
I0501 06:08:51.008507 31804 net.cpp:124] Setting up ip1
I0501 06:08:51.008519 31804 net.cpp:131] Top shape: 1000 160 (160000)
I0501 06:08:51.008523 31804 net.cpp:139] Memory required for data: 86668000
I0501 06:08:51.008546 31804 layer_factory.hpp:77] Creating layer relu1
I0501 06:08:51.008554 31804 net.cpp:86] Creating Layer relu1
I0501 06:08:51.008558 31804 net.cpp:408] relu1 <- ip1
I0501 06:08:51.008563 31804 net.cpp:369] relu1 -> ip1 (in-place)
I0501 06:08:51.008780 31804 net.cpp:124] Setting up relu1
I0501 06:08:51.008790 31804 net.cpp:131] Top shape: 1000 160 (160000)
I0501 06:08:51.008795 31804 net.cpp:139] Memory required for data: 87308000
I0501 06:08:51.008798 31804 layer_factory.hpp:77] Creating layer ip2
I0501 06:08:51.008806 31804 net.cpp:86] Creating Layer ip2
I0501 06:08:51.008815 31804 net.cpp:408] ip2 <- ip1
I0501 06:08:51.008821 31804 net.cpp:382] ip2 -> ip2
I0501 06:08:51.008999 31804 net.cpp:124] Setting up ip2
I0501 06:08:51.009008 31804 net.cpp:131] Top shape: 1000 10 (10000)
I0501 06:08:51.009011 31804 net.cpp:139] Memory required for data: 87348000
I0501 06:08:51.009018 31804 layer_factory.hpp:77] Creating layer relu2
I0501 06:08:51.009026 31804 net.cpp:86] Creating Layer relu2
I0501 06:08:51.009028 31804 net.cpp:408] relu2 <- ip2
I0501 06:08:51.009033 31804 net.cpp:369] relu2 -> ip2 (in-place)
I0501 06:08:51.009785 31804 net.cpp:124] Setting up relu2
I0501 06:08:51.009798 31804 net.cpp:131] Top shape: 1000 10 (10000)
I0501 06:08:51.009816 31804 net.cpp:139] Memory required for data: 87388000
I0501 06:08:51.009819 31804 layer_factory.hpp:77] Creating layer ip3
I0501 06:08:51.009829 31804 net.cpp:86] Creating Layer ip3
I0501 06:08:51.009832 31804 net.cpp:408] ip3 <- ip2
I0501 06:08:51.009838 31804 net.cpp:382] ip3 -> ip3
I0501 06:08:51.009977 31804 net.cpp:124] Setting up ip3
I0501 06:08:51.009985 31804 net.cpp:131] Top shape: 1000 20 (20000)
I0501 06:08:51.009989 31804 net.cpp:139] Memory required for data: 87468000
I0501 06:08:51.009994 31804 layer_factory.hpp:77] Creating layer relu3
I0501 06:08:51.009999 31804 net.cpp:86] Creating Layer relu3
I0501 06:08:51.010018 31804 net.cpp:408] relu3 <- ip3
I0501 06:08:51.010022 31804 net.cpp:369] relu3 -> ip3 (in-place)
I0501 06:08:51.010180 31804 net.cpp:124] Setting up relu3
I0501 06:08:51.010191 31804 net.cpp:131] Top shape: 1000 20 (20000)
I0501 06:08:51.010195 31804 net.cpp:139] Memory required for data: 87548000
I0501 06:08:51.010197 31804 layer_factory.hpp:77] Creating layer ip4
I0501 06:08:51.010203 31804 net.cpp:86] Creating Layer ip4
I0501 06:08:51.010206 31804 net.cpp:408] ip4 <- ip3
I0501 06:08:51.010218 31804 net.cpp:382] ip4 -> ip4
I0501 06:08:51.010329 31804 net.cpp:124] Setting up ip4
I0501 06:08:51.010336 31804 net.cpp:131] Top shape: 1000 10 (10000)
I0501 06:08:51.010339 31804 net.cpp:139] Memory required for data: 87588000
I0501 06:08:51.010349 31804 layer_factory.hpp:77] Creating layer ip4_ip4_0_split
I0501 06:08:51.010354 31804 net.cpp:86] Creating Layer ip4_ip4_0_split
I0501 06:08:51.010356 31804 net.cpp:408] ip4_ip4_0_split <- ip4
I0501 06:08:51.010361 31804 net.cpp:382] ip4_ip4_0_split -> ip4_ip4_0_split_0
I0501 06:08:51.010366 31804 net.cpp:382] ip4_ip4_0_split -> ip4_ip4_0_split_1
I0501 06:08:51.010398 31804 net.cpp:124] Setting up ip4_ip4_0_split
I0501 06:08:51.010408 31804 net.cpp:131] Top shape: 1000 10 (10000)
I0501 06:08:51.010412 31804 net.cpp:131] Top shape: 1000 10 (10000)
I0501 06:08:51.010416 31804 net.cpp:139] Memory required for data: 87668000
I0501 06:08:51.010417 31804 layer_factory.hpp:77] Creating layer accuracy
I0501 06:08:51.010426 31804 net.cpp:86] Creating Layer accuracy
I0501 06:08:51.010428 31804 net.cpp:408] accuracy <- ip4_ip4_0_split_0
I0501 06:08:51.010432 31804 net.cpp:408] accuracy <- label_cifar_1_split_0
I0501 06:08:51.010437 31804 net.cpp:382] accuracy -> accuracy
…
