…
I0501 00:01:23.998883  6160 net.cpp:296] The NetState phase (0) differed from the phase (1) specified by a rule in layer cifar
I0501 00:01:23.998905  6160 net.cpp:296] The NetState phase (0) differed from the phase (1) specified by a rule in layer accuracy
I0501 00:01:23.999012  6160 net.cpp:53] Initializing net from parameters: 
name: "CIFAR"
state {
  phase: TRAIN
  level: 0
  stage: ""
}
layer {
  name: "cifar"
  type: "Data"
  top: "data"
  top: "label"
  include {
    phase: TRAIN
  }
  transform_param {
    mean_file: "examples/cifar10/mean.binaryproto"
  }
  data_param {
    source: "examples/cifar10/cifar10_train_lmdb"
    batch_size: 111
    backend: LMDB
  }
}
layer {
  name: "conv0"
  type: "Convolution"
  bottom: "data"
  top: "conv0"
  param {
    lr_mult: 1
  }
  param {
    lr_mult: 2
  }
  convolution_param {
    num_output: 8
    pad: 2
    kernel_size: 3
    stride: 1
    weight_filler {
      type: "gaussian"
      std: 0.01
    }
    bias_filler {
      type: "constant"
    }
  }
}
layer {
  name: "Sigmoid0"
  type: "Sigmoid"
  bottom: "conv0"
  top: "Sigmoid0"
}
layer {
  name: "pool0"
  type: "Pooling"
  bottom: "Sigmoid0"
  top: "pool0"
  pooling_param {
    pool: AVE
    kernel_size: 3
    stride: 2
  }
}
layer {
  name: "ip1"
  type: "InnerProduct"
  bottom: "pool0"
  top: "ip1"
  param {
    lr_mult: 1
  }
  param {
    lr_mult: 2
  }
  inner_product_param {
    num_output: 40
    weight_filler {
      type: "gaussian"
      std: 0.01
    }
    bias_filler {
      type: "constant"
    }
  }
}
layer {
  name: "relu1"
  type: "ReLU"
  bottom: "ip1"
  top: "ip1"
}
layer {
  name: "ip2"
  type: "InnerProduct"
  bottom: "ip1"
  top: "ip2"
  param {
    lr_mult: 1
  }
  param {
    lr_mult: 2
  }
  inner_product_param {
    num_output: 20
    weight_filler {
      type: "gaussian"
      std: 0.01
    }
    bias_filler {
      type: "constant"
    }
  }
}
layer {
  name: "relu2"
  type: "ReLU"
  bottom: "ip2"
  top: "ip2"
}
layer {
  name: "ip3"
  type: "InnerProduct"
  bottom: "ip2"
  top: "ip3"
  param {
    lr_mult: 1
  }
  param {
    lr_mult: 2
  }
  inner_product_param {
    num_output: 160
    weight_filler {
      type: "gaussian"
      std: 0.01
    }
    bias_filler {
      type: "constant"
    }
  }
}
layer {
  name: "relu3"
  type: "ReLU"
  bottom: "ip3"
  top: "ip3"
}
layer {
  name: "ip4"
  type: "InnerProduct"
  bottom: "ip3"
  top: "ip4"
  param {
    lr_mult: 1
  }
  param {
    lr_mult: 2
  }
  inner_product_param {
    num_output: 10
    weight_filler {
      type: "gaussian"
      std: 0.01
    }
    bias_filler {
      type: "constant"
    }
  }
}
layer {
  name: "loss"
  type: "SoftmaxWithLoss"
  bottom: "ip4"
  bottom: "label"
  top: "loss"
}
I0501 00:01:23.999091  6160 layer_factory.hpp:77] Creating layer cifar
I0501 00:01:23.999191  6160 db_lmdb.cpp:35] Opened lmdb examples/cifar10/cifar10_train_lmdb
I0501 00:01:23.999219  6160 net.cpp:86] Creating Layer cifar
I0501 00:01:23.999230  6160 net.cpp:382] cifar -> data
I0501 00:01:23.999254  6160 net.cpp:382] cifar -> label
I0501 00:01:23.999267  6160 data_transformer.cpp:25] Loading mean file from: examples/cifar10/mean.binaryproto
I0501 00:01:24.001395  6160 data_layer.cpp:45] output data size: 111,3,32,32
I0501 00:01:24.009232  6160 net.cpp:124] Setting up cifar
I0501 00:01:24.009251  6160 net.cpp:131] Top shape: 111 3 32 32 (340992)
I0501 00:01:24.009258  6160 net.cpp:131] Top shape: 111 (111)
I0501 00:01:24.009261  6160 net.cpp:139] Memory required for data: 1364412
I0501 00:01:24.009289  6160 layer_factory.hpp:77] Creating layer conv0
I0501 00:01:24.009310  6160 net.cpp:86] Creating Layer conv0
I0501 00:01:24.009315  6160 net.cpp:408] conv0 <- data
I0501 00:01:24.009328  6160 net.cpp:382] conv0 -> conv0
I0501 00:01:24.288853  6160 net.cpp:124] Setting up conv0
I0501 00:01:24.288878  6160 net.cpp:131] Top shape: 111 8 34 34 (1026528)
I0501 00:01:24.288883  6160 net.cpp:139] Memory required for data: 5470524
I0501 00:01:24.288913  6160 layer_factory.hpp:77] Creating layer Sigmoid0
I0501 00:01:24.288925  6160 net.cpp:86] Creating Layer Sigmoid0
I0501 00:01:24.288929  6160 net.cpp:408] Sigmoid0 <- conv0
I0501 00:01:24.288934  6160 net.cpp:382] Sigmoid0 -> Sigmoid0
I0501 00:01:24.289111  6160 net.cpp:124] Setting up Sigmoid0
I0501 00:01:24.289121  6160 net.cpp:131] Top shape: 111 8 34 34 (1026528)
I0501 00:01:24.289124  6160 net.cpp:139] Memory required for data: 9576636
I0501 00:01:24.289127  6160 layer_factory.hpp:77] Creating layer pool0
I0501 00:01:24.289134  6160 net.cpp:86] Creating Layer pool0
I0501 00:01:24.289137  6160 net.cpp:408] pool0 <- Sigmoid0
I0501 00:01:24.289142  6160 net.cpp:382] pool0 -> pool0
I0501 00:01:24.289878  6160 net.cpp:124] Setting up pool0
I0501 00:01:24.289891  6160 net.cpp:131] Top shape: 111 8 17 17 (256632)
I0501 00:01:24.289894  6160 net.cpp:139] Memory required for data: 10603164
I0501 00:01:24.289897  6160 layer_factory.hpp:77] Creating layer ip1
I0501 00:01:24.289907  6160 net.cpp:86] Creating Layer ip1
I0501 00:01:24.289911  6160 net.cpp:408] ip1 <- pool0
I0501 00:01:24.289917  6160 net.cpp:382] ip1 -> ip1
I0501 00:01:24.292420  6160 net.cpp:124] Setting up ip1
I0501 00:01:24.292428  6160 net.cpp:131] Top shape: 111 40 (4440)
I0501 00:01:24.292431  6160 net.cpp:139] Memory required for data: 10620924
I0501 00:01:24.292438  6160 layer_factory.hpp:77] Creating layer relu1
I0501 00:01:24.292443  6160 net.cpp:86] Creating Layer relu1
I0501 00:01:24.292446  6160 net.cpp:408] relu1 <- ip1
I0501 00:01:24.292451  6160 net.cpp:369] relu1 -> ip1 (in-place)
I0501 00:01:24.292606  6160 net.cpp:124] Setting up relu1
I0501 00:01:24.292614  6160 net.cpp:131] Top shape: 111 40 (4440)
I0501 00:01:24.292618  6160 net.cpp:139] Memory required for data: 10638684
I0501 00:01:24.292620  6160 layer_factory.hpp:77] Creating layer ip2
I0501 00:01:24.292629  6160 net.cpp:86] Creating Layer ip2
I0501 00:01:24.292632  6160 net.cpp:408] ip2 <- ip1
I0501 00:01:24.292637  6160 net.cpp:382] ip2 -> ip2
I0501 00:01:24.293573  6160 net.cpp:124] Setting up ip2
I0501 00:01:24.293586  6160 net.cpp:131] Top shape: 111 20 (2220)
I0501 00:01:24.293588  6160 net.cpp:139] Memory required for data: 10647564
I0501 00:01:24.293596  6160 layer_factory.hpp:77] Creating layer relu2
I0501 00:01:24.293602  6160 net.cpp:86] Creating Layer relu2
I0501 00:01:24.293606  6160 net.cpp:408] relu2 <- ip2
I0501 00:01:24.293609  6160 net.cpp:369] relu2 -> ip2 (in-place)
I0501 00:01:24.293768  6160 net.cpp:124] Setting up relu2
I0501 00:01:24.293776  6160 net.cpp:131] Top shape: 111 20 (2220)
I0501 00:01:24.293779  6160 net.cpp:139] Memory required for data: 10656444
I0501 00:01:24.293782  6160 layer_factory.hpp:77] Creating layer ip3
I0501 00:01:24.293792  6160 net.cpp:86] Creating Layer ip3
I0501 00:01:24.293797  6160 net.cpp:408] ip3 <- ip2
I0501 00:01:24.293817  6160 net.cpp:382] ip3 -> ip3
I0501 00:01:24.294013  6160 net.cpp:124] Setting up ip3
I0501 00:01:24.294020  6160 net.cpp:131] Top shape: 111 160 (17760)
I0501 00:01:24.294023  6160 net.cpp:139] Memory required for data: 10727484
I0501 00:01:24.294029  6160 layer_factory.hpp:77] Creating layer relu3
I0501 00:01:24.294034  6160 net.cpp:86] Creating Layer relu3
I0501 00:01:24.294037  6160 net.cpp:408] relu3 <- ip3
I0501 00:01:24.294041  6160 net.cpp:369] relu3 -> ip3 (in-place)
I0501 00:01:24.294206  6160 net.cpp:124] Setting up relu3
I0501 00:01:24.294214  6160 net.cpp:131] Top shape: 111 160 (17760)
I0501 00:01:24.294217  6160 net.cpp:139] Memory required for data: 10798524
I0501 00:01:24.294220  6160 layer_factory.hpp:77] Creating layer ip4
I0501 00:01:24.294252  6160 net.cpp:86] Creating Layer ip4
I0501 00:01:24.294258  6160 net.cpp:408] ip4 <- ip3
I0501 00:01:24.294279  6160 net.cpp:382] ip4 -> ip4
I0501 00:01:24.294414  6160 net.cpp:124] Setting up ip4
I0501 00:01:24.294421  6160 net.cpp:131] Top shape: 111 10 (1110)
I0501 00:01:24.294425  6160 net.cpp:139] Memory required for data: 10802964
I0501 00:01:24.294432  6160 layer_factory.hpp:77] Creating layer loss
I0501 00:01:24.294440  6160 net.cpp:86] Creating Layer loss
I0501 00:01:24.294443  6160 net.cpp:408] loss <- ip4
I0501 00:01:24.294446  6160 net.cpp:408] loss <- label
I0501 00:01:24.294467  6160 net.cpp:382] loss -> loss
I0501 00:01:24.294483  6160 layer_factory.hpp:77] Creating layer loss
…
I0501 00:01:24.295729  6160 solver.cpp:173] Creating test net (#0) specified by net file: ECE595/cifar/train_test/var_everything/cifar_train_test_244.prototxt
I0501 00:01:24.295754  6160 net.cpp:296] The NetState phase (1) differed from the phase (0) specified by a rule in layer cifar
I0501 00:01:24.295846  6160 net.cpp:53] Initializing net from parameters: 
name: "CIFAR"
state {
  phase: TEST
}
layer {
  name: "cifar"
  type: "Data"
  top: "data"
  top: "label"
  include {
    phase: TEST
  }
  transform_param {
    mean_file: "examples/cifar10/mean.binaryproto"
  }
  data_param {
    source: "examples/cifar10/cifar10_test_lmdb"
    batch_size: 1000
    backend: LMDB
  }
}
layer {
  name: "conv0"
  type: "Convolution"
  bottom: "data"
  top: "conv0"
  param {
    lr_mult: 1
  }
  param {
    lr_mult: 2
  }
  convolution_param {
    num_output: 8
    pad: 2
    kernel_size: 3
    stride: 1
    weight_filler {
      type: "gaussian"
      std: 0.01
    }
    bias_filler {
      type: "constant"
    }
  }
}
layer {
  name: "Sigmoid0"
  type: "Sigmoid"
  bottom: "conv0"
  top: "Sigmoid0"
}
layer {
  name: "pool0"
  type: "Pooling"
  bottom: "Sigmoid0"
  top: "pool0"
  pooling_param {
    pool: AVE
    kernel_size: 3
    stride: 2
  }
}
layer {
  name: "ip1"
  type: "InnerProduct"
  bottom: "pool0"
  top: "ip1"
  param {
    lr_mult: 1
  }
  param {
    lr_mult: 2
  }
  inner_product_param {
    num_output: 40
    weight_filler {
      type: "gaussian"
      std: 0.01
    }
    bias_filler {
      type: "constant"
    }
  }
}
layer {
  name: "relu1"
  type: "ReLU"
  bottom: "ip1"
  top: "ip1"
}
layer {
  name: "ip2"
  type: "InnerProduct"
  bottom: "ip1"
  top: "ip2"
  param {
    lr_mult: 1
  }
  param {
    lr_mult: 2
  }
  inner_product_param {
    num_output: 20
    weight_filler {
      type: "gaussian"
      std: 0.01
    }
    bias_filler {
      type: "constant"
    }
  }
}
layer {
  name: "relu2"
  type: "ReLU"
  bottom: "ip2"
  top: "ip2"
}
layer {
  name: "ip3"
  type: "InnerProduct"
  bottom: "ip2"
  top: "ip3"
  param {
    lr_mult: 1
  }
  param {
    lr_mult: 2
  }
  inner_product_param {
    num_output: 160
    weight_filler {
      type: "gaussian"
      std: 0.01
    }
    bias_filler {
      type: "constant"
    }
  }
}
layer {
  name: "relu3"
  type: "ReLU"
  bottom: "ip3"
  top: "ip3"
}
layer {
  name: "ip4"
  type: "InnerProduct"
  bottom: "ip3"
  top: "ip4"
  param {
    lr_mult: 1
  }
  param {
    lr_mult: 2
  }
  inner_product_param {
    num_output: 10
    weight_filler {
      type: "gaussian"
      std: 0.01
    }
    bias_filler {
      type: "constant"
    }
  }
}
layer {
  name: "accuracy"
  type: "Accuracy"
  bottom: "ip4"
  bottom: "label"
  top: "accuracy"
  include {
    phase: TEST
  }
}
layer {
  name: "loss"
  type: "SoftmaxWithLoss"
  bottom: "ip4"
  bottom: "label"
  top: "loss"
}
I0501 00:01:24.295924  6160 layer_factory.hpp:77] Creating layer cifar
I0501 00:01:24.295969  6160 db_lmdb.cpp:35] Opened lmdb examples/cifar10/cifar10_test_lmdb
I0501 00:01:24.295981  6160 net.cpp:86] Creating Layer cifar
I0501 00:01:24.295989  6160 net.cpp:382] cifar -> data
I0501 00:01:24.296012  6160 net.cpp:382] cifar -> label
I0501 00:01:24.296018  6160 data_transformer.cpp:25] Loading mean file from: examples/cifar10/mean.binaryproto
I0501 00:01:24.296178  6160 data_layer.cpp:45] output data size: 1000,3,32,32
I0501 00:01:24.317716  6160 net.cpp:124] Setting up cifar
I0501 00:01:24.317759  6160 net.cpp:131] Top shape: 1000 3 32 32 (3072000)
I0501 00:01:24.317764  6160 net.cpp:131] Top shape: 1000 (1000)
I0501 00:01:24.317766  6160 net.cpp:139] Memory required for data: 12292000
I0501 00:01:24.317771  6160 layer_factory.hpp:77] Creating layer label_cifar_1_split
I0501 00:01:24.317786  6160 net.cpp:86] Creating Layer label_cifar_1_split
I0501 00:01:24.317790  6160 net.cpp:408] label_cifar_1_split <- label
I0501 00:01:24.317796  6160 net.cpp:382] label_cifar_1_split -> label_cifar_1_split_0
I0501 00:01:24.317806  6160 net.cpp:382] label_cifar_1_split -> label_cifar_1_split_1
I0501 00:01:24.317895  6160 net.cpp:124] Setting up label_cifar_1_split
I0501 00:01:24.317903  6160 net.cpp:131] Top shape: 1000 (1000)
I0501 00:01:24.317906  6160 net.cpp:131] Top shape: 1000 (1000)
I0501 00:01:24.317909  6160 net.cpp:139] Memory required for data: 12300000
I0501 00:01:24.317912  6160 layer_factory.hpp:77] Creating layer conv0
I0501 00:01:24.317927  6160 net.cpp:86] Creating Layer conv0
I0501 00:01:24.317932  6160 net.cpp:408] conv0 <- data
I0501 00:01:24.317937  6160 net.cpp:382] conv0 -> conv0
I0501 00:01:24.319543  6160 net.cpp:124] Setting up conv0
I0501 00:01:24.319556  6160 net.cpp:131] Top shape: 1000 8 34 34 (9248000)
I0501 00:01:24.319576  6160 net.cpp:139] Memory required for data: 49292000
I0501 00:01:24.319586  6160 layer_factory.hpp:77] Creating layer Sigmoid0
I0501 00:01:24.319593  6160 net.cpp:86] Creating Layer Sigmoid0
I0501 00:01:24.319597  6160 net.cpp:408] Sigmoid0 <- conv0
I0501 00:01:24.319602  6160 net.cpp:382] Sigmoid0 -> Sigmoid0
I0501 00:01:24.319790  6160 net.cpp:124] Setting up Sigmoid0
I0501 00:01:24.319800  6160 net.cpp:131] Top shape: 1000 8 34 34 (9248000)
I0501 00:01:24.319803  6160 net.cpp:139] Memory required for data: 86284000
I0501 00:01:24.319806  6160 layer_factory.hpp:77] Creating layer pool0
I0501 00:01:24.319814  6160 net.cpp:86] Creating Layer pool0
I0501 00:01:24.319818  6160 net.cpp:408] pool0 <- Sigmoid0
I0501 00:01:24.319823  6160 net.cpp:382] pool0 -> pool0
I0501 00:01:24.320041  6160 net.cpp:124] Setting up pool0
I0501 00:01:24.320052  6160 net.cpp:131] Top shape: 1000 8 17 17 (2312000)
I0501 00:01:24.320055  6160 net.cpp:139] Memory required for data: 95532000
I0501 00:01:24.320058  6160 layer_factory.hpp:77] Creating layer ip1
I0501 00:01:24.320066  6160 net.cpp:86] Creating Layer ip1
I0501 00:01:24.320071  6160 net.cpp:408] ip1 <- pool0
I0501 00:01:24.320093  6160 net.cpp:382] ip1 -> ip1
I0501 00:01:24.323536  6160 net.cpp:124] Setting up ip1
I0501 00:01:24.323546  6160 net.cpp:131] Top shape: 1000 40 (40000)
I0501 00:01:24.323565  6160 net.cpp:139] Memory required for data: 95692000
I0501 00:01:24.323588  6160 layer_factory.hpp:77] Creating layer relu1
I0501 00:01:24.323595  6160 net.cpp:86] Creating Layer relu1
I0501 00:01:24.323598  6160 net.cpp:408] relu1 <- ip1
I0501 00:01:24.323603  6160 net.cpp:369] relu1 -> ip1 (in-place)
I0501 00:01:24.323806  6160 net.cpp:124] Setting up relu1
I0501 00:01:24.323814  6160 net.cpp:131] Top shape: 1000 40 (40000)
I0501 00:01:24.323817  6160 net.cpp:139] Memory required for data: 95852000
I0501 00:01:24.323820  6160 layer_factory.hpp:77] Creating layer ip2
I0501 00:01:24.323827  6160 net.cpp:86] Creating Layer ip2
I0501 00:01:24.323832  6160 net.cpp:408] ip2 <- ip1
I0501 00:01:24.323848  6160 net.cpp:382] ip2 -> ip2
I0501 00:01:24.323989  6160 net.cpp:124] Setting up ip2
I0501 00:01:24.323997  6160 net.cpp:131] Top shape: 1000 20 (20000)
I0501 00:01:24.324000  6160 net.cpp:139] Memory required for data: 95932000
I0501 00:01:24.324007  6160 layer_factory.hpp:77] Creating layer relu2
I0501 00:01:24.324014  6160 net.cpp:86] Creating Layer relu2
I0501 00:01:24.324033  6160 net.cpp:408] relu2 <- ip2
I0501 00:01:24.324038  6160 net.cpp:369] relu2 -> ip2 (in-place)
I0501 00:01:24.324852  6160 net.cpp:124] Setting up relu2
I0501 00:01:24.324864  6160 net.cpp:131] Top shape: 1000 20 (20000)
I0501 00:01:24.324883  6160 net.cpp:139] Memory required for data: 96012000
I0501 00:01:24.324887  6160 layer_factory.hpp:77] Creating layer ip3
I0501 00:01:24.324893  6160 net.cpp:86] Creating Layer ip3
I0501 00:01:24.324898  6160 net.cpp:408] ip3 <- ip2
I0501 00:01:24.324903  6160 net.cpp:382] ip3 -> ip3
I0501 00:01:24.325142  6160 net.cpp:124] Setting up ip3
I0501 00:01:24.325150  6160 net.cpp:131] Top shape: 1000 160 (160000)
I0501 00:01:24.325153  6160 net.cpp:139] Memory required for data: 96652000
I0501 00:01:24.325160  6160 layer_factory.hpp:77] Creating layer relu3
I0501 00:01:24.325165  6160 net.cpp:86] Creating Layer relu3
I0501 00:01:24.325168  6160 net.cpp:408] relu3 <- ip3
I0501 00:01:24.325173  6160 net.cpp:369] relu3 -> ip3 (in-place)
I0501 00:01:24.325377  6160 net.cpp:124] Setting up relu3
I0501 00:01:24.325386  6160 net.cpp:131] Top shape: 1000 160 (160000)
I0501 00:01:24.325388  6160 net.cpp:139] Memory required for data: 97292000
I0501 00:01:24.325392  6160 layer_factory.hpp:77] Creating layer ip4
I0501 00:01:24.325398  6160 net.cpp:86] Creating Layer ip4
I0501 00:01:24.325404  6160 net.cpp:408] ip4 <- ip3
I0501 00:01:24.325425  6160 net.cpp:382] ip4 -> ip4
I0501 00:01:24.325579  6160 net.cpp:124] Setting up ip4
I0501 00:01:24.325587  6160 net.cpp:131] Top shape: 1000 10 (10000)
I0501 00:01:24.325589  6160 net.cpp:139] Memory required for data: 97332000
I0501 00:01:24.325598  6160 layer_factory.hpp:77] Creating layer ip4_ip4_0_split
I0501 00:01:24.325603  6160 net.cpp:86] Creating Layer ip4_ip4_0_split
I0501 00:01:24.325606  6160 net.cpp:408] ip4_ip4_0_split <- ip4
I0501 00:01:24.325611  6160 net.cpp:382] ip4_ip4_0_split -> ip4_ip4_0_split_0
I0501 00:01:24.325616  6160 net.cpp:382] ip4_ip4_0_split -> ip4_ip4_0_split_1
I0501 00:01:24.325647  6160 net.cpp:124] Setting up ip4_ip4_0_split
I0501 00:01:24.325655  6160 net.cpp:131] Top shape: 1000 10 (10000)
I0501 00:01:24.325659  6160 net.cpp:131] Top shape: 1000 10 (10000)
I0501 00:01:24.325662  6160 net.cpp:139] Memory required for data: 97412000
I0501 00:01:24.325665  6160 layer_factory.hpp:77] Creating layer accuracy
I0501 00:01:24.325671  6160 net.cpp:86] Creating Layer accuracy
I0501 00:01:24.325675  6160 net.cpp:408] accuracy <- ip4_ip4_0_split_0
I0501 00:01:24.325680  6160 net.cpp:408] accuracy <- label_cifar_1_split_0
I0501 00:01:24.325683  6160 net.cpp:382] accuracy -> accuracy
…
