…
I0501 07:09:06.411689  3808 net.cpp:296] The NetState phase (0) differed from the phase (1) specified by a rule in layer cifar
I0501 07:09:06.411705  3808 net.cpp:296] The NetState phase (0) differed from the phase (1) specified by a rule in layer accuracy
I0501 07:09:06.411798  3808 net.cpp:53] Initializing net from parameters: 
name: "CIFAR"
state {
  phase: TRAIN
  level: 0
  stage: ""
}
layer {
  name: "cifar"
  type: "Data"
  top: "data"
  top: "label"
  include {
    phase: TRAIN
  }
  transform_param {
    mean_file: "examples/cifar10/mean.binaryproto"
  }
  data_param {
    source: "examples/cifar10/cifar10_train_lmdb"
    batch_size: 111
    backend: LMDB
  }
}
layer {
  name: "conv0"
  type: "Convolution"
  bottom: "data"
  top: "conv0"
  param {
    lr_mult: 1
  }
  param {
    lr_mult: 2
  }
  convolution_param {
    num_output: 16
    pad: 2
    kernel_size: 3
    stride: 1
    weight_filler {
      type: "gaussian"
      std: 0.01
    }
    bias_filler {
      type: "constant"
    }
  }
}
layer {
  name: "Sigmoid0"
  type: "Sigmoid"
  bottom: "conv0"
  top: "Sigmoid0"
}
layer {
  name: "pool0"
  type: "Pooling"
  bottom: "Sigmoid0"
  top: "pool0"
  pooling_param {
    pool: AVE
    kernel_size: 3
    stride: 2
  }
}
layer {
  name: "ip1"
  type: "InnerProduct"
  bottom: "pool0"
  top: "ip1"
  param {
    lr_mult: 1
  }
  param {
    lr_mult: 2
  }
  inner_product_param {
    num_output: 10
    weight_filler {
      type: "gaussian"
      std: 0.01
    }
    bias_filler {
      type: "constant"
    }
  }
}
layer {
  name: "relu1"
  type: "ReLU"
  bottom: "ip1"
  top: "ip1"
}
layer {
  name: "ip2"
  type: "InnerProduct"
  bottom: "ip1"
  top: "ip2"
  param {
    lr_mult: 1
  }
  param {
    lr_mult: 2
  }
  inner_product_param {
    num_output: 80
    weight_filler {
      type: "gaussian"
      std: 0.01
    }
    bias_filler {
      type: "constant"
    }
  }
}
layer {
  name: "relu2"
  type: "ReLU"
  bottom: "ip2"
  top: "ip2"
}
layer {
  name: "ip3"
  type: "InnerProduct"
  bottom: "ip2"
  top: "ip3"
  param {
    lr_mult: 1
  }
  param {
    lr_mult: 2
  }
  inner_product_param {
    num_output: 10
    weight_filler {
      type: "gaussian"
      std: 0.01
    }
    bias_filler {
      type: "constant"
    }
  }
}
layer {
  name: "loss"
  type: "SoftmaxWithLoss"
  bottom: "ip3"
  bottom: "label"
  top: "loss"
}
I0501 07:09:06.411872  3808 layer_factory.hpp:77] Creating layer cifar
I0501 07:09:06.411973  3808 db_lmdb.cpp:35] Opened lmdb examples/cifar10/cifar10_train_lmdb
I0501 07:09:06.412000  3808 net.cpp:86] Creating Layer cifar
I0501 07:09:06.412009  3808 net.cpp:382] cifar -> data
I0501 07:09:06.412032  3808 net.cpp:382] cifar -> label
I0501 07:09:06.412044  3808 data_transformer.cpp:25] Loading mean file from: examples/cifar10/mean.binaryproto
I0501 07:09:06.414209  3808 data_layer.cpp:45] output data size: 111,3,32,32
I0501 07:09:06.422196  3808 net.cpp:124] Setting up cifar
I0501 07:09:06.422215  3808 net.cpp:131] Top shape: 111 3 32 32 (340992)
I0501 07:09:06.422221  3808 net.cpp:131] Top shape: 111 (111)
I0501 07:09:06.422225  3808 net.cpp:139] Memory required for data: 1364412
I0501 07:09:06.422233  3808 layer_factory.hpp:77] Creating layer conv0
I0501 07:09:06.422273  3808 net.cpp:86] Creating Layer conv0
I0501 07:09:06.422279  3808 net.cpp:408] conv0 <- data
I0501 07:09:06.422293  3808 net.cpp:382] conv0 -> conv0
I0501 07:09:06.710858  3808 net.cpp:124] Setting up conv0
I0501 07:09:06.710907  3808 net.cpp:131] Top shape: 111 16 34 34 (2053056)
I0501 07:09:06.710913  3808 net.cpp:139] Memory required for data: 9576636
I0501 07:09:06.710930  3808 layer_factory.hpp:77] Creating layer Sigmoid0
I0501 07:09:06.710943  3808 net.cpp:86] Creating Layer Sigmoid0
I0501 07:09:06.710948  3808 net.cpp:408] Sigmoid0 <- conv0
I0501 07:09:06.710954  3808 net.cpp:382] Sigmoid0 -> Sigmoid0
I0501 07:09:06.711146  3808 net.cpp:124] Setting up Sigmoid0
I0501 07:09:06.711158  3808 net.cpp:131] Top shape: 111 16 34 34 (2053056)
I0501 07:09:06.711161  3808 net.cpp:139] Memory required for data: 17788860
I0501 07:09:06.711165  3808 layer_factory.hpp:77] Creating layer pool0
I0501 07:09:06.711172  3808 net.cpp:86] Creating Layer pool0
I0501 07:09:06.711176  3808 net.cpp:408] pool0 <- Sigmoid0
I0501 07:09:06.711181  3808 net.cpp:382] pool0 -> pool0
I0501 07:09:06.711998  3808 net.cpp:124] Setting up pool0
I0501 07:09:06.712013  3808 net.cpp:131] Top shape: 111 16 17 17 (513264)
I0501 07:09:06.712018  3808 net.cpp:139] Memory required for data: 19841916
I0501 07:09:06.712023  3808 layer_factory.hpp:77] Creating layer ip1
I0501 07:09:06.712033  3808 net.cpp:86] Creating Layer ip1
I0501 07:09:06.712036  3808 net.cpp:408] ip1 <- pool0
I0501 07:09:06.712043  3808 net.cpp:382] ip1 -> ip1
I0501 07:09:06.714443  3808 net.cpp:124] Setting up ip1
I0501 07:09:06.714457  3808 net.cpp:131] Top shape: 111 10 (1110)
I0501 07:09:06.714462  3808 net.cpp:139] Memory required for data: 19846356
I0501 07:09:06.714471  3808 layer_factory.hpp:77] Creating layer relu1
I0501 07:09:06.714478  3808 net.cpp:86] Creating Layer relu1
I0501 07:09:06.714483  3808 net.cpp:408] relu1 <- ip1
I0501 07:09:06.714488  3808 net.cpp:369] relu1 -> ip1 (in-place)
I0501 07:09:06.714658  3808 net.cpp:124] Setting up relu1
I0501 07:09:06.714668  3808 net.cpp:131] Top shape: 111 10 (1110)
I0501 07:09:06.714671  3808 net.cpp:139] Memory required for data: 19850796
I0501 07:09:06.714675  3808 layer_factory.hpp:77] Creating layer ip2
I0501 07:09:06.714682  3808 net.cpp:86] Creating Layer ip2
I0501 07:09:06.714686  3808 net.cpp:408] ip2 <- ip1
I0501 07:09:06.714691  3808 net.cpp:382] ip2 -> ip2
I0501 07:09:06.714821  3808 net.cpp:124] Setting up ip2
I0501 07:09:06.714829  3808 net.cpp:131] Top shape: 111 80 (8880)
I0501 07:09:06.714833  3808 net.cpp:139] Memory required for data: 19886316
I0501 07:09:06.714840  3808 layer_factory.hpp:77] Creating layer relu2
I0501 07:09:06.714846  3808 net.cpp:86] Creating Layer relu2
I0501 07:09:06.714850  3808 net.cpp:408] relu2 <- ip2
I0501 07:09:06.714854  3808 net.cpp:369] relu2 -> ip2 (in-place)
I0501 07:09:06.715018  3808 net.cpp:124] Setting up relu2
I0501 07:09:06.715026  3808 net.cpp:131] Top shape: 111 80 (8880)
I0501 07:09:06.715030  3808 net.cpp:139] Memory required for data: 19921836
I0501 07:09:06.715034  3808 layer_factory.hpp:77] Creating layer ip3
I0501 07:09:06.715041  3808 net.cpp:86] Creating Layer ip3
I0501 07:09:06.715045  3808 net.cpp:408] ip3 <- ip2
I0501 07:09:06.715050  3808 net.cpp:382] ip3 -> ip3
I0501 07:09:06.715173  3808 net.cpp:124] Setting up ip3
I0501 07:09:06.715180  3808 net.cpp:131] Top shape: 111 10 (1110)
I0501 07:09:06.715184  3808 net.cpp:139] Memory required for data: 19926276
I0501 07:09:06.715190  3808 layer_factory.hpp:77] Creating layer loss
I0501 07:09:06.715195  3808 net.cpp:86] Creating Layer loss
I0501 07:09:06.715199  3808 net.cpp:408] loss <- ip3
I0501 07:09:06.715204  3808 net.cpp:408] loss <- label
I0501 07:09:06.715209  3808 net.cpp:382] loss -> loss
I0501 07:09:06.715224  3808 layer_factory.hpp:77] Creating layer loss
…
I0501 07:09:06.715876  3808 solver.cpp:173] Creating test net (#0) specified by net file: ECE595/cifar/train_test/var_everything/cifar_train_test_473.prototxt
I0501 07:09:06.715904  3808 net.cpp:296] The NetState phase (1) differed from the phase (0) specified by a rule in layer cifar
I0501 07:09:06.715996  3808 net.cpp:53] Initializing net from parameters: 
name: "CIFAR"
state {
  phase: TEST
}
layer {
  name: "cifar"
  type: "Data"
  top: "data"
  top: "label"
  include {
    phase: TEST
  }
  transform_param {
    mean_file: "examples/cifar10/mean.binaryproto"
  }
  data_param {
    source: "examples/cifar10/cifar10_test_lmdb"
    batch_size: 1000
    backend: LMDB
  }
}
layer {
  name: "conv0"
  type: "Convolution"
  bottom: "data"
  top: "conv0"
  param {
    lr_mult: 1
  }
  param {
    lr_mult: 2
  }
  convolution_param {
    num_output: 16
    pad: 2
    kernel_size: 3
    stride: 1
    weight_filler {
      type: "gaussian"
      std: 0.01
    }
    bias_filler {
      type: "constant"
    }
  }
}
layer {
  name: "Sigmoid0"
  type: "Sigmoid"
  bottom: "conv0"
  top: "Sigmoid0"
}
layer {
  name: "pool0"
  type: "Pooling"
  bottom: "Sigmoid0"
  top: "pool0"
  pooling_param {
    pool: AVE
    kernel_size: 3
    stride: 2
  }
}
layer {
  name: "ip1"
  type: "InnerProduct"
  bottom: "pool0"
  top: "ip1"
  param {
    lr_mult: 1
  }
  param {
    lr_mult: 2
  }
  inner_product_param {
    num_output: 10
    weight_filler {
      type: "gaussian"
      std: 0.01
    }
    bias_filler {
      type: "constant"
    }
  }
}
layer {
  name: "relu1"
  type: "ReLU"
  bottom: "ip1"
  top: "ip1"
}
layer {
  name: "ip2"
  type: "InnerProduct"
  bottom: "ip1"
  top: "ip2"
  param {
    lr_mult: 1
  }
  param {
    lr_mult: 2
  }
  inner_product_param {
    num_output: 80
    weight_filler {
      type: "gaussian"
      std: 0.01
    }
    bias_filler {
      type: "constant"
    }
  }
}
layer {
  name: "relu2"
  type: "ReLU"
  bottom: "ip2"
  top: "ip2"
}
layer {
  name: "ip3"
  type: "InnerProduct"
  bottom: "ip2"
  top: "ip3"
  param {
    lr_mult: 1
  }
  param {
    lr_mult: 2
  }
  inner_product_param {
    num_output: 10
    weight_filler {
      type: "gaussian"
      std: 0.01
    }
    bias_filler {
      type: "constant"
    }
  }
}
layer {
  name: "accuracy"
  type: "Accuracy"
  bottom: "ip3"
  bottom: "label"
  top: "accuracy"
  include {
    phase: TEST
  }
}
layer {
  name: "loss"
  type: "SoftmaxWithLoss"
  bottom: "ip3"
  bottom: "label"
  top: "loss"
}
I0501 07:09:06.716065  3808 layer_factory.hpp:77] Creating layer cifar
I0501 07:09:06.716114  3808 db_lmdb.cpp:35] Opened lmdb examples/cifar10/cifar10_test_lmdb
I0501 07:09:06.716126  3808 net.cpp:86] Creating Layer cifar
I0501 07:09:06.716132  3808 net.cpp:382] cifar -> data
I0501 07:09:06.716140  3808 net.cpp:382] cifar -> label
I0501 07:09:06.716148  3808 data_transformer.cpp:25] Loading mean file from: examples/cifar10/mean.binaryproto
I0501 07:09:06.716302  3808 data_layer.cpp:45] output data size: 1000,3,32,32
I0501 07:09:06.739305  3808 net.cpp:124] Setting up cifar
I0501 07:09:06.739331  3808 net.cpp:131] Top shape: 1000 3 32 32 (3072000)
I0501 07:09:06.739337  3808 net.cpp:131] Top shape: 1000 (1000)
I0501 07:09:06.739341  3808 net.cpp:139] Memory required for data: 12292000
I0501 07:09:06.739346  3808 layer_factory.hpp:77] Creating layer label_cifar_1_split
I0501 07:09:06.739358  3808 net.cpp:86] Creating Layer label_cifar_1_split
I0501 07:09:06.739378  3808 net.cpp:408] label_cifar_1_split <- label
I0501 07:09:06.739385  3808 net.cpp:382] label_cifar_1_split -> label_cifar_1_split_0
I0501 07:09:06.739395  3808 net.cpp:382] label_cifar_1_split -> label_cifar_1_split_1
I0501 07:09:06.739480  3808 net.cpp:124] Setting up label_cifar_1_split
I0501 07:09:06.739487  3808 net.cpp:131] Top shape: 1000 (1000)
I0501 07:09:06.739491  3808 net.cpp:131] Top shape: 1000 (1000)
I0501 07:09:06.739495  3808 net.cpp:139] Memory required for data: 12300000
I0501 07:09:06.739497  3808 layer_factory.hpp:77] Creating layer conv0
I0501 07:09:06.739521  3808 net.cpp:86] Creating Layer conv0
I0501 07:09:06.739526  3808 net.cpp:408] conv0 <- data
I0501 07:09:06.739531  3808 net.cpp:382] conv0 -> conv0
I0501 07:09:06.741210  3808 net.cpp:124] Setting up conv0
I0501 07:09:06.741235  3808 net.cpp:131] Top shape: 1000 16 34 34 (18496000)
I0501 07:09:06.741240  3808 net.cpp:139] Memory required for data: 86284000
I0501 07:09:06.741266  3808 layer_factory.hpp:77] Creating layer Sigmoid0
I0501 07:09:06.741274  3808 net.cpp:86] Creating Layer Sigmoid0
I0501 07:09:06.741278  3808 net.cpp:408] Sigmoid0 <- conv0
I0501 07:09:06.741283  3808 net.cpp:382] Sigmoid0 -> Sigmoid0
I0501 07:09:06.742136  3808 net.cpp:124] Setting up Sigmoid0
I0501 07:09:06.742148  3808 net.cpp:131] Top shape: 1000 16 34 34 (18496000)
I0501 07:09:06.742152  3808 net.cpp:139] Memory required for data: 160268000
I0501 07:09:06.742156  3808 layer_factory.hpp:77] Creating layer pool0
I0501 07:09:06.742166  3808 net.cpp:86] Creating Layer pool0
I0501 07:09:06.742168  3808 net.cpp:408] pool0 <- Sigmoid0
I0501 07:09:06.742173  3808 net.cpp:382] pool0 -> pool0
I0501 07:09:06.743322  3808 net.cpp:124] Setting up pool0
I0501 07:09:06.743333  3808 net.cpp:131] Top shape: 1000 16 17 17 (4624000)
I0501 07:09:06.743336  3808 net.cpp:139] Memory required for data: 178764000
I0501 07:09:06.743340  3808 layer_factory.hpp:77] Creating layer ip1
I0501 07:09:06.743363  3808 net.cpp:86] Creating Layer ip1
I0501 07:09:06.743367  3808 net.cpp:408] ip1 <- pool0
I0501 07:09:06.743373  3808 net.cpp:382] ip1 -> ip1
I0501 07:09:06.744786  3808 net.cpp:124] Setting up ip1
I0501 07:09:06.744796  3808 net.cpp:131] Top shape: 1000 10 (10000)
I0501 07:09:06.744798  3808 net.cpp:139] Memory required for data: 178804000
I0501 07:09:06.744807  3808 layer_factory.hpp:77] Creating layer relu1
I0501 07:09:06.744835  3808 net.cpp:86] Creating Layer relu1
I0501 07:09:06.744839  3808 net.cpp:408] relu1 <- ip1
I0501 07:09:06.744844  3808 net.cpp:369] relu1 -> ip1 (in-place)
I0501 07:09:06.745028  3808 net.cpp:124] Setting up relu1
I0501 07:09:06.745038  3808 net.cpp:131] Top shape: 1000 10 (10000)
I0501 07:09:06.745041  3808 net.cpp:139] Memory required for data: 178844000
I0501 07:09:06.745045  3808 layer_factory.hpp:77] Creating layer ip2
I0501 07:09:06.745052  3808 net.cpp:86] Creating Layer ip2
I0501 07:09:06.745057  3808 net.cpp:408] ip2 <- ip1
I0501 07:09:06.745062  3808 net.cpp:382] ip2 -> ip2
I0501 07:09:06.745227  3808 net.cpp:124] Setting up ip2
I0501 07:09:06.745236  3808 net.cpp:131] Top shape: 1000 80 (80000)
I0501 07:09:06.745239  3808 net.cpp:139] Memory required for data: 179164000
I0501 07:09:06.745257  3808 layer_factory.hpp:77] Creating layer relu2
I0501 07:09:06.745265  3808 net.cpp:86] Creating Layer relu2
I0501 07:09:06.745268  3808 net.cpp:408] relu2 <- ip2
I0501 07:09:06.745272  3808 net.cpp:369] relu2 -> ip2 (in-place)
I0501 07:09:06.745450  3808 net.cpp:124] Setting up relu2
I0501 07:09:06.745458  3808 net.cpp:131] Top shape: 1000 80 (80000)
I0501 07:09:06.745462  3808 net.cpp:139] Memory required for data: 179484000
I0501 07:09:06.745465  3808 layer_factory.hpp:77] Creating layer ip3
I0501 07:09:06.745471  3808 net.cpp:86] Creating Layer ip3
I0501 07:09:06.745476  3808 net.cpp:408] ip3 <- ip2
I0501 07:09:06.745481  3808 net.cpp:382] ip3 -> ip3
I0501 07:09:06.745609  3808 net.cpp:124] Setting up ip3
I0501 07:09:06.745615  3808 net.cpp:131] Top shape: 1000 10 (10000)
I0501 07:09:06.745631  3808 net.cpp:139] Memory required for data: 179524000
I0501 07:09:06.745638  3808 layer_factory.hpp:77] Creating layer ip3_ip3_0_split
I0501 07:09:06.745645  3808 net.cpp:86] Creating Layer ip3_ip3_0_split
I0501 07:09:06.745647  3808 net.cpp:408] ip3_ip3_0_split <- ip3
I0501 07:09:06.745652  3808 net.cpp:382] ip3_ip3_0_split -> ip3_ip3_0_split_0
I0501 07:09:06.745658  3808 net.cpp:382] ip3_ip3_0_split -> ip3_ip3_0_split_1
I0501 07:09:06.745693  3808 net.cpp:124] Setting up ip3_ip3_0_split
I0501 07:09:06.745698  3808 net.cpp:131] Top shape: 1000 10 (10000)
I0501 07:09:06.745702  3808 net.cpp:131] Top shape: 1000 10 (10000)
I0501 07:09:06.745705  3808 net.cpp:139] Memory required for data: 179604000
I0501 07:09:06.745708  3808 layer_factory.hpp:77] Creating layer accuracy
I0501 07:09:06.745730  3808 net.cpp:86] Creating Layer accuracy
I0501 07:09:06.745733  3808 net.cpp:408] accuracy <- ip3_ip3_0_split_0
I0501 07:09:06.745738  3808 net.cpp:408] accuracy <- label_cifar_1_split_0
I0501 07:09:06.745741  3808 net.cpp:382] accuracy -> accuracy
…
