…
I0430 19:50:29.843221 27034 net.cpp:296] The NetState phase (0) differed from the phase (1) specified by a rule in layer cifar
I0430 19:50:29.843240 27034 net.cpp:296] The NetState phase (0) differed from the phase (1) specified by a rule in layer accuracy
I0430 19:50:29.843340 27034 net.cpp:53] Initializing net from parameters: 
name: "CIFAR"
state {
  phase: TRAIN
  level: 0
  stage: ""
}
layer {
  name: "cifar"
  type: "Data"
  top: "data"
  top: "label"
  include {
    phase: TRAIN
  }
  transform_param {
    mean_file: "examples/cifar10/mean.binaryproto"
  }
  data_param {
    source: "examples/cifar10/cifar10_train_lmdb"
    batch_size: 111
    backend: LMDB
  }
}
layer {
  name: "ip1"
  type: "InnerProduct"
  bottom: "data"
  top: "ip1"
  param {
    lr_mult: 1
  }
  param {
    lr_mult: 2
  }
  inner_product_param {
    num_output: 80
    weight_filler {
      type: "gaussian"
      std: 0.01
    }
    bias_filler {
      type: "constant"
    }
  }
}
layer {
  name: "relu1"
  type: "ReLU"
  bottom: "ip1"
  top: "ip1"
}
layer {
  name: "ip2"
  type: "InnerProduct"
  bottom: "ip1"
  top: "ip2"
  param {
    lr_mult: 1
  }
  param {
    lr_mult: 2
  }
  inner_product_param {
    num_output: 20
    weight_filler {
      type: "gaussian"
      std: 0.01
    }
    bias_filler {
      type: "constant"
    }
  }
}
layer {
  name: "relu2"
  type: "ReLU"
  bottom: "ip2"
  top: "ip2"
}
layer {
  name: "ip3"
  type: "InnerProduct"
  bottom: "ip2"
  top: "ip3"
  param {
    lr_mult: 1
  }
  param {
    lr_mult: 2
  }
  inner_product_param {
    num_output: 10
    weight_filler {
      type: "gaussian"
      std: 0.01
    }
    bias_filler {
      type: "constant"
    }
  }
}
layer {
  name: "relu3"
  type: "ReLU"
  bottom: "ip3"
  top: "ip3"
}
layer {
  name: "ip4"
  type: "InnerProduct"
  bottom: "ip3"
  top: "ip4"
  param {
    lr_mult: 1
  }
  param {
    lr_mult: 2
  }
  inner_product_param {
    num_output: 10
    weight_filler {
      type: "gaussian"
      std: 0.01
    }
    bias_filler {
      type: "constant"
    }
  }
}
layer {
  name: "loss"
  type: "SoftmaxWithLoss"
  bottom: "ip4"
  bottom: "label"
  top: "loss"
}
I0430 19:50:29.843421 27034 layer_factory.hpp:77] Creating layer cifar
I0430 19:50:29.843531 27034 db_lmdb.cpp:35] Opened lmdb examples/cifar10/cifar10_train_lmdb
I0430 19:50:29.843564 27034 net.cpp:86] Creating Layer cifar
I0430 19:50:29.843575 27034 net.cpp:382] cifar -> data
I0430 19:50:29.843600 27034 net.cpp:382] cifar -> label
I0430 19:50:29.843619 27034 data_transformer.cpp:25] Loading mean file from: examples/cifar10/mean.binaryproto
I0430 19:50:29.845983 27034 data_layer.cpp:45] output data size: 111,3,32,32
I0430 19:50:29.854816 27034 net.cpp:124] Setting up cifar
I0430 19:50:29.854836 27034 net.cpp:131] Top shape: 111 3 32 32 (340992)
I0430 19:50:29.854843 27034 net.cpp:131] Top shape: 111 (111)
I0430 19:50:29.854847 27034 net.cpp:139] Memory required for data: 1364412
I0430 19:50:29.854856 27034 layer_factory.hpp:77] Creating layer ip1
I0430 19:50:29.854868 27034 net.cpp:86] Creating Layer ip1
I0430 19:50:29.854874 27034 net.cpp:408] ip1 <- data
I0430 19:50:29.854889 27034 net.cpp:382] ip1 -> ip1
I0430 19:50:29.865265 27034 net.cpp:124] Setting up ip1
I0430 19:50:29.865283 27034 net.cpp:131] Top shape: 111 80 (8880)
I0430 19:50:29.865288 27034 net.cpp:139] Memory required for data: 1399932
I0430 19:50:29.865303 27034 layer_factory.hpp:77] Creating layer relu1
I0430 19:50:29.865314 27034 net.cpp:86] Creating Layer relu1
I0430 19:50:29.865334 27034 net.cpp:408] relu1 <- ip1
I0430 19:50:29.865342 27034 net.cpp:369] relu1 -> ip1 (in-place)
I0430 19:50:30.115851 27034 net.cpp:124] Setting up relu1
I0430 19:50:30.115878 27034 net.cpp:131] Top shape: 111 80 (8880)
I0430 19:50:30.115882 27034 net.cpp:139] Memory required for data: 1435452
I0430 19:50:30.115887 27034 layer_factory.hpp:77] Creating layer ip2
I0430 19:50:30.115916 27034 net.cpp:86] Creating Layer ip2
I0430 19:50:30.115919 27034 net.cpp:408] ip2 <- ip1
I0430 19:50:30.115926 27034 net.cpp:382] ip2 -> ip2
I0430 19:50:30.116073 27034 net.cpp:124] Setting up ip2
I0430 19:50:30.116081 27034 net.cpp:131] Top shape: 111 20 (2220)
I0430 19:50:30.116084 27034 net.cpp:139] Memory required for data: 1444332
I0430 19:50:30.116093 27034 layer_factory.hpp:77] Creating layer relu2
I0430 19:50:30.116101 27034 net.cpp:86] Creating Layer relu2
I0430 19:50:30.116102 27034 net.cpp:408] relu2 <- ip2
I0430 19:50:30.116106 27034 net.cpp:369] relu2 -> ip2 (in-place)
I0430 19:50:30.116924 27034 net.cpp:124] Setting up relu2
I0430 19:50:30.116935 27034 net.cpp:131] Top shape: 111 20 (2220)
I0430 19:50:30.116940 27034 net.cpp:139] Memory required for data: 1453212
I0430 19:50:30.116942 27034 layer_factory.hpp:77] Creating layer ip3
I0430 19:50:30.116964 27034 net.cpp:86] Creating Layer ip3
I0430 19:50:30.116967 27034 net.cpp:408] ip3 <- ip2
I0430 19:50:30.116973 27034 net.cpp:382] ip3 -> ip3
I0430 19:50:30.117071 27034 net.cpp:124] Setting up ip3
I0430 19:50:30.117079 27034 net.cpp:131] Top shape: 111 10 (1110)
I0430 19:50:30.117081 27034 net.cpp:139] Memory required for data: 1457652
I0430 19:50:30.117089 27034 layer_factory.hpp:77] Creating layer relu3
I0430 19:50:30.117094 27034 net.cpp:86] Creating Layer relu3
I0430 19:50:30.117097 27034 net.cpp:408] relu3 <- ip3
I0430 19:50:30.117100 27034 net.cpp:369] relu3 -> ip3 (in-place)
I0430 19:50:30.117247 27034 net.cpp:124] Setting up relu3
I0430 19:50:30.117255 27034 net.cpp:131] Top shape: 111 10 (1110)
I0430 19:50:30.117259 27034 net.cpp:139] Memory required for data: 1462092
I0430 19:50:30.117261 27034 layer_factory.hpp:77] Creating layer ip4
I0430 19:50:30.117267 27034 net.cpp:86] Creating Layer ip4
I0430 19:50:30.117270 27034 net.cpp:408] ip4 <- ip3
I0430 19:50:30.117274 27034 net.cpp:382] ip4 -> ip4
I0430 19:50:30.117359 27034 net.cpp:124] Setting up ip4
I0430 19:50:30.117367 27034 net.cpp:131] Top shape: 111 10 (1110)
I0430 19:50:30.117369 27034 net.cpp:139] Memory required for data: 1466532
I0430 19:50:30.117374 27034 layer_factory.hpp:77] Creating layer loss
I0430 19:50:30.117379 27034 net.cpp:86] Creating Layer loss
I0430 19:50:30.117383 27034 net.cpp:408] loss <- ip4
I0430 19:50:30.117386 27034 net.cpp:408] loss <- label
I0430 19:50:30.117391 27034 net.cpp:382] loss -> loss
I0430 19:50:30.117409 27034 layer_factory.hpp:77] Creating layer loss
…
I0430 19:50:30.117923 27034 solver.cpp:173] Creating test net (#0) specified by net file: ECE595/cifar/train_test/var_everything/cifar_train_test_110.prototxt
I0430 19:50:30.117959 27034 net.cpp:296] The NetState phase (1) differed from the phase (0) specified by a rule in layer cifar
I0430 19:50:30.118046 27034 net.cpp:53] Initializing net from parameters: 
name: "CIFAR"
state {
  phase: TEST
}
layer {
  name: "cifar"
  type: "Data"
  top: "data"
  top: "label"
  include {
    phase: TEST
  }
  transform_param {
    mean_file: "examples/cifar10/mean.binaryproto"
  }
  data_param {
    source: "examples/cifar10/cifar10_test_lmdb"
    batch_size: 1000
    backend: LMDB
  }
}
layer {
  name: "ip1"
  type: "InnerProduct"
  bottom: "data"
  top: "ip1"
  param {
    lr_mult: 1
  }
  param {
    lr_mult: 2
  }
  inner_product_param {
    num_output: 80
    weight_filler {
      type: "gaussian"
      std: 0.01
    }
    bias_filler {
      type: "constant"
    }
  }
}
layer {
  name: "relu1"
  type: "ReLU"
  bottom: "ip1"
  top: "ip1"
}
layer {
  name: "ip2"
  type: "InnerProduct"
  bottom: "ip1"
  top: "ip2"
  param {
    lr_mult: 1
  }
  param {
    lr_mult: 2
  }
  inner_product_param {
    num_output: 20
    weight_filler {
      type: "gaussian"
      std: 0.01
    }
    bias_filler {
      type: "constant"
    }
  }
}
layer {
  name: "relu2"
  type: "ReLU"
  bottom: "ip2"
  top: "ip2"
}
layer {
  name: "ip3"
  type: "InnerProduct"
  bottom: "ip2"
  top: "ip3"
  param {
    lr_mult: 1
  }
  param {
    lr_mult: 2
  }
  inner_product_param {
    num_output: 10
    weight_filler {
      type: "gaussian"
      std: 0.01
    }
    bias_filler {
      type: "constant"
    }
  }
}
layer {
  name: "relu3"
  type: "ReLU"
  bottom: "ip3"
  top: "ip3"
}
layer {
  name: "ip4"
  type: "InnerProduct"
  bottom: "ip3"
  top: "ip4"
  param {
    lr_mult: 1
  }
  param {
    lr_mult: 2
  }
  inner_product_param {
    num_output: 10
    weight_filler {
      type: "gaussian"
      std: 0.01
    }
    bias_filler {
      type: "constant"
    }
  }
}
layer {
  name: "accuracy"
  type: "Accuracy"
  bottom: "ip4"
  bottom: "label"
  top: "accuracy"
  include {
    phase: TEST
  }
}
layer {
  name: "loss"
  type: "SoftmaxWithLoss"
  bottom: "ip4"
  bottom: "label"
  top: "loss"
}
I0430 19:50:30.118104 27034 layer_factory.hpp:77] Creating layer cifar
I0430 19:50:30.118150 27034 db_lmdb.cpp:35] Opened lmdb examples/cifar10/cifar10_test_lmdb
I0430 19:50:30.118162 27034 net.cpp:86] Creating Layer cifar
I0430 19:50:30.118166 27034 net.cpp:382] cifar -> data
I0430 19:50:30.118173 27034 net.cpp:382] cifar -> label
I0430 19:50:30.118180 27034 data_transformer.cpp:25] Loading mean file from: examples/cifar10/mean.binaryproto
I0430 19:50:30.118314 27034 data_layer.cpp:45] output data size: 1000,3,32,32
I0430 19:50:30.140925 27034 net.cpp:124] Setting up cifar
I0430 19:50:30.140954 27034 net.cpp:131] Top shape: 1000 3 32 32 (3072000)
I0430 19:50:30.140959 27034 net.cpp:131] Top shape: 1000 (1000)
I0430 19:50:30.140964 27034 net.cpp:139] Memory required for data: 12292000
I0430 19:50:30.140969 27034 layer_factory.hpp:77] Creating layer label_cifar_1_split
I0430 19:50:30.140987 27034 net.cpp:86] Creating Layer label_cifar_1_split
I0430 19:50:30.140991 27034 net.cpp:408] label_cifar_1_split <- label
I0430 19:50:30.140997 27034 net.cpp:382] label_cifar_1_split -> label_cifar_1_split_0
I0430 19:50:30.141006 27034 net.cpp:382] label_cifar_1_split -> label_cifar_1_split_1
I0430 19:50:30.141091 27034 net.cpp:124] Setting up label_cifar_1_split
I0430 19:50:30.141098 27034 net.cpp:131] Top shape: 1000 (1000)
I0430 19:50:30.141103 27034 net.cpp:131] Top shape: 1000 (1000)
I0430 19:50:30.141105 27034 net.cpp:139] Memory required for data: 12300000
I0430 19:50:30.141108 27034 layer_factory.hpp:77] Creating layer ip1
I0430 19:50:30.141116 27034 net.cpp:86] Creating Layer ip1
I0430 19:50:30.141120 27034 net.cpp:408] ip1 <- data
I0430 19:50:30.141124 27034 net.cpp:382] ip1 -> ip1
I0430 19:50:30.147863 27034 net.cpp:124] Setting up ip1
I0430 19:50:30.147873 27034 net.cpp:131] Top shape: 1000 80 (80000)
I0430 19:50:30.147876 27034 net.cpp:139] Memory required for data: 12620000
I0430 19:50:30.147917 27034 layer_factory.hpp:77] Creating layer relu1
I0430 19:50:30.147922 27034 net.cpp:86] Creating Layer relu1
I0430 19:50:30.147927 27034 net.cpp:408] relu1 <- ip1
I0430 19:50:30.147931 27034 net.cpp:369] relu1 -> ip1 (in-place)
I0430 19:50:30.148697 27034 net.cpp:124] Setting up relu1
I0430 19:50:30.148710 27034 net.cpp:131] Top shape: 1000 80 (80000)
I0430 19:50:30.148727 27034 net.cpp:139] Memory required for data: 12940000
I0430 19:50:30.148731 27034 layer_factory.hpp:77] Creating layer ip2
I0430 19:50:30.148756 27034 net.cpp:86] Creating Layer ip2
I0430 19:50:30.148763 27034 net.cpp:408] ip2 <- ip1
I0430 19:50:30.148768 27034 net.cpp:382] ip2 -> ip2
I0430 19:50:30.148953 27034 net.cpp:124] Setting up ip2
I0430 19:50:30.148962 27034 net.cpp:131] Top shape: 1000 20 (20000)
I0430 19:50:30.148965 27034 net.cpp:139] Memory required for data: 13020000
I0430 19:50:30.148973 27034 layer_factory.hpp:77] Creating layer relu2
I0430 19:50:30.148978 27034 net.cpp:86] Creating Layer relu2
I0430 19:50:30.148982 27034 net.cpp:408] relu2 <- ip2
I0430 19:50:30.148986 27034 net.cpp:369] relu2 -> ip2 (in-place)
I0430 19:50:30.149154 27034 net.cpp:124] Setting up relu2
I0430 19:50:30.149163 27034 net.cpp:131] Top shape: 1000 20 (20000)
I0430 19:50:30.149165 27034 net.cpp:139] Memory required for data: 13100000
I0430 19:50:30.149168 27034 layer_factory.hpp:77] Creating layer ip3
I0430 19:50:30.149188 27034 net.cpp:86] Creating Layer ip3
I0430 19:50:30.149191 27034 net.cpp:408] ip3 <- ip2
I0430 19:50:30.149196 27034 net.cpp:382] ip3 -> ip3
I0430 19:50:30.149296 27034 net.cpp:124] Setting up ip3
I0430 19:50:30.149302 27034 net.cpp:131] Top shape: 1000 10 (10000)
I0430 19:50:30.149305 27034 net.cpp:139] Memory required for data: 13140000
I0430 19:50:30.149312 27034 layer_factory.hpp:77] Creating layer relu3
I0430 19:50:30.149317 27034 net.cpp:86] Creating Layer relu3
I0430 19:50:30.149319 27034 net.cpp:408] relu3 <- ip3
I0430 19:50:30.149323 27034 net.cpp:369] relu3 -> ip3 (in-place)
I0430 19:50:30.149462 27034 net.cpp:124] Setting up relu3
I0430 19:50:30.149471 27034 net.cpp:131] Top shape: 1000 10 (10000)
I0430 19:50:30.149473 27034 net.cpp:139] Memory required for data: 13180000
I0430 19:50:30.149477 27034 layer_factory.hpp:77] Creating layer ip4
I0430 19:50:30.149483 27034 net.cpp:86] Creating Layer ip4
I0430 19:50:30.149487 27034 net.cpp:408] ip4 <- ip3
I0430 19:50:30.149492 27034 net.cpp:382] ip4 -> ip4
I0430 19:50:30.149603 27034 net.cpp:124] Setting up ip4
I0430 19:50:30.149610 27034 net.cpp:131] Top shape: 1000 10 (10000)
I0430 19:50:30.149613 27034 net.cpp:139] Memory required for data: 13220000
I0430 19:50:30.149618 27034 layer_factory.hpp:77] Creating layer ip4_ip4_0_split
I0430 19:50:30.149623 27034 net.cpp:86] Creating Layer ip4_ip4_0_split
I0430 19:50:30.149626 27034 net.cpp:408] ip4_ip4_0_split <- ip4
I0430 19:50:30.149631 27034 net.cpp:382] ip4_ip4_0_split -> ip4_ip4_0_split_0
I0430 19:50:30.149636 27034 net.cpp:382] ip4_ip4_0_split -> ip4_ip4_0_split_1
I0430 19:50:30.149667 27034 net.cpp:124] Setting up ip4_ip4_0_split
I0430 19:50:30.149672 27034 net.cpp:131] Top shape: 1000 10 (10000)
I0430 19:50:30.149677 27034 net.cpp:131] Top shape: 1000 10 (10000)
I0430 19:50:30.149678 27034 net.cpp:139] Memory required for data: 13300000
I0430 19:50:30.149682 27034 layer_factory.hpp:77] Creating layer accuracy
I0430 19:50:30.149691 27034 net.cpp:86] Creating Layer accuracy
I0430 19:50:30.149694 27034 net.cpp:408] accuracy <- ip4_ip4_0_split_0
I0430 19:50:30.149698 27034 net.cpp:408] accuracy <- label_cifar_1_split_0
I0430 19:50:30.149703 27034 net.cpp:382] accuracy -> accuracy
…
