…
I0501 03:34:34.727946 21567 net.cpp:296] The NetState phase (0) differed from the phase (1) specified by a rule in layer cifar
I0501 03:34:34.727963 21567 net.cpp:296] The NetState phase (0) differed from the phase (1) specified by a rule in layer accuracy
I0501 03:34:34.728062 21567 net.cpp:53] Initializing net from parameters: 
name: "CIFAR"
state {
  phase: TRAIN
  level: 0
  stage: ""
}
layer {
  name: "cifar"
  type: "Data"
  top: "data"
  top: "label"
  include {
    phase: TRAIN
  }
  transform_param {
    mean_file: "examples/cifar10/mean.binaryproto"
  }
  data_param {
    source: "examples/cifar10/cifar10_train_lmdb"
    batch_size: 111
    backend: LMDB
  }
}
layer {
  name: "conv0"
  type: "Convolution"
  bottom: "data"
  top: "conv0"
  param {
    lr_mult: 1
  }
  param {
    lr_mult: 2
  }
  convolution_param {
    num_output: 8
    pad: 2
    kernel_size: 5
    stride: 1
    weight_filler {
      type: "gaussian"
      std: 0.01
    }
    bias_filler {
      type: "constant"
    }
  }
}
layer {
  name: "Sigmoid0"
  type: "Sigmoid"
  bottom: "conv0"
  top: "Sigmoid0"
}
layer {
  name: "pool0"
  type: "Pooling"
  bottom: "Sigmoid0"
  top: "pool0"
  pooling_param {
    pool: AVE
    kernel_size: 3
    stride: 2
  }
}
layer {
  name: "ip1"
  type: "InnerProduct"
  bottom: "pool0"
  top: "ip1"
  param {
    lr_mult: 1
  }
  param {
    lr_mult: 2
  }
  inner_product_param {
    num_output: 10
    weight_filler {
      type: "gaussian"
      std: 0.01
    }
    bias_filler {
      type: "constant"
    }
  }
}
layer {
  name: "relu1"
  type: "ReLU"
  bottom: "ip1"
  top: "ip1"
}
layer {
  name: "ip2"
  type: "InnerProduct"
  bottom: "ip1"
  top: "ip2"
  param {
    lr_mult: 1
  }
  param {
    lr_mult: 2
  }
  inner_product_param {
    num_output: 80
    weight_filler {
      type: "gaussian"
      std: 0.01
    }
    bias_filler {
      type: "constant"
    }
  }
}
layer {
  name: "relu2"
  type: "ReLU"
  bottom: "ip2"
  top: "ip2"
}
layer {
  name: "ip3"
  type: "InnerProduct"
  bottom: "ip2"
  top: "ip3"
  param {
    lr_mult: 1
  }
  param {
    lr_mult: 2
  }
  inner_product_param {
    num_output: 80
    weight_filler {
      type: "gaussian"
      std: 0.01
    }
    bias_filler {
      type: "constant"
    }
  }
}
layer {
  name: "relu3"
  type: "ReLU"
  bottom: "ip3"
  top: "ip3"
}
layer {
  name: "ip4"
  type: "InnerProduct"
  bottom: "ip3"
  top: "ip4"
  param {
    lr_mult: 1
  }
  param {
    lr_mult: 2
  }
  inner_product_param {
    num_output: 10
    weight_filler {
      type: "gaussian"
      std: 0.01
    }
    bias_filler {
      type: "constant"
    }
  }
}
layer {
  name: "loss"
  type: "SoftmaxWithLoss"
  bottom: "ip4"
  bottom: "label"
  top: "loss"
}
I0501 03:34:34.728137 21567 layer_factory.hpp:77] Creating layer cifar
I0501 03:34:34.728235 21567 db_lmdb.cpp:35] Opened lmdb examples/cifar10/cifar10_train_lmdb
I0501 03:34:34.728260 21567 net.cpp:86] Creating Layer cifar
I0501 03:34:34.728268 21567 net.cpp:382] cifar -> data
I0501 03:34:34.728291 21567 net.cpp:382] cifar -> label
I0501 03:34:34.728307 21567 data_transformer.cpp:25] Loading mean file from: examples/cifar10/mean.binaryproto
I0501 03:34:34.730419 21567 data_layer.cpp:45] output data size: 111,3,32,32
I0501 03:34:34.738523 21567 net.cpp:124] Setting up cifar
I0501 03:34:34.738544 21567 net.cpp:131] Top shape: 111 3 32 32 (340992)
I0501 03:34:34.738550 21567 net.cpp:131] Top shape: 111 (111)
I0501 03:34:34.738554 21567 net.cpp:139] Memory required for data: 1364412
I0501 03:34:34.738579 21567 layer_factory.hpp:77] Creating layer conv0
I0501 03:34:34.738602 21567 net.cpp:86] Creating Layer conv0
I0501 03:34:34.738608 21567 net.cpp:408] conv0 <- data
I0501 03:34:34.738623 21567 net.cpp:382] conv0 -> conv0
I0501 03:34:35.024986 21567 net.cpp:124] Setting up conv0
I0501 03:34:35.025013 21567 net.cpp:131] Top shape: 111 8 32 32 (909312)
I0501 03:34:35.025018 21567 net.cpp:139] Memory required for data: 5001660
I0501 03:34:35.025034 21567 layer_factory.hpp:77] Creating layer Sigmoid0
I0501 03:34:35.025048 21567 net.cpp:86] Creating Layer Sigmoid0
I0501 03:34:35.025051 21567 net.cpp:408] Sigmoid0 <- conv0
I0501 03:34:35.025058 21567 net.cpp:382] Sigmoid0 -> Sigmoid0
I0501 03:34:35.025238 21567 net.cpp:124] Setting up Sigmoid0
I0501 03:34:35.025249 21567 net.cpp:131] Top shape: 111 8 32 32 (909312)
I0501 03:34:35.025252 21567 net.cpp:139] Memory required for data: 8638908
I0501 03:34:35.025255 21567 layer_factory.hpp:77] Creating layer pool0
I0501 03:34:35.025262 21567 net.cpp:86] Creating Layer pool0
I0501 03:34:35.025269 21567 net.cpp:408] pool0 <- Sigmoid0
I0501 03:34:35.025274 21567 net.cpp:382] pool0 -> pool0
I0501 03:34:35.026006 21567 net.cpp:124] Setting up pool0
I0501 03:34:35.026020 21567 net.cpp:131] Top shape: 111 8 16 16 (227328)
I0501 03:34:35.026023 21567 net.cpp:139] Memory required for data: 9548220
I0501 03:34:35.026027 21567 layer_factory.hpp:77] Creating layer ip1
I0501 03:34:35.026036 21567 net.cpp:86] Creating Layer ip1
I0501 03:34:35.026039 21567 net.cpp:408] ip1 <- pool0
I0501 03:34:35.026044 21567 net.cpp:382] ip1 -> ip1
I0501 03:34:35.027521 21567 net.cpp:124] Setting up ip1
I0501 03:34:35.027534 21567 net.cpp:131] Top shape: 111 10 (1110)
I0501 03:34:35.027537 21567 net.cpp:139] Memory required for data: 9552660
I0501 03:34:35.027545 21567 layer_factory.hpp:77] Creating layer relu1
I0501 03:34:35.027551 21567 net.cpp:86] Creating Layer relu1
I0501 03:34:35.027555 21567 net.cpp:408] relu1 <- ip1
I0501 03:34:35.027559 21567 net.cpp:369] relu1 -> ip1 (in-place)
I0501 03:34:35.027761 21567 net.cpp:124] Setting up relu1
I0501 03:34:35.027770 21567 net.cpp:131] Top shape: 111 10 (1110)
I0501 03:34:35.027773 21567 net.cpp:139] Memory required for data: 9557100
I0501 03:34:35.027777 21567 layer_factory.hpp:77] Creating layer ip2
I0501 03:34:35.027784 21567 net.cpp:86] Creating Layer ip2
I0501 03:34:35.027787 21567 net.cpp:408] ip2 <- ip1
I0501 03:34:35.027792 21567 net.cpp:382] ip2 -> ip2
I0501 03:34:35.027909 21567 net.cpp:124] Setting up ip2
I0501 03:34:35.027916 21567 net.cpp:131] Top shape: 111 80 (8880)
I0501 03:34:35.027920 21567 net.cpp:139] Memory required for data: 9592620
I0501 03:34:35.027927 21567 layer_factory.hpp:77] Creating layer relu2
I0501 03:34:35.027932 21567 net.cpp:86] Creating Layer relu2
I0501 03:34:35.027936 21567 net.cpp:408] relu2 <- ip2
I0501 03:34:35.027940 21567 net.cpp:369] relu2 -> ip2 (in-place)
I0501 03:34:35.028102 21567 net.cpp:124] Setting up relu2
I0501 03:34:35.028110 21567 net.cpp:131] Top shape: 111 80 (8880)
I0501 03:34:35.028113 21567 net.cpp:139] Memory required for data: 9628140
I0501 03:34:35.028116 21567 layer_factory.hpp:77] Creating layer ip3
I0501 03:34:35.028125 21567 net.cpp:86] Creating Layer ip3
I0501 03:34:35.028127 21567 net.cpp:408] ip3 <- ip2
I0501 03:34:35.028132 21567 net.cpp:382] ip3 -> ip3
I0501 03:34:35.029224 21567 net.cpp:124] Setting up ip3
I0501 03:34:35.029237 21567 net.cpp:131] Top shape: 111 80 (8880)
I0501 03:34:35.029240 21567 net.cpp:139] Memory required for data: 9663660
I0501 03:34:35.029247 21567 layer_factory.hpp:77] Creating layer relu3
I0501 03:34:35.029253 21567 net.cpp:86] Creating Layer relu3
I0501 03:34:35.029255 21567 net.cpp:408] relu3 <- ip3
I0501 03:34:35.029259 21567 net.cpp:369] relu3 -> ip3 (in-place)
I0501 03:34:35.029414 21567 net.cpp:124] Setting up relu3
I0501 03:34:35.029422 21567 net.cpp:131] Top shape: 111 80 (8880)
I0501 03:34:35.029427 21567 net.cpp:139] Memory required for data: 9699180
I0501 03:34:35.029429 21567 layer_factory.hpp:77] Creating layer ip4
I0501 03:34:35.029450 21567 net.cpp:86] Creating Layer ip4
I0501 03:34:35.029454 21567 net.cpp:408] ip4 <- ip3
I0501 03:34:35.029459 21567 net.cpp:382] ip4 -> ip4
I0501 03:34:35.029573 21567 net.cpp:124] Setting up ip4
I0501 03:34:35.029582 21567 net.cpp:131] Top shape: 111 10 (1110)
I0501 03:34:35.029584 21567 net.cpp:139] Memory required for data: 9703620
I0501 03:34:35.029592 21567 layer_factory.hpp:77] Creating layer loss
I0501 03:34:35.029598 21567 net.cpp:86] Creating Layer loss
I0501 03:34:35.029602 21567 net.cpp:408] loss <- ip4
I0501 03:34:35.029605 21567 net.cpp:408] loss <- label
I0501 03:34:35.029611 21567 net.cpp:382] loss -> loss
I0501 03:34:35.029628 21567 layer_factory.hpp:77] Creating layer loss
…
I0501 03:34:35.030848 21567 solver.cpp:173] Creating test net (#0) specified by net file: ECE595/cifar/train_test/var_everything/cifar_train_test_358.prototxt
I0501 03:34:35.030876 21567 net.cpp:296] The NetState phase (1) differed from the phase (0) specified by a rule in layer cifar
I0501 03:34:35.030972 21567 net.cpp:53] Initializing net from parameters: 
name: "CIFAR"
state {
  phase: TEST
}
layer {
  name: "cifar"
  type: "Data"
  top: "data"
  top: "label"
  include {
    phase: TEST
  }
  transform_param {
    mean_file: "examples/cifar10/mean.binaryproto"
  }
  data_param {
    source: "examples/cifar10/cifar10_test_lmdb"
    batch_size: 1000
    backend: LMDB
  }
}
layer {
  name: "conv0"
  type: "Convolution"
  bottom: "data"
  top: "conv0"
  param {
    lr_mult: 1
  }
  param {
    lr_mult: 2
  }
  convolution_param {
    num_output: 8
    pad: 2
    kernel_size: 5
    stride: 1
    weight_filler {
      type: "gaussian"
      std: 0.01
    }
    bias_filler {
      type: "constant"
    }
  }
}
layer {
  name: "Sigmoid0"
  type: "Sigmoid"
  bottom: "conv0"
  top: "Sigmoid0"
}
layer {
  name: "pool0"
  type: "Pooling"
  bottom: "Sigmoid0"
  top: "pool0"
  pooling_param {
    pool: AVE
    kernel_size: 3
    stride: 2
  }
}
layer {
  name: "ip1"
  type: "InnerProduct"
  bottom: "pool0"
  top: "ip1"
  param {
    lr_mult: 1
  }
  param {
    lr_mult: 2
  }
  inner_product_param {
    num_output: 10
    weight_filler {
      type: "gaussian"
      std: 0.01
    }
    bias_filler {
      type: "constant"
    }
  }
}
layer {
  name: "relu1"
  type: "ReLU"
  bottom: "ip1"
  top: "ip1"
}
layer {
  name: "ip2"
  type: "InnerProduct"
  bottom: "ip1"
  top: "ip2"
  param {
    lr_mult: 1
  }
  param {
    lr_mult: 2
  }
  inner_product_param {
    num_output: 80
    weight_filler {
      type: "gaussian"
      std: 0.01
    }
    bias_filler {
      type: "constant"
    }
  }
}
layer {
  name: "relu2"
  type: "ReLU"
  bottom: "ip2"
  top: "ip2"
}
layer {
  name: "ip3"
  type: "InnerProduct"
  bottom: "ip2"
  top: "ip3"
  param {
    lr_mult: 1
  }
  param {
    lr_mult: 2
  }
  inner_product_param {
    num_output: 80
    weight_filler {
      type: "gaussian"
      std: 0.01
    }
    bias_filler {
      type: "constant"
    }
  }
}
layer {
  name: "relu3"
  type: "ReLU"
  bottom: "ip3"
  top: "ip3"
}
layer {
  name: "ip4"
  type: "InnerProduct"
  bottom: "ip3"
  top: "ip4"
  param {
    lr_mult: 1
  }
  param {
    lr_mult: 2
  }
  inner_product_param {
    num_output: 10
    weight_filler {
      type: "gaussian"
      std: 0.01
    }
    bias_filler {
      type: "constant"
    }
  }
}
layer {
  name: "accuracy"
  type: "Accuracy"
  bottom: "ip4"
  bottom: "label"
  top: "accuracy"
  include {
    phase: TEST
  }
}
layer {
  name: "loss"
  type: "SoftmaxWithLoss"
  bottom: "ip4"
  bottom: "label"
  top: "loss"
}
I0501 03:34:35.031049 21567 layer_factory.hpp:77] Creating layer cifar
I0501 03:34:35.031095 21567 db_lmdb.cpp:35] Opened lmdb examples/cifar10/cifar10_test_lmdb
I0501 03:34:35.031107 21567 net.cpp:86] Creating Layer cifar
I0501 03:34:35.031112 21567 net.cpp:382] cifar -> data
I0501 03:34:35.031121 21567 net.cpp:382] cifar -> label
I0501 03:34:35.031126 21567 data_transformer.cpp:25] Loading mean file from: examples/cifar10/mean.binaryproto
I0501 03:34:35.031263 21567 data_layer.cpp:45] output data size: 1000,3,32,32
I0501 03:34:35.053647 21567 net.cpp:124] Setting up cifar
I0501 03:34:35.053686 21567 net.cpp:131] Top shape: 1000 3 32 32 (3072000)
I0501 03:34:35.053694 21567 net.cpp:131] Top shape: 1000 (1000)
I0501 03:34:35.053696 21567 net.cpp:139] Memory required for data: 12292000
I0501 03:34:35.053702 21567 layer_factory.hpp:77] Creating layer label_cifar_1_split
I0501 03:34:35.053714 21567 net.cpp:86] Creating Layer label_cifar_1_split
I0501 03:34:35.053733 21567 net.cpp:408] label_cifar_1_split <- label
I0501 03:34:35.053740 21567 net.cpp:382] label_cifar_1_split -> label_cifar_1_split_0
I0501 03:34:35.053763 21567 net.cpp:382] label_cifar_1_split -> label_cifar_1_split_1
I0501 03:34:35.053843 21567 net.cpp:124] Setting up label_cifar_1_split
I0501 03:34:35.053851 21567 net.cpp:131] Top shape: 1000 (1000)
I0501 03:34:35.053856 21567 net.cpp:131] Top shape: 1000 (1000)
I0501 03:34:35.053858 21567 net.cpp:139] Memory required for data: 12300000
I0501 03:34:35.053863 21567 layer_factory.hpp:77] Creating layer conv0
I0501 03:34:35.053875 21567 net.cpp:86] Creating Layer conv0
I0501 03:34:35.053879 21567 net.cpp:408] conv0 <- data
I0501 03:34:35.053884 21567 net.cpp:382] conv0 -> conv0
I0501 03:34:35.055483 21567 net.cpp:124] Setting up conv0
I0501 03:34:35.055497 21567 net.cpp:131] Top shape: 1000 8 32 32 (8192000)
I0501 03:34:35.055501 21567 net.cpp:139] Memory required for data: 45068000
I0501 03:34:35.055510 21567 layer_factory.hpp:77] Creating layer Sigmoid0
I0501 03:34:35.055517 21567 net.cpp:86] Creating Layer Sigmoid0
I0501 03:34:35.055521 21567 net.cpp:408] Sigmoid0 <- conv0
I0501 03:34:35.055526 21567 net.cpp:382] Sigmoid0 -> Sigmoid0
I0501 03:34:35.055726 21567 net.cpp:124] Setting up Sigmoid0
I0501 03:34:35.055734 21567 net.cpp:131] Top shape: 1000 8 32 32 (8192000)
I0501 03:34:35.055738 21567 net.cpp:139] Memory required for data: 77836000
I0501 03:34:35.055742 21567 layer_factory.hpp:77] Creating layer pool0
I0501 03:34:35.055749 21567 net.cpp:86] Creating Layer pool0
I0501 03:34:35.055753 21567 net.cpp:408] pool0 <- Sigmoid0
I0501 03:34:35.055757 21567 net.cpp:382] pool0 -> pool0
I0501 03:34:35.056035 21567 net.cpp:124] Setting up pool0
I0501 03:34:35.056044 21567 net.cpp:131] Top shape: 1000 8 16 16 (2048000)
I0501 03:34:35.056048 21567 net.cpp:139] Memory required for data: 86028000
I0501 03:34:35.056051 21567 layer_factory.hpp:77] Creating layer ip1
I0501 03:34:35.056059 21567 net.cpp:86] Creating Layer ip1
I0501 03:34:35.056063 21567 net.cpp:408] ip1 <- pool0
I0501 03:34:35.056068 21567 net.cpp:382] ip1 -> ip1
I0501 03:34:35.057667 21567 net.cpp:124] Setting up ip1
I0501 03:34:35.057675 21567 net.cpp:131] Top shape: 1000 10 (10000)
I0501 03:34:35.057679 21567 net.cpp:139] Memory required for data: 86068000
I0501 03:34:35.057701 21567 layer_factory.hpp:77] Creating layer relu1
I0501 03:34:35.057708 21567 net.cpp:86] Creating Layer relu1
I0501 03:34:35.057713 21567 net.cpp:408] relu1 <- ip1
I0501 03:34:35.057716 21567 net.cpp:369] relu1 -> ip1 (in-place)
I0501 03:34:35.057904 21567 net.cpp:124] Setting up relu1
I0501 03:34:35.057914 21567 net.cpp:131] Top shape: 1000 10 (10000)
I0501 03:34:35.057917 21567 net.cpp:139] Memory required for data: 86108000
I0501 03:34:35.057920 21567 layer_factory.hpp:77] Creating layer ip2
I0501 03:34:35.057926 21567 net.cpp:86] Creating Layer ip2
I0501 03:34:35.057930 21567 net.cpp:408] ip2 <- ip1
I0501 03:34:35.057936 21567 net.cpp:382] ip2 -> ip2
I0501 03:34:35.058066 21567 net.cpp:124] Setting up ip2
I0501 03:34:35.058073 21567 net.cpp:131] Top shape: 1000 80 (80000)
I0501 03:34:35.058078 21567 net.cpp:139] Memory required for data: 86428000
I0501 03:34:35.058084 21567 layer_factory.hpp:77] Creating layer relu2
I0501 03:34:35.058105 21567 net.cpp:86] Creating Layer relu2
I0501 03:34:35.058109 21567 net.cpp:408] relu2 <- ip2
I0501 03:34:35.058112 21567 net.cpp:369] relu2 -> ip2 (in-place)
I0501 03:34:35.058848 21567 net.cpp:124] Setting up relu2
I0501 03:34:35.058861 21567 net.cpp:131] Top shape: 1000 80 (80000)
I0501 03:34:35.058864 21567 net.cpp:139] Memory required for data: 86748000
I0501 03:34:35.058868 21567 layer_factory.hpp:77] Creating layer ip3
I0501 03:34:35.058876 21567 net.cpp:86] Creating Layer ip3
I0501 03:34:35.058894 21567 net.cpp:408] ip3 <- ip2
I0501 03:34:35.058899 21567 net.cpp:382] ip3 -> ip3
I0501 03:34:35.059195 21567 net.cpp:124] Setting up ip3
I0501 03:34:35.059202 21567 net.cpp:131] Top shape: 1000 80 (80000)
I0501 03:34:35.059206 21567 net.cpp:139] Memory required for data: 87068000
I0501 03:34:35.059211 21567 layer_factory.hpp:77] Creating layer relu3
I0501 03:34:35.059231 21567 net.cpp:86] Creating Layer relu3
I0501 03:34:35.059234 21567 net.cpp:408] relu3 <- ip3
I0501 03:34:35.059238 21567 net.cpp:369] relu3 -> ip3 (in-place)
I0501 03:34:35.059383 21567 net.cpp:124] Setting up relu3
I0501 03:34:35.059391 21567 net.cpp:131] Top shape: 1000 80 (80000)
I0501 03:34:35.059394 21567 net.cpp:139] Memory required for data: 87388000
I0501 03:34:35.059397 21567 layer_factory.hpp:77] Creating layer ip4
I0501 03:34:35.059406 21567 net.cpp:86] Creating Layer ip4
I0501 03:34:35.059408 21567 net.cpp:408] ip4 <- ip3
I0501 03:34:35.059413 21567 net.cpp:382] ip4 -> ip4
I0501 03:34:35.059530 21567 net.cpp:124] Setting up ip4
I0501 03:34:35.059536 21567 net.cpp:131] Top shape: 1000 10 (10000)
I0501 03:34:35.059540 21567 net.cpp:139] Memory required for data: 87428000
I0501 03:34:35.059548 21567 layer_factory.hpp:77] Creating layer ip4_ip4_0_split
I0501 03:34:35.059553 21567 net.cpp:86] Creating Layer ip4_ip4_0_split
I0501 03:34:35.059556 21567 net.cpp:408] ip4_ip4_0_split <- ip4
I0501 03:34:35.059561 21567 net.cpp:382] ip4_ip4_0_split -> ip4_ip4_0_split_0
I0501 03:34:35.059566 21567 net.cpp:382] ip4_ip4_0_split -> ip4_ip4_0_split_1
I0501 03:34:35.059595 21567 net.cpp:124] Setting up ip4_ip4_0_split
I0501 03:34:35.059599 21567 net.cpp:131] Top shape: 1000 10 (10000)
I0501 03:34:35.059603 21567 net.cpp:131] Top shape: 1000 10 (10000)
I0501 03:34:35.059607 21567 net.cpp:139] Memory required for data: 87508000
I0501 03:34:35.059609 21567 layer_factory.hpp:77] Creating layer accuracy
I0501 03:34:35.059619 21567 net.cpp:86] Creating Layer accuracy
I0501 03:34:35.059623 21567 net.cpp:408] accuracy <- ip4_ip4_0_split_0
I0501 03:34:35.059626 21567 net.cpp:408] accuracy <- label_cifar_1_split_0
I0501 03:34:35.059631 21567 net.cpp:382] accuracy -> accuracy
…
