…
I0501 03:58:50.299002 23438 net.cpp:296] The NetState phase (0) differed from the phase (1) specified by a rule in layer cifar
I0501 03:58:50.299021 23438 net.cpp:296] The NetState phase (0) differed from the phase (1) specified by a rule in layer accuracy
I0501 03:58:50.299123 23438 net.cpp:53] Initializing net from parameters: 
name: "CIFAR"
state {
  phase: TRAIN
  level: 0
  stage: ""
}
layer {
  name: "cifar"
  type: "Data"
  top: "data"
  top: "label"
  include {
    phase: TRAIN
  }
  transform_param {
    mean_file: "examples/cifar10/mean.binaryproto"
  }
  data_param {
    source: "examples/cifar10/cifar10_train_lmdb"
    batch_size: 111
    backend: LMDB
  }
}
layer {
  name: "conv0"
  type: "Convolution"
  bottom: "data"
  top: "conv0"
  param {
    lr_mult: 1
  }
  param {
    lr_mult: 2
  }
  convolution_param {
    num_output: 8
    pad: 2
    kernel_size: 5
    stride: 1
    weight_filler {
      type: "gaussian"
      std: 0.01
    }
    bias_filler {
      type: "constant"
    }
  }
}
layer {
  name: "Sigmoid0"
  type: "Sigmoid"
  bottom: "conv0"
  top: "Sigmoid0"
}
layer {
  name: "pool0"
  type: "Pooling"
  bottom: "Sigmoid0"
  top: "pool0"
  pooling_param {
    pool: AVE
    kernel_size: 3
    stride: 2
  }
}
layer {
  name: "ip1"
  type: "InnerProduct"
  bottom: "pool0"
  top: "ip1"
  param {
    lr_mult: 1
  }
  param {
    lr_mult: 2
  }
  inner_product_param {
    num_output: 20
    weight_filler {
      type: "gaussian"
      std: 0.01
    }
    bias_filler {
      type: "constant"
    }
  }
}
layer {
  name: "relu1"
  type: "ReLU"
  bottom: "ip1"
  top: "ip1"
}
layer {
  name: "ip2"
  type: "InnerProduct"
  bottom: "ip1"
  top: "ip2"
  param {
    lr_mult: 1
  }
  param {
    lr_mult: 2
  }
  inner_product_param {
    num_output: 20
    weight_filler {
      type: "gaussian"
      std: 0.01
    }
    bias_filler {
      type: "constant"
    }
  }
}
layer {
  name: "relu2"
  type: "ReLU"
  bottom: "ip2"
  top: "ip2"
}
layer {
  name: "ip3"
  type: "InnerProduct"
  bottom: "ip2"
  top: "ip3"
  param {
    lr_mult: 1
  }
  param {
    lr_mult: 2
  }
  inner_product_param {
    num_output: 20
    weight_filler {
      type: "gaussian"
      std: 0.01
    }
    bias_filler {
      type: "constant"
    }
  }
}
layer {
  name: "relu3"
  type: "ReLU"
  bottom: "ip3"
  top: "ip3"
}
layer {
  name: "ip4"
  type: "InnerProduct"
  bottom: "ip3"
  top: "ip4"
  param {
    lr_mult: 1
  }
  param {
    lr_mult: 2
  }
  inner_product_param {
    num_output: 10
    weight_filler {
      type: "gaussian"
      std: 0.01
    }
    bias_filler {
      type: "constant"
    }
  }
}
layer {
  name: "loss"
  type: "SoftmaxWithLoss"
  bottom: "ip4"
  bottom: "label"
  top: "loss"
}
I0501 03:58:50.299201 23438 layer_factory.hpp:77] Creating layer cifar
I0501 03:58:50.299298 23438 db_lmdb.cpp:35] Opened lmdb examples/cifar10/cifar10_train_lmdb
I0501 03:58:50.299326 23438 net.cpp:86] Creating Layer cifar
I0501 03:58:50.299335 23438 net.cpp:382] cifar -> data
I0501 03:58:50.299360 23438 net.cpp:382] cifar -> label
I0501 03:58:50.299372 23438 data_transformer.cpp:25] Loading mean file from: examples/cifar10/mean.binaryproto
I0501 03:58:50.301447 23438 data_layer.cpp:45] output data size: 111,3,32,32
I0501 03:58:50.309197 23438 net.cpp:124] Setting up cifar
I0501 03:58:50.309216 23438 net.cpp:131] Top shape: 111 3 32 32 (340992)
I0501 03:58:50.309222 23438 net.cpp:131] Top shape: 111 (111)
I0501 03:58:50.309226 23438 net.cpp:139] Memory required for data: 1364412
I0501 03:58:50.309249 23438 layer_factory.hpp:77] Creating layer conv0
I0501 03:58:50.309270 23438 net.cpp:86] Creating Layer conv0
I0501 03:58:50.309276 23438 net.cpp:408] conv0 <- data
I0501 03:58:50.309288 23438 net.cpp:382] conv0 -> conv0
I0501 03:58:50.601068 23438 net.cpp:124] Setting up conv0
I0501 03:58:50.601099 23438 net.cpp:131] Top shape: 111 8 32 32 (909312)
I0501 03:58:50.601104 23438 net.cpp:139] Memory required for data: 5001660
I0501 03:58:50.601122 23438 layer_factory.hpp:77] Creating layer Sigmoid0
I0501 03:58:50.601135 23438 net.cpp:86] Creating Layer Sigmoid0
I0501 03:58:50.601140 23438 net.cpp:408] Sigmoid0 <- conv0
I0501 03:58:50.601146 23438 net.cpp:382] Sigmoid0 -> Sigmoid0
I0501 03:58:50.601351 23438 net.cpp:124] Setting up Sigmoid0
I0501 03:58:50.601362 23438 net.cpp:131] Top shape: 111 8 32 32 (909312)
I0501 03:58:50.601366 23438 net.cpp:139] Memory required for data: 8638908
I0501 03:58:50.601372 23438 layer_factory.hpp:77] Creating layer pool0
I0501 03:58:50.601379 23438 net.cpp:86] Creating Layer pool0
I0501 03:58:50.601387 23438 net.cpp:408] pool0 <- Sigmoid0
I0501 03:58:50.601392 23438 net.cpp:382] pool0 -> pool0
I0501 03:58:50.602268 23438 net.cpp:124] Setting up pool0
I0501 03:58:50.602284 23438 net.cpp:131] Top shape: 111 8 16 16 (227328)
I0501 03:58:50.602288 23438 net.cpp:139] Memory required for data: 9548220
I0501 03:58:50.602293 23438 layer_factory.hpp:77] Creating layer ip1
I0501 03:58:50.602303 23438 net.cpp:86] Creating Layer ip1
I0501 03:58:50.602308 23438 net.cpp:408] ip1 <- pool0
I0501 03:58:50.602314 23438 net.cpp:382] ip1 -> ip1
I0501 03:58:50.604708 23438 net.cpp:124] Setting up ip1
I0501 03:58:50.604723 23438 net.cpp:131] Top shape: 111 20 (2220)
I0501 03:58:50.604728 23438 net.cpp:139] Memory required for data: 9557100
I0501 03:58:50.604737 23438 layer_factory.hpp:77] Creating layer relu1
I0501 03:58:50.604744 23438 net.cpp:86] Creating Layer relu1
I0501 03:58:50.604748 23438 net.cpp:408] relu1 <- ip1
I0501 03:58:50.604755 23438 net.cpp:369] relu1 -> ip1 (in-place)
I0501 03:58:50.604974 23438 net.cpp:124] Setting up relu1
I0501 03:58:50.604985 23438 net.cpp:131] Top shape: 111 20 (2220)
I0501 03:58:50.604990 23438 net.cpp:139] Memory required for data: 9565980
I0501 03:58:50.604993 23438 layer_factory.hpp:77] Creating layer ip2
I0501 03:58:50.605001 23438 net.cpp:86] Creating Layer ip2
I0501 03:58:50.605005 23438 net.cpp:408] ip2 <- ip1
I0501 03:58:50.605010 23438 net.cpp:382] ip2 -> ip2
I0501 03:58:50.605125 23438 net.cpp:124] Setting up ip2
I0501 03:58:50.605134 23438 net.cpp:131] Top shape: 111 20 (2220)
I0501 03:58:50.605137 23438 net.cpp:139] Memory required for data: 9574860
I0501 03:58:50.605146 23438 layer_factory.hpp:77] Creating layer relu2
I0501 03:58:50.605151 23438 net.cpp:86] Creating Layer relu2
I0501 03:58:50.605155 23438 net.cpp:408] relu2 <- ip2
I0501 03:58:50.605160 23438 net.cpp:369] relu2 -> ip2 (in-place)
I0501 03:58:50.605347 23438 net.cpp:124] Setting up relu2
I0501 03:58:50.605356 23438 net.cpp:131] Top shape: 111 20 (2220)
I0501 03:58:50.605360 23438 net.cpp:139] Memory required for data: 9583740
I0501 03:58:50.605365 23438 layer_factory.hpp:77] Creating layer ip3
I0501 03:58:50.605372 23438 net.cpp:86] Creating Layer ip3
I0501 03:58:50.605376 23438 net.cpp:408] ip3 <- ip2
I0501 03:58:50.605381 23438 net.cpp:382] ip3 -> ip3
I0501 03:58:50.605499 23438 net.cpp:124] Setting up ip3
I0501 03:58:50.605506 23438 net.cpp:131] Top shape: 111 20 (2220)
I0501 03:58:50.605510 23438 net.cpp:139] Memory required for data: 9592620
I0501 03:58:50.605516 23438 layer_factory.hpp:77] Creating layer relu3
I0501 03:58:50.605521 23438 net.cpp:86] Creating Layer relu3
I0501 03:58:50.605525 23438 net.cpp:408] relu3 <- ip3
I0501 03:58:50.605530 23438 net.cpp:369] relu3 -> ip3 (in-place)
I0501 03:58:50.605697 23438 net.cpp:124] Setting up relu3
I0501 03:58:50.605707 23438 net.cpp:131] Top shape: 111 20 (2220)
I0501 03:58:50.605710 23438 net.cpp:139] Memory required for data: 9601500
I0501 03:58:50.605715 23438 layer_factory.hpp:77] Creating layer ip4
I0501 03:58:50.605737 23438 net.cpp:86] Creating Layer ip4
I0501 03:58:50.605741 23438 net.cpp:408] ip4 <- ip3
I0501 03:58:50.605746 23438 net.cpp:382] ip4 -> ip4
I0501 03:58:50.605859 23438 net.cpp:124] Setting up ip4
I0501 03:58:50.605867 23438 net.cpp:131] Top shape: 111 10 (1110)
I0501 03:58:50.605871 23438 net.cpp:139] Memory required for data: 9605940
I0501 03:58:50.605880 23438 layer_factory.hpp:77] Creating layer loss
I0501 03:58:50.605891 23438 net.cpp:86] Creating Layer loss
I0501 03:58:50.605895 23438 net.cpp:408] loss <- ip4
I0501 03:58:50.605901 23438 net.cpp:408] loss <- label
I0501 03:58:50.605906 23438 net.cpp:382] loss -> loss
I0501 03:58:50.605919 23438 layer_factory.hpp:77] Creating layer loss
…
I0501 03:58:50.607298 23438 solver.cpp:173] Creating test net (#0) specified by net file: ECE595/cifar/train_test/var_everything/cifar_train_test_371.prototxt
I0501 03:58:50.607331 23438 net.cpp:296] The NetState phase (1) differed from the phase (0) specified by a rule in layer cifar
I0501 03:58:50.607437 23438 net.cpp:53] Initializing net from parameters: 
name: "CIFAR"
state {
  phase: TEST
}
layer {
  name: "cifar"
  type: "Data"
  top: "data"
  top: "label"
  include {
    phase: TEST
  }
  transform_param {
    mean_file: "examples/cifar10/mean.binaryproto"
  }
  data_param {
    source: "examples/cifar10/cifar10_test_lmdb"
    batch_size: 1000
    backend: LMDB
  }
}
layer {
  name: "conv0"
  type: "Convolution"
  bottom: "data"
  top: "conv0"
  param {
    lr_mult: 1
  }
  param {
    lr_mult: 2
  }
  convolution_param {
    num_output: 8
    pad: 2
    kernel_size: 5
    stride: 1
    weight_filler {
      type: "gaussian"
      std: 0.01
    }
    bias_filler {
      type: "constant"
    }
  }
}
layer {
  name: "Sigmoid0"
  type: "Sigmoid"
  bottom: "conv0"
  top: "Sigmoid0"
}
layer {
  name: "pool0"
  type: "Pooling"
  bottom: "Sigmoid0"
  top: "pool0"
  pooling_param {
    pool: AVE
    kernel_size: 3
    stride: 2
  }
}
layer {
  name: "ip1"
  type: "InnerProduct"
  bottom: "pool0"
  top: "ip1"
  param {
    lr_mult: 1
  }
  param {
    lr_mult: 2
  }
  inner_product_param {
    num_output: 20
    weight_filler {
      type: "gaussian"
      std: 0.01
    }
    bias_filler {
      type: "constant"
    }
  }
}
layer {
  name: "relu1"
  type: "ReLU"
  bottom: "ip1"
  top: "ip1"
}
layer {
  name: "ip2"
  type: "InnerProduct"
  bottom: "ip1"
  top: "ip2"
  param {
    lr_mult: 1
  }
  param {
    lr_mult: 2
  }
  inner_product_param {
    num_output: 20
    weight_filler {
      type: "gaussian"
      std: 0.01
    }
    bias_filler {
      type: "constant"
    }
  }
}
layer {
  name: "relu2"
  type: "ReLU"
  bottom: "ip2"
  top: "ip2"
}
layer {
  name: "ip3"
  type: "InnerProduct"
  bottom: "ip2"
  top: "ip3"
  param {
    lr_mult: 1
  }
  param {
    lr_mult: 2
  }
  inner_product_param {
    num_output: 20
    weight_filler {
      type: "gaussian"
      std: 0.01
    }
    bias_filler {
      type: "constant"
    }
  }
}
layer {
  name: "relu3"
  type: "ReLU"
  bottom: "ip3"
  top: "ip3"
}
layer {
  name: "ip4"
  type: "InnerProduct"
  bottom: "ip3"
  top: "ip4"
  param {
    lr_mult: 1
  }
  param {
    lr_mult: 2
  }
  inner_product_param {
    num_output: 10
    weight_filler {
      type: "gaussian"
      std: 0.01
    }
    bias_filler {
      type: "constant"
    }
  }
}
layer {
  name: "accuracy"
  type: "Accuracy"
  bottom: "ip4"
  bottom: "label"
  top: "accuracy"
  include {
    phase: TEST
  }
}
layer {
  name: "loss"
  type: "SoftmaxWithLoss"
  bottom: "ip4"
  bottom: "label"
  top: "loss"
}
I0501 03:58:50.607528 23438 layer_factory.hpp:77] Creating layer cifar
I0501 03:58:50.607578 23438 db_lmdb.cpp:35] Opened lmdb examples/cifar10/cifar10_test_lmdb
I0501 03:58:50.607592 23438 net.cpp:86] Creating Layer cifar
I0501 03:58:50.607597 23438 net.cpp:382] cifar -> data
I0501 03:58:50.607606 23438 net.cpp:382] cifar -> label
I0501 03:58:50.607614 23438 data_transformer.cpp:25] Loading mean file from: examples/cifar10/mean.binaryproto
I0501 03:58:50.607774 23438 data_layer.cpp:45] output data size: 1000,3,32,32
I0501 03:58:50.632570 23438 net.cpp:124] Setting up cifar
I0501 03:58:50.632599 23438 net.cpp:131] Top shape: 1000 3 32 32 (3072000)
I0501 03:58:50.632606 23438 net.cpp:131] Top shape: 1000 (1000)
I0501 03:58:50.632609 23438 net.cpp:139] Memory required for data: 12292000
I0501 03:58:50.632616 23438 layer_factory.hpp:77] Creating layer label_cifar_1_split
I0501 03:58:50.632628 23438 net.cpp:86] Creating Layer label_cifar_1_split
I0501 03:58:50.632632 23438 net.cpp:408] label_cifar_1_split <- label
I0501 03:58:50.632639 23438 net.cpp:382] label_cifar_1_split -> label_cifar_1_split_0
I0501 03:58:50.632648 23438 net.cpp:382] label_cifar_1_split -> label_cifar_1_split_1
I0501 03:58:50.632709 23438 net.cpp:124] Setting up label_cifar_1_split
I0501 03:58:50.632715 23438 net.cpp:131] Top shape: 1000 (1000)
I0501 03:58:50.632719 23438 net.cpp:131] Top shape: 1000 (1000)
I0501 03:58:50.632724 23438 net.cpp:139] Memory required for data: 12300000
I0501 03:58:50.632726 23438 layer_factory.hpp:77] Creating layer conv0
I0501 03:58:50.632746 23438 net.cpp:86] Creating Layer conv0
I0501 03:58:50.632750 23438 net.cpp:408] conv0 <- data
I0501 03:58:50.632756 23438 net.cpp:382] conv0 -> conv0
I0501 03:58:50.635298 23438 net.cpp:124] Setting up conv0
I0501 03:58:50.635315 23438 net.cpp:131] Top shape: 1000 8 32 32 (8192000)
I0501 03:58:50.635319 23438 net.cpp:139] Memory required for data: 45068000
I0501 03:58:50.635330 23438 layer_factory.hpp:77] Creating layer Sigmoid0
I0501 03:58:50.635339 23438 net.cpp:86] Creating Layer Sigmoid0
I0501 03:58:50.635341 23438 net.cpp:408] Sigmoid0 <- conv0
I0501 03:58:50.635347 23438 net.cpp:382] Sigmoid0 -> Sigmoid0
I0501 03:58:50.635538 23438 net.cpp:124] Setting up Sigmoid0
I0501 03:58:50.635548 23438 net.cpp:131] Top shape: 1000 8 32 32 (8192000)
I0501 03:58:50.635552 23438 net.cpp:139] Memory required for data: 77836000
I0501 03:58:50.635556 23438 layer_factory.hpp:77] Creating layer pool0
I0501 03:58:50.635565 23438 net.cpp:86] Creating Layer pool0
I0501 03:58:50.635568 23438 net.cpp:408] pool0 <- Sigmoid0
I0501 03:58:50.635573 23438 net.cpp:382] pool0 -> pool0
I0501 03:58:50.635740 23438 net.cpp:124] Setting up pool0
I0501 03:58:50.635748 23438 net.cpp:131] Top shape: 1000 8 16 16 (2048000)
I0501 03:58:50.635751 23438 net.cpp:139] Memory required for data: 86028000
I0501 03:58:50.635756 23438 layer_factory.hpp:77] Creating layer ip1
I0501 03:58:50.635763 23438 net.cpp:86] Creating Layer ip1
I0501 03:58:50.635767 23438 net.cpp:408] ip1 <- pool0
I0501 03:58:50.635772 23438 net.cpp:382] ip1 -> ip1
I0501 03:58:50.637071 23438 net.cpp:124] Setting up ip1
I0501 03:58:50.637080 23438 net.cpp:131] Top shape: 1000 20 (20000)
I0501 03:58:50.637084 23438 net.cpp:139] Memory required for data: 86108000
I0501 03:58:50.637107 23438 layer_factory.hpp:77] Creating layer relu1
I0501 03:58:50.637114 23438 net.cpp:86] Creating Layer relu1
I0501 03:58:50.637118 23438 net.cpp:408] relu1 <- ip1
I0501 03:58:50.637122 23438 net.cpp:369] relu1 -> ip1 (in-place)
I0501 03:58:50.637287 23438 net.cpp:124] Setting up relu1
I0501 03:58:50.637296 23438 net.cpp:131] Top shape: 1000 20 (20000)
I0501 03:58:50.637300 23438 net.cpp:139] Memory required for data: 86188000
I0501 03:58:50.637303 23438 layer_factory.hpp:77] Creating layer ip2
I0501 03:58:50.637310 23438 net.cpp:86] Creating Layer ip2
I0501 03:58:50.637315 23438 net.cpp:408] ip2 <- ip1
I0501 03:58:50.637320 23438 net.cpp:382] ip2 -> ip2
I0501 03:58:50.637435 23438 net.cpp:124] Setting up ip2
I0501 03:58:50.637444 23438 net.cpp:131] Top shape: 1000 20 (20000)
I0501 03:58:50.637447 23438 net.cpp:139] Memory required for data: 86268000
I0501 03:58:50.637454 23438 layer_factory.hpp:77] Creating layer relu2
I0501 03:58:50.637460 23438 net.cpp:86] Creating Layer relu2
I0501 03:58:50.637464 23438 net.cpp:408] relu2 <- ip2
I0501 03:58:50.637467 23438 net.cpp:369] relu2 -> ip2 (in-place)
I0501 03:58:50.638269 23438 net.cpp:124] Setting up relu2
I0501 03:58:50.638283 23438 net.cpp:131] Top shape: 1000 20 (20000)
I0501 03:58:50.638286 23438 net.cpp:139] Memory required for data: 86348000
I0501 03:58:50.638289 23438 layer_factory.hpp:77] Creating layer ip3
I0501 03:58:50.638298 23438 net.cpp:86] Creating Layer ip3
I0501 03:58:50.638300 23438 net.cpp:408] ip3 <- ip2
I0501 03:58:50.638306 23438 net.cpp:382] ip3 -> ip3
I0501 03:58:50.638425 23438 net.cpp:124] Setting up ip3
I0501 03:58:50.638432 23438 net.cpp:131] Top shape: 1000 20 (20000)
I0501 03:58:50.638437 23438 net.cpp:139] Memory required for data: 86428000
I0501 03:58:50.638443 23438 layer_factory.hpp:77] Creating layer relu3
I0501 03:58:50.638448 23438 net.cpp:86] Creating Layer relu3
I0501 03:58:50.638453 23438 net.cpp:408] relu3 <- ip3
I0501 03:58:50.638456 23438 net.cpp:369] relu3 -> ip3 (in-place)
I0501 03:58:50.638607 23438 net.cpp:124] Setting up relu3
I0501 03:58:50.638615 23438 net.cpp:131] Top shape: 1000 20 (20000)
I0501 03:58:50.638618 23438 net.cpp:139] Memory required for data: 86508000
I0501 03:58:50.638622 23438 layer_factory.hpp:77] Creating layer ip4
I0501 03:58:50.638628 23438 net.cpp:86] Creating Layer ip4
I0501 03:58:50.638631 23438 net.cpp:408] ip4 <- ip3
I0501 03:58:50.638636 23438 net.cpp:382] ip4 -> ip4
I0501 03:58:50.638744 23438 net.cpp:124] Setting up ip4
I0501 03:58:50.638752 23438 net.cpp:131] Top shape: 1000 10 (10000)
I0501 03:58:50.638756 23438 net.cpp:139] Memory required for data: 86548000
I0501 03:58:50.638764 23438 layer_factory.hpp:77] Creating layer ip4_ip4_0_split
I0501 03:58:50.638769 23438 net.cpp:86] Creating Layer ip4_ip4_0_split
I0501 03:58:50.638772 23438 net.cpp:408] ip4_ip4_0_split <- ip4
I0501 03:58:50.638777 23438 net.cpp:382] ip4_ip4_0_split -> ip4_ip4_0_split_0
I0501 03:58:50.638782 23438 net.cpp:382] ip4_ip4_0_split -> ip4_ip4_0_split_1
I0501 03:58:50.638813 23438 net.cpp:124] Setting up ip4_ip4_0_split
I0501 03:58:50.638818 23438 net.cpp:131] Top shape: 1000 10 (10000)
I0501 03:58:50.638823 23438 net.cpp:131] Top shape: 1000 10 (10000)
I0501 03:58:50.638826 23438 net.cpp:139] Memory required for data: 86628000
I0501 03:58:50.638829 23438 layer_factory.hpp:77] Creating layer accuracy
I0501 03:58:50.638835 23438 net.cpp:86] Creating Layer accuracy
I0501 03:58:50.638839 23438 net.cpp:408] accuracy <- ip4_ip4_0_split_0
I0501 03:58:50.638842 23438 net.cpp:408] accuracy <- label_cifar_1_split_0
I0501 03:58:50.638847 23438 net.cpp:382] accuracy -> accuracy
…
