…
I0501 04:08:08.345306 24025 net.cpp:296] The NetState phase (0) differed from the phase (1) specified by a rule in layer cifar
I0501 04:08:08.345327 24025 net.cpp:296] The NetState phase (0) differed from the phase (1) specified by a rule in layer accuracy
I0501 04:08:08.345435 24025 net.cpp:53] Initializing net from parameters: 
name: "CIFAR"
state {
  phase: TRAIN
  level: 0
  stage: ""
}
layer {
  name: "cifar"
  type: "Data"
  top: "data"
  top: "label"
  include {
    phase: TRAIN
  }
  transform_param {
    mean_file: "examples/cifar10/mean.binaryproto"
  }
  data_param {
    source: "examples/cifar10/cifar10_train_lmdb"
    batch_size: 111
    backend: LMDB
  }
}
layer {
  name: "conv0"
  type: "Convolution"
  bottom: "data"
  top: "conv0"
  param {
    lr_mult: 1
  }
  param {
    lr_mult: 2
  }
  convolution_param {
    num_output: 8
    pad: 2
    kernel_size: 5
    stride: 1
    weight_filler {
      type: "gaussian"
      std: 0.01
    }
    bias_filler {
      type: "constant"
    }
  }
}
layer {
  name: "Sigmoid0"
  type: "Sigmoid"
  bottom: "conv0"
  top: "Sigmoid0"
}
layer {
  name: "pool0"
  type: "Pooling"
  bottom: "Sigmoid0"
  top: "pool0"
  pooling_param {
    pool: AVE
    kernel_size: 3
    stride: 2
  }
}
layer {
  name: "ip1"
  type: "InnerProduct"
  bottom: "pool0"
  top: "ip1"
  param {
    lr_mult: 1
  }
  param {
    lr_mult: 2
  }
  inner_product_param {
    num_output: 20
    weight_filler {
      type: "gaussian"
      std: 0.01
    }
    bias_filler {
      type: "constant"
    }
  }
}
layer {
  name: "relu1"
  type: "ReLU"
  bottom: "ip1"
  top: "ip1"
}
layer {
  name: "ip2"
  type: "InnerProduct"
  bottom: "ip1"
  top: "ip2"
  param {
    lr_mult: 1
  }
  param {
    lr_mult: 2
  }
  inner_product_param {
    num_output: 40
    weight_filler {
      type: "gaussian"
      std: 0.01
    }
    bias_filler {
      type: "constant"
    }
  }
}
layer {
  name: "relu2"
  type: "ReLU"
  bottom: "ip2"
  top: "ip2"
}
layer {
  name: "ip3"
  type: "InnerProduct"
  bottom: "ip2"
  top: "ip3"
  param {
    lr_mult: 1
  }
  param {
    lr_mult: 2
  }
  inner_product_param {
    num_output: 20
    weight_filler {
      type: "gaussian"
      std: 0.01
    }
    bias_filler {
      type: "constant"
    }
  }
}
layer {
  name: "relu3"
  type: "ReLU"
  bottom: "ip3"
  top: "ip3"
}
layer {
  name: "ip4"
  type: "InnerProduct"
  bottom: "ip3"
  top: "ip4"
  param {
    lr_mult: 1
  }
  param {
    lr_mult: 2
  }
  inner_product_param {
    num_output: 10
    weight_filler {
      type: "gaussian"
      std: 0.01
    }
    bias_filler {
      type: "constant"
    }
  }
}
layer {
  name: "loss"
  type: "SoftmaxWithLoss"
  bottom: "ip4"
  bottom: "label"
  top: "loss"
}
I0501 04:08:08.345515 24025 layer_factory.hpp:77] Creating layer cifar
I0501 04:08:08.345615 24025 db_lmdb.cpp:35] Opened lmdb examples/cifar10/cifar10_train_lmdb
I0501 04:08:08.345643 24025 net.cpp:86] Creating Layer cifar
I0501 04:08:08.345654 24025 net.cpp:382] cifar -> data
I0501 04:08:08.345680 24025 net.cpp:382] cifar -> label
I0501 04:08:08.345692 24025 data_transformer.cpp:25] Loading mean file from: examples/cifar10/mean.binaryproto
I0501 04:08:08.347812 24025 data_layer.cpp:45] output data size: 111,3,32,32
I0501 04:08:08.355667 24025 net.cpp:124] Setting up cifar
I0501 04:08:08.355686 24025 net.cpp:131] Top shape: 111 3 32 32 (340992)
I0501 04:08:08.355692 24025 net.cpp:131] Top shape: 111 (111)
I0501 04:08:08.355696 24025 net.cpp:139] Memory required for data: 1364412
I0501 04:08:08.355720 24025 layer_factory.hpp:77] Creating layer conv0
I0501 04:08:08.355738 24025 net.cpp:86] Creating Layer conv0
I0501 04:08:08.355744 24025 net.cpp:408] conv0 <- data
I0501 04:08:08.355758 24025 net.cpp:382] conv0 -> conv0
I0501 04:08:08.642983 24025 net.cpp:124] Setting up conv0
I0501 04:08:08.643010 24025 net.cpp:131] Top shape: 111 8 32 32 (909312)
I0501 04:08:08.643014 24025 net.cpp:139] Memory required for data: 5001660
I0501 04:08:08.643029 24025 layer_factory.hpp:77] Creating layer Sigmoid0
I0501 04:08:08.643043 24025 net.cpp:86] Creating Layer Sigmoid0
I0501 04:08:08.643046 24025 net.cpp:408] Sigmoid0 <- conv0
I0501 04:08:08.643052 24025 net.cpp:382] Sigmoid0 -> Sigmoid0
I0501 04:08:08.643223 24025 net.cpp:124] Setting up Sigmoid0
I0501 04:08:08.643232 24025 net.cpp:131] Top shape: 111 8 32 32 (909312)
I0501 04:08:08.643235 24025 net.cpp:139] Memory required for data: 8638908
I0501 04:08:08.643239 24025 layer_factory.hpp:77] Creating layer pool0
I0501 04:08:08.643246 24025 net.cpp:86] Creating Layer pool0
I0501 04:08:08.643249 24025 net.cpp:408] pool0 <- Sigmoid0
I0501 04:08:08.643254 24025 net.cpp:382] pool0 -> pool0
I0501 04:08:08.644018 24025 net.cpp:124] Setting up pool0
I0501 04:08:08.644032 24025 net.cpp:131] Top shape: 111 8 16 16 (227328)
I0501 04:08:08.644035 24025 net.cpp:139] Memory required for data: 9548220
I0501 04:08:08.644039 24025 layer_factory.hpp:77] Creating layer ip1
I0501 04:08:08.644049 24025 net.cpp:86] Creating Layer ip1
I0501 04:08:08.644052 24025 net.cpp:408] ip1 <- pool0
I0501 04:08:08.644058 24025 net.cpp:382] ip1 -> ip1
I0501 04:08:08.646162 24025 net.cpp:124] Setting up ip1
I0501 04:08:08.646175 24025 net.cpp:131] Top shape: 111 20 (2220)
I0501 04:08:08.646178 24025 net.cpp:139] Memory required for data: 9557100
I0501 04:08:08.646186 24025 layer_factory.hpp:77] Creating layer relu1
I0501 04:08:08.646193 24025 net.cpp:86] Creating Layer relu1
I0501 04:08:08.646196 24025 net.cpp:408] relu1 <- ip1
I0501 04:08:08.646201 24025 net.cpp:369] relu1 -> ip1 (in-place)
I0501 04:08:08.646354 24025 net.cpp:124] Setting up relu1
I0501 04:08:08.646363 24025 net.cpp:131] Top shape: 111 20 (2220)
I0501 04:08:08.646366 24025 net.cpp:139] Memory required for data: 9565980
I0501 04:08:08.646369 24025 layer_factory.hpp:77] Creating layer ip2
I0501 04:08:08.646376 24025 net.cpp:86] Creating Layer ip2
I0501 04:08:08.646379 24025 net.cpp:408] ip2 <- ip1
I0501 04:08:08.646384 24025 net.cpp:382] ip2 -> ip2
I0501 04:08:08.646498 24025 net.cpp:124] Setting up ip2
I0501 04:08:08.646505 24025 net.cpp:131] Top shape: 111 40 (4440)
I0501 04:08:08.646508 24025 net.cpp:139] Memory required for data: 9583740
I0501 04:08:08.646517 24025 layer_factory.hpp:77] Creating layer relu2
I0501 04:08:08.646520 24025 net.cpp:86] Creating Layer relu2
I0501 04:08:08.646524 24025 net.cpp:408] relu2 <- ip2
I0501 04:08:08.646528 24025 net.cpp:369] relu2 -> ip2 (in-place)
I0501 04:08:08.646674 24025 net.cpp:124] Setting up relu2
I0501 04:08:08.646682 24025 net.cpp:131] Top shape: 111 40 (4440)
I0501 04:08:08.646685 24025 net.cpp:139] Memory required for data: 9601500
I0501 04:08:08.646688 24025 layer_factory.hpp:77] Creating layer ip3
I0501 04:08:08.646695 24025 net.cpp:86] Creating Layer ip3
I0501 04:08:08.646698 24025 net.cpp:408] ip3 <- ip2
I0501 04:08:08.646703 24025 net.cpp:382] ip3 -> ip3
I0501 04:08:08.646816 24025 net.cpp:124] Setting up ip3
I0501 04:08:08.646822 24025 net.cpp:131] Top shape: 111 20 (2220)
I0501 04:08:08.646826 24025 net.cpp:139] Memory required for data: 9610380
I0501 04:08:08.646831 24025 layer_factory.hpp:77] Creating layer relu3
I0501 04:08:08.646836 24025 net.cpp:86] Creating Layer relu3
I0501 04:08:08.646838 24025 net.cpp:408] relu3 <- ip3
I0501 04:08:08.646842 24025 net.cpp:369] relu3 -> ip3 (in-place)
I0501 04:08:08.646983 24025 net.cpp:124] Setting up relu3
I0501 04:08:08.646991 24025 net.cpp:131] Top shape: 111 20 (2220)
I0501 04:08:08.646993 24025 net.cpp:139] Memory required for data: 9619260
I0501 04:08:08.646997 24025 layer_factory.hpp:77] Creating layer ip4
I0501 04:08:08.647018 24025 net.cpp:86] Creating Layer ip4
I0501 04:08:08.647022 24025 net.cpp:408] ip4 <- ip3
I0501 04:08:08.647027 24025 net.cpp:382] ip4 -> ip4
I0501 04:08:08.647120 24025 net.cpp:124] Setting up ip4
I0501 04:08:08.647127 24025 net.cpp:131] Top shape: 111 10 (1110)
I0501 04:08:08.647130 24025 net.cpp:139] Memory required for data: 9623700
I0501 04:08:08.647137 24025 layer_factory.hpp:77] Creating layer loss
I0501 04:08:08.647143 24025 net.cpp:86] Creating Layer loss
I0501 04:08:08.647146 24025 net.cpp:408] loss <- ip4
I0501 04:08:08.647150 24025 net.cpp:408] loss <- label
I0501 04:08:08.647156 24025 net.cpp:382] loss -> loss
I0501 04:08:08.647171 24025 layer_factory.hpp:77] Creating layer loss
…
I0501 04:08:08.648353 24025 solver.cpp:173] Creating test net (#0) specified by net file: ECE595/cifar/train_test/var_everything/cifar_train_test_376.prototxt
I0501 04:08:08.648381 24025 net.cpp:296] The NetState phase (1) differed from the phase (0) specified by a rule in layer cifar
I0501 04:08:08.648473 24025 net.cpp:53] Initializing net from parameters: 
name: "CIFAR"
state {
  phase: TEST
}
layer {
  name: "cifar"
  type: "Data"
  top: "data"
  top: "label"
  include {
    phase: TEST
  }
  transform_param {
    mean_file: "examples/cifar10/mean.binaryproto"
  }
  data_param {
    source: "examples/cifar10/cifar10_test_lmdb"
    batch_size: 1000
    backend: LMDB
  }
}
layer {
  name: "conv0"
  type: "Convolution"
  bottom: "data"
  top: "conv0"
  param {
    lr_mult: 1
  }
  param {
    lr_mult: 2
  }
  convolution_param {
    num_output: 8
    pad: 2
    kernel_size: 5
    stride: 1
    weight_filler {
      type: "gaussian"
      std: 0.01
    }
    bias_filler {
      type: "constant"
    }
  }
}
layer {
  name: "Sigmoid0"
  type: "Sigmoid"
  bottom: "conv0"
  top: "Sigmoid0"
}
layer {
  name: "pool0"
  type: "Pooling"
  bottom: "Sigmoid0"
  top: "pool0"
  pooling_param {
    pool: AVE
    kernel_size: 3
    stride: 2
  }
}
layer {
  name: "ip1"
  type: "InnerProduct"
  bottom: "pool0"
  top: "ip1"
  param {
    lr_mult: 1
  }
  param {
    lr_mult: 2
  }
  inner_product_param {
    num_output: 20
    weight_filler {
      type: "gaussian"
      std: 0.01
    }
    bias_filler {
      type: "constant"
    }
  }
}
layer {
  name: "relu1"
  type: "ReLU"
  bottom: "ip1"
  top: "ip1"
}
layer {
  name: "ip2"
  type: "InnerProduct"
  bottom: "ip1"
  top: "ip2"
  param {
    lr_mult: 1
  }
  param {
    lr_mult: 2
  }
  inner_product_param {
    num_output: 40
    weight_filler {
      type: "gaussian"
      std: 0.01
    }
    bias_filler {
      type: "constant"
    }
  }
}
layer {
  name: "relu2"
  type: "ReLU"
  bottom: "ip2"
  top: "ip2"
}
layer {
  name: "ip3"
  type: "InnerProduct"
  bottom: "ip2"
  top: "ip3"
  param {
    lr_mult: 1
  }
  param {
    lr_mult: 2
  }
  inner_product_param {
    num_output: 20
    weight_filler {
      type: "gaussian"
      std: 0.01
    }
    bias_filler {
      type: "constant"
    }
  }
}
layer {
  name: "relu3"
  type: "ReLU"
  bottom: "ip3"
  top: "ip3"
}
layer {
  name: "ip4"
  type: "InnerProduct"
  bottom: "ip3"
  top: "ip4"
  param {
    lr_mult: 1
  }
  param {
    lr_mult: 2
  }
  inner_product_param {
    num_output: 10
    weight_filler {
      type: "gaussian"
      std: 0.01
    }
    bias_filler {
      type: "constant"
    }
  }
}
layer {
  name: "accuracy"
  type: "Accuracy"
  bottom: "ip4"
  bottom: "label"
  top: "accuracy"
  include {
    phase: TEST
  }
}
layer {
  name: "loss"
  type: "SoftmaxWithLoss"
  bottom: "ip4"
  bottom: "label"
  top: "loss"
}
I0501 04:08:08.648551 24025 layer_factory.hpp:77] Creating layer cifar
I0501 04:08:08.648597 24025 db_lmdb.cpp:35] Opened lmdb examples/cifar10/cifar10_test_lmdb
I0501 04:08:08.648607 24025 net.cpp:86] Creating Layer cifar
I0501 04:08:08.648612 24025 net.cpp:382] cifar -> data
I0501 04:08:08.648619 24025 net.cpp:382] cifar -> label
I0501 04:08:08.648627 24025 data_transformer.cpp:25] Loading mean file from: examples/cifar10/mean.binaryproto
I0501 04:08:08.648766 24025 data_layer.cpp:45] output data size: 1000,3,32,32
I0501 04:08:08.670706 24025 net.cpp:124] Setting up cifar
I0501 04:08:08.670732 24025 net.cpp:131] Top shape: 1000 3 32 32 (3072000)
I0501 04:08:08.670737 24025 net.cpp:131] Top shape: 1000 (1000)
I0501 04:08:08.670755 24025 net.cpp:139] Memory required for data: 12292000
I0501 04:08:08.670760 24025 layer_factory.hpp:77] Creating layer label_cifar_1_split
I0501 04:08:08.670775 24025 net.cpp:86] Creating Layer label_cifar_1_split
I0501 04:08:08.670779 24025 net.cpp:408] label_cifar_1_split <- label
I0501 04:08:08.670785 24025 net.cpp:382] label_cifar_1_split -> label_cifar_1_split_0
I0501 04:08:08.670794 24025 net.cpp:382] label_cifar_1_split -> label_cifar_1_split_1
I0501 04:08:08.670894 24025 net.cpp:124] Setting up label_cifar_1_split
I0501 04:08:08.670902 24025 net.cpp:131] Top shape: 1000 (1000)
I0501 04:08:08.670905 24025 net.cpp:131] Top shape: 1000 (1000)
I0501 04:08:08.670908 24025 net.cpp:139] Memory required for data: 12300000
I0501 04:08:08.670910 24025 layer_factory.hpp:77] Creating layer conv0
I0501 04:08:08.670922 24025 net.cpp:86] Creating Layer conv0
I0501 04:08:08.670925 24025 net.cpp:408] conv0 <- data
I0501 04:08:08.670930 24025 net.cpp:382] conv0 -> conv0
I0501 04:08:08.672602 24025 net.cpp:124] Setting up conv0
I0501 04:08:08.672616 24025 net.cpp:131] Top shape: 1000 8 32 32 (8192000)
I0501 04:08:08.672619 24025 net.cpp:139] Memory required for data: 45068000
I0501 04:08:08.672628 24025 layer_factory.hpp:77] Creating layer Sigmoid0
I0501 04:08:08.672634 24025 net.cpp:86] Creating Layer Sigmoid0
I0501 04:08:08.672637 24025 net.cpp:408] Sigmoid0 <- conv0
I0501 04:08:08.672641 24025 net.cpp:382] Sigmoid0 -> Sigmoid0
I0501 04:08:08.672843 24025 net.cpp:124] Setting up Sigmoid0
I0501 04:08:08.672852 24025 net.cpp:131] Top shape: 1000 8 32 32 (8192000)
I0501 04:08:08.672855 24025 net.cpp:139] Memory required for data: 77836000
I0501 04:08:08.672859 24025 layer_factory.hpp:77] Creating layer pool0
I0501 04:08:08.672883 24025 net.cpp:86] Creating Layer pool0
I0501 04:08:08.672886 24025 net.cpp:408] pool0 <- Sigmoid0
I0501 04:08:08.672891 24025 net.cpp:382] pool0 -> pool0
I0501 04:08:08.673069 24025 net.cpp:124] Setting up pool0
I0501 04:08:08.673076 24025 net.cpp:131] Top shape: 1000 8 16 16 (2048000)
I0501 04:08:08.673079 24025 net.cpp:139] Memory required for data: 86028000
I0501 04:08:08.673082 24025 layer_factory.hpp:77] Creating layer ip1
I0501 04:08:08.673090 24025 net.cpp:86] Creating Layer ip1
I0501 04:08:08.673094 24025 net.cpp:408] ip1 <- pool0
I0501 04:08:08.673099 24025 net.cpp:382] ip1 -> ip1
I0501 04:08:08.674397 24025 net.cpp:124] Setting up ip1
I0501 04:08:08.674407 24025 net.cpp:131] Top shape: 1000 20 (20000)
I0501 04:08:08.674409 24025 net.cpp:139] Memory required for data: 86108000
I0501 04:08:08.674448 24025 layer_factory.hpp:77] Creating layer relu1
I0501 04:08:08.674454 24025 net.cpp:86] Creating Layer relu1
I0501 04:08:08.674458 24025 net.cpp:408] relu1 <- ip1
I0501 04:08:08.674463 24025 net.cpp:369] relu1 -> ip1 (in-place)
I0501 04:08:08.674618 24025 net.cpp:124] Setting up relu1
I0501 04:08:08.674625 24025 net.cpp:131] Top shape: 1000 20 (20000)
I0501 04:08:08.674629 24025 net.cpp:139] Memory required for data: 86188000
I0501 04:08:08.674633 24025 layer_factory.hpp:77] Creating layer ip2
I0501 04:08:08.674638 24025 net.cpp:86] Creating Layer ip2
I0501 04:08:08.674641 24025 net.cpp:408] ip2 <- ip1
I0501 04:08:08.674646 24025 net.cpp:382] ip2 -> ip2
I0501 04:08:08.674765 24025 net.cpp:124] Setting up ip2
I0501 04:08:08.674772 24025 net.cpp:131] Top shape: 1000 40 (40000)
I0501 04:08:08.674777 24025 net.cpp:139] Memory required for data: 86348000
I0501 04:08:08.674782 24025 layer_factory.hpp:77] Creating layer relu2
I0501 04:08:08.674788 24025 net.cpp:86] Creating Layer relu2
I0501 04:08:08.674792 24025 net.cpp:408] relu2 <- ip2
I0501 04:08:08.674795 24025 net.cpp:369] relu2 -> ip2 (in-place)
I0501 04:08:08.675518 24025 net.cpp:124] Setting up relu2
I0501 04:08:08.675530 24025 net.cpp:131] Top shape: 1000 40 (40000)
I0501 04:08:08.675534 24025 net.cpp:139] Memory required for data: 86508000
I0501 04:08:08.675537 24025 layer_factory.hpp:77] Creating layer ip3
I0501 04:08:08.675544 24025 net.cpp:86] Creating Layer ip3
I0501 04:08:08.675547 24025 net.cpp:408] ip3 <- ip2
I0501 04:08:08.675552 24025 net.cpp:382] ip3 -> ip3
I0501 04:08:08.675668 24025 net.cpp:124] Setting up ip3
I0501 04:08:08.675674 24025 net.cpp:131] Top shape: 1000 20 (20000)
I0501 04:08:08.675678 24025 net.cpp:139] Memory required for data: 86588000
I0501 04:08:08.675683 24025 layer_factory.hpp:77] Creating layer relu3
I0501 04:08:08.675688 24025 net.cpp:86] Creating Layer relu3
I0501 04:08:08.675691 24025 net.cpp:408] relu3 <- ip3
I0501 04:08:08.675695 24025 net.cpp:369] relu3 -> ip3 (in-place)
I0501 04:08:08.675833 24025 net.cpp:124] Setting up relu3
I0501 04:08:08.675840 24025 net.cpp:131] Top shape: 1000 20 (20000)
I0501 04:08:08.675843 24025 net.cpp:139] Memory required for data: 86668000
I0501 04:08:08.675846 24025 layer_factory.hpp:77] Creating layer ip4
I0501 04:08:08.675853 24025 net.cpp:86] Creating Layer ip4
I0501 04:08:08.675855 24025 net.cpp:408] ip4 <- ip3
I0501 04:08:08.675860 24025 net.cpp:382] ip4 -> ip4
I0501 04:08:08.676007 24025 net.cpp:124] Setting up ip4
I0501 04:08:08.676030 24025 net.cpp:131] Top shape: 1000 10 (10000)
I0501 04:08:08.676033 24025 net.cpp:139] Memory required for data: 86708000
I0501 04:08:08.676043 24025 layer_factory.hpp:77] Creating layer ip4_ip4_0_split
I0501 04:08:08.676048 24025 net.cpp:86] Creating Layer ip4_ip4_0_split
I0501 04:08:08.676053 24025 net.cpp:408] ip4_ip4_0_split <- ip4
I0501 04:08:08.676081 24025 net.cpp:382] ip4_ip4_0_split -> ip4_ip4_0_split_0
I0501 04:08:08.676089 24025 net.cpp:382] ip4_ip4_0_split -> ip4_ip4_0_split_1
I0501 04:08:08.676126 24025 net.cpp:124] Setting up ip4_ip4_0_split
I0501 04:08:08.676131 24025 net.cpp:131] Top shape: 1000 10 (10000)
I0501 04:08:08.676136 24025 net.cpp:131] Top shape: 1000 10 (10000)
I0501 04:08:08.676138 24025 net.cpp:139] Memory required for data: 86788000
I0501 04:08:08.676141 24025 layer_factory.hpp:77] Creating layer accuracy
I0501 04:08:08.676148 24025 net.cpp:86] Creating Layer accuracy
I0501 04:08:08.676151 24025 net.cpp:408] accuracy <- ip4_ip4_0_split_0
I0501 04:08:08.676156 24025 net.cpp:408] accuracy <- label_cifar_1_split_0
I0501 04:08:08.676161 24025 net.cpp:382] accuracy -> accuracy
…
