…
I0501 04:21:12.539386 24848 net.cpp:296] The NetState phase (0) differed from the phase (1) specified by a rule in layer cifar
I0501 04:21:12.539417 24848 net.cpp:296] The NetState phase (0) differed from the phase (1) specified by a rule in layer accuracy
I0501 04:21:12.539526 24848 net.cpp:53] Initializing net from parameters: 
name: "CIFAR"
state {
  phase: TRAIN
  level: 0
  stage: ""
}
layer {
  name: "cifar"
  type: "Data"
  top: "data"
  top: "label"
  include {
    phase: TRAIN
  }
  transform_param {
    mean_file: "examples/cifar10/mean.binaryproto"
  }
  data_param {
    source: "examples/cifar10/cifar10_train_lmdb"
    batch_size: 111
    backend: LMDB
  }
}
layer {
  name: "conv0"
  type: "Convolution"
  bottom: "data"
  top: "conv0"
  param {
    lr_mult: 1
  }
  param {
    lr_mult: 2
  }
  convolution_param {
    num_output: 8
    pad: 2
    kernel_size: 5
    stride: 1
    weight_filler {
      type: "gaussian"
      std: 0.01
    }
    bias_filler {
      type: "constant"
    }
  }
}
layer {
  name: "Sigmoid0"
  type: "Sigmoid"
  bottom: "conv0"
  top: "Sigmoid0"
}
layer {
  name: "pool0"
  type: "Pooling"
  bottom: "Sigmoid0"
  top: "pool0"
  pooling_param {
    pool: AVE
    kernel_size: 3
    stride: 2
  }
}
layer {
  name: "ip1"
  type: "InnerProduct"
  bottom: "pool0"
  top: "ip1"
  param {
    lr_mult: 1
  }
  param {
    lr_mult: 2
  }
  inner_product_param {
    num_output: 20
    weight_filler {
      type: "gaussian"
      std: 0.01
    }
    bias_filler {
      type: "constant"
    }
  }
}
layer {
  name: "relu1"
  type: "ReLU"
  bottom: "ip1"
  top: "ip1"
}
layer {
  name: "ip2"
  type: "InnerProduct"
  bottom: "ip1"
  top: "ip2"
  param {
    lr_mult: 1
  }
  param {
    lr_mult: 2
  }
  inner_product_param {
    num_output: 80
    weight_filler {
      type: "gaussian"
      std: 0.01
    }
    bias_filler {
      type: "constant"
    }
  }
}
layer {
  name: "relu2"
  type: "ReLU"
  bottom: "ip2"
  top: "ip2"
}
layer {
  name: "ip3"
  type: "InnerProduct"
  bottom: "ip2"
  top: "ip3"
  param {
    lr_mult: 1
  }
  param {
    lr_mult: 2
  }
  inner_product_param {
    num_output: 80
    weight_filler {
      type: "gaussian"
      std: 0.01
    }
    bias_filler {
      type: "constant"
    }
  }
}
layer {
  name: "relu3"
  type: "ReLU"
  bottom: "ip3"
  top: "ip3"
}
layer {
  name: "ip4"
  type: "InnerProduct"
  bottom: "ip3"
  top: "ip4"
  param {
    lr_mult: 1
  }
  param {
    lr_mult: 2
  }
  inner_product_param {
    num_output: 10
    weight_filler {
      type: "gaussian"
      std: 0.01
    }
    bias_filler {
      type: "constant"
    }
  }
}
layer {
  name: "loss"
  type: "SoftmaxWithLoss"
  bottom: "ip4"
  bottom: "label"
  top: "loss"
}
I0501 04:21:12.539589 24848 layer_factory.hpp:77] Creating layer cifar
I0501 04:21:12.539669 24848 db_lmdb.cpp:35] Opened lmdb examples/cifar10/cifar10_train_lmdb
I0501 04:21:12.539690 24848 net.cpp:86] Creating Layer cifar
I0501 04:21:12.539697 24848 net.cpp:382] cifar -> data
I0501 04:21:12.539716 24848 net.cpp:382] cifar -> label
I0501 04:21:12.539726 24848 data_transformer.cpp:25] Loading mean file from: examples/cifar10/mean.binaryproto
I0501 04:21:12.541527 24848 data_layer.cpp:45] output data size: 111,3,32,32
I0501 04:21:12.548280 24848 net.cpp:124] Setting up cifar
I0501 04:21:12.548295 24848 net.cpp:131] Top shape: 111 3 32 32 (340992)
I0501 04:21:12.548300 24848 net.cpp:131] Top shape: 111 (111)
I0501 04:21:12.548303 24848 net.cpp:139] Memory required for data: 1364412
I0501 04:21:12.548321 24848 layer_factory.hpp:77] Creating layer conv0
I0501 04:21:12.548337 24848 net.cpp:86] Creating Layer conv0
I0501 04:21:12.548342 24848 net.cpp:408] conv0 <- data
I0501 04:21:12.548352 24848 net.cpp:382] conv0 -> conv0
I0501 04:21:12.779487 24848 net.cpp:124] Setting up conv0
I0501 04:21:12.779530 24848 net.cpp:131] Top shape: 111 8 32 32 (909312)
I0501 04:21:12.779533 24848 net.cpp:139] Memory required for data: 5001660
I0501 04:21:12.779547 24848 layer_factory.hpp:77] Creating layer Sigmoid0
I0501 04:21:12.779559 24848 net.cpp:86] Creating Layer Sigmoid0
I0501 04:21:12.779563 24848 net.cpp:408] Sigmoid0 <- conv0
I0501 04:21:12.779569 24848 net.cpp:382] Sigmoid0 -> Sigmoid0
I0501 04:21:12.779783 24848 net.cpp:124] Setting up Sigmoid0
I0501 04:21:12.779793 24848 net.cpp:131] Top shape: 111 8 32 32 (909312)
I0501 04:21:12.779795 24848 net.cpp:139] Memory required for data: 8638908
I0501 04:21:12.779798 24848 layer_factory.hpp:77] Creating layer pool0
I0501 04:21:12.779805 24848 net.cpp:86] Creating Layer pool0
I0501 04:21:12.779808 24848 net.cpp:408] pool0 <- Sigmoid0
I0501 04:21:12.779813 24848 net.cpp:382] pool0 -> pool0
I0501 04:21:12.780532 24848 net.cpp:124] Setting up pool0
I0501 04:21:12.780544 24848 net.cpp:131] Top shape: 111 8 16 16 (227328)
I0501 04:21:12.780547 24848 net.cpp:139] Memory required for data: 9548220
I0501 04:21:12.780550 24848 layer_factory.hpp:77] Creating layer ip1
I0501 04:21:12.780558 24848 net.cpp:86] Creating Layer ip1
I0501 04:21:12.780561 24848 net.cpp:408] ip1 <- pool0
I0501 04:21:12.780566 24848 net.cpp:382] ip1 -> ip1
I0501 04:21:12.782536 24848 net.cpp:124] Setting up ip1
I0501 04:21:12.782547 24848 net.cpp:131] Top shape: 111 20 (2220)
I0501 04:21:12.782551 24848 net.cpp:139] Memory required for data: 9557100
I0501 04:21:12.782557 24848 layer_factory.hpp:77] Creating layer relu1
I0501 04:21:12.782563 24848 net.cpp:86] Creating Layer relu1
I0501 04:21:12.782567 24848 net.cpp:408] relu1 <- ip1
I0501 04:21:12.782570 24848 net.cpp:369] relu1 -> ip1 (in-place)
I0501 04:21:12.782733 24848 net.cpp:124] Setting up relu1
I0501 04:21:12.782742 24848 net.cpp:131] Top shape: 111 20 (2220)
I0501 04:21:12.782745 24848 net.cpp:139] Memory required for data: 9565980
I0501 04:21:12.782748 24848 layer_factory.hpp:77] Creating layer ip2
I0501 04:21:12.782754 24848 net.cpp:86] Creating Layer ip2
I0501 04:21:12.782757 24848 net.cpp:408] ip2 <- ip1
I0501 04:21:12.782763 24848 net.cpp:382] ip2 -> ip2
I0501 04:21:12.782892 24848 net.cpp:124] Setting up ip2
I0501 04:21:12.782899 24848 net.cpp:131] Top shape: 111 80 (8880)
I0501 04:21:12.782902 24848 net.cpp:139] Memory required for data: 9601500
I0501 04:21:12.782909 24848 layer_factory.hpp:77] Creating layer relu2
I0501 04:21:12.782913 24848 net.cpp:86] Creating Layer relu2
I0501 04:21:12.782932 24848 net.cpp:408] relu2 <- ip2
I0501 04:21:12.782937 24848 net.cpp:369] relu2 -> ip2 (in-place)
I0501 04:21:12.783083 24848 net.cpp:124] Setting up relu2
I0501 04:21:12.783092 24848 net.cpp:131] Top shape: 111 80 (8880)
I0501 04:21:12.783095 24848 net.cpp:139] Memory required for data: 9637020
I0501 04:21:12.783098 24848 layer_factory.hpp:77] Creating layer ip3
I0501 04:21:12.783105 24848 net.cpp:86] Creating Layer ip3
I0501 04:21:12.783108 24848 net.cpp:408] ip3 <- ip2
I0501 04:21:12.783113 24848 net.cpp:382] ip3 -> ip3
I0501 04:21:12.784235 24848 net.cpp:124] Setting up ip3
I0501 04:21:12.784245 24848 net.cpp:131] Top shape: 111 80 (8880)
I0501 04:21:12.784265 24848 net.cpp:139] Memory required for data: 9672540
I0501 04:21:12.784270 24848 layer_factory.hpp:77] Creating layer relu3
I0501 04:21:12.784274 24848 net.cpp:86] Creating Layer relu3
I0501 04:21:12.784277 24848 net.cpp:408] relu3 <- ip3
I0501 04:21:12.784282 24848 net.cpp:369] relu3 -> ip3 (in-place)
I0501 04:21:12.784459 24848 net.cpp:124] Setting up relu3
I0501 04:21:12.784468 24848 net.cpp:131] Top shape: 111 80 (8880)
I0501 04:21:12.784471 24848 net.cpp:139] Memory required for data: 9708060
I0501 04:21:12.784474 24848 layer_factory.hpp:77] Creating layer ip4
I0501 04:21:12.784494 24848 net.cpp:86] Creating Layer ip4
I0501 04:21:12.784497 24848 net.cpp:408] ip4 <- ip3
I0501 04:21:12.784502 24848 net.cpp:382] ip4 -> ip4
I0501 04:21:12.784627 24848 net.cpp:124] Setting up ip4
I0501 04:21:12.784636 24848 net.cpp:131] Top shape: 111 10 (1110)
I0501 04:21:12.784638 24848 net.cpp:139] Memory required for data: 9712500
I0501 04:21:12.784646 24848 layer_factory.hpp:77] Creating layer loss
I0501 04:21:12.784651 24848 net.cpp:86] Creating Layer loss
I0501 04:21:12.784653 24848 net.cpp:408] loss <- ip4
I0501 04:21:12.784657 24848 net.cpp:408] loss <- label
I0501 04:21:12.784662 24848 net.cpp:382] loss -> loss
I0501 04:21:12.784682 24848 layer_factory.hpp:77] Creating layer loss
…
I0501 04:21:12.786043 24848 solver.cpp:173] Creating test net (#0) specified by net file: ECE595/cifar/train_test/var_everything/cifar_train_test_383.prototxt
I0501 04:21:12.786070 24848 net.cpp:296] The NetState phase (1) differed from the phase (0) specified by a rule in layer cifar
I0501 04:21:12.786187 24848 net.cpp:53] Initializing net from parameters: 
name: "CIFAR"
state {
  phase: TEST
}
layer {
  name: "cifar"
  type: "Data"
  top: "data"
  top: "label"
  include {
    phase: TEST
  }
  transform_param {
    mean_file: "examples/cifar10/mean.binaryproto"
  }
  data_param {
    source: "examples/cifar10/cifar10_test_lmdb"
    batch_size: 1000
    backend: LMDB
  }
}
layer {
  name: "conv0"
  type: "Convolution"
  bottom: "data"
  top: "conv0"
  param {
    lr_mult: 1
  }
  param {
    lr_mult: 2
  }
  convolution_param {
    num_output: 8
    pad: 2
    kernel_size: 5
    stride: 1
    weight_filler {
      type: "gaussian"
      std: 0.01
    }
    bias_filler {
      type: "constant"
    }
  }
}
layer {
  name: "Sigmoid0"
  type: "Sigmoid"
  bottom: "conv0"
  top: "Sigmoid0"
}
layer {
  name: "pool0"
  type: "Pooling"
  bottom: "Sigmoid0"
  top: "pool0"
  pooling_param {
    pool: AVE
    kernel_size: 3
    stride: 2
  }
}
layer {
  name: "ip1"
  type: "InnerProduct"
  bottom: "pool0"
  top: "ip1"
  param {
    lr_mult: 1
  }
  param {
    lr_mult: 2
  }
  inner_product_param {
    num_output: 20
    weight_filler {
      type: "gaussian"
      std: 0.01
    }
    bias_filler {
      type: "constant"
    }
  }
}
layer {
  name: "relu1"
  type: "ReLU"
  bottom: "ip1"
  top: "ip1"
}
layer {
  name: "ip2"
  type: "InnerProduct"
  bottom: "ip1"
  top: "ip2"
  param {
    lr_mult: 1
  }
  param {
    lr_mult: 2
  }
  inner_product_param {
    num_output: 80
    weight_filler {
      type: "gaussian"
      std: 0.01
    }
    bias_filler {
      type: "constant"
    }
  }
}
layer {
  name: "relu2"
  type: "ReLU"
  bottom: "ip2"
  top: "ip2"
}
layer {
  name: "ip3"
  type: "InnerProduct"
  bottom: "ip2"
  top: "ip3"
  param {
    lr_mult: 1
  }
  param {
    lr_mult: 2
  }
  inner_product_param {
    num_output: 80
    weight_filler {
      type: "gaussian"
      std: 0.01
    }
    bias_filler {
      type: "constant"
    }
  }
}
layer {
  name: "relu3"
  type: "ReLU"
  bottom: "ip3"
  top: "ip3"
}
layer {
  name: "ip4"
  type: "InnerProduct"
  bottom: "ip3"
  top: "ip4"
  param {
    lr_mult: 1
  }
  param {
    lr_mult: 2
  }
  inner_product_param {
    num_output: 10
    weight_filler {
      type: "gaussian"
      std: 0.01
    }
    bias_filler {
      type: "constant"
    }
  }
}
layer {
  name: "accuracy"
  type: "Accuracy"
  bottom: "ip4"
  bottom: "label"
  top: "accuracy"
  include {
    phase: TEST
  }
}
layer {
  name: "loss"
  type: "SoftmaxWithLoss"
  bottom: "ip4"
  bottom: "label"
  top: "loss"
}
I0501 04:21:12.786273 24848 layer_factory.hpp:77] Creating layer cifar
I0501 04:21:12.786317 24848 db_lmdb.cpp:35] Opened lmdb examples/cifar10/cifar10_test_lmdb
I0501 04:21:12.786329 24848 net.cpp:86] Creating Layer cifar
I0501 04:21:12.786334 24848 net.cpp:382] cifar -> data
I0501 04:21:12.786341 24848 net.cpp:382] cifar -> label
I0501 04:21:12.786347 24848 data_transformer.cpp:25] Loading mean file from: examples/cifar10/mean.binaryproto
I0501 04:21:12.786528 24848 data_layer.cpp:45] output data size: 1000,3,32,32
I0501 04:21:12.809061 24848 net.cpp:124] Setting up cifar
I0501 04:21:12.809084 24848 net.cpp:131] Top shape: 1000 3 32 32 (3072000)
I0501 04:21:12.809090 24848 net.cpp:131] Top shape: 1000 (1000)
I0501 04:21:12.809093 24848 net.cpp:139] Memory required for data: 12292000
I0501 04:21:12.809099 24848 layer_factory.hpp:77] Creating layer label_cifar_1_split
I0501 04:21:12.809128 24848 net.cpp:86] Creating Layer label_cifar_1_split
I0501 04:21:12.809131 24848 net.cpp:408] label_cifar_1_split <- label
I0501 04:21:12.809137 24848 net.cpp:382] label_cifar_1_split -> label_cifar_1_split_0
I0501 04:21:12.809161 24848 net.cpp:382] label_cifar_1_split -> label_cifar_1_split_1
I0501 04:21:12.809264 24848 net.cpp:124] Setting up label_cifar_1_split
I0501 04:21:12.809273 24848 net.cpp:131] Top shape: 1000 (1000)
I0501 04:21:12.809276 24848 net.cpp:131] Top shape: 1000 (1000)
I0501 04:21:12.809278 24848 net.cpp:139] Memory required for data: 12300000
I0501 04:21:12.809281 24848 layer_factory.hpp:77] Creating layer conv0
I0501 04:21:12.809293 24848 net.cpp:86] Creating Layer conv0
I0501 04:21:12.809298 24848 net.cpp:408] conv0 <- data
I0501 04:21:12.809303 24848 net.cpp:382] conv0 -> conv0
I0501 04:21:12.811019 24848 net.cpp:124] Setting up conv0
I0501 04:21:12.811033 24848 net.cpp:131] Top shape: 1000 8 32 32 (8192000)
I0501 04:21:12.811038 24848 net.cpp:139] Memory required for data: 45068000
I0501 04:21:12.811051 24848 layer_factory.hpp:77] Creating layer Sigmoid0
I0501 04:21:12.811058 24848 net.cpp:86] Creating Layer Sigmoid0
I0501 04:21:12.811061 24848 net.cpp:408] Sigmoid0 <- conv0
I0501 04:21:12.811066 24848 net.cpp:382] Sigmoid0 -> Sigmoid0
I0501 04:21:12.811295 24848 net.cpp:124] Setting up Sigmoid0
I0501 04:21:12.811303 24848 net.cpp:131] Top shape: 1000 8 32 32 (8192000)
I0501 04:21:12.811306 24848 net.cpp:139] Memory required for data: 77836000
I0501 04:21:12.811309 24848 layer_factory.hpp:77] Creating layer pool0
I0501 04:21:12.811317 24848 net.cpp:86] Creating Layer pool0
I0501 04:21:12.811321 24848 net.cpp:408] pool0 <- Sigmoid0
I0501 04:21:12.811326 24848 net.cpp:382] pool0 -> pool0
I0501 04:21:12.811511 24848 net.cpp:124] Setting up pool0
I0501 04:21:12.811522 24848 net.cpp:131] Top shape: 1000 8 16 16 (2048000)
I0501 04:21:12.811525 24848 net.cpp:139] Memory required for data: 86028000
I0501 04:21:12.811528 24848 layer_factory.hpp:77] Creating layer ip1
I0501 04:21:12.811535 24848 net.cpp:86] Creating Layer ip1
I0501 04:21:12.811538 24848 net.cpp:408] ip1 <- pool0
I0501 04:21:12.811545 24848 net.cpp:382] ip1 -> ip1
I0501 04:21:12.812867 24848 net.cpp:124] Setting up ip1
I0501 04:21:12.812878 24848 net.cpp:131] Top shape: 1000 20 (20000)
I0501 04:21:12.812882 24848 net.cpp:139] Memory required for data: 86108000
I0501 04:21:12.812912 24848 layer_factory.hpp:77] Creating layer relu1
I0501 04:21:12.812919 24848 net.cpp:86] Creating Layer relu1
I0501 04:21:12.812922 24848 net.cpp:408] relu1 <- ip1
I0501 04:21:12.812927 24848 net.cpp:369] relu1 -> ip1 (in-place)
I0501 04:21:12.813097 24848 net.cpp:124] Setting up relu1
I0501 04:21:12.813105 24848 net.cpp:131] Top shape: 1000 20 (20000)
I0501 04:21:12.813108 24848 net.cpp:139] Memory required for data: 86188000
I0501 04:21:12.813112 24848 layer_factory.hpp:77] Creating layer ip2
I0501 04:21:12.813122 24848 net.cpp:86] Creating Layer ip2
I0501 04:21:12.813124 24848 net.cpp:408] ip2 <- ip1
I0501 04:21:12.813128 24848 net.cpp:382] ip2 -> ip2
I0501 04:21:12.813288 24848 net.cpp:124] Setting up ip2
I0501 04:21:12.813295 24848 net.cpp:131] Top shape: 1000 80 (80000)
I0501 04:21:12.813298 24848 net.cpp:139] Memory required for data: 86508000
I0501 04:21:12.813321 24848 layer_factory.hpp:77] Creating layer relu2
I0501 04:21:12.813328 24848 net.cpp:86] Creating Layer relu2
I0501 04:21:12.813331 24848 net.cpp:408] relu2 <- ip2
I0501 04:21:12.813334 24848 net.cpp:369] relu2 -> ip2 (in-place)
I0501 04:21:12.814067 24848 net.cpp:124] Setting up relu2
I0501 04:21:12.814079 24848 net.cpp:131] Top shape: 1000 80 (80000)
I0501 04:21:12.814082 24848 net.cpp:139] Memory required for data: 86828000
I0501 04:21:12.814086 24848 layer_factory.hpp:77] Creating layer ip3
I0501 04:21:12.814095 24848 net.cpp:86] Creating Layer ip3
I0501 04:21:12.814097 24848 net.cpp:408] ip3 <- ip2
I0501 04:21:12.814103 24848 net.cpp:382] ip3 -> ip3
I0501 04:21:12.814365 24848 net.cpp:124] Setting up ip3
I0501 04:21:12.814373 24848 net.cpp:131] Top shape: 1000 80 (80000)
I0501 04:21:12.814384 24848 net.cpp:139] Memory required for data: 87148000
I0501 04:21:12.814406 24848 layer_factory.hpp:77] Creating layer relu3
I0501 04:21:12.814411 24848 net.cpp:86] Creating Layer relu3
I0501 04:21:12.814414 24848 net.cpp:408] relu3 <- ip3
I0501 04:21:12.814420 24848 net.cpp:369] relu3 -> ip3 (in-place)
I0501 04:21:12.814574 24848 net.cpp:124] Setting up relu3
I0501 04:21:12.814584 24848 net.cpp:131] Top shape: 1000 80 (80000)
I0501 04:21:12.814586 24848 net.cpp:139] Memory required for data: 87468000
I0501 04:21:12.814589 24848 layer_factory.hpp:77] Creating layer ip4
I0501 04:21:12.814596 24848 net.cpp:86] Creating Layer ip4
I0501 04:21:12.814599 24848 net.cpp:408] ip4 <- ip3
I0501 04:21:12.814604 24848 net.cpp:382] ip4 -> ip4
I0501 04:21:12.814743 24848 net.cpp:124] Setting up ip4
I0501 04:21:12.814750 24848 net.cpp:131] Top shape: 1000 10 (10000)
I0501 04:21:12.814752 24848 net.cpp:139] Memory required for data: 87508000
I0501 04:21:12.814759 24848 layer_factory.hpp:77] Creating layer ip4_ip4_0_split
I0501 04:21:12.814765 24848 net.cpp:86] Creating Layer ip4_ip4_0_split
I0501 04:21:12.814769 24848 net.cpp:408] ip4_ip4_0_split <- ip4
I0501 04:21:12.814772 24848 net.cpp:382] ip4_ip4_0_split -> ip4_ip4_0_split_0
I0501 04:21:12.814776 24848 net.cpp:382] ip4_ip4_0_split -> ip4_ip4_0_split_1
I0501 04:21:12.814807 24848 net.cpp:124] Setting up ip4_ip4_0_split
I0501 04:21:12.814811 24848 net.cpp:131] Top shape: 1000 10 (10000)
I0501 04:21:12.814815 24848 net.cpp:131] Top shape: 1000 10 (10000)
I0501 04:21:12.814817 24848 net.cpp:139] Memory required for data: 87588000
I0501 04:21:12.814821 24848 layer_factory.hpp:77] Creating layer accuracy
I0501 04:21:12.814826 24848 net.cpp:86] Creating Layer accuracy
I0501 04:21:12.814828 24848 net.cpp:408] accuracy <- ip4_ip4_0_split_0
I0501 04:21:12.814831 24848 net.cpp:408] accuracy <- label_cifar_1_split_0
I0501 04:21:12.814836 24848 net.cpp:382] accuracy -> accuracy
…
