…
I0501 01:50:12.479018 12372 net.cpp:296] The NetState phase (0) differed from the phase (1) specified by a rule in layer cifar
I0501 01:50:12.479038 12372 net.cpp:296] The NetState phase (0) differed from the phase (1) specified by a rule in layer accuracy
I0501 01:50:12.479143 12372 net.cpp:53] Initializing net from parameters: 
name: "CIFAR"
state {
  phase: TRAIN
  level: 0
  stage: ""
}
layer {
  name: "cifar"
  type: "Data"
  top: "data"
  top: "label"
  include {
    phase: TRAIN
  }
  transform_param {
    mean_file: "examples/cifar10/mean.binaryproto"
  }
  data_param {
    source: "examples/cifar10/cifar10_train_lmdb"
    batch_size: 111
    backend: LMDB
  }
}
layer {
  name: "conv0"
  type: "Convolution"
  bottom: "data"
  top: "conv0"
  param {
    lr_mult: 1
  }
  param {
    lr_mult: 2
  }
  convolution_param {
    num_output: 8
    pad: 2
    kernel_size: 3
    stride: 1
    weight_filler {
      type: "gaussian"
      std: 0.01
    }
    bias_filler {
      type: "constant"
    }
  }
}
layer {
  name: "Sigmoid0"
  type: "Sigmoid"
  bottom: "conv0"
  top: "Sigmoid0"
}
layer {
  name: "pool0"
  type: "Pooling"
  bottom: "Sigmoid0"
  top: "pool0"
  pooling_param {
    pool: AVE
    kernel_size: 3
    stride: 2
  }
}
layer {
  name: "ip1"
  type: "InnerProduct"
  bottom: "pool0"
  top: "ip1"
  param {
    lr_mult: 1
  }
  param {
    lr_mult: 2
  }
  inner_product_param {
    num_output: 160
    weight_filler {
      type: "gaussian"
      std: 0.01
    }
    bias_filler {
      type: "constant"
    }
  }
}
layer {
  name: "relu1"
  type: "ReLU"
  bottom: "ip1"
  top: "ip1"
}
layer {
  name: "ip2"
  type: "InnerProduct"
  bottom: "ip1"
  top: "ip2"
  param {
    lr_mult: 1
  }
  param {
    lr_mult: 2
  }
  inner_product_param {
    num_output: 80
    weight_filler {
      type: "gaussian"
      std: 0.01
    }
    bias_filler {
      type: "constant"
    }
  }
}
layer {
  name: "relu2"
  type: "ReLU"
  bottom: "ip2"
  top: "ip2"
}
layer {
  name: "ip3"
  type: "InnerProduct"
  bottom: "ip2"
  top: "ip3"
  param {
    lr_mult: 1
  }
  param {
    lr_mult: 2
  }
  inner_product_param {
    num_output: 40
    weight_filler {
      type: "gaussian"
      std: 0.01
    }
    bias_filler {
      type: "constant"
    }
  }
}
layer {
  name: "relu3"
  type: "ReLU"
  bottom: "ip3"
  top: "ip3"
}
layer {
  name: "ip4"
  type: "InnerProduct"
  bottom: "ip3"
  top: "ip4"
  param {
    lr_mult: 1
  }
  param {
    lr_mult: 2
  }
  inner_product_param {
    num_output: 10
    weight_filler {
      type: "gaussian"
      std: 0.01
    }
    bias_filler {
      type: "constant"
    }
  }
}
layer {
  name: "loss"
  type: "SoftmaxWithLoss"
  bottom: "ip4"
  bottom: "label"
  top: "loss"
}
I0501 01:50:12.479223 12372 layer_factory.hpp:77] Creating layer cifar
I0501 01:50:12.479323 12372 db_lmdb.cpp:35] Opened lmdb examples/cifar10/cifar10_train_lmdb
I0501 01:50:12.479352 12372 net.cpp:86] Creating Layer cifar
I0501 01:50:12.479364 12372 net.cpp:382] cifar -> data
I0501 01:50:12.479390 12372 net.cpp:382] cifar -> label
I0501 01:50:12.479403 12372 data_transformer.cpp:25] Loading mean file from: examples/cifar10/mean.binaryproto
I0501 01:50:12.481520 12372 data_layer.cpp:45] output data size: 111,3,32,32
I0501 01:50:12.489416 12372 net.cpp:124] Setting up cifar
I0501 01:50:12.489435 12372 net.cpp:131] Top shape: 111 3 32 32 (340992)
I0501 01:50:12.489441 12372 net.cpp:131] Top shape: 111 (111)
I0501 01:50:12.489444 12372 net.cpp:139] Memory required for data: 1364412
I0501 01:50:12.489467 12372 layer_factory.hpp:77] Creating layer conv0
I0501 01:50:12.489488 12372 net.cpp:86] Creating Layer conv0
I0501 01:50:12.489495 12372 net.cpp:408] conv0 <- data
I0501 01:50:12.489507 12372 net.cpp:382] conv0 -> conv0
I0501 01:50:12.778257 12372 net.cpp:124] Setting up conv0
I0501 01:50:12.778285 12372 net.cpp:131] Top shape: 111 8 34 34 (1026528)
I0501 01:50:12.778288 12372 net.cpp:139] Memory required for data: 5470524
I0501 01:50:12.778303 12372 layer_factory.hpp:77] Creating layer Sigmoid0
I0501 01:50:12.778316 12372 net.cpp:86] Creating Layer Sigmoid0
I0501 01:50:12.778321 12372 net.cpp:408] Sigmoid0 <- conv0
I0501 01:50:12.778326 12372 net.cpp:382] Sigmoid0 -> Sigmoid0
I0501 01:50:12.778506 12372 net.cpp:124] Setting up Sigmoid0
I0501 01:50:12.778517 12372 net.cpp:131] Top shape: 111 8 34 34 (1026528)
I0501 01:50:12.778520 12372 net.cpp:139] Memory required for data: 9576636
I0501 01:50:12.778523 12372 layer_factory.hpp:77] Creating layer pool0
I0501 01:50:12.778530 12372 net.cpp:86] Creating Layer pool0
I0501 01:50:12.778533 12372 net.cpp:408] pool0 <- Sigmoid0
I0501 01:50:12.778538 12372 net.cpp:382] pool0 -> pool0
I0501 01:50:12.779299 12372 net.cpp:124] Setting up pool0
I0501 01:50:12.779311 12372 net.cpp:131] Top shape: 111 8 17 17 (256632)
I0501 01:50:12.779315 12372 net.cpp:139] Memory required for data: 10603164
I0501 01:50:12.779319 12372 layer_factory.hpp:77] Creating layer ip1
I0501 01:50:12.779328 12372 net.cpp:86] Creating Layer ip1
I0501 01:50:12.779332 12372 net.cpp:408] ip1 <- pool0
I0501 01:50:12.779338 12372 net.cpp:382] ip1 -> ip1
I0501 01:50:12.790529 12372 net.cpp:124] Setting up ip1
I0501 01:50:12.790542 12372 net.cpp:131] Top shape: 111 160 (17760)
I0501 01:50:12.790545 12372 net.cpp:139] Memory required for data: 10674204
I0501 01:50:12.790555 12372 layer_factory.hpp:77] Creating layer relu1
I0501 01:50:12.790560 12372 net.cpp:86] Creating Layer relu1
I0501 01:50:12.790563 12372 net.cpp:408] relu1 <- ip1
I0501 01:50:12.790568 12372 net.cpp:369] relu1 -> ip1 (in-place)
I0501 01:50:12.790721 12372 net.cpp:124] Setting up relu1
I0501 01:50:12.790730 12372 net.cpp:131] Top shape: 111 160 (17760)
I0501 01:50:12.790733 12372 net.cpp:139] Memory required for data: 10745244
I0501 01:50:12.790737 12372 layer_factory.hpp:77] Creating layer ip2
I0501 01:50:12.790743 12372 net.cpp:86] Creating Layer ip2
I0501 01:50:12.790746 12372 net.cpp:408] ip2 <- ip1
I0501 01:50:12.790751 12372 net.cpp:382] ip2 -> ip2
I0501 01:50:12.792057 12372 net.cpp:124] Setting up ip2
I0501 01:50:12.792069 12372 net.cpp:131] Top shape: 111 80 (8880)
I0501 01:50:12.792073 12372 net.cpp:139] Memory required for data: 10780764
I0501 01:50:12.792081 12372 layer_factory.hpp:77] Creating layer relu2
I0501 01:50:12.792088 12372 net.cpp:86] Creating Layer relu2
I0501 01:50:12.792091 12372 net.cpp:408] relu2 <- ip2
I0501 01:50:12.792095 12372 net.cpp:369] relu2 -> ip2 (in-place)
I0501 01:50:12.792258 12372 net.cpp:124] Setting up relu2
I0501 01:50:12.792268 12372 net.cpp:131] Top shape: 111 80 (8880)
I0501 01:50:12.792270 12372 net.cpp:139] Memory required for data: 10816284
I0501 01:50:12.792273 12372 layer_factory.hpp:77] Creating layer ip3
I0501 01:50:12.792281 12372 net.cpp:86] Creating Layer ip3
I0501 01:50:12.792284 12372 net.cpp:408] ip3 <- ip2
I0501 01:50:12.792290 12372 net.cpp:382] ip3 -> ip3
I0501 01:50:12.792472 12372 net.cpp:124] Setting up ip3
I0501 01:50:12.792480 12372 net.cpp:131] Top shape: 111 40 (4440)
I0501 01:50:12.792484 12372 net.cpp:139] Memory required for data: 10834044
I0501 01:50:12.792488 12372 layer_factory.hpp:77] Creating layer relu3
I0501 01:50:12.792493 12372 net.cpp:86] Creating Layer relu3
I0501 01:50:12.792496 12372 net.cpp:408] relu3 <- ip3
I0501 01:50:12.792500 12372 net.cpp:369] relu3 -> ip3 (in-place)
I0501 01:50:12.792646 12372 net.cpp:124] Setting up relu3
I0501 01:50:12.792654 12372 net.cpp:131] Top shape: 111 40 (4440)
I0501 01:50:12.792657 12372 net.cpp:139] Memory required for data: 10851804
I0501 01:50:12.792660 12372 layer_factory.hpp:77] Creating layer ip4
I0501 01:50:12.792680 12372 net.cpp:86] Creating Layer ip4
I0501 01:50:12.792685 12372 net.cpp:408] ip4 <- ip3
I0501 01:50:12.792690 12372 net.cpp:382] ip4 -> ip4
I0501 01:50:12.793619 12372 net.cpp:124] Setting up ip4
I0501 01:50:12.793632 12372 net.cpp:131] Top shape: 111 10 (1110)
I0501 01:50:12.793635 12372 net.cpp:139] Memory required for data: 10856244
I0501 01:50:12.793644 12372 layer_factory.hpp:77] Creating layer loss
I0501 01:50:12.793651 12372 net.cpp:86] Creating Layer loss
I0501 01:50:12.793654 12372 net.cpp:408] loss <- ip4
I0501 01:50:12.793658 12372 net.cpp:408] loss <- label
I0501 01:50:12.793665 12372 net.cpp:382] loss -> loss
I0501 01:50:12.793682 12372 layer_factory.hpp:77] Creating layer loss
…
I0501 01:50:12.794872 12372 solver.cpp:173] Creating test net (#0) specified by net file: ECE595/cifar/train_test/var_everything/cifar_train_test_302.prototxt
I0501 01:50:12.794900 12372 net.cpp:296] The NetState phase (1) differed from the phase (0) specified by a rule in layer cifar
I0501 01:50:12.794993 12372 net.cpp:53] Initializing net from parameters: 
name: "CIFAR"
state {
  phase: TEST
}
layer {
  name: "cifar"
  type: "Data"
  top: "data"
  top: "label"
  include {
    phase: TEST
  }
  transform_param {
    mean_file: "examples/cifar10/mean.binaryproto"
  }
  data_param {
    source: "examples/cifar10/cifar10_test_lmdb"
    batch_size: 1000
    backend: LMDB
  }
}
layer {
  name: "conv0"
  type: "Convolution"
  bottom: "data"
  top: "conv0"
  param {
    lr_mult: 1
  }
  param {
    lr_mult: 2
  }
  convolution_param {
    num_output: 8
    pad: 2
    kernel_size: 3
    stride: 1
    weight_filler {
      type: "gaussian"
      std: 0.01
    }
    bias_filler {
      type: "constant"
    }
  }
}
layer {
  name: "Sigmoid0"
  type: "Sigmoid"
  bottom: "conv0"
  top: "Sigmoid0"
}
layer {
  name: "pool0"
  type: "Pooling"
  bottom: "Sigmoid0"
  top: "pool0"
  pooling_param {
    pool: AVE
    kernel_size: 3
    stride: 2
  }
}
layer {
  name: "ip1"
  type: "InnerProduct"
  bottom: "pool0"
  top: "ip1"
  param {
    lr_mult: 1
  }
  param {
    lr_mult: 2
  }
  inner_product_param {
    num_output: 160
    weight_filler {
      type: "gaussian"
      std: 0.01
    }
    bias_filler {
      type: "constant"
    }
  }
}
layer {
  name: "relu1"
  type: "ReLU"
  bottom: "ip1"
  top: "ip1"
}
layer {
  name: "ip2"
  type: "InnerProduct"
  bottom: "ip1"
  top: "ip2"
  param {
    lr_mult: 1
  }
  param {
    lr_mult: 2
  }
  inner_product_param {
    num_output: 80
    weight_filler {
      type: "gaussian"
      std: 0.01
    }
    bias_filler {
      type: "constant"
    }
  }
}
layer {
  name: "relu2"
  type: "ReLU"
  bottom: "ip2"
  top: "ip2"
}
layer {
  name: "ip3"
  type: "InnerProduct"
  bottom: "ip2"
  top: "ip3"
  param {
    lr_mult: 1
  }
  param {
    lr_mult: 2
  }
  inner_product_param {
    num_output: 40
    weight_filler {
      type: "gaussian"
      std: 0.01
    }
    bias_filler {
      type: "constant"
    }
  }
}
layer {
  name: "relu3"
  type: "ReLU"
  bottom: "ip3"
  top: "ip3"
}
layer {
  name: "ip4"
  type: "InnerProduct"
  bottom: "ip3"
  top: "ip4"
  param {
    lr_mult: 1
  }
  param {
    lr_mult: 2
  }
  inner_product_param {
    num_output: 10
    weight_filler {
      type: "gaussian"
      std: 0.01
    }
    bias_filler {
      type: "constant"
    }
  }
}
layer {
  name: "accuracy"
  type: "Accuracy"
  bottom: "ip4"
  bottom: "label"
  top: "accuracy"
  include {
    phase: TEST
  }
}
layer {
  name: "loss"
  type: "SoftmaxWithLoss"
  bottom: "ip4"
  bottom: "label"
  top: "loss"
}
I0501 01:50:12.795078 12372 layer_factory.hpp:77] Creating layer cifar
I0501 01:50:12.795121 12372 db_lmdb.cpp:35] Opened lmdb examples/cifar10/cifar10_test_lmdb
I0501 01:50:12.795133 12372 net.cpp:86] Creating Layer cifar
I0501 01:50:12.795138 12372 net.cpp:382] cifar -> data
I0501 01:50:12.795146 12372 net.cpp:382] cifar -> label
I0501 01:50:12.795152 12372 data_transformer.cpp:25] Loading mean file from: examples/cifar10/mean.binaryproto
I0501 01:50:12.795302 12372 data_layer.cpp:45] output data size: 1000,3,32,32
I0501 01:50:12.817385 12372 net.cpp:124] Setting up cifar
I0501 01:50:12.817426 12372 net.cpp:131] Top shape: 1000 3 32 32 (3072000)
I0501 01:50:12.817431 12372 net.cpp:131] Top shape: 1000 (1000)
I0501 01:50:12.817435 12372 net.cpp:139] Memory required for data: 12292000
I0501 01:50:12.817440 12372 layer_factory.hpp:77] Creating layer label_cifar_1_split
I0501 01:50:12.817487 12372 net.cpp:86] Creating Layer label_cifar_1_split
I0501 01:50:12.817492 12372 net.cpp:408] label_cifar_1_split <- label
I0501 01:50:12.817499 12372 net.cpp:382] label_cifar_1_split -> label_cifar_1_split_0
I0501 01:50:12.817508 12372 net.cpp:382] label_cifar_1_split -> label_cifar_1_split_1
I0501 01:50:12.817631 12372 net.cpp:124] Setting up label_cifar_1_split
I0501 01:50:12.817638 12372 net.cpp:131] Top shape: 1000 (1000)
I0501 01:50:12.817642 12372 net.cpp:131] Top shape: 1000 (1000)
I0501 01:50:12.817646 12372 net.cpp:139] Memory required for data: 12300000
I0501 01:50:12.817648 12372 layer_factory.hpp:77] Creating layer conv0
I0501 01:50:12.817662 12372 net.cpp:86] Creating Layer conv0
I0501 01:50:12.817667 12372 net.cpp:408] conv0 <- data
I0501 01:50:12.817672 12372 net.cpp:382] conv0 -> conv0
I0501 01:50:12.819231 12372 net.cpp:124] Setting up conv0
I0501 01:50:12.819245 12372 net.cpp:131] Top shape: 1000 8 34 34 (9248000)
I0501 01:50:12.819264 12372 net.cpp:139] Memory required for data: 49292000
I0501 01:50:12.819274 12372 layer_factory.hpp:77] Creating layer Sigmoid0
I0501 01:50:12.819283 12372 net.cpp:86] Creating Layer Sigmoid0
I0501 01:50:12.819285 12372 net.cpp:408] Sigmoid0 <- conv0
I0501 01:50:12.819293 12372 net.cpp:382] Sigmoid0 -> Sigmoid0
I0501 01:50:12.819490 12372 net.cpp:124] Setting up Sigmoid0
I0501 01:50:12.819499 12372 net.cpp:131] Top shape: 1000 8 34 34 (9248000)
I0501 01:50:12.819502 12372 net.cpp:139] Memory required for data: 86284000
I0501 01:50:12.819505 12372 layer_factory.hpp:77] Creating layer pool0
I0501 01:50:12.819514 12372 net.cpp:86] Creating Layer pool0
I0501 01:50:12.819517 12372 net.cpp:408] pool0 <- Sigmoid0
I0501 01:50:12.819521 12372 net.cpp:382] pool0 -> pool0
I0501 01:50:12.819792 12372 net.cpp:124] Setting up pool0
I0501 01:50:12.819802 12372 net.cpp:131] Top shape: 1000 8 17 17 (2312000)
I0501 01:50:12.819805 12372 net.cpp:139] Memory required for data: 95532000
I0501 01:50:12.819808 12372 layer_factory.hpp:77] Creating layer ip1
I0501 01:50:12.819816 12372 net.cpp:86] Creating Layer ip1
I0501 01:50:12.819819 12372 net.cpp:408] ip1 <- pool0
I0501 01:50:12.819825 12372 net.cpp:382] ip1 -> ip1
I0501 01:50:12.831100 12372 net.cpp:124] Setting up ip1
I0501 01:50:12.831113 12372 net.cpp:131] Top shape: 1000 160 (160000)
I0501 01:50:12.831131 12372 net.cpp:139] Memory required for data: 96172000
I0501 01:50:12.831154 12372 layer_factory.hpp:77] Creating layer relu1
I0501 01:50:12.831161 12372 net.cpp:86] Creating Layer relu1
I0501 01:50:12.831164 12372 net.cpp:408] relu1 <- ip1
I0501 01:50:12.831184 12372 net.cpp:369] relu1 -> ip1 (in-place)
I0501 01:50:12.831364 12372 net.cpp:124] Setting up relu1
I0501 01:50:12.831373 12372 net.cpp:131] Top shape: 1000 160 (160000)
I0501 01:50:12.831377 12372 net.cpp:139] Memory required for data: 96812000
I0501 01:50:12.831379 12372 layer_factory.hpp:77] Creating layer ip2
I0501 01:50:12.831388 12372 net.cpp:86] Creating Layer ip2
I0501 01:50:12.831392 12372 net.cpp:408] ip2 <- ip1
I0501 01:50:12.831398 12372 net.cpp:382] ip2 -> ip2
I0501 01:50:12.831871 12372 net.cpp:124] Setting up ip2
I0501 01:50:12.831878 12372 net.cpp:131] Top shape: 1000 80 (80000)
I0501 01:50:12.831897 12372 net.cpp:139] Memory required for data: 97132000
I0501 01:50:12.831903 12372 layer_factory.hpp:77] Creating layer relu2
I0501 01:50:12.831909 12372 net.cpp:86] Creating Layer relu2
I0501 01:50:12.831913 12372 net.cpp:408] relu2 <- ip2
I0501 01:50:12.831918 12372 net.cpp:369] relu2 -> ip2 (in-place)
I0501 01:50:12.832707 12372 net.cpp:124] Setting up relu2
I0501 01:50:12.832718 12372 net.cpp:131] Top shape: 1000 80 (80000)
I0501 01:50:12.832741 12372 net.cpp:139] Memory required for data: 97452000
I0501 01:50:12.832751 12372 layer_factory.hpp:77] Creating layer ip3
I0501 01:50:12.832758 12372 net.cpp:86] Creating Layer ip3
I0501 01:50:12.832762 12372 net.cpp:408] ip3 <- ip2
I0501 01:50:12.832767 12372 net.cpp:382] ip3 -> ip3
I0501 01:50:12.833029 12372 net.cpp:124] Setting up ip3
I0501 01:50:12.833037 12372 net.cpp:131] Top shape: 1000 40 (40000)
I0501 01:50:12.833041 12372 net.cpp:139] Memory required for data: 97612000
I0501 01:50:12.833047 12372 layer_factory.hpp:77] Creating layer relu3
I0501 01:50:12.833055 12372 net.cpp:86] Creating Layer relu3
I0501 01:50:12.833057 12372 net.cpp:408] relu3 <- ip3
I0501 01:50:12.833062 12372 net.cpp:369] relu3 -> ip3 (in-place)
I0501 01:50:12.833256 12372 net.cpp:124] Setting up relu3
I0501 01:50:12.833266 12372 net.cpp:131] Top shape: 1000 40 (40000)
I0501 01:50:12.833268 12372 net.cpp:139] Memory required for data: 97772000
I0501 01:50:12.833271 12372 layer_factory.hpp:77] Creating layer ip4
I0501 01:50:12.833278 12372 net.cpp:86] Creating Layer ip4
I0501 01:50:12.833281 12372 net.cpp:408] ip4 <- ip3
I0501 01:50:12.833287 12372 net.cpp:382] ip4 -> ip4
I0501 01:50:12.833400 12372 net.cpp:124] Setting up ip4
I0501 01:50:12.833408 12372 net.cpp:131] Top shape: 1000 10 (10000)
I0501 01:50:12.833410 12372 net.cpp:139] Memory required for data: 97812000
I0501 01:50:12.833420 12372 layer_factory.hpp:77] Creating layer ip4_ip4_0_split
I0501 01:50:12.833425 12372 net.cpp:86] Creating Layer ip4_ip4_0_split
I0501 01:50:12.833428 12372 net.cpp:408] ip4_ip4_0_split <- ip4
I0501 01:50:12.833432 12372 net.cpp:382] ip4_ip4_0_split -> ip4_ip4_0_split_0
I0501 01:50:12.833437 12372 net.cpp:382] ip4_ip4_0_split -> ip4_ip4_0_split_1
I0501 01:50:12.833469 12372 net.cpp:124] Setting up ip4_ip4_0_split
I0501 01:50:12.833474 12372 net.cpp:131] Top shape: 1000 10 (10000)
I0501 01:50:12.833478 12372 net.cpp:131] Top shape: 1000 10 (10000)
I0501 01:50:12.833480 12372 net.cpp:139] Memory required for data: 97892000
I0501 01:50:12.833484 12372 layer_factory.hpp:77] Creating layer accuracy
I0501 01:50:12.833489 12372 net.cpp:86] Creating Layer accuracy
I0501 01:50:12.833493 12372 net.cpp:408] accuracy <- ip4_ip4_0_split_0
I0501 01:50:12.833498 12372 net.cpp:408] accuracy <- label_cifar_1_split_0
I0501 01:50:12.833503 12372 net.cpp:382] accuracy -> accuracy
…
