…
I0501 04:37:50.412655 25939 net.cpp:296] The NetState phase (0) differed from the phase (1) specified by a rule in layer cifar
I0501 04:37:50.412673 25939 net.cpp:296] The NetState phase (0) differed from the phase (1) specified by a rule in layer accuracy
I0501 04:37:50.412773 25939 net.cpp:53] Initializing net from parameters: 
name: "CIFAR"
state {
  phase: TRAIN
  level: 0
  stage: ""
}
layer {
  name: "cifar"
  type: "Data"
  top: "data"
  top: "label"
  include {
    phase: TRAIN
  }
  transform_param {
    mean_file: "examples/cifar10/mean.binaryproto"
  }
  data_param {
    source: "examples/cifar10/cifar10_train_lmdb"
    batch_size: 111
    backend: LMDB
  }
}
layer {
  name: "conv0"
  type: "Convolution"
  bottom: "data"
  top: "conv0"
  param {
    lr_mult: 1
  }
  param {
    lr_mult: 2
  }
  convolution_param {
    num_output: 8
    pad: 2
    kernel_size: 5
    stride: 1
    weight_filler {
      type: "gaussian"
      std: 0.01
    }
    bias_filler {
      type: "constant"
    }
  }
}
layer {
  name: "Sigmoid0"
  type: "Sigmoid"
  bottom: "conv0"
  top: "Sigmoid0"
}
layer {
  name: "pool0"
  type: "Pooling"
  bottom: "Sigmoid0"
  top: "pool0"
  pooling_param {
    pool: AVE
    kernel_size: 3
    stride: 2
  }
}
layer {
  name: "ip1"
  type: "InnerProduct"
  bottom: "pool0"
  top: "ip1"
  param {
    lr_mult: 1
  }
  param {
    lr_mult: 2
  }
  inner_product_param {
    num_output: 40
    weight_filler {
      type: "gaussian"
      std: 0.01
    }
    bias_filler {
      type: "constant"
    }
  }
}
layer {
  name: "relu1"
  type: "ReLU"
  bottom: "ip1"
  top: "ip1"
}
layer {
  name: "ip2"
  type: "InnerProduct"
  bottom: "ip1"
  top: "ip2"
  param {
    lr_mult: 1
  }
  param {
    lr_mult: 2
  }
  inner_product_param {
    num_output: 10
    weight_filler {
      type: "gaussian"
      std: 0.01
    }
    bias_filler {
      type: "constant"
    }
  }
}
layer {
  name: "relu2"
  type: "ReLU"
  bottom: "ip2"
  top: "ip2"
}
layer {
  name: "ip3"
  type: "InnerProduct"
  bottom: "ip2"
  top: "ip3"
  param {
    lr_mult: 1
  }
  param {
    lr_mult: 2
  }
  inner_product_param {
    num_output: 40
    weight_filler {
      type: "gaussian"
      std: 0.01
    }
    bias_filler {
      type: "constant"
    }
  }
}
layer {
  name: "relu3"
  type: "ReLU"
  bottom: "ip3"
  top: "ip3"
}
layer {
  name: "ip4"
  type: "InnerProduct"
  bottom: "ip3"
  top: "ip4"
  param {
    lr_mult: 1
  }
  param {
    lr_mult: 2
  }
  inner_product_param {
    num_output: 10
    weight_filler {
      type: "gaussian"
      std: 0.01
    }
    bias_filler {
      type: "constant"
    }
  }
}
layer {
  name: "loss"
  type: "SoftmaxWithLoss"
  bottom: "ip4"
  bottom: "label"
  top: "loss"
}
I0501 04:37:50.412853 25939 layer_factory.hpp:77] Creating layer cifar
I0501 04:37:50.412966 25939 db_lmdb.cpp:35] Opened lmdb examples/cifar10/cifar10_train_lmdb
I0501 04:37:50.412992 25939 net.cpp:86] Creating Layer cifar
I0501 04:37:50.412998 25939 net.cpp:382] cifar -> data
I0501 04:37:50.413022 25939 net.cpp:382] cifar -> label
I0501 04:37:50.413033 25939 data_transformer.cpp:25] Loading mean file from: examples/cifar10/mean.binaryproto
I0501 04:37:50.415179 25939 data_layer.cpp:45] output data size: 111,3,32,32
I0501 04:37:50.423044 25939 net.cpp:124] Setting up cifar
I0501 04:37:50.423063 25939 net.cpp:131] Top shape: 111 3 32 32 (340992)
I0501 04:37:50.423069 25939 net.cpp:131] Top shape: 111 (111)
I0501 04:37:50.423074 25939 net.cpp:139] Memory required for data: 1364412
I0501 04:37:50.423096 25939 layer_factory.hpp:77] Creating layer conv0
I0501 04:37:50.423115 25939 net.cpp:86] Creating Layer conv0
I0501 04:37:50.423120 25939 net.cpp:408] conv0 <- data
I0501 04:37:50.423132 25939 net.cpp:382] conv0 -> conv0
I0501 04:37:50.691175 25939 net.cpp:124] Setting up conv0
I0501 04:37:50.691218 25939 net.cpp:131] Top shape: 111 8 32 32 (909312)
I0501 04:37:50.691222 25939 net.cpp:139] Memory required for data: 5001660
I0501 04:37:50.691251 25939 layer_factory.hpp:77] Creating layer Sigmoid0
I0501 04:37:50.691262 25939 net.cpp:86] Creating Layer Sigmoid0
I0501 04:37:50.691267 25939 net.cpp:408] Sigmoid0 <- conv0
I0501 04:37:50.691272 25939 net.cpp:382] Sigmoid0 -> Sigmoid0
I0501 04:37:50.691445 25939 net.cpp:124] Setting up Sigmoid0
I0501 04:37:50.691455 25939 net.cpp:131] Top shape: 111 8 32 32 (909312)
I0501 04:37:50.691458 25939 net.cpp:139] Memory required for data: 8638908
I0501 04:37:50.691462 25939 layer_factory.hpp:77] Creating layer pool0
I0501 04:37:50.691468 25939 net.cpp:86] Creating Layer pool0
I0501 04:37:50.691470 25939 net.cpp:408] pool0 <- Sigmoid0
I0501 04:37:50.691474 25939 net.cpp:382] pool0 -> pool0
I0501 04:37:50.692206 25939 net.cpp:124] Setting up pool0
I0501 04:37:50.692234 25939 net.cpp:131] Top shape: 111 8 16 16 (227328)
I0501 04:37:50.692237 25939 net.cpp:139] Memory required for data: 9548220
I0501 04:37:50.692240 25939 layer_factory.hpp:77] Creating layer ip1
I0501 04:37:50.692250 25939 net.cpp:86] Creating Layer ip1
I0501 04:37:50.692252 25939 net.cpp:408] ip1 <- pool0
I0501 04:37:50.692257 25939 net.cpp:382] ip1 -> ip1
I0501 04:37:50.694511 25939 net.cpp:124] Setting up ip1
I0501 04:37:50.694519 25939 net.cpp:131] Top shape: 111 40 (4440)
I0501 04:37:50.694521 25939 net.cpp:139] Memory required for data: 9565980
I0501 04:37:50.694528 25939 layer_factory.hpp:77] Creating layer relu1
I0501 04:37:50.694533 25939 net.cpp:86] Creating Layer relu1
I0501 04:37:50.694536 25939 net.cpp:408] relu1 <- ip1
I0501 04:37:50.694540 25939 net.cpp:369] relu1 -> ip1 (in-place)
I0501 04:37:50.694700 25939 net.cpp:124] Setting up relu1
I0501 04:37:50.694707 25939 net.cpp:131] Top shape: 111 40 (4440)
I0501 04:37:50.694710 25939 net.cpp:139] Memory required for data: 9583740
I0501 04:37:50.694713 25939 layer_factory.hpp:77] Creating layer ip2
I0501 04:37:50.694720 25939 net.cpp:86] Creating Layer ip2
I0501 04:37:50.694721 25939 net.cpp:408] ip2 <- ip1
I0501 04:37:50.694726 25939 net.cpp:382] ip2 -> ip2
I0501 04:37:50.694816 25939 net.cpp:124] Setting up ip2
I0501 04:37:50.694823 25939 net.cpp:131] Top shape: 111 10 (1110)
I0501 04:37:50.694826 25939 net.cpp:139] Memory required for data: 9588180
I0501 04:37:50.694833 25939 layer_factory.hpp:77] Creating layer relu2
I0501 04:37:50.694838 25939 net.cpp:86] Creating Layer relu2
I0501 04:37:50.694840 25939 net.cpp:408] relu2 <- ip2
I0501 04:37:50.694844 25939 net.cpp:369] relu2 -> ip2 (in-place)
I0501 04:37:50.694983 25939 net.cpp:124] Setting up relu2
I0501 04:37:50.694989 25939 net.cpp:131] Top shape: 111 10 (1110)
I0501 04:37:50.694993 25939 net.cpp:139] Memory required for data: 9592620
I0501 04:37:50.694995 25939 layer_factory.hpp:77] Creating layer ip3
I0501 04:37:50.695003 25939 net.cpp:86] Creating Layer ip3
I0501 04:37:50.695004 25939 net.cpp:408] ip3 <- ip2
I0501 04:37:50.695009 25939 net.cpp:382] ip3 -> ip3
I0501 04:37:50.695103 25939 net.cpp:124] Setting up ip3
I0501 04:37:50.695111 25939 net.cpp:131] Top shape: 111 40 (4440)
I0501 04:37:50.695112 25939 net.cpp:139] Memory required for data: 9610380
I0501 04:37:50.695118 25939 layer_factory.hpp:77] Creating layer relu3
I0501 04:37:50.695122 25939 net.cpp:86] Creating Layer relu3
I0501 04:37:50.695125 25939 net.cpp:408] relu3 <- ip3
I0501 04:37:50.695128 25939 net.cpp:369] relu3 -> ip3 (in-place)
I0501 04:37:50.695262 25939 net.cpp:124] Setting up relu3
I0501 04:37:50.695269 25939 net.cpp:131] Top shape: 111 40 (4440)
I0501 04:37:50.695272 25939 net.cpp:139] Memory required for data: 9628140
I0501 04:37:50.695276 25939 layer_factory.hpp:77] Creating layer ip4
I0501 04:37:50.695310 25939 net.cpp:86] Creating Layer ip4
I0501 04:37:50.695313 25939 net.cpp:408] ip4 <- ip3
I0501 04:37:50.695318 25939 net.cpp:382] ip4 -> ip4
I0501 04:37:50.695415 25939 net.cpp:124] Setting up ip4
I0501 04:37:50.695421 25939 net.cpp:131] Top shape: 111 10 (1110)
I0501 04:37:50.695425 25939 net.cpp:139] Memory required for data: 9632580
I0501 04:37:50.695432 25939 layer_factory.hpp:77] Creating layer loss
I0501 04:37:50.695442 25939 net.cpp:86] Creating Layer loss
I0501 04:37:50.695446 25939 net.cpp:408] loss <- ip4
I0501 04:37:50.695448 25939 net.cpp:408] loss <- label
I0501 04:37:50.695453 25939 net.cpp:382] loss -> loss
I0501 04:37:50.695466 25939 layer_factory.hpp:77] Creating layer loss
…
I0501 04:37:50.696640 25939 solver.cpp:173] Creating test net (#0) specified by net file: ECE595/cifar/train_test/var_everything/cifar_train_test_392.prototxt
I0501 04:37:50.696667 25939 net.cpp:296] The NetState phase (1) differed from the phase (0) specified by a rule in layer cifar
I0501 04:37:50.696770 25939 net.cpp:53] Initializing net from parameters: 
name: "CIFAR"
state {
  phase: TEST
}
layer {
  name: "cifar"
  type: "Data"
  top: "data"
  top: "label"
  include {
    phase: TEST
  }
  transform_param {
    mean_file: "examples/cifar10/mean.binaryproto"
  }
  data_param {
    source: "examples/cifar10/cifar10_test_lmdb"
    batch_size: 1000
    backend: LMDB
  }
}
layer {
  name: "conv0"
  type: "Convolution"
  bottom: "data"
  top: "conv0"
  param {
    lr_mult: 1
  }
  param {
    lr_mult: 2
  }
  convolution_param {
    num_output: 8
    pad: 2
    kernel_size: 5
    stride: 1
    weight_filler {
      type: "gaussian"
      std: 0.01
    }
    bias_filler {
      type: "constant"
    }
  }
}
layer {
  name: "Sigmoid0"
  type: "Sigmoid"
  bottom: "conv0"
  top: "Sigmoid0"
}
layer {
  name: "pool0"
  type: "Pooling"
  bottom: "Sigmoid0"
  top: "pool0"
  pooling_param {
    pool: AVE
    kernel_size: 3
    stride: 2
  }
}
layer {
  name: "ip1"
  type: "InnerProduct"
  bottom: "pool0"
  top: "ip1"
  param {
    lr_mult: 1
  }
  param {
    lr_mult: 2
  }
  inner_product_param {
    num_output: 40
    weight_filler {
      type: "gaussian"
      std: 0.01
    }
    bias_filler {
      type: "constant"
    }
  }
}
layer {
  name: "relu1"
  type: "ReLU"
  bottom: "ip1"
  top: "ip1"
}
layer {
  name: "ip2"
  type: "InnerProduct"
  bottom: "ip1"
  top: "ip2"
  param {
    lr_mult: 1
  }
  param {
    lr_mult: 2
  }
  inner_product_param {
    num_output: 10
    weight_filler {
      type: "gaussian"
      std: 0.01
    }
    bias_filler {
      type: "constant"
    }
  }
}
layer {
  name: "relu2"
  type: "ReLU"
  bottom: "ip2"
  top: "ip2"
}
layer {
  name: "ip3"
  type: "InnerProduct"
  bottom: "ip2"
  top: "ip3"
  param {
    lr_mult: 1
  }
  param {
    lr_mult: 2
  }
  inner_product_param {
    num_output: 40
    weight_filler {
      type: "gaussian"
      std: 0.01
    }
    bias_filler {
      type: "constant"
    }
  }
}
layer {
  name: "relu3"
  type: "ReLU"
  bottom: "ip3"
  top: "ip3"
}
layer {
  name: "ip4"
  type: "InnerProduct"
  bottom: "ip3"
  top: "ip4"
  param {
    lr_mult: 1
  }
  param {
    lr_mult: 2
  }
  inner_product_param {
    num_output: 10
    weight_filler {
      type: "gaussian"
      std: 0.01
    }
    bias_filler {
      type: "constant"
    }
  }
}
layer {
  name: "accuracy"
  type: "Accuracy"
  bottom: "ip4"
  bottom: "label"
  top: "accuracy"
  include {
    phase: TEST
  }
}
layer {
  name: "loss"
  type: "SoftmaxWithLoss"
  bottom: "ip4"
  bottom: "label"
  top: "loss"
}
I0501 04:37:50.696864 25939 layer_factory.hpp:77] Creating layer cifar
I0501 04:37:50.696909 25939 db_lmdb.cpp:35] Opened lmdb examples/cifar10/cifar10_test_lmdb
I0501 04:37:50.696920 25939 net.cpp:86] Creating Layer cifar
I0501 04:37:50.696925 25939 net.cpp:382] cifar -> data
I0501 04:37:50.696933 25939 net.cpp:382] cifar -> label
I0501 04:37:50.696939 25939 data_transformer.cpp:25] Loading mean file from: examples/cifar10/mean.binaryproto
I0501 04:37:50.697072 25939 data_layer.cpp:45] output data size: 1000,3,32,32
I0501 04:37:50.718956 25939 net.cpp:124] Setting up cifar
I0501 04:37:50.718997 25939 net.cpp:131] Top shape: 1000 3 32 32 (3072000)
I0501 04:37:50.719004 25939 net.cpp:131] Top shape: 1000 (1000)
I0501 04:37:50.719008 25939 net.cpp:139] Memory required for data: 12292000
I0501 04:37:50.719014 25939 layer_factory.hpp:77] Creating layer label_cifar_1_split
I0501 04:37:50.719027 25939 net.cpp:86] Creating Layer label_cifar_1_split
I0501 04:37:50.719032 25939 net.cpp:408] label_cifar_1_split <- label
I0501 04:37:50.719038 25939 net.cpp:382] label_cifar_1_split -> label_cifar_1_split_0
I0501 04:37:50.719048 25939 net.cpp:382] label_cifar_1_split -> label_cifar_1_split_1
I0501 04:37:50.719135 25939 net.cpp:124] Setting up label_cifar_1_split
I0501 04:37:50.719143 25939 net.cpp:131] Top shape: 1000 (1000)
I0501 04:37:50.719147 25939 net.cpp:131] Top shape: 1000 (1000)
I0501 04:37:50.719151 25939 net.cpp:139] Memory required for data: 12300000
I0501 04:37:50.719153 25939 layer_factory.hpp:77] Creating layer conv0
I0501 04:37:50.719166 25939 net.cpp:86] Creating Layer conv0
I0501 04:37:50.719172 25939 net.cpp:408] conv0 <- data
I0501 04:37:50.719177 25939 net.cpp:382] conv0 -> conv0
I0501 04:37:50.720955 25939 net.cpp:124] Setting up conv0
I0501 04:37:50.720971 25939 net.cpp:131] Top shape: 1000 8 32 32 (8192000)
I0501 04:37:50.720975 25939 net.cpp:139] Memory required for data: 45068000
I0501 04:37:50.720985 25939 layer_factory.hpp:77] Creating layer Sigmoid0
I0501 04:37:50.720993 25939 net.cpp:86] Creating Layer Sigmoid0
I0501 04:37:50.720996 25939 net.cpp:408] Sigmoid0 <- conv0
I0501 04:37:50.721000 25939 net.cpp:382] Sigmoid0 -> Sigmoid0
I0501 04:37:50.721179 25939 net.cpp:124] Setting up Sigmoid0
I0501 04:37:50.721189 25939 net.cpp:131] Top shape: 1000 8 32 32 (8192000)
I0501 04:37:50.721192 25939 net.cpp:139] Memory required for data: 77836000
I0501 04:37:50.721195 25939 layer_factory.hpp:77] Creating layer pool0
I0501 04:37:50.721204 25939 net.cpp:86] Creating Layer pool0
I0501 04:37:50.721207 25939 net.cpp:408] pool0 <- Sigmoid0
I0501 04:37:50.721212 25939 net.cpp:382] pool0 -> pool0
I0501 04:37:50.721459 25939 net.cpp:124] Setting up pool0
I0501 04:37:50.721468 25939 net.cpp:131] Top shape: 1000 8 16 16 (2048000)
I0501 04:37:50.721472 25939 net.cpp:139] Memory required for data: 86028000
I0501 04:37:50.721475 25939 layer_factory.hpp:77] Creating layer ip1
I0501 04:37:50.721483 25939 net.cpp:86] Creating Layer ip1
I0501 04:37:50.721487 25939 net.cpp:408] ip1 <- pool0
I0501 04:37:50.721491 25939 net.cpp:382] ip1 -> ip1
I0501 04:37:50.724922 25939 net.cpp:124] Setting up ip1
I0501 04:37:50.724933 25939 net.cpp:131] Top shape: 1000 40 (40000)
I0501 04:37:50.724936 25939 net.cpp:139] Memory required for data: 86188000
I0501 04:37:50.724977 25939 layer_factory.hpp:77] Creating layer relu1
I0501 04:37:50.724982 25939 net.cpp:86] Creating Layer relu1
I0501 04:37:50.724987 25939 net.cpp:408] relu1 <- ip1
I0501 04:37:50.724992 25939 net.cpp:369] relu1 -> ip1 (in-place)
I0501 04:37:50.725191 25939 net.cpp:124] Setting up relu1
I0501 04:37:50.725200 25939 net.cpp:131] Top shape: 1000 40 (40000)
I0501 04:37:50.725203 25939 net.cpp:139] Memory required for data: 86348000
I0501 04:37:50.725208 25939 layer_factory.hpp:77] Creating layer ip2
I0501 04:37:50.725214 25939 net.cpp:86] Creating Layer ip2
I0501 04:37:50.725219 25939 net.cpp:408] ip2 <- ip1
I0501 04:37:50.725222 25939 net.cpp:382] ip2 -> ip2
I0501 04:37:50.725342 25939 net.cpp:124] Setting up ip2
I0501 04:37:50.725349 25939 net.cpp:131] Top shape: 1000 10 (10000)
I0501 04:37:50.725353 25939 net.cpp:139] Memory required for data: 86388000
I0501 04:37:50.725360 25939 layer_factory.hpp:77] Creating layer relu2
I0501 04:37:50.725368 25939 net.cpp:86] Creating Layer relu2
I0501 04:37:50.725371 25939 net.cpp:408] relu2 <- ip2
I0501 04:37:50.725375 25939 net.cpp:369] relu2 -> ip2 (in-place)
I0501 04:37:50.726172 25939 net.cpp:124] Setting up relu2
I0501 04:37:50.726186 25939 net.cpp:131] Top shape: 1000 10 (10000)
I0501 04:37:50.726191 25939 net.cpp:139] Memory required for data: 86428000
I0501 04:37:50.726209 25939 layer_factory.hpp:77] Creating layer ip3
I0501 04:37:50.726217 25939 net.cpp:86] Creating Layer ip3
I0501 04:37:50.726219 25939 net.cpp:408] ip3 <- ip2
I0501 04:37:50.726227 25939 net.cpp:382] ip3 -> ip3
I0501 04:37:50.726361 25939 net.cpp:124] Setting up ip3
I0501 04:37:50.726369 25939 net.cpp:131] Top shape: 1000 40 (40000)
I0501 04:37:50.726372 25939 net.cpp:139] Memory required for data: 86588000
I0501 04:37:50.726377 25939 layer_factory.hpp:77] Creating layer relu3
I0501 04:37:50.726384 25939 net.cpp:86] Creating Layer relu3
I0501 04:37:50.726397 25939 net.cpp:408] relu3 <- ip3
I0501 04:37:50.726402 25939 net.cpp:369] relu3 -> ip3 (in-place)
I0501 04:37:50.726562 25939 net.cpp:124] Setting up relu3
I0501 04:37:50.726572 25939 net.cpp:131] Top shape: 1000 40 (40000)
I0501 04:37:50.726575 25939 net.cpp:139] Memory required for data: 86748000
I0501 04:37:50.726578 25939 layer_factory.hpp:77] Creating layer ip4
I0501 04:37:50.726588 25939 net.cpp:86] Creating Layer ip4
I0501 04:37:50.726596 25939 net.cpp:408] ip4 <- ip3
I0501 04:37:50.726603 25939 net.cpp:382] ip4 -> ip4
I0501 04:37:50.726718 25939 net.cpp:124] Setting up ip4
I0501 04:37:50.726725 25939 net.cpp:131] Top shape: 1000 10 (10000)
I0501 04:37:50.726728 25939 net.cpp:139] Memory required for data: 86788000
I0501 04:37:50.726737 25939 layer_factory.hpp:77] Creating layer ip4_ip4_0_split
I0501 04:37:50.726742 25939 net.cpp:86] Creating Layer ip4_ip4_0_split
I0501 04:37:50.726747 25939 net.cpp:408] ip4_ip4_0_split <- ip4
I0501 04:37:50.726752 25939 net.cpp:382] ip4_ip4_0_split -> ip4_ip4_0_split_0
I0501 04:37:50.726758 25939 net.cpp:382] ip4_ip4_0_split -> ip4_ip4_0_split_1
I0501 04:37:50.726788 25939 net.cpp:124] Setting up ip4_ip4_0_split
I0501 04:37:50.726793 25939 net.cpp:131] Top shape: 1000 10 (10000)
I0501 04:37:50.726796 25939 net.cpp:131] Top shape: 1000 10 (10000)
I0501 04:37:50.726799 25939 net.cpp:139] Memory required for data: 86868000
I0501 04:37:50.726802 25939 layer_factory.hpp:77] Creating layer accuracy
I0501 04:37:50.726809 25939 net.cpp:86] Creating Layer accuracy
I0501 04:37:50.726811 25939 net.cpp:408] accuracy <- ip4_ip4_0_split_0
I0501 04:37:50.726815 25939 net.cpp:408] accuracy <- label_cifar_1_split_0
I0501 04:37:50.726819 25939 net.cpp:382] accuracy -> accuracy
…
