…
I0501 05:54:03.563386 30821 net.cpp:296] The NetState phase (0) differed from the phase (1) specified by a rule in layer cifar
I0501 05:54:03.563405 30821 net.cpp:296] The NetState phase (0) differed from the phase (1) specified by a rule in layer accuracy
I0501 05:54:03.563503 30821 net.cpp:53] Initializing net from parameters: 
name: "CIFAR"
state {
  phase: TRAIN
  level: 0
  stage: ""
}
layer {
  name: "cifar"
  type: "Data"
  top: "data"
  top: "label"
  include {
    phase: TRAIN
  }
  transform_param {
    mean_file: "examples/cifar10/mean.binaryproto"
  }
  data_param {
    source: "examples/cifar10/cifar10_train_lmdb"
    batch_size: 111
    backend: LMDB
  }
}
layer {
  name: "conv0"
  type: "Convolution"
  bottom: "data"
  top: "conv0"
  param {
    lr_mult: 1
  }
  param {
    lr_mult: 2
  }
  convolution_param {
    num_output: 8
    pad: 2
    kernel_size: 5
    stride: 1
    weight_filler {
      type: "gaussian"
      std: 0.01
    }
    bias_filler {
      type: "constant"
    }
  }
}
layer {
  name: "Sigmoid0"
  type: "Sigmoid"
  bottom: "conv0"
  top: "Sigmoid0"
}
layer {
  name: "pool0"
  type: "Pooling"
  bottom: "Sigmoid0"
  top: "pool0"
  pooling_param {
    pool: AVE
    kernel_size: 3
    stride: 2
  }
}
layer {
  name: "ip1"
  type: "InnerProduct"
  bottom: "pool0"
  top: "ip1"
  param {
    lr_mult: 1
  }
  param {
    lr_mult: 2
  }
  inner_product_param {
    num_output: 80
    weight_filler {
      type: "gaussian"
      std: 0.01
    }
    bias_filler {
      type: "constant"
    }
  }
}
layer {
  name: "relu1"
  type: "ReLU"
  bottom: "ip1"
  top: "ip1"
}
layer {
  name: "ip2"
  type: "InnerProduct"
  bottom: "ip1"
  top: "ip2"
  param {
    lr_mult: 1
  }
  param {
    lr_mult: 2
  }
  inner_product_param {
    num_output: 80
    weight_filler {
      type: "gaussian"
      std: 0.01
    }
    bias_filler {
      type: "constant"
    }
  }
}
layer {
  name: "relu2"
  type: "ReLU"
  bottom: "ip2"
  top: "ip2"
}
layer {
  name: "ip3"
  type: "InnerProduct"
  bottom: "ip2"
  top: "ip3"
  param {
    lr_mult: 1
  }
  param {
    lr_mult: 2
  }
  inner_product_param {
    num_output: 80
    weight_filler {
      type: "gaussian"
      std: 0.01
    }
    bias_filler {
      type: "constant"
    }
  }
}
layer {
  name: "relu3"
  type: "ReLU"
  bottom: "ip3"
  top: "ip3"
}
layer {
  name: "ip4"
  type: "InnerProduct"
  bottom: "ip3"
  top: "ip4"
  param {
    lr_mult: 1
  }
  param {
    lr_mult: 2
  }
  inner_product_param {
    num_output: 10
    weight_filler {
      type: "gaussian"
      std: 0.01
    }
    bias_filler {
      type: "constant"
    }
  }
}
layer {
  name: "loss"
  type: "SoftmaxWithLoss"
  bottom: "ip4"
  bottom: "label"
  top: "loss"
}
I0501 05:54:03.563578 30821 layer_factory.hpp:77] Creating layer cifar
I0501 05:54:03.563683 30821 db_lmdb.cpp:35] Opened lmdb examples/cifar10/cifar10_train_lmdb
I0501 05:54:03.563709 30821 net.cpp:86] Creating Layer cifar
I0501 05:54:03.563717 30821 net.cpp:382] cifar -> data
I0501 05:54:03.563741 30821 net.cpp:382] cifar -> label
I0501 05:54:03.563752 30821 data_transformer.cpp:25] Loading mean file from: examples/cifar10/mean.binaryproto
I0501 05:54:03.565861 30821 data_layer.cpp:45] output data size: 111,3,32,32
I0501 05:54:03.573717 30821 net.cpp:124] Setting up cifar
I0501 05:54:03.573738 30821 net.cpp:131] Top shape: 111 3 32 32 (340992)
I0501 05:54:03.573745 30821 net.cpp:131] Top shape: 111 (111)
I0501 05:54:03.573750 30821 net.cpp:139] Memory required for data: 1364412
I0501 05:54:03.573773 30821 layer_factory.hpp:77] Creating layer conv0
I0501 05:54:03.573791 30821 net.cpp:86] Creating Layer conv0
I0501 05:54:03.573797 30821 net.cpp:408] conv0 <- data
I0501 05:54:03.573809 30821 net.cpp:382] conv0 -> conv0
I0501 05:54:03.851589 30821 net.cpp:124] Setting up conv0
I0501 05:54:03.851616 30821 net.cpp:131] Top shape: 111 8 32 32 (909312)
I0501 05:54:03.851620 30821 net.cpp:139] Memory required for data: 5001660
I0501 05:54:03.851635 30821 layer_factory.hpp:77] Creating layer Sigmoid0
I0501 05:54:03.851646 30821 net.cpp:86] Creating Layer Sigmoid0
I0501 05:54:03.851650 30821 net.cpp:408] Sigmoid0 <- conv0
I0501 05:54:03.851655 30821 net.cpp:382] Sigmoid0 -> Sigmoid0
I0501 05:54:03.851809 30821 net.cpp:124] Setting up Sigmoid0
I0501 05:54:03.851819 30821 net.cpp:131] Top shape: 111 8 32 32 (909312)
I0501 05:54:03.851821 30821 net.cpp:139] Memory required for data: 8638908
I0501 05:54:03.851824 30821 layer_factory.hpp:77] Creating layer pool0
I0501 05:54:03.851831 30821 net.cpp:86] Creating Layer pool0
I0501 05:54:03.851835 30821 net.cpp:408] pool0 <- Sigmoid0
I0501 05:54:03.851840 30821 net.cpp:382] pool0 -> pool0
I0501 05:54:03.852531 30821 net.cpp:124] Setting up pool0
I0501 05:54:03.852545 30821 net.cpp:131] Top shape: 111 8 16 16 (227328)
I0501 05:54:03.852547 30821 net.cpp:139] Memory required for data: 9548220
I0501 05:54:03.852551 30821 layer_factory.hpp:77] Creating layer ip1
I0501 05:54:03.852561 30821 net.cpp:86] Creating Layer ip1
I0501 05:54:03.852565 30821 net.cpp:408] ip1 <- pool0
I0501 05:54:03.852569 30821 net.cpp:382] ip1 -> ip1
I0501 05:54:03.856907 30821 net.cpp:124] Setting up ip1
I0501 05:54:03.856915 30821 net.cpp:131] Top shape: 111 80 (8880)
I0501 05:54:03.856935 30821 net.cpp:139] Memory required for data: 9583740
I0501 05:54:03.856941 30821 layer_factory.hpp:77] Creating layer relu1
I0501 05:54:03.856947 30821 net.cpp:86] Creating Layer relu1
I0501 05:54:03.856950 30821 net.cpp:408] relu1 <- ip1
I0501 05:54:03.856955 30821 net.cpp:369] relu1 -> ip1 (in-place)
I0501 05:54:03.857118 30821 net.cpp:124] Setting up relu1
I0501 05:54:03.857126 30821 net.cpp:131] Top shape: 111 80 (8880)
I0501 05:54:03.857130 30821 net.cpp:139] Memory required for data: 9619260
I0501 05:54:03.857132 30821 layer_factory.hpp:77] Creating layer ip2
I0501 05:54:03.857138 30821 net.cpp:86] Creating Layer ip2
I0501 05:54:03.857141 30821 net.cpp:408] ip2 <- ip1
I0501 05:54:03.857146 30821 net.cpp:382] ip2 -> ip2
I0501 05:54:03.858213 30821 net.cpp:124] Setting up ip2
I0501 05:54:03.858224 30821 net.cpp:131] Top shape: 111 80 (8880)
I0501 05:54:03.858227 30821 net.cpp:139] Memory required for data: 9654780
I0501 05:54:03.858235 30821 layer_factory.hpp:77] Creating layer relu2
I0501 05:54:03.858240 30821 net.cpp:86] Creating Layer relu2
I0501 05:54:03.858243 30821 net.cpp:408] relu2 <- ip2
I0501 05:54:03.858247 30821 net.cpp:369] relu2 -> ip2 (in-place)
I0501 05:54:03.858410 30821 net.cpp:124] Setting up relu2
I0501 05:54:03.858418 30821 net.cpp:131] Top shape: 111 80 (8880)
I0501 05:54:03.858422 30821 net.cpp:139] Memory required for data: 9690300
I0501 05:54:03.858424 30821 layer_factory.hpp:77] Creating layer ip3
I0501 05:54:03.858431 30821 net.cpp:86] Creating Layer ip3
I0501 05:54:03.858438 30821 net.cpp:408] ip3 <- ip2
I0501 05:54:03.858443 30821 net.cpp:382] ip3 -> ip3
I0501 05:54:03.858705 30821 net.cpp:124] Setting up ip3
I0501 05:54:03.858712 30821 net.cpp:131] Top shape: 111 80 (8880)
I0501 05:54:03.858716 30821 net.cpp:139] Memory required for data: 9725820
I0501 05:54:03.858721 30821 layer_factory.hpp:77] Creating layer relu3
I0501 05:54:03.858726 30821 net.cpp:86] Creating Layer relu3
I0501 05:54:03.858729 30821 net.cpp:408] relu3 <- ip3
I0501 05:54:03.858732 30821 net.cpp:369] relu3 -> ip3 (in-place)
I0501 05:54:03.858886 30821 net.cpp:124] Setting up relu3
I0501 05:54:03.858892 30821 net.cpp:131] Top shape: 111 80 (8880)
I0501 05:54:03.858896 30821 net.cpp:139] Memory required for data: 9761340
I0501 05:54:03.858897 30821 layer_factory.hpp:77] Creating layer ip4
I0501 05:54:03.858916 30821 net.cpp:86] Creating Layer ip4
I0501 05:54:03.858919 30821 net.cpp:408] ip4 <- ip3
I0501 05:54:03.858924 30821 net.cpp:382] ip4 -> ip4
I0501 05:54:03.859028 30821 net.cpp:124] Setting up ip4
I0501 05:54:03.859035 30821 net.cpp:131] Top shape: 111 10 (1110)
I0501 05:54:03.859037 30821 net.cpp:139] Memory required for data: 9765780
I0501 05:54:03.859045 30821 layer_factory.hpp:77] Creating layer loss
I0501 05:54:03.859050 30821 net.cpp:86] Creating Layer loss
I0501 05:54:03.859052 30821 net.cpp:408] loss <- ip4
I0501 05:54:03.859055 30821 net.cpp:408] loss <- label
I0501 05:54:03.859061 30821 net.cpp:382] loss -> loss
I0501 05:54:03.859076 30821 layer_factory.hpp:77] Creating layer loss
…
I0501 05:54:03.860280 30821 solver.cpp:173] Creating test net (#0) specified by net file: ECE595/cifar/train_test/var_everything/cifar_train_test_433.prototxt
I0501 05:54:03.860319 30821 net.cpp:296] The NetState phase (1) differed from the phase (0) specified by a rule in layer cifar
I0501 05:54:03.860435 30821 net.cpp:53] Initializing net from parameters: 
name: "CIFAR"
state {
  phase: TEST
}
layer {
  name: "cifar"
  type: "Data"
  top: "data"
  top: "label"
  include {
    phase: TEST
  }
  transform_param {
    mean_file: "examples/cifar10/mean.binaryproto"
  }
  data_param {
    source: "examples/cifar10/cifar10_test_lmdb"
    batch_size: 1000
    backend: LMDB
  }
}
layer {
  name: "conv0"
  type: "Convolution"
  bottom: "data"
  top: "conv0"
  param {
    lr_mult: 1
  }
  param {
    lr_mult: 2
  }
  convolution_param {
    num_output: 8
    pad: 2
    kernel_size: 5
    stride: 1
    weight_filler {
      type: "gaussian"
      std: 0.01
    }
    bias_filler {
      type: "constant"
    }
  }
}
layer {
  name: "Sigmoid0"
  type: "Sigmoid"
  bottom: "conv0"
  top: "Sigmoid0"
}
layer {
  name: "pool0"
  type: "Pooling"
  bottom: "Sigmoid0"
  top: "pool0"
  pooling_param {
    pool: AVE
    kernel_size: 3
    stride: 2
  }
}
layer {
  name: "ip1"
  type: "InnerProduct"
  bottom: "pool0"
  top: "ip1"
  param {
    lr_mult: 1
  }
  param {
    lr_mult: 2
  }
  inner_product_param {
    num_output: 80
    weight_filler {
      type: "gaussian"
      std: 0.01
    }
    bias_filler {
      type: "constant"
    }
  }
}
layer {
  name: "relu1"
  type: "ReLU"
  bottom: "ip1"
  top: "ip1"
}
layer {
  name: "ip2"
  type: "InnerProduct"
  bottom: "ip1"
  top: "ip2"
  param {
    lr_mult: 1
  }
  param {
    lr_mult: 2
  }
  inner_product_param {
    num_output: 80
    weight_filler {
      type: "gaussian"
      std: 0.01
    }
    bias_filler {
      type: "constant"
    }
  }
}
layer {
  name: "relu2"
  type: "ReLU"
  bottom: "ip2"
  top: "ip2"
}
layer {
  name: "ip3"
  type: "InnerProduct"
  bottom: "ip2"
  top: "ip3"
  param {
    lr_mult: 1
  }
  param {
    lr_mult: 2
  }
  inner_product_param {
    num_output: 80
    weight_filler {
      type: "gaussian"
      std: 0.01
    }
    bias_filler {
      type: "constant"
    }
  }
}
layer {
  name: "relu3"
  type: "ReLU"
  bottom: "ip3"
  top: "ip3"
}
layer {
  name: "ip4"
  type: "InnerProduct"
  bottom: "ip3"
  top: "ip4"
  param {
    lr_mult: 1
  }
  param {
    lr_mult: 2
  }
  inner_product_param {
    num_output: 10
    weight_filler {
      type: "gaussian"
      std: 0.01
    }
    bias_filler {
      type: "constant"
    }
  }
}
layer {
  name: "accuracy"
  type: "Accuracy"
  bottom: "ip4"
  bottom: "label"
  top: "accuracy"
  include {
    phase: TEST
  }
}
layer {
  name: "loss"
  type: "SoftmaxWithLoss"
  bottom: "ip4"
  bottom: "label"
  top: "loss"
}
I0501 05:54:03.860507 30821 layer_factory.hpp:77] Creating layer cifar
I0501 05:54:03.860553 30821 db_lmdb.cpp:35] Opened lmdb examples/cifar10/cifar10_test_lmdb
I0501 05:54:03.860576 30821 net.cpp:86] Creating Layer cifar
I0501 05:54:03.860582 30821 net.cpp:382] cifar -> data
I0501 05:54:03.860589 30821 net.cpp:382] cifar -> label
I0501 05:54:03.860595 30821 data_transformer.cpp:25] Loading mean file from: examples/cifar10/mean.binaryproto
I0501 05:54:03.860733 30821 data_layer.cpp:45] output data size: 1000,3,32,32
I0501 05:54:03.883919 30821 net.cpp:124] Setting up cifar
I0501 05:54:03.883958 30821 net.cpp:131] Top shape: 1000 3 32 32 (3072000)
I0501 05:54:03.883978 30821 net.cpp:131] Top shape: 1000 (1000)
I0501 05:54:03.883982 30821 net.cpp:139] Memory required for data: 12292000
I0501 05:54:03.883987 30821 layer_factory.hpp:77] Creating layer label_cifar_1_split
I0501 05:54:03.884006 30821 net.cpp:86] Creating Layer label_cifar_1_split
I0501 05:54:03.884009 30821 net.cpp:408] label_cifar_1_split <- label
I0501 05:54:03.884016 30821 net.cpp:382] label_cifar_1_split -> label_cifar_1_split_0
I0501 05:54:03.884023 30821 net.cpp:382] label_cifar_1_split -> label_cifar_1_split_1
I0501 05:54:03.884101 30821 net.cpp:124] Setting up label_cifar_1_split
I0501 05:54:03.884109 30821 net.cpp:131] Top shape: 1000 (1000)
I0501 05:54:03.884112 30821 net.cpp:131] Top shape: 1000 (1000)
I0501 05:54:03.884115 30821 net.cpp:139] Memory required for data: 12300000
I0501 05:54:03.884119 30821 layer_factory.hpp:77] Creating layer conv0
I0501 05:54:03.884130 30821 net.cpp:86] Creating Layer conv0
I0501 05:54:03.884135 30821 net.cpp:408] conv0 <- data
I0501 05:54:03.884155 30821 net.cpp:382] conv0 -> conv0
I0501 05:54:03.885907 30821 net.cpp:124] Setting up conv0
I0501 05:54:03.885936 30821 net.cpp:131] Top shape: 1000 8 32 32 (8192000)
I0501 05:54:03.885941 30821 net.cpp:139] Memory required for data: 45068000
I0501 05:54:03.885951 30821 layer_factory.hpp:77] Creating layer Sigmoid0
I0501 05:54:03.885957 30821 net.cpp:86] Creating Layer Sigmoid0
I0501 05:54:03.885962 30821 net.cpp:408] Sigmoid0 <- conv0
I0501 05:54:03.885965 30821 net.cpp:382] Sigmoid0 -> Sigmoid0
I0501 05:54:03.886181 30821 net.cpp:124] Setting up Sigmoid0
I0501 05:54:03.886190 30821 net.cpp:131] Top shape: 1000 8 32 32 (8192000)
I0501 05:54:03.886194 30821 net.cpp:139] Memory required for data: 77836000
I0501 05:54:03.886198 30821 layer_factory.hpp:77] Creating layer pool0
I0501 05:54:03.886205 30821 net.cpp:86] Creating Layer pool0
I0501 05:54:03.886209 30821 net.cpp:408] pool0 <- Sigmoid0
I0501 05:54:03.886214 30821 net.cpp:382] pool0 -> pool0
I0501 05:54:03.886479 30821 net.cpp:124] Setting up pool0
I0501 05:54:03.886487 30821 net.cpp:131] Top shape: 1000 8 16 16 (2048000)
I0501 05:54:03.886490 30821 net.cpp:139] Memory required for data: 86028000
I0501 05:54:03.886494 30821 layer_factory.hpp:77] Creating layer ip1
I0501 05:54:03.886502 30821 net.cpp:86] Creating Layer ip1
I0501 05:54:03.886505 30821 net.cpp:408] ip1 <- pool0
I0501 05:54:03.886510 30821 net.cpp:382] ip1 -> ip1
I0501 05:54:03.891871 30821 net.cpp:124] Setting up ip1
I0501 05:54:03.891901 30821 net.cpp:131] Top shape: 1000 80 (80000)
I0501 05:54:03.891906 30821 net.cpp:139] Memory required for data: 86348000
I0501 05:54:03.891928 30821 layer_factory.hpp:77] Creating layer relu1
I0501 05:54:03.891935 30821 net.cpp:86] Creating Layer relu1
I0501 05:54:03.891938 30821 net.cpp:408] relu1 <- ip1
I0501 05:54:03.891943 30821 net.cpp:369] relu1 -> ip1 (in-place)
I0501 05:54:03.892125 30821 net.cpp:124] Setting up relu1
I0501 05:54:03.892134 30821 net.cpp:131] Top shape: 1000 80 (80000)
I0501 05:54:03.892138 30821 net.cpp:139] Memory required for data: 86668000
I0501 05:54:03.892140 30821 layer_factory.hpp:77] Creating layer ip2
I0501 05:54:03.892148 30821 net.cpp:86] Creating Layer ip2
I0501 05:54:03.892150 30821 net.cpp:408] ip2 <- ip1
I0501 05:54:03.892155 30821 net.cpp:382] ip2 -> ip2
I0501 05:54:03.892441 30821 net.cpp:124] Setting up ip2
I0501 05:54:03.892463 30821 net.cpp:131] Top shape: 1000 80 (80000)
I0501 05:54:03.892467 30821 net.cpp:139] Memory required for data: 86988000
I0501 05:54:03.892489 30821 layer_factory.hpp:77] Creating layer relu2
I0501 05:54:03.892494 30821 net.cpp:86] Creating Layer relu2
I0501 05:54:03.892513 30821 net.cpp:408] relu2 <- ip2
I0501 05:54:03.892516 30821 net.cpp:369] relu2 -> ip2 (in-place)
I0501 05:54:03.893338 30821 net.cpp:124] Setting up relu2
I0501 05:54:03.893350 30821 net.cpp:131] Top shape: 1000 80 (80000)
I0501 05:54:03.893368 30821 net.cpp:139] Memory required for data: 87308000
I0501 05:54:03.893371 30821 layer_factory.hpp:77] Creating layer ip3
I0501 05:54:03.893379 30821 net.cpp:86] Creating Layer ip3
I0501 05:54:03.893383 30821 net.cpp:408] ip3 <- ip2
I0501 05:54:03.893388 30821 net.cpp:382] ip3 -> ip3
I0501 05:54:03.893697 30821 net.cpp:124] Setting up ip3
I0501 05:54:03.893704 30821 net.cpp:131] Top shape: 1000 80 (80000)
I0501 05:54:03.893707 30821 net.cpp:139] Memory required for data: 87628000
I0501 05:54:03.893712 30821 layer_factory.hpp:77] Creating layer relu3
I0501 05:54:03.893718 30821 net.cpp:86] Creating Layer relu3
I0501 05:54:03.893720 30821 net.cpp:408] relu3 <- ip3
I0501 05:54:03.893726 30821 net.cpp:369] relu3 -> ip3 (in-place)
I0501 05:54:03.893896 30821 net.cpp:124] Setting up relu3
I0501 05:54:03.893904 30821 net.cpp:131] Top shape: 1000 80 (80000)
I0501 05:54:03.893908 30821 net.cpp:139] Memory required for data: 87948000
I0501 05:54:03.893910 30821 layer_factory.hpp:77] Creating layer ip4
I0501 05:54:03.893918 30821 net.cpp:86] Creating Layer ip4
I0501 05:54:03.893920 30821 net.cpp:408] ip4 <- ip3
I0501 05:54:03.893924 30821 net.cpp:382] ip4 -> ip4
I0501 05:54:03.894047 30821 net.cpp:124] Setting up ip4
I0501 05:54:03.894052 30821 net.cpp:131] Top shape: 1000 10 (10000)
I0501 05:54:03.894055 30821 net.cpp:139] Memory required for data: 87988000
I0501 05:54:03.894065 30821 layer_factory.hpp:77] Creating layer ip4_ip4_0_split
I0501 05:54:03.894073 30821 net.cpp:86] Creating Layer ip4_ip4_0_split
I0501 05:54:03.894091 30821 net.cpp:408] ip4_ip4_0_split <- ip4
I0501 05:54:03.894095 30821 net.cpp:382] ip4_ip4_0_split -> ip4_ip4_0_split_0
I0501 05:54:03.894099 30821 net.cpp:382] ip4_ip4_0_split -> ip4_ip4_0_split_1
I0501 05:54:03.894131 30821 net.cpp:124] Setting up ip4_ip4_0_split
I0501 05:54:03.894139 30821 net.cpp:131] Top shape: 1000 10 (10000)
I0501 05:54:03.894142 30821 net.cpp:131] Top shape: 1000 10 (10000)
I0501 05:54:03.894145 30821 net.cpp:139] Memory required for data: 88068000
I0501 05:54:03.894147 30821 layer_factory.hpp:77] Creating layer accuracy
I0501 05:54:03.894153 30821 net.cpp:86] Creating Layer accuracy
I0501 05:54:03.894156 30821 net.cpp:408] accuracy <- ip4_ip4_0_split_0
I0501 05:54:03.894160 30821 net.cpp:408] accuracy <- label_cifar_1_split_0
I0501 05:54:03.894165 30821 net.cpp:382] accuracy -> accuracy
…
