…
I0501 03:47:39.248298 22619 net.cpp:296] The NetState phase (0) differed from the phase (1) specified by a rule in layer cifar
I0501 03:47:39.248322 22619 net.cpp:296] The NetState phase (0) differed from the phase (1) specified by a rule in layer accuracy
I0501 03:47:39.248430 22619 net.cpp:53] Initializing net from parameters: 
name: "CIFAR"
state {
  phase: TRAIN
  level: 0
  stage: ""
}
layer {
  name: "cifar"
  type: "Data"
  top: "data"
  top: "label"
  include {
    phase: TRAIN
  }
  transform_param {
    mean_file: "examples/cifar10/mean.binaryproto"
  }
  data_param {
    source: "examples/cifar10/cifar10_train_lmdb"
    batch_size: 111
    backend: LMDB
  }
}
layer {
  name: "conv0"
  type: "Convolution"
  bottom: "data"
  top: "conv0"
  param {
    lr_mult: 1
  }
  param {
    lr_mult: 2
  }
  convolution_param {
    num_output: 8
    pad: 2
    kernel_size: 5
    stride: 1
    weight_filler {
      type: "gaussian"
      std: 0.01
    }
    bias_filler {
      type: "constant"
    }
  }
}
layer {
  name: "Sigmoid0"
  type: "Sigmoid"
  bottom: "conv0"
  top: "Sigmoid0"
}
layer {
  name: "pool0"
  type: "Pooling"
  bottom: "Sigmoid0"
  top: "pool0"
  pooling_param {
    pool: AVE
    kernel_size: 3
    stride: 2
  }
}
layer {
  name: "ip1"
  type: "InnerProduct"
  bottom: "pool0"
  top: "ip1"
  param {
    lr_mult: 1
  }
  param {
    lr_mult: 2
  }
  inner_product_param {
    num_output: 20
    weight_filler {
      type: "gaussian"
      std: 0.01
    }
    bias_filler {
      type: "constant"
    }
  }
}
layer {
  name: "relu1"
  type: "ReLU"
  bottom: "ip1"
  top: "ip1"
}
layer {
  name: "ip2"
  type: "InnerProduct"
  bottom: "ip1"
  top: "ip2"
  param {
    lr_mult: 1
  }
  param {
    lr_mult: 2
  }
  inner_product_param {
    num_output: 10
    weight_filler {
      type: "gaussian"
      std: 0.01
    }
    bias_filler {
      type: "constant"
    }
  }
}
layer {
  name: "relu2"
  type: "ReLU"
  bottom: "ip2"
  top: "ip2"
}
layer {
  name: "ip3"
  type: "InnerProduct"
  bottom: "ip2"
  top: "ip3"
  param {
    lr_mult: 1
  }
  param {
    lr_mult: 2
  }
  inner_product_param {
    num_output: 10
    weight_filler {
      type: "gaussian"
      std: 0.01
    }
    bias_filler {
      type: "constant"
    }
  }
}
layer {
  name: "relu3"
  type: "ReLU"
  bottom: "ip3"
  top: "ip3"
}
layer {
  name: "ip4"
  type: "InnerProduct"
  bottom: "ip3"
  top: "ip4"
  param {
    lr_mult: 1
  }
  param {
    lr_mult: 2
  }
  inner_product_param {
    num_output: 10
    weight_filler {
      type: "gaussian"
      std: 0.01
    }
    bias_filler {
      type: "constant"
    }
  }
}
layer {
  name: "loss"
  type: "SoftmaxWithLoss"
  bottom: "ip4"
  bottom: "label"
  top: "loss"
}
I0501 03:47:39.248535 22619 layer_factory.hpp:77] Creating layer cifar
I0501 03:47:39.248674 22619 db_lmdb.cpp:35] Opened lmdb examples/cifar10/cifar10_train_lmdb
I0501 03:47:39.248711 22619 net.cpp:86] Creating Layer cifar
I0501 03:47:39.248723 22619 net.cpp:382] cifar -> data
I0501 03:47:39.248754 22619 net.cpp:382] cifar -> label
I0501 03:47:39.248771 22619 data_transformer.cpp:25] Loading mean file from: examples/cifar10/mean.binaryproto
I0501 03:47:39.251101 22619 data_layer.cpp:45] output data size: 111,3,32,32
I0501 03:47:39.259279 22619 net.cpp:124] Setting up cifar
I0501 03:47:39.259299 22619 net.cpp:131] Top shape: 111 3 32 32 (340992)
I0501 03:47:39.259310 22619 net.cpp:131] Top shape: 111 (111)
I0501 03:47:39.259316 22619 net.cpp:139] Memory required for data: 1364412
I0501 03:47:39.259354 22619 layer_factory.hpp:77] Creating layer conv0
I0501 03:47:39.259382 22619 net.cpp:86] Creating Layer conv0
I0501 03:47:39.259392 22619 net.cpp:408] conv0 <- data
I0501 03:47:39.259409 22619 net.cpp:382] conv0 -> conv0
I0501 03:47:39.543187 22619 net.cpp:124] Setting up conv0
I0501 03:47:39.543216 22619 net.cpp:131] Top shape: 111 8 32 32 (909312)
I0501 03:47:39.543222 22619 net.cpp:139] Memory required for data: 5001660
I0501 03:47:39.543242 22619 layer_factory.hpp:77] Creating layer Sigmoid0
I0501 03:47:39.543258 22619 net.cpp:86] Creating Layer Sigmoid0
I0501 03:47:39.543265 22619 net.cpp:408] Sigmoid0 <- conv0
I0501 03:47:39.543274 22619 net.cpp:382] Sigmoid0 -> Sigmoid0
I0501 03:47:39.543457 22619 net.cpp:124] Setting up Sigmoid0
I0501 03:47:39.543467 22619 net.cpp:131] Top shape: 111 8 32 32 (909312)
I0501 03:47:39.543473 22619 net.cpp:139] Memory required for data: 8638908
I0501 03:47:39.543478 22619 layer_factory.hpp:77] Creating layer pool0
I0501 03:47:39.543488 22619 net.cpp:86] Creating Layer pool0
I0501 03:47:39.543493 22619 net.cpp:408] pool0 <- Sigmoid0
I0501 03:47:39.543501 22619 net.cpp:382] pool0 -> pool0
I0501 03:47:39.544246 22619 net.cpp:124] Setting up pool0
I0501 03:47:39.544261 22619 net.cpp:131] Top shape: 111 8 16 16 (227328)
I0501 03:47:39.544267 22619 net.cpp:139] Memory required for data: 9548220
I0501 03:47:39.544272 22619 layer_factory.hpp:77] Creating layer ip1
I0501 03:47:39.544286 22619 net.cpp:86] Creating Layer ip1
I0501 03:47:39.544292 22619 net.cpp:408] ip1 <- pool0
I0501 03:47:39.544301 22619 net.cpp:382] ip1 -> ip1
I0501 03:47:39.546340 22619 net.cpp:124] Setting up ip1
I0501 03:47:39.546355 22619 net.cpp:131] Top shape: 111 20 (2220)
I0501 03:47:39.546360 22619 net.cpp:139] Memory required for data: 9557100
I0501 03:47:39.546373 22619 layer_factory.hpp:77] Creating layer relu1
I0501 03:47:39.546383 22619 net.cpp:86] Creating Layer relu1
I0501 03:47:39.546388 22619 net.cpp:408] relu1 <- ip1
I0501 03:47:39.546396 22619 net.cpp:369] relu1 -> ip1 (in-place)
I0501 03:47:39.546560 22619 net.cpp:124] Setting up relu1
I0501 03:47:39.546571 22619 net.cpp:131] Top shape: 111 20 (2220)
I0501 03:47:39.546576 22619 net.cpp:139] Memory required for data: 9565980
I0501 03:47:39.546581 22619 layer_factory.hpp:77] Creating layer ip2
I0501 03:47:39.546591 22619 net.cpp:86] Creating Layer ip2
I0501 03:47:39.546596 22619 net.cpp:408] ip2 <- ip1
I0501 03:47:39.546603 22619 net.cpp:382] ip2 -> ip2
I0501 03:47:39.546710 22619 net.cpp:124] Setting up ip2
I0501 03:47:39.546720 22619 net.cpp:131] Top shape: 111 10 (1110)
I0501 03:47:39.546725 22619 net.cpp:139] Memory required for data: 9570420
I0501 03:47:39.546736 22619 layer_factory.hpp:77] Creating layer relu2
I0501 03:47:39.546744 22619 net.cpp:86] Creating Layer relu2
I0501 03:47:39.546749 22619 net.cpp:408] relu2 <- ip2
I0501 03:47:39.546757 22619 net.cpp:369] relu2 -> ip2 (in-place)
I0501 03:47:39.546916 22619 net.cpp:124] Setting up relu2
I0501 03:47:39.546926 22619 net.cpp:131] Top shape: 111 10 (1110)
I0501 03:47:39.546931 22619 net.cpp:139] Memory required for data: 9574860
I0501 03:47:39.546936 22619 layer_factory.hpp:77] Creating layer ip3
I0501 03:47:39.546947 22619 net.cpp:86] Creating Layer ip3
I0501 03:47:39.546952 22619 net.cpp:408] ip3 <- ip2
I0501 03:47:39.546962 22619 net.cpp:382] ip3 -> ip3
I0501 03:47:39.547062 22619 net.cpp:124] Setting up ip3
I0501 03:47:39.547070 22619 net.cpp:131] Top shape: 111 10 (1110)
I0501 03:47:39.547075 22619 net.cpp:139] Memory required for data: 9579300
I0501 03:47:39.547085 22619 layer_factory.hpp:77] Creating layer relu3
I0501 03:47:39.547091 22619 net.cpp:86] Creating Layer relu3
I0501 03:47:39.547097 22619 net.cpp:408] relu3 <- ip3
I0501 03:47:39.547103 22619 net.cpp:369] relu3 -> ip3 (in-place)
I0501 03:47:39.547258 22619 net.cpp:124] Setting up relu3
I0501 03:47:39.547267 22619 net.cpp:131] Top shape: 111 10 (1110)
I0501 03:47:39.547272 22619 net.cpp:139] Memory required for data: 9583740
I0501 03:47:39.547277 22619 layer_factory.hpp:77] Creating layer ip4
I0501 03:47:39.547307 22619 net.cpp:86] Creating Layer ip4
I0501 03:47:39.547315 22619 net.cpp:408] ip4 <- ip3
I0501 03:47:39.547323 22619 net.cpp:382] ip4 -> ip4
I0501 03:47:39.547425 22619 net.cpp:124] Setting up ip4
I0501 03:47:39.547435 22619 net.cpp:131] Top shape: 111 10 (1110)
I0501 03:47:39.547439 22619 net.cpp:139] Memory required for data: 9588180
I0501 03:47:39.547451 22619 layer_factory.hpp:77] Creating layer loss
I0501 03:47:39.547461 22619 net.cpp:86] Creating Layer loss
I0501 03:47:39.547466 22619 net.cpp:408] loss <- ip4
I0501 03:47:39.547472 22619 net.cpp:408] loss <- label
I0501 03:47:39.547479 22619 net.cpp:382] loss -> loss
I0501 03:47:39.547502 22619 layer_factory.hpp:77] Creating layer loss
…
I0501 03:47:39.548758 22619 solver.cpp:173] Creating test net (#0) specified by net file: ECE595/cifar/train_test/var_everything/cifar_train_test_365.prototxt
I0501 03:47:39.548794 22619 net.cpp:296] The NetState phase (1) differed from the phase (0) specified by a rule in layer cifar
I0501 03:47:39.548903 22619 net.cpp:53] Initializing net from parameters: 
name: "CIFAR"
state {
  phase: TEST
}
layer {
  name: "cifar"
  type: "Data"
  top: "data"
  top: "label"
  include {
    phase: TEST
  }
  transform_param {
    mean_file: "examples/cifar10/mean.binaryproto"
  }
  data_param {
    source: "examples/cifar10/cifar10_test_lmdb"
    batch_size: 1000
    backend: LMDB
  }
}
layer {
  name: "conv0"
  type: "Convolution"
  bottom: "data"
  top: "conv0"
  param {
    lr_mult: 1
  }
  param {
    lr_mult: 2
  }
  convolution_param {
    num_output: 8
    pad: 2
    kernel_size: 5
    stride: 1
    weight_filler {
      type: "gaussian"
      std: 0.01
    }
    bias_filler {
      type: "constant"
    }
  }
}
layer {
  name: "Sigmoid0"
  type: "Sigmoid"
  bottom: "conv0"
  top: "Sigmoid0"
}
layer {
  name: "pool0"
  type: "Pooling"
  bottom: "Sigmoid0"
  top: "pool0"
  pooling_param {
    pool: AVE
    kernel_size: 3
    stride: 2
  }
}
layer {
  name: "ip1"
  type: "InnerProduct"
  bottom: "pool0"
  top: "ip1"
  param {
    lr_mult: 1
  }
  param {
    lr_mult: 2
  }
  inner_product_param {
    num_output: 20
    weight_filler {
      type: "gaussian"
      std: 0.01
    }
    bias_filler {
      type: "constant"
    }
  }
}
layer {
  name: "relu1"
  type: "ReLU"
  bottom: "ip1"
  top: "ip1"
}
layer {
  name: "ip2"
  type: "InnerProduct"
  bottom: "ip1"
  top: "ip2"
  param {
    lr_mult: 1
  }
  param {
    lr_mult: 2
  }
  inner_product_param {
    num_output: 10
    weight_filler {
      type: "gaussian"
      std: 0.01
    }
    bias_filler {
      type: "constant"
    }
  }
}
layer {
  name: "relu2"
  type: "ReLU"
  bottom: "ip2"
  top: "ip2"
}
layer {
  name: "ip3"
  type: "InnerProduct"
  bottom: "ip2"
  top: "ip3"
  param {
    lr_mult: 1
  }
  param {
    lr_mult: 2
  }
  inner_product_param {
    num_output: 10
    weight_filler {
      type: "gaussian"
      std: 0.01
    }
    bias_filler {
      type: "constant"
    }
  }
}
layer {
  name: "relu3"
  type: "ReLU"
  bottom: "ip3"
  top: "ip3"
}
layer {
  name: "ip4"
  type: "InnerProduct"
  bottom: "ip3"
  top: "ip4"
  param {
    lr_mult: 1
  }
  param {
    lr_mult: 2
  }
  inner_product_param {
    num_output: 10
    weight_filler {
      type: "gaussian"
      std: 0.01
    }
    bias_filler {
      type: "constant"
    }
  }
}
layer {
  name: "accuracy"
  type: "Accuracy"
  bottom: "ip4"
  bottom: "label"
  top: "accuracy"
  include {
    phase: TEST
  }
}
layer {
  name: "loss"
  type: "SoftmaxWithLoss"
  bottom: "ip4"
  bottom: "label"
  top: "loss"
}
I0501 03:47:39.549016 22619 layer_factory.hpp:77] Creating layer cifar
I0501 03:47:39.549077 22619 db_lmdb.cpp:35] Opened lmdb examples/cifar10/cifar10_test_lmdb
I0501 03:47:39.549094 22619 net.cpp:86] Creating Layer cifar
I0501 03:47:39.549103 22619 net.cpp:382] cifar -> data
I0501 03:47:39.549114 22619 net.cpp:382] cifar -> label
I0501 03:47:39.549124 22619 data_transformer.cpp:25] Loading mean file from: examples/cifar10/mean.binaryproto
I0501 03:47:39.549321 22619 data_layer.cpp:45] output data size: 1000,3,32,32
I0501 03:47:39.571377 22619 net.cpp:124] Setting up cifar
I0501 03:47:39.571404 22619 net.cpp:131] Top shape: 1000 3 32 32 (3072000)
I0501 03:47:39.571413 22619 net.cpp:131] Top shape: 1000 (1000)
I0501 03:47:39.571418 22619 net.cpp:139] Memory required for data: 12292000
I0501 03:47:39.571440 22619 layer_factory.hpp:77] Creating layer label_cifar_1_split
I0501 03:47:39.571456 22619 net.cpp:86] Creating Layer label_cifar_1_split
I0501 03:47:39.571462 22619 net.cpp:408] label_cifar_1_split <- label
I0501 03:47:39.571471 22619 net.cpp:382] label_cifar_1_split -> label_cifar_1_split_0
I0501 03:47:39.571485 22619 net.cpp:382] label_cifar_1_split -> label_cifar_1_split_1
I0501 03:47:39.571573 22619 net.cpp:124] Setting up label_cifar_1_split
I0501 03:47:39.571581 22619 net.cpp:131] Top shape: 1000 (1000)
I0501 03:47:39.571588 22619 net.cpp:131] Top shape: 1000 (1000)
I0501 03:47:39.571593 22619 net.cpp:139] Memory required for data: 12300000
I0501 03:47:39.571597 22619 layer_factory.hpp:77] Creating layer conv0
I0501 03:47:39.571614 22619 net.cpp:86] Creating Layer conv0
I0501 03:47:39.571621 22619 net.cpp:408] conv0 <- data
I0501 03:47:39.571630 22619 net.cpp:382] conv0 -> conv0
I0501 03:47:39.573060 22619 net.cpp:124] Setting up conv0
I0501 03:47:39.573076 22619 net.cpp:131] Top shape: 1000 8 32 32 (8192000)
I0501 03:47:39.573081 22619 net.cpp:139] Memory required for data: 45068000
I0501 03:47:39.573112 22619 layer_factory.hpp:77] Creating layer Sigmoid0
I0501 03:47:39.573122 22619 net.cpp:86] Creating Layer Sigmoid0
I0501 03:47:39.573137 22619 net.cpp:408] Sigmoid0 <- conv0
I0501 03:47:39.573144 22619 net.cpp:382] Sigmoid0 -> Sigmoid0
I0501 03:47:39.574306 22619 net.cpp:124] Setting up Sigmoid0
I0501 03:47:39.574318 22619 net.cpp:131] Top shape: 1000 8 32 32 (8192000)
I0501 03:47:39.574323 22619 net.cpp:139] Memory required for data: 77836000
I0501 03:47:39.574329 22619 layer_factory.hpp:77] Creating layer pool0
I0501 03:47:39.574342 22619 net.cpp:86] Creating Layer pool0
I0501 03:47:39.574348 22619 net.cpp:408] pool0 <- Sigmoid0
I0501 03:47:39.574355 22619 net.cpp:382] pool0 -> pool0
I0501 03:47:39.574525 22619 net.cpp:124] Setting up pool0
I0501 03:47:39.574535 22619 net.cpp:131] Top shape: 1000 8 16 16 (2048000)
I0501 03:47:39.574540 22619 net.cpp:139] Memory required for data: 86028000
I0501 03:47:39.574545 22619 layer_factory.hpp:77] Creating layer ip1
I0501 03:47:39.574556 22619 net.cpp:86] Creating Layer ip1
I0501 03:47:39.574561 22619 net.cpp:408] ip1 <- pool0
I0501 03:47:39.574571 22619 net.cpp:382] ip1 -> ip1
I0501 03:47:39.575744 22619 net.cpp:124] Setting up ip1
I0501 03:47:39.575754 22619 net.cpp:131] Top shape: 1000 20 (20000)
I0501 03:47:39.575758 22619 net.cpp:139] Memory required for data: 86108000
I0501 03:47:39.575821 22619 layer_factory.hpp:77] Creating layer relu1
I0501 03:47:39.575831 22619 net.cpp:86] Creating Layer relu1
I0501 03:47:39.575836 22619 net.cpp:408] relu1 <- ip1
I0501 03:47:39.575845 22619 net.cpp:369] relu1 -> ip1 (in-place)
I0501 03:47:39.576030 22619 net.cpp:124] Setting up relu1
I0501 03:47:39.576040 22619 net.cpp:131] Top shape: 1000 20 (20000)
I0501 03:47:39.576045 22619 net.cpp:139] Memory required for data: 86188000
I0501 03:47:39.576050 22619 layer_factory.hpp:77] Creating layer ip2
I0501 03:47:39.576062 22619 net.cpp:86] Creating Layer ip2
I0501 03:47:39.576067 22619 net.cpp:408] ip2 <- ip1
I0501 03:47:39.576077 22619 net.cpp:382] ip2 -> ip2
I0501 03:47:39.576208 22619 net.cpp:124] Setting up ip2
I0501 03:47:39.576220 22619 net.cpp:131] Top shape: 1000 10 (10000)
I0501 03:47:39.576225 22619 net.cpp:139] Memory required for data: 86228000
I0501 03:47:39.576236 22619 layer_factory.hpp:77] Creating layer relu2
I0501 03:47:39.576244 22619 net.cpp:86] Creating Layer relu2
I0501 03:47:39.576253 22619 net.cpp:408] relu2 <- ip2
I0501 03:47:39.576259 22619 net.cpp:369] relu2 -> ip2 (in-place)
I0501 03:47:39.577005 22619 net.cpp:124] Setting up relu2
I0501 03:47:39.577019 22619 net.cpp:131] Top shape: 1000 10 (10000)
I0501 03:47:39.577025 22619 net.cpp:139] Memory required for data: 86268000
I0501 03:47:39.577030 22619 layer_factory.hpp:77] Creating layer ip3
I0501 03:47:39.577061 22619 net.cpp:86] Creating Layer ip3
I0501 03:47:39.577067 22619 net.cpp:408] ip3 <- ip2
I0501 03:47:39.577077 22619 net.cpp:382] ip3 -> ip3
I0501 03:47:39.577224 22619 net.cpp:124] Setting up ip3
I0501 03:47:39.577234 22619 net.cpp:131] Top shape: 1000 10 (10000)
I0501 03:47:39.577241 22619 net.cpp:139] Memory required for data: 86308000
I0501 03:47:39.577250 22619 layer_factory.hpp:77] Creating layer relu3
I0501 03:47:39.577256 22619 net.cpp:86] Creating Layer relu3
I0501 03:47:39.577261 22619 net.cpp:408] relu3 <- ip3
I0501 03:47:39.577268 22619 net.cpp:369] relu3 -> ip3 (in-place)
I0501 03:47:39.577424 22619 net.cpp:124] Setting up relu3
I0501 03:47:39.577432 22619 net.cpp:131] Top shape: 1000 10 (10000)
I0501 03:47:39.577437 22619 net.cpp:139] Memory required for data: 86348000
I0501 03:47:39.577442 22619 layer_factory.hpp:77] Creating layer ip4
I0501 03:47:39.577451 22619 net.cpp:86] Creating Layer ip4
I0501 03:47:39.577456 22619 net.cpp:408] ip4 <- ip3
I0501 03:47:39.577464 22619 net.cpp:382] ip4 -> ip4
I0501 03:47:39.577574 22619 net.cpp:124] Setting up ip4
I0501 03:47:39.577581 22619 net.cpp:131] Top shape: 1000 10 (10000)
I0501 03:47:39.577586 22619 net.cpp:139] Memory required for data: 86388000
I0501 03:47:39.577597 22619 layer_factory.hpp:77] Creating layer ip4_ip4_0_split
I0501 03:47:39.577605 22619 net.cpp:86] Creating Layer ip4_ip4_0_split
I0501 03:47:39.577610 22619 net.cpp:408] ip4_ip4_0_split <- ip4
I0501 03:47:39.577618 22619 net.cpp:382] ip4_ip4_0_split -> ip4_ip4_0_split_0
I0501 03:47:39.577628 22619 net.cpp:382] ip4_ip4_0_split -> ip4_ip4_0_split_1
I0501 03:47:39.577668 22619 net.cpp:124] Setting up ip4_ip4_0_split
I0501 03:47:39.577677 22619 net.cpp:131] Top shape: 1000 10 (10000)
I0501 03:47:39.577682 22619 net.cpp:131] Top shape: 1000 10 (10000)
I0501 03:47:39.577687 22619 net.cpp:139] Memory required for data: 86468000
I0501 03:47:39.577692 22619 layer_factory.hpp:77] Creating layer accuracy
I0501 03:47:39.577699 22619 net.cpp:86] Creating Layer accuracy
I0501 03:47:39.577704 22619 net.cpp:408] accuracy <- ip4_ip4_0_split_0
I0501 03:47:39.577710 22619 net.cpp:408] accuracy <- label_cifar_1_split_0
I0501 03:47:39.577718 22619 net.cpp:382] accuracy -> accuracy
…
