…
I0501 02:23:57.714027 15128 net.cpp:296] The NetState phase (0) differed from the phase (1) specified by a rule in layer cifar
I0501 02:23:57.714046 15128 net.cpp:296] The NetState phase (0) differed from the phase (1) specified by a rule in layer accuracy
I0501 02:23:57.714136 15128 net.cpp:53] Initializing net from parameters: 
name: "CIFAR"
state {
  phase: TRAIN
  level: 0
  stage: ""
}
layer {
  name: "cifar"
  type: "Data"
  top: "data"
  top: "label"
  include {
    phase: TRAIN
  }
  transform_param {
    mean_file: "examples/cifar10/mean.binaryproto"
  }
  data_param {
    source: "examples/cifar10/cifar10_train_lmdb"
    batch_size: 111
    backend: LMDB
  }
}
layer {
  name: "conv0"
  type: "Convolution"
  bottom: "data"
  top: "conv0"
  param {
    lr_mult: 1
  }
  param {
    lr_mult: 2
  }
  convolution_param {
    num_output: 8
    pad: 2
    kernel_size: 5
    stride: 1
    weight_filler {
      type: "gaussian"
      std: 0.01
    }
    bias_filler {
      type: "constant"
    }
  }
}
layer {
  name: "Sigmoid0"
  type: "Sigmoid"
  bottom: "conv0"
  top: "Sigmoid0"
}
layer {
  name: "pool0"
  type: "Pooling"
  bottom: "Sigmoid0"
  top: "pool0"
  pooling_param {
    pool: AVE
    kernel_size: 3
    stride: 2
  }
}
layer {
  name: "ip1"
  type: "InnerProduct"
  bottom: "pool0"
  top: "ip1"
  param {
    lr_mult: 1
  }
  param {
    lr_mult: 2
  }
  inner_product_param {
    num_output: 20
    weight_filler {
      type: "gaussian"
      std: 0.01
    }
    bias_filler {
      type: "constant"
    }
  }
}
layer {
  name: "relu1"
  type: "ReLU"
  bottom: "ip1"
  top: "ip1"
}
layer {
  name: "ip2"
  type: "InnerProduct"
  bottom: "ip1"
  top: "ip2"
  param {
    lr_mult: 1
  }
  param {
    lr_mult: 2
  }
  inner_product_param {
    num_output: 10
    weight_filler {
      type: "gaussian"
      std: 0.01
    }
    bias_filler {
      type: "constant"
    }
  }
}
layer {
  name: "relu2"
  type: "ReLU"
  bottom: "ip2"
  top: "ip2"
}
layer {
  name: "ip3"
  type: "InnerProduct"
  bottom: "ip2"
  top: "ip3"
  param {
    lr_mult: 1
  }
  param {
    lr_mult: 2
  }
  inner_product_param {
    num_output: 10
    weight_filler {
      type: "gaussian"
      std: 0.01
    }
    bias_filler {
      type: "constant"
    }
  }
}
layer {
  name: "loss"
  type: "SoftmaxWithLoss"
  bottom: "ip3"
  bottom: "label"
  top: "loss"
}
I0501 02:23:57.714211 15128 layer_factory.hpp:77] Creating layer cifar
I0501 02:23:57.714308 15128 db_lmdb.cpp:35] Opened lmdb examples/cifar10/cifar10_train_lmdb
I0501 02:23:57.714335 15128 net.cpp:86] Creating Layer cifar
I0501 02:23:57.714344 15128 net.cpp:382] cifar -> data
I0501 02:23:57.714365 15128 net.cpp:382] cifar -> label
I0501 02:23:57.714380 15128 data_transformer.cpp:25] Loading mean file from: examples/cifar10/mean.binaryproto
I0501 02:23:57.716488 15128 data_layer.cpp:45] output data size: 111,3,32,32
I0501 02:23:57.724359 15128 net.cpp:124] Setting up cifar
I0501 02:23:57.724377 15128 net.cpp:131] Top shape: 111 3 32 32 (340992)
I0501 02:23:57.724385 15128 net.cpp:131] Top shape: 111 (111)
I0501 02:23:57.724388 15128 net.cpp:139] Memory required for data: 1364412
I0501 02:23:57.724395 15128 layer_factory.hpp:77] Creating layer conv0
I0501 02:23:57.724412 15128 net.cpp:86] Creating Layer conv0
I0501 02:23:57.724417 15128 net.cpp:408] conv0 <- data
I0501 02:23:57.724431 15128 net.cpp:382] conv0 -> conv0
I0501 02:23:58.005229 15128 net.cpp:124] Setting up conv0
I0501 02:23:58.005273 15128 net.cpp:131] Top shape: 111 8 32 32 (909312)
I0501 02:23:58.005278 15128 net.cpp:139] Memory required for data: 5001660
I0501 02:23:58.005292 15128 layer_factory.hpp:77] Creating layer Sigmoid0
I0501 02:23:58.005302 15128 net.cpp:86] Creating Layer Sigmoid0
I0501 02:23:58.005306 15128 net.cpp:408] Sigmoid0 <- conv0
I0501 02:23:58.005312 15128 net.cpp:382] Sigmoid0 -> Sigmoid0
I0501 02:23:58.005491 15128 net.cpp:124] Setting up Sigmoid0
I0501 02:23:58.005501 15128 net.cpp:131] Top shape: 111 8 32 32 (909312)
I0501 02:23:58.005503 15128 net.cpp:139] Memory required for data: 8638908
I0501 02:23:58.005506 15128 layer_factory.hpp:77] Creating layer pool0
I0501 02:23:58.005513 15128 net.cpp:86] Creating Layer pool0
I0501 02:23:58.005517 15128 net.cpp:408] pool0 <- Sigmoid0
I0501 02:23:58.005522 15128 net.cpp:382] pool0 -> pool0
I0501 02:23:58.006230 15128 net.cpp:124] Setting up pool0
I0501 02:23:58.006243 15128 net.cpp:131] Top shape: 111 8 16 16 (227328)
I0501 02:23:58.006247 15128 net.cpp:139] Memory required for data: 9548220
I0501 02:23:58.006250 15128 layer_factory.hpp:77] Creating layer ip1
I0501 02:23:58.006259 15128 net.cpp:86] Creating Layer ip1
I0501 02:23:58.006263 15128 net.cpp:408] ip1 <- pool0
I0501 02:23:58.006268 15128 net.cpp:382] ip1 -> ip1
I0501 02:23:58.008213 15128 net.cpp:124] Setting up ip1
I0501 02:23:58.008224 15128 net.cpp:131] Top shape: 111 20 (2220)
I0501 02:23:58.008229 15128 net.cpp:139] Memory required for data: 9557100
I0501 02:23:58.008235 15128 layer_factory.hpp:77] Creating layer relu1
I0501 02:23:58.008241 15128 net.cpp:86] Creating Layer relu1
I0501 02:23:58.008244 15128 net.cpp:408] relu1 <- ip1
I0501 02:23:58.008249 15128 net.cpp:369] relu1 -> ip1 (in-place)
I0501 02:23:58.008391 15128 net.cpp:124] Setting up relu1
I0501 02:23:58.008399 15128 net.cpp:131] Top shape: 111 20 (2220)
I0501 02:23:58.008402 15128 net.cpp:139] Memory required for data: 9565980
I0501 02:23:58.008405 15128 layer_factory.hpp:77] Creating layer ip2
I0501 02:23:58.008411 15128 net.cpp:86] Creating Layer ip2
I0501 02:23:58.008414 15128 net.cpp:408] ip2 <- ip1
I0501 02:23:58.008419 15128 net.cpp:382] ip2 -> ip2
I0501 02:23:58.008507 15128 net.cpp:124] Setting up ip2
I0501 02:23:58.008512 15128 net.cpp:131] Top shape: 111 10 (1110)
I0501 02:23:58.008515 15128 net.cpp:139] Memory required for data: 9570420
I0501 02:23:58.008522 15128 layer_factory.hpp:77] Creating layer relu2
I0501 02:23:58.008527 15128 net.cpp:86] Creating Layer relu2
I0501 02:23:58.008529 15128 net.cpp:408] relu2 <- ip2
I0501 02:23:58.008533 15128 net.cpp:369] relu2 -> ip2 (in-place)
I0501 02:23:58.008684 15128 net.cpp:124] Setting up relu2
I0501 02:23:58.008692 15128 net.cpp:131] Top shape: 111 10 (1110)
I0501 02:23:58.008695 15128 net.cpp:139] Memory required for data: 9574860
I0501 02:23:58.008698 15128 layer_factory.hpp:77] Creating layer ip3
I0501 02:23:58.008705 15128 net.cpp:86] Creating Layer ip3
I0501 02:23:58.008708 15128 net.cpp:408] ip3 <- ip2
I0501 02:23:58.008713 15128 net.cpp:382] ip3 -> ip3
I0501 02:23:58.008800 15128 net.cpp:124] Setting up ip3
I0501 02:23:58.008806 15128 net.cpp:131] Top shape: 111 10 (1110)
I0501 02:23:58.008831 15128 net.cpp:139] Memory required for data: 9579300
I0501 02:23:58.008836 15128 layer_factory.hpp:77] Creating layer loss
I0501 02:23:58.008841 15128 net.cpp:86] Creating Layer loss
I0501 02:23:58.008844 15128 net.cpp:408] loss <- ip3
I0501 02:23:58.008848 15128 net.cpp:408] loss <- label
I0501 02:23:58.008853 15128 net.cpp:382] loss -> loss
I0501 02:23:58.008889 15128 layer_factory.hpp:77] Creating layer loss
…
I0501 02:23:58.009531 15128 solver.cpp:173] Creating test net (#0) specified by net file: ECE595/cifar/train_test/var_everything/cifar_train_test_320.prototxt
I0501 02:23:58.009555 15128 net.cpp:296] The NetState phase (1) differed from the phase (0) specified by a rule in layer cifar
I0501 02:23:58.009634 15128 net.cpp:53] Initializing net from parameters: 
name: "CIFAR"
state {
  phase: TEST
}
layer {
  name: "cifar"
  type: "Data"
  top: "data"
  top: "label"
  include {
    phase: TEST
  }
  transform_param {
    mean_file: "examples/cifar10/mean.binaryproto"
  }
  data_param {
    source: "examples/cifar10/cifar10_test_lmdb"
    batch_size: 1000
    backend: LMDB
  }
}
layer {
  name: "conv0"
  type: "Convolution"
  bottom: "data"
  top: "conv0"
  param {
    lr_mult: 1
  }
  param {
    lr_mult: 2
  }
  convolution_param {
    num_output: 8
    pad: 2
    kernel_size: 5
    stride: 1
    weight_filler {
      type: "gaussian"
      std: 0.01
    }
    bias_filler {
      type: "constant"
    }
  }
}
layer {
  name: "Sigmoid0"
  type: "Sigmoid"
  bottom: "conv0"
  top: "Sigmoid0"
}
layer {
  name: "pool0"
  type: "Pooling"
  bottom: "Sigmoid0"
  top: "pool0"
  pooling_param {
    pool: AVE
    kernel_size: 3
    stride: 2
  }
}
layer {
  name: "ip1"
  type: "InnerProduct"
  bottom: "pool0"
  top: "ip1"
  param {
    lr_mult: 1
  }
  param {
    lr_mult: 2
  }
  inner_product_param {
    num_output: 20
    weight_filler {
      type: "gaussian"
      std: 0.01
    }
    bias_filler {
      type: "constant"
    }
  }
}
layer {
  name: "relu1"
  type: "ReLU"
  bottom: "ip1"
  top: "ip1"
}
layer {
  name: "ip2"
  type: "InnerProduct"
  bottom: "ip1"
  top: "ip2"
  param {
    lr_mult: 1
  }
  param {
    lr_mult: 2
  }
  inner_product_param {
    num_output: 10
    weight_filler {
      type: "gaussian"
      std: 0.01
    }
    bias_filler {
      type: "constant"
    }
  }
}
layer {
  name: "relu2"
  type: "ReLU"
  bottom: "ip2"
  top: "ip2"
}
layer {
  name: "ip3"
  type: "InnerProduct"
  bottom: "ip2"
  top: "ip3"
  param {
    lr_mult: 1
  }
  param {
    lr_mult: 2
  }
  inner_product_param {
    num_output: 10
    weight_filler {
      type: "gaussian"
      std: 0.01
    }
    bias_filler {
      type: "constant"
    }
  }
}
layer {
  name: "accuracy"
  type: "Accuracy"
  bottom: "ip3"
  bottom: "label"
  top: "accuracy"
  include {
    phase: TEST
  }
}
layer {
  name: "loss"
  type: "SoftmaxWithLoss"
  bottom: "ip3"
  bottom: "label"
  top: "loss"
}
I0501 02:23:58.009693 15128 layer_factory.hpp:77] Creating layer cifar
I0501 02:23:58.009752 15128 db_lmdb.cpp:35] Opened lmdb examples/cifar10/cifar10_test_lmdb
I0501 02:23:58.009763 15128 net.cpp:86] Creating Layer cifar
I0501 02:23:58.009768 15128 net.cpp:382] cifar -> data
I0501 02:23:58.009775 15128 net.cpp:382] cifar -> label
I0501 02:23:58.009781 15128 data_transformer.cpp:25] Loading mean file from: examples/cifar10/mean.binaryproto
I0501 02:23:58.009914 15128 data_layer.cpp:45] output data size: 1000,3,32,32
I0501 02:23:58.031463 15128 net.cpp:124] Setting up cifar
I0501 02:23:58.031504 15128 net.cpp:131] Top shape: 1000 3 32 32 (3072000)
I0501 02:23:58.031510 15128 net.cpp:131] Top shape: 1000 (1000)
I0501 02:23:58.031513 15128 net.cpp:139] Memory required for data: 12292000
I0501 02:23:58.031518 15128 layer_factory.hpp:77] Creating layer label_cifar_1_split
I0501 02:23:58.031532 15128 net.cpp:86] Creating Layer label_cifar_1_split
I0501 02:23:58.031569 15128 net.cpp:408] label_cifar_1_split <- label
I0501 02:23:58.031589 15128 net.cpp:382] label_cifar_1_split -> label_cifar_1_split_0
I0501 02:23:58.031599 15128 net.cpp:382] label_cifar_1_split -> label_cifar_1_split_1
I0501 02:23:58.031668 15128 net.cpp:124] Setting up label_cifar_1_split
I0501 02:23:58.031677 15128 net.cpp:131] Top shape: 1000 (1000)
I0501 02:23:58.031680 15128 net.cpp:131] Top shape: 1000 (1000)
I0501 02:23:58.031683 15128 net.cpp:139] Memory required for data: 12300000
I0501 02:23:58.031687 15128 layer_factory.hpp:77] Creating layer conv0
I0501 02:23:58.031698 15128 net.cpp:86] Creating Layer conv0
I0501 02:23:58.031702 15128 net.cpp:408] conv0 <- data
I0501 02:23:58.031708 15128 net.cpp:382] conv0 -> conv0
I0501 02:23:58.033406 15128 net.cpp:124] Setting up conv0
I0501 02:23:58.033434 15128 net.cpp:131] Top shape: 1000 8 32 32 (8192000)
I0501 02:23:58.033437 15128 net.cpp:139] Memory required for data: 45068000
I0501 02:23:58.033447 15128 layer_factory.hpp:77] Creating layer Sigmoid0
I0501 02:23:58.033454 15128 net.cpp:86] Creating Layer Sigmoid0
I0501 02:23:58.033458 15128 net.cpp:408] Sigmoid0 <- conv0
I0501 02:23:58.033463 15128 net.cpp:382] Sigmoid0 -> Sigmoid0
I0501 02:23:58.034327 15128 net.cpp:124] Setting up Sigmoid0
I0501 02:23:58.034338 15128 net.cpp:131] Top shape: 1000 8 32 32 (8192000)
I0501 02:23:58.034358 15128 net.cpp:139] Memory required for data: 77836000
I0501 02:23:58.034360 15128 layer_factory.hpp:77] Creating layer pool0
I0501 02:23:58.034368 15128 net.cpp:86] Creating Layer pool0
I0501 02:23:58.034373 15128 net.cpp:408] pool0 <- Sigmoid0
I0501 02:23:58.034377 15128 net.cpp:382] pool0 -> pool0
I0501 02:23:58.035516 15128 net.cpp:124] Setting up pool0
I0501 02:23:58.035524 15128 net.cpp:131] Top shape: 1000 8 16 16 (2048000)
I0501 02:23:58.035543 15128 net.cpp:139] Memory required for data: 86028000
I0501 02:23:58.035547 15128 layer_factory.hpp:77] Creating layer ip1
I0501 02:23:58.035554 15128 net.cpp:86] Creating Layer ip1
I0501 02:23:58.035558 15128 net.cpp:408] ip1 <- pool0
I0501 02:23:58.035563 15128 net.cpp:382] ip1 -> ip1
I0501 02:23:58.036723 15128 net.cpp:124] Setting up ip1
I0501 02:23:58.036731 15128 net.cpp:131] Top shape: 1000 20 (20000)
I0501 02:23:58.036733 15128 net.cpp:139] Memory required for data: 86108000
I0501 02:23:58.036756 15128 layer_factory.hpp:77] Creating layer relu1
I0501 02:23:58.036761 15128 net.cpp:86] Creating Layer relu1
I0501 02:23:58.036765 15128 net.cpp:408] relu1 <- ip1
I0501 02:23:58.036769 15128 net.cpp:369] relu1 -> ip1 (in-place)
I0501 02:23:58.036954 15128 net.cpp:124] Setting up relu1
I0501 02:23:58.036964 15128 net.cpp:131] Top shape: 1000 20 (20000)
I0501 02:23:58.036967 15128 net.cpp:139] Memory required for data: 86188000
I0501 02:23:58.036970 15128 layer_factory.hpp:77] Creating layer ip2
I0501 02:23:58.036976 15128 net.cpp:86] Creating Layer ip2
I0501 02:23:58.036980 15128 net.cpp:408] ip2 <- ip1
I0501 02:23:58.036985 15128 net.cpp:382] ip2 -> ip2
I0501 02:23:58.037109 15128 net.cpp:124] Setting up ip2
I0501 02:23:58.037117 15128 net.cpp:131] Top shape: 1000 10 (10000)
I0501 02:23:58.037120 15128 net.cpp:139] Memory required for data: 86228000
I0501 02:23:58.037127 15128 layer_factory.hpp:77] Creating layer relu2
I0501 02:23:58.037133 15128 net.cpp:86] Creating Layer relu2
I0501 02:23:58.037137 15128 net.cpp:408] relu2 <- ip2
I0501 02:23:58.037140 15128 net.cpp:369] relu2 -> ip2 (in-place)
I0501 02:23:58.037302 15128 net.cpp:124] Setting up relu2
I0501 02:23:58.037310 15128 net.cpp:131] Top shape: 1000 10 (10000)
I0501 02:23:58.037313 15128 net.cpp:139] Memory required for data: 86268000
I0501 02:23:58.037317 15128 layer_factory.hpp:77] Creating layer ip3
I0501 02:23:58.037323 15128 net.cpp:86] Creating Layer ip3
I0501 02:23:58.037327 15128 net.cpp:408] ip3 <- ip2
I0501 02:23:58.037331 15128 net.cpp:382] ip3 -> ip3
I0501 02:23:58.037439 15128 net.cpp:124] Setting up ip3
I0501 02:23:58.037446 15128 net.cpp:131] Top shape: 1000 10 (10000)
I0501 02:23:58.037449 15128 net.cpp:139] Memory required for data: 86308000
I0501 02:23:58.037480 15128 layer_factory.hpp:77] Creating layer ip3_ip3_0_split
I0501 02:23:58.037487 15128 net.cpp:86] Creating Layer ip3_ip3_0_split
I0501 02:23:58.037489 15128 net.cpp:408] ip3_ip3_0_split <- ip3
I0501 02:23:58.037494 15128 net.cpp:382] ip3_ip3_0_split -> ip3_ip3_0_split_0
I0501 02:23:58.037499 15128 net.cpp:382] ip3_ip3_0_split -> ip3_ip3_0_split_1
I0501 02:23:58.037529 15128 net.cpp:124] Setting up ip3_ip3_0_split
I0501 02:23:58.037534 15128 net.cpp:131] Top shape: 1000 10 (10000)
I0501 02:23:58.037538 15128 net.cpp:131] Top shape: 1000 10 (10000)
I0501 02:23:58.037540 15128 net.cpp:139] Memory required for data: 86388000
I0501 02:23:58.037544 15128 layer_factory.hpp:77] Creating layer accuracy
I0501 02:23:58.037549 15128 net.cpp:86] Creating Layer accuracy
I0501 02:23:58.037552 15128 net.cpp:408] accuracy <- ip3_ip3_0_split_0
I0501 02:23:58.037556 15128 net.cpp:408] accuracy <- label_cifar_1_split_0
I0501 02:23:58.037576 15128 net.cpp:382] accuracy -> accuracy
…
