…
I0501 02:01:27.702080 13289 net.cpp:296] The NetState phase (0) differed from the phase (1) specified by a rule in layer cifar
I0501 02:01:27.702100 13289 net.cpp:296] The NetState phase (0) differed from the phase (1) specified by a rule in layer accuracy
I0501 02:01:27.702208 13289 net.cpp:53] Initializing net from parameters: 
name: "CIFAR"
state {
  phase: TRAIN
  level: 0
  stage: ""
}
layer {
  name: "cifar"
  type: "Data"
  top: "data"
  top: "label"
  include {
    phase: TRAIN
  }
  transform_param {
    mean_file: "examples/cifar10/mean.binaryproto"
  }
  data_param {
    source: "examples/cifar10/cifar10_train_lmdb"
    batch_size: 111
    backend: LMDB
  }
}
layer {
  name: "conv0"
  type: "Convolution"
  bottom: "data"
  top: "conv0"
  param {
    lr_mult: 1
  }
  param {
    lr_mult: 2
  }
  convolution_param {
    num_output: 8
    pad: 2
    kernel_size: 3
    stride: 1
    weight_filler {
      type: "gaussian"
      std: 0.01
    }
    bias_filler {
      type: "constant"
    }
  }
}
layer {
  name: "Sigmoid0"
  type: "Sigmoid"
  bottom: "conv0"
  top: "Sigmoid0"
}
layer {
  name: "pool0"
  type: "Pooling"
  bottom: "Sigmoid0"
  top: "pool0"
  pooling_param {
    pool: AVE
    kernel_size: 3
    stride: 2
  }
}
layer {
  name: "ip1"
  type: "InnerProduct"
  bottom: "pool0"
  top: "ip1"
  param {
    lr_mult: 1
  }
  param {
    lr_mult: 2
  }
  inner_product_param {
    num_output: 160
    weight_filler {
      type: "gaussian"
      std: 0.01
    }
    bias_filler {
      type: "constant"
    }
  }
}
layer {
  name: "relu1"
  type: "ReLU"
  bottom: "ip1"
  top: "ip1"
}
layer {
  name: "ip2"
  type: "InnerProduct"
  bottom: "ip1"
  top: "ip2"
  param {
    lr_mult: 1
  }
  param {
    lr_mult: 2
  }
  inner_product_param {
    num_output: 160
    weight_filler {
      type: "gaussian"
      std: 0.01
    }
    bias_filler {
      type: "constant"
    }
  }
}
layer {
  name: "relu2"
  type: "ReLU"
  bottom: "ip2"
  top: "ip2"
}
layer {
  name: "ip3"
  type: "InnerProduct"
  bottom: "ip2"
  top: "ip3"
  param {
    lr_mult: 1
  }
  param {
    lr_mult: 2
  }
  inner_product_param {
    num_output: 80
    weight_filler {
      type: "gaussian"
      std: 0.01
    }
    bias_filler {
      type: "constant"
    }
  }
}
layer {
  name: "relu3"
  type: "ReLU"
  bottom: "ip3"
  top: "ip3"
}
layer {
  name: "ip4"
  type: "InnerProduct"
  bottom: "ip3"
  top: "ip4"
  param {
    lr_mult: 1
  }
  param {
    lr_mult: 2
  }
  inner_product_param {
    num_output: 10
    weight_filler {
      type: "gaussian"
      std: 0.01
    }
    bias_filler {
      type: "constant"
    }
  }
}
layer {
  name: "loss"
  type: "SoftmaxWithLoss"
  bottom: "ip4"
  bottom: "label"
  top: "loss"
}
I0501 02:01:27.702287 13289 layer_factory.hpp:77] Creating layer cifar
I0501 02:01:27.702388 13289 db_lmdb.cpp:35] Opened lmdb examples/cifar10/cifar10_train_lmdb
I0501 02:01:27.702414 13289 net.cpp:86] Creating Layer cifar
I0501 02:01:27.702424 13289 net.cpp:382] cifar -> data
I0501 02:01:27.702446 13289 net.cpp:382] cifar -> label
I0501 02:01:27.702458 13289 data_transformer.cpp:25] Loading mean file from: examples/cifar10/mean.binaryproto
I0501 02:01:27.704594 13289 data_layer.cpp:45] output data size: 111,3,32,32
I0501 02:01:27.712446 13289 net.cpp:124] Setting up cifar
I0501 02:01:27.712466 13289 net.cpp:131] Top shape: 111 3 32 32 (340992)
I0501 02:01:27.712476 13289 net.cpp:131] Top shape: 111 (111)
I0501 02:01:27.712478 13289 net.cpp:139] Memory required for data: 1364412
I0501 02:01:27.712502 13289 layer_factory.hpp:77] Creating layer conv0
I0501 02:01:27.712519 13289 net.cpp:86] Creating Layer conv0
I0501 02:01:27.712524 13289 net.cpp:408] conv0 <- data
I0501 02:01:27.712541 13289 net.cpp:382] conv0 -> conv0
I0501 02:01:27.991168 13289 net.cpp:124] Setting up conv0
I0501 02:01:27.991209 13289 net.cpp:131] Top shape: 111 8 34 34 (1026528)
I0501 02:01:27.991214 13289 net.cpp:139] Memory required for data: 5470524
I0501 02:01:27.991230 13289 layer_factory.hpp:77] Creating layer Sigmoid0
I0501 02:01:27.991241 13289 net.cpp:86] Creating Layer Sigmoid0
I0501 02:01:27.991245 13289 net.cpp:408] Sigmoid0 <- conv0
I0501 02:01:27.991266 13289 net.cpp:382] Sigmoid0 -> Sigmoid0
I0501 02:01:27.991497 13289 net.cpp:124] Setting up Sigmoid0
I0501 02:01:27.991506 13289 net.cpp:131] Top shape: 111 8 34 34 (1026528)
I0501 02:01:27.991510 13289 net.cpp:139] Memory required for data: 9576636
I0501 02:01:27.991513 13289 layer_factory.hpp:77] Creating layer pool0
I0501 02:01:27.991520 13289 net.cpp:86] Creating Layer pool0
I0501 02:01:27.991524 13289 net.cpp:408] pool0 <- Sigmoid0
I0501 02:01:27.991528 13289 net.cpp:382] pool0 -> pool0
I0501 02:01:27.992265 13289 net.cpp:124] Setting up pool0
I0501 02:01:27.992278 13289 net.cpp:131] Top shape: 111 8 17 17 (256632)
I0501 02:01:27.992281 13289 net.cpp:139] Memory required for data: 10603164
I0501 02:01:27.992285 13289 layer_factory.hpp:77] Creating layer ip1
I0501 02:01:27.992293 13289 net.cpp:86] Creating Layer ip1
I0501 02:01:27.992296 13289 net.cpp:408] ip1 <- pool0
I0501 02:01:27.992301 13289 net.cpp:382] ip1 -> ip1
I0501 02:01:28.002493 13289 net.cpp:124] Setting up ip1
I0501 02:01:28.002506 13289 net.cpp:131] Top shape: 111 160 (17760)
I0501 02:01:28.002509 13289 net.cpp:139] Memory required for data: 10674204
I0501 02:01:28.002516 13289 layer_factory.hpp:77] Creating layer relu1
I0501 02:01:28.002522 13289 net.cpp:86] Creating Layer relu1
I0501 02:01:28.002526 13289 net.cpp:408] relu1 <- ip1
I0501 02:01:28.002529 13289 net.cpp:369] relu1 -> ip1 (in-place)
I0501 02:01:28.002714 13289 net.cpp:124] Setting up relu1
I0501 02:01:28.002723 13289 net.cpp:131] Top shape: 111 160 (17760)
I0501 02:01:28.002727 13289 net.cpp:139] Memory required for data: 10745244
I0501 02:01:28.002729 13289 layer_factory.hpp:77] Creating layer ip2
I0501 02:01:28.002735 13289 net.cpp:86] Creating Layer ip2
I0501 02:01:28.002738 13289 net.cpp:408] ip2 <- ip1
I0501 02:01:28.002743 13289 net.cpp:382] ip2 -> ip2
I0501 02:01:28.004248 13289 net.cpp:124] Setting up ip2
I0501 02:01:28.004261 13289 net.cpp:131] Top shape: 111 160 (17760)
I0501 02:01:28.004264 13289 net.cpp:139] Memory required for data: 10816284
I0501 02:01:28.004271 13289 layer_factory.hpp:77] Creating layer relu2
I0501 02:01:28.004276 13289 net.cpp:86] Creating Layer relu2
I0501 02:01:28.004279 13289 net.cpp:408] relu2 <- ip2
I0501 02:01:28.004284 13289 net.cpp:369] relu2 -> ip2 (in-place)
I0501 02:01:28.004436 13289 net.cpp:124] Setting up relu2
I0501 02:01:28.004444 13289 net.cpp:131] Top shape: 111 160 (17760)
I0501 02:01:28.004448 13289 net.cpp:139] Memory required for data: 10887324
I0501 02:01:28.004451 13289 layer_factory.hpp:77] Creating layer ip3
I0501 02:01:28.004458 13289 net.cpp:86] Creating Layer ip3
I0501 02:01:28.004462 13289 net.cpp:408] ip3 <- ip2
I0501 02:01:28.004467 13289 net.cpp:382] ip3 -> ip3
I0501 02:01:28.005695 13289 net.cpp:124] Setting up ip3
I0501 02:01:28.005707 13289 net.cpp:131] Top shape: 111 80 (8880)
I0501 02:01:28.005710 13289 net.cpp:139] Memory required for data: 10922844
I0501 02:01:28.005717 13289 layer_factory.hpp:77] Creating layer relu3
I0501 02:01:28.005722 13289 net.cpp:86] Creating Layer relu3
I0501 02:01:28.005724 13289 net.cpp:408] relu3 <- ip3
I0501 02:01:28.005729 13289 net.cpp:369] relu3 -> ip3 (in-place)
I0501 02:01:28.005897 13289 net.cpp:124] Setting up relu3
I0501 02:01:28.005905 13289 net.cpp:131] Top shape: 111 80 (8880)
I0501 02:01:28.005908 13289 net.cpp:139] Memory required for data: 10958364
I0501 02:01:28.005911 13289 layer_factory.hpp:77] Creating layer ip4
I0501 02:01:28.005933 13289 net.cpp:86] Creating Layer ip4
I0501 02:01:28.005935 13289 net.cpp:408] ip4 <- ip3
I0501 02:01:28.005940 13289 net.cpp:382] ip4 -> ip4
I0501 02:01:28.006840 13289 net.cpp:124] Setting up ip4
I0501 02:01:28.006853 13289 net.cpp:131] Top shape: 111 10 (1110)
I0501 02:01:28.006872 13289 net.cpp:139] Memory required for data: 10962804
I0501 02:01:28.006881 13289 layer_factory.hpp:77] Creating layer loss
I0501 02:01:28.006891 13289 net.cpp:86] Creating Layer loss
I0501 02:01:28.006896 13289 net.cpp:408] loss <- ip4
I0501 02:01:28.006899 13289 net.cpp:408] loss <- label
I0501 02:01:28.006920 13289 net.cpp:382] loss -> loss
I0501 02:01:28.006937 13289 layer_factory.hpp:77] Creating layer loss
…
I0501 02:01:28.008121 13289 solver.cpp:173] Creating test net (#0) specified by net file: ECE595/cifar/train_test/var_everything/cifar_train_test_308.prototxt
I0501 02:01:28.008147 13289 net.cpp:296] The NetState phase (1) differed from the phase (0) specified by a rule in layer cifar
I0501 02:01:28.008250 13289 net.cpp:53] Initializing net from parameters: 
name: "CIFAR"
state {
  phase: TEST
}
layer {
  name: "cifar"
  type: "Data"
  top: "data"
  top: "label"
  include {
    phase: TEST
  }
  transform_param {
    mean_file: "examples/cifar10/mean.binaryproto"
  }
  data_param {
    source: "examples/cifar10/cifar10_test_lmdb"
    batch_size: 1000
    backend: LMDB
  }
}
layer {
  name: "conv0"
  type: "Convolution"
  bottom: "data"
  top: "conv0"
  param {
    lr_mult: 1
  }
  param {
    lr_mult: 2
  }
  convolution_param {
    num_output: 8
    pad: 2
    kernel_size: 3
    stride: 1
    weight_filler {
      type: "gaussian"
      std: 0.01
    }
    bias_filler {
      type: "constant"
    }
  }
}
layer {
  name: "Sigmoid0"
  type: "Sigmoid"
  bottom: "conv0"
  top: "Sigmoid0"
}
layer {
  name: "pool0"
  type: "Pooling"
  bottom: "Sigmoid0"
  top: "pool0"
  pooling_param {
    pool: AVE
    kernel_size: 3
    stride: 2
  }
}
layer {
  name: "ip1"
  type: "InnerProduct"
  bottom: "pool0"
  top: "ip1"
  param {
    lr_mult: 1
  }
  param {
    lr_mult: 2
  }
  inner_product_param {
    num_output: 160
    weight_filler {
      type: "gaussian"
      std: 0.01
    }
    bias_filler {
      type: "constant"
    }
  }
}
layer {
  name: "relu1"
  type: "ReLU"
  bottom: "ip1"
  top: "ip1"
}
layer {
  name: "ip2"
  type: "InnerProduct"
  bottom: "ip1"
  top: "ip2"
  param {
    lr_mult: 1
  }
  param {
    lr_mult: 2
  }
  inner_product_param {
    num_output: 160
    weight_filler {
      type: "gaussian"
      std: 0.01
    }
    bias_filler {
      type: "constant"
    }
  }
}
layer {
  name: "relu2"
  type: "ReLU"
  bottom: "ip2"
  top: "ip2"
}
layer {
  name: "ip3"
  type: "InnerProduct"
  bottom: "ip2"
  top: "ip3"
  param {
    lr_mult: 1
  }
  param {
    lr_mult: 2
  }
  inner_product_param {
    num_output: 80
    weight_filler {
      type: "gaussian"
      std: 0.01
    }
    bias_filler {
      type: "constant"
    }
  }
}
layer {
  name: "relu3"
  type: "ReLU"
  bottom: "ip3"
  top: "ip3"
}
layer {
  name: "ip4"
  type: "InnerProduct"
  bottom: "ip3"
  top: "ip4"
  param {
    lr_mult: 1
  }
  param {
    lr_mult: 2
  }
  inner_product_param {
    num_output: 10
    weight_filler {
      type: "gaussian"
      std: 0.01
    }
    bias_filler {
      type: "constant"
    }
  }
}
layer {
  name: "accuracy"
  type: "Accuracy"
  bottom: "ip4"
  bottom: "label"
  top: "accuracy"
  include {
    phase: TEST
  }
}
layer {
  name: "loss"
  type: "SoftmaxWithLoss"
  bottom: "ip4"
  bottom: "label"
  top: "loss"
}
I0501 02:01:28.008325 13289 layer_factory.hpp:77] Creating layer cifar
I0501 02:01:28.008368 13289 db_lmdb.cpp:35] Opened lmdb examples/cifar10/cifar10_test_lmdb
I0501 02:01:28.008380 13289 net.cpp:86] Creating Layer cifar
I0501 02:01:28.008384 13289 net.cpp:382] cifar -> data
I0501 02:01:28.008391 13289 net.cpp:382] cifar -> label
I0501 02:01:28.008399 13289 data_transformer.cpp:25] Loading mean file from: examples/cifar10/mean.binaryproto
I0501 02:01:28.008538 13289 data_layer.cpp:45] output data size: 1000,3,32,32
I0501 02:01:28.030306 13289 net.cpp:124] Setting up cifar
I0501 02:01:28.030333 13289 net.cpp:131] Top shape: 1000 3 32 32 (3072000)
I0501 02:01:28.030339 13289 net.cpp:131] Top shape: 1000 (1000)
I0501 02:01:28.030341 13289 net.cpp:139] Memory required for data: 12292000
I0501 02:01:28.030346 13289 layer_factory.hpp:77] Creating layer label_cifar_1_split
I0501 02:01:28.030392 13289 net.cpp:86] Creating Layer label_cifar_1_split
I0501 02:01:28.030397 13289 net.cpp:408] label_cifar_1_split <- label
I0501 02:01:28.030403 13289 net.cpp:382] label_cifar_1_split -> label_cifar_1_split_0
I0501 02:01:28.030412 13289 net.cpp:382] label_cifar_1_split -> label_cifar_1_split_1
I0501 02:01:28.030464 13289 net.cpp:124] Setting up label_cifar_1_split
I0501 02:01:28.030470 13289 net.cpp:131] Top shape: 1000 (1000)
I0501 02:01:28.030474 13289 net.cpp:131] Top shape: 1000 (1000)
I0501 02:01:28.030477 13289 net.cpp:139] Memory required for data: 12300000
I0501 02:01:28.030479 13289 layer_factory.hpp:77] Creating layer conv0
I0501 02:01:28.030491 13289 net.cpp:86] Creating Layer conv0
I0501 02:01:28.030494 13289 net.cpp:408] conv0 <- data
I0501 02:01:28.030500 13289 net.cpp:382] conv0 -> conv0
I0501 02:01:28.032229 13289 net.cpp:124] Setting up conv0
I0501 02:01:28.032243 13289 net.cpp:131] Top shape: 1000 8 34 34 (9248000)
I0501 02:01:28.032246 13289 net.cpp:139] Memory required for data: 49292000
I0501 02:01:28.032258 13289 layer_factory.hpp:77] Creating layer Sigmoid0
I0501 02:01:28.032279 13289 net.cpp:86] Creating Layer Sigmoid0
I0501 02:01:28.032281 13289 net.cpp:408] Sigmoid0 <- conv0
I0501 02:01:28.032285 13289 net.cpp:382] Sigmoid0 -> Sigmoid0
I0501 02:01:28.032459 13289 net.cpp:124] Setting up Sigmoid0
I0501 02:01:28.032469 13289 net.cpp:131] Top shape: 1000 8 34 34 (9248000)
I0501 02:01:28.032472 13289 net.cpp:139] Memory required for data: 86284000
I0501 02:01:28.032475 13289 layer_factory.hpp:77] Creating layer pool0
I0501 02:01:28.032482 13289 net.cpp:86] Creating Layer pool0
I0501 02:01:28.032485 13289 net.cpp:408] pool0 <- Sigmoid0
I0501 02:01:28.032490 13289 net.cpp:382] pool0 -> pool0
I0501 02:01:28.032707 13289 net.cpp:124] Setting up pool0
I0501 02:01:28.032716 13289 net.cpp:131] Top shape: 1000 8 17 17 (2312000)
I0501 02:01:28.032718 13289 net.cpp:139] Memory required for data: 95532000
I0501 02:01:28.032721 13289 layer_factory.hpp:77] Creating layer ip1
I0501 02:01:28.032730 13289 net.cpp:86] Creating Layer ip1
I0501 02:01:28.032733 13289 net.cpp:408] ip1 <- pool0
I0501 02:01:28.032744 13289 net.cpp:382] ip1 -> ip1
I0501 02:01:28.044214 13289 net.cpp:124] Setting up ip1
I0501 02:01:28.044229 13289 net.cpp:131] Top shape: 1000 160 (160000)
I0501 02:01:28.044232 13289 net.cpp:139] Memory required for data: 96172000
I0501 02:01:28.044284 13289 layer_factory.hpp:77] Creating layer relu1
I0501 02:01:28.044292 13289 net.cpp:86] Creating Layer relu1
I0501 02:01:28.044296 13289 net.cpp:408] relu1 <- ip1
I0501 02:01:28.044301 13289 net.cpp:369] relu1 -> ip1 (in-place)
I0501 02:01:28.044536 13289 net.cpp:124] Setting up relu1
I0501 02:01:28.044546 13289 net.cpp:131] Top shape: 1000 160 (160000)
I0501 02:01:28.044549 13289 net.cpp:139] Memory required for data: 96812000
I0501 02:01:28.044553 13289 layer_factory.hpp:77] Creating layer ip2
I0501 02:01:28.044561 13289 net.cpp:86] Creating Layer ip2
I0501 02:01:28.044564 13289 net.cpp:408] ip2 <- ip1
I0501 02:01:28.044570 13289 net.cpp:382] ip2 -> ip2
I0501 02:01:28.045496 13289 net.cpp:124] Setting up ip2
I0501 02:01:28.045506 13289 net.cpp:131] Top shape: 1000 160 (160000)
I0501 02:01:28.045509 13289 net.cpp:139] Memory required for data: 97452000
I0501 02:01:28.045516 13289 layer_factory.hpp:77] Creating layer relu2
I0501 02:01:28.045539 13289 net.cpp:86] Creating Layer relu2
I0501 02:01:28.045542 13289 net.cpp:408] relu2 <- ip2
I0501 02:01:28.045547 13289 net.cpp:369] relu2 -> ip2 (in-place)
I0501 02:01:28.046332 13289 net.cpp:124] Setting up relu2
I0501 02:01:28.046344 13289 net.cpp:131] Top shape: 1000 160 (160000)
I0501 02:01:28.046347 13289 net.cpp:139] Memory required for data: 98092000
I0501 02:01:28.046351 13289 layer_factory.hpp:77] Creating layer ip3
I0501 02:01:28.046375 13289 net.cpp:86] Creating Layer ip3
I0501 02:01:28.046380 13289 net.cpp:408] ip3 <- ip2
I0501 02:01:28.046386 13289 net.cpp:382] ip3 -> ip3
I0501 02:01:28.046838 13289 net.cpp:124] Setting up ip3
I0501 02:01:28.046845 13289 net.cpp:131] Top shape: 1000 80 (80000)
I0501 02:01:28.046849 13289 net.cpp:139] Memory required for data: 98412000
I0501 02:01:28.046854 13289 layer_factory.hpp:77] Creating layer relu3
I0501 02:01:28.046875 13289 net.cpp:86] Creating Layer relu3
I0501 02:01:28.046878 13289 net.cpp:408] relu3 <- ip3
I0501 02:01:28.046881 13289 net.cpp:369] relu3 -> ip3 (in-place)
I0501 02:01:28.047032 13289 net.cpp:124] Setting up relu3
I0501 02:01:28.047040 13289 net.cpp:131] Top shape: 1000 80 (80000)
I0501 02:01:28.047044 13289 net.cpp:139] Memory required for data: 98732000
I0501 02:01:28.047046 13289 layer_factory.hpp:77] Creating layer ip4
I0501 02:01:28.047052 13289 net.cpp:86] Creating Layer ip4
I0501 02:01:28.047055 13289 net.cpp:408] ip4 <- ip3
I0501 02:01:28.047060 13289 net.cpp:382] ip4 -> ip4
I0501 02:01:28.047179 13289 net.cpp:124] Setting up ip4
I0501 02:01:28.047186 13289 net.cpp:131] Top shape: 1000 10 (10000)
I0501 02:01:28.047189 13289 net.cpp:139] Memory required for data: 98772000
I0501 02:01:28.047196 13289 layer_factory.hpp:77] Creating layer ip4_ip4_0_split
I0501 02:01:28.047202 13289 net.cpp:86] Creating Layer ip4_ip4_0_split
I0501 02:01:28.047205 13289 net.cpp:408] ip4_ip4_0_split <- ip4
I0501 02:01:28.047224 13289 net.cpp:382] ip4_ip4_0_split -> ip4_ip4_0_split_0
I0501 02:01:28.047230 13289 net.cpp:382] ip4_ip4_0_split -> ip4_ip4_0_split_1
I0501 02:01:28.047260 13289 net.cpp:124] Setting up ip4_ip4_0_split
I0501 02:01:28.047266 13289 net.cpp:131] Top shape: 1000 10 (10000)
I0501 02:01:28.047268 13289 net.cpp:131] Top shape: 1000 10 (10000)
I0501 02:01:28.047271 13289 net.cpp:139] Memory required for data: 98852000
I0501 02:01:28.047274 13289 layer_factory.hpp:77] Creating layer accuracy
I0501 02:01:28.047281 13289 net.cpp:86] Creating Layer accuracy
I0501 02:01:28.047283 13289 net.cpp:408] accuracy <- ip4_ip4_0_split_0
I0501 02:01:28.047286 13289 net.cpp:408] accuracy <- label_cifar_1_split_0
I0501 02:01:28.047292 13289 net.cpp:382] accuracy -> accuracy
…
