…
I0501 07:55:01.586410  8015 net.cpp:296] The NetState phase (0) differed from the phase (1) specified by a rule in layer cifar
I0501 07:55:01.586431  8015 net.cpp:296] The NetState phase (0) differed from the phase (1) specified by a rule in layer accuracy
I0501 07:55:01.586536  8015 net.cpp:53] Initializing net from parameters: 
name: "CIFAR"
state {
  phase: TRAIN
  level: 0
  stage: ""
}
layer {
  name: "cifar"
  type: "Data"
  top: "data"
  top: "label"
  include {
    phase: TRAIN
  }
  transform_param {
    mean_file: "examples/cifar10/mean.binaryproto"
  }
  data_param {
    source: "examples/cifar10/cifar10_train_lmdb"
    batch_size: 111
    backend: LMDB
  }
}
layer {
  name: "conv0"
  type: "Convolution"
  bottom: "data"
  top: "conv0"
  param {
    lr_mult: 1
  }
  param {
    lr_mult: 2
  }
  convolution_param {
    num_output: 16
    pad: 2
    kernel_size: 3
    stride: 1
    weight_filler {
      type: "gaussian"
      std: 0.01
    }
    bias_filler {
      type: "constant"
    }
  }
}
layer {
  name: "Sigmoid0"
  type: "Sigmoid"
  bottom: "conv0"
  top: "Sigmoid0"
}
layer {
  name: "pool0"
  type: "Pooling"
  bottom: "Sigmoid0"
  top: "pool0"
  pooling_param {
    pool: AVE
    kernel_size: 3
    stride: 2
  }
}
layer {
  name: "ip1"
  type: "InnerProduct"
  bottom: "pool0"
  top: "ip1"
  param {
    lr_mult: 1
  }
  param {
    lr_mult: 2
  }
  inner_product_param {
    num_output: 10
    weight_filler {
      type: "gaussian"
      std: 0.01
    }
    bias_filler {
      type: "constant"
    }
  }
}
layer {
  name: "relu1"
  type: "ReLU"
  bottom: "ip1"
  top: "ip1"
}
layer {
  name: "ip2"
  type: "InnerProduct"
  bottom: "ip1"
  top: "ip2"
  param {
    lr_mult: 1
  }
  param {
    lr_mult: 2
  }
  inner_product_param {
    num_output: 10
    weight_filler {
      type: "gaussian"
      std: 0.01
    }
    bias_filler {
      type: "constant"
    }
  }
}
layer {
  name: "relu2"
  type: "ReLU"
  bottom: "ip2"
  top: "ip2"
}
layer {
  name: "ip3"
  type: "InnerProduct"
  bottom: "ip2"
  top: "ip3"
  param {
    lr_mult: 1
  }
  param {
    lr_mult: 2
  }
  inner_product_param {
    num_output: 20
    weight_filler {
      type: "gaussian"
      std: 0.01
    }
    bias_filler {
      type: "constant"
    }
  }
}
layer {
  name: "relu3"
  type: "ReLU"
  bottom: "ip3"
  top: "ip3"
}
layer {
  name: "ip4"
  type: "InnerProduct"
  bottom: "ip3"
  top: "ip4"
  param {
    lr_mult: 1
  }
  param {
    lr_mult: 2
  }
  inner_product_param {
    num_output: 10
    weight_filler {
      type: "gaussian"
      std: 0.01
    }
    bias_filler {
      type: "constant"
    }
  }
}
layer {
  name: "loss"
  type: "SoftmaxWithLoss"
  bottom: "ip4"
  bottom: "label"
  top: "loss"
}
I0501 07:55:01.586616  8015 layer_factory.hpp:77] Creating layer cifar
I0501 07:55:01.586719  8015 db_lmdb.cpp:35] Opened lmdb examples/cifar10/cifar10_train_lmdb
I0501 07:55:01.586745  8015 net.cpp:86] Creating Layer cifar
I0501 07:55:01.586755  8015 net.cpp:382] cifar -> data
I0501 07:55:01.586777  8015 net.cpp:382] cifar -> label
I0501 07:55:01.586789  8015 data_transformer.cpp:25] Loading mean file from: examples/cifar10/mean.binaryproto
I0501 07:55:01.588951  8015 data_layer.cpp:45] output data size: 111,3,32,32
I0501 07:55:01.596928  8015 net.cpp:124] Setting up cifar
I0501 07:55:01.596947  8015 net.cpp:131] Top shape: 111 3 32 32 (340992)
I0501 07:55:01.596953  8015 net.cpp:131] Top shape: 111 (111)
I0501 07:55:01.596958  8015 net.cpp:139] Memory required for data: 1364412
I0501 07:55:01.596982  8015 layer_factory.hpp:77] Creating layer conv0
I0501 07:55:01.597002  8015 net.cpp:86] Creating Layer conv0
I0501 07:55:01.597007  8015 net.cpp:408] conv0 <- data
I0501 07:55:01.597021  8015 net.cpp:382] conv0 -> conv0
I0501 07:55:01.878906  8015 net.cpp:124] Setting up conv0
I0501 07:55:01.878933  8015 net.cpp:131] Top shape: 111 16 34 34 (2053056)
I0501 07:55:01.878937  8015 net.cpp:139] Memory required for data: 9576636
I0501 07:55:01.878952  8015 layer_factory.hpp:77] Creating layer Sigmoid0
I0501 07:55:01.878963  8015 net.cpp:86] Creating Layer Sigmoid0
I0501 07:55:01.878968  8015 net.cpp:408] Sigmoid0 <- conv0
I0501 07:55:01.878973  8015 net.cpp:382] Sigmoid0 -> Sigmoid0
I0501 07:55:01.879160  8015 net.cpp:124] Setting up Sigmoid0
I0501 07:55:01.879169  8015 net.cpp:131] Top shape: 111 16 34 34 (2053056)
I0501 07:55:01.879173  8015 net.cpp:139] Memory required for data: 17788860
I0501 07:55:01.879176  8015 layer_factory.hpp:77] Creating layer pool0
I0501 07:55:01.879182  8015 net.cpp:86] Creating Layer pool0
I0501 07:55:01.879186  8015 net.cpp:408] pool0 <- Sigmoid0
I0501 07:55:01.879191  8015 net.cpp:382] pool0 -> pool0
I0501 07:55:01.879921  8015 net.cpp:124] Setting up pool0
I0501 07:55:01.879935  8015 net.cpp:131] Top shape: 111 16 17 17 (513264)
I0501 07:55:01.879937  8015 net.cpp:139] Memory required for data: 19841916
I0501 07:55:01.879941  8015 layer_factory.hpp:77] Creating layer ip1
I0501 07:55:01.879951  8015 net.cpp:86] Creating Layer ip1
I0501 07:55:01.879953  8015 net.cpp:408] ip1 <- pool0
I0501 07:55:01.879959  8015 net.cpp:382] ip1 -> ip1
I0501 07:55:01.882058  8015 net.cpp:124] Setting up ip1
I0501 07:55:01.882071  8015 net.cpp:131] Top shape: 111 10 (1110)
I0501 07:55:01.882074  8015 net.cpp:139] Memory required for data: 19846356
I0501 07:55:01.882082  8015 layer_factory.hpp:77] Creating layer relu1
I0501 07:55:01.882088  8015 net.cpp:86] Creating Layer relu1
I0501 07:55:01.882092  8015 net.cpp:408] relu1 <- ip1
I0501 07:55:01.882097  8015 net.cpp:369] relu1 -> ip1 (in-place)
I0501 07:55:01.882262  8015 net.cpp:124] Setting up relu1
I0501 07:55:01.882271  8015 net.cpp:131] Top shape: 111 10 (1110)
I0501 07:55:01.882273  8015 net.cpp:139] Memory required for data: 19850796
I0501 07:55:01.882277  8015 layer_factory.hpp:77] Creating layer ip2
I0501 07:55:01.882283  8015 net.cpp:86] Creating Layer ip2
I0501 07:55:01.882287  8015 net.cpp:408] ip2 <- ip1
I0501 07:55:01.882292  8015 net.cpp:382] ip2 -> ip2
I0501 07:55:01.882385  8015 net.cpp:124] Setting up ip2
I0501 07:55:01.882391  8015 net.cpp:131] Top shape: 111 10 (1110)
I0501 07:55:01.882395  8015 net.cpp:139] Memory required for data: 19855236
I0501 07:55:01.882401  8015 layer_factory.hpp:77] Creating layer relu2
I0501 07:55:01.882406  8015 net.cpp:86] Creating Layer relu2
I0501 07:55:01.882410  8015 net.cpp:408] relu2 <- ip2
I0501 07:55:01.882413  8015 net.cpp:369] relu2 -> ip2 (in-place)
I0501 07:55:01.882568  8015 net.cpp:124] Setting up relu2
I0501 07:55:01.882576  8015 net.cpp:131] Top shape: 111 10 (1110)
I0501 07:55:01.882580  8015 net.cpp:139] Memory required for data: 19859676
I0501 07:55:01.882582  8015 layer_factory.hpp:77] Creating layer ip3
I0501 07:55:01.882588  8015 net.cpp:86] Creating Layer ip3
I0501 07:55:01.882591  8015 net.cpp:408] ip3 <- ip2
I0501 07:55:01.882596  8015 net.cpp:382] ip3 -> ip3
I0501 07:55:01.882686  8015 net.cpp:124] Setting up ip3
I0501 07:55:01.882694  8015 net.cpp:131] Top shape: 111 20 (2220)
I0501 07:55:01.882696  8015 net.cpp:139] Memory required for data: 19868556
I0501 07:55:01.882701  8015 layer_factory.hpp:77] Creating layer relu3
I0501 07:55:01.882706  8015 net.cpp:86] Creating Layer relu3
I0501 07:55:01.882709  8015 net.cpp:408] relu3 <- ip3
I0501 07:55:01.882712  8015 net.cpp:369] relu3 -> ip3 (in-place)
I0501 07:55:01.882851  8015 net.cpp:124] Setting up relu3
I0501 07:55:01.882859  8015 net.cpp:131] Top shape: 111 20 (2220)
I0501 07:55:01.882863  8015 net.cpp:139] Memory required for data: 19877436
I0501 07:55:01.882864  8015 layer_factory.hpp:77] Creating layer ip4
I0501 07:55:01.882884  8015 net.cpp:86] Creating Layer ip4
I0501 07:55:01.882887  8015 net.cpp:408] ip4 <- ip3
I0501 07:55:01.882892  8015 net.cpp:382] ip4 -> ip4
I0501 07:55:01.883015  8015 net.cpp:124] Setting up ip4
I0501 07:55:01.883023  8015 net.cpp:131] Top shape: 111 10 (1110)
I0501 07:55:01.883026  8015 net.cpp:139] Memory required for data: 19881876
I0501 07:55:01.883033  8015 layer_factory.hpp:77] Creating layer loss
I0501 07:55:01.883038  8015 net.cpp:86] Creating Layer loss
I0501 07:55:01.883043  8015 net.cpp:408] loss <- ip4
I0501 07:55:01.883046  8015 net.cpp:408] loss <- label
I0501 07:55:01.883051  8015 net.cpp:382] loss -> loss
I0501 07:55:01.883069  8015 layer_factory.hpp:77] Creating layer loss
…
I0501 07:55:01.884368  8015 solver.cpp:173] Creating test net (#0) specified by net file: ECE595/cifar/train_test/var_everything/cifar_train_test_496.prototxt
I0501 07:55:01.884395  8015 net.cpp:296] The NetState phase (1) differed from the phase (0) specified by a rule in layer cifar
I0501 07:55:01.884493  8015 net.cpp:53] Initializing net from parameters: 
name: "CIFAR"
state {
  phase: TEST
}
layer {
  name: "cifar"
  type: "Data"
  top: "data"
  top: "label"
  include {
    phase: TEST
  }
  transform_param {
    mean_file: "examples/cifar10/mean.binaryproto"
  }
  data_param {
    source: "examples/cifar10/cifar10_test_lmdb"
    batch_size: 1000
    backend: LMDB
  }
}
layer {
  name: "conv0"
  type: "Convolution"
  bottom: "data"
  top: "conv0"
  param {
    lr_mult: 1
  }
  param {
    lr_mult: 2
  }
  convolution_param {
    num_output: 16
    pad: 2
    kernel_size: 3
    stride: 1
    weight_filler {
      type: "gaussian"
      std: 0.01
    }
    bias_filler {
      type: "constant"
    }
  }
}
layer {
  name: "Sigmoid0"
  type: "Sigmoid"
  bottom: "conv0"
  top: "Sigmoid0"
}
layer {
  name: "pool0"
  type: "Pooling"
  bottom: "Sigmoid0"
  top: "pool0"
  pooling_param {
    pool: AVE
    kernel_size: 3
    stride: 2
  }
}
layer {
  name: "ip1"
  type: "InnerProduct"
  bottom: "pool0"
  top: "ip1"
  param {
    lr_mult: 1
  }
  param {
    lr_mult: 2
  }
  inner_product_param {
    num_output: 10
    weight_filler {
      type: "gaussian"
      std: 0.01
    }
    bias_filler {
      type: "constant"
    }
  }
}
layer {
  name: "relu1"
  type: "ReLU"
  bottom: "ip1"
  top: "ip1"
}
layer {
  name: "ip2"
  type: "InnerProduct"
  bottom: "ip1"
  top: "ip2"
  param {
    lr_mult: 1
  }
  param {
    lr_mult: 2
  }
  inner_product_param {
    num_output: 10
    weight_filler {
      type: "gaussian"
      std: 0.01
    }
    bias_filler {
      type: "constant"
    }
  }
}
layer {
  name: "relu2"
  type: "ReLU"
  bottom: "ip2"
  top: "ip2"
}
layer {
  name: "ip3"
  type: "InnerProduct"
  bottom: "ip2"
  top: "ip3"
  param {
    lr_mult: 1
  }
  param {
    lr_mult: 2
  }
  inner_product_param {
    num_output: 20
    weight_filler {
      type: "gaussian"
      std: 0.01
    }
    bias_filler {
      type: "constant"
    }
  }
}
layer {
  name: "relu3"
  type: "ReLU"
  bottom: "ip3"
  top: "ip3"
}
layer {
  name: "ip4"
  type: "InnerProduct"
  bottom: "ip3"
  top: "ip4"
  param {
    lr_mult: 1
  }
  param {
    lr_mult: 2
  }
  inner_product_param {
    num_output: 10
    weight_filler {
      type: "gaussian"
      std: 0.01
    }
    bias_filler {
      type: "constant"
    }
  }
}
layer {
  name: "accuracy"
  type: "Accuracy"
  bottom: "ip4"
  bottom: "label"
  top: "accuracy"
  include {
    phase: TEST
  }
}
layer {
  name: "loss"
  type: "SoftmaxWithLoss"
  bottom: "ip4"
  bottom: "label"
  top: "loss"
}
I0501 07:55:01.884575  8015 layer_factory.hpp:77] Creating layer cifar
I0501 07:55:01.884634  8015 db_lmdb.cpp:35] Opened lmdb examples/cifar10/cifar10_test_lmdb
I0501 07:55:01.884646  8015 net.cpp:86] Creating Layer cifar
I0501 07:55:01.884652  8015 net.cpp:382] cifar -> data
I0501 07:55:01.884660  8015 net.cpp:382] cifar -> label
I0501 07:55:01.884665  8015 data_transformer.cpp:25] Loading mean file from: examples/cifar10/mean.binaryproto
I0501 07:55:01.884806  8015 data_layer.cpp:45] output data size: 1000,3,32,32
I0501 07:55:01.906787  8015 net.cpp:124] Setting up cifar
I0501 07:55:01.906831  8015 net.cpp:131] Top shape: 1000 3 32 32 (3072000)
I0501 07:55:01.906836  8015 net.cpp:131] Top shape: 1000 (1000)
I0501 07:55:01.906838  8015 net.cpp:139] Memory required for data: 12292000
I0501 07:55:01.906846  8015 layer_factory.hpp:77] Creating layer label_cifar_1_split
I0501 07:55:01.906865  8015 net.cpp:86] Creating Layer label_cifar_1_split
I0501 07:55:01.906869  8015 net.cpp:408] label_cifar_1_split <- label
I0501 07:55:01.906891  8015 net.cpp:382] label_cifar_1_split -> label_cifar_1_split_0
I0501 07:55:01.906900  8015 net.cpp:382] label_cifar_1_split -> label_cifar_1_split_1
I0501 07:55:01.906998  8015 net.cpp:124] Setting up label_cifar_1_split
I0501 07:55:01.907006  8015 net.cpp:131] Top shape: 1000 (1000)
I0501 07:55:01.907009  8015 net.cpp:131] Top shape: 1000 (1000)
I0501 07:55:01.907012  8015 net.cpp:139] Memory required for data: 12300000
I0501 07:55:01.907016  8015 layer_factory.hpp:77] Creating layer conv0
I0501 07:55:01.907028  8015 net.cpp:86] Creating Layer conv0
I0501 07:55:01.907032  8015 net.cpp:408] conv0 <- data
I0501 07:55:01.907037  8015 net.cpp:382] conv0 -> conv0
I0501 07:55:01.908795  8015 net.cpp:124] Setting up conv0
I0501 07:55:01.908830  8015 net.cpp:131] Top shape: 1000 16 34 34 (18496000)
I0501 07:55:01.908850  8015 net.cpp:139] Memory required for data: 86284000
I0501 07:55:01.908860  8015 layer_factory.hpp:77] Creating layer Sigmoid0
I0501 07:55:01.908866  8015 net.cpp:86] Creating Layer Sigmoid0
I0501 07:55:01.908869  8015 net.cpp:408] Sigmoid0 <- conv0
I0501 07:55:01.908890  8015 net.cpp:382] Sigmoid0 -> Sigmoid0
I0501 07:55:01.909106  8015 net.cpp:124] Setting up Sigmoid0
I0501 07:55:01.909114  8015 net.cpp:131] Top shape: 1000 16 34 34 (18496000)
I0501 07:55:01.909118  8015 net.cpp:139] Memory required for data: 160268000
I0501 07:55:01.909121  8015 layer_factory.hpp:77] Creating layer pool0
I0501 07:55:01.909131  8015 net.cpp:86] Creating Layer pool0
I0501 07:55:01.909134  8015 net.cpp:408] pool0 <- Sigmoid0
I0501 07:55:01.909139  8015 net.cpp:382] pool0 -> pool0
I0501 07:55:01.909346  8015 net.cpp:124] Setting up pool0
I0501 07:55:01.909355  8015 net.cpp:131] Top shape: 1000 16 17 17 (4624000)
I0501 07:55:01.909358  8015 net.cpp:139] Memory required for data: 178764000
I0501 07:55:01.909361  8015 layer_factory.hpp:77] Creating layer ip1
I0501 07:55:01.909370  8015 net.cpp:86] Creating Layer ip1
I0501 07:55:01.909373  8015 net.cpp:408] ip1 <- pool0
I0501 07:55:01.909394  8015 net.cpp:382] ip1 -> ip1
I0501 07:55:01.910801  8015 net.cpp:124] Setting up ip1
I0501 07:55:01.910810  8015 net.cpp:131] Top shape: 1000 10 (10000)
I0501 07:55:01.910828  8015 net.cpp:139] Memory required for data: 178804000
I0501 07:55:01.910851  8015 layer_factory.hpp:77] Creating layer relu1
I0501 07:55:01.910857  8015 net.cpp:86] Creating Layer relu1
I0501 07:55:01.910861  8015 net.cpp:408] relu1 <- ip1
I0501 07:55:01.910864  8015 net.cpp:369] relu1 -> ip1 (in-place)
I0501 07:55:01.911051  8015 net.cpp:124] Setting up relu1
I0501 07:55:01.911059  8015 net.cpp:131] Top shape: 1000 10 (10000)
I0501 07:55:01.911063  8015 net.cpp:139] Memory required for data: 178844000
I0501 07:55:01.911067  8015 layer_factory.hpp:77] Creating layer ip2
I0501 07:55:01.911072  8015 net.cpp:86] Creating Layer ip2
I0501 07:55:01.911075  8015 net.cpp:408] ip2 <- ip1
I0501 07:55:01.911082  8015 net.cpp:382] ip2 -> ip2
I0501 07:55:01.911190  8015 net.cpp:124] Setting up ip2
I0501 07:55:01.911198  8015 net.cpp:131] Top shape: 1000 10 (10000)
I0501 07:55:01.911201  8015 net.cpp:139] Memory required for data: 178884000
I0501 07:55:01.911208  8015 layer_factory.hpp:77] Creating layer relu2
I0501 07:55:01.911214  8015 net.cpp:86] Creating Layer relu2
I0501 07:55:01.911217  8015 net.cpp:408] relu2 <- ip2
I0501 07:55:01.911222  8015 net.cpp:369] relu2 -> ip2 (in-place)
I0501 07:55:01.912045  8015 net.cpp:124] Setting up relu2
I0501 07:55:01.912071  8015 net.cpp:131] Top shape: 1000 10 (10000)
I0501 07:55:01.912075  8015 net.cpp:139] Memory required for data: 178924000
I0501 07:55:01.912093  8015 layer_factory.hpp:77] Creating layer ip3
I0501 07:55:01.912101  8015 net.cpp:86] Creating Layer ip3
I0501 07:55:01.912104  8015 net.cpp:408] ip3 <- ip2
I0501 07:55:01.912111  8015 net.cpp:382] ip3 -> ip3
I0501 07:55:01.912242  8015 net.cpp:124] Setting up ip3
I0501 07:55:01.912250  8015 net.cpp:131] Top shape: 1000 20 (20000)
I0501 07:55:01.912252  8015 net.cpp:139] Memory required for data: 179004000
I0501 07:55:01.912258  8015 layer_factory.hpp:77] Creating layer relu3
I0501 07:55:01.912266  8015 net.cpp:86] Creating Layer relu3
I0501 07:55:01.912268  8015 net.cpp:408] relu3 <- ip3
I0501 07:55:01.912273  8015 net.cpp:369] relu3 -> ip3 (in-place)
I0501 07:55:01.912442  8015 net.cpp:124] Setting up relu3
I0501 07:55:01.912451  8015 net.cpp:131] Top shape: 1000 20 (20000)
I0501 07:55:01.912454  8015 net.cpp:139] Memory required for data: 179084000
I0501 07:55:01.912457  8015 layer_factory.hpp:77] Creating layer ip4
I0501 07:55:01.912466  8015 net.cpp:86] Creating Layer ip4
I0501 07:55:01.912468  8015 net.cpp:408] ip4 <- ip3
I0501 07:55:01.912473  8015 net.cpp:382] ip4 -> ip4
I0501 07:55:01.912585  8015 net.cpp:124] Setting up ip4
I0501 07:55:01.912591  8015 net.cpp:131] Top shape: 1000 10 (10000)
I0501 07:55:01.912595  8015 net.cpp:139] Memory required for data: 179124000
I0501 07:55:01.912603  8015 layer_factory.hpp:77] Creating layer ip4_ip4_0_split
I0501 07:55:01.912609  8015 net.cpp:86] Creating Layer ip4_ip4_0_split
I0501 07:55:01.912612  8015 net.cpp:408] ip4_ip4_0_split <- ip4
I0501 07:55:01.912616  8015 net.cpp:382] ip4_ip4_0_split -> ip4_ip4_0_split_0
I0501 07:55:01.912621  8015 net.cpp:382] ip4_ip4_0_split -> ip4_ip4_0_split_1
I0501 07:55:01.912654  8015 net.cpp:124] Setting up ip4_ip4_0_split
I0501 07:55:01.912660  8015 net.cpp:131] Top shape: 1000 10 (10000)
I0501 07:55:01.912667  8015 net.cpp:131] Top shape: 1000 10 (10000)
I0501 07:55:01.912685  8015 net.cpp:139] Memory required for data: 179204000
I0501 07:55:01.912688  8015 layer_factory.hpp:77] Creating layer accuracy
I0501 07:55:01.912696  8015 net.cpp:86] Creating Layer accuracy
I0501 07:55:01.912700  8015 net.cpp:408] accuracy <- ip4_ip4_0_split_0
I0501 07:55:01.912704  8015 net.cpp:408] accuracy <- label_cifar_1_split_0
I0501 07:55:01.912709  8015 net.cpp:382] accuracy -> accuracy
…
