…
I0501 01:57:42.663715 12944 net.cpp:296] The NetState phase (0) differed from the phase (1) specified by a rule in layer cifar
I0501 01:57:42.663733 12944 net.cpp:296] The NetState phase (0) differed from the phase (1) specified by a rule in layer accuracy
I0501 01:57:42.663839 12944 net.cpp:53] Initializing net from parameters: 
name: "CIFAR"
state {
  phase: TRAIN
  level: 0
  stage: ""
}
layer {
  name: "cifar"
  type: "Data"
  top: "data"
  top: "label"
  include {
    phase: TRAIN
  }
  transform_param {
    mean_file: "examples/cifar10/mean.binaryproto"
  }
  data_param {
    source: "examples/cifar10/cifar10_train_lmdb"
    batch_size: 111
    backend: LMDB
  }
}
layer {
  name: "conv0"
  type: "Convolution"
  bottom: "data"
  top: "conv0"
  param {
    lr_mult: 1
  }
  param {
    lr_mult: 2
  }
  convolution_param {
    num_output: 8
    pad: 2
    kernel_size: 3
    stride: 1
    weight_filler {
      type: "gaussian"
      std: 0.01
    }
    bias_filler {
      type: "constant"
    }
  }
}
layer {
  name: "Sigmoid0"
  type: "Sigmoid"
  bottom: "conv0"
  top: "Sigmoid0"
}
layer {
  name: "pool0"
  type: "Pooling"
  bottom: "Sigmoid0"
  top: "pool0"
  pooling_param {
    pool: AVE
    kernel_size: 3
    stride: 2
  }
}
layer {
  name: "ip1"
  type: "InnerProduct"
  bottom: "pool0"
  top: "ip1"
  param {
    lr_mult: 1
  }
  param {
    lr_mult: 2
  }
  inner_product_param {
    num_output: 160
    weight_filler {
      type: "gaussian"
      std: 0.01
    }
    bias_filler {
      type: "constant"
    }
  }
}
layer {
  name: "relu1"
  type: "ReLU"
  bottom: "ip1"
  top: "ip1"
}
layer {
  name: "ip2"
  type: "InnerProduct"
  bottom: "ip1"
  top: "ip2"
  param {
    lr_mult: 1
  }
  param {
    lr_mult: 2
  }
  inner_product_param {
    num_output: 160
    weight_filler {
      type: "gaussian"
      std: 0.01
    }
    bias_filler {
      type: "constant"
    }
  }
}
layer {
  name: "relu2"
  type: "ReLU"
  bottom: "ip2"
  top: "ip2"
}
layer {
  name: "ip3"
  type: "InnerProduct"
  bottom: "ip2"
  top: "ip3"
  param {
    lr_mult: 1
  }
  param {
    lr_mult: 2
  }
  inner_product_param {
    num_output: 20
    weight_filler {
      type: "gaussian"
      std: 0.01
    }
    bias_filler {
      type: "constant"
    }
  }
}
layer {
  name: "relu3"
  type: "ReLU"
  bottom: "ip3"
  top: "ip3"
}
layer {
  name: "ip4"
  type: "InnerProduct"
  bottom: "ip3"
  top: "ip4"
  param {
    lr_mult: 1
  }
  param {
    lr_mult: 2
  }
  inner_product_param {
    num_output: 10
    weight_filler {
      type: "gaussian"
      std: 0.01
    }
    bias_filler {
      type: "constant"
    }
  }
}
layer {
  name: "loss"
  type: "SoftmaxWithLoss"
  bottom: "ip4"
  bottom: "label"
  top: "loss"
}
I0501 01:57:42.663920 12944 layer_factory.hpp:77] Creating layer cifar
I0501 01:57:42.664019 12944 db_lmdb.cpp:35] Opened lmdb examples/cifar10/cifar10_train_lmdb
I0501 01:57:42.664049 12944 net.cpp:86] Creating Layer cifar
I0501 01:57:42.664062 12944 net.cpp:382] cifar -> data
I0501 01:57:42.664088 12944 net.cpp:382] cifar -> label
I0501 01:57:42.664099 12944 data_transformer.cpp:25] Loading mean file from: examples/cifar10/mean.binaryproto
I0501 01:57:42.666220 12944 data_layer.cpp:45] output data size: 111,3,32,32
I0501 01:57:42.674078 12944 net.cpp:124] Setting up cifar
I0501 01:57:42.674098 12944 net.cpp:131] Top shape: 111 3 32 32 (340992)
I0501 01:57:42.674104 12944 net.cpp:131] Top shape: 111 (111)
I0501 01:57:42.674108 12944 net.cpp:139] Memory required for data: 1364412
I0501 01:57:42.674131 12944 layer_factory.hpp:77] Creating layer conv0
I0501 01:57:42.674154 12944 net.cpp:86] Creating Layer conv0
I0501 01:57:42.674168 12944 net.cpp:408] conv0 <- data
I0501 01:57:42.674180 12944 net.cpp:382] conv0 -> conv0
I0501 01:57:42.964332 12944 net.cpp:124] Setting up conv0
I0501 01:57:42.964365 12944 net.cpp:131] Top shape: 111 8 34 34 (1026528)
I0501 01:57:42.964370 12944 net.cpp:139] Memory required for data: 5470524
I0501 01:57:42.964386 12944 layer_factory.hpp:77] Creating layer Sigmoid0
I0501 01:57:42.964401 12944 net.cpp:86] Creating Layer Sigmoid0
I0501 01:57:42.964407 12944 net.cpp:408] Sigmoid0 <- conv0
I0501 01:57:42.964414 12944 net.cpp:382] Sigmoid0 -> Sigmoid0
I0501 01:57:42.964644 12944 net.cpp:124] Setting up Sigmoid0
I0501 01:57:42.964656 12944 net.cpp:131] Top shape: 111 8 34 34 (1026528)
I0501 01:57:42.964660 12944 net.cpp:139] Memory required for data: 9576636
I0501 01:57:42.964664 12944 layer_factory.hpp:77] Creating layer pool0
I0501 01:57:42.964673 12944 net.cpp:86] Creating Layer pool0
I0501 01:57:42.964678 12944 net.cpp:408] pool0 <- Sigmoid0
I0501 01:57:42.964684 12944 net.cpp:382] pool0 -> pool0
I0501 01:57:42.965584 12944 net.cpp:124] Setting up pool0
I0501 01:57:42.965601 12944 net.cpp:131] Top shape: 111 8 17 17 (256632)
I0501 01:57:42.965606 12944 net.cpp:139] Memory required for data: 10603164
I0501 01:57:42.965610 12944 layer_factory.hpp:77] Creating layer ip1
I0501 01:57:42.965623 12944 net.cpp:86] Creating Layer ip1
I0501 01:57:42.965628 12944 net.cpp:408] ip1 <- pool0
I0501 01:57:42.965636 12944 net.cpp:382] ip1 -> ip1
I0501 01:57:42.978881 12944 net.cpp:124] Setting up ip1
I0501 01:57:42.978898 12944 net.cpp:131] Top shape: 111 160 (17760)
I0501 01:57:42.978901 12944 net.cpp:139] Memory required for data: 10674204
I0501 01:57:42.978912 12944 layer_factory.hpp:77] Creating layer relu1
I0501 01:57:42.978921 12944 net.cpp:86] Creating Layer relu1
I0501 01:57:42.978926 12944 net.cpp:408] relu1 <- ip1
I0501 01:57:42.978932 12944 net.cpp:369] relu1 -> ip1 (in-place)
I0501 01:57:42.979133 12944 net.cpp:124] Setting up relu1
I0501 01:57:42.979145 12944 net.cpp:131] Top shape: 111 160 (17760)
I0501 01:57:42.979148 12944 net.cpp:139] Memory required for data: 10745244
I0501 01:57:42.979152 12944 layer_factory.hpp:77] Creating layer ip2
I0501 01:57:42.979162 12944 net.cpp:86] Creating Layer ip2
I0501 01:57:42.979166 12944 net.cpp:408] ip2 <- ip1
I0501 01:57:42.979173 12944 net.cpp:382] ip2 -> ip2
I0501 01:57:42.981117 12944 net.cpp:124] Setting up ip2
I0501 01:57:42.981132 12944 net.cpp:131] Top shape: 111 160 (17760)
I0501 01:57:42.981137 12944 net.cpp:139] Memory required for data: 10816284
I0501 01:57:42.981148 12944 layer_factory.hpp:77] Creating layer relu2
I0501 01:57:42.981156 12944 net.cpp:86] Creating Layer relu2
I0501 01:57:42.981161 12944 net.cpp:408] relu2 <- ip2
I0501 01:57:42.981168 12944 net.cpp:369] relu2 -> ip2 (in-place)
I0501 01:57:42.981376 12944 net.cpp:124] Setting up relu2
I0501 01:57:42.981387 12944 net.cpp:131] Top shape: 111 160 (17760)
I0501 01:57:42.981391 12944 net.cpp:139] Memory required for data: 10887324
I0501 01:57:42.981395 12944 layer_factory.hpp:77] Creating layer ip3
I0501 01:57:42.981405 12944 net.cpp:86] Creating Layer ip3
I0501 01:57:42.981410 12944 net.cpp:408] ip3 <- ip2
I0501 01:57:42.981416 12944 net.cpp:382] ip3 -> ip3
I0501 01:57:42.981647 12944 net.cpp:124] Setting up ip3
I0501 01:57:42.981655 12944 net.cpp:131] Top shape: 111 20 (2220)
I0501 01:57:42.981659 12944 net.cpp:139] Memory required for data: 10896204
I0501 01:57:42.981665 12944 layer_factory.hpp:77] Creating layer relu3
I0501 01:57:42.981673 12944 net.cpp:86] Creating Layer relu3
I0501 01:57:42.981675 12944 net.cpp:408] relu3 <- ip3
I0501 01:57:42.981683 12944 net.cpp:369] relu3 -> ip3 (in-place)
I0501 01:57:42.981873 12944 net.cpp:124] Setting up relu3
I0501 01:57:42.981883 12944 net.cpp:131] Top shape: 111 20 (2220)
I0501 01:57:42.981886 12944 net.cpp:139] Memory required for data: 10905084
I0501 01:57:42.981890 12944 layer_factory.hpp:77] Creating layer ip4
I0501 01:57:42.981914 12944 net.cpp:86] Creating Layer ip4
I0501 01:57:42.981921 12944 net.cpp:408] ip4 <- ip3
I0501 01:57:42.981927 12944 net.cpp:382] ip4 -> ip4
I0501 01:57:42.982053 12944 net.cpp:124] Setting up ip4
I0501 01:57:42.982062 12944 net.cpp:131] Top shape: 111 10 (1110)
I0501 01:57:42.982066 12944 net.cpp:139] Memory required for data: 10909524
I0501 01:57:42.982075 12944 layer_factory.hpp:77] Creating layer loss
I0501 01:57:42.982092 12944 net.cpp:86] Creating Layer loss
I0501 01:57:42.982096 12944 net.cpp:408] loss <- ip4
I0501 01:57:42.982100 12944 net.cpp:408] loss <- label
I0501 01:57:42.982107 12944 net.cpp:382] loss -> loss
I0501 01:57:42.982121 12944 layer_factory.hpp:77] Creating layer loss
…
I0501 01:57:42.983582 12944 solver.cpp:173] Creating test net (#0) specified by net file: ECE595/cifar/train_test/var_everything/cifar_train_test_306.prototxt
I0501 01:57:42.983614 12944 net.cpp:296] The NetState phase (1) differed from the phase (0) specified by a rule in layer cifar
I0501 01:57:42.983734 12944 net.cpp:53] Initializing net from parameters: 
name: "CIFAR"
state {
  phase: TEST
}
layer {
  name: "cifar"
  type: "Data"
  top: "data"
  top: "label"
  include {
    phase: TEST
  }
  transform_param {
    mean_file: "examples/cifar10/mean.binaryproto"
  }
  data_param {
    source: "examples/cifar10/cifar10_test_lmdb"
    batch_size: 1000
    backend: LMDB
  }
}
layer {
  name: "conv0"
  type: "Convolution"
  bottom: "data"
  top: "conv0"
  param {
    lr_mult: 1
  }
  param {
    lr_mult: 2
  }
  convolution_param {
    num_output: 8
    pad: 2
    kernel_size: 3
    stride: 1
    weight_filler {
      type: "gaussian"
      std: 0.01
    }
    bias_filler {
      type: "constant"
    }
  }
}
layer {
  name: "Sigmoid0"
  type: "Sigmoid"
  bottom: "conv0"
  top: "Sigmoid0"
}
layer {
  name: "pool0"
  type: "Pooling"
  bottom: "Sigmoid0"
  top: "pool0"
  pooling_param {
    pool: AVE
    kernel_size: 3
    stride: 2
  }
}
layer {
  name: "ip1"
  type: "InnerProduct"
  bottom: "pool0"
  top: "ip1"
  param {
    lr_mult: 1
  }
  param {
    lr_mult: 2
  }
  inner_product_param {
    num_output: 160
    weight_filler {
      type: "gaussian"
      std: 0.01
    }
    bias_filler {
      type: "constant"
    }
  }
}
layer {
  name: "relu1"
  type: "ReLU"
  bottom: "ip1"
  top: "ip1"
}
layer {
  name: "ip2"
  type: "InnerProduct"
  bottom: "ip1"
  top: "ip2"
  param {
    lr_mult: 1
  }
  param {
    lr_mult: 2
  }
  inner_product_param {
    num_output: 160
    weight_filler {
      type: "gaussian"
      std: 0.01
    }
    bias_filler {
      type: "constant"
    }
  }
}
layer {
  name: "relu2"
  type: "ReLU"
  bottom: "ip2"
  top: "ip2"
}
layer {
  name: "ip3"
  type: "InnerProduct"
  bottom: "ip2"
  top: "ip3"
  param {
    lr_mult: 1
  }
  param {
    lr_mult: 2
  }
  inner_product_param {
    num_output: 20
    weight_filler {
      type: "gaussian"
      std: 0.01
    }
    bias_filler {
      type: "constant"
    }
  }
}
layer {
  name: "relu3"
  type: "ReLU"
  bottom: "ip3"
  top: "ip3"
}
layer {
  name: "ip4"
  type: "InnerProduct"
  bottom: "ip3"
  top: "ip4"
  param {
    lr_mult: 1
  }
  param {
    lr_mult: 2
  }
  inner_product_param {
    num_output: 10
    weight_filler {
      type: "gaussian"
      std: 0.01
    }
    bias_filler {
      type: "constant"
    }
  }
}
layer {
  name: "accuracy"
  type: "Accuracy"
  bottom: "ip4"
  bottom: "label"
  top: "accuracy"
  include {
    phase: TEST
  }
}
layer {
  name: "loss"
  type: "SoftmaxWithLoss"
  bottom: "ip4"
  bottom: "label"
  top: "loss"
}
I0501 01:57:42.983835 12944 layer_factory.hpp:77] Creating layer cifar
I0501 01:57:42.983891 12944 db_lmdb.cpp:35] Opened lmdb examples/cifar10/cifar10_test_lmdb
I0501 01:57:42.983906 12944 net.cpp:86] Creating Layer cifar
I0501 01:57:42.983913 12944 net.cpp:382] cifar -> data
I0501 01:57:42.983923 12944 net.cpp:382] cifar -> label
I0501 01:57:42.983932 12944 data_transformer.cpp:25] Loading mean file from: examples/cifar10/mean.binaryproto
I0501 01:57:42.984113 12944 data_layer.cpp:45] output data size: 1000,3,32,32
I0501 01:57:43.010946 12944 net.cpp:124] Setting up cifar
I0501 01:57:43.010978 12944 net.cpp:131] Top shape: 1000 3 32 32 (3072000)
I0501 01:57:43.010985 12944 net.cpp:131] Top shape: 1000 (1000)
I0501 01:57:43.010989 12944 net.cpp:139] Memory required for data: 12292000
I0501 01:57:43.010996 12944 layer_factory.hpp:77] Creating layer label_cifar_1_split
I0501 01:57:43.011011 12944 net.cpp:86] Creating Layer label_cifar_1_split
I0501 01:57:43.011016 12944 net.cpp:408] label_cifar_1_split <- label
I0501 01:57:43.011025 12944 net.cpp:382] label_cifar_1_split -> label_cifar_1_split_0
I0501 01:57:43.011036 12944 net.cpp:382] label_cifar_1_split -> label_cifar_1_split_1
I0501 01:57:43.011164 12944 net.cpp:124] Setting up label_cifar_1_split
I0501 01:57:43.011174 12944 net.cpp:131] Top shape: 1000 (1000)
I0501 01:57:43.011179 12944 net.cpp:131] Top shape: 1000 (1000)
I0501 01:57:43.011183 12944 net.cpp:139] Memory required for data: 12300000
I0501 01:57:43.011186 12944 layer_factory.hpp:77] Creating layer conv0
I0501 01:57:43.011207 12944 net.cpp:86] Creating Layer conv0
I0501 01:57:43.011211 12944 net.cpp:408] conv0 <- data
I0501 01:57:43.011219 12944 net.cpp:382] conv0 -> conv0
I0501 01:57:43.013018 12944 net.cpp:124] Setting up conv0
I0501 01:57:43.013036 12944 net.cpp:131] Top shape: 1000 8 34 34 (9248000)
I0501 01:57:43.013041 12944 net.cpp:139] Memory required for data: 49292000
I0501 01:57:43.013052 12944 layer_factory.hpp:77] Creating layer Sigmoid0
I0501 01:57:43.013061 12944 net.cpp:86] Creating Layer Sigmoid0
I0501 01:57:43.013065 12944 net.cpp:408] Sigmoid0 <- conv0
I0501 01:57:43.013072 12944 net.cpp:382] Sigmoid0 -> Sigmoid0
I0501 01:57:43.014261 12944 net.cpp:124] Setting up Sigmoid0
I0501 01:57:43.014273 12944 net.cpp:131] Top shape: 1000 8 34 34 (9248000)
I0501 01:57:43.014277 12944 net.cpp:139] Memory required for data: 86284000
I0501 01:57:43.014281 12944 layer_factory.hpp:77] Creating layer pool0
I0501 01:57:43.014293 12944 net.cpp:86] Creating Layer pool0
I0501 01:57:43.014297 12944 net.cpp:408] pool0 <- Sigmoid0
I0501 01:57:43.014303 12944 net.cpp:382] pool0 -> pool0
I0501 01:57:43.014514 12944 net.cpp:124] Setting up pool0
I0501 01:57:43.014524 12944 net.cpp:131] Top shape: 1000 8 17 17 (2312000)
I0501 01:57:43.014528 12944 net.cpp:139] Memory required for data: 95532000
I0501 01:57:43.014533 12944 layer_factory.hpp:77] Creating layer ip1
I0501 01:57:43.014541 12944 net.cpp:86] Creating Layer ip1
I0501 01:57:43.014545 12944 net.cpp:408] ip1 <- pool0
I0501 01:57:43.014554 12944 net.cpp:382] ip1 -> ip1
I0501 01:57:43.027627 12944 net.cpp:124] Setting up ip1
I0501 01:57:43.027643 12944 net.cpp:131] Top shape: 1000 160 (160000)
I0501 01:57:43.027649 12944 net.cpp:139] Memory required for data: 96172000
I0501 01:57:43.027675 12944 layer_factory.hpp:77] Creating layer relu1
I0501 01:57:43.027684 12944 net.cpp:86] Creating Layer relu1
I0501 01:57:43.027688 12944 net.cpp:408] relu1 <- ip1
I0501 01:57:43.027694 12944 net.cpp:369] relu1 -> ip1 (in-place)
I0501 01:57:43.027904 12944 net.cpp:124] Setting up relu1
I0501 01:57:43.027915 12944 net.cpp:131] Top shape: 1000 160 (160000)
I0501 01:57:43.027920 12944 net.cpp:139] Memory required for data: 96812000
I0501 01:57:43.027923 12944 layer_factory.hpp:77] Creating layer ip2
I0501 01:57:43.027931 12944 net.cpp:86] Creating Layer ip2
I0501 01:57:43.027935 12944 net.cpp:408] ip2 <- ip1
I0501 01:57:43.027942 12944 net.cpp:382] ip2 -> ip2
I0501 01:57:43.028885 12944 net.cpp:124] Setting up ip2
I0501 01:57:43.028895 12944 net.cpp:131] Top shape: 1000 160 (160000)
I0501 01:57:43.028899 12944 net.cpp:139] Memory required for data: 97452000
I0501 01:57:43.028908 12944 layer_factory.hpp:77] Creating layer relu2
I0501 01:57:43.028915 12944 net.cpp:86] Creating Layer relu2
I0501 01:57:43.028919 12944 net.cpp:408] relu2 <- ip2
I0501 01:57:43.028925 12944 net.cpp:369] relu2 -> ip2 (in-place)
I0501 01:57:43.029791 12944 net.cpp:124] Setting up relu2
I0501 01:57:43.029806 12944 net.cpp:131] Top shape: 1000 160 (160000)
I0501 01:57:43.029811 12944 net.cpp:139] Memory required for data: 98092000
I0501 01:57:43.029816 12944 layer_factory.hpp:77] Creating layer ip3
I0501 01:57:43.029824 12944 net.cpp:86] Creating Layer ip3
I0501 01:57:43.029829 12944 net.cpp:408] ip3 <- ip2
I0501 01:57:43.029836 12944 net.cpp:382] ip3 -> ip3
I0501 01:57:43.030071 12944 net.cpp:124] Setting up ip3
I0501 01:57:43.030079 12944 net.cpp:131] Top shape: 1000 20 (20000)
I0501 01:57:43.030083 12944 net.cpp:139] Memory required for data: 98172000
I0501 01:57:43.030089 12944 layer_factory.hpp:77] Creating layer relu3
I0501 01:57:43.030097 12944 net.cpp:86] Creating Layer relu3
I0501 01:57:43.030100 12944 net.cpp:408] relu3 <- ip3
I0501 01:57:43.030107 12944 net.cpp:369] relu3 -> ip3 (in-place)
I0501 01:57:43.030288 12944 net.cpp:124] Setting up relu3
I0501 01:57:43.030297 12944 net.cpp:131] Top shape: 1000 20 (20000)
I0501 01:57:43.030302 12944 net.cpp:139] Memory required for data: 98252000
I0501 01:57:43.030305 12944 layer_factory.hpp:77] Creating layer ip4
I0501 01:57:43.030313 12944 net.cpp:86] Creating Layer ip4
I0501 01:57:43.030318 12944 net.cpp:408] ip4 <- ip3
I0501 01:57:43.030323 12944 net.cpp:382] ip4 -> ip4
I0501 01:57:43.030454 12944 net.cpp:124] Setting up ip4
I0501 01:57:43.030463 12944 net.cpp:131] Top shape: 1000 10 (10000)
I0501 01:57:43.030467 12944 net.cpp:139] Memory required for data: 98292000
I0501 01:57:43.030477 12944 layer_factory.hpp:77] Creating layer ip4_ip4_0_split
I0501 01:57:43.030483 12944 net.cpp:86] Creating Layer ip4_ip4_0_split
I0501 01:57:43.030488 12944 net.cpp:408] ip4_ip4_0_split <- ip4
I0501 01:57:43.030493 12944 net.cpp:382] ip4_ip4_0_split -> ip4_ip4_0_split_0
I0501 01:57:43.030498 12944 net.cpp:382] ip4_ip4_0_split -> ip4_ip4_0_split_1
I0501 01:57:43.030536 12944 net.cpp:124] Setting up ip4_ip4_0_split
I0501 01:57:43.030544 12944 net.cpp:131] Top shape: 1000 10 (10000)
I0501 01:57:43.030549 12944 net.cpp:131] Top shape: 1000 10 (10000)
I0501 01:57:43.030553 12944 net.cpp:139] Memory required for data: 98372000
I0501 01:57:43.030557 12944 layer_factory.hpp:77] Creating layer accuracy
I0501 01:57:43.030565 12944 net.cpp:86] Creating Layer accuracy
I0501 01:57:43.030567 12944 net.cpp:408] accuracy <- ip4_ip4_0_split_0
I0501 01:57:43.030572 12944 net.cpp:408] accuracy <- label_cifar_1_split_0
I0501 01:57:43.030578 12944 net.cpp:382] accuracy -> accuracy
…
