…
I0430 20:40:44.147665 29174 net.cpp:296] The NetState phase (0) differed from the phase (1) specified by a rule in layer cifar
I0430 20:40:44.147686 29174 net.cpp:296] The NetState phase (0) differed from the phase (1) specified by a rule in layer accuracy
I0430 20:40:44.147771 29174 net.cpp:53] Initializing net from parameters: 
name: "CIFAR"
state {
  phase: TRAIN
  level: 0
  stage: ""
}
layer {
  name: "cifar"
  type: "Data"
  top: "data"
  top: "label"
  include {
    phase: TRAIN
  }
  transform_param {
    mean_file: "examples/cifar10/mean.binaryproto"
  }
  data_param {
    source: "examples/cifar10/cifar10_train_lmdb"
    batch_size: 111
    backend: LMDB
  }
}
layer {
  name: "ip1"
  type: "InnerProduct"
  bottom: "data"
  top: "ip1"
  param {
    lr_mult: 1
  }
  param {
    lr_mult: 2
  }
  inner_product_param {
    num_output: 160
    weight_filler {
      type: "gaussian"
      std: 0.01
    }
    bias_filler {
      type: "constant"
    }
  }
}
layer {
  name: "relu1"
  type: "ReLU"
  bottom: "ip1"
  top: "ip1"
}
layer {
  name: "ip2"
  type: "InnerProduct"
  bottom: "ip1"
  top: "ip2"
  param {
    lr_mult: 1
  }
  param {
    lr_mult: 2
  }
  inner_product_param {
    num_output: 20
    weight_filler {
      type: "gaussian"
      std: 0.01
    }
    bias_filler {
      type: "constant"
    }
  }
}
layer {
  name: "relu2"
  type: "ReLU"
  bottom: "ip2"
  top: "ip2"
}
layer {
  name: "ip3"
  type: "InnerProduct"
  bottom: "ip2"
  top: "ip3"
  param {
    lr_mult: 1
  }
  param {
    lr_mult: 2
  }
  inner_product_param {
    num_output: 40
    weight_filler {
      type: "gaussian"
      std: 0.01
    }
    bias_filler {
      type: "constant"
    }
  }
}
layer {
  name: "relu3"
  type: "ReLU"
  bottom: "ip3"
  top: "ip3"
}
layer {
  name: "ip4"
  type: "InnerProduct"
  bottom: "ip3"
  top: "ip4"
  param {
    lr_mult: 1
  }
  param {
    lr_mult: 2
  }
  inner_product_param {
    num_output: 10
    weight_filler {
      type: "gaussian"
      std: 0.01
    }
    bias_filler {
      type: "constant"
    }
  }
}
layer {
  name: "loss"
  type: "SoftmaxWithLoss"
  bottom: "ip4"
  bottom: "label"
  top: "loss"
}
I0430 20:40:44.147845 29174 layer_factory.hpp:77] Creating layer cifar
I0430 20:40:44.147944 29174 db_lmdb.cpp:35] Opened lmdb examples/cifar10/cifar10_train_lmdb
I0430 20:40:44.147971 29174 net.cpp:86] Creating Layer cifar
I0430 20:40:44.147980 29174 net.cpp:382] cifar -> data
I0430 20:40:44.148003 29174 net.cpp:382] cifar -> label
I0430 20:40:44.148020 29174 data_transformer.cpp:25] Loading mean file from: examples/cifar10/mean.binaryproto
I0430 20:40:44.150135 29174 data_layer.cpp:45] output data size: 111,3,32,32
I0430 20:40:44.158020 29174 net.cpp:124] Setting up cifar
I0430 20:40:44.158040 29174 net.cpp:131] Top shape: 111 3 32 32 (340992)
I0430 20:40:44.158046 29174 net.cpp:131] Top shape: 111 (111)
I0430 20:40:44.158049 29174 net.cpp:139] Memory required for data: 1364412
I0430 20:40:44.158056 29174 layer_factory.hpp:77] Creating layer ip1
I0430 20:40:44.158082 29174 net.cpp:86] Creating Layer ip1
I0430 20:40:44.158087 29174 net.cpp:408] ip1 <- data
I0430 20:40:44.158098 29174 net.cpp:382] ip1 -> ip1
I0430 20:40:44.175369 29174 net.cpp:124] Setting up ip1
I0430 20:40:44.175385 29174 net.cpp:131] Top shape: 111 160 (17760)
I0430 20:40:44.175390 29174 net.cpp:139] Memory required for data: 1435452
I0430 20:40:44.175403 29174 layer_factory.hpp:77] Creating layer relu1
I0430 20:40:44.175431 29174 net.cpp:86] Creating Layer relu1
I0430 20:40:44.175436 29174 net.cpp:408] relu1 <- ip1
I0430 20:40:44.175441 29174 net.cpp:369] relu1 -> ip1 (in-place)
I0430 20:40:44.433791 29174 net.cpp:124] Setting up relu1
I0430 20:40:44.433835 29174 net.cpp:131] Top shape: 111 160 (17760)
I0430 20:40:44.433853 29174 net.cpp:139] Memory required for data: 1506492
I0430 20:40:44.433858 29174 layer_factory.hpp:77] Creating layer ip2
I0430 20:40:44.433871 29174 net.cpp:86] Creating Layer ip2
I0430 20:40:44.433876 29174 net.cpp:408] ip2 <- ip1
I0430 20:40:44.433883 29174 net.cpp:382] ip2 -> ip2
I0430 20:40:44.434070 29174 net.cpp:124] Setting up ip2
I0430 20:40:44.434078 29174 net.cpp:131] Top shape: 111 20 (2220)
I0430 20:40:44.434082 29174 net.cpp:139] Memory required for data: 1515372
I0430 20:40:44.434090 29174 layer_factory.hpp:77] Creating layer relu2
I0430 20:40:44.434098 29174 net.cpp:86] Creating Layer relu2
I0430 20:40:44.434100 29174 net.cpp:408] relu2 <- ip2
I0430 20:40:44.434103 29174 net.cpp:369] relu2 -> ip2 (in-place)
I0430 20:40:44.434919 29174 net.cpp:124] Setting up relu2
I0430 20:40:44.434931 29174 net.cpp:131] Top shape: 111 20 (2220)
I0430 20:40:44.434950 29174 net.cpp:139] Memory required for data: 1524252
I0430 20:40:44.434953 29174 layer_factory.hpp:77] Creating layer ip3
I0430 20:40:44.434960 29174 net.cpp:86] Creating Layer ip3
I0430 20:40:44.434963 29174 net.cpp:408] ip3 <- ip2
I0430 20:40:44.434983 29174 net.cpp:382] ip3 -> ip3
I0430 20:40:44.435909 29174 net.cpp:124] Setting up ip3
I0430 20:40:44.435920 29174 net.cpp:131] Top shape: 111 40 (4440)
I0430 20:40:44.435940 29174 net.cpp:139] Memory required for data: 1542012
I0430 20:40:44.435947 29174 layer_factory.hpp:77] Creating layer relu3
I0430 20:40:44.435953 29174 net.cpp:86] Creating Layer relu3
I0430 20:40:44.435956 29174 net.cpp:408] relu3 <- ip3
I0430 20:40:44.435961 29174 net.cpp:369] relu3 -> ip3 (in-place)
I0430 20:40:44.436138 29174 net.cpp:124] Setting up relu3
I0430 20:40:44.436146 29174 net.cpp:131] Top shape: 111 40 (4440)
I0430 20:40:44.436149 29174 net.cpp:139] Memory required for data: 1559772
I0430 20:40:44.436152 29174 layer_factory.hpp:77] Creating layer ip4
I0430 20:40:44.436158 29174 net.cpp:86] Creating Layer ip4
I0430 20:40:44.436161 29174 net.cpp:408] ip4 <- ip3
I0430 20:40:44.436166 29174 net.cpp:382] ip4 -> ip4
I0430 20:40:44.436261 29174 net.cpp:124] Setting up ip4
I0430 20:40:44.436267 29174 net.cpp:131] Top shape: 111 10 (1110)
I0430 20:40:44.436270 29174 net.cpp:139] Memory required for data: 1564212
I0430 20:40:44.436275 29174 layer_factory.hpp:77] Creating layer loss
I0430 20:40:44.436281 29174 net.cpp:86] Creating Layer loss
I0430 20:40:44.436285 29174 net.cpp:408] loss <- ip4
I0430 20:40:44.436287 29174 net.cpp:408] loss <- label
I0430 20:40:44.436292 29174 net.cpp:382] loss -> loss
I0430 20:40:44.436311 29174 layer_factory.hpp:77] Creating layer loss
…
I0430 20:40:44.436870 29174 solver.cpp:173] Creating test net (#0) specified by net file: ECE595/cifar/train_test/var_everything/cifar_train_test_137.prototxt
I0430 20:40:44.436910 29174 net.cpp:296] The NetState phase (1) differed from the phase (0) specified by a rule in layer cifar
I0430 20:40:44.436987 29174 net.cpp:53] Initializing net from parameters: 
name: "CIFAR"
state {
  phase: TEST
}
layer {
  name: "cifar"
  type: "Data"
  top: "data"
  top: "label"
  include {
    phase: TEST
  }
  transform_param {
    mean_file: "examples/cifar10/mean.binaryproto"
  }
  data_param {
    source: "examples/cifar10/cifar10_test_lmdb"
    batch_size: 1000
    backend: LMDB
  }
}
layer {
  name: "ip1"
  type: "InnerProduct"
  bottom: "data"
  top: "ip1"
  param {
    lr_mult: 1
  }
  param {
    lr_mult: 2
  }
  inner_product_param {
    num_output: 160
    weight_filler {
      type: "gaussian"
      std: 0.01
    }
    bias_filler {
      type: "constant"
    }
  }
}
layer {
  name: "relu1"
  type: "ReLU"
  bottom: "ip1"
  top: "ip1"
}
layer {
  name: "ip2"
  type: "InnerProduct"
  bottom: "ip1"
  top: "ip2"
  param {
    lr_mult: 1
  }
  param {
    lr_mult: 2
  }
  inner_product_param {
    num_output: 20
    weight_filler {
      type: "gaussian"
      std: 0.01
    }
    bias_filler {
      type: "constant"
    }
  }
}
layer {
  name: "relu2"
  type: "ReLU"
  bottom: "ip2"
  top: "ip2"
}
layer {
  name: "ip3"
  type: "InnerProduct"
  bottom: "ip2"
  top: "ip3"
  param {
    lr_mult: 1
  }
  param {
    lr_mult: 2
  }
  inner_product_param {
    num_output: 40
    weight_filler {
      type: "gaussian"
      std: 0.01
    }
    bias_filler {
      type: "constant"
    }
  }
}
layer {
  name: "relu3"
  type: "ReLU"
  bottom: "ip3"
  top: "ip3"
}
layer {
  name: "ip4"
  type: "InnerProduct"
  bottom: "ip3"
  top: "ip4"
  param {
    lr_mult: 1
  }
  param {
    lr_mult: 2
  }
  inner_product_param {
    num_output: 10
    weight_filler {
      type: "gaussian"
      std: 0.01
    }
    bias_filler {
      type: "constant"
    }
  }
}
layer {
  name: "accuracy"
  type: "Accuracy"
  bottom: "ip4"
  bottom: "label"
  top: "accuracy"
  include {
    phase: TEST
  }
}
layer {
  name: "loss"
  type: "SoftmaxWithLoss"
  bottom: "ip4"
  bottom: "label"
  top: "loss"
}
I0430 20:40:44.437047 29174 layer_factory.hpp:77] Creating layer cifar
I0430 20:40:44.437109 29174 db_lmdb.cpp:35] Opened lmdb examples/cifar10/cifar10_test_lmdb
I0430 20:40:44.437122 29174 net.cpp:86] Creating Layer cifar
I0430 20:40:44.437141 29174 net.cpp:382] cifar -> data
I0430 20:40:44.437163 29174 net.cpp:382] cifar -> label
I0430 20:40:44.437170 29174 data_transformer.cpp:25] Loading mean file from: examples/cifar10/mean.binaryproto
I0430 20:40:44.437307 29174 data_layer.cpp:45] output data size: 1000,3,32,32
I0430 20:40:44.458503 29174 net.cpp:124] Setting up cifar
I0430 20:40:44.458544 29174 net.cpp:131] Top shape: 1000 3 32 32 (3072000)
I0430 20:40:44.458549 29174 net.cpp:131] Top shape: 1000 (1000)
I0430 20:40:44.458552 29174 net.cpp:139] Memory required for data: 12292000
I0430 20:40:44.458560 29174 layer_factory.hpp:77] Creating layer label_cifar_1_split
I0430 20:40:44.458585 29174 net.cpp:86] Creating Layer label_cifar_1_split
I0430 20:40:44.458605 29174 net.cpp:408] label_cifar_1_split <- label
I0430 20:40:44.458611 29174 net.cpp:382] label_cifar_1_split -> label_cifar_1_split_0
I0430 20:40:44.458618 29174 net.cpp:382] label_cifar_1_split -> label_cifar_1_split_1
I0430 20:40:44.458700 29174 net.cpp:124] Setting up label_cifar_1_split
I0430 20:40:44.458708 29174 net.cpp:131] Top shape: 1000 (1000)
I0430 20:40:44.458711 29174 net.cpp:131] Top shape: 1000 (1000)
I0430 20:40:44.458714 29174 net.cpp:139] Memory required for data: 12300000
I0430 20:40:44.458717 29174 layer_factory.hpp:77] Creating layer ip1
I0430 20:40:44.458725 29174 net.cpp:86] Creating Layer ip1
I0430 20:40:44.458729 29174 net.cpp:408] ip1 <- data
I0430 20:40:44.458734 29174 net.cpp:382] ip1 -> ip1
I0430 20:40:44.472321 29174 net.cpp:124] Setting up ip1
I0430 20:40:44.472334 29174 net.cpp:131] Top shape: 1000 160 (160000)
I0430 20:40:44.472353 29174 net.cpp:139] Memory required for data: 12940000
I0430 20:40:44.472378 29174 layer_factory.hpp:77] Creating layer relu1
I0430 20:40:44.472385 29174 net.cpp:86] Creating Layer relu1
I0430 20:40:44.472389 29174 net.cpp:408] relu1 <- ip1
I0430 20:40:44.472409 29174 net.cpp:369] relu1 -> ip1 (in-place)
I0430 20:40:44.473251 29174 net.cpp:124] Setting up relu1
I0430 20:40:44.473264 29174 net.cpp:131] Top shape: 1000 160 (160000)
I0430 20:40:44.473284 29174 net.cpp:139] Memory required for data: 13580000
I0430 20:40:44.473286 29174 layer_factory.hpp:77] Creating layer ip2
I0430 20:40:44.473294 29174 net.cpp:86] Creating Layer ip2
I0430 20:40:44.473297 29174 net.cpp:408] ip2 <- ip1
I0430 20:40:44.473302 29174 net.cpp:382] ip2 -> ip2
I0430 20:40:44.473500 29174 net.cpp:124] Setting up ip2
I0430 20:40:44.473508 29174 net.cpp:131] Top shape: 1000 20 (20000)
I0430 20:40:44.473512 29174 net.cpp:139] Memory required for data: 13660000
I0430 20:40:44.473520 29174 layer_factory.hpp:77] Creating layer relu2
I0430 20:40:44.473526 29174 net.cpp:86] Creating Layer relu2
I0430 20:40:44.473528 29174 net.cpp:408] relu2 <- ip2
I0430 20:40:44.473532 29174 net.cpp:369] relu2 -> ip2 (in-place)
I0430 20:40:44.473675 29174 net.cpp:124] Setting up relu2
I0430 20:40:44.473682 29174 net.cpp:131] Top shape: 1000 20 (20000)
I0430 20:40:44.473686 29174 net.cpp:139] Memory required for data: 13740000
I0430 20:40:44.473690 29174 layer_factory.hpp:77] Creating layer ip3
I0430 20:40:44.473695 29174 net.cpp:86] Creating Layer ip3
I0430 20:40:44.473697 29174 net.cpp:408] ip3 <- ip2
I0430 20:40:44.473702 29174 net.cpp:382] ip3 -> ip3
I0430 20:40:44.473839 29174 net.cpp:124] Setting up ip3
I0430 20:40:44.473845 29174 net.cpp:131] Top shape: 1000 40 (40000)
I0430 20:40:44.473848 29174 net.cpp:139] Memory required for data: 13900000
I0430 20:40:44.473856 29174 layer_factory.hpp:77] Creating layer relu3
I0430 20:40:44.473861 29174 net.cpp:86] Creating Layer relu3
I0430 20:40:44.473865 29174 net.cpp:408] relu3 <- ip3
I0430 20:40:44.473868 29174 net.cpp:369] relu3 -> ip3 (in-place)
I0430 20:40:44.474032 29174 net.cpp:124] Setting up relu3
I0430 20:40:44.474041 29174 net.cpp:131] Top shape: 1000 40 (40000)
I0430 20:40:44.474045 29174 net.cpp:139] Memory required for data: 14060000
I0430 20:40:44.474047 29174 layer_factory.hpp:77] Creating layer ip4
I0430 20:40:44.474056 29174 net.cpp:86] Creating Layer ip4
I0430 20:40:44.474058 29174 net.cpp:408] ip4 <- ip3
I0430 20:40:44.474064 29174 net.cpp:382] ip4 -> ip4
I0430 20:40:44.474189 29174 net.cpp:124] Setting up ip4
I0430 20:40:44.474195 29174 net.cpp:131] Top shape: 1000 10 (10000)
I0430 20:40:44.474198 29174 net.cpp:139] Memory required for data: 14100000
I0430 20:40:44.474203 29174 layer_factory.hpp:77] Creating layer ip4_ip4_0_split
I0430 20:40:44.474208 29174 net.cpp:86] Creating Layer ip4_ip4_0_split
I0430 20:40:44.474211 29174 net.cpp:408] ip4_ip4_0_split <- ip4
I0430 20:40:44.474215 29174 net.cpp:382] ip4_ip4_0_split -> ip4_ip4_0_split_0
I0430 20:40:44.474222 29174 net.cpp:382] ip4_ip4_0_split -> ip4_ip4_0_split_1
I0430 20:40:44.474267 29174 net.cpp:124] Setting up ip4_ip4_0_split
I0430 20:40:44.474272 29174 net.cpp:131] Top shape: 1000 10 (10000)
I0430 20:40:44.474277 29174 net.cpp:131] Top shape: 1000 10 (10000)
I0430 20:40:44.474278 29174 net.cpp:139] Memory required for data: 14180000
I0430 20:40:44.474282 29174 layer_factory.hpp:77] Creating layer accuracy
I0430 20:40:44.474292 29174 net.cpp:86] Creating Layer accuracy
I0430 20:40:44.474294 29174 net.cpp:408] accuracy <- ip4_ip4_0_split_0
I0430 20:40:44.474298 29174 net.cpp:408] accuracy <- label_cifar_1_split_0
I0430 20:40:44.474303 29174 net.cpp:382] accuracy -> accuracy
…
