…
I0430 19:06:39.048415 25158 net.cpp:296] The NetState phase (0) differed from the phase (1) specified by a rule in layer cifar
I0430 19:06:39.048431 25158 net.cpp:296] The NetState phase (0) differed from the phase (1) specified by a rule in layer accuracy
I0430 19:06:39.048514 25158 net.cpp:53] Initializing net from parameters: 
name: "CIFAR"
state {
  phase: TRAIN
  level: 0
  stage: ""
}
layer {
  name: "cifar"
  type: "Data"
  top: "data"
  top: "label"
  include {
    phase: TRAIN
  }
  transform_param {
    mean_file: "examples/cifar10/mean.binaryproto"
  }
  data_param {
    source: "examples/cifar10/cifar10_train_lmdb"
    batch_size: 111
    backend: LMDB
  }
}
layer {
  name: "ip1"
  type: "InnerProduct"
  bottom: "data"
  top: "ip1"
  param {
    lr_mult: 1
  }
  param {
    lr_mult: 2
  }
  inner_product_param {
    num_output: 40
    weight_filler {
      type: "gaussian"
      std: 0.01
    }
    bias_filler {
      type: "constant"
    }
  }
}
layer {
  name: "relu1"
  type: "ReLU"
  bottom: "ip1"
  top: "ip1"
}
layer {
  name: "ip2"
  type: "InnerProduct"
  bottom: "ip1"
  top: "ip2"
  param {
    lr_mult: 1
  }
  param {
    lr_mult: 2
  }
  inner_product_param {
    num_output: 20
    weight_filler {
      type: "gaussian"
      std: 0.01
    }
    bias_filler {
      type: "constant"
    }
  }
}
layer {
  name: "relu2"
  type: "ReLU"
  bottom: "ip2"
  top: "ip2"
}
layer {
  name: "ip3"
  type: "InnerProduct"
  bottom: "ip2"
  top: "ip3"
  param {
    lr_mult: 1
  }
  param {
    lr_mult: 2
  }
  inner_product_param {
    num_output: 40
    weight_filler {
      type: "gaussian"
      std: 0.01
    }
    bias_filler {
      type: "constant"
    }
  }
}
layer {
  name: "relu3"
  type: "ReLU"
  bottom: "ip3"
  top: "ip3"
}
layer {
  name: "ip4"
  type: "InnerProduct"
  bottom: "ip3"
  top: "ip4"
  param {
    lr_mult: 1
  }
  param {
    lr_mult: 2
  }
  inner_product_param {
    num_output: 10
    weight_filler {
      type: "gaussian"
      std: 0.01
    }
    bias_filler {
      type: "constant"
    }
  }
}
layer {
  name: "loss"
  type: "SoftmaxWithLoss"
  bottom: "ip4"
  bottom: "label"
  top: "loss"
}
I0430 19:06:39.048586 25158 layer_factory.hpp:77] Creating layer cifar
I0430 19:06:39.048688 25158 db_lmdb.cpp:35] Opened lmdb examples/cifar10/cifar10_train_lmdb
I0430 19:06:39.048714 25158 net.cpp:86] Creating Layer cifar
I0430 19:06:39.048723 25158 net.cpp:382] cifar -> data
I0430 19:06:39.048746 25158 net.cpp:382] cifar -> label
I0430 19:06:39.048758 25158 data_transformer.cpp:25] Loading mean file from: examples/cifar10/mean.binaryproto
I0430 19:06:39.050873 25158 data_layer.cpp:45] output data size: 111,3,32,32
I0430 19:06:39.058794 25158 net.cpp:124] Setting up cifar
I0430 19:06:39.058814 25158 net.cpp:131] Top shape: 111 3 32 32 (340992)
I0430 19:06:39.058820 25158 net.cpp:131] Top shape: 111 (111)
I0430 19:06:39.058823 25158 net.cpp:139] Memory required for data: 1364412
I0430 19:06:39.058831 25158 layer_factory.hpp:77] Creating layer ip1
I0430 19:06:39.058843 25158 net.cpp:86] Creating Layer ip1
I0430 19:06:39.058848 25158 net.cpp:408] ip1 <- data
I0430 19:06:39.058861 25158 net.cpp:382] ip1 -> ip1
I0430 19:06:39.063143 25158 net.cpp:124] Setting up ip1
I0430 19:06:39.063155 25158 net.cpp:131] Top shape: 111 40 (4440)
I0430 19:06:39.063159 25158 net.cpp:139] Memory required for data: 1382172
I0430 19:06:39.063174 25158 layer_factory.hpp:77] Creating layer relu1
I0430 19:06:39.063181 25158 net.cpp:86] Creating Layer relu1
I0430 19:06:39.063201 25158 net.cpp:408] relu1 <- ip1
I0430 19:06:39.063208 25158 net.cpp:369] relu1 -> ip1 (in-place)
I0430 19:06:39.344100 25158 net.cpp:124] Setting up relu1
I0430 19:06:39.344130 25158 net.cpp:131] Top shape: 111 40 (4440)
I0430 19:06:39.344133 25158 net.cpp:139] Memory required for data: 1399932
I0430 19:06:39.344139 25158 layer_factory.hpp:77] Creating layer ip2
I0430 19:06:39.344151 25158 net.cpp:86] Creating Layer ip2
I0430 19:06:39.344157 25158 net.cpp:408] ip2 <- ip1
I0430 19:06:39.344164 25158 net.cpp:382] ip2 -> ip2
I0430 19:06:39.345146 25158 net.cpp:124] Setting up ip2
I0430 19:06:39.345160 25158 net.cpp:131] Top shape: 111 20 (2220)
I0430 19:06:39.345163 25158 net.cpp:139] Memory required for data: 1408812
I0430 19:06:39.345173 25158 layer_factory.hpp:77] Creating layer relu2
I0430 19:06:39.345181 25158 net.cpp:86] Creating Layer relu2
I0430 19:06:39.345185 25158 net.cpp:408] relu2 <- ip2
I0430 19:06:39.345188 25158 net.cpp:369] relu2 -> ip2 (in-place)
I0430 19:06:39.345927 25158 net.cpp:124] Setting up relu2
I0430 19:06:39.345938 25158 net.cpp:131] Top shape: 111 20 (2220)
I0430 19:06:39.345942 25158 net.cpp:139] Memory required for data: 1417692
I0430 19:06:39.345945 25158 layer_factory.hpp:77] Creating layer ip3
I0430 19:06:39.345952 25158 net.cpp:86] Creating Layer ip3
I0430 19:06:39.345957 25158 net.cpp:408] ip3 <- ip2
I0430 19:06:39.345962 25158 net.cpp:382] ip3 -> ip3
I0430 19:06:39.346110 25158 net.cpp:124] Setting up ip3
I0430 19:06:39.346118 25158 net.cpp:131] Top shape: 111 40 (4440)
I0430 19:06:39.346122 25158 net.cpp:139] Memory required for data: 1435452
I0430 19:06:39.346129 25158 layer_factory.hpp:77] Creating layer relu3
I0430 19:06:39.346133 25158 net.cpp:86] Creating Layer relu3
I0430 19:06:39.346138 25158 net.cpp:408] relu3 <- ip3
I0430 19:06:39.346141 25158 net.cpp:369] relu3 -> ip3 (in-place)
I0430 19:06:39.346282 25158 net.cpp:124] Setting up relu3
I0430 19:06:39.346290 25158 net.cpp:131] Top shape: 111 40 (4440)
I0430 19:06:39.346294 25158 net.cpp:139] Memory required for data: 1453212
I0430 19:06:39.346297 25158 layer_factory.hpp:77] Creating layer ip4
I0430 19:06:39.346302 25158 net.cpp:86] Creating Layer ip4
I0430 19:06:39.346307 25158 net.cpp:408] ip4 <- ip3
I0430 19:06:39.346310 25158 net.cpp:382] ip4 -> ip4
I0430 19:06:39.346408 25158 net.cpp:124] Setting up ip4
I0430 19:06:39.346415 25158 net.cpp:131] Top shape: 111 10 (1110)
I0430 19:06:39.346418 25158 net.cpp:139] Memory required for data: 1457652
I0430 19:06:39.346423 25158 layer_factory.hpp:77] Creating layer loss
I0430 19:06:39.346429 25158 net.cpp:86] Creating Layer loss
I0430 19:06:39.346432 25158 net.cpp:408] loss <- ip4
I0430 19:06:39.346436 25158 net.cpp:408] loss <- label
I0430 19:06:39.346441 25158 net.cpp:382] loss -> loss
I0430 19:06:39.346459 25158 layer_factory.hpp:77] Creating layer loss
…
I0430 19:06:39.346990 25158 solver.cpp:173] Creating test net (#0) specified by net file: ECE595/cifar/train_test/var_everything/cifar_train_test_87.prototxt
I0430 19:06:39.347028 25158 net.cpp:296] The NetState phase (1) differed from the phase (0) specified by a rule in layer cifar
I0430 19:06:39.347102 25158 net.cpp:53] Initializing net from parameters: 
name: "CIFAR"
state {
  phase: TEST
}
layer {
  name: "cifar"
  type: "Data"
  top: "data"
  top: "label"
  include {
    phase: TEST
  }
  transform_param {
    mean_file: "examples/cifar10/mean.binaryproto"
  }
  data_param {
    source: "examples/cifar10/cifar10_test_lmdb"
    batch_size: 1000
    backend: LMDB
  }
}
layer {
  name: "ip1"
  type: "InnerProduct"
  bottom: "data"
  top: "ip1"
  param {
    lr_mult: 1
  }
  param {
    lr_mult: 2
  }
  inner_product_param {
    num_output: 40
    weight_filler {
      type: "gaussian"
      std: 0.01
    }
    bias_filler {
      type: "constant"
    }
  }
}
layer {
  name: "relu1"
  type: "ReLU"
  bottom: "ip1"
  top: "ip1"
}
layer {
  name: "ip2"
  type: "InnerProduct"
  bottom: "ip1"
  top: "ip2"
  param {
    lr_mult: 1
  }
  param {
    lr_mult: 2
  }
  inner_product_param {
    num_output: 20
    weight_filler {
      type: "gaussian"
      std: 0.01
    }
    bias_filler {
      type: "constant"
    }
  }
}
layer {
  name: "relu2"
  type: "ReLU"
  bottom: "ip2"
  top: "ip2"
}
layer {
  name: "ip3"
  type: "InnerProduct"
  bottom: "ip2"
  top: "ip3"
  param {
    lr_mult: 1
  }
  param {
    lr_mult: 2
  }
  inner_product_param {
    num_output: 40
    weight_filler {
      type: "gaussian"
      std: 0.01
    }
    bias_filler {
      type: "constant"
    }
  }
}
layer {
  name: "relu3"
  type: "ReLU"
  bottom: "ip3"
  top: "ip3"
}
layer {
  name: "ip4"
  type: "InnerProduct"
  bottom: "ip3"
  top: "ip4"
  param {
    lr_mult: 1
  }
  param {
    lr_mult: 2
  }
  inner_product_param {
    num_output: 10
    weight_filler {
      type: "gaussian"
      std: 0.01
    }
    bias_filler {
      type: "constant"
    }
  }
}
layer {
  name: "accuracy"
  type: "Accuracy"
  bottom: "ip4"
  bottom: "label"
  top: "accuracy"
  include {
    phase: TEST
  }
}
layer {
  name: "loss"
  type: "SoftmaxWithLoss"
  bottom: "ip4"
  bottom: "label"
  top: "loss"
}
I0430 19:06:39.347159 25158 layer_factory.hpp:77] Creating layer cifar
I0430 19:06:39.347204 25158 db_lmdb.cpp:35] Opened lmdb examples/cifar10/cifar10_test_lmdb
I0430 19:06:39.347216 25158 net.cpp:86] Creating Layer cifar
I0430 19:06:39.347220 25158 net.cpp:382] cifar -> data
I0430 19:06:39.347229 25158 net.cpp:382] cifar -> label
I0430 19:06:39.347234 25158 data_transformer.cpp:25] Loading mean file from: examples/cifar10/mean.binaryproto
I0430 19:06:39.347369 25158 data_layer.cpp:45] output data size: 1000,3,32,32
I0430 19:06:39.368839 25158 net.cpp:124] Setting up cifar
I0430 19:06:39.368865 25158 net.cpp:131] Top shape: 1000 3 32 32 (3072000)
I0430 19:06:39.368885 25158 net.cpp:131] Top shape: 1000 (1000)
I0430 19:06:39.368890 25158 net.cpp:139] Memory required for data: 12292000
I0430 19:06:39.368896 25158 layer_factory.hpp:77] Creating layer label_cifar_1_split
I0430 19:06:39.368928 25158 net.cpp:86] Creating Layer label_cifar_1_split
I0430 19:06:39.368932 25158 net.cpp:408] label_cifar_1_split <- label
I0430 19:06:39.368938 25158 net.cpp:382] label_cifar_1_split -> label_cifar_1_split_0
I0430 19:06:39.368948 25158 net.cpp:382] label_cifar_1_split -> label_cifar_1_split_1
I0430 19:06:39.369058 25158 net.cpp:124] Setting up label_cifar_1_split
I0430 19:06:39.369066 25158 net.cpp:131] Top shape: 1000 (1000)
I0430 19:06:39.369071 25158 net.cpp:131] Top shape: 1000 (1000)
I0430 19:06:39.369073 25158 net.cpp:139] Memory required for data: 12300000
I0430 19:06:39.369076 25158 layer_factory.hpp:77] Creating layer ip1
I0430 19:06:39.369086 25158 net.cpp:86] Creating Layer ip1
I0430 19:06:39.369088 25158 net.cpp:408] ip1 <- data
I0430 19:06:39.369093 25158 net.cpp:382] ip1 -> ip1
I0430 19:06:39.372447 25158 net.cpp:124] Setting up ip1
I0430 19:06:39.372457 25158 net.cpp:131] Top shape: 1000 40 (40000)
I0430 19:06:39.372459 25158 net.cpp:139] Memory required for data: 12460000
I0430 19:06:39.372483 25158 layer_factory.hpp:77] Creating layer relu1
I0430 19:06:39.372504 25158 net.cpp:86] Creating Layer relu1
I0430 19:06:39.372508 25158 net.cpp:408] relu1 <- ip1
I0430 19:06:39.372512 25158 net.cpp:369] relu1 -> ip1 (in-place)
I0430 19:06:39.373319 25158 net.cpp:124] Setting up relu1
I0430 19:06:39.373332 25158 net.cpp:131] Top shape: 1000 40 (40000)
I0430 19:06:39.373335 25158 net.cpp:139] Memory required for data: 12620000
I0430 19:06:39.373338 25158 layer_factory.hpp:77] Creating layer ip2
I0430 19:06:39.373361 25158 net.cpp:86] Creating Layer ip2
I0430 19:06:39.373380 25158 net.cpp:408] ip2 <- ip1
I0430 19:06:39.373386 25158 net.cpp:382] ip2 -> ip2
I0430 19:06:39.373507 25158 net.cpp:124] Setting up ip2
I0430 19:06:39.373514 25158 net.cpp:131] Top shape: 1000 20 (20000)
I0430 19:06:39.373517 25158 net.cpp:139] Memory required for data: 12700000
I0430 19:06:39.373524 25158 layer_factory.hpp:77] Creating layer relu2
I0430 19:06:39.373538 25158 net.cpp:86] Creating Layer relu2
I0430 19:06:39.373540 25158 net.cpp:408] relu2 <- ip2
I0430 19:06:39.373545 25158 net.cpp:369] relu2 -> ip2 (in-place)
I0430 19:06:39.373687 25158 net.cpp:124] Setting up relu2
I0430 19:06:39.373694 25158 net.cpp:131] Top shape: 1000 20 (20000)
I0430 19:06:39.373698 25158 net.cpp:139] Memory required for data: 12780000
I0430 19:06:39.373702 25158 layer_factory.hpp:77] Creating layer ip3
I0430 19:06:39.373706 25158 net.cpp:86] Creating Layer ip3
I0430 19:06:39.373709 25158 net.cpp:408] ip3 <- ip2
I0430 19:06:39.373714 25158 net.cpp:382] ip3 -> ip3
I0430 19:06:39.373839 25158 net.cpp:124] Setting up ip3
I0430 19:06:39.373847 25158 net.cpp:131] Top shape: 1000 40 (40000)
I0430 19:06:39.373850 25158 net.cpp:139] Memory required for data: 12940000
I0430 19:06:39.373857 25158 layer_factory.hpp:77] Creating layer relu3
I0430 19:06:39.373862 25158 net.cpp:86] Creating Layer relu3
I0430 19:06:39.373865 25158 net.cpp:408] relu3 <- ip3
I0430 19:06:39.373869 25158 net.cpp:369] relu3 -> ip3 (in-place)
I0430 19:06:39.374011 25158 net.cpp:124] Setting up relu3
I0430 19:06:39.374017 25158 net.cpp:131] Top shape: 1000 40 (40000)
I0430 19:06:39.374020 25158 net.cpp:139] Memory required for data: 13100000
I0430 19:06:39.374023 25158 layer_factory.hpp:77] Creating layer ip4
I0430 19:06:39.374032 25158 net.cpp:86] Creating Layer ip4
I0430 19:06:39.374034 25158 net.cpp:408] ip4 <- ip3
I0430 19:06:39.374039 25158 net.cpp:382] ip4 -> ip4
I0430 19:06:39.374174 25158 net.cpp:124] Setting up ip4
I0430 19:06:39.374181 25158 net.cpp:131] Top shape: 1000 10 (10000)
I0430 19:06:39.374184 25158 net.cpp:139] Memory required for data: 13140000
I0430 19:06:39.374189 25158 layer_factory.hpp:77] Creating layer ip4_ip4_0_split
I0430 19:06:39.374194 25158 net.cpp:86] Creating Layer ip4_ip4_0_split
I0430 19:06:39.374197 25158 net.cpp:408] ip4_ip4_0_split <- ip4
I0430 19:06:39.374202 25158 net.cpp:382] ip4_ip4_0_split -> ip4_ip4_0_split_0
I0430 19:06:39.374215 25158 net.cpp:382] ip4_ip4_0_split -> ip4_ip4_0_split_1
I0430 19:06:39.374245 25158 net.cpp:124] Setting up ip4_ip4_0_split
I0430 19:06:39.374250 25158 net.cpp:131] Top shape: 1000 10 (10000)
I0430 19:06:39.374254 25158 net.cpp:131] Top shape: 1000 10 (10000)
I0430 19:06:39.374258 25158 net.cpp:139] Memory required for data: 13220000
I0430 19:06:39.374266 25158 layer_factory.hpp:77] Creating layer accuracy
I0430 19:06:39.374272 25158 net.cpp:86] Creating Layer accuracy
I0430 19:06:39.374275 25158 net.cpp:408] accuracy <- ip4_ip4_0_split_0
I0430 19:06:39.374279 25158 net.cpp:408] accuracy <- label_cifar_1_split_0
I0430 19:06:39.374284 25158 net.cpp:382] accuracy -> accuracy
…
