…
I0430 20:51:59.188264 29555 net.cpp:296] The NetState phase (0) differed from the phase (1) specified by a rule in layer cifar
I0430 20:51:59.188279 29555 net.cpp:296] The NetState phase (0) differed from the phase (1) specified by a rule in layer accuracy
I0430 20:51:59.188362 29555 net.cpp:53] Initializing net from parameters: 
name: "CIFAR"
state {
  phase: TRAIN
  level: 0
  stage: ""
}
layer {
  name: "cifar"
  type: "Data"
  top: "data"
  top: "label"
  include {
    phase: TRAIN
  }
  transform_param {
    mean_file: "examples/cifar10/mean.binaryproto"
  }
  data_param {
    source: "examples/cifar10/cifar10_train_lmdb"
    batch_size: 111
    backend: LMDB
  }
}
layer {
  name: "ip1"
  type: "InnerProduct"
  bottom: "data"
  top: "ip1"
  param {
    lr_mult: 1
  }
  param {
    lr_mult: 2
  }
  inner_product_param {
    num_output: 160
    weight_filler {
      type: "gaussian"
      std: 0.01
    }
    bias_filler {
      type: "constant"
    }
  }
}
layer {
  name: "relu1"
  type: "ReLU"
  bottom: "ip1"
  top: "ip1"
}
layer {
  name: "ip2"
  type: "InnerProduct"
  bottom: "ip1"
  top: "ip2"
  param {
    lr_mult: 1
  }
  param {
    lr_mult: 2
  }
  inner_product_param {
    num_output: 40
    weight_filler {
      type: "gaussian"
      std: 0.01
    }
    bias_filler {
      type: "constant"
    }
  }
}
layer {
  name: "relu2"
  type: "ReLU"
  bottom: "ip2"
  top: "ip2"
}
layer {
  name: "ip3"
  type: "InnerProduct"
  bottom: "ip2"
  top: "ip3"
  param {
    lr_mult: 1
  }
  param {
    lr_mult: 2
  }
  inner_product_param {
    num_output: 80
    weight_filler {
      type: "gaussian"
      std: 0.01
    }
    bias_filler {
      type: "constant"
    }
  }
}
layer {
  name: "relu3"
  type: "ReLU"
  bottom: "ip3"
  top: "ip3"
}
layer {
  name: "ip4"
  type: "InnerProduct"
  bottom: "ip3"
  top: "ip4"
  param {
    lr_mult: 1
  }
  param {
    lr_mult: 2
  }
  inner_product_param {
    num_output: 10
    weight_filler {
      type: "gaussian"
      std: 0.01
    }
    bias_filler {
      type: "constant"
    }
  }
}
layer {
  name: "loss"
  type: "SoftmaxWithLoss"
  bottom: "ip4"
  bottom: "label"
  top: "loss"
}
I0430 20:51:59.188426 29555 layer_factory.hpp:77] Creating layer cifar
I0430 20:51:59.188524 29555 db_lmdb.cpp:35] Opened lmdb examples/cifar10/cifar10_train_lmdb
I0430 20:51:59.188550 29555 net.cpp:86] Creating Layer cifar
I0430 20:51:59.188558 29555 net.cpp:382] cifar -> data
I0430 20:51:59.188582 29555 net.cpp:382] cifar -> label
I0430 20:51:59.188596 29555 data_transformer.cpp:25] Loading mean file from: examples/cifar10/mean.binaryproto
I0430 20:51:59.190690 29555 data_layer.cpp:45] output data size: 111,3,32,32
I0430 20:51:59.198563 29555 net.cpp:124] Setting up cifar
I0430 20:51:59.198582 29555 net.cpp:131] Top shape: 111 3 32 32 (340992)
I0430 20:51:59.198591 29555 net.cpp:131] Top shape: 111 (111)
I0430 20:51:59.198596 29555 net.cpp:139] Memory required for data: 1364412
I0430 20:51:59.198603 29555 layer_factory.hpp:77] Creating layer ip1
I0430 20:51:59.198626 29555 net.cpp:86] Creating Layer ip1
I0430 20:51:59.198642 29555 net.cpp:408] ip1 <- data
I0430 20:51:59.198654 29555 net.cpp:382] ip1 -> ip1
I0430 20:51:59.215872 29555 net.cpp:124] Setting up ip1
I0430 20:51:59.215888 29555 net.cpp:131] Top shape: 111 160 (17760)
I0430 20:51:59.215893 29555 net.cpp:139] Memory required for data: 1435452
I0430 20:51:59.215906 29555 layer_factory.hpp:77] Creating layer relu1
I0430 20:51:59.215934 29555 net.cpp:86] Creating Layer relu1
I0430 20:51:59.215939 29555 net.cpp:408] relu1 <- ip1
I0430 20:51:59.215945 29555 net.cpp:369] relu1 -> ip1 (in-place)
I0430 20:51:59.497947 29555 net.cpp:124] Setting up relu1
I0430 20:51:59.497974 29555 net.cpp:131] Top shape: 111 160 (17760)
I0430 20:51:59.497978 29555 net.cpp:139] Memory required for data: 1506492
I0430 20:51:59.497983 29555 layer_factory.hpp:77] Creating layer ip2
I0430 20:51:59.497997 29555 net.cpp:86] Creating Layer ip2
I0430 20:51:59.498000 29555 net.cpp:408] ip2 <- ip1
I0430 20:51:59.498010 29555 net.cpp:382] ip2 -> ip2
I0430 20:51:59.499202 29555 net.cpp:124] Setting up ip2
I0430 20:51:59.499217 29555 net.cpp:131] Top shape: 111 40 (4440)
I0430 20:51:59.499220 29555 net.cpp:139] Memory required for data: 1524252
I0430 20:51:59.499230 29555 layer_factory.hpp:77] Creating layer relu2
I0430 20:51:59.499238 29555 net.cpp:86] Creating Layer relu2
I0430 20:51:59.499243 29555 net.cpp:408] relu2 <- ip2
I0430 20:51:59.499248 29555 net.cpp:369] relu2 -> ip2 (in-place)
I0430 20:51:59.499987 29555 net.cpp:124] Setting up relu2
I0430 20:51:59.500000 29555 net.cpp:131] Top shape: 111 40 (4440)
I0430 20:51:59.500005 29555 net.cpp:139] Memory required for data: 1542012
I0430 20:51:59.500007 29555 layer_factory.hpp:77] Creating layer ip3
I0430 20:51:59.500015 29555 net.cpp:86] Creating Layer ip3
I0430 20:51:59.500018 29555 net.cpp:408] ip3 <- ip2
I0430 20:51:59.500023 29555 net.cpp:382] ip3 -> ip3
I0430 20:51:59.500216 29555 net.cpp:124] Setting up ip3
I0430 20:51:59.500223 29555 net.cpp:131] Top shape: 111 80 (8880)
I0430 20:51:59.500226 29555 net.cpp:139] Memory required for data: 1577532
I0430 20:51:59.500234 29555 layer_factory.hpp:77] Creating layer relu3
I0430 20:51:59.500243 29555 net.cpp:86] Creating Layer relu3
I0430 20:51:59.500247 29555 net.cpp:408] relu3 <- ip3
I0430 20:51:59.500252 29555 net.cpp:369] relu3 -> ip3 (in-place)
I0430 20:51:59.500401 29555 net.cpp:124] Setting up relu3
I0430 20:51:59.500408 29555 net.cpp:131] Top shape: 111 80 (8880)
I0430 20:51:59.500412 29555 net.cpp:139] Memory required for data: 1613052
I0430 20:51:59.500416 29555 layer_factory.hpp:77] Creating layer ip4
I0430 20:51:59.500422 29555 net.cpp:86] Creating Layer ip4
I0430 20:51:59.500424 29555 net.cpp:408] ip4 <- ip3
I0430 20:51:59.500430 29555 net.cpp:382] ip4 -> ip4
I0430 20:51:59.501396 29555 net.cpp:124] Setting up ip4
I0430 20:51:59.501410 29555 net.cpp:131] Top shape: 111 10 (1110)
I0430 20:51:59.501413 29555 net.cpp:139] Memory required for data: 1617492
I0430 20:51:59.501420 29555 layer_factory.hpp:77] Creating layer loss
I0430 20:51:59.501427 29555 net.cpp:86] Creating Layer loss
I0430 20:51:59.501430 29555 net.cpp:408] loss <- ip4
I0430 20:51:59.501435 29555 net.cpp:408] loss <- label
I0430 20:51:59.501441 29555 net.cpp:382] loss -> loss
I0430 20:51:59.501461 29555 layer_factory.hpp:77] Creating layer loss
…
I0430 20:51:59.502033 29555 solver.cpp:173] Creating test net (#0) specified by net file: ECE595/cifar/train_test/var_everything/cifar_train_test_143.prototxt
I0430 20:51:59.502073 29555 net.cpp:296] The NetState phase (1) differed from the phase (0) specified by a rule in layer cifar
I0430 20:51:59.502151 29555 net.cpp:53] Initializing net from parameters: 
name: "CIFAR"
state {
  phase: TEST
}
layer {
  name: "cifar"
  type: "Data"
  top: "data"
  top: "label"
  include {
    phase: TEST
  }
  transform_param {
    mean_file: "examples/cifar10/mean.binaryproto"
  }
  data_param {
    source: "examples/cifar10/cifar10_test_lmdb"
    batch_size: 1000
    backend: LMDB
  }
}
layer {
  name: "ip1"
  type: "InnerProduct"
  bottom: "data"
  top: "ip1"
  param {
    lr_mult: 1
  }
  param {
    lr_mult: 2
  }
  inner_product_param {
    num_output: 160
    weight_filler {
      type: "gaussian"
      std: 0.01
    }
    bias_filler {
      type: "constant"
    }
  }
}
layer {
  name: "relu1"
  type: "ReLU"
  bottom: "ip1"
  top: "ip1"
}
layer {
  name: "ip2"
  type: "InnerProduct"
  bottom: "ip1"
  top: "ip2"
  param {
    lr_mult: 1
  }
  param {
    lr_mult: 2
  }
  inner_product_param {
    num_output: 40
    weight_filler {
      type: "gaussian"
      std: 0.01
    }
    bias_filler {
      type: "constant"
    }
  }
}
layer {
  name: "relu2"
  type: "ReLU"
  bottom: "ip2"
  top: "ip2"
}
layer {
  name: "ip3"
  type: "InnerProduct"
  bottom: "ip2"
  top: "ip3"
  param {
    lr_mult: 1
  }
  param {
    lr_mult: 2
  }
  inner_product_param {
    num_output: 80
    weight_filler {
      type: "gaussian"
      std: 0.01
    }
    bias_filler {
      type: "constant"
    }
  }
}
layer {
  name: "relu3"
  type: "ReLU"
  bottom: "ip3"
  top: "ip3"
}
layer {
  name: "ip4"
  type: "InnerProduct"
  bottom: "ip3"
  top: "ip4"
  param {
    lr_mult: 1
  }
  param {
    lr_mult: 2
  }
  inner_product_param {
    num_output: 10
    weight_filler {
      type: "gaussian"
      std: 0.01
    }
    bias_filler {
      type: "constant"
    }
  }
}
layer {
  name: "accuracy"
  type: "Accuracy"
  bottom: "ip4"
  bottom: "label"
  top: "accuracy"
  include {
    phase: TEST
  }
}
layer {
  name: "loss"
  type: "SoftmaxWithLoss"
  bottom: "ip4"
  bottom: "label"
  top: "loss"
}
I0430 20:51:59.502213 29555 layer_factory.hpp:77] Creating layer cifar
I0430 20:51:59.502261 29555 db_lmdb.cpp:35] Opened lmdb examples/cifar10/cifar10_test_lmdb
I0430 20:51:59.502274 29555 net.cpp:86] Creating Layer cifar
I0430 20:51:59.502277 29555 net.cpp:382] cifar -> data
I0430 20:51:59.502285 29555 net.cpp:382] cifar -> label
I0430 20:51:59.502292 29555 data_transformer.cpp:25] Loading mean file from: examples/cifar10/mean.binaryproto
I0430 20:51:59.502439 29555 data_layer.cpp:45] output data size: 1000,3,32,32
I0430 20:51:59.524770 29555 net.cpp:124] Setting up cifar
I0430 20:51:59.524797 29555 net.cpp:131] Top shape: 1000 3 32 32 (3072000)
I0430 20:51:59.524803 29555 net.cpp:131] Top shape: 1000 (1000)
I0430 20:51:59.524807 29555 net.cpp:139] Memory required for data: 12292000
I0430 20:51:59.524817 29555 layer_factory.hpp:77] Creating layer label_cifar_1_split
I0430 20:51:59.524834 29555 net.cpp:86] Creating Layer label_cifar_1_split
I0430 20:51:59.524838 29555 net.cpp:408] label_cifar_1_split <- label
I0430 20:51:59.524844 29555 net.cpp:382] label_cifar_1_split -> label_cifar_1_split_0
I0430 20:51:59.524852 29555 net.cpp:382] label_cifar_1_split -> label_cifar_1_split_1
I0430 20:51:59.524955 29555 net.cpp:124] Setting up label_cifar_1_split
I0430 20:51:59.524974 29555 net.cpp:131] Top shape: 1000 (1000)
I0430 20:51:59.524979 29555 net.cpp:131] Top shape: 1000 (1000)
I0430 20:51:59.524982 29555 net.cpp:139] Memory required for data: 12300000
I0430 20:51:59.524986 29555 layer_factory.hpp:77] Creating layer ip1
I0430 20:51:59.524994 29555 net.cpp:86] Creating Layer ip1
I0430 20:51:59.524998 29555 net.cpp:408] ip1 <- data
I0430 20:51:59.525003 29555 net.cpp:382] ip1 -> ip1
I0430 20:51:59.538776 29555 net.cpp:124] Setting up ip1
I0430 20:51:59.538791 29555 net.cpp:131] Top shape: 1000 160 (160000)
I0430 20:51:59.538795 29555 net.cpp:139] Memory required for data: 12940000
I0430 20:51:59.538821 29555 layer_factory.hpp:77] Creating layer relu1
I0430 20:51:59.538828 29555 net.cpp:86] Creating Layer relu1
I0430 20:51:59.538831 29555 net.cpp:408] relu1 <- ip1
I0430 20:51:59.538836 29555 net.cpp:369] relu1 -> ip1 (in-place)
I0430 20:51:59.539618 29555 net.cpp:124] Setting up relu1
I0430 20:51:59.539631 29555 net.cpp:131] Top shape: 1000 160 (160000)
I0430 20:51:59.539634 29555 net.cpp:139] Memory required for data: 13580000
I0430 20:51:59.539638 29555 layer_factory.hpp:77] Creating layer ip2
I0430 20:51:59.539647 29555 net.cpp:86] Creating Layer ip2
I0430 20:51:59.539650 29555 net.cpp:408] ip2 <- ip1
I0430 20:51:59.539655 29555 net.cpp:382] ip2 -> ip2
I0430 20:51:59.539924 29555 net.cpp:124] Setting up ip2
I0430 20:51:59.539932 29555 net.cpp:131] Top shape: 1000 40 (40000)
I0430 20:51:59.539935 29555 net.cpp:139] Memory required for data: 13740000
I0430 20:51:59.539942 29555 layer_factory.hpp:77] Creating layer relu2
I0430 20:51:59.539947 29555 net.cpp:86] Creating Layer relu2
I0430 20:51:59.539952 29555 net.cpp:408] relu2 <- ip2
I0430 20:51:59.539955 29555 net.cpp:369] relu2 -> ip2 (in-place)
I0430 20:51:59.540097 29555 net.cpp:124] Setting up relu2
I0430 20:51:59.540107 29555 net.cpp:131] Top shape: 1000 40 (40000)
I0430 20:51:59.540109 29555 net.cpp:139] Memory required for data: 13900000
I0430 20:51:59.540112 29555 layer_factory.hpp:77] Creating layer ip3
I0430 20:51:59.540118 29555 net.cpp:86] Creating Layer ip3
I0430 20:51:59.540122 29555 net.cpp:408] ip3 <- ip2
I0430 20:51:59.540127 29555 net.cpp:382] ip3 -> ip3
I0430 20:51:59.540323 29555 net.cpp:124] Setting up ip3
I0430 20:51:59.540330 29555 net.cpp:131] Top shape: 1000 80 (80000)
I0430 20:51:59.540334 29555 net.cpp:139] Memory required for data: 14220000
I0430 20:51:59.540341 29555 layer_factory.hpp:77] Creating layer relu3
I0430 20:51:59.540346 29555 net.cpp:86] Creating Layer relu3
I0430 20:51:59.540349 29555 net.cpp:408] relu3 <- ip3
I0430 20:51:59.540354 29555 net.cpp:369] relu3 -> ip3 (in-place)
I0430 20:51:59.540498 29555 net.cpp:124] Setting up relu3
I0430 20:51:59.540506 29555 net.cpp:131] Top shape: 1000 80 (80000)
I0430 20:51:59.540510 29555 net.cpp:139] Memory required for data: 14540000
I0430 20:51:59.540513 29555 layer_factory.hpp:77] Creating layer ip4
I0430 20:51:59.540520 29555 net.cpp:86] Creating Layer ip4
I0430 20:51:59.540524 29555 net.cpp:408] ip4 <- ip3
I0430 20:51:59.540529 29555 net.cpp:382] ip4 -> ip4
I0430 20:51:59.540658 29555 net.cpp:124] Setting up ip4
I0430 20:51:59.540665 29555 net.cpp:131] Top shape: 1000 10 (10000)
I0430 20:51:59.540668 29555 net.cpp:139] Memory required for data: 14580000
I0430 20:51:59.540673 29555 layer_factory.hpp:77] Creating layer ip4_ip4_0_split
I0430 20:51:59.540678 29555 net.cpp:86] Creating Layer ip4_ip4_0_split
I0430 20:51:59.540681 29555 net.cpp:408] ip4_ip4_0_split <- ip4
I0430 20:51:59.540686 29555 net.cpp:382] ip4_ip4_0_split -> ip4_ip4_0_split_0
I0430 20:51:59.540693 29555 net.cpp:382] ip4_ip4_0_split -> ip4_ip4_0_split_1
I0430 20:51:59.540720 29555 net.cpp:124] Setting up ip4_ip4_0_split
I0430 20:51:59.540726 29555 net.cpp:131] Top shape: 1000 10 (10000)
I0430 20:51:59.540729 29555 net.cpp:131] Top shape: 1000 10 (10000)
I0430 20:51:59.540732 29555 net.cpp:139] Memory required for data: 14660000
I0430 20:51:59.540735 29555 layer_factory.hpp:77] Creating layer accuracy
I0430 20:51:59.540740 29555 net.cpp:86] Creating Layer accuracy
I0430 20:51:59.540743 29555 net.cpp:408] accuracy <- ip4_ip4_0_split_0
I0430 20:51:59.540747 29555 net.cpp:408] accuracy <- label_cifar_1_split_0
I0430 20:51:59.540751 29555 net.cpp:382] accuracy -> accuracy
…
