…
I0430 22:29:16.801172  2203 net.cpp:296] The NetState phase (0) differed from the phase (1) specified by a rule in layer cifar
I0430 22:29:16.801200  2203 net.cpp:296] The NetState phase (0) differed from the phase (1) specified by a rule in layer accuracy
I0430 22:29:16.801319  2203 net.cpp:53] Initializing net from parameters: 
name: "CIFAR"
state {
  phase: TRAIN
  level: 0
  stage: ""
}
layer {
  name: "cifar"
  type: "Data"
  top: "data"
  top: "label"
  include {
    phase: TRAIN
  }
  transform_param {
    mean_file: "examples/cifar10/mean.binaryproto"
  }
  data_param {
    source: "examples/cifar10/cifar10_train_lmdb"
    batch_size: 111
    backend: LMDB
  }
}
layer {
  name: "conv0"
  type: "Convolution"
  bottom: "data"
  top: "conv0"
  param {
    lr_mult: 1
  }
  param {
    lr_mult: 2
  }
  convolution_param {
    num_output: 8
    pad: 2
    kernel_size: 3
    stride: 1
    weight_filler {
      type: "gaussian"
      std: 0.01
    }
    bias_filler {
      type: "constant"
    }
  }
}
layer {
  name: "Sigmoid0"
  type: "Sigmoid"
  bottom: "conv0"
  top: "Sigmoid0"
}
layer {
  name: "pool0"
  type: "Pooling"
  bottom: "Sigmoid0"
  top: "pool0"
  pooling_param {
    pool: AVE
    kernel_size: 3
    stride: 2
  }
}
layer {
  name: "ip1"
  type: "InnerProduct"
  bottom: "pool0"
  top: "ip1"
  param {
    lr_mult: 1
  }
  param {
    lr_mult: 2
  }
  inner_product_param {
    num_output: 10
    weight_filler {
      type: "gaussian"
      std: 0.01
    }
    bias_filler {
      type: "constant"
    }
  }
}
layer {
  name: "relu1"
  type: "ReLU"
  bottom: "ip1"
  top: "ip1"
}
layer {
  name: "ip2"
  type: "InnerProduct"
  bottom: "ip1"
  top: "ip2"
  param {
    lr_mult: 1
  }
  param {
    lr_mult: 2
  }
  inner_product_param {
    num_output: 40
    weight_filler {
      type: "gaussian"
      std: 0.01
    }
    bias_filler {
      type: "constant"
    }
  }
}
layer {
  name: "relu2"
  type: "ReLU"
  bottom: "ip2"
  top: "ip2"
}
layer {
  name: "ip3"
  type: "InnerProduct"
  bottom: "ip2"
  top: "ip3"
  param {
    lr_mult: 1
  }
  param {
    lr_mult: 2
  }
  inner_product_param {
    num_output: 10
    weight_filler {
      type: "gaussian"
      std: 0.01
    }
    bias_filler {
      type: "constant"
    }
  }
}
layer {
  name: "relu3"
  type: "ReLU"
  bottom: "ip3"
  top: "ip3"
}
layer {
  name: "ip4"
  type: "InnerProduct"
  bottom: "ip3"
  top: "ip4"
  param {
    lr_mult: 1
  }
  param {
    lr_mult: 2
  }
  inner_product_param {
    num_output: 10
    weight_filler {
      type: "gaussian"
      std: 0.01
    }
    bias_filler {
      type: "constant"
    }
  }
}
layer {
  name: "loss"
  type: "SoftmaxWithLoss"
  bottom: "ip4"
  bottom: "label"
  top: "loss"
}
I0430 22:29:16.801378  2203 layer_factory.hpp:77] Creating layer cifar
I0430 22:29:16.801460  2203 db_lmdb.cpp:35] Opened lmdb examples/cifar10/cifar10_train_lmdb
I0430 22:29:16.801481  2203 net.cpp:86] Creating Layer cifar
I0430 22:29:16.801487  2203 net.cpp:382] cifar -> data
I0430 22:29:16.801506  2203 net.cpp:382] cifar -> label
I0430 22:29:16.801517  2203 data_transformer.cpp:25] Loading mean file from: examples/cifar10/mean.binaryproto
I0430 22:29:16.803249  2203 data_layer.cpp:45] output data size: 111,3,32,32
I0430 22:29:16.809991  2203 net.cpp:124] Setting up cifar
I0430 22:29:16.810021  2203 net.cpp:131] Top shape: 111 3 32 32 (340992)
I0430 22:29:16.810026  2203 net.cpp:131] Top shape: 111 (111)
I0430 22:29:16.810030  2203 net.cpp:139] Memory required for data: 1364412
I0430 22:29:16.810048  2203 layer_factory.hpp:77] Creating layer conv0
I0430 22:29:16.810078  2203 net.cpp:86] Creating Layer conv0
I0430 22:29:16.810083  2203 net.cpp:408] conv0 <- data
I0430 22:29:16.810093  2203 net.cpp:382] conv0 -> conv0
I0430 22:29:17.038815  2203 net.cpp:124] Setting up conv0
I0430 22:29:17.038841  2203 net.cpp:131] Top shape: 111 8 34 34 (1026528)
I0430 22:29:17.038844  2203 net.cpp:139] Memory required for data: 5470524
I0430 22:29:17.038858  2203 layer_factory.hpp:77] Creating layer Sigmoid0
I0430 22:29:17.038869  2203 net.cpp:86] Creating Layer Sigmoid0
I0430 22:29:17.038873  2203 net.cpp:408] Sigmoid0 <- conv0
I0430 22:29:17.038879  2203 net.cpp:382] Sigmoid0 -> Sigmoid0
I0430 22:29:17.039059  2203 net.cpp:124] Setting up Sigmoid0
I0430 22:29:17.039069  2203 net.cpp:131] Top shape: 111 8 34 34 (1026528)
I0430 22:29:17.039072  2203 net.cpp:139] Memory required for data: 9576636
I0430 22:29:17.039075  2203 layer_factory.hpp:77] Creating layer pool0
I0430 22:29:17.039083  2203 net.cpp:86] Creating Layer pool0
I0430 22:29:17.039085  2203 net.cpp:408] pool0 <- Sigmoid0
I0430 22:29:17.039089  2203 net.cpp:382] pool0 -> pool0
I0430 22:29:17.039788  2203 net.cpp:124] Setting up pool0
I0430 22:29:17.039801  2203 net.cpp:131] Top shape: 111 8 17 17 (256632)
I0430 22:29:17.039804  2203 net.cpp:139] Memory required for data: 10603164
I0430 22:29:17.039808  2203 layer_factory.hpp:77] Creating layer ip1
I0430 22:29:17.039818  2203 net.cpp:86] Creating Layer ip1
I0430 22:29:17.039820  2203 net.cpp:408] ip1 <- pool0
I0430 22:29:17.039824  2203 net.cpp:382] ip1 -> ip1
I0430 22:29:17.041409  2203 net.cpp:124] Setting up ip1
I0430 22:29:17.041420  2203 net.cpp:131] Top shape: 111 10 (1110)
I0430 22:29:17.041424  2203 net.cpp:139] Memory required for data: 10607604
I0430 22:29:17.041431  2203 layer_factory.hpp:77] Creating layer relu1
I0430 22:29:17.041437  2203 net.cpp:86] Creating Layer relu1
I0430 22:29:17.041441  2203 net.cpp:408] relu1 <- ip1
I0430 22:29:17.041445  2203 net.cpp:369] relu1 -> ip1 (in-place)
I0430 22:29:17.041607  2203 net.cpp:124] Setting up relu1
I0430 22:29:17.041616  2203 net.cpp:131] Top shape: 111 10 (1110)
I0430 22:29:17.041620  2203 net.cpp:139] Memory required for data: 10612044
I0430 22:29:17.041622  2203 layer_factory.hpp:77] Creating layer ip2
I0430 22:29:17.041628  2203 net.cpp:86] Creating Layer ip2
I0430 22:29:17.041632  2203 net.cpp:408] ip2 <- ip1
I0430 22:29:17.041636  2203 net.cpp:382] ip2 -> ip2
I0430 22:29:17.042563  2203 net.cpp:124] Setting up ip2
I0430 22:29:17.042574  2203 net.cpp:131] Top shape: 111 40 (4440)
I0430 22:29:17.042577  2203 net.cpp:139] Memory required for data: 10629804
I0430 22:29:17.042584  2203 layer_factory.hpp:77] Creating layer relu2
I0430 22:29:17.042589  2203 net.cpp:86] Creating Layer relu2
I0430 22:29:17.042593  2203 net.cpp:408] relu2 <- ip2
I0430 22:29:17.042596  2203 net.cpp:369] relu2 -> ip2 (in-place)
I0430 22:29:17.042781  2203 net.cpp:124] Setting up relu2
I0430 22:29:17.042790  2203 net.cpp:131] Top shape: 111 40 (4440)
I0430 22:29:17.042793  2203 net.cpp:139] Memory required for data: 10647564
I0430 22:29:17.042796  2203 layer_factory.hpp:77] Creating layer ip3
I0430 22:29:17.042804  2203 net.cpp:86] Creating Layer ip3
I0430 22:29:17.042807  2203 net.cpp:408] ip3 <- ip2
I0430 22:29:17.042812  2203 net.cpp:382] ip3 -> ip3
I0430 22:29:17.042908  2203 net.cpp:124] Setting up ip3
I0430 22:29:17.042914  2203 net.cpp:131] Top shape: 111 10 (1110)
I0430 22:29:17.042917  2203 net.cpp:139] Memory required for data: 10652004
I0430 22:29:17.042923  2203 layer_factory.hpp:77] Creating layer relu3
I0430 22:29:17.042927  2203 net.cpp:86] Creating Layer relu3
I0430 22:29:17.042930  2203 net.cpp:408] relu3 <- ip3
I0430 22:29:17.042934  2203 net.cpp:369] relu3 -> ip3 (in-place)
I0430 22:29:17.043093  2203 net.cpp:124] Setting up relu3
I0430 22:29:17.043102  2203 net.cpp:131] Top shape: 111 10 (1110)
I0430 22:29:17.043104  2203 net.cpp:139] Memory required for data: 10656444
I0430 22:29:17.043107  2203 layer_factory.hpp:77] Creating layer ip4
I0430 22:29:17.043126  2203 net.cpp:86] Creating Layer ip4
I0430 22:29:17.043129  2203 net.cpp:408] ip4 <- ip3
I0430 22:29:17.043134  2203 net.cpp:382] ip4 -> ip4
I0430 22:29:17.043226  2203 net.cpp:124] Setting up ip4
I0430 22:29:17.043232  2203 net.cpp:131] Top shape: 111 10 (1110)
I0430 22:29:17.043236  2203 net.cpp:139] Memory required for data: 10660884
I0430 22:29:17.043242  2203 layer_factory.hpp:77] Creating layer loss
I0430 22:29:17.043247  2203 net.cpp:86] Creating Layer loss
I0430 22:29:17.043251  2203 net.cpp:408] loss <- ip4
I0430 22:29:17.043253  2203 net.cpp:408] loss <- label
I0430 22:29:17.043258  2203 net.cpp:382] loss -> loss
I0430 22:29:17.043274  2203 layer_factory.hpp:77] Creating layer loss
…
I0430 22:29:17.044450  2203 solver.cpp:173] Creating test net (#0) specified by net file: ECE595/cifar/train_test/var_everything/cifar_train_test_195.prototxt
I0430 22:29:17.044476  2203 net.cpp:296] The NetState phase (1) differed from the phase (0) specified by a rule in layer cifar
I0430 22:29:17.044564  2203 net.cpp:53] Initializing net from parameters: 
name: "CIFAR"
state {
  phase: TEST
}
layer {
  name: "cifar"
  type: "Data"
  top: "data"
  top: "label"
  include {
    phase: TEST
  }
  transform_param {
    mean_file: "examples/cifar10/mean.binaryproto"
  }
  data_param {
    source: "examples/cifar10/cifar10_test_lmdb"
    batch_size: 1000
    backend: LMDB
  }
}
layer {
  name: "conv0"
  type: "Convolution"
  bottom: "data"
  top: "conv0"
  param {
    lr_mult: 1
  }
  param {
    lr_mult: 2
  }
  convolution_param {
    num_output: 8
    pad: 2
    kernel_size: 3
    stride: 1
    weight_filler {
      type: "gaussian"
      std: 0.01
    }
    bias_filler {
      type: "constant"
    }
  }
}
layer {
  name: "Sigmoid0"
  type: "Sigmoid"
  bottom: "conv0"
  top: "Sigmoid0"
}
layer {
  name: "pool0"
  type: "Pooling"
  bottom: "Sigmoid0"
  top: "pool0"
  pooling_param {
    pool: AVE
    kernel_size: 3
    stride: 2
  }
}
layer {
  name: "ip1"
  type: "InnerProduct"
  bottom: "pool0"
  top: "ip1"
  param {
    lr_mult: 1
  }
  param {
    lr_mult: 2
  }
  inner_product_param {
    num_output: 10
    weight_filler {
      type: "gaussian"
      std: 0.01
    }
    bias_filler {
      type: "constant"
    }
  }
}
layer {
  name: "relu1"
  type: "ReLU"
  bottom: "ip1"
  top: "ip1"
}
layer {
  name: "ip2"
  type: "InnerProduct"
  bottom: "ip1"
  top: "ip2"
  param {
    lr_mult: 1
  }
  param {
    lr_mult: 2
  }
  inner_product_param {
    num_output: 40
    weight_filler {
      type: "gaussian"
      std: 0.01
    }
    bias_filler {
      type: "constant"
    }
  }
}
layer {
  name: "relu2"
  type: "ReLU"
  bottom: "ip2"
  top: "ip2"
}
layer {
  name: "ip3"
  type: "InnerProduct"
  bottom: "ip2"
  top: "ip3"
  param {
    lr_mult: 1
  }
  param {
    lr_mult: 2
  }
  inner_product_param {
    num_output: 10
    weight_filler {
      type: "gaussian"
      std: 0.01
    }
    bias_filler {
      type: "constant"
    }
  }
}
layer {
  name: "relu3"
  type: "ReLU"
  bottom: "ip3"
  top: "ip3"
}
layer {
  name: "ip4"
  type: "InnerProduct"
  bottom: "ip3"
  top: "ip4"
  param {
    lr_mult: 1
  }
  param {
    lr_mult: 2
  }
  inner_product_param {
    num_output: 10
    weight_filler {
      type: "gaussian"
      std: 0.01
    }
    bias_filler {
      type: "constant"
    }
  }
}
layer {
  name: "accuracy"
  type: "Accuracy"
  bottom: "ip4"
  bottom: "label"
  top: "accuracy"
  include {
    phase: TEST
  }
}
layer {
  name: "loss"
  type: "SoftmaxWithLoss"
  bottom: "ip4"
  bottom: "label"
  top: "loss"
}
I0430 22:29:17.044636  2203 layer_factory.hpp:77] Creating layer cifar
I0430 22:29:17.044682  2203 db_lmdb.cpp:35] Opened lmdb examples/cifar10/cifar10_test_lmdb
I0430 22:29:17.044693  2203 net.cpp:86] Creating Layer cifar
I0430 22:29:17.044697  2203 net.cpp:382] cifar -> data
I0430 22:29:17.044704  2203 net.cpp:382] cifar -> label
I0430 22:29:17.044710  2203 data_transformer.cpp:25] Loading mean file from: examples/cifar10/mean.binaryproto
I0430 22:29:17.044867  2203 data_layer.cpp:45] output data size: 1000,3,32,32
I0430 22:29:17.066215  2203 net.cpp:124] Setting up cifar
I0430 22:29:17.066256  2203 net.cpp:131] Top shape: 1000 3 32 32 (3072000)
I0430 22:29:17.066262  2203 net.cpp:131] Top shape: 1000 (1000)
I0430 22:29:17.066264  2203 net.cpp:139] Memory required for data: 12292000
I0430 22:29:17.066270  2203 layer_factory.hpp:77] Creating layer label_cifar_1_split
I0430 22:29:17.066295  2203 net.cpp:86] Creating Layer label_cifar_1_split
I0430 22:29:17.066314  2203 net.cpp:408] label_cifar_1_split <- label
I0430 22:29:17.066320  2203 net.cpp:382] label_cifar_1_split -> label_cifar_1_split_0
I0430 22:29:17.066329  2203 net.cpp:382] label_cifar_1_split -> label_cifar_1_split_1
I0430 22:29:17.066408  2203 net.cpp:124] Setting up label_cifar_1_split
I0430 22:29:17.066416  2203 net.cpp:131] Top shape: 1000 (1000)
I0430 22:29:17.066419  2203 net.cpp:131] Top shape: 1000 (1000)
I0430 22:29:17.066422  2203 net.cpp:139] Memory required for data: 12300000
I0430 22:29:17.066426  2203 layer_factory.hpp:77] Creating layer conv0
I0430 22:29:17.066437  2203 net.cpp:86] Creating Layer conv0
I0430 22:29:17.066440  2203 net.cpp:408] conv0 <- data
I0430 22:29:17.066445  2203 net.cpp:382] conv0 -> conv0
I0430 22:29:17.068168  2203 net.cpp:124] Setting up conv0
I0430 22:29:17.068198  2203 net.cpp:131] Top shape: 1000 8 34 34 (9248000)
I0430 22:29:17.068202  2203 net.cpp:139] Memory required for data: 49292000
I0430 22:29:17.068212  2203 layer_factory.hpp:77] Creating layer Sigmoid0
I0430 22:29:17.068235  2203 net.cpp:86] Creating Layer Sigmoid0
I0430 22:29:17.068238  2203 net.cpp:408] Sigmoid0 <- conv0
I0430 22:29:17.068243  2203 net.cpp:382] Sigmoid0 -> Sigmoid0
I0430 22:29:17.068521  2203 net.cpp:124] Setting up Sigmoid0
I0430 22:29:17.068545  2203 net.cpp:131] Top shape: 1000 8 34 34 (9248000)
I0430 22:29:17.068548  2203 net.cpp:139] Memory required for data: 86284000
I0430 22:29:17.068552  2203 layer_factory.hpp:77] Creating layer pool0
I0430 22:29:17.068560  2203 net.cpp:86] Creating Layer pool0
I0430 22:29:17.068563  2203 net.cpp:408] pool0 <- Sigmoid0
I0430 22:29:17.068567  2203 net.cpp:382] pool0 -> pool0
I0430 22:29:17.069759  2203 net.cpp:124] Setting up pool0
I0430 22:29:17.069769  2203 net.cpp:131] Top shape: 1000 8 17 17 (2312000)
I0430 22:29:17.069788  2203 net.cpp:139] Memory required for data: 95532000
I0430 22:29:17.069792  2203 layer_factory.hpp:77] Creating layer ip1
I0430 22:29:17.069798  2203 net.cpp:86] Creating Layer ip1
I0430 22:29:17.069803  2203 net.cpp:408] ip1 <- pool0
I0430 22:29:17.069808  2203 net.cpp:382] ip1 -> ip1
I0430 22:29:17.070622  2203 net.cpp:124] Setting up ip1
I0430 22:29:17.070629  2203 net.cpp:131] Top shape: 1000 10 (10000)
I0430 22:29:17.070647  2203 net.cpp:139] Memory required for data: 95572000
I0430 22:29:17.070668  2203 layer_factory.hpp:77] Creating layer relu1
I0430 22:29:17.070674  2203 net.cpp:86] Creating Layer relu1
I0430 22:29:17.070677  2203 net.cpp:408] relu1 <- ip1
I0430 22:29:17.070698  2203 net.cpp:369] relu1 -> ip1 (in-place)
I0430 22:29:17.070853  2203 net.cpp:124] Setting up relu1
I0430 22:29:17.070861  2203 net.cpp:131] Top shape: 1000 10 (10000)
I0430 22:29:17.070865  2203 net.cpp:139] Memory required for data: 95612000
I0430 22:29:17.070868  2203 layer_factory.hpp:77] Creating layer ip2
I0430 22:29:17.070874  2203 net.cpp:86] Creating Layer ip2
I0430 22:29:17.070878  2203 net.cpp:408] ip2 <- ip1
I0430 22:29:17.070883  2203 net.cpp:382] ip2 -> ip2
I0430 22:29:17.070991  2203 net.cpp:124] Setting up ip2
I0430 22:29:17.070998  2203 net.cpp:131] Top shape: 1000 40 (40000)
I0430 22:29:17.071002  2203 net.cpp:139] Memory required for data: 95772000
I0430 22:29:17.071008  2203 layer_factory.hpp:77] Creating layer relu2
I0430 22:29:17.071014  2203 net.cpp:86] Creating Layer relu2
I0430 22:29:17.071017  2203 net.cpp:408] relu2 <- ip2
I0430 22:29:17.071022  2203 net.cpp:369] relu2 -> ip2 (in-place)
I0430 22:29:17.071847  2203 net.cpp:124] Setting up relu2
I0430 22:29:17.071863  2203 net.cpp:131] Top shape: 1000 40 (40000)
I0430 22:29:17.071882  2203 net.cpp:139] Memory required for data: 95932000
I0430 22:29:17.071887  2203 layer_factory.hpp:77] Creating layer ip3
I0430 22:29:17.071893  2203 net.cpp:86] Creating Layer ip3
I0430 22:29:17.071897  2203 net.cpp:408] ip3 <- ip2
I0430 22:29:17.071902  2203 net.cpp:382] ip3 -> ip3
I0430 22:29:17.072026  2203 net.cpp:124] Setting up ip3
I0430 22:29:17.072033  2203 net.cpp:131] Top shape: 1000 10 (10000)
I0430 22:29:17.072036  2203 net.cpp:139] Memory required for data: 95972000
I0430 22:29:17.072042  2203 layer_factory.hpp:77] Creating layer relu3
I0430 22:29:17.072047  2203 net.cpp:86] Creating Layer relu3
I0430 22:29:17.072051  2203 net.cpp:408] relu3 <- ip3
I0430 22:29:17.072054  2203 net.cpp:369] relu3 -> ip3 (in-place)
I0430 22:29:17.072217  2203 net.cpp:124] Setting up relu3
I0430 22:29:17.072226  2203 net.cpp:131] Top shape: 1000 10 (10000)
I0430 22:29:17.072228  2203 net.cpp:139] Memory required for data: 96012000
I0430 22:29:17.072232  2203 layer_factory.hpp:77] Creating layer ip4
I0430 22:29:17.072253  2203 net.cpp:86] Creating Layer ip4
I0430 22:29:17.072257  2203 net.cpp:408] ip4 <- ip3
I0430 22:29:17.072263  2203 net.cpp:382] ip4 -> ip4
I0430 22:29:17.072392  2203 net.cpp:124] Setting up ip4
I0430 22:29:17.072399  2203 net.cpp:131] Top shape: 1000 10 (10000)
I0430 22:29:17.072402  2203 net.cpp:139] Memory required for data: 96052000
I0430 22:29:17.072412  2203 layer_factory.hpp:77] Creating layer ip4_ip4_0_split
I0430 22:29:17.072417  2203 net.cpp:86] Creating Layer ip4_ip4_0_split
I0430 22:29:17.072420  2203 net.cpp:408] ip4_ip4_0_split <- ip4
I0430 22:29:17.072424  2203 net.cpp:382] ip4_ip4_0_split -> ip4_ip4_0_split_0
I0430 22:29:17.072430  2203 net.cpp:382] ip4_ip4_0_split -> ip4_ip4_0_split_1
I0430 22:29:17.072461  2203 net.cpp:124] Setting up ip4_ip4_0_split
I0430 22:29:17.072468  2203 net.cpp:131] Top shape: 1000 10 (10000)
I0430 22:29:17.072471  2203 net.cpp:131] Top shape: 1000 10 (10000)
I0430 22:29:17.072474  2203 net.cpp:139] Memory required for data: 96132000
I0430 22:29:17.072477  2203 layer_factory.hpp:77] Creating layer accuracy
I0430 22:29:17.072484  2203 net.cpp:86] Creating Layer accuracy
I0430 22:29:17.072487  2203 net.cpp:408] accuracy <- ip4_ip4_0_split_0
I0430 22:29:17.072492  2203 net.cpp:408] accuracy <- label_cifar_1_split_0
I0430 22:29:17.072499  2203 net.cpp:382] accuracy -> accuracy
…
