…
I0430 17:38:48.390866 20136 net.cpp:296] The NetState phase (0) differed from the phase (1) specified by a rule in layer cifar
I0430 17:38:48.390884 20136 net.cpp:296] The NetState phase (0) differed from the phase (1) specified by a rule in layer accuracy
I0430 17:38:48.390980 20136 net.cpp:53] Initializing net from parameters: 
name: "CIFAR"
state {
  phase: TRAIN
  level: 0
  stage: ""
}
layer {
  name: "cifar"
  type: "Data"
  top: "data"
  top: "label"
  include {
    phase: TRAIN
  }
  transform_param {
    mean_file: "examples/cifar10/mean.binaryproto"
  }
  data_param {
    source: "examples/cifar10/cifar10_train_lmdb"
    batch_size: 111
    backend: LMDB
  }
}
layer {
  name: "ip1"
  type: "InnerProduct"
  bottom: "data"
  top: "ip1"
  param {
    lr_mult: 1
  }
  param {
    lr_mult: 2
  }
  inner_product_param {
    num_output: 10
    weight_filler {
      type: "gaussian"
      std: 0.01
    }
    bias_filler {
      type: "constant"
    }
  }
}
layer {
  name: "relu1"
  type: "ReLU"
  bottom: "ip1"
  top: "ip1"
}
layer {
  name: "ip2"
  type: "InnerProduct"
  bottom: "ip1"
  top: "ip2"
  param {
    lr_mult: 1
  }
  param {
    lr_mult: 2
  }
  inner_product_param {
    num_output: 40
    weight_filler {
      type: "gaussian"
      std: 0.01
    }
    bias_filler {
      type: "constant"
    }
  }
}
layer {
  name: "relu2"
  type: "ReLU"
  bottom: "ip2"
  top: "ip2"
}
layer {
  name: "ip3"
  type: "InnerProduct"
  bottom: "ip2"
  top: "ip3"
  param {
    lr_mult: 1
  }
  param {
    lr_mult: 2
  }
  inner_product_param {
    num_output: 20
    weight_filler {
      type: "gaussian"
      std: 0.01
    }
    bias_filler {
      type: "constant"
    }
  }
}
layer {
  name: "relu3"
  type: "ReLU"
  bottom: "ip3"
  top: "ip3"
}
layer {
  name: "ip4"
  type: "InnerProduct"
  bottom: "ip3"
  top: "ip4"
  param {
    lr_mult: 1
  }
  param {
    lr_mult: 2
  }
  inner_product_param {
    num_output: 10
    weight_filler {
      type: "gaussian"
      std: 0.01
    }
    bias_filler {
      type: "constant"
    }
  }
}
layer {
  name: "loss"
  type: "SoftmaxWithLoss"
  bottom: "ip4"
  bottom: "label"
  top: "loss"
}
I0430 17:38:48.391052 20136 layer_factory.hpp:77] Creating layer cifar
I0430 17:38:48.391149 20136 db_lmdb.cpp:35] Opened lmdb examples/cifar10/cifar10_train_lmdb
I0430 17:38:48.391178 20136 net.cpp:86] Creating Layer cifar
I0430 17:38:48.391189 20136 net.cpp:382] cifar -> data
I0430 17:38:48.391216 20136 net.cpp:382] cifar -> label
I0430 17:38:48.391227 20136 data_transformer.cpp:25] Loading mean file from: examples/cifar10/mean.binaryproto
I0430 17:38:48.393359 20136 data_layer.cpp:45] output data size: 111,3,32,32
I0430 17:38:48.401289 20136 net.cpp:124] Setting up cifar
I0430 17:38:48.401307 20136 net.cpp:131] Top shape: 111 3 32 32 (340992)
I0430 17:38:48.401314 20136 net.cpp:131] Top shape: 111 (111)
I0430 17:38:48.401317 20136 net.cpp:139] Memory required for data: 1364412
I0430 17:38:48.401325 20136 layer_factory.hpp:77] Creating layer ip1
I0430 17:38:48.401350 20136 net.cpp:86] Creating Layer ip1
I0430 17:38:48.401356 20136 net.cpp:408] ip1 <- data
I0430 17:38:48.401368 20136 net.cpp:382] ip1 -> ip1
I0430 17:38:48.403542 20136 net.cpp:124] Setting up ip1
I0430 17:38:48.403558 20136 net.cpp:131] Top shape: 111 10 (1110)
I0430 17:38:48.403561 20136 net.cpp:139] Memory required for data: 1368852
I0430 17:38:48.403575 20136 layer_factory.hpp:77] Creating layer relu1
I0430 17:38:48.403586 20136 net.cpp:86] Creating Layer relu1
I0430 17:38:48.403606 20136 net.cpp:408] relu1 <- ip1
I0430 17:38:48.403612 20136 net.cpp:369] relu1 -> ip1 (in-place)
I0430 17:38:48.694980 20136 net.cpp:124] Setting up relu1
I0430 17:38:48.695011 20136 net.cpp:131] Top shape: 111 10 (1110)
I0430 17:38:48.695016 20136 net.cpp:139] Memory required for data: 1373292
I0430 17:38:48.695022 20136 layer_factory.hpp:77] Creating layer ip2
I0430 17:38:48.695035 20136 net.cpp:86] Creating Layer ip2
I0430 17:38:48.695040 20136 net.cpp:408] ip2 <- ip1
I0430 17:38:48.695050 20136 net.cpp:382] ip2 -> ip2
I0430 17:38:48.696192 20136 net.cpp:124] Setting up ip2
I0430 17:38:48.696207 20136 net.cpp:131] Top shape: 111 40 (4440)
I0430 17:38:48.696211 20136 net.cpp:139] Memory required for data: 1391052
I0430 17:38:48.696223 20136 layer_factory.hpp:77] Creating layer relu2
I0430 17:38:48.696230 20136 net.cpp:86] Creating Layer relu2
I0430 17:38:48.696235 20136 net.cpp:408] relu2 <- ip2
I0430 17:38:48.696240 20136 net.cpp:369] relu2 -> ip2 (in-place)
I0430 17:38:48.697079 20136 net.cpp:124] Setting up relu2
I0430 17:38:48.697094 20136 net.cpp:131] Top shape: 111 40 (4440)
I0430 17:38:48.697098 20136 net.cpp:139] Memory required for data: 1408812
I0430 17:38:48.697103 20136 layer_factory.hpp:77] Creating layer ip3
I0430 17:38:48.697110 20136 net.cpp:86] Creating Layer ip3
I0430 17:38:48.697114 20136 net.cpp:408] ip3 <- ip2
I0430 17:38:48.697121 20136 net.cpp:382] ip3 -> ip3
I0430 17:38:48.697263 20136 net.cpp:124] Setting up ip3
I0430 17:38:48.697271 20136 net.cpp:131] Top shape: 111 20 (2220)
I0430 17:38:48.697275 20136 net.cpp:139] Memory required for data: 1417692
I0430 17:38:48.697284 20136 layer_factory.hpp:77] Creating layer relu3
I0430 17:38:48.697302 20136 net.cpp:86] Creating Layer relu3
I0430 17:38:48.697306 20136 net.cpp:408] relu3 <- ip3
I0430 17:38:48.697311 20136 net.cpp:369] relu3 -> ip3 (in-place)
I0430 17:38:48.697481 20136 net.cpp:124] Setting up relu3
I0430 17:38:48.697491 20136 net.cpp:131] Top shape: 111 20 (2220)
I0430 17:38:48.697494 20136 net.cpp:139] Memory required for data: 1426572
I0430 17:38:48.697499 20136 layer_factory.hpp:77] Creating layer ip4
I0430 17:38:48.697504 20136 net.cpp:86] Creating Layer ip4
I0430 17:38:48.697509 20136 net.cpp:408] ip4 <- ip3
I0430 17:38:48.697515 20136 net.cpp:382] ip4 -> ip4
I0430 17:38:48.697624 20136 net.cpp:124] Setting up ip4
I0430 17:38:48.697633 20136 net.cpp:131] Top shape: 111 10 (1110)
I0430 17:38:48.697636 20136 net.cpp:139] Memory required for data: 1431012
I0430 17:38:48.697643 20136 layer_factory.hpp:77] Creating layer loss
I0430 17:38:48.697649 20136 net.cpp:86] Creating Layer loss
I0430 17:38:48.697654 20136 net.cpp:408] loss <- ip4
I0430 17:38:48.697659 20136 net.cpp:408] loss <- label
I0430 17:38:48.697664 20136 net.cpp:382] loss -> loss
I0430 17:38:48.697685 20136 layer_factory.hpp:77] Creating layer loss
…
I0430 17:38:48.698314 20136 solver.cpp:173] Creating test net (#0) specified by net file: ECE595/cifar/train_test/var_everything/cifar_train_test_41.prototxt
I0430 17:38:48.698357 20136 net.cpp:296] The NetState phase (1) differed from the phase (0) specified by a rule in layer cifar
I0430 17:38:48.698446 20136 net.cpp:53] Initializing net from parameters: 
name: "CIFAR"
state {
  phase: TEST
}
layer {
  name: "cifar"
  type: "Data"
  top: "data"
  top: "label"
  include {
    phase: TEST
  }
  transform_param {
    mean_file: "examples/cifar10/mean.binaryproto"
  }
  data_param {
    source: "examples/cifar10/cifar10_test_lmdb"
    batch_size: 1000
    backend: LMDB
  }
}
layer {
  name: "ip1"
  type: "InnerProduct"
  bottom: "data"
  top: "ip1"
  param {
    lr_mult: 1
  }
  param {
    lr_mult: 2
  }
  inner_product_param {
    num_output: 10
    weight_filler {
      type: "gaussian"
      std: 0.01
    }
    bias_filler {
      type: "constant"
    }
  }
}
layer {
  name: "relu1"
  type: "ReLU"
  bottom: "ip1"
  top: "ip1"
}
layer {
  name: "ip2"
  type: "InnerProduct"
  bottom: "ip1"
  top: "ip2"
  param {
    lr_mult: 1
  }
  param {
    lr_mult: 2
  }
  inner_product_param {
    num_output: 40
    weight_filler {
      type: "gaussian"
      std: 0.01
    }
    bias_filler {
      type: "constant"
    }
  }
}
layer {
  name: "relu2"
  type: "ReLU"
  bottom: "ip2"
  top: "ip2"
}
layer {
  name: "ip3"
  type: "InnerProduct"
  bottom: "ip2"
  top: "ip3"
  param {
    lr_mult: 1
  }
  param {
    lr_mult: 2
  }
  inner_product_param {
    num_output: 20
    weight_filler {
      type: "gaussian"
      std: 0.01
    }
    bias_filler {
      type: "constant"
    }
  }
}
layer {
  name: "relu3"
  type: "ReLU"
  bottom: "ip3"
  top: "ip3"
}
layer {
  name: "ip4"
  type: "InnerProduct"
  bottom: "ip3"
  top: "ip4"
  param {
    lr_mult: 1
  }
  param {
    lr_mult: 2
  }
  inner_product_param {
    num_output: 10
    weight_filler {
      type: "gaussian"
      std: 0.01
    }
    bias_filler {
      type: "constant"
    }
  }
}
layer {
  name: "accuracy"
  type: "Accuracy"
  bottom: "ip4"
  bottom: "label"
  top: "accuracy"
  include {
    phase: TEST
  }
}
layer {
  name: "loss"
  type: "SoftmaxWithLoss"
  bottom: "ip4"
  bottom: "label"
  top: "loss"
}
I0430 17:38:48.698515 20136 layer_factory.hpp:77] Creating layer cifar
I0430 17:38:48.698566 20136 db_lmdb.cpp:35] Opened lmdb examples/cifar10/cifar10_test_lmdb
I0430 17:38:48.698580 20136 net.cpp:86] Creating Layer cifar
I0430 17:38:48.698585 20136 net.cpp:382] cifar -> data
I0430 17:38:48.698595 20136 net.cpp:382] cifar -> label
I0430 17:38:48.698602 20136 data_transformer.cpp:25] Loading mean file from: examples/cifar10/mean.binaryproto
I0430 17:38:48.698765 20136 data_layer.cpp:45] output data size: 1000,3,32,32
I0430 17:38:48.722797 20136 net.cpp:124] Setting up cifar
I0430 17:38:48.722825 20136 net.cpp:131] Top shape: 1000 3 32 32 (3072000)
I0430 17:38:48.722831 20136 net.cpp:131] Top shape: 1000 (1000)
I0430 17:38:48.722836 20136 net.cpp:139] Memory required for data: 12292000
I0430 17:38:48.722841 20136 layer_factory.hpp:77] Creating layer label_cifar_1_split
I0430 17:38:48.722859 20136 net.cpp:86] Creating Layer label_cifar_1_split
I0430 17:38:48.722864 20136 net.cpp:408] label_cifar_1_split <- label
I0430 17:38:48.722870 20136 net.cpp:382] label_cifar_1_split -> label_cifar_1_split_0
I0430 17:38:48.722880 20136 net.cpp:382] label_cifar_1_split -> label_cifar_1_split_1
I0430 17:38:48.722988 20136 net.cpp:124] Setting up label_cifar_1_split
I0430 17:38:48.722997 20136 net.cpp:131] Top shape: 1000 (1000)
I0430 17:38:48.723001 20136 net.cpp:131] Top shape: 1000 (1000)
I0430 17:38:48.723004 20136 net.cpp:139] Memory required for data: 12300000
I0430 17:38:48.723007 20136 layer_factory.hpp:77] Creating layer ip1
I0430 17:38:48.723016 20136 net.cpp:86] Creating Layer ip1
I0430 17:38:48.723021 20136 net.cpp:408] ip1 <- data
I0430 17:38:48.723026 20136 net.cpp:382] ip1 -> ip1
I0430 17:38:48.724081 20136 net.cpp:124] Setting up ip1
I0430 17:38:48.724092 20136 net.cpp:131] Top shape: 1000 10 (10000)
I0430 17:38:48.724094 20136 net.cpp:139] Memory required for data: 12340000
I0430 17:38:48.724119 20136 layer_factory.hpp:77] Creating layer relu1
I0430 17:38:48.724126 20136 net.cpp:86] Creating Layer relu1
I0430 17:38:48.724129 20136 net.cpp:408] relu1 <- ip1
I0430 17:38:48.724134 20136 net.cpp:369] relu1 -> ip1 (in-place)
I0430 17:38:48.725057 20136 net.cpp:124] Setting up relu1
I0430 17:38:48.725069 20136 net.cpp:131] Top shape: 1000 10 (10000)
I0430 17:38:48.725073 20136 net.cpp:139] Memory required for data: 12380000
I0430 17:38:48.725077 20136 layer_factory.hpp:77] Creating layer ip2
I0430 17:38:48.725086 20136 net.cpp:86] Creating Layer ip2
I0430 17:38:48.725090 20136 net.cpp:408] ip2 <- ip1
I0430 17:38:48.725095 20136 net.cpp:382] ip2 -> ip2
I0430 17:38:48.726156 20136 net.cpp:124] Setting up ip2
I0430 17:38:48.726166 20136 net.cpp:131] Top shape: 1000 40 (40000)
I0430 17:38:48.726169 20136 net.cpp:139] Memory required for data: 12540000
I0430 17:38:48.726178 20136 layer_factory.hpp:77] Creating layer relu2
I0430 17:38:48.726184 20136 net.cpp:86] Creating Layer relu2
I0430 17:38:48.726187 20136 net.cpp:408] relu2 <- ip2
I0430 17:38:48.726192 20136 net.cpp:369] relu2 -> ip2 (in-place)
I0430 17:38:48.726353 20136 net.cpp:124] Setting up relu2
I0430 17:38:48.726363 20136 net.cpp:131] Top shape: 1000 40 (40000)
I0430 17:38:48.726366 20136 net.cpp:139] Memory required for data: 12700000
I0430 17:38:48.726371 20136 layer_factory.hpp:77] Creating layer ip3
I0430 17:38:48.726377 20136 net.cpp:86] Creating Layer ip3
I0430 17:38:48.726379 20136 net.cpp:408] ip3 <- ip2
I0430 17:38:48.726384 20136 net.cpp:382] ip3 -> ip3
I0430 17:38:48.726510 20136 net.cpp:124] Setting up ip3
I0430 17:38:48.726517 20136 net.cpp:131] Top shape: 1000 20 (20000)
I0430 17:38:48.726521 20136 net.cpp:139] Memory required for data: 12780000
I0430 17:38:48.726528 20136 layer_factory.hpp:77] Creating layer relu3
I0430 17:38:48.726534 20136 net.cpp:86] Creating Layer relu3
I0430 17:38:48.726537 20136 net.cpp:408] relu3 <- ip3
I0430 17:38:48.726542 20136 net.cpp:369] relu3 -> ip3 (in-place)
I0430 17:38:48.726696 20136 net.cpp:124] Setting up relu3
I0430 17:38:48.726704 20136 net.cpp:131] Top shape: 1000 20 (20000)
I0430 17:38:48.726707 20136 net.cpp:139] Memory required for data: 12860000
I0430 17:38:48.726711 20136 layer_factory.hpp:77] Creating layer ip4
I0430 17:38:48.726718 20136 net.cpp:86] Creating Layer ip4
I0430 17:38:48.726722 20136 net.cpp:408] ip4 <- ip3
I0430 17:38:48.726727 20136 net.cpp:382] ip4 -> ip4
I0430 17:38:48.726832 20136 net.cpp:124] Setting up ip4
I0430 17:38:48.726840 20136 net.cpp:131] Top shape: 1000 10 (10000)
I0430 17:38:48.726843 20136 net.cpp:139] Memory required for data: 12900000
I0430 17:38:48.726848 20136 layer_factory.hpp:77] Creating layer ip4_ip4_0_split
I0430 17:38:48.726853 20136 net.cpp:86] Creating Layer ip4_ip4_0_split
I0430 17:38:48.726857 20136 net.cpp:408] ip4_ip4_0_split <- ip4
I0430 17:38:48.726862 20136 net.cpp:382] ip4_ip4_0_split -> ip4_ip4_0_split_0
I0430 17:38:48.726868 20136 net.cpp:382] ip4_ip4_0_split -> ip4_ip4_0_split_1
I0430 17:38:48.726899 20136 net.cpp:124] Setting up ip4_ip4_0_split
I0430 17:38:48.726909 20136 net.cpp:131] Top shape: 1000 10 (10000)
I0430 17:38:48.726913 20136 net.cpp:131] Top shape: 1000 10 (10000)
I0430 17:38:48.726917 20136 net.cpp:139] Memory required for data: 12980000
I0430 17:38:48.726919 20136 layer_factory.hpp:77] Creating layer accuracy
I0430 17:38:48.726925 20136 net.cpp:86] Creating Layer accuracy
I0430 17:38:48.726928 20136 net.cpp:408] accuracy <- ip4_ip4_0_split_0
I0430 17:38:48.726933 20136 net.cpp:408] accuracy <- label_cifar_1_split_0
I0430 17:38:48.726938 20136 net.cpp:382] accuracy -> accuracy
…
