…
I0501 07:27:15.765664  5082 net.cpp:296] The NetState phase (0) differed from the phase (1) specified by a rule in layer cifar
I0501 07:27:15.765683  5082 net.cpp:296] The NetState phase (0) differed from the phase (1) specified by a rule in layer accuracy
I0501 07:27:15.765777  5082 net.cpp:53] Initializing net from parameters: 
name: "CIFAR"
state {
  phase: TRAIN
  level: 0
  stage: ""
}
layer {
  name: "cifar"
  type: "Data"
  top: "data"
  top: "label"
  include {
    phase: TRAIN
  }
  transform_param {
    mean_file: "examples/cifar10/mean.binaryproto"
  }
  data_param {
    source: "examples/cifar10/cifar10_train_lmdb"
    batch_size: 111
    backend: LMDB
  }
}
layer {
  name: "conv0"
  type: "Convolution"
  bottom: "data"
  top: "conv0"
  param {
    lr_mult: 1
  }
  param {
    lr_mult: 2
  }
  convolution_param {
    num_output: 16
    pad: 2
    kernel_size: 3
    stride: 1
    weight_filler {
      type: "gaussian"
      std: 0.01
    }
    bias_filler {
      type: "constant"
    }
  }
}
layer {
  name: "Sigmoid0"
  type: "Sigmoid"
  bottom: "conv0"
  top: "Sigmoid0"
}
layer {
  name: "pool0"
  type: "Pooling"
  bottom: "Sigmoid0"
  top: "pool0"
  pooling_param {
    pool: AVE
    kernel_size: 3
    stride: 2
  }
}
layer {
  name: "ip1"
  type: "InnerProduct"
  bottom: "pool0"
  top: "ip1"
  param {
    lr_mult: 1
  }
  param {
    lr_mult: 2
  }
  inner_product_param {
    num_output: 40
    weight_filler {
      type: "gaussian"
      std: 0.01
    }
    bias_filler {
      type: "constant"
    }
  }
}
layer {
  name: "relu1"
  type: "ReLU"
  bottom: "ip1"
  top: "ip1"
}
layer {
  name: "ip2"
  type: "InnerProduct"
  bottom: "ip1"
  top: "ip2"
  param {
    lr_mult: 1
  }
  param {
    lr_mult: 2
  }
  inner_product_param {
    num_output: 40
    weight_filler {
      type: "gaussian"
      std: 0.01
    }
    bias_filler {
      type: "constant"
    }
  }
}
layer {
  name: "relu2"
  type: "ReLU"
  bottom: "ip2"
  top: "ip2"
}
layer {
  name: "ip3"
  type: "InnerProduct"
  bottom: "ip2"
  top: "ip3"
  param {
    lr_mult: 1
  }
  param {
    lr_mult: 2
  }
  inner_product_param {
    num_output: 10
    weight_filler {
      type: "gaussian"
      std: 0.01
    }
    bias_filler {
      type: "constant"
    }
  }
}
layer {
  name: "loss"
  type: "SoftmaxWithLoss"
  bottom: "ip3"
  bottom: "label"
  top: "loss"
}
I0501 07:27:15.765858  5082 layer_factory.hpp:77] Creating layer cifar
I0501 07:27:15.765956  5082 db_lmdb.cpp:35] Opened lmdb examples/cifar10/cifar10_train_lmdb
I0501 07:27:15.765983  5082 net.cpp:86] Creating Layer cifar
I0501 07:27:15.765992  5082 net.cpp:382] cifar -> data
I0501 07:27:15.766014  5082 net.cpp:382] cifar -> label
I0501 07:27:15.766027  5082 data_transformer.cpp:25] Loading mean file from: examples/cifar10/mean.binaryproto
I0501 07:27:15.768193  5082 data_layer.cpp:45] output data size: 111,3,32,32
I0501 07:27:15.776370  5082 net.cpp:124] Setting up cifar
I0501 07:27:15.776388  5082 net.cpp:131] Top shape: 111 3 32 32 (340992)
I0501 07:27:15.776396  5082 net.cpp:131] Top shape: 111 (111)
I0501 07:27:15.776401  5082 net.cpp:139] Memory required for data: 1364412
I0501 07:27:15.776407  5082 layer_factory.hpp:77] Creating layer conv0
I0501 07:27:15.776427  5082 net.cpp:86] Creating Layer conv0
I0501 07:27:15.776432  5082 net.cpp:408] conv0 <- data
I0501 07:27:15.776445  5082 net.cpp:382] conv0 -> conv0
I0501 07:27:16.067890  5082 net.cpp:124] Setting up conv0
I0501 07:27:16.067942  5082 net.cpp:131] Top shape: 111 16 34 34 (2053056)
I0501 07:27:16.067947  5082 net.cpp:139] Memory required for data: 9576636
I0501 07:27:16.067965  5082 layer_factory.hpp:77] Creating layer Sigmoid0
I0501 07:27:16.067978  5082 net.cpp:86] Creating Layer Sigmoid0
I0501 07:27:16.067983  5082 net.cpp:408] Sigmoid0 <- conv0
I0501 07:27:16.067991  5082 net.cpp:382] Sigmoid0 -> Sigmoid0
I0501 07:27:16.068192  5082 net.cpp:124] Setting up Sigmoid0
I0501 07:27:16.068203  5082 net.cpp:131] Top shape: 111 16 34 34 (2053056)
I0501 07:27:16.068207  5082 net.cpp:139] Memory required for data: 17788860
I0501 07:27:16.068212  5082 layer_factory.hpp:77] Creating layer pool0
I0501 07:27:16.068219  5082 net.cpp:86] Creating Layer pool0
I0501 07:27:16.068223  5082 net.cpp:408] pool0 <- Sigmoid0
I0501 07:27:16.068228  5082 net.cpp:382] pool0 -> pool0
I0501 07:27:16.069083  5082 net.cpp:124] Setting up pool0
I0501 07:27:16.069099  5082 net.cpp:131] Top shape: 111 16 17 17 (513264)
I0501 07:27:16.069104  5082 net.cpp:139] Memory required for data: 19841916
I0501 07:27:16.069108  5082 layer_factory.hpp:77] Creating layer ip1
I0501 07:27:16.069118  5082 net.cpp:86] Creating Layer ip1
I0501 07:27:16.069123  5082 net.cpp:408] ip1 <- pool0
I0501 07:27:16.069129  5082 net.cpp:382] ip1 -> ip1
I0501 07:27:16.075899  5082 net.cpp:124] Setting up ip1
I0501 07:27:16.075913  5082 net.cpp:131] Top shape: 111 40 (4440)
I0501 07:27:16.075917  5082 net.cpp:139] Memory required for data: 19859676
I0501 07:27:16.075927  5082 layer_factory.hpp:77] Creating layer relu1
I0501 07:27:16.075933  5082 net.cpp:86] Creating Layer relu1
I0501 07:27:16.075937  5082 net.cpp:408] relu1 <- ip1
I0501 07:27:16.075943  5082 net.cpp:369] relu1 -> ip1 (in-place)
I0501 07:27:16.076114  5082 net.cpp:124] Setting up relu1
I0501 07:27:16.076123  5082 net.cpp:131] Top shape: 111 40 (4440)
I0501 07:27:16.076128  5082 net.cpp:139] Memory required for data: 19877436
I0501 07:27:16.076130  5082 layer_factory.hpp:77] Creating layer ip2
I0501 07:27:16.076138  5082 net.cpp:86] Creating Layer ip2
I0501 07:27:16.076146  5082 net.cpp:408] ip2 <- ip1
I0501 07:27:16.076153  5082 net.cpp:382] ip2 -> ip2
I0501 07:27:16.076306  5082 net.cpp:124] Setting up ip2
I0501 07:27:16.076314  5082 net.cpp:131] Top shape: 111 40 (4440)
I0501 07:27:16.076318  5082 net.cpp:139] Memory required for data: 19895196
I0501 07:27:16.076326  5082 layer_factory.hpp:77] Creating layer relu2
I0501 07:27:16.076331  5082 net.cpp:86] Creating Layer relu2
I0501 07:27:16.076334  5082 net.cpp:408] relu2 <- ip2
I0501 07:27:16.076339  5082 net.cpp:369] relu2 -> ip2 (in-place)
I0501 07:27:16.076503  5082 net.cpp:124] Setting up relu2
I0501 07:27:16.076512  5082 net.cpp:131] Top shape: 111 40 (4440)
I0501 07:27:16.076516  5082 net.cpp:139] Memory required for data: 19912956
I0501 07:27:16.076519  5082 layer_factory.hpp:77] Creating layer ip3
I0501 07:27:16.076529  5082 net.cpp:86] Creating Layer ip3
I0501 07:27:16.076532  5082 net.cpp:408] ip3 <- ip2
I0501 07:27:16.076537  5082 net.cpp:382] ip3 -> ip3
I0501 07:27:16.076653  5082 net.cpp:124] Setting up ip3
I0501 07:27:16.076659  5082 net.cpp:131] Top shape: 111 10 (1110)
I0501 07:27:16.076663  5082 net.cpp:139] Memory required for data: 19917396
I0501 07:27:16.076669  5082 layer_factory.hpp:77] Creating layer loss
I0501 07:27:16.076675  5082 net.cpp:86] Creating Layer loss
I0501 07:27:16.076678  5082 net.cpp:408] loss <- ip3
I0501 07:27:16.076683  5082 net.cpp:408] loss <- label
I0501 07:27:16.076689  5082 net.cpp:382] loss -> loss
I0501 07:27:16.076709  5082 layer_factory.hpp:77] Creating layer loss
…
I0501 07:27:16.077371  5082 solver.cpp:173] Creating test net (#0) specified by net file: ECE595/cifar/train_test/var_everything/cifar_train_test_482.prototxt
I0501 07:27:16.077400  5082 net.cpp:296] The NetState phase (1) differed from the phase (0) specified by a rule in layer cifar
I0501 07:27:16.077495  5082 net.cpp:53] Initializing net from parameters: 
name: "CIFAR"
state {
  phase: TEST
}
layer {
  name: "cifar"
  type: "Data"
  top: "data"
  top: "label"
  include {
    phase: TEST
  }
  transform_param {
    mean_file: "examples/cifar10/mean.binaryproto"
  }
  data_param {
    source: "examples/cifar10/cifar10_test_lmdb"
    batch_size: 1000
    backend: LMDB
  }
}
layer {
  name: "conv0"
  type: "Convolution"
  bottom: "data"
  top: "conv0"
  param {
    lr_mult: 1
  }
  param {
    lr_mult: 2
  }
  convolution_param {
    num_output: 16
    pad: 2
    kernel_size: 3
    stride: 1
    weight_filler {
      type: "gaussian"
      std: 0.01
    }
    bias_filler {
      type: "constant"
    }
  }
}
layer {
  name: "Sigmoid0"
  type: "Sigmoid"
  bottom: "conv0"
  top: "Sigmoid0"
}
layer {
  name: "pool0"
  type: "Pooling"
  bottom: "Sigmoid0"
  top: "pool0"
  pooling_param {
    pool: AVE
    kernel_size: 3
    stride: 2
  }
}
layer {
  name: "ip1"
  type: "InnerProduct"
  bottom: "pool0"
  top: "ip1"
  param {
    lr_mult: 1
  }
  param {
    lr_mult: 2
  }
  inner_product_param {
    num_output: 40
    weight_filler {
      type: "gaussian"
      std: 0.01
    }
    bias_filler {
      type: "constant"
    }
  }
}
layer {
  name: "relu1"
  type: "ReLU"
  bottom: "ip1"
  top: "ip1"
}
layer {
  name: "ip2"
  type: "InnerProduct"
  bottom: "ip1"
  top: "ip2"
  param {
    lr_mult: 1
  }
  param {
    lr_mult: 2
  }
  inner_product_param {
    num_output: 40
    weight_filler {
      type: "gaussian"
      std: 0.01
    }
    bias_filler {
      type: "constant"
    }
  }
}
layer {
  name: "relu2"
  type: "ReLU"
  bottom: "ip2"
  top: "ip2"
}
layer {
  name: "ip3"
  type: "InnerProduct"
  bottom: "ip2"
  top: "ip3"
  param {
    lr_mult: 1
  }
  param {
    lr_mult: 2
  }
  inner_product_param {
    num_output: 10
    weight_filler {
      type: "gaussian"
      std: 0.01
    }
    bias_filler {
      type: "constant"
    }
  }
}
layer {
  name: "accuracy"
  type: "Accuracy"
  bottom: "ip3"
  bottom: "label"
  top: "accuracy"
  include {
    phase: TEST
  }
}
layer {
  name: "loss"
  type: "SoftmaxWithLoss"
  bottom: "ip3"
  bottom: "label"
  top: "loss"
}
I0501 07:27:16.077566  5082 layer_factory.hpp:77] Creating layer cifar
I0501 07:27:16.077617  5082 db_lmdb.cpp:35] Opened lmdb examples/cifar10/cifar10_test_lmdb
I0501 07:27:16.077630  5082 net.cpp:86] Creating Layer cifar
I0501 07:27:16.077636  5082 net.cpp:382] cifar -> data
I0501 07:27:16.077644  5082 net.cpp:382] cifar -> label
I0501 07:27:16.077652  5082 data_transformer.cpp:25] Loading mean file from: examples/cifar10/mean.binaryproto
I0501 07:27:16.077808  5082 data_layer.cpp:45] output data size: 1000,3,32,32
I0501 07:27:16.101460  5082 net.cpp:124] Setting up cifar
I0501 07:27:16.101486  5082 net.cpp:131] Top shape: 1000 3 32 32 (3072000)
I0501 07:27:16.101493  5082 net.cpp:131] Top shape: 1000 (1000)
I0501 07:27:16.101497  5082 net.cpp:139] Memory required for data: 12292000
I0501 07:27:16.101502  5082 layer_factory.hpp:77] Creating layer label_cifar_1_split
I0501 07:27:16.101519  5082 net.cpp:86] Creating Layer label_cifar_1_split
I0501 07:27:16.101541  5082 net.cpp:408] label_cifar_1_split <- label
I0501 07:27:16.101547  5082 net.cpp:382] label_cifar_1_split -> label_cifar_1_split_0
I0501 07:27:16.101557  5082 net.cpp:382] label_cifar_1_split -> label_cifar_1_split_1
I0501 07:27:16.101656  5082 net.cpp:124] Setting up label_cifar_1_split
I0501 07:27:16.101663  5082 net.cpp:131] Top shape: 1000 (1000)
I0501 07:27:16.101667  5082 net.cpp:131] Top shape: 1000 (1000)
I0501 07:27:16.101670  5082 net.cpp:139] Memory required for data: 12300000
I0501 07:27:16.101675  5082 layer_factory.hpp:77] Creating layer conv0
I0501 07:27:16.101687  5082 net.cpp:86] Creating Layer conv0
I0501 07:27:16.101691  5082 net.cpp:408] conv0 <- data
I0501 07:27:16.101696  5082 net.cpp:382] conv0 -> conv0
I0501 07:27:16.103252  5082 net.cpp:124] Setting up conv0
I0501 07:27:16.103267  5082 net.cpp:131] Top shape: 1000 16 34 34 (18496000)
I0501 07:27:16.103271  5082 net.cpp:139] Memory required for data: 86284000
I0501 07:27:16.103281  5082 layer_factory.hpp:77] Creating layer Sigmoid0
I0501 07:27:16.103287  5082 net.cpp:86] Creating Layer Sigmoid0
I0501 07:27:16.103291  5082 net.cpp:408] Sigmoid0 <- conv0
I0501 07:27:16.103296  5082 net.cpp:382] Sigmoid0 -> Sigmoid0
I0501 07:27:16.105103  5082 net.cpp:124] Setting up Sigmoid0
I0501 07:27:16.105118  5082 net.cpp:131] Top shape: 1000 16 34 34 (18496000)
I0501 07:27:16.105121  5082 net.cpp:139] Memory required for data: 160268000
I0501 07:27:16.105125  5082 layer_factory.hpp:77] Creating layer pool0
I0501 07:27:16.105134  5082 net.cpp:86] Creating Layer pool0
I0501 07:27:16.105137  5082 net.cpp:408] pool0 <- Sigmoid0
I0501 07:27:16.105144  5082 net.cpp:382] pool0 -> pool0
I0501 07:27:16.105321  5082 net.cpp:124] Setting up pool0
I0501 07:27:16.105330  5082 net.cpp:131] Top shape: 1000 16 17 17 (4624000)
I0501 07:27:16.105334  5082 net.cpp:139] Memory required for data: 178764000
I0501 07:27:16.105337  5082 layer_factory.hpp:77] Creating layer ip1
I0501 07:27:16.105345  5082 net.cpp:86] Creating Layer ip1
I0501 07:27:16.105348  5082 net.cpp:408] ip1 <- pool0
I0501 07:27:16.105355  5082 net.cpp:382] ip1 -> ip1
I0501 07:27:16.110643  5082 net.cpp:124] Setting up ip1
I0501 07:27:16.110654  5082 net.cpp:131] Top shape: 1000 40 (40000)
I0501 07:27:16.110657  5082 net.cpp:139] Memory required for data: 178924000
I0501 07:27:16.110666  5082 layer_factory.hpp:77] Creating layer relu1
I0501 07:27:16.110678  5082 net.cpp:86] Creating Layer relu1
I0501 07:27:16.110682  5082 net.cpp:408] relu1 <- ip1
I0501 07:27:16.110687  5082 net.cpp:369] relu1 -> ip1 (in-place)
I0501 07:27:16.110841  5082 net.cpp:124] Setting up relu1
I0501 07:27:16.110849  5082 net.cpp:131] Top shape: 1000 40 (40000)
I0501 07:27:16.110853  5082 net.cpp:139] Memory required for data: 179084000
I0501 07:27:16.110857  5082 layer_factory.hpp:77] Creating layer ip2
I0501 07:27:16.110863  5082 net.cpp:86] Creating Layer ip2
I0501 07:27:16.110867  5082 net.cpp:408] ip2 <- ip1
I0501 07:27:16.110872  5082 net.cpp:382] ip2 -> ip2
I0501 07:27:16.111014  5082 net.cpp:124] Setting up ip2
I0501 07:27:16.111022  5082 net.cpp:131] Top shape: 1000 40 (40000)
I0501 07:27:16.111026  5082 net.cpp:139] Memory required for data: 179244000
I0501 07:27:16.111032  5082 layer_factory.hpp:77] Creating layer relu2
I0501 07:27:16.111038  5082 net.cpp:86] Creating Layer relu2
I0501 07:27:16.111042  5082 net.cpp:408] relu2 <- ip2
I0501 07:27:16.111047  5082 net.cpp:369] relu2 -> ip2 (in-place)
I0501 07:27:16.111196  5082 net.cpp:124] Setting up relu2
I0501 07:27:16.111203  5082 net.cpp:131] Top shape: 1000 40 (40000)
I0501 07:27:16.111207  5082 net.cpp:139] Memory required for data: 179404000
I0501 07:27:16.111210  5082 layer_factory.hpp:77] Creating layer ip3
I0501 07:27:16.111217  5082 net.cpp:86] Creating Layer ip3
I0501 07:27:16.111220  5082 net.cpp:408] ip3 <- ip2
I0501 07:27:16.111224  5082 net.cpp:382] ip3 -> ip3
I0501 07:27:16.111337  5082 net.cpp:124] Setting up ip3
I0501 07:27:16.111344  5082 net.cpp:131] Top shape: 1000 10 (10000)
I0501 07:27:16.111357  5082 net.cpp:139] Memory required for data: 179444000
I0501 07:27:16.111363  5082 layer_factory.hpp:77] Creating layer ip3_ip3_0_split
I0501 07:27:16.111368  5082 net.cpp:86] Creating Layer ip3_ip3_0_split
I0501 07:27:16.111371  5082 net.cpp:408] ip3_ip3_0_split <- ip3
I0501 07:27:16.111377  5082 net.cpp:382] ip3_ip3_0_split -> ip3_ip3_0_split_0
I0501 07:27:16.111382  5082 net.cpp:382] ip3_ip3_0_split -> ip3_ip3_0_split_1
I0501 07:27:16.111413  5082 net.cpp:124] Setting up ip3_ip3_0_split
I0501 07:27:16.111418  5082 net.cpp:131] Top shape: 1000 10 (10000)
I0501 07:27:16.111421  5082 net.cpp:131] Top shape: 1000 10 (10000)
I0501 07:27:16.111423  5082 net.cpp:139] Memory required for data: 179524000
I0501 07:27:16.111426  5082 layer_factory.hpp:77] Creating layer accuracy
I0501 07:27:16.111433  5082 net.cpp:86] Creating Layer accuracy
I0501 07:27:16.111435  5082 net.cpp:408] accuracy <- ip3_ip3_0_split_0
I0501 07:27:16.111439  5082 net.cpp:408] accuracy <- label_cifar_1_split_0
I0501 07:27:16.111443  5082 net.cpp:382] accuracy -> accuracy
…
