…
I0501 05:22:25.005447 28782 net.cpp:296] The NetState phase (0) differed from the phase (1) specified by a rule in layer cifar
I0501 05:22:25.005461 28782 net.cpp:296] The NetState phase (0) differed from the phase (1) specified by a rule in layer accuracy
I0501 05:22:25.005558 28782 net.cpp:53] Initializing net from parameters: 
name: "CIFAR"
state {
  phase: TRAIN
  level: 0
  stage: ""
}
layer {
  name: "cifar"
  type: "Data"
  top: "data"
  top: "label"
  include {
    phase: TRAIN
  }
  transform_param {
    mean_file: "examples/cifar10/mean.binaryproto"
  }
  data_param {
    source: "examples/cifar10/cifar10_train_lmdb"
    batch_size: 111
    backend: LMDB
  }
}
layer {
  name: "conv0"
  type: "Convolution"
  bottom: "data"
  top: "conv0"
  param {
    lr_mult: 1
  }
  param {
    lr_mult: 2
  }
  convolution_param {
    num_output: 8
    pad: 2
    kernel_size: 5
    stride: 1
    weight_filler {
      type: "gaussian"
      std: 0.01
    }
    bias_filler {
      type: "constant"
    }
  }
}
layer {
  name: "Sigmoid0"
  type: "Sigmoid"
  bottom: "conv0"
  top: "Sigmoid0"
}
layer {
  name: "pool0"
  type: "Pooling"
  bottom: "Sigmoid0"
  top: "pool0"
  pooling_param {
    pool: AVE
    kernel_size: 3
    stride: 2
  }
}
layer {
  name: "ip1"
  type: "InnerProduct"
  bottom: "pool0"
  top: "ip1"
  param {
    lr_mult: 1
  }
  param {
    lr_mult: 2
  }
  inner_product_param {
    num_output: 80
    weight_filler {
      type: "gaussian"
      std: 0.01
    }
    bias_filler {
      type: "constant"
    }
  }
}
layer {
  name: "relu1"
  type: "ReLU"
  bottom: "ip1"
  top: "ip1"
}
layer {
  name: "ip2"
  type: "InnerProduct"
  bottom: "ip1"
  top: "ip2"
  param {
    lr_mult: 1
  }
  param {
    lr_mult: 2
  }
  inner_product_param {
    num_output: 10
    weight_filler {
      type: "gaussian"
      std: 0.01
    }
    bias_filler {
      type: "constant"
    }
  }
}
layer {
  name: "relu2"
  type: "ReLU"
  bottom: "ip2"
  top: "ip2"
}
layer {
  name: "ip3"
  type: "InnerProduct"
  bottom: "ip2"
  top: "ip3"
  param {
    lr_mult: 1
  }
  param {
    lr_mult: 2
  }
  inner_product_param {
    num_output: 20
    weight_filler {
      type: "gaussian"
      std: 0.01
    }
    bias_filler {
      type: "constant"
    }
  }
}
layer {
  name: "relu3"
  type: "ReLU"
  bottom: "ip3"
  top: "ip3"
}
layer {
  name: "ip4"
  type: "InnerProduct"
  bottom: "ip3"
  top: "ip4"
  param {
    lr_mult: 1
  }
  param {
    lr_mult: 2
  }
  inner_product_param {
    num_output: 10
    weight_filler {
      type: "gaussian"
      std: 0.01
    }
    bias_filler {
      type: "constant"
    }
  }
}
layer {
  name: "loss"
  type: "SoftmaxWithLoss"
  bottom: "ip4"
  bottom: "label"
  top: "loss"
}
I0501 05:22:25.005621 28782 layer_factory.hpp:77] Creating layer cifar
I0501 05:22:25.005719 28782 db_lmdb.cpp:35] Opened lmdb examples/cifar10/cifar10_train_lmdb
I0501 05:22:25.005743 28782 net.cpp:86] Creating Layer cifar
I0501 05:22:25.005749 28782 net.cpp:382] cifar -> data
I0501 05:22:25.005769 28782 net.cpp:382] cifar -> label
I0501 05:22:25.005781 28782 data_transformer.cpp:25] Loading mean file from: examples/cifar10/mean.binaryproto
I0501 05:22:25.007524 28782 data_layer.cpp:45] output data size: 111,3,32,32
I0501 05:22:25.013998 28782 net.cpp:124] Setting up cifar
I0501 05:22:25.014014 28782 net.cpp:131] Top shape: 111 3 32 32 (340992)
I0501 05:22:25.014034 28782 net.cpp:131] Top shape: 111 (111)
I0501 05:22:25.014037 28782 net.cpp:139] Memory required for data: 1364412
I0501 05:22:25.014056 28782 layer_factory.hpp:77] Creating layer conv0
I0501 05:22:25.014088 28782 net.cpp:86] Creating Layer conv0
I0501 05:22:25.014092 28782 net.cpp:408] conv0 <- data
I0501 05:22:25.014106 28782 net.cpp:382] conv0 -> conv0
I0501 05:22:25.243990 28782 net.cpp:124] Setting up conv0
I0501 05:22:25.244032 28782 net.cpp:131] Top shape: 111 8 32 32 (909312)
I0501 05:22:25.244036 28782 net.cpp:139] Memory required for data: 5001660
I0501 05:22:25.244051 28782 layer_factory.hpp:77] Creating layer Sigmoid0
I0501 05:22:25.244063 28782 net.cpp:86] Creating Layer Sigmoid0
I0501 05:22:25.244067 28782 net.cpp:408] Sigmoid0 <- conv0
I0501 05:22:25.244072 28782 net.cpp:382] Sigmoid0 -> Sigmoid0
I0501 05:22:25.244232 28782 net.cpp:124] Setting up Sigmoid0
I0501 05:22:25.244242 28782 net.cpp:131] Top shape: 111 8 32 32 (909312)
I0501 05:22:25.244246 28782 net.cpp:139] Memory required for data: 8638908
I0501 05:22:25.244249 28782 layer_factory.hpp:77] Creating layer pool0
I0501 05:22:25.244256 28782 net.cpp:86] Creating Layer pool0
I0501 05:22:25.244259 28782 net.cpp:408] pool0 <- Sigmoid0
I0501 05:22:25.244263 28782 net.cpp:382] pool0 -> pool0
I0501 05:22:25.244983 28782 net.cpp:124] Setting up pool0
I0501 05:22:25.245026 28782 net.cpp:131] Top shape: 111 8 16 16 (227328)
I0501 05:22:25.245029 28782 net.cpp:139] Memory required for data: 9548220
I0501 05:22:25.245033 28782 layer_factory.hpp:77] Creating layer ip1
I0501 05:22:25.245043 28782 net.cpp:86] Creating Layer ip1
I0501 05:22:25.245045 28782 net.cpp:408] ip1 <- pool0
I0501 05:22:25.245051 28782 net.cpp:382] ip1 -> ip1
I0501 05:22:25.249333 28782 net.cpp:124] Setting up ip1
I0501 05:22:25.249342 28782 net.cpp:131] Top shape: 111 80 (8880)
I0501 05:22:25.249346 28782 net.cpp:139] Memory required for data: 9583740
I0501 05:22:25.249352 28782 layer_factory.hpp:77] Creating layer relu1
I0501 05:22:25.249357 28782 net.cpp:86] Creating Layer relu1
I0501 05:22:25.249361 28782 net.cpp:408] relu1 <- ip1
I0501 05:22:25.249363 28782 net.cpp:369] relu1 -> ip1 (in-place)
I0501 05:22:25.249512 28782 net.cpp:124] Setting up relu1
I0501 05:22:25.249521 28782 net.cpp:131] Top shape: 111 80 (8880)
I0501 05:22:25.249523 28782 net.cpp:139] Memory required for data: 9619260
I0501 05:22:25.249526 28782 layer_factory.hpp:77] Creating layer ip2
I0501 05:22:25.249531 28782 net.cpp:86] Creating Layer ip2
I0501 05:22:25.249534 28782 net.cpp:408] ip2 <- ip1
I0501 05:22:25.249539 28782 net.cpp:382] ip2 -> ip2
I0501 05:22:25.249640 28782 net.cpp:124] Setting up ip2
I0501 05:22:25.249647 28782 net.cpp:131] Top shape: 111 10 (1110)
I0501 05:22:25.249650 28782 net.cpp:139] Memory required for data: 9623700
I0501 05:22:25.249657 28782 layer_factory.hpp:77] Creating layer relu2
I0501 05:22:25.249661 28782 net.cpp:86] Creating Layer relu2
I0501 05:22:25.249665 28782 net.cpp:408] relu2 <- ip2
I0501 05:22:25.249668 28782 net.cpp:369] relu2 -> ip2 (in-place)
I0501 05:22:25.249805 28782 net.cpp:124] Setting up relu2
I0501 05:22:25.249814 28782 net.cpp:131] Top shape: 111 10 (1110)
I0501 05:22:25.249816 28782 net.cpp:139] Memory required for data: 9628140
I0501 05:22:25.249819 28782 layer_factory.hpp:77] Creating layer ip3
I0501 05:22:25.249826 28782 net.cpp:86] Creating Layer ip3
I0501 05:22:25.249830 28782 net.cpp:408] ip3 <- ip2
I0501 05:22:25.249833 28782 net.cpp:382] ip3 -> ip3
I0501 05:22:25.249922 28782 net.cpp:124] Setting up ip3
I0501 05:22:25.249928 28782 net.cpp:131] Top shape: 111 20 (2220)
I0501 05:22:25.249932 28782 net.cpp:139] Memory required for data: 9637020
I0501 05:22:25.249936 28782 layer_factory.hpp:77] Creating layer relu3
I0501 05:22:25.249941 28782 net.cpp:86] Creating Layer relu3
I0501 05:22:25.249944 28782 net.cpp:408] relu3 <- ip3
I0501 05:22:25.249948 28782 net.cpp:369] relu3 -> ip3 (in-place)
I0501 05:22:25.250080 28782 net.cpp:124] Setting up relu3
I0501 05:22:25.250088 28782 net.cpp:131] Top shape: 111 20 (2220)
I0501 05:22:25.250092 28782 net.cpp:139] Memory required for data: 9645900
I0501 05:22:25.250094 28782 layer_factory.hpp:77] Creating layer ip4
I0501 05:22:25.250114 28782 net.cpp:86] Creating Layer ip4
I0501 05:22:25.250118 28782 net.cpp:408] ip4 <- ip3
I0501 05:22:25.250123 28782 net.cpp:382] ip4 -> ip4
I0501 05:22:25.250210 28782 net.cpp:124] Setting up ip4
I0501 05:22:25.250216 28782 net.cpp:131] Top shape: 111 10 (1110)
I0501 05:22:25.250219 28782 net.cpp:139] Memory required for data: 9650340
I0501 05:22:25.250226 28782 layer_factory.hpp:77] Creating layer loss
I0501 05:22:25.250231 28782 net.cpp:86] Creating Layer loss
I0501 05:22:25.250234 28782 net.cpp:408] loss <- ip4
I0501 05:22:25.250238 28782 net.cpp:408] loss <- label
I0501 05:22:25.250242 28782 net.cpp:382] loss -> loss
I0501 05:22:25.250259 28782 layer_factory.hpp:77] Creating layer loss
…
I0501 05:22:25.251405 28782 solver.cpp:173] Creating test net (#0) specified by net file: ECE595/cifar/train_test/var_everything/cifar_train_test_416.prototxt
I0501 05:22:25.251431 28782 net.cpp:296] The NetState phase (1) differed from the phase (0) specified by a rule in layer cifar
I0501 05:22:25.251519 28782 net.cpp:53] Initializing net from parameters: 
name: "CIFAR"
state {
  phase: TEST
}
layer {
  name: "cifar"
  type: "Data"
  top: "data"
  top: "label"
  include {
    phase: TEST
  }
  transform_param {
    mean_file: "examples/cifar10/mean.binaryproto"
  }
  data_param {
    source: "examples/cifar10/cifar10_test_lmdb"
    batch_size: 1000
    backend: LMDB
  }
}
layer {
  name: "conv0"
  type: "Convolution"
  bottom: "data"
  top: "conv0"
  param {
    lr_mult: 1
  }
  param {
    lr_mult: 2
  }
  convolution_param {
    num_output: 8
    pad: 2
    kernel_size: 5
    stride: 1
    weight_filler {
      type: "gaussian"
      std: 0.01
    }
    bias_filler {
      type: "constant"
    }
  }
}
layer {
  name: "Sigmoid0"
  type: "Sigmoid"
  bottom: "conv0"
  top: "Sigmoid0"
}
layer {
  name: "pool0"
  type: "Pooling"
  bottom: "Sigmoid0"
  top: "pool0"
  pooling_param {
    pool: AVE
    kernel_size: 3
    stride: 2
  }
}
layer {
  name: "ip1"
  type: "InnerProduct"
  bottom: "pool0"
  top: "ip1"
  param {
    lr_mult: 1
  }
  param {
    lr_mult: 2
  }
  inner_product_param {
    num_output: 80
    weight_filler {
      type: "gaussian"
      std: 0.01
    }
    bias_filler {
      type: "constant"
    }
  }
}
layer {
  name: "relu1"
  type: "ReLU"
  bottom: "ip1"
  top: "ip1"
}
layer {
  name: "ip2"
  type: "InnerProduct"
  bottom: "ip1"
  top: "ip2"
  param {
    lr_mult: 1
  }
  param {
    lr_mult: 2
  }
  inner_product_param {
    num_output: 10
    weight_filler {
      type: "gaussian"
      std: 0.01
    }
    bias_filler {
      type: "constant"
    }
  }
}
layer {
  name: "relu2"
  type: "ReLU"
  bottom: "ip2"
  top: "ip2"
}
layer {
  name: "ip3"
  type: "InnerProduct"
  bottom: "ip2"
  top: "ip3"
  param {
    lr_mult: 1
  }
  param {
    lr_mult: 2
  }
  inner_product_param {
    num_output: 20
    weight_filler {
      type: "gaussian"
      std: 0.01
    }
    bias_filler {
      type: "constant"
    }
  }
}
layer {
  name: "relu3"
  type: "ReLU"
  bottom: "ip3"
  top: "ip3"
}
layer {
  name: "ip4"
  type: "InnerProduct"
  bottom: "ip3"
  top: "ip4"
  param {
    lr_mult: 1
  }
  param {
    lr_mult: 2
  }
  inner_product_param {
    num_output: 10
    weight_filler {
      type: "gaussian"
      std: 0.01
    }
    bias_filler {
      type: "constant"
    }
  }
}
layer {
  name: "accuracy"
  type: "Accuracy"
  bottom: "ip4"
  bottom: "label"
  top: "accuracy"
  include {
    phase: TEST
  }
}
layer {
  name: "loss"
  type: "SoftmaxWithLoss"
  bottom: "ip4"
  bottom: "label"
  top: "loss"
}
I0501 05:22:25.251608 28782 layer_factory.hpp:77] Creating layer cifar
I0501 05:22:25.251654 28782 db_lmdb.cpp:35] Opened lmdb examples/cifar10/cifar10_test_lmdb
I0501 05:22:25.251667 28782 net.cpp:86] Creating Layer cifar
I0501 05:22:25.251670 28782 net.cpp:382] cifar -> data
I0501 05:22:25.251677 28782 net.cpp:382] cifar -> label
I0501 05:22:25.251683 28782 data_transformer.cpp:25] Loading mean file from: examples/cifar10/mean.binaryproto
I0501 05:22:25.251817 28782 data_layer.cpp:45] output data size: 1000,3,32,32
I0501 05:22:25.273335 28782 net.cpp:124] Setting up cifar
I0501 05:22:25.273375 28782 net.cpp:131] Top shape: 1000 3 32 32 (3072000)
I0501 05:22:25.273381 28782 net.cpp:131] Top shape: 1000 (1000)
I0501 05:22:25.273401 28782 net.cpp:139] Memory required for data: 12292000
I0501 05:22:25.273406 28782 layer_factory.hpp:77] Creating layer label_cifar_1_split
I0501 05:22:25.273434 28782 net.cpp:86] Creating Layer label_cifar_1_split
I0501 05:22:25.273439 28782 net.cpp:408] label_cifar_1_split <- label
I0501 05:22:25.273445 28782 net.cpp:382] label_cifar_1_split -> label_cifar_1_split_0
I0501 05:22:25.273469 28782 net.cpp:382] label_cifar_1_split -> label_cifar_1_split_1
I0501 05:22:25.273561 28782 net.cpp:124] Setting up label_cifar_1_split
I0501 05:22:25.273571 28782 net.cpp:131] Top shape: 1000 (1000)
I0501 05:22:25.273574 28782 net.cpp:131] Top shape: 1000 (1000)
I0501 05:22:25.273577 28782 net.cpp:139] Memory required for data: 12300000
I0501 05:22:25.273581 28782 layer_factory.hpp:77] Creating layer conv0
I0501 05:22:25.273592 28782 net.cpp:86] Creating Layer conv0
I0501 05:22:25.273596 28782 net.cpp:408] conv0 <- data
I0501 05:22:25.273602 28782 net.cpp:382] conv0 -> conv0
I0501 05:22:25.275226 28782 net.cpp:124] Setting up conv0
I0501 05:22:25.275254 28782 net.cpp:131] Top shape: 1000 8 32 32 (8192000)
I0501 05:22:25.275259 28782 net.cpp:139] Memory required for data: 45068000
I0501 05:22:25.275267 28782 layer_factory.hpp:77] Creating layer Sigmoid0
I0501 05:22:25.275274 28782 net.cpp:86] Creating Layer Sigmoid0
I0501 05:22:25.275276 28782 net.cpp:408] Sigmoid0 <- conv0
I0501 05:22:25.275281 28782 net.cpp:382] Sigmoid0 -> Sigmoid0
I0501 05:22:25.275459 28782 net.cpp:124] Setting up Sigmoid0
I0501 05:22:25.275468 28782 net.cpp:131] Top shape: 1000 8 32 32 (8192000)
I0501 05:22:25.275471 28782 net.cpp:139] Memory required for data: 77836000
I0501 05:22:25.275475 28782 layer_factory.hpp:77] Creating layer pool0
I0501 05:22:25.275481 28782 net.cpp:86] Creating Layer pool0
I0501 05:22:25.275485 28782 net.cpp:408] pool0 <- Sigmoid0
I0501 05:22:25.275490 28782 net.cpp:382] pool0 -> pool0
I0501 05:22:25.275661 28782 net.cpp:124] Setting up pool0
I0501 05:22:25.275671 28782 net.cpp:131] Top shape: 1000 8 16 16 (2048000)
I0501 05:22:25.275676 28782 net.cpp:139] Memory required for data: 86028000
I0501 05:22:25.275678 28782 layer_factory.hpp:77] Creating layer ip1
I0501 05:22:25.275686 28782 net.cpp:86] Creating Layer ip1
I0501 05:22:25.275688 28782 net.cpp:408] ip1 <- pool0
I0501 05:22:25.275693 28782 net.cpp:382] ip1 -> ip1
I0501 05:22:25.280103 28782 net.cpp:124] Setting up ip1
I0501 05:22:25.280114 28782 net.cpp:131] Top shape: 1000 80 (80000)
I0501 05:22:25.280133 28782 net.cpp:139] Memory required for data: 86348000
I0501 05:22:25.280155 28782 layer_factory.hpp:77] Creating layer relu1
I0501 05:22:25.280163 28782 net.cpp:86] Creating Layer relu1
I0501 05:22:25.280165 28782 net.cpp:408] relu1 <- ip1
I0501 05:22:25.280185 28782 net.cpp:369] relu1 -> ip1 (in-place)
I0501 05:22:25.280364 28782 net.cpp:124] Setting up relu1
I0501 05:22:25.280374 28782 net.cpp:131] Top shape: 1000 80 (80000)
I0501 05:22:25.280376 28782 net.cpp:139] Memory required for data: 86668000
I0501 05:22:25.280380 28782 layer_factory.hpp:77] Creating layer ip2
I0501 05:22:25.280385 28782 net.cpp:86] Creating Layer ip2
I0501 05:22:25.280388 28782 net.cpp:408] ip2 <- ip1
I0501 05:22:25.280395 28782 net.cpp:382] ip2 -> ip2
I0501 05:22:25.280515 28782 net.cpp:124] Setting up ip2
I0501 05:22:25.280524 28782 net.cpp:131] Top shape: 1000 10 (10000)
I0501 05:22:25.280527 28782 net.cpp:139] Memory required for data: 86708000
I0501 05:22:25.280534 28782 layer_factory.hpp:77] Creating layer relu2
I0501 05:22:25.280539 28782 net.cpp:86] Creating Layer relu2
I0501 05:22:25.280542 28782 net.cpp:408] relu2 <- ip2
I0501 05:22:25.280547 28782 net.cpp:369] relu2 -> ip2 (in-place)
I0501 05:22:25.281340 28782 net.cpp:124] Setting up relu2
I0501 05:22:25.281368 28782 net.cpp:131] Top shape: 1000 10 (10000)
I0501 05:22:25.281373 28782 net.cpp:139] Memory required for data: 86748000
I0501 05:22:25.281375 28782 layer_factory.hpp:77] Creating layer ip3
I0501 05:22:25.281397 28782 net.cpp:86] Creating Layer ip3
I0501 05:22:25.281400 28782 net.cpp:408] ip3 <- ip2
I0501 05:22:25.281414 28782 net.cpp:382] ip3 -> ip3
I0501 05:22:25.281538 28782 net.cpp:124] Setting up ip3
I0501 05:22:25.281546 28782 net.cpp:131] Top shape: 1000 20 (20000)
I0501 05:22:25.281550 28782 net.cpp:139] Memory required for data: 86828000
I0501 05:22:25.281561 28782 layer_factory.hpp:77] Creating layer relu3
I0501 05:22:25.281566 28782 net.cpp:86] Creating Layer relu3
I0501 05:22:25.281569 28782 net.cpp:408] relu3 <- ip3
I0501 05:22:25.281574 28782 net.cpp:369] relu3 -> ip3 (in-place)
I0501 05:22:25.281718 28782 net.cpp:124] Setting up relu3
I0501 05:22:25.281726 28782 net.cpp:131] Top shape: 1000 20 (20000)
I0501 05:22:25.281729 28782 net.cpp:139] Memory required for data: 86908000
I0501 05:22:25.281733 28782 layer_factory.hpp:77] Creating layer ip4
I0501 05:22:25.281739 28782 net.cpp:86] Creating Layer ip4
I0501 05:22:25.281743 28782 net.cpp:408] ip4 <- ip3
I0501 05:22:25.281747 28782 net.cpp:382] ip4 -> ip4
I0501 05:22:25.281847 28782 net.cpp:124] Setting up ip4
I0501 05:22:25.281853 28782 net.cpp:131] Top shape: 1000 10 (10000)
I0501 05:22:25.281857 28782 net.cpp:139] Memory required for data: 86948000
I0501 05:22:25.281864 28782 layer_factory.hpp:77] Creating layer ip4_ip4_0_split
I0501 05:22:25.281870 28782 net.cpp:86] Creating Layer ip4_ip4_0_split
I0501 05:22:25.281873 28782 net.cpp:408] ip4_ip4_0_split <- ip4
I0501 05:22:25.281877 28782 net.cpp:382] ip4_ip4_0_split -> ip4_ip4_0_split_0
I0501 05:22:25.281883 28782 net.cpp:382] ip4_ip4_0_split -> ip4_ip4_0_split_1
I0501 05:22:25.281911 28782 net.cpp:124] Setting up ip4_ip4_0_split
I0501 05:22:25.281916 28782 net.cpp:131] Top shape: 1000 10 (10000)
I0501 05:22:25.281919 28782 net.cpp:131] Top shape: 1000 10 (10000)
I0501 05:22:25.281922 28782 net.cpp:139] Memory required for data: 87028000
I0501 05:22:25.281925 28782 layer_factory.hpp:77] Creating layer accuracy
I0501 05:22:25.281935 28782 net.cpp:86] Creating Layer accuracy
I0501 05:22:25.281939 28782 net.cpp:408] accuracy <- ip4_ip4_0_split_0
I0501 05:22:25.281942 28782 net.cpp:408] accuracy <- label_cifar_1_split_0
I0501 05:22:25.281947 28782 net.cpp:382] accuracy -> accuracy
…
