…
I0501 02:51:56.365795 17699 net.cpp:296] The NetState phase (0) differed from the phase (1) specified by a rule in layer cifar
I0501 02:51:56.365813 17699 net.cpp:296] The NetState phase (0) differed from the phase (1) specified by a rule in layer accuracy
I0501 02:51:56.365905 17699 net.cpp:53] Initializing net from parameters: 
name: "CIFAR"
state {
  phase: TRAIN
  level: 0
  stage: ""
}
layer {
  name: "cifar"
  type: "Data"
  top: "data"
  top: "label"
  include {
    phase: TRAIN
  }
  transform_param {
    mean_file: "examples/cifar10/mean.binaryproto"
  }
  data_param {
    source: "examples/cifar10/cifar10_train_lmdb"
    batch_size: 111
    backend: LMDB
  }
}
layer {
  name: "conv0"
  type: "Convolution"
  bottom: "data"
  top: "conv0"
  param {
    lr_mult: 1
  }
  param {
    lr_mult: 2
  }
  convolution_param {
    num_output: 8
    pad: 2
    kernel_size: 5
    stride: 1
    weight_filler {
      type: "gaussian"
      std: 0.01
    }
    bias_filler {
      type: "constant"
    }
  }
}
layer {
  name: "Sigmoid0"
  type: "Sigmoid"
  bottom: "conv0"
  top: "Sigmoid0"
}
layer {
  name: "pool0"
  type: "Pooling"
  bottom: "Sigmoid0"
  top: "pool0"
  pooling_param {
    pool: AVE
    kernel_size: 3
    stride: 2
  }
}
layer {
  name: "ip1"
  type: "InnerProduct"
  bottom: "pool0"
  top: "ip1"
  param {
    lr_mult: 1
  }
  param {
    lr_mult: 2
  }
  inner_product_param {
    num_output: 160
    weight_filler {
      type: "gaussian"
      std: 0.01
    }
    bias_filler {
      type: "constant"
    }
  }
}
layer {
  name: "relu1"
  type: "ReLU"
  bottom: "ip1"
  top: "ip1"
}
layer {
  name: "ip2"
  type: "InnerProduct"
  bottom: "ip1"
  top: "ip2"
  param {
    lr_mult: 1
  }
  param {
    lr_mult: 2
  }
  inner_product_param {
    num_output: 10
    weight_filler {
      type: "gaussian"
      std: 0.01
    }
    bias_filler {
      type: "constant"
    }
  }
}
layer {
  name: "relu2"
  type: "ReLU"
  bottom: "ip2"
  top: "ip2"
}
layer {
  name: "ip3"
  type: "InnerProduct"
  bottom: "ip2"
  top: "ip3"
  param {
    lr_mult: 1
  }
  param {
    lr_mult: 2
  }
  inner_product_param {
    num_output: 10
    weight_filler {
      type: "gaussian"
      std: 0.01
    }
    bias_filler {
      type: "constant"
    }
  }
}
layer {
  name: "loss"
  type: "SoftmaxWithLoss"
  bottom: "ip3"
  bottom: "label"
  top: "loss"
}
I0501 02:51:56.365980 17699 layer_factory.hpp:77] Creating layer cifar
I0501 02:51:56.366078 17699 db_lmdb.cpp:35] Opened lmdb examples/cifar10/cifar10_train_lmdb
I0501 02:51:56.366107 17699 net.cpp:86] Creating Layer cifar
I0501 02:51:56.366118 17699 net.cpp:382] cifar -> data
I0501 02:51:56.366142 17699 net.cpp:382] cifar -> label
I0501 02:51:56.366155 17699 data_transformer.cpp:25] Loading mean file from: examples/cifar10/mean.binaryproto
I0501 02:51:56.368265 17699 data_layer.cpp:45] output data size: 111,3,32,32
I0501 02:51:56.376132 17699 net.cpp:124] Setting up cifar
I0501 02:51:56.376149 17699 net.cpp:131] Top shape: 111 3 32 32 (340992)
I0501 02:51:56.376155 17699 net.cpp:131] Top shape: 111 (111)
I0501 02:51:56.376159 17699 net.cpp:139] Memory required for data: 1364412
I0501 02:51:56.376166 17699 layer_factory.hpp:77] Creating layer conv0
I0501 02:51:56.376199 17699 net.cpp:86] Creating Layer conv0
I0501 02:51:56.376204 17699 net.cpp:408] conv0 <- data
I0501 02:51:56.376219 17699 net.cpp:382] conv0 -> conv0
I0501 02:51:56.666405 17699 net.cpp:124] Setting up conv0
I0501 02:51:56.666455 17699 net.cpp:131] Top shape: 111 8 32 32 (909312)
I0501 02:51:56.666460 17699 net.cpp:139] Memory required for data: 5001660
I0501 02:51:56.666477 17699 layer_factory.hpp:77] Creating layer Sigmoid0
I0501 02:51:56.666491 17699 net.cpp:86] Creating Layer Sigmoid0
I0501 02:51:56.666496 17699 net.cpp:408] Sigmoid0 <- conv0
I0501 02:51:56.666501 17699 net.cpp:382] Sigmoid0 -> Sigmoid0
I0501 02:51:56.666698 17699 net.cpp:124] Setting up Sigmoid0
I0501 02:51:56.666709 17699 net.cpp:131] Top shape: 111 8 32 32 (909312)
I0501 02:51:56.666713 17699 net.cpp:139] Memory required for data: 8638908
I0501 02:51:56.666718 17699 layer_factory.hpp:77] Creating layer pool0
I0501 02:51:56.666725 17699 net.cpp:86] Creating Layer pool0
I0501 02:51:56.666729 17699 net.cpp:408] pool0 <- Sigmoid0
I0501 02:51:56.666734 17699 net.cpp:382] pool0 -> pool0
I0501 02:51:56.667584 17699 net.cpp:124] Setting up pool0
I0501 02:51:56.667600 17699 net.cpp:131] Top shape: 111 8 16 16 (227328)
I0501 02:51:56.667605 17699 net.cpp:139] Memory required for data: 9548220
I0501 02:51:56.667609 17699 layer_factory.hpp:77] Creating layer ip1
I0501 02:51:56.667619 17699 net.cpp:86] Creating Layer ip1
I0501 02:51:56.667623 17699 net.cpp:408] ip1 <- pool0
I0501 02:51:56.667630 17699 net.cpp:382] ip1 -> ip1
I0501 02:51:56.679033 17699 net.cpp:124] Setting up ip1
I0501 02:51:56.679046 17699 net.cpp:131] Top shape: 111 160 (17760)
I0501 02:51:56.679050 17699 net.cpp:139] Memory required for data: 9619260
I0501 02:51:56.679060 17699 layer_factory.hpp:77] Creating layer relu1
I0501 02:51:56.679066 17699 net.cpp:86] Creating Layer relu1
I0501 02:51:56.679070 17699 net.cpp:408] relu1 <- ip1
I0501 02:51:56.679075 17699 net.cpp:369] relu1 -> ip1 (in-place)
I0501 02:51:56.679250 17699 net.cpp:124] Setting up relu1
I0501 02:51:56.679260 17699 net.cpp:131] Top shape: 111 160 (17760)
I0501 02:51:56.679262 17699 net.cpp:139] Memory required for data: 9690300
I0501 02:51:56.679266 17699 layer_factory.hpp:77] Creating layer ip2
I0501 02:51:56.679273 17699 net.cpp:86] Creating Layer ip2
I0501 02:51:56.679276 17699 net.cpp:408] ip2 <- ip1
I0501 02:51:56.679282 17699 net.cpp:382] ip2 -> ip2
I0501 02:51:56.679432 17699 net.cpp:124] Setting up ip2
I0501 02:51:56.679440 17699 net.cpp:131] Top shape: 111 10 (1110)
I0501 02:51:56.679443 17699 net.cpp:139] Memory required for data: 9694740
I0501 02:51:56.679451 17699 layer_factory.hpp:77] Creating layer relu2
I0501 02:51:56.679457 17699 net.cpp:86] Creating Layer relu2
I0501 02:51:56.679461 17699 net.cpp:408] relu2 <- ip2
I0501 02:51:56.679466 17699 net.cpp:369] relu2 -> ip2 (in-place)
I0501 02:51:56.679632 17699 net.cpp:124] Setting up relu2
I0501 02:51:56.679641 17699 net.cpp:131] Top shape: 111 10 (1110)
I0501 02:51:56.679644 17699 net.cpp:139] Memory required for data: 9699180
I0501 02:51:56.679647 17699 layer_factory.hpp:77] Creating layer ip3
I0501 02:51:56.679656 17699 net.cpp:86] Creating Layer ip3
I0501 02:51:56.679659 17699 net.cpp:408] ip3 <- ip2
I0501 02:51:56.679664 17699 net.cpp:382] ip3 -> ip3
I0501 02:51:56.679767 17699 net.cpp:124] Setting up ip3
I0501 02:51:56.679774 17699 net.cpp:131] Top shape: 111 10 (1110)
I0501 02:51:56.679777 17699 net.cpp:139] Memory required for data: 9703620
I0501 02:51:56.679783 17699 layer_factory.hpp:77] Creating layer loss
I0501 02:51:56.679788 17699 net.cpp:86] Creating Layer loss
I0501 02:51:56.679792 17699 net.cpp:408] loss <- ip3
I0501 02:51:56.679796 17699 net.cpp:408] loss <- label
I0501 02:51:56.679802 17699 net.cpp:382] loss -> loss
I0501 02:51:56.679822 17699 layer_factory.hpp:77] Creating layer loss
…
I0501 02:51:56.680475 17699 solver.cpp:173] Creating test net (#0) specified by net file: ECE595/cifar/train_test/var_everything/cifar_train_test_335.prototxt
I0501 02:51:56.680505 17699 net.cpp:296] The NetState phase (1) differed from the phase (0) specified by a rule in layer cifar
I0501 02:51:56.680598 17699 net.cpp:53] Initializing net from parameters: 
name: "CIFAR"
state {
  phase: TEST
}
layer {
  name: "cifar"
  type: "Data"
  top: "data"
  top: "label"
  include {
    phase: TEST
  }
  transform_param {
    mean_file: "examples/cifar10/mean.binaryproto"
  }
  data_param {
    source: "examples/cifar10/cifar10_test_lmdb"
    batch_size: 1000
    backend: LMDB
  }
}
layer {
  name: "conv0"
  type: "Convolution"
  bottom: "data"
  top: "conv0"
  param {
    lr_mult: 1
  }
  param {
    lr_mult: 2
  }
  convolution_param {
    num_output: 8
    pad: 2
    kernel_size: 5
    stride: 1
    weight_filler {
      type: "gaussian"
      std: 0.01
    }
    bias_filler {
      type: "constant"
    }
  }
}
layer {
  name: "Sigmoid0"
  type: "Sigmoid"
  bottom: "conv0"
  top: "Sigmoid0"
}
layer {
  name: "pool0"
  type: "Pooling"
  bottom: "Sigmoid0"
  top: "pool0"
  pooling_param {
    pool: AVE
    kernel_size: 3
    stride: 2
  }
}
layer {
  name: "ip1"
  type: "InnerProduct"
  bottom: "pool0"
  top: "ip1"
  param {
    lr_mult: 1
  }
  param {
    lr_mult: 2
  }
  inner_product_param {
    num_output: 160
    weight_filler {
      type: "gaussian"
      std: 0.01
    }
    bias_filler {
      type: "constant"
    }
  }
}
layer {
  name: "relu1"
  type: "ReLU"
  bottom: "ip1"
  top: "ip1"
}
layer {
  name: "ip2"
  type: "InnerProduct"
  bottom: "ip1"
  top: "ip2"
  param {
    lr_mult: 1
  }
  param {
    lr_mult: 2
  }
  inner_product_param {
    num_output: 10
    weight_filler {
      type: "gaussian"
      std: 0.01
    }
    bias_filler {
      type: "constant"
    }
  }
}
layer {
  name: "relu2"
  type: "ReLU"
  bottom: "ip2"
  top: "ip2"
}
layer {
  name: "ip3"
  type: "InnerProduct"
  bottom: "ip2"
  top: "ip3"
  param {
    lr_mult: 1
  }
  param {
    lr_mult: 2
  }
  inner_product_param {
    num_output: 10
    weight_filler {
      type: "gaussian"
      std: 0.01
    }
    bias_filler {
      type: "constant"
    }
  }
}
layer {
  name: "accuracy"
  type: "Accuracy"
  bottom: "ip3"
  bottom: "label"
  top: "accuracy"
  include {
    phase: TEST
  }
}
layer {
  name: "loss"
  type: "SoftmaxWithLoss"
  bottom: "ip3"
  bottom: "label"
  top: "loss"
}
I0501 02:51:56.680667 17699 layer_factory.hpp:77] Creating layer cifar
I0501 02:51:56.680716 17699 db_lmdb.cpp:35] Opened lmdb examples/cifar10/cifar10_test_lmdb
I0501 02:51:56.680728 17699 net.cpp:86] Creating Layer cifar
I0501 02:51:56.680733 17699 net.cpp:382] cifar -> data
I0501 02:51:56.680742 17699 net.cpp:382] cifar -> label
I0501 02:51:56.680749 17699 data_transformer.cpp:25] Loading mean file from: examples/cifar10/mean.binaryproto
I0501 02:51:56.680920 17699 data_layer.cpp:45] output data size: 1000,3,32,32
I0501 02:51:56.704319 17699 net.cpp:124] Setting up cifar
I0501 02:51:56.704347 17699 net.cpp:131] Top shape: 1000 3 32 32 (3072000)
I0501 02:51:56.704354 17699 net.cpp:131] Top shape: 1000 (1000)
I0501 02:51:56.704356 17699 net.cpp:139] Memory required for data: 12292000
I0501 02:51:56.704363 17699 layer_factory.hpp:77] Creating layer label_cifar_1_split
I0501 02:51:56.704380 17699 net.cpp:86] Creating Layer label_cifar_1_split
I0501 02:51:56.704398 17699 net.cpp:408] label_cifar_1_split <- label
I0501 02:51:56.704406 17699 net.cpp:382] label_cifar_1_split -> label_cifar_1_split_0
I0501 02:51:56.704414 17699 net.cpp:382] label_cifar_1_split -> label_cifar_1_split_1
I0501 02:51:56.704491 17699 net.cpp:124] Setting up label_cifar_1_split
I0501 02:51:56.704499 17699 net.cpp:131] Top shape: 1000 (1000)
I0501 02:51:56.704504 17699 net.cpp:131] Top shape: 1000 (1000)
I0501 02:51:56.704506 17699 net.cpp:139] Memory required for data: 12300000
I0501 02:51:56.704509 17699 layer_factory.hpp:77] Creating layer conv0
I0501 02:51:56.704521 17699 net.cpp:86] Creating Layer conv0
I0501 02:51:56.704525 17699 net.cpp:408] conv0 <- data
I0501 02:51:56.704530 17699 net.cpp:382] conv0 -> conv0
I0501 02:51:56.706214 17699 net.cpp:124] Setting up conv0
I0501 02:51:56.706228 17699 net.cpp:131] Top shape: 1000 8 32 32 (8192000)
I0501 02:51:56.706233 17699 net.cpp:139] Memory required for data: 45068000
I0501 02:51:56.706243 17699 layer_factory.hpp:77] Creating layer Sigmoid0
I0501 02:51:56.706250 17699 net.cpp:86] Creating Layer Sigmoid0
I0501 02:51:56.706254 17699 net.cpp:408] Sigmoid0 <- conv0
I0501 02:51:56.706259 17699 net.cpp:382] Sigmoid0 -> Sigmoid0
I0501 02:51:56.707173 17699 net.cpp:124] Setting up Sigmoid0
I0501 02:51:56.707186 17699 net.cpp:131] Top shape: 1000 8 32 32 (8192000)
I0501 02:51:56.707190 17699 net.cpp:139] Memory required for data: 77836000
I0501 02:51:56.707193 17699 layer_factory.hpp:77] Creating layer pool0
I0501 02:51:56.707201 17699 net.cpp:86] Creating Layer pool0
I0501 02:51:56.707206 17699 net.cpp:408] pool0 <- Sigmoid0
I0501 02:51:56.707211 17699 net.cpp:382] pool0 -> pool0
I0501 02:51:56.708364 17699 net.cpp:124] Setting up pool0
I0501 02:51:56.708374 17699 net.cpp:131] Top shape: 1000 8 16 16 (2048000)
I0501 02:51:56.708377 17699 net.cpp:139] Memory required for data: 86028000
I0501 02:51:56.708381 17699 layer_factory.hpp:77] Creating layer ip1
I0501 02:51:56.708391 17699 net.cpp:86] Creating Layer ip1
I0501 02:51:56.708395 17699 net.cpp:408] ip1 <- pool0
I0501 02:51:56.708400 17699 net.cpp:382] ip1 -> ip1
I0501 02:51:56.718256 17699 net.cpp:124] Setting up ip1
I0501 02:51:56.718271 17699 net.cpp:131] Top shape: 1000 160 (160000)
I0501 02:51:56.718273 17699 net.cpp:139] Memory required for data: 86668000
I0501 02:51:56.718282 17699 layer_factory.hpp:77] Creating layer relu1
I0501 02:51:56.718288 17699 net.cpp:86] Creating Layer relu1
I0501 02:51:56.718292 17699 net.cpp:408] relu1 <- ip1
I0501 02:51:56.718298 17699 net.cpp:369] relu1 -> ip1 (in-place)
I0501 02:51:56.718493 17699 net.cpp:124] Setting up relu1
I0501 02:51:56.718518 17699 net.cpp:131] Top shape: 1000 160 (160000)
I0501 02:51:56.718538 17699 net.cpp:139] Memory required for data: 87308000
I0501 02:51:56.718541 17699 layer_factory.hpp:77] Creating layer ip2
I0501 02:51:56.718549 17699 net.cpp:86] Creating Layer ip2
I0501 02:51:56.718552 17699 net.cpp:408] ip2 <- ip1
I0501 02:51:56.718559 17699 net.cpp:382] ip2 -> ip2
I0501 02:51:56.718725 17699 net.cpp:124] Setting up ip2
I0501 02:51:56.718734 17699 net.cpp:131] Top shape: 1000 10 (10000)
I0501 02:51:56.718737 17699 net.cpp:139] Memory required for data: 87348000
I0501 02:51:56.718745 17699 layer_factory.hpp:77] Creating layer relu2
I0501 02:51:56.718752 17699 net.cpp:86] Creating Layer relu2
I0501 02:51:56.718756 17699 net.cpp:408] relu2 <- ip2
I0501 02:51:56.718761 17699 net.cpp:369] relu2 -> ip2 (in-place)
I0501 02:51:56.718966 17699 net.cpp:124] Setting up relu2
I0501 02:51:56.718976 17699 net.cpp:131] Top shape: 1000 10 (10000)
I0501 02:51:56.718978 17699 net.cpp:139] Memory required for data: 87388000
I0501 02:51:56.718982 17699 layer_factory.hpp:77] Creating layer ip3
I0501 02:51:56.718989 17699 net.cpp:86] Creating Layer ip3
I0501 02:51:56.718992 17699 net.cpp:408] ip3 <- ip2
I0501 02:51:56.718997 17699 net.cpp:382] ip3 -> ip3
I0501 02:51:56.719117 17699 net.cpp:124] Setting up ip3
I0501 02:51:56.719125 17699 net.cpp:131] Top shape: 1000 10 (10000)
I0501 02:51:56.719127 17699 net.cpp:139] Memory required for data: 87428000
I0501 02:51:56.719143 17699 layer_factory.hpp:77] Creating layer ip3_ip3_0_split
I0501 02:51:56.719149 17699 net.cpp:86] Creating Layer ip3_ip3_0_split
I0501 02:51:56.719152 17699 net.cpp:408] ip3_ip3_0_split <- ip3
I0501 02:51:56.719157 17699 net.cpp:382] ip3_ip3_0_split -> ip3_ip3_0_split_0
I0501 02:51:56.719162 17699 net.cpp:382] ip3_ip3_0_split -> ip3_ip3_0_split_1
I0501 02:51:56.719195 17699 net.cpp:124] Setting up ip3_ip3_0_split
I0501 02:51:56.719200 17699 net.cpp:131] Top shape: 1000 10 (10000)
I0501 02:51:56.719203 17699 net.cpp:131] Top shape: 1000 10 (10000)
I0501 02:51:56.719207 17699 net.cpp:139] Memory required for data: 87508000
I0501 02:51:56.719209 17699 layer_factory.hpp:77] Creating layer accuracy
I0501 02:51:56.719214 17699 net.cpp:86] Creating Layer accuracy
I0501 02:51:56.719218 17699 net.cpp:408] accuracy <- ip3_ip3_0_split_0
I0501 02:51:56.719221 17699 net.cpp:408] accuracy <- label_cifar_1_split_0
I0501 02:51:56.719228 17699 net.cpp:382] accuracy -> accuracy
…
