…
I0430 19:16:11.865665 25552 net.cpp:296] The NetState phase (0) differed from the phase (1) specified by a rule in layer cifar
I0430 19:16:11.865682 25552 net.cpp:296] The NetState phase (0) differed from the phase (1) specified by a rule in layer accuracy
I0430 19:16:11.865767 25552 net.cpp:53] Initializing net from parameters: 
name: "CIFAR"
state {
  phase: TRAIN
  level: 0
  stage: ""
}
layer {
  name: "cifar"
  type: "Data"
  top: "data"
  top: "label"
  include {
    phase: TRAIN
  }
  transform_param {
    mean_file: "examples/cifar10/mean.binaryproto"
  }
  data_param {
    source: "examples/cifar10/cifar10_train_lmdb"
    batch_size: 111
    backend: LMDB
  }
}
layer {
  name: "ip1"
  type: "InnerProduct"
  bottom: "data"
  top: "ip1"
  param {
    lr_mult: 1
  }
  param {
    lr_mult: 2
  }
  inner_product_param {
    num_output: 40
    weight_filler {
      type: "gaussian"
      std: 0.01
    }
    bias_filler {
      type: "constant"
    }
  }
}
layer {
  name: "relu1"
  type: "ReLU"
  bottom: "ip1"
  top: "ip1"
}
layer {
  name: "ip2"
  type: "InnerProduct"
  bottom: "ip1"
  top: "ip2"
  param {
    lr_mult: 1
  }
  param {
    lr_mult: 2
  }
  inner_product_param {
    num_output: 40
    weight_filler {
      type: "gaussian"
      std: 0.01
    }
    bias_filler {
      type: "constant"
    }
  }
}
layer {
  name: "relu2"
  type: "ReLU"
  bottom: "ip2"
  top: "ip2"
}
layer {
  name: "ip3"
  type: "InnerProduct"
  bottom: "ip2"
  top: "ip3"
  param {
    lr_mult: 1
  }
  param {
    lr_mult: 2
  }
  inner_product_param {
    num_output: 40
    weight_filler {
      type: "gaussian"
      std: 0.01
    }
    bias_filler {
      type: "constant"
    }
  }
}
layer {
  name: "relu3"
  type: "ReLU"
  bottom: "ip3"
  top: "ip3"
}
layer {
  name: "ip4"
  type: "InnerProduct"
  bottom: "ip3"
  top: "ip4"
  param {
    lr_mult: 1
  }
  param {
    lr_mult: 2
  }
  inner_product_param {
    num_output: 10
    weight_filler {
      type: "gaussian"
      std: 0.01
    }
    bias_filler {
      type: "constant"
    }
  }
}
layer {
  name: "loss"
  type: "SoftmaxWithLoss"
  bottom: "ip4"
  bottom: "label"
  top: "loss"
}
I0430 19:16:11.865835 25552 layer_factory.hpp:77] Creating layer cifar
I0430 19:16:11.865933 25552 db_lmdb.cpp:35] Opened lmdb examples/cifar10/cifar10_train_lmdb
I0430 19:16:11.865960 25552 net.cpp:86] Creating Layer cifar
I0430 19:16:11.865968 25552 net.cpp:382] cifar -> data
I0430 19:16:11.865990 25552 net.cpp:382] cifar -> label
I0430 19:16:11.866003 25552 data_transformer.cpp:25] Loading mean file from: examples/cifar10/mean.binaryproto
I0430 19:16:11.868157 25552 data_layer.cpp:45] output data size: 111,3,32,32
I0430 19:16:11.876058 25552 net.cpp:124] Setting up cifar
I0430 19:16:11.876077 25552 net.cpp:131] Top shape: 111 3 32 32 (340992)
I0430 19:16:11.876085 25552 net.cpp:131] Top shape: 111 (111)
I0430 19:16:11.876087 25552 net.cpp:139] Memory required for data: 1364412
I0430 19:16:11.876096 25552 layer_factory.hpp:77] Creating layer ip1
I0430 19:16:11.876142 25552 net.cpp:86] Creating Layer ip1
I0430 19:16:11.876148 25552 net.cpp:408] ip1 <- data
I0430 19:16:11.876161 25552 net.cpp:382] ip1 -> ip1
I0430 19:16:11.880424 25552 net.cpp:124] Setting up ip1
I0430 19:16:11.880436 25552 net.cpp:131] Top shape: 111 40 (4440)
I0430 19:16:11.880440 25552 net.cpp:139] Memory required for data: 1382172
I0430 19:16:11.880455 25552 layer_factory.hpp:77] Creating layer relu1
I0430 19:16:11.880465 25552 net.cpp:86] Creating Layer relu1
I0430 19:16:11.880486 25552 net.cpp:408] relu1 <- ip1
I0430 19:16:11.880491 25552 net.cpp:369] relu1 -> ip1 (in-place)
I0430 19:16:12.156111 25552 net.cpp:124] Setting up relu1
I0430 19:16:12.156170 25552 net.cpp:131] Top shape: 111 40 (4440)
I0430 19:16:12.156174 25552 net.cpp:139] Memory required for data: 1399932
I0430 19:16:12.156180 25552 layer_factory.hpp:77] Creating layer ip2
I0430 19:16:12.156200 25552 net.cpp:86] Creating Layer ip2
I0430 19:16:12.156205 25552 net.cpp:408] ip2 <- ip1
I0430 19:16:12.156227 25552 net.cpp:382] ip2 -> ip2
I0430 19:16:12.156404 25552 net.cpp:124] Setting up ip2
I0430 19:16:12.156414 25552 net.cpp:131] Top shape: 111 40 (4440)
I0430 19:16:12.156416 25552 net.cpp:139] Memory required for data: 1417692
I0430 19:16:12.156426 25552 layer_factory.hpp:77] Creating layer relu2
I0430 19:16:12.156433 25552 net.cpp:86] Creating Layer relu2
I0430 19:16:12.156436 25552 net.cpp:408] relu2 <- ip2
I0430 19:16:12.156441 25552 net.cpp:369] relu2 -> ip2 (in-place)
I0430 19:16:12.157281 25552 net.cpp:124] Setting up relu2
I0430 19:16:12.157294 25552 net.cpp:131] Top shape: 111 40 (4440)
I0430 19:16:12.157299 25552 net.cpp:139] Memory required for data: 1435452
I0430 19:16:12.157301 25552 layer_factory.hpp:77] Creating layer ip3
I0430 19:16:12.157308 25552 net.cpp:86] Creating Layer ip3
I0430 19:16:12.157311 25552 net.cpp:408] ip3 <- ip2
I0430 19:16:12.157316 25552 net.cpp:382] ip3 -> ip3
I0430 19:16:12.157472 25552 net.cpp:124] Setting up ip3
I0430 19:16:12.157480 25552 net.cpp:131] Top shape: 111 40 (4440)
I0430 19:16:12.157482 25552 net.cpp:139] Memory required for data: 1453212
I0430 19:16:12.157490 25552 layer_factory.hpp:77] Creating layer relu3
I0430 19:16:12.157495 25552 net.cpp:86] Creating Layer relu3
I0430 19:16:12.157498 25552 net.cpp:408] relu3 <- ip3
I0430 19:16:12.157502 25552 net.cpp:369] relu3 -> ip3 (in-place)
I0430 19:16:12.157649 25552 net.cpp:124] Setting up relu3
I0430 19:16:12.157656 25552 net.cpp:131] Top shape: 111 40 (4440)
I0430 19:16:12.157660 25552 net.cpp:139] Memory required for data: 1470972
I0430 19:16:12.157662 25552 layer_factory.hpp:77] Creating layer ip4
I0430 19:16:12.157668 25552 net.cpp:86] Creating Layer ip4
I0430 19:16:12.157671 25552 net.cpp:408] ip4 <- ip3
I0430 19:16:12.157676 25552 net.cpp:382] ip4 -> ip4
I0430 19:16:12.158608 25552 net.cpp:124] Setting up ip4
I0430 19:16:12.158620 25552 net.cpp:131] Top shape: 111 10 (1110)
I0430 19:16:12.158623 25552 net.cpp:139] Memory required for data: 1475412
I0430 19:16:12.158629 25552 layer_factory.hpp:77] Creating layer loss
I0430 19:16:12.158637 25552 net.cpp:86] Creating Layer loss
I0430 19:16:12.158639 25552 net.cpp:408] loss <- ip4
I0430 19:16:12.158643 25552 net.cpp:408] loss <- label
I0430 19:16:12.158649 25552 net.cpp:382] loss -> loss
I0430 19:16:12.158682 25552 layer_factory.hpp:77] Creating layer loss
…
I0430 19:16:12.159265 25552 solver.cpp:173] Creating test net (#0) specified by net file: ECE595/cifar/train_test/var_everything/cifar_train_test_92.prototxt
I0430 19:16:12.159304 25552 net.cpp:296] The NetState phase (1) differed from the phase (0) specified by a rule in layer cifar
I0430 19:16:12.159384 25552 net.cpp:53] Initializing net from parameters: 
name: "CIFAR"
state {
  phase: TEST
}
layer {
  name: "cifar"
  type: "Data"
  top: "data"
  top: "label"
  include {
    phase: TEST
  }
  transform_param {
    mean_file: "examples/cifar10/mean.binaryproto"
  }
  data_param {
    source: "examples/cifar10/cifar10_test_lmdb"
    batch_size: 1000
    backend: LMDB
  }
}
layer {
  name: "ip1"
  type: "InnerProduct"
  bottom: "data"
  top: "ip1"
  param {
    lr_mult: 1
  }
  param {
    lr_mult: 2
  }
  inner_product_param {
    num_output: 40
    weight_filler {
      type: "gaussian"
      std: 0.01
    }
    bias_filler {
      type: "constant"
    }
  }
}
layer {
  name: "relu1"
  type: "ReLU"
  bottom: "ip1"
  top: "ip1"
}
layer {
  name: "ip2"
  type: "InnerProduct"
  bottom: "ip1"
  top: "ip2"
  param {
    lr_mult: 1
  }
  param {
    lr_mult: 2
  }
  inner_product_param {
    num_output: 40
    weight_filler {
      type: "gaussian"
      std: 0.01
    }
    bias_filler {
      type: "constant"
    }
  }
}
layer {
  name: "relu2"
  type: "ReLU"
  bottom: "ip2"
  top: "ip2"
}
layer {
  name: "ip3"
  type: "InnerProduct"
  bottom: "ip2"
  top: "ip3"
  param {
    lr_mult: 1
  }
  param {
    lr_mult: 2
  }
  inner_product_param {
    num_output: 40
    weight_filler {
      type: "gaussian"
      std: 0.01
    }
    bias_filler {
      type: "constant"
    }
  }
}
layer {
  name: "relu3"
  type: "ReLU"
  bottom: "ip3"
  top: "ip3"
}
layer {
  name: "ip4"
  type: "InnerProduct"
  bottom: "ip3"
  top: "ip4"
  param {
    lr_mult: 1
  }
  param {
    lr_mult: 2
  }
  inner_product_param {
    num_output: 10
    weight_filler {
      type: "gaussian"
      std: 0.01
    }
    bias_filler {
      type: "constant"
    }
  }
}
layer {
  name: "accuracy"
  type: "Accuracy"
  bottom: "ip4"
  bottom: "label"
  top: "accuracy"
  include {
    phase: TEST
  }
}
layer {
  name: "loss"
  type: "SoftmaxWithLoss"
  bottom: "ip4"
  bottom: "label"
  top: "loss"
}
I0430 19:16:12.159445 25552 layer_factory.hpp:77] Creating layer cifar
I0430 19:16:12.159504 25552 db_lmdb.cpp:35] Opened lmdb examples/cifar10/cifar10_test_lmdb
I0430 19:16:12.159517 25552 net.cpp:86] Creating Layer cifar
I0430 19:16:12.159520 25552 net.cpp:382] cifar -> data
I0430 19:16:12.159528 25552 net.cpp:382] cifar -> label
I0430 19:16:12.159534 25552 data_transformer.cpp:25] Loading mean file from: examples/cifar10/mean.binaryproto
I0430 19:16:12.159674 25552 data_layer.cpp:45] output data size: 1000,3,32,32
I0430 19:16:12.181907 25552 net.cpp:124] Setting up cifar
I0430 19:16:12.181934 25552 net.cpp:131] Top shape: 1000 3 32 32 (3072000)
I0430 19:16:12.181941 25552 net.cpp:131] Top shape: 1000 (1000)
I0430 19:16:12.181943 25552 net.cpp:139] Memory required for data: 12292000
I0430 19:16:12.181949 25552 layer_factory.hpp:77] Creating layer label_cifar_1_split
I0430 19:16:12.181965 25552 net.cpp:86] Creating Layer label_cifar_1_split
I0430 19:16:12.181972 25552 net.cpp:408] label_cifar_1_split <- label
I0430 19:16:12.181993 25552 net.cpp:382] label_cifar_1_split -> label_cifar_1_split_0
I0430 19:16:12.182016 25552 net.cpp:382] label_cifar_1_split -> label_cifar_1_split_1
I0430 19:16:12.182096 25552 net.cpp:124] Setting up label_cifar_1_split
I0430 19:16:12.182106 25552 net.cpp:131] Top shape: 1000 (1000)
I0430 19:16:12.182109 25552 net.cpp:131] Top shape: 1000 (1000)
I0430 19:16:12.182112 25552 net.cpp:139] Memory required for data: 12300000
I0430 19:16:12.182116 25552 layer_factory.hpp:77] Creating layer ip1
I0430 19:16:12.182126 25552 net.cpp:86] Creating Layer ip1
I0430 19:16:12.182128 25552 net.cpp:408] ip1 <- data
I0430 19:16:12.182133 25552 net.cpp:382] ip1 -> ip1
I0430 19:16:12.185817 25552 net.cpp:124] Setting up ip1
I0430 19:16:12.185828 25552 net.cpp:131] Top shape: 1000 40 (40000)
I0430 19:16:12.185847 25552 net.cpp:139] Memory required for data: 12460000
I0430 19:16:12.185873 25552 layer_factory.hpp:77] Creating layer relu1
I0430 19:16:12.185879 25552 net.cpp:86] Creating Layer relu1
I0430 19:16:12.185899 25552 net.cpp:408] relu1 <- ip1
I0430 19:16:12.185904 25552 net.cpp:369] relu1 -> ip1 (in-place)
I0430 19:16:12.186760 25552 net.cpp:124] Setting up relu1
I0430 19:16:12.186774 25552 net.cpp:131] Top shape: 1000 40 (40000)
I0430 19:16:12.186792 25552 net.cpp:139] Memory required for data: 12620000
I0430 19:16:12.186796 25552 layer_factory.hpp:77] Creating layer ip2
I0430 19:16:12.186805 25552 net.cpp:86] Creating Layer ip2
I0430 19:16:12.186808 25552 net.cpp:408] ip2 <- ip1
I0430 19:16:12.186813 25552 net.cpp:382] ip2 -> ip2
I0430 19:16:12.186993 25552 net.cpp:124] Setting up ip2
I0430 19:16:12.187001 25552 net.cpp:131] Top shape: 1000 40 (40000)
I0430 19:16:12.187005 25552 net.cpp:139] Memory required for data: 12780000
I0430 19:16:12.187012 25552 layer_factory.hpp:77] Creating layer relu2
I0430 19:16:12.187018 25552 net.cpp:86] Creating Layer relu2
I0430 19:16:12.187021 25552 net.cpp:408] relu2 <- ip2
I0430 19:16:12.187026 25552 net.cpp:369] relu2 -> ip2 (in-place)
I0430 19:16:12.187182 25552 net.cpp:124] Setting up relu2
I0430 19:16:12.187191 25552 net.cpp:131] Top shape: 1000 40 (40000)
I0430 19:16:12.187194 25552 net.cpp:139] Memory required for data: 12940000
I0430 19:16:12.187198 25552 layer_factory.hpp:77] Creating layer ip3
I0430 19:16:12.187204 25552 net.cpp:86] Creating Layer ip3
I0430 19:16:12.187208 25552 net.cpp:408] ip3 <- ip2
I0430 19:16:12.187222 25552 net.cpp:382] ip3 -> ip3
I0430 19:16:12.187367 25552 net.cpp:124] Setting up ip3
I0430 19:16:12.187374 25552 net.cpp:131] Top shape: 1000 40 (40000)
I0430 19:16:12.187378 25552 net.cpp:139] Memory required for data: 13100000
I0430 19:16:12.187386 25552 layer_factory.hpp:77] Creating layer relu3
I0430 19:16:12.187391 25552 net.cpp:86] Creating Layer relu3
I0430 19:16:12.187394 25552 net.cpp:408] relu3 <- ip3
I0430 19:16:12.187398 25552 net.cpp:369] relu3 -> ip3 (in-place)
I0430 19:16:12.187549 25552 net.cpp:124] Setting up relu3
I0430 19:16:12.187558 25552 net.cpp:131] Top shape: 1000 40 (40000)
I0430 19:16:12.187561 25552 net.cpp:139] Memory required for data: 13260000
I0430 19:16:12.187564 25552 layer_factory.hpp:77] Creating layer ip4
I0430 19:16:12.187572 25552 net.cpp:86] Creating Layer ip4
I0430 19:16:12.187575 25552 net.cpp:408] ip4 <- ip3
I0430 19:16:12.187579 25552 net.cpp:382] ip4 -> ip4
I0430 19:16:12.187710 25552 net.cpp:124] Setting up ip4
I0430 19:16:12.187717 25552 net.cpp:131] Top shape: 1000 10 (10000)
I0430 19:16:12.187721 25552 net.cpp:139] Memory required for data: 13300000
I0430 19:16:12.187726 25552 layer_factory.hpp:77] Creating layer ip4_ip4_0_split
I0430 19:16:12.187731 25552 net.cpp:86] Creating Layer ip4_ip4_0_split
I0430 19:16:12.187734 25552 net.cpp:408] ip4_ip4_0_split <- ip4
I0430 19:16:12.187739 25552 net.cpp:382] ip4_ip4_0_split -> ip4_ip4_0_split_0
I0430 19:16:12.187746 25552 net.cpp:382] ip4_ip4_0_split -> ip4_ip4_0_split_1
I0430 19:16:12.187777 25552 net.cpp:124] Setting up ip4_ip4_0_split
I0430 19:16:12.187783 25552 net.cpp:131] Top shape: 1000 10 (10000)
I0430 19:16:12.187788 25552 net.cpp:131] Top shape: 1000 10 (10000)
I0430 19:16:12.187790 25552 net.cpp:139] Memory required for data: 13380000
I0430 19:16:12.187793 25552 layer_factory.hpp:77] Creating layer accuracy
I0430 19:16:12.187800 25552 net.cpp:86] Creating Layer accuracy
I0430 19:16:12.187804 25552 net.cpp:408] accuracy <- ip4_ip4_0_split_0
I0430 19:16:12.187808 25552 net.cpp:408] accuracy <- label_cifar_1_split_0
I0430 19:16:12.187813 25552 net.cpp:382] accuracy -> accuracy
…
