…
I0501 08:54:12.786519 12374 net.cpp:296] The NetState phase (0) differed from the phase (1) specified by a rule in layer cifar
I0501 08:54:12.786533 12374 net.cpp:296] The NetState phase (0) differed from the phase (1) specified by a rule in layer accuracy
I0501 08:54:12.786613 12374 net.cpp:53] Initializing net from parameters: 
name: "CIFAR"
state {
  phase: TRAIN
  level: 0
  stage: ""
}
layer {
  name: "cifar"
  type: "Data"
  top: "data"
  top: "label"
  include {
    phase: TRAIN
  }
  transform_param {
    mean_file: "examples/cifar10/mean.binaryproto"
  }
  data_param {
    source: "examples/cifar10/cifar10_train_lmdb"
    batch_size: 111
    backend: LMDB
  }
}
layer {
  name: "conv0"
  type: "Convolution"
  bottom: "data"
  top: "conv0"
  param {
    lr_mult: 1
  }
  param {
    lr_mult: 2
  }
  convolution_param {
    num_output: 16
    pad: 2
    kernel_size: 3
    stride: 1
    weight_filler {
      type: "gaussian"
      std: 0.01
    }
    bias_filler {
      type: "constant"
    }
  }
}
layer {
  name: "Sigmoid0"
  type: "Sigmoid"
  bottom: "conv0"
  top: "Sigmoid0"
}
layer {
  name: "pool0"
  type: "Pooling"
  bottom: "Sigmoid0"
  top: "pool0"
  pooling_param {
    pool: AVE
    kernel_size: 3
    stride: 2
  }
}
layer {
  name: "ip1"
  type: "InnerProduct"
  bottom: "pool0"
  top: "ip1"
  param {
    lr_mult: 1
  }
  param {
    lr_mult: 2
  }
  inner_product_param {
    num_output: 20
    weight_filler {
      type: "gaussian"
      std: 0.01
    }
    bias_filler {
      type: "constant"
    }
  }
}
layer {
  name: "relu1"
  type: "ReLU"
  bottom: "ip1"
  top: "ip1"
}
layer {
  name: "ip2"
  type: "InnerProduct"
  bottom: "ip1"
  top: "ip2"
  param {
    lr_mult: 1
  }
  param {
    lr_mult: 2
  }
  inner_product_param {
    num_output: 10
    weight_filler {
      type: "gaussian"
      std: 0.01
    }
    bias_filler {
      type: "constant"
    }
  }
}
layer {
  name: "relu2"
  type: "ReLU"
  bottom: "ip2"
  top: "ip2"
}
layer {
  name: "ip3"
  type: "InnerProduct"
  bottom: "ip2"
  top: "ip3"
  param {
    lr_mult: 1
  }
  param {
    lr_mult: 2
  }
  inner_product_param {
    num_output: 160
    weight_filler {
      type: "gaussian"
      std: 0.01
    }
    bias_filler {
      type: "constant"
    }
  }
}
layer {
  name: "relu3"
  type: "ReLU"
  bottom: "ip3"
  top: "ip3"
}
layer {
  name: "ip4"
  type: "InnerProduct"
  bottom: "ip3"
  top: "ip4"
  param {
    lr_mult: 1
  }
  param {
    lr_mult: 2
  }
  inner_product_param {
    num_output: 10
    weight_filler {
      type: "gaussian"
      std: 0.01
    }
    bias_filler {
      type: "constant"
    }
  }
}
layer {
  name: "loss"
  type: "SoftmaxWithLoss"
  bottom: "ip4"
  bottom: "label"
  top: "loss"
}
I0501 08:54:12.786687 12374 layer_factory.hpp:77] Creating layer cifar
I0501 08:54:12.786767 12374 db_lmdb.cpp:35] Opened lmdb examples/cifar10/cifar10_train_lmdb
I0501 08:54:12.786787 12374 net.cpp:86] Creating Layer cifar
I0501 08:54:12.786794 12374 net.cpp:382] cifar -> data
I0501 08:54:12.786813 12374 net.cpp:382] cifar -> label
I0501 08:54:12.786823 12374 data_transformer.cpp:25] Loading mean file from: examples/cifar10/mean.binaryproto
I0501 08:54:12.788580 12374 data_layer.cpp:45] output data size: 111,3,32,32
I0501 08:54:12.795011 12374 net.cpp:124] Setting up cifar
I0501 08:54:12.795027 12374 net.cpp:131] Top shape: 111 3 32 32 (340992)
I0501 08:54:12.795047 12374 net.cpp:131] Top shape: 111 (111)
I0501 08:54:12.795049 12374 net.cpp:139] Memory required for data: 1364412
I0501 08:54:12.795068 12374 layer_factory.hpp:77] Creating layer conv0
I0501 08:54:12.795081 12374 net.cpp:86] Creating Layer conv0
I0501 08:54:12.795101 12374 net.cpp:408] conv0 <- data
I0501 08:54:12.795110 12374 net.cpp:382] conv0 -> conv0
I0501 08:54:13.021339 12374 net.cpp:124] Setting up conv0
I0501 08:54:13.021380 12374 net.cpp:131] Top shape: 111 16 34 34 (2053056)
I0501 08:54:13.021384 12374 net.cpp:139] Memory required for data: 9576636
I0501 08:54:13.021399 12374 layer_factory.hpp:77] Creating layer Sigmoid0
I0501 08:54:13.021411 12374 net.cpp:86] Creating Layer Sigmoid0
I0501 08:54:13.021415 12374 net.cpp:408] Sigmoid0 <- conv0
I0501 08:54:13.021420 12374 net.cpp:382] Sigmoid0 -> Sigmoid0
I0501 08:54:13.021589 12374 net.cpp:124] Setting up Sigmoid0
I0501 08:54:13.021598 12374 net.cpp:131] Top shape: 111 16 34 34 (2053056)
I0501 08:54:13.021601 12374 net.cpp:139] Memory required for data: 17788860
I0501 08:54:13.021605 12374 layer_factory.hpp:77] Creating layer pool0
I0501 08:54:13.021611 12374 net.cpp:86] Creating Layer pool0
I0501 08:54:13.021615 12374 net.cpp:408] pool0 <- Sigmoid0
I0501 08:54:13.021620 12374 net.cpp:382] pool0 -> pool0
I0501 08:54:13.022430 12374 net.cpp:124] Setting up pool0
I0501 08:54:13.022444 12374 net.cpp:131] Top shape: 111 16 17 17 (513264)
I0501 08:54:13.022446 12374 net.cpp:139] Memory required for data: 19841916
I0501 08:54:13.022449 12374 layer_factory.hpp:77] Creating layer ip1
I0501 08:54:13.022459 12374 net.cpp:86] Creating Layer ip1
I0501 08:54:13.022461 12374 net.cpp:408] ip1 <- pool0
I0501 08:54:13.022465 12374 net.cpp:382] ip1 -> ip1
I0501 08:54:13.024847 12374 net.cpp:124] Setting up ip1
I0501 08:54:13.024855 12374 net.cpp:131] Top shape: 111 20 (2220)
I0501 08:54:13.024873 12374 net.cpp:139] Memory required for data: 19850796
I0501 08:54:13.024880 12374 layer_factory.hpp:77] Creating layer relu1
I0501 08:54:13.024900 12374 net.cpp:86] Creating Layer relu1
I0501 08:54:13.024904 12374 net.cpp:408] relu1 <- ip1
I0501 08:54:13.024909 12374 net.cpp:369] relu1 -> ip1 (in-place)
I0501 08:54:13.025079 12374 net.cpp:124] Setting up relu1
I0501 08:54:13.025087 12374 net.cpp:131] Top shape: 111 20 (2220)
I0501 08:54:13.025091 12374 net.cpp:139] Memory required for data: 19859676
I0501 08:54:13.025094 12374 layer_factory.hpp:77] Creating layer ip2
I0501 08:54:13.025100 12374 net.cpp:86] Creating Layer ip2
I0501 08:54:13.025104 12374 net.cpp:408] ip2 <- ip1
I0501 08:54:13.025108 12374 net.cpp:382] ip2 -> ip2
I0501 08:54:13.025251 12374 net.cpp:124] Setting up ip2
I0501 08:54:13.025259 12374 net.cpp:131] Top shape: 111 10 (1110)
I0501 08:54:13.025261 12374 net.cpp:139] Memory required for data: 19864116
I0501 08:54:13.025269 12374 layer_factory.hpp:77] Creating layer relu2
I0501 08:54:13.025274 12374 net.cpp:86] Creating Layer relu2
I0501 08:54:13.025276 12374 net.cpp:408] relu2 <- ip2
I0501 08:54:13.025280 12374 net.cpp:369] relu2 -> ip2 (in-place)
I0501 08:54:13.025421 12374 net.cpp:124] Setting up relu2
I0501 08:54:13.025430 12374 net.cpp:131] Top shape: 111 10 (1110)
I0501 08:54:13.025434 12374 net.cpp:139] Memory required for data: 19868556
I0501 08:54:13.025436 12374 layer_factory.hpp:77] Creating layer ip3
I0501 08:54:13.025442 12374 net.cpp:86] Creating Layer ip3
I0501 08:54:13.025460 12374 net.cpp:408] ip3 <- ip2
I0501 08:54:13.025465 12374 net.cpp:382] ip3 -> ip3
I0501 08:54:13.025589 12374 net.cpp:124] Setting up ip3
I0501 08:54:13.025595 12374 net.cpp:131] Top shape: 111 160 (17760)
I0501 08:54:13.025599 12374 net.cpp:139] Memory required for data: 19939596
I0501 08:54:13.025604 12374 layer_factory.hpp:77] Creating layer relu3
I0501 08:54:13.025607 12374 net.cpp:86] Creating Layer relu3
I0501 08:54:13.025610 12374 net.cpp:408] relu3 <- ip3
I0501 08:54:13.025614 12374 net.cpp:369] relu3 -> ip3 (in-place)
I0501 08:54:13.025745 12374 net.cpp:124] Setting up relu3
I0501 08:54:13.025753 12374 net.cpp:131] Top shape: 111 160 (17760)
I0501 08:54:13.025756 12374 net.cpp:139] Memory required for data: 20010636
I0501 08:54:13.025759 12374 layer_factory.hpp:77] Creating layer ip4
I0501 08:54:13.025779 12374 net.cpp:86] Creating Layer ip4
I0501 08:54:13.025781 12374 net.cpp:408] ip4 <- ip3
I0501 08:54:13.025786 12374 net.cpp:382] ip4 -> ip4
I0501 08:54:13.025915 12374 net.cpp:124] Setting up ip4
I0501 08:54:13.025923 12374 net.cpp:131] Top shape: 111 10 (1110)
I0501 08:54:13.025925 12374 net.cpp:139] Memory required for data: 20015076
I0501 08:54:13.025933 12374 layer_factory.hpp:77] Creating layer loss
I0501 08:54:13.025938 12374 net.cpp:86] Creating Layer loss
I0501 08:54:13.025940 12374 net.cpp:408] loss <- ip4
I0501 08:54:13.025943 12374 net.cpp:408] loss <- label
I0501 08:54:13.025949 12374 net.cpp:382] loss -> loss
I0501 08:54:13.025964 12374 layer_factory.hpp:77] Creating layer loss
…
I0501 08:54:13.027125 12374 solver.cpp:173] Creating test net (#0) specified by net file: ECE595/cifar/train_test/var_everything/cifar_train_test_524.prototxt
I0501 08:54:13.027153 12374 net.cpp:296] The NetState phase (1) differed from the phase (0) specified by a rule in layer cifar
I0501 08:54:13.027240 12374 net.cpp:53] Initializing net from parameters: 
name: "CIFAR"
state {
  phase: TEST
}
layer {
  name: "cifar"
  type: "Data"
  top: "data"
  top: "label"
  include {
    phase: TEST
  }
  transform_param {
    mean_file: "examples/cifar10/mean.binaryproto"
  }
  data_param {
    source: "examples/cifar10/cifar10_test_lmdb"
    batch_size: 1000
    backend: LMDB
  }
}
layer {
  name: "conv0"
  type: "Convolution"
  bottom: "data"
  top: "conv0"
  param {
    lr_mult: 1
  }
  param {
    lr_mult: 2
  }
  convolution_param {
    num_output: 16
    pad: 2
    kernel_size: 3
    stride: 1
    weight_filler {
      type: "gaussian"
      std: 0.01
    }
    bias_filler {
      type: "constant"
    }
  }
}
layer {
  name: "Sigmoid0"
  type: "Sigmoid"
  bottom: "conv0"
  top: "Sigmoid0"
}
layer {
  name: "pool0"
  type: "Pooling"
  bottom: "Sigmoid0"
  top: "pool0"
  pooling_param {
    pool: AVE
    kernel_size: 3
    stride: 2
  }
}
layer {
  name: "ip1"
  type: "InnerProduct"
  bottom: "pool0"
  top: "ip1"
  param {
    lr_mult: 1
  }
  param {
    lr_mult: 2
  }
  inner_product_param {
    num_output: 20
    weight_filler {
      type: "gaussian"
      std: 0.01
    }
    bias_filler {
      type: "constant"
    }
  }
}
layer {
  name: "relu1"
  type: "ReLU"
  bottom: "ip1"
  top: "ip1"
}
layer {
  name: "ip2"
  type: "InnerProduct"
  bottom: "ip1"
  top: "ip2"
  param {
    lr_mult: 1
  }
  param {
    lr_mult: 2
  }
  inner_product_param {
    num_output: 10
    weight_filler {
      type: "gaussian"
      std: 0.01
    }
    bias_filler {
      type: "constant"
    }
  }
}
layer {
  name: "relu2"
  type: "ReLU"
  bottom: "ip2"
  top: "ip2"
}
layer {
  name: "ip3"
  type: "InnerProduct"
  bottom: "ip2"
  top: "ip3"
  param {
    lr_mult: 1
  }
  param {
    lr_mult: 2
  }
  inner_product_param {
    num_output: 160
    weight_filler {
      type: "gaussian"
      std: 0.01
    }
    bias_filler {
      type: "constant"
    }
  }
}
layer {
  name: "relu3"
  type: "ReLU"
  bottom: "ip3"
  top: "ip3"
}
layer {
  name: "ip4"
  type: "InnerProduct"
  bottom: "ip3"
  top: "ip4"
  param {
    lr_mult: 1
  }
  param {
    lr_mult: 2
  }
  inner_product_param {
    num_output: 10
    weight_filler {
      type: "gaussian"
      std: 0.01
    }
    bias_filler {
      type: "constant"
    }
  }
}
layer {
  name: "accuracy"
  type: "Accuracy"
  bottom: "ip4"
  bottom: "label"
  top: "accuracy"
  include {
    phase: TEST
  }
}
layer {
  name: "loss"
  type: "SoftmaxWithLoss"
  bottom: "ip4"
  bottom: "label"
  top: "loss"
}
I0501 08:54:13.027314 12374 layer_factory.hpp:77] Creating layer cifar
I0501 08:54:13.027374 12374 db_lmdb.cpp:35] Opened lmdb examples/cifar10/cifar10_test_lmdb
I0501 08:54:13.027385 12374 net.cpp:86] Creating Layer cifar
I0501 08:54:13.027390 12374 net.cpp:382] cifar -> data
I0501 08:54:13.027397 12374 net.cpp:382] cifar -> label
I0501 08:54:13.027405 12374 data_transformer.cpp:25] Loading mean file from: examples/cifar10/mean.binaryproto
I0501 08:54:13.027539 12374 data_layer.cpp:45] output data size: 1000,3,32,32
I0501 08:54:13.049130 12374 net.cpp:124] Setting up cifar
I0501 08:54:13.049183 12374 net.cpp:131] Top shape: 1000 3 32 32 (3072000)
I0501 08:54:13.049191 12374 net.cpp:131] Top shape: 1000 (1000)
I0501 08:54:13.049195 12374 net.cpp:139] Memory required for data: 12292000
I0501 08:54:13.049202 12374 layer_factory.hpp:77] Creating layer label_cifar_1_split
I0501 08:54:13.049229 12374 net.cpp:86] Creating Layer label_cifar_1_split
I0501 08:54:13.049233 12374 net.cpp:408] label_cifar_1_split <- label
I0501 08:54:13.049254 12374 net.cpp:382] label_cifar_1_split -> label_cifar_1_split_0
I0501 08:54:13.049263 12374 net.cpp:382] label_cifar_1_split -> label_cifar_1_split_1
I0501 08:54:13.049319 12374 net.cpp:124] Setting up label_cifar_1_split
I0501 08:54:13.049336 12374 net.cpp:131] Top shape: 1000 (1000)
I0501 08:54:13.049340 12374 net.cpp:131] Top shape: 1000 (1000)
I0501 08:54:13.049343 12374 net.cpp:139] Memory required for data: 12300000
I0501 08:54:13.049346 12374 layer_factory.hpp:77] Creating layer conv0
I0501 08:54:13.049358 12374 net.cpp:86] Creating Layer conv0
I0501 08:54:13.049361 12374 net.cpp:408] conv0 <- data
I0501 08:54:13.049366 12374 net.cpp:382] conv0 -> conv0
I0501 08:54:13.050992 12374 net.cpp:124] Setting up conv0
I0501 08:54:13.051018 12374 net.cpp:131] Top shape: 1000 16 34 34 (18496000)
I0501 08:54:13.051023 12374 net.cpp:139] Memory required for data: 86284000
I0501 08:54:13.051031 12374 layer_factory.hpp:77] Creating layer Sigmoid0
I0501 08:54:13.051038 12374 net.cpp:86] Creating Layer Sigmoid0
I0501 08:54:13.051041 12374 net.cpp:408] Sigmoid0 <- conv0
I0501 08:54:13.051045 12374 net.cpp:382] Sigmoid0 -> Sigmoid0
I0501 08:54:13.051239 12374 net.cpp:124] Setting up Sigmoid0
I0501 08:54:13.051249 12374 net.cpp:131] Top shape: 1000 16 34 34 (18496000)
I0501 08:54:13.051251 12374 net.cpp:139] Memory required for data: 160268000
I0501 08:54:13.051254 12374 layer_factory.hpp:77] Creating layer pool0
I0501 08:54:13.051262 12374 net.cpp:86] Creating Layer pool0
I0501 08:54:13.051266 12374 net.cpp:408] pool0 <- Sigmoid0
I0501 08:54:13.051270 12374 net.cpp:382] pool0 -> pool0
I0501 08:54:13.051455 12374 net.cpp:124] Setting up pool0
I0501 08:54:13.051463 12374 net.cpp:131] Top shape: 1000 16 17 17 (4624000)
I0501 08:54:13.051466 12374 net.cpp:139] Memory required for data: 178764000
I0501 08:54:13.051470 12374 layer_factory.hpp:77] Creating layer ip1
I0501 08:54:13.051481 12374 net.cpp:86] Creating Layer ip1
I0501 08:54:13.051484 12374 net.cpp:408] ip1 <- pool0
I0501 08:54:13.051489 12374 net.cpp:382] ip1 -> ip1
I0501 08:54:13.054106 12374 net.cpp:124] Setting up ip1
I0501 08:54:13.054117 12374 net.cpp:131] Top shape: 1000 20 (20000)
I0501 08:54:13.054134 12374 net.cpp:139] Memory required for data: 178844000
I0501 08:54:13.054157 12374 layer_factory.hpp:77] Creating layer relu1
I0501 08:54:13.054164 12374 net.cpp:86] Creating Layer relu1
I0501 08:54:13.054167 12374 net.cpp:408] relu1 <- ip1
I0501 08:54:13.054188 12374 net.cpp:369] relu1 -> ip1 (in-place)
I0501 08:54:13.054352 12374 net.cpp:124] Setting up relu1
I0501 08:54:13.054360 12374 net.cpp:131] Top shape: 1000 20 (20000)
I0501 08:54:13.054363 12374 net.cpp:139] Memory required for data: 178924000
I0501 08:54:13.054368 12374 layer_factory.hpp:77] Creating layer ip2
I0501 08:54:13.054375 12374 net.cpp:86] Creating Layer ip2
I0501 08:54:13.054378 12374 net.cpp:408] ip2 <- ip1
I0501 08:54:13.054383 12374 net.cpp:382] ip2 -> ip2
I0501 08:54:13.054491 12374 net.cpp:124] Setting up ip2
I0501 08:54:13.054499 12374 net.cpp:131] Top shape: 1000 10 (10000)
I0501 08:54:13.054502 12374 net.cpp:139] Memory required for data: 178964000
I0501 08:54:13.054508 12374 layer_factory.hpp:77] Creating layer relu2
I0501 08:54:13.054517 12374 net.cpp:86] Creating Layer relu2
I0501 08:54:13.054519 12374 net.cpp:408] relu2 <- ip2
I0501 08:54:13.054523 12374 net.cpp:369] relu2 -> ip2 (in-place)
I0501 08:54:13.055294 12374 net.cpp:124] Setting up relu2
I0501 08:54:13.055305 12374 net.cpp:131] Top shape: 1000 10 (10000)
I0501 08:54:13.055323 12374 net.cpp:139] Memory required for data: 179004000
I0501 08:54:13.055327 12374 layer_factory.hpp:77] Creating layer ip3
I0501 08:54:13.055333 12374 net.cpp:86] Creating Layer ip3
I0501 08:54:13.055336 12374 net.cpp:408] ip3 <- ip2
I0501 08:54:13.055343 12374 net.cpp:382] ip3 -> ip3
I0501 08:54:13.055505 12374 net.cpp:124] Setting up ip3
I0501 08:54:13.055511 12374 net.cpp:131] Top shape: 1000 160 (160000)
I0501 08:54:13.055523 12374 net.cpp:139] Memory required for data: 179644000
I0501 08:54:13.055528 12374 layer_factory.hpp:77] Creating layer relu3
I0501 08:54:13.055534 12374 net.cpp:86] Creating Layer relu3
I0501 08:54:13.055537 12374 net.cpp:408] relu3 <- ip3
I0501 08:54:13.055542 12374 net.cpp:369] relu3 -> ip3 (in-place)
I0501 08:54:13.055696 12374 net.cpp:124] Setting up relu3
I0501 08:54:13.055706 12374 net.cpp:131] Top shape: 1000 160 (160000)
I0501 08:54:13.055709 12374 net.cpp:139] Memory required for data: 180284000
I0501 08:54:13.055712 12374 layer_factory.hpp:77] Creating layer ip4
I0501 08:54:13.055718 12374 net.cpp:86] Creating Layer ip4
I0501 08:54:13.055721 12374 net.cpp:408] ip4 <- ip3
I0501 08:54:13.055727 12374 net.cpp:382] ip4 -> ip4
I0501 08:54:13.055886 12374 net.cpp:124] Setting up ip4
I0501 08:54:13.055893 12374 net.cpp:131] Top shape: 1000 10 (10000)
I0501 08:54:13.055896 12374 net.cpp:139] Memory required for data: 180324000
I0501 08:54:13.055903 12374 layer_factory.hpp:77] Creating layer ip4_ip4_0_split
I0501 08:54:13.055914 12374 net.cpp:86] Creating Layer ip4_ip4_0_split
I0501 08:54:13.055917 12374 net.cpp:408] ip4_ip4_0_split <- ip4
I0501 08:54:13.055922 12374 net.cpp:382] ip4_ip4_0_split -> ip4_ip4_0_split_0
I0501 08:54:13.055927 12374 net.cpp:382] ip4_ip4_0_split -> ip4_ip4_0_split_1
I0501 08:54:13.055960 12374 net.cpp:124] Setting up ip4_ip4_0_split
I0501 08:54:13.055966 12374 net.cpp:131] Top shape: 1000 10 (10000)
I0501 08:54:13.055970 12374 net.cpp:131] Top shape: 1000 10 (10000)
I0501 08:54:13.055974 12374 net.cpp:139] Memory required for data: 180404000
I0501 08:54:13.055976 12374 layer_factory.hpp:77] Creating layer accuracy
I0501 08:54:13.055981 12374 net.cpp:86] Creating Layer accuracy
I0501 08:54:13.055984 12374 net.cpp:408] accuracy <- ip4_ip4_0_split_0
I0501 08:54:13.055989 12374 net.cpp:408] accuracy <- label_cifar_1_split_0
I0501 08:54:13.055994 12374 net.cpp:382] accuracy -> accuracy
…
