…
I0430 23:14:39.622874  4509 net.cpp:296] The NetState phase (0) differed from the phase (1) specified by a rule in layer cifar
I0430 23:14:39.622892  4509 net.cpp:296] The NetState phase (0) differed from the phase (1) specified by a rule in layer accuracy
I0430 23:14:39.622992  4509 net.cpp:53] Initializing net from parameters: 
name: "CIFAR"
state {
  phase: TRAIN
  level: 0
  stage: ""
}
layer {
  name: "cifar"
  type: "Data"
  top: "data"
  top: "label"
  include {
    phase: TRAIN
  }
  transform_param {
    mean_file: "examples/cifar10/mean.binaryproto"
  }
  data_param {
    source: "examples/cifar10/cifar10_train_lmdb"
    batch_size: 111
    backend: LMDB
  }
}
layer {
  name: "conv0"
  type: "Convolution"
  bottom: "data"
  top: "conv0"
  param {
    lr_mult: 1
  }
  param {
    lr_mult: 2
  }
  convolution_param {
    num_output: 8
    pad: 2
    kernel_size: 3
    stride: 1
    weight_filler {
      type: "gaussian"
      std: 0.01
    }
    bias_filler {
      type: "constant"
    }
  }
}
layer {
  name: "Sigmoid0"
  type: "Sigmoid"
  bottom: "conv0"
  top: "Sigmoid0"
}
layer {
  name: "pool0"
  type: "Pooling"
  bottom: "Sigmoid0"
  top: "pool0"
  pooling_param {
    pool: AVE
    kernel_size: 3
    stride: 2
  }
}
layer {
  name: "ip1"
  type: "InnerProduct"
  bottom: "pool0"
  top: "ip1"
  param {
    lr_mult: 1
  }
  param {
    lr_mult: 2
  }
  inner_product_param {
    num_output: 20
    weight_filler {
      type: "gaussian"
      std: 0.01
    }
    bias_filler {
      type: "constant"
    }
  }
}
layer {
  name: "relu1"
  type: "ReLU"
  bottom: "ip1"
  top: "ip1"
}
layer {
  name: "ip2"
  type: "InnerProduct"
  bottom: "ip1"
  top: "ip2"
  param {
    lr_mult: 1
  }
  param {
    lr_mult: 2
  }
  inner_product_param {
    num_output: 20
    weight_filler {
      type: "gaussian"
      std: 0.01
    }
    bias_filler {
      type: "constant"
    }
  }
}
layer {
  name: "relu2"
  type: "ReLU"
  bottom: "ip2"
  top: "ip2"
}
layer {
  name: "ip3"
  type: "InnerProduct"
  bottom: "ip2"
  top: "ip3"
  param {
    lr_mult: 1
  }
  param {
    lr_mult: 2
  }
  inner_product_param {
    num_output: 160
    weight_filler {
      type: "gaussian"
      std: 0.01
    }
    bias_filler {
      type: "constant"
    }
  }
}
layer {
  name: "relu3"
  type: "ReLU"
  bottom: "ip3"
  top: "ip3"
}
layer {
  name: "ip4"
  type: "InnerProduct"
  bottom: "ip3"
  top: "ip4"
  param {
    lr_mult: 1
  }
  param {
    lr_mult: 2
  }
  inner_product_param {
    num_output: 10
    weight_filler {
      type: "gaussian"
      std: 0.01
    }
    bias_filler {
      type: "constant"
    }
  }
}
layer {
  name: "loss"
  type: "SoftmaxWithLoss"
  bottom: "ip4"
  bottom: "label"
  top: "loss"
}
I0430 23:14:39.623064  4509 layer_factory.hpp:77] Creating layer cifar
I0430 23:14:39.623164  4509 db_lmdb.cpp:35] Opened lmdb examples/cifar10/cifar10_train_lmdb
I0430 23:14:39.623191  4509 net.cpp:86] Creating Layer cifar
I0430 23:14:39.623199  4509 net.cpp:382] cifar -> data
I0430 23:14:39.623222  4509 net.cpp:382] cifar -> label
I0430 23:14:39.623234  4509 data_transformer.cpp:25] Loading mean file from: examples/cifar10/mean.binaryproto
I0430 23:14:39.625363  4509 data_layer.cpp:45] output data size: 111,3,32,32
I0430 23:14:39.633213  4509 net.cpp:124] Setting up cifar
I0430 23:14:39.633232  4509 net.cpp:131] Top shape: 111 3 32 32 (340992)
I0430 23:14:39.633239  4509 net.cpp:131] Top shape: 111 (111)
I0430 23:14:39.633242  4509 net.cpp:139] Memory required for data: 1364412
I0430 23:14:39.633266  4509 layer_factory.hpp:77] Creating layer conv0
I0430 23:14:39.633286  4509 net.cpp:86] Creating Layer conv0
I0430 23:14:39.633292  4509 net.cpp:408] conv0 <- data
I0430 23:14:39.633304  4509 net.cpp:382] conv0 -> conv0
I0430 23:14:39.911860  4509 net.cpp:124] Setting up conv0
I0430 23:14:39.911887  4509 net.cpp:131] Top shape: 111 8 34 34 (1026528)
I0430 23:14:39.911891  4509 net.cpp:139] Memory required for data: 5470524
I0430 23:14:39.911907  4509 layer_factory.hpp:77] Creating layer Sigmoid0
I0430 23:14:39.911919  4509 net.cpp:86] Creating Layer Sigmoid0
I0430 23:14:39.911923  4509 net.cpp:408] Sigmoid0 <- conv0
I0430 23:14:39.911928  4509 net.cpp:382] Sigmoid0 -> Sigmoid0
I0430 23:14:39.912111  4509 net.cpp:124] Setting up Sigmoid0
I0430 23:14:39.912119  4509 net.cpp:131] Top shape: 111 8 34 34 (1026528)
I0430 23:14:39.912122  4509 net.cpp:139] Memory required for data: 9576636
I0430 23:14:39.912127  4509 layer_factory.hpp:77] Creating layer pool0
I0430 23:14:39.912132  4509 net.cpp:86] Creating Layer pool0
I0430 23:14:39.912137  4509 net.cpp:408] pool0 <- Sigmoid0
I0430 23:14:39.912140  4509 net.cpp:382] pool0 -> pool0
I0430 23:14:39.912900  4509 net.cpp:124] Setting up pool0
I0430 23:14:39.912930  4509 net.cpp:131] Top shape: 111 8 17 17 (256632)
I0430 23:14:39.912935  4509 net.cpp:139] Memory required for data: 10603164
I0430 23:14:39.912937  4509 layer_factory.hpp:77] Creating layer ip1
I0430 23:14:39.912947  4509 net.cpp:86] Creating Layer ip1
I0430 23:14:39.912951  4509 net.cpp:408] ip1 <- pool0
I0430 23:14:39.912961  4509 net.cpp:382] ip1 -> ip1
I0430 23:14:39.915194  4509 net.cpp:124] Setting up ip1
I0430 23:14:39.915206  4509 net.cpp:131] Top shape: 111 20 (2220)
I0430 23:14:39.915210  4509 net.cpp:139] Memory required for data: 10612044
I0430 23:14:39.915218  4509 layer_factory.hpp:77] Creating layer relu1
I0430 23:14:39.915225  4509 net.cpp:86] Creating Layer relu1
I0430 23:14:39.915227  4509 net.cpp:408] relu1 <- ip1
I0430 23:14:39.915246  4509 net.cpp:369] relu1 -> ip1 (in-place)
I0430 23:14:39.915400  4509 net.cpp:124] Setting up relu1
I0430 23:14:39.915408  4509 net.cpp:131] Top shape: 111 20 (2220)
I0430 23:14:39.915410  4509 net.cpp:139] Memory required for data: 10620924
I0430 23:14:39.915413  4509 layer_factory.hpp:77] Creating layer ip2
I0430 23:14:39.915421  4509 net.cpp:86] Creating Layer ip2
I0430 23:14:39.915423  4509 net.cpp:408] ip2 <- ip1
I0430 23:14:39.915428  4509 net.cpp:382] ip2 -> ip2
I0430 23:14:39.916352  4509 net.cpp:124] Setting up ip2
I0430 23:14:39.916364  4509 net.cpp:131] Top shape: 111 20 (2220)
I0430 23:14:39.916368  4509 net.cpp:139] Memory required for data: 10629804
I0430 23:14:39.916375  4509 layer_factory.hpp:77] Creating layer relu2
I0430 23:14:39.916380  4509 net.cpp:86] Creating Layer relu2
I0430 23:14:39.916384  4509 net.cpp:408] relu2 <- ip2
I0430 23:14:39.916390  4509 net.cpp:369] relu2 -> ip2 (in-place)
I0430 23:14:39.916553  4509 net.cpp:124] Setting up relu2
I0430 23:14:39.916560  4509 net.cpp:131] Top shape: 111 20 (2220)
I0430 23:14:39.916563  4509 net.cpp:139] Memory required for data: 10638684
I0430 23:14:39.916566  4509 layer_factory.hpp:77] Creating layer ip3
I0430 23:14:39.916574  4509 net.cpp:86] Creating Layer ip3
I0430 23:14:39.916577  4509 net.cpp:408] ip3 <- ip2
I0430 23:14:39.916582  4509 net.cpp:382] ip3 -> ip3
I0430 23:14:39.916759  4509 net.cpp:124] Setting up ip3
I0430 23:14:39.916766  4509 net.cpp:131] Top shape: 111 160 (17760)
I0430 23:14:39.916769  4509 net.cpp:139] Memory required for data: 10709724
I0430 23:14:39.916774  4509 layer_factory.hpp:77] Creating layer relu3
I0430 23:14:39.916780  4509 net.cpp:86] Creating Layer relu3
I0430 23:14:39.916784  4509 net.cpp:408] relu3 <- ip3
I0430 23:14:39.916786  4509 net.cpp:369] relu3 -> ip3 (in-place)
I0430 23:14:39.916981  4509 net.cpp:124] Setting up relu3
I0430 23:14:39.916990  4509 net.cpp:131] Top shape: 111 160 (17760)
I0430 23:14:39.916993  4509 net.cpp:139] Memory required for data: 10780764
I0430 23:14:39.916996  4509 layer_factory.hpp:77] Creating layer ip4
I0430 23:14:39.917017  4509 net.cpp:86] Creating Layer ip4
I0430 23:14:39.917022  4509 net.cpp:408] ip4 <- ip3
I0430 23:14:39.917027  4509 net.cpp:382] ip4 -> ip4
I0430 23:14:39.917213  4509 net.cpp:124] Setting up ip4
I0430 23:14:39.917222  4509 net.cpp:131] Top shape: 111 10 (1110)
I0430 23:14:39.917224  4509 net.cpp:139] Memory required for data: 10785204
I0430 23:14:39.917232  4509 layer_factory.hpp:77] Creating layer loss
I0430 23:14:39.917237  4509 net.cpp:86] Creating Layer loss
I0430 23:14:39.917239  4509 net.cpp:408] loss <- ip4
I0430 23:14:39.917243  4509 net.cpp:408] loss <- label
I0430 23:14:39.917248  4509 net.cpp:382] loss -> loss
I0430 23:14:39.917263  4509 layer_factory.hpp:77] Creating layer loss
…
I0430 23:14:39.918445  4509 solver.cpp:173] Creating test net (#0) specified by net file: ECE595/cifar/train_test/var_everything/cifar_train_test_219.prototxt
I0430 23:14:39.918473  4509 net.cpp:296] The NetState phase (1) differed from the phase (0) specified by a rule in layer cifar
I0430 23:14:39.918583  4509 net.cpp:53] Initializing net from parameters: 
name: "CIFAR"
state {
  phase: TEST
}
layer {
  name: "cifar"
  type: "Data"
  top: "data"
  top: "label"
  include {
    phase: TEST
  }
  transform_param {
    mean_file: "examples/cifar10/mean.binaryproto"
  }
  data_param {
    source: "examples/cifar10/cifar10_test_lmdb"
    batch_size: 1000
    backend: LMDB
  }
}
layer {
  name: "conv0"
  type: "Convolution"
  bottom: "data"
  top: "conv0"
  param {
    lr_mult: 1
  }
  param {
    lr_mult: 2
  }
  convolution_param {
    num_output: 8
    pad: 2
    kernel_size: 3
    stride: 1
    weight_filler {
      type: "gaussian"
      std: 0.01
    }
    bias_filler {
      type: "constant"
    }
  }
}
layer {
  name: "Sigmoid0"
  type: "Sigmoid"
  bottom: "conv0"
  top: "Sigmoid0"
}
layer {
  name: "pool0"
  type: "Pooling"
  bottom: "Sigmoid0"
  top: "pool0"
  pooling_param {
    pool: AVE
    kernel_size: 3
    stride: 2
  }
}
layer {
  name: "ip1"
  type: "InnerProduct"
  bottom: "pool0"
  top: "ip1"
  param {
    lr_mult: 1
  }
  param {
    lr_mult: 2
  }
  inner_product_param {
    num_output: 20
    weight_filler {
      type: "gaussian"
      std: 0.01
    }
    bias_filler {
      type: "constant"
    }
  }
}
layer {
  name: "relu1"
  type: "ReLU"
  bottom: "ip1"
  top: "ip1"
}
layer {
  name: "ip2"
  type: "InnerProduct"
  bottom: "ip1"
  top: "ip2"
  param {
    lr_mult: 1
  }
  param {
    lr_mult: 2
  }
  inner_product_param {
    num_output: 20
    weight_filler {
      type: "gaussian"
      std: 0.01
    }
    bias_filler {
      type: "constant"
    }
  }
}
layer {
  name: "relu2"
  type: "ReLU"
  bottom: "ip2"
  top: "ip2"
}
layer {
  name: "ip3"
  type: "InnerProduct"
  bottom: "ip2"
  top: "ip3"
  param {
    lr_mult: 1
  }
  param {
    lr_mult: 2
  }
  inner_product_param {
    num_output: 160
    weight_filler {
      type: "gaussian"
      std: 0.01
    }
    bias_filler {
      type: "constant"
    }
  }
}
layer {
  name: "relu3"
  type: "ReLU"
  bottom: "ip3"
  top: "ip3"
}
layer {
  name: "ip4"
  type: "InnerProduct"
  bottom: "ip3"
  top: "ip4"
  param {
    lr_mult: 1
  }
  param {
    lr_mult: 2
  }
  inner_product_param {
    num_output: 10
    weight_filler {
      type: "gaussian"
      std: 0.01
    }
    bias_filler {
      type: "constant"
    }
  }
}
layer {
  name: "accuracy"
  type: "Accuracy"
  bottom: "ip4"
  bottom: "label"
  top: "accuracy"
  include {
    phase: TEST
  }
}
layer {
  name: "loss"
  type: "SoftmaxWithLoss"
  bottom: "ip4"
  bottom: "label"
  top: "loss"
}
I0430 23:14:39.918663  4509 layer_factory.hpp:77] Creating layer cifar
I0430 23:14:39.918706  4509 db_lmdb.cpp:35] Opened lmdb examples/cifar10/cifar10_test_lmdb
I0430 23:14:39.918717  4509 net.cpp:86] Creating Layer cifar
I0430 23:14:39.918721  4509 net.cpp:382] cifar -> data
I0430 23:14:39.918730  4509 net.cpp:382] cifar -> label
I0430 23:14:39.918736  4509 data_transformer.cpp:25] Loading mean file from: examples/cifar10/mean.binaryproto
I0430 23:14:39.918875  4509 data_layer.cpp:45] output data size: 1000,3,32,32
I0430 23:14:39.941468  4509 net.cpp:124] Setting up cifar
I0430 23:14:39.941495  4509 net.cpp:131] Top shape: 1000 3 32 32 (3072000)
I0430 23:14:39.941501  4509 net.cpp:131] Top shape: 1000 (1000)
I0430 23:14:39.941504  4509 net.cpp:139] Memory required for data: 12292000
I0430 23:14:39.941510  4509 layer_factory.hpp:77] Creating layer label_cifar_1_split
I0430 23:14:39.941529  4509 net.cpp:86] Creating Layer label_cifar_1_split
I0430 23:14:39.941532  4509 net.cpp:408] label_cifar_1_split <- label
I0430 23:14:39.941539  4509 net.cpp:382] label_cifar_1_split -> label_cifar_1_split_0
I0430 23:14:39.941547  4509 net.cpp:382] label_cifar_1_split -> label_cifar_1_split_1
I0430 23:14:39.941665  4509 net.cpp:124] Setting up label_cifar_1_split
I0430 23:14:39.941673  4509 net.cpp:131] Top shape: 1000 (1000)
I0430 23:14:39.941676  4509 net.cpp:131] Top shape: 1000 (1000)
I0430 23:14:39.941679  4509 net.cpp:139] Memory required for data: 12300000
I0430 23:14:39.941681  4509 layer_factory.hpp:77] Creating layer conv0
I0430 23:14:39.941694  4509 net.cpp:86] Creating Layer conv0
I0430 23:14:39.941697  4509 net.cpp:408] conv0 <- data
I0430 23:14:39.941702  4509 net.cpp:382] conv0 -> conv0
I0430 23:14:39.943315  4509 net.cpp:124] Setting up conv0
I0430 23:14:39.943330  4509 net.cpp:131] Top shape: 1000 8 34 34 (9248000)
I0430 23:14:39.943332  4509 net.cpp:139] Memory required for data: 49292000
I0430 23:14:39.943346  4509 layer_factory.hpp:77] Creating layer Sigmoid0
I0430 23:14:39.943352  4509 net.cpp:86] Creating Layer Sigmoid0
I0430 23:14:39.943356  4509 net.cpp:408] Sigmoid0 <- conv0
I0430 23:14:39.943359  4509 net.cpp:382] Sigmoid0 -> Sigmoid0
I0430 23:14:39.943572  4509 net.cpp:124] Setting up Sigmoid0
I0430 23:14:39.943580  4509 net.cpp:131] Top shape: 1000 8 34 34 (9248000)
I0430 23:14:39.943584  4509 net.cpp:139] Memory required for data: 86284000
I0430 23:14:39.943588  4509 layer_factory.hpp:77] Creating layer pool0
I0430 23:14:39.943595  4509 net.cpp:86] Creating Layer pool0
I0430 23:14:39.943598  4509 net.cpp:408] pool0 <- Sigmoid0
I0430 23:14:39.943603  4509 net.cpp:382] pool0 -> pool0
I0430 23:14:39.943768  4509 net.cpp:124] Setting up pool0
I0430 23:14:39.943776  4509 net.cpp:131] Top shape: 1000 8 17 17 (2312000)
I0430 23:14:39.943779  4509 net.cpp:139] Memory required for data: 95532000
I0430 23:14:39.943797  4509 layer_factory.hpp:77] Creating layer ip1
I0430 23:14:39.943806  4509 net.cpp:86] Creating Layer ip1
I0430 23:14:39.943809  4509 net.cpp:408] ip1 <- pool0
I0430 23:14:39.943814  4509 net.cpp:382] ip1 -> ip1
I0430 23:14:39.945200  4509 net.cpp:124] Setting up ip1
I0430 23:14:39.945212  4509 net.cpp:131] Top shape: 1000 20 (20000)
I0430 23:14:39.945215  4509 net.cpp:139] Memory required for data: 95612000
I0430 23:14:39.945237  4509 layer_factory.hpp:77] Creating layer relu1
I0430 23:14:39.945245  4509 net.cpp:86] Creating Layer relu1
I0430 23:14:39.945248  4509 net.cpp:408] relu1 <- ip1
I0430 23:14:39.945252  4509 net.cpp:369] relu1 -> ip1 (in-place)
I0430 23:14:39.945420  4509 net.cpp:124] Setting up relu1
I0430 23:14:39.945427  4509 net.cpp:131] Top shape: 1000 20 (20000)
I0430 23:14:39.945430  4509 net.cpp:139] Memory required for data: 95692000
I0430 23:14:39.945433  4509 layer_factory.hpp:77] Creating layer ip2
I0430 23:14:39.945442  4509 net.cpp:86] Creating Layer ip2
I0430 23:14:39.945446  4509 net.cpp:408] ip2 <- ip1
I0430 23:14:39.945451  4509 net.cpp:382] ip2 -> ip2
I0430 23:14:39.945559  4509 net.cpp:124] Setting up ip2
I0430 23:14:39.945566  4509 net.cpp:131] Top shape: 1000 20 (20000)
I0430 23:14:39.945569  4509 net.cpp:139] Memory required for data: 95772000
I0430 23:14:39.945576  4509 layer_factory.hpp:77] Creating layer relu2
I0430 23:14:39.945582  4509 net.cpp:86] Creating Layer relu2
I0430 23:14:39.945586  4509 net.cpp:408] relu2 <- ip2
I0430 23:14:39.945590  4509 net.cpp:369] relu2 -> ip2 (in-place)
I0430 23:14:39.946339  4509 net.cpp:124] Setting up relu2
I0430 23:14:39.946351  4509 net.cpp:131] Top shape: 1000 20 (20000)
I0430 23:14:39.946354  4509 net.cpp:139] Memory required for data: 95852000
I0430 23:14:39.946357  4509 layer_factory.hpp:77] Creating layer ip3
I0430 23:14:39.946363  4509 net.cpp:86] Creating Layer ip3
I0430 23:14:39.946367  4509 net.cpp:408] ip3 <- ip2
I0430 23:14:39.946373  4509 net.cpp:382] ip3 -> ip3
I0430 23:14:39.946558  4509 net.cpp:124] Setting up ip3
I0430 23:14:39.946566  4509 net.cpp:131] Top shape: 1000 160 (160000)
I0430 23:14:39.946569  4509 net.cpp:139] Memory required for data: 96492000
I0430 23:14:39.946574  4509 layer_factory.hpp:77] Creating layer relu3
I0430 23:14:39.946580  4509 net.cpp:86] Creating Layer relu3
I0430 23:14:39.946583  4509 net.cpp:408] relu3 <- ip3
I0430 23:14:39.946588  4509 net.cpp:369] relu3 -> ip3 (in-place)
I0430 23:14:39.946739  4509 net.cpp:124] Setting up relu3
I0430 23:14:39.946748  4509 net.cpp:131] Top shape: 1000 160 (160000)
I0430 23:14:39.946750  4509 net.cpp:139] Memory required for data: 97132000
I0430 23:14:39.946753  4509 layer_factory.hpp:77] Creating layer ip4
I0430 23:14:39.946777  4509 net.cpp:86] Creating Layer ip4
I0430 23:14:39.946780  4509 net.cpp:408] ip4 <- ip3
I0430 23:14:39.946784  4509 net.cpp:382] ip4 -> ip4
I0430 23:14:39.946926  4509 net.cpp:124] Setting up ip4
I0430 23:14:39.946934  4509 net.cpp:131] Top shape: 1000 10 (10000)
I0430 23:14:39.946938  4509 net.cpp:139] Memory required for data: 97172000
I0430 23:14:39.946944  4509 layer_factory.hpp:77] Creating layer ip4_ip4_0_split
I0430 23:14:39.946949  4509 net.cpp:86] Creating Layer ip4_ip4_0_split
I0430 23:14:39.946951  4509 net.cpp:408] ip4_ip4_0_split <- ip4
I0430 23:14:39.946959  4509 net.cpp:382] ip4_ip4_0_split -> ip4_ip4_0_split_0
I0430 23:14:39.946972  4509 net.cpp:382] ip4_ip4_0_split -> ip4_ip4_0_split_1
I0430 23:14:39.947005  4509 net.cpp:124] Setting up ip4_ip4_0_split
I0430 23:14:39.947011  4509 net.cpp:131] Top shape: 1000 10 (10000)
I0430 23:14:39.947015  4509 net.cpp:131] Top shape: 1000 10 (10000)
I0430 23:14:39.947017  4509 net.cpp:139] Memory required for data: 97252000
I0430 23:14:39.947019  4509 layer_factory.hpp:77] Creating layer accuracy
I0430 23:14:39.947026  4509 net.cpp:86] Creating Layer accuracy
I0430 23:14:39.947029  4509 net.cpp:408] accuracy <- ip4_ip4_0_split_0
I0430 23:14:39.947033  4509 net.cpp:408] accuracy <- label_cifar_1_split_0
I0430 23:14:39.947043  4509 net.cpp:382] accuracy -> accuracy
…
