…
I0501 08:20:12.648005 10235 net.cpp:296] The NetState phase (0) differed from the phase (1) specified by a rule in layer cifar
I0501 08:20:12.648020 10235 net.cpp:296] The NetState phase (0) differed from the phase (1) specified by a rule in layer accuracy
I0501 08:20:12.648097 10235 net.cpp:53] Initializing net from parameters: 
name: "CIFAR"
state {
  phase: TRAIN
  level: 0
  stage: ""
}
layer {
  name: "cifar"
  type: "Data"
  top: "data"
  top: "label"
  include {
    phase: TRAIN
  }
  transform_param {
    mean_file: "examples/cifar10/mean.binaryproto"
  }
  data_param {
    source: "examples/cifar10/cifar10_train_lmdb"
    batch_size: 111
    backend: LMDB
  }
}
layer {
  name: "conv0"
  type: "Convolution"
  bottom: "data"
  top: "conv0"
  param {
    lr_mult: 1
  }
  param {
    lr_mult: 2
  }
  convolution_param {
    num_output: 16
    pad: 2
    kernel_size: 3
    stride: 1
    weight_filler {
      type: "gaussian"
      std: 0.01
    }
    bias_filler {
      type: "constant"
    }
  }
}
layer {
  name: "Sigmoid0"
  type: "Sigmoid"
  bottom: "conv0"
  top: "Sigmoid0"
}
layer {
  name: "pool0"
  type: "Pooling"
  bottom: "Sigmoid0"
  top: "pool0"
  pooling_param {
    pool: AVE
    kernel_size: 3
    stride: 2
  }
}
layer {
  name: "ip1"
  type: "InnerProduct"
  bottom: "pool0"
  top: "ip1"
  param {
    lr_mult: 1
  }
  param {
    lr_mult: 2
  }
  inner_product_param {
    num_output: 10
    weight_filler {
      type: "gaussian"
      std: 0.01
    }
    bias_filler {
      type: "constant"
    }
  }
}
layer {
  name: "relu1"
  type: "ReLU"
  bottom: "ip1"
  top: "ip1"
}
layer {
  name: "ip2"
  type: "InnerProduct"
  bottom: "ip1"
  top: "ip2"
  param {
    lr_mult: 1
  }
  param {
    lr_mult: 2
  }
  inner_product_param {
    num_output: 40
    weight_filler {
      type: "gaussian"
      std: 0.01
    }
    bias_filler {
      type: "constant"
    }
  }
}
layer {
  name: "relu2"
  type: "ReLU"
  bottom: "ip2"
  top: "ip2"
}
layer {
  name: "ip3"
  type: "InnerProduct"
  bottom: "ip2"
  top: "ip3"
  param {
    lr_mult: 1
  }
  param {
    lr_mult: 2
  }
  inner_product_param {
    num_output: 80
    weight_filler {
      type: "gaussian"
      std: 0.01
    }
    bias_filler {
      type: "constant"
    }
  }
}
layer {
  name: "relu3"
  type: "ReLU"
  bottom: "ip3"
  top: "ip3"
}
layer {
  name: "ip4"
  type: "InnerProduct"
  bottom: "ip3"
  top: "ip4"
  param {
    lr_mult: 1
  }
  param {
    lr_mult: 2
  }
  inner_product_param {
    num_output: 10
    weight_filler {
      type: "gaussian"
      std: 0.01
    }
    bias_filler {
      type: "constant"
    }
  }
}
layer {
  name: "loss"
  type: "SoftmaxWithLoss"
  bottom: "ip4"
  bottom: "label"
  top: "loss"
}
I0501 08:20:12.648154 10235 layer_factory.hpp:77] Creating layer cifar
I0501 08:20:12.648244 10235 db_lmdb.cpp:35] Opened lmdb examples/cifar10/cifar10_train_lmdb
I0501 08:20:12.648267 10235 net.cpp:86] Creating Layer cifar
I0501 08:20:12.648273 10235 net.cpp:382] cifar -> data
I0501 08:20:12.648291 10235 net.cpp:382] cifar -> label
I0501 08:20:12.648301 10235 data_transformer.cpp:25] Loading mean file from: examples/cifar10/mean.binaryproto
I0501 08:20:12.650131 10235 data_layer.cpp:45] output data size: 111,3,32,32
I0501 08:20:12.656471 10235 net.cpp:124] Setting up cifar
I0501 08:20:12.656500 10235 net.cpp:131] Top shape: 111 3 32 32 (340992)
I0501 08:20:12.656505 10235 net.cpp:131] Top shape: 111 (111)
I0501 08:20:12.656508 10235 net.cpp:139] Memory required for data: 1364412
I0501 08:20:12.656527 10235 layer_factory.hpp:77] Creating layer conv0
I0501 08:20:12.656555 10235 net.cpp:86] Creating Layer conv0
I0501 08:20:12.656559 10235 net.cpp:408] conv0 <- data
I0501 08:20:12.656569 10235 net.cpp:382] conv0 -> conv0
I0501 08:20:12.886821 10235 net.cpp:124] Setting up conv0
I0501 08:20:12.886863 10235 net.cpp:131] Top shape: 111 16 34 34 (2053056)
I0501 08:20:12.886868 10235 net.cpp:139] Memory required for data: 9576636
I0501 08:20:12.886883 10235 layer_factory.hpp:77] Creating layer Sigmoid0
I0501 08:20:12.886894 10235 net.cpp:86] Creating Layer Sigmoid0
I0501 08:20:12.886898 10235 net.cpp:408] Sigmoid0 <- conv0
I0501 08:20:12.886904 10235 net.cpp:382] Sigmoid0 -> Sigmoid0
I0501 08:20:12.887092 10235 net.cpp:124] Setting up Sigmoid0
I0501 08:20:12.887101 10235 net.cpp:131] Top shape: 111 16 34 34 (2053056)
I0501 08:20:12.887104 10235 net.cpp:139] Memory required for data: 17788860
I0501 08:20:12.887109 10235 layer_factory.hpp:77] Creating layer pool0
I0501 08:20:12.887115 10235 net.cpp:86] Creating Layer pool0
I0501 08:20:12.887117 10235 net.cpp:408] pool0 <- Sigmoid0
I0501 08:20:12.887122 10235 net.cpp:382] pool0 -> pool0
I0501 08:20:12.887892 10235 net.cpp:124] Setting up pool0
I0501 08:20:12.887907 10235 net.cpp:131] Top shape: 111 16 17 17 (513264)
I0501 08:20:12.887925 10235 net.cpp:139] Memory required for data: 19841916
I0501 08:20:12.887928 10235 layer_factory.hpp:77] Creating layer ip1
I0501 08:20:12.887941 10235 net.cpp:86] Creating Layer ip1
I0501 08:20:12.887945 10235 net.cpp:408] ip1 <- pool0
I0501 08:20:12.887950 10235 net.cpp:382] ip1 -> ip1
I0501 08:20:12.890120 10235 net.cpp:124] Setting up ip1
I0501 08:20:12.890148 10235 net.cpp:131] Top shape: 111 10 (1110)
I0501 08:20:12.890151 10235 net.cpp:139] Memory required for data: 19846356
I0501 08:20:12.890159 10235 layer_factory.hpp:77] Creating layer relu1
I0501 08:20:12.890166 10235 net.cpp:86] Creating Layer relu1
I0501 08:20:12.890168 10235 net.cpp:408] relu1 <- ip1
I0501 08:20:12.890172 10235 net.cpp:369] relu1 -> ip1 (in-place)
I0501 08:20:12.890337 10235 net.cpp:124] Setting up relu1
I0501 08:20:12.890347 10235 net.cpp:131] Top shape: 111 10 (1110)
I0501 08:20:12.890349 10235 net.cpp:139] Memory required for data: 19850796
I0501 08:20:12.890352 10235 layer_factory.hpp:77] Creating layer ip2
I0501 08:20:12.890359 10235 net.cpp:86] Creating Layer ip2
I0501 08:20:12.890362 10235 net.cpp:408] ip2 <- ip1
I0501 08:20:12.890367 10235 net.cpp:382] ip2 -> ip2
I0501 08:20:12.890472 10235 net.cpp:124] Setting up ip2
I0501 08:20:12.890480 10235 net.cpp:131] Top shape: 111 40 (4440)
I0501 08:20:12.890482 10235 net.cpp:139] Memory required for data: 19868556
I0501 08:20:12.890489 10235 layer_factory.hpp:77] Creating layer relu2
I0501 08:20:12.890496 10235 net.cpp:86] Creating Layer relu2
I0501 08:20:12.890498 10235 net.cpp:408] relu2 <- ip2
I0501 08:20:12.890502 10235 net.cpp:369] relu2 -> ip2 (in-place)
I0501 08:20:12.890666 10235 net.cpp:124] Setting up relu2
I0501 08:20:12.890673 10235 net.cpp:131] Top shape: 111 40 (4440)
I0501 08:20:12.890676 10235 net.cpp:139] Memory required for data: 19886316
I0501 08:20:12.890679 10235 layer_factory.hpp:77] Creating layer ip3
I0501 08:20:12.890687 10235 net.cpp:86] Creating Layer ip3
I0501 08:20:12.890691 10235 net.cpp:408] ip3 <- ip2
I0501 08:20:12.890696 10235 net.cpp:382] ip3 -> ip3
I0501 08:20:12.890878 10235 net.cpp:124] Setting up ip3
I0501 08:20:12.890899 10235 net.cpp:131] Top shape: 111 80 (8880)
I0501 08:20:12.890902 10235 net.cpp:139] Memory required for data: 19921836
I0501 08:20:12.890908 10235 layer_factory.hpp:77] Creating layer relu3
I0501 08:20:12.890913 10235 net.cpp:86] Creating Layer relu3
I0501 08:20:12.890915 10235 net.cpp:408] relu3 <- ip3
I0501 08:20:12.890920 10235 net.cpp:369] relu3 -> ip3 (in-place)
I0501 08:20:12.891059 10235 net.cpp:124] Setting up relu3
I0501 08:20:12.891067 10235 net.cpp:131] Top shape: 111 80 (8880)
I0501 08:20:12.891069 10235 net.cpp:139] Memory required for data: 19957356
I0501 08:20:12.891073 10235 layer_factory.hpp:77] Creating layer ip4
I0501 08:20:12.891093 10235 net.cpp:86] Creating Layer ip4
I0501 08:20:12.891098 10235 net.cpp:408] ip4 <- ip3
I0501 08:20:12.891103 10235 net.cpp:382] ip4 -> ip4
I0501 08:20:12.891213 10235 net.cpp:124] Setting up ip4
I0501 08:20:12.891221 10235 net.cpp:131] Top shape: 111 10 (1110)
I0501 08:20:12.891223 10235 net.cpp:139] Memory required for data: 19961796
I0501 08:20:12.891232 10235 layer_factory.hpp:77] Creating layer loss
I0501 08:20:12.891239 10235 net.cpp:86] Creating Layer loss
I0501 08:20:12.891242 10235 net.cpp:408] loss <- ip4
I0501 08:20:12.891245 10235 net.cpp:408] loss <- label
I0501 08:20:12.891250 10235 net.cpp:382] loss -> loss
I0501 08:20:12.891268 10235 layer_factory.hpp:77] Creating layer loss
…
I0501 08:20:12.892505 10235 solver.cpp:173] Creating test net (#0) specified by net file: ECE595/cifar/train_test/var_everything/cifar_train_test_508.prototxt
I0501 08:20:12.892546 10235 net.cpp:296] The NetState phase (1) differed from the phase (0) specified by a rule in layer cifar
I0501 08:20:12.892637 10235 net.cpp:53] Initializing net from parameters: 
name: "CIFAR"
state {
  phase: TEST
}
layer {
  name: "cifar"
  type: "Data"
  top: "data"
  top: "label"
  include {
    phase: TEST
  }
  transform_param {
    mean_file: "examples/cifar10/mean.binaryproto"
  }
  data_param {
    source: "examples/cifar10/cifar10_test_lmdb"
    batch_size: 1000
    backend: LMDB
  }
}
layer {
  name: "conv0"
  type: "Convolution"
  bottom: "data"
  top: "conv0"
  param {
    lr_mult: 1
  }
  param {
    lr_mult: 2
  }
  convolution_param {
    num_output: 16
    pad: 2
    kernel_size: 3
    stride: 1
    weight_filler {
      type: "gaussian"
      std: 0.01
    }
    bias_filler {
      type: "constant"
    }
  }
}
layer {
  name: "Sigmoid0"
  type: "Sigmoid"
  bottom: "conv0"
  top: "Sigmoid0"
}
layer {
  name: "pool0"
  type: "Pooling"
  bottom: "Sigmoid0"
  top: "pool0"
  pooling_param {
    pool: AVE
    kernel_size: 3
    stride: 2
  }
}
layer {
  name: "ip1"
  type: "InnerProduct"
  bottom: "pool0"
  top: "ip1"
  param {
    lr_mult: 1
  }
  param {
    lr_mult: 2
  }
  inner_product_param {
    num_output: 10
    weight_filler {
      type: "gaussian"
      std: 0.01
    }
    bias_filler {
      type: "constant"
    }
  }
}
layer {
  name: "relu1"
  type: "ReLU"
  bottom: "ip1"
  top: "ip1"
}
layer {
  name: "ip2"
  type: "InnerProduct"
  bottom: "ip1"
  top: "ip2"
  param {
    lr_mult: 1
  }
  param {
    lr_mult: 2
  }
  inner_product_param {
    num_output: 40
    weight_filler {
      type: "gaussian"
      std: 0.01
    }
    bias_filler {
      type: "constant"
    }
  }
}
layer {
  name: "relu2"
  type: "ReLU"
  bottom: "ip2"
  top: "ip2"
}
layer {
  name: "ip3"
  type: "InnerProduct"
  bottom: "ip2"
  top: "ip3"
  param {
    lr_mult: 1
  }
  param {
    lr_mult: 2
  }
  inner_product_param {
    num_output: 80
    weight_filler {
      type: "gaussian"
      std: 0.01
    }
    bias_filler {
      type: "constant"
    }
  }
}
layer {
  name: "relu3"
  type: "ReLU"
  bottom: "ip3"
  top: "ip3"
}
layer {
  name: "ip4"
  type: "InnerProduct"
  bottom: "ip3"
  top: "ip4"
  param {
    lr_mult: 1
  }
  param {
    lr_mult: 2
  }
  inner_product_param {
    num_output: 10
    weight_filler {
      type: "gaussian"
      std: 0.01
    }
    bias_filler {
      type: "constant"
    }
  }
}
layer {
  name: "accuracy"
  type: "Accuracy"
  bottom: "ip4"
  bottom: "label"
  top: "accuracy"
  include {
    phase: TEST
  }
}
layer {
  name: "loss"
  type: "SoftmaxWithLoss"
  bottom: "ip4"
  bottom: "label"
  top: "loss"
}
I0501 08:20:12.892711 10235 layer_factory.hpp:77] Creating layer cifar
I0501 08:20:12.892757 10235 db_lmdb.cpp:35] Opened lmdb examples/cifar10/cifar10_test_lmdb
I0501 08:20:12.892787 10235 net.cpp:86] Creating Layer cifar
I0501 08:20:12.892793 10235 net.cpp:382] cifar -> data
I0501 08:20:12.892802 10235 net.cpp:382] cifar -> label
I0501 08:20:12.892833 10235 data_transformer.cpp:25] Loading mean file from: examples/cifar10/mean.binaryproto
I0501 08:20:12.893021 10235 data_layer.cpp:45] output data size: 1000,3,32,32
I0501 08:20:12.915360 10235 net.cpp:124] Setting up cifar
I0501 08:20:12.915403 10235 net.cpp:131] Top shape: 1000 3 32 32 (3072000)
I0501 08:20:12.915410 10235 net.cpp:131] Top shape: 1000 (1000)
I0501 08:20:12.915413 10235 net.cpp:139] Memory required for data: 12292000
I0501 08:20:12.915419 10235 layer_factory.hpp:77] Creating layer label_cifar_1_split
I0501 08:20:12.915436 10235 net.cpp:86] Creating Layer label_cifar_1_split
I0501 08:20:12.915439 10235 net.cpp:408] label_cifar_1_split <- label
I0501 08:20:12.915446 10235 net.cpp:382] label_cifar_1_split -> label_cifar_1_split_0
I0501 08:20:12.915454 10235 net.cpp:382] label_cifar_1_split -> label_cifar_1_split_1
I0501 08:20:12.915572 10235 net.cpp:124] Setting up label_cifar_1_split
I0501 08:20:12.915580 10235 net.cpp:131] Top shape: 1000 (1000)
I0501 08:20:12.915585 10235 net.cpp:131] Top shape: 1000 (1000)
I0501 08:20:12.915587 10235 net.cpp:139] Memory required for data: 12300000
I0501 08:20:12.915591 10235 layer_factory.hpp:77] Creating layer conv0
I0501 08:20:12.915602 10235 net.cpp:86] Creating Layer conv0
I0501 08:20:12.915607 10235 net.cpp:408] conv0 <- data
I0501 08:20:12.915629 10235 net.cpp:382] conv0 -> conv0
I0501 08:20:12.917351 10235 net.cpp:124] Setting up conv0
I0501 08:20:12.917379 10235 net.cpp:131] Top shape: 1000 16 34 34 (18496000)
I0501 08:20:12.917383 10235 net.cpp:139] Memory required for data: 86284000
I0501 08:20:12.917392 10235 layer_factory.hpp:77] Creating layer Sigmoid0
I0501 08:20:12.917398 10235 net.cpp:86] Creating Layer Sigmoid0
I0501 08:20:12.917402 10235 net.cpp:408] Sigmoid0 <- conv0
I0501 08:20:12.917407 10235 net.cpp:382] Sigmoid0 -> Sigmoid0
I0501 08:20:12.917589 10235 net.cpp:124] Setting up Sigmoid0
I0501 08:20:12.917598 10235 net.cpp:131] Top shape: 1000 16 34 34 (18496000)
I0501 08:20:12.917601 10235 net.cpp:139] Memory required for data: 160268000
I0501 08:20:12.917604 10235 layer_factory.hpp:77] Creating layer pool0
I0501 08:20:12.917613 10235 net.cpp:86] Creating Layer pool0
I0501 08:20:12.917618 10235 net.cpp:408] pool0 <- Sigmoid0
I0501 08:20:12.917637 10235 net.cpp:382] pool0 -> pool0
I0501 08:20:12.917935 10235 net.cpp:124] Setting up pool0
I0501 08:20:12.917944 10235 net.cpp:131] Top shape: 1000 16 17 17 (4624000)
I0501 08:20:12.917948 10235 net.cpp:139] Memory required for data: 178764000
I0501 08:20:12.917951 10235 layer_factory.hpp:77] Creating layer ip1
I0501 08:20:12.917974 10235 net.cpp:86] Creating Layer ip1
I0501 08:20:12.917980 10235 net.cpp:408] ip1 <- pool0
I0501 08:20:12.918000 10235 net.cpp:382] ip1 -> ip1
I0501 08:20:12.920250 10235 net.cpp:124] Setting up ip1
I0501 08:20:12.920260 10235 net.cpp:131] Top shape: 1000 10 (10000)
I0501 08:20:12.920279 10235 net.cpp:139] Memory required for data: 178804000
I0501 08:20:12.920301 10235 layer_factory.hpp:77] Creating layer relu1
I0501 08:20:12.920307 10235 net.cpp:86] Creating Layer relu1
I0501 08:20:12.920311 10235 net.cpp:408] relu1 <- ip1
I0501 08:20:12.920315 10235 net.cpp:369] relu1 -> ip1 (in-place)
I0501 08:20:12.920507 10235 net.cpp:124] Setting up relu1
I0501 08:20:12.920516 10235 net.cpp:131] Top shape: 1000 10 (10000)
I0501 08:20:12.920519 10235 net.cpp:139] Memory required for data: 178844000
I0501 08:20:12.920522 10235 layer_factory.hpp:77] Creating layer ip2
I0501 08:20:12.920529 10235 net.cpp:86] Creating Layer ip2
I0501 08:20:12.920532 10235 net.cpp:408] ip2 <- ip1
I0501 08:20:12.920537 10235 net.cpp:382] ip2 -> ip2
I0501 08:20:12.920652 10235 net.cpp:124] Setting up ip2
I0501 08:20:12.920660 10235 net.cpp:131] Top shape: 1000 40 (40000)
I0501 08:20:12.920662 10235 net.cpp:139] Memory required for data: 179004000
I0501 08:20:12.920670 10235 layer_factory.hpp:77] Creating layer relu2
I0501 08:20:12.920675 10235 net.cpp:86] Creating Layer relu2
I0501 08:20:12.920680 10235 net.cpp:408] relu2 <- ip2
I0501 08:20:12.920684 10235 net.cpp:369] relu2 -> ip2 (in-place)
I0501 08:20:12.921476 10235 net.cpp:124] Setting up relu2
I0501 08:20:12.921489 10235 net.cpp:131] Top shape: 1000 40 (40000)
I0501 08:20:12.921507 10235 net.cpp:139] Memory required for data: 179164000
I0501 08:20:12.921510 10235 layer_factory.hpp:77] Creating layer ip3
I0501 08:20:12.921517 10235 net.cpp:86] Creating Layer ip3
I0501 08:20:12.921520 10235 net.cpp:408] ip3 <- ip2
I0501 08:20:12.921526 10235 net.cpp:382] ip3 -> ip3
I0501 08:20:12.921748 10235 net.cpp:124] Setting up ip3
I0501 08:20:12.921756 10235 net.cpp:131] Top shape: 1000 80 (80000)
I0501 08:20:12.921759 10235 net.cpp:139] Memory required for data: 179484000
I0501 08:20:12.921764 10235 layer_factory.hpp:77] Creating layer relu3
I0501 08:20:12.921769 10235 net.cpp:86] Creating Layer relu3
I0501 08:20:12.921772 10235 net.cpp:408] relu3 <- ip3
I0501 08:20:12.921777 10235 net.cpp:369] relu3 -> ip3 (in-place)
I0501 08:20:12.921922 10235 net.cpp:124] Setting up relu3
I0501 08:20:12.921929 10235 net.cpp:131] Top shape: 1000 80 (80000)
I0501 08:20:12.921932 10235 net.cpp:139] Memory required for data: 179804000
I0501 08:20:12.921936 10235 layer_factory.hpp:77] Creating layer ip4
I0501 08:20:12.921942 10235 net.cpp:86] Creating Layer ip4
I0501 08:20:12.921946 10235 net.cpp:408] ip4 <- ip3
I0501 08:20:12.921950 10235 net.cpp:382] ip4 -> ip4
I0501 08:20:12.922066 10235 net.cpp:124] Setting up ip4
I0501 08:20:12.922073 10235 net.cpp:131] Top shape: 1000 10 (10000)
I0501 08:20:12.922076 10235 net.cpp:139] Memory required for data: 179844000
I0501 08:20:12.922085 10235 layer_factory.hpp:77] Creating layer ip4_ip4_0_split
I0501 08:20:12.922092 10235 net.cpp:86] Creating Layer ip4_ip4_0_split
I0501 08:20:12.922096 10235 net.cpp:408] ip4_ip4_0_split <- ip4
I0501 08:20:12.922099 10235 net.cpp:382] ip4_ip4_0_split -> ip4_ip4_0_split_0
I0501 08:20:12.922104 10235 net.cpp:382] ip4_ip4_0_split -> ip4_ip4_0_split_1
I0501 08:20:12.922134 10235 net.cpp:124] Setting up ip4_ip4_0_split
I0501 08:20:12.922140 10235 net.cpp:131] Top shape: 1000 10 (10000)
I0501 08:20:12.922144 10235 net.cpp:131] Top shape: 1000 10 (10000)
I0501 08:20:12.922147 10235 net.cpp:139] Memory required for data: 179924000
I0501 08:20:12.922149 10235 layer_factory.hpp:77] Creating layer accuracy
I0501 08:20:12.922155 10235 net.cpp:86] Creating Layer accuracy
I0501 08:20:12.922158 10235 net.cpp:408] accuracy <- ip4_ip4_0_split_0
I0501 08:20:12.922163 10235 net.cpp:408] accuracy <- label_cifar_1_split_0
I0501 08:20:12.922168 10235 net.cpp:382] accuracy -> accuracy
…
