…
I0501 05:03:47.750465 27619 net.cpp:296] The NetState phase (0) differed from the phase (1) specified by a rule in layer cifar
I0501 05:03:47.750485 27619 net.cpp:296] The NetState phase (0) differed from the phase (1) specified by a rule in layer accuracy
I0501 05:03:47.750591 27619 net.cpp:53] Initializing net from parameters: 
name: "CIFAR"
state {
  phase: TRAIN
  level: 0
  stage: ""
}
layer {
  name: "cifar"
  type: "Data"
  top: "data"
  top: "label"
  include {
    phase: TRAIN
  }
  transform_param {
    mean_file: "examples/cifar10/mean.binaryproto"
  }
  data_param {
    source: "examples/cifar10/cifar10_train_lmdb"
    batch_size: 111
    backend: LMDB
  }
}
layer {
  name: "conv0"
  type: "Convolution"
  bottom: "data"
  top: "conv0"
  param {
    lr_mult: 1
  }
  param {
    lr_mult: 2
  }
  convolution_param {
    num_output: 8
    pad: 2
    kernel_size: 5
    stride: 1
    weight_filler {
      type: "gaussian"
      std: 0.01
    }
    bias_filler {
      type: "constant"
    }
  }
}
layer {
  name: "Sigmoid0"
  type: "Sigmoid"
  bottom: "conv0"
  top: "Sigmoid0"
}
layer {
  name: "pool0"
  type: "Pooling"
  bottom: "Sigmoid0"
  top: "pool0"
  pooling_param {
    pool: AVE
    kernel_size: 3
    stride: 2
  }
}
layer {
  name: "ip1"
  type: "InnerProduct"
  bottom: "pool0"
  top: "ip1"
  param {
    lr_mult: 1
  }
  param {
    lr_mult: 2
  }
  inner_product_param {
    num_output: 40
    weight_filler {
      type: "gaussian"
      std: 0.01
    }
    bias_filler {
      type: "constant"
    }
  }
}
layer {
  name: "relu1"
  type: "ReLU"
  bottom: "ip1"
  top: "ip1"
}
layer {
  name: "ip2"
  type: "InnerProduct"
  bottom: "ip1"
  top: "ip2"
  param {
    lr_mult: 1
  }
  param {
    lr_mult: 2
  }
  inner_product_param {
    num_output: 80
    weight_filler {
      type: "gaussian"
      std: 0.01
    }
    bias_filler {
      type: "constant"
    }
  }
}
layer {
  name: "relu2"
  type: "ReLU"
  bottom: "ip2"
  top: "ip2"
}
layer {
  name: "ip3"
  type: "InnerProduct"
  bottom: "ip2"
  top: "ip3"
  param {
    lr_mult: 1
  }
  param {
    lr_mult: 2
  }
  inner_product_param {
    num_output: 20
    weight_filler {
      type: "gaussian"
      std: 0.01
    }
    bias_filler {
      type: "constant"
    }
  }
}
layer {
  name: "relu3"
  type: "ReLU"
  bottom: "ip3"
  top: "ip3"
}
layer {
  name: "ip4"
  type: "InnerProduct"
  bottom: "ip3"
  top: "ip4"
  param {
    lr_mult: 1
  }
  param {
    lr_mult: 2
  }
  inner_product_param {
    num_output: 10
    weight_filler {
      type: "gaussian"
      std: 0.01
    }
    bias_filler {
      type: "constant"
    }
  }
}
layer {
  name: "loss"
  type: "SoftmaxWithLoss"
  bottom: "ip4"
  bottom: "label"
  top: "loss"
}
I0501 05:03:47.750670 27619 layer_factory.hpp:77] Creating layer cifar
I0501 05:03:47.750768 27619 db_lmdb.cpp:35] Opened lmdb examples/cifar10/cifar10_train_lmdb
I0501 05:03:47.750795 27619 net.cpp:86] Creating Layer cifar
I0501 05:03:47.750804 27619 net.cpp:382] cifar -> data
I0501 05:03:47.750828 27619 net.cpp:382] cifar -> label
I0501 05:03:47.750838 27619 data_transformer.cpp:25] Loading mean file from: examples/cifar10/mean.binaryproto
I0501 05:03:47.752993 27619 data_layer.cpp:45] output data size: 111,3,32,32
I0501 05:03:47.760933 27619 net.cpp:124] Setting up cifar
I0501 05:03:47.760952 27619 net.cpp:131] Top shape: 111 3 32 32 (340992)
I0501 05:03:47.760958 27619 net.cpp:131] Top shape: 111 (111)
I0501 05:03:47.760962 27619 net.cpp:139] Memory required for data: 1364412
I0501 05:03:47.760983 27619 layer_factory.hpp:77] Creating layer conv0
I0501 05:03:47.761020 27619 net.cpp:86] Creating Layer conv0
I0501 05:03:47.761026 27619 net.cpp:408] conv0 <- data
I0501 05:03:47.761039 27619 net.cpp:382] conv0 -> conv0
I0501 05:03:48.012424 27619 net.cpp:124] Setting up conv0
I0501 05:03:48.012465 27619 net.cpp:131] Top shape: 111 8 32 32 (909312)
I0501 05:03:48.012470 27619 net.cpp:139] Memory required for data: 5001660
I0501 05:03:48.012483 27619 layer_factory.hpp:77] Creating layer Sigmoid0
I0501 05:03:48.012495 27619 net.cpp:86] Creating Layer Sigmoid0
I0501 05:03:48.012500 27619 net.cpp:408] Sigmoid0 <- conv0
I0501 05:03:48.012504 27619 net.cpp:382] Sigmoid0 -> Sigmoid0
I0501 05:03:48.012696 27619 net.cpp:124] Setting up Sigmoid0
I0501 05:03:48.012706 27619 net.cpp:131] Top shape: 111 8 32 32 (909312)
I0501 05:03:48.012709 27619 net.cpp:139] Memory required for data: 8638908
I0501 05:03:48.012712 27619 layer_factory.hpp:77] Creating layer pool0
I0501 05:03:48.012719 27619 net.cpp:86] Creating Layer pool0
I0501 05:03:48.012722 27619 net.cpp:408] pool0 <- Sigmoid0
I0501 05:03:48.012727 27619 net.cpp:382] pool0 -> pool0
I0501 05:03:48.013507 27619 net.cpp:124] Setting up pool0
I0501 05:03:48.013520 27619 net.cpp:131] Top shape: 111 8 16 16 (227328)
I0501 05:03:48.013538 27619 net.cpp:139] Memory required for data: 9548220
I0501 05:03:48.013542 27619 layer_factory.hpp:77] Creating layer ip1
I0501 05:03:48.013551 27619 net.cpp:86] Creating Layer ip1
I0501 05:03:48.013555 27619 net.cpp:408] ip1 <- pool0
I0501 05:03:48.013559 27619 net.cpp:382] ip1 -> ip1
I0501 05:03:48.015786 27619 net.cpp:124] Setting up ip1
I0501 05:03:48.015794 27619 net.cpp:131] Top shape: 111 40 (4440)
I0501 05:03:48.015812 27619 net.cpp:139] Memory required for data: 9565980
I0501 05:03:48.015820 27619 layer_factory.hpp:77] Creating layer relu1
I0501 05:03:48.015825 27619 net.cpp:86] Creating Layer relu1
I0501 05:03:48.015830 27619 net.cpp:408] relu1 <- ip1
I0501 05:03:48.015833 27619 net.cpp:369] relu1 -> ip1 (in-place)
I0501 05:03:48.016010 27619 net.cpp:124] Setting up relu1
I0501 05:03:48.016018 27619 net.cpp:131] Top shape: 111 40 (4440)
I0501 05:03:48.016021 27619 net.cpp:139] Memory required for data: 9583740
I0501 05:03:48.016024 27619 layer_factory.hpp:77] Creating layer ip2
I0501 05:03:48.016031 27619 net.cpp:86] Creating Layer ip2
I0501 05:03:48.016033 27619 net.cpp:408] ip2 <- ip1
I0501 05:03:48.016038 27619 net.cpp:382] ip2 -> ip2
I0501 05:03:48.016216 27619 net.cpp:124] Setting up ip2
I0501 05:03:48.016222 27619 net.cpp:131] Top shape: 111 80 (8880)
I0501 05:03:48.016224 27619 net.cpp:139] Memory required for data: 9619260
I0501 05:03:48.016232 27619 layer_factory.hpp:77] Creating layer relu2
I0501 05:03:48.016237 27619 net.cpp:86] Creating Layer relu2
I0501 05:03:48.016239 27619 net.cpp:408] relu2 <- ip2
I0501 05:03:48.016258 27619 net.cpp:369] relu2 -> ip2 (in-place)
I0501 05:03:48.016398 27619 net.cpp:124] Setting up relu2
I0501 05:03:48.016405 27619 net.cpp:131] Top shape: 111 80 (8880)
I0501 05:03:48.016409 27619 net.cpp:139] Memory required for data: 9654780
I0501 05:03:48.016412 27619 layer_factory.hpp:77] Creating layer ip3
I0501 05:03:48.016418 27619 net.cpp:86] Creating Layer ip3
I0501 05:03:48.016422 27619 net.cpp:408] ip3 <- ip2
I0501 05:03:48.016427 27619 net.cpp:382] ip3 -> ip3
I0501 05:03:48.016549 27619 net.cpp:124] Setting up ip3
I0501 05:03:48.016556 27619 net.cpp:131] Top shape: 111 20 (2220)
I0501 05:03:48.016558 27619 net.cpp:139] Memory required for data: 9663660
I0501 05:03:48.016563 27619 layer_factory.hpp:77] Creating layer relu3
I0501 05:03:48.016568 27619 net.cpp:86] Creating Layer relu3
I0501 05:03:48.016571 27619 net.cpp:408] relu3 <- ip3
I0501 05:03:48.016574 27619 net.cpp:369] relu3 -> ip3 (in-place)
I0501 05:03:48.016710 27619 net.cpp:124] Setting up relu3
I0501 05:03:48.016716 27619 net.cpp:131] Top shape: 111 20 (2220)
I0501 05:03:48.016719 27619 net.cpp:139] Memory required for data: 9672540
I0501 05:03:48.016722 27619 layer_factory.hpp:77] Creating layer ip4
I0501 05:03:48.016742 27619 net.cpp:86] Creating Layer ip4
I0501 05:03:48.016746 27619 net.cpp:408] ip4 <- ip3
I0501 05:03:48.016751 27619 net.cpp:382] ip4 -> ip4
I0501 05:03:48.016896 27619 net.cpp:124] Setting up ip4
I0501 05:03:48.016904 27619 net.cpp:131] Top shape: 111 10 (1110)
I0501 05:03:48.016908 27619 net.cpp:139] Memory required for data: 9676980
I0501 05:03:48.016916 27619 layer_factory.hpp:77] Creating layer loss
I0501 05:03:48.016927 27619 net.cpp:86] Creating Layer loss
I0501 05:03:48.016930 27619 net.cpp:408] loss <- ip4
I0501 05:03:48.016934 27619 net.cpp:408] loss <- label
I0501 05:03:48.016940 27619 net.cpp:382] loss -> loss
I0501 05:03:48.016952 27619 layer_factory.hpp:77] Creating layer loss
…
I0501 05:03:48.018215 27619 solver.cpp:173] Creating test net (#0) specified by net file: ECE595/cifar/train_test/var_everything/cifar_train_test_406.prototxt
I0501 05:03:48.018273 27619 net.cpp:296] The NetState phase (1) differed from the phase (0) specified by a rule in layer cifar
I0501 05:03:48.018368 27619 net.cpp:53] Initializing net from parameters: 
name: "CIFAR"
state {
  phase: TEST
}
layer {
  name: "cifar"
  type: "Data"
  top: "data"
  top: "label"
  include {
    phase: TEST
  }
  transform_param {
    mean_file: "examples/cifar10/mean.binaryproto"
  }
  data_param {
    source: "examples/cifar10/cifar10_test_lmdb"
    batch_size: 1000
    backend: LMDB
  }
}
layer {
  name: "conv0"
  type: "Convolution"
  bottom: "data"
  top: "conv0"
  param {
    lr_mult: 1
  }
  param {
    lr_mult: 2
  }
  convolution_param {
    num_output: 8
    pad: 2
    kernel_size: 5
    stride: 1
    weight_filler {
      type: "gaussian"
      std: 0.01
    }
    bias_filler {
      type: "constant"
    }
  }
}
layer {
  name: "Sigmoid0"
  type: "Sigmoid"
  bottom: "conv0"
  top: "Sigmoid0"
}
layer {
  name: "pool0"
  type: "Pooling"
  bottom: "Sigmoid0"
  top: "pool0"
  pooling_param {
    pool: AVE
    kernel_size: 3
    stride: 2
  }
}
layer {
  name: "ip1"
  type: "InnerProduct"
  bottom: "pool0"
  top: "ip1"
  param {
    lr_mult: 1
  }
  param {
    lr_mult: 2
  }
  inner_product_param {
    num_output: 40
    weight_filler {
      type: "gaussian"
      std: 0.01
    }
    bias_filler {
      type: "constant"
    }
  }
}
layer {
  name: "relu1"
  type: "ReLU"
  bottom: "ip1"
  top: "ip1"
}
layer {
  name: "ip2"
  type: "InnerProduct"
  bottom: "ip1"
  top: "ip2"
  param {
    lr_mult: 1
  }
  param {
    lr_mult: 2
  }
  inner_product_param {
    num_output: 80
    weight_filler {
      type: "gaussian"
      std: 0.01
    }
    bias_filler {
      type: "constant"
    }
  }
}
layer {
  name: "relu2"
  type: "ReLU"
  bottom: "ip2"
  top: "ip2"
}
layer {
  name: "ip3"
  type: "InnerProduct"
  bottom: "ip2"
  top: "ip3"
  param {
    lr_mult: 1
  }
  param {
    lr_mult: 2
  }
  inner_product_param {
    num_output: 20
    weight_filler {
      type: "gaussian"
      std: 0.01
    }
    bias_filler {
      type: "constant"
    }
  }
}
layer {
  name: "relu3"
  type: "ReLU"
  bottom: "ip3"
  top: "ip3"
}
layer {
  name: "ip4"
  type: "InnerProduct"
  bottom: "ip3"
  top: "ip4"
  param {
    lr_mult: 1
  }
  param {
    lr_mult: 2
  }
  inner_product_param {
    num_output: 10
    weight_filler {
      type: "gaussian"
      std: 0.01
    }
    bias_filler {
      type: "constant"
    }
  }
}
layer {
  name: "accuracy"
  type: "Accuracy"
  bottom: "ip4"
  bottom: "label"
  top: "accuracy"
  include {
    phase: TEST
  }
}
layer {
  name: "loss"
  type: "SoftmaxWithLoss"
  bottom: "ip4"
  bottom: "label"
  top: "loss"
}
I0501 05:03:48.018458 27619 layer_factory.hpp:77] Creating layer cifar
I0501 05:03:48.018519 27619 db_lmdb.cpp:35] Opened lmdb examples/cifar10/cifar10_test_lmdb
I0501 05:03:48.018532 27619 net.cpp:86] Creating Layer cifar
I0501 05:03:48.018537 27619 net.cpp:382] cifar -> data
I0501 05:03:48.018543 27619 net.cpp:382] cifar -> label
I0501 05:03:48.018550 27619 data_transformer.cpp:25] Loading mean file from: examples/cifar10/mean.binaryproto
I0501 05:03:48.018687 27619 data_layer.cpp:45] output data size: 1000,3,32,32
I0501 05:03:48.040668 27619 net.cpp:124] Setting up cifar
I0501 05:03:48.040693 27619 net.cpp:131] Top shape: 1000 3 32 32 (3072000)
I0501 05:03:48.040699 27619 net.cpp:131] Top shape: 1000 (1000)
I0501 05:03:48.040702 27619 net.cpp:139] Memory required for data: 12292000
I0501 05:03:48.040709 27619 layer_factory.hpp:77] Creating layer label_cifar_1_split
I0501 05:03:48.040720 27619 net.cpp:86] Creating Layer label_cifar_1_split
I0501 05:03:48.040724 27619 net.cpp:408] label_cifar_1_split <- label
I0501 05:03:48.040745 27619 net.cpp:382] label_cifar_1_split -> label_cifar_1_split_0
I0501 05:03:48.040753 27619 net.cpp:382] label_cifar_1_split -> label_cifar_1_split_1
I0501 05:03:48.040954 27619 net.cpp:124] Setting up label_cifar_1_split
I0501 05:03:48.040963 27619 net.cpp:131] Top shape: 1000 (1000)
I0501 05:03:48.040968 27619 net.cpp:131] Top shape: 1000 (1000)
I0501 05:03:48.040971 27619 net.cpp:139] Memory required for data: 12300000
I0501 05:03:48.040974 27619 layer_factory.hpp:77] Creating layer conv0
I0501 05:03:48.040987 27619 net.cpp:86] Creating Layer conv0
I0501 05:03:48.040992 27619 net.cpp:408] conv0 <- data
I0501 05:03:48.040997 27619 net.cpp:382] conv0 -> conv0
I0501 05:03:48.042729 27619 net.cpp:124] Setting up conv0
I0501 05:03:48.042742 27619 net.cpp:131] Top shape: 1000 8 32 32 (8192000)
I0501 05:03:48.042747 27619 net.cpp:139] Memory required for data: 45068000
I0501 05:03:48.042755 27619 layer_factory.hpp:77] Creating layer Sigmoid0
I0501 05:03:48.042778 27619 net.cpp:86] Creating Layer Sigmoid0
I0501 05:03:48.042781 27619 net.cpp:408] Sigmoid0 <- conv0
I0501 05:03:48.042785 27619 net.cpp:382] Sigmoid0 -> Sigmoid0
I0501 05:03:48.042953 27619 net.cpp:124] Setting up Sigmoid0
I0501 05:03:48.042961 27619 net.cpp:131] Top shape: 1000 8 32 32 (8192000)
I0501 05:03:48.042964 27619 net.cpp:139] Memory required for data: 77836000
I0501 05:03:48.042968 27619 layer_factory.hpp:77] Creating layer pool0
I0501 05:03:48.042975 27619 net.cpp:86] Creating Layer pool0
I0501 05:03:48.042979 27619 net.cpp:408] pool0 <- Sigmoid0
I0501 05:03:48.042984 27619 net.cpp:382] pool0 -> pool0
I0501 05:03:48.043131 27619 net.cpp:124] Setting up pool0
I0501 05:03:48.043139 27619 net.cpp:131] Top shape: 1000 8 16 16 (2048000)
I0501 05:03:48.043143 27619 net.cpp:139] Memory required for data: 86028000
I0501 05:03:48.043145 27619 layer_factory.hpp:77] Creating layer ip1
I0501 05:03:48.043153 27619 net.cpp:86] Creating Layer ip1
I0501 05:03:48.043155 27619 net.cpp:408] ip1 <- pool0
I0501 05:03:48.043160 27619 net.cpp:382] ip1 -> ip1
I0501 05:03:48.045519 27619 net.cpp:124] Setting up ip1
I0501 05:03:48.045528 27619 net.cpp:131] Top shape: 1000 40 (40000)
I0501 05:03:48.045532 27619 net.cpp:139] Memory required for data: 86188000
I0501 05:03:48.045570 27619 layer_factory.hpp:77] Creating layer relu1
I0501 05:03:48.045577 27619 net.cpp:86] Creating Layer relu1
I0501 05:03:48.045579 27619 net.cpp:408] relu1 <- ip1
I0501 05:03:48.045584 27619 net.cpp:369] relu1 -> ip1 (in-place)
I0501 05:03:48.045744 27619 net.cpp:124] Setting up relu1
I0501 05:03:48.045753 27619 net.cpp:131] Top shape: 1000 40 (40000)
I0501 05:03:48.045758 27619 net.cpp:139] Memory required for data: 86348000
I0501 05:03:48.045760 27619 layer_factory.hpp:77] Creating layer ip2
I0501 05:03:48.045766 27619 net.cpp:86] Creating Layer ip2
I0501 05:03:48.045769 27619 net.cpp:408] ip2 <- ip1
I0501 05:03:48.045774 27619 net.cpp:382] ip2 -> ip2
I0501 05:03:48.045972 27619 net.cpp:124] Setting up ip2
I0501 05:03:48.045979 27619 net.cpp:131] Top shape: 1000 80 (80000)
I0501 05:03:48.045982 27619 net.cpp:139] Memory required for data: 86668000
I0501 05:03:48.045989 27619 layer_factory.hpp:77] Creating layer relu2
I0501 05:03:48.045994 27619 net.cpp:86] Creating Layer relu2
I0501 05:03:48.045997 27619 net.cpp:408] relu2 <- ip2
I0501 05:03:48.046001 27619 net.cpp:369] relu2 -> ip2 (in-place)
I0501 05:03:48.046752 27619 net.cpp:124] Setting up relu2
I0501 05:03:48.046764 27619 net.cpp:131] Top shape: 1000 80 (80000)
I0501 05:03:48.046768 27619 net.cpp:139] Memory required for data: 86988000
I0501 05:03:48.046772 27619 layer_factory.hpp:77] Creating layer ip3
I0501 05:03:48.046778 27619 net.cpp:86] Creating Layer ip3
I0501 05:03:48.046797 27619 net.cpp:408] ip3 <- ip2
I0501 05:03:48.046803 27619 net.cpp:382] ip3 -> ip3
I0501 05:03:48.046957 27619 net.cpp:124] Setting up ip3
I0501 05:03:48.046964 27619 net.cpp:131] Top shape: 1000 20 (20000)
I0501 05:03:48.046967 27619 net.cpp:139] Memory required for data: 87068000
I0501 05:03:48.046972 27619 layer_factory.hpp:77] Creating layer relu3
I0501 05:03:48.046977 27619 net.cpp:86] Creating Layer relu3
I0501 05:03:48.046980 27619 net.cpp:408] relu3 <- ip3
I0501 05:03:48.046984 27619 net.cpp:369] relu3 -> ip3 (in-place)
I0501 05:03:48.047122 27619 net.cpp:124] Setting up relu3
I0501 05:03:48.047129 27619 net.cpp:131] Top shape: 1000 20 (20000)
I0501 05:03:48.047132 27619 net.cpp:139] Memory required for data: 87148000
I0501 05:03:48.047135 27619 layer_factory.hpp:77] Creating layer ip4
I0501 05:03:48.047142 27619 net.cpp:86] Creating Layer ip4
I0501 05:03:48.047144 27619 net.cpp:408] ip4 <- ip3
I0501 05:03:48.047149 27619 net.cpp:382] ip4 -> ip4
I0501 05:03:48.047246 27619 net.cpp:124] Setting up ip4
I0501 05:03:48.047253 27619 net.cpp:131] Top shape: 1000 10 (10000)
I0501 05:03:48.047256 27619 net.cpp:139] Memory required for data: 87188000
I0501 05:03:48.047269 27619 layer_factory.hpp:77] Creating layer ip4_ip4_0_split
I0501 05:03:48.047283 27619 net.cpp:86] Creating Layer ip4_ip4_0_split
I0501 05:03:48.047286 27619 net.cpp:408] ip4_ip4_0_split <- ip4
I0501 05:03:48.047291 27619 net.cpp:382] ip4_ip4_0_split -> ip4_ip4_0_split_0
I0501 05:03:48.047296 27619 net.cpp:382] ip4_ip4_0_split -> ip4_ip4_0_split_1
I0501 05:03:48.047325 27619 net.cpp:124] Setting up ip4_ip4_0_split
I0501 05:03:48.047330 27619 net.cpp:131] Top shape: 1000 10 (10000)
I0501 05:03:48.047333 27619 net.cpp:131] Top shape: 1000 10 (10000)
I0501 05:03:48.047336 27619 net.cpp:139] Memory required for data: 87268000
I0501 05:03:48.047339 27619 layer_factory.hpp:77] Creating layer accuracy
I0501 05:03:48.047344 27619 net.cpp:86] Creating Layer accuracy
I0501 05:03:48.047348 27619 net.cpp:408] accuracy <- ip4_ip4_0_split_0
I0501 05:03:48.047351 27619 net.cpp:408] accuracy <- label_cifar_1_split_0
I0501 05:03:48.047355 27619 net.cpp:382] accuracy -> accuracy
…
