…
I0430 20:27:41.714864 28717 net.cpp:296] The NetState phase (0) differed from the phase (1) specified by a rule in layer cifar
I0430 20:27:41.714881 28717 net.cpp:296] The NetState phase (0) differed from the phase (1) specified by a rule in layer accuracy
I0430 20:27:41.714968 28717 net.cpp:53] Initializing net from parameters: 
name: "CIFAR"
state {
  phase: TRAIN
  level: 0
  stage: ""
}
layer {
  name: "cifar"
  type: "Data"
  top: "data"
  top: "label"
  include {
    phase: TRAIN
  }
  transform_param {
    mean_file: "examples/cifar10/mean.binaryproto"
  }
  data_param {
    source: "examples/cifar10/cifar10_train_lmdb"
    batch_size: 111
    backend: LMDB
  }
}
layer {
  name: "ip1"
  type: "InnerProduct"
  bottom: "data"
  top: "ip1"
  param {
    lr_mult: 1
  }
  param {
    lr_mult: 2
  }
  inner_product_param {
    num_output: 160
    weight_filler {
      type: "gaussian"
      std: 0.01
    }
    bias_filler {
      type: "constant"
    }
  }
}
layer {
  name: "relu1"
  type: "ReLU"
  bottom: "ip1"
  top: "ip1"
}
layer {
  name: "ip2"
  type: "InnerProduct"
  bottom: "ip1"
  top: "ip2"
  param {
    lr_mult: 1
  }
  param {
    lr_mult: 2
  }
  inner_product_param {
    num_output: 10
    weight_filler {
      type: "gaussian"
      std: 0.01
    }
    bias_filler {
      type: "constant"
    }
  }
}
layer {
  name: "relu2"
  type: "ReLU"
  bottom: "ip2"
  top: "ip2"
}
layer {
  name: "ip3"
  type: "InnerProduct"
  bottom: "ip2"
  top: "ip3"
  param {
    lr_mult: 1
  }
  param {
    lr_mult: 2
  }
  inner_product_param {
    num_output: 10
    weight_filler {
      type: "gaussian"
      std: 0.01
    }
    bias_filler {
      type: "constant"
    }
  }
}
layer {
  name: "relu3"
  type: "ReLU"
  bottom: "ip3"
  top: "ip3"
}
layer {
  name: "ip4"
  type: "InnerProduct"
  bottom: "ip3"
  top: "ip4"
  param {
    lr_mult: 1
  }
  param {
    lr_mult: 2
  }
  inner_product_param {
    num_output: 10
    weight_filler {
      type: "gaussian"
      std: 0.01
    }
    bias_filler {
      type: "constant"
    }
  }
}
layer {
  name: "loss"
  type: "SoftmaxWithLoss"
  bottom: "ip4"
  bottom: "label"
  top: "loss"
}
I0430 20:27:41.715039 28717 layer_factory.hpp:77] Creating layer cifar
I0430 20:27:41.715140 28717 db_lmdb.cpp:35] Opened lmdb examples/cifar10/cifar10_train_lmdb
I0430 20:27:41.715169 28717 net.cpp:86] Creating Layer cifar
I0430 20:27:41.715178 28717 net.cpp:382] cifar -> data
I0430 20:27:41.715200 28717 net.cpp:382] cifar -> label
I0430 20:27:41.715214 28717 data_transformer.cpp:25] Loading mean file from: examples/cifar10/mean.binaryproto
I0430 20:27:41.717334 28717 data_layer.cpp:45] output data size: 111,3,32,32
I0430 20:27:41.725229 28717 net.cpp:124] Setting up cifar
I0430 20:27:41.725250 28717 net.cpp:131] Top shape: 111 3 32 32 (340992)
I0430 20:27:41.725256 28717 net.cpp:131] Top shape: 111 (111)
I0430 20:27:41.725260 28717 net.cpp:139] Memory required for data: 1364412
I0430 20:27:41.725266 28717 layer_factory.hpp:77] Creating layer ip1
I0430 20:27:41.725293 28717 net.cpp:86] Creating Layer ip1
I0430 20:27:41.725301 28717 net.cpp:408] ip1 <- data
I0430 20:27:41.725313 28717 net.cpp:382] ip1 -> ip1
I0430 20:27:41.742583 28717 net.cpp:124] Setting up ip1
I0430 20:27:41.742599 28717 net.cpp:131] Top shape: 111 160 (17760)
I0430 20:27:41.742602 28717 net.cpp:139] Memory required for data: 1435452
I0430 20:27:41.742616 28717 layer_factory.hpp:77] Creating layer relu1
I0430 20:27:41.742642 28717 net.cpp:86] Creating Layer relu1
I0430 20:27:41.742647 28717 net.cpp:408] relu1 <- ip1
I0430 20:27:41.742653 28717 net.cpp:369] relu1 -> ip1 (in-place)
I0430 20:27:42.031782 28717 net.cpp:124] Setting up relu1
I0430 20:27:42.031812 28717 net.cpp:131] Top shape: 111 160 (17760)
I0430 20:27:42.031817 28717 net.cpp:139] Memory required for data: 1506492
I0430 20:27:42.031824 28717 layer_factory.hpp:77] Creating layer ip2
I0430 20:27:42.031838 28717 net.cpp:86] Creating Layer ip2
I0430 20:27:42.031843 28717 net.cpp:408] ip2 <- ip1
I0430 20:27:42.031852 28717 net.cpp:382] ip2 -> ip2
I0430 20:27:42.032037 28717 net.cpp:124] Setting up ip2
I0430 20:27:42.032045 28717 net.cpp:131] Top shape: 111 10 (1110)
I0430 20:27:42.032049 28717 net.cpp:139] Memory required for data: 1510932
I0430 20:27:42.032061 28717 layer_factory.hpp:77] Creating layer relu2
I0430 20:27:42.032070 28717 net.cpp:86] Creating Layer relu2
I0430 20:27:42.032073 28717 net.cpp:408] relu2 <- ip2
I0430 20:27:42.032078 28717 net.cpp:369] relu2 -> ip2 (in-place)
I0430 20:27:42.032974 28717 net.cpp:124] Setting up relu2
I0430 20:27:42.032990 28717 net.cpp:131] Top shape: 111 10 (1110)
I0430 20:27:42.032994 28717 net.cpp:139] Memory required for data: 1515372
I0430 20:27:42.032999 28717 layer_factory.hpp:77] Creating layer ip3
I0430 20:27:42.033007 28717 net.cpp:86] Creating Layer ip3
I0430 20:27:42.033011 28717 net.cpp:408] ip3 <- ip2
I0430 20:27:42.033017 28717 net.cpp:382] ip3 -> ip3
I0430 20:27:42.033139 28717 net.cpp:124] Setting up ip3
I0430 20:27:42.033149 28717 net.cpp:131] Top shape: 111 10 (1110)
I0430 20:27:42.033152 28717 net.cpp:139] Memory required for data: 1519812
I0430 20:27:42.033162 28717 layer_factory.hpp:77] Creating layer relu3
I0430 20:27:42.033169 28717 net.cpp:86] Creating Layer relu3
I0430 20:27:42.033172 28717 net.cpp:408] relu3 <- ip3
I0430 20:27:42.033176 28717 net.cpp:369] relu3 -> ip3 (in-place)
I0430 20:27:42.033351 28717 net.cpp:124] Setting up relu3
I0430 20:27:42.033360 28717 net.cpp:131] Top shape: 111 10 (1110)
I0430 20:27:42.033365 28717 net.cpp:139] Memory required for data: 1524252
I0430 20:27:42.033367 28717 layer_factory.hpp:77] Creating layer ip4
I0430 20:27:42.033375 28717 net.cpp:86] Creating Layer ip4
I0430 20:27:42.033380 28717 net.cpp:408] ip4 <- ip3
I0430 20:27:42.033385 28717 net.cpp:382] ip4 -> ip4
I0430 20:27:42.033494 28717 net.cpp:124] Setting up ip4
I0430 20:27:42.033502 28717 net.cpp:131] Top shape: 111 10 (1110)
I0430 20:27:42.033506 28717 net.cpp:139] Memory required for data: 1528692
I0430 20:27:42.033512 28717 layer_factory.hpp:77] Creating layer loss
I0430 20:27:42.033519 28717 net.cpp:86] Creating Layer loss
I0430 20:27:42.033524 28717 net.cpp:408] loss <- ip4
I0430 20:27:42.033529 28717 net.cpp:408] loss <- label
I0430 20:27:42.033535 28717 net.cpp:382] loss -> loss
I0430 20:27:42.033556 28717 layer_factory.hpp:77] Creating layer loss
…
I0430 20:27:42.034224 28717 solver.cpp:173] Creating test net (#0) specified by net file: ECE595/cifar/train_test/var_everything/cifar_train_test_130.prototxt
I0430 20:27:42.034268 28717 net.cpp:296] The NetState phase (1) differed from the phase (0) specified by a rule in layer cifar
I0430 20:27:42.034361 28717 net.cpp:53] Initializing net from parameters: 
name: "CIFAR"
state {
  phase: TEST
}
layer {
  name: "cifar"
  type: "Data"
  top: "data"
  top: "label"
  include {
    phase: TEST
  }
  transform_param {
    mean_file: "examples/cifar10/mean.binaryproto"
  }
  data_param {
    source: "examples/cifar10/cifar10_test_lmdb"
    batch_size: 1000
    backend: LMDB
  }
}
layer {
  name: "ip1"
  type: "InnerProduct"
  bottom: "data"
  top: "ip1"
  param {
    lr_mult: 1
  }
  param {
    lr_mult: 2
  }
  inner_product_param {
    num_output: 160
    weight_filler {
      type: "gaussian"
      std: 0.01
    }
    bias_filler {
      type: "constant"
    }
  }
}
layer {
  name: "relu1"
  type: "ReLU"
  bottom: "ip1"
  top: "ip1"
}
layer {
  name: "ip2"
  type: "InnerProduct"
  bottom: "ip1"
  top: "ip2"
  param {
    lr_mult: 1
  }
  param {
    lr_mult: 2
  }
  inner_product_param {
    num_output: 10
    weight_filler {
      type: "gaussian"
      std: 0.01
    }
    bias_filler {
      type: "constant"
    }
  }
}
layer {
  name: "relu2"
  type: "ReLU"
  bottom: "ip2"
  top: "ip2"
}
layer {
  name: "ip3"
  type: "InnerProduct"
  bottom: "ip2"
  top: "ip3"
  param {
    lr_mult: 1
  }
  param {
    lr_mult: 2
  }
  inner_product_param {
    num_output: 10
    weight_filler {
      type: "gaussian"
      std: 0.01
    }
    bias_filler {
      type: "constant"
    }
  }
}
layer {
  name: "relu3"
  type: "ReLU"
  bottom: "ip3"
  top: "ip3"
}
layer {
  name: "ip4"
  type: "InnerProduct"
  bottom: "ip3"
  top: "ip4"
  param {
    lr_mult: 1
  }
  param {
    lr_mult: 2
  }
  inner_product_param {
    num_output: 10
    weight_filler {
      type: "gaussian"
      std: 0.01
    }
    bias_filler {
      type: "constant"
    }
  }
}
layer {
  name: "accuracy"
  type: "Accuracy"
  bottom: "ip4"
  bottom: "label"
  top: "accuracy"
  include {
    phase: TEST
  }
}
layer {
  name: "loss"
  type: "SoftmaxWithLoss"
  bottom: "ip4"
  bottom: "label"
  top: "loss"
}
I0430 20:27:42.034432 28717 layer_factory.hpp:77] Creating layer cifar
I0430 20:27:42.034487 28717 db_lmdb.cpp:35] Opened lmdb examples/cifar10/cifar10_test_lmdb
I0430 20:27:42.034502 28717 net.cpp:86] Creating Layer cifar
I0430 20:27:42.034508 28717 net.cpp:382] cifar -> data
I0430 20:27:42.034518 28717 net.cpp:382] cifar -> label
I0430 20:27:42.034525 28717 data_transformer.cpp:25] Loading mean file from: examples/cifar10/mean.binaryproto
I0430 20:27:42.034695 28717 data_layer.cpp:45] output data size: 1000,3,32,32
I0430 20:27:42.061667 28717 net.cpp:124] Setting up cifar
I0430 20:27:42.061698 28717 net.cpp:131] Top shape: 1000 3 32 32 (3072000)
I0430 20:27:42.061707 28717 net.cpp:131] Top shape: 1000 (1000)
I0430 20:27:42.061710 28717 net.cpp:139] Memory required for data: 12292000
I0430 20:27:42.061717 28717 layer_factory.hpp:77] Creating layer label_cifar_1_split
I0430 20:27:42.061735 28717 net.cpp:86] Creating Layer label_cifar_1_split
I0430 20:27:42.061740 28717 net.cpp:408] label_cifar_1_split <- label
I0430 20:27:42.061748 28717 net.cpp:382] label_cifar_1_split -> label_cifar_1_split_0
I0430 20:27:42.061759 28717 net.cpp:382] label_cifar_1_split -> label_cifar_1_split_1
I0430 20:27:42.061887 28717 net.cpp:124] Setting up label_cifar_1_split
I0430 20:27:42.061897 28717 net.cpp:131] Top shape: 1000 (1000)
I0430 20:27:42.061902 28717 net.cpp:131] Top shape: 1000 (1000)
I0430 20:27:42.061905 28717 net.cpp:139] Memory required for data: 12300000
I0430 20:27:42.061909 28717 layer_factory.hpp:77] Creating layer ip1
I0430 20:27:42.061919 28717 net.cpp:86] Creating Layer ip1
I0430 20:27:42.061923 28717 net.cpp:408] ip1 <- data
I0430 20:27:42.061929 28717 net.cpp:382] ip1 -> ip1
I0430 20:27:42.079236 28717 net.cpp:124] Setting up ip1
I0430 20:27:42.079254 28717 net.cpp:131] Top shape: 1000 160 (160000)
I0430 20:27:42.079259 28717 net.cpp:139] Memory required for data: 12940000
I0430 20:27:42.079291 28717 layer_factory.hpp:77] Creating layer relu1
I0430 20:27:42.079300 28717 net.cpp:86] Creating Layer relu1
I0430 20:27:42.079305 28717 net.cpp:408] relu1 <- ip1
I0430 20:27:42.079311 28717 net.cpp:369] relu1 -> ip1 (in-place)
I0430 20:27:42.080245 28717 net.cpp:124] Setting up relu1
I0430 20:27:42.080260 28717 net.cpp:131] Top shape: 1000 160 (160000)
I0430 20:27:42.080265 28717 net.cpp:139] Memory required for data: 13580000
I0430 20:27:42.080268 28717 layer_factory.hpp:77] Creating layer ip2
I0430 20:27:42.080279 28717 net.cpp:86] Creating Layer ip2
I0430 20:27:42.080283 28717 net.cpp:408] ip2 <- ip1
I0430 20:27:42.080289 28717 net.cpp:382] ip2 -> ip2
I0430 20:27:42.080471 28717 net.cpp:124] Setting up ip2
I0430 20:27:42.080480 28717 net.cpp:131] Top shape: 1000 10 (10000)
I0430 20:27:42.080483 28717 net.cpp:139] Memory required for data: 13620000
I0430 20:27:42.080492 28717 layer_factory.hpp:77] Creating layer relu2
I0430 20:27:42.080499 28717 net.cpp:86] Creating Layer relu2
I0430 20:27:42.080503 28717 net.cpp:408] relu2 <- ip2
I0430 20:27:42.080508 28717 net.cpp:369] relu2 -> ip2 (in-place)
I0430 20:27:42.080691 28717 net.cpp:124] Setting up relu2
I0430 20:27:42.080701 28717 net.cpp:131] Top shape: 1000 10 (10000)
I0430 20:27:42.080704 28717 net.cpp:139] Memory required for data: 13660000
I0430 20:27:42.080708 28717 layer_factory.hpp:77] Creating layer ip3
I0430 20:27:42.080715 28717 net.cpp:86] Creating Layer ip3
I0430 20:27:42.080719 28717 net.cpp:408] ip3 <- ip2
I0430 20:27:42.080725 28717 net.cpp:382] ip3 -> ip3
I0430 20:27:42.080868 28717 net.cpp:124] Setting up ip3
I0430 20:27:42.080878 28717 net.cpp:131] Top shape: 1000 10 (10000)
I0430 20:27:42.080883 28717 net.cpp:139] Memory required for data: 13700000
I0430 20:27:42.080891 28717 layer_factory.hpp:77] Creating layer relu3
I0430 20:27:42.080898 28717 net.cpp:86] Creating Layer relu3
I0430 20:27:42.080901 28717 net.cpp:408] relu3 <- ip3
I0430 20:27:42.080906 28717 net.cpp:369] relu3 -> ip3 (in-place)
I0430 20:27:42.081089 28717 net.cpp:124] Setting up relu3
I0430 20:27:42.081097 28717 net.cpp:131] Top shape: 1000 10 (10000)
I0430 20:27:42.081101 28717 net.cpp:139] Memory required for data: 13740000
I0430 20:27:42.081105 28717 layer_factory.hpp:77] Creating layer ip4
I0430 20:27:42.081115 28717 net.cpp:86] Creating Layer ip4
I0430 20:27:42.081117 28717 net.cpp:408] ip4 <- ip3
I0430 20:27:42.081123 28717 net.cpp:382] ip4 -> ip4
I0430 20:27:42.081245 28717 net.cpp:124] Setting up ip4
I0430 20:27:42.081254 28717 net.cpp:131] Top shape: 1000 10 (10000)
I0430 20:27:42.081257 28717 net.cpp:139] Memory required for data: 13780000
I0430 20:27:42.081264 28717 layer_factory.hpp:77] Creating layer ip4_ip4_0_split
I0430 20:27:42.081270 28717 net.cpp:86] Creating Layer ip4_ip4_0_split
I0430 20:27:42.081274 28717 net.cpp:408] ip4_ip4_0_split <- ip4
I0430 20:27:42.081279 28717 net.cpp:382] ip4_ip4_0_split -> ip4_ip4_0_split_0
I0430 20:27:42.081286 28717 net.cpp:382] ip4_ip4_0_split -> ip4_ip4_0_split_1
I0430 20:27:42.081322 28717 net.cpp:124] Setting up ip4_ip4_0_split
I0430 20:27:42.081331 28717 net.cpp:131] Top shape: 1000 10 (10000)
I0430 20:27:42.081334 28717 net.cpp:131] Top shape: 1000 10 (10000)
I0430 20:27:42.081337 28717 net.cpp:139] Memory required for data: 13860000
I0430 20:27:42.081341 28717 layer_factory.hpp:77] Creating layer accuracy
I0430 20:27:42.081347 28717 net.cpp:86] Creating Layer accuracy
I0430 20:27:42.081351 28717 net.cpp:408] accuracy <- ip4_ip4_0_split_0
I0430 20:27:42.081356 28717 net.cpp:408] accuracy <- label_cifar_1_split_0
I0430 20:27:42.081362 28717 net.cpp:382] accuracy -> accuracy
…
