…
I0501 05:20:33.881870 28683 net.cpp:296] The NetState phase (0) differed from the phase (1) specified by a rule in layer cifar
I0501 05:20:33.881891 28683 net.cpp:296] The NetState phase (0) differed from the phase (1) specified by a rule in layer accuracy
I0501 05:20:33.882015 28683 net.cpp:53] Initializing net from parameters: 
name: "CIFAR"
state {
  phase: TRAIN
  level: 0
  stage: ""
}
layer {
  name: "cifar"
  type: "Data"
  top: "data"
  top: "label"
  include {
    phase: TRAIN
  }
  transform_param {
    mean_file: "examples/cifar10/mean.binaryproto"
  }
  data_param {
    source: "examples/cifar10/cifar10_train_lmdb"
    batch_size: 111
    backend: LMDB
  }
}
layer {
  name: "conv0"
  type: "Convolution"
  bottom: "data"
  top: "conv0"
  param {
    lr_mult: 1
  }
  param {
    lr_mult: 2
  }
  convolution_param {
    num_output: 8
    pad: 2
    kernel_size: 5
    stride: 1
    weight_filler {
      type: "gaussian"
      std: 0.01
    }
    bias_filler {
      type: "constant"
    }
  }
}
layer {
  name: "Sigmoid0"
  type: "Sigmoid"
  bottom: "conv0"
  top: "Sigmoid0"
}
layer {
  name: "pool0"
  type: "Pooling"
  bottom: "Sigmoid0"
  top: "pool0"
  pooling_param {
    pool: AVE
    kernel_size: 3
    stride: 2
  }
}
layer {
  name: "ip1"
  type: "InnerProduct"
  bottom: "pool0"
  top: "ip1"
  param {
    lr_mult: 1
  }
  param {
    lr_mult: 2
  }
  inner_product_param {
    num_output: 80
    weight_filler {
      type: "gaussian"
      std: 0.01
    }
    bias_filler {
      type: "constant"
    }
  }
}
layer {
  name: "relu1"
  type: "ReLU"
  bottom: "ip1"
  top: "ip1"
}
layer {
  name: "ip2"
  type: "InnerProduct"
  bottom: "ip1"
  top: "ip2"
  param {
    lr_mult: 1
  }
  param {
    lr_mult: 2
  }
  inner_product_param {
    num_output: 10
    weight_filler {
      type: "gaussian"
      std: 0.01
    }
    bias_filler {
      type: "constant"
    }
  }
}
layer {
  name: "relu2"
  type: "ReLU"
  bottom: "ip2"
  top: "ip2"
}
layer {
  name: "ip3"
  type: "InnerProduct"
  bottom: "ip2"
  top: "ip3"
  param {
    lr_mult: 1
  }
  param {
    lr_mult: 2
  }
  inner_product_param {
    num_output: 10
    weight_filler {
      type: "gaussian"
      std: 0.01
    }
    bias_filler {
      type: "constant"
    }
  }
}
layer {
  name: "relu3"
  type: "ReLU"
  bottom: "ip3"
  top: "ip3"
}
layer {
  name: "ip4"
  type: "InnerProduct"
  bottom: "ip3"
  top: "ip4"
  param {
    lr_mult: 1
  }
  param {
    lr_mult: 2
  }
  inner_product_param {
    num_output: 10
    weight_filler {
      type: "gaussian"
      std: 0.01
    }
    bias_filler {
      type: "constant"
    }
  }
}
layer {
  name: "loss"
  type: "SoftmaxWithLoss"
  bottom: "ip4"
  bottom: "label"
  top: "loss"
}
I0501 05:20:33.882127 28683 layer_factory.hpp:77] Creating layer cifar
I0501 05:20:33.882251 28683 db_lmdb.cpp:35] Opened lmdb examples/cifar10/cifar10_train_lmdb
I0501 05:20:33.882287 28683 net.cpp:86] Creating Layer cifar
I0501 05:20:33.882302 28683 net.cpp:382] cifar -> data
I0501 05:20:33.882331 28683 net.cpp:382] cifar -> label
I0501 05:20:33.882349 28683 data_transformer.cpp:25] Loading mean file from: examples/cifar10/mean.binaryproto
I0501 05:20:33.884542 28683 data_layer.cpp:45] output data size: 111,3,32,32
I0501 05:20:33.892426 28683 net.cpp:124] Setting up cifar
I0501 05:20:33.892443 28683 net.cpp:131] Top shape: 111 3 32 32 (340992)
I0501 05:20:33.892452 28683 net.cpp:131] Top shape: 111 (111)
I0501 05:20:33.892455 28683 net.cpp:139] Memory required for data: 1364412
I0501 05:20:33.892484 28683 layer_factory.hpp:77] Creating layer conv0
I0501 05:20:33.892508 28683 net.cpp:86] Creating Layer conv0
I0501 05:20:33.892518 28683 net.cpp:408] conv0 <- data
I0501 05:20:33.892539 28683 net.cpp:382] conv0 -> conv0
I0501 05:20:34.177218 28683 net.cpp:124] Setting up conv0
I0501 05:20:34.177245 28683 net.cpp:131] Top shape: 111 8 32 32 (909312)
I0501 05:20:34.177249 28683 net.cpp:139] Memory required for data: 5001660
I0501 05:20:34.177264 28683 layer_factory.hpp:77] Creating layer Sigmoid0
I0501 05:20:34.177276 28683 net.cpp:86] Creating Layer Sigmoid0
I0501 05:20:34.177281 28683 net.cpp:408] Sigmoid0 <- conv0
I0501 05:20:34.177289 28683 net.cpp:382] Sigmoid0 -> Sigmoid0
I0501 05:20:34.177474 28683 net.cpp:124] Setting up Sigmoid0
I0501 05:20:34.177484 28683 net.cpp:131] Top shape: 111 8 32 32 (909312)
I0501 05:20:34.177489 28683 net.cpp:139] Memory required for data: 8638908
I0501 05:20:34.177495 28683 layer_factory.hpp:77] Creating layer pool0
I0501 05:20:34.177508 28683 net.cpp:86] Creating Layer pool0
I0501 05:20:34.177515 28683 net.cpp:408] pool0 <- Sigmoid0
I0501 05:20:34.177522 28683 net.cpp:382] pool0 -> pool0
I0501 05:20:34.178266 28683 net.cpp:124] Setting up pool0
I0501 05:20:34.178279 28683 net.cpp:131] Top shape: 111 8 16 16 (227328)
I0501 05:20:34.178282 28683 net.cpp:139] Memory required for data: 9548220
I0501 05:20:34.178287 28683 layer_factory.hpp:77] Creating layer ip1
I0501 05:20:34.178295 28683 net.cpp:86] Creating Layer ip1
I0501 05:20:34.178298 28683 net.cpp:408] ip1 <- pool0
I0501 05:20:34.178304 28683 net.cpp:382] ip1 -> ip1
I0501 05:20:34.182898 28683 net.cpp:124] Setting up ip1
I0501 05:20:34.182911 28683 net.cpp:131] Top shape: 111 80 (8880)
I0501 05:20:34.182931 28683 net.cpp:139] Memory required for data: 9583740
I0501 05:20:34.182955 28683 layer_factory.hpp:77] Creating layer relu1
I0501 05:20:34.182961 28683 net.cpp:86] Creating Layer relu1
I0501 05:20:34.182981 28683 net.cpp:408] relu1 <- ip1
I0501 05:20:34.182988 28683 net.cpp:369] relu1 -> ip1 (in-place)
I0501 05:20:34.183151 28683 net.cpp:124] Setting up relu1
I0501 05:20:34.183159 28683 net.cpp:131] Top shape: 111 80 (8880)
I0501 05:20:34.183163 28683 net.cpp:139] Memory required for data: 9619260
I0501 05:20:34.183168 28683 layer_factory.hpp:77] Creating layer ip2
I0501 05:20:34.183178 28683 net.cpp:86] Creating Layer ip2
I0501 05:20:34.183185 28683 net.cpp:408] ip2 <- ip1
I0501 05:20:34.183193 28683 net.cpp:382] ip2 -> ip2
I0501 05:20:34.183310 28683 net.cpp:124] Setting up ip2
I0501 05:20:34.183318 28683 net.cpp:131] Top shape: 111 10 (1110)
I0501 05:20:34.183322 28683 net.cpp:139] Memory required for data: 9623700
I0501 05:20:34.183333 28683 layer_factory.hpp:77] Creating layer relu2
I0501 05:20:34.183342 28683 net.cpp:86] Creating Layer relu2
I0501 05:20:34.183349 28683 net.cpp:408] relu2 <- ip2
I0501 05:20:34.183357 28683 net.cpp:369] relu2 -> ip2 (in-place)
I0501 05:20:34.183509 28683 net.cpp:124] Setting up relu2
I0501 05:20:34.183517 28683 net.cpp:131] Top shape: 111 10 (1110)
I0501 05:20:34.183521 28683 net.cpp:139] Memory required for data: 9628140
I0501 05:20:34.183526 28683 layer_factory.hpp:77] Creating layer ip3
I0501 05:20:34.183537 28683 net.cpp:86] Creating Layer ip3
I0501 05:20:34.183543 28683 net.cpp:408] ip3 <- ip2
I0501 05:20:34.183552 28683 net.cpp:382] ip3 -> ip3
I0501 05:20:34.183650 28683 net.cpp:124] Setting up ip3
I0501 05:20:34.183656 28683 net.cpp:131] Top shape: 111 10 (1110)
I0501 05:20:34.183660 28683 net.cpp:139] Memory required for data: 9632580
I0501 05:20:34.183670 28683 layer_factory.hpp:77] Creating layer relu3
I0501 05:20:34.183677 28683 net.cpp:86] Creating Layer relu3
I0501 05:20:34.183684 28683 net.cpp:408] relu3 <- ip3
I0501 05:20:34.183691 28683 net.cpp:369] relu3 -> ip3 (in-place)
I0501 05:20:34.183838 28683 net.cpp:124] Setting up relu3
I0501 05:20:34.183846 28683 net.cpp:131] Top shape: 111 10 (1110)
I0501 05:20:34.183851 28683 net.cpp:139] Memory required for data: 9637020
I0501 05:20:34.183856 28683 layer_factory.hpp:77] Creating layer ip4
I0501 05:20:34.183881 28683 net.cpp:86] Creating Layer ip4
I0501 05:20:34.183888 28683 net.cpp:408] ip4 <- ip3
I0501 05:20:34.183897 28683 net.cpp:382] ip4 -> ip4
I0501 05:20:34.183993 28683 net.cpp:124] Setting up ip4
I0501 05:20:34.184000 28683 net.cpp:131] Top shape: 111 10 (1110)
I0501 05:20:34.184005 28683 net.cpp:139] Memory required for data: 9641460
I0501 05:20:34.184016 28683 layer_factory.hpp:77] Creating layer loss
I0501 05:20:34.184032 28683 net.cpp:86] Creating Layer loss
I0501 05:20:34.184039 28683 net.cpp:408] loss <- ip4
I0501 05:20:34.184046 28683 net.cpp:408] loss <- label
I0501 05:20:34.184054 28683 net.cpp:382] loss -> loss
I0501 05:20:34.184072 28683 layer_factory.hpp:77] Creating layer loss
…
I0501 05:20:34.185309 28683 solver.cpp:173] Creating test net (#0) specified by net file: ECE595/cifar/train_test/var_everything/cifar_train_test_415.prototxt
I0501 05:20:34.185346 28683 net.cpp:296] The NetState phase (1) differed from the phase (0) specified by a rule in layer cifar
I0501 05:20:34.185446 28683 net.cpp:53] Initializing net from parameters: 
name: "CIFAR"
state {
  phase: TEST
}
layer {
  name: "cifar"
  type: "Data"
  top: "data"
  top: "label"
  include {
    phase: TEST
  }
  transform_param {
    mean_file: "examples/cifar10/mean.binaryproto"
  }
  data_param {
    source: "examples/cifar10/cifar10_test_lmdb"
    batch_size: 1000
    backend: LMDB
  }
}
layer {
  name: "conv0"
  type: "Convolution"
  bottom: "data"
  top: "conv0"
  param {
    lr_mult: 1
  }
  param {
    lr_mult: 2
  }
  convolution_param {
    num_output: 8
    pad: 2
    kernel_size: 5
    stride: 1
    weight_filler {
      type: "gaussian"
      std: 0.01
    }
    bias_filler {
      type: "constant"
    }
  }
}
layer {
  name: "Sigmoid0"
  type: "Sigmoid"
  bottom: "conv0"
  top: "Sigmoid0"
}
layer {
  name: "pool0"
  type: "Pooling"
  bottom: "Sigmoid0"
  top: "pool0"
  pooling_param {
    pool: AVE
    kernel_size: 3
    stride: 2
  }
}
layer {
  name: "ip1"
  type: "InnerProduct"
  bottom: "pool0"
  top: "ip1"
  param {
    lr_mult: 1
  }
  param {
    lr_mult: 2
  }
  inner_product_param {
    num_output: 80
    weight_filler {
      type: "gaussian"
      std: 0.01
    }
    bias_filler {
      type: "constant"
    }
  }
}
layer {
  name: "relu1"
  type: "ReLU"
  bottom: "ip1"
  top: "ip1"
}
layer {
  name: "ip2"
  type: "InnerProduct"
  bottom: "ip1"
  top: "ip2"
  param {
    lr_mult: 1
  }
  param {
    lr_mult: 2
  }
  inner_product_param {
    num_output: 10
    weight_filler {
      type: "gaussian"
      std: 0.01
    }
    bias_filler {
      type: "constant"
    }
  }
}
layer {
  name: "relu2"
  type: "ReLU"
  bottom: "ip2"
  top: "ip2"
}
layer {
  name: "ip3"
  type: "InnerProduct"
  bottom: "ip2"
  top: "ip3"
  param {
    lr_mult: 1
  }
  param {
    lr_mult: 2
  }
  inner_product_param {
    num_output: 10
    weight_filler {
      type: "gaussian"
      std: 0.01
    }
    bias_filler {
      type: "constant"
    }
  }
}
layer {
  name: "relu3"
  type: "ReLU"
  bottom: "ip3"
  top: "ip3"
}
layer {
  name: "ip4"
  type: "InnerProduct"
  bottom: "ip3"
  top: "ip4"
  param {
    lr_mult: 1
  }
  param {
    lr_mult: 2
  }
  inner_product_param {
    num_output: 10
    weight_filler {
      type: "gaussian"
      std: 0.01
    }
    bias_filler {
      type: "constant"
    }
  }
}
layer {
  name: "accuracy"
  type: "Accuracy"
  bottom: "ip4"
  bottom: "label"
  top: "accuracy"
  include {
    phase: TEST
  }
}
layer {
  name: "loss"
  type: "SoftmaxWithLoss"
  bottom: "ip4"
  bottom: "label"
  top: "loss"
}
I0501 05:20:34.185552 28683 layer_factory.hpp:77] Creating layer cifar
I0501 05:20:34.185609 28683 db_lmdb.cpp:35] Opened lmdb examples/cifar10/cifar10_test_lmdb
I0501 05:20:34.185626 28683 net.cpp:86] Creating Layer cifar
I0501 05:20:34.185632 28683 net.cpp:382] cifar -> data
I0501 05:20:34.185643 28683 net.cpp:382] cifar -> label
I0501 05:20:34.185653 28683 data_transformer.cpp:25] Loading mean file from: examples/cifar10/mean.binaryproto
I0501 05:20:34.185838 28683 data_layer.cpp:45] output data size: 1000,3,32,32
I0501 05:20:34.207970 28683 net.cpp:124] Setting up cifar
I0501 05:20:34.207996 28683 net.cpp:131] Top shape: 1000 3 32 32 (3072000)
I0501 05:20:34.208003 28683 net.cpp:131] Top shape: 1000 (1000)
I0501 05:20:34.208006 28683 net.cpp:139] Memory required for data: 12292000
I0501 05:20:34.208014 28683 layer_factory.hpp:77] Creating layer label_cifar_1_split
I0501 05:20:34.208045 28683 net.cpp:86] Creating Layer label_cifar_1_split
I0501 05:20:34.208050 28683 net.cpp:408] label_cifar_1_split <- label
I0501 05:20:34.208060 28683 net.cpp:382] label_cifar_1_split -> label_cifar_1_split_0
I0501 05:20:34.208079 28683 net.cpp:382] label_cifar_1_split -> label_cifar_1_split_1
I0501 05:20:34.208142 28683 net.cpp:124] Setting up label_cifar_1_split
I0501 05:20:34.208149 28683 net.cpp:131] Top shape: 1000 (1000)
I0501 05:20:34.208153 28683 net.cpp:131] Top shape: 1000 (1000)
I0501 05:20:34.208158 28683 net.cpp:139] Memory required for data: 12300000
I0501 05:20:34.208163 28683 layer_factory.hpp:77] Creating layer conv0
I0501 05:20:34.208180 28683 net.cpp:86] Creating Layer conv0
I0501 05:20:34.208187 28683 net.cpp:408] conv0 <- data
I0501 05:20:34.208196 28683 net.cpp:382] conv0 -> conv0
I0501 05:20:34.210660 28683 net.cpp:124] Setting up conv0
I0501 05:20:34.210675 28683 net.cpp:131] Top shape: 1000 8 32 32 (8192000)
I0501 05:20:34.210680 28683 net.cpp:139] Memory required for data: 45068000
I0501 05:20:34.210692 28683 layer_factory.hpp:77] Creating layer Sigmoid0
I0501 05:20:34.210702 28683 net.cpp:86] Creating Layer Sigmoid0
I0501 05:20:34.210708 28683 net.cpp:408] Sigmoid0 <- conv0
I0501 05:20:34.210716 28683 net.cpp:382] Sigmoid0 -> Sigmoid0
I0501 05:20:34.210896 28683 net.cpp:124] Setting up Sigmoid0
I0501 05:20:34.210904 28683 net.cpp:131] Top shape: 1000 8 32 32 (8192000)
I0501 05:20:34.210907 28683 net.cpp:139] Memory required for data: 77836000
I0501 05:20:34.210912 28683 layer_factory.hpp:77] Creating layer pool0
I0501 05:20:34.210924 28683 net.cpp:86] Creating Layer pool0
I0501 05:20:34.210929 28683 net.cpp:408] pool0 <- Sigmoid0
I0501 05:20:34.210937 28683 net.cpp:382] pool0 -> pool0
I0501 05:20:34.211104 28683 net.cpp:124] Setting up pool0
I0501 05:20:34.211113 28683 net.cpp:131] Top shape: 1000 8 16 16 (2048000)
I0501 05:20:34.211117 28683 net.cpp:139] Memory required for data: 86028000
I0501 05:20:34.211122 28683 layer_factory.hpp:77] Creating layer ip1
I0501 05:20:34.211133 28683 net.cpp:86] Creating Layer ip1
I0501 05:20:34.211138 28683 net.cpp:408] ip1 <- pool0
I0501 05:20:34.211146 28683 net.cpp:382] ip1 -> ip1
I0501 05:20:34.215884 28683 net.cpp:124] Setting up ip1
I0501 05:20:34.215893 28683 net.cpp:131] Top shape: 1000 80 (80000)
I0501 05:20:34.215898 28683 net.cpp:139] Memory required for data: 86348000
I0501 05:20:34.215939 28683 layer_factory.hpp:77] Creating layer relu1
I0501 05:20:34.215950 28683 net.cpp:86] Creating Layer relu1
I0501 05:20:34.215956 28683 net.cpp:408] relu1 <- ip1
I0501 05:20:34.215963 28683 net.cpp:369] relu1 -> ip1 (in-place)
I0501 05:20:34.216145 28683 net.cpp:124] Setting up relu1
I0501 05:20:34.216153 28683 net.cpp:131] Top shape: 1000 80 (80000)
I0501 05:20:34.216156 28683 net.cpp:139] Memory required for data: 86668000
I0501 05:20:34.216161 28683 layer_factory.hpp:77] Creating layer ip2
I0501 05:20:34.216171 28683 net.cpp:86] Creating Layer ip2
I0501 05:20:34.216176 28683 net.cpp:408] ip2 <- ip1
I0501 05:20:34.216184 28683 net.cpp:382] ip2 -> ip2
I0501 05:20:34.216315 28683 net.cpp:124] Setting up ip2
I0501 05:20:34.216322 28683 net.cpp:131] Top shape: 1000 10 (10000)
I0501 05:20:34.216325 28683 net.cpp:139] Memory required for data: 86708000
I0501 05:20:34.216336 28683 layer_factory.hpp:77] Creating layer relu2
I0501 05:20:34.216346 28683 net.cpp:86] Creating Layer relu2
I0501 05:20:34.216351 28683 net.cpp:408] relu2 <- ip2
I0501 05:20:34.216357 28683 net.cpp:369] relu2 -> ip2 (in-place)
I0501 05:20:34.217250 28683 net.cpp:124] Setting up relu2
I0501 05:20:34.217264 28683 net.cpp:131] Top shape: 1000 10 (10000)
I0501 05:20:34.217268 28683 net.cpp:139] Memory required for data: 86748000
I0501 05:20:34.217275 28683 layer_factory.hpp:77] Creating layer ip3
I0501 05:20:34.217285 28683 net.cpp:86] Creating Layer ip3
I0501 05:20:34.217293 28683 net.cpp:408] ip3 <- ip2
I0501 05:20:34.217301 28683 net.cpp:382] ip3 -> ip3
I0501 05:20:34.217417 28683 net.cpp:124] Setting up ip3
I0501 05:20:34.217424 28683 net.cpp:131] Top shape: 1000 10 (10000)
I0501 05:20:34.217427 28683 net.cpp:139] Memory required for data: 86788000
I0501 05:20:34.217437 28683 layer_factory.hpp:77] Creating layer relu3
I0501 05:20:34.217444 28683 net.cpp:86] Creating Layer relu3
I0501 05:20:34.217450 28683 net.cpp:408] relu3 <- ip3
I0501 05:20:34.217458 28683 net.cpp:369] relu3 -> ip3 (in-place)
I0501 05:20:34.217617 28683 net.cpp:124] Setting up relu3
I0501 05:20:34.217627 28683 net.cpp:131] Top shape: 1000 10 (10000)
I0501 05:20:34.217629 28683 net.cpp:139] Memory required for data: 86828000
I0501 05:20:34.217633 28683 layer_factory.hpp:77] Creating layer ip4
I0501 05:20:34.217643 28683 net.cpp:86] Creating Layer ip4
I0501 05:20:34.217648 28683 net.cpp:408] ip4 <- ip3
I0501 05:20:34.217658 28683 net.cpp:382] ip4 -> ip4
I0501 05:20:34.217770 28683 net.cpp:124] Setting up ip4
I0501 05:20:34.217778 28683 net.cpp:131] Top shape: 1000 10 (10000)
I0501 05:20:34.217782 28683 net.cpp:139] Memory required for data: 86868000
I0501 05:20:34.217793 28683 layer_factory.hpp:77] Creating layer ip4_ip4_0_split
I0501 05:20:34.217803 28683 net.cpp:86] Creating Layer ip4_ip4_0_split
I0501 05:20:34.217808 28683 net.cpp:408] ip4_ip4_0_split <- ip4
I0501 05:20:34.217823 28683 net.cpp:382] ip4_ip4_0_split -> ip4_ip4_0_split_0
I0501 05:20:34.217833 28683 net.cpp:382] ip4_ip4_0_split -> ip4_ip4_0_split_1
I0501 05:20:34.217872 28683 net.cpp:124] Setting up ip4_ip4_0_split
I0501 05:20:34.217878 28683 net.cpp:131] Top shape: 1000 10 (10000)
I0501 05:20:34.217882 28683 net.cpp:131] Top shape: 1000 10 (10000)
I0501 05:20:34.217886 28683 net.cpp:139] Memory required for data: 86948000
I0501 05:20:34.217891 28683 layer_factory.hpp:77] Creating layer accuracy
I0501 05:20:34.217901 28683 net.cpp:86] Creating Layer accuracy
I0501 05:20:34.217922 28683 net.cpp:408] accuracy <- ip4_ip4_0_split_0
I0501 05:20:34.217928 28683 net.cpp:408] accuracy <- label_cifar_1_split_0
I0501 05:20:34.217936 28683 net.cpp:382] accuracy -> accuracy
…
