…
I0501 01:52:05.476933 12509 net.cpp:296] The NetState phase (0) differed from the phase (1) specified by a rule in layer cifar
I0501 01:52:05.476951 12509 net.cpp:296] The NetState phase (0) differed from the phase (1) specified by a rule in layer accuracy
I0501 01:52:05.477059 12509 net.cpp:53] Initializing net from parameters: 
name: "CIFAR"
state {
  phase: TRAIN
  level: 0
  stage: ""
}
layer {
  name: "cifar"
  type: "Data"
  top: "data"
  top: "label"
  include {
    phase: TRAIN
  }
  transform_param {
    mean_file: "examples/cifar10/mean.binaryproto"
  }
  data_param {
    source: "examples/cifar10/cifar10_train_lmdb"
    batch_size: 111
    backend: LMDB
  }
}
layer {
  name: "conv0"
  type: "Convolution"
  bottom: "data"
  top: "conv0"
  param {
    lr_mult: 1
  }
  param {
    lr_mult: 2
  }
  convolution_param {
    num_output: 8
    pad: 2
    kernel_size: 3
    stride: 1
    weight_filler {
      type: "gaussian"
      std: 0.01
    }
    bias_filler {
      type: "constant"
    }
  }
}
layer {
  name: "Sigmoid0"
  type: "Sigmoid"
  bottom: "conv0"
  top: "Sigmoid0"
}
layer {
  name: "pool0"
  type: "Pooling"
  bottom: "Sigmoid0"
  top: "pool0"
  pooling_param {
    pool: AVE
    kernel_size: 3
    stride: 2
  }
}
layer {
  name: "ip1"
  type: "InnerProduct"
  bottom: "pool0"
  top: "ip1"
  param {
    lr_mult: 1
  }
  param {
    lr_mult: 2
  }
  inner_product_param {
    num_output: 160
    weight_filler {
      type: "gaussian"
      std: 0.01
    }
    bias_filler {
      type: "constant"
    }
  }
}
layer {
  name: "relu1"
  type: "ReLU"
  bottom: "ip1"
  top: "ip1"
}
layer {
  name: "ip2"
  type: "InnerProduct"
  bottom: "ip1"
  top: "ip2"
  param {
    lr_mult: 1
  }
  param {
    lr_mult: 2
  }
  inner_product_param {
    num_output: 80
    weight_filler {
      type: "gaussian"
      std: 0.01
    }
    bias_filler {
      type: "constant"
    }
  }
}
layer {
  name: "relu2"
  type: "ReLU"
  bottom: "ip2"
  top: "ip2"
}
layer {
  name: "ip3"
  type: "InnerProduct"
  bottom: "ip2"
  top: "ip3"
  param {
    lr_mult: 1
  }
  param {
    lr_mult: 2
  }
  inner_product_param {
    num_output: 80
    weight_filler {
      type: "gaussian"
      std: 0.01
    }
    bias_filler {
      type: "constant"
    }
  }
}
layer {
  name: "relu3"
  type: "ReLU"
  bottom: "ip3"
  top: "ip3"
}
layer {
  name: "ip4"
  type: "InnerProduct"
  bottom: "ip3"
  top: "ip4"
  param {
    lr_mult: 1
  }
  param {
    lr_mult: 2
  }
  inner_product_param {
    num_output: 10
    weight_filler {
      type: "gaussian"
      std: 0.01
    }
    bias_filler {
      type: "constant"
    }
  }
}
layer {
  name: "loss"
  type: "SoftmaxWithLoss"
  bottom: "ip4"
  bottom: "label"
  top: "loss"
}
I0501 01:52:05.477144 12509 layer_factory.hpp:77] Creating layer cifar
I0501 01:52:05.477247 12509 db_lmdb.cpp:35] Opened lmdb examples/cifar10/cifar10_train_lmdb
I0501 01:52:05.477274 12509 net.cpp:86] Creating Layer cifar
I0501 01:52:05.477283 12509 net.cpp:382] cifar -> data
I0501 01:52:05.477305 12509 net.cpp:382] cifar -> label
I0501 01:52:05.477318 12509 data_transformer.cpp:25] Loading mean file from: examples/cifar10/mean.binaryproto
I0501 01:52:05.479421 12509 data_layer.cpp:45] output data size: 111,3,32,32
I0501 01:52:05.487316 12509 net.cpp:124] Setting up cifar
I0501 01:52:05.487335 12509 net.cpp:131] Top shape: 111 3 32 32 (340992)
I0501 01:52:05.487342 12509 net.cpp:131] Top shape: 111 (111)
I0501 01:52:05.487346 12509 net.cpp:139] Memory required for data: 1364412
I0501 01:52:05.487370 12509 layer_factory.hpp:77] Creating layer conv0
I0501 01:52:05.487390 12509 net.cpp:86] Creating Layer conv0
I0501 01:52:05.487396 12509 net.cpp:408] conv0 <- data
I0501 01:52:05.487411 12509 net.cpp:382] conv0 -> conv0
I0501 01:52:05.766927 12509 net.cpp:124] Setting up conv0
I0501 01:52:05.766952 12509 net.cpp:131] Top shape: 111 8 34 34 (1026528)
I0501 01:52:05.766957 12509 net.cpp:139] Memory required for data: 5470524
I0501 01:52:05.766971 12509 layer_factory.hpp:77] Creating layer Sigmoid0
I0501 01:52:05.766983 12509 net.cpp:86] Creating Layer Sigmoid0
I0501 01:52:05.766988 12509 net.cpp:408] Sigmoid0 <- conv0
I0501 01:52:05.766993 12509 net.cpp:382] Sigmoid0 -> Sigmoid0
I0501 01:52:05.767194 12509 net.cpp:124] Setting up Sigmoid0
I0501 01:52:05.767202 12509 net.cpp:131] Top shape: 111 8 34 34 (1026528)
I0501 01:52:05.767205 12509 net.cpp:139] Memory required for data: 9576636
I0501 01:52:05.767208 12509 layer_factory.hpp:77] Creating layer pool0
I0501 01:52:05.767215 12509 net.cpp:86] Creating Layer pool0
I0501 01:52:05.767218 12509 net.cpp:408] pool0 <- Sigmoid0
I0501 01:52:05.767222 12509 net.cpp:382] pool0 -> pool0
I0501 01:52:05.767917 12509 net.cpp:124] Setting up pool0
I0501 01:52:05.767930 12509 net.cpp:131] Top shape: 111 8 17 17 (256632)
I0501 01:52:05.767933 12509 net.cpp:139] Memory required for data: 10603164
I0501 01:52:05.767937 12509 layer_factory.hpp:77] Creating layer ip1
I0501 01:52:05.767946 12509 net.cpp:86] Creating Layer ip1
I0501 01:52:05.767948 12509 net.cpp:408] ip1 <- pool0
I0501 01:52:05.767953 12509 net.cpp:382] ip1 -> ip1
I0501 01:52:05.778149 12509 net.cpp:124] Setting up ip1
I0501 01:52:05.778162 12509 net.cpp:131] Top shape: 111 160 (17760)
I0501 01:52:05.778164 12509 net.cpp:139] Memory required for data: 10674204
I0501 01:52:05.778172 12509 layer_factory.hpp:77] Creating layer relu1
I0501 01:52:05.778177 12509 net.cpp:86] Creating Layer relu1
I0501 01:52:05.778180 12509 net.cpp:408] relu1 <- ip1
I0501 01:52:05.778184 12509 net.cpp:369] relu1 -> ip1 (in-place)
I0501 01:52:05.778345 12509 net.cpp:124] Setting up relu1
I0501 01:52:05.778354 12509 net.cpp:131] Top shape: 111 160 (17760)
I0501 01:52:05.778357 12509 net.cpp:139] Memory required for data: 10745244
I0501 01:52:05.778360 12509 layer_factory.hpp:77] Creating layer ip2
I0501 01:52:05.778367 12509 net.cpp:86] Creating Layer ip2
I0501 01:52:05.778369 12509 net.cpp:408] ip2 <- ip1
I0501 01:52:05.778374 12509 net.cpp:382] ip2 -> ip2
I0501 01:52:05.779664 12509 net.cpp:124] Setting up ip2
I0501 01:52:05.779678 12509 net.cpp:131] Top shape: 111 80 (8880)
I0501 01:52:05.779685 12509 net.cpp:139] Memory required for data: 10780764
I0501 01:52:05.779695 12509 layer_factory.hpp:77] Creating layer relu2
I0501 01:52:05.779702 12509 net.cpp:86] Creating Layer relu2
I0501 01:52:05.779722 12509 net.cpp:408] relu2 <- ip2
I0501 01:52:05.779728 12509 net.cpp:369] relu2 -> ip2 (in-place)
I0501 01:52:05.779929 12509 net.cpp:124] Setting up relu2
I0501 01:52:05.779939 12509 net.cpp:131] Top shape: 111 80 (8880)
I0501 01:52:05.779943 12509 net.cpp:139] Memory required for data: 10816284
I0501 01:52:05.779947 12509 layer_factory.hpp:77] Creating layer ip3
I0501 01:52:05.779953 12509 net.cpp:86] Creating Layer ip3
I0501 01:52:05.779958 12509 net.cpp:408] ip3 <- ip2
I0501 01:52:05.779961 12509 net.cpp:382] ip3 -> ip3
I0501 01:52:05.780225 12509 net.cpp:124] Setting up ip3
I0501 01:52:05.780233 12509 net.cpp:131] Top shape: 111 80 (8880)
I0501 01:52:05.780239 12509 net.cpp:139] Memory required for data: 10851804
I0501 01:52:05.780247 12509 layer_factory.hpp:77] Creating layer relu3
I0501 01:52:05.780254 12509 net.cpp:86] Creating Layer relu3
I0501 01:52:05.780258 12509 net.cpp:408] relu3 <- ip3
I0501 01:52:05.780264 12509 net.cpp:369] relu3 -> ip3 (in-place)
I0501 01:52:05.780421 12509 net.cpp:124] Setting up relu3
I0501 01:52:05.780431 12509 net.cpp:131] Top shape: 111 80 (8880)
I0501 01:52:05.780434 12509 net.cpp:139] Memory required for data: 10887324
I0501 01:52:05.780437 12509 layer_factory.hpp:77] Creating layer ip4
I0501 01:52:05.780457 12509 net.cpp:86] Creating Layer ip4
I0501 01:52:05.780462 12509 net.cpp:408] ip4 <- ip3
I0501 01:52:05.780467 12509 net.cpp:382] ip4 -> ip4
I0501 01:52:05.781469 12509 net.cpp:124] Setting up ip4
I0501 01:52:05.781481 12509 net.cpp:131] Top shape: 111 10 (1110)
I0501 01:52:05.781484 12509 net.cpp:139] Memory required for data: 10891764
I0501 01:52:05.781492 12509 layer_factory.hpp:77] Creating layer loss
I0501 01:52:05.781498 12509 net.cpp:86] Creating Layer loss
I0501 01:52:05.781502 12509 net.cpp:408] loss <- ip4
I0501 01:52:05.781505 12509 net.cpp:408] loss <- label
I0501 01:52:05.781525 12509 net.cpp:382] loss -> loss
I0501 01:52:05.781538 12509 layer_factory.hpp:77] Creating layer loss
…
I0501 01:52:05.782732 12509 solver.cpp:173] Creating test net (#0) specified by net file: ECE595/cifar/train_test/var_everything/cifar_train_test_303.prototxt
I0501 01:52:05.782757 12509 net.cpp:296] The NetState phase (1) differed from the phase (0) specified by a rule in layer cifar
I0501 01:52:05.782843 12509 net.cpp:53] Initializing net from parameters: 
name: "CIFAR"
state {
  phase: TEST
}
layer {
  name: "cifar"
  type: "Data"
  top: "data"
  top: "label"
  include {
    phase: TEST
  }
  transform_param {
    mean_file: "examples/cifar10/mean.binaryproto"
  }
  data_param {
    source: "examples/cifar10/cifar10_test_lmdb"
    batch_size: 1000
    backend: LMDB
  }
}
layer {
  name: "conv0"
  type: "Convolution"
  bottom: "data"
  top: "conv0"
  param {
    lr_mult: 1
  }
  param {
    lr_mult: 2
  }
  convolution_param {
    num_output: 8
    pad: 2
    kernel_size: 3
    stride: 1
    weight_filler {
      type: "gaussian"
      std: 0.01
    }
    bias_filler {
      type: "constant"
    }
  }
}
layer {
  name: "Sigmoid0"
  type: "Sigmoid"
  bottom: "conv0"
  top: "Sigmoid0"
}
layer {
  name: "pool0"
  type: "Pooling"
  bottom: "Sigmoid0"
  top: "pool0"
  pooling_param {
    pool: AVE
    kernel_size: 3
    stride: 2
  }
}
layer {
  name: "ip1"
  type: "InnerProduct"
  bottom: "pool0"
  top: "ip1"
  param {
    lr_mult: 1
  }
  param {
    lr_mult: 2
  }
  inner_product_param {
    num_output: 160
    weight_filler {
      type: "gaussian"
      std: 0.01
    }
    bias_filler {
      type: "constant"
    }
  }
}
layer {
  name: "relu1"
  type: "ReLU"
  bottom: "ip1"
  top: "ip1"
}
layer {
  name: "ip2"
  type: "InnerProduct"
  bottom: "ip1"
  top: "ip2"
  param {
    lr_mult: 1
  }
  param {
    lr_mult: 2
  }
  inner_product_param {
    num_output: 80
    weight_filler {
      type: "gaussian"
      std: 0.01
    }
    bias_filler {
      type: "constant"
    }
  }
}
layer {
  name: "relu2"
  type: "ReLU"
  bottom: "ip2"
  top: "ip2"
}
layer {
  name: "ip3"
  type: "InnerProduct"
  bottom: "ip2"
  top: "ip3"
  param {
    lr_mult: 1
  }
  param {
    lr_mult: 2
  }
  inner_product_param {
    num_output: 80
    weight_filler {
      type: "gaussian"
      std: 0.01
    }
    bias_filler {
      type: "constant"
    }
  }
}
layer {
  name: "relu3"
  type: "ReLU"
  bottom: "ip3"
  top: "ip3"
}
layer {
  name: "ip4"
  type: "InnerProduct"
  bottom: "ip3"
  top: "ip4"
  param {
    lr_mult: 1
  }
  param {
    lr_mult: 2
  }
  inner_product_param {
    num_output: 10
    weight_filler {
      type: "gaussian"
      std: 0.01
    }
    bias_filler {
      type: "constant"
    }
  }
}
layer {
  name: "accuracy"
  type: "Accuracy"
  bottom: "ip4"
  bottom: "label"
  top: "accuracy"
  include {
    phase: TEST
  }
}
layer {
  name: "loss"
  type: "SoftmaxWithLoss"
  bottom: "ip4"
  bottom: "label"
  top: "loss"
}
I0501 01:52:05.782933 12509 layer_factory.hpp:77] Creating layer cifar
I0501 01:52:05.782980 12509 db_lmdb.cpp:35] Opened lmdb examples/cifar10/cifar10_test_lmdb
I0501 01:52:05.782991 12509 net.cpp:86] Creating Layer cifar
I0501 01:52:05.782995 12509 net.cpp:382] cifar -> data
I0501 01:52:05.783004 12509 net.cpp:382] cifar -> label
I0501 01:52:05.783010 12509 data_transformer.cpp:25] Loading mean file from: examples/cifar10/mean.binaryproto
I0501 01:52:05.783146 12509 data_layer.cpp:45] output data size: 1000,3,32,32
I0501 01:52:05.805058 12509 net.cpp:124] Setting up cifar
I0501 01:52:05.805099 12509 net.cpp:131] Top shape: 1000 3 32 32 (3072000)
I0501 01:52:05.805104 12509 net.cpp:131] Top shape: 1000 (1000)
I0501 01:52:05.805109 12509 net.cpp:139] Memory required for data: 12292000
I0501 01:52:05.805114 12509 layer_factory.hpp:77] Creating layer label_cifar_1_split
I0501 01:52:05.805125 12509 net.cpp:86] Creating Layer label_cifar_1_split
I0501 01:52:05.805142 12509 net.cpp:408] label_cifar_1_split <- label
I0501 01:52:05.805150 12509 net.cpp:382] label_cifar_1_split -> label_cifar_1_split_0
I0501 01:52:05.805172 12509 net.cpp:382] label_cifar_1_split -> label_cifar_1_split_1
I0501 01:52:05.805287 12509 net.cpp:124] Setting up label_cifar_1_split
I0501 01:52:05.805295 12509 net.cpp:131] Top shape: 1000 (1000)
I0501 01:52:05.805299 12509 net.cpp:131] Top shape: 1000 (1000)
I0501 01:52:05.805302 12509 net.cpp:139] Memory required for data: 12300000
I0501 01:52:05.805305 12509 layer_factory.hpp:77] Creating layer conv0
I0501 01:52:05.805317 12509 net.cpp:86] Creating Layer conv0
I0501 01:52:05.805320 12509 net.cpp:408] conv0 <- data
I0501 01:52:05.805325 12509 net.cpp:382] conv0 -> conv0
I0501 01:52:05.807009 12509 net.cpp:124] Setting up conv0
I0501 01:52:05.807024 12509 net.cpp:131] Top shape: 1000 8 34 34 (9248000)
I0501 01:52:05.807026 12509 net.cpp:139] Memory required for data: 49292000
I0501 01:52:05.807035 12509 layer_factory.hpp:77] Creating layer Sigmoid0
I0501 01:52:05.807057 12509 net.cpp:86] Creating Layer Sigmoid0
I0501 01:52:05.807061 12509 net.cpp:408] Sigmoid0 <- conv0
I0501 01:52:05.807066 12509 net.cpp:382] Sigmoid0 -> Sigmoid0
I0501 01:52:05.807250 12509 net.cpp:124] Setting up Sigmoid0
I0501 01:52:05.807258 12509 net.cpp:131] Top shape: 1000 8 34 34 (9248000)
I0501 01:52:05.807261 12509 net.cpp:139] Memory required for data: 86284000
I0501 01:52:05.807265 12509 layer_factory.hpp:77] Creating layer pool0
I0501 01:52:05.807272 12509 net.cpp:86] Creating Layer pool0
I0501 01:52:05.807276 12509 net.cpp:408] pool0 <- Sigmoid0
I0501 01:52:05.807279 12509 net.cpp:382] pool0 -> pool0
I0501 01:52:05.807446 12509 net.cpp:124] Setting up pool0
I0501 01:52:05.807456 12509 net.cpp:131] Top shape: 1000 8 17 17 (2312000)
I0501 01:52:05.807459 12509 net.cpp:139] Memory required for data: 95532000
I0501 01:52:05.807462 12509 layer_factory.hpp:77] Creating layer ip1
I0501 01:52:05.807469 12509 net.cpp:86] Creating Layer ip1
I0501 01:52:05.807472 12509 net.cpp:408] ip1 <- pool0
I0501 01:52:05.807477 12509 net.cpp:382] ip1 -> ip1
I0501 01:52:05.817996 12509 net.cpp:124] Setting up ip1
I0501 01:52:05.818011 12509 net.cpp:131] Top shape: 1000 160 (160000)
I0501 01:52:05.818013 12509 net.cpp:139] Memory required for data: 96172000
I0501 01:52:05.818053 12509 layer_factory.hpp:77] Creating layer relu1
I0501 01:52:05.818058 12509 net.cpp:86] Creating Layer relu1
I0501 01:52:05.818063 12509 net.cpp:408] relu1 <- ip1
I0501 01:52:05.818066 12509 net.cpp:369] relu1 -> ip1 (in-place)
I0501 01:52:05.818248 12509 net.cpp:124] Setting up relu1
I0501 01:52:05.818256 12509 net.cpp:131] Top shape: 1000 160 (160000)
I0501 01:52:05.818259 12509 net.cpp:139] Memory required for data: 96812000
I0501 01:52:05.818262 12509 layer_factory.hpp:77] Creating layer ip2
I0501 01:52:05.818270 12509 net.cpp:86] Creating Layer ip2
I0501 01:52:05.818274 12509 net.cpp:408] ip2 <- ip1
I0501 01:52:05.818279 12509 net.cpp:382] ip2 -> ip2
I0501 01:52:05.818711 12509 net.cpp:124] Setting up ip2
I0501 01:52:05.818718 12509 net.cpp:131] Top shape: 1000 80 (80000)
I0501 01:52:05.818722 12509 net.cpp:139] Memory required for data: 97132000
I0501 01:52:05.818728 12509 layer_factory.hpp:77] Creating layer relu2
I0501 01:52:05.818734 12509 net.cpp:86] Creating Layer relu2
I0501 01:52:05.818753 12509 net.cpp:408] relu2 <- ip2
I0501 01:52:05.818756 12509 net.cpp:369] relu2 -> ip2 (in-place)
I0501 01:52:05.819520 12509 net.cpp:124] Setting up relu2
I0501 01:52:05.819532 12509 net.cpp:131] Top shape: 1000 80 (80000)
I0501 01:52:05.819535 12509 net.cpp:139] Memory required for data: 97452000
I0501 01:52:05.819540 12509 layer_factory.hpp:77] Creating layer ip3
I0501 01:52:05.819556 12509 net.cpp:86] Creating Layer ip3
I0501 01:52:05.819561 12509 net.cpp:408] ip3 <- ip2
I0501 01:52:05.819574 12509 net.cpp:382] ip3 -> ip3
I0501 01:52:05.819847 12509 net.cpp:124] Setting up ip3
I0501 01:52:05.819854 12509 net.cpp:131] Top shape: 1000 80 (80000)
I0501 01:52:05.819859 12509 net.cpp:139] Memory required for data: 97772000
I0501 01:52:05.819864 12509 layer_factory.hpp:77] Creating layer relu3
I0501 01:52:05.819869 12509 net.cpp:86] Creating Layer relu3
I0501 01:52:05.819871 12509 net.cpp:408] relu3 <- ip3
I0501 01:52:05.819875 12509 net.cpp:369] relu3 -> ip3 (in-place)
I0501 01:52:05.820019 12509 net.cpp:124] Setting up relu3
I0501 01:52:05.820026 12509 net.cpp:131] Top shape: 1000 80 (80000)
I0501 01:52:05.820029 12509 net.cpp:139] Memory required for data: 98092000
I0501 01:52:05.820044 12509 layer_factory.hpp:77] Creating layer ip4
I0501 01:52:05.820050 12509 net.cpp:86] Creating Layer ip4
I0501 01:52:05.820067 12509 net.cpp:408] ip4 <- ip3
I0501 01:52:05.820072 12509 net.cpp:382] ip4 -> ip4
I0501 01:52:05.820194 12509 net.cpp:124] Setting up ip4
I0501 01:52:05.820201 12509 net.cpp:131] Top shape: 1000 10 (10000)
I0501 01:52:05.820204 12509 net.cpp:139] Memory required for data: 98132000
I0501 01:52:05.820212 12509 layer_factory.hpp:77] Creating layer ip4_ip4_0_split
I0501 01:52:05.820217 12509 net.cpp:86] Creating Layer ip4_ip4_0_split
I0501 01:52:05.820220 12509 net.cpp:408] ip4_ip4_0_split <- ip4
I0501 01:52:05.820225 12509 net.cpp:382] ip4_ip4_0_split -> ip4_ip4_0_split_0
I0501 01:52:05.820230 12509 net.cpp:382] ip4_ip4_0_split -> ip4_ip4_0_split_1
I0501 01:52:05.820261 12509 net.cpp:124] Setting up ip4_ip4_0_split
I0501 01:52:05.820264 12509 net.cpp:131] Top shape: 1000 10 (10000)
I0501 01:52:05.820269 12509 net.cpp:131] Top shape: 1000 10 (10000)
I0501 01:52:05.820272 12509 net.cpp:139] Memory required for data: 98212000
I0501 01:52:05.820276 12509 layer_factory.hpp:77] Creating layer accuracy
I0501 01:52:05.820281 12509 net.cpp:86] Creating Layer accuracy
I0501 01:52:05.820283 12509 net.cpp:408] accuracy <- ip4_ip4_0_split_0
I0501 01:52:05.820288 12509 net.cpp:408] accuracy <- label_cifar_1_split_0
I0501 01:52:05.820293 12509 net.cpp:382] accuracy -> accuracy
…
