…
I0430 23:57:37.509691  6019 net.cpp:296] The NetState phase (0) differed from the phase (1) specified by a rule in layer cifar
I0430 23:57:37.509708  6019 net.cpp:296] The NetState phase (0) differed from the phase (1) specified by a rule in layer accuracy
I0430 23:57:37.509820  6019 net.cpp:53] Initializing net from parameters: 
name: "CIFAR"
state {
  phase: TRAIN
  level: 0
  stage: ""
}
layer {
  name: "cifar"
  type: "Data"
  top: "data"
  top: "label"
  include {
    phase: TRAIN
  }
  transform_param {
    mean_file: "examples/cifar10/mean.binaryproto"
  }
  data_param {
    source: "examples/cifar10/cifar10_train_lmdb"
    batch_size: 111
    backend: LMDB
  }
}
layer {
  name: "conv0"
  type: "Convolution"
  bottom: "data"
  top: "conv0"
  param {
    lr_mult: 1
  }
  param {
    lr_mult: 2
  }
  convolution_param {
    num_output: 8
    pad: 2
    kernel_size: 3
    stride: 1
    weight_filler {
      type: "gaussian"
      std: 0.01
    }
    bias_filler {
      type: "constant"
    }
  }
}
layer {
  name: "Sigmoid0"
  type: "Sigmoid"
  bottom: "conv0"
  top: "Sigmoid0"
}
layer {
  name: "pool0"
  type: "Pooling"
  bottom: "Sigmoid0"
  top: "pool0"
  pooling_param {
    pool: AVE
    kernel_size: 3
    stride: 2
  }
}
layer {
  name: "ip1"
  type: "InnerProduct"
  bottom: "pool0"
  top: "ip1"
  param {
    lr_mult: 1
  }
  param {
    lr_mult: 2
  }
  inner_product_param {
    num_output: 40
    weight_filler {
      type: "gaussian"
      std: 0.01
    }
    bias_filler {
      type: "constant"
    }
  }
}
layer {
  name: "relu1"
  type: "ReLU"
  bottom: "ip1"
  top: "ip1"
}
layer {
  name: "ip2"
  type: "InnerProduct"
  bottom: "ip1"
  top: "ip2"
  param {
    lr_mult: 1
  }
  param {
    lr_mult: 2
  }
  inner_product_param {
    num_output: 20
    weight_filler {
      type: "gaussian"
      std: 0.01
    }
    bias_filler {
      type: "constant"
    }
  }
}
layer {
  name: "relu2"
  type: "ReLU"
  bottom: "ip2"
  top: "ip2"
}
layer {
  name: "ip3"
  type: "InnerProduct"
  bottom: "ip2"
  top: "ip3"
  param {
    lr_mult: 1
  }
  param {
    lr_mult: 2
  }
  inner_product_param {
    num_output: 40
    weight_filler {
      type: "gaussian"
      std: 0.01
    }
    bias_filler {
      type: "constant"
    }
  }
}
layer {
  name: "relu3"
  type: "ReLU"
  bottom: "ip3"
  top: "ip3"
}
layer {
  name: "ip4"
  type: "InnerProduct"
  bottom: "ip3"
  top: "ip4"
  param {
    lr_mult: 1
  }
  param {
    lr_mult: 2
  }
  inner_product_param {
    num_output: 10
    weight_filler {
      type: "gaussian"
      std: 0.01
    }
    bias_filler {
      type: "constant"
    }
  }
}
layer {
  name: "loss"
  type: "SoftmaxWithLoss"
  bottom: "ip4"
  bottom: "label"
  top: "loss"
}
I0430 23:57:37.509884  6019 layer_factory.hpp:77] Creating layer cifar
I0430 23:57:37.509963  6019 db_lmdb.cpp:35] Opened lmdb examples/cifar10/cifar10_train_lmdb
I0430 23:57:37.509985  6019 net.cpp:86] Creating Layer cifar
I0430 23:57:37.509994  6019 net.cpp:382] cifar -> data
I0430 23:57:37.510011  6019 net.cpp:382] cifar -> label
I0430 23:57:37.510020  6019 data_transformer.cpp:25] Loading mean file from: examples/cifar10/mean.binaryproto
I0430 23:57:37.511718  6019 data_layer.cpp:45] output data size: 111,3,32,32
I0430 23:57:37.518054  6019 net.cpp:124] Setting up cifar
I0430 23:57:37.518091  6019 net.cpp:131] Top shape: 111 3 32 32 (340992)
I0430 23:57:37.518096  6019 net.cpp:131] Top shape: 111 (111)
I0430 23:57:37.518098  6019 net.cpp:139] Memory required for data: 1364412
I0430 23:57:37.518117  6019 layer_factory.hpp:77] Creating layer conv0
I0430 23:57:37.518148  6019 net.cpp:86] Creating Layer conv0
I0430 23:57:37.518153  6019 net.cpp:408] conv0 <- data
I0430 23:57:37.518164  6019 net.cpp:382] conv0 -> conv0
I0430 23:57:37.753676  6019 net.cpp:124] Setting up conv0
I0430 23:57:37.753702  6019 net.cpp:131] Top shape: 111 8 34 34 (1026528)
I0430 23:57:37.753706  6019 net.cpp:139] Memory required for data: 5470524
I0430 23:57:37.753720  6019 layer_factory.hpp:77] Creating layer Sigmoid0
I0430 23:57:37.753731  6019 net.cpp:86] Creating Layer Sigmoid0
I0430 23:57:37.753736  6019 net.cpp:408] Sigmoid0 <- conv0
I0430 23:57:37.753741  6019 net.cpp:382] Sigmoid0 -> Sigmoid0
I0430 23:57:37.753923  6019 net.cpp:124] Setting up Sigmoid0
I0430 23:57:37.753933  6019 net.cpp:131] Top shape: 111 8 34 34 (1026528)
I0430 23:57:37.753937  6019 net.cpp:139] Memory required for data: 9576636
I0430 23:57:37.753939  6019 layer_factory.hpp:77] Creating layer pool0
I0430 23:57:37.753945  6019 net.cpp:86] Creating Layer pool0
I0430 23:57:37.753949  6019 net.cpp:408] pool0 <- Sigmoid0
I0430 23:57:37.753953  6019 net.cpp:382] pool0 -> pool0
I0430 23:57:37.754650  6019 net.cpp:124] Setting up pool0
I0430 23:57:37.754663  6019 net.cpp:131] Top shape: 111 8 17 17 (256632)
I0430 23:57:37.754681  6019 net.cpp:139] Memory required for data: 10603164
I0430 23:57:37.754685  6019 layer_factory.hpp:77] Creating layer ip1
I0430 23:57:37.754709  6019 net.cpp:86] Creating Layer ip1
I0430 23:57:37.754711  6019 net.cpp:408] ip1 <- pool0
I0430 23:57:37.754716  6019 net.cpp:382] ip1 -> ip1
I0430 23:57:37.757171  6019 net.cpp:124] Setting up ip1
I0430 23:57:37.757179  6019 net.cpp:131] Top shape: 111 40 (4440)
I0430 23:57:37.757182  6019 net.cpp:139] Memory required for data: 10620924
I0430 23:57:37.757189  6019 layer_factory.hpp:77] Creating layer relu1
I0430 23:57:37.757194  6019 net.cpp:86] Creating Layer relu1
I0430 23:57:37.757197  6019 net.cpp:408] relu1 <- ip1
I0430 23:57:37.757200  6019 net.cpp:369] relu1 -> ip1 (in-place)
I0430 23:57:37.757355  6019 net.cpp:124] Setting up relu1
I0430 23:57:37.757364  6019 net.cpp:131] Top shape: 111 40 (4440)
I0430 23:57:37.757366  6019 net.cpp:139] Memory required for data: 10638684
I0430 23:57:37.757369  6019 layer_factory.hpp:77] Creating layer ip2
I0430 23:57:37.757375  6019 net.cpp:86] Creating Layer ip2
I0430 23:57:37.757378  6019 net.cpp:408] ip2 <- ip1
I0430 23:57:37.757383  6019 net.cpp:382] ip2 -> ip2
I0430 23:57:37.758330  6019 net.cpp:124] Setting up ip2
I0430 23:57:37.758342  6019 net.cpp:131] Top shape: 111 20 (2220)
I0430 23:57:37.758345  6019 net.cpp:139] Memory required for data: 10647564
I0430 23:57:37.758353  6019 layer_factory.hpp:77] Creating layer relu2
I0430 23:57:37.758358  6019 net.cpp:86] Creating Layer relu2
I0430 23:57:37.758361  6019 net.cpp:408] relu2 <- ip2
I0430 23:57:37.758381  6019 net.cpp:369] relu2 -> ip2 (in-place)
I0430 23:57:37.758534  6019 net.cpp:124] Setting up relu2
I0430 23:57:37.758543  6019 net.cpp:131] Top shape: 111 20 (2220)
I0430 23:57:37.758546  6019 net.cpp:139] Memory required for data: 10656444
I0430 23:57:37.758549  6019 layer_factory.hpp:77] Creating layer ip3
I0430 23:57:37.758558  6019 net.cpp:86] Creating Layer ip3
I0430 23:57:37.758560  6019 net.cpp:408] ip3 <- ip2
I0430 23:57:37.758566  6019 net.cpp:382] ip3 -> ip3
I0430 23:57:37.758679  6019 net.cpp:124] Setting up ip3
I0430 23:57:37.758687  6019 net.cpp:131] Top shape: 111 40 (4440)
I0430 23:57:37.758690  6019 net.cpp:139] Memory required for data: 10674204
I0430 23:57:37.758695  6019 layer_factory.hpp:77] Creating layer relu3
I0430 23:57:37.758700  6019 net.cpp:86] Creating Layer relu3
I0430 23:57:37.758707  6019 net.cpp:408] relu3 <- ip3
I0430 23:57:37.758709  6019 net.cpp:369] relu3 -> ip3 (in-place)
I0430 23:57:37.758873  6019 net.cpp:124] Setting up relu3
I0430 23:57:37.758882  6019 net.cpp:131] Top shape: 111 40 (4440)
I0430 23:57:37.758885  6019 net.cpp:139] Memory required for data: 10691964
I0430 23:57:37.758888  6019 layer_factory.hpp:77] Creating layer ip4
I0430 23:57:37.758908  6019 net.cpp:86] Creating Layer ip4
I0430 23:57:37.758910  6019 net.cpp:408] ip4 <- ip3
I0430 23:57:37.758916  6019 net.cpp:382] ip4 -> ip4
I0430 23:57:37.759022  6019 net.cpp:124] Setting up ip4
I0430 23:57:37.759030  6019 net.cpp:131] Top shape: 111 10 (1110)
I0430 23:57:37.759032  6019 net.cpp:139] Memory required for data: 10696404
I0430 23:57:37.759042  6019 layer_factory.hpp:77] Creating layer loss
I0430 23:57:37.759047  6019 net.cpp:86] Creating Layer loss
I0430 23:57:37.759049  6019 net.cpp:408] loss <- ip4
I0430 23:57:37.759053  6019 net.cpp:408] loss <- label
I0430 23:57:37.759058  6019 net.cpp:382] loss -> loss
I0430 23:57:37.759070  6019 layer_factory.hpp:77] Creating layer loss
…
I0430 23:57:37.760273  6019 solver.cpp:173] Creating test net (#0) specified by net file: ECE595/cifar/train_test/var_everything/cifar_train_test_242.prototxt
I0430 23:57:37.760300  6019 net.cpp:296] The NetState phase (1) differed from the phase (0) specified by a rule in layer cifar
I0430 23:57:37.760395  6019 net.cpp:53] Initializing net from parameters: 
name: "CIFAR"
state {
  phase: TEST
}
layer {
  name: "cifar"
  type: "Data"
  top: "data"
  top: "label"
  include {
    phase: TEST
  }
  transform_param {
    mean_file: "examples/cifar10/mean.binaryproto"
  }
  data_param {
    source: "examples/cifar10/cifar10_test_lmdb"
    batch_size: 1000
    backend: LMDB
  }
}
layer {
  name: "conv0"
  type: "Convolution"
  bottom: "data"
  top: "conv0"
  param {
    lr_mult: 1
  }
  param {
    lr_mult: 2
  }
  convolution_param {
    num_output: 8
    pad: 2
    kernel_size: 3
    stride: 1
    weight_filler {
      type: "gaussian"
      std: 0.01
    }
    bias_filler {
      type: "constant"
    }
  }
}
layer {
  name: "Sigmoid0"
  type: "Sigmoid"
  bottom: "conv0"
  top: "Sigmoid0"
}
layer {
  name: "pool0"
  type: "Pooling"
  bottom: "Sigmoid0"
  top: "pool0"
  pooling_param {
    pool: AVE
    kernel_size: 3
    stride: 2
  }
}
layer {
  name: "ip1"
  type: "InnerProduct"
  bottom: "pool0"
  top: "ip1"
  param {
    lr_mult: 1
  }
  param {
    lr_mult: 2
  }
  inner_product_param {
    num_output: 40
    weight_filler {
      type: "gaussian"
      std: 0.01
    }
    bias_filler {
      type: "constant"
    }
  }
}
layer {
  name: "relu1"
  type: "ReLU"
  bottom: "ip1"
  top: "ip1"
}
layer {
  name: "ip2"
  type: "InnerProduct"
  bottom: "ip1"
  top: "ip2"
  param {
    lr_mult: 1
  }
  param {
    lr_mult: 2
  }
  inner_product_param {
    num_output: 20
    weight_filler {
      type: "gaussian"
      std: 0.01
    }
    bias_filler {
      type: "constant"
    }
  }
}
layer {
  name: "relu2"
  type: "ReLU"
  bottom: "ip2"
  top: "ip2"
}
layer {
  name: "ip3"
  type: "InnerProduct"
  bottom: "ip2"
  top: "ip3"
  param {
    lr_mult: 1
  }
  param {
    lr_mult: 2
  }
  inner_product_param {
    num_output: 40
    weight_filler {
      type: "gaussian"
      std: 0.01
    }
    bias_filler {
      type: "constant"
    }
  }
}
layer {
  name: "relu3"
  type: "ReLU"
  bottom: "ip3"
  top: "ip3"
}
layer {
  name: "ip4"
  type: "InnerProduct"
  bottom: "ip3"
  top: "ip4"
  param {
    lr_mult: 1
  }
  param {
    lr_mult: 2
  }
  inner_product_param {
    num_output: 10
    weight_filler {
      type: "gaussian"
      std: 0.01
    }
    bias_filler {
      type: "constant"
    }
  }
}
layer {
  name: "accuracy"
  type: "Accuracy"
  bottom: "ip4"
  bottom: "label"
  top: "accuracy"
  include {
    phase: TEST
  }
}
layer {
  name: "loss"
  type: "SoftmaxWithLoss"
  bottom: "ip4"
  bottom: "label"
  top: "loss"
}
I0430 23:57:37.760474  6019 layer_factory.hpp:77] Creating layer cifar
I0430 23:57:37.760520  6019 db_lmdb.cpp:35] Opened lmdb examples/cifar10/cifar10_test_lmdb
I0430 23:57:37.760532  6019 net.cpp:86] Creating Layer cifar
I0430 23:57:37.760537  6019 net.cpp:382] cifar -> data
I0430 23:57:37.760545  6019 net.cpp:382] cifar -> label
I0430 23:57:37.760550  6019 data_transformer.cpp:25] Loading mean file from: examples/cifar10/mean.binaryproto
I0430 23:57:37.760689  6019 data_layer.cpp:45] output data size: 1000,3,32,32
I0430 23:57:37.782188  6019 net.cpp:124] Setting up cifar
I0430 23:57:37.782228  6019 net.cpp:131] Top shape: 1000 3 32 32 (3072000)
I0430 23:57:37.782234  6019 net.cpp:131] Top shape: 1000 (1000)
I0430 23:57:37.782236  6019 net.cpp:139] Memory required for data: 12292000
I0430 23:57:37.782243  6019 layer_factory.hpp:77] Creating layer label_cifar_1_split
I0430 23:57:37.782254  6019 net.cpp:86] Creating Layer label_cifar_1_split
I0430 23:57:37.782258  6019 net.cpp:408] label_cifar_1_split <- label
I0430 23:57:37.782263  6019 net.cpp:382] label_cifar_1_split -> label_cifar_1_split_0
I0430 23:57:37.782289  6019 net.cpp:382] label_cifar_1_split -> label_cifar_1_split_1
I0430 23:57:37.782378  6019 net.cpp:124] Setting up label_cifar_1_split
I0430 23:57:37.782387  6019 net.cpp:131] Top shape: 1000 (1000)
I0430 23:57:37.782389  6019 net.cpp:131] Top shape: 1000 (1000)
I0430 23:57:37.782392  6019 net.cpp:139] Memory required for data: 12300000
I0430 23:57:37.782395  6019 layer_factory.hpp:77] Creating layer conv0
I0430 23:57:37.782408  6019 net.cpp:86] Creating Layer conv0
I0430 23:57:37.782413  6019 net.cpp:408] conv0 <- data
I0430 23:57:37.782416  6019 net.cpp:382] conv0 -> conv0
I0430 23:57:37.783957  6019 net.cpp:124] Setting up conv0
I0430 23:57:37.783969  6019 net.cpp:131] Top shape: 1000 8 34 34 (9248000)
I0430 23:57:37.783988  6019 net.cpp:139] Memory required for data: 49292000
I0430 23:57:37.783999  6019 layer_factory.hpp:77] Creating layer Sigmoid0
I0430 23:57:37.784006  6019 net.cpp:86] Creating Layer Sigmoid0
I0430 23:57:37.784009  6019 net.cpp:408] Sigmoid0 <- conv0
I0430 23:57:37.784015  6019 net.cpp:382] Sigmoid0 -> Sigmoid0
I0430 23:57:37.784308  6019 net.cpp:124] Setting up Sigmoid0
I0430 23:57:37.784318  6019 net.cpp:131] Top shape: 1000 8 34 34 (9248000)
I0430 23:57:37.784322  6019 net.cpp:139] Memory required for data: 86284000
I0430 23:57:37.784325  6019 layer_factory.hpp:77] Creating layer pool0
I0430 23:57:37.784334  6019 net.cpp:86] Creating Layer pool0
I0430 23:57:37.784337  6019 net.cpp:408] pool0 <- Sigmoid0
I0430 23:57:37.784343  6019 net.cpp:382] pool0 -> pool0
I0430 23:57:37.785564  6019 net.cpp:124] Setting up pool0
I0430 23:57:37.785591  6019 net.cpp:131] Top shape: 1000 8 17 17 (2312000)
I0430 23:57:37.785594  6019 net.cpp:139] Memory required for data: 95532000
I0430 23:57:37.785598  6019 layer_factory.hpp:77] Creating layer ip1
I0430 23:57:37.785604  6019 net.cpp:86] Creating Layer ip1
I0430 23:57:37.785607  6019 net.cpp:408] ip1 <- pool0
I0430 23:57:37.785614  6019 net.cpp:382] ip1 -> ip1
I0430 23:57:37.788102  6019 net.cpp:124] Setting up ip1
I0430 23:57:37.788110  6019 net.cpp:131] Top shape: 1000 40 (40000)
I0430 23:57:37.788128  6019 net.cpp:139] Memory required for data: 95692000
I0430 23:57:37.788148  6019 layer_factory.hpp:77] Creating layer relu1
I0430 23:57:37.788154  6019 net.cpp:86] Creating Layer relu1
I0430 23:57:37.788157  6019 net.cpp:408] relu1 <- ip1
I0430 23:57:37.788161  6019 net.cpp:369] relu1 -> ip1 (in-place)
I0430 23:57:37.788359  6019 net.cpp:124] Setting up relu1
I0430 23:57:37.788368  6019 net.cpp:131] Top shape: 1000 40 (40000)
I0430 23:57:37.788372  6019 net.cpp:139] Memory required for data: 95852000
I0430 23:57:37.788374  6019 layer_factory.hpp:77] Creating layer ip2
I0430 23:57:37.788383  6019 net.cpp:86] Creating Layer ip2
I0430 23:57:37.788386  6019 net.cpp:408] ip2 <- ip1
I0430 23:57:37.788391  6019 net.cpp:382] ip2 -> ip2
I0430 23:57:37.788522  6019 net.cpp:124] Setting up ip2
I0430 23:57:37.788543  6019 net.cpp:131] Top shape: 1000 20 (20000)
I0430 23:57:37.788547  6019 net.cpp:139] Memory required for data: 95932000
I0430 23:57:37.788552  6019 layer_factory.hpp:77] Creating layer relu2
I0430 23:57:37.788558  6019 net.cpp:86] Creating Layer relu2
I0430 23:57:37.788561  6019 net.cpp:408] relu2 <- ip2
I0430 23:57:37.788565  6019 net.cpp:369] relu2 -> ip2 (in-place)
I0430 23:57:37.789357  6019 net.cpp:124] Setting up relu2
I0430 23:57:37.789368  6019 net.cpp:131] Top shape: 1000 20 (20000)
I0430 23:57:37.789387  6019 net.cpp:139] Memory required for data: 96012000
I0430 23:57:37.789391  6019 layer_factory.hpp:77] Creating layer ip3
I0430 23:57:37.789398  6019 net.cpp:86] Creating Layer ip3
I0430 23:57:37.789403  6019 net.cpp:408] ip3 <- ip2
I0430 23:57:37.789408  6019 net.cpp:382] ip3 -> ip3
I0430 23:57:37.789556  6019 net.cpp:124] Setting up ip3
I0430 23:57:37.789562  6019 net.cpp:131] Top shape: 1000 40 (40000)
I0430 23:57:37.789566  6019 net.cpp:139] Memory required for data: 96172000
I0430 23:57:37.789571  6019 layer_factory.hpp:77] Creating layer relu3
I0430 23:57:37.789577  6019 net.cpp:86] Creating Layer relu3
I0430 23:57:37.789579  6019 net.cpp:408] relu3 <- ip3
I0430 23:57:37.789584  6019 net.cpp:369] relu3 -> ip3 (in-place)
I0430 23:57:37.789748  6019 net.cpp:124] Setting up relu3
I0430 23:57:37.789757  6019 net.cpp:131] Top shape: 1000 40 (40000)
I0430 23:57:37.789762  6019 net.cpp:139] Memory required for data: 96332000
I0430 23:57:37.789763  6019 layer_factory.hpp:77] Creating layer ip4
I0430 23:57:37.789769  6019 net.cpp:86] Creating Layer ip4
I0430 23:57:37.789772  6019 net.cpp:408] ip4 <- ip3
I0430 23:57:37.789777  6019 net.cpp:382] ip4 -> ip4
I0430 23:57:37.789887  6019 net.cpp:124] Setting up ip4
I0430 23:57:37.789894  6019 net.cpp:131] Top shape: 1000 10 (10000)
I0430 23:57:37.789897  6019 net.cpp:139] Memory required for data: 96372000
I0430 23:57:37.789904  6019 layer_factory.hpp:77] Creating layer ip4_ip4_0_split
I0430 23:57:37.789912  6019 net.cpp:86] Creating Layer ip4_ip4_0_split
I0430 23:57:37.789916  6019 net.cpp:408] ip4_ip4_0_split <- ip4
I0430 23:57:37.789919  6019 net.cpp:382] ip4_ip4_0_split -> ip4_ip4_0_split_0
I0430 23:57:37.789924  6019 net.cpp:382] ip4_ip4_0_split -> ip4_ip4_0_split_1
I0430 23:57:37.789955  6019 net.cpp:124] Setting up ip4_ip4_0_split
I0430 23:57:37.789963  6019 net.cpp:131] Top shape: 1000 10 (10000)
I0430 23:57:37.789966  6019 net.cpp:131] Top shape: 1000 10 (10000)
I0430 23:57:37.789969  6019 net.cpp:139] Memory required for data: 96452000
I0430 23:57:37.789973  6019 layer_factory.hpp:77] Creating layer accuracy
I0430 23:57:37.789978  6019 net.cpp:86] Creating Layer accuracy
I0430 23:57:37.789980  6019 net.cpp:408] accuracy <- ip4_ip4_0_split_0
I0430 23:57:37.789983  6019 net.cpp:408] accuracy <- label_cifar_1_split_0
I0430 23:57:37.789988  6019 net.cpp:382] accuracy -> accuracy
…
