…
I0430 21:40:36.832734 31409 net.cpp:296] The NetState phase (0) differed from the phase (1) specified by a rule in layer cifar
I0430 21:40:36.832751 31409 net.cpp:296] The NetState phase (0) differed from the phase (1) specified by a rule in layer accuracy
I0430 21:40:36.832854 31409 net.cpp:53] Initializing net from parameters: 
name: "CIFAR"
state {
  phase: TRAIN
  level: 0
  stage: ""
}
layer {
  name: "cifar"
  type: "Data"
  top: "data"
  top: "label"
  include {
    phase: TRAIN
  }
  transform_param {
    mean_file: "examples/cifar10/mean.binaryproto"
  }
  data_param {
    source: "examples/cifar10/cifar10_train_lmdb"
    batch_size: 111
    backend: LMDB
  }
}
layer {
  name: "conv0"
  type: "Convolution"
  bottom: "data"
  top: "conv0"
  param {
    lr_mult: 1
  }
  param {
    lr_mult: 2
  }
  convolution_param {
    num_output: 8
    pad: 2
    kernel_size: 3
    stride: 1
    weight_filler {
      type: "gaussian"
      std: 0.01
    }
    bias_filler {
      type: "constant"
    }
  }
}
layer {
  name: "Sigmoid0"
  type: "Sigmoid"
  bottom: "conv0"
  top: "Sigmoid0"
}
layer {
  name: "pool0"
  type: "Pooling"
  bottom: "Sigmoid0"
  top: "pool0"
  pooling_param {
    pool: AVE
    kernel_size: 3
    stride: 2
  }
}
layer {
  name: "ip1"
  type: "InnerProduct"
  bottom: "pool0"
  top: "ip1"
  param {
    lr_mult: 1
  }
  param {
    lr_mult: 2
  }
  inner_product_param {
    num_output: 20
    weight_filler {
      type: "gaussian"
      std: 0.01
    }
    bias_filler {
      type: "constant"
    }
  }
}
layer {
  name: "relu1"
  type: "ReLU"
  bottom: "ip1"
  top: "ip1"
}
layer {
  name: "ip2"
  type: "InnerProduct"
  bottom: "ip1"
  top: "ip2"
  param {
    lr_mult: 1
  }
  param {
    lr_mult: 2
  }
  inner_product_param {
    num_output: 160
    weight_filler {
      type: "gaussian"
      std: 0.01
    }
    bias_filler {
      type: "constant"
    }
  }
}
layer {
  name: "relu2"
  type: "ReLU"
  bottom: "ip2"
  top: "ip2"
}
layer {
  name: "ip3"
  type: "InnerProduct"
  bottom: "ip2"
  top: "ip3"
  param {
    lr_mult: 1
  }
  param {
    lr_mult: 2
  }
  inner_product_param {
    num_output: 10
    weight_filler {
      type: "gaussian"
      std: 0.01
    }
    bias_filler {
      type: "constant"
    }
  }
}
layer {
  name: "loss"
  type: "SoftmaxWithLoss"
  bottom: "ip3"
  bottom: "label"
  top: "loss"
}
I0430 21:40:36.832931 31409 layer_factory.hpp:77] Creating layer cifar
I0430 21:40:36.833030 31409 db_lmdb.cpp:35] Opened lmdb examples/cifar10/cifar10_train_lmdb
I0430 21:40:36.833058 31409 net.cpp:86] Creating Layer cifar
I0430 21:40:36.833066 31409 net.cpp:382] cifar -> data
I0430 21:40:36.833091 31409 net.cpp:382] cifar -> label
I0430 21:40:36.833102 31409 data_transformer.cpp:25] Loading mean file from: examples/cifar10/mean.binaryproto
I0430 21:40:36.835223 31409 data_layer.cpp:45] output data size: 111,3,32,32
I0430 21:40:36.843323 31409 net.cpp:124] Setting up cifar
I0430 21:40:36.843341 31409 net.cpp:131] Top shape: 111 3 32 32 (340992)
I0430 21:40:36.843350 31409 net.cpp:131] Top shape: 111 (111)
I0430 21:40:36.843354 31409 net.cpp:139] Memory required for data: 1364412
I0430 21:40:36.843361 31409 layer_factory.hpp:77] Creating layer conv0
I0430 21:40:36.843380 31409 net.cpp:86] Creating Layer conv0
I0430 21:40:36.843386 31409 net.cpp:408] conv0 <- data
I0430 21:40:36.843400 31409 net.cpp:382] conv0 -> conv0
I0430 21:40:37.133395 31409 net.cpp:124] Setting up conv0
I0430 21:40:37.133455 31409 net.cpp:131] Top shape: 111 8 34 34 (1026528)
I0430 21:40:37.133460 31409 net.cpp:139] Memory required for data: 5470524
I0430 21:40:37.133474 31409 layer_factory.hpp:77] Creating layer Sigmoid0
I0430 21:40:37.133487 31409 net.cpp:86] Creating Layer Sigmoid0
I0430 21:40:37.133491 31409 net.cpp:408] Sigmoid0 <- conv0
I0430 21:40:37.133512 31409 net.cpp:382] Sigmoid0 -> Sigmoid0
I0430 21:40:37.133710 31409 net.cpp:124] Setting up Sigmoid0
I0430 21:40:37.133720 31409 net.cpp:131] Top shape: 111 8 34 34 (1026528)
I0430 21:40:37.133723 31409 net.cpp:139] Memory required for data: 9576636
I0430 21:40:37.133728 31409 layer_factory.hpp:77] Creating layer pool0
I0430 21:40:37.133734 31409 net.cpp:86] Creating Layer pool0
I0430 21:40:37.133738 31409 net.cpp:408] pool0 <- Sigmoid0
I0430 21:40:37.133743 31409 net.cpp:382] pool0 -> pool0
I0430 21:40:37.134501 31409 net.cpp:124] Setting up pool0
I0430 21:40:37.134529 31409 net.cpp:131] Top shape: 111 8 17 17 (256632)
I0430 21:40:37.134534 31409 net.cpp:139] Memory required for data: 10603164
I0430 21:40:37.134539 31409 layer_factory.hpp:77] Creating layer ip1
I0430 21:40:37.134552 31409 net.cpp:86] Creating Layer ip1
I0430 21:40:37.134557 31409 net.cpp:408] ip1 <- pool0
I0430 21:40:37.134565 31409 net.cpp:382] ip1 -> ip1
I0430 21:40:37.136735 31409 net.cpp:124] Setting up ip1
I0430 21:40:37.136749 31409 net.cpp:131] Top shape: 111 20 (2220)
I0430 21:40:37.136767 31409 net.cpp:139] Memory required for data: 10612044
I0430 21:40:37.136776 31409 layer_factory.hpp:77] Creating layer relu1
I0430 21:40:37.136782 31409 net.cpp:86] Creating Layer relu1
I0430 21:40:37.136786 31409 net.cpp:408] relu1 <- ip1
I0430 21:40:37.136791 31409 net.cpp:369] relu1 -> ip1 (in-place)
I0430 21:40:37.137001 31409 net.cpp:124] Setting up relu1
I0430 21:40:37.137012 31409 net.cpp:131] Top shape: 111 20 (2220)
I0430 21:40:37.137014 31409 net.cpp:139] Memory required for data: 10620924
I0430 21:40:37.137018 31409 layer_factory.hpp:77] Creating layer ip2
I0430 21:40:37.137025 31409 net.cpp:86] Creating Layer ip2
I0430 21:40:37.137029 31409 net.cpp:408] ip2 <- ip1
I0430 21:40:37.137034 31409 net.cpp:382] ip2 -> ip2
I0430 21:40:37.137254 31409 net.cpp:124] Setting up ip2
I0430 21:40:37.137261 31409 net.cpp:131] Top shape: 111 160 (17760)
I0430 21:40:37.137265 31409 net.cpp:139] Memory required for data: 10691964
I0430 21:40:37.137272 31409 layer_factory.hpp:77] Creating layer relu2
I0430 21:40:37.137277 31409 net.cpp:86] Creating Layer relu2
I0430 21:40:37.137280 31409 net.cpp:408] relu2 <- ip2
I0430 21:40:37.137284 31409 net.cpp:369] relu2 -> ip2 (in-place)
I0430 21:40:37.137434 31409 net.cpp:124] Setting up relu2
I0430 21:40:37.137442 31409 net.cpp:131] Top shape: 111 160 (17760)
I0430 21:40:37.137445 31409 net.cpp:139] Memory required for data: 10763004
I0430 21:40:37.137449 31409 layer_factory.hpp:77] Creating layer ip3
I0430 21:40:37.137456 31409 net.cpp:86] Creating Layer ip3
I0430 21:40:37.137459 31409 net.cpp:408] ip3 <- ip2
I0430 21:40:37.137465 31409 net.cpp:382] ip3 -> ip3
I0430 21:40:37.137593 31409 net.cpp:124] Setting up ip3
I0430 21:40:37.137600 31409 net.cpp:131] Top shape: 111 10 (1110)
I0430 21:40:37.137603 31409 net.cpp:139] Memory required for data: 10767444
I0430 21:40:37.137609 31409 layer_factory.hpp:77] Creating layer loss
I0430 21:40:37.137614 31409 net.cpp:86] Creating Layer loss
I0430 21:40:37.137617 31409 net.cpp:408] loss <- ip3
I0430 21:40:37.137620 31409 net.cpp:408] loss <- label
I0430 21:40:37.137626 31409 net.cpp:382] loss -> loss
I0430 21:40:37.137645 31409 layer_factory.hpp:77] Creating layer loss
…
I0430 21:40:37.138231 31409 solver.cpp:173] Creating test net (#0) specified by net file: ECE595/cifar/train_test/var_everything/cifar_train_test_169.prototxt
I0430 21:40:37.138257 31409 net.cpp:296] The NetState phase (1) differed from the phase (0) specified by a rule in layer cifar
I0430 21:40:37.138341 31409 net.cpp:53] Initializing net from parameters: 
name: "CIFAR"
state {
  phase: TEST
}
layer {
  name: "cifar"
  type: "Data"
  top: "data"
  top: "label"
  include {
    phase: TEST
  }
  transform_param {
    mean_file: "examples/cifar10/mean.binaryproto"
  }
  data_param {
    source: "examples/cifar10/cifar10_test_lmdb"
    batch_size: 1000
    backend: LMDB
  }
}
layer {
  name: "conv0"
  type: "Convolution"
  bottom: "data"
  top: "conv0"
  param {
    lr_mult: 1
  }
  param {
    lr_mult: 2
  }
  convolution_param {
    num_output: 8
    pad: 2
    kernel_size: 3
    stride: 1
    weight_filler {
      type: "gaussian"
      std: 0.01
    }
    bias_filler {
      type: "constant"
    }
  }
}
layer {
  name: "Sigmoid0"
  type: "Sigmoid"
  bottom: "conv0"
  top: "Sigmoid0"
}
layer {
  name: "pool0"
  type: "Pooling"
  bottom: "Sigmoid0"
  top: "pool0"
  pooling_param {
    pool: AVE
    kernel_size: 3
    stride: 2
  }
}
layer {
  name: "ip1"
  type: "InnerProduct"
  bottom: "pool0"
  top: "ip1"
  param {
    lr_mult: 1
  }
  param {
    lr_mult: 2
  }
  inner_product_param {
    num_output: 20
    weight_filler {
      type: "gaussian"
      std: 0.01
    }
    bias_filler {
      type: "constant"
    }
  }
}
layer {
  name: "relu1"
  type: "ReLU"
  bottom: "ip1"
  top: "ip1"
}
layer {
  name: "ip2"
  type: "InnerProduct"
  bottom: "ip1"
  top: "ip2"
  param {
    lr_mult: 1
  }
  param {
    lr_mult: 2
  }
  inner_product_param {
    num_output: 160
    weight_filler {
      type: "gaussian"
      std: 0.01
    }
    bias_filler {
      type: "constant"
    }
  }
}
layer {
  name: "relu2"
  type: "ReLU"
  bottom: "ip2"
  top: "ip2"
}
layer {
  name: "ip3"
  type: "InnerProduct"
  bottom: "ip2"
  top: "ip3"
  param {
    lr_mult: 1
  }
  param {
    lr_mult: 2
  }
  inner_product_param {
    num_output: 10
    weight_filler {
      type: "gaussian"
      std: 0.01
    }
    bias_filler {
      type: "constant"
    }
  }
}
layer {
  name: "accuracy"
  type: "Accuracy"
  bottom: "ip3"
  bottom: "label"
  top: "accuracy"
  include {
    phase: TEST
  }
}
layer {
  name: "loss"
  type: "SoftmaxWithLoss"
  bottom: "ip3"
  bottom: "label"
  top: "loss"
}
I0430 21:40:37.138406 31409 layer_factory.hpp:77] Creating layer cifar
I0430 21:40:37.138451 31409 db_lmdb.cpp:35] Opened lmdb examples/cifar10/cifar10_test_lmdb
I0430 21:40:37.138464 31409 net.cpp:86] Creating Layer cifar
I0430 21:40:37.138469 31409 net.cpp:382] cifar -> data
I0430 21:40:37.138476 31409 net.cpp:382] cifar -> label
I0430 21:40:37.138483 31409 data_transformer.cpp:25] Loading mean file from: examples/cifar10/mean.binaryproto
I0430 21:40:37.138620 31409 data_layer.cpp:45] output data size: 1000,3,32,32
I0430 21:40:37.161269 31409 net.cpp:124] Setting up cifar
I0430 21:40:37.161294 31409 net.cpp:131] Top shape: 1000 3 32 32 (3072000)
I0430 21:40:37.161300 31409 net.cpp:131] Top shape: 1000 (1000)
I0430 21:40:37.161304 31409 net.cpp:139] Memory required for data: 12292000
I0430 21:40:37.161310 31409 layer_factory.hpp:77] Creating layer label_cifar_1_split
I0430 21:40:37.161326 31409 net.cpp:86] Creating Layer label_cifar_1_split
I0430 21:40:37.161375 31409 net.cpp:408] label_cifar_1_split <- label
I0430 21:40:37.161381 31409 net.cpp:382] label_cifar_1_split -> label_cifar_1_split_0
I0430 21:40:37.161391 31409 net.cpp:382] label_cifar_1_split -> label_cifar_1_split_1
I0430 21:40:37.161475 31409 net.cpp:124] Setting up label_cifar_1_split
I0430 21:40:37.161485 31409 net.cpp:131] Top shape: 1000 (1000)
I0430 21:40:37.161489 31409 net.cpp:131] Top shape: 1000 (1000)
I0430 21:40:37.161504 31409 net.cpp:139] Memory required for data: 12300000
I0430 21:40:37.161507 31409 layer_factory.hpp:77] Creating layer conv0
I0430 21:40:37.161520 31409 net.cpp:86] Creating Layer conv0
I0430 21:40:37.161523 31409 net.cpp:408] conv0 <- data
I0430 21:40:37.161530 31409 net.cpp:382] conv0 -> conv0
I0430 21:40:37.163293 31409 net.cpp:124] Setting up conv0
I0430 21:40:37.163307 31409 net.cpp:131] Top shape: 1000 8 34 34 (9248000)
I0430 21:40:37.163311 31409 net.cpp:139] Memory required for data: 49292000
I0430 21:40:37.163322 31409 layer_factory.hpp:77] Creating layer Sigmoid0
I0430 21:40:37.163328 31409 net.cpp:86] Creating Layer Sigmoid0
I0430 21:40:37.163332 31409 net.cpp:408] Sigmoid0 <- conv0
I0430 21:40:37.163337 31409 net.cpp:382] Sigmoid0 -> Sigmoid0
I0430 21:40:37.164187 31409 net.cpp:124] Setting up Sigmoid0
I0430 21:40:37.164199 31409 net.cpp:131] Top shape: 1000 8 34 34 (9248000)
I0430 21:40:37.164203 31409 net.cpp:139] Memory required for data: 86284000
I0430 21:40:37.164206 31409 layer_factory.hpp:77] Creating layer pool0
I0430 21:40:37.164216 31409 net.cpp:86] Creating Layer pool0
I0430 21:40:37.164219 31409 net.cpp:408] pool0 <- Sigmoid0
I0430 21:40:37.164224 31409 net.cpp:382] pool0 -> pool0
I0430 21:40:37.165431 31409 net.cpp:124] Setting up pool0
I0430 21:40:37.165441 31409 net.cpp:131] Top shape: 1000 8 17 17 (2312000)
I0430 21:40:37.165446 31409 net.cpp:139] Memory required for data: 95532000
I0430 21:40:37.165448 31409 layer_factory.hpp:77] Creating layer ip1
I0430 21:40:37.165457 31409 net.cpp:86] Creating Layer ip1
I0430 21:40:37.165477 31409 net.cpp:408] ip1 <- pool0
I0430 21:40:37.165483 31409 net.cpp:382] ip1 -> ip1
I0430 21:40:37.166906 31409 net.cpp:124] Setting up ip1
I0430 21:40:37.166914 31409 net.cpp:131] Top shape: 1000 20 (20000)
I0430 21:40:37.166918 31409 net.cpp:139] Memory required for data: 95612000
I0430 21:40:37.166926 31409 layer_factory.hpp:77] Creating layer relu1
I0430 21:40:37.166947 31409 net.cpp:86] Creating Layer relu1
I0430 21:40:37.166951 31409 net.cpp:408] relu1 <- ip1
I0430 21:40:37.166956 31409 net.cpp:369] relu1 -> ip1 (in-place)
I0430 21:40:37.167120 31409 net.cpp:124] Setting up relu1
I0430 21:40:37.167129 31409 net.cpp:131] Top shape: 1000 20 (20000)
I0430 21:40:37.167132 31409 net.cpp:139] Memory required for data: 95692000
I0430 21:40:37.167135 31409 layer_factory.hpp:77] Creating layer ip2
I0430 21:40:37.167141 31409 net.cpp:86] Creating Layer ip2
I0430 21:40:37.167145 31409 net.cpp:408] ip2 <- ip1
I0430 21:40:37.167150 31409 net.cpp:382] ip2 -> ip2
I0430 21:40:37.167328 31409 net.cpp:124] Setting up ip2
I0430 21:40:37.167336 31409 net.cpp:131] Top shape: 1000 160 (160000)
I0430 21:40:37.167340 31409 net.cpp:139] Memory required for data: 96332000
I0430 21:40:37.167346 31409 layer_factory.hpp:77] Creating layer relu2
I0430 21:40:37.167352 31409 net.cpp:86] Creating Layer relu2
I0430 21:40:37.167356 31409 net.cpp:408] relu2 <- ip2
I0430 21:40:37.167361 31409 net.cpp:369] relu2 -> ip2 (in-place)
I0430 21:40:37.167506 31409 net.cpp:124] Setting up relu2
I0430 21:40:37.167515 31409 net.cpp:131] Top shape: 1000 160 (160000)
I0430 21:40:37.167517 31409 net.cpp:139] Memory required for data: 96972000
I0430 21:40:37.167527 31409 layer_factory.hpp:77] Creating layer ip3
I0430 21:40:37.167533 31409 net.cpp:86] Creating Layer ip3
I0430 21:40:37.167536 31409 net.cpp:408] ip3 <- ip2
I0430 21:40:37.167541 31409 net.cpp:382] ip3 -> ip3
I0430 21:40:37.167697 31409 net.cpp:124] Setting up ip3
I0430 21:40:37.167704 31409 net.cpp:131] Top shape: 1000 10 (10000)
I0430 21:40:37.167714 31409 net.cpp:139] Memory required for data: 97012000
I0430 21:40:37.167732 31409 layer_factory.hpp:77] Creating layer ip3_ip3_0_split
I0430 21:40:37.167737 31409 net.cpp:86] Creating Layer ip3_ip3_0_split
I0430 21:40:37.167740 31409 net.cpp:408] ip3_ip3_0_split <- ip3
I0430 21:40:37.167744 31409 net.cpp:382] ip3_ip3_0_split -> ip3_ip3_0_split_0
I0430 21:40:37.167750 31409 net.cpp:382] ip3_ip3_0_split -> ip3_ip3_0_split_1
I0430 21:40:37.167783 31409 net.cpp:124] Setting up ip3_ip3_0_split
I0430 21:40:37.167788 31409 net.cpp:131] Top shape: 1000 10 (10000)
I0430 21:40:37.167793 31409 net.cpp:131] Top shape: 1000 10 (10000)
I0430 21:40:37.167796 31409 net.cpp:139] Memory required for data: 97092000
I0430 21:40:37.167799 31409 layer_factory.hpp:77] Creating layer accuracy
I0430 21:40:37.167805 31409 net.cpp:86] Creating Layer accuracy
I0430 21:40:37.167809 31409 net.cpp:408] accuracy <- ip3_ip3_0_split_0
I0430 21:40:37.167812 31409 net.cpp:408] accuracy <- label_cifar_1_split_0
I0430 21:40:37.167816 31409 net.cpp:382] accuracy -> accuracy
…
