…
I0430 22:57:42.789621  3835 net.cpp:296] The NetState phase (0) differed from the phase (1) specified by a rule in layer cifar
I0430 22:57:42.789636  3835 net.cpp:296] The NetState phase (0) differed from the phase (1) specified by a rule in layer accuracy
I0430 22:57:42.789723  3835 net.cpp:53] Initializing net from parameters: 
name: "CIFAR"
state {
  phase: TRAIN
  level: 0
  stage: ""
}
layer {
  name: "cifar"
  type: "Data"
  top: "data"
  top: "label"
  include {
    phase: TRAIN
  }
  transform_param {
    mean_file: "examples/cifar10/mean.binaryproto"
  }
  data_param {
    source: "examples/cifar10/cifar10_train_lmdb"
    batch_size: 111
    backend: LMDB
  }
}
layer {
  name: "conv0"
  type: "Convolution"
  bottom: "data"
  top: "conv0"
  param {
    lr_mult: 1
  }
  param {
    lr_mult: 2
  }
  convolution_param {
    num_output: 8
    pad: 2
    kernel_size: 3
    stride: 1
    weight_filler {
      type: "gaussian"
      std: 0.01
    }
    bias_filler {
      type: "constant"
    }
  }
}
layer {
  name: "Sigmoid0"
  type: "Sigmoid"
  bottom: "conv0"
  top: "Sigmoid0"
}
layer {
  name: "pool0"
  type: "Pooling"
  bottom: "Sigmoid0"
  top: "pool0"
  pooling_param {
    pool: AVE
    kernel_size: 3
    stride: 2
  }
}
layer {
  name: "ip1"
  type: "InnerProduct"
  bottom: "pool0"
  top: "ip1"
  param {
    lr_mult: 1
  }
  param {
    lr_mult: 2
  }
  inner_product_param {
    num_output: 20
    weight_filler {
      type: "gaussian"
      std: 0.01
    }
    bias_filler {
      type: "constant"
    }
  }
}
layer {
  name: "relu1"
  type: "ReLU"
  bottom: "ip1"
  top: "ip1"
}
layer {
  name: "ip2"
  type: "InnerProduct"
  bottom: "ip1"
  top: "ip2"
  param {
    lr_mult: 1
  }
  param {
    lr_mult: 2
  }
  inner_product_param {
    num_output: 10
    weight_filler {
      type: "gaussian"
      std: 0.01
    }
    bias_filler {
      type: "constant"
    }
  }
}
layer {
  name: "relu2"
  type: "ReLU"
  bottom: "ip2"
  top: "ip2"
}
layer {
  name: "ip3"
  type: "InnerProduct"
  bottom: "ip2"
  top: "ip3"
  param {
    lr_mult: 1
  }
  param {
    lr_mult: 2
  }
  inner_product_param {
    num_output: 10
    weight_filler {
      type: "gaussian"
      std: 0.01
    }
    bias_filler {
      type: "constant"
    }
  }
}
layer {
  name: "relu3"
  type: "ReLU"
  bottom: "ip3"
  top: "ip3"
}
layer {
  name: "ip4"
  type: "InnerProduct"
  bottom: "ip3"
  top: "ip4"
  param {
    lr_mult: 1
  }
  param {
    lr_mult: 2
  }
  inner_product_param {
    num_output: 10
    weight_filler {
      type: "gaussian"
      std: 0.01
    }
    bias_filler {
      type: "constant"
    }
  }
}
layer {
  name: "loss"
  type: "SoftmaxWithLoss"
  bottom: "ip4"
  bottom: "label"
  top: "loss"
}
I0430 22:57:42.789788  3835 layer_factory.hpp:77] Creating layer cifar
I0430 22:57:42.789876  3835 db_lmdb.cpp:35] Opened lmdb examples/cifar10/cifar10_train_lmdb
I0430 22:57:42.789902  3835 net.cpp:86] Creating Layer cifar
I0430 22:57:42.789911  3835 net.cpp:382] cifar -> data
I0430 22:57:42.789932  3835 net.cpp:382] cifar -> label
I0430 22:57:42.789943  3835 data_transformer.cpp:25] Loading mean file from: examples/cifar10/mean.binaryproto
I0430 22:57:42.791815  3835 data_layer.cpp:45] output data size: 111,3,32,32
I0430 22:57:42.798844  3835 net.cpp:124] Setting up cifar
I0430 22:57:42.798859  3835 net.cpp:131] Top shape: 111 3 32 32 (340992)
I0430 22:57:42.798866  3835 net.cpp:131] Top shape: 111 (111)
I0430 22:57:42.798868  3835 net.cpp:139] Memory required for data: 1364412
I0430 22:57:42.798889  3835 layer_factory.hpp:77] Creating layer conv0
I0430 22:57:42.798904  3835 net.cpp:86] Creating Layer conv0
I0430 22:57:42.798913  3835 net.cpp:408] conv0 <- data
I0430 22:57:42.798923  3835 net.cpp:382] conv0 -> conv0
I0430 22:57:43.030387  3835 net.cpp:124] Setting up conv0
I0430 22:57:43.030429  3835 net.cpp:131] Top shape: 111 8 34 34 (1026528)
I0430 22:57:43.030433  3835 net.cpp:139] Memory required for data: 5470524
I0430 22:57:43.030449  3835 layer_factory.hpp:77] Creating layer Sigmoid0
I0430 22:57:43.030460  3835 net.cpp:86] Creating Layer Sigmoid0
I0430 22:57:43.030467  3835 net.cpp:408] Sigmoid0 <- conv0
I0430 22:57:43.030488  3835 net.cpp:382] Sigmoid0 -> Sigmoid0
I0430 22:57:43.030683  3835 net.cpp:124] Setting up Sigmoid0
I0430 22:57:43.030692  3835 net.cpp:131] Top shape: 111 8 34 34 (1026528)
I0430 22:57:43.030695  3835 net.cpp:139] Memory required for data: 9576636
I0430 22:57:43.030699  3835 layer_factory.hpp:77] Creating layer pool0
I0430 22:57:43.030705  3835 net.cpp:86] Creating Layer pool0
I0430 22:57:43.030709  3835 net.cpp:408] pool0 <- Sigmoid0
I0430 22:57:43.030714  3835 net.cpp:382] pool0 -> pool0
I0430 22:57:43.031453  3835 net.cpp:124] Setting up pool0
I0430 22:57:43.031481  3835 net.cpp:131] Top shape: 111 8 17 17 (256632)
I0430 22:57:43.031486  3835 net.cpp:139] Memory required for data: 10603164
I0430 22:57:43.031488  3835 layer_factory.hpp:77] Creating layer ip1
I0430 22:57:43.031497  3835 net.cpp:86] Creating Layer ip1
I0430 22:57:43.031502  3835 net.cpp:408] ip1 <- pool0
I0430 22:57:43.031505  3835 net.cpp:382] ip1 -> ip1
I0430 22:57:43.033715  3835 net.cpp:124] Setting up ip1
I0430 22:57:43.033756  3835 net.cpp:131] Top shape: 111 20 (2220)
I0430 22:57:43.033759  3835 net.cpp:139] Memory required for data: 10612044
I0430 22:57:43.033782  3835 layer_factory.hpp:77] Creating layer relu1
I0430 22:57:43.033789  3835 net.cpp:86] Creating Layer relu1
I0430 22:57:43.033792  3835 net.cpp:408] relu1 <- ip1
I0430 22:57:43.033797  3835 net.cpp:369] relu1 -> ip1 (in-place)
I0430 22:57:43.033962  3835 net.cpp:124] Setting up relu1
I0430 22:57:43.033970  3835 net.cpp:131] Top shape: 111 20 (2220)
I0430 22:57:43.033973  3835 net.cpp:139] Memory required for data: 10620924
I0430 22:57:43.033977  3835 layer_factory.hpp:77] Creating layer ip2
I0430 22:57:43.033983  3835 net.cpp:86] Creating Layer ip2
I0430 22:57:43.033987  3835 net.cpp:408] ip2 <- ip1
I0430 22:57:43.033990  3835 net.cpp:382] ip2 -> ip2
I0430 22:57:43.034085  3835 net.cpp:124] Setting up ip2
I0430 22:57:43.034091  3835 net.cpp:131] Top shape: 111 10 (1110)
I0430 22:57:43.034095  3835 net.cpp:139] Memory required for data: 10625364
I0430 22:57:43.034101  3835 layer_factory.hpp:77] Creating layer relu2
I0430 22:57:43.034106  3835 net.cpp:86] Creating Layer relu2
I0430 22:57:43.034109  3835 net.cpp:408] relu2 <- ip2
I0430 22:57:43.034113  3835 net.cpp:369] relu2 -> ip2 (in-place)
I0430 22:57:43.034262  3835 net.cpp:124] Setting up relu2
I0430 22:57:43.034271  3835 net.cpp:131] Top shape: 111 10 (1110)
I0430 22:57:43.034273  3835 net.cpp:139] Memory required for data: 10629804
I0430 22:57:43.034276  3835 layer_factory.hpp:77] Creating layer ip3
I0430 22:57:43.034283  3835 net.cpp:86] Creating Layer ip3
I0430 22:57:43.034286  3835 net.cpp:408] ip3 <- ip2
I0430 22:57:43.034291  3835 net.cpp:382] ip3 -> ip3
I0430 22:57:43.034382  3835 net.cpp:124] Setting up ip3
I0430 22:57:43.034389  3835 net.cpp:131] Top shape: 111 10 (1110)
I0430 22:57:43.034392  3835 net.cpp:139] Memory required for data: 10634244
I0430 22:57:43.034397  3835 layer_factory.hpp:77] Creating layer relu3
I0430 22:57:43.034401  3835 net.cpp:86] Creating Layer relu3
I0430 22:57:43.034404  3835 net.cpp:408] relu3 <- ip3
I0430 22:57:43.034409  3835 net.cpp:369] relu3 -> ip3 (in-place)
I0430 22:57:43.034548  3835 net.cpp:124] Setting up relu3
I0430 22:57:43.034554  3835 net.cpp:131] Top shape: 111 10 (1110)
I0430 22:57:43.034557  3835 net.cpp:139] Memory required for data: 10638684
I0430 22:57:43.034560  3835 layer_factory.hpp:77] Creating layer ip4
I0430 22:57:43.034580  3835 net.cpp:86] Creating Layer ip4
I0430 22:57:43.034584  3835 net.cpp:408] ip4 <- ip3
I0430 22:57:43.034588  3835 net.cpp:382] ip4 -> ip4
I0430 22:57:43.034682  3835 net.cpp:124] Setting up ip4
I0430 22:57:43.034689  3835 net.cpp:131] Top shape: 111 10 (1110)
I0430 22:57:43.034693  3835 net.cpp:139] Memory required for data: 10643124
I0430 22:57:43.034699  3835 layer_factory.hpp:77] Creating layer loss
I0430 22:57:43.034704  3835 net.cpp:86] Creating Layer loss
I0430 22:57:43.034708  3835 net.cpp:408] loss <- ip4
I0430 22:57:43.034711  3835 net.cpp:408] loss <- label
I0430 22:57:43.034716  3835 net.cpp:382] loss -> loss
I0430 22:57:43.034729  3835 layer_factory.hpp:77] Creating layer loss
…
I0430 22:57:43.035924  3835 solver.cpp:173] Creating test net (#0) specified by net file: ECE595/cifar/train_test/var_everything/cifar_train_test_210.prototxt
I0430 22:57:43.035951  3835 net.cpp:296] The NetState phase (1) differed from the phase (0) specified by a rule in layer cifar
I0430 22:57:43.036041  3835 net.cpp:53] Initializing net from parameters: 
name: "CIFAR"
state {
  phase: TEST
}
layer {
  name: "cifar"
  type: "Data"
  top: "data"
  top: "label"
  include {
    phase: TEST
  }
  transform_param {
    mean_file: "examples/cifar10/mean.binaryproto"
  }
  data_param {
    source: "examples/cifar10/cifar10_test_lmdb"
    batch_size: 1000
    backend: LMDB
  }
}
layer {
  name: "conv0"
  type: "Convolution"
  bottom: "data"
  top: "conv0"
  param {
    lr_mult: 1
  }
  param {
    lr_mult: 2
  }
  convolution_param {
    num_output: 8
    pad: 2
    kernel_size: 3
    stride: 1
    weight_filler {
      type: "gaussian"
      std: 0.01
    }
    bias_filler {
      type: "constant"
    }
  }
}
layer {
  name: "Sigmoid0"
  type: "Sigmoid"
  bottom: "conv0"
  top: "Sigmoid0"
}
layer {
  name: "pool0"
  type: "Pooling"
  bottom: "Sigmoid0"
  top: "pool0"
  pooling_param {
    pool: AVE
    kernel_size: 3
    stride: 2
  }
}
layer {
  name: "ip1"
  type: "InnerProduct"
  bottom: "pool0"
  top: "ip1"
  param {
    lr_mult: 1
  }
  param {
    lr_mult: 2
  }
  inner_product_param {
    num_output: 20
    weight_filler {
      type: "gaussian"
      std: 0.01
    }
    bias_filler {
      type: "constant"
    }
  }
}
layer {
  name: "relu1"
  type: "ReLU"
  bottom: "ip1"
  top: "ip1"
}
layer {
  name: "ip2"
  type: "InnerProduct"
  bottom: "ip1"
  top: "ip2"
  param {
    lr_mult: 1
  }
  param {
    lr_mult: 2
  }
  inner_product_param {
    num_output: 10
    weight_filler {
      type: "gaussian"
      std: 0.01
    }
    bias_filler {
      type: "constant"
    }
  }
}
layer {
  name: "relu2"
  type: "ReLU"
  bottom: "ip2"
  top: "ip2"
}
layer {
  name: "ip3"
  type: "InnerProduct"
  bottom: "ip2"
  top: "ip3"
  param {
    lr_mult: 1
  }
  param {
    lr_mult: 2
  }
  inner_product_param {
    num_output: 10
    weight_filler {
      type: "gaussian"
      std: 0.01
    }
    bias_filler {
      type: "constant"
    }
  }
}
layer {
  name: "relu3"
  type: "ReLU"
  bottom: "ip3"
  top: "ip3"
}
layer {
  name: "ip4"
  type: "InnerProduct"
  bottom: "ip3"
  top: "ip4"
  param {
    lr_mult: 1
  }
  param {
    lr_mult: 2
  }
  inner_product_param {
    num_output: 10
    weight_filler {
      type: "gaussian"
      std: 0.01
    }
    bias_filler {
      type: "constant"
    }
  }
}
layer {
  name: "accuracy"
  type: "Accuracy"
  bottom: "ip4"
  bottom: "label"
  top: "accuracy"
  include {
    phase: TEST
  }
}
layer {
  name: "loss"
  type: "SoftmaxWithLoss"
  bottom: "ip4"
  bottom: "label"
  top: "loss"
}
I0430 22:57:43.036118  3835 layer_factory.hpp:77] Creating layer cifar
I0430 22:57:43.036162  3835 db_lmdb.cpp:35] Opened lmdb examples/cifar10/cifar10_test_lmdb
I0430 22:57:43.036175  3835 net.cpp:86] Creating Layer cifar
I0430 22:57:43.036180  3835 net.cpp:382] cifar -> data
I0430 22:57:43.036187  3835 net.cpp:382] cifar -> label
I0430 22:57:43.036193  3835 data_transformer.cpp:25] Loading mean file from: examples/cifar10/mean.binaryproto
I0430 22:57:43.036337  3835 data_layer.cpp:45] output data size: 1000,3,32,32
I0430 22:57:43.058768  3835 net.cpp:124] Setting up cifar
I0430 22:57:43.058810  3835 net.cpp:131] Top shape: 1000 3 32 32 (3072000)
I0430 22:57:43.058816  3835 net.cpp:131] Top shape: 1000 (1000)
I0430 22:57:43.058820  3835 net.cpp:139] Memory required for data: 12292000
I0430 22:57:43.058827  3835 layer_factory.hpp:77] Creating layer label_cifar_1_split
I0430 22:57:43.058840  3835 net.cpp:86] Creating Layer label_cifar_1_split
I0430 22:57:43.058843  3835 net.cpp:408] label_cifar_1_split <- label
I0430 22:57:43.058850  3835 net.cpp:382] label_cifar_1_split -> label_cifar_1_split_0
I0430 22:57:43.058873  3835 net.cpp:382] label_cifar_1_split -> label_cifar_1_split_1
I0430 22:57:43.058960  3835 net.cpp:124] Setting up label_cifar_1_split
I0430 22:57:43.058969  3835 net.cpp:131] Top shape: 1000 (1000)
I0430 22:57:43.058971  3835 net.cpp:131] Top shape: 1000 (1000)
I0430 22:57:43.058974  3835 net.cpp:139] Memory required for data: 12300000
I0430 22:57:43.058977  3835 layer_factory.hpp:77] Creating layer conv0
I0430 22:57:43.058990  3835 net.cpp:86] Creating Layer conv0
I0430 22:57:43.058992  3835 net.cpp:408] conv0 <- data
I0430 22:57:43.058998  3835 net.cpp:382] conv0 -> conv0
I0430 22:57:43.060633  3835 net.cpp:124] Setting up conv0
I0430 22:57:43.060647  3835 net.cpp:131] Top shape: 1000 8 34 34 (9248000)
I0430 22:57:43.060665  3835 net.cpp:139] Memory required for data: 49292000
I0430 22:57:43.060690  3835 layer_factory.hpp:77] Creating layer Sigmoid0
I0430 22:57:43.060696  3835 net.cpp:86] Creating Layer Sigmoid0
I0430 22:57:43.060700  3835 net.cpp:408] Sigmoid0 <- conv0
I0430 22:57:43.060704  3835 net.cpp:382] Sigmoid0 -> Sigmoid0
I0430 22:57:43.060930  3835 net.cpp:124] Setting up Sigmoid0
I0430 22:57:43.060940  3835 net.cpp:131] Top shape: 1000 8 34 34 (9248000)
I0430 22:57:43.060945  3835 net.cpp:139] Memory required for data: 86284000
I0430 22:57:43.060947  3835 layer_factory.hpp:77] Creating layer pool0
I0430 22:57:43.060956  3835 net.cpp:86] Creating Layer pool0
I0430 22:57:43.060962  3835 net.cpp:408] pool0 <- Sigmoid0
I0430 22:57:43.060967  3835 net.cpp:382] pool0 -> pool0
I0430 22:57:43.061164  3835 net.cpp:124] Setting up pool0
I0430 22:57:43.061173  3835 net.cpp:131] Top shape: 1000 8 17 17 (2312000)
I0430 22:57:43.061175  3835 net.cpp:139] Memory required for data: 95532000
I0430 22:57:43.061178  3835 layer_factory.hpp:77] Creating layer ip1
I0430 22:57:43.061187  3835 net.cpp:86] Creating Layer ip1
I0430 22:57:43.061189  3835 net.cpp:408] ip1 <- pool0
I0430 22:57:43.061193  3835 net.cpp:382] ip1 -> ip1
I0430 22:57:43.062598  3835 net.cpp:124] Setting up ip1
I0430 22:57:43.062608  3835 net.cpp:131] Top shape: 1000 20 (20000)
I0430 22:57:43.062625  3835 net.cpp:139] Memory required for data: 95612000
I0430 22:57:43.062649  3835 layer_factory.hpp:77] Creating layer relu1
I0430 22:57:43.062656  3835 net.cpp:86] Creating Layer relu1
I0430 22:57:43.062659  3835 net.cpp:408] relu1 <- ip1
I0430 22:57:43.062678  3835 net.cpp:369] relu1 -> ip1 (in-place)
I0430 22:57:43.062847  3835 net.cpp:124] Setting up relu1
I0430 22:57:43.062856  3835 net.cpp:131] Top shape: 1000 20 (20000)
I0430 22:57:43.062860  3835 net.cpp:139] Memory required for data: 95692000
I0430 22:57:43.062863  3835 layer_factory.hpp:77] Creating layer ip2
I0430 22:57:43.062870  3835 net.cpp:86] Creating Layer ip2
I0430 22:57:43.062872  3835 net.cpp:408] ip2 <- ip1
I0430 22:57:43.062877  3835 net.cpp:382] ip2 -> ip2
I0430 22:57:43.062985  3835 net.cpp:124] Setting up ip2
I0430 22:57:43.062994  3835 net.cpp:131] Top shape: 1000 10 (10000)
I0430 22:57:43.062996  3835 net.cpp:139] Memory required for data: 95732000
I0430 22:57:43.063004  3835 layer_factory.hpp:77] Creating layer relu2
I0430 22:57:43.063009  3835 net.cpp:86] Creating Layer relu2
I0430 22:57:43.063012  3835 net.cpp:408] relu2 <- ip2
I0430 22:57:43.063016  3835 net.cpp:369] relu2 -> ip2 (in-place)
I0430 22:57:43.063786  3835 net.cpp:124] Setting up relu2
I0430 22:57:43.063798  3835 net.cpp:131] Top shape: 1000 10 (10000)
I0430 22:57:43.063818  3835 net.cpp:139] Memory required for data: 95772000
I0430 22:57:43.063823  3835 layer_factory.hpp:77] Creating layer ip3
I0430 22:57:43.063832  3835 net.cpp:86] Creating Layer ip3
I0430 22:57:43.063837  3835 net.cpp:408] ip3 <- ip2
I0430 22:57:43.063841  3835 net.cpp:382] ip3 -> ip3
I0430 22:57:43.063972  3835 net.cpp:124] Setting up ip3
I0430 22:57:43.063980  3835 net.cpp:131] Top shape: 1000 10 (10000)
I0430 22:57:43.063983  3835 net.cpp:139] Memory required for data: 95812000
I0430 22:57:43.063989  3835 layer_factory.hpp:77] Creating layer relu3
I0430 22:57:43.063995  3835 net.cpp:86] Creating Layer relu3
I0430 22:57:43.063998  3835 net.cpp:408] relu3 <- ip3
I0430 22:57:43.064002  3835 net.cpp:369] relu3 -> ip3 (in-place)
I0430 22:57:43.064167  3835 net.cpp:124] Setting up relu3
I0430 22:57:43.064175  3835 net.cpp:131] Top shape: 1000 10 (10000)
I0430 22:57:43.064178  3835 net.cpp:139] Memory required for data: 95852000
I0430 22:57:43.064182  3835 layer_factory.hpp:77] Creating layer ip4
I0430 22:57:43.064188  3835 net.cpp:86] Creating Layer ip4
I0430 22:57:43.064190  3835 net.cpp:408] ip4 <- ip3
I0430 22:57:43.064195  3835 net.cpp:382] ip4 -> ip4
I0430 22:57:43.064296  3835 net.cpp:124] Setting up ip4
I0430 22:57:43.064303  3835 net.cpp:131] Top shape: 1000 10 (10000)
I0430 22:57:43.064306  3835 net.cpp:139] Memory required for data: 95892000
I0430 22:57:43.064314  3835 layer_factory.hpp:77] Creating layer ip4_ip4_0_split
I0430 22:57:43.064319  3835 net.cpp:86] Creating Layer ip4_ip4_0_split
I0430 22:57:43.064322  3835 net.cpp:408] ip4_ip4_0_split <- ip4
I0430 22:57:43.064327  3835 net.cpp:382] ip4_ip4_0_split -> ip4_ip4_0_split_0
I0430 22:57:43.064332  3835 net.cpp:382] ip4_ip4_0_split -> ip4_ip4_0_split_1
I0430 22:57:43.064363  3835 net.cpp:124] Setting up ip4_ip4_0_split
I0430 22:57:43.064369  3835 net.cpp:131] Top shape: 1000 10 (10000)
I0430 22:57:43.064373  3835 net.cpp:131] Top shape: 1000 10 (10000)
I0430 22:57:43.064376  3835 net.cpp:139] Memory required for data: 95972000
I0430 22:57:43.064379  3835 layer_factory.hpp:77] Creating layer accuracy
I0430 22:57:43.064385  3835 net.cpp:86] Creating Layer accuracy
I0430 22:57:43.064388  3835 net.cpp:408] accuracy <- ip4_ip4_0_split_0
I0430 22:57:43.064391  3835 net.cpp:408] accuracy <- label_cifar_1_split_0
I0430 22:57:43.064396  3835 net.cpp:382] accuracy -> accuracy
…
