…
I0501 01:20:04.587059 10154 net.cpp:296] The NetState phase (0) differed from the phase (1) specified by a rule in layer cifar
I0501 01:20:04.587079 10154 net.cpp:296] The NetState phase (0) differed from the phase (1) specified by a rule in layer accuracy
I0501 01:20:04.587183 10154 net.cpp:53] Initializing net from parameters: 
name: "CIFAR"
state {
  phase: TRAIN
  level: 0
  stage: ""
}
layer {
  name: "cifar"
  type: "Data"
  top: "data"
  top: "label"
  include {
    phase: TRAIN
  }
  transform_param {
    mean_file: "examples/cifar10/mean.binaryproto"
  }
  data_param {
    source: "examples/cifar10/cifar10_train_lmdb"
    batch_size: 111
    backend: LMDB
  }
}
layer {
  name: "conv0"
  type: "Convolution"
  bottom: "data"
  top: "conv0"
  param {
    lr_mult: 1
  }
  param {
    lr_mult: 2
  }
  convolution_param {
    num_output: 8
    pad: 2
    kernel_size: 3
    stride: 1
    weight_filler {
      type: "gaussian"
      std: 0.01
    }
    bias_filler {
      type: "constant"
    }
  }
}
layer {
  name: "Sigmoid0"
  type: "Sigmoid"
  bottom: "conv0"
  top: "Sigmoid0"
}
layer {
  name: "pool0"
  type: "Pooling"
  bottom: "Sigmoid0"
  top: "pool0"
  pooling_param {
    pool: AVE
    kernel_size: 3
    stride: 2
  }
}
layer {
  name: "ip1"
  type: "InnerProduct"
  bottom: "pool0"
  top: "ip1"
  param {
    lr_mult: 1
  }
  param {
    lr_mult: 2
  }
  inner_product_param {
    num_output: 160
    weight_filler {
      type: "gaussian"
      std: 0.01
    }
    bias_filler {
      type: "constant"
    }
  }
}
layer {
  name: "relu1"
  type: "ReLU"
  bottom: "ip1"
  top: "ip1"
}
layer {
  name: "ip2"
  type: "InnerProduct"
  bottom: "ip1"
  top: "ip2"
  param {
    lr_mult: 1
  }
  param {
    lr_mult: 2
  }
  inner_product_param {
    num_output: 10
    weight_filler {
      type: "gaussian"
      std: 0.01
    }
    bias_filler {
      type: "constant"
    }
  }
}
layer {
  name: "relu2"
  type: "ReLU"
  bottom: "ip2"
  top: "ip2"
}
layer {
  name: "ip3"
  type: "InnerProduct"
  bottom: "ip2"
  top: "ip3"
  param {
    lr_mult: 1
  }
  param {
    lr_mult: 2
  }
  inner_product_param {
    num_output: 20
    weight_filler {
      type: "gaussian"
      std: 0.01
    }
    bias_filler {
      type: "constant"
    }
  }
}
layer {
  name: "relu3"
  type: "ReLU"
  bottom: "ip3"
  top: "ip3"
}
layer {
  name: "ip4"
  type: "InnerProduct"
  bottom: "ip3"
  top: "ip4"
  param {
    lr_mult: 1
  }
  param {
    lr_mult: 2
  }
  inner_product_param {
    num_output: 10
    weight_filler {
      type: "gaussian"
      std: 0.01
    }
    bias_filler {
      type: "constant"
    }
  }
}
layer {
  name: "loss"
  type: "SoftmaxWithLoss"
  bottom: "ip4"
  bottom: "label"
  top: "loss"
}
I0501 01:20:04.587266 10154 layer_factory.hpp:77] Creating layer cifar
I0501 01:20:04.587366 10154 db_lmdb.cpp:35] Opened lmdb examples/cifar10/cifar10_train_lmdb
I0501 01:20:04.587393 10154 net.cpp:86] Creating Layer cifar
I0501 01:20:04.587402 10154 net.cpp:382] cifar -> data
I0501 01:20:04.587425 10154 net.cpp:382] cifar -> label
I0501 01:20:04.587442 10154 data_transformer.cpp:25] Loading mean file from: examples/cifar10/mean.binaryproto
I0501 01:20:04.589572 10154 data_layer.cpp:45] output data size: 111,3,32,32
I0501 01:20:04.597652 10154 net.cpp:124] Setting up cifar
I0501 01:20:04.597674 10154 net.cpp:131] Top shape: 111 3 32 32 (340992)
I0501 01:20:04.597681 10154 net.cpp:131] Top shape: 111 (111)
I0501 01:20:04.597684 10154 net.cpp:139] Memory required for data: 1364412
I0501 01:20:04.597708 10154 layer_factory.hpp:77] Creating layer conv0
I0501 01:20:04.597729 10154 net.cpp:86] Creating Layer conv0
I0501 01:20:04.597735 10154 net.cpp:408] conv0 <- data
I0501 01:20:04.597749 10154 net.cpp:382] conv0 -> conv0
I0501 01:20:04.872303 10154 net.cpp:124] Setting up conv0
I0501 01:20:04.872346 10154 net.cpp:131] Top shape: 111 8 34 34 (1026528)
I0501 01:20:04.872350 10154 net.cpp:139] Memory required for data: 5470524
I0501 01:20:04.872364 10154 layer_factory.hpp:77] Creating layer Sigmoid0
I0501 01:20:04.872376 10154 net.cpp:86] Creating Layer Sigmoid0
I0501 01:20:04.872380 10154 net.cpp:408] Sigmoid0 <- conv0
I0501 01:20:04.872385 10154 net.cpp:382] Sigmoid0 -> Sigmoid0
I0501 01:20:04.872571 10154 net.cpp:124] Setting up Sigmoid0
I0501 01:20:04.872581 10154 net.cpp:131] Top shape: 111 8 34 34 (1026528)
I0501 01:20:04.872584 10154 net.cpp:139] Memory required for data: 9576636
I0501 01:20:04.872587 10154 layer_factory.hpp:77] Creating layer pool0
I0501 01:20:04.872594 10154 net.cpp:86] Creating Layer pool0
I0501 01:20:04.872598 10154 net.cpp:408] pool0 <- Sigmoid0
I0501 01:20:04.872602 10154 net.cpp:382] pool0 -> pool0
I0501 01:20:04.873356 10154 net.cpp:124] Setting up pool0
I0501 01:20:04.873369 10154 net.cpp:131] Top shape: 111 8 17 17 (256632)
I0501 01:20:04.873373 10154 net.cpp:139] Memory required for data: 10603164
I0501 01:20:04.873376 10154 layer_factory.hpp:77] Creating layer ip1
I0501 01:20:04.873385 10154 net.cpp:86] Creating Layer ip1
I0501 01:20:04.873389 10154 net.cpp:408] ip1 <- pool0
I0501 01:20:04.873394 10154 net.cpp:382] ip1 -> ip1
I0501 01:20:04.883589 10154 net.cpp:124] Setting up ip1
I0501 01:20:04.883615 10154 net.cpp:131] Top shape: 111 160 (17760)
I0501 01:20:04.883635 10154 net.cpp:139] Memory required for data: 10674204
I0501 01:20:04.883642 10154 layer_factory.hpp:77] Creating layer relu1
I0501 01:20:04.883648 10154 net.cpp:86] Creating Layer relu1
I0501 01:20:04.883652 10154 net.cpp:408] relu1 <- ip1
I0501 01:20:04.883656 10154 net.cpp:369] relu1 -> ip1 (in-place)
I0501 01:20:04.883826 10154 net.cpp:124] Setting up relu1
I0501 01:20:04.883834 10154 net.cpp:131] Top shape: 111 160 (17760)
I0501 01:20:04.883837 10154 net.cpp:139] Memory required for data: 10745244
I0501 01:20:04.883841 10154 layer_factory.hpp:77] Creating layer ip2
I0501 01:20:04.883847 10154 net.cpp:86] Creating Layer ip2
I0501 01:20:04.883851 10154 net.cpp:408] ip2 <- ip1
I0501 01:20:04.883855 10154 net.cpp:382] ip2 -> ip2
I0501 01:20:04.883991 10154 net.cpp:124] Setting up ip2
I0501 01:20:04.883998 10154 net.cpp:131] Top shape: 111 10 (1110)
I0501 01:20:04.884001 10154 net.cpp:139] Memory required for data: 10749684
I0501 01:20:04.884008 10154 layer_factory.hpp:77] Creating layer relu2
I0501 01:20:04.884016 10154 net.cpp:86] Creating Layer relu2
I0501 01:20:04.884018 10154 net.cpp:408] relu2 <- ip2
I0501 01:20:04.884037 10154 net.cpp:369] relu2 -> ip2 (in-place)
I0501 01:20:04.884192 10154 net.cpp:124] Setting up relu2
I0501 01:20:04.884201 10154 net.cpp:131] Top shape: 111 10 (1110)
I0501 01:20:04.884204 10154 net.cpp:139] Memory required for data: 10754124
I0501 01:20:04.884207 10154 layer_factory.hpp:77] Creating layer ip3
I0501 01:20:04.884214 10154 net.cpp:86] Creating Layer ip3
I0501 01:20:04.884218 10154 net.cpp:408] ip3 <- ip2
I0501 01:20:04.884223 10154 net.cpp:382] ip3 -> ip3
I0501 01:20:04.884332 10154 net.cpp:124] Setting up ip3
I0501 01:20:04.884342 10154 net.cpp:131] Top shape: 111 20 (2220)
I0501 01:20:04.884346 10154 net.cpp:139] Memory required for data: 10763004
I0501 01:20:04.884351 10154 layer_factory.hpp:77] Creating layer relu3
I0501 01:20:04.884356 10154 net.cpp:86] Creating Layer relu3
I0501 01:20:04.884358 10154 net.cpp:408] relu3 <- ip3
I0501 01:20:04.884362 10154 net.cpp:369] relu3 -> ip3 (in-place)
I0501 01:20:04.884533 10154 net.cpp:124] Setting up relu3
I0501 01:20:04.884541 10154 net.cpp:131] Top shape: 111 20 (2220)
I0501 01:20:04.884544 10154 net.cpp:139] Memory required for data: 10771884
I0501 01:20:04.884547 10154 layer_factory.hpp:77] Creating layer ip4
I0501 01:20:04.884567 10154 net.cpp:86] Creating Layer ip4
I0501 01:20:04.884572 10154 net.cpp:408] ip4 <- ip3
I0501 01:20:04.884577 10154 net.cpp:382] ip4 -> ip4
I0501 01:20:04.884686 10154 net.cpp:124] Setting up ip4
I0501 01:20:04.884694 10154 net.cpp:131] Top shape: 111 10 (1110)
I0501 01:20:04.884697 10154 net.cpp:139] Memory required for data: 10776324
I0501 01:20:04.884704 10154 layer_factory.hpp:77] Creating layer loss
I0501 01:20:04.884711 10154 net.cpp:86] Creating Layer loss
I0501 01:20:04.884713 10154 net.cpp:408] loss <- ip4
I0501 01:20:04.884717 10154 net.cpp:408] loss <- label
I0501 01:20:04.884722 10154 net.cpp:382] loss -> loss
I0501 01:20:04.884737 10154 layer_factory.hpp:77] Creating layer loss
…
I0501 01:20:04.885936 10154 solver.cpp:173] Creating test net (#0) specified by net file: ECE595/cifar/train_test/var_everything/cifar_train_test_286.prototxt
I0501 01:20:04.885962 10154 net.cpp:296] The NetState phase (1) differed from the phase (0) specified by a rule in layer cifar
I0501 01:20:04.886049 10154 net.cpp:53] Initializing net from parameters: 
name: "CIFAR"
state {
  phase: TEST
}
layer {
  name: "cifar"
  type: "Data"
  top: "data"
  top: "label"
  include {
    phase: TEST
  }
  transform_param {
    mean_file: "examples/cifar10/mean.binaryproto"
  }
  data_param {
    source: "examples/cifar10/cifar10_test_lmdb"
    batch_size: 1000
    backend: LMDB
  }
}
layer {
  name: "conv0"
  type: "Convolution"
  bottom: "data"
  top: "conv0"
  param {
    lr_mult: 1
  }
  param {
    lr_mult: 2
  }
  convolution_param {
    num_output: 8
    pad: 2
    kernel_size: 3
    stride: 1
    weight_filler {
      type: "gaussian"
      std: 0.01
    }
    bias_filler {
      type: "constant"
    }
  }
}
layer {
  name: "Sigmoid0"
  type: "Sigmoid"
  bottom: "conv0"
  top: "Sigmoid0"
}
layer {
  name: "pool0"
  type: "Pooling"
  bottom: "Sigmoid0"
  top: "pool0"
  pooling_param {
    pool: AVE
    kernel_size: 3
    stride: 2
  }
}
layer {
  name: "ip1"
  type: "InnerProduct"
  bottom: "pool0"
  top: "ip1"
  param {
    lr_mult: 1
  }
  param {
    lr_mult: 2
  }
  inner_product_param {
    num_output: 160
    weight_filler {
      type: "gaussian"
      std: 0.01
    }
    bias_filler {
      type: "constant"
    }
  }
}
layer {
  name: "relu1"
  type: "ReLU"
  bottom: "ip1"
  top: "ip1"
}
layer {
  name: "ip2"
  type: "InnerProduct"
  bottom: "ip1"
  top: "ip2"
  param {
    lr_mult: 1
  }
  param {
    lr_mult: 2
  }
  inner_product_param {
    num_output: 10
    weight_filler {
      type: "gaussian"
      std: 0.01
    }
    bias_filler {
      type: "constant"
    }
  }
}
layer {
  name: "relu2"
  type: "ReLU"
  bottom: "ip2"
  top: "ip2"
}
layer {
  name: "ip3"
  type: "InnerProduct"
  bottom: "ip2"
  top: "ip3"
  param {
    lr_mult: 1
  }
  param {
    lr_mult: 2
  }
  inner_product_param {
    num_output: 20
    weight_filler {
      type: "gaussian"
      std: 0.01
    }
    bias_filler {
      type: "constant"
    }
  }
}
layer {
  name: "relu3"
  type: "ReLU"
  bottom: "ip3"
  top: "ip3"
}
layer {
  name: "ip4"
  type: "InnerProduct"
  bottom: "ip3"
  top: "ip4"
  param {
    lr_mult: 1
  }
  param {
    lr_mult: 2
  }
  inner_product_param {
    num_output: 10
    weight_filler {
      type: "gaussian"
      std: 0.01
    }
    bias_filler {
      type: "constant"
    }
  }
}
layer {
  name: "accuracy"
  type: "Accuracy"
  bottom: "ip4"
  bottom: "label"
  top: "accuracy"
  include {
    phase: TEST
  }
}
layer {
  name: "loss"
  type: "SoftmaxWithLoss"
  bottom: "ip4"
  bottom: "label"
  top: "loss"
}
I0501 01:20:04.886124 10154 layer_factory.hpp:77] Creating layer cifar
I0501 01:20:04.886168 10154 db_lmdb.cpp:35] Opened lmdb examples/cifar10/cifar10_test_lmdb
I0501 01:20:04.886179 10154 net.cpp:86] Creating Layer cifar
I0501 01:20:04.886184 10154 net.cpp:382] cifar -> data
I0501 01:20:04.886191 10154 net.cpp:382] cifar -> label
I0501 01:20:04.886198 10154 data_transformer.cpp:25] Loading mean file from: examples/cifar10/mean.binaryproto
I0501 01:20:04.886332 10154 data_layer.cpp:45] output data size: 1000,3,32,32
I0501 01:20:04.908466 10154 net.cpp:124] Setting up cifar
I0501 01:20:04.908507 10154 net.cpp:131] Top shape: 1000 3 32 32 (3072000)
I0501 01:20:04.908514 10154 net.cpp:131] Top shape: 1000 (1000)
I0501 01:20:04.908517 10154 net.cpp:139] Memory required for data: 12292000
I0501 01:20:04.908524 10154 layer_factory.hpp:77] Creating layer label_cifar_1_split
I0501 01:20:04.908536 10154 net.cpp:86] Creating Layer label_cifar_1_split
I0501 01:20:04.908540 10154 net.cpp:408] label_cifar_1_split <- label
I0501 01:20:04.908546 10154 net.cpp:382] label_cifar_1_split -> label_cifar_1_split_0
I0501 01:20:04.908570 10154 net.cpp:382] label_cifar_1_split -> label_cifar_1_split_1
I0501 01:20:04.908634 10154 net.cpp:124] Setting up label_cifar_1_split
I0501 01:20:04.908643 10154 net.cpp:131] Top shape: 1000 (1000)
I0501 01:20:04.908646 10154 net.cpp:131] Top shape: 1000 (1000)
I0501 01:20:04.908649 10154 net.cpp:139] Memory required for data: 12300000
I0501 01:20:04.908653 10154 layer_factory.hpp:77] Creating layer conv0
I0501 01:20:04.908679 10154 net.cpp:86] Creating Layer conv0
I0501 01:20:04.908684 10154 net.cpp:408] conv0 <- data
I0501 01:20:04.908689 10154 net.cpp:382] conv0 -> conv0
I0501 01:20:04.910260 10154 net.cpp:124] Setting up conv0
I0501 01:20:04.910290 10154 net.cpp:131] Top shape: 1000 8 34 34 (9248000)
I0501 01:20:04.910293 10154 net.cpp:139] Memory required for data: 49292000
I0501 01:20:04.910303 10154 layer_factory.hpp:77] Creating layer Sigmoid0
I0501 01:20:04.910310 10154 net.cpp:86] Creating Layer Sigmoid0
I0501 01:20:04.910313 10154 net.cpp:408] Sigmoid0 <- conv0
I0501 01:20:04.910317 10154 net.cpp:382] Sigmoid0 -> Sigmoid0
I0501 01:20:04.910624 10154 net.cpp:124] Setting up Sigmoid0
I0501 01:20:04.910634 10154 net.cpp:131] Top shape: 1000 8 34 34 (9248000)
I0501 01:20:04.910637 10154 net.cpp:139] Memory required for data: 86284000
I0501 01:20:04.910641 10154 layer_factory.hpp:77] Creating layer pool0
I0501 01:20:04.910650 10154 net.cpp:86] Creating Layer pool0
I0501 01:20:04.910653 10154 net.cpp:408] pool0 <- Sigmoid0
I0501 01:20:04.910658 10154 net.cpp:382] pool0 -> pool0
I0501 01:20:04.911821 10154 net.cpp:124] Setting up pool0
I0501 01:20:04.911847 10154 net.cpp:131] Top shape: 1000 8 17 17 (2312000)
I0501 01:20:04.911850 10154 net.cpp:139] Memory required for data: 95532000
I0501 01:20:04.911870 10154 layer_factory.hpp:77] Creating layer ip1
I0501 01:20:04.911876 10154 net.cpp:86] Creating Layer ip1
I0501 01:20:04.911880 10154 net.cpp:408] ip1 <- pool0
I0501 01:20:04.911885 10154 net.cpp:382] ip1 -> ip1
I0501 01:20:04.922364 10154 net.cpp:124] Setting up ip1
I0501 01:20:04.922394 10154 net.cpp:131] Top shape: 1000 160 (160000)
I0501 01:20:04.922412 10154 net.cpp:139] Memory required for data: 96172000
I0501 01:20:04.922453 10154 layer_factory.hpp:77] Creating layer relu1
I0501 01:20:04.922461 10154 net.cpp:86] Creating Layer relu1
I0501 01:20:04.922464 10154 net.cpp:408] relu1 <- ip1
I0501 01:20:04.922469 10154 net.cpp:369] relu1 -> ip1 (in-place)
I0501 01:20:04.922672 10154 net.cpp:124] Setting up relu1
I0501 01:20:04.922682 10154 net.cpp:131] Top shape: 1000 160 (160000)
I0501 01:20:04.922684 10154 net.cpp:139] Memory required for data: 96812000
I0501 01:20:04.922688 10154 layer_factory.hpp:77] Creating layer ip2
I0501 01:20:04.922695 10154 net.cpp:86] Creating Layer ip2
I0501 01:20:04.922699 10154 net.cpp:408] ip2 <- ip1
I0501 01:20:04.922704 10154 net.cpp:382] ip2 -> ip2
I0501 01:20:04.922899 10154 net.cpp:124] Setting up ip2
I0501 01:20:04.922906 10154 net.cpp:131] Top shape: 1000 10 (10000)
I0501 01:20:04.922909 10154 net.cpp:139] Memory required for data: 96852000
I0501 01:20:04.922916 10154 layer_factory.hpp:77] Creating layer relu2
I0501 01:20:04.922922 10154 net.cpp:86] Creating Layer relu2
I0501 01:20:04.922926 10154 net.cpp:408] relu2 <- ip2
I0501 01:20:04.922930 10154 net.cpp:369] relu2 -> ip2 (in-place)
I0501 01:20:04.923678 10154 net.cpp:124] Setting up relu2
I0501 01:20:04.923691 10154 net.cpp:131] Top shape: 1000 10 (10000)
I0501 01:20:04.923710 10154 net.cpp:139] Memory required for data: 96892000
I0501 01:20:04.923713 10154 layer_factory.hpp:77] Creating layer ip3
I0501 01:20:04.923720 10154 net.cpp:86] Creating Layer ip3
I0501 01:20:04.923723 10154 net.cpp:408] ip3 <- ip2
I0501 01:20:04.923729 10154 net.cpp:382] ip3 -> ip3
I0501 01:20:04.923840 10154 net.cpp:124] Setting up ip3
I0501 01:20:04.923847 10154 net.cpp:131] Top shape: 1000 20 (20000)
I0501 01:20:04.923851 10154 net.cpp:139] Memory required for data: 96972000
I0501 01:20:04.923856 10154 layer_factory.hpp:77] Creating layer relu3
I0501 01:20:04.923861 10154 net.cpp:86] Creating Layer relu3
I0501 01:20:04.923864 10154 net.cpp:408] relu3 <- ip3
I0501 01:20:04.923868 10154 net.cpp:369] relu3 -> ip3 (in-place)
I0501 01:20:04.924016 10154 net.cpp:124] Setting up relu3
I0501 01:20:04.924024 10154 net.cpp:131] Top shape: 1000 20 (20000)
I0501 01:20:04.924027 10154 net.cpp:139] Memory required for data: 97052000
I0501 01:20:04.924031 10154 layer_factory.hpp:77] Creating layer ip4
I0501 01:20:04.924036 10154 net.cpp:86] Creating Layer ip4
I0501 01:20:04.924039 10154 net.cpp:408] ip4 <- ip3
I0501 01:20:04.924044 10154 net.cpp:382] ip4 -> ip4
I0501 01:20:04.924144 10154 net.cpp:124] Setting up ip4
I0501 01:20:04.924151 10154 net.cpp:131] Top shape: 1000 10 (10000)
I0501 01:20:04.924154 10154 net.cpp:139] Memory required for data: 97092000
I0501 01:20:04.924162 10154 layer_factory.hpp:77] Creating layer ip4_ip4_0_split
I0501 01:20:04.924168 10154 net.cpp:86] Creating Layer ip4_ip4_0_split
I0501 01:20:04.924171 10154 net.cpp:408] ip4_ip4_0_split <- ip4
I0501 01:20:04.924175 10154 net.cpp:382] ip4_ip4_0_split -> ip4_ip4_0_split_0
I0501 01:20:04.924180 10154 net.cpp:382] ip4_ip4_0_split -> ip4_ip4_0_split_1
I0501 01:20:04.924209 10154 net.cpp:124] Setting up ip4_ip4_0_split
I0501 01:20:04.924214 10154 net.cpp:131] Top shape: 1000 10 (10000)
I0501 01:20:04.924218 10154 net.cpp:131] Top shape: 1000 10 (10000)
I0501 01:20:04.924221 10154 net.cpp:139] Memory required for data: 97172000
I0501 01:20:04.924224 10154 layer_factory.hpp:77] Creating layer accuracy
I0501 01:20:04.924229 10154 net.cpp:86] Creating Layer accuracy
I0501 01:20:04.924232 10154 net.cpp:408] accuracy <- ip4_ip4_0_split_0
I0501 01:20:04.924237 10154 net.cpp:408] accuracy <- label_cifar_1_split_0
I0501 01:20:04.924242 10154 net.cpp:382] accuracy -> accuracy
…
