…
I0430 19:00:50.522099 24950 net.cpp:296] The NetState phase (0) differed from the phase (1) specified by a rule in layer cifar
I0430 19:00:50.522116 24950 net.cpp:296] The NetState phase (0) differed from the phase (1) specified by a rule in layer accuracy
I0430 19:00:50.522202 24950 net.cpp:53] Initializing net from parameters: 
name: "CIFAR"
state {
  phase: TRAIN
  level: 0
  stage: ""
}
layer {
  name: "cifar"
  type: "Data"
  top: "data"
  top: "label"
  include {
    phase: TRAIN
  }
  transform_param {
    mean_file: "examples/cifar10/mean.binaryproto"
  }
  data_param {
    source: "examples/cifar10/cifar10_train_lmdb"
    batch_size: 111
    backend: LMDB
  }
}
layer {
  name: "ip1"
  type: "InnerProduct"
  bottom: "data"
  top: "ip1"
  param {
    lr_mult: 1
  }
  param {
    lr_mult: 2
  }
  inner_product_param {
    num_output: 40
    weight_filler {
      type: "gaussian"
      std: 0.01
    }
    bias_filler {
      type: "constant"
    }
  }
}
layer {
  name: "relu1"
  type: "ReLU"
  bottom: "ip1"
  top: "ip1"
}
layer {
  name: "ip2"
  type: "InnerProduct"
  bottom: "ip1"
  top: "ip2"
  param {
    lr_mult: 1
  }
  param {
    lr_mult: 2
  }
  inner_product_param {
    num_output: 10
    weight_filler {
      type: "gaussian"
      std: 0.01
    }
    bias_filler {
      type: "constant"
    }
  }
}
layer {
  name: "relu2"
  type: "ReLU"
  bottom: "ip2"
  top: "ip2"
}
layer {
  name: "ip3"
  type: "InnerProduct"
  bottom: "ip2"
  top: "ip3"
  param {
    lr_mult: 1
  }
  param {
    lr_mult: 2
  }
  inner_product_param {
    num_output: 160
    weight_filler {
      type: "gaussian"
      std: 0.01
    }
    bias_filler {
      type: "constant"
    }
  }
}
layer {
  name: "relu3"
  type: "ReLU"
  bottom: "ip3"
  top: "ip3"
}
layer {
  name: "ip4"
  type: "InnerProduct"
  bottom: "ip3"
  top: "ip4"
  param {
    lr_mult: 1
  }
  param {
    lr_mult: 2
  }
  inner_product_param {
    num_output: 10
    weight_filler {
      type: "gaussian"
      std: 0.01
    }
    bias_filler {
      type: "constant"
    }
  }
}
layer {
  name: "loss"
  type: "SoftmaxWithLoss"
  bottom: "ip4"
  bottom: "label"
  top: "loss"
}
I0430 19:00:50.522274 24950 layer_factory.hpp:77] Creating layer cifar
I0430 19:00:50.522377 24950 db_lmdb.cpp:35] Opened lmdb examples/cifar10/cifar10_train_lmdb
I0430 19:00:50.522404 24950 net.cpp:86] Creating Layer cifar
I0430 19:00:50.522413 24950 net.cpp:382] cifar -> data
I0430 19:00:50.522435 24950 net.cpp:382] cifar -> label
I0430 19:00:50.522447 24950 data_transformer.cpp:25] Loading mean file from: examples/cifar10/mean.binaryproto
I0430 19:00:50.524562 24950 data_layer.cpp:45] output data size: 111,3,32,32
I0430 19:00:50.532460 24950 net.cpp:124] Setting up cifar
I0430 19:00:50.532481 24950 net.cpp:131] Top shape: 111 3 32 32 (340992)
I0430 19:00:50.532487 24950 net.cpp:131] Top shape: 111 (111)
I0430 19:00:50.532491 24950 net.cpp:139] Memory required for data: 1364412
I0430 19:00:50.532498 24950 layer_factory.hpp:77] Creating layer ip1
I0430 19:00:50.532511 24950 net.cpp:86] Creating Layer ip1
I0430 19:00:50.532516 24950 net.cpp:408] ip1 <- data
I0430 19:00:50.532531 24950 net.cpp:382] ip1 -> ip1
I0430 19:00:50.536779 24950 net.cpp:124] Setting up ip1
I0430 19:00:50.536793 24950 net.cpp:131] Top shape: 111 40 (4440)
I0430 19:00:50.536798 24950 net.cpp:139] Memory required for data: 1382172
I0430 19:00:50.536816 24950 layer_factory.hpp:77] Creating layer relu1
I0430 19:00:50.536828 24950 net.cpp:86] Creating Layer relu1
I0430 19:00:50.536847 24950 net.cpp:408] relu1 <- ip1
I0430 19:00:50.536854 24950 net.cpp:369] relu1 -> ip1 (in-place)
I0430 19:00:50.823187 24950 net.cpp:124] Setting up relu1
I0430 19:00:50.823220 24950 net.cpp:131] Top shape: 111 40 (4440)
I0430 19:00:50.823223 24950 net.cpp:139] Memory required for data: 1399932
I0430 19:00:50.823230 24950 layer_factory.hpp:77] Creating layer ip2
I0430 19:00:50.823243 24950 net.cpp:86] Creating Layer ip2
I0430 19:00:50.823248 24950 net.cpp:408] ip2 <- ip1
I0430 19:00:50.823257 24950 net.cpp:382] ip2 -> ip2
I0430 19:00:50.824364 24950 net.cpp:124] Setting up ip2
I0430 19:00:50.824379 24950 net.cpp:131] Top shape: 111 10 (1110)
I0430 19:00:50.824383 24950 net.cpp:139] Memory required for data: 1404372
I0430 19:00:50.824394 24950 layer_factory.hpp:77] Creating layer relu2
I0430 19:00:50.824404 24950 net.cpp:86] Creating Layer relu2
I0430 19:00:50.824407 24950 net.cpp:408] relu2 <- ip2
I0430 19:00:50.824412 24950 net.cpp:369] relu2 -> ip2 (in-place)
I0430 19:00:50.825218 24950 net.cpp:124] Setting up relu2
I0430 19:00:50.825233 24950 net.cpp:131] Top shape: 111 10 (1110)
I0430 19:00:50.825237 24950 net.cpp:139] Memory required for data: 1408812
I0430 19:00:50.825242 24950 layer_factory.hpp:77] Creating layer ip3
I0430 19:00:50.825248 24950 net.cpp:86] Creating Layer ip3
I0430 19:00:50.825253 24950 net.cpp:408] ip3 <- ip2
I0430 19:00:50.825258 24950 net.cpp:382] ip3 -> ip3
I0430 19:00:50.825414 24950 net.cpp:124] Setting up ip3
I0430 19:00:50.825423 24950 net.cpp:131] Top shape: 111 160 (17760)
I0430 19:00:50.825428 24950 net.cpp:139] Memory required for data: 1479852
I0430 19:00:50.825436 24950 layer_factory.hpp:77] Creating layer relu3
I0430 19:00:50.825441 24950 net.cpp:86] Creating Layer relu3
I0430 19:00:50.825445 24950 net.cpp:408] relu3 <- ip3
I0430 19:00:50.825449 24950 net.cpp:369] relu3 -> ip3 (in-place)
I0430 19:00:50.825613 24950 net.cpp:124] Setting up relu3
I0430 19:00:50.825623 24950 net.cpp:131] Top shape: 111 160 (17760)
I0430 19:00:50.825626 24950 net.cpp:139] Memory required for data: 1550892
I0430 19:00:50.825629 24950 layer_factory.hpp:77] Creating layer ip4
I0430 19:00:50.825636 24950 net.cpp:86] Creating Layer ip4
I0430 19:00:50.825639 24950 net.cpp:408] ip4 <- ip3
I0430 19:00:50.825644 24950 net.cpp:382] ip4 -> ip4
I0430 19:00:50.825795 24950 net.cpp:124] Setting up ip4
I0430 19:00:50.825803 24950 net.cpp:131] Top shape: 111 10 (1110)
I0430 19:00:50.825808 24950 net.cpp:139] Memory required for data: 1555332
I0430 19:00:50.825814 24950 layer_factory.hpp:77] Creating layer loss
I0430 19:00:50.825820 24950 net.cpp:86] Creating Layer loss
I0430 19:00:50.825824 24950 net.cpp:408] loss <- ip4
I0430 19:00:50.825829 24950 net.cpp:408] loss <- label
I0430 19:00:50.825834 24950 net.cpp:382] loss -> loss
I0430 19:00:50.825855 24950 layer_factory.hpp:77] Creating layer loss
…
I0430 19:00:50.826470 24950 solver.cpp:173] Creating test net (#0) specified by net file: ECE595/cifar/train_test/var_everything/cifar_train_test_84.prototxt
I0430 19:00:50.826512 24950 net.cpp:296] The NetState phase (1) differed from the phase (0) specified by a rule in layer cifar
I0430 19:00:50.826597 24950 net.cpp:53] Initializing net from parameters: 
name: "CIFAR"
state {
  phase: TEST
}
layer {
  name: "cifar"
  type: "Data"
  top: "data"
  top: "label"
  include {
    phase: TEST
  }
  transform_param {
    mean_file: "examples/cifar10/mean.binaryproto"
  }
  data_param {
    source: "examples/cifar10/cifar10_test_lmdb"
    batch_size: 1000
    backend: LMDB
  }
}
layer {
  name: "ip1"
  type: "InnerProduct"
  bottom: "data"
  top: "ip1"
  param {
    lr_mult: 1
  }
  param {
    lr_mult: 2
  }
  inner_product_param {
    num_output: 40
    weight_filler {
      type: "gaussian"
      std: 0.01
    }
    bias_filler {
      type: "constant"
    }
  }
}
layer {
  name: "relu1"
  type: "ReLU"
  bottom: "ip1"
  top: "ip1"
}
layer {
  name: "ip2"
  type: "InnerProduct"
  bottom: "ip1"
  top: "ip2"
  param {
    lr_mult: 1
  }
  param {
    lr_mult: 2
  }
  inner_product_param {
    num_output: 10
    weight_filler {
      type: "gaussian"
      std: 0.01
    }
    bias_filler {
      type: "constant"
    }
  }
}
layer {
  name: "relu2"
  type: "ReLU"
  bottom: "ip2"
  top: "ip2"
}
layer {
  name: "ip3"
  type: "InnerProduct"
  bottom: "ip2"
  top: "ip3"
  param {
    lr_mult: 1
  }
  param {
    lr_mult: 2
  }
  inner_product_param {
    num_output: 160
    weight_filler {
      type: "gaussian"
      std: 0.01
    }
    bias_filler {
      type: "constant"
    }
  }
}
layer {
  name: "relu3"
  type: "ReLU"
  bottom: "ip3"
  top: "ip3"
}
layer {
  name: "ip4"
  type: "InnerProduct"
  bottom: "ip3"
  top: "ip4"
  param {
    lr_mult: 1
  }
  param {
    lr_mult: 2
  }
  inner_product_param {
    num_output: 10
    weight_filler {
      type: "gaussian"
      std: 0.01
    }
    bias_filler {
      type: "constant"
    }
  }
}
layer {
  name: "accuracy"
  type: "Accuracy"
  bottom: "ip4"
  bottom: "label"
  top: "accuracy"
  include {
    phase: TEST
  }
}
layer {
  name: "loss"
  type: "SoftmaxWithLoss"
  bottom: "ip4"
  bottom: "label"
  top: "loss"
}
I0430 19:00:50.826663 24950 layer_factory.hpp:77] Creating layer cifar
I0430 19:00:50.826714 24950 db_lmdb.cpp:35] Opened lmdb examples/cifar10/cifar10_test_lmdb
I0430 19:00:50.826727 24950 net.cpp:86] Creating Layer cifar
I0430 19:00:50.826732 24950 net.cpp:382] cifar -> data
I0430 19:00:50.826741 24950 net.cpp:382] cifar -> label
I0430 19:00:50.826748 24950 data_transformer.cpp:25] Loading mean file from: examples/cifar10/mean.binaryproto
I0430 19:00:50.826907 24950 data_layer.cpp:45] output data size: 1000,3,32,32
I0430 19:00:50.850548 24950 net.cpp:124] Setting up cifar
I0430 19:00:50.850576 24950 net.cpp:131] Top shape: 1000 3 32 32 (3072000)
I0430 19:00:50.850582 24950 net.cpp:131] Top shape: 1000 (1000)
I0430 19:00:50.850586 24950 net.cpp:139] Memory required for data: 12292000
I0430 19:00:50.850592 24950 layer_factory.hpp:77] Creating layer label_cifar_1_split
I0430 19:00:50.850608 24950 net.cpp:86] Creating Layer label_cifar_1_split
I0430 19:00:50.850613 24950 net.cpp:408] label_cifar_1_split <- label
I0430 19:00:50.850620 24950 net.cpp:382] label_cifar_1_split -> label_cifar_1_split_0
I0430 19:00:50.850630 24950 net.cpp:382] label_cifar_1_split -> label_cifar_1_split_1
I0430 19:00:50.850744 24950 net.cpp:124] Setting up label_cifar_1_split
I0430 19:00:50.850752 24950 net.cpp:131] Top shape: 1000 (1000)
I0430 19:00:50.850756 24950 net.cpp:131] Top shape: 1000 (1000)
I0430 19:00:50.850759 24950 net.cpp:139] Memory required for data: 12300000
I0430 19:00:50.850764 24950 layer_factory.hpp:77] Creating layer ip1
I0430 19:00:50.850772 24950 net.cpp:86] Creating Layer ip1
I0430 19:00:50.850775 24950 net.cpp:408] ip1 <- data
I0430 19:00:50.850780 24950 net.cpp:382] ip1 -> ip1
I0430 19:00:50.854398 24950 net.cpp:124] Setting up ip1
I0430 19:00:50.854409 24950 net.cpp:131] Top shape: 1000 40 (40000)
I0430 19:00:50.854413 24950 net.cpp:139] Memory required for data: 12460000
I0430 19:00:50.854439 24950 layer_factory.hpp:77] Creating layer relu1
I0430 19:00:50.854445 24950 net.cpp:86] Creating Layer relu1
I0430 19:00:50.854449 24950 net.cpp:408] relu1 <- ip1
I0430 19:00:50.854454 24950 net.cpp:369] relu1 -> ip1 (in-place)
I0430 19:00:50.855247 24950 net.cpp:124] Setting up relu1
I0430 19:00:50.855260 24950 net.cpp:131] Top shape: 1000 40 (40000)
I0430 19:00:50.855264 24950 net.cpp:139] Memory required for data: 12620000
I0430 19:00:50.855268 24950 layer_factory.hpp:77] Creating layer ip2
I0430 19:00:50.855278 24950 net.cpp:86] Creating Layer ip2
I0430 19:00:50.855281 24950 net.cpp:408] ip2 <- ip1
I0430 19:00:50.855286 24950 net.cpp:382] ip2 -> ip2
I0430 19:00:50.855406 24950 net.cpp:124] Setting up ip2
I0430 19:00:50.855417 24950 net.cpp:131] Top shape: 1000 10 (10000)
I0430 19:00:50.855419 24950 net.cpp:139] Memory required for data: 12660000
I0430 19:00:50.855427 24950 layer_factory.hpp:77] Creating layer relu2
I0430 19:00:50.855432 24950 net.cpp:86] Creating Layer relu2
I0430 19:00:50.855437 24950 net.cpp:408] relu2 <- ip2
I0430 19:00:50.855440 24950 net.cpp:369] relu2 -> ip2 (in-place)
I0430 19:00:50.855597 24950 net.cpp:124] Setting up relu2
I0430 19:00:50.855605 24950 net.cpp:131] Top shape: 1000 10 (10000)
I0430 19:00:50.855609 24950 net.cpp:139] Memory required for data: 12700000
I0430 19:00:50.855612 24950 layer_factory.hpp:77] Creating layer ip3
I0430 19:00:50.855618 24950 net.cpp:86] Creating Layer ip3
I0430 19:00:50.855623 24950 net.cpp:408] ip3 <- ip2
I0430 19:00:50.855628 24950 net.cpp:382] ip3 -> ip3
I0430 19:00:50.855768 24950 net.cpp:124] Setting up ip3
I0430 19:00:50.855777 24950 net.cpp:131] Top shape: 1000 160 (160000)
I0430 19:00:50.855779 24950 net.cpp:139] Memory required for data: 13340000
I0430 19:00:50.855787 24950 layer_factory.hpp:77] Creating layer relu3
I0430 19:00:50.855792 24950 net.cpp:86] Creating Layer relu3
I0430 19:00:50.855796 24950 net.cpp:408] relu3 <- ip3
I0430 19:00:50.855801 24950 net.cpp:369] relu3 -> ip3 (in-place)
I0430 19:00:50.855952 24950 net.cpp:124] Setting up relu3
I0430 19:00:50.855960 24950 net.cpp:131] Top shape: 1000 160 (160000)
I0430 19:00:50.855965 24950 net.cpp:139] Memory required for data: 13980000
I0430 19:00:50.855968 24950 layer_factory.hpp:77] Creating layer ip4
I0430 19:00:50.855976 24950 net.cpp:86] Creating Layer ip4
I0430 19:00:50.855979 24950 net.cpp:408] ip4 <- ip3
I0430 19:00:50.855984 24950 net.cpp:382] ip4 -> ip4
I0430 19:00:50.856130 24950 net.cpp:124] Setting up ip4
I0430 19:00:50.856138 24950 net.cpp:131] Top shape: 1000 10 (10000)
I0430 19:00:50.856142 24950 net.cpp:139] Memory required for data: 14020000
I0430 19:00:50.856148 24950 layer_factory.hpp:77] Creating layer ip4_ip4_0_split
I0430 19:00:50.856153 24950 net.cpp:86] Creating Layer ip4_ip4_0_split
I0430 19:00:50.856156 24950 net.cpp:408] ip4_ip4_0_split <- ip4
I0430 19:00:50.856160 24950 net.cpp:382] ip4_ip4_0_split -> ip4_ip4_0_split_0
I0430 19:00:50.856168 24950 net.cpp:382] ip4_ip4_0_split -> ip4_ip4_0_split_1
I0430 19:00:50.856199 24950 net.cpp:124] Setting up ip4_ip4_0_split
I0430 19:00:50.856206 24950 net.cpp:131] Top shape: 1000 10 (10000)
I0430 19:00:50.856211 24950 net.cpp:131] Top shape: 1000 10 (10000)
I0430 19:00:50.856215 24950 net.cpp:139] Memory required for data: 14100000
I0430 19:00:50.856217 24950 layer_factory.hpp:77] Creating layer accuracy
I0430 19:00:50.856223 24950 net.cpp:86] Creating Layer accuracy
I0430 19:00:50.856227 24950 net.cpp:408] accuracy <- ip4_ip4_0_split_0
I0430 19:00:50.856231 24950 net.cpp:408] accuracy <- label_cifar_1_split_0
I0430 19:00:50.856235 24950 net.cpp:382] accuracy -> accuracy
…
