…
I0430 22:55:47.525353  3726 net.cpp:296] The NetState phase (0) differed from the phase (1) specified by a rule in layer cifar
I0430 22:55:47.525374  3726 net.cpp:296] The NetState phase (0) differed from the phase (1) specified by a rule in layer accuracy
I0430 22:55:47.525487  3726 net.cpp:53] Initializing net from parameters: 
name: "CIFAR"
state {
  phase: TRAIN
  level: 0
  stage: ""
}
layer {
  name: "cifar"
  type: "Data"
  top: "data"
  top: "label"
  include {
    phase: TRAIN
  }
  transform_param {
    mean_file: "examples/cifar10/mean.binaryproto"
  }
  data_param {
    source: "examples/cifar10/cifar10_train_lmdb"
    batch_size: 111
    backend: LMDB
  }
}
layer {
  name: "conv0"
  type: "Convolution"
  bottom: "data"
  top: "conv0"
  param {
    lr_mult: 1
  }
  param {
    lr_mult: 2
  }
  convolution_param {
    num_output: 8
    pad: 2
    kernel_size: 3
    stride: 1
    weight_filler {
      type: "gaussian"
      std: 0.01
    }
    bias_filler {
      type: "constant"
    }
  }
}
layer {
  name: "Sigmoid0"
  type: "Sigmoid"
  bottom: "conv0"
  top: "Sigmoid0"
}
layer {
  name: "pool0"
  type: "Pooling"
  bottom: "Sigmoid0"
  top: "pool0"
  pooling_param {
    pool: AVE
    kernel_size: 3
    stride: 2
  }
}
layer {
  name: "ip1"
  type: "InnerProduct"
  bottom: "pool0"
  top: "ip1"
  param {
    lr_mult: 1
  }
  param {
    lr_mult: 2
  }
  inner_product_param {
    num_output: 10
    weight_filler {
      type: "gaussian"
      std: 0.01
    }
    bias_filler {
      type: "constant"
    }
  }
}
layer {
  name: "relu1"
  type: "ReLU"
  bottom: "ip1"
  top: "ip1"
}
layer {
  name: "ip2"
  type: "InnerProduct"
  bottom: "ip1"
  top: "ip2"
  param {
    lr_mult: 1
  }
  param {
    lr_mult: 2
  }
  inner_product_param {
    num_output: 160
    weight_filler {
      type: "gaussian"
      std: 0.01
    }
    bias_filler {
      type: "constant"
    }
  }
}
layer {
  name: "relu2"
  type: "ReLU"
  bottom: "ip2"
  top: "ip2"
}
layer {
  name: "ip3"
  type: "InnerProduct"
  bottom: "ip2"
  top: "ip3"
  param {
    lr_mult: 1
  }
  param {
    lr_mult: 2
  }
  inner_product_param {
    num_output: 160
    weight_filler {
      type: "gaussian"
      std: 0.01
    }
    bias_filler {
      type: "constant"
    }
  }
}
layer {
  name: "relu3"
  type: "ReLU"
  bottom: "ip3"
  top: "ip3"
}
layer {
  name: "ip4"
  type: "InnerProduct"
  bottom: "ip3"
  top: "ip4"
  param {
    lr_mult: 1
  }
  param {
    lr_mult: 2
  }
  inner_product_param {
    num_output: 10
    weight_filler {
      type: "gaussian"
      std: 0.01
    }
    bias_filler {
      type: "constant"
    }
  }
}
layer {
  name: "loss"
  type: "SoftmaxWithLoss"
  bottom: "ip4"
  bottom: "label"
  top: "loss"
}
I0430 22:55:47.525565  3726 layer_factory.hpp:77] Creating layer cifar
I0430 22:55:47.525699  3726 db_lmdb.cpp:35] Opened lmdb examples/cifar10/cifar10_train_lmdb
I0430 22:55:47.525735  3726 net.cpp:86] Creating Layer cifar
I0430 22:55:47.525749  3726 net.cpp:382] cifar -> data
I0430 22:55:47.525780  3726 net.cpp:382] cifar -> label
I0430 22:55:47.525799  3726 data_transformer.cpp:25] Loading mean file from: examples/cifar10/mean.binaryproto
I0430 22:55:47.527977  3726 data_layer.cpp:45] output data size: 111,3,32,32
I0430 22:55:47.535979  3726 net.cpp:124] Setting up cifar
I0430 22:55:47.535998  3726 net.cpp:131] Top shape: 111 3 32 32 (340992)
I0430 22:55:47.536005  3726 net.cpp:131] Top shape: 111 (111)
I0430 22:55:47.536012  3726 net.cpp:139] Memory required for data: 1364412
I0430 22:55:47.536046  3726 layer_factory.hpp:77] Creating layer conv0
I0430 22:55:47.536072  3726 net.cpp:86] Creating Layer conv0
I0430 22:55:47.536083  3726 net.cpp:408] conv0 <- data
I0430 22:55:47.536101  3726 net.cpp:382] conv0 -> conv0
I0430 22:55:47.819332  3726 net.cpp:124] Setting up conv0
I0430 22:55:47.819360  3726 net.cpp:131] Top shape: 111 8 34 34 (1026528)
I0430 22:55:47.819365  3726 net.cpp:139] Memory required for data: 5470524
I0430 22:55:47.819380  3726 layer_factory.hpp:77] Creating layer Sigmoid0
I0430 22:55:47.819391  3726 net.cpp:86] Creating Layer Sigmoid0
I0430 22:55:47.819394  3726 net.cpp:408] Sigmoid0 <- conv0
I0430 22:55:47.819399  3726 net.cpp:382] Sigmoid0 -> Sigmoid0
I0430 22:55:47.819600  3726 net.cpp:124] Setting up Sigmoid0
I0430 22:55:47.819612  3726 net.cpp:131] Top shape: 111 8 34 34 (1026528)
I0430 22:55:47.819614  3726 net.cpp:139] Memory required for data: 9576636
I0430 22:55:47.819619  3726 layer_factory.hpp:77] Creating layer pool0
I0430 22:55:47.819628  3726 net.cpp:86] Creating Layer pool0
I0430 22:55:47.819634  3726 net.cpp:408] pool0 <- Sigmoid0
I0430 22:55:47.819641  3726 net.cpp:382] pool0 -> pool0
I0430 22:55:47.820400  3726 net.cpp:124] Setting up pool0
I0430 22:55:47.820415  3726 net.cpp:131] Top shape: 111 8 17 17 (256632)
I0430 22:55:47.820417  3726 net.cpp:139] Memory required for data: 10603164
I0430 22:55:47.820421  3726 layer_factory.hpp:77] Creating layer ip1
I0430 22:55:47.820430  3726 net.cpp:86] Creating Layer ip1
I0430 22:55:47.820435  3726 net.cpp:408] ip1 <- pool0
I0430 22:55:47.820439  3726 net.cpp:382] ip1 -> ip1
I0430 22:55:47.822026  3726 net.cpp:124] Setting up ip1
I0430 22:55:47.822039  3726 net.cpp:131] Top shape: 111 10 (1110)
I0430 22:55:47.822043  3726 net.cpp:139] Memory required for data: 10607604
I0430 22:55:47.822052  3726 layer_factory.hpp:77] Creating layer relu1
I0430 22:55:47.822057  3726 net.cpp:86] Creating Layer relu1
I0430 22:55:47.822060  3726 net.cpp:408] relu1 <- ip1
I0430 22:55:47.822065  3726 net.cpp:369] relu1 -> ip1 (in-place)
I0430 22:55:47.822242  3726 net.cpp:124] Setting up relu1
I0430 22:55:47.822252  3726 net.cpp:131] Top shape: 111 10 (1110)
I0430 22:55:47.822255  3726 net.cpp:139] Memory required for data: 10612044
I0430 22:55:47.822260  3726 layer_factory.hpp:77] Creating layer ip2
I0430 22:55:47.822270  3726 net.cpp:86] Creating Layer ip2
I0430 22:55:47.822279  3726 net.cpp:408] ip2 <- ip1
I0430 22:55:47.822288  3726 net.cpp:382] ip2 -> ip2
I0430 22:55:47.822438  3726 net.cpp:124] Setting up ip2
I0430 22:55:47.822445  3726 net.cpp:131] Top shape: 111 160 (17760)
I0430 22:55:47.822449  3726 net.cpp:139] Memory required for data: 10683084
I0430 22:55:47.822460  3726 layer_factory.hpp:77] Creating layer relu2
I0430 22:55:47.822471  3726 net.cpp:86] Creating Layer relu2
I0430 22:55:47.822480  3726 net.cpp:408] relu2 <- ip2
I0430 22:55:47.822487  3726 net.cpp:369] relu2 -> ip2 (in-place)
I0430 22:55:47.822650  3726 net.cpp:124] Setting up relu2
I0430 22:55:47.822659  3726 net.cpp:131] Top shape: 111 160 (17760)
I0430 22:55:47.822664  3726 net.cpp:139] Memory required for data: 10754124
I0430 22:55:47.822669  3726 layer_factory.hpp:77] Creating layer ip3
I0430 22:55:47.822679  3726 net.cpp:86] Creating Layer ip3
I0430 22:55:47.822686  3726 net.cpp:408] ip3 <- ip2
I0430 22:55:47.822695  3726 net.cpp:382] ip3 -> ip3
I0430 22:55:47.823492  3726 net.cpp:124] Setting up ip3
I0430 22:55:47.823499  3726 net.cpp:131] Top shape: 111 160 (17760)
I0430 22:55:47.823503  3726 net.cpp:139] Memory required for data: 10825164
I0430 22:55:47.823508  3726 layer_factory.hpp:77] Creating layer relu3
I0430 22:55:47.823514  3726 net.cpp:86] Creating Layer relu3
I0430 22:55:47.823518  3726 net.cpp:408] relu3 <- ip3
I0430 22:55:47.823521  3726 net.cpp:369] relu3 -> ip3 (in-place)
I0430 22:55:47.823698  3726 net.cpp:124] Setting up relu3
I0430 22:55:47.823705  3726 net.cpp:131] Top shape: 111 160 (17760)
I0430 22:55:47.823709  3726 net.cpp:139] Memory required for data: 10896204
I0430 22:55:47.823714  3726 layer_factory.hpp:77] Creating layer ip4
I0430 22:55:47.823742  3726 net.cpp:86] Creating Layer ip4
I0430 22:55:47.823748  3726 net.cpp:408] ip4 <- ip3
I0430 22:55:47.823756  3726 net.cpp:382] ip4 -> ip4
I0430 22:55:47.823904  3726 net.cpp:124] Setting up ip4
I0430 22:55:47.823912  3726 net.cpp:131] Top shape: 111 10 (1110)
I0430 22:55:47.823916  3726 net.cpp:139] Memory required for data: 10900644
I0430 22:55:47.823928  3726 layer_factory.hpp:77] Creating layer loss
I0430 22:55:47.823938  3726 net.cpp:86] Creating Layer loss
I0430 22:55:47.823945  3726 net.cpp:408] loss <- ip4
I0430 22:55:47.823951  3726 net.cpp:408] loss <- label
I0430 22:55:47.823959  3726 net.cpp:382] loss -> loss
I0430 22:55:47.823979  3726 layer_factory.hpp:77] Creating layer loss
…
I0430 22:55:47.825253  3726 solver.cpp:173] Creating test net (#0) specified by net file: ECE595/cifar/train_test/var_everything/cifar_train_test_209.prototxt
I0430 22:55:47.825291  3726 net.cpp:296] The NetState phase (1) differed from the phase (0) specified by a rule in layer cifar
I0430 22:55:47.825394  3726 net.cpp:53] Initializing net from parameters: 
name: "CIFAR"
state {
  phase: TEST
}
layer {
  name: "cifar"
  type: "Data"
  top: "data"
  top: "label"
  include {
    phase: TEST
  }
  transform_param {
    mean_file: "examples/cifar10/mean.binaryproto"
  }
  data_param {
    source: "examples/cifar10/cifar10_test_lmdb"
    batch_size: 1000
    backend: LMDB
  }
}
layer {
  name: "conv0"
  type: "Convolution"
  bottom: "data"
  top: "conv0"
  param {
    lr_mult: 1
  }
  param {
    lr_mult: 2
  }
  convolution_param {
    num_output: 8
    pad: 2
    kernel_size: 3
    stride: 1
    weight_filler {
      type: "gaussian"
      std: 0.01
    }
    bias_filler {
      type: "constant"
    }
  }
}
layer {
  name: "Sigmoid0"
  type: "Sigmoid"
  bottom: "conv0"
  top: "Sigmoid0"
}
layer {
  name: "pool0"
  type: "Pooling"
  bottom: "Sigmoid0"
  top: "pool0"
  pooling_param {
    pool: AVE
    kernel_size: 3
    stride: 2
  }
}
layer {
  name: "ip1"
  type: "InnerProduct"
  bottom: "pool0"
  top: "ip1"
  param {
    lr_mult: 1
  }
  param {
    lr_mult: 2
  }
  inner_product_param {
    num_output: 10
    weight_filler {
      type: "gaussian"
      std: 0.01
    }
    bias_filler {
      type: "constant"
    }
  }
}
layer {
  name: "relu1"
  type: "ReLU"
  bottom: "ip1"
  top: "ip1"
}
layer {
  name: "ip2"
  type: "InnerProduct"
  bottom: "ip1"
  top: "ip2"
  param {
    lr_mult: 1
  }
  param {
    lr_mult: 2
  }
  inner_product_param {
    num_output: 160
    weight_filler {
      type: "gaussian"
      std: 0.01
    }
    bias_filler {
      type: "constant"
    }
  }
}
layer {
  name: "relu2"
  type: "ReLU"
  bottom: "ip2"
  top: "ip2"
}
layer {
  name: "ip3"
  type: "InnerProduct"
  bottom: "ip2"
  top: "ip3"
  param {
    lr_mult: 1
  }
  param {
    lr_mult: 2
  }
  inner_product_param {
    num_output: 160
    weight_filler {
      type: "gaussian"
      std: 0.01
    }
    bias_filler {
      type: "constant"
    }
  }
}
layer {
  name: "relu3"
  type: "ReLU"
  bottom: "ip3"
  top: "ip3"
}
layer {
  name: "ip4"
  type: "InnerProduct"
  bottom: "ip3"
  top: "ip4"
  param {
    lr_mult: 1
  }
  param {
    lr_mult: 2
  }
  inner_product_param {
    num_output: 10
    weight_filler {
      type: "gaussian"
      std: 0.01
    }
    bias_filler {
      type: "constant"
    }
  }
}
layer {
  name: "accuracy"
  type: "Accuracy"
  bottom: "ip4"
  bottom: "label"
  top: "accuracy"
  include {
    phase: TEST
  }
}
layer {
  name: "loss"
  type: "SoftmaxWithLoss"
  bottom: "ip4"
  bottom: "label"
  top: "loss"
}
I0430 22:55:47.825503  3726 layer_factory.hpp:77] Creating layer cifar
I0430 22:55:47.825563  3726 db_lmdb.cpp:35] Opened lmdb examples/cifar10/cifar10_test_lmdb
I0430 22:55:47.825580  3726 net.cpp:86] Creating Layer cifar
I0430 22:55:47.825587  3726 net.cpp:382] cifar -> data
I0430 22:55:47.825599  3726 net.cpp:382] cifar -> label
I0430 22:55:47.825609  3726 data_transformer.cpp:25] Loading mean file from: examples/cifar10/mean.binaryproto
I0430 22:55:47.825822  3726 data_layer.cpp:45] output data size: 1000,3,32,32
I0430 22:55:47.848711  3726 net.cpp:124] Setting up cifar
I0430 22:55:47.848752  3726 net.cpp:131] Top shape: 1000 3 32 32 (3072000)
I0430 22:55:47.848759  3726 net.cpp:131] Top shape: 1000 (1000)
I0430 22:55:47.848762  3726 net.cpp:139] Memory required for data: 12292000
I0430 22:55:47.848768  3726 layer_factory.hpp:77] Creating layer label_cifar_1_split
I0430 22:55:47.848779  3726 net.cpp:86] Creating Layer label_cifar_1_split
I0430 22:55:47.848783  3726 net.cpp:408] label_cifar_1_split <- label
I0430 22:55:47.848789  3726 net.cpp:382] label_cifar_1_split -> label_cifar_1_split_0
I0430 22:55:47.848799  3726 net.cpp:382] label_cifar_1_split -> label_cifar_1_split_1
I0430 22:55:47.848948  3726 net.cpp:124] Setting up label_cifar_1_split
I0430 22:55:47.848958  3726 net.cpp:131] Top shape: 1000 (1000)
I0430 22:55:47.848961  3726 net.cpp:131] Top shape: 1000 (1000)
I0430 22:55:47.848970  3726 net.cpp:139] Memory required for data: 12300000
I0430 22:55:47.848973  3726 layer_factory.hpp:77] Creating layer conv0
I0430 22:55:47.848989  3726 net.cpp:86] Creating Layer conv0
I0430 22:55:47.848994  3726 net.cpp:408] conv0 <- data
I0430 22:55:47.849004  3726 net.cpp:382] conv0 -> conv0
I0430 22:55:47.850541  3726 net.cpp:124] Setting up conv0
I0430 22:55:47.850569  3726 net.cpp:131] Top shape: 1000 8 34 34 (9248000)
I0430 22:55:47.850572  3726 net.cpp:139] Memory required for data: 49292000
I0430 22:55:47.850582  3726 layer_factory.hpp:77] Creating layer Sigmoid0
I0430 22:55:47.850589  3726 net.cpp:86] Creating Layer Sigmoid0
I0430 22:55:47.850591  3726 net.cpp:408] Sigmoid0 <- conv0
I0430 22:55:47.850596  3726 net.cpp:382] Sigmoid0 -> Sigmoid0
I0430 22:55:47.850808  3726 net.cpp:124] Setting up Sigmoid0
I0430 22:55:47.850818  3726 net.cpp:131] Top shape: 1000 8 34 34 (9248000)
I0430 22:55:47.850821  3726 net.cpp:139] Memory required for data: 86284000
I0430 22:55:47.850826  3726 layer_factory.hpp:77] Creating layer pool0
I0430 22:55:47.850838  3726 net.cpp:86] Creating Layer pool0
I0430 22:55:47.850843  3726 net.cpp:408] pool0 <- Sigmoid0
I0430 22:55:47.850850  3726 net.cpp:382] pool0 -> pool0
I0430 22:55:47.851119  3726 net.cpp:124] Setting up pool0
I0430 22:55:47.851128  3726 net.cpp:131] Top shape: 1000 8 17 17 (2312000)
I0430 22:55:47.851131  3726 net.cpp:139] Memory required for data: 95532000
I0430 22:55:47.851136  3726 layer_factory.hpp:77] Creating layer ip1
I0430 22:55:47.851148  3726 net.cpp:86] Creating Layer ip1
I0430 22:55:47.851153  3726 net.cpp:408] ip1 <- pool0
I0430 22:55:47.851161  3726 net.cpp:382] ip1 -> ip1
I0430 22:55:47.852790  3726 net.cpp:124] Setting up ip1
I0430 22:55:47.852800  3726 net.cpp:131] Top shape: 1000 10 (10000)
I0430 22:55:47.852824  3726 net.cpp:139] Memory required for data: 95572000
I0430 22:55:47.852885  3726 layer_factory.hpp:77] Creating layer relu1
I0430 22:55:47.852910  3726 net.cpp:86] Creating Layer relu1
I0430 22:55:47.852916  3726 net.cpp:408] relu1 <- ip1
I0430 22:55:47.852926  3726 net.cpp:369] relu1 -> ip1 (in-place)
I0430 22:55:47.853121  3726 net.cpp:124] Setting up relu1
I0430 22:55:47.853132  3726 net.cpp:131] Top shape: 1000 10 (10000)
I0430 22:55:47.853134  3726 net.cpp:139] Memory required for data: 95612000
I0430 22:55:47.853138  3726 layer_factory.hpp:77] Creating layer ip2
I0430 22:55:47.853148  3726 net.cpp:86] Creating Layer ip2
I0430 22:55:47.853153  3726 net.cpp:408] ip2 <- ip1
I0430 22:55:47.853163  3726 net.cpp:382] ip2 -> ip2
I0430 22:55:47.853363  3726 net.cpp:124] Setting up ip2
I0430 22:55:47.853370  3726 net.cpp:131] Top shape: 1000 160 (160000)
I0430 22:55:47.853374  3726 net.cpp:139] Memory required for data: 96252000
I0430 22:55:47.853384  3726 layer_factory.hpp:77] Creating layer relu2
I0430 22:55:47.853394  3726 net.cpp:86] Creating Layer relu2
I0430 22:55:47.853399  3726 net.cpp:408] relu2 <- ip2
I0430 22:55:47.853404  3726 net.cpp:369] relu2 -> ip2 (in-place)
I0430 22:55:47.854146  3726 net.cpp:124] Setting up relu2
I0430 22:55:47.854158  3726 net.cpp:131] Top shape: 1000 160 (160000)
I0430 22:55:47.854176  3726 net.cpp:139] Memory required for data: 96892000
I0430 22:55:47.854181  3726 layer_factory.hpp:77] Creating layer ip3
I0430 22:55:47.854187  3726 net.cpp:86] Creating Layer ip3
I0430 22:55:47.854190  3726 net.cpp:408] ip3 <- ip2
I0430 22:55:47.854197  3726 net.cpp:382] ip3 -> ip3
I0430 22:55:47.854995  3726 net.cpp:124] Setting up ip3
I0430 22:55:47.855003  3726 net.cpp:131] Top shape: 1000 160 (160000)
I0430 22:55:47.855022  3726 net.cpp:139] Memory required for data: 97532000
I0430 22:55:47.855028  3726 layer_factory.hpp:77] Creating layer relu3
I0430 22:55:47.855033  3726 net.cpp:86] Creating Layer relu3
I0430 22:55:47.855037  3726 net.cpp:408] relu3 <- ip3
I0430 22:55:47.855041  3726 net.cpp:369] relu3 -> ip3 (in-place)
I0430 22:55:47.855248  3726 net.cpp:124] Setting up relu3
I0430 22:55:47.855258  3726 net.cpp:131] Top shape: 1000 160 (160000)
I0430 22:55:47.855262  3726 net.cpp:139] Memory required for data: 98172000
I0430 22:55:47.855265  3726 layer_factory.hpp:77] Creating layer ip4
I0430 22:55:47.855274  3726 net.cpp:86] Creating Layer ip4
I0430 22:55:47.855279  3726 net.cpp:408] ip4 <- ip3
I0430 22:55:47.855288  3726 net.cpp:382] ip4 -> ip4
I0430 22:55:47.855463  3726 net.cpp:124] Setting up ip4
I0430 22:55:47.855471  3726 net.cpp:131] Top shape: 1000 10 (10000)
I0430 22:55:47.855474  3726 net.cpp:139] Memory required for data: 98212000
I0430 22:55:47.855484  3726 layer_factory.hpp:77] Creating layer ip4_ip4_0_split
I0430 22:55:47.855492  3726 net.cpp:86] Creating Layer ip4_ip4_0_split
I0430 22:55:47.855497  3726 net.cpp:408] ip4_ip4_0_split <- ip4
I0430 22:55:47.855505  3726 net.cpp:382] ip4_ip4_0_split -> ip4_ip4_0_split_0
I0430 22:55:47.855514  3726 net.cpp:382] ip4_ip4_0_split -> ip4_ip4_0_split_1
I0430 22:55:47.855556  3726 net.cpp:124] Setting up ip4_ip4_0_split
I0430 22:55:47.855563  3726 net.cpp:131] Top shape: 1000 10 (10000)
I0430 22:55:47.855567  3726 net.cpp:131] Top shape: 1000 10 (10000)
I0430 22:55:47.855571  3726 net.cpp:139] Memory required for data: 98292000
I0430 22:55:47.855576  3726 layer_factory.hpp:77] Creating layer accuracy
I0430 22:55:47.855583  3726 net.cpp:86] Creating Layer accuracy
I0430 22:55:47.855588  3726 net.cpp:408] accuracy <- ip4_ip4_0_split_0
I0430 22:55:47.855594  3726 net.cpp:408] accuracy <- label_cifar_1_split_0
I0430 22:55:47.855602  3726 net.cpp:382] accuracy -> accuracy
…
