…
I0430 16:49:38.449705 18340 net.cpp:296] The NetState phase (0) differed from the phase (1) specified by a rule in layer cifar
I0430 16:49:38.449722 18340 net.cpp:296] The NetState phase (0) differed from the phase (1) specified by a rule in layer accuracy
I0430 16:49:38.449795 18340 net.cpp:53] Initializing net from parameters: 
name: "CIFAR"
state {
  phase: TRAIN
  level: 0
  stage: ""
}
layer {
  name: "cifar"
  type: "Data"
  top: "data"
  top: "label"
  include {
    phase: TRAIN
  }
  transform_param {
    mean_file: "examples/cifar10/mean.binaryproto"
  }
  data_param {
    source: "examples/cifar10/cifar10_train_lmdb"
    batch_size: 111
    backend: LMDB
  }
}
layer {
  name: "ip1"
  type: "InnerProduct"
  bottom: "data"
  top: "ip1"
  param {
    lr_mult: 1
  }
  param {
    lr_mult: 2
  }
  inner_product_param {
    num_output: 40
    weight_filler {
      type: "gaussian"
      std: 0.01
    }
    bias_filler {
      type: "constant"
    }
  }
}
layer {
  name: "relu1"
  type: "ReLU"
  bottom: "ip1"
  top: "ip1"
}
layer {
  name: "ip2"
  type: "InnerProduct"
  bottom: "ip1"
  top: "ip2"
  param {
    lr_mult: 1
  }
  param {
    lr_mult: 2
  }
  inner_product_param {
    num_output: 10
    weight_filler {
      type: "gaussian"
      std: 0.01
    }
    bias_filler {
      type: "constant"
    }
  }
}
layer {
  name: "relu2"
  type: "ReLU"
  bottom: "ip2"
  top: "ip2"
}
layer {
  name: "ip3"
  type: "InnerProduct"
  bottom: "ip2"
  top: "ip3"
  param {
    lr_mult: 1
  }
  param {
    lr_mult: 2
  }
  inner_product_param {
    num_output: 10
    weight_filler {
      type: "gaussian"
      std: 0.01
    }
    bias_filler {
      type: "constant"
    }
  }
}
layer {
  name: "loss"
  type: "SoftmaxWithLoss"
  bottom: "ip3"
  bottom: "label"
  top: "loss"
}
I0430 16:49:38.449861 18340 layer_factory.hpp:77] Creating layer cifar
I0430 16:49:38.449957 18340 db_lmdb.cpp:35] Opened lmdb examples/cifar10/cifar10_train_lmdb
I0430 16:49:38.449985 18340 net.cpp:86] Creating Layer cifar
I0430 16:49:38.449993 18340 net.cpp:382] cifar -> data
I0430 16:49:38.450016 18340 net.cpp:382] cifar -> label
I0430 16:49:38.450027 18340 data_transformer.cpp:25] Loading mean file from: examples/cifar10/mean.binaryproto
I0430 16:49:38.452150 18340 data_layer.cpp:45] output data size: 111,3,32,32
I0430 16:49:38.460084 18340 net.cpp:124] Setting up cifar
I0430 16:49:38.460105 18340 net.cpp:131] Top shape: 111 3 32 32 (340992)
I0430 16:49:38.460111 18340 net.cpp:131] Top shape: 111 (111)
I0430 16:49:38.460115 18340 net.cpp:139] Memory required for data: 1364412
I0430 16:49:38.460122 18340 layer_factory.hpp:77] Creating layer ip1
I0430 16:49:38.460134 18340 net.cpp:86] Creating Layer ip1
I0430 16:49:38.460139 18340 net.cpp:408] ip1 <- data
I0430 16:49:38.460153 18340 net.cpp:382] ip1 -> ip1
I0430 16:49:38.464388 18340 net.cpp:124] Setting up ip1
I0430 16:49:38.464401 18340 net.cpp:131] Top shape: 111 40 (4440)
I0430 16:49:38.464404 18340 net.cpp:139] Memory required for data: 1382172
I0430 16:49:38.464418 18340 layer_factory.hpp:77] Creating layer relu1
I0430 16:49:38.464426 18340 net.cpp:86] Creating Layer relu1
I0430 16:49:38.464432 18340 net.cpp:408] relu1 <- ip1
I0430 16:49:38.464439 18340 net.cpp:369] relu1 -> ip1 (in-place)
I0430 16:49:38.723418 18340 net.cpp:124] Setting up relu1
I0430 16:49:38.723444 18340 net.cpp:131] Top shape: 111 40 (4440)
I0430 16:49:38.723448 18340 net.cpp:139] Memory required for data: 1399932
I0430 16:49:38.723471 18340 layer_factory.hpp:77] Creating layer ip2
I0430 16:49:38.723484 18340 net.cpp:86] Creating Layer ip2
I0430 16:49:38.723489 18340 net.cpp:408] ip2 <- ip1
I0430 16:49:38.723495 18340 net.cpp:382] ip2 -> ip2
I0430 16:49:38.724520 18340 net.cpp:124] Setting up ip2
I0430 16:49:38.724535 18340 net.cpp:131] Top shape: 111 10 (1110)
I0430 16:49:38.724555 18340 net.cpp:139] Memory required for data: 1404372
I0430 16:49:38.724565 18340 layer_factory.hpp:77] Creating layer relu2
I0430 16:49:38.724572 18340 net.cpp:86] Creating Layer relu2
I0430 16:49:38.724576 18340 net.cpp:408] relu2 <- ip2
I0430 16:49:38.724581 18340 net.cpp:369] relu2 -> ip2 (in-place)
I0430 16:49:38.725432 18340 net.cpp:124] Setting up relu2
I0430 16:49:38.725445 18340 net.cpp:131] Top shape: 111 10 (1110)
I0430 16:49:38.725447 18340 net.cpp:139] Memory required for data: 1408812
I0430 16:49:38.725450 18340 layer_factory.hpp:77] Creating layer ip3
I0430 16:49:38.725457 18340 net.cpp:86] Creating Layer ip3
I0430 16:49:38.725461 18340 net.cpp:408] ip3 <- ip2
I0430 16:49:38.725466 18340 net.cpp:382] ip3 -> ip3
I0430 16:49:38.725569 18340 net.cpp:124] Setting up ip3
I0430 16:49:38.725576 18340 net.cpp:131] Top shape: 111 10 (1110)
I0430 16:49:38.725579 18340 net.cpp:139] Memory required for data: 1413252
I0430 16:49:38.725586 18340 layer_factory.hpp:77] Creating layer loss
I0430 16:49:38.725592 18340 net.cpp:86] Creating Layer loss
I0430 16:49:38.725595 18340 net.cpp:408] loss <- ip3
I0430 16:49:38.725600 18340 net.cpp:408] loss <- label
I0430 16:49:38.725611 18340 net.cpp:382] loss -> loss
I0430 16:49:38.725628 18340 layer_factory.hpp:77] Creating layer loss
…
I0430 16:49:38.726148 18340 solver.cpp:173] Creating test net (#0) specified by net file: ECE595/cifar/train_test/var_everything/cifar_train_test_15.prototxt
I0430 16:49:38.726171 18340 net.cpp:296] The NetState phase (1) differed from the phase (0) specified by a rule in layer cifar
I0430 16:49:38.726269 18340 net.cpp:53] Initializing net from parameters: 
name: "CIFAR"
state {
  phase: TEST
}
layer {
  name: "cifar"
  type: "Data"
  top: "data"
  top: "label"
  include {
    phase: TEST
  }
  transform_param {
    mean_file: "examples/cifar10/mean.binaryproto"
  }
  data_param {
    source: "examples/cifar10/cifar10_test_lmdb"
    batch_size: 1000
    backend: LMDB
  }
}
layer {
  name: "ip1"
  type: "InnerProduct"
  bottom: "data"
  top: "ip1"
  param {
    lr_mult: 1
  }
  param {
    lr_mult: 2
  }
  inner_product_param {
    num_output: 40
    weight_filler {
      type: "gaussian"
      std: 0.01
    }
    bias_filler {
      type: "constant"
    }
  }
}
layer {
  name: "relu1"
  type: "ReLU"
  bottom: "ip1"
  top: "ip1"
}
layer {
  name: "ip2"
  type: "InnerProduct"
  bottom: "ip1"
  top: "ip2"
  param {
    lr_mult: 1
  }
  param {
    lr_mult: 2
  }
  inner_product_param {
    num_output: 10
    weight_filler {
      type: "gaussian"
      std: 0.01
    }
    bias_filler {
      type: "constant"
    }
  }
}
layer {
  name: "relu2"
  type: "ReLU"
  bottom: "ip2"
  top: "ip2"
}
layer {
  name: "ip3"
  type: "InnerProduct"
  bottom: "ip2"
  top: "ip3"
  param {
    lr_mult: 1
  }
  param {
    lr_mult: 2
  }
  inner_product_param {
    num_output: 10
    weight_filler {
      type: "gaussian"
      std: 0.01
    }
    bias_filler {
      type: "constant"
    }
  }
}
layer {
  name: "accuracy"
  type: "Accuracy"
  bottom: "ip3"
  bottom: "label"
  top: "accuracy"
  include {
    phase: TEST
  }
}
layer {
  name: "loss"
  type: "SoftmaxWithLoss"
  bottom: "ip3"
  bottom: "label"
  top: "loss"
}
I0430 16:49:38.726335 18340 layer_factory.hpp:77] Creating layer cifar
I0430 16:49:38.726379 18340 db_lmdb.cpp:35] Opened lmdb examples/cifar10/cifar10_test_lmdb
I0430 16:49:38.726393 18340 net.cpp:86] Creating Layer cifar
I0430 16:49:38.726400 18340 net.cpp:382] cifar -> data
I0430 16:49:38.726423 18340 net.cpp:382] cifar -> label
I0430 16:49:38.726430 18340 data_transformer.cpp:25] Loading mean file from: examples/cifar10/mean.binaryproto
I0430 16:49:38.726593 18340 data_layer.cpp:45] output data size: 1000,3,32,32
I0430 16:49:38.748538 18340 net.cpp:124] Setting up cifar
I0430 16:49:38.748580 18340 net.cpp:131] Top shape: 1000 3 32 32 (3072000)
I0430 16:49:38.748585 18340 net.cpp:131] Top shape: 1000 (1000)
I0430 16:49:38.748589 18340 net.cpp:139] Memory required for data: 12292000
I0430 16:49:38.748594 18340 layer_factory.hpp:77] Creating layer label_cifar_1_split
I0430 16:49:38.748611 18340 net.cpp:86] Creating Layer label_cifar_1_split
I0430 16:49:38.748615 18340 net.cpp:408] label_cifar_1_split <- label
I0430 16:49:38.748621 18340 net.cpp:382] label_cifar_1_split -> label_cifar_1_split_0
I0430 16:49:38.748631 18340 net.cpp:382] label_cifar_1_split -> label_cifar_1_split_1
I0430 16:49:38.748713 18340 net.cpp:124] Setting up label_cifar_1_split
I0430 16:49:38.748720 18340 net.cpp:131] Top shape: 1000 (1000)
I0430 16:49:38.748723 18340 net.cpp:131] Top shape: 1000 (1000)
I0430 16:49:38.748726 18340 net.cpp:139] Memory required for data: 12300000
I0430 16:49:38.748729 18340 layer_factory.hpp:77] Creating layer ip1
I0430 16:49:38.748739 18340 net.cpp:86] Creating Layer ip1
I0430 16:49:38.748744 18340 net.cpp:408] ip1 <- data
I0430 16:49:38.748764 18340 net.cpp:382] ip1 -> ip1
I0430 16:49:38.752219 18340 net.cpp:124] Setting up ip1
I0430 16:49:38.752229 18340 net.cpp:131] Top shape: 1000 40 (40000)
I0430 16:49:38.752249 18340 net.cpp:139] Memory required for data: 12460000
I0430 16:49:38.752257 18340 layer_factory.hpp:77] Creating layer relu1
I0430 16:49:38.752264 18340 net.cpp:86] Creating Layer relu1
I0430 16:49:38.752267 18340 net.cpp:408] relu1 <- ip1
I0430 16:49:38.752271 18340 net.cpp:369] relu1 -> ip1 (in-place)
I0430 16:49:38.752462 18340 net.cpp:124] Setting up relu1
I0430 16:49:38.752470 18340 net.cpp:131] Top shape: 1000 40 (40000)
I0430 16:49:38.752475 18340 net.cpp:139] Memory required for data: 12620000
I0430 16:49:38.752490 18340 layer_factory.hpp:77] Creating layer ip2
I0430 16:49:38.752511 18340 net.cpp:86] Creating Layer ip2
I0430 16:49:38.752514 18340 net.cpp:408] ip2 <- ip1
I0430 16:49:38.752519 18340 net.cpp:382] ip2 -> ip2
I0430 16:49:38.752629 18340 net.cpp:124] Setting up ip2
I0430 16:49:38.752637 18340 net.cpp:131] Top shape: 1000 10 (10000)
I0430 16:49:38.752640 18340 net.cpp:139] Memory required for data: 12660000
I0430 16:49:38.752647 18340 layer_factory.hpp:77] Creating layer relu2
I0430 16:49:38.752652 18340 net.cpp:86] Creating Layer relu2
I0430 16:49:38.752655 18340 net.cpp:408] relu2 <- ip2
I0430 16:49:38.752660 18340 net.cpp:369] relu2 -> ip2 (in-place)
I0430 16:49:38.753459 18340 net.cpp:124] Setting up relu2
I0430 16:49:38.753471 18340 net.cpp:131] Top shape: 1000 10 (10000)
I0430 16:49:38.753492 18340 net.cpp:139] Memory required for data: 12700000
I0430 16:49:38.753496 18340 layer_factory.hpp:77] Creating layer ip3
I0430 16:49:38.753502 18340 net.cpp:86] Creating Layer ip3
I0430 16:49:38.753506 18340 net.cpp:408] ip3 <- ip2
I0430 16:49:38.753511 18340 net.cpp:382] ip3 -> ip3
I0430 16:49:38.753641 18340 net.cpp:124] Setting up ip3
I0430 16:49:38.753649 18340 net.cpp:131] Top shape: 1000 10 (10000)
I0430 16:49:38.753653 18340 net.cpp:139] Memory required for data: 12740000
I0430 16:49:38.753674 18340 layer_factory.hpp:77] Creating layer ip3_ip3_0_split
I0430 16:49:38.753679 18340 net.cpp:86] Creating Layer ip3_ip3_0_split
I0430 16:49:38.753684 18340 net.cpp:408] ip3_ip3_0_split <- ip3
I0430 16:49:38.753687 18340 net.cpp:382] ip3_ip3_0_split -> ip3_ip3_0_split_0
I0430 16:49:38.753693 18340 net.cpp:382] ip3_ip3_0_split -> ip3_ip3_0_split_1
I0430 16:49:38.753726 18340 net.cpp:124] Setting up ip3_ip3_0_split
I0430 16:49:38.753734 18340 net.cpp:131] Top shape: 1000 10 (10000)
I0430 16:49:38.753738 18340 net.cpp:131] Top shape: 1000 10 (10000)
I0430 16:49:38.753741 18340 net.cpp:139] Memory required for data: 12820000
I0430 16:49:38.753744 18340 layer_factory.hpp:77] Creating layer accuracy
I0430 16:49:38.753751 18340 net.cpp:86] Creating Layer accuracy
I0430 16:49:38.753753 18340 net.cpp:408] accuracy <- ip3_ip3_0_split_0
I0430 16:49:38.753758 18340 net.cpp:408] accuracy <- label_cifar_1_split_0
I0430 16:49:38.753763 18340 net.cpp:382] accuracy -> accuracy
…
