…
I0501 04:30:24.183476 25444 net.cpp:296] The NetState phase (0) differed from the phase (1) specified by a rule in layer cifar
I0501 04:30:24.183493 25444 net.cpp:296] The NetState phase (0) differed from the phase (1) specified by a rule in layer accuracy
I0501 04:30:24.183593 25444 net.cpp:53] Initializing net from parameters: 
name: "CIFAR"
state {
  phase: TRAIN
  level: 0
  stage: ""
}
layer {
  name: "cifar"
  type: "Data"
  top: "data"
  top: "label"
  include {
    phase: TRAIN
  }
  transform_param {
    mean_file: "examples/cifar10/mean.binaryproto"
  }
  data_param {
    source: "examples/cifar10/cifar10_train_lmdb"
    batch_size: 111
    backend: LMDB
  }
}
layer {
  name: "conv0"
  type: "Convolution"
  bottom: "data"
  top: "conv0"
  param {
    lr_mult: 1
  }
  param {
    lr_mult: 2
  }
  convolution_param {
    num_output: 8
    pad: 2
    kernel_size: 5
    stride: 1
    weight_filler {
      type: "gaussian"
      std: 0.01
    }
    bias_filler {
      type: "constant"
    }
  }
}
layer {
  name: "Sigmoid0"
  type: "Sigmoid"
  bottom: "conv0"
  top: "Sigmoid0"
}
layer {
  name: "pool0"
  type: "Pooling"
  bottom: "Sigmoid0"
  top: "pool0"
  pooling_param {
    pool: AVE
    kernel_size: 3
    stride: 2
  }
}
layer {
  name: "ip1"
  type: "InnerProduct"
  bottom: "pool0"
  top: "ip1"
  param {
    lr_mult: 1
  }
  param {
    lr_mult: 2
  }
  inner_product_param {
    num_output: 20
    weight_filler {
      type: "gaussian"
      std: 0.01
    }
    bias_filler {
      type: "constant"
    }
  }
}
layer {
  name: "relu1"
  type: "ReLU"
  bottom: "ip1"
  top: "ip1"
}
layer {
  name: "ip2"
  type: "InnerProduct"
  bottom: "ip1"
  top: "ip2"
  param {
    lr_mult: 1
  }
  param {
    lr_mult: 2
  }
  inner_product_param {
    num_output: 160
    weight_filler {
      type: "gaussian"
      std: 0.01
    }
    bias_filler {
      type: "constant"
    }
  }
}
layer {
  name: "relu2"
  type: "ReLU"
  bottom: "ip2"
  top: "ip2"
}
layer {
  name: "ip3"
  type: "InnerProduct"
  bottom: "ip2"
  top: "ip3"
  param {
    lr_mult: 1
  }
  param {
    lr_mult: 2
  }
  inner_product_param {
    num_output: 80
    weight_filler {
      type: "gaussian"
      std: 0.01
    }
    bias_filler {
      type: "constant"
    }
  }
}
layer {
  name: "relu3"
  type: "ReLU"
  bottom: "ip3"
  top: "ip3"
}
layer {
  name: "ip4"
  type: "InnerProduct"
  bottom: "ip3"
  top: "ip4"
  param {
    lr_mult: 1
  }
  param {
    lr_mult: 2
  }
  inner_product_param {
    num_output: 10
    weight_filler {
      type: "gaussian"
      std: 0.01
    }
    bias_filler {
      type: "constant"
    }
  }
}
layer {
  name: "loss"
  type: "SoftmaxWithLoss"
  bottom: "ip4"
  bottom: "label"
  top: "loss"
}
I0501 04:30:24.183667 25444 layer_factory.hpp:77] Creating layer cifar
I0501 04:30:24.183769 25444 db_lmdb.cpp:35] Opened lmdb examples/cifar10/cifar10_train_lmdb
I0501 04:30:24.183796 25444 net.cpp:86] Creating Layer cifar
I0501 04:30:24.183804 25444 net.cpp:382] cifar -> data
I0501 04:30:24.183828 25444 net.cpp:382] cifar -> label
I0501 04:30:24.183845 25444 data_transformer.cpp:25] Loading mean file from: examples/cifar10/mean.binaryproto
I0501 04:30:24.186002 25444 data_layer.cpp:45] output data size: 111,3,32,32
I0501 04:30:24.193902 25444 net.cpp:124] Setting up cifar
I0501 04:30:24.193920 25444 net.cpp:131] Top shape: 111 3 32 32 (340992)
I0501 04:30:24.193927 25444 net.cpp:131] Top shape: 111 (111)
I0501 04:30:24.193930 25444 net.cpp:139] Memory required for data: 1364412
I0501 04:30:24.193954 25444 layer_factory.hpp:77] Creating layer conv0
I0501 04:30:24.193972 25444 net.cpp:86] Creating Layer conv0
I0501 04:30:24.193979 25444 net.cpp:408] conv0 <- data
I0501 04:30:24.193990 25444 net.cpp:382] conv0 -> conv0
I0501 04:30:24.472483 25444 net.cpp:124] Setting up conv0
I0501 04:30:24.472510 25444 net.cpp:131] Top shape: 111 8 32 32 (909312)
I0501 04:30:24.472514 25444 net.cpp:139] Memory required for data: 5001660
I0501 04:30:24.472528 25444 layer_factory.hpp:77] Creating layer Sigmoid0
I0501 04:30:24.472539 25444 net.cpp:86] Creating Layer Sigmoid0
I0501 04:30:24.472543 25444 net.cpp:408] Sigmoid0 <- conv0
I0501 04:30:24.472548 25444 net.cpp:382] Sigmoid0 -> Sigmoid0
I0501 04:30:24.472703 25444 net.cpp:124] Setting up Sigmoid0
I0501 04:30:24.472712 25444 net.cpp:131] Top shape: 111 8 32 32 (909312)
I0501 04:30:24.472715 25444 net.cpp:139] Memory required for data: 8638908
I0501 04:30:24.472718 25444 layer_factory.hpp:77] Creating layer pool0
I0501 04:30:24.472724 25444 net.cpp:86] Creating Layer pool0
I0501 04:30:24.472728 25444 net.cpp:408] pool0 <- Sigmoid0
I0501 04:30:24.472733 25444 net.cpp:382] pool0 -> pool0
I0501 04:30:24.473461 25444 net.cpp:124] Setting up pool0
I0501 04:30:24.473474 25444 net.cpp:131] Top shape: 111 8 16 16 (227328)
I0501 04:30:24.473479 25444 net.cpp:139] Memory required for data: 9548220
I0501 04:30:24.473481 25444 layer_factory.hpp:77] Creating layer ip1
I0501 04:30:24.473490 25444 net.cpp:86] Creating Layer ip1
I0501 04:30:24.473493 25444 net.cpp:408] ip1 <- pool0
I0501 04:30:24.473498 25444 net.cpp:382] ip1 -> ip1
I0501 04:30:24.475419 25444 net.cpp:124] Setting up ip1
I0501 04:30:24.475447 25444 net.cpp:131] Top shape: 111 20 (2220)
I0501 04:30:24.475451 25444 net.cpp:139] Memory required for data: 9557100
I0501 04:30:24.475459 25444 layer_factory.hpp:77] Creating layer relu1
I0501 04:30:24.475466 25444 net.cpp:86] Creating Layer relu1
I0501 04:30:24.475484 25444 net.cpp:408] relu1 <- ip1
I0501 04:30:24.475489 25444 net.cpp:369] relu1 -> ip1 (in-place)
I0501 04:30:24.475661 25444 net.cpp:124] Setting up relu1
I0501 04:30:24.475668 25444 net.cpp:131] Top shape: 111 20 (2220)
I0501 04:30:24.475672 25444 net.cpp:139] Memory required for data: 9565980
I0501 04:30:24.475675 25444 layer_factory.hpp:77] Creating layer ip2
I0501 04:30:24.475682 25444 net.cpp:86] Creating Layer ip2
I0501 04:30:24.475685 25444 net.cpp:408] ip2 <- ip1
I0501 04:30:24.475690 25444 net.cpp:382] ip2 -> ip2
I0501 04:30:24.475865 25444 net.cpp:124] Setting up ip2
I0501 04:30:24.475873 25444 net.cpp:131] Top shape: 111 160 (17760)
I0501 04:30:24.475877 25444 net.cpp:139] Memory required for data: 9637020
I0501 04:30:24.475883 25444 layer_factory.hpp:77] Creating layer relu2
I0501 04:30:24.475889 25444 net.cpp:86] Creating Layer relu2
I0501 04:30:24.475893 25444 net.cpp:408] relu2 <- ip2
I0501 04:30:24.475896 25444 net.cpp:369] relu2 -> ip2 (in-place)
I0501 04:30:24.476090 25444 net.cpp:124] Setting up relu2
I0501 04:30:24.476099 25444 net.cpp:131] Top shape: 111 160 (17760)
I0501 04:30:24.476101 25444 net.cpp:139] Memory required for data: 9708060
I0501 04:30:24.476104 25444 layer_factory.hpp:77] Creating layer ip3
I0501 04:30:24.476112 25444 net.cpp:86] Creating Layer ip3
I0501 04:30:24.476115 25444 net.cpp:408] ip3 <- ip2
I0501 04:30:24.476120 25444 net.cpp:382] ip3 -> ip3
I0501 04:30:24.477526 25444 net.cpp:124] Setting up ip3
I0501 04:30:24.477538 25444 net.cpp:131] Top shape: 111 80 (8880)
I0501 04:30:24.477557 25444 net.cpp:139] Memory required for data: 9743580
I0501 04:30:24.477563 25444 layer_factory.hpp:77] Creating layer relu3
I0501 04:30:24.477568 25444 net.cpp:86] Creating Layer relu3
I0501 04:30:24.477571 25444 net.cpp:408] relu3 <- ip3
I0501 04:30:24.477576 25444 net.cpp:369] relu3 -> ip3 (in-place)
I0501 04:30:24.477744 25444 net.cpp:124] Setting up relu3
I0501 04:30:24.477752 25444 net.cpp:131] Top shape: 111 80 (8880)
I0501 04:30:24.477756 25444 net.cpp:139] Memory required for data: 9779100
I0501 04:30:24.477758 25444 layer_factory.hpp:77] Creating layer ip4
I0501 04:30:24.477793 25444 net.cpp:86] Creating Layer ip4
I0501 04:30:24.477797 25444 net.cpp:408] ip4 <- ip3
I0501 04:30:24.477802 25444 net.cpp:382] ip4 -> ip4
I0501 04:30:24.477911 25444 net.cpp:124] Setting up ip4
I0501 04:30:24.477919 25444 net.cpp:131] Top shape: 111 10 (1110)
I0501 04:30:24.477921 25444 net.cpp:139] Memory required for data: 9783540
I0501 04:30:24.477929 25444 layer_factory.hpp:77] Creating layer loss
I0501 04:30:24.477936 25444 net.cpp:86] Creating Layer loss
I0501 04:30:24.477938 25444 net.cpp:408] loss <- ip4
I0501 04:30:24.477941 25444 net.cpp:408] loss <- label
I0501 04:30:24.477946 25444 net.cpp:382] loss -> loss
I0501 04:30:24.477960 25444 layer_factory.hpp:77] Creating layer loss
…
I0501 04:30:24.479183 25444 solver.cpp:173] Creating test net (#0) specified by net file: ECE595/cifar/train_test/var_everything/cifar_train_test_388.prototxt
I0501 04:30:24.479212 25444 net.cpp:296] The NetState phase (1) differed from the phase (0) specified by a rule in layer cifar
I0501 04:30:24.479308 25444 net.cpp:53] Initializing net from parameters: 
name: "CIFAR"
state {
  phase: TEST
}
layer {
  name: "cifar"
  type: "Data"
  top: "data"
  top: "label"
  include {
    phase: TEST
  }
  transform_param {
    mean_file: "examples/cifar10/mean.binaryproto"
  }
  data_param {
    source: "examples/cifar10/cifar10_test_lmdb"
    batch_size: 1000
    backend: LMDB
  }
}
layer {
  name: "conv0"
  type: "Convolution"
  bottom: "data"
  top: "conv0"
  param {
    lr_mult: 1
  }
  param {
    lr_mult: 2
  }
  convolution_param {
    num_output: 8
    pad: 2
    kernel_size: 5
    stride: 1
    weight_filler {
      type: "gaussian"
      std: 0.01
    }
    bias_filler {
      type: "constant"
    }
  }
}
layer {
  name: "Sigmoid0"
  type: "Sigmoid"
  bottom: "conv0"
  top: "Sigmoid0"
}
layer {
  name: "pool0"
  type: "Pooling"
  bottom: "Sigmoid0"
  top: "pool0"
  pooling_param {
    pool: AVE
    kernel_size: 3
    stride: 2
  }
}
layer {
  name: "ip1"
  type: "InnerProduct"
  bottom: "pool0"
  top: "ip1"
  param {
    lr_mult: 1
  }
  param {
    lr_mult: 2
  }
  inner_product_param {
    num_output: 20
    weight_filler {
      type: "gaussian"
      std: 0.01
    }
    bias_filler {
      type: "constant"
    }
  }
}
layer {
  name: "relu1"
  type: "ReLU"
  bottom: "ip1"
  top: "ip1"
}
layer {
  name: "ip2"
  type: "InnerProduct"
  bottom: "ip1"
  top: "ip2"
  param {
    lr_mult: 1
  }
  param {
    lr_mult: 2
  }
  inner_product_param {
    num_output: 160
    weight_filler {
      type: "gaussian"
      std: 0.01
    }
    bias_filler {
      type: "constant"
    }
  }
}
layer {
  name: "relu2"
  type: "ReLU"
  bottom: "ip2"
  top: "ip2"
}
layer {
  name: "ip3"
  type: "InnerProduct"
  bottom: "ip2"
  top: "ip3"
  param {
    lr_mult: 1
  }
  param {
    lr_mult: 2
  }
  inner_product_param {
    num_output: 80
    weight_filler {
      type: "gaussian"
      std: 0.01
    }
    bias_filler {
      type: "constant"
    }
  }
}
layer {
  name: "relu3"
  type: "ReLU"
  bottom: "ip3"
  top: "ip3"
}
layer {
  name: "ip4"
  type: "InnerProduct"
  bottom: "ip3"
  top: "ip4"
  param {
    lr_mult: 1
  }
  param {
    lr_mult: 2
  }
  inner_product_param {
    num_output: 10
    weight_filler {
      type: "gaussian"
      std: 0.01
    }
    bias_filler {
      type: "constant"
    }
  }
}
layer {
  name: "accuracy"
  type: "Accuracy"
  bottom: "ip4"
  bottom: "label"
  top: "accuracy"
  include {
    phase: TEST
  }
}
layer {
  name: "loss"
  type: "SoftmaxWithLoss"
  bottom: "ip4"
  bottom: "label"
  top: "loss"
}
I0501 04:30:24.479387 25444 layer_factory.hpp:77] Creating layer cifar
I0501 04:30:24.479432 25444 db_lmdb.cpp:35] Opened lmdb examples/cifar10/cifar10_test_lmdb
I0501 04:30:24.479444 25444 net.cpp:86] Creating Layer cifar
I0501 04:30:24.479463 25444 net.cpp:382] cifar -> data
I0501 04:30:24.479470 25444 net.cpp:382] cifar -> label
I0501 04:30:24.479477 25444 data_transformer.cpp:25] Loading mean file from: examples/cifar10/mean.binaryproto
I0501 04:30:24.479609 25444 data_layer.cpp:45] output data size: 1000,3,32,32
I0501 04:30:24.501237 25444 net.cpp:124] Setting up cifar
I0501 04:30:24.501262 25444 net.cpp:131] Top shape: 1000 3 32 32 (3072000)
I0501 04:30:24.501267 25444 net.cpp:131] Top shape: 1000 (1000)
I0501 04:30:24.501271 25444 net.cpp:139] Memory required for data: 12292000
I0501 04:30:24.501276 25444 layer_factory.hpp:77] Creating layer label_cifar_1_split
I0501 04:30:24.501287 25444 net.cpp:86] Creating Layer label_cifar_1_split
I0501 04:30:24.501291 25444 net.cpp:408] label_cifar_1_split <- label
I0501 04:30:24.501313 25444 net.cpp:382] label_cifar_1_split -> label_cifar_1_split_0
I0501 04:30:24.501322 25444 net.cpp:382] label_cifar_1_split -> label_cifar_1_split_1
I0501 04:30:24.501369 25444 net.cpp:124] Setting up label_cifar_1_split
I0501 04:30:24.501374 25444 net.cpp:131] Top shape: 1000 (1000)
I0501 04:30:24.501377 25444 net.cpp:131] Top shape: 1000 (1000)
I0501 04:30:24.501379 25444 net.cpp:139] Memory required for data: 12300000
I0501 04:30:24.501382 25444 layer_factory.hpp:77] Creating layer conv0
I0501 04:30:24.501394 25444 net.cpp:86] Creating Layer conv0
I0501 04:30:24.501397 25444 net.cpp:408] conv0 <- data
I0501 04:30:24.501401 25444 net.cpp:382] conv0 -> conv0
I0501 04:30:24.503110 25444 net.cpp:124] Setting up conv0
I0501 04:30:24.503123 25444 net.cpp:131] Top shape: 1000 8 32 32 (8192000)
I0501 04:30:24.503126 25444 net.cpp:139] Memory required for data: 45068000
I0501 04:30:24.503135 25444 layer_factory.hpp:77] Creating layer Sigmoid0
I0501 04:30:24.503141 25444 net.cpp:86] Creating Layer Sigmoid0
I0501 04:30:24.503160 25444 net.cpp:408] Sigmoid0 <- conv0
I0501 04:30:24.503165 25444 net.cpp:382] Sigmoid0 -> Sigmoid0
I0501 04:30:24.503324 25444 net.cpp:124] Setting up Sigmoid0
I0501 04:30:24.503334 25444 net.cpp:131] Top shape: 1000 8 32 32 (8192000)
I0501 04:30:24.503336 25444 net.cpp:139] Memory required for data: 77836000
I0501 04:30:24.503340 25444 layer_factory.hpp:77] Creating layer pool0
I0501 04:30:24.503346 25444 net.cpp:86] Creating Layer pool0
I0501 04:30:24.503350 25444 net.cpp:408] pool0 <- Sigmoid0
I0501 04:30:24.503355 25444 net.cpp:382] pool0 -> pool0
I0501 04:30:24.503499 25444 net.cpp:124] Setting up pool0
I0501 04:30:24.503507 25444 net.cpp:131] Top shape: 1000 8 16 16 (2048000)
I0501 04:30:24.503510 25444 net.cpp:139] Memory required for data: 86028000
I0501 04:30:24.503514 25444 layer_factory.hpp:77] Creating layer ip1
I0501 04:30:24.503520 25444 net.cpp:86] Creating Layer ip1
I0501 04:30:24.503523 25444 net.cpp:408] ip1 <- pool0
I0501 04:30:24.503542 25444 net.cpp:382] ip1 -> ip1
I0501 04:30:24.504956 25444 net.cpp:124] Setting up ip1
I0501 04:30:24.504966 25444 net.cpp:131] Top shape: 1000 20 (20000)
I0501 04:30:24.504969 25444 net.cpp:139] Memory required for data: 86108000
I0501 04:30:24.505017 25444 layer_factory.hpp:77] Creating layer relu1
I0501 04:30:24.505024 25444 net.cpp:86] Creating Layer relu1
I0501 04:30:24.505028 25444 net.cpp:408] relu1 <- ip1
I0501 04:30:24.505033 25444 net.cpp:369] relu1 -> ip1 (in-place)
I0501 04:30:24.505218 25444 net.cpp:124] Setting up relu1
I0501 04:30:24.505228 25444 net.cpp:131] Top shape: 1000 20 (20000)
I0501 04:30:24.505230 25444 net.cpp:139] Memory required for data: 86188000
I0501 04:30:24.505234 25444 layer_factory.hpp:77] Creating layer ip2
I0501 04:30:24.505239 25444 net.cpp:86] Creating Layer ip2
I0501 04:30:24.505242 25444 net.cpp:408] ip2 <- ip1
I0501 04:30:24.505247 25444 net.cpp:382] ip2 -> ip2
I0501 04:30:24.505420 25444 net.cpp:124] Setting up ip2
I0501 04:30:24.505427 25444 net.cpp:131] Top shape: 1000 160 (160000)
I0501 04:30:24.505430 25444 net.cpp:139] Memory required for data: 86828000
I0501 04:30:24.505437 25444 layer_factory.hpp:77] Creating layer relu2
I0501 04:30:24.505444 25444 net.cpp:86] Creating Layer relu2
I0501 04:30:24.505446 25444 net.cpp:408] relu2 <- ip2
I0501 04:30:24.505450 25444 net.cpp:369] relu2 -> ip2 (in-place)
I0501 04:30:24.506186 25444 net.cpp:124] Setting up relu2
I0501 04:30:24.506197 25444 net.cpp:131] Top shape: 1000 160 (160000)
I0501 04:30:24.506201 25444 net.cpp:139] Memory required for data: 87468000
I0501 04:30:24.506204 25444 layer_factory.hpp:77] Creating layer ip3
I0501 04:30:24.506211 25444 net.cpp:86] Creating Layer ip3
I0501 04:30:24.506230 25444 net.cpp:408] ip3 <- ip2
I0501 04:30:24.506237 25444 net.cpp:382] ip3 -> ip3
I0501 04:30:24.506708 25444 net.cpp:124] Setting up ip3
I0501 04:30:24.506716 25444 net.cpp:131] Top shape: 1000 80 (80000)
I0501 04:30:24.506719 25444 net.cpp:139] Memory required for data: 87788000
I0501 04:30:24.506724 25444 layer_factory.hpp:77] Creating layer relu3
I0501 04:30:24.506729 25444 net.cpp:86] Creating Layer relu3
I0501 04:30:24.506747 25444 net.cpp:408] relu3 <- ip3
I0501 04:30:24.506752 25444 net.cpp:369] relu3 -> ip3 (in-place)
I0501 04:30:24.506886 25444 net.cpp:124] Setting up relu3
I0501 04:30:24.506893 25444 net.cpp:131] Top shape: 1000 80 (80000)
I0501 04:30:24.506896 25444 net.cpp:139] Memory required for data: 88108000
I0501 04:30:24.506899 25444 layer_factory.hpp:77] Creating layer ip4
I0501 04:30:24.506906 25444 net.cpp:86] Creating Layer ip4
I0501 04:30:24.506908 25444 net.cpp:408] ip4 <- ip3
I0501 04:30:24.506912 25444 net.cpp:382] ip4 -> ip4
I0501 04:30:24.507043 25444 net.cpp:124] Setting up ip4
I0501 04:30:24.507050 25444 net.cpp:131] Top shape: 1000 10 (10000)
I0501 04:30:24.507052 25444 net.cpp:139] Memory required for data: 88148000
I0501 04:30:24.507061 25444 layer_factory.hpp:77] Creating layer ip4_ip4_0_split
I0501 04:30:24.507066 25444 net.cpp:86] Creating Layer ip4_ip4_0_split
I0501 04:30:24.507068 25444 net.cpp:408] ip4_ip4_0_split <- ip4
I0501 04:30:24.507072 25444 net.cpp:382] ip4_ip4_0_split -> ip4_ip4_0_split_0
I0501 04:30:24.507078 25444 net.cpp:382] ip4_ip4_0_split -> ip4_ip4_0_split_1
I0501 04:30:24.507105 25444 net.cpp:124] Setting up ip4_ip4_0_split
I0501 04:30:24.507110 25444 net.cpp:131] Top shape: 1000 10 (10000)
I0501 04:30:24.507113 25444 net.cpp:131] Top shape: 1000 10 (10000)
I0501 04:30:24.507117 25444 net.cpp:139] Memory required for data: 88228000
I0501 04:30:24.507118 25444 layer_factory.hpp:77] Creating layer accuracy
I0501 04:30:24.507124 25444 net.cpp:86] Creating Layer accuracy
I0501 04:30:24.507128 25444 net.cpp:408] accuracy <- ip4_ip4_0_split_0
I0501 04:30:24.507131 25444 net.cpp:408] accuracy <- label_cifar_1_split_0
I0501 04:30:24.507135 25444 net.cpp:382] accuracy -> accuracy
…
