…
I0430 19:48:36.709718 26919 net.cpp:296] The NetState phase (0) differed from the phase (1) specified by a rule in layer cifar
I0430 19:48:36.709735 26919 net.cpp:296] The NetState phase (0) differed from the phase (1) specified by a rule in layer accuracy
I0430 19:48:36.709820 26919 net.cpp:53] Initializing net from parameters: 
name: "CIFAR"
state {
  phase: TRAIN
  level: 0
  stage: ""
}
layer {
  name: "cifar"
  type: "Data"
  top: "data"
  top: "label"
  include {
    phase: TRAIN
  }
  transform_param {
    mean_file: "examples/cifar10/mean.binaryproto"
  }
  data_param {
    source: "examples/cifar10/cifar10_train_lmdb"
    batch_size: 111
    backend: LMDB
  }
}
layer {
  name: "ip1"
  type: "InnerProduct"
  bottom: "data"
  top: "ip1"
  param {
    lr_mult: 1
  }
  param {
    lr_mult: 2
  }
  inner_product_param {
    num_output: 80
    weight_filler {
      type: "gaussian"
      std: 0.01
    }
    bias_filler {
      type: "constant"
    }
  }
}
layer {
  name: "relu1"
  type: "ReLU"
  bottom: "ip1"
  top: "ip1"
}
layer {
  name: "ip2"
  type: "InnerProduct"
  bottom: "ip1"
  top: "ip2"
  param {
    lr_mult: 1
  }
  param {
    lr_mult: 2
  }
  inner_product_param {
    num_output: 10
    weight_filler {
      type: "gaussian"
      std: 0.01
    }
    bias_filler {
      type: "constant"
    }
  }
}
layer {
  name: "relu2"
  type: "ReLU"
  bottom: "ip2"
  top: "ip2"
}
layer {
  name: "ip3"
  type: "InnerProduct"
  bottom: "ip2"
  top: "ip3"
  param {
    lr_mult: 1
  }
  param {
    lr_mult: 2
  }
  inner_product_param {
    num_output: 160
    weight_filler {
      type: "gaussian"
      std: 0.01
    }
    bias_filler {
      type: "constant"
    }
  }
}
layer {
  name: "relu3"
  type: "ReLU"
  bottom: "ip3"
  top: "ip3"
}
layer {
  name: "ip4"
  type: "InnerProduct"
  bottom: "ip3"
  top: "ip4"
  param {
    lr_mult: 1
  }
  param {
    lr_mult: 2
  }
  inner_product_param {
    num_output: 10
    weight_filler {
      type: "gaussian"
      std: 0.01
    }
    bias_filler {
      type: "constant"
    }
  }
}
layer {
  name: "loss"
  type: "SoftmaxWithLoss"
  bottom: "ip4"
  bottom: "label"
  top: "loss"
}
I0430 19:48:36.709889 26919 layer_factory.hpp:77] Creating layer cifar
I0430 19:48:36.709990 26919 db_lmdb.cpp:35] Opened lmdb examples/cifar10/cifar10_train_lmdb
I0430 19:48:36.710018 26919 net.cpp:86] Creating Layer cifar
I0430 19:48:36.710026 26919 net.cpp:382] cifar -> data
I0430 19:48:36.710048 26919 net.cpp:382] cifar -> label
I0430 19:48:36.710062 26919 data_transformer.cpp:25] Loading mean file from: examples/cifar10/mean.binaryproto
I0430 19:48:36.712175 26919 data_layer.cpp:45] output data size: 111,3,32,32
I0430 19:48:36.720118 26919 net.cpp:124] Setting up cifar
I0430 19:48:36.720137 26919 net.cpp:131] Top shape: 111 3 32 32 (340992)
I0430 19:48:36.720144 26919 net.cpp:131] Top shape: 111 (111)
I0430 19:48:36.720146 26919 net.cpp:139] Memory required for data: 1364412
I0430 19:48:36.720155 26919 layer_factory.hpp:77] Creating layer ip1
I0430 19:48:36.720188 26919 net.cpp:86] Creating Layer ip1
I0430 19:48:36.720194 26919 net.cpp:408] ip1 <- data
I0430 19:48:36.720206 26919 net.cpp:382] ip1 -> ip1
I0430 19:48:36.729478 26919 net.cpp:124] Setting up ip1
I0430 19:48:36.729496 26919 net.cpp:131] Top shape: 111 80 (8880)
I0430 19:48:36.729501 26919 net.cpp:139] Memory required for data: 1399932
I0430 19:48:36.729514 26919 layer_factory.hpp:77] Creating layer relu1
I0430 19:48:36.729526 26919 net.cpp:86] Creating Layer relu1
I0430 19:48:36.729545 26919 net.cpp:408] relu1 <- ip1
I0430 19:48:36.729552 26919 net.cpp:369] relu1 -> ip1 (in-place)
I0430 19:48:36.999161 26919 net.cpp:124] Setting up relu1
I0430 19:48:36.999187 26919 net.cpp:131] Top shape: 111 80 (8880)
I0430 19:48:36.999191 26919 net.cpp:139] Memory required for data: 1435452
I0430 19:48:36.999197 26919 layer_factory.hpp:77] Creating layer ip2
I0430 19:48:36.999207 26919 net.cpp:86] Creating Layer ip2
I0430 19:48:36.999210 26919 net.cpp:408] ip2 <- ip1
I0430 19:48:36.999217 26919 net.cpp:382] ip2 -> ip2
I0430 19:48:37.000305 26919 net.cpp:124] Setting up ip2
I0430 19:48:37.000318 26919 net.cpp:131] Top shape: 111 10 (1110)
I0430 19:48:37.000320 26919 net.cpp:139] Memory required for data: 1439892
I0430 19:48:37.000330 26919 layer_factory.hpp:77] Creating layer relu2
I0430 19:48:37.000337 26919 net.cpp:86] Creating Layer relu2
I0430 19:48:37.000340 26919 net.cpp:408] relu2 <- ip2
I0430 19:48:37.000344 26919 net.cpp:369] relu2 -> ip2 (in-place)
I0430 19:48:37.001072 26919 net.cpp:124] Setting up relu2
I0430 19:48:37.001085 26919 net.cpp:131] Top shape: 111 10 (1110)
I0430 19:48:37.001102 26919 net.cpp:139] Memory required for data: 1444332
I0430 19:48:37.001106 26919 layer_factory.hpp:77] Creating layer ip3
I0430 19:48:37.001113 26919 net.cpp:86] Creating Layer ip3
I0430 19:48:37.001116 26919 net.cpp:408] ip3 <- ip2
I0430 19:48:37.001121 26919 net.cpp:382] ip3 -> ip3
I0430 19:48:37.001277 26919 net.cpp:124] Setting up ip3
I0430 19:48:37.001286 26919 net.cpp:131] Top shape: 111 160 (17760)
I0430 19:48:37.001288 26919 net.cpp:139] Memory required for data: 1515372
I0430 19:48:37.001296 26919 layer_factory.hpp:77] Creating layer relu3
I0430 19:48:37.001299 26919 net.cpp:86] Creating Layer relu3
I0430 19:48:37.001302 26919 net.cpp:408] relu3 <- ip3
I0430 19:48:37.001307 26919 net.cpp:369] relu3 -> ip3 (in-place)
I0430 19:48:37.001443 26919 net.cpp:124] Setting up relu3
I0430 19:48:37.001451 26919 net.cpp:131] Top shape: 111 160 (17760)
I0430 19:48:37.001464 26919 net.cpp:139] Memory required for data: 1586412
I0430 19:48:37.001467 26919 layer_factory.hpp:77] Creating layer ip4
I0430 19:48:37.001473 26919 net.cpp:86] Creating Layer ip4
I0430 19:48:37.001477 26919 net.cpp:408] ip4 <- ip3
I0430 19:48:37.001482 26919 net.cpp:382] ip4 -> ip4
I0430 19:48:37.001611 26919 net.cpp:124] Setting up ip4
I0430 19:48:37.001618 26919 net.cpp:131] Top shape: 111 10 (1110)
I0430 19:48:37.001621 26919 net.cpp:139] Memory required for data: 1590852
I0430 19:48:37.001627 26919 layer_factory.hpp:77] Creating layer loss
I0430 19:48:37.001633 26919 net.cpp:86] Creating Layer loss
I0430 19:48:37.001636 26919 net.cpp:408] loss <- ip4
I0430 19:48:37.001641 26919 net.cpp:408] loss <- label
I0430 19:48:37.001646 26919 net.cpp:382] loss -> loss
I0430 19:48:37.001663 26919 layer_factory.hpp:77] Creating layer loss
…
I0430 19:48:37.002238 26919 solver.cpp:173] Creating test net (#0) specified by net file: ECE595/cifar/train_test/var_everything/cifar_train_test_109.prototxt
I0430 19:48:37.002275 26919 net.cpp:296] The NetState phase (1) differed from the phase (0) specified by a rule in layer cifar
I0430 19:48:37.002351 26919 net.cpp:53] Initializing net from parameters: 
name: "CIFAR"
state {
  phase: TEST
}
layer {
  name: "cifar"
  type: "Data"
  top: "data"
  top: "label"
  include {
    phase: TEST
  }
  transform_param {
    mean_file: "examples/cifar10/mean.binaryproto"
  }
  data_param {
    source: "examples/cifar10/cifar10_test_lmdb"
    batch_size: 1000
    backend: LMDB
  }
}
layer {
  name: "ip1"
  type: "InnerProduct"
  bottom: "data"
  top: "ip1"
  param {
    lr_mult: 1
  }
  param {
    lr_mult: 2
  }
  inner_product_param {
    num_output: 80
    weight_filler {
      type: "gaussian"
      std: 0.01
    }
    bias_filler {
      type: "constant"
    }
  }
}
layer {
  name: "relu1"
  type: "ReLU"
  bottom: "ip1"
  top: "ip1"
}
layer {
  name: "ip2"
  type: "InnerProduct"
  bottom: "ip1"
  top: "ip2"
  param {
    lr_mult: 1
  }
  param {
    lr_mult: 2
  }
  inner_product_param {
    num_output: 10
    weight_filler {
      type: "gaussian"
      std: 0.01
    }
    bias_filler {
      type: "constant"
    }
  }
}
layer {
  name: "relu2"
  type: "ReLU"
  bottom: "ip2"
  top: "ip2"
}
layer {
  name: "ip3"
  type: "InnerProduct"
  bottom: "ip2"
  top: "ip3"
  param {
    lr_mult: 1
  }
  param {
    lr_mult: 2
  }
  inner_product_param {
    num_output: 160
    weight_filler {
      type: "gaussian"
      std: 0.01
    }
    bias_filler {
      type: "constant"
    }
  }
}
layer {
  name: "relu3"
  type: "ReLU"
  bottom: "ip3"
  top: "ip3"
}
layer {
  name: "ip4"
  type: "InnerProduct"
  bottom: "ip3"
  top: "ip4"
  param {
    lr_mult: 1
  }
  param {
    lr_mult: 2
  }
  inner_product_param {
    num_output: 10
    weight_filler {
      type: "gaussian"
      std: 0.01
    }
    bias_filler {
      type: "constant"
    }
  }
}
layer {
  name: "accuracy"
  type: "Accuracy"
  bottom: "ip4"
  bottom: "label"
  top: "accuracy"
  include {
    phase: TEST
  }
}
layer {
  name: "loss"
  type: "SoftmaxWithLoss"
  bottom: "ip4"
  bottom: "label"
  top: "loss"
}
I0430 19:48:37.002408 26919 layer_factory.hpp:77] Creating layer cifar
I0430 19:48:37.002452 26919 db_lmdb.cpp:35] Opened lmdb examples/cifar10/cifar10_test_lmdb
I0430 19:48:37.002465 26919 net.cpp:86] Creating Layer cifar
I0430 19:48:37.002468 26919 net.cpp:382] cifar -> data
I0430 19:48:37.002475 26919 net.cpp:382] cifar -> label
I0430 19:48:37.002482 26919 data_transformer.cpp:25] Loading mean file from: examples/cifar10/mean.binaryproto
I0430 19:48:37.002662 26919 data_layer.cpp:45] output data size: 1000,3,32,32
I0430 19:48:37.024749 26919 net.cpp:124] Setting up cifar
I0430 19:48:37.024775 26919 net.cpp:131] Top shape: 1000 3 32 32 (3072000)
I0430 19:48:37.024781 26919 net.cpp:131] Top shape: 1000 (1000)
I0430 19:48:37.024785 26919 net.cpp:139] Memory required for data: 12292000
I0430 19:48:37.024790 26919 layer_factory.hpp:77] Creating layer label_cifar_1_split
I0430 19:48:37.024862 26919 net.cpp:86] Creating Layer label_cifar_1_split
I0430 19:48:37.024866 26919 net.cpp:408] label_cifar_1_split <- label
I0430 19:48:37.024873 26919 net.cpp:382] label_cifar_1_split -> label_cifar_1_split_0
I0430 19:48:37.024881 26919 net.cpp:382] label_cifar_1_split -> label_cifar_1_split_1
I0430 19:48:37.024989 26919 net.cpp:124] Setting up label_cifar_1_split
I0430 19:48:37.024998 26919 net.cpp:131] Top shape: 1000 (1000)
I0430 19:48:37.025002 26919 net.cpp:131] Top shape: 1000 (1000)
I0430 19:48:37.025004 26919 net.cpp:139] Memory required for data: 12300000
I0430 19:48:37.025008 26919 layer_factory.hpp:77] Creating layer ip1
I0430 19:48:37.025017 26919 net.cpp:86] Creating Layer ip1
I0430 19:48:37.025019 26919 net.cpp:408] ip1 <- data
I0430 19:48:37.025024 26919 net.cpp:382] ip1 -> ip1
I0430 19:48:37.031564 26919 net.cpp:124] Setting up ip1
I0430 19:48:37.031576 26919 net.cpp:131] Top shape: 1000 80 (80000)
I0430 19:48:37.031579 26919 net.cpp:139] Memory required for data: 12620000
I0430 19:48:37.031620 26919 layer_factory.hpp:77] Creating layer relu1
I0430 19:48:37.031626 26919 net.cpp:86] Creating Layer relu1
I0430 19:48:37.031630 26919 net.cpp:408] relu1 <- ip1
I0430 19:48:37.031635 26919 net.cpp:369] relu1 -> ip1 (in-place)
I0430 19:48:37.032387 26919 net.cpp:124] Setting up relu1
I0430 19:48:37.032398 26919 net.cpp:131] Top shape: 1000 80 (80000)
I0430 19:48:37.032402 26919 net.cpp:139] Memory required for data: 12940000
I0430 19:48:37.032405 26919 layer_factory.hpp:77] Creating layer ip2
I0430 19:48:37.032413 26919 net.cpp:86] Creating Layer ip2
I0430 19:48:37.032433 26919 net.cpp:408] ip2 <- ip1
I0430 19:48:37.032438 26919 net.cpp:382] ip2 -> ip2
I0430 19:48:37.032570 26919 net.cpp:124] Setting up ip2
I0430 19:48:37.032577 26919 net.cpp:131] Top shape: 1000 10 (10000)
I0430 19:48:37.032580 26919 net.cpp:139] Memory required for data: 12980000
I0430 19:48:37.032588 26919 layer_factory.hpp:77] Creating layer relu2
I0430 19:48:37.032593 26919 net.cpp:86] Creating Layer relu2
I0430 19:48:37.032595 26919 net.cpp:408] relu2 <- ip2
I0430 19:48:37.032608 26919 net.cpp:369] relu2 -> ip2 (in-place)
I0430 19:48:37.032750 26919 net.cpp:124] Setting up relu2
I0430 19:48:37.032773 26919 net.cpp:131] Top shape: 1000 10 (10000)
I0430 19:48:37.032778 26919 net.cpp:139] Memory required for data: 13020000
I0430 19:48:37.032780 26919 layer_factory.hpp:77] Creating layer ip3
I0430 19:48:37.032785 26919 net.cpp:86] Creating Layer ip3
I0430 19:48:37.032788 26919 net.cpp:408] ip3 <- ip2
I0430 19:48:37.032794 26919 net.cpp:382] ip3 -> ip3
I0430 19:48:37.033023 26919 net.cpp:124] Setting up ip3
I0430 19:48:37.033032 26919 net.cpp:131] Top shape: 1000 160 (160000)
I0430 19:48:37.033035 26919 net.cpp:139] Memory required for data: 13660000
I0430 19:48:37.033043 26919 layer_factory.hpp:77] Creating layer relu3
I0430 19:48:37.033049 26919 net.cpp:86] Creating Layer relu3
I0430 19:48:37.033052 26919 net.cpp:408] relu3 <- ip3
I0430 19:48:37.033057 26919 net.cpp:369] relu3 -> ip3 (in-place)
I0430 19:48:37.033301 26919 net.cpp:124] Setting up relu3
I0430 19:48:37.033309 26919 net.cpp:131] Top shape: 1000 160 (160000)
I0430 19:48:37.033313 26919 net.cpp:139] Memory required for data: 14300000
I0430 19:48:37.033315 26919 layer_factory.hpp:77] Creating layer ip4
I0430 19:48:37.033323 26919 net.cpp:86] Creating Layer ip4
I0430 19:48:37.033325 26919 net.cpp:408] ip4 <- ip3
I0430 19:48:37.033330 26919 net.cpp:382] ip4 -> ip4
I0430 19:48:37.033468 26919 net.cpp:124] Setting up ip4
I0430 19:48:37.033475 26919 net.cpp:131] Top shape: 1000 10 (10000)
I0430 19:48:37.033479 26919 net.cpp:139] Memory required for data: 14340000
I0430 19:48:37.033484 26919 layer_factory.hpp:77] Creating layer ip4_ip4_0_split
I0430 19:48:37.033489 26919 net.cpp:86] Creating Layer ip4_ip4_0_split
I0430 19:48:37.033493 26919 net.cpp:408] ip4_ip4_0_split <- ip4
I0430 19:48:37.033496 26919 net.cpp:382] ip4_ip4_0_split -> ip4_ip4_0_split_0
I0430 19:48:37.033502 26919 net.cpp:382] ip4_ip4_0_split -> ip4_ip4_0_split_1
I0430 19:48:37.033530 26919 net.cpp:124] Setting up ip4_ip4_0_split
I0430 19:48:37.033535 26919 net.cpp:131] Top shape: 1000 10 (10000)
I0430 19:48:37.033538 26919 net.cpp:131] Top shape: 1000 10 (10000)
I0430 19:48:37.033541 26919 net.cpp:139] Memory required for data: 14420000
I0430 19:48:37.033545 26919 layer_factory.hpp:77] Creating layer accuracy
I0430 19:48:37.033552 26919 net.cpp:86] Creating Layer accuracy
I0430 19:48:37.033555 26919 net.cpp:408] accuracy <- ip4_ip4_0_split_0
I0430 19:48:37.033568 26919 net.cpp:408] accuracy <- label_cifar_1_split_0
I0430 19:48:37.033572 26919 net.cpp:382] accuracy -> accuracy
…
