…
I0501 06:32:58.435537   892 net.cpp:296] The NetState phase (0) differed from the phase (1) specified by a rule in layer cifar
I0501 06:32:58.435557   892 net.cpp:296] The NetState phase (0) differed from the phase (1) specified by a rule in layer accuracy
I0501 06:32:58.435662   892 net.cpp:53] Initializing net from parameters: 
name: "CIFAR"
state {
  phase: TRAIN
  level: 0
  stage: ""
}
layer {
  name: "cifar"
  type: "Data"
  top: "data"
  top: "label"
  include {
    phase: TRAIN
  }
  transform_param {
    mean_file: "examples/cifar10/mean.binaryproto"
  }
  data_param {
    source: "examples/cifar10/cifar10_train_lmdb"
    batch_size: 111
    backend: LMDB
  }
}
layer {
  name: "conv0"
  type: "Convolution"
  bottom: "data"
  top: "conv0"
  param {
    lr_mult: 1
  }
  param {
    lr_mult: 2
  }
  convolution_param {
    num_output: 8
    pad: 2
    kernel_size: 5
    stride: 1
    weight_filler {
      type: "gaussian"
      std: 0.01
    }
    bias_filler {
      type: "constant"
    }
  }
}
layer {
  name: "Sigmoid0"
  type: "Sigmoid"
  bottom: "conv0"
  top: "Sigmoid0"
}
layer {
  name: "pool0"
  type: "Pooling"
  bottom: "Sigmoid0"
  top: "pool0"
  pooling_param {
    pool: AVE
    kernel_size: 3
    stride: 2
  }
}
layer {
  name: "ip1"
  type: "InnerProduct"
  bottom: "pool0"
  top: "ip1"
  param {
    lr_mult: 1
  }
  param {
    lr_mult: 2
  }
  inner_product_param {
    num_output: 160
    weight_filler {
      type: "gaussian"
      std: 0.01
    }
    bias_filler {
      type: "constant"
    }
  }
}
layer {
  name: "relu1"
  type: "ReLU"
  bottom: "ip1"
  top: "ip1"
}
layer {
  name: "ip2"
  type: "InnerProduct"
  bottom: "ip1"
  top: "ip2"
  param {
    lr_mult: 1
  }
  param {
    lr_mult: 2
  }
  inner_product_param {
    num_output: 40
    weight_filler {
      type: "gaussian"
      std: 0.01
    }
    bias_filler {
      type: "constant"
    }
  }
}
layer {
  name: "relu2"
  type: "ReLU"
  bottom: "ip2"
  top: "ip2"
}
layer {
  name: "ip3"
  type: "InnerProduct"
  bottom: "ip2"
  top: "ip3"
  param {
    lr_mult: 1
  }
  param {
    lr_mult: 2
  }
  inner_product_param {
    num_output: 160
    weight_filler {
      type: "gaussian"
      std: 0.01
    }
    bias_filler {
      type: "constant"
    }
  }
}
layer {
  name: "relu3"
  type: "ReLU"
  bottom: "ip3"
  top: "ip3"
}
layer {
  name: "ip4"
  type: "InnerProduct"
  bottom: "ip3"
  top: "ip4"
  param {
    lr_mult: 1
  }
  param {
    lr_mult: 2
  }
  inner_product_param {
    num_output: 10
    weight_filler {
      type: "gaussian"
      std: 0.01
    }
    bias_filler {
      type: "constant"
    }
  }
}
layer {
  name: "loss"
  type: "SoftmaxWithLoss"
  bottom: "ip4"
  bottom: "label"
  top: "loss"
}
I0501 06:32:58.435741   892 layer_factory.hpp:77] Creating layer cifar
I0501 06:32:58.435839   892 db_lmdb.cpp:35] Opened lmdb examples/cifar10/cifar10_train_lmdb
I0501 06:32:58.435866   892 net.cpp:86] Creating Layer cifar
I0501 06:32:58.435874   892 net.cpp:382] cifar -> data
I0501 06:32:58.435896   892 net.cpp:382] cifar -> label
I0501 06:32:58.435912   892 data_transformer.cpp:25] Loading mean file from: examples/cifar10/mean.binaryproto
I0501 06:32:58.438081   892 data_layer.cpp:45] output data size: 111,3,32,32
I0501 06:32:58.446032   892 net.cpp:124] Setting up cifar
I0501 06:32:58.446050   892 net.cpp:131] Top shape: 111 3 32 32 (340992)
I0501 06:32:58.446058   892 net.cpp:131] Top shape: 111 (111)
I0501 06:32:58.446061   892 net.cpp:139] Memory required for data: 1364412
I0501 06:32:58.446084   892 layer_factory.hpp:77] Creating layer conv0
I0501 06:32:58.446102   892 net.cpp:86] Creating Layer conv0
I0501 06:32:58.446108   892 net.cpp:408] conv0 <- data
I0501 06:32:58.446121   892 net.cpp:382] conv0 -> conv0
I0501 06:32:58.728303   892 net.cpp:124] Setting up conv0
I0501 06:32:58.728330   892 net.cpp:131] Top shape: 111 8 32 32 (909312)
I0501 06:32:58.728334   892 net.cpp:139] Memory required for data: 5001660
I0501 06:32:58.728348   892 layer_factory.hpp:77] Creating layer Sigmoid0
I0501 06:32:58.728359   892 net.cpp:86] Creating Layer Sigmoid0
I0501 06:32:58.728363   892 net.cpp:408] Sigmoid0 <- conv0
I0501 06:32:58.728368   892 net.cpp:382] Sigmoid0 -> Sigmoid0
I0501 06:32:58.728529   892 net.cpp:124] Setting up Sigmoid0
I0501 06:32:58.728539   892 net.cpp:131] Top shape: 111 8 32 32 (909312)
I0501 06:32:58.728543   892 net.cpp:139] Memory required for data: 8638908
I0501 06:32:58.728545   892 layer_factory.hpp:77] Creating layer pool0
I0501 06:32:58.728552   892 net.cpp:86] Creating Layer pool0
I0501 06:32:58.728555   892 net.cpp:408] pool0 <- Sigmoid0
I0501 06:32:58.728559   892 net.cpp:382] pool0 -> pool0
I0501 06:32:58.729275   892 net.cpp:124] Setting up pool0
I0501 06:32:58.729288   892 net.cpp:131] Top shape: 111 8 16 16 (227328)
I0501 06:32:58.729291   892 net.cpp:139] Memory required for data: 9548220
I0501 06:32:58.729295   892 layer_factory.hpp:77] Creating layer ip1
I0501 06:32:58.729305   892 net.cpp:86] Creating Layer ip1
I0501 06:32:58.729308   892 net.cpp:408] ip1 <- pool0
I0501 06:32:58.729312   892 net.cpp:382] ip1 -> ip1
I0501 06:32:58.738605   892 net.cpp:124] Setting up ip1
I0501 06:32:58.738616   892 net.cpp:131] Top shape: 111 160 (17760)
I0501 06:32:58.738620   892 net.cpp:139] Memory required for data: 9619260
I0501 06:32:58.738627   892 layer_factory.hpp:77] Creating layer relu1
I0501 06:32:58.738633   892 net.cpp:86] Creating Layer relu1
I0501 06:32:58.738636   892 net.cpp:408] relu1 <- ip1
I0501 06:32:58.738641   892 net.cpp:369] relu1 -> ip1 (in-place)
I0501 06:32:58.738785   892 net.cpp:124] Setting up relu1
I0501 06:32:58.738792   892 net.cpp:131] Top shape: 111 160 (17760)
I0501 06:32:58.738795   892 net.cpp:139] Memory required for data: 9690300
I0501 06:32:58.738798   892 layer_factory.hpp:77] Creating layer ip2
I0501 06:32:58.738804   892 net.cpp:86] Creating Layer ip2
I0501 06:32:58.738807   892 net.cpp:408] ip2 <- ip1
I0501 06:32:58.738811   892 net.cpp:382] ip2 -> ip2
I0501 06:32:58.739881   892 net.cpp:124] Setting up ip2
I0501 06:32:58.739893   892 net.cpp:131] Top shape: 111 40 (4440)
I0501 06:32:58.739897   892 net.cpp:139] Memory required for data: 9708060
I0501 06:32:58.739903   892 layer_factory.hpp:77] Creating layer relu2
I0501 06:32:58.739909   892 net.cpp:86] Creating Layer relu2
I0501 06:32:58.739912   892 net.cpp:408] relu2 <- ip2
I0501 06:32:58.739917   892 net.cpp:369] relu2 -> ip2 (in-place)
I0501 06:32:58.740087   892 net.cpp:124] Setting up relu2
I0501 06:32:58.740095   892 net.cpp:131] Top shape: 111 40 (4440)
I0501 06:32:58.740098   892 net.cpp:139] Memory required for data: 9725820
I0501 06:32:58.740101   892 layer_factory.hpp:77] Creating layer ip3
I0501 06:32:58.740108   892 net.cpp:86] Creating Layer ip3
I0501 06:32:58.740113   892 net.cpp:408] ip3 <- ip2
I0501 06:32:58.740118   892 net.cpp:382] ip3 -> ip3
I0501 06:32:58.740373   892 net.cpp:124] Setting up ip3
I0501 06:32:58.740381   892 net.cpp:131] Top shape: 111 160 (17760)
I0501 06:32:58.740383   892 net.cpp:139] Memory required for data: 9796860
I0501 06:32:58.740388   892 layer_factory.hpp:77] Creating layer relu3
I0501 06:32:58.740392   892 net.cpp:86] Creating Layer relu3
I0501 06:32:58.740396   892 net.cpp:408] relu3 <- ip3
I0501 06:32:58.740399   892 net.cpp:369] relu3 -> ip3 (in-place)
I0501 06:32:58.740536   892 net.cpp:124] Setting up relu3
I0501 06:32:58.740545   892 net.cpp:131] Top shape: 111 160 (17760)
I0501 06:32:58.740547   892 net.cpp:139] Memory required for data: 9867900
I0501 06:32:58.740550   892 layer_factory.hpp:77] Creating layer ip4
I0501 06:32:58.740569   892 net.cpp:86] Creating Layer ip4
I0501 06:32:58.740572   892 net.cpp:408] ip4 <- ip3
I0501 06:32:58.740577   892 net.cpp:382] ip4 -> ip4
I0501 06:32:58.740720   892 net.cpp:124] Setting up ip4
I0501 06:32:58.740727   892 net.cpp:131] Top shape: 111 10 (1110)
I0501 06:32:58.740730   892 net.cpp:139] Memory required for data: 9872340
I0501 06:32:58.740737   892 layer_factory.hpp:77] Creating layer loss
I0501 06:32:58.740742   892 net.cpp:86] Creating Layer loss
I0501 06:32:58.740746   892 net.cpp:408] loss <- ip4
I0501 06:32:58.740749   892 net.cpp:408] loss <- label
I0501 06:32:58.740754   892 net.cpp:382] loss -> loss
I0501 06:32:58.740767   892 layer_factory.hpp:77] Creating layer loss
…
I0501 06:32:58.742183   892 solver.cpp:173] Creating test net (#0) specified by net file: ECE595/cifar/train_test/var_everything/cifar_train_test_454.prototxt
I0501 06:32:58.742254   892 net.cpp:296] The NetState phase (1) differed from the phase (0) specified by a rule in layer cifar
I0501 06:32:58.742377   892 net.cpp:53] Initializing net from parameters: 
name: "CIFAR"
state {
  phase: TEST
}
layer {
  name: "cifar"
  type: "Data"
  top: "data"
  top: "label"
  include {
    phase: TEST
  }
  transform_param {
    mean_file: "examples/cifar10/mean.binaryproto"
  }
  data_param {
    source: "examples/cifar10/cifar10_test_lmdb"
    batch_size: 1000
    backend: LMDB
  }
}
layer {
  name: "conv0"
  type: "Convolution"
  bottom: "data"
  top: "conv0"
  param {
    lr_mult: 1
  }
  param {
    lr_mult: 2
  }
  convolution_param {
    num_output: 8
    pad: 2
    kernel_size: 5
    stride: 1
    weight_filler {
      type: "gaussian"
      std: 0.01
    }
    bias_filler {
      type: "constant"
    }
  }
}
layer {
  name: "Sigmoid0"
  type: "Sigmoid"
  bottom: "conv0"
  top: "Sigmoid0"
}
layer {
  name: "pool0"
  type: "Pooling"
  bottom: "Sigmoid0"
  top: "pool0"
  pooling_param {
    pool: AVE
    kernel_size: 3
    stride: 2
  }
}
layer {
  name: "ip1"
  type: "InnerProduct"
  bottom: "pool0"
  top: "ip1"
  param {
    lr_mult: 1
  }
  param {
    lr_mult: 2
  }
  inner_product_param {
    num_output: 160
    weight_filler {
      type: "gaussian"
      std: 0.01
    }
    bias_filler {
      type: "constant"
    }
  }
}
layer {
  name: "relu1"
  type: "ReLU"
  bottom: "ip1"
  top: "ip1"
}
layer {
  name: "ip2"
  type: "InnerProduct"
  bottom: "ip1"
  top: "ip2"
  param {
    lr_mult: 1
  }
  param {
    lr_mult: 2
  }
  inner_product_param {
    num_output: 40
    weight_filler {
      type: "gaussian"
      std: 0.01
    }
    bias_filler {
      type: "constant"
    }
  }
}
layer {
  name: "relu2"
  type: "ReLU"
  bottom: "ip2"
  top: "ip2"
}
layer {
  name: "ip3"
  type: "InnerProduct"
  bottom: "ip2"
  top: "ip3"
  param {
    lr_mult: 1
  }
  param {
    lr_mult: 2
  }
  inner_product_param {
    num_output: 160
    weight_filler {
      type: "gaussian"
      std: 0.01
    }
    bias_filler {
      type: "constant"
    }
  }
}
layer {
  name: "relu3"
  type: "ReLU"
  bottom: "ip3"
  top: "ip3"
}
layer {
  name: "ip4"
  type: "InnerProduct"
  bottom: "ip3"
  top: "ip4"
  param {
    lr_mult: 1
  }
  param {
    lr_mult: 2
  }
  inner_product_param {
    num_output: 10
    weight_filler {
      type: "gaussian"
      std: 0.01
    }
    bias_filler {
      type: "constant"
    }
  }
}
layer {
  name: "accuracy"
  type: "Accuracy"
  bottom: "ip4"
  bottom: "label"
  top: "accuracy"
  include {
    phase: TEST
  }
}
layer {
  name: "loss"
  type: "SoftmaxWithLoss"
  bottom: "ip4"
  bottom: "label"
  top: "loss"
}
I0501 06:32:58.742452   892 layer_factory.hpp:77] Creating layer cifar
I0501 06:32:58.742509   892 db_lmdb.cpp:35] Opened lmdb examples/cifar10/cifar10_test_lmdb
I0501 06:32:58.742521   892 net.cpp:86] Creating Layer cifar
I0501 06:32:58.742524   892 net.cpp:382] cifar -> data
I0501 06:32:58.742532   892 net.cpp:382] cifar -> label
I0501 06:32:58.742537   892 data_transformer.cpp:25] Loading mean file from: examples/cifar10/mean.binaryproto
I0501 06:32:58.742667   892 data_layer.cpp:45] output data size: 1000,3,32,32
I0501 06:32:58.764119   892 net.cpp:124] Setting up cifar
I0501 06:32:58.764163   892 net.cpp:131] Top shape: 1000 3 32 32 (3072000)
I0501 06:32:58.764168   892 net.cpp:131] Top shape: 1000 (1000)
I0501 06:32:58.764171   892 net.cpp:139] Memory required for data: 12292000
I0501 06:32:58.764191   892 layer_factory.hpp:77] Creating layer label_cifar_1_split
I0501 06:32:58.764204   892 net.cpp:86] Creating Layer label_cifar_1_split
I0501 06:32:58.764207   892 net.cpp:408] label_cifar_1_split <- label
I0501 06:32:58.764214   892 net.cpp:382] label_cifar_1_split -> label_cifar_1_split_0
I0501 06:32:58.764237   892 net.cpp:382] label_cifar_1_split -> label_cifar_1_split_1
I0501 06:32:58.764318   892 net.cpp:124] Setting up label_cifar_1_split
I0501 06:32:58.764325   892 net.cpp:131] Top shape: 1000 (1000)
I0501 06:32:58.764329   892 net.cpp:131] Top shape: 1000 (1000)
I0501 06:32:58.764333   892 net.cpp:139] Memory required for data: 12300000
I0501 06:32:58.764335   892 layer_factory.hpp:77] Creating layer conv0
I0501 06:32:58.764348   892 net.cpp:86] Creating Layer conv0
I0501 06:32:58.764350   892 net.cpp:408] conv0 <- data
I0501 06:32:58.764355   892 net.cpp:382] conv0 -> conv0
I0501 06:32:58.765908   892 net.cpp:124] Setting up conv0
I0501 06:32:58.765938   892 net.cpp:131] Top shape: 1000 8 32 32 (8192000)
I0501 06:32:58.765956   892 net.cpp:139] Memory required for data: 45068000
I0501 06:32:58.765966   892 layer_factory.hpp:77] Creating layer Sigmoid0
I0501 06:32:58.765974   892 net.cpp:86] Creating Layer Sigmoid0
I0501 06:32:58.765977   892 net.cpp:408] Sigmoid0 <- conv0
I0501 06:32:58.765982   892 net.cpp:382] Sigmoid0 -> Sigmoid0
I0501 06:32:58.767247   892 net.cpp:124] Setting up Sigmoid0
I0501 06:32:58.767257   892 net.cpp:131] Top shape: 1000 8 32 32 (8192000)
I0501 06:32:58.767261   892 net.cpp:139] Memory required for data: 77836000
I0501 06:32:58.767279   892 layer_factory.hpp:77] Creating layer pool0
I0501 06:32:58.767287   892 net.cpp:86] Creating Layer pool0
I0501 06:32:58.767292   892 net.cpp:408] pool0 <- Sigmoid0
I0501 06:32:58.767297   892 net.cpp:382] pool0 -> pool0
I0501 06:32:58.767500   892 net.cpp:124] Setting up pool0
I0501 06:32:58.767508   892 net.cpp:131] Top shape: 1000 8 16 16 (2048000)
I0501 06:32:58.767514   892 net.cpp:139] Memory required for data: 86028000
I0501 06:32:58.767518   892 layer_factory.hpp:77] Creating layer ip1
I0501 06:32:58.767524   892 net.cpp:86] Creating Layer ip1
I0501 06:32:58.767527   892 net.cpp:408] ip1 <- pool0
I0501 06:32:58.767532   892 net.cpp:382] ip1 -> ip1
I0501 06:32:58.776959   892 net.cpp:124] Setting up ip1
I0501 06:32:58.776971   892 net.cpp:131] Top shape: 1000 160 (160000)
I0501 06:32:58.776990   892 net.cpp:139] Memory required for data: 86668000
I0501 06:32:58.777012   892 layer_factory.hpp:77] Creating layer relu1
I0501 06:32:58.777035   892 net.cpp:86] Creating Layer relu1
I0501 06:32:58.777040   892 net.cpp:408] relu1 <- ip1
I0501 06:32:58.777060   892 net.cpp:369] relu1 -> ip1 (in-place)
I0501 06:32:58.777259   892 net.cpp:124] Setting up relu1
I0501 06:32:58.777268   892 net.cpp:131] Top shape: 1000 160 (160000)
I0501 06:32:58.777271   892 net.cpp:139] Memory required for data: 87308000
I0501 06:32:58.777276   892 layer_factory.hpp:77] Creating layer ip2
I0501 06:32:58.777282   892 net.cpp:86] Creating Layer ip2
I0501 06:32:58.777285   892 net.cpp:408] ip2 <- ip1
I0501 06:32:58.777290   892 net.cpp:382] ip2 -> ip2
I0501 06:32:58.777607   892 net.cpp:124] Setting up ip2
I0501 06:32:58.777629   892 net.cpp:131] Top shape: 1000 40 (40000)
I0501 06:32:58.777632   892 net.cpp:139] Memory required for data: 87468000
I0501 06:32:58.777639   892 layer_factory.hpp:77] Creating layer relu2
I0501 06:32:58.777647   892 net.cpp:86] Creating Layer relu2
I0501 06:32:58.777649   892 net.cpp:408] relu2 <- ip2
I0501 06:32:58.777653   892 net.cpp:369] relu2 -> ip2 (in-place)
I0501 06:32:58.778511   892 net.cpp:124] Setting up relu2
I0501 06:32:58.778538   892 net.cpp:131] Top shape: 1000 40 (40000)
I0501 06:32:58.778542   892 net.cpp:139] Memory required for data: 87628000
I0501 06:32:58.778545   892 layer_factory.hpp:77] Creating layer ip3
I0501 06:32:58.778568   892 net.cpp:86] Creating Layer ip3
I0501 06:32:58.778570   892 net.cpp:408] ip3 <- ip2
I0501 06:32:58.778590   892 net.cpp:382] ip3 -> ip3
I0501 06:32:58.778873   892 net.cpp:124] Setting up ip3
I0501 06:32:58.778882   892 net.cpp:131] Top shape: 1000 160 (160000)
I0501 06:32:58.778884   892 net.cpp:139] Memory required for data: 88268000
I0501 06:32:58.778890   892 layer_factory.hpp:77] Creating layer relu3
I0501 06:32:58.778895   892 net.cpp:86] Creating Layer relu3
I0501 06:32:58.778898   892 net.cpp:408] relu3 <- ip3
I0501 06:32:58.778903   892 net.cpp:369] relu3 -> ip3 (in-place)
I0501 06:32:58.779052   892 net.cpp:124] Setting up relu3
I0501 06:32:58.779060   892 net.cpp:131] Top shape: 1000 160 (160000)
I0501 06:32:58.779063   892 net.cpp:139] Memory required for data: 88908000
I0501 06:32:58.779067   892 layer_factory.hpp:77] Creating layer ip4
I0501 06:32:58.779073   892 net.cpp:86] Creating Layer ip4
I0501 06:32:58.779076   892 net.cpp:408] ip4 <- ip3
I0501 06:32:58.779081   892 net.cpp:382] ip4 -> ip4
I0501 06:32:58.779237   892 net.cpp:124] Setting up ip4
I0501 06:32:58.779243   892 net.cpp:131] Top shape: 1000 10 (10000)
I0501 06:32:58.779247   892 net.cpp:139] Memory required for data: 88948000
I0501 06:32:58.779253   892 layer_factory.hpp:77] Creating layer ip4_ip4_0_split
I0501 06:32:58.779259   892 net.cpp:86] Creating Layer ip4_ip4_0_split
I0501 06:32:58.779263   892 net.cpp:408] ip4_ip4_0_split <- ip4
I0501 06:32:58.779266   892 net.cpp:382] ip4_ip4_0_split -> ip4_ip4_0_split_0
I0501 06:32:58.779271   892 net.cpp:382] ip4_ip4_0_split -> ip4_ip4_0_split_1
I0501 06:32:58.779304   892 net.cpp:124] Setting up ip4_ip4_0_split
I0501 06:32:58.779314   892 net.cpp:131] Top shape: 1000 10 (10000)
I0501 06:32:58.779316   892 net.cpp:131] Top shape: 1000 10 (10000)
I0501 06:32:58.779320   892 net.cpp:139] Memory required for data: 89028000
I0501 06:32:58.779322   892 layer_factory.hpp:77] Creating layer accuracy
I0501 06:32:58.779327   892 net.cpp:86] Creating Layer accuracy
I0501 06:32:58.779330   892 net.cpp:408] accuracy <- ip4_ip4_0_split_0
I0501 06:32:58.779335   892 net.cpp:408] accuracy <- label_cifar_1_split_0
I0501 06:32:58.779340   892 net.cpp:382] accuracy -> accuracy
…
