…
I0501 04:19:20.734570 24731 net.cpp:296] The NetState phase (0) differed from the phase (1) specified by a rule in layer cifar
I0501 04:19:20.734586 24731 net.cpp:296] The NetState phase (0) differed from the phase (1) specified by a rule in layer accuracy
I0501 04:19:20.734700 24731 net.cpp:53] Initializing net from parameters: 
name: "CIFAR"
state {
  phase: TRAIN
  level: 0
  stage: ""
}
layer {
  name: "cifar"
  type: "Data"
  top: "data"
  top: "label"
  include {
    phase: TRAIN
  }
  transform_param {
    mean_file: "examples/cifar10/mean.binaryproto"
  }
  data_param {
    source: "examples/cifar10/cifar10_train_lmdb"
    batch_size: 111
    backend: LMDB
  }
}
layer {
  name: "conv0"
  type: "Convolution"
  bottom: "data"
  top: "conv0"
  param {
    lr_mult: 1
  }
  param {
    lr_mult: 2
  }
  convolution_param {
    num_output: 8
    pad: 2
    kernel_size: 5
    stride: 1
    weight_filler {
      type: "gaussian"
      std: 0.01
    }
    bias_filler {
      type: "constant"
    }
  }
}
layer {
  name: "Sigmoid0"
  type: "Sigmoid"
  bottom: "conv0"
  top: "Sigmoid0"
}
layer {
  name: "pool0"
  type: "Pooling"
  bottom: "Sigmoid0"
  top: "pool0"
  pooling_param {
    pool: AVE
    kernel_size: 3
    stride: 2
  }
}
layer {
  name: "ip1"
  type: "InnerProduct"
  bottom: "pool0"
  top: "ip1"
  param {
    lr_mult: 1
  }
  param {
    lr_mult: 2
  }
  inner_product_param {
    num_output: 20
    weight_filler {
      type: "gaussian"
      std: 0.01
    }
    bias_filler {
      type: "constant"
    }
  }
}
layer {
  name: "relu1"
  type: "ReLU"
  bottom: "ip1"
  top: "ip1"
}
layer {
  name: "ip2"
  type: "InnerProduct"
  bottom: "ip1"
  top: "ip2"
  param {
    lr_mult: 1
  }
  param {
    lr_mult: 2
  }
  inner_product_param {
    num_output: 80
    weight_filler {
      type: "gaussian"
      std: 0.01
    }
    bias_filler {
      type: "constant"
    }
  }
}
layer {
  name: "relu2"
  type: "ReLU"
  bottom: "ip2"
  top: "ip2"
}
layer {
  name: "ip3"
  type: "InnerProduct"
  bottom: "ip2"
  top: "ip3"
  param {
    lr_mult: 1
  }
  param {
    lr_mult: 2
  }
  inner_product_param {
    num_output: 40
    weight_filler {
      type: "gaussian"
      std: 0.01
    }
    bias_filler {
      type: "constant"
    }
  }
}
layer {
  name: "relu3"
  type: "ReLU"
  bottom: "ip3"
  top: "ip3"
}
layer {
  name: "ip4"
  type: "InnerProduct"
  bottom: "ip3"
  top: "ip4"
  param {
    lr_mult: 1
  }
  param {
    lr_mult: 2
  }
  inner_product_param {
    num_output: 10
    weight_filler {
      type: "gaussian"
      std: 0.01
    }
    bias_filler {
      type: "constant"
    }
  }
}
layer {
  name: "loss"
  type: "SoftmaxWithLoss"
  bottom: "ip4"
  bottom: "label"
  top: "loss"
}
I0501 04:19:20.734764 24731 layer_factory.hpp:77] Creating layer cifar
I0501 04:19:20.734846 24731 db_lmdb.cpp:35] Opened lmdb examples/cifar10/cifar10_train_lmdb
I0501 04:19:20.734869 24731 net.cpp:86] Creating Layer cifar
I0501 04:19:20.734877 24731 net.cpp:382] cifar -> data
I0501 04:19:20.734895 24731 net.cpp:382] cifar -> label
I0501 04:19:20.734905 24731 data_transformer.cpp:25] Loading mean file from: examples/cifar10/mean.binaryproto
I0501 04:19:20.736814 24731 data_layer.cpp:45] output data size: 111,3,32,32
I0501 04:19:20.743304 24731 net.cpp:124] Setting up cifar
I0501 04:19:20.743348 24731 net.cpp:131] Top shape: 111 3 32 32 (340992)
I0501 04:19:20.743353 24731 net.cpp:131] Top shape: 111 (111)
I0501 04:19:20.743356 24731 net.cpp:139] Memory required for data: 1364412
I0501 04:19:20.743376 24731 layer_factory.hpp:77] Creating layer conv0
I0501 04:19:20.743407 24731 net.cpp:86] Creating Layer conv0
I0501 04:19:20.743412 24731 net.cpp:408] conv0 <- data
I0501 04:19:20.743423 24731 net.cpp:382] conv0 -> conv0
I0501 04:19:20.968910 24731 net.cpp:124] Setting up conv0
I0501 04:19:20.968952 24731 net.cpp:131] Top shape: 111 8 32 32 (909312)
I0501 04:19:20.968956 24731 net.cpp:139] Memory required for data: 5001660
I0501 04:19:20.968972 24731 layer_factory.hpp:77] Creating layer Sigmoid0
I0501 04:19:20.968984 24731 net.cpp:86] Creating Layer Sigmoid0
I0501 04:19:20.968987 24731 net.cpp:408] Sigmoid0 <- conv0
I0501 04:19:20.968992 24731 net.cpp:382] Sigmoid0 -> Sigmoid0
I0501 04:19:20.969198 24731 net.cpp:124] Setting up Sigmoid0
I0501 04:19:20.969208 24731 net.cpp:131] Top shape: 111 8 32 32 (909312)
I0501 04:19:20.969211 24731 net.cpp:139] Memory required for data: 8638908
I0501 04:19:20.969214 24731 layer_factory.hpp:77] Creating layer pool0
I0501 04:19:20.969221 24731 net.cpp:86] Creating Layer pool0
I0501 04:19:20.969224 24731 net.cpp:408] pool0 <- Sigmoid0
I0501 04:19:20.969229 24731 net.cpp:382] pool0 -> pool0
I0501 04:19:20.969977 24731 net.cpp:124] Setting up pool0
I0501 04:19:20.969990 24731 net.cpp:131] Top shape: 111 8 16 16 (227328)
I0501 04:19:20.970010 24731 net.cpp:139] Memory required for data: 9548220
I0501 04:19:20.970012 24731 layer_factory.hpp:77] Creating layer ip1
I0501 04:19:20.970022 24731 net.cpp:86] Creating Layer ip1
I0501 04:19:20.970026 24731 net.cpp:408] ip1 <- pool0
I0501 04:19:20.970031 24731 net.cpp:382] ip1 -> ip1
I0501 04:19:20.971976 24731 net.cpp:124] Setting up ip1
I0501 04:19:20.971987 24731 net.cpp:131] Top shape: 111 20 (2220)
I0501 04:19:20.972004 24731 net.cpp:139] Memory required for data: 9557100
I0501 04:19:20.972012 24731 layer_factory.hpp:77] Creating layer relu1
I0501 04:19:20.972019 24731 net.cpp:86] Creating Layer relu1
I0501 04:19:20.972023 24731 net.cpp:408] relu1 <- ip1
I0501 04:19:20.972028 24731 net.cpp:369] relu1 -> ip1 (in-place)
I0501 04:19:20.972223 24731 net.cpp:124] Setting up relu1
I0501 04:19:20.972231 24731 net.cpp:131] Top shape: 111 20 (2220)
I0501 04:19:20.972234 24731 net.cpp:139] Memory required for data: 9565980
I0501 04:19:20.972239 24731 layer_factory.hpp:77] Creating layer ip2
I0501 04:19:20.972245 24731 net.cpp:86] Creating Layer ip2
I0501 04:19:20.972249 24731 net.cpp:408] ip2 <- ip1
I0501 04:19:20.972252 24731 net.cpp:382] ip2 -> ip2
I0501 04:19:20.972409 24731 net.cpp:124] Setting up ip2
I0501 04:19:20.972416 24731 net.cpp:131] Top shape: 111 80 (8880)
I0501 04:19:20.972419 24731 net.cpp:139] Memory required for data: 9601500
I0501 04:19:20.972426 24731 layer_factory.hpp:77] Creating layer relu2
I0501 04:19:20.972431 24731 net.cpp:86] Creating Layer relu2
I0501 04:19:20.972434 24731 net.cpp:408] relu2 <- ip2
I0501 04:19:20.972440 24731 net.cpp:369] relu2 -> ip2 (in-place)
I0501 04:19:20.972594 24731 net.cpp:124] Setting up relu2
I0501 04:19:20.972600 24731 net.cpp:131] Top shape: 111 80 (8880)
I0501 04:19:20.972604 24731 net.cpp:139] Memory required for data: 9637020
I0501 04:19:20.972606 24731 layer_factory.hpp:77] Creating layer ip3
I0501 04:19:20.972615 24731 net.cpp:86] Creating Layer ip3
I0501 04:19:20.972617 24731 net.cpp:408] ip3 <- ip2
I0501 04:19:20.972621 24731 net.cpp:382] ip3 -> ip3
I0501 04:19:20.972798 24731 net.cpp:124] Setting up ip3
I0501 04:19:20.972805 24731 net.cpp:131] Top shape: 111 40 (4440)
I0501 04:19:20.972815 24731 net.cpp:139] Memory required for data: 9654780
I0501 04:19:20.972837 24731 layer_factory.hpp:77] Creating layer relu3
I0501 04:19:20.972847 24731 net.cpp:86] Creating Layer relu3
I0501 04:19:20.972852 24731 net.cpp:408] relu3 <- ip3
I0501 04:19:20.972856 24731 net.cpp:369] relu3 -> ip3 (in-place)
I0501 04:19:20.973016 24731 net.cpp:124] Setting up relu3
I0501 04:19:20.973023 24731 net.cpp:131] Top shape: 111 40 (4440)
I0501 04:19:20.973026 24731 net.cpp:139] Memory required for data: 9672540
I0501 04:19:20.973029 24731 layer_factory.hpp:77] Creating layer ip4
I0501 04:19:20.973050 24731 net.cpp:86] Creating Layer ip4
I0501 04:19:20.973053 24731 net.cpp:408] ip4 <- ip3
I0501 04:19:20.973059 24731 net.cpp:382] ip4 -> ip4
I0501 04:19:20.973197 24731 net.cpp:124] Setting up ip4
I0501 04:19:20.973206 24731 net.cpp:131] Top shape: 111 10 (1110)
I0501 04:19:20.973207 24731 net.cpp:139] Memory required for data: 9676980
I0501 04:19:20.973217 24731 layer_factory.hpp:77] Creating layer loss
I0501 04:19:20.973222 24731 net.cpp:86] Creating Layer loss
I0501 04:19:20.973225 24731 net.cpp:408] loss <- ip4
I0501 04:19:20.973228 24731 net.cpp:408] loss <- label
I0501 04:19:20.973233 24731 net.cpp:382] loss -> loss
I0501 04:19:20.973250 24731 layer_factory.hpp:77] Creating layer loss
…
I0501 04:19:20.974480 24731 solver.cpp:173] Creating test net (#0) specified by net file: ECE595/cifar/train_test/var_everything/cifar_train_test_382.prototxt
I0501 04:19:20.974508 24731 net.cpp:296] The NetState phase (1) differed from the phase (0) specified by a rule in layer cifar
I0501 04:19:20.974617 24731 net.cpp:53] Initializing net from parameters: 
name: "CIFAR"
state {
  phase: TEST
}
layer {
  name: "cifar"
  type: "Data"
  top: "data"
  top: "label"
  include {
    phase: TEST
  }
  transform_param {
    mean_file: "examples/cifar10/mean.binaryproto"
  }
  data_param {
    source: "examples/cifar10/cifar10_test_lmdb"
    batch_size: 1000
    backend: LMDB
  }
}
layer {
  name: "conv0"
  type: "Convolution"
  bottom: "data"
  top: "conv0"
  param {
    lr_mult: 1
  }
  param {
    lr_mult: 2
  }
  convolution_param {
    num_output: 8
    pad: 2
    kernel_size: 5
    stride: 1
    weight_filler {
      type: "gaussian"
      std: 0.01
    }
    bias_filler {
      type: "constant"
    }
  }
}
layer {
  name: "Sigmoid0"
  type: "Sigmoid"
  bottom: "conv0"
  top: "Sigmoid0"
}
layer {
  name: "pool0"
  type: "Pooling"
  bottom: "Sigmoid0"
  top: "pool0"
  pooling_param {
    pool: AVE
    kernel_size: 3
    stride: 2
  }
}
layer {
  name: "ip1"
  type: "InnerProduct"
  bottom: "pool0"
  top: "ip1"
  param {
    lr_mult: 1
  }
  param {
    lr_mult: 2
  }
  inner_product_param {
    num_output: 20
    weight_filler {
      type: "gaussian"
      std: 0.01
    }
    bias_filler {
      type: "constant"
    }
  }
}
layer {
  name: "relu1"
  type: "ReLU"
  bottom: "ip1"
  top: "ip1"
}
layer {
  name: "ip2"
  type: "InnerProduct"
  bottom: "ip1"
  top: "ip2"
  param {
    lr_mult: 1
  }
  param {
    lr_mult: 2
  }
  inner_product_param {
    num_output: 80
    weight_filler {
      type: "gaussian"
      std: 0.01
    }
    bias_filler {
      type: "constant"
    }
  }
}
layer {
  name: "relu2"
  type: "ReLU"
  bottom: "ip2"
  top: "ip2"
}
layer {
  name: "ip3"
  type: "InnerProduct"
  bottom: "ip2"
  top: "ip3"
  param {
    lr_mult: 1
  }
  param {
    lr_mult: 2
  }
  inner_product_param {
    num_output: 40
    weight_filler {
      type: "gaussian"
      std: 0.01
    }
    bias_filler {
      type: "constant"
    }
  }
}
layer {
  name: "relu3"
  type: "ReLU"
  bottom: "ip3"
  top: "ip3"
}
layer {
  name: "ip4"
  type: "InnerProduct"
  bottom: "ip3"
  top: "ip4"
  param {
    lr_mult: 1
  }
  param {
    lr_mult: 2
  }
  inner_product_param {
    num_output: 10
    weight_filler {
      type: "gaussian"
      std: 0.01
    }
    bias_filler {
      type: "constant"
    }
  }
}
layer {
  name: "accuracy"
  type: "Accuracy"
  bottom: "ip4"
  bottom: "label"
  top: "accuracy"
  include {
    phase: TEST
  }
}
layer {
  name: "loss"
  type: "SoftmaxWithLoss"
  bottom: "ip4"
  bottom: "label"
  top: "loss"
}
I0501 04:19:20.974697 24731 layer_factory.hpp:77] Creating layer cifar
I0501 04:19:20.974740 24731 db_lmdb.cpp:35] Opened lmdb examples/cifar10/cifar10_test_lmdb
I0501 04:19:20.974755 24731 net.cpp:86] Creating Layer cifar
I0501 04:19:20.974758 24731 net.cpp:382] cifar -> data
I0501 04:19:20.974766 24731 net.cpp:382] cifar -> label
I0501 04:19:20.974771 24731 data_transformer.cpp:25] Loading mean file from: examples/cifar10/mean.binaryproto
I0501 04:19:20.974915 24731 data_layer.cpp:45] output data size: 1000,3,32,32
I0501 04:19:20.997004 24731 net.cpp:124] Setting up cifar
I0501 04:19:20.997045 24731 net.cpp:131] Top shape: 1000 3 32 32 (3072000)
I0501 04:19:20.997051 24731 net.cpp:131] Top shape: 1000 (1000)
I0501 04:19:20.997053 24731 net.cpp:139] Memory required for data: 12292000
I0501 04:19:20.997058 24731 layer_factory.hpp:77] Creating layer label_cifar_1_split
I0501 04:19:20.997076 24731 net.cpp:86] Creating Layer label_cifar_1_split
I0501 04:19:20.997078 24731 net.cpp:408] label_cifar_1_split <- label
I0501 04:19:20.997086 24731 net.cpp:382] label_cifar_1_split -> label_cifar_1_split_0
I0501 04:19:20.997094 24731 net.cpp:382] label_cifar_1_split -> label_cifar_1_split_1
I0501 04:19:20.997167 24731 net.cpp:124] Setting up label_cifar_1_split
I0501 04:19:20.997174 24731 net.cpp:131] Top shape: 1000 (1000)
I0501 04:19:20.997179 24731 net.cpp:131] Top shape: 1000 (1000)
I0501 04:19:20.997181 24731 net.cpp:139] Memory required for data: 12300000
I0501 04:19:20.997184 24731 layer_factory.hpp:77] Creating layer conv0
I0501 04:19:20.997196 24731 net.cpp:86] Creating Layer conv0
I0501 04:19:20.997200 24731 net.cpp:408] conv0 <- data
I0501 04:19:20.997205 24731 net.cpp:382] conv0 -> conv0
I0501 04:19:20.999717 24731 net.cpp:124] Setting up conv0
I0501 04:19:20.999747 24731 net.cpp:131] Top shape: 1000 8 32 32 (8192000)
I0501 04:19:20.999752 24731 net.cpp:139] Memory required for data: 45068000
I0501 04:19:20.999761 24731 layer_factory.hpp:77] Creating layer Sigmoid0
I0501 04:19:20.999778 24731 net.cpp:86] Creating Layer Sigmoid0
I0501 04:19:20.999780 24731 net.cpp:408] Sigmoid0 <- conv0
I0501 04:19:20.999784 24731 net.cpp:382] Sigmoid0 -> Sigmoid0
I0501 04:19:20.999994 24731 net.cpp:124] Setting up Sigmoid0
I0501 04:19:21.000001 24731 net.cpp:131] Top shape: 1000 8 32 32 (8192000)
I0501 04:19:21.000005 24731 net.cpp:139] Memory required for data: 77836000
I0501 04:19:21.000008 24731 layer_factory.hpp:77] Creating layer pool0
I0501 04:19:21.000015 24731 net.cpp:86] Creating Layer pool0
I0501 04:19:21.000020 24731 net.cpp:408] pool0 <- Sigmoid0
I0501 04:19:21.000025 24731 net.cpp:382] pool0 -> pool0
I0501 04:19:21.000190 24731 net.cpp:124] Setting up pool0
I0501 04:19:21.000198 24731 net.cpp:131] Top shape: 1000 8 16 16 (2048000)
I0501 04:19:21.000201 24731 net.cpp:139] Memory required for data: 86028000
I0501 04:19:21.000205 24731 layer_factory.hpp:77] Creating layer ip1
I0501 04:19:21.000212 24731 net.cpp:86] Creating Layer ip1
I0501 04:19:21.000216 24731 net.cpp:408] ip1 <- pool0
I0501 04:19:21.000221 24731 net.cpp:382] ip1 -> ip1
I0501 04:19:21.001410 24731 net.cpp:124] Setting up ip1
I0501 04:19:21.001418 24731 net.cpp:131] Top shape: 1000 20 (20000)
I0501 04:19:21.001444 24731 net.cpp:139] Memory required for data: 86108000
I0501 04:19:21.001466 24731 layer_factory.hpp:77] Creating layer relu1
I0501 04:19:21.001472 24731 net.cpp:86] Creating Layer relu1
I0501 04:19:21.001493 24731 net.cpp:408] relu1 <- ip1
I0501 04:19:21.001502 24731 net.cpp:369] relu1 -> ip1 (in-place)
I0501 04:19:21.001691 24731 net.cpp:124] Setting up relu1
I0501 04:19:21.001700 24731 net.cpp:131] Top shape: 1000 20 (20000)
I0501 04:19:21.001704 24731 net.cpp:139] Memory required for data: 86188000
I0501 04:19:21.001708 24731 layer_factory.hpp:77] Creating layer ip2
I0501 04:19:21.001713 24731 net.cpp:86] Creating Layer ip2
I0501 04:19:21.001718 24731 net.cpp:408] ip2 <- ip1
I0501 04:19:21.001724 24731 net.cpp:382] ip2 -> ip2
I0501 04:19:21.001878 24731 net.cpp:124] Setting up ip2
I0501 04:19:21.001885 24731 net.cpp:131] Top shape: 1000 80 (80000)
I0501 04:19:21.001888 24731 net.cpp:139] Memory required for data: 86508000
I0501 04:19:21.001895 24731 layer_factory.hpp:77] Creating layer relu2
I0501 04:19:21.001901 24731 net.cpp:86] Creating Layer relu2
I0501 04:19:21.001904 24731 net.cpp:408] relu2 <- ip2
I0501 04:19:21.001910 24731 net.cpp:369] relu2 -> ip2 (in-place)
I0501 04:19:21.002661 24731 net.cpp:124] Setting up relu2
I0501 04:19:21.002672 24731 net.cpp:131] Top shape: 1000 80 (80000)
I0501 04:19:21.002691 24731 net.cpp:139] Memory required for data: 86828000
I0501 04:19:21.002694 24731 layer_factory.hpp:77] Creating layer ip3
I0501 04:19:21.002702 24731 net.cpp:86] Creating Layer ip3
I0501 04:19:21.002707 24731 net.cpp:408] ip3 <- ip2
I0501 04:19:21.002712 24731 net.cpp:382] ip3 -> ip3
I0501 04:19:21.002938 24731 net.cpp:124] Setting up ip3
I0501 04:19:21.002945 24731 net.cpp:131] Top shape: 1000 40 (40000)
I0501 04:19:21.002948 24731 net.cpp:139] Memory required for data: 86988000
I0501 04:19:21.002954 24731 layer_factory.hpp:77] Creating layer relu3
I0501 04:19:21.002959 24731 net.cpp:86] Creating Layer relu3
I0501 04:19:21.002961 24731 net.cpp:408] relu3 <- ip3
I0501 04:19:21.002966 24731 net.cpp:369] relu3 -> ip3 (in-place)
I0501 04:19:21.003137 24731 net.cpp:124] Setting up relu3
I0501 04:19:21.003144 24731 net.cpp:131] Top shape: 1000 40 (40000)
I0501 04:19:21.003147 24731 net.cpp:139] Memory required for data: 87148000
I0501 04:19:21.003150 24731 layer_factory.hpp:77] Creating layer ip4
I0501 04:19:21.003157 24731 net.cpp:86] Creating Layer ip4
I0501 04:19:21.003160 24731 net.cpp:408] ip4 <- ip3
I0501 04:19:21.003165 24731 net.cpp:382] ip4 -> ip4
I0501 04:19:21.003278 24731 net.cpp:124] Setting up ip4
I0501 04:19:21.003284 24731 net.cpp:131] Top shape: 1000 10 (10000)
I0501 04:19:21.003286 24731 net.cpp:139] Memory required for data: 87188000
I0501 04:19:21.003295 24731 layer_factory.hpp:77] Creating layer ip4_ip4_0_split
I0501 04:19:21.003300 24731 net.cpp:86] Creating Layer ip4_ip4_0_split
I0501 04:19:21.003304 24731 net.cpp:408] ip4_ip4_0_split <- ip4
I0501 04:19:21.003307 24731 net.cpp:382] ip4_ip4_0_split -> ip4_ip4_0_split_0
I0501 04:19:21.003312 24731 net.cpp:382] ip4_ip4_0_split -> ip4_ip4_0_split_1
I0501 04:19:21.003345 24731 net.cpp:124] Setting up ip4_ip4_0_split
I0501 04:19:21.003350 24731 net.cpp:131] Top shape: 1000 10 (10000)
I0501 04:19:21.003353 24731 net.cpp:131] Top shape: 1000 10 (10000)
I0501 04:19:21.003356 24731 net.cpp:139] Memory required for data: 87268000
I0501 04:19:21.003358 24731 layer_factory.hpp:77] Creating layer accuracy
I0501 04:19:21.003365 24731 net.cpp:86] Creating Layer accuracy
I0501 04:19:21.003366 24731 net.cpp:408] accuracy <- ip4_ip4_0_split_0
I0501 04:19:21.003371 24731 net.cpp:408] accuracy <- label_cifar_1_split_0
I0501 04:19:21.003376 24731 net.cpp:382] accuracy -> accuracy
…
