…
I0501 09:28:16.626965 14553 net.cpp:296] The NetState phase (0) differed from the phase (1) specified by a rule in layer cifar
I0501 09:28:16.626983 14553 net.cpp:296] The NetState phase (0) differed from the phase (1) specified by a rule in layer accuracy
I0501 09:28:16.627089 14553 net.cpp:53] Initializing net from parameters: 
name: "CIFAR"
state {
  phase: TRAIN
  level: 0
  stage: ""
}
layer {
  name: "cifar"
  type: "Data"
  top: "data"
  top: "label"
  include {
    phase: TRAIN
  }
  transform_param {
    mean_file: "examples/cifar10/mean.binaryproto"
  }
  data_param {
    source: "examples/cifar10/cifar10_train_lmdb"
    batch_size: 111
    backend: LMDB
  }
}
layer {
  name: "conv0"
  type: "Convolution"
  bottom: "data"
  top: "conv0"
  param {
    lr_mult: 1
  }
  param {
    lr_mult: 2
  }
  convolution_param {
    num_output: 16
    pad: 2
    kernel_size: 3
    stride: 1
    weight_filler {
      type: "gaussian"
      std: 0.01
    }
    bias_filler {
      type: "constant"
    }
  }
}
layer {
  name: "Sigmoid0"
  type: "Sigmoid"
  bottom: "conv0"
  top: "Sigmoid0"
}
layer {
  name: "pool0"
  type: "Pooling"
  bottom: "Sigmoid0"
  top: "pool0"
  pooling_param {
    pool: AVE
    kernel_size: 3
    stride: 2
  }
}
layer {
  name: "ip1"
  type: "InnerProduct"
  bottom: "pool0"
  top: "ip1"
  param {
    lr_mult: 1
  }
  param {
    lr_mult: 2
  }
  inner_product_param {
    num_output: 20
    weight_filler {
      type: "gaussian"
      std: 0.01
    }
    bias_filler {
      type: "constant"
    }
  }
}
layer {
  name: "relu1"
  type: "ReLU"
  bottom: "ip1"
  top: "ip1"
}
layer {
  name: "ip2"
  type: "InnerProduct"
  bottom: "ip1"
  top: "ip2"
  param {
    lr_mult: 1
  }
  param {
    lr_mult: 2
  }
  inner_product_param {
    num_output: 160
    weight_filler {
      type: "gaussian"
      std: 0.01
    }
    bias_filler {
      type: "constant"
    }
  }
}
layer {
  name: "relu2"
  type: "ReLU"
  bottom: "ip2"
  top: "ip2"
}
layer {
  name: "ip3"
  type: "InnerProduct"
  bottom: "ip2"
  top: "ip3"
  param {
    lr_mult: 1
  }
  param {
    lr_mult: 2
  }
  inner_product_param {
    num_output: 10
    weight_filler {
      type: "gaussian"
      std: 0.01
    }
    bias_filler {
      type: "constant"
    }
  }
}
layer {
  name: "relu3"
  type: "ReLU"
  bottom: "ip3"
  top: "ip3"
}
layer {
  name: "ip4"
  type: "InnerProduct"
  bottom: "ip3"
  top: "ip4"
  param {
    lr_mult: 1
  }
  param {
    lr_mult: 2
  }
  inner_product_param {
    num_output: 10
    weight_filler {
      type: "gaussian"
      std: 0.01
    }
    bias_filler {
      type: "constant"
    }
  }
}
layer {
  name: "loss"
  type: "SoftmaxWithLoss"
  bottom: "ip4"
  bottom: "label"
  top: "loss"
}
I0501 09:28:16.627172 14553 layer_factory.hpp:77] Creating layer cifar
I0501 09:28:16.627272 14553 db_lmdb.cpp:35] Opened lmdb examples/cifar10/cifar10_train_lmdb
I0501 09:28:16.627298 14553 net.cpp:86] Creating Layer cifar
I0501 09:28:16.627308 14553 net.cpp:382] cifar -> data
I0501 09:28:16.627331 14553 net.cpp:382] cifar -> label
I0501 09:28:16.627346 14553 data_transformer.cpp:25] Loading mean file from: examples/cifar10/mean.binaryproto
I0501 09:28:16.629523 14553 data_layer.cpp:45] output data size: 111,3,32,32
I0501 09:28:16.637501 14553 net.cpp:124] Setting up cifar
I0501 09:28:16.637519 14553 net.cpp:131] Top shape: 111 3 32 32 (340992)
I0501 09:28:16.637526 14553 net.cpp:131] Top shape: 111 (111)
I0501 09:28:16.637529 14553 net.cpp:139] Memory required for data: 1364412
I0501 09:28:16.637553 14553 layer_factory.hpp:77] Creating layer conv0
I0501 09:28:16.637574 14553 net.cpp:86] Creating Layer conv0
I0501 09:28:16.637580 14553 net.cpp:408] conv0 <- data
I0501 09:28:16.637594 14553 net.cpp:382] conv0 -> conv0
I0501 09:28:16.910004 14553 net.cpp:124] Setting up conv0
I0501 09:28:16.910046 14553 net.cpp:131] Top shape: 111 16 34 34 (2053056)
I0501 09:28:16.910050 14553 net.cpp:139] Memory required for data: 9576636
I0501 09:28:16.910065 14553 layer_factory.hpp:77] Creating layer Sigmoid0
I0501 09:28:16.910078 14553 net.cpp:86] Creating Layer Sigmoid0
I0501 09:28:16.910081 14553 net.cpp:408] Sigmoid0 <- conv0
I0501 09:28:16.910101 14553 net.cpp:382] Sigmoid0 -> Sigmoid0
I0501 09:28:16.910274 14553 net.cpp:124] Setting up Sigmoid0
I0501 09:28:16.910282 14553 net.cpp:131] Top shape: 111 16 34 34 (2053056)
I0501 09:28:16.910286 14553 net.cpp:139] Memory required for data: 17788860
I0501 09:28:16.910290 14553 layer_factory.hpp:77] Creating layer pool0
I0501 09:28:16.910296 14553 net.cpp:86] Creating Layer pool0
I0501 09:28:16.910300 14553 net.cpp:408] pool0 <- Sigmoid0
I0501 09:28:16.910303 14553 net.cpp:382] pool0 -> pool0
I0501 09:28:16.911059 14553 net.cpp:124] Setting up pool0
I0501 09:28:16.911087 14553 net.cpp:131] Top shape: 111 16 17 17 (513264)
I0501 09:28:16.911090 14553 net.cpp:139] Memory required for data: 19841916
I0501 09:28:16.911093 14553 layer_factory.hpp:77] Creating layer ip1
I0501 09:28:16.911103 14553 net.cpp:86] Creating Layer ip1
I0501 09:28:16.911105 14553 net.cpp:408] ip1 <- pool0
I0501 09:28:16.911110 14553 net.cpp:382] ip1 -> ip1
I0501 09:28:16.913640 14553 net.cpp:124] Setting up ip1
I0501 09:28:16.913648 14553 net.cpp:131] Top shape: 111 20 (2220)
I0501 09:28:16.913666 14553 net.cpp:139] Memory required for data: 19850796
I0501 09:28:16.913674 14553 layer_factory.hpp:77] Creating layer relu1
I0501 09:28:16.913679 14553 net.cpp:86] Creating Layer relu1
I0501 09:28:16.913683 14553 net.cpp:408] relu1 <- ip1
I0501 09:28:16.913688 14553 net.cpp:369] relu1 -> ip1 (in-place)
I0501 09:28:16.913885 14553 net.cpp:124] Setting up relu1
I0501 09:28:16.913894 14553 net.cpp:131] Top shape: 111 20 (2220)
I0501 09:28:16.913897 14553 net.cpp:139] Memory required for data: 19859676
I0501 09:28:16.913900 14553 layer_factory.hpp:77] Creating layer ip2
I0501 09:28:16.913908 14553 net.cpp:86] Creating Layer ip2
I0501 09:28:16.913910 14553 net.cpp:408] ip2 <- ip1
I0501 09:28:16.913915 14553 net.cpp:382] ip2 -> ip2
I0501 09:28:16.914126 14553 net.cpp:124] Setting up ip2
I0501 09:28:16.914134 14553 net.cpp:131] Top shape: 111 160 (17760)
I0501 09:28:16.914136 14553 net.cpp:139] Memory required for data: 19930716
I0501 09:28:16.914144 14553 layer_factory.hpp:77] Creating layer relu2
I0501 09:28:16.914149 14553 net.cpp:86] Creating Layer relu2
I0501 09:28:16.914152 14553 net.cpp:408] relu2 <- ip2
I0501 09:28:16.914156 14553 net.cpp:369] relu2 -> ip2 (in-place)
I0501 09:28:16.914295 14553 net.cpp:124] Setting up relu2
I0501 09:28:16.914304 14553 net.cpp:131] Top shape: 111 160 (17760)
I0501 09:28:16.914306 14553 net.cpp:139] Memory required for data: 20001756
I0501 09:28:16.914309 14553 layer_factory.hpp:77] Creating layer ip3
I0501 09:28:16.914316 14553 net.cpp:86] Creating Layer ip3
I0501 09:28:16.914319 14553 net.cpp:408] ip3 <- ip2
I0501 09:28:16.914324 14553 net.cpp:382] ip3 -> ip3
I0501 09:28:16.914448 14553 net.cpp:124] Setting up ip3
I0501 09:28:16.914454 14553 net.cpp:131] Top shape: 111 10 (1110)
I0501 09:28:16.914458 14553 net.cpp:139] Memory required for data: 20006196
I0501 09:28:16.914463 14553 layer_factory.hpp:77] Creating layer relu3
I0501 09:28:16.914466 14553 net.cpp:86] Creating Layer relu3
I0501 09:28:16.914469 14553 net.cpp:408] relu3 <- ip3
I0501 09:28:16.914474 14553 net.cpp:369] relu3 -> ip3 (in-place)
I0501 09:28:16.914608 14553 net.cpp:124] Setting up relu3
I0501 09:28:16.914615 14553 net.cpp:131] Top shape: 111 10 (1110)
I0501 09:28:16.914618 14553 net.cpp:139] Memory required for data: 20010636
I0501 09:28:16.914621 14553 layer_factory.hpp:77] Creating layer ip4
I0501 09:28:16.914641 14553 net.cpp:86] Creating Layer ip4
I0501 09:28:16.914644 14553 net.cpp:408] ip4 <- ip3
I0501 09:28:16.914649 14553 net.cpp:382] ip4 -> ip4
I0501 09:28:16.914757 14553 net.cpp:124] Setting up ip4
I0501 09:28:16.914765 14553 net.cpp:131] Top shape: 111 10 (1110)
I0501 09:28:16.914768 14553 net.cpp:139] Memory required for data: 20015076
I0501 09:28:16.914777 14553 layer_factory.hpp:77] Creating layer loss
I0501 09:28:16.914783 14553 net.cpp:86] Creating Layer loss
I0501 09:28:16.914785 14553 net.cpp:408] loss <- ip4
I0501 09:28:16.914789 14553 net.cpp:408] loss <- label
I0501 09:28:16.914794 14553 net.cpp:382] loss -> loss
I0501 09:28:16.914813 14553 layer_factory.hpp:77] Creating layer loss
…
I0501 09:28:16.916077 14553 solver.cpp:173] Creating test net (#0) specified by net file: ECE595/cifar/train_test/var_everything/cifar_train_test_540.prototxt
I0501 09:28:16.916105 14553 net.cpp:296] The NetState phase (1) differed from the phase (0) specified by a rule in layer cifar
I0501 09:28:16.916199 14553 net.cpp:53] Initializing net from parameters: 
name: "CIFAR"
state {
  phase: TEST
}
layer {
  name: "cifar"
  type: "Data"
  top: "data"
  top: "label"
  include {
    phase: TEST
  }
  transform_param {
    mean_file: "examples/cifar10/mean.binaryproto"
  }
  data_param {
    source: "examples/cifar10/cifar10_test_lmdb"
    batch_size: 1000
    backend: LMDB
  }
}
layer {
  name: "conv0"
  type: "Convolution"
  bottom: "data"
  top: "conv0"
  param {
    lr_mult: 1
  }
  param {
    lr_mult: 2
  }
  convolution_param {
    num_output: 16
    pad: 2
    kernel_size: 3
    stride: 1
    weight_filler {
      type: "gaussian"
      std: 0.01
    }
    bias_filler {
      type: "constant"
    }
  }
}
layer {
  name: "Sigmoid0"
  type: "Sigmoid"
  bottom: "conv0"
  top: "Sigmoid0"
}
layer {
  name: "pool0"
  type: "Pooling"
  bottom: "Sigmoid0"
  top: "pool0"
  pooling_param {
    pool: AVE
    kernel_size: 3
    stride: 2
  }
}
layer {
  name: "ip1"
  type: "InnerProduct"
  bottom: "pool0"
  top: "ip1"
  param {
    lr_mult: 1
  }
  param {
    lr_mult: 2
  }
  inner_product_param {
    num_output: 20
    weight_filler {
      type: "gaussian"
      std: 0.01
    }
    bias_filler {
      type: "constant"
    }
  }
}
layer {
  name: "relu1"
  type: "ReLU"
  bottom: "ip1"
  top: "ip1"
}
layer {
  name: "ip2"
  type: "InnerProduct"
  bottom: "ip1"
  top: "ip2"
  param {
    lr_mult: 1
  }
  param {
    lr_mult: 2
  }
  inner_product_param {
    num_output: 160
    weight_filler {
      type: "gaussian"
      std: 0.01
    }
    bias_filler {
      type: "constant"
    }
  }
}
layer {
  name: "relu2"
  type: "ReLU"
  bottom: "ip2"
  top: "ip2"
}
layer {
  name: "ip3"
  type: "InnerProduct"
  bottom: "ip2"
  top: "ip3"
  param {
    lr_mult: 1
  }
  param {
    lr_mult: 2
  }
  inner_product_param {
    num_output: 10
    weight_filler {
      type: "gaussian"
      std: 0.01
    }
    bias_filler {
      type: "constant"
    }
  }
}
layer {
  name: "relu3"
  type: "ReLU"
  bottom: "ip3"
  top: "ip3"
}
layer {
  name: "ip4"
  type: "InnerProduct"
  bottom: "ip3"
  top: "ip4"
  param {
    lr_mult: 1
  }
  param {
    lr_mult: 2
  }
  inner_product_param {
    num_output: 10
    weight_filler {
      type: "gaussian"
      std: 0.01
    }
    bias_filler {
      type: "constant"
    }
  }
}
layer {
  name: "accuracy"
  type: "Accuracy"
  bottom: "ip4"
  bottom: "label"
  top: "accuracy"
  include {
    phase: TEST
  }
}
layer {
  name: "loss"
  type: "SoftmaxWithLoss"
  bottom: "ip4"
  bottom: "label"
  top: "loss"
}
I0501 09:28:16.916291 14553 layer_factory.hpp:77] Creating layer cifar
I0501 09:28:16.916337 14553 db_lmdb.cpp:35] Opened lmdb examples/cifar10/cifar10_test_lmdb
I0501 09:28:16.916349 14553 net.cpp:86] Creating Layer cifar
I0501 09:28:16.916354 14553 net.cpp:382] cifar -> data
I0501 09:28:16.916362 14553 net.cpp:382] cifar -> label
I0501 09:28:16.916368 14553 data_transformer.cpp:25] Loading mean file from: examples/cifar10/mean.binaryproto
I0501 09:28:16.916501 14553 data_layer.cpp:45] output data size: 1000,3,32,32
I0501 09:28:16.938863 14553 net.cpp:124] Setting up cifar
I0501 09:28:16.938905 14553 net.cpp:131] Top shape: 1000 3 32 32 (3072000)
I0501 09:28:16.938911 14553 net.cpp:131] Top shape: 1000 (1000)
I0501 09:28:16.938915 14553 net.cpp:139] Memory required for data: 12292000
I0501 09:28:16.938922 14553 layer_factory.hpp:77] Creating layer label_cifar_1_split
I0501 09:28:16.938935 14553 net.cpp:86] Creating Layer label_cifar_1_split
I0501 09:28:16.938938 14553 net.cpp:408] label_cifar_1_split <- label
I0501 09:28:16.938946 14553 net.cpp:382] label_cifar_1_split -> label_cifar_1_split_0
I0501 09:28:16.938969 14553 net.cpp:382] label_cifar_1_split -> label_cifar_1_split_1
I0501 09:28:16.939054 14553 net.cpp:124] Setting up label_cifar_1_split
I0501 09:28:16.939062 14553 net.cpp:131] Top shape: 1000 (1000)
I0501 09:28:16.939066 14553 net.cpp:131] Top shape: 1000 (1000)
I0501 09:28:16.939069 14553 net.cpp:139] Memory required for data: 12300000
I0501 09:28:16.939072 14553 layer_factory.hpp:77] Creating layer conv0
I0501 09:28:16.939085 14553 net.cpp:86] Creating Layer conv0
I0501 09:28:16.939088 14553 net.cpp:408] conv0 <- data
I0501 09:28:16.939095 14553 net.cpp:382] conv0 -> conv0
I0501 09:28:16.940732 14553 net.cpp:124] Setting up conv0
I0501 09:28:16.940762 14553 net.cpp:131] Top shape: 1000 16 34 34 (18496000)
I0501 09:28:16.940765 14553 net.cpp:139] Memory required for data: 86284000
I0501 09:28:16.940775 14553 layer_factory.hpp:77] Creating layer Sigmoid0
I0501 09:28:16.940783 14553 net.cpp:86] Creating Layer Sigmoid0
I0501 09:28:16.940786 14553 net.cpp:408] Sigmoid0 <- conv0
I0501 09:28:16.940791 14553 net.cpp:382] Sigmoid0 -> Sigmoid0
I0501 09:28:16.941022 14553 net.cpp:124] Setting up Sigmoid0
I0501 09:28:16.941032 14553 net.cpp:131] Top shape: 1000 16 34 34 (18496000)
I0501 09:28:16.941036 14553 net.cpp:139] Memory required for data: 160268000
I0501 09:28:16.941040 14553 layer_factory.hpp:77] Creating layer pool0
I0501 09:28:16.941047 14553 net.cpp:86] Creating Layer pool0
I0501 09:28:16.941051 14553 net.cpp:408] pool0 <- Sigmoid0
I0501 09:28:16.941057 14553 net.cpp:382] pool0 -> pool0
I0501 09:28:16.941277 14553 net.cpp:124] Setting up pool0
I0501 09:28:16.941284 14553 net.cpp:131] Top shape: 1000 16 17 17 (4624000)
I0501 09:28:16.941288 14553 net.cpp:139] Memory required for data: 178764000
I0501 09:28:16.941292 14553 layer_factory.hpp:77] Creating layer ip1
I0501 09:28:16.941299 14553 net.cpp:86] Creating Layer ip1
I0501 09:28:16.941303 14553 net.cpp:408] ip1 <- pool0
I0501 09:28:16.941308 14553 net.cpp:382] ip1 -> ip1
I0501 09:28:16.943892 14553 net.cpp:124] Setting up ip1
I0501 09:28:16.943902 14553 net.cpp:131] Top shape: 1000 20 (20000)
I0501 09:28:16.943920 14553 net.cpp:139] Memory required for data: 178844000
I0501 09:28:16.943944 14553 layer_factory.hpp:77] Creating layer relu1
I0501 09:28:16.943950 14553 net.cpp:86] Creating Layer relu1
I0501 09:28:16.943953 14553 net.cpp:408] relu1 <- ip1
I0501 09:28:16.943974 14553 net.cpp:369] relu1 -> ip1 (in-place)
I0501 09:28:16.944133 14553 net.cpp:124] Setting up relu1
I0501 09:28:16.944140 14553 net.cpp:131] Top shape: 1000 20 (20000)
I0501 09:28:16.944144 14553 net.cpp:139] Memory required for data: 178924000
I0501 09:28:16.944147 14553 layer_factory.hpp:77] Creating layer ip2
I0501 09:28:16.944154 14553 net.cpp:86] Creating Layer ip2
I0501 09:28:16.944157 14553 net.cpp:408] ip2 <- ip1
I0501 09:28:16.944162 14553 net.cpp:382] ip2 -> ip2
I0501 09:28:16.944345 14553 net.cpp:124] Setting up ip2
I0501 09:28:16.944352 14553 net.cpp:131] Top shape: 1000 160 (160000)
I0501 09:28:16.944355 14553 net.cpp:139] Memory required for data: 179564000
I0501 09:28:16.944362 14553 layer_factory.hpp:77] Creating layer relu2
I0501 09:28:16.944370 14553 net.cpp:86] Creating Layer relu2
I0501 09:28:16.944372 14553 net.cpp:408] relu2 <- ip2
I0501 09:28:16.944376 14553 net.cpp:369] relu2 -> ip2 (in-place)
I0501 09:28:16.945161 14553 net.cpp:124] Setting up relu2
I0501 09:28:16.945174 14553 net.cpp:131] Top shape: 1000 160 (160000)
I0501 09:28:16.945194 14553 net.cpp:139] Memory required for data: 180204000
I0501 09:28:16.945196 14553 layer_factory.hpp:77] Creating layer ip3
I0501 09:28:16.945204 14553 net.cpp:86] Creating Layer ip3
I0501 09:28:16.945206 14553 net.cpp:408] ip3 <- ip2
I0501 09:28:16.945212 14553 net.cpp:382] ip3 -> ip3
I0501 09:28:16.945370 14553 net.cpp:124] Setting up ip3
I0501 09:28:16.945377 14553 net.cpp:131] Top shape: 1000 10 (10000)
I0501 09:28:16.945381 14553 net.cpp:139] Memory required for data: 180244000
I0501 09:28:16.945387 14553 layer_factory.hpp:77] Creating layer relu3
I0501 09:28:16.945392 14553 net.cpp:86] Creating Layer relu3
I0501 09:28:16.945395 14553 net.cpp:408] relu3 <- ip3
I0501 09:28:16.945399 14553 net.cpp:369] relu3 -> ip3 (in-place)
I0501 09:28:16.945545 14553 net.cpp:124] Setting up relu3
I0501 09:28:16.945569 14553 net.cpp:131] Top shape: 1000 10 (10000)
I0501 09:28:16.945572 14553 net.cpp:139] Memory required for data: 180284000
I0501 09:28:16.945576 14553 layer_factory.hpp:77] Creating layer ip4
I0501 09:28:16.945583 14553 net.cpp:86] Creating Layer ip4
I0501 09:28:16.945586 14553 net.cpp:408] ip4 <- ip3
I0501 09:28:16.945591 14553 net.cpp:382] ip4 -> ip4
I0501 09:28:16.945694 14553 net.cpp:124] Setting up ip4
I0501 09:28:16.945701 14553 net.cpp:131] Top shape: 1000 10 (10000)
I0501 09:28:16.945704 14553 net.cpp:139] Memory required for data: 180324000
I0501 09:28:16.945713 14553 layer_factory.hpp:77] Creating layer ip4_ip4_0_split
I0501 09:28:16.945719 14553 net.cpp:86] Creating Layer ip4_ip4_0_split
I0501 09:28:16.945721 14553 net.cpp:408] ip4_ip4_0_split <- ip4
I0501 09:28:16.945726 14553 net.cpp:382] ip4_ip4_0_split -> ip4_ip4_0_split_0
I0501 09:28:16.945731 14553 net.cpp:382] ip4_ip4_0_split -> ip4_ip4_0_split_1
I0501 09:28:16.945762 14553 net.cpp:124] Setting up ip4_ip4_0_split
I0501 09:28:16.945767 14553 net.cpp:131] Top shape: 1000 10 (10000)
I0501 09:28:16.945771 14553 net.cpp:131] Top shape: 1000 10 (10000)
I0501 09:28:16.945775 14553 net.cpp:139] Memory required for data: 180404000
I0501 09:28:16.945777 14553 layer_factory.hpp:77] Creating layer accuracy
I0501 09:28:16.945788 14553 net.cpp:86] Creating Layer accuracy
I0501 09:28:16.945791 14553 net.cpp:408] accuracy <- ip4_ip4_0_split_0
I0501 09:28:16.945796 14553 net.cpp:408] accuracy <- label_cifar_1_split_0
I0501 09:28:16.945801 14553 net.cpp:382] accuracy -> accuracy
…
