…
I0501 02:38:52.649749 16481 net.cpp:296] The NetState phase (0) differed from the phase (1) specified by a rule in layer cifar
I0501 02:38:52.649765 16481 net.cpp:296] The NetState phase (0) differed from the phase (1) specified by a rule in layer accuracy
I0501 02:38:52.649862 16481 net.cpp:53] Initializing net from parameters: 
name: "CIFAR"
state {
  phase: TRAIN
  level: 0
  stage: ""
}
layer {
  name: "cifar"
  type: "Data"
  top: "data"
  top: "label"
  include {
    phase: TRAIN
  }
  transform_param {
    mean_file: "examples/cifar10/mean.binaryproto"
  }
  data_param {
    source: "examples/cifar10/cifar10_train_lmdb"
    batch_size: 111
    backend: LMDB
  }
}
layer {
  name: "conv0"
  type: "Convolution"
  bottom: "data"
  top: "conv0"
  param {
    lr_mult: 1
  }
  param {
    lr_mult: 2
  }
  convolution_param {
    num_output: 8
    pad: 2
    kernel_size: 5
    stride: 1
    weight_filler {
      type: "gaussian"
      std: 0.01
    }
    bias_filler {
      type: "constant"
    }
  }
}
layer {
  name: "Sigmoid0"
  type: "Sigmoid"
  bottom: "conv0"
  top: "Sigmoid0"
}
layer {
  name: "pool0"
  type: "Pooling"
  bottom: "Sigmoid0"
  top: "pool0"
  pooling_param {
    pool: AVE
    kernel_size: 3
    stride: 2
  }
}
layer {
  name: "ip1"
  type: "InnerProduct"
  bottom: "pool0"
  top: "ip1"
  param {
    lr_mult: 1
  }
  param {
    lr_mult: 2
  }
  inner_product_param {
    num_output: 40
    weight_filler {
      type: "gaussian"
      std: 0.01
    }
    bias_filler {
      type: "constant"
    }
  }
}
layer {
  name: "relu1"
  type: "ReLU"
  bottom: "ip1"
  top: "ip1"
}
layer {
  name: "ip2"
  type: "InnerProduct"
  bottom: "ip1"
  top: "ip2"
  param {
    lr_mult: 1
  }
  param {
    lr_mult: 2
  }
  inner_product_param {
    num_output: 80
    weight_filler {
      type: "gaussian"
      std: 0.01
    }
    bias_filler {
      type: "constant"
    }
  }
}
layer {
  name: "relu2"
  type: "ReLU"
  bottom: "ip2"
  top: "ip2"
}
layer {
  name: "ip3"
  type: "InnerProduct"
  bottom: "ip2"
  top: "ip3"
  param {
    lr_mult: 1
  }
  param {
    lr_mult: 2
  }
  inner_product_param {
    num_output: 10
    weight_filler {
      type: "gaussian"
      std: 0.01
    }
    bias_filler {
      type: "constant"
    }
  }
}
layer {
  name: "loss"
  type: "SoftmaxWithLoss"
  bottom: "ip3"
  bottom: "label"
  top: "loss"
}
I0501 02:38:52.649940 16481 layer_factory.hpp:77] Creating layer cifar
I0501 02:38:52.650043 16481 db_lmdb.cpp:35] Opened lmdb examples/cifar10/cifar10_train_lmdb
I0501 02:38:52.650068 16481 net.cpp:86] Creating Layer cifar
I0501 02:38:52.650079 16481 net.cpp:382] cifar -> data
I0501 02:38:52.650100 16481 net.cpp:382] cifar -> label
I0501 02:38:52.650111 16481 data_transformer.cpp:25] Loading mean file from: examples/cifar10/mean.binaryproto
I0501 02:38:52.652266 16481 data_layer.cpp:45] output data size: 111,3,32,32
I0501 02:38:52.660202 16481 net.cpp:124] Setting up cifar
I0501 02:38:52.660220 16481 net.cpp:131] Top shape: 111 3 32 32 (340992)
I0501 02:38:52.660226 16481 net.cpp:131] Top shape: 111 (111)
I0501 02:38:52.660230 16481 net.cpp:139] Memory required for data: 1364412
I0501 02:38:52.660238 16481 layer_factory.hpp:77] Creating layer conv0
I0501 02:38:52.660274 16481 net.cpp:86] Creating Layer conv0
I0501 02:38:52.660282 16481 net.cpp:408] conv0 <- data
I0501 02:38:52.660295 16481 net.cpp:382] conv0 -> conv0
I0501 02:38:52.968925 16481 net.cpp:124] Setting up conv0
I0501 02:38:52.968981 16481 net.cpp:131] Top shape: 111 8 32 32 (909312)
I0501 02:38:52.968986 16481 net.cpp:139] Memory required for data: 5001660
I0501 02:38:52.969005 16481 layer_factory.hpp:77] Creating layer Sigmoid0
I0501 02:38:52.969019 16481 net.cpp:86] Creating Layer Sigmoid0
I0501 02:38:52.969023 16481 net.cpp:408] Sigmoid0 <- conv0
I0501 02:38:52.969030 16481 net.cpp:382] Sigmoid0 -> Sigmoid0
I0501 02:38:52.969238 16481 net.cpp:124] Setting up Sigmoid0
I0501 02:38:52.969249 16481 net.cpp:131] Top shape: 111 8 32 32 (909312)
I0501 02:38:52.969254 16481 net.cpp:139] Memory required for data: 8638908
I0501 02:38:52.969257 16481 layer_factory.hpp:77] Creating layer pool0
I0501 02:38:52.969265 16481 net.cpp:86] Creating Layer pool0
I0501 02:38:52.969269 16481 net.cpp:408] pool0 <- Sigmoid0
I0501 02:38:52.969275 16481 net.cpp:382] pool0 -> pool0
I0501 02:38:52.970155 16481 net.cpp:124] Setting up pool0
I0501 02:38:52.970172 16481 net.cpp:131] Top shape: 111 8 16 16 (227328)
I0501 02:38:52.970176 16481 net.cpp:139] Memory required for data: 9548220
I0501 02:38:52.970180 16481 layer_factory.hpp:77] Creating layer ip1
I0501 02:38:52.970192 16481 net.cpp:86] Creating Layer ip1
I0501 02:38:52.970196 16481 net.cpp:408] ip1 <- pool0
I0501 02:38:52.970202 16481 net.cpp:382] ip1 -> ip1
I0501 02:38:52.973036 16481 net.cpp:124] Setting up ip1
I0501 02:38:52.973047 16481 net.cpp:131] Top shape: 111 40 (4440)
I0501 02:38:52.973050 16481 net.cpp:139] Memory required for data: 9565980
I0501 02:38:52.973059 16481 layer_factory.hpp:77] Creating layer relu1
I0501 02:38:52.973067 16481 net.cpp:86] Creating Layer relu1
I0501 02:38:52.973070 16481 net.cpp:408] relu1 <- ip1
I0501 02:38:52.973075 16481 net.cpp:369] relu1 -> ip1 (in-place)
I0501 02:38:52.973256 16481 net.cpp:124] Setting up relu1
I0501 02:38:52.973266 16481 net.cpp:131] Top shape: 111 40 (4440)
I0501 02:38:52.973270 16481 net.cpp:139] Memory required for data: 9583740
I0501 02:38:52.973274 16481 layer_factory.hpp:77] Creating layer ip2
I0501 02:38:52.973281 16481 net.cpp:86] Creating Layer ip2
I0501 02:38:52.973285 16481 net.cpp:408] ip2 <- ip1
I0501 02:38:52.973291 16481 net.cpp:382] ip2 -> ip2
I0501 02:38:52.973510 16481 net.cpp:124] Setting up ip2
I0501 02:38:52.973517 16481 net.cpp:131] Top shape: 111 80 (8880)
I0501 02:38:52.973521 16481 net.cpp:139] Memory required for data: 9619260
I0501 02:38:52.973531 16481 layer_factory.hpp:77] Creating layer relu2
I0501 02:38:52.973536 16481 net.cpp:86] Creating Layer relu2
I0501 02:38:52.973539 16481 net.cpp:408] relu2 <- ip2
I0501 02:38:52.973544 16481 net.cpp:369] relu2 -> ip2 (in-place)
I0501 02:38:52.973721 16481 net.cpp:124] Setting up relu2
I0501 02:38:52.973731 16481 net.cpp:131] Top shape: 111 80 (8880)
I0501 02:38:52.973734 16481 net.cpp:139] Memory required for data: 9654780
I0501 02:38:52.973738 16481 layer_factory.hpp:77] Creating layer ip3
I0501 02:38:52.973747 16481 net.cpp:86] Creating Layer ip3
I0501 02:38:52.973750 16481 net.cpp:408] ip3 <- ip2
I0501 02:38:52.973757 16481 net.cpp:382] ip3 -> ip3
I0501 02:38:52.973888 16481 net.cpp:124] Setting up ip3
I0501 02:38:52.973897 16481 net.cpp:131] Top shape: 111 10 (1110)
I0501 02:38:52.973901 16481 net.cpp:139] Memory required for data: 9659220
I0501 02:38:52.973906 16481 layer_factory.hpp:77] Creating layer loss
I0501 02:38:52.973913 16481 net.cpp:86] Creating Layer loss
I0501 02:38:52.973917 16481 net.cpp:408] loss <- ip3
I0501 02:38:52.973922 16481 net.cpp:408] loss <- label
I0501 02:38:52.973927 16481 net.cpp:382] loss -> loss
I0501 02:38:52.973950 16481 layer_factory.hpp:77] Creating layer loss
…
I0501 02:38:52.974658 16481 solver.cpp:173] Creating test net (#0) specified by net file: ECE595/cifar/train_test/var_everything/cifar_train_test_328.prototxt
I0501 02:38:52.974689 16481 net.cpp:296] The NetState phase (1) differed from the phase (0) specified by a rule in layer cifar
I0501 02:38:52.974791 16481 net.cpp:53] Initializing net from parameters: 
name: "CIFAR"
state {
  phase: TEST
}
layer {
  name: "cifar"
  type: "Data"
  top: "data"
  top: "label"
  include {
    phase: TEST
  }
  transform_param {
    mean_file: "examples/cifar10/mean.binaryproto"
  }
  data_param {
    source: "examples/cifar10/cifar10_test_lmdb"
    batch_size: 1000
    backend: LMDB
  }
}
layer {
  name: "conv0"
  type: "Convolution"
  bottom: "data"
  top: "conv0"
  param {
    lr_mult: 1
  }
  param {
    lr_mult: 2
  }
  convolution_param {
    num_output: 8
    pad: 2
    kernel_size: 5
    stride: 1
    weight_filler {
      type: "gaussian"
      std: 0.01
    }
    bias_filler {
      type: "constant"
    }
  }
}
layer {
  name: "Sigmoid0"
  type: "Sigmoid"
  bottom: "conv0"
  top: "Sigmoid0"
}
layer {
  name: "pool0"
  type: "Pooling"
  bottom: "Sigmoid0"
  top: "pool0"
  pooling_param {
    pool: AVE
    kernel_size: 3
    stride: 2
  }
}
layer {
  name: "ip1"
  type: "InnerProduct"
  bottom: "pool0"
  top: "ip1"
  param {
    lr_mult: 1
  }
  param {
    lr_mult: 2
  }
  inner_product_param {
    num_output: 40
    weight_filler {
      type: "gaussian"
      std: 0.01
    }
    bias_filler {
      type: "constant"
    }
  }
}
layer {
  name: "relu1"
  type: "ReLU"
  bottom: "ip1"
  top: "ip1"
}
layer {
  name: "ip2"
  type: "InnerProduct"
  bottom: "ip1"
  top: "ip2"
  param {
    lr_mult: 1
  }
  param {
    lr_mult: 2
  }
  inner_product_param {
    num_output: 80
    weight_filler {
      type: "gaussian"
      std: 0.01
    }
    bias_filler {
      type: "constant"
    }
  }
}
layer {
  name: "relu2"
  type: "ReLU"
  bottom: "ip2"
  top: "ip2"
}
layer {
  name: "ip3"
  type: "InnerProduct"
  bottom: "ip2"
  top: "ip3"
  param {
    lr_mult: 1
  }
  param {
    lr_mult: 2
  }
  inner_product_param {
    num_output: 10
    weight_filler {
      type: "gaussian"
      std: 0.01
    }
    bias_filler {
      type: "constant"
    }
  }
}
layer {
  name: "accuracy"
  type: "Accuracy"
  bottom: "ip3"
  bottom: "label"
  top: "accuracy"
  include {
    phase: TEST
  }
}
layer {
  name: "loss"
  type: "SoftmaxWithLoss"
  bottom: "ip3"
  bottom: "label"
  top: "loss"
}
I0501 02:38:52.974866 16481 layer_factory.hpp:77] Creating layer cifar
I0501 02:38:52.974921 16481 db_lmdb.cpp:35] Opened lmdb examples/cifar10/cifar10_test_lmdb
I0501 02:38:52.974936 16481 net.cpp:86] Creating Layer cifar
I0501 02:38:52.974942 16481 net.cpp:382] cifar -> data
I0501 02:38:52.974951 16481 net.cpp:382] cifar -> label
I0501 02:38:52.974958 16481 data_transformer.cpp:25] Loading mean file from: examples/cifar10/mean.binaryproto
I0501 02:38:52.975126 16481 data_layer.cpp:45] output data size: 1000,3,32,32
I0501 02:38:53.001126 16481 net.cpp:124] Setting up cifar
I0501 02:38:53.001157 16481 net.cpp:131] Top shape: 1000 3 32 32 (3072000)
I0501 02:38:53.001164 16481 net.cpp:131] Top shape: 1000 (1000)
I0501 02:38:53.001168 16481 net.cpp:139] Memory required for data: 12292000
I0501 02:38:53.001176 16481 layer_factory.hpp:77] Creating layer label_cifar_1_split
I0501 02:38:53.001190 16481 net.cpp:86] Creating Layer label_cifar_1_split
I0501 02:38:53.001216 16481 net.cpp:408] label_cifar_1_split <- label
I0501 02:38:53.001224 16481 net.cpp:382] label_cifar_1_split -> label_cifar_1_split_0
I0501 02:38:53.001235 16481 net.cpp:382] label_cifar_1_split -> label_cifar_1_split_1
I0501 02:38:53.001298 16481 net.cpp:124] Setting up label_cifar_1_split
I0501 02:38:53.001307 16481 net.cpp:131] Top shape: 1000 (1000)
I0501 02:38:53.001312 16481 net.cpp:131] Top shape: 1000 (1000)
I0501 02:38:53.001315 16481 net.cpp:139] Memory required for data: 12300000
I0501 02:38:53.001319 16481 layer_factory.hpp:77] Creating layer conv0
I0501 02:38:53.001334 16481 net.cpp:86] Creating Layer conv0
I0501 02:38:53.001338 16481 net.cpp:408] conv0 <- data
I0501 02:38:53.001345 16481 net.cpp:382] conv0 -> conv0
I0501 02:38:53.003222 16481 net.cpp:124] Setting up conv0
I0501 02:38:53.003239 16481 net.cpp:131] Top shape: 1000 8 32 32 (8192000)
I0501 02:38:53.003243 16481 net.cpp:139] Memory required for data: 45068000
I0501 02:38:53.003255 16481 layer_factory.hpp:77] Creating layer Sigmoid0
I0501 02:38:53.003265 16481 net.cpp:86] Creating Layer Sigmoid0
I0501 02:38:53.003269 16481 net.cpp:408] Sigmoid0 <- conv0
I0501 02:38:53.003274 16481 net.cpp:382] Sigmoid0 -> Sigmoid0
I0501 02:38:53.005242 16481 net.cpp:124] Setting up Sigmoid0
I0501 02:38:53.005260 16481 net.cpp:131] Top shape: 1000 8 32 32 (8192000)
I0501 02:38:53.005264 16481 net.cpp:139] Memory required for data: 77836000
I0501 02:38:53.005270 16481 layer_factory.hpp:77] Creating layer pool0
I0501 02:38:53.005281 16481 net.cpp:86] Creating Layer pool0
I0501 02:38:53.005285 16481 net.cpp:408] pool0 <- Sigmoid0
I0501 02:38:53.005292 16481 net.cpp:382] pool0 -> pool0
I0501 02:38:53.005512 16481 net.cpp:124] Setting up pool0
I0501 02:38:53.005524 16481 net.cpp:131] Top shape: 1000 8 16 16 (2048000)
I0501 02:38:53.005528 16481 net.cpp:139] Memory required for data: 86028000
I0501 02:38:53.005532 16481 layer_factory.hpp:77] Creating layer ip1
I0501 02:38:53.005542 16481 net.cpp:86] Creating Layer ip1
I0501 02:38:53.005554 16481 net.cpp:408] ip1 <- pool0
I0501 02:38:53.005560 16481 net.cpp:382] ip1 -> ip1
I0501 02:38:53.008384 16481 net.cpp:124] Setting up ip1
I0501 02:38:53.008395 16481 net.cpp:131] Top shape: 1000 40 (40000)
I0501 02:38:53.008399 16481 net.cpp:139] Memory required for data: 86188000
I0501 02:38:53.008409 16481 layer_factory.hpp:77] Creating layer relu1
I0501 02:38:53.008416 16481 net.cpp:86] Creating Layer relu1
I0501 02:38:53.008420 16481 net.cpp:408] relu1 <- ip1
I0501 02:38:53.008425 16481 net.cpp:369] relu1 -> ip1 (in-place)
I0501 02:38:53.008625 16481 net.cpp:124] Setting up relu1
I0501 02:38:53.008635 16481 net.cpp:131] Top shape: 1000 40 (40000)
I0501 02:38:53.008641 16481 net.cpp:139] Memory required for data: 86348000
I0501 02:38:53.008644 16481 layer_factory.hpp:77] Creating layer ip2
I0501 02:38:53.008656 16481 net.cpp:86] Creating Layer ip2
I0501 02:38:53.008659 16481 net.cpp:408] ip2 <- ip1
I0501 02:38:53.008667 16481 net.cpp:382] ip2 -> ip2
I0501 02:38:53.008913 16481 net.cpp:124] Setting up ip2
I0501 02:38:53.008922 16481 net.cpp:131] Top shape: 1000 80 (80000)
I0501 02:38:53.008926 16481 net.cpp:139] Memory required for data: 86668000
I0501 02:38:53.008935 16481 layer_factory.hpp:77] Creating layer relu2
I0501 02:38:53.008942 16481 net.cpp:86] Creating Layer relu2
I0501 02:38:53.008946 16481 net.cpp:408] relu2 <- ip2
I0501 02:38:53.008951 16481 net.cpp:369] relu2 -> ip2 (in-place)
I0501 02:38:53.009150 16481 net.cpp:124] Setting up relu2
I0501 02:38:53.009160 16481 net.cpp:131] Top shape: 1000 80 (80000)
I0501 02:38:53.009163 16481 net.cpp:139] Memory required for data: 86988000
I0501 02:38:53.009167 16481 layer_factory.hpp:77] Creating layer ip3
I0501 02:38:53.009176 16481 net.cpp:86] Creating Layer ip3
I0501 02:38:53.009179 16481 net.cpp:408] ip3 <- ip2
I0501 02:38:53.009186 16481 net.cpp:382] ip3 -> ip3
I0501 02:38:53.009338 16481 net.cpp:124] Setting up ip3
I0501 02:38:53.009347 16481 net.cpp:131] Top shape: 1000 10 (10000)
I0501 02:38:53.009351 16481 net.cpp:139] Memory required for data: 87028000
I0501 02:38:53.009369 16481 layer_factory.hpp:77] Creating layer ip3_ip3_0_split
I0501 02:38:53.009377 16481 net.cpp:86] Creating Layer ip3_ip3_0_split
I0501 02:38:53.009380 16481 net.cpp:408] ip3_ip3_0_split <- ip3
I0501 02:38:53.009387 16481 net.cpp:382] ip3_ip3_0_split -> ip3_ip3_0_split_0
I0501 02:38:53.009394 16481 net.cpp:382] ip3_ip3_0_split -> ip3_ip3_0_split_1
I0501 02:38:53.009433 16481 net.cpp:124] Setting up ip3_ip3_0_split
I0501 02:38:53.009439 16481 net.cpp:131] Top shape: 1000 10 (10000)
I0501 02:38:53.009444 16481 net.cpp:131] Top shape: 1000 10 (10000)
I0501 02:38:53.009449 16481 net.cpp:139] Memory required for data: 87108000
I0501 02:38:53.009451 16481 layer_factory.hpp:77] Creating layer accuracy
I0501 02:38:53.009457 16481 net.cpp:86] Creating Layer accuracy
I0501 02:38:53.009461 16481 net.cpp:408] accuracy <- ip3_ip3_0_split_0
I0501 02:38:53.009465 16481 net.cpp:408] accuracy <- label_cifar_1_split_0
I0501 02:38:53.009470 16481 net.cpp:382] accuracy -> accuracy
…
