…
I0501 07:19:12.384588  4554 net.cpp:296] The NetState phase (0) differed from the phase (1) specified by a rule in layer cifar
I0501 07:19:12.384604  4554 net.cpp:296] The NetState phase (0) differed from the phase (1) specified by a rule in layer accuracy
I0501 07:19:12.384696  4554 net.cpp:53] Initializing net from parameters: 
name: "CIFAR"
state {
  phase: TRAIN
  level: 0
  stage: ""
}
layer {
  name: "cifar"
  type: "Data"
  top: "data"
  top: "label"
  include {
    phase: TRAIN
  }
  transform_param {
    mean_file: "examples/cifar10/mean.binaryproto"
  }
  data_param {
    source: "examples/cifar10/cifar10_train_lmdb"
    batch_size: 111
    backend: LMDB
  }
}
layer {
  name: "conv0"
  type: "Convolution"
  bottom: "data"
  top: "conv0"
  param {
    lr_mult: 1
  }
  param {
    lr_mult: 2
  }
  convolution_param {
    num_output: 16
    pad: 2
    kernel_size: 3
    stride: 1
    weight_filler {
      type: "gaussian"
      std: 0.01
    }
    bias_filler {
      type: "constant"
    }
  }
}
layer {
  name: "Sigmoid0"
  type: "Sigmoid"
  bottom: "conv0"
  top: "Sigmoid0"
}
layer {
  name: "pool0"
  type: "Pooling"
  bottom: "Sigmoid0"
  top: "pool0"
  pooling_param {
    pool: AVE
    kernel_size: 3
    stride: 2
  }
}
layer {
  name: "ip1"
  type: "InnerProduct"
  bottom: "pool0"
  top: "ip1"
  param {
    lr_mult: 1
  }
  param {
    lr_mult: 2
  }
  inner_product_param {
    num_output: 20
    weight_filler {
      type: "gaussian"
      std: 0.01
    }
    bias_filler {
      type: "constant"
    }
  }
}
layer {
  name: "relu1"
  type: "ReLU"
  bottom: "ip1"
  top: "ip1"
}
layer {
  name: "ip2"
  type: "InnerProduct"
  bottom: "ip1"
  top: "ip2"
  param {
    lr_mult: 1
  }
  param {
    lr_mult: 2
  }
  inner_product_param {
    num_output: 80
    weight_filler {
      type: "gaussian"
      std: 0.01
    }
    bias_filler {
      type: "constant"
    }
  }
}
layer {
  name: "relu2"
  type: "ReLU"
  bottom: "ip2"
  top: "ip2"
}
layer {
  name: "ip3"
  type: "InnerProduct"
  bottom: "ip2"
  top: "ip3"
  param {
    lr_mult: 1
  }
  param {
    lr_mult: 2
  }
  inner_product_param {
    num_output: 10
    weight_filler {
      type: "gaussian"
      std: 0.01
    }
    bias_filler {
      type: "constant"
    }
  }
}
layer {
  name: "loss"
  type: "SoftmaxWithLoss"
  bottom: "ip3"
  bottom: "label"
  top: "loss"
}
I0501 07:19:12.384769  4554 layer_factory.hpp:77] Creating layer cifar
I0501 07:19:12.384878  4554 db_lmdb.cpp:35] Opened lmdb examples/cifar10/cifar10_train_lmdb
I0501 07:19:12.384907  4554 net.cpp:86] Creating Layer cifar
I0501 07:19:12.384919  4554 net.cpp:382] cifar -> data
I0501 07:19:12.384944  4554 net.cpp:382] cifar -> label
I0501 07:19:12.384956  4554 data_transformer.cpp:25] Loading mean file from: examples/cifar10/mean.binaryproto
I0501 07:19:12.387122  4554 data_layer.cpp:45] output data size: 111,3,32,32
I0501 07:19:12.395073  4554 net.cpp:124] Setting up cifar
I0501 07:19:12.395092  4554 net.cpp:131] Top shape: 111 3 32 32 (340992)
I0501 07:19:12.395098  4554 net.cpp:131] Top shape: 111 (111)
I0501 07:19:12.395102  4554 net.cpp:139] Memory required for data: 1364412
I0501 07:19:12.395110  4554 layer_factory.hpp:77] Creating layer conv0
I0501 07:19:12.395129  4554 net.cpp:86] Creating Layer conv0
I0501 07:19:12.395135  4554 net.cpp:408] conv0 <- data
I0501 07:19:12.395149  4554 net.cpp:382] conv0 -> conv0
I0501 07:19:12.684720  4554 net.cpp:124] Setting up conv0
I0501 07:19:12.684772  4554 net.cpp:131] Top shape: 111 16 34 34 (2053056)
I0501 07:19:12.684777  4554 net.cpp:139] Memory required for data: 9576636
I0501 07:19:12.684792  4554 layer_factory.hpp:77] Creating layer Sigmoid0
I0501 07:19:12.684806  4554 net.cpp:86] Creating Layer Sigmoid0
I0501 07:19:12.684818  4554 net.cpp:408] Sigmoid0 <- conv0
I0501 07:19:12.684824  4554 net.cpp:382] Sigmoid0 -> Sigmoid0
I0501 07:19:12.685022  4554 net.cpp:124] Setting up Sigmoid0
I0501 07:19:12.685032  4554 net.cpp:131] Top shape: 111 16 34 34 (2053056)
I0501 07:19:12.685036  4554 net.cpp:139] Memory required for data: 17788860
I0501 07:19:12.685040  4554 layer_factory.hpp:77] Creating layer pool0
I0501 07:19:12.685047  4554 net.cpp:86] Creating Layer pool0
I0501 07:19:12.685051  4554 net.cpp:408] pool0 <- Sigmoid0
I0501 07:19:12.685056  4554 net.cpp:382] pool0 -> pool0
I0501 07:19:12.685866  4554 net.cpp:124] Setting up pool0
I0501 07:19:12.685881  4554 net.cpp:131] Top shape: 111 16 17 17 (513264)
I0501 07:19:12.685885  4554 net.cpp:139] Memory required for data: 19841916
I0501 07:19:12.685889  4554 layer_factory.hpp:77] Creating layer ip1
I0501 07:19:12.685899  4554 net.cpp:86] Creating Layer ip1
I0501 07:19:12.685904  4554 net.cpp:408] ip1 <- pool0
I0501 07:19:12.685909  4554 net.cpp:382] ip1 -> ip1
I0501 07:19:12.688830  4554 net.cpp:124] Setting up ip1
I0501 07:19:12.688840  4554 net.cpp:131] Top shape: 111 20 (2220)
I0501 07:19:12.688843  4554 net.cpp:139] Memory required for data: 19850796
I0501 07:19:12.688853  4554 layer_factory.hpp:77] Creating layer relu1
I0501 07:19:12.688859  4554 net.cpp:86] Creating Layer relu1
I0501 07:19:12.688863  4554 net.cpp:408] relu1 <- ip1
I0501 07:19:12.688868  4554 net.cpp:369] relu1 -> ip1 (in-place)
I0501 07:19:12.689054  4554 net.cpp:124] Setting up relu1
I0501 07:19:12.689061  4554 net.cpp:131] Top shape: 111 20 (2220)
I0501 07:19:12.689065  4554 net.cpp:139] Memory required for data: 19859676
I0501 07:19:12.689069  4554 layer_factory.hpp:77] Creating layer ip2
I0501 07:19:12.689074  4554 net.cpp:86] Creating Layer ip2
I0501 07:19:12.689079  4554 net.cpp:408] ip2 <- ip1
I0501 07:19:12.689083  4554 net.cpp:382] ip2 -> ip2
I0501 07:19:12.689242  4554 net.cpp:124] Setting up ip2
I0501 07:19:12.689249  4554 net.cpp:131] Top shape: 111 80 (8880)
I0501 07:19:12.689252  4554 net.cpp:139] Memory required for data: 19895196
I0501 07:19:12.689261  4554 layer_factory.hpp:77] Creating layer relu2
I0501 07:19:12.689268  4554 net.cpp:86] Creating Layer relu2
I0501 07:19:12.689271  4554 net.cpp:408] relu2 <- ip2
I0501 07:19:12.689276  4554 net.cpp:369] relu2 -> ip2 (in-place)
I0501 07:19:12.689446  4554 net.cpp:124] Setting up relu2
I0501 07:19:12.689456  4554 net.cpp:131] Top shape: 111 80 (8880)
I0501 07:19:12.689460  4554 net.cpp:139] Memory required for data: 19930716
I0501 07:19:12.689463  4554 layer_factory.hpp:77] Creating layer ip3
I0501 07:19:12.689471  4554 net.cpp:86] Creating Layer ip3
I0501 07:19:12.689473  4554 net.cpp:408] ip3 <- ip2
I0501 07:19:12.689479  4554 net.cpp:382] ip3 -> ip3
I0501 07:19:12.689612  4554 net.cpp:124] Setting up ip3
I0501 07:19:12.689620  4554 net.cpp:131] Top shape: 111 10 (1110)
I0501 07:19:12.689622  4554 net.cpp:139] Memory required for data: 19935156
I0501 07:19:12.689628  4554 layer_factory.hpp:77] Creating layer loss
I0501 07:19:12.689635  4554 net.cpp:86] Creating Layer loss
I0501 07:19:12.689637  4554 net.cpp:408] loss <- ip3
I0501 07:19:12.689641  4554 net.cpp:408] loss <- label
I0501 07:19:12.689648  4554 net.cpp:382] loss -> loss
I0501 07:19:12.689666  4554 layer_factory.hpp:77] Creating layer loss
…
I0501 07:19:12.690313  4554 solver.cpp:173] Creating test net (#0) specified by net file: ECE595/cifar/train_test/var_everything/cifar_train_test_478.prototxt
I0501 07:19:12.690341  4554 net.cpp:296] The NetState phase (1) differed from the phase (0) specified by a rule in layer cifar
I0501 07:19:12.690433  4554 net.cpp:53] Initializing net from parameters: 
name: "CIFAR"
state {
  phase: TEST
}
layer {
  name: "cifar"
  type: "Data"
  top: "data"
  top: "label"
  include {
    phase: TEST
  }
  transform_param {
    mean_file: "examples/cifar10/mean.binaryproto"
  }
  data_param {
    source: "examples/cifar10/cifar10_test_lmdb"
    batch_size: 1000
    backend: LMDB
  }
}
layer {
  name: "conv0"
  type: "Convolution"
  bottom: "data"
  top: "conv0"
  param {
    lr_mult: 1
  }
  param {
    lr_mult: 2
  }
  convolution_param {
    num_output: 16
    pad: 2
    kernel_size: 3
    stride: 1
    weight_filler {
      type: "gaussian"
      std: 0.01
    }
    bias_filler {
      type: "constant"
    }
  }
}
layer {
  name: "Sigmoid0"
  type: "Sigmoid"
  bottom: "conv0"
  top: "Sigmoid0"
}
layer {
  name: "pool0"
  type: "Pooling"
  bottom: "Sigmoid0"
  top: "pool0"
  pooling_param {
    pool: AVE
    kernel_size: 3
    stride: 2
  }
}
layer {
  name: "ip1"
  type: "InnerProduct"
  bottom: "pool0"
  top: "ip1"
  param {
    lr_mult: 1
  }
  param {
    lr_mult: 2
  }
  inner_product_param {
    num_output: 20
    weight_filler {
      type: "gaussian"
      std: 0.01
    }
    bias_filler {
      type: "constant"
    }
  }
}
layer {
  name: "relu1"
  type: "ReLU"
  bottom: "ip1"
  top: "ip1"
}
layer {
  name: "ip2"
  type: "InnerProduct"
  bottom: "ip1"
  top: "ip2"
  param {
    lr_mult: 1
  }
  param {
    lr_mult: 2
  }
  inner_product_param {
    num_output: 80
    weight_filler {
      type: "gaussian"
      std: 0.01
    }
    bias_filler {
      type: "constant"
    }
  }
}
layer {
  name: "relu2"
  type: "ReLU"
  bottom: "ip2"
  top: "ip2"
}
layer {
  name: "ip3"
  type: "InnerProduct"
  bottom: "ip2"
  top: "ip3"
  param {
    lr_mult: 1
  }
  param {
    lr_mult: 2
  }
  inner_product_param {
    num_output: 10
    weight_filler {
      type: "gaussian"
      std: 0.01
    }
    bias_filler {
      type: "constant"
    }
  }
}
layer {
  name: "accuracy"
  type: "Accuracy"
  bottom: "ip3"
  bottom: "label"
  top: "accuracy"
  include {
    phase: TEST
  }
}
layer {
  name: "loss"
  type: "SoftmaxWithLoss"
  bottom: "ip3"
  bottom: "label"
  top: "loss"
}
I0501 07:19:12.690505  4554 layer_factory.hpp:77] Creating layer cifar
I0501 07:19:12.690556  4554 db_lmdb.cpp:35] Opened lmdb examples/cifar10/cifar10_test_lmdb
I0501 07:19:12.690570  4554 net.cpp:86] Creating Layer cifar
I0501 07:19:12.690575  4554 net.cpp:382] cifar -> data
I0501 07:19:12.690583  4554 net.cpp:382] cifar -> label
I0501 07:19:12.690590  4554 data_transformer.cpp:25] Loading mean file from: examples/cifar10/mean.binaryproto
I0501 07:19:12.690750  4554 data_layer.cpp:45] output data size: 1000,3,32,32
I0501 07:19:12.713845  4554 net.cpp:124] Setting up cifar
I0501 07:19:12.713871  4554 net.cpp:131] Top shape: 1000 3 32 32 (3072000)
I0501 07:19:12.713877  4554 net.cpp:131] Top shape: 1000 (1000)
I0501 07:19:12.713881  4554 net.cpp:139] Memory required for data: 12292000
I0501 07:19:12.713886  4554 layer_factory.hpp:77] Creating layer label_cifar_1_split
I0501 07:19:12.713920  4554 net.cpp:86] Creating Layer label_cifar_1_split
I0501 07:19:12.713938  4554 net.cpp:408] label_cifar_1_split <- label
I0501 07:19:12.713946  4554 net.cpp:382] label_cifar_1_split -> label_cifar_1_split_0
I0501 07:19:12.713956  4554 net.cpp:382] label_cifar_1_split -> label_cifar_1_split_1
I0501 07:19:12.714073  4554 net.cpp:124] Setting up label_cifar_1_split
I0501 07:19:12.714082  4554 net.cpp:131] Top shape: 1000 (1000)
I0501 07:19:12.714084  4554 net.cpp:131] Top shape: 1000 (1000)
I0501 07:19:12.714087  4554 net.cpp:139] Memory required for data: 12300000
I0501 07:19:12.714090  4554 layer_factory.hpp:77] Creating layer conv0
I0501 07:19:12.714104  4554 net.cpp:86] Creating Layer conv0
I0501 07:19:12.714107  4554 net.cpp:408] conv0 <- data
I0501 07:19:12.714112  4554 net.cpp:382] conv0 -> conv0
I0501 07:19:12.715728  4554 net.cpp:124] Setting up conv0
I0501 07:19:12.715740  4554 net.cpp:131] Top shape: 1000 16 34 34 (18496000)
I0501 07:19:12.715744  4554 net.cpp:139] Memory required for data: 86284000
I0501 07:19:12.715754  4554 layer_factory.hpp:77] Creating layer Sigmoid0
I0501 07:19:12.715761  4554 net.cpp:86] Creating Layer Sigmoid0
I0501 07:19:12.715764  4554 net.cpp:408] Sigmoid0 <- conv0
I0501 07:19:12.715771  4554 net.cpp:382] Sigmoid0 -> Sigmoid0
I0501 07:19:12.716611  4554 net.cpp:124] Setting up Sigmoid0
I0501 07:19:12.716624  4554 net.cpp:131] Top shape: 1000 16 34 34 (18496000)
I0501 07:19:12.716629  4554 net.cpp:139] Memory required for data: 160268000
I0501 07:19:12.716631  4554 layer_factory.hpp:77] Creating layer pool0
I0501 07:19:12.716640  4554 net.cpp:86] Creating Layer pool0
I0501 07:19:12.716644  4554 net.cpp:408] pool0 <- Sigmoid0
I0501 07:19:12.716648  4554 net.cpp:382] pool0 -> pool0
I0501 07:19:12.717787  4554 net.cpp:124] Setting up pool0
I0501 07:19:12.717797  4554 net.cpp:131] Top shape: 1000 16 17 17 (4624000)
I0501 07:19:12.717800  4554 net.cpp:139] Memory required for data: 178764000
I0501 07:19:12.717804  4554 layer_factory.hpp:77] Creating layer ip1
I0501 07:19:12.717813  4554 net.cpp:86] Creating Layer ip1
I0501 07:19:12.717816  4554 net.cpp:408] ip1 <- pool0
I0501 07:19:12.717823  4554 net.cpp:382] ip1 -> ip1
I0501 07:19:12.720422  4554 net.cpp:124] Setting up ip1
I0501 07:19:12.720429  4554 net.cpp:131] Top shape: 1000 20 (20000)
I0501 07:19:12.720432  4554 net.cpp:139] Memory required for data: 178844000
I0501 07:19:12.720441  4554 layer_factory.hpp:77] Creating layer relu1
I0501 07:19:12.720448  4554 net.cpp:86] Creating Layer relu1
I0501 07:19:12.720450  4554 net.cpp:408] relu1 <- ip1
I0501 07:19:12.720454  4554 net.cpp:369] relu1 -> ip1 (in-place)
I0501 07:19:12.720613  4554 net.cpp:124] Setting up relu1
I0501 07:19:12.720624  4554 net.cpp:131] Top shape: 1000 20 (20000)
I0501 07:19:12.720628  4554 net.cpp:139] Memory required for data: 178924000
I0501 07:19:12.720630  4554 layer_factory.hpp:77] Creating layer ip2
I0501 07:19:12.720636  4554 net.cpp:86] Creating Layer ip2
I0501 07:19:12.720639  4554 net.cpp:408] ip2 <- ip1
I0501 07:19:12.720644  4554 net.cpp:382] ip2 -> ip2
I0501 07:19:12.720801  4554 net.cpp:124] Setting up ip2
I0501 07:19:12.720814  4554 net.cpp:131] Top shape: 1000 80 (80000)
I0501 07:19:12.720834  4554 net.cpp:139] Memory required for data: 179244000
I0501 07:19:12.720841  4554 layer_factory.hpp:77] Creating layer relu2
I0501 07:19:12.720847  4554 net.cpp:86] Creating Layer relu2
I0501 07:19:12.720850  4554 net.cpp:408] relu2 <- ip2
I0501 07:19:12.720855  4554 net.cpp:369] relu2 -> ip2 (in-place)
I0501 07:19:12.721052  4554 net.cpp:124] Setting up relu2
I0501 07:19:12.721060  4554 net.cpp:131] Top shape: 1000 80 (80000)
I0501 07:19:12.721063  4554 net.cpp:139] Memory required for data: 179564000
I0501 07:19:12.721067  4554 layer_factory.hpp:77] Creating layer ip3
I0501 07:19:12.721074  4554 net.cpp:86] Creating Layer ip3
I0501 07:19:12.721077  4554 net.cpp:408] ip3 <- ip2
I0501 07:19:12.721082  4554 net.cpp:382] ip3 -> ip3
I0501 07:19:12.721232  4554 net.cpp:124] Setting up ip3
I0501 07:19:12.721240  4554 net.cpp:131] Top shape: 1000 10 (10000)
I0501 07:19:12.721252  4554 net.cpp:139] Memory required for data: 179604000
I0501 07:19:12.721266  4554 layer_factory.hpp:77] Creating layer ip3_ip3_0_split
I0501 07:19:12.721271  4554 net.cpp:86] Creating Layer ip3_ip3_0_split
I0501 07:19:12.721274  4554 net.cpp:408] ip3_ip3_0_split <- ip3
I0501 07:19:12.721280  4554 net.cpp:382] ip3_ip3_0_split -> ip3_ip3_0_split_0
I0501 07:19:12.721285  4554 net.cpp:382] ip3_ip3_0_split -> ip3_ip3_0_split_1
I0501 07:19:12.721318  4554 net.cpp:124] Setting up ip3_ip3_0_split
I0501 07:19:12.721323  4554 net.cpp:131] Top shape: 1000 10 (10000)
I0501 07:19:12.721326  4554 net.cpp:131] Top shape: 1000 10 (10000)
I0501 07:19:12.721328  4554 net.cpp:139] Memory required for data: 179684000
I0501 07:19:12.721331  4554 layer_factory.hpp:77] Creating layer accuracy
I0501 07:19:12.721338  4554 net.cpp:86] Creating Layer accuracy
I0501 07:19:12.721341  4554 net.cpp:408] accuracy <- ip3_ip3_0_split_0
I0501 07:19:12.721345  4554 net.cpp:408] accuracy <- label_cifar_1_split_0
I0501 07:19:12.721351  4554 net.cpp:382] accuracy -> accuracy
…
