…
I0501 01:18:12.765030 10025 net.cpp:296] The NetState phase (0) differed from the phase (1) specified by a rule in layer cifar
I0501 01:18:12.765049 10025 net.cpp:296] The NetState phase (0) differed from the phase (1) specified by a rule in layer accuracy
I0501 01:18:12.765156 10025 net.cpp:53] Initializing net from parameters: 
name: "CIFAR"
state {
  phase: TRAIN
  level: 0
  stage: ""
}
layer {
  name: "cifar"
  type: "Data"
  top: "data"
  top: "label"
  include {
    phase: TRAIN
  }
  transform_param {
    mean_file: "examples/cifar10/mean.binaryproto"
  }
  data_param {
    source: "examples/cifar10/cifar10_train_lmdb"
    batch_size: 111
    backend: LMDB
  }
}
layer {
  name: "conv0"
  type: "Convolution"
  bottom: "data"
  top: "conv0"
  param {
    lr_mult: 1
  }
  param {
    lr_mult: 2
  }
  convolution_param {
    num_output: 8
    pad: 2
    kernel_size: 3
    stride: 1
    weight_filler {
      type: "gaussian"
      std: 0.01
    }
    bias_filler {
      type: "constant"
    }
  }
}
layer {
  name: "Sigmoid0"
  type: "Sigmoid"
  bottom: "conv0"
  top: "Sigmoid0"
}
layer {
  name: "pool0"
  type: "Pooling"
  bottom: "Sigmoid0"
  top: "pool0"
  pooling_param {
    pool: AVE
    kernel_size: 3
    stride: 2
  }
}
layer {
  name: "ip1"
  type: "InnerProduct"
  bottom: "pool0"
  top: "ip1"
  param {
    lr_mult: 1
  }
  param {
    lr_mult: 2
  }
  inner_product_param {
    num_output: 160
    weight_filler {
      type: "gaussian"
      std: 0.01
    }
    bias_filler {
      type: "constant"
    }
  }
}
layer {
  name: "relu1"
  type: "ReLU"
  bottom: "ip1"
  top: "ip1"
}
layer {
  name: "ip2"
  type: "InnerProduct"
  bottom: "ip1"
  top: "ip2"
  param {
    lr_mult: 1
  }
  param {
    lr_mult: 2
  }
  inner_product_param {
    num_output: 10
    weight_filler {
      type: "gaussian"
      std: 0.01
    }
    bias_filler {
      type: "constant"
    }
  }
}
layer {
  name: "relu2"
  type: "ReLU"
  bottom: "ip2"
  top: "ip2"
}
layer {
  name: "ip3"
  type: "InnerProduct"
  bottom: "ip2"
  top: "ip3"
  param {
    lr_mult: 1
  }
  param {
    lr_mult: 2
  }
  inner_product_param {
    num_output: 10
    weight_filler {
      type: "gaussian"
      std: 0.01
    }
    bias_filler {
      type: "constant"
    }
  }
}
layer {
  name: "relu3"
  type: "ReLU"
  bottom: "ip3"
  top: "ip3"
}
layer {
  name: "ip4"
  type: "InnerProduct"
  bottom: "ip3"
  top: "ip4"
  param {
    lr_mult: 1
  }
  param {
    lr_mult: 2
  }
  inner_product_param {
    num_output: 10
    weight_filler {
      type: "gaussian"
      std: 0.01
    }
    bias_filler {
      type: "constant"
    }
  }
}
layer {
  name: "loss"
  type: "SoftmaxWithLoss"
  bottom: "ip4"
  bottom: "label"
  top: "loss"
}
I0501 01:18:12.765228 10025 layer_factory.hpp:77] Creating layer cifar
I0501 01:18:12.765329 10025 db_lmdb.cpp:35] Opened lmdb examples/cifar10/cifar10_train_lmdb
I0501 01:18:12.765357 10025 net.cpp:86] Creating Layer cifar
I0501 01:18:12.765364 10025 net.cpp:382] cifar -> data
I0501 01:18:12.765388 10025 net.cpp:382] cifar -> label
I0501 01:18:12.765399 10025 data_transformer.cpp:25] Loading mean file from: examples/cifar10/mean.binaryproto
I0501 01:18:12.767479 10025 data_layer.cpp:45] output data size: 111,3,32,32
I0501 01:18:12.775580 10025 net.cpp:124] Setting up cifar
I0501 01:18:12.775599 10025 net.cpp:131] Top shape: 111 3 32 32 (340992)
I0501 01:18:12.775605 10025 net.cpp:131] Top shape: 111 (111)
I0501 01:18:12.775609 10025 net.cpp:139] Memory required for data: 1364412
I0501 01:18:12.775643 10025 layer_factory.hpp:77] Creating layer conv0
I0501 01:18:12.775661 10025 net.cpp:86] Creating Layer conv0
I0501 01:18:12.775667 10025 net.cpp:408] conv0 <- data
I0501 01:18:12.775679 10025 net.cpp:382] conv0 -> conv0
I0501 01:18:13.067694 10025 net.cpp:124] Setting up conv0
I0501 01:18:13.067728 10025 net.cpp:131] Top shape: 111 8 34 34 (1026528)
I0501 01:18:13.067733 10025 net.cpp:139] Memory required for data: 5470524
I0501 01:18:13.067750 10025 layer_factory.hpp:77] Creating layer Sigmoid0
I0501 01:18:13.067764 10025 net.cpp:86] Creating Layer Sigmoid0
I0501 01:18:13.067770 10025 net.cpp:408] Sigmoid0 <- conv0
I0501 01:18:13.067777 10025 net.cpp:382] Sigmoid0 -> Sigmoid0
I0501 01:18:13.068011 10025 net.cpp:124] Setting up Sigmoid0
I0501 01:18:13.068024 10025 net.cpp:131] Top shape: 111 8 34 34 (1026528)
I0501 01:18:13.068029 10025 net.cpp:139] Memory required for data: 9576636
I0501 01:18:13.068033 10025 layer_factory.hpp:77] Creating layer pool0
I0501 01:18:13.068042 10025 net.cpp:86] Creating Layer pool0
I0501 01:18:13.068045 10025 net.cpp:408] pool0 <- Sigmoid0
I0501 01:18:13.068050 10025 net.cpp:382] pool0 -> pool0
I0501 01:18:13.068953 10025 net.cpp:124] Setting up pool0
I0501 01:18:13.068969 10025 net.cpp:131] Top shape: 111 8 17 17 (256632)
I0501 01:18:13.068972 10025 net.cpp:139] Memory required for data: 10603164
I0501 01:18:13.068977 10025 layer_factory.hpp:77] Creating layer ip1
I0501 01:18:13.068989 10025 net.cpp:86] Creating Layer ip1
I0501 01:18:13.068992 10025 net.cpp:408] ip1 <- pool0
I0501 01:18:13.069000 10025 net.cpp:382] ip1 -> ip1
I0501 01:18:13.082218 10025 net.cpp:124] Setting up ip1
I0501 01:18:13.082234 10025 net.cpp:131] Top shape: 111 160 (17760)
I0501 01:18:13.082238 10025 net.cpp:139] Memory required for data: 10674204
I0501 01:18:13.082249 10025 layer_factory.hpp:77] Creating layer relu1
I0501 01:18:13.082257 10025 net.cpp:86] Creating Layer relu1
I0501 01:18:13.082260 10025 net.cpp:408] relu1 <- ip1
I0501 01:18:13.082268 10025 net.cpp:369] relu1 -> ip1 (in-place)
I0501 01:18:13.082468 10025 net.cpp:124] Setting up relu1
I0501 01:18:13.082480 10025 net.cpp:131] Top shape: 111 160 (17760)
I0501 01:18:13.082484 10025 net.cpp:139] Memory required for data: 10745244
I0501 01:18:13.082489 10025 layer_factory.hpp:77] Creating layer ip2
I0501 01:18:13.082497 10025 net.cpp:86] Creating Layer ip2
I0501 01:18:13.082501 10025 net.cpp:408] ip2 <- ip1
I0501 01:18:13.082506 10025 net.cpp:382] ip2 -> ip2
I0501 01:18:13.082685 10025 net.cpp:124] Setting up ip2
I0501 01:18:13.082695 10025 net.cpp:131] Top shape: 111 10 (1110)
I0501 01:18:13.082700 10025 net.cpp:139] Memory required for data: 10749684
I0501 01:18:13.082708 10025 layer_factory.hpp:77] Creating layer relu2
I0501 01:18:13.082715 10025 net.cpp:86] Creating Layer relu2
I0501 01:18:13.082720 10025 net.cpp:408] relu2 <- ip2
I0501 01:18:13.082725 10025 net.cpp:369] relu2 -> ip2 (in-place)
I0501 01:18:13.082926 10025 net.cpp:124] Setting up relu2
I0501 01:18:13.082934 10025 net.cpp:131] Top shape: 111 10 (1110)
I0501 01:18:13.082938 10025 net.cpp:139] Memory required for data: 10754124
I0501 01:18:13.082942 10025 layer_factory.hpp:77] Creating layer ip3
I0501 01:18:13.082952 10025 net.cpp:86] Creating Layer ip3
I0501 01:18:13.082957 10025 net.cpp:408] ip3 <- ip2
I0501 01:18:13.082963 10025 net.cpp:382] ip3 -> ip3
I0501 01:18:13.083083 10025 net.cpp:124] Setting up ip3
I0501 01:18:13.083092 10025 net.cpp:131] Top shape: 111 10 (1110)
I0501 01:18:13.083096 10025 net.cpp:139] Memory required for data: 10758564
I0501 01:18:13.083102 10025 layer_factory.hpp:77] Creating layer relu3
I0501 01:18:13.083108 10025 net.cpp:86] Creating Layer relu3
I0501 01:18:13.083112 10025 net.cpp:408] relu3 <- ip3
I0501 01:18:13.083117 10025 net.cpp:369] relu3 -> ip3 (in-place)
I0501 01:18:13.083298 10025 net.cpp:124] Setting up relu3
I0501 01:18:13.083309 10025 net.cpp:131] Top shape: 111 10 (1110)
I0501 01:18:13.083313 10025 net.cpp:139] Memory required for data: 10763004
I0501 01:18:13.083317 10025 layer_factory.hpp:77] Creating layer ip4
I0501 01:18:13.083341 10025 net.cpp:86] Creating Layer ip4
I0501 01:18:13.083345 10025 net.cpp:408] ip4 <- ip3
I0501 01:18:13.083353 10025 net.cpp:382] ip4 -> ip4
I0501 01:18:13.083474 10025 net.cpp:124] Setting up ip4
I0501 01:18:13.083484 10025 net.cpp:131] Top shape: 111 10 (1110)
I0501 01:18:13.083488 10025 net.cpp:139] Memory required for data: 10767444
I0501 01:18:13.083497 10025 layer_factory.hpp:77] Creating layer loss
I0501 01:18:13.083504 10025 net.cpp:86] Creating Layer loss
I0501 01:18:13.083508 10025 net.cpp:408] loss <- ip4
I0501 01:18:13.083511 10025 net.cpp:408] loss <- label
I0501 01:18:13.083519 10025 net.cpp:382] loss -> loss
I0501 01:18:13.083535 10025 layer_factory.hpp:77] Creating layer loss
…
I0501 01:18:13.084998 10025 solver.cpp:173] Creating test net (#0) specified by net file: ECE595/cifar/train_test/var_everything/cifar_train_test_285.prototxt
I0501 01:18:13.085033 10025 net.cpp:296] The NetState phase (1) differed from the phase (0) specified by a rule in layer cifar
I0501 01:18:13.085150 10025 net.cpp:53] Initializing net from parameters: 
name: "CIFAR"
state {
  phase: TEST
}
layer {
  name: "cifar"
  type: "Data"
  top: "data"
  top: "label"
  include {
    phase: TEST
  }
  transform_param {
    mean_file: "examples/cifar10/mean.binaryproto"
  }
  data_param {
    source: "examples/cifar10/cifar10_test_lmdb"
    batch_size: 1000
    backend: LMDB
  }
}
layer {
  name: "conv0"
  type: "Convolution"
  bottom: "data"
  top: "conv0"
  param {
    lr_mult: 1
  }
  param {
    lr_mult: 2
  }
  convolution_param {
    num_output: 8
    pad: 2
    kernel_size: 3
    stride: 1
    weight_filler {
      type: "gaussian"
      std: 0.01
    }
    bias_filler {
      type: "constant"
    }
  }
}
layer {
  name: "Sigmoid0"
  type: "Sigmoid"
  bottom: "conv0"
  top: "Sigmoid0"
}
layer {
  name: "pool0"
  type: "Pooling"
  bottom: "Sigmoid0"
  top: "pool0"
  pooling_param {
    pool: AVE
    kernel_size: 3
    stride: 2
  }
}
layer {
  name: "ip1"
  type: "InnerProduct"
  bottom: "pool0"
  top: "ip1"
  param {
    lr_mult: 1
  }
  param {
    lr_mult: 2
  }
  inner_product_param {
    num_output: 160
    weight_filler {
      type: "gaussian"
      std: 0.01
    }
    bias_filler {
      type: "constant"
    }
  }
}
layer {
  name: "relu1"
  type: "ReLU"
  bottom: "ip1"
  top: "ip1"
}
layer {
  name: "ip2"
  type: "InnerProduct"
  bottom: "ip1"
  top: "ip2"
  param {
    lr_mult: 1
  }
  param {
    lr_mult: 2
  }
  inner_product_param {
    num_output: 10
    weight_filler {
      type: "gaussian"
      std: 0.01
    }
    bias_filler {
      type: "constant"
    }
  }
}
layer {
  name: "relu2"
  type: "ReLU"
  bottom: "ip2"
  top: "ip2"
}
layer {
  name: "ip3"
  type: "InnerProduct"
  bottom: "ip2"
  top: "ip3"
  param {
    lr_mult: 1
  }
  param {
    lr_mult: 2
  }
  inner_product_param {
    num_output: 10
    weight_filler {
      type: "gaussian"
      std: 0.01
    }
    bias_filler {
      type: "constant"
    }
  }
}
layer {
  name: "relu3"
  type: "ReLU"
  bottom: "ip3"
  top: "ip3"
}
layer {
  name: "ip4"
  type: "InnerProduct"
  bottom: "ip3"
  top: "ip4"
  param {
    lr_mult: 1
  }
  param {
    lr_mult: 2
  }
  inner_product_param {
    num_output: 10
    weight_filler {
      type: "gaussian"
      std: 0.01
    }
    bias_filler {
      type: "constant"
    }
  }
}
layer {
  name: "accuracy"
  type: "Accuracy"
  bottom: "ip4"
  bottom: "label"
  top: "accuracy"
  include {
    phase: TEST
  }
}
layer {
  name: "loss"
  type: "SoftmaxWithLoss"
  bottom: "ip4"
  bottom: "label"
  top: "loss"
}
I0501 01:18:13.085255 10025 layer_factory.hpp:77] Creating layer cifar
I0501 01:18:13.085310 10025 db_lmdb.cpp:35] Opened lmdb examples/cifar10/cifar10_test_lmdb
I0501 01:18:13.085325 10025 net.cpp:86] Creating Layer cifar
I0501 01:18:13.085331 10025 net.cpp:382] cifar -> data
I0501 01:18:13.085340 10025 net.cpp:382] cifar -> label
I0501 01:18:13.085348 10025 data_transformer.cpp:25] Loading mean file from: examples/cifar10/mean.binaryproto
I0501 01:18:13.085532 10025 data_layer.cpp:45] output data size: 1000,3,32,32
I0501 01:18:13.112385 10025 net.cpp:124] Setting up cifar
I0501 01:18:13.112417 10025 net.cpp:131] Top shape: 1000 3 32 32 (3072000)
I0501 01:18:13.112424 10025 net.cpp:131] Top shape: 1000 (1000)
I0501 01:18:13.112427 10025 net.cpp:139] Memory required for data: 12292000
I0501 01:18:13.112433 10025 layer_factory.hpp:77] Creating layer label_cifar_1_split
I0501 01:18:13.112448 10025 net.cpp:86] Creating Layer label_cifar_1_split
I0501 01:18:13.112453 10025 net.cpp:408] label_cifar_1_split <- label
I0501 01:18:13.112462 10025 net.cpp:382] label_cifar_1_split -> label_cifar_1_split_0
I0501 01:18:13.112473 10025 net.cpp:382] label_cifar_1_split -> label_cifar_1_split_1
I0501 01:18:13.112607 10025 net.cpp:124] Setting up label_cifar_1_split
I0501 01:18:13.112619 10025 net.cpp:131] Top shape: 1000 (1000)
I0501 01:18:13.112623 10025 net.cpp:131] Top shape: 1000 (1000)
I0501 01:18:13.112627 10025 net.cpp:139] Memory required for data: 12300000
I0501 01:18:13.112632 10025 layer_factory.hpp:77] Creating layer conv0
I0501 01:18:13.112648 10025 net.cpp:86] Creating Layer conv0
I0501 01:18:13.112651 10025 net.cpp:408] conv0 <- data
I0501 01:18:13.112658 10025 net.cpp:382] conv0 -> conv0
I0501 01:18:13.115464 10025 net.cpp:124] Setting up conv0
I0501 01:18:13.115484 10025 net.cpp:131] Top shape: 1000 8 34 34 (9248000)
I0501 01:18:13.115489 10025 net.cpp:139] Memory required for data: 49292000
I0501 01:18:13.115502 10025 layer_factory.hpp:77] Creating layer Sigmoid0
I0501 01:18:13.115510 10025 net.cpp:86] Creating Layer Sigmoid0
I0501 01:18:13.115514 10025 net.cpp:408] Sigmoid0 <- conv0
I0501 01:18:13.115522 10025 net.cpp:382] Sigmoid0 -> Sigmoid0
I0501 01:18:13.115753 10025 net.cpp:124] Setting up Sigmoid0
I0501 01:18:13.115766 10025 net.cpp:131] Top shape: 1000 8 34 34 (9248000)
I0501 01:18:13.115769 10025 net.cpp:139] Memory required for data: 86284000
I0501 01:18:13.115772 10025 layer_factory.hpp:77] Creating layer pool0
I0501 01:18:13.115783 10025 net.cpp:86] Creating Layer pool0
I0501 01:18:13.115787 10025 net.cpp:408] pool0 <- Sigmoid0
I0501 01:18:13.115793 10025 net.cpp:382] pool0 -> pool0
I0501 01:18:13.116008 10025 net.cpp:124] Setting up pool0
I0501 01:18:13.116019 10025 net.cpp:131] Top shape: 1000 8 17 17 (2312000)
I0501 01:18:13.116024 10025 net.cpp:139] Memory required for data: 95532000
I0501 01:18:13.116027 10025 layer_factory.hpp:77] Creating layer ip1
I0501 01:18:13.116037 10025 net.cpp:86] Creating Layer ip1
I0501 01:18:13.116041 10025 net.cpp:408] ip1 <- pool0
I0501 01:18:13.116049 10025 net.cpp:382] ip1 -> ip1
I0501 01:18:13.129298 10025 net.cpp:124] Setting up ip1
I0501 01:18:13.129314 10025 net.cpp:131] Top shape: 1000 160 (160000)
I0501 01:18:13.129319 10025 net.cpp:139] Memory required for data: 96172000
I0501 01:18:13.129348 10025 layer_factory.hpp:77] Creating layer relu1
I0501 01:18:13.129356 10025 net.cpp:86] Creating Layer relu1
I0501 01:18:13.129360 10025 net.cpp:408] relu1 <- ip1
I0501 01:18:13.129369 10025 net.cpp:369] relu1 -> ip1 (in-place)
I0501 01:18:13.129580 10025 net.cpp:124] Setting up relu1
I0501 01:18:13.129590 10025 net.cpp:131] Top shape: 1000 160 (160000)
I0501 01:18:13.129595 10025 net.cpp:139] Memory required for data: 96812000
I0501 01:18:13.129598 10025 layer_factory.hpp:77] Creating layer ip2
I0501 01:18:13.129606 10025 net.cpp:86] Creating Layer ip2
I0501 01:18:13.129611 10025 net.cpp:408] ip2 <- ip1
I0501 01:18:13.129617 10025 net.cpp:382] ip2 -> ip2
I0501 01:18:13.129803 10025 net.cpp:124] Setting up ip2
I0501 01:18:13.129813 10025 net.cpp:131] Top shape: 1000 10 (10000)
I0501 01:18:13.129820 10025 net.cpp:139] Memory required for data: 96852000
I0501 01:18:13.129828 10025 layer_factory.hpp:77] Creating layer relu2
I0501 01:18:13.129837 10025 net.cpp:86] Creating Layer relu2
I0501 01:18:13.129839 10025 net.cpp:408] relu2 <- ip2
I0501 01:18:13.129847 10025 net.cpp:369] relu2 -> ip2 (in-place)
I0501 01:18:13.130735 10025 net.cpp:124] Setting up relu2
I0501 01:18:13.130751 10025 net.cpp:131] Top shape: 1000 10 (10000)
I0501 01:18:13.130755 10025 net.cpp:139] Memory required for data: 96892000
I0501 01:18:13.130759 10025 layer_factory.hpp:77] Creating layer ip3
I0501 01:18:13.130769 10025 net.cpp:86] Creating Layer ip3
I0501 01:18:13.130774 10025 net.cpp:408] ip3 <- ip2
I0501 01:18:13.130779 10025 net.cpp:382] ip3 -> ip3
I0501 01:18:13.130915 10025 net.cpp:124] Setting up ip3
I0501 01:18:13.130925 10025 net.cpp:131] Top shape: 1000 10 (10000)
I0501 01:18:13.130928 10025 net.cpp:139] Memory required for data: 96932000
I0501 01:18:13.130935 10025 layer_factory.hpp:77] Creating layer relu3
I0501 01:18:13.130944 10025 net.cpp:86] Creating Layer relu3
I0501 01:18:13.130947 10025 net.cpp:408] relu3 <- ip3
I0501 01:18:13.130952 10025 net.cpp:369] relu3 -> ip3 (in-place)
I0501 01:18:13.131141 10025 net.cpp:124] Setting up relu3
I0501 01:18:13.131151 10025 net.cpp:131] Top shape: 1000 10 (10000)
I0501 01:18:13.131155 10025 net.cpp:139] Memory required for data: 96972000
I0501 01:18:13.131160 10025 layer_factory.hpp:77] Creating layer ip4
I0501 01:18:13.131168 10025 net.cpp:86] Creating Layer ip4
I0501 01:18:13.131172 10025 net.cpp:408] ip4 <- ip3
I0501 01:18:13.131180 10025 net.cpp:382] ip4 -> ip4
I0501 01:18:13.131305 10025 net.cpp:124] Setting up ip4
I0501 01:18:13.131314 10025 net.cpp:131] Top shape: 1000 10 (10000)
I0501 01:18:13.131319 10025 net.cpp:139] Memory required for data: 97012000
I0501 01:18:13.131328 10025 layer_factory.hpp:77] Creating layer ip4_ip4_0_split
I0501 01:18:13.131335 10025 net.cpp:86] Creating Layer ip4_ip4_0_split
I0501 01:18:13.131337 10025 net.cpp:408] ip4_ip4_0_split <- ip4
I0501 01:18:13.131342 10025 net.cpp:382] ip4_ip4_0_split -> ip4_ip4_0_split_0
I0501 01:18:13.131348 10025 net.cpp:382] ip4_ip4_0_split -> ip4_ip4_0_split_1
I0501 01:18:13.131388 10025 net.cpp:124] Setting up ip4_ip4_0_split
I0501 01:18:13.131397 10025 net.cpp:131] Top shape: 1000 10 (10000)
I0501 01:18:13.131402 10025 net.cpp:131] Top shape: 1000 10 (10000)
I0501 01:18:13.131405 10025 net.cpp:139] Memory required for data: 97092000
I0501 01:18:13.131408 10025 layer_factory.hpp:77] Creating layer accuracy
I0501 01:18:13.131417 10025 net.cpp:86] Creating Layer accuracy
I0501 01:18:13.131422 10025 net.cpp:408] accuracy <- ip4_ip4_0_split_0
I0501 01:18:13.131427 10025 net.cpp:408] accuracy <- label_cifar_1_split_0
I0501 01:18:13.131431 10025 net.cpp:382] accuracy -> accuracy
…
