…
I0501 05:42:55.892642 30123 net.cpp:296] The NetState phase (0) differed from the phase (1) specified by a rule in layer cifar
I0501 05:42:55.892660 30123 net.cpp:296] The NetState phase (0) differed from the phase (1) specified by a rule in layer accuracy
I0501 05:42:55.892765 30123 net.cpp:53] Initializing net from parameters: 
name: "CIFAR"
state {
  phase: TRAIN
  level: 0
  stage: ""
}
layer {
  name: "cifar"
  type: "Data"
  top: "data"
  top: "label"
  include {
    phase: TRAIN
  }
  transform_param {
    mean_file: "examples/cifar10/mean.binaryproto"
  }
  data_param {
    source: "examples/cifar10/cifar10_train_lmdb"
    batch_size: 111
    backend: LMDB
  }
}
layer {
  name: "conv0"
  type: "Convolution"
  bottom: "data"
  top: "conv0"
  param {
    lr_mult: 1
  }
  param {
    lr_mult: 2
  }
  convolution_param {
    num_output: 8
    pad: 2
    kernel_size: 5
    stride: 1
    weight_filler {
      type: "gaussian"
      std: 0.01
    }
    bias_filler {
      type: "constant"
    }
  }
}
layer {
  name: "Sigmoid0"
  type: "Sigmoid"
  bottom: "conv0"
  top: "Sigmoid0"
}
layer {
  name: "pool0"
  type: "Pooling"
  bottom: "Sigmoid0"
  top: "pool0"
  pooling_param {
    pool: AVE
    kernel_size: 3
    stride: 2
  }
}
layer {
  name: "ip1"
  type: "InnerProduct"
  bottom: "pool0"
  top: "ip1"
  param {
    lr_mult: 1
  }
  param {
    lr_mult: 2
  }
  inner_product_param {
    num_output: 80
    weight_filler {
      type: "gaussian"
      std: 0.01
    }
    bias_filler {
      type: "constant"
    }
  }
}
layer {
  name: "relu1"
  type: "ReLU"
  bottom: "ip1"
  top: "ip1"
}
layer {
  name: "ip2"
  type: "InnerProduct"
  bottom: "ip1"
  top: "ip2"
  param {
    lr_mult: 1
  }
  param {
    lr_mult: 2
  }
  inner_product_param {
    num_output: 40
    weight_filler {
      type: "gaussian"
      std: 0.01
    }
    bias_filler {
      type: "constant"
    }
  }
}
layer {
  name: "relu2"
  type: "ReLU"
  bottom: "ip2"
  top: "ip2"
}
layer {
  name: "ip3"
  type: "InnerProduct"
  bottom: "ip2"
  top: "ip3"
  param {
    lr_mult: 1
  }
  param {
    lr_mult: 2
  }
  inner_product_param {
    num_output: 40
    weight_filler {
      type: "gaussian"
      std: 0.01
    }
    bias_filler {
      type: "constant"
    }
  }
}
layer {
  name: "relu3"
  type: "ReLU"
  bottom: "ip3"
  top: "ip3"
}
layer {
  name: "ip4"
  type: "InnerProduct"
  bottom: "ip3"
  top: "ip4"
  param {
    lr_mult: 1
  }
  param {
    lr_mult: 2
  }
  inner_product_param {
    num_output: 10
    weight_filler {
      type: "gaussian"
      std: 0.01
    }
    bias_filler {
      type: "constant"
    }
  }
}
layer {
  name: "loss"
  type: "SoftmaxWithLoss"
  bottom: "ip4"
  bottom: "label"
  top: "loss"
}
I0501 05:42:55.892849 30123 layer_factory.hpp:77] Creating layer cifar
I0501 05:42:55.892948 30123 db_lmdb.cpp:35] Opened lmdb examples/cifar10/cifar10_train_lmdb
I0501 05:42:55.892974 30123 net.cpp:86] Creating Layer cifar
I0501 05:42:55.892987 30123 net.cpp:382] cifar -> data
I0501 05:42:55.893008 30123 net.cpp:382] cifar -> label
I0501 05:42:55.893020 30123 data_transformer.cpp:25] Loading mean file from: examples/cifar10/mean.binaryproto
I0501 05:42:55.895141 30123 data_layer.cpp:45] output data size: 111,3,32,32
I0501 05:42:55.903048 30123 net.cpp:124] Setting up cifar
I0501 05:42:55.903069 30123 net.cpp:131] Top shape: 111 3 32 32 (340992)
I0501 05:42:55.903075 30123 net.cpp:131] Top shape: 111 (111)
I0501 05:42:55.903079 30123 net.cpp:139] Memory required for data: 1364412
I0501 05:42:55.903105 30123 layer_factory.hpp:77] Creating layer conv0
I0501 05:42:55.903123 30123 net.cpp:86] Creating Layer conv0
I0501 05:42:55.903129 30123 net.cpp:408] conv0 <- data
I0501 05:42:55.903143 30123 net.cpp:382] conv0 -> conv0
I0501 05:42:56.189915 30123 net.cpp:124] Setting up conv0
I0501 05:42:56.189941 30123 net.cpp:131] Top shape: 111 8 32 32 (909312)
I0501 05:42:56.189945 30123 net.cpp:139] Memory required for data: 5001660
I0501 05:42:56.189961 30123 layer_factory.hpp:77] Creating layer Sigmoid0
I0501 05:42:56.189973 30123 net.cpp:86] Creating Layer Sigmoid0
I0501 05:42:56.189977 30123 net.cpp:408] Sigmoid0 <- conv0
I0501 05:42:56.189983 30123 net.cpp:382] Sigmoid0 -> Sigmoid0
I0501 05:42:56.190147 30123 net.cpp:124] Setting up Sigmoid0
I0501 05:42:56.190156 30123 net.cpp:131] Top shape: 111 8 32 32 (909312)
I0501 05:42:56.190160 30123 net.cpp:139] Memory required for data: 8638908
I0501 05:42:56.190163 30123 layer_factory.hpp:77] Creating layer pool0
I0501 05:42:56.190170 30123 net.cpp:86] Creating Layer pool0
I0501 05:42:56.190173 30123 net.cpp:408] pool0 <- Sigmoid0
I0501 05:42:56.190177 30123 net.cpp:382] pool0 -> pool0
I0501 05:42:56.190909 30123 net.cpp:124] Setting up pool0
I0501 05:42:56.190923 30123 net.cpp:131] Top shape: 111 8 16 16 (227328)
I0501 05:42:56.190927 30123 net.cpp:139] Memory required for data: 9548220
I0501 05:42:56.190930 30123 layer_factory.hpp:77] Creating layer ip1
I0501 05:42:56.190939 30123 net.cpp:86] Creating Layer ip1
I0501 05:42:56.190943 30123 net.cpp:408] ip1 <- pool0
I0501 05:42:56.190948 30123 net.cpp:382] ip1 -> ip1
I0501 05:42:56.195456 30123 net.cpp:124] Setting up ip1
I0501 05:42:56.195464 30123 net.cpp:131] Top shape: 111 80 (8880)
I0501 05:42:56.195467 30123 net.cpp:139] Memory required for data: 9583740
I0501 05:42:56.195475 30123 layer_factory.hpp:77] Creating layer relu1
I0501 05:42:56.195482 30123 net.cpp:86] Creating Layer relu1
I0501 05:42:56.195484 30123 net.cpp:408] relu1 <- ip1
I0501 05:42:56.195488 30123 net.cpp:369] relu1 -> ip1 (in-place)
I0501 05:42:56.195637 30123 net.cpp:124] Setting up relu1
I0501 05:42:56.195646 30123 net.cpp:131] Top shape: 111 80 (8880)
I0501 05:42:56.195648 30123 net.cpp:139] Memory required for data: 9619260
I0501 05:42:56.195652 30123 layer_factory.hpp:77] Creating layer ip2
I0501 05:42:56.195657 30123 net.cpp:86] Creating Layer ip2
I0501 05:42:56.195660 30123 net.cpp:408] ip2 <- ip1
I0501 05:42:56.195665 30123 net.cpp:382] ip2 -> ip2
I0501 05:42:56.195839 30123 net.cpp:124] Setting up ip2
I0501 05:42:56.195847 30123 net.cpp:131] Top shape: 111 40 (4440)
I0501 05:42:56.195849 30123 net.cpp:139] Memory required for data: 9637020
I0501 05:42:56.195857 30123 layer_factory.hpp:77] Creating layer relu2
I0501 05:42:56.195860 30123 net.cpp:86] Creating Layer relu2
I0501 05:42:56.195863 30123 net.cpp:408] relu2 <- ip2
I0501 05:42:56.195868 30123 net.cpp:369] relu2 -> ip2 (in-place)
I0501 05:42:56.196012 30123 net.cpp:124] Setting up relu2
I0501 05:42:56.196018 30123 net.cpp:131] Top shape: 111 40 (4440)
I0501 05:42:56.196022 30123 net.cpp:139] Memory required for data: 9654780
I0501 05:42:56.196024 30123 layer_factory.hpp:77] Creating layer ip3
I0501 05:42:56.196032 30123 net.cpp:86] Creating Layer ip3
I0501 05:42:56.196035 30123 net.cpp:408] ip3 <- ip2
I0501 05:42:56.196039 30123 net.cpp:382] ip3 -> ip3
I0501 05:42:56.196177 30123 net.cpp:124] Setting up ip3
I0501 05:42:56.196183 30123 net.cpp:131] Top shape: 111 40 (4440)
I0501 05:42:56.196187 30123 net.cpp:139] Memory required for data: 9672540
I0501 05:42:56.196192 30123 layer_factory.hpp:77] Creating layer relu3
I0501 05:42:56.196195 30123 net.cpp:86] Creating Layer relu3
I0501 05:42:56.196198 30123 net.cpp:408] relu3 <- ip3
I0501 05:42:56.196202 30123 net.cpp:369] relu3 -> ip3 (in-place)
I0501 05:42:56.196341 30123 net.cpp:124] Setting up relu3
I0501 05:42:56.196349 30123 net.cpp:131] Top shape: 111 40 (4440)
I0501 05:42:56.196352 30123 net.cpp:139] Memory required for data: 9690300
I0501 05:42:56.196355 30123 layer_factory.hpp:77] Creating layer ip4
I0501 05:42:56.196375 30123 net.cpp:86] Creating Layer ip4
I0501 05:42:56.196379 30123 net.cpp:408] ip4 <- ip3
I0501 05:42:56.196384 30123 net.cpp:382] ip4 -> ip4
I0501 05:42:56.196481 30123 net.cpp:124] Setting up ip4
I0501 05:42:56.196490 30123 net.cpp:131] Top shape: 111 10 (1110)
I0501 05:42:56.196492 30123 net.cpp:139] Memory required for data: 9694740
I0501 05:42:56.196499 30123 layer_factory.hpp:77] Creating layer loss
I0501 05:42:56.196506 30123 net.cpp:86] Creating Layer loss
I0501 05:42:56.196508 30123 net.cpp:408] loss <- ip4
I0501 05:42:56.196512 30123 net.cpp:408] loss <- label
I0501 05:42:56.196517 30123 net.cpp:382] loss -> loss
I0501 05:42:56.196534 30123 layer_factory.hpp:77] Creating layer loss
…
I0501 05:42:56.197717 30123 solver.cpp:173] Creating test net (#0) specified by net file: ECE595/cifar/train_test/var_everything/cifar_train_test_427.prototxt
I0501 05:42:56.197744 30123 net.cpp:296] The NetState phase (1) differed from the phase (0) specified by a rule in layer cifar
I0501 05:42:56.197839 30123 net.cpp:53] Initializing net from parameters: 
name: "CIFAR"
state {
  phase: TEST
}
layer {
  name: "cifar"
  type: "Data"
  top: "data"
  top: "label"
  include {
    phase: TEST
  }
  transform_param {
    mean_file: "examples/cifar10/mean.binaryproto"
  }
  data_param {
    source: "examples/cifar10/cifar10_test_lmdb"
    batch_size: 1000
    backend: LMDB
  }
}
layer {
  name: "conv0"
  type: "Convolution"
  bottom: "data"
  top: "conv0"
  param {
    lr_mult: 1
  }
  param {
    lr_mult: 2
  }
  convolution_param {
    num_output: 8
    pad: 2
    kernel_size: 5
    stride: 1
    weight_filler {
      type: "gaussian"
      std: 0.01
    }
    bias_filler {
      type: "constant"
    }
  }
}
layer {
  name: "Sigmoid0"
  type: "Sigmoid"
  bottom: "conv0"
  top: "Sigmoid0"
}
layer {
  name: "pool0"
  type: "Pooling"
  bottom: "Sigmoid0"
  top: "pool0"
  pooling_param {
    pool: AVE
    kernel_size: 3
    stride: 2
  }
}
layer {
  name: "ip1"
  type: "InnerProduct"
  bottom: "pool0"
  top: "ip1"
  param {
    lr_mult: 1
  }
  param {
    lr_mult: 2
  }
  inner_product_param {
    num_output: 80
    weight_filler {
      type: "gaussian"
      std: 0.01
    }
    bias_filler {
      type: "constant"
    }
  }
}
layer {
  name: "relu1"
  type: "ReLU"
  bottom: "ip1"
  top: "ip1"
}
layer {
  name: "ip2"
  type: "InnerProduct"
  bottom: "ip1"
  top: "ip2"
  param {
    lr_mult: 1
  }
  param {
    lr_mult: 2
  }
  inner_product_param {
    num_output: 40
    weight_filler {
      type: "gaussian"
      std: 0.01
    }
    bias_filler {
      type: "constant"
    }
  }
}
layer {
  name: "relu2"
  type: "ReLU"
  bottom: "ip2"
  top: "ip2"
}
layer {
  name: "ip3"
  type: "InnerProduct"
  bottom: "ip2"
  top: "ip3"
  param {
    lr_mult: 1
  }
  param {
    lr_mult: 2
  }
  inner_product_param {
    num_output: 40
    weight_filler {
      type: "gaussian"
      std: 0.01
    }
    bias_filler {
      type: "constant"
    }
  }
}
layer {
  name: "relu3"
  type: "ReLU"
  bottom: "ip3"
  top: "ip3"
}
layer {
  name: "ip4"
  type: "InnerProduct"
  bottom: "ip3"
  top: "ip4"
  param {
    lr_mult: 1
  }
  param {
    lr_mult: 2
  }
  inner_product_param {
    num_output: 10
    weight_filler {
      type: "gaussian"
      std: 0.01
    }
    bias_filler {
      type: "constant"
    }
  }
}
layer {
  name: "accuracy"
  type: "Accuracy"
  bottom: "ip4"
  bottom: "label"
  top: "accuracy"
  include {
    phase: TEST
  }
}
layer {
  name: "loss"
  type: "SoftmaxWithLoss"
  bottom: "ip4"
  bottom: "label"
  top: "loss"
}
I0501 05:42:56.197916 30123 layer_factory.hpp:77] Creating layer cifar
I0501 05:42:56.197962 30123 db_lmdb.cpp:35] Opened lmdb examples/cifar10/cifar10_test_lmdb
I0501 05:42:56.197974 30123 net.cpp:86] Creating Layer cifar
I0501 05:42:56.197979 30123 net.cpp:382] cifar -> data
I0501 05:42:56.197988 30123 net.cpp:382] cifar -> label
I0501 05:42:56.197993 30123 data_transformer.cpp:25] Loading mean file from: examples/cifar10/mean.binaryproto
I0501 05:42:56.198133 30123 data_layer.cpp:45] output data size: 1000,3,32,32
I0501 05:42:56.220206 30123 net.cpp:124] Setting up cifar
I0501 05:42:56.220234 30123 net.cpp:131] Top shape: 1000 3 32 32 (3072000)
I0501 05:42:56.220240 30123 net.cpp:131] Top shape: 1000 (1000)
I0501 05:42:56.220243 30123 net.cpp:139] Memory required for data: 12292000
I0501 05:42:56.220248 30123 layer_factory.hpp:77] Creating layer label_cifar_1_split
I0501 05:42:56.220264 30123 net.cpp:86] Creating Layer label_cifar_1_split
I0501 05:42:56.220269 30123 net.cpp:408] label_cifar_1_split <- label
I0501 05:42:56.220274 30123 net.cpp:382] label_cifar_1_split -> label_cifar_1_split_0
I0501 05:42:56.220283 30123 net.cpp:382] label_cifar_1_split -> label_cifar_1_split_1
I0501 05:42:56.220384 30123 net.cpp:124] Setting up label_cifar_1_split
I0501 05:42:56.220392 30123 net.cpp:131] Top shape: 1000 (1000)
I0501 05:42:56.220396 30123 net.cpp:131] Top shape: 1000 (1000)
I0501 05:42:56.220398 30123 net.cpp:139] Memory required for data: 12300000
I0501 05:42:56.220402 30123 layer_factory.hpp:77] Creating layer conv0
I0501 05:42:56.220412 30123 net.cpp:86] Creating Layer conv0
I0501 05:42:56.220415 30123 net.cpp:408] conv0 <- data
I0501 05:42:56.220420 30123 net.cpp:382] conv0 -> conv0
I0501 05:42:56.221954 30123 net.cpp:124] Setting up conv0
I0501 05:42:56.221968 30123 net.cpp:131] Top shape: 1000 8 32 32 (8192000)
I0501 05:42:56.221988 30123 net.cpp:139] Memory required for data: 45068000
I0501 05:42:56.221997 30123 layer_factory.hpp:77] Creating layer Sigmoid0
I0501 05:42:56.222007 30123 net.cpp:86] Creating Layer Sigmoid0
I0501 05:42:56.222010 30123 net.cpp:408] Sigmoid0 <- conv0
I0501 05:42:56.222014 30123 net.cpp:382] Sigmoid0 -> Sigmoid0
I0501 05:42:56.222234 30123 net.cpp:124] Setting up Sigmoid0
I0501 05:42:56.222244 30123 net.cpp:131] Top shape: 1000 8 32 32 (8192000)
I0501 05:42:56.222247 30123 net.cpp:139] Memory required for data: 77836000
I0501 05:42:56.222250 30123 layer_factory.hpp:77] Creating layer pool0
I0501 05:42:56.222272 30123 net.cpp:86] Creating Layer pool0
I0501 05:42:56.222275 30123 net.cpp:408] pool0 <- Sigmoid0
I0501 05:42:56.222281 30123 net.cpp:382] pool0 -> pool0
I0501 05:42:56.223397 30123 net.cpp:124] Setting up pool0
I0501 05:42:56.223407 30123 net.cpp:131] Top shape: 1000 8 16 16 (2048000)
I0501 05:42:56.223409 30123 net.cpp:139] Memory required for data: 86028000
I0501 05:42:56.223412 30123 layer_factory.hpp:77] Creating layer ip1
I0501 05:42:56.223422 30123 net.cpp:86] Creating Layer ip1
I0501 05:42:56.223424 30123 net.cpp:408] ip1 <- pool0
I0501 05:42:56.223429 30123 net.cpp:382] ip1 -> ip1
I0501 05:42:56.227733 30123 net.cpp:124] Setting up ip1
I0501 05:42:56.227742 30123 net.cpp:131] Top shape: 1000 80 (80000)
I0501 05:42:56.227761 30123 net.cpp:139] Memory required for data: 86348000
I0501 05:42:56.227783 30123 layer_factory.hpp:77] Creating layer relu1
I0501 05:42:56.227789 30123 net.cpp:86] Creating Layer relu1
I0501 05:42:56.227792 30123 net.cpp:408] relu1 <- ip1
I0501 05:42:56.227805 30123 net.cpp:369] relu1 -> ip1 (in-place)
I0501 05:42:56.227980 30123 net.cpp:124] Setting up relu1
I0501 05:42:56.227989 30123 net.cpp:131] Top shape: 1000 80 (80000)
I0501 05:42:56.227993 30123 net.cpp:139] Memory required for data: 86668000
I0501 05:42:56.227995 30123 layer_factory.hpp:77] Creating layer ip2
I0501 05:42:56.228001 30123 net.cpp:86] Creating Layer ip2
I0501 05:42:56.228003 30123 net.cpp:408] ip2 <- ip1
I0501 05:42:56.228010 30123 net.cpp:382] ip2 -> ip2
I0501 05:42:56.228217 30123 net.cpp:124] Setting up ip2
I0501 05:42:56.228225 30123 net.cpp:131] Top shape: 1000 40 (40000)
I0501 05:42:56.228229 30123 net.cpp:139] Memory required for data: 86828000
I0501 05:42:56.228236 30123 layer_factory.hpp:77] Creating layer relu2
I0501 05:42:56.228241 30123 net.cpp:86] Creating Layer relu2
I0501 05:42:56.228245 30123 net.cpp:408] relu2 <- ip2
I0501 05:42:56.228250 30123 net.cpp:369] relu2 -> ip2 (in-place)
I0501 05:42:56.229053 30123 net.cpp:124] Setting up relu2
I0501 05:42:56.229066 30123 net.cpp:131] Top shape: 1000 40 (40000)
I0501 05:42:56.229070 30123 net.cpp:139] Memory required for data: 86988000
I0501 05:42:56.229074 30123 layer_factory.hpp:77] Creating layer ip3
I0501 05:42:56.229081 30123 net.cpp:86] Creating Layer ip3
I0501 05:42:56.229084 30123 net.cpp:408] ip3 <- ip2
I0501 05:42:56.229091 30123 net.cpp:382] ip3 -> ip3
I0501 05:42:56.229286 30123 net.cpp:124] Setting up ip3
I0501 05:42:56.229293 30123 net.cpp:131] Top shape: 1000 40 (40000)
I0501 05:42:56.229296 30123 net.cpp:139] Memory required for data: 87148000
I0501 05:42:56.229301 30123 layer_factory.hpp:77] Creating layer relu3
I0501 05:42:56.229306 30123 net.cpp:86] Creating Layer relu3
I0501 05:42:56.229310 30123 net.cpp:408] relu3 <- ip3
I0501 05:42:56.229322 30123 net.cpp:369] relu3 -> ip3 (in-place)
I0501 05:42:56.229485 30123 net.cpp:124] Setting up relu3
I0501 05:42:56.229493 30123 net.cpp:131] Top shape: 1000 40 (40000)
I0501 05:42:56.229496 30123 net.cpp:139] Memory required for data: 87308000
I0501 05:42:56.229499 30123 layer_factory.hpp:77] Creating layer ip4
I0501 05:42:56.229506 30123 net.cpp:86] Creating Layer ip4
I0501 05:42:56.229509 30123 net.cpp:408] ip4 <- ip3
I0501 05:42:56.229514 30123 net.cpp:382] ip4 -> ip4
I0501 05:42:56.229640 30123 net.cpp:124] Setting up ip4
I0501 05:42:56.229646 30123 net.cpp:131] Top shape: 1000 10 (10000)
I0501 05:42:56.229650 30123 net.cpp:139] Memory required for data: 87348000
I0501 05:42:56.229657 30123 layer_factory.hpp:77] Creating layer ip4_ip4_0_split
I0501 05:42:56.229662 30123 net.cpp:86] Creating Layer ip4_ip4_0_split
I0501 05:42:56.229665 30123 net.cpp:408] ip4_ip4_0_split <- ip4
I0501 05:42:56.229671 30123 net.cpp:382] ip4_ip4_0_split -> ip4_ip4_0_split_0
I0501 05:42:56.229676 30123 net.cpp:382] ip4_ip4_0_split -> ip4_ip4_0_split_1
I0501 05:42:56.229707 30123 net.cpp:124] Setting up ip4_ip4_0_split
I0501 05:42:56.229712 30123 net.cpp:131] Top shape: 1000 10 (10000)
I0501 05:42:56.229717 30123 net.cpp:131] Top shape: 1000 10 (10000)
I0501 05:42:56.229719 30123 net.cpp:139] Memory required for data: 87428000
I0501 05:42:56.229722 30123 layer_factory.hpp:77] Creating layer accuracy
I0501 05:42:56.229728 30123 net.cpp:86] Creating Layer accuracy
I0501 05:42:56.229732 30123 net.cpp:408] accuracy <- ip4_ip4_0_split_0
I0501 05:42:56.229735 30123 net.cpp:408] accuracy <- label_cifar_1_split_0
I0501 05:42:56.229748 30123 net.cpp:382] accuracy -> accuracy
…
