…
I0501 05:16:52.220613 28416 net.cpp:296] The NetState phase (0) differed from the phase (1) specified by a rule in layer cifar
I0501 05:16:52.220638 28416 net.cpp:296] The NetState phase (0) differed from the phase (1) specified by a rule in layer accuracy
I0501 05:16:52.220744 28416 net.cpp:53] Initializing net from parameters: 
name: "CIFAR"
state {
  phase: TRAIN
  level: 0
  stage: ""
}
layer {
  name: "cifar"
  type: "Data"
  top: "data"
  top: "label"
  include {
    phase: TRAIN
  }
  transform_param {
    mean_file: "examples/cifar10/mean.binaryproto"
  }
  data_param {
    source: "examples/cifar10/cifar10_train_lmdb"
    batch_size: 111
    backend: LMDB
  }
}
layer {
  name: "conv0"
  type: "Convolution"
  bottom: "data"
  top: "conv0"
  param {
    lr_mult: 1
  }
  param {
    lr_mult: 2
  }
  convolution_param {
    num_output: 8
    pad: 2
    kernel_size: 5
    stride: 1
    weight_filler {
      type: "gaussian"
      std: 0.01
    }
    bias_filler {
      type: "constant"
    }
  }
}
layer {
  name: "Sigmoid0"
  type: "Sigmoid"
  bottom: "conv0"
  top: "Sigmoid0"
}
layer {
  name: "pool0"
  type: "Pooling"
  bottom: "Sigmoid0"
  top: "pool0"
  pooling_param {
    pool: AVE
    kernel_size: 3
    stride: 2
  }
}
layer {
  name: "ip1"
  type: "InnerProduct"
  bottom: "pool0"
  top: "ip1"
  param {
    lr_mult: 1
  }
  param {
    lr_mult: 2
  }
  inner_product_param {
    num_output: 40
    weight_filler {
      type: "gaussian"
      std: 0.01
    }
    bias_filler {
      type: "constant"
    }
  }
}
layer {
  name: "relu1"
  type: "ReLU"
  bottom: "ip1"
  top: "ip1"
}
layer {
  name: "ip2"
  type: "InnerProduct"
  bottom: "ip1"
  top: "ip2"
  param {
    lr_mult: 1
  }
  param {
    lr_mult: 2
  }
  inner_product_param {
    num_output: 160
    weight_filler {
      type: "gaussian"
      std: 0.01
    }
    bias_filler {
      type: "constant"
    }
  }
}
layer {
  name: "relu2"
  type: "ReLU"
  bottom: "ip2"
  top: "ip2"
}
layer {
  name: "ip3"
  type: "InnerProduct"
  bottom: "ip2"
  top: "ip3"
  param {
    lr_mult: 1
  }
  param {
    lr_mult: 2
  }
  inner_product_param {
    num_output: 80
    weight_filler {
      type: "gaussian"
      std: 0.01
    }
    bias_filler {
      type: "constant"
    }
  }
}
layer {
  name: "relu3"
  type: "ReLU"
  bottom: "ip3"
  top: "ip3"
}
layer {
  name: "ip4"
  type: "InnerProduct"
  bottom: "ip3"
  top: "ip4"
  param {
    lr_mult: 1
  }
  param {
    lr_mult: 2
  }
  inner_product_param {
    num_output: 10
    weight_filler {
      type: "gaussian"
      std: 0.01
    }
    bias_filler {
      type: "constant"
    }
  }
}
layer {
  name: "loss"
  type: "SoftmaxWithLoss"
  bottom: "ip4"
  bottom: "label"
  top: "loss"
}
I0501 05:16:52.220832 28416 layer_factory.hpp:77] Creating layer cifar
I0501 05:16:52.220935 28416 db_lmdb.cpp:35] Opened lmdb examples/cifar10/cifar10_train_lmdb
I0501 05:16:52.220963 28416 net.cpp:86] Creating Layer cifar
I0501 05:16:52.220973 28416 net.cpp:382] cifar -> data
I0501 05:16:52.220994 28416 net.cpp:382] cifar -> label
I0501 05:16:52.221006 28416 data_transformer.cpp:25] Loading mean file from: examples/cifar10/mean.binaryproto
I0501 05:16:52.223172 28416 data_layer.cpp:45] output data size: 111,3,32,32
I0501 05:16:52.231043 28416 net.cpp:124] Setting up cifar
I0501 05:16:52.231065 28416 net.cpp:131] Top shape: 111 3 32 32 (340992)
I0501 05:16:52.231071 28416 net.cpp:131] Top shape: 111 (111)
I0501 05:16:52.231076 28416 net.cpp:139] Memory required for data: 1364412
I0501 05:16:52.231098 28416 layer_factory.hpp:77] Creating layer conv0
I0501 05:16:52.231118 28416 net.cpp:86] Creating Layer conv0
I0501 05:16:52.231124 28416 net.cpp:408] conv0 <- data
I0501 05:16:52.231137 28416 net.cpp:382] conv0 -> conv0
I0501 05:16:52.513576 28416 net.cpp:124] Setting up conv0
I0501 05:16:52.513602 28416 net.cpp:131] Top shape: 111 8 32 32 (909312)
I0501 05:16:52.513607 28416 net.cpp:139] Memory required for data: 5001660
I0501 05:16:52.513622 28416 layer_factory.hpp:77] Creating layer Sigmoid0
I0501 05:16:52.513633 28416 net.cpp:86] Creating Layer Sigmoid0
I0501 05:16:52.513638 28416 net.cpp:408] Sigmoid0 <- conv0
I0501 05:16:52.513643 28416 net.cpp:382] Sigmoid0 -> Sigmoid0
I0501 05:16:52.513831 28416 net.cpp:124] Setting up Sigmoid0
I0501 05:16:52.513840 28416 net.cpp:131] Top shape: 111 8 32 32 (909312)
I0501 05:16:52.513844 28416 net.cpp:139] Memory required for data: 8638908
I0501 05:16:52.513847 28416 layer_factory.hpp:77] Creating layer pool0
I0501 05:16:52.513854 28416 net.cpp:86] Creating Layer pool0
I0501 05:16:52.513857 28416 net.cpp:408] pool0 <- Sigmoid0
I0501 05:16:52.513862 28416 net.cpp:382] pool0 -> pool0
I0501 05:16:52.514600 28416 net.cpp:124] Setting up pool0
I0501 05:16:52.514612 28416 net.cpp:131] Top shape: 111 8 16 16 (227328)
I0501 05:16:52.514616 28416 net.cpp:139] Memory required for data: 9548220
I0501 05:16:52.514619 28416 layer_factory.hpp:77] Creating layer ip1
I0501 05:16:52.514628 28416 net.cpp:86] Creating Layer ip1
I0501 05:16:52.514632 28416 net.cpp:408] ip1 <- pool0
I0501 05:16:52.514637 28416 net.cpp:382] ip1 -> ip1
I0501 05:16:52.516916 28416 net.cpp:124] Setting up ip1
I0501 05:16:52.516923 28416 net.cpp:131] Top shape: 111 40 (4440)
I0501 05:16:52.516927 28416 net.cpp:139] Memory required for data: 9565980
I0501 05:16:52.516934 28416 layer_factory.hpp:77] Creating layer relu1
I0501 05:16:52.516939 28416 net.cpp:86] Creating Layer relu1
I0501 05:16:52.516942 28416 net.cpp:408] relu1 <- ip1
I0501 05:16:52.516947 28416 net.cpp:369] relu1 -> ip1 (in-place)
I0501 05:16:52.517112 28416 net.cpp:124] Setting up relu1
I0501 05:16:52.517119 28416 net.cpp:131] Top shape: 111 40 (4440)
I0501 05:16:52.517122 28416 net.cpp:139] Memory required for data: 9583740
I0501 05:16:52.517125 28416 layer_factory.hpp:77] Creating layer ip2
I0501 05:16:52.517132 28416 net.cpp:86] Creating Layer ip2
I0501 05:16:52.517135 28416 net.cpp:408] ip2 <- ip1
I0501 05:16:52.517140 28416 net.cpp:382] ip2 -> ip2
I0501 05:16:52.518303 28416 net.cpp:124] Setting up ip2
I0501 05:16:52.518316 28416 net.cpp:131] Top shape: 111 160 (17760)
I0501 05:16:52.518318 28416 net.cpp:139] Memory required for data: 9654780
I0501 05:16:52.518327 28416 layer_factory.hpp:77] Creating layer relu2
I0501 05:16:52.518332 28416 net.cpp:86] Creating Layer relu2
I0501 05:16:52.518335 28416 net.cpp:408] relu2 <- ip2
I0501 05:16:52.518340 28416 net.cpp:369] relu2 -> ip2 (in-place)
I0501 05:16:52.518518 28416 net.cpp:124] Setting up relu2
I0501 05:16:52.518527 28416 net.cpp:131] Top shape: 111 160 (17760)
I0501 05:16:52.518530 28416 net.cpp:139] Memory required for data: 9725820
I0501 05:16:52.518533 28416 layer_factory.hpp:77] Creating layer ip3
I0501 05:16:52.518540 28416 net.cpp:86] Creating Layer ip3
I0501 05:16:52.518544 28416 net.cpp:408] ip3 <- ip2
I0501 05:16:52.518549 28416 net.cpp:382] ip3 -> ip3
I0501 05:16:52.518992 28416 net.cpp:124] Setting up ip3
I0501 05:16:52.518998 28416 net.cpp:131] Top shape: 111 80 (8880)
I0501 05:16:52.519017 28416 net.cpp:139] Memory required for data: 9761340
I0501 05:16:52.519023 28416 layer_factory.hpp:77] Creating layer relu3
I0501 05:16:52.519027 28416 net.cpp:86] Creating Layer relu3
I0501 05:16:52.519031 28416 net.cpp:408] relu3 <- ip3
I0501 05:16:52.519034 28416 net.cpp:369] relu3 -> ip3 (in-place)
I0501 05:16:52.519218 28416 net.cpp:124] Setting up relu3
I0501 05:16:52.519227 28416 net.cpp:131] Top shape: 111 80 (8880)
I0501 05:16:52.519229 28416 net.cpp:139] Memory required for data: 9796860
I0501 05:16:52.519232 28416 layer_factory.hpp:77] Creating layer ip4
I0501 05:16:52.519253 28416 net.cpp:86] Creating Layer ip4
I0501 05:16:52.519256 28416 net.cpp:408] ip4 <- ip3
I0501 05:16:52.519261 28416 net.cpp:382] ip4 -> ip4
I0501 05:16:52.519376 28416 net.cpp:124] Setting up ip4
I0501 05:16:52.519382 28416 net.cpp:131] Top shape: 111 10 (1110)
I0501 05:16:52.519385 28416 net.cpp:139] Memory required for data: 9801300
I0501 05:16:52.519393 28416 layer_factory.hpp:77] Creating layer loss
I0501 05:16:52.519398 28416 net.cpp:86] Creating Layer loss
I0501 05:16:52.519402 28416 net.cpp:408] loss <- ip4
I0501 05:16:52.519405 28416 net.cpp:408] loss <- label
I0501 05:16:52.519410 28416 net.cpp:382] loss -> loss
I0501 05:16:52.519428 28416 layer_factory.hpp:77] Creating layer loss
…
I0501 05:16:52.520642 28416 solver.cpp:173] Creating test net (#0) specified by net file: ECE595/cifar/train_test/var_everything/cifar_train_test_413.prototxt
I0501 05:16:52.520669 28416 net.cpp:296] The NetState phase (1) differed from the phase (0) specified by a rule in layer cifar
I0501 05:16:52.520763 28416 net.cpp:53] Initializing net from parameters: 
name: "CIFAR"
state {
  phase: TEST
}
layer {
  name: "cifar"
  type: "Data"
  top: "data"
  top: "label"
  include {
    phase: TEST
  }
  transform_param {
    mean_file: "examples/cifar10/mean.binaryproto"
  }
  data_param {
    source: "examples/cifar10/cifar10_test_lmdb"
    batch_size: 1000
    backend: LMDB
  }
}
layer {
  name: "conv0"
  type: "Convolution"
  bottom: "data"
  top: "conv0"
  param {
    lr_mult: 1
  }
  param {
    lr_mult: 2
  }
  convolution_param {
    num_output: 8
    pad: 2
    kernel_size: 5
    stride: 1
    weight_filler {
      type: "gaussian"
      std: 0.01
    }
    bias_filler {
      type: "constant"
    }
  }
}
layer {
  name: "Sigmoid0"
  type: "Sigmoid"
  bottom: "conv0"
  top: "Sigmoid0"
}
layer {
  name: "pool0"
  type: "Pooling"
  bottom: "Sigmoid0"
  top: "pool0"
  pooling_param {
    pool: AVE
    kernel_size: 3
    stride: 2
  }
}
layer {
  name: "ip1"
  type: "InnerProduct"
  bottom: "pool0"
  top: "ip1"
  param {
    lr_mult: 1
  }
  param {
    lr_mult: 2
  }
  inner_product_param {
    num_output: 40
    weight_filler {
      type: "gaussian"
      std: 0.01
    }
    bias_filler {
      type: "constant"
    }
  }
}
layer {
  name: "relu1"
  type: "ReLU"
  bottom: "ip1"
  top: "ip1"
}
layer {
  name: "ip2"
  type: "InnerProduct"
  bottom: "ip1"
  top: "ip2"
  param {
    lr_mult: 1
  }
  param {
    lr_mult: 2
  }
  inner_product_param {
    num_output: 160
    weight_filler {
      type: "gaussian"
      std: 0.01
    }
    bias_filler {
      type: "constant"
    }
  }
}
layer {
  name: "relu2"
  type: "ReLU"
  bottom: "ip2"
  top: "ip2"
}
layer {
  name: "ip3"
  type: "InnerProduct"
  bottom: "ip2"
  top: "ip3"
  param {
    lr_mult: 1
  }
  param {
    lr_mult: 2
  }
  inner_product_param {
    num_output: 80
    weight_filler {
      type: "gaussian"
      std: 0.01
    }
    bias_filler {
      type: "constant"
    }
  }
}
layer {
  name: "relu3"
  type: "ReLU"
  bottom: "ip3"
  top: "ip3"
}
layer {
  name: "ip4"
  type: "InnerProduct"
  bottom: "ip3"
  top: "ip4"
  param {
    lr_mult: 1
  }
  param {
    lr_mult: 2
  }
  inner_product_param {
    num_output: 10
    weight_filler {
      type: "gaussian"
      std: 0.01
    }
    bias_filler {
      type: "constant"
    }
  }
}
layer {
  name: "accuracy"
  type: "Accuracy"
  bottom: "ip4"
  bottom: "label"
  top: "accuracy"
  include {
    phase: TEST
  }
}
layer {
  name: "loss"
  type: "SoftmaxWithLoss"
  bottom: "ip4"
  bottom: "label"
  top: "loss"
}
I0501 05:16:52.520865 28416 layer_factory.hpp:77] Creating layer cifar
I0501 05:16:52.520912 28416 db_lmdb.cpp:35] Opened lmdb examples/cifar10/cifar10_test_lmdb
I0501 05:16:52.520926 28416 net.cpp:86] Creating Layer cifar
I0501 05:16:52.520931 28416 net.cpp:382] cifar -> data
I0501 05:16:52.520939 28416 net.cpp:382] cifar -> label
I0501 05:16:52.520946 28416 data_transformer.cpp:25] Loading mean file from: examples/cifar10/mean.binaryproto
I0501 05:16:52.521098 28416 data_layer.cpp:45] output data size: 1000,3,32,32
I0501 05:16:52.542978 28416 net.cpp:124] Setting up cifar
I0501 05:16:52.543018 28416 net.cpp:131] Top shape: 1000 3 32 32 (3072000)
I0501 05:16:52.543025 28416 net.cpp:131] Top shape: 1000 (1000)
I0501 05:16:52.543028 28416 net.cpp:139] Memory required for data: 12292000
I0501 05:16:52.543036 28416 layer_factory.hpp:77] Creating layer label_cifar_1_split
I0501 05:16:52.543053 28416 net.cpp:86] Creating Layer label_cifar_1_split
I0501 05:16:52.543057 28416 net.cpp:408] label_cifar_1_split <- label
I0501 05:16:52.543078 28416 net.cpp:382] label_cifar_1_split -> label_cifar_1_split_0
I0501 05:16:52.543087 28416 net.cpp:382] label_cifar_1_split -> label_cifar_1_split_1
I0501 05:16:52.543184 28416 net.cpp:124] Setting up label_cifar_1_split
I0501 05:16:52.543191 28416 net.cpp:131] Top shape: 1000 (1000)
I0501 05:16:52.543195 28416 net.cpp:131] Top shape: 1000 (1000)
I0501 05:16:52.543198 28416 net.cpp:139] Memory required for data: 12300000
I0501 05:16:52.543201 28416 layer_factory.hpp:77] Creating layer conv0
I0501 05:16:52.543213 28416 net.cpp:86] Creating Layer conv0
I0501 05:16:52.543216 28416 net.cpp:408] conv0 <- data
I0501 05:16:52.543222 28416 net.cpp:382] conv0 -> conv0
I0501 05:16:52.544752 28416 net.cpp:124] Setting up conv0
I0501 05:16:52.544781 28416 net.cpp:131] Top shape: 1000 8 32 32 (8192000)
I0501 05:16:52.544785 28416 net.cpp:139] Memory required for data: 45068000
I0501 05:16:52.544795 28416 layer_factory.hpp:77] Creating layer Sigmoid0
I0501 05:16:52.544802 28416 net.cpp:86] Creating Layer Sigmoid0
I0501 05:16:52.544806 28416 net.cpp:408] Sigmoid0 <- conv0
I0501 05:16:52.544819 28416 net.cpp:382] Sigmoid0 -> Sigmoid0
I0501 05:16:52.545955 28416 net.cpp:124] Setting up Sigmoid0
I0501 05:16:52.545966 28416 net.cpp:131] Top shape: 1000 8 32 32 (8192000)
I0501 05:16:52.545985 28416 net.cpp:139] Memory required for data: 77836000
I0501 05:16:52.545989 28416 layer_factory.hpp:77] Creating layer pool0
I0501 05:16:52.545997 28416 net.cpp:86] Creating Layer pool0
I0501 05:16:52.546000 28416 net.cpp:408] pool0 <- Sigmoid0
I0501 05:16:52.546005 28416 net.cpp:382] pool0 -> pool0
I0501 05:16:52.546187 28416 net.cpp:124] Setting up pool0
I0501 05:16:52.546196 28416 net.cpp:131] Top shape: 1000 8 16 16 (2048000)
I0501 05:16:52.546200 28416 net.cpp:139] Memory required for data: 86028000
I0501 05:16:52.546202 28416 layer_factory.hpp:77] Creating layer ip1
I0501 05:16:52.546211 28416 net.cpp:86] Creating Layer ip1
I0501 05:16:52.546214 28416 net.cpp:408] ip1 <- pool0
I0501 05:16:52.546219 28416 net.cpp:382] ip1 -> ip1
I0501 05:16:52.548492 28416 net.cpp:124] Setting up ip1
I0501 05:16:52.548499 28416 net.cpp:131] Top shape: 1000 40 (40000)
I0501 05:16:52.548518 28416 net.cpp:139] Memory required for data: 86188000
I0501 05:16:52.548540 28416 layer_factory.hpp:77] Creating layer relu1
I0501 05:16:52.548547 28416 net.cpp:86] Creating Layer relu1
I0501 05:16:52.548549 28416 net.cpp:408] relu1 <- ip1
I0501 05:16:52.548568 28416 net.cpp:369] relu1 -> ip1 (in-place)
I0501 05:16:52.548740 28416 net.cpp:124] Setting up relu1
I0501 05:16:52.548749 28416 net.cpp:131] Top shape: 1000 40 (40000)
I0501 05:16:52.548753 28416 net.cpp:139] Memory required for data: 86348000
I0501 05:16:52.548755 28416 layer_factory.hpp:77] Creating layer ip2
I0501 05:16:52.548763 28416 net.cpp:86] Creating Layer ip2
I0501 05:16:52.548766 28416 net.cpp:408] ip2 <- ip1
I0501 05:16:52.548771 28416 net.cpp:382] ip2 -> ip2
I0501 05:16:52.549058 28416 net.cpp:124] Setting up ip2
I0501 05:16:52.549069 28416 net.cpp:131] Top shape: 1000 160 (160000)
I0501 05:16:52.549072 28416 net.cpp:139] Memory required for data: 86988000
I0501 05:16:52.549080 28416 layer_factory.hpp:77] Creating layer relu2
I0501 05:16:52.549087 28416 net.cpp:86] Creating Layer relu2
I0501 05:16:52.549089 28416 net.cpp:408] relu2 <- ip2
I0501 05:16:52.549093 28416 net.cpp:369] relu2 -> ip2 (in-place)
I0501 05:16:52.549871 28416 net.cpp:124] Setting up relu2
I0501 05:16:52.549883 28416 net.cpp:131] Top shape: 1000 160 (160000)
I0501 05:16:52.549886 28416 net.cpp:139] Memory required for data: 87628000
I0501 05:16:52.549906 28416 layer_factory.hpp:77] Creating layer ip3
I0501 05:16:52.549912 28416 net.cpp:86] Creating Layer ip3
I0501 05:16:52.549916 28416 net.cpp:408] ip3 <- ip2
I0501 05:16:52.549921 28416 net.cpp:382] ip3 -> ip3
I0501 05:16:52.550423 28416 net.cpp:124] Setting up ip3
I0501 05:16:52.550429 28416 net.cpp:131] Top shape: 1000 80 (80000)
I0501 05:16:52.550448 28416 net.cpp:139] Memory required for data: 87948000
I0501 05:16:52.550456 28416 layer_factory.hpp:77] Creating layer relu3
I0501 05:16:52.550459 28416 net.cpp:86] Creating Layer relu3
I0501 05:16:52.550465 28416 net.cpp:408] relu3 <- ip3
I0501 05:16:52.550469 28416 net.cpp:369] relu3 -> ip3 (in-place)
I0501 05:16:52.550640 28416 net.cpp:124] Setting up relu3
I0501 05:16:52.550649 28416 net.cpp:131] Top shape: 1000 80 (80000)
I0501 05:16:52.550652 28416 net.cpp:139] Memory required for data: 88268000
I0501 05:16:52.550655 28416 layer_factory.hpp:77] Creating layer ip4
I0501 05:16:52.550662 28416 net.cpp:86] Creating Layer ip4
I0501 05:16:52.550664 28416 net.cpp:408] ip4 <- ip3
I0501 05:16:52.550669 28416 net.cpp:382] ip4 -> ip4
I0501 05:16:52.550796 28416 net.cpp:124] Setting up ip4
I0501 05:16:52.550802 28416 net.cpp:131] Top shape: 1000 10 (10000)
I0501 05:16:52.550806 28416 net.cpp:139] Memory required for data: 88308000
I0501 05:16:52.550813 28416 layer_factory.hpp:77] Creating layer ip4_ip4_0_split
I0501 05:16:52.550818 28416 net.cpp:86] Creating Layer ip4_ip4_0_split
I0501 05:16:52.550823 28416 net.cpp:408] ip4_ip4_0_split <- ip4
I0501 05:16:52.550827 28416 net.cpp:382] ip4_ip4_0_split -> ip4_ip4_0_split_0
I0501 05:16:52.550833 28416 net.cpp:382] ip4_ip4_0_split -> ip4_ip4_0_split_1
I0501 05:16:52.550863 28416 net.cpp:124] Setting up ip4_ip4_0_split
I0501 05:16:52.550870 28416 net.cpp:131] Top shape: 1000 10 (10000)
I0501 05:16:52.550874 28416 net.cpp:131] Top shape: 1000 10 (10000)
I0501 05:16:52.550876 28416 net.cpp:139] Memory required for data: 88388000
I0501 05:16:52.550880 28416 layer_factory.hpp:77] Creating layer accuracy
I0501 05:16:52.550886 28416 net.cpp:86] Creating Layer accuracy
I0501 05:16:52.550889 28416 net.cpp:408] accuracy <- ip4_ip4_0_split_0
I0501 05:16:52.550894 28416 net.cpp:408] accuracy <- label_cifar_1_split_0
I0501 05:16:52.550899 28416 net.cpp:382] accuracy -> accuracy
…
