…
I0501 00:50:05.071506  8174 net.cpp:296] The NetState phase (0) differed from the phase (1) specified by a rule in layer cifar
I0501 00:50:05.071526  8174 net.cpp:296] The NetState phase (0) differed from the phase (1) specified by a rule in layer accuracy
I0501 00:50:05.071633  8174 net.cpp:53] Initializing net from parameters: 
name: "CIFAR"
state {
  phase: TRAIN
  level: 0
  stage: ""
}
layer {
  name: "cifar"
  type: "Data"
  top: "data"
  top: "label"
  include {
    phase: TRAIN
  }
  transform_param {
    mean_file: "examples/cifar10/mean.binaryproto"
  }
  data_param {
    source: "examples/cifar10/cifar10_train_lmdb"
    batch_size: 111
    backend: LMDB
  }
}
layer {
  name: "conv0"
  type: "Convolution"
  bottom: "data"
  top: "conv0"
  param {
    lr_mult: 1
  }
  param {
    lr_mult: 2
  }
  convolution_param {
    num_output: 8
    pad: 2
    kernel_size: 3
    stride: 1
    weight_filler {
      type: "gaussian"
      std: 0.01
    }
    bias_filler {
      type: "constant"
    }
  }
}
layer {
  name: "Sigmoid0"
  type: "Sigmoid"
  bottom: "conv0"
  top: "Sigmoid0"
}
layer {
  name: "pool0"
  type: "Pooling"
  bottom: "Sigmoid0"
  top: "pool0"
  pooling_param {
    pool: AVE
    kernel_size: 3
    stride: 2
  }
}
layer {
  name: "ip1"
  type: "InnerProduct"
  bottom: "pool0"
  top: "ip1"
  param {
    lr_mult: 1
  }
  param {
    lr_mult: 2
  }
  inner_product_param {
    num_output: 80
    weight_filler {
      type: "gaussian"
      std: 0.01
    }
    bias_filler {
      type: "constant"
    }
  }
}
layer {
  name: "relu1"
  type: "ReLU"
  bottom: "ip1"
  top: "ip1"
}
layer {
  name: "ip2"
  type: "InnerProduct"
  bottom: "ip1"
  top: "ip2"
  param {
    lr_mult: 1
  }
  param {
    lr_mult: 2
  }
  inner_product_param {
    num_output: 40
    weight_filler {
      type: "gaussian"
      std: 0.01
    }
    bias_filler {
      type: "constant"
    }
  }
}
layer {
  name: "relu2"
  type: "ReLU"
  bottom: "ip2"
  top: "ip2"
}
layer {
  name: "ip3"
  type: "InnerProduct"
  bottom: "ip2"
  top: "ip3"
  param {
    lr_mult: 1
  }
  param {
    lr_mult: 2
  }
  inner_product_param {
    num_output: 10
    weight_filler {
      type: "gaussian"
      std: 0.01
    }
    bias_filler {
      type: "constant"
    }
  }
}
layer {
  name: "relu3"
  type: "ReLU"
  bottom: "ip3"
  top: "ip3"
}
layer {
  name: "ip4"
  type: "InnerProduct"
  bottom: "ip3"
  top: "ip4"
  param {
    lr_mult: 1
  }
  param {
    lr_mult: 2
  }
  inner_product_param {
    num_output: 10
    weight_filler {
      type: "gaussian"
      std: 0.01
    }
    bias_filler {
      type: "constant"
    }
  }
}
layer {
  name: "loss"
  type: "SoftmaxWithLoss"
  bottom: "ip4"
  bottom: "label"
  top: "loss"
}
I0501 00:50:05.071714  8174 layer_factory.hpp:77] Creating layer cifar
I0501 00:50:05.071813  8174 db_lmdb.cpp:35] Opened lmdb examples/cifar10/cifar10_train_lmdb
I0501 00:50:05.071842  8174 net.cpp:86] Creating Layer cifar
I0501 00:50:05.071851  8174 net.cpp:382] cifar -> data
I0501 00:50:05.071876  8174 net.cpp:382] cifar -> label
I0501 00:50:05.071887  8174 data_transformer.cpp:25] Loading mean file from: examples/cifar10/mean.binaryproto
I0501 00:50:05.073987  8174 data_layer.cpp:45] output data size: 111,3,32,32
I0501 00:50:05.081897  8174 net.cpp:124] Setting up cifar
I0501 00:50:05.081918  8174 net.cpp:131] Top shape: 111 3 32 32 (340992)
I0501 00:50:05.081925  8174 net.cpp:131] Top shape: 111 (111)
I0501 00:50:05.081929  8174 net.cpp:139] Memory required for data: 1364412
I0501 00:50:05.081951  8174 layer_factory.hpp:77] Creating layer conv0
I0501 00:50:05.081969  8174 net.cpp:86] Creating Layer conv0
I0501 00:50:05.081976  8174 net.cpp:408] conv0 <- data
I0501 00:50:05.081990  8174 net.cpp:382] conv0 -> conv0
I0501 00:50:05.357287  8174 net.cpp:124] Setting up conv0
I0501 00:50:05.357326  8174 net.cpp:131] Top shape: 111 8 34 34 (1026528)
I0501 00:50:05.357329  8174 net.cpp:139] Memory required for data: 5470524
I0501 00:50:05.357343  8174 layer_factory.hpp:77] Creating layer Sigmoid0
I0501 00:50:05.357354  8174 net.cpp:86] Creating Layer Sigmoid0
I0501 00:50:05.357358  8174 net.cpp:408] Sigmoid0 <- conv0
I0501 00:50:05.357363  8174 net.cpp:382] Sigmoid0 -> Sigmoid0
I0501 00:50:05.357542  8174 net.cpp:124] Setting up Sigmoid0
I0501 00:50:05.357552  8174 net.cpp:131] Top shape: 111 8 34 34 (1026528)
I0501 00:50:05.357554  8174 net.cpp:139] Memory required for data: 9576636
I0501 00:50:05.357558  8174 layer_factory.hpp:77] Creating layer pool0
I0501 00:50:05.357563  8174 net.cpp:86] Creating Layer pool0
I0501 00:50:05.357566  8174 net.cpp:408] pool0 <- Sigmoid0
I0501 00:50:05.357571  8174 net.cpp:382] pool0 -> pool0
I0501 00:50:05.358268  8174 net.cpp:124] Setting up pool0
I0501 00:50:05.358295  8174 net.cpp:131] Top shape: 111 8 17 17 (256632)
I0501 00:50:05.358299  8174 net.cpp:139] Memory required for data: 10603164
I0501 00:50:05.358302  8174 layer_factory.hpp:77] Creating layer ip1
I0501 00:50:05.358311  8174 net.cpp:86] Creating Layer ip1
I0501 00:50:05.358315  8174 net.cpp:408] ip1 <- pool0
I0501 00:50:05.358335  8174 net.cpp:382] ip1 -> ip1
I0501 00:50:05.363801  8174 net.cpp:124] Setting up ip1
I0501 00:50:05.363812  8174 net.cpp:131] Top shape: 111 80 (8880)
I0501 00:50:05.363816  8174 net.cpp:139] Memory required for data: 10638684
I0501 00:50:05.363823  8174 layer_factory.hpp:77] Creating layer relu1
I0501 00:50:05.363829  8174 net.cpp:86] Creating Layer relu1
I0501 00:50:05.363832  8174 net.cpp:408] relu1 <- ip1
I0501 00:50:05.363837  8174 net.cpp:369] relu1 -> ip1 (in-place)
I0501 00:50:05.363992  8174 net.cpp:124] Setting up relu1
I0501 00:50:05.364001  8174 net.cpp:131] Top shape: 111 80 (8880)
I0501 00:50:05.364004  8174 net.cpp:139] Memory required for data: 10674204
I0501 00:50:05.364007  8174 layer_factory.hpp:77] Creating layer ip2
I0501 00:50:05.364013  8174 net.cpp:86] Creating Layer ip2
I0501 00:50:05.364015  8174 net.cpp:408] ip2 <- ip1
I0501 00:50:05.364020  8174 net.cpp:382] ip2 -> ip2
I0501 00:50:05.364188  8174 net.cpp:124] Setting up ip2
I0501 00:50:05.364195  8174 net.cpp:131] Top shape: 111 40 (4440)
I0501 00:50:05.364198  8174 net.cpp:139] Memory required for data: 10691964
I0501 00:50:05.364205  8174 layer_factory.hpp:77] Creating layer relu2
I0501 00:50:05.364209  8174 net.cpp:86] Creating Layer relu2
I0501 00:50:05.364212  8174 net.cpp:408] relu2 <- ip2
I0501 00:50:05.364217  8174 net.cpp:369] relu2 -> ip2 (in-place)
I0501 00:50:05.364353  8174 net.cpp:124] Setting up relu2
I0501 00:50:05.364361  8174 net.cpp:131] Top shape: 111 40 (4440)
I0501 00:50:05.364363  8174 net.cpp:139] Memory required for data: 10709724
I0501 00:50:05.364367  8174 layer_factory.hpp:77] Creating layer ip3
I0501 00:50:05.364373  8174 net.cpp:86] Creating Layer ip3
I0501 00:50:05.364377  8174 net.cpp:408] ip3 <- ip2
I0501 00:50:05.364380  8174 net.cpp:382] ip3 -> ip3
I0501 00:50:05.365329  8174 net.cpp:124] Setting up ip3
I0501 00:50:05.365341  8174 net.cpp:131] Top shape: 111 10 (1110)
I0501 00:50:05.365345  8174 net.cpp:139] Memory required for data: 10714164
I0501 00:50:05.365350  8174 layer_factory.hpp:77] Creating layer relu3
I0501 00:50:05.365355  8174 net.cpp:86] Creating Layer relu3
I0501 00:50:05.365357  8174 net.cpp:408] relu3 <- ip3
I0501 00:50:05.365361  8174 net.cpp:369] relu3 -> ip3 (in-place)
I0501 00:50:05.365520  8174 net.cpp:124] Setting up relu3
I0501 00:50:05.365527  8174 net.cpp:131] Top shape: 111 10 (1110)
I0501 00:50:05.365530  8174 net.cpp:139] Memory required for data: 10718604
I0501 00:50:05.365533  8174 layer_factory.hpp:77] Creating layer ip4
I0501 00:50:05.365553  8174 net.cpp:86] Creating Layer ip4
I0501 00:50:05.365556  8174 net.cpp:408] ip4 <- ip3
I0501 00:50:05.365561  8174 net.cpp:382] ip4 -> ip4
I0501 00:50:05.365677  8174 net.cpp:124] Setting up ip4
I0501 00:50:05.365687  8174 net.cpp:131] Top shape: 111 10 (1110)
I0501 00:50:05.365690  8174 net.cpp:139] Memory required for data: 10723044
I0501 00:50:05.365698  8174 layer_factory.hpp:77] Creating layer loss
I0501 00:50:05.365703  8174 net.cpp:86] Creating Layer loss
I0501 00:50:05.365706  8174 net.cpp:408] loss <- ip4
I0501 00:50:05.365710  8174 net.cpp:408] loss <- label
I0501 00:50:05.365715  8174 net.cpp:382] loss -> loss
I0501 00:50:05.365733  8174 layer_factory.hpp:77] Creating layer loss
…
I0501 00:50:05.366910  8174 solver.cpp:173] Creating test net (#0) specified by net file: ECE595/cifar/train_test/var_everything/cifar_train_test_270.prototxt
I0501 00:50:05.366936  8174 net.cpp:296] The NetState phase (1) differed from the phase (0) specified by a rule in layer cifar
I0501 00:50:05.367025  8174 net.cpp:53] Initializing net from parameters: 
name: "CIFAR"
state {
  phase: TEST
}
layer {
  name: "cifar"
  type: "Data"
  top: "data"
  top: "label"
  include {
    phase: TEST
  }
  transform_param {
    mean_file: "examples/cifar10/mean.binaryproto"
  }
  data_param {
    source: "examples/cifar10/cifar10_test_lmdb"
    batch_size: 1000
    backend: LMDB
  }
}
layer {
  name: "conv0"
  type: "Convolution"
  bottom: "data"
  top: "conv0"
  param {
    lr_mult: 1
  }
  param {
    lr_mult: 2
  }
  convolution_param {
    num_output: 8
    pad: 2
    kernel_size: 3
    stride: 1
    weight_filler {
      type: "gaussian"
      std: 0.01
    }
    bias_filler {
      type: "constant"
    }
  }
}
layer {
  name: "Sigmoid0"
  type: "Sigmoid"
  bottom: "conv0"
  top: "Sigmoid0"
}
layer {
  name: "pool0"
  type: "Pooling"
  bottom: "Sigmoid0"
  top: "pool0"
  pooling_param {
    pool: AVE
    kernel_size: 3
    stride: 2
  }
}
layer {
  name: "ip1"
  type: "InnerProduct"
  bottom: "pool0"
  top: "ip1"
  param {
    lr_mult: 1
  }
  param {
    lr_mult: 2
  }
  inner_product_param {
    num_output: 80
    weight_filler {
      type: "gaussian"
      std: 0.01
    }
    bias_filler {
      type: "constant"
    }
  }
}
layer {
  name: "relu1"
  type: "ReLU"
  bottom: "ip1"
  top: "ip1"
}
layer {
  name: "ip2"
  type: "InnerProduct"
  bottom: "ip1"
  top: "ip2"
  param {
    lr_mult: 1
  }
  param {
    lr_mult: 2
  }
  inner_product_param {
    num_output: 40
    weight_filler {
      type: "gaussian"
      std: 0.01
    }
    bias_filler {
      type: "constant"
    }
  }
}
layer {
  name: "relu2"
  type: "ReLU"
  bottom: "ip2"
  top: "ip2"
}
layer {
  name: "ip3"
  type: "InnerProduct"
  bottom: "ip2"
  top: "ip3"
  param {
    lr_mult: 1
  }
  param {
    lr_mult: 2
  }
  inner_product_param {
    num_output: 10
    weight_filler {
      type: "gaussian"
      std: 0.01
    }
    bias_filler {
      type: "constant"
    }
  }
}
layer {
  name: "relu3"
  type: "ReLU"
  bottom: "ip3"
  top: "ip3"
}
layer {
  name: "ip4"
  type: "InnerProduct"
  bottom: "ip3"
  top: "ip4"
  param {
    lr_mult: 1
  }
  param {
    lr_mult: 2
  }
  inner_product_param {
    num_output: 10
    weight_filler {
      type: "gaussian"
      std: 0.01
    }
    bias_filler {
      type: "constant"
    }
  }
}
layer {
  name: "accuracy"
  type: "Accuracy"
  bottom: "ip4"
  bottom: "label"
  top: "accuracy"
  include {
    phase: TEST
  }
}
layer {
  name: "loss"
  type: "SoftmaxWithLoss"
  bottom: "ip4"
  bottom: "label"
  top: "loss"
}
I0501 00:50:05.367115  8174 layer_factory.hpp:77] Creating layer cifar
I0501 00:50:05.367156  8174 db_lmdb.cpp:35] Opened lmdb examples/cifar10/cifar10_test_lmdb
I0501 00:50:05.367169  8174 net.cpp:86] Creating Layer cifar
I0501 00:50:05.367173  8174 net.cpp:382] cifar -> data
I0501 00:50:05.367182  8174 net.cpp:382] cifar -> label
I0501 00:50:05.367187  8174 data_transformer.cpp:25] Loading mean file from: examples/cifar10/mean.binaryproto
I0501 00:50:05.367321  8174 data_layer.cpp:45] output data size: 1000,3,32,32
I0501 00:50:05.390010  8174 net.cpp:124] Setting up cifar
I0501 00:50:05.390053  8174 net.cpp:131] Top shape: 1000 3 32 32 (3072000)
I0501 00:50:05.390072  8174 net.cpp:131] Top shape: 1000 (1000)
I0501 00:50:05.390075  8174 net.cpp:139] Memory required for data: 12292000
I0501 00:50:05.390080  8174 layer_factory.hpp:77] Creating layer label_cifar_1_split
I0501 00:50:05.390097  8174 net.cpp:86] Creating Layer label_cifar_1_split
I0501 00:50:05.390100  8174 net.cpp:408] label_cifar_1_split <- label
I0501 00:50:05.390107  8174 net.cpp:382] label_cifar_1_split -> label_cifar_1_split_0
I0501 00:50:05.390117  8174 net.cpp:382] label_cifar_1_split -> label_cifar_1_split_1
I0501 00:50:05.390190  8174 net.cpp:124] Setting up label_cifar_1_split
I0501 00:50:05.390198  8174 net.cpp:131] Top shape: 1000 (1000)
I0501 00:50:05.390202  8174 net.cpp:131] Top shape: 1000 (1000)
I0501 00:50:05.390204  8174 net.cpp:139] Memory required for data: 12300000
I0501 00:50:05.390208  8174 layer_factory.hpp:77] Creating layer conv0
I0501 00:50:05.390221  8174 net.cpp:86] Creating Layer conv0
I0501 00:50:05.390224  8174 net.cpp:408] conv0 <- data
I0501 00:50:05.390229  8174 net.cpp:382] conv0 -> conv0
I0501 00:50:05.391885  8174 net.cpp:124] Setting up conv0
I0501 00:50:05.391899  8174 net.cpp:131] Top shape: 1000 8 34 34 (9248000)
I0501 00:50:05.391917  8174 net.cpp:139] Memory required for data: 49292000
I0501 00:50:05.391942  8174 layer_factory.hpp:77] Creating layer Sigmoid0
I0501 00:50:05.391950  8174 net.cpp:86] Creating Layer Sigmoid0
I0501 00:50:05.391953  8174 net.cpp:408] Sigmoid0 <- conv0
I0501 00:50:05.391958  8174 net.cpp:382] Sigmoid0 -> Sigmoid0
I0501 00:50:05.392143  8174 net.cpp:124] Setting up Sigmoid0
I0501 00:50:05.392151  8174 net.cpp:131] Top shape: 1000 8 34 34 (9248000)
I0501 00:50:05.392154  8174 net.cpp:139] Memory required for data: 86284000
I0501 00:50:05.392158  8174 layer_factory.hpp:77] Creating layer pool0
I0501 00:50:05.392166  8174 net.cpp:86] Creating Layer pool0
I0501 00:50:05.392170  8174 net.cpp:408] pool0 <- Sigmoid0
I0501 00:50:05.392175  8174 net.cpp:382] pool0 -> pool0
I0501 00:50:05.392426  8174 net.cpp:124] Setting up pool0
I0501 00:50:05.392436  8174 net.cpp:131] Top shape: 1000 8 17 17 (2312000)
I0501 00:50:05.392438  8174 net.cpp:139] Memory required for data: 95532000
I0501 00:50:05.392441  8174 layer_factory.hpp:77] Creating layer ip1
I0501 00:50:05.392449  8174 net.cpp:86] Creating Layer ip1
I0501 00:50:05.392452  8174 net.cpp:408] ip1 <- pool0
I0501 00:50:05.392458  8174 net.cpp:382] ip1 -> ip1
I0501 00:50:05.398380  8174 net.cpp:124] Setting up ip1
I0501 00:50:05.398392  8174 net.cpp:131] Top shape: 1000 80 (80000)
I0501 00:50:05.398411  8174 net.cpp:139] Memory required for data: 95852000
I0501 00:50:05.398442  8174 layer_factory.hpp:77] Creating layer relu1
I0501 00:50:05.398449  8174 net.cpp:86] Creating Layer relu1
I0501 00:50:05.398452  8174 net.cpp:408] relu1 <- ip1
I0501 00:50:05.398457  8174 net.cpp:369] relu1 -> ip1 (in-place)
I0501 00:50:05.398635  8174 net.cpp:124] Setting up relu1
I0501 00:50:05.398643  8174 net.cpp:131] Top shape: 1000 80 (80000)
I0501 00:50:05.398646  8174 net.cpp:139] Memory required for data: 96172000
I0501 00:50:05.398650  8174 layer_factory.hpp:77] Creating layer ip2
I0501 00:50:05.398659  8174 net.cpp:86] Creating Layer ip2
I0501 00:50:05.398663  8174 net.cpp:408] ip2 <- ip1
I0501 00:50:05.398669  8174 net.cpp:382] ip2 -> ip2
I0501 00:50:05.398867  8174 net.cpp:124] Setting up ip2
I0501 00:50:05.398874  8174 net.cpp:131] Top shape: 1000 40 (40000)
I0501 00:50:05.398877  8174 net.cpp:139] Memory required for data: 96332000
I0501 00:50:05.398885  8174 layer_factory.hpp:77] Creating layer relu2
I0501 00:50:05.398890  8174 net.cpp:86] Creating Layer relu2
I0501 00:50:05.398893  8174 net.cpp:408] relu2 <- ip2
I0501 00:50:05.398897  8174 net.cpp:369] relu2 -> ip2 (in-place)
I0501 00:50:05.399644  8174 net.cpp:124] Setting up relu2
I0501 00:50:05.399657  8174 net.cpp:131] Top shape: 1000 40 (40000)
I0501 00:50:05.399675  8174 net.cpp:139] Memory required for data: 96492000
I0501 00:50:05.399678  8174 layer_factory.hpp:77] Creating layer ip3
I0501 00:50:05.399688  8174 net.cpp:86] Creating Layer ip3
I0501 00:50:05.399693  8174 net.cpp:408] ip3 <- ip2
I0501 00:50:05.399698  8174 net.cpp:382] ip3 -> ip3
I0501 00:50:05.399813  8174 net.cpp:124] Setting up ip3
I0501 00:50:05.399821  8174 net.cpp:131] Top shape: 1000 10 (10000)
I0501 00:50:05.399823  8174 net.cpp:139] Memory required for data: 96532000
I0501 00:50:05.399829  8174 layer_factory.hpp:77] Creating layer relu3
I0501 00:50:05.399835  8174 net.cpp:86] Creating Layer relu3
I0501 00:50:05.399838  8174 net.cpp:408] relu3 <- ip3
I0501 00:50:05.399842  8174 net.cpp:369] relu3 -> ip3 (in-place)
I0501 00:50:05.400009  8174 net.cpp:124] Setting up relu3
I0501 00:50:05.400017  8174 net.cpp:131] Top shape: 1000 10 (10000)
I0501 00:50:05.400019  8174 net.cpp:139] Memory required for data: 96572000
I0501 00:50:05.400023  8174 layer_factory.hpp:77] Creating layer ip4
I0501 00:50:05.400029  8174 net.cpp:86] Creating Layer ip4
I0501 00:50:05.400032  8174 net.cpp:408] ip4 <- ip3
I0501 00:50:05.400038  8174 net.cpp:382] ip4 -> ip4
I0501 00:50:05.400135  8174 net.cpp:124] Setting up ip4
I0501 00:50:05.400142  8174 net.cpp:131] Top shape: 1000 10 (10000)
I0501 00:50:05.400146  8174 net.cpp:139] Memory required for data: 96612000
I0501 00:50:05.400152  8174 layer_factory.hpp:77] Creating layer ip4_ip4_0_split
I0501 00:50:05.400157  8174 net.cpp:86] Creating Layer ip4_ip4_0_split
I0501 00:50:05.400161  8174 net.cpp:408] ip4_ip4_0_split <- ip4
I0501 00:50:05.400164  8174 net.cpp:382] ip4_ip4_0_split -> ip4_ip4_0_split_0
I0501 00:50:05.400168  8174 net.cpp:382] ip4_ip4_0_split -> ip4_ip4_0_split_1
I0501 00:50:05.400199  8174 net.cpp:124] Setting up ip4_ip4_0_split
I0501 00:50:05.400203  8174 net.cpp:131] Top shape: 1000 10 (10000)
I0501 00:50:05.400207  8174 net.cpp:131] Top shape: 1000 10 (10000)
I0501 00:50:05.400209  8174 net.cpp:139] Memory required for data: 96692000
I0501 00:50:05.400213  8174 layer_factory.hpp:77] Creating layer accuracy
I0501 00:50:05.400218  8174 net.cpp:86] Creating Layer accuracy
I0501 00:50:05.400221  8174 net.cpp:408] accuracy <- ip4_ip4_0_split_0
I0501 00:50:05.400225  8174 net.cpp:408] accuracy <- label_cifar_1_split_0
I0501 00:50:05.400229  8174 net.cpp:382] accuracy -> accuracy
…
