…
I0501 04:48:58.524063 26649 net.cpp:296] The NetState phase (0) differed from the phase (1) specified by a rule in layer cifar
I0501 04:48:58.524081 26649 net.cpp:296] The NetState phase (0) differed from the phase (1) specified by a rule in layer accuracy
I0501 04:48:58.524179 26649 net.cpp:53] Initializing net from parameters: 
name: "CIFAR"
state {
  phase: TRAIN
  level: 0
  stage: ""
}
layer {
  name: "cifar"
  type: "Data"
  top: "data"
  top: "label"
  include {
    phase: TRAIN
  }
  transform_param {
    mean_file: "examples/cifar10/mean.binaryproto"
  }
  data_param {
    source: "examples/cifar10/cifar10_train_lmdb"
    batch_size: 111
    backend: LMDB
  }
}
layer {
  name: "conv0"
  type: "Convolution"
  bottom: "data"
  top: "conv0"
  param {
    lr_mult: 1
  }
  param {
    lr_mult: 2
  }
  convolution_param {
    num_output: 8
    pad: 2
    kernel_size: 5
    stride: 1
    weight_filler {
      type: "gaussian"
      std: 0.01
    }
    bias_filler {
      type: "constant"
    }
  }
}
layer {
  name: "Sigmoid0"
  type: "Sigmoid"
  bottom: "conv0"
  top: "Sigmoid0"
}
layer {
  name: "pool0"
  type: "Pooling"
  bottom: "Sigmoid0"
  top: "pool0"
  pooling_param {
    pool: AVE
    kernel_size: 3
    stride: 2
  }
}
layer {
  name: "ip1"
  type: "InnerProduct"
  bottom: "pool0"
  top: "ip1"
  param {
    lr_mult: 1
  }
  param {
    lr_mult: 2
  }
  inner_product_param {
    num_output: 40
    weight_filler {
      type: "gaussian"
      std: 0.01
    }
    bias_filler {
      type: "constant"
    }
  }
}
layer {
  name: "relu1"
  type: "ReLU"
  bottom: "ip1"
  top: "ip1"
}
layer {
  name: "ip2"
  type: "InnerProduct"
  bottom: "ip1"
  top: "ip2"
  param {
    lr_mult: 1
  }
  param {
    lr_mult: 2
  }
  inner_product_param {
    num_output: 20
    weight_filler {
      type: "gaussian"
      std: 0.01
    }
    bias_filler {
      type: "constant"
    }
  }
}
layer {
  name: "relu2"
  type: "ReLU"
  bottom: "ip2"
  top: "ip2"
}
layer {
  name: "ip3"
  type: "InnerProduct"
  bottom: "ip2"
  top: "ip3"
  param {
    lr_mult: 1
  }
  param {
    lr_mult: 2
  }
  inner_product_param {
    num_output: 80
    weight_filler {
      type: "gaussian"
      std: 0.01
    }
    bias_filler {
      type: "constant"
    }
  }
}
layer {
  name: "relu3"
  type: "ReLU"
  bottom: "ip3"
  top: "ip3"
}
layer {
  name: "ip4"
  type: "InnerProduct"
  bottom: "ip3"
  top: "ip4"
  param {
    lr_mult: 1
  }
  param {
    lr_mult: 2
  }
  inner_product_param {
    num_output: 10
    weight_filler {
      type: "gaussian"
      std: 0.01
    }
    bias_filler {
      type: "constant"
    }
  }
}
layer {
  name: "loss"
  type: "SoftmaxWithLoss"
  bottom: "ip4"
  bottom: "label"
  top: "loss"
}
I0501 04:48:58.524251 26649 layer_factory.hpp:77] Creating layer cifar
I0501 04:48:58.524348 26649 db_lmdb.cpp:35] Opened lmdb examples/cifar10/cifar10_train_lmdb
I0501 04:48:58.524374 26649 net.cpp:86] Creating Layer cifar
I0501 04:48:58.524384 26649 net.cpp:382] cifar -> data
I0501 04:48:58.524405 26649 net.cpp:382] cifar -> label
I0501 04:48:58.524417 26649 data_transformer.cpp:25] Loading mean file from: examples/cifar10/mean.binaryproto
I0501 04:48:58.526584 26649 data_layer.cpp:45] output data size: 111,3,32,32
I0501 04:48:58.534476 26649 net.cpp:124] Setting up cifar
I0501 04:48:58.534493 26649 net.cpp:131] Top shape: 111 3 32 32 (340992)
I0501 04:48:58.534500 26649 net.cpp:131] Top shape: 111 (111)
I0501 04:48:58.534504 26649 net.cpp:139] Memory required for data: 1364412
I0501 04:48:58.534528 26649 layer_factory.hpp:77] Creating layer conv0
I0501 04:48:58.534545 26649 net.cpp:86] Creating Layer conv0
I0501 04:48:58.534551 26649 net.cpp:408] conv0 <- data
I0501 04:48:58.534564 26649 net.cpp:382] conv0 -> conv0
I0501 04:48:58.828392 26649 net.cpp:124] Setting up conv0
I0501 04:48:58.828423 26649 net.cpp:131] Top shape: 111 8 32 32 (909312)
I0501 04:48:58.828428 26649 net.cpp:139] Memory required for data: 5001660
I0501 04:48:58.828447 26649 layer_factory.hpp:77] Creating layer Sigmoid0
I0501 04:48:58.828461 26649 net.cpp:86] Creating Layer Sigmoid0
I0501 04:48:58.828465 26649 net.cpp:408] Sigmoid0 <- conv0
I0501 04:48:58.828472 26649 net.cpp:382] Sigmoid0 -> Sigmoid0
I0501 04:48:58.828676 26649 net.cpp:124] Setting up Sigmoid0
I0501 04:48:58.828688 26649 net.cpp:131] Top shape: 111 8 32 32 (909312)
I0501 04:48:58.828692 26649 net.cpp:139] Memory required for data: 8638908
I0501 04:48:58.828696 26649 layer_factory.hpp:77] Creating layer pool0
I0501 04:48:58.828704 26649 net.cpp:86] Creating Layer pool0
I0501 04:48:58.828708 26649 net.cpp:408] pool0 <- Sigmoid0
I0501 04:48:58.828714 26649 net.cpp:382] pool0 -> pool0
I0501 04:48:58.829602 26649 net.cpp:124] Setting up pool0
I0501 04:48:58.829619 26649 net.cpp:131] Top shape: 111 8 16 16 (227328)
I0501 04:48:58.829623 26649 net.cpp:139] Memory required for data: 9548220
I0501 04:48:58.829627 26649 layer_factory.hpp:77] Creating layer ip1
I0501 04:48:58.829639 26649 net.cpp:86] Creating Layer ip1
I0501 04:48:58.829643 26649 net.cpp:408] ip1 <- pool0
I0501 04:48:58.829649 26649 net.cpp:382] ip1 -> ip1
I0501 04:48:58.832476 26649 net.cpp:124] Setting up ip1
I0501 04:48:58.832486 26649 net.cpp:131] Top shape: 111 40 (4440)
I0501 04:48:58.832490 26649 net.cpp:139] Memory required for data: 9565980
I0501 04:48:58.832499 26649 layer_factory.hpp:77] Creating layer relu1
I0501 04:48:58.832506 26649 net.cpp:86] Creating Layer relu1
I0501 04:48:58.832510 26649 net.cpp:408] relu1 <- ip1
I0501 04:48:58.832515 26649 net.cpp:369] relu1 -> ip1 (in-place)
I0501 04:48:58.832705 26649 net.cpp:124] Setting up relu1
I0501 04:48:58.832715 26649 net.cpp:131] Top shape: 111 40 (4440)
I0501 04:48:58.832720 26649 net.cpp:139] Memory required for data: 9583740
I0501 04:48:58.832723 26649 layer_factory.hpp:77] Creating layer ip2
I0501 04:48:58.832731 26649 net.cpp:86] Creating Layer ip2
I0501 04:48:58.832734 26649 net.cpp:408] ip2 <- ip1
I0501 04:48:58.832741 26649 net.cpp:382] ip2 -> ip2
I0501 04:48:58.832881 26649 net.cpp:124] Setting up ip2
I0501 04:48:58.832898 26649 net.cpp:131] Top shape: 111 20 (2220)
I0501 04:48:58.832902 26649 net.cpp:139] Memory required for data: 9592620
I0501 04:48:58.832911 26649 layer_factory.hpp:77] Creating layer relu2
I0501 04:48:58.832917 26649 net.cpp:86] Creating Layer relu2
I0501 04:48:58.832921 26649 net.cpp:408] relu2 <- ip2
I0501 04:48:58.832926 26649 net.cpp:369] relu2 -> ip2 (in-place)
I0501 04:48:58.833123 26649 net.cpp:124] Setting up relu2
I0501 04:48:58.833133 26649 net.cpp:131] Top shape: 111 20 (2220)
I0501 04:48:58.833137 26649 net.cpp:139] Memory required for data: 9601500
I0501 04:48:58.833140 26649 layer_factory.hpp:77] Creating layer ip3
I0501 04:48:58.833150 26649 net.cpp:86] Creating Layer ip3
I0501 04:48:58.833154 26649 net.cpp:408] ip3 <- ip2
I0501 04:48:58.833160 26649 net.cpp:382] ip3 -> ip3
I0501 04:48:58.833329 26649 net.cpp:124] Setting up ip3
I0501 04:48:58.833338 26649 net.cpp:131] Top shape: 111 80 (8880)
I0501 04:48:58.833341 26649 net.cpp:139] Memory required for data: 9637020
I0501 04:48:58.833348 26649 layer_factory.hpp:77] Creating layer relu3
I0501 04:48:58.833354 26649 net.cpp:86] Creating Layer relu3
I0501 04:48:58.833358 26649 net.cpp:408] relu3 <- ip3
I0501 04:48:58.833364 26649 net.cpp:369] relu3 -> ip3 (in-place)
I0501 04:48:58.833552 26649 net.cpp:124] Setting up relu3
I0501 04:48:58.833562 26649 net.cpp:131] Top shape: 111 80 (8880)
I0501 04:48:58.833566 26649 net.cpp:139] Memory required for data: 9672540
I0501 04:48:58.833570 26649 layer_factory.hpp:77] Creating layer ip4
I0501 04:48:58.833593 26649 net.cpp:86] Creating Layer ip4
I0501 04:48:58.833597 26649 net.cpp:408] ip4 <- ip3
I0501 04:48:58.833603 26649 net.cpp:382] ip4 -> ip4
I0501 04:48:58.833748 26649 net.cpp:124] Setting up ip4
I0501 04:48:58.833760 26649 net.cpp:131] Top shape: 111 10 (1110)
I0501 04:48:58.833763 26649 net.cpp:139] Memory required for data: 9676980
I0501 04:48:58.833772 26649 layer_factory.hpp:77] Creating layer loss
I0501 04:48:58.833780 26649 net.cpp:86] Creating Layer loss
I0501 04:48:58.833782 26649 net.cpp:408] loss <- ip4
I0501 04:48:58.833787 26649 net.cpp:408] loss <- label
I0501 04:48:58.833793 26649 net.cpp:382] loss -> loss
I0501 04:48:58.833812 26649 layer_factory.hpp:77] Creating layer loss
…
I0501 04:48:58.835265 26649 solver.cpp:173] Creating test net (#0) specified by net file: ECE595/cifar/train_test/var_everything/cifar_train_test_398.prototxt
I0501 04:48:58.835299 26649 net.cpp:296] The NetState phase (1) differed from the phase (0) specified by a rule in layer cifar
I0501 04:48:58.835414 26649 net.cpp:53] Initializing net from parameters: 
name: "CIFAR"
state {
  phase: TEST
}
layer {
  name: "cifar"
  type: "Data"
  top: "data"
  top: "label"
  include {
    phase: TEST
  }
  transform_param {
    mean_file: "examples/cifar10/mean.binaryproto"
  }
  data_param {
    source: "examples/cifar10/cifar10_test_lmdb"
    batch_size: 1000
    backend: LMDB
  }
}
layer {
  name: "conv0"
  type: "Convolution"
  bottom: "data"
  top: "conv0"
  param {
    lr_mult: 1
  }
  param {
    lr_mult: 2
  }
  convolution_param {
    num_output: 8
    pad: 2
    kernel_size: 5
    stride: 1
    weight_filler {
      type: "gaussian"
      std: 0.01
    }
    bias_filler {
      type: "constant"
    }
  }
}
layer {
  name: "Sigmoid0"
  type: "Sigmoid"
  bottom: "conv0"
  top: "Sigmoid0"
}
layer {
  name: "pool0"
  type: "Pooling"
  bottom: "Sigmoid0"
  top: "pool0"
  pooling_param {
    pool: AVE
    kernel_size: 3
    stride: 2
  }
}
layer {
  name: "ip1"
  type: "InnerProduct"
  bottom: "pool0"
  top: "ip1"
  param {
    lr_mult: 1
  }
  param {
    lr_mult: 2
  }
  inner_product_param {
    num_output: 40
    weight_filler {
      type: "gaussian"
      std: 0.01
    }
    bias_filler {
      type: "constant"
    }
  }
}
layer {
  name: "relu1"
  type: "ReLU"
  bottom: "ip1"
  top: "ip1"
}
layer {
  name: "ip2"
  type: "InnerProduct"
  bottom: "ip1"
  top: "ip2"
  param {
    lr_mult: 1
  }
  param {
    lr_mult: 2
  }
  inner_product_param {
    num_output: 20
    weight_filler {
      type: "gaussian"
      std: 0.01
    }
    bias_filler {
      type: "constant"
    }
  }
}
layer {
  name: "relu2"
  type: "ReLU"
  bottom: "ip2"
  top: "ip2"
}
layer {
  name: "ip3"
  type: "InnerProduct"
  bottom: "ip2"
  top: "ip3"
  param {
    lr_mult: 1
  }
  param {
    lr_mult: 2
  }
  inner_product_param {
    num_output: 80
    weight_filler {
      type: "gaussian"
      std: 0.01
    }
    bias_filler {
      type: "constant"
    }
  }
}
layer {
  name: "relu3"
  type: "ReLU"
  bottom: "ip3"
  top: "ip3"
}
layer {
  name: "ip4"
  type: "InnerProduct"
  bottom: "ip3"
  top: "ip4"
  param {
    lr_mult: 1
  }
  param {
    lr_mult: 2
  }
  inner_product_param {
    num_output: 10
    weight_filler {
      type: "gaussian"
      std: 0.01
    }
    bias_filler {
      type: "constant"
    }
  }
}
layer {
  name: "accuracy"
  type: "Accuracy"
  bottom: "ip4"
  bottom: "label"
  top: "accuracy"
  include {
    phase: TEST
  }
}
layer {
  name: "loss"
  type: "SoftmaxWithLoss"
  bottom: "ip4"
  bottom: "label"
  top: "loss"
}
I0501 04:48:58.835517 26649 layer_factory.hpp:77] Creating layer cifar
I0501 04:48:58.835572 26649 db_lmdb.cpp:35] Opened lmdb examples/cifar10/cifar10_test_lmdb
I0501 04:48:58.835587 26649 net.cpp:86] Creating Layer cifar
I0501 04:48:58.835594 26649 net.cpp:382] cifar -> data
I0501 04:48:58.835603 26649 net.cpp:382] cifar -> label
I0501 04:48:58.835611 26649 data_transformer.cpp:25] Loading mean file from: examples/cifar10/mean.binaryproto
I0501 04:48:58.835789 26649 data_layer.cpp:45] output data size: 1000,3,32,32
I0501 04:48:58.861748 26649 net.cpp:124] Setting up cifar
I0501 04:48:58.861779 26649 net.cpp:131] Top shape: 1000 3 32 32 (3072000)
I0501 04:48:58.861786 26649 net.cpp:131] Top shape: 1000 (1000)
I0501 04:48:58.861790 26649 net.cpp:139] Memory required for data: 12292000
I0501 04:48:58.861796 26649 layer_factory.hpp:77] Creating layer label_cifar_1_split
I0501 04:48:58.861817 26649 net.cpp:86] Creating Layer label_cifar_1_split
I0501 04:48:58.861822 26649 net.cpp:408] label_cifar_1_split <- label
I0501 04:48:58.861829 26649 net.cpp:382] label_cifar_1_split -> label_cifar_1_split_0
I0501 04:48:58.861840 26649 net.cpp:382] label_cifar_1_split -> label_cifar_1_split_1
I0501 04:48:58.861960 26649 net.cpp:124] Setting up label_cifar_1_split
I0501 04:48:58.861970 26649 net.cpp:131] Top shape: 1000 (1000)
I0501 04:48:58.861974 26649 net.cpp:131] Top shape: 1000 (1000)
I0501 04:48:58.861979 26649 net.cpp:139] Memory required for data: 12300000
I0501 04:48:58.861982 26649 layer_factory.hpp:77] Creating layer conv0
I0501 04:48:58.861999 26649 net.cpp:86] Creating Layer conv0
I0501 04:48:58.862002 26649 net.cpp:408] conv0 <- data
I0501 04:48:58.862010 26649 net.cpp:382] conv0 -> conv0
I0501 04:48:58.864876 26649 net.cpp:124] Setting up conv0
I0501 04:48:58.864893 26649 net.cpp:131] Top shape: 1000 8 32 32 (8192000)
I0501 04:48:58.864898 26649 net.cpp:139] Memory required for data: 45068000
I0501 04:48:58.864912 26649 layer_factory.hpp:77] Creating layer Sigmoid0
I0501 04:48:58.864919 26649 net.cpp:86] Creating Layer Sigmoid0
I0501 04:48:58.864924 26649 net.cpp:408] Sigmoid0 <- conv0
I0501 04:48:58.864933 26649 net.cpp:382] Sigmoid0 -> Sigmoid0
I0501 04:48:58.865183 26649 net.cpp:124] Setting up Sigmoid0
I0501 04:48:58.865195 26649 net.cpp:131] Top shape: 1000 8 32 32 (8192000)
I0501 04:48:58.865200 26649 net.cpp:139] Memory required for data: 77836000
I0501 04:48:58.865203 26649 layer_factory.hpp:77] Creating layer pool0
I0501 04:48:58.865213 26649 net.cpp:86] Creating Layer pool0
I0501 04:48:58.865217 26649 net.cpp:408] pool0 <- Sigmoid0
I0501 04:48:58.865223 26649 net.cpp:382] pool0 -> pool0
I0501 04:48:58.865437 26649 net.cpp:124] Setting up pool0
I0501 04:48:58.865448 26649 net.cpp:131] Top shape: 1000 8 16 16 (2048000)
I0501 04:48:58.865453 26649 net.cpp:139] Memory required for data: 86028000
I0501 04:48:58.865456 26649 layer_factory.hpp:77] Creating layer ip1
I0501 04:48:58.865468 26649 net.cpp:86] Creating Layer ip1
I0501 04:48:58.865471 26649 net.cpp:408] ip1 <- pool0
I0501 04:48:58.865478 26649 net.cpp:382] ip1 -> ip1
I0501 04:48:58.868309 26649 net.cpp:124] Setting up ip1
I0501 04:48:58.868319 26649 net.cpp:131] Top shape: 1000 40 (40000)
I0501 04:48:58.868322 26649 net.cpp:139] Memory required for data: 86188000
I0501 04:48:58.868350 26649 layer_factory.hpp:77] Creating layer relu1
I0501 04:48:58.868358 26649 net.cpp:86] Creating Layer relu1
I0501 04:48:58.868362 26649 net.cpp:408] relu1 <- ip1
I0501 04:48:58.868367 26649 net.cpp:369] relu1 -> ip1 (in-place)
I0501 04:48:58.868569 26649 net.cpp:124] Setting up relu1
I0501 04:48:58.868579 26649 net.cpp:131] Top shape: 1000 40 (40000)
I0501 04:48:58.868583 26649 net.cpp:139] Memory required for data: 86348000
I0501 04:48:58.868595 26649 layer_factory.hpp:77] Creating layer ip2
I0501 04:48:58.868605 26649 net.cpp:86] Creating Layer ip2
I0501 04:48:58.868609 26649 net.cpp:408] ip2 <- ip1
I0501 04:48:58.868616 26649 net.cpp:382] ip2 -> ip2
I0501 04:48:58.868773 26649 net.cpp:124] Setting up ip2
I0501 04:48:58.868782 26649 net.cpp:131] Top shape: 1000 20 (20000)
I0501 04:48:58.868787 26649 net.cpp:139] Memory required for data: 86428000
I0501 04:48:58.868794 26649 layer_factory.hpp:77] Creating layer relu2
I0501 04:48:58.868803 26649 net.cpp:86] Creating Layer relu2
I0501 04:48:58.868808 26649 net.cpp:408] relu2 <- ip2
I0501 04:48:58.868819 26649 net.cpp:369] relu2 -> ip2 (in-place)
I0501 04:48:58.869720 26649 net.cpp:124] Setting up relu2
I0501 04:48:58.869735 26649 net.cpp:131] Top shape: 1000 20 (20000)
I0501 04:48:58.869740 26649 net.cpp:139] Memory required for data: 86508000
I0501 04:48:58.869743 26649 layer_factory.hpp:77] Creating layer ip3
I0501 04:48:58.869751 26649 net.cpp:86] Creating Layer ip3
I0501 04:48:58.869756 26649 net.cpp:408] ip3 <- ip2
I0501 04:48:58.869765 26649 net.cpp:382] ip3 -> ip3
I0501 04:48:58.869954 26649 net.cpp:124] Setting up ip3
I0501 04:48:58.869963 26649 net.cpp:131] Top shape: 1000 80 (80000)
I0501 04:48:58.869967 26649 net.cpp:139] Memory required for data: 86828000
I0501 04:48:58.869974 26649 layer_factory.hpp:77] Creating layer relu3
I0501 04:48:58.869982 26649 net.cpp:86] Creating Layer relu3
I0501 04:48:58.869985 26649 net.cpp:408] relu3 <- ip3
I0501 04:48:58.869990 26649 net.cpp:369] relu3 -> ip3 (in-place)
I0501 04:48:58.870184 26649 net.cpp:124] Setting up relu3
I0501 04:48:58.870193 26649 net.cpp:131] Top shape: 1000 80 (80000)
I0501 04:48:58.870198 26649 net.cpp:139] Memory required for data: 87148000
I0501 04:48:58.870201 26649 layer_factory.hpp:77] Creating layer ip4
I0501 04:48:58.870210 26649 net.cpp:86] Creating Layer ip4
I0501 04:48:58.870214 26649 net.cpp:408] ip4 <- ip3
I0501 04:48:58.870221 26649 net.cpp:382] ip4 -> ip4
I0501 04:48:58.870374 26649 net.cpp:124] Setting up ip4
I0501 04:48:58.870383 26649 net.cpp:131] Top shape: 1000 10 (10000)
I0501 04:48:58.870386 26649 net.cpp:139] Memory required for data: 87188000
I0501 04:48:58.870396 26649 layer_factory.hpp:77] Creating layer ip4_ip4_0_split
I0501 04:48:58.870403 26649 net.cpp:86] Creating Layer ip4_ip4_0_split
I0501 04:48:58.870405 26649 net.cpp:408] ip4_ip4_0_split <- ip4
I0501 04:48:58.870410 26649 net.cpp:382] ip4_ip4_0_split -> ip4_ip4_0_split_0
I0501 04:48:58.870419 26649 net.cpp:382] ip4_ip4_0_split -> ip4_ip4_0_split_1
I0501 04:48:58.870457 26649 net.cpp:124] Setting up ip4_ip4_0_split
I0501 04:48:58.870465 26649 net.cpp:131] Top shape: 1000 10 (10000)
I0501 04:48:58.870470 26649 net.cpp:131] Top shape: 1000 10 (10000)
I0501 04:48:58.870473 26649 net.cpp:139] Memory required for data: 87268000
I0501 04:48:58.870476 26649 layer_factory.hpp:77] Creating layer accuracy
I0501 04:48:58.870484 26649 net.cpp:86] Creating Layer accuracy
I0501 04:48:58.870488 26649 net.cpp:408] accuracy <- ip4_ip4_0_split_0
I0501 04:48:58.870493 26649 net.cpp:408] accuracy <- label_cifar_1_split_0
I0501 04:48:58.870498 26649 net.cpp:382] accuracy -> accuracy
…
