…
I0430 17:33:05.242372 19939 net.cpp:296] The NetState phase (0) differed from the phase (1) specified by a rule in layer cifar
I0430 17:33:05.242389 19939 net.cpp:296] The NetState phase (0) differed from the phase (1) specified by a rule in layer accuracy
I0430 17:33:05.242473 19939 net.cpp:53] Initializing net from parameters: 
name: "CIFAR"
state {
  phase: TRAIN
  level: 0
  stage: ""
}
layer {
  name: "cifar"
  type: "Data"
  top: "data"
  top: "label"
  include {
    phase: TRAIN
  }
  transform_param {
    mean_file: "examples/cifar10/mean.binaryproto"
  }
  data_param {
    source: "examples/cifar10/cifar10_train_lmdb"
    batch_size: 111
    backend: LMDB
  }
}
layer {
  name: "ip1"
  type: "InnerProduct"
  bottom: "data"
  top: "ip1"
  param {
    lr_mult: 1
  }
  param {
    lr_mult: 2
  }
  inner_product_param {
    num_output: 10
    weight_filler {
      type: "gaussian"
      std: 0.01
    }
    bias_filler {
      type: "constant"
    }
  }
}
layer {
  name: "relu1"
  type: "ReLU"
  bottom: "ip1"
  top: "ip1"
}
layer {
  name: "ip2"
  type: "InnerProduct"
  bottom: "ip1"
  top: "ip2"
  param {
    lr_mult: 1
  }
  param {
    lr_mult: 2
  }
  inner_product_param {
    num_output: 20
    weight_filler {
      type: "gaussian"
      std: 0.01
    }
    bias_filler {
      type: "constant"
    }
  }
}
layer {
  name: "relu2"
  type: "ReLU"
  bottom: "ip2"
  top: "ip2"
}
layer {
  name: "ip3"
  type: "InnerProduct"
  bottom: "ip2"
  top: "ip3"
  param {
    lr_mult: 1
  }
  param {
    lr_mult: 2
  }
  inner_product_param {
    num_output: 80
    weight_filler {
      type: "gaussian"
      std: 0.01
    }
    bias_filler {
      type: "constant"
    }
  }
}
layer {
  name: "relu3"
  type: "ReLU"
  bottom: "ip3"
  top: "ip3"
}
layer {
  name: "ip4"
  type: "InnerProduct"
  bottom: "ip3"
  top: "ip4"
  param {
    lr_mult: 1
  }
  param {
    lr_mult: 2
  }
  inner_product_param {
    num_output: 10
    weight_filler {
      type: "gaussian"
      std: 0.01
    }
    bias_filler {
      type: "constant"
    }
  }
}
layer {
  name: "loss"
  type: "SoftmaxWithLoss"
  bottom: "ip4"
  bottom: "label"
  top: "loss"
}
I0430 17:33:05.242544 19939 layer_factory.hpp:77] Creating layer cifar
I0430 17:33:05.242643 19939 db_lmdb.cpp:35] Opened lmdb examples/cifar10/cifar10_train_lmdb
I0430 17:33:05.242671 19939 net.cpp:86] Creating Layer cifar
I0430 17:33:05.242678 19939 net.cpp:382] cifar -> data
I0430 17:33:05.242700 19939 net.cpp:382] cifar -> label
I0430 17:33:05.242712 19939 data_transformer.cpp:25] Loading mean file from: examples/cifar10/mean.binaryproto
I0430 17:33:05.244837 19939 data_layer.cpp:45] output data size: 111,3,32,32
I0430 17:33:05.252719 19939 net.cpp:124] Setting up cifar
I0430 17:33:05.252739 19939 net.cpp:131] Top shape: 111 3 32 32 (340992)
I0430 17:33:05.252745 19939 net.cpp:131] Top shape: 111 (111)
I0430 17:33:05.252749 19939 net.cpp:139] Memory required for data: 1364412
I0430 17:33:05.252756 19939 layer_factory.hpp:77] Creating layer ip1
I0430 17:33:05.252769 19939 net.cpp:86] Creating Layer ip1
I0430 17:33:05.252774 19939 net.cpp:408] ip1 <- data
I0430 17:33:05.252785 19939 net.cpp:382] ip1 -> ip1
I0430 17:33:05.254979 19939 net.cpp:124] Setting up ip1
I0430 17:33:05.254995 19939 net.cpp:131] Top shape: 111 10 (1110)
I0430 17:33:05.254999 19939 net.cpp:139] Memory required for data: 1368852
I0430 17:33:05.255013 19939 layer_factory.hpp:77] Creating layer relu1
I0430 17:33:05.255023 19939 net.cpp:86] Creating Layer relu1
I0430 17:33:05.255044 19939 net.cpp:408] relu1 <- ip1
I0430 17:33:05.255050 19939 net.cpp:369] relu1 -> ip1 (in-place)
I0430 17:33:05.542747 19939 net.cpp:124] Setting up relu1
I0430 17:33:05.542775 19939 net.cpp:131] Top shape: 111 10 (1110)
I0430 17:33:05.542779 19939 net.cpp:139] Memory required for data: 1373292
I0430 17:33:05.542785 19939 layer_factory.hpp:77] Creating layer ip2
I0430 17:33:05.542798 19939 net.cpp:86] Creating Layer ip2
I0430 17:33:05.542804 19939 net.cpp:408] ip2 <- ip1
I0430 17:33:05.542811 19939 net.cpp:382] ip2 -> ip2
I0430 17:33:05.542943 19939 net.cpp:124] Setting up ip2
I0430 17:33:05.542951 19939 net.cpp:131] Top shape: 111 20 (2220)
I0430 17:33:05.542955 19939 net.cpp:139] Memory required for data: 1382172
I0430 17:33:05.542965 19939 layer_factory.hpp:77] Creating layer relu2
I0430 17:33:05.542973 19939 net.cpp:86] Creating Layer relu2
I0430 17:33:05.542976 19939 net.cpp:408] relu2 <- ip2
I0430 17:33:05.542981 19939 net.cpp:369] relu2 -> ip2 (in-place)
I0430 17:33:05.543794 19939 net.cpp:124] Setting up relu2
I0430 17:33:05.543808 19939 net.cpp:131] Top shape: 111 20 (2220)
I0430 17:33:05.543812 19939 net.cpp:139] Memory required for data: 1391052
I0430 17:33:05.543815 19939 layer_factory.hpp:77] Creating layer ip3
I0430 17:33:05.543823 19939 net.cpp:86] Creating Layer ip3
I0430 17:33:05.543825 19939 net.cpp:408] ip3 <- ip2
I0430 17:33:05.543831 19939 net.cpp:382] ip3 -> ip3
I0430 17:33:05.543984 19939 net.cpp:124] Setting up ip3
I0430 17:33:05.543992 19939 net.cpp:131] Top shape: 111 80 (8880)
I0430 17:33:05.543995 19939 net.cpp:139] Memory required for data: 1426572
I0430 17:33:05.544003 19939 layer_factory.hpp:77] Creating layer relu3
I0430 17:33:05.544009 19939 net.cpp:86] Creating Layer relu3
I0430 17:33:05.544013 19939 net.cpp:408] relu3 <- ip3
I0430 17:33:05.544018 19939 net.cpp:369] relu3 -> ip3 (in-place)
I0430 17:33:05.544173 19939 net.cpp:124] Setting up relu3
I0430 17:33:05.544181 19939 net.cpp:131] Top shape: 111 80 (8880)
I0430 17:33:05.544184 19939 net.cpp:139] Memory required for data: 1462092
I0430 17:33:05.544188 19939 layer_factory.hpp:77] Creating layer ip4
I0430 17:33:05.544194 19939 net.cpp:86] Creating Layer ip4
I0430 17:33:05.544198 19939 net.cpp:408] ip4 <- ip3
I0430 17:33:05.544203 19939 net.cpp:382] ip4 -> ip4
I0430 17:33:05.545219 19939 net.cpp:124] Setting up ip4
I0430 17:33:05.545233 19939 net.cpp:131] Top shape: 111 10 (1110)
I0430 17:33:05.545236 19939 net.cpp:139] Memory required for data: 1466532
I0430 17:33:05.545243 19939 layer_factory.hpp:77] Creating layer loss
I0430 17:33:05.545250 19939 net.cpp:86] Creating Layer loss
I0430 17:33:05.545254 19939 net.cpp:408] loss <- ip4
I0430 17:33:05.545259 19939 net.cpp:408] loss <- label
I0430 17:33:05.545265 19939 net.cpp:382] loss -> loss
I0430 17:33:05.545284 19939 layer_factory.hpp:77] Creating layer loss
…
I0430 17:33:05.545887 19939 solver.cpp:173] Creating test net (#0) specified by net file: ECE595/cifar/train_test/var_everything/cifar_train_test_38.prototxt
I0430 17:33:05.545927 19939 net.cpp:296] The NetState phase (1) differed from the phase (0) specified by a rule in layer cifar
I0430 17:33:05.546007 19939 net.cpp:53] Initializing net from parameters: 
name: "CIFAR"
state {
  phase: TEST
}
layer {
  name: "cifar"
  type: "Data"
  top: "data"
  top: "label"
  include {
    phase: TEST
  }
  transform_param {
    mean_file: "examples/cifar10/mean.binaryproto"
  }
  data_param {
    source: "examples/cifar10/cifar10_test_lmdb"
    batch_size: 1000
    backend: LMDB
  }
}
layer {
  name: "ip1"
  type: "InnerProduct"
  bottom: "data"
  top: "ip1"
  param {
    lr_mult: 1
  }
  param {
    lr_mult: 2
  }
  inner_product_param {
    num_output: 10
    weight_filler {
      type: "gaussian"
      std: 0.01
    }
    bias_filler {
      type: "constant"
    }
  }
}
layer {
  name: "relu1"
  type: "ReLU"
  bottom: "ip1"
  top: "ip1"
}
layer {
  name: "ip2"
  type: "InnerProduct"
  bottom: "ip1"
  top: "ip2"
  param {
    lr_mult: 1
  }
  param {
    lr_mult: 2
  }
  inner_product_param {
    num_output: 20
    weight_filler {
      type: "gaussian"
      std: 0.01
    }
    bias_filler {
      type: "constant"
    }
  }
}
layer {
  name: "relu2"
  type: "ReLU"
  bottom: "ip2"
  top: "ip2"
}
layer {
  name: "ip3"
  type: "InnerProduct"
  bottom: "ip2"
  top: "ip3"
  param {
    lr_mult: 1
  }
  param {
    lr_mult: 2
  }
  inner_product_param {
    num_output: 80
    weight_filler {
      type: "gaussian"
      std: 0.01
    }
    bias_filler {
      type: "constant"
    }
  }
}
layer {
  name: "relu3"
  type: "ReLU"
  bottom: "ip3"
  top: "ip3"
}
layer {
  name: "ip4"
  type: "InnerProduct"
  bottom: "ip3"
  top: "ip4"
  param {
    lr_mult: 1
  }
  param {
    lr_mult: 2
  }
  inner_product_param {
    num_output: 10
    weight_filler {
      type: "gaussian"
      std: 0.01
    }
    bias_filler {
      type: "constant"
    }
  }
}
layer {
  name: "accuracy"
  type: "Accuracy"
  bottom: "ip4"
  bottom: "label"
  top: "accuracy"
  include {
    phase: TEST
  }
}
layer {
  name: "loss"
  type: "SoftmaxWithLoss"
  bottom: "ip4"
  bottom: "label"
  top: "loss"
}
I0430 17:33:05.546070 19939 layer_factory.hpp:77] Creating layer cifar
I0430 17:33:05.546118 19939 db_lmdb.cpp:35] Opened lmdb examples/cifar10/cifar10_test_lmdb
I0430 17:33:05.546130 19939 net.cpp:86] Creating Layer cifar
I0430 17:33:05.546136 19939 net.cpp:382] cifar -> data
I0430 17:33:05.546144 19939 net.cpp:382] cifar -> label
I0430 17:33:05.546151 19939 data_transformer.cpp:25] Loading mean file from: examples/cifar10/mean.binaryproto
I0430 17:33:05.546303 19939 data_layer.cpp:45] output data size: 1000,3,32,32
I0430 17:33:05.569145 19939 net.cpp:124] Setting up cifar
I0430 17:33:05.569171 19939 net.cpp:131] Top shape: 1000 3 32 32 (3072000)
I0430 17:33:05.569177 19939 net.cpp:131] Top shape: 1000 (1000)
I0430 17:33:05.569181 19939 net.cpp:139] Memory required for data: 12292000
I0430 17:33:05.569186 19939 layer_factory.hpp:77] Creating layer label_cifar_1_split
I0430 17:33:05.569213 19939 net.cpp:86] Creating Layer label_cifar_1_split
I0430 17:33:05.569218 19939 net.cpp:408] label_cifar_1_split <- label
I0430 17:33:05.569224 19939 net.cpp:382] label_cifar_1_split -> label_cifar_1_split_0
I0430 17:33:05.569233 19939 net.cpp:382] label_cifar_1_split -> label_cifar_1_split_1
I0430 17:33:05.569324 19939 net.cpp:124] Setting up label_cifar_1_split
I0430 17:33:05.569331 19939 net.cpp:131] Top shape: 1000 (1000)
I0430 17:33:05.569335 19939 net.cpp:131] Top shape: 1000 (1000)
I0430 17:33:05.569339 19939 net.cpp:139] Memory required for data: 12300000
I0430 17:33:05.569341 19939 layer_factory.hpp:77] Creating layer ip1
I0430 17:33:05.569350 19939 net.cpp:86] Creating Layer ip1
I0430 17:33:05.569353 19939 net.cpp:408] ip1 <- data
I0430 17:33:05.569357 19939 net.cpp:382] ip1 -> ip1
I0430 17:33:05.570322 19939 net.cpp:124] Setting up ip1
I0430 17:33:05.570330 19939 net.cpp:131] Top shape: 1000 10 (10000)
I0430 17:33:05.570333 19939 net.cpp:139] Memory required for data: 12340000
I0430 17:33:05.570358 19939 layer_factory.hpp:77] Creating layer relu1
I0430 17:33:05.570365 19939 net.cpp:86] Creating Layer relu1
I0430 17:33:05.570369 19939 net.cpp:408] relu1 <- ip1
I0430 17:33:05.570389 19939 net.cpp:369] relu1 -> ip1 (in-place)
I0430 17:33:05.571243 19939 net.cpp:124] Setting up relu1
I0430 17:33:05.571260 19939 net.cpp:131] Top shape: 1000 10 (10000)
I0430 17:33:05.571264 19939 net.cpp:139] Memory required for data: 12380000
I0430 17:33:05.571267 19939 layer_factory.hpp:77] Creating layer ip2
I0430 17:33:05.571276 19939 net.cpp:86] Creating Layer ip2
I0430 17:33:05.571280 19939 net.cpp:408] ip2 <- ip1
I0430 17:33:05.571285 19939 net.cpp:382] ip2 -> ip2
I0430 17:33:05.572381 19939 net.cpp:124] Setting up ip2
I0430 17:33:05.572388 19939 net.cpp:131] Top shape: 1000 20 (20000)
I0430 17:33:05.572391 19939 net.cpp:139] Memory required for data: 12460000
I0430 17:33:05.572399 19939 layer_factory.hpp:77] Creating layer relu2
I0430 17:33:05.572404 19939 net.cpp:86] Creating Layer relu2
I0430 17:33:05.572408 19939 net.cpp:408] relu2 <- ip2
I0430 17:33:05.572412 19939 net.cpp:369] relu2 -> ip2 (in-place)
I0430 17:33:05.572567 19939 net.cpp:124] Setting up relu2
I0430 17:33:05.572576 19939 net.cpp:131] Top shape: 1000 20 (20000)
I0430 17:33:05.572578 19939 net.cpp:139] Memory required for data: 12540000
I0430 17:33:05.572582 19939 layer_factory.hpp:77] Creating layer ip3
I0430 17:33:05.572587 19939 net.cpp:86] Creating Layer ip3
I0430 17:33:05.572590 19939 net.cpp:408] ip3 <- ip2
I0430 17:33:05.572595 19939 net.cpp:382] ip3 -> ip3
I0430 17:33:05.572741 19939 net.cpp:124] Setting up ip3
I0430 17:33:05.572747 19939 net.cpp:131] Top shape: 1000 80 (80000)
I0430 17:33:05.572751 19939 net.cpp:139] Memory required for data: 12860000
I0430 17:33:05.572757 19939 layer_factory.hpp:77] Creating layer relu3
I0430 17:33:05.572762 19939 net.cpp:86] Creating Layer relu3
I0430 17:33:05.572767 19939 net.cpp:408] relu3 <- ip3
I0430 17:33:05.572770 19939 net.cpp:369] relu3 -> ip3 (in-place)
I0430 17:33:05.572926 19939 net.cpp:124] Setting up relu3
I0430 17:33:05.572933 19939 net.cpp:131] Top shape: 1000 80 (80000)
I0430 17:33:05.572937 19939 net.cpp:139] Memory required for data: 13180000
I0430 17:33:05.572940 19939 layer_factory.hpp:77] Creating layer ip4
I0430 17:33:05.572948 19939 net.cpp:86] Creating Layer ip4
I0430 17:33:05.572952 19939 net.cpp:408] ip4 <- ip3
I0430 17:33:05.572957 19939 net.cpp:382] ip4 -> ip4
I0430 17:33:05.573073 19939 net.cpp:124] Setting up ip4
I0430 17:33:05.573081 19939 net.cpp:131] Top shape: 1000 10 (10000)
I0430 17:33:05.573084 19939 net.cpp:139] Memory required for data: 13220000
I0430 17:33:05.573089 19939 layer_factory.hpp:77] Creating layer ip4_ip4_0_split
I0430 17:33:05.573094 19939 net.cpp:86] Creating Layer ip4_ip4_0_split
I0430 17:33:05.573097 19939 net.cpp:408] ip4_ip4_0_split <- ip4
I0430 17:33:05.573102 19939 net.cpp:382] ip4_ip4_0_split -> ip4_ip4_0_split_0
I0430 17:33:05.573108 19939 net.cpp:382] ip4_ip4_0_split -> ip4_ip4_0_split_1
I0430 17:33:05.573137 19939 net.cpp:124] Setting up ip4_ip4_0_split
I0430 17:33:05.573143 19939 net.cpp:131] Top shape: 1000 10 (10000)
I0430 17:33:05.573146 19939 net.cpp:131] Top shape: 1000 10 (10000)
I0430 17:33:05.573149 19939 net.cpp:139] Memory required for data: 13300000
I0430 17:33:05.573153 19939 layer_factory.hpp:77] Creating layer accuracy
I0430 17:33:05.573158 19939 net.cpp:86] Creating Layer accuracy
I0430 17:33:05.573161 19939 net.cpp:408] accuracy <- ip4_ip4_0_split_0
I0430 17:33:05.573164 19939 net.cpp:408] accuracy <- label_cifar_1_split_0
I0430 17:33:05.573169 19939 net.cpp:382] accuracy -> accuracy
…
