…
I0501 09:36:48.521468 15066 net.cpp:296] The NetState phase (0) differed from the phase (1) specified by a rule in layer cifar
I0501 09:36:48.521484 15066 net.cpp:296] The NetState phase (0) differed from the phase (1) specified by a rule in layer accuracy
I0501 09:36:48.521594 15066 net.cpp:53] Initializing net from parameters: 
name: "CIFAR"
state {
  phase: TRAIN
  level: 0
  stage: ""
}
layer {
  name: "cifar"
  type: "Data"
  top: "data"
  top: "label"
  include {
    phase: TRAIN
  }
  transform_param {
    mean_file: "examples/cifar10/mean.binaryproto"
  }
  data_param {
    source: "examples/cifar10/cifar10_train_lmdb"
    batch_size: 111
    backend: LMDB
  }
}
layer {
  name: "conv0"
  type: "Convolution"
  bottom: "data"
  top: "conv0"
  param {
    lr_mult: 1
  }
  param {
    lr_mult: 2
  }
  convolution_param {
    num_output: 16
    pad: 2
    kernel_size: 3
    stride: 1
    weight_filler {
      type: "gaussian"
      std: 0.01
    }
    bias_filler {
      type: "constant"
    }
  }
}
layer {
  name: "Sigmoid0"
  type: "Sigmoid"
  bottom: "conv0"
  top: "Sigmoid0"
}
layer {
  name: "pool0"
  type: "Pooling"
  bottom: "Sigmoid0"
  top: "pool0"
  pooling_param {
    pool: AVE
    kernel_size: 3
    stride: 2
  }
}
layer {
  name: "ip1"
  type: "InnerProduct"
  bottom: "pool0"
  top: "ip1"
  param {
    lr_mult: 1
  }
  param {
    lr_mult: 2
  }
  inner_product_param {
    num_output: 20
    weight_filler {
      type: "gaussian"
      std: 0.01
    }
    bias_filler {
      type: "constant"
    }
  }
}
layer {
  name: "relu1"
  type: "ReLU"
  bottom: "ip1"
  top: "ip1"
}
layer {
  name: "ip2"
  type: "InnerProduct"
  bottom: "ip1"
  top: "ip2"
  param {
    lr_mult: 1
  }
  param {
    lr_mult: 2
  }
  inner_product_param {
    num_output: 160
    weight_filler {
      type: "gaussian"
      std: 0.01
    }
    bias_filler {
      type: "constant"
    }
  }
}
layer {
  name: "relu2"
  type: "ReLU"
  bottom: "ip2"
  top: "ip2"
}
layer {
  name: "ip3"
  type: "InnerProduct"
  bottom: "ip2"
  top: "ip3"
  param {
    lr_mult: 1
  }
  param {
    lr_mult: 2
  }
  inner_product_param {
    num_output: 160
    weight_filler {
      type: "gaussian"
      std: 0.01
    }
    bias_filler {
      type: "constant"
    }
  }
}
layer {
  name: "relu3"
  type: "ReLU"
  bottom: "ip3"
  top: "ip3"
}
layer {
  name: "ip4"
  type: "InnerProduct"
  bottom: "ip3"
  top: "ip4"
  param {
    lr_mult: 1
  }
  param {
    lr_mult: 2
  }
  inner_product_param {
    num_output: 10
    weight_filler {
      type: "gaussian"
      std: 0.01
    }
    bias_filler {
      type: "constant"
    }
  }
}
layer {
  name: "loss"
  type: "SoftmaxWithLoss"
  bottom: "ip4"
  bottom: "label"
  top: "loss"
}
I0501 09:36:48.521667 15066 layer_factory.hpp:77] Creating layer cifar
I0501 09:36:48.521770 15066 db_lmdb.cpp:35] Opened lmdb examples/cifar10/cifar10_train_lmdb
I0501 09:36:48.521800 15066 net.cpp:86] Creating Layer cifar
I0501 09:36:48.521808 15066 net.cpp:382] cifar -> data
I0501 09:36:48.521832 15066 net.cpp:382] cifar -> label
I0501 09:36:48.521845 15066 data_transformer.cpp:25] Loading mean file from: examples/cifar10/mean.binaryproto
I0501 09:36:48.523999 15066 data_layer.cpp:45] output data size: 111,3,32,32
I0501 09:36:48.531934 15066 net.cpp:124] Setting up cifar
I0501 09:36:48.531952 15066 net.cpp:131] Top shape: 111 3 32 32 (340992)
I0501 09:36:48.531960 15066 net.cpp:131] Top shape: 111 (111)
I0501 09:36:48.531963 15066 net.cpp:139] Memory required for data: 1364412
I0501 09:36:48.531987 15066 layer_factory.hpp:77] Creating layer conv0
I0501 09:36:48.532006 15066 net.cpp:86] Creating Layer conv0
I0501 09:36:48.532011 15066 net.cpp:408] conv0 <- data
I0501 09:36:48.532023 15066 net.cpp:382] conv0 -> conv0
I0501 09:36:48.815340 15066 net.cpp:124] Setting up conv0
I0501 09:36:48.815366 15066 net.cpp:131] Top shape: 111 16 34 34 (2053056)
I0501 09:36:48.815371 15066 net.cpp:139] Memory required for data: 9576636
I0501 09:36:48.815385 15066 layer_factory.hpp:77] Creating layer Sigmoid0
I0501 09:36:48.815397 15066 net.cpp:86] Creating Layer Sigmoid0
I0501 09:36:48.815402 15066 net.cpp:408] Sigmoid0 <- conv0
I0501 09:36:48.815407 15066 net.cpp:382] Sigmoid0 -> Sigmoid0
I0501 09:36:48.815575 15066 net.cpp:124] Setting up Sigmoid0
I0501 09:36:48.815584 15066 net.cpp:131] Top shape: 111 16 34 34 (2053056)
I0501 09:36:48.815588 15066 net.cpp:139] Memory required for data: 17788860
I0501 09:36:48.815592 15066 layer_factory.hpp:77] Creating layer pool0
I0501 09:36:48.815598 15066 net.cpp:86] Creating Layer pool0
I0501 09:36:48.815600 15066 net.cpp:408] pool0 <- Sigmoid0
I0501 09:36:48.815604 15066 net.cpp:382] pool0 -> pool0
I0501 09:36:48.816354 15066 net.cpp:124] Setting up pool0
I0501 09:36:48.816367 15066 net.cpp:131] Top shape: 111 16 17 17 (513264)
I0501 09:36:48.816370 15066 net.cpp:139] Memory required for data: 19841916
I0501 09:36:48.816375 15066 layer_factory.hpp:77] Creating layer ip1
I0501 09:36:48.816383 15066 net.cpp:86] Creating Layer ip1
I0501 09:36:48.816386 15066 net.cpp:408] ip1 <- pool0
I0501 09:36:48.816391 15066 net.cpp:382] ip1 -> ip1
I0501 09:36:48.818974 15066 net.cpp:124] Setting up ip1
I0501 09:36:48.818981 15066 net.cpp:131] Top shape: 111 20 (2220)
I0501 09:36:48.818984 15066 net.cpp:139] Memory required for data: 19850796
I0501 09:36:48.818992 15066 layer_factory.hpp:77] Creating layer relu1
I0501 09:36:48.818997 15066 net.cpp:86] Creating Layer relu1
I0501 09:36:48.819000 15066 net.cpp:408] relu1 <- ip1
I0501 09:36:48.819005 15066 net.cpp:369] relu1 -> ip1 (in-place)
I0501 09:36:48.819170 15066 net.cpp:124] Setting up relu1
I0501 09:36:48.819178 15066 net.cpp:131] Top shape: 111 20 (2220)
I0501 09:36:48.819181 15066 net.cpp:139] Memory required for data: 19859676
I0501 09:36:48.819185 15066 layer_factory.hpp:77] Creating layer ip2
I0501 09:36:48.819191 15066 net.cpp:86] Creating Layer ip2
I0501 09:36:48.819193 15066 net.cpp:408] ip2 <- ip1
I0501 09:36:48.819198 15066 net.cpp:382] ip2 -> ip2
I0501 09:36:48.819391 15066 net.cpp:124] Setting up ip2
I0501 09:36:48.819396 15066 net.cpp:131] Top shape: 111 160 (17760)
I0501 09:36:48.819399 15066 net.cpp:139] Memory required for data: 19930716
I0501 09:36:48.819406 15066 layer_factory.hpp:77] Creating layer relu2
I0501 09:36:48.819411 15066 net.cpp:86] Creating Layer relu2
I0501 09:36:48.819414 15066 net.cpp:408] relu2 <- ip2
I0501 09:36:48.819418 15066 net.cpp:369] relu2 -> ip2 (in-place)
I0501 09:36:48.819579 15066 net.cpp:124] Setting up relu2
I0501 09:36:48.819587 15066 net.cpp:131] Top shape: 111 160 (17760)
I0501 09:36:48.819591 15066 net.cpp:139] Memory required for data: 20001756
I0501 09:36:48.819593 15066 layer_factory.hpp:77] Creating layer ip3
I0501 09:36:48.819602 15066 net.cpp:86] Creating Layer ip3
I0501 09:36:48.819604 15066 net.cpp:408] ip3 <- ip2
I0501 09:36:48.819608 15066 net.cpp:382] ip3 -> ip3
I0501 09:36:48.821188 15066 net.cpp:124] Setting up ip3
I0501 09:36:48.821200 15066 net.cpp:131] Top shape: 111 160 (17760)
I0501 09:36:48.821203 15066 net.cpp:139] Memory required for data: 20072796
I0501 09:36:48.821208 15066 layer_factory.hpp:77] Creating layer relu3
I0501 09:36:48.821214 15066 net.cpp:86] Creating Layer relu3
I0501 09:36:48.821233 15066 net.cpp:408] relu3 <- ip3
I0501 09:36:48.821238 15066 net.cpp:369] relu3 -> ip3 (in-place)
I0501 09:36:48.821418 15066 net.cpp:124] Setting up relu3
I0501 09:36:48.821425 15066 net.cpp:131] Top shape: 111 160 (17760)
I0501 09:36:48.821429 15066 net.cpp:139] Memory required for data: 20143836
I0501 09:36:48.821447 15066 layer_factory.hpp:77] Creating layer ip4
I0501 09:36:48.821455 15066 net.cpp:86] Creating Layer ip4
I0501 09:36:48.821458 15066 net.cpp:408] ip4 <- ip3
I0501 09:36:48.821465 15066 net.cpp:382] ip4 -> ip4
I0501 09:36:48.821624 15066 net.cpp:124] Setting up ip4
I0501 09:36:48.821632 15066 net.cpp:131] Top shape: 111 10 (1110)
I0501 09:36:48.821635 15066 net.cpp:139] Memory required for data: 20148276
I0501 09:36:48.821645 15066 layer_factory.hpp:77] Creating layer loss
I0501 09:36:48.821650 15066 net.cpp:86] Creating Layer loss
I0501 09:36:48.821653 15066 net.cpp:408] loss <- ip4
I0501 09:36:48.821656 15066 net.cpp:408] loss <- label
I0501 09:36:48.821661 15066 net.cpp:382] loss -> loss
I0501 09:36:48.821673 15066 layer_factory.hpp:77] Creating layer loss
…
I0501 09:36:48.822907 15066 solver.cpp:173] Creating test net (#0) specified by net file: ECE595/cifar/train_test/var_everything/cifar_train_test_544.prototxt
I0501 09:36:48.822950 15066 net.cpp:296] The NetState phase (1) differed from the phase (0) specified by a rule in layer cifar
I0501 09:36:48.823072 15066 net.cpp:53] Initializing net from parameters: 
name: "CIFAR"
state {
  phase: TEST
}
layer {
  name: "cifar"
  type: "Data"
  top: "data"
  top: "label"
  include {
    phase: TEST
  }
  transform_param {
    mean_file: "examples/cifar10/mean.binaryproto"
  }
  data_param {
    source: "examples/cifar10/cifar10_test_lmdb"
    batch_size: 1000
    backend: LMDB
  }
}
layer {
  name: "conv0"
  type: "Convolution"
  bottom: "data"
  top: "conv0"
  param {
    lr_mult: 1
  }
  param {
    lr_mult: 2
  }
  convolution_param {
    num_output: 16
    pad: 2
    kernel_size: 3
    stride: 1
    weight_filler {
      type: "gaussian"
      std: 0.01
    }
    bias_filler {
      type: "constant"
    }
  }
}
layer {
  name: "Sigmoid0"
  type: "Sigmoid"
  bottom: "conv0"
  top: "Sigmoid0"
}
layer {
  name: "pool0"
  type: "Pooling"
  bottom: "Sigmoid0"
  top: "pool0"
  pooling_param {
    pool: AVE
    kernel_size: 3
    stride: 2
  }
}
layer {
  name: "ip1"
  type: "InnerProduct"
  bottom: "pool0"
  top: "ip1"
  param {
    lr_mult: 1
  }
  param {
    lr_mult: 2
  }
  inner_product_param {
    num_output: 20
    weight_filler {
      type: "gaussian"
      std: 0.01
    }
    bias_filler {
      type: "constant"
    }
  }
}
layer {
  name: "relu1"
  type: "ReLU"
  bottom: "ip1"
  top: "ip1"
}
layer {
  name: "ip2"
  type: "InnerProduct"
  bottom: "ip1"
  top: "ip2"
  param {
    lr_mult: 1
  }
  param {
    lr_mult: 2
  }
  inner_product_param {
    num_output: 160
    weight_filler {
      type: "gaussian"
      std: 0.01
    }
    bias_filler {
      type: "constant"
    }
  }
}
layer {
  name: "relu2"
  type: "ReLU"
  bottom: "ip2"
  top: "ip2"
}
layer {
  name: "ip3"
  type: "InnerProduct"
  bottom: "ip2"
  top: "ip3"
  param {
    lr_mult: 1
  }
  param {
    lr_mult: 2
  }
  inner_product_param {
    num_output: 160
    weight_filler {
      type: "gaussian"
      std: 0.01
    }
    bias_filler {
      type: "constant"
    }
  }
}
layer {
  name: "relu3"
  type: "ReLU"
  bottom: "ip3"
  top: "ip3"
}
layer {
  name: "ip4"
  type: "InnerProduct"
  bottom: "ip3"
  top: "ip4"
  param {
    lr_mult: 1
  }
  param {
    lr_mult: 2
  }
  inner_product_param {
    num_output: 10
    weight_filler {
      type: "gaussian"
      std: 0.01
    }
    bias_filler {
      type: "constant"
    }
  }
}
layer {
  name: "accuracy"
  type: "Accuracy"
  bottom: "ip4"
  bottom: "label"
  top: "accuracy"
  include {
    phase: TEST
  }
}
layer {
  name: "loss"
  type: "SoftmaxWithLoss"
  bottom: "ip4"
  bottom: "label"
  top: "loss"
}
I0501 09:36:48.823153 15066 layer_factory.hpp:77] Creating layer cifar
I0501 09:36:48.823199 15066 db_lmdb.cpp:35] Opened lmdb examples/cifar10/cifar10_test_lmdb
I0501 09:36:48.823210 15066 net.cpp:86] Creating Layer cifar
I0501 09:36:48.823215 15066 net.cpp:382] cifar -> data
I0501 09:36:48.823223 15066 net.cpp:382] cifar -> label
I0501 09:36:48.823230 15066 data_transformer.cpp:25] Loading mean file from: examples/cifar10/mean.binaryproto
I0501 09:36:48.823370 15066 data_layer.cpp:45] output data size: 1000,3,32,32
I0501 09:36:48.845196 15066 net.cpp:124] Setting up cifar
I0501 09:36:48.845221 15066 net.cpp:131] Top shape: 1000 3 32 32 (3072000)
I0501 09:36:48.845226 15066 net.cpp:131] Top shape: 1000 (1000)
I0501 09:36:48.845228 15066 net.cpp:139] Memory required for data: 12292000
I0501 09:36:48.845233 15066 layer_factory.hpp:77] Creating layer label_cifar_1_split
I0501 09:36:48.845247 15066 net.cpp:86] Creating Layer label_cifar_1_split
I0501 09:36:48.845252 15066 net.cpp:408] label_cifar_1_split <- label
I0501 09:36:48.845257 15066 net.cpp:382] label_cifar_1_split -> label_cifar_1_split_0
I0501 09:36:48.845280 15066 net.cpp:382] label_cifar_1_split -> label_cifar_1_split_1
I0501 09:36:48.845409 15066 net.cpp:124] Setting up label_cifar_1_split
I0501 09:36:48.845417 15066 net.cpp:131] Top shape: 1000 (1000)
I0501 09:36:48.845420 15066 net.cpp:131] Top shape: 1000 (1000)
I0501 09:36:48.845423 15066 net.cpp:139] Memory required for data: 12300000
I0501 09:36:48.845427 15066 layer_factory.hpp:77] Creating layer conv0
I0501 09:36:48.845439 15066 net.cpp:86] Creating Layer conv0
I0501 09:36:48.845446 15066 net.cpp:408] conv0 <- data
I0501 09:36:48.845453 15066 net.cpp:382] conv0 -> conv0
I0501 09:36:48.847007 15066 net.cpp:124] Setting up conv0
I0501 09:36:48.847036 15066 net.cpp:131] Top shape: 1000 16 34 34 (18496000)
I0501 09:36:48.847039 15066 net.cpp:139] Memory required for data: 86284000
I0501 09:36:48.847049 15066 layer_factory.hpp:77] Creating layer Sigmoid0
I0501 09:36:48.847056 15066 net.cpp:86] Creating Layer Sigmoid0
I0501 09:36:48.847075 15066 net.cpp:408] Sigmoid0 <- conv0
I0501 09:36:48.847079 15066 net.cpp:382] Sigmoid0 -> Sigmoid0
I0501 09:36:48.847256 15066 net.cpp:124] Setting up Sigmoid0
I0501 09:36:48.847266 15066 net.cpp:131] Top shape: 1000 16 34 34 (18496000)
I0501 09:36:48.847270 15066 net.cpp:139] Memory required for data: 160268000
I0501 09:36:48.847272 15066 layer_factory.hpp:77] Creating layer pool0
I0501 09:36:48.847280 15066 net.cpp:86] Creating Layer pool0
I0501 09:36:48.847282 15066 net.cpp:408] pool0 <- Sigmoid0
I0501 09:36:48.847298 15066 net.cpp:382] pool0 -> pool0
I0501 09:36:48.848567 15066 net.cpp:124] Setting up pool0
I0501 09:36:48.848575 15066 net.cpp:131] Top shape: 1000 16 17 17 (4624000)
I0501 09:36:48.848594 15066 net.cpp:139] Memory required for data: 178764000
I0501 09:36:48.848598 15066 layer_factory.hpp:77] Creating layer ip1
I0501 09:36:48.848623 15066 net.cpp:86] Creating Layer ip1
I0501 09:36:48.848625 15066 net.cpp:408] ip1 <- pool0
I0501 09:36:48.848646 15066 net.cpp:382] ip1 -> ip1
I0501 09:36:48.851178 15066 net.cpp:124] Setting up ip1
I0501 09:36:48.851186 15066 net.cpp:131] Top shape: 1000 20 (20000)
I0501 09:36:48.851205 15066 net.cpp:139] Memory required for data: 178844000
I0501 09:36:48.851227 15066 layer_factory.hpp:77] Creating layer relu1
I0501 09:36:48.851248 15066 net.cpp:86] Creating Layer relu1
I0501 09:36:48.851250 15066 net.cpp:408] relu1 <- ip1
I0501 09:36:48.851256 15066 net.cpp:369] relu1 -> ip1 (in-place)
I0501 09:36:48.851419 15066 net.cpp:124] Setting up relu1
I0501 09:36:48.851428 15066 net.cpp:131] Top shape: 1000 20 (20000)
I0501 09:36:48.851430 15066 net.cpp:139] Memory required for data: 178924000
I0501 09:36:48.851433 15066 layer_factory.hpp:77] Creating layer ip2
I0501 09:36:48.851440 15066 net.cpp:86] Creating Layer ip2
I0501 09:36:48.851444 15066 net.cpp:408] ip2 <- ip1
I0501 09:36:48.851449 15066 net.cpp:382] ip2 -> ip2
I0501 09:36:48.851653 15066 net.cpp:124] Setting up ip2
I0501 09:36:48.851660 15066 net.cpp:131] Top shape: 1000 160 (160000)
I0501 09:36:48.851663 15066 net.cpp:139] Memory required for data: 179564000
I0501 09:36:48.851670 15066 layer_factory.hpp:77] Creating layer relu2
I0501 09:36:48.851677 15066 net.cpp:86] Creating Layer relu2
I0501 09:36:48.851680 15066 net.cpp:408] relu2 <- ip2
I0501 09:36:48.851685 15066 net.cpp:369] relu2 -> ip2 (in-place)
I0501 09:36:48.852481 15066 net.cpp:124] Setting up relu2
I0501 09:36:48.852511 15066 net.cpp:131] Top shape: 1000 160 (160000)
I0501 09:36:48.852514 15066 net.cpp:139] Memory required for data: 180204000
I0501 09:36:48.852517 15066 layer_factory.hpp:77] Creating layer ip3
I0501 09:36:48.852524 15066 net.cpp:86] Creating Layer ip3
I0501 09:36:48.852527 15066 net.cpp:408] ip3 <- ip2
I0501 09:36:48.852533 15066 net.cpp:382] ip3 -> ip3
I0501 09:36:48.853437 15066 net.cpp:124] Setting up ip3
I0501 09:36:48.853446 15066 net.cpp:131] Top shape: 1000 160 (160000)
I0501 09:36:48.853463 15066 net.cpp:139] Memory required for data: 180844000
I0501 09:36:48.853469 15066 layer_factory.hpp:77] Creating layer relu3
I0501 09:36:48.853476 15066 net.cpp:86] Creating Layer relu3
I0501 09:36:48.853478 15066 net.cpp:408] relu3 <- ip3
I0501 09:36:48.853482 15066 net.cpp:369] relu3 -> ip3 (in-place)
I0501 09:36:48.853649 15066 net.cpp:124] Setting up relu3
I0501 09:36:48.853657 15066 net.cpp:131] Top shape: 1000 160 (160000)
I0501 09:36:48.853660 15066 net.cpp:139] Memory required for data: 181484000
I0501 09:36:48.853663 15066 layer_factory.hpp:77] Creating layer ip4
I0501 09:36:48.853670 15066 net.cpp:86] Creating Layer ip4
I0501 09:36:48.853673 15066 net.cpp:408] ip4 <- ip3
I0501 09:36:48.853678 15066 net.cpp:382] ip4 -> ip4
I0501 09:36:48.853816 15066 net.cpp:124] Setting up ip4
I0501 09:36:48.853822 15066 net.cpp:131] Top shape: 1000 10 (10000)
I0501 09:36:48.853826 15066 net.cpp:139] Memory required for data: 181524000
I0501 09:36:48.853833 15066 layer_factory.hpp:77] Creating layer ip4_ip4_0_split
I0501 09:36:48.853839 15066 net.cpp:86] Creating Layer ip4_ip4_0_split
I0501 09:36:48.853842 15066 net.cpp:408] ip4_ip4_0_split <- ip4
I0501 09:36:48.853847 15066 net.cpp:382] ip4_ip4_0_split -> ip4_ip4_0_split_0
I0501 09:36:48.853852 15066 net.cpp:382] ip4_ip4_0_split -> ip4_ip4_0_split_1
I0501 09:36:48.853883 15066 net.cpp:124] Setting up ip4_ip4_0_split
I0501 09:36:48.853888 15066 net.cpp:131] Top shape: 1000 10 (10000)
I0501 09:36:48.853893 15066 net.cpp:131] Top shape: 1000 10 (10000)
I0501 09:36:48.853894 15066 net.cpp:139] Memory required for data: 181604000
I0501 09:36:48.853898 15066 layer_factory.hpp:77] Creating layer accuracy
I0501 09:36:48.853904 15066 net.cpp:86] Creating Layer accuracy
I0501 09:36:48.853906 15066 net.cpp:408] accuracy <- ip4_ip4_0_split_0
I0501 09:36:48.853909 15066 net.cpp:408] accuracy <- label_cifar_1_split_0
I0501 09:36:48.853914 15066 net.cpp:382] accuracy -> accuracy
…
