…
I0501 05:00:04.177201 27322 net.cpp:296] The NetState phase (0) differed from the phase (1) specified by a rule in layer cifar
I0501 05:00:04.177218 27322 net.cpp:296] The NetState phase (0) differed from the phase (1) specified by a rule in layer accuracy
I0501 05:00:04.177319 27322 net.cpp:53] Initializing net from parameters: 
name: "CIFAR"
state {
  phase: TRAIN
  level: 0
  stage: ""
}
layer {
  name: "cifar"
  type: "Data"
  top: "data"
  top: "label"
  include {
    phase: TRAIN
  }
  transform_param {
    mean_file: "examples/cifar10/mean.binaryproto"
  }
  data_param {
    source: "examples/cifar10/cifar10_train_lmdb"
    batch_size: 111
    backend: LMDB
  }
}
layer {
  name: "conv0"
  type: "Convolution"
  bottom: "data"
  top: "conv0"
  param {
    lr_mult: 1
  }
  param {
    lr_mult: 2
  }
  convolution_param {
    num_output: 8
    pad: 2
    kernel_size: 5
    stride: 1
    weight_filler {
      type: "gaussian"
      std: 0.01
    }
    bias_filler {
      type: "constant"
    }
  }
}
layer {
  name: "Sigmoid0"
  type: "Sigmoid"
  bottom: "conv0"
  top: "Sigmoid0"
}
layer {
  name: "pool0"
  type: "Pooling"
  bottom: "Sigmoid0"
  top: "pool0"
  pooling_param {
    pool: AVE
    kernel_size: 3
    stride: 2
  }
}
layer {
  name: "ip1"
  type: "InnerProduct"
  bottom: "pool0"
  top: "ip1"
  param {
    lr_mult: 1
  }
  param {
    lr_mult: 2
  }
  inner_product_param {
    num_output: 40
    weight_filler {
      type: "gaussian"
      std: 0.01
    }
    bias_filler {
      type: "constant"
    }
  }
}
layer {
  name: "relu1"
  type: "ReLU"
  bottom: "ip1"
  top: "ip1"
}
layer {
  name: "ip2"
  type: "InnerProduct"
  bottom: "ip1"
  top: "ip2"
  param {
    lr_mult: 1
  }
  param {
    lr_mult: 2
  }
  inner_product_param {
    num_output: 40
    weight_filler {
      type: "gaussian"
      std: 0.01
    }
    bias_filler {
      type: "constant"
    }
  }
}
layer {
  name: "relu2"
  type: "ReLU"
  bottom: "ip2"
  top: "ip2"
}
layer {
  name: "ip3"
  type: "InnerProduct"
  bottom: "ip2"
  top: "ip3"
  param {
    lr_mult: 1
  }
  param {
    lr_mult: 2
  }
  inner_product_param {
    num_output: 160
    weight_filler {
      type: "gaussian"
      std: 0.01
    }
    bias_filler {
      type: "constant"
    }
  }
}
layer {
  name: "relu3"
  type: "ReLU"
  bottom: "ip3"
  top: "ip3"
}
layer {
  name: "ip4"
  type: "InnerProduct"
  bottom: "ip3"
  top: "ip4"
  param {
    lr_mult: 1
  }
  param {
    lr_mult: 2
  }
  inner_product_param {
    num_output: 10
    weight_filler {
      type: "gaussian"
      std: 0.01
    }
    bias_filler {
      type: "constant"
    }
  }
}
layer {
  name: "loss"
  type: "SoftmaxWithLoss"
  bottom: "ip4"
  bottom: "label"
  top: "loss"
}
I0501 05:00:04.177393 27322 layer_factory.hpp:77] Creating layer cifar
I0501 05:00:04.177492 27322 db_lmdb.cpp:35] Opened lmdb examples/cifar10/cifar10_train_lmdb
I0501 05:00:04.177520 27322 net.cpp:86] Creating Layer cifar
I0501 05:00:04.177527 27322 net.cpp:382] cifar -> data
I0501 05:00:04.177551 27322 net.cpp:382] cifar -> label
I0501 05:00:04.177563 27322 data_transformer.cpp:25] Loading mean file from: examples/cifar10/mean.binaryproto
I0501 05:00:04.179709 27322 data_layer.cpp:45] output data size: 111,3,32,32
I0501 05:00:04.187643 27322 net.cpp:124] Setting up cifar
I0501 05:00:04.187660 27322 net.cpp:131] Top shape: 111 3 32 32 (340992)
I0501 05:00:04.187667 27322 net.cpp:131] Top shape: 111 (111)
I0501 05:00:04.187671 27322 net.cpp:139] Memory required for data: 1364412
I0501 05:00:04.187693 27322 layer_factory.hpp:77] Creating layer conv0
I0501 05:00:04.187711 27322 net.cpp:86] Creating Layer conv0
I0501 05:00:04.187716 27322 net.cpp:408] conv0 <- data
I0501 05:00:04.187728 27322 net.cpp:382] conv0 -> conv0
I0501 05:00:04.472759 27322 net.cpp:124] Setting up conv0
I0501 05:00:04.472785 27322 net.cpp:131] Top shape: 111 8 32 32 (909312)
I0501 05:00:04.472790 27322 net.cpp:139] Memory required for data: 5001660
I0501 05:00:04.472805 27322 layer_factory.hpp:77] Creating layer Sigmoid0
I0501 05:00:04.472821 27322 net.cpp:86] Creating Layer Sigmoid0
I0501 05:00:04.472826 27322 net.cpp:408] Sigmoid0 <- conv0
I0501 05:00:04.472831 27322 net.cpp:382] Sigmoid0 -> Sigmoid0
I0501 05:00:04.473008 27322 net.cpp:124] Setting up Sigmoid0
I0501 05:00:04.473017 27322 net.cpp:131] Top shape: 111 8 32 32 (909312)
I0501 05:00:04.473021 27322 net.cpp:139] Memory required for data: 8638908
I0501 05:00:04.473024 27322 layer_factory.hpp:77] Creating layer pool0
I0501 05:00:04.473031 27322 net.cpp:86] Creating Layer pool0
I0501 05:00:04.473033 27322 net.cpp:408] pool0 <- Sigmoid0
I0501 05:00:04.473038 27322 net.cpp:382] pool0 -> pool0
I0501 05:00:04.473778 27322 net.cpp:124] Setting up pool0
I0501 05:00:04.473791 27322 net.cpp:131] Top shape: 111 8 16 16 (227328)
I0501 05:00:04.473794 27322 net.cpp:139] Memory required for data: 9548220
I0501 05:00:04.473798 27322 layer_factory.hpp:77] Creating layer ip1
I0501 05:00:04.473808 27322 net.cpp:86] Creating Layer ip1
I0501 05:00:04.473811 27322 net.cpp:408] ip1 <- pool0
I0501 05:00:04.473816 27322 net.cpp:382] ip1 -> ip1
I0501 05:00:04.476128 27322 net.cpp:124] Setting up ip1
I0501 05:00:04.476137 27322 net.cpp:131] Top shape: 111 40 (4440)
I0501 05:00:04.476140 27322 net.cpp:139] Memory required for data: 9565980
I0501 05:00:04.476148 27322 layer_factory.hpp:77] Creating layer relu1
I0501 05:00:04.476155 27322 net.cpp:86] Creating Layer relu1
I0501 05:00:04.476158 27322 net.cpp:408] relu1 <- ip1
I0501 05:00:04.476162 27322 net.cpp:369] relu1 -> ip1 (in-place)
I0501 05:00:04.476318 27322 net.cpp:124] Setting up relu1
I0501 05:00:04.476326 27322 net.cpp:131] Top shape: 111 40 (4440)
I0501 05:00:04.476330 27322 net.cpp:139] Memory required for data: 9583740
I0501 05:00:04.476332 27322 layer_factory.hpp:77] Creating layer ip2
I0501 05:00:04.476339 27322 net.cpp:86] Creating Layer ip2
I0501 05:00:04.476342 27322 net.cpp:408] ip2 <- ip1
I0501 05:00:04.476346 27322 net.cpp:382] ip2 -> ip2
I0501 05:00:04.476475 27322 net.cpp:124] Setting up ip2
I0501 05:00:04.476481 27322 net.cpp:131] Top shape: 111 40 (4440)
I0501 05:00:04.476485 27322 net.cpp:139] Memory required for data: 9601500
I0501 05:00:04.476491 27322 layer_factory.hpp:77] Creating layer relu2
I0501 05:00:04.476496 27322 net.cpp:86] Creating Layer relu2
I0501 05:00:04.476500 27322 net.cpp:408] relu2 <- ip2
I0501 05:00:04.476505 27322 net.cpp:369] relu2 -> ip2 (in-place)
I0501 05:00:04.476653 27322 net.cpp:124] Setting up relu2
I0501 05:00:04.476661 27322 net.cpp:131] Top shape: 111 40 (4440)
I0501 05:00:04.476665 27322 net.cpp:139] Memory required for data: 9619260
I0501 05:00:04.476667 27322 layer_factory.hpp:77] Creating layer ip3
I0501 05:00:04.476675 27322 net.cpp:86] Creating Layer ip3
I0501 05:00:04.476678 27322 net.cpp:408] ip3 <- ip2
I0501 05:00:04.476682 27322 net.cpp:382] ip3 -> ip3
I0501 05:00:04.477790 27322 net.cpp:124] Setting up ip3
I0501 05:00:04.477802 27322 net.cpp:131] Top shape: 111 160 (17760)
I0501 05:00:04.477805 27322 net.cpp:139] Memory required for data: 9690300
I0501 05:00:04.477811 27322 layer_factory.hpp:77] Creating layer relu3
I0501 05:00:04.477816 27322 net.cpp:86] Creating Layer relu3
I0501 05:00:04.477820 27322 net.cpp:408] relu3 <- ip3
I0501 05:00:04.477824 27322 net.cpp:369] relu3 -> ip3 (in-place)
I0501 05:00:04.477977 27322 net.cpp:124] Setting up relu3
I0501 05:00:04.477984 27322 net.cpp:131] Top shape: 111 160 (17760)
I0501 05:00:04.477988 27322 net.cpp:139] Memory required for data: 9761340
I0501 05:00:04.477990 27322 layer_factory.hpp:77] Creating layer ip4
I0501 05:00:04.478010 27322 net.cpp:86] Creating Layer ip4
I0501 05:00:04.478013 27322 net.cpp:408] ip4 <- ip3
I0501 05:00:04.478018 27322 net.cpp:382] ip4 -> ip4
I0501 05:00:04.478152 27322 net.cpp:124] Setting up ip4
I0501 05:00:04.478159 27322 net.cpp:131] Top shape: 111 10 (1110)
I0501 05:00:04.478163 27322 net.cpp:139] Memory required for data: 9765780
I0501 05:00:04.478170 27322 layer_factory.hpp:77] Creating layer loss
I0501 05:00:04.478175 27322 net.cpp:86] Creating Layer loss
I0501 05:00:04.478178 27322 net.cpp:408] loss <- ip4
I0501 05:00:04.478183 27322 net.cpp:408] loss <- label
I0501 05:00:04.478188 27322 net.cpp:382] loss -> loss
I0501 05:00:04.478200 27322 layer_factory.hpp:77] Creating layer loss
…
I0501 05:00:04.479362 27322 solver.cpp:173] Creating test net (#0) specified by net file: ECE595/cifar/train_test/var_everything/cifar_train_test_404.prototxt
I0501 05:00:04.479388 27322 net.cpp:296] The NetState phase (1) differed from the phase (0) specified by a rule in layer cifar
I0501 05:00:04.479480 27322 net.cpp:53] Initializing net from parameters: 
name: "CIFAR"
state {
  phase: TEST
}
layer {
  name: "cifar"
  type: "Data"
  top: "data"
  top: "label"
  include {
    phase: TEST
  }
  transform_param {
    mean_file: "examples/cifar10/mean.binaryproto"
  }
  data_param {
    source: "examples/cifar10/cifar10_test_lmdb"
    batch_size: 1000
    backend: LMDB
  }
}
layer {
  name: "conv0"
  type: "Convolution"
  bottom: "data"
  top: "conv0"
  param {
    lr_mult: 1
  }
  param {
    lr_mult: 2
  }
  convolution_param {
    num_output: 8
    pad: 2
    kernel_size: 5
    stride: 1
    weight_filler {
      type: "gaussian"
      std: 0.01
    }
    bias_filler {
      type: "constant"
    }
  }
}
layer {
  name: "Sigmoid0"
  type: "Sigmoid"
  bottom: "conv0"
  top: "Sigmoid0"
}
layer {
  name: "pool0"
  type: "Pooling"
  bottom: "Sigmoid0"
  top: "pool0"
  pooling_param {
    pool: AVE
    kernel_size: 3
    stride: 2
  }
}
layer {
  name: "ip1"
  type: "InnerProduct"
  bottom: "pool0"
  top: "ip1"
  param {
    lr_mult: 1
  }
  param {
    lr_mult: 2
  }
  inner_product_param {
    num_output: 40
    weight_filler {
      type: "gaussian"
      std: 0.01
    }
    bias_filler {
      type: "constant"
    }
  }
}
layer {
  name: "relu1"
  type: "ReLU"
  bottom: "ip1"
  top: "ip1"
}
layer {
  name: "ip2"
  type: "InnerProduct"
  bottom: "ip1"
  top: "ip2"
  param {
    lr_mult: 1
  }
  param {
    lr_mult: 2
  }
  inner_product_param {
    num_output: 40
    weight_filler {
      type: "gaussian"
      std: 0.01
    }
    bias_filler {
      type: "constant"
    }
  }
}
layer {
  name: "relu2"
  type: "ReLU"
  bottom: "ip2"
  top: "ip2"
}
layer {
  name: "ip3"
  type: "InnerProduct"
  bottom: "ip2"
  top: "ip3"
  param {
    lr_mult: 1
  }
  param {
    lr_mult: 2
  }
  inner_product_param {
    num_output: 160
    weight_filler {
      type: "gaussian"
      std: 0.01
    }
    bias_filler {
      type: "constant"
    }
  }
}
layer {
  name: "relu3"
  type: "ReLU"
  bottom: "ip3"
  top: "ip3"
}
layer {
  name: "ip4"
  type: "InnerProduct"
  bottom: "ip3"
  top: "ip4"
  param {
    lr_mult: 1
  }
  param {
    lr_mult: 2
  }
  inner_product_param {
    num_output: 10
    weight_filler {
      type: "gaussian"
      std: 0.01
    }
    bias_filler {
      type: "constant"
    }
  }
}
layer {
  name: "accuracy"
  type: "Accuracy"
  bottom: "ip4"
  bottom: "label"
  top: "accuracy"
  include {
    phase: TEST
  }
}
layer {
  name: "loss"
  type: "SoftmaxWithLoss"
  bottom: "ip4"
  bottom: "label"
  top: "loss"
}
I0501 05:00:04.479557 27322 layer_factory.hpp:77] Creating layer cifar
I0501 05:00:04.479602 27322 db_lmdb.cpp:35] Opened lmdb examples/cifar10/cifar10_test_lmdb
I0501 05:00:04.479614 27322 net.cpp:86] Creating Layer cifar
I0501 05:00:04.479619 27322 net.cpp:382] cifar -> data
I0501 05:00:04.479626 27322 net.cpp:382] cifar -> label
I0501 05:00:04.479634 27322 data_transformer.cpp:25] Loading mean file from: examples/cifar10/mean.binaryproto
I0501 05:00:04.479774 27322 data_layer.cpp:45] output data size: 1000,3,32,32
I0501 05:00:04.501528 27322 net.cpp:124] Setting up cifar
I0501 05:00:04.501554 27322 net.cpp:131] Top shape: 1000 3 32 32 (3072000)
I0501 05:00:04.501560 27322 net.cpp:131] Top shape: 1000 (1000)
I0501 05:00:04.501564 27322 net.cpp:139] Memory required for data: 12292000
I0501 05:00:04.501585 27322 layer_factory.hpp:77] Creating layer label_cifar_1_split
I0501 05:00:04.501596 27322 net.cpp:86] Creating Layer label_cifar_1_split
I0501 05:00:04.501600 27322 net.cpp:408] label_cifar_1_split <- label
I0501 05:00:04.501606 27322 net.cpp:382] label_cifar_1_split -> label_cifar_1_split_0
I0501 05:00:04.501631 27322 net.cpp:382] label_cifar_1_split -> label_cifar_1_split_1
I0501 05:00:04.501710 27322 net.cpp:124] Setting up label_cifar_1_split
I0501 05:00:04.501718 27322 net.cpp:131] Top shape: 1000 (1000)
I0501 05:00:04.501721 27322 net.cpp:131] Top shape: 1000 (1000)
I0501 05:00:04.501724 27322 net.cpp:139] Memory required for data: 12300000
I0501 05:00:04.501727 27322 layer_factory.hpp:77] Creating layer conv0
I0501 05:00:04.501739 27322 net.cpp:86] Creating Layer conv0
I0501 05:00:04.501744 27322 net.cpp:408] conv0 <- data
I0501 05:00:04.501749 27322 net.cpp:382] conv0 -> conv0
I0501 05:00:04.503437 27322 net.cpp:124] Setting up conv0
I0501 05:00:04.503449 27322 net.cpp:131] Top shape: 1000 8 32 32 (8192000)
I0501 05:00:04.503468 27322 net.cpp:139] Memory required for data: 45068000
I0501 05:00:04.503476 27322 layer_factory.hpp:77] Creating layer Sigmoid0
I0501 05:00:04.503484 27322 net.cpp:86] Creating Layer Sigmoid0
I0501 05:00:04.503487 27322 net.cpp:408] Sigmoid0 <- conv0
I0501 05:00:04.503491 27322 net.cpp:382] Sigmoid0 -> Sigmoid0
I0501 05:00:04.503689 27322 net.cpp:124] Setting up Sigmoid0
I0501 05:00:04.503697 27322 net.cpp:131] Top shape: 1000 8 32 32 (8192000)
I0501 05:00:04.503700 27322 net.cpp:139] Memory required for data: 77836000
I0501 05:00:04.503703 27322 layer_factory.hpp:77] Creating layer pool0
I0501 05:00:04.503710 27322 net.cpp:86] Creating Layer pool0
I0501 05:00:04.503713 27322 net.cpp:408] pool0 <- Sigmoid0
I0501 05:00:04.503720 27322 net.cpp:382] pool0 -> pool0
I0501 05:00:04.503886 27322 net.cpp:124] Setting up pool0
I0501 05:00:04.503895 27322 net.cpp:131] Top shape: 1000 8 16 16 (2048000)
I0501 05:00:04.503897 27322 net.cpp:139] Memory required for data: 86028000
I0501 05:00:04.503901 27322 layer_factory.hpp:77] Creating layer ip1
I0501 05:00:04.503909 27322 net.cpp:86] Creating Layer ip1
I0501 05:00:04.503913 27322 net.cpp:408] ip1 <- pool0
I0501 05:00:04.503917 27322 net.cpp:382] ip1 -> ip1
I0501 05:00:04.506319 27322 net.cpp:124] Setting up ip1
I0501 05:00:04.506343 27322 net.cpp:131] Top shape: 1000 40 (40000)
I0501 05:00:04.506362 27322 net.cpp:139] Memory required for data: 86188000
I0501 05:00:04.506384 27322 layer_factory.hpp:77] Creating layer relu1
I0501 05:00:04.506391 27322 net.cpp:86] Creating Layer relu1
I0501 05:00:04.506393 27322 net.cpp:408] relu1 <- ip1
I0501 05:00:04.506397 27322 net.cpp:369] relu1 -> ip1 (in-place)
I0501 05:00:04.506589 27322 net.cpp:124] Setting up relu1
I0501 05:00:04.506598 27322 net.cpp:131] Top shape: 1000 40 (40000)
I0501 05:00:04.506602 27322 net.cpp:139] Memory required for data: 86348000
I0501 05:00:04.506604 27322 layer_factory.hpp:77] Creating layer ip2
I0501 05:00:04.506610 27322 net.cpp:86] Creating Layer ip2
I0501 05:00:04.506614 27322 net.cpp:408] ip2 <- ip1
I0501 05:00:04.506620 27322 net.cpp:382] ip2 -> ip2
I0501 05:00:04.506779 27322 net.cpp:124] Setting up ip2
I0501 05:00:04.506786 27322 net.cpp:131] Top shape: 1000 40 (40000)
I0501 05:00:04.506789 27322 net.cpp:139] Memory required for data: 86508000
I0501 05:00:04.506795 27322 layer_factory.hpp:77] Creating layer relu2
I0501 05:00:04.506801 27322 net.cpp:86] Creating Layer relu2
I0501 05:00:04.506804 27322 net.cpp:408] relu2 <- ip2
I0501 05:00:04.506808 27322 net.cpp:369] relu2 -> ip2 (in-place)
I0501 05:00:04.507570 27322 net.cpp:124] Setting up relu2
I0501 05:00:04.507582 27322 net.cpp:131] Top shape: 1000 40 (40000)
I0501 05:00:04.507599 27322 net.cpp:139] Memory required for data: 86668000
I0501 05:00:04.507603 27322 layer_factory.hpp:77] Creating layer ip3
I0501 05:00:04.507611 27322 net.cpp:86] Creating Layer ip3
I0501 05:00:04.507614 27322 net.cpp:408] ip3 <- ip2
I0501 05:00:04.507619 27322 net.cpp:382] ip3 -> ip3
I0501 05:00:04.507920 27322 net.cpp:124] Setting up ip3
I0501 05:00:04.507927 27322 net.cpp:131] Top shape: 1000 160 (160000)
I0501 05:00:04.507930 27322 net.cpp:139] Memory required for data: 87308000
I0501 05:00:04.507936 27322 layer_factory.hpp:77] Creating layer relu3
I0501 05:00:04.507941 27322 net.cpp:86] Creating Layer relu3
I0501 05:00:04.507943 27322 net.cpp:408] relu3 <- ip3
I0501 05:00:04.507948 27322 net.cpp:369] relu3 -> ip3 (in-place)
I0501 05:00:04.508101 27322 net.cpp:124] Setting up relu3
I0501 05:00:04.508110 27322 net.cpp:131] Top shape: 1000 160 (160000)
I0501 05:00:04.508112 27322 net.cpp:139] Memory required for data: 87948000
I0501 05:00:04.508116 27322 layer_factory.hpp:77] Creating layer ip4
I0501 05:00:04.508123 27322 net.cpp:86] Creating Layer ip4
I0501 05:00:04.508126 27322 net.cpp:408] ip4 <- ip3
I0501 05:00:04.508131 27322 net.cpp:382] ip4 -> ip4
I0501 05:00:04.508276 27322 net.cpp:124] Setting up ip4
I0501 05:00:04.508283 27322 net.cpp:131] Top shape: 1000 10 (10000)
I0501 05:00:04.508286 27322 net.cpp:139] Memory required for data: 87988000
I0501 05:00:04.508293 27322 layer_factory.hpp:77] Creating layer ip4_ip4_0_split
I0501 05:00:04.508298 27322 net.cpp:86] Creating Layer ip4_ip4_0_split
I0501 05:00:04.508301 27322 net.cpp:408] ip4_ip4_0_split <- ip4
I0501 05:00:04.508306 27322 net.cpp:382] ip4_ip4_0_split -> ip4_ip4_0_split_0
I0501 05:00:04.508311 27322 net.cpp:382] ip4_ip4_0_split -> ip4_ip4_0_split_1
I0501 05:00:04.508342 27322 net.cpp:124] Setting up ip4_ip4_0_split
I0501 05:00:04.508345 27322 net.cpp:131] Top shape: 1000 10 (10000)
I0501 05:00:04.508349 27322 net.cpp:131] Top shape: 1000 10 (10000)
I0501 05:00:04.508352 27322 net.cpp:139] Memory required for data: 88068000
I0501 05:00:04.508354 27322 layer_factory.hpp:77] Creating layer accuracy
I0501 05:00:04.508360 27322 net.cpp:86] Creating Layer accuracy
I0501 05:00:04.508363 27322 net.cpp:408] accuracy <- ip4_ip4_0_split_0
I0501 05:00:04.508368 27322 net.cpp:408] accuracy <- label_cifar_1_split_0
I0501 05:00:04.508373 27322 net.cpp:382] accuracy -> accuracy
…
