…
I0501 07:07:07.280324  3534 net.cpp:296] The NetState phase (0) differed from the phase (1) specified by a rule in layer cifar
I0501 07:07:07.280344  3534 net.cpp:296] The NetState phase (0) differed from the phase (1) specified by a rule in layer accuracy
I0501 07:07:07.280436  3534 net.cpp:53] Initializing net from parameters: 
name: "CIFAR"
state {
  phase: TRAIN
  level: 0
  stage: ""
}
layer {
  name: "cifar"
  type: "Data"
  top: "data"
  top: "label"
  include {
    phase: TRAIN
  }
  transform_param {
    mean_file: "examples/cifar10/mean.binaryproto"
  }
  data_param {
    source: "examples/cifar10/cifar10_train_lmdb"
    batch_size: 111
    backend: LMDB
  }
}
layer {
  name: "conv0"
  type: "Convolution"
  bottom: "data"
  top: "conv0"
  param {
    lr_mult: 1
  }
  param {
    lr_mult: 2
  }
  convolution_param {
    num_output: 16
    pad: 2
    kernel_size: 3
    stride: 1
    weight_filler {
      type: "gaussian"
      std: 0.01
    }
    bias_filler {
      type: "constant"
    }
  }
}
layer {
  name: "Sigmoid0"
  type: "Sigmoid"
  bottom: "conv0"
  top: "Sigmoid0"
}
layer {
  name: "pool0"
  type: "Pooling"
  bottom: "Sigmoid0"
  top: "pool0"
  pooling_param {
    pool: AVE
    kernel_size: 3
    stride: 2
  }
}
layer {
  name: "ip1"
  type: "InnerProduct"
  bottom: "pool0"
  top: "ip1"
  param {
    lr_mult: 1
  }
  param {
    lr_mult: 2
  }
  inner_product_param {
    num_output: 10
    weight_filler {
      type: "gaussian"
      std: 0.01
    }
    bias_filler {
      type: "constant"
    }
  }
}
layer {
  name: "relu1"
  type: "ReLU"
  bottom: "ip1"
  top: "ip1"
}
layer {
  name: "ip2"
  type: "InnerProduct"
  bottom: "ip1"
  top: "ip2"
  param {
    lr_mult: 1
  }
  param {
    lr_mult: 2
  }
  inner_product_param {
    num_output: 40
    weight_filler {
      type: "gaussian"
      std: 0.01
    }
    bias_filler {
      type: "constant"
    }
  }
}
layer {
  name: "relu2"
  type: "ReLU"
  bottom: "ip2"
  top: "ip2"
}
layer {
  name: "ip3"
  type: "InnerProduct"
  bottom: "ip2"
  top: "ip3"
  param {
    lr_mult: 1
  }
  param {
    lr_mult: 2
  }
  inner_product_param {
    num_output: 10
    weight_filler {
      type: "gaussian"
      std: 0.01
    }
    bias_filler {
      type: "constant"
    }
  }
}
layer {
  name: "loss"
  type: "SoftmaxWithLoss"
  bottom: "ip3"
  bottom: "label"
  top: "loss"
}
I0501 07:07:07.280509  3534 layer_factory.hpp:77] Creating layer cifar
I0501 07:07:07.280607  3534 db_lmdb.cpp:35] Opened lmdb examples/cifar10/cifar10_train_lmdb
I0501 07:07:07.280633  3534 net.cpp:86] Creating Layer cifar
I0501 07:07:07.280647  3534 net.cpp:382] cifar -> data
I0501 07:07:07.280669  3534 net.cpp:382] cifar -> label
I0501 07:07:07.280680  3534 data_transformer.cpp:25] Loading mean file from: examples/cifar10/mean.binaryproto
I0501 07:07:07.282842  3534 data_layer.cpp:45] output data size: 111,3,32,32
I0501 07:07:07.290822  3534 net.cpp:124] Setting up cifar
I0501 07:07:07.290840  3534 net.cpp:131] Top shape: 111 3 32 32 (340992)
I0501 07:07:07.290848  3534 net.cpp:131] Top shape: 111 (111)
I0501 07:07:07.290850  3534 net.cpp:139] Memory required for data: 1364412
I0501 07:07:07.290858  3534 layer_factory.hpp:77] Creating layer conv0
I0501 07:07:07.290879  3534 net.cpp:86] Creating Layer conv0
I0501 07:07:07.290885  3534 net.cpp:408] conv0 <- data
I0501 07:07:07.290899  3534 net.cpp:382] conv0 -> conv0
I0501 07:07:07.585826  3534 net.cpp:124] Setting up conv0
I0501 07:07:07.585880  3534 net.cpp:131] Top shape: 111 16 34 34 (2053056)
I0501 07:07:07.585886  3534 net.cpp:139] Memory required for data: 9576636
I0501 07:07:07.585903  3534 layer_factory.hpp:77] Creating layer Sigmoid0
I0501 07:07:07.585918  3534 net.cpp:86] Creating Layer Sigmoid0
I0501 07:07:07.585923  3534 net.cpp:408] Sigmoid0 <- conv0
I0501 07:07:07.585929  3534 net.cpp:382] Sigmoid0 -> Sigmoid0
I0501 07:07:07.586146  3534 net.cpp:124] Setting up Sigmoid0
I0501 07:07:07.586159  3534 net.cpp:131] Top shape: 111 16 34 34 (2053056)
I0501 07:07:07.586163  3534 net.cpp:139] Memory required for data: 17788860
I0501 07:07:07.586169  3534 layer_factory.hpp:77] Creating layer pool0
I0501 07:07:07.586177  3534 net.cpp:86] Creating Layer pool0
I0501 07:07:07.586181  3534 net.cpp:408] pool0 <- Sigmoid0
I0501 07:07:07.586187  3534 net.cpp:382] pool0 -> pool0
I0501 07:07:07.587177  3534 net.cpp:124] Setting up pool0
I0501 07:07:07.587193  3534 net.cpp:131] Top shape: 111 16 17 17 (513264)
I0501 07:07:07.587198  3534 net.cpp:139] Memory required for data: 19841916
I0501 07:07:07.587201  3534 layer_factory.hpp:77] Creating layer ip1
I0501 07:07:07.587213  3534 net.cpp:86] Creating Layer ip1
I0501 07:07:07.587218  3534 net.cpp:408] ip1 <- pool0
I0501 07:07:07.587225  3534 net.cpp:382] ip1 -> ip1
I0501 07:07:07.589874  3534 net.cpp:124] Setting up ip1
I0501 07:07:07.589889  3534 net.cpp:131] Top shape: 111 10 (1110)
I0501 07:07:07.589893  3534 net.cpp:139] Memory required for data: 19846356
I0501 07:07:07.589903  3534 layer_factory.hpp:77] Creating layer relu1
I0501 07:07:07.589910  3534 net.cpp:86] Creating Layer relu1
I0501 07:07:07.589915  3534 net.cpp:408] relu1 <- ip1
I0501 07:07:07.589920  3534 net.cpp:369] relu1 -> ip1 (in-place)
I0501 07:07:07.590112  3534 net.cpp:124] Setting up relu1
I0501 07:07:07.590123  3534 net.cpp:131] Top shape: 111 10 (1110)
I0501 07:07:07.590127  3534 net.cpp:139] Memory required for data: 19850796
I0501 07:07:07.590131  3534 layer_factory.hpp:77] Creating layer ip2
I0501 07:07:07.590139  3534 net.cpp:86] Creating Layer ip2
I0501 07:07:07.590143  3534 net.cpp:408] ip2 <- ip1
I0501 07:07:07.590149  3534 net.cpp:382] ip2 -> ip2
I0501 07:07:07.590281  3534 net.cpp:124] Setting up ip2
I0501 07:07:07.590289  3534 net.cpp:131] Top shape: 111 40 (4440)
I0501 07:07:07.590293  3534 net.cpp:139] Memory required for data: 19868556
I0501 07:07:07.590302  3534 layer_factory.hpp:77] Creating layer relu2
I0501 07:07:07.590307  3534 net.cpp:86] Creating Layer relu2
I0501 07:07:07.590312  3534 net.cpp:408] relu2 <- ip2
I0501 07:07:07.590317  3534 net.cpp:369] relu2 -> ip2 (in-place)
I0501 07:07:07.590502  3534 net.cpp:124] Setting up relu2
I0501 07:07:07.590513  3534 net.cpp:131] Top shape: 111 40 (4440)
I0501 07:07:07.590517  3534 net.cpp:139] Memory required for data: 19886316
I0501 07:07:07.590522  3534 layer_factory.hpp:77] Creating layer ip3
I0501 07:07:07.590529  3534 net.cpp:86] Creating Layer ip3
I0501 07:07:07.590533  3534 net.cpp:408] ip3 <- ip2
I0501 07:07:07.590539  3534 net.cpp:382] ip3 -> ip3
I0501 07:07:07.590663  3534 net.cpp:124] Setting up ip3
I0501 07:07:07.590672  3534 net.cpp:131] Top shape: 111 10 (1110)
I0501 07:07:07.590677  3534 net.cpp:139] Memory required for data: 19890756
I0501 07:07:07.590683  3534 layer_factory.hpp:77] Creating layer loss
I0501 07:07:07.590689  3534 net.cpp:86] Creating Layer loss
I0501 07:07:07.590693  3534 net.cpp:408] loss <- ip3
I0501 07:07:07.590698  3534 net.cpp:408] loss <- label
I0501 07:07:07.590704  3534 net.cpp:382] loss -> loss
I0501 07:07:07.590726  3534 layer_factory.hpp:77] Creating layer loss
…
I0501 07:07:07.591472  3534 solver.cpp:173] Creating test net (#0) specified by net file: ECE595/cifar/train_test/var_everything/cifar_train_test_472.prototxt
I0501 07:07:07.591516  3534 net.cpp:296] The NetState phase (1) differed from the phase (0) specified by a rule in layer cifar
I0501 07:07:07.591658  3534 net.cpp:53] Initializing net from parameters: 
name: "CIFAR"
state {
  phase: TEST
}
layer {
  name: "cifar"
  type: "Data"
  top: "data"
  top: "label"
  include {
    phase: TEST
  }
  transform_param {
    mean_file: "examples/cifar10/mean.binaryproto"
  }
  data_param {
    source: "examples/cifar10/cifar10_test_lmdb"
    batch_size: 1000
    backend: LMDB
  }
}
layer {
  name: "conv0"
  type: "Convolution"
  bottom: "data"
  top: "conv0"
  param {
    lr_mult: 1
  }
  param {
    lr_mult: 2
  }
  convolution_param {
    num_output: 16
    pad: 2
    kernel_size: 3
    stride: 1
    weight_filler {
      type: "gaussian"
      std: 0.01
    }
    bias_filler {
      type: "constant"
    }
  }
}
layer {
  name: "Sigmoid0"
  type: "Sigmoid"
  bottom: "conv0"
  top: "Sigmoid0"
}
layer {
  name: "pool0"
  type: "Pooling"
  bottom: "Sigmoid0"
  top: "pool0"
  pooling_param {
    pool: AVE
    kernel_size: 3
    stride: 2
  }
}
layer {
  name: "ip1"
  type: "InnerProduct"
  bottom: "pool0"
  top: "ip1"
  param {
    lr_mult: 1
  }
  param {
    lr_mult: 2
  }
  inner_product_param {
    num_output: 10
    weight_filler {
      type: "gaussian"
      std: 0.01
    }
    bias_filler {
      type: "constant"
    }
  }
}
layer {
  name: "relu1"
  type: "ReLU"
  bottom: "ip1"
  top: "ip1"
}
layer {
  name: "ip2"
  type: "InnerProduct"
  bottom: "ip1"
  top: "ip2"
  param {
    lr_mult: 1
  }
  param {
    lr_mult: 2
  }
  inner_product_param {
    num_output: 40
    weight_filler {
      type: "gaussian"
      std: 0.01
    }
    bias_filler {
      type: "constant"
    }
  }
}
layer {
  name: "relu2"
  type: "ReLU"
  bottom: "ip2"
  top: "ip2"
}
layer {
  name: "ip3"
  type: "InnerProduct"
  bottom: "ip2"
  top: "ip3"
  param {
    lr_mult: 1
  }
  param {
    lr_mult: 2
  }
  inner_product_param {
    num_output: 10
    weight_filler {
      type: "gaussian"
      std: 0.01
    }
    bias_filler {
      type: "constant"
    }
  }
}
layer {
  name: "accuracy"
  type: "Accuracy"
  bottom: "ip3"
  bottom: "label"
  top: "accuracy"
  include {
    phase: TEST
  }
}
layer {
  name: "loss"
  type: "SoftmaxWithLoss"
  bottom: "ip3"
  bottom: "label"
  top: "loss"
}
I0501 07:07:07.591768  3534 layer_factory.hpp:77] Creating layer cifar
I0501 07:07:07.591825  3534 db_lmdb.cpp:35] Opened lmdb examples/cifar10/cifar10_test_lmdb
I0501 07:07:07.591840  3534 net.cpp:86] Creating Layer cifar
I0501 07:07:07.591846  3534 net.cpp:382] cifar -> data
I0501 07:07:07.591856  3534 net.cpp:382] cifar -> label
I0501 07:07:07.591864  3534 data_transformer.cpp:25] Loading mean file from: examples/cifar10/mean.binaryproto
I0501 07:07:07.592037  3534 data_layer.cpp:45] output data size: 1000,3,32,32
I0501 07:07:07.617902  3534 net.cpp:124] Setting up cifar
I0501 07:07:07.617933  3534 net.cpp:131] Top shape: 1000 3 32 32 (3072000)
I0501 07:07:07.617940  3534 net.cpp:131] Top shape: 1000 (1000)
I0501 07:07:07.617944  3534 net.cpp:139] Memory required for data: 12292000
I0501 07:07:07.617951  3534 layer_factory.hpp:77] Creating layer label_cifar_1_split
I0501 07:07:07.617971  3534 net.cpp:86] Creating Layer label_cifar_1_split
I0501 07:07:07.617996  3534 net.cpp:408] label_cifar_1_split <- label
I0501 07:07:07.618005  3534 net.cpp:382] label_cifar_1_split -> label_cifar_1_split_0
I0501 07:07:07.618015  3534 net.cpp:382] label_cifar_1_split -> label_cifar_1_split_1
I0501 07:07:07.618077  3534 net.cpp:124] Setting up label_cifar_1_split
I0501 07:07:07.618085  3534 net.cpp:131] Top shape: 1000 (1000)
I0501 07:07:07.618090  3534 net.cpp:131] Top shape: 1000 (1000)
I0501 07:07:07.618093  3534 net.cpp:139] Memory required for data: 12300000
I0501 07:07:07.618098  3534 layer_factory.hpp:77] Creating layer conv0
I0501 07:07:07.618113  3534 net.cpp:86] Creating Layer conv0
I0501 07:07:07.618116  3534 net.cpp:408] conv0 <- data
I0501 07:07:07.618122  3534 net.cpp:382] conv0 -> conv0
I0501 07:07:07.619984  3534 net.cpp:124] Setting up conv0
I0501 07:07:07.620002  3534 net.cpp:131] Top shape: 1000 16 34 34 (18496000)
I0501 07:07:07.620007  3534 net.cpp:139] Memory required for data: 86284000
I0501 07:07:07.620018  3534 layer_factory.hpp:77] Creating layer Sigmoid0
I0501 07:07:07.620026  3534 net.cpp:86] Creating Layer Sigmoid0
I0501 07:07:07.620031  3534 net.cpp:408] Sigmoid0 <- conv0
I0501 07:07:07.620036  3534 net.cpp:382] Sigmoid0 -> Sigmoid0
I0501 07:07:07.622011  3534 net.cpp:124] Setting up Sigmoid0
I0501 07:07:07.622030  3534 net.cpp:131] Top shape: 1000 16 34 34 (18496000)
I0501 07:07:07.622033  3534 net.cpp:139] Memory required for data: 160268000
I0501 07:07:07.622038  3534 layer_factory.hpp:77] Creating layer pool0
I0501 07:07:07.622048  3534 net.cpp:86] Creating Layer pool0
I0501 07:07:07.622052  3534 net.cpp:408] pool0 <- Sigmoid0
I0501 07:07:07.622061  3534 net.cpp:382] pool0 -> pool0
I0501 07:07:07.622270  3534 net.cpp:124] Setting up pool0
I0501 07:07:07.622282  3534 net.cpp:131] Top shape: 1000 16 17 17 (4624000)
I0501 07:07:07.622285  3534 net.cpp:139] Memory required for data: 178764000
I0501 07:07:07.622289  3534 layer_factory.hpp:77] Creating layer ip1
I0501 07:07:07.622298  3534 net.cpp:86] Creating Layer ip1
I0501 07:07:07.622303  3534 net.cpp:408] ip1 <- pool0
I0501 07:07:07.622308  3534 net.cpp:382] ip1 -> ip1
I0501 07:07:07.624048  3534 net.cpp:124] Setting up ip1
I0501 07:07:07.624058  3534 net.cpp:131] Top shape: 1000 10 (10000)
I0501 07:07:07.624063  3534 net.cpp:139] Memory required for data: 178804000
I0501 07:07:07.624071  3534 layer_factory.hpp:77] Creating layer relu1
I0501 07:07:07.624078  3534 net.cpp:86] Creating Layer relu1
I0501 07:07:07.624083  3534 net.cpp:408] relu1 <- ip1
I0501 07:07:07.624088  3534 net.cpp:369] relu1 -> ip1 (in-place)
I0501 07:07:07.624274  3534 net.cpp:124] Setting up relu1
I0501 07:07:07.624285  3534 net.cpp:131] Top shape: 1000 10 (10000)
I0501 07:07:07.624289  3534 net.cpp:139] Memory required for data: 178844000
I0501 07:07:07.624294  3534 layer_factory.hpp:77] Creating layer ip2
I0501 07:07:07.624301  3534 net.cpp:86] Creating Layer ip2
I0501 07:07:07.624305  3534 net.cpp:408] ip2 <- ip1
I0501 07:07:07.624311  3534 net.cpp:382] ip2 -> ip2
I0501 07:07:07.624451  3534 net.cpp:124] Setting up ip2
I0501 07:07:07.624460  3534 net.cpp:131] Top shape: 1000 40 (40000)
I0501 07:07:07.624464  3534 net.cpp:139] Memory required for data: 179004000
I0501 07:07:07.624474  3534 layer_factory.hpp:77] Creating layer relu2
I0501 07:07:07.624480  3534 net.cpp:86] Creating Layer relu2
I0501 07:07:07.624485  3534 net.cpp:408] relu2 <- ip2
I0501 07:07:07.624490  3534 net.cpp:369] relu2 -> ip2 (in-place)
I0501 07:07:07.624680  3534 net.cpp:124] Setting up relu2
I0501 07:07:07.624691  3534 net.cpp:131] Top shape: 1000 40 (40000)
I0501 07:07:07.624696  3534 net.cpp:139] Memory required for data: 179164000
I0501 07:07:07.624699  3534 layer_factory.hpp:77] Creating layer ip3
I0501 07:07:07.624707  3534 net.cpp:86] Creating Layer ip3
I0501 07:07:07.624711  3534 net.cpp:408] ip3 <- ip2
I0501 07:07:07.624716  3534 net.cpp:382] ip3 -> ip3
I0501 07:07:07.624860  3534 net.cpp:124] Setting up ip3
I0501 07:07:07.624869  3534 net.cpp:131] Top shape: 1000 10 (10000)
I0501 07:07:07.624886  3534 net.cpp:139] Memory required for data: 179204000
I0501 07:07:07.624893  3534 layer_factory.hpp:77] Creating layer ip3_ip3_0_split
I0501 07:07:07.624899  3534 net.cpp:86] Creating Layer ip3_ip3_0_split
I0501 07:07:07.624903  3534 net.cpp:408] ip3_ip3_0_split <- ip3
I0501 07:07:07.624909  3534 net.cpp:382] ip3_ip3_0_split -> ip3_ip3_0_split_0
I0501 07:07:07.624917  3534 net.cpp:382] ip3_ip3_0_split -> ip3_ip3_0_split_1
I0501 07:07:07.624954  3534 net.cpp:124] Setting up ip3_ip3_0_split
I0501 07:07:07.624963  3534 net.cpp:131] Top shape: 1000 10 (10000)
I0501 07:07:07.624967  3534 net.cpp:131] Top shape: 1000 10 (10000)
I0501 07:07:07.624970  3534 net.cpp:139] Memory required for data: 179284000
I0501 07:07:07.624974  3534 layer_factory.hpp:77] Creating layer accuracy
I0501 07:07:07.624981  3534 net.cpp:86] Creating Layer accuracy
I0501 07:07:07.624985  3534 net.cpp:408] accuracy <- ip3_ip3_0_split_0
I0501 07:07:07.624990  3534 net.cpp:408] accuracy <- label_cifar_1_split_0
I0501 07:07:07.624995  3534 net.cpp:382] accuracy -> accuracy
…
