…
I0501 06:57:21.050411  2707 net.cpp:296] The NetState phase (0) differed from the phase (1) specified by a rule in layer cifar
I0501 06:57:21.050427  2707 net.cpp:296] The NetState phase (0) differed from the phase (1) specified by a rule in layer accuracy
I0501 06:57:21.050510  2707 net.cpp:53] Initializing net from parameters: 
name: "CIFAR"
state {
  phase: TRAIN
  level: 0
  stage: ""
}
layer {
  name: "cifar"
  type: "Data"
  top: "data"
  top: "label"
  include {
    phase: TRAIN
  }
  transform_param {
    mean_file: "examples/cifar10/mean.binaryproto"
  }
  data_param {
    source: "examples/cifar10/cifar10_train_lmdb"
    batch_size: 111
    backend: LMDB
  }
}
layer {
  name: "conv0"
  type: "Convolution"
  bottom: "data"
  top: "conv0"
  param {
    lr_mult: 1
  }
  param {
    lr_mult: 2
  }
  convolution_param {
    num_output: 16
    pad: 2
    kernel_size: 3
    stride: 1
    weight_filler {
      type: "gaussian"
      std: 0.01
    }
    bias_filler {
      type: "constant"
    }
  }
}
layer {
  name: "Sigmoid0"
  type: "Sigmoid"
  bottom: "conv0"
  top: "Sigmoid0"
}
layer {
  name: "pool0"
  type: "Pooling"
  bottom: "Sigmoid0"
  top: "pool0"
  pooling_param {
    pool: AVE
    kernel_size: 3
    stride: 2
  }
}
layer {
  name: "ip1"
  type: "InnerProduct"
  bottom: "pool0"
  top: "ip1"
  param {
    lr_mult: 1
  }
  param {
    lr_mult: 2
  }
  inner_product_param {
    num_output: 40
    weight_filler {
      type: "gaussian"
      std: 0.01
    }
    bias_filler {
      type: "constant"
    }
  }
}
layer {
  name: "relu1"
  type: "ReLU"
  bottom: "ip1"
  top: "ip1"
}
layer {
  name: "ip2"
  type: "InnerProduct"
  bottom: "ip1"
  top: "ip2"
  param {
    lr_mult: 1
  }
  param {
    lr_mult: 2
  }
  inner_product_param {
    num_output: 10
    weight_filler {
      type: "gaussian"
      std: 0.01
    }
    bias_filler {
      type: "constant"
    }
  }
}
layer {
  name: "loss"
  type: "SoftmaxWithLoss"
  bottom: "ip2"
  bottom: "label"
  top: "loss"
}
I0501 06:57:21.050582  2707 layer_factory.hpp:77] Creating layer cifar
I0501 06:57:21.050685  2707 db_lmdb.cpp:35] Opened lmdb examples/cifar10/cifar10_train_lmdb
I0501 06:57:21.050714  2707 net.cpp:86] Creating Layer cifar
I0501 06:57:21.050721  2707 net.cpp:382] cifar -> data
I0501 06:57:21.050746  2707 net.cpp:382] cifar -> label
I0501 06:57:21.050758  2707 data_transformer.cpp:25] Loading mean file from: examples/cifar10/mean.binaryproto
I0501 06:57:21.052956  2707 data_layer.cpp:45] output data size: 111,3,32,32
I0501 06:57:21.060941  2707 net.cpp:124] Setting up cifar
I0501 06:57:21.060962  2707 net.cpp:131] Top shape: 111 3 32 32 (340992)
I0501 06:57:21.060968  2707 net.cpp:131] Top shape: 111 (111)
I0501 06:57:21.060972  2707 net.cpp:139] Memory required for data: 1364412
I0501 06:57:21.060979  2707 layer_factory.hpp:77] Creating layer conv0
I0501 06:57:21.060998  2707 net.cpp:86] Creating Layer conv0
I0501 06:57:21.061005  2707 net.cpp:408] conv0 <- data
I0501 06:57:21.061017  2707 net.cpp:382] conv0 -> conv0
I0501 06:57:21.339751  2707 net.cpp:124] Setting up conv0
I0501 06:57:21.339776  2707 net.cpp:131] Top shape: 111 16 34 34 (2053056)
I0501 06:57:21.339781  2707 net.cpp:139] Memory required for data: 9576636
I0501 06:57:21.339795  2707 layer_factory.hpp:77] Creating layer Sigmoid0
I0501 06:57:21.339824  2707 net.cpp:86] Creating Layer Sigmoid0
I0501 06:57:21.339828  2707 net.cpp:408] Sigmoid0 <- conv0
I0501 06:57:21.339833  2707 net.cpp:382] Sigmoid0 -> Sigmoid0
I0501 06:57:21.340031  2707 net.cpp:124] Setting up Sigmoid0
I0501 06:57:21.340041  2707 net.cpp:131] Top shape: 111 16 34 34 (2053056)
I0501 06:57:21.340045  2707 net.cpp:139] Memory required for data: 17788860
I0501 06:57:21.340049  2707 layer_factory.hpp:77] Creating layer pool0
I0501 06:57:21.340054  2707 net.cpp:86] Creating Layer pool0
I0501 06:57:21.340059  2707 net.cpp:408] pool0 <- Sigmoid0
I0501 06:57:21.340064  2707 net.cpp:382] pool0 -> pool0
I0501 06:57:21.340837  2707 net.cpp:124] Setting up pool0
I0501 06:57:21.340850  2707 net.cpp:131] Top shape: 111 16 17 17 (513264)
I0501 06:57:21.340854  2707 net.cpp:139] Memory required for data: 19841916
I0501 06:57:21.340857  2707 layer_factory.hpp:77] Creating layer ip1
I0501 06:57:21.340881  2707 net.cpp:86] Creating Layer ip1
I0501 06:57:21.340884  2707 net.cpp:408] ip1 <- pool0
I0501 06:57:21.340891  2707 net.cpp:382] ip1 -> ip1
I0501 06:57:21.346654  2707 net.cpp:124] Setting up ip1
I0501 06:57:21.346668  2707 net.cpp:131] Top shape: 111 40 (4440)
I0501 06:57:21.346670  2707 net.cpp:139] Memory required for data: 19859676
I0501 06:57:21.346694  2707 layer_factory.hpp:77] Creating layer relu1
I0501 06:57:21.346701  2707 net.cpp:86] Creating Layer relu1
I0501 06:57:21.346704  2707 net.cpp:408] relu1 <- ip1
I0501 06:57:21.346709  2707 net.cpp:369] relu1 -> ip1 (in-place)
I0501 06:57:21.346863  2707 net.cpp:124] Setting up relu1
I0501 06:57:21.346887  2707 net.cpp:131] Top shape: 111 40 (4440)
I0501 06:57:21.346904  2707 net.cpp:139] Memory required for data: 19877436
I0501 06:57:21.346909  2707 layer_factory.hpp:77] Creating layer ip2
I0501 06:57:21.346915  2707 net.cpp:86] Creating Layer ip2
I0501 06:57:21.346917  2707 net.cpp:408] ip2 <- ip1
I0501 06:57:21.346922  2707 net.cpp:382] ip2 -> ip2
I0501 06:57:21.347026  2707 net.cpp:124] Setting up ip2
I0501 06:57:21.347034  2707 net.cpp:131] Top shape: 111 10 (1110)
I0501 06:57:21.347038  2707 net.cpp:139] Memory required for data: 19881876
I0501 06:57:21.347045  2707 layer_factory.hpp:77] Creating layer loss
I0501 06:57:21.347050  2707 net.cpp:86] Creating Layer loss
I0501 06:57:21.347054  2707 net.cpp:408] loss <- ip2
I0501 06:57:21.347059  2707 net.cpp:408] loss <- label
I0501 06:57:21.347064  2707 net.cpp:382] loss -> loss
I0501 06:57:21.347080  2707 layer_factory.hpp:77] Creating layer loss
…
I0501 06:57:21.347627  2707 solver.cpp:173] Creating test net (#0) specified by net file: ECE595/cifar/train_test/var_everything/cifar_train_test_467.prototxt
I0501 06:57:21.347651  2707 net.cpp:296] The NetState phase (1) differed from the phase (0) specified by a rule in layer cifar
I0501 06:57:21.347723  2707 net.cpp:53] Initializing net from parameters: 
name: "CIFAR"
state {
  phase: TEST
}
layer {
  name: "cifar"
  type: "Data"
  top: "data"
  top: "label"
  include {
    phase: TEST
  }
  transform_param {
    mean_file: "examples/cifar10/mean.binaryproto"
  }
  data_param {
    source: "examples/cifar10/cifar10_test_lmdb"
    batch_size: 1000
    backend: LMDB
  }
}
layer {
  name: "conv0"
  type: "Convolution"
  bottom: "data"
  top: "conv0"
  param {
    lr_mult: 1
  }
  param {
    lr_mult: 2
  }
  convolution_param {
    num_output: 16
    pad: 2
    kernel_size: 3
    stride: 1
    weight_filler {
      type: "gaussian"
      std: 0.01
    }
    bias_filler {
      type: "constant"
    }
  }
}
layer {
  name: "Sigmoid0"
  type: "Sigmoid"
  bottom: "conv0"
  top: "Sigmoid0"
}
layer {
  name: "pool0"
  type: "Pooling"
  bottom: "Sigmoid0"
  top: "pool0"
  pooling_param {
    pool: AVE
    kernel_size: 3
    stride: 2
  }
}
layer {
  name: "ip1"
  type: "InnerProduct"
  bottom: "pool0"
  top: "ip1"
  param {
    lr_mult: 1
  }
  param {
    lr_mult: 2
  }
  inner_product_param {
    num_output: 40
    weight_filler {
      type: "gaussian"
      std: 0.01
    }
    bias_filler {
      type: "constant"
    }
  }
}
layer {
  name: "relu1"
  type: "ReLU"
  bottom: "ip1"
  top: "ip1"
}
layer {
  name: "ip2"
  type: "InnerProduct"
  bottom: "ip1"
  top: "ip2"
  param {
    lr_mult: 1
  }
  param {
    lr_mult: 2
  }
  inner_product_param {
    num_output: 10
    weight_filler {
      type: "gaussian"
      std: 0.01
    }
    bias_filler {
      type: "constant"
    }
  }
}
layer {
  name: "accuracy"
  type: "Accuracy"
  bottom: "ip2"
  bottom: "label"
  top: "accuracy"
  include {
    phase: TEST
  }
}
layer {
  name: "loss"
  type: "SoftmaxWithLoss"
  bottom: "ip2"
  bottom: "label"
  top: "loss"
}
I0501 06:57:21.347790  2707 layer_factory.hpp:77] Creating layer cifar
I0501 06:57:21.347836  2707 db_lmdb.cpp:35] Opened lmdb examples/cifar10/cifar10_test_lmdb
I0501 06:57:21.347848  2707 net.cpp:86] Creating Layer cifar
I0501 06:57:21.347852  2707 net.cpp:382] cifar -> data
I0501 06:57:21.347861  2707 net.cpp:382] cifar -> label
I0501 06:57:21.347867  2707 data_transformer.cpp:25] Loading mean file from: examples/cifar10/mean.binaryproto
I0501 06:57:21.348019  2707 data_layer.cpp:45] output data size: 1000,3,32,32
I0501 06:57:21.370282  2707 net.cpp:124] Setting up cifar
I0501 06:57:21.370322  2707 net.cpp:131] Top shape: 1000 3 32 32 (3072000)
I0501 06:57:21.370328  2707 net.cpp:131] Top shape: 1000 (1000)
I0501 06:57:21.370332  2707 net.cpp:139] Memory required for data: 12292000
I0501 06:57:21.370337  2707 layer_factory.hpp:77] Creating layer label_cifar_1_split
I0501 06:57:21.370349  2707 net.cpp:86] Creating Layer label_cifar_1_split
I0501 06:57:21.370353  2707 net.cpp:408] label_cifar_1_split <- label
I0501 06:57:21.370359  2707 net.cpp:382] label_cifar_1_split -> label_cifar_1_split_0
I0501 06:57:21.370384  2707 net.cpp:382] label_cifar_1_split -> label_cifar_1_split_1
I0501 06:57:21.370482  2707 net.cpp:124] Setting up label_cifar_1_split
I0501 06:57:21.370491  2707 net.cpp:131] Top shape: 1000 (1000)
I0501 06:57:21.370494  2707 net.cpp:131] Top shape: 1000 (1000)
I0501 06:57:21.370497  2707 net.cpp:139] Memory required for data: 12300000
I0501 06:57:21.370501  2707 layer_factory.hpp:77] Creating layer conv0
I0501 06:57:21.370512  2707 net.cpp:86] Creating Layer conv0
I0501 06:57:21.370515  2707 net.cpp:408] conv0 <- data
I0501 06:57:21.370520  2707 net.cpp:382] conv0 -> conv0
I0501 06:57:21.372153  2707 net.cpp:124] Setting up conv0
I0501 06:57:21.372184  2707 net.cpp:131] Top shape: 1000 16 34 34 (18496000)
I0501 06:57:21.372186  2707 net.cpp:139] Memory required for data: 86284000
I0501 06:57:21.372196  2707 layer_factory.hpp:77] Creating layer Sigmoid0
I0501 06:57:21.372203  2707 net.cpp:86] Creating Layer Sigmoid0
I0501 06:57:21.372207  2707 net.cpp:408] Sigmoid0 <- conv0
I0501 06:57:21.372211  2707 net.cpp:382] Sigmoid0 -> Sigmoid0
I0501 06:57:21.372419  2707 net.cpp:124] Setting up Sigmoid0
I0501 06:57:21.372428  2707 net.cpp:131] Top shape: 1000 16 34 34 (18496000)
I0501 06:57:21.372431  2707 net.cpp:139] Memory required for data: 160268000
I0501 06:57:21.372436  2707 layer_factory.hpp:77] Creating layer pool0
I0501 06:57:21.372442  2707 net.cpp:86] Creating Layer pool0
I0501 06:57:21.372447  2707 net.cpp:408] pool0 <- Sigmoid0
I0501 06:57:21.372450  2707 net.cpp:382] pool0 -> pool0
I0501 06:57:21.373412  2707 net.cpp:124] Setting up pool0
I0501 06:57:21.373451  2707 net.cpp:131] Top shape: 1000 16 17 17 (4624000)
I0501 06:57:21.373456  2707 net.cpp:139] Memory required for data: 178764000
I0501 06:57:21.373474  2707 layer_factory.hpp:77] Creating layer ip1
I0501 06:57:21.373483  2707 net.cpp:86] Creating Layer ip1
I0501 06:57:21.373486  2707 net.cpp:408] ip1 <- pool0
I0501 06:57:21.373492  2707 net.cpp:382] ip1 -> ip1
I0501 06:57:21.379364  2707 net.cpp:124] Setting up ip1
I0501 06:57:21.379374  2707 net.cpp:131] Top shape: 1000 40 (40000)
I0501 06:57:21.379393  2707 net.cpp:139] Memory required for data: 178924000
I0501 06:57:21.379402  2707 layer_factory.hpp:77] Creating layer relu1
I0501 06:57:21.379408  2707 net.cpp:86] Creating Layer relu1
I0501 06:57:21.379412  2707 net.cpp:408] relu1 <- ip1
I0501 06:57:21.379416  2707 net.cpp:369] relu1 -> ip1 (in-place)
I0501 06:57:21.379588  2707 net.cpp:124] Setting up relu1
I0501 06:57:21.379596  2707 net.cpp:131] Top shape: 1000 40 (40000)
I0501 06:57:21.379601  2707 net.cpp:139] Memory required for data: 179084000
I0501 06:57:21.379603  2707 layer_factory.hpp:77] Creating layer ip2
I0501 06:57:21.379609  2707 net.cpp:86] Creating Layer ip2
I0501 06:57:21.379612  2707 net.cpp:408] ip2 <- ip1
I0501 06:57:21.379617  2707 net.cpp:382] ip2 -> ip2
I0501 06:57:21.379779  2707 net.cpp:124] Setting up ip2
I0501 06:57:21.379787  2707 net.cpp:131] Top shape: 1000 10 (10000)
I0501 06:57:21.379791  2707 net.cpp:139] Memory required for data: 179124000
I0501 06:57:21.379799  2707 layer_factory.hpp:77] Creating layer ip2_ip2_0_split
I0501 06:57:21.379806  2707 net.cpp:86] Creating Layer ip2_ip2_0_split
I0501 06:57:21.379811  2707 net.cpp:408] ip2_ip2_0_split <- ip2
I0501 06:57:21.379815  2707 net.cpp:382] ip2_ip2_0_split -> ip2_ip2_0_split_0
I0501 06:57:21.379822  2707 net.cpp:382] ip2_ip2_0_split -> ip2_ip2_0_split_1
I0501 06:57:21.379854  2707 net.cpp:124] Setting up ip2_ip2_0_split
I0501 06:57:21.379860  2707 net.cpp:131] Top shape: 1000 10 (10000)
I0501 06:57:21.379864  2707 net.cpp:131] Top shape: 1000 10 (10000)
I0501 06:57:21.379868  2707 net.cpp:139] Memory required for data: 179204000
I0501 06:57:21.379870  2707 layer_factory.hpp:77] Creating layer accuracy
I0501 06:57:21.379878  2707 net.cpp:86] Creating Layer accuracy
I0501 06:57:21.379880  2707 net.cpp:408] accuracy <- ip2_ip2_0_split_0
I0501 06:57:21.379885  2707 net.cpp:408] accuracy <- label_cifar_1_split_0
I0501 06:57:21.379890  2707 net.cpp:382] accuracy -> accuracy
…
