…
I0501 00:23:53.673395  6951 net.cpp:296] The NetState phase (0) differed from the phase (1) specified by a rule in layer cifar
I0501 00:23:53.673409  6951 net.cpp:296] The NetState phase (0) differed from the phase (1) specified by a rule in layer accuracy
I0501 00:23:53.673506  6951 net.cpp:53] Initializing net from parameters: 
name: "CIFAR"
state {
  phase: TRAIN
  level: 0
  stage: ""
}
layer {
  name: "cifar"
  type: "Data"
  top: "data"
  top: "label"
  include {
    phase: TRAIN
  }
  transform_param {
    mean_file: "examples/cifar10/mean.binaryproto"
  }
  data_param {
    source: "examples/cifar10/cifar10_train_lmdb"
    batch_size: 111
    backend: LMDB
  }
}
layer {
  name: "conv0"
  type: "Convolution"
  bottom: "data"
  top: "conv0"
  param {
    lr_mult: 1
  }
  param {
    lr_mult: 2
  }
  convolution_param {
    num_output: 8
    pad: 2
    kernel_size: 3
    stride: 1
    weight_filler {
      type: "gaussian"
      std: 0.01
    }
    bias_filler {
      type: "constant"
    }
  }
}
layer {
  name: "Sigmoid0"
  type: "Sigmoid"
  bottom: "conv0"
  top: "Sigmoid0"
}
layer {
  name: "pool0"
  type: "Pooling"
  bottom: "Sigmoid0"
  top: "pool0"
  pooling_param {
    pool: AVE
    kernel_size: 3
    stride: 2
  }
}
layer {
  name: "ip1"
  type: "InnerProduct"
  bottom: "pool0"
  top: "ip1"
  param {
    lr_mult: 1
  }
  param {
    lr_mult: 2
  }
  inner_product_param {
    num_output: 40
    weight_filler {
      type: "gaussian"
      std: 0.01
    }
    bias_filler {
      type: "constant"
    }
  }
}
layer {
  name: "relu1"
  type: "ReLU"
  bottom: "ip1"
  top: "ip1"
}
layer {
  name: "ip2"
  type: "InnerProduct"
  bottom: "ip1"
  top: "ip2"
  param {
    lr_mult: 1
  }
  param {
    lr_mult: 2
  }
  inner_product_param {
    num_output: 160
    weight_filler {
      type: "gaussian"
      std: 0.01
    }
    bias_filler {
      type: "constant"
    }
  }
}
layer {
  name: "relu2"
  type: "ReLU"
  bottom: "ip2"
  top: "ip2"
}
layer {
  name: "ip3"
  type: "InnerProduct"
  bottom: "ip2"
  top: "ip3"
  param {
    lr_mult: 1
  }
  param {
    lr_mult: 2
  }
  inner_product_param {
    num_output: 20
    weight_filler {
      type: "gaussian"
      std: 0.01
    }
    bias_filler {
      type: "constant"
    }
  }
}
layer {
  name: "relu3"
  type: "ReLU"
  bottom: "ip3"
  top: "ip3"
}
layer {
  name: "ip4"
  type: "InnerProduct"
  bottom: "ip3"
  top: "ip4"
  param {
    lr_mult: 1
  }
  param {
    lr_mult: 2
  }
  inner_product_param {
    num_output: 10
    weight_filler {
      type: "gaussian"
      std: 0.01
    }
    bias_filler {
      type: "constant"
    }
  }
}
layer {
  name: "loss"
  type: "SoftmaxWithLoss"
  bottom: "ip4"
  bottom: "label"
  top: "loss"
}
I0501 00:23:53.673568  6951 layer_factory.hpp:77] Creating layer cifar
I0501 00:23:53.673648  6951 db_lmdb.cpp:35] Opened lmdb examples/cifar10/cifar10_train_lmdb
I0501 00:23:53.673671  6951 net.cpp:86] Creating Layer cifar
I0501 00:23:53.673677  6951 net.cpp:382] cifar -> data
I0501 00:23:53.673696  6951 net.cpp:382] cifar -> label
I0501 00:23:53.673705  6951 data_transformer.cpp:25] Loading mean file from: examples/cifar10/mean.binaryproto
I0501 00:23:53.675458  6951 data_layer.cpp:45] output data size: 111,3,32,32
I0501 00:23:53.682085  6951 net.cpp:124] Setting up cifar
I0501 00:23:53.682099  6951 net.cpp:131] Top shape: 111 3 32 32 (340992)
I0501 00:23:53.682119  6951 net.cpp:131] Top shape: 111 (111)
I0501 00:23:53.682122  6951 net.cpp:139] Memory required for data: 1364412
I0501 00:23:53.682142  6951 layer_factory.hpp:77] Creating layer conv0
I0501 00:23:53.682173  6951 net.cpp:86] Creating Layer conv0
I0501 00:23:53.682178  6951 net.cpp:408] conv0 <- data
I0501 00:23:53.682189  6951 net.cpp:382] conv0 -> conv0
I0501 00:23:53.908092  6951 net.cpp:124] Setting up conv0
I0501 00:23:53.908133  6951 net.cpp:131] Top shape: 111 8 34 34 (1026528)
I0501 00:23:53.908135  6951 net.cpp:139] Memory required for data: 5470524
I0501 00:23:53.908150  6951 layer_factory.hpp:77] Creating layer Sigmoid0
I0501 00:23:53.908162  6951 net.cpp:86] Creating Layer Sigmoid0
I0501 00:23:53.908166  6951 net.cpp:408] Sigmoid0 <- conv0
I0501 00:23:53.908171  6951 net.cpp:382] Sigmoid0 -> Sigmoid0
I0501 00:23:53.908366  6951 net.cpp:124] Setting up Sigmoid0
I0501 00:23:53.908375  6951 net.cpp:131] Top shape: 111 8 34 34 (1026528)
I0501 00:23:53.908378  6951 net.cpp:139] Memory required for data: 9576636
I0501 00:23:53.908382  6951 layer_factory.hpp:77] Creating layer pool0
I0501 00:23:53.908388  6951 net.cpp:86] Creating Layer pool0
I0501 00:23:53.908391  6951 net.cpp:408] pool0 <- Sigmoid0
I0501 00:23:53.908396  6951 net.cpp:382] pool0 -> pool0
I0501 00:23:53.909095  6951 net.cpp:124] Setting up pool0
I0501 00:23:53.909121  6951 net.cpp:131] Top shape: 111 8 17 17 (256632)
I0501 00:23:53.909126  6951 net.cpp:139] Memory required for data: 10603164
I0501 00:23:53.909144  6951 layer_factory.hpp:77] Creating layer ip1
I0501 00:23:53.909153  6951 net.cpp:86] Creating Layer ip1
I0501 00:23:53.909157  6951 net.cpp:408] ip1 <- pool0
I0501 00:23:53.909163  6951 net.cpp:382] ip1 -> ip1
I0501 00:23:53.911514  6951 net.cpp:124] Setting up ip1
I0501 00:23:53.911521  6951 net.cpp:131] Top shape: 111 40 (4440)
I0501 00:23:53.911525  6951 net.cpp:139] Memory required for data: 10620924
I0501 00:23:53.911531  6951 layer_factory.hpp:77] Creating layer relu1
I0501 00:23:53.911536  6951 net.cpp:86] Creating Layer relu1
I0501 00:23:53.911540  6951 net.cpp:408] relu1 <- ip1
I0501 00:23:53.911542  6951 net.cpp:369] relu1 -> ip1 (in-place)
I0501 00:23:53.911692  6951 net.cpp:124] Setting up relu1
I0501 00:23:53.911701  6951 net.cpp:131] Top shape: 111 40 (4440)
I0501 00:23:53.911705  6951 net.cpp:139] Memory required for data: 10638684
I0501 00:23:53.911707  6951 layer_factory.hpp:77] Creating layer ip2
I0501 00:23:53.911712  6951 net.cpp:86] Creating Layer ip2
I0501 00:23:53.911716  6951 net.cpp:408] ip2 <- ip1
I0501 00:23:53.911721  6951 net.cpp:382] ip2 -> ip2
I0501 00:23:53.912747  6951 net.cpp:124] Setting up ip2
I0501 00:23:53.912758  6951 net.cpp:131] Top shape: 111 160 (17760)
I0501 00:23:53.912761  6951 net.cpp:139] Memory required for data: 10709724
I0501 00:23:53.912770  6951 layer_factory.hpp:77] Creating layer relu2
I0501 00:23:53.912775  6951 net.cpp:86] Creating Layer relu2
I0501 00:23:53.912777  6951 net.cpp:408] relu2 <- ip2
I0501 00:23:53.912781  6951 net.cpp:369] relu2 -> ip2 (in-place)
I0501 00:23:53.912999  6951 net.cpp:124] Setting up relu2
I0501 00:23:53.913008  6951 net.cpp:131] Top shape: 111 160 (17760)
I0501 00:23:53.913012  6951 net.cpp:139] Memory required for data: 10780764
I0501 00:23:53.913015  6951 layer_factory.hpp:77] Creating layer ip3
I0501 00:23:53.913023  6951 net.cpp:86] Creating Layer ip3
I0501 00:23:53.913028  6951 net.cpp:408] ip3 <- ip2
I0501 00:23:53.913033  6951 net.cpp:382] ip3 -> ip3
I0501 00:23:53.913255  6951 net.cpp:124] Setting up ip3
I0501 00:23:53.913262  6951 net.cpp:131] Top shape: 111 20 (2220)
I0501 00:23:53.913265  6951 net.cpp:139] Memory required for data: 10789644
I0501 00:23:53.913270  6951 layer_factory.hpp:77] Creating layer relu3
I0501 00:23:53.913275  6951 net.cpp:86] Creating Layer relu3
I0501 00:23:53.913278  6951 net.cpp:408] relu3 <- ip3
I0501 00:23:53.913282  6951 net.cpp:369] relu3 -> ip3 (in-place)
I0501 00:23:53.913429  6951 net.cpp:124] Setting up relu3
I0501 00:23:53.913436  6951 net.cpp:131] Top shape: 111 20 (2220)
I0501 00:23:53.913439  6951 net.cpp:139] Memory required for data: 10798524
I0501 00:23:53.913442  6951 layer_factory.hpp:77] Creating layer ip4
I0501 00:23:53.913463  6951 net.cpp:86] Creating Layer ip4
I0501 00:23:53.913466  6951 net.cpp:408] ip4 <- ip3
I0501 00:23:53.913471  6951 net.cpp:382] ip4 -> ip4
I0501 00:23:53.913568  6951 net.cpp:124] Setting up ip4
I0501 00:23:53.913575  6951 net.cpp:131] Top shape: 111 10 (1110)
I0501 00:23:53.913578  6951 net.cpp:139] Memory required for data: 10802964
I0501 00:23:53.913585  6951 layer_factory.hpp:77] Creating layer loss
I0501 00:23:53.913591  6951 net.cpp:86] Creating Layer loss
I0501 00:23:53.913594  6951 net.cpp:408] loss <- ip4
I0501 00:23:53.913597  6951 net.cpp:408] loss <- label
I0501 00:23:53.913602  6951 net.cpp:382] loss -> loss
I0501 00:23:53.913619  6951 layer_factory.hpp:77] Creating layer loss
…
I0501 00:23:53.914839  6951 solver.cpp:173] Creating test net (#0) specified by net file: ECE595/cifar/train_test/var_everything/cifar_train_test_256.prototxt
I0501 00:23:53.914865  6951 net.cpp:296] The NetState phase (1) differed from the phase (0) specified by a rule in layer cifar
I0501 00:23:53.914958  6951 net.cpp:53] Initializing net from parameters: 
name: "CIFAR"
state {
  phase: TEST
}
layer {
  name: "cifar"
  type: "Data"
  top: "data"
  top: "label"
  include {
    phase: TEST
  }
  transform_param {
    mean_file: "examples/cifar10/mean.binaryproto"
  }
  data_param {
    source: "examples/cifar10/cifar10_test_lmdb"
    batch_size: 1000
    backend: LMDB
  }
}
layer {
  name: "conv0"
  type: "Convolution"
  bottom: "data"
  top: "conv0"
  param {
    lr_mult: 1
  }
  param {
    lr_mult: 2
  }
  convolution_param {
    num_output: 8
    pad: 2
    kernel_size: 3
    stride: 1
    weight_filler {
      type: "gaussian"
      std: 0.01
    }
    bias_filler {
      type: "constant"
    }
  }
}
layer {
  name: "Sigmoid0"
  type: "Sigmoid"
  bottom: "conv0"
  top: "Sigmoid0"
}
layer {
  name: "pool0"
  type: "Pooling"
  bottom: "Sigmoid0"
  top: "pool0"
  pooling_param {
    pool: AVE
    kernel_size: 3
    stride: 2
  }
}
layer {
  name: "ip1"
  type: "InnerProduct"
  bottom: "pool0"
  top: "ip1"
  param {
    lr_mult: 1
  }
  param {
    lr_mult: 2
  }
  inner_product_param {
    num_output: 40
    weight_filler {
      type: "gaussian"
      std: 0.01
    }
    bias_filler {
      type: "constant"
    }
  }
}
layer {
  name: "relu1"
  type: "ReLU"
  bottom: "ip1"
  top: "ip1"
}
layer {
  name: "ip2"
  type: "InnerProduct"
  bottom: "ip1"
  top: "ip2"
  param {
    lr_mult: 1
  }
  param {
    lr_mult: 2
  }
  inner_product_param {
    num_output: 160
    weight_filler {
      type: "gaussian"
      std: 0.01
    }
    bias_filler {
      type: "constant"
    }
  }
}
layer {
  name: "relu2"
  type: "ReLU"
  bottom: "ip2"
  top: "ip2"
}
layer {
  name: "ip3"
  type: "InnerProduct"
  bottom: "ip2"
  top: "ip3"
  param {
    lr_mult: 1
  }
  param {
    lr_mult: 2
  }
  inner_product_param {
    num_output: 20
    weight_filler {
      type: "gaussian"
      std: 0.01
    }
    bias_filler {
      type: "constant"
    }
  }
}
layer {
  name: "relu3"
  type: "ReLU"
  bottom: "ip3"
  top: "ip3"
}
layer {
  name: "ip4"
  type: "InnerProduct"
  bottom: "ip3"
  top: "ip4"
  param {
    lr_mult: 1
  }
  param {
    lr_mult: 2
  }
  inner_product_param {
    num_output: 10
    weight_filler {
      type: "gaussian"
      std: 0.01
    }
    bias_filler {
      type: "constant"
    }
  }
}
layer {
  name: "accuracy"
  type: "Accuracy"
  bottom: "ip4"
  bottom: "label"
  top: "accuracy"
  include {
    phase: TEST
  }
}
layer {
  name: "loss"
  type: "SoftmaxWithLoss"
  bottom: "ip4"
  bottom: "label"
  top: "loss"
}
I0501 00:23:53.915037  6951 layer_factory.hpp:77] Creating layer cifar
I0501 00:23:53.915079  6951 db_lmdb.cpp:35] Opened lmdb examples/cifar10/cifar10_test_lmdb
I0501 00:23:53.915091  6951 net.cpp:86] Creating Layer cifar
I0501 00:23:53.915096  6951 net.cpp:382] cifar -> data
I0501 00:23:53.915103  6951 net.cpp:382] cifar -> label
I0501 00:23:53.915109  6951 data_transformer.cpp:25] Loading mean file from: examples/cifar10/mean.binaryproto
I0501 00:23:53.915251  6951 data_layer.cpp:45] output data size: 1000,3,32,32
I0501 00:23:53.937155  6951 net.cpp:124] Setting up cifar
I0501 00:23:53.937196  6951 net.cpp:131] Top shape: 1000 3 32 32 (3072000)
I0501 00:23:53.937217  6951 net.cpp:131] Top shape: 1000 (1000)
I0501 00:23:53.937222  6951 net.cpp:139] Memory required for data: 12292000
I0501 00:23:53.937242  6951 layer_factory.hpp:77] Creating layer label_cifar_1_split
I0501 00:23:53.937257  6951 net.cpp:86] Creating Layer label_cifar_1_split
I0501 00:23:53.937271  6951 net.cpp:408] label_cifar_1_split <- label
I0501 00:23:53.937294  6951 net.cpp:382] label_cifar_1_split -> label_cifar_1_split_0
I0501 00:23:53.937304  6951 net.cpp:382] label_cifar_1_split -> label_cifar_1_split_1
I0501 00:23:53.937356  6951 net.cpp:124] Setting up label_cifar_1_split
I0501 00:23:53.937381  6951 net.cpp:131] Top shape: 1000 (1000)
I0501 00:23:53.937384  6951 net.cpp:131] Top shape: 1000 (1000)
I0501 00:23:53.937387  6951 net.cpp:139] Memory required for data: 12300000
I0501 00:23:53.937391  6951 layer_factory.hpp:77] Creating layer conv0
I0501 00:23:53.937403  6951 net.cpp:86] Creating Layer conv0
I0501 00:23:53.937407  6951 net.cpp:408] conv0 <- data
I0501 00:23:53.937412  6951 net.cpp:382] conv0 -> conv0
I0501 00:23:53.939010  6951 net.cpp:124] Setting up conv0
I0501 00:23:53.939038  6951 net.cpp:131] Top shape: 1000 8 34 34 (9248000)
I0501 00:23:53.939041  6951 net.cpp:139] Memory required for data: 49292000
I0501 00:23:53.939051  6951 layer_factory.hpp:77] Creating layer Sigmoid0
I0501 00:23:53.939059  6951 net.cpp:86] Creating Layer Sigmoid0
I0501 00:23:53.939062  6951 net.cpp:408] Sigmoid0 <- conv0
I0501 00:23:53.939067  6951 net.cpp:382] Sigmoid0 -> Sigmoid0
I0501 00:23:53.939261  6951 net.cpp:124] Setting up Sigmoid0
I0501 00:23:53.939270  6951 net.cpp:131] Top shape: 1000 8 34 34 (9248000)
I0501 00:23:53.939273  6951 net.cpp:139] Memory required for data: 86284000
I0501 00:23:53.939276  6951 layer_factory.hpp:77] Creating layer pool0
I0501 00:23:53.939286  6951 net.cpp:86] Creating Layer pool0
I0501 00:23:53.939290  6951 net.cpp:408] pool0 <- Sigmoid0
I0501 00:23:53.939293  6951 net.cpp:382] pool0 -> pool0
I0501 00:23:53.939565  6951 net.cpp:124] Setting up pool0
I0501 00:23:53.939574  6951 net.cpp:131] Top shape: 1000 8 17 17 (2312000)
I0501 00:23:53.939577  6951 net.cpp:139] Memory required for data: 95532000
I0501 00:23:53.939581  6951 layer_factory.hpp:77] Creating layer ip1
I0501 00:23:53.939590  6951 net.cpp:86] Creating Layer ip1
I0501 00:23:53.939594  6951 net.cpp:408] ip1 <- pool0
I0501 00:23:53.939600  6951 net.cpp:382] ip1 -> ip1
I0501 00:23:53.943089  6951 net.cpp:124] Setting up ip1
I0501 00:23:53.943119  6951 net.cpp:131] Top shape: 1000 40 (40000)
I0501 00:23:53.943122  6951 net.cpp:139] Memory required for data: 95692000
I0501 00:23:53.943150  6951 layer_factory.hpp:77] Creating layer relu1
I0501 00:23:53.943173  6951 net.cpp:86] Creating Layer relu1
I0501 00:23:53.943176  6951 net.cpp:408] relu1 <- ip1
I0501 00:23:53.943181  6951 net.cpp:369] relu1 -> ip1 (in-place)
I0501 00:23:53.943351  6951 net.cpp:124] Setting up relu1
I0501 00:23:53.943362  6951 net.cpp:131] Top shape: 1000 40 (40000)
I0501 00:23:53.943366  6951 net.cpp:139] Memory required for data: 95852000
I0501 00:23:53.943387  6951 layer_factory.hpp:77] Creating layer ip2
I0501 00:23:53.943394  6951 net.cpp:86] Creating Layer ip2
I0501 00:23:53.943397  6951 net.cpp:408] ip2 <- ip1
I0501 00:23:53.943403  6951 net.cpp:382] ip2 -> ip2
I0501 00:23:53.943668  6951 net.cpp:124] Setting up ip2
I0501 00:23:53.943676  6951 net.cpp:131] Top shape: 1000 160 (160000)
I0501 00:23:53.943680  6951 net.cpp:139] Memory required for data: 96492000
I0501 00:23:53.943686  6951 layer_factory.hpp:77] Creating layer relu2
I0501 00:23:53.943694  6951 net.cpp:86] Creating Layer relu2
I0501 00:23:53.943697  6951 net.cpp:408] relu2 <- ip2
I0501 00:23:53.943701  6951 net.cpp:369] relu2 -> ip2 (in-place)
I0501 00:23:53.944486  6951 net.cpp:124] Setting up relu2
I0501 00:23:53.944497  6951 net.cpp:131] Top shape: 1000 160 (160000)
I0501 00:23:53.944516  6951 net.cpp:139] Memory required for data: 97132000
I0501 00:23:53.944520  6951 layer_factory.hpp:77] Creating layer ip3
I0501 00:23:53.944527  6951 net.cpp:86] Creating Layer ip3
I0501 00:23:53.944530  6951 net.cpp:408] ip3 <- ip2
I0501 00:23:53.944536  6951 net.cpp:382] ip3 -> ip3
I0501 00:23:53.944761  6951 net.cpp:124] Setting up ip3
I0501 00:23:53.944768  6951 net.cpp:131] Top shape: 1000 20 (20000)
I0501 00:23:53.944772  6951 net.cpp:139] Memory required for data: 97212000
I0501 00:23:53.944777  6951 layer_factory.hpp:77] Creating layer relu3
I0501 00:23:53.944783  6951 net.cpp:86] Creating Layer relu3
I0501 00:23:53.944787  6951 net.cpp:408] relu3 <- ip3
I0501 00:23:53.944792  6951 net.cpp:369] relu3 -> ip3 (in-place)
I0501 00:23:53.945008  6951 net.cpp:124] Setting up relu3
I0501 00:23:53.945017  6951 net.cpp:131] Top shape: 1000 20 (20000)
I0501 00:23:53.945021  6951 net.cpp:139] Memory required for data: 97292000
I0501 00:23:53.945024  6951 layer_factory.hpp:77] Creating layer ip4
I0501 00:23:53.945032  6951 net.cpp:86] Creating Layer ip4
I0501 00:23:53.945036  6951 net.cpp:408] ip4 <- ip3
I0501 00:23:53.945041  6951 net.cpp:382] ip4 -> ip4
I0501 00:23:53.945188  6951 net.cpp:124] Setting up ip4
I0501 00:23:53.945195  6951 net.cpp:131] Top shape: 1000 10 (10000)
I0501 00:23:53.945214  6951 net.cpp:139] Memory required for data: 97332000
I0501 00:23:53.945224  6951 layer_factory.hpp:77] Creating layer ip4_ip4_0_split
I0501 00:23:53.945228  6951 net.cpp:86] Creating Layer ip4_ip4_0_split
I0501 00:23:53.945231  6951 net.cpp:408] ip4_ip4_0_split <- ip4
I0501 00:23:53.945236  6951 net.cpp:382] ip4_ip4_0_split -> ip4_ip4_0_split_0
I0501 00:23:53.945256  6951 net.cpp:382] ip4_ip4_0_split -> ip4_ip4_0_split_1
I0501 00:23:53.945287  6951 net.cpp:124] Setting up ip4_ip4_0_split
I0501 00:23:53.945294  6951 net.cpp:131] Top shape: 1000 10 (10000)
I0501 00:23:53.945298  6951 net.cpp:131] Top shape: 1000 10 (10000)
I0501 00:23:53.945300  6951 net.cpp:139] Memory required for data: 97412000
I0501 00:23:53.945303  6951 layer_factory.hpp:77] Creating layer accuracy
I0501 00:23:53.945312  6951 net.cpp:86] Creating Layer accuracy
I0501 00:23:53.945314  6951 net.cpp:408] accuracy <- ip4_ip4_0_split_0
I0501 00:23:53.945318  6951 net.cpp:408] accuracy <- label_cifar_1_split_0
I0501 00:23:53.945324  6951 net.cpp:382] accuracy -> accuracy
…
