…
I0501 02:37:02.998394 16256 net.cpp:296] The NetState phase (0) differed from the phase (1) specified by a rule in layer cifar
I0501 02:37:02.998412 16256 net.cpp:296] The NetState phase (0) differed from the phase (1) specified by a rule in layer accuracy
I0501 02:37:02.998507 16256 net.cpp:53] Initializing net from parameters: 
name: "CIFAR"
state {
  phase: TRAIN
  level: 0
  stage: ""
}
layer {
  name: "cifar"
  type: "Data"
  top: "data"
  top: "label"
  include {
    phase: TRAIN
  }
  transform_param {
    mean_file: "examples/cifar10/mean.binaryproto"
  }
  data_param {
    source: "examples/cifar10/cifar10_train_lmdb"
    batch_size: 111
    backend: LMDB
  }
}
layer {
  name: "conv0"
  type: "Convolution"
  bottom: "data"
  top: "conv0"
  param {
    lr_mult: 1
  }
  param {
    lr_mult: 2
  }
  convolution_param {
    num_output: 8
    pad: 2
    kernel_size: 5
    stride: 1
    weight_filler {
      type: "gaussian"
      std: 0.01
    }
    bias_filler {
      type: "constant"
    }
  }
}
layer {
  name: "Sigmoid0"
  type: "Sigmoid"
  bottom: "conv0"
  top: "Sigmoid0"
}
layer {
  name: "pool0"
  type: "Pooling"
  bottom: "Sigmoid0"
  top: "pool0"
  pooling_param {
    pool: AVE
    kernel_size: 3
    stride: 2
  }
}
layer {
  name: "ip1"
  type: "InnerProduct"
  bottom: "pool0"
  top: "ip1"
  param {
    lr_mult: 1
  }
  param {
    lr_mult: 2
  }
  inner_product_param {
    num_output: 40
    weight_filler {
      type: "gaussian"
      std: 0.01
    }
    bias_filler {
      type: "constant"
    }
  }
}
layer {
  name: "relu1"
  type: "ReLU"
  bottom: "ip1"
  top: "ip1"
}
layer {
  name: "ip2"
  type: "InnerProduct"
  bottom: "ip1"
  top: "ip2"
  param {
    lr_mult: 1
  }
  param {
    lr_mult: 2
  }
  inner_product_param {
    num_output: 40
    weight_filler {
      type: "gaussian"
      std: 0.01
    }
    bias_filler {
      type: "constant"
    }
  }
}
layer {
  name: "relu2"
  type: "ReLU"
  bottom: "ip2"
  top: "ip2"
}
layer {
  name: "ip3"
  type: "InnerProduct"
  bottom: "ip2"
  top: "ip3"
  param {
    lr_mult: 1
  }
  param {
    lr_mult: 2
  }
  inner_product_param {
    num_output: 10
    weight_filler {
      type: "gaussian"
      std: 0.01
    }
    bias_filler {
      type: "constant"
    }
  }
}
layer {
  name: "loss"
  type: "SoftmaxWithLoss"
  bottom: "ip3"
  bottom: "label"
  top: "loss"
}
I0501 02:37:02.998584 16256 layer_factory.hpp:77] Creating layer cifar
I0501 02:37:02.998684 16256 db_lmdb.cpp:35] Opened lmdb examples/cifar10/cifar10_train_lmdb
I0501 02:37:02.998710 16256 net.cpp:86] Creating Layer cifar
I0501 02:37:02.998719 16256 net.cpp:382] cifar -> data
I0501 02:37:02.998742 16256 net.cpp:382] cifar -> label
I0501 02:37:02.998754 16256 data_transformer.cpp:25] Loading mean file from: examples/cifar10/mean.binaryproto
I0501 02:37:03.000862 16256 data_layer.cpp:45] output data size: 111,3,32,32
I0501 02:37:03.008736 16256 net.cpp:124] Setting up cifar
I0501 02:37:03.008756 16256 net.cpp:131] Top shape: 111 3 32 32 (340992)
I0501 02:37:03.008764 16256 net.cpp:131] Top shape: 111 (111)
I0501 02:37:03.008769 16256 net.cpp:139] Memory required for data: 1364412
I0501 02:37:03.008776 16256 layer_factory.hpp:77] Creating layer conv0
I0501 02:37:03.008793 16256 net.cpp:86] Creating Layer conv0
I0501 02:37:03.008800 16256 net.cpp:408] conv0 <- data
I0501 02:37:03.008822 16256 net.cpp:382] conv0 -> conv0
I0501 02:37:03.299358 16256 net.cpp:124] Setting up conv0
I0501 02:37:03.299408 16256 net.cpp:131] Top shape: 111 8 32 32 (909312)
I0501 02:37:03.299413 16256 net.cpp:139] Memory required for data: 5001660
I0501 02:37:03.299429 16256 layer_factory.hpp:77] Creating layer Sigmoid0
I0501 02:37:03.299443 16256 net.cpp:86] Creating Layer Sigmoid0
I0501 02:37:03.299448 16256 net.cpp:408] Sigmoid0 <- conv0
I0501 02:37:03.299453 16256 net.cpp:382] Sigmoid0 -> Sigmoid0
I0501 02:37:03.299638 16256 net.cpp:124] Setting up Sigmoid0
I0501 02:37:03.299648 16256 net.cpp:131] Top shape: 111 8 32 32 (909312)
I0501 02:37:03.299651 16256 net.cpp:139] Memory required for data: 8638908
I0501 02:37:03.299654 16256 layer_factory.hpp:77] Creating layer pool0
I0501 02:37:03.299661 16256 net.cpp:86] Creating Layer pool0
I0501 02:37:03.299665 16256 net.cpp:408] pool0 <- Sigmoid0
I0501 02:37:03.299670 16256 net.cpp:382] pool0 -> pool0
I0501 02:37:03.300456 16256 net.cpp:124] Setting up pool0
I0501 02:37:03.300470 16256 net.cpp:131] Top shape: 111 8 16 16 (227328)
I0501 02:37:03.300474 16256 net.cpp:139] Memory required for data: 9548220
I0501 02:37:03.300478 16256 layer_factory.hpp:77] Creating layer ip1
I0501 02:37:03.300487 16256 net.cpp:86] Creating Layer ip1
I0501 02:37:03.300492 16256 net.cpp:408] ip1 <- pool0
I0501 02:37:03.300498 16256 net.cpp:382] ip1 -> ip1
I0501 02:37:03.303005 16256 net.cpp:124] Setting up ip1
I0501 02:37:03.303015 16256 net.cpp:131] Top shape: 111 40 (4440)
I0501 02:37:03.303019 16256 net.cpp:139] Memory required for data: 9565980
I0501 02:37:03.303027 16256 layer_factory.hpp:77] Creating layer relu1
I0501 02:37:03.303032 16256 net.cpp:86] Creating Layer relu1
I0501 02:37:03.303036 16256 net.cpp:408] relu1 <- ip1
I0501 02:37:03.303040 16256 net.cpp:369] relu1 -> ip1 (in-place)
I0501 02:37:03.303203 16256 net.cpp:124] Setting up relu1
I0501 02:37:03.303212 16256 net.cpp:131] Top shape: 111 40 (4440)
I0501 02:37:03.303215 16256 net.cpp:139] Memory required for data: 9583740
I0501 02:37:03.303220 16256 layer_factory.hpp:77] Creating layer ip2
I0501 02:37:03.303225 16256 net.cpp:86] Creating Layer ip2
I0501 02:37:03.303228 16256 net.cpp:408] ip2 <- ip1
I0501 02:37:03.303233 16256 net.cpp:382] ip2 -> ip2
I0501 02:37:03.303375 16256 net.cpp:124] Setting up ip2
I0501 02:37:03.303382 16256 net.cpp:131] Top shape: 111 40 (4440)
I0501 02:37:03.303385 16256 net.cpp:139] Memory required for data: 9601500
I0501 02:37:03.303393 16256 layer_factory.hpp:77] Creating layer relu2
I0501 02:37:03.303398 16256 net.cpp:86] Creating Layer relu2
I0501 02:37:03.303401 16256 net.cpp:408] relu2 <- ip2
I0501 02:37:03.303406 16256 net.cpp:369] relu2 -> ip2 (in-place)
I0501 02:37:03.303565 16256 net.cpp:124] Setting up relu2
I0501 02:37:03.303575 16256 net.cpp:131] Top shape: 111 40 (4440)
I0501 02:37:03.303577 16256 net.cpp:139] Memory required for data: 9619260
I0501 02:37:03.303580 16256 layer_factory.hpp:77] Creating layer ip3
I0501 02:37:03.303588 16256 net.cpp:86] Creating Layer ip3
I0501 02:37:03.303591 16256 net.cpp:408] ip3 <- ip2
I0501 02:37:03.303596 16256 net.cpp:382] ip3 -> ip3
I0501 02:37:03.303701 16256 net.cpp:124] Setting up ip3
I0501 02:37:03.303709 16256 net.cpp:131] Top shape: 111 10 (1110)
I0501 02:37:03.303712 16256 net.cpp:139] Memory required for data: 9623700
I0501 02:37:03.303719 16256 layer_factory.hpp:77] Creating layer loss
I0501 02:37:03.303724 16256 net.cpp:86] Creating Layer loss
I0501 02:37:03.303727 16256 net.cpp:408] loss <- ip3
I0501 02:37:03.303731 16256 net.cpp:408] loss <- label
I0501 02:37:03.303737 16256 net.cpp:382] loss -> loss
I0501 02:37:03.303757 16256 layer_factory.hpp:77] Creating layer loss
…
I0501 02:37:03.304383 16256 solver.cpp:173] Creating test net (#0) specified by net file: ECE595/cifar/train_test/var_everything/cifar_train_test_327.prototxt
I0501 02:37:03.304410 16256 net.cpp:296] The NetState phase (1) differed from the phase (0) specified by a rule in layer cifar
I0501 02:37:03.304503 16256 net.cpp:53] Initializing net from parameters: 
name: "CIFAR"
state {
  phase: TEST
}
layer {
  name: "cifar"
  type: "Data"
  top: "data"
  top: "label"
  include {
    phase: TEST
  }
  transform_param {
    mean_file: "examples/cifar10/mean.binaryproto"
  }
  data_param {
    source: "examples/cifar10/cifar10_test_lmdb"
    batch_size: 1000
    backend: LMDB
  }
}
layer {
  name: "conv0"
  type: "Convolution"
  bottom: "data"
  top: "conv0"
  param {
    lr_mult: 1
  }
  param {
    lr_mult: 2
  }
  convolution_param {
    num_output: 8
    pad: 2
    kernel_size: 5
    stride: 1
    weight_filler {
      type: "gaussian"
      std: 0.01
    }
    bias_filler {
      type: "constant"
    }
  }
}
layer {
  name: "Sigmoid0"
  type: "Sigmoid"
  bottom: "conv0"
  top: "Sigmoid0"
}
layer {
  name: "pool0"
  type: "Pooling"
  bottom: "Sigmoid0"
  top: "pool0"
  pooling_param {
    pool: AVE
    kernel_size: 3
    stride: 2
  }
}
layer {
  name: "ip1"
  type: "InnerProduct"
  bottom: "pool0"
  top: "ip1"
  param {
    lr_mult: 1
  }
  param {
    lr_mult: 2
  }
  inner_product_param {
    num_output: 40
    weight_filler {
      type: "gaussian"
      std: 0.01
    }
    bias_filler {
      type: "constant"
    }
  }
}
layer {
  name: "relu1"
  type: "ReLU"
  bottom: "ip1"
  top: "ip1"
}
layer {
  name: "ip2"
  type: "InnerProduct"
  bottom: "ip1"
  top: "ip2"
  param {
    lr_mult: 1
  }
  param {
    lr_mult: 2
  }
  inner_product_param {
    num_output: 40
    weight_filler {
      type: "gaussian"
      std: 0.01
    }
    bias_filler {
      type: "constant"
    }
  }
}
layer {
  name: "relu2"
  type: "ReLU"
  bottom: "ip2"
  top: "ip2"
}
layer {
  name: "ip3"
  type: "InnerProduct"
  bottom: "ip2"
  top: "ip3"
  param {
    lr_mult: 1
  }
  param {
    lr_mult: 2
  }
  inner_product_param {
    num_output: 10
    weight_filler {
      type: "gaussian"
      std: 0.01
    }
    bias_filler {
      type: "constant"
    }
  }
}
layer {
  name: "accuracy"
  type: "Accuracy"
  bottom: "ip3"
  bottom: "label"
  top: "accuracy"
  include {
    phase: TEST
  }
}
layer {
  name: "loss"
  type: "SoftmaxWithLoss"
  bottom: "ip3"
  bottom: "label"
  top: "loss"
}
I0501 02:37:03.304571 16256 layer_factory.hpp:77] Creating layer cifar
I0501 02:37:03.304620 16256 db_lmdb.cpp:35] Opened lmdb examples/cifar10/cifar10_test_lmdb
I0501 02:37:03.304632 16256 net.cpp:86] Creating Layer cifar
I0501 02:37:03.304637 16256 net.cpp:382] cifar -> data
I0501 02:37:03.304646 16256 net.cpp:382] cifar -> label
I0501 02:37:03.304652 16256 data_transformer.cpp:25] Loading mean file from: examples/cifar10/mean.binaryproto
I0501 02:37:03.304800 16256 data_layer.cpp:45] output data size: 1000,3,32,32
I0501 02:37:03.327742 16256 net.cpp:124] Setting up cifar
I0501 02:37:03.327769 16256 net.cpp:131] Top shape: 1000 3 32 32 (3072000)
I0501 02:37:03.327775 16256 net.cpp:131] Top shape: 1000 (1000)
I0501 02:37:03.327777 16256 net.cpp:139] Memory required for data: 12292000
I0501 02:37:03.327783 16256 layer_factory.hpp:77] Creating layer label_cifar_1_split
I0501 02:37:03.327795 16256 net.cpp:86] Creating Layer label_cifar_1_split
I0501 02:37:03.327816 16256 net.cpp:408] label_cifar_1_split <- label
I0501 02:37:03.327822 16256 net.cpp:382] label_cifar_1_split -> label_cifar_1_split_0
I0501 02:37:03.327831 16256 net.cpp:382] label_cifar_1_split -> label_cifar_1_split_1
I0501 02:37:03.327911 16256 net.cpp:124] Setting up label_cifar_1_split
I0501 02:37:03.327919 16256 net.cpp:131] Top shape: 1000 (1000)
I0501 02:37:03.327924 16256 net.cpp:131] Top shape: 1000 (1000)
I0501 02:37:03.327926 16256 net.cpp:139] Memory required for data: 12300000
I0501 02:37:03.327929 16256 layer_factory.hpp:77] Creating layer conv0
I0501 02:37:03.327942 16256 net.cpp:86] Creating Layer conv0
I0501 02:37:03.327945 16256 net.cpp:408] conv0 <- data
I0501 02:37:03.327950 16256 net.cpp:382] conv0 -> conv0
I0501 02:37:03.329524 16256 net.cpp:124] Setting up conv0
I0501 02:37:03.329537 16256 net.cpp:131] Top shape: 1000 8 32 32 (8192000)
I0501 02:37:03.329541 16256 net.cpp:139] Memory required for data: 45068000
I0501 02:37:03.329551 16256 layer_factory.hpp:77] Creating layer Sigmoid0
I0501 02:37:03.329557 16256 net.cpp:86] Creating Layer Sigmoid0
I0501 02:37:03.329561 16256 net.cpp:408] Sigmoid0 <- conv0
I0501 02:37:03.329566 16256 net.cpp:382] Sigmoid0 -> Sigmoid0
I0501 02:37:03.330394 16256 net.cpp:124] Setting up Sigmoid0
I0501 02:37:03.330406 16256 net.cpp:131] Top shape: 1000 8 32 32 (8192000)
I0501 02:37:03.330410 16256 net.cpp:139] Memory required for data: 77836000
I0501 02:37:03.330415 16256 layer_factory.hpp:77] Creating layer pool0
I0501 02:37:03.330423 16256 net.cpp:86] Creating Layer pool0
I0501 02:37:03.330426 16256 net.cpp:408] pool0 <- Sigmoid0
I0501 02:37:03.330432 16256 net.cpp:382] pool0 -> pool0
I0501 02:37:03.331544 16256 net.cpp:124] Setting up pool0
I0501 02:37:03.331554 16256 net.cpp:131] Top shape: 1000 8 16 16 (2048000)
I0501 02:37:03.331558 16256 net.cpp:139] Memory required for data: 86028000
I0501 02:37:03.331562 16256 layer_factory.hpp:77] Creating layer ip1
I0501 02:37:03.331568 16256 net.cpp:86] Creating Layer ip1
I0501 02:37:03.331573 16256 net.cpp:408] ip1 <- pool0
I0501 02:37:03.331578 16256 net.cpp:382] ip1 -> ip1
I0501 02:37:03.333866 16256 net.cpp:124] Setting up ip1
I0501 02:37:03.333875 16256 net.cpp:131] Top shape: 1000 40 (40000)
I0501 02:37:03.333878 16256 net.cpp:139] Memory required for data: 86188000
I0501 02:37:03.333886 16256 layer_factory.hpp:77] Creating layer relu1
I0501 02:37:03.333891 16256 net.cpp:86] Creating Layer relu1
I0501 02:37:03.333895 16256 net.cpp:408] relu1 <- ip1
I0501 02:37:03.333899 16256 net.cpp:369] relu1 -> ip1 (in-place)
I0501 02:37:03.334048 16256 net.cpp:124] Setting up relu1
I0501 02:37:03.334055 16256 net.cpp:131] Top shape: 1000 40 (40000)
I0501 02:37:03.334059 16256 net.cpp:139] Memory required for data: 86348000
I0501 02:37:03.334062 16256 layer_factory.hpp:77] Creating layer ip2
I0501 02:37:03.334069 16256 net.cpp:86] Creating Layer ip2
I0501 02:37:03.334072 16256 net.cpp:408] ip2 <- ip1
I0501 02:37:03.334076 16256 net.cpp:382] ip2 -> ip2
I0501 02:37:03.334211 16256 net.cpp:124] Setting up ip2
I0501 02:37:03.334219 16256 net.cpp:131] Top shape: 1000 40 (40000)
I0501 02:37:03.334223 16256 net.cpp:139] Memory required for data: 86508000
I0501 02:37:03.334229 16256 layer_factory.hpp:77] Creating layer relu2
I0501 02:37:03.334235 16256 net.cpp:86] Creating Layer relu2
I0501 02:37:03.334239 16256 net.cpp:408] relu2 <- ip2
I0501 02:37:03.334242 16256 net.cpp:369] relu2 -> ip2 (in-place)
I0501 02:37:03.334388 16256 net.cpp:124] Setting up relu2
I0501 02:37:03.334396 16256 net.cpp:131] Top shape: 1000 40 (40000)
I0501 02:37:03.334400 16256 net.cpp:139] Memory required for data: 86668000
I0501 02:37:03.334403 16256 layer_factory.hpp:77] Creating layer ip3
I0501 02:37:03.334408 16256 net.cpp:86] Creating Layer ip3
I0501 02:37:03.334411 16256 net.cpp:408] ip3 <- ip2
I0501 02:37:03.334416 16256 net.cpp:382] ip3 -> ip3
I0501 02:37:03.334535 16256 net.cpp:124] Setting up ip3
I0501 02:37:03.334542 16256 net.cpp:131] Top shape: 1000 10 (10000)
I0501 02:37:03.334545 16256 net.cpp:139] Memory required for data: 86708000
I0501 02:37:03.334561 16256 layer_factory.hpp:77] Creating layer ip3_ip3_0_split
I0501 02:37:03.334566 16256 net.cpp:86] Creating Layer ip3_ip3_0_split
I0501 02:37:03.334570 16256 net.cpp:408] ip3_ip3_0_split <- ip3
I0501 02:37:03.334574 16256 net.cpp:382] ip3_ip3_0_split -> ip3_ip3_0_split_0
I0501 02:37:03.334580 16256 net.cpp:382] ip3_ip3_0_split -> ip3_ip3_0_split_1
I0501 02:37:03.334612 16256 net.cpp:124] Setting up ip3_ip3_0_split
I0501 02:37:03.334617 16256 net.cpp:131] Top shape: 1000 10 (10000)
I0501 02:37:03.334621 16256 net.cpp:131] Top shape: 1000 10 (10000)
I0501 02:37:03.334623 16256 net.cpp:139] Memory required for data: 86788000
I0501 02:37:03.334626 16256 layer_factory.hpp:77] Creating layer accuracy
I0501 02:37:03.334640 16256 net.cpp:86] Creating Layer accuracy
I0501 02:37:03.334643 16256 net.cpp:408] accuracy <- ip3_ip3_0_split_0
I0501 02:37:03.334647 16256 net.cpp:408] accuracy <- label_cifar_1_split_0
I0501 02:37:03.334652 16256 net.cpp:382] accuracy -> accuracy
…
