…
I0501 09:39:00.459784 15259 net.cpp:296] The NetState phase (0) differed from the phase (1) specified by a rule in layer cifar
I0501 09:39:00.459810 15259 net.cpp:296] The NetState phase (0) differed from the phase (1) specified by a rule in layer accuracy
I0501 09:39:00.459924 15259 net.cpp:53] Initializing net from parameters: 
name: "CIFAR"
state {
  phase: TRAIN
  level: 0
  stage: ""
}
layer {
  name: "cifar"
  type: "Data"
  top: "data"
  top: "label"
  include {
    phase: TRAIN
  }
  transform_param {
    mean_file: "examples/cifar10/mean.binaryproto"
  }
  data_param {
    source: "examples/cifar10/cifar10_train_lmdb"
    batch_size: 111
    backend: LMDB
  }
}
layer {
  name: "conv0"
  type: "Convolution"
  bottom: "data"
  top: "conv0"
  param {
    lr_mult: 1
  }
  param {
    lr_mult: 2
  }
  convolution_param {
    num_output: 16
    pad: 2
    kernel_size: 3
    stride: 1
    weight_filler {
      type: "gaussian"
      std: 0.01
    }
    bias_filler {
      type: "constant"
    }
  }
}
layer {
  name: "Sigmoid0"
  type: "Sigmoid"
  bottom: "conv0"
  top: "Sigmoid0"
}
layer {
  name: "pool0"
  type: "Pooling"
  bottom: "Sigmoid0"
  top: "pool0"
  pooling_param {
    pool: AVE
    kernel_size: 3
    stride: 2
  }
}
layer {
  name: "ip1"
  type: "InnerProduct"
  bottom: "pool0"
  top: "ip1"
  param {
    lr_mult: 1
  }
  param {
    lr_mult: 2
  }
  inner_product_param {
    num_output: 40
    weight_filler {
      type: "gaussian"
      std: 0.01
    }
    bias_filler {
      type: "constant"
    }
  }
}
layer {
  name: "relu1"
  type: "ReLU"
  bottom: "ip1"
  top: "ip1"
}
layer {
  name: "ip2"
  type: "InnerProduct"
  bottom: "ip1"
  top: "ip2"
  param {
    lr_mult: 1
  }
  param {
    lr_mult: 2
  }
  inner_product_param {
    num_output: 10
    weight_filler {
      type: "gaussian"
      std: 0.01
    }
    bias_filler {
      type: "constant"
    }
  }
}
layer {
  name: "relu2"
  type: "ReLU"
  bottom: "ip2"
  top: "ip2"
}
layer {
  name: "ip3"
  type: "InnerProduct"
  bottom: "ip2"
  top: "ip3"
  param {
    lr_mult: 1
  }
  param {
    lr_mult: 2
  }
  inner_product_param {
    num_output: 10
    weight_filler {
      type: "gaussian"
      std: 0.01
    }
    bias_filler {
      type: "constant"
    }
  }
}
layer {
  name: "relu3"
  type: "ReLU"
  bottom: "ip3"
  top: "ip3"
}
layer {
  name: "ip4"
  type: "InnerProduct"
  bottom: "ip3"
  top: "ip4"
  param {
    lr_mult: 1
  }
  param {
    lr_mult: 2
  }
  inner_product_param {
    num_output: 10
    weight_filler {
      type: "gaussian"
      std: 0.01
    }
    bias_filler {
      type: "constant"
    }
  }
}
layer {
  name: "loss"
  type: "SoftmaxWithLoss"
  bottom: "ip4"
  bottom: "label"
  top: "loss"
}
I0501 09:39:00.460006 15259 layer_factory.hpp:77] Creating layer cifar
I0501 09:39:00.460110 15259 db_lmdb.cpp:35] Opened lmdb examples/cifar10/cifar10_train_lmdb
I0501 09:39:00.460144 15259 net.cpp:86] Creating Layer cifar
I0501 09:39:00.460155 15259 net.cpp:382] cifar -> data
I0501 09:39:00.460180 15259 net.cpp:382] cifar -> label
I0501 09:39:00.460193 15259 data_transformer.cpp:25] Loading mean file from: examples/cifar10/mean.binaryproto
I0501 09:39:00.462350 15259 data_layer.cpp:45] output data size: 111,3,32,32
I0501 09:39:00.470311 15259 net.cpp:124] Setting up cifar
I0501 09:39:00.470329 15259 net.cpp:131] Top shape: 111 3 32 32 (340992)
I0501 09:39:00.470335 15259 net.cpp:131] Top shape: 111 (111)
I0501 09:39:00.470340 15259 net.cpp:139] Memory required for data: 1364412
I0501 09:39:00.470363 15259 layer_factory.hpp:77] Creating layer conv0
I0501 09:39:00.470383 15259 net.cpp:86] Creating Layer conv0
I0501 09:39:00.470389 15259 net.cpp:408] conv0 <- data
I0501 09:39:00.470403 15259 net.cpp:382] conv0 -> conv0
I0501 09:39:00.762608 15259 net.cpp:124] Setting up conv0
I0501 09:39:00.762639 15259 net.cpp:131] Top shape: 111 16 34 34 (2053056)
I0501 09:39:00.762643 15259 net.cpp:139] Memory required for data: 9576636
I0501 09:39:00.762660 15259 layer_factory.hpp:77] Creating layer Sigmoid0
I0501 09:39:00.762673 15259 net.cpp:86] Creating Layer Sigmoid0
I0501 09:39:00.762678 15259 net.cpp:408] Sigmoid0 <- conv0
I0501 09:39:00.762686 15259 net.cpp:382] Sigmoid0 -> Sigmoid0
I0501 09:39:00.762892 15259 net.cpp:124] Setting up Sigmoid0
I0501 09:39:00.762903 15259 net.cpp:131] Top shape: 111 16 34 34 (2053056)
I0501 09:39:00.762907 15259 net.cpp:139] Memory required for data: 17788860
I0501 09:39:00.762912 15259 layer_factory.hpp:77] Creating layer pool0
I0501 09:39:00.762919 15259 net.cpp:86] Creating Layer pool0
I0501 09:39:00.762923 15259 net.cpp:408] pool0 <- Sigmoid0
I0501 09:39:00.762928 15259 net.cpp:382] pool0 -> pool0
I0501 09:39:00.763770 15259 net.cpp:124] Setting up pool0
I0501 09:39:00.763785 15259 net.cpp:131] Top shape: 111 16 17 17 (513264)
I0501 09:39:00.763789 15259 net.cpp:139] Memory required for data: 19841916
I0501 09:39:00.763793 15259 layer_factory.hpp:77] Creating layer ip1
I0501 09:39:00.763804 15259 net.cpp:86] Creating Layer ip1
I0501 09:39:00.763808 15259 net.cpp:408] ip1 <- pool0
I0501 09:39:00.763814 15259 net.cpp:382] ip1 -> ip1
I0501 09:39:00.770491 15259 net.cpp:124] Setting up ip1
I0501 09:39:00.770505 15259 net.cpp:131] Top shape: 111 40 (4440)
I0501 09:39:00.770509 15259 net.cpp:139] Memory required for data: 19859676
I0501 09:39:00.770519 15259 layer_factory.hpp:77] Creating layer relu1
I0501 09:39:00.770525 15259 net.cpp:86] Creating Layer relu1
I0501 09:39:00.770529 15259 net.cpp:408] relu1 <- ip1
I0501 09:39:00.770534 15259 net.cpp:369] relu1 -> ip1 (in-place)
I0501 09:39:00.770709 15259 net.cpp:124] Setting up relu1
I0501 09:39:00.770719 15259 net.cpp:131] Top shape: 111 40 (4440)
I0501 09:39:00.770722 15259 net.cpp:139] Memory required for data: 19877436
I0501 09:39:00.770726 15259 layer_factory.hpp:77] Creating layer ip2
I0501 09:39:00.770735 15259 net.cpp:86] Creating Layer ip2
I0501 09:39:00.770737 15259 net.cpp:408] ip2 <- ip1
I0501 09:39:00.770743 15259 net.cpp:382] ip2 -> ip2
I0501 09:39:00.770859 15259 net.cpp:124] Setting up ip2
I0501 09:39:00.770866 15259 net.cpp:131] Top shape: 111 10 (1110)
I0501 09:39:00.770870 15259 net.cpp:139] Memory required for data: 19881876
I0501 09:39:00.770879 15259 layer_factory.hpp:77] Creating layer relu2
I0501 09:39:00.770884 15259 net.cpp:86] Creating Layer relu2
I0501 09:39:00.770887 15259 net.cpp:408] relu2 <- ip2
I0501 09:39:00.770892 15259 net.cpp:369] relu2 -> ip2 (in-place)
I0501 09:39:00.771059 15259 net.cpp:124] Setting up relu2
I0501 09:39:00.771067 15259 net.cpp:131] Top shape: 111 10 (1110)
I0501 09:39:00.771071 15259 net.cpp:139] Memory required for data: 19886316
I0501 09:39:00.771075 15259 layer_factory.hpp:77] Creating layer ip3
I0501 09:39:00.771083 15259 net.cpp:86] Creating Layer ip3
I0501 09:39:00.771087 15259 net.cpp:408] ip3 <- ip2
I0501 09:39:00.771092 15259 net.cpp:382] ip3 -> ip3
I0501 09:39:00.771196 15259 net.cpp:124] Setting up ip3
I0501 09:39:00.771204 15259 net.cpp:131] Top shape: 111 10 (1110)
I0501 09:39:00.771208 15259 net.cpp:139] Memory required for data: 19890756
I0501 09:39:00.771214 15259 layer_factory.hpp:77] Creating layer relu3
I0501 09:39:00.771219 15259 net.cpp:86] Creating Layer relu3
I0501 09:39:00.771222 15259 net.cpp:408] relu3 <- ip3
I0501 09:39:00.771227 15259 net.cpp:369] relu3 -> ip3 (in-place)
I0501 09:39:00.771386 15259 net.cpp:124] Setting up relu3
I0501 09:39:00.771395 15259 net.cpp:131] Top shape: 111 10 (1110)
I0501 09:39:00.771399 15259 net.cpp:139] Memory required for data: 19895196
I0501 09:39:00.771402 15259 layer_factory.hpp:77] Creating layer ip4
I0501 09:39:00.771425 15259 net.cpp:86] Creating Layer ip4
I0501 09:39:00.771428 15259 net.cpp:408] ip4 <- ip3
I0501 09:39:00.771435 15259 net.cpp:382] ip4 -> ip4
I0501 09:39:00.771538 15259 net.cpp:124] Setting up ip4
I0501 09:39:00.771546 15259 net.cpp:131] Top shape: 111 10 (1110)
I0501 09:39:00.771549 15259 net.cpp:139] Memory required for data: 19899636
I0501 09:39:00.771559 15259 layer_factory.hpp:77] Creating layer loss
I0501 09:39:00.771564 15259 net.cpp:86] Creating Layer loss
I0501 09:39:00.771567 15259 net.cpp:408] loss <- ip4
I0501 09:39:00.771571 15259 net.cpp:408] loss <- label
I0501 09:39:00.771577 15259 net.cpp:382] loss -> loss
I0501 09:39:00.771596 15259 layer_factory.hpp:77] Creating layer loss
…
I0501 09:39:00.772934 15259 solver.cpp:173] Creating test net (#0) specified by net file: ECE595/cifar/train_test/var_everything/cifar_train_test_545.prototxt
I0501 09:39:00.772966 15259 net.cpp:296] The NetState phase (1) differed from the phase (0) specified by a rule in layer cifar
I0501 09:39:00.773077 15259 net.cpp:53] Initializing net from parameters: 
name: "CIFAR"
state {
  phase: TEST
}
layer {
  name: "cifar"
  type: "Data"
  top: "data"
  top: "label"
  include {
    phase: TEST
  }
  transform_param {
    mean_file: "examples/cifar10/mean.binaryproto"
  }
  data_param {
    source: "examples/cifar10/cifar10_test_lmdb"
    batch_size: 1000
    backend: LMDB
  }
}
layer {
  name: "conv0"
  type: "Convolution"
  bottom: "data"
  top: "conv0"
  param {
    lr_mult: 1
  }
  param {
    lr_mult: 2
  }
  convolution_param {
    num_output: 16
    pad: 2
    kernel_size: 3
    stride: 1
    weight_filler {
      type: "gaussian"
      std: 0.01
    }
    bias_filler {
      type: "constant"
    }
  }
}
layer {
  name: "Sigmoid0"
  type: "Sigmoid"
  bottom: "conv0"
  top: "Sigmoid0"
}
layer {
  name: "pool0"
  type: "Pooling"
  bottom: "Sigmoid0"
  top: "pool0"
  pooling_param {
    pool: AVE
    kernel_size: 3
    stride: 2
  }
}
layer {
  name: "ip1"
  type: "InnerProduct"
  bottom: "pool0"
  top: "ip1"
  param {
    lr_mult: 1
  }
  param {
    lr_mult: 2
  }
  inner_product_param {
    num_output: 40
    weight_filler {
      type: "gaussian"
      std: 0.01
    }
    bias_filler {
      type: "constant"
    }
  }
}
layer {
  name: "relu1"
  type: "ReLU"
  bottom: "ip1"
  top: "ip1"
}
layer {
  name: "ip2"
  type: "InnerProduct"
  bottom: "ip1"
  top: "ip2"
  param {
    lr_mult: 1
  }
  param {
    lr_mult: 2
  }
  inner_product_param {
    num_output: 10
    weight_filler {
      type: "gaussian"
      std: 0.01
    }
    bias_filler {
      type: "constant"
    }
  }
}
layer {
  name: "relu2"
  type: "ReLU"
  bottom: "ip2"
  top: "ip2"
}
layer {
  name: "ip3"
  type: "InnerProduct"
  bottom: "ip2"
  top: "ip3"
  param {
    lr_mult: 1
  }
  param {
    lr_mult: 2
  }
  inner_product_param {
    num_output: 10
    weight_filler {
      type: "gaussian"
      std: 0.01
    }
    bias_filler {
      type: "constant"
    }
  }
}
layer {
  name: "relu3"
  type: "ReLU"
  bottom: "ip3"
  top: "ip3"
}
layer {
  name: "ip4"
  type: "InnerProduct"
  bottom: "ip3"
  top: "ip4"
  param {
    lr_mult: 1
  }
  param {
    lr_mult: 2
  }
  inner_product_param {
    num_output: 10
    weight_filler {
      type: "gaussian"
      std: 0.01
    }
    bias_filler {
      type: "constant"
    }
  }
}
layer {
  name: "accuracy"
  type: "Accuracy"
  bottom: "ip4"
  bottom: "label"
  top: "accuracy"
  include {
    phase: TEST
  }
}
layer {
  name: "loss"
  type: "SoftmaxWithLoss"
  bottom: "ip4"
  bottom: "label"
  top: "loss"
}
I0501 09:39:00.773166 15259 layer_factory.hpp:77] Creating layer cifar
I0501 09:39:00.773217 15259 db_lmdb.cpp:35] Opened lmdb examples/cifar10/cifar10_test_lmdb
I0501 09:39:00.773231 15259 net.cpp:86] Creating Layer cifar
I0501 09:39:00.773237 15259 net.cpp:382] cifar -> data
I0501 09:39:00.773247 15259 net.cpp:382] cifar -> label
I0501 09:39:00.773253 15259 data_transformer.cpp:25] Loading mean file from: examples/cifar10/mean.binaryproto
I0501 09:39:00.773409 15259 data_layer.cpp:45] output data size: 1000,3,32,32
I0501 09:39:00.796819 15259 net.cpp:124] Setting up cifar
I0501 09:39:00.796846 15259 net.cpp:131] Top shape: 1000 3 32 32 (3072000)
I0501 09:39:00.796852 15259 net.cpp:131] Top shape: 1000 (1000)
I0501 09:39:00.796856 15259 net.cpp:139] Memory required for data: 12292000
I0501 09:39:00.796862 15259 layer_factory.hpp:77] Creating layer label_cifar_1_split
I0501 09:39:00.796875 15259 net.cpp:86] Creating Layer label_cifar_1_split
I0501 09:39:00.796878 15259 net.cpp:408] label_cifar_1_split <- label
I0501 09:39:00.796885 15259 net.cpp:382] label_cifar_1_split -> label_cifar_1_split_0
I0501 09:39:00.796897 15259 net.cpp:382] label_cifar_1_split -> label_cifar_1_split_1
I0501 09:39:00.797055 15259 net.cpp:124] Setting up label_cifar_1_split
I0501 09:39:00.797065 15259 net.cpp:131] Top shape: 1000 (1000)
I0501 09:39:00.797085 15259 net.cpp:131] Top shape: 1000 (1000)
I0501 09:39:00.797087 15259 net.cpp:139] Memory required for data: 12300000
I0501 09:39:00.797091 15259 layer_factory.hpp:77] Creating layer conv0
I0501 09:39:00.797103 15259 net.cpp:86] Creating Layer conv0
I0501 09:39:00.797108 15259 net.cpp:408] conv0 <- data
I0501 09:39:00.797114 15259 net.cpp:382] conv0 -> conv0
I0501 09:39:00.798779 15259 net.cpp:124] Setting up conv0
I0501 09:39:00.798794 15259 net.cpp:131] Top shape: 1000 16 34 34 (18496000)
I0501 09:39:00.798797 15259 net.cpp:139] Memory required for data: 86284000
I0501 09:39:00.798807 15259 layer_factory.hpp:77] Creating layer Sigmoid0
I0501 09:39:00.798815 15259 net.cpp:86] Creating Layer Sigmoid0
I0501 09:39:00.798818 15259 net.cpp:408] Sigmoid0 <- conv0
I0501 09:39:00.798825 15259 net.cpp:382] Sigmoid0 -> Sigmoid0
I0501 09:39:00.799006 15259 net.cpp:124] Setting up Sigmoid0
I0501 09:39:00.799015 15259 net.cpp:131] Top shape: 1000 16 34 34 (18496000)
I0501 09:39:00.799019 15259 net.cpp:139] Memory required for data: 160268000
I0501 09:39:00.799023 15259 layer_factory.hpp:77] Creating layer pool0
I0501 09:39:00.799031 15259 net.cpp:86] Creating Layer pool0
I0501 09:39:00.799034 15259 net.cpp:408] pool0 <- Sigmoid0
I0501 09:39:00.799039 15259 net.cpp:382] pool0 -> pool0
I0501 09:39:00.799273 15259 net.cpp:124] Setting up pool0
I0501 09:39:00.799283 15259 net.cpp:131] Top shape: 1000 16 17 17 (4624000)
I0501 09:39:00.799288 15259 net.cpp:139] Memory required for data: 178764000
I0501 09:39:00.799291 15259 layer_factory.hpp:77] Creating layer ip1
I0501 09:39:00.799299 15259 net.cpp:86] Creating Layer ip1
I0501 09:39:00.799306 15259 net.cpp:408] ip1 <- pool0
I0501 09:39:00.799311 15259 net.cpp:382] ip1 -> ip1
I0501 09:39:00.805521 15259 net.cpp:124] Setting up ip1
I0501 09:39:00.805531 15259 net.cpp:131] Top shape: 1000 40 (40000)
I0501 09:39:00.805536 15259 net.cpp:139] Memory required for data: 178924000
I0501 09:39:00.805558 15259 layer_factory.hpp:77] Creating layer relu1
I0501 09:39:00.805567 15259 net.cpp:86] Creating Layer relu1
I0501 09:39:00.805572 15259 net.cpp:408] relu1 <- ip1
I0501 09:39:00.805575 15259 net.cpp:369] relu1 -> ip1 (in-place)
I0501 09:39:00.805759 15259 net.cpp:124] Setting up relu1
I0501 09:39:00.805768 15259 net.cpp:131] Top shape: 1000 40 (40000)
I0501 09:39:00.805773 15259 net.cpp:139] Memory required for data: 179084000
I0501 09:39:00.805776 15259 layer_factory.hpp:77] Creating layer ip2
I0501 09:39:00.805784 15259 net.cpp:86] Creating Layer ip2
I0501 09:39:00.805788 15259 net.cpp:408] ip2 <- ip1
I0501 09:39:00.805793 15259 net.cpp:382] ip2 -> ip2
I0501 09:39:00.805917 15259 net.cpp:124] Setting up ip2
I0501 09:39:00.805925 15259 net.cpp:131] Top shape: 1000 10 (10000)
I0501 09:39:00.805928 15259 net.cpp:139] Memory required for data: 179124000
I0501 09:39:00.805936 15259 layer_factory.hpp:77] Creating layer relu2
I0501 09:39:00.805944 15259 net.cpp:86] Creating Layer relu2
I0501 09:39:00.805948 15259 net.cpp:408] relu2 <- ip2
I0501 09:39:00.805953 15259 net.cpp:369] relu2 -> ip2 (in-place)
I0501 09:39:00.806725 15259 net.cpp:124] Setting up relu2
I0501 09:39:00.806740 15259 net.cpp:131] Top shape: 1000 10 (10000)
I0501 09:39:00.806743 15259 net.cpp:139] Memory required for data: 179164000
I0501 09:39:00.806747 15259 layer_factory.hpp:77] Creating layer ip3
I0501 09:39:00.806754 15259 net.cpp:86] Creating Layer ip3
I0501 09:39:00.806757 15259 net.cpp:408] ip3 <- ip2
I0501 09:39:00.806764 15259 net.cpp:382] ip3 -> ip3
I0501 09:39:00.806880 15259 net.cpp:124] Setting up ip3
I0501 09:39:00.806888 15259 net.cpp:131] Top shape: 1000 10 (10000)
I0501 09:39:00.806892 15259 net.cpp:139] Memory required for data: 179204000
I0501 09:39:00.806898 15259 layer_factory.hpp:77] Creating layer relu3
I0501 09:39:00.806905 15259 net.cpp:86] Creating Layer relu3
I0501 09:39:00.806908 15259 net.cpp:408] relu3 <- ip3
I0501 09:39:00.806912 15259 net.cpp:369] relu3 -> ip3 (in-place)
I0501 09:39:00.807091 15259 net.cpp:124] Setting up relu3
I0501 09:39:00.807101 15259 net.cpp:131] Top shape: 1000 10 (10000)
I0501 09:39:00.807104 15259 net.cpp:139] Memory required for data: 179244000
I0501 09:39:00.807107 15259 layer_factory.hpp:77] Creating layer ip4
I0501 09:39:00.807116 15259 net.cpp:86] Creating Layer ip4
I0501 09:39:00.807119 15259 net.cpp:408] ip4 <- ip3
I0501 09:39:00.807132 15259 net.cpp:382] ip4 -> ip4
I0501 09:39:00.807243 15259 net.cpp:124] Setting up ip4
I0501 09:39:00.807251 15259 net.cpp:131] Top shape: 1000 10 (10000)
I0501 09:39:00.807255 15259 net.cpp:139] Memory required for data: 179284000
I0501 09:39:00.807262 15259 layer_factory.hpp:77] Creating layer ip4_ip4_0_split
I0501 09:39:00.807268 15259 net.cpp:86] Creating Layer ip4_ip4_0_split
I0501 09:39:00.807271 15259 net.cpp:408] ip4_ip4_0_split <- ip4
I0501 09:39:00.807277 15259 net.cpp:382] ip4_ip4_0_split -> ip4_ip4_0_split_0
I0501 09:39:00.807283 15259 net.cpp:382] ip4_ip4_0_split -> ip4_ip4_0_split_1
I0501 09:39:00.807317 15259 net.cpp:124] Setting up ip4_ip4_0_split
I0501 09:39:00.807324 15259 net.cpp:131] Top shape: 1000 10 (10000)
I0501 09:39:00.807328 15259 net.cpp:131] Top shape: 1000 10 (10000)
I0501 09:39:00.807332 15259 net.cpp:139] Memory required for data: 179364000
I0501 09:39:00.807334 15259 layer_factory.hpp:77] Creating layer accuracy
I0501 09:39:00.807341 15259 net.cpp:86] Creating Layer accuracy
I0501 09:39:00.807345 15259 net.cpp:408] accuracy <- ip4_ip4_0_split_0
I0501 09:39:00.807349 15259 net.cpp:408] accuracy <- label_cifar_1_split_0
I0501 09:39:00.807353 15259 net.cpp:382] accuracy -> accuracy
…
