…
I0430 16:57:17.579077 18537 net.cpp:296] The NetState phase (0) differed from the phase (1) specified by a rule in layer cifar
I0430 16:57:17.579092 18537 net.cpp:296] The NetState phase (0) differed from the phase (1) specified by a rule in layer accuracy
I0430 16:57:17.579165 18537 net.cpp:53] Initializing net from parameters: 
name: "CIFAR"
state {
  phase: TRAIN
  level: 0
  stage: ""
}
layer {
  name: "cifar"
  type: "Data"
  top: "data"
  top: "label"
  include {
    phase: TRAIN
  }
  transform_param {
    mean_file: "examples/cifar10/mean.binaryproto"
  }
  data_param {
    source: "examples/cifar10/cifar10_train_lmdb"
    batch_size: 111
    backend: LMDB
  }
}
layer {
  name: "ip1"
  type: "InnerProduct"
  bottom: "data"
  top: "ip1"
  param {
    lr_mult: 1
  }
  param {
    lr_mult: 2
  }
  inner_product_param {
    num_output: 40
    weight_filler {
      type: "gaussian"
      std: 0.01
    }
    bias_filler {
      type: "constant"
    }
  }
}
layer {
  name: "relu1"
  type: "ReLU"
  bottom: "ip1"
  top: "ip1"
}
layer {
  name: "ip2"
  type: "InnerProduct"
  bottom: "ip1"
  top: "ip2"
  param {
    lr_mult: 1
  }
  param {
    lr_mult: 2
  }
  inner_product_param {
    num_output: 160
    weight_filler {
      type: "gaussian"
      std: 0.01
    }
    bias_filler {
      type: "constant"
    }
  }
}
layer {
  name: "relu2"
  type: "ReLU"
  bottom: "ip2"
  top: "ip2"
}
layer {
  name: "ip3"
  type: "InnerProduct"
  bottom: "ip2"
  top: "ip3"
  param {
    lr_mult: 1
  }
  param {
    lr_mult: 2
  }
  inner_product_param {
    num_output: 10
    weight_filler {
      type: "gaussian"
      std: 0.01
    }
    bias_filler {
      type: "constant"
    }
  }
}
layer {
  name: "loss"
  type: "SoftmaxWithLoss"
  bottom: "ip3"
  bottom: "label"
  top: "loss"
}
I0430 16:57:17.579231 18537 layer_factory.hpp:77] Creating layer cifar
I0430 16:57:17.579331 18537 db_lmdb.cpp:35] Opened lmdb examples/cifar10/cifar10_train_lmdb
I0430 16:57:17.579358 18537 net.cpp:86] Creating Layer cifar
I0430 16:57:17.579367 18537 net.cpp:382] cifar -> data
I0430 16:57:17.579391 18537 net.cpp:382] cifar -> label
I0430 16:57:17.579406 18537 data_transformer.cpp:25] Loading mean file from: examples/cifar10/mean.binaryproto
I0430 16:57:17.581537 18537 data_layer.cpp:45] output data size: 111,3,32,32
I0430 16:57:17.589421 18537 net.cpp:124] Setting up cifar
I0430 16:57:17.589440 18537 net.cpp:131] Top shape: 111 3 32 32 (340992)
I0430 16:57:17.589447 18537 net.cpp:131] Top shape: 111 (111)
I0430 16:57:17.589449 18537 net.cpp:139] Memory required for data: 1364412
I0430 16:57:17.589457 18537 layer_factory.hpp:77] Creating layer ip1
I0430 16:57:17.589468 18537 net.cpp:86] Creating Layer ip1
I0430 16:57:17.589473 18537 net.cpp:408] ip1 <- data
I0430 16:57:17.589486 18537 net.cpp:382] ip1 -> ip1
I0430 16:57:17.593730 18537 net.cpp:124] Setting up ip1
I0430 16:57:17.593742 18537 net.cpp:131] Top shape: 111 40 (4440)
I0430 16:57:17.593746 18537 net.cpp:139] Memory required for data: 1382172
I0430 16:57:17.593760 18537 layer_factory.hpp:77] Creating layer relu1
I0430 16:57:17.593768 18537 net.cpp:86] Creating Layer relu1
I0430 16:57:17.593773 18537 net.cpp:408] relu1 <- ip1
I0430 16:57:17.593780 18537 net.cpp:369] relu1 -> ip1 (in-place)
I0430 16:57:17.855409 18537 net.cpp:124] Setting up relu1
I0430 16:57:17.855451 18537 net.cpp:131] Top shape: 111 40 (4440)
I0430 16:57:17.855455 18537 net.cpp:139] Memory required for data: 1399932
I0430 16:57:17.855479 18537 layer_factory.hpp:77] Creating layer ip2
I0430 16:57:17.855492 18537 net.cpp:86] Creating Layer ip2
I0430 16:57:17.855495 18537 net.cpp:408] ip2 <- ip1
I0430 16:57:17.855504 18537 net.cpp:382] ip2 -> ip2
I0430 16:57:17.856662 18537 net.cpp:124] Setting up ip2
I0430 16:57:17.856673 18537 net.cpp:131] Top shape: 111 160 (17760)
I0430 16:57:17.856676 18537 net.cpp:139] Memory required for data: 1470972
I0430 16:57:17.856685 18537 layer_factory.hpp:77] Creating layer relu2
I0430 16:57:17.856693 18537 net.cpp:86] Creating Layer relu2
I0430 16:57:17.856696 18537 net.cpp:408] relu2 <- ip2
I0430 16:57:17.856700 18537 net.cpp:369] relu2 -> ip2 (in-place)
I0430 16:57:17.857553 18537 net.cpp:124] Setting up relu2
I0430 16:57:17.857563 18537 net.cpp:131] Top shape: 111 160 (17760)
I0430 16:57:17.857581 18537 net.cpp:139] Memory required for data: 1542012
I0430 16:57:17.857585 18537 layer_factory.hpp:77] Creating layer ip3
I0430 16:57:17.857592 18537 net.cpp:86] Creating Layer ip3
I0430 16:57:17.857594 18537 net.cpp:408] ip3 <- ip2
I0430 16:57:17.857600 18537 net.cpp:382] ip3 -> ip3
I0430 16:57:17.857746 18537 net.cpp:124] Setting up ip3
I0430 16:57:17.857769 18537 net.cpp:131] Top shape: 111 10 (1110)
I0430 16:57:17.857771 18537 net.cpp:139] Memory required for data: 1546452
I0430 16:57:17.857779 18537 layer_factory.hpp:77] Creating layer loss
I0430 16:57:17.857784 18537 net.cpp:86] Creating Layer loss
I0430 16:57:17.857786 18537 net.cpp:408] loss <- ip3
I0430 16:57:17.857790 18537 net.cpp:408] loss <- label
I0430 16:57:17.857795 18537 net.cpp:382] loss -> loss
I0430 16:57:17.857812 18537 layer_factory.hpp:77] Creating layer loss
…
I0430 16:57:17.858355 18537 solver.cpp:173] Creating test net (#0) specified by net file: ECE595/cifar/train_test/var_everything/cifar_train_test_19.prototxt
I0430 16:57:17.858376 18537 net.cpp:296] The NetState phase (1) differed from the phase (0) specified by a rule in layer cifar
I0430 16:57:17.858445 18537 net.cpp:53] Initializing net from parameters: 
name: "CIFAR"
state {
  phase: TEST
}
layer {
  name: "cifar"
  type: "Data"
  top: "data"
  top: "label"
  include {
    phase: TEST
  }
  transform_param {
    mean_file: "examples/cifar10/mean.binaryproto"
  }
  data_param {
    source: "examples/cifar10/cifar10_test_lmdb"
    batch_size: 1000
    backend: LMDB
  }
}
layer {
  name: "ip1"
  type: "InnerProduct"
  bottom: "data"
  top: "ip1"
  param {
    lr_mult: 1
  }
  param {
    lr_mult: 2
  }
  inner_product_param {
    num_output: 40
    weight_filler {
      type: "gaussian"
      std: 0.01
    }
    bias_filler {
      type: "constant"
    }
  }
}
layer {
  name: "relu1"
  type: "ReLU"
  bottom: "ip1"
  top: "ip1"
}
layer {
  name: "ip2"
  type: "InnerProduct"
  bottom: "ip1"
  top: "ip2"
  param {
    lr_mult: 1
  }
  param {
    lr_mult: 2
  }
  inner_product_param {
    num_output: 160
    weight_filler {
      type: "gaussian"
      std: 0.01
    }
    bias_filler {
      type: "constant"
    }
  }
}
layer {
  name: "relu2"
  type: "ReLU"
  bottom: "ip2"
  top: "ip2"
}
layer {
  name: "ip3"
  type: "InnerProduct"
  bottom: "ip2"
  top: "ip3"
  param {
    lr_mult: 1
  }
  param {
    lr_mult: 2
  }
  inner_product_param {
    num_output: 10
    weight_filler {
      type: "gaussian"
      std: 0.01
    }
    bias_filler {
      type: "constant"
    }
  }
}
layer {
  name: "accuracy"
  type: "Accuracy"
  bottom: "ip3"
  bottom: "label"
  top: "accuracy"
  include {
    phase: TEST
  }
}
layer {
  name: "loss"
  type: "SoftmaxWithLoss"
  bottom: "ip3"
  bottom: "label"
  top: "loss"
}
I0430 16:57:17.858510 18537 layer_factory.hpp:77] Creating layer cifar
I0430 16:57:17.858570 18537 db_lmdb.cpp:35] Opened lmdb examples/cifar10/cifar10_test_lmdb
I0430 16:57:17.858582 18537 net.cpp:86] Creating Layer cifar
I0430 16:57:17.858600 18537 net.cpp:382] cifar -> data
I0430 16:57:17.858614 18537 net.cpp:382] cifar -> label
I0430 16:57:17.858621 18537 data_transformer.cpp:25] Loading mean file from: examples/cifar10/mean.binaryproto
I0430 16:57:17.858755 18537 data_layer.cpp:45] output data size: 1000,3,32,32
I0430 16:57:17.881500 18537 net.cpp:124] Setting up cifar
I0430 16:57:17.881542 18537 net.cpp:131] Top shape: 1000 3 32 32 (3072000)
I0430 16:57:17.881547 18537 net.cpp:131] Top shape: 1000 (1000)
I0430 16:57:17.881551 18537 net.cpp:139] Memory required for data: 12292000
I0430 16:57:17.881556 18537 layer_factory.hpp:77] Creating layer label_cifar_1_split
I0430 16:57:17.881573 18537 net.cpp:86] Creating Layer label_cifar_1_split
I0430 16:57:17.881577 18537 net.cpp:408] label_cifar_1_split <- label
I0430 16:57:17.881583 18537 net.cpp:382] label_cifar_1_split -> label_cifar_1_split_0
I0430 16:57:17.881592 18537 net.cpp:382] label_cifar_1_split -> label_cifar_1_split_1
I0430 16:57:17.881685 18537 net.cpp:124] Setting up label_cifar_1_split
I0430 16:57:17.881693 18537 net.cpp:131] Top shape: 1000 (1000)
I0430 16:57:17.881696 18537 net.cpp:131] Top shape: 1000 (1000)
I0430 16:57:17.881700 18537 net.cpp:139] Memory required for data: 12300000
I0430 16:57:17.881702 18537 layer_factory.hpp:77] Creating layer ip1
I0430 16:57:17.881711 18537 net.cpp:86] Creating Layer ip1
I0430 16:57:17.881713 18537 net.cpp:408] ip1 <- data
I0430 16:57:17.881718 18537 net.cpp:382] ip1 -> ip1
I0430 16:57:17.885309 18537 net.cpp:124] Setting up ip1
I0430 16:57:17.885318 18537 net.cpp:131] Top shape: 1000 40 (40000)
I0430 16:57:17.885323 18537 net.cpp:139] Memory required for data: 12460000
I0430 16:57:17.885331 18537 layer_factory.hpp:77] Creating layer relu1
I0430 16:57:17.885339 18537 net.cpp:86] Creating Layer relu1
I0430 16:57:17.885341 18537 net.cpp:408] relu1 <- ip1
I0430 16:57:17.885345 18537 net.cpp:369] relu1 -> ip1 (in-place)
I0430 16:57:17.885543 18537 net.cpp:124] Setting up relu1
I0430 16:57:17.885552 18537 net.cpp:131] Top shape: 1000 40 (40000)
I0430 16:57:17.885555 18537 net.cpp:139] Memory required for data: 12620000
I0430 16:57:17.885558 18537 layer_factory.hpp:77] Creating layer ip2
I0430 16:57:17.885565 18537 net.cpp:86] Creating Layer ip2
I0430 16:57:17.885568 18537 net.cpp:408] ip2 <- ip1
I0430 16:57:17.885573 18537 net.cpp:382] ip2 -> ip2
I0430 16:57:17.885836 18537 net.cpp:124] Setting up ip2
I0430 16:57:17.885844 18537 net.cpp:131] Top shape: 1000 160 (160000)
I0430 16:57:17.885848 18537 net.cpp:139] Memory required for data: 13260000
I0430 16:57:17.885855 18537 layer_factory.hpp:77] Creating layer relu2
I0430 16:57:17.885859 18537 net.cpp:86] Creating Layer relu2
I0430 16:57:17.885862 18537 net.cpp:408] relu2 <- ip2
I0430 16:57:17.885866 18537 net.cpp:369] relu2 -> ip2 (in-place)
I0430 16:57:17.886616 18537 net.cpp:124] Setting up relu2
I0430 16:57:17.886628 18537 net.cpp:131] Top shape: 1000 160 (160000)
I0430 16:57:17.886631 18537 net.cpp:139] Memory required for data: 13900000
I0430 16:57:17.886634 18537 layer_factory.hpp:77] Creating layer ip3
I0430 16:57:17.886641 18537 net.cpp:86] Creating Layer ip3
I0430 16:57:17.886658 18537 net.cpp:408] ip3 <- ip2
I0430 16:57:17.886665 18537 net.cpp:382] ip3 -> ip3
I0430 16:57:17.886800 18537 net.cpp:124] Setting up ip3
I0430 16:57:17.886807 18537 net.cpp:131] Top shape: 1000 10 (10000)
I0430 16:57:17.886811 18537 net.cpp:139] Memory required for data: 13940000
I0430 16:57:17.886831 18537 layer_factory.hpp:77] Creating layer ip3_ip3_0_split
I0430 16:57:17.886837 18537 net.cpp:86] Creating Layer ip3_ip3_0_split
I0430 16:57:17.886840 18537 net.cpp:408] ip3_ip3_0_split <- ip3
I0430 16:57:17.886844 18537 net.cpp:382] ip3_ip3_0_split -> ip3_ip3_0_split_0
I0430 16:57:17.886850 18537 net.cpp:382] ip3_ip3_0_split -> ip3_ip3_0_split_1
I0430 16:57:17.886880 18537 net.cpp:124] Setting up ip3_ip3_0_split
I0430 16:57:17.886885 18537 net.cpp:131] Top shape: 1000 10 (10000)
I0430 16:57:17.886889 18537 net.cpp:131] Top shape: 1000 10 (10000)
I0430 16:57:17.886891 18537 net.cpp:139] Memory required for data: 14020000
I0430 16:57:17.886895 18537 layer_factory.hpp:77] Creating layer accuracy
I0430 16:57:17.886905 18537 net.cpp:86] Creating Layer accuracy
I0430 16:57:17.886909 18537 net.cpp:408] accuracy <- ip3_ip3_0_split_0
I0430 16:57:17.886912 18537 net.cpp:408] accuracy <- label_cifar_1_split_0
I0430 16:57:17.886916 18537 net.cpp:382] accuracy -> accuracy
…
