…
I0501 00:18:16.766470  6779 net.cpp:296] The NetState phase (0) differed from the phase (1) specified by a rule in layer cifar
I0501 00:18:16.766490  6779 net.cpp:296] The NetState phase (0) differed from the phase (1) specified by a rule in layer accuracy
I0501 00:18:16.766595  6779 net.cpp:53] Initializing net from parameters: 
name: "CIFAR"
state {
  phase: TRAIN
  level: 0
  stage: ""
}
layer {
  name: "cifar"
  type: "Data"
  top: "data"
  top: "label"
  include {
    phase: TRAIN
  }
  transform_param {
    mean_file: "examples/cifar10/mean.binaryproto"
  }
  data_param {
    source: "examples/cifar10/cifar10_train_lmdb"
    batch_size: 111
    backend: LMDB
  }
}
layer {
  name: "conv0"
  type: "Convolution"
  bottom: "data"
  top: "conv0"
  param {
    lr_mult: 1
  }
  param {
    lr_mult: 2
  }
  convolution_param {
    num_output: 8
    pad: 2
    kernel_size: 3
    stride: 1
    weight_filler {
      type: "gaussian"
      std: 0.01
    }
    bias_filler {
      type: "constant"
    }
  }
}
layer {
  name: "Sigmoid0"
  type: "Sigmoid"
  bottom: "conv0"
  top: "Sigmoid0"
}
layer {
  name: "pool0"
  type: "Pooling"
  bottom: "Sigmoid0"
  top: "pool0"
  pooling_param {
    pool: AVE
    kernel_size: 3
    stride: 2
  }
}
layer {
  name: "ip1"
  type: "InnerProduct"
  bottom: "pool0"
  top: "ip1"
  param {
    lr_mult: 1
  }
  param {
    lr_mult: 2
  }
  inner_product_param {
    num_output: 40
    weight_filler {
      type: "gaussian"
      std: 0.01
    }
    bias_filler {
      type: "constant"
    }
  }
}
layer {
  name: "relu1"
  type: "ReLU"
  bottom: "ip1"
  top: "ip1"
}
layer {
  name: "ip2"
  type: "InnerProduct"
  bottom: "ip1"
  top: "ip2"
  param {
    lr_mult: 1
  }
  param {
    lr_mult: 2
  }
  inner_product_param {
    num_output: 80
    weight_filler {
      type: "gaussian"
      std: 0.01
    }
    bias_filler {
      type: "constant"
    }
  }
}
layer {
  name: "relu2"
  type: "ReLU"
  bottom: "ip2"
  top: "ip2"
}
layer {
  name: "ip3"
  type: "InnerProduct"
  bottom: "ip2"
  top: "ip3"
  param {
    lr_mult: 1
  }
  param {
    lr_mult: 2
  }
  inner_product_param {
    num_output: 80
    weight_filler {
      type: "gaussian"
      std: 0.01
    }
    bias_filler {
      type: "constant"
    }
  }
}
layer {
  name: "relu3"
  type: "ReLU"
  bottom: "ip3"
  top: "ip3"
}
layer {
  name: "ip4"
  type: "InnerProduct"
  bottom: "ip3"
  top: "ip4"
  param {
    lr_mult: 1
  }
  param {
    lr_mult: 2
  }
  inner_product_param {
    num_output: 10
    weight_filler {
      type: "gaussian"
      std: 0.01
    }
    bias_filler {
      type: "constant"
    }
  }
}
layer {
  name: "loss"
  type: "SoftmaxWithLoss"
  bottom: "ip4"
  bottom: "label"
  top: "loss"
}
I0501 00:18:16.766677  6779 layer_factory.hpp:77] Creating layer cifar
I0501 00:18:16.766777  6779 db_lmdb.cpp:35] Opened lmdb examples/cifar10/cifar10_train_lmdb
I0501 00:18:16.766805  6779 net.cpp:86] Creating Layer cifar
I0501 00:18:16.766814  6779 net.cpp:382] cifar -> data
I0501 00:18:16.766839  6779 net.cpp:382] cifar -> label
I0501 00:18:16.766849  6779 data_transformer.cpp:25] Loading mean file from: examples/cifar10/mean.binaryproto
I0501 00:18:16.768965  6779 data_layer.cpp:45] output data size: 111,3,32,32
I0501 00:18:16.776839  6779 net.cpp:124] Setting up cifar
I0501 00:18:16.776857  6779 net.cpp:131] Top shape: 111 3 32 32 (340992)
I0501 00:18:16.776865  6779 net.cpp:131] Top shape: 111 (111)
I0501 00:18:16.776867  6779 net.cpp:139] Memory required for data: 1364412
I0501 00:18:16.776893  6779 layer_factory.hpp:77] Creating layer conv0
I0501 00:18:16.776914  6779 net.cpp:86] Creating Layer conv0
I0501 00:18:16.776921  6779 net.cpp:408] conv0 <- data
I0501 00:18:16.776933  6779 net.cpp:382] conv0 -> conv0
I0501 00:18:17.057405  6779 net.cpp:124] Setting up conv0
I0501 00:18:17.057432  6779 net.cpp:131] Top shape: 111 8 34 34 (1026528)
I0501 00:18:17.057436  6779 net.cpp:139] Memory required for data: 5470524
I0501 00:18:17.057451  6779 layer_factory.hpp:77] Creating layer Sigmoid0
I0501 00:18:17.057462  6779 net.cpp:86] Creating Layer Sigmoid0
I0501 00:18:17.057466  6779 net.cpp:408] Sigmoid0 <- conv0
I0501 00:18:17.057471  6779 net.cpp:382] Sigmoid0 -> Sigmoid0
I0501 00:18:17.057638  6779 net.cpp:124] Setting up Sigmoid0
I0501 00:18:17.057647  6779 net.cpp:131] Top shape: 111 8 34 34 (1026528)
I0501 00:18:17.057651  6779 net.cpp:139] Memory required for data: 9576636
I0501 00:18:17.057654  6779 layer_factory.hpp:77] Creating layer pool0
I0501 00:18:17.057662  6779 net.cpp:86] Creating Layer pool0
I0501 00:18:17.057664  6779 net.cpp:408] pool0 <- Sigmoid0
I0501 00:18:17.057668  6779 net.cpp:382] pool0 -> pool0
I0501 00:18:17.058377  6779 net.cpp:124] Setting up pool0
I0501 00:18:17.058388  6779 net.cpp:131] Top shape: 111 8 17 17 (256632)
I0501 00:18:17.058393  6779 net.cpp:139] Memory required for data: 10603164
I0501 00:18:17.058395  6779 layer_factory.hpp:77] Creating layer ip1
I0501 00:18:17.058404  6779 net.cpp:86] Creating Layer ip1
I0501 00:18:17.058408  6779 net.cpp:408] ip1 <- pool0
I0501 00:18:17.058413  6779 net.cpp:382] ip1 -> ip1
I0501 00:18:17.060917  6779 net.cpp:124] Setting up ip1
I0501 00:18:17.060925  6779 net.cpp:131] Top shape: 111 40 (4440)
I0501 00:18:17.060928  6779 net.cpp:139] Memory required for data: 10620924
I0501 00:18:17.060936  6779 layer_factory.hpp:77] Creating layer relu1
I0501 00:18:17.060941  6779 net.cpp:86] Creating Layer relu1
I0501 00:18:17.060945  6779 net.cpp:408] relu1 <- ip1
I0501 00:18:17.060948  6779 net.cpp:369] relu1 -> ip1 (in-place)
I0501 00:18:17.061141  6779 net.cpp:124] Setting up relu1
I0501 00:18:17.061164  6779 net.cpp:131] Top shape: 111 40 (4440)
I0501 00:18:17.061167  6779 net.cpp:139] Memory required for data: 10638684
I0501 00:18:17.061170  6779 layer_factory.hpp:77] Creating layer ip2
I0501 00:18:17.061177  6779 net.cpp:86] Creating Layer ip2
I0501 00:18:17.061179  6779 net.cpp:408] ip2 <- ip1
I0501 00:18:17.061183  6779 net.cpp:382] ip2 -> ip2
I0501 00:18:17.061358  6779 net.cpp:124] Setting up ip2
I0501 00:18:17.061365  6779 net.cpp:131] Top shape: 111 80 (8880)
I0501 00:18:17.061368  6779 net.cpp:139] Memory required for data: 10674204
I0501 00:18:17.061375  6779 layer_factory.hpp:77] Creating layer relu2
I0501 00:18:17.061380  6779 net.cpp:86] Creating Layer relu2
I0501 00:18:17.061383  6779 net.cpp:408] relu2 <- ip2
I0501 00:18:17.061388  6779 net.cpp:369] relu2 -> ip2 (in-place)
I0501 00:18:17.061537  6779 net.cpp:124] Setting up relu2
I0501 00:18:17.061544  6779 net.cpp:131] Top shape: 111 80 (8880)
I0501 00:18:17.061547  6779 net.cpp:139] Memory required for data: 10709724
I0501 00:18:17.061550  6779 layer_factory.hpp:77] Creating layer ip3
I0501 00:18:17.061558  6779 net.cpp:86] Creating Layer ip3
I0501 00:18:17.061560  6779 net.cpp:408] ip3 <- ip2
I0501 00:18:17.061564  6779 net.cpp:382] ip3 -> ip3
I0501 00:18:17.062608  6779 net.cpp:124] Setting up ip3
I0501 00:18:17.062619  6779 net.cpp:131] Top shape: 111 80 (8880)
I0501 00:18:17.062623  6779 net.cpp:139] Memory required for data: 10745244
I0501 00:18:17.062628  6779 layer_factory.hpp:77] Creating layer relu3
I0501 00:18:17.062633  6779 net.cpp:86] Creating Layer relu3
I0501 00:18:17.062636  6779 net.cpp:408] relu3 <- ip3
I0501 00:18:17.062640  6779 net.cpp:369] relu3 -> ip3 (in-place)
I0501 00:18:17.062783  6779 net.cpp:124] Setting up relu3
I0501 00:18:17.062790  6779 net.cpp:131] Top shape: 111 80 (8880)
I0501 00:18:17.062793  6779 net.cpp:139] Memory required for data: 10780764
I0501 00:18:17.062796  6779 layer_factory.hpp:77] Creating layer ip4
I0501 00:18:17.062824  6779 net.cpp:86] Creating Layer ip4
I0501 00:18:17.062829  6779 net.cpp:408] ip4 <- ip3
I0501 00:18:17.062834  6779 net.cpp:382] ip4 -> ip4
I0501 00:18:17.063732  6779 net.cpp:124] Setting up ip4
I0501 00:18:17.063745  6779 net.cpp:131] Top shape: 111 10 (1110)
I0501 00:18:17.063747  6779 net.cpp:139] Memory required for data: 10785204
I0501 00:18:17.063756  6779 layer_factory.hpp:77] Creating layer loss
I0501 00:18:17.063766  6779 net.cpp:86] Creating Layer loss
I0501 00:18:17.063769  6779 net.cpp:408] loss <- ip4
I0501 00:18:17.063773  6779 net.cpp:408] loss <- label
I0501 00:18:17.063779  6779 net.cpp:382] loss -> loss
I0501 00:18:17.063791  6779 layer_factory.hpp:77] Creating layer loss
…
I0501 00:18:17.065017  6779 solver.cpp:173] Creating test net (#0) specified by net file: ECE595/cifar/train_test/var_everything/cifar_train_test_253.prototxt
I0501 00:18:17.065060  6779 net.cpp:296] The NetState phase (1) differed from the phase (0) specified by a rule in layer cifar
I0501 00:18:17.065192  6779 net.cpp:53] Initializing net from parameters: 
name: "CIFAR"
state {
  phase: TEST
}
layer {
  name: "cifar"
  type: "Data"
  top: "data"
  top: "label"
  include {
    phase: TEST
  }
  transform_param {
    mean_file: "examples/cifar10/mean.binaryproto"
  }
  data_param {
    source: "examples/cifar10/cifar10_test_lmdb"
    batch_size: 1000
    backend: LMDB
  }
}
layer {
  name: "conv0"
  type: "Convolution"
  bottom: "data"
  top: "conv0"
  param {
    lr_mult: 1
  }
  param {
    lr_mult: 2
  }
  convolution_param {
    num_output: 8
    pad: 2
    kernel_size: 3
    stride: 1
    weight_filler {
      type: "gaussian"
      std: 0.01
    }
    bias_filler {
      type: "constant"
    }
  }
}
layer {
  name: "Sigmoid0"
  type: "Sigmoid"
  bottom: "conv0"
  top: "Sigmoid0"
}
layer {
  name: "pool0"
  type: "Pooling"
  bottom: "Sigmoid0"
  top: "pool0"
  pooling_param {
    pool: AVE
    kernel_size: 3
    stride: 2
  }
}
layer {
  name: "ip1"
  type: "InnerProduct"
  bottom: "pool0"
  top: "ip1"
  param {
    lr_mult: 1
  }
  param {
    lr_mult: 2
  }
  inner_product_param {
    num_output: 40
    weight_filler {
      type: "gaussian"
      std: 0.01
    }
    bias_filler {
      type: "constant"
    }
  }
}
layer {
  name: "relu1"
  type: "ReLU"
  bottom: "ip1"
  top: "ip1"
}
layer {
  name: "ip2"
  type: "InnerProduct"
  bottom: "ip1"
  top: "ip2"
  param {
    lr_mult: 1
  }
  param {
    lr_mult: 2
  }
  inner_product_param {
    num_output: 80
    weight_filler {
      type: "gaussian"
      std: 0.01
    }
    bias_filler {
      type: "constant"
    }
  }
}
layer {
  name: "relu2"
  type: "ReLU"
  bottom: "ip2"
  top: "ip2"
}
layer {
  name: "ip3"
  type: "InnerProduct"
  bottom: "ip2"
  top: "ip3"
  param {
    lr_mult: 1
  }
  param {
    lr_mult: 2
  }
  inner_product_param {
    num_output: 80
    weight_filler {
      type: "gaussian"
      std: 0.01
    }
    bias_filler {
      type: "constant"
    }
  }
}
layer {
  name: "relu3"
  type: "ReLU"
  bottom: "ip3"
  top: "ip3"
}
layer {
  name: "ip4"
  type: "InnerProduct"
  bottom: "ip3"
  top: "ip4"
  param {
    lr_mult: 1
  }
  param {
    lr_mult: 2
  }
  inner_product_param {
    num_output: 10
    weight_filler {
      type: "gaussian"
      std: 0.01
    }
    bias_filler {
      type: "constant"
    }
  }
}
layer {
  name: "accuracy"
  type: "Accuracy"
  bottom: "ip4"
  bottom: "label"
  top: "accuracy"
  include {
    phase: TEST
  }
}
layer {
  name: "loss"
  type: "SoftmaxWithLoss"
  bottom: "ip4"
  bottom: "label"
  top: "loss"
}
I0501 00:18:17.065268  6779 layer_factory.hpp:77] Creating layer cifar
I0501 00:18:17.065347  6779 db_lmdb.cpp:35] Opened lmdb examples/cifar10/cifar10_test_lmdb
I0501 00:18:17.065361  6779 net.cpp:86] Creating Layer cifar
I0501 00:18:17.065366  6779 net.cpp:382] cifar -> data
I0501 00:18:17.065373  6779 net.cpp:382] cifar -> label
I0501 00:18:17.065379  6779 data_transformer.cpp:25] Loading mean file from: examples/cifar10/mean.binaryproto
I0501 00:18:17.065537  6779 data_layer.cpp:45] output data size: 1000,3,32,32
I0501 00:18:17.087529  6779 net.cpp:124] Setting up cifar
I0501 00:18:17.087556  6779 net.cpp:131] Top shape: 1000 3 32 32 (3072000)
I0501 00:18:17.087563  6779 net.cpp:131] Top shape: 1000 (1000)
I0501 00:18:17.087565  6779 net.cpp:139] Memory required for data: 12292000
I0501 00:18:17.087571  6779 layer_factory.hpp:77] Creating layer label_cifar_1_split
I0501 00:18:17.087599  6779 net.cpp:86] Creating Layer label_cifar_1_split
I0501 00:18:17.087604  6779 net.cpp:408] label_cifar_1_split <- label
I0501 00:18:17.087610  6779 net.cpp:382] label_cifar_1_split -> label_cifar_1_split_0
I0501 00:18:17.087620  6779 net.cpp:382] label_cifar_1_split -> label_cifar_1_split_1
I0501 00:18:17.087738  6779 net.cpp:124] Setting up label_cifar_1_split
I0501 00:18:17.087744  6779 net.cpp:131] Top shape: 1000 (1000)
I0501 00:18:17.087749  6779 net.cpp:131] Top shape: 1000 (1000)
I0501 00:18:17.087751  6779 net.cpp:139] Memory required for data: 12300000
I0501 00:18:17.087754  6779 layer_factory.hpp:77] Creating layer conv0
I0501 00:18:17.087765  6779 net.cpp:86] Creating Layer conv0
I0501 00:18:17.087769  6779 net.cpp:408] conv0 <- data
I0501 00:18:17.087774  6779 net.cpp:382] conv0 -> conv0
I0501 00:18:17.089260  6779 net.cpp:124] Setting up conv0
I0501 00:18:17.089274  6779 net.cpp:131] Top shape: 1000 8 34 34 (9248000)
I0501 00:18:17.089278  6779 net.cpp:139] Memory required for data: 49292000
I0501 00:18:17.089303  6779 layer_factory.hpp:77] Creating layer Sigmoid0
I0501 00:18:17.089310  6779 net.cpp:86] Creating Layer Sigmoid0
I0501 00:18:17.089313  6779 net.cpp:408] Sigmoid0 <- conv0
I0501 00:18:17.089318  6779 net.cpp:382] Sigmoid0 -> Sigmoid0
I0501 00:18:17.090462  6779 net.cpp:124] Setting up Sigmoid0
I0501 00:18:17.090472  6779 net.cpp:131] Top shape: 1000 8 34 34 (9248000)
I0501 00:18:17.090476  6779 net.cpp:139] Memory required for data: 86284000
I0501 00:18:17.090479  6779 layer_factory.hpp:77] Creating layer pool0
I0501 00:18:17.090502  6779 net.cpp:86] Creating Layer pool0
I0501 00:18:17.090507  6779 net.cpp:408] pool0 <- Sigmoid0
I0501 00:18:17.090512  6779 net.cpp:382] pool0 -> pool0
I0501 00:18:17.090705  6779 net.cpp:124] Setting up pool0
I0501 00:18:17.090713  6779 net.cpp:131] Top shape: 1000 8 17 17 (2312000)
I0501 00:18:17.090716  6779 net.cpp:139] Memory required for data: 95532000
I0501 00:18:17.090720  6779 layer_factory.hpp:77] Creating layer ip1
I0501 00:18:17.090728  6779 net.cpp:86] Creating Layer ip1
I0501 00:18:17.090730  6779 net.cpp:408] ip1 <- pool0
I0501 00:18:17.090736  6779 net.cpp:382] ip1 -> ip1
I0501 00:18:17.093333  6779 net.cpp:124] Setting up ip1
I0501 00:18:17.093341  6779 net.cpp:131] Top shape: 1000 40 (40000)
I0501 00:18:17.093344  6779 net.cpp:139] Memory required for data: 95692000
I0501 00:18:17.093382  6779 layer_factory.hpp:77] Creating layer relu1
I0501 00:18:17.093389  6779 net.cpp:86] Creating Layer relu1
I0501 00:18:17.093392  6779 net.cpp:408] relu1 <- ip1
I0501 00:18:17.093397  6779 net.cpp:369] relu1 -> ip1 (in-place)
I0501 00:18:17.093550  6779 net.cpp:124] Setting up relu1
I0501 00:18:17.093559  6779 net.cpp:131] Top shape: 1000 40 (40000)
I0501 00:18:17.093561  6779 net.cpp:139] Memory required for data: 95852000
I0501 00:18:17.093564  6779 layer_factory.hpp:77] Creating layer ip2
I0501 00:18:17.093570  6779 net.cpp:86] Creating Layer ip2
I0501 00:18:17.093575  6779 net.cpp:408] ip2 <- ip1
I0501 00:18:17.093580  6779 net.cpp:382] ip2 -> ip2
I0501 00:18:17.093763  6779 net.cpp:124] Setting up ip2
I0501 00:18:17.093770  6779 net.cpp:131] Top shape: 1000 80 (80000)
I0501 00:18:17.093773  6779 net.cpp:139] Memory required for data: 96172000
I0501 00:18:17.093780  6779 layer_factory.hpp:77] Creating layer relu2
I0501 00:18:17.093786  6779 net.cpp:86] Creating Layer relu2
I0501 00:18:17.093789  6779 net.cpp:408] relu2 <- ip2
I0501 00:18:17.093792  6779 net.cpp:369] relu2 -> ip2 (in-place)
I0501 00:18:17.094560  6779 net.cpp:124] Setting up relu2
I0501 00:18:17.094576  6779 net.cpp:131] Top shape: 1000 80 (80000)
I0501 00:18:17.094579  6779 net.cpp:139] Memory required for data: 96492000
I0501 00:18:17.094583  6779 layer_factory.hpp:77] Creating layer ip3
I0501 00:18:17.094605  6779 net.cpp:86] Creating Layer ip3
I0501 00:18:17.094609  6779 net.cpp:408] ip3 <- ip2
I0501 00:18:17.094614  6779 net.cpp:382] ip3 -> ip3
I0501 00:18:17.094878  6779 net.cpp:124] Setting up ip3
I0501 00:18:17.094887  6779 net.cpp:131] Top shape: 1000 80 (80000)
I0501 00:18:17.094890  6779 net.cpp:139] Memory required for data: 96812000
I0501 00:18:17.094895  6779 layer_factory.hpp:77] Creating layer relu3
I0501 00:18:17.094899  6779 net.cpp:86] Creating Layer relu3
I0501 00:18:17.094903  6779 net.cpp:408] relu3 <- ip3
I0501 00:18:17.094907  6779 net.cpp:369] relu3 -> ip3 (in-place)
I0501 00:18:17.095068  6779 net.cpp:124] Setting up relu3
I0501 00:18:17.095077  6779 net.cpp:131] Top shape: 1000 80 (80000)
I0501 00:18:17.095079  6779 net.cpp:139] Memory required for data: 97132000
I0501 00:18:17.095082  6779 layer_factory.hpp:77] Creating layer ip4
I0501 00:18:17.095089  6779 net.cpp:86] Creating Layer ip4
I0501 00:18:17.095093  6779 net.cpp:408] ip4 <- ip3
I0501 00:18:17.095098  6779 net.cpp:382] ip4 -> ip4
I0501 00:18:17.095216  6779 net.cpp:124] Setting up ip4
I0501 00:18:17.095223  6779 net.cpp:131] Top shape: 1000 10 (10000)
I0501 00:18:17.095227  6779 net.cpp:139] Memory required for data: 97172000
I0501 00:18:17.095233  6779 layer_factory.hpp:77] Creating layer ip4_ip4_0_split
I0501 00:18:17.095238  6779 net.cpp:86] Creating Layer ip4_ip4_0_split
I0501 00:18:17.095242  6779 net.cpp:408] ip4_ip4_0_split <- ip4
I0501 00:18:17.095247  6779 net.cpp:382] ip4_ip4_0_split -> ip4_ip4_0_split_0
I0501 00:18:17.095252  6779 net.cpp:382] ip4_ip4_0_split -> ip4_ip4_0_split_1
I0501 00:18:17.095280  6779 net.cpp:124] Setting up ip4_ip4_0_split
I0501 00:18:17.095286  6779 net.cpp:131] Top shape: 1000 10 (10000)
I0501 00:18:17.095305  6779 net.cpp:131] Top shape: 1000 10 (10000)
I0501 00:18:17.095309  6779 net.cpp:139] Memory required for data: 97252000
I0501 00:18:17.095310  6779 layer_factory.hpp:77] Creating layer accuracy
I0501 00:18:17.095316  6779 net.cpp:86] Creating Layer accuracy
I0501 00:18:17.095319  6779 net.cpp:408] accuracy <- ip4_ip4_0_split_0
I0501 00:18:17.095324  6779 net.cpp:408] accuracy <- label_cifar_1_split_0
I0501 00:18:17.095327  6779 net.cpp:382] accuracy -> accuracy
…
