…
I0501 00:08:54.082231  6439 net.cpp:296] The NetState phase (0) differed from the phase (1) specified by a rule in layer cifar
I0501 00:08:54.082252  6439 net.cpp:296] The NetState phase (0) differed from the phase (1) specified by a rule in layer accuracy
I0501 00:08:54.082357  6439 net.cpp:53] Initializing net from parameters: 
name: "CIFAR"
state {
  phase: TRAIN
  level: 0
  stage: ""
}
layer {
  name: "cifar"
  type: "Data"
  top: "data"
  top: "label"
  include {
    phase: TRAIN
  }
  transform_param {
    mean_file: "examples/cifar10/mean.binaryproto"
  }
  data_param {
    source: "examples/cifar10/cifar10_train_lmdb"
    batch_size: 111
    backend: LMDB
  }
}
layer {
  name: "conv0"
  type: "Convolution"
  bottom: "data"
  top: "conv0"
  param {
    lr_mult: 1
  }
  param {
    lr_mult: 2
  }
  convolution_param {
    num_output: 8
    pad: 2
    kernel_size: 3
    stride: 1
    weight_filler {
      type: "gaussian"
      std: 0.01
    }
    bias_filler {
      type: "constant"
    }
  }
}
layer {
  name: "Sigmoid0"
  type: "Sigmoid"
  bottom: "conv0"
  top: "Sigmoid0"
}
layer {
  name: "pool0"
  type: "Pooling"
  bottom: "Sigmoid0"
  top: "pool0"
  pooling_param {
    pool: AVE
    kernel_size: 3
    stride: 2
  }
}
layer {
  name: "ip1"
  type: "InnerProduct"
  bottom: "pool0"
  top: "ip1"
  param {
    lr_mult: 1
  }
  param {
    lr_mult: 2
  }
  inner_product_param {
    num_output: 40
    weight_filler {
      type: "gaussian"
      std: 0.01
    }
    bias_filler {
      type: "constant"
    }
  }
}
layer {
  name: "relu1"
  type: "ReLU"
  bottom: "ip1"
  top: "ip1"
}
layer {
  name: "ip2"
  type: "InnerProduct"
  bottom: "ip1"
  top: "ip2"
  param {
    lr_mult: 1
  }
  param {
    lr_mult: 2
  }
  inner_product_param {
    num_output: 40
    weight_filler {
      type: "gaussian"
      std: 0.01
    }
    bias_filler {
      type: "constant"
    }
  }
}
layer {
  name: "relu2"
  type: "ReLU"
  bottom: "ip2"
  top: "ip2"
}
layer {
  name: "ip3"
  type: "InnerProduct"
  bottom: "ip2"
  top: "ip3"
  param {
    lr_mult: 1
  }
  param {
    lr_mult: 2
  }
  inner_product_param {
    num_output: 80
    weight_filler {
      type: "gaussian"
      std: 0.01
    }
    bias_filler {
      type: "constant"
    }
  }
}
layer {
  name: "relu3"
  type: "ReLU"
  bottom: "ip3"
  top: "ip3"
}
layer {
  name: "ip4"
  type: "InnerProduct"
  bottom: "ip3"
  top: "ip4"
  param {
    lr_mult: 1
  }
  param {
    lr_mult: 2
  }
  inner_product_param {
    num_output: 10
    weight_filler {
      type: "gaussian"
      std: 0.01
    }
    bias_filler {
      type: "constant"
    }
  }
}
layer {
  name: "loss"
  type: "SoftmaxWithLoss"
  bottom: "ip4"
  bottom: "label"
  top: "loss"
}
I0501 00:08:54.082438  6439 layer_factory.hpp:77] Creating layer cifar
I0501 00:08:54.082541  6439 db_lmdb.cpp:35] Opened lmdb examples/cifar10/cifar10_train_lmdb
I0501 00:08:54.082571  6439 net.cpp:86] Creating Layer cifar
I0501 00:08:54.082579  6439 net.cpp:382] cifar -> data
I0501 00:08:54.082603  6439 net.cpp:382] cifar -> label
I0501 00:08:54.082615  6439 data_transformer.cpp:25] Loading mean file from: examples/cifar10/mean.binaryproto
I0501 00:08:54.084744  6439 data_layer.cpp:45] output data size: 111,3,32,32
I0501 00:08:54.092636  6439 net.cpp:124] Setting up cifar
I0501 00:08:54.092656  6439 net.cpp:131] Top shape: 111 3 32 32 (340992)
I0501 00:08:54.092664  6439 net.cpp:131] Top shape: 111 (111)
I0501 00:08:54.092669  6439 net.cpp:139] Memory required for data: 1364412
I0501 00:08:54.092691  6439 layer_factory.hpp:77] Creating layer conv0
I0501 00:08:54.092710  6439 net.cpp:86] Creating Layer conv0
I0501 00:08:54.092715  6439 net.cpp:408] conv0 <- data
I0501 00:08:54.092730  6439 net.cpp:382] conv0 -> conv0
I0501 00:08:54.380206  6439 net.cpp:124] Setting up conv0
I0501 00:08:54.380234  6439 net.cpp:131] Top shape: 111 8 34 34 (1026528)
I0501 00:08:54.380239  6439 net.cpp:139] Memory required for data: 5470524
I0501 00:08:54.380254  6439 layer_factory.hpp:77] Creating layer Sigmoid0
I0501 00:08:54.380266  6439 net.cpp:86] Creating Layer Sigmoid0
I0501 00:08:54.380271  6439 net.cpp:408] Sigmoid0 <- conv0
I0501 00:08:54.380277  6439 net.cpp:382] Sigmoid0 -> Sigmoid0
I0501 00:08:54.380457  6439 net.cpp:124] Setting up Sigmoid0
I0501 00:08:54.380467  6439 net.cpp:131] Top shape: 111 8 34 34 (1026528)
I0501 00:08:54.380471  6439 net.cpp:139] Memory required for data: 9576636
I0501 00:08:54.380475  6439 layer_factory.hpp:77] Creating layer pool0
I0501 00:08:54.380481  6439 net.cpp:86] Creating Layer pool0
I0501 00:08:54.380486  6439 net.cpp:408] pool0 <- Sigmoid0
I0501 00:08:54.380491  6439 net.cpp:382] pool0 -> pool0
I0501 00:08:54.381247  6439 net.cpp:124] Setting up pool0
I0501 00:08:54.381263  6439 net.cpp:131] Top shape: 111 8 17 17 (256632)
I0501 00:08:54.381265  6439 net.cpp:139] Memory required for data: 10603164
I0501 00:08:54.381269  6439 layer_factory.hpp:77] Creating layer ip1
I0501 00:08:54.381279  6439 net.cpp:86] Creating Layer ip1
I0501 00:08:54.381283  6439 net.cpp:408] ip1 <- pool0
I0501 00:08:54.381289  6439 net.cpp:382] ip1 -> ip1
I0501 00:08:54.384157  6439 net.cpp:124] Setting up ip1
I0501 00:08:54.384168  6439 net.cpp:131] Top shape: 111 40 (4440)
I0501 00:08:54.384171  6439 net.cpp:139] Memory required for data: 10620924
I0501 00:08:54.384179  6439 layer_factory.hpp:77] Creating layer relu1
I0501 00:08:54.384186  6439 net.cpp:86] Creating Layer relu1
I0501 00:08:54.384188  6439 net.cpp:408] relu1 <- ip1
I0501 00:08:54.384193  6439 net.cpp:369] relu1 -> ip1 (in-place)
I0501 00:08:54.384349  6439 net.cpp:124] Setting up relu1
I0501 00:08:54.384357  6439 net.cpp:131] Top shape: 111 40 (4440)
I0501 00:08:54.384361  6439 net.cpp:139] Memory required for data: 10638684
I0501 00:08:54.384364  6439 layer_factory.hpp:77] Creating layer ip2
I0501 00:08:54.384371  6439 net.cpp:86] Creating Layer ip2
I0501 00:08:54.384374  6439 net.cpp:408] ip2 <- ip1
I0501 00:08:54.384379  6439 net.cpp:382] ip2 -> ip2
I0501 00:08:54.384524  6439 net.cpp:124] Setting up ip2
I0501 00:08:54.384532  6439 net.cpp:131] Top shape: 111 40 (4440)
I0501 00:08:54.384536  6439 net.cpp:139] Memory required for data: 10656444
I0501 00:08:54.384542  6439 layer_factory.hpp:77] Creating layer relu2
I0501 00:08:54.384547  6439 net.cpp:86] Creating Layer relu2
I0501 00:08:54.384551  6439 net.cpp:408] relu2 <- ip2
I0501 00:08:54.384554  6439 net.cpp:369] relu2 -> ip2 (in-place)
I0501 00:08:54.384701  6439 net.cpp:124] Setting up relu2
I0501 00:08:54.384708  6439 net.cpp:131] Top shape: 111 40 (4440)
I0501 00:08:54.384711  6439 net.cpp:139] Memory required for data: 10674204
I0501 00:08:54.384716  6439 layer_factory.hpp:77] Creating layer ip3
I0501 00:08:54.384722  6439 net.cpp:86] Creating Layer ip3
I0501 00:08:54.384726  6439 net.cpp:408] ip3 <- ip2
I0501 00:08:54.384730  6439 net.cpp:382] ip3 -> ip3
I0501 00:08:54.384927  6439 net.cpp:124] Setting up ip3
I0501 00:08:54.384935  6439 net.cpp:131] Top shape: 111 80 (8880)
I0501 00:08:54.384938  6439 net.cpp:139] Memory required for data: 10709724
I0501 00:08:54.384944  6439 layer_factory.hpp:77] Creating layer relu3
I0501 00:08:54.384949  6439 net.cpp:86] Creating Layer relu3
I0501 00:08:54.384953  6439 net.cpp:408] relu3 <- ip3
I0501 00:08:54.384958  6439 net.cpp:369] relu3 -> ip3 (in-place)
I0501 00:08:54.385100  6439 net.cpp:124] Setting up relu3
I0501 00:08:54.385108  6439 net.cpp:131] Top shape: 111 80 (8880)
I0501 00:08:54.385113  6439 net.cpp:139] Memory required for data: 10745244
I0501 00:08:54.385115  6439 layer_factory.hpp:77] Creating layer ip4
I0501 00:08:54.385136  6439 net.cpp:86] Creating Layer ip4
I0501 00:08:54.385140  6439 net.cpp:408] ip4 <- ip3
I0501 00:08:54.385145  6439 net.cpp:382] ip4 -> ip4
I0501 00:08:54.386134  6439 net.cpp:124] Setting up ip4
I0501 00:08:54.386147  6439 net.cpp:131] Top shape: 111 10 (1110)
I0501 00:08:54.386150  6439 net.cpp:139] Memory required for data: 10749684
I0501 00:08:54.386160  6439 layer_factory.hpp:77] Creating layer loss
I0501 00:08:54.386167  6439 net.cpp:86] Creating Layer loss
I0501 00:08:54.386169  6439 net.cpp:408] loss <- ip4
I0501 00:08:54.386174  6439 net.cpp:408] loss <- label
I0501 00:08:54.386180  6439 net.cpp:382] loss -> loss
I0501 00:08:54.386195  6439 layer_factory.hpp:77] Creating layer loss
…
I0501 00:08:54.387413  6439 solver.cpp:173] Creating test net (#0) specified by net file: ECE595/cifar/train_test/var_everything/cifar_train_test_248.prototxt
I0501 00:08:54.387444  6439 net.cpp:296] The NetState phase (1) differed from the phase (0) specified by a rule in layer cifar
I0501 00:08:54.387539  6439 net.cpp:53] Initializing net from parameters: 
name: "CIFAR"
state {
  phase: TEST
}
layer {
  name: "cifar"
  type: "Data"
  top: "data"
  top: "label"
  include {
    phase: TEST
  }
  transform_param {
    mean_file: "examples/cifar10/mean.binaryproto"
  }
  data_param {
    source: "examples/cifar10/cifar10_test_lmdb"
    batch_size: 1000
    backend: LMDB
  }
}
layer {
  name: "conv0"
  type: "Convolution"
  bottom: "data"
  top: "conv0"
  param {
    lr_mult: 1
  }
  param {
    lr_mult: 2
  }
  convolution_param {
    num_output: 8
    pad: 2
    kernel_size: 3
    stride: 1
    weight_filler {
      type: "gaussian"
      std: 0.01
    }
    bias_filler {
      type: "constant"
    }
  }
}
layer {
  name: "Sigmoid0"
  type: "Sigmoid"
  bottom: "conv0"
  top: "Sigmoid0"
}
layer {
  name: "pool0"
  type: "Pooling"
  bottom: "Sigmoid0"
  top: "pool0"
  pooling_param {
    pool: AVE
    kernel_size: 3
    stride: 2
  }
}
layer {
  name: "ip1"
  type: "InnerProduct"
  bottom: "pool0"
  top: "ip1"
  param {
    lr_mult: 1
  }
  param {
    lr_mult: 2
  }
  inner_product_param {
    num_output: 40
    weight_filler {
      type: "gaussian"
      std: 0.01
    }
    bias_filler {
      type: "constant"
    }
  }
}
layer {
  name: "relu1"
  type: "ReLU"
  bottom: "ip1"
  top: "ip1"
}
layer {
  name: "ip2"
  type: "InnerProduct"
  bottom: "ip1"
  top: "ip2"
  param {
    lr_mult: 1
  }
  param {
    lr_mult: 2
  }
  inner_product_param {
    num_output: 40
    weight_filler {
      type: "gaussian"
      std: 0.01
    }
    bias_filler {
      type: "constant"
    }
  }
}
layer {
  name: "relu2"
  type: "ReLU"
  bottom: "ip2"
  top: "ip2"
}
layer {
  name: "ip3"
  type: "InnerProduct"
  bottom: "ip2"
  top: "ip3"
  param {
    lr_mult: 1
  }
  param {
    lr_mult: 2
  }
  inner_product_param {
    num_output: 80
    weight_filler {
      type: "gaussian"
      std: 0.01
    }
    bias_filler {
      type: "constant"
    }
  }
}
layer {
  name: "relu3"
  type: "ReLU"
  bottom: "ip3"
  top: "ip3"
}
layer {
  name: "ip4"
  type: "InnerProduct"
  bottom: "ip3"
  top: "ip4"
  param {
    lr_mult: 1
  }
  param {
    lr_mult: 2
  }
  inner_product_param {
    num_output: 10
    weight_filler {
      type: "gaussian"
      std: 0.01
    }
    bias_filler {
      type: "constant"
    }
  }
}
layer {
  name: "accuracy"
  type: "Accuracy"
  bottom: "ip4"
  bottom: "label"
  top: "accuracy"
  include {
    phase: TEST
  }
}
layer {
  name: "loss"
  type: "SoftmaxWithLoss"
  bottom: "ip4"
  bottom: "label"
  top: "loss"
}
I0501 00:08:54.387620  6439 layer_factory.hpp:77] Creating layer cifar
I0501 00:08:54.387668  6439 db_lmdb.cpp:35] Opened lmdb examples/cifar10/cifar10_test_lmdb
I0501 00:08:54.387681  6439 net.cpp:86] Creating Layer cifar
I0501 00:08:54.387686  6439 net.cpp:382] cifar -> data
I0501 00:08:54.387693  6439 net.cpp:382] cifar -> label
I0501 00:08:54.387701  6439 data_transformer.cpp:25] Loading mean file from: examples/cifar10/mean.binaryproto
I0501 00:08:54.387841  6439 data_layer.cpp:45] output data size: 1000,3,32,32
I0501 00:08:54.409953  6439 net.cpp:124] Setting up cifar
I0501 00:08:54.409979  6439 net.cpp:131] Top shape: 1000 3 32 32 (3072000)
I0501 00:08:54.409986  6439 net.cpp:131] Top shape: 1000 (1000)
I0501 00:08:54.409989  6439 net.cpp:139] Memory required for data: 12292000
I0501 00:08:54.409996  6439 layer_factory.hpp:77] Creating layer label_cifar_1_split
I0501 00:08:54.410007  6439 net.cpp:86] Creating Layer label_cifar_1_split
I0501 00:08:54.410012  6439 net.cpp:408] label_cifar_1_split <- label
I0501 00:08:54.410018  6439 net.cpp:382] label_cifar_1_split -> label_cifar_1_split_0
I0501 00:08:54.410027  6439 net.cpp:382] label_cifar_1_split -> label_cifar_1_split_1
I0501 00:08:54.410122  6439 net.cpp:124] Setting up label_cifar_1_split
I0501 00:08:54.410130  6439 net.cpp:131] Top shape: 1000 (1000)
I0501 00:08:54.410135  6439 net.cpp:131] Top shape: 1000 (1000)
I0501 00:08:54.410137  6439 net.cpp:139] Memory required for data: 12300000
I0501 00:08:54.410140  6439 layer_factory.hpp:77] Creating layer conv0
I0501 00:08:54.410152  6439 net.cpp:86] Creating Layer conv0
I0501 00:08:54.410156  6439 net.cpp:408] conv0 <- data
I0501 00:08:54.410161  6439 net.cpp:382] conv0 -> conv0
I0501 00:08:54.411721  6439 net.cpp:124] Setting up conv0
I0501 00:08:54.411736  6439 net.cpp:131] Top shape: 1000 8 34 34 (9248000)
I0501 00:08:54.411739  6439 net.cpp:139] Memory required for data: 49292000
I0501 00:08:54.411748  6439 layer_factory.hpp:77] Creating layer Sigmoid0
I0501 00:08:54.411756  6439 net.cpp:86] Creating Layer Sigmoid0
I0501 00:08:54.411758  6439 net.cpp:408] Sigmoid0 <- conv0
I0501 00:08:54.411762  6439 net.cpp:382] Sigmoid0 -> Sigmoid0
I0501 00:08:54.411962  6439 net.cpp:124] Setting up Sigmoid0
I0501 00:08:54.411970  6439 net.cpp:131] Top shape: 1000 8 34 34 (9248000)
I0501 00:08:54.411973  6439 net.cpp:139] Memory required for data: 86284000
I0501 00:08:54.411978  6439 layer_factory.hpp:77] Creating layer pool0
I0501 00:08:54.411984  6439 net.cpp:86] Creating Layer pool0
I0501 00:08:54.411988  6439 net.cpp:408] pool0 <- Sigmoid0
I0501 00:08:54.411993  6439 net.cpp:382] pool0 -> pool0
I0501 00:08:54.412140  6439 net.cpp:124] Setting up pool0
I0501 00:08:54.412148  6439 net.cpp:131] Top shape: 1000 8 17 17 (2312000)
I0501 00:08:54.412153  6439 net.cpp:139] Memory required for data: 95532000
I0501 00:08:54.412155  6439 layer_factory.hpp:77] Creating layer ip1
I0501 00:08:54.412163  6439 net.cpp:86] Creating Layer ip1
I0501 00:08:54.412165  6439 net.cpp:408] ip1 <- pool0
I0501 00:08:54.412170  6439 net.cpp:382] ip1 -> ip1
I0501 00:08:54.414818  6439 net.cpp:124] Setting up ip1
I0501 00:08:54.414826  6439 net.cpp:131] Top shape: 1000 40 (40000)
I0501 00:08:54.414845  6439 net.cpp:139] Memory required for data: 95692000
I0501 00:08:54.414880  6439 layer_factory.hpp:77] Creating layer relu1
I0501 00:08:54.414886  6439 net.cpp:86] Creating Layer relu1
I0501 00:08:54.414891  6439 net.cpp:408] relu1 <- ip1
I0501 00:08:54.414909  6439 net.cpp:369] relu1 -> ip1 (in-place)
I0501 00:08:54.415124  6439 net.cpp:124] Setting up relu1
I0501 00:08:54.415134  6439 net.cpp:131] Top shape: 1000 40 (40000)
I0501 00:08:54.415138  6439 net.cpp:139] Memory required for data: 95852000
I0501 00:08:54.415141  6439 layer_factory.hpp:77] Creating layer ip2
I0501 00:08:54.415148  6439 net.cpp:86] Creating Layer ip2
I0501 00:08:54.415153  6439 net.cpp:408] ip2 <- ip1
I0501 00:08:54.415158  6439 net.cpp:382] ip2 -> ip2
I0501 00:08:54.415321  6439 net.cpp:124] Setting up ip2
I0501 00:08:54.415329  6439 net.cpp:131] Top shape: 1000 40 (40000)
I0501 00:08:54.415334  6439 net.cpp:139] Memory required for data: 96012000
I0501 00:08:54.415341  6439 layer_factory.hpp:77] Creating layer relu2
I0501 00:08:54.415349  6439 net.cpp:86] Creating Layer relu2
I0501 00:08:54.415351  6439 net.cpp:408] relu2 <- ip2
I0501 00:08:54.415355  6439 net.cpp:369] relu2 -> ip2 (in-place)
I0501 00:08:54.416105  6439 net.cpp:124] Setting up relu2
I0501 00:08:54.416117  6439 net.cpp:131] Top shape: 1000 40 (40000)
I0501 00:08:54.416136  6439 net.cpp:139] Memory required for data: 96172000
I0501 00:08:54.416141  6439 layer_factory.hpp:77] Creating layer ip3
I0501 00:08:54.416146  6439 net.cpp:86] Creating Layer ip3
I0501 00:08:54.416152  6439 net.cpp:408] ip3 <- ip2
I0501 00:08:54.416157  6439 net.cpp:382] ip3 -> ip3
I0501 00:08:54.416379  6439 net.cpp:124] Setting up ip3
I0501 00:08:54.416388  6439 net.cpp:131] Top shape: 1000 80 (80000)
I0501 00:08:54.416390  6439 net.cpp:139] Memory required for data: 96492000
I0501 00:08:54.416396  6439 layer_factory.hpp:77] Creating layer relu3
I0501 00:08:54.416401  6439 net.cpp:86] Creating Layer relu3
I0501 00:08:54.416404  6439 net.cpp:408] relu3 <- ip3
I0501 00:08:54.416409  6439 net.cpp:369] relu3 -> ip3 (in-place)
I0501 00:08:54.416550  6439 net.cpp:124] Setting up relu3
I0501 00:08:54.416559  6439 net.cpp:131] Top shape: 1000 80 (80000)
I0501 00:08:54.416563  6439 net.cpp:139] Memory required for data: 96812000
I0501 00:08:54.416565  6439 layer_factory.hpp:77] Creating layer ip4
I0501 00:08:54.416571  6439 net.cpp:86] Creating Layer ip4
I0501 00:08:54.416574  6439 net.cpp:408] ip4 <- ip3
I0501 00:08:54.416580  6439 net.cpp:382] ip4 -> ip4
I0501 00:08:54.416693  6439 net.cpp:124] Setting up ip4
I0501 00:08:54.416700  6439 net.cpp:131] Top shape: 1000 10 (10000)
I0501 00:08:54.416703  6439 net.cpp:139] Memory required for data: 96852000
I0501 00:08:54.416712  6439 layer_factory.hpp:77] Creating layer ip4_ip4_0_split
I0501 00:08:54.416718  6439 net.cpp:86] Creating Layer ip4_ip4_0_split
I0501 00:08:54.416720  6439 net.cpp:408] ip4_ip4_0_split <- ip4
I0501 00:08:54.416724  6439 net.cpp:382] ip4_ip4_0_split -> ip4_ip4_0_split_0
I0501 00:08:54.416729  6439 net.cpp:382] ip4_ip4_0_split -> ip4_ip4_0_split_1
I0501 00:08:54.416757  6439 net.cpp:124] Setting up ip4_ip4_0_split
I0501 00:08:54.416762  6439 net.cpp:131] Top shape: 1000 10 (10000)
I0501 00:08:54.416766  6439 net.cpp:131] Top shape: 1000 10 (10000)
I0501 00:08:54.416769  6439 net.cpp:139] Memory required for data: 96932000
I0501 00:08:54.416774  6439 layer_factory.hpp:77] Creating layer accuracy
I0501 00:08:54.416779  6439 net.cpp:86] Creating Layer accuracy
I0501 00:08:54.416781  6439 net.cpp:408] accuracy <- ip4_ip4_0_split_0
I0501 00:08:54.416785  6439 net.cpp:408] accuracy <- label_cifar_1_split_0
I0501 00:08:54.416790  6439 net.cpp:382] accuracy -> accuracy
…
