…
I0501 02:42:36.489259 16818 net.cpp:296] The NetState phase (0) differed from the phase (1) specified by a rule in layer cifar
I0501 02:42:36.489274 16818 net.cpp:296] The NetState phase (0) differed from the phase (1) specified by a rule in layer accuracy
I0501 02:42:36.489363 16818 net.cpp:53] Initializing net from parameters: 
name: "CIFAR"
state {
  phase: TRAIN
  level: 0
  stage: ""
}
layer {
  name: "cifar"
  type: "Data"
  top: "data"
  top: "label"
  include {
    phase: TRAIN
  }
  transform_param {
    mean_file: "examples/cifar10/mean.binaryproto"
  }
  data_param {
    source: "examples/cifar10/cifar10_train_lmdb"
    batch_size: 111
    backend: LMDB
  }
}
layer {
  name: "conv0"
  type: "Convolution"
  bottom: "data"
  top: "conv0"
  param {
    lr_mult: 1
  }
  param {
    lr_mult: 2
  }
  convolution_param {
    num_output: 8
    pad: 2
    kernel_size: 5
    stride: 1
    weight_filler {
      type: "gaussian"
      std: 0.01
    }
    bias_filler {
      type: "constant"
    }
  }
}
layer {
  name: "Sigmoid0"
  type: "Sigmoid"
  bottom: "conv0"
  top: "Sigmoid0"
}
layer {
  name: "pool0"
  type: "Pooling"
  bottom: "Sigmoid0"
  top: "pool0"
  pooling_param {
    pool: AVE
    kernel_size: 3
    stride: 2
  }
}
layer {
  name: "ip1"
  type: "InnerProduct"
  bottom: "pool0"
  top: "ip1"
  param {
    lr_mult: 1
  }
  param {
    lr_mult: 2
  }
  inner_product_param {
    num_output: 80
    weight_filler {
      type: "gaussian"
      std: 0.01
    }
    bias_filler {
      type: "constant"
    }
  }
}
layer {
  name: "relu1"
  type: "ReLU"
  bottom: "ip1"
  top: "ip1"
}
layer {
  name: "ip2"
  type: "InnerProduct"
  bottom: "ip1"
  top: "ip2"
  param {
    lr_mult: 1
  }
  param {
    lr_mult: 2
  }
  inner_product_param {
    num_output: 10
    weight_filler {
      type: "gaussian"
      std: 0.01
    }
    bias_filler {
      type: "constant"
    }
  }
}
layer {
  name: "relu2"
  type: "ReLU"
  bottom: "ip2"
  top: "ip2"
}
layer {
  name: "ip3"
  type: "InnerProduct"
  bottom: "ip2"
  top: "ip3"
  param {
    lr_mult: 1
  }
  param {
    lr_mult: 2
  }
  inner_product_param {
    num_output: 10
    weight_filler {
      type: "gaussian"
      std: 0.01
    }
    bias_filler {
      type: "constant"
    }
  }
}
layer {
  name: "loss"
  type: "SoftmaxWithLoss"
  bottom: "ip3"
  bottom: "label"
  top: "loss"
}
I0501 02:42:36.489433 16818 layer_factory.hpp:77] Creating layer cifar
I0501 02:42:36.489534 16818 db_lmdb.cpp:35] Opened lmdb examples/cifar10/cifar10_train_lmdb
I0501 02:42:36.489563 16818 net.cpp:86] Creating Layer cifar
I0501 02:42:36.489573 16818 net.cpp:382] cifar -> data
I0501 02:42:36.489598 16818 net.cpp:382] cifar -> label
I0501 02:42:36.489611 16818 data_transformer.cpp:25] Loading mean file from: examples/cifar10/mean.binaryproto
I0501 02:42:36.491705 16818 data_layer.cpp:45] output data size: 111,3,32,32
I0501 02:42:36.499605 16818 net.cpp:124] Setting up cifar
I0501 02:42:36.499624 16818 net.cpp:131] Top shape: 111 3 32 32 (340992)
I0501 02:42:36.499630 16818 net.cpp:131] Top shape: 111 (111)
I0501 02:42:36.499634 16818 net.cpp:139] Memory required for data: 1364412
I0501 02:42:36.499644 16818 layer_factory.hpp:77] Creating layer conv0
I0501 02:42:36.499661 16818 net.cpp:86] Creating Layer conv0
I0501 02:42:36.499667 16818 net.cpp:408] conv0 <- data
I0501 02:42:36.499680 16818 net.cpp:382] conv0 -> conv0
I0501 02:42:36.786053 16818 net.cpp:124] Setting up conv0
I0501 02:42:36.786094 16818 net.cpp:131] Top shape: 111 8 32 32 (909312)
I0501 02:42:36.786098 16818 net.cpp:139] Memory required for data: 5001660
I0501 02:42:36.786113 16818 layer_factory.hpp:77] Creating layer Sigmoid0
I0501 02:42:36.786125 16818 net.cpp:86] Creating Layer Sigmoid0
I0501 02:42:36.786129 16818 net.cpp:408] Sigmoid0 <- conv0
I0501 02:42:36.786135 16818 net.cpp:382] Sigmoid0 -> Sigmoid0
I0501 02:42:36.786300 16818 net.cpp:124] Setting up Sigmoid0
I0501 02:42:36.786310 16818 net.cpp:131] Top shape: 111 8 32 32 (909312)
I0501 02:42:36.786314 16818 net.cpp:139] Memory required for data: 8638908
I0501 02:42:36.786316 16818 layer_factory.hpp:77] Creating layer pool0
I0501 02:42:36.786324 16818 net.cpp:86] Creating Layer pool0
I0501 02:42:36.786326 16818 net.cpp:408] pool0 <- Sigmoid0
I0501 02:42:36.786330 16818 net.cpp:382] pool0 -> pool0
I0501 02:42:36.787046 16818 net.cpp:124] Setting up pool0
I0501 02:42:36.787060 16818 net.cpp:131] Top shape: 111 8 16 16 (227328)
I0501 02:42:36.787062 16818 net.cpp:139] Memory required for data: 9548220
I0501 02:42:36.787065 16818 layer_factory.hpp:77] Creating layer ip1
I0501 02:42:36.787075 16818 net.cpp:86] Creating Layer ip1
I0501 02:42:36.787078 16818 net.cpp:408] ip1 <- pool0
I0501 02:42:36.787083 16818 net.cpp:382] ip1 -> ip1
I0501 02:42:36.791443 16818 net.cpp:124] Setting up ip1
I0501 02:42:36.791451 16818 net.cpp:131] Top shape: 111 80 (8880)
I0501 02:42:36.791455 16818 net.cpp:139] Memory required for data: 9583740
I0501 02:42:36.791462 16818 layer_factory.hpp:77] Creating layer relu1
I0501 02:42:36.791467 16818 net.cpp:86] Creating Layer relu1
I0501 02:42:36.791471 16818 net.cpp:408] relu1 <- ip1
I0501 02:42:36.791476 16818 net.cpp:369] relu1 -> ip1 (in-place)
I0501 02:42:36.791620 16818 net.cpp:124] Setting up relu1
I0501 02:42:36.791627 16818 net.cpp:131] Top shape: 111 80 (8880)
I0501 02:42:36.791630 16818 net.cpp:139] Memory required for data: 9619260
I0501 02:42:36.791633 16818 layer_factory.hpp:77] Creating layer ip2
I0501 02:42:36.791638 16818 net.cpp:86] Creating Layer ip2
I0501 02:42:36.791641 16818 net.cpp:408] ip2 <- ip1
I0501 02:42:36.791646 16818 net.cpp:382] ip2 -> ip2
I0501 02:42:36.791750 16818 net.cpp:124] Setting up ip2
I0501 02:42:36.791757 16818 net.cpp:131] Top shape: 111 10 (1110)
I0501 02:42:36.791760 16818 net.cpp:139] Memory required for data: 9623700
I0501 02:42:36.791767 16818 layer_factory.hpp:77] Creating layer relu2
I0501 02:42:36.791772 16818 net.cpp:86] Creating Layer relu2
I0501 02:42:36.791775 16818 net.cpp:408] relu2 <- ip2
I0501 02:42:36.791779 16818 net.cpp:369] relu2 -> ip2 (in-place)
I0501 02:42:36.791920 16818 net.cpp:124] Setting up relu2
I0501 02:42:36.791927 16818 net.cpp:131] Top shape: 111 10 (1110)
I0501 02:42:36.791930 16818 net.cpp:139] Memory required for data: 9628140
I0501 02:42:36.791934 16818 layer_factory.hpp:77] Creating layer ip3
I0501 02:42:36.791939 16818 net.cpp:86] Creating Layer ip3
I0501 02:42:36.791942 16818 net.cpp:408] ip3 <- ip2
I0501 02:42:36.791947 16818 net.cpp:382] ip3 -> ip3
I0501 02:42:36.792034 16818 net.cpp:124] Setting up ip3
I0501 02:42:36.792042 16818 net.cpp:131] Top shape: 111 10 (1110)
I0501 02:42:36.792044 16818 net.cpp:139] Memory required for data: 9632580
I0501 02:42:36.792049 16818 layer_factory.hpp:77] Creating layer loss
I0501 02:42:36.792054 16818 net.cpp:86] Creating Layer loss
I0501 02:42:36.792057 16818 net.cpp:408] loss <- ip3
I0501 02:42:36.792062 16818 net.cpp:408] loss <- label
I0501 02:42:36.792065 16818 net.cpp:382] loss -> loss
I0501 02:42:36.792083 16818 layer_factory.hpp:77] Creating layer loss
…
I0501 02:42:36.792650 16818 solver.cpp:173] Creating test net (#0) specified by net file: ECE595/cifar/train_test/var_everything/cifar_train_test_330.prototxt
I0501 02:42:36.792675 16818 net.cpp:296] The NetState phase (1) differed from the phase (0) specified by a rule in layer cifar
I0501 02:42:36.792759 16818 net.cpp:53] Initializing net from parameters: 
name: "CIFAR"
state {
  phase: TEST
}
layer {
  name: "cifar"
  type: "Data"
  top: "data"
  top: "label"
  include {
    phase: TEST
  }
  transform_param {
    mean_file: "examples/cifar10/mean.binaryproto"
  }
  data_param {
    source: "examples/cifar10/cifar10_test_lmdb"
    batch_size: 1000
    backend: LMDB
  }
}
layer {
  name: "conv0"
  type: "Convolution"
  bottom: "data"
  top: "conv0"
  param {
    lr_mult: 1
  }
  param {
    lr_mult: 2
  }
  convolution_param {
    num_output: 8
    pad: 2
    kernel_size: 5
    stride: 1
    weight_filler {
      type: "gaussian"
      std: 0.01
    }
    bias_filler {
      type: "constant"
    }
  }
}
layer {
  name: "Sigmoid0"
  type: "Sigmoid"
  bottom: "conv0"
  top: "Sigmoid0"
}
layer {
  name: "pool0"
  type: "Pooling"
  bottom: "Sigmoid0"
  top: "pool0"
  pooling_param {
    pool: AVE
    kernel_size: 3
    stride: 2
  }
}
layer {
  name: "ip1"
  type: "InnerProduct"
  bottom: "pool0"
  top: "ip1"
  param {
    lr_mult: 1
  }
  param {
    lr_mult: 2
  }
  inner_product_param {
    num_output: 80
    weight_filler {
      type: "gaussian"
      std: 0.01
    }
    bias_filler {
      type: "constant"
    }
  }
}
layer {
  name: "relu1"
  type: "ReLU"
  bottom: "ip1"
  top: "ip1"
}
layer {
  name: "ip2"
  type: "InnerProduct"
  bottom: "ip1"
  top: "ip2"
  param {
    lr_mult: 1
  }
  param {
    lr_mult: 2
  }
  inner_product_param {
    num_output: 10
    weight_filler {
      type: "gaussian"
      std: 0.01
    }
    bias_filler {
      type: "constant"
    }
  }
}
layer {
  name: "relu2"
  type: "ReLU"
  bottom: "ip2"
  top: "ip2"
}
layer {
  name: "ip3"
  type: "InnerProduct"
  bottom: "ip2"
  top: "ip3"
  param {
    lr_mult: 1
  }
  param {
    lr_mult: 2
  }
  inner_product_param {
    num_output: 10
    weight_filler {
      type: "gaussian"
      std: 0.01
    }
    bias_filler {
      type: "constant"
    }
  }
}
layer {
  name: "accuracy"
  type: "Accuracy"
  bottom: "ip3"
  bottom: "label"
  top: "accuracy"
  include {
    phase: TEST
  }
}
layer {
  name: "loss"
  type: "SoftmaxWithLoss"
  bottom: "ip3"
  bottom: "label"
  top: "loss"
}
I0501 02:42:36.792829 16818 layer_factory.hpp:77] Creating layer cifar
I0501 02:42:36.792919 16818 db_lmdb.cpp:35] Opened lmdb examples/cifar10/cifar10_test_lmdb
I0501 02:42:36.792950 16818 net.cpp:86] Creating Layer cifar
I0501 02:42:36.792958 16818 net.cpp:382] cifar -> data
I0501 02:42:36.792968 16818 net.cpp:382] cifar -> label
I0501 02:42:36.792976 16818 data_transformer.cpp:25] Loading mean file from: examples/cifar10/mean.binaryproto
I0501 02:42:36.793129 16818 data_layer.cpp:45] output data size: 1000,3,32,32
I0501 02:42:36.814900 16818 net.cpp:124] Setting up cifar
I0501 02:42:36.814942 16818 net.cpp:131] Top shape: 1000 3 32 32 (3072000)
I0501 02:42:36.814947 16818 net.cpp:131] Top shape: 1000 (1000)
I0501 02:42:36.814951 16818 net.cpp:139] Memory required for data: 12292000
I0501 02:42:36.814960 16818 layer_factory.hpp:77] Creating layer label_cifar_1_split
I0501 02:42:36.815001 16818 net.cpp:86] Creating Layer label_cifar_1_split
I0501 02:42:36.815024 16818 net.cpp:408] label_cifar_1_split <- label
I0501 02:42:36.815032 16818 net.cpp:382] label_cifar_1_split -> label_cifar_1_split_0
I0501 02:42:36.815040 16818 net.cpp:382] label_cifar_1_split -> label_cifar_1_split_1
I0501 02:42:36.815142 16818 net.cpp:124] Setting up label_cifar_1_split
I0501 02:42:36.815150 16818 net.cpp:131] Top shape: 1000 (1000)
I0501 02:42:36.815155 16818 net.cpp:131] Top shape: 1000 (1000)
I0501 02:42:36.815157 16818 net.cpp:139] Memory required for data: 12300000
I0501 02:42:36.815160 16818 layer_factory.hpp:77] Creating layer conv0
I0501 02:42:36.815172 16818 net.cpp:86] Creating Layer conv0
I0501 02:42:36.815176 16818 net.cpp:408] conv0 <- data
I0501 02:42:36.815181 16818 net.cpp:382] conv0 -> conv0
I0501 02:42:36.816699 16818 net.cpp:124] Setting up conv0
I0501 02:42:36.816711 16818 net.cpp:131] Top shape: 1000 8 32 32 (8192000)
I0501 02:42:36.816730 16818 net.cpp:139] Memory required for data: 45068000
I0501 02:42:36.816740 16818 layer_factory.hpp:77] Creating layer Sigmoid0
I0501 02:42:36.816746 16818 net.cpp:86] Creating Layer Sigmoid0
I0501 02:42:36.816751 16818 net.cpp:408] Sigmoid0 <- conv0
I0501 02:42:36.816754 16818 net.cpp:382] Sigmoid0 -> Sigmoid0
I0501 02:42:36.817776 16818 net.cpp:124] Setting up Sigmoid0
I0501 02:42:36.817802 16818 net.cpp:131] Top shape: 1000 8 32 32 (8192000)
I0501 02:42:36.817806 16818 net.cpp:139] Memory required for data: 77836000
I0501 02:42:36.817811 16818 layer_factory.hpp:77] Creating layer pool0
I0501 02:42:36.817818 16818 net.cpp:86] Creating Layer pool0
I0501 02:42:36.817822 16818 net.cpp:408] pool0 <- Sigmoid0
I0501 02:42:36.817827 16818 net.cpp:382] pool0 -> pool0
I0501 02:42:36.818977 16818 net.cpp:124] Setting up pool0
I0501 02:42:36.818987 16818 net.cpp:131] Top shape: 1000 8 16 16 (2048000)
I0501 02:42:36.819006 16818 net.cpp:139] Memory required for data: 86028000
I0501 02:42:36.819010 16818 layer_factory.hpp:77] Creating layer ip1
I0501 02:42:36.819016 16818 net.cpp:86] Creating Layer ip1
I0501 02:42:36.819020 16818 net.cpp:408] ip1 <- pool0
I0501 02:42:36.819025 16818 net.cpp:382] ip1 -> ip1
I0501 02:42:36.823474 16818 net.cpp:124] Setting up ip1
I0501 02:42:36.823482 16818 net.cpp:131] Top shape: 1000 80 (80000)
I0501 02:42:36.823501 16818 net.cpp:139] Memory required for data: 86348000
I0501 02:42:36.823509 16818 layer_factory.hpp:77] Creating layer relu1
I0501 02:42:36.823530 16818 net.cpp:86] Creating Layer relu1
I0501 02:42:36.823534 16818 net.cpp:408] relu1 <- ip1
I0501 02:42:36.823539 16818 net.cpp:369] relu1 -> ip1 (in-place)
I0501 02:42:36.823714 16818 net.cpp:124] Setting up relu1
I0501 02:42:36.823721 16818 net.cpp:131] Top shape: 1000 80 (80000)
I0501 02:42:36.823724 16818 net.cpp:139] Memory required for data: 86668000
I0501 02:42:36.823727 16818 layer_factory.hpp:77] Creating layer ip2
I0501 02:42:36.823734 16818 net.cpp:86] Creating Layer ip2
I0501 02:42:36.823738 16818 net.cpp:408] ip2 <- ip1
I0501 02:42:36.823743 16818 net.cpp:382] ip2 -> ip2
I0501 02:42:36.823879 16818 net.cpp:124] Setting up ip2
I0501 02:42:36.823887 16818 net.cpp:131] Top shape: 1000 10 (10000)
I0501 02:42:36.823890 16818 net.cpp:139] Memory required for data: 86708000
I0501 02:42:36.823897 16818 layer_factory.hpp:77] Creating layer relu2
I0501 02:42:36.823902 16818 net.cpp:86] Creating Layer relu2
I0501 02:42:36.823906 16818 net.cpp:408] relu2 <- ip2
I0501 02:42:36.823910 16818 net.cpp:369] relu2 -> ip2 (in-place)
I0501 02:42:36.824061 16818 net.cpp:124] Setting up relu2
I0501 02:42:36.824069 16818 net.cpp:131] Top shape: 1000 10 (10000)
I0501 02:42:36.824072 16818 net.cpp:139] Memory required for data: 86748000
I0501 02:42:36.824075 16818 layer_factory.hpp:77] Creating layer ip3
I0501 02:42:36.824081 16818 net.cpp:86] Creating Layer ip3
I0501 02:42:36.824084 16818 net.cpp:408] ip3 <- ip2
I0501 02:42:36.824090 16818 net.cpp:382] ip3 -> ip3
I0501 02:42:36.824190 16818 net.cpp:124] Setting up ip3
I0501 02:42:36.824198 16818 net.cpp:131] Top shape: 1000 10 (10000)
I0501 02:42:36.824200 16818 net.cpp:139] Memory required for data: 86788000
I0501 02:42:36.824218 16818 layer_factory.hpp:77] Creating layer ip3_ip3_0_split
I0501 02:42:36.824223 16818 net.cpp:86] Creating Layer ip3_ip3_0_split
I0501 02:42:36.824226 16818 net.cpp:408] ip3_ip3_0_split <- ip3
I0501 02:42:36.824231 16818 net.cpp:382] ip3_ip3_0_split -> ip3_ip3_0_split_0
I0501 02:42:36.824236 16818 net.cpp:382] ip3_ip3_0_split -> ip3_ip3_0_split_1
I0501 02:42:36.824267 16818 net.cpp:124] Setting up ip3_ip3_0_split
I0501 02:42:36.824272 16818 net.cpp:131] Top shape: 1000 10 (10000)
I0501 02:42:36.824276 16818 net.cpp:131] Top shape: 1000 10 (10000)
I0501 02:42:36.824278 16818 net.cpp:139] Memory required for data: 86868000
I0501 02:42:36.824281 16818 layer_factory.hpp:77] Creating layer accuracy
I0501 02:42:36.824287 16818 net.cpp:86] Creating Layer accuracy
I0501 02:42:36.824291 16818 net.cpp:408] accuracy <- ip3_ip3_0_split_0
I0501 02:42:36.824302 16818 net.cpp:408] accuracy <- label_cifar_1_split_0
I0501 02:42:36.824306 16818 net.cpp:382] accuracy -> accuracy
…
