…
I0501 04:45:14.157557 26408 net.cpp:296] The NetState phase (0) differed from the phase (1) specified by a rule in layer cifar
I0501 04:45:14.157574 26408 net.cpp:296] The NetState phase (0) differed from the phase (1) specified by a rule in layer accuracy
I0501 04:45:14.157677 26408 net.cpp:53] Initializing net from parameters: 
name: "CIFAR"
state {
  phase: TRAIN
  level: 0
  stage: ""
}
layer {
  name: "cifar"
  type: "Data"
  top: "data"
  top: "label"
  include {
    phase: TRAIN
  }
  transform_param {
    mean_file: "examples/cifar10/mean.binaryproto"
  }
  data_param {
    source: "examples/cifar10/cifar10_train_lmdb"
    batch_size: 111
    backend: LMDB
  }
}
layer {
  name: "conv0"
  type: "Convolution"
  bottom: "data"
  top: "conv0"
  param {
    lr_mult: 1
  }
  param {
    lr_mult: 2
  }
  convolution_param {
    num_output: 8
    pad: 2
    kernel_size: 5
    stride: 1
    weight_filler {
      type: "gaussian"
      std: 0.01
    }
    bias_filler {
      type: "constant"
    }
  }
}
layer {
  name: "Sigmoid0"
  type: "Sigmoid"
  bottom: "conv0"
  top: "Sigmoid0"
}
layer {
  name: "pool0"
  type: "Pooling"
  bottom: "Sigmoid0"
  top: "pool0"
  pooling_param {
    pool: AVE
    kernel_size: 3
    stride: 2
  }
}
layer {
  name: "ip1"
  type: "InnerProduct"
  bottom: "pool0"
  top: "ip1"
  param {
    lr_mult: 1
  }
  param {
    lr_mult: 2
  }
  inner_product_param {
    num_output: 40
    weight_filler {
      type: "gaussian"
      std: 0.01
    }
    bias_filler {
      type: "constant"
    }
  }
}
layer {
  name: "relu1"
  type: "ReLU"
  bottom: "ip1"
  top: "ip1"
}
layer {
  name: "ip2"
  type: "InnerProduct"
  bottom: "ip1"
  top: "ip2"
  param {
    lr_mult: 1
  }
  param {
    lr_mult: 2
  }
  inner_product_param {
    num_output: 20
    weight_filler {
      type: "gaussian"
      std: 0.01
    }
    bias_filler {
      type: "constant"
    }
  }
}
layer {
  name: "relu2"
  type: "ReLU"
  bottom: "ip2"
  top: "ip2"
}
layer {
  name: "ip3"
  type: "InnerProduct"
  bottom: "ip2"
  top: "ip3"
  param {
    lr_mult: 1
  }
  param {
    lr_mult: 2
  }
  inner_product_param {
    num_output: 20
    weight_filler {
      type: "gaussian"
      std: 0.01
    }
    bias_filler {
      type: "constant"
    }
  }
}
layer {
  name: "relu3"
  type: "ReLU"
  bottom: "ip3"
  top: "ip3"
}
layer {
  name: "ip4"
  type: "InnerProduct"
  bottom: "ip3"
  top: "ip4"
  param {
    lr_mult: 1
  }
  param {
    lr_mult: 2
  }
  inner_product_param {
    num_output: 10
    weight_filler {
      type: "gaussian"
      std: 0.01
    }
    bias_filler {
      type: "constant"
    }
  }
}
layer {
  name: "loss"
  type: "SoftmaxWithLoss"
  bottom: "ip4"
  bottom: "label"
  top: "loss"
}
I0501 04:45:14.157754 26408 layer_factory.hpp:77] Creating layer cifar
I0501 04:45:14.157852 26408 db_lmdb.cpp:35] Opened lmdb examples/cifar10/cifar10_train_lmdb
I0501 04:45:14.157881 26408 net.cpp:86] Creating Layer cifar
I0501 04:45:14.157891 26408 net.cpp:382] cifar -> data
I0501 04:45:14.157912 26408 net.cpp:382] cifar -> label
I0501 04:45:14.157925 26408 data_transformer.cpp:25] Loading mean file from: examples/cifar10/mean.binaryproto
I0501 04:45:14.160076 26408 data_layer.cpp:45] output data size: 111,3,32,32
I0501 04:45:14.168022 26408 net.cpp:124] Setting up cifar
I0501 04:45:14.168041 26408 net.cpp:131] Top shape: 111 3 32 32 (340992)
I0501 04:45:14.168048 26408 net.cpp:131] Top shape: 111 (111)
I0501 04:45:14.168052 26408 net.cpp:139] Memory required for data: 1364412
I0501 04:45:14.168076 26408 layer_factory.hpp:77] Creating layer conv0
I0501 04:45:14.168095 26408 net.cpp:86] Creating Layer conv0
I0501 04:45:14.168103 26408 net.cpp:408] conv0 <- data
I0501 04:45:14.168118 26408 net.cpp:382] conv0 -> conv0
I0501 04:45:14.462013 26408 net.cpp:124] Setting up conv0
I0501 04:45:14.462044 26408 net.cpp:131] Top shape: 111 8 32 32 (909312)
I0501 04:45:14.462049 26408 net.cpp:139] Memory required for data: 5001660
I0501 04:45:14.462067 26408 layer_factory.hpp:77] Creating layer Sigmoid0
I0501 04:45:14.462082 26408 net.cpp:86] Creating Layer Sigmoid0
I0501 04:45:14.462086 26408 net.cpp:408] Sigmoid0 <- conv0
I0501 04:45:14.462093 26408 net.cpp:382] Sigmoid0 -> Sigmoid0
I0501 04:45:14.462301 26408 net.cpp:124] Setting up Sigmoid0
I0501 04:45:14.462311 26408 net.cpp:131] Top shape: 111 8 32 32 (909312)
I0501 04:45:14.462316 26408 net.cpp:139] Memory required for data: 8638908
I0501 04:45:14.462321 26408 layer_factory.hpp:77] Creating layer pool0
I0501 04:45:14.462328 26408 net.cpp:86] Creating Layer pool0
I0501 04:45:14.462332 26408 net.cpp:408] pool0 <- Sigmoid0
I0501 04:45:14.462338 26408 net.cpp:382] pool0 -> pool0
I0501 04:45:14.463232 26408 net.cpp:124] Setting up pool0
I0501 04:45:14.463248 26408 net.cpp:131] Top shape: 111 8 16 16 (227328)
I0501 04:45:14.463253 26408 net.cpp:139] Memory required for data: 9548220
I0501 04:45:14.463258 26408 layer_factory.hpp:77] Creating layer ip1
I0501 04:45:14.463268 26408 net.cpp:86] Creating Layer ip1
I0501 04:45:14.463273 26408 net.cpp:408] ip1 <- pool0
I0501 04:45:14.463281 26408 net.cpp:382] ip1 -> ip1
I0501 04:45:14.466114 26408 net.cpp:124] Setting up ip1
I0501 04:45:14.466125 26408 net.cpp:131] Top shape: 111 40 (4440)
I0501 04:45:14.466128 26408 net.cpp:139] Memory required for data: 9565980
I0501 04:45:14.466137 26408 layer_factory.hpp:77] Creating layer relu1
I0501 04:45:14.466145 26408 net.cpp:86] Creating Layer relu1
I0501 04:45:14.466148 26408 net.cpp:408] relu1 <- ip1
I0501 04:45:14.466153 26408 net.cpp:369] relu1 -> ip1 (in-place)
I0501 04:45:14.466334 26408 net.cpp:124] Setting up relu1
I0501 04:45:14.466344 26408 net.cpp:131] Top shape: 111 40 (4440)
I0501 04:45:14.466348 26408 net.cpp:139] Memory required for data: 9583740
I0501 04:45:14.466353 26408 layer_factory.hpp:77] Creating layer ip2
I0501 04:45:14.466361 26408 net.cpp:86] Creating Layer ip2
I0501 04:45:14.466365 26408 net.cpp:408] ip2 <- ip1
I0501 04:45:14.466372 26408 net.cpp:382] ip2 -> ip2
I0501 04:45:14.466509 26408 net.cpp:124] Setting up ip2
I0501 04:45:14.466518 26408 net.cpp:131] Top shape: 111 20 (2220)
I0501 04:45:14.466522 26408 net.cpp:139] Memory required for data: 9592620
I0501 04:45:14.466531 26408 layer_factory.hpp:77] Creating layer relu2
I0501 04:45:14.466540 26408 net.cpp:86] Creating Layer relu2
I0501 04:45:14.466544 26408 net.cpp:408] relu2 <- ip2
I0501 04:45:14.466549 26408 net.cpp:369] relu2 -> ip2 (in-place)
I0501 04:45:14.466748 26408 net.cpp:124] Setting up relu2
I0501 04:45:14.466758 26408 net.cpp:131] Top shape: 111 20 (2220)
I0501 04:45:14.466763 26408 net.cpp:139] Memory required for data: 9601500
I0501 04:45:14.466766 26408 layer_factory.hpp:77] Creating layer ip3
I0501 04:45:14.466775 26408 net.cpp:86] Creating Layer ip3
I0501 04:45:14.466781 26408 net.cpp:408] ip3 <- ip2
I0501 04:45:14.466787 26408 net.cpp:382] ip3 -> ip3
I0501 04:45:14.466922 26408 net.cpp:124] Setting up ip3
I0501 04:45:14.466930 26408 net.cpp:131] Top shape: 111 20 (2220)
I0501 04:45:14.466933 26408 net.cpp:139] Memory required for data: 9610380
I0501 04:45:14.466940 26408 layer_factory.hpp:77] Creating layer relu3
I0501 04:45:14.466946 26408 net.cpp:86] Creating Layer relu3
I0501 04:45:14.466950 26408 net.cpp:408] relu3 <- ip3
I0501 04:45:14.466955 26408 net.cpp:369] relu3 -> ip3 (in-place)
I0501 04:45:14.467149 26408 net.cpp:124] Setting up relu3
I0501 04:45:14.467159 26408 net.cpp:131] Top shape: 111 20 (2220)
I0501 04:45:14.467162 26408 net.cpp:139] Memory required for data: 9619260
I0501 04:45:14.467166 26408 layer_factory.hpp:77] Creating layer ip4
I0501 04:45:14.467190 26408 net.cpp:86] Creating Layer ip4
I0501 04:45:14.467195 26408 net.cpp:408] ip4 <- ip3
I0501 04:45:14.467202 26408 net.cpp:382] ip4 -> ip4
I0501 04:45:14.467331 26408 net.cpp:124] Setting up ip4
I0501 04:45:14.467341 26408 net.cpp:131] Top shape: 111 10 (1110)
I0501 04:45:14.467344 26408 net.cpp:139] Memory required for data: 9623700
I0501 04:45:14.467355 26408 layer_factory.hpp:77] Creating layer loss
I0501 04:45:14.467367 26408 net.cpp:86] Creating Layer loss
I0501 04:45:14.467371 26408 net.cpp:408] loss <- ip4
I0501 04:45:14.467376 26408 net.cpp:408] loss <- label
I0501 04:45:14.467382 26408 net.cpp:382] loss -> loss
I0501 04:45:14.467397 26408 layer_factory.hpp:77] Creating layer loss
…
I0501 04:45:14.468832 26408 solver.cpp:173] Creating test net (#0) specified by net file: ECE595/cifar/train_test/var_everything/cifar_train_test_396.prototxt
I0501 04:45:14.468864 26408 net.cpp:296] The NetState phase (1) differed from the phase (0) specified by a rule in layer cifar
I0501 04:45:14.468976 26408 net.cpp:53] Initializing net from parameters: 
name: "CIFAR"
state {
  phase: TEST
}
layer {
  name: "cifar"
  type: "Data"
  top: "data"
  top: "label"
  include {
    phase: TEST
  }
  transform_param {
    mean_file: "examples/cifar10/mean.binaryproto"
  }
  data_param {
    source: "examples/cifar10/cifar10_test_lmdb"
    batch_size: 1000
    backend: LMDB
  }
}
layer {
  name: "conv0"
  type: "Convolution"
  bottom: "data"
  top: "conv0"
  param {
    lr_mult: 1
  }
  param {
    lr_mult: 2
  }
  convolution_param {
    num_output: 8
    pad: 2
    kernel_size: 5
    stride: 1
    weight_filler {
      type: "gaussian"
      std: 0.01
    }
    bias_filler {
      type: "constant"
    }
  }
}
layer {
  name: "Sigmoid0"
  type: "Sigmoid"
  bottom: "conv0"
  top: "Sigmoid0"
}
layer {
  name: "pool0"
  type: "Pooling"
  bottom: "Sigmoid0"
  top: "pool0"
  pooling_param {
    pool: AVE
    kernel_size: 3
    stride: 2
  }
}
layer {
  name: "ip1"
  type: "InnerProduct"
  bottom: "pool0"
  top: "ip1"
  param {
    lr_mult: 1
  }
  param {
    lr_mult: 2
  }
  inner_product_param {
    num_output: 40
    weight_filler {
      type: "gaussian"
      std: 0.01
    }
    bias_filler {
      type: "constant"
    }
  }
}
layer {
  name: "relu1"
  type: "ReLU"
  bottom: "ip1"
  top: "ip1"
}
layer {
  name: "ip2"
  type: "InnerProduct"
  bottom: "ip1"
  top: "ip2"
  param {
    lr_mult: 1
  }
  param {
    lr_mult: 2
  }
  inner_product_param {
    num_output: 20
    weight_filler {
      type: "gaussian"
      std: 0.01
    }
    bias_filler {
      type: "constant"
    }
  }
}
layer {
  name: "relu2"
  type: "ReLU"
  bottom: "ip2"
  top: "ip2"
}
layer {
  name: "ip3"
  type: "InnerProduct"
  bottom: "ip2"
  top: "ip3"
  param {
    lr_mult: 1
  }
  param {
    lr_mult: 2
  }
  inner_product_param {
    num_output: 20
    weight_filler {
      type: "gaussian"
      std: 0.01
    }
    bias_filler {
      type: "constant"
    }
  }
}
layer {
  name: "relu3"
  type: "ReLU"
  bottom: "ip3"
  top: "ip3"
}
layer {
  name: "ip4"
  type: "InnerProduct"
  bottom: "ip3"
  top: "ip4"
  param {
    lr_mult: 1
  }
  param {
    lr_mult: 2
  }
  inner_product_param {
    num_output: 10
    weight_filler {
      type: "gaussian"
      std: 0.01
    }
    bias_filler {
      type: "constant"
    }
  }
}
layer {
  name: "accuracy"
  type: "Accuracy"
  bottom: "ip4"
  bottom: "label"
  top: "accuracy"
  include {
    phase: TEST
  }
}
layer {
  name: "loss"
  type: "SoftmaxWithLoss"
  bottom: "ip4"
  bottom: "label"
  top: "loss"
}
I0501 04:45:14.469070 26408 layer_factory.hpp:77] Creating layer cifar
I0501 04:45:14.469125 26408 db_lmdb.cpp:35] Opened lmdb examples/cifar10/cifar10_test_lmdb
I0501 04:45:14.469139 26408 net.cpp:86] Creating Layer cifar
I0501 04:45:14.469144 26408 net.cpp:382] cifar -> data
I0501 04:45:14.469153 26408 net.cpp:382] cifar -> label
I0501 04:45:14.469161 26408 data_transformer.cpp:25] Loading mean file from: examples/cifar10/mean.binaryproto
I0501 04:45:14.469328 26408 data_layer.cpp:45] output data size: 1000,3,32,32
I0501 04:45:14.495206 26408 net.cpp:124] Setting up cifar
I0501 04:45:14.495237 26408 net.cpp:131] Top shape: 1000 3 32 32 (3072000)
I0501 04:45:14.495244 26408 net.cpp:131] Top shape: 1000 (1000)
I0501 04:45:14.495249 26408 net.cpp:139] Memory required for data: 12292000
I0501 04:45:14.495255 26408 layer_factory.hpp:77] Creating layer label_cifar_1_split
I0501 04:45:14.495270 26408 net.cpp:86] Creating Layer label_cifar_1_split
I0501 04:45:14.495275 26408 net.cpp:408] label_cifar_1_split <- label
I0501 04:45:14.495282 26408 net.cpp:382] label_cifar_1_split -> label_cifar_1_split_0
I0501 04:45:14.495291 26408 net.cpp:382] label_cifar_1_split -> label_cifar_1_split_1
I0501 04:45:14.495420 26408 net.cpp:124] Setting up label_cifar_1_split
I0501 04:45:14.495429 26408 net.cpp:131] Top shape: 1000 (1000)
I0501 04:45:14.495434 26408 net.cpp:131] Top shape: 1000 (1000)
I0501 04:45:14.495438 26408 net.cpp:139] Memory required for data: 12300000
I0501 04:45:14.495441 26408 layer_factory.hpp:77] Creating layer conv0
I0501 04:45:14.495456 26408 net.cpp:86] Creating Layer conv0
I0501 04:45:14.495460 26408 net.cpp:408] conv0 <- data
I0501 04:45:14.495466 26408 net.cpp:382] conv0 -> conv0
I0501 04:45:14.498199 26408 net.cpp:124] Setting up conv0
I0501 04:45:14.498219 26408 net.cpp:131] Top shape: 1000 8 32 32 (8192000)
I0501 04:45:14.498224 26408 net.cpp:139] Memory required for data: 45068000
I0501 04:45:14.498236 26408 layer_factory.hpp:77] Creating layer Sigmoid0
I0501 04:45:14.498245 26408 net.cpp:86] Creating Layer Sigmoid0
I0501 04:45:14.498250 26408 net.cpp:408] Sigmoid0 <- conv0
I0501 04:45:14.498255 26408 net.cpp:382] Sigmoid0 -> Sigmoid0
I0501 04:45:14.498471 26408 net.cpp:124] Setting up Sigmoid0
I0501 04:45:14.498483 26408 net.cpp:131] Top shape: 1000 8 32 32 (8192000)
I0501 04:45:14.498487 26408 net.cpp:139] Memory required for data: 77836000
I0501 04:45:14.498492 26408 layer_factory.hpp:77] Creating layer pool0
I0501 04:45:14.498500 26408 net.cpp:86] Creating Layer pool0
I0501 04:45:14.498504 26408 net.cpp:408] pool0 <- Sigmoid0
I0501 04:45:14.498510 26408 net.cpp:382] pool0 -> pool0
I0501 04:45:14.498709 26408 net.cpp:124] Setting up pool0
I0501 04:45:14.498720 26408 net.cpp:131] Top shape: 1000 8 16 16 (2048000)
I0501 04:45:14.498724 26408 net.cpp:139] Memory required for data: 86028000
I0501 04:45:14.498728 26408 layer_factory.hpp:77] Creating layer ip1
I0501 04:45:14.498736 26408 net.cpp:86] Creating Layer ip1
I0501 04:45:14.498740 26408 net.cpp:408] ip1 <- pool0
I0501 04:45:14.498746 26408 net.cpp:382] ip1 -> ip1
I0501 04:45:14.501571 26408 net.cpp:124] Setting up ip1
I0501 04:45:14.501581 26408 net.cpp:131] Top shape: 1000 40 (40000)
I0501 04:45:14.501585 26408 net.cpp:139] Memory required for data: 86188000
I0501 04:45:14.501612 26408 layer_factory.hpp:77] Creating layer relu1
I0501 04:45:14.501621 26408 net.cpp:86] Creating Layer relu1
I0501 04:45:14.501626 26408 net.cpp:408] relu1 <- ip1
I0501 04:45:14.501631 26408 net.cpp:369] relu1 -> ip1 (in-place)
I0501 04:45:14.501828 26408 net.cpp:124] Setting up relu1
I0501 04:45:14.501838 26408 net.cpp:131] Top shape: 1000 40 (40000)
I0501 04:45:14.501842 26408 net.cpp:139] Memory required for data: 86348000
I0501 04:45:14.501847 26408 layer_factory.hpp:77] Creating layer ip2
I0501 04:45:14.501853 26408 net.cpp:86] Creating Layer ip2
I0501 04:45:14.501857 26408 net.cpp:408] ip2 <- ip1
I0501 04:45:14.501863 26408 net.cpp:382] ip2 -> ip2
I0501 04:45:14.502015 26408 net.cpp:124] Setting up ip2
I0501 04:45:14.502024 26408 net.cpp:131] Top shape: 1000 20 (20000)
I0501 04:45:14.502028 26408 net.cpp:139] Memory required for data: 86428000
I0501 04:45:14.502038 26408 layer_factory.hpp:77] Creating layer relu2
I0501 04:45:14.502046 26408 net.cpp:86] Creating Layer relu2
I0501 04:45:14.502049 26408 net.cpp:408] relu2 <- ip2
I0501 04:45:14.502054 26408 net.cpp:369] relu2 -> ip2 (in-place)
I0501 04:45:14.502944 26408 net.cpp:124] Setting up relu2
I0501 04:45:14.502959 26408 net.cpp:131] Top shape: 1000 20 (20000)
I0501 04:45:14.502964 26408 net.cpp:139] Memory required for data: 86508000
I0501 04:45:14.502969 26408 layer_factory.hpp:77] Creating layer ip3
I0501 04:45:14.502976 26408 net.cpp:86] Creating Layer ip3
I0501 04:45:14.502980 26408 net.cpp:408] ip3 <- ip2
I0501 04:45:14.502987 26408 net.cpp:382] ip3 -> ip3
I0501 04:45:14.503125 26408 net.cpp:124] Setting up ip3
I0501 04:45:14.503134 26408 net.cpp:131] Top shape: 1000 20 (20000)
I0501 04:45:14.503139 26408 net.cpp:139] Memory required for data: 86588000
I0501 04:45:14.503145 26408 layer_factory.hpp:77] Creating layer relu3
I0501 04:45:14.503151 26408 net.cpp:86] Creating Layer relu3
I0501 04:45:14.503155 26408 net.cpp:408] relu3 <- ip3
I0501 04:45:14.503160 26408 net.cpp:369] relu3 -> ip3 (in-place)
I0501 04:45:14.503343 26408 net.cpp:124] Setting up relu3
I0501 04:45:14.503352 26408 net.cpp:131] Top shape: 1000 20 (20000)
I0501 04:45:14.503356 26408 net.cpp:139] Memory required for data: 86668000
I0501 04:45:14.503360 26408 layer_factory.hpp:77] Creating layer ip4
I0501 04:45:14.503367 26408 net.cpp:86] Creating Layer ip4
I0501 04:45:14.503371 26408 net.cpp:408] ip4 <- ip3
I0501 04:45:14.503376 26408 net.cpp:382] ip4 -> ip4
I0501 04:45:14.503506 26408 net.cpp:124] Setting up ip4
I0501 04:45:14.503515 26408 net.cpp:131] Top shape: 1000 10 (10000)
I0501 04:45:14.503518 26408 net.cpp:139] Memory required for data: 86708000
I0501 04:45:14.503528 26408 layer_factory.hpp:77] Creating layer ip4_ip4_0_split
I0501 04:45:14.503535 26408 net.cpp:86] Creating Layer ip4_ip4_0_split
I0501 04:45:14.503538 26408 net.cpp:408] ip4_ip4_0_split <- ip4
I0501 04:45:14.503543 26408 net.cpp:382] ip4_ip4_0_split -> ip4_ip4_0_split_0
I0501 04:45:14.503549 26408 net.cpp:382] ip4_ip4_0_split -> ip4_ip4_0_split_1
I0501 04:45:14.503587 26408 net.cpp:124] Setting up ip4_ip4_0_split
I0501 04:45:14.503593 26408 net.cpp:131] Top shape: 1000 10 (10000)
I0501 04:45:14.503597 26408 net.cpp:131] Top shape: 1000 10 (10000)
I0501 04:45:14.503602 26408 net.cpp:139] Memory required for data: 86788000
I0501 04:45:14.503604 26408 layer_factory.hpp:77] Creating layer accuracy
I0501 04:45:14.503612 26408 net.cpp:86] Creating Layer accuracy
I0501 04:45:14.503615 26408 net.cpp:408] accuracy <- ip4_ip4_0_split_0
I0501 04:45:14.503619 26408 net.cpp:408] accuracy <- label_cifar_1_split_0
I0501 04:45:14.503625 26408 net.cpp:382] accuracy -> accuracy
…
