…
I0430 21:33:07.403295 31108 net.cpp:296] The NetState phase (0) differed from the phase (1) specified by a rule in layer cifar
I0430 21:33:07.403311 31108 net.cpp:296] The NetState phase (0) differed from the phase (1) specified by a rule in layer accuracy
I0430 21:33:07.403404 31108 net.cpp:53] Initializing net from parameters: 
name: "CIFAR"
state {
  phase: TRAIN
  level: 0
  stage: ""
}
layer {
  name: "cifar"
  type: "Data"
  top: "data"
  top: "label"
  include {
    phase: TRAIN
  }
  transform_param {
    mean_file: "examples/cifar10/mean.binaryproto"
  }
  data_param {
    source: "examples/cifar10/cifar10_train_lmdb"
    batch_size: 111
    backend: LMDB
  }
}
layer {
  name: "conv0"
  type: "Convolution"
  bottom: "data"
  top: "conv0"
  param {
    lr_mult: 1
  }
  param {
    lr_mult: 2
  }
  convolution_param {
    num_output: 8
    pad: 2
    kernel_size: 3
    stride: 1
    weight_filler {
      type: "gaussian"
      std: 0.01
    }
    bias_filler {
      type: "constant"
    }
  }
}
layer {
  name: "Sigmoid0"
  type: "Sigmoid"
  bottom: "conv0"
  top: "Sigmoid0"
}
layer {
  name: "pool0"
  type: "Pooling"
  bottom: "Sigmoid0"
  top: "pool0"
  pooling_param {
    pool: AVE
    kernel_size: 3
    stride: 2
  }
}
layer {
  name: "ip1"
  type: "InnerProduct"
  bottom: "pool0"
  top: "ip1"
  param {
    lr_mult: 1
  }
  param {
    lr_mult: 2
  }
  inner_product_param {
    num_output: 20
    weight_filler {
      type: "gaussian"
      std: 0.01
    }
    bias_filler {
      type: "constant"
    }
  }
}
layer {
  name: "relu1"
  type: "ReLU"
  bottom: "ip1"
  top: "ip1"
}
layer {
  name: "ip2"
  type: "InnerProduct"
  bottom: "ip1"
  top: "ip2"
  param {
    lr_mult: 1
  }
  param {
    lr_mult: 2
  }
  inner_product_param {
    num_output: 10
    weight_filler {
      type: "gaussian"
      std: 0.01
    }
    bias_filler {
      type: "constant"
    }
  }
}
layer {
  name: "relu2"
  type: "ReLU"
  bottom: "ip2"
  top: "ip2"
}
layer {
  name: "ip3"
  type: "InnerProduct"
  bottom: "ip2"
  top: "ip3"
  param {
    lr_mult: 1
  }
  param {
    lr_mult: 2
  }
  inner_product_param {
    num_output: 10
    weight_filler {
      type: "gaussian"
      std: 0.01
    }
    bias_filler {
      type: "constant"
    }
  }
}
layer {
  name: "loss"
  type: "SoftmaxWithLoss"
  bottom: "ip3"
  bottom: "label"
  top: "loss"
}
I0430 21:33:07.403477 31108 layer_factory.hpp:77] Creating layer cifar
I0430 21:33:07.403578 31108 db_lmdb.cpp:35] Opened lmdb examples/cifar10/cifar10_train_lmdb
I0430 21:33:07.403604 31108 net.cpp:86] Creating Layer cifar
I0430 21:33:07.403612 31108 net.cpp:382] cifar -> data
I0430 21:33:07.403635 31108 net.cpp:382] cifar -> label
I0430 21:33:07.403646 31108 data_transformer.cpp:25] Loading mean file from: examples/cifar10/mean.binaryproto
I0430 21:33:07.405781 31108 data_layer.cpp:45] output data size: 111,3,32,32
I0430 21:33:07.413643 31108 net.cpp:124] Setting up cifar
I0430 21:33:07.413662 31108 net.cpp:131] Top shape: 111 3 32 32 (340992)
I0430 21:33:07.413669 31108 net.cpp:131] Top shape: 111 (111)
I0430 21:33:07.413674 31108 net.cpp:139] Memory required for data: 1364412
I0430 21:33:07.413682 31108 layer_factory.hpp:77] Creating layer conv0
I0430 21:33:07.413699 31108 net.cpp:86] Creating Layer conv0
I0430 21:33:07.413705 31108 net.cpp:408] conv0 <- data
I0430 21:33:07.413718 31108 net.cpp:382] conv0 -> conv0
I0430 21:33:07.696974 31108 net.cpp:124] Setting up conv0
I0430 21:33:07.697017 31108 net.cpp:131] Top shape: 111 8 34 34 (1026528)
I0430 21:33:07.697022 31108 net.cpp:139] Memory required for data: 5470524
I0430 21:33:07.697037 31108 layer_factory.hpp:77] Creating layer Sigmoid0
I0430 21:33:07.697049 31108 net.cpp:86] Creating Layer Sigmoid0
I0430 21:33:07.697053 31108 net.cpp:408] Sigmoid0 <- conv0
I0430 21:33:07.697059 31108 net.cpp:382] Sigmoid0 -> Sigmoid0
I0430 21:33:07.697238 31108 net.cpp:124] Setting up Sigmoid0
I0430 21:33:07.697248 31108 net.cpp:131] Top shape: 111 8 34 34 (1026528)
I0430 21:33:07.697252 31108 net.cpp:139] Memory required for data: 9576636
I0430 21:33:07.697254 31108 layer_factory.hpp:77] Creating layer pool0
I0430 21:33:07.697262 31108 net.cpp:86] Creating Layer pool0
I0430 21:33:07.697265 31108 net.cpp:408] pool0 <- Sigmoid0
I0430 21:33:07.697269 31108 net.cpp:382] pool0 -> pool0
I0430 21:33:07.698040 31108 net.cpp:124] Setting up pool0
I0430 21:33:07.698055 31108 net.cpp:131] Top shape: 111 8 17 17 (256632)
I0430 21:33:07.698057 31108 net.cpp:139] Memory required for data: 10603164
I0430 21:33:07.698061 31108 layer_factory.hpp:77] Creating layer ip1
I0430 21:33:07.698076 31108 net.cpp:86] Creating Layer ip1
I0430 21:33:07.698078 31108 net.cpp:408] ip1 <- pool0
I0430 21:33:07.698084 31108 net.cpp:382] ip1 -> ip1
I0430 21:33:07.700242 31108 net.cpp:124] Setting up ip1
I0430 21:33:07.700254 31108 net.cpp:131] Top shape: 111 20 (2220)
I0430 21:33:07.700258 31108 net.cpp:139] Memory required for data: 10612044
I0430 21:33:07.700265 31108 layer_factory.hpp:77] Creating layer relu1
I0430 21:33:07.700271 31108 net.cpp:86] Creating Layer relu1
I0430 21:33:07.700274 31108 net.cpp:408] relu1 <- ip1
I0430 21:33:07.700279 31108 net.cpp:369] relu1 -> ip1 (in-place)
I0430 21:33:07.700433 31108 net.cpp:124] Setting up relu1
I0430 21:33:07.700443 31108 net.cpp:131] Top shape: 111 20 (2220)
I0430 21:33:07.700445 31108 net.cpp:139] Memory required for data: 10620924
I0430 21:33:07.700448 31108 layer_factory.hpp:77] Creating layer ip2
I0430 21:33:07.700455 31108 net.cpp:86] Creating Layer ip2
I0430 21:33:07.700459 31108 net.cpp:408] ip2 <- ip1
I0430 21:33:07.700464 31108 net.cpp:382] ip2 -> ip2
I0430 21:33:07.700562 31108 net.cpp:124] Setting up ip2
I0430 21:33:07.700568 31108 net.cpp:131] Top shape: 111 10 (1110)
I0430 21:33:07.700572 31108 net.cpp:139] Memory required for data: 10625364
I0430 21:33:07.700578 31108 layer_factory.hpp:77] Creating layer relu2
I0430 21:33:07.700583 31108 net.cpp:86] Creating Layer relu2
I0430 21:33:07.700587 31108 net.cpp:408] relu2 <- ip2
I0430 21:33:07.700590 31108 net.cpp:369] relu2 -> ip2 (in-place)
I0430 21:33:07.700739 31108 net.cpp:124] Setting up relu2
I0430 21:33:07.700747 31108 net.cpp:131] Top shape: 111 10 (1110)
I0430 21:33:07.700750 31108 net.cpp:139] Memory required for data: 10629804
I0430 21:33:07.700753 31108 layer_factory.hpp:77] Creating layer ip3
I0430 21:33:07.700760 31108 net.cpp:86] Creating Layer ip3
I0430 21:33:07.700763 31108 net.cpp:408] ip3 <- ip2
I0430 21:33:07.700768 31108 net.cpp:382] ip3 -> ip3
I0430 21:33:07.700892 31108 net.cpp:124] Setting up ip3
I0430 21:33:07.700901 31108 net.cpp:131] Top shape: 111 10 (1110)
I0430 21:33:07.700904 31108 net.cpp:139] Memory required for data: 10634244
I0430 21:33:07.700911 31108 layer_factory.hpp:77] Creating layer loss
I0430 21:33:07.700917 31108 net.cpp:86] Creating Layer loss
I0430 21:33:07.700919 31108 net.cpp:408] loss <- ip3
I0430 21:33:07.700923 31108 net.cpp:408] loss <- label
I0430 21:33:07.700929 31108 net.cpp:382] loss -> loss
I0430 21:33:07.700947 31108 layer_factory.hpp:77] Creating layer loss
…
I0430 21:33:07.701567 31108 solver.cpp:173] Creating test net (#0) specified by net file: ECE595/cifar/train_test/var_everything/cifar_train_test_165.prototxt
I0430 21:33:07.701593 31108 net.cpp:296] The NetState phase (1) differed from the phase (0) specified by a rule in layer cifar
I0430 21:33:07.701679 31108 net.cpp:53] Initializing net from parameters: 
name: "CIFAR"
state {
  phase: TEST
}
layer {
  name: "cifar"
  type: "Data"
  top: "data"
  top: "label"
  include {
    phase: TEST
  }
  transform_param {
    mean_file: "examples/cifar10/mean.binaryproto"
  }
  data_param {
    source: "examples/cifar10/cifar10_test_lmdb"
    batch_size: 1000
    backend: LMDB
  }
}
layer {
  name: "conv0"
  type: "Convolution"
  bottom: "data"
  top: "conv0"
  param {
    lr_mult: 1
  }
  param {
    lr_mult: 2
  }
  convolution_param {
    num_output: 8
    pad: 2
    kernel_size: 3
    stride: 1
    weight_filler {
      type: "gaussian"
      std: 0.01
    }
    bias_filler {
      type: "constant"
    }
  }
}
layer {
  name: "Sigmoid0"
  type: "Sigmoid"
  bottom: "conv0"
  top: "Sigmoid0"
}
layer {
  name: "pool0"
  type: "Pooling"
  bottom: "Sigmoid0"
  top: "pool0"
  pooling_param {
    pool: AVE
    kernel_size: 3
    stride: 2
  }
}
layer {
  name: "ip1"
  type: "InnerProduct"
  bottom: "pool0"
  top: "ip1"
  param {
    lr_mult: 1
  }
  param {
    lr_mult: 2
  }
  inner_product_param {
    num_output: 20
    weight_filler {
      type: "gaussian"
      std: 0.01
    }
    bias_filler {
      type: "constant"
    }
  }
}
layer {
  name: "relu1"
  type: "ReLU"
  bottom: "ip1"
  top: "ip1"
}
layer {
  name: "ip2"
  type: "InnerProduct"
  bottom: "ip1"
  top: "ip2"
  param {
    lr_mult: 1
  }
  param {
    lr_mult: 2
  }
  inner_product_param {
    num_output: 10
    weight_filler {
      type: "gaussian"
      std: 0.01
    }
    bias_filler {
      type: "constant"
    }
  }
}
layer {
  name: "relu2"
  type: "ReLU"
  bottom: "ip2"
  top: "ip2"
}
layer {
  name: "ip3"
  type: "InnerProduct"
  bottom: "ip2"
  top: "ip3"
  param {
    lr_mult: 1
  }
  param {
    lr_mult: 2
  }
  inner_product_param {
    num_output: 10
    weight_filler {
      type: "gaussian"
      std: 0.01
    }
    bias_filler {
      type: "constant"
    }
  }
}
layer {
  name: "accuracy"
  type: "Accuracy"
  bottom: "ip3"
  bottom: "label"
  top: "accuracy"
  include {
    phase: TEST
  }
}
layer {
  name: "loss"
  type: "SoftmaxWithLoss"
  bottom: "ip3"
  bottom: "label"
  top: "loss"
}
I0430 21:33:07.701740 31108 layer_factory.hpp:77] Creating layer cifar
I0430 21:33:07.701782 31108 db_lmdb.cpp:35] Opened lmdb examples/cifar10/cifar10_test_lmdb
I0430 21:33:07.701794 31108 net.cpp:86] Creating Layer cifar
I0430 21:33:07.701799 31108 net.cpp:382] cifar -> data
I0430 21:33:07.701807 31108 net.cpp:382] cifar -> label
I0430 21:33:07.701813 31108 data_transformer.cpp:25] Loading mean file from: examples/cifar10/mean.binaryproto
I0430 21:33:07.701963 31108 data_layer.cpp:45] output data size: 1000,3,32,32
I0430 21:33:07.724901 31108 net.cpp:124] Setting up cifar
I0430 21:33:07.724944 31108 net.cpp:131] Top shape: 1000 3 32 32 (3072000)
I0430 21:33:07.724951 31108 net.cpp:131] Top shape: 1000 (1000)
I0430 21:33:07.724953 31108 net.cpp:139] Memory required for data: 12292000
I0430 21:33:07.724961 31108 layer_factory.hpp:77] Creating layer label_cifar_1_split
I0430 21:33:07.724979 31108 net.cpp:86] Creating Layer label_cifar_1_split
I0430 21:33:07.725002 31108 net.cpp:408] label_cifar_1_split <- label
I0430 21:33:07.725008 31108 net.cpp:382] label_cifar_1_split -> label_cifar_1_split_0
I0430 21:33:07.725018 31108 net.cpp:382] label_cifar_1_split -> label_cifar_1_split_1
I0430 21:33:07.725098 31108 net.cpp:124] Setting up label_cifar_1_split
I0430 21:33:07.725107 31108 net.cpp:131] Top shape: 1000 (1000)
I0430 21:33:07.725111 31108 net.cpp:131] Top shape: 1000 (1000)
I0430 21:33:07.725113 31108 net.cpp:139] Memory required for data: 12300000
I0430 21:33:07.725117 31108 layer_factory.hpp:77] Creating layer conv0
I0430 21:33:07.725129 31108 net.cpp:86] Creating Layer conv0
I0430 21:33:07.725133 31108 net.cpp:408] conv0 <- data
I0430 21:33:07.725139 31108 net.cpp:382] conv0 -> conv0
I0430 21:33:07.726763 31108 net.cpp:124] Setting up conv0
I0430 21:33:07.726776 31108 net.cpp:131] Top shape: 1000 8 34 34 (9248000)
I0430 21:33:07.726795 31108 net.cpp:139] Memory required for data: 49292000
I0430 21:33:07.726806 31108 layer_factory.hpp:77] Creating layer Sigmoid0
I0430 21:33:07.726814 31108 net.cpp:86] Creating Layer Sigmoid0
I0430 21:33:07.726816 31108 net.cpp:408] Sigmoid0 <- conv0
I0430 21:33:07.726821 31108 net.cpp:382] Sigmoid0 -> Sigmoid0
I0430 21:33:07.727708 31108 net.cpp:124] Setting up Sigmoid0
I0430 21:33:07.727736 31108 net.cpp:131] Top shape: 1000 8 34 34 (9248000)
I0430 21:33:07.727741 31108 net.cpp:139] Memory required for data: 86284000
I0430 21:33:07.727744 31108 layer_factory.hpp:77] Creating layer pool0
I0430 21:33:07.727752 31108 net.cpp:86] Creating Layer pool0
I0430 21:33:07.727756 31108 net.cpp:408] pool0 <- Sigmoid0
I0430 21:33:07.727761 31108 net.cpp:382] pool0 -> pool0
I0430 21:33:07.728970 31108 net.cpp:124] Setting up pool0
I0430 21:33:07.728981 31108 net.cpp:131] Top shape: 1000 8 17 17 (2312000)
I0430 21:33:07.728984 31108 net.cpp:139] Memory required for data: 95532000
I0430 21:33:07.728988 31108 layer_factory.hpp:77] Creating layer ip1
I0430 21:33:07.728997 31108 net.cpp:86] Creating Layer ip1
I0430 21:33:07.729001 31108 net.cpp:408] ip1 <- pool0
I0430 21:33:07.729022 31108 net.cpp:382] ip1 -> ip1
I0430 21:33:07.730453 31108 net.cpp:124] Setting up ip1
I0430 21:33:07.730461 31108 net.cpp:131] Top shape: 1000 20 (20000)
I0430 21:33:07.730464 31108 net.cpp:139] Memory required for data: 95612000
I0430 21:33:07.730473 31108 layer_factory.hpp:77] Creating layer relu1
I0430 21:33:07.730479 31108 net.cpp:86] Creating Layer relu1
I0430 21:33:07.730482 31108 net.cpp:408] relu1 <- ip1
I0430 21:33:07.730489 31108 net.cpp:369] relu1 -> ip1 (in-place)
I0430 21:33:07.730654 31108 net.cpp:124] Setting up relu1
I0430 21:33:07.730662 31108 net.cpp:131] Top shape: 1000 20 (20000)
I0430 21:33:07.730666 31108 net.cpp:139] Memory required for data: 95692000
I0430 21:33:07.730669 31108 layer_factory.hpp:77] Creating layer ip2
I0430 21:33:07.730679 31108 net.cpp:86] Creating Layer ip2
I0430 21:33:07.730682 31108 net.cpp:408] ip2 <- ip1
I0430 21:33:07.730686 31108 net.cpp:382] ip2 -> ip2
I0430 21:33:07.730803 31108 net.cpp:124] Setting up ip2
I0430 21:33:07.730813 31108 net.cpp:131] Top shape: 1000 10 (10000)
I0430 21:33:07.730815 31108 net.cpp:139] Memory required for data: 95732000
I0430 21:33:07.730823 31108 layer_factory.hpp:77] Creating layer relu2
I0430 21:33:07.730829 31108 net.cpp:86] Creating Layer relu2
I0430 21:33:07.730832 31108 net.cpp:408] relu2 <- ip2
I0430 21:33:07.730836 31108 net.cpp:369] relu2 -> ip2 (in-place)
I0430 21:33:07.731004 31108 net.cpp:124] Setting up relu2
I0430 21:33:07.731012 31108 net.cpp:131] Top shape: 1000 10 (10000)
I0430 21:33:07.731016 31108 net.cpp:139] Memory required for data: 95772000
I0430 21:33:07.731019 31108 layer_factory.hpp:77] Creating layer ip3
I0430 21:33:07.731025 31108 net.cpp:86] Creating Layer ip3
I0430 21:33:07.731029 31108 net.cpp:408] ip3 <- ip2
I0430 21:33:07.731035 31108 net.cpp:382] ip3 -> ip3
I0430 21:33:07.731145 31108 net.cpp:124] Setting up ip3
I0430 21:33:07.731153 31108 net.cpp:131] Top shape: 1000 10 (10000)
I0430 21:33:07.731156 31108 net.cpp:139] Memory required for data: 95812000
I0430 21:33:07.731173 31108 layer_factory.hpp:77] Creating layer ip3_ip3_0_split
I0430 21:33:07.731178 31108 net.cpp:86] Creating Layer ip3_ip3_0_split
I0430 21:33:07.731181 31108 net.cpp:408] ip3_ip3_0_split <- ip3
I0430 21:33:07.731187 31108 net.cpp:382] ip3_ip3_0_split -> ip3_ip3_0_split_0
I0430 21:33:07.731194 31108 net.cpp:382] ip3_ip3_0_split -> ip3_ip3_0_split_1
I0430 21:33:07.731227 31108 net.cpp:124] Setting up ip3_ip3_0_split
I0430 21:33:07.731235 31108 net.cpp:131] Top shape: 1000 10 (10000)
I0430 21:33:07.731240 31108 net.cpp:131] Top shape: 1000 10 (10000)
I0430 21:33:07.731241 31108 net.cpp:139] Memory required for data: 95892000
I0430 21:33:07.731245 31108 layer_factory.hpp:77] Creating layer accuracy
I0430 21:33:07.731251 31108 net.cpp:86] Creating Layer accuracy
I0430 21:33:07.731254 31108 net.cpp:408] accuracy <- ip3_ip3_0_split_0
I0430 21:33:07.731258 31108 net.cpp:408] accuracy <- label_cifar_1_split_0
I0430 21:33:07.731262 31108 net.cpp:382] accuracy -> accuracy
…
