…
I0430 17:46:24.245877 20585 net.cpp:296] The NetState phase (0) differed from the phase (1) specified by a rule in layer cifar
I0430 17:46:24.245893 20585 net.cpp:296] The NetState phase (0) differed from the phase (1) specified by a rule in layer accuracy
I0430 17:46:24.245980 20585 net.cpp:53] Initializing net from parameters: 
name: "CIFAR"
state {
  phase: TRAIN
  level: 0
  stage: ""
}
layer {
  name: "cifar"
  type: "Data"
  top: "data"
  top: "label"
  include {
    phase: TRAIN
  }
  transform_param {
    mean_file: "examples/cifar10/mean.binaryproto"
  }
  data_param {
    source: "examples/cifar10/cifar10_train_lmdb"
    batch_size: 111
    backend: LMDB
  }
}
layer {
  name: "ip1"
  type: "InnerProduct"
  bottom: "data"
  top: "ip1"
  param {
    lr_mult: 1
  }
  param {
    lr_mult: 2
  }
  inner_product_param {
    num_output: 10
    weight_filler {
      type: "gaussian"
      std: 0.01
    }
    bias_filler {
      type: "constant"
    }
  }
}
layer {
  name: "relu1"
  type: "ReLU"
  bottom: "ip1"
  top: "ip1"
}
layer {
  name: "ip2"
  type: "InnerProduct"
  bottom: "ip1"
  top: "ip2"
  param {
    lr_mult: 1
  }
  param {
    lr_mult: 2
  }
  inner_product_param {
    num_output: 80
    weight_filler {
      type: "gaussian"
      std: 0.01
    }
    bias_filler {
      type: "constant"
    }
  }
}
layer {
  name: "relu2"
  type: "ReLU"
  bottom: "ip2"
  top: "ip2"
}
layer {
  name: "ip3"
  type: "InnerProduct"
  bottom: "ip2"
  top: "ip3"
  param {
    lr_mult: 1
  }
  param {
    lr_mult: 2
  }
  inner_product_param {
    num_output: 10
    weight_filler {
      type: "gaussian"
      std: 0.01
    }
    bias_filler {
      type: "constant"
    }
  }
}
layer {
  name: "relu3"
  type: "ReLU"
  bottom: "ip3"
  top: "ip3"
}
layer {
  name: "ip4"
  type: "InnerProduct"
  bottom: "ip3"
  top: "ip4"
  param {
    lr_mult: 1
  }
  param {
    lr_mult: 2
  }
  inner_product_param {
    num_output: 10
    weight_filler {
      type: "gaussian"
      std: 0.01
    }
    bias_filler {
      type: "constant"
    }
  }
}
layer {
  name: "loss"
  type: "SoftmaxWithLoss"
  bottom: "ip4"
  bottom: "label"
  top: "loss"
}
I0430 17:46:24.246054 20585 layer_factory.hpp:77] Creating layer cifar
I0430 17:46:24.246155 20585 db_lmdb.cpp:35] Opened lmdb examples/cifar10/cifar10_train_lmdb
I0430 17:46:24.246183 20585 net.cpp:86] Creating Layer cifar
I0430 17:46:24.246192 20585 net.cpp:382] cifar -> data
I0430 17:46:24.246215 20585 net.cpp:382] cifar -> label
I0430 17:46:24.246227 20585 data_transformer.cpp:25] Loading mean file from: examples/cifar10/mean.binaryproto
I0430 17:46:24.248349 20585 data_layer.cpp:45] output data size: 111,3,32,32
I0430 17:46:24.256229 20585 net.cpp:124] Setting up cifar
I0430 17:46:24.256253 20585 net.cpp:131] Top shape: 111 3 32 32 (340992)
I0430 17:46:24.256258 20585 net.cpp:131] Top shape: 111 (111)
I0430 17:46:24.256263 20585 net.cpp:139] Memory required for data: 1364412
I0430 17:46:24.256270 20585 layer_factory.hpp:77] Creating layer ip1
I0430 17:46:24.256281 20585 net.cpp:86] Creating Layer ip1
I0430 17:46:24.256286 20585 net.cpp:408] ip1 <- data
I0430 17:46:24.256299 20585 net.cpp:382] ip1 -> ip1
I0430 17:46:24.258508 20585 net.cpp:124] Setting up ip1
I0430 17:46:24.258523 20585 net.cpp:131] Top shape: 111 10 (1110)
I0430 17:46:24.258527 20585 net.cpp:139] Memory required for data: 1368852
I0430 17:46:24.258543 20585 layer_factory.hpp:77] Creating layer relu1
I0430 17:46:24.258551 20585 net.cpp:86] Creating Layer relu1
I0430 17:46:24.258570 20585 net.cpp:408] relu1 <- ip1
I0430 17:46:24.258576 20585 net.cpp:369] relu1 -> ip1 (in-place)
I0430 17:46:24.537077 20585 net.cpp:124] Setting up relu1
I0430 17:46:24.537103 20585 net.cpp:131] Top shape: 111 10 (1110)
I0430 17:46:24.537107 20585 net.cpp:139] Memory required for data: 1373292
I0430 17:46:24.537113 20585 layer_factory.hpp:77] Creating layer ip2
I0430 17:46:24.537124 20585 net.cpp:86] Creating Layer ip2
I0430 17:46:24.537128 20585 net.cpp:408] ip2 <- ip1
I0430 17:46:24.537153 20585 net.cpp:382] ip2 -> ip2
I0430 17:46:24.538156 20585 net.cpp:124] Setting up ip2
I0430 17:46:24.538168 20585 net.cpp:131] Top shape: 111 80 (8880)
I0430 17:46:24.538172 20585 net.cpp:139] Memory required for data: 1408812
I0430 17:46:24.538182 20585 layer_factory.hpp:77] Creating layer relu2
I0430 17:46:24.538189 20585 net.cpp:86] Creating Layer relu2
I0430 17:46:24.538192 20585 net.cpp:408] relu2 <- ip2
I0430 17:46:24.538197 20585 net.cpp:369] relu2 -> ip2 (in-place)
I0430 17:46:24.538909 20585 net.cpp:124] Setting up relu2
I0430 17:46:24.538921 20585 net.cpp:131] Top shape: 111 80 (8880)
I0430 17:46:24.538924 20585 net.cpp:139] Memory required for data: 1444332
I0430 17:46:24.538928 20585 layer_factory.hpp:77] Creating layer ip3
I0430 17:46:24.538934 20585 net.cpp:86] Creating Layer ip3
I0430 17:46:24.538938 20585 net.cpp:408] ip3 <- ip2
I0430 17:46:24.538942 20585 net.cpp:382] ip3 -> ip3
I0430 17:46:24.539052 20585 net.cpp:124] Setting up ip3
I0430 17:46:24.539059 20585 net.cpp:131] Top shape: 111 10 (1110)
I0430 17:46:24.539062 20585 net.cpp:139] Memory required for data: 1448772
I0430 17:46:24.539069 20585 layer_factory.hpp:77] Creating layer relu3
I0430 17:46:24.539074 20585 net.cpp:86] Creating Layer relu3
I0430 17:46:24.539077 20585 net.cpp:408] relu3 <- ip3
I0430 17:46:24.539080 20585 net.cpp:369] relu3 -> ip3 (in-place)
I0430 17:46:24.539237 20585 net.cpp:124] Setting up relu3
I0430 17:46:24.539245 20585 net.cpp:131] Top shape: 111 10 (1110)
I0430 17:46:24.539248 20585 net.cpp:139] Memory required for data: 1453212
I0430 17:46:24.539252 20585 layer_factory.hpp:77] Creating layer ip4
I0430 17:46:24.539257 20585 net.cpp:86] Creating Layer ip4
I0430 17:46:24.539259 20585 net.cpp:408] ip4 <- ip3
I0430 17:46:24.539264 20585 net.cpp:382] ip4 -> ip4
I0430 17:46:24.539356 20585 net.cpp:124] Setting up ip4
I0430 17:46:24.539362 20585 net.cpp:131] Top shape: 111 10 (1110)
I0430 17:46:24.539366 20585 net.cpp:139] Memory required for data: 1457652
I0430 17:46:24.539371 20585 layer_factory.hpp:77] Creating layer loss
I0430 17:46:24.539377 20585 net.cpp:86] Creating Layer loss
I0430 17:46:24.539381 20585 net.cpp:408] loss <- ip4
I0430 17:46:24.539384 20585 net.cpp:408] loss <- label
I0430 17:46:24.539389 20585 net.cpp:382] loss -> loss
I0430 17:46:24.539407 20585 layer_factory.hpp:77] Creating layer loss
…
I0430 17:46:24.539944 20585 solver.cpp:173] Creating test net (#0) specified by net file: ECE595/cifar/train_test/var_everything/cifar_train_test_45.prototxt
I0430 17:46:24.539980 20585 net.cpp:296] The NetState phase (1) differed from the phase (0) specified by a rule in layer cifar
I0430 17:46:24.540051 20585 net.cpp:53] Initializing net from parameters: 
name: "CIFAR"
state {
  phase: TEST
}
layer {
  name: "cifar"
  type: "Data"
  top: "data"
  top: "label"
  include {
    phase: TEST
  }
  transform_param {
    mean_file: "examples/cifar10/mean.binaryproto"
  }
  data_param {
    source: "examples/cifar10/cifar10_test_lmdb"
    batch_size: 1000
    backend: LMDB
  }
}
layer {
  name: "ip1"
  type: "InnerProduct"
  bottom: "data"
  top: "ip1"
  param {
    lr_mult: 1
  }
  param {
    lr_mult: 2
  }
  inner_product_param {
    num_output: 10
    weight_filler {
      type: "gaussian"
      std: 0.01
    }
    bias_filler {
      type: "constant"
    }
  }
}
layer {
  name: "relu1"
  type: "ReLU"
  bottom: "ip1"
  top: "ip1"
}
layer {
  name: "ip2"
  type: "InnerProduct"
  bottom: "ip1"
  top: "ip2"
  param {
    lr_mult: 1
  }
  param {
    lr_mult: 2
  }
  inner_product_param {
    num_output: 80
    weight_filler {
      type: "gaussian"
      std: 0.01
    }
    bias_filler {
      type: "constant"
    }
  }
}
layer {
  name: "relu2"
  type: "ReLU"
  bottom: "ip2"
  top: "ip2"
}
layer {
  name: "ip3"
  type: "InnerProduct"
  bottom: "ip2"
  top: "ip3"
  param {
    lr_mult: 1
  }
  param {
    lr_mult: 2
  }
  inner_product_param {
    num_output: 10
    weight_filler {
      type: "gaussian"
      std: 0.01
    }
    bias_filler {
      type: "constant"
    }
  }
}
layer {
  name: "relu3"
  type: "ReLU"
  bottom: "ip3"
  top: "ip3"
}
layer {
  name: "ip4"
  type: "InnerProduct"
  bottom: "ip3"
  top: "ip4"
  param {
    lr_mult: 1
  }
  param {
    lr_mult: 2
  }
  inner_product_param {
    num_output: 10
    weight_filler {
      type: "gaussian"
      std: 0.01
    }
    bias_filler {
      type: "constant"
    }
  }
}
layer {
  name: "accuracy"
  type: "Accuracy"
  bottom: "ip4"
  bottom: "label"
  top: "accuracy"
  include {
    phase: TEST
  }
}
layer {
  name: "loss"
  type: "SoftmaxWithLoss"
  bottom: "ip4"
  bottom: "label"
  top: "loss"
}
I0430 17:46:24.540112 20585 layer_factory.hpp:77] Creating layer cifar
I0430 17:46:24.540154 20585 db_lmdb.cpp:35] Opened lmdb examples/cifar10/cifar10_test_lmdb
I0430 17:46:24.540165 20585 net.cpp:86] Creating Layer cifar
I0430 17:46:24.540170 20585 net.cpp:382] cifar -> data
I0430 17:46:24.540177 20585 net.cpp:382] cifar -> label
I0430 17:46:24.540184 20585 data_transformer.cpp:25] Loading mean file from: examples/cifar10/mean.binaryproto
I0430 17:46:24.540344 20585 data_layer.cpp:45] output data size: 1000,3,32,32
I0430 17:46:24.561998 20585 net.cpp:124] Setting up cifar
I0430 17:46:24.562024 20585 net.cpp:131] Top shape: 1000 3 32 32 (3072000)
I0430 17:46:24.562029 20585 net.cpp:131] Top shape: 1000 (1000)
I0430 17:46:24.562032 20585 net.cpp:139] Memory required for data: 12292000
I0430 17:46:24.562037 20585 layer_factory.hpp:77] Creating layer label_cifar_1_split
I0430 17:46:24.562083 20585 net.cpp:86] Creating Layer label_cifar_1_split
I0430 17:46:24.562086 20585 net.cpp:408] label_cifar_1_split <- label
I0430 17:46:24.562093 20585 net.cpp:382] label_cifar_1_split -> label_cifar_1_split_0
I0430 17:46:24.562103 20585 net.cpp:382] label_cifar_1_split -> label_cifar_1_split_1
I0430 17:46:24.562162 20585 net.cpp:124] Setting up label_cifar_1_split
I0430 17:46:24.562170 20585 net.cpp:131] Top shape: 1000 (1000)
I0430 17:46:24.562175 20585 net.cpp:131] Top shape: 1000 (1000)
I0430 17:46:24.562176 20585 net.cpp:139] Memory required for data: 12300000
I0430 17:46:24.562180 20585 layer_factory.hpp:77] Creating layer ip1
I0430 17:46:24.562187 20585 net.cpp:86] Creating Layer ip1
I0430 17:46:24.562191 20585 net.cpp:408] ip1 <- data
I0430 17:46:24.562196 20585 net.cpp:382] ip1 -> ip1
I0430 17:46:24.563136 20585 net.cpp:124] Setting up ip1
I0430 17:46:24.563145 20585 net.cpp:131] Top shape: 1000 10 (10000)
I0430 17:46:24.563148 20585 net.cpp:139] Memory required for data: 12340000
I0430 17:46:24.563201 20585 layer_factory.hpp:77] Creating layer relu1
I0430 17:46:24.563210 20585 net.cpp:86] Creating Layer relu1
I0430 17:46:24.563213 20585 net.cpp:408] relu1 <- ip1
I0430 17:46:24.563217 20585 net.cpp:369] relu1 -> ip1 (in-place)
I0430 17:46:24.564043 20585 net.cpp:124] Setting up relu1
I0430 17:46:24.564054 20585 net.cpp:131] Top shape: 1000 10 (10000)
I0430 17:46:24.564057 20585 net.cpp:139] Memory required for data: 12380000
I0430 17:46:24.564060 20585 layer_factory.hpp:77] Creating layer ip2
I0430 17:46:24.564069 20585 net.cpp:86] Creating Layer ip2
I0430 17:46:24.564070 20585 net.cpp:408] ip2 <- ip1
I0430 17:46:24.564076 20585 net.cpp:382] ip2 -> ip2
I0430 17:46:24.565222 20585 net.cpp:124] Setting up ip2
I0430 17:46:24.565230 20585 net.cpp:131] Top shape: 1000 80 (80000)
I0430 17:46:24.565234 20585 net.cpp:139] Memory required for data: 12700000
I0430 17:46:24.565241 20585 layer_factory.hpp:77] Creating layer relu2
I0430 17:46:24.565246 20585 net.cpp:86] Creating Layer relu2
I0430 17:46:24.565265 20585 net.cpp:408] relu2 <- ip2
I0430 17:46:24.565270 20585 net.cpp:369] relu2 -> ip2 (in-place)
I0430 17:46:24.565440 20585 net.cpp:124] Setting up relu2
I0430 17:46:24.565448 20585 net.cpp:131] Top shape: 1000 80 (80000)
I0430 17:46:24.565452 20585 net.cpp:139] Memory required for data: 13020000
I0430 17:46:24.565455 20585 layer_factory.hpp:77] Creating layer ip3
I0430 17:46:24.565460 20585 net.cpp:86] Creating Layer ip3
I0430 17:46:24.565464 20585 net.cpp:408] ip3 <- ip2
I0430 17:46:24.565469 20585 net.cpp:382] ip3 -> ip3
I0430 17:46:24.565589 20585 net.cpp:124] Setting up ip3
I0430 17:46:24.565596 20585 net.cpp:131] Top shape: 1000 10 (10000)
I0430 17:46:24.565599 20585 net.cpp:139] Memory required for data: 13060000
I0430 17:46:24.565606 20585 layer_factory.hpp:77] Creating layer relu3
I0430 17:46:24.565611 20585 net.cpp:86] Creating Layer relu3
I0430 17:46:24.565614 20585 net.cpp:408] relu3 <- ip3
I0430 17:46:24.565619 20585 net.cpp:369] relu3 -> ip3 (in-place)
I0430 17:46:24.565778 20585 net.cpp:124] Setting up relu3
I0430 17:46:24.565784 20585 net.cpp:131] Top shape: 1000 10 (10000)
I0430 17:46:24.565788 20585 net.cpp:139] Memory required for data: 13100000
I0430 17:46:24.565790 20585 layer_factory.hpp:77] Creating layer ip4
I0430 17:46:24.565799 20585 net.cpp:86] Creating Layer ip4
I0430 17:46:24.565803 20585 net.cpp:408] ip4 <- ip3
I0430 17:46:24.565807 20585 net.cpp:382] ip4 -> ip4
I0430 17:46:24.565923 20585 net.cpp:124] Setting up ip4
I0430 17:46:24.565930 20585 net.cpp:131] Top shape: 1000 10 (10000)
I0430 17:46:24.565933 20585 net.cpp:139] Memory required for data: 13140000
I0430 17:46:24.565938 20585 layer_factory.hpp:77] Creating layer ip4_ip4_0_split
I0430 17:46:24.565944 20585 net.cpp:86] Creating Layer ip4_ip4_0_split
I0430 17:46:24.565948 20585 net.cpp:408] ip4_ip4_0_split <- ip4
I0430 17:46:24.565951 20585 net.cpp:382] ip4_ip4_0_split -> ip4_ip4_0_split_0
I0430 17:46:24.565958 20585 net.cpp:382] ip4_ip4_0_split -> ip4_ip4_0_split_1
I0430 17:46:24.565987 20585 net.cpp:124] Setting up ip4_ip4_0_split
I0430 17:46:24.565992 20585 net.cpp:131] Top shape: 1000 10 (10000)
I0430 17:46:24.565995 20585 net.cpp:131] Top shape: 1000 10 (10000)
I0430 17:46:24.565997 20585 net.cpp:139] Memory required for data: 13220000
I0430 17:46:24.566000 20585 layer_factory.hpp:77] Creating layer accuracy
I0430 17:46:24.566005 20585 net.cpp:86] Creating Layer accuracy
I0430 17:46:24.566009 20585 net.cpp:408] accuracy <- ip4_ip4_0_split_0
I0430 17:46:24.566011 20585 net.cpp:408] accuracy <- label_cifar_1_split_0
I0430 17:46:24.566016 20585 net.cpp:382] accuracy -> accuracy
…
