…
I0501 09:13:12.687319 13570 net.cpp:296] The NetState phase (0) differed from the phase (1) specified by a rule in layer cifar
I0501 09:13:12.687337 13570 net.cpp:296] The NetState phase (0) differed from the phase (1) specified by a rule in layer accuracy
I0501 09:13:12.687436 13570 net.cpp:53] Initializing net from parameters: 
name: "CIFAR"
state {
  phase: TRAIN
  level: 0
  stage: ""
}
layer {
  name: "cifar"
  type: "Data"
  top: "data"
  top: "label"
  include {
    phase: TRAIN
  }
  transform_param {
    mean_file: "examples/cifar10/mean.binaryproto"
  }
  data_param {
    source: "examples/cifar10/cifar10_train_lmdb"
    batch_size: 111
    backend: LMDB
  }
}
layer {
  name: "conv0"
  type: "Convolution"
  bottom: "data"
  top: "conv0"
  param {
    lr_mult: 1
  }
  param {
    lr_mult: 2
  }
  convolution_param {
    num_output: 16
    pad: 2
    kernel_size: 3
    stride: 1
    weight_filler {
      type: "gaussian"
      std: 0.01
    }
    bias_filler {
      type: "constant"
    }
  }
}
layer {
  name: "Sigmoid0"
  type: "Sigmoid"
  bottom: "conv0"
  top: "Sigmoid0"
}
layer {
  name: "pool0"
  type: "Pooling"
  bottom: "Sigmoid0"
  top: "pool0"
  pooling_param {
    pool: AVE
    kernel_size: 3
    stride: 2
  }
}
layer {
  name: "ip1"
  type: "InnerProduct"
  bottom: "pool0"
  top: "ip1"
  param {
    lr_mult: 1
  }
  param {
    lr_mult: 2
  }
  inner_product_param {
    num_output: 20
    weight_filler {
      type: "gaussian"
      std: 0.01
    }
    bias_filler {
      type: "constant"
    }
  }
}
layer {
  name: "relu1"
  type: "ReLU"
  bottom: "ip1"
  top: "ip1"
}
layer {
  name: "ip2"
  type: "InnerProduct"
  bottom: "ip1"
  top: "ip2"
  param {
    lr_mult: 1
  }
  param {
    lr_mult: 2
  }
  inner_product_param {
    num_output: 40
    weight_filler {
      type: "gaussian"
      std: 0.01
    }
    bias_filler {
      type: "constant"
    }
  }
}
layer {
  name: "relu2"
  type: "ReLU"
  bottom: "ip2"
  top: "ip2"
}
layer {
  name: "ip3"
  type: "InnerProduct"
  bottom: "ip2"
  top: "ip3"
  param {
    lr_mult: 1
  }
  param {
    lr_mult: 2
  }
  inner_product_param {
    num_output: 80
    weight_filler {
      type: "gaussian"
      std: 0.01
    }
    bias_filler {
      type: "constant"
    }
  }
}
layer {
  name: "relu3"
  type: "ReLU"
  bottom: "ip3"
  top: "ip3"
}
layer {
  name: "ip4"
  type: "InnerProduct"
  bottom: "ip3"
  top: "ip4"
  param {
    lr_mult: 1
  }
  param {
    lr_mult: 2
  }
  inner_product_param {
    num_output: 10
    weight_filler {
      type: "gaussian"
      std: 0.01
    }
    bias_filler {
      type: "constant"
    }
  }
}
layer {
  name: "loss"
  type: "SoftmaxWithLoss"
  bottom: "ip4"
  bottom: "label"
  top: "loss"
}
I0501 09:13:12.687510 13570 layer_factory.hpp:77] Creating layer cifar
I0501 09:13:12.687613 13570 db_lmdb.cpp:35] Opened lmdb examples/cifar10/cifar10_train_lmdb
I0501 09:13:12.687639 13570 net.cpp:86] Creating Layer cifar
I0501 09:13:12.687647 13570 net.cpp:382] cifar -> data
I0501 09:13:12.687671 13570 net.cpp:382] cifar -> label
I0501 09:13:12.687683 13570 data_transformer.cpp:25] Loading mean file from: examples/cifar10/mean.binaryproto
I0501 09:13:12.689863 13570 data_layer.cpp:45] output data size: 111,3,32,32
I0501 09:13:12.698079 13570 net.cpp:124] Setting up cifar
I0501 09:13:12.698098 13570 net.cpp:131] Top shape: 111 3 32 32 (340992)
I0501 09:13:12.698106 13570 net.cpp:131] Top shape: 111 (111)
I0501 09:13:12.698109 13570 net.cpp:139] Memory required for data: 1364412
I0501 09:13:12.698132 13570 layer_factory.hpp:77] Creating layer conv0
I0501 09:13:12.698148 13570 net.cpp:86] Creating Layer conv0
I0501 09:13:12.698154 13570 net.cpp:408] conv0 <- data
I0501 09:13:12.698165 13570 net.cpp:382] conv0 -> conv0
I0501 09:13:12.986584 13570 net.cpp:124] Setting up conv0
I0501 09:13:12.986613 13570 net.cpp:131] Top shape: 111 16 34 34 (2053056)
I0501 09:13:12.986618 13570 net.cpp:139] Memory required for data: 9576636
I0501 09:13:12.986634 13570 layer_factory.hpp:77] Creating layer Sigmoid0
I0501 09:13:12.986646 13570 net.cpp:86] Creating Layer Sigmoid0
I0501 09:13:12.986651 13570 net.cpp:408] Sigmoid0 <- conv0
I0501 09:13:12.986656 13570 net.cpp:382] Sigmoid0 -> Sigmoid0
I0501 09:13:12.986845 13570 net.cpp:124] Setting up Sigmoid0
I0501 09:13:12.986856 13570 net.cpp:131] Top shape: 111 16 34 34 (2053056)
I0501 09:13:12.986860 13570 net.cpp:139] Memory required for data: 17788860
I0501 09:13:12.986863 13570 layer_factory.hpp:77] Creating layer pool0
I0501 09:13:12.986871 13570 net.cpp:86] Creating Layer pool0
I0501 09:13:12.986873 13570 net.cpp:408] pool0 <- Sigmoid0
I0501 09:13:12.986878 13570 net.cpp:382] pool0 -> pool0
I0501 09:13:12.987644 13570 net.cpp:124] Setting up pool0
I0501 09:13:12.987658 13570 net.cpp:131] Top shape: 111 16 17 17 (513264)
I0501 09:13:12.987663 13570 net.cpp:139] Memory required for data: 19841916
I0501 09:13:12.987665 13570 layer_factory.hpp:77] Creating layer ip1
I0501 09:13:12.987675 13570 net.cpp:86] Creating Layer ip1
I0501 09:13:12.987679 13570 net.cpp:408] ip1 <- pool0
I0501 09:13:12.987684 13570 net.cpp:382] ip1 -> ip1
I0501 09:13:12.990505 13570 net.cpp:124] Setting up ip1
I0501 09:13:12.990514 13570 net.cpp:131] Top shape: 111 20 (2220)
I0501 09:13:12.990517 13570 net.cpp:139] Memory required for data: 19850796
I0501 09:13:12.990525 13570 layer_factory.hpp:77] Creating layer relu1
I0501 09:13:12.990531 13570 net.cpp:86] Creating Layer relu1
I0501 09:13:12.990535 13570 net.cpp:408] relu1 <- ip1
I0501 09:13:12.990540 13570 net.cpp:369] relu1 -> ip1 (in-place)
I0501 09:13:12.990697 13570 net.cpp:124] Setting up relu1
I0501 09:13:12.990706 13570 net.cpp:131] Top shape: 111 20 (2220)
I0501 09:13:12.990710 13570 net.cpp:139] Memory required for data: 19859676
I0501 09:13:12.990712 13570 layer_factory.hpp:77] Creating layer ip2
I0501 09:13:12.990718 13570 net.cpp:86] Creating Layer ip2
I0501 09:13:12.990722 13570 net.cpp:408] ip2 <- ip1
I0501 09:13:12.990727 13570 net.cpp:382] ip2 -> ip2
I0501 09:13:12.990849 13570 net.cpp:124] Setting up ip2
I0501 09:13:12.990856 13570 net.cpp:131] Top shape: 111 40 (4440)
I0501 09:13:12.990860 13570 net.cpp:139] Memory required for data: 19877436
I0501 09:13:12.990867 13570 layer_factory.hpp:77] Creating layer relu2
I0501 09:13:12.990873 13570 net.cpp:86] Creating Layer relu2
I0501 09:13:12.990876 13570 net.cpp:408] relu2 <- ip2
I0501 09:13:12.990880 13570 net.cpp:369] relu2 -> ip2 (in-place)
I0501 09:13:12.991034 13570 net.cpp:124] Setting up relu2
I0501 09:13:12.991044 13570 net.cpp:131] Top shape: 111 40 (4440)
I0501 09:13:12.991046 13570 net.cpp:139] Memory required for data: 19895196
I0501 09:13:12.991050 13570 layer_factory.hpp:77] Creating layer ip3
I0501 09:13:12.991056 13570 net.cpp:86] Creating Layer ip3
I0501 09:13:12.991060 13570 net.cpp:408] ip3 <- ip2
I0501 09:13:12.991065 13570 net.cpp:382] ip3 -> ip3
I0501 09:13:12.991255 13570 net.cpp:124] Setting up ip3
I0501 09:13:12.991262 13570 net.cpp:131] Top shape: 111 80 (8880)
I0501 09:13:12.991266 13570 net.cpp:139] Memory required for data: 19930716
I0501 09:13:12.991271 13570 layer_factory.hpp:77] Creating layer relu3
I0501 09:13:12.991276 13570 net.cpp:86] Creating Layer relu3
I0501 09:13:12.991279 13570 net.cpp:408] relu3 <- ip3
I0501 09:13:12.991283 13570 net.cpp:369] relu3 -> ip3 (in-place)
I0501 09:13:12.991432 13570 net.cpp:124] Setting up relu3
I0501 09:13:12.991441 13570 net.cpp:131] Top shape: 111 80 (8880)
I0501 09:13:12.991443 13570 net.cpp:139] Memory required for data: 19966236
I0501 09:13:12.991446 13570 layer_factory.hpp:77] Creating layer ip4
I0501 09:13:12.991466 13570 net.cpp:86] Creating Layer ip4
I0501 09:13:12.991470 13570 net.cpp:408] ip4 <- ip3
I0501 09:13:12.991475 13570 net.cpp:382] ip4 -> ip4
I0501 09:13:12.991602 13570 net.cpp:124] Setting up ip4
I0501 09:13:12.991611 13570 net.cpp:131] Top shape: 111 10 (1110)
I0501 09:13:12.991613 13570 net.cpp:139] Memory required for data: 19970676
I0501 09:13:12.991621 13570 layer_factory.hpp:77] Creating layer loss
I0501 09:13:12.991627 13570 net.cpp:86] Creating Layer loss
I0501 09:13:12.991631 13570 net.cpp:408] loss <- ip4
I0501 09:13:12.991634 13570 net.cpp:408] loss <- label
I0501 09:13:12.991639 13570 net.cpp:382] loss -> loss
I0501 09:13:12.991658 13570 layer_factory.hpp:77] Creating layer loss
…
I0501 09:13:12.992898 13570 solver.cpp:173] Creating test net (#0) specified by net file: ECE595/cifar/train_test/var_everything/cifar_train_test_533.prototxt
I0501 09:13:12.992928 13570 net.cpp:296] The NetState phase (1) differed from the phase (0) specified by a rule in layer cifar
I0501 09:13:12.993023 13570 net.cpp:53] Initializing net from parameters: 
name: "CIFAR"
state {
  phase: TEST
}
layer {
  name: "cifar"
  type: "Data"
  top: "data"
  top: "label"
  include {
    phase: TEST
  }
  transform_param {
    mean_file: "examples/cifar10/mean.binaryproto"
  }
  data_param {
    source: "examples/cifar10/cifar10_test_lmdb"
    batch_size: 1000
    backend: LMDB
  }
}
layer {
  name: "conv0"
  type: "Convolution"
  bottom: "data"
  top: "conv0"
  param {
    lr_mult: 1
  }
  param {
    lr_mult: 2
  }
  convolution_param {
    num_output: 16
    pad: 2
    kernel_size: 3
    stride: 1
    weight_filler {
      type: "gaussian"
      std: 0.01
    }
    bias_filler {
      type: "constant"
    }
  }
}
layer {
  name: "Sigmoid0"
  type: "Sigmoid"
  bottom: "conv0"
  top: "Sigmoid0"
}
layer {
  name: "pool0"
  type: "Pooling"
  bottom: "Sigmoid0"
  top: "pool0"
  pooling_param {
    pool: AVE
    kernel_size: 3
    stride: 2
  }
}
layer {
  name: "ip1"
  type: "InnerProduct"
  bottom: "pool0"
  top: "ip1"
  param {
    lr_mult: 1
  }
  param {
    lr_mult: 2
  }
  inner_product_param {
    num_output: 20
    weight_filler {
      type: "gaussian"
      std: 0.01
    }
    bias_filler {
      type: "constant"
    }
  }
}
layer {
  name: "relu1"
  type: "ReLU"
  bottom: "ip1"
  top: "ip1"
}
layer {
  name: "ip2"
  type: "InnerProduct"
  bottom: "ip1"
  top: "ip2"
  param {
    lr_mult: 1
  }
  param {
    lr_mult: 2
  }
  inner_product_param {
    num_output: 40
    weight_filler {
      type: "gaussian"
      std: 0.01
    }
    bias_filler {
      type: "constant"
    }
  }
}
layer {
  name: "relu2"
  type: "ReLU"
  bottom: "ip2"
  top: "ip2"
}
layer {
  name: "ip3"
  type: "InnerProduct"
  bottom: "ip2"
  top: "ip3"
  param {
    lr_mult: 1
  }
  param {
    lr_mult: 2
  }
  inner_product_param {
    num_output: 80
    weight_filler {
      type: "gaussian"
      std: 0.01
    }
    bias_filler {
      type: "constant"
    }
  }
}
layer {
  name: "relu3"
  type: "ReLU"
  bottom: "ip3"
  top: "ip3"
}
layer {
  name: "ip4"
  type: "InnerProduct"
  bottom: "ip3"
  top: "ip4"
  param {
    lr_mult: 1
  }
  param {
    lr_mult: 2
  }
  inner_product_param {
    num_output: 10
    weight_filler {
      type: "gaussian"
      std: 0.01
    }
    bias_filler {
      type: "constant"
    }
  }
}
layer {
  name: "accuracy"
  type: "Accuracy"
  bottom: "ip4"
  bottom: "label"
  top: "accuracy"
  include {
    phase: TEST
  }
}
layer {
  name: "loss"
  type: "SoftmaxWithLoss"
  bottom: "ip4"
  bottom: "label"
  top: "loss"
}
I0501 09:13:12.993110 13570 layer_factory.hpp:77] Creating layer cifar
I0501 09:13:12.993171 13570 db_lmdb.cpp:35] Opened lmdb examples/cifar10/cifar10_test_lmdb
I0501 09:13:12.993185 13570 net.cpp:86] Creating Layer cifar
I0501 09:13:12.993188 13570 net.cpp:382] cifar -> data
I0501 09:13:12.993196 13570 net.cpp:382] cifar -> label
I0501 09:13:12.993203 13570 data_transformer.cpp:25] Loading mean file from: examples/cifar10/mean.binaryproto
I0501 09:13:12.993342 13570 data_layer.cpp:45] output data size: 1000,3,32,32
I0501 09:13:13.015357 13570 net.cpp:124] Setting up cifar
I0501 09:13:13.015384 13570 net.cpp:131] Top shape: 1000 3 32 32 (3072000)
I0501 09:13:13.015390 13570 net.cpp:131] Top shape: 1000 (1000)
I0501 09:13:13.015394 13570 net.cpp:139] Memory required for data: 12292000
I0501 09:13:13.015399 13570 layer_factory.hpp:77] Creating layer label_cifar_1_split
I0501 09:13:13.015413 13570 net.cpp:86] Creating Layer label_cifar_1_split
I0501 09:13:13.015416 13570 net.cpp:408] label_cifar_1_split <- label
I0501 09:13:13.015437 13570 net.cpp:382] label_cifar_1_split -> label_cifar_1_split_0
I0501 09:13:13.015447 13570 net.cpp:382] label_cifar_1_split -> label_cifar_1_split_1
I0501 09:13:13.015566 13570 net.cpp:124] Setting up label_cifar_1_split
I0501 09:13:13.015574 13570 net.cpp:131] Top shape: 1000 (1000)
I0501 09:13:13.015578 13570 net.cpp:131] Top shape: 1000 (1000)
I0501 09:13:13.015581 13570 net.cpp:139] Memory required for data: 12300000
I0501 09:13:13.015599 13570 layer_factory.hpp:77] Creating layer conv0
I0501 09:13:13.015612 13570 net.cpp:86] Creating Layer conv0
I0501 09:13:13.015615 13570 net.cpp:408] conv0 <- data
I0501 09:13:13.015620 13570 net.cpp:382] conv0 -> conv0
I0501 09:13:13.017221 13570 net.cpp:124] Setting up conv0
I0501 09:13:13.017235 13570 net.cpp:131] Top shape: 1000 16 34 34 (18496000)
I0501 09:13:13.017238 13570 net.cpp:139] Memory required for data: 86284000
I0501 09:13:13.017248 13570 layer_factory.hpp:77] Creating layer Sigmoid0
I0501 09:13:13.017271 13570 net.cpp:86] Creating Layer Sigmoid0
I0501 09:13:13.017273 13570 net.cpp:408] Sigmoid0 <- conv0
I0501 09:13:13.017278 13570 net.cpp:382] Sigmoid0 -> Sigmoid0
I0501 09:13:13.017470 13570 net.cpp:124] Setting up Sigmoid0
I0501 09:13:13.017480 13570 net.cpp:131] Top shape: 1000 16 34 34 (18496000)
I0501 09:13:13.017483 13570 net.cpp:139] Memory required for data: 160268000
I0501 09:13:13.017487 13570 layer_factory.hpp:77] Creating layer pool0
I0501 09:13:13.017494 13570 net.cpp:86] Creating Layer pool0
I0501 09:13:13.017498 13570 net.cpp:408] pool0 <- Sigmoid0
I0501 09:13:13.017503 13570 net.cpp:382] pool0 -> pool0
I0501 09:13:13.017665 13570 net.cpp:124] Setting up pool0
I0501 09:13:13.017674 13570 net.cpp:131] Top shape: 1000 16 17 17 (4624000)
I0501 09:13:13.017678 13570 net.cpp:139] Memory required for data: 178764000
I0501 09:13:13.017680 13570 layer_factory.hpp:77] Creating layer ip1
I0501 09:13:13.017688 13570 net.cpp:86] Creating Layer ip1
I0501 09:13:13.017691 13570 net.cpp:408] ip1 <- pool0
I0501 09:13:13.017698 13570 net.cpp:382] ip1 -> ip1
I0501 09:13:13.020290 13570 net.cpp:124] Setting up ip1
I0501 09:13:13.020299 13570 net.cpp:131] Top shape: 1000 20 (20000)
I0501 09:13:13.020303 13570 net.cpp:139] Memory required for data: 178844000
I0501 09:13:13.020350 13570 layer_factory.hpp:77] Creating layer relu1
I0501 09:13:13.020362 13570 net.cpp:86] Creating Layer relu1
I0501 09:13:13.020366 13570 net.cpp:408] relu1 <- ip1
I0501 09:13:13.020370 13570 net.cpp:369] relu1 -> ip1 (in-place)
I0501 09:13:13.020532 13570 net.cpp:124] Setting up relu1
I0501 09:13:13.020545 13570 net.cpp:131] Top shape: 1000 20 (20000)
I0501 09:13:13.020548 13570 net.cpp:139] Memory required for data: 178924000
I0501 09:13:13.020551 13570 layer_factory.hpp:77] Creating layer ip2
I0501 09:13:13.020565 13570 net.cpp:86] Creating Layer ip2
I0501 09:13:13.020568 13570 net.cpp:408] ip2 <- ip1
I0501 09:13:13.020573 13570 net.cpp:382] ip2 -> ip2
I0501 09:13:13.020722 13570 net.cpp:124] Setting up ip2
I0501 09:13:13.020730 13570 net.cpp:131] Top shape: 1000 40 (40000)
I0501 09:13:13.020732 13570 net.cpp:139] Memory required for data: 179084000
I0501 09:13:13.020740 13570 layer_factory.hpp:77] Creating layer relu2
I0501 09:13:13.020746 13570 net.cpp:86] Creating Layer relu2
I0501 09:13:13.020750 13570 net.cpp:408] relu2 <- ip2
I0501 09:13:13.020756 13570 net.cpp:369] relu2 -> ip2 (in-place)
I0501 09:13:13.021522 13570 net.cpp:124] Setting up relu2
I0501 09:13:13.021534 13570 net.cpp:131] Top shape: 1000 40 (40000)
I0501 09:13:13.021538 13570 net.cpp:139] Memory required for data: 179244000
I0501 09:13:13.021543 13570 layer_factory.hpp:77] Creating layer ip3
I0501 09:13:13.021548 13570 net.cpp:86] Creating Layer ip3
I0501 09:13:13.021567 13570 net.cpp:408] ip3 <- ip2
I0501 09:13:13.021574 13570 net.cpp:382] ip3 -> ip3
I0501 09:13:13.021771 13570 net.cpp:124] Setting up ip3
I0501 09:13:13.021780 13570 net.cpp:131] Top shape: 1000 80 (80000)
I0501 09:13:13.021781 13570 net.cpp:139] Memory required for data: 179564000
I0501 09:13:13.021787 13570 layer_factory.hpp:77] Creating layer relu3
I0501 09:13:13.021792 13570 net.cpp:86] Creating Layer relu3
I0501 09:13:13.021811 13570 net.cpp:408] relu3 <- ip3
I0501 09:13:13.021816 13570 net.cpp:369] relu3 -> ip3 (in-place)
I0501 09:13:13.021975 13570 net.cpp:124] Setting up relu3
I0501 09:13:13.021983 13570 net.cpp:131] Top shape: 1000 80 (80000)
I0501 09:13:13.021986 13570 net.cpp:139] Memory required for data: 179884000
I0501 09:13:13.021989 13570 layer_factory.hpp:77] Creating layer ip4
I0501 09:13:13.021996 13570 net.cpp:86] Creating Layer ip4
I0501 09:13:13.022008 13570 net.cpp:408] ip4 <- ip3
I0501 09:13:13.022013 13570 net.cpp:382] ip4 -> ip4
I0501 09:13:13.022156 13570 net.cpp:124] Setting up ip4
I0501 09:13:13.022163 13570 net.cpp:131] Top shape: 1000 10 (10000)
I0501 09:13:13.022166 13570 net.cpp:139] Memory required for data: 179924000
I0501 09:13:13.022174 13570 layer_factory.hpp:77] Creating layer ip4_ip4_0_split
I0501 09:13:13.022181 13570 net.cpp:86] Creating Layer ip4_ip4_0_split
I0501 09:13:13.022183 13570 net.cpp:408] ip4_ip4_0_split <- ip4
I0501 09:13:13.022187 13570 net.cpp:382] ip4_ip4_0_split -> ip4_ip4_0_split_0
I0501 09:13:13.022192 13570 net.cpp:382] ip4_ip4_0_split -> ip4_ip4_0_split_1
I0501 09:13:13.022224 13570 net.cpp:124] Setting up ip4_ip4_0_split
I0501 09:13:13.022229 13570 net.cpp:131] Top shape: 1000 10 (10000)
I0501 09:13:13.022233 13570 net.cpp:131] Top shape: 1000 10 (10000)
I0501 09:13:13.022235 13570 net.cpp:139] Memory required for data: 180004000
I0501 09:13:13.022238 13570 layer_factory.hpp:77] Creating layer accuracy
I0501 09:13:13.022243 13570 net.cpp:86] Creating Layer accuracy
I0501 09:13:13.022246 13570 net.cpp:408] accuracy <- ip4_ip4_0_split_0
I0501 09:13:13.022250 13570 net.cpp:408] accuracy <- label_cifar_1_split_0
I0501 09:13:13.022255 13570 net.cpp:382] accuracy -> accuracy
…
