…
I0501 03:32:45.430671 21386 net.cpp:296] The NetState phase (0) differed from the phase (1) specified by a rule in layer cifar
I0501 03:32:45.430691 21386 net.cpp:296] The NetState phase (0) differed from the phase (1) specified by a rule in layer accuracy
I0501 03:32:45.430797 21386 net.cpp:53] Initializing net from parameters: 
name: "CIFAR"
state {
  phase: TRAIN
  level: 0
  stage: ""
}
layer {
  name: "cifar"
  type: "Data"
  top: "data"
  top: "label"
  include {
    phase: TRAIN
  }
  transform_param {
    mean_file: "examples/cifar10/mean.binaryproto"
  }
  data_param {
    source: "examples/cifar10/cifar10_train_lmdb"
    batch_size: 111
    backend: LMDB
  }
}
layer {
  name: "conv0"
  type: "Convolution"
  bottom: "data"
  top: "conv0"
  param {
    lr_mult: 1
  }
  param {
    lr_mult: 2
  }
  convolution_param {
    num_output: 8
    pad: 2
    kernel_size: 5
    stride: 1
    weight_filler {
      type: "gaussian"
      std: 0.01
    }
    bias_filler {
      type: "constant"
    }
  }
}
layer {
  name: "Sigmoid0"
  type: "Sigmoid"
  bottom: "conv0"
  top: "Sigmoid0"
}
layer {
  name: "pool0"
  type: "Pooling"
  bottom: "Sigmoid0"
  top: "pool0"
  pooling_param {
    pool: AVE
    kernel_size: 3
    stride: 2
  }
}
layer {
  name: "ip1"
  type: "InnerProduct"
  bottom: "pool0"
  top: "ip1"
  param {
    lr_mult: 1
  }
  param {
    lr_mult: 2
  }
  inner_product_param {
    num_output: 10
    weight_filler {
      type: "gaussian"
      std: 0.01
    }
    bias_filler {
      type: "constant"
    }
  }
}
layer {
  name: "relu1"
  type: "ReLU"
  bottom: "ip1"
  top: "ip1"
}
layer {
  name: "ip2"
  type: "InnerProduct"
  bottom: "ip1"
  top: "ip2"
  param {
    lr_mult: 1
  }
  param {
    lr_mult: 2
  }
  inner_product_param {
    num_output: 80
    weight_filler {
      type: "gaussian"
      std: 0.01
    }
    bias_filler {
      type: "constant"
    }
  }
}
layer {
  name: "relu2"
  type: "ReLU"
  bottom: "ip2"
  top: "ip2"
}
layer {
  name: "ip3"
  type: "InnerProduct"
  bottom: "ip2"
  top: "ip3"
  param {
    lr_mult: 1
  }
  param {
    lr_mult: 2
  }
  inner_product_param {
    num_output: 40
    weight_filler {
      type: "gaussian"
      std: 0.01
    }
    bias_filler {
      type: "constant"
    }
  }
}
layer {
  name: "relu3"
  type: "ReLU"
  bottom: "ip3"
  top: "ip3"
}
layer {
  name: "ip4"
  type: "InnerProduct"
  bottom: "ip3"
  top: "ip4"
  param {
    lr_mult: 1
  }
  param {
    lr_mult: 2
  }
  inner_product_param {
    num_output: 10
    weight_filler {
      type: "gaussian"
      std: 0.01
    }
    bias_filler {
      type: "constant"
    }
  }
}
layer {
  name: "loss"
  type: "SoftmaxWithLoss"
  bottom: "ip4"
  bottom: "label"
  top: "loss"
}
I0501 03:32:45.430878 21386 layer_factory.hpp:77] Creating layer cifar
I0501 03:32:45.430979 21386 db_lmdb.cpp:35] Opened lmdb examples/cifar10/cifar10_train_lmdb
I0501 03:32:45.431005 21386 net.cpp:86] Creating Layer cifar
I0501 03:32:45.431013 21386 net.cpp:382] cifar -> data
I0501 03:32:45.431036 21386 net.cpp:382] cifar -> label
I0501 03:32:45.431048 21386 data_transformer.cpp:25] Loading mean file from: examples/cifar10/mean.binaryproto
I0501 03:32:45.433148 21386 data_layer.cpp:45] output data size: 111,3,32,32
I0501 03:32:45.441264 21386 net.cpp:124] Setting up cifar
I0501 03:32:45.441284 21386 net.cpp:131] Top shape: 111 3 32 32 (340992)
I0501 03:32:45.441290 21386 net.cpp:131] Top shape: 111 (111)
I0501 03:32:45.441294 21386 net.cpp:139] Memory required for data: 1364412
I0501 03:32:45.441318 21386 layer_factory.hpp:77] Creating layer conv0
I0501 03:32:45.441337 21386 net.cpp:86] Creating Layer conv0
I0501 03:32:45.441346 21386 net.cpp:408] conv0 <- data
I0501 03:32:45.441359 21386 net.cpp:382] conv0 -> conv0
I0501 03:32:45.750262 21386 net.cpp:124] Setting up conv0
I0501 03:32:45.750293 21386 net.cpp:131] Top shape: 111 8 32 32 (909312)
I0501 03:32:45.750298 21386 net.cpp:139] Memory required for data: 5001660
I0501 03:32:45.750318 21386 layer_factory.hpp:77] Creating layer Sigmoid0
I0501 03:32:45.750331 21386 net.cpp:86] Creating Layer Sigmoid0
I0501 03:32:45.750336 21386 net.cpp:408] Sigmoid0 <- conv0
I0501 03:32:45.750344 21386 net.cpp:382] Sigmoid0 -> Sigmoid0
I0501 03:32:45.750543 21386 net.cpp:124] Setting up Sigmoid0
I0501 03:32:45.750555 21386 net.cpp:131] Top shape: 111 8 32 32 (909312)
I0501 03:32:45.750560 21386 net.cpp:139] Memory required for data: 8638908
I0501 03:32:45.750563 21386 layer_factory.hpp:77] Creating layer pool0
I0501 03:32:45.750572 21386 net.cpp:86] Creating Layer pool0
I0501 03:32:45.750578 21386 net.cpp:408] pool0 <- Sigmoid0
I0501 03:32:45.750584 21386 net.cpp:382] pool0 -> pool0
I0501 03:32:45.751464 21386 net.cpp:124] Setting up pool0
I0501 03:32:45.751482 21386 net.cpp:131] Top shape: 111 8 16 16 (227328)
I0501 03:32:45.751485 21386 net.cpp:139] Memory required for data: 9548220
I0501 03:32:45.751490 21386 layer_factory.hpp:77] Creating layer ip1
I0501 03:32:45.751502 21386 net.cpp:86] Creating Layer ip1
I0501 03:32:45.751505 21386 net.cpp:408] ip1 <- pool0
I0501 03:32:45.751513 21386 net.cpp:382] ip1 -> ip1
I0501 03:32:45.753299 21386 net.cpp:124] Setting up ip1
I0501 03:32:45.753314 21386 net.cpp:131] Top shape: 111 10 (1110)
I0501 03:32:45.753319 21386 net.cpp:139] Memory required for data: 9552660
I0501 03:32:45.753329 21386 layer_factory.hpp:77] Creating layer relu1
I0501 03:32:45.753337 21386 net.cpp:86] Creating Layer relu1
I0501 03:32:45.753341 21386 net.cpp:408] relu1 <- ip1
I0501 03:32:45.753347 21386 net.cpp:369] relu1 -> ip1 (in-place)
I0501 03:32:45.753536 21386 net.cpp:124] Setting up relu1
I0501 03:32:45.753547 21386 net.cpp:131] Top shape: 111 10 (1110)
I0501 03:32:45.753551 21386 net.cpp:139] Memory required for data: 9557100
I0501 03:32:45.753556 21386 layer_factory.hpp:77] Creating layer ip2
I0501 03:32:45.753563 21386 net.cpp:86] Creating Layer ip2
I0501 03:32:45.753569 21386 net.cpp:408] ip2 <- ip1
I0501 03:32:45.753576 21386 net.cpp:382] ip2 -> ip2
I0501 03:32:45.753715 21386 net.cpp:124] Setting up ip2
I0501 03:32:45.753724 21386 net.cpp:131] Top shape: 111 80 (8880)
I0501 03:32:45.753727 21386 net.cpp:139] Memory required for data: 9592620
I0501 03:32:45.753736 21386 layer_factory.hpp:77] Creating layer relu2
I0501 03:32:45.753746 21386 net.cpp:86] Creating Layer relu2
I0501 03:32:45.753749 21386 net.cpp:408] relu2 <- ip2
I0501 03:32:45.753753 21386 net.cpp:369] relu2 -> ip2 (in-place)
I0501 03:32:45.753938 21386 net.cpp:124] Setting up relu2
I0501 03:32:45.753947 21386 net.cpp:131] Top shape: 111 80 (8880)
I0501 03:32:45.753952 21386 net.cpp:139] Memory required for data: 9628140
I0501 03:32:45.753955 21386 layer_factory.hpp:77] Creating layer ip3
I0501 03:32:45.753964 21386 net.cpp:86] Creating Layer ip3
I0501 03:32:45.753970 21386 net.cpp:408] ip3 <- ip2
I0501 03:32:45.753976 21386 net.cpp:382] ip3 -> ip3
I0501 03:32:45.754191 21386 net.cpp:124] Setting up ip3
I0501 03:32:45.754200 21386 net.cpp:131] Top shape: 111 40 (4440)
I0501 03:32:45.754204 21386 net.cpp:139] Memory required for data: 9645900
I0501 03:32:45.754211 21386 layer_factory.hpp:77] Creating layer relu3
I0501 03:32:45.754217 21386 net.cpp:86] Creating Layer relu3
I0501 03:32:45.754221 21386 net.cpp:408] relu3 <- ip3
I0501 03:32:45.754232 21386 net.cpp:369] relu3 -> ip3 (in-place)
I0501 03:32:45.754420 21386 net.cpp:124] Setting up relu3
I0501 03:32:45.754429 21386 net.cpp:131] Top shape: 111 40 (4440)
I0501 03:32:45.754433 21386 net.cpp:139] Memory required for data: 9663660
I0501 03:32:45.754437 21386 layer_factory.hpp:77] Creating layer ip4
I0501 03:32:45.754462 21386 net.cpp:86] Creating Layer ip4
I0501 03:32:45.754468 21386 net.cpp:408] ip4 <- ip3
I0501 03:32:45.754475 21386 net.cpp:382] ip4 -> ip4
I0501 03:32:45.754612 21386 net.cpp:124] Setting up ip4
I0501 03:32:45.754621 21386 net.cpp:131] Top shape: 111 10 (1110)
I0501 03:32:45.754624 21386 net.cpp:139] Memory required for data: 9668100
I0501 03:32:45.754633 21386 layer_factory.hpp:77] Creating layer loss
I0501 03:32:45.754642 21386 net.cpp:86] Creating Layer loss
I0501 03:32:45.754647 21386 net.cpp:408] loss <- ip4
I0501 03:32:45.754652 21386 net.cpp:408] loss <- label
I0501 03:32:45.754658 21386 net.cpp:382] loss -> loss
I0501 03:32:45.754678 21386 layer_factory.hpp:77] Creating layer loss
…
I0501 03:32:45.756145 21386 solver.cpp:173] Creating test net (#0) specified by net file: ECE595/cifar/train_test/var_everything/cifar_train_test_357.prototxt
I0501 03:32:45.756177 21386 net.cpp:296] The NetState phase (1) differed from the phase (0) specified by a rule in layer cifar
I0501 03:32:45.756297 21386 net.cpp:53] Initializing net from parameters: 
name: "CIFAR"
state {
  phase: TEST
}
layer {
  name: "cifar"
  type: "Data"
  top: "data"
  top: "label"
  include {
    phase: TEST
  }
  transform_param {
    mean_file: "examples/cifar10/mean.binaryproto"
  }
  data_param {
    source: "examples/cifar10/cifar10_test_lmdb"
    batch_size: 1000
    backend: LMDB
  }
}
layer {
  name: "conv0"
  type: "Convolution"
  bottom: "data"
  top: "conv0"
  param {
    lr_mult: 1
  }
  param {
    lr_mult: 2
  }
  convolution_param {
    num_output: 8
    pad: 2
    kernel_size: 5
    stride: 1
    weight_filler {
      type: "gaussian"
      std: 0.01
    }
    bias_filler {
      type: "constant"
    }
  }
}
layer {
  name: "Sigmoid0"
  type: "Sigmoid"
  bottom: "conv0"
  top: "Sigmoid0"
}
layer {
  name: "pool0"
  type: "Pooling"
  bottom: "Sigmoid0"
  top: "pool0"
  pooling_param {
    pool: AVE
    kernel_size: 3
    stride: 2
  }
}
layer {
  name: "ip1"
  type: "InnerProduct"
  bottom: "pool0"
  top: "ip1"
  param {
    lr_mult: 1
  }
  param {
    lr_mult: 2
  }
  inner_product_param {
    num_output: 10
    weight_filler {
      type: "gaussian"
      std: 0.01
    }
    bias_filler {
      type: "constant"
    }
  }
}
layer {
  name: "relu1"
  type: "ReLU"
  bottom: "ip1"
  top: "ip1"
}
layer {
  name: "ip2"
  type: "InnerProduct"
  bottom: "ip1"
  top: "ip2"
  param {
    lr_mult: 1
  }
  param {
    lr_mult: 2
  }
  inner_product_param {
    num_output: 80
    weight_filler {
      type: "gaussian"
      std: 0.01
    }
    bias_filler {
      type: "constant"
    }
  }
}
layer {
  name: "relu2"
  type: "ReLU"
  bottom: "ip2"
  top: "ip2"
}
layer {
  name: "ip3"
  type: "InnerProduct"
  bottom: "ip2"
  top: "ip3"
  param {
    lr_mult: 1
  }
  param {
    lr_mult: 2
  }
  inner_product_param {
    num_output: 40
    weight_filler {
      type: "gaussian"
      std: 0.01
    }
    bias_filler {
      type: "constant"
    }
  }
}
layer {
  name: "relu3"
  type: "ReLU"
  bottom: "ip3"
  top: "ip3"
}
layer {
  name: "ip4"
  type: "InnerProduct"
  bottom: "ip3"
  top: "ip4"
  param {
    lr_mult: 1
  }
  param {
    lr_mult: 2
  }
  inner_product_param {
    num_output: 10
    weight_filler {
      type: "gaussian"
      std: 0.01
    }
    bias_filler {
      type: "constant"
    }
  }
}
layer {
  name: "accuracy"
  type: "Accuracy"
  bottom: "ip4"
  bottom: "label"
  top: "accuracy"
  include {
    phase: TEST
  }
}
layer {
  name: "loss"
  type: "SoftmaxWithLoss"
  bottom: "ip4"
  bottom: "label"
  top: "loss"
}
I0501 03:32:45.756400 21386 layer_factory.hpp:77] Creating layer cifar
I0501 03:32:45.756456 21386 db_lmdb.cpp:35] Opened lmdb examples/cifar10/cifar10_test_lmdb
I0501 03:32:45.756474 21386 net.cpp:86] Creating Layer cifar
I0501 03:32:45.756482 21386 net.cpp:382] cifar -> data
I0501 03:32:45.756492 21386 net.cpp:382] cifar -> label
I0501 03:32:45.756501 21386 data_transformer.cpp:25] Loading mean file from: examples/cifar10/mean.binaryproto
I0501 03:32:45.756682 21386 data_layer.cpp:45] output data size: 1000,3,32,32
I0501 03:32:45.782752 21386 net.cpp:124] Setting up cifar
I0501 03:32:45.782783 21386 net.cpp:131] Top shape: 1000 3 32 32 (3072000)
I0501 03:32:45.782789 21386 net.cpp:131] Top shape: 1000 (1000)
I0501 03:32:45.782793 21386 net.cpp:139] Memory required for data: 12292000
I0501 03:32:45.782800 21386 layer_factory.hpp:77] Creating layer label_cifar_1_split
I0501 03:32:45.782814 21386 net.cpp:86] Creating Layer label_cifar_1_split
I0501 03:32:45.782819 21386 net.cpp:408] label_cifar_1_split <- label
I0501 03:32:45.782825 21386 net.cpp:382] label_cifar_1_split -> label_cifar_1_split_0
I0501 03:32:45.782837 21386 net.cpp:382] label_cifar_1_split -> label_cifar_1_split_1
I0501 03:32:45.782946 21386 net.cpp:124] Setting up label_cifar_1_split
I0501 03:32:45.782956 21386 net.cpp:131] Top shape: 1000 (1000)
I0501 03:32:45.782960 21386 net.cpp:131] Top shape: 1000 (1000)
I0501 03:32:45.782964 21386 net.cpp:139] Memory required for data: 12300000
I0501 03:32:45.782968 21386 layer_factory.hpp:77] Creating layer conv0
I0501 03:32:45.782985 21386 net.cpp:86] Creating Layer conv0
I0501 03:32:45.782991 21386 net.cpp:408] conv0 <- data
I0501 03:32:45.782999 21386 net.cpp:382] conv0 -> conv0
I0501 03:32:45.785818 21386 net.cpp:124] Setting up conv0
I0501 03:32:45.785842 21386 net.cpp:131] Top shape: 1000 8 32 32 (8192000)
I0501 03:32:45.785847 21386 net.cpp:139] Memory required for data: 45068000
I0501 03:32:45.785861 21386 layer_factory.hpp:77] Creating layer Sigmoid0
I0501 03:32:45.785868 21386 net.cpp:86] Creating Layer Sigmoid0
I0501 03:32:45.785874 21386 net.cpp:408] Sigmoid0 <- conv0
I0501 03:32:45.785881 21386 net.cpp:382] Sigmoid0 -> Sigmoid0
I0501 03:32:45.786123 21386 net.cpp:124] Setting up Sigmoid0
I0501 03:32:45.786134 21386 net.cpp:131] Top shape: 1000 8 32 32 (8192000)
I0501 03:32:45.786137 21386 net.cpp:139] Memory required for data: 77836000
I0501 03:32:45.786142 21386 layer_factory.hpp:77] Creating layer pool0
I0501 03:32:45.786154 21386 net.cpp:86] Creating Layer pool0
I0501 03:32:45.786161 21386 net.cpp:408] pool0 <- Sigmoid0
I0501 03:32:45.786166 21386 net.cpp:382] pool0 -> pool0
I0501 03:32:45.786384 21386 net.cpp:124] Setting up pool0
I0501 03:32:45.786396 21386 net.cpp:131] Top shape: 1000 8 16 16 (2048000)
I0501 03:32:45.786399 21386 net.cpp:139] Memory required for data: 86028000
I0501 03:32:45.786403 21386 layer_factory.hpp:77] Creating layer ip1
I0501 03:32:45.786412 21386 net.cpp:86] Creating Layer ip1
I0501 03:32:45.786419 21386 net.cpp:408] ip1 <- pool0
I0501 03:32:45.786427 21386 net.cpp:382] ip1 -> ip1
I0501 03:32:45.787225 21386 net.cpp:124] Setting up ip1
I0501 03:32:45.787235 21386 net.cpp:131] Top shape: 1000 10 (10000)
I0501 03:32:45.787238 21386 net.cpp:139] Memory required for data: 86068000
I0501 03:32:45.787264 21386 layer_factory.hpp:77] Creating layer relu1
I0501 03:32:45.787271 21386 net.cpp:86] Creating Layer relu1
I0501 03:32:45.787276 21386 net.cpp:408] relu1 <- ip1
I0501 03:32:45.787282 21386 net.cpp:369] relu1 -> ip1 (in-place)
I0501 03:32:45.787492 21386 net.cpp:124] Setting up relu1
I0501 03:32:45.787503 21386 net.cpp:131] Top shape: 1000 10 (10000)
I0501 03:32:45.787508 21386 net.cpp:139] Memory required for data: 86108000
I0501 03:32:45.787510 21386 layer_factory.hpp:77] Creating layer ip2
I0501 03:32:45.787520 21386 net.cpp:86] Creating Layer ip2
I0501 03:32:45.787528 21386 net.cpp:408] ip2 <- ip1
I0501 03:32:45.787535 21386 net.cpp:382] ip2 -> ip2
I0501 03:32:45.787698 21386 net.cpp:124] Setting up ip2
I0501 03:32:45.787708 21386 net.cpp:131] Top shape: 1000 80 (80000)
I0501 03:32:45.787711 21386 net.cpp:139] Memory required for data: 86428000
I0501 03:32:45.787720 21386 layer_factory.hpp:77] Creating layer relu2
I0501 03:32:45.787729 21386 net.cpp:86] Creating Layer relu2
I0501 03:32:45.787735 21386 net.cpp:408] relu2 <- ip2
I0501 03:32:45.787739 21386 net.cpp:369] relu2 -> ip2 (in-place)
I0501 03:32:45.788656 21386 net.cpp:124] Setting up relu2
I0501 03:32:45.788671 21386 net.cpp:131] Top shape: 1000 80 (80000)
I0501 03:32:45.788676 21386 net.cpp:139] Memory required for data: 86748000
I0501 03:32:45.788679 21386 layer_factory.hpp:77] Creating layer ip3
I0501 03:32:45.788688 21386 net.cpp:86] Creating Layer ip3
I0501 03:32:45.788693 21386 net.cpp:408] ip3 <- ip2
I0501 03:32:45.788700 21386 net.cpp:382] ip3 -> ip3
I0501 03:32:45.788954 21386 net.cpp:124] Setting up ip3
I0501 03:32:45.788964 21386 net.cpp:131] Top shape: 1000 40 (40000)
I0501 03:32:45.788967 21386 net.cpp:139] Memory required for data: 86908000
I0501 03:32:45.788975 21386 layer_factory.hpp:77] Creating layer relu3
I0501 03:32:45.788980 21386 net.cpp:86] Creating Layer relu3
I0501 03:32:45.788985 21386 net.cpp:408] relu3 <- ip3
I0501 03:32:45.788990 21386 net.cpp:369] relu3 -> ip3 (in-place)
I0501 03:32:45.789183 21386 net.cpp:124] Setting up relu3
I0501 03:32:45.789193 21386 net.cpp:131] Top shape: 1000 40 (40000)
I0501 03:32:45.789196 21386 net.cpp:139] Memory required for data: 87068000
I0501 03:32:45.789201 21386 layer_factory.hpp:77] Creating layer ip4
I0501 03:32:45.789208 21386 net.cpp:86] Creating Layer ip4
I0501 03:32:45.789216 21386 net.cpp:408] ip4 <- ip3
I0501 03:32:45.789222 21386 net.cpp:382] ip4 -> ip4
I0501 03:32:45.789364 21386 net.cpp:124] Setting up ip4
I0501 03:32:45.789372 21386 net.cpp:131] Top shape: 1000 10 (10000)
I0501 03:32:45.789376 21386 net.cpp:139] Memory required for data: 87108000
I0501 03:32:45.789386 21386 layer_factory.hpp:77] Creating layer ip4_ip4_0_split
I0501 03:32:45.789394 21386 net.cpp:86] Creating Layer ip4_ip4_0_split
I0501 03:32:45.789397 21386 net.cpp:408] ip4_ip4_0_split <- ip4
I0501 03:32:45.789403 21386 net.cpp:382] ip4_ip4_0_split -> ip4_ip4_0_split_0
I0501 03:32:45.789410 21386 net.cpp:382] ip4_ip4_0_split -> ip4_ip4_0_split_1
I0501 03:32:45.789448 21386 net.cpp:124] Setting up ip4_ip4_0_split
I0501 03:32:45.789459 21386 net.cpp:131] Top shape: 1000 10 (10000)
I0501 03:32:45.789464 21386 net.cpp:131] Top shape: 1000 10 (10000)
I0501 03:32:45.789469 21386 net.cpp:139] Memory required for data: 87188000
I0501 03:32:45.789471 21386 layer_factory.hpp:77] Creating layer accuracy
I0501 03:32:45.789479 21386 net.cpp:86] Creating Layer accuracy
I0501 03:32:45.789482 21386 net.cpp:408] accuracy <- ip4_ip4_0_split_0
I0501 03:32:45.789487 21386 net.cpp:408] accuracy <- label_cifar_1_split_0
I0501 03:32:45.789492 21386 net.cpp:382] accuracy -> accuracy
…
