…
I0430 22:48:07.742102  3361 net.cpp:296] The NetState phase (0) differed from the phase (1) specified by a rule in layer cifar
I0430 22:48:07.742122  3361 net.cpp:296] The NetState phase (0) differed from the phase (1) specified by a rule in layer accuracy
I0430 22:48:07.742223  3361 net.cpp:53] Initializing net from parameters: 
name: "CIFAR"
state {
  phase: TRAIN
  level: 0
  stage: ""
}
layer {
  name: "cifar"
  type: "Data"
  top: "data"
  top: "label"
  include {
    phase: TRAIN
  }
  transform_param {
    mean_file: "examples/cifar10/mean.binaryproto"
  }
  data_param {
    source: "examples/cifar10/cifar10_train_lmdb"
    batch_size: 111
    backend: LMDB
  }
}
layer {
  name: "conv0"
  type: "Convolution"
  bottom: "data"
  top: "conv0"
  param {
    lr_mult: 1
  }
  param {
    lr_mult: 2
  }
  convolution_param {
    num_output: 8
    pad: 2
    kernel_size: 3
    stride: 1
    weight_filler {
      type: "gaussian"
      std: 0.01
    }
    bias_filler {
      type: "constant"
    }
  }
}
layer {
  name: "Sigmoid0"
  type: "Sigmoid"
  bottom: "conv0"
  top: "Sigmoid0"
}
layer {
  name: "pool0"
  type: "Pooling"
  bottom: "Sigmoid0"
  top: "pool0"
  pooling_param {
    pool: AVE
    kernel_size: 3
    stride: 2
  }
}
layer {
  name: "ip1"
  type: "InnerProduct"
  bottom: "pool0"
  top: "ip1"
  param {
    lr_mult: 1
  }
  param {
    lr_mult: 2
  }
  inner_product_param {
    num_output: 10
    weight_filler {
      type: "gaussian"
      std: 0.01
    }
    bias_filler {
      type: "constant"
    }
  }
}
layer {
  name: "relu1"
  type: "ReLU"
  bottom: "ip1"
  top: "ip1"
}
layer {
  name: "ip2"
  type: "InnerProduct"
  bottom: "ip1"
  top: "ip2"
  param {
    lr_mult: 1
  }
  param {
    lr_mult: 2
  }
  inner_product_param {
    num_output: 160
    weight_filler {
      type: "gaussian"
      std: 0.01
    }
    bias_filler {
      type: "constant"
    }
  }
}
layer {
  name: "relu2"
  type: "ReLU"
  bottom: "ip2"
  top: "ip2"
}
layer {
  name: "ip3"
  type: "InnerProduct"
  bottom: "ip2"
  top: "ip3"
  param {
    lr_mult: 1
  }
  param {
    lr_mult: 2
  }
  inner_product_param {
    num_output: 10
    weight_filler {
      type: "gaussian"
      std: 0.01
    }
    bias_filler {
      type: "constant"
    }
  }
}
layer {
  name: "relu3"
  type: "ReLU"
  bottom: "ip3"
  top: "ip3"
}
layer {
  name: "ip4"
  type: "InnerProduct"
  bottom: "ip3"
  top: "ip4"
  param {
    lr_mult: 1
  }
  param {
    lr_mult: 2
  }
  inner_product_param {
    num_output: 10
    weight_filler {
      type: "gaussian"
      std: 0.01
    }
    bias_filler {
      type: "constant"
    }
  }
}
layer {
  name: "loss"
  type: "SoftmaxWithLoss"
  bottom: "ip4"
  bottom: "label"
  top: "loss"
}
I0430 22:48:07.742297  3361 layer_factory.hpp:77] Creating layer cifar
I0430 22:48:07.742396  3361 db_lmdb.cpp:35] Opened lmdb examples/cifar10/cifar10_train_lmdb
I0430 22:48:07.742422  3361 net.cpp:86] Creating Layer cifar
I0430 22:48:07.742430  3361 net.cpp:382] cifar -> data
I0430 22:48:07.742453  3361 net.cpp:382] cifar -> label
I0430 22:48:07.742465  3361 data_transformer.cpp:25] Loading mean file from: examples/cifar10/mean.binaryproto
I0430 22:48:07.744565  3361 data_layer.cpp:45] output data size: 111,3,32,32
I0430 22:48:07.752434  3361 net.cpp:124] Setting up cifar
I0430 22:48:07.752454  3361 net.cpp:131] Top shape: 111 3 32 32 (340992)
I0430 22:48:07.752461  3361 net.cpp:131] Top shape: 111 (111)
I0430 22:48:07.752465  3361 net.cpp:139] Memory required for data: 1364412
I0430 22:48:07.752486  3361 layer_factory.hpp:77] Creating layer conv0
I0430 22:48:07.752503  3361 net.cpp:86] Creating Layer conv0
I0430 22:48:07.752509  3361 net.cpp:408] conv0 <- data
I0430 22:48:07.752523  3361 net.cpp:382] conv0 -> conv0
I0430 22:48:08.037194  3361 net.cpp:124] Setting up conv0
I0430 22:48:08.037222  3361 net.cpp:131] Top shape: 111 8 34 34 (1026528)
I0430 22:48:08.037226  3361 net.cpp:139] Memory required for data: 5470524
I0430 22:48:08.037241  3361 layer_factory.hpp:77] Creating layer Sigmoid0
I0430 22:48:08.037252  3361 net.cpp:86] Creating Layer Sigmoid0
I0430 22:48:08.037257  3361 net.cpp:408] Sigmoid0 <- conv0
I0430 22:48:08.037262  3361 net.cpp:382] Sigmoid0 -> Sigmoid0
I0430 22:48:08.037448  3361 net.cpp:124] Setting up Sigmoid0
I0430 22:48:08.037457  3361 net.cpp:131] Top shape: 111 8 34 34 (1026528)
I0430 22:48:08.037461  3361 net.cpp:139] Memory required for data: 9576636
I0430 22:48:08.037464  3361 layer_factory.hpp:77] Creating layer pool0
I0430 22:48:08.037470  3361 net.cpp:86] Creating Layer pool0
I0430 22:48:08.037474  3361 net.cpp:408] pool0 <- Sigmoid0
I0430 22:48:08.037478  3361 net.cpp:382] pool0 -> pool0
I0430 22:48:08.038192  3361 net.cpp:124] Setting up pool0
I0430 22:48:08.038205  3361 net.cpp:131] Top shape: 111 8 17 17 (256632)
I0430 22:48:08.038208  3361 net.cpp:139] Memory required for data: 10603164
I0430 22:48:08.038211  3361 layer_factory.hpp:77] Creating layer ip1
I0430 22:48:08.038225  3361 net.cpp:86] Creating Layer ip1
I0430 22:48:08.038228  3361 net.cpp:408] ip1 <- pool0
I0430 22:48:08.038233  3361 net.cpp:382] ip1 -> ip1
I0430 22:48:08.039851  3361 net.cpp:124] Setting up ip1
I0430 22:48:08.039865  3361 net.cpp:131] Top shape: 111 10 (1110)
I0430 22:48:08.039867  3361 net.cpp:139] Memory required for data: 10607604
I0430 22:48:08.039875  3361 layer_factory.hpp:77] Creating layer relu1
I0430 22:48:08.039881  3361 net.cpp:86] Creating Layer relu1
I0430 22:48:08.039885  3361 net.cpp:408] relu1 <- ip1
I0430 22:48:08.039888  3361 net.cpp:369] relu1 -> ip1 (in-place)
I0430 22:48:08.040033  3361 net.cpp:124] Setting up relu1
I0430 22:48:08.040042  3361 net.cpp:131] Top shape: 111 10 (1110)
I0430 22:48:08.040045  3361 net.cpp:139] Memory required for data: 10612044
I0430 22:48:08.040048  3361 layer_factory.hpp:77] Creating layer ip2
I0430 22:48:08.040055  3361 net.cpp:86] Creating Layer ip2
I0430 22:48:08.040057  3361 net.cpp:408] ip2 <- ip1
I0430 22:48:08.040062  3361 net.cpp:382] ip2 -> ip2
I0430 22:48:08.040196  3361 net.cpp:124] Setting up ip2
I0430 22:48:08.040205  3361 net.cpp:131] Top shape: 111 160 (17760)
I0430 22:48:08.040207  3361 net.cpp:139] Memory required for data: 10683084
I0430 22:48:08.040213  3361 layer_factory.hpp:77] Creating layer relu2
I0430 22:48:08.040218  3361 net.cpp:86] Creating Layer relu2
I0430 22:48:08.040221  3361 net.cpp:408] relu2 <- ip2
I0430 22:48:08.040225  3361 net.cpp:369] relu2 -> ip2 (in-place)
I0430 22:48:08.040365  3361 net.cpp:124] Setting up relu2
I0430 22:48:08.040374  3361 net.cpp:131] Top shape: 111 160 (17760)
I0430 22:48:08.040376  3361 net.cpp:139] Memory required for data: 10754124
I0430 22:48:08.040379  3361 layer_factory.hpp:77] Creating layer ip3
I0430 22:48:08.040385  3361 net.cpp:86] Creating Layer ip3
I0430 22:48:08.040388  3361 net.cpp:408] ip3 <- ip2
I0430 22:48:08.040393  3361 net.cpp:382] ip3 -> ip3
I0430 22:48:08.040544  3361 net.cpp:124] Setting up ip3
I0430 22:48:08.040550  3361 net.cpp:131] Top shape: 111 10 (1110)
I0430 22:48:08.040554  3361 net.cpp:139] Memory required for data: 10758564
I0430 22:48:08.040558  3361 layer_factory.hpp:77] Creating layer relu3
I0430 22:48:08.040563  3361 net.cpp:86] Creating Layer relu3
I0430 22:48:08.040566  3361 net.cpp:408] relu3 <- ip3
I0430 22:48:08.040570  3361 net.cpp:369] relu3 -> ip3 (in-place)
I0430 22:48:08.040725  3361 net.cpp:124] Setting up relu3
I0430 22:48:08.040733  3361 net.cpp:131] Top shape: 111 10 (1110)
I0430 22:48:08.040736  3361 net.cpp:139] Memory required for data: 10763004
I0430 22:48:08.040740  3361 layer_factory.hpp:77] Creating layer ip4
I0430 22:48:08.040760  3361 net.cpp:86] Creating Layer ip4
I0430 22:48:08.040766  3361 net.cpp:408] ip4 <- ip3
I0430 22:48:08.040786  3361 net.cpp:382] ip4 -> ip4
I0430 22:48:08.040938  3361 net.cpp:124] Setting up ip4
I0430 22:48:08.040947  3361 net.cpp:131] Top shape: 111 10 (1110)
I0430 22:48:08.040951  3361 net.cpp:139] Memory required for data: 10767444
I0430 22:48:08.040958  3361 layer_factory.hpp:77] Creating layer loss
I0430 22:48:08.040966  3361 net.cpp:86] Creating Layer loss
I0430 22:48:08.040971  3361 net.cpp:408] loss <- ip4
I0430 22:48:08.040974  3361 net.cpp:408] loss <- label
I0430 22:48:08.040979  3361 net.cpp:382] loss -> loss
I0430 22:48:08.040998  3361 layer_factory.hpp:77] Creating layer loss
…
I0430 22:48:08.042270  3361 solver.cpp:173] Creating test net (#0) specified by net file: ECE595/cifar/train_test/var_everything/cifar_train_test_205.prototxt
I0430 22:48:08.042296  3361 net.cpp:296] The NetState phase (1) differed from the phase (0) specified by a rule in layer cifar
I0430 22:48:08.042383  3361 net.cpp:53] Initializing net from parameters: 
name: "CIFAR"
state {
  phase: TEST
}
layer {
  name: "cifar"
  type: "Data"
  top: "data"
  top: "label"
  include {
    phase: TEST
  }
  transform_param {
    mean_file: "examples/cifar10/mean.binaryproto"
  }
  data_param {
    source: "examples/cifar10/cifar10_test_lmdb"
    batch_size: 1000
    backend: LMDB
  }
}
layer {
  name: "conv0"
  type: "Convolution"
  bottom: "data"
  top: "conv0"
  param {
    lr_mult: 1
  }
  param {
    lr_mult: 2
  }
  convolution_param {
    num_output: 8
    pad: 2
    kernel_size: 3
    stride: 1
    weight_filler {
      type: "gaussian"
      std: 0.01
    }
    bias_filler {
      type: "constant"
    }
  }
}
layer {
  name: "Sigmoid0"
  type: "Sigmoid"
  bottom: "conv0"
  top: "Sigmoid0"
}
layer {
  name: "pool0"
  type: "Pooling"
  bottom: "Sigmoid0"
  top: "pool0"
  pooling_param {
    pool: AVE
    kernel_size: 3
    stride: 2
  }
}
layer {
  name: "ip1"
  type: "InnerProduct"
  bottom: "pool0"
  top: "ip1"
  param {
    lr_mult: 1
  }
  param {
    lr_mult: 2
  }
  inner_product_param {
    num_output: 10
    weight_filler {
      type: "gaussian"
      std: 0.01
    }
    bias_filler {
      type: "constant"
    }
  }
}
layer {
  name: "relu1"
  type: "ReLU"
  bottom: "ip1"
  top: "ip1"
}
layer {
  name: "ip2"
  type: "InnerProduct"
  bottom: "ip1"
  top: "ip2"
  param {
    lr_mult: 1
  }
  param {
    lr_mult: 2
  }
  inner_product_param {
    num_output: 160
    weight_filler {
      type: "gaussian"
      std: 0.01
    }
    bias_filler {
      type: "constant"
    }
  }
}
layer {
  name: "relu2"
  type: "ReLU"
  bottom: "ip2"
  top: "ip2"
}
layer {
  name: "ip3"
  type: "InnerProduct"
  bottom: "ip2"
  top: "ip3"
  param {
    lr_mult: 1
  }
  param {
    lr_mult: 2
  }
  inner_product_param {
    num_output: 10
    weight_filler {
      type: "gaussian"
      std: 0.01
    }
    bias_filler {
      type: "constant"
    }
  }
}
layer {
  name: "relu3"
  type: "ReLU"
  bottom: "ip3"
  top: "ip3"
}
layer {
  name: "ip4"
  type: "InnerProduct"
  bottom: "ip3"
  top: "ip4"
  param {
    lr_mult: 1
  }
  param {
    lr_mult: 2
  }
  inner_product_param {
    num_output: 10
    weight_filler {
      type: "gaussian"
      std: 0.01
    }
    bias_filler {
      type: "constant"
    }
  }
}
layer {
  name: "accuracy"
  type: "Accuracy"
  bottom: "ip4"
  bottom: "label"
  top: "accuracy"
  include {
    phase: TEST
  }
}
layer {
  name: "loss"
  type: "SoftmaxWithLoss"
  bottom: "ip4"
  bottom: "label"
  top: "loss"
}
I0430 22:48:08.042459  3361 layer_factory.hpp:77] Creating layer cifar
I0430 22:48:08.042502  3361 db_lmdb.cpp:35] Opened lmdb examples/cifar10/cifar10_test_lmdb
I0430 22:48:08.042531  3361 net.cpp:86] Creating Layer cifar
I0430 22:48:08.042536  3361 net.cpp:382] cifar -> data
I0430 22:48:08.042544  3361 net.cpp:382] cifar -> label
I0430 22:48:08.042551  3361 data_transformer.cpp:25] Loading mean file from: examples/cifar10/mean.binaryproto
I0430 22:48:08.042703  3361 data_layer.cpp:45] output data size: 1000,3,32,32
I0430 22:48:08.065464  3361 net.cpp:124] Setting up cifar
I0430 22:48:08.065490  3361 net.cpp:131] Top shape: 1000 3 32 32 (3072000)
I0430 22:48:08.065495  3361 net.cpp:131] Top shape: 1000 (1000)
I0430 22:48:08.065498  3361 net.cpp:139] Memory required for data: 12292000
I0430 22:48:08.065505  3361 layer_factory.hpp:77] Creating layer label_cifar_1_split
I0430 22:48:08.065520  3361 net.cpp:86] Creating Layer label_cifar_1_split
I0430 22:48:08.065523  3361 net.cpp:408] label_cifar_1_split <- label
I0430 22:48:08.065529  3361 net.cpp:382] label_cifar_1_split -> label_cifar_1_split_0
I0430 22:48:08.065537  3361 net.cpp:382] label_cifar_1_split -> label_cifar_1_split_1
I0430 22:48:08.065662  3361 net.cpp:124] Setting up label_cifar_1_split
I0430 22:48:08.065670  3361 net.cpp:131] Top shape: 1000 (1000)
I0430 22:48:08.065673  3361 net.cpp:131] Top shape: 1000 (1000)
I0430 22:48:08.065676  3361 net.cpp:139] Memory required for data: 12300000
I0430 22:48:08.065680  3361 layer_factory.hpp:77] Creating layer conv0
I0430 22:48:08.065692  3361 net.cpp:86] Creating Layer conv0
I0430 22:48:08.065696  3361 net.cpp:408] conv0 <- data
I0430 22:48:08.065701  3361 net.cpp:382] conv0 -> conv0
I0430 22:48:08.067193  3361 net.cpp:124] Setting up conv0
I0430 22:48:08.067206  3361 net.cpp:131] Top shape: 1000 8 34 34 (9248000)
I0430 22:48:08.067210  3361 net.cpp:139] Memory required for data: 49292000
I0430 22:48:08.067219  3361 layer_factory.hpp:77] Creating layer Sigmoid0
I0430 22:48:08.067225  3361 net.cpp:86] Creating Layer Sigmoid0
I0430 22:48:08.067229  3361 net.cpp:408] Sigmoid0 <- conv0
I0430 22:48:08.067234  3361 net.cpp:382] Sigmoid0 -> Sigmoid0
I0430 22:48:08.067409  3361 net.cpp:124] Setting up Sigmoid0
I0430 22:48:08.067417  3361 net.cpp:131] Top shape: 1000 8 34 34 (9248000)
I0430 22:48:08.067421  3361 net.cpp:139] Memory required for data: 86284000
I0430 22:48:08.067425  3361 layer_factory.hpp:77] Creating layer pool0
I0430 22:48:08.067432  3361 net.cpp:86] Creating Layer pool0
I0430 22:48:08.067435  3361 net.cpp:408] pool0 <- Sigmoid0
I0430 22:48:08.067440  3361 net.cpp:382] pool0 -> pool0
I0430 22:48:08.067672  3361 net.cpp:124] Setting up pool0
I0430 22:48:08.067680  3361 net.cpp:131] Top shape: 1000 8 17 17 (2312000)
I0430 22:48:08.067683  3361 net.cpp:139] Memory required for data: 95532000
I0430 22:48:08.067687  3361 layer_factory.hpp:77] Creating layer ip1
I0430 22:48:08.067694  3361 net.cpp:86] Creating Layer ip1
I0430 22:48:08.067698  3361 net.cpp:408] ip1 <- pool0
I0430 22:48:08.067703  3361 net.cpp:382] ip1 -> ip1
I0430 22:48:08.069391  3361 net.cpp:124] Setting up ip1
I0430 22:48:08.069401  3361 net.cpp:131] Top shape: 1000 10 (10000)
I0430 22:48:08.069404  3361 net.cpp:139] Memory required for data: 95572000
I0430 22:48:08.069427  3361 layer_factory.hpp:77] Creating layer relu1
I0430 22:48:08.069432  3361 net.cpp:86] Creating Layer relu1
I0430 22:48:08.069434  3361 net.cpp:408] relu1 <- ip1
I0430 22:48:08.069439  3361 net.cpp:369] relu1 -> ip1 (in-place)
I0430 22:48:08.069602  3361 net.cpp:124] Setting up relu1
I0430 22:48:08.069610  3361 net.cpp:131] Top shape: 1000 10 (10000)
I0430 22:48:08.069614  3361 net.cpp:139] Memory required for data: 95612000
I0430 22:48:08.069617  3361 layer_factory.hpp:77] Creating layer ip2
I0430 22:48:08.069623  3361 net.cpp:86] Creating Layer ip2
I0430 22:48:08.069627  3361 net.cpp:408] ip2 <- ip1
I0430 22:48:08.069631  3361 net.cpp:382] ip2 -> ip2
I0430 22:48:08.069777  3361 net.cpp:124] Setting up ip2
I0430 22:48:08.069784  3361 net.cpp:131] Top shape: 1000 160 (160000)
I0430 22:48:08.069787  3361 net.cpp:139] Memory required for data: 96252000
I0430 22:48:08.069794  3361 layer_factory.hpp:77] Creating layer relu2
I0430 22:48:08.069800  3361 net.cpp:86] Creating Layer relu2
I0430 22:48:08.069803  3361 net.cpp:408] relu2 <- ip2
I0430 22:48:08.069808  3361 net.cpp:369] relu2 -> ip2 (in-place)
I0430 22:48:08.070559  3361 net.cpp:124] Setting up relu2
I0430 22:48:08.070570  3361 net.cpp:131] Top shape: 1000 160 (160000)
I0430 22:48:08.070574  3361 net.cpp:139] Memory required for data: 96892000
I0430 22:48:08.070576  3361 layer_factory.hpp:77] Creating layer ip3
I0430 22:48:08.070583  3361 net.cpp:86] Creating Layer ip3
I0430 22:48:08.070586  3361 net.cpp:408] ip3 <- ip2
I0430 22:48:08.070591  3361 net.cpp:382] ip3 -> ip3
I0430 22:48:08.070780  3361 net.cpp:124] Setting up ip3
I0430 22:48:08.070787  3361 net.cpp:131] Top shape: 1000 10 (10000)
I0430 22:48:08.070791  3361 net.cpp:139] Memory required for data: 96932000
I0430 22:48:08.070797  3361 layer_factory.hpp:77] Creating layer relu3
I0430 22:48:08.070803  3361 net.cpp:86] Creating Layer relu3
I0430 22:48:08.070806  3361 net.cpp:408] relu3 <- ip3
I0430 22:48:08.070811  3361 net.cpp:369] relu3 -> ip3 (in-place)
I0430 22:48:08.070953  3361 net.cpp:124] Setting up relu3
I0430 22:48:08.070961  3361 net.cpp:131] Top shape: 1000 10 (10000)
I0430 22:48:08.070964  3361 net.cpp:139] Memory required for data: 96972000
I0430 22:48:08.070967  3361 layer_factory.hpp:77] Creating layer ip4
I0430 22:48:08.070973  3361 net.cpp:86] Creating Layer ip4
I0430 22:48:08.070976  3361 net.cpp:408] ip4 <- ip3
I0430 22:48:08.070982  3361 net.cpp:382] ip4 -> ip4
I0430 22:48:08.071110  3361 net.cpp:124] Setting up ip4
I0430 22:48:08.071116  3361 net.cpp:131] Top shape: 1000 10 (10000)
I0430 22:48:08.071120  3361 net.cpp:139] Memory required for data: 97012000
I0430 22:48:08.071128  3361 layer_factory.hpp:77] Creating layer ip4_ip4_0_split
I0430 22:48:08.071133  3361 net.cpp:86] Creating Layer ip4_ip4_0_split
I0430 22:48:08.071136  3361 net.cpp:408] ip4_ip4_0_split <- ip4
I0430 22:48:08.071141  3361 net.cpp:382] ip4_ip4_0_split -> ip4_ip4_0_split_0
I0430 22:48:08.071146  3361 net.cpp:382] ip4_ip4_0_split -> ip4_ip4_0_split_1
I0430 22:48:08.071174  3361 net.cpp:124] Setting up ip4_ip4_0_split
I0430 22:48:08.071180  3361 net.cpp:131] Top shape: 1000 10 (10000)
I0430 22:48:08.071184  3361 net.cpp:131] Top shape: 1000 10 (10000)
I0430 22:48:08.071187  3361 net.cpp:139] Memory required for data: 97092000
I0430 22:48:08.071190  3361 layer_factory.hpp:77] Creating layer accuracy
I0430 22:48:08.071195  3361 net.cpp:86] Creating Layer accuracy
I0430 22:48:08.071209  3361 net.cpp:408] accuracy <- ip4_ip4_0_split_0
I0430 22:48:08.071229  3361 net.cpp:408] accuracy <- label_cifar_1_split_0
I0430 22:48:08.071234  3361 net.cpp:382] accuracy -> accuracy
…
