…
I0501 02:59:20.745860 18385 net.cpp:296] The NetState phase (0) differed from the phase (1) specified by a rule in layer cifar
I0501 02:59:20.745874 18385 net.cpp:296] The NetState phase (0) differed from the phase (1) specified by a rule in layer accuracy
I0501 02:59:20.745945 18385 net.cpp:53] Initializing net from parameters: 
name: "CIFAR"
state {
  phase: TRAIN
  level: 0
  stage: ""
}
layer {
  name: "cifar"
  type: "Data"
  top: "data"
  top: "label"
  include {
    phase: TRAIN
  }
  transform_param {
    mean_file: "examples/cifar10/mean.binaryproto"
  }
  data_param {
    source: "examples/cifar10/cifar10_train_lmdb"
    batch_size: 111
    backend: LMDB
  }
}
layer {
  name: "conv0"
  type: "Convolution"
  bottom: "data"
  top: "conv0"
  param {
    lr_mult: 1
  }
  param {
    lr_mult: 2
  }
  convolution_param {
    num_output: 8
    pad: 2
    kernel_size: 5
    stride: 1
    weight_filler {
      type: "gaussian"
      std: 0.01
    }
    bias_filler {
      type: "constant"
    }
  }
}
layer {
  name: "Sigmoid0"
  type: "Sigmoid"
  bottom: "conv0"
  top: "Sigmoid0"
}
layer {
  name: "pool0"
  type: "Pooling"
  bottom: "Sigmoid0"
  top: "pool0"
  pooling_param {
    pool: AVE
    kernel_size: 3
    stride: 2
  }
}
layer {
  name: "ip1"
  type: "InnerProduct"
  bottom: "pool0"
  top: "ip1"
  param {
    lr_mult: 1
  }
  param {
    lr_mult: 2
  }
  inner_product_param {
    num_output: 160
    weight_filler {
      type: "gaussian"
      std: 0.01
    }
    bias_filler {
      type: "constant"
    }
  }
}
layer {
  name: "relu1"
  type: "ReLU"
  bottom: "ip1"
  top: "ip1"
}
layer {
  name: "ip2"
  type: "InnerProduct"
  bottom: "ip1"
  top: "ip2"
  param {
    lr_mult: 1
  }
  param {
    lr_mult: 2
  }
  inner_product_param {
    num_output: 160
    weight_filler {
      type: "gaussian"
      std: 0.01
    }
    bias_filler {
      type: "constant"
    }
  }
}
layer {
  name: "relu2"
  type: "ReLU"
  bottom: "ip2"
  top: "ip2"
}
layer {
  name: "ip3"
  type: "InnerProduct"
  bottom: "ip2"
  top: "ip3"
  param {
    lr_mult: 1
  }
  param {
    lr_mult: 2
  }
  inner_product_param {
    num_output: 10
    weight_filler {
      type: "gaussian"
      std: 0.01
    }
    bias_filler {
      type: "constant"
    }
  }
}
layer {
  name: "loss"
  type: "SoftmaxWithLoss"
  bottom: "ip3"
  bottom: "label"
  top: "loss"
}
I0501 02:59:20.746000 18385 layer_factory.hpp:77] Creating layer cifar
I0501 02:59:20.746096 18385 db_lmdb.cpp:35] Opened lmdb examples/cifar10/cifar10_train_lmdb
I0501 02:59:20.746119 18385 net.cpp:86] Creating Layer cifar
I0501 02:59:20.746124 18385 net.cpp:382] cifar -> data
I0501 02:59:20.746142 18385 net.cpp:382] cifar -> label
I0501 02:59:20.746152 18385 data_transformer.cpp:25] Loading mean file from: examples/cifar10/mean.binaryproto
I0501 02:59:20.747871 18385 data_layer.cpp:45] output data size: 111,3,32,32
I0501 02:59:20.754545 18385 net.cpp:124] Setting up cifar
I0501 02:59:20.754576 18385 net.cpp:131] Top shape: 111 3 32 32 (340992)
I0501 02:59:20.754581 18385 net.cpp:131] Top shape: 111 (111)
I0501 02:59:20.754585 18385 net.cpp:139] Memory required for data: 1364412
I0501 02:59:20.754591 18385 layer_factory.hpp:77] Creating layer conv0
I0501 02:59:20.754606 18385 net.cpp:86] Creating Layer conv0
I0501 02:59:20.754611 18385 net.cpp:408] conv0 <- data
I0501 02:59:20.754621 18385 net.cpp:382] conv0 -> conv0
I0501 02:59:21.063740 18385 net.cpp:124] Setting up conv0
I0501 02:59:21.063799 18385 net.cpp:131] Top shape: 111 8 32 32 (909312)
I0501 02:59:21.063805 18385 net.cpp:139] Memory required for data: 5001660
I0501 02:59:21.063822 18385 layer_factory.hpp:77] Creating layer Sigmoid0
I0501 02:59:21.063835 18385 net.cpp:86] Creating Layer Sigmoid0
I0501 02:59:21.063840 18385 net.cpp:408] Sigmoid0 <- conv0
I0501 02:59:21.063848 18385 net.cpp:382] Sigmoid0 -> Sigmoid0
I0501 02:59:21.064054 18385 net.cpp:124] Setting up Sigmoid0
I0501 02:59:21.064065 18385 net.cpp:131] Top shape: 111 8 32 32 (909312)
I0501 02:59:21.064070 18385 net.cpp:139] Memory required for data: 8638908
I0501 02:59:21.064075 18385 layer_factory.hpp:77] Creating layer pool0
I0501 02:59:21.064085 18385 net.cpp:86] Creating Layer pool0
I0501 02:59:21.064088 18385 net.cpp:408] pool0 <- Sigmoid0
I0501 02:59:21.064095 18385 net.cpp:382] pool0 -> pool0
I0501 02:59:21.064975 18385 net.cpp:124] Setting up pool0
I0501 02:59:21.064991 18385 net.cpp:131] Top shape: 111 8 16 16 (227328)
I0501 02:59:21.064996 18385 net.cpp:139] Memory required for data: 9548220
I0501 02:59:21.065001 18385 layer_factory.hpp:77] Creating layer ip1
I0501 02:59:21.065011 18385 net.cpp:86] Creating Layer ip1
I0501 02:59:21.065016 18385 net.cpp:408] ip1 <- pool0
I0501 02:59:21.065021 18385 net.cpp:382] ip1 -> ip1
I0501 02:59:21.076835 18385 net.cpp:124] Setting up ip1
I0501 02:59:21.076850 18385 net.cpp:131] Top shape: 111 160 (17760)
I0501 02:59:21.076854 18385 net.cpp:139] Memory required for data: 9619260
I0501 02:59:21.076874 18385 layer_factory.hpp:77] Creating layer relu1
I0501 02:59:21.076881 18385 net.cpp:86] Creating Layer relu1
I0501 02:59:21.076886 18385 net.cpp:408] relu1 <- ip1
I0501 02:59:21.076891 18385 net.cpp:369] relu1 -> ip1 (in-place)
I0501 02:59:21.077086 18385 net.cpp:124] Setting up relu1
I0501 02:59:21.077096 18385 net.cpp:131] Top shape: 111 160 (17760)
I0501 02:59:21.077100 18385 net.cpp:139] Memory required for data: 9690300
I0501 02:59:21.077105 18385 layer_factory.hpp:77] Creating layer ip2
I0501 02:59:21.077112 18385 net.cpp:86] Creating Layer ip2
I0501 02:59:21.077119 18385 net.cpp:408] ip2 <- ip1
I0501 02:59:21.077126 18385 net.cpp:382] ip2 -> ip2
I0501 02:59:21.079057 18385 net.cpp:124] Setting up ip2
I0501 02:59:21.079071 18385 net.cpp:131] Top shape: 111 160 (17760)
I0501 02:59:21.079077 18385 net.cpp:139] Memory required for data: 9761340
I0501 02:59:21.079087 18385 layer_factory.hpp:77] Creating layer relu2
I0501 02:59:21.079092 18385 net.cpp:86] Creating Layer relu2
I0501 02:59:21.079097 18385 net.cpp:408] relu2 <- ip2
I0501 02:59:21.079102 18385 net.cpp:369] relu2 -> ip2 (in-place)
I0501 02:59:21.079329 18385 net.cpp:124] Setting up relu2
I0501 02:59:21.079339 18385 net.cpp:131] Top shape: 111 160 (17760)
I0501 02:59:21.079344 18385 net.cpp:139] Memory required for data: 9832380
I0501 02:59:21.079347 18385 layer_factory.hpp:77] Creating layer ip3
I0501 02:59:21.079358 18385 net.cpp:86] Creating Layer ip3
I0501 02:59:21.079370 18385 net.cpp:408] ip3 <- ip2
I0501 02:59:21.079375 18385 net.cpp:382] ip3 -> ip3
I0501 02:59:21.079550 18385 net.cpp:124] Setting up ip3
I0501 02:59:21.079558 18385 net.cpp:131] Top shape: 111 10 (1110)
I0501 02:59:21.079561 18385 net.cpp:139] Memory required for data: 9836820
I0501 02:59:21.079568 18385 layer_factory.hpp:77] Creating layer loss
I0501 02:59:21.079576 18385 net.cpp:86] Creating Layer loss
I0501 02:59:21.079581 18385 net.cpp:408] loss <- ip3
I0501 02:59:21.079586 18385 net.cpp:408] loss <- label
I0501 02:59:21.079592 18385 net.cpp:382] loss -> loss
I0501 02:59:21.079620 18385 layer_factory.hpp:77] Creating layer loss
…
I0501 02:59:21.080349 18385 solver.cpp:173] Creating test net (#0) specified by net file: ECE595/cifar/train_test/var_everything/cifar_train_test_339.prototxt
I0501 02:59:21.080379 18385 net.cpp:296] The NetState phase (1) differed from the phase (0) specified by a rule in layer cifar
I0501 02:59:21.080498 18385 net.cpp:53] Initializing net from parameters: 
name: "CIFAR"
state {
  phase: TEST
}
layer {
  name: "cifar"
  type: "Data"
  top: "data"
  top: "label"
  include {
    phase: TEST
  }
  transform_param {
    mean_file: "examples/cifar10/mean.binaryproto"
  }
  data_param {
    source: "examples/cifar10/cifar10_test_lmdb"
    batch_size: 1000
    backend: LMDB
  }
}
layer {
  name: "conv0"
  type: "Convolution"
  bottom: "data"
  top: "conv0"
  param {
    lr_mult: 1
  }
  param {
    lr_mult: 2
  }
  convolution_param {
    num_output: 8
    pad: 2
    kernel_size: 5
    stride: 1
    weight_filler {
      type: "gaussian"
      std: 0.01
    }
    bias_filler {
      type: "constant"
    }
  }
}
layer {
  name: "Sigmoid0"
  type: "Sigmoid"
  bottom: "conv0"
  top: "Sigmoid0"
}
layer {
  name: "pool0"
  type: "Pooling"
  bottom: "Sigmoid0"
  top: "pool0"
  pooling_param {
    pool: AVE
    kernel_size: 3
    stride: 2
  }
}
layer {
  name: "ip1"
  type: "InnerProduct"
  bottom: "pool0"
  top: "ip1"
  param {
    lr_mult: 1
  }
  param {
    lr_mult: 2
  }
  inner_product_param {
    num_output: 160
    weight_filler {
      type: "gaussian"
      std: 0.01
    }
    bias_filler {
      type: "constant"
    }
  }
}
layer {
  name: "relu1"
  type: "ReLU"
  bottom: "ip1"
  top: "ip1"
}
layer {
  name: "ip2"
  type: "InnerProduct"
  bottom: "ip1"
  top: "ip2"
  param {
    lr_mult: 1
  }
  param {
    lr_mult: 2
  }
  inner_product_param {
    num_output: 160
    weight_filler {
      type: "gaussian"
      std: 0.01
    }
    bias_filler {
      type: "constant"
    }
  }
}
layer {
  name: "relu2"
  type: "ReLU"
  bottom: "ip2"
  top: "ip2"
}
layer {
  name: "ip3"
  type: "InnerProduct"
  bottom: "ip2"
  top: "ip3"
  param {
    lr_mult: 1
  }
  param {
    lr_mult: 2
  }
  inner_product_param {
    num_output: 10
    weight_filler {
      type: "gaussian"
      std: 0.01
    }
    bias_filler {
      type: "constant"
    }
  }
}
layer {
  name: "accuracy"
  type: "Accuracy"
  bottom: "ip3"
  bottom: "label"
  top: "accuracy"
  include {
    phase: TEST
  }
}
layer {
  name: "loss"
  type: "SoftmaxWithLoss"
  bottom: "ip3"
  bottom: "label"
  top: "loss"
}
I0501 02:59:21.080577 18385 layer_factory.hpp:77] Creating layer cifar
I0501 02:59:21.080629 18385 db_lmdb.cpp:35] Opened lmdb examples/cifar10/cifar10_test_lmdb
I0501 02:59:21.080643 18385 net.cpp:86] Creating Layer cifar
I0501 02:59:21.080648 18385 net.cpp:382] cifar -> data
I0501 02:59:21.080659 18385 net.cpp:382] cifar -> label
I0501 02:59:21.080667 18385 data_transformer.cpp:25] Loading mean file from: examples/cifar10/mean.binaryproto
I0501 02:59:21.080865 18385 data_layer.cpp:45] output data size: 1000,3,32,32
I0501 02:59:21.106418 18385 net.cpp:124] Setting up cifar
I0501 02:59:21.106446 18385 net.cpp:131] Top shape: 1000 3 32 32 (3072000)
I0501 02:59:21.106451 18385 net.cpp:131] Top shape: 1000 (1000)
I0501 02:59:21.106456 18385 net.cpp:139] Memory required for data: 12292000
I0501 02:59:21.106462 18385 layer_factory.hpp:77] Creating layer label_cifar_1_split
I0501 02:59:21.106508 18385 net.cpp:86] Creating Layer label_cifar_1_split
I0501 02:59:21.106529 18385 net.cpp:408] label_cifar_1_split <- label
I0501 02:59:21.106539 18385 net.cpp:382] label_cifar_1_split -> label_cifar_1_split_0
I0501 02:59:21.106549 18385 net.cpp:382] label_cifar_1_split -> label_cifar_1_split_1
I0501 02:59:21.106686 18385 net.cpp:124] Setting up label_cifar_1_split
I0501 02:59:21.106695 18385 net.cpp:131] Top shape: 1000 (1000)
I0501 02:59:21.106700 18385 net.cpp:131] Top shape: 1000 (1000)
I0501 02:59:21.106703 18385 net.cpp:139] Memory required for data: 12300000
I0501 02:59:21.106708 18385 layer_factory.hpp:77] Creating layer conv0
I0501 02:59:21.106725 18385 net.cpp:86] Creating Layer conv0
I0501 02:59:21.106729 18385 net.cpp:408] conv0 <- data
I0501 02:59:21.106736 18385 net.cpp:382] conv0 -> conv0
I0501 02:59:21.108719 18385 net.cpp:124] Setting up conv0
I0501 02:59:21.108736 18385 net.cpp:131] Top shape: 1000 8 32 32 (8192000)
I0501 02:59:21.108741 18385 net.cpp:139] Memory required for data: 45068000
I0501 02:59:21.108754 18385 layer_factory.hpp:77] Creating layer Sigmoid0
I0501 02:59:21.108762 18385 net.cpp:86] Creating Layer Sigmoid0
I0501 02:59:21.108767 18385 net.cpp:408] Sigmoid0 <- conv0
I0501 02:59:21.108772 18385 net.cpp:382] Sigmoid0 -> Sigmoid0
I0501 02:59:21.109803 18385 net.cpp:124] Setting up Sigmoid0
I0501 02:59:21.109818 18385 net.cpp:131] Top shape: 1000 8 32 32 (8192000)
I0501 02:59:21.109822 18385 net.cpp:139] Memory required for data: 77836000
I0501 02:59:21.109827 18385 layer_factory.hpp:77] Creating layer pool0
I0501 02:59:21.109836 18385 net.cpp:86] Creating Layer pool0
I0501 02:59:21.109848 18385 net.cpp:408] pool0 <- Sigmoid0
I0501 02:59:21.109855 18385 net.cpp:382] pool0 -> pool0
I0501 02:59:21.111032 18385 net.cpp:124] Setting up pool0
I0501 02:59:21.111044 18385 net.cpp:131] Top shape: 1000 8 16 16 (2048000)
I0501 02:59:21.111048 18385 net.cpp:139] Memory required for data: 86028000
I0501 02:59:21.111052 18385 layer_factory.hpp:77] Creating layer ip1
I0501 02:59:21.111063 18385 net.cpp:86] Creating Layer ip1
I0501 02:59:21.111074 18385 net.cpp:408] ip1 <- pool0
I0501 02:59:21.111080 18385 net.cpp:382] ip1 -> ip1
I0501 02:59:21.122900 18385 net.cpp:124] Setting up ip1
I0501 02:59:21.122916 18385 net.cpp:131] Top shape: 1000 160 (160000)
I0501 02:59:21.122920 18385 net.cpp:139] Memory required for data: 86668000
I0501 02:59:21.122931 18385 layer_factory.hpp:77] Creating layer relu1
I0501 02:59:21.122938 18385 net.cpp:86] Creating Layer relu1
I0501 02:59:21.122948 18385 net.cpp:408] relu1 <- ip1
I0501 02:59:21.122956 18385 net.cpp:369] relu1 -> ip1 (in-place)
I0501 02:59:21.123167 18385 net.cpp:124] Setting up relu1
I0501 02:59:21.123177 18385 net.cpp:131] Top shape: 1000 160 (160000)
I0501 02:59:21.123180 18385 net.cpp:139] Memory required for data: 87308000
I0501 02:59:21.123184 18385 layer_factory.hpp:77] Creating layer ip2
I0501 02:59:21.123193 18385 net.cpp:86] Creating Layer ip2
I0501 02:59:21.123198 18385 net.cpp:408] ip2 <- ip1
I0501 02:59:21.123203 18385 net.cpp:382] ip2 -> ip2
I0501 02:59:21.124171 18385 net.cpp:124] Setting up ip2
I0501 02:59:21.124181 18385 net.cpp:131] Top shape: 1000 160 (160000)
I0501 02:59:21.124184 18385 net.cpp:139] Memory required for data: 87948000
I0501 02:59:21.124193 18385 layer_factory.hpp:77] Creating layer relu2
I0501 02:59:21.124200 18385 net.cpp:86] Creating Layer relu2
I0501 02:59:21.124204 18385 net.cpp:408] relu2 <- ip2
I0501 02:59:21.124210 18385 net.cpp:369] relu2 -> ip2 (in-place)
I0501 02:59:21.124410 18385 net.cpp:124] Setting up relu2
I0501 02:59:21.124419 18385 net.cpp:131] Top shape: 1000 160 (160000)
I0501 02:59:21.124423 18385 net.cpp:139] Memory required for data: 88588000
I0501 02:59:21.124428 18385 layer_factory.hpp:77] Creating layer ip3
I0501 02:59:21.124435 18385 net.cpp:86] Creating Layer ip3
I0501 02:59:21.124439 18385 net.cpp:408] ip3 <- ip2
I0501 02:59:21.124444 18385 net.cpp:382] ip3 -> ip3
I0501 02:59:21.124624 18385 net.cpp:124] Setting up ip3
I0501 02:59:21.124631 18385 net.cpp:131] Top shape: 1000 10 (10000)
I0501 02:59:21.124635 18385 net.cpp:139] Memory required for data: 88628000
I0501 02:59:21.124655 18385 layer_factory.hpp:77] Creating layer ip3_ip3_0_split
I0501 02:59:21.124665 18385 net.cpp:86] Creating Layer ip3_ip3_0_split
I0501 02:59:21.124670 18385 net.cpp:408] ip3_ip3_0_split <- ip3
I0501 02:59:21.124676 18385 net.cpp:382] ip3_ip3_0_split -> ip3_ip3_0_split_0
I0501 02:59:21.124682 18385 net.cpp:382] ip3_ip3_0_split -> ip3_ip3_0_split_1
I0501 02:59:21.124722 18385 net.cpp:124] Setting up ip3_ip3_0_split
I0501 02:59:21.124728 18385 net.cpp:131] Top shape: 1000 10 (10000)
I0501 02:59:21.124735 18385 net.cpp:131] Top shape: 1000 10 (10000)
I0501 02:59:21.124738 18385 net.cpp:139] Memory required for data: 88708000
I0501 02:59:21.124742 18385 layer_factory.hpp:77] Creating layer accuracy
I0501 02:59:21.124748 18385 net.cpp:86] Creating Layer accuracy
I0501 02:59:21.124752 18385 net.cpp:408] accuracy <- ip3_ip3_0_split_0
I0501 02:59:21.124757 18385 net.cpp:408] accuracy <- label_cifar_1_split_0
I0501 02:59:21.124763 18385 net.cpp:382] accuracy -> accuracy
…
