…
I0430 23:35:11.575737  5156 net.cpp:296] The NetState phase (0) differed from the phase (1) specified by a rule in layer cifar
I0430 23:35:11.575757  5156 net.cpp:296] The NetState phase (0) differed from the phase (1) specified by a rule in layer accuracy
I0430 23:35:11.575881  5156 net.cpp:53] Initializing net from parameters: 
name: "CIFAR"
state {
  phase: TRAIN
  level: 0
  stage: ""
}
layer {
  name: "cifar"
  type: "Data"
  top: "data"
  top: "label"
  include {
    phase: TRAIN
  }
  transform_param {
    mean_file: "examples/cifar10/mean.binaryproto"
  }
  data_param {
    source: "examples/cifar10/cifar10_train_lmdb"
    batch_size: 111
    backend: LMDB
  }
}
layer {
  name: "conv0"
  type: "Convolution"
  bottom: "data"
  top: "conv0"
  param {
    lr_mult: 1
  }
  param {
    lr_mult: 2
  }
  convolution_param {
    num_output: 8
    pad: 2
    kernel_size: 3
    stride: 1
    weight_filler {
      type: "gaussian"
      std: 0.01
    }
    bias_filler {
      type: "constant"
    }
  }
}
layer {
  name: "Sigmoid0"
  type: "Sigmoid"
  bottom: "conv0"
  top: "Sigmoid0"
}
layer {
  name: "pool0"
  type: "Pooling"
  bottom: "Sigmoid0"
  top: "pool0"
  pooling_param {
    pool: AVE
    kernel_size: 3
    stride: 2
  }
}
layer {
  name: "ip1"
  type: "InnerProduct"
  bottom: "pool0"
  top: "ip1"
  param {
    lr_mult: 1
  }
  param {
    lr_mult: 2
  }
  inner_product_param {
    num_output: 20
    weight_filler {
      type: "gaussian"
      std: 0.01
    }
    bias_filler {
      type: "constant"
    }
  }
}
layer {
  name: "relu1"
  type: "ReLU"
  bottom: "ip1"
  top: "ip1"
}
layer {
  name: "ip2"
  type: "InnerProduct"
  bottom: "ip1"
  top: "ip2"
  param {
    lr_mult: 1
  }
  param {
    lr_mult: 2
  }
  inner_product_param {
    num_output: 160
    weight_filler {
      type: "gaussian"
      std: 0.01
    }
    bias_filler {
      type: "constant"
    }
  }
}
layer {
  name: "relu2"
  type: "ReLU"
  bottom: "ip2"
  top: "ip2"
}
layer {
  name: "ip3"
  type: "InnerProduct"
  bottom: "ip2"
  top: "ip3"
  param {
    lr_mult: 1
  }
  param {
    lr_mult: 2
  }
  inner_product_param {
    num_output: 10
    weight_filler {
      type: "gaussian"
      std: 0.01
    }
    bias_filler {
      type: "constant"
    }
  }
}
layer {
  name: "relu3"
  type: "ReLU"
  bottom: "ip3"
  top: "ip3"
}
layer {
  name: "ip4"
  type: "InnerProduct"
  bottom: "ip3"
  top: "ip4"
  param {
    lr_mult: 1
  }
  param {
    lr_mult: 2
  }
  inner_product_param {
    num_output: 10
    weight_filler {
      type: "gaussian"
      std: 0.01
    }
    bias_filler {
      type: "constant"
    }
  }
}
layer {
  name: "loss"
  type: "SoftmaxWithLoss"
  bottom: "ip4"
  bottom: "label"
  top: "loss"
}
I0430 23:35:11.575994  5156 layer_factory.hpp:77] Creating layer cifar
I0430 23:35:11.576123  5156 db_lmdb.cpp:35] Opened lmdb examples/cifar10/cifar10_train_lmdb
I0430 23:35:11.576159  5156 net.cpp:86] Creating Layer cifar
I0430 23:35:11.576171  5156 net.cpp:382] cifar -> data
I0430 23:35:11.576201  5156 net.cpp:382] cifar -> label
I0430 23:35:11.576218  5156 data_transformer.cpp:25] Loading mean file from: examples/cifar10/mean.binaryproto
I0430 23:35:11.578572  5156 data_layer.cpp:45] output data size: 111,3,32,32
I0430 23:35:11.586452  5156 net.cpp:124] Setting up cifar
I0430 23:35:11.586472  5156 net.cpp:131] Top shape: 111 3 32 32 (340992)
I0430 23:35:11.586478  5156 net.cpp:131] Top shape: 111 (111)
I0430 23:35:11.586482  5156 net.cpp:139] Memory required for data: 1364412
I0430 23:35:11.586504  5156 layer_factory.hpp:77] Creating layer conv0
I0430 23:35:11.586524  5156 net.cpp:86] Creating Layer conv0
I0430 23:35:11.586530  5156 net.cpp:408] conv0 <- data
I0430 23:35:11.586542  5156 net.cpp:382] conv0 -> conv0
I0430 23:35:11.877795  5156 net.cpp:124] Setting up conv0
I0430 23:35:11.877827  5156 net.cpp:131] Top shape: 111 8 34 34 (1026528)
I0430 23:35:11.877832  5156 net.cpp:139] Memory required for data: 5470524
I0430 23:35:11.877851  5156 layer_factory.hpp:77] Creating layer Sigmoid0
I0430 23:35:11.877866  5156 net.cpp:86] Creating Layer Sigmoid0
I0430 23:35:11.877871  5156 net.cpp:408] Sigmoid0 <- conv0
I0430 23:35:11.877877  5156 net.cpp:382] Sigmoid0 -> Sigmoid0
I0430 23:35:11.878090  5156 net.cpp:124] Setting up Sigmoid0
I0430 23:35:11.878103  5156 net.cpp:131] Top shape: 111 8 34 34 (1026528)
I0430 23:35:11.878106  5156 net.cpp:139] Memory required for data: 9576636
I0430 23:35:11.878110  5156 layer_factory.hpp:77] Creating layer pool0
I0430 23:35:11.878118  5156 net.cpp:86] Creating Layer pool0
I0430 23:35:11.878121  5156 net.cpp:408] pool0 <- Sigmoid0
I0430 23:35:11.878127  5156 net.cpp:382] pool0 -> pool0
I0430 23:35:11.879000  5156 net.cpp:124] Setting up pool0
I0430 23:35:11.879016  5156 net.cpp:131] Top shape: 111 8 17 17 (256632)
I0430 23:35:11.879021  5156 net.cpp:139] Memory required for data: 10603164
I0430 23:35:11.879025  5156 layer_factory.hpp:77] Creating layer ip1
I0430 23:35:11.879037  5156 net.cpp:86] Creating Layer ip1
I0430 23:35:11.879041  5156 net.cpp:408] ip1 <- pool0
I0430 23:35:11.879047  5156 net.cpp:382] ip1 -> ip1
I0430 23:35:11.881690  5156 net.cpp:124] Setting up ip1
I0430 23:35:11.881705  5156 net.cpp:131] Top shape: 111 20 (2220)
I0430 23:35:11.881711  5156 net.cpp:139] Memory required for data: 10612044
I0430 23:35:11.881721  5156 layer_factory.hpp:77] Creating layer relu1
I0430 23:35:11.881728  5156 net.cpp:86] Creating Layer relu1
I0430 23:35:11.881732  5156 net.cpp:408] relu1 <- ip1
I0430 23:35:11.881738  5156 net.cpp:369] relu1 -> ip1 (in-place)
I0430 23:35:11.881920  5156 net.cpp:124] Setting up relu1
I0430 23:35:11.881930  5156 net.cpp:131] Top shape: 111 20 (2220)
I0430 23:35:11.881934  5156 net.cpp:139] Memory required for data: 10620924
I0430 23:35:11.881938  5156 layer_factory.hpp:77] Creating layer ip2
I0430 23:35:11.881947  5156 net.cpp:86] Creating Layer ip2
I0430 23:35:11.881950  5156 net.cpp:408] ip2 <- ip1
I0430 23:35:11.881956  5156 net.cpp:382] ip2 -> ip2
I0430 23:35:11.882175  5156 net.cpp:124] Setting up ip2
I0430 23:35:11.882184  5156 net.cpp:131] Top shape: 111 160 (17760)
I0430 23:35:11.882189  5156 net.cpp:139] Memory required for data: 10691964
I0430 23:35:11.882197  5156 layer_factory.hpp:77] Creating layer relu2
I0430 23:35:11.882203  5156 net.cpp:86] Creating Layer relu2
I0430 23:35:11.882207  5156 net.cpp:408] relu2 <- ip2
I0430 23:35:11.882212  5156 net.cpp:369] relu2 -> ip2 (in-place)
I0430 23:35:11.882390  5156 net.cpp:124] Setting up relu2
I0430 23:35:11.882400  5156 net.cpp:131] Top shape: 111 160 (17760)
I0430 23:35:11.882405  5156 net.cpp:139] Memory required for data: 10763004
I0430 23:35:11.882407  5156 layer_factory.hpp:77] Creating layer ip3
I0430 23:35:11.882416  5156 net.cpp:86] Creating Layer ip3
I0430 23:35:11.882421  5156 net.cpp:408] ip3 <- ip2
I0430 23:35:11.882426  5156 net.cpp:382] ip3 -> ip3
I0430 23:35:11.882586  5156 net.cpp:124] Setting up ip3
I0430 23:35:11.882593  5156 net.cpp:131] Top shape: 111 10 (1110)
I0430 23:35:11.882597  5156 net.cpp:139] Memory required for data: 10767444
I0430 23:35:11.882603  5156 layer_factory.hpp:77] Creating layer relu3
I0430 23:35:11.882609  5156 net.cpp:86] Creating Layer relu3
I0430 23:35:11.882613  5156 net.cpp:408] relu3 <- ip3
I0430 23:35:11.882617  5156 net.cpp:369] relu3 -> ip3 (in-place)
I0430 23:35:11.882786  5156 net.cpp:124] Setting up relu3
I0430 23:35:11.882794  5156 net.cpp:131] Top shape: 111 10 (1110)
I0430 23:35:11.882798  5156 net.cpp:139] Memory required for data: 10771884
I0430 23:35:11.882802  5156 layer_factory.hpp:77] Creating layer ip4
I0430 23:35:11.882827  5156 net.cpp:86] Creating Layer ip4
I0430 23:35:11.882830  5156 net.cpp:408] ip4 <- ip3
I0430 23:35:11.882836  5156 net.cpp:382] ip4 -> ip4
I0430 23:35:11.882949  5156 net.cpp:124] Setting up ip4
I0430 23:35:11.882958  5156 net.cpp:131] Top shape: 111 10 (1110)
I0430 23:35:11.882961  5156 net.cpp:139] Memory required for data: 10776324
I0430 23:35:11.882972  5156 layer_factory.hpp:77] Creating layer loss
I0430 23:35:11.882977  5156 net.cpp:86] Creating Layer loss
I0430 23:35:11.882982  5156 net.cpp:408] loss <- ip4
I0430 23:35:11.882985  5156 net.cpp:408] loss <- label
I0430 23:35:11.882992  5156 net.cpp:382] loss -> loss
I0430 23:35:11.883008  5156 layer_factory.hpp:77] Creating layer loss
…
I0430 23:35:11.884449  5156 solver.cpp:173] Creating test net (#0) specified by net file: ECE595/cifar/train_test/var_everything/cifar_train_test_230.prototxt
I0430 23:35:11.884481  5156 net.cpp:296] The NetState phase (1) differed from the phase (0) specified by a rule in layer cifar
I0430 23:35:11.884593  5156 net.cpp:53] Initializing net from parameters: 
name: "CIFAR"
state {
  phase: TEST
}
layer {
  name: "cifar"
  type: "Data"
  top: "data"
  top: "label"
  include {
    phase: TEST
  }
  transform_param {
    mean_file: "examples/cifar10/mean.binaryproto"
  }
  data_param {
    source: "examples/cifar10/cifar10_test_lmdb"
    batch_size: 1000
    backend: LMDB
  }
}
layer {
  name: "conv0"
  type: "Convolution"
  bottom: "data"
  top: "conv0"
  param {
    lr_mult: 1
  }
  param {
    lr_mult: 2
  }
  convolution_param {
    num_output: 8
    pad: 2
    kernel_size: 3
    stride: 1
    weight_filler {
      type: "gaussian"
      std: 0.01
    }
    bias_filler {
      type: "constant"
    }
  }
}
layer {
  name: "Sigmoid0"
  type: "Sigmoid"
  bottom: "conv0"
  top: "Sigmoid0"
}
layer {
  name: "pool0"
  type: "Pooling"
  bottom: "Sigmoid0"
  top: "pool0"
  pooling_param {
    pool: AVE
    kernel_size: 3
    stride: 2
  }
}
layer {
  name: "ip1"
  type: "InnerProduct"
  bottom: "pool0"
  top: "ip1"
  param {
    lr_mult: 1
  }
  param {
    lr_mult: 2
  }
  inner_product_param {
    num_output: 20
    weight_filler {
      type: "gaussian"
      std: 0.01
    }
    bias_filler {
      type: "constant"
    }
  }
}
layer {
  name: "relu1"
  type: "ReLU"
  bottom: "ip1"
  top: "ip1"
}
layer {
  name: "ip2"
  type: "InnerProduct"
  bottom: "ip1"
  top: "ip2"
  param {
    lr_mult: 1
  }
  param {
    lr_mult: 2
  }
  inner_product_param {
    num_output: 160
    weight_filler {
      type: "gaussian"
      std: 0.01
    }
    bias_filler {
      type: "constant"
    }
  }
}
layer {
  name: "relu2"
  type: "ReLU"
  bottom: "ip2"
  top: "ip2"
}
layer {
  name: "ip3"
  type: "InnerProduct"
  bottom: "ip2"
  top: "ip3"
  param {
    lr_mult: 1
  }
  param {
    lr_mult: 2
  }
  inner_product_param {
    num_output: 10
    weight_filler {
      type: "gaussian"
      std: 0.01
    }
    bias_filler {
      type: "constant"
    }
  }
}
layer {
  name: "relu3"
  type: "ReLU"
  bottom: "ip3"
  top: "ip3"
}
layer {
  name: "ip4"
  type: "InnerProduct"
  bottom: "ip3"
  top: "ip4"
  param {
    lr_mult: 1
  }
  param {
    lr_mult: 2
  }
  inner_product_param {
    num_output: 10
    weight_filler {
      type: "gaussian"
      std: 0.01
    }
    bias_filler {
      type: "constant"
    }
  }
}
layer {
  name: "accuracy"
  type: "Accuracy"
  bottom: "ip4"
  bottom: "label"
  top: "accuracy"
  include {
    phase: TEST
  }
}
layer {
  name: "loss"
  type: "SoftmaxWithLoss"
  bottom: "ip4"
  bottom: "label"
  top: "loss"
}
I0430 23:35:11.884688  5156 layer_factory.hpp:77] Creating layer cifar
I0430 23:35:11.884745  5156 db_lmdb.cpp:35] Opened lmdb examples/cifar10/cifar10_test_lmdb
I0430 23:35:11.884762  5156 net.cpp:86] Creating Layer cifar
I0430 23:35:11.884768  5156 net.cpp:382] cifar -> data
I0430 23:35:11.884776  5156 net.cpp:382] cifar -> label
I0430 23:35:11.884784  5156 data_transformer.cpp:25] Loading mean file from: examples/cifar10/mean.binaryproto
I0430 23:35:11.884958  5156 data_layer.cpp:45] output data size: 1000,3,32,32
I0430 23:35:11.911829  5156 net.cpp:124] Setting up cifar
I0430 23:35:11.911861  5156 net.cpp:131] Top shape: 1000 3 32 32 (3072000)
I0430 23:35:11.911869  5156 net.cpp:131] Top shape: 1000 (1000)
I0430 23:35:11.911872  5156 net.cpp:139] Memory required for data: 12292000
I0430 23:35:11.911878  5156 layer_factory.hpp:77] Creating layer label_cifar_1_split
I0430 23:35:11.911893  5156 net.cpp:86] Creating Layer label_cifar_1_split
I0430 23:35:11.911898  5156 net.cpp:408] label_cifar_1_split <- label
I0430 23:35:11.911906  5156 net.cpp:382] label_cifar_1_split -> label_cifar_1_split_0
I0430 23:35:11.911917  5156 net.cpp:382] label_cifar_1_split -> label_cifar_1_split_1
I0430 23:35:11.912016  5156 net.cpp:124] Setting up label_cifar_1_split
I0430 23:35:11.912025  5156 net.cpp:131] Top shape: 1000 (1000)
I0430 23:35:11.912030  5156 net.cpp:131] Top shape: 1000 (1000)
I0430 23:35:11.912034  5156 net.cpp:139] Memory required for data: 12300000
I0430 23:35:11.912037  5156 layer_factory.hpp:77] Creating layer conv0
I0430 23:35:11.912052  5156 net.cpp:86] Creating Layer conv0
I0430 23:35:11.912056  5156 net.cpp:408] conv0 <- data
I0430 23:35:11.912062  5156 net.cpp:382] conv0 -> conv0
I0430 23:35:11.913805  5156 net.cpp:124] Setting up conv0
I0430 23:35:11.913821  5156 net.cpp:131] Top shape: 1000 8 34 34 (9248000)
I0430 23:35:11.913826  5156 net.cpp:139] Memory required for data: 49292000
I0430 23:35:11.913838  5156 layer_factory.hpp:77] Creating layer Sigmoid0
I0430 23:35:11.913846  5156 net.cpp:86] Creating Layer Sigmoid0
I0430 23:35:11.913851  5156 net.cpp:408] Sigmoid0 <- conv0
I0430 23:35:11.913856  5156 net.cpp:382] Sigmoid0 -> Sigmoid0
I0430 23:35:11.915042  5156 net.cpp:124] Setting up Sigmoid0
I0430 23:35:11.915055  5156 net.cpp:131] Top shape: 1000 8 34 34 (9248000)
I0430 23:35:11.915058  5156 net.cpp:139] Memory required for data: 86284000
I0430 23:35:11.915062  5156 layer_factory.hpp:77] Creating layer pool0
I0430 23:35:11.915072  5156 net.cpp:86] Creating Layer pool0
I0430 23:35:11.915076  5156 net.cpp:408] pool0 <- Sigmoid0
I0430 23:35:11.915082  5156 net.cpp:382] pool0 -> pool0
I0430 23:35:11.915277  5156 net.cpp:124] Setting up pool0
I0430 23:35:11.915287  5156 net.cpp:131] Top shape: 1000 8 17 17 (2312000)
I0430 23:35:11.915290  5156 net.cpp:139] Memory required for data: 95532000
I0430 23:35:11.915294  5156 layer_factory.hpp:77] Creating layer ip1
I0430 23:35:11.915303  5156 net.cpp:86] Creating Layer ip1
I0430 23:35:11.915307  5156 net.cpp:408] ip1 <- pool0
I0430 23:35:11.915313  5156 net.cpp:382] ip1 -> ip1
I0430 23:35:11.916987  5156 net.cpp:124] Setting up ip1
I0430 23:35:11.917001  5156 net.cpp:131] Top shape: 1000 20 (20000)
I0430 23:35:11.917004  5156 net.cpp:139] Memory required for data: 95612000
I0430 23:35:11.917029  5156 layer_factory.hpp:77] Creating layer relu1
I0430 23:35:11.917038  5156 net.cpp:86] Creating Layer relu1
I0430 23:35:11.917042  5156 net.cpp:408] relu1 <- ip1
I0430 23:35:11.917047  5156 net.cpp:369] relu1 -> ip1 (in-place)
I0430 23:35:11.917234  5156 net.cpp:124] Setting up relu1
I0430 23:35:11.917244  5156 net.cpp:131] Top shape: 1000 20 (20000)
I0430 23:35:11.917248  5156 net.cpp:139] Memory required for data: 95692000
I0430 23:35:11.917253  5156 layer_factory.hpp:77] Creating layer ip2
I0430 23:35:11.917260  5156 net.cpp:86] Creating Layer ip2
I0430 23:35:11.917264  5156 net.cpp:408] ip2 <- ip1
I0430 23:35:11.917270  5156 net.cpp:382] ip2 -> ip2
I0430 23:35:11.917497  5156 net.cpp:124] Setting up ip2
I0430 23:35:11.917506  5156 net.cpp:131] Top shape: 1000 160 (160000)
I0430 23:35:11.917510  5156 net.cpp:139] Memory required for data: 96332000
I0430 23:35:11.917520  5156 layer_factory.hpp:77] Creating layer relu2
I0430 23:35:11.917527  5156 net.cpp:86] Creating Layer relu2
I0430 23:35:11.917531  5156 net.cpp:408] relu2 <- ip2
I0430 23:35:11.917536  5156 net.cpp:369] relu2 -> ip2 (in-place)
I0430 23:35:11.918426  5156 net.cpp:124] Setting up relu2
I0430 23:35:11.918440  5156 net.cpp:131] Top shape: 1000 160 (160000)
I0430 23:35:11.918444  5156 net.cpp:139] Memory required for data: 96972000
I0430 23:35:11.918449  5156 layer_factory.hpp:77] Creating layer ip3
I0430 23:35:11.918457  5156 net.cpp:86] Creating Layer ip3
I0430 23:35:11.918462  5156 net.cpp:408] ip3 <- ip2
I0430 23:35:11.918469  5156 net.cpp:382] ip3 -> ip3
I0430 23:35:11.918642  5156 net.cpp:124] Setting up ip3
I0430 23:35:11.918651  5156 net.cpp:131] Top shape: 1000 10 (10000)
I0430 23:35:11.918655  5156 net.cpp:139] Memory required for data: 97012000
I0430 23:35:11.918663  5156 layer_factory.hpp:77] Creating layer relu3
I0430 23:35:11.918668  5156 net.cpp:86] Creating Layer relu3
I0430 23:35:11.918673  5156 net.cpp:408] relu3 <- ip3
I0430 23:35:11.918678  5156 net.cpp:369] relu3 -> ip3 (in-place)
I0430 23:35:11.918853  5156 net.cpp:124] Setting up relu3
I0430 23:35:11.918861  5156 net.cpp:131] Top shape: 1000 10 (10000)
I0430 23:35:11.918865  5156 net.cpp:139] Memory required for data: 97052000
I0430 23:35:11.918869  5156 layer_factory.hpp:77] Creating layer ip4
I0430 23:35:11.918875  5156 net.cpp:86] Creating Layer ip4
I0430 23:35:11.918879  5156 net.cpp:408] ip4 <- ip3
I0430 23:35:11.918885  5156 net.cpp:382] ip4 -> ip4
I0430 23:35:11.919006  5156 net.cpp:124] Setting up ip4
I0430 23:35:11.919014  5156 net.cpp:131] Top shape: 1000 10 (10000)
I0430 23:35:11.919018  5156 net.cpp:139] Memory required for data: 97092000
I0430 23:35:11.919028  5156 layer_factory.hpp:77] Creating layer ip4_ip4_0_split
I0430 23:35:11.919034  5156 net.cpp:86] Creating Layer ip4_ip4_0_split
I0430 23:35:11.919037  5156 net.cpp:408] ip4_ip4_0_split <- ip4
I0430 23:35:11.919044  5156 net.cpp:382] ip4_ip4_0_split -> ip4_ip4_0_split_0
I0430 23:35:11.919049  5156 net.cpp:382] ip4_ip4_0_split -> ip4_ip4_0_split_1
I0430 23:35:11.919085  5156 net.cpp:124] Setting up ip4_ip4_0_split
I0430 23:35:11.919092  5156 net.cpp:131] Top shape: 1000 10 (10000)
I0430 23:35:11.919096  5156 net.cpp:131] Top shape: 1000 10 (10000)
I0430 23:35:11.919100  5156 net.cpp:139] Memory required for data: 97172000
I0430 23:35:11.919103  5156 layer_factory.hpp:77] Creating layer accuracy
I0430 23:35:11.919111  5156 net.cpp:86] Creating Layer accuracy
I0430 23:35:11.919114  5156 net.cpp:408] accuracy <- ip4_ip4_0_split_0
I0430 23:35:11.919118  5156 net.cpp:408] accuracy <- label_cifar_1_split_0
I0430 23:35:11.919124  5156 net.cpp:382] accuracy -> accuracy
…
