…
I0501 05:35:28.030288 29639 net.cpp:296] The NetState phase (0) differed from the phase (1) specified by a rule in layer cifar
I0501 05:35:28.030308 29639 net.cpp:296] The NetState phase (0) differed from the phase (1) specified by a rule in layer accuracy
I0501 05:35:28.030414 29639 net.cpp:53] Initializing net from parameters: 
name: "CIFAR"
state {
  phase: TRAIN
  level: 0
  stage: ""
}
layer {
  name: "cifar"
  type: "Data"
  top: "data"
  top: "label"
  include {
    phase: TRAIN
  }
  transform_param {
    mean_file: "examples/cifar10/mean.binaryproto"
  }
  data_param {
    source: "examples/cifar10/cifar10_train_lmdb"
    batch_size: 111
    backend: LMDB
  }
}
layer {
  name: "conv0"
  type: "Convolution"
  bottom: "data"
  top: "conv0"
  param {
    lr_mult: 1
  }
  param {
    lr_mult: 2
  }
  convolution_param {
    num_output: 8
    pad: 2
    kernel_size: 5
    stride: 1
    weight_filler {
      type: "gaussian"
      std: 0.01
    }
    bias_filler {
      type: "constant"
    }
  }
}
layer {
  name: "Sigmoid0"
  type: "Sigmoid"
  bottom: "conv0"
  top: "Sigmoid0"
}
layer {
  name: "pool0"
  type: "Pooling"
  bottom: "Sigmoid0"
  top: "pool0"
  pooling_param {
    pool: AVE
    kernel_size: 3
    stride: 2
  }
}
layer {
  name: "ip1"
  type: "InnerProduct"
  bottom: "pool0"
  top: "ip1"
  param {
    lr_mult: 1
  }
  param {
    lr_mult: 2
  }
  inner_product_param {
    num_output: 80
    weight_filler {
      type: "gaussian"
      std: 0.01
    }
    bias_filler {
      type: "constant"
    }
  }
}
layer {
  name: "relu1"
  type: "ReLU"
  bottom: "ip1"
  top: "ip1"
}
layer {
  name: "ip2"
  type: "InnerProduct"
  bottom: "ip1"
  top: "ip2"
  param {
    lr_mult: 1
  }
  param {
    lr_mult: 2
  }
  inner_product_param {
    num_output: 20
    weight_filler {
      type: "gaussian"
      std: 0.01
    }
    bias_filler {
      type: "constant"
    }
  }
}
layer {
  name: "relu2"
  type: "ReLU"
  bottom: "ip2"
  top: "ip2"
}
layer {
  name: "ip3"
  type: "InnerProduct"
  bottom: "ip2"
  top: "ip3"
  param {
    lr_mult: 1
  }
  param {
    lr_mult: 2
  }
  inner_product_param {
    num_output: 80
    weight_filler {
      type: "gaussian"
      std: 0.01
    }
    bias_filler {
      type: "constant"
    }
  }
}
layer {
  name: "relu3"
  type: "ReLU"
  bottom: "ip3"
  top: "ip3"
}
layer {
  name: "ip4"
  type: "InnerProduct"
  bottom: "ip3"
  top: "ip4"
  param {
    lr_mult: 1
  }
  param {
    lr_mult: 2
  }
  inner_product_param {
    num_output: 10
    weight_filler {
      type: "gaussian"
      std: 0.01
    }
    bias_filler {
      type: "constant"
    }
  }
}
layer {
  name: "loss"
  type: "SoftmaxWithLoss"
  bottom: "ip4"
  bottom: "label"
  top: "loss"
}
I0501 05:35:28.030495 29639 layer_factory.hpp:77] Creating layer cifar
I0501 05:35:28.030594 29639 db_lmdb.cpp:35] Opened lmdb examples/cifar10/cifar10_train_lmdb
I0501 05:35:28.030623 29639 net.cpp:86] Creating Layer cifar
I0501 05:35:28.030632 29639 net.cpp:382] cifar -> data
I0501 05:35:28.030653 29639 net.cpp:382] cifar -> label
I0501 05:35:28.030664 29639 data_transformer.cpp:25] Loading mean file from: examples/cifar10/mean.binaryproto
I0501 05:35:28.032799 29639 data_layer.cpp:45] output data size: 111,3,32,32
I0501 05:35:28.040874 29639 net.cpp:124] Setting up cifar
I0501 05:35:28.040891 29639 net.cpp:131] Top shape: 111 3 32 32 (340992)
I0501 05:35:28.040899 29639 net.cpp:131] Top shape: 111 (111)
I0501 05:35:28.040902 29639 net.cpp:139] Memory required for data: 1364412
I0501 05:35:28.040925 29639 layer_factory.hpp:77] Creating layer conv0
I0501 05:35:28.040944 29639 net.cpp:86] Creating Layer conv0
I0501 05:35:28.040951 29639 net.cpp:408] conv0 <- data
I0501 05:35:28.040966 29639 net.cpp:382] conv0 -> conv0
I0501 05:35:28.319577 29639 net.cpp:124] Setting up conv0
I0501 05:35:28.319602 29639 net.cpp:131] Top shape: 111 8 32 32 (909312)
I0501 05:35:28.319607 29639 net.cpp:139] Memory required for data: 5001660
I0501 05:35:28.319620 29639 layer_factory.hpp:77] Creating layer Sigmoid0
I0501 05:35:28.319633 29639 net.cpp:86] Creating Layer Sigmoid0
I0501 05:35:28.319636 29639 net.cpp:408] Sigmoid0 <- conv0
I0501 05:35:28.319641 29639 net.cpp:382] Sigmoid0 -> Sigmoid0
I0501 05:35:28.319797 29639 net.cpp:124] Setting up Sigmoid0
I0501 05:35:28.319805 29639 net.cpp:131] Top shape: 111 8 32 32 (909312)
I0501 05:35:28.319808 29639 net.cpp:139] Memory required for data: 8638908
I0501 05:35:28.319811 29639 layer_factory.hpp:77] Creating layer pool0
I0501 05:35:28.319818 29639 net.cpp:86] Creating Layer pool0
I0501 05:35:28.319823 29639 net.cpp:408] pool0 <- Sigmoid0
I0501 05:35:28.319826 29639 net.cpp:382] pool0 -> pool0
I0501 05:35:28.320521 29639 net.cpp:124] Setting up pool0
I0501 05:35:28.320533 29639 net.cpp:131] Top shape: 111 8 16 16 (227328)
I0501 05:35:28.320536 29639 net.cpp:139] Memory required for data: 9548220
I0501 05:35:28.320540 29639 layer_factory.hpp:77] Creating layer ip1
I0501 05:35:28.320549 29639 net.cpp:86] Creating Layer ip1
I0501 05:35:28.320552 29639 net.cpp:408] ip1 <- pool0
I0501 05:35:28.320557 29639 net.cpp:382] ip1 -> ip1
I0501 05:35:28.324826 29639 net.cpp:124] Setting up ip1
I0501 05:35:28.324833 29639 net.cpp:131] Top shape: 111 80 (8880)
I0501 05:35:28.324851 29639 net.cpp:139] Memory required for data: 9583740
I0501 05:35:28.324858 29639 layer_factory.hpp:77] Creating layer relu1
I0501 05:35:28.324864 29639 net.cpp:86] Creating Layer relu1
I0501 05:35:28.324869 29639 net.cpp:408] relu1 <- ip1
I0501 05:35:28.324877 29639 net.cpp:369] relu1 -> ip1 (in-place)
I0501 05:35:28.325079 29639 net.cpp:124] Setting up relu1
I0501 05:35:28.325088 29639 net.cpp:131] Top shape: 111 80 (8880)
I0501 05:35:28.325091 29639 net.cpp:139] Memory required for data: 9619260
I0501 05:35:28.325095 29639 layer_factory.hpp:77] Creating layer ip2
I0501 05:35:28.325101 29639 net.cpp:86] Creating Layer ip2
I0501 05:35:28.325105 29639 net.cpp:408] ip2 <- ip1
I0501 05:35:28.325110 29639 net.cpp:382] ip2 -> ip2
I0501 05:35:28.325269 29639 net.cpp:124] Setting up ip2
I0501 05:35:28.325275 29639 net.cpp:131] Top shape: 111 20 (2220)
I0501 05:35:28.325278 29639 net.cpp:139] Memory required for data: 9628140
I0501 05:35:28.325285 29639 layer_factory.hpp:77] Creating layer relu2
I0501 05:35:28.325290 29639 net.cpp:86] Creating Layer relu2
I0501 05:35:28.325294 29639 net.cpp:408] relu2 <- ip2
I0501 05:35:28.325297 29639 net.cpp:369] relu2 -> ip2 (in-place)
I0501 05:35:28.325434 29639 net.cpp:124] Setting up relu2
I0501 05:35:28.325443 29639 net.cpp:131] Top shape: 111 20 (2220)
I0501 05:35:28.325444 29639 net.cpp:139] Memory required for data: 9637020
I0501 05:35:28.325448 29639 layer_factory.hpp:77] Creating layer ip3
I0501 05:35:28.325455 29639 net.cpp:86] Creating Layer ip3
I0501 05:35:28.325459 29639 net.cpp:408] ip3 <- ip2
I0501 05:35:28.325462 29639 net.cpp:382] ip3 -> ip3
I0501 05:35:28.325587 29639 net.cpp:124] Setting up ip3
I0501 05:35:28.325594 29639 net.cpp:131] Top shape: 111 80 (8880)
I0501 05:35:28.325597 29639 net.cpp:139] Memory required for data: 9672540
I0501 05:35:28.325603 29639 layer_factory.hpp:77] Creating layer relu3
I0501 05:35:28.325606 29639 net.cpp:86] Creating Layer relu3
I0501 05:35:28.325609 29639 net.cpp:408] relu3 <- ip3
I0501 05:35:28.325613 29639 net.cpp:369] relu3 -> ip3 (in-place)
I0501 05:35:28.325745 29639 net.cpp:124] Setting up relu3
I0501 05:35:28.325753 29639 net.cpp:131] Top shape: 111 80 (8880)
I0501 05:35:28.325757 29639 net.cpp:139] Memory required for data: 9708060
I0501 05:35:28.325759 29639 layer_factory.hpp:77] Creating layer ip4
I0501 05:35:28.325779 29639 net.cpp:86] Creating Layer ip4
I0501 05:35:28.325783 29639 net.cpp:408] ip4 <- ip3
I0501 05:35:28.325786 29639 net.cpp:382] ip4 -> ip4
I0501 05:35:28.325909 29639 net.cpp:124] Setting up ip4
I0501 05:35:28.325917 29639 net.cpp:131] Top shape: 111 10 (1110)
I0501 05:35:28.325919 29639 net.cpp:139] Memory required for data: 9712500
I0501 05:35:28.325927 29639 layer_factory.hpp:77] Creating layer loss
I0501 05:35:28.325932 29639 net.cpp:86] Creating Layer loss
I0501 05:35:28.325935 29639 net.cpp:408] loss <- ip4
I0501 05:35:28.325938 29639 net.cpp:408] loss <- label
I0501 05:35:28.325943 29639 net.cpp:382] loss -> loss
I0501 05:35:28.325959 29639 layer_factory.hpp:77] Creating layer loss
…
I0501 05:35:28.327142 29639 solver.cpp:173] Creating test net (#0) specified by net file: ECE595/cifar/train_test/var_everything/cifar_train_test_423.prototxt
I0501 05:35:28.327169 29639 net.cpp:296] The NetState phase (1) differed from the phase (0) specified by a rule in layer cifar
I0501 05:35:28.327291 29639 net.cpp:53] Initializing net from parameters: 
name: "CIFAR"
state {
  phase: TEST
}
layer {
  name: "cifar"
  type: "Data"
  top: "data"
  top: "label"
  include {
    phase: TEST
  }
  transform_param {
    mean_file: "examples/cifar10/mean.binaryproto"
  }
  data_param {
    source: "examples/cifar10/cifar10_test_lmdb"
    batch_size: 1000
    backend: LMDB
  }
}
layer {
  name: "conv0"
  type: "Convolution"
  bottom: "data"
  top: "conv0"
  param {
    lr_mult: 1
  }
  param {
    lr_mult: 2
  }
  convolution_param {
    num_output: 8
    pad: 2
    kernel_size: 5
    stride: 1
    weight_filler {
      type: "gaussian"
      std: 0.01
    }
    bias_filler {
      type: "constant"
    }
  }
}
layer {
  name: "Sigmoid0"
  type: "Sigmoid"
  bottom: "conv0"
  top: "Sigmoid0"
}
layer {
  name: "pool0"
  type: "Pooling"
  bottom: "Sigmoid0"
  top: "pool0"
  pooling_param {
    pool: AVE
    kernel_size: 3
    stride: 2
  }
}
layer {
  name: "ip1"
  type: "InnerProduct"
  bottom: "pool0"
  top: "ip1"
  param {
    lr_mult: 1
  }
  param {
    lr_mult: 2
  }
  inner_product_param {
    num_output: 80
    weight_filler {
      type: "gaussian"
      std: 0.01
    }
    bias_filler {
      type: "constant"
    }
  }
}
layer {
  name: "relu1"
  type: "ReLU"
  bottom: "ip1"
  top: "ip1"
}
layer {
  name: "ip2"
  type: "InnerProduct"
  bottom: "ip1"
  top: "ip2"
  param {
    lr_mult: 1
  }
  param {
    lr_mult: 2
  }
  inner_product_param {
    num_output: 20
    weight_filler {
      type: "gaussian"
      std: 0.01
    }
    bias_filler {
      type: "constant"
    }
  }
}
layer {
  name: "relu2"
  type: "ReLU"
  bottom: "ip2"
  top: "ip2"
}
layer {
  name: "ip3"
  type: "InnerProduct"
  bottom: "ip2"
  top: "ip3"
  param {
    lr_mult: 1
  }
  param {
    lr_mult: 2
  }
  inner_product_param {
    num_output: 80
    weight_filler {
      type: "gaussian"
      std: 0.01
    }
    bias_filler {
      type: "constant"
    }
  }
}
layer {
  name: "relu3"
  type: "ReLU"
  bottom: "ip3"
  top: "ip3"
}
layer {
  name: "ip4"
  type: "InnerProduct"
  bottom: "ip3"
  top: "ip4"
  param {
    lr_mult: 1
  }
  param {
    lr_mult: 2
  }
  inner_product_param {
    num_output: 10
    weight_filler {
      type: "gaussian"
      std: 0.01
    }
    bias_filler {
      type: "constant"
    }
  }
}
layer {
  name: "accuracy"
  type: "Accuracy"
  bottom: "ip4"
  bottom: "label"
  top: "accuracy"
  include {
    phase: TEST
  }
}
layer {
  name: "loss"
  type: "SoftmaxWithLoss"
  bottom: "ip4"
  bottom: "label"
  top: "loss"
}
I0501 05:35:28.327366 29639 layer_factory.hpp:77] Creating layer cifar
I0501 05:35:28.327410 29639 db_lmdb.cpp:35] Opened lmdb examples/cifar10/cifar10_test_lmdb
I0501 05:35:28.327424 29639 net.cpp:86] Creating Layer cifar
I0501 05:35:28.327427 29639 net.cpp:382] cifar -> data
I0501 05:35:28.327435 29639 net.cpp:382] cifar -> label
I0501 05:35:28.327440 29639 data_transformer.cpp:25] Loading mean file from: examples/cifar10/mean.binaryproto
I0501 05:35:28.327571 29639 data_layer.cpp:45] output data size: 1000,3,32,32
I0501 05:35:28.349759 29639 net.cpp:124] Setting up cifar
I0501 05:35:28.349786 29639 net.cpp:131] Top shape: 1000 3 32 32 (3072000)
I0501 05:35:28.349791 29639 net.cpp:131] Top shape: 1000 (1000)
I0501 05:35:28.349794 29639 net.cpp:139] Memory required for data: 12292000
I0501 05:35:28.349799 29639 layer_factory.hpp:77] Creating layer label_cifar_1_split
I0501 05:35:28.349814 29639 net.cpp:86] Creating Layer label_cifar_1_split
I0501 05:35:28.349819 29639 net.cpp:408] label_cifar_1_split <- label
I0501 05:35:28.349825 29639 net.cpp:382] label_cifar_1_split -> label_cifar_1_split_0
I0501 05:35:28.349835 29639 net.cpp:382] label_cifar_1_split -> label_cifar_1_split_1
I0501 05:35:28.349956 29639 net.cpp:124] Setting up label_cifar_1_split
I0501 05:35:28.349961 29639 net.cpp:131] Top shape: 1000 (1000)
I0501 05:35:28.349966 29639 net.cpp:131] Top shape: 1000 (1000)
I0501 05:35:28.349968 29639 net.cpp:139] Memory required for data: 12300000
I0501 05:35:28.349972 29639 layer_factory.hpp:77] Creating layer conv0
I0501 05:35:28.349983 29639 net.cpp:86] Creating Layer conv0
I0501 05:35:28.349987 29639 net.cpp:408] conv0 <- data
I0501 05:35:28.349992 29639 net.cpp:382] conv0 -> conv0
I0501 05:35:28.351655 29639 net.cpp:124] Setting up conv0
I0501 05:35:28.351667 29639 net.cpp:131] Top shape: 1000 8 32 32 (8192000)
I0501 05:35:28.351671 29639 net.cpp:139] Memory required for data: 45068000
I0501 05:35:28.351680 29639 layer_factory.hpp:77] Creating layer Sigmoid0
I0501 05:35:28.351687 29639 net.cpp:86] Creating Layer Sigmoid0
I0501 05:35:28.351691 29639 net.cpp:408] Sigmoid0 <- conv0
I0501 05:35:28.351696 29639 net.cpp:382] Sigmoid0 -> Sigmoid0
I0501 05:35:28.351861 29639 net.cpp:124] Setting up Sigmoid0
I0501 05:35:28.351869 29639 net.cpp:131] Top shape: 1000 8 32 32 (8192000)
I0501 05:35:28.351872 29639 net.cpp:139] Memory required for data: 77836000
I0501 05:35:28.351876 29639 layer_factory.hpp:77] Creating layer pool0
I0501 05:35:28.351883 29639 net.cpp:86] Creating Layer pool0
I0501 05:35:28.351886 29639 net.cpp:408] pool0 <- Sigmoid0
I0501 05:35:28.351891 29639 net.cpp:382] pool0 -> pool0
I0501 05:35:28.352051 29639 net.cpp:124] Setting up pool0
I0501 05:35:28.352059 29639 net.cpp:131] Top shape: 1000 8 16 16 (2048000)
I0501 05:35:28.352062 29639 net.cpp:139] Memory required for data: 86028000
I0501 05:35:28.352066 29639 layer_factory.hpp:77] Creating layer ip1
I0501 05:35:28.352074 29639 net.cpp:86] Creating Layer ip1
I0501 05:35:28.352077 29639 net.cpp:408] ip1 <- pool0
I0501 05:35:28.352082 29639 net.cpp:382] ip1 -> ip1
I0501 05:35:28.356632 29639 net.cpp:124] Setting up ip1
I0501 05:35:28.356644 29639 net.cpp:131] Top shape: 1000 80 (80000)
I0501 05:35:28.356647 29639 net.cpp:139] Memory required for data: 86348000
I0501 05:35:28.356669 29639 layer_factory.hpp:77] Creating layer relu1
I0501 05:35:28.356675 29639 net.cpp:86] Creating Layer relu1
I0501 05:35:28.356679 29639 net.cpp:408] relu1 <- ip1
I0501 05:35:28.356683 29639 net.cpp:369] relu1 -> ip1 (in-place)
I0501 05:35:28.356907 29639 net.cpp:124] Setting up relu1
I0501 05:35:28.356917 29639 net.cpp:131] Top shape: 1000 80 (80000)
I0501 05:35:28.356920 29639 net.cpp:139] Memory required for data: 86668000
I0501 05:35:28.356925 29639 layer_factory.hpp:77] Creating layer ip2
I0501 05:35:28.356930 29639 net.cpp:86] Creating Layer ip2
I0501 05:35:28.356933 29639 net.cpp:408] ip2 <- ip1
I0501 05:35:28.356940 29639 net.cpp:382] ip2 -> ip2
I0501 05:35:28.357091 29639 net.cpp:124] Setting up ip2
I0501 05:35:28.357100 29639 net.cpp:131] Top shape: 1000 20 (20000)
I0501 05:35:28.357101 29639 net.cpp:139] Memory required for data: 86748000
I0501 05:35:28.357110 29639 layer_factory.hpp:77] Creating layer relu2
I0501 05:35:28.357115 29639 net.cpp:86] Creating Layer relu2
I0501 05:35:28.357118 29639 net.cpp:408] relu2 <- ip2
I0501 05:35:28.357123 29639 net.cpp:369] relu2 -> ip2 (in-place)
I0501 05:35:28.357888 29639 net.cpp:124] Setting up relu2
I0501 05:35:28.357900 29639 net.cpp:131] Top shape: 1000 20 (20000)
I0501 05:35:28.357903 29639 net.cpp:139] Memory required for data: 86828000
I0501 05:35:28.357908 29639 layer_factory.hpp:77] Creating layer ip3
I0501 05:35:28.357914 29639 net.cpp:86] Creating Layer ip3
I0501 05:35:28.357918 29639 net.cpp:408] ip3 <- ip2
I0501 05:35:28.357947 29639 net.cpp:382] ip3 -> ip3
I0501 05:35:28.358093 29639 net.cpp:124] Setting up ip3
I0501 05:35:28.358099 29639 net.cpp:131] Top shape: 1000 80 (80000)
I0501 05:35:28.358103 29639 net.cpp:139] Memory required for data: 87148000
I0501 05:35:28.358108 29639 layer_factory.hpp:77] Creating layer relu3
I0501 05:35:28.358113 29639 net.cpp:86] Creating Layer relu3
I0501 05:35:28.358115 29639 net.cpp:408] relu3 <- ip3
I0501 05:35:28.358121 29639 net.cpp:369] relu3 -> ip3 (in-place)
I0501 05:35:28.358278 29639 net.cpp:124] Setting up relu3
I0501 05:35:28.358285 29639 net.cpp:131] Top shape: 1000 80 (80000)
I0501 05:35:28.358289 29639 net.cpp:139] Memory required for data: 87468000
I0501 05:35:28.358291 29639 layer_factory.hpp:77] Creating layer ip4
I0501 05:35:28.358299 29639 net.cpp:86] Creating Layer ip4
I0501 05:35:28.358301 29639 net.cpp:408] ip4 <- ip3
I0501 05:35:28.358312 29639 net.cpp:382] ip4 -> ip4
I0501 05:35:28.358430 29639 net.cpp:124] Setting up ip4
I0501 05:35:28.358438 29639 net.cpp:131] Top shape: 1000 10 (10000)
I0501 05:35:28.358440 29639 net.cpp:139] Memory required for data: 87508000
I0501 05:35:28.358448 29639 layer_factory.hpp:77] Creating layer ip4_ip4_0_split
I0501 05:35:28.358454 29639 net.cpp:86] Creating Layer ip4_ip4_0_split
I0501 05:35:28.358458 29639 net.cpp:408] ip4_ip4_0_split <- ip4
I0501 05:35:28.358461 29639 net.cpp:382] ip4_ip4_0_split -> ip4_ip4_0_split_0
I0501 05:35:28.358465 29639 net.cpp:382] ip4_ip4_0_split -> ip4_ip4_0_split_1
I0501 05:35:28.358495 29639 net.cpp:124] Setting up ip4_ip4_0_split
I0501 05:35:28.358500 29639 net.cpp:131] Top shape: 1000 10 (10000)
I0501 05:35:28.358503 29639 net.cpp:131] Top shape: 1000 10 (10000)
I0501 05:35:28.358505 29639 net.cpp:139] Memory required for data: 87588000
I0501 05:35:28.358508 29639 layer_factory.hpp:77] Creating layer accuracy
I0501 05:35:28.358513 29639 net.cpp:86] Creating Layer accuracy
I0501 05:35:28.358517 29639 net.cpp:408] accuracy <- ip4_ip4_0_split_0
I0501 05:35:28.358521 29639 net.cpp:408] accuracy <- label_cifar_1_split_0
I0501 05:35:28.358526 29639 net.cpp:382] accuracy -> accuracy
…
