…
I0430 16:18:04.925751 12268 net.cpp:294] The NetState phase (0) differed from the phase (1) specified by a rule in layer cifar
I0430 16:18:04.925766 12268 net.cpp:294] The NetState phase (0) differed from the phase (1) specified by a rule in layer accuracy
I0430 16:18:04.925851 12268 net.cpp:51] Initializing net from parameters: 
name: "CIFAR"
state {
  phase: TRAIN
  level: 0
  stage: ""
}
layer {
  name: "cifar"
  type: "Data"
  top: "data"
  top: "label"
  include {
    phase: TRAIN
  }
  transform_param {
    mean_file: "examples/cifar10/mean.binaryproto"
  }
  data_param {
    source: "examples/cifar10/cifar10_train_lmdb"
    batch_size: 111
    backend: LMDB
  }
}
layer {
  name: "ip1"
  type: "InnerProduct"
  bottom: "data"
  top: "ip1"
  param {
    lr_mult: 1
  }
  param {
    lr_mult: 2
  }
  inner_product_param {
    num_output: 10
    weight_filler {
      type: "gaussian"
      std: 0.01
    }
    bias_filler {
      type: "constant"
    }
  }
}
layer {
  name: "relu1"
  type: "ReLU"
  bottom: "ip1"
  top: "ip1"
}
layer {
  name: "ip2"
  type: "InnerProduct"
  bottom: "ip1"
  top: "ip2"
  param {
    lr_mult: 1
  }
  param {
    lr_mult: 2
  }
  inner_product_param {
    num_output: 10
    weight_filler {
      type: "gaussian"
      std: 0.01
    }
    bias_filler {
      type: "constant"
    }
  }
}
layer {
  name: "loss"
  type: "SoftmaxWithLoss"
  bottom: "ip2"
  bottom: "label"
  top: "loss"
}
I0430 16:18:04.925909 12268 layer_factory.hpp:77] Creating layer cifar
I0430 16:18:04.926036 12268 db_lmdb.cpp:35] Opened lmdb examples/cifar10/cifar10_train_lmdb
I0430 16:18:04.926071 12268 net.cpp:84] Creating Layer cifar
I0430 16:18:04.926087 12268 net.cpp:380] cifar -> data
I0430 16:18:04.926115 12268 net.cpp:380] cifar -> label
I0430 16:18:04.926132 12268 data_transformer.cpp:25] Loading mean file from: examples/cifar10/mean.binaryproto
I0430 16:18:04.927515 12268 data_layer.cpp:45] output data size: 111,3,32,32
I0430 16:18:04.931862 12268 net.cpp:122] Setting up cifar
I0430 16:18:04.931886 12268 net.cpp:129] Top shape: 111 3 32 32 (340992)
I0430 16:18:04.931891 12268 net.cpp:129] Top shape: 111 (111)
I0430 16:18:04.931893 12268 net.cpp:137] Memory required for data: 1364412
I0430 16:18:04.931902 12268 layer_factory.hpp:77] Creating layer ip1
I0430 16:18:04.931915 12268 net.cpp:84] Creating Layer ip1
I0430 16:18:04.931921 12268 net.cpp:406] ip1 <- data
I0430 16:18:04.931934 12268 net.cpp:380] ip1 -> ip1
I0430 16:18:04.933188 12268 net.cpp:122] Setting up ip1
I0430 16:18:04.933214 12268 net.cpp:129] Top shape: 111 10 (1110)
I0430 16:18:04.933218 12268 net.cpp:137] Memory required for data: 1368852
I0430 16:18:04.933235 12268 layer_factory.hpp:77] Creating layer relu1
I0430 16:18:04.933243 12268 net.cpp:84] Creating Layer relu1
I0430 16:18:04.933246 12268 net.cpp:406] relu1 <- ip1
I0430 16:18:04.933253 12268 net.cpp:367] relu1 -> ip1 (in-place)
I0430 16:18:04.933260 12268 net.cpp:122] Setting up relu1
I0430 16:18:04.933269 12268 net.cpp:129] Top shape: 111 10 (1110)
I0430 16:18:04.933272 12268 net.cpp:137] Memory required for data: 1373292
I0430 16:18:04.933275 12268 layer_factory.hpp:77] Creating layer ip2
I0430 16:18:04.933284 12268 net.cpp:84] Creating Layer ip2
I0430 16:18:04.933290 12268 net.cpp:406] ip2 <- ip1
I0430 16:18:04.933300 12268 net.cpp:380] ip2 -> ip2
I0430 16:18:04.933708 12268 net.cpp:122] Setting up ip2
I0430 16:18:04.933722 12268 net.cpp:129] Top shape: 111 10 (1110)
I0430 16:18:04.933743 12268 net.cpp:137] Memory required for data: 1377732
I0430 16:18:04.933756 12268 layer_factory.hpp:77] Creating layer loss
I0430 16:18:04.933766 12268 net.cpp:84] Creating Layer loss
I0430 16:18:04.933773 12268 net.cpp:406] loss <- ip2
I0430 16:18:04.933779 12268 net.cpp:406] loss <- label
I0430 16:18:04.933789 12268 net.cpp:380] loss -> loss
I0430 16:18:04.933804 12268 layer_factory.hpp:77] Creating layer loss
…
I0430 16:18:04.934222 12268 solver.cpp:173] Creating test net (#0) specified by net file: ECE595/cifar/train_test/var_everything/cifar_train_test_0.prototxt
I0430 16:18:04.934250 12268 net.cpp:294] The NetState phase (1) differed from the phase (0) specified by a rule in layer cifar
I0430 16:18:04.934343 12268 net.cpp:51] Initializing net from parameters: 
name: "CIFAR"
state {
  phase: TEST
}
layer {
  name: "cifar"
  type: "Data"
  top: "data"
  top: "label"
  include {
    phase: TEST
  }
  transform_param {
    mean_file: "examples/cifar10/mean.binaryproto"
  }
  data_param {
    source: "examples/cifar10/cifar10_test_lmdb"
    batch_size: 1000
    backend: LMDB
  }
}
layer {
  name: "ip1"
  type: "InnerProduct"
  bottom: "data"
  top: "ip1"
  param {
    lr_mult: 1
  }
  param {
    lr_mult: 2
  }
  inner_product_param {
    num_output: 10
    weight_filler {
      type: "gaussian"
      std: 0.01
    }
    bias_filler {
      type: "constant"
    }
  }
}
layer {
  name: "relu1"
  type: "ReLU"
  bottom: "ip1"
  top: "ip1"
}
layer {
  name: "ip2"
  type: "InnerProduct"
  bottom: "ip1"
  top: "ip2"
  param {
    lr_mult: 1
  }
  param {
    lr_mult: 2
  }
  inner_product_param {
    num_output: 10
    weight_filler {
      type: "gaussian"
      std: 0.01
    }
    bias_filler {
      type: "constant"
    }
  }
}
layer {
  name: "accuracy"
  type: "Accuracy"
  bottom: "ip2"
  bottom: "label"
  top: "accuracy"
  include {
    phase: TEST
  }
}
layer {
  name: "loss"
  type: "SoftmaxWithLoss"
  bottom: "ip2"
  bottom: "label"
  top: "loss"
}
I0430 16:18:04.934422 12268 layer_factory.hpp:77] Creating layer cifar
I0430 16:18:04.934495 12268 db_lmdb.cpp:35] Opened lmdb examples/cifar10/cifar10_test_lmdb
I0430 16:18:04.934514 12268 net.cpp:84] Creating Layer cifar
I0430 16:18:04.934522 12268 net.cpp:380] cifar -> data
I0430 16:18:04.934535 12268 net.cpp:380] cifar -> label
I0430 16:18:04.934548 12268 data_transformer.cpp:25] Loading mean file from: examples/cifar10/mean.binaryproto
I0430 16:18:04.934749 12268 data_layer.cpp:45] output data size: 1000,3,32,32
I0430 16:18:04.962131 12268 net.cpp:122] Setting up cifar
I0430 16:18:04.962152 12268 net.cpp:129] Top shape: 1000 3 32 32 (3072000)
I0430 16:18:04.962157 12268 net.cpp:129] Top shape: 1000 (1000)
I0430 16:18:04.962159 12268 net.cpp:137] Memory required for data: 12292000
I0430 16:18:04.962164 12268 layer_factory.hpp:77] Creating layer label_cifar_1_split
I0430 16:18:04.962174 12268 net.cpp:84] Creating Layer label_cifar_1_split
I0430 16:18:04.962177 12268 net.cpp:406] label_cifar_1_split <- label
I0430 16:18:04.962185 12268 net.cpp:380] label_cifar_1_split -> label_cifar_1_split_0
I0430 16:18:04.962214 12268 net.cpp:380] label_cifar_1_split -> label_cifar_1_split_1
I0430 16:18:04.962316 12268 net.cpp:122] Setting up label_cifar_1_split
I0430 16:18:04.962327 12268 net.cpp:129] Top shape: 1000 (1000)
I0430 16:18:04.962353 12268 net.cpp:129] Top shape: 1000 (1000)
I0430 16:18:04.962359 12268 net.cpp:137] Memory required for data: 12300000
I0430 16:18:04.962364 12268 layer_factory.hpp:77] Creating layer ip1
I0430 16:18:04.962376 12268 net.cpp:84] Creating Layer ip1
I0430 16:18:04.962381 12268 net.cpp:406] ip1 <- data
I0430 16:18:04.962389 12268 net.cpp:380] ip1 -> ip1
I0430 16:18:04.962921 12268 net.cpp:122] Setting up ip1
I0430 16:18:04.962929 12268 net.cpp:129] Top shape: 1000 10 (10000)
I0430 16:18:04.962932 12268 net.cpp:137] Memory required for data: 12340000
I0430 16:18:04.962941 12268 layer_factory.hpp:77] Creating layer relu1
I0430 16:18:04.962947 12268 net.cpp:84] Creating Layer relu1
I0430 16:18:04.962950 12268 net.cpp:406] relu1 <- ip1
I0430 16:18:04.962955 12268 net.cpp:367] relu1 -> ip1 (in-place)
I0430 16:18:04.962961 12268 net.cpp:122] Setting up relu1
I0430 16:18:04.962967 12268 net.cpp:129] Top shape: 1000 10 (10000)
I0430 16:18:04.962970 12268 net.cpp:137] Memory required for data: 12380000
I0430 16:18:04.962973 12268 layer_factory.hpp:77] Creating layer ip2
I0430 16:18:04.962981 12268 net.cpp:84] Creating Layer ip2
I0430 16:18:04.962987 12268 net.cpp:406] ip2 <- ip1
I0430 16:18:04.962996 12268 net.cpp:380] ip2 -> ip2
I0430 16:18:04.963186 12268 net.cpp:122] Setting up ip2
I0430 16:18:04.963193 12268 net.cpp:129] Top shape: 1000 10 (10000)
I0430 16:18:04.963201 12268 net.cpp:137] Memory required for data: 12420000
I0430 16:18:04.963209 12268 layer_factory.hpp:77] Creating layer ip2_ip2_0_split
I0430 16:18:04.963217 12268 net.cpp:84] Creating Layer ip2_ip2_0_split
I0430 16:18:04.963222 12268 net.cpp:406] ip2_ip2_0_split <- ip2
I0430 16:18:04.963232 12268 net.cpp:380] ip2_ip2_0_split -> ip2_ip2_0_split_0
I0430 16:18:04.963241 12268 net.cpp:380] ip2_ip2_0_split -> ip2_ip2_0_split_1
I0430 16:18:04.965154 12268 net.cpp:122] Setting up ip2_ip2_0_split
I0430 16:18:04.965162 12268 net.cpp:129] Top shape: 1000 10 (10000)
I0430 16:18:04.965167 12268 net.cpp:129] Top shape: 1000 10 (10000)
I0430 16:18:04.965168 12268 net.cpp:137] Memory required for data: 12500000
I0430 16:18:04.965170 12268 layer_factory.hpp:77] Creating layer accuracy
I0430 16:18:04.965176 12268 net.cpp:84] Creating Layer accuracy
I0430 16:18:04.965180 12268 net.cpp:406] accuracy <- ip2_ip2_0_split_0
I0430 16:18:04.965184 12268 net.cpp:406] accuracy <- label_cifar_1_split_0
I0430 16:18:04.965189 12268 net.cpp:380] accuracy -> accuracy
…
