…
I0501 08:28:38.502140 10796 net.cpp:296] The NetState phase (0) differed from the phase (1) specified by a rule in layer cifar
I0501 08:28:38.502157 10796 net.cpp:296] The NetState phase (0) differed from the phase (1) specified by a rule in layer accuracy
I0501 08:28:38.502254 10796 net.cpp:53] Initializing net from parameters: 
name: "CIFAR"
state {
  phase: TRAIN
  level: 0
  stage: ""
}
layer {
  name: "cifar"
  type: "Data"
  top: "data"
  top: "label"
  include {
    phase: TRAIN
  }
  transform_param {
    mean_file: "examples/cifar10/mean.binaryproto"
  }
  data_param {
    source: "examples/cifar10/cifar10_train_lmdb"
    batch_size: 111
    backend: LMDB
  }
}
layer {
  name: "conv0"
  type: "Convolution"
  bottom: "data"
  top: "conv0"
  param {
    lr_mult: 1
  }
  param {
    lr_mult: 2
  }
  convolution_param {
    num_output: 16
    pad: 2
    kernel_size: 3
    stride: 1
    weight_filler {
      type: "gaussian"
      std: 0.01
    }
    bias_filler {
      type: "constant"
    }
  }
}
layer {
  name: "Sigmoid0"
  type: "Sigmoid"
  bottom: "conv0"
  top: "Sigmoid0"
}
layer {
  name: "pool0"
  type: "Pooling"
  bottom: "Sigmoid0"
  top: "pool0"
  pooling_param {
    pool: AVE
    kernel_size: 3
    stride: 2
  }
}
layer {
  name: "ip1"
  type: "InnerProduct"
  bottom: "pool0"
  top: "ip1"
  param {
    lr_mult: 1
  }
  param {
    lr_mult: 2
  }
  inner_product_param {
    num_output: 10
    weight_filler {
      type: "gaussian"
      std: 0.01
    }
    bias_filler {
      type: "constant"
    }
  }
}
layer {
  name: "relu1"
  type: "ReLU"
  bottom: "ip1"
  top: "ip1"
}
layer {
  name: "ip2"
  type: "InnerProduct"
  bottom: "ip1"
  top: "ip2"
  param {
    lr_mult: 1
  }
  param {
    lr_mult: 2
  }
  inner_product_param {
    num_output: 80
    weight_filler {
      type: "gaussian"
      std: 0.01
    }
    bias_filler {
      type: "constant"
    }
  }
}
layer {
  name: "relu2"
  type: "ReLU"
  bottom: "ip2"
  top: "ip2"
}
layer {
  name: "ip3"
  type: "InnerProduct"
  bottom: "ip2"
  top: "ip3"
  param {
    lr_mult: 1
  }
  param {
    lr_mult: 2
  }
  inner_product_param {
    num_output: 40
    weight_filler {
      type: "gaussian"
      std: 0.01
    }
    bias_filler {
      type: "constant"
    }
  }
}
layer {
  name: "relu3"
  type: "ReLU"
  bottom: "ip3"
  top: "ip3"
}
layer {
  name: "ip4"
  type: "InnerProduct"
  bottom: "ip3"
  top: "ip4"
  param {
    lr_mult: 1
  }
  param {
    lr_mult: 2
  }
  inner_product_param {
    num_output: 10
    weight_filler {
      type: "gaussian"
      std: 0.01
    }
    bias_filler {
      type: "constant"
    }
  }
}
layer {
  name: "loss"
  type: "SoftmaxWithLoss"
  bottom: "ip4"
  bottom: "label"
  top: "loss"
}
I0501 08:28:38.502326 10796 layer_factory.hpp:77] Creating layer cifar
I0501 08:28:38.502415 10796 db_lmdb.cpp:35] Opened lmdb examples/cifar10/cifar10_train_lmdb
I0501 08:28:38.502440 10796 net.cpp:86] Creating Layer cifar
I0501 08:28:38.502449 10796 net.cpp:382] cifar -> data
I0501 08:28:38.502470 10796 net.cpp:382] cifar -> label
I0501 08:28:38.502481 10796 data_transformer.cpp:25] Loading mean file from: examples/cifar10/mean.binaryproto
I0501 08:28:38.504463 10796 data_layer.cpp:45] output data size: 111,3,32,32
I0501 08:28:38.511828 10796 net.cpp:124] Setting up cifar
I0501 08:28:38.511847 10796 net.cpp:131] Top shape: 111 3 32 32 (340992)
I0501 08:28:38.511852 10796 net.cpp:131] Top shape: 111 (111)
I0501 08:28:38.511854 10796 net.cpp:139] Memory required for data: 1364412
I0501 08:28:38.511874 10796 layer_factory.hpp:77] Creating layer conv0
I0501 08:28:38.511893 10796 net.cpp:86] Creating Layer conv0
I0501 08:28:38.511898 10796 net.cpp:408] conv0 <- data
I0501 08:28:38.511925 10796 net.cpp:382] conv0 -> conv0
I0501 08:28:38.746665 10796 net.cpp:124] Setting up conv0
I0501 08:28:38.746706 10796 net.cpp:131] Top shape: 111 16 34 34 (2053056)
I0501 08:28:38.746711 10796 net.cpp:139] Memory required for data: 9576636
I0501 08:28:38.746726 10796 layer_factory.hpp:77] Creating layer Sigmoid0
I0501 08:28:38.746738 10796 net.cpp:86] Creating Layer Sigmoid0
I0501 08:28:38.746742 10796 net.cpp:408] Sigmoid0 <- conv0
I0501 08:28:38.746747 10796 net.cpp:382] Sigmoid0 -> Sigmoid0
I0501 08:28:38.746944 10796 net.cpp:124] Setting up Sigmoid0
I0501 08:28:38.746954 10796 net.cpp:131] Top shape: 111 16 34 34 (2053056)
I0501 08:28:38.746958 10796 net.cpp:139] Memory required for data: 17788860
I0501 08:28:38.746961 10796 layer_factory.hpp:77] Creating layer pool0
I0501 08:28:38.746968 10796 net.cpp:86] Creating Layer pool0
I0501 08:28:38.746973 10796 net.cpp:408] pool0 <- Sigmoid0
I0501 08:28:38.746976 10796 net.cpp:382] pool0 -> pool0
I0501 08:28:38.747767 10796 net.cpp:124] Setting up pool0
I0501 08:28:38.747797 10796 net.cpp:131] Top shape: 111 16 17 17 (513264)
I0501 08:28:38.747800 10796 net.cpp:139] Memory required for data: 19841916
I0501 08:28:38.747803 10796 layer_factory.hpp:77] Creating layer ip1
I0501 08:28:38.747813 10796 net.cpp:86] Creating Layer ip1
I0501 08:28:38.747817 10796 net.cpp:408] ip1 <- pool0
I0501 08:28:38.747822 10796 net.cpp:382] ip1 -> ip1
I0501 08:28:38.750110 10796 net.cpp:124] Setting up ip1
I0501 08:28:38.750123 10796 net.cpp:131] Top shape: 111 10 (1110)
I0501 08:28:38.750128 10796 net.cpp:139] Memory required for data: 19846356
I0501 08:28:38.750135 10796 layer_factory.hpp:77] Creating layer relu1
I0501 08:28:38.750141 10796 net.cpp:86] Creating Layer relu1
I0501 08:28:38.750145 10796 net.cpp:408] relu1 <- ip1
I0501 08:28:38.750149 10796 net.cpp:369] relu1 -> ip1 (in-place)
I0501 08:28:38.750329 10796 net.cpp:124] Setting up relu1
I0501 08:28:38.750339 10796 net.cpp:131] Top shape: 111 10 (1110)
I0501 08:28:38.750342 10796 net.cpp:139] Memory required for data: 19850796
I0501 08:28:38.750345 10796 layer_factory.hpp:77] Creating layer ip2
I0501 08:28:38.750352 10796 net.cpp:86] Creating Layer ip2
I0501 08:28:38.750355 10796 net.cpp:408] ip2 <- ip1
I0501 08:28:38.750361 10796 net.cpp:382] ip2 -> ip2
I0501 08:28:38.750485 10796 net.cpp:124] Setting up ip2
I0501 08:28:38.750494 10796 net.cpp:131] Top shape: 111 80 (8880)
I0501 08:28:38.750496 10796 net.cpp:139] Memory required for data: 19886316
I0501 08:28:38.750504 10796 layer_factory.hpp:77] Creating layer relu2
I0501 08:28:38.750511 10796 net.cpp:86] Creating Layer relu2
I0501 08:28:38.750515 10796 net.cpp:408] relu2 <- ip2
I0501 08:28:38.750519 10796 net.cpp:369] relu2 -> ip2 (in-place)
I0501 08:28:38.750674 10796 net.cpp:124] Setting up relu2
I0501 08:28:38.750682 10796 net.cpp:131] Top shape: 111 80 (8880)
I0501 08:28:38.750685 10796 net.cpp:139] Memory required for data: 19921836
I0501 08:28:38.750689 10796 layer_factory.hpp:77] Creating layer ip3
I0501 08:28:38.750696 10796 net.cpp:86] Creating Layer ip3
I0501 08:28:38.750699 10796 net.cpp:408] ip3 <- ip2
I0501 08:28:38.750705 10796 net.cpp:382] ip3 -> ip3
I0501 08:28:38.750905 10796 net.cpp:124] Setting up ip3
I0501 08:28:38.750912 10796 net.cpp:131] Top shape: 111 40 (4440)
I0501 08:28:38.750916 10796 net.cpp:139] Memory required for data: 19939596
I0501 08:28:38.750921 10796 layer_factory.hpp:77] Creating layer relu3
I0501 08:28:38.750926 10796 net.cpp:86] Creating Layer relu3
I0501 08:28:38.750929 10796 net.cpp:408] relu3 <- ip3
I0501 08:28:38.750933 10796 net.cpp:369] relu3 -> ip3 (in-place)
I0501 08:28:38.751076 10796 net.cpp:124] Setting up relu3
I0501 08:28:38.751085 10796 net.cpp:131] Top shape: 111 40 (4440)
I0501 08:28:38.751087 10796 net.cpp:139] Memory required for data: 19957356
I0501 08:28:38.751091 10796 layer_factory.hpp:77] Creating layer ip4
I0501 08:28:38.751111 10796 net.cpp:86] Creating Layer ip4
I0501 08:28:38.751116 10796 net.cpp:408] ip4 <- ip3
I0501 08:28:38.751121 10796 net.cpp:382] ip4 -> ip4
I0501 08:28:38.751226 10796 net.cpp:124] Setting up ip4
I0501 08:28:38.751233 10796 net.cpp:131] Top shape: 111 10 (1110)
I0501 08:28:38.751236 10796 net.cpp:139] Memory required for data: 19961796
I0501 08:28:38.751243 10796 layer_factory.hpp:77] Creating layer loss
I0501 08:28:38.751250 10796 net.cpp:86] Creating Layer loss
I0501 08:28:38.751252 10796 net.cpp:408] loss <- ip4
I0501 08:28:38.751256 10796 net.cpp:408] loss <- label
I0501 08:28:38.751262 10796 net.cpp:382] loss -> loss
I0501 08:28:38.751278 10796 layer_factory.hpp:77] Creating layer loss
…
I0501 08:28:38.752472 10796 solver.cpp:173] Creating test net (#0) specified by net file: ECE595/cifar/train_test/var_everything/cifar_train_test_512.prototxt
I0501 08:28:38.752498 10796 net.cpp:296] The NetState phase (1) differed from the phase (0) specified by a rule in layer cifar
I0501 08:28:38.752590 10796 net.cpp:53] Initializing net from parameters: 
name: "CIFAR"
state {
  phase: TEST
}
layer {
  name: "cifar"
  type: "Data"
  top: "data"
  top: "label"
  include {
    phase: TEST
  }
  transform_param {
    mean_file: "examples/cifar10/mean.binaryproto"
  }
  data_param {
    source: "examples/cifar10/cifar10_test_lmdb"
    batch_size: 1000
    backend: LMDB
  }
}
layer {
  name: "conv0"
  type: "Convolution"
  bottom: "data"
  top: "conv0"
  param {
    lr_mult: 1
  }
  param {
    lr_mult: 2
  }
  convolution_param {
    num_output: 16
    pad: 2
    kernel_size: 3
    stride: 1
    weight_filler {
      type: "gaussian"
      std: 0.01
    }
    bias_filler {
      type: "constant"
    }
  }
}
layer {
  name: "Sigmoid0"
  type: "Sigmoid"
  bottom: "conv0"
  top: "Sigmoid0"
}
layer {
  name: "pool0"
  type: "Pooling"
  bottom: "Sigmoid0"
  top: "pool0"
  pooling_param {
    pool: AVE
    kernel_size: 3
    stride: 2
  }
}
layer {
  name: "ip1"
  type: "InnerProduct"
  bottom: "pool0"
  top: "ip1"
  param {
    lr_mult: 1
  }
  param {
    lr_mult: 2
  }
  inner_product_param {
    num_output: 10
    weight_filler {
      type: "gaussian"
      std: 0.01
    }
    bias_filler {
      type: "constant"
    }
  }
}
layer {
  name: "relu1"
  type: "ReLU"
  bottom: "ip1"
  top: "ip1"
}
layer {
  name: "ip2"
  type: "InnerProduct"
  bottom: "ip1"
  top: "ip2"
  param {
    lr_mult: 1
  }
  param {
    lr_mult: 2
  }
  inner_product_param {
    num_output: 80
    weight_filler {
      type: "gaussian"
      std: 0.01
    }
    bias_filler {
      type: "constant"
    }
  }
}
layer {
  name: "relu2"
  type: "ReLU"
  bottom: "ip2"
  top: "ip2"
}
layer {
  name: "ip3"
  type: "InnerProduct"
  bottom: "ip2"
  top: "ip3"
  param {
    lr_mult: 1
  }
  param {
    lr_mult: 2
  }
  inner_product_param {
    num_output: 40
    weight_filler {
      type: "gaussian"
      std: 0.01
    }
    bias_filler {
      type: "constant"
    }
  }
}
layer {
  name: "relu3"
  type: "ReLU"
  bottom: "ip3"
  top: "ip3"
}
layer {
  name: "ip4"
  type: "InnerProduct"
  bottom: "ip3"
  top: "ip4"
  param {
    lr_mult: 1
  }
  param {
    lr_mult: 2
  }
  inner_product_param {
    num_output: 10
    weight_filler {
      type: "gaussian"
      std: 0.01
    }
    bias_filler {
      type: "constant"
    }
  }
}
layer {
  name: "accuracy"
  type: "Accuracy"
  bottom: "ip4"
  bottom: "label"
  top: "accuracy"
  include {
    phase: TEST
  }
}
layer {
  name: "loss"
  type: "SoftmaxWithLoss"
  bottom: "ip4"
  bottom: "label"
  top: "loss"
}
I0501 08:28:38.752668 10796 layer_factory.hpp:77] Creating layer cifar
I0501 08:28:38.752712 10796 db_lmdb.cpp:35] Opened lmdb examples/cifar10/cifar10_test_lmdb
I0501 08:28:38.752743 10796 net.cpp:86] Creating Layer cifar
I0501 08:28:38.752748 10796 net.cpp:382] cifar -> data
I0501 08:28:38.752756 10796 net.cpp:382] cifar -> label
I0501 08:28:38.752763 10796 data_transformer.cpp:25] Loading mean file from: examples/cifar10/mean.binaryproto
I0501 08:28:38.752945 10796 data_layer.cpp:45] output data size: 1000,3,32,32
I0501 08:28:38.775110 10796 net.cpp:124] Setting up cifar
I0501 08:28:38.775151 10796 net.cpp:131] Top shape: 1000 3 32 32 (3072000)
I0501 08:28:38.775157 10796 net.cpp:131] Top shape: 1000 (1000)
I0501 08:28:38.775161 10796 net.cpp:139] Memory required for data: 12292000
I0501 08:28:38.775166 10796 layer_factory.hpp:77] Creating layer label_cifar_1_split
I0501 08:28:38.775182 10796 net.cpp:86] Creating Layer label_cifar_1_split
I0501 08:28:38.775187 10796 net.cpp:408] label_cifar_1_split <- label
I0501 08:28:38.775193 10796 net.cpp:382] label_cifar_1_split -> label_cifar_1_split_0
I0501 08:28:38.775218 10796 net.cpp:382] label_cifar_1_split -> label_cifar_1_split_1
I0501 08:28:38.775336 10796 net.cpp:124] Setting up label_cifar_1_split
I0501 08:28:38.775346 10796 net.cpp:131] Top shape: 1000 (1000)
I0501 08:28:38.775349 10796 net.cpp:131] Top shape: 1000 (1000)
I0501 08:28:38.775352 10796 net.cpp:139] Memory required for data: 12300000
I0501 08:28:38.775355 10796 layer_factory.hpp:77] Creating layer conv0
I0501 08:28:38.775368 10796 net.cpp:86] Creating Layer conv0
I0501 08:28:38.775372 10796 net.cpp:408] conv0 <- data
I0501 08:28:38.775377 10796 net.cpp:382] conv0 -> conv0
I0501 08:28:38.777006 10796 net.cpp:124] Setting up conv0
I0501 08:28:38.777037 10796 net.cpp:131] Top shape: 1000 16 34 34 (18496000)
I0501 08:28:38.777041 10796 net.cpp:139] Memory required for data: 86284000
I0501 08:28:38.777052 10796 layer_factory.hpp:77] Creating layer Sigmoid0
I0501 08:28:38.777060 10796 net.cpp:86] Creating Layer Sigmoid0
I0501 08:28:38.777063 10796 net.cpp:408] Sigmoid0 <- conv0
I0501 08:28:38.777070 10796 net.cpp:382] Sigmoid0 -> Sigmoid0
I0501 08:28:38.777318 10796 net.cpp:124] Setting up Sigmoid0
I0501 08:28:38.777326 10796 net.cpp:131] Top shape: 1000 16 34 34 (18496000)
I0501 08:28:38.777330 10796 net.cpp:139] Memory required for data: 160268000
I0501 08:28:38.777333 10796 layer_factory.hpp:77] Creating layer pool0
I0501 08:28:38.777343 10796 net.cpp:86] Creating Layer pool0
I0501 08:28:38.777346 10796 net.cpp:408] pool0 <- Sigmoid0
I0501 08:28:38.777350 10796 net.cpp:382] pool0 -> pool0
I0501 08:28:38.777583 10796 net.cpp:124] Setting up pool0
I0501 08:28:38.777593 10796 net.cpp:131] Top shape: 1000 16 17 17 (4624000)
I0501 08:28:38.777596 10796 net.cpp:139] Memory required for data: 178764000
I0501 08:28:38.777601 10796 layer_factory.hpp:77] Creating layer ip1
I0501 08:28:38.777609 10796 net.cpp:86] Creating Layer ip1
I0501 08:28:38.777613 10796 net.cpp:408] ip1 <- pool0
I0501 08:28:38.777619 10796 net.cpp:382] ip1 -> ip1
I0501 08:28:38.779872 10796 net.cpp:124] Setting up ip1
I0501 08:28:38.779881 10796 net.cpp:131] Top shape: 1000 10 (10000)
I0501 08:28:38.779899 10796 net.cpp:139] Memory required for data: 178804000
I0501 08:28:38.779922 10796 layer_factory.hpp:77] Creating layer relu1
I0501 08:28:38.779929 10796 net.cpp:86] Creating Layer relu1
I0501 08:28:38.779933 10796 net.cpp:408] relu1 <- ip1
I0501 08:28:38.779953 10796 net.cpp:369] relu1 -> ip1 (in-place)
I0501 08:28:38.780131 10796 net.cpp:124] Setting up relu1
I0501 08:28:38.780140 10796 net.cpp:131] Top shape: 1000 10 (10000)
I0501 08:28:38.780143 10796 net.cpp:139] Memory required for data: 178844000
I0501 08:28:38.780146 10796 layer_factory.hpp:77] Creating layer ip2
I0501 08:28:38.780153 10796 net.cpp:86] Creating Layer ip2
I0501 08:28:38.780156 10796 net.cpp:408] ip2 <- ip1
I0501 08:28:38.780163 10796 net.cpp:382] ip2 -> ip2
I0501 08:28:38.780305 10796 net.cpp:124] Setting up ip2
I0501 08:28:38.780313 10796 net.cpp:131] Top shape: 1000 80 (80000)
I0501 08:28:38.780315 10796 net.cpp:139] Memory required for data: 179164000
I0501 08:28:38.780323 10796 layer_factory.hpp:77] Creating layer relu2
I0501 08:28:38.780330 10796 net.cpp:86] Creating Layer relu2
I0501 08:28:38.780333 10796 net.cpp:408] relu2 <- ip2
I0501 08:28:38.780338 10796 net.cpp:369] relu2 -> ip2 (in-place)
I0501 08:28:38.781124 10796 net.cpp:124] Setting up relu2
I0501 08:28:38.781137 10796 net.cpp:131] Top shape: 1000 80 (80000)
I0501 08:28:38.781158 10796 net.cpp:139] Memory required for data: 179484000
I0501 08:28:38.781162 10796 layer_factory.hpp:77] Creating layer ip3
I0501 08:28:38.781170 10796 net.cpp:86] Creating Layer ip3
I0501 08:28:38.781174 10796 net.cpp:408] ip3 <- ip2
I0501 08:28:38.781180 10796 net.cpp:382] ip3 -> ip3
I0501 08:28:38.781404 10796 net.cpp:124] Setting up ip3
I0501 08:28:38.781412 10796 net.cpp:131] Top shape: 1000 40 (40000)
I0501 08:28:38.781415 10796 net.cpp:139] Memory required for data: 179644000
I0501 08:28:38.781421 10796 layer_factory.hpp:77] Creating layer relu3
I0501 08:28:38.781427 10796 net.cpp:86] Creating Layer relu3
I0501 08:28:38.781430 10796 net.cpp:408] relu3 <- ip3
I0501 08:28:38.781435 10796 net.cpp:369] relu3 -> ip3 (in-place)
I0501 08:28:38.781596 10796 net.cpp:124] Setting up relu3
I0501 08:28:38.781605 10796 net.cpp:131] Top shape: 1000 40 (40000)
I0501 08:28:38.781608 10796 net.cpp:139] Memory required for data: 179804000
I0501 08:28:38.781612 10796 layer_factory.hpp:77] Creating layer ip4
I0501 08:28:38.781618 10796 net.cpp:86] Creating Layer ip4
I0501 08:28:38.781621 10796 net.cpp:408] ip4 <- ip3
I0501 08:28:38.781627 10796 net.cpp:382] ip4 -> ip4
I0501 08:28:38.781761 10796 net.cpp:124] Setting up ip4
I0501 08:28:38.781769 10796 net.cpp:131] Top shape: 1000 10 (10000)
I0501 08:28:38.781771 10796 net.cpp:139] Memory required for data: 179844000
I0501 08:28:38.781780 10796 layer_factory.hpp:77] Creating layer ip4_ip4_0_split
I0501 08:28:38.781786 10796 net.cpp:86] Creating Layer ip4_ip4_0_split
I0501 08:28:38.781790 10796 net.cpp:408] ip4_ip4_0_split <- ip4
I0501 08:28:38.781795 10796 net.cpp:382] ip4_ip4_0_split -> ip4_ip4_0_split_0
I0501 08:28:38.781800 10796 net.cpp:382] ip4_ip4_0_split -> ip4_ip4_0_split_1
I0501 08:28:38.781833 10796 net.cpp:124] Setting up ip4_ip4_0_split
I0501 08:28:38.781841 10796 net.cpp:131] Top shape: 1000 10 (10000)
I0501 08:28:38.781846 10796 net.cpp:131] Top shape: 1000 10 (10000)
I0501 08:28:38.781849 10796 net.cpp:139] Memory required for data: 179924000
I0501 08:28:38.781852 10796 layer_factory.hpp:77] Creating layer accuracy
I0501 08:28:38.781860 10796 net.cpp:86] Creating Layer accuracy
I0501 08:28:38.781863 10796 net.cpp:408] accuracy <- ip4_ip4_0_split_0
I0501 08:28:38.781867 10796 net.cpp:408] accuracy <- label_cifar_1_split_0
I0501 08:28:38.781872 10796 net.cpp:382] accuracy -> accuracy
…
