…
I0430 22:01:11.515054 32560 net.cpp:296] The NetState phase (0) differed from the phase (1) specified by a rule in layer cifar
I0430 22:01:11.515084 32560 net.cpp:296] The NetState phase (0) differed from the phase (1) specified by a rule in layer accuracy
I0430 22:01:11.515173 32560 net.cpp:53] Initializing net from parameters: 
name: "CIFAR"
state {
  phase: TRAIN
  level: 0
  stage: ""
}
layer {
  name: "cifar"
  type: "Data"
  top: "data"
  top: "label"
  include {
    phase: TRAIN
  }
  transform_param {
    mean_file: "examples/cifar10/mean.binaryproto"
  }
  data_param {
    source: "examples/cifar10/cifar10_train_lmdb"
    batch_size: 111
    backend: LMDB
  }
}
layer {
  name: "conv0"
  type: "Convolution"
  bottom: "data"
  top: "conv0"
  param {
    lr_mult: 1
  }
  param {
    lr_mult: 2
  }
  convolution_param {
    num_output: 8
    pad: 2
    kernel_size: 3
    stride: 1
    weight_filler {
      type: "gaussian"
      std: 0.01
    }
    bias_filler {
      type: "constant"
    }
  }
}
layer {
  name: "Sigmoid0"
  type: "Sigmoid"
  bottom: "conv0"
  top: "Sigmoid0"
}
layer {
  name: "pool0"
  type: "Pooling"
  bottom: "Sigmoid0"
  top: "pool0"
  pooling_param {
    pool: AVE
    kernel_size: 3
    stride: 2
  }
}
layer {
  name: "ip1"
  type: "InnerProduct"
  bottom: "pool0"
  top: "ip1"
  param {
    lr_mult: 1
  }
  param {
    lr_mult: 2
  }
  inner_product_param {
    num_output: 160
    weight_filler {
      type: "gaussian"
      std: 0.01
    }
    bias_filler {
      type: "constant"
    }
  }
}
layer {
  name: "relu1"
  type: "ReLU"
  bottom: "ip1"
  top: "ip1"
}
layer {
  name: "ip2"
  type: "InnerProduct"
  bottom: "ip1"
  top: "ip2"
  param {
    lr_mult: 1
  }
  param {
    lr_mult: 2
  }
  inner_product_param {
    num_output: 10
    weight_filler {
      type: "gaussian"
      std: 0.01
    }
    bias_filler {
      type: "constant"
    }
  }
}
layer {
  name: "relu2"
  type: "ReLU"
  bottom: "ip2"
  top: "ip2"
}
layer {
  name: "ip3"
  type: "InnerProduct"
  bottom: "ip2"
  top: "ip3"
  param {
    lr_mult: 1
  }
  param {
    lr_mult: 2
  }
  inner_product_param {
    num_output: 10
    weight_filler {
      type: "gaussian"
      std: 0.01
    }
    bias_filler {
      type: "constant"
    }
  }
}
layer {
  name: "loss"
  type: "SoftmaxWithLoss"
  bottom: "ip3"
  bottom: "label"
  top: "loss"
}
I0430 22:01:11.515234 32560 layer_factory.hpp:77] Creating layer cifar
I0430 22:01:11.515314 32560 db_lmdb.cpp:35] Opened lmdb examples/cifar10/cifar10_train_lmdb
I0430 22:01:11.515338 32560 net.cpp:86] Creating Layer cifar
I0430 22:01:11.515344 32560 net.cpp:382] cifar -> data
I0430 22:01:11.515363 32560 net.cpp:382] cifar -> label
I0430 22:01:11.515377 32560 data_transformer.cpp:25] Loading mean file from: examples/cifar10/mean.binaryproto
I0430 22:01:11.517225 32560 data_layer.cpp:45] output data size: 111,3,32,32
I0430 22:01:11.524018 32560 net.cpp:124] Setting up cifar
I0430 22:01:11.524031 32560 net.cpp:131] Top shape: 111 3 32 32 (340992)
I0430 22:01:11.524036 32560 net.cpp:131] Top shape: 111 (111)
I0430 22:01:11.524039 32560 net.cpp:139] Memory required for data: 1364412
I0430 22:01:11.524045 32560 layer_factory.hpp:77] Creating layer conv0
I0430 22:01:11.524075 32560 net.cpp:86] Creating Layer conv0
I0430 22:01:11.524080 32560 net.cpp:408] conv0 <- data
I0430 22:01:11.524089 32560 net.cpp:382] conv0 -> conv0
I0430 22:01:11.753516 32560 net.cpp:124] Setting up conv0
I0430 22:01:11.753559 32560 net.cpp:131] Top shape: 111 8 34 34 (1026528)
I0430 22:01:11.753564 32560 net.cpp:139] Memory required for data: 5470524
I0430 22:01:11.753577 32560 layer_factory.hpp:77] Creating layer Sigmoid0
I0430 22:01:11.753589 32560 net.cpp:86] Creating Layer Sigmoid0
I0430 22:01:11.753593 32560 net.cpp:408] Sigmoid0 <- conv0
I0430 22:01:11.753598 32560 net.cpp:382] Sigmoid0 -> Sigmoid0
I0430 22:01:11.753799 32560 net.cpp:124] Setting up Sigmoid0
I0430 22:01:11.753808 32560 net.cpp:131] Top shape: 111 8 34 34 (1026528)
I0430 22:01:11.753813 32560 net.cpp:139] Memory required for data: 9576636
I0430 22:01:11.753815 32560 layer_factory.hpp:77] Creating layer pool0
I0430 22:01:11.753821 32560 net.cpp:86] Creating Layer pool0
I0430 22:01:11.753824 32560 net.cpp:408] pool0 <- Sigmoid0
I0430 22:01:11.753829 32560 net.cpp:382] pool0 -> pool0
I0430 22:01:11.754552 32560 net.cpp:124] Setting up pool0
I0430 22:01:11.754580 32560 net.cpp:131] Top shape: 111 8 17 17 (256632)
I0430 22:01:11.754582 32560 net.cpp:139] Memory required for data: 10603164
I0430 22:01:11.754585 32560 layer_factory.hpp:77] Creating layer ip1
I0430 22:01:11.754595 32560 net.cpp:86] Creating Layer ip1
I0430 22:01:11.754598 32560 net.cpp:408] ip1 <- pool0
I0430 22:01:11.754603 32560 net.cpp:382] ip1 -> ip1
I0430 22:01:11.764509 32560 net.cpp:124] Setting up ip1
I0430 22:01:11.764536 32560 net.cpp:131] Top shape: 111 160 (17760)
I0430 22:01:11.764539 32560 net.cpp:139] Memory required for data: 10674204
I0430 22:01:11.764562 32560 layer_factory.hpp:77] Creating layer relu1
I0430 22:01:11.764569 32560 net.cpp:86] Creating Layer relu1
I0430 22:01:11.764571 32560 net.cpp:408] relu1 <- ip1
I0430 22:01:11.764575 32560 net.cpp:369] relu1 -> ip1 (in-place)
I0430 22:01:11.764751 32560 net.cpp:124] Setting up relu1
I0430 22:01:11.764760 32560 net.cpp:131] Top shape: 111 160 (17760)
I0430 22:01:11.764763 32560 net.cpp:139] Memory required for data: 10745244
I0430 22:01:11.764766 32560 layer_factory.hpp:77] Creating layer ip2
I0430 22:01:11.764772 32560 net.cpp:86] Creating Layer ip2
I0430 22:01:11.764775 32560 net.cpp:408] ip2 <- ip1
I0430 22:01:11.764781 32560 net.cpp:382] ip2 -> ip2
I0430 22:01:11.765027 32560 net.cpp:124] Setting up ip2
I0430 22:01:11.765035 32560 net.cpp:131] Top shape: 111 10 (1110)
I0430 22:01:11.765038 32560 net.cpp:139] Memory required for data: 10749684
I0430 22:01:11.765046 32560 layer_factory.hpp:77] Creating layer relu2
I0430 22:01:11.765053 32560 net.cpp:86] Creating Layer relu2
I0430 22:01:11.765056 32560 net.cpp:408] relu2 <- ip2
I0430 22:01:11.765067 32560 net.cpp:369] relu2 -> ip2 (in-place)
I0430 22:01:11.765306 32560 net.cpp:124] Setting up relu2
I0430 22:01:11.765314 32560 net.cpp:131] Top shape: 111 10 (1110)
I0430 22:01:11.765317 32560 net.cpp:139] Memory required for data: 10754124
I0430 22:01:11.765321 32560 layer_factory.hpp:77] Creating layer ip3
I0430 22:01:11.765328 32560 net.cpp:86] Creating Layer ip3
I0430 22:01:11.765331 32560 net.cpp:408] ip3 <- ip2
I0430 22:01:11.765336 32560 net.cpp:382] ip3 -> ip3
I0430 22:01:11.765429 32560 net.cpp:124] Setting up ip3
I0430 22:01:11.765435 32560 net.cpp:131] Top shape: 111 10 (1110)
I0430 22:01:11.765437 32560 net.cpp:139] Memory required for data: 10758564
I0430 22:01:11.765442 32560 layer_factory.hpp:77] Creating layer loss
I0430 22:01:11.765449 32560 net.cpp:86] Creating Layer loss
I0430 22:01:11.765451 32560 net.cpp:408] loss <- ip3
I0430 22:01:11.765455 32560 net.cpp:408] loss <- label
I0430 22:01:11.765460 32560 net.cpp:382] loss -> loss
I0430 22:01:11.765472 32560 layer_factory.hpp:77] Creating layer loss
…
I0430 22:01:11.766113 32560 solver.cpp:173] Creating test net (#0) specified by net file: ECE595/cifar/train_test/var_everything/cifar_train_test_180.prototxt
I0430 22:01:11.766165 32560 net.cpp:296] The NetState phase (1) differed from the phase (0) specified by a rule in layer cifar
I0430 22:01:11.766278 32560 net.cpp:53] Initializing net from parameters: 
name: "CIFAR"
state {
  phase: TEST
}
layer {
  name: "cifar"
  type: "Data"
  top: "data"
  top: "label"
  include {
    phase: TEST
  }
  transform_param {
    mean_file: "examples/cifar10/mean.binaryproto"
  }
  data_param {
    source: "examples/cifar10/cifar10_test_lmdb"
    batch_size: 1000
    backend: LMDB
  }
}
layer {
  name: "conv0"
  type: "Convolution"
  bottom: "data"
  top: "conv0"
  param {
    lr_mult: 1
  }
  param {
    lr_mult: 2
  }
  convolution_param {
    num_output: 8
    pad: 2
    kernel_size: 3
    stride: 1
    weight_filler {
      type: "gaussian"
      std: 0.01
    }
    bias_filler {
      type: "constant"
    }
  }
}
layer {
  name: "Sigmoid0"
  type: "Sigmoid"
  bottom: "conv0"
  top: "Sigmoid0"
}
layer {
  name: "pool0"
  type: "Pooling"
  bottom: "Sigmoid0"
  top: "pool0"
  pooling_param {
    pool: AVE
    kernel_size: 3
    stride: 2
  }
}
layer {
  name: "ip1"
  type: "InnerProduct"
  bottom: "pool0"
  top: "ip1"
  param {
    lr_mult: 1
  }
  param {
    lr_mult: 2
  }
  inner_product_param {
    num_output: 160
    weight_filler {
      type: "gaussian"
      std: 0.01
    }
    bias_filler {
      type: "constant"
    }
  }
}
layer {
  name: "relu1"
  type: "ReLU"
  bottom: "ip1"
  top: "ip1"
}
layer {
  name: "ip2"
  type: "InnerProduct"
  bottom: "ip1"
  top: "ip2"
  param {
    lr_mult: 1
  }
  param {
    lr_mult: 2
  }
  inner_product_param {
    num_output: 10
    weight_filler {
      type: "gaussian"
      std: 0.01
    }
    bias_filler {
      type: "constant"
    }
  }
}
layer {
  name: "relu2"
  type: "ReLU"
  bottom: "ip2"
  top: "ip2"
}
layer {
  name: "ip3"
  type: "InnerProduct"
  bottom: "ip2"
  top: "ip3"
  param {
    lr_mult: 1
  }
  param {
    lr_mult: 2
  }
  inner_product_param {
    num_output: 10
    weight_filler {
      type: "gaussian"
      std: 0.01
    }
    bias_filler {
      type: "constant"
    }
  }
}
layer {
  name: "accuracy"
  type: "Accuracy"
  bottom: "ip3"
  bottom: "label"
  top: "accuracy"
  include {
    phase: TEST
  }
}
layer {
  name: "loss"
  type: "SoftmaxWithLoss"
  bottom: "ip3"
  bottom: "label"
  top: "loss"
}
I0430 22:01:11.766341 32560 layer_factory.hpp:77] Creating layer cifar
I0430 22:01:11.766387 32560 db_lmdb.cpp:35] Opened lmdb examples/cifar10/cifar10_test_lmdb
I0430 22:01:11.766398 32560 net.cpp:86] Creating Layer cifar
I0430 22:01:11.766403 32560 net.cpp:382] cifar -> data
I0430 22:01:11.766425 32560 net.cpp:382] cifar -> label
I0430 22:01:11.766432 32560 data_transformer.cpp:25] Loading mean file from: examples/cifar10/mean.binaryproto
I0430 22:01:11.766571 32560 data_layer.cpp:45] output data size: 1000,3,32,32
I0430 22:01:11.788774 32560 net.cpp:124] Setting up cifar
I0430 22:01:11.788831 32560 net.cpp:131] Top shape: 1000 3 32 32 (3072000)
I0430 22:01:11.788838 32560 net.cpp:131] Top shape: 1000 (1000)
I0430 22:01:11.788841 32560 net.cpp:139] Memory required for data: 12292000
I0430 22:01:11.788861 32560 layer_factory.hpp:77] Creating layer label_cifar_1_split
I0430 22:01:11.788888 32560 net.cpp:86] Creating Layer label_cifar_1_split
I0430 22:01:11.788925 32560 net.cpp:408] label_cifar_1_split <- label
I0430 22:01:11.788931 32560 net.cpp:382] label_cifar_1_split -> label_cifar_1_split_0
I0430 22:01:11.788940 32560 net.cpp:382] label_cifar_1_split -> label_cifar_1_split_1
I0430 22:01:11.789023 32560 net.cpp:124] Setting up label_cifar_1_split
I0430 22:01:11.789034 32560 net.cpp:131] Top shape: 1000 (1000)
I0430 22:01:11.789038 32560 net.cpp:131] Top shape: 1000 (1000)
I0430 22:01:11.789041 32560 net.cpp:139] Memory required for data: 12300000
I0430 22:01:11.789044 32560 layer_factory.hpp:77] Creating layer conv0
I0430 22:01:11.789057 32560 net.cpp:86] Creating Layer conv0
I0430 22:01:11.789060 32560 net.cpp:408] conv0 <- data
I0430 22:01:11.789067 32560 net.cpp:382] conv0 -> conv0
I0430 22:01:11.790709 32560 net.cpp:124] Setting up conv0
I0430 22:01:11.790737 32560 net.cpp:131] Top shape: 1000 8 34 34 (9248000)
I0430 22:01:11.790741 32560 net.cpp:139] Memory required for data: 49292000
I0430 22:01:11.790750 32560 layer_factory.hpp:77] Creating layer Sigmoid0
I0430 22:01:11.790774 32560 net.cpp:86] Creating Layer Sigmoid0
I0430 22:01:11.790777 32560 net.cpp:408] Sigmoid0 <- conv0
I0430 22:01:11.790781 32560 net.cpp:382] Sigmoid0 -> Sigmoid0
I0430 22:01:11.792675 32560 net.cpp:124] Setting up Sigmoid0
I0430 22:01:11.792686 32560 net.cpp:131] Top shape: 1000 8 34 34 (9248000)
I0430 22:01:11.792690 32560 net.cpp:139] Memory required for data: 86284000
I0430 22:01:11.792693 32560 layer_factory.hpp:77] Creating layer pool0
I0430 22:01:11.792723 32560 net.cpp:86] Creating Layer pool0
I0430 22:01:11.792727 32560 net.cpp:408] pool0 <- Sigmoid0
I0430 22:01:11.792732 32560 net.cpp:382] pool0 -> pool0
I0430 22:01:11.792949 32560 net.cpp:124] Setting up pool0
I0430 22:01:11.792959 32560 net.cpp:131] Top shape: 1000 8 17 17 (2312000)
I0430 22:01:11.792963 32560 net.cpp:139] Memory required for data: 95532000
I0430 22:01:11.792965 32560 layer_factory.hpp:77] Creating layer ip1
I0430 22:01:11.792975 32560 net.cpp:86] Creating Layer ip1
I0430 22:01:11.792979 32560 net.cpp:408] ip1 <- pool0
I0430 22:01:11.792985 32560 net.cpp:382] ip1 -> ip1
I0430 22:01:11.803923 32560 net.cpp:124] Setting up ip1
I0430 22:01:11.803936 32560 net.cpp:131] Top shape: 1000 160 (160000)
I0430 22:01:11.803938 32560 net.cpp:139] Memory required for data: 96172000
I0430 22:01:11.803947 32560 layer_factory.hpp:77] Creating layer relu1
I0430 22:01:11.803954 32560 net.cpp:86] Creating Layer relu1
I0430 22:01:11.803973 32560 net.cpp:408] relu1 <- ip1
I0430 22:01:11.803977 32560 net.cpp:369] relu1 -> ip1 (in-place)
I0430 22:01:11.804159 32560 net.cpp:124] Setting up relu1
I0430 22:01:11.804168 32560 net.cpp:131] Top shape: 1000 160 (160000)
I0430 22:01:11.804172 32560 net.cpp:139] Memory required for data: 96812000
I0430 22:01:11.804174 32560 layer_factory.hpp:77] Creating layer ip2
I0430 22:01:11.804181 32560 net.cpp:86] Creating Layer ip2
I0430 22:01:11.804184 32560 net.cpp:408] ip2 <- ip1
I0430 22:01:11.804191 32560 net.cpp:382] ip2 -> ip2
I0430 22:01:11.804338 32560 net.cpp:124] Setting up ip2
I0430 22:01:11.804345 32560 net.cpp:131] Top shape: 1000 10 (10000)
I0430 22:01:11.804348 32560 net.cpp:139] Memory required for data: 96852000
I0430 22:01:11.804355 32560 layer_factory.hpp:77] Creating layer relu2
I0430 22:01:11.804376 32560 net.cpp:86] Creating Layer relu2
I0430 22:01:11.804379 32560 net.cpp:408] relu2 <- ip2
I0430 22:01:11.804383 32560 net.cpp:369] relu2 -> ip2 (in-place)
I0430 22:01:11.804545 32560 net.cpp:124] Setting up relu2
I0430 22:01:11.804553 32560 net.cpp:131] Top shape: 1000 10 (10000)
I0430 22:01:11.804556 32560 net.cpp:139] Memory required for data: 96892000
I0430 22:01:11.804559 32560 layer_factory.hpp:77] Creating layer ip3
I0430 22:01:11.804564 32560 net.cpp:86] Creating Layer ip3
I0430 22:01:11.804569 32560 net.cpp:408] ip3 <- ip2
I0430 22:01:11.804574 32560 net.cpp:382] ip3 -> ip3
I0430 22:01:11.804690 32560 net.cpp:124] Setting up ip3
I0430 22:01:11.804698 32560 net.cpp:131] Top shape: 1000 10 (10000)
I0430 22:01:11.804702 32560 net.cpp:139] Memory required for data: 96932000
I0430 22:01:11.804718 32560 layer_factory.hpp:77] Creating layer ip3_ip3_0_split
I0430 22:01:11.804723 32560 net.cpp:86] Creating Layer ip3_ip3_0_split
I0430 22:01:11.804725 32560 net.cpp:408] ip3_ip3_0_split <- ip3
I0430 22:01:11.804730 32560 net.cpp:382] ip3_ip3_0_split -> ip3_ip3_0_split_0
I0430 22:01:11.804735 32560 net.cpp:382] ip3_ip3_0_split -> ip3_ip3_0_split_1
I0430 22:01:11.804766 32560 net.cpp:124] Setting up ip3_ip3_0_split
I0430 22:01:11.804772 32560 net.cpp:131] Top shape: 1000 10 (10000)
I0430 22:01:11.804775 32560 net.cpp:131] Top shape: 1000 10 (10000)
I0430 22:01:11.804778 32560 net.cpp:139] Memory required for data: 97012000
I0430 22:01:11.804780 32560 layer_factory.hpp:77] Creating layer accuracy
I0430 22:01:11.804786 32560 net.cpp:86] Creating Layer accuracy
I0430 22:01:11.804788 32560 net.cpp:408] accuracy <- ip3_ip3_0_split_0
I0430 22:01:11.804792 32560 net.cpp:408] accuracy <- label_cifar_1_split_0
I0430 22:01:11.804796 32560 net.cpp:382] accuracy -> accuracy
…
