…
I0430 19:56:08.499228 27317 net.cpp:296] The NetState phase (0) differed from the phase (1) specified by a rule in layer cifar
I0430 19:56:08.499249 27317 net.cpp:296] The NetState phase (0) differed from the phase (1) specified by a rule in layer accuracy
I0430 19:56:08.499342 27317 net.cpp:53] Initializing net from parameters: 
name: "CIFAR"
state {
  phase: TRAIN
  level: 0
  stage: ""
}
layer {
  name: "cifar"
  type: "Data"
  top: "data"
  top: "label"
  include {
    phase: TRAIN
  }
  transform_param {
    mean_file: "examples/cifar10/mean.binaryproto"
  }
  data_param {
    source: "examples/cifar10/cifar10_train_lmdb"
    batch_size: 111
    backend: LMDB
  }
}
layer {
  name: "ip1"
  type: "InnerProduct"
  bottom: "data"
  top: "ip1"
  param {
    lr_mult: 1
  }
  param {
    lr_mult: 2
  }
  inner_product_param {
    num_output: 80
    weight_filler {
      type: "gaussian"
      std: 0.01
    }
    bias_filler {
      type: "constant"
    }
  }
}
layer {
  name: "relu1"
  type: "ReLU"
  bottom: "ip1"
  top: "ip1"
}
layer {
  name: "ip2"
  type: "InnerProduct"
  bottom: "ip1"
  top: "ip2"
  param {
    lr_mult: 1
  }
  param {
    lr_mult: 2
  }
  inner_product_param {
    num_output: 20
    weight_filler {
      type: "gaussian"
      std: 0.01
    }
    bias_filler {
      type: "constant"
    }
  }
}
layer {
  name: "relu2"
  type: "ReLU"
  bottom: "ip2"
  top: "ip2"
}
layer {
  name: "ip3"
  type: "InnerProduct"
  bottom: "ip2"
  top: "ip3"
  param {
    lr_mult: 1
  }
  param {
    lr_mult: 2
  }
  inner_product_param {
    num_output: 80
    weight_filler {
      type: "gaussian"
      std: 0.01
    }
    bias_filler {
      type: "constant"
    }
  }
}
layer {
  name: "relu3"
  type: "ReLU"
  bottom: "ip3"
  top: "ip3"
}
layer {
  name: "ip4"
  type: "InnerProduct"
  bottom: "ip3"
  top: "ip4"
  param {
    lr_mult: 1
  }
  param {
    lr_mult: 2
  }
  inner_product_param {
    num_output: 10
    weight_filler {
      type: "gaussian"
      std: 0.01
    }
    bias_filler {
      type: "constant"
    }
  }
}
layer {
  name: "loss"
  type: "SoftmaxWithLoss"
  bottom: "ip4"
  bottom: "label"
  top: "loss"
}
I0430 19:56:08.499444 27317 layer_factory.hpp:77] Creating layer cifar
I0430 19:56:08.499574 27317 db_lmdb.cpp:35] Opened lmdb examples/cifar10/cifar10_train_lmdb
I0430 19:56:08.499614 27317 net.cpp:86] Creating Layer cifar
I0430 19:56:08.499625 27317 net.cpp:382] cifar -> data
I0430 19:56:08.499656 27317 net.cpp:382] cifar -> label
I0430 19:56:08.499675 27317 data_transformer.cpp:25] Loading mean file from: examples/cifar10/mean.binaryproto
I0430 19:56:08.501916 27317 data_layer.cpp:45] output data size: 111,3,32,32
I0430 19:56:08.509788 27317 net.cpp:124] Setting up cifar
I0430 19:56:08.509809 27317 net.cpp:131] Top shape: 111 3 32 32 (340992)
I0430 19:56:08.509822 27317 net.cpp:131] Top shape: 111 (111)
I0430 19:56:08.509829 27317 net.cpp:139] Memory required for data: 1364412
I0430 19:56:08.509840 27317 layer_factory.hpp:77] Creating layer ip1
I0430 19:56:08.509857 27317 net.cpp:86] Creating Layer ip1
I0430 19:56:08.509872 27317 net.cpp:408] ip1 <- data
I0430 19:56:08.509891 27317 net.cpp:382] ip1 -> ip1
I0430 19:56:08.519136 27317 net.cpp:124] Setting up ip1
I0430 19:56:08.519156 27317 net.cpp:131] Top shape: 111 80 (8880)
I0430 19:56:08.519163 27317 net.cpp:139] Memory required for data: 1399932
I0430 19:56:08.519186 27317 layer_factory.hpp:77] Creating layer relu1
I0430 19:56:08.519207 27317 net.cpp:86] Creating Layer relu1
I0430 19:56:08.519230 27317 net.cpp:408] relu1 <- ip1
I0430 19:56:08.519242 27317 net.cpp:369] relu1 -> ip1 (in-place)
I0430 19:56:08.805130 27317 net.cpp:124] Setting up relu1
I0430 19:56:08.805162 27317 net.cpp:131] Top shape: 111 80 (8880)
I0430 19:56:08.805169 27317 net.cpp:139] Memory required for data: 1435452
I0430 19:56:08.805177 27317 layer_factory.hpp:77] Creating layer ip2
I0430 19:56:08.805197 27317 net.cpp:86] Creating Layer ip2
I0430 19:56:08.805205 27317 net.cpp:408] ip2 <- ip1
I0430 19:56:08.805218 27317 net.cpp:382] ip2 -> ip2
I0430 19:56:08.805407 27317 net.cpp:124] Setting up ip2
I0430 19:56:08.805418 27317 net.cpp:131] Top shape: 111 20 (2220)
I0430 19:56:08.805424 27317 net.cpp:139] Memory required for data: 1444332
I0430 19:56:08.805441 27317 layer_factory.hpp:77] Creating layer relu2
I0430 19:56:08.805460 27317 net.cpp:86] Creating Layer relu2
I0430 19:56:08.805469 27317 net.cpp:408] relu2 <- ip2
I0430 19:56:08.805477 27317 net.cpp:369] relu2 -> ip2 (in-place)
I0430 19:56:08.806354 27317 net.cpp:124] Setting up relu2
I0430 19:56:08.806370 27317 net.cpp:131] Top shape: 111 20 (2220)
I0430 19:56:08.806376 27317 net.cpp:139] Memory required for data: 1453212
I0430 19:56:08.806383 27317 layer_factory.hpp:77] Creating layer ip3
I0430 19:56:08.806396 27317 net.cpp:86] Creating Layer ip3
I0430 19:56:08.806403 27317 net.cpp:408] ip3 <- ip2
I0430 19:56:08.806414 27317 net.cpp:382] ip3 -> ip3
I0430 19:56:08.806591 27317 net.cpp:124] Setting up ip3
I0430 19:56:08.806603 27317 net.cpp:131] Top shape: 111 80 (8880)
I0430 19:56:08.806609 27317 net.cpp:139] Memory required for data: 1488732
I0430 19:56:08.806624 27317 layer_factory.hpp:77] Creating layer relu3
I0430 19:56:08.806634 27317 net.cpp:86] Creating Layer relu3
I0430 19:56:08.806645 27317 net.cpp:408] relu3 <- ip3
I0430 19:56:08.806654 27317 net.cpp:369] relu3 -> ip3 (in-place)
I0430 19:56:08.806833 27317 net.cpp:124] Setting up relu3
I0430 19:56:08.806844 27317 net.cpp:131] Top shape: 111 80 (8880)
I0430 19:56:08.806850 27317 net.cpp:139] Memory required for data: 1524252
I0430 19:56:08.806856 27317 layer_factory.hpp:77] Creating layer ip4
I0430 19:56:08.806866 27317 net.cpp:86] Creating Layer ip4
I0430 19:56:08.806874 27317 net.cpp:408] ip4 <- ip3
I0430 19:56:08.806882 27317 net.cpp:382] ip4 -> ip4
I0430 19:56:08.807976 27317 net.cpp:124] Setting up ip4
I0430 19:56:08.807993 27317 net.cpp:131] Top shape: 111 10 (1110)
I0430 19:56:08.808001 27317 net.cpp:139] Memory required for data: 1528692
I0430 19:56:08.808012 27317 layer_factory.hpp:77] Creating layer loss
I0430 19:56:08.808024 27317 net.cpp:86] Creating Layer loss
I0430 19:56:08.808032 27317 net.cpp:408] loss <- ip4
I0430 19:56:08.808040 27317 net.cpp:408] loss <- label
I0430 19:56:08.808050 27317 net.cpp:382] loss -> loss
I0430 19:56:08.808078 27317 layer_factory.hpp:77] Creating layer loss
…
I0430 19:56:08.808790 27317 solver.cpp:173] Creating test net (#0) specified by net file: ECE595/cifar/train_test/var_everything/cifar_train_test_113.prototxt
I0430 19:56:08.808853 27317 net.cpp:296] The NetState phase (1) differed from the phase (0) specified by a rule in layer cifar
I0430 19:56:08.808951 27317 net.cpp:53] Initializing net from parameters: 
name: "CIFAR"
state {
  phase: TEST
}
layer {
  name: "cifar"
  type: "Data"
  top: "data"
  top: "label"
  include {
    phase: TEST
  }
  transform_param {
    mean_file: "examples/cifar10/mean.binaryproto"
  }
  data_param {
    source: "examples/cifar10/cifar10_test_lmdb"
    batch_size: 1000
    backend: LMDB
  }
}
layer {
  name: "ip1"
  type: "InnerProduct"
  bottom: "data"
  top: "ip1"
  param {
    lr_mult: 1
  }
  param {
    lr_mult: 2
  }
  inner_product_param {
    num_output: 80
    weight_filler {
      type: "gaussian"
      std: 0.01
    }
    bias_filler {
      type: "constant"
    }
  }
}
layer {
  name: "relu1"
  type: "ReLU"
  bottom: "ip1"
  top: "ip1"
}
layer {
  name: "ip2"
  type: "InnerProduct"
  bottom: "ip1"
  top: "ip2"
  param {
    lr_mult: 1
  }
  param {
    lr_mult: 2
  }
  inner_product_param {
    num_output: 20
    weight_filler {
      type: "gaussian"
      std: 0.01
    }
    bias_filler {
      type: "constant"
    }
  }
}
layer {
  name: "relu2"
  type: "ReLU"
  bottom: "ip2"
  top: "ip2"
}
layer {
  name: "ip3"
  type: "InnerProduct"
  bottom: "ip2"
  top: "ip3"
  param {
    lr_mult: 1
  }
  param {
    lr_mult: 2
  }
  inner_product_param {
    num_output: 80
    weight_filler {
      type: "gaussian"
      std: 0.01
    }
    bias_filler {
      type: "constant"
    }
  }
}
layer {
  name: "relu3"
  type: "ReLU"
  bottom: "ip3"
  top: "ip3"
}
layer {
  name: "ip4"
  type: "InnerProduct"
  bottom: "ip3"
  top: "ip4"
  param {
    lr_mult: 1
  }
  param {
    lr_mult: 2
  }
  inner_product_param {
    num_output: 10
    weight_filler {
      type: "gaussian"
      std: 0.01
    }
    bias_filler {
      type: "constant"
    }
  }
}
layer {
  name: "accuracy"
  type: "Accuracy"
  bottom: "ip4"
  bottom: "label"
  top: "accuracy"
  include {
    phase: TEST
  }
}
layer {
  name: "loss"
  type: "SoftmaxWithLoss"
  bottom: "ip4"
  bottom: "label"
  top: "loss"
}
I0430 19:56:08.809054 27317 layer_factory.hpp:77] Creating layer cifar
I0430 19:56:08.809139 27317 db_lmdb.cpp:35] Opened lmdb examples/cifar10/cifar10_test_lmdb
I0430 19:56:08.809159 27317 net.cpp:86] Creating Layer cifar
I0430 19:56:08.809167 27317 net.cpp:382] cifar -> data
I0430 19:56:08.809180 27317 net.cpp:382] cifar -> label
I0430 19:56:08.809192 27317 data_transformer.cpp:25] Loading mean file from: examples/cifar10/mean.binaryproto
I0430 19:56:08.809417 27317 data_layer.cpp:45] output data size: 1000,3,32,32
I0430 19:56:08.833219 27317 net.cpp:124] Setting up cifar
I0430 19:56:08.833247 27317 net.cpp:131] Top shape: 1000 3 32 32 (3072000)
I0430 19:56:08.833256 27317 net.cpp:131] Top shape: 1000 (1000)
I0430 19:56:08.833261 27317 net.cpp:139] Memory required for data: 12292000
I0430 19:56:08.833271 27317 layer_factory.hpp:77] Creating layer label_cifar_1_split
I0430 19:56:08.833292 27317 net.cpp:86] Creating Layer label_cifar_1_split
I0430 19:56:08.833299 27317 net.cpp:408] label_cifar_1_split <- label
I0430 19:56:08.833309 27317 net.cpp:382] label_cifar_1_split -> label_cifar_1_split_0
I0430 19:56:08.833324 27317 net.cpp:382] label_cifar_1_split -> label_cifar_1_split_1
I0430 19:56:08.833385 27317 net.cpp:124] Setting up label_cifar_1_split
I0430 19:56:08.833395 27317 net.cpp:131] Top shape: 1000 (1000)
I0430 19:56:08.833402 27317 net.cpp:131] Top shape: 1000 (1000)
I0430 19:56:08.833407 27317 net.cpp:139] Memory required for data: 12300000
I0430 19:56:08.833413 27317 layer_factory.hpp:77] Creating layer ip1
I0430 19:56:08.833426 27317 net.cpp:86] Creating Layer ip1
I0430 19:56:08.833436 27317 net.cpp:408] ip1 <- data
I0430 19:56:08.833444 27317 net.cpp:382] ip1 -> ip1
I0430 19:56:08.840502 27317 net.cpp:124] Setting up ip1
I0430 19:56:08.840515 27317 net.cpp:131] Top shape: 1000 80 (80000)
I0430 19:56:08.840522 27317 net.cpp:139] Memory required for data: 12620000
I0430 19:56:08.840555 27317 layer_factory.hpp:77] Creating layer relu1
I0430 19:56:08.840567 27317 net.cpp:86] Creating Layer relu1
I0430 19:56:08.840576 27317 net.cpp:408] relu1 <- ip1
I0430 19:56:08.840584 27317 net.cpp:369] relu1 -> ip1 (in-place)
I0430 19:56:08.841398 27317 net.cpp:124] Setting up relu1
I0430 19:56:08.841413 27317 net.cpp:131] Top shape: 1000 80 (80000)
I0430 19:56:08.841419 27317 net.cpp:139] Memory required for data: 12940000
I0430 19:56:08.841425 27317 layer_factory.hpp:77] Creating layer ip2
I0430 19:56:08.841439 27317 net.cpp:86] Creating Layer ip2
I0430 19:56:08.841444 27317 net.cpp:408] ip2 <- ip1
I0430 19:56:08.841455 27317 net.cpp:382] ip2 -> ip2
I0430 19:56:08.841615 27317 net.cpp:124] Setting up ip2
I0430 19:56:08.841625 27317 net.cpp:131] Top shape: 1000 20 (20000)
I0430 19:56:08.841630 27317 net.cpp:139] Memory required for data: 13020000
I0430 19:56:08.841644 27317 layer_factory.hpp:77] Creating layer relu2
I0430 19:56:08.841652 27317 net.cpp:86] Creating Layer relu2
I0430 19:56:08.841658 27317 net.cpp:408] relu2 <- ip2
I0430 19:56:08.841666 27317 net.cpp:369] relu2 -> ip2 (in-place)
I0430 19:56:08.841832 27317 net.cpp:124] Setting up relu2
I0430 19:56:08.841842 27317 net.cpp:131] Top shape: 1000 20 (20000)
I0430 19:56:08.841847 27317 net.cpp:139] Memory required for data: 13100000
I0430 19:56:08.841853 27317 layer_factory.hpp:77] Creating layer ip3
I0430 19:56:08.841863 27317 net.cpp:86] Creating Layer ip3
I0430 19:56:08.841869 27317 net.cpp:408] ip3 <- ip2
I0430 19:56:08.841878 27317 net.cpp:382] ip3 -> ip3
I0430 19:56:08.842034 27317 net.cpp:124] Setting up ip3
I0430 19:56:08.842043 27317 net.cpp:131] Top shape: 1000 80 (80000)
I0430 19:56:08.842048 27317 net.cpp:139] Memory required for data: 13420000
I0430 19:56:08.842062 27317 layer_factory.hpp:77] Creating layer relu3
I0430 19:56:08.842070 27317 net.cpp:86] Creating Layer relu3
I0430 19:56:08.842077 27317 net.cpp:408] relu3 <- ip3
I0430 19:56:08.842085 27317 net.cpp:369] relu3 -> ip3 (in-place)
I0430 19:56:08.842248 27317 net.cpp:124] Setting up relu3
I0430 19:56:08.842257 27317 net.cpp:131] Top shape: 1000 80 (80000)
I0430 19:56:08.842263 27317 net.cpp:139] Memory required for data: 13740000
I0430 19:56:08.842268 27317 layer_factory.hpp:77] Creating layer ip4
I0430 19:56:08.842281 27317 net.cpp:86] Creating Layer ip4
I0430 19:56:08.842288 27317 net.cpp:408] ip4 <- ip3
I0430 19:56:08.842295 27317 net.cpp:382] ip4 -> ip4
I0430 19:56:08.842427 27317 net.cpp:124] Setting up ip4
I0430 19:56:08.842435 27317 net.cpp:131] Top shape: 1000 10 (10000)
I0430 19:56:08.842440 27317 net.cpp:139] Memory required for data: 13780000
I0430 19:56:08.842452 27317 layer_factory.hpp:77] Creating layer ip4_ip4_0_split
I0430 19:56:08.842459 27317 net.cpp:86] Creating Layer ip4_ip4_0_split
I0430 19:56:08.842465 27317 net.cpp:408] ip4_ip4_0_split <- ip4
I0430 19:56:08.842473 27317 net.cpp:382] ip4_ip4_0_split -> ip4_ip4_0_split_0
I0430 19:56:08.842484 27317 net.cpp:382] ip4_ip4_0_split -> ip4_ip4_0_split_1
I0430 19:56:08.842525 27317 net.cpp:124] Setting up ip4_ip4_0_split
I0430 19:56:08.842533 27317 net.cpp:131] Top shape: 1000 10 (10000)
I0430 19:56:08.842540 27317 net.cpp:131] Top shape: 1000 10 (10000)
I0430 19:56:08.842545 27317 net.cpp:139] Memory required for data: 13860000
I0430 19:56:08.842550 27317 layer_factory.hpp:77] Creating layer accuracy
I0430 19:56:08.842561 27317 net.cpp:86] Creating Layer accuracy
I0430 19:56:08.842566 27317 net.cpp:408] accuracy <- ip4_ip4_0_split_0
I0430 19:56:08.842573 27317 net.cpp:408] accuracy <- label_cifar_1_split_0
I0430 19:56:08.842581 27317 net.cpp:382] accuracy -> accuracy
…
