…
I0430 23:52:02.310571  5741 net.cpp:296] The NetState phase (0) differed from the phase (1) specified by a rule in layer cifar
I0430 23:52:02.310602  5741 net.cpp:296] The NetState phase (0) differed from the phase (1) specified by a rule in layer accuracy
I0430 23:52:02.310700  5741 net.cpp:53] Initializing net from parameters: 
name: "CIFAR"
state {
  phase: TRAIN
  level: 0
  stage: ""
}
layer {
  name: "cifar"
  type: "Data"
  top: "data"
  top: "label"
  include {
    phase: TRAIN
  }
  transform_param {
    mean_file: "examples/cifar10/mean.binaryproto"
  }
  data_param {
    source: "examples/cifar10/cifar10_train_lmdb"
    batch_size: 111
    backend: LMDB
  }
}
layer {
  name: "conv0"
  type: "Convolution"
  bottom: "data"
  top: "conv0"
  param {
    lr_mult: 1
  }
  param {
    lr_mult: 2
  }
  convolution_param {
    num_output: 8
    pad: 2
    kernel_size: 3
    stride: 1
    weight_filler {
      type: "gaussian"
      std: 0.01
    }
    bias_filler {
      type: "constant"
    }
  }
}
layer {
  name: "Sigmoid0"
  type: "Sigmoid"
  bottom: "conv0"
  top: "Sigmoid0"
}
layer {
  name: "pool0"
  type: "Pooling"
  bottom: "Sigmoid0"
  top: "pool0"
  pooling_param {
    pool: AVE
    kernel_size: 3
    stride: 2
  }
}
layer {
  name: "ip1"
  type: "InnerProduct"
  bottom: "pool0"
  top: "ip1"
  param {
    lr_mult: 1
  }
  param {
    lr_mult: 2
  }
  inner_product_param {
    num_output: 40
    weight_filler {
      type: "gaussian"
      std: 0.01
    }
    bias_filler {
      type: "constant"
    }
  }
}
layer {
  name: "relu1"
  type: "ReLU"
  bottom: "ip1"
  top: "ip1"
}
layer {
  name: "ip2"
  type: "InnerProduct"
  bottom: "ip1"
  top: "ip2"
  param {
    lr_mult: 1
  }
  param {
    lr_mult: 2
  }
  inner_product_param {
    num_output: 10
    weight_filler {
      type: "gaussian"
      std: 0.01
    }
    bias_filler {
      type: "constant"
    }
  }
}
layer {
  name: "relu2"
  type: "ReLU"
  bottom: "ip2"
  top: "ip2"
}
layer {
  name: "ip3"
  type: "InnerProduct"
  bottom: "ip2"
  top: "ip3"
  param {
    lr_mult: 1
  }
  param {
    lr_mult: 2
  }
  inner_product_param {
    num_output: 160
    weight_filler {
      type: "gaussian"
      std: 0.01
    }
    bias_filler {
      type: "constant"
    }
  }
}
layer {
  name: "relu3"
  type: "ReLU"
  bottom: "ip3"
  top: "ip3"
}
layer {
  name: "ip4"
  type: "InnerProduct"
  bottom: "ip3"
  top: "ip4"
  param {
    lr_mult: 1
  }
  param {
    lr_mult: 2
  }
  inner_product_param {
    num_output: 10
    weight_filler {
      type: "gaussian"
      std: 0.01
    }
    bias_filler {
      type: "constant"
    }
  }
}
layer {
  name: "loss"
  type: "SoftmaxWithLoss"
  bottom: "ip4"
  bottom: "label"
  top: "loss"
}
I0430 23:52:02.310765  5741 layer_factory.hpp:77] Creating layer cifar
I0430 23:52:02.310858  5741 db_lmdb.cpp:35] Opened lmdb examples/cifar10/cifar10_train_lmdb
I0430 23:52:02.310879  5741 net.cpp:86] Creating Layer cifar
I0430 23:52:02.310886  5741 net.cpp:382] cifar -> data
I0430 23:52:02.310904  5741 net.cpp:382] cifar -> label
I0430 23:52:02.310914  5741 data_transformer.cpp:25] Loading mean file from: examples/cifar10/mean.binaryproto
I0430 23:52:02.312629  5741 data_layer.cpp:45] output data size: 111,3,32,32
I0430 23:52:02.318964  5741 net.cpp:124] Setting up cifar
I0430 23:52:02.318979  5741 net.cpp:131] Top shape: 111 3 32 32 (340992)
I0430 23:52:02.319000  5741 net.cpp:131] Top shape: 111 (111)
I0430 23:52:02.319002  5741 net.cpp:139] Memory required for data: 1364412
I0430 23:52:02.319020  5741 layer_factory.hpp:77] Creating layer conv0
I0430 23:52:02.319033  5741 net.cpp:86] Creating Layer conv0
I0430 23:52:02.319042  5741 net.cpp:408] conv0 <- data
I0430 23:52:02.319085  5741 net.cpp:382] conv0 -> conv0
I0430 23:52:02.553378  5741 net.cpp:124] Setting up conv0
I0430 23:52:02.553419  5741 net.cpp:131] Top shape: 111 8 34 34 (1026528)
I0430 23:52:02.553423  5741 net.cpp:139] Memory required for data: 5470524
I0430 23:52:02.553437  5741 layer_factory.hpp:77] Creating layer Sigmoid0
I0430 23:52:02.553450  5741 net.cpp:86] Creating Layer Sigmoid0
I0430 23:52:02.553454  5741 net.cpp:408] Sigmoid0 <- conv0
I0430 23:52:02.553459  5741 net.cpp:382] Sigmoid0 -> Sigmoid0
I0430 23:52:02.553642  5741 net.cpp:124] Setting up Sigmoid0
I0430 23:52:02.553652  5741 net.cpp:131] Top shape: 111 8 34 34 (1026528)
I0430 23:52:02.553655  5741 net.cpp:139] Memory required for data: 9576636
I0430 23:52:02.553658  5741 layer_factory.hpp:77] Creating layer pool0
I0430 23:52:02.553664  5741 net.cpp:86] Creating Layer pool0
I0430 23:52:02.553668  5741 net.cpp:408] pool0 <- Sigmoid0
I0430 23:52:02.553673  5741 net.cpp:382] pool0 -> pool0
I0430 23:52:02.554433  5741 net.cpp:124] Setting up pool0
I0430 23:52:02.554461  5741 net.cpp:131] Top shape: 111 8 17 17 (256632)
I0430 23:52:02.554464  5741 net.cpp:139] Memory required for data: 10603164
I0430 23:52:02.554468  5741 layer_factory.hpp:77] Creating layer ip1
I0430 23:52:02.554477  5741 net.cpp:86] Creating Layer ip1
I0430 23:52:02.554481  5741 net.cpp:408] ip1 <- pool0
I0430 23:52:02.554486  5741 net.cpp:382] ip1 -> ip1
I0430 23:52:02.557025  5741 net.cpp:124] Setting up ip1
I0430 23:52:02.557034  5741 net.cpp:131] Top shape: 111 40 (4440)
I0430 23:52:02.557052  5741 net.cpp:139] Memory required for data: 10620924
I0430 23:52:02.557060  5741 layer_factory.hpp:77] Creating layer relu1
I0430 23:52:02.557065  5741 net.cpp:86] Creating Layer relu1
I0430 23:52:02.557070  5741 net.cpp:408] relu1 <- ip1
I0430 23:52:02.557073  5741 net.cpp:369] relu1 -> ip1 (in-place)
I0430 23:52:02.557221  5741 net.cpp:124] Setting up relu1
I0430 23:52:02.557230  5741 net.cpp:131] Top shape: 111 40 (4440)
I0430 23:52:02.557234  5741 net.cpp:139] Memory required for data: 10638684
I0430 23:52:02.557236  5741 layer_factory.hpp:77] Creating layer ip2
I0430 23:52:02.557243  5741 net.cpp:86] Creating Layer ip2
I0430 23:52:02.557246  5741 net.cpp:408] ip2 <- ip1
I0430 23:52:02.557251  5741 net.cpp:382] ip2 -> ip2
I0430 23:52:02.558339  5741 net.cpp:124] Setting up ip2
I0430 23:52:02.558351  5741 net.cpp:131] Top shape: 111 10 (1110)
I0430 23:52:02.558370  5741 net.cpp:139] Memory required for data: 10643124
I0430 23:52:02.558382  5741 layer_factory.hpp:77] Creating layer relu2
I0430 23:52:02.558389  5741 net.cpp:86] Creating Layer relu2
I0430 23:52:02.558393  5741 net.cpp:408] relu2 <- ip2
I0430 23:52:02.558398  5741 net.cpp:369] relu2 -> ip2 (in-place)
I0430 23:52:02.558619  5741 net.cpp:124] Setting up relu2
I0430 23:52:02.558626  5741 net.cpp:131] Top shape: 111 10 (1110)
I0430 23:52:02.558630  5741 net.cpp:139] Memory required for data: 10647564
I0430 23:52:02.558634  5741 layer_factory.hpp:77] Creating layer ip3
I0430 23:52:02.558641  5741 net.cpp:86] Creating Layer ip3
I0430 23:52:02.558647  5741 net.cpp:408] ip3 <- ip2
I0430 23:52:02.558655  5741 net.cpp:382] ip3 -> ip3
I0430 23:52:02.558827  5741 net.cpp:124] Setting up ip3
I0430 23:52:02.558835  5741 net.cpp:131] Top shape: 111 160 (17760)
I0430 23:52:02.558838  5741 net.cpp:139] Memory required for data: 10718604
I0430 23:52:02.558845  5741 layer_factory.hpp:77] Creating layer relu3
I0430 23:52:02.558851  5741 net.cpp:86] Creating Layer relu3
I0430 23:52:02.558857  5741 net.cpp:408] relu3 <- ip3
I0430 23:52:02.558861  5741 net.cpp:369] relu3 -> ip3 (in-place)
I0430 23:52:02.559018  5741 net.cpp:124] Setting up relu3
I0430 23:52:02.559026  5741 net.cpp:131] Top shape: 111 160 (17760)
I0430 23:52:02.559031  5741 net.cpp:139] Memory required for data: 10789644
I0430 23:52:02.559033  5741 layer_factory.hpp:77] Creating layer ip4
I0430 23:52:02.559056  5741 net.cpp:86] Creating Layer ip4
I0430 23:52:02.559062  5741 net.cpp:408] ip4 <- ip3
I0430 23:52:02.559067  5741 net.cpp:382] ip4 -> ip4
I0430 23:52:02.559229  5741 net.cpp:124] Setting up ip4
I0430 23:52:02.559237  5741 net.cpp:131] Top shape: 111 10 (1110)
I0430 23:52:02.559240  5741 net.cpp:139] Memory required for data: 10794084
I0430 23:52:02.559248  5741 layer_factory.hpp:77] Creating layer loss
I0430 23:52:02.559257  5741 net.cpp:86] Creating Layer loss
I0430 23:52:02.559260  5741 net.cpp:408] loss <- ip4
I0430 23:52:02.559264  5741 net.cpp:408] loss <- label
I0430 23:52:02.559269  5741 net.cpp:382] loss -> loss
I0430 23:52:02.559286  5741 layer_factory.hpp:77] Creating layer loss
…
I0430 23:52:02.560541  5741 solver.cpp:173] Creating test net (#0) specified by net file: ECE595/cifar/train_test/var_everything/cifar_train_test_239.prototxt
I0430 23:52:02.560567  5741 net.cpp:296] The NetState phase (1) differed from the phase (0) specified by a rule in layer cifar
I0430 23:52:02.560673  5741 net.cpp:53] Initializing net from parameters: 
name: "CIFAR"
state {
  phase: TEST
}
layer {
  name: "cifar"
  type: "Data"
  top: "data"
  top: "label"
  include {
    phase: TEST
  }
  transform_param {
    mean_file: "examples/cifar10/mean.binaryproto"
  }
  data_param {
    source: "examples/cifar10/cifar10_test_lmdb"
    batch_size: 1000
    backend: LMDB
  }
}
layer {
  name: "conv0"
  type: "Convolution"
  bottom: "data"
  top: "conv0"
  param {
    lr_mult: 1
  }
  param {
    lr_mult: 2
  }
  convolution_param {
    num_output: 8
    pad: 2
    kernel_size: 3
    stride: 1
    weight_filler {
      type: "gaussian"
      std: 0.01
    }
    bias_filler {
      type: "constant"
    }
  }
}
layer {
  name: "Sigmoid0"
  type: "Sigmoid"
  bottom: "conv0"
  top: "Sigmoid0"
}
layer {
  name: "pool0"
  type: "Pooling"
  bottom: "Sigmoid0"
  top: "pool0"
  pooling_param {
    pool: AVE
    kernel_size: 3
    stride: 2
  }
}
layer {
  name: "ip1"
  type: "InnerProduct"
  bottom: "pool0"
  top: "ip1"
  param {
    lr_mult: 1
  }
  param {
    lr_mult: 2
  }
  inner_product_param {
    num_output: 40
    weight_filler {
      type: "gaussian"
      std: 0.01
    }
    bias_filler {
      type: "constant"
    }
  }
}
layer {
  name: "relu1"
  type: "ReLU"
  bottom: "ip1"
  top: "ip1"
}
layer {
  name: "ip2"
  type: "InnerProduct"
  bottom: "ip1"
  top: "ip2"
  param {
    lr_mult: 1
  }
  param {
    lr_mult: 2
  }
  inner_product_param {
    num_output: 10
    weight_filler {
      type: "gaussian"
      std: 0.01
    }
    bias_filler {
      type: "constant"
    }
  }
}
layer {
  name: "relu2"
  type: "ReLU"
  bottom: "ip2"
  top: "ip2"
}
layer {
  name: "ip3"
  type: "InnerProduct"
  bottom: "ip2"
  top: "ip3"
  param {
    lr_mult: 1
  }
  param {
    lr_mult: 2
  }
  inner_product_param {
    num_output: 160
    weight_filler {
      type: "gaussian"
      std: 0.01
    }
    bias_filler {
      type: "constant"
    }
  }
}
layer {
  name: "relu3"
  type: "ReLU"
  bottom: "ip3"
  top: "ip3"
}
layer {
  name: "ip4"
  type: "InnerProduct"
  bottom: "ip3"
  top: "ip4"
  param {
    lr_mult: 1
  }
  param {
    lr_mult: 2
  }
  inner_product_param {
    num_output: 10
    weight_filler {
      type: "gaussian"
      std: 0.01
    }
    bias_filler {
      type: "constant"
    }
  }
}
layer {
  name: "accuracy"
  type: "Accuracy"
  bottom: "ip4"
  bottom: "label"
  top: "accuracy"
  include {
    phase: TEST
  }
}
layer {
  name: "loss"
  type: "SoftmaxWithLoss"
  bottom: "ip4"
  bottom: "label"
  top: "loss"
}
I0430 23:52:02.560752  5741 layer_factory.hpp:77] Creating layer cifar
I0430 23:52:02.560797  5741 db_lmdb.cpp:35] Opened lmdb examples/cifar10/cifar10_test_lmdb
I0430 23:52:02.560833  5741 net.cpp:86] Creating Layer cifar
I0430 23:52:02.560839  5741 net.cpp:382] cifar -> data
I0430 23:52:02.560863  5741 net.cpp:382] cifar -> label
I0430 23:52:02.560870  5741 data_transformer.cpp:25] Loading mean file from: examples/cifar10/mean.binaryproto
I0430 23:52:02.561053  5741 data_layer.cpp:45] output data size: 1000,3,32,32
I0430 23:52:02.583281  5741 net.cpp:124] Setting up cifar
I0430 23:52:02.583322  5741 net.cpp:131] Top shape: 1000 3 32 32 (3072000)
I0430 23:52:02.583328  5741 net.cpp:131] Top shape: 1000 (1000)
I0430 23:52:02.583331  5741 net.cpp:139] Memory required for data: 12292000
I0430 23:52:02.583338  5741 layer_factory.hpp:77] Creating layer label_cifar_1_split
I0430 23:52:02.583355  5741 net.cpp:86] Creating Layer label_cifar_1_split
I0430 23:52:02.583359  5741 net.cpp:408] label_cifar_1_split <- label
I0430 23:52:02.583380  5741 net.cpp:382] label_cifar_1_split -> label_cifar_1_split_0
I0430 23:52:02.583389  5741 net.cpp:382] label_cifar_1_split -> label_cifar_1_split_1
I0430 23:52:02.583503  5741 net.cpp:124] Setting up label_cifar_1_split
I0430 23:52:02.583511  5741 net.cpp:131] Top shape: 1000 (1000)
I0430 23:52:02.583515  5741 net.cpp:131] Top shape: 1000 (1000)
I0430 23:52:02.583518  5741 net.cpp:139] Memory required for data: 12300000
I0430 23:52:02.583521  5741 layer_factory.hpp:77] Creating layer conv0
I0430 23:52:02.583534  5741 net.cpp:86] Creating Layer conv0
I0430 23:52:02.583537  5741 net.cpp:408] conv0 <- data
I0430 23:52:02.583544  5741 net.cpp:382] conv0 -> conv0
I0430 23:52:02.585337  5741 net.cpp:124] Setting up conv0
I0430 23:52:02.585350  5741 net.cpp:131] Top shape: 1000 8 34 34 (9248000)
I0430 23:52:02.585369  5741 net.cpp:139] Memory required for data: 49292000
I0430 23:52:02.585379  5741 layer_factory.hpp:77] Creating layer Sigmoid0
I0430 23:52:02.585386  5741 net.cpp:86] Creating Layer Sigmoid0
I0430 23:52:02.585389  5741 net.cpp:408] Sigmoid0 <- conv0
I0430 23:52:02.585394  5741 net.cpp:382] Sigmoid0 -> Sigmoid0
I0430 23:52:02.585584  5741 net.cpp:124] Setting up Sigmoid0
I0430 23:52:02.585593  5741 net.cpp:131] Top shape: 1000 8 34 34 (9248000)
I0430 23:52:02.585597  5741 net.cpp:139] Memory required for data: 86284000
I0430 23:52:02.585599  5741 layer_factory.hpp:77] Creating layer pool0
I0430 23:52:02.585608  5741 net.cpp:86] Creating Layer pool0
I0430 23:52:02.585610  5741 net.cpp:408] pool0 <- Sigmoid0
I0430 23:52:02.585615  5741 net.cpp:382] pool0 -> pool0
I0430 23:52:02.585871  5741 net.cpp:124] Setting up pool0
I0430 23:52:02.585880  5741 net.cpp:131] Top shape: 1000 8 17 17 (2312000)
I0430 23:52:02.585883  5741 net.cpp:139] Memory required for data: 95532000
I0430 23:52:02.585887  5741 layer_factory.hpp:77] Creating layer ip1
I0430 23:52:02.585896  5741 net.cpp:86] Creating Layer ip1
I0430 23:52:02.585899  5741 net.cpp:408] ip1 <- pool0
I0430 23:52:02.585904  5741 net.cpp:382] ip1 -> ip1
I0430 23:52:02.589495  5741 net.cpp:124] Setting up ip1
I0430 23:52:02.589505  5741 net.cpp:131] Top shape: 1000 40 (40000)
I0430 23:52:02.589524  5741 net.cpp:139] Memory required for data: 95692000
I0430 23:52:02.589546  5741 layer_factory.hpp:77] Creating layer relu1
I0430 23:52:02.589553  5741 net.cpp:86] Creating Layer relu1
I0430 23:52:02.589556  5741 net.cpp:408] relu1 <- ip1
I0430 23:52:02.589576  5741 net.cpp:369] relu1 -> ip1 (in-place)
I0430 23:52:02.589740  5741 net.cpp:124] Setting up relu1
I0430 23:52:02.589748  5741 net.cpp:131] Top shape: 1000 40 (40000)
I0430 23:52:02.589751  5741 net.cpp:139] Memory required for data: 95852000
I0430 23:52:02.589756  5741 layer_factory.hpp:77] Creating layer ip2
I0430 23:52:02.589761  5741 net.cpp:86] Creating Layer ip2
I0430 23:52:02.589764  5741 net.cpp:408] ip2 <- ip1
I0430 23:52:02.589769  5741 net.cpp:382] ip2 -> ip2
I0430 23:52:02.589884  5741 net.cpp:124] Setting up ip2
I0430 23:52:02.589891  5741 net.cpp:131] Top shape: 1000 10 (10000)
I0430 23:52:02.589895  5741 net.cpp:139] Memory required for data: 95892000
I0430 23:52:02.589901  5741 layer_factory.hpp:77] Creating layer relu2
I0430 23:52:02.589907  5741 net.cpp:86] Creating Layer relu2
I0430 23:52:02.589910  5741 net.cpp:408] relu2 <- ip2
I0430 23:52:02.589915  5741 net.cpp:369] relu2 -> ip2 (in-place)
I0430 23:52:02.590697  5741 net.cpp:124] Setting up relu2
I0430 23:52:02.590708  5741 net.cpp:131] Top shape: 1000 10 (10000)
I0430 23:52:02.590728  5741 net.cpp:139] Memory required for data: 95932000
I0430 23:52:02.590731  5741 layer_factory.hpp:77] Creating layer ip3
I0430 23:52:02.590739  5741 net.cpp:86] Creating Layer ip3
I0430 23:52:02.590742  5741 net.cpp:408] ip3 <- ip2
I0430 23:52:02.590749  5741 net.cpp:382] ip3 -> ip3
I0430 23:52:02.590912  5741 net.cpp:124] Setting up ip3
I0430 23:52:02.590920  5741 net.cpp:131] Top shape: 1000 160 (160000)
I0430 23:52:02.590924  5741 net.cpp:139] Memory required for data: 96572000
I0430 23:52:02.590929  5741 layer_factory.hpp:77] Creating layer relu3
I0430 23:52:02.590935  5741 net.cpp:86] Creating Layer relu3
I0430 23:52:02.590939  5741 net.cpp:408] relu3 <- ip3
I0430 23:52:02.590942  5741 net.cpp:369] relu3 -> ip3 (in-place)
I0430 23:52:02.591092  5741 net.cpp:124] Setting up relu3
I0430 23:52:02.591100  5741 net.cpp:131] Top shape: 1000 160 (160000)
I0430 23:52:02.591104  5741 net.cpp:139] Memory required for data: 97212000
I0430 23:52:02.591106  5741 layer_factory.hpp:77] Creating layer ip4
I0430 23:52:02.591114  5741 net.cpp:86] Creating Layer ip4
I0430 23:52:02.591116  5741 net.cpp:408] ip4 <- ip3
I0430 23:52:02.591120  5741 net.cpp:382] ip4 -> ip4
I0430 23:52:02.591279  5741 net.cpp:124] Setting up ip4
I0430 23:52:02.591285  5741 net.cpp:131] Top shape: 1000 10 (10000)
I0430 23:52:02.591289  5741 net.cpp:139] Memory required for data: 97252000
I0430 23:52:02.591297  5741 layer_factory.hpp:77] Creating layer ip4_ip4_0_split
I0430 23:52:02.591302  5741 net.cpp:86] Creating Layer ip4_ip4_0_split
I0430 23:52:02.591305  5741 net.cpp:408] ip4_ip4_0_split <- ip4
I0430 23:52:02.591310  5741 net.cpp:382] ip4_ip4_0_split -> ip4_ip4_0_split_0
I0430 23:52:02.591316  5741 net.cpp:382] ip4_ip4_0_split -> ip4_ip4_0_split_1
I0430 23:52:02.591347  5741 net.cpp:124] Setting up ip4_ip4_0_split
I0430 23:52:02.591354  5741 net.cpp:131] Top shape: 1000 10 (10000)
I0430 23:52:02.591358  5741 net.cpp:131] Top shape: 1000 10 (10000)
I0430 23:52:02.591361  5741 net.cpp:139] Memory required for data: 97332000
I0430 23:52:02.591363  5741 layer_factory.hpp:77] Creating layer accuracy
I0430 23:52:02.591369  5741 net.cpp:86] Creating Layer accuracy
I0430 23:52:02.591372  5741 net.cpp:408] accuracy <- ip4_ip4_0_split_0
I0430 23:52:02.591377  5741 net.cpp:408] accuracy <- label_cifar_1_split_0
I0430 23:52:02.591382  5741 net.cpp:382] accuracy -> accuracy
…
