…
I0501 04:50:45.787693 26731 net.cpp:296] The NetState phase (0) differed from the phase (1) specified by a rule in layer cifar
I0501 04:50:45.787711 26731 net.cpp:296] The NetState phase (0) differed from the phase (1) specified by a rule in layer accuracy
I0501 04:50:45.787816 26731 net.cpp:53] Initializing net from parameters: 
name: "CIFAR"
state {
  phase: TRAIN
  level: 0
  stage: ""
}
layer {
  name: "cifar"
  type: "Data"
  top: "data"
  top: "label"
  include {
    phase: TRAIN
  }
  transform_param {
    mean_file: "examples/cifar10/mean.binaryproto"
  }
  data_param {
    source: "examples/cifar10/cifar10_train_lmdb"
    batch_size: 111
    backend: LMDB
  }
}
layer {
  name: "conv0"
  type: "Convolution"
  bottom: "data"
  top: "conv0"
  param {
    lr_mult: 1
  }
  param {
    lr_mult: 2
  }
  convolution_param {
    num_output: 8
    pad: 2
    kernel_size: 5
    stride: 1
    weight_filler {
      type: "gaussian"
      std: 0.01
    }
    bias_filler {
      type: "constant"
    }
  }
}
layer {
  name: "Sigmoid0"
  type: "Sigmoid"
  bottom: "conv0"
  top: "Sigmoid0"
}
layer {
  name: "pool0"
  type: "Pooling"
  bottom: "Sigmoid0"
  top: "pool0"
  pooling_param {
    pool: AVE
    kernel_size: 3
    stride: 2
  }
}
layer {
  name: "ip1"
  type: "InnerProduct"
  bottom: "pool0"
  top: "ip1"
  param {
    lr_mult: 1
  }
  param {
    lr_mult: 2
  }
  inner_product_param {
    num_output: 40
    weight_filler {
      type: "gaussian"
      std: 0.01
    }
    bias_filler {
      type: "constant"
    }
  }
}
layer {
  name: "relu1"
  type: "ReLU"
  bottom: "ip1"
  top: "ip1"
}
layer {
  name: "ip2"
  type: "InnerProduct"
  bottom: "ip1"
  top: "ip2"
  param {
    lr_mult: 1
  }
  param {
    lr_mult: 2
  }
  inner_product_param {
    num_output: 20
    weight_filler {
      type: "gaussian"
      std: 0.01
    }
    bias_filler {
      type: "constant"
    }
  }
}
layer {
  name: "relu2"
  type: "ReLU"
  bottom: "ip2"
  top: "ip2"
}
layer {
  name: "ip3"
  type: "InnerProduct"
  bottom: "ip2"
  top: "ip3"
  param {
    lr_mult: 1
  }
  param {
    lr_mult: 2
  }
  inner_product_param {
    num_output: 160
    weight_filler {
      type: "gaussian"
      std: 0.01
    }
    bias_filler {
      type: "constant"
    }
  }
}
layer {
  name: "relu3"
  type: "ReLU"
  bottom: "ip3"
  top: "ip3"
}
layer {
  name: "ip4"
  type: "InnerProduct"
  bottom: "ip3"
  top: "ip4"
  param {
    lr_mult: 1
  }
  param {
    lr_mult: 2
  }
  inner_product_param {
    num_output: 10
    weight_filler {
      type: "gaussian"
      std: 0.01
    }
    bias_filler {
      type: "constant"
    }
  }
}
layer {
  name: "loss"
  type: "SoftmaxWithLoss"
  bottom: "ip4"
  bottom: "label"
  top: "loss"
}
I0501 04:50:45.787892 26731 layer_factory.hpp:77] Creating layer cifar
I0501 04:50:45.787986 26731 db_lmdb.cpp:35] Opened lmdb examples/cifar10/cifar10_train_lmdb
I0501 04:50:45.788012 26731 net.cpp:86] Creating Layer cifar
I0501 04:50:45.788022 26731 net.cpp:382] cifar -> data
I0501 04:50:45.788043 26731 net.cpp:382] cifar -> label
I0501 04:50:45.788054 26731 data_transformer.cpp:25] Loading mean file from: examples/cifar10/mean.binaryproto
I0501 04:50:45.790138 26731 data_layer.cpp:45] output data size: 111,3,32,32
I0501 04:50:45.797868 26731 net.cpp:124] Setting up cifar
I0501 04:50:45.797888 26731 net.cpp:131] Top shape: 111 3 32 32 (340992)
I0501 04:50:45.797896 26731 net.cpp:131] Top shape: 111 (111)
I0501 04:50:45.797900 26731 net.cpp:139] Memory required for data: 1364412
I0501 04:50:45.797921 26731 layer_factory.hpp:77] Creating layer conv0
I0501 04:50:45.797940 26731 net.cpp:86] Creating Layer conv0
I0501 04:50:45.797945 26731 net.cpp:408] conv0 <- data
I0501 04:50:45.797957 26731 net.cpp:382] conv0 -> conv0
I0501 04:50:46.085809 26731 net.cpp:124] Setting up conv0
I0501 04:50:46.085841 26731 net.cpp:131] Top shape: 111 8 32 32 (909312)
I0501 04:50:46.085847 26731 net.cpp:139] Memory required for data: 5001660
I0501 04:50:46.085865 26731 layer_factory.hpp:77] Creating layer Sigmoid0
I0501 04:50:46.085880 26731 net.cpp:86] Creating Layer Sigmoid0
I0501 04:50:46.085886 26731 net.cpp:408] Sigmoid0 <- conv0
I0501 04:50:46.085892 26731 net.cpp:382] Sigmoid0 -> Sigmoid0
I0501 04:50:46.086136 26731 net.cpp:124] Setting up Sigmoid0
I0501 04:50:46.086148 26731 net.cpp:131] Top shape: 111 8 32 32 (909312)
I0501 04:50:46.086153 26731 net.cpp:139] Memory required for data: 8638908
I0501 04:50:46.086156 26731 layer_factory.hpp:77] Creating layer pool0
I0501 04:50:46.086166 26731 net.cpp:86] Creating Layer pool0
I0501 04:50:46.086170 26731 net.cpp:408] pool0 <- Sigmoid0
I0501 04:50:46.086175 26731 net.cpp:382] pool0 -> pool0
I0501 04:50:46.087066 26731 net.cpp:124] Setting up pool0
I0501 04:50:46.087082 26731 net.cpp:131] Top shape: 111 8 16 16 (227328)
I0501 04:50:46.087086 26731 net.cpp:139] Memory required for data: 9548220
I0501 04:50:46.087091 26731 layer_factory.hpp:77] Creating layer ip1
I0501 04:50:46.087103 26731 net.cpp:86] Creating Layer ip1
I0501 04:50:46.087108 26731 net.cpp:408] ip1 <- pool0
I0501 04:50:46.087117 26731 net.cpp:382] ip1 -> ip1
I0501 04:50:46.089954 26731 net.cpp:124] Setting up ip1
I0501 04:50:46.089965 26731 net.cpp:131] Top shape: 111 40 (4440)
I0501 04:50:46.089969 26731 net.cpp:139] Memory required for data: 9565980
I0501 04:50:46.089978 26731 layer_factory.hpp:77] Creating layer relu1
I0501 04:50:46.089985 26731 net.cpp:86] Creating Layer relu1
I0501 04:50:46.089989 26731 net.cpp:408] relu1 <- ip1
I0501 04:50:46.089994 26731 net.cpp:369] relu1 -> ip1 (in-place)
I0501 04:50:46.090186 26731 net.cpp:124] Setting up relu1
I0501 04:50:46.090198 26731 net.cpp:131] Top shape: 111 40 (4440)
I0501 04:50:46.090203 26731 net.cpp:139] Memory required for data: 9583740
I0501 04:50:46.090206 26731 layer_factory.hpp:77] Creating layer ip2
I0501 04:50:46.090214 26731 net.cpp:86] Creating Layer ip2
I0501 04:50:46.090217 26731 net.cpp:408] ip2 <- ip1
I0501 04:50:46.090224 26731 net.cpp:382] ip2 -> ip2
I0501 04:50:46.090363 26731 net.cpp:124] Setting up ip2
I0501 04:50:46.090370 26731 net.cpp:131] Top shape: 111 20 (2220)
I0501 04:50:46.090374 26731 net.cpp:139] Memory required for data: 9592620
I0501 04:50:46.090382 26731 layer_factory.hpp:77] Creating layer relu2
I0501 04:50:46.090390 26731 net.cpp:86] Creating Layer relu2
I0501 04:50:46.090394 26731 net.cpp:408] relu2 <- ip2
I0501 04:50:46.090399 26731 net.cpp:369] relu2 -> ip2 (in-place)
I0501 04:50:46.090589 26731 net.cpp:124] Setting up relu2
I0501 04:50:46.090600 26731 net.cpp:131] Top shape: 111 20 (2220)
I0501 04:50:46.090605 26731 net.cpp:139] Memory required for data: 9601500
I0501 04:50:46.090607 26731 layer_factory.hpp:77] Creating layer ip3
I0501 04:50:46.090616 26731 net.cpp:86] Creating Layer ip3
I0501 04:50:46.090620 26731 net.cpp:408] ip3 <- ip2
I0501 04:50:46.090626 26731 net.cpp:382] ip3 -> ip3
I0501 04:50:46.090844 26731 net.cpp:124] Setting up ip3
I0501 04:50:46.090853 26731 net.cpp:131] Top shape: 111 160 (17760)
I0501 04:50:46.090857 26731 net.cpp:139] Memory required for data: 9672540
I0501 04:50:46.090863 26731 layer_factory.hpp:77] Creating layer relu3
I0501 04:50:46.090870 26731 net.cpp:86] Creating Layer relu3
I0501 04:50:46.090874 26731 net.cpp:408] relu3 <- ip3
I0501 04:50:46.090879 26731 net.cpp:369] relu3 -> ip3 (in-place)
I0501 04:50:46.091063 26731 net.cpp:124] Setting up relu3
I0501 04:50:46.091073 26731 net.cpp:131] Top shape: 111 160 (17760)
I0501 04:50:46.091078 26731 net.cpp:139] Memory required for data: 9743580
I0501 04:50:46.091080 26731 layer_factory.hpp:77] Creating layer ip4
I0501 04:50:46.091106 26731 net.cpp:86] Creating Layer ip4
I0501 04:50:46.091110 26731 net.cpp:408] ip4 <- ip3
I0501 04:50:46.091117 26731 net.cpp:382] ip4 -> ip4
I0501 04:50:46.091284 26731 net.cpp:124] Setting up ip4
I0501 04:50:46.091295 26731 net.cpp:131] Top shape: 111 10 (1110)
I0501 04:50:46.091300 26731 net.cpp:139] Memory required for data: 9748020
I0501 04:50:46.091308 26731 layer_factory.hpp:77] Creating layer loss
I0501 04:50:46.091315 26731 net.cpp:86] Creating Layer loss
I0501 04:50:46.091318 26731 net.cpp:408] loss <- ip4
I0501 04:50:46.091322 26731 net.cpp:408] loss <- label
I0501 04:50:46.091328 26731 net.cpp:382] loss -> loss
I0501 04:50:46.091343 26731 layer_factory.hpp:77] Creating layer loss
…
I0501 04:50:46.092787 26731 solver.cpp:173] Creating test net (#0) specified by net file: ECE595/cifar/train_test/var_everything/cifar_train_test_399.prototxt
I0501 04:50:46.092825 26731 net.cpp:296] The NetState phase (1) differed from the phase (0) specified by a rule in layer cifar
I0501 04:50:46.092942 26731 net.cpp:53] Initializing net from parameters: 
name: "CIFAR"
state {
  phase: TEST
}
layer {
  name: "cifar"
  type: "Data"
  top: "data"
  top: "label"
  include {
    phase: TEST
  }
  transform_param {
    mean_file: "examples/cifar10/mean.binaryproto"
  }
  data_param {
    source: "examples/cifar10/cifar10_test_lmdb"
    batch_size: 1000
    backend: LMDB
  }
}
layer {
  name: "conv0"
  type: "Convolution"
  bottom: "data"
  top: "conv0"
  param {
    lr_mult: 1
  }
  param {
    lr_mult: 2
  }
  convolution_param {
    num_output: 8
    pad: 2
    kernel_size: 5
    stride: 1
    weight_filler {
      type: "gaussian"
      std: 0.01
    }
    bias_filler {
      type: "constant"
    }
  }
}
layer {
  name: "Sigmoid0"
  type: "Sigmoid"
  bottom: "conv0"
  top: "Sigmoid0"
}
layer {
  name: "pool0"
  type: "Pooling"
  bottom: "Sigmoid0"
  top: "pool0"
  pooling_param {
    pool: AVE
    kernel_size: 3
    stride: 2
  }
}
layer {
  name: "ip1"
  type: "InnerProduct"
  bottom: "pool0"
  top: "ip1"
  param {
    lr_mult: 1
  }
  param {
    lr_mult: 2
  }
  inner_product_param {
    num_output: 40
    weight_filler {
      type: "gaussian"
      std: 0.01
    }
    bias_filler {
      type: "constant"
    }
  }
}
layer {
  name: "relu1"
  type: "ReLU"
  bottom: "ip1"
  top: "ip1"
}
layer {
  name: "ip2"
  type: "InnerProduct"
  bottom: "ip1"
  top: "ip2"
  param {
    lr_mult: 1
  }
  param {
    lr_mult: 2
  }
  inner_product_param {
    num_output: 20
    weight_filler {
      type: "gaussian"
      std: 0.01
    }
    bias_filler {
      type: "constant"
    }
  }
}
layer {
  name: "relu2"
  type: "ReLU"
  bottom: "ip2"
  top: "ip2"
}
layer {
  name: "ip3"
  type: "InnerProduct"
  bottom: "ip2"
  top: "ip3"
  param {
    lr_mult: 1
  }
  param {
    lr_mult: 2
  }
  inner_product_param {
    num_output: 160
    weight_filler {
      type: "gaussian"
      std: 0.01
    }
    bias_filler {
      type: "constant"
    }
  }
}
layer {
  name: "relu3"
  type: "ReLU"
  bottom: "ip3"
  top: "ip3"
}
layer {
  name: "ip4"
  type: "InnerProduct"
  bottom: "ip3"
  top: "ip4"
  param {
    lr_mult: 1
  }
  param {
    lr_mult: 2
  }
  inner_product_param {
    num_output: 10
    weight_filler {
      type: "gaussian"
      std: 0.01
    }
    bias_filler {
      type: "constant"
    }
  }
}
layer {
  name: "accuracy"
  type: "Accuracy"
  bottom: "ip4"
  bottom: "label"
  top: "accuracy"
  include {
    phase: TEST
  }
}
layer {
  name: "loss"
  type: "SoftmaxWithLoss"
  bottom: "ip4"
  bottom: "label"
  top: "loss"
}
I0501 04:50:46.093046 26731 layer_factory.hpp:77] Creating layer cifar
I0501 04:50:46.093101 26731 db_lmdb.cpp:35] Opened lmdb examples/cifar10/cifar10_test_lmdb
I0501 04:50:46.093116 26731 net.cpp:86] Creating Layer cifar
I0501 04:50:46.093124 26731 net.cpp:382] cifar -> data
I0501 04:50:46.093134 26731 net.cpp:382] cifar -> label
I0501 04:50:46.093142 26731 data_transformer.cpp:25] Loading mean file from: examples/cifar10/mean.binaryproto
I0501 04:50:46.093318 26731 data_layer.cpp:45] output data size: 1000,3,32,32
I0501 04:50:46.119242 26731 net.cpp:124] Setting up cifar
I0501 04:50:46.119272 26731 net.cpp:131] Top shape: 1000 3 32 32 (3072000)
I0501 04:50:46.119279 26731 net.cpp:131] Top shape: 1000 (1000)
I0501 04:50:46.119282 26731 net.cpp:139] Memory required for data: 12292000
I0501 04:50:46.119289 26731 layer_factory.hpp:77] Creating layer label_cifar_1_split
I0501 04:50:46.119305 26731 net.cpp:86] Creating Layer label_cifar_1_split
I0501 04:50:46.119312 26731 net.cpp:408] label_cifar_1_split <- label
I0501 04:50:46.119318 26731 net.cpp:382] label_cifar_1_split -> label_cifar_1_split_0
I0501 04:50:46.119329 26731 net.cpp:382] label_cifar_1_split -> label_cifar_1_split_1
I0501 04:50:46.119449 26731 net.cpp:124] Setting up label_cifar_1_split
I0501 04:50:46.119459 26731 net.cpp:131] Top shape: 1000 (1000)
I0501 04:50:46.119464 26731 net.cpp:131] Top shape: 1000 (1000)
I0501 04:50:46.119467 26731 net.cpp:139] Memory required for data: 12300000
I0501 04:50:46.119472 26731 layer_factory.hpp:77] Creating layer conv0
I0501 04:50:46.119488 26731 net.cpp:86] Creating Layer conv0
I0501 04:50:46.119493 26731 net.cpp:408] conv0 <- data
I0501 04:50:46.119500 26731 net.cpp:382] conv0 -> conv0
I0501 04:50:46.122355 26731 net.cpp:124] Setting up conv0
I0501 04:50:46.122376 26731 net.cpp:131] Top shape: 1000 8 32 32 (8192000)
I0501 04:50:46.122381 26731 net.cpp:139] Memory required for data: 45068000
I0501 04:50:46.122398 26731 layer_factory.hpp:77] Creating layer Sigmoid0
I0501 04:50:46.122406 26731 net.cpp:86] Creating Layer Sigmoid0
I0501 04:50:46.122411 26731 net.cpp:408] Sigmoid0 <- conv0
I0501 04:50:46.122418 26731 net.cpp:382] Sigmoid0 -> Sigmoid0
I0501 04:50:46.122656 26731 net.cpp:124] Setting up Sigmoid0
I0501 04:50:46.122668 26731 net.cpp:131] Top shape: 1000 8 32 32 (8192000)
I0501 04:50:46.122673 26731 net.cpp:139] Memory required for data: 77836000
I0501 04:50:46.122676 26731 layer_factory.hpp:77] Creating layer pool0
I0501 04:50:46.122687 26731 net.cpp:86] Creating Layer pool0
I0501 04:50:46.122692 26731 net.cpp:408] pool0 <- Sigmoid0
I0501 04:50:46.122699 26731 net.cpp:382] pool0 -> pool0
I0501 04:50:46.122917 26731 net.cpp:124] Setting up pool0
I0501 04:50:46.122928 26731 net.cpp:131] Top shape: 1000 8 16 16 (2048000)
I0501 04:50:46.122932 26731 net.cpp:139] Memory required for data: 86028000
I0501 04:50:46.122936 26731 layer_factory.hpp:77] Creating layer ip1
I0501 04:50:46.122947 26731 net.cpp:86] Creating Layer ip1
I0501 04:50:46.122951 26731 net.cpp:408] ip1 <- pool0
I0501 04:50:46.122958 26731 net.cpp:382] ip1 -> ip1
I0501 04:50:46.125797 26731 net.cpp:124] Setting up ip1
I0501 04:50:46.125808 26731 net.cpp:131] Top shape: 1000 40 (40000)
I0501 04:50:46.125811 26731 net.cpp:139] Memory required for data: 86188000
I0501 04:50:46.125838 26731 layer_factory.hpp:77] Creating layer relu1
I0501 04:50:46.125847 26731 net.cpp:86] Creating Layer relu1
I0501 04:50:46.125851 26731 net.cpp:408] relu1 <- ip1
I0501 04:50:46.125857 26731 net.cpp:369] relu1 -> ip1 (in-place)
I0501 04:50:46.126067 26731 net.cpp:124] Setting up relu1
I0501 04:50:46.126078 26731 net.cpp:131] Top shape: 1000 40 (40000)
I0501 04:50:46.126082 26731 net.cpp:139] Memory required for data: 86348000
I0501 04:50:46.126086 26731 layer_factory.hpp:77] Creating layer ip2
I0501 04:50:46.126096 26731 net.cpp:86] Creating Layer ip2
I0501 04:50:46.126101 26731 net.cpp:408] ip2 <- ip1
I0501 04:50:46.126106 26731 net.cpp:382] ip2 -> ip2
I0501 04:50:46.126263 26731 net.cpp:124] Setting up ip2
I0501 04:50:46.126272 26731 net.cpp:131] Top shape: 1000 20 (20000)
I0501 04:50:46.126276 26731 net.cpp:139] Memory required for data: 86428000
I0501 04:50:46.126286 26731 layer_factory.hpp:77] Creating layer relu2
I0501 04:50:46.126293 26731 net.cpp:86] Creating Layer relu2
I0501 04:50:46.126298 26731 net.cpp:408] relu2 <- ip2
I0501 04:50:46.126303 26731 net.cpp:369] relu2 -> ip2 (in-place)
I0501 04:50:46.127215 26731 net.cpp:124] Setting up relu2
I0501 04:50:46.127230 26731 net.cpp:131] Top shape: 1000 20 (20000)
I0501 04:50:46.127234 26731 net.cpp:139] Memory required for data: 86508000
I0501 04:50:46.127239 26731 layer_factory.hpp:77] Creating layer ip3
I0501 04:50:46.127249 26731 net.cpp:86] Creating Layer ip3
I0501 04:50:46.127252 26731 net.cpp:408] ip3 <- ip2
I0501 04:50:46.127259 26731 net.cpp:382] ip3 -> ip3
I0501 04:50:46.127496 26731 net.cpp:124] Setting up ip3
I0501 04:50:46.127504 26731 net.cpp:131] Top shape: 1000 160 (160000)
I0501 04:50:46.127508 26731 net.cpp:139] Memory required for data: 87148000
I0501 04:50:46.127516 26731 layer_factory.hpp:77] Creating layer relu3
I0501 04:50:46.127523 26731 net.cpp:86] Creating Layer relu3
I0501 04:50:46.127527 26731 net.cpp:408] relu3 <- ip3
I0501 04:50:46.127532 26731 net.cpp:369] relu3 -> ip3 (in-place)
I0501 04:50:46.127724 26731 net.cpp:124] Setting up relu3
I0501 04:50:46.127734 26731 net.cpp:131] Top shape: 1000 160 (160000)
I0501 04:50:46.127738 26731 net.cpp:139] Memory required for data: 87788000
I0501 04:50:46.127743 26731 layer_factory.hpp:77] Creating layer ip4
I0501 04:50:46.127750 26731 net.cpp:86] Creating Layer ip4
I0501 04:50:46.127754 26731 net.cpp:408] ip4 <- ip3
I0501 04:50:46.127761 26731 net.cpp:382] ip4 -> ip4
I0501 04:50:46.127938 26731 net.cpp:124] Setting up ip4
I0501 04:50:46.127948 26731 net.cpp:131] Top shape: 1000 10 (10000)
I0501 04:50:46.127951 26731 net.cpp:139] Memory required for data: 87828000
I0501 04:50:46.127961 26731 layer_factory.hpp:77] Creating layer ip4_ip4_0_split
I0501 04:50:46.127967 26731 net.cpp:86] Creating Layer ip4_ip4_0_split
I0501 04:50:46.127971 26731 net.cpp:408] ip4_ip4_0_split <- ip4
I0501 04:50:46.127977 26731 net.cpp:382] ip4_ip4_0_split -> ip4_ip4_0_split_0
I0501 04:50:46.127984 26731 net.cpp:382] ip4_ip4_0_split -> ip4_ip4_0_split_1
I0501 04:50:46.128023 26731 net.cpp:124] Setting up ip4_ip4_0_split
I0501 04:50:46.128031 26731 net.cpp:131] Top shape: 1000 10 (10000)
I0501 04:50:46.128036 26731 net.cpp:131] Top shape: 1000 10 (10000)
I0501 04:50:46.128038 26731 net.cpp:139] Memory required for data: 87908000
I0501 04:50:46.128041 26731 layer_factory.hpp:77] Creating layer accuracy
I0501 04:50:46.128049 26731 net.cpp:86] Creating Layer accuracy
I0501 04:50:46.128053 26731 net.cpp:408] accuracy <- ip4_ip4_0_split_0
I0501 04:50:46.128057 26731 net.cpp:408] accuracy <- label_cifar_1_split_0
I0501 04:50:46.128067 26731 net.cpp:382] accuracy -> accuracy
…
