…
I0430 23:33:18.086217  5078 net.cpp:296] The NetState phase (0) differed from the phase (1) specified by a rule in layer cifar
I0430 23:33:18.086241  5078 net.cpp:296] The NetState phase (0) differed from the phase (1) specified by a rule in layer accuracy
I0430 23:33:18.086385  5078 net.cpp:53] Initializing net from parameters: 
name: "CIFAR"
state {
  phase: TRAIN
  level: 0
  stage: ""
}
layer {
  name: "cifar"
  type: "Data"
  top: "data"
  top: "label"
  include {
    phase: TRAIN
  }
  transform_param {
    mean_file: "examples/cifar10/mean.binaryproto"
  }
  data_param {
    source: "examples/cifar10/cifar10_train_lmdb"
    batch_size: 111
    backend: LMDB
  }
}
layer {
  name: "conv0"
  type: "Convolution"
  bottom: "data"
  top: "conv0"
  param {
    lr_mult: 1
  }
  param {
    lr_mult: 2
  }
  convolution_param {
    num_output: 8
    pad: 2
    kernel_size: 3
    stride: 1
    weight_filler {
      type: "gaussian"
      std: 0.01
    }
    bias_filler {
      type: "constant"
    }
  }
}
layer {
  name: "Sigmoid0"
  type: "Sigmoid"
  bottom: "conv0"
  top: "Sigmoid0"
}
layer {
  name: "pool0"
  type: "Pooling"
  bottom: "Sigmoid0"
  top: "pool0"
  pooling_param {
    pool: AVE
    kernel_size: 3
    stride: 2
  }
}
layer {
  name: "ip1"
  type: "InnerProduct"
  bottom: "pool0"
  top: "ip1"
  param {
    lr_mult: 1
  }
  param {
    lr_mult: 2
  }
  inner_product_param {
    num_output: 20
    weight_filler {
      type: "gaussian"
      std: 0.01
    }
    bias_filler {
      type: "constant"
    }
  }
}
layer {
  name: "relu1"
  type: "ReLU"
  bottom: "ip1"
  top: "ip1"
}
layer {
  name: "ip2"
  type: "InnerProduct"
  bottom: "ip1"
  top: "ip2"
  param {
    lr_mult: 1
  }
  param {
    lr_mult: 2
  }
  inner_product_param {
    num_output: 80
    weight_filler {
      type: "gaussian"
      std: 0.01
    }
    bias_filler {
      type: "constant"
    }
  }
}
layer {
  name: "relu2"
  type: "ReLU"
  bottom: "ip2"
  top: "ip2"
}
layer {
  name: "ip3"
  type: "InnerProduct"
  bottom: "ip2"
  top: "ip3"
  param {
    lr_mult: 1
  }
  param {
    lr_mult: 2
  }
  inner_product_param {
    num_output: 160
    weight_filler {
      type: "gaussian"
      std: 0.01
    }
    bias_filler {
      type: "constant"
    }
  }
}
layer {
  name: "relu3"
  type: "ReLU"
  bottom: "ip3"
  top: "ip3"
}
layer {
  name: "ip4"
  type: "InnerProduct"
  bottom: "ip3"
  top: "ip4"
  param {
    lr_mult: 1
  }
  param {
    lr_mult: 2
  }
  inner_product_param {
    num_output: 10
    weight_filler {
      type: "gaussian"
      std: 0.01
    }
    bias_filler {
      type: "constant"
    }
  }
}
layer {
  name: "loss"
  type: "SoftmaxWithLoss"
  bottom: "ip4"
  bottom: "label"
  top: "loss"
}
I0430 23:33:18.086483  5078 layer_factory.hpp:77] Creating layer cifar
I0430 23:33:18.086616  5078 db_lmdb.cpp:35] Opened lmdb examples/cifar10/cifar10_train_lmdb
I0430 23:33:18.086659  5078 net.cpp:86] Creating Layer cifar
I0430 23:33:18.086670  5078 net.cpp:382] cifar -> data
I0430 23:33:18.086700  5078 net.cpp:382] cifar -> label
I0430 23:33:18.086716  5078 data_transformer.cpp:25] Loading mean file from: examples/cifar10/mean.binaryproto
I0430 23:33:18.089565  5078 data_layer.cpp:45] output data size: 111,3,32,32
I0430 23:33:18.099818  5078 net.cpp:124] Setting up cifar
I0430 23:33:18.099844  5078 net.cpp:131] Top shape: 111 3 32 32 (340992)
I0430 23:33:18.099854  5078 net.cpp:131] Top shape: 111 (111)
I0430 23:33:18.099860  5078 net.cpp:139] Memory required for data: 1364412
I0430 23:33:18.099892  5078 layer_factory.hpp:77] Creating layer conv0
I0430 23:33:18.099920  5078 net.cpp:86] Creating Layer conv0
I0430 23:33:18.099931  5078 net.cpp:408] conv0 <- data
I0430 23:33:18.099947  5078 net.cpp:382] conv0 -> conv0
I0430 23:33:18.387627  5078 net.cpp:124] Setting up conv0
I0430 23:33:18.387655  5078 net.cpp:131] Top shape: 111 8 34 34 (1026528)
I0430 23:33:18.387658  5078 net.cpp:139] Memory required for data: 5470524
I0430 23:33:18.387673  5078 layer_factory.hpp:77] Creating layer Sigmoid0
I0430 23:33:18.387687  5078 net.cpp:86] Creating Layer Sigmoid0
I0430 23:33:18.387691  5078 net.cpp:408] Sigmoid0 <- conv0
I0430 23:33:18.387696  5078 net.cpp:382] Sigmoid0 -> Sigmoid0
I0430 23:33:18.387900  5078 net.cpp:124] Setting up Sigmoid0
I0430 23:33:18.387909  5078 net.cpp:131] Top shape: 111 8 34 34 (1026528)
I0430 23:33:18.387912  5078 net.cpp:139] Memory required for data: 9576636
I0430 23:33:18.387917  5078 layer_factory.hpp:77] Creating layer pool0
I0430 23:33:18.387923  5078 net.cpp:86] Creating Layer pool0
I0430 23:33:18.387926  5078 net.cpp:408] pool0 <- Sigmoid0
I0430 23:33:18.387930  5078 net.cpp:382] pool0 -> pool0
I0430 23:33:18.388640  5078 net.cpp:124] Setting up pool0
I0430 23:33:18.388653  5078 net.cpp:131] Top shape: 111 8 17 17 (256632)
I0430 23:33:18.388656  5078 net.cpp:139] Memory required for data: 10603164
I0430 23:33:18.388659  5078 layer_factory.hpp:77] Creating layer ip1
I0430 23:33:18.388669  5078 net.cpp:86] Creating Layer ip1
I0430 23:33:18.388671  5078 net.cpp:408] ip1 <- pool0
I0430 23:33:18.388676  5078 net.cpp:382] ip1 -> ip1
I0430 23:33:18.390784  5078 net.cpp:124] Setting up ip1
I0430 23:33:18.390797  5078 net.cpp:131] Top shape: 111 20 (2220)
I0430 23:33:18.390800  5078 net.cpp:139] Memory required for data: 10612044
I0430 23:33:18.390808  5078 layer_factory.hpp:77] Creating layer relu1
I0430 23:33:18.390815  5078 net.cpp:86] Creating Layer relu1
I0430 23:33:18.390817  5078 net.cpp:408] relu1 <- ip1
I0430 23:33:18.390821  5078 net.cpp:369] relu1 -> ip1 (in-place)
I0430 23:33:18.390971  5078 net.cpp:124] Setting up relu1
I0430 23:33:18.390980  5078 net.cpp:131] Top shape: 111 20 (2220)
I0430 23:33:18.390983  5078 net.cpp:139] Memory required for data: 10620924
I0430 23:33:18.390986  5078 layer_factory.hpp:77] Creating layer ip2
I0430 23:33:18.390992  5078 net.cpp:86] Creating Layer ip2
I0430 23:33:18.390995  5078 net.cpp:408] ip2 <- ip1
I0430 23:33:18.391000  5078 net.cpp:382] ip2 -> ip2
I0430 23:33:18.391137  5078 net.cpp:124] Setting up ip2
I0430 23:33:18.391144  5078 net.cpp:131] Top shape: 111 80 (8880)
I0430 23:33:18.391147  5078 net.cpp:139] Memory required for data: 10656444
I0430 23:33:18.391155  5078 layer_factory.hpp:77] Creating layer relu2
I0430 23:33:18.391158  5078 net.cpp:86] Creating Layer relu2
I0430 23:33:18.391161  5078 net.cpp:408] relu2 <- ip2
I0430 23:33:18.391165  5078 net.cpp:369] relu2 -> ip2 (in-place)
I0430 23:33:18.391309  5078 net.cpp:124] Setting up relu2
I0430 23:33:18.391316  5078 net.cpp:131] Top shape: 111 80 (8880)
I0430 23:33:18.391319  5078 net.cpp:139] Memory required for data: 10691964
I0430 23:33:18.391322  5078 layer_factory.hpp:77] Creating layer ip3
I0430 23:33:18.391330  5078 net.cpp:86] Creating Layer ip3
I0430 23:33:18.391332  5078 net.cpp:408] ip3 <- ip2
I0430 23:33:18.391336  5078 net.cpp:382] ip3 -> ip3
I0430 23:33:18.392556  5078 net.cpp:124] Setting up ip3
I0430 23:33:18.392568  5078 net.cpp:131] Top shape: 111 160 (17760)
I0430 23:33:18.392571  5078 net.cpp:139] Memory required for data: 10763004
I0430 23:33:18.392577  5078 layer_factory.hpp:77] Creating layer relu3
I0430 23:33:18.392582  5078 net.cpp:86] Creating Layer relu3
I0430 23:33:18.392585  5078 net.cpp:408] relu3 <- ip3
I0430 23:33:18.392590  5078 net.cpp:369] relu3 -> ip3 (in-place)
I0430 23:33:18.392740  5078 net.cpp:124] Setting up relu3
I0430 23:33:18.392747  5078 net.cpp:131] Top shape: 111 160 (17760)
I0430 23:33:18.392750  5078 net.cpp:139] Memory required for data: 10834044
I0430 23:33:18.392753  5078 layer_factory.hpp:77] Creating layer ip4
I0430 23:33:18.392774  5078 net.cpp:86] Creating Layer ip4
I0430 23:33:18.392777  5078 net.cpp:408] ip4 <- ip3
I0430 23:33:18.392782  5078 net.cpp:382] ip4 -> ip4
I0430 23:33:18.392945  5078 net.cpp:124] Setting up ip4
I0430 23:33:18.392953  5078 net.cpp:131] Top shape: 111 10 (1110)
I0430 23:33:18.392956  5078 net.cpp:139] Memory required for data: 10838484
I0430 23:33:18.392964  5078 layer_factory.hpp:77] Creating layer loss
I0430 23:33:18.392969  5078 net.cpp:86] Creating Layer loss
I0430 23:33:18.392973  5078 net.cpp:408] loss <- ip4
I0430 23:33:18.392976  5078 net.cpp:408] loss <- label
I0430 23:33:18.392982  5078 net.cpp:382] loss -> loss
I0430 23:33:18.392999  5078 layer_factory.hpp:77] Creating layer loss
…
I0430 23:33:18.394254  5078 solver.cpp:173] Creating test net (#0) specified by net file: ECE595/cifar/train_test/var_everything/cifar_train_test_229.prototxt
I0430 23:33:18.394281  5078 net.cpp:296] The NetState phase (1) differed from the phase (0) specified by a rule in layer cifar
I0430 23:33:18.394372  5078 net.cpp:53] Initializing net from parameters: 
name: "CIFAR"
state {
  phase: TEST
}
layer {
  name: "cifar"
  type: "Data"
  top: "data"
  top: "label"
  include {
    phase: TEST
  }
  transform_param {
    mean_file: "examples/cifar10/mean.binaryproto"
  }
  data_param {
    source: "examples/cifar10/cifar10_test_lmdb"
    batch_size: 1000
    backend: LMDB
  }
}
layer {
  name: "conv0"
  type: "Convolution"
  bottom: "data"
  top: "conv0"
  param {
    lr_mult: 1
  }
  param {
    lr_mult: 2
  }
  convolution_param {
    num_output: 8
    pad: 2
    kernel_size: 3
    stride: 1
    weight_filler {
      type: "gaussian"
      std: 0.01
    }
    bias_filler {
      type: "constant"
    }
  }
}
layer {
  name: "Sigmoid0"
  type: "Sigmoid"
  bottom: "conv0"
  top: "Sigmoid0"
}
layer {
  name: "pool0"
  type: "Pooling"
  bottom: "Sigmoid0"
  top: "pool0"
  pooling_param {
    pool: AVE
    kernel_size: 3
    stride: 2
  }
}
layer {
  name: "ip1"
  type: "InnerProduct"
  bottom: "pool0"
  top: "ip1"
  param {
    lr_mult: 1
  }
  param {
    lr_mult: 2
  }
  inner_product_param {
    num_output: 20
    weight_filler {
      type: "gaussian"
      std: 0.01
    }
    bias_filler {
      type: "constant"
    }
  }
}
layer {
  name: "relu1"
  type: "ReLU"
  bottom: "ip1"
  top: "ip1"
}
layer {
  name: "ip2"
  type: "InnerProduct"
  bottom: "ip1"
  top: "ip2"
  param {
    lr_mult: 1
  }
  param {
    lr_mult: 2
  }
  inner_product_param {
    num_output: 80
    weight_filler {
      type: "gaussian"
      std: 0.01
    }
    bias_filler {
      type: "constant"
    }
  }
}
layer {
  name: "relu2"
  type: "ReLU"
  bottom: "ip2"
  top: "ip2"
}
layer {
  name: "ip3"
  type: "InnerProduct"
  bottom: "ip2"
  top: "ip3"
  param {
    lr_mult: 1
  }
  param {
    lr_mult: 2
  }
  inner_product_param {
    num_output: 160
    weight_filler {
      type: "gaussian"
      std: 0.01
    }
    bias_filler {
      type: "constant"
    }
  }
}
layer {
  name: "relu3"
  type: "ReLU"
  bottom: "ip3"
  top: "ip3"
}
layer {
  name: "ip4"
  type: "InnerProduct"
  bottom: "ip3"
  top: "ip4"
  param {
    lr_mult: 1
  }
  param {
    lr_mult: 2
  }
  inner_product_param {
    num_output: 10
    weight_filler {
      type: "gaussian"
      std: 0.01
    }
    bias_filler {
      type: "constant"
    }
  }
}
layer {
  name: "accuracy"
  type: "Accuracy"
  bottom: "ip4"
  bottom: "label"
  top: "accuracy"
  include {
    phase: TEST
  }
}
layer {
  name: "loss"
  type: "SoftmaxWithLoss"
  bottom: "ip4"
  bottom: "label"
  top: "loss"
}
I0430 23:33:18.394448  5078 layer_factory.hpp:77] Creating layer cifar
I0430 23:33:18.394503  5078 db_lmdb.cpp:35] Opened lmdb examples/cifar10/cifar10_test_lmdb
I0430 23:33:18.394515  5078 net.cpp:86] Creating Layer cifar
I0430 23:33:18.394520  5078 net.cpp:382] cifar -> data
I0430 23:33:18.394527  5078 net.cpp:382] cifar -> label
I0430 23:33:18.394533  5078 data_transformer.cpp:25] Loading mean file from: examples/cifar10/mean.binaryproto
I0430 23:33:18.394667  5078 data_layer.cpp:45] output data size: 1000,3,32,32
I0430 23:33:18.417259  5078 net.cpp:124] Setting up cifar
I0430 23:33:18.417286  5078 net.cpp:131] Top shape: 1000 3 32 32 (3072000)
I0430 23:33:18.417292  5078 net.cpp:131] Top shape: 1000 (1000)
I0430 23:33:18.417295  5078 net.cpp:139] Memory required for data: 12292000
I0430 23:33:18.417317  5078 layer_factory.hpp:77] Creating layer label_cifar_1_split
I0430 23:33:18.417335  5078 net.cpp:86] Creating Layer label_cifar_1_split
I0430 23:33:18.417338  5078 net.cpp:408] label_cifar_1_split <- label
I0430 23:33:18.417345  5078 net.cpp:382] label_cifar_1_split -> label_cifar_1_split_0
I0430 23:33:18.417353  5078 net.cpp:382] label_cifar_1_split -> label_cifar_1_split_1
I0430 23:33:18.417418  5078 net.cpp:124] Setting up label_cifar_1_split
I0430 23:33:18.417425  5078 net.cpp:131] Top shape: 1000 (1000)
I0430 23:33:18.417428  5078 net.cpp:131] Top shape: 1000 (1000)
I0430 23:33:18.417431  5078 net.cpp:139] Memory required for data: 12300000
I0430 23:33:18.417434  5078 layer_factory.hpp:77] Creating layer conv0
I0430 23:33:18.417457  5078 net.cpp:86] Creating Layer conv0
I0430 23:33:18.417460  5078 net.cpp:408] conv0 <- data
I0430 23:33:18.417465  5078 net.cpp:382] conv0 -> conv0
I0430 23:33:18.419010  5078 net.cpp:124] Setting up conv0
I0430 23:33:18.419023  5078 net.cpp:131] Top shape: 1000 8 34 34 (9248000)
I0430 23:33:18.419028  5078 net.cpp:139] Memory required for data: 49292000
I0430 23:33:18.419035  5078 layer_factory.hpp:77] Creating layer Sigmoid0
I0430 23:33:18.419041  5078 net.cpp:86] Creating Layer Sigmoid0
I0430 23:33:18.419045  5078 net.cpp:408] Sigmoid0 <- conv0
I0430 23:33:18.419049  5078 net.cpp:382] Sigmoid0 -> Sigmoid0
I0430 23:33:18.419227  5078 net.cpp:124] Setting up Sigmoid0
I0430 23:33:18.419236  5078 net.cpp:131] Top shape: 1000 8 34 34 (9248000)
I0430 23:33:18.419255  5078 net.cpp:139] Memory required for data: 86284000
I0430 23:33:18.419258  5078 layer_factory.hpp:77] Creating layer pool0
I0430 23:33:18.419265  5078 net.cpp:86] Creating Layer pool0
I0430 23:33:18.419270  5078 net.cpp:408] pool0 <- Sigmoid0
I0430 23:33:18.419273  5078 net.cpp:382] pool0 -> pool0
I0430 23:33:18.419507  5078 net.cpp:124] Setting up pool0
I0430 23:33:18.419515  5078 net.cpp:131] Top shape: 1000 8 17 17 (2312000)
I0430 23:33:18.419518  5078 net.cpp:139] Memory required for data: 95532000
I0430 23:33:18.419522  5078 layer_factory.hpp:77] Creating layer ip1
I0430 23:33:18.419529  5078 net.cpp:86] Creating Layer ip1
I0430 23:33:18.419533  5078 net.cpp:408] ip1 <- pool0
I0430 23:33:18.419536  5078 net.cpp:382] ip1 -> ip1
I0430 23:33:18.421799  5078 net.cpp:124] Setting up ip1
I0430 23:33:18.421808  5078 net.cpp:131] Top shape: 1000 20 (20000)
I0430 23:33:18.421811  5078 net.cpp:139] Memory required for data: 95612000
I0430 23:33:18.421833  5078 layer_factory.hpp:77] Creating layer relu1
I0430 23:33:18.421838  5078 net.cpp:86] Creating Layer relu1
I0430 23:33:18.421841  5078 net.cpp:408] relu1 <- ip1
I0430 23:33:18.421845  5078 net.cpp:369] relu1 -> ip1 (in-place)
I0430 23:33:18.422034  5078 net.cpp:124] Setting up relu1
I0430 23:33:18.422044  5078 net.cpp:131] Top shape: 1000 20 (20000)
I0430 23:33:18.422046  5078 net.cpp:139] Memory required for data: 95692000
I0430 23:33:18.422049  5078 layer_factory.hpp:77] Creating layer ip2
I0430 23:33:18.422055  5078 net.cpp:86] Creating Layer ip2
I0430 23:33:18.422058  5078 net.cpp:408] ip2 <- ip1
I0430 23:33:18.422063  5078 net.cpp:382] ip2 -> ip2
I0430 23:33:18.422210  5078 net.cpp:124] Setting up ip2
I0430 23:33:18.422217  5078 net.cpp:131] Top shape: 1000 80 (80000)
I0430 23:33:18.422220  5078 net.cpp:139] Memory required for data: 96012000
I0430 23:33:18.422227  5078 layer_factory.hpp:77] Creating layer relu2
I0430 23:33:18.422247  5078 net.cpp:86] Creating Layer relu2
I0430 23:33:18.422250  5078 net.cpp:408] relu2 <- ip2
I0430 23:33:18.422255  5078 net.cpp:369] relu2 -> ip2 (in-place)
I0430 23:33:18.423002  5078 net.cpp:124] Setting up relu2
I0430 23:33:18.423013  5078 net.cpp:131] Top shape: 1000 80 (80000)
I0430 23:33:18.423017  5078 net.cpp:139] Memory required for data: 96332000
I0430 23:33:18.423020  5078 layer_factory.hpp:77] Creating layer ip3
I0430 23:33:18.423028  5078 net.cpp:86] Creating Layer ip3
I0430 23:33:18.423032  5078 net.cpp:408] ip3 <- ip2
I0430 23:33:18.423036  5078 net.cpp:382] ip3 -> ip3
I0430 23:33:18.423487  5078 net.cpp:124] Setting up ip3
I0430 23:33:18.423493  5078 net.cpp:131] Top shape: 1000 160 (160000)
I0430 23:33:18.423496  5078 net.cpp:139] Memory required for data: 96972000
I0430 23:33:18.423517  5078 layer_factory.hpp:77] Creating layer relu3
I0430 23:33:18.423522  5078 net.cpp:86] Creating Layer relu3
I0430 23:33:18.423526  5078 net.cpp:408] relu3 <- ip3
I0430 23:33:18.423529  5078 net.cpp:369] relu3 -> ip3 (in-place)
I0430 23:33:18.423686  5078 net.cpp:124] Setting up relu3
I0430 23:33:18.423693  5078 net.cpp:131] Top shape: 1000 160 (160000)
I0430 23:33:18.423697  5078 net.cpp:139] Memory required for data: 97612000
I0430 23:33:18.423701  5078 layer_factory.hpp:77] Creating layer ip4
I0430 23:33:18.423707  5078 net.cpp:86] Creating Layer ip4
I0430 23:33:18.423709  5078 net.cpp:408] ip4 <- ip3
I0430 23:33:18.423714  5078 net.cpp:382] ip4 -> ip4
I0430 23:33:18.423856  5078 net.cpp:124] Setting up ip4
I0430 23:33:18.423863  5078 net.cpp:131] Top shape: 1000 10 (10000)
I0430 23:33:18.423866  5078 net.cpp:139] Memory required for data: 97652000
I0430 23:33:18.423874  5078 layer_factory.hpp:77] Creating layer ip4_ip4_0_split
I0430 23:33:18.423880  5078 net.cpp:86] Creating Layer ip4_ip4_0_split
I0430 23:33:18.423883  5078 net.cpp:408] ip4_ip4_0_split <- ip4
I0430 23:33:18.423887  5078 net.cpp:382] ip4_ip4_0_split -> ip4_ip4_0_split_0
I0430 23:33:18.423892  5078 net.cpp:382] ip4_ip4_0_split -> ip4_ip4_0_split_1
I0430 23:33:18.423923  5078 net.cpp:124] Setting up ip4_ip4_0_split
I0430 23:33:18.423928  5078 net.cpp:131] Top shape: 1000 10 (10000)
I0430 23:33:18.423933  5078 net.cpp:131] Top shape: 1000 10 (10000)
I0430 23:33:18.423935  5078 net.cpp:139] Memory required for data: 97732000
I0430 23:33:18.423938  5078 layer_factory.hpp:77] Creating layer accuracy
I0430 23:33:18.423957  5078 net.cpp:86] Creating Layer accuracy
I0430 23:33:18.423960  5078 net.cpp:408] accuracy <- ip4_ip4_0_split_0
I0430 23:33:18.423964  5078 net.cpp:408] accuracy <- label_cifar_1_split_0
I0430 23:33:18.423969  5078 net.cpp:382] accuracy -> accuracy
…
