…
I0430 22:14:16.915868  1154 net.cpp:296] The NetState phase (0) differed from the phase (1) specified by a rule in layer cifar
I0430 22:14:16.915884  1154 net.cpp:296] The NetState phase (0) differed from the phase (1) specified by a rule in layer accuracy
I0430 22:14:16.915992  1154 net.cpp:53] Initializing net from parameters: 
name: "CIFAR"
state {
  phase: TRAIN
  level: 0
  stage: ""
}
layer {
  name: "cifar"
  type: "Data"
  top: "data"
  top: "label"
  include {
    phase: TRAIN
  }
  transform_param {
    mean_file: "examples/cifar10/mean.binaryproto"
  }
  data_param {
    source: "examples/cifar10/cifar10_train_lmdb"
    batch_size: 111
    backend: LMDB
  }
}
layer {
  name: "conv0"
  type: "Convolution"
  bottom: "data"
  top: "conv0"
  param {
    lr_mult: 1
  }
  param {
    lr_mult: 2
  }
  convolution_param {
    num_output: 8
    pad: 2
    kernel_size: 3
    stride: 1
    weight_filler {
      type: "gaussian"
      std: 0.01
    }
    bias_filler {
      type: "constant"
    }
  }
}
layer {
  name: "Sigmoid0"
  type: "Sigmoid"
  bottom: "conv0"
  top: "Sigmoid0"
}
layer {
  name: "pool0"
  type: "Pooling"
  bottom: "Sigmoid0"
  top: "pool0"
  pooling_param {
    pool: AVE
    kernel_size: 3
    stride: 2
  }
}
layer {
  name: "ip1"
  type: "InnerProduct"
  bottom: "pool0"
  top: "ip1"
  param {
    lr_mult: 1
  }
  param {
    lr_mult: 2
  }
  inner_product_param {
    num_output: 10
    weight_filler {
      type: "gaussian"
      std: 0.01
    }
    bias_filler {
      type: "constant"
    }
  }
}
layer {
  name: "relu1"
  type: "ReLU"
  bottom: "ip1"
  top: "ip1"
}
layer {
  name: "ip2"
  type: "InnerProduct"
  bottom: "ip1"
  top: "ip2"
  param {
    lr_mult: 1
  }
  param {
    lr_mult: 2
  }
  inner_product_param {
    num_output: 10
    weight_filler {
      type: "gaussian"
      std: 0.01
    }
    bias_filler {
      type: "constant"
    }
  }
}
layer {
  name: "relu2"
  type: "ReLU"
  bottom: "ip2"
  top: "ip2"
}
layer {
  name: "ip3"
  type: "InnerProduct"
  bottom: "ip2"
  top: "ip3"
  param {
    lr_mult: 1
  }
  param {
    lr_mult: 2
  }
  inner_product_param {
    num_output: 40
    weight_filler {
      type: "gaussian"
      std: 0.01
    }
    bias_filler {
      type: "constant"
    }
  }
}
layer {
  name: "relu3"
  type: "ReLU"
  bottom: "ip3"
  top: "ip3"
}
layer {
  name: "ip4"
  type: "InnerProduct"
  bottom: "ip3"
  top: "ip4"
  param {
    lr_mult: 1
  }
  param {
    lr_mult: 2
  }
  inner_product_param {
    num_output: 10
    weight_filler {
      type: "gaussian"
      std: 0.01
    }
    bias_filler {
      type: "constant"
    }
  }
}
layer {
  name: "loss"
  type: "SoftmaxWithLoss"
  bottom: "ip4"
  bottom: "label"
  top: "loss"
}
I0430 22:14:16.916071  1154 layer_factory.hpp:77] Creating layer cifar
I0430 22:14:16.916168  1154 db_lmdb.cpp:35] Opened lmdb examples/cifar10/cifar10_train_lmdb
I0430 22:14:16.916196  1154 net.cpp:86] Creating Layer cifar
I0430 22:14:16.916205  1154 net.cpp:382] cifar -> data
I0430 22:14:16.916227  1154 net.cpp:382] cifar -> label
I0430 22:14:16.916239  1154 data_transformer.cpp:25] Loading mean file from: examples/cifar10/mean.binaryproto
I0430 22:14:16.918397  1154 data_layer.cpp:45] output data size: 111,3,32,32
I0430 22:14:16.926302  1154 net.cpp:124] Setting up cifar
I0430 22:14:16.926321  1154 net.cpp:131] Top shape: 111 3 32 32 (340992)
I0430 22:14:16.926327  1154 net.cpp:131] Top shape: 111 (111)
I0430 22:14:16.926331  1154 net.cpp:139] Memory required for data: 1364412
I0430 22:14:16.926355  1154 layer_factory.hpp:77] Creating layer conv0
I0430 22:14:16.926376  1154 net.cpp:86] Creating Layer conv0
I0430 22:14:16.926383  1154 net.cpp:408] conv0 <- data
I0430 22:14:16.926394  1154 net.cpp:382] conv0 -> conv0
I0430 22:14:17.247957  1154 net.cpp:124] Setting up conv0
I0430 22:14:17.247990  1154 net.cpp:131] Top shape: 111 8 34 34 (1026528)
I0430 22:14:17.247995  1154 net.cpp:139] Memory required for data: 5470524
I0430 22:14:17.248013  1154 layer_factory.hpp:77] Creating layer Sigmoid0
I0430 22:14:17.248028  1154 net.cpp:86] Creating Layer Sigmoid0
I0430 22:14:17.248034  1154 net.cpp:408] Sigmoid0 <- conv0
I0430 22:14:17.248039  1154 net.cpp:382] Sigmoid0 -> Sigmoid0
I0430 22:14:17.248251  1154 net.cpp:124] Setting up Sigmoid0
I0430 22:14:17.248263  1154 net.cpp:131] Top shape: 111 8 34 34 (1026528)
I0430 22:14:17.248267  1154 net.cpp:139] Memory required for data: 9576636
I0430 22:14:17.248272  1154 layer_factory.hpp:77] Creating layer pool0
I0430 22:14:17.248281  1154 net.cpp:86] Creating Layer pool0
I0430 22:14:17.248284  1154 net.cpp:408] pool0 <- Sigmoid0
I0430 22:14:17.248289  1154 net.cpp:382] pool0 -> pool0
I0430 22:14:17.249181  1154 net.cpp:124] Setting up pool0
I0430 22:14:17.249197  1154 net.cpp:131] Top shape: 111 8 17 17 (256632)
I0430 22:14:17.249200  1154 net.cpp:139] Memory required for data: 10603164
I0430 22:14:17.249205  1154 layer_factory.hpp:77] Creating layer ip1
I0430 22:14:17.249217  1154 net.cpp:86] Creating Layer ip1
I0430 22:14:17.249220  1154 net.cpp:408] ip1 <- pool0
I0430 22:14:17.249228  1154 net.cpp:382] ip1 -> ip1
I0430 22:14:17.251102  1154 net.cpp:124] Setting up ip1
I0430 22:14:17.251117  1154 net.cpp:131] Top shape: 111 10 (1110)
I0430 22:14:17.251121  1154 net.cpp:139] Memory required for data: 10607604
I0430 22:14:17.251132  1154 layer_factory.hpp:77] Creating layer relu1
I0430 22:14:17.251138  1154 net.cpp:86] Creating Layer relu1
I0430 22:14:17.251142  1154 net.cpp:408] relu1 <- ip1
I0430 22:14:17.251148  1154 net.cpp:369] relu1 -> ip1 (in-place)
I0430 22:14:17.251334  1154 net.cpp:124] Setting up relu1
I0430 22:14:17.251344  1154 net.cpp:131] Top shape: 111 10 (1110)
I0430 22:14:17.251348  1154 net.cpp:139] Memory required for data: 10612044
I0430 22:14:17.251353  1154 layer_factory.hpp:77] Creating layer ip2
I0430 22:14:17.251360  1154 net.cpp:86] Creating Layer ip2
I0430 22:14:17.251364  1154 net.cpp:408] ip2 <- ip1
I0430 22:14:17.251369  1154 net.cpp:382] ip2 -> ip2
I0430 22:14:17.251487  1154 net.cpp:124] Setting up ip2
I0430 22:14:17.251495  1154 net.cpp:131] Top shape: 111 10 (1110)
I0430 22:14:17.251498  1154 net.cpp:139] Memory required for data: 10616484
I0430 22:14:17.251507  1154 layer_factory.hpp:77] Creating layer relu2
I0430 22:14:17.251513  1154 net.cpp:86] Creating Layer relu2
I0430 22:14:17.251518  1154 net.cpp:408] relu2 <- ip2
I0430 22:14:17.251523  1154 net.cpp:369] relu2 -> ip2 (in-place)
I0430 22:14:17.251711  1154 net.cpp:124] Setting up relu2
I0430 22:14:17.251721  1154 net.cpp:131] Top shape: 111 10 (1110)
I0430 22:14:17.251725  1154 net.cpp:139] Memory required for data: 10620924
I0430 22:14:17.251729  1154 layer_factory.hpp:77] Creating layer ip3
I0430 22:14:17.251739  1154 net.cpp:86] Creating Layer ip3
I0430 22:14:17.251744  1154 net.cpp:408] ip3 <- ip2
I0430 22:14:17.251751  1154 net.cpp:382] ip3 -> ip3
I0430 22:14:17.252882  1154 net.cpp:124] Setting up ip3
I0430 22:14:17.252897  1154 net.cpp:131] Top shape: 111 40 (4440)
I0430 22:14:17.252900  1154 net.cpp:139] Memory required for data: 10638684
I0430 22:14:17.252907  1154 layer_factory.hpp:77] Creating layer relu3
I0430 22:14:17.252914  1154 net.cpp:86] Creating Layer relu3
I0430 22:14:17.252918  1154 net.cpp:408] relu3 <- ip3
I0430 22:14:17.252925  1154 net.cpp:369] relu3 -> ip3 (in-place)
I0430 22:14:17.253123  1154 net.cpp:124] Setting up relu3
I0430 22:14:17.253134  1154 net.cpp:131] Top shape: 111 40 (4440)
I0430 22:14:17.253137  1154 net.cpp:139] Memory required for data: 10656444
I0430 22:14:17.253140  1154 layer_factory.hpp:77] Creating layer ip4
I0430 22:14:17.253168  1154 net.cpp:86] Creating Layer ip4
I0430 22:14:17.253175  1154 net.cpp:408] ip4 <- ip3
I0430 22:14:17.253182  1154 net.cpp:382] ip4 -> ip4
I0430 22:14:17.253315  1154 net.cpp:124] Setting up ip4
I0430 22:14:17.253324  1154 net.cpp:131] Top shape: 111 10 (1110)
I0430 22:14:17.253327  1154 net.cpp:139] Memory required for data: 10660884
I0430 22:14:17.253336  1154 layer_factory.hpp:77] Creating layer loss
I0430 22:14:17.253342  1154 net.cpp:86] Creating Layer loss
I0430 22:14:17.253347  1154 net.cpp:408] loss <- ip4
I0430 22:14:17.253352  1154 net.cpp:408] loss <- label
I0430 22:14:17.253358  1154 net.cpp:382] loss -> loss
I0430 22:14:17.253378  1154 layer_factory.hpp:77] Creating layer loss
…
I0430 22:14:17.254837  1154 solver.cpp:173] Creating test net (#0) specified by net file: ECE595/cifar/train_test/var_everything/cifar_train_test_187.prototxt
I0430 22:14:17.254870  1154 net.cpp:296] The NetState phase (1) differed from the phase (0) specified by a rule in layer cifar
I0430 22:14:17.254990  1154 net.cpp:53] Initializing net from parameters: 
name: "CIFAR"
state {
  phase: TEST
}
layer {
  name: "cifar"
  type: "Data"
  top: "data"
  top: "label"
  include {
    phase: TEST
  }
  transform_param {
    mean_file: "examples/cifar10/mean.binaryproto"
  }
  data_param {
    source: "examples/cifar10/cifar10_test_lmdb"
    batch_size: 1000
    backend: LMDB
  }
}
layer {
  name: "conv0"
  type: "Convolution"
  bottom: "data"
  top: "conv0"
  param {
    lr_mult: 1
  }
  param {
    lr_mult: 2
  }
  convolution_param {
    num_output: 8
    pad: 2
    kernel_size: 3
    stride: 1
    weight_filler {
      type: "gaussian"
      std: 0.01
    }
    bias_filler {
      type: "constant"
    }
  }
}
layer {
  name: "Sigmoid0"
  type: "Sigmoid"
  bottom: "conv0"
  top: "Sigmoid0"
}
layer {
  name: "pool0"
  type: "Pooling"
  bottom: "Sigmoid0"
  top: "pool0"
  pooling_param {
    pool: AVE
    kernel_size: 3
    stride: 2
  }
}
layer {
  name: "ip1"
  type: "InnerProduct"
  bottom: "pool0"
  top: "ip1"
  param {
    lr_mult: 1
  }
  param {
    lr_mult: 2
  }
  inner_product_param {
    num_output: 10
    weight_filler {
      type: "gaussian"
      std: 0.01
    }
    bias_filler {
      type: "constant"
    }
  }
}
layer {
  name: "relu1"
  type: "ReLU"
  bottom: "ip1"
  top: "ip1"
}
layer {
  name: "ip2"
  type: "InnerProduct"
  bottom: "ip1"
  top: "ip2"
  param {
    lr_mult: 1
  }
  param {
    lr_mult: 2
  }
  inner_product_param {
    num_output: 10
    weight_filler {
      type: "gaussian"
      std: 0.01
    }
    bias_filler {
      type: "constant"
    }
  }
}
layer {
  name: "relu2"
  type: "ReLU"
  bottom: "ip2"
  top: "ip2"
}
layer {
  name: "ip3"
  type: "InnerProduct"
  bottom: "ip2"
  top: "ip3"
  param {
    lr_mult: 1
  }
  param {
    lr_mult: 2
  }
  inner_product_param {
    num_output: 40
    weight_filler {
      type: "gaussian"
      std: 0.01
    }
    bias_filler {
      type: "constant"
    }
  }
}
layer {
  name: "relu3"
  type: "ReLU"
  bottom: "ip3"
  top: "ip3"
}
layer {
  name: "ip4"
  type: "InnerProduct"
  bottom: "ip3"
  top: "ip4"
  param {
    lr_mult: 1
  }
  param {
    lr_mult: 2
  }
  inner_product_param {
    num_output: 10
    weight_filler {
      type: "gaussian"
      std: 0.01
    }
    bias_filler {
      type: "constant"
    }
  }
}
layer {
  name: "accuracy"
  type: "Accuracy"
  bottom: "ip4"
  bottom: "label"
  top: "accuracy"
  include {
    phase: TEST
  }
}
layer {
  name: "loss"
  type: "SoftmaxWithLoss"
  bottom: "ip4"
  bottom: "label"
  top: "loss"
}
I0430 22:14:17.255090  1154 layer_factory.hpp:77] Creating layer cifar
I0430 22:14:17.255146  1154 db_lmdb.cpp:35] Opened lmdb examples/cifar10/cifar10_test_lmdb
I0430 22:14:17.255161  1154 net.cpp:86] Creating Layer cifar
I0430 22:14:17.255167  1154 net.cpp:382] cifar -> data
I0430 22:14:17.255175  1154 net.cpp:382] cifar -> label
I0430 22:14:17.255183  1154 data_transformer.cpp:25] Loading mean file from: examples/cifar10/mean.binaryproto
I0430 22:14:17.255362  1154 data_layer.cpp:45] output data size: 1000,3,32,32
I0430 22:14:17.281380  1154 net.cpp:124] Setting up cifar
I0430 22:14:17.281411  1154 net.cpp:131] Top shape: 1000 3 32 32 (3072000)
I0430 22:14:17.281419  1154 net.cpp:131] Top shape: 1000 (1000)
I0430 22:14:17.281422  1154 net.cpp:139] Memory required for data: 12292000
I0430 22:14:17.281428  1154 layer_factory.hpp:77] Creating layer label_cifar_1_split
I0430 22:14:17.281448  1154 net.cpp:86] Creating Layer label_cifar_1_split
I0430 22:14:17.281453  1154 net.cpp:408] label_cifar_1_split <- label
I0430 22:14:17.281461  1154 net.cpp:382] label_cifar_1_split -> label_cifar_1_split_0
I0430 22:14:17.281472  1154 net.cpp:382] label_cifar_1_split -> label_cifar_1_split_1
I0430 22:14:17.281607  1154 net.cpp:124] Setting up label_cifar_1_split
I0430 22:14:17.281618  1154 net.cpp:131] Top shape: 1000 (1000)
I0430 22:14:17.281623  1154 net.cpp:131] Top shape: 1000 (1000)
I0430 22:14:17.281626  1154 net.cpp:139] Memory required for data: 12300000
I0430 22:14:17.281630  1154 layer_factory.hpp:77] Creating layer conv0
I0430 22:14:17.281647  1154 net.cpp:86] Creating Layer conv0
I0430 22:14:17.281651  1154 net.cpp:408] conv0 <- data
I0430 22:14:17.281659  1154 net.cpp:382] conv0 -> conv0
I0430 22:14:17.284492  1154 net.cpp:124] Setting up conv0
I0430 22:14:17.284513  1154 net.cpp:131] Top shape: 1000 8 34 34 (9248000)
I0430 22:14:17.284519  1154 net.cpp:139] Memory required for data: 49292000
I0430 22:14:17.284531  1154 layer_factory.hpp:77] Creating layer Sigmoid0
I0430 22:14:17.284540  1154 net.cpp:86] Creating Layer Sigmoid0
I0430 22:14:17.284544  1154 net.cpp:408] Sigmoid0 <- conv0
I0430 22:14:17.284551  1154 net.cpp:382] Sigmoid0 -> Sigmoid0
I0430 22:14:17.284795  1154 net.cpp:124] Setting up Sigmoid0
I0430 22:14:17.284816  1154 net.cpp:131] Top shape: 1000 8 34 34 (9248000)
I0430 22:14:17.284821  1154 net.cpp:139] Memory required for data: 86284000
I0430 22:14:17.284826  1154 layer_factory.hpp:77] Creating layer pool0
I0430 22:14:17.284837  1154 net.cpp:86] Creating Layer pool0
I0430 22:14:17.284840  1154 net.cpp:408] pool0 <- Sigmoid0
I0430 22:14:17.284847  1154 net.cpp:382] pool0 -> pool0
I0430 22:14:17.285066  1154 net.cpp:124] Setting up pool0
I0430 22:14:17.285078  1154 net.cpp:131] Top shape: 1000 8 17 17 (2312000)
I0430 22:14:17.285081  1154 net.cpp:139] Memory required for data: 95532000
I0430 22:14:17.285085  1154 layer_factory.hpp:77] Creating layer ip1
I0430 22:14:17.285095  1154 net.cpp:86] Creating Layer ip1
I0430 22:14:17.285099  1154 net.cpp:408] ip1 <- pool0
I0430 22:14:17.285109  1154 net.cpp:382] ip1 -> ip1
I0430 22:14:17.286013  1154 net.cpp:124] Setting up ip1
I0430 22:14:17.286022  1154 net.cpp:131] Top shape: 1000 10 (10000)
I0430 22:14:17.286026  1154 net.cpp:139] Memory required for data: 95572000
I0430 22:14:17.286051  1154 layer_factory.hpp:77] Creating layer relu1
I0430 22:14:17.286058  1154 net.cpp:86] Creating Layer relu1
I0430 22:14:17.286062  1154 net.cpp:408] relu1 <- ip1
I0430 22:14:17.286068  1154 net.cpp:369] relu1 -> ip1 (in-place)
I0430 22:14:17.286272  1154 net.cpp:124] Setting up relu1
I0430 22:14:17.286281  1154 net.cpp:131] Top shape: 1000 10 (10000)
I0430 22:14:17.286285  1154 net.cpp:139] Memory required for data: 95612000
I0430 22:14:17.286288  1154 layer_factory.hpp:77] Creating layer ip2
I0430 22:14:17.286298  1154 net.cpp:86] Creating Layer ip2
I0430 22:14:17.286300  1154 net.cpp:408] ip2 <- ip1
I0430 22:14:17.286308  1154 net.cpp:382] ip2 -> ip2
I0430 22:14:17.286438  1154 net.cpp:124] Setting up ip2
I0430 22:14:17.286447  1154 net.cpp:131] Top shape: 1000 10 (10000)
I0430 22:14:17.286450  1154 net.cpp:139] Memory required for data: 95652000
I0430 22:14:17.286460  1154 layer_factory.hpp:77] Creating layer relu2
I0430 22:14:17.286468  1154 net.cpp:86] Creating Layer relu2
I0430 22:14:17.286471  1154 net.cpp:408] relu2 <- ip2
I0430 22:14:17.286478  1154 net.cpp:369] relu2 -> ip2 (in-place)
I0430 22:14:17.287391  1154 net.cpp:124] Setting up relu2
I0430 22:14:17.287408  1154 net.cpp:131] Top shape: 1000 10 (10000)
I0430 22:14:17.287412  1154 net.cpp:139] Memory required for data: 95692000
I0430 22:14:17.287416  1154 layer_factory.hpp:77] Creating layer ip3
I0430 22:14:17.287426  1154 net.cpp:86] Creating Layer ip3
I0430 22:14:17.287431  1154 net.cpp:408] ip3 <- ip2
I0430 22:14:17.287436  1154 net.cpp:382] ip3 -> ip3
I0430 22:14:17.287585  1154 net.cpp:124] Setting up ip3
I0430 22:14:17.287593  1154 net.cpp:131] Top shape: 1000 40 (40000)
I0430 22:14:17.287596  1154 net.cpp:139] Memory required for data: 95852000
I0430 22:14:17.287603  1154 layer_factory.hpp:77] Creating layer relu3
I0430 22:14:17.287611  1154 net.cpp:86] Creating Layer relu3
I0430 22:14:17.287614  1154 net.cpp:408] relu3 <- ip3
I0430 22:14:17.287619  1154 net.cpp:369] relu3 -> ip3 (in-place)
I0430 22:14:17.287806  1154 net.cpp:124] Setting up relu3
I0430 22:14:17.287816  1154 net.cpp:131] Top shape: 1000 40 (40000)
I0430 22:14:17.287818  1154 net.cpp:139] Memory required for data: 96012000
I0430 22:14:17.287822  1154 layer_factory.hpp:77] Creating layer ip4
I0430 22:14:17.287837  1154 net.cpp:86] Creating Layer ip4
I0430 22:14:17.287840  1154 net.cpp:408] ip4 <- ip3
I0430 22:14:17.287847  1154 net.cpp:382] ip4 -> ip4
I0430 22:14:17.287983  1154 net.cpp:124] Setting up ip4
I0430 22:14:17.287992  1154 net.cpp:131] Top shape: 1000 10 (10000)
I0430 22:14:17.287995  1154 net.cpp:139] Memory required for data: 96052000
I0430 22:14:17.288004  1154 layer_factory.hpp:77] Creating layer ip4_ip4_0_split
I0430 22:14:17.288012  1154 net.cpp:86] Creating Layer ip4_ip4_0_split
I0430 22:14:17.288017  1154 net.cpp:408] ip4_ip4_0_split <- ip4
I0430 22:14:17.288022  1154 net.cpp:382] ip4_ip4_0_split -> ip4_ip4_0_split_0
I0430 22:14:17.288028  1154 net.cpp:382] ip4_ip4_0_split -> ip4_ip4_0_split_1
I0430 22:14:17.288066  1154 net.cpp:124] Setting up ip4_ip4_0_split
I0430 22:14:17.288075  1154 net.cpp:131] Top shape: 1000 10 (10000)
I0430 22:14:17.288079  1154 net.cpp:131] Top shape: 1000 10 (10000)
I0430 22:14:17.288082  1154 net.cpp:139] Memory required for data: 96132000
I0430 22:14:17.288086  1154 layer_factory.hpp:77] Creating layer accuracy
I0430 22:14:17.288095  1154 net.cpp:86] Creating Layer accuracy
I0430 22:14:17.288099  1154 net.cpp:408] accuracy <- ip4_ip4_0_split_0
I0430 22:14:17.288103  1154 net.cpp:408] accuracy <- label_cifar_1_split_0
I0430 22:14:17.288108  1154 net.cpp:382] accuracy -> accuracy
…
