…
I0501 08:01:23.224601  8654 net.cpp:296] The NetState phase (0) differed from the phase (1) specified by a rule in layer cifar
I0501 08:01:23.224620  8654 net.cpp:296] The NetState phase (0) differed from the phase (1) specified by a rule in layer accuracy
I0501 08:01:23.224732  8654 net.cpp:53] Initializing net from parameters: 
name: "CIFAR"
state {
  phase: TRAIN
  level: 0
  stage: ""
}
layer {
  name: "cifar"
  type: "Data"
  top: "data"
  top: "label"
  include {
    phase: TRAIN
  }
  transform_param {
    mean_file: "examples/cifar10/mean.binaryproto"
  }
  data_param {
    source: "examples/cifar10/cifar10_train_lmdb"
    batch_size: 111
    backend: LMDB
  }
}
layer {
  name: "conv0"
  type: "Convolution"
  bottom: "data"
  top: "conv0"
  param {
    lr_mult: 1
  }
  param {
    lr_mult: 2
  }
  convolution_param {
    num_output: 16
    pad: 2
    kernel_size: 3
    stride: 1
    weight_filler {
      type: "gaussian"
      std: 0.01
    }
    bias_filler {
      type: "constant"
    }
  }
}
layer {
  name: "Sigmoid0"
  type: "Sigmoid"
  bottom: "conv0"
  top: "Sigmoid0"
}
layer {
  name: "pool0"
  type: "Pooling"
  bottom: "Sigmoid0"
  top: "pool0"
  pooling_param {
    pool: AVE
    kernel_size: 3
    stride: 2
  }
}
layer {
  name: "ip1"
  type: "InnerProduct"
  bottom: "pool0"
  top: "ip1"
  param {
    lr_mult: 1
  }
  param {
    lr_mult: 2
  }
  inner_product_param {
    num_output: 10
    weight_filler {
      type: "gaussian"
      std: 0.01
    }
    bias_filler {
      type: "constant"
    }
  }
}
layer {
  name: "relu1"
  type: "ReLU"
  bottom: "ip1"
  top: "ip1"
}
layer {
  name: "ip2"
  type: "InnerProduct"
  bottom: "ip1"
  top: "ip2"
  param {
    lr_mult: 1
  }
  param {
    lr_mult: 2
  }
  inner_product_param {
    num_output: 10
    weight_filler {
      type: "gaussian"
      std: 0.01
    }
    bias_filler {
      type: "constant"
    }
  }
}
layer {
  name: "relu2"
  type: "ReLU"
  bottom: "ip2"
  top: "ip2"
}
layer {
  name: "ip3"
  type: "InnerProduct"
  bottom: "ip2"
  top: "ip3"
  param {
    lr_mult: 1
  }
  param {
    lr_mult: 2
  }
  inner_product_param {
    num_output: 160
    weight_filler {
      type: "gaussian"
      std: 0.01
    }
    bias_filler {
      type: "constant"
    }
  }
}
layer {
  name: "relu3"
  type: "ReLU"
  bottom: "ip3"
  top: "ip3"
}
layer {
  name: "ip4"
  type: "InnerProduct"
  bottom: "ip3"
  top: "ip4"
  param {
    lr_mult: 1
  }
  param {
    lr_mult: 2
  }
  inner_product_param {
    num_output: 10
    weight_filler {
      type: "gaussian"
      std: 0.01
    }
    bias_filler {
      type: "constant"
    }
  }
}
layer {
  name: "loss"
  type: "SoftmaxWithLoss"
  bottom: "ip4"
  bottom: "label"
  top: "loss"
}
I0501 08:01:23.224823  8654 layer_factory.hpp:77] Creating layer cifar
I0501 08:01:23.224926  8654 db_lmdb.cpp:35] Opened lmdb examples/cifar10/cifar10_train_lmdb
I0501 08:01:23.224953  8654 net.cpp:86] Creating Layer cifar
I0501 08:01:23.224961  8654 net.cpp:382] cifar -> data
I0501 08:01:23.224987  8654 net.cpp:382] cifar -> label
I0501 08:01:23.224998  8654 data_transformer.cpp:25] Loading mean file from: examples/cifar10/mean.binaryproto
I0501 08:01:23.227185  8654 data_layer.cpp:45] output data size: 111,3,32,32
I0501 08:01:23.235141  8654 net.cpp:124] Setting up cifar
I0501 08:01:23.235163  8654 net.cpp:131] Top shape: 111 3 32 32 (340992)
I0501 08:01:23.235169  8654 net.cpp:131] Top shape: 111 (111)
I0501 08:01:23.235172  8654 net.cpp:139] Memory required for data: 1364412
I0501 08:01:23.235196  8654 layer_factory.hpp:77] Creating layer conv0
I0501 08:01:23.235215  8654 net.cpp:86] Creating Layer conv0
I0501 08:01:23.235221  8654 net.cpp:408] conv0 <- data
I0501 08:01:23.235239  8654 net.cpp:382] conv0 -> conv0
I0501 08:01:23.531077  8654 net.cpp:124] Setting up conv0
I0501 08:01:23.531110  8654 net.cpp:131] Top shape: 111 16 34 34 (2053056)
I0501 08:01:23.531114  8654 net.cpp:139] Memory required for data: 9576636
I0501 08:01:23.531133  8654 layer_factory.hpp:77] Creating layer Sigmoid0
I0501 08:01:23.531147  8654 net.cpp:86] Creating Layer Sigmoid0
I0501 08:01:23.531152  8654 net.cpp:408] Sigmoid0 <- conv0
I0501 08:01:23.531158  8654 net.cpp:382] Sigmoid0 -> Sigmoid0
I0501 08:01:23.531379  8654 net.cpp:124] Setting up Sigmoid0
I0501 08:01:23.531393  8654 net.cpp:131] Top shape: 111 16 34 34 (2053056)
I0501 08:01:23.531396  8654 net.cpp:139] Memory required for data: 17788860
I0501 08:01:23.531400  8654 layer_factory.hpp:77] Creating layer pool0
I0501 08:01:23.531410  8654 net.cpp:86] Creating Layer pool0
I0501 08:01:23.531414  8654 net.cpp:408] pool0 <- Sigmoid0
I0501 08:01:23.531419  8654 net.cpp:382] pool0 -> pool0
I0501 08:01:23.532302  8654 net.cpp:124] Setting up pool0
I0501 08:01:23.532320  8654 net.cpp:131] Top shape: 111 16 17 17 (513264)
I0501 08:01:23.532323  8654 net.cpp:139] Memory required for data: 19841916
I0501 08:01:23.532327  8654 layer_factory.hpp:77] Creating layer ip1
I0501 08:01:23.532343  8654 net.cpp:86] Creating Layer ip1
I0501 08:01:23.532349  8654 net.cpp:408] ip1 <- pool0
I0501 08:01:23.532356  8654 net.cpp:382] ip1 -> ip1
I0501 08:01:23.535008  8654 net.cpp:124] Setting up ip1
I0501 08:01:23.535025  8654 net.cpp:131] Top shape: 111 10 (1110)
I0501 08:01:23.535029  8654 net.cpp:139] Memory required for data: 19846356
I0501 08:01:23.535039  8654 layer_factory.hpp:77] Creating layer relu1
I0501 08:01:23.535048  8654 net.cpp:86] Creating Layer relu1
I0501 08:01:23.535051  8654 net.cpp:408] relu1 <- ip1
I0501 08:01:23.535058  8654 net.cpp:369] relu1 -> ip1 (in-place)
I0501 08:01:23.535248  8654 net.cpp:124] Setting up relu1
I0501 08:01:23.535259  8654 net.cpp:131] Top shape: 111 10 (1110)
I0501 08:01:23.535264  8654 net.cpp:139] Memory required for data: 19850796
I0501 08:01:23.535267  8654 layer_factory.hpp:77] Creating layer ip2
I0501 08:01:23.535274  8654 net.cpp:86] Creating Layer ip2
I0501 08:01:23.535279  8654 net.cpp:408] ip2 <- ip1
I0501 08:01:23.535284  8654 net.cpp:382] ip2 -> ip2
I0501 08:01:23.535398  8654 net.cpp:124] Setting up ip2
I0501 08:01:23.535408  8654 net.cpp:131] Top shape: 111 10 (1110)
I0501 08:01:23.535411  8654 net.cpp:139] Memory required for data: 19855236
I0501 08:01:23.535420  8654 layer_factory.hpp:77] Creating layer relu2
I0501 08:01:23.535426  8654 net.cpp:86] Creating Layer relu2
I0501 08:01:23.535430  8654 net.cpp:408] relu2 <- ip2
I0501 08:01:23.535435  8654 net.cpp:369] relu2 -> ip2 (in-place)
I0501 08:01:23.535624  8654 net.cpp:124] Setting up relu2
I0501 08:01:23.535634  8654 net.cpp:131] Top shape: 111 10 (1110)
I0501 08:01:23.535639  8654 net.cpp:139] Memory required for data: 19859676
I0501 08:01:23.535643  8654 layer_factory.hpp:77] Creating layer ip3
I0501 08:01:23.535651  8654 net.cpp:86] Creating Layer ip3
I0501 08:01:23.535655  8654 net.cpp:408] ip3 <- ip2
I0501 08:01:23.535662  8654 net.cpp:382] ip3 -> ip3
I0501 08:01:23.535827  8654 net.cpp:124] Setting up ip3
I0501 08:01:23.535835  8654 net.cpp:131] Top shape: 111 160 (17760)
I0501 08:01:23.535840  8654 net.cpp:139] Memory required for data: 19930716
I0501 08:01:23.535846  8654 layer_factory.hpp:77] Creating layer relu3
I0501 08:01:23.535852  8654 net.cpp:86] Creating Layer relu3
I0501 08:01:23.535856  8654 net.cpp:408] relu3 <- ip3
I0501 08:01:23.535861  8654 net.cpp:369] relu3 -> ip3 (in-place)
I0501 08:01:23.536036  8654 net.cpp:124] Setting up relu3
I0501 08:01:23.536046  8654 net.cpp:131] Top shape: 111 160 (17760)
I0501 08:01:23.536049  8654 net.cpp:139] Memory required for data: 20001756
I0501 08:01:23.536053  8654 layer_factory.hpp:77] Creating layer ip4
I0501 08:01:23.536077  8654 net.cpp:86] Creating Layer ip4
I0501 08:01:23.536082  8654 net.cpp:408] ip4 <- ip3
I0501 08:01:23.536088  8654 net.cpp:382] ip4 -> ip4
I0501 08:01:23.536257  8654 net.cpp:124] Setting up ip4
I0501 08:01:23.536265  8654 net.cpp:131] Top shape: 111 10 (1110)
I0501 08:01:23.536269  8654 net.cpp:139] Memory required for data: 20006196
I0501 08:01:23.536279  8654 layer_factory.hpp:77] Creating layer loss
I0501 08:01:23.536285  8654 net.cpp:86] Creating Layer loss
I0501 08:01:23.536289  8654 net.cpp:408] loss <- ip4
I0501 08:01:23.536293  8654 net.cpp:408] loss <- label
I0501 08:01:23.536300  8654 net.cpp:382] loss -> loss
I0501 08:01:23.536321  8654 layer_factory.hpp:77] Creating layer loss
…
I0501 08:01:23.537788  8654 solver.cpp:173] Creating test net (#0) specified by net file: ECE595/cifar/train_test/var_everything/cifar_train_test_499.prototxt
I0501 08:01:23.537823  8654 net.cpp:296] The NetState phase (1) differed from the phase (0) specified by a rule in layer cifar
I0501 08:01:23.537935  8654 net.cpp:53] Initializing net from parameters: 
name: "CIFAR"
state {
  phase: TEST
}
layer {
  name: "cifar"
  type: "Data"
  top: "data"
  top: "label"
  include {
    phase: TEST
  }
  transform_param {
    mean_file: "examples/cifar10/mean.binaryproto"
  }
  data_param {
    source: "examples/cifar10/cifar10_test_lmdb"
    batch_size: 1000
    backend: LMDB
  }
}
layer {
  name: "conv0"
  type: "Convolution"
  bottom: "data"
  top: "conv0"
  param {
    lr_mult: 1
  }
  param {
    lr_mult: 2
  }
  convolution_param {
    num_output: 16
    pad: 2
    kernel_size: 3
    stride: 1
    weight_filler {
      type: "gaussian"
      std: 0.01
    }
    bias_filler {
      type: "constant"
    }
  }
}
layer {
  name: "Sigmoid0"
  type: "Sigmoid"
  bottom: "conv0"
  top: "Sigmoid0"
}
layer {
  name: "pool0"
  type: "Pooling"
  bottom: "Sigmoid0"
  top: "pool0"
  pooling_param {
    pool: AVE
    kernel_size: 3
    stride: 2
  }
}
layer {
  name: "ip1"
  type: "InnerProduct"
  bottom: "pool0"
  top: "ip1"
  param {
    lr_mult: 1
  }
  param {
    lr_mult: 2
  }
  inner_product_param {
    num_output: 10
    weight_filler {
      type: "gaussian"
      std: 0.01
    }
    bias_filler {
      type: "constant"
    }
  }
}
layer {
  name: "relu1"
  type: "ReLU"
  bottom: "ip1"
  top: "ip1"
}
layer {
  name: "ip2"
  type: "InnerProduct"
  bottom: "ip1"
  top: "ip2"
  param {
    lr_mult: 1
  }
  param {
    lr_mult: 2
  }
  inner_product_param {
    num_output: 10
    weight_filler {
      type: "gaussian"
      std: 0.01
    }
    bias_filler {
      type: "constant"
    }
  }
}
layer {
  name: "relu2"
  type: "ReLU"
  bottom: "ip2"
  top: "ip2"
}
layer {
  name: "ip3"
  type: "InnerProduct"
  bottom: "ip2"
  top: "ip3"
  param {
    lr_mult: 1
  }
  param {
    lr_mult: 2
  }
  inner_product_param {
    num_output: 160
    weight_filler {
      type: "gaussian"
      std: 0.01
    }
    bias_filler {
      type: "constant"
    }
  }
}
layer {
  name: "relu3"
  type: "ReLU"
  bottom: "ip3"
  top: "ip3"
}
layer {
  name: "ip4"
  type: "InnerProduct"
  bottom: "ip3"
  top: "ip4"
  param {
    lr_mult: 1
  }
  param {
    lr_mult: 2
  }
  inner_product_param {
    num_output: 10
    weight_filler {
      type: "gaussian"
      std: 0.01
    }
    bias_filler {
      type: "constant"
    }
  }
}
layer {
  name: "accuracy"
  type: "Accuracy"
  bottom: "ip4"
  bottom: "label"
  top: "accuracy"
  include {
    phase: TEST
  }
}
layer {
  name: "loss"
  type: "SoftmaxWithLoss"
  bottom: "ip4"
  bottom: "label"
  top: "loss"
}
I0501 08:01:23.538028  8654 layer_factory.hpp:77] Creating layer cifar
I0501 08:01:23.538081  8654 db_lmdb.cpp:35] Opened lmdb examples/cifar10/cifar10_test_lmdb
I0501 08:01:23.538096  8654 net.cpp:86] Creating Layer cifar
I0501 08:01:23.538102  8654 net.cpp:382] cifar -> data
I0501 08:01:23.538111  8654 net.cpp:382] cifar -> label
I0501 08:01:23.538120  8654 data_transformer.cpp:25] Loading mean file from: examples/cifar10/mean.binaryproto
I0501 08:01:23.538292  8654 data_layer.cpp:45] output data size: 1000,3,32,32
I0501 08:01:23.564348  8654 net.cpp:124] Setting up cifar
I0501 08:01:23.564380  8654 net.cpp:131] Top shape: 1000 3 32 32 (3072000)
I0501 08:01:23.564388  8654 net.cpp:131] Top shape: 1000 (1000)
I0501 08:01:23.564390  8654 net.cpp:139] Memory required for data: 12292000
I0501 08:01:23.564398  8654 layer_factory.hpp:77] Creating layer label_cifar_1_split
I0501 08:01:23.564417  8654 net.cpp:86] Creating Layer label_cifar_1_split
I0501 08:01:23.564422  8654 net.cpp:408] label_cifar_1_split <- label
I0501 08:01:23.564429  8654 net.cpp:382] label_cifar_1_split -> label_cifar_1_split_0
I0501 08:01:23.564442  8654 net.cpp:382] label_cifar_1_split -> label_cifar_1_split_1
I0501 08:01:23.564548  8654 net.cpp:124] Setting up label_cifar_1_split
I0501 08:01:23.564558  8654 net.cpp:131] Top shape: 1000 (1000)
I0501 08:01:23.564563  8654 net.cpp:131] Top shape: 1000 (1000)
I0501 08:01:23.564565  8654 net.cpp:139] Memory required for data: 12300000
I0501 08:01:23.564569  8654 layer_factory.hpp:77] Creating layer conv0
I0501 08:01:23.564585  8654 net.cpp:86] Creating Layer conv0
I0501 08:01:23.564589  8654 net.cpp:408] conv0 <- data
I0501 08:01:23.564596  8654 net.cpp:382] conv0 -> conv0
I0501 08:01:23.566418  8654 net.cpp:124] Setting up conv0
I0501 08:01:23.566435  8654 net.cpp:131] Top shape: 1000 16 34 34 (18496000)
I0501 08:01:23.566439  8654 net.cpp:139] Memory required for data: 86284000
I0501 08:01:23.566454  8654 layer_factory.hpp:77] Creating layer Sigmoid0
I0501 08:01:23.566463  8654 net.cpp:86] Creating Layer Sigmoid0
I0501 08:01:23.566468  8654 net.cpp:408] Sigmoid0 <- conv0
I0501 08:01:23.566474  8654 net.cpp:382] Sigmoid0 -> Sigmoid0
I0501 08:01:23.567648  8654 net.cpp:124] Setting up Sigmoid0
I0501 08:01:23.567662  8654 net.cpp:131] Top shape: 1000 16 34 34 (18496000)
I0501 08:01:23.567667  8654 net.cpp:139] Memory required for data: 160268000
I0501 08:01:23.567672  8654 layer_factory.hpp:77] Creating layer pool0
I0501 08:01:23.567683  8654 net.cpp:86] Creating Layer pool0
I0501 08:01:23.567687  8654 net.cpp:408] pool0 <- Sigmoid0
I0501 08:01:23.567693  8654 net.cpp:382] pool0 -> pool0
I0501 08:01:23.567911  8654 net.cpp:124] Setting up pool0
I0501 08:01:23.567925  8654 net.cpp:131] Top shape: 1000 16 17 17 (4624000)
I0501 08:01:23.567929  8654 net.cpp:139] Memory required for data: 178764000
I0501 08:01:23.567934  8654 layer_factory.hpp:77] Creating layer ip1
I0501 08:01:23.567944  8654 net.cpp:86] Creating Layer ip1
I0501 08:01:23.567946  8654 net.cpp:408] ip1 <- pool0
I0501 08:01:23.567957  8654 net.cpp:382] ip1 -> ip1
I0501 08:01:23.569639  8654 net.cpp:124] Setting up ip1
I0501 08:01:23.569650  8654 net.cpp:131] Top shape: 1000 10 (10000)
I0501 08:01:23.569654  8654 net.cpp:139] Memory required for data: 178804000
I0501 08:01:23.569680  8654 layer_factory.hpp:77] Creating layer relu1
I0501 08:01:23.569689  8654 net.cpp:86] Creating Layer relu1
I0501 08:01:23.569694  8654 net.cpp:408] relu1 <- ip1
I0501 08:01:23.569699  8654 net.cpp:369] relu1 -> ip1 (in-place)
I0501 08:01:23.569901  8654 net.cpp:124] Setting up relu1
I0501 08:01:23.569912  8654 net.cpp:131] Top shape: 1000 10 (10000)
I0501 08:01:23.569926  8654 net.cpp:139] Memory required for data: 178844000
I0501 08:01:23.569929  8654 layer_factory.hpp:77] Creating layer ip2
I0501 08:01:23.569938  8654 net.cpp:86] Creating Layer ip2
I0501 08:01:23.569942  8654 net.cpp:408] ip2 <- ip1
I0501 08:01:23.569950  8654 net.cpp:382] ip2 -> ip2
I0501 08:01:23.570086  8654 net.cpp:124] Setting up ip2
I0501 08:01:23.570096  8654 net.cpp:131] Top shape: 1000 10 (10000)
I0501 08:01:23.570099  8654 net.cpp:139] Memory required for data: 178884000
I0501 08:01:23.570108  8654 layer_factory.hpp:77] Creating layer relu2
I0501 08:01:23.570116  8654 net.cpp:86] Creating Layer relu2
I0501 08:01:23.570121  8654 net.cpp:408] relu2 <- ip2
I0501 08:01:23.570127  8654 net.cpp:369] relu2 -> ip2 (in-place)
I0501 08:01:23.571030  8654 net.cpp:124] Setting up relu2
I0501 08:01:23.571046  8654 net.cpp:131] Top shape: 1000 10 (10000)
I0501 08:01:23.571050  8654 net.cpp:139] Memory required for data: 178924000
I0501 08:01:23.571056  8654 layer_factory.hpp:77] Creating layer ip3
I0501 08:01:23.571066  8654 net.cpp:86] Creating Layer ip3
I0501 08:01:23.571070  8654 net.cpp:408] ip3 <- ip2
I0501 08:01:23.571076  8654 net.cpp:382] ip3 -> ip3
I0501 08:01:23.571269  8654 net.cpp:124] Setting up ip3
I0501 08:01:23.571280  8654 net.cpp:131] Top shape: 1000 160 (160000)
I0501 08:01:23.571283  8654 net.cpp:139] Memory required for data: 179564000
I0501 08:01:23.571290  8654 layer_factory.hpp:77] Creating layer relu3
I0501 08:01:23.571297  8654 net.cpp:86] Creating Layer relu3
I0501 08:01:23.571301  8654 net.cpp:408] relu3 <- ip3
I0501 08:01:23.571307  8654 net.cpp:369] relu3 -> ip3 (in-place)
I0501 08:01:23.571506  8654 net.cpp:124] Setting up relu3
I0501 08:01:23.571516  8654 net.cpp:131] Top shape: 1000 160 (160000)
I0501 08:01:23.571522  8654 net.cpp:139] Memory required for data: 180204000
I0501 08:01:23.571528  8654 layer_factory.hpp:77] Creating layer ip4
I0501 08:01:23.571540  8654 net.cpp:86] Creating Layer ip4
I0501 08:01:23.571545  8654 net.cpp:408] ip4 <- ip3
I0501 08:01:23.571550  8654 net.cpp:382] ip4 -> ip4
I0501 08:01:23.571734  8654 net.cpp:124] Setting up ip4
I0501 08:01:23.571743  8654 net.cpp:131] Top shape: 1000 10 (10000)
I0501 08:01:23.571748  8654 net.cpp:139] Memory required for data: 180244000
I0501 08:01:23.571758  8654 layer_factory.hpp:77] Creating layer ip4_ip4_0_split
I0501 08:01:23.571765  8654 net.cpp:86] Creating Layer ip4_ip4_0_split
I0501 08:01:23.571769  8654 net.cpp:408] ip4_ip4_0_split <- ip4
I0501 08:01:23.571774  8654 net.cpp:382] ip4_ip4_0_split -> ip4_ip4_0_split_0
I0501 08:01:23.571780  8654 net.cpp:382] ip4_ip4_0_split -> ip4_ip4_0_split_1
I0501 08:01:23.571823  8654 net.cpp:124] Setting up ip4_ip4_0_split
I0501 08:01:23.571831  8654 net.cpp:131] Top shape: 1000 10 (10000)
I0501 08:01:23.571836  8654 net.cpp:131] Top shape: 1000 10 (10000)
I0501 08:01:23.571840  8654 net.cpp:139] Memory required for data: 180324000
I0501 08:01:23.571843  8654 layer_factory.hpp:77] Creating layer accuracy
I0501 08:01:23.571849  8654 net.cpp:86] Creating Layer accuracy
I0501 08:01:23.571853  8654 net.cpp:408] accuracy <- ip4_ip4_0_split_0
I0501 08:01:23.571858  8654 net.cpp:408] accuracy <- label_cifar_1_split_0
I0501 08:01:23.571864  8654 net.cpp:382] accuracy -> accuracy
…
