…
I0430 18:26:20.659443 23328 net.cpp:296] The NetState phase (0) differed from the phase (1) specified by a rule in layer cifar
I0430 18:26:20.659456 23328 net.cpp:296] The NetState phase (0) differed from the phase (1) specified by a rule in layer accuracy
I0430 18:26:20.659523 23328 net.cpp:53] Initializing net from parameters: 
name: "CIFAR"
state {
  phase: TRAIN
  level: 0
  stage: ""
}
layer {
  name: "cifar"
  type: "Data"
  top: "data"
  top: "label"
  include {
    phase: TRAIN
  }
  transform_param {
    mean_file: "examples/cifar10/mean.binaryproto"
  }
  data_param {
    source: "examples/cifar10/cifar10_train_lmdb"
    batch_size: 111
    backend: LMDB
  }
}
layer {
  name: "ip1"
  type: "InnerProduct"
  bottom: "data"
  top: "ip1"
  param {
    lr_mult: 1
  }
  param {
    lr_mult: 2
  }
  inner_product_param {
    num_output: 20
    weight_filler {
      type: "gaussian"
      std: 0.01
    }
    bias_filler {
      type: "constant"
    }
  }
}
layer {
  name: "relu1"
  type: "ReLU"
  bottom: "ip1"
  top: "ip1"
}
layer {
  name: "ip2"
  type: "InnerProduct"
  bottom: "ip1"
  top: "ip2"
  param {
    lr_mult: 1
  }
  param {
    lr_mult: 2
  }
  inner_product_param {
    num_output: 40
    weight_filler {
      type: "gaussian"
      std: 0.01
    }
    bias_filler {
      type: "constant"
    }
  }
}
layer {
  name: "relu2"
  type: "ReLU"
  bottom: "ip2"
  top: "ip2"
}
layer {
  name: "ip3"
  type: "InnerProduct"
  bottom: "ip2"
  top: "ip3"
  param {
    lr_mult: 1
  }
  param {
    lr_mult: 2
  }
  inner_product_param {
    num_output: 20
    weight_filler {
      type: "gaussian"
      std: 0.01
    }
    bias_filler {
      type: "constant"
    }
  }
}
layer {
  name: "relu3"
  type: "ReLU"
  bottom: "ip3"
  top: "ip3"
}
layer {
  name: "ip4"
  type: "InnerProduct"
  bottom: "ip3"
  top: "ip4"
  param {
    lr_mult: 1
  }
  param {
    lr_mult: 2
  }
  inner_product_param {
    num_output: 10
    weight_filler {
      type: "gaussian"
      std: 0.01
    }
    bias_filler {
      type: "constant"
    }
  }
}
layer {
  name: "loss"
  type: "SoftmaxWithLoss"
  bottom: "ip4"
  bottom: "label"
  top: "loss"
}
I0430 18:26:20.659579 23328 layer_factory.hpp:77] Creating layer cifar
I0430 18:26:20.659677 23328 db_lmdb.cpp:35] Opened lmdb examples/cifar10/cifar10_train_lmdb
I0430 18:26:20.659698 23328 net.cpp:86] Creating Layer cifar
I0430 18:26:20.659705 23328 net.cpp:382] cifar -> data
I0430 18:26:20.659724 23328 net.cpp:382] cifar -> label
I0430 18:26:20.659734 23328 data_transformer.cpp:25] Loading mean file from: examples/cifar10/mean.binaryproto
I0430 18:26:20.661474 23328 data_layer.cpp:45] output data size: 111,3,32,32
I0430 18:26:20.667840 23328 net.cpp:124] Setting up cifar
I0430 18:26:20.667855 23328 net.cpp:131] Top shape: 111 3 32 32 (340992)
I0430 18:26:20.667876 23328 net.cpp:131] Top shape: 111 (111)
I0430 18:26:20.667878 23328 net.cpp:139] Memory required for data: 1364412
I0430 18:26:20.667883 23328 layer_factory.hpp:77] Creating layer ip1
I0430 18:26:20.667891 23328 net.cpp:86] Creating Layer ip1
I0430 18:26:20.667896 23328 net.cpp:408] ip1 <- data
I0430 18:26:20.667906 23328 net.cpp:382] ip1 -> ip1
I0430 18:26:20.670783 23328 net.cpp:124] Setting up ip1
I0430 18:26:20.670796 23328 net.cpp:131] Top shape: 111 20 (2220)
I0430 18:26:20.670800 23328 net.cpp:139] Memory required for data: 1373292
I0430 18:26:20.670812 23328 layer_factory.hpp:77] Creating layer relu1
I0430 18:26:20.670819 23328 net.cpp:86] Creating Layer relu1
I0430 18:26:20.670835 23328 net.cpp:408] relu1 <- ip1
I0430 18:26:20.670847 23328 net.cpp:369] relu1 -> ip1 (in-place)
I0430 18:26:20.898852 23328 net.cpp:124] Setting up relu1
I0430 18:26:20.898880 23328 net.cpp:131] Top shape: 111 20 (2220)
I0430 18:26:20.898882 23328 net.cpp:139] Memory required for data: 1382172
I0430 18:26:20.898888 23328 layer_factory.hpp:77] Creating layer ip2
I0430 18:26:20.898900 23328 net.cpp:86] Creating Layer ip2
I0430 18:26:20.898903 23328 net.cpp:408] ip2 <- ip1
I0430 18:26:20.898913 23328 net.cpp:382] ip2 -> ip2
I0430 18:26:20.899873 23328 net.cpp:124] Setting up ip2
I0430 18:26:20.899884 23328 net.cpp:131] Top shape: 111 40 (4440)
I0430 18:26:20.899888 23328 net.cpp:139] Memory required for data: 1399932
I0430 18:26:20.899897 23328 layer_factory.hpp:77] Creating layer relu2
I0430 18:26:20.899904 23328 net.cpp:86] Creating Layer relu2
I0430 18:26:20.899907 23328 net.cpp:408] relu2 <- ip2
I0430 18:26:20.899911 23328 net.cpp:369] relu2 -> ip2 (in-place)
I0430 18:26:20.900606 23328 net.cpp:124] Setting up relu2
I0430 18:26:20.900619 23328 net.cpp:131] Top shape: 111 40 (4440)
I0430 18:26:20.900637 23328 net.cpp:139] Memory required for data: 1417692
I0430 18:26:20.900640 23328 layer_factory.hpp:77] Creating layer ip3
I0430 18:26:20.900647 23328 net.cpp:86] Creating Layer ip3
I0430 18:26:20.900651 23328 net.cpp:408] ip3 <- ip2
I0430 18:26:20.900656 23328 net.cpp:382] ip3 -> ip3
I0430 18:26:20.900882 23328 net.cpp:124] Setting up ip3
I0430 18:26:20.900909 23328 net.cpp:131] Top shape: 111 20 (2220)
I0430 18:26:20.900918 23328 net.cpp:139] Memory required for data: 1426572
I0430 18:26:20.900943 23328 layer_factory.hpp:77] Creating layer relu3
I0430 18:26:20.900949 23328 net.cpp:86] Creating Layer relu3
I0430 18:26:20.900952 23328 net.cpp:408] relu3 <- ip3
I0430 18:26:20.900957 23328 net.cpp:369] relu3 -> ip3 (in-place)
I0430 18:26:20.901123 23328 net.cpp:124] Setting up relu3
I0430 18:26:20.901132 23328 net.cpp:131] Top shape: 111 20 (2220)
I0430 18:26:20.901135 23328 net.cpp:139] Memory required for data: 1435452
I0430 18:26:20.901139 23328 layer_factory.hpp:77] Creating layer ip4
I0430 18:26:20.901145 23328 net.cpp:86] Creating Layer ip4
I0430 18:26:20.901149 23328 net.cpp:408] ip4 <- ip3
I0430 18:26:20.901154 23328 net.cpp:382] ip4 -> ip4
I0430 18:26:20.901315 23328 net.cpp:124] Setting up ip4
I0430 18:26:20.901324 23328 net.cpp:131] Top shape: 111 10 (1110)
I0430 18:26:20.901326 23328 net.cpp:139] Memory required for data: 1439892
I0430 18:26:20.901331 23328 layer_factory.hpp:77] Creating layer loss
I0430 18:26:20.901337 23328 net.cpp:86] Creating Layer loss
I0430 18:26:20.901340 23328 net.cpp:408] loss <- ip4
I0430 18:26:20.901345 23328 net.cpp:408] loss <- label
I0430 18:26:20.901350 23328 net.cpp:382] loss -> loss
I0430 18:26:20.901366 23328 layer_factory.hpp:77] Creating layer loss
…
I0430 18:26:20.901924 23328 solver.cpp:173] Creating test net (#0) specified by net file: ECE595/cifar/train_test/var_everything/cifar_train_test_66.prototxt
I0430 18:26:20.901959 23328 net.cpp:296] The NetState phase (1) differed from the phase (0) specified by a rule in layer cifar
I0430 18:26:20.902032 23328 net.cpp:53] Initializing net from parameters: 
name: "CIFAR"
state {
  phase: TEST
}
layer {
  name: "cifar"
  type: "Data"
  top: "data"
  top: "label"
  include {
    phase: TEST
  }
  transform_param {
    mean_file: "examples/cifar10/mean.binaryproto"
  }
  data_param {
    source: "examples/cifar10/cifar10_test_lmdb"
    batch_size: 1000
    backend: LMDB
  }
}
layer {
  name: "ip1"
  type: "InnerProduct"
  bottom: "data"
  top: "ip1"
  param {
    lr_mult: 1
  }
  param {
    lr_mult: 2
  }
  inner_product_param {
    num_output: 20
    weight_filler {
      type: "gaussian"
      std: 0.01
    }
    bias_filler {
      type: "constant"
    }
  }
}
layer {
  name: "relu1"
  type: "ReLU"
  bottom: "ip1"
  top: "ip1"
}
layer {
  name: "ip2"
  type: "InnerProduct"
  bottom: "ip1"
  top: "ip2"
  param {
    lr_mult: 1
  }
  param {
    lr_mult: 2
  }
  inner_product_param {
    num_output: 40
    weight_filler {
      type: "gaussian"
      std: 0.01
    }
    bias_filler {
      type: "constant"
    }
  }
}
layer {
  name: "relu2"
  type: "ReLU"
  bottom: "ip2"
  top: "ip2"
}
layer {
  name: "ip3"
  type: "InnerProduct"
  bottom: "ip2"
  top: "ip3"
  param {
    lr_mult: 1
  }
  param {
    lr_mult: 2
  }
  inner_product_param {
    num_output: 20
    weight_filler {
      type: "gaussian"
      std: 0.01
    }
    bias_filler {
      type: "constant"
    }
  }
}
layer {
  name: "relu3"
  type: "ReLU"
  bottom: "ip3"
  top: "ip3"
}
layer {
  name: "ip4"
  type: "InnerProduct"
  bottom: "ip3"
  top: "ip4"
  param {
    lr_mult: 1
  }
  param {
    lr_mult: 2
  }
  inner_product_param {
    num_output: 10
    weight_filler {
      type: "gaussian"
      std: 0.01
    }
    bias_filler {
      type: "constant"
    }
  }
}
layer {
  name: "accuracy"
  type: "Accuracy"
  bottom: "ip4"
  bottom: "label"
  top: "accuracy"
  include {
    phase: TEST
  }
}
layer {
  name: "loss"
  type: "SoftmaxWithLoss"
  bottom: "ip4"
  bottom: "label"
  top: "loss"
}
I0430 18:26:20.902091 23328 layer_factory.hpp:77] Creating layer cifar
I0430 18:26:20.902134 23328 db_lmdb.cpp:35] Opened lmdb examples/cifar10/cifar10_test_lmdb
I0430 18:26:20.902145 23328 net.cpp:86] Creating Layer cifar
I0430 18:26:20.902151 23328 net.cpp:382] cifar -> data
I0430 18:26:20.902158 23328 net.cpp:382] cifar -> label
I0430 18:26:20.902164 23328 data_transformer.cpp:25] Loading mean file from: examples/cifar10/mean.binaryproto
I0430 18:26:20.902307 23328 data_layer.cpp:45] output data size: 1000,3,32,32
I0430 18:26:20.923357 23328 net.cpp:124] Setting up cifar
I0430 18:26:20.923398 23328 net.cpp:131] Top shape: 1000 3 32 32 (3072000)
I0430 18:26:20.923419 23328 net.cpp:131] Top shape: 1000 (1000)
I0430 18:26:20.923421 23328 net.cpp:139] Memory required for data: 12292000
I0430 18:26:20.923442 23328 layer_factory.hpp:77] Creating layer label_cifar_1_split
I0430 18:26:20.923461 23328 net.cpp:86] Creating Layer label_cifar_1_split
I0430 18:26:20.923465 23328 net.cpp:408] label_cifar_1_split <- label
I0430 18:26:20.923473 23328 net.cpp:382] label_cifar_1_split -> label_cifar_1_split_0
I0430 18:26:20.923497 23328 net.cpp:382] label_cifar_1_split -> label_cifar_1_split_1
I0430 18:26:20.923580 23328 net.cpp:124] Setting up label_cifar_1_split
I0430 18:26:20.923590 23328 net.cpp:131] Top shape: 1000 (1000)
I0430 18:26:20.923594 23328 net.cpp:131] Top shape: 1000 (1000)
I0430 18:26:20.923596 23328 net.cpp:139] Memory required for data: 12300000
I0430 18:26:20.923600 23328 layer_factory.hpp:77] Creating layer ip1
I0430 18:26:20.923609 23328 net.cpp:86] Creating Layer ip1
I0430 18:26:20.923612 23328 net.cpp:408] ip1 <- data
I0430 18:26:20.923619 23328 net.cpp:382] ip1 -> ip1
I0430 18:26:20.926317 23328 net.cpp:124] Setting up ip1
I0430 18:26:20.926328 23328 net.cpp:131] Top shape: 1000 20 (20000)
I0430 18:26:20.926347 23328 net.cpp:139] Memory required for data: 12380000
I0430 18:26:20.926370 23328 layer_factory.hpp:77] Creating layer relu1
I0430 18:26:20.926379 23328 net.cpp:86] Creating Layer relu1
I0430 18:26:20.926383 23328 net.cpp:408] relu1 <- ip1
I0430 18:26:20.926403 23328 net.cpp:369] relu1 -> ip1 (in-place)
I0430 18:26:20.927196 23328 net.cpp:124] Setting up relu1
I0430 18:26:20.927207 23328 net.cpp:131] Top shape: 1000 20 (20000)
I0430 18:26:20.927228 23328 net.cpp:139] Memory required for data: 12460000
I0430 18:26:20.927239 23328 layer_factory.hpp:77] Creating layer ip2
I0430 18:26:20.927248 23328 net.cpp:86] Creating Layer ip2
I0430 18:26:20.927251 23328 net.cpp:408] ip2 <- ip1
I0430 18:26:20.927258 23328 net.cpp:382] ip2 -> ip2
I0430 18:26:20.927405 23328 net.cpp:124] Setting up ip2
I0430 18:26:20.927413 23328 net.cpp:131] Top shape: 1000 40 (40000)
I0430 18:26:20.927417 23328 net.cpp:139] Memory required for data: 12620000
I0430 18:26:20.927423 23328 layer_factory.hpp:77] Creating layer relu2
I0430 18:26:20.927428 23328 net.cpp:86] Creating Layer relu2
I0430 18:26:20.927431 23328 net.cpp:408] relu2 <- ip2
I0430 18:26:20.927438 23328 net.cpp:369] relu2 -> ip2 (in-place)
I0430 18:26:20.927595 23328 net.cpp:124] Setting up relu2
I0430 18:26:20.927604 23328 net.cpp:131] Top shape: 1000 40 (40000)
I0430 18:26:20.927608 23328 net.cpp:139] Memory required for data: 12780000
I0430 18:26:20.927610 23328 layer_factory.hpp:77] Creating layer ip3
I0430 18:26:20.927618 23328 net.cpp:86] Creating Layer ip3
I0430 18:26:20.927620 23328 net.cpp:408] ip3 <- ip2
I0430 18:26:20.927624 23328 net.cpp:382] ip3 -> ip3
I0430 18:26:20.927745 23328 net.cpp:124] Setting up ip3
I0430 18:26:20.927752 23328 net.cpp:131] Top shape: 1000 20 (20000)
I0430 18:26:20.927755 23328 net.cpp:139] Memory required for data: 12860000
I0430 18:26:20.927762 23328 layer_factory.hpp:77] Creating layer relu3
I0430 18:26:20.927767 23328 net.cpp:86] Creating Layer relu3
I0430 18:26:20.927772 23328 net.cpp:408] relu3 <- ip3
I0430 18:26:20.927778 23328 net.cpp:369] relu3 -> ip3 (in-place)
I0430 18:26:20.927947 23328 net.cpp:124] Setting up relu3
I0430 18:26:20.927955 23328 net.cpp:131] Top shape: 1000 20 (20000)
I0430 18:26:20.927958 23328 net.cpp:139] Memory required for data: 12940000
I0430 18:26:20.927961 23328 layer_factory.hpp:77] Creating layer ip4
I0430 18:26:20.927970 23328 net.cpp:86] Creating Layer ip4
I0430 18:26:20.927973 23328 net.cpp:408] ip4 <- ip3
I0430 18:26:20.927979 23328 net.cpp:382] ip4 -> ip4
I0430 18:26:20.928088 23328 net.cpp:124] Setting up ip4
I0430 18:26:20.928097 23328 net.cpp:131] Top shape: 1000 10 (10000)
I0430 18:26:20.928099 23328 net.cpp:139] Memory required for data: 12980000
I0430 18:26:20.928104 23328 layer_factory.hpp:77] Creating layer ip4_ip4_0_split
I0430 18:26:20.928110 23328 net.cpp:86] Creating Layer ip4_ip4_0_split
I0430 18:26:20.928113 23328 net.cpp:408] ip4_ip4_0_split <- ip4
I0430 18:26:20.928118 23328 net.cpp:382] ip4_ip4_0_split -> ip4_ip4_0_split_0
I0430 18:26:20.928123 23328 net.cpp:382] ip4_ip4_0_split -> ip4_ip4_0_split_1
I0430 18:26:20.928169 23328 net.cpp:124] Setting up ip4_ip4_0_split
I0430 18:26:20.928176 23328 net.cpp:131] Top shape: 1000 10 (10000)
I0430 18:26:20.928180 23328 net.cpp:131] Top shape: 1000 10 (10000)
I0430 18:26:20.928182 23328 net.cpp:139] Memory required for data: 13060000
I0430 18:26:20.928185 23328 layer_factory.hpp:77] Creating layer accuracy
I0430 18:26:20.928191 23328 net.cpp:86] Creating Layer accuracy
I0430 18:26:20.928194 23328 net.cpp:408] accuracy <- ip4_ip4_0_split_0
I0430 18:26:20.928197 23328 net.cpp:408] accuracy <- label_cifar_1_split_0
I0430 18:26:20.928203 23328 net.cpp:382] accuracy -> accuracy
…
