…
I0501 03:53:15.216043 23029 net.cpp:296] The NetState phase (0) differed from the phase (1) specified by a rule in layer cifar
I0501 03:53:15.216068 23029 net.cpp:296] The NetState phase (0) differed from the phase (1) specified by a rule in layer accuracy
I0501 03:53:15.216181 23029 net.cpp:53] Initializing net from parameters: 
name: "CIFAR"
state {
  phase: TRAIN
  level: 0
  stage: ""
}
layer {
  name: "cifar"
  type: "Data"
  top: "data"
  top: "label"
  include {
    phase: TRAIN
  }
  transform_param {
    mean_file: "examples/cifar10/mean.binaryproto"
  }
  data_param {
    source: "examples/cifar10/cifar10_train_lmdb"
    batch_size: 111
    backend: LMDB
  }
}
layer {
  name: "conv0"
  type: "Convolution"
  bottom: "data"
  top: "conv0"
  param {
    lr_mult: 1
  }
  param {
    lr_mult: 2
  }
  convolution_param {
    num_output: 8
    pad: 2
    kernel_size: 5
    stride: 1
    weight_filler {
      type: "gaussian"
      std: 0.01
    }
    bias_filler {
      type: "constant"
    }
  }
}
layer {
  name: "Sigmoid0"
  type: "Sigmoid"
  bottom: "conv0"
  top: "Sigmoid0"
}
layer {
  name: "pool0"
  type: "Pooling"
  bottom: "Sigmoid0"
  top: "pool0"
  pooling_param {
    pool: AVE
    kernel_size: 3
    stride: 2
  }
}
layer {
  name: "ip1"
  type: "InnerProduct"
  bottom: "pool0"
  top: "ip1"
  param {
    lr_mult: 1
  }
  param {
    lr_mult: 2
  }
  inner_product_param {
    num_output: 20
    weight_filler {
      type: "gaussian"
      std: 0.01
    }
    bias_filler {
      type: "constant"
    }
  }
}
layer {
  name: "relu1"
  type: "ReLU"
  bottom: "ip1"
  top: "ip1"
}
layer {
  name: "ip2"
  type: "InnerProduct"
  bottom: "ip1"
  top: "ip2"
  param {
    lr_mult: 1
  }
  param {
    lr_mult: 2
  }
  inner_product_param {
    num_output: 10
    weight_filler {
      type: "gaussian"
      std: 0.01
    }
    bias_filler {
      type: "constant"
    }
  }
}
layer {
  name: "relu2"
  type: "ReLU"
  bottom: "ip2"
  top: "ip2"
}
layer {
  name: "ip3"
  type: "InnerProduct"
  bottom: "ip2"
  top: "ip3"
  param {
    lr_mult: 1
  }
  param {
    lr_mult: 2
  }
  inner_product_param {
    num_output: 80
    weight_filler {
      type: "gaussian"
      std: 0.01
    }
    bias_filler {
      type: "constant"
    }
  }
}
layer {
  name: "relu3"
  type: "ReLU"
  bottom: "ip3"
  top: "ip3"
}
layer {
  name: "ip4"
  type: "InnerProduct"
  bottom: "ip3"
  top: "ip4"
  param {
    lr_mult: 1
  }
  param {
    lr_mult: 2
  }
  inner_product_param {
    num_output: 10
    weight_filler {
      type: "gaussian"
      std: 0.01
    }
    bias_filler {
      type: "constant"
    }
  }
}
layer {
  name: "loss"
  type: "SoftmaxWithLoss"
  bottom: "ip4"
  bottom: "label"
  top: "loss"
}
I0501 03:53:15.216287 23029 layer_factory.hpp:77] Creating layer cifar
I0501 03:53:15.216423 23029 db_lmdb.cpp:35] Opened lmdb examples/cifar10/cifar10_train_lmdb
I0501 03:53:15.216459 23029 net.cpp:86] Creating Layer cifar
I0501 03:53:15.216472 23029 net.cpp:382] cifar -> data
I0501 03:53:15.216505 23029 net.cpp:382] cifar -> label
I0501 03:53:15.216521 23029 data_transformer.cpp:25] Loading mean file from: examples/cifar10/mean.binaryproto
I0501 03:53:15.218848 23029 data_layer.cpp:45] output data size: 111,3,32,32
I0501 03:53:15.226763 23029 net.cpp:124] Setting up cifar
I0501 03:53:15.226785 23029 net.cpp:131] Top shape: 111 3 32 32 (340992)
I0501 03:53:15.226796 23029 net.cpp:131] Top shape: 111 (111)
I0501 03:53:15.226802 23029 net.cpp:139] Memory required for data: 1364412
I0501 03:53:15.226840 23029 layer_factory.hpp:77] Creating layer conv0
I0501 03:53:15.226868 23029 net.cpp:86] Creating Layer conv0
I0501 03:53:15.226877 23029 net.cpp:408] conv0 <- data
I0501 03:53:15.226898 23029 net.cpp:382] conv0 -> conv0
I0501 03:53:15.549088 23029 net.cpp:124] Setting up conv0
I0501 03:53:15.549118 23029 net.cpp:131] Top shape: 111 8 32 32 (909312)
I0501 03:53:15.549124 23029 net.cpp:139] Memory required for data: 5001660
I0501 03:53:15.549144 23029 layer_factory.hpp:77] Creating layer Sigmoid0
I0501 03:53:15.549157 23029 net.cpp:86] Creating Layer Sigmoid0
I0501 03:53:15.549162 23029 net.cpp:408] Sigmoid0 <- conv0
I0501 03:53:15.549170 23029 net.cpp:382] Sigmoid0 -> Sigmoid0
I0501 03:53:15.549374 23029 net.cpp:124] Setting up Sigmoid0
I0501 03:53:15.549387 23029 net.cpp:131] Top shape: 111 8 32 32 (909312)
I0501 03:53:15.549391 23029 net.cpp:139] Memory required for data: 8638908
I0501 03:53:15.549396 23029 layer_factory.hpp:77] Creating layer pool0
I0501 03:53:15.549404 23029 net.cpp:86] Creating Layer pool0
I0501 03:53:15.549408 23029 net.cpp:408] pool0 <- Sigmoid0
I0501 03:53:15.549413 23029 net.cpp:382] pool0 -> pool0
I0501 03:53:15.550299 23029 net.cpp:124] Setting up pool0
I0501 03:53:15.550315 23029 net.cpp:131] Top shape: 111 8 16 16 (227328)
I0501 03:53:15.550320 23029 net.cpp:139] Memory required for data: 9548220
I0501 03:53:15.550324 23029 layer_factory.hpp:77] Creating layer ip1
I0501 03:53:15.550335 23029 net.cpp:86] Creating Layer ip1
I0501 03:53:15.550339 23029 net.cpp:408] ip1 <- pool0
I0501 03:53:15.550348 23029 net.cpp:382] ip1 -> ip1
I0501 03:53:15.552834 23029 net.cpp:124] Setting up ip1
I0501 03:53:15.552850 23029 net.cpp:131] Top shape: 111 20 (2220)
I0501 03:53:15.552853 23029 net.cpp:139] Memory required for data: 9557100
I0501 03:53:15.552863 23029 layer_factory.hpp:77] Creating layer relu1
I0501 03:53:15.552870 23029 net.cpp:86] Creating Layer relu1
I0501 03:53:15.552875 23029 net.cpp:408] relu1 <- ip1
I0501 03:53:15.552881 23029 net.cpp:369] relu1 -> ip1 (in-place)
I0501 03:53:15.553071 23029 net.cpp:124] Setting up relu1
I0501 03:53:15.553081 23029 net.cpp:131] Top shape: 111 20 (2220)
I0501 03:53:15.553086 23029 net.cpp:139] Memory required for data: 9565980
I0501 03:53:15.553089 23029 layer_factory.hpp:77] Creating layer ip2
I0501 03:53:15.553097 23029 net.cpp:86] Creating Layer ip2
I0501 03:53:15.553100 23029 net.cpp:408] ip2 <- ip1
I0501 03:53:15.553107 23029 net.cpp:382] ip2 -> ip2
I0501 03:53:15.553225 23029 net.cpp:124] Setting up ip2
I0501 03:53:15.553234 23029 net.cpp:131] Top shape: 111 10 (1110)
I0501 03:53:15.553237 23029 net.cpp:139] Memory required for data: 9570420
I0501 03:53:15.553246 23029 layer_factory.hpp:77] Creating layer relu2
I0501 03:53:15.553252 23029 net.cpp:86] Creating Layer relu2
I0501 03:53:15.553256 23029 net.cpp:408] relu2 <- ip2
I0501 03:53:15.553261 23029 net.cpp:369] relu2 -> ip2 (in-place)
I0501 03:53:15.553444 23029 net.cpp:124] Setting up relu2
I0501 03:53:15.553455 23029 net.cpp:131] Top shape: 111 10 (1110)
I0501 03:53:15.553459 23029 net.cpp:139] Memory required for data: 9574860
I0501 03:53:15.553463 23029 layer_factory.hpp:77] Creating layer ip3
I0501 03:53:15.553472 23029 net.cpp:86] Creating Layer ip3
I0501 03:53:15.553477 23029 net.cpp:408] ip3 <- ip2
I0501 03:53:15.553483 23029 net.cpp:382] ip3 -> ip3
I0501 03:53:15.553622 23029 net.cpp:124] Setting up ip3
I0501 03:53:15.553632 23029 net.cpp:131] Top shape: 111 80 (8880)
I0501 03:53:15.553635 23029 net.cpp:139] Memory required for data: 9610380
I0501 03:53:15.553642 23029 layer_factory.hpp:77] Creating layer relu3
I0501 03:53:15.553648 23029 net.cpp:86] Creating Layer relu3
I0501 03:53:15.553653 23029 net.cpp:408] relu3 <- ip3
I0501 03:53:15.553658 23029 net.cpp:369] relu3 -> ip3 (in-place)
I0501 03:53:15.553833 23029 net.cpp:124] Setting up relu3
I0501 03:53:15.553843 23029 net.cpp:131] Top shape: 111 80 (8880)
I0501 03:53:15.553846 23029 net.cpp:139] Memory required for data: 9645900
I0501 03:53:15.553849 23029 layer_factory.hpp:77] Creating layer ip4
I0501 03:53:15.553876 23029 net.cpp:86] Creating Layer ip4
I0501 03:53:15.553880 23029 net.cpp:408] ip4 <- ip3
I0501 03:53:15.553887 23029 net.cpp:382] ip4 -> ip4
I0501 03:53:15.554026 23029 net.cpp:124] Setting up ip4
I0501 03:53:15.554036 23029 net.cpp:131] Top shape: 111 10 (1110)
I0501 03:53:15.554039 23029 net.cpp:139] Memory required for data: 9650340
I0501 03:53:15.554049 23029 layer_factory.hpp:77] Creating layer loss
I0501 03:53:15.554055 23029 net.cpp:86] Creating Layer loss
I0501 03:53:15.554059 23029 net.cpp:408] loss <- ip4
I0501 03:53:15.554064 23029 net.cpp:408] loss <- label
I0501 03:53:15.554070 23029 net.cpp:382] loss -> loss
I0501 03:53:15.554091 23029 layer_factory.hpp:77] Creating layer loss
…
I0501 03:53:15.555522 23029 solver.cpp:173] Creating test net (#0) specified by net file: ECE595/cifar/train_test/var_everything/cifar_train_test_368.prototxt
I0501 03:53:15.555557 23029 net.cpp:296] The NetState phase (1) differed from the phase (0) specified by a rule in layer cifar
I0501 03:53:15.555668 23029 net.cpp:53] Initializing net from parameters: 
name: "CIFAR"
state {
  phase: TEST
}
layer {
  name: "cifar"
  type: "Data"
  top: "data"
  top: "label"
  include {
    phase: TEST
  }
  transform_param {
    mean_file: "examples/cifar10/mean.binaryproto"
  }
  data_param {
    source: "examples/cifar10/cifar10_test_lmdb"
    batch_size: 1000
    backend: LMDB
  }
}
layer {
  name: "conv0"
  type: "Convolution"
  bottom: "data"
  top: "conv0"
  param {
    lr_mult: 1
  }
  param {
    lr_mult: 2
  }
  convolution_param {
    num_output: 8
    pad: 2
    kernel_size: 5
    stride: 1
    weight_filler {
      type: "gaussian"
      std: 0.01
    }
    bias_filler {
      type: "constant"
    }
  }
}
layer {
  name: "Sigmoid0"
  type: "Sigmoid"
  bottom: "conv0"
  top: "Sigmoid0"
}
layer {
  name: "pool0"
  type: "Pooling"
  bottom: "Sigmoid0"
  top: "pool0"
  pooling_param {
    pool: AVE
    kernel_size: 3
    stride: 2
  }
}
layer {
  name: "ip1"
  type: "InnerProduct"
  bottom: "pool0"
  top: "ip1"
  param {
    lr_mult: 1
  }
  param {
    lr_mult: 2
  }
  inner_product_param {
    num_output: 20
    weight_filler {
      type: "gaussian"
      std: 0.01
    }
    bias_filler {
      type: "constant"
    }
  }
}
layer {
  name: "relu1"
  type: "ReLU"
  bottom: "ip1"
  top: "ip1"
}
layer {
  name: "ip2"
  type: "InnerProduct"
  bottom: "ip1"
  top: "ip2"
  param {
    lr_mult: 1
  }
  param {
    lr_mult: 2
  }
  inner_product_param {
    num_output: 10
    weight_filler {
      type: "gaussian"
      std: 0.01
    }
    bias_filler {
      type: "constant"
    }
  }
}
layer {
  name: "relu2"
  type: "ReLU"
  bottom: "ip2"
  top: "ip2"
}
layer {
  name: "ip3"
  type: "InnerProduct"
  bottom: "ip2"
  top: "ip3"
  param {
    lr_mult: 1
  }
  param {
    lr_mult: 2
  }
  inner_product_param {
    num_output: 80
    weight_filler {
      type: "gaussian"
      std: 0.01
    }
    bias_filler {
      type: "constant"
    }
  }
}
layer {
  name: "relu3"
  type: "ReLU"
  bottom: "ip3"
  top: "ip3"
}
layer {
  name: "ip4"
  type: "InnerProduct"
  bottom: "ip3"
  top: "ip4"
  param {
    lr_mult: 1
  }
  param {
    lr_mult: 2
  }
  inner_product_param {
    num_output: 10
    weight_filler {
      type: "gaussian"
      std: 0.01
    }
    bias_filler {
      type: "constant"
    }
  }
}
layer {
  name: "accuracy"
  type: "Accuracy"
  bottom: "ip4"
  bottom: "label"
  top: "accuracy"
  include {
    phase: TEST
  }
}
layer {
  name: "loss"
  type: "SoftmaxWithLoss"
  bottom: "ip4"
  bottom: "label"
  top: "loss"
}
I0501 03:53:15.555764 23029 layer_factory.hpp:77] Creating layer cifar
I0501 03:53:15.555821 23029 db_lmdb.cpp:35] Opened lmdb examples/cifar10/cifar10_test_lmdb
I0501 03:53:15.555837 23029 net.cpp:86] Creating Layer cifar
I0501 03:53:15.555843 23029 net.cpp:382] cifar -> data
I0501 03:53:15.555853 23029 net.cpp:382] cifar -> label
I0501 03:53:15.555861 23029 data_transformer.cpp:25] Loading mean file from: examples/cifar10/mean.binaryproto
I0501 03:53:15.556030 23029 data_layer.cpp:45] output data size: 1000,3,32,32
I0501 03:53:15.581981 23029 net.cpp:124] Setting up cifar
I0501 03:53:15.582013 23029 net.cpp:131] Top shape: 1000 3 32 32 (3072000)
I0501 03:53:15.582020 23029 net.cpp:131] Top shape: 1000 (1000)
I0501 03:53:15.582025 23029 net.cpp:139] Memory required for data: 12292000
I0501 03:53:15.582032 23029 layer_factory.hpp:77] Creating layer label_cifar_1_split
I0501 03:53:15.582054 23029 net.cpp:86] Creating Layer label_cifar_1_split
I0501 03:53:15.582059 23029 net.cpp:408] label_cifar_1_split <- label
I0501 03:53:15.582067 23029 net.cpp:382] label_cifar_1_split -> label_cifar_1_split_0
I0501 03:53:15.582078 23029 net.cpp:382] label_cifar_1_split -> label_cifar_1_split_1
I0501 03:53:15.582201 23029 net.cpp:124] Setting up label_cifar_1_split
I0501 03:53:15.582211 23029 net.cpp:131] Top shape: 1000 (1000)
I0501 03:53:15.582216 23029 net.cpp:131] Top shape: 1000 (1000)
I0501 03:53:15.582218 23029 net.cpp:139] Memory required for data: 12300000
I0501 03:53:15.582222 23029 layer_factory.hpp:77] Creating layer conv0
I0501 03:53:15.582237 23029 net.cpp:86] Creating Layer conv0
I0501 03:53:15.582242 23029 net.cpp:408] conv0 <- data
I0501 03:53:15.582248 23029 net.cpp:382] conv0 -> conv0
I0501 03:53:15.584045 23029 net.cpp:124] Setting up conv0
I0501 03:53:15.584067 23029 net.cpp:131] Top shape: 1000 8 32 32 (8192000)
I0501 03:53:15.584072 23029 net.cpp:139] Memory required for data: 45068000
I0501 03:53:15.584084 23029 layer_factory.hpp:77] Creating layer Sigmoid0
I0501 03:53:15.584094 23029 net.cpp:86] Creating Layer Sigmoid0
I0501 03:53:15.584097 23029 net.cpp:408] Sigmoid0 <- conv0
I0501 03:53:15.584103 23029 net.cpp:382] Sigmoid0 -> Sigmoid0
I0501 03:53:15.585278 23029 net.cpp:124] Setting up Sigmoid0
I0501 03:53:15.585291 23029 net.cpp:131] Top shape: 1000 8 32 32 (8192000)
I0501 03:53:15.585295 23029 net.cpp:139] Memory required for data: 77836000
I0501 03:53:15.585299 23029 layer_factory.hpp:77] Creating layer pool0
I0501 03:53:15.585310 23029 net.cpp:86] Creating Layer pool0
I0501 03:53:15.585315 23029 net.cpp:408] pool0 <- Sigmoid0
I0501 03:53:15.585321 23029 net.cpp:382] pool0 -> pool0
I0501 03:53:15.585536 23029 net.cpp:124] Setting up pool0
I0501 03:53:15.585546 23029 net.cpp:131] Top shape: 1000 8 16 16 (2048000)
I0501 03:53:15.585551 23029 net.cpp:139] Memory required for data: 86028000
I0501 03:53:15.585554 23029 layer_factory.hpp:77] Creating layer ip1
I0501 03:53:15.585564 23029 net.cpp:86] Creating Layer ip1
I0501 03:53:15.585568 23029 net.cpp:408] ip1 <- pool0
I0501 03:53:15.585577 23029 net.cpp:382] ip1 -> ip1
I0501 03:53:15.587052 23029 net.cpp:124] Setting up ip1
I0501 03:53:15.587062 23029 net.cpp:131] Top shape: 1000 20 (20000)
I0501 03:53:15.587066 23029 net.cpp:139] Memory required for data: 86108000
I0501 03:53:15.587095 23029 layer_factory.hpp:77] Creating layer relu1
I0501 03:53:15.587101 23029 net.cpp:86] Creating Layer relu1
I0501 03:53:15.587105 23029 net.cpp:408] relu1 <- ip1
I0501 03:53:15.587112 23029 net.cpp:369] relu1 -> ip1 (in-place)
I0501 03:53:15.587311 23029 net.cpp:124] Setting up relu1
I0501 03:53:15.587322 23029 net.cpp:131] Top shape: 1000 20 (20000)
I0501 03:53:15.587327 23029 net.cpp:139] Memory required for data: 86188000
I0501 03:53:15.587330 23029 layer_factory.hpp:77] Creating layer ip2
I0501 03:53:15.587338 23029 net.cpp:86] Creating Layer ip2
I0501 03:53:15.587343 23029 net.cpp:408] ip2 <- ip1
I0501 03:53:15.587349 23029 net.cpp:382] ip2 -> ip2
I0501 03:53:15.587491 23029 net.cpp:124] Setting up ip2
I0501 03:53:15.587501 23029 net.cpp:131] Top shape: 1000 10 (10000)
I0501 03:53:15.587504 23029 net.cpp:139] Memory required for data: 86228000
I0501 03:53:15.587513 23029 layer_factory.hpp:77] Creating layer relu2
I0501 03:53:15.587522 23029 net.cpp:86] Creating Layer relu2
I0501 03:53:15.587527 23029 net.cpp:408] relu2 <- ip2
I0501 03:53:15.587532 23029 net.cpp:369] relu2 -> ip2 (in-place)
I0501 03:53:15.588441 23029 net.cpp:124] Setting up relu2
I0501 03:53:15.588459 23029 net.cpp:131] Top shape: 1000 10 (10000)
I0501 03:53:15.588462 23029 net.cpp:139] Memory required for data: 86268000
I0501 03:53:15.588466 23029 layer_factory.hpp:77] Creating layer ip3
I0501 03:53:15.588476 23029 net.cpp:86] Creating Layer ip3
I0501 03:53:15.588479 23029 net.cpp:408] ip3 <- ip2
I0501 03:53:15.588487 23029 net.cpp:382] ip3 -> ip3
I0501 03:53:15.588655 23029 net.cpp:124] Setting up ip3
I0501 03:53:15.588665 23029 net.cpp:131] Top shape: 1000 80 (80000)
I0501 03:53:15.588668 23029 net.cpp:139] Memory required for data: 86588000
I0501 03:53:15.588675 23029 layer_factory.hpp:77] Creating layer relu3
I0501 03:53:15.588681 23029 net.cpp:86] Creating Layer relu3
I0501 03:53:15.588685 23029 net.cpp:408] relu3 <- ip3
I0501 03:53:15.588691 23029 net.cpp:369] relu3 -> ip3 (in-place)
I0501 03:53:15.588894 23029 net.cpp:124] Setting up relu3
I0501 03:53:15.588907 23029 net.cpp:131] Top shape: 1000 80 (80000)
I0501 03:53:15.588910 23029 net.cpp:139] Memory required for data: 86908000
I0501 03:53:15.588914 23029 layer_factory.hpp:77] Creating layer ip4
I0501 03:53:15.588923 23029 net.cpp:86] Creating Layer ip4
I0501 03:53:15.588927 23029 net.cpp:408] ip4 <- ip3
I0501 03:53:15.588934 23029 net.cpp:382] ip4 -> ip4
I0501 03:53:15.589090 23029 net.cpp:124] Setting up ip4
I0501 03:53:15.589099 23029 net.cpp:131] Top shape: 1000 10 (10000)
I0501 03:53:15.589103 23029 net.cpp:139] Memory required for data: 86948000
I0501 03:53:15.589113 23029 layer_factory.hpp:77] Creating layer ip4_ip4_0_split
I0501 03:53:15.589119 23029 net.cpp:86] Creating Layer ip4_ip4_0_split
I0501 03:53:15.589123 23029 net.cpp:408] ip4_ip4_0_split <- ip4
I0501 03:53:15.589129 23029 net.cpp:382] ip4_ip4_0_split -> ip4_ip4_0_split_0
I0501 03:53:15.589136 23029 net.cpp:382] ip4_ip4_0_split -> ip4_ip4_0_split_1
I0501 03:53:15.589176 23029 net.cpp:124] Setting up ip4_ip4_0_split
I0501 03:53:15.589184 23029 net.cpp:131] Top shape: 1000 10 (10000)
I0501 03:53:15.589190 23029 net.cpp:131] Top shape: 1000 10 (10000)
I0501 03:53:15.589192 23029 net.cpp:139] Memory required for data: 87028000
I0501 03:53:15.589196 23029 layer_factory.hpp:77] Creating layer accuracy
I0501 03:53:15.589205 23029 net.cpp:86] Creating Layer accuracy
I0501 03:53:15.589208 23029 net.cpp:408] accuracy <- ip4_ip4_0_split_0
I0501 03:53:15.589213 23029 net.cpp:408] accuracy <- label_cifar_1_split_0
I0501 03:53:15.589221 23029 net.cpp:382] accuracy -> accuracy
…
