…
I0501 05:52:11.265528 30670 net.cpp:296] The NetState phase (0) differed from the phase (1) specified by a rule in layer cifar
I0501 05:52:11.265547 30670 net.cpp:296] The NetState phase (0) differed from the phase (1) specified by a rule in layer accuracy
I0501 05:52:11.265650 30670 net.cpp:53] Initializing net from parameters: 
name: "CIFAR"
state {
  phase: TRAIN
  level: 0
  stage: ""
}
layer {
  name: "cifar"
  type: "Data"
  top: "data"
  top: "label"
  include {
    phase: TRAIN
  }
  transform_param {
    mean_file: "examples/cifar10/mean.binaryproto"
  }
  data_param {
    source: "examples/cifar10/cifar10_train_lmdb"
    batch_size: 111
    backend: LMDB
  }
}
layer {
  name: "conv0"
  type: "Convolution"
  bottom: "data"
  top: "conv0"
  param {
    lr_mult: 1
  }
  param {
    lr_mult: 2
  }
  convolution_param {
    num_output: 8
    pad: 2
    kernel_size: 5
    stride: 1
    weight_filler {
      type: "gaussian"
      std: 0.01
    }
    bias_filler {
      type: "constant"
    }
  }
}
layer {
  name: "Sigmoid0"
  type: "Sigmoid"
  bottom: "conv0"
  top: "Sigmoid0"
}
layer {
  name: "pool0"
  type: "Pooling"
  bottom: "Sigmoid0"
  top: "pool0"
  pooling_param {
    pool: AVE
    kernel_size: 3
    stride: 2
  }
}
layer {
  name: "ip1"
  type: "InnerProduct"
  bottom: "pool0"
  top: "ip1"
  param {
    lr_mult: 1
  }
  param {
    lr_mult: 2
  }
  inner_product_param {
    num_output: 80
    weight_filler {
      type: "gaussian"
      std: 0.01
    }
    bias_filler {
      type: "constant"
    }
  }
}
layer {
  name: "relu1"
  type: "ReLU"
  bottom: "ip1"
  top: "ip1"
}
layer {
  name: "ip2"
  type: "InnerProduct"
  bottom: "ip1"
  top: "ip2"
  param {
    lr_mult: 1
  }
  param {
    lr_mult: 2
  }
  inner_product_param {
    num_output: 80
    weight_filler {
      type: "gaussian"
      std: 0.01
    }
    bias_filler {
      type: "constant"
    }
  }
}
layer {
  name: "relu2"
  type: "ReLU"
  bottom: "ip2"
  top: "ip2"
}
layer {
  name: "ip3"
  type: "InnerProduct"
  bottom: "ip2"
  top: "ip3"
  param {
    lr_mult: 1
  }
  param {
    lr_mult: 2
  }
  inner_product_param {
    num_output: 40
    weight_filler {
      type: "gaussian"
      std: 0.01
    }
    bias_filler {
      type: "constant"
    }
  }
}
layer {
  name: "relu3"
  type: "ReLU"
  bottom: "ip3"
  top: "ip3"
}
layer {
  name: "ip4"
  type: "InnerProduct"
  bottom: "ip3"
  top: "ip4"
  param {
    lr_mult: 1
  }
  param {
    lr_mult: 2
  }
  inner_product_param {
    num_output: 10
    weight_filler {
      type: "gaussian"
      std: 0.01
    }
    bias_filler {
      type: "constant"
    }
  }
}
layer {
  name: "loss"
  type: "SoftmaxWithLoss"
  bottom: "ip4"
  bottom: "label"
  top: "loss"
}
I0501 05:52:11.265733 30670 layer_factory.hpp:77] Creating layer cifar
I0501 05:52:11.265827 30670 db_lmdb.cpp:35] Opened lmdb examples/cifar10/cifar10_train_lmdb
I0501 05:52:11.265854 30670 net.cpp:86] Creating Layer cifar
I0501 05:52:11.265866 30670 net.cpp:382] cifar -> data
I0501 05:52:11.265888 30670 net.cpp:382] cifar -> label
I0501 05:52:11.265900 30670 data_transformer.cpp:25] Loading mean file from: examples/cifar10/mean.binaryproto
I0501 05:52:11.267994 30670 data_layer.cpp:45] output data size: 111,3,32,32
I0501 05:52:11.275853 30670 net.cpp:124] Setting up cifar
I0501 05:52:11.275873 30670 net.cpp:131] Top shape: 111 3 32 32 (340992)
I0501 05:52:11.275890 30670 net.cpp:131] Top shape: 111 (111)
I0501 05:52:11.275893 30670 net.cpp:139] Memory required for data: 1364412
I0501 05:52:11.275916 30670 layer_factory.hpp:77] Creating layer conv0
I0501 05:52:11.275935 30670 net.cpp:86] Creating Layer conv0
I0501 05:52:11.275940 30670 net.cpp:408] conv0 <- data
I0501 05:52:11.275954 30670 net.cpp:382] conv0 -> conv0
I0501 05:52:11.557425 30670 net.cpp:124] Setting up conv0
I0501 05:52:11.557453 30670 net.cpp:131] Top shape: 111 8 32 32 (909312)
I0501 05:52:11.557457 30670 net.cpp:139] Memory required for data: 5001660
I0501 05:52:11.557472 30670 layer_factory.hpp:77] Creating layer Sigmoid0
I0501 05:52:11.557484 30670 net.cpp:86] Creating Layer Sigmoid0
I0501 05:52:11.557488 30670 net.cpp:408] Sigmoid0 <- conv0
I0501 05:52:11.557493 30670 net.cpp:382] Sigmoid0 -> Sigmoid0
I0501 05:52:11.557651 30670 net.cpp:124] Setting up Sigmoid0
I0501 05:52:11.557659 30670 net.cpp:131] Top shape: 111 8 32 32 (909312)
I0501 05:52:11.557663 30670 net.cpp:139] Memory required for data: 8638908
I0501 05:52:11.557667 30670 layer_factory.hpp:77] Creating layer pool0
I0501 05:52:11.557672 30670 net.cpp:86] Creating Layer pool0
I0501 05:52:11.557675 30670 net.cpp:408] pool0 <- Sigmoid0
I0501 05:52:11.557679 30670 net.cpp:382] pool0 -> pool0
I0501 05:52:11.558395 30670 net.cpp:124] Setting up pool0
I0501 05:52:11.558408 30670 net.cpp:131] Top shape: 111 8 16 16 (227328)
I0501 05:52:11.558411 30670 net.cpp:139] Memory required for data: 9548220
I0501 05:52:11.558414 30670 layer_factory.hpp:77] Creating layer ip1
I0501 05:52:11.558423 30670 net.cpp:86] Creating Layer ip1
I0501 05:52:11.558426 30670 net.cpp:408] ip1 <- pool0
I0501 05:52:11.558431 30670 net.cpp:382] ip1 -> ip1
I0501 05:52:11.562973 30670 net.cpp:124] Setting up ip1
I0501 05:52:11.562981 30670 net.cpp:131] Top shape: 111 80 (8880)
I0501 05:52:11.562984 30670 net.cpp:139] Memory required for data: 9583740
I0501 05:52:11.562993 30670 layer_factory.hpp:77] Creating layer relu1
I0501 05:52:11.562997 30670 net.cpp:86] Creating Layer relu1
I0501 05:52:11.563000 30670 net.cpp:408] relu1 <- ip1
I0501 05:52:11.563004 30670 net.cpp:369] relu1 -> ip1 (in-place)
I0501 05:52:11.563179 30670 net.cpp:124] Setting up relu1
I0501 05:52:11.563187 30670 net.cpp:131] Top shape: 111 80 (8880)
I0501 05:52:11.563190 30670 net.cpp:139] Memory required for data: 9619260
I0501 05:52:11.563194 30670 layer_factory.hpp:77] Creating layer ip2
I0501 05:52:11.563199 30670 net.cpp:86] Creating Layer ip2
I0501 05:52:11.563202 30670 net.cpp:408] ip2 <- ip1
I0501 05:52:11.563207 30670 net.cpp:382] ip2 -> ip2
I0501 05:52:11.564275 30670 net.cpp:124] Setting up ip2
I0501 05:52:11.564286 30670 net.cpp:131] Top shape: 111 80 (8880)
I0501 05:52:11.564291 30670 net.cpp:139] Memory required for data: 9654780
I0501 05:52:11.564297 30670 layer_factory.hpp:77] Creating layer relu2
I0501 05:52:11.564303 30670 net.cpp:86] Creating Layer relu2
I0501 05:52:11.564306 30670 net.cpp:408] relu2 <- ip2
I0501 05:52:11.564311 30670 net.cpp:369] relu2 -> ip2 (in-place)
I0501 05:52:11.564465 30670 net.cpp:124] Setting up relu2
I0501 05:52:11.564473 30670 net.cpp:131] Top shape: 111 80 (8880)
I0501 05:52:11.564476 30670 net.cpp:139] Memory required for data: 9690300
I0501 05:52:11.564479 30670 layer_factory.hpp:77] Creating layer ip3
I0501 05:52:11.564486 30670 net.cpp:86] Creating Layer ip3
I0501 05:52:11.564489 30670 net.cpp:408] ip3 <- ip2
I0501 05:52:11.564494 30670 net.cpp:382] ip3 -> ip3
I0501 05:52:11.564664 30670 net.cpp:124] Setting up ip3
I0501 05:52:11.564671 30670 net.cpp:131] Top shape: 111 40 (4440)
I0501 05:52:11.564673 30670 net.cpp:139] Memory required for data: 9708060
I0501 05:52:11.564678 30670 layer_factory.hpp:77] Creating layer relu3
I0501 05:52:11.564683 30670 net.cpp:86] Creating Layer relu3
I0501 05:52:11.564687 30670 net.cpp:408] relu3 <- ip3
I0501 05:52:11.564690 30670 net.cpp:369] relu3 -> ip3 (in-place)
I0501 05:52:11.564849 30670 net.cpp:124] Setting up relu3
I0501 05:52:11.564858 30670 net.cpp:131] Top shape: 111 40 (4440)
I0501 05:52:11.564862 30670 net.cpp:139] Memory required for data: 9725820
I0501 05:52:11.564864 30670 layer_factory.hpp:77] Creating layer ip4
I0501 05:52:11.564884 30670 net.cpp:86] Creating Layer ip4
I0501 05:52:11.564888 30670 net.cpp:408] ip4 <- ip3
I0501 05:52:11.564893 30670 net.cpp:382] ip4 -> ip4
I0501 05:52:11.565011 30670 net.cpp:124] Setting up ip4
I0501 05:52:11.565019 30670 net.cpp:131] Top shape: 111 10 (1110)
I0501 05:52:11.565022 30670 net.cpp:139] Memory required for data: 9730260
I0501 05:52:11.565029 30670 layer_factory.hpp:77] Creating layer loss
I0501 05:52:11.565035 30670 net.cpp:86] Creating Layer loss
I0501 05:52:11.565039 30670 net.cpp:408] loss <- ip4
I0501 05:52:11.565042 30670 net.cpp:408] loss <- label
I0501 05:52:11.565048 30670 net.cpp:382] loss -> loss
I0501 05:52:11.565062 30670 layer_factory.hpp:77] Creating layer loss
…
I0501 05:52:11.566275 30670 solver.cpp:173] Creating test net (#0) specified by net file: ECE595/cifar/train_test/var_everything/cifar_train_test_432.prototxt
I0501 05:52:11.566303 30670 net.cpp:296] The NetState phase (1) differed from the phase (0) specified by a rule in layer cifar
I0501 05:52:11.566409 30670 net.cpp:53] Initializing net from parameters: 
name: "CIFAR"
state {
  phase: TEST
}
layer {
  name: "cifar"
  type: "Data"
  top: "data"
  top: "label"
  include {
    phase: TEST
  }
  transform_param {
    mean_file: "examples/cifar10/mean.binaryproto"
  }
  data_param {
    source: "examples/cifar10/cifar10_test_lmdb"
    batch_size: 1000
    backend: LMDB
  }
}
layer {
  name: "conv0"
  type: "Convolution"
  bottom: "data"
  top: "conv0"
  param {
    lr_mult: 1
  }
  param {
    lr_mult: 2
  }
  convolution_param {
    num_output: 8
    pad: 2
    kernel_size: 5
    stride: 1
    weight_filler {
      type: "gaussian"
      std: 0.01
    }
    bias_filler {
      type: "constant"
    }
  }
}
layer {
  name: "Sigmoid0"
  type: "Sigmoid"
  bottom: "conv0"
  top: "Sigmoid0"
}
layer {
  name: "pool0"
  type: "Pooling"
  bottom: "Sigmoid0"
  top: "pool0"
  pooling_param {
    pool: AVE
    kernel_size: 3
    stride: 2
  }
}
layer {
  name: "ip1"
  type: "InnerProduct"
  bottom: "pool0"
  top: "ip1"
  param {
    lr_mult: 1
  }
  param {
    lr_mult: 2
  }
  inner_product_param {
    num_output: 80
    weight_filler {
      type: "gaussian"
      std: 0.01
    }
    bias_filler {
      type: "constant"
    }
  }
}
layer {
  name: "relu1"
  type: "ReLU"
  bottom: "ip1"
  top: "ip1"
}
layer {
  name: "ip2"
  type: "InnerProduct"
  bottom: "ip1"
  top: "ip2"
  param {
    lr_mult: 1
  }
  param {
    lr_mult: 2
  }
  inner_product_param {
    num_output: 80
    weight_filler {
      type: "gaussian"
      std: 0.01
    }
    bias_filler {
      type: "constant"
    }
  }
}
layer {
  name: "relu2"
  type: "ReLU"
  bottom: "ip2"
  top: "ip2"
}
layer {
  name: "ip3"
  type: "InnerProduct"
  bottom: "ip2"
  top: "ip3"
  param {
    lr_mult: 1
  }
  param {
    lr_mult: 2
  }
  inner_product_param {
    num_output: 40
    weight_filler {
      type: "gaussian"
      std: 0.01
    }
    bias_filler {
      type: "constant"
    }
  }
}
layer {
  name: "relu3"
  type: "ReLU"
  bottom: "ip3"
  top: "ip3"
}
layer {
  name: "ip4"
  type: "InnerProduct"
  bottom: "ip3"
  top: "ip4"
  param {
    lr_mult: 1
  }
  param {
    lr_mult: 2
  }
  inner_product_param {
    num_output: 10
    weight_filler {
      type: "gaussian"
      std: 0.01
    }
    bias_filler {
      type: "constant"
    }
  }
}
layer {
  name: "accuracy"
  type: "Accuracy"
  bottom: "ip4"
  bottom: "label"
  top: "accuracy"
  include {
    phase: TEST
  }
}
layer {
  name: "loss"
  type: "SoftmaxWithLoss"
  bottom: "ip4"
  bottom: "label"
  top: "loss"
}
I0501 05:52:11.566483 30670 layer_factory.hpp:77] Creating layer cifar
I0501 05:52:11.566527 30670 db_lmdb.cpp:35] Opened lmdb examples/cifar10/cifar10_test_lmdb
I0501 05:52:11.566540 30670 net.cpp:86] Creating Layer cifar
I0501 05:52:11.566543 30670 net.cpp:382] cifar -> data
I0501 05:52:11.566551 30670 net.cpp:382] cifar -> label
I0501 05:52:11.566557 30670 data_transformer.cpp:25] Loading mean file from: examples/cifar10/mean.binaryproto
I0501 05:52:11.566699 30670 data_layer.cpp:45] output data size: 1000,3,32,32
I0501 05:52:11.588567 30670 net.cpp:124] Setting up cifar
I0501 05:52:11.588593 30670 net.cpp:131] Top shape: 1000 3 32 32 (3072000)
I0501 05:52:11.588598 30670 net.cpp:131] Top shape: 1000 (1000)
I0501 05:52:11.588601 30670 net.cpp:139] Memory required for data: 12292000
I0501 05:52:11.588608 30670 layer_factory.hpp:77] Creating layer label_cifar_1_split
I0501 05:52:11.588618 30670 net.cpp:86] Creating Layer label_cifar_1_split
I0501 05:52:11.588624 30670 net.cpp:408] label_cifar_1_split <- label
I0501 05:52:11.588629 30670 net.cpp:382] label_cifar_1_split -> label_cifar_1_split_0
I0501 05:52:11.588639 30670 net.cpp:382] label_cifar_1_split -> label_cifar_1_split_1
I0501 05:52:11.588759 30670 net.cpp:124] Setting up label_cifar_1_split
I0501 05:52:11.588768 30670 net.cpp:131] Top shape: 1000 (1000)
I0501 05:52:11.588771 30670 net.cpp:131] Top shape: 1000 (1000)
I0501 05:52:11.588774 30670 net.cpp:139] Memory required for data: 12300000
I0501 05:52:11.588778 30670 layer_factory.hpp:77] Creating layer conv0
I0501 05:52:11.588790 30670 net.cpp:86] Creating Layer conv0
I0501 05:52:11.588794 30670 net.cpp:408] conv0 <- data
I0501 05:52:11.588799 30670 net.cpp:382] conv0 -> conv0
I0501 05:52:11.590494 30670 net.cpp:124] Setting up conv0
I0501 05:52:11.590523 30670 net.cpp:131] Top shape: 1000 8 32 32 (8192000)
I0501 05:52:11.590526 30670 net.cpp:139] Memory required for data: 45068000
I0501 05:52:11.590538 30670 layer_factory.hpp:77] Creating layer Sigmoid0
I0501 05:52:11.590544 30670 net.cpp:86] Creating Layer Sigmoid0
I0501 05:52:11.590548 30670 net.cpp:408] Sigmoid0 <- conv0
I0501 05:52:11.590553 30670 net.cpp:382] Sigmoid0 -> Sigmoid0
I0501 05:52:11.591866 30670 net.cpp:124] Setting up Sigmoid0
I0501 05:52:11.591876 30670 net.cpp:131] Top shape: 1000 8 32 32 (8192000)
I0501 05:52:11.591893 30670 net.cpp:139] Memory required for data: 77836000
I0501 05:52:11.591897 30670 layer_factory.hpp:77] Creating layer pool0
I0501 05:52:11.591912 30670 net.cpp:86] Creating Layer pool0
I0501 05:52:11.591914 30670 net.cpp:408] pool0 <- Sigmoid0
I0501 05:52:11.591918 30670 net.cpp:382] pool0 -> pool0
I0501 05:52:11.592111 30670 net.cpp:124] Setting up pool0
I0501 05:52:11.592120 30670 net.cpp:131] Top shape: 1000 8 16 16 (2048000)
I0501 05:52:11.592123 30670 net.cpp:139] Memory required for data: 86028000
I0501 05:52:11.592126 30670 layer_factory.hpp:77] Creating layer ip1
I0501 05:52:11.592134 30670 net.cpp:86] Creating Layer ip1
I0501 05:52:11.592137 30670 net.cpp:408] ip1 <- pool0
I0501 05:52:11.592144 30670 net.cpp:382] ip1 -> ip1
I0501 05:52:11.596601 30670 net.cpp:124] Setting up ip1
I0501 05:52:11.596608 30670 net.cpp:131] Top shape: 1000 80 (80000)
I0501 05:52:11.596626 30670 net.cpp:139] Memory required for data: 86348000
I0501 05:52:11.596648 30670 layer_factory.hpp:77] Creating layer relu1
I0501 05:52:11.596655 30670 net.cpp:86] Creating Layer relu1
I0501 05:52:11.596657 30670 net.cpp:408] relu1 <- ip1
I0501 05:52:11.596663 30670 net.cpp:369] relu1 -> ip1 (in-place)
I0501 05:52:11.596868 30670 net.cpp:124] Setting up relu1
I0501 05:52:11.596892 30670 net.cpp:131] Top shape: 1000 80 (80000)
I0501 05:52:11.596895 30670 net.cpp:139] Memory required for data: 86668000
I0501 05:52:11.596899 30670 layer_factory.hpp:77] Creating layer ip2
I0501 05:52:11.596907 30670 net.cpp:86] Creating Layer ip2
I0501 05:52:11.596910 30670 net.cpp:408] ip2 <- ip1
I0501 05:52:11.596916 30670 net.cpp:382] ip2 -> ip2
I0501 05:52:11.597264 30670 net.cpp:124] Setting up ip2
I0501 05:52:11.597270 30670 net.cpp:131] Top shape: 1000 80 (80000)
I0501 05:52:11.597288 30670 net.cpp:139] Memory required for data: 86988000
I0501 05:52:11.597295 30670 layer_factory.hpp:77] Creating layer relu2
I0501 05:52:11.597301 30670 net.cpp:86] Creating Layer relu2
I0501 05:52:11.597306 30670 net.cpp:408] relu2 <- ip2
I0501 05:52:11.597309 30670 net.cpp:369] relu2 -> ip2 (in-place)
I0501 05:52:11.598090 30670 net.cpp:124] Setting up relu2
I0501 05:52:11.598101 30670 net.cpp:131] Top shape: 1000 80 (80000)
I0501 05:52:11.598120 30670 net.cpp:139] Memory required for data: 87308000
I0501 05:52:11.598124 30670 layer_factory.hpp:77] Creating layer ip3
I0501 05:52:11.598131 30670 net.cpp:86] Creating Layer ip3
I0501 05:52:11.598136 30670 net.cpp:408] ip3 <- ip2
I0501 05:52:11.598142 30670 net.cpp:382] ip3 -> ip3
I0501 05:52:11.598351 30670 net.cpp:124] Setting up ip3
I0501 05:52:11.598357 30670 net.cpp:131] Top shape: 1000 40 (40000)
I0501 05:52:11.598361 30670 net.cpp:139] Memory required for data: 87468000
I0501 05:52:11.598366 30670 layer_factory.hpp:77] Creating layer relu3
I0501 05:52:11.598371 30670 net.cpp:86] Creating Layer relu3
I0501 05:52:11.598374 30670 net.cpp:408] relu3 <- ip3
I0501 05:52:11.598378 30670 net.cpp:369] relu3 -> ip3 (in-place)
I0501 05:52:11.598533 30670 net.cpp:124] Setting up relu3
I0501 05:52:11.598541 30670 net.cpp:131] Top shape: 1000 40 (40000)
I0501 05:52:11.598544 30670 net.cpp:139] Memory required for data: 87628000
I0501 05:52:11.598547 30670 layer_factory.hpp:77] Creating layer ip4
I0501 05:52:11.598554 30670 net.cpp:86] Creating Layer ip4
I0501 05:52:11.598557 30670 net.cpp:408] ip4 <- ip3
I0501 05:52:11.598562 30670 net.cpp:382] ip4 -> ip4
I0501 05:52:11.598678 30670 net.cpp:124] Setting up ip4
I0501 05:52:11.598685 30670 net.cpp:131] Top shape: 1000 10 (10000)
I0501 05:52:11.598687 30670 net.cpp:139] Memory required for data: 87668000
I0501 05:52:11.598695 30670 layer_factory.hpp:77] Creating layer ip4_ip4_0_split
I0501 05:52:11.598701 30670 net.cpp:86] Creating Layer ip4_ip4_0_split
I0501 05:52:11.598704 30670 net.cpp:408] ip4_ip4_0_split <- ip4
I0501 05:52:11.598708 30670 net.cpp:382] ip4_ip4_0_split -> ip4_ip4_0_split_0
I0501 05:52:11.598714 30670 net.cpp:382] ip4_ip4_0_split -> ip4_ip4_0_split_1
I0501 05:52:11.598745 30670 net.cpp:124] Setting up ip4_ip4_0_split
I0501 05:52:11.598754 30670 net.cpp:131] Top shape: 1000 10 (10000)
I0501 05:52:11.598758 30670 net.cpp:131] Top shape: 1000 10 (10000)
I0501 05:52:11.598760 30670 net.cpp:139] Memory required for data: 87748000
I0501 05:52:11.598763 30670 layer_factory.hpp:77] Creating layer accuracy
I0501 05:52:11.598770 30670 net.cpp:86] Creating Layer accuracy
I0501 05:52:11.598773 30670 net.cpp:408] accuracy <- ip4_ip4_0_split_0
I0501 05:52:11.598776 30670 net.cpp:408] accuracy <- label_cifar_1_split_0
I0501 05:52:11.598781 30670 net.cpp:382] accuracy -> accuracy
…
