…
I0501 08:43:33.974318 11760 net.cpp:296] The NetState phase (0) differed from the phase (1) specified by a rule in layer cifar
I0501 08:43:33.974335 11760 net.cpp:296] The NetState phase (0) differed from the phase (1) specified by a rule in layer accuracy
I0501 08:43:33.974433 11760 net.cpp:53] Initializing net from parameters: 
name: "CIFAR"
state {
  phase: TRAIN
  level: 0
  stage: ""
}
layer {
  name: "cifar"
  type: "Data"
  top: "data"
  top: "label"
  include {
    phase: TRAIN
  }
  transform_param {
    mean_file: "examples/cifar10/mean.binaryproto"
  }
  data_param {
    source: "examples/cifar10/cifar10_train_lmdb"
    batch_size: 111
    backend: LMDB
  }
}
layer {
  name: "conv0"
  type: "Convolution"
  bottom: "data"
  top: "conv0"
  param {
    lr_mult: 1
  }
  param {
    lr_mult: 2
  }
  convolution_param {
    num_output: 16
    pad: 2
    kernel_size: 3
    stride: 1
    weight_filler {
      type: "gaussian"
      std: 0.01
    }
    bias_filler {
      type: "constant"
    }
  }
}
layer {
  name: "Sigmoid0"
  type: "Sigmoid"
  bottom: "conv0"
  top: "Sigmoid0"
}
layer {
  name: "pool0"
  type: "Pooling"
  bottom: "Sigmoid0"
  top: "pool0"
  pooling_param {
    pool: AVE
    kernel_size: 3
    stride: 2
  }
}
layer {
  name: "ip1"
  type: "InnerProduct"
  bottom: "pool0"
  top: "ip1"
  param {
    lr_mult: 1
  }
  param {
    lr_mult: 2
  }
  inner_product_param {
    num_output: 10
    weight_filler {
      type: "gaussian"
      std: 0.01
    }
    bias_filler {
      type: "constant"
    }
  }
}
layer {
  name: "relu1"
  type: "ReLU"
  bottom: "ip1"
  top: "ip1"
}
layer {
  name: "ip2"
  type: "InnerProduct"
  bottom: "ip1"
  top: "ip2"
  param {
    lr_mult: 1
  }
  param {
    lr_mult: 2
  }
  inner_product_param {
    num_output: 160
    weight_filler {
      type: "gaussian"
      std: 0.01
    }
    bias_filler {
      type: "constant"
    }
  }
}
layer {
  name: "relu2"
  type: "ReLU"
  bottom: "ip2"
  top: "ip2"
}
layer {
  name: "ip3"
  type: "InnerProduct"
  bottom: "ip2"
  top: "ip3"
  param {
    lr_mult: 1
  }
  param {
    lr_mult: 2
  }
  inner_product_param {
    num_output: 160
    weight_filler {
      type: "gaussian"
      std: 0.01
    }
    bias_filler {
      type: "constant"
    }
  }
}
layer {
  name: "relu3"
  type: "ReLU"
  bottom: "ip3"
  top: "ip3"
}
layer {
  name: "ip4"
  type: "InnerProduct"
  bottom: "ip3"
  top: "ip4"
  param {
    lr_mult: 1
  }
  param {
    lr_mult: 2
  }
  inner_product_param {
    num_output: 10
    weight_filler {
      type: "gaussian"
      std: 0.01
    }
    bias_filler {
      type: "constant"
    }
  }
}
layer {
  name: "loss"
  type: "SoftmaxWithLoss"
  bottom: "ip4"
  bottom: "label"
  top: "loss"
}
I0501 08:43:33.974508 11760 layer_factory.hpp:77] Creating layer cifar
I0501 08:43:33.974606 11760 db_lmdb.cpp:35] Opened lmdb examples/cifar10/cifar10_train_lmdb
I0501 08:43:33.974633 11760 net.cpp:86] Creating Layer cifar
I0501 08:43:33.974640 11760 net.cpp:382] cifar -> data
I0501 08:43:33.974664 11760 net.cpp:382] cifar -> label
I0501 08:43:33.974678 11760 data_transformer.cpp:25] Loading mean file from: examples/cifar10/mean.binaryproto
I0501 08:43:33.976832 11760 data_layer.cpp:45] output data size: 111,3,32,32
I0501 08:43:33.984786 11760 net.cpp:124] Setting up cifar
I0501 08:43:33.984805 11760 net.cpp:131] Top shape: 111 3 32 32 (340992)
I0501 08:43:33.984822 11760 net.cpp:131] Top shape: 111 (111)
I0501 08:43:33.984825 11760 net.cpp:139] Memory required for data: 1364412
I0501 08:43:33.984848 11760 layer_factory.hpp:77] Creating layer conv0
I0501 08:43:33.984864 11760 net.cpp:86] Creating Layer conv0
I0501 08:43:33.984874 11760 net.cpp:408] conv0 <- data
I0501 08:43:33.984885 11760 net.cpp:382] conv0 -> conv0
I0501 08:43:34.271698 11760 net.cpp:124] Setting up conv0
I0501 08:43:34.271724 11760 net.cpp:131] Top shape: 111 16 34 34 (2053056)
I0501 08:43:34.271728 11760 net.cpp:139] Memory required for data: 9576636
I0501 08:43:34.271744 11760 layer_factory.hpp:77] Creating layer Sigmoid0
I0501 08:43:34.271756 11760 net.cpp:86] Creating Layer Sigmoid0
I0501 08:43:34.271762 11760 net.cpp:408] Sigmoid0 <- conv0
I0501 08:43:34.271769 11760 net.cpp:382] Sigmoid0 -> Sigmoid0
I0501 08:43:34.271961 11760 net.cpp:124] Setting up Sigmoid0
I0501 08:43:34.271971 11760 net.cpp:131] Top shape: 111 16 34 34 (2053056)
I0501 08:43:34.271975 11760 net.cpp:139] Memory required for data: 17788860
I0501 08:43:34.271978 11760 layer_factory.hpp:77] Creating layer pool0
I0501 08:43:34.271987 11760 net.cpp:86] Creating Layer pool0
I0501 08:43:34.271991 11760 net.cpp:408] pool0 <- Sigmoid0
I0501 08:43:34.271996 11760 net.cpp:382] pool0 -> pool0
I0501 08:43:34.272733 11760 net.cpp:124] Setting up pool0
I0501 08:43:34.272747 11760 net.cpp:131] Top shape: 111 16 17 17 (513264)
I0501 08:43:34.272750 11760 net.cpp:139] Memory required for data: 19841916
I0501 08:43:34.272753 11760 layer_factory.hpp:77] Creating layer ip1
I0501 08:43:34.272763 11760 net.cpp:86] Creating Layer ip1
I0501 08:43:34.272766 11760 net.cpp:408] ip1 <- pool0
I0501 08:43:34.272773 11760 net.cpp:382] ip1 -> ip1
I0501 08:43:34.274966 11760 net.cpp:124] Setting up ip1
I0501 08:43:34.274977 11760 net.cpp:131] Top shape: 111 10 (1110)
I0501 08:43:34.274981 11760 net.cpp:139] Memory required for data: 19846356
I0501 08:43:34.274988 11760 layer_factory.hpp:77] Creating layer relu1
I0501 08:43:34.274996 11760 net.cpp:86] Creating Layer relu1
I0501 08:43:34.274998 11760 net.cpp:408] relu1 <- ip1
I0501 08:43:34.275004 11760 net.cpp:369] relu1 -> ip1 (in-place)
I0501 08:43:34.275182 11760 net.cpp:124] Setting up relu1
I0501 08:43:34.275190 11760 net.cpp:131] Top shape: 111 10 (1110)
I0501 08:43:34.275193 11760 net.cpp:139] Memory required for data: 19850796
I0501 08:43:34.275197 11760 layer_factory.hpp:77] Creating layer ip2
I0501 08:43:34.275204 11760 net.cpp:86] Creating Layer ip2
I0501 08:43:34.275208 11760 net.cpp:408] ip2 <- ip1
I0501 08:43:34.275213 11760 net.cpp:382] ip2 -> ip2
I0501 08:43:34.275357 11760 net.cpp:124] Setting up ip2
I0501 08:43:34.275364 11760 net.cpp:131] Top shape: 111 160 (17760)
I0501 08:43:34.275367 11760 net.cpp:139] Memory required for data: 19921836
I0501 08:43:34.275374 11760 layer_factory.hpp:77] Creating layer relu2
I0501 08:43:34.275382 11760 net.cpp:86] Creating Layer relu2
I0501 08:43:34.275403 11760 net.cpp:408] relu2 <- ip2
I0501 08:43:34.275408 11760 net.cpp:369] relu2 -> ip2 (in-place)
I0501 08:43:34.275588 11760 net.cpp:124] Setting up relu2
I0501 08:43:34.275595 11760 net.cpp:131] Top shape: 111 160 (17760)
I0501 08:43:34.275599 11760 net.cpp:139] Memory required for data: 19992876
I0501 08:43:34.275601 11760 layer_factory.hpp:77] Creating layer ip3
I0501 08:43:34.275610 11760 net.cpp:86] Creating Layer ip3
I0501 08:43:34.275615 11760 net.cpp:408] ip3 <- ip2
I0501 08:43:34.275621 11760 net.cpp:382] ip3 -> ip3
I0501 08:43:34.276394 11760 net.cpp:124] Setting up ip3
I0501 08:43:34.276401 11760 net.cpp:131] Top shape: 111 160 (17760)
I0501 08:43:34.276404 11760 net.cpp:139] Memory required for data: 20063916
I0501 08:43:34.276409 11760 layer_factory.hpp:77] Creating layer relu3
I0501 08:43:34.276415 11760 net.cpp:86] Creating Layer relu3
I0501 08:43:34.276418 11760 net.cpp:408] relu3 <- ip3
I0501 08:43:34.276422 11760 net.cpp:369] relu3 -> ip3 (in-place)
I0501 08:43:34.276607 11760 net.cpp:124] Setting up relu3
I0501 08:43:34.276615 11760 net.cpp:131] Top shape: 111 160 (17760)
I0501 08:43:34.276618 11760 net.cpp:139] Memory required for data: 20134956
I0501 08:43:34.276638 11760 layer_factory.hpp:77] Creating layer ip4
I0501 08:43:34.276661 11760 net.cpp:86] Creating Layer ip4
I0501 08:43:34.276664 11760 net.cpp:408] ip4 <- ip3
I0501 08:43:34.276670 11760 net.cpp:382] ip4 -> ip4
I0501 08:43:34.276834 11760 net.cpp:124] Setting up ip4
I0501 08:43:34.276842 11760 net.cpp:131] Top shape: 111 10 (1110)
I0501 08:43:34.276845 11760 net.cpp:139] Memory required for data: 20139396
I0501 08:43:34.276854 11760 layer_factory.hpp:77] Creating layer loss
I0501 08:43:34.276859 11760 net.cpp:86] Creating Layer loss
I0501 08:43:34.276863 11760 net.cpp:408] loss <- ip4
I0501 08:43:34.276885 11760 net.cpp:408] loss <- label
I0501 08:43:34.276892 11760 net.cpp:382] loss -> loss
I0501 08:43:34.276906 11760 layer_factory.hpp:77] Creating layer loss
…
I0501 08:43:34.278146 11760 solver.cpp:173] Creating test net (#0) specified by net file: ECE595/cifar/train_test/var_everything/cifar_train_test_519.prototxt
I0501 08:43:34.278172 11760 net.cpp:296] The NetState phase (1) differed from the phase (0) specified by a rule in layer cifar
I0501 08:43:34.278264 11760 net.cpp:53] Initializing net from parameters: 
name: "CIFAR"
state {
  phase: TEST
}
layer {
  name: "cifar"
  type: "Data"
  top: "data"
  top: "label"
  include {
    phase: TEST
  }
  transform_param {
    mean_file: "examples/cifar10/mean.binaryproto"
  }
  data_param {
    source: "examples/cifar10/cifar10_test_lmdb"
    batch_size: 1000
    backend: LMDB
  }
}
layer {
  name: "conv0"
  type: "Convolution"
  bottom: "data"
  top: "conv0"
  param {
    lr_mult: 1
  }
  param {
    lr_mult: 2
  }
  convolution_param {
    num_output: 16
    pad: 2
    kernel_size: 3
    stride: 1
    weight_filler {
      type: "gaussian"
      std: 0.01
    }
    bias_filler {
      type: "constant"
    }
  }
}
layer {
  name: "Sigmoid0"
  type: "Sigmoid"
  bottom: "conv0"
  top: "Sigmoid0"
}
layer {
  name: "pool0"
  type: "Pooling"
  bottom: "Sigmoid0"
  top: "pool0"
  pooling_param {
    pool: AVE
    kernel_size: 3
    stride: 2
  }
}
layer {
  name: "ip1"
  type: "InnerProduct"
  bottom: "pool0"
  top: "ip1"
  param {
    lr_mult: 1
  }
  param {
    lr_mult: 2
  }
  inner_product_param {
    num_output: 10
    weight_filler {
      type: "gaussian"
      std: 0.01
    }
    bias_filler {
      type: "constant"
    }
  }
}
layer {
  name: "relu1"
  type: "ReLU"
  bottom: "ip1"
  top: "ip1"
}
layer {
  name: "ip2"
  type: "InnerProduct"
  bottom: "ip1"
  top: "ip2"
  param {
    lr_mult: 1
  }
  param {
    lr_mult: 2
  }
  inner_product_param {
    num_output: 160
    weight_filler {
      type: "gaussian"
      std: 0.01
    }
    bias_filler {
      type: "constant"
    }
  }
}
layer {
  name: "relu2"
  type: "ReLU"
  bottom: "ip2"
  top: "ip2"
}
layer {
  name: "ip3"
  type: "InnerProduct"
  bottom: "ip2"
  top: "ip3"
  param {
    lr_mult: 1
  }
  param {
    lr_mult: 2
  }
  inner_product_param {
    num_output: 160
    weight_filler {
      type: "gaussian"
      std: 0.01
    }
    bias_filler {
      type: "constant"
    }
  }
}
layer {
  name: "relu3"
  type: "ReLU"
  bottom: "ip3"
  top: "ip3"
}
layer {
  name: "ip4"
  type: "InnerProduct"
  bottom: "ip3"
  top: "ip4"
  param {
    lr_mult: 1
  }
  param {
    lr_mult: 2
  }
  inner_product_param {
    num_output: 10
    weight_filler {
      type: "gaussian"
      std: 0.01
    }
    bias_filler {
      type: "constant"
    }
  }
}
layer {
  name: "accuracy"
  type: "Accuracy"
  bottom: "ip4"
  bottom: "label"
  top: "accuracy"
  include {
    phase: TEST
  }
}
layer {
  name: "loss"
  type: "SoftmaxWithLoss"
  bottom: "ip4"
  bottom: "label"
  top: "loss"
}
I0501 08:43:34.278339 11760 layer_factory.hpp:77] Creating layer cifar
I0501 08:43:34.278384 11760 db_lmdb.cpp:35] Opened lmdb examples/cifar10/cifar10_test_lmdb
I0501 08:43:34.278396 11760 net.cpp:86] Creating Layer cifar
I0501 08:43:34.278400 11760 net.cpp:382] cifar -> data
I0501 08:43:34.278409 11760 net.cpp:382] cifar -> label
I0501 08:43:34.278415 11760 data_transformer.cpp:25] Loading mean file from: examples/cifar10/mean.binaryproto
I0501 08:43:34.278570 11760 data_layer.cpp:45] output data size: 1000,3,32,32
I0501 08:43:34.300467 11760 net.cpp:124] Setting up cifar
I0501 08:43:34.300509 11760 net.cpp:131] Top shape: 1000 3 32 32 (3072000)
I0501 08:43:34.300515 11760 net.cpp:131] Top shape: 1000 (1000)
I0501 08:43:34.300518 11760 net.cpp:139] Memory required for data: 12292000
I0501 08:43:34.300524 11760 layer_factory.hpp:77] Creating layer label_cifar_1_split
I0501 08:43:34.300537 11760 net.cpp:86] Creating Layer label_cifar_1_split
I0501 08:43:34.300541 11760 net.cpp:408] label_cifar_1_split <- label
I0501 08:43:34.300547 11760 net.cpp:382] label_cifar_1_split -> label_cifar_1_split_0
I0501 08:43:34.300572 11760 net.cpp:382] label_cifar_1_split -> label_cifar_1_split_1
I0501 08:43:34.300683 11760 net.cpp:124] Setting up label_cifar_1_split
I0501 08:43:34.300691 11760 net.cpp:131] Top shape: 1000 (1000)
I0501 08:43:34.300695 11760 net.cpp:131] Top shape: 1000 (1000)
I0501 08:43:34.300698 11760 net.cpp:139] Memory required for data: 12300000
I0501 08:43:34.300701 11760 layer_factory.hpp:77] Creating layer conv0
I0501 08:43:34.300714 11760 net.cpp:86] Creating Layer conv0
I0501 08:43:34.300717 11760 net.cpp:408] conv0 <- data
I0501 08:43:34.300722 11760 net.cpp:382] conv0 -> conv0
I0501 08:43:34.302331 11760 net.cpp:124] Setting up conv0
I0501 08:43:34.302361 11760 net.cpp:131] Top shape: 1000 16 34 34 (18496000)
I0501 08:43:34.302366 11760 net.cpp:139] Memory required for data: 86284000
I0501 08:43:34.302376 11760 layer_factory.hpp:77] Creating layer Sigmoid0
I0501 08:43:34.302382 11760 net.cpp:86] Creating Layer Sigmoid0
I0501 08:43:34.302399 11760 net.cpp:408] Sigmoid0 <- conv0
I0501 08:43:34.302404 11760 net.cpp:382] Sigmoid0 -> Sigmoid0
I0501 08:43:34.302616 11760 net.cpp:124] Setting up Sigmoid0
I0501 08:43:34.302626 11760 net.cpp:131] Top shape: 1000 16 34 34 (18496000)
I0501 08:43:34.302630 11760 net.cpp:139] Memory required for data: 160268000
I0501 08:43:34.302634 11760 layer_factory.hpp:77] Creating layer pool0
I0501 08:43:34.302649 11760 net.cpp:86] Creating Layer pool0
I0501 08:43:34.302651 11760 net.cpp:408] pool0 <- Sigmoid0
I0501 08:43:34.302656 11760 net.cpp:382] pool0 -> pool0
I0501 08:43:34.302919 11760 net.cpp:124] Setting up pool0
I0501 08:43:34.302928 11760 net.cpp:131] Top shape: 1000 16 17 17 (4624000)
I0501 08:43:34.302932 11760 net.cpp:139] Memory required for data: 178764000
I0501 08:43:34.302934 11760 layer_factory.hpp:77] Creating layer ip1
I0501 08:43:34.302942 11760 net.cpp:86] Creating Layer ip1
I0501 08:43:34.302945 11760 net.cpp:408] ip1 <- pool0
I0501 08:43:34.302950 11760 net.cpp:382] ip1 -> ip1
I0501 08:43:34.305245 11760 net.cpp:124] Setting up ip1
I0501 08:43:34.305255 11760 net.cpp:131] Top shape: 1000 10 (10000)
I0501 08:43:34.305274 11760 net.cpp:139] Memory required for data: 178804000
I0501 08:43:34.305297 11760 layer_factory.hpp:77] Creating layer relu1
I0501 08:43:34.305304 11760 net.cpp:86] Creating Layer relu1
I0501 08:43:34.305306 11760 net.cpp:408] relu1 <- ip1
I0501 08:43:34.305326 11760 net.cpp:369] relu1 -> ip1 (in-place)
I0501 08:43:34.305491 11760 net.cpp:124] Setting up relu1
I0501 08:43:34.305500 11760 net.cpp:131] Top shape: 1000 10 (10000)
I0501 08:43:34.305503 11760 net.cpp:139] Memory required for data: 178844000
I0501 08:43:34.305506 11760 layer_factory.hpp:77] Creating layer ip2
I0501 08:43:34.305512 11760 net.cpp:86] Creating Layer ip2
I0501 08:43:34.305517 11760 net.cpp:408] ip2 <- ip1
I0501 08:43:34.305522 11760 net.cpp:382] ip2 -> ip2
I0501 08:43:34.305665 11760 net.cpp:124] Setting up ip2
I0501 08:43:34.305672 11760 net.cpp:131] Top shape: 1000 160 (160000)
I0501 08:43:34.305675 11760 net.cpp:139] Memory required for data: 179484000
I0501 08:43:34.305683 11760 layer_factory.hpp:77] Creating layer relu2
I0501 08:43:34.305690 11760 net.cpp:86] Creating Layer relu2
I0501 08:43:34.305692 11760 net.cpp:408] relu2 <- ip2
I0501 08:43:34.305696 11760 net.cpp:369] relu2 -> ip2 (in-place)
I0501 08:43:34.306481 11760 net.cpp:124] Setting up relu2
I0501 08:43:34.306493 11760 net.cpp:131] Top shape: 1000 160 (160000)
I0501 08:43:34.306514 11760 net.cpp:139] Memory required for data: 180124000
I0501 08:43:34.306516 11760 layer_factory.hpp:77] Creating layer ip3
I0501 08:43:34.306524 11760 net.cpp:86] Creating Layer ip3
I0501 08:43:34.306526 11760 net.cpp:408] ip3 <- ip2
I0501 08:43:34.306532 11760 net.cpp:382] ip3 -> ip3
I0501 08:43:34.307380 11760 net.cpp:124] Setting up ip3
I0501 08:43:34.307387 11760 net.cpp:131] Top shape: 1000 160 (160000)
I0501 08:43:34.307405 11760 net.cpp:139] Memory required for data: 180764000
I0501 08:43:34.307411 11760 layer_factory.hpp:77] Creating layer relu3
I0501 08:43:34.307417 11760 net.cpp:86] Creating Layer relu3
I0501 08:43:34.307421 11760 net.cpp:408] relu3 <- ip3
I0501 08:43:34.307426 11760 net.cpp:369] relu3 -> ip3 (in-place)
I0501 08:43:34.307590 11760 net.cpp:124] Setting up relu3
I0501 08:43:34.307600 11760 net.cpp:131] Top shape: 1000 160 (160000)
I0501 08:43:34.307602 11760 net.cpp:139] Memory required for data: 181404000
I0501 08:43:34.307605 11760 layer_factory.hpp:77] Creating layer ip4
I0501 08:43:34.307611 11760 net.cpp:86] Creating Layer ip4
I0501 08:43:34.307615 11760 net.cpp:408] ip4 <- ip3
I0501 08:43:34.307621 11760 net.cpp:382] ip4 -> ip4
I0501 08:43:34.307761 11760 net.cpp:124] Setting up ip4
I0501 08:43:34.307768 11760 net.cpp:131] Top shape: 1000 10 (10000)
I0501 08:43:34.307771 11760 net.cpp:139] Memory required for data: 181444000
I0501 08:43:34.307780 11760 layer_factory.hpp:77] Creating layer ip4_ip4_0_split
I0501 08:43:34.307785 11760 net.cpp:86] Creating Layer ip4_ip4_0_split
I0501 08:43:34.307788 11760 net.cpp:408] ip4_ip4_0_split <- ip4
I0501 08:43:34.307792 11760 net.cpp:382] ip4_ip4_0_split -> ip4_ip4_0_split_0
I0501 08:43:34.307798 11760 net.cpp:382] ip4_ip4_0_split -> ip4_ip4_0_split_1
I0501 08:43:34.307828 11760 net.cpp:124] Setting up ip4_ip4_0_split
I0501 08:43:34.307833 11760 net.cpp:131] Top shape: 1000 10 (10000)
I0501 08:43:34.307837 11760 net.cpp:131] Top shape: 1000 10 (10000)
I0501 08:43:34.307839 11760 net.cpp:139] Memory required for data: 181524000
I0501 08:43:34.307842 11760 layer_factory.hpp:77] Creating layer accuracy
I0501 08:43:34.307848 11760 net.cpp:86] Creating Layer accuracy
I0501 08:43:34.307852 11760 net.cpp:408] accuracy <- ip4_ip4_0_split_0
I0501 08:43:34.307855 11760 net.cpp:408] accuracy <- label_cifar_1_split_0
I0501 08:43:34.307859 11760 net.cpp:382] accuracy -> accuracy
…
