…
I0501 04:41:32.424383 26169 net.cpp:296] The NetState phase (0) differed from the phase (1) specified by a rule in layer cifar
I0501 04:41:32.424401 26169 net.cpp:296] The NetState phase (0) differed from the phase (1) specified by a rule in layer accuracy
I0501 04:41:32.424496 26169 net.cpp:53] Initializing net from parameters: 
name: "CIFAR"
state {
  phase: TRAIN
  level: 0
  stage: ""
}
layer {
  name: "cifar"
  type: "Data"
  top: "data"
  top: "label"
  include {
    phase: TRAIN
  }
  transform_param {
    mean_file: "examples/cifar10/mean.binaryproto"
  }
  data_param {
    source: "examples/cifar10/cifar10_train_lmdb"
    batch_size: 111
    backend: LMDB
  }
}
layer {
  name: "conv0"
  type: "Convolution"
  bottom: "data"
  top: "conv0"
  param {
    lr_mult: 1
  }
  param {
    lr_mult: 2
  }
  convolution_param {
    num_output: 8
    pad: 2
    kernel_size: 5
    stride: 1
    weight_filler {
      type: "gaussian"
      std: 0.01
    }
    bias_filler {
      type: "constant"
    }
  }
}
layer {
  name: "Sigmoid0"
  type: "Sigmoid"
  bottom: "conv0"
  top: "Sigmoid0"
}
layer {
  name: "pool0"
  type: "Pooling"
  bottom: "Sigmoid0"
  top: "pool0"
  pooling_param {
    pool: AVE
    kernel_size: 3
    stride: 2
  }
}
layer {
  name: "ip1"
  type: "InnerProduct"
  bottom: "pool0"
  top: "ip1"
  param {
    lr_mult: 1
  }
  param {
    lr_mult: 2
  }
  inner_product_param {
    num_output: 40
    weight_filler {
      type: "gaussian"
      std: 0.01
    }
    bias_filler {
      type: "constant"
    }
  }
}
layer {
  name: "relu1"
  type: "ReLU"
  bottom: "ip1"
  top: "ip1"
}
layer {
  name: "ip2"
  type: "InnerProduct"
  bottom: "ip1"
  top: "ip2"
  param {
    lr_mult: 1
  }
  param {
    lr_mult: 2
  }
  inner_product_param {
    num_output: 10
    weight_filler {
      type: "gaussian"
      std: 0.01
    }
    bias_filler {
      type: "constant"
    }
  }
}
layer {
  name: "relu2"
  type: "ReLU"
  bottom: "ip2"
  top: "ip2"
}
layer {
  name: "ip3"
  type: "InnerProduct"
  bottom: "ip2"
  top: "ip3"
  param {
    lr_mult: 1
  }
  param {
    lr_mult: 2
  }
  inner_product_param {
    num_output: 160
    weight_filler {
      type: "gaussian"
      std: 0.01
    }
    bias_filler {
      type: "constant"
    }
  }
}
layer {
  name: "relu3"
  type: "ReLU"
  bottom: "ip3"
  top: "ip3"
}
layer {
  name: "ip4"
  type: "InnerProduct"
  bottom: "ip3"
  top: "ip4"
  param {
    lr_mult: 1
  }
  param {
    lr_mult: 2
  }
  inner_product_param {
    num_output: 10
    weight_filler {
      type: "gaussian"
      std: 0.01
    }
    bias_filler {
      type: "constant"
    }
  }
}
layer {
  name: "loss"
  type: "SoftmaxWithLoss"
  bottom: "ip4"
  bottom: "label"
  top: "loss"
}
I0501 04:41:32.424584 26169 layer_factory.hpp:77] Creating layer cifar
I0501 04:41:32.424701 26169 db_lmdb.cpp:35] Opened lmdb examples/cifar10/cifar10_train_lmdb
I0501 04:41:32.424731 26169 net.cpp:86] Creating Layer cifar
I0501 04:41:32.424742 26169 net.cpp:382] cifar -> data
I0501 04:41:32.424767 26169 net.cpp:382] cifar -> label
I0501 04:41:32.424780 26169 data_transformer.cpp:25] Loading mean file from: examples/cifar10/mean.binaryproto
I0501 04:41:32.426919 26169 data_layer.cpp:45] output data size: 111,3,32,32
I0501 04:41:32.433416 26169 net.cpp:124] Setting up cifar
I0501 04:41:32.433449 26169 net.cpp:131] Top shape: 111 3 32 32 (340992)
I0501 04:41:32.433454 26169 net.cpp:131] Top shape: 111 (111)
I0501 04:41:32.433456 26169 net.cpp:139] Memory required for data: 1364412
I0501 04:41:32.433502 26169 layer_factory.hpp:77] Creating layer conv0
I0501 04:41:32.433524 26169 net.cpp:86] Creating Layer conv0
I0501 04:41:32.433531 26169 net.cpp:408] conv0 <- data
I0501 04:41:32.433545 26169 net.cpp:382] conv0 -> conv0
I0501 04:41:32.665938 26169 net.cpp:124] Setting up conv0
I0501 04:41:32.665978 26169 net.cpp:131] Top shape: 111 8 32 32 (909312)
I0501 04:41:32.665982 26169 net.cpp:139] Memory required for data: 5001660
I0501 04:41:32.665997 26169 layer_factory.hpp:77] Creating layer Sigmoid0
I0501 04:41:32.666008 26169 net.cpp:86] Creating Layer Sigmoid0
I0501 04:41:32.666013 26169 net.cpp:408] Sigmoid0 <- conv0
I0501 04:41:32.666020 26169 net.cpp:382] Sigmoid0 -> Sigmoid0
I0501 04:41:32.666198 26169 net.cpp:124] Setting up Sigmoid0
I0501 04:41:32.666221 26169 net.cpp:131] Top shape: 111 8 32 32 (909312)
I0501 04:41:32.666224 26169 net.cpp:139] Memory required for data: 8638908
I0501 04:41:32.666229 26169 layer_factory.hpp:77] Creating layer pool0
I0501 04:41:32.666237 26169 net.cpp:86] Creating Layer pool0
I0501 04:41:32.666242 26169 net.cpp:408] pool0 <- Sigmoid0
I0501 04:41:32.666249 26169 net.cpp:382] pool0 -> pool0
I0501 04:41:32.666976 26169 net.cpp:124] Setting up pool0
I0501 04:41:32.667006 26169 net.cpp:131] Top shape: 111 8 16 16 (227328)
I0501 04:41:32.667008 26169 net.cpp:139] Memory required for data: 9548220
I0501 04:41:32.667011 26169 layer_factory.hpp:77] Creating layer ip1
I0501 04:41:32.667021 26169 net.cpp:86] Creating Layer ip1
I0501 04:41:32.667024 26169 net.cpp:408] ip1 <- pool0
I0501 04:41:32.667029 26169 net.cpp:382] ip1 -> ip1
I0501 04:41:32.669317 26169 net.cpp:124] Setting up ip1
I0501 04:41:32.669325 26169 net.cpp:131] Top shape: 111 40 (4440)
I0501 04:41:32.669328 26169 net.cpp:139] Memory required for data: 9565980
I0501 04:41:32.669335 26169 layer_factory.hpp:77] Creating layer relu1
I0501 04:41:32.669340 26169 net.cpp:86] Creating Layer relu1
I0501 04:41:32.669343 26169 net.cpp:408] relu1 <- ip1
I0501 04:41:32.669349 26169 net.cpp:369] relu1 -> ip1 (in-place)
I0501 04:41:32.669508 26169 net.cpp:124] Setting up relu1
I0501 04:41:32.669517 26169 net.cpp:131] Top shape: 111 40 (4440)
I0501 04:41:32.669520 26169 net.cpp:139] Memory required for data: 9583740
I0501 04:41:32.669523 26169 layer_factory.hpp:77] Creating layer ip2
I0501 04:41:32.669533 26169 net.cpp:86] Creating Layer ip2
I0501 04:41:32.669536 26169 net.cpp:408] ip2 <- ip1
I0501 04:41:32.669544 26169 net.cpp:382] ip2 -> ip2
I0501 04:41:32.669642 26169 net.cpp:124] Setting up ip2
I0501 04:41:32.669665 26169 net.cpp:131] Top shape: 111 10 (1110)
I0501 04:41:32.669668 26169 net.cpp:139] Memory required for data: 9588180
I0501 04:41:32.669678 26169 layer_factory.hpp:77] Creating layer relu2
I0501 04:41:32.669685 26169 net.cpp:86] Creating Layer relu2
I0501 04:41:32.669690 26169 net.cpp:408] relu2 <- ip2
I0501 04:41:32.669697 26169 net.cpp:369] relu2 -> ip2 (in-place)
I0501 04:41:32.669849 26169 net.cpp:124] Setting up relu2
I0501 04:41:32.669857 26169 net.cpp:131] Top shape: 111 10 (1110)
I0501 04:41:32.669860 26169 net.cpp:139] Memory required for data: 9592620
I0501 04:41:32.669864 26169 layer_factory.hpp:77] Creating layer ip3
I0501 04:41:32.669874 26169 net.cpp:86] Creating Layer ip3
I0501 04:41:32.669879 26169 net.cpp:408] ip3 <- ip2
I0501 04:41:32.669886 26169 net.cpp:382] ip3 -> ip3
I0501 04:41:32.670040 26169 net.cpp:124] Setting up ip3
I0501 04:41:32.670048 26169 net.cpp:131] Top shape: 111 160 (17760)
I0501 04:41:32.670050 26169 net.cpp:139] Memory required for data: 9663660
I0501 04:41:32.670058 26169 layer_factory.hpp:77] Creating layer relu3
I0501 04:41:32.670064 26169 net.cpp:86] Creating Layer relu3
I0501 04:41:32.670068 26169 net.cpp:408] relu3 <- ip3
I0501 04:41:32.670074 26169 net.cpp:369] relu3 -> ip3 (in-place)
I0501 04:41:32.670228 26169 net.cpp:124] Setting up relu3
I0501 04:41:32.670235 26169 net.cpp:131] Top shape: 111 160 (17760)
I0501 04:41:32.670238 26169 net.cpp:139] Memory required for data: 9734700
I0501 04:41:32.670241 26169 layer_factory.hpp:77] Creating layer ip4
I0501 04:41:32.670266 26169 net.cpp:86] Creating Layer ip4
I0501 04:41:32.670271 26169 net.cpp:408] ip4 <- ip3
I0501 04:41:32.670280 26169 net.cpp:382] ip4 -> ip4
I0501 04:41:32.670420 26169 net.cpp:124] Setting up ip4
I0501 04:41:32.670428 26169 net.cpp:131] Top shape: 111 10 (1110)
I0501 04:41:32.670431 26169 net.cpp:139] Memory required for data: 9739140
I0501 04:41:32.670440 26169 layer_factory.hpp:77] Creating layer loss
I0501 04:41:32.670449 26169 net.cpp:86] Creating Layer loss
I0501 04:41:32.670455 26169 net.cpp:408] loss <- ip4
I0501 04:41:32.670461 26169 net.cpp:408] loss <- label
I0501 04:41:32.670467 26169 net.cpp:382] loss -> loss
I0501 04:41:32.670488 26169 layer_factory.hpp:77] Creating layer loss
…
I0501 04:41:32.671682 26169 solver.cpp:173] Creating test net (#0) specified by net file: ECE595/cifar/train_test/var_everything/cifar_train_test_394.prototxt
I0501 04:41:32.671713 26169 net.cpp:296] The NetState phase (1) differed from the phase (0) specified by a rule in layer cifar
I0501 04:41:32.671813 26169 net.cpp:53] Initializing net from parameters: 
name: "CIFAR"
state {
  phase: TEST
}
layer {
  name: "cifar"
  type: "Data"
  top: "data"
  top: "label"
  include {
    phase: TEST
  }
  transform_param {
    mean_file: "examples/cifar10/mean.binaryproto"
  }
  data_param {
    source: "examples/cifar10/cifar10_test_lmdb"
    batch_size: 1000
    backend: LMDB
  }
}
layer {
  name: "conv0"
  type: "Convolution"
  bottom: "data"
  top: "conv0"
  param {
    lr_mult: 1
  }
  param {
    lr_mult: 2
  }
  convolution_param {
    num_output: 8
    pad: 2
    kernel_size: 5
    stride: 1
    weight_filler {
      type: "gaussian"
      std: 0.01
    }
    bias_filler {
      type: "constant"
    }
  }
}
layer {
  name: "Sigmoid0"
  type: "Sigmoid"
  bottom: "conv0"
  top: "Sigmoid0"
}
layer {
  name: "pool0"
  type: "Pooling"
  bottom: "Sigmoid0"
  top: "pool0"
  pooling_param {
    pool: AVE
    kernel_size: 3
    stride: 2
  }
}
layer {
  name: "ip1"
  type: "InnerProduct"
  bottom: "pool0"
  top: "ip1"
  param {
    lr_mult: 1
  }
  param {
    lr_mult: 2
  }
  inner_product_param {
    num_output: 40
    weight_filler {
      type: "gaussian"
      std: 0.01
    }
    bias_filler {
      type: "constant"
    }
  }
}
layer {
  name: "relu1"
  type: "ReLU"
  bottom: "ip1"
  top: "ip1"
}
layer {
  name: "ip2"
  type: "InnerProduct"
  bottom: "ip1"
  top: "ip2"
  param {
    lr_mult: 1
  }
  param {
    lr_mult: 2
  }
  inner_product_param {
    num_output: 10
    weight_filler {
      type: "gaussian"
      std: 0.01
    }
    bias_filler {
      type: "constant"
    }
  }
}
layer {
  name: "relu2"
  type: "ReLU"
  bottom: "ip2"
  top: "ip2"
}
layer {
  name: "ip3"
  type: "InnerProduct"
  bottom: "ip2"
  top: "ip3"
  param {
    lr_mult: 1
  }
  param {
    lr_mult: 2
  }
  inner_product_param {
    num_output: 160
    weight_filler {
      type: "gaussian"
      std: 0.01
    }
    bias_filler {
      type: "constant"
    }
  }
}
layer {
  name: "relu3"
  type: "ReLU"
  bottom: "ip3"
  top: "ip3"
}
layer {
  name: "ip4"
  type: "InnerProduct"
  bottom: "ip3"
  top: "ip4"
  param {
    lr_mult: 1
  }
  param {
    lr_mult: 2
  }
  inner_product_param {
    num_output: 10
    weight_filler {
      type: "gaussian"
      std: 0.01
    }
    bias_filler {
      type: "constant"
    }
  }
}
layer {
  name: "accuracy"
  type: "Accuracy"
  bottom: "ip4"
  bottom: "label"
  top: "accuracy"
  include {
    phase: TEST
  }
}
layer {
  name: "loss"
  type: "SoftmaxWithLoss"
  bottom: "ip4"
  bottom: "label"
  top: "loss"
}
I0501 04:41:32.671936 26169 layer_factory.hpp:77] Creating layer cifar
I0501 04:41:32.671991 26169 db_lmdb.cpp:35] Opened lmdb examples/cifar10/cifar10_test_lmdb
I0501 04:41:32.672008 26169 net.cpp:86] Creating Layer cifar
I0501 04:41:32.672015 26169 net.cpp:382] cifar -> data
I0501 04:41:32.672026 26169 net.cpp:382] cifar -> label
I0501 04:41:32.672035 26169 data_transformer.cpp:25] Loading mean file from: examples/cifar10/mean.binaryproto
I0501 04:41:32.672245 26169 data_layer.cpp:45] output data size: 1000,3,32,32
I0501 04:41:32.694111 26169 net.cpp:124] Setting up cifar
I0501 04:41:32.694138 26169 net.cpp:131] Top shape: 1000 3 32 32 (3072000)
I0501 04:41:32.694142 26169 net.cpp:131] Top shape: 1000 (1000)
I0501 04:41:32.694144 26169 net.cpp:139] Memory required for data: 12292000
I0501 04:41:32.694150 26169 layer_factory.hpp:77] Creating layer label_cifar_1_split
I0501 04:41:32.694195 26169 net.cpp:86] Creating Layer label_cifar_1_split
I0501 04:41:32.694202 26169 net.cpp:408] label_cifar_1_split <- label
I0501 04:41:32.694211 26169 net.cpp:382] label_cifar_1_split -> label_cifar_1_split_0
I0501 04:41:32.694224 26169 net.cpp:382] label_cifar_1_split -> label_cifar_1_split_1
I0501 04:41:32.694329 26169 net.cpp:124] Setting up label_cifar_1_split
I0501 04:41:32.694337 26169 net.cpp:131] Top shape: 1000 (1000)
I0501 04:41:32.694341 26169 net.cpp:131] Top shape: 1000 (1000)
I0501 04:41:32.694344 26169 net.cpp:139] Memory required for data: 12300000
I0501 04:41:32.694346 26169 layer_factory.hpp:77] Creating layer conv0
I0501 04:41:32.694365 26169 net.cpp:86] Creating Layer conv0
I0501 04:41:32.694370 26169 net.cpp:408] conv0 <- data
I0501 04:41:32.694378 26169 net.cpp:382] conv0 -> conv0
I0501 04:41:32.696049 26169 net.cpp:124] Setting up conv0
I0501 04:41:32.696063 26169 net.cpp:131] Top shape: 1000 8 32 32 (8192000)
I0501 04:41:32.696068 26169 net.cpp:139] Memory required for data: 45068000
I0501 04:41:32.696079 26169 layer_factory.hpp:77] Creating layer Sigmoid0
I0501 04:41:32.696089 26169 net.cpp:86] Creating Layer Sigmoid0
I0501 04:41:32.696094 26169 net.cpp:408] Sigmoid0 <- conv0
I0501 04:41:32.696101 26169 net.cpp:382] Sigmoid0 -> Sigmoid0
I0501 04:41:32.696316 26169 net.cpp:124] Setting up Sigmoid0
I0501 04:41:32.696326 26169 net.cpp:131] Top shape: 1000 8 32 32 (8192000)
I0501 04:41:32.696328 26169 net.cpp:139] Memory required for data: 77836000
I0501 04:41:32.696332 26169 layer_factory.hpp:77] Creating layer pool0
I0501 04:41:32.696343 26169 net.cpp:86] Creating Layer pool0
I0501 04:41:32.696349 26169 net.cpp:408] pool0 <- Sigmoid0
I0501 04:41:32.696372 26169 net.cpp:382] pool0 -> pool0
I0501 04:41:32.696689 26169 net.cpp:124] Setting up pool0
I0501 04:41:32.696698 26169 net.cpp:131] Top shape: 1000 8 16 16 (2048000)
I0501 04:41:32.696702 26169 net.cpp:139] Memory required for data: 86028000
I0501 04:41:32.696705 26169 layer_factory.hpp:77] Creating layer ip1
I0501 04:41:32.696717 26169 net.cpp:86] Creating Layer ip1
I0501 04:41:32.696737 26169 net.cpp:408] ip1 <- pool0
I0501 04:41:32.696744 26169 net.cpp:382] ip1 -> ip1
I0501 04:41:32.699975 26169 net.cpp:124] Setting up ip1
I0501 04:41:32.699986 26169 net.cpp:131] Top shape: 1000 40 (40000)
I0501 04:41:32.699990 26169 net.cpp:139] Memory required for data: 86188000
I0501 04:41:32.700016 26169 layer_factory.hpp:77] Creating layer relu1
I0501 04:41:32.700026 26169 net.cpp:86] Creating Layer relu1
I0501 04:41:32.700032 26169 net.cpp:408] relu1 <- ip1
I0501 04:41:32.700038 26169 net.cpp:369] relu1 -> ip1 (in-place)
I0501 04:41:32.700212 26169 net.cpp:124] Setting up relu1
I0501 04:41:32.700222 26169 net.cpp:131] Top shape: 1000 40 (40000)
I0501 04:41:32.700224 26169 net.cpp:139] Memory required for data: 86348000
I0501 04:41:32.700227 26169 layer_factory.hpp:77] Creating layer ip2
I0501 04:41:32.700237 26169 net.cpp:86] Creating Layer ip2
I0501 04:41:32.700242 26169 net.cpp:408] ip2 <- ip1
I0501 04:41:32.700249 26169 net.cpp:382] ip2 -> ip2
I0501 04:41:32.700393 26169 net.cpp:124] Setting up ip2
I0501 04:41:32.700402 26169 net.cpp:131] Top shape: 1000 10 (10000)
I0501 04:41:32.700404 26169 net.cpp:139] Memory required for data: 86388000
I0501 04:41:32.700412 26169 layer_factory.hpp:77] Creating layer relu2
I0501 04:41:32.700422 26169 net.cpp:86] Creating Layer relu2
I0501 04:41:32.700425 26169 net.cpp:408] relu2 <- ip2
I0501 04:41:32.700433 26169 net.cpp:369] relu2 -> ip2 (in-place)
I0501 04:41:32.701203 26169 net.cpp:124] Setting up relu2
I0501 04:41:32.701215 26169 net.cpp:131] Top shape: 1000 10 (10000)
I0501 04:41:32.701218 26169 net.cpp:139] Memory required for data: 86428000
I0501 04:41:32.701221 26169 layer_factory.hpp:77] Creating layer ip3
I0501 04:41:32.701231 26169 net.cpp:86] Creating Layer ip3
I0501 04:41:32.701236 26169 net.cpp:408] ip3 <- ip2
I0501 04:41:32.701243 26169 net.cpp:382] ip3 -> ip3
I0501 04:41:32.701416 26169 net.cpp:124] Setting up ip3
I0501 04:41:32.701424 26169 net.cpp:131] Top shape: 1000 160 (160000)
I0501 04:41:32.701426 26169 net.cpp:139] Memory required for data: 87068000
I0501 04:41:32.701432 26169 layer_factory.hpp:77] Creating layer relu3
I0501 04:41:32.701439 26169 net.cpp:86] Creating Layer relu3
I0501 04:41:32.701444 26169 net.cpp:408] relu3 <- ip3
I0501 04:41:32.701452 26169 net.cpp:369] relu3 -> ip3 (in-place)
I0501 04:41:32.701623 26169 net.cpp:124] Setting up relu3
I0501 04:41:32.701632 26169 net.cpp:131] Top shape: 1000 160 (160000)
I0501 04:41:32.701637 26169 net.cpp:139] Memory required for data: 87708000
I0501 04:41:32.701639 26169 layer_factory.hpp:77] Creating layer ip4
I0501 04:41:32.701647 26169 net.cpp:86] Creating Layer ip4
I0501 04:41:32.701653 26169 net.cpp:408] ip4 <- ip3
I0501 04:41:32.701661 26169 net.cpp:382] ip4 -> ip4
I0501 04:41:32.701830 26169 net.cpp:124] Setting up ip4
I0501 04:41:32.701838 26169 net.cpp:131] Top shape: 1000 10 (10000)
I0501 04:41:32.701843 26169 net.cpp:139] Memory required for data: 87748000
I0501 04:41:32.701850 26169 layer_factory.hpp:77] Creating layer ip4_ip4_0_split
I0501 04:41:32.701859 26169 net.cpp:86] Creating Layer ip4_ip4_0_split
I0501 04:41:32.701864 26169 net.cpp:408] ip4_ip4_0_split <- ip4
I0501 04:41:32.701870 26169 net.cpp:382] ip4_ip4_0_split -> ip4_ip4_0_split_0
I0501 04:41:32.701879 26169 net.cpp:382] ip4_ip4_0_split -> ip4_ip4_0_split_1
I0501 04:41:32.701922 26169 net.cpp:124] Setting up ip4_ip4_0_split
I0501 04:41:32.701930 26169 net.cpp:131] Top shape: 1000 10 (10000)
I0501 04:41:32.701936 26169 net.cpp:131] Top shape: 1000 10 (10000)
I0501 04:41:32.701939 26169 net.cpp:139] Memory required for data: 87828000
I0501 04:41:32.701944 26169 layer_factory.hpp:77] Creating layer accuracy
I0501 04:41:32.701952 26169 net.cpp:86] Creating Layer accuracy
I0501 04:41:32.701957 26169 net.cpp:408] accuracy <- ip4_ip4_0_split_0
I0501 04:41:32.701962 26169 net.cpp:408] accuracy <- label_cifar_1_split_0
I0501 04:41:32.701970 26169 net.cpp:382] accuracy -> accuracy
…
