…
I0430 20:33:16.997207 28942 net.cpp:296] The NetState phase (0) differed from the phase (1) specified by a rule in layer cifar
I0430 20:33:16.997222 28942 net.cpp:296] The NetState phase (0) differed from the phase (1) specified by a rule in layer accuracy
I0430 20:33:16.997305 28942 net.cpp:53] Initializing net from parameters: 
name: "CIFAR"
state {
  phase: TRAIN
  level: 0
  stage: ""
}
layer {
  name: "cifar"
  type: "Data"
  top: "data"
  top: "label"
  include {
    phase: TRAIN
  }
  transform_param {
    mean_file: "examples/cifar10/mean.binaryproto"
  }
  data_param {
    source: "examples/cifar10/cifar10_train_lmdb"
    batch_size: 111
    backend: LMDB
  }
}
layer {
  name: "ip1"
  type: "InnerProduct"
  bottom: "data"
  top: "ip1"
  param {
    lr_mult: 1
  }
  param {
    lr_mult: 2
  }
  inner_product_param {
    num_output: 160
    weight_filler {
      type: "gaussian"
      std: 0.01
    }
    bias_filler {
      type: "constant"
    }
  }
}
layer {
  name: "relu1"
  type: "ReLU"
  bottom: "ip1"
  top: "ip1"
}
layer {
  name: "ip2"
  type: "InnerProduct"
  bottom: "ip1"
  top: "ip2"
  param {
    lr_mult: 1
  }
  param {
    lr_mult: 2
  }
  inner_product_param {
    num_output: 10
    weight_filler {
      type: "gaussian"
      std: 0.01
    }
    bias_filler {
      type: "constant"
    }
  }
}
layer {
  name: "relu2"
  type: "ReLU"
  bottom: "ip2"
  top: "ip2"
}
layer {
  name: "ip3"
  type: "InnerProduct"
  bottom: "ip2"
  top: "ip3"
  param {
    lr_mult: 1
  }
  param {
    lr_mult: 2
  }
  inner_product_param {
    num_output: 80
    weight_filler {
      type: "gaussian"
      std: 0.01
    }
    bias_filler {
      type: "constant"
    }
  }
}
layer {
  name: "relu3"
  type: "ReLU"
  bottom: "ip3"
  top: "ip3"
}
layer {
  name: "ip4"
  type: "InnerProduct"
  bottom: "ip3"
  top: "ip4"
  param {
    lr_mult: 1
  }
  param {
    lr_mult: 2
  }
  inner_product_param {
    num_output: 10
    weight_filler {
      type: "gaussian"
      std: 0.01
    }
    bias_filler {
      type: "constant"
    }
  }
}
layer {
  name: "loss"
  type: "SoftmaxWithLoss"
  bottom: "ip4"
  bottom: "label"
  top: "loss"
}
I0430 20:33:16.997370 28942 layer_factory.hpp:77] Creating layer cifar
I0430 20:33:16.997468 28942 db_lmdb.cpp:35] Opened lmdb examples/cifar10/cifar10_train_lmdb
I0430 20:33:16.997495 28942 net.cpp:86] Creating Layer cifar
I0430 20:33:16.997503 28942 net.cpp:382] cifar -> data
I0430 20:33:16.997527 28942 net.cpp:382] cifar -> label
I0430 20:33:16.997539 28942 data_transformer.cpp:25] Loading mean file from: examples/cifar10/mean.binaryproto
I0430 20:33:16.999655 28942 data_layer.cpp:45] output data size: 111,3,32,32
I0430 20:33:17.007748 28942 net.cpp:124] Setting up cifar
I0430 20:33:17.007769 28942 net.cpp:131] Top shape: 111 3 32 32 (340992)
I0430 20:33:17.007776 28942 net.cpp:131] Top shape: 111 (111)
I0430 20:33:17.007779 28942 net.cpp:139] Memory required for data: 1364412
I0430 20:33:17.007786 28942 layer_factory.hpp:77] Creating layer ip1
I0430 20:33:17.007822 28942 net.cpp:86] Creating Layer ip1
I0430 20:33:17.007827 28942 net.cpp:408] ip1 <- data
I0430 20:33:17.007839 28942 net.cpp:382] ip1 -> ip1
I0430 20:33:17.025120 28942 net.cpp:124] Setting up ip1
I0430 20:33:17.025136 28942 net.cpp:131] Top shape: 111 160 (17760)
I0430 20:33:17.025141 28942 net.cpp:139] Memory required for data: 1435452
I0430 20:33:17.025153 28942 layer_factory.hpp:77] Creating layer relu1
I0430 20:33:17.025180 28942 net.cpp:86] Creating Layer relu1
I0430 20:33:17.025185 28942 net.cpp:408] relu1 <- ip1
I0430 20:33:17.025190 28942 net.cpp:369] relu1 -> ip1 (in-place)
I0430 20:33:17.305302 28942 net.cpp:124] Setting up relu1
I0430 20:33:17.305327 28942 net.cpp:131] Top shape: 111 160 (17760)
I0430 20:33:17.305331 28942 net.cpp:139] Memory required for data: 1506492
I0430 20:33:17.305336 28942 layer_factory.hpp:77] Creating layer ip2
I0430 20:33:17.305349 28942 net.cpp:86] Creating Layer ip2
I0430 20:33:17.305354 28942 net.cpp:408] ip2 <- ip1
I0430 20:33:17.305362 28942 net.cpp:382] ip2 -> ip2
I0430 20:33:17.305554 28942 net.cpp:124] Setting up ip2
I0430 20:33:17.305563 28942 net.cpp:131] Top shape: 111 10 (1110)
I0430 20:33:17.305567 28942 net.cpp:139] Memory required for data: 1510932
I0430 20:33:17.305577 28942 layer_factory.hpp:77] Creating layer relu2
I0430 20:33:17.305584 28942 net.cpp:86] Creating Layer relu2
I0430 20:33:17.305588 28942 net.cpp:408] relu2 <- ip2
I0430 20:33:17.305593 28942 net.cpp:369] relu2 -> ip2 (in-place)
I0430 20:33:17.306398 28942 net.cpp:124] Setting up relu2
I0430 20:33:17.306411 28942 net.cpp:131] Top shape: 111 10 (1110)
I0430 20:33:17.306414 28942 net.cpp:139] Memory required for data: 1515372
I0430 20:33:17.306418 28942 layer_factory.hpp:77] Creating layer ip3
I0430 20:33:17.306426 28942 net.cpp:86] Creating Layer ip3
I0430 20:33:17.306428 28942 net.cpp:408] ip3 <- ip2
I0430 20:33:17.306433 28942 net.cpp:382] ip3 -> ip3
I0430 20:33:17.307474 28942 net.cpp:124] Setting up ip3
I0430 20:33:17.307487 28942 net.cpp:131] Top shape: 111 80 (8880)
I0430 20:33:17.307490 28942 net.cpp:139] Memory required for data: 1550892
I0430 20:33:17.307499 28942 layer_factory.hpp:77] Creating layer relu3
I0430 20:33:17.307505 28942 net.cpp:86] Creating Layer relu3
I0430 20:33:17.307508 28942 net.cpp:408] relu3 <- ip3
I0430 20:33:17.307513 28942 net.cpp:369] relu3 -> ip3 (in-place)
I0430 20:33:17.307687 28942 net.cpp:124] Setting up relu3
I0430 20:33:17.307710 28942 net.cpp:131] Top shape: 111 80 (8880)
I0430 20:33:17.307714 28942 net.cpp:139] Memory required for data: 1586412
I0430 20:33:17.307718 28942 layer_factory.hpp:77] Creating layer ip4
I0430 20:33:17.307724 28942 net.cpp:86] Creating Layer ip4
I0430 20:33:17.307729 28942 net.cpp:408] ip4 <- ip3
I0430 20:33:17.307734 28942 net.cpp:382] ip4 -> ip4
I0430 20:33:17.307852 28942 net.cpp:124] Setting up ip4
I0430 20:33:17.307859 28942 net.cpp:131] Top shape: 111 10 (1110)
I0430 20:33:17.307863 28942 net.cpp:139] Memory required for data: 1590852
I0430 20:33:17.307868 28942 layer_factory.hpp:77] Creating layer loss
I0430 20:33:17.307875 28942 net.cpp:86] Creating Layer loss
I0430 20:33:17.307879 28942 net.cpp:408] loss <- ip4
I0430 20:33:17.307883 28942 net.cpp:408] loss <- label
I0430 20:33:17.307888 28942 net.cpp:382] loss -> loss
I0430 20:33:17.307907 28942 layer_factory.hpp:77] Creating layer loss
…
I0430 20:33:17.308497 28942 solver.cpp:173] Creating test net (#0) specified by net file: ECE595/cifar/train_test/var_everything/cifar_train_test_133.prototxt
I0430 20:33:17.308537 28942 net.cpp:296] The NetState phase (1) differed from the phase (0) specified by a rule in layer cifar
I0430 20:33:17.308615 28942 net.cpp:53] Initializing net from parameters: 
name: "CIFAR"
state {
  phase: TEST
}
layer {
  name: "cifar"
  type: "Data"
  top: "data"
  top: "label"
  include {
    phase: TEST
  }
  transform_param {
    mean_file: "examples/cifar10/mean.binaryproto"
  }
  data_param {
    source: "examples/cifar10/cifar10_test_lmdb"
    batch_size: 1000
    backend: LMDB
  }
}
layer {
  name: "ip1"
  type: "InnerProduct"
  bottom: "data"
  top: "ip1"
  param {
    lr_mult: 1
  }
  param {
    lr_mult: 2
  }
  inner_product_param {
    num_output: 160
    weight_filler {
      type: "gaussian"
      std: 0.01
    }
    bias_filler {
      type: "constant"
    }
  }
}
layer {
  name: "relu1"
  type: "ReLU"
  bottom: "ip1"
  top: "ip1"
}
layer {
  name: "ip2"
  type: "InnerProduct"
  bottom: "ip1"
  top: "ip2"
  param {
    lr_mult: 1
  }
  param {
    lr_mult: 2
  }
  inner_product_param {
    num_output: 10
    weight_filler {
      type: "gaussian"
      std: 0.01
    }
    bias_filler {
      type: "constant"
    }
  }
}
layer {
  name: "relu2"
  type: "ReLU"
  bottom: "ip2"
  top: "ip2"
}
layer {
  name: "ip3"
  type: "InnerProduct"
  bottom: "ip2"
  top: "ip3"
  param {
    lr_mult: 1
  }
  param {
    lr_mult: 2
  }
  inner_product_param {
    num_output: 80
    weight_filler {
      type: "gaussian"
      std: 0.01
    }
    bias_filler {
      type: "constant"
    }
  }
}
layer {
  name: "relu3"
  type: "ReLU"
  bottom: "ip3"
  top: "ip3"
}
layer {
  name: "ip4"
  type: "InnerProduct"
  bottom: "ip3"
  top: "ip4"
  param {
    lr_mult: 1
  }
  param {
    lr_mult: 2
  }
  inner_product_param {
    num_output: 10
    weight_filler {
      type: "gaussian"
      std: 0.01
    }
    bias_filler {
      type: "constant"
    }
  }
}
layer {
  name: "accuracy"
  type: "Accuracy"
  bottom: "ip4"
  bottom: "label"
  top: "accuracy"
  include {
    phase: TEST
  }
}
layer {
  name: "loss"
  type: "SoftmaxWithLoss"
  bottom: "ip4"
  bottom: "label"
  top: "loss"
}
I0430 20:33:17.308676 28942 layer_factory.hpp:77] Creating layer cifar
I0430 20:33:17.308723 28942 db_lmdb.cpp:35] Opened lmdb examples/cifar10/cifar10_test_lmdb
I0430 20:33:17.308735 28942 net.cpp:86] Creating Layer cifar
I0430 20:33:17.308740 28942 net.cpp:382] cifar -> data
I0430 20:33:17.308748 28942 net.cpp:382] cifar -> label
I0430 20:33:17.308754 28942 data_transformer.cpp:25] Loading mean file from: examples/cifar10/mean.binaryproto
I0430 20:33:17.308943 28942 data_layer.cpp:45] output data size: 1000,3,32,32
I0430 20:33:17.332110 28942 net.cpp:124] Setting up cifar
I0430 20:33:17.332152 28942 net.cpp:131] Top shape: 1000 3 32 32 (3072000)
I0430 20:33:17.332159 28942 net.cpp:131] Top shape: 1000 (1000)
I0430 20:33:17.332161 28942 net.cpp:139] Memory required for data: 12292000
I0430 20:33:17.332170 28942 layer_factory.hpp:77] Creating layer label_cifar_1_split
I0430 20:33:17.332186 28942 net.cpp:86] Creating Layer label_cifar_1_split
I0430 20:33:17.332191 28942 net.cpp:408] label_cifar_1_split <- label
I0430 20:33:17.332197 28942 net.cpp:382] label_cifar_1_split -> label_cifar_1_split_0
I0430 20:33:17.332207 28942 net.cpp:382] label_cifar_1_split -> label_cifar_1_split_1
I0430 20:33:17.332284 28942 net.cpp:124] Setting up label_cifar_1_split
I0430 20:33:17.332293 28942 net.cpp:131] Top shape: 1000 (1000)
I0430 20:33:17.332296 28942 net.cpp:131] Top shape: 1000 (1000)
I0430 20:33:17.332299 28942 net.cpp:139] Memory required for data: 12300000
I0430 20:33:17.332303 28942 layer_factory.hpp:77] Creating layer ip1
I0430 20:33:17.332312 28942 net.cpp:86] Creating Layer ip1
I0430 20:33:17.332315 28942 net.cpp:408] ip1 <- data
I0430 20:33:17.332320 28942 net.cpp:382] ip1 -> ip1
I0430 20:33:17.346735 28942 net.cpp:124] Setting up ip1
I0430 20:33:17.346750 28942 net.cpp:131] Top shape: 1000 160 (160000)
I0430 20:33:17.346753 28942 net.cpp:139] Memory required for data: 12940000
I0430 20:33:17.346779 28942 layer_factory.hpp:77] Creating layer relu1
I0430 20:33:17.346787 28942 net.cpp:86] Creating Layer relu1
I0430 20:33:17.346791 28942 net.cpp:408] relu1 <- ip1
I0430 20:33:17.346796 28942 net.cpp:369] relu1 -> ip1 (in-place)
I0430 20:33:17.347602 28942 net.cpp:124] Setting up relu1
I0430 20:33:17.347615 28942 net.cpp:131] Top shape: 1000 160 (160000)
I0430 20:33:17.347618 28942 net.cpp:139] Memory required for data: 13580000
I0430 20:33:17.347622 28942 layer_factory.hpp:77] Creating layer ip2
I0430 20:33:17.347631 28942 net.cpp:86] Creating Layer ip2
I0430 20:33:17.347636 28942 net.cpp:408] ip2 <- ip1
I0430 20:33:17.347642 28942 net.cpp:382] ip2 -> ip2
I0430 20:33:17.347789 28942 net.cpp:124] Setting up ip2
I0430 20:33:17.347796 28942 net.cpp:131] Top shape: 1000 10 (10000)
I0430 20:33:17.347800 28942 net.cpp:139] Memory required for data: 13620000
I0430 20:33:17.347807 28942 layer_factory.hpp:77] Creating layer relu2
I0430 20:33:17.347813 28942 net.cpp:86] Creating Layer relu2
I0430 20:33:17.347816 28942 net.cpp:408] relu2 <- ip2
I0430 20:33:17.347820 28942 net.cpp:369] relu2 -> ip2 (in-place)
I0430 20:33:17.347965 28942 net.cpp:124] Setting up relu2
I0430 20:33:17.347972 28942 net.cpp:131] Top shape: 1000 10 (10000)
I0430 20:33:17.347976 28942 net.cpp:139] Memory required for data: 13660000
I0430 20:33:17.347980 28942 layer_factory.hpp:77] Creating layer ip3
I0430 20:33:17.347985 28942 net.cpp:86] Creating Layer ip3
I0430 20:33:17.347988 28942 net.cpp:408] ip3 <- ip2
I0430 20:33:17.347993 28942 net.cpp:382] ip3 -> ip3
I0430 20:33:17.348112 28942 net.cpp:124] Setting up ip3
I0430 20:33:17.348119 28942 net.cpp:131] Top shape: 1000 80 (80000)
I0430 20:33:17.348122 28942 net.cpp:139] Memory required for data: 13980000
I0430 20:33:17.348145 28942 layer_factory.hpp:77] Creating layer relu3
I0430 20:33:17.348150 28942 net.cpp:86] Creating Layer relu3
I0430 20:33:17.348153 28942 net.cpp:408] relu3 <- ip3
I0430 20:33:17.348157 28942 net.cpp:369] relu3 -> ip3 (in-place)
I0430 20:33:17.348304 28942 net.cpp:124] Setting up relu3
I0430 20:33:17.348314 28942 net.cpp:131] Top shape: 1000 80 (80000)
I0430 20:33:17.348316 28942 net.cpp:139] Memory required for data: 14300000
I0430 20:33:17.348320 28942 layer_factory.hpp:77] Creating layer ip4
I0430 20:33:17.348327 28942 net.cpp:86] Creating Layer ip4
I0430 20:33:17.348330 28942 net.cpp:408] ip4 <- ip3
I0430 20:33:17.348335 28942 net.cpp:382] ip4 -> ip4
I0430 20:33:17.348481 28942 net.cpp:124] Setting up ip4
I0430 20:33:17.348489 28942 net.cpp:131] Top shape: 1000 10 (10000)
I0430 20:33:17.348491 28942 net.cpp:139] Memory required for data: 14340000
I0430 20:33:17.348496 28942 layer_factory.hpp:77] Creating layer ip4_ip4_0_split
I0430 20:33:17.348501 28942 net.cpp:86] Creating Layer ip4_ip4_0_split
I0430 20:33:17.348505 28942 net.cpp:408] ip4_ip4_0_split <- ip4
I0430 20:33:17.348510 28942 net.cpp:382] ip4_ip4_0_split -> ip4_ip4_0_split_0
I0430 20:33:17.348520 28942 net.cpp:382] ip4_ip4_0_split -> ip4_ip4_0_split_1
I0430 20:33:17.348551 28942 net.cpp:124] Setting up ip4_ip4_0_split
I0430 20:33:17.348556 28942 net.cpp:131] Top shape: 1000 10 (10000)
I0430 20:33:17.348561 28942 net.cpp:131] Top shape: 1000 10 (10000)
I0430 20:33:17.348563 28942 net.cpp:139] Memory required for data: 14420000
I0430 20:33:17.348567 28942 layer_factory.hpp:77] Creating layer accuracy
I0430 20:33:17.348572 28942 net.cpp:86] Creating Layer accuracy
I0430 20:33:17.348575 28942 net.cpp:408] accuracy <- ip4_ip4_0_split_0
I0430 20:33:17.348579 28942 net.cpp:408] accuracy <- label_cifar_1_split_0
I0430 20:33:17.348583 28942 net.cpp:382] accuracy -> accuracy
…
