…
I0501 09:41:10.509922 15372 net.cpp:296] The NetState phase (0) differed from the phase (1) specified by a rule in layer cifar
I0501 09:41:10.509946 15372 net.cpp:296] The NetState phase (0) differed from the phase (1) specified by a rule in layer accuracy
I0501 09:41:10.510066 15372 net.cpp:53] Initializing net from parameters: 
name: "CIFAR"
state {
  phase: TRAIN
  level: 0
  stage: ""
}
layer {
  name: "cifar"
  type: "Data"
  top: "data"
  top: "label"
  include {
    phase: TRAIN
  }
  transform_param {
    mean_file: "examples/cifar10/mean.binaryproto"
  }
  data_param {
    source: "examples/cifar10/cifar10_train_lmdb"
    batch_size: 111
    backend: LMDB
  }
}
layer {
  name: "conv0"
  type: "Convolution"
  bottom: "data"
  top: "conv0"
  param {
    lr_mult: 1
  }
  param {
    lr_mult: 2
  }
  convolution_param {
    num_output: 16
    pad: 2
    kernel_size: 3
    stride: 1
    weight_filler {
      type: "gaussian"
      std: 0.01
    }
    bias_filler {
      type: "constant"
    }
  }
}
layer {
  name: "Sigmoid0"
  type: "Sigmoid"
  bottom: "conv0"
  top: "Sigmoid0"
}
layer {
  name: "pool0"
  type: "Pooling"
  bottom: "Sigmoid0"
  top: "pool0"
  pooling_param {
    pool: AVE
    kernel_size: 3
    stride: 2
  }
}
layer {
  name: "ip1"
  type: "InnerProduct"
  bottom: "pool0"
  top: "ip1"
  param {
    lr_mult: 1
  }
  param {
    lr_mult: 2
  }
  inner_product_param {
    num_output: 40
    weight_filler {
      type: "gaussian"
      std: 0.01
    }
    bias_filler {
      type: "constant"
    }
  }
}
layer {
  name: "relu1"
  type: "ReLU"
  bottom: "ip1"
  top: "ip1"
}
layer {
  name: "ip2"
  type: "InnerProduct"
  bottom: "ip1"
  top: "ip2"
  param {
    lr_mult: 1
  }
  param {
    lr_mult: 2
  }
  inner_product_param {
    num_output: 10
    weight_filler {
      type: "gaussian"
      std: 0.01
    }
    bias_filler {
      type: "constant"
    }
  }
}
layer {
  name: "relu2"
  type: "ReLU"
  bottom: "ip2"
  top: "ip2"
}
layer {
  name: "ip3"
  type: "InnerProduct"
  bottom: "ip2"
  top: "ip3"
  param {
    lr_mult: 1
  }
  param {
    lr_mult: 2
  }
  inner_product_param {
    num_output: 20
    weight_filler {
      type: "gaussian"
      std: 0.01
    }
    bias_filler {
      type: "constant"
    }
  }
}
layer {
  name: "relu3"
  type: "ReLU"
  bottom: "ip3"
  top: "ip3"
}
layer {
  name: "ip4"
  type: "InnerProduct"
  bottom: "ip3"
  top: "ip4"
  param {
    lr_mult: 1
  }
  param {
    lr_mult: 2
  }
  inner_product_param {
    num_output: 10
    weight_filler {
      type: "gaussian"
      std: 0.01
    }
    bias_filler {
      type: "constant"
    }
  }
}
layer {
  name: "loss"
  type: "SoftmaxWithLoss"
  bottom: "ip4"
  bottom: "label"
  top: "loss"
}
I0501 09:41:10.510179 15372 layer_factory.hpp:77] Creating layer cifar
I0501 09:41:10.510314 15372 db_lmdb.cpp:35] Opened lmdb examples/cifar10/cifar10_train_lmdb
I0501 09:41:10.510350 15372 net.cpp:86] Creating Layer cifar
I0501 09:41:10.510362 15372 net.cpp:382] cifar -> data
I0501 09:41:10.510392 15372 net.cpp:382] cifar -> label
I0501 09:41:10.510409 15372 data_transformer.cpp:25] Loading mean file from: examples/cifar10/mean.binaryproto
I0501 09:41:10.512792 15372 data_layer.cpp:45] output data size: 111,3,32,32
I0501 09:41:10.520758 15372 net.cpp:124] Setting up cifar
I0501 09:41:10.520781 15372 net.cpp:131] Top shape: 111 3 32 32 (340992)
I0501 09:41:10.520790 15372 net.cpp:131] Top shape: 111 (111)
I0501 09:41:10.520797 15372 net.cpp:139] Memory required for data: 1364412
I0501 09:41:10.520848 15372 layer_factory.hpp:77] Creating layer conv0
I0501 09:41:10.520877 15372 net.cpp:86] Creating Layer conv0
I0501 09:41:10.520886 15372 net.cpp:408] conv0 <- data
I0501 09:41:10.520905 15372 net.cpp:382] conv0 -> conv0
I0501 09:41:10.812698 15372 net.cpp:124] Setting up conv0
I0501 09:41:10.812731 15372 net.cpp:131] Top shape: 111 16 34 34 (2053056)
I0501 09:41:10.812737 15372 net.cpp:139] Memory required for data: 9576636
I0501 09:41:10.812760 15372 layer_factory.hpp:77] Creating layer Sigmoid0
I0501 09:41:10.812777 15372 net.cpp:86] Creating Layer Sigmoid0
I0501 09:41:10.812785 15372 net.cpp:408] Sigmoid0 <- conv0
I0501 09:41:10.812795 15372 net.cpp:382] Sigmoid0 -> Sigmoid0
I0501 09:41:10.813017 15372 net.cpp:124] Setting up Sigmoid0
I0501 09:41:10.813030 15372 net.cpp:131] Top shape: 111 16 34 34 (2053056)
I0501 09:41:10.813036 15372 net.cpp:139] Memory required for data: 17788860
I0501 09:41:10.813042 15372 layer_factory.hpp:77] Creating layer pool0
I0501 09:41:10.813055 15372 net.cpp:86] Creating Layer pool0
I0501 09:41:10.813060 15372 net.cpp:408] pool0 <- Sigmoid0
I0501 09:41:10.813069 15372 net.cpp:382] pool0 -> pool0
I0501 09:41:10.813894 15372 net.cpp:124] Setting up pool0
I0501 09:41:10.813912 15372 net.cpp:131] Top shape: 111 16 17 17 (513264)
I0501 09:41:10.813920 15372 net.cpp:139] Memory required for data: 19841916
I0501 09:41:10.813925 15372 layer_factory.hpp:77] Creating layer ip1
I0501 09:41:10.813940 15372 net.cpp:86] Creating Layer ip1
I0501 09:41:10.813946 15372 net.cpp:408] ip1 <- pool0
I0501 09:41:10.813956 15372 net.cpp:382] ip1 -> ip1
I0501 09:41:10.820453 15372 net.cpp:124] Setting up ip1
I0501 09:41:10.820469 15372 net.cpp:131] Top shape: 111 40 (4440)
I0501 09:41:10.820475 15372 net.cpp:139] Memory required for data: 19859676
I0501 09:41:10.820490 15372 layer_factory.hpp:77] Creating layer relu1
I0501 09:41:10.820500 15372 net.cpp:86] Creating Layer relu1
I0501 09:41:10.820508 15372 net.cpp:408] relu1 <- ip1
I0501 09:41:10.820515 15372 net.cpp:369] relu1 -> ip1 (in-place)
I0501 09:41:10.820690 15372 net.cpp:124] Setting up relu1
I0501 09:41:10.820703 15372 net.cpp:131] Top shape: 111 40 (4440)
I0501 09:41:10.820708 15372 net.cpp:139] Memory required for data: 19877436
I0501 09:41:10.820714 15372 layer_factory.hpp:77] Creating layer ip2
I0501 09:41:10.820724 15372 net.cpp:86] Creating Layer ip2
I0501 09:41:10.820730 15372 net.cpp:408] ip2 <- ip1
I0501 09:41:10.820740 15372 net.cpp:382] ip2 -> ip2
I0501 09:41:10.820869 15372 net.cpp:124] Setting up ip2
I0501 09:41:10.820880 15372 net.cpp:131] Top shape: 111 10 (1110)
I0501 09:41:10.820885 15372 net.cpp:139] Memory required for data: 19881876
I0501 09:41:10.820899 15372 layer_factory.hpp:77] Creating layer relu2
I0501 09:41:10.820906 15372 net.cpp:86] Creating Layer relu2
I0501 09:41:10.820912 15372 net.cpp:408] relu2 <- ip2
I0501 09:41:10.820920 15372 net.cpp:369] relu2 -> ip2 (in-place)
I0501 09:41:10.821090 15372 net.cpp:124] Setting up relu2
I0501 09:41:10.821101 15372 net.cpp:131] Top shape: 111 10 (1110)
I0501 09:41:10.821106 15372 net.cpp:139] Memory required for data: 19886316
I0501 09:41:10.821112 15372 layer_factory.hpp:77] Creating layer ip3
I0501 09:41:10.821125 15372 net.cpp:86] Creating Layer ip3
I0501 09:41:10.821130 15372 net.cpp:408] ip3 <- ip2
I0501 09:41:10.821140 15372 net.cpp:382] ip3 -> ip3
I0501 09:41:10.821254 15372 net.cpp:124] Setting up ip3
I0501 09:41:10.821264 15372 net.cpp:131] Top shape: 111 20 (2220)
I0501 09:41:10.821269 15372 net.cpp:139] Memory required for data: 19895196
I0501 09:41:10.821279 15372 layer_factory.hpp:77] Creating layer relu3
I0501 09:41:10.821286 15372 net.cpp:86] Creating Layer relu3
I0501 09:41:10.821292 15372 net.cpp:408] relu3 <- ip3
I0501 09:41:10.821300 15372 net.cpp:369] relu3 -> ip3 (in-place)
I0501 09:41:10.821463 15372 net.cpp:124] Setting up relu3
I0501 09:41:10.821475 15372 net.cpp:131] Top shape: 111 20 (2220)
I0501 09:41:10.821480 15372 net.cpp:139] Memory required for data: 19904076
I0501 09:41:10.821486 15372 layer_factory.hpp:77] Creating layer ip4
I0501 09:41:10.821517 15372 net.cpp:86] Creating Layer ip4
I0501 09:41:10.821524 15372 net.cpp:408] ip4 <- ip3
I0501 09:41:10.821532 15372 net.cpp:382] ip4 -> ip4
I0501 09:41:10.821647 15372 net.cpp:124] Setting up ip4
I0501 09:41:10.821658 15372 net.cpp:131] Top shape: 111 10 (1110)
I0501 09:41:10.821663 15372 net.cpp:139] Memory required for data: 19908516
I0501 09:41:10.821676 15372 layer_factory.hpp:77] Creating layer loss
I0501 09:41:10.821686 15372 net.cpp:86] Creating Layer loss
I0501 09:41:10.821692 15372 net.cpp:408] loss <- ip4
I0501 09:41:10.821699 15372 net.cpp:408] loss <- label
I0501 09:41:10.821708 15372 net.cpp:382] loss -> loss
I0501 09:41:10.821728 15372 layer_factory.hpp:77] Creating layer loss
…
I0501 09:41:10.823086 15372 solver.cpp:173] Creating test net (#0) specified by net file: ECE595/cifar/train_test/var_everything/cifar_train_test_546.prototxt
I0501 09:41:10.823122 15372 net.cpp:296] The NetState phase (1) differed from the phase (0) specified by a rule in layer cifar
I0501 09:41:10.823228 15372 net.cpp:53] Initializing net from parameters: 
name: "CIFAR"
state {
  phase: TEST
}
layer {
  name: "cifar"
  type: "Data"
  top: "data"
  top: "label"
  include {
    phase: TEST
  }
  transform_param {
    mean_file: "examples/cifar10/mean.binaryproto"
  }
  data_param {
    source: "examples/cifar10/cifar10_test_lmdb"
    batch_size: 1000
    backend: LMDB
  }
}
layer {
  name: "conv0"
  type: "Convolution"
  bottom: "data"
  top: "conv0"
  param {
    lr_mult: 1
  }
  param {
    lr_mult: 2
  }
  convolution_param {
    num_output: 16
    pad: 2
    kernel_size: 3
    stride: 1
    weight_filler {
      type: "gaussian"
      std: 0.01
    }
    bias_filler {
      type: "constant"
    }
  }
}
layer {
  name: "Sigmoid0"
  type: "Sigmoid"
  bottom: "conv0"
  top: "Sigmoid0"
}
layer {
  name: "pool0"
  type: "Pooling"
  bottom: "Sigmoid0"
  top: "pool0"
  pooling_param {
    pool: AVE
    kernel_size: 3
    stride: 2
  }
}
layer {
  name: "ip1"
  type: "InnerProduct"
  bottom: "pool0"
  top: "ip1"
  param {
    lr_mult: 1
  }
  param {
    lr_mult: 2
  }
  inner_product_param {
    num_output: 40
    weight_filler {
      type: "gaussian"
      std: 0.01
    }
    bias_filler {
      type: "constant"
    }
  }
}
layer {
  name: "relu1"
  type: "ReLU"
  bottom: "ip1"
  top: "ip1"
}
layer {
  name: "ip2"
  type: "InnerProduct"
  bottom: "ip1"
  top: "ip2"
  param {
    lr_mult: 1
  }
  param {
    lr_mult: 2
  }
  inner_product_param {
    num_output: 10
    weight_filler {
      type: "gaussian"
      std: 0.01
    }
    bias_filler {
      type: "constant"
    }
  }
}
layer {
  name: "relu2"
  type: "ReLU"
  bottom: "ip2"
  top: "ip2"
}
layer {
  name: "ip3"
  type: "InnerProduct"
  bottom: "ip2"
  top: "ip3"
  param {
    lr_mult: 1
  }
  param {
    lr_mult: 2
  }
  inner_product_param {
    num_output: 20
    weight_filler {
      type: "gaussian"
      std: 0.01
    }
    bias_filler {
      type: "constant"
    }
  }
}
layer {
  name: "relu3"
  type: "ReLU"
  bottom: "ip3"
  top: "ip3"
}
layer {
  name: "ip4"
  type: "InnerProduct"
  bottom: "ip3"
  top: "ip4"
  param {
    lr_mult: 1
  }
  param {
    lr_mult: 2
  }
  inner_product_param {
    num_output: 10
    weight_filler {
      type: "gaussian"
      std: 0.01
    }
    bias_filler {
      type: "constant"
    }
  }
}
layer {
  name: "accuracy"
  type: "Accuracy"
  bottom: "ip4"
  bottom: "label"
  top: "accuracy"
  include {
    phase: TEST
  }
}
layer {
  name: "loss"
  type: "SoftmaxWithLoss"
  bottom: "ip4"
  bottom: "label"
  top: "loss"
}
I0501 09:41:10.823348 15372 layer_factory.hpp:77] Creating layer cifar
I0501 09:41:10.823413 15372 db_lmdb.cpp:35] Opened lmdb examples/cifar10/cifar10_test_lmdb
I0501 09:41:10.823431 15372 net.cpp:86] Creating Layer cifar
I0501 09:41:10.823439 15372 net.cpp:382] cifar -> data
I0501 09:41:10.823452 15372 net.cpp:382] cifar -> label
I0501 09:41:10.823462 15372 data_transformer.cpp:25] Loading mean file from: examples/cifar10/mean.binaryproto
I0501 09:41:10.823674 15372 data_layer.cpp:45] output data size: 1000,3,32,32
I0501 09:41:10.846654 15372 net.cpp:124] Setting up cifar
I0501 09:41:10.846681 15372 net.cpp:131] Top shape: 1000 3 32 32 (3072000)
I0501 09:41:10.846689 15372 net.cpp:131] Top shape: 1000 (1000)
I0501 09:41:10.846694 15372 net.cpp:139] Memory required for data: 12292000
I0501 09:41:10.846702 15372 layer_factory.hpp:77] Creating layer label_cifar_1_split
I0501 09:41:10.846717 15372 net.cpp:86] Creating Layer label_cifar_1_split
I0501 09:41:10.846724 15372 net.cpp:408] label_cifar_1_split <- label
I0501 09:41:10.846734 15372 net.cpp:382] label_cifar_1_split -> label_cifar_1_split_0
I0501 09:41:10.846747 15372 net.cpp:382] label_cifar_1_split -> label_cifar_1_split_1
I0501 09:41:10.846825 15372 net.cpp:124] Setting up label_cifar_1_split
I0501 09:41:10.846834 15372 net.cpp:131] Top shape: 1000 (1000)
I0501 09:41:10.846842 15372 net.cpp:131] Top shape: 1000 (1000)
I0501 09:41:10.846845 15372 net.cpp:139] Memory required for data: 12300000
I0501 09:41:10.846851 15372 layer_factory.hpp:77] Creating layer conv0
I0501 09:41:10.846868 15372 net.cpp:86] Creating Layer conv0
I0501 09:41:10.846875 15372 net.cpp:408] conv0 <- data
I0501 09:41:10.846884 15372 net.cpp:382] conv0 -> conv0
I0501 09:41:10.848475 15372 net.cpp:124] Setting up conv0
I0501 09:41:10.848491 15372 net.cpp:131] Top shape: 1000 16 34 34 (18496000)
I0501 09:41:10.848497 15372 net.cpp:139] Memory required for data: 86284000
I0501 09:41:10.848528 15372 layer_factory.hpp:77] Creating layer Sigmoid0
I0501 09:41:10.848539 15372 net.cpp:86] Creating Layer Sigmoid0
I0501 09:41:10.848551 15372 net.cpp:408] Sigmoid0 <- conv0
I0501 09:41:10.848559 15372 net.cpp:382] Sigmoid0 -> Sigmoid0
I0501 09:41:10.848743 15372 net.cpp:124] Setting up Sigmoid0
I0501 09:41:10.848755 15372 net.cpp:131] Top shape: 1000 16 34 34 (18496000)
I0501 09:41:10.848762 15372 net.cpp:139] Memory required for data: 160268000
I0501 09:41:10.848767 15372 layer_factory.hpp:77] Creating layer pool0
I0501 09:41:10.848778 15372 net.cpp:86] Creating Layer pool0
I0501 09:41:10.848784 15372 net.cpp:408] pool0 <- Sigmoid0
I0501 09:41:10.848793 15372 net.cpp:382] pool0 -> pool0
I0501 09:41:10.850033 15372 net.cpp:124] Setting up pool0
I0501 09:41:10.850045 15372 net.cpp:131] Top shape: 1000 16 17 17 (4624000)
I0501 09:41:10.850051 15372 net.cpp:139] Memory required for data: 178764000
I0501 09:41:10.850056 15372 layer_factory.hpp:77] Creating layer ip1
I0501 09:41:10.850069 15372 net.cpp:86] Creating Layer ip1
I0501 09:41:10.850075 15372 net.cpp:408] ip1 <- pool0
I0501 09:41:10.850083 15372 net.cpp:382] ip1 -> ip1
I0501 09:41:10.855248 15372 net.cpp:124] Setting up ip1
I0501 09:41:10.855259 15372 net.cpp:131] Top shape: 1000 40 (40000)
I0501 09:41:10.855265 15372 net.cpp:139] Memory required for data: 178924000
I0501 09:41:10.855299 15372 layer_factory.hpp:77] Creating layer relu1
I0501 09:41:10.855309 15372 net.cpp:86] Creating Layer relu1
I0501 09:41:10.855315 15372 net.cpp:408] relu1 <- ip1
I0501 09:41:10.855324 15372 net.cpp:369] relu1 -> ip1 (in-place)
I0501 09:41:10.855494 15372 net.cpp:124] Setting up relu1
I0501 09:41:10.855504 15372 net.cpp:131] Top shape: 1000 40 (40000)
I0501 09:41:10.855509 15372 net.cpp:139] Memory required for data: 179084000
I0501 09:41:10.855515 15372 layer_factory.hpp:77] Creating layer ip2
I0501 09:41:10.855525 15372 net.cpp:86] Creating Layer ip2
I0501 09:41:10.855530 15372 net.cpp:408] ip2 <- ip1
I0501 09:41:10.855538 15372 net.cpp:382] ip2 -> ip2
I0501 09:41:10.855659 15372 net.cpp:124] Setting up ip2
I0501 09:41:10.855669 15372 net.cpp:131] Top shape: 1000 10 (10000)
I0501 09:41:10.855674 15372 net.cpp:139] Memory required for data: 179124000
I0501 09:41:10.855685 15372 layer_factory.hpp:77] Creating layer relu2
I0501 09:41:10.855695 15372 net.cpp:86] Creating Layer relu2
I0501 09:41:10.855703 15372 net.cpp:408] relu2 <- ip2
I0501 09:41:10.855711 15372 net.cpp:369] relu2 -> ip2 (in-place)
I0501 09:41:10.856461 15372 net.cpp:124] Setting up relu2
I0501 09:41:10.856474 15372 net.cpp:131] Top shape: 1000 10 (10000)
I0501 09:41:10.856480 15372 net.cpp:139] Memory required for data: 179164000
I0501 09:41:10.856487 15372 layer_factory.hpp:77] Creating layer ip3
I0501 09:41:10.856498 15372 net.cpp:86] Creating Layer ip3
I0501 09:41:10.856503 15372 net.cpp:408] ip3 <- ip2
I0501 09:41:10.856511 15372 net.cpp:382] ip3 -> ip3
I0501 09:41:10.856629 15372 net.cpp:124] Setting up ip3
I0501 09:41:10.856638 15372 net.cpp:131] Top shape: 1000 20 (20000)
I0501 09:41:10.856643 15372 net.cpp:139] Memory required for data: 179244000
I0501 09:41:10.856653 15372 layer_factory.hpp:77] Creating layer relu3
I0501 09:41:10.856662 15372 net.cpp:86] Creating Layer relu3
I0501 09:41:10.856667 15372 net.cpp:408] relu3 <- ip3
I0501 09:41:10.856674 15372 net.cpp:369] relu3 -> ip3 (in-place)
I0501 09:41:10.856833 15372 net.cpp:124] Setting up relu3
I0501 09:41:10.856844 15372 net.cpp:131] Top shape: 1000 20 (20000)
I0501 09:41:10.856850 15372 net.cpp:139] Memory required for data: 179324000
I0501 09:41:10.856855 15372 layer_factory.hpp:77] Creating layer ip4
I0501 09:41:10.856865 15372 net.cpp:86] Creating Layer ip4
I0501 09:41:10.856871 15372 net.cpp:408] ip4 <- ip3
I0501 09:41:10.856887 15372 net.cpp:382] ip4 -> ip4
I0501 09:41:10.856997 15372 net.cpp:124] Setting up ip4
I0501 09:41:10.857007 15372 net.cpp:131] Top shape: 1000 10 (10000)
I0501 09:41:10.857012 15372 net.cpp:139] Memory required for data: 179364000
I0501 09:41:10.857024 15372 layer_factory.hpp:77] Creating layer ip4_ip4_0_split
I0501 09:41:10.857034 15372 net.cpp:86] Creating Layer ip4_ip4_0_split
I0501 09:41:10.857041 15372 net.cpp:408] ip4_ip4_0_split <- ip4
I0501 09:41:10.857048 15372 net.cpp:382] ip4_ip4_0_split -> ip4_ip4_0_split_0
I0501 09:41:10.857058 15372 net.cpp:382] ip4_ip4_0_split -> ip4_ip4_0_split_1
I0501 09:41:10.857095 15372 net.cpp:124] Setting up ip4_ip4_0_split
I0501 09:41:10.857103 15372 net.cpp:131] Top shape: 1000 10 (10000)
I0501 09:41:10.857110 15372 net.cpp:131] Top shape: 1000 10 (10000)
I0501 09:41:10.857115 15372 net.cpp:139] Memory required for data: 179444000
I0501 09:41:10.857120 15372 layer_factory.hpp:77] Creating layer accuracy
I0501 09:41:10.857128 15372 net.cpp:86] Creating Layer accuracy
I0501 09:41:10.857134 15372 net.cpp:408] accuracy <- ip4_ip4_0_split_0
I0501 09:41:10.857141 15372 net.cpp:408] accuracy <- label_cifar_1_split_0
I0501 09:41:10.857148 15372 net.cpp:382] accuracy -> accuracy
…
