…
I0501 07:11:07.452282  3921 net.cpp:296] The NetState phase (0) differed from the phase (1) specified by a rule in layer cifar
I0501 07:11:07.452298  3921 net.cpp:296] The NetState phase (0) differed from the phase (1) specified by a rule in layer accuracy
I0501 07:11:07.452388  3921 net.cpp:53] Initializing net from parameters: 
name: "CIFAR"
state {
  phase: TRAIN
  level: 0
  stage: ""
}
layer {
  name: "cifar"
  type: "Data"
  top: "data"
  top: "label"
  include {
    phase: TRAIN
  }
  transform_param {
    mean_file: "examples/cifar10/mean.binaryproto"
  }
  data_param {
    source: "examples/cifar10/cifar10_train_lmdb"
    batch_size: 111
    backend: LMDB
  }
}
layer {
  name: "conv0"
  type: "Convolution"
  bottom: "data"
  top: "conv0"
  param {
    lr_mult: 1
  }
  param {
    lr_mult: 2
  }
  convolution_param {
    num_output: 16
    pad: 2
    kernel_size: 3
    stride: 1
    weight_filler {
      type: "gaussian"
      std: 0.01
    }
    bias_filler {
      type: "constant"
    }
  }
}
layer {
  name: "Sigmoid0"
  type: "Sigmoid"
  bottom: "conv0"
  top: "Sigmoid0"
}
layer {
  name: "pool0"
  type: "Pooling"
  bottom: "Sigmoid0"
  top: "pool0"
  pooling_param {
    pool: AVE
    kernel_size: 3
    stride: 2
  }
}
layer {
  name: "ip1"
  type: "InnerProduct"
  bottom: "pool0"
  top: "ip1"
  param {
    lr_mult: 1
  }
  param {
    lr_mult: 2
  }
  inner_product_param {
    num_output: 10
    weight_filler {
      type: "gaussian"
      std: 0.01
    }
    bias_filler {
      type: "constant"
    }
  }
}
layer {
  name: "relu1"
  type: "ReLU"
  bottom: "ip1"
  top: "ip1"
}
layer {
  name: "ip2"
  type: "InnerProduct"
  bottom: "ip1"
  top: "ip2"
  param {
    lr_mult: 1
  }
  param {
    lr_mult: 2
  }
  inner_product_param {
    num_output: 160
    weight_filler {
      type: "gaussian"
      std: 0.01
    }
    bias_filler {
      type: "constant"
    }
  }
}
layer {
  name: "relu2"
  type: "ReLU"
  bottom: "ip2"
  top: "ip2"
}
layer {
  name: "ip3"
  type: "InnerProduct"
  bottom: "ip2"
  top: "ip3"
  param {
    lr_mult: 1
  }
  param {
    lr_mult: 2
  }
  inner_product_param {
    num_output: 10
    weight_filler {
      type: "gaussian"
      std: 0.01
    }
    bias_filler {
      type: "constant"
    }
  }
}
layer {
  name: "loss"
  type: "SoftmaxWithLoss"
  bottom: "ip3"
  bottom: "label"
  top: "loss"
}
I0501 07:11:07.452455  3921 layer_factory.hpp:77] Creating layer cifar
I0501 07:11:07.452558  3921 db_lmdb.cpp:35] Opened lmdb examples/cifar10/cifar10_train_lmdb
I0501 07:11:07.452585  3921 net.cpp:86] Creating Layer cifar
I0501 07:11:07.452594  3921 net.cpp:382] cifar -> data
I0501 07:11:07.452616  3921 net.cpp:382] cifar -> label
I0501 07:11:07.452628  3921 data_transformer.cpp:25] Loading mean file from: examples/cifar10/mean.binaryproto
I0501 07:11:07.454790  3921 data_layer.cpp:45] output data size: 111,3,32,32
I0501 07:11:07.462977  3921 net.cpp:124] Setting up cifar
I0501 07:11:07.462997  3921 net.cpp:131] Top shape: 111 3 32 32 (340992)
I0501 07:11:07.463003  3921 net.cpp:131] Top shape: 111 (111)
I0501 07:11:07.463007  3921 net.cpp:139] Memory required for data: 1364412
I0501 07:11:07.463016  3921 layer_factory.hpp:77] Creating layer conv0
I0501 07:11:07.463033  3921 net.cpp:86] Creating Layer conv0
I0501 07:11:07.463040  3921 net.cpp:408] conv0 <- data
I0501 07:11:07.463052  3921 net.cpp:382] conv0 -> conv0
I0501 07:11:07.729748  3921 net.cpp:124] Setting up conv0
I0501 07:11:07.729792  3921 net.cpp:131] Top shape: 111 16 34 34 (2053056)
I0501 07:11:07.729796  3921 net.cpp:139] Memory required for data: 9576636
I0501 07:11:07.729810  3921 layer_factory.hpp:77] Creating layer Sigmoid0
I0501 07:11:07.729822  3921 net.cpp:86] Creating Layer Sigmoid0
I0501 07:11:07.729826  3921 net.cpp:408] Sigmoid0 <- conv0
I0501 07:11:07.729830  3921 net.cpp:382] Sigmoid0 -> Sigmoid0
I0501 07:11:07.730012  3921 net.cpp:124] Setting up Sigmoid0
I0501 07:11:07.730022  3921 net.cpp:131] Top shape: 111 16 34 34 (2053056)
I0501 07:11:07.730026  3921 net.cpp:139] Memory required for data: 17788860
I0501 07:11:07.730028  3921 layer_factory.hpp:77] Creating layer pool0
I0501 07:11:07.730034  3921 net.cpp:86] Creating Layer pool0
I0501 07:11:07.730038  3921 net.cpp:408] pool0 <- Sigmoid0
I0501 07:11:07.730043  3921 net.cpp:382] pool0 -> pool0
I0501 07:11:07.730770  3921 net.cpp:124] Setting up pool0
I0501 07:11:07.730782  3921 net.cpp:131] Top shape: 111 16 17 17 (513264)
I0501 07:11:07.730785  3921 net.cpp:139] Memory required for data: 19841916
I0501 07:11:07.730788  3921 layer_factory.hpp:77] Creating layer ip1
I0501 07:11:07.730798  3921 net.cpp:86] Creating Layer ip1
I0501 07:11:07.730800  3921 net.cpp:408] ip1 <- pool0
I0501 07:11:07.730805  3921 net.cpp:382] ip1 -> ip1
I0501 07:11:07.732898  3921 net.cpp:124] Setting up ip1
I0501 07:11:07.732909  3921 net.cpp:131] Top shape: 111 10 (1110)
I0501 07:11:07.732928  3921 net.cpp:139] Memory required for data: 19846356
I0501 07:11:07.732936  3921 layer_factory.hpp:77] Creating layer relu1
I0501 07:11:07.732942  3921 net.cpp:86] Creating Layer relu1
I0501 07:11:07.732946  3921 net.cpp:408] relu1 <- ip1
I0501 07:11:07.732950  3921 net.cpp:369] relu1 -> ip1 (in-place)
I0501 07:11:07.733116  3921 net.cpp:124] Setting up relu1
I0501 07:11:07.733125  3921 net.cpp:131] Top shape: 111 10 (1110)
I0501 07:11:07.733129  3921 net.cpp:139] Memory required for data: 19850796
I0501 07:11:07.733131  3921 layer_factory.hpp:77] Creating layer ip2
I0501 07:11:07.733139  3921 net.cpp:86] Creating Layer ip2
I0501 07:11:07.733142  3921 net.cpp:408] ip2 <- ip1
I0501 07:11:07.733161  3921 net.cpp:382] ip2 -> ip2
I0501 07:11:07.733289  3921 net.cpp:124] Setting up ip2
I0501 07:11:07.733295  3921 net.cpp:131] Top shape: 111 160 (17760)
I0501 07:11:07.733297  3921 net.cpp:139] Memory required for data: 19921836
I0501 07:11:07.733304  3921 layer_factory.hpp:77] Creating layer relu2
I0501 07:11:07.733309  3921 net.cpp:86] Creating Layer relu2
I0501 07:11:07.733312  3921 net.cpp:408] relu2 <- ip2
I0501 07:11:07.733316  3921 net.cpp:369] relu2 -> ip2 (in-place)
I0501 07:11:07.733458  3921 net.cpp:124] Setting up relu2
I0501 07:11:07.733464  3921 net.cpp:131] Top shape: 111 160 (17760)
I0501 07:11:07.733467  3921 net.cpp:139] Memory required for data: 19992876
I0501 07:11:07.733470  3921 layer_factory.hpp:77] Creating layer ip3
I0501 07:11:07.733477  3921 net.cpp:86] Creating Layer ip3
I0501 07:11:07.733480  3921 net.cpp:408] ip3 <- ip2
I0501 07:11:07.733484  3921 net.cpp:382] ip3 -> ip3
I0501 07:11:07.733609  3921 net.cpp:124] Setting up ip3
I0501 07:11:07.733616  3921 net.cpp:131] Top shape: 111 10 (1110)
I0501 07:11:07.733619  3921 net.cpp:139] Memory required for data: 19997316
I0501 07:11:07.733624  3921 layer_factory.hpp:77] Creating layer loss
I0501 07:11:07.733645  3921 net.cpp:86] Creating Layer loss
I0501 07:11:07.733649  3921 net.cpp:408] loss <- ip3
I0501 07:11:07.733651  3921 net.cpp:408] loss <- label
I0501 07:11:07.733656  3921 net.cpp:382] loss -> loss
I0501 07:11:07.733675  3921 layer_factory.hpp:77] Creating layer loss
…
I0501 07:11:07.734251  3921 solver.cpp:173] Creating test net (#0) specified by net file: ECE595/cifar/train_test/var_everything/cifar_train_test_474.prototxt
I0501 07:11:07.734274  3921 net.cpp:296] The NetState phase (1) differed from the phase (0) specified by a rule in layer cifar
I0501 07:11:07.734354  3921 net.cpp:53] Initializing net from parameters: 
name: "CIFAR"
state {
  phase: TEST
}
layer {
  name: "cifar"
  type: "Data"
  top: "data"
  top: "label"
  include {
    phase: TEST
  }
  transform_param {
    mean_file: "examples/cifar10/mean.binaryproto"
  }
  data_param {
    source: "examples/cifar10/cifar10_test_lmdb"
    batch_size: 1000
    backend: LMDB
  }
}
layer {
  name: "conv0"
  type: "Convolution"
  bottom: "data"
  top: "conv0"
  param {
    lr_mult: 1
  }
  param {
    lr_mult: 2
  }
  convolution_param {
    num_output: 16
    pad: 2
    kernel_size: 3
    stride: 1
    weight_filler {
      type: "gaussian"
      std: 0.01
    }
    bias_filler {
      type: "constant"
    }
  }
}
layer {
  name: "Sigmoid0"
  type: "Sigmoid"
  bottom: "conv0"
  top: "Sigmoid0"
}
layer {
  name: "pool0"
  type: "Pooling"
  bottom: "Sigmoid0"
  top: "pool0"
  pooling_param {
    pool: AVE
    kernel_size: 3
    stride: 2
  }
}
layer {
  name: "ip1"
  type: "InnerProduct"
  bottom: "pool0"
  top: "ip1"
  param {
    lr_mult: 1
  }
  param {
    lr_mult: 2
  }
  inner_product_param {
    num_output: 10
    weight_filler {
      type: "gaussian"
      std: 0.01
    }
    bias_filler {
      type: "constant"
    }
  }
}
layer {
  name: "relu1"
  type: "ReLU"
  bottom: "ip1"
  top: "ip1"
}
layer {
  name: "ip2"
  type: "InnerProduct"
  bottom: "ip1"
  top: "ip2"
  param {
    lr_mult: 1
  }
  param {
    lr_mult: 2
  }
  inner_product_param {
    num_output: 160
    weight_filler {
      type: "gaussian"
      std: 0.01
    }
    bias_filler {
      type: "constant"
    }
  }
}
layer {
  name: "relu2"
  type: "ReLU"
  bottom: "ip2"
  top: "ip2"
}
layer {
  name: "ip3"
  type: "InnerProduct"
  bottom: "ip2"
  top: "ip3"
  param {
    lr_mult: 1
  }
  param {
    lr_mult: 2
  }
  inner_product_param {
    num_output: 10
    weight_filler {
      type: "gaussian"
      std: 0.01
    }
    bias_filler {
      type: "constant"
    }
  }
}
layer {
  name: "accuracy"
  type: "Accuracy"
  bottom: "ip3"
  bottom: "label"
  top: "accuracy"
  include {
    phase: TEST
  }
}
layer {
  name: "loss"
  type: "SoftmaxWithLoss"
  bottom: "ip3"
  bottom: "label"
  top: "loss"
}
I0501 07:11:07.734412  3921 layer_factory.hpp:77] Creating layer cifar
I0501 07:11:07.734472  3921 db_lmdb.cpp:35] Opened lmdb examples/cifar10/cifar10_test_lmdb
I0501 07:11:07.734485  3921 net.cpp:86] Creating Layer cifar
I0501 07:11:07.734489  3921 net.cpp:382] cifar -> data
I0501 07:11:07.734496  3921 net.cpp:382] cifar -> label
I0501 07:11:07.734503  3921 data_transformer.cpp:25] Loading mean file from: examples/cifar10/mean.binaryproto
I0501 07:11:07.734640  3921 data_layer.cpp:45] output data size: 1000,3,32,32
I0501 07:11:07.756837  3921 net.cpp:124] Setting up cifar
I0501 07:11:07.756878  3921 net.cpp:131] Top shape: 1000 3 32 32 (3072000)
I0501 07:11:07.756884  3921 net.cpp:131] Top shape: 1000 (1000)
I0501 07:11:07.756888  3921 net.cpp:139] Memory required for data: 12292000
I0501 07:11:07.756911  3921 layer_factory.hpp:77] Creating layer label_cifar_1_split
I0501 07:11:07.756923  3921 net.cpp:86] Creating Layer label_cifar_1_split
I0501 07:11:07.756960  3921 net.cpp:408] label_cifar_1_split <- label
I0501 07:11:07.756968  3921 net.cpp:382] label_cifar_1_split -> label_cifar_1_split_0
I0501 07:11:07.756976  3921 net.cpp:382] label_cifar_1_split -> label_cifar_1_split_1
I0501 07:11:07.757081  3921 net.cpp:124] Setting up label_cifar_1_split
I0501 07:11:07.757089  3921 net.cpp:131] Top shape: 1000 (1000)
I0501 07:11:07.757093  3921 net.cpp:131] Top shape: 1000 (1000)
I0501 07:11:07.757097  3921 net.cpp:139] Memory required for data: 12300000
I0501 07:11:07.757100  3921 layer_factory.hpp:77] Creating layer conv0
I0501 07:11:07.757112  3921 net.cpp:86] Creating Layer conv0
I0501 07:11:07.757117  3921 net.cpp:408] conv0 <- data
I0501 07:11:07.757122  3921 net.cpp:382] conv0 -> conv0
I0501 07:11:07.758615  3921 net.cpp:124] Setting up conv0
I0501 07:11:07.758643  3921 net.cpp:131] Top shape: 1000 16 34 34 (18496000)
I0501 07:11:07.758647  3921 net.cpp:139] Memory required for data: 86284000
I0501 07:11:07.758657  3921 layer_factory.hpp:77] Creating layer Sigmoid0
I0501 07:11:07.758666  3921 net.cpp:86] Creating Layer Sigmoid0
I0501 07:11:07.758668  3921 net.cpp:408] Sigmoid0 <- conv0
I0501 07:11:07.758672  3921 net.cpp:382] Sigmoid0 -> Sigmoid0
I0501 07:11:07.759532  3921 net.cpp:124] Setting up Sigmoid0
I0501 07:11:07.759560  3921 net.cpp:131] Top shape: 1000 16 34 34 (18496000)
I0501 07:11:07.759563  3921 net.cpp:139] Memory required for data: 160268000
I0501 07:11:07.759567  3921 layer_factory.hpp:77] Creating layer pool0
I0501 07:11:07.759575  3921 net.cpp:86] Creating Layer pool0
I0501 07:11:07.759579  3921 net.cpp:408] pool0 <- Sigmoid0
I0501 07:11:07.759583  3921 net.cpp:382] pool0 -> pool0
I0501 07:11:07.760737  3921 net.cpp:124] Setting up pool0
I0501 07:11:07.760746  3921 net.cpp:131] Top shape: 1000 16 17 17 (4624000)
I0501 07:11:07.760764  3921 net.cpp:139] Memory required for data: 178764000
I0501 07:11:07.760768  3921 layer_factory.hpp:77] Creating layer ip1
I0501 07:11:07.760776  3921 net.cpp:86] Creating Layer ip1
I0501 07:11:07.760778  3921 net.cpp:408] ip1 <- pool0
I0501 07:11:07.760783  3921 net.cpp:382] ip1 -> ip1
I0501 07:11:07.762173  3921 net.cpp:124] Setting up ip1
I0501 07:11:07.762181  3921 net.cpp:131] Top shape: 1000 10 (10000)
I0501 07:11:07.762200  3921 net.cpp:139] Memory required for data: 178804000
I0501 07:11:07.762207  3921 layer_factory.hpp:77] Creating layer relu1
I0501 07:11:07.762213  3921 net.cpp:86] Creating Layer relu1
I0501 07:11:07.762217  3921 net.cpp:408] relu1 <- ip1
I0501 07:11:07.762220  3921 net.cpp:369] relu1 -> ip1 (in-place)
I0501 07:11:07.762392  3921 net.cpp:124] Setting up relu1
I0501 07:11:07.762399  3921 net.cpp:131] Top shape: 1000 10 (10000)
I0501 07:11:07.762403  3921 net.cpp:139] Memory required for data: 178844000
I0501 07:11:07.762421  3921 layer_factory.hpp:77] Creating layer ip2
I0501 07:11:07.762428  3921 net.cpp:86] Creating Layer ip2
I0501 07:11:07.762430  3921 net.cpp:408] ip2 <- ip1
I0501 07:11:07.762435  3921 net.cpp:382] ip2 -> ip2
I0501 07:11:07.762575  3921 net.cpp:124] Setting up ip2
I0501 07:11:07.762583  3921 net.cpp:131] Top shape: 1000 160 (160000)
I0501 07:11:07.762586  3921 net.cpp:139] Memory required for data: 179484000
I0501 07:11:07.762593  3921 layer_factory.hpp:77] Creating layer relu2
I0501 07:11:07.762598  3921 net.cpp:86] Creating Layer relu2
I0501 07:11:07.762603  3921 net.cpp:408] relu2 <- ip2
I0501 07:11:07.762606  3921 net.cpp:369] relu2 -> ip2 (in-place)
I0501 07:11:07.762753  3921 net.cpp:124] Setting up relu2
I0501 07:11:07.762760  3921 net.cpp:131] Top shape: 1000 160 (160000)
I0501 07:11:07.762764  3921 net.cpp:139] Memory required for data: 180124000
I0501 07:11:07.762768  3921 layer_factory.hpp:77] Creating layer ip3
I0501 07:11:07.762773  3921 net.cpp:86] Creating Layer ip3
I0501 07:11:07.762776  3921 net.cpp:408] ip3 <- ip2
I0501 07:11:07.762781  3921 net.cpp:382] ip3 -> ip3
I0501 07:11:07.762915  3921 net.cpp:124] Setting up ip3
I0501 07:11:07.762923  3921 net.cpp:131] Top shape: 1000 10 (10000)
I0501 07:11:07.762935  3921 net.cpp:139] Memory required for data: 180164000
I0501 07:11:07.762941  3921 layer_factory.hpp:77] Creating layer ip3_ip3_0_split
I0501 07:11:07.762946  3921 net.cpp:86] Creating Layer ip3_ip3_0_split
I0501 07:11:07.762949  3921 net.cpp:408] ip3_ip3_0_split <- ip3
I0501 07:11:07.762953  3921 net.cpp:382] ip3_ip3_0_split -> ip3_ip3_0_split_0
I0501 07:11:07.762959  3921 net.cpp:382] ip3_ip3_0_split -> ip3_ip3_0_split_1
I0501 07:11:07.762991  3921 net.cpp:124] Setting up ip3_ip3_0_split
I0501 07:11:07.762995  3921 net.cpp:131] Top shape: 1000 10 (10000)
I0501 07:11:07.763000  3921 net.cpp:131] Top shape: 1000 10 (10000)
I0501 07:11:07.763001  3921 net.cpp:139] Memory required for data: 180244000
I0501 07:11:07.763005  3921 layer_factory.hpp:77] Creating layer accuracy
I0501 07:11:07.763010  3921 net.cpp:86] Creating Layer accuracy
I0501 07:11:07.763012  3921 net.cpp:408] accuracy <- ip3_ip3_0_split_0
I0501 07:11:07.763017  3921 net.cpp:408] accuracy <- label_cifar_1_split_0
I0501 07:11:07.763022  3921 net.cpp:382] accuracy -> accuracy
…
