…
I0430 22:33:02.868264  2498 net.cpp:296] The NetState phase (0) differed from the phase (1) specified by a rule in layer cifar
I0430 22:33:02.868280  2498 net.cpp:296] The NetState phase (0) differed from the phase (1) specified by a rule in layer accuracy
I0430 22:33:02.868381  2498 net.cpp:53] Initializing net from parameters: 
name: "CIFAR"
state {
  phase: TRAIN
  level: 0
  stage: ""
}
layer {
  name: "cifar"
  type: "Data"
  top: "data"
  top: "label"
  include {
    phase: TRAIN
  }
  transform_param {
    mean_file: "examples/cifar10/mean.binaryproto"
  }
  data_param {
    source: "examples/cifar10/cifar10_train_lmdb"
    batch_size: 111
    backend: LMDB
  }
}
layer {
  name: "conv0"
  type: "Convolution"
  bottom: "data"
  top: "conv0"
  param {
    lr_mult: 1
  }
  param {
    lr_mult: 2
  }
  convolution_param {
    num_output: 8
    pad: 2
    kernel_size: 3
    stride: 1
    weight_filler {
      type: "gaussian"
      std: 0.01
    }
    bias_filler {
      type: "constant"
    }
  }
}
layer {
  name: "Sigmoid0"
  type: "Sigmoid"
  bottom: "conv0"
  top: "Sigmoid0"
}
layer {
  name: "pool0"
  type: "Pooling"
  bottom: "Sigmoid0"
  top: "pool0"
  pooling_param {
    pool: AVE
    kernel_size: 3
    stride: 2
  }
}
layer {
  name: "ip1"
  type: "InnerProduct"
  bottom: "pool0"
  top: "ip1"
  param {
    lr_mult: 1
  }
  param {
    lr_mult: 2
  }
  inner_product_param {
    num_output: 10
    weight_filler {
      type: "gaussian"
      std: 0.01
    }
    bias_filler {
      type: "constant"
    }
  }
}
layer {
  name: "relu1"
  type: "ReLU"
  bottom: "ip1"
  top: "ip1"
}
layer {
  name: "ip2"
  type: "InnerProduct"
  bottom: "ip1"
  top: "ip2"
  param {
    lr_mult: 1
  }
  param {
    lr_mult: 2
  }
  inner_product_param {
    num_output: 40
    weight_filler {
      type: "gaussian"
      std: 0.01
    }
    bias_filler {
      type: "constant"
    }
  }
}
layer {
  name: "relu2"
  type: "ReLU"
  bottom: "ip2"
  top: "ip2"
}
layer {
  name: "ip3"
  type: "InnerProduct"
  bottom: "ip2"
  top: "ip3"
  param {
    lr_mult: 1
  }
  param {
    lr_mult: 2
  }
  inner_product_param {
    num_output: 40
    weight_filler {
      type: "gaussian"
      std: 0.01
    }
    bias_filler {
      type: "constant"
    }
  }
}
layer {
  name: "relu3"
  type: "ReLU"
  bottom: "ip3"
  top: "ip3"
}
layer {
  name: "ip4"
  type: "InnerProduct"
  bottom: "ip3"
  top: "ip4"
  param {
    lr_mult: 1
  }
  param {
    lr_mult: 2
  }
  inner_product_param {
    num_output: 10
    weight_filler {
      type: "gaussian"
      std: 0.01
    }
    bias_filler {
      type: "constant"
    }
  }
}
layer {
  name: "loss"
  type: "SoftmaxWithLoss"
  bottom: "ip4"
  bottom: "label"
  top: "loss"
}
I0430 22:33:02.868443  2498 layer_factory.hpp:77] Creating layer cifar
I0430 22:33:02.868521  2498 db_lmdb.cpp:35] Opened lmdb examples/cifar10/cifar10_train_lmdb
I0430 22:33:02.868544  2498 net.cpp:86] Creating Layer cifar
I0430 22:33:02.868551  2498 net.cpp:382] cifar -> data
I0430 22:33:02.868569  2498 net.cpp:382] cifar -> label
I0430 22:33:02.868579  2498 data_transformer.cpp:25] Loading mean file from: examples/cifar10/mean.binaryproto
I0430 22:33:02.870355  2498 data_layer.cpp:45] output data size: 111,3,32,32
I0430 22:33:02.876724  2498 net.cpp:124] Setting up cifar
I0430 22:33:02.876739  2498 net.cpp:131] Top shape: 111 3 32 32 (340992)
I0430 22:33:02.876744  2498 net.cpp:131] Top shape: 111 (111)
I0430 22:33:02.876746  2498 net.cpp:139] Memory required for data: 1364412
I0430 22:33:02.876765  2498 layer_factory.hpp:77] Creating layer conv0
I0430 22:33:02.876806  2498 net.cpp:86] Creating Layer conv0
I0430 22:33:02.876833  2498 net.cpp:408] conv0 <- data
I0430 22:33:02.876847  2498 net.cpp:382] conv0 -> conv0
I0430 22:33:03.102679  2498 net.cpp:124] Setting up conv0
I0430 22:33:03.102704  2498 net.cpp:131] Top shape: 111 8 34 34 (1026528)
I0430 22:33:03.102707  2498 net.cpp:139] Memory required for data: 5470524
I0430 22:33:03.102721  2498 layer_factory.hpp:77] Creating layer Sigmoid0
I0430 22:33:03.102733  2498 net.cpp:86] Creating Layer Sigmoid0
I0430 22:33:03.102737  2498 net.cpp:408] Sigmoid0 <- conv0
I0430 22:33:03.102742  2498 net.cpp:382] Sigmoid0 -> Sigmoid0
I0430 22:33:03.102922  2498 net.cpp:124] Setting up Sigmoid0
I0430 22:33:03.102932  2498 net.cpp:131] Top shape: 111 8 34 34 (1026528)
I0430 22:33:03.102936  2498 net.cpp:139] Memory required for data: 9576636
I0430 22:33:03.102938  2498 layer_factory.hpp:77] Creating layer pool0
I0430 22:33:03.102946  2498 net.cpp:86] Creating Layer pool0
I0430 22:33:03.102948  2498 net.cpp:408] pool0 <- Sigmoid0
I0430 22:33:03.102952  2498 net.cpp:382] pool0 -> pool0
I0430 22:33:03.103682  2498 net.cpp:124] Setting up pool0
I0430 22:33:03.103693  2498 net.cpp:131] Top shape: 111 8 17 17 (256632)
I0430 22:33:03.103696  2498 net.cpp:139] Memory required for data: 10603164
I0430 22:33:03.103700  2498 layer_factory.hpp:77] Creating layer ip1
I0430 22:33:03.103708  2498 net.cpp:86] Creating Layer ip1
I0430 22:33:03.103713  2498 net.cpp:408] ip1 <- pool0
I0430 22:33:03.103716  2498 net.cpp:382] ip1 -> ip1
I0430 22:33:03.105365  2498 net.cpp:124] Setting up ip1
I0430 22:33:03.105392  2498 net.cpp:131] Top shape: 111 10 (1110)
I0430 22:33:03.105396  2498 net.cpp:139] Memory required for data: 10607604
I0430 22:33:03.105418  2498 layer_factory.hpp:77] Creating layer relu1
I0430 22:33:03.105425  2498 net.cpp:86] Creating Layer relu1
I0430 22:33:03.105428  2498 net.cpp:408] relu1 <- ip1
I0430 22:33:03.105432  2498 net.cpp:369] relu1 -> ip1 (in-place)
I0430 22:33:03.105605  2498 net.cpp:124] Setting up relu1
I0430 22:33:03.105614  2498 net.cpp:131] Top shape: 111 10 (1110)
I0430 22:33:03.105618  2498 net.cpp:139] Memory required for data: 10612044
I0430 22:33:03.105620  2498 layer_factory.hpp:77] Creating layer ip2
I0430 22:33:03.105628  2498 net.cpp:86] Creating Layer ip2
I0430 22:33:03.105630  2498 net.cpp:408] ip2 <- ip1
I0430 22:33:03.105635  2498 net.cpp:382] ip2 -> ip2
I0430 22:33:03.106583  2498 net.cpp:124] Setting up ip2
I0430 22:33:03.106595  2498 net.cpp:131] Top shape: 111 40 (4440)
I0430 22:33:03.106614  2498 net.cpp:139] Memory required for data: 10629804
I0430 22:33:03.106622  2498 layer_factory.hpp:77] Creating layer relu2
I0430 22:33:03.106631  2498 net.cpp:86] Creating Layer relu2
I0430 22:33:03.106633  2498 net.cpp:408] relu2 <- ip2
I0430 22:33:03.106638  2498 net.cpp:369] relu2 -> ip2 (in-place)
I0430 22:33:03.106842  2498 net.cpp:124] Setting up relu2
I0430 22:33:03.106851  2498 net.cpp:131] Top shape: 111 40 (4440)
I0430 22:33:03.106854  2498 net.cpp:139] Memory required for data: 10647564
I0430 22:33:03.106858  2498 layer_factory.hpp:77] Creating layer ip3
I0430 22:33:03.106864  2498 net.cpp:86] Creating Layer ip3
I0430 22:33:03.106868  2498 net.cpp:408] ip3 <- ip2
I0430 22:33:03.106874  2498 net.cpp:382] ip3 -> ip3
I0430 22:33:03.107014  2498 net.cpp:124] Setting up ip3
I0430 22:33:03.107022  2498 net.cpp:131] Top shape: 111 40 (4440)
I0430 22:33:03.107024  2498 net.cpp:139] Memory required for data: 10665324
I0430 22:33:03.107029  2498 layer_factory.hpp:77] Creating layer relu3
I0430 22:33:03.107034  2498 net.cpp:86] Creating Layer relu3
I0430 22:33:03.107038  2498 net.cpp:408] relu3 <- ip3
I0430 22:33:03.107043  2498 net.cpp:369] relu3 -> ip3 (in-place)
I0430 22:33:03.107197  2498 net.cpp:124] Setting up relu3
I0430 22:33:03.107204  2498 net.cpp:131] Top shape: 111 40 (4440)
I0430 22:33:03.107208  2498 net.cpp:139] Memory required for data: 10683084
I0430 22:33:03.107210  2498 layer_factory.hpp:77] Creating layer ip4
I0430 22:33:03.107230  2498 net.cpp:86] Creating Layer ip4
I0430 22:33:03.107234  2498 net.cpp:408] ip4 <- ip3
I0430 22:33:03.107239  2498 net.cpp:382] ip4 -> ip4
I0430 22:33:03.107345  2498 net.cpp:124] Setting up ip4
I0430 22:33:03.107353  2498 net.cpp:131] Top shape: 111 10 (1110)
I0430 22:33:03.107357  2498 net.cpp:139] Memory required for data: 10687524
I0430 22:33:03.107363  2498 layer_factory.hpp:77] Creating layer loss
I0430 22:33:03.107372  2498 net.cpp:86] Creating Layer loss
I0430 22:33:03.107375  2498 net.cpp:408] loss <- ip4
I0430 22:33:03.107378  2498 net.cpp:408] loss <- label
I0430 22:33:03.107384  2498 net.cpp:382] loss -> loss
I0430 22:33:03.107399  2498 layer_factory.hpp:77] Creating layer loss
…
I0430 22:33:03.108644  2498 solver.cpp:173] Creating test net (#0) specified by net file: ECE595/cifar/train_test/var_everything/cifar_train_test_197.prototxt
I0430 22:33:03.108670  2498 net.cpp:296] The NetState phase (1) differed from the phase (0) specified by a rule in layer cifar
I0430 22:33:03.108783  2498 net.cpp:53] Initializing net from parameters: 
name: "CIFAR"
state {
  phase: TEST
}
layer {
  name: "cifar"
  type: "Data"
  top: "data"
  top: "label"
  include {
    phase: TEST
  }
  transform_param {
    mean_file: "examples/cifar10/mean.binaryproto"
  }
  data_param {
    source: "examples/cifar10/cifar10_test_lmdb"
    batch_size: 1000
    backend: LMDB
  }
}
layer {
  name: "conv0"
  type: "Convolution"
  bottom: "data"
  top: "conv0"
  param {
    lr_mult: 1
  }
  param {
    lr_mult: 2
  }
  convolution_param {
    num_output: 8
    pad: 2
    kernel_size: 3
    stride: 1
    weight_filler {
      type: "gaussian"
      std: 0.01
    }
    bias_filler {
      type: "constant"
    }
  }
}
layer {
  name: "Sigmoid0"
  type: "Sigmoid"
  bottom: "conv0"
  top: "Sigmoid0"
}
layer {
  name: "pool0"
  type: "Pooling"
  bottom: "Sigmoid0"
  top: "pool0"
  pooling_param {
    pool: AVE
    kernel_size: 3
    stride: 2
  }
}
layer {
  name: "ip1"
  type: "InnerProduct"
  bottom: "pool0"
  top: "ip1"
  param {
    lr_mult: 1
  }
  param {
    lr_mult: 2
  }
  inner_product_param {
    num_output: 10
    weight_filler {
      type: "gaussian"
      std: 0.01
    }
    bias_filler {
      type: "constant"
    }
  }
}
layer {
  name: "relu1"
  type: "ReLU"
  bottom: "ip1"
  top: "ip1"
}
layer {
  name: "ip2"
  type: "InnerProduct"
  bottom: "ip1"
  top: "ip2"
  param {
    lr_mult: 1
  }
  param {
    lr_mult: 2
  }
  inner_product_param {
    num_output: 40
    weight_filler {
      type: "gaussian"
      std: 0.01
    }
    bias_filler {
      type: "constant"
    }
  }
}
layer {
  name: "relu2"
  type: "ReLU"
  bottom: "ip2"
  top: "ip2"
}
layer {
  name: "ip3"
  type: "InnerProduct"
  bottom: "ip2"
  top: "ip3"
  param {
    lr_mult: 1
  }
  param {
    lr_mult: 2
  }
  inner_product_param {
    num_output: 40
    weight_filler {
      type: "gaussian"
      std: 0.01
    }
    bias_filler {
      type: "constant"
    }
  }
}
layer {
  name: "relu3"
  type: "ReLU"
  bottom: "ip3"
  top: "ip3"
}
layer {
  name: "ip4"
  type: "InnerProduct"
  bottom: "ip3"
  top: "ip4"
  param {
    lr_mult: 1
  }
  param {
    lr_mult: 2
  }
  inner_product_param {
    num_output: 10
    weight_filler {
      type: "gaussian"
      std: 0.01
    }
    bias_filler {
      type: "constant"
    }
  }
}
layer {
  name: "accuracy"
  type: "Accuracy"
  bottom: "ip4"
  bottom: "label"
  top: "accuracy"
  include {
    phase: TEST
  }
}
layer {
  name: "loss"
  type: "SoftmaxWithLoss"
  bottom: "ip4"
  bottom: "label"
  top: "loss"
}
I0430 22:33:03.108889  2498 layer_factory.hpp:77] Creating layer cifar
I0430 22:33:03.108937  2498 db_lmdb.cpp:35] Opened lmdb examples/cifar10/cifar10_test_lmdb
I0430 22:33:03.108948  2498 net.cpp:86] Creating Layer cifar
I0430 22:33:03.108954  2498 net.cpp:382] cifar -> data
I0430 22:33:03.108963  2498 net.cpp:382] cifar -> label
I0430 22:33:03.108969  2498 data_transformer.cpp:25] Loading mean file from: examples/cifar10/mean.binaryproto
I0430 22:33:03.109145  2498 data_layer.cpp:45] output data size: 1000,3,32,32
I0430 22:33:03.132015  2498 net.cpp:124] Setting up cifar
I0430 22:33:03.132055  2498 net.cpp:131] Top shape: 1000 3 32 32 (3072000)
I0430 22:33:03.132077  2498 net.cpp:131] Top shape: 1000 (1000)
I0430 22:33:03.132081  2498 net.cpp:139] Memory required for data: 12292000
I0430 22:33:03.132086  2498 layer_factory.hpp:77] Creating layer label_cifar_1_split
I0430 22:33:03.132117  2498 net.cpp:86] Creating Layer label_cifar_1_split
I0430 22:33:03.132120  2498 net.cpp:408] label_cifar_1_split <- label
I0430 22:33:03.132127  2498 net.cpp:382] label_cifar_1_split -> label_cifar_1_split_0
I0430 22:33:03.132135  2498 net.cpp:382] label_cifar_1_split -> label_cifar_1_split_1
I0430 22:33:03.132230  2498 net.cpp:124] Setting up label_cifar_1_split
I0430 22:33:03.132237  2498 net.cpp:131] Top shape: 1000 (1000)
I0430 22:33:03.132241  2498 net.cpp:131] Top shape: 1000 (1000)
I0430 22:33:03.132244  2498 net.cpp:139] Memory required for data: 12300000
I0430 22:33:03.132247  2498 layer_factory.hpp:77] Creating layer conv0
I0430 22:33:03.132259  2498 net.cpp:86] Creating Layer conv0
I0430 22:33:03.132262  2498 net.cpp:408] conv0 <- data
I0430 22:33:03.132268  2498 net.cpp:382] conv0 -> conv0
I0430 22:33:03.134035  2498 net.cpp:124] Setting up conv0
I0430 22:33:03.134050  2498 net.cpp:131] Top shape: 1000 8 34 34 (9248000)
I0430 22:33:03.134053  2498 net.cpp:139] Memory required for data: 49292000
I0430 22:33:03.134063  2498 layer_factory.hpp:77] Creating layer Sigmoid0
I0430 22:33:03.134086  2498 net.cpp:86] Creating Layer Sigmoid0
I0430 22:33:03.134090  2498 net.cpp:408] Sigmoid0 <- conv0
I0430 22:33:03.134095  2498 net.cpp:382] Sigmoid0 -> Sigmoid0
I0430 22:33:03.134292  2498 net.cpp:124] Setting up Sigmoid0
I0430 22:33:03.134301  2498 net.cpp:131] Top shape: 1000 8 34 34 (9248000)
I0430 22:33:03.134305  2498 net.cpp:139] Memory required for data: 86284000
I0430 22:33:03.134308  2498 layer_factory.hpp:77] Creating layer pool0
I0430 22:33:03.134315  2498 net.cpp:86] Creating Layer pool0
I0430 22:33:03.134318  2498 net.cpp:408] pool0 <- Sigmoid0
I0430 22:33:03.134323  2498 net.cpp:382] pool0 -> pool0
I0430 22:33:03.134593  2498 net.cpp:124] Setting up pool0
I0430 22:33:03.134601  2498 net.cpp:131] Top shape: 1000 8 17 17 (2312000)
I0430 22:33:03.134604  2498 net.cpp:139] Memory required for data: 95532000
I0430 22:33:03.134608  2498 layer_factory.hpp:77] Creating layer ip1
I0430 22:33:03.134616  2498 net.cpp:86] Creating Layer ip1
I0430 22:33:03.134620  2498 net.cpp:408] ip1 <- pool0
I0430 22:33:03.134625  2498 net.cpp:382] ip1 -> ip1
I0430 22:33:03.136348  2498 net.cpp:124] Setting up ip1
I0430 22:33:03.136358  2498 net.cpp:131] Top shape: 1000 10 (10000)
I0430 22:33:03.136361  2498 net.cpp:139] Memory required for data: 95572000
I0430 22:33:03.136399  2498 layer_factory.hpp:77] Creating layer relu1
I0430 22:33:03.136405  2498 net.cpp:86] Creating Layer relu1
I0430 22:33:03.136409  2498 net.cpp:408] relu1 <- ip1
I0430 22:33:03.136415  2498 net.cpp:369] relu1 -> ip1 (in-place)
I0430 22:33:03.136598  2498 net.cpp:124] Setting up relu1
I0430 22:33:03.136606  2498 net.cpp:131] Top shape: 1000 10 (10000)
I0430 22:33:03.136610  2498 net.cpp:139] Memory required for data: 95612000
I0430 22:33:03.136613  2498 layer_factory.hpp:77] Creating layer ip2
I0430 22:33:03.136620  2498 net.cpp:86] Creating Layer ip2
I0430 22:33:03.136623  2498 net.cpp:408] ip2 <- ip1
I0430 22:33:03.136628  2498 net.cpp:382] ip2 -> ip2
I0430 22:33:03.136747  2498 net.cpp:124] Setting up ip2
I0430 22:33:03.136754  2498 net.cpp:131] Top shape: 1000 40 (40000)
I0430 22:33:03.136757  2498 net.cpp:139] Memory required for data: 95772000
I0430 22:33:03.136765  2498 layer_factory.hpp:77] Creating layer relu2
I0430 22:33:03.136771  2498 net.cpp:86] Creating Layer relu2
I0430 22:33:03.136775  2498 net.cpp:408] relu2 <- ip2
I0430 22:33:03.136778  2498 net.cpp:369] relu2 -> ip2 (in-place)
I0430 22:33:03.137641  2498 net.cpp:124] Setting up relu2
I0430 22:33:03.137653  2498 net.cpp:131] Top shape: 1000 40 (40000)
I0430 22:33:03.137657  2498 net.cpp:139] Memory required for data: 95932000
I0430 22:33:03.137661  2498 layer_factory.hpp:77] Creating layer ip3
I0430 22:33:03.137692  2498 net.cpp:86] Creating Layer ip3
I0430 22:33:03.137696  2498 net.cpp:408] ip3 <- ip2
I0430 22:33:03.137701  2498 net.cpp:382] ip3 -> ip3
I0430 22:33:03.137852  2498 net.cpp:124] Setting up ip3
I0430 22:33:03.137861  2498 net.cpp:131] Top shape: 1000 40 (40000)
I0430 22:33:03.137863  2498 net.cpp:139] Memory required for data: 96092000
I0430 22:33:03.137868  2498 layer_factory.hpp:77] Creating layer relu3
I0430 22:33:03.137873  2498 net.cpp:86] Creating Layer relu3
I0430 22:33:03.137876  2498 net.cpp:408] relu3 <- ip3
I0430 22:33:03.137881  2498 net.cpp:369] relu3 -> ip3 (in-place)
I0430 22:33:03.138034  2498 net.cpp:124] Setting up relu3
I0430 22:33:03.138042  2498 net.cpp:131] Top shape: 1000 40 (40000)
I0430 22:33:03.138046  2498 net.cpp:139] Memory required for data: 96252000
I0430 22:33:03.138048  2498 layer_factory.hpp:77] Creating layer ip4
I0430 22:33:03.138054  2498 net.cpp:86] Creating Layer ip4
I0430 22:33:03.138057  2498 net.cpp:408] ip4 <- ip3
I0430 22:33:03.138063  2498 net.cpp:382] ip4 -> ip4
I0430 22:33:03.138193  2498 net.cpp:124] Setting up ip4
I0430 22:33:03.138200  2498 net.cpp:131] Top shape: 1000 10 (10000)
I0430 22:33:03.138203  2498 net.cpp:139] Memory required for data: 96292000
I0430 22:33:03.138227  2498 layer_factory.hpp:77] Creating layer ip4_ip4_0_split
I0430 22:33:03.138233  2498 net.cpp:86] Creating Layer ip4_ip4_0_split
I0430 22:33:03.138236  2498 net.cpp:408] ip4_ip4_0_split <- ip4
I0430 22:33:03.138240  2498 net.cpp:382] ip4_ip4_0_split -> ip4_ip4_0_split_0
I0430 22:33:03.138247  2498 net.cpp:382] ip4_ip4_0_split -> ip4_ip4_0_split_1
I0430 22:33:03.138280  2498 net.cpp:124] Setting up ip4_ip4_0_split
I0430 22:33:03.138285  2498 net.cpp:131] Top shape: 1000 10 (10000)
I0430 22:33:03.138289  2498 net.cpp:131] Top shape: 1000 10 (10000)
I0430 22:33:03.138293  2498 net.cpp:139] Memory required for data: 96372000
I0430 22:33:03.138295  2498 layer_factory.hpp:77] Creating layer accuracy
I0430 22:33:03.138309  2498 net.cpp:86] Creating Layer accuracy
I0430 22:33:03.138312  2498 net.cpp:408] accuracy <- ip4_ip4_0_split_0
I0430 22:33:03.138316  2498 net.cpp:408] accuracy <- label_cifar_1_split_0
I0430 22:33:03.138322  2498 net.cpp:382] accuracy -> accuracy
…
