…
I0501 00:42:38.535408  7645 net.cpp:296] The NetState phase (0) differed from the phase (1) specified by a rule in layer cifar
I0501 00:42:38.535425  7645 net.cpp:296] The NetState phase (0) differed from the phase (1) specified by a rule in layer accuracy
I0501 00:42:38.535526  7645 net.cpp:53] Initializing net from parameters: 
name: "CIFAR"
state {
  phase: TRAIN
  level: 0
  stage: ""
}
layer {
  name: "cifar"
  type: "Data"
  top: "data"
  top: "label"
  include {
    phase: TRAIN
  }
  transform_param {
    mean_file: "examples/cifar10/mean.binaryproto"
  }
  data_param {
    source: "examples/cifar10/cifar10_train_lmdb"
    batch_size: 111
    backend: LMDB
  }
}
layer {
  name: "conv0"
  type: "Convolution"
  bottom: "data"
  top: "conv0"
  param {
    lr_mult: 1
  }
  param {
    lr_mult: 2
  }
  convolution_param {
    num_output: 8
    pad: 2
    kernel_size: 3
    stride: 1
    weight_filler {
      type: "gaussian"
      std: 0.01
    }
    bias_filler {
      type: "constant"
    }
  }
}
layer {
  name: "Sigmoid0"
  type: "Sigmoid"
  bottom: "conv0"
  top: "Sigmoid0"
}
layer {
  name: "pool0"
  type: "Pooling"
  bottom: "Sigmoid0"
  top: "pool0"
  pooling_param {
    pool: AVE
    kernel_size: 3
    stride: 2
  }
}
layer {
  name: "ip1"
  type: "InnerProduct"
  bottom: "pool0"
  top: "ip1"
  param {
    lr_mult: 1
  }
  param {
    lr_mult: 2
  }
  inner_product_param {
    num_output: 80
    weight_filler {
      type: "gaussian"
      std: 0.01
    }
    bias_filler {
      type: "constant"
    }
  }
}
layer {
  name: "relu1"
  type: "ReLU"
  bottom: "ip1"
  top: "ip1"
}
layer {
  name: "ip2"
  type: "InnerProduct"
  bottom: "ip1"
  top: "ip2"
  param {
    lr_mult: 1
  }
  param {
    lr_mult: 2
  }
  inner_product_param {
    num_output: 20
    weight_filler {
      type: "gaussian"
      std: 0.01
    }
    bias_filler {
      type: "constant"
    }
  }
}
layer {
  name: "relu2"
  type: "ReLU"
  bottom: "ip2"
  top: "ip2"
}
layer {
  name: "ip3"
  type: "InnerProduct"
  bottom: "ip2"
  top: "ip3"
  param {
    lr_mult: 1
  }
  param {
    lr_mult: 2
  }
  inner_product_param {
    num_output: 20
    weight_filler {
      type: "gaussian"
      std: 0.01
    }
    bias_filler {
      type: "constant"
    }
  }
}
layer {
  name: "relu3"
  type: "ReLU"
  bottom: "ip3"
  top: "ip3"
}
layer {
  name: "ip4"
  type: "InnerProduct"
  bottom: "ip3"
  top: "ip4"
  param {
    lr_mult: 1
  }
  param {
    lr_mult: 2
  }
  inner_product_param {
    num_output: 10
    weight_filler {
      type: "gaussian"
      std: 0.01
    }
    bias_filler {
      type: "constant"
    }
  }
}
layer {
  name: "loss"
  type: "SoftmaxWithLoss"
  bottom: "ip4"
  bottom: "label"
  top: "loss"
}
I0501 00:42:38.535598  7645 layer_factory.hpp:77] Creating layer cifar
I0501 00:42:38.535697  7645 db_lmdb.cpp:35] Opened lmdb examples/cifar10/cifar10_train_lmdb
I0501 00:42:38.535727  7645 net.cpp:86] Creating Layer cifar
I0501 00:42:38.535737  7645 net.cpp:382] cifar -> data
I0501 00:42:38.535759  7645 net.cpp:382] cifar -> label
I0501 00:42:38.535773  7645 data_transformer.cpp:25] Loading mean file from: examples/cifar10/mean.binaryproto
I0501 00:42:38.537884  7645 data_layer.cpp:45] output data size: 111,3,32,32
I0501 00:42:38.545733  7645 net.cpp:124] Setting up cifar
I0501 00:42:38.545753  7645 net.cpp:131] Top shape: 111 3 32 32 (340992)
I0501 00:42:38.545759  7645 net.cpp:131] Top shape: 111 (111)
I0501 00:42:38.545763  7645 net.cpp:139] Memory required for data: 1364412
I0501 00:42:38.545786  7645 layer_factory.hpp:77] Creating layer conv0
I0501 00:42:38.545804  7645 net.cpp:86] Creating Layer conv0
I0501 00:42:38.545809  7645 net.cpp:408] conv0 <- data
I0501 00:42:38.545822  7645 net.cpp:382] conv0 -> conv0
I0501 00:42:38.807919  7645 net.cpp:124] Setting up conv0
I0501 00:42:38.807946  7645 net.cpp:131] Top shape: 111 8 34 34 (1026528)
I0501 00:42:38.807950  7645 net.cpp:139] Memory required for data: 5470524
I0501 00:42:38.807965  7645 layer_factory.hpp:77] Creating layer Sigmoid0
I0501 00:42:38.807976  7645 net.cpp:86] Creating Layer Sigmoid0
I0501 00:42:38.807981  7645 net.cpp:408] Sigmoid0 <- conv0
I0501 00:42:38.807986  7645 net.cpp:382] Sigmoid0 -> Sigmoid0
I0501 00:42:38.808163  7645 net.cpp:124] Setting up Sigmoid0
I0501 00:42:38.808172  7645 net.cpp:131] Top shape: 111 8 34 34 (1026528)
I0501 00:42:38.808176  7645 net.cpp:139] Memory required for data: 9576636
I0501 00:42:38.808178  7645 layer_factory.hpp:77] Creating layer pool0
I0501 00:42:38.808185  7645 net.cpp:86] Creating Layer pool0
I0501 00:42:38.808188  7645 net.cpp:408] pool0 <- Sigmoid0
I0501 00:42:38.808194  7645 net.cpp:382] pool0 -> pool0
I0501 00:42:38.808938  7645 net.cpp:124] Setting up pool0
I0501 00:42:38.808966  7645 net.cpp:131] Top shape: 111 8 17 17 (256632)
I0501 00:42:38.808970  7645 net.cpp:139] Memory required for data: 10603164
I0501 00:42:38.808974  7645 layer_factory.hpp:77] Creating layer ip1
I0501 00:42:38.808987  7645 net.cpp:86] Creating Layer ip1
I0501 00:42:38.808991  7645 net.cpp:408] ip1 <- pool0
I0501 00:42:38.808996  7645 net.cpp:382] ip1 -> ip1
I0501 00:42:38.814630  7645 net.cpp:124] Setting up ip1
I0501 00:42:38.814641  7645 net.cpp:131] Top shape: 111 80 (8880)
I0501 00:42:38.814644  7645 net.cpp:139] Memory required for data: 10638684
I0501 00:42:38.814651  7645 layer_factory.hpp:77] Creating layer relu1
I0501 00:42:38.814657  7645 net.cpp:86] Creating Layer relu1
I0501 00:42:38.814661  7645 net.cpp:408] relu1 <- ip1
I0501 00:42:38.814664  7645 net.cpp:369] relu1 -> ip1 (in-place)
I0501 00:42:38.814849  7645 net.cpp:124] Setting up relu1
I0501 00:42:38.814858  7645 net.cpp:131] Top shape: 111 80 (8880)
I0501 00:42:38.814862  7645 net.cpp:139] Memory required for data: 10674204
I0501 00:42:38.814864  7645 layer_factory.hpp:77] Creating layer ip2
I0501 00:42:38.814872  7645 net.cpp:86] Creating Layer ip2
I0501 00:42:38.814875  7645 net.cpp:408] ip2 <- ip1
I0501 00:42:38.814880  7645 net.cpp:382] ip2 -> ip2
I0501 00:42:38.815022  7645 net.cpp:124] Setting up ip2
I0501 00:42:38.815029  7645 net.cpp:131] Top shape: 111 20 (2220)
I0501 00:42:38.815032  7645 net.cpp:139] Memory required for data: 10683084
I0501 00:42:38.815039  7645 layer_factory.hpp:77] Creating layer relu2
I0501 00:42:38.815044  7645 net.cpp:86] Creating Layer relu2
I0501 00:42:38.815047  7645 net.cpp:408] relu2 <- ip2
I0501 00:42:38.815052  7645 net.cpp:369] relu2 -> ip2 (in-place)
I0501 00:42:38.815219  7645 net.cpp:124] Setting up relu2
I0501 00:42:38.815227  7645 net.cpp:131] Top shape: 111 20 (2220)
I0501 00:42:38.815229  7645 net.cpp:139] Memory required for data: 10691964
I0501 00:42:38.815232  7645 layer_factory.hpp:77] Creating layer ip3
I0501 00:42:38.815240  7645 net.cpp:86] Creating Layer ip3
I0501 00:42:38.815243  7645 net.cpp:408] ip3 <- ip2
I0501 00:42:38.815248  7645 net.cpp:382] ip3 -> ip3
I0501 00:42:38.816141  7645 net.cpp:124] Setting up ip3
I0501 00:42:38.816169  7645 net.cpp:131] Top shape: 111 20 (2220)
I0501 00:42:38.816174  7645 net.cpp:139] Memory required for data: 10700844
I0501 00:42:38.816179  7645 layer_factory.hpp:77] Creating layer relu3
I0501 00:42:38.816184  7645 net.cpp:86] Creating Layer relu3
I0501 00:42:38.816187  7645 net.cpp:408] relu3 <- ip3
I0501 00:42:38.816192  7645 net.cpp:369] relu3 -> ip3 (in-place)
I0501 00:42:38.816375  7645 net.cpp:124] Setting up relu3
I0501 00:42:38.816385  7645 net.cpp:131] Top shape: 111 20 (2220)
I0501 00:42:38.816386  7645 net.cpp:139] Memory required for data: 10709724
I0501 00:42:38.816390  7645 layer_factory.hpp:77] Creating layer ip4
I0501 00:42:38.816409  7645 net.cpp:86] Creating Layer ip4
I0501 00:42:38.816412  7645 net.cpp:408] ip4 <- ip3
I0501 00:42:38.816418  7645 net.cpp:382] ip4 -> ip4
I0501 00:42:38.816516  7645 net.cpp:124] Setting up ip4
I0501 00:42:38.816524  7645 net.cpp:131] Top shape: 111 10 (1110)
I0501 00:42:38.816526  7645 net.cpp:139] Memory required for data: 10714164
I0501 00:42:38.816534  7645 layer_factory.hpp:77] Creating layer loss
I0501 00:42:38.816540  7645 net.cpp:86] Creating Layer loss
I0501 00:42:38.816542  7645 net.cpp:408] loss <- ip4
I0501 00:42:38.816545  7645 net.cpp:408] loss <- label
I0501 00:42:38.816551  7645 net.cpp:382] loss -> loss
I0501 00:42:38.816566  7645 layer_factory.hpp:77] Creating layer loss
…
I0501 00:42:38.817881  7645 solver.cpp:173] Creating test net (#0) specified by net file: ECE595/cifar/train_test/var_everything/cifar_train_test_266.prototxt
I0501 00:42:38.817909  7645 net.cpp:296] The NetState phase (1) differed from the phase (0) specified by a rule in layer cifar
I0501 00:42:38.818001  7645 net.cpp:53] Initializing net from parameters: 
name: "CIFAR"
state {
  phase: TEST
}
layer {
  name: "cifar"
  type: "Data"
  top: "data"
  top: "label"
  include {
    phase: TEST
  }
  transform_param {
    mean_file: "examples/cifar10/mean.binaryproto"
  }
  data_param {
    source: "examples/cifar10/cifar10_test_lmdb"
    batch_size: 1000
    backend: LMDB
  }
}
layer {
  name: "conv0"
  type: "Convolution"
  bottom: "data"
  top: "conv0"
  param {
    lr_mult: 1
  }
  param {
    lr_mult: 2
  }
  convolution_param {
    num_output: 8
    pad: 2
    kernel_size: 3
    stride: 1
    weight_filler {
      type: "gaussian"
      std: 0.01
    }
    bias_filler {
      type: "constant"
    }
  }
}
layer {
  name: "Sigmoid0"
  type: "Sigmoid"
  bottom: "conv0"
  top: "Sigmoid0"
}
layer {
  name: "pool0"
  type: "Pooling"
  bottom: "Sigmoid0"
  top: "pool0"
  pooling_param {
    pool: AVE
    kernel_size: 3
    stride: 2
  }
}
layer {
  name: "ip1"
  type: "InnerProduct"
  bottom: "pool0"
  top: "ip1"
  param {
    lr_mult: 1
  }
  param {
    lr_mult: 2
  }
  inner_product_param {
    num_output: 80
    weight_filler {
      type: "gaussian"
      std: 0.01
    }
    bias_filler {
      type: "constant"
    }
  }
}
layer {
  name: "relu1"
  type: "ReLU"
  bottom: "ip1"
  top: "ip1"
}
layer {
  name: "ip2"
  type: "InnerProduct"
  bottom: "ip1"
  top: "ip2"
  param {
    lr_mult: 1
  }
  param {
    lr_mult: 2
  }
  inner_product_param {
    num_output: 20
    weight_filler {
      type: "gaussian"
      std: 0.01
    }
    bias_filler {
      type: "constant"
    }
  }
}
layer {
  name: "relu2"
  type: "ReLU"
  bottom: "ip2"
  top: "ip2"
}
layer {
  name: "ip3"
  type: "InnerProduct"
  bottom: "ip2"
  top: "ip3"
  param {
    lr_mult: 1
  }
  param {
    lr_mult: 2
  }
  inner_product_param {
    num_output: 20
    weight_filler {
      type: "gaussian"
      std: 0.01
    }
    bias_filler {
      type: "constant"
    }
  }
}
layer {
  name: "relu3"
  type: "ReLU"
  bottom: "ip3"
  top: "ip3"
}
layer {
  name: "ip4"
  type: "InnerProduct"
  bottom: "ip3"
  top: "ip4"
  param {
    lr_mult: 1
  }
  param {
    lr_mult: 2
  }
  inner_product_param {
    num_output: 10
    weight_filler {
      type: "gaussian"
      std: 0.01
    }
    bias_filler {
      type: "constant"
    }
  }
}
layer {
  name: "accuracy"
  type: "Accuracy"
  bottom: "ip4"
  bottom: "label"
  top: "accuracy"
  include {
    phase: TEST
  }
}
layer {
  name: "loss"
  type: "SoftmaxWithLoss"
  bottom: "ip4"
  bottom: "label"
  top: "loss"
}
I0501 00:42:38.818095  7645 layer_factory.hpp:77] Creating layer cifar
I0501 00:42:38.818140  7645 db_lmdb.cpp:35] Opened lmdb examples/cifar10/cifar10_test_lmdb
I0501 00:42:38.818151  7645 net.cpp:86] Creating Layer cifar
I0501 00:42:38.818156  7645 net.cpp:382] cifar -> data
I0501 00:42:38.818163  7645 net.cpp:382] cifar -> label
I0501 00:42:38.818169  7645 data_transformer.cpp:25] Loading mean file from: examples/cifar10/mean.binaryproto
I0501 00:42:38.818310  7645 data_layer.cpp:45] output data size: 1000,3,32,32
I0501 00:42:38.839807  7645 net.cpp:124] Setting up cifar
I0501 00:42:38.839848  7645 net.cpp:131] Top shape: 1000 3 32 32 (3072000)
I0501 00:42:38.839854  7645 net.cpp:131] Top shape: 1000 (1000)
I0501 00:42:38.839856  7645 net.cpp:139] Memory required for data: 12292000
I0501 00:42:38.839861  7645 layer_factory.hpp:77] Creating layer label_cifar_1_split
I0501 00:42:38.839910  7645 net.cpp:86] Creating Layer label_cifar_1_split
I0501 00:42:38.839913  7645 net.cpp:408] label_cifar_1_split <- label
I0501 00:42:38.839921  7645 net.cpp:382] label_cifar_1_split -> label_cifar_1_split_0
I0501 00:42:38.839931  7645 net.cpp:382] label_cifar_1_split -> label_cifar_1_split_1
I0501 00:42:38.840037  7645 net.cpp:124] Setting up label_cifar_1_split
I0501 00:42:38.840045  7645 net.cpp:131] Top shape: 1000 (1000)
I0501 00:42:38.840049  7645 net.cpp:131] Top shape: 1000 (1000)
I0501 00:42:38.840052  7645 net.cpp:139] Memory required for data: 12300000
I0501 00:42:38.840055  7645 layer_factory.hpp:77] Creating layer conv0
I0501 00:42:38.840070  7645 net.cpp:86] Creating Layer conv0
I0501 00:42:38.840072  7645 net.cpp:408] conv0 <- data
I0501 00:42:38.840077  7645 net.cpp:382] conv0 -> conv0
I0501 00:42:38.841902  7645 net.cpp:124] Setting up conv0
I0501 00:42:38.841934  7645 net.cpp:131] Top shape: 1000 8 34 34 (9248000)
I0501 00:42:38.841938  7645 net.cpp:139] Memory required for data: 49292000
I0501 00:42:38.841948  7645 layer_factory.hpp:77] Creating layer Sigmoid0
I0501 00:42:38.841953  7645 net.cpp:86] Creating Layer Sigmoid0
I0501 00:42:38.841956  7645 net.cpp:408] Sigmoid0 <- conv0
I0501 00:42:38.841962  7645 net.cpp:382] Sigmoid0 -> Sigmoid0
I0501 00:42:38.842173  7645 net.cpp:124] Setting up Sigmoid0
I0501 00:42:38.842182  7645 net.cpp:131] Top shape: 1000 8 34 34 (9248000)
I0501 00:42:38.842185  7645 net.cpp:139] Memory required for data: 86284000
I0501 00:42:38.842188  7645 layer_factory.hpp:77] Creating layer pool0
I0501 00:42:38.842197  7645 net.cpp:86] Creating Layer pool0
I0501 00:42:38.842201  7645 net.cpp:408] pool0 <- Sigmoid0
I0501 00:42:38.842206  7645 net.cpp:382] pool0 -> pool0
I0501 00:42:38.842373  7645 net.cpp:124] Setting up pool0
I0501 00:42:38.842383  7645 net.cpp:131] Top shape: 1000 8 17 17 (2312000)
I0501 00:42:38.842387  7645 net.cpp:139] Memory required for data: 95532000
I0501 00:42:38.842391  7645 layer_factory.hpp:77] Creating layer ip1
I0501 00:42:38.842397  7645 net.cpp:86] Creating Layer ip1
I0501 00:42:38.842401  7645 net.cpp:408] ip1 <- pool0
I0501 00:42:38.842406  7645 net.cpp:382] ip1 -> ip1
I0501 00:42:38.847302  7645 net.cpp:124] Setting up ip1
I0501 00:42:38.847311  7645 net.cpp:131] Top shape: 1000 80 (80000)
I0501 00:42:38.847329  7645 net.cpp:139] Memory required for data: 95852000
I0501 00:42:38.847353  7645 layer_factory.hpp:77] Creating layer relu1
I0501 00:42:38.847360  7645 net.cpp:86] Creating Layer relu1
I0501 00:42:38.847363  7645 net.cpp:408] relu1 <- ip1
I0501 00:42:38.847368  7645 net.cpp:369] relu1 -> ip1 (in-place)
I0501 00:42:38.847573  7645 net.cpp:124] Setting up relu1
I0501 00:42:38.847581  7645 net.cpp:131] Top shape: 1000 80 (80000)
I0501 00:42:38.847585  7645 net.cpp:139] Memory required for data: 96172000
I0501 00:42:38.847589  7645 layer_factory.hpp:77] Creating layer ip2
I0501 00:42:38.847595  7645 net.cpp:86] Creating Layer ip2
I0501 00:42:38.847599  7645 net.cpp:408] ip2 <- ip1
I0501 00:42:38.847604  7645 net.cpp:382] ip2 -> ip2
I0501 00:42:38.847779  7645 net.cpp:124] Setting up ip2
I0501 00:42:38.847786  7645 net.cpp:131] Top shape: 1000 20 (20000)
I0501 00:42:38.847790  7645 net.cpp:139] Memory required for data: 96252000
I0501 00:42:38.847797  7645 layer_factory.hpp:77] Creating layer relu2
I0501 00:42:38.847818  7645 net.cpp:86] Creating Layer relu2
I0501 00:42:38.847822  7645 net.cpp:408] relu2 <- ip2
I0501 00:42:38.847826  7645 net.cpp:369] relu2 -> ip2 (in-place)
I0501 00:42:38.848583  7645 net.cpp:124] Setting up relu2
I0501 00:42:38.848594  7645 net.cpp:131] Top shape: 1000 20 (20000)
I0501 00:42:38.848618  7645 net.cpp:139] Memory required for data: 96332000
I0501 00:42:38.848621  7645 layer_factory.hpp:77] Creating layer ip3
I0501 00:42:38.848629  7645 net.cpp:86] Creating Layer ip3
I0501 00:42:38.848633  7645 net.cpp:408] ip3 <- ip2
I0501 00:42:38.848637  7645 net.cpp:382] ip3 -> ip3
I0501 00:42:38.848785  7645 net.cpp:124] Setting up ip3
I0501 00:42:38.848793  7645 net.cpp:131] Top shape: 1000 20 (20000)
I0501 00:42:38.848796  7645 net.cpp:139] Memory required for data: 96412000
I0501 00:42:38.848801  7645 layer_factory.hpp:77] Creating layer relu3
I0501 00:42:38.848806  7645 net.cpp:86] Creating Layer relu3
I0501 00:42:38.848830  7645 net.cpp:408] relu3 <- ip3
I0501 00:42:38.848836  7645 net.cpp:369] relu3 -> ip3 (in-place)
I0501 00:42:38.849019  7645 net.cpp:124] Setting up relu3
I0501 00:42:38.849027  7645 net.cpp:131] Top shape: 1000 20 (20000)
I0501 00:42:38.849030  7645 net.cpp:139] Memory required for data: 96492000
I0501 00:42:38.849033  7645 layer_factory.hpp:77] Creating layer ip4
I0501 00:42:38.849056  7645 net.cpp:86] Creating Layer ip4
I0501 00:42:38.849059  7645 net.cpp:408] ip4 <- ip3
I0501 00:42:38.849064  7645 net.cpp:382] ip4 -> ip4
I0501 00:42:38.849205  7645 net.cpp:124] Setting up ip4
I0501 00:42:38.849212  7645 net.cpp:131] Top shape: 1000 10 (10000)
I0501 00:42:38.849215  7645 net.cpp:139] Memory required for data: 96532000
I0501 00:42:38.849223  7645 layer_factory.hpp:77] Creating layer ip4_ip4_0_split
I0501 00:42:38.849230  7645 net.cpp:86] Creating Layer ip4_ip4_0_split
I0501 00:42:38.849232  7645 net.cpp:408] ip4_ip4_0_split <- ip4
I0501 00:42:38.849236  7645 net.cpp:382] ip4_ip4_0_split -> ip4_ip4_0_split_0
I0501 00:42:38.849241  7645 net.cpp:382] ip4_ip4_0_split -> ip4_ip4_0_split_1
I0501 00:42:38.849272  7645 net.cpp:124] Setting up ip4_ip4_0_split
I0501 00:42:38.849282  7645 net.cpp:131] Top shape: 1000 10 (10000)
I0501 00:42:38.849284  7645 net.cpp:131] Top shape: 1000 10 (10000)
I0501 00:42:38.849287  7645 net.cpp:139] Memory required for data: 96612000
I0501 00:42:38.849290  7645 layer_factory.hpp:77] Creating layer accuracy
I0501 00:42:38.849297  7645 net.cpp:86] Creating Layer accuracy
I0501 00:42:38.849299  7645 net.cpp:408] accuracy <- ip4_ip4_0_split_0
I0501 00:42:38.849303  7645 net.cpp:408] accuracy <- label_cifar_1_split_0
I0501 00:42:38.849309  7645 net.cpp:382] accuracy -> accuracy
…
