…
I0501 03:49:31.228581 22775 net.cpp:296] The NetState phase (0) differed from the phase (1) specified by a rule in layer cifar
I0501 03:49:31.228598 22775 net.cpp:296] The NetState phase (0) differed from the phase (1) specified by a rule in layer accuracy
I0501 03:49:31.228703 22775 net.cpp:53] Initializing net from parameters: 
name: "CIFAR"
state {
  phase: TRAIN
  level: 0
  stage: ""
}
layer {
  name: "cifar"
  type: "Data"
  top: "data"
  top: "label"
  include {
    phase: TRAIN
  }
  transform_param {
    mean_file: "examples/cifar10/mean.binaryproto"
  }
  data_param {
    source: "examples/cifar10/cifar10_train_lmdb"
    batch_size: 111
    backend: LMDB
  }
}
layer {
  name: "conv0"
  type: "Convolution"
  bottom: "data"
  top: "conv0"
  param {
    lr_mult: 1
  }
  param {
    lr_mult: 2
  }
  convolution_param {
    num_output: 8
    pad: 2
    kernel_size: 5
    stride: 1
    weight_filler {
      type: "gaussian"
      std: 0.01
    }
    bias_filler {
      type: "constant"
    }
  }
}
layer {
  name: "Sigmoid0"
  type: "Sigmoid"
  bottom: "conv0"
  top: "Sigmoid0"
}
layer {
  name: "pool0"
  type: "Pooling"
  bottom: "Sigmoid0"
  top: "pool0"
  pooling_param {
    pool: AVE
    kernel_size: 3
    stride: 2
  }
}
layer {
  name: "ip1"
  type: "InnerProduct"
  bottom: "pool0"
  top: "ip1"
  param {
    lr_mult: 1
  }
  param {
    lr_mult: 2
  }
  inner_product_param {
    num_output: 20
    weight_filler {
      type: "gaussian"
      std: 0.01
    }
    bias_filler {
      type: "constant"
    }
  }
}
layer {
  name: "relu1"
  type: "ReLU"
  bottom: "ip1"
  top: "ip1"
}
layer {
  name: "ip2"
  type: "InnerProduct"
  bottom: "ip1"
  top: "ip2"
  param {
    lr_mult: 1
  }
  param {
    lr_mult: 2
  }
  inner_product_param {
    num_output: 10
    weight_filler {
      type: "gaussian"
      std: 0.01
    }
    bias_filler {
      type: "constant"
    }
  }
}
layer {
  name: "relu2"
  type: "ReLU"
  bottom: "ip2"
  top: "ip2"
}
layer {
  name: "ip3"
  type: "InnerProduct"
  bottom: "ip2"
  top: "ip3"
  param {
    lr_mult: 1
  }
  param {
    lr_mult: 2
  }
  inner_product_param {
    num_output: 20
    weight_filler {
      type: "gaussian"
      std: 0.01
    }
    bias_filler {
      type: "constant"
    }
  }
}
layer {
  name: "relu3"
  type: "ReLU"
  bottom: "ip3"
  top: "ip3"
}
layer {
  name: "ip4"
  type: "InnerProduct"
  bottom: "ip3"
  top: "ip4"
  param {
    lr_mult: 1
  }
  param {
    lr_mult: 2
  }
  inner_product_param {
    num_output: 10
    weight_filler {
      type: "gaussian"
      std: 0.01
    }
    bias_filler {
      type: "constant"
    }
  }
}
layer {
  name: "loss"
  type: "SoftmaxWithLoss"
  bottom: "ip4"
  bottom: "label"
  top: "loss"
}
I0501 03:49:31.228782 22775 layer_factory.hpp:77] Creating layer cifar
I0501 03:49:31.228888 22775 db_lmdb.cpp:35] Opened lmdb examples/cifar10/cifar10_train_lmdb
I0501 03:49:31.228914 22775 net.cpp:86] Creating Layer cifar
I0501 03:49:31.228924 22775 net.cpp:382] cifar -> data
I0501 03:49:31.228946 22775 net.cpp:382] cifar -> label
I0501 03:49:31.228962 22775 data_transformer.cpp:25] Loading mean file from: examples/cifar10/mean.binaryproto
I0501 03:49:31.231086 22775 data_layer.cpp:45] output data size: 111,3,32,32
I0501 03:49:31.238951 22775 net.cpp:124] Setting up cifar
I0501 03:49:31.238970 22775 net.cpp:131] Top shape: 111 3 32 32 (340992)
I0501 03:49:31.238976 22775 net.cpp:131] Top shape: 111 (111)
I0501 03:49:31.238981 22775 net.cpp:139] Memory required for data: 1364412
I0501 03:49:31.239003 22775 layer_factory.hpp:77] Creating layer conv0
I0501 03:49:31.239023 22775 net.cpp:86] Creating Layer conv0
I0501 03:49:31.239029 22775 net.cpp:408] conv0 <- data
I0501 03:49:31.239042 22775 net.cpp:382] conv0 -> conv0
I0501 03:49:31.516234 22775 net.cpp:124] Setting up conv0
I0501 03:49:31.516278 22775 net.cpp:131] Top shape: 111 8 32 32 (909312)
I0501 03:49:31.516295 22775 net.cpp:139] Memory required for data: 5001660
I0501 03:49:31.516311 22775 layer_factory.hpp:77] Creating layer Sigmoid0
I0501 03:49:31.516322 22775 net.cpp:86] Creating Layer Sigmoid0
I0501 03:49:31.516341 22775 net.cpp:408] Sigmoid0 <- conv0
I0501 03:49:31.516346 22775 net.cpp:382] Sigmoid0 -> Sigmoid0
I0501 03:49:31.516507 22775 net.cpp:124] Setting up Sigmoid0
I0501 03:49:31.516516 22775 net.cpp:131] Top shape: 111 8 32 32 (909312)
I0501 03:49:31.516520 22775 net.cpp:139] Memory required for data: 8638908
I0501 03:49:31.516523 22775 layer_factory.hpp:77] Creating layer pool0
I0501 03:49:31.516530 22775 net.cpp:86] Creating Layer pool0
I0501 03:49:31.516532 22775 net.cpp:408] pool0 <- Sigmoid0
I0501 03:49:31.516537 22775 net.cpp:382] pool0 -> pool0
I0501 03:49:31.517300 22775 net.cpp:124] Setting up pool0
I0501 03:49:31.517313 22775 net.cpp:131] Top shape: 111 8 16 16 (227328)
I0501 03:49:31.517331 22775 net.cpp:139] Memory required for data: 9548220
I0501 03:49:31.517335 22775 layer_factory.hpp:77] Creating layer ip1
I0501 03:49:31.517344 22775 net.cpp:86] Creating Layer ip1
I0501 03:49:31.517348 22775 net.cpp:408] ip1 <- pool0
I0501 03:49:31.517352 22775 net.cpp:382] ip1 -> ip1
I0501 03:49:31.519296 22775 net.cpp:124] Setting up ip1
I0501 03:49:31.519307 22775 net.cpp:131] Top shape: 111 20 (2220)
I0501 03:49:31.519326 22775 net.cpp:139] Memory required for data: 9557100
I0501 03:49:31.519335 22775 layer_factory.hpp:77] Creating layer relu1
I0501 03:49:31.519340 22775 net.cpp:86] Creating Layer relu1
I0501 03:49:31.519343 22775 net.cpp:408] relu1 <- ip1
I0501 03:49:31.519347 22775 net.cpp:369] relu1 -> ip1 (in-place)
I0501 03:49:31.519529 22775 net.cpp:124] Setting up relu1
I0501 03:49:31.519538 22775 net.cpp:131] Top shape: 111 20 (2220)
I0501 03:49:31.519556 22775 net.cpp:139] Memory required for data: 9565980
I0501 03:49:31.519559 22775 layer_factory.hpp:77] Creating layer ip2
I0501 03:49:31.519565 22775 net.cpp:86] Creating Layer ip2
I0501 03:49:31.519568 22775 net.cpp:408] ip2 <- ip1
I0501 03:49:31.519573 22775 net.cpp:382] ip2 -> ip2
I0501 03:49:31.519666 22775 net.cpp:124] Setting up ip2
I0501 03:49:31.519673 22775 net.cpp:131] Top shape: 111 10 (1110)
I0501 03:49:31.519676 22775 net.cpp:139] Memory required for data: 9570420
I0501 03:49:31.519690 22775 layer_factory.hpp:77] Creating layer relu2
I0501 03:49:31.519693 22775 net.cpp:86] Creating Layer relu2
I0501 03:49:31.519696 22775 net.cpp:408] relu2 <- ip2
I0501 03:49:31.519701 22775 net.cpp:369] relu2 -> ip2 (in-place)
I0501 03:49:31.519858 22775 net.cpp:124] Setting up relu2
I0501 03:49:31.519866 22775 net.cpp:131] Top shape: 111 10 (1110)
I0501 03:49:31.519870 22775 net.cpp:139] Memory required for data: 9574860
I0501 03:49:31.519872 22775 layer_factory.hpp:77] Creating layer ip3
I0501 03:49:31.519879 22775 net.cpp:86] Creating Layer ip3
I0501 03:49:31.519882 22775 net.cpp:408] ip3 <- ip2
I0501 03:49:31.519886 22775 net.cpp:382] ip3 -> ip3
I0501 03:49:31.519973 22775 net.cpp:124] Setting up ip3
I0501 03:49:31.519979 22775 net.cpp:131] Top shape: 111 20 (2220)
I0501 03:49:31.519981 22775 net.cpp:139] Memory required for data: 9583740
I0501 03:49:31.519986 22775 layer_factory.hpp:77] Creating layer relu3
I0501 03:49:31.519991 22775 net.cpp:86] Creating Layer relu3
I0501 03:49:31.519994 22775 net.cpp:408] relu3 <- ip3
I0501 03:49:31.519997 22775 net.cpp:369] relu3 -> ip3 (in-place)
I0501 03:49:31.520130 22775 net.cpp:124] Setting up relu3
I0501 03:49:31.520138 22775 net.cpp:131] Top shape: 111 20 (2220)
I0501 03:49:31.520141 22775 net.cpp:139] Memory required for data: 9592620
I0501 03:49:31.520143 22775 layer_factory.hpp:77] Creating layer ip4
I0501 03:49:31.520164 22775 net.cpp:86] Creating Layer ip4
I0501 03:49:31.520166 22775 net.cpp:408] ip4 <- ip3
I0501 03:49:31.520170 22775 net.cpp:382] ip4 -> ip4
I0501 03:49:31.520256 22775 net.cpp:124] Setting up ip4
I0501 03:49:31.520264 22775 net.cpp:131] Top shape: 111 10 (1110)
I0501 03:49:31.520267 22775 net.cpp:139] Memory required for data: 9597060
I0501 03:49:31.520274 22775 layer_factory.hpp:77] Creating layer loss
I0501 03:49:31.520279 22775 net.cpp:86] Creating Layer loss
I0501 03:49:31.520282 22775 net.cpp:408] loss <- ip4
I0501 03:49:31.520285 22775 net.cpp:408] loss <- label
I0501 03:49:31.520290 22775 net.cpp:382] loss -> loss
I0501 03:49:31.520303 22775 layer_factory.hpp:77] Creating layer loss
…
I0501 03:49:31.521549 22775 solver.cpp:173] Creating test net (#0) specified by net file: ECE595/cifar/train_test/var_everything/cifar_train_test_366.prototxt
I0501 03:49:31.521575 22775 net.cpp:296] The NetState phase (1) differed from the phase (0) specified by a rule in layer cifar
I0501 03:49:31.521664 22775 net.cpp:53] Initializing net from parameters: 
name: "CIFAR"
state {
  phase: TEST
}
layer {
  name: "cifar"
  type: "Data"
  top: "data"
  top: "label"
  include {
    phase: TEST
  }
  transform_param {
    mean_file: "examples/cifar10/mean.binaryproto"
  }
  data_param {
    source: "examples/cifar10/cifar10_test_lmdb"
    batch_size: 1000
    backend: LMDB
  }
}
layer {
  name: "conv0"
  type: "Convolution"
  bottom: "data"
  top: "conv0"
  param {
    lr_mult: 1
  }
  param {
    lr_mult: 2
  }
  convolution_param {
    num_output: 8
    pad: 2
    kernel_size: 5
    stride: 1
    weight_filler {
      type: "gaussian"
      std: 0.01
    }
    bias_filler {
      type: "constant"
    }
  }
}
layer {
  name: "Sigmoid0"
  type: "Sigmoid"
  bottom: "conv0"
  top: "Sigmoid0"
}
layer {
  name: "pool0"
  type: "Pooling"
  bottom: "Sigmoid0"
  top: "pool0"
  pooling_param {
    pool: AVE
    kernel_size: 3
    stride: 2
  }
}
layer {
  name: "ip1"
  type: "InnerProduct"
  bottom: "pool0"
  top: "ip1"
  param {
    lr_mult: 1
  }
  param {
    lr_mult: 2
  }
  inner_product_param {
    num_output: 20
    weight_filler {
      type: "gaussian"
      std: 0.01
    }
    bias_filler {
      type: "constant"
    }
  }
}
layer {
  name: "relu1"
  type: "ReLU"
  bottom: "ip1"
  top: "ip1"
}
layer {
  name: "ip2"
  type: "InnerProduct"
  bottom: "ip1"
  top: "ip2"
  param {
    lr_mult: 1
  }
  param {
    lr_mult: 2
  }
  inner_product_param {
    num_output: 10
    weight_filler {
      type: "gaussian"
      std: 0.01
    }
    bias_filler {
      type: "constant"
    }
  }
}
layer {
  name: "relu2"
  type: "ReLU"
  bottom: "ip2"
  top: "ip2"
}
layer {
  name: "ip3"
  type: "InnerProduct"
  bottom: "ip2"
  top: "ip3"
  param {
    lr_mult: 1
  }
  param {
    lr_mult: 2
  }
  inner_product_param {
    num_output: 20
    weight_filler {
      type: "gaussian"
      std: 0.01
    }
    bias_filler {
      type: "constant"
    }
  }
}
layer {
  name: "relu3"
  type: "ReLU"
  bottom: "ip3"
  top: "ip3"
}
layer {
  name: "ip4"
  type: "InnerProduct"
  bottom: "ip3"
  top: "ip4"
  param {
    lr_mult: 1
  }
  param {
    lr_mult: 2
  }
  inner_product_param {
    num_output: 10
    weight_filler {
      type: "gaussian"
      std: 0.01
    }
    bias_filler {
      type: "constant"
    }
  }
}
layer {
  name: "accuracy"
  type: "Accuracy"
  bottom: "ip4"
  bottom: "label"
  top: "accuracy"
  include {
    phase: TEST
  }
}
layer {
  name: "loss"
  type: "SoftmaxWithLoss"
  bottom: "ip4"
  bottom: "label"
  top: "loss"
}
I0501 03:49:31.521770 22775 layer_factory.hpp:77] Creating layer cifar
I0501 03:49:31.521816 22775 db_lmdb.cpp:35] Opened lmdb examples/cifar10/cifar10_test_lmdb
I0501 03:49:31.521826 22775 net.cpp:86] Creating Layer cifar
I0501 03:49:31.521831 22775 net.cpp:382] cifar -> data
I0501 03:49:31.521837 22775 net.cpp:382] cifar -> label
I0501 03:49:31.521844 22775 data_transformer.cpp:25] Loading mean file from: examples/cifar10/mean.binaryproto
I0501 03:49:31.521981 22775 data_layer.cpp:45] output data size: 1000,3,32,32
I0501 03:49:31.543668 22775 net.cpp:124] Setting up cifar
I0501 03:49:31.543692 22775 net.cpp:131] Top shape: 1000 3 32 32 (3072000)
I0501 03:49:31.543697 22775 net.cpp:131] Top shape: 1000 (1000)
I0501 03:49:31.543700 22775 net.cpp:139] Memory required for data: 12292000
I0501 03:49:31.543706 22775 layer_factory.hpp:77] Creating layer label_cifar_1_split
I0501 03:49:31.543717 22775 net.cpp:86] Creating Layer label_cifar_1_split
I0501 03:49:31.543721 22775 net.cpp:408] label_cifar_1_split <- label
I0501 03:49:31.543741 22775 net.cpp:382] label_cifar_1_split -> label_cifar_1_split_0
I0501 03:49:31.543751 22775 net.cpp:382] label_cifar_1_split -> label_cifar_1_split_1
I0501 03:49:31.543799 22775 net.cpp:124] Setting up label_cifar_1_split
I0501 03:49:31.543804 22775 net.cpp:131] Top shape: 1000 (1000)
I0501 03:49:31.543807 22775 net.cpp:131] Top shape: 1000 (1000)
I0501 03:49:31.543810 22775 net.cpp:139] Memory required for data: 12300000
I0501 03:49:31.543813 22775 layer_factory.hpp:77] Creating layer conv0
I0501 03:49:31.543824 22775 net.cpp:86] Creating Layer conv0
I0501 03:49:31.543828 22775 net.cpp:408] conv0 <- data
I0501 03:49:31.543833 22775 net.cpp:382] conv0 -> conv0
I0501 03:49:31.545598 22775 net.cpp:124] Setting up conv0
I0501 03:49:31.545613 22775 net.cpp:131] Top shape: 1000 8 32 32 (8192000)
I0501 03:49:31.545616 22775 net.cpp:139] Memory required for data: 45068000
I0501 03:49:31.545625 22775 layer_factory.hpp:77] Creating layer Sigmoid0
I0501 03:49:31.545650 22775 net.cpp:86] Creating Layer Sigmoid0
I0501 03:49:31.545652 22775 net.cpp:408] Sigmoid0 <- conv0
I0501 03:49:31.545657 22775 net.cpp:382] Sigmoid0 -> Sigmoid0
I0501 03:49:31.545846 22775 net.cpp:124] Setting up Sigmoid0
I0501 03:49:31.545855 22775 net.cpp:131] Top shape: 1000 8 32 32 (8192000)
I0501 03:49:31.545858 22775 net.cpp:139] Memory required for data: 77836000
I0501 03:49:31.545861 22775 layer_factory.hpp:77] Creating layer pool0
I0501 03:49:31.545868 22775 net.cpp:86] Creating Layer pool0
I0501 03:49:31.545871 22775 net.cpp:408] pool0 <- Sigmoid0
I0501 03:49:31.545876 22775 net.cpp:382] pool0 -> pool0
I0501 03:49:31.546035 22775 net.cpp:124] Setting up pool0
I0501 03:49:31.546043 22775 net.cpp:131] Top shape: 1000 8 16 16 (2048000)
I0501 03:49:31.546046 22775 net.cpp:139] Memory required for data: 86028000
I0501 03:49:31.546049 22775 layer_factory.hpp:77] Creating layer ip1
I0501 03:49:31.546057 22775 net.cpp:86] Creating Layer ip1
I0501 03:49:31.546061 22775 net.cpp:408] ip1 <- pool0
I0501 03:49:31.546066 22775 net.cpp:382] ip1 -> ip1
I0501 03:49:31.547317 22775 net.cpp:124] Setting up ip1
I0501 03:49:31.547325 22775 net.cpp:131] Top shape: 1000 20 (20000)
I0501 03:49:31.547328 22775 net.cpp:139] Memory required for data: 86108000
I0501 03:49:31.547365 22775 layer_factory.hpp:77] Creating layer relu1
I0501 03:49:31.547371 22775 net.cpp:86] Creating Layer relu1
I0501 03:49:31.547374 22775 net.cpp:408] relu1 <- ip1
I0501 03:49:31.547379 22775 net.cpp:369] relu1 -> ip1 (in-place)
I0501 03:49:31.547546 22775 net.cpp:124] Setting up relu1
I0501 03:49:31.547555 22775 net.cpp:131] Top shape: 1000 20 (20000)
I0501 03:49:31.547559 22775 net.cpp:139] Memory required for data: 86188000
I0501 03:49:31.547561 22775 layer_factory.hpp:77] Creating layer ip2
I0501 03:49:31.547567 22775 net.cpp:86] Creating Layer ip2
I0501 03:49:31.547570 22775 net.cpp:408] ip2 <- ip1
I0501 03:49:31.547576 22775 net.cpp:382] ip2 -> ip2
I0501 03:49:31.547701 22775 net.cpp:124] Setting up ip2
I0501 03:49:31.547708 22775 net.cpp:131] Top shape: 1000 10 (10000)
I0501 03:49:31.547711 22775 net.cpp:139] Memory required for data: 86228000
I0501 03:49:31.547719 22775 layer_factory.hpp:77] Creating layer relu2
I0501 03:49:31.547724 22775 net.cpp:86] Creating Layer relu2
I0501 03:49:31.547726 22775 net.cpp:408] relu2 <- ip2
I0501 03:49:31.547731 22775 net.cpp:369] relu2 -> ip2 (in-place)
I0501 03:49:31.548465 22775 net.cpp:124] Setting up relu2
I0501 03:49:31.548477 22775 net.cpp:131] Top shape: 1000 10 (10000)
I0501 03:49:31.548480 22775 net.cpp:139] Memory required for data: 86268000
I0501 03:49:31.548483 22775 layer_factory.hpp:77] Creating layer ip3
I0501 03:49:31.548506 22775 net.cpp:86] Creating Layer ip3
I0501 03:49:31.548509 22775 net.cpp:408] ip3 <- ip2
I0501 03:49:31.548514 22775 net.cpp:382] ip3 -> ip3
I0501 03:49:31.548630 22775 net.cpp:124] Setting up ip3
I0501 03:49:31.548638 22775 net.cpp:131] Top shape: 1000 20 (20000)
I0501 03:49:31.548640 22775 net.cpp:139] Memory required for data: 86348000
I0501 03:49:31.548646 22775 layer_factory.hpp:77] Creating layer relu3
I0501 03:49:31.548653 22775 net.cpp:86] Creating Layer relu3
I0501 03:49:31.548656 22775 net.cpp:408] relu3 <- ip3
I0501 03:49:31.548660 22775 net.cpp:369] relu3 -> ip3 (in-place)
I0501 03:49:31.548847 22775 net.cpp:124] Setting up relu3
I0501 03:49:31.548856 22775 net.cpp:131] Top shape: 1000 20 (20000)
I0501 03:49:31.548861 22775 net.cpp:139] Memory required for data: 86428000
I0501 03:49:31.548863 22775 layer_factory.hpp:77] Creating layer ip4
I0501 03:49:31.548871 22775 net.cpp:86] Creating Layer ip4
I0501 03:49:31.548873 22775 net.cpp:408] ip4 <- ip3
I0501 03:49:31.548877 22775 net.cpp:382] ip4 -> ip4
I0501 03:49:31.548993 22775 net.cpp:124] Setting up ip4
I0501 03:49:31.549001 22775 net.cpp:131] Top shape: 1000 10 (10000)
I0501 03:49:31.549005 22775 net.cpp:139] Memory required for data: 86468000
I0501 03:49:31.549012 22775 layer_factory.hpp:77] Creating layer ip4_ip4_0_split
I0501 03:49:31.549033 22775 net.cpp:86] Creating Layer ip4_ip4_0_split
I0501 03:49:31.549036 22775 net.cpp:408] ip4_ip4_0_split <- ip4
I0501 03:49:31.549041 22775 net.cpp:382] ip4_ip4_0_split -> ip4_ip4_0_split_0
I0501 03:49:31.549060 22775 net.cpp:382] ip4_ip4_0_split -> ip4_ip4_0_split_1
I0501 03:49:31.549093 22775 net.cpp:124] Setting up ip4_ip4_0_split
I0501 03:49:31.549098 22775 net.cpp:131] Top shape: 1000 10 (10000)
I0501 03:49:31.549101 22775 net.cpp:131] Top shape: 1000 10 (10000)
I0501 03:49:31.549104 22775 net.cpp:139] Memory required for data: 86548000
I0501 03:49:31.549108 22775 layer_factory.hpp:77] Creating layer accuracy
I0501 03:49:31.549113 22775 net.cpp:86] Creating Layer accuracy
I0501 03:49:31.549116 22775 net.cpp:408] accuracy <- ip4_ip4_0_split_0
I0501 03:49:31.549120 22775 net.cpp:408] accuracy <- label_cifar_1_split_0
I0501 03:49:31.549124 22775 net.cpp:382] accuracy -> accuracy
…
