…
I0430 18:32:04.463696 23541 net.cpp:296] The NetState phase (0) differed from the phase (1) specified by a rule in layer cifar
I0430 18:32:04.463711 23541 net.cpp:296] The NetState phase (0) differed from the phase (1) specified by a rule in layer accuracy
I0430 18:32:04.463804 23541 net.cpp:53] Initializing net from parameters: 
name: "CIFAR"
state {
  phase: TRAIN
  level: 0
  stage: ""
}
layer {
  name: "cifar"
  type: "Data"
  top: "data"
  top: "label"
  include {
    phase: TRAIN
  }
  transform_param {
    mean_file: "examples/cifar10/mean.binaryproto"
  }
  data_param {
    source: "examples/cifar10/cifar10_train_lmdb"
    batch_size: 111
    backend: LMDB
  }
}
layer {
  name: "ip1"
  type: "InnerProduct"
  bottom: "data"
  top: "ip1"
  param {
    lr_mult: 1
  }
  param {
    lr_mult: 2
  }
  inner_product_param {
    num_output: 20
    weight_filler {
      type: "gaussian"
      std: 0.01
    }
    bias_filler {
      type: "constant"
    }
  }
}
layer {
  name: "relu1"
  type: "ReLU"
  bottom: "ip1"
  top: "ip1"
}
layer {
  name: "ip2"
  type: "InnerProduct"
  bottom: "ip1"
  top: "ip2"
  param {
    lr_mult: 1
  }
  param {
    lr_mult: 2
  }
  inner_product_param {
    num_output: 40
    weight_filler {
      type: "gaussian"
      std: 0.01
    }
    bias_filler {
      type: "constant"
    }
  }
}
layer {
  name: "relu2"
  type: "ReLU"
  bottom: "ip2"
  top: "ip2"
}
layer {
  name: "ip3"
  type: "InnerProduct"
  bottom: "ip2"
  top: "ip3"
  param {
    lr_mult: 1
  }
  param {
    lr_mult: 2
  }
  inner_product_param {
    num_output: 160
    weight_filler {
      type: "gaussian"
      std: 0.01
    }
    bias_filler {
      type: "constant"
    }
  }
}
layer {
  name: "relu3"
  type: "ReLU"
  bottom: "ip3"
  top: "ip3"
}
layer {
  name: "ip4"
  type: "InnerProduct"
  bottom: "ip3"
  top: "ip4"
  param {
    lr_mult: 1
  }
  param {
    lr_mult: 2
  }
  inner_product_param {
    num_output: 10
    weight_filler {
      type: "gaussian"
      std: 0.01
    }
    bias_filler {
      type: "constant"
    }
  }
}
layer {
  name: "loss"
  type: "SoftmaxWithLoss"
  bottom: "ip4"
  bottom: "label"
  top: "loss"
}
I0430 18:32:04.463876 23541 layer_factory.hpp:77] Creating layer cifar
I0430 18:32:04.463973 23541 db_lmdb.cpp:35] Opened lmdb examples/cifar10/cifar10_train_lmdb
I0430 18:32:04.463999 23541 net.cpp:86] Creating Layer cifar
I0430 18:32:04.464007 23541 net.cpp:382] cifar -> data
I0430 18:32:04.464030 23541 net.cpp:382] cifar -> label
I0430 18:32:04.464045 23541 data_transformer.cpp:25] Loading mean file from: examples/cifar10/mean.binaryproto
I0430 18:32:04.466168 23541 data_layer.cpp:45] output data size: 111,3,32,32
I0430 18:32:04.474287 23541 net.cpp:124] Setting up cifar
I0430 18:32:04.474308 23541 net.cpp:131] Top shape: 111 3 32 32 (340992)
I0430 18:32:04.474313 23541 net.cpp:131] Top shape: 111 (111)
I0430 18:32:04.474318 23541 net.cpp:139] Memory required for data: 1364412
I0430 18:32:04.474325 23541 layer_factory.hpp:77] Creating layer ip1
I0430 18:32:04.474337 23541 net.cpp:86] Creating Layer ip1
I0430 18:32:04.474342 23541 net.cpp:408] ip1 <- data
I0430 18:32:04.474356 23541 net.cpp:382] ip1 -> ip1
I0430 18:32:04.477540 23541 net.cpp:124] Setting up ip1
I0430 18:32:04.477556 23541 net.cpp:131] Top shape: 111 20 (2220)
I0430 18:32:04.477560 23541 net.cpp:139] Memory required for data: 1373292
I0430 18:32:04.477574 23541 layer_factory.hpp:77] Creating layer relu1
I0430 18:32:04.477584 23541 net.cpp:86] Creating Layer relu1
I0430 18:32:04.477604 23541 net.cpp:408] relu1 <- ip1
I0430 18:32:04.477612 23541 net.cpp:369] relu1 -> ip1 (in-place)
I0430 18:32:04.756709 23541 net.cpp:124] Setting up relu1
I0430 18:32:04.756736 23541 net.cpp:131] Top shape: 111 20 (2220)
I0430 18:32:04.756741 23541 net.cpp:139] Memory required for data: 1382172
I0430 18:32:04.756745 23541 layer_factory.hpp:77] Creating layer ip2
I0430 18:32:04.756758 23541 net.cpp:86] Creating Layer ip2
I0430 18:32:04.756762 23541 net.cpp:408] ip2 <- ip1
I0430 18:32:04.756770 23541 net.cpp:382] ip2 -> ip2
I0430 18:32:04.757885 23541 net.cpp:124] Setting up ip2
I0430 18:32:04.757899 23541 net.cpp:131] Top shape: 111 40 (4440)
I0430 18:32:04.757901 23541 net.cpp:139] Memory required for data: 1399932
I0430 18:32:04.757912 23541 layer_factory.hpp:77] Creating layer relu2
I0430 18:32:04.757920 23541 net.cpp:86] Creating Layer relu2
I0430 18:32:04.757923 23541 net.cpp:408] relu2 <- ip2
I0430 18:32:04.757927 23541 net.cpp:369] relu2 -> ip2 (in-place)
I0430 18:32:04.758647 23541 net.cpp:124] Setting up relu2
I0430 18:32:04.758661 23541 net.cpp:131] Top shape: 111 40 (4440)
I0430 18:32:04.758663 23541 net.cpp:139] Memory required for data: 1417692
I0430 18:32:04.758667 23541 layer_factory.hpp:77] Creating layer ip3
I0430 18:32:04.758674 23541 net.cpp:86] Creating Layer ip3
I0430 18:32:04.758677 23541 net.cpp:408] ip3 <- ip2
I0430 18:32:04.758682 23541 net.cpp:382] ip3 -> ip3
I0430 18:32:04.759757 23541 net.cpp:124] Setting up ip3
I0430 18:32:04.759769 23541 net.cpp:131] Top shape: 111 160 (17760)
I0430 18:32:04.759773 23541 net.cpp:139] Memory required for data: 1488732
I0430 18:32:04.759781 23541 layer_factory.hpp:77] Creating layer relu3
I0430 18:32:04.759786 23541 net.cpp:86] Creating Layer relu3
I0430 18:32:04.759789 23541 net.cpp:408] relu3 <- ip3
I0430 18:32:04.759794 23541 net.cpp:369] relu3 -> ip3 (in-place)
I0430 18:32:04.759946 23541 net.cpp:124] Setting up relu3
I0430 18:32:04.759955 23541 net.cpp:131] Top shape: 111 160 (17760)
I0430 18:32:04.759958 23541 net.cpp:139] Memory required for data: 1559772
I0430 18:32:04.759961 23541 layer_factory.hpp:77] Creating layer ip4
I0430 18:32:04.759968 23541 net.cpp:86] Creating Layer ip4
I0430 18:32:04.759971 23541 net.cpp:408] ip4 <- ip3
I0430 18:32:04.759976 23541 net.cpp:382] ip4 -> ip4
I0430 18:32:04.760110 23541 net.cpp:124] Setting up ip4
I0430 18:32:04.760116 23541 net.cpp:131] Top shape: 111 10 (1110)
I0430 18:32:04.760120 23541 net.cpp:139] Memory required for data: 1564212
I0430 18:32:04.760125 23541 layer_factory.hpp:77] Creating layer loss
I0430 18:32:04.760131 23541 net.cpp:86] Creating Layer loss
I0430 18:32:04.760134 23541 net.cpp:408] loss <- ip4
I0430 18:32:04.760138 23541 net.cpp:408] loss <- label
I0430 18:32:04.760144 23541 net.cpp:382] loss -> loss
I0430 18:32:04.760162 23541 layer_factory.hpp:77] Creating layer loss
…
I0430 18:32:04.760718 23541 solver.cpp:173] Creating test net (#0) specified by net file: ECE595/cifar/train_test/var_everything/cifar_train_test_69.prototxt
I0430 18:32:04.760757 23541 net.cpp:296] The NetState phase (1) differed from the phase (0) specified by a rule in layer cifar
I0430 18:32:04.760840 23541 net.cpp:53] Initializing net from parameters: 
name: "CIFAR"
state {
  phase: TEST
}
layer {
  name: "cifar"
  type: "Data"
  top: "data"
  top: "label"
  include {
    phase: TEST
  }
  transform_param {
    mean_file: "examples/cifar10/mean.binaryproto"
  }
  data_param {
    source: "examples/cifar10/cifar10_test_lmdb"
    batch_size: 1000
    backend: LMDB
  }
}
layer {
  name: "ip1"
  type: "InnerProduct"
  bottom: "data"
  top: "ip1"
  param {
    lr_mult: 1
  }
  param {
    lr_mult: 2
  }
  inner_product_param {
    num_output: 20
    weight_filler {
      type: "gaussian"
      std: 0.01
    }
    bias_filler {
      type: "constant"
    }
  }
}
layer {
  name: "relu1"
  type: "ReLU"
  bottom: "ip1"
  top: "ip1"
}
layer {
  name: "ip2"
  type: "InnerProduct"
  bottom: "ip1"
  top: "ip2"
  param {
    lr_mult: 1
  }
  param {
    lr_mult: 2
  }
  inner_product_param {
    num_output: 40
    weight_filler {
      type: "gaussian"
      std: 0.01
    }
    bias_filler {
      type: "constant"
    }
  }
}
layer {
  name: "relu2"
  type: "ReLU"
  bottom: "ip2"
  top: "ip2"
}
layer {
  name: "ip3"
  type: "InnerProduct"
  bottom: "ip2"
  top: "ip3"
  param {
    lr_mult: 1
  }
  param {
    lr_mult: 2
  }
  inner_product_param {
    num_output: 160
    weight_filler {
      type: "gaussian"
      std: 0.01
    }
    bias_filler {
      type: "constant"
    }
  }
}
layer {
  name: "relu3"
  type: "ReLU"
  bottom: "ip3"
  top: "ip3"
}
layer {
  name: "ip4"
  type: "InnerProduct"
  bottom: "ip3"
  top: "ip4"
  param {
    lr_mult: 1
  }
  param {
    lr_mult: 2
  }
  inner_product_param {
    num_output: 10
    weight_filler {
      type: "gaussian"
      std: 0.01
    }
    bias_filler {
      type: "constant"
    }
  }
}
layer {
  name: "accuracy"
  type: "Accuracy"
  bottom: "ip4"
  bottom: "label"
  top: "accuracy"
  include {
    phase: TEST
  }
}
layer {
  name: "loss"
  type: "SoftmaxWithLoss"
  bottom: "ip4"
  bottom: "label"
  top: "loss"
}
I0430 18:32:04.760901 23541 layer_factory.hpp:77] Creating layer cifar
I0430 18:32:04.760946 23541 db_lmdb.cpp:35] Opened lmdb examples/cifar10/cifar10_test_lmdb
I0430 18:32:04.760957 23541 net.cpp:86] Creating Layer cifar
I0430 18:32:04.760962 23541 net.cpp:382] cifar -> data
I0430 18:32:04.760969 23541 net.cpp:382] cifar -> label
I0430 18:32:04.760977 23541 data_transformer.cpp:25] Loading mean file from: examples/cifar10/mean.binaryproto
I0430 18:32:04.761118 23541 data_layer.cpp:45] output data size: 1000,3,32,32
I0430 18:32:04.783206 23541 net.cpp:124] Setting up cifar
I0430 18:32:04.783247 23541 net.cpp:131] Top shape: 1000 3 32 32 (3072000)
I0430 18:32:04.783253 23541 net.cpp:131] Top shape: 1000 (1000)
I0430 18:32:04.783257 23541 net.cpp:139] Memory required for data: 12292000
I0430 18:32:04.783262 23541 layer_factory.hpp:77] Creating layer label_cifar_1_split
I0430 18:32:04.783278 23541 net.cpp:86] Creating Layer label_cifar_1_split
I0430 18:32:04.783282 23541 net.cpp:408] label_cifar_1_split <- label
I0430 18:32:04.783288 23541 net.cpp:382] label_cifar_1_split -> label_cifar_1_split_0
I0430 18:32:04.783313 23541 net.cpp:382] label_cifar_1_split -> label_cifar_1_split_1
I0430 18:32:04.783440 23541 net.cpp:124] Setting up label_cifar_1_split
I0430 18:32:04.783448 23541 net.cpp:131] Top shape: 1000 (1000)
I0430 18:32:04.783452 23541 net.cpp:131] Top shape: 1000 (1000)
I0430 18:32:04.783454 23541 net.cpp:139] Memory required for data: 12300000
I0430 18:32:04.783458 23541 layer_factory.hpp:77] Creating layer ip1
I0430 18:32:04.783466 23541 net.cpp:86] Creating Layer ip1
I0430 18:32:04.783469 23541 net.cpp:408] ip1 <- data
I0430 18:32:04.783475 23541 net.cpp:382] ip1 -> ip1
I0430 18:32:04.786036 23541 net.cpp:124] Setting up ip1
I0430 18:32:04.786047 23541 net.cpp:131] Top shape: 1000 20 (20000)
I0430 18:32:04.786051 23541 net.cpp:139] Memory required for data: 12380000
I0430 18:32:04.786080 23541 layer_factory.hpp:77] Creating layer relu1
I0430 18:32:04.786087 23541 net.cpp:86] Creating Layer relu1
I0430 18:32:04.786090 23541 net.cpp:408] relu1 <- ip1
I0430 18:32:04.786095 23541 net.cpp:369] relu1 -> ip1 (in-place)
I0430 18:32:04.786918 23541 net.cpp:124] Setting up relu1
I0430 18:32:04.786931 23541 net.cpp:131] Top shape: 1000 20 (20000)
I0430 18:32:04.786934 23541 net.cpp:139] Memory required for data: 12460000
I0430 18:32:04.786937 23541 layer_factory.hpp:77] Creating layer ip2
I0430 18:32:04.786945 23541 net.cpp:86] Creating Layer ip2
I0430 18:32:04.786949 23541 net.cpp:408] ip2 <- ip1
I0430 18:32:04.786954 23541 net.cpp:382] ip2 -> ip2
I0430 18:32:04.787096 23541 net.cpp:124] Setting up ip2
I0430 18:32:04.787104 23541 net.cpp:131] Top shape: 1000 40 (40000)
I0430 18:32:04.787107 23541 net.cpp:139] Memory required for data: 12620000
I0430 18:32:04.787116 23541 layer_factory.hpp:77] Creating layer relu2
I0430 18:32:04.787122 23541 net.cpp:86] Creating Layer relu2
I0430 18:32:04.787124 23541 net.cpp:408] relu2 <- ip2
I0430 18:32:04.787129 23541 net.cpp:369] relu2 -> ip2 (in-place)
I0430 18:32:04.787278 23541 net.cpp:124] Setting up relu2
I0430 18:32:04.787287 23541 net.cpp:131] Top shape: 1000 40 (40000)
I0430 18:32:04.787291 23541 net.cpp:139] Memory required for data: 12780000
I0430 18:32:04.787294 23541 layer_factory.hpp:77] Creating layer ip3
I0430 18:32:04.787300 23541 net.cpp:86] Creating Layer ip3
I0430 18:32:04.787303 23541 net.cpp:408] ip3 <- ip2
I0430 18:32:04.787308 23541 net.cpp:382] ip3 -> ip3
I0430 18:32:04.787593 23541 net.cpp:124] Setting up ip3
I0430 18:32:04.787601 23541 net.cpp:131] Top shape: 1000 160 (160000)
I0430 18:32:04.787605 23541 net.cpp:139] Memory required for data: 13420000
I0430 18:32:04.787612 23541 layer_factory.hpp:77] Creating layer relu3
I0430 18:32:04.787617 23541 net.cpp:86] Creating Layer relu3
I0430 18:32:04.787621 23541 net.cpp:408] relu3 <- ip3
I0430 18:32:04.787624 23541 net.cpp:369] relu3 -> ip3 (in-place)
I0430 18:32:04.787819 23541 net.cpp:124] Setting up relu3
I0430 18:32:04.787827 23541 net.cpp:131] Top shape: 1000 160 (160000)
I0430 18:32:04.787830 23541 net.cpp:139] Memory required for data: 14060000
I0430 18:32:04.787833 23541 layer_factory.hpp:77] Creating layer ip4
I0430 18:32:04.787840 23541 net.cpp:86] Creating Layer ip4
I0430 18:32:04.787844 23541 net.cpp:408] ip4 <- ip3
I0430 18:32:04.787849 23541 net.cpp:382] ip4 -> ip4
I0430 18:32:04.787992 23541 net.cpp:124] Setting up ip4
I0430 18:32:04.787998 23541 net.cpp:131] Top shape: 1000 10 (10000)
I0430 18:32:04.788002 23541 net.cpp:139] Memory required for data: 14100000
I0430 18:32:04.788007 23541 layer_factory.hpp:77] Creating layer ip4_ip4_0_split
I0430 18:32:04.788012 23541 net.cpp:86] Creating Layer ip4_ip4_0_split
I0430 18:32:04.788014 23541 net.cpp:408] ip4_ip4_0_split <- ip4
I0430 18:32:04.788018 23541 net.cpp:382] ip4_ip4_0_split -> ip4_ip4_0_split_0
I0430 18:32:04.788025 23541 net.cpp:382] ip4_ip4_0_split -> ip4_ip4_0_split_1
I0430 18:32:04.788053 23541 net.cpp:124] Setting up ip4_ip4_0_split
I0430 18:32:04.788058 23541 net.cpp:131] Top shape: 1000 10 (10000)
I0430 18:32:04.788063 23541 net.cpp:131] Top shape: 1000 10 (10000)
I0430 18:32:04.788065 23541 net.cpp:139] Memory required for data: 14180000
I0430 18:32:04.788067 23541 layer_factory.hpp:77] Creating layer accuracy
I0430 18:32:04.788076 23541 net.cpp:86] Creating Layer accuracy
I0430 18:32:04.788079 23541 net.cpp:408] accuracy <- ip4_ip4_0_split_0
I0430 18:32:04.788084 23541 net.cpp:408] accuracy <- label_cifar_1_split_0
I0430 18:32:04.788087 23541 net.cpp:382] accuracy -> accuracy
…
