…
I0430 21:46:14.905100 31580 net.cpp:296] The NetState phase (0) differed from the phase (1) specified by a rule in layer cifar
I0430 21:46:14.905119 31580 net.cpp:296] The NetState phase (0) differed from the phase (1) specified by a rule in layer accuracy
I0430 21:46:14.905212 31580 net.cpp:53] Initializing net from parameters: 
name: "CIFAR"
state {
  phase: TRAIN
  level: 0
  stage: ""
}
layer {
  name: "cifar"
  type: "Data"
  top: "data"
  top: "label"
  include {
    phase: TRAIN
  }
  transform_param {
    mean_file: "examples/cifar10/mean.binaryproto"
  }
  data_param {
    source: "examples/cifar10/cifar10_train_lmdb"
    batch_size: 111
    backend: LMDB
  }
}
layer {
  name: "conv0"
  type: "Convolution"
  bottom: "data"
  top: "conv0"
  param {
    lr_mult: 1
  }
  param {
    lr_mult: 2
  }
  convolution_param {
    num_output: 8
    pad: 2
    kernel_size: 3
    stride: 1
    weight_filler {
      type: "gaussian"
      std: 0.01
    }
    bias_filler {
      type: "constant"
    }
  }
}
layer {
  name: "Sigmoid0"
  type: "Sigmoid"
  bottom: "conv0"
  top: "Sigmoid0"
}
layer {
  name: "pool0"
  type: "Pooling"
  bottom: "Sigmoid0"
  top: "pool0"
  pooling_param {
    pool: AVE
    kernel_size: 3
    stride: 2
  }
}
layer {
  name: "ip1"
  type: "InnerProduct"
  bottom: "pool0"
  top: "ip1"
  param {
    lr_mult: 1
  }
  param {
    lr_mult: 2
  }
  inner_product_param {
    num_output: 40
    weight_filler {
      type: "gaussian"
      std: 0.01
    }
    bias_filler {
      type: "constant"
    }
  }
}
layer {
  name: "relu1"
  type: "ReLU"
  bottom: "ip1"
  top: "ip1"
}
layer {
  name: "ip2"
  type: "InnerProduct"
  bottom: "ip1"
  top: "ip2"
  param {
    lr_mult: 1
  }
  param {
    lr_mult: 2
  }
  inner_product_param {
    num_output: 40
    weight_filler {
      type: "gaussian"
      std: 0.01
    }
    bias_filler {
      type: "constant"
    }
  }
}
layer {
  name: "relu2"
  type: "ReLU"
  bottom: "ip2"
  top: "ip2"
}
layer {
  name: "ip3"
  type: "InnerProduct"
  bottom: "ip2"
  top: "ip3"
  param {
    lr_mult: 1
  }
  param {
    lr_mult: 2
  }
  inner_product_param {
    num_output: 10
    weight_filler {
      type: "gaussian"
      std: 0.01
    }
    bias_filler {
      type: "constant"
    }
  }
}
layer {
  name: "loss"
  type: "SoftmaxWithLoss"
  bottom: "ip3"
  bottom: "label"
  top: "loss"
}
I0430 21:46:14.905287 31580 layer_factory.hpp:77] Creating layer cifar
I0430 21:46:14.905392 31580 db_lmdb.cpp:35] Opened lmdb examples/cifar10/cifar10_train_lmdb
I0430 21:46:14.905419 31580 net.cpp:86] Creating Layer cifar
I0430 21:46:14.905428 31580 net.cpp:382] cifar -> data
I0430 21:46:14.905450 31580 net.cpp:382] cifar -> label
I0430 21:46:14.905462 31580 data_transformer.cpp:25] Loading mean file from: examples/cifar10/mean.binaryproto
I0430 21:46:14.907575 31580 data_layer.cpp:45] output data size: 111,3,32,32
I0430 21:46:14.915467 31580 net.cpp:124] Setting up cifar
I0430 21:46:14.915487 31580 net.cpp:131] Top shape: 111 3 32 32 (340992)
I0430 21:46:14.915493 31580 net.cpp:131] Top shape: 111 (111)
I0430 21:46:14.915496 31580 net.cpp:139] Memory required for data: 1364412
I0430 21:46:14.915504 31580 layer_factory.hpp:77] Creating layer conv0
I0430 21:46:14.915522 31580 net.cpp:86] Creating Layer conv0
I0430 21:46:14.915529 31580 net.cpp:408] conv0 <- data
I0430 21:46:14.915542 31580 net.cpp:382] conv0 -> conv0
I0430 21:46:15.205749 31580 net.cpp:124] Setting up conv0
I0430 21:46:15.205796 31580 net.cpp:131] Top shape: 111 8 34 34 (1026528)
I0430 21:46:15.205801 31580 net.cpp:139] Memory required for data: 5470524
I0430 21:46:15.205816 31580 layer_factory.hpp:77] Creating layer Sigmoid0
I0430 21:46:15.205831 31580 net.cpp:86] Creating Layer Sigmoid0
I0430 21:46:15.205835 31580 net.cpp:408] Sigmoid0 <- conv0
I0430 21:46:15.205840 31580 net.cpp:382] Sigmoid0 -> Sigmoid0
I0430 21:46:15.206059 31580 net.cpp:124] Setting up Sigmoid0
I0430 21:46:15.206070 31580 net.cpp:131] Top shape: 111 8 34 34 (1026528)
I0430 21:46:15.206074 31580 net.cpp:139] Memory required for data: 9576636
I0430 21:46:15.206077 31580 layer_factory.hpp:77] Creating layer pool0
I0430 21:46:15.206085 31580 net.cpp:86] Creating Layer pool0
I0430 21:46:15.206089 31580 net.cpp:408] pool0 <- Sigmoid0
I0430 21:46:15.206094 31580 net.cpp:382] pool0 -> pool0
I0430 21:46:15.206881 31580 net.cpp:124] Setting up pool0
I0430 21:46:15.206895 31580 net.cpp:131] Top shape: 111 8 17 17 (256632)
I0430 21:46:15.206899 31580 net.cpp:139] Memory required for data: 10603164
I0430 21:46:15.206903 31580 layer_factory.hpp:77] Creating layer ip1
I0430 21:46:15.206913 31580 net.cpp:86] Creating Layer ip1
I0430 21:46:15.206918 31580 net.cpp:408] ip1 <- pool0
I0430 21:46:15.206923 31580 net.cpp:382] ip1 -> ip1
I0430 21:46:15.209704 31580 net.cpp:124] Setting up ip1
I0430 21:46:15.209714 31580 net.cpp:131] Top shape: 111 40 (4440)
I0430 21:46:15.209717 31580 net.cpp:139] Memory required for data: 10620924
I0430 21:46:15.209725 31580 layer_factory.hpp:77] Creating layer relu1
I0430 21:46:15.209731 31580 net.cpp:86] Creating Layer relu1
I0430 21:46:15.209734 31580 net.cpp:408] relu1 <- ip1
I0430 21:46:15.209738 31580 net.cpp:369] relu1 -> ip1 (in-place)
I0430 21:46:15.209897 31580 net.cpp:124] Setting up relu1
I0430 21:46:15.209905 31580 net.cpp:131] Top shape: 111 40 (4440)
I0430 21:46:15.209908 31580 net.cpp:139] Memory required for data: 10638684
I0430 21:46:15.209911 31580 layer_factory.hpp:77] Creating layer ip2
I0430 21:46:15.209918 31580 net.cpp:86] Creating Layer ip2
I0430 21:46:15.209921 31580 net.cpp:408] ip2 <- ip1
I0430 21:46:15.209926 31580 net.cpp:382] ip2 -> ip2
I0430 21:46:15.210073 31580 net.cpp:124] Setting up ip2
I0430 21:46:15.210081 31580 net.cpp:131] Top shape: 111 40 (4440)
I0430 21:46:15.210084 31580 net.cpp:139] Memory required for data: 10656444
I0430 21:46:15.210091 31580 layer_factory.hpp:77] Creating layer relu2
I0430 21:46:15.210096 31580 net.cpp:86] Creating Layer relu2
I0430 21:46:15.210100 31580 net.cpp:408] relu2 <- ip2
I0430 21:46:15.210104 31580 net.cpp:369] relu2 -> ip2 (in-place)
I0430 21:46:15.210256 31580 net.cpp:124] Setting up relu2
I0430 21:46:15.210264 31580 net.cpp:131] Top shape: 111 40 (4440)
I0430 21:46:15.210268 31580 net.cpp:139] Memory required for data: 10674204
I0430 21:46:15.210270 31580 layer_factory.hpp:77] Creating layer ip3
I0430 21:46:15.210278 31580 net.cpp:86] Creating Layer ip3
I0430 21:46:15.210281 31580 net.cpp:408] ip3 <- ip2
I0430 21:46:15.210286 31580 net.cpp:382] ip3 -> ip3
I0430 21:46:15.211262 31580 net.cpp:124] Setting up ip3
I0430 21:46:15.211275 31580 net.cpp:131] Top shape: 111 10 (1110)
I0430 21:46:15.211279 31580 net.cpp:139] Memory required for data: 10678644
I0430 21:46:15.211285 31580 layer_factory.hpp:77] Creating layer loss
I0430 21:46:15.211292 31580 net.cpp:86] Creating Layer loss
I0430 21:46:15.211295 31580 net.cpp:408] loss <- ip3
I0430 21:46:15.211299 31580 net.cpp:408] loss <- label
I0430 21:46:15.211304 31580 net.cpp:382] loss -> loss
I0430 21:46:15.211325 31580 layer_factory.hpp:77] Creating layer loss
…
I0430 21:46:15.211949 31580 solver.cpp:173] Creating test net (#0) specified by net file: ECE595/cifar/train_test/var_everything/cifar_train_test_172.prototxt
I0430 21:46:15.211976 31580 net.cpp:296] The NetState phase (1) differed from the phase (0) specified by a rule in layer cifar
I0430 21:46:15.212066 31580 net.cpp:53] Initializing net from parameters: 
name: "CIFAR"
state {
  phase: TEST
}
layer {
  name: "cifar"
  type: "Data"
  top: "data"
  top: "label"
  include {
    phase: TEST
  }
  transform_param {
    mean_file: "examples/cifar10/mean.binaryproto"
  }
  data_param {
    source: "examples/cifar10/cifar10_test_lmdb"
    batch_size: 1000
    backend: LMDB
  }
}
layer {
  name: "conv0"
  type: "Convolution"
  bottom: "data"
  top: "conv0"
  param {
    lr_mult: 1
  }
  param {
    lr_mult: 2
  }
  convolution_param {
    num_output: 8
    pad: 2
    kernel_size: 3
    stride: 1
    weight_filler {
      type: "gaussian"
      std: 0.01
    }
    bias_filler {
      type: "constant"
    }
  }
}
layer {
  name: "Sigmoid0"
  type: "Sigmoid"
  bottom: "conv0"
  top: "Sigmoid0"
}
layer {
  name: "pool0"
  type: "Pooling"
  bottom: "Sigmoid0"
  top: "pool0"
  pooling_param {
    pool: AVE
    kernel_size: 3
    stride: 2
  }
}
layer {
  name: "ip1"
  type: "InnerProduct"
  bottom: "pool0"
  top: "ip1"
  param {
    lr_mult: 1
  }
  param {
    lr_mult: 2
  }
  inner_product_param {
    num_output: 40
    weight_filler {
      type: "gaussian"
      std: 0.01
    }
    bias_filler {
      type: "constant"
    }
  }
}
layer {
  name: "relu1"
  type: "ReLU"
  bottom: "ip1"
  top: "ip1"
}
layer {
  name: "ip2"
  type: "InnerProduct"
  bottom: "ip1"
  top: "ip2"
  param {
    lr_mult: 1
  }
  param {
    lr_mult: 2
  }
  inner_product_param {
    num_output: 40
    weight_filler {
      type: "gaussian"
      std: 0.01
    }
    bias_filler {
      type: "constant"
    }
  }
}
layer {
  name: "relu2"
  type: "ReLU"
  bottom: "ip2"
  top: "ip2"
}
layer {
  name: "ip3"
  type: "InnerProduct"
  bottom: "ip2"
  top: "ip3"
  param {
    lr_mult: 1
  }
  param {
    lr_mult: 2
  }
  inner_product_param {
    num_output: 10
    weight_filler {
      type: "gaussian"
      std: 0.01
    }
    bias_filler {
      type: "constant"
    }
  }
}
layer {
  name: "accuracy"
  type: "Accuracy"
  bottom: "ip3"
  bottom: "label"
  top: "accuracy"
  include {
    phase: TEST
  }
}
layer {
  name: "loss"
  type: "SoftmaxWithLoss"
  bottom: "ip3"
  bottom: "label"
  top: "loss"
}
I0430 21:46:15.212131 31580 layer_factory.hpp:77] Creating layer cifar
I0430 21:46:15.212178 31580 db_lmdb.cpp:35] Opened lmdb examples/cifar10/cifar10_test_lmdb
I0430 21:46:15.212191 31580 net.cpp:86] Creating Layer cifar
I0430 21:46:15.212195 31580 net.cpp:382] cifar -> data
I0430 21:46:15.212203 31580 net.cpp:382] cifar -> label
I0430 21:46:15.212209 31580 data_transformer.cpp:25] Loading mean file from: examples/cifar10/mean.binaryproto
I0430 21:46:15.212357 31580 data_layer.cpp:45] output data size: 1000,3,32,32
I0430 21:46:15.235025 31580 net.cpp:124] Setting up cifar
I0430 21:46:15.235074 31580 net.cpp:131] Top shape: 1000 3 32 32 (3072000)
I0430 21:46:15.235096 31580 net.cpp:131] Top shape: 1000 (1000)
I0430 21:46:15.235100 31580 net.cpp:139] Memory required for data: 12292000
I0430 21:46:15.235106 31580 layer_factory.hpp:77] Creating layer label_cifar_1_split
I0430 21:46:15.235118 31580 net.cpp:86] Creating Layer label_cifar_1_split
I0430 21:46:15.235141 31580 net.cpp:408] label_cifar_1_split <- label
I0430 21:46:15.235148 31580 net.cpp:382] label_cifar_1_split -> label_cifar_1_split_0
I0430 21:46:15.235157 31580 net.cpp:382] label_cifar_1_split -> label_cifar_1_split_1
I0430 21:46:15.235260 31580 net.cpp:124] Setting up label_cifar_1_split
I0430 21:46:15.235268 31580 net.cpp:131] Top shape: 1000 (1000)
I0430 21:46:15.235272 31580 net.cpp:131] Top shape: 1000 (1000)
I0430 21:46:15.235275 31580 net.cpp:139] Memory required for data: 12300000
I0430 21:46:15.235278 31580 layer_factory.hpp:77] Creating layer conv0
I0430 21:46:15.235291 31580 net.cpp:86] Creating Layer conv0
I0430 21:46:15.235294 31580 net.cpp:408] conv0 <- data
I0430 21:46:15.235301 31580 net.cpp:382] conv0 -> conv0
I0430 21:46:15.236837 31580 net.cpp:124] Setting up conv0
I0430 21:46:15.236866 31580 net.cpp:131] Top shape: 1000 8 34 34 (9248000)
I0430 21:46:15.236871 31580 net.cpp:139] Memory required for data: 49292000
I0430 21:46:15.236881 31580 layer_factory.hpp:77] Creating layer Sigmoid0
I0430 21:46:15.236887 31580 net.cpp:86] Creating Layer Sigmoid0
I0430 21:46:15.236891 31580 net.cpp:408] Sigmoid0 <- conv0
I0430 21:46:15.236896 31580 net.cpp:382] Sigmoid0 -> Sigmoid0
I0430 21:46:15.237782 31580 net.cpp:124] Setting up Sigmoid0
I0430 21:46:15.237808 31580 net.cpp:131] Top shape: 1000 8 34 34 (9248000)
I0430 21:46:15.237812 31580 net.cpp:139] Memory required for data: 86284000
I0430 21:46:15.237817 31580 layer_factory.hpp:77] Creating layer pool0
I0430 21:46:15.237825 31580 net.cpp:86] Creating Layer pool0
I0430 21:46:15.237828 31580 net.cpp:408] pool0 <- Sigmoid0
I0430 21:46:15.237834 31580 net.cpp:382] pool0 -> pool0
I0430 21:46:15.238976 31580 net.cpp:124] Setting up pool0
I0430 21:46:15.238986 31580 net.cpp:131] Top shape: 1000 8 17 17 (2312000)
I0430 21:46:15.239006 31580 net.cpp:139] Memory required for data: 95532000
I0430 21:46:15.239008 31580 layer_factory.hpp:77] Creating layer ip1
I0430 21:46:15.239030 31580 net.cpp:86] Creating Layer ip1
I0430 21:46:15.239033 31580 net.cpp:408] ip1 <- pool0
I0430 21:46:15.239038 31580 net.cpp:382] ip1 -> ip1
I0430 21:46:15.241734 31580 net.cpp:124] Setting up ip1
I0430 21:46:15.241742 31580 net.cpp:131] Top shape: 1000 40 (40000)
I0430 21:46:15.241760 31580 net.cpp:139] Memory required for data: 95692000
I0430 21:46:15.241770 31580 layer_factory.hpp:77] Creating layer relu1
I0430 21:46:15.241775 31580 net.cpp:86] Creating Layer relu1
I0430 21:46:15.241778 31580 net.cpp:408] relu1 <- ip1
I0430 21:46:15.241782 31580 net.cpp:369] relu1 -> ip1 (in-place)
I0430 21:46:15.241935 31580 net.cpp:124] Setting up relu1
I0430 21:46:15.241943 31580 net.cpp:131] Top shape: 1000 40 (40000)
I0430 21:46:15.241946 31580 net.cpp:139] Memory required for data: 95852000
I0430 21:46:15.241950 31580 layer_factory.hpp:77] Creating layer ip2
I0430 21:46:15.241955 31580 net.cpp:86] Creating Layer ip2
I0430 21:46:15.241958 31580 net.cpp:408] ip2 <- ip1
I0430 21:46:15.241963 31580 net.cpp:382] ip2 -> ip2
I0430 21:46:15.242130 31580 net.cpp:124] Setting up ip2
I0430 21:46:15.242137 31580 net.cpp:131] Top shape: 1000 40 (40000)
I0430 21:46:15.242141 31580 net.cpp:139] Memory required for data: 96012000
I0430 21:46:15.242148 31580 layer_factory.hpp:77] Creating layer relu2
I0430 21:46:15.242154 31580 net.cpp:86] Creating Layer relu2
I0430 21:46:15.242157 31580 net.cpp:408] relu2 <- ip2
I0430 21:46:15.242161 31580 net.cpp:369] relu2 -> ip2 (in-place)
I0430 21:46:15.242333 31580 net.cpp:124] Setting up relu2
I0430 21:46:15.242341 31580 net.cpp:131] Top shape: 1000 40 (40000)
I0430 21:46:15.242344 31580 net.cpp:139] Memory required for data: 96172000
I0430 21:46:15.242347 31580 layer_factory.hpp:77] Creating layer ip3
I0430 21:46:15.242353 31580 net.cpp:86] Creating Layer ip3
I0430 21:46:15.242357 31580 net.cpp:408] ip3 <- ip2
I0430 21:46:15.242362 31580 net.cpp:382] ip3 -> ip3
I0430 21:46:15.242470 31580 net.cpp:124] Setting up ip3
I0430 21:46:15.242477 31580 net.cpp:131] Top shape: 1000 10 (10000)
I0430 21:46:15.242480 31580 net.cpp:139] Memory required for data: 96212000
I0430 21:46:15.242497 31580 layer_factory.hpp:77] Creating layer ip3_ip3_0_split
I0430 21:46:15.242502 31580 net.cpp:86] Creating Layer ip3_ip3_0_split
I0430 21:46:15.242506 31580 net.cpp:408] ip3_ip3_0_split <- ip3
I0430 21:46:15.242511 31580 net.cpp:382] ip3_ip3_0_split -> ip3_ip3_0_split_0
I0430 21:46:15.242516 31580 net.cpp:382] ip3_ip3_0_split -> ip3_ip3_0_split_1
I0430 21:46:15.242547 31580 net.cpp:124] Setting up ip3_ip3_0_split
I0430 21:46:15.242552 31580 net.cpp:131] Top shape: 1000 10 (10000)
I0430 21:46:15.242555 31580 net.cpp:131] Top shape: 1000 10 (10000)
I0430 21:46:15.242558 31580 net.cpp:139] Memory required for data: 96292000
I0430 21:46:15.242560 31580 layer_factory.hpp:77] Creating layer accuracy
I0430 21:46:15.242566 31580 net.cpp:86] Creating Layer accuracy
I0430 21:46:15.242569 31580 net.cpp:408] accuracy <- ip3_ip3_0_split_0
I0430 21:46:15.242573 31580 net.cpp:408] accuracy <- label_cifar_1_split_0
I0430 21:46:15.242578 31580 net.cpp:382] accuracy -> accuracy
…
