…
I0501 00:03:17.307929  6228 net.cpp:296] The NetState phase (0) differed from the phase (1) specified by a rule in layer cifar
I0501 00:03:17.307947  6228 net.cpp:296] The NetState phase (0) differed from the phase (1) specified by a rule in layer accuracy
I0501 00:03:17.308051  6228 net.cpp:53] Initializing net from parameters: 
name: "CIFAR"
state {
  phase: TRAIN
  level: 0
  stage: ""
}
layer {
  name: "cifar"
  type: "Data"
  top: "data"
  top: "label"
  include {
    phase: TRAIN
  }
  transform_param {
    mean_file: "examples/cifar10/mean.binaryproto"
  }
  data_param {
    source: "examples/cifar10/cifar10_train_lmdb"
    batch_size: 111
    backend: LMDB
  }
}
layer {
  name: "conv0"
  type: "Convolution"
  bottom: "data"
  top: "conv0"
  param {
    lr_mult: 1
  }
  param {
    lr_mult: 2
  }
  convolution_param {
    num_output: 8
    pad: 2
    kernel_size: 3
    stride: 1
    weight_filler {
      type: "gaussian"
      std: 0.01
    }
    bias_filler {
      type: "constant"
    }
  }
}
layer {
  name: "Sigmoid0"
  type: "Sigmoid"
  bottom: "conv0"
  top: "Sigmoid0"
}
layer {
  name: "pool0"
  type: "Pooling"
  bottom: "Sigmoid0"
  top: "pool0"
  pooling_param {
    pool: AVE
    kernel_size: 3
    stride: 2
  }
}
layer {
  name: "ip1"
  type: "InnerProduct"
  bottom: "pool0"
  top: "ip1"
  param {
    lr_mult: 1
  }
  param {
    lr_mult: 2
  }
  inner_product_param {
    num_output: 40
    weight_filler {
      type: "gaussian"
      std: 0.01
    }
    bias_filler {
      type: "constant"
    }
  }
}
layer {
  name: "relu1"
  type: "ReLU"
  bottom: "ip1"
  top: "ip1"
}
layer {
  name: "ip2"
  type: "InnerProduct"
  bottom: "ip1"
  top: "ip2"
  param {
    lr_mult: 1
  }
  param {
    lr_mult: 2
  }
  inner_product_param {
    num_output: 40
    weight_filler {
      type: "gaussian"
      std: 0.01
    }
    bias_filler {
      type: "constant"
    }
  }
}
layer {
  name: "relu2"
  type: "ReLU"
  bottom: "ip2"
  top: "ip2"
}
layer {
  name: "ip3"
  type: "InnerProduct"
  bottom: "ip2"
  top: "ip3"
  param {
    lr_mult: 1
  }
  param {
    lr_mult: 2
  }
  inner_product_param {
    num_output: 10
    weight_filler {
      type: "gaussian"
      std: 0.01
    }
    bias_filler {
      type: "constant"
    }
  }
}
layer {
  name: "relu3"
  type: "ReLU"
  bottom: "ip3"
  top: "ip3"
}
layer {
  name: "ip4"
  type: "InnerProduct"
  bottom: "ip3"
  top: "ip4"
  param {
    lr_mult: 1
  }
  param {
    lr_mult: 2
  }
  inner_product_param {
    num_output: 10
    weight_filler {
      type: "gaussian"
      std: 0.01
    }
    bias_filler {
      type: "constant"
    }
  }
}
layer {
  name: "loss"
  type: "SoftmaxWithLoss"
  bottom: "ip4"
  bottom: "label"
  top: "loss"
}
I0501 00:03:17.308131  6228 layer_factory.hpp:77] Creating layer cifar
I0501 00:03:17.308228  6228 db_lmdb.cpp:35] Opened lmdb examples/cifar10/cifar10_train_lmdb
I0501 00:03:17.308257  6228 net.cpp:86] Creating Layer cifar
I0501 00:03:17.308266  6228 net.cpp:382] cifar -> data
I0501 00:03:17.308289  6228 net.cpp:382] cifar -> label
I0501 00:03:17.308303  6228 data_transformer.cpp:25] Loading mean file from: examples/cifar10/mean.binaryproto
I0501 00:03:17.310423  6228 data_layer.cpp:45] output data size: 111,3,32,32
I0501 00:03:17.318315  6228 net.cpp:124] Setting up cifar
I0501 00:03:17.318336  6228 net.cpp:131] Top shape: 111 3 32 32 (340992)
I0501 00:03:17.318343  6228 net.cpp:131] Top shape: 111 (111)
I0501 00:03:17.318347  6228 net.cpp:139] Memory required for data: 1364412
I0501 00:03:17.318370  6228 layer_factory.hpp:77] Creating layer conv0
I0501 00:03:17.318389  6228 net.cpp:86] Creating Layer conv0
I0501 00:03:17.318398  6228 net.cpp:408] conv0 <- data
I0501 00:03:17.318413  6228 net.cpp:382] conv0 -> conv0
I0501 00:03:17.591431  6228 net.cpp:124] Setting up conv0
I0501 00:03:17.591473  6228 net.cpp:131] Top shape: 111 8 34 34 (1026528)
I0501 00:03:17.591477  6228 net.cpp:139] Memory required for data: 5470524
I0501 00:03:17.591491  6228 layer_factory.hpp:77] Creating layer Sigmoid0
I0501 00:03:17.591503  6228 net.cpp:86] Creating Layer Sigmoid0
I0501 00:03:17.591507  6228 net.cpp:408] Sigmoid0 <- conv0
I0501 00:03:17.591512  6228 net.cpp:382] Sigmoid0 -> Sigmoid0
I0501 00:03:17.591696  6228 net.cpp:124] Setting up Sigmoid0
I0501 00:03:17.591706  6228 net.cpp:131] Top shape: 111 8 34 34 (1026528)
I0501 00:03:17.591708  6228 net.cpp:139] Memory required for data: 9576636
I0501 00:03:17.591711  6228 layer_factory.hpp:77] Creating layer pool0
I0501 00:03:17.591718  6228 net.cpp:86] Creating Layer pool0
I0501 00:03:17.591722  6228 net.cpp:408] pool0 <- Sigmoid0
I0501 00:03:17.591727  6228 net.cpp:382] pool0 -> pool0
I0501 00:03:17.592488  6228 net.cpp:124] Setting up pool0
I0501 00:03:17.592516  6228 net.cpp:131] Top shape: 111 8 17 17 (256632)
I0501 00:03:17.592519  6228 net.cpp:139] Memory required for data: 10603164
I0501 00:03:17.592523  6228 layer_factory.hpp:77] Creating layer ip1
I0501 00:03:17.592531  6228 net.cpp:86] Creating Layer ip1
I0501 00:03:17.592535  6228 net.cpp:408] ip1 <- pool0
I0501 00:03:17.592540  6228 net.cpp:382] ip1 -> ip1
I0501 00:03:17.595113  6228 net.cpp:124] Setting up ip1
I0501 00:03:17.595121  6228 net.cpp:131] Top shape: 111 40 (4440)
I0501 00:03:17.595140  6228 net.cpp:139] Memory required for data: 10620924
I0501 00:03:17.595149  6228 layer_factory.hpp:77] Creating layer relu1
I0501 00:03:17.595155  6228 net.cpp:86] Creating Layer relu1
I0501 00:03:17.595158  6228 net.cpp:408] relu1 <- ip1
I0501 00:03:17.595162  6228 net.cpp:369] relu1 -> ip1 (in-place)
I0501 00:03:17.595325  6228 net.cpp:124] Setting up relu1
I0501 00:03:17.595335  6228 net.cpp:131] Top shape: 111 40 (4440)
I0501 00:03:17.595337  6228 net.cpp:139] Memory required for data: 10638684
I0501 00:03:17.595340  6228 layer_factory.hpp:77] Creating layer ip2
I0501 00:03:17.595347  6228 net.cpp:86] Creating Layer ip2
I0501 00:03:17.595350  6228 net.cpp:408] ip2 <- ip1
I0501 00:03:17.595355  6228 net.cpp:382] ip2 -> ip2
I0501 00:03:17.595505  6228 net.cpp:124] Setting up ip2
I0501 00:03:17.595512  6228 net.cpp:131] Top shape: 111 40 (4440)
I0501 00:03:17.595515  6228 net.cpp:139] Memory required for data: 10656444
I0501 00:03:17.595522  6228 layer_factory.hpp:77] Creating layer relu2
I0501 00:03:17.595531  6228 net.cpp:86] Creating Layer relu2
I0501 00:03:17.595535  6228 net.cpp:408] relu2 <- ip2
I0501 00:03:17.595540  6228 net.cpp:369] relu2 -> ip2 (in-place)
I0501 00:03:17.595679  6228 net.cpp:124] Setting up relu2
I0501 00:03:17.595686  6228 net.cpp:131] Top shape: 111 40 (4440)
I0501 00:03:17.595690  6228 net.cpp:139] Memory required for data: 10674204
I0501 00:03:17.595692  6228 layer_factory.hpp:77] Creating layer ip3
I0501 00:03:17.595700  6228 net.cpp:86] Creating Layer ip3
I0501 00:03:17.595703  6228 net.cpp:408] ip3 <- ip2
I0501 00:03:17.595707  6228 net.cpp:382] ip3 -> ip3
I0501 00:03:17.596699  6228 net.cpp:124] Setting up ip3
I0501 00:03:17.596710  6228 net.cpp:131] Top shape: 111 10 (1110)
I0501 00:03:17.596729  6228 net.cpp:139] Memory required for data: 10678644
I0501 00:03:17.596735  6228 layer_factory.hpp:77] Creating layer relu3
I0501 00:03:17.596740  6228 net.cpp:86] Creating Layer relu3
I0501 00:03:17.596745  6228 net.cpp:408] relu3 <- ip3
I0501 00:03:17.596750  6228 net.cpp:369] relu3 -> ip3 (in-place)
I0501 00:03:17.596915  6228 net.cpp:124] Setting up relu3
I0501 00:03:17.596925  6228 net.cpp:131] Top shape: 111 10 (1110)
I0501 00:03:17.596928  6228 net.cpp:139] Memory required for data: 10683084
I0501 00:03:17.596931  6228 layer_factory.hpp:77] Creating layer ip4
I0501 00:03:17.596951  6228 net.cpp:86] Creating Layer ip4
I0501 00:03:17.596956  6228 net.cpp:408] ip4 <- ip3
I0501 00:03:17.596961  6228 net.cpp:382] ip4 -> ip4
I0501 00:03:17.597050  6228 net.cpp:124] Setting up ip4
I0501 00:03:17.597059  6228 net.cpp:131] Top shape: 111 10 (1110)
I0501 00:03:17.597061  6228 net.cpp:139] Memory required for data: 10687524
I0501 00:03:17.597069  6228 layer_factory.hpp:77] Creating layer loss
I0501 00:03:17.597077  6228 net.cpp:86] Creating Layer loss
I0501 00:03:17.597080  6228 net.cpp:408] loss <- ip4
I0501 00:03:17.597084  6228 net.cpp:408] loss <- label
I0501 00:03:17.597090  6228 net.cpp:382] loss -> loss
I0501 00:03:17.597102  6228 layer_factory.hpp:77] Creating layer loss
…
I0501 00:03:17.598343  6228 solver.cpp:173] Creating test net (#0) specified by net file: ECE595/cifar/train_test/var_everything/cifar_train_test_245.prototxt
I0501 00:03:17.598384  6228 net.cpp:296] The NetState phase (1) differed from the phase (0) specified by a rule in layer cifar
I0501 00:03:17.598474  6228 net.cpp:53] Initializing net from parameters: 
name: "CIFAR"
state {
  phase: TEST
}
layer {
  name: "cifar"
  type: "Data"
  top: "data"
  top: "label"
  include {
    phase: TEST
  }
  transform_param {
    mean_file: "examples/cifar10/mean.binaryproto"
  }
  data_param {
    source: "examples/cifar10/cifar10_test_lmdb"
    batch_size: 1000
    backend: LMDB
  }
}
layer {
  name: "conv0"
  type: "Convolution"
  bottom: "data"
  top: "conv0"
  param {
    lr_mult: 1
  }
  param {
    lr_mult: 2
  }
  convolution_param {
    num_output: 8
    pad: 2
    kernel_size: 3
    stride: 1
    weight_filler {
      type: "gaussian"
      std: 0.01
    }
    bias_filler {
      type: "constant"
    }
  }
}
layer {
  name: "Sigmoid0"
  type: "Sigmoid"
  bottom: "conv0"
  top: "Sigmoid0"
}
layer {
  name: "pool0"
  type: "Pooling"
  bottom: "Sigmoid0"
  top: "pool0"
  pooling_param {
    pool: AVE
    kernel_size: 3
    stride: 2
  }
}
layer {
  name: "ip1"
  type: "InnerProduct"
  bottom: "pool0"
  top: "ip1"
  param {
    lr_mult: 1
  }
  param {
    lr_mult: 2
  }
  inner_product_param {
    num_output: 40
    weight_filler {
      type: "gaussian"
      std: 0.01
    }
    bias_filler {
      type: "constant"
    }
  }
}
layer {
  name: "relu1"
  type: "ReLU"
  bottom: "ip1"
  top: "ip1"
}
layer {
  name: "ip2"
  type: "InnerProduct"
  bottom: "ip1"
  top: "ip2"
  param {
    lr_mult: 1
  }
  param {
    lr_mult: 2
  }
  inner_product_param {
    num_output: 40
    weight_filler {
      type: "gaussian"
      std: 0.01
    }
    bias_filler {
      type: "constant"
    }
  }
}
layer {
  name: "relu2"
  type: "ReLU"
  bottom: "ip2"
  top: "ip2"
}
layer {
  name: "ip3"
  type: "InnerProduct"
  bottom: "ip2"
  top: "ip3"
  param {
    lr_mult: 1
  }
  param {
    lr_mult: 2
  }
  inner_product_param {
    num_output: 10
    weight_filler {
      type: "gaussian"
      std: 0.01
    }
    bias_filler {
      type: "constant"
    }
  }
}
layer {
  name: "relu3"
  type: "ReLU"
  bottom: "ip3"
  top: "ip3"
}
layer {
  name: "ip4"
  type: "InnerProduct"
  bottom: "ip3"
  top: "ip4"
  param {
    lr_mult: 1
  }
  param {
    lr_mult: 2
  }
  inner_product_param {
    num_output: 10
    weight_filler {
      type: "gaussian"
      std: 0.01
    }
    bias_filler {
      type: "constant"
    }
  }
}
layer {
  name: "accuracy"
  type: "Accuracy"
  bottom: "ip4"
  bottom: "label"
  top: "accuracy"
  include {
    phase: TEST
  }
}
layer {
  name: "loss"
  type: "SoftmaxWithLoss"
  bottom: "ip4"
  bottom: "label"
  top: "loss"
}
I0501 00:03:17.598549  6228 layer_factory.hpp:77] Creating layer cifar
I0501 00:03:17.598592  6228 db_lmdb.cpp:35] Opened lmdb examples/cifar10/cifar10_test_lmdb
I0501 00:03:17.598604  6228 net.cpp:86] Creating Layer cifar
I0501 00:03:17.598609  6228 net.cpp:382] cifar -> data
I0501 00:03:17.598616  6228 net.cpp:382] cifar -> label
I0501 00:03:17.598623  6228 data_transformer.cpp:25] Loading mean file from: examples/cifar10/mean.binaryproto
I0501 00:03:17.598773  6228 data_layer.cpp:45] output data size: 1000,3,32,32
I0501 00:03:17.620944  6228 net.cpp:124] Setting up cifar
I0501 00:03:17.620987  6228 net.cpp:131] Top shape: 1000 3 32 32 (3072000)
I0501 00:03:17.620993  6228 net.cpp:131] Top shape: 1000 (1000)
I0501 00:03:17.620996  6228 net.cpp:139] Memory required for data: 12292000
I0501 00:03:17.621003  6228 layer_factory.hpp:77] Creating layer label_cifar_1_split
I0501 00:03:17.621017  6228 net.cpp:86] Creating Layer label_cifar_1_split
I0501 00:03:17.621021  6228 net.cpp:408] label_cifar_1_split <- label
I0501 00:03:17.621028  6228 net.cpp:382] label_cifar_1_split -> label_cifar_1_split_0
I0501 00:03:17.621037  6228 net.cpp:382] label_cifar_1_split -> label_cifar_1_split_1
I0501 00:03:17.621177  6228 net.cpp:124] Setting up label_cifar_1_split
I0501 00:03:17.621186  6228 net.cpp:131] Top shape: 1000 (1000)
I0501 00:03:17.621189  6228 net.cpp:131] Top shape: 1000 (1000)
I0501 00:03:17.621192  6228 net.cpp:139] Memory required for data: 12300000
I0501 00:03:17.621196  6228 layer_factory.hpp:77] Creating layer conv0
I0501 00:03:17.621208  6228 net.cpp:86] Creating Layer conv0
I0501 00:03:17.621212  6228 net.cpp:408] conv0 <- data
I0501 00:03:17.621217  6228 net.cpp:382] conv0 -> conv0
I0501 00:03:17.622784  6228 net.cpp:124] Setting up conv0
I0501 00:03:17.622797  6228 net.cpp:131] Top shape: 1000 8 34 34 (9248000)
I0501 00:03:17.622817  6228 net.cpp:139] Memory required for data: 49292000
I0501 00:03:17.622825  6228 layer_factory.hpp:77] Creating layer Sigmoid0
I0501 00:03:17.622834  6228 net.cpp:86] Creating Layer Sigmoid0
I0501 00:03:17.622838  6228 net.cpp:408] Sigmoid0 <- conv0
I0501 00:03:17.622843  6228 net.cpp:382] Sigmoid0 -> Sigmoid0
I0501 00:03:17.623013  6228 net.cpp:124] Setting up Sigmoid0
I0501 00:03:17.623023  6228 net.cpp:131] Top shape: 1000 8 34 34 (9248000)
I0501 00:03:17.623025  6228 net.cpp:139] Memory required for data: 86284000
I0501 00:03:17.623028  6228 layer_factory.hpp:77] Creating layer pool0
I0501 00:03:17.623039  6228 net.cpp:86] Creating Layer pool0
I0501 00:03:17.623042  6228 net.cpp:408] pool0 <- Sigmoid0
I0501 00:03:17.623047  6228 net.cpp:382] pool0 -> pool0
I0501 00:03:17.623318  6228 net.cpp:124] Setting up pool0
I0501 00:03:17.623327  6228 net.cpp:131] Top shape: 1000 8 17 17 (2312000)
I0501 00:03:17.623330  6228 net.cpp:139] Memory required for data: 95532000
I0501 00:03:17.623333  6228 layer_factory.hpp:77] Creating layer ip1
I0501 00:03:17.623342  6228 net.cpp:86] Creating Layer ip1
I0501 00:03:17.623360  6228 net.cpp:408] ip1 <- pool0
I0501 00:03:17.623368  6228 net.cpp:382] ip1 -> ip1
I0501 00:03:17.626873  6228 net.cpp:124] Setting up ip1
I0501 00:03:17.626884  6228 net.cpp:131] Top shape: 1000 40 (40000)
I0501 00:03:17.626902  6228 net.cpp:139] Memory required for data: 95692000
I0501 00:03:17.626925  6228 layer_factory.hpp:77] Creating layer relu1
I0501 00:03:17.626934  6228 net.cpp:86] Creating Layer relu1
I0501 00:03:17.626936  6228 net.cpp:408] relu1 <- ip1
I0501 00:03:17.626941  6228 net.cpp:369] relu1 -> ip1 (in-place)
I0501 00:03:17.627110  6228 net.cpp:124] Setting up relu1
I0501 00:03:17.627118  6228 net.cpp:131] Top shape: 1000 40 (40000)
I0501 00:03:17.627121  6228 net.cpp:139] Memory required for data: 95852000
I0501 00:03:17.627125  6228 layer_factory.hpp:77] Creating layer ip2
I0501 00:03:17.627132  6228 net.cpp:86] Creating Layer ip2
I0501 00:03:17.627135  6228 net.cpp:408] ip2 <- ip1
I0501 00:03:17.627141  6228 net.cpp:382] ip2 -> ip2
I0501 00:03:17.627300  6228 net.cpp:124] Setting up ip2
I0501 00:03:17.627308  6228 net.cpp:131] Top shape: 1000 40 (40000)
I0501 00:03:17.627311  6228 net.cpp:139] Memory required for data: 96012000
I0501 00:03:17.627317  6228 layer_factory.hpp:77] Creating layer relu2
I0501 00:03:17.627323  6228 net.cpp:86] Creating Layer relu2
I0501 00:03:17.627326  6228 net.cpp:408] relu2 <- ip2
I0501 00:03:17.627331  6228 net.cpp:369] relu2 -> ip2 (in-place)
I0501 00:03:17.628088  6228 net.cpp:124] Setting up relu2
I0501 00:03:17.628101  6228 net.cpp:131] Top shape: 1000 40 (40000)
I0501 00:03:17.628119  6228 net.cpp:139] Memory required for data: 96172000
I0501 00:03:17.628123  6228 layer_factory.hpp:77] Creating layer ip3
I0501 00:03:17.628131  6228 net.cpp:86] Creating Layer ip3
I0501 00:03:17.628134  6228 net.cpp:408] ip3 <- ip2
I0501 00:03:17.628140  6228 net.cpp:382] ip3 -> ip3
I0501 00:03:17.628271  6228 net.cpp:124] Setting up ip3
I0501 00:03:17.628279  6228 net.cpp:131] Top shape: 1000 10 (10000)
I0501 00:03:17.628283  6228 net.cpp:139] Memory required for data: 96212000
I0501 00:03:17.628288  6228 layer_factory.hpp:77] Creating layer relu3
I0501 00:03:17.628293  6228 net.cpp:86] Creating Layer relu3
I0501 00:03:17.628295  6228 net.cpp:408] relu3 <- ip3
I0501 00:03:17.628301  6228 net.cpp:369] relu3 -> ip3 (in-place)
I0501 00:03:17.628450  6228 net.cpp:124] Setting up relu3
I0501 00:03:17.628458  6228 net.cpp:131] Top shape: 1000 10 (10000)
I0501 00:03:17.628461  6228 net.cpp:139] Memory required for data: 96252000
I0501 00:03:17.628464  6228 layer_factory.hpp:77] Creating layer ip4
I0501 00:03:17.628470  6228 net.cpp:86] Creating Layer ip4
I0501 00:03:17.628474  6228 net.cpp:408] ip4 <- ip3
I0501 00:03:17.628479  6228 net.cpp:382] ip4 -> ip4
I0501 00:03:17.628579  6228 net.cpp:124] Setting up ip4
I0501 00:03:17.628587  6228 net.cpp:131] Top shape: 1000 10 (10000)
I0501 00:03:17.628590  6228 net.cpp:139] Memory required for data: 96292000
I0501 00:03:17.628598  6228 layer_factory.hpp:77] Creating layer ip4_ip4_0_split
I0501 00:03:17.628603  6228 net.cpp:86] Creating Layer ip4_ip4_0_split
I0501 00:03:17.628607  6228 net.cpp:408] ip4_ip4_0_split <- ip4
I0501 00:03:17.628610  6228 net.cpp:382] ip4_ip4_0_split -> ip4_ip4_0_split_0
I0501 00:03:17.628615  6228 net.cpp:382] ip4_ip4_0_split -> ip4_ip4_0_split_1
I0501 00:03:17.628646  6228 net.cpp:124] Setting up ip4_ip4_0_split
I0501 00:03:17.628651  6228 net.cpp:131] Top shape: 1000 10 (10000)
I0501 00:03:17.628654  6228 net.cpp:131] Top shape: 1000 10 (10000)
I0501 00:03:17.628657  6228 net.cpp:139] Memory required for data: 96372000
I0501 00:03:17.628660  6228 layer_factory.hpp:77] Creating layer accuracy
I0501 00:03:17.628666  6228 net.cpp:86] Creating Layer accuracy
I0501 00:03:17.628669  6228 net.cpp:408] accuracy <- ip4_ip4_0_split_0
I0501 00:03:17.628672  6228 net.cpp:408] accuracy <- label_cifar_1_split_0
I0501 00:03:17.628677  6228 net.cpp:382] accuracy -> accuracy
…
