…
I0430 23:18:25.782013  4610 net.cpp:296] The NetState phase (0) differed from the phase (1) specified by a rule in layer cifar
I0430 23:18:25.782032  4610 net.cpp:296] The NetState phase (0) differed from the phase (1) specified by a rule in layer accuracy
I0430 23:18:25.782137  4610 net.cpp:53] Initializing net from parameters: 
name: "CIFAR"
state {
  phase: TRAIN
  level: 0
  stage: ""
}
layer {
  name: "cifar"
  type: "Data"
  top: "data"
  top: "label"
  include {
    phase: TRAIN
  }
  transform_param {
    mean_file: "examples/cifar10/mean.binaryproto"
  }
  data_param {
    source: "examples/cifar10/cifar10_train_lmdb"
    batch_size: 111
    backend: LMDB
  }
}
layer {
  name: "conv0"
  type: "Convolution"
  bottom: "data"
  top: "conv0"
  param {
    lr_mult: 1
  }
  param {
    lr_mult: 2
  }
  convolution_param {
    num_output: 8
    pad: 2
    kernel_size: 3
    stride: 1
    weight_filler {
      type: "gaussian"
      std: 0.01
    }
    bias_filler {
      type: "constant"
    }
  }
}
layer {
  name: "Sigmoid0"
  type: "Sigmoid"
  bottom: "conv0"
  top: "Sigmoid0"
}
layer {
  name: "pool0"
  type: "Pooling"
  bottom: "Sigmoid0"
  top: "pool0"
  pooling_param {
    pool: AVE
    kernel_size: 3
    stride: 2
  }
}
layer {
  name: "ip1"
  type: "InnerProduct"
  bottom: "pool0"
  top: "ip1"
  param {
    lr_mult: 1
  }
  param {
    lr_mult: 2
  }
  inner_product_param {
    num_output: 20
    weight_filler {
      type: "gaussian"
      std: 0.01
    }
    bias_filler {
      type: "constant"
    }
  }
}
layer {
  name: "relu1"
  type: "ReLU"
  bottom: "ip1"
  top: "ip1"
}
layer {
  name: "ip2"
  type: "InnerProduct"
  bottom: "ip1"
  top: "ip2"
  param {
    lr_mult: 1
  }
  param {
    lr_mult: 2
  }
  inner_product_param {
    num_output: 40
    weight_filler {
      type: "gaussian"
      std: 0.01
    }
    bias_filler {
      type: "constant"
    }
  }
}
layer {
  name: "relu2"
  type: "ReLU"
  bottom: "ip2"
  top: "ip2"
}
layer {
  name: "ip3"
  type: "InnerProduct"
  bottom: "ip2"
  top: "ip3"
  param {
    lr_mult: 1
  }
  param {
    lr_mult: 2
  }
  inner_product_param {
    num_output: 20
    weight_filler {
      type: "gaussian"
      std: 0.01
    }
    bias_filler {
      type: "constant"
    }
  }
}
layer {
  name: "relu3"
  type: "ReLU"
  bottom: "ip3"
  top: "ip3"
}
layer {
  name: "ip4"
  type: "InnerProduct"
  bottom: "ip3"
  top: "ip4"
  param {
    lr_mult: 1
  }
  param {
    lr_mult: 2
  }
  inner_product_param {
    num_output: 10
    weight_filler {
      type: "gaussian"
      std: 0.01
    }
    bias_filler {
      type: "constant"
    }
  }
}
layer {
  name: "loss"
  type: "SoftmaxWithLoss"
  bottom: "ip4"
  bottom: "label"
  top: "loss"
}
I0430 23:18:25.782217  4610 layer_factory.hpp:77] Creating layer cifar
I0430 23:18:25.782315  4610 db_lmdb.cpp:35] Opened lmdb examples/cifar10/cifar10_train_lmdb
I0430 23:18:25.782342  4610 net.cpp:86] Creating Layer cifar
I0430 23:18:25.782351  4610 net.cpp:382] cifar -> data
I0430 23:18:25.782373  4610 net.cpp:382] cifar -> label
I0430 23:18:25.782385  4610 data_transformer.cpp:25] Loading mean file from: examples/cifar10/mean.binaryproto
I0430 23:18:25.784497  4610 data_layer.cpp:45] output data size: 111,3,32,32
I0430 23:18:25.792692  4610 net.cpp:124] Setting up cifar
I0430 23:18:25.792713  4610 net.cpp:131] Top shape: 111 3 32 32 (340992)
I0430 23:18:25.792719  4610 net.cpp:131] Top shape: 111 (111)
I0430 23:18:25.792723  4610 net.cpp:139] Memory required for data: 1364412
I0430 23:18:25.792745  4610 layer_factory.hpp:77] Creating layer conv0
I0430 23:18:25.792764  4610 net.cpp:86] Creating Layer conv0
I0430 23:18:25.792770  4610 net.cpp:408] conv0 <- data
I0430 23:18:25.792783  4610 net.cpp:382] conv0 -> conv0
I0430 23:18:26.081902  4610 net.cpp:124] Setting up conv0
I0430 23:18:26.081935  4610 net.cpp:131] Top shape: 111 8 34 34 (1026528)
I0430 23:18:26.081940  4610 net.cpp:139] Memory required for data: 5470524
I0430 23:18:26.081959  4610 layer_factory.hpp:77] Creating layer Sigmoid0
I0430 23:18:26.081974  4610 net.cpp:86] Creating Layer Sigmoid0
I0430 23:18:26.081979  4610 net.cpp:408] Sigmoid0 <- conv0
I0430 23:18:26.081984  4610 net.cpp:382] Sigmoid0 -> Sigmoid0
I0430 23:18:26.082201  4610 net.cpp:124] Setting up Sigmoid0
I0430 23:18:26.082212  4610 net.cpp:131] Top shape: 111 8 34 34 (1026528)
I0430 23:18:26.082216  4610 net.cpp:139] Memory required for data: 9576636
I0430 23:18:26.082221  4610 layer_factory.hpp:77] Creating layer pool0
I0430 23:18:26.082229  4610 net.cpp:86] Creating Layer pool0
I0430 23:18:26.082234  4610 net.cpp:408] pool0 <- Sigmoid0
I0430 23:18:26.082239  4610 net.cpp:382] pool0 -> pool0
I0430 23:18:26.083127  4610 net.cpp:124] Setting up pool0
I0430 23:18:26.083143  4610 net.cpp:131] Top shape: 111 8 17 17 (256632)
I0430 23:18:26.083148  4610 net.cpp:139] Memory required for data: 10603164
I0430 23:18:26.083153  4610 layer_factory.hpp:77] Creating layer ip1
I0430 23:18:26.083163  4610 net.cpp:86] Creating Layer ip1
I0430 23:18:26.083168  4610 net.cpp:408] ip1 <- pool0
I0430 23:18:26.083174  4610 net.cpp:382] ip1 -> ip1
I0430 23:18:26.085817  4610 net.cpp:124] Setting up ip1
I0430 23:18:26.085834  4610 net.cpp:131] Top shape: 111 20 (2220)
I0430 23:18:26.085837  4610 net.cpp:139] Memory required for data: 10612044
I0430 23:18:26.085847  4610 layer_factory.hpp:77] Creating layer relu1
I0430 23:18:26.085855  4610 net.cpp:86] Creating Layer relu1
I0430 23:18:26.085858  4610 net.cpp:408] relu1 <- ip1
I0430 23:18:26.085865  4610 net.cpp:369] relu1 -> ip1 (in-place)
I0430 23:18:26.086055  4610 net.cpp:124] Setting up relu1
I0430 23:18:26.086066  4610 net.cpp:131] Top shape: 111 20 (2220)
I0430 23:18:26.086069  4610 net.cpp:139] Memory required for data: 10620924
I0430 23:18:26.086073  4610 layer_factory.hpp:77] Creating layer ip2
I0430 23:18:26.086081  4610 net.cpp:86] Creating Layer ip2
I0430 23:18:26.086086  4610 net.cpp:408] ip2 <- ip1
I0430 23:18:26.086091  4610 net.cpp:382] ip2 -> ip2
I0430 23:18:26.087214  4610 net.cpp:124] Setting up ip2
I0430 23:18:26.087229  4610 net.cpp:131] Top shape: 111 40 (4440)
I0430 23:18:26.087234  4610 net.cpp:139] Memory required for data: 10638684
I0430 23:18:26.087244  4610 layer_factory.hpp:77] Creating layer relu2
I0430 23:18:26.087251  4610 net.cpp:86] Creating Layer relu2
I0430 23:18:26.087255  4610 net.cpp:408] relu2 <- ip2
I0430 23:18:26.087260  4610 net.cpp:369] relu2 -> ip2 (in-place)
I0430 23:18:26.087460  4610 net.cpp:124] Setting up relu2
I0430 23:18:26.087471  4610 net.cpp:131] Top shape: 111 40 (4440)
I0430 23:18:26.087474  4610 net.cpp:139] Memory required for data: 10656444
I0430 23:18:26.087478  4610 layer_factory.hpp:77] Creating layer ip3
I0430 23:18:26.087487  4610 net.cpp:86] Creating Layer ip3
I0430 23:18:26.087491  4610 net.cpp:408] ip3 <- ip2
I0430 23:18:26.087498  4610 net.cpp:382] ip3 -> ip3
I0430 23:18:26.087636  4610 net.cpp:124] Setting up ip3
I0430 23:18:26.087644  4610 net.cpp:131] Top shape: 111 20 (2220)
I0430 23:18:26.087648  4610 net.cpp:139] Memory required for data: 10665324
I0430 23:18:26.087656  4610 layer_factory.hpp:77] Creating layer relu3
I0430 23:18:26.087661  4610 net.cpp:86] Creating Layer relu3
I0430 23:18:26.087666  4610 net.cpp:408] relu3 <- ip3
I0430 23:18:26.087671  4610 net.cpp:369] relu3 -> ip3 (in-place)
I0430 23:18:26.087855  4610 net.cpp:124] Setting up relu3
I0430 23:18:26.087864  4610 net.cpp:131] Top shape: 111 20 (2220)
I0430 23:18:26.087868  4610 net.cpp:139] Memory required for data: 10674204
I0430 23:18:26.087872  4610 layer_factory.hpp:77] Creating layer ip4
I0430 23:18:26.087898  4610 net.cpp:86] Creating Layer ip4
I0430 23:18:26.087903  4610 net.cpp:408] ip4 <- ip3
I0430 23:18:26.087908  4610 net.cpp:382] ip4 -> ip4
I0430 23:18:26.088027  4610 net.cpp:124] Setting up ip4
I0430 23:18:26.088037  4610 net.cpp:131] Top shape: 111 10 (1110)
I0430 23:18:26.088039  4610 net.cpp:139] Memory required for data: 10678644
I0430 23:18:26.088048  4610 layer_factory.hpp:77] Creating layer loss
I0430 23:18:26.088055  4610 net.cpp:86] Creating Layer loss
I0430 23:18:26.088059  4610 net.cpp:408] loss <- ip4
I0430 23:18:26.088063  4610 net.cpp:408] loss <- label
I0430 23:18:26.088070  4610 net.cpp:382] loss -> loss
I0430 23:18:26.088089  4610 layer_factory.hpp:77] Creating layer loss
…
I0430 23:18:26.089536  4610 solver.cpp:173] Creating test net (#0) specified by net file: ECE595/cifar/train_test/var_everything/cifar_train_test_221.prototxt
I0430 23:18:26.089570  4610 net.cpp:296] The NetState phase (1) differed from the phase (0) specified by a rule in layer cifar
I0430 23:18:26.089680  4610 net.cpp:53] Initializing net from parameters: 
name: "CIFAR"
state {
  phase: TEST
}
layer {
  name: "cifar"
  type: "Data"
  top: "data"
  top: "label"
  include {
    phase: TEST
  }
  transform_param {
    mean_file: "examples/cifar10/mean.binaryproto"
  }
  data_param {
    source: "examples/cifar10/cifar10_test_lmdb"
    batch_size: 1000
    backend: LMDB
  }
}
layer {
  name: "conv0"
  type: "Convolution"
  bottom: "data"
  top: "conv0"
  param {
    lr_mult: 1
  }
  param {
    lr_mult: 2
  }
  convolution_param {
    num_output: 8
    pad: 2
    kernel_size: 3
    stride: 1
    weight_filler {
      type: "gaussian"
      std: 0.01
    }
    bias_filler {
      type: "constant"
    }
  }
}
layer {
  name: "Sigmoid0"
  type: "Sigmoid"
  bottom: "conv0"
  top: "Sigmoid0"
}
layer {
  name: "pool0"
  type: "Pooling"
  bottom: "Sigmoid0"
  top: "pool0"
  pooling_param {
    pool: AVE
    kernel_size: 3
    stride: 2
  }
}
layer {
  name: "ip1"
  type: "InnerProduct"
  bottom: "pool0"
  top: "ip1"
  param {
    lr_mult: 1
  }
  param {
    lr_mult: 2
  }
  inner_product_param {
    num_output: 20
    weight_filler {
      type: "gaussian"
      std: 0.01
    }
    bias_filler {
      type: "constant"
    }
  }
}
layer {
  name: "relu1"
  type: "ReLU"
  bottom: "ip1"
  top: "ip1"
}
layer {
  name: "ip2"
  type: "InnerProduct"
  bottom: "ip1"
  top: "ip2"
  param {
    lr_mult: 1
  }
  param {
    lr_mult: 2
  }
  inner_product_param {
    num_output: 40
    weight_filler {
      type: "gaussian"
      std: 0.01
    }
    bias_filler {
      type: "constant"
    }
  }
}
layer {
  name: "relu2"
  type: "ReLU"
  bottom: "ip2"
  top: "ip2"
}
layer {
  name: "ip3"
  type: "InnerProduct"
  bottom: "ip2"
  top: "ip3"
  param {
    lr_mult: 1
  }
  param {
    lr_mult: 2
  }
  inner_product_param {
    num_output: 20
    weight_filler {
      type: "gaussian"
      std: 0.01
    }
    bias_filler {
      type: "constant"
    }
  }
}
layer {
  name: "relu3"
  type: "ReLU"
  bottom: "ip3"
  top: "ip3"
}
layer {
  name: "ip4"
  type: "InnerProduct"
  bottom: "ip3"
  top: "ip4"
  param {
    lr_mult: 1
  }
  param {
    lr_mult: 2
  }
  inner_product_param {
    num_output: 10
    weight_filler {
      type: "gaussian"
      std: 0.01
    }
    bias_filler {
      type: "constant"
    }
  }
}
layer {
  name: "accuracy"
  type: "Accuracy"
  bottom: "ip4"
  bottom: "label"
  top: "accuracy"
  include {
    phase: TEST
  }
}
layer {
  name: "loss"
  type: "SoftmaxWithLoss"
  bottom: "ip4"
  bottom: "label"
  top: "loss"
}
I0430 23:18:26.089776  4610 layer_factory.hpp:77] Creating layer cifar
I0430 23:18:26.089829  4610 db_lmdb.cpp:35] Opened lmdb examples/cifar10/cifar10_test_lmdb
I0430 23:18:26.089843  4610 net.cpp:86] Creating Layer cifar
I0430 23:18:26.089849  4610 net.cpp:382] cifar -> data
I0430 23:18:26.089859  4610 net.cpp:382] cifar -> label
I0430 23:18:26.089866  4610 data_transformer.cpp:25] Loading mean file from: examples/cifar10/mean.binaryproto
I0430 23:18:26.090036  4610 data_layer.cpp:45] output data size: 1000,3,32,32
I0430 23:18:26.116011  4610 net.cpp:124] Setting up cifar
I0430 23:18:26.116042  4610 net.cpp:131] Top shape: 1000 3 32 32 (3072000)
I0430 23:18:26.116050  4610 net.cpp:131] Top shape: 1000 (1000)
I0430 23:18:26.116053  4610 net.cpp:139] Memory required for data: 12292000
I0430 23:18:26.116060  4610 layer_factory.hpp:77] Creating layer label_cifar_1_split
I0430 23:18:26.116078  4610 net.cpp:86] Creating Layer label_cifar_1_split
I0430 23:18:26.116084  4610 net.cpp:408] label_cifar_1_split <- label
I0430 23:18:26.116091  4610 net.cpp:382] label_cifar_1_split -> label_cifar_1_split_0
I0430 23:18:26.116102  4610 net.cpp:382] label_cifar_1_split -> label_cifar_1_split_1
I0430 23:18:26.116209  4610 net.cpp:124] Setting up label_cifar_1_split
I0430 23:18:26.116219  4610 net.cpp:131] Top shape: 1000 (1000)
I0430 23:18:26.116225  4610 net.cpp:131] Top shape: 1000 (1000)
I0430 23:18:26.116227  4610 net.cpp:139] Memory required for data: 12300000
I0430 23:18:26.116231  4610 layer_factory.hpp:77] Creating layer conv0
I0430 23:18:26.116247  4610 net.cpp:86] Creating Layer conv0
I0430 23:18:26.116251  4610 net.cpp:408] conv0 <- data
I0430 23:18:26.116258  4610 net.cpp:382] conv0 -> conv0
I0430 23:18:26.118983  4610 net.cpp:124] Setting up conv0
I0430 23:18:26.119001  4610 net.cpp:131] Top shape: 1000 8 34 34 (9248000)
I0430 23:18:26.119005  4610 net.cpp:139] Memory required for data: 49292000
I0430 23:18:26.119017  4610 layer_factory.hpp:77] Creating layer Sigmoid0
I0430 23:18:26.119026  4610 net.cpp:86] Creating Layer Sigmoid0
I0430 23:18:26.119040  4610 net.cpp:408] Sigmoid0 <- conv0
I0430 23:18:26.119045  4610 net.cpp:382] Sigmoid0 -> Sigmoid0
I0430 23:18:26.119267  4610 net.cpp:124] Setting up Sigmoid0
I0430 23:18:26.119279  4610 net.cpp:131] Top shape: 1000 8 34 34 (9248000)
I0430 23:18:26.119284  4610 net.cpp:139] Memory required for data: 86284000
I0430 23:18:26.119288  4610 layer_factory.hpp:77] Creating layer pool0
I0430 23:18:26.119298  4610 net.cpp:86] Creating Layer pool0
I0430 23:18:26.119302  4610 net.cpp:408] pool0 <- Sigmoid0
I0430 23:18:26.119308  4610 net.cpp:382] pool0 -> pool0
I0430 23:18:26.119505  4610 net.cpp:124] Setting up pool0
I0430 23:18:26.119515  4610 net.cpp:131] Top shape: 1000 8 17 17 (2312000)
I0430 23:18:26.119519  4610 net.cpp:139] Memory required for data: 95532000
I0430 23:18:26.119524  4610 layer_factory.hpp:77] Creating layer ip1
I0430 23:18:26.119532  4610 net.cpp:86] Creating Layer ip1
I0430 23:18:26.119536  4610 net.cpp:408] ip1 <- pool0
I0430 23:18:26.119542  4610 net.cpp:382] ip1 -> ip1
I0430 23:18:26.121206  4610 net.cpp:124] Setting up ip1
I0430 23:18:26.121217  4610 net.cpp:131] Top shape: 1000 20 (20000)
I0430 23:18:26.121220  4610 net.cpp:139] Memory required for data: 95612000
I0430 23:18:26.121245  4610 layer_factory.hpp:77] Creating layer relu1
I0430 23:18:26.121253  4610 net.cpp:86] Creating Layer relu1
I0430 23:18:26.121256  4610 net.cpp:408] relu1 <- ip1
I0430 23:18:26.121263  4610 net.cpp:369] relu1 -> ip1 (in-place)
I0430 23:18:26.121454  4610 net.cpp:124] Setting up relu1
I0430 23:18:26.121464  4610 net.cpp:131] Top shape: 1000 20 (20000)
I0430 23:18:26.121469  4610 net.cpp:139] Memory required for data: 95692000
I0430 23:18:26.121471  4610 layer_factory.hpp:77] Creating layer ip2
I0430 23:18:26.121480  4610 net.cpp:86] Creating Layer ip2
I0430 23:18:26.121484  4610 net.cpp:408] ip2 <- ip1
I0430 23:18:26.121490  4610 net.cpp:382] ip2 -> ip2
I0430 23:18:26.121639  4610 net.cpp:124] Setting up ip2
I0430 23:18:26.121649  4610 net.cpp:131] Top shape: 1000 40 (40000)
I0430 23:18:26.121651  4610 net.cpp:139] Memory required for data: 95852000
I0430 23:18:26.121660  4610 layer_factory.hpp:77] Creating layer relu2
I0430 23:18:26.121667  4610 net.cpp:86] Creating Layer relu2
I0430 23:18:26.121672  4610 net.cpp:408] relu2 <- ip2
I0430 23:18:26.121677  4610 net.cpp:369] relu2 -> ip2 (in-place)
I0430 23:18:26.122566  4610 net.cpp:124] Setting up relu2
I0430 23:18:26.122581  4610 net.cpp:131] Top shape: 1000 40 (40000)
I0430 23:18:26.122586  4610 net.cpp:139] Memory required for data: 96012000
I0430 23:18:26.122591  4610 layer_factory.hpp:77] Creating layer ip3
I0430 23:18:26.122599  4610 net.cpp:86] Creating Layer ip3
I0430 23:18:26.122603  4610 net.cpp:408] ip3 <- ip2
I0430 23:18:26.122609  4610 net.cpp:382] ip3 -> ip3
I0430 23:18:26.122761  4610 net.cpp:124] Setting up ip3
I0430 23:18:26.122771  4610 net.cpp:131] Top shape: 1000 20 (20000)
I0430 23:18:26.122774  4610 net.cpp:139] Memory required for data: 96092000
I0430 23:18:26.122781  4610 layer_factory.hpp:77] Creating layer relu3
I0430 23:18:26.122787  4610 net.cpp:86] Creating Layer relu3
I0430 23:18:26.122792  4610 net.cpp:408] relu3 <- ip3
I0430 23:18:26.122797  4610 net.cpp:369] relu3 -> ip3 (in-place)
I0430 23:18:26.122979  4610 net.cpp:124] Setting up relu3
I0430 23:18:26.122989  4610 net.cpp:131] Top shape: 1000 20 (20000)
I0430 23:18:26.122992  4610 net.cpp:139] Memory required for data: 96172000
I0430 23:18:26.122997  4610 layer_factory.hpp:77] Creating layer ip4
I0430 23:18:26.123004  4610 net.cpp:86] Creating Layer ip4
I0430 23:18:26.123008  4610 net.cpp:408] ip4 <- ip3
I0430 23:18:26.123013  4610 net.cpp:382] ip4 -> ip4
I0430 23:18:26.123142  4610 net.cpp:124] Setting up ip4
I0430 23:18:26.123150  4610 net.cpp:131] Top shape: 1000 10 (10000)
I0430 23:18:26.123154  4610 net.cpp:139] Memory required for data: 96212000
I0430 23:18:26.123164  4610 layer_factory.hpp:77] Creating layer ip4_ip4_0_split
I0430 23:18:26.123172  4610 net.cpp:86] Creating Layer ip4_ip4_0_split
I0430 23:18:26.123175  4610 net.cpp:408] ip4_ip4_0_split <- ip4
I0430 23:18:26.123180  4610 net.cpp:382] ip4_ip4_0_split -> ip4_ip4_0_split_0
I0430 23:18:26.123188  4610 net.cpp:382] ip4_ip4_0_split -> ip4_ip4_0_split_1
I0430 23:18:26.123222  4610 net.cpp:124] Setting up ip4_ip4_0_split
I0430 23:18:26.123229  4610 net.cpp:131] Top shape: 1000 10 (10000)
I0430 23:18:26.123234  4610 net.cpp:131] Top shape: 1000 10 (10000)
I0430 23:18:26.123237  4610 net.cpp:139] Memory required for data: 96292000
I0430 23:18:26.123240  4610 layer_factory.hpp:77] Creating layer accuracy
I0430 23:18:26.123248  4610 net.cpp:86] Creating Layer accuracy
I0430 23:18:26.123252  4610 net.cpp:408] accuracy <- ip4_ip4_0_split_0
I0430 23:18:26.123257  4610 net.cpp:408] accuracy <- label_cifar_1_split_0
I0430 23:18:26.123263  4610 net.cpp:382] accuracy -> accuracy
…
