…
I0430 17:57:48.511034 21433 net.cpp:296] The NetState phase (0) differed from the phase (1) specified by a rule in layer cifar
I0430 17:57:48.511051 21433 net.cpp:296] The NetState phase (0) differed from the phase (1) specified by a rule in layer accuracy
I0430 17:57:48.511157 21433 net.cpp:53] Initializing net from parameters: 
name: "CIFAR"
state {
  phase: TRAIN
  level: 0
  stage: ""
}
layer {
  name: "cifar"
  type: "Data"
  top: "data"
  top: "label"
  include {
    phase: TRAIN
  }
  transform_param {
    mean_file: "examples/cifar10/mean.binaryproto"
  }
  data_param {
    source: "examples/cifar10/cifar10_train_lmdb"
    batch_size: 111
    backend: LMDB
  }
}
layer {
  name: "ip1"
  type: "InnerProduct"
  bottom: "data"
  top: "ip1"
  param {
    lr_mult: 1
  }
  param {
    lr_mult: 2
  }
  inner_product_param {
    num_output: 10
    weight_filler {
      type: "gaussian"
      std: 0.01
    }
    bias_filler {
      type: "constant"
    }
  }
}
layer {
  name: "relu1"
  type: "ReLU"
  bottom: "ip1"
  top: "ip1"
}
layer {
  name: "ip2"
  type: "InnerProduct"
  bottom: "ip1"
  top: "ip2"
  param {
    lr_mult: 1
  }
  param {
    lr_mult: 2
  }
  inner_product_param {
    num_output: 160
    weight_filler {
      type: "gaussian"
      std: 0.01
    }
    bias_filler {
      type: "constant"
    }
  }
}
layer {
  name: "relu2"
  type: "ReLU"
  bottom: "ip2"
  top: "ip2"
}
layer {
  name: "ip3"
  type: "InnerProduct"
  bottom: "ip2"
  top: "ip3"
  param {
    lr_mult: 1
  }
  param {
    lr_mult: 2
  }
  inner_product_param {
    num_output: 20
    weight_filler {
      type: "gaussian"
      std: 0.01
    }
    bias_filler {
      type: "constant"
    }
  }
}
layer {
  name: "relu3"
  type: "ReLU"
  bottom: "ip3"
  top: "ip3"
}
layer {
  name: "ip4"
  type: "InnerProduct"
  bottom: "ip3"
  top: "ip4"
  param {
    lr_mult: 1
  }
  param {
    lr_mult: 2
  }
  inner_product_param {
    num_output: 10
    weight_filler {
      type: "gaussian"
      std: 0.01
    }
    bias_filler {
      type: "constant"
    }
  }
}
layer {
  name: "loss"
  type: "SoftmaxWithLoss"
  bottom: "ip4"
  bottom: "label"
  top: "loss"
}
I0430 17:57:48.511242 21433 layer_factory.hpp:77] Creating layer cifar
I0430 17:57:48.511376 21433 db_lmdb.cpp:35] Opened lmdb examples/cifar10/cifar10_train_lmdb
I0430 17:57:48.511414 21433 net.cpp:86] Creating Layer cifar
I0430 17:57:48.511425 21433 net.cpp:382] cifar -> data
I0430 17:57:48.511456 21433 net.cpp:382] cifar -> label
I0430 17:57:48.511473 21433 data_transformer.cpp:25] Loading mean file from: examples/cifar10/mean.binaryproto
I0430 17:57:48.513813 21433 data_layer.cpp:45] output data size: 111,3,32,32
I0430 17:57:48.521767 21433 net.cpp:124] Setting up cifar
I0430 17:57:48.521786 21433 net.cpp:131] Top shape: 111 3 32 32 (340992)
I0430 17:57:48.521793 21433 net.cpp:131] Top shape: 111 (111)
I0430 17:57:48.521797 21433 net.cpp:139] Memory required for data: 1364412
I0430 17:57:48.521805 21433 layer_factory.hpp:77] Creating layer ip1
I0430 17:57:48.521816 21433 net.cpp:86] Creating Layer ip1
I0430 17:57:48.521822 21433 net.cpp:408] ip1 <- data
I0430 17:57:48.521837 21433 net.cpp:382] ip1 -> ip1
I0430 17:57:48.524061 21433 net.cpp:124] Setting up ip1
I0430 17:57:48.524076 21433 net.cpp:131] Top shape: 111 10 (1110)
I0430 17:57:48.524081 21433 net.cpp:139] Memory required for data: 1368852
I0430 17:57:48.524096 21433 layer_factory.hpp:77] Creating layer relu1
I0430 17:57:48.524107 21433 net.cpp:86] Creating Layer relu1
I0430 17:57:48.524135 21433 net.cpp:408] relu1 <- ip1
I0430 17:57:48.524147 21433 net.cpp:369] relu1 -> ip1 (in-place)
I0430 17:57:48.810080 21433 net.cpp:124] Setting up relu1
I0430 17:57:48.810108 21433 net.cpp:131] Top shape: 111 10 (1110)
I0430 17:57:48.810112 21433 net.cpp:139] Memory required for data: 1373292
I0430 17:57:48.810118 21433 layer_factory.hpp:77] Creating layer ip2
I0430 17:57:48.810132 21433 net.cpp:86] Creating Layer ip2
I0430 17:57:48.810137 21433 net.cpp:408] ip2 <- ip1
I0430 17:57:48.810144 21433 net.cpp:382] ip2 -> ip2
I0430 17:57:48.810333 21433 net.cpp:124] Setting up ip2
I0430 17:57:48.810343 21433 net.cpp:131] Top shape: 111 160 (17760)
I0430 17:57:48.810348 21433 net.cpp:139] Memory required for data: 1444332
I0430 17:57:48.810361 21433 layer_factory.hpp:77] Creating layer relu2
I0430 17:57:48.810372 21433 net.cpp:86] Creating Layer relu2
I0430 17:57:48.810379 21433 net.cpp:408] relu2 <- ip2
I0430 17:57:48.810386 21433 net.cpp:369] relu2 -> ip2 (in-place)
I0430 17:57:48.811204 21433 net.cpp:124] Setting up relu2
I0430 17:57:48.811218 21433 net.cpp:131] Top shape: 111 160 (17760)
I0430 17:57:48.811221 21433 net.cpp:139] Memory required for data: 1515372
I0430 17:57:48.811225 21433 layer_factory.hpp:77] Creating layer ip3
I0430 17:57:48.811233 21433 net.cpp:86] Creating Layer ip3
I0430 17:57:48.811236 21433 net.cpp:408] ip3 <- ip2
I0430 17:57:48.811242 21433 net.cpp:382] ip3 -> ip3
I0430 17:57:48.811472 21433 net.cpp:124] Setting up ip3
I0430 17:57:48.811483 21433 net.cpp:131] Top shape: 111 20 (2220)
I0430 17:57:48.811486 21433 net.cpp:139] Memory required for data: 1524252
I0430 17:57:48.811498 21433 layer_factory.hpp:77] Creating layer relu3
I0430 17:57:48.811507 21433 net.cpp:86] Creating Layer relu3
I0430 17:57:48.811513 21433 net.cpp:408] relu3 <- ip3
I0430 17:57:48.811520 21433 net.cpp:369] relu3 -> ip3 (in-place)
I0430 17:57:48.811697 21433 net.cpp:124] Setting up relu3
I0430 17:57:48.811707 21433 net.cpp:131] Top shape: 111 20 (2220)
I0430 17:57:48.811710 21433 net.cpp:139] Memory required for data: 1533132
I0430 17:57:48.811714 21433 layer_factory.hpp:77] Creating layer ip4
I0430 17:57:48.811725 21433 net.cpp:86] Creating Layer ip4
I0430 17:57:48.811731 21433 net.cpp:408] ip4 <- ip3
I0430 17:57:48.811743 21433 net.cpp:382] ip4 -> ip4
I0430 17:57:48.811866 21433 net.cpp:124] Setting up ip4
I0430 17:57:48.811875 21433 net.cpp:131] Top shape: 111 10 (1110)
I0430 17:57:48.811878 21433 net.cpp:139] Memory required for data: 1537572
I0430 17:57:48.811887 21433 layer_factory.hpp:77] Creating layer loss
I0430 17:57:48.811904 21433 net.cpp:86] Creating Layer loss
I0430 17:57:48.811910 21433 net.cpp:408] loss <- ip4
I0430 17:57:48.811918 21433 net.cpp:408] loss <- label
I0430 17:57:48.811926 21433 net.cpp:382] loss -> loss
I0430 17:57:48.811945 21433 layer_factory.hpp:77] Creating layer loss
…
I0430 17:57:48.812599 21433 solver.cpp:173] Creating test net (#0) specified by net file: ECE595/cifar/train_test/var_everything/cifar_train_test_51.prototxt
I0430 17:57:48.812641 21433 net.cpp:296] The NetState phase (1) differed from the phase (0) specified by a rule in layer cifar
I0430 17:57:48.812741 21433 net.cpp:53] Initializing net from parameters: 
name: "CIFAR"
state {
  phase: TEST
}
layer {
  name: "cifar"
  type: "Data"
  top: "data"
  top: "label"
  include {
    phase: TEST
  }
  transform_param {
    mean_file: "examples/cifar10/mean.binaryproto"
  }
  data_param {
    source: "examples/cifar10/cifar10_test_lmdb"
    batch_size: 1000
    backend: LMDB
  }
}
layer {
  name: "ip1"
  type: "InnerProduct"
  bottom: "data"
  top: "ip1"
  param {
    lr_mult: 1
  }
  param {
    lr_mult: 2
  }
  inner_product_param {
    num_output: 10
    weight_filler {
      type: "gaussian"
      std: 0.01
    }
    bias_filler {
      type: "constant"
    }
  }
}
layer {
  name: "relu1"
  type: "ReLU"
  bottom: "ip1"
  top: "ip1"
}
layer {
  name: "ip2"
  type: "InnerProduct"
  bottom: "ip1"
  top: "ip2"
  param {
    lr_mult: 1
  }
  param {
    lr_mult: 2
  }
  inner_product_param {
    num_output: 160
    weight_filler {
      type: "gaussian"
      std: 0.01
    }
    bias_filler {
      type: "constant"
    }
  }
}
layer {
  name: "relu2"
  type: "ReLU"
  bottom: "ip2"
  top: "ip2"
}
layer {
  name: "ip3"
  type: "InnerProduct"
  bottom: "ip2"
  top: "ip3"
  param {
    lr_mult: 1
  }
  param {
    lr_mult: 2
  }
  inner_product_param {
    num_output: 20
    weight_filler {
      type: "gaussian"
      std: 0.01
    }
    bias_filler {
      type: "constant"
    }
  }
}
layer {
  name: "relu3"
  type: "ReLU"
  bottom: "ip3"
  top: "ip3"
}
layer {
  name: "ip4"
  type: "InnerProduct"
  bottom: "ip3"
  top: "ip4"
  param {
    lr_mult: 1
  }
  param {
    lr_mult: 2
  }
  inner_product_param {
    num_output: 10
    weight_filler {
      type: "gaussian"
      std: 0.01
    }
    bias_filler {
      type: "constant"
    }
  }
}
layer {
  name: "accuracy"
  type: "Accuracy"
  bottom: "ip4"
  bottom: "label"
  top: "accuracy"
  include {
    phase: TEST
  }
}
layer {
  name: "loss"
  type: "SoftmaxWithLoss"
  bottom: "ip4"
  bottom: "label"
  top: "loss"
}
I0430 17:57:48.812846 21433 layer_factory.hpp:77] Creating layer cifar
I0430 17:57:48.812923 21433 db_lmdb.cpp:35] Opened lmdb examples/cifar10/cifar10_test_lmdb
I0430 17:57:48.812943 21433 net.cpp:86] Creating Layer cifar
I0430 17:57:48.812952 21433 net.cpp:382] cifar -> data
I0430 17:57:48.812965 21433 net.cpp:382] cifar -> label
I0430 17:57:48.812975 21433 data_transformer.cpp:25] Loading mean file from: examples/cifar10/mean.binaryproto
I0430 17:57:48.813199 21433 data_layer.cpp:45] output data size: 1000,3,32,32
I0430 17:57:48.836761 21433 net.cpp:124] Setting up cifar
I0430 17:57:48.836787 21433 net.cpp:131] Top shape: 1000 3 32 32 (3072000)
I0430 17:57:48.836793 21433 net.cpp:131] Top shape: 1000 (1000)
I0430 17:57:48.836796 21433 net.cpp:139] Memory required for data: 12292000
I0430 17:57:48.836802 21433 layer_factory.hpp:77] Creating layer label_cifar_1_split
I0430 17:57:48.836834 21433 net.cpp:86] Creating Layer label_cifar_1_split
I0430 17:57:48.836841 21433 net.cpp:408] label_cifar_1_split <- label
I0430 17:57:48.836848 21433 net.cpp:382] label_cifar_1_split -> label_cifar_1_split_0
I0430 17:57:48.836863 21433 net.cpp:382] label_cifar_1_split -> label_cifar_1_split_1
I0430 17:57:48.837016 21433 net.cpp:124] Setting up label_cifar_1_split
I0430 17:57:48.837024 21433 net.cpp:131] Top shape: 1000 (1000)
I0430 17:57:48.837028 21433 net.cpp:131] Top shape: 1000 (1000)
I0430 17:57:48.837031 21433 net.cpp:139] Memory required for data: 12300000
I0430 17:57:48.837034 21433 layer_factory.hpp:77] Creating layer ip1
I0430 17:57:48.837049 21433 net.cpp:86] Creating Layer ip1
I0430 17:57:48.837054 21433 net.cpp:408] ip1 <- data
I0430 17:57:48.837065 21433 net.cpp:382] ip1 -> ip1
I0430 17:57:48.838063 21433 net.cpp:124] Setting up ip1
I0430 17:57:48.838071 21433 net.cpp:131] Top shape: 1000 10 (10000)
I0430 17:57:48.838074 21433 net.cpp:139] Memory required for data: 12340000
I0430 17:57:48.838104 21433 layer_factory.hpp:77] Creating layer relu1
I0430 17:57:48.838115 21433 net.cpp:86] Creating Layer relu1
I0430 17:57:48.838120 21433 net.cpp:408] relu1 <- ip1
I0430 17:57:48.838127 21433 net.cpp:369] relu1 -> ip1 (in-place)
I0430 17:57:48.838989 21433 net.cpp:124] Setting up relu1
I0430 17:57:48.839001 21433 net.cpp:131] Top shape: 1000 10 (10000)
I0430 17:57:48.839004 21433 net.cpp:139] Memory required for data: 12380000
I0430 17:57:48.839010 21433 layer_factory.hpp:77] Creating layer ip2
I0430 17:57:48.839018 21433 net.cpp:86] Creating Layer ip2
I0430 17:57:48.839022 21433 net.cpp:408] ip2 <- ip1
I0430 17:57:48.839030 21433 net.cpp:382] ip2 -> ip2
I0430 17:57:48.840124 21433 net.cpp:124] Setting up ip2
I0430 17:57:48.840133 21433 net.cpp:131] Top shape: 1000 160 (160000)
I0430 17:57:48.840137 21433 net.cpp:139] Memory required for data: 13020000
I0430 17:57:48.840147 21433 layer_factory.hpp:77] Creating layer relu2
I0430 17:57:48.840155 21433 net.cpp:86] Creating Layer relu2
I0430 17:57:48.840160 21433 net.cpp:408] relu2 <- ip2
I0430 17:57:48.840167 21433 net.cpp:369] relu2 -> ip2 (in-place)
I0430 17:57:48.840350 21433 net.cpp:124] Setting up relu2
I0430 17:57:48.840358 21433 net.cpp:131] Top shape: 1000 160 (160000)
I0430 17:57:48.840361 21433 net.cpp:139] Memory required for data: 13660000
I0430 17:57:48.840365 21433 layer_factory.hpp:77] Creating layer ip3
I0430 17:57:48.840375 21433 net.cpp:86] Creating Layer ip3
I0430 17:57:48.840381 21433 net.cpp:408] ip3 <- ip2
I0430 17:57:48.840389 21433 net.cpp:382] ip3 -> ip3
I0430 17:57:48.840602 21433 net.cpp:124] Setting up ip3
I0430 17:57:48.840610 21433 net.cpp:131] Top shape: 1000 20 (20000)
I0430 17:57:48.840620 21433 net.cpp:139] Memory required for data: 13740000
I0430 17:57:48.840632 21433 layer_factory.hpp:77] Creating layer relu3
I0430 17:57:48.840642 21433 net.cpp:86] Creating Layer relu3
I0430 17:57:48.840647 21433 net.cpp:408] relu3 <- ip3
I0430 17:57:48.840654 21433 net.cpp:369] relu3 -> ip3 (in-place)
I0430 17:57:48.840847 21433 net.cpp:124] Setting up relu3
I0430 17:57:48.840863 21433 net.cpp:131] Top shape: 1000 20 (20000)
I0430 17:57:48.840867 21433 net.cpp:139] Memory required for data: 13820000
I0430 17:57:48.840870 21433 layer_factory.hpp:77] Creating layer ip4
I0430 17:57:48.840880 21433 net.cpp:86] Creating Layer ip4
I0430 17:57:48.840893 21433 net.cpp:408] ip4 <- ip3
I0430 17:57:48.840903 21433 net.cpp:382] ip4 -> ip4
I0430 17:57:48.841032 21433 net.cpp:124] Setting up ip4
I0430 17:57:48.841039 21433 net.cpp:131] Top shape: 1000 10 (10000)
I0430 17:57:48.841042 21433 net.cpp:139] Memory required for data: 13860000
I0430 17:57:48.841048 21433 layer_factory.hpp:77] Creating layer ip4_ip4_0_split
I0430 17:57:48.841056 21433 net.cpp:86] Creating Layer ip4_ip4_0_split
I0430 17:57:48.841061 21433 net.cpp:408] ip4_ip4_0_split <- ip4
I0430 17:57:48.841068 21433 net.cpp:382] ip4_ip4_0_split -> ip4_ip4_0_split_0
I0430 17:57:48.841089 21433 net.cpp:382] ip4_ip4_0_split -> ip4_ip4_0_split_1
I0430 17:57:48.841136 21433 net.cpp:124] Setting up ip4_ip4_0_split
I0430 17:57:48.841163 21433 net.cpp:131] Top shape: 1000 10 (10000)
I0430 17:57:48.841166 21433 net.cpp:131] Top shape: 1000 10 (10000)
I0430 17:57:48.841171 21433 net.cpp:139] Memory required for data: 13940000
I0430 17:57:48.841176 21433 layer_factory.hpp:77] Creating layer accuracy
I0430 17:57:48.841186 21433 net.cpp:86] Creating Layer accuracy
I0430 17:57:48.841190 21433 net.cpp:408] accuracy <- ip4_ip4_0_split_0
I0430 17:57:48.841197 21433 net.cpp:408] accuracy <- label_cifar_1_split_0
I0430 17:57:48.841203 21433 net.cpp:382] accuracy -> accuracy
…
