…
I0501 02:22:05.881506 14938 net.cpp:296] The NetState phase (0) differed from the phase (1) specified by a rule in layer cifar
I0501 02:22:05.881523 14938 net.cpp:296] The NetState phase (0) differed from the phase (1) specified by a rule in layer accuracy
I0501 02:22:05.881616 14938 net.cpp:53] Initializing net from parameters: 
name: "CIFAR"
state {
  phase: TRAIN
  level: 0
  stage: ""
}
layer {
  name: "cifar"
  type: "Data"
  top: "data"
  top: "label"
  include {
    phase: TRAIN
  }
  transform_param {
    mean_file: "examples/cifar10/mean.binaryproto"
  }
  data_param {
    source: "examples/cifar10/cifar10_train_lmdb"
    batch_size: 111
    backend: LMDB
  }
}
layer {
  name: "conv0"
  type: "Convolution"
  bottom: "data"
  top: "conv0"
  param {
    lr_mult: 1
  }
  param {
    lr_mult: 2
  }
  convolution_param {
    num_output: 8
    pad: 2
    kernel_size: 5
    stride: 1
    weight_filler {
      type: "gaussian"
      std: 0.01
    }
    bias_filler {
      type: "constant"
    }
  }
}
layer {
  name: "Sigmoid0"
  type: "Sigmoid"
  bottom: "conv0"
  top: "Sigmoid0"
}
layer {
  name: "pool0"
  type: "Pooling"
  bottom: "Sigmoid0"
  top: "pool0"
  pooling_param {
    pool: AVE
    kernel_size: 3
    stride: 2
  }
}
layer {
  name: "ip1"
  type: "InnerProduct"
  bottom: "pool0"
  top: "ip1"
  param {
    lr_mult: 1
  }
  param {
    lr_mult: 2
  }
  inner_product_param {
    num_output: 10
    weight_filler {
      type: "gaussian"
      std: 0.01
    }
    bias_filler {
      type: "constant"
    }
  }
}
layer {
  name: "relu1"
  type: "ReLU"
  bottom: "ip1"
  top: "ip1"
}
layer {
  name: "ip2"
  type: "InnerProduct"
  bottom: "ip1"
  top: "ip2"
  param {
    lr_mult: 1
  }
  param {
    lr_mult: 2
  }
  inner_product_param {
    num_output: 160
    weight_filler {
      type: "gaussian"
      std: 0.01
    }
    bias_filler {
      type: "constant"
    }
  }
}
layer {
  name: "relu2"
  type: "ReLU"
  bottom: "ip2"
  top: "ip2"
}
layer {
  name: "ip3"
  type: "InnerProduct"
  bottom: "ip2"
  top: "ip3"
  param {
    lr_mult: 1
  }
  param {
    lr_mult: 2
  }
  inner_product_param {
    num_output: 10
    weight_filler {
      type: "gaussian"
      std: 0.01
    }
    bias_filler {
      type: "constant"
    }
  }
}
layer {
  name: "loss"
  type: "SoftmaxWithLoss"
  bottom: "ip3"
  bottom: "label"
  top: "loss"
}
I0501 02:22:05.881693 14938 layer_factory.hpp:77] Creating layer cifar
I0501 02:22:05.881794 14938 db_lmdb.cpp:35] Opened lmdb examples/cifar10/cifar10_train_lmdb
I0501 02:22:05.881822 14938 net.cpp:86] Creating Layer cifar
I0501 02:22:05.881830 14938 net.cpp:382] cifar -> data
I0501 02:22:05.881855 14938 net.cpp:382] cifar -> label
I0501 02:22:05.881867 14938 data_transformer.cpp:25] Loading mean file from: examples/cifar10/mean.binaryproto
I0501 02:22:05.883973 14938 data_layer.cpp:45] output data size: 111,3,32,32
I0501 02:22:05.891839 14938 net.cpp:124] Setting up cifar
I0501 02:22:05.891861 14938 net.cpp:131] Top shape: 111 3 32 32 (340992)
I0501 02:22:05.891867 14938 net.cpp:131] Top shape: 111 (111)
I0501 02:22:05.891871 14938 net.cpp:139] Memory required for data: 1364412
I0501 02:22:05.891880 14938 layer_factory.hpp:77] Creating layer conv0
I0501 02:22:05.891897 14938 net.cpp:86] Creating Layer conv0
I0501 02:22:05.891903 14938 net.cpp:408] conv0 <- data
I0501 02:22:05.891916 14938 net.cpp:382] conv0 -> conv0
I0501 02:22:06.171252 14938 net.cpp:124] Setting up conv0
I0501 02:22:06.171313 14938 net.cpp:131] Top shape: 111 8 32 32 (909312)
I0501 02:22:06.171317 14938 net.cpp:139] Memory required for data: 5001660
I0501 02:22:06.171332 14938 layer_factory.hpp:77] Creating layer Sigmoid0
I0501 02:22:06.171344 14938 net.cpp:86] Creating Layer Sigmoid0
I0501 02:22:06.171349 14938 net.cpp:408] Sigmoid0 <- conv0
I0501 02:22:06.171353 14938 net.cpp:382] Sigmoid0 -> Sigmoid0
I0501 02:22:06.171514 14938 net.cpp:124] Setting up Sigmoid0
I0501 02:22:06.171525 14938 net.cpp:131] Top shape: 111 8 32 32 (909312)
I0501 02:22:06.171527 14938 net.cpp:139] Memory required for data: 8638908
I0501 02:22:06.171530 14938 layer_factory.hpp:77] Creating layer pool0
I0501 02:22:06.171536 14938 net.cpp:86] Creating Layer pool0
I0501 02:22:06.171540 14938 net.cpp:408] pool0 <- Sigmoid0
I0501 02:22:06.171545 14938 net.cpp:382] pool0 -> pool0
I0501 02:22:06.172261 14938 net.cpp:124] Setting up pool0
I0501 02:22:06.172274 14938 net.cpp:131] Top shape: 111 8 16 16 (227328)
I0501 02:22:06.172277 14938 net.cpp:139] Memory required for data: 9548220
I0501 02:22:06.172281 14938 layer_factory.hpp:77] Creating layer ip1
I0501 02:22:06.172289 14938 net.cpp:86] Creating Layer ip1
I0501 02:22:06.172293 14938 net.cpp:408] ip1 <- pool0
I0501 02:22:06.172297 14938 net.cpp:382] ip1 -> ip1
I0501 02:22:06.173779 14938 net.cpp:124] Setting up ip1
I0501 02:22:06.173791 14938 net.cpp:131] Top shape: 111 10 (1110)
I0501 02:22:06.173794 14938 net.cpp:139] Memory required for data: 9552660
I0501 02:22:06.173802 14938 layer_factory.hpp:77] Creating layer relu1
I0501 02:22:06.173809 14938 net.cpp:86] Creating Layer relu1
I0501 02:22:06.173811 14938 net.cpp:408] relu1 <- ip1
I0501 02:22:06.173815 14938 net.cpp:369] relu1 -> ip1 (in-place)
I0501 02:22:06.173976 14938 net.cpp:124] Setting up relu1
I0501 02:22:06.173985 14938 net.cpp:131] Top shape: 111 10 (1110)
I0501 02:22:06.173988 14938 net.cpp:139] Memory required for data: 9557100
I0501 02:22:06.173991 14938 layer_factory.hpp:77] Creating layer ip2
I0501 02:22:06.173997 14938 net.cpp:86] Creating Layer ip2
I0501 02:22:06.174000 14938 net.cpp:408] ip2 <- ip1
I0501 02:22:06.174005 14938 net.cpp:382] ip2 -> ip2
I0501 02:22:06.174132 14938 net.cpp:124] Setting up ip2
I0501 02:22:06.174139 14938 net.cpp:131] Top shape: 111 160 (17760)
I0501 02:22:06.174141 14938 net.cpp:139] Memory required for data: 9628140
I0501 02:22:06.174149 14938 layer_factory.hpp:77] Creating layer relu2
I0501 02:22:06.174154 14938 net.cpp:86] Creating Layer relu2
I0501 02:22:06.174156 14938 net.cpp:408] relu2 <- ip2
I0501 02:22:06.174160 14938 net.cpp:369] relu2 -> ip2 (in-place)
I0501 02:22:06.174301 14938 net.cpp:124] Setting up relu2
I0501 02:22:06.174309 14938 net.cpp:131] Top shape: 111 160 (17760)
I0501 02:22:06.174311 14938 net.cpp:139] Memory required for data: 9699180
I0501 02:22:06.174314 14938 layer_factory.hpp:77] Creating layer ip3
I0501 02:22:06.174321 14938 net.cpp:86] Creating Layer ip3
I0501 02:22:06.174324 14938 net.cpp:408] ip3 <- ip2
I0501 02:22:06.174329 14938 net.cpp:382] ip3 -> ip3
I0501 02:22:06.174459 14938 net.cpp:124] Setting up ip3
I0501 02:22:06.174466 14938 net.cpp:131] Top shape: 111 10 (1110)
I0501 02:22:06.174469 14938 net.cpp:139] Memory required for data: 9703620
I0501 02:22:06.174474 14938 layer_factory.hpp:77] Creating layer loss
I0501 02:22:06.174479 14938 net.cpp:86] Creating Layer loss
I0501 02:22:06.174482 14938 net.cpp:408] loss <- ip3
I0501 02:22:06.174485 14938 net.cpp:408] loss <- label
I0501 02:22:06.174490 14938 net.cpp:382] loss -> loss
I0501 02:22:06.174507 14938 layer_factory.hpp:77] Creating layer loss
…
I0501 02:22:06.175073 14938 solver.cpp:173] Creating test net (#0) specified by net file: ECE595/cifar/train_test/var_everything/cifar_train_test_319.prototxt
I0501 02:22:06.175099 14938 net.cpp:296] The NetState phase (1) differed from the phase (0) specified by a rule in layer cifar
I0501 02:22:06.175181 14938 net.cpp:53] Initializing net from parameters: 
name: "CIFAR"
state {
  phase: TEST
}
layer {
  name: "cifar"
  type: "Data"
  top: "data"
  top: "label"
  include {
    phase: TEST
  }
  transform_param {
    mean_file: "examples/cifar10/mean.binaryproto"
  }
  data_param {
    source: "examples/cifar10/cifar10_test_lmdb"
    batch_size: 1000
    backend: LMDB
  }
}
layer {
  name: "conv0"
  type: "Convolution"
  bottom: "data"
  top: "conv0"
  param {
    lr_mult: 1
  }
  param {
    lr_mult: 2
  }
  convolution_param {
    num_output: 8
    pad: 2
    kernel_size: 5
    stride: 1
    weight_filler {
      type: "gaussian"
      std: 0.01
    }
    bias_filler {
      type: "constant"
    }
  }
}
layer {
  name: "Sigmoid0"
  type: "Sigmoid"
  bottom: "conv0"
  top: "Sigmoid0"
}
layer {
  name: "pool0"
  type: "Pooling"
  bottom: "Sigmoid0"
  top: "pool0"
  pooling_param {
    pool: AVE
    kernel_size: 3
    stride: 2
  }
}
layer {
  name: "ip1"
  type: "InnerProduct"
  bottom: "pool0"
  top: "ip1"
  param {
    lr_mult: 1
  }
  param {
    lr_mult: 2
  }
  inner_product_param {
    num_output: 10
    weight_filler {
      type: "gaussian"
      std: 0.01
    }
    bias_filler {
      type: "constant"
    }
  }
}
layer {
  name: "relu1"
  type: "ReLU"
  bottom: "ip1"
  top: "ip1"
}
layer {
  name: "ip2"
  type: "InnerProduct"
  bottom: "ip1"
  top: "ip2"
  param {
    lr_mult: 1
  }
  param {
    lr_mult: 2
  }
  inner_product_param {
    num_output: 160
    weight_filler {
      type: "gaussian"
      std: 0.01
    }
    bias_filler {
      type: "constant"
    }
  }
}
layer {
  name: "relu2"
  type: "ReLU"
  bottom: "ip2"
  top: "ip2"
}
layer {
  name: "ip3"
  type: "InnerProduct"
  bottom: "ip2"
  top: "ip3"
  param {
    lr_mult: 1
  }
  param {
    lr_mult: 2
  }
  inner_product_param {
    num_output: 10
    weight_filler {
      type: "gaussian"
      std: 0.01
    }
    bias_filler {
      type: "constant"
    }
  }
}
layer {
  name: "accuracy"
  type: "Accuracy"
  bottom: "ip3"
  bottom: "label"
  top: "accuracy"
  include {
    phase: TEST
  }
}
layer {
  name: "loss"
  type: "SoftmaxWithLoss"
  bottom: "ip3"
  bottom: "label"
  top: "loss"
}
I0501 02:22:06.175242 14938 layer_factory.hpp:77] Creating layer cifar
I0501 02:22:06.175288 14938 db_lmdb.cpp:35] Opened lmdb examples/cifar10/cifar10_test_lmdb
I0501 02:22:06.175299 14938 net.cpp:86] Creating Layer cifar
I0501 02:22:06.175304 14938 net.cpp:382] cifar -> data
I0501 02:22:06.175312 14938 net.cpp:382] cifar -> label
I0501 02:22:06.175318 14938 data_transformer.cpp:25] Loading mean file from: examples/cifar10/mean.binaryproto
I0501 02:22:06.175453 14938 data_layer.cpp:45] output data size: 1000,3,32,32
I0501 02:22:06.197201 14938 net.cpp:124] Setting up cifar
I0501 02:22:06.197240 14938 net.cpp:131] Top shape: 1000 3 32 32 (3072000)
I0501 02:22:06.197247 14938 net.cpp:131] Top shape: 1000 (1000)
I0501 02:22:06.197249 14938 net.cpp:139] Memory required for data: 12292000
I0501 02:22:06.197255 14938 layer_factory.hpp:77] Creating layer label_cifar_1_split
I0501 02:22:06.197283 14938 net.cpp:86] Creating Layer label_cifar_1_split
I0501 02:22:06.197322 14938 net.cpp:408] label_cifar_1_split <- label
I0501 02:22:06.197329 14938 net.cpp:382] label_cifar_1_split -> label_cifar_1_split_0
I0501 02:22:06.197337 14938 net.cpp:382] label_cifar_1_split -> label_cifar_1_split_1
I0501 02:22:06.197418 14938 net.cpp:124] Setting up label_cifar_1_split
I0501 02:22:06.197427 14938 net.cpp:131] Top shape: 1000 (1000)
I0501 02:22:06.197429 14938 net.cpp:131] Top shape: 1000 (1000)
I0501 02:22:06.197432 14938 net.cpp:139] Memory required for data: 12300000
I0501 02:22:06.197435 14938 layer_factory.hpp:77] Creating layer conv0
I0501 02:22:06.197448 14938 net.cpp:86] Creating Layer conv0
I0501 02:22:06.197450 14938 net.cpp:408] conv0 <- data
I0501 02:22:06.197455 14938 net.cpp:382] conv0 -> conv0
I0501 02:22:06.198854 14938 net.cpp:124] Setting up conv0
I0501 02:22:06.198881 14938 net.cpp:131] Top shape: 1000 8 32 32 (8192000)
I0501 02:22:06.198885 14938 net.cpp:139] Memory required for data: 45068000
I0501 02:22:06.198895 14938 layer_factory.hpp:77] Creating layer Sigmoid0
I0501 02:22:06.198901 14938 net.cpp:86] Creating Layer Sigmoid0
I0501 02:22:06.198905 14938 net.cpp:408] Sigmoid0 <- conv0
I0501 02:22:06.198909 14938 net.cpp:382] Sigmoid0 -> Sigmoid0
I0501 02:22:06.199728 14938 net.cpp:124] Setting up Sigmoid0
I0501 02:22:06.199740 14938 net.cpp:131] Top shape: 1000 8 32 32 (8192000)
I0501 02:22:06.199759 14938 net.cpp:139] Memory required for data: 77836000
I0501 02:22:06.199762 14938 layer_factory.hpp:77] Creating layer pool0
I0501 02:22:06.199771 14938 net.cpp:86] Creating Layer pool0
I0501 02:22:06.199774 14938 net.cpp:408] pool0 <- Sigmoid0
I0501 02:22:06.199779 14938 net.cpp:382] pool0 -> pool0
I0501 02:22:06.200048 14938 net.cpp:124] Setting up pool0
I0501 02:22:06.200057 14938 net.cpp:131] Top shape: 1000 8 16 16 (2048000)
I0501 02:22:06.200060 14938 net.cpp:139] Memory required for data: 86028000
I0501 02:22:06.200064 14938 layer_factory.hpp:77] Creating layer ip1
I0501 02:22:06.200072 14938 net.cpp:86] Creating Layer ip1
I0501 02:22:06.200075 14938 net.cpp:408] ip1 <- pool0
I0501 02:22:06.200080 14938 net.cpp:382] ip1 -> ip1
I0501 02:22:06.201722 14938 net.cpp:124] Setting up ip1
I0501 02:22:06.201731 14938 net.cpp:131] Top shape: 1000 10 (10000)
I0501 02:22:06.201750 14938 net.cpp:139] Memory required for data: 86068000
I0501 02:22:06.201757 14938 layer_factory.hpp:77] Creating layer relu1
I0501 02:22:06.201763 14938 net.cpp:86] Creating Layer relu1
I0501 02:22:06.201767 14938 net.cpp:408] relu1 <- ip1
I0501 02:22:06.201772 14938 net.cpp:369] relu1 -> ip1 (in-place)
I0501 02:22:06.201953 14938 net.cpp:124] Setting up relu1
I0501 02:22:06.201977 14938 net.cpp:131] Top shape: 1000 10 (10000)
I0501 02:22:06.201979 14938 net.cpp:139] Memory required for data: 86108000
I0501 02:22:06.201982 14938 layer_factory.hpp:77] Creating layer ip2
I0501 02:22:06.201989 14938 net.cpp:86] Creating Layer ip2
I0501 02:22:06.201992 14938 net.cpp:408] ip2 <- ip1
I0501 02:22:06.201997 14938 net.cpp:382] ip2 -> ip2
I0501 02:22:06.202142 14938 net.cpp:124] Setting up ip2
I0501 02:22:06.202150 14938 net.cpp:131] Top shape: 1000 160 (160000)
I0501 02:22:06.202153 14938 net.cpp:139] Memory required for data: 86748000
I0501 02:22:06.202160 14938 layer_factory.hpp:77] Creating layer relu2
I0501 02:22:06.202167 14938 net.cpp:86] Creating Layer relu2
I0501 02:22:06.202169 14938 net.cpp:408] relu2 <- ip2
I0501 02:22:06.202174 14938 net.cpp:369] relu2 -> ip2 (in-place)
I0501 02:22:06.202327 14938 net.cpp:124] Setting up relu2
I0501 02:22:06.202334 14938 net.cpp:131] Top shape: 1000 160 (160000)
I0501 02:22:06.202337 14938 net.cpp:139] Memory required for data: 87388000
I0501 02:22:06.202340 14938 layer_factory.hpp:77] Creating layer ip3
I0501 02:22:06.202347 14938 net.cpp:86] Creating Layer ip3
I0501 02:22:06.202349 14938 net.cpp:408] ip3 <- ip2
I0501 02:22:06.202355 14938 net.cpp:382] ip3 -> ip3
I0501 02:22:06.202520 14938 net.cpp:124] Setting up ip3
I0501 02:22:06.202529 14938 net.cpp:131] Top shape: 1000 10 (10000)
I0501 02:22:06.202533 14938 net.cpp:139] Memory required for data: 87428000
I0501 02:22:06.202548 14938 layer_factory.hpp:77] Creating layer ip3_ip3_0_split
I0501 02:22:06.202553 14938 net.cpp:86] Creating Layer ip3_ip3_0_split
I0501 02:22:06.202556 14938 net.cpp:408] ip3_ip3_0_split <- ip3
I0501 02:22:06.202560 14938 net.cpp:382] ip3_ip3_0_split -> ip3_ip3_0_split_0
I0501 02:22:06.202566 14938 net.cpp:382] ip3_ip3_0_split -> ip3_ip3_0_split_1
I0501 02:22:06.202602 14938 net.cpp:124] Setting up ip3_ip3_0_split
I0501 02:22:06.202607 14938 net.cpp:131] Top shape: 1000 10 (10000)
I0501 02:22:06.202610 14938 net.cpp:131] Top shape: 1000 10 (10000)
I0501 02:22:06.202613 14938 net.cpp:139] Memory required for data: 87508000
I0501 02:22:06.202616 14938 layer_factory.hpp:77] Creating layer accuracy
I0501 02:22:06.202623 14938 net.cpp:86] Creating Layer accuracy
I0501 02:22:06.202626 14938 net.cpp:408] accuracy <- ip3_ip3_0_split_0
I0501 02:22:06.202630 14938 net.cpp:408] accuracy <- label_cifar_1_split_0
I0501 02:22:06.202636 14938 net.cpp:382] accuracy -> accuracy
…
