…
I0501 05:05:39.960791 27703 net.cpp:296] The NetState phase (0) differed from the phase (1) specified by a rule in layer cifar
I0501 05:05:39.960816 27703 net.cpp:296] The NetState phase (0) differed from the phase (1) specified by a rule in layer accuracy
I0501 05:05:39.960924 27703 net.cpp:53] Initializing net from parameters: 
name: "CIFAR"
state {
  phase: TRAIN
  level: 0
  stage: ""
}
layer {
  name: "cifar"
  type: "Data"
  top: "data"
  top: "label"
  include {
    phase: TRAIN
  }
  transform_param {
    mean_file: "examples/cifar10/mean.binaryproto"
  }
  data_param {
    source: "examples/cifar10/cifar10_train_lmdb"
    batch_size: 111
    backend: LMDB
  }
}
layer {
  name: "conv0"
  type: "Convolution"
  bottom: "data"
  top: "conv0"
  param {
    lr_mult: 1
  }
  param {
    lr_mult: 2
  }
  convolution_param {
    num_output: 8
    pad: 2
    kernel_size: 5
    stride: 1
    weight_filler {
      type: "gaussian"
      std: 0.01
    }
    bias_filler {
      type: "constant"
    }
  }
}
layer {
  name: "Sigmoid0"
  type: "Sigmoid"
  bottom: "conv0"
  top: "Sigmoid0"
}
layer {
  name: "pool0"
  type: "Pooling"
  bottom: "Sigmoid0"
  top: "pool0"
  pooling_param {
    pool: AVE
    kernel_size: 3
    stride: 2
  }
}
layer {
  name: "ip1"
  type: "InnerProduct"
  bottom: "pool0"
  top: "ip1"
  param {
    lr_mult: 1
  }
  param {
    lr_mult: 2
  }
  inner_product_param {
    num_output: 40
    weight_filler {
      type: "gaussian"
      std: 0.01
    }
    bias_filler {
      type: "constant"
    }
  }
}
layer {
  name: "relu1"
  type: "ReLU"
  bottom: "ip1"
  top: "ip1"
}
layer {
  name: "ip2"
  type: "InnerProduct"
  bottom: "ip1"
  top: "ip2"
  param {
    lr_mult: 1
  }
  param {
    lr_mult: 2
  }
  inner_product_param {
    num_output: 80
    weight_filler {
      type: "gaussian"
      std: 0.01
    }
    bias_filler {
      type: "constant"
    }
  }
}
layer {
  name: "relu2"
  type: "ReLU"
  bottom: "ip2"
  top: "ip2"
}
layer {
  name: "ip3"
  type: "InnerProduct"
  bottom: "ip2"
  top: "ip3"
  param {
    lr_mult: 1
  }
  param {
    lr_mult: 2
  }
  inner_product_param {
    num_output: 40
    weight_filler {
      type: "gaussian"
      std: 0.01
    }
    bias_filler {
      type: "constant"
    }
  }
}
layer {
  name: "relu3"
  type: "ReLU"
  bottom: "ip3"
  top: "ip3"
}
layer {
  name: "ip4"
  type: "InnerProduct"
  bottom: "ip3"
  top: "ip4"
  param {
    lr_mult: 1
  }
  param {
    lr_mult: 2
  }
  inner_product_param {
    num_output: 10
    weight_filler {
      type: "gaussian"
      std: 0.01
    }
    bias_filler {
      type: "constant"
    }
  }
}
layer {
  name: "loss"
  type: "SoftmaxWithLoss"
  bottom: "ip4"
  bottom: "label"
  top: "loss"
}
I0501 05:05:39.961004 27703 layer_factory.hpp:77] Creating layer cifar
I0501 05:05:39.961103 27703 db_lmdb.cpp:35] Opened lmdb examples/cifar10/cifar10_train_lmdb
I0501 05:05:39.961135 27703 net.cpp:86] Creating Layer cifar
I0501 05:05:39.961143 27703 net.cpp:382] cifar -> data
I0501 05:05:39.961168 27703 net.cpp:382] cifar -> label
I0501 05:05:39.961182 27703 data_transformer.cpp:25] Loading mean file from: examples/cifar10/mean.binaryproto
I0501 05:05:39.963338 27703 data_layer.cpp:45] output data size: 111,3,32,32
I0501 05:05:39.971225 27703 net.cpp:124] Setting up cifar
I0501 05:05:39.971243 27703 net.cpp:131] Top shape: 111 3 32 32 (340992)
I0501 05:05:39.971251 27703 net.cpp:131] Top shape: 111 (111)
I0501 05:05:39.971256 27703 net.cpp:139] Memory required for data: 1364412
I0501 05:05:39.971279 27703 layer_factory.hpp:77] Creating layer conv0
I0501 05:05:39.971295 27703 net.cpp:86] Creating Layer conv0
I0501 05:05:39.971302 27703 net.cpp:408] conv0 <- data
I0501 05:05:39.971318 27703 net.cpp:382] conv0 -> conv0
I0501 05:05:40.242820 27703 net.cpp:124] Setting up conv0
I0501 05:05:40.242861 27703 net.cpp:131] Top shape: 111 8 32 32 (909312)
I0501 05:05:40.242866 27703 net.cpp:139] Memory required for data: 5001660
I0501 05:05:40.242879 27703 layer_factory.hpp:77] Creating layer Sigmoid0
I0501 05:05:40.242893 27703 net.cpp:86] Creating Layer Sigmoid0
I0501 05:05:40.242897 27703 net.cpp:408] Sigmoid0 <- conv0
I0501 05:05:40.242902 27703 net.cpp:382] Sigmoid0 -> Sigmoid0
I0501 05:05:40.243086 27703 net.cpp:124] Setting up Sigmoid0
I0501 05:05:40.243095 27703 net.cpp:131] Top shape: 111 8 32 32 (909312)
I0501 05:05:40.243098 27703 net.cpp:139] Memory required for data: 8638908
I0501 05:05:40.243101 27703 layer_factory.hpp:77] Creating layer pool0
I0501 05:05:40.243109 27703 net.cpp:86] Creating Layer pool0
I0501 05:05:40.243113 27703 net.cpp:408] pool0 <- Sigmoid0
I0501 05:05:40.243116 27703 net.cpp:382] pool0 -> pool0
I0501 05:05:40.243849 27703 net.cpp:124] Setting up pool0
I0501 05:05:40.243863 27703 net.cpp:131] Top shape: 111 8 16 16 (227328)
I0501 05:05:40.243881 27703 net.cpp:139] Memory required for data: 9548220
I0501 05:05:40.243885 27703 layer_factory.hpp:77] Creating layer ip1
I0501 05:05:40.243893 27703 net.cpp:86] Creating Layer ip1
I0501 05:05:40.243897 27703 net.cpp:408] ip1 <- pool0
I0501 05:05:40.243903 27703 net.cpp:382] ip1 -> ip1
I0501 05:05:40.246243 27703 net.cpp:124] Setting up ip1
I0501 05:05:40.246250 27703 net.cpp:131] Top shape: 111 40 (4440)
I0501 05:05:40.246268 27703 net.cpp:139] Memory required for data: 9565980
I0501 05:05:40.246275 27703 layer_factory.hpp:77] Creating layer relu1
I0501 05:05:40.246282 27703 net.cpp:86] Creating Layer relu1
I0501 05:05:40.246286 27703 net.cpp:408] relu1 <- ip1
I0501 05:05:40.246290 27703 net.cpp:369] relu1 -> ip1 (in-place)
I0501 05:05:40.246456 27703 net.cpp:124] Setting up relu1
I0501 05:05:40.246464 27703 net.cpp:131] Top shape: 111 40 (4440)
I0501 05:05:40.246467 27703 net.cpp:139] Memory required for data: 9583740
I0501 05:05:40.246470 27703 layer_factory.hpp:77] Creating layer ip2
I0501 05:05:40.246477 27703 net.cpp:86] Creating Layer ip2
I0501 05:05:40.246480 27703 net.cpp:408] ip2 <- ip1
I0501 05:05:40.246485 27703 net.cpp:382] ip2 -> ip2
I0501 05:05:40.246683 27703 net.cpp:124] Setting up ip2
I0501 05:05:40.246691 27703 net.cpp:131] Top shape: 111 80 (8880)
I0501 05:05:40.246695 27703 net.cpp:139] Memory required for data: 9619260
I0501 05:05:40.246702 27703 layer_factory.hpp:77] Creating layer relu2
I0501 05:05:40.246708 27703 net.cpp:86] Creating Layer relu2
I0501 05:05:40.246711 27703 net.cpp:408] relu2 <- ip2
I0501 05:05:40.246716 27703 net.cpp:369] relu2 -> ip2 (in-place)
I0501 05:05:40.246891 27703 net.cpp:124] Setting up relu2
I0501 05:05:40.246915 27703 net.cpp:131] Top shape: 111 80 (8880)
I0501 05:05:40.246918 27703 net.cpp:139] Memory required for data: 9654780
I0501 05:05:40.246922 27703 layer_factory.hpp:77] Creating layer ip3
I0501 05:05:40.246929 27703 net.cpp:86] Creating Layer ip3
I0501 05:05:40.246933 27703 net.cpp:408] ip3 <- ip2
I0501 05:05:40.246939 27703 net.cpp:382] ip3 -> ip3
I0501 05:05:40.247153 27703 net.cpp:124] Setting up ip3
I0501 05:05:40.247162 27703 net.cpp:131] Top shape: 111 40 (4440)
I0501 05:05:40.247165 27703 net.cpp:139] Memory required for data: 9672540
I0501 05:05:40.247171 27703 layer_factory.hpp:77] Creating layer relu3
I0501 05:05:40.247176 27703 net.cpp:86] Creating Layer relu3
I0501 05:05:40.247179 27703 net.cpp:408] relu3 <- ip3
I0501 05:05:40.247182 27703 net.cpp:369] relu3 -> ip3 (in-place)
I0501 05:05:40.247345 27703 net.cpp:124] Setting up relu3
I0501 05:05:40.247354 27703 net.cpp:131] Top shape: 111 40 (4440)
I0501 05:05:40.247357 27703 net.cpp:139] Memory required for data: 9690300
I0501 05:05:40.247360 27703 layer_factory.hpp:77] Creating layer ip4
I0501 05:05:40.247380 27703 net.cpp:86] Creating Layer ip4
I0501 05:05:40.247382 27703 net.cpp:408] ip4 <- ip3
I0501 05:05:40.247388 27703 net.cpp:382] ip4 -> ip4
I0501 05:05:40.247489 27703 net.cpp:124] Setting up ip4
I0501 05:05:40.247498 27703 net.cpp:131] Top shape: 111 10 (1110)
I0501 05:05:40.247500 27703 net.cpp:139] Memory required for data: 9694740
I0501 05:05:40.247508 27703 layer_factory.hpp:77] Creating layer loss
I0501 05:05:40.247514 27703 net.cpp:86] Creating Layer loss
I0501 05:05:40.247516 27703 net.cpp:408] loss <- ip4
I0501 05:05:40.247519 27703 net.cpp:408] loss <- label
I0501 05:05:40.247524 27703 net.cpp:382] loss -> loss
I0501 05:05:40.247541 27703 layer_factory.hpp:77] Creating layer loss
…
I0501 05:05:40.248729 27703 solver.cpp:173] Creating test net (#0) specified by net file: ECE595/cifar/train_test/var_everything/cifar_train_test_407.prototxt
I0501 05:05:40.248755 27703 net.cpp:296] The NetState phase (1) differed from the phase (0) specified by a rule in layer cifar
I0501 05:05:40.248891 27703 net.cpp:53] Initializing net from parameters: 
name: "CIFAR"
state {
  phase: TEST
}
layer {
  name: "cifar"
  type: "Data"
  top: "data"
  top: "label"
  include {
    phase: TEST
  }
  transform_param {
    mean_file: "examples/cifar10/mean.binaryproto"
  }
  data_param {
    source: "examples/cifar10/cifar10_test_lmdb"
    batch_size: 1000
    backend: LMDB
  }
}
layer {
  name: "conv0"
  type: "Convolution"
  bottom: "data"
  top: "conv0"
  param {
    lr_mult: 1
  }
  param {
    lr_mult: 2
  }
  convolution_param {
    num_output: 8
    pad: 2
    kernel_size: 5
    stride: 1
    weight_filler {
      type: "gaussian"
      std: 0.01
    }
    bias_filler {
      type: "constant"
    }
  }
}
layer {
  name: "Sigmoid0"
  type: "Sigmoid"
  bottom: "conv0"
  top: "Sigmoid0"
}
layer {
  name: "pool0"
  type: "Pooling"
  bottom: "Sigmoid0"
  top: "pool0"
  pooling_param {
    pool: AVE
    kernel_size: 3
    stride: 2
  }
}
layer {
  name: "ip1"
  type: "InnerProduct"
  bottom: "pool0"
  top: "ip1"
  param {
    lr_mult: 1
  }
  param {
    lr_mult: 2
  }
  inner_product_param {
    num_output: 40
    weight_filler {
      type: "gaussian"
      std: 0.01
    }
    bias_filler {
      type: "constant"
    }
  }
}
layer {
  name: "relu1"
  type: "ReLU"
  bottom: "ip1"
  top: "ip1"
}
layer {
  name: "ip2"
  type: "InnerProduct"
  bottom: "ip1"
  top: "ip2"
  param {
    lr_mult: 1
  }
  param {
    lr_mult: 2
  }
  inner_product_param {
    num_output: 80
    weight_filler {
      type: "gaussian"
      std: 0.01
    }
    bias_filler {
      type: "constant"
    }
  }
}
layer {
  name: "relu2"
  type: "ReLU"
  bottom: "ip2"
  top: "ip2"
}
layer {
  name: "ip3"
  type: "InnerProduct"
  bottom: "ip2"
  top: "ip3"
  param {
    lr_mult: 1
  }
  param {
    lr_mult: 2
  }
  inner_product_param {
    num_output: 40
    weight_filler {
      type: "gaussian"
      std: 0.01
    }
    bias_filler {
      type: "constant"
    }
  }
}
layer {
  name: "relu3"
  type: "ReLU"
  bottom: "ip3"
  top: "ip3"
}
layer {
  name: "ip4"
  type: "InnerProduct"
  bottom: "ip3"
  top: "ip4"
  param {
    lr_mult: 1
  }
  param {
    lr_mult: 2
  }
  inner_product_param {
    num_output: 10
    weight_filler {
      type: "gaussian"
      std: 0.01
    }
    bias_filler {
      type: "constant"
    }
  }
}
layer {
  name: "accuracy"
  type: "Accuracy"
  bottom: "ip4"
  bottom: "label"
  top: "accuracy"
  include {
    phase: TEST
  }
}
layer {
  name: "loss"
  type: "SoftmaxWithLoss"
  bottom: "ip4"
  bottom: "label"
  top: "loss"
}
I0501 05:05:40.249004 27703 layer_factory.hpp:77] Creating layer cifar
I0501 05:05:40.249048 27703 db_lmdb.cpp:35] Opened lmdb examples/cifar10/cifar10_test_lmdb
I0501 05:05:40.249063 27703 net.cpp:86] Creating Layer cifar
I0501 05:05:40.249068 27703 net.cpp:382] cifar -> data
I0501 05:05:40.249076 27703 net.cpp:382] cifar -> label
I0501 05:05:40.249083 27703 data_transformer.cpp:25] Loading mean file from: examples/cifar10/mean.binaryproto
I0501 05:05:40.249275 27703 data_layer.cpp:45] output data size: 1000,3,32,32
I0501 05:05:40.270789 27703 net.cpp:124] Setting up cifar
I0501 05:05:40.270817 27703 net.cpp:131] Top shape: 1000 3 32 32 (3072000)
I0501 05:05:40.270823 27703 net.cpp:131] Top shape: 1000 (1000)
I0501 05:05:40.270826 27703 net.cpp:139] Memory required for data: 12292000
I0501 05:05:40.270833 27703 layer_factory.hpp:77] Creating layer label_cifar_1_split
I0501 05:05:40.270843 27703 net.cpp:86] Creating Layer label_cifar_1_split
I0501 05:05:40.270846 27703 net.cpp:408] label_cifar_1_split <- label
I0501 05:05:40.270867 27703 net.cpp:382] label_cifar_1_split -> label_cifar_1_split_0
I0501 05:05:40.270876 27703 net.cpp:382] label_cifar_1_split -> label_cifar_1_split_1
I0501 05:05:40.270974 27703 net.cpp:124] Setting up label_cifar_1_split
I0501 05:05:40.270982 27703 net.cpp:131] Top shape: 1000 (1000)
I0501 05:05:40.270987 27703 net.cpp:131] Top shape: 1000 (1000)
I0501 05:05:40.270988 27703 net.cpp:139] Memory required for data: 12300000
I0501 05:05:40.270992 27703 layer_factory.hpp:77] Creating layer conv0
I0501 05:05:40.271003 27703 net.cpp:86] Creating Layer conv0
I0501 05:05:40.271006 27703 net.cpp:408] conv0 <- data
I0501 05:05:40.271013 27703 net.cpp:382] conv0 -> conv0
I0501 05:05:40.272646 27703 net.cpp:124] Setting up conv0
I0501 05:05:40.272660 27703 net.cpp:131] Top shape: 1000 8 32 32 (8192000)
I0501 05:05:40.272662 27703 net.cpp:139] Memory required for data: 45068000
I0501 05:05:40.272671 27703 layer_factory.hpp:77] Creating layer Sigmoid0
I0501 05:05:40.272694 27703 net.cpp:86] Creating Layer Sigmoid0
I0501 05:05:40.272698 27703 net.cpp:408] Sigmoid0 <- conv0
I0501 05:05:40.272702 27703 net.cpp:382] Sigmoid0 -> Sigmoid0
I0501 05:05:40.272918 27703 net.cpp:124] Setting up Sigmoid0
I0501 05:05:40.272928 27703 net.cpp:131] Top shape: 1000 8 32 32 (8192000)
I0501 05:05:40.272931 27703 net.cpp:139] Memory required for data: 77836000
I0501 05:05:40.272935 27703 layer_factory.hpp:77] Creating layer pool0
I0501 05:05:40.272943 27703 net.cpp:86] Creating Layer pool0
I0501 05:05:40.272945 27703 net.cpp:408] pool0 <- Sigmoid0
I0501 05:05:40.272951 27703 net.cpp:382] pool0 -> pool0
I0501 05:05:40.273128 27703 net.cpp:124] Setting up pool0
I0501 05:05:40.273150 27703 net.cpp:131] Top shape: 1000 8 16 16 (2048000)
I0501 05:05:40.273154 27703 net.cpp:139] Memory required for data: 86028000
I0501 05:05:40.273156 27703 layer_factory.hpp:77] Creating layer ip1
I0501 05:05:40.273165 27703 net.cpp:86] Creating Layer ip1
I0501 05:05:40.273169 27703 net.cpp:408] ip1 <- pool0
I0501 05:05:40.273174 27703 net.cpp:382] ip1 -> ip1
I0501 05:05:40.275460 27703 net.cpp:124] Setting up ip1
I0501 05:05:40.275470 27703 net.cpp:131] Top shape: 1000 40 (40000)
I0501 05:05:40.275472 27703 net.cpp:139] Memory required for data: 86188000
I0501 05:05:40.275508 27703 layer_factory.hpp:77] Creating layer relu1
I0501 05:05:40.275516 27703 net.cpp:86] Creating Layer relu1
I0501 05:05:40.275518 27703 net.cpp:408] relu1 <- ip1
I0501 05:05:40.275522 27703 net.cpp:369] relu1 -> ip1 (in-place)
I0501 05:05:40.275689 27703 net.cpp:124] Setting up relu1
I0501 05:05:40.275698 27703 net.cpp:131] Top shape: 1000 40 (40000)
I0501 05:05:40.275701 27703 net.cpp:139] Memory required for data: 86348000
I0501 05:05:40.275704 27703 layer_factory.hpp:77] Creating layer ip2
I0501 05:05:40.275710 27703 net.cpp:86] Creating Layer ip2
I0501 05:05:40.275713 27703 net.cpp:408] ip2 <- ip1
I0501 05:05:40.275718 27703 net.cpp:382] ip2 -> ip2
I0501 05:05:40.275909 27703 net.cpp:124] Setting up ip2
I0501 05:05:40.275918 27703 net.cpp:131] Top shape: 1000 80 (80000)
I0501 05:05:40.275920 27703 net.cpp:139] Memory required for data: 86668000
I0501 05:05:40.275928 27703 layer_factory.hpp:77] Creating layer relu2
I0501 05:05:40.275933 27703 net.cpp:86] Creating Layer relu2
I0501 05:05:40.275935 27703 net.cpp:408] relu2 <- ip2
I0501 05:05:40.275940 27703 net.cpp:369] relu2 -> ip2 (in-place)
I0501 05:05:40.276670 27703 net.cpp:124] Setting up relu2
I0501 05:05:40.276682 27703 net.cpp:131] Top shape: 1000 80 (80000)
I0501 05:05:40.276685 27703 net.cpp:139] Memory required for data: 86988000
I0501 05:05:40.276690 27703 layer_factory.hpp:77] Creating layer ip3
I0501 05:05:40.276713 27703 net.cpp:86] Creating Layer ip3
I0501 05:05:40.276716 27703 net.cpp:408] ip3 <- ip2
I0501 05:05:40.276721 27703 net.cpp:382] ip3 -> ip3
I0501 05:05:40.276937 27703 net.cpp:124] Setting up ip3
I0501 05:05:40.276947 27703 net.cpp:131] Top shape: 1000 40 (40000)
I0501 05:05:40.276950 27703 net.cpp:139] Memory required for data: 87148000
I0501 05:05:40.276955 27703 layer_factory.hpp:77] Creating layer relu3
I0501 05:05:40.276962 27703 net.cpp:86] Creating Layer relu3
I0501 05:05:40.276964 27703 net.cpp:408] relu3 <- ip3
I0501 05:05:40.276969 27703 net.cpp:369] relu3 -> ip3 (in-place)
I0501 05:05:40.277127 27703 net.cpp:124] Setting up relu3
I0501 05:05:40.277150 27703 net.cpp:131] Top shape: 1000 40 (40000)
I0501 05:05:40.277153 27703 net.cpp:139] Memory required for data: 87308000
I0501 05:05:40.277156 27703 layer_factory.hpp:77] Creating layer ip4
I0501 05:05:40.277163 27703 net.cpp:86] Creating Layer ip4
I0501 05:05:40.277166 27703 net.cpp:408] ip4 <- ip3
I0501 05:05:40.277170 27703 net.cpp:382] ip4 -> ip4
I0501 05:05:40.277282 27703 net.cpp:124] Setting up ip4
I0501 05:05:40.277289 27703 net.cpp:131] Top shape: 1000 10 (10000)
I0501 05:05:40.277292 27703 net.cpp:139] Memory required for data: 87348000
I0501 05:05:40.277299 27703 layer_factory.hpp:77] Creating layer ip4_ip4_0_split
I0501 05:05:40.277304 27703 net.cpp:86] Creating Layer ip4_ip4_0_split
I0501 05:05:40.277307 27703 net.cpp:408] ip4_ip4_0_split <- ip4
I0501 05:05:40.277312 27703 net.cpp:382] ip4_ip4_0_split -> ip4_ip4_0_split_0
I0501 05:05:40.277318 27703 net.cpp:382] ip4_ip4_0_split -> ip4_ip4_0_split_1
I0501 05:05:40.277346 27703 net.cpp:124] Setting up ip4_ip4_0_split
I0501 05:05:40.277351 27703 net.cpp:131] Top shape: 1000 10 (10000)
I0501 05:05:40.277354 27703 net.cpp:131] Top shape: 1000 10 (10000)
I0501 05:05:40.277357 27703 net.cpp:139] Memory required for data: 87428000
I0501 05:05:40.277359 27703 layer_factory.hpp:77] Creating layer accuracy
I0501 05:05:40.277370 27703 net.cpp:86] Creating Layer accuracy
I0501 05:05:40.277374 27703 net.cpp:408] accuracy <- ip4_ip4_0_split_0
I0501 05:05:40.277377 27703 net.cpp:408] accuracy <- label_cifar_1_split_0
I0501 05:05:40.277382 27703 net.cpp:382] accuracy -> accuracy
…
