…
I0430 17:17:45.707573 19424 net.cpp:296] The NetState phase (0) differed from the phase (1) specified by a rule in layer cifar
I0430 17:17:45.707587 19424 net.cpp:296] The NetState phase (0) differed from the phase (1) specified by a rule in layer accuracy
I0430 17:17:45.707653 19424 net.cpp:53] Initializing net from parameters: 
name: "CIFAR"
state {
  phase: TRAIN
  level: 0
  stage: ""
}
layer {
  name: "cifar"
  type: "Data"
  top: "data"
  top: "label"
  include {
    phase: TRAIN
  }
  transform_param {
    mean_file: "examples/cifar10/mean.binaryproto"
  }
  data_param {
    source: "examples/cifar10/cifar10_train_lmdb"
    batch_size: 111
    backend: LMDB
  }
}
layer {
  name: "ip1"
  type: "InnerProduct"
  bottom: "data"
  top: "ip1"
  param {
    lr_mult: 1
  }
  param {
    lr_mult: 2
  }
  inner_product_param {
    num_output: 10
    weight_filler {
      type: "gaussian"
      std: 0.01
    }
    bias_filler {
      type: "constant"
    }
  }
}
layer {
  name: "relu1"
  type: "ReLU"
  bottom: "ip1"
  top: "ip1"
}
layer {
  name: "ip2"
  type: "InnerProduct"
  bottom: "ip1"
  top: "ip2"
  param {
    lr_mult: 1
  }
  param {
    lr_mult: 2
  }
  inner_product_param {
    num_output: 10
    weight_filler {
      type: "gaussian"
      std: 0.01
    }
    bias_filler {
      type: "constant"
    }
  }
}
layer {
  name: "relu2"
  type: "ReLU"
  bottom: "ip2"
  top: "ip2"
}
layer {
  name: "ip3"
  type: "InnerProduct"
  bottom: "ip2"
  top: "ip3"
  param {
    lr_mult: 1
  }
  param {
    lr_mult: 2
  }
  inner_product_param {
    num_output: 10
    weight_filler {
      type: "gaussian"
      std: 0.01
    }
    bias_filler {
      type: "constant"
    }
  }
}
layer {
  name: "relu3"
  type: "ReLU"
  bottom: "ip3"
  top: "ip3"
}
layer {
  name: "ip4"
  type: "InnerProduct"
  bottom: "ip3"
  top: "ip4"
  param {
    lr_mult: 1
  }
  param {
    lr_mult: 2
  }
  inner_product_param {
    num_output: 10
    weight_filler {
      type: "gaussian"
      std: 0.01
    }
    bias_filler {
      type: "constant"
    }
  }
}
layer {
  name: "loss"
  type: "SoftmaxWithLoss"
  bottom: "ip4"
  bottom: "label"
  top: "loss"
}
I0430 17:17:45.707720 19424 layer_factory.hpp:77] Creating layer cifar
I0430 17:17:45.707813 19424 db_lmdb.cpp:35] Opened lmdb examples/cifar10/cifar10_train_lmdb
I0430 17:17:45.707835 19424 net.cpp:86] Creating Layer cifar
I0430 17:17:45.707841 19424 net.cpp:382] cifar -> data
I0430 17:17:45.707859 19424 net.cpp:382] cifar -> label
I0430 17:17:45.707870 19424 data_transformer.cpp:25] Loading mean file from: examples/cifar10/mean.binaryproto
I0430 17:17:45.709632 19424 data_layer.cpp:45] output data size: 111,3,32,32
I0430 17:17:45.716325 19424 net.cpp:124] Setting up cifar
I0430 17:17:45.716367 19424 net.cpp:131] Top shape: 111 3 32 32 (340992)
I0430 17:17:45.716389 19424 net.cpp:131] Top shape: 111 (111)
I0430 17:17:45.716392 19424 net.cpp:139] Memory required for data: 1364412
I0430 17:17:45.716399 19424 layer_factory.hpp:77] Creating layer ip1
I0430 17:17:45.716425 19424 net.cpp:86] Creating Layer ip1
I0430 17:17:45.716430 19424 net.cpp:408] ip1 <- data
I0430 17:17:45.716440 19424 net.cpp:382] ip1 -> ip1
I0430 17:17:45.718375 19424 net.cpp:124] Setting up ip1
I0430 17:17:45.718405 19424 net.cpp:131] Top shape: 111 10 (1110)
I0430 17:17:45.718407 19424 net.cpp:139] Memory required for data: 1368852
I0430 17:17:45.718435 19424 layer_factory.hpp:77] Creating layer relu1
I0430 17:17:45.718442 19424 net.cpp:86] Creating Layer relu1
I0430 17:17:45.718474 19424 net.cpp:408] relu1 <- ip1
I0430 17:17:45.718479 19424 net.cpp:369] relu1 -> ip1 (in-place)
I0430 17:17:45.940544 19424 net.cpp:124] Setting up relu1
I0430 17:17:45.940585 19424 net.cpp:131] Top shape: 111 10 (1110)
I0430 17:17:45.940589 19424 net.cpp:139] Memory required for data: 1373292
I0430 17:17:45.940594 19424 layer_factory.hpp:77] Creating layer ip2
I0430 17:17:45.940608 19424 net.cpp:86] Creating Layer ip2
I0430 17:17:45.940626 19424 net.cpp:408] ip2 <- ip1
I0430 17:17:45.940634 19424 net.cpp:382] ip2 -> ip2
I0430 17:17:45.940752 19424 net.cpp:124] Setting up ip2
I0430 17:17:45.940760 19424 net.cpp:131] Top shape: 111 10 (1110)
I0430 17:17:45.940763 19424 net.cpp:139] Memory required for data: 1377732
I0430 17:17:45.940773 19424 layer_factory.hpp:77] Creating layer relu2
I0430 17:17:45.940779 19424 net.cpp:86] Creating Layer relu2
I0430 17:17:45.940783 19424 net.cpp:408] relu2 <- ip2
I0430 17:17:45.940786 19424 net.cpp:369] relu2 -> ip2 (in-place)
I0430 17:17:45.941593 19424 net.cpp:124] Setting up relu2
I0430 17:17:45.941606 19424 net.cpp:131] Top shape: 111 10 (1110)
I0430 17:17:45.941624 19424 net.cpp:139] Memory required for data: 1382172
I0430 17:17:45.941627 19424 layer_factory.hpp:77] Creating layer ip3
I0430 17:17:45.941634 19424 net.cpp:86] Creating Layer ip3
I0430 17:17:45.941637 19424 net.cpp:408] ip3 <- ip2
I0430 17:17:45.941642 19424 net.cpp:382] ip3 -> ip3
I0430 17:17:45.941761 19424 net.cpp:124] Setting up ip3
I0430 17:17:45.941769 19424 net.cpp:131] Top shape: 111 10 (1110)
I0430 17:17:45.941772 19424 net.cpp:139] Memory required for data: 1386612
I0430 17:17:45.941779 19424 layer_factory.hpp:77] Creating layer relu3
I0430 17:17:45.941784 19424 net.cpp:86] Creating Layer relu3
I0430 17:17:45.941787 19424 net.cpp:408] relu3 <- ip3
I0430 17:17:45.941792 19424 net.cpp:369] relu3 -> ip3 (in-place)
I0430 17:17:45.941927 19424 net.cpp:124] Setting up relu3
I0430 17:17:45.941936 19424 net.cpp:131] Top shape: 111 10 (1110)
I0430 17:17:45.941938 19424 net.cpp:139] Memory required for data: 1391052
I0430 17:17:45.941941 19424 layer_factory.hpp:77] Creating layer ip4
I0430 17:17:45.941946 19424 net.cpp:86] Creating Layer ip4
I0430 17:17:45.941949 19424 net.cpp:408] ip4 <- ip3
I0430 17:17:45.941954 19424 net.cpp:382] ip4 -> ip4
I0430 17:17:45.942039 19424 net.cpp:124] Setting up ip4
I0430 17:17:45.942045 19424 net.cpp:131] Top shape: 111 10 (1110)
I0430 17:17:45.942049 19424 net.cpp:139] Memory required for data: 1395492
I0430 17:17:45.942052 19424 layer_factory.hpp:77] Creating layer loss
I0430 17:17:45.942059 19424 net.cpp:86] Creating Layer loss
I0430 17:17:45.942061 19424 net.cpp:408] loss <- ip4
I0430 17:17:45.942065 19424 net.cpp:408] loss <- label
I0430 17:17:45.942070 19424 net.cpp:382] loss -> loss
I0430 17:17:45.942083 19424 layer_factory.hpp:77] Creating layer loss
…
I0430 17:17:45.942615 19424 solver.cpp:173] Creating test net (#0) specified by net file: ECE595/cifar/train_test/var_everything/cifar_train_test_30.prototxt
I0430 17:17:45.942652 19424 net.cpp:296] The NetState phase (1) differed from the phase (0) specified by a rule in layer cifar
I0430 17:17:45.942726 19424 net.cpp:53] Initializing net from parameters: 
name: "CIFAR"
state {
  phase: TEST
}
layer {
  name: "cifar"
  type: "Data"
  top: "data"
  top: "label"
  include {
    phase: TEST
  }
  transform_param {
    mean_file: "examples/cifar10/mean.binaryproto"
  }
  data_param {
    source: "examples/cifar10/cifar10_test_lmdb"
    batch_size: 1000
    backend: LMDB
  }
}
layer {
  name: "ip1"
  type: "InnerProduct"
  bottom: "data"
  top: "ip1"
  param {
    lr_mult: 1
  }
  param {
    lr_mult: 2
  }
  inner_product_param {
    num_output: 10
    weight_filler {
      type: "gaussian"
      std: 0.01
    }
    bias_filler {
      type: "constant"
    }
  }
}
layer {
  name: "relu1"
  type: "ReLU"
  bottom: "ip1"
  top: "ip1"
}
layer {
  name: "ip2"
  type: "InnerProduct"
  bottom: "ip1"
  top: "ip2"
  param {
    lr_mult: 1
  }
  param {
    lr_mult: 2
  }
  inner_product_param {
    num_output: 10
    weight_filler {
      type: "gaussian"
      std: 0.01
    }
    bias_filler {
      type: "constant"
    }
  }
}
layer {
  name: "relu2"
  type: "ReLU"
  bottom: "ip2"
  top: "ip2"
}
layer {
  name: "ip3"
  type: "InnerProduct"
  bottom: "ip2"
  top: "ip3"
  param {
    lr_mult: 1
  }
  param {
    lr_mult: 2
  }
  inner_product_param {
    num_output: 10
    weight_filler {
      type: "gaussian"
      std: 0.01
    }
    bias_filler {
      type: "constant"
    }
  }
}
layer {
  name: "relu3"
  type: "ReLU"
  bottom: "ip3"
  top: "ip3"
}
layer {
  name: "ip4"
  type: "InnerProduct"
  bottom: "ip3"
  top: "ip4"
  param {
    lr_mult: 1
  }
  param {
    lr_mult: 2
  }
  inner_product_param {
    num_output: 10
    weight_filler {
      type: "gaussian"
      std: 0.01
    }
    bias_filler {
      type: "constant"
    }
  }
}
layer {
  name: "accuracy"
  type: "Accuracy"
  bottom: "ip4"
  bottom: "label"
  top: "accuracy"
  include {
    phase: TEST
  }
}
layer {
  name: "loss"
  type: "SoftmaxWithLoss"
  bottom: "ip4"
  bottom: "label"
  top: "loss"
}
I0430 17:17:45.942796 19424 layer_factory.hpp:77] Creating layer cifar
I0430 17:17:45.942842 19424 db_lmdb.cpp:35] Opened lmdb examples/cifar10/cifar10_test_lmdb
I0430 17:17:45.942853 19424 net.cpp:86] Creating Layer cifar
I0430 17:17:45.942858 19424 net.cpp:382] cifar -> data
I0430 17:17:45.942865 19424 net.cpp:382] cifar -> label
I0430 17:17:45.942872 19424 data_transformer.cpp:25] Loading mean file from: examples/cifar10/mean.binaryproto
I0430 17:17:45.943006 19424 data_layer.cpp:45] output data size: 1000,3,32,32
I0430 17:17:45.964609 19424 net.cpp:124] Setting up cifar
I0430 17:17:45.964665 19424 net.cpp:131] Top shape: 1000 3 32 32 (3072000)
I0430 17:17:45.964671 19424 net.cpp:131] Top shape: 1000 (1000)
I0430 17:17:45.964675 19424 net.cpp:139] Memory required for data: 12292000
I0430 17:17:45.964680 19424 layer_factory.hpp:77] Creating layer label_cifar_1_split
I0430 17:17:45.964697 19424 net.cpp:86] Creating Layer label_cifar_1_split
I0430 17:17:45.964701 19424 net.cpp:408] label_cifar_1_split <- label
I0430 17:17:45.964706 19424 net.cpp:382] label_cifar_1_split -> label_cifar_1_split_0
I0430 17:17:45.964730 19424 net.cpp:382] label_cifar_1_split -> label_cifar_1_split_1
I0430 17:17:45.964861 19424 net.cpp:124] Setting up label_cifar_1_split
I0430 17:17:45.964886 19424 net.cpp:131] Top shape: 1000 (1000)
I0430 17:17:45.964890 19424 net.cpp:131] Top shape: 1000 (1000)
I0430 17:17:45.964910 19424 net.cpp:139] Memory required for data: 12300000
I0430 17:17:45.964912 19424 layer_factory.hpp:77] Creating layer ip1
I0430 17:17:45.964922 19424 net.cpp:86] Creating Layer ip1
I0430 17:17:45.964926 19424 net.cpp:408] ip1 <- data
I0430 17:17:45.964931 19424 net.cpp:382] ip1 -> ip1
I0430 17:17:45.965927 19424 net.cpp:124] Setting up ip1
I0430 17:17:45.965935 19424 net.cpp:131] Top shape: 1000 10 (10000)
I0430 17:17:45.965955 19424 net.cpp:139] Memory required for data: 12340000
I0430 17:17:45.965987 19424 layer_factory.hpp:77] Creating layer relu1
I0430 17:17:45.965993 19424 net.cpp:86] Creating Layer relu1
I0430 17:17:45.965996 19424 net.cpp:408] relu1 <- ip1
I0430 17:17:45.966001 19424 net.cpp:369] relu1 -> ip1 (in-place)
I0430 17:17:45.966910 19424 net.cpp:124] Setting up relu1
I0430 17:17:45.966922 19424 net.cpp:131] Top shape: 1000 10 (10000)
I0430 17:17:45.966941 19424 net.cpp:139] Memory required for data: 12380000
I0430 17:17:45.966945 19424 layer_factory.hpp:77] Creating layer ip2
I0430 17:17:45.966953 19424 net.cpp:86] Creating Layer ip2
I0430 17:17:45.966956 19424 net.cpp:408] ip2 <- ip1
I0430 17:17:45.966961 19424 net.cpp:382] ip2 -> ip2
I0430 17:17:45.968087 19424 net.cpp:124] Setting up ip2
I0430 17:17:45.968096 19424 net.cpp:131] Top shape: 1000 10 (10000)
I0430 17:17:45.968116 19424 net.cpp:139] Memory required for data: 12420000
I0430 17:17:45.968123 19424 layer_factory.hpp:77] Creating layer relu2
I0430 17:17:45.968129 19424 net.cpp:86] Creating Layer relu2
I0430 17:17:45.968132 19424 net.cpp:408] relu2 <- ip2
I0430 17:17:45.968137 19424 net.cpp:369] relu2 -> ip2 (in-place)
I0430 17:17:45.968340 19424 net.cpp:124] Setting up relu2
I0430 17:17:45.968348 19424 net.cpp:131] Top shape: 1000 10 (10000)
I0430 17:17:45.968351 19424 net.cpp:139] Memory required for data: 12460000
I0430 17:17:45.968355 19424 layer_factory.hpp:77] Creating layer ip3
I0430 17:17:45.968363 19424 net.cpp:86] Creating Layer ip3
I0430 17:17:45.968365 19424 net.cpp:408] ip3 <- ip2
I0430 17:17:45.968370 19424 net.cpp:382] ip3 -> ip3
I0430 17:17:45.968463 19424 net.cpp:124] Setting up ip3
I0430 17:17:45.968469 19424 net.cpp:131] Top shape: 1000 10 (10000)
I0430 17:17:45.968472 19424 net.cpp:139] Memory required for data: 12500000
I0430 17:17:45.968479 19424 layer_factory.hpp:77] Creating layer relu3
I0430 17:17:45.968484 19424 net.cpp:86] Creating Layer relu3
I0430 17:17:45.968487 19424 net.cpp:408] relu3 <- ip3
I0430 17:17:45.968492 19424 net.cpp:369] relu3 -> ip3 (in-place)
I0430 17:17:45.968633 19424 net.cpp:124] Setting up relu3
I0430 17:17:45.968641 19424 net.cpp:131] Top shape: 1000 10 (10000)
I0430 17:17:45.968644 19424 net.cpp:139] Memory required for data: 12540000
I0430 17:17:45.968647 19424 layer_factory.hpp:77] Creating layer ip4
I0430 17:17:45.968654 19424 net.cpp:86] Creating Layer ip4
I0430 17:17:45.968657 19424 net.cpp:408] ip4 <- ip3
I0430 17:17:45.968662 19424 net.cpp:382] ip4 -> ip4
I0430 17:17:45.968773 19424 net.cpp:124] Setting up ip4
I0430 17:17:45.968780 19424 net.cpp:131] Top shape: 1000 10 (10000)
I0430 17:17:45.968785 19424 net.cpp:139] Memory required for data: 12580000
I0430 17:17:45.968791 19424 layer_factory.hpp:77] Creating layer ip4_ip4_0_split
I0430 17:17:45.968796 19424 net.cpp:86] Creating Layer ip4_ip4_0_split
I0430 17:17:45.968799 19424 net.cpp:408] ip4_ip4_0_split <- ip4
I0430 17:17:45.968804 19424 net.cpp:382] ip4_ip4_0_split -> ip4_ip4_0_split_0
I0430 17:17:45.968832 19424 net.cpp:382] ip4_ip4_0_split -> ip4_ip4_0_split_1
I0430 17:17:45.968899 19424 net.cpp:124] Setting up ip4_ip4_0_split
I0430 17:17:45.968906 19424 net.cpp:131] Top shape: 1000 10 (10000)
I0430 17:17:45.968910 19424 net.cpp:131] Top shape: 1000 10 (10000)
I0430 17:17:45.968914 19424 net.cpp:139] Memory required for data: 12660000
I0430 17:17:45.968916 19424 layer_factory.hpp:77] Creating layer accuracy
I0430 17:17:45.968922 19424 net.cpp:86] Creating Layer accuracy
I0430 17:17:45.968926 19424 net.cpp:408] accuracy <- ip4_ip4_0_split_0
I0430 17:17:45.968930 19424 net.cpp:408] accuracy <- label_cifar_1_split_0
I0430 17:17:45.968935 19424 net.cpp:382] accuracy -> accuracy
…
