…
I0501 08:07:43.062067  9308 net.cpp:296] The NetState phase (0) differed from the phase (1) specified by a rule in layer cifar
I0501 08:07:43.062088  9308 net.cpp:296] The NetState phase (0) differed from the phase (1) specified by a rule in layer accuracy
I0501 08:07:43.062196  9308 net.cpp:53] Initializing net from parameters: 
name: "CIFAR"
state {
  phase: TRAIN
  level: 0
  stage: ""
}
layer {
  name: "cifar"
  type: "Data"
  top: "data"
  top: "label"
  include {
    phase: TRAIN
  }
  transform_param {
    mean_file: "examples/cifar10/mean.binaryproto"
  }
  data_param {
    source: "examples/cifar10/cifar10_train_lmdb"
    batch_size: 111
    backend: LMDB
  }
}
layer {
  name: "conv0"
  type: "Convolution"
  bottom: "data"
  top: "conv0"
  param {
    lr_mult: 1
  }
  param {
    lr_mult: 2
  }
  convolution_param {
    num_output: 16
    pad: 2
    kernel_size: 3
    stride: 1
    weight_filler {
      type: "gaussian"
      std: 0.01
    }
    bias_filler {
      type: "constant"
    }
  }
}
layer {
  name: "Sigmoid0"
  type: "Sigmoid"
  bottom: "conv0"
  top: "Sigmoid0"
}
layer {
  name: "pool0"
  type: "Pooling"
  bottom: "Sigmoid0"
  top: "pool0"
  pooling_param {
    pool: AVE
    kernel_size: 3
    stride: 2
  }
}
layer {
  name: "ip1"
  type: "InnerProduct"
  bottom: "pool0"
  top: "ip1"
  param {
    lr_mult: 1
  }
  param {
    lr_mult: 2
  }
  inner_product_param {
    num_output: 10
    weight_filler {
      type: "gaussian"
      std: 0.01
    }
    bias_filler {
      type: "constant"
    }
  }
}
layer {
  name: "relu1"
  type: "ReLU"
  bottom: "ip1"
  top: "ip1"
}
layer {
  name: "ip2"
  type: "InnerProduct"
  bottom: "ip1"
  top: "ip2"
  param {
    lr_mult: 1
  }
  param {
    lr_mult: 2
  }
  inner_product_param {
    num_output: 20
    weight_filler {
      type: "gaussian"
      std: 0.01
    }
    bias_filler {
      type: "constant"
    }
  }
}
layer {
  name: "relu2"
  type: "ReLU"
  bottom: "ip2"
  top: "ip2"
}
layer {
  name: "ip3"
  type: "InnerProduct"
  bottom: "ip2"
  top: "ip3"
  param {
    lr_mult: 1
  }
  param {
    lr_mult: 2
  }
  inner_product_param {
    num_output: 40
    weight_filler {
      type: "gaussian"
      std: 0.01
    }
    bias_filler {
      type: "constant"
    }
  }
}
layer {
  name: "relu3"
  type: "ReLU"
  bottom: "ip3"
  top: "ip3"
}
layer {
  name: "ip4"
  type: "InnerProduct"
  bottom: "ip3"
  top: "ip4"
  param {
    lr_mult: 1
  }
  param {
    lr_mult: 2
  }
  inner_product_param {
    num_output: 10
    weight_filler {
      type: "gaussian"
      std: 0.01
    }
    bias_filler {
      type: "constant"
    }
  }
}
layer {
  name: "loss"
  type: "SoftmaxWithLoss"
  bottom: "ip4"
  bottom: "label"
  top: "loss"
}
I0501 08:07:43.062275  9308 layer_factory.hpp:77] Creating layer cifar
I0501 08:07:43.062377  9308 db_lmdb.cpp:35] Opened lmdb examples/cifar10/cifar10_train_lmdb
I0501 08:07:43.062408  9308 net.cpp:86] Creating Layer cifar
I0501 08:07:43.062419  9308 net.cpp:382] cifar -> data
I0501 08:07:43.062443  9308 net.cpp:382] cifar -> label
I0501 08:07:43.062459  9308 data_transformer.cpp:25] Loading mean file from: examples/cifar10/mean.binaryproto
I0501 08:07:43.064615  9308 data_layer.cpp:45] output data size: 111,3,32,32
I0501 08:07:43.072844  9308 net.cpp:124] Setting up cifar
I0501 08:07:43.072870  9308 net.cpp:131] Top shape: 111 3 32 32 (340992)
I0501 08:07:43.072886  9308 net.cpp:131] Top shape: 111 (111)
I0501 08:07:43.072890  9308 net.cpp:139] Memory required for data: 1364412
I0501 08:07:43.072914  9308 layer_factory.hpp:77] Creating layer conv0
I0501 08:07:43.072933  9308 net.cpp:86] Creating Layer conv0
I0501 08:07:43.072939  9308 net.cpp:408] conv0 <- data
I0501 08:07:43.072953  9308 net.cpp:382] conv0 -> conv0
I0501 08:07:43.317133  9308 net.cpp:124] Setting up conv0
I0501 08:07:43.317159  9308 net.cpp:131] Top shape: 111 16 34 34 (2053056)
I0501 08:07:43.317164  9308 net.cpp:139] Memory required for data: 9576636
I0501 08:07:43.317180  9308 layer_factory.hpp:77] Creating layer Sigmoid0
I0501 08:07:43.317206  9308 net.cpp:86] Creating Layer Sigmoid0
I0501 08:07:43.317211  9308 net.cpp:408] Sigmoid0 <- conv0
I0501 08:07:43.317217  9308 net.cpp:382] Sigmoid0 -> Sigmoid0
I0501 08:07:43.317396  9308 net.cpp:124] Setting up Sigmoid0
I0501 08:07:43.317406  9308 net.cpp:131] Top shape: 111 16 34 34 (2053056)
I0501 08:07:43.317410  9308 net.cpp:139] Memory required for data: 17788860
I0501 08:07:43.317414  9308 layer_factory.hpp:77] Creating layer pool0
I0501 08:07:43.317421  9308 net.cpp:86] Creating Layer pool0
I0501 08:07:43.317425  9308 net.cpp:408] pool0 <- Sigmoid0
I0501 08:07:43.317430  9308 net.cpp:382] pool0 -> pool0
I0501 08:07:43.318234  9308 net.cpp:124] Setting up pool0
I0501 08:07:43.318248  9308 net.cpp:131] Top shape: 111 16 17 17 (513264)
I0501 08:07:43.318262  9308 net.cpp:139] Memory required for data: 19841916
I0501 08:07:43.318267  9308 layer_factory.hpp:77] Creating layer ip1
I0501 08:07:43.318276  9308 net.cpp:86] Creating Layer ip1
I0501 08:07:43.318280  9308 net.cpp:408] ip1 <- pool0
I0501 08:07:43.318285  9308 net.cpp:382] ip1 -> ip1
I0501 08:07:43.320497  9308 net.cpp:124] Setting up ip1
I0501 08:07:43.320509  9308 net.cpp:131] Top shape: 111 10 (1110)
I0501 08:07:43.320528  9308 net.cpp:139] Memory required for data: 19846356
I0501 08:07:43.320536  9308 layer_factory.hpp:77] Creating layer relu1
I0501 08:07:43.320544  9308 net.cpp:86] Creating Layer relu1
I0501 08:07:43.320546  9308 net.cpp:408] relu1 <- ip1
I0501 08:07:43.320551  9308 net.cpp:369] relu1 -> ip1 (in-place)
I0501 08:07:43.320721  9308 net.cpp:124] Setting up relu1
I0501 08:07:43.320730  9308 net.cpp:131] Top shape: 111 10 (1110)
I0501 08:07:43.320734  9308 net.cpp:139] Memory required for data: 19850796
I0501 08:07:43.320737  9308 layer_factory.hpp:77] Creating layer ip2
I0501 08:07:43.320744  9308 net.cpp:86] Creating Layer ip2
I0501 08:07:43.320747  9308 net.cpp:408] ip2 <- ip1
I0501 08:07:43.320752  9308 net.cpp:382] ip2 -> ip2
I0501 08:07:43.320884  9308 net.cpp:124] Setting up ip2
I0501 08:07:43.320894  9308 net.cpp:131] Top shape: 111 20 (2220)
I0501 08:07:43.320897  9308 net.cpp:139] Memory required for data: 19859676
I0501 08:07:43.320904  9308 layer_factory.hpp:77] Creating layer relu2
I0501 08:07:43.320909  9308 net.cpp:86] Creating Layer relu2
I0501 08:07:43.320914  9308 net.cpp:408] relu2 <- ip2
I0501 08:07:43.320919  9308 net.cpp:369] relu2 -> ip2 (in-place)
I0501 08:07:43.321089  9308 net.cpp:124] Setting up relu2
I0501 08:07:43.321111  9308 net.cpp:131] Top shape: 111 20 (2220)
I0501 08:07:43.321115  9308 net.cpp:139] Memory required for data: 19868556
I0501 08:07:43.321117  9308 layer_factory.hpp:77] Creating layer ip3
I0501 08:07:43.321125  9308 net.cpp:86] Creating Layer ip3
I0501 08:07:43.321127  9308 net.cpp:408] ip3 <- ip2
I0501 08:07:43.321132  9308 net.cpp:382] ip3 -> ip3
I0501 08:07:43.321241  9308 net.cpp:124] Setting up ip3
I0501 08:07:43.321249  9308 net.cpp:131] Top shape: 111 40 (4440)
I0501 08:07:43.321251  9308 net.cpp:139] Memory required for data: 19886316
I0501 08:07:43.321257  9308 layer_factory.hpp:77] Creating layer relu3
I0501 08:07:43.321262  9308 net.cpp:86] Creating Layer relu3
I0501 08:07:43.321265  9308 net.cpp:408] relu3 <- ip3
I0501 08:07:43.321269  9308 net.cpp:369] relu3 -> ip3 (in-place)
I0501 08:07:43.321422  9308 net.cpp:124] Setting up relu3
I0501 08:07:43.321430  9308 net.cpp:131] Top shape: 111 40 (4440)
I0501 08:07:43.321434  9308 net.cpp:139] Memory required for data: 19904076
I0501 08:07:43.321436  9308 layer_factory.hpp:77] Creating layer ip4
I0501 08:07:43.321473  9308 net.cpp:86] Creating Layer ip4
I0501 08:07:43.321477  9308 net.cpp:408] ip4 <- ip3
I0501 08:07:43.321482  9308 net.cpp:382] ip4 -> ip4
I0501 08:07:43.321588  9308 net.cpp:124] Setting up ip4
I0501 08:07:43.321596  9308 net.cpp:131] Top shape: 111 10 (1110)
I0501 08:07:43.321599  9308 net.cpp:139] Memory required for data: 19908516
I0501 08:07:43.321607  9308 layer_factory.hpp:77] Creating layer loss
I0501 08:07:43.321614  9308 net.cpp:86] Creating Layer loss
I0501 08:07:43.321617  9308 net.cpp:408] loss <- ip4
I0501 08:07:43.321620  9308 net.cpp:408] loss <- label
I0501 08:07:43.321626  9308 net.cpp:382] loss -> loss
I0501 08:07:43.321643  9308 layer_factory.hpp:77] Creating layer loss
…
I0501 08:07:43.322948  9308 solver.cpp:173] Creating test net (#0) specified by net file: ECE595/cifar/train_test/var_everything/cifar_train_test_502.prototxt
I0501 08:07:43.322993  9308 net.cpp:296] The NetState phase (1) differed from the phase (0) specified by a rule in layer cifar
I0501 08:07:43.323086  9308 net.cpp:53] Initializing net from parameters: 
name: "CIFAR"
state {
  phase: TEST
}
layer {
  name: "cifar"
  type: "Data"
  top: "data"
  top: "label"
  include {
    phase: TEST
  }
  transform_param {
    mean_file: "examples/cifar10/mean.binaryproto"
  }
  data_param {
    source: "examples/cifar10/cifar10_test_lmdb"
    batch_size: 1000
    backend: LMDB
  }
}
layer {
  name: "conv0"
  type: "Convolution"
  bottom: "data"
  top: "conv0"
  param {
    lr_mult: 1
  }
  param {
    lr_mult: 2
  }
  convolution_param {
    num_output: 16
    pad: 2
    kernel_size: 3
    stride: 1
    weight_filler {
      type: "gaussian"
      std: 0.01
    }
    bias_filler {
      type: "constant"
    }
  }
}
layer {
  name: "Sigmoid0"
  type: "Sigmoid"
  bottom: "conv0"
  top: "Sigmoid0"
}
layer {
  name: "pool0"
  type: "Pooling"
  bottom: "Sigmoid0"
  top: "pool0"
  pooling_param {
    pool: AVE
    kernel_size: 3
    stride: 2
  }
}
layer {
  name: "ip1"
  type: "InnerProduct"
  bottom: "pool0"
  top: "ip1"
  param {
    lr_mult: 1
  }
  param {
    lr_mult: 2
  }
  inner_product_param {
    num_output: 10
    weight_filler {
      type: "gaussian"
      std: 0.01
    }
    bias_filler {
      type: "constant"
    }
  }
}
layer {
  name: "relu1"
  type: "ReLU"
  bottom: "ip1"
  top: "ip1"
}
layer {
  name: "ip2"
  type: "InnerProduct"
  bottom: "ip1"
  top: "ip2"
  param {
    lr_mult: 1
  }
  param {
    lr_mult: 2
  }
  inner_product_param {
    num_output: 20
    weight_filler {
      type: "gaussian"
      std: 0.01
    }
    bias_filler {
      type: "constant"
    }
  }
}
layer {
  name: "relu2"
  type: "ReLU"
  bottom: "ip2"
  top: "ip2"
}
layer {
  name: "ip3"
  type: "InnerProduct"
  bottom: "ip2"
  top: "ip3"
  param {
    lr_mult: 1
  }
  param {
    lr_mult: 2
  }
  inner_product_param {
    num_output: 40
    weight_filler {
      type: "gaussian"
      std: 0.01
    }
    bias_filler {
      type: "constant"
    }
  }
}
layer {
  name: "relu3"
  type: "ReLU"
  bottom: "ip3"
  top: "ip3"
}
layer {
  name: "ip4"
  type: "InnerProduct"
  bottom: "ip3"
  top: "ip4"
  param {
    lr_mult: 1
  }
  param {
    lr_mult: 2
  }
  inner_product_param {
    num_output: 10
    weight_filler {
      type: "gaussian"
      std: 0.01
    }
    bias_filler {
      type: "constant"
    }
  }
}
layer {
  name: "accuracy"
  type: "Accuracy"
  bottom: "ip4"
  bottom: "label"
  top: "accuracy"
  include {
    phase: TEST
  }
}
layer {
  name: "loss"
  type: "SoftmaxWithLoss"
  bottom: "ip4"
  bottom: "label"
  top: "loss"
}
I0501 08:07:43.323163  9308 layer_factory.hpp:77] Creating layer cifar
I0501 08:07:43.323210  9308 db_lmdb.cpp:35] Opened lmdb examples/cifar10/cifar10_test_lmdb
I0501 08:07:43.323222  9308 net.cpp:86] Creating Layer cifar
I0501 08:07:43.323227  9308 net.cpp:382] cifar -> data
I0501 08:07:43.323235  9308 net.cpp:382] cifar -> label
I0501 08:07:43.323242  9308 data_transformer.cpp:25] Loading mean file from: examples/cifar10/mean.binaryproto
I0501 08:07:43.323393  9308 data_layer.cpp:45] output data size: 1000,3,32,32
I0501 08:07:43.345623  9308 net.cpp:124] Setting up cifar
I0501 08:07:43.345648  9308 net.cpp:131] Top shape: 1000 3 32 32 (3072000)
I0501 08:07:43.345669  9308 net.cpp:131] Top shape: 1000 (1000)
I0501 08:07:43.345671  9308 net.cpp:139] Memory required for data: 12292000
I0501 08:07:43.345677  9308 layer_factory.hpp:77] Creating layer label_cifar_1_split
I0501 08:07:43.345695  9308 net.cpp:86] Creating Layer label_cifar_1_split
I0501 08:07:43.345698  9308 net.cpp:408] label_cifar_1_split <- label
I0501 08:07:43.345705  9308 net.cpp:382] label_cifar_1_split -> label_cifar_1_split_0
I0501 08:07:43.345729  9308 net.cpp:382] label_cifar_1_split -> label_cifar_1_split_1
I0501 08:07:43.345836  9308 net.cpp:124] Setting up label_cifar_1_split
I0501 08:07:43.345844  9308 net.cpp:131] Top shape: 1000 (1000)
I0501 08:07:43.345849  9308 net.cpp:131] Top shape: 1000 (1000)
I0501 08:07:43.345852  9308 net.cpp:139] Memory required for data: 12300000
I0501 08:07:43.345855  9308 layer_factory.hpp:77] Creating layer conv0
I0501 08:07:43.345867  9308 net.cpp:86] Creating Layer conv0
I0501 08:07:43.345871  9308 net.cpp:408] conv0 <- data
I0501 08:07:43.345877  9308 net.cpp:382] conv0 -> conv0
I0501 08:07:43.347348  9308 net.cpp:124] Setting up conv0
I0501 08:07:43.347376  9308 net.cpp:131] Top shape: 1000 16 34 34 (18496000)
I0501 08:07:43.347380  9308 net.cpp:139] Memory required for data: 86284000
I0501 08:07:43.347390  9308 layer_factory.hpp:77] Creating layer Sigmoid0
I0501 08:07:43.347398  9308 net.cpp:86] Creating Layer Sigmoid0
I0501 08:07:43.347400  9308 net.cpp:408] Sigmoid0 <- conv0
I0501 08:07:43.347405  9308 net.cpp:382] Sigmoid0 -> Sigmoid0
I0501 08:07:43.347606  9308 net.cpp:124] Setting up Sigmoid0
I0501 08:07:43.347615  9308 net.cpp:131] Top shape: 1000 16 34 34 (18496000)
I0501 08:07:43.347620  9308 net.cpp:139] Memory required for data: 160268000
I0501 08:07:43.347622  9308 layer_factory.hpp:77] Creating layer pool0
I0501 08:07:43.347632  9308 net.cpp:86] Creating Layer pool0
I0501 08:07:43.347636  9308 net.cpp:408] pool0 <- Sigmoid0
I0501 08:07:43.347640  9308 net.cpp:382] pool0 -> pool0
I0501 08:07:43.348898  9308 net.cpp:124] Setting up pool0
I0501 08:07:43.348909  9308 net.cpp:131] Top shape: 1000 16 17 17 (4624000)
I0501 08:07:43.348928  9308 net.cpp:139] Memory required for data: 178764000
I0501 08:07:43.348932  9308 layer_factory.hpp:77] Creating layer ip1
I0501 08:07:43.348942  9308 net.cpp:86] Creating Layer ip1
I0501 08:07:43.348945  9308 net.cpp:408] ip1 <- pool0
I0501 08:07:43.348951  9308 net.cpp:382] ip1 -> ip1
I0501 08:07:43.350541  9308 net.cpp:124] Setting up ip1
I0501 08:07:43.350550  9308 net.cpp:131] Top shape: 1000 10 (10000)
I0501 08:07:43.350572  9308 net.cpp:139] Memory required for data: 178804000
I0501 08:07:43.350594  9308 layer_factory.hpp:77] Creating layer relu1
I0501 08:07:43.350600  9308 net.cpp:86] Creating Layer relu1
I0501 08:07:43.350605  9308 net.cpp:408] relu1 <- ip1
I0501 08:07:43.350608  9308 net.cpp:369] relu1 -> ip1 (in-place)
I0501 08:07:43.350777  9308 net.cpp:124] Setting up relu1
I0501 08:07:43.350787  9308 net.cpp:131] Top shape: 1000 10 (10000)
I0501 08:07:43.350790  9308 net.cpp:139] Memory required for data: 178844000
I0501 08:07:43.350793  9308 layer_factory.hpp:77] Creating layer ip2
I0501 08:07:43.350800  9308 net.cpp:86] Creating Layer ip2
I0501 08:07:43.350803  9308 net.cpp:408] ip2 <- ip1
I0501 08:07:43.350810  9308 net.cpp:382] ip2 -> ip2
I0501 08:07:43.350922  9308 net.cpp:124] Setting up ip2
I0501 08:07:43.350930  9308 net.cpp:131] Top shape: 1000 20 (20000)
I0501 08:07:43.350934  9308 net.cpp:139] Memory required for data: 178924000
I0501 08:07:43.350941  9308 layer_factory.hpp:77] Creating layer relu2
I0501 08:07:43.350949  9308 net.cpp:86] Creating Layer relu2
I0501 08:07:43.350951  9308 net.cpp:408] relu2 <- ip2
I0501 08:07:43.350956  9308 net.cpp:369] relu2 -> ip2 (in-place)
I0501 08:07:43.351768  9308 net.cpp:124] Setting up relu2
I0501 08:07:43.351796  9308 net.cpp:131] Top shape: 1000 20 (20000)
I0501 08:07:43.351800  9308 net.cpp:139] Memory required for data: 179004000
I0501 08:07:43.351804  9308 layer_factory.hpp:77] Creating layer ip3
I0501 08:07:43.351810  9308 net.cpp:86] Creating Layer ip3
I0501 08:07:43.351814  9308 net.cpp:408] ip3 <- ip2
I0501 08:07:43.351821  9308 net.cpp:382] ip3 -> ip3
I0501 08:07:43.351964  9308 net.cpp:124] Setting up ip3
I0501 08:07:43.351971  9308 net.cpp:131] Top shape: 1000 40 (40000)
I0501 08:07:43.351974  9308 net.cpp:139] Memory required for data: 179164000
I0501 08:07:43.351980  9308 layer_factory.hpp:77] Creating layer relu3
I0501 08:07:43.351985  9308 net.cpp:86] Creating Layer relu3
I0501 08:07:43.351989  9308 net.cpp:408] relu3 <- ip3
I0501 08:07:43.351994  9308 net.cpp:369] relu3 -> ip3 (in-place)
I0501 08:07:43.352145  9308 net.cpp:124] Setting up relu3
I0501 08:07:43.352154  9308 net.cpp:131] Top shape: 1000 40 (40000)
I0501 08:07:43.352157  9308 net.cpp:139] Memory required for data: 179324000
I0501 08:07:43.352160  9308 layer_factory.hpp:77] Creating layer ip4
I0501 08:07:43.352167  9308 net.cpp:86] Creating Layer ip4
I0501 08:07:43.352171  9308 net.cpp:408] ip4 <- ip3
I0501 08:07:43.352175  9308 net.cpp:382] ip4 -> ip4
I0501 08:07:43.352286  9308 net.cpp:124] Setting up ip4
I0501 08:07:43.352293  9308 net.cpp:131] Top shape: 1000 10 (10000)
I0501 08:07:43.352296  9308 net.cpp:139] Memory required for data: 179364000
I0501 08:07:43.352303  9308 layer_factory.hpp:77] Creating layer ip4_ip4_0_split
I0501 08:07:43.352310  9308 net.cpp:86] Creating Layer ip4_ip4_0_split
I0501 08:07:43.352314  9308 net.cpp:408] ip4_ip4_0_split <- ip4
I0501 08:07:43.352318  9308 net.cpp:382] ip4_ip4_0_split -> ip4_ip4_0_split_0
I0501 08:07:43.352322  9308 net.cpp:382] ip4_ip4_0_split -> ip4_ip4_0_split_1
I0501 08:07:43.352354  9308 net.cpp:124] Setting up ip4_ip4_0_split
I0501 08:07:43.352360  9308 net.cpp:131] Top shape: 1000 10 (10000)
I0501 08:07:43.352363  9308 net.cpp:131] Top shape: 1000 10 (10000)
I0501 08:07:43.352366  9308 net.cpp:139] Memory required for data: 179444000
I0501 08:07:43.352378  9308 layer_factory.hpp:77] Creating layer accuracy
I0501 08:07:43.352385  9308 net.cpp:86] Creating Layer accuracy
I0501 08:07:43.352387  9308 net.cpp:408] accuracy <- ip4_ip4_0_split_0
I0501 08:07:43.352391  9308 net.cpp:408] accuracy <- label_cifar_1_split_0
I0501 08:07:43.352397  9308 net.cpp:382] accuracy -> accuracy
…
