…
I0430 19:33:28.496336 26235 net.cpp:296] The NetState phase (0) differed from the phase (1) specified by a rule in layer cifar
I0430 19:33:28.496354 26235 net.cpp:296] The NetState phase (0) differed from the phase (1) specified by a rule in layer accuracy
I0430 19:33:28.496459 26235 net.cpp:53] Initializing net from parameters: 
name: "CIFAR"
state {
  phase: TRAIN
  level: 0
  stage: ""
}
layer {
  name: "cifar"
  type: "Data"
  top: "data"
  top: "label"
  include {
    phase: TRAIN
  }
  transform_param {
    mean_file: "examples/cifar10/mean.binaryproto"
  }
  data_param {
    source: "examples/cifar10/cifar10_train_lmdb"
    batch_size: 111
    backend: LMDB
  }
}
layer {
  name: "ip1"
  type: "InnerProduct"
  bottom: "data"
  top: "ip1"
  param {
    lr_mult: 1
  }
  param {
    lr_mult: 2
  }
  inner_product_param {
    num_output: 40
    weight_filler {
      type: "gaussian"
      std: 0.01
    }
    bias_filler {
      type: "constant"
    }
  }
}
layer {
  name: "relu1"
  type: "ReLU"
  bottom: "ip1"
  top: "ip1"
}
layer {
  name: "ip2"
  type: "InnerProduct"
  bottom: "ip1"
  top: "ip2"
  param {
    lr_mult: 1
  }
  param {
    lr_mult: 2
  }
  inner_product_param {
    num_output: 160
    weight_filler {
      type: "gaussian"
      std: 0.01
    }
    bias_filler {
      type: "constant"
    }
  }
}
layer {
  name: "relu2"
  type: "ReLU"
  bottom: "ip2"
  top: "ip2"
}
layer {
  name: "ip3"
  type: "InnerProduct"
  bottom: "ip2"
  top: "ip3"
  param {
    lr_mult: 1
  }
  param {
    lr_mult: 2
  }
  inner_product_param {
    num_output: 20
    weight_filler {
      type: "gaussian"
      std: 0.01
    }
    bias_filler {
      type: "constant"
    }
  }
}
layer {
  name: "relu3"
  type: "ReLU"
  bottom: "ip3"
  top: "ip3"
}
layer {
  name: "ip4"
  type: "InnerProduct"
  bottom: "ip3"
  top: "ip4"
  param {
    lr_mult: 1
  }
  param {
    lr_mult: 2
  }
  inner_product_param {
    num_output: 10
    weight_filler {
      type: "gaussian"
      std: 0.01
    }
    bias_filler {
      type: "constant"
    }
  }
}
layer {
  name: "loss"
  type: "SoftmaxWithLoss"
  bottom: "ip4"
  bottom: "label"
  top: "loss"
}
I0430 19:33:28.496554 26235 layer_factory.hpp:77] Creating layer cifar
I0430 19:33:28.496683 26235 db_lmdb.cpp:35] Opened lmdb examples/cifar10/cifar10_train_lmdb
I0430 19:33:28.496721 26235 net.cpp:86] Creating Layer cifar
I0430 19:33:28.496732 26235 net.cpp:382] cifar -> data
I0430 19:33:28.496763 26235 net.cpp:382] cifar -> label
I0430 19:33:28.496779 26235 data_transformer.cpp:25] Loading mean file from: examples/cifar10/mean.binaryproto
I0430 19:33:28.498955 26235 data_layer.cpp:45] output data size: 111,3,32,32
I0430 19:33:28.510215 26235 net.cpp:124] Setting up cifar
I0430 19:33:28.510244 26235 net.cpp:131] Top shape: 111 3 32 32 (340992)
I0430 19:33:28.510277 26235 net.cpp:131] Top shape: 111 (111)
I0430 19:33:28.510284 26235 net.cpp:139] Memory required for data: 1364412
I0430 19:33:28.510296 26235 layer_factory.hpp:77] Creating layer ip1
I0430 19:33:28.510314 26235 net.cpp:86] Creating Layer ip1
I0430 19:33:28.510330 26235 net.cpp:408] ip1 <- data
I0430 19:33:28.510351 26235 net.cpp:382] ip1 -> ip1
I0430 19:33:28.517686 26235 net.cpp:124] Setting up ip1
I0430 19:33:28.517706 26235 net.cpp:131] Top shape: 111 40 (4440)
I0430 19:33:28.517712 26235 net.cpp:139] Memory required for data: 1382172
I0430 19:33:28.517735 26235 layer_factory.hpp:77] Creating layer relu1
I0430 19:33:28.517750 26235 net.cpp:86] Creating Layer relu1
I0430 19:33:28.517777 26235 net.cpp:408] relu1 <- ip1
I0430 19:33:28.517787 26235 net.cpp:369] relu1 -> ip1 (in-place)
I0430 19:33:28.824784 26235 net.cpp:124] Setting up relu1
I0430 19:33:28.824823 26235 net.cpp:131] Top shape: 111 40 (4440)
I0430 19:33:28.824829 26235 net.cpp:139] Memory required for data: 1399932
I0430 19:33:28.824836 26235 layer_factory.hpp:77] Creating layer ip2
I0430 19:33:28.824849 26235 net.cpp:86] Creating Layer ip2
I0430 19:33:28.824854 26235 net.cpp:408] ip2 <- ip1
I0430 19:33:28.824864 26235 net.cpp:382] ip2 -> ip2
I0430 19:33:28.826234 26235 net.cpp:124] Setting up ip2
I0430 19:33:28.826251 26235 net.cpp:131] Top shape: 111 160 (17760)
I0430 19:33:28.826256 26235 net.cpp:139] Memory required for data: 1470972
I0430 19:33:28.826268 26235 layer_factory.hpp:77] Creating layer relu2
I0430 19:33:28.826277 26235 net.cpp:86] Creating Layer relu2
I0430 19:33:28.826282 26235 net.cpp:408] relu2 <- ip2
I0430 19:33:28.826287 26235 net.cpp:369] relu2 -> ip2 (in-place)
I0430 19:33:28.827162 26235 net.cpp:124] Setting up relu2
I0430 19:33:28.827178 26235 net.cpp:131] Top shape: 111 160 (17760)
I0430 19:33:28.827181 26235 net.cpp:139] Memory required for data: 1542012
I0430 19:33:28.827186 26235 layer_factory.hpp:77] Creating layer ip3
I0430 19:33:28.827194 26235 net.cpp:86] Creating Layer ip3
I0430 19:33:28.827198 26235 net.cpp:408] ip3 <- ip2
I0430 19:33:28.827205 26235 net.cpp:382] ip3 -> ip3
I0430 19:33:28.827427 26235 net.cpp:124] Setting up ip3
I0430 19:33:28.827437 26235 net.cpp:131] Top shape: 111 20 (2220)
I0430 19:33:28.827441 26235 net.cpp:139] Memory required for data: 1550892
I0430 19:33:28.827450 26235 layer_factory.hpp:77] Creating layer relu3
I0430 19:33:28.827456 26235 net.cpp:86] Creating Layer relu3
I0430 19:33:28.827461 26235 net.cpp:408] relu3 <- ip3
I0430 19:33:28.827466 26235 net.cpp:369] relu3 -> ip3 (in-place)
I0430 19:33:28.827642 26235 net.cpp:124] Setting up relu3
I0430 19:33:28.827652 26235 net.cpp:131] Top shape: 111 20 (2220)
I0430 19:33:28.827656 26235 net.cpp:139] Memory required for data: 1559772
I0430 19:33:28.827661 26235 layer_factory.hpp:77] Creating layer ip4
I0430 19:33:28.827667 26235 net.cpp:86] Creating Layer ip4
I0430 19:33:28.827672 26235 net.cpp:408] ip4 <- ip3
I0430 19:33:28.827677 26235 net.cpp:382] ip4 -> ip4
I0430 19:33:28.827790 26235 net.cpp:124] Setting up ip4
I0430 19:33:28.827797 26235 net.cpp:131] Top shape: 111 10 (1110)
I0430 19:33:28.827800 26235 net.cpp:139] Memory required for data: 1564212
I0430 19:33:28.827807 26235 layer_factory.hpp:77] Creating layer loss
I0430 19:33:28.827821 26235 net.cpp:86] Creating Layer loss
I0430 19:33:28.827826 26235 net.cpp:408] loss <- ip4
I0430 19:33:28.827831 26235 net.cpp:408] loss <- label
I0430 19:33:28.827836 26235 net.cpp:382] loss -> loss
I0430 19:33:28.827852 26235 layer_factory.hpp:77] Creating layer loss
…
I0430 19:33:28.828516 26235 solver.cpp:173] Creating test net (#0) specified by net file: ECE595/cifar/train_test/var_everything/cifar_train_test_101.prototxt
I0430 19:33:28.828559 26235 net.cpp:296] The NetState phase (1) differed from the phase (0) specified by a rule in layer cifar
I0430 19:33:28.828655 26235 net.cpp:53] Initializing net from parameters: 
name: "CIFAR"
state {
  phase: TEST
}
layer {
  name: "cifar"
  type: "Data"
  top: "data"
  top: "label"
  include {
    phase: TEST
  }
  transform_param {
    mean_file: "examples/cifar10/mean.binaryproto"
  }
  data_param {
    source: "examples/cifar10/cifar10_test_lmdb"
    batch_size: 1000
    backend: LMDB
  }
}
layer {
  name: "ip1"
  type: "InnerProduct"
  bottom: "data"
  top: "ip1"
  param {
    lr_mult: 1
  }
  param {
    lr_mult: 2
  }
  inner_product_param {
    num_output: 40
    weight_filler {
      type: "gaussian"
      std: 0.01
    }
    bias_filler {
      type: "constant"
    }
  }
}
layer {
  name: "relu1"
  type: "ReLU"
  bottom: "ip1"
  top: "ip1"
}
layer {
  name: "ip2"
  type: "InnerProduct"
  bottom: "ip1"
  top: "ip2"
  param {
    lr_mult: 1
  }
  param {
    lr_mult: 2
  }
  inner_product_param {
    num_output: 160
    weight_filler {
      type: "gaussian"
      std: 0.01
    }
    bias_filler {
      type: "constant"
    }
  }
}
layer {
  name: "relu2"
  type: "ReLU"
  bottom: "ip2"
  top: "ip2"
}
layer {
  name: "ip3"
  type: "InnerProduct"
  bottom: "ip2"
  top: "ip3"
  param {
    lr_mult: 1
  }
  param {
    lr_mult: 2
  }
  inner_product_param {
    num_output: 20
    weight_filler {
      type: "gaussian"
      std: 0.01
    }
    bias_filler {
      type: "constant"
    }
  }
}
layer {
  name: "relu3"
  type: "ReLU"
  bottom: "ip3"
  top: "ip3"
}
layer {
  name: "ip4"
  type: "InnerProduct"
  bottom: "ip3"
  top: "ip4"
  param {
    lr_mult: 1
  }
  param {
    lr_mult: 2
  }
  inner_product_param {
    num_output: 10
    weight_filler {
      type: "gaussian"
      std: 0.01
    }
    bias_filler {
      type: "constant"
    }
  }
}
layer {
  name: "accuracy"
  type: "Accuracy"
  bottom: "ip4"
  bottom: "label"
  top: "accuracy"
  include {
    phase: TEST
  }
}
layer {
  name: "loss"
  type: "SoftmaxWithLoss"
  bottom: "ip4"
  bottom: "label"
  top: "loss"
}
I0430 19:33:28.828727 26235 layer_factory.hpp:77] Creating layer cifar
I0430 19:33:28.828781 26235 db_lmdb.cpp:35] Opened lmdb examples/cifar10/cifar10_test_lmdb
I0430 19:33:28.828796 26235 net.cpp:86] Creating Layer cifar
I0430 19:33:28.828802 26235 net.cpp:382] cifar -> data
I0430 19:33:28.828820 26235 net.cpp:382] cifar -> label
I0430 19:33:28.828830 26235 data_transformer.cpp:25] Loading mean file from: examples/cifar10/mean.binaryproto
I0430 19:33:28.829000 26235 data_layer.cpp:45] output data size: 1000,3,32,32
I0430 19:33:28.855993 26235 net.cpp:124] Setting up cifar
I0430 19:33:28.856025 26235 net.cpp:131] Top shape: 1000 3 32 32 (3072000)
I0430 19:33:28.856032 26235 net.cpp:131] Top shape: 1000 (1000)
I0430 19:33:28.856036 26235 net.cpp:139] Memory required for data: 12292000
I0430 19:33:28.856042 26235 layer_factory.hpp:77] Creating layer label_cifar_1_split
I0430 19:33:28.856063 26235 net.cpp:86] Creating Layer label_cifar_1_split
I0430 19:33:28.856068 26235 net.cpp:408] label_cifar_1_split <- label
I0430 19:33:28.856076 26235 net.cpp:382] label_cifar_1_split -> label_cifar_1_split_0
I0430 19:33:28.856086 26235 net.cpp:382] label_cifar_1_split -> label_cifar_1_split_1
I0430 19:33:28.856206 26235 net.cpp:124] Setting up label_cifar_1_split
I0430 19:33:28.856216 26235 net.cpp:131] Top shape: 1000 (1000)
I0430 19:33:28.856221 26235 net.cpp:131] Top shape: 1000 (1000)
I0430 19:33:28.856225 26235 net.cpp:139] Memory required for data: 12300000
I0430 19:33:28.856230 26235 layer_factory.hpp:77] Creating layer ip1
I0430 19:33:28.856240 26235 net.cpp:86] Creating Layer ip1
I0430 19:33:28.856243 26235 net.cpp:408] ip1 <- data
I0430 19:33:28.856250 26235 net.cpp:382] ip1 -> ip1
I0430 19:33:28.860486 26235 net.cpp:124] Setting up ip1
I0430 19:33:28.860499 26235 net.cpp:131] Top shape: 1000 40 (40000)
I0430 19:33:28.860504 26235 net.cpp:139] Memory required for data: 12460000
I0430 19:33:28.860534 26235 layer_factory.hpp:77] Creating layer relu1
I0430 19:33:28.860543 26235 net.cpp:86] Creating Layer relu1
I0430 19:33:28.860546 26235 net.cpp:408] relu1 <- ip1
I0430 19:33:28.860553 26235 net.cpp:369] relu1 -> ip1 (in-place)
I0430 19:33:28.861487 26235 net.cpp:124] Setting up relu1
I0430 19:33:28.861505 26235 net.cpp:131] Top shape: 1000 40 (40000)
I0430 19:33:28.861508 26235 net.cpp:139] Memory required for data: 12620000
I0430 19:33:28.861513 26235 layer_factory.hpp:77] Creating layer ip2
I0430 19:33:28.861523 26235 net.cpp:86] Creating Layer ip2
I0430 19:33:28.861527 26235 net.cpp:408] ip2 <- ip1
I0430 19:33:28.861536 26235 net.cpp:382] ip2 -> ip2
I0430 19:33:28.861868 26235 net.cpp:124] Setting up ip2
I0430 19:33:28.861877 26235 net.cpp:131] Top shape: 1000 160 (160000)
I0430 19:33:28.861881 26235 net.cpp:139] Memory required for data: 13260000
I0430 19:33:28.861891 26235 layer_factory.hpp:77] Creating layer relu2
I0430 19:33:28.861896 26235 net.cpp:86] Creating Layer relu2
I0430 19:33:28.861901 26235 net.cpp:408] relu2 <- ip2
I0430 19:33:28.861907 26235 net.cpp:369] relu2 -> ip2 (in-place)
I0430 19:33:28.862088 26235 net.cpp:124] Setting up relu2
I0430 19:33:28.862098 26235 net.cpp:131] Top shape: 1000 160 (160000)
I0430 19:33:28.862102 26235 net.cpp:139] Memory required for data: 13900000
I0430 19:33:28.862107 26235 layer_factory.hpp:77] Creating layer ip3
I0430 19:33:28.862114 26235 net.cpp:86] Creating Layer ip3
I0430 19:33:28.862118 26235 net.cpp:408] ip3 <- ip2
I0430 19:33:28.862123 26235 net.cpp:382] ip3 -> ip3
I0430 19:33:28.862346 26235 net.cpp:124] Setting up ip3
I0430 19:33:28.862355 26235 net.cpp:131] Top shape: 1000 20 (20000)
I0430 19:33:28.862360 26235 net.cpp:139] Memory required for data: 13980000
I0430 19:33:28.862367 26235 layer_factory.hpp:77] Creating layer relu3
I0430 19:33:28.862375 26235 net.cpp:86] Creating Layer relu3
I0430 19:33:28.862377 26235 net.cpp:408] relu3 <- ip3
I0430 19:33:28.862382 26235 net.cpp:369] relu3 -> ip3 (in-place)
I0430 19:33:28.862560 26235 net.cpp:124] Setting up relu3
I0430 19:33:28.862571 26235 net.cpp:131] Top shape: 1000 20 (20000)
I0430 19:33:28.862574 26235 net.cpp:139] Memory required for data: 14060000
I0430 19:33:28.862578 26235 layer_factory.hpp:77] Creating layer ip4
I0430 19:33:28.862586 26235 net.cpp:86] Creating Layer ip4
I0430 19:33:28.862591 26235 net.cpp:408] ip4 <- ip3
I0430 19:33:28.862596 26235 net.cpp:382] ip4 -> ip4
I0430 19:33:28.862723 26235 net.cpp:124] Setting up ip4
I0430 19:33:28.862731 26235 net.cpp:131] Top shape: 1000 10 (10000)
I0430 19:33:28.862735 26235 net.cpp:139] Memory required for data: 14100000
I0430 19:33:28.862742 26235 layer_factory.hpp:77] Creating layer ip4_ip4_0_split
I0430 19:33:28.862748 26235 net.cpp:86] Creating Layer ip4_ip4_0_split
I0430 19:33:28.862752 26235 net.cpp:408] ip4_ip4_0_split <- ip4
I0430 19:33:28.862758 26235 net.cpp:382] ip4_ip4_0_split -> ip4_ip4_0_split_0
I0430 19:33:28.862766 26235 net.cpp:382] ip4_ip4_0_split -> ip4_ip4_0_split_1
I0430 19:33:28.862802 26235 net.cpp:124] Setting up ip4_ip4_0_split
I0430 19:33:28.862809 26235 net.cpp:131] Top shape: 1000 10 (10000)
I0430 19:33:28.862814 26235 net.cpp:131] Top shape: 1000 10 (10000)
I0430 19:33:28.862818 26235 net.cpp:139] Memory required for data: 14180000
I0430 19:33:28.862821 26235 layer_factory.hpp:77] Creating layer accuracy
I0430 19:33:28.862828 26235 net.cpp:86] Creating Layer accuracy
I0430 19:33:28.862833 26235 net.cpp:408] accuracy <- ip4_ip4_0_split_0
I0430 19:33:28.862838 26235 net.cpp:408] accuracy <- label_cifar_1_split_0
I0430 19:33:28.862843 26235 net.cpp:382] accuracy -> accuracy
…
