…
I0430 22:40:33.590528  2851 net.cpp:296] The NetState phase (0) differed from the phase (1) specified by a rule in layer cifar
I0430 22:40:33.590554  2851 net.cpp:296] The NetState phase (0) differed from the phase (1) specified by a rule in layer accuracy
I0430 22:40:33.590677  2851 net.cpp:53] Initializing net from parameters: 
name: "CIFAR"
state {
  phase: TRAIN
  level: 0
  stage: ""
}
layer {
  name: "cifar"
  type: "Data"
  top: "data"
  top: "label"
  include {
    phase: TRAIN
  }
  transform_param {
    mean_file: "examples/cifar10/mean.binaryproto"
  }
  data_param {
    source: "examples/cifar10/cifar10_train_lmdb"
    batch_size: 111
    backend: LMDB
  }
}
layer {
  name: "conv0"
  type: "Convolution"
  bottom: "data"
  top: "conv0"
  param {
    lr_mult: 1
  }
  param {
    lr_mult: 2
  }
  convolution_param {
    num_output: 8
    pad: 2
    kernel_size: 3
    stride: 1
    weight_filler {
      type: "gaussian"
      std: 0.01
    }
    bias_filler {
      type: "constant"
    }
  }
}
layer {
  name: "Sigmoid0"
  type: "Sigmoid"
  bottom: "conv0"
  top: "Sigmoid0"
}
layer {
  name: "pool0"
  type: "Pooling"
  bottom: "Sigmoid0"
  top: "pool0"
  pooling_param {
    pool: AVE
    kernel_size: 3
    stride: 2
  }
}
layer {
  name: "ip1"
  type: "InnerProduct"
  bottom: "pool0"
  top: "ip1"
  param {
    lr_mult: 1
  }
  param {
    lr_mult: 2
  }
  inner_product_param {
    num_output: 10
    weight_filler {
      type: "gaussian"
      std: 0.01
    }
    bias_filler {
      type: "constant"
    }
  }
}
layer {
  name: "relu1"
  type: "ReLU"
  bottom: "ip1"
  top: "ip1"
}
layer {
  name: "ip2"
  type: "InnerProduct"
  bottom: "ip1"
  top: "ip2"
  param {
    lr_mult: 1
  }
  param {
    lr_mult: 2
  }
  inner_product_param {
    num_output: 80
    weight_filler {
      type: "gaussian"
      std: 0.01
    }
    bias_filler {
      type: "constant"
    }
  }
}
layer {
  name: "relu2"
  type: "ReLU"
  bottom: "ip2"
  top: "ip2"
}
layer {
  name: "ip3"
  type: "InnerProduct"
  bottom: "ip2"
  top: "ip3"
  param {
    lr_mult: 1
  }
  param {
    lr_mult: 2
  }
  inner_product_param {
    num_output: 20
    weight_filler {
      type: "gaussian"
      std: 0.01
    }
    bias_filler {
      type: "constant"
    }
  }
}
layer {
  name: "relu3"
  type: "ReLU"
  bottom: "ip3"
  top: "ip3"
}
layer {
  name: "ip4"
  type: "InnerProduct"
  bottom: "ip3"
  top: "ip4"
  param {
    lr_mult: 1
  }
  param {
    lr_mult: 2
  }
  inner_product_param {
    num_output: 10
    weight_filler {
      type: "gaussian"
      std: 0.01
    }
    bias_filler {
      type: "constant"
    }
  }
}
layer {
  name: "loss"
  type: "SoftmaxWithLoss"
  bottom: "ip4"
  bottom: "label"
  top: "loss"
}
I0430 22:40:33.590792  2851 layer_factory.hpp:77] Creating layer cifar
I0430 22:40:33.590924  2851 db_lmdb.cpp:35] Opened lmdb examples/cifar10/cifar10_train_lmdb
I0430 22:40:33.590961  2851 net.cpp:86] Creating Layer cifar
I0430 22:40:33.590975  2851 net.cpp:382] cifar -> data
I0430 22:40:33.591006  2851 net.cpp:382] cifar -> label
I0430 22:40:33.591023  2851 data_transformer.cpp:25] Loading mean file from: examples/cifar10/mean.binaryproto
I0430 22:40:33.593355  2851 data_layer.cpp:45] output data size: 111,3,32,32
I0430 22:40:33.601231  2851 net.cpp:124] Setting up cifar
I0430 22:40:33.601253  2851 net.cpp:131] Top shape: 111 3 32 32 (340992)
I0430 22:40:33.601263  2851 net.cpp:131] Top shape: 111 (111)
I0430 22:40:33.601269  2851 net.cpp:139] Memory required for data: 1364412
I0430 22:40:33.601307  2851 layer_factory.hpp:77] Creating layer conv0
I0430 22:40:33.601336  2851 net.cpp:86] Creating Layer conv0
I0430 22:40:33.601344  2851 net.cpp:408] conv0 <- data
I0430 22:40:33.601364  2851 net.cpp:382] conv0 -> conv0
I0430 22:40:33.890741  2851 net.cpp:124] Setting up conv0
I0430 22:40:33.890775  2851 net.cpp:131] Top shape: 111 8 34 34 (1026528)
I0430 22:40:33.890782  2851 net.cpp:139] Memory required for data: 5470524
I0430 22:40:33.890806  2851 layer_factory.hpp:77] Creating layer Sigmoid0
I0430 22:40:33.890825  2851 net.cpp:86] Creating Layer Sigmoid0
I0430 22:40:33.890832  2851 net.cpp:408] Sigmoid0 <- conv0
I0430 22:40:33.890843  2851 net.cpp:382] Sigmoid0 -> Sigmoid0
I0430 22:40:33.891058  2851 net.cpp:124] Setting up Sigmoid0
I0430 22:40:33.891072  2851 net.cpp:131] Top shape: 111 8 34 34 (1026528)
I0430 22:40:33.891078  2851 net.cpp:139] Memory required for data: 9576636
I0430 22:40:33.891085  2851 layer_factory.hpp:77] Creating layer pool0
I0430 22:40:33.891096  2851 net.cpp:86] Creating Layer pool0
I0430 22:40:33.891103  2851 net.cpp:408] pool0 <- Sigmoid0
I0430 22:40:33.891113  2851 net.cpp:382] pool0 -> pool0
I0430 22:40:33.891981  2851 net.cpp:124] Setting up pool0
I0430 22:40:33.891999  2851 net.cpp:131] Top shape: 111 8 17 17 (256632)
I0430 22:40:33.892006  2851 net.cpp:139] Memory required for data: 10603164
I0430 22:40:33.892014  2851 layer_factory.hpp:77] Creating layer ip1
I0430 22:40:33.892030  2851 net.cpp:86] Creating Layer ip1
I0430 22:40:33.892036  2851 net.cpp:408] ip1 <- pool0
I0430 22:40:33.892046  2851 net.cpp:382] ip1 -> ip1
I0430 22:40:33.893867  2851 net.cpp:124] Setting up ip1
I0430 22:40:33.893884  2851 net.cpp:131] Top shape: 111 10 (1110)
I0430 22:40:33.893892  2851 net.cpp:139] Memory required for data: 10607604
I0430 22:40:33.893906  2851 layer_factory.hpp:77] Creating layer relu1
I0430 22:40:33.893918  2851 net.cpp:86] Creating Layer relu1
I0430 22:40:33.893924  2851 net.cpp:408] relu1 <- ip1
I0430 22:40:33.893934  2851 net.cpp:369] relu1 -> ip1 (in-place)
I0430 22:40:33.894120  2851 net.cpp:124] Setting up relu1
I0430 22:40:33.894132  2851 net.cpp:131] Top shape: 111 10 (1110)
I0430 22:40:33.894139  2851 net.cpp:139] Memory required for data: 10612044
I0430 22:40:33.894145  2851 layer_factory.hpp:77] Creating layer ip2
I0430 22:40:33.894157  2851 net.cpp:86] Creating Layer ip2
I0430 22:40:33.894163  2851 net.cpp:408] ip2 <- ip1
I0430 22:40:33.894173  2851 net.cpp:382] ip2 -> ip2
I0430 22:40:33.895259  2851 net.cpp:124] Setting up ip2
I0430 22:40:33.895275  2851 net.cpp:131] Top shape: 111 80 (8880)
I0430 22:40:33.895282  2851 net.cpp:139] Memory required for data: 10647564
I0430 22:40:33.895298  2851 layer_factory.hpp:77] Creating layer relu2
I0430 22:40:33.895308  2851 net.cpp:86] Creating Layer relu2
I0430 22:40:33.895314  2851 net.cpp:408] relu2 <- ip2
I0430 22:40:33.895323  2851 net.cpp:369] relu2 -> ip2 (in-place)
I0430 22:40:33.895521  2851 net.cpp:124] Setting up relu2
I0430 22:40:33.895534  2851 net.cpp:131] Top shape: 111 80 (8880)
I0430 22:40:33.895539  2851 net.cpp:139] Memory required for data: 10683084
I0430 22:40:33.895546  2851 layer_factory.hpp:77] Creating layer ip3
I0430 22:40:33.895560  2851 net.cpp:86] Creating Layer ip3
I0430 22:40:33.895566  2851 net.cpp:408] ip3 <- ip2
I0430 22:40:33.895576  2851 net.cpp:382] ip3 -> ip3
I0430 22:40:33.895748  2851 net.cpp:124] Setting up ip3
I0430 22:40:33.895759  2851 net.cpp:131] Top shape: 111 20 (2220)
I0430 22:40:33.895766  2851 net.cpp:139] Memory required for data: 10691964
I0430 22:40:33.895776  2851 layer_factory.hpp:77] Creating layer relu3
I0430 22:40:33.895784  2851 net.cpp:86] Creating Layer relu3
I0430 22:40:33.895792  2851 net.cpp:408] relu3 <- ip3
I0430 22:40:33.895799  2851 net.cpp:369] relu3 -> ip3 (in-place)
I0430 22:40:33.895987  2851 net.cpp:124] Setting up relu3
I0430 22:40:33.895999  2851 net.cpp:131] Top shape: 111 20 (2220)
I0430 22:40:33.896005  2851 net.cpp:139] Memory required for data: 10700844
I0430 22:40:33.896011  2851 layer_factory.hpp:77] Creating layer ip4
I0430 22:40:33.896046  2851 net.cpp:86] Creating Layer ip4
I0430 22:40:33.896054  2851 net.cpp:408] ip4 <- ip3
I0430 22:40:33.896064  2851 net.cpp:382] ip4 -> ip4
I0430 22:40:33.896186  2851 net.cpp:124] Setting up ip4
I0430 22:40:33.896198  2851 net.cpp:131] Top shape: 111 10 (1110)
I0430 22:40:33.896203  2851 net.cpp:139] Memory required for data: 10705284
I0430 22:40:33.896219  2851 layer_factory.hpp:77] Creating layer loss
I0430 22:40:33.896227  2851 net.cpp:86] Creating Layer loss
I0430 22:40:33.896234  2851 net.cpp:408] loss <- ip4
I0430 22:40:33.896241  2851 net.cpp:408] loss <- label
I0430 22:40:33.896251  2851 net.cpp:382] loss -> loss
I0430 22:40:33.896277  2851 layer_factory.hpp:77] Creating layer loss
…
I0430 22:40:33.897727  2851 solver.cpp:173] Creating test net (#0) specified by net file: ECE595/cifar/train_test/var_everything/cifar_train_test_201.prototxt
I0430 22:40:33.897768  2851 net.cpp:296] The NetState phase (1) differed from the phase (0) specified by a rule in layer cifar
I0430 22:40:33.897879  2851 net.cpp:53] Initializing net from parameters: 
name: "CIFAR"
state {
  phase: TEST
}
layer {
  name: "cifar"
  type: "Data"
  top: "data"
  top: "label"
  include {
    phase: TEST
  }
  transform_param {
    mean_file: "examples/cifar10/mean.binaryproto"
  }
  data_param {
    source: "examples/cifar10/cifar10_test_lmdb"
    batch_size: 1000
    backend: LMDB
  }
}
layer {
  name: "conv0"
  type: "Convolution"
  bottom: "data"
  top: "conv0"
  param {
    lr_mult: 1
  }
  param {
    lr_mult: 2
  }
  convolution_param {
    num_output: 8
    pad: 2
    kernel_size: 3
    stride: 1
    weight_filler {
      type: "gaussian"
      std: 0.01
    }
    bias_filler {
      type: "constant"
    }
  }
}
layer {
  name: "Sigmoid0"
  type: "Sigmoid"
  bottom: "conv0"
  top: "Sigmoid0"
}
layer {
  name: "pool0"
  type: "Pooling"
  bottom: "Sigmoid0"
  top: "pool0"
  pooling_param {
    pool: AVE
    kernel_size: 3
    stride: 2
  }
}
layer {
  name: "ip1"
  type: "InnerProduct"
  bottom: "pool0"
  top: "ip1"
  param {
    lr_mult: 1
  }
  param {
    lr_mult: 2
  }
  inner_product_param {
    num_output: 10
    weight_filler {
      type: "gaussian"
      std: 0.01
    }
    bias_filler {
      type: "constant"
    }
  }
}
layer {
  name: "relu1"
  type: "ReLU"
  bottom: "ip1"
  top: "ip1"
}
layer {
  name: "ip2"
  type: "InnerProduct"
  bottom: "ip1"
  top: "ip2"
  param {
    lr_mult: 1
  }
  param {
    lr_mult: 2
  }
  inner_product_param {
    num_output: 80
    weight_filler {
      type: "gaussian"
      std: 0.01
    }
    bias_filler {
      type: "constant"
    }
  }
}
layer {
  name: "relu2"
  type: "ReLU"
  bottom: "ip2"
  top: "ip2"
}
layer {
  name: "ip3"
  type: "InnerProduct"
  bottom: "ip2"
  top: "ip3"
  param {
    lr_mult: 1
  }
  param {
    lr_mult: 2
  }
  inner_product_param {
    num_output: 20
    weight_filler {
      type: "gaussian"
      std: 0.01
    }
    bias_filler {
      type: "constant"
    }
  }
}
layer {
  name: "relu3"
  type: "ReLU"
  bottom: "ip3"
  top: "ip3"
}
layer {
  name: "ip4"
  type: "InnerProduct"
  bottom: "ip3"
  top: "ip4"
  param {
    lr_mult: 1
  }
  param {
    lr_mult: 2
  }
  inner_product_param {
    num_output: 10
    weight_filler {
      type: "gaussian"
      std: 0.01
    }
    bias_filler {
      type: "constant"
    }
  }
}
layer {
  name: "accuracy"
  type: "Accuracy"
  bottom: "ip4"
  bottom: "label"
  top: "accuracy"
  include {
    phase: TEST
  }
}
layer {
  name: "loss"
  type: "SoftmaxWithLoss"
  bottom: "ip4"
  bottom: "label"
  top: "loss"
}
I0430 22:40:33.898005  2851 layer_factory.hpp:77] Creating layer cifar
I0430 22:40:33.898073  2851 db_lmdb.cpp:35] Opened lmdb examples/cifar10/cifar10_test_lmdb
I0430 22:40:33.898092  2851 net.cpp:86] Creating Layer cifar
I0430 22:40:33.898100  2851 net.cpp:382] cifar -> data
I0430 22:40:33.898113  2851 net.cpp:382] cifar -> label
I0430 22:40:33.898124  2851 data_transformer.cpp:25] Loading mean file from: examples/cifar10/mean.binaryproto
I0430 22:40:33.898347  2851 data_layer.cpp:45] output data size: 1000,3,32,32
I0430 22:40:33.922432  2851 net.cpp:124] Setting up cifar
I0430 22:40:33.922461  2851 net.cpp:131] Top shape: 1000 3 32 32 (3072000)
I0430 22:40:33.922471  2851 net.cpp:131] Top shape: 1000 (1000)
I0430 22:40:33.922475  2851 net.cpp:139] Memory required for data: 12292000
I0430 22:40:33.922483  2851 layer_factory.hpp:77] Creating layer label_cifar_1_split
I0430 22:40:33.922505  2851 net.cpp:86] Creating Layer label_cifar_1_split
I0430 22:40:33.922513  2851 net.cpp:408] label_cifar_1_split <- label
I0430 22:40:33.922523  2851 net.cpp:382] label_cifar_1_split -> label_cifar_1_split_0
I0430 22:40:33.922535  2851 net.cpp:382] label_cifar_1_split -> label_cifar_1_split_1
I0430 22:40:33.922629  2851 net.cpp:124] Setting up label_cifar_1_split
I0430 22:40:33.922638  2851 net.cpp:131] Top shape: 1000 (1000)
I0430 22:40:33.922646  2851 net.cpp:131] Top shape: 1000 (1000)
I0430 22:40:33.922650  2851 net.cpp:139] Memory required for data: 12300000
I0430 22:40:33.922657  2851 layer_factory.hpp:77] Creating layer conv0
I0430 22:40:33.922674  2851 net.cpp:86] Creating Layer conv0
I0430 22:40:33.922683  2851 net.cpp:408] conv0 <- data
I0430 22:40:33.922691  2851 net.cpp:382] conv0 -> conv0
I0430 22:40:33.924302  2851 net.cpp:124] Setting up conv0
I0430 22:40:33.924319  2851 net.cpp:131] Top shape: 1000 8 34 34 (9248000)
I0430 22:40:33.924325  2851 net.cpp:139] Memory required for data: 49292000
I0430 22:40:33.924341  2851 layer_factory.hpp:77] Creating layer Sigmoid0
I0430 22:40:33.924352  2851 net.cpp:86] Creating Layer Sigmoid0
I0430 22:40:33.924363  2851 net.cpp:408] Sigmoid0 <- conv0
I0430 22:40:33.924372  2851 net.cpp:382] Sigmoid0 -> Sigmoid0
I0430 22:40:33.924559  2851 net.cpp:124] Setting up Sigmoid0
I0430 22:40:33.924571  2851 net.cpp:131] Top shape: 1000 8 34 34 (9248000)
I0430 22:40:33.924576  2851 net.cpp:139] Memory required for data: 86284000
I0430 22:40:33.924582  2851 layer_factory.hpp:77] Creating layer pool0
I0430 22:40:33.924594  2851 net.cpp:86] Creating Layer pool0
I0430 22:40:33.924600  2851 net.cpp:408] pool0 <- Sigmoid0
I0430 22:40:33.924608  2851 net.cpp:382] pool0 -> pool0
I0430 22:40:33.924870  2851 net.cpp:124] Setting up pool0
I0430 22:40:33.924881  2851 net.cpp:131] Top shape: 1000 8 17 17 (2312000)
I0430 22:40:33.924886  2851 net.cpp:139] Memory required for data: 95532000
I0430 22:40:33.924892  2851 layer_factory.hpp:77] Creating layer ip1
I0430 22:40:33.924904  2851 net.cpp:86] Creating Layer ip1
I0430 22:40:33.924911  2851 net.cpp:408] ip1 <- pool0
I0430 22:40:33.924919  2851 net.cpp:382] ip1 -> ip1
I0430 22:40:33.926599  2851 net.cpp:124] Setting up ip1
I0430 22:40:33.926609  2851 net.cpp:131] Top shape: 1000 10 (10000)
I0430 22:40:33.926616  2851 net.cpp:139] Memory required for data: 95572000
I0430 22:40:33.926651  2851 layer_factory.hpp:77] Creating layer relu1
I0430 22:40:33.926662  2851 net.cpp:86] Creating Layer relu1
I0430 22:40:33.926668  2851 net.cpp:408] relu1 <- ip1
I0430 22:40:33.926676  2851 net.cpp:369] relu1 -> ip1 (in-place)
I0430 22:40:33.926849  2851 net.cpp:124] Setting up relu1
I0430 22:40:33.926859  2851 net.cpp:131] Top shape: 1000 10 (10000)
I0430 22:40:33.926865  2851 net.cpp:139] Memory required for data: 95612000
I0430 22:40:33.926870  2851 layer_factory.hpp:77] Creating layer ip2
I0430 22:40:33.926882  2851 net.cpp:86] Creating Layer ip2
I0430 22:40:33.926887  2851 net.cpp:408] ip2 <- ip1
I0430 22:40:33.926908  2851 net.cpp:382] ip2 -> ip2
I0430 22:40:33.927050  2851 net.cpp:124] Setting up ip2
I0430 22:40:33.927060  2851 net.cpp:131] Top shape: 1000 80 (80000)
I0430 22:40:33.927065  2851 net.cpp:139] Memory required for data: 95932000
I0430 22:40:33.927078  2851 layer_factory.hpp:77] Creating layer relu2
I0430 22:40:33.927095  2851 net.cpp:86] Creating Layer relu2
I0430 22:40:33.927103  2851 net.cpp:408] relu2 <- ip2
I0430 22:40:33.927110  2851 net.cpp:369] relu2 -> ip2 (in-place)
I0430 22:40:33.927891  2851 net.cpp:124] Setting up relu2
I0430 22:40:33.927906  2851 net.cpp:131] Top shape: 1000 80 (80000)
I0430 22:40:33.927911  2851 net.cpp:139] Memory required for data: 96252000
I0430 22:40:33.927917  2851 layer_factory.hpp:77] Creating layer ip3
I0430 22:40:33.927927  2851 net.cpp:86] Creating Layer ip3
I0430 22:40:33.927932  2851 net.cpp:408] ip3 <- ip2
I0430 22:40:33.927943  2851 net.cpp:382] ip3 -> ip3
I0430 22:40:33.928110  2851 net.cpp:124] Setting up ip3
I0430 22:40:33.928120  2851 net.cpp:131] Top shape: 1000 20 (20000)
I0430 22:40:33.928125  2851 net.cpp:139] Memory required for data: 96332000
I0430 22:40:33.928134  2851 layer_factory.hpp:77] Creating layer relu3
I0430 22:40:33.928143  2851 net.cpp:86] Creating Layer relu3
I0430 22:40:33.928149  2851 net.cpp:408] relu3 <- ip3
I0430 22:40:33.928158  2851 net.cpp:369] relu3 -> ip3 (in-place)
I0430 22:40:33.928331  2851 net.cpp:124] Setting up relu3
I0430 22:40:33.928341  2851 net.cpp:131] Top shape: 1000 20 (20000)
I0430 22:40:33.928347  2851 net.cpp:139] Memory required for data: 96412000
I0430 22:40:33.928352  2851 layer_factory.hpp:77] Creating layer ip4
I0430 22:40:33.928364  2851 net.cpp:86] Creating Layer ip4
I0430 22:40:33.928370  2851 net.cpp:408] ip4 <- ip3
I0430 22:40:33.928378  2851 net.cpp:382] ip4 -> ip4
I0430 22:40:33.928504  2851 net.cpp:124] Setting up ip4
I0430 22:40:33.928514  2851 net.cpp:131] Top shape: 1000 10 (10000)
I0430 22:40:33.928519  2851 net.cpp:139] Memory required for data: 96452000
I0430 22:40:33.928532  2851 layer_factory.hpp:77] Creating layer ip4_ip4_0_split
I0430 22:40:33.928542  2851 net.cpp:86] Creating Layer ip4_ip4_0_split
I0430 22:40:33.928547  2851 net.cpp:408] ip4_ip4_0_split <- ip4
I0430 22:40:33.928557  2851 net.cpp:382] ip4_ip4_0_split -> ip4_ip4_0_split_0
I0430 22:40:33.928568  2851 net.cpp:382] ip4_ip4_0_split -> ip4_ip4_0_split_1
I0430 22:40:33.928609  2851 net.cpp:124] Setting up ip4_ip4_0_split
I0430 22:40:33.928617  2851 net.cpp:131] Top shape: 1000 10 (10000)
I0430 22:40:33.928624  2851 net.cpp:131] Top shape: 1000 10 (10000)
I0430 22:40:33.928629  2851 net.cpp:139] Memory required for data: 96532000
I0430 22:40:33.928635  2851 layer_factory.hpp:77] Creating layer accuracy
I0430 22:40:33.928647  2851 net.cpp:86] Creating Layer accuracy
I0430 22:40:33.928652  2851 net.cpp:408] accuracy <- ip4_ip4_0_split_0
I0430 22:40:33.928658  2851 net.cpp:408] accuracy <- label_cifar_1_split_0
I0430 22:40:33.928668  2851 net.cpp:382] accuracy -> accuracy
…
