…
I0430 20:09:03.788064 28095 net.cpp:296] The NetState phase (0) differed from the phase (1) specified by a rule in layer cifar
I0430 20:09:03.788079 28095 net.cpp:296] The NetState phase (0) differed from the phase (1) specified by a rule in layer accuracy
I0430 20:09:03.788164 28095 net.cpp:53] Initializing net from parameters: 
name: "CIFAR"
state {
  phase: TRAIN
  level: 0
  stage: ""
}
layer {
  name: "cifar"
  type: "Data"
  top: "data"
  top: "label"
  include {
    phase: TRAIN
  }
  transform_param {
    mean_file: "examples/cifar10/mean.binaryproto"
  }
  data_param {
    source: "examples/cifar10/cifar10_train_lmdb"
    batch_size: 111
    backend: LMDB
  }
}
layer {
  name: "ip1"
  type: "InnerProduct"
  bottom: "data"
  top: "ip1"
  param {
    lr_mult: 1
  }
  param {
    lr_mult: 2
  }
  inner_product_param {
    num_output: 80
    weight_filler {
      type: "gaussian"
      std: 0.01
    }
    bias_filler {
      type: "constant"
    }
  }
}
layer {
  name: "relu1"
  type: "ReLU"
  bottom: "ip1"
  top: "ip1"
}
layer {
  name: "ip2"
  type: "InnerProduct"
  bottom: "ip1"
  top: "ip2"
  param {
    lr_mult: 1
  }
  param {
    lr_mult: 2
  }
  inner_product_param {
    num_output: 80
    weight_filler {
      type: "gaussian"
      std: 0.01
    }
    bias_filler {
      type: "constant"
    }
  }
}
layer {
  name: "relu2"
  type: "ReLU"
  bottom: "ip2"
  top: "ip2"
}
layer {
  name: "ip3"
  type: "InnerProduct"
  bottom: "ip2"
  top: "ip3"
  param {
    lr_mult: 1
  }
  param {
    lr_mult: 2
  }
  inner_product_param {
    num_output: 10
    weight_filler {
      type: "gaussian"
      std: 0.01
    }
    bias_filler {
      type: "constant"
    }
  }
}
layer {
  name: "relu3"
  type: "ReLU"
  bottom: "ip3"
  top: "ip3"
}
layer {
  name: "ip4"
  type: "InnerProduct"
  bottom: "ip3"
  top: "ip4"
  param {
    lr_mult: 1
  }
  param {
    lr_mult: 2
  }
  inner_product_param {
    num_output: 10
    weight_filler {
      type: "gaussian"
      std: 0.01
    }
    bias_filler {
      type: "constant"
    }
  }
}
layer {
  name: "loss"
  type: "SoftmaxWithLoss"
  bottom: "ip4"
  bottom: "label"
  top: "loss"
}
I0430 20:09:03.788234 28095 layer_factory.hpp:77] Creating layer cifar
I0430 20:09:03.788332 28095 db_lmdb.cpp:35] Opened lmdb examples/cifar10/cifar10_train_lmdb
I0430 20:09:03.788359 28095 net.cpp:86] Creating Layer cifar
I0430 20:09:03.788368 28095 net.cpp:382] cifar -> data
I0430 20:09:03.788391 28095 net.cpp:382] cifar -> label
I0430 20:09:03.788403 28095 data_transformer.cpp:25] Loading mean file from: examples/cifar10/mean.binaryproto
I0430 20:09:03.790534 28095 data_layer.cpp:45] output data size: 111,3,32,32
I0430 20:09:03.798477 28095 net.cpp:124] Setting up cifar
I0430 20:09:03.798509 28095 net.cpp:131] Top shape: 111 3 32 32 (340992)
I0430 20:09:03.798516 28095 net.cpp:131] Top shape: 111 (111)
I0430 20:09:03.798519 28095 net.cpp:139] Memory required for data: 1364412
I0430 20:09:03.798527 28095 layer_factory.hpp:77] Creating layer ip1
I0430 20:09:03.798538 28095 net.cpp:86] Creating Layer ip1
I0430 20:09:03.798544 28095 net.cpp:408] ip1 <- data
I0430 20:09:03.798563 28095 net.cpp:382] ip1 -> ip1
I0430 20:09:03.807814 28095 net.cpp:124] Setting up ip1
I0430 20:09:03.807831 28095 net.cpp:131] Top shape: 111 80 (8880)
I0430 20:09:03.807834 28095 net.cpp:139] Memory required for data: 1399932
I0430 20:09:03.807849 28095 layer_factory.hpp:77] Creating layer relu1
I0430 20:09:03.807858 28095 net.cpp:86] Creating Layer relu1
I0430 20:09:03.807878 28095 net.cpp:408] relu1 <- ip1
I0430 20:09:03.807888 28095 net.cpp:369] relu1 -> ip1 (in-place)
I0430 20:09:04.091557 28095 net.cpp:124] Setting up relu1
I0430 20:09:04.091585 28095 net.cpp:131] Top shape: 111 80 (8880)
I0430 20:09:04.091589 28095 net.cpp:139] Memory required for data: 1435452
I0430 20:09:04.091595 28095 layer_factory.hpp:77] Creating layer ip2
I0430 20:09:04.091609 28095 net.cpp:86] Creating Layer ip2
I0430 20:09:04.091612 28095 net.cpp:408] ip2 <- ip1
I0430 20:09:04.091620 28095 net.cpp:382] ip2 -> ip2
I0430 20:09:04.092802 28095 net.cpp:124] Setting up ip2
I0430 20:09:04.092820 28095 net.cpp:131] Top shape: 111 80 (8880)
I0430 20:09:04.092824 28095 net.cpp:139] Memory required for data: 1470972
I0430 20:09:04.092834 28095 layer_factory.hpp:77] Creating layer relu2
I0430 20:09:04.092842 28095 net.cpp:86] Creating Layer relu2
I0430 20:09:04.092846 28095 net.cpp:408] relu2 <- ip2
I0430 20:09:04.092850 28095 net.cpp:369] relu2 -> ip2 (in-place)
I0430 20:09:04.093575 28095 net.cpp:124] Setting up relu2
I0430 20:09:04.093586 28095 net.cpp:131] Top shape: 111 80 (8880)
I0430 20:09:04.093590 28095 net.cpp:139] Memory required for data: 1506492
I0430 20:09:04.093593 28095 layer_factory.hpp:77] Creating layer ip3
I0430 20:09:04.093600 28095 net.cpp:86] Creating Layer ip3
I0430 20:09:04.093603 28095 net.cpp:408] ip3 <- ip2
I0430 20:09:04.093610 28095 net.cpp:382] ip3 -> ip3
I0430 20:09:04.094555 28095 net.cpp:124] Setting up ip3
I0430 20:09:04.094568 28095 net.cpp:131] Top shape: 111 10 (1110)
I0430 20:09:04.094571 28095 net.cpp:139] Memory required for data: 1510932
I0430 20:09:04.094580 28095 layer_factory.hpp:77] Creating layer relu3
I0430 20:09:04.094585 28095 net.cpp:86] Creating Layer relu3
I0430 20:09:04.094589 28095 net.cpp:408] relu3 <- ip3
I0430 20:09:04.094594 28095 net.cpp:369] relu3 -> ip3 (in-place)
I0430 20:09:04.094748 28095 net.cpp:124] Setting up relu3
I0430 20:09:04.094755 28095 net.cpp:131] Top shape: 111 10 (1110)
I0430 20:09:04.094759 28095 net.cpp:139] Memory required for data: 1515372
I0430 20:09:04.094763 28095 layer_factory.hpp:77] Creating layer ip4
I0430 20:09:04.094769 28095 net.cpp:86] Creating Layer ip4
I0430 20:09:04.094772 28095 net.cpp:408] ip4 <- ip3
I0430 20:09:04.094776 28095 net.cpp:382] ip4 -> ip4
I0430 20:09:04.094871 28095 net.cpp:124] Setting up ip4
I0430 20:09:04.094877 28095 net.cpp:131] Top shape: 111 10 (1110)
I0430 20:09:04.094880 28095 net.cpp:139] Memory required for data: 1519812
I0430 20:09:04.094887 28095 layer_factory.hpp:77] Creating layer loss
I0430 20:09:04.094892 28095 net.cpp:86] Creating Layer loss
I0430 20:09:04.094895 28095 net.cpp:408] loss <- ip4
I0430 20:09:04.094899 28095 net.cpp:408] loss <- label
I0430 20:09:04.094904 28095 net.cpp:382] loss -> loss
I0430 20:09:04.094923 28095 layer_factory.hpp:77] Creating layer loss
…
I0430 20:09:04.095504 28095 solver.cpp:173] Creating test net (#0) specified by net file: ECE595/cifar/train_test/var_everything/cifar_train_test_120.prototxt
I0430 20:09:04.095543 28095 net.cpp:296] The NetState phase (1) differed from the phase (0) specified by a rule in layer cifar
I0430 20:09:04.095618 28095 net.cpp:53] Initializing net from parameters: 
name: "CIFAR"
state {
  phase: TEST
}
layer {
  name: "cifar"
  type: "Data"
  top: "data"
  top: "label"
  include {
    phase: TEST
  }
  transform_param {
    mean_file: "examples/cifar10/mean.binaryproto"
  }
  data_param {
    source: "examples/cifar10/cifar10_test_lmdb"
    batch_size: 1000
    backend: LMDB
  }
}
layer {
  name: "ip1"
  type: "InnerProduct"
  bottom: "data"
  top: "ip1"
  param {
    lr_mult: 1
  }
  param {
    lr_mult: 2
  }
  inner_product_param {
    num_output: 80
    weight_filler {
      type: "gaussian"
      std: 0.01
    }
    bias_filler {
      type: "constant"
    }
  }
}
layer {
  name: "relu1"
  type: "ReLU"
  bottom: "ip1"
  top: "ip1"
}
layer {
  name: "ip2"
  type: "InnerProduct"
  bottom: "ip1"
  top: "ip2"
  param {
    lr_mult: 1
  }
  param {
    lr_mult: 2
  }
  inner_product_param {
    num_output: 80
    weight_filler {
      type: "gaussian"
      std: 0.01
    }
    bias_filler {
      type: "constant"
    }
  }
}
layer {
  name: "relu2"
  type: "ReLU"
  bottom: "ip2"
  top: "ip2"
}
layer {
  name: "ip3"
  type: "InnerProduct"
  bottom: "ip2"
  top: "ip3"
  param {
    lr_mult: 1
  }
  param {
    lr_mult: 2
  }
  inner_product_param {
    num_output: 10
    weight_filler {
      type: "gaussian"
      std: 0.01
    }
    bias_filler {
      type: "constant"
    }
  }
}
layer {
  name: "relu3"
  type: "ReLU"
  bottom: "ip3"
  top: "ip3"
}
layer {
  name: "ip4"
  type: "InnerProduct"
  bottom: "ip3"
  top: "ip4"
  param {
    lr_mult: 1
  }
  param {
    lr_mult: 2
  }
  inner_product_param {
    num_output: 10
    weight_filler {
      type: "gaussian"
      std: 0.01
    }
    bias_filler {
      type: "constant"
    }
  }
}
layer {
  name: "accuracy"
  type: "Accuracy"
  bottom: "ip4"
  bottom: "label"
  top: "accuracy"
  include {
    phase: TEST
  }
}
layer {
  name: "loss"
  type: "SoftmaxWithLoss"
  bottom: "ip4"
  bottom: "label"
  top: "loss"
}
I0430 20:09:04.095676 28095 layer_factory.hpp:77] Creating layer cifar
I0430 20:09:04.095721 28095 db_lmdb.cpp:35] Opened lmdb examples/cifar10/cifar10_test_lmdb
I0430 20:09:04.095732 28095 net.cpp:86] Creating Layer cifar
I0430 20:09:04.095737 28095 net.cpp:382] cifar -> data
I0430 20:09:04.095746 28095 net.cpp:382] cifar -> label
I0430 20:09:04.095752 28095 data_transformer.cpp:25] Loading mean file from: examples/cifar10/mean.binaryproto
I0430 20:09:04.095892 28095 data_layer.cpp:45] output data size: 1000,3,32,32
I0430 20:09:04.117569 28095 net.cpp:124] Setting up cifar
I0430 20:09:04.117593 28095 net.cpp:131] Top shape: 1000 3 32 32 (3072000)
I0430 20:09:04.117599 28095 net.cpp:131] Top shape: 1000 (1000)
I0430 20:09:04.117601 28095 net.cpp:139] Memory required for data: 12292000
I0430 20:09:04.117607 28095 layer_factory.hpp:77] Creating layer label_cifar_1_split
I0430 20:09:04.117638 28095 net.cpp:86] Creating Layer label_cifar_1_split
I0430 20:09:04.117660 28095 net.cpp:408] label_cifar_1_split <- label
I0430 20:09:04.117666 28095 net.cpp:382] label_cifar_1_split -> label_cifar_1_split_0
I0430 20:09:04.117674 28095 net.cpp:382] label_cifar_1_split -> label_cifar_1_split_1
I0430 20:09:04.117770 28095 net.cpp:124] Setting up label_cifar_1_split
I0430 20:09:04.117779 28095 net.cpp:131] Top shape: 1000 (1000)
I0430 20:09:04.117782 28095 net.cpp:131] Top shape: 1000 (1000)
I0430 20:09:04.117785 28095 net.cpp:139] Memory required for data: 12300000
I0430 20:09:04.117787 28095 layer_factory.hpp:77] Creating layer ip1
I0430 20:09:04.117797 28095 net.cpp:86] Creating Layer ip1
I0430 20:09:04.117800 28095 net.cpp:408] ip1 <- data
I0430 20:09:04.117805 28095 net.cpp:382] ip1 -> ip1
I0430 20:09:04.124444 28095 net.cpp:124] Setting up ip1
I0430 20:09:04.124454 28095 net.cpp:131] Top shape: 1000 80 (80000)
I0430 20:09:04.124474 28095 net.cpp:139] Memory required for data: 12620000
I0430 20:09:04.124500 28095 layer_factory.hpp:77] Creating layer relu1
I0430 20:09:04.124522 28095 net.cpp:86] Creating Layer relu1
I0430 20:09:04.124526 28095 net.cpp:408] relu1 <- ip1
I0430 20:09:04.124531 28095 net.cpp:369] relu1 -> ip1 (in-place)
I0430 20:09:04.125313 28095 net.cpp:124] Setting up relu1
I0430 20:09:04.125325 28095 net.cpp:131] Top shape: 1000 80 (80000)
I0430 20:09:04.125330 28095 net.cpp:139] Memory required for data: 12940000
I0430 20:09:04.125334 28095 layer_factory.hpp:77] Creating layer ip2
I0430 20:09:04.125341 28095 net.cpp:86] Creating Layer ip2
I0430 20:09:04.125344 28095 net.cpp:408] ip2 <- ip1
I0430 20:09:04.125350 28095 net.cpp:382] ip2 -> ip2
I0430 20:09:04.125656 28095 net.cpp:124] Setting up ip2
I0430 20:09:04.125664 28095 net.cpp:131] Top shape: 1000 80 (80000)
I0430 20:09:04.125669 28095 net.cpp:139] Memory required for data: 13260000
I0430 20:09:04.125675 28095 layer_factory.hpp:77] Creating layer relu2
I0430 20:09:04.125680 28095 net.cpp:86] Creating Layer relu2
I0430 20:09:04.125684 28095 net.cpp:408] relu2 <- ip2
I0430 20:09:04.125689 28095 net.cpp:369] relu2 -> ip2 (in-place)
I0430 20:09:04.125854 28095 net.cpp:124] Setting up relu2
I0430 20:09:04.125862 28095 net.cpp:131] Top shape: 1000 80 (80000)
I0430 20:09:04.125865 28095 net.cpp:139] Memory required for data: 13580000
I0430 20:09:04.125869 28095 layer_factory.hpp:77] Creating layer ip3
I0430 20:09:04.125874 28095 net.cpp:86] Creating Layer ip3
I0430 20:09:04.125877 28095 net.cpp:408] ip3 <- ip2
I0430 20:09:04.125882 28095 net.cpp:382] ip3 -> ip3
I0430 20:09:04.125999 28095 net.cpp:124] Setting up ip3
I0430 20:09:04.126006 28095 net.cpp:131] Top shape: 1000 10 (10000)
I0430 20:09:04.126009 28095 net.cpp:139] Memory required for data: 13620000
I0430 20:09:04.126016 28095 layer_factory.hpp:77] Creating layer relu3
I0430 20:09:04.126021 28095 net.cpp:86] Creating Layer relu3
I0430 20:09:04.126024 28095 net.cpp:408] relu3 <- ip3
I0430 20:09:04.126029 28095 net.cpp:369] relu3 -> ip3 (in-place)
I0430 20:09:04.126174 28095 net.cpp:124] Setting up relu3
I0430 20:09:04.126183 28095 net.cpp:131] Top shape: 1000 10 (10000)
I0430 20:09:04.126186 28095 net.cpp:139] Memory required for data: 13660000
I0430 20:09:04.126189 28095 layer_factory.hpp:77] Creating layer ip4
I0430 20:09:04.126196 28095 net.cpp:86] Creating Layer ip4
I0430 20:09:04.126199 28095 net.cpp:408] ip4 <- ip3
I0430 20:09:04.126205 28095 net.cpp:382] ip4 -> ip4
I0430 20:09:04.126305 28095 net.cpp:124] Setting up ip4
I0430 20:09:04.126312 28095 net.cpp:131] Top shape: 1000 10 (10000)
I0430 20:09:04.126314 28095 net.cpp:139] Memory required for data: 13700000
I0430 20:09:04.126319 28095 layer_factory.hpp:77] Creating layer ip4_ip4_0_split
I0430 20:09:04.126324 28095 net.cpp:86] Creating Layer ip4_ip4_0_split
I0430 20:09:04.126328 28095 net.cpp:408] ip4_ip4_0_split <- ip4
I0430 20:09:04.126332 28095 net.cpp:382] ip4_ip4_0_split -> ip4_ip4_0_split_0
I0430 20:09:04.126338 28095 net.cpp:382] ip4_ip4_0_split -> ip4_ip4_0_split_1
I0430 20:09:04.126369 28095 net.cpp:124] Setting up ip4_ip4_0_split
I0430 20:09:04.126374 28095 net.cpp:131] Top shape: 1000 10 (10000)
I0430 20:09:04.126379 28095 net.cpp:131] Top shape: 1000 10 (10000)
I0430 20:09:04.126381 28095 net.cpp:139] Memory required for data: 13780000
I0430 20:09:04.126384 28095 layer_factory.hpp:77] Creating layer accuracy
I0430 20:09:04.126390 28095 net.cpp:86] Creating Layer accuracy
I0430 20:09:04.126394 28095 net.cpp:408] accuracy <- ip4_ip4_0_split_0
I0430 20:09:04.126397 28095 net.cpp:408] accuracy <- label_cifar_1_split_0
I0430 20:09:04.126401 28095 net.cpp:382] accuracy -> accuracy
…
