…
I0501 06:38:34.196174  1271 net.cpp:296] The NetState phase (0) differed from the phase (1) specified by a rule in layer cifar
I0501 06:38:34.196192  1271 net.cpp:296] The NetState phase (0) differed from the phase (1) specified by a rule in layer accuracy
I0501 06:38:34.196292  1271 net.cpp:53] Initializing net from parameters: 
name: "CIFAR"
state {
  phase: TRAIN
  level: 0
  stage: ""
}
layer {
  name: "cifar"
  type: "Data"
  top: "data"
  top: "label"
  include {
    phase: TRAIN
  }
  transform_param {
    mean_file: "examples/cifar10/mean.binaryproto"
  }
  data_param {
    source: "examples/cifar10/cifar10_train_lmdb"
    batch_size: 111
    backend: LMDB
  }
}
layer {
  name: "conv0"
  type: "Convolution"
  bottom: "data"
  top: "conv0"
  param {
    lr_mult: 1
  }
  param {
    lr_mult: 2
  }
  convolution_param {
    num_output: 8
    pad: 2
    kernel_size: 5
    stride: 1
    weight_filler {
      type: "gaussian"
      std: 0.01
    }
    bias_filler {
      type: "constant"
    }
  }
}
layer {
  name: "Sigmoid0"
  type: "Sigmoid"
  bottom: "conv0"
  top: "Sigmoid0"
}
layer {
  name: "pool0"
  type: "Pooling"
  bottom: "Sigmoid0"
  top: "pool0"
  pooling_param {
    pool: AVE
    kernel_size: 3
    stride: 2
  }
}
layer {
  name: "ip1"
  type: "InnerProduct"
  bottom: "pool0"
  top: "ip1"
  param {
    lr_mult: 1
  }
  param {
    lr_mult: 2
  }
  inner_product_param {
    num_output: 160
    weight_filler {
      type: "gaussian"
      std: 0.01
    }
    bias_filler {
      type: "constant"
    }
  }
}
layer {
  name: "relu1"
  type: "ReLU"
  bottom: "ip1"
  top: "ip1"
}
layer {
  name: "ip2"
  type: "InnerProduct"
  bottom: "ip1"
  top: "ip2"
  param {
    lr_mult: 1
  }
  param {
    lr_mult: 2
  }
  inner_product_param {
    num_output: 80
    weight_filler {
      type: "gaussian"
      std: 0.01
    }
    bias_filler {
      type: "constant"
    }
  }
}
layer {
  name: "relu2"
  type: "ReLU"
  bottom: "ip2"
  top: "ip2"
}
layer {
  name: "ip3"
  type: "InnerProduct"
  bottom: "ip2"
  top: "ip3"
  param {
    lr_mult: 1
  }
  param {
    lr_mult: 2
  }
  inner_product_param {
    num_output: 40
    weight_filler {
      type: "gaussian"
      std: 0.01
    }
    bias_filler {
      type: "constant"
    }
  }
}
layer {
  name: "relu3"
  type: "ReLU"
  bottom: "ip3"
  top: "ip3"
}
layer {
  name: "ip4"
  type: "InnerProduct"
  bottom: "ip3"
  top: "ip4"
  param {
    lr_mult: 1
  }
  param {
    lr_mult: 2
  }
  inner_product_param {
    num_output: 10
    weight_filler {
      type: "gaussian"
      std: 0.01
    }
    bias_filler {
      type: "constant"
    }
  }
}
layer {
  name: "loss"
  type: "SoftmaxWithLoss"
  bottom: "ip4"
  bottom: "label"
  top: "loss"
}
I0501 06:38:34.196365  1271 layer_factory.hpp:77] Creating layer cifar
I0501 06:38:34.196465  1271 db_lmdb.cpp:35] Opened lmdb examples/cifar10/cifar10_train_lmdb
I0501 06:38:34.196496  1271 net.cpp:86] Creating Layer cifar
I0501 06:38:34.196506  1271 net.cpp:382] cifar -> data
I0501 06:38:34.196528  1271 net.cpp:382] cifar -> label
I0501 06:38:34.196542  1271 data_transformer.cpp:25] Loading mean file from: examples/cifar10/mean.binaryproto
I0501 06:38:34.198698  1271 data_layer.cpp:45] output data size: 111,3,32,32
I0501 06:38:34.206650  1271 net.cpp:124] Setting up cifar
I0501 06:38:34.206668  1271 net.cpp:131] Top shape: 111 3 32 32 (340992)
I0501 06:38:34.206676  1271 net.cpp:131] Top shape: 111 (111)
I0501 06:38:34.206679  1271 net.cpp:139] Memory required for data: 1364412
I0501 06:38:34.206702  1271 layer_factory.hpp:77] Creating layer conv0
I0501 06:38:34.206722  1271 net.cpp:86] Creating Layer conv0
I0501 06:38:34.206727  1271 net.cpp:408] conv0 <- data
I0501 06:38:34.206739  1271 net.cpp:382] conv0 -> conv0
I0501 06:38:34.497599  1271 net.cpp:124] Setting up conv0
I0501 06:38:34.497632  1271 net.cpp:131] Top shape: 111 8 32 32 (909312)
I0501 06:38:34.497637  1271 net.cpp:139] Memory required for data: 5001660
I0501 06:38:34.497654  1271 layer_factory.hpp:77] Creating layer Sigmoid0
I0501 06:38:34.497669  1271 net.cpp:86] Creating Layer Sigmoid0
I0501 06:38:34.497674  1271 net.cpp:408] Sigmoid0 <- conv0
I0501 06:38:34.497681  1271 net.cpp:382] Sigmoid0 -> Sigmoid0
I0501 06:38:34.497895  1271 net.cpp:124] Setting up Sigmoid0
I0501 06:38:34.497906  1271 net.cpp:131] Top shape: 111 8 32 32 (909312)
I0501 06:38:34.497910  1271 net.cpp:139] Memory required for data: 8638908
I0501 06:38:34.497915  1271 layer_factory.hpp:77] Creating layer pool0
I0501 06:38:34.497922  1271 net.cpp:86] Creating Layer pool0
I0501 06:38:34.497926  1271 net.cpp:408] pool0 <- Sigmoid0
I0501 06:38:34.497932  1271 net.cpp:382] pool0 -> pool0
I0501 06:38:34.498816  1271 net.cpp:124] Setting up pool0
I0501 06:38:34.498833  1271 net.cpp:131] Top shape: 111 8 16 16 (227328)
I0501 06:38:34.498837  1271 net.cpp:139] Memory required for data: 9548220
I0501 06:38:34.498842  1271 layer_factory.hpp:77] Creating layer ip1
I0501 06:38:34.498852  1271 net.cpp:86] Creating Layer ip1
I0501 06:38:34.498857  1271 net.cpp:408] ip1 <- pool0
I0501 06:38:34.498862  1271 net.cpp:382] ip1 -> ip1
I0501 06:38:34.510778  1271 net.cpp:124] Setting up ip1
I0501 06:38:34.510793  1271 net.cpp:131] Top shape: 111 160 (17760)
I0501 06:38:34.510798  1271 net.cpp:139] Memory required for data: 9619260
I0501 06:38:34.510808  1271 layer_factory.hpp:77] Creating layer relu1
I0501 06:38:34.510815  1271 net.cpp:86] Creating Layer relu1
I0501 06:38:34.510819  1271 net.cpp:408] relu1 <- ip1
I0501 06:38:34.510826  1271 net.cpp:369] relu1 -> ip1 (in-place)
I0501 06:38:34.511019  1271 net.cpp:124] Setting up relu1
I0501 06:38:34.511030  1271 net.cpp:131] Top shape: 111 160 (17760)
I0501 06:38:34.511034  1271 net.cpp:139] Memory required for data: 9690300
I0501 06:38:34.511039  1271 layer_factory.hpp:77] Creating layer ip2
I0501 06:38:34.511045  1271 net.cpp:86] Creating Layer ip2
I0501 06:38:34.511049  1271 net.cpp:408] ip2 <- ip1
I0501 06:38:34.511055  1271 net.cpp:382] ip2 -> ip2
I0501 06:38:34.512572  1271 net.cpp:124] Setting up ip2
I0501 06:38:34.512586  1271 net.cpp:131] Top shape: 111 80 (8880)
I0501 06:38:34.512591  1271 net.cpp:139] Memory required for data: 9725820
I0501 06:38:34.512601  1271 layer_factory.hpp:77] Creating layer relu2
I0501 06:38:34.512609  1271 net.cpp:86] Creating Layer relu2
I0501 06:38:34.512612  1271 net.cpp:408] relu2 <- ip2
I0501 06:38:34.512617  1271 net.cpp:369] relu2 -> ip2 (in-place)
I0501 06:38:34.512828  1271 net.cpp:124] Setting up relu2
I0501 06:38:34.512840  1271 net.cpp:131] Top shape: 111 80 (8880)
I0501 06:38:34.512845  1271 net.cpp:139] Memory required for data: 9761340
I0501 06:38:34.512847  1271 layer_factory.hpp:77] Creating layer ip3
I0501 06:38:34.512857  1271 net.cpp:86] Creating Layer ip3
I0501 06:38:34.512861  1271 net.cpp:408] ip3 <- ip2
I0501 06:38:34.512867  1271 net.cpp:382] ip3 -> ip3
I0501 06:38:34.513085  1271 net.cpp:124] Setting up ip3
I0501 06:38:34.513094  1271 net.cpp:131] Top shape: 111 40 (4440)
I0501 06:38:34.513098  1271 net.cpp:139] Memory required for data: 9779100
I0501 06:38:34.513105  1271 layer_factory.hpp:77] Creating layer relu3
I0501 06:38:34.513110  1271 net.cpp:86] Creating Layer relu3
I0501 06:38:34.513114  1271 net.cpp:408] relu3 <- ip3
I0501 06:38:34.513119  1271 net.cpp:369] relu3 -> ip3 (in-place)
I0501 06:38:34.513305  1271 net.cpp:124] Setting up relu3
I0501 06:38:34.513315  1271 net.cpp:131] Top shape: 111 40 (4440)
I0501 06:38:34.513319  1271 net.cpp:139] Memory required for data: 9796860
I0501 06:38:34.513324  1271 layer_factory.hpp:77] Creating layer ip4
I0501 06:38:34.513346  1271 net.cpp:86] Creating Layer ip4
I0501 06:38:34.513351  1271 net.cpp:408] ip4 <- ip3
I0501 06:38:34.513356  1271 net.cpp:382] ip4 -> ip4
I0501 06:38:34.513484  1271 net.cpp:124] Setting up ip4
I0501 06:38:34.513494  1271 net.cpp:131] Top shape: 111 10 (1110)
I0501 06:38:34.513497  1271 net.cpp:139] Memory required for data: 9801300
I0501 06:38:34.513505  1271 layer_factory.hpp:77] Creating layer loss
I0501 06:38:34.513512  1271 net.cpp:86] Creating Layer loss
I0501 06:38:34.513516  1271 net.cpp:408] loss <- ip4
I0501 06:38:34.513520  1271 net.cpp:408] loss <- label
I0501 06:38:34.513527  1271 net.cpp:382] loss -> loss
I0501 06:38:34.513543  1271 layer_factory.hpp:77] Creating layer loss
…
I0501 06:38:34.514999  1271 solver.cpp:173] Creating test net (#0) specified by net file: ECE595/cifar/train_test/var_everything/cifar_train_test_457.prototxt
I0501 06:38:34.515033  1271 net.cpp:296] The NetState phase (1) differed from the phase (0) specified by a rule in layer cifar
I0501 06:38:34.515149  1271 net.cpp:53] Initializing net from parameters: 
name: "CIFAR"
state {
  phase: TEST
}
layer {
  name: "cifar"
  type: "Data"
  top: "data"
  top: "label"
  include {
    phase: TEST
  }
  transform_param {
    mean_file: "examples/cifar10/mean.binaryproto"
  }
  data_param {
    source: "examples/cifar10/cifar10_test_lmdb"
    batch_size: 1000
    backend: LMDB
  }
}
layer {
  name: "conv0"
  type: "Convolution"
  bottom: "data"
  top: "conv0"
  param {
    lr_mult: 1
  }
  param {
    lr_mult: 2
  }
  convolution_param {
    num_output: 8
    pad: 2
    kernel_size: 5
    stride: 1
    weight_filler {
      type: "gaussian"
      std: 0.01
    }
    bias_filler {
      type: "constant"
    }
  }
}
layer {
  name: "Sigmoid0"
  type: "Sigmoid"
  bottom: "conv0"
  top: "Sigmoid0"
}
layer {
  name: "pool0"
  type: "Pooling"
  bottom: "Sigmoid0"
  top: "pool0"
  pooling_param {
    pool: AVE
    kernel_size: 3
    stride: 2
  }
}
layer {
  name: "ip1"
  type: "InnerProduct"
  bottom: "pool0"
  top: "ip1"
  param {
    lr_mult: 1
  }
  param {
    lr_mult: 2
  }
  inner_product_param {
    num_output: 160
    weight_filler {
      type: "gaussian"
      std: 0.01
    }
    bias_filler {
      type: "constant"
    }
  }
}
layer {
  name: "relu1"
  type: "ReLU"
  bottom: "ip1"
  top: "ip1"
}
layer {
  name: "ip2"
  type: "InnerProduct"
  bottom: "ip1"
  top: "ip2"
  param {
    lr_mult: 1
  }
  param {
    lr_mult: 2
  }
  inner_product_param {
    num_output: 80
    weight_filler {
      type: "gaussian"
      std: 0.01
    }
    bias_filler {
      type: "constant"
    }
  }
}
layer {
  name: "relu2"
  type: "ReLU"
  bottom: "ip2"
  top: "ip2"
}
layer {
  name: "ip3"
  type: "InnerProduct"
  bottom: "ip2"
  top: "ip3"
  param {
    lr_mult: 1
  }
  param {
    lr_mult: 2
  }
  inner_product_param {
    num_output: 40
    weight_filler {
      type: "gaussian"
      std: 0.01
    }
    bias_filler {
      type: "constant"
    }
  }
}
layer {
  name: "relu3"
  type: "ReLU"
  bottom: "ip3"
  top: "ip3"
}
layer {
  name: "ip4"
  type: "InnerProduct"
  bottom: "ip3"
  top: "ip4"
  param {
    lr_mult: 1
  }
  param {
    lr_mult: 2
  }
  inner_product_param {
    num_output: 10
    weight_filler {
      type: "gaussian"
      std: 0.01
    }
    bias_filler {
      type: "constant"
    }
  }
}
layer {
  name: "accuracy"
  type: "Accuracy"
  bottom: "ip4"
  bottom: "label"
  top: "accuracy"
  include {
    phase: TEST
  }
}
layer {
  name: "loss"
  type: "SoftmaxWithLoss"
  bottom: "ip4"
  bottom: "label"
  top: "loss"
}
I0501 06:38:34.515250  1271 layer_factory.hpp:77] Creating layer cifar
I0501 06:38:34.515305  1271 db_lmdb.cpp:35] Opened lmdb examples/cifar10/cifar10_test_lmdb
I0501 06:38:34.515319  1271 net.cpp:86] Creating Layer cifar
I0501 06:38:34.515326  1271 net.cpp:382] cifar -> data
I0501 06:38:34.515336  1271 net.cpp:382] cifar -> label
I0501 06:38:34.515343  1271 data_transformer.cpp:25] Loading mean file from: examples/cifar10/mean.binaryproto
I0501 06:38:34.515521  1271 data_layer.cpp:45] output data size: 1000,3,32,32
I0501 06:38:34.541311  1271 net.cpp:124] Setting up cifar
I0501 06:38:34.541342  1271 net.cpp:131] Top shape: 1000 3 32 32 (3072000)
I0501 06:38:34.541348  1271 net.cpp:131] Top shape: 1000 (1000)
I0501 06:38:34.541352  1271 net.cpp:139] Memory required for data: 12292000
I0501 06:38:34.541357  1271 layer_factory.hpp:77] Creating layer label_cifar_1_split
I0501 06:38:34.541370  1271 net.cpp:86] Creating Layer label_cifar_1_split
I0501 06:38:34.541375  1271 net.cpp:408] label_cifar_1_split <- label
I0501 06:38:34.541384  1271 net.cpp:382] label_cifar_1_split -> label_cifar_1_split_0
I0501 06:38:34.541394  1271 net.cpp:382] label_cifar_1_split -> label_cifar_1_split_1
I0501 06:38:34.541457  1271 net.cpp:124] Setting up label_cifar_1_split
I0501 06:38:34.541466  1271 net.cpp:131] Top shape: 1000 (1000)
I0501 06:38:34.541471  1271 net.cpp:131] Top shape: 1000 (1000)
I0501 06:38:34.541474  1271 net.cpp:139] Memory required for data: 12300000
I0501 06:38:34.541478  1271 layer_factory.hpp:77] Creating layer conv0
I0501 06:38:34.541493  1271 net.cpp:86] Creating Layer conv0
I0501 06:38:34.541497  1271 net.cpp:408] conv0 <- data
I0501 06:38:34.541503  1271 net.cpp:382] conv0 -> conv0
I0501 06:38:34.544332  1271 net.cpp:124] Setting up conv0
I0501 06:38:34.544350  1271 net.cpp:131] Top shape: 1000 8 32 32 (8192000)
I0501 06:38:34.544355  1271 net.cpp:139] Memory required for data: 45068000
I0501 06:38:34.544368  1271 layer_factory.hpp:77] Creating layer Sigmoid0
I0501 06:38:34.544375  1271 net.cpp:86] Creating Layer Sigmoid0
I0501 06:38:34.544379  1271 net.cpp:408] Sigmoid0 <- conv0
I0501 06:38:34.544387  1271 net.cpp:382] Sigmoid0 -> Sigmoid0
I0501 06:38:34.544618  1271 net.cpp:124] Setting up Sigmoid0
I0501 06:38:34.544631  1271 net.cpp:131] Top shape: 1000 8 32 32 (8192000)
I0501 06:38:34.544636  1271 net.cpp:139] Memory required for data: 77836000
I0501 06:38:34.544639  1271 layer_factory.hpp:77] Creating layer pool0
I0501 06:38:34.544648  1271 net.cpp:86] Creating Layer pool0
I0501 06:38:34.544652  1271 net.cpp:408] pool0 <- Sigmoid0
I0501 06:38:34.544657  1271 net.cpp:382] pool0 -> pool0
I0501 06:38:34.544903  1271 net.cpp:124] Setting up pool0
I0501 06:38:34.544914  1271 net.cpp:131] Top shape: 1000 8 16 16 (2048000)
I0501 06:38:34.544919  1271 net.cpp:139] Memory required for data: 86028000
I0501 06:38:34.544924  1271 layer_factory.hpp:77] Creating layer ip1
I0501 06:38:34.544931  1271 net.cpp:86] Creating Layer ip1
I0501 06:38:34.544936  1271 net.cpp:408] ip1 <- pool0
I0501 06:38:34.544942  1271 net.cpp:382] ip1 -> ip1
I0501 06:38:34.556864  1271 net.cpp:124] Setting up ip1
I0501 06:38:34.556879  1271 net.cpp:131] Top shape: 1000 160 (160000)
I0501 06:38:34.556885  1271 net.cpp:139] Memory required for data: 86668000
I0501 06:38:34.556910  1271 layer_factory.hpp:77] Creating layer relu1
I0501 06:38:34.556921  1271 net.cpp:86] Creating Layer relu1
I0501 06:38:34.556924  1271 net.cpp:408] relu1 <- ip1
I0501 06:38:34.556931  1271 net.cpp:369] relu1 -> ip1 (in-place)
I0501 06:38:34.557150  1271 net.cpp:124] Setting up relu1
I0501 06:38:34.557162  1271 net.cpp:131] Top shape: 1000 160 (160000)
I0501 06:38:34.557165  1271 net.cpp:139] Memory required for data: 87308000
I0501 06:38:34.557169  1271 layer_factory.hpp:77] Creating layer ip2
I0501 06:38:34.557178  1271 net.cpp:86] Creating Layer ip2
I0501 06:38:34.557183  1271 net.cpp:408] ip2 <- ip1
I0501 06:38:34.557189  1271 net.cpp:382] ip2 -> ip2
I0501 06:38:34.557750  1271 net.cpp:124] Setting up ip2
I0501 06:38:34.557760  1271 net.cpp:131] Top shape: 1000 80 (80000)
I0501 06:38:34.557763  1271 net.cpp:139] Memory required for data: 87628000
I0501 06:38:34.557772  1271 layer_factory.hpp:77] Creating layer relu2
I0501 06:38:34.557781  1271 net.cpp:86] Creating Layer relu2
I0501 06:38:34.557785  1271 net.cpp:408] relu2 <- ip2
I0501 06:38:34.557790  1271 net.cpp:369] relu2 -> ip2 (in-place)
I0501 06:38:34.558686  1271 net.cpp:124] Setting up relu2
I0501 06:38:34.558701  1271 net.cpp:131] Top shape: 1000 80 (80000)
I0501 06:38:34.558706  1271 net.cpp:139] Memory required for data: 87948000
I0501 06:38:34.558709  1271 layer_factory.hpp:77] Creating layer ip3
I0501 06:38:34.558719  1271 net.cpp:86] Creating Layer ip3
I0501 06:38:34.558723  1271 net.cpp:408] ip3 <- ip2
I0501 06:38:34.558730  1271 net.cpp:382] ip3 -> ip3
I0501 06:38:34.558972  1271 net.cpp:124] Setting up ip3
I0501 06:38:34.558981  1271 net.cpp:131] Top shape: 1000 40 (40000)
I0501 06:38:34.558985  1271 net.cpp:139] Memory required for data: 88108000
I0501 06:38:34.558991  1271 layer_factory.hpp:77] Creating layer relu3
I0501 06:38:34.558998  1271 net.cpp:86] Creating Layer relu3
I0501 06:38:34.559002  1271 net.cpp:408] relu3 <- ip3
I0501 06:38:34.559007  1271 net.cpp:369] relu3 -> ip3 (in-place)
I0501 06:38:34.559204  1271 net.cpp:124] Setting up relu3
I0501 06:38:34.559214  1271 net.cpp:131] Top shape: 1000 40 (40000)
I0501 06:38:34.559218  1271 net.cpp:139] Memory required for data: 88268000
I0501 06:38:34.559222  1271 layer_factory.hpp:77] Creating layer ip4
I0501 06:38:34.559229  1271 net.cpp:86] Creating Layer ip4
I0501 06:38:34.559233  1271 net.cpp:408] ip4 <- ip3
I0501 06:38:34.559240  1271 net.cpp:382] ip4 -> ip4
I0501 06:38:34.559383  1271 net.cpp:124] Setting up ip4
I0501 06:38:34.559392  1271 net.cpp:131] Top shape: 1000 10 (10000)
I0501 06:38:34.559396  1271 net.cpp:139] Memory required for data: 88308000
I0501 06:38:34.559406  1271 layer_factory.hpp:77] Creating layer ip4_ip4_0_split
I0501 06:38:34.559412  1271 net.cpp:86] Creating Layer ip4_ip4_0_split
I0501 06:38:34.559415  1271 net.cpp:408] ip4_ip4_0_split <- ip4
I0501 06:38:34.559422  1271 net.cpp:382] ip4_ip4_0_split -> ip4_ip4_0_split_0
I0501 06:38:34.559428  1271 net.cpp:382] ip4_ip4_0_split -> ip4_ip4_0_split_1
I0501 06:38:34.559465  1271 net.cpp:124] Setting up ip4_ip4_0_split
I0501 06:38:34.559474  1271 net.cpp:131] Top shape: 1000 10 (10000)
I0501 06:38:34.559479  1271 net.cpp:131] Top shape: 1000 10 (10000)
I0501 06:38:34.559483  1271 net.cpp:139] Memory required for data: 88388000
I0501 06:38:34.559486  1271 layer_factory.hpp:77] Creating layer accuracy
I0501 06:38:34.559494  1271 net.cpp:86] Creating Layer accuracy
I0501 06:38:34.559497  1271 net.cpp:408] accuracy <- ip4_ip4_0_split_0
I0501 06:38:34.559501  1271 net.cpp:408] accuracy <- label_cifar_1_split_0
I0501 06:38:34.559507  1271 net.cpp:382] accuracy -> accuracy
…
