…
I0501 01:53:57.750134 12701 net.cpp:296] The NetState phase (0) differed from the phase (1) specified by a rule in layer cifar
I0501 01:53:57.750149 12701 net.cpp:296] The NetState phase (0) differed from the phase (1) specified by a rule in layer accuracy
I0501 01:53:57.750226 12701 net.cpp:53] Initializing net from parameters: 
name: "CIFAR"
state {
  phase: TRAIN
  level: 0
  stage: ""
}
layer {
  name: "cifar"
  type: "Data"
  top: "data"
  top: "label"
  include {
    phase: TRAIN
  }
  transform_param {
    mean_file: "examples/cifar10/mean.binaryproto"
  }
  data_param {
    source: "examples/cifar10/cifar10_train_lmdb"
    batch_size: 111
    backend: LMDB
  }
}
layer {
  name: "conv0"
  type: "Convolution"
  bottom: "data"
  top: "conv0"
  param {
    lr_mult: 1
  }
  param {
    lr_mult: 2
  }
  convolution_param {
    num_output: 8
    pad: 2
    kernel_size: 3
    stride: 1
    weight_filler {
      type: "gaussian"
      std: 0.01
    }
    bias_filler {
      type: "constant"
    }
  }
}
layer {
  name: "Sigmoid0"
  type: "Sigmoid"
  bottom: "conv0"
  top: "Sigmoid0"
}
layer {
  name: "pool0"
  type: "Pooling"
  bottom: "Sigmoid0"
  top: "pool0"
  pooling_param {
    pool: AVE
    kernel_size: 3
    stride: 2
  }
}
layer {
  name: "ip1"
  type: "InnerProduct"
  bottom: "pool0"
  top: "ip1"
  param {
    lr_mult: 1
  }
  param {
    lr_mult: 2
  }
  inner_product_param {
    num_output: 160
    weight_filler {
      type: "gaussian"
      std: 0.01
    }
    bias_filler {
      type: "constant"
    }
  }
}
layer {
  name: "relu1"
  type: "ReLU"
  bottom: "ip1"
  top: "ip1"
}
layer {
  name: "ip2"
  type: "InnerProduct"
  bottom: "ip1"
  top: "ip2"
  param {
    lr_mult: 1
  }
  param {
    lr_mult: 2
  }
  inner_product_param {
    num_output: 80
    weight_filler {
      type: "gaussian"
      std: 0.01
    }
    bias_filler {
      type: "constant"
    }
  }
}
layer {
  name: "relu2"
  type: "ReLU"
  bottom: "ip2"
  top: "ip2"
}
layer {
  name: "ip3"
  type: "InnerProduct"
  bottom: "ip2"
  top: "ip3"
  param {
    lr_mult: 1
  }
  param {
    lr_mult: 2
  }
  inner_product_param {
    num_output: 160
    weight_filler {
      type: "gaussian"
      std: 0.01
    }
    bias_filler {
      type: "constant"
    }
  }
}
layer {
  name: "relu3"
  type: "ReLU"
  bottom: "ip3"
  top: "ip3"
}
layer {
  name: "ip4"
  type: "InnerProduct"
  bottom: "ip3"
  top: "ip4"
  param {
    lr_mult: 1
  }
  param {
    lr_mult: 2
  }
  inner_product_param {
    num_output: 10
    weight_filler {
      type: "gaussian"
      std: 0.01
    }
    bias_filler {
      type: "constant"
    }
  }
}
layer {
  name: "loss"
  type: "SoftmaxWithLoss"
  bottom: "ip4"
  bottom: "label"
  top: "loss"
}
I0501 01:53:57.750284 12701 layer_factory.hpp:77] Creating layer cifar
I0501 01:53:57.750365 12701 db_lmdb.cpp:35] Opened lmdb examples/cifar10/cifar10_train_lmdb
I0501 01:53:57.750385 12701 net.cpp:86] Creating Layer cifar
I0501 01:53:57.750391 12701 net.cpp:382] cifar -> data
I0501 01:53:57.750411 12701 net.cpp:382] cifar -> label
I0501 01:53:57.750419 12701 data_transformer.cpp:25] Loading mean file from: examples/cifar10/mean.binaryproto
I0501 01:53:57.752182 12701 data_layer.cpp:45] output data size: 111,3,32,32
I0501 01:53:57.758882 12701 net.cpp:124] Setting up cifar
I0501 01:53:57.758913 12701 net.cpp:131] Top shape: 111 3 32 32 (340992)
I0501 01:53:57.758919 12701 net.cpp:131] Top shape: 111 (111)
I0501 01:53:57.758922 12701 net.cpp:139] Memory required for data: 1364412
I0501 01:53:57.758940 12701 layer_factory.hpp:77] Creating layer conv0
I0501 01:53:57.758955 12701 net.cpp:86] Creating Layer conv0
I0501 01:53:57.758960 12701 net.cpp:408] conv0 <- data
I0501 01:53:57.758970 12701 net.cpp:382] conv0 -> conv0
I0501 01:53:57.999800 12701 net.cpp:124] Setting up conv0
I0501 01:53:57.999842 12701 net.cpp:131] Top shape: 111 8 34 34 (1026528)
I0501 01:53:57.999847 12701 net.cpp:139] Memory required for data: 5470524
I0501 01:53:57.999862 12701 layer_factory.hpp:77] Creating layer Sigmoid0
I0501 01:53:57.999873 12701 net.cpp:86] Creating Layer Sigmoid0
I0501 01:53:57.999878 12701 net.cpp:408] Sigmoid0 <- conv0
I0501 01:53:57.999883 12701 net.cpp:382] Sigmoid0 -> Sigmoid0
I0501 01:53:58.000056 12701 net.cpp:124] Setting up Sigmoid0
I0501 01:53:58.000066 12701 net.cpp:131] Top shape: 111 8 34 34 (1026528)
I0501 01:53:58.000069 12701 net.cpp:139] Memory required for data: 9576636
I0501 01:53:58.000072 12701 layer_factory.hpp:77] Creating layer pool0
I0501 01:53:58.000094 12701 net.cpp:86] Creating Layer pool0
I0501 01:53:58.000097 12701 net.cpp:408] pool0 <- Sigmoid0
I0501 01:53:58.000102 12701 net.cpp:382] pool0 -> pool0
I0501 01:53:58.000859 12701 net.cpp:124] Setting up pool0
I0501 01:53:58.000887 12701 net.cpp:131] Top shape: 111 8 17 17 (256632)
I0501 01:53:58.000891 12701 net.cpp:139] Memory required for data: 10603164
I0501 01:53:58.000895 12701 layer_factory.hpp:77] Creating layer ip1
I0501 01:53:58.000905 12701 net.cpp:86] Creating Layer ip1
I0501 01:53:58.000907 12701 net.cpp:408] ip1 <- pool0
I0501 01:53:58.000913 12701 net.cpp:382] ip1 -> ip1
I0501 01:53:58.011639 12701 net.cpp:124] Setting up ip1
I0501 01:53:58.011651 12701 net.cpp:131] Top shape: 111 160 (17760)
I0501 01:53:58.011670 12701 net.cpp:139] Memory required for data: 10674204
I0501 01:53:58.011679 12701 layer_factory.hpp:77] Creating layer relu1
I0501 01:53:58.011685 12701 net.cpp:86] Creating Layer relu1
I0501 01:53:58.011689 12701 net.cpp:408] relu1 <- ip1
I0501 01:53:58.011693 12701 net.cpp:369] relu1 -> ip1 (in-place)
I0501 01:53:58.011844 12701 net.cpp:124] Setting up relu1
I0501 01:53:58.011853 12701 net.cpp:131] Top shape: 111 160 (17760)
I0501 01:53:58.011857 12701 net.cpp:139] Memory required for data: 10745244
I0501 01:53:58.011859 12701 layer_factory.hpp:77] Creating layer ip2
I0501 01:53:58.011865 12701 net.cpp:86] Creating Layer ip2
I0501 01:53:58.011868 12701 net.cpp:408] ip2 <- ip1
I0501 01:53:58.011873 12701 net.cpp:382] ip2 -> ip2
I0501 01:53:58.013257 12701 net.cpp:124] Setting up ip2
I0501 01:53:58.013285 12701 net.cpp:131] Top shape: 111 80 (8880)
I0501 01:53:58.013289 12701 net.cpp:139] Memory required for data: 10780764
I0501 01:53:58.013298 12701 layer_factory.hpp:77] Creating layer relu2
I0501 01:53:58.013303 12701 net.cpp:86] Creating Layer relu2
I0501 01:53:58.013308 12701 net.cpp:408] relu2 <- ip2
I0501 01:53:58.013311 12701 net.cpp:369] relu2 -> ip2 (in-place)
I0501 01:53:58.013475 12701 net.cpp:124] Setting up relu2
I0501 01:53:58.013484 12701 net.cpp:131] Top shape: 111 80 (8880)
I0501 01:53:58.013487 12701 net.cpp:139] Memory required for data: 10816284
I0501 01:53:58.013491 12701 layer_factory.hpp:77] Creating layer ip3
I0501 01:53:58.013499 12701 net.cpp:86] Creating Layer ip3
I0501 01:53:58.013502 12701 net.cpp:408] ip3 <- ip2
I0501 01:53:58.013507 12701 net.cpp:382] ip3 -> ip3
I0501 01:53:58.013945 12701 net.cpp:124] Setting up ip3
I0501 01:53:58.013952 12701 net.cpp:131] Top shape: 111 160 (17760)
I0501 01:53:58.013970 12701 net.cpp:139] Memory required for data: 10887324
I0501 01:53:58.013975 12701 layer_factory.hpp:77] Creating layer relu3
I0501 01:53:58.013979 12701 net.cpp:86] Creating Layer relu3
I0501 01:53:58.013983 12701 net.cpp:408] relu3 <- ip3
I0501 01:53:58.013986 12701 net.cpp:369] relu3 -> ip3 (in-place)
I0501 01:53:58.014132 12701 net.cpp:124] Setting up relu3
I0501 01:53:58.014139 12701 net.cpp:131] Top shape: 111 160 (17760)
I0501 01:53:58.014142 12701 net.cpp:139] Memory required for data: 10958364
I0501 01:53:58.014145 12701 layer_factory.hpp:77] Creating layer ip4
I0501 01:53:58.014165 12701 net.cpp:86] Creating Layer ip4
I0501 01:53:58.014168 12701 net.cpp:408] ip4 <- ip3
I0501 01:53:58.014173 12701 net.cpp:382] ip4 -> ip4
I0501 01:53:58.014307 12701 net.cpp:124] Setting up ip4
I0501 01:53:58.014314 12701 net.cpp:131] Top shape: 111 10 (1110)
I0501 01:53:58.014333 12701 net.cpp:139] Memory required for data: 10962804
I0501 01:53:58.014340 12701 layer_factory.hpp:77] Creating layer loss
I0501 01:53:58.014346 12701 net.cpp:86] Creating Layer loss
I0501 01:53:58.014349 12701 net.cpp:408] loss <- ip4
I0501 01:53:58.014353 12701 net.cpp:408] loss <- label
I0501 01:53:58.014358 12701 net.cpp:382] loss -> loss
I0501 01:53:58.014371 12701 layer_factory.hpp:77] Creating layer loss
…
I0501 01:53:58.015590 12701 solver.cpp:173] Creating test net (#0) specified by net file: ECE595/cifar/train_test/var_everything/cifar_train_test_304.prototxt
I0501 01:53:58.015619 12701 net.cpp:296] The NetState phase (1) differed from the phase (0) specified by a rule in layer cifar
I0501 01:53:58.015710 12701 net.cpp:53] Initializing net from parameters: 
name: "CIFAR"
state {
  phase: TEST
}
layer {
  name: "cifar"
  type: "Data"
  top: "data"
  top: "label"
  include {
    phase: TEST
  }
  transform_param {
    mean_file: "examples/cifar10/mean.binaryproto"
  }
  data_param {
    source: "examples/cifar10/cifar10_test_lmdb"
    batch_size: 1000
    backend: LMDB
  }
}
layer {
  name: "conv0"
  type: "Convolution"
  bottom: "data"
  top: "conv0"
  param {
    lr_mult: 1
  }
  param {
    lr_mult: 2
  }
  convolution_param {
    num_output: 8
    pad: 2
    kernel_size: 3
    stride: 1
    weight_filler {
      type: "gaussian"
      std: 0.01
    }
    bias_filler {
      type: "constant"
    }
  }
}
layer {
  name: "Sigmoid0"
  type: "Sigmoid"
  bottom: "conv0"
  top: "Sigmoid0"
}
layer {
  name: "pool0"
  type: "Pooling"
  bottom: "Sigmoid0"
  top: "pool0"
  pooling_param {
    pool: AVE
    kernel_size: 3
    stride: 2
  }
}
layer {
  name: "ip1"
  type: "InnerProduct"
  bottom: "pool0"
  top: "ip1"
  param {
    lr_mult: 1
  }
  param {
    lr_mult: 2
  }
  inner_product_param {
    num_output: 160
    weight_filler {
      type: "gaussian"
      std: 0.01
    }
    bias_filler {
      type: "constant"
    }
  }
}
layer {
  name: "relu1"
  type: "ReLU"
  bottom: "ip1"
  top: "ip1"
}
layer {
  name: "ip2"
  type: "InnerProduct"
  bottom: "ip1"
  top: "ip2"
  param {
    lr_mult: 1
  }
  param {
    lr_mult: 2
  }
  inner_product_param {
    num_output: 80
    weight_filler {
      type: "gaussian"
      std: 0.01
    }
    bias_filler {
      type: "constant"
    }
  }
}
layer {
  name: "relu2"
  type: "ReLU"
  bottom: "ip2"
  top: "ip2"
}
layer {
  name: "ip3"
  type: "InnerProduct"
  bottom: "ip2"
  top: "ip3"
  param {
    lr_mult: 1
  }
  param {
    lr_mult: 2
  }
  inner_product_param {
    num_output: 160
    weight_filler {
      type: "gaussian"
      std: 0.01
    }
    bias_filler {
      type: "constant"
    }
  }
}
layer {
  name: "relu3"
  type: "ReLU"
  bottom: "ip3"
  top: "ip3"
}
layer {
  name: "ip4"
  type: "InnerProduct"
  bottom: "ip3"
  top: "ip4"
  param {
    lr_mult: 1
  }
  param {
    lr_mult: 2
  }
  inner_product_param {
    num_output: 10
    weight_filler {
      type: "gaussian"
      std: 0.01
    }
    bias_filler {
      type: "constant"
    }
  }
}
layer {
  name: "accuracy"
  type: "Accuracy"
  bottom: "ip4"
  bottom: "label"
  top: "accuracy"
  include {
    phase: TEST
  }
}
layer {
  name: "loss"
  type: "SoftmaxWithLoss"
  bottom: "ip4"
  bottom: "label"
  top: "loss"
}
I0501 01:53:58.015799 12701 layer_factory.hpp:77] Creating layer cifar
I0501 01:53:58.015844 12701 db_lmdb.cpp:35] Opened lmdb examples/cifar10/cifar10_test_lmdb
I0501 01:53:58.015856 12701 net.cpp:86] Creating Layer cifar
I0501 01:53:58.015861 12701 net.cpp:382] cifar -> data
I0501 01:53:58.015867 12701 net.cpp:382] cifar -> label
I0501 01:53:58.015874 12701 data_transformer.cpp:25] Loading mean file from: examples/cifar10/mean.binaryproto
I0501 01:53:58.016010 12701 data_layer.cpp:45] output data size: 1000,3,32,32
I0501 01:53:58.040009 12701 net.cpp:124] Setting up cifar
I0501 01:53:58.040050 12701 net.cpp:131] Top shape: 1000 3 32 32 (3072000)
I0501 01:53:58.040055 12701 net.cpp:131] Top shape: 1000 (1000)
I0501 01:53:58.040058 12701 net.cpp:139] Memory required for data: 12292000
I0501 01:53:58.040066 12701 layer_factory.hpp:77] Creating layer label_cifar_1_split
I0501 01:53:58.040077 12701 net.cpp:86] Creating Layer label_cifar_1_split
I0501 01:53:58.040081 12701 net.cpp:408] label_cifar_1_split <- label
I0501 01:53:58.040086 12701 net.cpp:382] label_cifar_1_split -> label_cifar_1_split_0
I0501 01:53:58.040094 12701 net.cpp:382] label_cifar_1_split -> label_cifar_1_split_1
I0501 01:53:58.040200 12701 net.cpp:124] Setting up label_cifar_1_split
I0501 01:53:58.040207 12701 net.cpp:131] Top shape: 1000 (1000)
I0501 01:53:58.040211 12701 net.cpp:131] Top shape: 1000 (1000)
I0501 01:53:58.040215 12701 net.cpp:139] Memory required for data: 12300000
I0501 01:53:58.040217 12701 layer_factory.hpp:77] Creating layer conv0
I0501 01:53:58.040230 12701 net.cpp:86] Creating Layer conv0
I0501 01:53:58.040232 12701 net.cpp:408] conv0 <- data
I0501 01:53:58.040238 12701 net.cpp:382] conv0 -> conv0
I0501 01:53:58.041709 12701 net.cpp:124] Setting up conv0
I0501 01:53:58.041754 12701 net.cpp:131] Top shape: 1000 8 34 34 (9248000)
I0501 01:53:58.041757 12701 net.cpp:139] Memory required for data: 49292000
I0501 01:53:58.041767 12701 layer_factory.hpp:77] Creating layer Sigmoid0
I0501 01:53:58.041774 12701 net.cpp:86] Creating Layer Sigmoid0
I0501 01:53:58.041779 12701 net.cpp:408] Sigmoid0 <- conv0
I0501 01:53:58.041784 12701 net.cpp:382] Sigmoid0 -> Sigmoid0
I0501 01:53:58.042929 12701 net.cpp:124] Setting up Sigmoid0
I0501 01:53:58.042942 12701 net.cpp:131] Top shape: 1000 8 34 34 (9248000)
I0501 01:53:58.042960 12701 net.cpp:139] Memory required for data: 86284000
I0501 01:53:58.042963 12701 layer_factory.hpp:77] Creating layer pool0
I0501 01:53:58.042971 12701 net.cpp:86] Creating Layer pool0
I0501 01:53:58.042976 12701 net.cpp:408] pool0 <- Sigmoid0
I0501 01:53:58.042981 12701 net.cpp:382] pool0 -> pool0
I0501 01:53:58.043162 12701 net.cpp:124] Setting up pool0
I0501 01:53:58.043171 12701 net.cpp:131] Top shape: 1000 8 17 17 (2312000)
I0501 01:53:58.043174 12701 net.cpp:139] Memory required for data: 95532000
I0501 01:53:58.043177 12701 layer_factory.hpp:77] Creating layer ip1
I0501 01:53:58.043184 12701 net.cpp:86] Creating Layer ip1
I0501 01:53:58.043189 12701 net.cpp:408] ip1 <- pool0
I0501 01:53:58.043193 12701 net.cpp:382] ip1 -> ip1
I0501 01:53:58.053982 12701 net.cpp:124] Setting up ip1
I0501 01:53:58.054011 12701 net.cpp:131] Top shape: 1000 160 (160000)
I0501 01:53:58.054015 12701 net.cpp:139] Memory required for data: 96172000
I0501 01:53:58.054039 12701 layer_factory.hpp:77] Creating layer relu1
I0501 01:53:58.054045 12701 net.cpp:86] Creating Layer relu1
I0501 01:53:58.054049 12701 net.cpp:408] relu1 <- ip1
I0501 01:53:58.054054 12701 net.cpp:369] relu1 -> ip1 (in-place)
I0501 01:53:58.054234 12701 net.cpp:124] Setting up relu1
I0501 01:53:58.054241 12701 net.cpp:131] Top shape: 1000 160 (160000)
I0501 01:53:58.054245 12701 net.cpp:139] Memory required for data: 96812000
I0501 01:53:58.054249 12701 layer_factory.hpp:77] Creating layer ip2
I0501 01:53:58.054255 12701 net.cpp:86] Creating Layer ip2
I0501 01:53:58.054258 12701 net.cpp:408] ip2 <- ip1
I0501 01:53:58.054263 12701 net.cpp:382] ip2 -> ip2
I0501 01:53:58.054708 12701 net.cpp:124] Setting up ip2
I0501 01:53:58.054716 12701 net.cpp:131] Top shape: 1000 80 (80000)
I0501 01:53:58.054735 12701 net.cpp:139] Memory required for data: 97132000
I0501 01:53:58.054744 12701 layer_factory.hpp:77] Creating layer relu2
I0501 01:53:58.054749 12701 net.cpp:86] Creating Layer relu2
I0501 01:53:58.054752 12701 net.cpp:408] relu2 <- ip2
I0501 01:53:58.054756 12701 net.cpp:369] relu2 -> ip2 (in-place)
I0501 01:53:58.055516 12701 net.cpp:124] Setting up relu2
I0501 01:53:58.055528 12701 net.cpp:131] Top shape: 1000 80 (80000)
I0501 01:53:58.055548 12701 net.cpp:139] Memory required for data: 97452000
I0501 01:53:58.055552 12701 layer_factory.hpp:77] Creating layer ip3
I0501 01:53:58.055558 12701 net.cpp:86] Creating Layer ip3
I0501 01:53:58.055564 12701 net.cpp:408] ip3 <- ip2
I0501 01:53:58.055569 12701 net.cpp:382] ip3 -> ip3
I0501 01:53:58.056027 12701 net.cpp:124] Setting up ip3
I0501 01:53:58.056035 12701 net.cpp:131] Top shape: 1000 160 (160000)
I0501 01:53:58.056053 12701 net.cpp:139] Memory required for data: 98092000
I0501 01:53:58.056058 12701 layer_factory.hpp:77] Creating layer relu3
I0501 01:53:58.056063 12701 net.cpp:86] Creating Layer relu3
I0501 01:53:58.056067 12701 net.cpp:408] relu3 <- ip3
I0501 01:53:58.056071 12701 net.cpp:369] relu3 -> ip3 (in-place)
I0501 01:53:58.056222 12701 net.cpp:124] Setting up relu3
I0501 01:53:58.056229 12701 net.cpp:131] Top shape: 1000 160 (160000)
I0501 01:53:58.056233 12701 net.cpp:139] Memory required for data: 98732000
I0501 01:53:58.056236 12701 layer_factory.hpp:77] Creating layer ip4
I0501 01:53:58.056242 12701 net.cpp:86] Creating Layer ip4
I0501 01:53:58.056246 12701 net.cpp:408] ip4 <- ip3
I0501 01:53:58.056251 12701 net.cpp:382] ip4 -> ip4
I0501 01:53:58.056408 12701 net.cpp:124] Setting up ip4
I0501 01:53:58.056416 12701 net.cpp:131] Top shape: 1000 10 (10000)
I0501 01:53:58.056418 12701 net.cpp:139] Memory required for data: 98772000
I0501 01:53:58.056427 12701 layer_factory.hpp:77] Creating layer ip4_ip4_0_split
I0501 01:53:58.056432 12701 net.cpp:86] Creating Layer ip4_ip4_0_split
I0501 01:53:58.056435 12701 net.cpp:408] ip4_ip4_0_split <- ip4
I0501 01:53:58.056439 12701 net.cpp:382] ip4_ip4_0_split -> ip4_ip4_0_split_0
I0501 01:53:58.056444 12701 net.cpp:382] ip4_ip4_0_split -> ip4_ip4_0_split_1
I0501 01:53:58.056473 12701 net.cpp:124] Setting up ip4_ip4_0_split
I0501 01:53:58.056478 12701 net.cpp:131] Top shape: 1000 10 (10000)
I0501 01:53:58.056480 12701 net.cpp:131] Top shape: 1000 10 (10000)
I0501 01:53:58.056483 12701 net.cpp:139] Memory required for data: 98852000
I0501 01:53:58.056486 12701 layer_factory.hpp:77] Creating layer accuracy
I0501 01:53:58.056493 12701 net.cpp:86] Creating Layer accuracy
I0501 01:53:58.056495 12701 net.cpp:408] accuracy <- ip4_ip4_0_split_0
I0501 01:53:58.056499 12701 net.cpp:408] accuracy <- label_cifar_1_split_0
I0501 01:53:58.056504 12701 net.cpp:382] accuracy -> accuracy
…
