…
I0501 00:53:49.611644  8424 net.cpp:296] The NetState phase (0) differed from the phase (1) specified by a rule in layer cifar
I0501 00:53:49.611661  8424 net.cpp:296] The NetState phase (0) differed from the phase (1) specified by a rule in layer accuracy
I0501 00:53:49.611768  8424 net.cpp:53] Initializing net from parameters: 
name: "CIFAR"
state {
  phase: TRAIN
  level: 0
  stage: ""
}
layer {
  name: "cifar"
  type: "Data"
  top: "data"
  top: "label"
  include {
    phase: TRAIN
  }
  transform_param {
    mean_file: "examples/cifar10/mean.binaryproto"
  }
  data_param {
    source: "examples/cifar10/cifar10_train_lmdb"
    batch_size: 111
    backend: LMDB
  }
}
layer {
  name: "conv0"
  type: "Convolution"
  bottom: "data"
  top: "conv0"
  param {
    lr_mult: 1
  }
  param {
    lr_mult: 2
  }
  convolution_param {
    num_output: 8
    pad: 2
    kernel_size: 3
    stride: 1
    weight_filler {
      type: "gaussian"
      std: 0.01
    }
    bias_filler {
      type: "constant"
    }
  }
}
layer {
  name: "Sigmoid0"
  type: "Sigmoid"
  bottom: "conv0"
  top: "Sigmoid0"
}
layer {
  name: "pool0"
  type: "Pooling"
  bottom: "Sigmoid0"
  top: "pool0"
  pooling_param {
    pool: AVE
    kernel_size: 3
    stride: 2
  }
}
layer {
  name: "ip1"
  type: "InnerProduct"
  bottom: "pool0"
  top: "ip1"
  param {
    lr_mult: 1
  }
  param {
    lr_mult: 2
  }
  inner_product_param {
    num_output: 80
    weight_filler {
      type: "gaussian"
      std: 0.01
    }
    bias_filler {
      type: "constant"
    }
  }
}
layer {
  name: "relu1"
  type: "ReLU"
  bottom: "ip1"
  top: "ip1"
}
layer {
  name: "ip2"
  type: "InnerProduct"
  bottom: "ip1"
  top: "ip2"
  param {
    lr_mult: 1
  }
  param {
    lr_mult: 2
  }
  inner_product_param {
    num_output: 40
    weight_filler {
      type: "gaussian"
      std: 0.01
    }
    bias_filler {
      type: "constant"
    }
  }
}
layer {
  name: "relu2"
  type: "ReLU"
  bottom: "ip2"
  top: "ip2"
}
layer {
  name: "ip3"
  type: "InnerProduct"
  bottom: "ip2"
  top: "ip3"
  param {
    lr_mult: 1
  }
  param {
    lr_mult: 2
  }
  inner_product_param {
    num_output: 40
    weight_filler {
      type: "gaussian"
      std: 0.01
    }
    bias_filler {
      type: "constant"
    }
  }
}
layer {
  name: "relu3"
  type: "ReLU"
  bottom: "ip3"
  top: "ip3"
}
layer {
  name: "ip4"
  type: "InnerProduct"
  bottom: "ip3"
  top: "ip4"
  param {
    lr_mult: 1
  }
  param {
    lr_mult: 2
  }
  inner_product_param {
    num_output: 10
    weight_filler {
      type: "gaussian"
      std: 0.01
    }
    bias_filler {
      type: "constant"
    }
  }
}
layer {
  name: "loss"
  type: "SoftmaxWithLoss"
  bottom: "ip4"
  bottom: "label"
  top: "loss"
}
I0501 00:53:49.611846  8424 layer_factory.hpp:77] Creating layer cifar
I0501 00:53:49.611943  8424 db_lmdb.cpp:35] Opened lmdb examples/cifar10/cifar10_train_lmdb
I0501 00:53:49.611969  8424 net.cpp:86] Creating Layer cifar
I0501 00:53:49.611979  8424 net.cpp:382] cifar -> data
I0501 00:53:49.612004  8424 net.cpp:382] cifar -> label
I0501 00:53:49.612015  8424 data_transformer.cpp:25] Loading mean file from: examples/cifar10/mean.binaryproto
I0501 00:53:49.614131  8424 data_layer.cpp:45] output data size: 111,3,32,32
I0501 00:53:49.621989  8424 net.cpp:124] Setting up cifar
I0501 00:53:49.622009  8424 net.cpp:131] Top shape: 111 3 32 32 (340992)
I0501 00:53:49.622014  8424 net.cpp:131] Top shape: 111 (111)
I0501 00:53:49.622018  8424 net.cpp:139] Memory required for data: 1364412
I0501 00:53:49.622041  8424 layer_factory.hpp:77] Creating layer conv0
I0501 00:53:49.622063  8424 net.cpp:86] Creating Layer conv0
I0501 00:53:49.622069  8424 net.cpp:408] conv0 <- data
I0501 00:53:49.622082  8424 net.cpp:382] conv0 -> conv0
I0501 00:53:49.901950  8424 net.cpp:124] Setting up conv0
I0501 00:53:49.901979  8424 net.cpp:131] Top shape: 111 8 34 34 (1026528)
I0501 00:53:49.901983  8424 net.cpp:139] Memory required for data: 5470524
I0501 00:53:49.901999  8424 layer_factory.hpp:77] Creating layer Sigmoid0
I0501 00:53:49.902011  8424 net.cpp:86] Creating Layer Sigmoid0
I0501 00:53:49.902016  8424 net.cpp:408] Sigmoid0 <- conv0
I0501 00:53:49.902021  8424 net.cpp:382] Sigmoid0 -> Sigmoid0
I0501 00:53:49.902195  8424 net.cpp:124] Setting up Sigmoid0
I0501 00:53:49.902205  8424 net.cpp:131] Top shape: 111 8 34 34 (1026528)
I0501 00:53:49.902209  8424 net.cpp:139] Memory required for data: 9576636
I0501 00:53:49.902211  8424 layer_factory.hpp:77] Creating layer pool0
I0501 00:53:49.902218  8424 net.cpp:86] Creating Layer pool0
I0501 00:53:49.902222  8424 net.cpp:408] pool0 <- Sigmoid0
I0501 00:53:49.902226  8424 net.cpp:382] pool0 -> pool0
I0501 00:53:49.902976  8424 net.cpp:124] Setting up pool0
I0501 00:53:49.902989  8424 net.cpp:131] Top shape: 111 8 17 17 (256632)
I0501 00:53:49.902992  8424 net.cpp:139] Memory required for data: 10603164
I0501 00:53:49.902997  8424 layer_factory.hpp:77] Creating layer ip1
I0501 00:53:49.903005  8424 net.cpp:86] Creating Layer ip1
I0501 00:53:49.903009  8424 net.cpp:408] ip1 <- pool0
I0501 00:53:49.903014  8424 net.cpp:382] ip1 -> ip1
I0501 00:53:49.908793  8424 net.cpp:124] Setting up ip1
I0501 00:53:49.908824  8424 net.cpp:131] Top shape: 111 80 (8880)
I0501 00:53:49.908828  8424 net.cpp:139] Memory required for data: 10638684
I0501 00:53:49.908852  8424 layer_factory.hpp:77] Creating layer relu1
I0501 00:53:49.908859  8424 net.cpp:86] Creating Layer relu1
I0501 00:53:49.908862  8424 net.cpp:408] relu1 <- ip1
I0501 00:53:49.908882  8424 net.cpp:369] relu1 -> ip1 (in-place)
I0501 00:53:49.909037  8424 net.cpp:124] Setting up relu1
I0501 00:53:49.909046  8424 net.cpp:131] Top shape: 111 80 (8880)
I0501 00:53:49.909049  8424 net.cpp:139] Memory required for data: 10674204
I0501 00:53:49.909052  8424 layer_factory.hpp:77] Creating layer ip2
I0501 00:53:49.909060  8424 net.cpp:86] Creating Layer ip2
I0501 00:53:49.909062  8424 net.cpp:408] ip2 <- ip1
I0501 00:53:49.909067  8424 net.cpp:382] ip2 -> ip2
I0501 00:53:49.909262  8424 net.cpp:124] Setting up ip2
I0501 00:53:49.909270  8424 net.cpp:131] Top shape: 111 40 (4440)
I0501 00:53:49.909272  8424 net.cpp:139] Memory required for data: 10691964
I0501 00:53:49.909281  8424 layer_factory.hpp:77] Creating layer relu2
I0501 00:53:49.909286  8424 net.cpp:86] Creating Layer relu2
I0501 00:53:49.909288  8424 net.cpp:408] relu2 <- ip2
I0501 00:53:49.909292  8424 net.cpp:369] relu2 -> ip2 (in-place)
I0501 00:53:49.909456  8424 net.cpp:124] Setting up relu2
I0501 00:53:49.909463  8424 net.cpp:131] Top shape: 111 40 (4440)
I0501 00:53:49.909467  8424 net.cpp:139] Memory required for data: 10709724
I0501 00:53:49.909471  8424 layer_factory.hpp:77] Creating layer ip3
I0501 00:53:49.909478  8424 net.cpp:86] Creating Layer ip3
I0501 00:53:49.909482  8424 net.cpp:408] ip3 <- ip2
I0501 00:53:49.909487  8424 net.cpp:382] ip3 -> ip3
I0501 00:53:49.909615  8424 net.cpp:124] Setting up ip3
I0501 00:53:49.909637  8424 net.cpp:131] Top shape: 111 40 (4440)
I0501 00:53:49.909641  8424 net.cpp:139] Memory required for data: 10727484
I0501 00:53:49.909646  8424 layer_factory.hpp:77] Creating layer relu3
I0501 00:53:49.909649  8424 net.cpp:86] Creating Layer relu3
I0501 00:53:49.909652  8424 net.cpp:408] relu3 <- ip3
I0501 00:53:49.909657  8424 net.cpp:369] relu3 -> ip3 (in-place)
I0501 00:53:49.909792  8424 net.cpp:124] Setting up relu3
I0501 00:53:49.909801  8424 net.cpp:131] Top shape: 111 40 (4440)
I0501 00:53:49.909803  8424 net.cpp:139] Memory required for data: 10745244
I0501 00:53:49.909806  8424 layer_factory.hpp:77] Creating layer ip4
I0501 00:53:49.909826  8424 net.cpp:86] Creating Layer ip4
I0501 00:53:49.909829  8424 net.cpp:408] ip4 <- ip3
I0501 00:53:49.909834  8424 net.cpp:382] ip4 -> ip4
I0501 00:53:49.910754  8424 net.cpp:124] Setting up ip4
I0501 00:53:49.910766  8424 net.cpp:131] Top shape: 111 10 (1110)
I0501 00:53:49.910770  8424 net.cpp:139] Memory required for data: 10749684
I0501 00:53:49.910778  8424 layer_factory.hpp:77] Creating layer loss
I0501 00:53:49.910784  8424 net.cpp:86] Creating Layer loss
I0501 00:53:49.910787  8424 net.cpp:408] loss <- ip4
I0501 00:53:49.910791  8424 net.cpp:408] loss <- label
I0501 00:53:49.910796  8424 net.cpp:382] loss -> loss
I0501 00:53:49.910814  8424 layer_factory.hpp:77] Creating layer loss
…
I0501 00:53:49.912098  8424 solver.cpp:173] Creating test net (#0) specified by net file: ECE595/cifar/train_test/var_everything/cifar_train_test_272.prototxt
I0501 00:53:49.912138  8424 net.cpp:296] The NetState phase (1) differed from the phase (0) specified by a rule in layer cifar
I0501 00:53:49.912257  8424 net.cpp:53] Initializing net from parameters: 
name: "CIFAR"
state {
  phase: TEST
}
layer {
  name: "cifar"
  type: "Data"
  top: "data"
  top: "label"
  include {
    phase: TEST
  }
  transform_param {
    mean_file: "examples/cifar10/mean.binaryproto"
  }
  data_param {
    source: "examples/cifar10/cifar10_test_lmdb"
    batch_size: 1000
    backend: LMDB
  }
}
layer {
  name: "conv0"
  type: "Convolution"
  bottom: "data"
  top: "conv0"
  param {
    lr_mult: 1
  }
  param {
    lr_mult: 2
  }
  convolution_param {
    num_output: 8
    pad: 2
    kernel_size: 3
    stride: 1
    weight_filler {
      type: "gaussian"
      std: 0.01
    }
    bias_filler {
      type: "constant"
    }
  }
}
layer {
  name: "Sigmoid0"
  type: "Sigmoid"
  bottom: "conv0"
  top: "Sigmoid0"
}
layer {
  name: "pool0"
  type: "Pooling"
  bottom: "Sigmoid0"
  top: "pool0"
  pooling_param {
    pool: AVE
    kernel_size: 3
    stride: 2
  }
}
layer {
  name: "ip1"
  type: "InnerProduct"
  bottom: "pool0"
  top: "ip1"
  param {
    lr_mult: 1
  }
  param {
    lr_mult: 2
  }
  inner_product_param {
    num_output: 80
    weight_filler {
      type: "gaussian"
      std: 0.01
    }
    bias_filler {
      type: "constant"
    }
  }
}
layer {
  name: "relu1"
  type: "ReLU"
  bottom: "ip1"
  top: "ip1"
}
layer {
  name: "ip2"
  type: "InnerProduct"
  bottom: "ip1"
  top: "ip2"
  param {
    lr_mult: 1
  }
  param {
    lr_mult: 2
  }
  inner_product_param {
    num_output: 40
    weight_filler {
      type: "gaussian"
      std: 0.01
    }
    bias_filler {
      type: "constant"
    }
  }
}
layer {
  name: "relu2"
  type: "ReLU"
  bottom: "ip2"
  top: "ip2"
}
layer {
  name: "ip3"
  type: "InnerProduct"
  bottom: "ip2"
  top: "ip3"
  param {
    lr_mult: 1
  }
  param {
    lr_mult: 2
  }
  inner_product_param {
    num_output: 40
    weight_filler {
      type: "gaussian"
      std: 0.01
    }
    bias_filler {
      type: "constant"
    }
  }
}
layer {
  name: "relu3"
  type: "ReLU"
  bottom: "ip3"
  top: "ip3"
}
layer {
  name: "ip4"
  type: "InnerProduct"
  bottom: "ip3"
  top: "ip4"
  param {
    lr_mult: 1
  }
  param {
    lr_mult: 2
  }
  inner_product_param {
    num_output: 10
    weight_filler {
      type: "gaussian"
      std: 0.01
    }
    bias_filler {
      type: "constant"
    }
  }
}
layer {
  name: "accuracy"
  type: "Accuracy"
  bottom: "ip4"
  bottom: "label"
  top: "accuracy"
  include {
    phase: TEST
  }
}
layer {
  name: "loss"
  type: "SoftmaxWithLoss"
  bottom: "ip4"
  bottom: "label"
  top: "loss"
}
I0501 00:53:49.912335  8424 layer_factory.hpp:77] Creating layer cifar
I0501 00:53:49.912379  8424 db_lmdb.cpp:35] Opened lmdb examples/cifar10/cifar10_test_lmdb
I0501 00:53:49.912391  8424 net.cpp:86] Creating Layer cifar
I0501 00:53:49.912396  8424 net.cpp:382] cifar -> data
I0501 00:53:49.912405  8424 net.cpp:382] cifar -> label
I0501 00:53:49.912412  8424 data_transformer.cpp:25] Loading mean file from: examples/cifar10/mean.binaryproto
I0501 00:53:49.912564  8424 data_layer.cpp:45] output data size: 1000,3,32,32
I0501 00:53:49.934408  8424 net.cpp:124] Setting up cifar
I0501 00:53:49.934434  8424 net.cpp:131] Top shape: 1000 3 32 32 (3072000)
I0501 00:53:49.934439  8424 net.cpp:131] Top shape: 1000 (1000)
I0501 00:53:49.934442  8424 net.cpp:139] Memory required for data: 12292000
I0501 00:53:49.934448  8424 layer_factory.hpp:77] Creating layer label_cifar_1_split
I0501 00:53:49.934514  8424 net.cpp:86] Creating Layer label_cifar_1_split
I0501 00:53:49.934518  8424 net.cpp:408] label_cifar_1_split <- label
I0501 00:53:49.934525  8424 net.cpp:382] label_cifar_1_split -> label_cifar_1_split_0
I0501 00:53:49.934533  8424 net.cpp:382] label_cifar_1_split -> label_cifar_1_split_1
I0501 00:53:49.934645  8424 net.cpp:124] Setting up label_cifar_1_split
I0501 00:53:49.934653  8424 net.cpp:131] Top shape: 1000 (1000)
I0501 00:53:49.934658  8424 net.cpp:131] Top shape: 1000 (1000)
I0501 00:53:49.934660  8424 net.cpp:139] Memory required for data: 12300000
I0501 00:53:49.934664  8424 layer_factory.hpp:77] Creating layer conv0
I0501 00:53:49.934676  8424 net.cpp:86] Creating Layer conv0
I0501 00:53:49.934695  8424 net.cpp:408] conv0 <- data
I0501 00:53:49.934702  8424 net.cpp:382] conv0 -> conv0
I0501 00:53:49.936404  8424 net.cpp:124] Setting up conv0
I0501 00:53:49.936417  8424 net.cpp:131] Top shape: 1000 8 34 34 (9248000)
I0501 00:53:49.936421  8424 net.cpp:139] Memory required for data: 49292000
I0501 00:53:49.936431  8424 layer_factory.hpp:77] Creating layer Sigmoid0
I0501 00:53:49.936455  8424 net.cpp:86] Creating Layer Sigmoid0
I0501 00:53:49.936457  8424 net.cpp:408] Sigmoid0 <- conv0
I0501 00:53:49.936462  8424 net.cpp:382] Sigmoid0 -> Sigmoid0
I0501 00:53:49.936645  8424 net.cpp:124] Setting up Sigmoid0
I0501 00:53:49.936653  8424 net.cpp:131] Top shape: 1000 8 34 34 (9248000)
I0501 00:53:49.936672  8424 net.cpp:139] Memory required for data: 86284000
I0501 00:53:49.936676  8424 layer_factory.hpp:77] Creating layer pool0
I0501 00:53:49.936684  8424 net.cpp:86] Creating Layer pool0
I0501 00:53:49.936687  8424 net.cpp:408] pool0 <- Sigmoid0
I0501 00:53:49.936693  8424 net.cpp:382] pool0 -> pool0
I0501 00:53:49.937008  8424 net.cpp:124] Setting up pool0
I0501 00:53:49.937018  8424 net.cpp:131] Top shape: 1000 8 17 17 (2312000)
I0501 00:53:49.937022  8424 net.cpp:139] Memory required for data: 95532000
I0501 00:53:49.937026  8424 layer_factory.hpp:77] Creating layer ip1
I0501 00:53:49.937042  8424 net.cpp:86] Creating Layer ip1
I0501 00:53:49.937046  8424 net.cpp:408] ip1 <- pool0
I0501 00:53:49.937052  8424 net.cpp:382] ip1 -> ip1
I0501 00:53:49.943037  8424 net.cpp:124] Setting up ip1
I0501 00:53:49.943048  8424 net.cpp:131] Top shape: 1000 80 (80000)
I0501 00:53:49.943053  8424 net.cpp:139] Memory required for data: 95852000
I0501 00:53:49.943089  8424 layer_factory.hpp:77] Creating layer relu1
I0501 00:53:49.943095  8424 net.cpp:86] Creating Layer relu1
I0501 00:53:49.943099  8424 net.cpp:408] relu1 <- ip1
I0501 00:53:49.943105  8424 net.cpp:369] relu1 -> ip1 (in-place)
I0501 00:53:49.943298  8424 net.cpp:124] Setting up relu1
I0501 00:53:49.943307  8424 net.cpp:131] Top shape: 1000 80 (80000)
I0501 00:53:49.943311  8424 net.cpp:139] Memory required for data: 96172000
I0501 00:53:49.943315  8424 layer_factory.hpp:77] Creating layer ip2
I0501 00:53:49.943322  8424 net.cpp:86] Creating Layer ip2
I0501 00:53:49.943325  8424 net.cpp:408] ip2 <- ip1
I0501 00:53:49.943331  8424 net.cpp:382] ip2 -> ip2
I0501 00:53:49.943528  8424 net.cpp:124] Setting up ip2
I0501 00:53:49.943536  8424 net.cpp:131] Top shape: 1000 40 (40000)
I0501 00:53:49.943539  8424 net.cpp:139] Memory required for data: 96332000
I0501 00:53:49.943562  8424 layer_factory.hpp:77] Creating layer relu2
I0501 00:53:49.943569  8424 net.cpp:86] Creating Layer relu2
I0501 00:53:49.943572  8424 net.cpp:408] relu2 <- ip2
I0501 00:53:49.943577  8424 net.cpp:369] relu2 -> ip2 (in-place)
I0501 00:53:49.944314  8424 net.cpp:124] Setting up relu2
I0501 00:53:49.944326  8424 net.cpp:131] Top shape: 1000 40 (40000)
I0501 00:53:49.944345  8424 net.cpp:139] Memory required for data: 96492000
I0501 00:53:49.944349  8424 layer_factory.hpp:77] Creating layer ip3
I0501 00:53:49.944370  8424 net.cpp:86] Creating Layer ip3
I0501 00:53:49.944375  8424 net.cpp:408] ip3 <- ip2
I0501 00:53:49.944381  8424 net.cpp:382] ip3 -> ip3
I0501 00:53:49.944532  8424 net.cpp:124] Setting up ip3
I0501 00:53:49.944540  8424 net.cpp:131] Top shape: 1000 40 (40000)
I0501 00:53:49.944545  8424 net.cpp:139] Memory required for data: 96652000
I0501 00:53:49.944550  8424 layer_factory.hpp:77] Creating layer relu3
I0501 00:53:49.944555  8424 net.cpp:86] Creating Layer relu3
I0501 00:53:49.944557  8424 net.cpp:408] relu3 <- ip3
I0501 00:53:49.944563  8424 net.cpp:369] relu3 -> ip3 (in-place)
I0501 00:53:49.944731  8424 net.cpp:124] Setting up relu3
I0501 00:53:49.944739  8424 net.cpp:131] Top shape: 1000 40 (40000)
I0501 00:53:49.944743  8424 net.cpp:139] Memory required for data: 96812000
I0501 00:53:49.944746  8424 layer_factory.hpp:77] Creating layer ip4
I0501 00:53:49.944752  8424 net.cpp:86] Creating Layer ip4
I0501 00:53:49.944756  8424 net.cpp:408] ip4 <- ip3
I0501 00:53:49.944761  8424 net.cpp:382] ip4 -> ip4
I0501 00:53:49.944931  8424 net.cpp:124] Setting up ip4
I0501 00:53:49.944941  8424 net.cpp:131] Top shape: 1000 10 (10000)
I0501 00:53:49.944944  8424 net.cpp:139] Memory required for data: 96852000
I0501 00:53:49.944952  8424 layer_factory.hpp:77] Creating layer ip4_ip4_0_split
I0501 00:53:49.944958  8424 net.cpp:86] Creating Layer ip4_ip4_0_split
I0501 00:53:49.944962  8424 net.cpp:408] ip4_ip4_0_split <- ip4
I0501 00:53:49.944967  8424 net.cpp:382] ip4_ip4_0_split -> ip4_ip4_0_split_0
I0501 00:53:49.944972  8424 net.cpp:382] ip4_ip4_0_split -> ip4_ip4_0_split_1
I0501 00:53:49.945008  8424 net.cpp:124] Setting up ip4_ip4_0_split
I0501 00:53:49.945021  8424 net.cpp:131] Top shape: 1000 10 (10000)
I0501 00:53:49.945025  8424 net.cpp:131] Top shape: 1000 10 (10000)
I0501 00:53:49.945029  8424 net.cpp:139] Memory required for data: 96932000
I0501 00:53:49.945032  8424 layer_factory.hpp:77] Creating layer accuracy
I0501 00:53:49.945037  8424 net.cpp:86] Creating Layer accuracy
I0501 00:53:49.945041  8424 net.cpp:408] accuracy <- ip4_ip4_0_split_0
I0501 00:53:49.945045  8424 net.cpp:408] accuracy <- label_cifar_1_split_0
I0501 00:53:49.945051  8424 net.cpp:382] accuracy -> accuracy
…
