…
I0430 21:55:34.993844 32156 net.cpp:296] The NetState phase (0) differed from the phase (1) specified by a rule in layer cifar
I0430 21:55:34.993868 32156 net.cpp:296] The NetState phase (0) differed from the phase (1) specified by a rule in layer accuracy
I0430 21:55:34.993971 32156 net.cpp:53] Initializing net from parameters: 
name: "CIFAR"
state {
  phase: TRAIN
  level: 0
  stage: ""
}
layer {
  name: "cifar"
  type: "Data"
  top: "data"
  top: "label"
  include {
    phase: TRAIN
  }
  transform_param {
    mean_file: "examples/cifar10/mean.binaryproto"
  }
  data_param {
    source: "examples/cifar10/cifar10_train_lmdb"
    batch_size: 111
    backend: LMDB
  }
}
layer {
  name: "conv0"
  type: "Convolution"
  bottom: "data"
  top: "conv0"
  param {
    lr_mult: 1
  }
  param {
    lr_mult: 2
  }
  convolution_param {
    num_output: 8
    pad: 2
    kernel_size: 3
    stride: 1
    weight_filler {
      type: "gaussian"
      std: 0.01
    }
    bias_filler {
      type: "constant"
    }
  }
}
layer {
  name: "Sigmoid0"
  type: "Sigmoid"
  bottom: "conv0"
  top: "Sigmoid0"
}
layer {
  name: "pool0"
  type: "Pooling"
  bottom: "Sigmoid0"
  top: "pool0"
  pooling_param {
    pool: AVE
    kernel_size: 3
    stride: 2
  }
}
layer {
  name: "ip1"
  type: "InnerProduct"
  bottom: "pool0"
  top: "ip1"
  param {
    lr_mult: 1
  }
  param {
    lr_mult: 2
  }
  inner_product_param {
    num_output: 80
    weight_filler {
      type: "gaussian"
      std: 0.01
    }
    bias_filler {
      type: "constant"
    }
  }
}
layer {
  name: "relu1"
  type: "ReLU"
  bottom: "ip1"
  top: "ip1"
}
layer {
  name: "ip2"
  type: "InnerProduct"
  bottom: "ip1"
  top: "ip2"
  param {
    lr_mult: 1
  }
  param {
    lr_mult: 2
  }
  inner_product_param {
    num_output: 40
    weight_filler {
      type: "gaussian"
      std: 0.01
    }
    bias_filler {
      type: "constant"
    }
  }
}
layer {
  name: "relu2"
  type: "ReLU"
  bottom: "ip2"
  top: "ip2"
}
layer {
  name: "ip3"
  type: "InnerProduct"
  bottom: "ip2"
  top: "ip3"
  param {
    lr_mult: 1
  }
  param {
    lr_mult: 2
  }
  inner_product_param {
    num_output: 10
    weight_filler {
      type: "gaussian"
      std: 0.01
    }
    bias_filler {
      type: "constant"
    }
  }
}
layer {
  name: "loss"
  type: "SoftmaxWithLoss"
  bottom: "ip3"
  bottom: "label"
  top: "loss"
}
I0430 21:55:34.994032 32156 layer_factory.hpp:77] Creating layer cifar
I0430 21:55:34.994112 32156 db_lmdb.cpp:35] Opened lmdb examples/cifar10/cifar10_train_lmdb
I0430 21:55:34.994134 32156 net.cpp:86] Creating Layer cifar
I0430 21:55:34.994143 32156 net.cpp:382] cifar -> data
I0430 21:55:34.994161 32156 net.cpp:382] cifar -> label
I0430 21:55:34.994173 32156 data_transformer.cpp:25] Loading mean file from: examples/cifar10/mean.binaryproto
I0430 21:55:34.995920 32156 data_layer.cpp:45] output data size: 111,3,32,32
I0430 21:55:35.002550 32156 net.cpp:124] Setting up cifar
I0430 21:55:35.002564 32156 net.cpp:131] Top shape: 111 3 32 32 (340992)
I0430 21:55:35.002569 32156 net.cpp:131] Top shape: 111 (111)
I0430 21:55:35.002571 32156 net.cpp:139] Memory required for data: 1364412
I0430 21:55:35.002578 32156 layer_factory.hpp:77] Creating layer conv0
I0430 21:55:35.002593 32156 net.cpp:86] Creating Layer conv0
I0430 21:55:35.002598 32156 net.cpp:408] conv0 <- data
I0430 21:55:35.002607 32156 net.cpp:382] conv0 -> conv0
I0430 21:55:35.228534 32156 net.cpp:124] Setting up conv0
I0430 21:55:35.228582 32156 net.cpp:131] Top shape: 111 8 34 34 (1026528)
I0430 21:55:35.228587 32156 net.cpp:139] Memory required for data: 5470524
I0430 21:55:35.228601 32156 layer_factory.hpp:77] Creating layer Sigmoid0
I0430 21:55:35.228612 32156 net.cpp:86] Creating Layer Sigmoid0
I0430 21:55:35.228616 32156 net.cpp:408] Sigmoid0 <- conv0
I0430 21:55:35.228621 32156 net.cpp:382] Sigmoid0 -> Sigmoid0
I0430 21:55:35.228801 32156 net.cpp:124] Setting up Sigmoid0
I0430 21:55:35.228816 32156 net.cpp:131] Top shape: 111 8 34 34 (1026528)
I0430 21:55:35.228818 32156 net.cpp:139] Memory required for data: 9576636
I0430 21:55:35.228821 32156 layer_factory.hpp:77] Creating layer pool0
I0430 21:55:35.228828 32156 net.cpp:86] Creating Layer pool0
I0430 21:55:35.228832 32156 net.cpp:408] pool0 <- Sigmoid0
I0430 21:55:35.228835 32156 net.cpp:382] pool0 -> pool0
I0430 21:55:35.229593 32156 net.cpp:124] Setting up pool0
I0430 21:55:35.229605 32156 net.cpp:131] Top shape: 111 8 17 17 (256632)
I0430 21:55:35.229609 32156 net.cpp:139] Memory required for data: 10603164
I0430 21:55:35.229612 32156 layer_factory.hpp:77] Creating layer ip1
I0430 21:55:35.229620 32156 net.cpp:86] Creating Layer ip1
I0430 21:55:35.229624 32156 net.cpp:408] ip1 <- pool0
I0430 21:55:35.229629 32156 net.cpp:382] ip1 -> ip1
I0430 21:55:35.235141 32156 net.cpp:124] Setting up ip1
I0430 21:55:35.235153 32156 net.cpp:131] Top shape: 111 80 (8880)
I0430 21:55:35.235157 32156 net.cpp:139] Memory required for data: 10638684
I0430 21:55:35.235164 32156 layer_factory.hpp:77] Creating layer relu1
I0430 21:55:35.235169 32156 net.cpp:86] Creating Layer relu1
I0430 21:55:35.235172 32156 net.cpp:408] relu1 <- ip1
I0430 21:55:35.235177 32156 net.cpp:369] relu1 -> ip1 (in-place)
I0430 21:55:35.235332 32156 net.cpp:124] Setting up relu1
I0430 21:55:35.235340 32156 net.cpp:131] Top shape: 111 80 (8880)
I0430 21:55:35.235343 32156 net.cpp:139] Memory required for data: 10674204
I0430 21:55:35.235347 32156 layer_factory.hpp:77] Creating layer ip2
I0430 21:55:35.235353 32156 net.cpp:86] Creating Layer ip2
I0430 21:55:35.235357 32156 net.cpp:408] ip2 <- ip1
I0430 21:55:35.235360 32156 net.cpp:382] ip2 -> ip2
I0430 21:55:35.235532 32156 net.cpp:124] Setting up ip2
I0430 21:55:35.235539 32156 net.cpp:131] Top shape: 111 40 (4440)
I0430 21:55:35.235541 32156 net.cpp:139] Memory required for data: 10691964
I0430 21:55:35.235548 32156 layer_factory.hpp:77] Creating layer relu2
I0430 21:55:35.235553 32156 net.cpp:86] Creating Layer relu2
I0430 21:55:35.235556 32156 net.cpp:408] relu2 <- ip2
I0430 21:55:35.235560 32156 net.cpp:369] relu2 -> ip2 (in-place)
I0430 21:55:35.235697 32156 net.cpp:124] Setting up relu2
I0430 21:55:35.235704 32156 net.cpp:131] Top shape: 111 40 (4440)
I0430 21:55:35.235707 32156 net.cpp:139] Memory required for data: 10709724
I0430 21:55:35.235710 32156 layer_factory.hpp:77] Creating layer ip3
I0430 21:55:35.235718 32156 net.cpp:86] Creating Layer ip3
I0430 21:55:35.235720 32156 net.cpp:408] ip3 <- ip2
I0430 21:55:35.235724 32156 net.cpp:382] ip3 -> ip3
I0430 21:55:35.236600 32156 net.cpp:124] Setting up ip3
I0430 21:55:35.236613 32156 net.cpp:131] Top shape: 111 10 (1110)
I0430 21:55:35.236615 32156 net.cpp:139] Memory required for data: 10714164
I0430 21:55:35.236620 32156 layer_factory.hpp:77] Creating layer loss
I0430 21:55:35.236630 32156 net.cpp:86] Creating Layer loss
I0430 21:55:35.236634 32156 net.cpp:408] loss <- ip3
I0430 21:55:35.236637 32156 net.cpp:408] loss <- label
I0430 21:55:35.236642 32156 net.cpp:382] loss -> loss
I0430 21:55:35.236655 32156 layer_factory.hpp:77] Creating layer loss
…
I0430 21:55:35.237287 32156 solver.cpp:173] Creating test net (#0) specified by net file: ECE595/cifar/train_test/var_everything/cifar_train_test_177.prototxt
I0430 21:55:35.237311 32156 net.cpp:296] The NetState phase (1) differed from the phase (0) specified by a rule in layer cifar
I0430 21:55:35.237392 32156 net.cpp:53] Initializing net from parameters: 
name: "CIFAR"
state {
  phase: TEST
}
layer {
  name: "cifar"
  type: "Data"
  top: "data"
  top: "label"
  include {
    phase: TEST
  }
  transform_param {
    mean_file: "examples/cifar10/mean.binaryproto"
  }
  data_param {
    source: "examples/cifar10/cifar10_test_lmdb"
    batch_size: 1000
    backend: LMDB
  }
}
layer {
  name: "conv0"
  type: "Convolution"
  bottom: "data"
  top: "conv0"
  param {
    lr_mult: 1
  }
  param {
    lr_mult: 2
  }
  convolution_param {
    num_output: 8
    pad: 2
    kernel_size: 3
    stride: 1
    weight_filler {
      type: "gaussian"
      std: 0.01
    }
    bias_filler {
      type: "constant"
    }
  }
}
layer {
  name: "Sigmoid0"
  type: "Sigmoid"
  bottom: "conv0"
  top: "Sigmoid0"
}
layer {
  name: "pool0"
  type: "Pooling"
  bottom: "Sigmoid0"
  top: "pool0"
  pooling_param {
    pool: AVE
    kernel_size: 3
    stride: 2
  }
}
layer {
  name: "ip1"
  type: "InnerProduct"
  bottom: "pool0"
  top: "ip1"
  param {
    lr_mult: 1
  }
  param {
    lr_mult: 2
  }
  inner_product_param {
    num_output: 80
    weight_filler {
      type: "gaussian"
      std: 0.01
    }
    bias_filler {
      type: "constant"
    }
  }
}
layer {
  name: "relu1"
  type: "ReLU"
  bottom: "ip1"
  top: "ip1"
}
layer {
  name: "ip2"
  type: "InnerProduct"
  bottom: "ip1"
  top: "ip2"
  param {
    lr_mult: 1
  }
  param {
    lr_mult: 2
  }
  inner_product_param {
    num_output: 40
    weight_filler {
      type: "gaussian"
      std: 0.01
    }
    bias_filler {
      type: "constant"
    }
  }
}
layer {
  name: "relu2"
  type: "ReLU"
  bottom: "ip2"
  top: "ip2"
}
layer {
  name: "ip3"
  type: "InnerProduct"
  bottom: "ip2"
  top: "ip3"
  param {
    lr_mult: 1
  }
  param {
    lr_mult: 2
  }
  inner_product_param {
    num_output: 10
    weight_filler {
      type: "gaussian"
      std: 0.01
    }
    bias_filler {
      type: "constant"
    }
  }
}
layer {
  name: "accuracy"
  type: "Accuracy"
  bottom: "ip3"
  bottom: "label"
  top: "accuracy"
  include {
    phase: TEST
  }
}
layer {
  name: "loss"
  type: "SoftmaxWithLoss"
  bottom: "ip3"
  bottom: "label"
  top: "loss"
}
I0430 21:55:35.237455 32156 layer_factory.hpp:77] Creating layer cifar
I0430 21:55:35.237499 32156 db_lmdb.cpp:35] Opened lmdb examples/cifar10/cifar10_test_lmdb
I0430 21:55:35.237511 32156 net.cpp:86] Creating Layer cifar
I0430 21:55:35.237516 32156 net.cpp:382] cifar -> data
I0430 21:55:35.237524 32156 net.cpp:382] cifar -> label
I0430 21:55:35.237529 32156 data_transformer.cpp:25] Loading mean file from: examples/cifar10/mean.binaryproto
I0430 21:55:35.237668 32156 data_layer.cpp:45] output data size: 1000,3,32,32
I0430 21:55:35.259115 32156 net.cpp:124] Setting up cifar
I0430 21:55:35.259174 32156 net.cpp:131] Top shape: 1000 3 32 32 (3072000)
I0430 21:55:35.259181 32156 net.cpp:131] Top shape: 1000 (1000)
I0430 21:55:35.259184 32156 net.cpp:139] Memory required for data: 12292000
I0430 21:55:35.259191 32156 layer_factory.hpp:77] Creating layer label_cifar_1_split
I0430 21:55:35.259218 32156 net.cpp:86] Creating Layer label_cifar_1_split
I0430 21:55:35.259237 32156 net.cpp:408] label_cifar_1_split <- label
I0430 21:55:35.259243 32156 net.cpp:382] label_cifar_1_split -> label_cifar_1_split_0
I0430 21:55:35.259253 32156 net.cpp:382] label_cifar_1_split -> label_cifar_1_split_1
I0430 21:55:35.259335 32156 net.cpp:124] Setting up label_cifar_1_split
I0430 21:55:35.259342 32156 net.cpp:131] Top shape: 1000 (1000)
I0430 21:55:35.259346 32156 net.cpp:131] Top shape: 1000 (1000)
I0430 21:55:35.259363 32156 net.cpp:139] Memory required for data: 12300000
I0430 21:55:35.259366 32156 layer_factory.hpp:77] Creating layer conv0
I0430 21:55:35.259394 32156 net.cpp:86] Creating Layer conv0
I0430 21:55:35.259397 32156 net.cpp:408] conv0 <- data
I0430 21:55:35.259403 32156 net.cpp:382] conv0 -> conv0
I0430 21:55:35.261006 32156 net.cpp:124] Setting up conv0
I0430 21:55:35.261035 32156 net.cpp:131] Top shape: 1000 8 34 34 (9248000)
I0430 21:55:35.261039 32156 net.cpp:139] Memory required for data: 49292000
I0430 21:55:35.261049 32156 layer_factory.hpp:77] Creating layer Sigmoid0
I0430 21:55:35.261057 32156 net.cpp:86] Creating Layer Sigmoid0
I0430 21:55:35.261061 32156 net.cpp:408] Sigmoid0 <- conv0
I0430 21:55:35.261065 32156 net.cpp:382] Sigmoid0 -> Sigmoid0
I0430 21:55:35.261973 32156 net.cpp:124] Setting up Sigmoid0
I0430 21:55:35.261999 32156 net.cpp:131] Top shape: 1000 8 34 34 (9248000)
I0430 21:55:35.262002 32156 net.cpp:139] Memory required for data: 86284000
I0430 21:55:35.262006 32156 layer_factory.hpp:77] Creating layer pool0
I0430 21:55:35.262017 32156 net.cpp:86] Creating Layer pool0
I0430 21:55:35.262019 32156 net.cpp:408] pool0 <- Sigmoid0
I0430 21:55:35.262024 32156 net.cpp:382] pool0 -> pool0
I0430 21:55:35.263198 32156 net.cpp:124] Setting up pool0
I0430 21:55:35.263208 32156 net.cpp:131] Top shape: 1000 8 17 17 (2312000)
I0430 21:55:35.263226 32156 net.cpp:139] Memory required for data: 95532000
I0430 21:55:35.263229 32156 layer_factory.hpp:77] Creating layer ip1
I0430 21:55:35.263239 32156 net.cpp:86] Creating Layer ip1
I0430 21:55:35.263242 32156 net.cpp:408] ip1 <- pool0
I0430 21:55:35.263249 32156 net.cpp:382] ip1 -> ip1
I0430 21:55:35.268339 32156 net.cpp:124] Setting up ip1
I0430 21:55:35.268348 32156 net.cpp:131] Top shape: 1000 80 (80000)
I0430 21:55:35.268366 32156 net.cpp:139] Memory required for data: 95852000
I0430 21:55:35.268374 32156 layer_factory.hpp:77] Creating layer relu1
I0430 21:55:35.268379 32156 net.cpp:86] Creating Layer relu1
I0430 21:55:35.268383 32156 net.cpp:408] relu1 <- ip1
I0430 21:55:35.268388 32156 net.cpp:369] relu1 -> ip1 (in-place)
I0430 21:55:35.268569 32156 net.cpp:124] Setting up relu1
I0430 21:55:35.268579 32156 net.cpp:131] Top shape: 1000 80 (80000)
I0430 21:55:35.268581 32156 net.cpp:139] Memory required for data: 96172000
I0430 21:55:35.268584 32156 layer_factory.hpp:77] Creating layer ip2
I0430 21:55:35.268591 32156 net.cpp:86] Creating Layer ip2
I0430 21:55:35.268594 32156 net.cpp:408] ip2 <- ip1
I0430 21:55:35.268600 32156 net.cpp:382] ip2 -> ip2
I0430 21:55:35.268792 32156 net.cpp:124] Setting up ip2
I0430 21:55:35.268800 32156 net.cpp:131] Top shape: 1000 40 (40000)
I0430 21:55:35.268802 32156 net.cpp:139] Memory required for data: 96332000
I0430 21:55:35.268815 32156 layer_factory.hpp:77] Creating layer relu2
I0430 21:55:35.268836 32156 net.cpp:86] Creating Layer relu2
I0430 21:55:35.268860 32156 net.cpp:408] relu2 <- ip2
I0430 21:55:35.268880 32156 net.cpp:369] relu2 -> ip2 (in-place)
I0430 21:55:35.269068 32156 net.cpp:124] Setting up relu2
I0430 21:55:35.269078 32156 net.cpp:131] Top shape: 1000 40 (40000)
I0430 21:55:35.269080 32156 net.cpp:139] Memory required for data: 96492000
I0430 21:55:35.269083 32156 layer_factory.hpp:77] Creating layer ip3
I0430 21:55:35.269090 32156 net.cpp:86] Creating Layer ip3
I0430 21:55:35.269094 32156 net.cpp:408] ip3 <- ip2
I0430 21:55:35.269099 32156 net.cpp:382] ip3 -> ip3
I0430 21:55:35.269280 32156 net.cpp:124] Setting up ip3
I0430 21:55:35.269287 32156 net.cpp:131] Top shape: 1000 10 (10000)
I0430 21:55:35.269290 32156 net.cpp:139] Memory required for data: 96532000
I0430 21:55:35.269306 32156 layer_factory.hpp:77] Creating layer ip3_ip3_0_split
I0430 21:55:35.269312 32156 net.cpp:86] Creating Layer ip3_ip3_0_split
I0430 21:55:35.269315 32156 net.cpp:408] ip3_ip3_0_split <- ip3
I0430 21:55:35.269320 32156 net.cpp:382] ip3_ip3_0_split -> ip3_ip3_0_split_0
I0430 21:55:35.269325 32156 net.cpp:382] ip3_ip3_0_split -> ip3_ip3_0_split_1
I0430 21:55:35.269358 32156 net.cpp:124] Setting up ip3_ip3_0_split
I0430 21:55:35.269363 32156 net.cpp:131] Top shape: 1000 10 (10000)
I0430 21:55:35.269367 32156 net.cpp:131] Top shape: 1000 10 (10000)
I0430 21:55:35.269369 32156 net.cpp:139] Memory required for data: 96612000
I0430 21:55:35.269373 32156 layer_factory.hpp:77] Creating layer accuracy
I0430 21:55:35.269381 32156 net.cpp:86] Creating Layer accuracy
I0430 21:55:35.269382 32156 net.cpp:408] accuracy <- ip3_ip3_0_split_0
I0430 21:55:35.269387 32156 net.cpp:408] accuracy <- label_cifar_1_split_0
I0430 21:55:35.269392 32156 net.cpp:382] accuracy -> accuracy
…
