…
I0501 01:48:19.586542 12183 net.cpp:296] The NetState phase (0) differed from the phase (1) specified by a rule in layer cifar
I0501 01:48:19.586561 12183 net.cpp:296] The NetState phase (0) differed from the phase (1) specified by a rule in layer accuracy
I0501 01:48:19.586669 12183 net.cpp:53] Initializing net from parameters: 
name: "CIFAR"
state {
  phase: TRAIN
  level: 0
  stage: ""
}
layer {
  name: "cifar"
  type: "Data"
  top: "data"
  top: "label"
  include {
    phase: TRAIN
  }
  transform_param {
    mean_file: "examples/cifar10/mean.binaryproto"
  }
  data_param {
    source: "examples/cifar10/cifar10_train_lmdb"
    batch_size: 111
    backend: LMDB
  }
}
layer {
  name: "conv0"
  type: "Convolution"
  bottom: "data"
  top: "conv0"
  param {
    lr_mult: 1
  }
  param {
    lr_mult: 2
  }
  convolution_param {
    num_output: 8
    pad: 2
    kernel_size: 3
    stride: 1
    weight_filler {
      type: "gaussian"
      std: 0.01
    }
    bias_filler {
      type: "constant"
    }
  }
}
layer {
  name: "Sigmoid0"
  type: "Sigmoid"
  bottom: "conv0"
  top: "Sigmoid0"
}
layer {
  name: "pool0"
  type: "Pooling"
  bottom: "Sigmoid0"
  top: "pool0"
  pooling_param {
    pool: AVE
    kernel_size: 3
    stride: 2
  }
}
layer {
  name: "ip1"
  type: "InnerProduct"
  bottom: "pool0"
  top: "ip1"
  param {
    lr_mult: 1
  }
  param {
    lr_mult: 2
  }
  inner_product_param {
    num_output: 160
    weight_filler {
      type: "gaussian"
      std: 0.01
    }
    bias_filler {
      type: "constant"
    }
  }
}
layer {
  name: "relu1"
  type: "ReLU"
  bottom: "ip1"
  top: "ip1"
}
layer {
  name: "ip2"
  type: "InnerProduct"
  bottom: "ip1"
  top: "ip2"
  param {
    lr_mult: 1
  }
  param {
    lr_mult: 2
  }
  inner_product_param {
    num_output: 80
    weight_filler {
      type: "gaussian"
      std: 0.01
    }
    bias_filler {
      type: "constant"
    }
  }
}
layer {
  name: "relu2"
  type: "ReLU"
  bottom: "ip2"
  top: "ip2"
}
layer {
  name: "ip3"
  type: "InnerProduct"
  bottom: "ip2"
  top: "ip3"
  param {
    lr_mult: 1
  }
  param {
    lr_mult: 2
  }
  inner_product_param {
    num_output: 20
    weight_filler {
      type: "gaussian"
      std: 0.01
    }
    bias_filler {
      type: "constant"
    }
  }
}
layer {
  name: "relu3"
  type: "ReLU"
  bottom: "ip3"
  top: "ip3"
}
layer {
  name: "ip4"
  type: "InnerProduct"
  bottom: "ip3"
  top: "ip4"
  param {
    lr_mult: 1
  }
  param {
    lr_mult: 2
  }
  inner_product_param {
    num_output: 10
    weight_filler {
      type: "gaussian"
      std: 0.01
    }
    bias_filler {
      type: "constant"
    }
  }
}
layer {
  name: "loss"
  type: "SoftmaxWithLoss"
  bottom: "ip4"
  bottom: "label"
  top: "loss"
}
I0501 01:48:19.586751 12183 layer_factory.hpp:77] Creating layer cifar
I0501 01:48:19.586856 12183 db_lmdb.cpp:35] Opened lmdb examples/cifar10/cifar10_train_lmdb
I0501 01:48:19.586884 12183 net.cpp:86] Creating Layer cifar
I0501 01:48:19.586892 12183 net.cpp:382] cifar -> data
I0501 01:48:19.586915 12183 net.cpp:382] cifar -> label
I0501 01:48:19.586928 12183 data_transformer.cpp:25] Loading mean file from: examples/cifar10/mean.binaryproto
I0501 01:48:19.589040 12183 data_layer.cpp:45] output data size: 111,3,32,32
I0501 01:48:19.597131 12183 net.cpp:124] Setting up cifar
I0501 01:48:19.597153 12183 net.cpp:131] Top shape: 111 3 32 32 (340992)
I0501 01:48:19.597159 12183 net.cpp:131] Top shape: 111 (111)
I0501 01:48:19.597163 12183 net.cpp:139] Memory required for data: 1364412
I0501 01:48:19.597187 12183 layer_factory.hpp:77] Creating layer conv0
I0501 01:48:19.597206 12183 net.cpp:86] Creating Layer conv0
I0501 01:48:19.597215 12183 net.cpp:408] conv0 <- data
I0501 01:48:19.597228 12183 net.cpp:382] conv0 -> conv0
I0501 01:48:19.843983 12183 net.cpp:124] Setting up conv0
I0501 01:48:19.844008 12183 net.cpp:131] Top shape: 111 8 34 34 (1026528)
I0501 01:48:19.844012 12183 net.cpp:139] Memory required for data: 5470524
I0501 01:48:19.844027 12183 layer_factory.hpp:77] Creating layer Sigmoid0
I0501 01:48:19.844038 12183 net.cpp:86] Creating Layer Sigmoid0
I0501 01:48:19.844040 12183 net.cpp:408] Sigmoid0 <- conv0
I0501 01:48:19.844045 12183 net.cpp:382] Sigmoid0 -> Sigmoid0
I0501 01:48:19.844223 12183 net.cpp:124] Setting up Sigmoid0
I0501 01:48:19.844249 12183 net.cpp:131] Top shape: 111 8 34 34 (1026528)
I0501 01:48:19.844252 12183 net.cpp:139] Memory required for data: 9576636
I0501 01:48:19.844255 12183 layer_factory.hpp:77] Creating layer pool0
I0501 01:48:19.844261 12183 net.cpp:86] Creating Layer pool0
I0501 01:48:19.844264 12183 net.cpp:408] pool0 <- Sigmoid0
I0501 01:48:19.844269 12183 net.cpp:382] pool0 -> pool0
I0501 01:48:19.844992 12183 net.cpp:124] Setting up pool0
I0501 01:48:19.845005 12183 net.cpp:131] Top shape: 111 8 17 17 (256632)
I0501 01:48:19.845008 12183 net.cpp:139] Memory required for data: 10603164
I0501 01:48:19.845011 12183 layer_factory.hpp:77] Creating layer ip1
I0501 01:48:19.845036 12183 net.cpp:86] Creating Layer ip1
I0501 01:48:19.845038 12183 net.cpp:408] ip1 <- pool0
I0501 01:48:19.845043 12183 net.cpp:382] ip1 -> ip1
I0501 01:48:19.855196 12183 net.cpp:124] Setting up ip1
I0501 01:48:19.855222 12183 net.cpp:131] Top shape: 111 160 (17760)
I0501 01:48:19.855226 12183 net.cpp:139] Memory required for data: 10674204
I0501 01:48:19.855233 12183 layer_factory.hpp:77] Creating layer relu1
I0501 01:48:19.855239 12183 net.cpp:86] Creating Layer relu1
I0501 01:48:19.855242 12183 net.cpp:408] relu1 <- ip1
I0501 01:48:19.855247 12183 net.cpp:369] relu1 -> ip1 (in-place)
I0501 01:48:19.855410 12183 net.cpp:124] Setting up relu1
I0501 01:48:19.855419 12183 net.cpp:131] Top shape: 111 160 (17760)
I0501 01:48:19.855422 12183 net.cpp:139] Memory required for data: 10745244
I0501 01:48:19.855425 12183 layer_factory.hpp:77] Creating layer ip2
I0501 01:48:19.855432 12183 net.cpp:86] Creating Layer ip2
I0501 01:48:19.855435 12183 net.cpp:408] ip2 <- ip1
I0501 01:48:19.855439 12183 net.cpp:382] ip2 -> ip2
I0501 01:48:19.856637 12183 net.cpp:124] Setting up ip2
I0501 01:48:19.856649 12183 net.cpp:131] Top shape: 111 80 (8880)
I0501 01:48:19.856652 12183 net.cpp:139] Memory required for data: 10780764
I0501 01:48:19.856660 12183 layer_factory.hpp:77] Creating layer relu2
I0501 01:48:19.856665 12183 net.cpp:86] Creating Layer relu2
I0501 01:48:19.856668 12183 net.cpp:408] relu2 <- ip2
I0501 01:48:19.856673 12183 net.cpp:369] relu2 -> ip2 (in-place)
I0501 01:48:19.856871 12183 net.cpp:124] Setting up relu2
I0501 01:48:19.856880 12183 net.cpp:131] Top shape: 111 80 (8880)
I0501 01:48:19.856884 12183 net.cpp:139] Memory required for data: 10816284
I0501 01:48:19.856887 12183 layer_factory.hpp:77] Creating layer ip3
I0501 01:48:19.856894 12183 net.cpp:86] Creating Layer ip3
I0501 01:48:19.856899 12183 net.cpp:408] ip3 <- ip2
I0501 01:48:19.856904 12183 net.cpp:382] ip3 -> ip3
I0501 01:48:19.857040 12183 net.cpp:124] Setting up ip3
I0501 01:48:19.857048 12183 net.cpp:131] Top shape: 111 20 (2220)
I0501 01:48:19.857050 12183 net.cpp:139] Memory required for data: 10825164
I0501 01:48:19.857056 12183 layer_factory.hpp:77] Creating layer relu3
I0501 01:48:19.857060 12183 net.cpp:86] Creating Layer relu3
I0501 01:48:19.857064 12183 net.cpp:408] relu3 <- ip3
I0501 01:48:19.857069 12183 net.cpp:369] relu3 -> ip3 (in-place)
I0501 01:48:19.857231 12183 net.cpp:124] Setting up relu3
I0501 01:48:19.857239 12183 net.cpp:131] Top shape: 111 20 (2220)
I0501 01:48:19.857242 12183 net.cpp:139] Memory required for data: 10834044
I0501 01:48:19.857245 12183 layer_factory.hpp:77] Creating layer ip4
I0501 01:48:19.857265 12183 net.cpp:86] Creating Layer ip4
I0501 01:48:19.857271 12183 net.cpp:408] ip4 <- ip3
I0501 01:48:19.857291 12183 net.cpp:382] ip4 -> ip4
I0501 01:48:19.857398 12183 net.cpp:124] Setting up ip4
I0501 01:48:19.857404 12183 net.cpp:131] Top shape: 111 10 (1110)
I0501 01:48:19.857408 12183 net.cpp:139] Memory required for data: 10838484
I0501 01:48:19.857415 12183 layer_factory.hpp:77] Creating layer loss
I0501 01:48:19.857420 12183 net.cpp:86] Creating Layer loss
I0501 01:48:19.857424 12183 net.cpp:408] loss <- ip4
I0501 01:48:19.857427 12183 net.cpp:408] loss <- label
I0501 01:48:19.857432 12183 net.cpp:382] loss -> loss
I0501 01:48:19.857450 12183 layer_factory.hpp:77] Creating layer loss
…
I0501 01:48:19.858683 12183 solver.cpp:173] Creating test net (#0) specified by net file: ECE595/cifar/train_test/var_everything/cifar_train_test_301.prototxt
I0501 01:48:19.858711 12183 net.cpp:296] The NetState phase (1) differed from the phase (0) specified by a rule in layer cifar
I0501 01:48:19.858813 12183 net.cpp:53] Initializing net from parameters: 
name: "CIFAR"
state {
  phase: TEST
}
layer {
  name: "cifar"
  type: "Data"
  top: "data"
  top: "label"
  include {
    phase: TEST
  }
  transform_param {
    mean_file: "examples/cifar10/mean.binaryproto"
  }
  data_param {
    source: "examples/cifar10/cifar10_test_lmdb"
    batch_size: 1000
    backend: LMDB
  }
}
layer {
  name: "conv0"
  type: "Convolution"
  bottom: "data"
  top: "conv0"
  param {
    lr_mult: 1
  }
  param {
    lr_mult: 2
  }
  convolution_param {
    num_output: 8
    pad: 2
    kernel_size: 3
    stride: 1
    weight_filler {
      type: "gaussian"
      std: 0.01
    }
    bias_filler {
      type: "constant"
    }
  }
}
layer {
  name: "Sigmoid0"
  type: "Sigmoid"
  bottom: "conv0"
  top: "Sigmoid0"
}
layer {
  name: "pool0"
  type: "Pooling"
  bottom: "Sigmoid0"
  top: "pool0"
  pooling_param {
    pool: AVE
    kernel_size: 3
    stride: 2
  }
}
layer {
  name: "ip1"
  type: "InnerProduct"
  bottom: "pool0"
  top: "ip1"
  param {
    lr_mult: 1
  }
  param {
    lr_mult: 2
  }
  inner_product_param {
    num_output: 160
    weight_filler {
      type: "gaussian"
      std: 0.01
    }
    bias_filler {
      type: "constant"
    }
  }
}
layer {
  name: "relu1"
  type: "ReLU"
  bottom: "ip1"
  top: "ip1"
}
layer {
  name: "ip2"
  type: "InnerProduct"
  bottom: "ip1"
  top: "ip2"
  param {
    lr_mult: 1
  }
  param {
    lr_mult: 2
  }
  inner_product_param {
    num_output: 80
    weight_filler {
      type: "gaussian"
      std: 0.01
    }
    bias_filler {
      type: "constant"
    }
  }
}
layer {
  name: "relu2"
  type: "ReLU"
  bottom: "ip2"
  top: "ip2"
}
layer {
  name: "ip3"
  type: "InnerProduct"
  bottom: "ip2"
  top: "ip3"
  param {
    lr_mult: 1
  }
  param {
    lr_mult: 2
  }
  inner_product_param {
    num_output: 20
    weight_filler {
      type: "gaussian"
      std: 0.01
    }
    bias_filler {
      type: "constant"
    }
  }
}
layer {
  name: "relu3"
  type: "ReLU"
  bottom: "ip3"
  top: "ip3"
}
layer {
  name: "ip4"
  type: "InnerProduct"
  bottom: "ip3"
  top: "ip4"
  param {
    lr_mult: 1
  }
  param {
    lr_mult: 2
  }
  inner_product_param {
    num_output: 10
    weight_filler {
      type: "gaussian"
      std: 0.01
    }
    bias_filler {
      type: "constant"
    }
  }
}
layer {
  name: "accuracy"
  type: "Accuracy"
  bottom: "ip4"
  bottom: "label"
  top: "accuracy"
  include {
    phase: TEST
  }
}
layer {
  name: "loss"
  type: "SoftmaxWithLoss"
  bottom: "ip4"
  bottom: "label"
  top: "loss"
}
I0501 01:48:19.858885 12183 layer_factory.hpp:77] Creating layer cifar
I0501 01:48:19.858928 12183 db_lmdb.cpp:35] Opened lmdb examples/cifar10/cifar10_test_lmdb
I0501 01:48:19.858940 12183 net.cpp:86] Creating Layer cifar
I0501 01:48:19.858944 12183 net.cpp:382] cifar -> data
I0501 01:48:19.858952 12183 net.cpp:382] cifar -> label
I0501 01:48:19.858958 12183 data_transformer.cpp:25] Loading mean file from: examples/cifar10/mean.binaryproto
I0501 01:48:19.859087 12183 data_layer.cpp:45] output data size: 1000,3,32,32
I0501 01:48:19.881135 12183 net.cpp:124] Setting up cifar
I0501 01:48:19.881176 12183 net.cpp:131] Top shape: 1000 3 32 32 (3072000)
I0501 01:48:19.881197 12183 net.cpp:131] Top shape: 1000 (1000)
I0501 01:48:19.881201 12183 net.cpp:139] Memory required for data: 12292000
I0501 01:48:19.881206 12183 layer_factory.hpp:77] Creating layer label_cifar_1_split
I0501 01:48:19.881222 12183 net.cpp:86] Creating Layer label_cifar_1_split
I0501 01:48:19.881225 12183 net.cpp:408] label_cifar_1_split <- label
I0501 01:48:19.881230 12183 net.cpp:382] label_cifar_1_split -> label_cifar_1_split_0
I0501 01:48:19.881254 12183 net.cpp:382] label_cifar_1_split -> label_cifar_1_split_1
I0501 01:48:19.881327 12183 net.cpp:124] Setting up label_cifar_1_split
I0501 01:48:19.881335 12183 net.cpp:131] Top shape: 1000 (1000)
I0501 01:48:19.881340 12183 net.cpp:131] Top shape: 1000 (1000)
I0501 01:48:19.881341 12183 net.cpp:139] Memory required for data: 12300000
I0501 01:48:19.881345 12183 layer_factory.hpp:77] Creating layer conv0
I0501 01:48:19.881356 12183 net.cpp:86] Creating Layer conv0
I0501 01:48:19.881361 12183 net.cpp:408] conv0 <- data
I0501 01:48:19.881366 12183 net.cpp:382] conv0 -> conv0
I0501 01:48:19.882910 12183 net.cpp:124] Setting up conv0
I0501 01:48:19.882938 12183 net.cpp:131] Top shape: 1000 8 34 34 (9248000)
I0501 01:48:19.882941 12183 net.cpp:139] Memory required for data: 49292000
I0501 01:48:19.882951 12183 layer_factory.hpp:77] Creating layer Sigmoid0
I0501 01:48:19.882957 12183 net.cpp:86] Creating Layer Sigmoid0
I0501 01:48:19.882961 12183 net.cpp:408] Sigmoid0 <- conv0
I0501 01:48:19.882964 12183 net.cpp:382] Sigmoid0 -> Sigmoid0
I0501 01:48:19.883144 12183 net.cpp:124] Setting up Sigmoid0
I0501 01:48:19.883155 12183 net.cpp:131] Top shape: 1000 8 34 34 (9248000)
I0501 01:48:19.883158 12183 net.cpp:139] Memory required for data: 86284000
I0501 01:48:19.883162 12183 layer_factory.hpp:77] Creating layer pool0
I0501 01:48:19.883169 12183 net.cpp:86] Creating Layer pool0
I0501 01:48:19.883172 12183 net.cpp:408] pool0 <- Sigmoid0
I0501 01:48:19.883177 12183 net.cpp:382] pool0 -> pool0
I0501 01:48:19.883395 12183 net.cpp:124] Setting up pool0
I0501 01:48:19.883404 12183 net.cpp:131] Top shape: 1000 8 17 17 (2312000)
I0501 01:48:19.883406 12183 net.cpp:139] Memory required for data: 95532000
I0501 01:48:19.883409 12183 layer_factory.hpp:77] Creating layer ip1
I0501 01:48:19.883417 12183 net.cpp:86] Creating Layer ip1
I0501 01:48:19.883420 12183 net.cpp:408] ip1 <- pool0
I0501 01:48:19.883425 12183 net.cpp:382] ip1 -> ip1
I0501 01:48:19.894968 12183 net.cpp:124] Setting up ip1
I0501 01:48:19.894981 12183 net.cpp:131] Top shape: 1000 160 (160000)
I0501 01:48:19.894999 12183 net.cpp:139] Memory required for data: 96172000
I0501 01:48:19.895026 12183 layer_factory.hpp:77] Creating layer relu1
I0501 01:48:19.895033 12183 net.cpp:86] Creating Layer relu1
I0501 01:48:19.895052 12183 net.cpp:408] relu1 <- ip1
I0501 01:48:19.895057 12183 net.cpp:369] relu1 -> ip1 (in-place)
I0501 01:48:19.895222 12183 net.cpp:124] Setting up relu1
I0501 01:48:19.895231 12183 net.cpp:131] Top shape: 1000 160 (160000)
I0501 01:48:19.895234 12183 net.cpp:139] Memory required for data: 96812000
I0501 01:48:19.895238 12183 layer_factory.hpp:77] Creating layer ip2
I0501 01:48:19.895246 12183 net.cpp:86] Creating Layer ip2
I0501 01:48:19.895249 12183 net.cpp:408] ip2 <- ip1
I0501 01:48:19.895254 12183 net.cpp:382] ip2 -> ip2
I0501 01:48:19.895740 12183 net.cpp:124] Setting up ip2
I0501 01:48:19.895748 12183 net.cpp:131] Top shape: 1000 80 (80000)
I0501 01:48:19.895766 12183 net.cpp:139] Memory required for data: 97132000
I0501 01:48:19.895773 12183 layer_factory.hpp:77] Creating layer relu2
I0501 01:48:19.895793 12183 net.cpp:86] Creating Layer relu2
I0501 01:48:19.895797 12183 net.cpp:408] relu2 <- ip2
I0501 01:48:19.895800 12183 net.cpp:369] relu2 -> ip2 (in-place)
I0501 01:48:19.896551 12183 net.cpp:124] Setting up relu2
I0501 01:48:19.896564 12183 net.cpp:131] Top shape: 1000 80 (80000)
I0501 01:48:19.896582 12183 net.cpp:139] Memory required for data: 97452000
I0501 01:48:19.896585 12183 layer_factory.hpp:77] Creating layer ip3
I0501 01:48:19.896592 12183 net.cpp:86] Creating Layer ip3
I0501 01:48:19.896596 12183 net.cpp:408] ip3 <- ip2
I0501 01:48:19.896601 12183 net.cpp:382] ip3 -> ip3
I0501 01:48:19.896765 12183 net.cpp:124] Setting up ip3
I0501 01:48:19.896775 12183 net.cpp:131] Top shape: 1000 20 (20000)
I0501 01:48:19.896777 12183 net.cpp:139] Memory required for data: 97532000
I0501 01:48:19.896782 12183 layer_factory.hpp:77] Creating layer relu3
I0501 01:48:19.896787 12183 net.cpp:86] Creating Layer relu3
I0501 01:48:19.896790 12183 net.cpp:408] relu3 <- ip3
I0501 01:48:19.896795 12183 net.cpp:369] relu3 -> ip3 (in-place)
I0501 01:48:19.897019 12183 net.cpp:124] Setting up relu3
I0501 01:48:19.897028 12183 net.cpp:131] Top shape: 1000 20 (20000)
I0501 01:48:19.897032 12183 net.cpp:139] Memory required for data: 97612000
I0501 01:48:19.897035 12183 layer_factory.hpp:77] Creating layer ip4
I0501 01:48:19.897042 12183 net.cpp:86] Creating Layer ip4
I0501 01:48:19.897045 12183 net.cpp:408] ip4 <- ip3
I0501 01:48:19.897052 12183 net.cpp:382] ip4 -> ip4
I0501 01:48:19.897164 12183 net.cpp:124] Setting up ip4
I0501 01:48:19.897191 12183 net.cpp:131] Top shape: 1000 10 (10000)
I0501 01:48:19.897193 12183 net.cpp:139] Memory required for data: 97652000
I0501 01:48:19.897217 12183 layer_factory.hpp:77] Creating layer ip4_ip4_0_split
I0501 01:48:19.897222 12183 net.cpp:86] Creating Layer ip4_ip4_0_split
I0501 01:48:19.897225 12183 net.cpp:408] ip4_ip4_0_split <- ip4
I0501 01:48:19.897229 12183 net.cpp:382] ip4_ip4_0_split -> ip4_ip4_0_split_0
I0501 01:48:19.897234 12183 net.cpp:382] ip4_ip4_0_split -> ip4_ip4_0_split_1
I0501 01:48:19.897264 12183 net.cpp:124] Setting up ip4_ip4_0_split
I0501 01:48:19.897269 12183 net.cpp:131] Top shape: 1000 10 (10000)
I0501 01:48:19.897272 12183 net.cpp:131] Top shape: 1000 10 (10000)
I0501 01:48:19.897275 12183 net.cpp:139] Memory required for data: 97732000
I0501 01:48:19.897279 12183 layer_factory.hpp:77] Creating layer accuracy
I0501 01:48:19.897284 12183 net.cpp:86] Creating Layer accuracy
I0501 01:48:19.897286 12183 net.cpp:408] accuracy <- ip4_ip4_0_split_0
I0501 01:48:19.897291 12183 net.cpp:408] accuracy <- label_cifar_1_split_0
I0501 01:48:19.897295 12183 net.cpp:382] accuracy -> accuracy
…
