…
I0430 17:02:52.217905 18724 net.cpp:296] The NetState phase (0) differed from the phase (1) specified by a rule in layer cifar
I0430 17:02:52.217919 18724 net.cpp:296] The NetState phase (0) differed from the phase (1) specified by a rule in layer accuracy
I0430 17:02:52.217993 18724 net.cpp:53] Initializing net from parameters: 
name: "CIFAR"
state {
  phase: TRAIN
  level: 0
  stage: ""
}
layer {
  name: "cifar"
  type: "Data"
  top: "data"
  top: "label"
  include {
    phase: TRAIN
  }
  transform_param {
    mean_file: "examples/cifar10/mean.binaryproto"
  }
  data_param {
    source: "examples/cifar10/cifar10_train_lmdb"
    batch_size: 111
    backend: LMDB
  }
}
layer {
  name: "ip1"
  type: "InnerProduct"
  bottom: "data"
  top: "ip1"
  param {
    lr_mult: 1
  }
  param {
    lr_mult: 2
  }
  inner_product_param {
    num_output: 80
    weight_filler {
      type: "gaussian"
      std: 0.01
    }
    bias_filler {
      type: "constant"
    }
  }
}
layer {
  name: "relu1"
  type: "ReLU"
  bottom: "ip1"
  top: "ip1"
}
layer {
  name: "ip2"
  type: "InnerProduct"
  bottom: "ip1"
  top: "ip2"
  param {
    lr_mult: 1
  }
  param {
    lr_mult: 2
  }
  inner_product_param {
    num_output: 40
    weight_filler {
      type: "gaussian"
      std: 0.01
    }
    bias_filler {
      type: "constant"
    }
  }
}
layer {
  name: "relu2"
  type: "ReLU"
  bottom: "ip2"
  top: "ip2"
}
layer {
  name: "ip3"
  type: "InnerProduct"
  bottom: "ip2"
  top: "ip3"
  param {
    lr_mult: 1
  }
  param {
    lr_mult: 2
  }
  inner_product_param {
    num_output: 10
    weight_filler {
      type: "gaussian"
      std: 0.01
    }
    bias_filler {
      type: "constant"
    }
  }
}
layer {
  name: "loss"
  type: "SoftmaxWithLoss"
  bottom: "ip3"
  bottom: "label"
  top: "loss"
}
I0430 17:02:52.218051 18724 layer_factory.hpp:77] Creating layer cifar
I0430 17:02:52.218150 18724 db_lmdb.cpp:35] Opened lmdb examples/cifar10/cifar10_train_lmdb
I0430 17:02:52.218176 18724 net.cpp:86] Creating Layer cifar
I0430 17:02:52.218184 18724 net.cpp:382] cifar -> data
I0430 17:02:52.218207 18724 net.cpp:382] cifar -> label
I0430 17:02:52.218219 18724 data_transformer.cpp:25] Loading mean file from: examples/cifar10/mean.binaryproto
I0430 17:02:52.220329 18724 data_layer.cpp:45] output data size: 111,3,32,32
I0430 17:02:52.228224 18724 net.cpp:124] Setting up cifar
I0430 17:02:52.228245 18724 net.cpp:131] Top shape: 111 3 32 32 (340992)
I0430 17:02:52.228250 18724 net.cpp:131] Top shape: 111 (111)
I0430 17:02:52.228255 18724 net.cpp:139] Memory required for data: 1364412
I0430 17:02:52.228261 18724 layer_factory.hpp:77] Creating layer ip1
I0430 17:02:52.228273 18724 net.cpp:86] Creating Layer ip1
I0430 17:02:52.228279 18724 net.cpp:408] ip1 <- data
I0430 17:02:52.228289 18724 net.cpp:382] ip1 -> ip1
I0430 17:02:52.237510 18724 net.cpp:124] Setting up ip1
I0430 17:02:52.237526 18724 net.cpp:131] Top shape: 111 80 (8880)
I0430 17:02:52.237531 18724 net.cpp:139] Memory required for data: 1399932
I0430 17:02:52.237546 18724 layer_factory.hpp:77] Creating layer relu1
I0430 17:02:52.237555 18724 net.cpp:86] Creating Layer relu1
I0430 17:02:52.237560 18724 net.cpp:408] relu1 <- ip1
I0430 17:02:52.237565 18724 net.cpp:369] relu1 -> ip1 (in-place)
I0430 17:02:52.517051 18724 net.cpp:124] Setting up relu1
I0430 17:02:52.517078 18724 net.cpp:131] Top shape: 111 80 (8880)
I0430 17:02:52.517082 18724 net.cpp:139] Memory required for data: 1435452
I0430 17:02:52.517107 18724 layer_factory.hpp:77] Creating layer ip2
I0430 17:02:52.517122 18724 net.cpp:86] Creating Layer ip2
I0430 17:02:52.517125 18724 net.cpp:408] ip2 <- ip1
I0430 17:02:52.517133 18724 net.cpp:382] ip2 -> ip2
I0430 17:02:52.517348 18724 net.cpp:124] Setting up ip2
I0430 17:02:52.517355 18724 net.cpp:131] Top shape: 111 40 (4440)
I0430 17:02:52.517359 18724 net.cpp:139] Memory required for data: 1453212
I0430 17:02:52.517367 18724 layer_factory.hpp:77] Creating layer relu2
I0430 17:02:52.517377 18724 net.cpp:86] Creating Layer relu2
I0430 17:02:52.517396 18724 net.cpp:408] relu2 <- ip2
I0430 17:02:52.517400 18724 net.cpp:369] relu2 -> ip2 (in-place)
I0430 17:02:52.518144 18724 net.cpp:124] Setting up relu2
I0430 17:02:52.518157 18724 net.cpp:131] Top shape: 111 40 (4440)
I0430 17:02:52.518160 18724 net.cpp:139] Memory required for data: 1470972
I0430 17:02:52.518163 18724 layer_factory.hpp:77] Creating layer ip3
I0430 17:02:52.518170 18724 net.cpp:86] Creating Layer ip3
I0430 17:02:52.518174 18724 net.cpp:408] ip3 <- ip2
I0430 17:02:52.518179 18724 net.cpp:382] ip3 -> ip3
I0430 17:02:52.519098 18724 net.cpp:124] Setting up ip3
I0430 17:02:52.519110 18724 net.cpp:131] Top shape: 111 10 (1110)
I0430 17:02:52.519114 18724 net.cpp:139] Memory required for data: 1475412
I0430 17:02:52.519121 18724 layer_factory.hpp:77] Creating layer loss
I0430 17:02:52.519129 18724 net.cpp:86] Creating Layer loss
I0430 17:02:52.519131 18724 net.cpp:408] loss <- ip3
I0430 17:02:52.519135 18724 net.cpp:408] loss <- label
I0430 17:02:52.519140 18724 net.cpp:382] loss -> loss
I0430 17:02:52.519160 18724 layer_factory.hpp:77] Creating layer loss
…
I0430 17:02:52.519736 18724 solver.cpp:173] Creating test net (#0) specified by net file: ECE595/cifar/train_test/var_everything/cifar_train_test_22.prototxt
I0430 17:02:52.519757 18724 net.cpp:296] The NetState phase (1) differed from the phase (0) specified by a rule in layer cifar
I0430 17:02:52.519824 18724 net.cpp:53] Initializing net from parameters: 
name: "CIFAR"
state {
  phase: TEST
}
layer {
  name: "cifar"
  type: "Data"
  top: "data"
  top: "label"
  include {
    phase: TEST
  }
  transform_param {
    mean_file: "examples/cifar10/mean.binaryproto"
  }
  data_param {
    source: "examples/cifar10/cifar10_test_lmdb"
    batch_size: 1000
    backend: LMDB
  }
}
layer {
  name: "ip1"
  type: "InnerProduct"
  bottom: "data"
  top: "ip1"
  param {
    lr_mult: 1
  }
  param {
    lr_mult: 2
  }
  inner_product_param {
    num_output: 80
    weight_filler {
      type: "gaussian"
      std: 0.01
    }
    bias_filler {
      type: "constant"
    }
  }
}
layer {
  name: "relu1"
  type: "ReLU"
  bottom: "ip1"
  top: "ip1"
}
layer {
  name: "ip2"
  type: "InnerProduct"
  bottom: "ip1"
  top: "ip2"
  param {
    lr_mult: 1
  }
  param {
    lr_mult: 2
  }
  inner_product_param {
    num_output: 40
    weight_filler {
      type: "gaussian"
      std: 0.01
    }
    bias_filler {
      type: "constant"
    }
  }
}
layer {
  name: "relu2"
  type: "ReLU"
  bottom: "ip2"
  top: "ip2"
}
layer {
  name: "ip3"
  type: "InnerProduct"
  bottom: "ip2"
  top: "ip3"
  param {
    lr_mult: 1
  }
  param {
    lr_mult: 2
  }
  inner_product_param {
    num_output: 10
    weight_filler {
      type: "gaussian"
      std: 0.01
    }
    bias_filler {
      type: "constant"
    }
  }
}
layer {
  name: "accuracy"
  type: "Accuracy"
  bottom: "ip3"
  bottom: "label"
  top: "accuracy"
  include {
    phase: TEST
  }
}
layer {
  name: "loss"
  type: "SoftmaxWithLoss"
  bottom: "ip3"
  bottom: "label"
  top: "loss"
}
I0430 17:02:52.519887 18724 layer_factory.hpp:77] Creating layer cifar
I0430 17:02:52.519928 18724 db_lmdb.cpp:35] Opened lmdb examples/cifar10/cifar10_test_lmdb
I0430 17:02:52.519940 18724 net.cpp:86] Creating Layer cifar
I0430 17:02:52.519945 18724 net.cpp:382] cifar -> data
I0430 17:02:52.519953 18724 net.cpp:382] cifar -> label
I0430 17:02:52.519958 18724 data_transformer.cpp:25] Loading mean file from: examples/cifar10/mean.binaryproto
I0430 17:02:52.520097 18724 data_layer.cpp:45] output data size: 1000,3,32,32
I0430 17:02:52.541806 18724 net.cpp:124] Setting up cifar
I0430 17:02:52.541829 18724 net.cpp:131] Top shape: 1000 3 32 32 (3072000)
I0430 17:02:52.541836 18724 net.cpp:131] Top shape: 1000 (1000)
I0430 17:02:52.541838 18724 net.cpp:139] Memory required for data: 12292000
I0430 17:02:52.541843 18724 layer_factory.hpp:77] Creating layer label_cifar_1_split
I0430 17:02:52.541874 18724 net.cpp:86] Creating Layer label_cifar_1_split
I0430 17:02:52.541894 18724 net.cpp:408] label_cifar_1_split <- label
I0430 17:02:52.541899 18724 net.cpp:382] label_cifar_1_split -> label_cifar_1_split_0
I0430 17:02:52.541908 18724 net.cpp:382] label_cifar_1_split -> label_cifar_1_split_1
I0430 17:02:52.542001 18724 net.cpp:124] Setting up label_cifar_1_split
I0430 17:02:52.542007 18724 net.cpp:131] Top shape: 1000 (1000)
I0430 17:02:52.542011 18724 net.cpp:131] Top shape: 1000 (1000)
I0430 17:02:52.542013 18724 net.cpp:139] Memory required for data: 12300000
I0430 17:02:52.542016 18724 layer_factory.hpp:77] Creating layer ip1
I0430 17:02:52.542026 18724 net.cpp:86] Creating Layer ip1
I0430 17:02:52.542028 18724 net.cpp:408] ip1 <- data
I0430 17:02:52.542033 18724 net.cpp:382] ip1 -> ip1
I0430 17:02:52.548563 18724 net.cpp:124] Setting up ip1
I0430 17:02:52.548573 18724 net.cpp:131] Top shape: 1000 80 (80000)
I0430 17:02:52.548576 18724 net.cpp:139] Memory required for data: 12620000
I0430 17:02:52.548586 18724 layer_factory.hpp:77] Creating layer relu1
I0430 17:02:52.548593 18724 net.cpp:86] Creating Layer relu1
I0430 17:02:52.548595 18724 net.cpp:408] relu1 <- ip1
I0430 17:02:52.548599 18724 net.cpp:369] relu1 -> ip1 (in-place)
I0430 17:02:52.548792 18724 net.cpp:124] Setting up relu1
I0430 17:02:52.548800 18724 net.cpp:131] Top shape: 1000 80 (80000)
I0430 17:02:52.548804 18724 net.cpp:139] Memory required for data: 12940000
I0430 17:02:52.548807 18724 layer_factory.hpp:77] Creating layer ip2
I0430 17:02:52.548835 18724 net.cpp:86] Creating Layer ip2
I0430 17:02:52.548837 18724 net.cpp:408] ip2 <- ip1
I0430 17:02:52.548858 18724 net.cpp:382] ip2 -> ip2
I0430 17:02:52.549053 18724 net.cpp:124] Setting up ip2
I0430 17:02:52.549060 18724 net.cpp:131] Top shape: 1000 40 (40000)
I0430 17:02:52.549064 18724 net.cpp:139] Memory required for data: 13100000
I0430 17:02:52.549072 18724 layer_factory.hpp:77] Creating layer relu2
I0430 17:02:52.549077 18724 net.cpp:86] Creating Layer relu2
I0430 17:02:52.549082 18724 net.cpp:408] relu2 <- ip2
I0430 17:02:52.549085 18724 net.cpp:369] relu2 -> ip2 (in-place)
I0430 17:02:52.549860 18724 net.cpp:124] Setting up relu2
I0430 17:02:52.549871 18724 net.cpp:131] Top shape: 1000 40 (40000)
I0430 17:02:52.549875 18724 net.cpp:139] Memory required for data: 13260000
I0430 17:02:52.549880 18724 layer_factory.hpp:77] Creating layer ip3
I0430 17:02:52.549886 18724 net.cpp:86] Creating Layer ip3
I0430 17:02:52.549890 18724 net.cpp:408] ip3 <- ip2
I0430 17:02:52.549895 18724 net.cpp:382] ip3 -> ip3
I0430 17:02:52.550032 18724 net.cpp:124] Setting up ip3
I0430 17:02:52.550040 18724 net.cpp:131] Top shape: 1000 10 (10000)
I0430 17:02:52.550043 18724 net.cpp:139] Memory required for data: 13300000
I0430 17:02:52.550066 18724 layer_factory.hpp:77] Creating layer ip3_ip3_0_split
I0430 17:02:52.550072 18724 net.cpp:86] Creating Layer ip3_ip3_0_split
I0430 17:02:52.550076 18724 net.cpp:408] ip3_ip3_0_split <- ip3
I0430 17:02:52.550081 18724 net.cpp:382] ip3_ip3_0_split -> ip3_ip3_0_split_0
I0430 17:02:52.550086 18724 net.cpp:382] ip3_ip3_0_split -> ip3_ip3_0_split_1
I0430 17:02:52.550119 18724 net.cpp:124] Setting up ip3_ip3_0_split
I0430 17:02:52.550124 18724 net.cpp:131] Top shape: 1000 10 (10000)
I0430 17:02:52.550128 18724 net.cpp:131] Top shape: 1000 10 (10000)
I0430 17:02:52.550132 18724 net.cpp:139] Memory required for data: 13380000
I0430 17:02:52.550134 18724 layer_factory.hpp:77] Creating layer accuracy
I0430 17:02:52.550140 18724 net.cpp:86] Creating Layer accuracy
I0430 17:02:52.550143 18724 net.cpp:408] accuracy <- ip3_ip3_0_split_0
I0430 17:02:52.550148 18724 net.cpp:408] accuracy <- label_cifar_1_split_0
I0430 17:02:52.550153 18724 net.cpp:382] accuracy -> accuracy
…
