…
I0501 04:24:56.359753 25090 net.cpp:296] The NetState phase (0) differed from the phase (1) specified by a rule in layer cifar
I0501 04:24:56.359772 25090 net.cpp:296] The NetState phase (0) differed from the phase (1) specified by a rule in layer accuracy
I0501 04:24:56.359877 25090 net.cpp:53] Initializing net from parameters: 
name: "CIFAR"
state {
  phase: TRAIN
  level: 0
  stage: ""
}
layer {
  name: "cifar"
  type: "Data"
  top: "data"
  top: "label"
  include {
    phase: TRAIN
  }
  transform_param {
    mean_file: "examples/cifar10/mean.binaryproto"
  }
  data_param {
    source: "examples/cifar10/cifar10_train_lmdb"
    batch_size: 111
    backend: LMDB
  }
}
layer {
  name: "conv0"
  type: "Convolution"
  bottom: "data"
  top: "conv0"
  param {
    lr_mult: 1
  }
  param {
    lr_mult: 2
  }
  convolution_param {
    num_output: 8
    pad: 2
    kernel_size: 5
    stride: 1
    weight_filler {
      type: "gaussian"
      std: 0.01
    }
    bias_filler {
      type: "constant"
    }
  }
}
layer {
  name: "Sigmoid0"
  type: "Sigmoid"
  bottom: "conv0"
  top: "Sigmoid0"
}
layer {
  name: "pool0"
  type: "Pooling"
  bottom: "Sigmoid0"
  top: "pool0"
  pooling_param {
    pool: AVE
    kernel_size: 3
    stride: 2
  }
}
layer {
  name: "ip1"
  type: "InnerProduct"
  bottom: "pool0"
  top: "ip1"
  param {
    lr_mult: 1
  }
  param {
    lr_mult: 2
  }
  inner_product_param {
    num_output: 20
    weight_filler {
      type: "gaussian"
      std: 0.01
    }
    bias_filler {
      type: "constant"
    }
  }
}
layer {
  name: "relu1"
  type: "ReLU"
  bottom: "ip1"
  top: "ip1"
}
layer {
  name: "ip2"
  type: "InnerProduct"
  bottom: "ip1"
  top: "ip2"
  param {
    lr_mult: 1
  }
  param {
    lr_mult: 2
  }
  inner_product_param {
    num_output: 160
    weight_filler {
      type: "gaussian"
      std: 0.01
    }
    bias_filler {
      type: "constant"
    }
  }
}
layer {
  name: "relu2"
  type: "ReLU"
  bottom: "ip2"
  top: "ip2"
}
layer {
  name: "ip3"
  type: "InnerProduct"
  bottom: "ip2"
  top: "ip3"
  param {
    lr_mult: 1
  }
  param {
    lr_mult: 2
  }
  inner_product_param {
    num_output: 10
    weight_filler {
      type: "gaussian"
      std: 0.01
    }
    bias_filler {
      type: "constant"
    }
  }
}
layer {
  name: "relu3"
  type: "ReLU"
  bottom: "ip3"
  top: "ip3"
}
layer {
  name: "ip4"
  type: "InnerProduct"
  bottom: "ip3"
  top: "ip4"
  param {
    lr_mult: 1
  }
  param {
    lr_mult: 2
  }
  inner_product_param {
    num_output: 10
    weight_filler {
      type: "gaussian"
      std: 0.01
    }
    bias_filler {
      type: "constant"
    }
  }
}
layer {
  name: "loss"
  type: "SoftmaxWithLoss"
  bottom: "ip4"
  bottom: "label"
  top: "loss"
}
I0501 04:24:56.359961 25090 layer_factory.hpp:77] Creating layer cifar
I0501 04:24:56.360059 25090 db_lmdb.cpp:35] Opened lmdb examples/cifar10/cifar10_train_lmdb
I0501 04:24:56.360086 25090 net.cpp:86] Creating Layer cifar
I0501 04:24:56.360095 25090 net.cpp:382] cifar -> data
I0501 04:24:56.360118 25090 net.cpp:382] cifar -> label
I0501 04:24:56.360131 25090 data_transformer.cpp:25] Loading mean file from: examples/cifar10/mean.binaryproto
I0501 04:24:56.362290 25090 data_layer.cpp:45] output data size: 111,3,32,32
I0501 04:24:56.370205 25090 net.cpp:124] Setting up cifar
I0501 04:24:56.370225 25090 net.cpp:131] Top shape: 111 3 32 32 (340992)
I0501 04:24:56.370231 25090 net.cpp:131] Top shape: 111 (111)
I0501 04:24:56.370235 25090 net.cpp:139] Memory required for data: 1364412
I0501 04:24:56.370257 25090 layer_factory.hpp:77] Creating layer conv0
I0501 04:24:56.370275 25090 net.cpp:86] Creating Layer conv0
I0501 04:24:56.370281 25090 net.cpp:408] conv0 <- data
I0501 04:24:56.370292 25090 net.cpp:382] conv0 -> conv0
I0501 04:24:56.635805 25090 net.cpp:124] Setting up conv0
I0501 04:24:56.635831 25090 net.cpp:131] Top shape: 111 8 32 32 (909312)
I0501 04:24:56.635835 25090 net.cpp:139] Memory required for data: 5001660
I0501 04:24:56.635849 25090 layer_factory.hpp:77] Creating layer Sigmoid0
I0501 04:24:56.635876 25090 net.cpp:86] Creating Layer Sigmoid0
I0501 04:24:56.635880 25090 net.cpp:408] Sigmoid0 <- conv0
I0501 04:24:56.635885 25090 net.cpp:382] Sigmoid0 -> Sigmoid0
I0501 04:24:56.636116 25090 net.cpp:124] Setting up Sigmoid0
I0501 04:24:56.636126 25090 net.cpp:131] Top shape: 111 8 32 32 (909312)
I0501 04:24:56.636128 25090 net.cpp:139] Memory required for data: 8638908
I0501 04:24:56.636132 25090 layer_factory.hpp:77] Creating layer pool0
I0501 04:24:56.636138 25090 net.cpp:86] Creating Layer pool0
I0501 04:24:56.636142 25090 net.cpp:408] pool0 <- Sigmoid0
I0501 04:24:56.636147 25090 net.cpp:382] pool0 -> pool0
I0501 04:24:56.636955 25090 net.cpp:124] Setting up pool0
I0501 04:24:56.636968 25090 net.cpp:131] Top shape: 111 8 16 16 (227328)
I0501 04:24:56.636971 25090 net.cpp:139] Memory required for data: 9548220
I0501 04:24:56.636975 25090 layer_factory.hpp:77] Creating layer ip1
I0501 04:24:56.636999 25090 net.cpp:86] Creating Layer ip1
I0501 04:24:56.637002 25090 net.cpp:408] ip1 <- pool0
I0501 04:24:56.637007 25090 net.cpp:382] ip1 -> ip1
I0501 04:24:56.638927 25090 net.cpp:124] Setting up ip1
I0501 04:24:56.638938 25090 net.cpp:131] Top shape: 111 20 (2220)
I0501 04:24:56.638942 25090 net.cpp:139] Memory required for data: 9557100
I0501 04:24:56.638948 25090 layer_factory.hpp:77] Creating layer relu1
I0501 04:24:56.638954 25090 net.cpp:86] Creating Layer relu1
I0501 04:24:56.638957 25090 net.cpp:408] relu1 <- ip1
I0501 04:24:56.638962 25090 net.cpp:369] relu1 -> ip1 (in-place)
I0501 04:24:56.639127 25090 net.cpp:124] Setting up relu1
I0501 04:24:56.639133 25090 net.cpp:131] Top shape: 111 20 (2220)
I0501 04:24:56.639137 25090 net.cpp:139] Memory required for data: 9565980
I0501 04:24:56.639139 25090 layer_factory.hpp:77] Creating layer ip2
I0501 04:24:56.639145 25090 net.cpp:86] Creating Layer ip2
I0501 04:24:56.639148 25090 net.cpp:408] ip2 <- ip1
I0501 04:24:56.639153 25090 net.cpp:382] ip2 -> ip2
I0501 04:24:56.639333 25090 net.cpp:124] Setting up ip2
I0501 04:24:56.639339 25090 net.cpp:131] Top shape: 111 160 (17760)
I0501 04:24:56.639343 25090 net.cpp:139] Memory required for data: 9637020
I0501 04:24:56.639348 25090 layer_factory.hpp:77] Creating layer relu2
I0501 04:24:56.639353 25090 net.cpp:86] Creating Layer relu2
I0501 04:24:56.639356 25090 net.cpp:408] relu2 <- ip2
I0501 04:24:56.639360 25090 net.cpp:369] relu2 -> ip2 (in-place)
I0501 04:24:56.639506 25090 net.cpp:124] Setting up relu2
I0501 04:24:56.639514 25090 net.cpp:131] Top shape: 111 160 (17760)
I0501 04:24:56.639518 25090 net.cpp:139] Memory required for data: 9708060
I0501 04:24:56.639520 25090 layer_factory.hpp:77] Creating layer ip3
I0501 04:24:56.639528 25090 net.cpp:86] Creating Layer ip3
I0501 04:24:56.639530 25090 net.cpp:408] ip3 <- ip2
I0501 04:24:56.639534 25090 net.cpp:382] ip3 -> ip3
I0501 04:24:56.639675 25090 net.cpp:124] Setting up ip3
I0501 04:24:56.639683 25090 net.cpp:131] Top shape: 111 10 (1110)
I0501 04:24:56.639685 25090 net.cpp:139] Memory required for data: 9712500
I0501 04:24:56.639690 25090 layer_factory.hpp:77] Creating layer relu3
I0501 04:24:56.639694 25090 net.cpp:86] Creating Layer relu3
I0501 04:24:56.639698 25090 net.cpp:408] relu3 <- ip3
I0501 04:24:56.639701 25090 net.cpp:369] relu3 -> ip3 (in-place)
I0501 04:24:56.639837 25090 net.cpp:124] Setting up relu3
I0501 04:24:56.639844 25090 net.cpp:131] Top shape: 111 10 (1110)
I0501 04:24:56.639847 25090 net.cpp:139] Memory required for data: 9716940
I0501 04:24:56.639850 25090 layer_factory.hpp:77] Creating layer ip4
I0501 04:24:56.639869 25090 net.cpp:86] Creating Layer ip4
I0501 04:24:56.639873 25090 net.cpp:408] ip4 <- ip3
I0501 04:24:56.639878 25090 net.cpp:382] ip4 -> ip4
I0501 04:24:56.639966 25090 net.cpp:124] Setting up ip4
I0501 04:24:56.639973 25090 net.cpp:131] Top shape: 111 10 (1110)
I0501 04:24:56.639976 25090 net.cpp:139] Memory required for data: 9721380
I0501 04:24:56.639983 25090 layer_factory.hpp:77] Creating layer loss
I0501 04:24:56.639987 25090 net.cpp:86] Creating Layer loss
I0501 04:24:56.639991 25090 net.cpp:408] loss <- ip4
I0501 04:24:56.639994 25090 net.cpp:408] loss <- label
I0501 04:24:56.639999 25090 net.cpp:382] loss -> loss
I0501 04:24:56.640015 25090 layer_factory.hpp:77] Creating layer loss
…
I0501 04:24:56.641284 25090 solver.cpp:173] Creating test net (#0) specified by net file: ECE595/cifar/train_test/var_everything/cifar_train_test_385.prototxt
I0501 04:24:56.641325 25090 net.cpp:296] The NetState phase (1) differed from the phase (0) specified by a rule in layer cifar
I0501 04:24:56.641443 25090 net.cpp:53] Initializing net from parameters: 
name: "CIFAR"
state {
  phase: TEST
}
layer {
  name: "cifar"
  type: "Data"
  top: "data"
  top: "label"
  include {
    phase: TEST
  }
  transform_param {
    mean_file: "examples/cifar10/mean.binaryproto"
  }
  data_param {
    source: "examples/cifar10/cifar10_test_lmdb"
    batch_size: 1000
    backend: LMDB
  }
}
layer {
  name: "conv0"
  type: "Convolution"
  bottom: "data"
  top: "conv0"
  param {
    lr_mult: 1
  }
  param {
    lr_mult: 2
  }
  convolution_param {
    num_output: 8
    pad: 2
    kernel_size: 5
    stride: 1
    weight_filler {
      type: "gaussian"
      std: 0.01
    }
    bias_filler {
      type: "constant"
    }
  }
}
layer {
  name: "Sigmoid0"
  type: "Sigmoid"
  bottom: "conv0"
  top: "Sigmoid0"
}
layer {
  name: "pool0"
  type: "Pooling"
  bottom: "Sigmoid0"
  top: "pool0"
  pooling_param {
    pool: AVE
    kernel_size: 3
    stride: 2
  }
}
layer {
  name: "ip1"
  type: "InnerProduct"
  bottom: "pool0"
  top: "ip1"
  param {
    lr_mult: 1
  }
  param {
    lr_mult: 2
  }
  inner_product_param {
    num_output: 20
    weight_filler {
      type: "gaussian"
      std: 0.01
    }
    bias_filler {
      type: "constant"
    }
  }
}
layer {
  name: "relu1"
  type: "ReLU"
  bottom: "ip1"
  top: "ip1"
}
layer {
  name: "ip2"
  type: "InnerProduct"
  bottom: "ip1"
  top: "ip2"
  param {
    lr_mult: 1
  }
  param {
    lr_mult: 2
  }
  inner_product_param {
    num_output: 160
    weight_filler {
      type: "gaussian"
      std: 0.01
    }
    bias_filler {
      type: "constant"
    }
  }
}
layer {
  name: "relu2"
  type: "ReLU"
  bottom: "ip2"
  top: "ip2"
}
layer {
  name: "ip3"
  type: "InnerProduct"
  bottom: "ip2"
  top: "ip3"
  param {
    lr_mult: 1
  }
  param {
    lr_mult: 2
  }
  inner_product_param {
    num_output: 10
    weight_filler {
      type: "gaussian"
      std: 0.01
    }
    bias_filler {
      type: "constant"
    }
  }
}
layer {
  name: "relu3"
  type: "ReLU"
  bottom: "ip3"
  top: "ip3"
}
layer {
  name: "ip4"
  type: "InnerProduct"
  bottom: "ip3"
  top: "ip4"
  param {
    lr_mult: 1
  }
  param {
    lr_mult: 2
  }
  inner_product_param {
    num_output: 10
    weight_filler {
      type: "gaussian"
      std: 0.01
    }
    bias_filler {
      type: "constant"
    }
  }
}
layer {
  name: "accuracy"
  type: "Accuracy"
  bottom: "ip4"
  bottom: "label"
  top: "accuracy"
  include {
    phase: TEST
  }
}
layer {
  name: "loss"
  type: "SoftmaxWithLoss"
  bottom: "ip4"
  bottom: "label"
  top: "loss"
}
I0501 04:24:56.641535 25090 layer_factory.hpp:77] Creating layer cifar
I0501 04:24:56.641578 25090 db_lmdb.cpp:35] Opened lmdb examples/cifar10/cifar10_test_lmdb
I0501 04:24:56.641589 25090 net.cpp:86] Creating Layer cifar
I0501 04:24:56.641594 25090 net.cpp:382] cifar -> data
I0501 04:24:56.641602 25090 net.cpp:382] cifar -> label
I0501 04:24:56.641607 25090 data_transformer.cpp:25] Loading mean file from: examples/cifar10/mean.binaryproto
I0501 04:24:56.641752 25090 data_layer.cpp:45] output data size: 1000,3,32,32
I0501 04:24:56.662914 25090 net.cpp:124] Setting up cifar
I0501 04:24:56.662955 25090 net.cpp:131] Top shape: 1000 3 32 32 (3072000)
I0501 04:24:56.662961 25090 net.cpp:131] Top shape: 1000 (1000)
I0501 04:24:56.662966 25090 net.cpp:139] Memory required for data: 12292000
I0501 04:24:56.662971 25090 layer_factory.hpp:77] Creating layer label_cifar_1_split
I0501 04:24:56.662987 25090 net.cpp:86] Creating Layer label_cifar_1_split
I0501 04:24:56.662992 25090 net.cpp:408] label_cifar_1_split <- label
I0501 04:24:56.662998 25090 net.cpp:382] label_cifar_1_split -> label_cifar_1_split_0
I0501 04:24:56.663007 25090 net.cpp:382] label_cifar_1_split -> label_cifar_1_split_1
I0501 04:24:56.663107 25090 net.cpp:124] Setting up label_cifar_1_split
I0501 04:24:56.663115 25090 net.cpp:131] Top shape: 1000 (1000)
I0501 04:24:56.663118 25090 net.cpp:131] Top shape: 1000 (1000)
I0501 04:24:56.663121 25090 net.cpp:139] Memory required for data: 12300000
I0501 04:24:56.663125 25090 layer_factory.hpp:77] Creating layer conv0
I0501 04:24:56.663137 25090 net.cpp:86] Creating Layer conv0
I0501 04:24:56.663142 25090 net.cpp:408] conv0 <- data
I0501 04:24:56.663163 25090 net.cpp:382] conv0 -> conv0
I0501 04:24:56.664834 25090 net.cpp:124] Setting up conv0
I0501 04:24:56.664863 25090 net.cpp:131] Top shape: 1000 8 32 32 (8192000)
I0501 04:24:56.664867 25090 net.cpp:139] Memory required for data: 45068000
I0501 04:24:56.664892 25090 layer_factory.hpp:77] Creating layer Sigmoid0
I0501 04:24:56.664916 25090 net.cpp:86] Creating Layer Sigmoid0
I0501 04:24:56.664921 25090 net.cpp:408] Sigmoid0 <- conv0
I0501 04:24:56.664925 25090 net.cpp:382] Sigmoid0 -> Sigmoid0
I0501 04:24:56.665184 25090 net.cpp:124] Setting up Sigmoid0
I0501 04:24:56.665197 25090 net.cpp:131] Top shape: 1000 8 32 32 (8192000)
I0501 04:24:56.665200 25090 net.cpp:139] Memory required for data: 77836000
I0501 04:24:56.665205 25090 layer_factory.hpp:77] Creating layer pool0
I0501 04:24:56.665243 25090 net.cpp:86] Creating Layer pool0
I0501 04:24:56.665247 25090 net.cpp:408] pool0 <- Sigmoid0
I0501 04:24:56.665266 25090 net.cpp:382] pool0 -> pool0
I0501 04:24:56.666416 25090 net.cpp:124] Setting up pool0
I0501 04:24:56.666426 25090 net.cpp:131] Top shape: 1000 8 16 16 (2048000)
I0501 04:24:56.666445 25090 net.cpp:139] Memory required for data: 86028000
I0501 04:24:56.666447 25090 layer_factory.hpp:77] Creating layer ip1
I0501 04:24:56.666456 25090 net.cpp:86] Creating Layer ip1
I0501 04:24:56.666461 25090 net.cpp:408] ip1 <- pool0
I0501 04:24:56.666465 25090 net.cpp:382] ip1 -> ip1
I0501 04:24:56.667641 25090 net.cpp:124] Setting up ip1
I0501 04:24:56.667665 25090 net.cpp:131] Top shape: 1000 20 (20000)
I0501 04:24:56.667667 25090 net.cpp:139] Memory required for data: 86108000
I0501 04:24:56.667704 25090 layer_factory.hpp:77] Creating layer relu1
I0501 04:24:56.667711 25090 net.cpp:86] Creating Layer relu1
I0501 04:24:56.667713 25090 net.cpp:408] relu1 <- ip1
I0501 04:24:56.667733 25090 net.cpp:369] relu1 -> ip1 (in-place)
I0501 04:24:56.667902 25090 net.cpp:124] Setting up relu1
I0501 04:24:56.667913 25090 net.cpp:131] Top shape: 1000 20 (20000)
I0501 04:24:56.667917 25090 net.cpp:139] Memory required for data: 86188000
I0501 04:24:56.667919 25090 layer_factory.hpp:77] Creating layer ip2
I0501 04:24:56.667925 25090 net.cpp:86] Creating Layer ip2
I0501 04:24:56.667928 25090 net.cpp:408] ip2 <- ip1
I0501 04:24:56.667934 25090 net.cpp:382] ip2 -> ip2
I0501 04:24:56.668139 25090 net.cpp:124] Setting up ip2
I0501 04:24:56.668148 25090 net.cpp:131] Top shape: 1000 160 (160000)
I0501 04:24:56.668150 25090 net.cpp:139] Memory required for data: 86828000
I0501 04:24:56.668156 25090 layer_factory.hpp:77] Creating layer relu2
I0501 04:24:56.668164 25090 net.cpp:86] Creating Layer relu2
I0501 04:24:56.668166 25090 net.cpp:408] relu2 <- ip2
I0501 04:24:56.668170 25090 net.cpp:369] relu2 -> ip2 (in-place)
I0501 04:24:56.668946 25090 net.cpp:124] Setting up relu2
I0501 04:24:56.668958 25090 net.cpp:131] Top shape: 1000 160 (160000)
I0501 04:24:56.668978 25090 net.cpp:139] Memory required for data: 87468000
I0501 04:24:56.668982 25090 layer_factory.hpp:77] Creating layer ip3
I0501 04:24:56.668988 25090 net.cpp:86] Creating Layer ip3
I0501 04:24:56.668992 25090 net.cpp:408] ip3 <- ip2
I0501 04:24:56.668999 25090 net.cpp:382] ip3 -> ip3
I0501 04:24:56.669195 25090 net.cpp:124] Setting up ip3
I0501 04:24:56.669203 25090 net.cpp:131] Top shape: 1000 10 (10000)
I0501 04:24:56.669206 25090 net.cpp:139] Memory required for data: 87508000
I0501 04:24:56.669212 25090 layer_factory.hpp:77] Creating layer relu3
I0501 04:24:56.669219 25090 net.cpp:86] Creating Layer relu3
I0501 04:24:56.669221 25090 net.cpp:408] relu3 <- ip3
I0501 04:24:56.669225 25090 net.cpp:369] relu3 -> ip3 (in-place)
I0501 04:24:56.669374 25090 net.cpp:124] Setting up relu3
I0501 04:24:56.669383 25090 net.cpp:131] Top shape: 1000 10 (10000)
I0501 04:24:56.669385 25090 net.cpp:139] Memory required for data: 87548000
I0501 04:24:56.669389 25090 layer_factory.hpp:77] Creating layer ip4
I0501 04:24:56.669395 25090 net.cpp:86] Creating Layer ip4
I0501 04:24:56.669399 25090 net.cpp:408] ip4 <- ip3
I0501 04:24:56.669404 25090 net.cpp:382] ip4 -> ip4
I0501 04:24:56.669507 25090 net.cpp:124] Setting up ip4
I0501 04:24:56.669514 25090 net.cpp:131] Top shape: 1000 10 (10000)
I0501 04:24:56.669517 25090 net.cpp:139] Memory required for data: 87588000
I0501 04:24:56.669525 25090 layer_factory.hpp:77] Creating layer ip4_ip4_0_split
I0501 04:24:56.669530 25090 net.cpp:86] Creating Layer ip4_ip4_0_split
I0501 04:24:56.669533 25090 net.cpp:408] ip4_ip4_0_split <- ip4
I0501 04:24:56.669538 25090 net.cpp:382] ip4_ip4_0_split -> ip4_ip4_0_split_0
I0501 04:24:56.669543 25090 net.cpp:382] ip4_ip4_0_split -> ip4_ip4_0_split_1
I0501 04:24:56.669574 25090 net.cpp:124] Setting up ip4_ip4_0_split
I0501 04:24:56.669580 25090 net.cpp:131] Top shape: 1000 10 (10000)
I0501 04:24:56.669584 25090 net.cpp:131] Top shape: 1000 10 (10000)
I0501 04:24:56.669586 25090 net.cpp:139] Memory required for data: 87668000
I0501 04:24:56.669589 25090 layer_factory.hpp:77] Creating layer accuracy
I0501 04:24:56.669596 25090 net.cpp:86] Creating Layer accuracy
I0501 04:24:56.669600 25090 net.cpp:408] accuracy <- ip4_ip4_0_split_0
I0501 04:24:56.669603 25090 net.cpp:408] accuracy <- label_cifar_1_split_0
I0501 04:24:56.669607 25090 net.cpp:382] accuracy -> accuracy
…
