…
I0430 19:18:06.084216 25648 net.cpp:296] The NetState phase (0) differed from the phase (1) specified by a rule in layer cifar
I0430 19:18:06.084259 25648 net.cpp:296] The NetState phase (0) differed from the phase (1) specified by a rule in layer accuracy
I0430 19:18:06.084357 25648 net.cpp:53] Initializing net from parameters: 
name: "CIFAR"
state {
  phase: TRAIN
  level: 0
  stage: ""
}
layer {
  name: "cifar"
  type: "Data"
  top: "data"
  top: "label"
  include {
    phase: TRAIN
  }
  transform_param {
    mean_file: "examples/cifar10/mean.binaryproto"
  }
  data_param {
    source: "examples/cifar10/cifar10_train_lmdb"
    batch_size: 111
    backend: LMDB
  }
}
layer {
  name: "ip1"
  type: "InnerProduct"
  bottom: "data"
  top: "ip1"
  param {
    lr_mult: 1
  }
  param {
    lr_mult: 2
  }
  inner_product_param {
    num_output: 40
    weight_filler {
      type: "gaussian"
      std: 0.01
    }
    bias_filler {
      type: "constant"
    }
  }
}
layer {
  name: "relu1"
  type: "ReLU"
  bottom: "ip1"
  top: "ip1"
}
layer {
  name: "ip2"
  type: "InnerProduct"
  bottom: "ip1"
  top: "ip2"
  param {
    lr_mult: 1
  }
  param {
    lr_mult: 2
  }
  inner_product_param {
    num_output: 40
    weight_filler {
      type: "gaussian"
      std: 0.01
    }
    bias_filler {
      type: "constant"
    }
  }
}
layer {
  name: "relu2"
  type: "ReLU"
  bottom: "ip2"
  top: "ip2"
}
layer {
  name: "ip3"
  type: "InnerProduct"
  bottom: "ip2"
  top: "ip3"
  param {
    lr_mult: 1
  }
  param {
    lr_mult: 2
  }
  inner_product_param {
    num_output: 80
    weight_filler {
      type: "gaussian"
      std: 0.01
    }
    bias_filler {
      type: "constant"
    }
  }
}
layer {
  name: "relu3"
  type: "ReLU"
  bottom: "ip3"
  top: "ip3"
}
layer {
  name: "ip4"
  type: "InnerProduct"
  bottom: "ip3"
  top: "ip4"
  param {
    lr_mult: 1
  }
  param {
    lr_mult: 2
  }
  inner_product_param {
    num_output: 10
    weight_filler {
      type: "gaussian"
      std: 0.01
    }
    bias_filler {
      type: "constant"
    }
  }
}
layer {
  name: "loss"
  type: "SoftmaxWithLoss"
  bottom: "ip4"
  bottom: "label"
  top: "loss"
}
I0430 19:18:06.084414 25648 layer_factory.hpp:77] Creating layer cifar
I0430 19:18:06.084493 25648 db_lmdb.cpp:35] Opened lmdb examples/cifar10/cifar10_train_lmdb
I0430 19:18:06.084532 25648 net.cpp:86] Creating Layer cifar
I0430 19:18:06.084542 25648 net.cpp:382] cifar -> data
I0430 19:18:06.084559 25648 net.cpp:382] cifar -> label
I0430 19:18:06.084573 25648 data_transformer.cpp:25] Loading mean file from: examples/cifar10/mean.binaryproto
I0430 19:18:06.086446 25648 data_layer.cpp:45] output data size: 111,3,32,32
I0430 19:18:06.092878 25648 net.cpp:124] Setting up cifar
I0430 19:18:06.092895 25648 net.cpp:131] Top shape: 111 3 32 32 (340992)
I0430 19:18:06.092944 25648 net.cpp:131] Top shape: 111 (111)
I0430 19:18:06.092948 25648 net.cpp:139] Memory required for data: 1364412
I0430 19:18:06.092954 25648 layer_factory.hpp:77] Creating layer ip1
I0430 19:18:06.092964 25648 net.cpp:86] Creating Layer ip1
I0430 19:18:06.092968 25648 net.cpp:408] ip1 <- data
I0430 19:18:06.092978 25648 net.cpp:382] ip1 -> ip1
I0430 19:18:06.096307 25648 net.cpp:124] Setting up ip1
I0430 19:18:06.096315 25648 net.cpp:131] Top shape: 111 40 (4440)
I0430 19:18:06.096318 25648 net.cpp:139] Memory required for data: 1382172
I0430 19:18:06.096328 25648 layer_factory.hpp:77] Creating layer relu1
I0430 19:18:06.096335 25648 net.cpp:86] Creating Layer relu1
I0430 19:18:06.096352 25648 net.cpp:408] relu1 <- ip1
I0430 19:18:06.096360 25648 net.cpp:369] relu1 -> ip1 (in-place)
I0430 19:18:06.320794 25648 net.cpp:124] Setting up relu1
I0430 19:18:06.320858 25648 net.cpp:131] Top shape: 111 40 (4440)
I0430 19:18:06.320863 25648 net.cpp:139] Memory required for data: 1399932
I0430 19:18:06.320868 25648 layer_factory.hpp:77] Creating layer ip2
I0430 19:18:06.320883 25648 net.cpp:86] Creating Layer ip2
I0430 19:18:06.320888 25648 net.cpp:408] ip2 <- ip1
I0430 19:18:06.320894 25648 net.cpp:382] ip2 -> ip2
I0430 19:18:06.321070 25648 net.cpp:124] Setting up ip2
I0430 19:18:06.321079 25648 net.cpp:131] Top shape: 111 40 (4440)
I0430 19:18:06.321082 25648 net.cpp:139] Memory required for data: 1417692
I0430 19:18:06.321092 25648 layer_factory.hpp:77] Creating layer relu2
I0430 19:18:06.321102 25648 net.cpp:86] Creating Layer relu2
I0430 19:18:06.321121 25648 net.cpp:408] relu2 <- ip2
I0430 19:18:06.321125 25648 net.cpp:369] relu2 -> ip2 (in-place)
I0430 19:18:06.321920 25648 net.cpp:124] Setting up relu2
I0430 19:18:06.321933 25648 net.cpp:131] Top shape: 111 40 (4440)
I0430 19:18:06.321952 25648 net.cpp:139] Memory required for data: 1435452
I0430 19:18:06.321955 25648 layer_factory.hpp:77] Creating layer ip3
I0430 19:18:06.321962 25648 net.cpp:86] Creating Layer ip3
I0430 19:18:06.321981 25648 net.cpp:408] ip3 <- ip2
I0430 19:18:06.321987 25648 net.cpp:382] ip3 -> ip3
I0430 19:18:06.322177 25648 net.cpp:124] Setting up ip3
I0430 19:18:06.322185 25648 net.cpp:131] Top shape: 111 80 (8880)
I0430 19:18:06.322188 25648 net.cpp:139] Memory required for data: 1470972
I0430 19:18:06.322196 25648 layer_factory.hpp:77] Creating layer relu3
I0430 19:18:06.322201 25648 net.cpp:86] Creating Layer relu3
I0430 19:18:06.322204 25648 net.cpp:408] relu3 <- ip3
I0430 19:18:06.322208 25648 net.cpp:369] relu3 -> ip3 (in-place)
I0430 19:18:06.322374 25648 net.cpp:124] Setting up relu3
I0430 19:18:06.322383 25648 net.cpp:131] Top shape: 111 80 (8880)
I0430 19:18:06.322386 25648 net.cpp:139] Memory required for data: 1506492
I0430 19:18:06.322389 25648 layer_factory.hpp:77] Creating layer ip4
I0430 19:18:06.322396 25648 net.cpp:86] Creating Layer ip4
I0430 19:18:06.322398 25648 net.cpp:408] ip4 <- ip3
I0430 19:18:06.322403 25648 net.cpp:382] ip4 -> ip4
I0430 19:18:06.323343 25648 net.cpp:124] Setting up ip4
I0430 19:18:06.323354 25648 net.cpp:131] Top shape: 111 10 (1110)
I0430 19:18:06.323374 25648 net.cpp:139] Memory required for data: 1510932
I0430 19:18:06.323380 25648 layer_factory.hpp:77] Creating layer loss
I0430 19:18:06.323387 25648 net.cpp:86] Creating Layer loss
I0430 19:18:06.323390 25648 net.cpp:408] loss <- ip4
I0430 19:18:06.323395 25648 net.cpp:408] loss <- label
I0430 19:18:06.323403 25648 net.cpp:382] loss -> loss
I0430 19:18:06.323439 25648 layer_factory.hpp:77] Creating layer loss
…
I0430 19:18:06.324005 25648 solver.cpp:173] Creating test net (#0) specified by net file: ECE595/cifar/train_test/var_everything/cifar_train_test_93.prototxt
I0430 19:18:06.324043 25648 net.cpp:296] The NetState phase (1) differed from the phase (0) specified by a rule in layer cifar
I0430 19:18:06.324116 25648 net.cpp:53] Initializing net from parameters: 
name: "CIFAR"
state {
  phase: TEST
}
layer {
  name: "cifar"
  type: "Data"
  top: "data"
  top: "label"
  include {
    phase: TEST
  }
  transform_param {
    mean_file: "examples/cifar10/mean.binaryproto"
  }
  data_param {
    source: "examples/cifar10/cifar10_test_lmdb"
    batch_size: 1000
    backend: LMDB
  }
}
layer {
  name: "ip1"
  type: "InnerProduct"
  bottom: "data"
  top: "ip1"
  param {
    lr_mult: 1
  }
  param {
    lr_mult: 2
  }
  inner_product_param {
    num_output: 40
    weight_filler {
      type: "gaussian"
      std: 0.01
    }
    bias_filler {
      type: "constant"
    }
  }
}
layer {
  name: "relu1"
  type: "ReLU"
  bottom: "ip1"
  top: "ip1"
}
layer {
  name: "ip2"
  type: "InnerProduct"
  bottom: "ip1"
  top: "ip2"
  param {
    lr_mult: 1
  }
  param {
    lr_mult: 2
  }
  inner_product_param {
    num_output: 40
    weight_filler {
      type: "gaussian"
      std: 0.01
    }
    bias_filler {
      type: "constant"
    }
  }
}
layer {
  name: "relu2"
  type: "ReLU"
  bottom: "ip2"
  top: "ip2"
}
layer {
  name: "ip3"
  type: "InnerProduct"
  bottom: "ip2"
  top: "ip3"
  param {
    lr_mult: 1
  }
  param {
    lr_mult: 2
  }
  inner_product_param {
    num_output: 80
    weight_filler {
      type: "gaussian"
      std: 0.01
    }
    bias_filler {
      type: "constant"
    }
  }
}
layer {
  name: "relu3"
  type: "ReLU"
  bottom: "ip3"
  top: "ip3"
}
layer {
  name: "ip4"
  type: "InnerProduct"
  bottom: "ip3"
  top: "ip4"
  param {
    lr_mult: 1
  }
  param {
    lr_mult: 2
  }
  inner_product_param {
    num_output: 10
    weight_filler {
      type: "gaussian"
      std: 0.01
    }
    bias_filler {
      type: "constant"
    }
  }
}
layer {
  name: "accuracy"
  type: "Accuracy"
  bottom: "ip4"
  bottom: "label"
  top: "accuracy"
  include {
    phase: TEST
  }
}
layer {
  name: "loss"
  type: "SoftmaxWithLoss"
  bottom: "ip4"
  bottom: "label"
  top: "loss"
}
I0430 19:18:06.324173 25648 layer_factory.hpp:77] Creating layer cifar
I0430 19:18:06.324219 25648 db_lmdb.cpp:35] Opened lmdb examples/cifar10/cifar10_test_lmdb
I0430 19:18:06.324231 25648 net.cpp:86] Creating Layer cifar
I0430 19:18:06.324235 25648 net.cpp:382] cifar -> data
I0430 19:18:06.324244 25648 net.cpp:382] cifar -> label
I0430 19:18:06.324249 25648 data_transformer.cpp:25] Loading mean file from: examples/cifar10/mean.binaryproto
I0430 19:18:06.324385 25648 data_layer.cpp:45] output data size: 1000,3,32,32
I0430 19:18:06.346001 25648 net.cpp:124] Setting up cifar
I0430 19:18:06.346043 25648 net.cpp:131] Top shape: 1000 3 32 32 (3072000)
I0430 19:18:06.346050 25648 net.cpp:131] Top shape: 1000 (1000)
I0430 19:18:06.346053 25648 net.cpp:139] Memory required for data: 12292000
I0430 19:18:06.346060 25648 layer_factory.hpp:77] Creating layer label_cifar_1_split
I0430 19:18:06.346107 25648 net.cpp:86] Creating Layer label_cifar_1_split
I0430 19:18:06.346112 25648 net.cpp:408] label_cifar_1_split <- label
I0430 19:18:06.346118 25648 net.cpp:382] label_cifar_1_split -> label_cifar_1_split_0
I0430 19:18:06.346127 25648 net.cpp:382] label_cifar_1_split -> label_cifar_1_split_1
I0430 19:18:06.346184 25648 net.cpp:124] Setting up label_cifar_1_split
I0430 19:18:06.346189 25648 net.cpp:131] Top shape: 1000 (1000)
I0430 19:18:06.346194 25648 net.cpp:131] Top shape: 1000 (1000)
I0430 19:18:06.346197 25648 net.cpp:139] Memory required for data: 12300000
I0430 19:18:06.346201 25648 layer_factory.hpp:77] Creating layer ip1
I0430 19:18:06.346210 25648 net.cpp:86] Creating Layer ip1
I0430 19:18:06.346213 25648 net.cpp:408] ip1 <- data
I0430 19:18:06.346218 25648 net.cpp:382] ip1 -> ip1
I0430 19:18:06.349637 25648 net.cpp:124] Setting up ip1
I0430 19:18:06.349647 25648 net.cpp:131] Top shape: 1000 40 (40000)
I0430 19:18:06.349666 25648 net.cpp:139] Memory required for data: 12460000
I0430 19:18:06.349690 25648 layer_factory.hpp:77] Creating layer relu1
I0430 19:18:06.349697 25648 net.cpp:86] Creating Layer relu1
I0430 19:18:06.349701 25648 net.cpp:408] relu1 <- ip1
I0430 19:18:06.349721 25648 net.cpp:369] relu1 -> ip1 (in-place)
I0430 19:18:06.350507 25648 net.cpp:124] Setting up relu1
I0430 19:18:06.350535 25648 net.cpp:131] Top shape: 1000 40 (40000)
I0430 19:18:06.350538 25648 net.cpp:139] Memory required for data: 12620000
I0430 19:18:06.350543 25648 layer_factory.hpp:77] Creating layer ip2
I0430 19:18:06.350550 25648 net.cpp:86] Creating Layer ip2
I0430 19:18:06.350554 25648 net.cpp:408] ip2 <- ip1
I0430 19:18:06.350559 25648 net.cpp:382] ip2 -> ip2
I0430 19:18:06.350728 25648 net.cpp:124] Setting up ip2
I0430 19:18:06.350735 25648 net.cpp:131] Top shape: 1000 40 (40000)
I0430 19:18:06.350739 25648 net.cpp:139] Memory required for data: 12780000
I0430 19:18:06.350747 25648 layer_factory.hpp:77] Creating layer relu2
I0430 19:18:06.350754 25648 net.cpp:86] Creating Layer relu2
I0430 19:18:06.350756 25648 net.cpp:408] relu2 <- ip2
I0430 19:18:06.350760 25648 net.cpp:369] relu2 -> ip2 (in-place)
I0430 19:18:06.350920 25648 net.cpp:124] Setting up relu2
I0430 19:18:06.350930 25648 net.cpp:131] Top shape: 1000 40 (40000)
I0430 19:18:06.350934 25648 net.cpp:139] Memory required for data: 12940000
I0430 19:18:06.350936 25648 layer_factory.hpp:77] Creating layer ip3
I0430 19:18:06.350942 25648 net.cpp:86] Creating Layer ip3
I0430 19:18:06.350945 25648 net.cpp:408] ip3 <- ip2
I0430 19:18:06.350950 25648 net.cpp:382] ip3 -> ip3
I0430 19:18:06.351140 25648 net.cpp:124] Setting up ip3
I0430 19:18:06.351146 25648 net.cpp:131] Top shape: 1000 80 (80000)
I0430 19:18:06.351150 25648 net.cpp:139] Memory required for data: 13260000
I0430 19:18:06.351158 25648 layer_factory.hpp:77] Creating layer relu3
I0430 19:18:06.351163 25648 net.cpp:86] Creating Layer relu3
I0430 19:18:06.351166 25648 net.cpp:408] relu3 <- ip3
I0430 19:18:06.351171 25648 net.cpp:369] relu3 -> ip3 (in-place)
I0430 19:18:06.351321 25648 net.cpp:124] Setting up relu3
I0430 19:18:06.351330 25648 net.cpp:131] Top shape: 1000 80 (80000)
I0430 19:18:06.351333 25648 net.cpp:139] Memory required for data: 13580000
I0430 19:18:06.351336 25648 layer_factory.hpp:77] Creating layer ip4
I0430 19:18:06.351343 25648 net.cpp:86] Creating Layer ip4
I0430 19:18:06.351347 25648 net.cpp:408] ip4 <- ip3
I0430 19:18:06.351352 25648 net.cpp:382] ip4 -> ip4
I0430 19:18:06.351471 25648 net.cpp:124] Setting up ip4
I0430 19:18:06.351478 25648 net.cpp:131] Top shape: 1000 10 (10000)
I0430 19:18:06.351482 25648 net.cpp:139] Memory required for data: 13620000
I0430 19:18:06.351488 25648 layer_factory.hpp:77] Creating layer ip4_ip4_0_split
I0430 19:18:06.351493 25648 net.cpp:86] Creating Layer ip4_ip4_0_split
I0430 19:18:06.351496 25648 net.cpp:408] ip4_ip4_0_split <- ip4
I0430 19:18:06.351500 25648 net.cpp:382] ip4_ip4_0_split -> ip4_ip4_0_split_0
I0430 19:18:06.351507 25648 net.cpp:382] ip4_ip4_0_split -> ip4_ip4_0_split_1
I0430 19:18:06.351536 25648 net.cpp:124] Setting up ip4_ip4_0_split
I0430 19:18:06.351543 25648 net.cpp:131] Top shape: 1000 10 (10000)
I0430 19:18:06.351547 25648 net.cpp:131] Top shape: 1000 10 (10000)
I0430 19:18:06.351549 25648 net.cpp:139] Memory required for data: 13700000
I0430 19:18:06.351553 25648 layer_factory.hpp:77] Creating layer accuracy
I0430 19:18:06.351563 25648 net.cpp:86] Creating Layer accuracy
I0430 19:18:06.351567 25648 net.cpp:408] accuracy <- ip4_ip4_0_split_0
I0430 19:18:06.351570 25648 net.cpp:408] accuracy <- label_cifar_1_split_0
I0430 19:18:06.351575 25648 net.cpp:382] accuracy -> accuracy
…
