…
I0501 02:57:30.949383 18206 net.cpp:296] The NetState phase (0) differed from the phase (1) specified by a rule in layer cifar
I0501 02:57:30.949400 18206 net.cpp:296] The NetState phase (0) differed from the phase (1) specified by a rule in layer accuracy
I0501 02:57:30.949492 18206 net.cpp:53] Initializing net from parameters: 
name: "CIFAR"
state {
  phase: TRAIN
  level: 0
  stage: ""
}
layer {
  name: "cifar"
  type: "Data"
  top: "data"
  top: "label"
  include {
    phase: TRAIN
  }
  transform_param {
    mean_file: "examples/cifar10/mean.binaryproto"
  }
  data_param {
    source: "examples/cifar10/cifar10_train_lmdb"
    batch_size: 111
    backend: LMDB
  }
}
layer {
  name: "conv0"
  type: "Convolution"
  bottom: "data"
  top: "conv0"
  param {
    lr_mult: 1
  }
  param {
    lr_mult: 2
  }
  convolution_param {
    num_output: 8
    pad: 2
    kernel_size: 5
    stride: 1
    weight_filler {
      type: "gaussian"
      std: 0.01
    }
    bias_filler {
      type: "constant"
    }
  }
}
layer {
  name: "Sigmoid0"
  type: "Sigmoid"
  bottom: "conv0"
  top: "Sigmoid0"
}
layer {
  name: "pool0"
  type: "Pooling"
  bottom: "Sigmoid0"
  top: "pool0"
  pooling_param {
    pool: AVE
    kernel_size: 3
    stride: 2
  }
}
layer {
  name: "ip1"
  type: "InnerProduct"
  bottom: "pool0"
  top: "ip1"
  param {
    lr_mult: 1
  }
  param {
    lr_mult: 2
  }
  inner_product_param {
    num_output: 160
    weight_filler {
      type: "gaussian"
      std: 0.01
    }
    bias_filler {
      type: "constant"
    }
  }
}
layer {
  name: "relu1"
  type: "ReLU"
  bottom: "ip1"
  top: "ip1"
}
layer {
  name: "ip2"
  type: "InnerProduct"
  bottom: "ip1"
  top: "ip2"
  param {
    lr_mult: 1
  }
  param {
    lr_mult: 2
  }
  inner_product_param {
    num_output: 80
    weight_filler {
      type: "gaussian"
      std: 0.01
    }
    bias_filler {
      type: "constant"
    }
  }
}
layer {
  name: "relu2"
  type: "ReLU"
  bottom: "ip2"
  top: "ip2"
}
layer {
  name: "ip3"
  type: "InnerProduct"
  bottom: "ip2"
  top: "ip3"
  param {
    lr_mult: 1
  }
  param {
    lr_mult: 2
  }
  inner_product_param {
    num_output: 10
    weight_filler {
      type: "gaussian"
      std: 0.01
    }
    bias_filler {
      type: "constant"
    }
  }
}
layer {
  name: "loss"
  type: "SoftmaxWithLoss"
  bottom: "ip3"
  bottom: "label"
  top: "loss"
}
I0501 02:57:30.949565 18206 layer_factory.hpp:77] Creating layer cifar
I0501 02:57:30.949667 18206 db_lmdb.cpp:35] Opened lmdb examples/cifar10/cifar10_train_lmdb
I0501 02:57:30.949695 18206 net.cpp:86] Creating Layer cifar
I0501 02:57:30.949704 18206 net.cpp:382] cifar -> data
I0501 02:57:30.949725 18206 net.cpp:382] cifar -> label
I0501 02:57:30.949738 18206 data_transformer.cpp:25] Loading mean file from: examples/cifar10/mean.binaryproto
I0501 02:57:30.951845 18206 data_layer.cpp:45] output data size: 111,3,32,32
I0501 02:57:30.959686 18206 net.cpp:124] Setting up cifar
I0501 02:57:30.959705 18206 net.cpp:131] Top shape: 111 3 32 32 (340992)
I0501 02:57:30.959712 18206 net.cpp:131] Top shape: 111 (111)
I0501 02:57:30.959715 18206 net.cpp:139] Memory required for data: 1364412
I0501 02:57:30.959723 18206 layer_factory.hpp:77] Creating layer conv0
I0501 02:57:30.959771 18206 net.cpp:86] Creating Layer conv0
I0501 02:57:30.959777 18206 net.cpp:408] conv0 <- data
I0501 02:57:30.959789 18206 net.cpp:382] conv0 -> conv0
I0501 02:57:31.232678 18206 net.cpp:124] Setting up conv0
I0501 02:57:31.232739 18206 net.cpp:131] Top shape: 111 8 32 32 (909312)
I0501 02:57:31.232744 18206 net.cpp:139] Memory required for data: 5001660
I0501 02:57:31.232759 18206 layer_factory.hpp:77] Creating layer Sigmoid0
I0501 02:57:31.232769 18206 net.cpp:86] Creating Layer Sigmoid0
I0501 02:57:31.232774 18206 net.cpp:408] Sigmoid0 <- conv0
I0501 02:57:31.232779 18206 net.cpp:382] Sigmoid0 -> Sigmoid0
I0501 02:57:31.232985 18206 net.cpp:124] Setting up Sigmoid0
I0501 02:57:31.232995 18206 net.cpp:131] Top shape: 111 8 32 32 (909312)
I0501 02:57:31.232998 18206 net.cpp:139] Memory required for data: 8638908
I0501 02:57:31.233001 18206 layer_factory.hpp:77] Creating layer pool0
I0501 02:57:31.233008 18206 net.cpp:86] Creating Layer pool0
I0501 02:57:31.233011 18206 net.cpp:408] pool0 <- Sigmoid0
I0501 02:57:31.233016 18206 net.cpp:382] pool0 -> pool0
I0501 02:57:31.233727 18206 net.cpp:124] Setting up pool0
I0501 02:57:31.233741 18206 net.cpp:131] Top shape: 111 8 16 16 (227328)
I0501 02:57:31.233758 18206 net.cpp:139] Memory required for data: 9548220
I0501 02:57:31.233762 18206 layer_factory.hpp:77] Creating layer ip1
I0501 02:57:31.233770 18206 net.cpp:86] Creating Layer ip1
I0501 02:57:31.233774 18206 net.cpp:408] ip1 <- pool0
I0501 02:57:31.233779 18206 net.cpp:382] ip1 -> ip1
I0501 02:57:31.242733 18206 net.cpp:124] Setting up ip1
I0501 02:57:31.242744 18206 net.cpp:131] Top shape: 111 160 (17760)
I0501 02:57:31.242748 18206 net.cpp:139] Memory required for data: 9619260
I0501 02:57:31.242754 18206 layer_factory.hpp:77] Creating layer relu1
I0501 02:57:31.242760 18206 net.cpp:86] Creating Layer relu1
I0501 02:57:31.242763 18206 net.cpp:408] relu1 <- ip1
I0501 02:57:31.242768 18206 net.cpp:369] relu1 -> ip1 (in-place)
I0501 02:57:31.242925 18206 net.cpp:124] Setting up relu1
I0501 02:57:31.242933 18206 net.cpp:131] Top shape: 111 160 (17760)
I0501 02:57:31.242936 18206 net.cpp:139] Memory required for data: 9690300
I0501 02:57:31.242939 18206 layer_factory.hpp:77] Creating layer ip2
I0501 02:57:31.242945 18206 net.cpp:86] Creating Layer ip2
I0501 02:57:31.242949 18206 net.cpp:408] ip2 <- ip1
I0501 02:57:31.242954 18206 net.cpp:382] ip2 -> ip2
I0501 02:57:31.244244 18206 net.cpp:124] Setting up ip2
I0501 02:57:31.244256 18206 net.cpp:131] Top shape: 111 80 (8880)
I0501 02:57:31.244259 18206 net.cpp:139] Memory required for data: 9725820
I0501 02:57:31.244266 18206 layer_factory.hpp:77] Creating layer relu2
I0501 02:57:31.244271 18206 net.cpp:86] Creating Layer relu2
I0501 02:57:31.244274 18206 net.cpp:408] relu2 <- ip2
I0501 02:57:31.244279 18206 net.cpp:369] relu2 -> ip2 (in-place)
I0501 02:57:31.244447 18206 net.cpp:124] Setting up relu2
I0501 02:57:31.244455 18206 net.cpp:131] Top shape: 111 80 (8880)
I0501 02:57:31.244458 18206 net.cpp:139] Memory required for data: 9761340
I0501 02:57:31.244462 18206 layer_factory.hpp:77] Creating layer ip3
I0501 02:57:31.244469 18206 net.cpp:86] Creating Layer ip3
I0501 02:57:31.244472 18206 net.cpp:408] ip3 <- ip2
I0501 02:57:31.244477 18206 net.cpp:382] ip3 -> ip3
I0501 02:57:31.244596 18206 net.cpp:124] Setting up ip3
I0501 02:57:31.244602 18206 net.cpp:131] Top shape: 111 10 (1110)
I0501 02:57:31.244606 18206 net.cpp:139] Memory required for data: 9765780
I0501 02:57:31.244611 18206 layer_factory.hpp:77] Creating layer loss
I0501 02:57:31.244616 18206 net.cpp:86] Creating Layer loss
I0501 02:57:31.244619 18206 net.cpp:408] loss <- ip3
I0501 02:57:31.244622 18206 net.cpp:408] loss <- label
I0501 02:57:31.244627 18206 net.cpp:382] loss -> loss
I0501 02:57:31.244642 18206 layer_factory.hpp:77] Creating layer loss
…
I0501 02:57:31.245298 18206 solver.cpp:173] Creating test net (#0) specified by net file: ECE595/cifar/train_test/var_everything/cifar_train_test_338.prototxt
I0501 02:57:31.245322 18206 net.cpp:296] The NetState phase (1) differed from the phase (0) specified by a rule in layer cifar
I0501 02:57:31.245404 18206 net.cpp:53] Initializing net from parameters: 
name: "CIFAR"
state {
  phase: TEST
}
layer {
  name: "cifar"
  type: "Data"
  top: "data"
  top: "label"
  include {
    phase: TEST
  }
  transform_param {
    mean_file: "examples/cifar10/mean.binaryproto"
  }
  data_param {
    source: "examples/cifar10/cifar10_test_lmdb"
    batch_size: 1000
    backend: LMDB
  }
}
layer {
  name: "conv0"
  type: "Convolution"
  bottom: "data"
  top: "conv0"
  param {
    lr_mult: 1
  }
  param {
    lr_mult: 2
  }
  convolution_param {
    num_output: 8
    pad: 2
    kernel_size: 5
    stride: 1
    weight_filler {
      type: "gaussian"
      std: 0.01
    }
    bias_filler {
      type: "constant"
    }
  }
}
layer {
  name: "Sigmoid0"
  type: "Sigmoid"
  bottom: "conv0"
  top: "Sigmoid0"
}
layer {
  name: "pool0"
  type: "Pooling"
  bottom: "Sigmoid0"
  top: "pool0"
  pooling_param {
    pool: AVE
    kernel_size: 3
    stride: 2
  }
}
layer {
  name: "ip1"
  type: "InnerProduct"
  bottom: "pool0"
  top: "ip1"
  param {
    lr_mult: 1
  }
  param {
    lr_mult: 2
  }
  inner_product_param {
    num_output: 160
    weight_filler {
      type: "gaussian"
      std: 0.01
    }
    bias_filler {
      type: "constant"
    }
  }
}
layer {
  name: "relu1"
  type: "ReLU"
  bottom: "ip1"
  top: "ip1"
}
layer {
  name: "ip2"
  type: "InnerProduct"
  bottom: "ip1"
  top: "ip2"
  param {
    lr_mult: 1
  }
  param {
    lr_mult: 2
  }
  inner_product_param {
    num_output: 80
    weight_filler {
      type: "gaussian"
      std: 0.01
    }
    bias_filler {
      type: "constant"
    }
  }
}
layer {
  name: "relu2"
  type: "ReLU"
  bottom: "ip2"
  top: "ip2"
}
layer {
  name: "ip3"
  type: "InnerProduct"
  bottom: "ip2"
  top: "ip3"
  param {
    lr_mult: 1
  }
  param {
    lr_mult: 2
  }
  inner_product_param {
    num_output: 10
    weight_filler {
      type: "gaussian"
      std: 0.01
    }
    bias_filler {
      type: "constant"
    }
  }
}
layer {
  name: "accuracy"
  type: "Accuracy"
  bottom: "ip3"
  bottom: "label"
  top: "accuracy"
  include {
    phase: TEST
  }
}
layer {
  name: "loss"
  type: "SoftmaxWithLoss"
  bottom: "ip3"
  bottom: "label"
  top: "loss"
}
I0501 02:57:31.245463 18206 layer_factory.hpp:77] Creating layer cifar
I0501 02:57:31.245508 18206 db_lmdb.cpp:35] Opened lmdb examples/cifar10/cifar10_test_lmdb
I0501 02:57:31.245519 18206 net.cpp:86] Creating Layer cifar
I0501 02:57:31.245523 18206 net.cpp:382] cifar -> data
I0501 02:57:31.245530 18206 net.cpp:382] cifar -> label
I0501 02:57:31.245537 18206 data_transformer.cpp:25] Loading mean file from: examples/cifar10/mean.binaryproto
I0501 02:57:31.245684 18206 data_layer.cpp:45] output data size: 1000,3,32,32
I0501 02:57:31.267115 18206 net.cpp:124] Setting up cifar
I0501 02:57:31.267156 18206 net.cpp:131] Top shape: 1000 3 32 32 (3072000)
I0501 02:57:31.267163 18206 net.cpp:131] Top shape: 1000 (1000)
I0501 02:57:31.267165 18206 net.cpp:139] Memory required for data: 12292000
I0501 02:57:31.267170 18206 layer_factory.hpp:77] Creating layer label_cifar_1_split
I0501 02:57:31.267184 18206 net.cpp:86] Creating Layer label_cifar_1_split
I0501 02:57:31.267220 18206 net.cpp:408] label_cifar_1_split <- label
I0501 02:57:31.267226 18206 net.cpp:382] label_cifar_1_split -> label_cifar_1_split_0
I0501 02:57:31.267236 18206 net.cpp:382] label_cifar_1_split -> label_cifar_1_split_1
I0501 02:57:31.267338 18206 net.cpp:124] Setting up label_cifar_1_split
I0501 02:57:31.267345 18206 net.cpp:131] Top shape: 1000 (1000)
I0501 02:57:31.267349 18206 net.cpp:131] Top shape: 1000 (1000)
I0501 02:57:31.267351 18206 net.cpp:139] Memory required for data: 12300000
I0501 02:57:31.267354 18206 layer_factory.hpp:77] Creating layer conv0
I0501 02:57:31.267366 18206 net.cpp:86] Creating Layer conv0
I0501 02:57:31.267369 18206 net.cpp:408] conv0 <- data
I0501 02:57:31.267374 18206 net.cpp:382] conv0 -> conv0
I0501 02:57:31.268752 18206 net.cpp:124] Setting up conv0
I0501 02:57:31.268781 18206 net.cpp:131] Top shape: 1000 8 32 32 (8192000)
I0501 02:57:31.268785 18206 net.cpp:139] Memory required for data: 45068000
I0501 02:57:31.268795 18206 layer_factory.hpp:77] Creating layer Sigmoid0
I0501 02:57:31.268801 18206 net.cpp:86] Creating Layer Sigmoid0
I0501 02:57:31.268805 18206 net.cpp:408] Sigmoid0 <- conv0
I0501 02:57:31.268815 18206 net.cpp:382] Sigmoid0 -> Sigmoid0
I0501 02:57:31.269671 18206 net.cpp:124] Setting up Sigmoid0
I0501 02:57:31.269683 18206 net.cpp:131] Top shape: 1000 8 32 32 (8192000)
I0501 02:57:31.269702 18206 net.cpp:139] Memory required for data: 77836000
I0501 02:57:31.269706 18206 layer_factory.hpp:77] Creating layer pool0
I0501 02:57:31.269714 18206 net.cpp:86] Creating Layer pool0
I0501 02:57:31.269717 18206 net.cpp:408] pool0 <- Sigmoid0
I0501 02:57:31.269738 18206 net.cpp:382] pool0 -> pool0
I0501 02:57:31.269994 18206 net.cpp:124] Setting up pool0
I0501 02:57:31.270004 18206 net.cpp:131] Top shape: 1000 8 16 16 (2048000)
I0501 02:57:31.270006 18206 net.cpp:139] Memory required for data: 86028000
I0501 02:57:31.270009 18206 layer_factory.hpp:77] Creating layer ip1
I0501 02:57:31.270017 18206 net.cpp:86] Creating Layer ip1
I0501 02:57:31.270020 18206 net.cpp:408] ip1 <- pool0
I0501 02:57:31.270025 18206 net.cpp:382] ip1 -> ip1
I0501 02:57:31.280305 18206 net.cpp:124] Setting up ip1
I0501 02:57:31.280318 18206 net.cpp:131] Top shape: 1000 160 (160000)
I0501 02:57:31.280336 18206 net.cpp:139] Memory required for data: 86668000
I0501 02:57:31.280344 18206 layer_factory.hpp:77] Creating layer relu1
I0501 02:57:31.280350 18206 net.cpp:86] Creating Layer relu1
I0501 02:57:31.280354 18206 net.cpp:408] relu1 <- ip1
I0501 02:57:31.280359 18206 net.cpp:369] relu1 -> ip1 (in-place)
I0501 02:57:31.280532 18206 net.cpp:124] Setting up relu1
I0501 02:57:31.280540 18206 net.cpp:131] Top shape: 1000 160 (160000)
I0501 02:57:31.280544 18206 net.cpp:139] Memory required for data: 87308000
I0501 02:57:31.280547 18206 layer_factory.hpp:77] Creating layer ip2
I0501 02:57:31.280553 18206 net.cpp:86] Creating Layer ip2
I0501 02:57:31.280557 18206 net.cpp:408] ip2 <- ip1
I0501 02:57:31.280562 18206 net.cpp:382] ip2 -> ip2
I0501 02:57:31.281078 18206 net.cpp:124] Setting up ip2
I0501 02:57:31.281086 18206 net.cpp:131] Top shape: 1000 80 (80000)
I0501 02:57:31.281105 18206 net.cpp:139] Memory required for data: 87628000
I0501 02:57:31.281111 18206 layer_factory.hpp:77] Creating layer relu2
I0501 02:57:31.281117 18206 net.cpp:86] Creating Layer relu2
I0501 02:57:31.281122 18206 net.cpp:408] relu2 <- ip2
I0501 02:57:31.281126 18206 net.cpp:369] relu2 -> ip2 (in-place)
I0501 02:57:31.281303 18206 net.cpp:124] Setting up relu2
I0501 02:57:31.281311 18206 net.cpp:131] Top shape: 1000 80 (80000)
I0501 02:57:31.281313 18206 net.cpp:139] Memory required for data: 87948000
I0501 02:57:31.281317 18206 layer_factory.hpp:77] Creating layer ip3
I0501 02:57:31.281323 18206 net.cpp:86] Creating Layer ip3
I0501 02:57:31.281334 18206 net.cpp:408] ip3 <- ip2
I0501 02:57:31.281339 18206 net.cpp:382] ip3 -> ip3
I0501 02:57:31.281458 18206 net.cpp:124] Setting up ip3
I0501 02:57:31.281466 18206 net.cpp:131] Top shape: 1000 10 (10000)
I0501 02:57:31.281468 18206 net.cpp:139] Memory required for data: 87988000
I0501 02:57:31.281484 18206 layer_factory.hpp:77] Creating layer ip3_ip3_0_split
I0501 02:57:31.281491 18206 net.cpp:86] Creating Layer ip3_ip3_0_split
I0501 02:57:31.281494 18206 net.cpp:408] ip3_ip3_0_split <- ip3
I0501 02:57:31.281498 18206 net.cpp:382] ip3_ip3_0_split -> ip3_ip3_0_split_0
I0501 02:57:31.281503 18206 net.cpp:382] ip3_ip3_0_split -> ip3_ip3_0_split_1
I0501 02:57:31.281533 18206 net.cpp:124] Setting up ip3_ip3_0_split
I0501 02:57:31.281538 18206 net.cpp:131] Top shape: 1000 10 (10000)
I0501 02:57:31.281543 18206 net.cpp:131] Top shape: 1000 10 (10000)
I0501 02:57:31.281544 18206 net.cpp:139] Memory required for data: 88068000
I0501 02:57:31.281548 18206 layer_factory.hpp:77] Creating layer accuracy
I0501 02:57:31.281553 18206 net.cpp:86] Creating Layer accuracy
I0501 02:57:31.281555 18206 net.cpp:408] accuracy <- ip3_ip3_0_split_0
I0501 02:57:31.281560 18206 net.cpp:408] accuracy <- label_cifar_1_split_0
I0501 02:57:31.281565 18206 net.cpp:382] accuracy -> accuracy
…
