…
I0501 08:18:07.769604 10096 net.cpp:296] The NetState phase (0) differed from the phase (1) specified by a rule in layer cifar
I0501 08:18:07.769618 10096 net.cpp:296] The NetState phase (0) differed from the phase (1) specified by a rule in layer accuracy
I0501 08:18:07.769716 10096 net.cpp:53] Initializing net from parameters: 
name: "CIFAR"
state {
  phase: TRAIN
  level: 0
  stage: ""
}
layer {
  name: "cifar"
  type: "Data"
  top: "data"
  top: "label"
  include {
    phase: TRAIN
  }
  transform_param {
    mean_file: "examples/cifar10/mean.binaryproto"
  }
  data_param {
    source: "examples/cifar10/cifar10_train_lmdb"
    batch_size: 111
    backend: LMDB
  }
}
layer {
  name: "conv0"
  type: "Convolution"
  bottom: "data"
  top: "conv0"
  param {
    lr_mult: 1
  }
  param {
    lr_mult: 2
  }
  convolution_param {
    num_output: 16
    pad: 2
    kernel_size: 3
    stride: 1
    weight_filler {
      type: "gaussian"
      std: 0.01
    }
    bias_filler {
      type: "constant"
    }
  }
}
layer {
  name: "Sigmoid0"
  type: "Sigmoid"
  bottom: "conv0"
  top: "Sigmoid0"
}
layer {
  name: "pool0"
  type: "Pooling"
  bottom: "Sigmoid0"
  top: "pool0"
  pooling_param {
    pool: AVE
    kernel_size: 3
    stride: 2
  }
}
layer {
  name: "ip1"
  type: "InnerProduct"
  bottom: "pool0"
  top: "ip1"
  param {
    lr_mult: 1
  }
  param {
    lr_mult: 2
  }
  inner_product_param {
    num_output: 10
    weight_filler {
      type: "gaussian"
      std: 0.01
    }
    bias_filler {
      type: "constant"
    }
  }
}
layer {
  name: "relu1"
  type: "ReLU"
  bottom: "ip1"
  top: "ip1"
}
layer {
  name: "ip2"
  type: "InnerProduct"
  bottom: "ip1"
  top: "ip2"
  param {
    lr_mult: 1
  }
  param {
    lr_mult: 2
  }
  inner_product_param {
    num_output: 40
    weight_filler {
      type: "gaussian"
      std: 0.01
    }
    bias_filler {
      type: "constant"
    }
  }
}
layer {
  name: "relu2"
  type: "ReLU"
  bottom: "ip2"
  top: "ip2"
}
layer {
  name: "ip3"
  type: "InnerProduct"
  bottom: "ip2"
  top: "ip3"
  param {
    lr_mult: 1
  }
  param {
    lr_mult: 2
  }
  inner_product_param {
    num_output: 40
    weight_filler {
      type: "gaussian"
      std: 0.01
    }
    bias_filler {
      type: "constant"
    }
  }
}
layer {
  name: "relu3"
  type: "ReLU"
  bottom: "ip3"
  top: "ip3"
}
layer {
  name: "ip4"
  type: "InnerProduct"
  bottom: "ip3"
  top: "ip4"
  param {
    lr_mult: 1
  }
  param {
    lr_mult: 2
  }
  inner_product_param {
    num_output: 10
    weight_filler {
      type: "gaussian"
      std: 0.01
    }
    bias_filler {
      type: "constant"
    }
  }
}
layer {
  name: "loss"
  type: "SoftmaxWithLoss"
  bottom: "ip4"
  bottom: "label"
  top: "loss"
}
I0501 08:18:07.769778 10096 layer_factory.hpp:77] Creating layer cifar
I0501 08:18:07.769857 10096 db_lmdb.cpp:35] Opened lmdb examples/cifar10/cifar10_train_lmdb
I0501 08:18:07.769881 10096 net.cpp:86] Creating Layer cifar
I0501 08:18:07.769887 10096 net.cpp:382] cifar -> data
I0501 08:18:07.769906 10096 net.cpp:382] cifar -> label
I0501 08:18:07.769915 10096 data_transformer.cpp:25] Loading mean file from: examples/cifar10/mean.binaryproto
I0501 08:18:07.771742 10096 data_layer.cpp:45] output data size: 111,3,32,32
I0501 08:18:07.778528 10096 net.cpp:124] Setting up cifar
I0501 08:18:07.778561 10096 net.cpp:131] Top shape: 111 3 32 32 (340992)
I0501 08:18:07.778568 10096 net.cpp:131] Top shape: 111 (111)
I0501 08:18:07.778570 10096 net.cpp:139] Memory required for data: 1364412
I0501 08:18:07.778605 10096 layer_factory.hpp:77] Creating layer conv0
I0501 08:18:07.778622 10096 net.cpp:86] Creating Layer conv0
I0501 08:18:07.778627 10096 net.cpp:408] conv0 <- data
I0501 08:18:07.778637 10096 net.cpp:382] conv0 -> conv0
I0501 08:18:08.003541 10096 net.cpp:124] Setting up conv0
I0501 08:18:08.003566 10096 net.cpp:131] Top shape: 111 16 34 34 (2053056)
I0501 08:18:08.003571 10096 net.cpp:139] Memory required for data: 9576636
I0501 08:18:08.003584 10096 layer_factory.hpp:77] Creating layer Sigmoid0
I0501 08:18:08.003595 10096 net.cpp:86] Creating Layer Sigmoid0
I0501 08:18:08.003599 10096 net.cpp:408] Sigmoid0 <- conv0
I0501 08:18:08.003604 10096 net.cpp:382] Sigmoid0 -> Sigmoid0
I0501 08:18:08.003785 10096 net.cpp:124] Setting up Sigmoid0
I0501 08:18:08.003795 10096 net.cpp:131] Top shape: 111 16 34 34 (2053056)
I0501 08:18:08.003798 10096 net.cpp:139] Memory required for data: 17788860
I0501 08:18:08.003801 10096 layer_factory.hpp:77] Creating layer pool0
I0501 08:18:08.003808 10096 net.cpp:86] Creating Layer pool0
I0501 08:18:08.003811 10096 net.cpp:408] pool0 <- Sigmoid0
I0501 08:18:08.003815 10096 net.cpp:382] pool0 -> pool0
I0501 08:18:08.004536 10096 net.cpp:124] Setting up pool0
I0501 08:18:08.004549 10096 net.cpp:131] Top shape: 111 16 17 17 (513264)
I0501 08:18:08.004552 10096 net.cpp:139] Memory required for data: 19841916
I0501 08:18:08.004555 10096 layer_factory.hpp:77] Creating layer ip1
I0501 08:18:08.004565 10096 net.cpp:86] Creating Layer ip1
I0501 08:18:08.004567 10096 net.cpp:408] ip1 <- pool0
I0501 08:18:08.004571 10096 net.cpp:382] ip1 -> ip1
I0501 08:18:08.006680 10096 net.cpp:124] Setting up ip1
I0501 08:18:08.006692 10096 net.cpp:131] Top shape: 111 10 (1110)
I0501 08:18:08.006695 10096 net.cpp:139] Memory required for data: 19846356
I0501 08:18:08.006702 10096 layer_factory.hpp:77] Creating layer relu1
I0501 08:18:08.006708 10096 net.cpp:86] Creating Layer relu1
I0501 08:18:08.006711 10096 net.cpp:408] relu1 <- ip1
I0501 08:18:08.006716 10096 net.cpp:369] relu1 -> ip1 (in-place)
I0501 08:18:08.006888 10096 net.cpp:124] Setting up relu1
I0501 08:18:08.006897 10096 net.cpp:131] Top shape: 111 10 (1110)
I0501 08:18:08.006901 10096 net.cpp:139] Memory required for data: 19850796
I0501 08:18:08.006903 10096 layer_factory.hpp:77] Creating layer ip2
I0501 08:18:08.006909 10096 net.cpp:86] Creating Layer ip2
I0501 08:18:08.006912 10096 net.cpp:408] ip2 <- ip1
I0501 08:18:08.006917 10096 net.cpp:382] ip2 -> ip2
I0501 08:18:08.007036 10096 net.cpp:124] Setting up ip2
I0501 08:18:08.007043 10096 net.cpp:131] Top shape: 111 40 (4440)
I0501 08:18:08.007046 10096 net.cpp:139] Memory required for data: 19868556
I0501 08:18:08.007053 10096 layer_factory.hpp:77] Creating layer relu2
I0501 08:18:08.007060 10096 net.cpp:86] Creating Layer relu2
I0501 08:18:08.007062 10096 net.cpp:408] relu2 <- ip2
I0501 08:18:08.007066 10096 net.cpp:369] relu2 -> ip2 (in-place)
I0501 08:18:08.007208 10096 net.cpp:124] Setting up relu2
I0501 08:18:08.007217 10096 net.cpp:131] Top shape: 111 40 (4440)
I0501 08:18:08.007220 10096 net.cpp:139] Memory required for data: 19886316
I0501 08:18:08.007223 10096 layer_factory.hpp:77] Creating layer ip3
I0501 08:18:08.007230 10096 net.cpp:86] Creating Layer ip3
I0501 08:18:08.007233 10096 net.cpp:408] ip3 <- ip2
I0501 08:18:08.007238 10096 net.cpp:382] ip3 -> ip3
I0501 08:18:08.007400 10096 net.cpp:124] Setting up ip3
I0501 08:18:08.007408 10096 net.cpp:131] Top shape: 111 40 (4440)
I0501 08:18:08.007411 10096 net.cpp:139] Memory required for data: 19904076
I0501 08:18:08.007416 10096 layer_factory.hpp:77] Creating layer relu3
I0501 08:18:08.007421 10096 net.cpp:86] Creating Layer relu3
I0501 08:18:08.007423 10096 net.cpp:408] relu3 <- ip3
I0501 08:18:08.007427 10096 net.cpp:369] relu3 -> ip3 (in-place)
I0501 08:18:08.007577 10096 net.cpp:124] Setting up relu3
I0501 08:18:08.007586 10096 net.cpp:131] Top shape: 111 40 (4440)
I0501 08:18:08.007588 10096 net.cpp:139] Memory required for data: 19921836
I0501 08:18:08.007591 10096 layer_factory.hpp:77] Creating layer ip4
I0501 08:18:08.007611 10096 net.cpp:86] Creating Layer ip4
I0501 08:18:08.007614 10096 net.cpp:408] ip4 <- ip3
I0501 08:18:08.007618 10096 net.cpp:382] ip4 -> ip4
I0501 08:18:08.007714 10096 net.cpp:124] Setting up ip4
I0501 08:18:08.007721 10096 net.cpp:131] Top shape: 111 10 (1110)
I0501 08:18:08.007725 10096 net.cpp:139] Memory required for data: 19926276
I0501 08:18:08.007731 10096 layer_factory.hpp:77] Creating layer loss
I0501 08:18:08.007736 10096 net.cpp:86] Creating Layer loss
I0501 08:18:08.007740 10096 net.cpp:408] loss <- ip4
I0501 08:18:08.007743 10096 net.cpp:408] loss <- label
I0501 08:18:08.007748 10096 net.cpp:382] loss -> loss
I0501 08:18:08.007764 10096 layer_factory.hpp:77] Creating layer loss
…
I0501 08:18:08.008973 10096 solver.cpp:173] Creating test net (#0) specified by net file: ECE595/cifar/train_test/var_everything/cifar_train_test_507.prototxt
I0501 08:18:08.009001 10096 net.cpp:296] The NetState phase (1) differed from the phase (0) specified by a rule in layer cifar
I0501 08:18:08.009093 10096 net.cpp:53] Initializing net from parameters: 
name: "CIFAR"
state {
  phase: TEST
}
layer {
  name: "cifar"
  type: "Data"
  top: "data"
  top: "label"
  include {
    phase: TEST
  }
  transform_param {
    mean_file: "examples/cifar10/mean.binaryproto"
  }
  data_param {
    source: "examples/cifar10/cifar10_test_lmdb"
    batch_size: 1000
    backend: LMDB
  }
}
layer {
  name: "conv0"
  type: "Convolution"
  bottom: "data"
  top: "conv0"
  param {
    lr_mult: 1
  }
  param {
    lr_mult: 2
  }
  convolution_param {
    num_output: 16
    pad: 2
    kernel_size: 3
    stride: 1
    weight_filler {
      type: "gaussian"
      std: 0.01
    }
    bias_filler {
      type: "constant"
    }
  }
}
layer {
  name: "Sigmoid0"
  type: "Sigmoid"
  bottom: "conv0"
  top: "Sigmoid0"
}
layer {
  name: "pool0"
  type: "Pooling"
  bottom: "Sigmoid0"
  top: "pool0"
  pooling_param {
    pool: AVE
    kernel_size: 3
    stride: 2
  }
}
layer {
  name: "ip1"
  type: "InnerProduct"
  bottom: "pool0"
  top: "ip1"
  param {
    lr_mult: 1
  }
  param {
    lr_mult: 2
  }
  inner_product_param {
    num_output: 10
    weight_filler {
      type: "gaussian"
      std: 0.01
    }
    bias_filler {
      type: "constant"
    }
  }
}
layer {
  name: "relu1"
  type: "ReLU"
  bottom: "ip1"
  top: "ip1"
}
layer {
  name: "ip2"
  type: "InnerProduct"
  bottom: "ip1"
  top: "ip2"
  param {
    lr_mult: 1
  }
  param {
    lr_mult: 2
  }
  inner_product_param {
    num_output: 40
    weight_filler {
      type: "gaussian"
      std: 0.01
    }
    bias_filler {
      type: "constant"
    }
  }
}
layer {
  name: "relu2"
  type: "ReLU"
  bottom: "ip2"
  top: "ip2"
}
layer {
  name: "ip3"
  type: "InnerProduct"
  bottom: "ip2"
  top: "ip3"
  param {
    lr_mult: 1
  }
  param {
    lr_mult: 2
  }
  inner_product_param {
    num_output: 40
    weight_filler {
      type: "gaussian"
      std: 0.01
    }
    bias_filler {
      type: "constant"
    }
  }
}
layer {
  name: "relu3"
  type: "ReLU"
  bottom: "ip3"
  top: "ip3"
}
layer {
  name: "ip4"
  type: "InnerProduct"
  bottom: "ip3"
  top: "ip4"
  param {
    lr_mult: 1
  }
  param {
    lr_mult: 2
  }
  inner_product_param {
    num_output: 10
    weight_filler {
      type: "gaussian"
      std: 0.01
    }
    bias_filler {
      type: "constant"
    }
  }
}
layer {
  name: "accuracy"
  type: "Accuracy"
  bottom: "ip4"
  bottom: "label"
  top: "accuracy"
  include {
    phase: TEST
  }
}
layer {
  name: "loss"
  type: "SoftmaxWithLoss"
  bottom: "ip4"
  bottom: "label"
  top: "loss"
}
I0501 08:18:08.009198 10096 layer_factory.hpp:77] Creating layer cifar
I0501 08:18:08.009243 10096 db_lmdb.cpp:35] Opened lmdb examples/cifar10/cifar10_test_lmdb
I0501 08:18:08.009253 10096 net.cpp:86] Creating Layer cifar
I0501 08:18:08.009258 10096 net.cpp:382] cifar -> data
I0501 08:18:08.009265 10096 net.cpp:382] cifar -> label
I0501 08:18:08.009271 10096 data_transformer.cpp:25] Loading mean file from: examples/cifar10/mean.binaryproto
I0501 08:18:08.009409 10096 data_layer.cpp:45] output data size: 1000,3,32,32
I0501 08:18:08.031847 10096 net.cpp:124] Setting up cifar
I0501 08:18:08.031888 10096 net.cpp:131] Top shape: 1000 3 32 32 (3072000)
I0501 08:18:08.031895 10096 net.cpp:131] Top shape: 1000 (1000)
I0501 08:18:08.031898 10096 net.cpp:139] Memory required for data: 12292000
I0501 08:18:08.031904 10096 layer_factory.hpp:77] Creating layer label_cifar_1_split
I0501 08:18:08.031921 10096 net.cpp:86] Creating Layer label_cifar_1_split
I0501 08:18:08.031925 10096 net.cpp:408] label_cifar_1_split <- label
I0501 08:18:08.031931 10096 net.cpp:382] label_cifar_1_split -> label_cifar_1_split_0
I0501 08:18:08.031944 10096 net.cpp:382] label_cifar_1_split -> label_cifar_1_split_1
I0501 08:18:08.031996 10096 net.cpp:124] Setting up label_cifar_1_split
I0501 08:18:08.032001 10096 net.cpp:131] Top shape: 1000 (1000)
I0501 08:18:08.032004 10096 net.cpp:131] Top shape: 1000 (1000)
I0501 08:18:08.032007 10096 net.cpp:139] Memory required for data: 12300000
I0501 08:18:08.032011 10096 layer_factory.hpp:77] Creating layer conv0
I0501 08:18:08.032021 10096 net.cpp:86] Creating Layer conv0
I0501 08:18:08.032025 10096 net.cpp:408] conv0 <- data
I0501 08:18:08.032030 10096 net.cpp:382] conv0 -> conv0
I0501 08:18:08.033699 10096 net.cpp:124] Setting up conv0
I0501 08:18:08.033713 10096 net.cpp:131] Top shape: 1000 16 34 34 (18496000)
I0501 08:18:08.033733 10096 net.cpp:139] Memory required for data: 86284000
I0501 08:18:08.033742 10096 layer_factory.hpp:77] Creating layer Sigmoid0
I0501 08:18:08.033763 10096 net.cpp:86] Creating Layer Sigmoid0
I0501 08:18:08.033766 10096 net.cpp:408] Sigmoid0 <- conv0
I0501 08:18:08.033787 10096 net.cpp:382] Sigmoid0 -> Sigmoid0
I0501 08:18:08.033957 10096 net.cpp:124] Setting up Sigmoid0
I0501 08:18:08.033967 10096 net.cpp:131] Top shape: 1000 16 34 34 (18496000)
I0501 08:18:08.033969 10096 net.cpp:139] Memory required for data: 160268000
I0501 08:18:08.033973 10096 layer_factory.hpp:77] Creating layer pool0
I0501 08:18:08.033982 10096 net.cpp:86] Creating Layer pool0
I0501 08:18:08.033984 10096 net.cpp:408] pool0 <- Sigmoid0
I0501 08:18:08.033989 10096 net.cpp:382] pool0 -> pool0
I0501 08:18:08.034145 10096 net.cpp:124] Setting up pool0
I0501 08:18:08.034153 10096 net.cpp:131] Top shape: 1000 16 17 17 (4624000)
I0501 08:18:08.034157 10096 net.cpp:139] Memory required for data: 178764000
I0501 08:18:08.034159 10096 layer_factory.hpp:77] Creating layer ip1
I0501 08:18:08.034167 10096 net.cpp:86] Creating Layer ip1
I0501 08:18:08.034170 10096 net.cpp:408] ip1 <- pool0
I0501 08:18:08.034175 10096 net.cpp:382] ip1 -> ip1
I0501 08:18:08.035476 10096 net.cpp:124] Setting up ip1
I0501 08:18:08.035485 10096 net.cpp:131] Top shape: 1000 10 (10000)
I0501 08:18:08.035506 10096 net.cpp:139] Memory required for data: 178804000
I0501 08:18:08.035526 10096 layer_factory.hpp:77] Creating layer relu1
I0501 08:18:08.035548 10096 net.cpp:86] Creating Layer relu1
I0501 08:18:08.035552 10096 net.cpp:408] relu1 <- ip1
I0501 08:18:08.035557 10096 net.cpp:369] relu1 -> ip1 (in-place)
I0501 08:18:08.035729 10096 net.cpp:124] Setting up relu1
I0501 08:18:08.035748 10096 net.cpp:131] Top shape: 1000 10 (10000)
I0501 08:18:08.035750 10096 net.cpp:139] Memory required for data: 178844000
I0501 08:18:08.035753 10096 layer_factory.hpp:77] Creating layer ip2
I0501 08:18:08.035760 10096 net.cpp:86] Creating Layer ip2
I0501 08:18:08.035763 10096 net.cpp:408] ip2 <- ip1
I0501 08:18:08.035768 10096 net.cpp:382] ip2 -> ip2
I0501 08:18:08.035884 10096 net.cpp:124] Setting up ip2
I0501 08:18:08.035892 10096 net.cpp:131] Top shape: 1000 40 (40000)
I0501 08:18:08.035894 10096 net.cpp:139] Memory required for data: 179004000
I0501 08:18:08.035902 10096 layer_factory.hpp:77] Creating layer relu2
I0501 08:18:08.035907 10096 net.cpp:86] Creating Layer relu2
I0501 08:18:08.035912 10096 net.cpp:408] relu2 <- ip2
I0501 08:18:08.035915 10096 net.cpp:369] relu2 -> ip2 (in-place)
I0501 08:18:08.036645 10096 net.cpp:124] Setting up relu2
I0501 08:18:08.036656 10096 net.cpp:131] Top shape: 1000 40 (40000)
I0501 08:18:08.036676 10096 net.cpp:139] Memory required for data: 179164000
I0501 08:18:08.036679 10096 layer_factory.hpp:77] Creating layer ip3
I0501 08:18:08.036686 10096 net.cpp:86] Creating Layer ip3
I0501 08:18:08.036689 10096 net.cpp:408] ip3 <- ip2
I0501 08:18:08.036695 10096 net.cpp:382] ip3 -> ip3
I0501 08:18:08.036882 10096 net.cpp:124] Setting up ip3
I0501 08:18:08.036891 10096 net.cpp:131] Top shape: 1000 40 (40000)
I0501 08:18:08.036895 10096 net.cpp:139] Memory required for data: 179324000
I0501 08:18:08.036900 10096 layer_factory.hpp:77] Creating layer relu3
I0501 08:18:08.036906 10096 net.cpp:86] Creating Layer relu3
I0501 08:18:08.036909 10096 net.cpp:408] relu3 <- ip3
I0501 08:18:08.036913 10096 net.cpp:369] relu3 -> ip3 (in-place)
I0501 08:18:08.037062 10096 net.cpp:124] Setting up relu3
I0501 08:18:08.037070 10096 net.cpp:131] Top shape: 1000 40 (40000)
I0501 08:18:08.037073 10096 net.cpp:139] Memory required for data: 179484000
I0501 08:18:08.037077 10096 layer_factory.hpp:77] Creating layer ip4
I0501 08:18:08.037083 10096 net.cpp:86] Creating Layer ip4
I0501 08:18:08.037086 10096 net.cpp:408] ip4 <- ip3
I0501 08:18:08.037091 10096 net.cpp:382] ip4 -> ip4
I0501 08:18:08.037209 10096 net.cpp:124] Setting up ip4
I0501 08:18:08.037216 10096 net.cpp:131] Top shape: 1000 10 (10000)
I0501 08:18:08.037220 10096 net.cpp:139] Memory required for data: 179524000
I0501 08:18:08.037227 10096 layer_factory.hpp:77] Creating layer ip4_ip4_0_split
I0501 08:18:08.037232 10096 net.cpp:86] Creating Layer ip4_ip4_0_split
I0501 08:18:08.037235 10096 net.cpp:408] ip4_ip4_0_split <- ip4
I0501 08:18:08.037240 10096 net.cpp:382] ip4_ip4_0_split -> ip4_ip4_0_split_0
I0501 08:18:08.037245 10096 net.cpp:382] ip4_ip4_0_split -> ip4_ip4_0_split_1
I0501 08:18:08.037272 10096 net.cpp:124] Setting up ip4_ip4_0_split
I0501 08:18:08.037276 10096 net.cpp:131] Top shape: 1000 10 (10000)
I0501 08:18:08.037281 10096 net.cpp:131] Top shape: 1000 10 (10000)
I0501 08:18:08.037283 10096 net.cpp:139] Memory required for data: 179604000
I0501 08:18:08.037286 10096 layer_factory.hpp:77] Creating layer accuracy
I0501 08:18:08.037292 10096 net.cpp:86] Creating Layer accuracy
I0501 08:18:08.037294 10096 net.cpp:408] accuracy <- ip4_ip4_0_split_0
I0501 08:18:08.037298 10096 net.cpp:408] accuracy <- label_cifar_1_split_0
I0501 08:18:08.037302 10096 net.cpp:382] accuracy -> accuracy
…
