…
I0501 00:07:02.286700  6346 net.cpp:296] The NetState phase (0) differed from the phase (1) specified by a rule in layer cifar
I0501 00:07:02.286720  6346 net.cpp:296] The NetState phase (0) differed from the phase (1) specified by a rule in layer accuracy
I0501 00:07:02.286845  6346 net.cpp:53] Initializing net from parameters: 
name: "CIFAR"
state {
  phase: TRAIN
  level: 0
  stage: ""
}
layer {
  name: "cifar"
  type: "Data"
  top: "data"
  top: "label"
  include {
    phase: TRAIN
  }
  transform_param {
    mean_file: "examples/cifar10/mean.binaryproto"
  }
  data_param {
    source: "examples/cifar10/cifar10_train_lmdb"
    batch_size: 111
    backend: LMDB
  }
}
layer {
  name: "conv0"
  type: "Convolution"
  bottom: "data"
  top: "conv0"
  param {
    lr_mult: 1
  }
  param {
    lr_mult: 2
  }
  convolution_param {
    num_output: 8
    pad: 2
    kernel_size: 3
    stride: 1
    weight_filler {
      type: "gaussian"
      std: 0.01
    }
    bias_filler {
      type: "constant"
    }
  }
}
layer {
  name: "Sigmoid0"
  type: "Sigmoid"
  bottom: "conv0"
  top: "Sigmoid0"
}
layer {
  name: "pool0"
  type: "Pooling"
  bottom: "Sigmoid0"
  top: "pool0"
  pooling_param {
    pool: AVE
    kernel_size: 3
    stride: 2
  }
}
layer {
  name: "ip1"
  type: "InnerProduct"
  bottom: "pool0"
  top: "ip1"
  param {
    lr_mult: 1
  }
  param {
    lr_mult: 2
  }
  inner_product_param {
    num_output: 40
    weight_filler {
      type: "gaussian"
      std: 0.01
    }
    bias_filler {
      type: "constant"
    }
  }
}
layer {
  name: "relu1"
  type: "ReLU"
  bottom: "ip1"
  top: "ip1"
}
layer {
  name: "ip2"
  type: "InnerProduct"
  bottom: "ip1"
  top: "ip2"
  param {
    lr_mult: 1
  }
  param {
    lr_mult: 2
  }
  inner_product_param {
    num_output: 40
    weight_filler {
      type: "gaussian"
      std: 0.01
    }
    bias_filler {
      type: "constant"
    }
  }
}
layer {
  name: "relu2"
  type: "ReLU"
  bottom: "ip2"
  top: "ip2"
}
layer {
  name: "ip3"
  type: "InnerProduct"
  bottom: "ip2"
  top: "ip3"
  param {
    lr_mult: 1
  }
  param {
    lr_mult: 2
  }
  inner_product_param {
    num_output: 40
    weight_filler {
      type: "gaussian"
      std: 0.01
    }
    bias_filler {
      type: "constant"
    }
  }
}
layer {
  name: "relu3"
  type: "ReLU"
  bottom: "ip3"
  top: "ip3"
}
layer {
  name: "ip4"
  type: "InnerProduct"
  bottom: "ip3"
  top: "ip4"
  param {
    lr_mult: 1
  }
  param {
    lr_mult: 2
  }
  inner_product_param {
    num_output: 10
    weight_filler {
      type: "gaussian"
      std: 0.01
    }
    bias_filler {
      type: "constant"
    }
  }
}
layer {
  name: "loss"
  type: "SoftmaxWithLoss"
  bottom: "ip4"
  bottom: "label"
  top: "loss"
}
I0501 00:07:02.286957  6346 layer_factory.hpp:77] Creating layer cifar
I0501 00:07:02.287087  6346 db_lmdb.cpp:35] Opened lmdb examples/cifar10/cifar10_train_lmdb
I0501 00:07:02.287125  6346 net.cpp:86] Creating Layer cifar
I0501 00:07:02.287142  6346 net.cpp:382] cifar -> data
I0501 00:07:02.287173  6346 net.cpp:382] cifar -> label
I0501 00:07:02.287189  6346 data_transformer.cpp:25] Loading mean file from: examples/cifar10/mean.binaryproto
I0501 00:07:02.289405  6346 data_layer.cpp:45] output data size: 111,3,32,32
I0501 00:07:02.297307  6346 net.cpp:124] Setting up cifar
I0501 00:07:02.297327  6346 net.cpp:131] Top shape: 111 3 32 32 (340992)
I0501 00:07:02.297334  6346 net.cpp:131] Top shape: 111 (111)
I0501 00:07:02.297338  6346 net.cpp:139] Memory required for data: 1364412
I0501 00:07:02.297366  6346 layer_factory.hpp:77] Creating layer conv0
I0501 00:07:02.297395  6346 net.cpp:86] Creating Layer conv0
I0501 00:07:02.297407  6346 net.cpp:408] conv0 <- data
I0501 00:07:02.297431  6346 net.cpp:382] conv0 -> conv0
I0501 00:07:02.579989  6346 net.cpp:124] Setting up conv0
I0501 00:07:02.580018  6346 net.cpp:131] Top shape: 111 8 34 34 (1026528)
I0501 00:07:02.580021  6346 net.cpp:139] Memory required for data: 5470524
I0501 00:07:02.580036  6346 layer_factory.hpp:77] Creating layer Sigmoid0
I0501 00:07:02.580049  6346 net.cpp:86] Creating Layer Sigmoid0
I0501 00:07:02.580054  6346 net.cpp:408] Sigmoid0 <- conv0
I0501 00:07:02.580075  6346 net.cpp:382] Sigmoid0 -> Sigmoid0
I0501 00:07:02.580312  6346 net.cpp:124] Setting up Sigmoid0
I0501 00:07:02.580323  6346 net.cpp:131] Top shape: 111 8 34 34 (1026528)
I0501 00:07:02.580328  6346 net.cpp:139] Memory required for data: 9576636
I0501 00:07:02.580334  6346 layer_factory.hpp:77] Creating layer pool0
I0501 00:07:02.580344  6346 net.cpp:86] Creating Layer pool0
I0501 00:07:02.580353  6346 net.cpp:408] pool0 <- Sigmoid0
I0501 00:07:02.580363  6346 net.cpp:382] pool0 -> pool0
I0501 00:07:02.581146  6346 net.cpp:124] Setting up pool0
I0501 00:07:02.581159  6346 net.cpp:131] Top shape: 111 8 17 17 (256632)
I0501 00:07:02.581163  6346 net.cpp:139] Memory required for data: 10603164
I0501 00:07:02.581166  6346 layer_factory.hpp:77] Creating layer ip1
I0501 00:07:02.581176  6346 net.cpp:86] Creating Layer ip1
I0501 00:07:02.581179  6346 net.cpp:408] ip1 <- pool0
I0501 00:07:02.581184  6346 net.cpp:382] ip1 -> ip1
I0501 00:07:02.583808  6346 net.cpp:124] Setting up ip1
I0501 00:07:02.583818  6346 net.cpp:131] Top shape: 111 40 (4440)
I0501 00:07:02.583822  6346 net.cpp:139] Memory required for data: 10620924
I0501 00:07:02.583829  6346 layer_factory.hpp:77] Creating layer relu1
I0501 00:07:02.583835  6346 net.cpp:86] Creating Layer relu1
I0501 00:07:02.583839  6346 net.cpp:408] relu1 <- ip1
I0501 00:07:02.583843  6346 net.cpp:369] relu1 -> ip1 (in-place)
I0501 00:07:02.584013  6346 net.cpp:124] Setting up relu1
I0501 00:07:02.584022  6346 net.cpp:131] Top shape: 111 40 (4440)
I0501 00:07:02.584026  6346 net.cpp:139] Memory required for data: 10638684
I0501 00:07:02.584031  6346 layer_factory.hpp:77] Creating layer ip2
I0501 00:07:02.584043  6346 net.cpp:86] Creating Layer ip2
I0501 00:07:02.584048  6346 net.cpp:408] ip2 <- ip1
I0501 00:07:02.584055  6346 net.cpp:382] ip2 -> ip2
I0501 00:07:02.584208  6346 net.cpp:124] Setting up ip2
I0501 00:07:02.584215  6346 net.cpp:131] Top shape: 111 40 (4440)
I0501 00:07:02.584219  6346 net.cpp:139] Memory required for data: 10656444
I0501 00:07:02.584230  6346 layer_factory.hpp:77] Creating layer relu2
I0501 00:07:02.584241  6346 net.cpp:86] Creating Layer relu2
I0501 00:07:02.584249  6346 net.cpp:408] relu2 <- ip2
I0501 00:07:02.584256  6346 net.cpp:369] relu2 -> ip2 (in-place)
I0501 00:07:02.584414  6346 net.cpp:124] Setting up relu2
I0501 00:07:02.584421  6346 net.cpp:131] Top shape: 111 40 (4440)
I0501 00:07:02.584425  6346 net.cpp:139] Memory required for data: 10674204
I0501 00:07:02.584430  6346 layer_factory.hpp:77] Creating layer ip3
I0501 00:07:02.584441  6346 net.cpp:86] Creating Layer ip3
I0501 00:07:02.584448  6346 net.cpp:408] ip3 <- ip2
I0501 00:07:02.584456  6346 net.cpp:382] ip3 -> ip3
I0501 00:07:02.584605  6346 net.cpp:124] Setting up ip3
I0501 00:07:02.584614  6346 net.cpp:131] Top shape: 111 40 (4440)
I0501 00:07:02.584617  6346 net.cpp:139] Memory required for data: 10691964
I0501 00:07:02.584625  6346 layer_factory.hpp:77] Creating layer relu3
I0501 00:07:02.584635  6346 net.cpp:86] Creating Layer relu3
I0501 00:07:02.584640  6346 net.cpp:408] relu3 <- ip3
I0501 00:07:02.584647  6346 net.cpp:369] relu3 -> ip3 (in-place)
I0501 00:07:02.584805  6346 net.cpp:124] Setting up relu3
I0501 00:07:02.584820  6346 net.cpp:131] Top shape: 111 40 (4440)
I0501 00:07:02.584825  6346 net.cpp:139] Memory required for data: 10709724
I0501 00:07:02.584830  6346 layer_factory.hpp:77] Creating layer ip4
I0501 00:07:02.584857  6346 net.cpp:86] Creating Layer ip4
I0501 00:07:02.584879  6346 net.cpp:408] ip4 <- ip3
I0501 00:07:02.584888  6346 net.cpp:382] ip4 -> ip4
I0501 00:07:02.585865  6346 net.cpp:124] Setting up ip4
I0501 00:07:02.585877  6346 net.cpp:131] Top shape: 111 10 (1110)
I0501 00:07:02.585880  6346 net.cpp:139] Memory required for data: 10714164
I0501 00:07:02.585889  6346 layer_factory.hpp:77] Creating layer loss
I0501 00:07:02.585896  6346 net.cpp:86] Creating Layer loss
I0501 00:07:02.585898  6346 net.cpp:408] loss <- ip4
I0501 00:07:02.585903  6346 net.cpp:408] loss <- label
I0501 00:07:02.585908  6346 net.cpp:382] loss -> loss
I0501 00:07:02.585932  6346 layer_factory.hpp:77] Creating layer loss
…
I0501 00:07:02.587191  6346 solver.cpp:173] Creating test net (#0) specified by net file: ECE595/cifar/train_test/var_everything/cifar_train_test_247.prototxt
I0501 00:07:02.587220  6346 net.cpp:296] The NetState phase (1) differed from the phase (0) specified by a rule in layer cifar
I0501 00:07:02.587328  6346 net.cpp:53] Initializing net from parameters: 
name: "CIFAR"
state {
  phase: TEST
}
layer {
  name: "cifar"
  type: "Data"
  top: "data"
  top: "label"
  include {
    phase: TEST
  }
  transform_param {
    mean_file: "examples/cifar10/mean.binaryproto"
  }
  data_param {
    source: "examples/cifar10/cifar10_test_lmdb"
    batch_size: 1000
    backend: LMDB
  }
}
layer {
  name: "conv0"
  type: "Convolution"
  bottom: "data"
  top: "conv0"
  param {
    lr_mult: 1
  }
  param {
    lr_mult: 2
  }
  convolution_param {
    num_output: 8
    pad: 2
    kernel_size: 3
    stride: 1
    weight_filler {
      type: "gaussian"
      std: 0.01
    }
    bias_filler {
      type: "constant"
    }
  }
}
layer {
  name: "Sigmoid0"
  type: "Sigmoid"
  bottom: "conv0"
  top: "Sigmoid0"
}
layer {
  name: "pool0"
  type: "Pooling"
  bottom: "Sigmoid0"
  top: "pool0"
  pooling_param {
    pool: AVE
    kernel_size: 3
    stride: 2
  }
}
layer {
  name: "ip1"
  type: "InnerProduct"
  bottom: "pool0"
  top: "ip1"
  param {
    lr_mult: 1
  }
  param {
    lr_mult: 2
  }
  inner_product_param {
    num_output: 40
    weight_filler {
      type: "gaussian"
      std: 0.01
    }
    bias_filler {
      type: "constant"
    }
  }
}
layer {
  name: "relu1"
  type: "ReLU"
  bottom: "ip1"
  top: "ip1"
}
layer {
  name: "ip2"
  type: "InnerProduct"
  bottom: "ip1"
  top: "ip2"
  param {
    lr_mult: 1
  }
  param {
    lr_mult: 2
  }
  inner_product_param {
    num_output: 40
    weight_filler {
      type: "gaussian"
      std: 0.01
    }
    bias_filler {
      type: "constant"
    }
  }
}
layer {
  name: "relu2"
  type: "ReLU"
  bottom: "ip2"
  top: "ip2"
}
layer {
  name: "ip3"
  type: "InnerProduct"
  bottom: "ip2"
  top: "ip3"
  param {
    lr_mult: 1
  }
  param {
    lr_mult: 2
  }
  inner_product_param {
    num_output: 40
    weight_filler {
      type: "gaussian"
      std: 0.01
    }
    bias_filler {
      type: "constant"
    }
  }
}
layer {
  name: "relu3"
  type: "ReLU"
  bottom: "ip3"
  top: "ip3"
}
layer {
  name: "ip4"
  type: "InnerProduct"
  bottom: "ip3"
  top: "ip4"
  param {
    lr_mult: 1
  }
  param {
    lr_mult: 2
  }
  inner_product_param {
    num_output: 10
    weight_filler {
      type: "gaussian"
      std: 0.01
    }
    bias_filler {
      type: "constant"
    }
  }
}
layer {
  name: "accuracy"
  type: "Accuracy"
  bottom: "ip4"
  bottom: "label"
  top: "accuracy"
  include {
    phase: TEST
  }
}
layer {
  name: "loss"
  type: "SoftmaxWithLoss"
  bottom: "ip4"
  bottom: "label"
  top: "loss"
}
I0501 00:07:02.587440  6346 layer_factory.hpp:77] Creating layer cifar
I0501 00:07:02.587502  6346 db_lmdb.cpp:35] Opened lmdb examples/cifar10/cifar10_test_lmdb
I0501 00:07:02.587518  6346 net.cpp:86] Creating Layer cifar
I0501 00:07:02.587527  6346 net.cpp:382] cifar -> data
I0501 00:07:02.587538  6346 net.cpp:382] cifar -> label
I0501 00:07:02.587549  6346 data_transformer.cpp:25] Loading mean file from: examples/cifar10/mean.binaryproto
I0501 00:07:02.587746  6346 data_layer.cpp:45] output data size: 1000,3,32,32
I0501 00:07:02.609936  6346 net.cpp:124] Setting up cifar
I0501 00:07:02.609961  6346 net.cpp:131] Top shape: 1000 3 32 32 (3072000)
I0501 00:07:02.609967  6346 net.cpp:131] Top shape: 1000 (1000)
I0501 00:07:02.609971  6346 net.cpp:139] Memory required for data: 12292000
I0501 00:07:02.609975  6346 layer_factory.hpp:77] Creating layer label_cifar_1_split
I0501 00:07:02.609993  6346 net.cpp:86] Creating Layer label_cifar_1_split
I0501 00:07:02.609999  6346 net.cpp:408] label_cifar_1_split <- label
I0501 00:07:02.610008  6346 net.cpp:382] label_cifar_1_split -> label_cifar_1_split_0
I0501 00:07:02.610019  6346 net.cpp:382] label_cifar_1_split -> label_cifar_1_split_1
I0501 00:07:02.610110  6346 net.cpp:124] Setting up label_cifar_1_split
I0501 00:07:02.610117  6346 net.cpp:131] Top shape: 1000 (1000)
I0501 00:07:02.610121  6346 net.cpp:131] Top shape: 1000 (1000)
I0501 00:07:02.610123  6346 net.cpp:139] Memory required for data: 12300000
I0501 00:07:02.610128  6346 layer_factory.hpp:77] Creating layer conv0
I0501 00:07:02.610146  6346 net.cpp:86] Creating Layer conv0
I0501 00:07:02.610152  6346 net.cpp:408] conv0 <- data
I0501 00:07:02.610159  6346 net.cpp:382] conv0 -> conv0
I0501 00:07:02.612501  6346 net.cpp:124] Setting up conv0
I0501 00:07:02.612516  6346 net.cpp:131] Top shape: 1000 8 34 34 (9248000)
I0501 00:07:02.612520  6346 net.cpp:139] Memory required for data: 49292000
I0501 00:07:02.612531  6346 layer_factory.hpp:77] Creating layer Sigmoid0
I0501 00:07:02.612540  6346 net.cpp:86] Creating Layer Sigmoid0
I0501 00:07:02.612545  6346 net.cpp:408] Sigmoid0 <- conv0
I0501 00:07:02.612553  6346 net.cpp:382] Sigmoid0 -> Sigmoid0
I0501 00:07:02.612736  6346 net.cpp:124] Setting up Sigmoid0
I0501 00:07:02.612746  6346 net.cpp:131] Top shape: 1000 8 34 34 (9248000)
I0501 00:07:02.612748  6346 net.cpp:139] Memory required for data: 86284000
I0501 00:07:02.612752  6346 layer_factory.hpp:77] Creating layer pool0
I0501 00:07:02.612763  6346 net.cpp:86] Creating Layer pool0
I0501 00:07:02.612768  6346 net.cpp:408] pool0 <- Sigmoid0
I0501 00:07:02.612776  6346 net.cpp:382] pool0 -> pool0
I0501 00:07:02.612951  6346 net.cpp:124] Setting up pool0
I0501 00:07:02.612962  6346 net.cpp:131] Top shape: 1000 8 17 17 (2312000)
I0501 00:07:02.612964  6346 net.cpp:139] Memory required for data: 95532000
I0501 00:07:02.612968  6346 layer_factory.hpp:77] Creating layer ip1
I0501 00:07:02.612978  6346 net.cpp:86] Creating Layer ip1
I0501 00:07:02.612983  6346 net.cpp:408] ip1 <- pool0
I0501 00:07:02.612992  6346 net.cpp:382] ip1 -> ip1
I0501 00:07:02.615604  6346 net.cpp:124] Setting up ip1
I0501 00:07:02.615614  6346 net.cpp:131] Top shape: 1000 40 (40000)
I0501 00:07:02.615618  6346 net.cpp:139] Memory required for data: 95692000
I0501 00:07:02.615651  6346 layer_factory.hpp:77] Creating layer relu1
I0501 00:07:02.615663  6346 net.cpp:86] Creating Layer relu1
I0501 00:07:02.615669  6346 net.cpp:408] relu1 <- ip1
I0501 00:07:02.615679  6346 net.cpp:369] relu1 -> ip1 (in-place)
I0501 00:07:02.615888  6346 net.cpp:124] Setting up relu1
I0501 00:07:02.615896  6346 net.cpp:131] Top shape: 1000 40 (40000)
I0501 00:07:02.615900  6346 net.cpp:139] Memory required for data: 95852000
I0501 00:07:02.615903  6346 layer_factory.hpp:77] Creating layer ip2
I0501 00:07:02.615912  6346 net.cpp:86] Creating Layer ip2
I0501 00:07:02.615917  6346 net.cpp:408] ip2 <- ip1
I0501 00:07:02.615926  6346 net.cpp:382] ip2 -> ip2
I0501 00:07:02.616076  6346 net.cpp:124] Setting up ip2
I0501 00:07:02.616084  6346 net.cpp:131] Top shape: 1000 40 (40000)
I0501 00:07:02.616087  6346 net.cpp:139] Memory required for data: 96012000
I0501 00:07:02.616097  6346 layer_factory.hpp:77] Creating layer relu2
I0501 00:07:02.616106  6346 net.cpp:86] Creating Layer relu2
I0501 00:07:02.616111  6346 net.cpp:408] relu2 <- ip2
I0501 00:07:02.616117  6346 net.cpp:369] relu2 -> ip2 (in-place)
I0501 00:07:02.616914  6346 net.cpp:124] Setting up relu2
I0501 00:07:02.616927  6346 net.cpp:131] Top shape: 1000 40 (40000)
I0501 00:07:02.616930  6346 net.cpp:139] Memory required for data: 96172000
I0501 00:07:02.616935  6346 layer_factory.hpp:77] Creating layer ip3
I0501 00:07:02.616945  6346 net.cpp:86] Creating Layer ip3
I0501 00:07:02.616951  6346 net.cpp:408] ip3 <- ip2
I0501 00:07:02.616961  6346 net.cpp:382] ip3 -> ip3
I0501 00:07:02.617122  6346 net.cpp:124] Setting up ip3
I0501 00:07:02.617131  6346 net.cpp:131] Top shape: 1000 40 (40000)
I0501 00:07:02.617135  6346 net.cpp:139] Memory required for data: 96332000
I0501 00:07:02.617142  6346 layer_factory.hpp:77] Creating layer relu3
I0501 00:07:02.617167  6346 net.cpp:86] Creating Layer relu3
I0501 00:07:02.617192  6346 net.cpp:408] relu3 <- ip3
I0501 00:07:02.617197  6346 net.cpp:369] relu3 -> ip3 (in-place)
I0501 00:07:02.617353  6346 net.cpp:124] Setting up relu3
I0501 00:07:02.617362  6346 net.cpp:131] Top shape: 1000 40 (40000)
I0501 00:07:02.617365  6346 net.cpp:139] Memory required for data: 96492000
I0501 00:07:02.617368  6346 layer_factory.hpp:77] Creating layer ip4
I0501 00:07:02.617377  6346 net.cpp:86] Creating Layer ip4
I0501 00:07:02.617383  6346 net.cpp:408] ip4 <- ip3
I0501 00:07:02.617390  6346 net.cpp:382] ip4 -> ip4
I0501 00:07:02.617528  6346 net.cpp:124] Setting up ip4
I0501 00:07:02.617535  6346 net.cpp:131] Top shape: 1000 10 (10000)
I0501 00:07:02.617538  6346 net.cpp:139] Memory required for data: 96532000
I0501 00:07:02.617549  6346 layer_factory.hpp:77] Creating layer ip4_ip4_0_split
I0501 00:07:02.617558  6346 net.cpp:86] Creating Layer ip4_ip4_0_split
I0501 00:07:02.617563  6346 net.cpp:408] ip4_ip4_0_split <- ip4
I0501 00:07:02.617569  6346 net.cpp:382] ip4_ip4_0_split -> ip4_ip4_0_split_0
I0501 00:07:02.617578  6346 net.cpp:382] ip4_ip4_0_split -> ip4_ip4_0_split_1
I0501 00:07:02.617621  6346 net.cpp:124] Setting up ip4_ip4_0_split
I0501 00:07:02.617627  6346 net.cpp:131] Top shape: 1000 10 (10000)
I0501 00:07:02.617631  6346 net.cpp:131] Top shape: 1000 10 (10000)
I0501 00:07:02.617635  6346 net.cpp:139] Memory required for data: 96612000
I0501 00:07:02.617640  6346 layer_factory.hpp:77] Creating layer accuracy
I0501 00:07:02.617648  6346 net.cpp:86] Creating Layer accuracy
I0501 00:07:02.617655  6346 net.cpp:408] accuracy <- ip4_ip4_0_split_0
I0501 00:07:02.617660  6346 net.cpp:408] accuracy <- label_cifar_1_split_0
I0501 00:07:02.617667  6346 net.cpp:382] accuracy -> accuracy
…
