…
I0501 07:21:12.704054  4663 net.cpp:296] The NetState phase (0) differed from the phase (1) specified by a rule in layer cifar
I0501 07:21:12.704077  4663 net.cpp:296] The NetState phase (0) differed from the phase (1) specified by a rule in layer accuracy
I0501 07:21:12.704175  4663 net.cpp:53] Initializing net from parameters: 
name: "CIFAR"
state {
  phase: TRAIN
  level: 0
  stage: ""
}
layer {
  name: "cifar"
  type: "Data"
  top: "data"
  top: "label"
  include {
    phase: TRAIN
  }
  transform_param {
    mean_file: "examples/cifar10/mean.binaryproto"
  }
  data_param {
    source: "examples/cifar10/cifar10_train_lmdb"
    batch_size: 111
    backend: LMDB
  }
}
layer {
  name: "conv0"
  type: "Convolution"
  bottom: "data"
  top: "conv0"
  param {
    lr_mult: 1
  }
  param {
    lr_mult: 2
  }
  convolution_param {
    num_output: 16
    pad: 2
    kernel_size: 3
    stride: 1
    weight_filler {
      type: "gaussian"
      std: 0.01
    }
    bias_filler {
      type: "constant"
    }
  }
}
layer {
  name: "Sigmoid0"
  type: "Sigmoid"
  bottom: "conv0"
  top: "Sigmoid0"
}
layer {
  name: "pool0"
  type: "Pooling"
  bottom: "Sigmoid0"
  top: "pool0"
  pooling_param {
    pool: AVE
    kernel_size: 3
    stride: 2
  }
}
layer {
  name: "ip1"
  type: "InnerProduct"
  bottom: "pool0"
  top: "ip1"
  param {
    lr_mult: 1
  }
  param {
    lr_mult: 2
  }
  inner_product_param {
    num_output: 20
    weight_filler {
      type: "gaussian"
      std: 0.01
    }
    bias_filler {
      type: "constant"
    }
  }
}
layer {
  name: "relu1"
  type: "ReLU"
  bottom: "ip1"
  top: "ip1"
}
layer {
  name: "ip2"
  type: "InnerProduct"
  bottom: "ip1"
  top: "ip2"
  param {
    lr_mult: 1
  }
  param {
    lr_mult: 2
  }
  inner_product_param {
    num_output: 160
    weight_filler {
      type: "gaussian"
      std: 0.01
    }
    bias_filler {
      type: "constant"
    }
  }
}
layer {
  name: "relu2"
  type: "ReLU"
  bottom: "ip2"
  top: "ip2"
}
layer {
  name: "ip3"
  type: "InnerProduct"
  bottom: "ip2"
  top: "ip3"
  param {
    lr_mult: 1
  }
  param {
    lr_mult: 2
  }
  inner_product_param {
    num_output: 10
    weight_filler {
      type: "gaussian"
      std: 0.01
    }
    bias_filler {
      type: "constant"
    }
  }
}
layer {
  name: "loss"
  type: "SoftmaxWithLoss"
  bottom: "ip3"
  bottom: "label"
  top: "loss"
}
I0501 07:21:12.704272  4663 layer_factory.hpp:77] Creating layer cifar
I0501 07:21:12.704413  4663 db_lmdb.cpp:35] Opened lmdb examples/cifar10/cifar10_train_lmdb
I0501 07:21:12.704452  4663 net.cpp:86] Creating Layer cifar
I0501 07:21:12.704463  4663 net.cpp:382] cifar -> data
I0501 07:21:12.704494  4663 net.cpp:382] cifar -> label
I0501 07:21:12.704512  4663 data_transformer.cpp:25] Loading mean file from: examples/cifar10/mean.binaryproto
I0501 07:21:12.706843  4663 data_layer.cpp:45] output data size: 111,3,32,32
I0501 07:21:12.715064  4663 net.cpp:124] Setting up cifar
I0501 07:21:12.715086  4663 net.cpp:131] Top shape: 111 3 32 32 (340992)
I0501 07:21:12.715097  4663 net.cpp:131] Top shape: 111 (111)
I0501 07:21:12.715103  4663 net.cpp:139] Memory required for data: 1364412
I0501 07:21:12.715116  4663 layer_factory.hpp:77] Creating layer conv0
I0501 07:21:12.715142  4663 net.cpp:86] Creating Layer conv0
I0501 07:21:12.715153  4663 net.cpp:408] conv0 <- data
I0501 07:21:12.715173  4663 net.cpp:382] conv0 -> conv0
I0501 07:21:12.997185  4663 net.cpp:124] Setting up conv0
I0501 07:21:12.997232  4663 net.cpp:131] Top shape: 111 16 34 34 (2053056)
I0501 07:21:12.997239  4663 net.cpp:139] Memory required for data: 9576636
I0501 07:21:12.997259  4663 layer_factory.hpp:77] Creating layer Sigmoid0
I0501 07:21:12.997277  4663 net.cpp:86] Creating Layer Sigmoid0
I0501 07:21:12.997287  4663 net.cpp:408] Sigmoid0 <- conv0
I0501 07:21:12.997297  4663 net.cpp:382] Sigmoid0 -> Sigmoid0
I0501 07:21:12.997473  4663 net.cpp:124] Setting up Sigmoid0
I0501 07:21:12.997484  4663 net.cpp:131] Top shape: 111 16 34 34 (2053056)
I0501 07:21:12.997490  4663 net.cpp:139] Memory required for data: 17788860
I0501 07:21:12.997495  4663 layer_factory.hpp:77] Creating layer pool0
I0501 07:21:12.997505  4663 net.cpp:86] Creating Layer pool0
I0501 07:21:12.997511  4663 net.cpp:408] pool0 <- Sigmoid0
I0501 07:21:12.997519  4663 net.cpp:382] pool0 -> pool0
I0501 07:21:12.998245  4663 net.cpp:124] Setting up pool0
I0501 07:21:12.998261  4663 net.cpp:131] Top shape: 111 16 17 17 (513264)
I0501 07:21:12.998266  4663 net.cpp:139] Memory required for data: 19841916
I0501 07:21:12.998272  4663 layer_factory.hpp:77] Creating layer ip1
I0501 07:21:12.998286  4663 net.cpp:86] Creating Layer ip1
I0501 07:21:12.998291  4663 net.cpp:408] ip1 <- pool0
I0501 07:21:12.998301  4663 net.cpp:382] ip1 -> ip1
I0501 07:21:13.000846  4663 net.cpp:124] Setting up ip1
I0501 07:21:13.000857  4663 net.cpp:131] Top shape: 111 20 (2220)
I0501 07:21:13.000862  4663 net.cpp:139] Memory required for data: 19850796
I0501 07:21:13.000890  4663 layer_factory.hpp:77] Creating layer relu1
I0501 07:21:13.000900  4663 net.cpp:86] Creating Layer relu1
I0501 07:21:13.000921  4663 net.cpp:408] relu1 <- ip1
I0501 07:21:13.000928  4663 net.cpp:369] relu1 -> ip1 (in-place)
I0501 07:21:13.001088  4663 net.cpp:124] Setting up relu1
I0501 07:21:13.001099  4663 net.cpp:131] Top shape: 111 20 (2220)
I0501 07:21:13.001104  4663 net.cpp:139] Memory required for data: 19859676
I0501 07:21:13.001111  4663 layer_factory.hpp:77] Creating layer ip2
I0501 07:21:13.001134  4663 net.cpp:86] Creating Layer ip2
I0501 07:21:13.001139  4663 net.cpp:408] ip2 <- ip1
I0501 07:21:13.001147  4663 net.cpp:382] ip2 -> ip2
I0501 07:21:13.001358  4663 net.cpp:124] Setting up ip2
I0501 07:21:13.001365  4663 net.cpp:131] Top shape: 111 160 (17760)
I0501 07:21:13.001370  4663 net.cpp:139] Memory required for data: 19930716
I0501 07:21:13.001381  4663 layer_factory.hpp:77] Creating layer relu2
I0501 07:21:13.001389  4663 net.cpp:86] Creating Layer relu2
I0501 07:21:13.001394  4663 net.cpp:408] relu2 <- ip2
I0501 07:21:13.001401  4663 net.cpp:369] relu2 -> ip2 (in-place)
I0501 07:21:13.001551  4663 net.cpp:124] Setting up relu2
I0501 07:21:13.001560  4663 net.cpp:131] Top shape: 111 160 (17760)
I0501 07:21:13.001565  4663 net.cpp:139] Memory required for data: 20001756
I0501 07:21:13.001570  4663 layer_factory.hpp:77] Creating layer ip3
I0501 07:21:13.001596  4663 net.cpp:86] Creating Layer ip3
I0501 07:21:13.001601  4663 net.cpp:408] ip3 <- ip2
I0501 07:21:13.001610  4663 net.cpp:382] ip3 -> ip3
I0501 07:21:13.001741  4663 net.cpp:124] Setting up ip3
I0501 07:21:13.001750  4663 net.cpp:131] Top shape: 111 10 (1110)
I0501 07:21:13.001755  4663 net.cpp:139] Memory required for data: 20006196
I0501 07:21:13.001763  4663 layer_factory.hpp:77] Creating layer loss
I0501 07:21:13.001772  4663 net.cpp:86] Creating Layer loss
I0501 07:21:13.001777  4663 net.cpp:408] loss <- ip3
I0501 07:21:13.001783  4663 net.cpp:408] loss <- label
I0501 07:21:13.001791  4663 net.cpp:382] loss -> loss
I0501 07:21:13.001816  4663 layer_factory.hpp:77] Creating layer loss
…
I0501 07:21:13.002442  4663 solver.cpp:173] Creating test net (#0) specified by net file: ECE595/cifar/train_test/var_everything/cifar_train_test_479.prototxt
I0501 07:21:13.002475  4663 net.cpp:296] The NetState phase (1) differed from the phase (0) specified by a rule in layer cifar
I0501 07:21:13.002559  4663 net.cpp:53] Initializing net from parameters: 
name: "CIFAR"
state {
  phase: TEST
}
layer {
  name: "cifar"
  type: "Data"
  top: "data"
  top: "label"
  include {
    phase: TEST
  }
  transform_param {
    mean_file: "examples/cifar10/mean.binaryproto"
  }
  data_param {
    source: "examples/cifar10/cifar10_test_lmdb"
    batch_size: 1000
    backend: LMDB
  }
}
layer {
  name: "conv0"
  type: "Convolution"
  bottom: "data"
  top: "conv0"
  param {
    lr_mult: 1
  }
  param {
    lr_mult: 2
  }
  convolution_param {
    num_output: 16
    pad: 2
    kernel_size: 3
    stride: 1
    weight_filler {
      type: "gaussian"
      std: 0.01
    }
    bias_filler {
      type: "constant"
    }
  }
}
layer {
  name: "Sigmoid0"
  type: "Sigmoid"
  bottom: "conv0"
  top: "Sigmoid0"
}
layer {
  name: "pool0"
  type: "Pooling"
  bottom: "Sigmoid0"
  top: "pool0"
  pooling_param {
    pool: AVE
    kernel_size: 3
    stride: 2
  }
}
layer {
  name: "ip1"
  type: "InnerProduct"
  bottom: "pool0"
  top: "ip1"
  param {
    lr_mult: 1
  }
  param {
    lr_mult: 2
  }
  inner_product_param {
    num_output: 20
    weight_filler {
      type: "gaussian"
      std: 0.01
    }
    bias_filler {
      type: "constant"
    }
  }
}
layer {
  name: "relu1"
  type: "ReLU"
  bottom: "ip1"
  top: "ip1"
}
layer {
  name: "ip2"
  type: "InnerProduct"
  bottom: "ip1"
  top: "ip2"
  param {
    lr_mult: 1
  }
  param {
    lr_mult: 2
  }
  inner_product_param {
    num_output: 160
    weight_filler {
      type: "gaussian"
      std: 0.01
    }
    bias_filler {
      type: "constant"
    }
  }
}
layer {
  name: "relu2"
  type: "ReLU"
  bottom: "ip2"
  top: "ip2"
}
layer {
  name: "ip3"
  type: "InnerProduct"
  bottom: "ip2"
  top: "ip3"
  param {
    lr_mult: 1
  }
  param {
    lr_mult: 2
  }
  inner_product_param {
    num_output: 10
    weight_filler {
      type: "gaussian"
      std: 0.01
    }
    bias_filler {
      type: "constant"
    }
  }
}
layer {
  name: "accuracy"
  type: "Accuracy"
  bottom: "ip3"
  bottom: "label"
  top: "accuracy"
  include {
    phase: TEST
  }
}
layer {
  name: "loss"
  type: "SoftmaxWithLoss"
  bottom: "ip3"
  bottom: "label"
  top: "loss"
}
I0501 07:21:13.002648  4663 layer_factory.hpp:77] Creating layer cifar
I0501 07:21:13.002725  4663 db_lmdb.cpp:35] Opened lmdb examples/cifar10/cifar10_test_lmdb
I0501 07:21:13.002743  4663 net.cpp:86] Creating Layer cifar
I0501 07:21:13.002750  4663 net.cpp:382] cifar -> data
I0501 07:21:13.002761  4663 net.cpp:382] cifar -> label
I0501 07:21:13.002771  4663 data_transformer.cpp:25] Loading mean file from: examples/cifar10/mean.binaryproto
I0501 07:21:13.002965  4663 data_layer.cpp:45] output data size: 1000,3,32,32
I0501 07:21:13.025374  4663 net.cpp:124] Setting up cifar
I0501 07:21:13.025403  4663 net.cpp:131] Top shape: 1000 3 32 32 (3072000)
I0501 07:21:13.025409  4663 net.cpp:131] Top shape: 1000 (1000)
I0501 07:21:13.025414  4663 net.cpp:139] Memory required for data: 12292000
I0501 07:21:13.025421  4663 layer_factory.hpp:77] Creating layer label_cifar_1_split
I0501 07:21:13.025437  4663 net.cpp:86] Creating Layer label_cifar_1_split
I0501 07:21:13.025466  4663 net.cpp:408] label_cifar_1_split <- label
I0501 07:21:13.025476  4663 net.cpp:382] label_cifar_1_split -> label_cifar_1_split_0
I0501 07:21:13.025491  4663 net.cpp:382] label_cifar_1_split -> label_cifar_1_split_1
I0501 07:21:13.025565  4663 net.cpp:124] Setting up label_cifar_1_split
I0501 07:21:13.025574  4663 net.cpp:131] Top shape: 1000 (1000)
I0501 07:21:13.025580  4663 net.cpp:131] Top shape: 1000 (1000)
I0501 07:21:13.025585  4663 net.cpp:139] Memory required for data: 12300000
I0501 07:21:13.025590  4663 layer_factory.hpp:77] Creating layer conv0
I0501 07:21:13.025607  4663 net.cpp:86] Creating Layer conv0
I0501 07:21:13.025614  4663 net.cpp:408] conv0 <- data
I0501 07:21:13.025622  4663 net.cpp:382] conv0 -> conv0
I0501 07:21:13.027227  4663 net.cpp:124] Setting up conv0
I0501 07:21:13.027242  4663 net.cpp:131] Top shape: 1000 16 34 34 (18496000)
I0501 07:21:13.027248  4663 net.cpp:139] Memory required for data: 86284000
I0501 07:21:13.027277  4663 layer_factory.hpp:77] Creating layer Sigmoid0
I0501 07:21:13.027287  4663 net.cpp:86] Creating Layer Sigmoid0
I0501 07:21:13.027298  4663 net.cpp:408] Sigmoid0 <- conv0
I0501 07:21:13.027305  4663 net.cpp:382] Sigmoid0 -> Sigmoid0
I0501 07:21:13.028170  4663 net.cpp:124] Setting up Sigmoid0
I0501 07:21:13.028184  4663 net.cpp:131] Top shape: 1000 16 34 34 (18496000)
I0501 07:21:13.028189  4663 net.cpp:139] Memory required for data: 160268000
I0501 07:21:13.028195  4663 layer_factory.hpp:77] Creating layer pool0
I0501 07:21:13.028208  4663 net.cpp:86] Creating Layer pool0
I0501 07:21:13.028213  4663 net.cpp:408] pool0 <- Sigmoid0
I0501 07:21:13.028221  4663 net.cpp:382] pool0 -> pool0
I0501 07:21:13.029361  4663 net.cpp:124] Setting up pool0
I0501 07:21:13.029379  4663 net.cpp:131] Top shape: 1000 16 17 17 (4624000)
I0501 07:21:13.029386  4663 net.cpp:139] Memory required for data: 178764000
I0501 07:21:13.029392  4663 layer_factory.hpp:77] Creating layer ip1
I0501 07:21:13.029404  4663 net.cpp:86] Creating Layer ip1
I0501 07:21:13.029410  4663 net.cpp:408] ip1 <- pool0
I0501 07:21:13.029419  4663 net.cpp:382] ip1 -> ip1
I0501 07:21:13.031929  4663 net.cpp:124] Setting up ip1
I0501 07:21:13.031939  4663 net.cpp:131] Top shape: 1000 20 (20000)
I0501 07:21:13.031944  4663 net.cpp:139] Memory required for data: 178844000
I0501 07:21:13.031957  4663 layer_factory.hpp:77] Creating layer relu1
I0501 07:21:13.031966  4663 net.cpp:86] Creating Layer relu1
I0501 07:21:13.031975  4663 net.cpp:408] relu1 <- ip1
I0501 07:21:13.031982  4663 net.cpp:369] relu1 -> ip1 (in-place)
I0501 07:21:13.032148  4663 net.cpp:124] Setting up relu1
I0501 07:21:13.032158  4663 net.cpp:131] Top shape: 1000 20 (20000)
I0501 07:21:13.032163  4663 net.cpp:139] Memory required for data: 178924000
I0501 07:21:13.032169  4663 layer_factory.hpp:77] Creating layer ip2
I0501 07:21:13.032178  4663 net.cpp:86] Creating Layer ip2
I0501 07:21:13.032184  4663 net.cpp:408] ip2 <- ip1
I0501 07:21:13.032192  4663 net.cpp:382] ip2 -> ip2
I0501 07:21:13.032379  4663 net.cpp:124] Setting up ip2
I0501 07:21:13.032388  4663 net.cpp:131] Top shape: 1000 160 (160000)
I0501 07:21:13.032393  4663 net.cpp:139] Memory required for data: 179564000
I0501 07:21:13.032405  4663 layer_factory.hpp:77] Creating layer relu2
I0501 07:21:13.032434  4663 net.cpp:86] Creating Layer relu2
I0501 07:21:13.032440  4663 net.cpp:408] relu2 <- ip2
I0501 07:21:13.032447  4663 net.cpp:369] relu2 -> ip2 (in-place)
I0501 07:21:13.032596  4663 net.cpp:124] Setting up relu2
I0501 07:21:13.032605  4663 net.cpp:131] Top shape: 1000 160 (160000)
I0501 07:21:13.032610  4663 net.cpp:139] Memory required for data: 180204000
I0501 07:21:13.032615  4663 layer_factory.hpp:77] Creating layer ip3
I0501 07:21:13.032625  4663 net.cpp:86] Creating Layer ip3
I0501 07:21:13.032630  4663 net.cpp:408] ip3 <- ip2
I0501 07:21:13.032639  4663 net.cpp:382] ip3 -> ip3
I0501 07:21:13.032774  4663 net.cpp:124] Setting up ip3
I0501 07:21:13.032783  4663 net.cpp:131] Top shape: 1000 10 (10000)
I0501 07:21:13.032801  4663 net.cpp:139] Memory required for data: 180244000
I0501 07:21:13.032832  4663 layer_factory.hpp:77] Creating layer ip3_ip3_0_split
I0501 07:21:13.032840  4663 net.cpp:86] Creating Layer ip3_ip3_0_split
I0501 07:21:13.032846  4663 net.cpp:408] ip3_ip3_0_split <- ip3
I0501 07:21:13.032853  4663 net.cpp:382] ip3_ip3_0_split -> ip3_ip3_0_split_0
I0501 07:21:13.032863  4663 net.cpp:382] ip3_ip3_0_split -> ip3_ip3_0_split_1
I0501 07:21:13.032902  4663 net.cpp:124] Setting up ip3_ip3_0_split
I0501 07:21:13.032910  4663 net.cpp:131] Top shape: 1000 10 (10000)
I0501 07:21:13.032917  4663 net.cpp:131] Top shape: 1000 10 (10000)
I0501 07:21:13.032922  4663 net.cpp:139] Memory required for data: 180324000
I0501 07:21:13.032927  4663 layer_factory.hpp:77] Creating layer accuracy
I0501 07:21:13.032935  4663 net.cpp:86] Creating Layer accuracy
I0501 07:21:13.032940  4663 net.cpp:408] accuracy <- ip3_ip3_0_split_0
I0501 07:21:13.032948  4663 net.cpp:408] accuracy <- label_cifar_1_split_0
I0501 07:21:13.032954  4663 net.cpp:382] accuracy -> accuracy
…
