…
I0430 16:51:33.556871 18386 net.cpp:296] The NetState phase (0) differed from the phase (1) specified by a rule in layer cifar
I0430 16:51:33.556886 18386 net.cpp:296] The NetState phase (0) differed from the phase (1) specified by a rule in layer accuracy
I0430 16:51:33.556958 18386 net.cpp:53] Initializing net from parameters: 
name: "CIFAR"
state {
  phase: TRAIN
  level: 0
  stage: ""
}
layer {
  name: "cifar"
  type: "Data"
  top: "data"
  top: "label"
  include {
    phase: TRAIN
  }
  transform_param {
    mean_file: "examples/cifar10/mean.binaryproto"
  }
  data_param {
    source: "examples/cifar10/cifar10_train_lmdb"
    batch_size: 111
    backend: LMDB
  }
}
layer {
  name: "ip1"
  type: "InnerProduct"
  bottom: "data"
  top: "ip1"
  param {
    lr_mult: 1
  }
  param {
    lr_mult: 2
  }
  inner_product_param {
    num_output: 40
    weight_filler {
      type: "gaussian"
      std: 0.01
    }
    bias_filler {
      type: "constant"
    }
  }
}
layer {
  name: "relu1"
  type: "ReLU"
  bottom: "ip1"
  top: "ip1"
}
layer {
  name: "ip2"
  type: "InnerProduct"
  bottom: "ip1"
  top: "ip2"
  param {
    lr_mult: 1
  }
  param {
    lr_mult: 2
  }
  inner_product_param {
    num_output: 20
    weight_filler {
      type: "gaussian"
      std: 0.01
    }
    bias_filler {
      type: "constant"
    }
  }
}
layer {
  name: "relu2"
  type: "ReLU"
  bottom: "ip2"
  top: "ip2"
}
layer {
  name: "ip3"
  type: "InnerProduct"
  bottom: "ip2"
  top: "ip3"
  param {
    lr_mult: 1
  }
  param {
    lr_mult: 2
  }
  inner_product_param {
    num_output: 10
    weight_filler {
      type: "gaussian"
      std: 0.01
    }
    bias_filler {
      type: "constant"
    }
  }
}
layer {
  name: "loss"
  type: "SoftmaxWithLoss"
  bottom: "ip3"
  bottom: "label"
  top: "loss"
}
I0430 16:51:33.557015 18386 layer_factory.hpp:77] Creating layer cifar
I0430 16:51:33.557111 18386 db_lmdb.cpp:35] Opened lmdb examples/cifar10/cifar10_train_lmdb
I0430 16:51:33.557137 18386 net.cpp:86] Creating Layer cifar
I0430 16:51:33.557144 18386 net.cpp:382] cifar -> data
I0430 16:51:33.557168 18386 net.cpp:382] cifar -> label
I0430 16:51:33.557179 18386 data_transformer.cpp:25] Loading mean file from: examples/cifar10/mean.binaryproto
I0430 16:51:33.559295 18386 data_layer.cpp:45] output data size: 111,3,32,32
I0430 16:51:33.567344 18386 net.cpp:124] Setting up cifar
I0430 16:51:33.567363 18386 net.cpp:131] Top shape: 111 3 32 32 (340992)
I0430 16:51:33.567370 18386 net.cpp:131] Top shape: 111 (111)
I0430 16:51:33.567374 18386 net.cpp:139] Memory required for data: 1364412
I0430 16:51:33.567383 18386 layer_factory.hpp:77] Creating layer ip1
I0430 16:51:33.567394 18386 net.cpp:86] Creating Layer ip1
I0430 16:51:33.567400 18386 net.cpp:408] ip1 <- data
I0430 16:51:33.567412 18386 net.cpp:382] ip1 -> ip1
I0430 16:51:33.571666 18386 net.cpp:124] Setting up ip1
I0430 16:51:33.571681 18386 net.cpp:131] Top shape: 111 40 (4440)
I0430 16:51:33.571686 18386 net.cpp:139] Memory required for data: 1382172
I0430 16:51:33.571699 18386 layer_factory.hpp:77] Creating layer relu1
I0430 16:51:33.571708 18386 net.cpp:86] Creating Layer relu1
I0430 16:51:33.571722 18386 net.cpp:408] relu1 <- ip1
I0430 16:51:33.571727 18386 net.cpp:369] relu1 -> ip1 (in-place)
I0430 16:51:33.853567 18386 net.cpp:124] Setting up relu1
I0430 16:51:33.853597 18386 net.cpp:131] Top shape: 111 40 (4440)
I0430 16:51:33.853602 18386 net.cpp:139] Memory required for data: 1399932
I0430 16:51:33.853636 18386 layer_factory.hpp:77] Creating layer ip2
I0430 16:51:33.853652 18386 net.cpp:86] Creating Layer ip2
I0430 16:51:33.853659 18386 net.cpp:408] ip2 <- ip1
I0430 16:51:33.853668 18386 net.cpp:382] ip2 -> ip2
I0430 16:51:33.854805 18386 net.cpp:124] Setting up ip2
I0430 16:51:33.854820 18386 net.cpp:131] Top shape: 111 20 (2220)
I0430 16:51:33.854825 18386 net.cpp:139] Memory required for data: 1408812
I0430 16:51:33.854836 18386 layer_factory.hpp:77] Creating layer relu2
I0430 16:51:33.854846 18386 net.cpp:86] Creating Layer relu2
I0430 16:51:33.854852 18386 net.cpp:408] relu2 <- ip2
I0430 16:51:33.854858 18386 net.cpp:369] relu2 -> ip2 (in-place)
I0430 16:51:33.855716 18386 net.cpp:124] Setting up relu2
I0430 16:51:33.855731 18386 net.cpp:131] Top shape: 111 20 (2220)
I0430 16:51:33.855734 18386 net.cpp:139] Memory required for data: 1417692
I0430 16:51:33.855739 18386 layer_factory.hpp:77] Creating layer ip3
I0430 16:51:33.855747 18386 net.cpp:86] Creating Layer ip3
I0430 16:51:33.855753 18386 net.cpp:408] ip3 <- ip2
I0430 16:51:33.855759 18386 net.cpp:382] ip3 -> ip3
I0430 16:51:33.855877 18386 net.cpp:124] Setting up ip3
I0430 16:51:33.855885 18386 net.cpp:131] Top shape: 111 10 (1110)
I0430 16:51:33.855890 18386 net.cpp:139] Memory required for data: 1422132
I0430 16:51:33.855898 18386 layer_factory.hpp:77] Creating layer loss
I0430 16:51:33.855906 18386 net.cpp:86] Creating Layer loss
I0430 16:51:33.855909 18386 net.cpp:408] loss <- ip3
I0430 16:51:33.855914 18386 net.cpp:408] loss <- label
I0430 16:51:33.855921 18386 net.cpp:382] loss -> loss
I0430 16:51:33.855942 18386 layer_factory.hpp:77] Creating layer loss
…
I0430 16:51:33.856549 18386 solver.cpp:173] Creating test net (#0) specified by net file: ECE595/cifar/train_test/var_everything/cifar_train_test_16.prototxt
I0430 16:51:33.856573 18386 net.cpp:296] The NetState phase (1) differed from the phase (0) specified by a rule in layer cifar
I0430 16:51:33.856654 18386 net.cpp:53] Initializing net from parameters: 
name: "CIFAR"
state {
  phase: TEST
}
layer {
  name: "cifar"
  type: "Data"
  top: "data"
  top: "label"
  include {
    phase: TEST
  }
  transform_param {
    mean_file: "examples/cifar10/mean.binaryproto"
  }
  data_param {
    source: "examples/cifar10/cifar10_test_lmdb"
    batch_size: 1000
    backend: LMDB
  }
}
layer {
  name: "ip1"
  type: "InnerProduct"
  bottom: "data"
  top: "ip1"
  param {
    lr_mult: 1
  }
  param {
    lr_mult: 2
  }
  inner_product_param {
    num_output: 40
    weight_filler {
      type: "gaussian"
      std: 0.01
    }
    bias_filler {
      type: "constant"
    }
  }
}
layer {
  name: "relu1"
  type: "ReLU"
  bottom: "ip1"
  top: "ip1"
}
layer {
  name: "ip2"
  type: "InnerProduct"
  bottom: "ip1"
  top: "ip2"
  param {
    lr_mult: 1
  }
  param {
    lr_mult: 2
  }
  inner_product_param {
    num_output: 20
    weight_filler {
      type: "gaussian"
      std: 0.01
    }
    bias_filler {
      type: "constant"
    }
  }
}
layer {
  name: "relu2"
  type: "ReLU"
  bottom: "ip2"
  top: "ip2"
}
layer {
  name: "ip3"
  type: "InnerProduct"
  bottom: "ip2"
  top: "ip3"
  param {
    lr_mult: 1
  }
  param {
    lr_mult: 2
  }
  inner_product_param {
    num_output: 10
    weight_filler {
      type: "gaussian"
      std: 0.01
    }
    bias_filler {
      type: "constant"
    }
  }
}
layer {
  name: "accuracy"
  type: "Accuracy"
  bottom: "ip3"
  bottom: "label"
  top: "accuracy"
  include {
    phase: TEST
  }
}
layer {
  name: "loss"
  type: "SoftmaxWithLoss"
  bottom: "ip3"
  bottom: "label"
  top: "loss"
}
I0430 16:51:33.856730 18386 layer_factory.hpp:77] Creating layer cifar
I0430 16:51:33.856781 18386 db_lmdb.cpp:35] Opened lmdb examples/cifar10/cifar10_test_lmdb
I0430 16:51:33.856796 18386 net.cpp:86] Creating Layer cifar
I0430 16:51:33.856801 18386 net.cpp:382] cifar -> data
I0430 16:51:33.856817 18386 net.cpp:382] cifar -> label
I0430 16:51:33.856825 18386 data_transformer.cpp:25] Loading mean file from: examples/cifar10/mean.binaryproto
I0430 16:51:33.856994 18386 data_layer.cpp:45] output data size: 1000,3,32,32
I0430 16:51:33.882740 18386 net.cpp:124] Setting up cifar
I0430 16:51:33.882768 18386 net.cpp:131] Top shape: 1000 3 32 32 (3072000)
I0430 16:51:33.882776 18386 net.cpp:131] Top shape: 1000 (1000)
I0430 16:51:33.882781 18386 net.cpp:139] Memory required for data: 12292000
I0430 16:51:33.882787 18386 layer_factory.hpp:77] Creating layer label_cifar_1_split
I0430 16:51:33.882822 18386 net.cpp:86] Creating Layer label_cifar_1_split
I0430 16:51:33.882828 18386 net.cpp:408] label_cifar_1_split <- label
I0430 16:51:33.882836 18386 net.cpp:382] label_cifar_1_split -> label_cifar_1_split_0
I0430 16:51:33.882846 18386 net.cpp:382] label_cifar_1_split -> label_cifar_1_split_1
I0430 16:51:33.882964 18386 net.cpp:124] Setting up label_cifar_1_split
I0430 16:51:33.882973 18386 net.cpp:131] Top shape: 1000 (1000)
I0430 16:51:33.882977 18386 net.cpp:131] Top shape: 1000 (1000)
I0430 16:51:33.882982 18386 net.cpp:139] Memory required for data: 12300000
I0430 16:51:33.882984 18386 layer_factory.hpp:77] Creating layer ip1
I0430 16:51:33.882995 18386 net.cpp:86] Creating Layer ip1
I0430 16:51:33.882999 18386 net.cpp:408] ip1 <- data
I0430 16:51:33.883005 18386 net.cpp:382] ip1 -> ip1
I0430 16:51:33.887249 18386 net.cpp:124] Setting up ip1
I0430 16:51:33.887261 18386 net.cpp:131] Top shape: 1000 40 (40000)
I0430 16:51:33.887267 18386 net.cpp:139] Memory required for data: 12460000
I0430 16:51:33.887279 18386 layer_factory.hpp:77] Creating layer relu1
I0430 16:51:33.887287 18386 net.cpp:86] Creating Layer relu1
I0430 16:51:33.887291 18386 net.cpp:408] relu1 <- ip1
I0430 16:51:33.887296 18386 net.cpp:369] relu1 -> ip1 (in-place)
I0430 16:51:33.887511 18386 net.cpp:124] Setting up relu1
I0430 16:51:33.887521 18386 net.cpp:131] Top shape: 1000 40 (40000)
I0430 16:51:33.887526 18386 net.cpp:139] Memory required for data: 12620000
I0430 16:51:33.887529 18386 layer_factory.hpp:77] Creating layer ip2
I0430 16:51:33.887537 18386 net.cpp:86] Creating Layer ip2
I0430 16:51:33.887542 18386 net.cpp:408] ip2 <- ip1
I0430 16:51:33.887547 18386 net.cpp:382] ip2 -> ip2
I0430 16:51:33.887694 18386 net.cpp:124] Setting up ip2
I0430 16:51:33.887703 18386 net.cpp:131] Top shape: 1000 20 (20000)
I0430 16:51:33.887706 18386 net.cpp:139] Memory required for data: 12700000
I0430 16:51:33.887715 18386 layer_factory.hpp:77] Creating layer relu2
I0430 16:51:33.887722 18386 net.cpp:86] Creating Layer relu2
I0430 16:51:33.887725 18386 net.cpp:408] relu2 <- ip2
I0430 16:51:33.887730 18386 net.cpp:369] relu2 -> ip2 (in-place)
I0430 16:51:33.888625 18386 net.cpp:124] Setting up relu2
I0430 16:51:33.888640 18386 net.cpp:131] Top shape: 1000 20 (20000)
I0430 16:51:33.888644 18386 net.cpp:139] Memory required for data: 12780000
I0430 16:51:33.888648 18386 layer_factory.hpp:77] Creating layer ip3
I0430 16:51:33.888658 18386 net.cpp:86] Creating Layer ip3
I0430 16:51:33.888662 18386 net.cpp:408] ip3 <- ip2
I0430 16:51:33.888669 18386 net.cpp:382] ip3 -> ip3
I0430 16:51:33.888797 18386 net.cpp:124] Setting up ip3
I0430 16:51:33.888806 18386 net.cpp:131] Top shape: 1000 10 (10000)
I0430 16:51:33.888816 18386 net.cpp:139] Memory required for data: 12820000
I0430 16:51:33.888850 18386 layer_factory.hpp:77] Creating layer ip3_ip3_0_split
I0430 16:51:33.888860 18386 net.cpp:86] Creating Layer ip3_ip3_0_split
I0430 16:51:33.888866 18386 net.cpp:408] ip3_ip3_0_split <- ip3
I0430 16:51:33.888875 18386 net.cpp:382] ip3_ip3_0_split -> ip3_ip3_0_split_0
I0430 16:51:33.888885 18386 net.cpp:382] ip3_ip3_0_split -> ip3_ip3_0_split_1
I0430 16:51:33.888924 18386 net.cpp:124] Setting up ip3_ip3_0_split
I0430 16:51:33.888932 18386 net.cpp:131] Top shape: 1000 10 (10000)
I0430 16:51:33.888937 18386 net.cpp:131] Top shape: 1000 10 (10000)
I0430 16:51:33.888941 18386 net.cpp:139] Memory required for data: 12900000
I0430 16:51:33.888944 18386 layer_factory.hpp:77] Creating layer accuracy
I0430 16:51:33.888952 18386 net.cpp:86] Creating Layer accuracy
I0430 16:51:33.888955 18386 net.cpp:408] accuracy <- ip3_ip3_0_split_0
I0430 16:51:33.888970 18386 net.cpp:408] accuracy <- label_cifar_1_split_0
I0430 16:51:33.888977 18386 net.cpp:382] accuracy -> accuracy
…
