…
I0501 08:34:56.773486 11276 net.cpp:296] The NetState phase (0) differed from the phase (1) specified by a rule in layer cifar
I0501 08:34:56.773499 11276 net.cpp:296] The NetState phase (0) differed from the phase (1) specified by a rule in layer accuracy
I0501 08:34:56.773599 11276 net.cpp:53] Initializing net from parameters: 
name: "CIFAR"
state {
  phase: TRAIN
  level: 0
  stage: ""
}
layer {
  name: "cifar"
  type: "Data"
  top: "data"
  top: "label"
  include {
    phase: TRAIN
  }
  transform_param {
    mean_file: "examples/cifar10/mean.binaryproto"
  }
  data_param {
    source: "examples/cifar10/cifar10_train_lmdb"
    batch_size: 111
    backend: LMDB
  }
}
layer {
  name: "conv0"
  type: "Convolution"
  bottom: "data"
  top: "conv0"
  param {
    lr_mult: 1
  }
  param {
    lr_mult: 2
  }
  convolution_param {
    num_output: 16
    pad: 2
    kernel_size: 3
    stride: 1
    weight_filler {
      type: "gaussian"
      std: 0.01
    }
    bias_filler {
      type: "constant"
    }
  }
}
layer {
  name: "Sigmoid0"
  type: "Sigmoid"
  bottom: "conv0"
  top: "Sigmoid0"
}
layer {
  name: "pool0"
  type: "Pooling"
  bottom: "Sigmoid0"
  top: "pool0"
  pooling_param {
    pool: AVE
    kernel_size: 3
    stride: 2
  }
}
layer {
  name: "ip1"
  type: "InnerProduct"
  bottom: "pool0"
  top: "ip1"
  param {
    lr_mult: 1
  }
  param {
    lr_mult: 2
  }
  inner_product_param {
    num_output: 10
    weight_filler {
      type: "gaussian"
      std: 0.01
    }
    bias_filler {
      type: "constant"
    }
  }
}
layer {
  name: "relu1"
  type: "ReLU"
  bottom: "ip1"
  top: "ip1"
}
layer {
  name: "ip2"
  type: "InnerProduct"
  bottom: "ip1"
  top: "ip2"
  param {
    lr_mult: 1
  }
  param {
    lr_mult: 2
  }
  inner_product_param {
    num_output: 160
    weight_filler {
      type: "gaussian"
      std: 0.01
    }
    bias_filler {
      type: "constant"
    }
  }
}
layer {
  name: "relu2"
  type: "ReLU"
  bottom: "ip2"
  top: "ip2"
}
layer {
  name: "ip3"
  type: "InnerProduct"
  bottom: "ip2"
  top: "ip3"
  param {
    lr_mult: 1
  }
  param {
    lr_mult: 2
  }
  inner_product_param {
    num_output: 10
    weight_filler {
      type: "gaussian"
      std: 0.01
    }
    bias_filler {
      type: "constant"
    }
  }
}
layer {
  name: "relu3"
  type: "ReLU"
  bottom: "ip3"
  top: "ip3"
}
layer {
  name: "ip4"
  type: "InnerProduct"
  bottom: "ip3"
  top: "ip4"
  param {
    lr_mult: 1
  }
  param {
    lr_mult: 2
  }
  inner_product_param {
    num_output: 10
    weight_filler {
      type: "gaussian"
      std: 0.01
    }
    bias_filler {
      type: "constant"
    }
  }
}
layer {
  name: "loss"
  type: "SoftmaxWithLoss"
  bottom: "ip4"
  bottom: "label"
  top: "loss"
}
I0501 08:34:56.773661 11276 layer_factory.hpp:77] Creating layer cifar
I0501 08:34:56.773741 11276 db_lmdb.cpp:35] Opened lmdb examples/cifar10/cifar10_train_lmdb
I0501 08:34:56.773764 11276 net.cpp:86] Creating Layer cifar
I0501 08:34:56.773772 11276 net.cpp:382] cifar -> data
I0501 08:34:56.773789 11276 net.cpp:382] cifar -> label
I0501 08:34:56.773798 11276 data_transformer.cpp:25] Loading mean file from: examples/cifar10/mean.binaryproto
I0501 08:34:56.775609 11276 data_layer.cpp:45] output data size: 111,3,32,32
I0501 08:34:56.782119 11276 net.cpp:124] Setting up cifar
I0501 08:34:56.782132 11276 net.cpp:131] Top shape: 111 3 32 32 (340992)
I0501 08:34:56.782137 11276 net.cpp:131] Top shape: 111 (111)
I0501 08:34:56.782140 11276 net.cpp:139] Memory required for data: 1364412
I0501 08:34:56.782173 11276 layer_factory.hpp:77] Creating layer conv0
I0501 08:34:56.782188 11276 net.cpp:86] Creating Layer conv0
I0501 08:34:56.782193 11276 net.cpp:408] conv0 <- data
I0501 08:34:56.782203 11276 net.cpp:382] conv0 -> conv0
I0501 08:34:57.008913 11276 net.cpp:124] Setting up conv0
I0501 08:34:57.008955 11276 net.cpp:131] Top shape: 111 16 34 34 (2053056)
I0501 08:34:57.008960 11276 net.cpp:139] Memory required for data: 9576636
I0501 08:34:57.008975 11276 layer_factory.hpp:77] Creating layer Sigmoid0
I0501 08:34:57.008986 11276 net.cpp:86] Creating Layer Sigmoid0
I0501 08:34:57.008991 11276 net.cpp:408] Sigmoid0 <- conv0
I0501 08:34:57.008996 11276 net.cpp:382] Sigmoid0 -> Sigmoid0
I0501 08:34:57.009194 11276 net.cpp:124] Setting up Sigmoid0
I0501 08:34:57.009203 11276 net.cpp:131] Top shape: 111 16 34 34 (2053056)
I0501 08:34:57.009207 11276 net.cpp:139] Memory required for data: 17788860
I0501 08:34:57.009210 11276 layer_factory.hpp:77] Creating layer pool0
I0501 08:34:57.009217 11276 net.cpp:86] Creating Layer pool0
I0501 08:34:57.009219 11276 net.cpp:408] pool0 <- Sigmoid0
I0501 08:34:57.009223 11276 net.cpp:382] pool0 -> pool0
I0501 08:34:57.009955 11276 net.cpp:124] Setting up pool0
I0501 08:34:57.009968 11276 net.cpp:131] Top shape: 111 16 17 17 (513264)
I0501 08:34:57.009970 11276 net.cpp:139] Memory required for data: 19841916
I0501 08:34:57.009974 11276 layer_factory.hpp:77] Creating layer ip1
I0501 08:34:57.009982 11276 net.cpp:86] Creating Layer ip1
I0501 08:34:57.009985 11276 net.cpp:408] ip1 <- pool0
I0501 08:34:57.009990 11276 net.cpp:382] ip1 -> ip1
I0501 08:34:57.012063 11276 net.cpp:124] Setting up ip1
I0501 08:34:57.012090 11276 net.cpp:131] Top shape: 111 10 (1110)
I0501 08:34:57.012094 11276 net.cpp:139] Memory required for data: 19846356
I0501 08:34:57.012101 11276 layer_factory.hpp:77] Creating layer relu1
I0501 08:34:57.012109 11276 net.cpp:86] Creating Layer relu1
I0501 08:34:57.012111 11276 net.cpp:408] relu1 <- ip1
I0501 08:34:57.012116 11276 net.cpp:369] relu1 -> ip1 (in-place)
I0501 08:34:57.012300 11276 net.cpp:124] Setting up relu1
I0501 08:34:57.012310 11276 net.cpp:131] Top shape: 111 10 (1110)
I0501 08:34:57.012312 11276 net.cpp:139] Memory required for data: 19850796
I0501 08:34:57.012315 11276 layer_factory.hpp:77] Creating layer ip2
I0501 08:34:57.012321 11276 net.cpp:86] Creating Layer ip2
I0501 08:34:57.012325 11276 net.cpp:408] ip2 <- ip1
I0501 08:34:57.012329 11276 net.cpp:382] ip2 -> ip2
I0501 08:34:57.012476 11276 net.cpp:124] Setting up ip2
I0501 08:34:57.012483 11276 net.cpp:131] Top shape: 111 160 (17760)
I0501 08:34:57.012486 11276 net.cpp:139] Memory required for data: 19921836
I0501 08:34:57.012492 11276 layer_factory.hpp:77] Creating layer relu2
I0501 08:34:57.012497 11276 net.cpp:86] Creating Layer relu2
I0501 08:34:57.012501 11276 net.cpp:408] relu2 <- ip2
I0501 08:34:57.012504 11276 net.cpp:369] relu2 -> ip2 (in-place)
I0501 08:34:57.012662 11276 net.cpp:124] Setting up relu2
I0501 08:34:57.012670 11276 net.cpp:131] Top shape: 111 160 (17760)
I0501 08:34:57.012673 11276 net.cpp:139] Memory required for data: 19992876
I0501 08:34:57.012676 11276 layer_factory.hpp:77] Creating layer ip3
I0501 08:34:57.012683 11276 net.cpp:86] Creating Layer ip3
I0501 08:34:57.012686 11276 net.cpp:408] ip3 <- ip2
I0501 08:34:57.012691 11276 net.cpp:382] ip3 -> ip3
I0501 08:34:57.012845 11276 net.cpp:124] Setting up ip3
I0501 08:34:57.012852 11276 net.cpp:131] Top shape: 111 10 (1110)
I0501 08:34:57.012856 11276 net.cpp:139] Memory required for data: 19997316
I0501 08:34:57.012861 11276 layer_factory.hpp:77] Creating layer relu3
I0501 08:34:57.012881 11276 net.cpp:86] Creating Layer relu3
I0501 08:34:57.012884 11276 net.cpp:408] relu3 <- ip3
I0501 08:34:57.012888 11276 net.cpp:369] relu3 -> ip3 (in-place)
I0501 08:34:57.013072 11276 net.cpp:124] Setting up relu3
I0501 08:34:57.013080 11276 net.cpp:131] Top shape: 111 10 (1110)
I0501 08:34:57.013083 11276 net.cpp:139] Memory required for data: 20001756
I0501 08:34:57.013087 11276 layer_factory.hpp:77] Creating layer ip4
I0501 08:34:57.013108 11276 net.cpp:86] Creating Layer ip4
I0501 08:34:57.013111 11276 net.cpp:408] ip4 <- ip3
I0501 08:34:57.013116 11276 net.cpp:382] ip4 -> ip4
I0501 08:34:57.013257 11276 net.cpp:124] Setting up ip4
I0501 08:34:57.013265 11276 net.cpp:131] Top shape: 111 10 (1110)
I0501 08:34:57.013268 11276 net.cpp:139] Memory required for data: 20006196
I0501 08:34:57.013275 11276 layer_factory.hpp:77] Creating layer loss
I0501 08:34:57.013280 11276 net.cpp:86] Creating Layer loss
I0501 08:34:57.013283 11276 net.cpp:408] loss <- ip4
I0501 08:34:57.013286 11276 net.cpp:408] loss <- label
I0501 08:34:57.013291 11276 net.cpp:382] loss -> loss
I0501 08:34:57.013306 11276 layer_factory.hpp:77] Creating layer loss
…
I0501 08:34:57.014459 11276 solver.cpp:173] Creating test net (#0) specified by net file: ECE595/cifar/train_test/var_everything/cifar_train_test_515.prototxt
I0501 08:34:57.014485 11276 net.cpp:296] The NetState phase (1) differed from the phase (0) specified by a rule in layer cifar
I0501 08:34:57.014577 11276 net.cpp:53] Initializing net from parameters: 
name: "CIFAR"
state {
  phase: TEST
}
layer {
  name: "cifar"
  type: "Data"
  top: "data"
  top: "label"
  include {
    phase: TEST
  }
  transform_param {
    mean_file: "examples/cifar10/mean.binaryproto"
  }
  data_param {
    source: "examples/cifar10/cifar10_test_lmdb"
    batch_size: 1000
    backend: LMDB
  }
}
layer {
  name: "conv0"
  type: "Convolution"
  bottom: "data"
  top: "conv0"
  param {
    lr_mult: 1
  }
  param {
    lr_mult: 2
  }
  convolution_param {
    num_output: 16
    pad: 2
    kernel_size: 3
    stride: 1
    weight_filler {
      type: "gaussian"
      std: 0.01
    }
    bias_filler {
      type: "constant"
    }
  }
}
layer {
  name: "Sigmoid0"
  type: "Sigmoid"
  bottom: "conv0"
  top: "Sigmoid0"
}
layer {
  name: "pool0"
  type: "Pooling"
  bottom: "Sigmoid0"
  top: "pool0"
  pooling_param {
    pool: AVE
    kernel_size: 3
    stride: 2
  }
}
layer {
  name: "ip1"
  type: "InnerProduct"
  bottom: "pool0"
  top: "ip1"
  param {
    lr_mult: 1
  }
  param {
    lr_mult: 2
  }
  inner_product_param {
    num_output: 10
    weight_filler {
      type: "gaussian"
      std: 0.01
    }
    bias_filler {
      type: "constant"
    }
  }
}
layer {
  name: "relu1"
  type: "ReLU"
  bottom: "ip1"
  top: "ip1"
}
layer {
  name: "ip2"
  type: "InnerProduct"
  bottom: "ip1"
  top: "ip2"
  param {
    lr_mult: 1
  }
  param {
    lr_mult: 2
  }
  inner_product_param {
    num_output: 160
    weight_filler {
      type: "gaussian"
      std: 0.01
    }
    bias_filler {
      type: "constant"
    }
  }
}
layer {
  name: "relu2"
  type: "ReLU"
  bottom: "ip2"
  top: "ip2"
}
layer {
  name: "ip3"
  type: "InnerProduct"
  bottom: "ip2"
  top: "ip3"
  param {
    lr_mult: 1
  }
  param {
    lr_mult: 2
  }
  inner_product_param {
    num_output: 10
    weight_filler {
      type: "gaussian"
      std: 0.01
    }
    bias_filler {
      type: "constant"
    }
  }
}
layer {
  name: "relu3"
  type: "ReLU"
  bottom: "ip3"
  top: "ip3"
}
layer {
  name: "ip4"
  type: "InnerProduct"
  bottom: "ip3"
  top: "ip4"
  param {
    lr_mult: 1
  }
  param {
    lr_mult: 2
  }
  inner_product_param {
    num_output: 10
    weight_filler {
      type: "gaussian"
      std: 0.01
    }
    bias_filler {
      type: "constant"
    }
  }
}
layer {
  name: "accuracy"
  type: "Accuracy"
  bottom: "ip4"
  bottom: "label"
  top: "accuracy"
  include {
    phase: TEST
  }
}
layer {
  name: "loss"
  type: "SoftmaxWithLoss"
  bottom: "ip4"
  bottom: "label"
  top: "loss"
}
I0501 08:34:57.014657 11276 layer_factory.hpp:77] Creating layer cifar
I0501 08:34:57.014708 11276 db_lmdb.cpp:35] Opened lmdb examples/cifar10/cifar10_test_lmdb
I0501 08:34:57.014719 11276 net.cpp:86] Creating Layer cifar
I0501 08:34:57.014724 11276 net.cpp:382] cifar -> data
I0501 08:34:57.014731 11276 net.cpp:382] cifar -> label
I0501 08:34:57.014737 11276 data_transformer.cpp:25] Loading mean file from: examples/cifar10/mean.binaryproto
I0501 08:34:57.014912 11276 data_layer.cpp:45] output data size: 1000,3,32,32
I0501 08:34:57.037259 11276 net.cpp:124] Setting up cifar
I0501 08:34:57.037302 11276 net.cpp:131] Top shape: 1000 3 32 32 (3072000)
I0501 08:34:57.037308 11276 net.cpp:131] Top shape: 1000 (1000)
I0501 08:34:57.037312 11276 net.cpp:139] Memory required for data: 12292000
I0501 08:34:57.037318 11276 layer_factory.hpp:77] Creating layer label_cifar_1_split
I0501 08:34:57.037333 11276 net.cpp:86] Creating Layer label_cifar_1_split
I0501 08:34:57.037338 11276 net.cpp:408] label_cifar_1_split <- label
I0501 08:34:57.037343 11276 net.cpp:382] label_cifar_1_split -> label_cifar_1_split_0
I0501 08:34:57.037369 11276 net.cpp:382] label_cifar_1_split -> label_cifar_1_split_1
I0501 08:34:57.037425 11276 net.cpp:124] Setting up label_cifar_1_split
I0501 08:34:57.037439 11276 net.cpp:131] Top shape: 1000 (1000)
I0501 08:34:57.037442 11276 net.cpp:131] Top shape: 1000 (1000)
I0501 08:34:57.037446 11276 net.cpp:139] Memory required for data: 12300000
I0501 08:34:57.037448 11276 layer_factory.hpp:77] Creating layer conv0
I0501 08:34:57.037461 11276 net.cpp:86] Creating Layer conv0
I0501 08:34:57.037464 11276 net.cpp:408] conv0 <- data
I0501 08:34:57.037470 11276 net.cpp:382] conv0 -> conv0
I0501 08:34:57.039178 11276 net.cpp:124] Setting up conv0
I0501 08:34:57.039206 11276 net.cpp:131] Top shape: 1000 16 34 34 (18496000)
I0501 08:34:57.039211 11276 net.cpp:139] Memory required for data: 86284000
I0501 08:34:57.039221 11276 layer_factory.hpp:77] Creating layer Sigmoid0
I0501 08:34:57.039229 11276 net.cpp:86] Creating Layer Sigmoid0
I0501 08:34:57.039233 11276 net.cpp:408] Sigmoid0 <- conv0
I0501 08:34:57.039237 11276 net.cpp:382] Sigmoid0 -> Sigmoid0
I0501 08:34:57.039460 11276 net.cpp:124] Setting up Sigmoid0
I0501 08:34:57.039470 11276 net.cpp:131] Top shape: 1000 16 34 34 (18496000)
I0501 08:34:57.039474 11276 net.cpp:139] Memory required for data: 160268000
I0501 08:34:57.039476 11276 layer_factory.hpp:77] Creating layer pool0
I0501 08:34:57.039484 11276 net.cpp:86] Creating Layer pool0
I0501 08:34:57.039487 11276 net.cpp:408] pool0 <- Sigmoid0
I0501 08:34:57.039494 11276 net.cpp:382] pool0 -> pool0
I0501 08:34:57.039682 11276 net.cpp:124] Setting up pool0
I0501 08:34:57.039691 11276 net.cpp:131] Top shape: 1000 16 17 17 (4624000)
I0501 08:34:57.039695 11276 net.cpp:139] Memory required for data: 178764000
I0501 08:34:57.039697 11276 layer_factory.hpp:77] Creating layer ip1
I0501 08:34:57.039706 11276 net.cpp:86] Creating Layer ip1
I0501 08:34:57.039710 11276 net.cpp:408] ip1 <- pool0
I0501 08:34:57.039716 11276 net.cpp:382] ip1 -> ip1
I0501 08:34:57.041117 11276 net.cpp:124] Setting up ip1
I0501 08:34:57.041126 11276 net.cpp:131] Top shape: 1000 10 (10000)
I0501 08:34:57.041144 11276 net.cpp:139] Memory required for data: 178804000
I0501 08:34:57.041168 11276 layer_factory.hpp:77] Creating layer relu1
I0501 08:34:57.041175 11276 net.cpp:86] Creating Layer relu1
I0501 08:34:57.041178 11276 net.cpp:408] relu1 <- ip1
I0501 08:34:57.041199 11276 net.cpp:369] relu1 -> ip1 (in-place)
I0501 08:34:57.041376 11276 net.cpp:124] Setting up relu1
I0501 08:34:57.041385 11276 net.cpp:131] Top shape: 1000 10 (10000)
I0501 08:34:57.041389 11276 net.cpp:139] Memory required for data: 178844000
I0501 08:34:57.041393 11276 layer_factory.hpp:77] Creating layer ip2
I0501 08:34:57.041400 11276 net.cpp:86] Creating Layer ip2
I0501 08:34:57.041404 11276 net.cpp:408] ip2 <- ip1
I0501 08:34:57.041409 11276 net.cpp:382] ip2 -> ip2
I0501 08:34:57.041577 11276 net.cpp:124] Setting up ip2
I0501 08:34:57.041586 11276 net.cpp:131] Top shape: 1000 160 (160000)
I0501 08:34:57.041589 11276 net.cpp:139] Memory required for data: 179484000
I0501 08:34:57.041596 11276 layer_factory.hpp:77] Creating layer relu2
I0501 08:34:57.041601 11276 net.cpp:86] Creating Layer relu2
I0501 08:34:57.041605 11276 net.cpp:408] relu2 <- ip2
I0501 08:34:57.041610 11276 net.cpp:369] relu2 -> ip2 (in-place)
I0501 08:34:57.042431 11276 net.cpp:124] Setting up relu2
I0501 08:34:57.042460 11276 net.cpp:131] Top shape: 1000 160 (160000)
I0501 08:34:57.042465 11276 net.cpp:139] Memory required for data: 180124000
I0501 08:34:57.042469 11276 layer_factory.hpp:77] Creating layer ip3
I0501 08:34:57.042476 11276 net.cpp:86] Creating Layer ip3
I0501 08:34:57.042479 11276 net.cpp:408] ip3 <- ip2
I0501 08:34:57.042486 11276 net.cpp:382] ip3 -> ip3
I0501 08:34:57.042691 11276 net.cpp:124] Setting up ip3
I0501 08:34:57.042699 11276 net.cpp:131] Top shape: 1000 10 (10000)
I0501 08:34:57.042702 11276 net.cpp:139] Memory required for data: 180164000
I0501 08:34:57.042707 11276 layer_factory.hpp:77] Creating layer relu3
I0501 08:34:57.042713 11276 net.cpp:86] Creating Layer relu3
I0501 08:34:57.042716 11276 net.cpp:408] relu3 <- ip3
I0501 08:34:57.042721 11276 net.cpp:369] relu3 -> ip3 (in-place)
I0501 08:34:57.042877 11276 net.cpp:124] Setting up relu3
I0501 08:34:57.042886 11276 net.cpp:131] Top shape: 1000 10 (10000)
I0501 08:34:57.042889 11276 net.cpp:139] Memory required for data: 180204000
I0501 08:34:57.042892 11276 layer_factory.hpp:77] Creating layer ip4
I0501 08:34:57.042898 11276 net.cpp:86] Creating Layer ip4
I0501 08:34:57.042901 11276 net.cpp:408] ip4 <- ip3
I0501 08:34:57.042907 11276 net.cpp:382] ip4 -> ip4
I0501 08:34:57.043014 11276 net.cpp:124] Setting up ip4
I0501 08:34:57.043020 11276 net.cpp:131] Top shape: 1000 10 (10000)
I0501 08:34:57.043023 11276 net.cpp:139] Memory required for data: 180244000
I0501 08:34:57.043031 11276 layer_factory.hpp:77] Creating layer ip4_ip4_0_split
I0501 08:34:57.043038 11276 net.cpp:86] Creating Layer ip4_ip4_0_split
I0501 08:34:57.043041 11276 net.cpp:408] ip4_ip4_0_split <- ip4
I0501 08:34:57.043045 11276 net.cpp:382] ip4_ip4_0_split -> ip4_ip4_0_split_0
I0501 08:34:57.043051 11276 net.cpp:382] ip4_ip4_0_split -> ip4_ip4_0_split_1
I0501 08:34:57.043083 11276 net.cpp:124] Setting up ip4_ip4_0_split
I0501 08:34:57.043087 11276 net.cpp:131] Top shape: 1000 10 (10000)
I0501 08:34:57.043092 11276 net.cpp:131] Top shape: 1000 10 (10000)
I0501 08:34:57.043094 11276 net.cpp:139] Memory required for data: 180324000
I0501 08:34:57.043097 11276 layer_factory.hpp:77] Creating layer accuracy
I0501 08:34:57.043102 11276 net.cpp:86] Creating Layer accuracy
I0501 08:34:57.043105 11276 net.cpp:408] accuracy <- ip4_ip4_0_split_0
I0501 08:34:57.043109 11276 net.cpp:408] accuracy <- label_cifar_1_split_0
I0501 08:34:57.043114 11276 net.cpp:382] accuracy -> accuracy
…
