…
I0430 22:36:47.791491  2667 net.cpp:296] The NetState phase (0) differed from the phase (1) specified by a rule in layer cifar
I0430 22:36:47.791519  2667 net.cpp:296] The NetState phase (0) differed from the phase (1) specified by a rule in layer accuracy
I0430 22:36:47.791641  2667 net.cpp:53] Initializing net from parameters: 
name: "CIFAR"
state {
  phase: TRAIN
  level: 0
  stage: ""
}
layer {
  name: "cifar"
  type: "Data"
  top: "data"
  top: "label"
  include {
    phase: TRAIN
  }
  transform_param {
    mean_file: "examples/cifar10/mean.binaryproto"
  }
  data_param {
    source: "examples/cifar10/cifar10_train_lmdb"
    batch_size: 111
    backend: LMDB
  }
}
layer {
  name: "conv0"
  type: "Convolution"
  bottom: "data"
  top: "conv0"
  param {
    lr_mult: 1
  }
  param {
    lr_mult: 2
  }
  convolution_param {
    num_output: 8
    pad: 2
    kernel_size: 3
    stride: 1
    weight_filler {
      type: "gaussian"
      std: 0.01
    }
    bias_filler {
      type: "constant"
    }
  }
}
layer {
  name: "Sigmoid0"
  type: "Sigmoid"
  bottom: "conv0"
  top: "Sigmoid0"
}
layer {
  name: "pool0"
  type: "Pooling"
  bottom: "Sigmoid0"
  top: "pool0"
  pooling_param {
    pool: AVE
    kernel_size: 3
    stride: 2
  }
}
layer {
  name: "ip1"
  type: "InnerProduct"
  bottom: "pool0"
  top: "ip1"
  param {
    lr_mult: 1
  }
  param {
    lr_mult: 2
  }
  inner_product_param {
    num_output: 10
    weight_filler {
      type: "gaussian"
      std: 0.01
    }
    bias_filler {
      type: "constant"
    }
  }
}
layer {
  name: "relu1"
  type: "ReLU"
  bottom: "ip1"
  top: "ip1"
}
layer {
  name: "ip2"
  type: "InnerProduct"
  bottom: "ip1"
  top: "ip2"
  param {
    lr_mult: 1
  }
  param {
    lr_mult: 2
  }
  inner_product_param {
    num_output: 40
    weight_filler {
      type: "gaussian"
      std: 0.01
    }
    bias_filler {
      type: "constant"
    }
  }
}
layer {
  name: "relu2"
  type: "ReLU"
  bottom: "ip2"
  top: "ip2"
}
layer {
  name: "ip3"
  type: "InnerProduct"
  bottom: "ip2"
  top: "ip3"
  param {
    lr_mult: 1
  }
  param {
    lr_mult: 2
  }
  inner_product_param {
    num_output: 160
    weight_filler {
      type: "gaussian"
      std: 0.01
    }
    bias_filler {
      type: "constant"
    }
  }
}
layer {
  name: "relu3"
  type: "ReLU"
  bottom: "ip3"
  top: "ip3"
}
layer {
  name: "ip4"
  type: "InnerProduct"
  bottom: "ip3"
  top: "ip4"
  param {
    lr_mult: 1
  }
  param {
    lr_mult: 2
  }
  inner_product_param {
    num_output: 10
    weight_filler {
      type: "gaussian"
      std: 0.01
    }
    bias_filler {
      type: "constant"
    }
  }
}
layer {
  name: "loss"
  type: "SoftmaxWithLoss"
  bottom: "ip4"
  bottom: "label"
  top: "loss"
}
I0430 22:36:47.791757  2667 layer_factory.hpp:77] Creating layer cifar
I0430 22:36:47.791893  2667 db_lmdb.cpp:35] Opened lmdb examples/cifar10/cifar10_train_lmdb
I0430 22:36:47.791929  2667 net.cpp:86] Creating Layer cifar
I0430 22:36:47.791944  2667 net.cpp:382] cifar -> data
I0430 22:36:47.791975  2667 net.cpp:382] cifar -> label
I0430 22:36:47.791999  2667 data_transformer.cpp:25] Loading mean file from: examples/cifar10/mean.binaryproto
I0430 22:36:47.794313  2667 data_layer.cpp:45] output data size: 111,3,32,32
I0430 22:36:47.802268  2667 net.cpp:124] Setting up cifar
I0430 22:36:47.802291  2667 net.cpp:131] Top shape: 111 3 32 32 (340992)
I0430 22:36:47.802301  2667 net.cpp:131] Top shape: 111 (111)
I0430 22:36:47.802309  2667 net.cpp:139] Memory required for data: 1364412
I0430 22:36:47.802350  2667 layer_factory.hpp:77] Creating layer conv0
I0430 22:36:47.802381  2667 net.cpp:86] Creating Layer conv0
I0430 22:36:47.802389  2667 net.cpp:408] conv0 <- data
I0430 22:36:47.802410  2667 net.cpp:382] conv0 -> conv0
I0430 22:36:48.085516  2667 net.cpp:124] Setting up conv0
I0430 22:36:48.085546  2667 net.cpp:131] Top shape: 111 8 34 34 (1026528)
I0430 22:36:48.085551  2667 net.cpp:139] Memory required for data: 5470524
I0430 22:36:48.085573  2667 layer_factory.hpp:77] Creating layer Sigmoid0
I0430 22:36:48.085588  2667 net.cpp:86] Creating Layer Sigmoid0
I0430 22:36:48.085597  2667 net.cpp:408] Sigmoid0 <- conv0
I0430 22:36:48.085605  2667 net.cpp:382] Sigmoid0 -> Sigmoid0
I0430 22:36:48.085793  2667 net.cpp:124] Setting up Sigmoid0
I0430 22:36:48.085804  2667 net.cpp:131] Top shape: 111 8 34 34 (1026528)
I0430 22:36:48.085809  2667 net.cpp:139] Memory required for data: 9576636
I0430 22:36:48.085815  2667 layer_factory.hpp:77] Creating layer pool0
I0430 22:36:48.085826  2667 net.cpp:86] Creating Layer pool0
I0430 22:36:48.085831  2667 net.cpp:408] pool0 <- Sigmoid0
I0430 22:36:48.085839  2667 net.cpp:382] pool0 -> pool0
I0430 22:36:48.086578  2667 net.cpp:124] Setting up pool0
I0430 22:36:48.086594  2667 net.cpp:131] Top shape: 111 8 17 17 (256632)
I0430 22:36:48.086601  2667 net.cpp:139] Memory required for data: 10603164
I0430 22:36:48.086606  2667 layer_factory.hpp:77] Creating layer ip1
I0430 22:36:48.086621  2667 net.cpp:86] Creating Layer ip1
I0430 22:36:48.086627  2667 net.cpp:408] ip1 <- pool0
I0430 22:36:48.086635  2667 net.cpp:382] ip1 -> ip1
I0430 22:36:48.088189  2667 net.cpp:124] Setting up ip1
I0430 22:36:48.088203  2667 net.cpp:131] Top shape: 111 10 (1110)
I0430 22:36:48.088209  2667 net.cpp:139] Memory required for data: 10607604
I0430 22:36:48.088223  2667 layer_factory.hpp:77] Creating layer relu1
I0430 22:36:48.088232  2667 net.cpp:86] Creating Layer relu1
I0430 22:36:48.088238  2667 net.cpp:408] relu1 <- ip1
I0430 22:36:48.088246  2667 net.cpp:369] relu1 -> ip1 (in-place)
I0430 22:36:48.088404  2667 net.cpp:124] Setting up relu1
I0430 22:36:48.088414  2667 net.cpp:131] Top shape: 111 10 (1110)
I0430 22:36:48.088419  2667 net.cpp:139] Memory required for data: 10612044
I0430 22:36:48.088425  2667 layer_factory.hpp:77] Creating layer ip2
I0430 22:36:48.088435  2667 net.cpp:86] Creating Layer ip2
I0430 22:36:48.088441  2667 net.cpp:408] ip2 <- ip1
I0430 22:36:48.088450  2667 net.cpp:382] ip2 -> ip2
I0430 22:36:48.089403  2667 net.cpp:124] Setting up ip2
I0430 22:36:48.089417  2667 net.cpp:131] Top shape: 111 40 (4440)
I0430 22:36:48.089423  2667 net.cpp:139] Memory required for data: 10629804
I0430 22:36:48.089437  2667 layer_factory.hpp:77] Creating layer relu2
I0430 22:36:48.089447  2667 net.cpp:86] Creating Layer relu2
I0430 22:36:48.089452  2667 net.cpp:408] relu2 <- ip2
I0430 22:36:48.089460  2667 net.cpp:369] relu2 -> ip2 (in-place)
I0430 22:36:48.089627  2667 net.cpp:124] Setting up relu2
I0430 22:36:48.089637  2667 net.cpp:131] Top shape: 111 40 (4440)
I0430 22:36:48.089643  2667 net.cpp:139] Memory required for data: 10647564
I0430 22:36:48.089648  2667 layer_factory.hpp:77] Creating layer ip3
I0430 22:36:48.089660  2667 net.cpp:86] Creating Layer ip3
I0430 22:36:48.089666  2667 net.cpp:408] ip3 <- ip2
I0430 22:36:48.089675  2667 net.cpp:382] ip3 -> ip3
I0430 22:36:48.090761  2667 net.cpp:124] Setting up ip3
I0430 22:36:48.090776  2667 net.cpp:131] Top shape: 111 160 (17760)
I0430 22:36:48.090781  2667 net.cpp:139] Memory required for data: 10718604
I0430 22:36:48.090791  2667 layer_factory.hpp:77] Creating layer relu3
I0430 22:36:48.090801  2667 net.cpp:86] Creating Layer relu3
I0430 22:36:48.090806  2667 net.cpp:408] relu3 <- ip3
I0430 22:36:48.090814  2667 net.cpp:369] relu3 -> ip3 (in-place)
I0430 22:36:48.090979  2667 net.cpp:124] Setting up relu3
I0430 22:36:48.090991  2667 net.cpp:131] Top shape: 111 160 (17760)
I0430 22:36:48.090996  2667 net.cpp:139] Memory required for data: 10789644
I0430 22:36:48.091001  2667 layer_factory.hpp:77] Creating layer ip4
I0430 22:36:48.091032  2667 net.cpp:86] Creating Layer ip4
I0430 22:36:48.091037  2667 net.cpp:408] ip4 <- ip3
I0430 22:36:48.091045  2667 net.cpp:382] ip4 -> ip4
I0430 22:36:48.091195  2667 net.cpp:124] Setting up ip4
I0430 22:36:48.091205  2667 net.cpp:131] Top shape: 111 10 (1110)
I0430 22:36:48.091210  2667 net.cpp:139] Memory required for data: 10794084
I0430 22:36:48.091223  2667 layer_factory.hpp:77] Creating layer loss
I0430 22:36:48.091236  2667 net.cpp:86] Creating Layer loss
I0430 22:36:48.091243  2667 net.cpp:408] loss <- ip4
I0430 22:36:48.091249  2667 net.cpp:408] loss <- label
I0430 22:36:48.091259  2667 net.cpp:382] loss -> loss
I0430 22:36:48.091277  2667 layer_factory.hpp:77] Creating layer loss
…
I0430 22:36:48.092540  2667 solver.cpp:173] Creating test net (#0) specified by net file: ECE595/cifar/train_test/var_everything/cifar_train_test_199.prototxt
I0430 22:36:48.092574  2667 net.cpp:296] The NetState phase (1) differed from the phase (0) specified by a rule in layer cifar
I0430 22:36:48.092676  2667 net.cpp:53] Initializing net from parameters: 
name: "CIFAR"
state {
  phase: TEST
}
layer {
  name: "cifar"
  type: "Data"
  top: "data"
  top: "label"
  include {
    phase: TEST
  }
  transform_param {
    mean_file: "examples/cifar10/mean.binaryproto"
  }
  data_param {
    source: "examples/cifar10/cifar10_test_lmdb"
    batch_size: 1000
    backend: LMDB
  }
}
layer {
  name: "conv0"
  type: "Convolution"
  bottom: "data"
  top: "conv0"
  param {
    lr_mult: 1
  }
  param {
    lr_mult: 2
  }
  convolution_param {
    num_output: 8
    pad: 2
    kernel_size: 3
    stride: 1
    weight_filler {
      type: "gaussian"
      std: 0.01
    }
    bias_filler {
      type: "constant"
    }
  }
}
layer {
  name: "Sigmoid0"
  type: "Sigmoid"
  bottom: "conv0"
  top: "Sigmoid0"
}
layer {
  name: "pool0"
  type: "Pooling"
  bottom: "Sigmoid0"
  top: "pool0"
  pooling_param {
    pool: AVE
    kernel_size: 3
    stride: 2
  }
}
layer {
  name: "ip1"
  type: "InnerProduct"
  bottom: "pool0"
  top: "ip1"
  param {
    lr_mult: 1
  }
  param {
    lr_mult: 2
  }
  inner_product_param {
    num_output: 10
    weight_filler {
      type: "gaussian"
      std: 0.01
    }
    bias_filler {
      type: "constant"
    }
  }
}
layer {
  name: "relu1"
  type: "ReLU"
  bottom: "ip1"
  top: "ip1"
}
layer {
  name: "ip2"
  type: "InnerProduct"
  bottom: "ip1"
  top: "ip2"
  param {
    lr_mult: 1
  }
  param {
    lr_mult: 2
  }
  inner_product_param {
    num_output: 40
    weight_filler {
      type: "gaussian"
      std: 0.01
    }
    bias_filler {
      type: "constant"
    }
  }
}
layer {
  name: "relu2"
  type: "ReLU"
  bottom: "ip2"
  top: "ip2"
}
layer {
  name: "ip3"
  type: "InnerProduct"
  bottom: "ip2"
  top: "ip3"
  param {
    lr_mult: 1
  }
  param {
    lr_mult: 2
  }
  inner_product_param {
    num_output: 160
    weight_filler {
      type: "gaussian"
      std: 0.01
    }
    bias_filler {
      type: "constant"
    }
  }
}
layer {
  name: "relu3"
  type: "ReLU"
  bottom: "ip3"
  top: "ip3"
}
layer {
  name: "ip4"
  type: "InnerProduct"
  bottom: "ip3"
  top: "ip4"
  param {
    lr_mult: 1
  }
  param {
    lr_mult: 2
  }
  inner_product_param {
    num_output: 10
    weight_filler {
      type: "gaussian"
      std: 0.01
    }
    bias_filler {
      type: "constant"
    }
  }
}
layer {
  name: "accuracy"
  type: "Accuracy"
  bottom: "ip4"
  bottom: "label"
  top: "accuracy"
  include {
    phase: TEST
  }
}
layer {
  name: "loss"
  type: "SoftmaxWithLoss"
  bottom: "ip4"
  bottom: "label"
  top: "loss"
}
I0430 22:36:48.092790  2667 layer_factory.hpp:77] Creating layer cifar
I0430 22:36:48.092861  2667 db_lmdb.cpp:35] Opened lmdb examples/cifar10/cifar10_test_lmdb
I0430 22:36:48.092880  2667 net.cpp:86] Creating Layer cifar
I0430 22:36:48.092887  2667 net.cpp:382] cifar -> data
I0430 22:36:48.092900  2667 net.cpp:382] cifar -> label
I0430 22:36:48.092926  2667 data_transformer.cpp:25] Loading mean file from: examples/cifar10/mean.binaryproto
I0430 22:36:48.093130  2667 data_layer.cpp:45] output data size: 1000,3,32,32
I0430 22:36:48.114969  2667 net.cpp:124] Setting up cifar
I0430 22:36:48.114997  2667 net.cpp:131] Top shape: 1000 3 32 32 (3072000)
I0430 22:36:48.115005  2667 net.cpp:131] Top shape: 1000 (1000)
I0430 22:36:48.115010  2667 net.cpp:139] Memory required for data: 12292000
I0430 22:36:48.115033  2667 layer_factory.hpp:77] Creating layer label_cifar_1_split
I0430 22:36:48.115049  2667 net.cpp:86] Creating Layer label_cifar_1_split
I0430 22:36:48.115056  2667 net.cpp:408] label_cifar_1_split <- label
I0430 22:36:48.115066  2667 net.cpp:382] label_cifar_1_split -> label_cifar_1_split_0
I0430 22:36:48.115079  2667 net.cpp:382] label_cifar_1_split -> label_cifar_1_split_1
I0430 22:36:48.115155  2667 net.cpp:124] Setting up label_cifar_1_split
I0430 22:36:48.115164  2667 net.cpp:131] Top shape: 1000 (1000)
I0430 22:36:48.115170  2667 net.cpp:131] Top shape: 1000 (1000)
I0430 22:36:48.115175  2667 net.cpp:139] Memory required for data: 12300000
I0430 22:36:48.115181  2667 layer_factory.hpp:77] Creating layer conv0
I0430 22:36:48.115198  2667 net.cpp:86] Creating Layer conv0
I0430 22:36:48.115205  2667 net.cpp:408] conv0 <- data
I0430 22:36:48.115213  2667 net.cpp:382] conv0 -> conv0
I0430 22:36:48.116768  2667 net.cpp:124] Setting up conv0
I0430 22:36:48.116783  2667 net.cpp:131] Top shape: 1000 8 34 34 (9248000)
I0430 22:36:48.116789  2667 net.cpp:139] Memory required for data: 49292000
I0430 22:36:48.116803  2667 layer_factory.hpp:77] Creating layer Sigmoid0
I0430 22:36:48.116837  2667 net.cpp:86] Creating Layer Sigmoid0
I0430 22:36:48.116849  2667 net.cpp:408] Sigmoid0 <- conv0
I0430 22:36:48.116859  2667 net.cpp:382] Sigmoid0 -> Sigmoid0
I0430 22:36:48.117089  2667 net.cpp:124] Setting up Sigmoid0
I0430 22:36:48.117100  2667 net.cpp:131] Top shape: 1000 8 34 34 (9248000)
I0430 22:36:48.117105  2667 net.cpp:139] Memory required for data: 86284000
I0430 22:36:48.117126  2667 layer_factory.hpp:77] Creating layer pool0
I0430 22:36:48.117141  2667 net.cpp:86] Creating Layer pool0
I0430 22:36:48.117161  2667 net.cpp:408] pool0 <- Sigmoid0
I0430 22:36:48.117169  2667 net.cpp:382] pool0 -> pool0
I0430 22:36:48.117542  2667 net.cpp:124] Setting up pool0
I0430 22:36:48.117552  2667 net.cpp:131] Top shape: 1000 8 17 17 (2312000)
I0430 22:36:48.117555  2667 net.cpp:139] Memory required for data: 95532000
I0430 22:36:48.117575  2667 layer_factory.hpp:77] Creating layer ip1
I0430 22:36:48.117586  2667 net.cpp:86] Creating Layer ip1
I0430 22:36:48.117593  2667 net.cpp:408] ip1 <- pool0
I0430 22:36:48.117602  2667 net.cpp:382] ip1 -> ip1
I0430 22:36:48.119185  2667 net.cpp:124] Setting up ip1
I0430 22:36:48.119196  2667 net.cpp:131] Top shape: 1000 10 (10000)
I0430 22:36:48.119200  2667 net.cpp:139] Memory required for data: 95572000
I0430 22:36:48.119262  2667 layer_factory.hpp:77] Creating layer relu1
I0430 22:36:48.119273  2667 net.cpp:86] Creating Layer relu1
I0430 22:36:48.119282  2667 net.cpp:408] relu1 <- ip1
I0430 22:36:48.119292  2667 net.cpp:369] relu1 -> ip1 (in-place)
I0430 22:36:48.119480  2667 net.cpp:124] Setting up relu1
I0430 22:36:48.119490  2667 net.cpp:131] Top shape: 1000 10 (10000)
I0430 22:36:48.119495  2667 net.cpp:139] Memory required for data: 95612000
I0430 22:36:48.119500  2667 layer_factory.hpp:77] Creating layer ip2
I0430 22:36:48.119510  2667 net.cpp:86] Creating Layer ip2
I0430 22:36:48.119518  2667 net.cpp:408] ip2 <- ip1
I0430 22:36:48.119527  2667 net.cpp:382] ip2 -> ip2
I0430 22:36:48.119675  2667 net.cpp:124] Setting up ip2
I0430 22:36:48.119684  2667 net.cpp:131] Top shape: 1000 40 (40000)
I0430 22:36:48.119688  2667 net.cpp:139] Memory required for data: 95772000
I0430 22:36:48.119700  2667 layer_factory.hpp:77] Creating layer relu2
I0430 22:36:48.119709  2667 net.cpp:86] Creating Layer relu2
I0430 22:36:48.119715  2667 net.cpp:408] relu2 <- ip2
I0430 22:36:48.119724  2667 net.cpp:369] relu2 -> ip2 (in-place)
I0430 22:36:48.120453  2667 net.cpp:124] Setting up relu2
I0430 22:36:48.120466  2667 net.cpp:131] Top shape: 1000 40 (40000)
I0430 22:36:48.120471  2667 net.cpp:139] Memory required for data: 95932000
I0430 22:36:48.120492  2667 layer_factory.hpp:77] Creating layer ip3
I0430 22:36:48.120504  2667 net.cpp:86] Creating Layer ip3
I0430 22:36:48.120510  2667 net.cpp:408] ip3 <- ip2
I0430 22:36:48.120518  2667 net.cpp:382] ip3 -> ip3
I0430 22:36:48.120834  2667 net.cpp:124] Setting up ip3
I0430 22:36:48.120844  2667 net.cpp:131] Top shape: 1000 160 (160000)
I0430 22:36:48.120849  2667 net.cpp:139] Memory required for data: 96572000
I0430 22:36:48.120859  2667 layer_factory.hpp:77] Creating layer relu3
I0430 22:36:48.120867  2667 net.cpp:86] Creating Layer relu3
I0430 22:36:48.120872  2667 net.cpp:408] relu3 <- ip3
I0430 22:36:48.120882  2667 net.cpp:369] relu3 -> ip3 (in-place)
I0430 22:36:48.121043  2667 net.cpp:124] Setting up relu3
I0430 22:36:48.121053  2667 net.cpp:131] Top shape: 1000 160 (160000)
I0430 22:36:48.121058  2667 net.cpp:139] Memory required for data: 97212000
I0430 22:36:48.121063  2667 layer_factory.hpp:77] Creating layer ip4
I0430 22:36:48.121074  2667 net.cpp:86] Creating Layer ip4
I0430 22:36:48.121080  2667 net.cpp:408] ip4 <- ip3
I0430 22:36:48.121088  2667 net.cpp:382] ip4 -> ip4
I0430 22:36:48.121250  2667 net.cpp:124] Setting up ip4
I0430 22:36:48.121259  2667 net.cpp:131] Top shape: 1000 10 (10000)
I0430 22:36:48.121263  2667 net.cpp:139] Memory required for data: 97252000
I0430 22:36:48.121278  2667 layer_factory.hpp:77] Creating layer ip4_ip4_0_split
I0430 22:36:48.121286  2667 net.cpp:86] Creating Layer ip4_ip4_0_split
I0430 22:36:48.121292  2667 net.cpp:408] ip4_ip4_0_split <- ip4
I0430 22:36:48.121299  2667 net.cpp:382] ip4_ip4_0_split -> ip4_ip4_0_split_0
I0430 22:36:48.121309  2667 net.cpp:382] ip4_ip4_0_split -> ip4_ip4_0_split_1
I0430 22:36:48.121347  2667 net.cpp:124] Setting up ip4_ip4_0_split
I0430 22:36:48.121356  2667 net.cpp:131] Top shape: 1000 10 (10000)
I0430 22:36:48.121361  2667 net.cpp:131] Top shape: 1000 10 (10000)
I0430 22:36:48.121366  2667 net.cpp:139] Memory required for data: 97332000
I0430 22:36:48.121371  2667 layer_factory.hpp:77] Creating layer accuracy
I0430 22:36:48.121379  2667 net.cpp:86] Creating Layer accuracy
I0430 22:36:48.121384  2667 net.cpp:408] accuracy <- ip4_ip4_0_split_0
I0430 22:36:48.121390  2667 net.cpp:408] accuracy <- label_cifar_1_split_0
I0430 22:36:48.121399  2667 net.cpp:382] accuracy -> accuracy
…
