…
I0501 04:04:25.259002 23813 net.cpp:296] The NetState phase (0) differed from the phase (1) specified by a rule in layer cifar
I0501 04:04:25.259018 23813 net.cpp:296] The NetState phase (0) differed from the phase (1) specified by a rule in layer accuracy
I0501 04:04:25.259104 23813 net.cpp:53] Initializing net from parameters: 
name: "CIFAR"
state {
  phase: TRAIN
  level: 0
  stage: ""
}
layer {
  name: "cifar"
  type: "Data"
  top: "data"
  top: "label"
  include {
    phase: TRAIN
  }
  transform_param {
    mean_file: "examples/cifar10/mean.binaryproto"
  }
  data_param {
    source: "examples/cifar10/cifar10_train_lmdb"
    batch_size: 111
    backend: LMDB
  }
}
layer {
  name: "conv0"
  type: "Convolution"
  bottom: "data"
  top: "conv0"
  param {
    lr_mult: 1
  }
  param {
    lr_mult: 2
  }
  convolution_param {
    num_output: 8
    pad: 2
    kernel_size: 5
    stride: 1
    weight_filler {
      type: "gaussian"
      std: 0.01
    }
    bias_filler {
      type: "constant"
    }
  }
}
layer {
  name: "Sigmoid0"
  type: "Sigmoid"
  bottom: "conv0"
  top: "Sigmoid0"
}
layer {
  name: "pool0"
  type: "Pooling"
  bottom: "Sigmoid0"
  top: "pool0"
  pooling_param {
    pool: AVE
    kernel_size: 3
    stride: 2
  }
}
layer {
  name: "ip1"
  type: "InnerProduct"
  bottom: "pool0"
  top: "ip1"
  param {
    lr_mult: 1
  }
  param {
    lr_mult: 2
  }
  inner_product_param {
    num_output: 20
    weight_filler {
      type: "gaussian"
      std: 0.01
    }
    bias_filler {
      type: "constant"
    }
  }
}
layer {
  name: "relu1"
  type: "ReLU"
  bottom: "ip1"
  top: "ip1"
}
layer {
  name: "ip2"
  type: "InnerProduct"
  bottom: "ip1"
  top: "ip2"
  param {
    lr_mult: 1
  }
  param {
    lr_mult: 2
  }
  inner_product_param {
    num_output: 20
    weight_filler {
      type: "gaussian"
      std: 0.01
    }
    bias_filler {
      type: "constant"
    }
  }
}
layer {
  name: "relu2"
  type: "ReLU"
  bottom: "ip2"
  top: "ip2"
}
layer {
  name: "ip3"
  type: "InnerProduct"
  bottom: "ip2"
  top: "ip3"
  param {
    lr_mult: 1
  }
  param {
    lr_mult: 2
  }
  inner_product_param {
    num_output: 160
    weight_filler {
      type: "gaussian"
      std: 0.01
    }
    bias_filler {
      type: "constant"
    }
  }
}
layer {
  name: "relu3"
  type: "ReLU"
  bottom: "ip3"
  top: "ip3"
}
layer {
  name: "ip4"
  type: "InnerProduct"
  bottom: "ip3"
  top: "ip4"
  param {
    lr_mult: 1
  }
  param {
    lr_mult: 2
  }
  inner_product_param {
    num_output: 10
    weight_filler {
      type: "gaussian"
      std: 0.01
    }
    bias_filler {
      type: "constant"
    }
  }
}
layer {
  name: "loss"
  type: "SoftmaxWithLoss"
  bottom: "ip4"
  bottom: "label"
  top: "loss"
}
I0501 04:04:25.259171 23813 layer_factory.hpp:77] Creating layer cifar
I0501 04:04:25.259265 23813 db_lmdb.cpp:35] Opened lmdb examples/cifar10/cifar10_train_lmdb
I0501 04:04:25.259289 23813 net.cpp:86] Creating Layer cifar
I0501 04:04:25.259296 23813 net.cpp:382] cifar -> data
I0501 04:04:25.259315 23813 net.cpp:382] cifar -> label
I0501 04:04:25.259323 23813 data_transformer.cpp:25] Loading mean file from: examples/cifar10/mean.binaryproto
I0501 04:04:25.261059 23813 data_layer.cpp:45] output data size: 111,3,32,32
I0501 04:04:25.267439 23813 net.cpp:124] Setting up cifar
I0501 04:04:25.267454 23813 net.cpp:131] Top shape: 111 3 32 32 (340992)
I0501 04:04:25.267459 23813 net.cpp:131] Top shape: 111 (111)
I0501 04:04:25.267462 23813 net.cpp:139] Memory required for data: 1364412
I0501 04:04:25.267479 23813 layer_factory.hpp:77] Creating layer conv0
I0501 04:04:25.267534 23813 net.cpp:86] Creating Layer conv0
I0501 04:04:25.267539 23813 net.cpp:408] conv0 <- data
I0501 04:04:25.267550 23813 net.cpp:382] conv0 -> conv0
I0501 04:04:25.496902 23813 net.cpp:124] Setting up conv0
I0501 04:04:25.496943 23813 net.cpp:131] Top shape: 111 8 32 32 (909312)
I0501 04:04:25.496948 23813 net.cpp:139] Memory required for data: 5001660
I0501 04:04:25.496961 23813 layer_factory.hpp:77] Creating layer Sigmoid0
I0501 04:04:25.496973 23813 net.cpp:86] Creating Layer Sigmoid0
I0501 04:04:25.496976 23813 net.cpp:408] Sigmoid0 <- conv0
I0501 04:04:25.496981 23813 net.cpp:382] Sigmoid0 -> Sigmoid0
I0501 04:04:25.497191 23813 net.cpp:124] Setting up Sigmoid0
I0501 04:04:25.497200 23813 net.cpp:131] Top shape: 111 8 32 32 (909312)
I0501 04:04:25.497205 23813 net.cpp:139] Memory required for data: 8638908
I0501 04:04:25.497207 23813 layer_factory.hpp:77] Creating layer pool0
I0501 04:04:25.497213 23813 net.cpp:86] Creating Layer pool0
I0501 04:04:25.497216 23813 net.cpp:408] pool0 <- Sigmoid0
I0501 04:04:25.497228 23813 net.cpp:382] pool0 -> pool0
I0501 04:04:25.497946 23813 net.cpp:124] Setting up pool0
I0501 04:04:25.497957 23813 net.cpp:131] Top shape: 111 8 16 16 (227328)
I0501 04:04:25.497961 23813 net.cpp:139] Memory required for data: 9548220
I0501 04:04:25.497963 23813 layer_factory.hpp:77] Creating layer ip1
I0501 04:04:25.497972 23813 net.cpp:86] Creating Layer ip1
I0501 04:04:25.497975 23813 net.cpp:408] ip1 <- pool0
I0501 04:04:25.497980 23813 net.cpp:382] ip1 -> ip1
I0501 04:04:25.499923 23813 net.cpp:124] Setting up ip1
I0501 04:04:25.499935 23813 net.cpp:131] Top shape: 111 20 (2220)
I0501 04:04:25.499954 23813 net.cpp:139] Memory required for data: 9557100
I0501 04:04:25.499963 23813 layer_factory.hpp:77] Creating layer relu1
I0501 04:04:25.499969 23813 net.cpp:86] Creating Layer relu1
I0501 04:04:25.499972 23813 net.cpp:408] relu1 <- ip1
I0501 04:04:25.499976 23813 net.cpp:369] relu1 -> ip1 (in-place)
I0501 04:04:25.500159 23813 net.cpp:124] Setting up relu1
I0501 04:04:25.500167 23813 net.cpp:131] Top shape: 111 20 (2220)
I0501 04:04:25.500170 23813 net.cpp:139] Memory required for data: 9565980
I0501 04:04:25.500174 23813 layer_factory.hpp:77] Creating layer ip2
I0501 04:04:25.500180 23813 net.cpp:86] Creating Layer ip2
I0501 04:04:25.500182 23813 net.cpp:408] ip2 <- ip1
I0501 04:04:25.500187 23813 net.cpp:382] ip2 -> ip2
I0501 04:04:25.500278 23813 net.cpp:124] Setting up ip2
I0501 04:04:25.500285 23813 net.cpp:131] Top shape: 111 20 (2220)
I0501 04:04:25.500288 23813 net.cpp:139] Memory required for data: 9574860
I0501 04:04:25.500294 23813 layer_factory.hpp:77] Creating layer relu2
I0501 04:04:25.500299 23813 net.cpp:86] Creating Layer relu2
I0501 04:04:25.500303 23813 net.cpp:408] relu2 <- ip2
I0501 04:04:25.500305 23813 net.cpp:369] relu2 -> ip2 (in-place)
I0501 04:04:25.500463 23813 net.cpp:124] Setting up relu2
I0501 04:04:25.500470 23813 net.cpp:131] Top shape: 111 20 (2220)
I0501 04:04:25.500473 23813 net.cpp:139] Memory required for data: 9583740
I0501 04:04:25.500476 23813 layer_factory.hpp:77] Creating layer ip3
I0501 04:04:25.500483 23813 net.cpp:86] Creating Layer ip3
I0501 04:04:25.500486 23813 net.cpp:408] ip3 <- ip2
I0501 04:04:25.500490 23813 net.cpp:382] ip3 -> ip3
I0501 04:04:25.500658 23813 net.cpp:124] Setting up ip3
I0501 04:04:25.500664 23813 net.cpp:131] Top shape: 111 160 (17760)
I0501 04:04:25.500668 23813 net.cpp:139] Memory required for data: 9654780
I0501 04:04:25.500672 23813 layer_factory.hpp:77] Creating layer relu3
I0501 04:04:25.500676 23813 net.cpp:86] Creating Layer relu3
I0501 04:04:25.500680 23813 net.cpp:408] relu3 <- ip3
I0501 04:04:25.500684 23813 net.cpp:369] relu3 -> ip3 (in-place)
I0501 04:04:25.500856 23813 net.cpp:124] Setting up relu3
I0501 04:04:25.500880 23813 net.cpp:131] Top shape: 111 160 (17760)
I0501 04:04:25.500885 23813 net.cpp:139] Memory required for data: 9725820
I0501 04:04:25.500887 23813 layer_factory.hpp:77] Creating layer ip4
I0501 04:04:25.500923 23813 net.cpp:86] Creating Layer ip4
I0501 04:04:25.500927 23813 net.cpp:408] ip4 <- ip3
I0501 04:04:25.500932 23813 net.cpp:382] ip4 -> ip4
I0501 04:04:25.501071 23813 net.cpp:124] Setting up ip4
I0501 04:04:25.501080 23813 net.cpp:131] Top shape: 111 10 (1110)
I0501 04:04:25.501082 23813 net.cpp:139] Memory required for data: 9730260
I0501 04:04:25.501091 23813 layer_factory.hpp:77] Creating layer loss
I0501 04:04:25.501096 23813 net.cpp:86] Creating Layer loss
I0501 04:04:25.501099 23813 net.cpp:408] loss <- ip4
I0501 04:04:25.501103 23813 net.cpp:408] loss <- label
I0501 04:04:25.501108 23813 net.cpp:382] loss -> loss
I0501 04:04:25.501121 23813 layer_factory.hpp:77] Creating layer loss
…
I0501 04:04:25.502363 23813 solver.cpp:173] Creating test net (#0) specified by net file: ECE595/cifar/train_test/var_everything/cifar_train_test_374.prototxt
I0501 04:04:25.502390 23813 net.cpp:296] The NetState phase (1) differed from the phase (0) specified by a rule in layer cifar
I0501 04:04:25.502485 23813 net.cpp:53] Initializing net from parameters: 
name: "CIFAR"
state {
  phase: TEST
}
layer {
  name: "cifar"
  type: "Data"
  top: "data"
  top: "label"
  include {
    phase: TEST
  }
  transform_param {
    mean_file: "examples/cifar10/mean.binaryproto"
  }
  data_param {
    source: "examples/cifar10/cifar10_test_lmdb"
    batch_size: 1000
    backend: LMDB
  }
}
layer {
  name: "conv0"
  type: "Convolution"
  bottom: "data"
  top: "conv0"
  param {
    lr_mult: 1
  }
  param {
    lr_mult: 2
  }
  convolution_param {
    num_output: 8
    pad: 2
    kernel_size: 5
    stride: 1
    weight_filler {
      type: "gaussian"
      std: 0.01
    }
    bias_filler {
      type: "constant"
    }
  }
}
layer {
  name: "Sigmoid0"
  type: "Sigmoid"
  bottom: "conv0"
  top: "Sigmoid0"
}
layer {
  name: "pool0"
  type: "Pooling"
  bottom: "Sigmoid0"
  top: "pool0"
  pooling_param {
    pool: AVE
    kernel_size: 3
    stride: 2
  }
}
layer {
  name: "ip1"
  type: "InnerProduct"
  bottom: "pool0"
  top: "ip1"
  param {
    lr_mult: 1
  }
  param {
    lr_mult: 2
  }
  inner_product_param {
    num_output: 20
    weight_filler {
      type: "gaussian"
      std: 0.01
    }
    bias_filler {
      type: "constant"
    }
  }
}
layer {
  name: "relu1"
  type: "ReLU"
  bottom: "ip1"
  top: "ip1"
}
layer {
  name: "ip2"
  type: "InnerProduct"
  bottom: "ip1"
  top: "ip2"
  param {
    lr_mult: 1
  }
  param {
    lr_mult: 2
  }
  inner_product_param {
    num_output: 20
    weight_filler {
      type: "gaussian"
      std: 0.01
    }
    bias_filler {
      type: "constant"
    }
  }
}
layer {
  name: "relu2"
  type: "ReLU"
  bottom: "ip2"
  top: "ip2"
}
layer {
  name: "ip3"
  type: "InnerProduct"
  bottom: "ip2"
  top: "ip3"
  param {
    lr_mult: 1
  }
  param {
    lr_mult: 2
  }
  inner_product_param {
    num_output: 160
    weight_filler {
      type: "gaussian"
      std: 0.01
    }
    bias_filler {
      type: "constant"
    }
  }
}
layer {
  name: "relu3"
  type: "ReLU"
  bottom: "ip3"
  top: "ip3"
}
layer {
  name: "ip4"
  type: "InnerProduct"
  bottom: "ip3"
  top: "ip4"
  param {
    lr_mult: 1
  }
  param {
    lr_mult: 2
  }
  inner_product_param {
    num_output: 10
    weight_filler {
      type: "gaussian"
      std: 0.01
    }
    bias_filler {
      type: "constant"
    }
  }
}
layer {
  name: "accuracy"
  type: "Accuracy"
  bottom: "ip4"
  bottom: "label"
  top: "accuracy"
  include {
    phase: TEST
  }
}
layer {
  name: "loss"
  type: "SoftmaxWithLoss"
  bottom: "ip4"
  bottom: "label"
  top: "loss"
}
I0501 04:04:25.502558 23813 layer_factory.hpp:77] Creating layer cifar
I0501 04:04:25.502619 23813 db_lmdb.cpp:35] Opened lmdb examples/cifar10/cifar10_test_lmdb
I0501 04:04:25.502631 23813 net.cpp:86] Creating Layer cifar
I0501 04:04:25.502636 23813 net.cpp:382] cifar -> data
I0501 04:04:25.502645 23813 net.cpp:382] cifar -> label
I0501 04:04:25.502651 23813 data_transformer.cpp:25] Loading mean file from: examples/cifar10/mean.binaryproto
I0501 04:04:25.502792 23813 data_layer.cpp:45] output data size: 1000,3,32,32
I0501 04:04:25.525104 23813 net.cpp:124] Setting up cifar
I0501 04:04:25.525146 23813 net.cpp:131] Top shape: 1000 3 32 32 (3072000)
I0501 04:04:25.525151 23813 net.cpp:131] Top shape: 1000 (1000)
I0501 04:04:25.525154 23813 net.cpp:139] Memory required for data: 12292000
I0501 04:04:25.525161 23813 layer_factory.hpp:77] Creating layer label_cifar_1_split
I0501 04:04:25.525187 23813 net.cpp:86] Creating Layer label_cifar_1_split
I0501 04:04:25.525207 23813 net.cpp:408] label_cifar_1_split <- label
I0501 04:04:25.525213 23813 net.cpp:382] label_cifar_1_split -> label_cifar_1_split_0
I0501 04:04:25.525223 23813 net.cpp:382] label_cifar_1_split -> label_cifar_1_split_1
I0501 04:04:25.525331 23813 net.cpp:124] Setting up label_cifar_1_split
I0501 04:04:25.525337 23813 net.cpp:131] Top shape: 1000 (1000)
I0501 04:04:25.525341 23813 net.cpp:131] Top shape: 1000 (1000)
I0501 04:04:25.525344 23813 net.cpp:139] Memory required for data: 12300000
I0501 04:04:25.525347 23813 layer_factory.hpp:77] Creating layer conv0
I0501 04:04:25.525360 23813 net.cpp:86] Creating Layer conv0
I0501 04:04:25.525367 23813 net.cpp:408] conv0 <- data
I0501 04:04:25.525387 23813 net.cpp:382] conv0 -> conv0
I0501 04:04:25.527019 23813 net.cpp:124] Setting up conv0
I0501 04:04:25.527047 23813 net.cpp:131] Top shape: 1000 8 32 32 (8192000)
I0501 04:04:25.527051 23813 net.cpp:139] Memory required for data: 45068000
I0501 04:04:25.527062 23813 layer_factory.hpp:77] Creating layer Sigmoid0
I0501 04:04:25.527070 23813 net.cpp:86] Creating Layer Sigmoid0
I0501 04:04:25.527072 23813 net.cpp:408] Sigmoid0 <- conv0
I0501 04:04:25.527076 23813 net.cpp:382] Sigmoid0 -> Sigmoid0
I0501 04:04:25.527253 23813 net.cpp:124] Setting up Sigmoid0
I0501 04:04:25.527262 23813 net.cpp:131] Top shape: 1000 8 32 32 (8192000)
I0501 04:04:25.527266 23813 net.cpp:139] Memory required for data: 77836000
I0501 04:04:25.527268 23813 layer_factory.hpp:77] Creating layer pool0
I0501 04:04:25.527277 23813 net.cpp:86] Creating Layer pool0
I0501 04:04:25.527281 23813 net.cpp:408] pool0 <- Sigmoid0
I0501 04:04:25.527285 23813 net.cpp:382] pool0 -> pool0
I0501 04:04:25.527572 23813 net.cpp:124] Setting up pool0
I0501 04:04:25.527582 23813 net.cpp:131] Top shape: 1000 8 16 16 (2048000)
I0501 04:04:25.527585 23813 net.cpp:139] Memory required for data: 86028000
I0501 04:04:25.527590 23813 layer_factory.hpp:77] Creating layer ip1
I0501 04:04:25.527596 23813 net.cpp:86] Creating Layer ip1
I0501 04:04:25.527601 23813 net.cpp:408] ip1 <- pool0
I0501 04:04:25.527606 23813 net.cpp:382] ip1 -> ip1
I0501 04:04:25.529762 23813 net.cpp:124] Setting up ip1
I0501 04:04:25.529772 23813 net.cpp:131] Top shape: 1000 20 (20000)
I0501 04:04:25.529788 23813 net.cpp:139] Memory required for data: 86108000
I0501 04:04:25.529811 23813 layer_factory.hpp:77] Creating layer relu1
I0501 04:04:25.529819 23813 net.cpp:86] Creating Layer relu1
I0501 04:04:25.529821 23813 net.cpp:408] relu1 <- ip1
I0501 04:04:25.529825 23813 net.cpp:369] relu1 -> ip1 (in-place)
I0501 04:04:25.530033 23813 net.cpp:124] Setting up relu1
I0501 04:04:25.530042 23813 net.cpp:131] Top shape: 1000 20 (20000)
I0501 04:04:25.530045 23813 net.cpp:139] Memory required for data: 86188000
I0501 04:04:25.530048 23813 layer_factory.hpp:77] Creating layer ip2
I0501 04:04:25.530056 23813 net.cpp:86] Creating Layer ip2
I0501 04:04:25.530059 23813 net.cpp:408] ip2 <- ip1
I0501 04:04:25.530066 23813 net.cpp:382] ip2 -> ip2
I0501 04:04:25.530180 23813 net.cpp:124] Setting up ip2
I0501 04:04:25.530187 23813 net.cpp:131] Top shape: 1000 20 (20000)
I0501 04:04:25.530205 23813 net.cpp:139] Memory required for data: 86268000
I0501 04:04:25.530212 23813 layer_factory.hpp:77] Creating layer relu2
I0501 04:04:25.530218 23813 net.cpp:86] Creating Layer relu2
I0501 04:04:25.530221 23813 net.cpp:408] relu2 <- ip2
I0501 04:04:25.530232 23813 net.cpp:369] relu2 -> ip2 (in-place)
I0501 04:04:25.530967 23813 net.cpp:124] Setting up relu2
I0501 04:04:25.530995 23813 net.cpp:131] Top shape: 1000 20 (20000)
I0501 04:04:25.531014 23813 net.cpp:139] Memory required for data: 86348000
I0501 04:04:25.531018 23813 layer_factory.hpp:77] Creating layer ip3
I0501 04:04:25.531026 23813 net.cpp:86] Creating Layer ip3
I0501 04:04:25.531030 23813 net.cpp:408] ip3 <- ip2
I0501 04:04:25.531034 23813 net.cpp:382] ip3 -> ip3
I0501 04:04:25.531246 23813 net.cpp:124] Setting up ip3
I0501 04:04:25.531253 23813 net.cpp:131] Top shape: 1000 160 (160000)
I0501 04:04:25.531256 23813 net.cpp:139] Memory required for data: 86988000
I0501 04:04:25.531262 23813 layer_factory.hpp:77] Creating layer relu3
I0501 04:04:25.531268 23813 net.cpp:86] Creating Layer relu3
I0501 04:04:25.531271 23813 net.cpp:408] relu3 <- ip3
I0501 04:04:25.531275 23813 net.cpp:369] relu3 -> ip3 (in-place)
I0501 04:04:25.531448 23813 net.cpp:124] Setting up relu3
I0501 04:04:25.531456 23813 net.cpp:131] Top shape: 1000 160 (160000)
I0501 04:04:25.531460 23813 net.cpp:139] Memory required for data: 87628000
I0501 04:04:25.531462 23813 layer_factory.hpp:77] Creating layer ip4
I0501 04:04:25.531468 23813 net.cpp:86] Creating Layer ip4
I0501 04:04:25.531471 23813 net.cpp:408] ip4 <- ip3
I0501 04:04:25.531476 23813 net.cpp:382] ip4 -> ip4
I0501 04:04:25.531615 23813 net.cpp:124] Setting up ip4
I0501 04:04:25.531622 23813 net.cpp:131] Top shape: 1000 10 (10000)
I0501 04:04:25.531625 23813 net.cpp:139] Memory required for data: 87668000
I0501 04:04:25.531633 23813 layer_factory.hpp:77] Creating layer ip4_ip4_0_split
I0501 04:04:25.531638 23813 net.cpp:86] Creating Layer ip4_ip4_0_split
I0501 04:04:25.531641 23813 net.cpp:408] ip4_ip4_0_split <- ip4
I0501 04:04:25.531646 23813 net.cpp:382] ip4_ip4_0_split -> ip4_ip4_0_split_0
I0501 04:04:25.531659 23813 net.cpp:382] ip4_ip4_0_split -> ip4_ip4_0_split_1
I0501 04:04:25.531693 23813 net.cpp:124] Setting up ip4_ip4_0_split
I0501 04:04:25.531702 23813 net.cpp:131] Top shape: 1000 10 (10000)
I0501 04:04:25.531705 23813 net.cpp:131] Top shape: 1000 10 (10000)
I0501 04:04:25.531708 23813 net.cpp:139] Memory required for data: 87748000
I0501 04:04:25.531711 23813 layer_factory.hpp:77] Creating layer accuracy
I0501 04:04:25.531718 23813 net.cpp:86] Creating Layer accuracy
I0501 04:04:25.531720 23813 net.cpp:408] accuracy <- ip4_ip4_0_split_0
I0501 04:04:25.531724 23813 net.cpp:408] accuracy <- label_cifar_1_split_0
I0501 04:04:25.531728 23813 net.cpp:382] accuracy -> accuracy
…
