…
I0501 01:21:58.260202 10278 net.cpp:296] The NetState phase (0) differed from the phase (1) specified by a rule in layer cifar
I0501 01:21:58.260221 10278 net.cpp:296] The NetState phase (0) differed from the phase (1) specified by a rule in layer accuracy
I0501 01:21:58.260327 10278 net.cpp:53] Initializing net from parameters: 
name: "CIFAR"
state {
  phase: TRAIN
  level: 0
  stage: ""
}
layer {
  name: "cifar"
  type: "Data"
  top: "data"
  top: "label"
  include {
    phase: TRAIN
  }
  transform_param {
    mean_file: "examples/cifar10/mean.binaryproto"
  }
  data_param {
    source: "examples/cifar10/cifar10_train_lmdb"
    batch_size: 111
    backend: LMDB
  }
}
layer {
  name: "conv0"
  type: "Convolution"
  bottom: "data"
  top: "conv0"
  param {
    lr_mult: 1
  }
  param {
    lr_mult: 2
  }
  convolution_param {
    num_output: 8
    pad: 2
    kernel_size: 3
    stride: 1
    weight_filler {
      type: "gaussian"
      std: 0.01
    }
    bias_filler {
      type: "constant"
    }
  }
}
layer {
  name: "Sigmoid0"
  type: "Sigmoid"
  bottom: "conv0"
  top: "Sigmoid0"
}
layer {
  name: "pool0"
  type: "Pooling"
  bottom: "Sigmoid0"
  top: "pool0"
  pooling_param {
    pool: AVE
    kernel_size: 3
    stride: 2
  }
}
layer {
  name: "ip1"
  type: "InnerProduct"
  bottom: "pool0"
  top: "ip1"
  param {
    lr_mult: 1
  }
  param {
    lr_mult: 2
  }
  inner_product_param {
    num_output: 160
    weight_filler {
      type: "gaussian"
      std: 0.01
    }
    bias_filler {
      type: "constant"
    }
  }
}
layer {
  name: "relu1"
  type: "ReLU"
  bottom: "ip1"
  top: "ip1"
}
layer {
  name: "ip2"
  type: "InnerProduct"
  bottom: "ip1"
  top: "ip2"
  param {
    lr_mult: 1
  }
  param {
    lr_mult: 2
  }
  inner_product_param {
    num_output: 10
    weight_filler {
      type: "gaussian"
      std: 0.01
    }
    bias_filler {
      type: "constant"
    }
  }
}
layer {
  name: "relu2"
  type: "ReLU"
  bottom: "ip2"
  top: "ip2"
}
layer {
  name: "ip3"
  type: "InnerProduct"
  bottom: "ip2"
  top: "ip3"
  param {
    lr_mult: 1
  }
  param {
    lr_mult: 2
  }
  inner_product_param {
    num_output: 40
    weight_filler {
      type: "gaussian"
      std: 0.01
    }
    bias_filler {
      type: "constant"
    }
  }
}
layer {
  name: "relu3"
  type: "ReLU"
  bottom: "ip3"
  top: "ip3"
}
layer {
  name: "ip4"
  type: "InnerProduct"
  bottom: "ip3"
  top: "ip4"
  param {
    lr_mult: 1
  }
  param {
    lr_mult: 2
  }
  inner_product_param {
    num_output: 10
    weight_filler {
      type: "gaussian"
      std: 0.01
    }
    bias_filler {
      type: "constant"
    }
  }
}
layer {
  name: "loss"
  type: "SoftmaxWithLoss"
  bottom: "ip4"
  bottom: "label"
  top: "loss"
}
I0501 01:21:58.260407 10278 layer_factory.hpp:77] Creating layer cifar
I0501 01:21:58.260507 10278 db_lmdb.cpp:35] Opened lmdb examples/cifar10/cifar10_train_lmdb
I0501 01:21:58.260536 10278 net.cpp:86] Creating Layer cifar
I0501 01:21:58.260550 10278 net.cpp:382] cifar -> data
I0501 01:21:58.260574 10278 net.cpp:382] cifar -> label
I0501 01:21:58.260586 10278 data_transformer.cpp:25] Loading mean file from: examples/cifar10/mean.binaryproto
I0501 01:21:58.262708 10278 data_layer.cpp:45] output data size: 111,3,32,32
I0501 01:21:58.270599 10278 net.cpp:124] Setting up cifar
I0501 01:21:58.270619 10278 net.cpp:131] Top shape: 111 3 32 32 (340992)
I0501 01:21:58.270625 10278 net.cpp:131] Top shape: 111 (111)
I0501 01:21:58.270628 10278 net.cpp:139] Memory required for data: 1364412
I0501 01:21:58.270653 10278 layer_factory.hpp:77] Creating layer conv0
I0501 01:21:58.270671 10278 net.cpp:86] Creating Layer conv0
I0501 01:21:58.270678 10278 net.cpp:408] conv0 <- data
I0501 01:21:58.270691 10278 net.cpp:382] conv0 -> conv0
I0501 01:21:58.555104 10278 net.cpp:124] Setting up conv0
I0501 01:21:58.555130 10278 net.cpp:131] Top shape: 111 8 34 34 (1026528)
I0501 01:21:58.555135 10278 net.cpp:139] Memory required for data: 5470524
I0501 01:21:58.555150 10278 layer_factory.hpp:77] Creating layer Sigmoid0
I0501 01:21:58.555161 10278 net.cpp:86] Creating Layer Sigmoid0
I0501 01:21:58.555169 10278 net.cpp:408] Sigmoid0 <- conv0
I0501 01:21:58.555176 10278 net.cpp:382] Sigmoid0 -> Sigmoid0
I0501 01:21:58.555349 10278 net.cpp:124] Setting up Sigmoid0
I0501 01:21:58.555358 10278 net.cpp:131] Top shape: 111 8 34 34 (1026528)
I0501 01:21:58.555361 10278 net.cpp:139] Memory required for data: 9576636
I0501 01:21:58.555364 10278 layer_factory.hpp:77] Creating layer pool0
I0501 01:21:58.555371 10278 net.cpp:86] Creating Layer pool0
I0501 01:21:58.555374 10278 net.cpp:408] pool0 <- Sigmoid0
I0501 01:21:58.555379 10278 net.cpp:382] pool0 -> pool0
I0501 01:21:58.556109 10278 net.cpp:124] Setting up pool0
I0501 01:21:58.556123 10278 net.cpp:131] Top shape: 111 8 17 17 (256632)
I0501 01:21:58.556125 10278 net.cpp:139] Memory required for data: 10603164
I0501 01:21:58.556129 10278 layer_factory.hpp:77] Creating layer ip1
I0501 01:21:58.556138 10278 net.cpp:86] Creating Layer ip1
I0501 01:21:58.556143 10278 net.cpp:408] ip1 <- pool0
I0501 01:21:58.556147 10278 net.cpp:382] ip1 -> ip1
I0501 01:21:58.566635 10278 net.cpp:124] Setting up ip1
I0501 01:21:58.566648 10278 net.cpp:131] Top shape: 111 160 (17760)
I0501 01:21:58.566651 10278 net.cpp:139] Memory required for data: 10674204
I0501 01:21:58.566659 10278 layer_factory.hpp:77] Creating layer relu1
I0501 01:21:58.566664 10278 net.cpp:86] Creating Layer relu1
I0501 01:21:58.566668 10278 net.cpp:408] relu1 <- ip1
I0501 01:21:58.566673 10278 net.cpp:369] relu1 -> ip1 (in-place)
I0501 01:21:58.566823 10278 net.cpp:124] Setting up relu1
I0501 01:21:58.566833 10278 net.cpp:131] Top shape: 111 160 (17760)
I0501 01:21:58.566835 10278 net.cpp:139] Memory required for data: 10745244
I0501 01:21:58.566838 10278 layer_factory.hpp:77] Creating layer ip2
I0501 01:21:58.566844 10278 net.cpp:86] Creating Layer ip2
I0501 01:21:58.566848 10278 net.cpp:408] ip2 <- ip1
I0501 01:21:58.566853 10278 net.cpp:382] ip2 -> ip2
I0501 01:21:58.566984 10278 net.cpp:124] Setting up ip2
I0501 01:21:58.566992 10278 net.cpp:131] Top shape: 111 10 (1110)
I0501 01:21:58.566994 10278 net.cpp:139] Memory required for data: 10749684
I0501 01:21:58.567001 10278 layer_factory.hpp:77] Creating layer relu2
I0501 01:21:58.567008 10278 net.cpp:86] Creating Layer relu2
I0501 01:21:58.567026 10278 net.cpp:408] relu2 <- ip2
I0501 01:21:58.567030 10278 net.cpp:369] relu2 -> ip2 (in-place)
I0501 01:21:58.567178 10278 net.cpp:124] Setting up relu2
I0501 01:21:58.567186 10278 net.cpp:131] Top shape: 111 10 (1110)
I0501 01:21:58.567189 10278 net.cpp:139] Memory required for data: 10754124
I0501 01:21:58.567193 10278 layer_factory.hpp:77] Creating layer ip3
I0501 01:21:58.567214 10278 net.cpp:86] Creating Layer ip3
I0501 01:21:58.567219 10278 net.cpp:408] ip3 <- ip2
I0501 01:21:58.567239 10278 net.cpp:382] ip3 -> ip3
I0501 01:21:58.568167 10278 net.cpp:124] Setting up ip3
I0501 01:21:58.568179 10278 net.cpp:131] Top shape: 111 40 (4440)
I0501 01:21:58.568182 10278 net.cpp:139] Memory required for data: 10771884
I0501 01:21:58.568188 10278 layer_factory.hpp:77] Creating layer relu3
I0501 01:21:58.568193 10278 net.cpp:86] Creating Layer relu3
I0501 01:21:58.568197 10278 net.cpp:408] relu3 <- ip3
I0501 01:21:58.568202 10278 net.cpp:369] relu3 -> ip3 (in-place)
I0501 01:21:58.568351 10278 net.cpp:124] Setting up relu3
I0501 01:21:58.568358 10278 net.cpp:131] Top shape: 111 40 (4440)
I0501 01:21:58.568361 10278 net.cpp:139] Memory required for data: 10789644
I0501 01:21:58.568364 10278 layer_factory.hpp:77] Creating layer ip4
I0501 01:21:58.568382 10278 net.cpp:86] Creating Layer ip4
I0501 01:21:58.568388 10278 net.cpp:408] ip4 <- ip3
I0501 01:21:58.568392 10278 net.cpp:382] ip4 -> ip4
I0501 01:21:58.568490 10278 net.cpp:124] Setting up ip4
I0501 01:21:58.568497 10278 net.cpp:131] Top shape: 111 10 (1110)
I0501 01:21:58.568500 10278 net.cpp:139] Memory required for data: 10794084
I0501 01:21:58.568513 10278 layer_factory.hpp:77] Creating layer loss
I0501 01:21:58.568518 10278 net.cpp:86] Creating Layer loss
I0501 01:21:58.568521 10278 net.cpp:408] loss <- ip4
I0501 01:21:58.568526 10278 net.cpp:408] loss <- label
I0501 01:21:58.568531 10278 net.cpp:382] loss -> loss
I0501 01:21:58.568544 10278 layer_factory.hpp:77] Creating layer loss
…
I0501 01:21:58.569804 10278 solver.cpp:173] Creating test net (#0) specified by net file: ECE595/cifar/train_test/var_everything/cifar_train_test_287.prototxt
I0501 01:21:58.569829 10278 net.cpp:296] The NetState phase (1) differed from the phase (0) specified by a rule in layer cifar
I0501 01:21:58.569916 10278 net.cpp:53] Initializing net from parameters: 
name: "CIFAR"
state {
  phase: TEST
}
layer {
  name: "cifar"
  type: "Data"
  top: "data"
  top: "label"
  include {
    phase: TEST
  }
  transform_param {
    mean_file: "examples/cifar10/mean.binaryproto"
  }
  data_param {
    source: "examples/cifar10/cifar10_test_lmdb"
    batch_size: 1000
    backend: LMDB
  }
}
layer {
  name: "conv0"
  type: "Convolution"
  bottom: "data"
  top: "conv0"
  param {
    lr_mult: 1
  }
  param {
    lr_mult: 2
  }
  convolution_param {
    num_output: 8
    pad: 2
    kernel_size: 3
    stride: 1
    weight_filler {
      type: "gaussian"
      std: 0.01
    }
    bias_filler {
      type: "constant"
    }
  }
}
layer {
  name: "Sigmoid0"
  type: "Sigmoid"
  bottom: "conv0"
  top: "Sigmoid0"
}
layer {
  name: "pool0"
  type: "Pooling"
  bottom: "Sigmoid0"
  top: "pool0"
  pooling_param {
    pool: AVE
    kernel_size: 3
    stride: 2
  }
}
layer {
  name: "ip1"
  type: "InnerProduct"
  bottom: "pool0"
  top: "ip1"
  param {
    lr_mult: 1
  }
  param {
    lr_mult: 2
  }
  inner_product_param {
    num_output: 160
    weight_filler {
      type: "gaussian"
      std: 0.01
    }
    bias_filler {
      type: "constant"
    }
  }
}
layer {
  name: "relu1"
  type: "ReLU"
  bottom: "ip1"
  top: "ip1"
}
layer {
  name: "ip2"
  type: "InnerProduct"
  bottom: "ip1"
  top: "ip2"
  param {
    lr_mult: 1
  }
  param {
    lr_mult: 2
  }
  inner_product_param {
    num_output: 10
    weight_filler {
      type: "gaussian"
      std: 0.01
    }
    bias_filler {
      type: "constant"
    }
  }
}
layer {
  name: "relu2"
  type: "ReLU"
  bottom: "ip2"
  top: "ip2"
}
layer {
  name: "ip3"
  type: "InnerProduct"
  bottom: "ip2"
  top: "ip3"
  param {
    lr_mult: 1
  }
  param {
    lr_mult: 2
  }
  inner_product_param {
    num_output: 40
    weight_filler {
      type: "gaussian"
      std: 0.01
    }
    bias_filler {
      type: "constant"
    }
  }
}
layer {
  name: "relu3"
  type: "ReLU"
  bottom: "ip3"
  top: "ip3"
}
layer {
  name: "ip4"
  type: "InnerProduct"
  bottom: "ip3"
  top: "ip4"
  param {
    lr_mult: 1
  }
  param {
    lr_mult: 2
  }
  inner_product_param {
    num_output: 10
    weight_filler {
      type: "gaussian"
      std: 0.01
    }
    bias_filler {
      type: "constant"
    }
  }
}
layer {
  name: "accuracy"
  type: "Accuracy"
  bottom: "ip4"
  bottom: "label"
  top: "accuracy"
  include {
    phase: TEST
  }
}
layer {
  name: "loss"
  type: "SoftmaxWithLoss"
  bottom: "ip4"
  bottom: "label"
  top: "loss"
}
I0501 01:21:58.569989 10278 layer_factory.hpp:77] Creating layer cifar
I0501 01:21:58.570030 10278 db_lmdb.cpp:35] Opened lmdb examples/cifar10/cifar10_test_lmdb
I0501 01:21:58.570044 10278 net.cpp:86] Creating Layer cifar
I0501 01:21:58.570050 10278 net.cpp:382] cifar -> data
I0501 01:21:58.570073 10278 net.cpp:382] cifar -> label
I0501 01:21:58.570080 10278 data_transformer.cpp:25] Loading mean file from: examples/cifar10/mean.binaryproto
I0501 01:21:58.570232 10278 data_layer.cpp:45] output data size: 1000,3,32,32
I0501 01:21:58.591902 10278 net.cpp:124] Setting up cifar
I0501 01:21:58.591927 10278 net.cpp:131] Top shape: 1000 3 32 32 (3072000)
I0501 01:21:58.591933 10278 net.cpp:131] Top shape: 1000 (1000)
I0501 01:21:58.591935 10278 net.cpp:139] Memory required for data: 12292000
I0501 01:21:58.591955 10278 layer_factory.hpp:77] Creating layer label_cifar_1_split
I0501 01:21:58.591970 10278 net.cpp:86] Creating Layer label_cifar_1_split
I0501 01:21:58.591974 10278 net.cpp:408] label_cifar_1_split <- label
I0501 01:21:58.591980 10278 net.cpp:382] label_cifar_1_split -> label_cifar_1_split_0
I0501 01:21:58.591989 10278 net.cpp:382] label_cifar_1_split -> label_cifar_1_split_1
I0501 01:21:58.592085 10278 net.cpp:124] Setting up label_cifar_1_split
I0501 01:21:58.592093 10278 net.cpp:131] Top shape: 1000 (1000)
I0501 01:21:58.592097 10278 net.cpp:131] Top shape: 1000 (1000)
I0501 01:21:58.592099 10278 net.cpp:139] Memory required for data: 12300000
I0501 01:21:58.592103 10278 layer_factory.hpp:77] Creating layer conv0
I0501 01:21:58.592116 10278 net.cpp:86] Creating Layer conv0
I0501 01:21:58.592121 10278 net.cpp:408] conv0 <- data
I0501 01:21:58.592142 10278 net.cpp:382] conv0 -> conv0
I0501 01:21:58.593801 10278 net.cpp:124] Setting up conv0
I0501 01:21:58.593816 10278 net.cpp:131] Top shape: 1000 8 34 34 (9248000)
I0501 01:21:58.593818 10278 net.cpp:139] Memory required for data: 49292000
I0501 01:21:58.593827 10278 layer_factory.hpp:77] Creating layer Sigmoid0
I0501 01:21:58.593834 10278 net.cpp:86] Creating Layer Sigmoid0
I0501 01:21:58.593837 10278 net.cpp:408] Sigmoid0 <- conv0
I0501 01:21:58.593842 10278 net.cpp:382] Sigmoid0 -> Sigmoid0
I0501 01:21:58.594058 10278 net.cpp:124] Setting up Sigmoid0
I0501 01:21:58.594066 10278 net.cpp:131] Top shape: 1000 8 34 34 (9248000)
I0501 01:21:58.594070 10278 net.cpp:139] Memory required for data: 86284000
I0501 01:21:58.594074 10278 layer_factory.hpp:77] Creating layer pool0
I0501 01:21:58.594081 10278 net.cpp:86] Creating Layer pool0
I0501 01:21:58.594084 10278 net.cpp:408] pool0 <- Sigmoid0
I0501 01:21:58.594089 10278 net.cpp:382] pool0 -> pool0
I0501 01:21:58.594362 10278 net.cpp:124] Setting up pool0
I0501 01:21:58.594372 10278 net.cpp:131] Top shape: 1000 8 17 17 (2312000)
I0501 01:21:58.594374 10278 net.cpp:139] Memory required for data: 95532000
I0501 01:21:58.594379 10278 layer_factory.hpp:77] Creating layer ip1
I0501 01:21:58.594401 10278 net.cpp:86] Creating Layer ip1
I0501 01:21:58.594404 10278 net.cpp:408] ip1 <- pool0
I0501 01:21:58.594409 10278 net.cpp:382] ip1 -> ip1
I0501 01:21:58.605705 10278 net.cpp:124] Setting up ip1
I0501 01:21:58.605718 10278 net.cpp:131] Top shape: 1000 160 (160000)
I0501 01:21:58.605722 10278 net.cpp:139] Memory required for data: 96172000
I0501 01:21:58.605744 10278 layer_factory.hpp:77] Creating layer relu1
I0501 01:21:58.605752 10278 net.cpp:86] Creating Layer relu1
I0501 01:21:58.605756 10278 net.cpp:408] relu1 <- ip1
I0501 01:21:58.605761 10278 net.cpp:369] relu1 -> ip1 (in-place)
I0501 01:21:58.605964 10278 net.cpp:124] Setting up relu1
I0501 01:21:58.605973 10278 net.cpp:131] Top shape: 1000 160 (160000)
I0501 01:21:58.605989 10278 net.cpp:139] Memory required for data: 96812000
I0501 01:21:58.605993 10278 layer_factory.hpp:77] Creating layer ip2
I0501 01:21:58.606014 10278 net.cpp:86] Creating Layer ip2
I0501 01:21:58.606019 10278 net.cpp:408] ip2 <- ip1
I0501 01:21:58.606024 10278 net.cpp:382] ip2 -> ip2
I0501 01:21:58.606205 10278 net.cpp:124] Setting up ip2
I0501 01:21:58.606214 10278 net.cpp:131] Top shape: 1000 10 (10000)
I0501 01:21:58.606216 10278 net.cpp:139] Memory required for data: 96852000
I0501 01:21:58.606225 10278 layer_factory.hpp:77] Creating layer relu2
I0501 01:21:58.606231 10278 net.cpp:86] Creating Layer relu2
I0501 01:21:58.606251 10278 net.cpp:408] relu2 <- ip2
I0501 01:21:58.606256 10278 net.cpp:369] relu2 -> ip2 (in-place)
I0501 01:21:58.607030 10278 net.cpp:124] Setting up relu2
I0501 01:21:58.607041 10278 net.cpp:131] Top shape: 1000 10 (10000)
I0501 01:21:58.607044 10278 net.cpp:139] Memory required for data: 96892000
I0501 01:21:58.607048 10278 layer_factory.hpp:77] Creating layer ip3
I0501 01:21:58.607054 10278 net.cpp:86] Creating Layer ip3
I0501 01:21:58.607058 10278 net.cpp:408] ip3 <- ip2
I0501 01:21:58.607064 10278 net.cpp:382] ip3 -> ip3
I0501 01:21:58.607188 10278 net.cpp:124] Setting up ip3
I0501 01:21:58.607195 10278 net.cpp:131] Top shape: 1000 40 (40000)
I0501 01:21:58.607198 10278 net.cpp:139] Memory required for data: 97052000
I0501 01:21:58.607204 10278 layer_factory.hpp:77] Creating layer relu3
I0501 01:21:58.607224 10278 net.cpp:86] Creating Layer relu3
I0501 01:21:58.607230 10278 net.cpp:408] relu3 <- ip3
I0501 01:21:58.607251 10278 net.cpp:369] relu3 -> ip3 (in-place)
I0501 01:21:58.607401 10278 net.cpp:124] Setting up relu3
I0501 01:21:58.607409 10278 net.cpp:131] Top shape: 1000 40 (40000)
I0501 01:21:58.607412 10278 net.cpp:139] Memory required for data: 97212000
I0501 01:21:58.607415 10278 layer_factory.hpp:77] Creating layer ip4
I0501 01:21:58.607422 10278 net.cpp:86] Creating Layer ip4
I0501 01:21:58.607427 10278 net.cpp:408] ip4 <- ip3
I0501 01:21:58.607432 10278 net.cpp:382] ip4 -> ip4
I0501 01:21:58.607555 10278 net.cpp:124] Setting up ip4
I0501 01:21:58.607563 10278 net.cpp:131] Top shape: 1000 10 (10000)
I0501 01:21:58.607565 10278 net.cpp:139] Memory required for data: 97252000
I0501 01:21:58.607573 10278 layer_factory.hpp:77] Creating layer ip4_ip4_0_split
I0501 01:21:58.607580 10278 net.cpp:86] Creating Layer ip4_ip4_0_split
I0501 01:21:58.607583 10278 net.cpp:408] ip4_ip4_0_split <- ip4
I0501 01:21:58.607589 10278 net.cpp:382] ip4_ip4_0_split -> ip4_ip4_0_split_0
I0501 01:21:58.607594 10278 net.cpp:382] ip4_ip4_0_split -> ip4_ip4_0_split_1
I0501 01:21:58.607621 10278 net.cpp:124] Setting up ip4_ip4_0_split
I0501 01:21:58.607627 10278 net.cpp:131] Top shape: 1000 10 (10000)
I0501 01:21:58.607631 10278 net.cpp:131] Top shape: 1000 10 (10000)
I0501 01:21:58.607635 10278 net.cpp:139] Memory required for data: 97332000
I0501 01:21:58.607637 10278 layer_factory.hpp:77] Creating layer accuracy
I0501 01:21:58.607643 10278 net.cpp:86] Creating Layer accuracy
I0501 01:21:58.607650 10278 net.cpp:408] accuracy <- ip4_ip4_0_split_0
I0501 01:21:58.607655 10278 net.cpp:408] accuracy <- label_cifar_1_split_0
I0501 01:21:58.607658 10278 net.cpp:382] accuracy -> accuracy
…
