…
I0430 21:08:52.288455 30192 net.cpp:296] The NetState phase (0) differed from the phase (1) specified by a rule in layer cifar
I0430 21:08:52.288468 30192 net.cpp:296] The NetState phase (0) differed from the phase (1) specified by a rule in layer accuracy
I0430 21:08:52.288532 30192 net.cpp:53] Initializing net from parameters: 
name: "CIFAR"
state {
  phase: TRAIN
  level: 0
  stage: ""
}
layer {
  name: "cifar"
  type: "Data"
  top: "data"
  top: "label"
  include {
    phase: TRAIN
  }
  transform_param {
    mean_file: "examples/cifar10/mean.binaryproto"
  }
  data_param {
    source: "examples/cifar10/cifar10_train_lmdb"
    batch_size: 111
    backend: LMDB
  }
}
layer {
  name: "ip1"
  type: "InnerProduct"
  bottom: "data"
  top: "ip1"
  param {
    lr_mult: 1
  }
  param {
    lr_mult: 2
  }
  inner_product_param {
    num_output: 160
    weight_filler {
      type: "gaussian"
      std: 0.01
    }
    bias_filler {
      type: "constant"
    }
  }
}
layer {
  name: "relu1"
  type: "ReLU"
  bottom: "ip1"
  top: "ip1"
}
layer {
  name: "ip2"
  type: "InnerProduct"
  bottom: "ip1"
  top: "ip2"
  param {
    lr_mult: 1
  }
  param {
    lr_mult: 2
  }
  inner_product_param {
    num_output: 160
    weight_filler {
      type: "gaussian"
      std: 0.01
    }
    bias_filler {
      type: "constant"
    }
  }
}
layer {
  name: "relu2"
  type: "ReLU"
  bottom: "ip2"
  top: "ip2"
}
layer {
  name: "ip3"
  type: "InnerProduct"
  bottom: "ip2"
  top: "ip3"
  param {
    lr_mult: 1
  }
  param {
    lr_mult: 2
  }
  inner_product_param {
    num_output: 40
    weight_filler {
      type: "gaussian"
      std: 0.01
    }
    bias_filler {
      type: "constant"
    }
  }
}
layer {
  name: "relu3"
  type: "ReLU"
  bottom: "ip3"
  top: "ip3"
}
layer {
  name: "ip4"
  type: "InnerProduct"
  bottom: "ip3"
  top: "ip4"
  param {
    lr_mult: 1
  }
  param {
    lr_mult: 2
  }
  inner_product_param {
    num_output: 10
    weight_filler {
      type: "gaussian"
      std: 0.01
    }
    bias_filler {
      type: "constant"
    }
  }
}
layer {
  name: "loss"
  type: "SoftmaxWithLoss"
  bottom: "ip4"
  bottom: "label"
  top: "loss"
}
I0430 21:08:52.288581 30192 layer_factory.hpp:77] Creating layer cifar
I0430 21:08:52.288661 30192 db_lmdb.cpp:35] Opened lmdb examples/cifar10/cifar10_train_lmdb
I0430 21:08:52.288681 30192 net.cpp:86] Creating Layer cifar
I0430 21:08:52.288688 30192 net.cpp:382] cifar -> data
I0430 21:08:52.288707 30192 net.cpp:382] cifar -> label
I0430 21:08:52.288717 30192 data_transformer.cpp:25] Loading mean file from: examples/cifar10/mean.binaryproto
I0430 21:08:52.290581 30192 data_layer.cpp:45] output data size: 111,3,32,32
I0430 21:08:52.297148 30192 net.cpp:124] Setting up cifar
I0430 21:08:52.297163 30192 net.cpp:131] Top shape: 111 3 32 32 (340992)
I0430 21:08:52.297183 30192 net.cpp:131] Top shape: 111 (111)
I0430 21:08:52.297186 30192 net.cpp:139] Memory required for data: 1364412
I0430 21:08:52.297193 30192 layer_factory.hpp:77] Creating layer ip1
I0430 21:08:52.297200 30192 net.cpp:86] Creating Layer ip1
I0430 21:08:52.297205 30192 net.cpp:408] ip1 <- data
I0430 21:08:52.297214 30192 net.cpp:382] ip1 -> ip1
I0430 21:08:52.310477 30192 net.cpp:124] Setting up ip1
I0430 21:08:52.310489 30192 net.cpp:131] Top shape: 111 160 (17760)
I0430 21:08:52.310508 30192 net.cpp:139] Memory required for data: 1435452
I0430 21:08:52.310520 30192 layer_factory.hpp:77] Creating layer relu1
I0430 21:08:52.310541 30192 net.cpp:86] Creating Layer relu1
I0430 21:08:52.310545 30192 net.cpp:408] relu1 <- ip1
I0430 21:08:52.310550 30192 net.cpp:369] relu1 -> ip1 (in-place)
I0430 21:08:52.536885 30192 net.cpp:124] Setting up relu1
I0430 21:08:52.536931 30192 net.cpp:131] Top shape: 111 160 (17760)
I0430 21:08:52.536949 30192 net.cpp:139] Memory required for data: 1506492
I0430 21:08:52.536954 30192 layer_factory.hpp:77] Creating layer ip2
I0430 21:08:52.536981 30192 net.cpp:86] Creating Layer ip2
I0430 21:08:52.536985 30192 net.cpp:408] ip2 <- ip1
I0430 21:08:52.536993 30192 net.cpp:382] ip2 -> ip2
I0430 21:08:52.538584 30192 net.cpp:124] Setting up ip2
I0430 21:08:52.538596 30192 net.cpp:131] Top shape: 111 160 (17760)
I0430 21:08:52.538615 30192 net.cpp:139] Memory required for data: 1577532
I0430 21:08:52.538625 30192 layer_factory.hpp:77] Creating layer relu2
I0430 21:08:52.538632 30192 net.cpp:86] Creating Layer relu2
I0430 21:08:52.538635 30192 net.cpp:408] relu2 <- ip2
I0430 21:08:52.538640 30192 net.cpp:369] relu2 -> ip2 (in-place)
I0430 21:08:52.539355 30192 net.cpp:124] Setting up relu2
I0430 21:08:52.539366 30192 net.cpp:131] Top shape: 111 160 (17760)
I0430 21:08:52.539369 30192 net.cpp:139] Memory required for data: 1648572
I0430 21:08:52.539372 30192 layer_factory.hpp:77] Creating layer ip3
I0430 21:08:52.539379 30192 net.cpp:86] Creating Layer ip3
I0430 21:08:52.539382 30192 net.cpp:408] ip3 <- ip2
I0430 21:08:52.539386 30192 net.cpp:382] ip3 -> ip3
I0430 21:08:52.540535 30192 net.cpp:124] Setting up ip3
I0430 21:08:52.540547 30192 net.cpp:131] Top shape: 111 40 (4440)
I0430 21:08:52.540565 30192 net.cpp:139] Memory required for data: 1666332
I0430 21:08:52.540573 30192 layer_factory.hpp:77] Creating layer relu3
I0430 21:08:52.540578 30192 net.cpp:86] Creating Layer relu3
I0430 21:08:52.540582 30192 net.cpp:408] relu3 <- ip3
I0430 21:08:52.540586 30192 net.cpp:369] relu3 -> ip3 (in-place)
I0430 21:08:52.540748 30192 net.cpp:124] Setting up relu3
I0430 21:08:52.540758 30192 net.cpp:131] Top shape: 111 40 (4440)
I0430 21:08:52.540761 30192 net.cpp:139] Memory required for data: 1684092
I0430 21:08:52.540765 30192 layer_factory.hpp:77] Creating layer ip4
I0430 21:08:52.540771 30192 net.cpp:86] Creating Layer ip4
I0430 21:08:52.540773 30192 net.cpp:408] ip4 <- ip3
I0430 21:08:52.540778 30192 net.cpp:382] ip4 -> ip4
I0430 21:08:52.541728 30192 net.cpp:124] Setting up ip4
I0430 21:08:52.541740 30192 net.cpp:131] Top shape: 111 10 (1110)
I0430 21:08:52.541743 30192 net.cpp:139] Memory required for data: 1688532
I0430 21:08:52.541765 30192 layer_factory.hpp:77] Creating layer loss
I0430 21:08:52.541772 30192 net.cpp:86] Creating Layer loss
I0430 21:08:52.541775 30192 net.cpp:408] loss <- ip4
I0430 21:08:52.541781 30192 net.cpp:408] loss <- label
I0430 21:08:52.541793 30192 net.cpp:382] loss -> loss
I0430 21:08:52.541808 30192 layer_factory.hpp:77] Creating layer loss
…
I0430 21:08:52.542417 30192 solver.cpp:173] Creating test net (#0) specified by net file: ECE595/cifar/train_test/var_everything/cifar_train_test_152.prototxt
I0430 21:08:52.542454 30192 net.cpp:296] The NetState phase (1) differed from the phase (0) specified by a rule in layer cifar
I0430 21:08:52.542524 30192 net.cpp:53] Initializing net from parameters: 
name: "CIFAR"
state {
  phase: TEST
}
layer {
  name: "cifar"
  type: "Data"
  top: "data"
  top: "label"
  include {
    phase: TEST
  }
  transform_param {
    mean_file: "examples/cifar10/mean.binaryproto"
  }
  data_param {
    source: "examples/cifar10/cifar10_test_lmdb"
    batch_size: 1000
    backend: LMDB
  }
}
layer {
  name: "ip1"
  type: "InnerProduct"
  bottom: "data"
  top: "ip1"
  param {
    lr_mult: 1
  }
  param {
    lr_mult: 2
  }
  inner_product_param {
    num_output: 160
    weight_filler {
      type: "gaussian"
      std: 0.01
    }
    bias_filler {
      type: "constant"
    }
  }
}
layer {
  name: "relu1"
  type: "ReLU"
  bottom: "ip1"
  top: "ip1"
}
layer {
  name: "ip2"
  type: "InnerProduct"
  bottom: "ip1"
  top: "ip2"
  param {
    lr_mult: 1
  }
  param {
    lr_mult: 2
  }
  inner_product_param {
    num_output: 160
    weight_filler {
      type: "gaussian"
      std: 0.01
    }
    bias_filler {
      type: "constant"
    }
  }
}
layer {
  name: "relu2"
  type: "ReLU"
  bottom: "ip2"
  top: "ip2"
}
layer {
  name: "ip3"
  type: "InnerProduct"
  bottom: "ip2"
  top: "ip3"
  param {
    lr_mult: 1
  }
  param {
    lr_mult: 2
  }
  inner_product_param {
    num_output: 40
    weight_filler {
      type: "gaussian"
      std: 0.01
    }
    bias_filler {
      type: "constant"
    }
  }
}
layer {
  name: "relu3"
  type: "ReLU"
  bottom: "ip3"
  top: "ip3"
}
layer {
  name: "ip4"
  type: "InnerProduct"
  bottom: "ip3"
  top: "ip4"
  param {
    lr_mult: 1
  }
  param {
    lr_mult: 2
  }
  inner_product_param {
    num_output: 10
    weight_filler {
      type: "gaussian"
      std: 0.01
    }
    bias_filler {
      type: "constant"
    }
  }
}
layer {
  name: "accuracy"
  type: "Accuracy"
  bottom: "ip4"
  bottom: "label"
  top: "accuracy"
  include {
    phase: TEST
  }
}
layer {
  name: "loss"
  type: "SoftmaxWithLoss"
  bottom: "ip4"
  bottom: "label"
  top: "loss"
}
I0430 21:08:52.542579 30192 layer_factory.hpp:77] Creating layer cifar
I0430 21:08:52.542621 30192 db_lmdb.cpp:35] Opened lmdb examples/cifar10/cifar10_test_lmdb
I0430 21:08:52.542634 30192 net.cpp:86] Creating Layer cifar
I0430 21:08:52.542641 30192 net.cpp:382] cifar -> data
I0430 21:08:52.542665 30192 net.cpp:382] cifar -> label
I0430 21:08:52.542671 30192 data_transformer.cpp:25] Loading mean file from: examples/cifar10/mean.binaryproto
I0430 21:08:52.542809 30192 data_layer.cpp:45] output data size: 1000,3,32,32
I0430 21:08:52.564187 30192 net.cpp:124] Setting up cifar
I0430 21:08:52.564227 30192 net.cpp:131] Top shape: 1000 3 32 32 (3072000)
I0430 21:08:52.564234 30192 net.cpp:131] Top shape: 1000 (1000)
I0430 21:08:52.564236 30192 net.cpp:139] Memory required for data: 12292000
I0430 21:08:52.564244 30192 layer_factory.hpp:77] Creating layer label_cifar_1_split
I0430 21:08:52.564260 30192 net.cpp:86] Creating Layer label_cifar_1_split
I0430 21:08:52.564263 30192 net.cpp:408] label_cifar_1_split <- label
I0430 21:08:52.564270 30192 net.cpp:382] label_cifar_1_split -> label_cifar_1_split_0
I0430 21:08:52.564277 30192 net.cpp:382] label_cifar_1_split -> label_cifar_1_split_1
I0430 21:08:52.564386 30192 net.cpp:124] Setting up label_cifar_1_split
I0430 21:08:52.564394 30192 net.cpp:131] Top shape: 1000 (1000)
I0430 21:08:52.564399 30192 net.cpp:131] Top shape: 1000 (1000)
I0430 21:08:52.564401 30192 net.cpp:139] Memory required for data: 12300000
I0430 21:08:52.564404 30192 layer_factory.hpp:77] Creating layer ip1
I0430 21:08:52.564414 30192 net.cpp:86] Creating Layer ip1
I0430 21:08:52.564419 30192 net.cpp:408] ip1 <- data
I0430 21:08:52.564425 30192 net.cpp:382] ip1 -> ip1
I0430 21:08:52.578104 30192 net.cpp:124] Setting up ip1
I0430 21:08:52.578133 30192 net.cpp:131] Top shape: 1000 160 (160000)
I0430 21:08:52.578137 30192 net.cpp:139] Memory required for data: 12940000
I0430 21:08:52.578176 30192 layer_factory.hpp:77] Creating layer relu1
I0430 21:08:52.578182 30192 net.cpp:86] Creating Layer relu1
I0430 21:08:52.578186 30192 net.cpp:408] relu1 <- ip1
I0430 21:08:52.578191 30192 net.cpp:369] relu1 -> ip1 (in-place)
I0430 21:08:52.579031 30192 net.cpp:124] Setting up relu1
I0430 21:08:52.579043 30192 net.cpp:131] Top shape: 1000 160 (160000)
I0430 21:08:52.579062 30192 net.cpp:139] Memory required for data: 13580000
I0430 21:08:52.579066 30192 layer_factory.hpp:77] Creating layer ip2
I0430 21:08:52.579077 30192 net.cpp:86] Creating Layer ip2
I0430 21:08:52.579079 30192 net.cpp:408] ip2 <- ip1
I0430 21:08:52.579084 30192 net.cpp:382] ip2 -> ip2
I0430 21:08:52.579885 30192 net.cpp:124] Setting up ip2
I0430 21:08:52.579891 30192 net.cpp:131] Top shape: 1000 160 (160000)
I0430 21:08:52.579895 30192 net.cpp:139] Memory required for data: 14220000
I0430 21:08:52.579917 30192 layer_factory.hpp:77] Creating layer relu2
I0430 21:08:52.579937 30192 net.cpp:86] Creating Layer relu2
I0430 21:08:52.579941 30192 net.cpp:408] relu2 <- ip2
I0430 21:08:52.579946 30192 net.cpp:369] relu2 -> ip2 (in-place)
I0430 21:08:52.580130 30192 net.cpp:124] Setting up relu2
I0430 21:08:52.580139 30192 net.cpp:131] Top shape: 1000 160 (160000)
I0430 21:08:52.580142 30192 net.cpp:139] Memory required for data: 14860000
I0430 21:08:52.580147 30192 layer_factory.hpp:77] Creating layer ip3
I0430 21:08:52.580152 30192 net.cpp:86] Creating Layer ip3
I0430 21:08:52.580157 30192 net.cpp:408] ip3 <- ip2
I0430 21:08:52.580162 30192 net.cpp:382] ip3 -> ip3
I0430 21:08:52.580479 30192 net.cpp:124] Setting up ip3
I0430 21:08:52.580485 30192 net.cpp:131] Top shape: 1000 40 (40000)
I0430 21:08:52.580488 30192 net.cpp:139] Memory required for data: 15020000
I0430 21:08:52.580495 30192 layer_factory.hpp:77] Creating layer relu3
I0430 21:08:52.580499 30192 net.cpp:86] Creating Layer relu3
I0430 21:08:52.580502 30192 net.cpp:408] relu3 <- ip3
I0430 21:08:52.580507 30192 net.cpp:369] relu3 -> ip3 (in-place)
I0430 21:08:52.580662 30192 net.cpp:124] Setting up relu3
I0430 21:08:52.580669 30192 net.cpp:131] Top shape: 1000 40 (40000)
I0430 21:08:52.580673 30192 net.cpp:139] Memory required for data: 15180000
I0430 21:08:52.580677 30192 layer_factory.hpp:77] Creating layer ip4
I0430 21:08:52.580683 30192 net.cpp:86] Creating Layer ip4
I0430 21:08:52.580687 30192 net.cpp:408] ip4 <- ip3
I0430 21:08:52.580691 30192 net.cpp:382] ip4 -> ip4
I0430 21:08:52.580801 30192 net.cpp:124] Setting up ip4
I0430 21:08:52.580807 30192 net.cpp:131] Top shape: 1000 10 (10000)
I0430 21:08:52.580832 30192 net.cpp:139] Memory required for data: 15220000
I0430 21:08:52.580837 30192 layer_factory.hpp:77] Creating layer ip4_ip4_0_split
I0430 21:08:52.580842 30192 net.cpp:86] Creating Layer ip4_ip4_0_split
I0430 21:08:52.580845 30192 net.cpp:408] ip4_ip4_0_split <- ip4
I0430 21:08:52.580862 30192 net.cpp:382] ip4_ip4_0_split -> ip4_ip4_0_split_0
I0430 21:08:52.580884 30192 net.cpp:382] ip4_ip4_0_split -> ip4_ip4_0_split_1
I0430 21:08:52.580919 30192 net.cpp:124] Setting up ip4_ip4_0_split
I0430 21:08:52.580925 30192 net.cpp:131] Top shape: 1000 10 (10000)
I0430 21:08:52.580929 30192 net.cpp:131] Top shape: 1000 10 (10000)
I0430 21:08:52.580932 30192 net.cpp:139] Memory required for data: 15300000
I0430 21:08:52.580935 30192 layer_factory.hpp:77] Creating layer accuracy
I0430 21:08:52.580965 30192 net.cpp:86] Creating Layer accuracy
I0430 21:08:52.580970 30192 net.cpp:408] accuracy <- ip4_ip4_0_split_0
I0430 21:08:52.580974 30192 net.cpp:408] accuracy <- label_cifar_1_split_0
I0430 21:08:52.580989 30192 net.cpp:382] accuracy -> accuracy
…
