…
I0501 09:26:04.295284 14399 net.cpp:296] The NetState phase (0) differed from the phase (1) specified by a rule in layer cifar
I0501 09:26:04.295300 14399 net.cpp:296] The NetState phase (0) differed from the phase (1) specified by a rule in layer accuracy
I0501 09:26:04.295403 14399 net.cpp:53] Initializing net from parameters: 
name: "CIFAR"
state {
  phase: TRAIN
  level: 0
  stage: ""
}
layer {
  name: "cifar"
  type: "Data"
  top: "data"
  top: "label"
  include {
    phase: TRAIN
  }
  transform_param {
    mean_file: "examples/cifar10/mean.binaryproto"
  }
  data_param {
    source: "examples/cifar10/cifar10_train_lmdb"
    batch_size: 111
    backend: LMDB
  }
}
layer {
  name: "conv0"
  type: "Convolution"
  bottom: "data"
  top: "conv0"
  param {
    lr_mult: 1
  }
  param {
    lr_mult: 2
  }
  convolution_param {
    num_output: 16
    pad: 2
    kernel_size: 3
    stride: 1
    weight_filler {
      type: "gaussian"
      std: 0.01
    }
    bias_filler {
      type: "constant"
    }
  }
}
layer {
  name: "Sigmoid0"
  type: "Sigmoid"
  bottom: "conv0"
  top: "Sigmoid0"
}
layer {
  name: "pool0"
  type: "Pooling"
  bottom: "Sigmoid0"
  top: "pool0"
  pooling_param {
    pool: AVE
    kernel_size: 3
    stride: 2
  }
}
layer {
  name: "ip1"
  type: "InnerProduct"
  bottom: "pool0"
  top: "ip1"
  param {
    lr_mult: 1
  }
  param {
    lr_mult: 2
  }
  inner_product_param {
    num_output: 20
    weight_filler {
      type: "gaussian"
      std: 0.01
    }
    bias_filler {
      type: "constant"
    }
  }
}
layer {
  name: "relu1"
  type: "ReLU"
  bottom: "ip1"
  top: "ip1"
}
layer {
  name: "ip2"
  type: "InnerProduct"
  bottom: "ip1"
  top: "ip2"
  param {
    lr_mult: 1
  }
  param {
    lr_mult: 2
  }
  inner_product_param {
    num_output: 80
    weight_filler {
      type: "gaussian"
      std: 0.01
    }
    bias_filler {
      type: "constant"
    }
  }
}
layer {
  name: "relu2"
  type: "ReLU"
  bottom: "ip2"
  top: "ip2"
}
layer {
  name: "ip3"
  type: "InnerProduct"
  bottom: "ip2"
  top: "ip3"
  param {
    lr_mult: 1
  }
  param {
    lr_mult: 2
  }
  inner_product_param {
    num_output: 160
    weight_filler {
      type: "gaussian"
      std: 0.01
    }
    bias_filler {
      type: "constant"
    }
  }
}
layer {
  name: "relu3"
  type: "ReLU"
  bottom: "ip3"
  top: "ip3"
}
layer {
  name: "ip4"
  type: "InnerProduct"
  bottom: "ip3"
  top: "ip4"
  param {
    lr_mult: 1
  }
  param {
    lr_mult: 2
  }
  inner_product_param {
    num_output: 10
    weight_filler {
      type: "gaussian"
      std: 0.01
    }
    bias_filler {
      type: "constant"
    }
  }
}
layer {
  name: "loss"
  type: "SoftmaxWithLoss"
  bottom: "ip4"
  bottom: "label"
  top: "loss"
}
I0501 09:26:04.295475 14399 layer_factory.hpp:77] Creating layer cifar
I0501 09:26:04.295579 14399 db_lmdb.cpp:35] Opened lmdb examples/cifar10/cifar10_train_lmdb
I0501 09:26:04.295605 14399 net.cpp:86] Creating Layer cifar
I0501 09:26:04.295614 14399 net.cpp:382] cifar -> data
I0501 09:26:04.295636 14399 net.cpp:382] cifar -> label
I0501 09:26:04.295648 14399 data_transformer.cpp:25] Loading mean file from: examples/cifar10/mean.binaryproto
I0501 09:26:04.297827 14399 data_layer.cpp:45] output data size: 111,3,32,32
I0501 09:26:04.305790 14399 net.cpp:124] Setting up cifar
I0501 09:26:04.305809 14399 net.cpp:131] Top shape: 111 3 32 32 (340992)
I0501 09:26:04.305815 14399 net.cpp:131] Top shape: 111 (111)
I0501 09:26:04.305819 14399 net.cpp:139] Memory required for data: 1364412
I0501 09:26:04.305843 14399 layer_factory.hpp:77] Creating layer conv0
I0501 09:26:04.305862 14399 net.cpp:86] Creating Layer conv0
I0501 09:26:04.305868 14399 net.cpp:408] conv0 <- data
I0501 09:26:04.305879 14399 net.cpp:382] conv0 -> conv0
I0501 09:26:04.591435 14399 net.cpp:124] Setting up conv0
I0501 09:26:04.591464 14399 net.cpp:131] Top shape: 111 16 34 34 (2053056)
I0501 09:26:04.591467 14399 net.cpp:139] Memory required for data: 9576636
I0501 09:26:04.591482 14399 layer_factory.hpp:77] Creating layer Sigmoid0
I0501 09:26:04.591493 14399 net.cpp:86] Creating Layer Sigmoid0
I0501 09:26:04.591498 14399 net.cpp:408] Sigmoid0 <- conv0
I0501 09:26:04.591503 14399 net.cpp:382] Sigmoid0 -> Sigmoid0
I0501 09:26:04.591684 14399 net.cpp:124] Setting up Sigmoid0
I0501 09:26:04.591696 14399 net.cpp:131] Top shape: 111 16 34 34 (2053056)
I0501 09:26:04.591698 14399 net.cpp:139] Memory required for data: 17788860
I0501 09:26:04.591701 14399 layer_factory.hpp:77] Creating layer pool0
I0501 09:26:04.591708 14399 net.cpp:86] Creating Layer pool0
I0501 09:26:04.591711 14399 net.cpp:408] pool0 <- Sigmoid0
I0501 09:26:04.591717 14399 net.cpp:382] pool0 -> pool0
I0501 09:26:04.592458 14399 net.cpp:124] Setting up pool0
I0501 09:26:04.592473 14399 net.cpp:131] Top shape: 111 16 17 17 (513264)
I0501 09:26:04.592475 14399 net.cpp:139] Memory required for data: 19841916
I0501 09:26:04.592478 14399 layer_factory.hpp:77] Creating layer ip1
I0501 09:26:04.592489 14399 net.cpp:86] Creating Layer ip1
I0501 09:26:04.592491 14399 net.cpp:408] ip1 <- pool0
I0501 09:26:04.592499 14399 net.cpp:382] ip1 -> ip1
I0501 09:26:04.595129 14399 net.cpp:124] Setting up ip1
I0501 09:26:04.595139 14399 net.cpp:131] Top shape: 111 20 (2220)
I0501 09:26:04.595141 14399 net.cpp:139] Memory required for data: 19850796
I0501 09:26:04.595149 14399 layer_factory.hpp:77] Creating layer relu1
I0501 09:26:04.595156 14399 net.cpp:86] Creating Layer relu1
I0501 09:26:04.595160 14399 net.cpp:408] relu1 <- ip1
I0501 09:26:04.595163 14399 net.cpp:369] relu1 -> ip1 (in-place)
I0501 09:26:04.595321 14399 net.cpp:124] Setting up relu1
I0501 09:26:04.595330 14399 net.cpp:131] Top shape: 111 20 (2220)
I0501 09:26:04.595333 14399 net.cpp:139] Memory required for data: 19859676
I0501 09:26:04.595336 14399 layer_factory.hpp:77] Creating layer ip2
I0501 09:26:04.595343 14399 net.cpp:86] Creating Layer ip2
I0501 09:26:04.595347 14399 net.cpp:408] ip2 <- ip1
I0501 09:26:04.595353 14399 net.cpp:382] ip2 -> ip2
I0501 09:26:04.595500 14399 net.cpp:124] Setting up ip2
I0501 09:26:04.595507 14399 net.cpp:131] Top shape: 111 80 (8880)
I0501 09:26:04.595510 14399 net.cpp:139] Memory required for data: 19895196
I0501 09:26:04.595517 14399 layer_factory.hpp:77] Creating layer relu2
I0501 09:26:04.595522 14399 net.cpp:86] Creating Layer relu2
I0501 09:26:04.595525 14399 net.cpp:408] relu2 <- ip2
I0501 09:26:04.595530 14399 net.cpp:369] relu2 -> ip2 (in-place)
I0501 09:26:04.595688 14399 net.cpp:124] Setting up relu2
I0501 09:26:04.595696 14399 net.cpp:131] Top shape: 111 80 (8880)
I0501 09:26:04.595700 14399 net.cpp:139] Memory required for data: 19930716
I0501 09:26:04.595702 14399 layer_factory.hpp:77] Creating layer ip3
I0501 09:26:04.595710 14399 net.cpp:86] Creating Layer ip3
I0501 09:26:04.595713 14399 net.cpp:408] ip3 <- ip2
I0501 09:26:04.595718 14399 net.cpp:382] ip3 -> ip3
I0501 09:26:04.596994 14399 net.cpp:124] Setting up ip3
I0501 09:26:04.597007 14399 net.cpp:131] Top shape: 111 160 (17760)
I0501 09:26:04.597009 14399 net.cpp:139] Memory required for data: 20001756
I0501 09:26:04.597015 14399 layer_factory.hpp:77] Creating layer relu3
I0501 09:26:04.597020 14399 net.cpp:86] Creating Layer relu3
I0501 09:26:04.597023 14399 net.cpp:408] relu3 <- ip3
I0501 09:26:04.597029 14399 net.cpp:369] relu3 -> ip3 (in-place)
I0501 09:26:04.597228 14399 net.cpp:124] Setting up relu3
I0501 09:26:04.597236 14399 net.cpp:131] Top shape: 111 160 (17760)
I0501 09:26:04.597239 14399 net.cpp:139] Memory required for data: 20072796
I0501 09:26:04.597242 14399 layer_factory.hpp:77] Creating layer ip4
I0501 09:26:04.597264 14399 net.cpp:86] Creating Layer ip4
I0501 09:26:04.597267 14399 net.cpp:408] ip4 <- ip3
I0501 09:26:04.597271 14399 net.cpp:382] ip4 -> ip4
I0501 09:26:04.597417 14399 net.cpp:124] Setting up ip4
I0501 09:26:04.597425 14399 net.cpp:131] Top shape: 111 10 (1110)
I0501 09:26:04.597429 14399 net.cpp:139] Memory required for data: 20077236
I0501 09:26:04.597435 14399 layer_factory.hpp:77] Creating layer loss
I0501 09:26:04.597442 14399 net.cpp:86] Creating Layer loss
I0501 09:26:04.597445 14399 net.cpp:408] loss <- ip4
I0501 09:26:04.597450 14399 net.cpp:408] loss <- label
I0501 09:26:04.597455 14399 net.cpp:382] loss -> loss
I0501 09:26:04.597471 14399 layer_factory.hpp:77] Creating layer loss
…
I0501 09:26:04.598685 14399 solver.cpp:173] Creating test net (#0) specified by net file: ECE595/cifar/train_test/var_everything/cifar_train_test_539.prototxt
I0501 09:26:04.598713 14399 net.cpp:296] The NetState phase (1) differed from the phase (0) specified by a rule in layer cifar
I0501 09:26:04.598809 14399 net.cpp:53] Initializing net from parameters: 
name: "CIFAR"
state {
  phase: TEST
}
layer {
  name: "cifar"
  type: "Data"
  top: "data"
  top: "label"
  include {
    phase: TEST
  }
  transform_param {
    mean_file: "examples/cifar10/mean.binaryproto"
  }
  data_param {
    source: "examples/cifar10/cifar10_test_lmdb"
    batch_size: 1000
    backend: LMDB
  }
}
layer {
  name: "conv0"
  type: "Convolution"
  bottom: "data"
  top: "conv0"
  param {
    lr_mult: 1
  }
  param {
    lr_mult: 2
  }
  convolution_param {
    num_output: 16
    pad: 2
    kernel_size: 3
    stride: 1
    weight_filler {
      type: "gaussian"
      std: 0.01
    }
    bias_filler {
      type: "constant"
    }
  }
}
layer {
  name: "Sigmoid0"
  type: "Sigmoid"
  bottom: "conv0"
  top: "Sigmoid0"
}
layer {
  name: "pool0"
  type: "Pooling"
  bottom: "Sigmoid0"
  top: "pool0"
  pooling_param {
    pool: AVE
    kernel_size: 3
    stride: 2
  }
}
layer {
  name: "ip1"
  type: "InnerProduct"
  bottom: "pool0"
  top: "ip1"
  param {
    lr_mult: 1
  }
  param {
    lr_mult: 2
  }
  inner_product_param {
    num_output: 20
    weight_filler {
      type: "gaussian"
      std: 0.01
    }
    bias_filler {
      type: "constant"
    }
  }
}
layer {
  name: "relu1"
  type: "ReLU"
  bottom: "ip1"
  top: "ip1"
}
layer {
  name: "ip2"
  type: "InnerProduct"
  bottom: "ip1"
  top: "ip2"
  param {
    lr_mult: 1
  }
  param {
    lr_mult: 2
  }
  inner_product_param {
    num_output: 80
    weight_filler {
      type: "gaussian"
      std: 0.01
    }
    bias_filler {
      type: "constant"
    }
  }
}
layer {
  name: "relu2"
  type: "ReLU"
  bottom: "ip2"
  top: "ip2"
}
layer {
  name: "ip3"
  type: "InnerProduct"
  bottom: "ip2"
  top: "ip3"
  param {
    lr_mult: 1
  }
  param {
    lr_mult: 2
  }
  inner_product_param {
    num_output: 160
    weight_filler {
      type: "gaussian"
      std: 0.01
    }
    bias_filler {
      type: "constant"
    }
  }
}
layer {
  name: "relu3"
  type: "ReLU"
  bottom: "ip3"
  top: "ip3"
}
layer {
  name: "ip4"
  type: "InnerProduct"
  bottom: "ip3"
  top: "ip4"
  param {
    lr_mult: 1
  }
  param {
    lr_mult: 2
  }
  inner_product_param {
    num_output: 10
    weight_filler {
      type: "gaussian"
      std: 0.01
    }
    bias_filler {
      type: "constant"
    }
  }
}
layer {
  name: "accuracy"
  type: "Accuracy"
  bottom: "ip4"
  bottom: "label"
  top: "accuracy"
  include {
    phase: TEST
  }
}
layer {
  name: "loss"
  type: "SoftmaxWithLoss"
  bottom: "ip4"
  bottom: "label"
  top: "loss"
}
I0501 09:26:04.598892 14399 layer_factory.hpp:77] Creating layer cifar
I0501 09:26:04.598937 14399 db_lmdb.cpp:35] Opened lmdb examples/cifar10/cifar10_test_lmdb
I0501 09:26:04.598950 14399 net.cpp:86] Creating Layer cifar
I0501 09:26:04.598959 14399 net.cpp:382] cifar -> data
I0501 09:26:04.598969 14399 net.cpp:382] cifar -> label
I0501 09:26:04.598976 14399 data_transformer.cpp:25] Loading mean file from: examples/cifar10/mean.binaryproto
I0501 09:26:04.599153 14399 data_layer.cpp:45] output data size: 1000,3,32,32
I0501 09:26:04.621201 14399 net.cpp:124] Setting up cifar
I0501 09:26:04.621268 14399 net.cpp:131] Top shape: 1000 3 32 32 (3072000)
I0501 09:26:04.621292 14399 net.cpp:131] Top shape: 1000 (1000)
I0501 09:26:04.621295 14399 net.cpp:139] Memory required for data: 12292000
I0501 09:26:04.621301 14399 layer_factory.hpp:77] Creating layer label_cifar_1_split
I0501 09:26:04.621327 14399 net.cpp:86] Creating Layer label_cifar_1_split
I0501 09:26:04.621348 14399 net.cpp:408] label_cifar_1_split <- label
I0501 09:26:04.621354 14399 net.cpp:382] label_cifar_1_split -> label_cifar_1_split_0
I0501 09:26:04.621363 14399 net.cpp:382] label_cifar_1_split -> label_cifar_1_split_1
I0501 09:26:04.621434 14399 net.cpp:124] Setting up label_cifar_1_split
I0501 09:26:04.621441 14399 net.cpp:131] Top shape: 1000 (1000)
I0501 09:26:04.621445 14399 net.cpp:131] Top shape: 1000 (1000)
I0501 09:26:04.621448 14399 net.cpp:139] Memory required for data: 12300000
I0501 09:26:04.621451 14399 layer_factory.hpp:77] Creating layer conv0
I0501 09:26:04.621464 14399 net.cpp:86] Creating Layer conv0
I0501 09:26:04.621469 14399 net.cpp:408] conv0 <- data
I0501 09:26:04.621474 14399 net.cpp:382] conv0 -> conv0
I0501 09:26:04.623987 14399 net.cpp:124] Setting up conv0
I0501 09:26:04.624012 14399 net.cpp:131] Top shape: 1000 16 34 34 (18496000)
I0501 09:26:04.624016 14399 net.cpp:139] Memory required for data: 86284000
I0501 09:26:04.624027 14399 layer_factory.hpp:77] Creating layer Sigmoid0
I0501 09:26:04.624050 14399 net.cpp:86] Creating Layer Sigmoid0
I0501 09:26:04.624054 14399 net.cpp:408] Sigmoid0 <- conv0
I0501 09:26:04.624059 14399 net.cpp:382] Sigmoid0 -> Sigmoid0
I0501 09:26:04.624270 14399 net.cpp:124] Setting up Sigmoid0
I0501 09:26:04.624279 14399 net.cpp:131] Top shape: 1000 16 34 34 (18496000)
I0501 09:26:04.624282 14399 net.cpp:139] Memory required for data: 160268000
I0501 09:26:04.624286 14399 layer_factory.hpp:77] Creating layer pool0
I0501 09:26:04.624294 14399 net.cpp:86] Creating Layer pool0
I0501 09:26:04.624297 14399 net.cpp:408] pool0 <- Sigmoid0
I0501 09:26:04.624303 14399 net.cpp:382] pool0 -> pool0
I0501 09:26:04.624486 14399 net.cpp:124] Setting up pool0
I0501 09:26:04.624498 14399 net.cpp:131] Top shape: 1000 16 17 17 (4624000)
I0501 09:26:04.624501 14399 net.cpp:139] Memory required for data: 178764000
I0501 09:26:04.624505 14399 layer_factory.hpp:77] Creating layer ip1
I0501 09:26:04.624513 14399 net.cpp:86] Creating Layer ip1
I0501 09:26:04.624517 14399 net.cpp:408] ip1 <- pool0
I0501 09:26:04.624522 14399 net.cpp:382] ip1 -> ip1
I0501 09:26:04.627136 14399 net.cpp:124] Setting up ip1
I0501 09:26:04.627144 14399 net.cpp:131] Top shape: 1000 20 (20000)
I0501 09:26:04.627158 14399 net.cpp:139] Memory required for data: 178844000
I0501 09:26:04.627195 14399 layer_factory.hpp:77] Creating layer relu1
I0501 09:26:04.627202 14399 net.cpp:86] Creating Layer relu1
I0501 09:26:04.627205 14399 net.cpp:408] relu1 <- ip1
I0501 09:26:04.627210 14399 net.cpp:369] relu1 -> ip1 (in-place)
I0501 09:26:04.627398 14399 net.cpp:124] Setting up relu1
I0501 09:26:04.627408 14399 net.cpp:131] Top shape: 1000 20 (20000)
I0501 09:26:04.627410 14399 net.cpp:139] Memory required for data: 178924000
I0501 09:26:04.627413 14399 layer_factory.hpp:77] Creating layer ip2
I0501 09:26:04.627420 14399 net.cpp:86] Creating Layer ip2
I0501 09:26:04.627424 14399 net.cpp:408] ip2 <- ip1
I0501 09:26:04.627432 14399 net.cpp:382] ip2 -> ip2
I0501 09:26:04.627593 14399 net.cpp:124] Setting up ip2
I0501 09:26:04.627599 14399 net.cpp:131] Top shape: 1000 80 (80000)
I0501 09:26:04.627602 14399 net.cpp:139] Memory required for data: 179244000
I0501 09:26:04.627610 14399 layer_factory.hpp:77] Creating layer relu2
I0501 09:26:04.627619 14399 net.cpp:86] Creating Layer relu2
I0501 09:26:04.627621 14399 net.cpp:408] relu2 <- ip2
I0501 09:26:04.627625 14399 net.cpp:369] relu2 -> ip2 (in-place)
I0501 09:26:04.628398 14399 net.cpp:124] Setting up relu2
I0501 09:26:04.628413 14399 net.cpp:131] Top shape: 1000 80 (80000)
I0501 09:26:04.628427 14399 net.cpp:139] Memory required for data: 179564000
I0501 09:26:04.628430 14399 layer_factory.hpp:77] Creating layer ip3
I0501 09:26:04.628438 14399 net.cpp:86] Creating Layer ip3
I0501 09:26:04.628443 14399 net.cpp:408] ip3 <- ip2
I0501 09:26:04.628464 14399 net.cpp:382] ip3 -> ip3
I0501 09:26:04.629014 14399 net.cpp:124] Setting up ip3
I0501 09:26:04.629022 14399 net.cpp:131] Top shape: 1000 160 (160000)
I0501 09:26:04.629025 14399 net.cpp:139] Memory required for data: 180204000
I0501 09:26:04.629041 14399 layer_factory.hpp:77] Creating layer relu3
I0501 09:26:04.629048 14399 net.cpp:86] Creating Layer relu3
I0501 09:26:04.629051 14399 net.cpp:408] relu3 <- ip3
I0501 09:26:04.629056 14399 net.cpp:369] relu3 -> ip3 (in-place)
I0501 09:26:04.629268 14399 net.cpp:124] Setting up relu3
I0501 09:26:04.629277 14399 net.cpp:131] Top shape: 1000 160 (160000)
I0501 09:26:04.629281 14399 net.cpp:139] Memory required for data: 180844000
I0501 09:26:04.629283 14399 layer_factory.hpp:77] Creating layer ip4
I0501 09:26:04.629290 14399 net.cpp:86] Creating Layer ip4
I0501 09:26:04.629293 14399 net.cpp:408] ip4 <- ip3
I0501 09:26:04.629297 14399 net.cpp:382] ip4 -> ip4
I0501 09:26:04.629448 14399 net.cpp:124] Setting up ip4
I0501 09:26:04.629454 14399 net.cpp:131] Top shape: 1000 10 (10000)
I0501 09:26:04.629457 14399 net.cpp:139] Memory required for data: 180884000
I0501 09:26:04.629465 14399 layer_factory.hpp:77] Creating layer ip4_ip4_0_split
I0501 09:26:04.629472 14399 net.cpp:86] Creating Layer ip4_ip4_0_split
I0501 09:26:04.629477 14399 net.cpp:408] ip4_ip4_0_split <- ip4
I0501 09:26:04.629480 14399 net.cpp:382] ip4_ip4_0_split -> ip4_ip4_0_split_0
I0501 09:26:04.629488 14399 net.cpp:382] ip4_ip4_0_split -> ip4_ip4_0_split_1
I0501 09:26:04.629520 14399 net.cpp:124] Setting up ip4_ip4_0_split
I0501 09:26:04.629526 14399 net.cpp:131] Top shape: 1000 10 (10000)
I0501 09:26:04.629530 14399 net.cpp:131] Top shape: 1000 10 (10000)
I0501 09:26:04.629534 14399 net.cpp:139] Memory required for data: 180964000
I0501 09:26:04.629536 14399 layer_factory.hpp:77] Creating layer accuracy
I0501 09:26:04.629542 14399 net.cpp:86] Creating Layer accuracy
I0501 09:26:04.629545 14399 net.cpp:408] accuracy <- ip4_ip4_0_split_0
I0501 09:26:04.629549 14399 net.cpp:408] accuracy <- label_cifar_1_split_0
I0501 09:26:04.629554 14399 net.cpp:382] accuracy -> accuracy
…
