…
I0501 08:30:43.093940 10911 net.cpp:296] The NetState phase (0) differed from the phase (1) specified by a rule in layer cifar
I0501 08:30:43.093960 10911 net.cpp:296] The NetState phase (0) differed from the phase (1) specified by a rule in layer accuracy
I0501 08:30:43.094065 10911 net.cpp:53] Initializing net from parameters: 
name: "CIFAR"
state {
  phase: TRAIN
  level: 0
  stage: ""
}
layer {
  name: "cifar"
  type: "Data"
  top: "data"
  top: "label"
  include {
    phase: TRAIN
  }
  transform_param {
    mean_file: "examples/cifar10/mean.binaryproto"
  }
  data_param {
    source: "examples/cifar10/cifar10_train_lmdb"
    batch_size: 111
    backend: LMDB
  }
}
layer {
  name: "conv0"
  type: "Convolution"
  bottom: "data"
  top: "conv0"
  param {
    lr_mult: 1
  }
  param {
    lr_mult: 2
  }
  convolution_param {
    num_output: 16
    pad: 2
    kernel_size: 3
    stride: 1
    weight_filler {
      type: "gaussian"
      std: 0.01
    }
    bias_filler {
      type: "constant"
    }
  }
}
layer {
  name: "Sigmoid0"
  type: "Sigmoid"
  bottom: "conv0"
  top: "Sigmoid0"
}
layer {
  name: "pool0"
  type: "Pooling"
  bottom: "Sigmoid0"
  top: "pool0"
  pooling_param {
    pool: AVE
    kernel_size: 3
    stride: 2
  }
}
layer {
  name: "ip1"
  type: "InnerProduct"
  bottom: "pool0"
  top: "ip1"
  param {
    lr_mult: 1
  }
  param {
    lr_mult: 2
  }
  inner_product_param {
    num_output: 10
    weight_filler {
      type: "gaussian"
      std: 0.01
    }
    bias_filler {
      type: "constant"
    }
  }
}
layer {
  name: "relu1"
  type: "ReLU"
  bottom: "ip1"
  top: "ip1"
}
layer {
  name: "ip2"
  type: "InnerProduct"
  bottom: "ip1"
  top: "ip2"
  param {
    lr_mult: 1
  }
  param {
    lr_mult: 2
  }
  inner_product_param {
    num_output: 80
    weight_filler {
      type: "gaussian"
      std: 0.01
    }
    bias_filler {
      type: "constant"
    }
  }
}
layer {
  name: "relu2"
  type: "ReLU"
  bottom: "ip2"
  top: "ip2"
}
layer {
  name: "ip3"
  type: "InnerProduct"
  bottom: "ip2"
  top: "ip3"
  param {
    lr_mult: 1
  }
  param {
    lr_mult: 2
  }
  inner_product_param {
    num_output: 80
    weight_filler {
      type: "gaussian"
      std: 0.01
    }
    bias_filler {
      type: "constant"
    }
  }
}
layer {
  name: "relu3"
  type: "ReLU"
  bottom: "ip3"
  top: "ip3"
}
layer {
  name: "ip4"
  type: "InnerProduct"
  bottom: "ip3"
  top: "ip4"
  param {
    lr_mult: 1
  }
  param {
    lr_mult: 2
  }
  inner_product_param {
    num_output: 10
    weight_filler {
      type: "gaussian"
      std: 0.01
    }
    bias_filler {
      type: "constant"
    }
  }
}
layer {
  name: "loss"
  type: "SoftmaxWithLoss"
  bottom: "ip4"
  bottom: "label"
  top: "loss"
}
I0501 08:30:43.094146 10911 layer_factory.hpp:77] Creating layer cifar
I0501 08:30:43.094244 10911 db_lmdb.cpp:35] Opened lmdb examples/cifar10/cifar10_train_lmdb
I0501 08:30:43.094274 10911 net.cpp:86] Creating Layer cifar
I0501 08:30:43.094282 10911 net.cpp:382] cifar -> data
I0501 08:30:43.094305 10911 net.cpp:382] cifar -> label
I0501 08:30:43.094318 10911 data_transformer.cpp:25] Loading mean file from: examples/cifar10/mean.binaryproto
I0501 08:30:43.096467 10911 data_layer.cpp:45] output data size: 111,3,32,32
I0501 08:30:43.104445 10911 net.cpp:124] Setting up cifar
I0501 08:30:43.104465 10911 net.cpp:131] Top shape: 111 3 32 32 (340992)
I0501 08:30:43.104473 10911 net.cpp:131] Top shape: 111 (111)
I0501 08:30:43.104476 10911 net.cpp:139] Memory required for data: 1364412
I0501 08:30:43.104499 10911 layer_factory.hpp:77] Creating layer conv0
I0501 08:30:43.104516 10911 net.cpp:86] Creating Layer conv0
I0501 08:30:43.104522 10911 net.cpp:408] conv0 <- data
I0501 08:30:43.104535 10911 net.cpp:382] conv0 -> conv0
I0501 08:30:43.377264 10911 net.cpp:124] Setting up conv0
I0501 08:30:43.377290 10911 net.cpp:131] Top shape: 111 16 34 34 (2053056)
I0501 08:30:43.377293 10911 net.cpp:139] Memory required for data: 9576636
I0501 08:30:43.377306 10911 layer_factory.hpp:77] Creating layer Sigmoid0
I0501 08:30:43.377317 10911 net.cpp:86] Creating Layer Sigmoid0
I0501 08:30:43.377321 10911 net.cpp:408] Sigmoid0 <- conv0
I0501 08:30:43.377326 10911 net.cpp:382] Sigmoid0 -> Sigmoid0
I0501 08:30:43.377506 10911 net.cpp:124] Setting up Sigmoid0
I0501 08:30:43.377516 10911 net.cpp:131] Top shape: 111 16 34 34 (2053056)
I0501 08:30:43.377518 10911 net.cpp:139] Memory required for data: 17788860
I0501 08:30:43.377522 10911 layer_factory.hpp:77] Creating layer pool0
I0501 08:30:43.377528 10911 net.cpp:86] Creating Layer pool0
I0501 08:30:43.377532 10911 net.cpp:408] pool0 <- Sigmoid0
I0501 08:30:43.377535 10911 net.cpp:382] pool0 -> pool0
I0501 08:30:43.378265 10911 net.cpp:124] Setting up pool0
I0501 08:30:43.378278 10911 net.cpp:131] Top shape: 111 16 17 17 (513264)
I0501 08:30:43.378281 10911 net.cpp:139] Memory required for data: 19841916
I0501 08:30:43.378284 10911 layer_factory.hpp:77] Creating layer ip1
I0501 08:30:43.378293 10911 net.cpp:86] Creating Layer ip1
I0501 08:30:43.378295 10911 net.cpp:408] ip1 <- pool0
I0501 08:30:43.378300 10911 net.cpp:382] ip1 -> ip1
I0501 08:30:43.380415 10911 net.cpp:124] Setting up ip1
I0501 08:30:43.380427 10911 net.cpp:131] Top shape: 111 10 (1110)
I0501 08:30:43.380430 10911 net.cpp:139] Memory required for data: 19846356
I0501 08:30:43.380437 10911 layer_factory.hpp:77] Creating layer relu1
I0501 08:30:43.380444 10911 net.cpp:86] Creating Layer relu1
I0501 08:30:43.380446 10911 net.cpp:408] relu1 <- ip1
I0501 08:30:43.380450 10911 net.cpp:369] relu1 -> ip1 (in-place)
I0501 08:30:43.380609 10911 net.cpp:124] Setting up relu1
I0501 08:30:43.380617 10911 net.cpp:131] Top shape: 111 10 (1110)
I0501 08:30:43.380620 10911 net.cpp:139] Memory required for data: 19850796
I0501 08:30:43.380623 10911 layer_factory.hpp:77] Creating layer ip2
I0501 08:30:43.380630 10911 net.cpp:86] Creating Layer ip2
I0501 08:30:43.380632 10911 net.cpp:408] ip2 <- ip1
I0501 08:30:43.380637 10911 net.cpp:382] ip2 -> ip2
I0501 08:30:43.380750 10911 net.cpp:124] Setting up ip2
I0501 08:30:43.380758 10911 net.cpp:131] Top shape: 111 80 (8880)
I0501 08:30:43.380760 10911 net.cpp:139] Memory required for data: 19886316
I0501 08:30:43.380767 10911 layer_factory.hpp:77] Creating layer relu2
I0501 08:30:43.380772 10911 net.cpp:86] Creating Layer relu2
I0501 08:30:43.380775 10911 net.cpp:408] relu2 <- ip2
I0501 08:30:43.380779 10911 net.cpp:369] relu2 -> ip2 (in-place)
I0501 08:30:43.380959 10911 net.cpp:124] Setting up relu2
I0501 08:30:43.380969 10911 net.cpp:131] Top shape: 111 80 (8880)
I0501 08:30:43.380971 10911 net.cpp:139] Memory required for data: 19921836
I0501 08:30:43.380975 10911 layer_factory.hpp:77] Creating layer ip3
I0501 08:30:43.380981 10911 net.cpp:86] Creating Layer ip3
I0501 08:30:43.380985 10911 net.cpp:408] ip3 <- ip2
I0501 08:30:43.380990 10911 net.cpp:382] ip3 -> ip3
I0501 08:30:43.382097 10911 net.cpp:124] Setting up ip3
I0501 08:30:43.382109 10911 net.cpp:131] Top shape: 111 80 (8880)
I0501 08:30:43.382128 10911 net.cpp:139] Memory required for data: 19957356
I0501 08:30:43.382133 10911 layer_factory.hpp:77] Creating layer relu3
I0501 08:30:43.382138 10911 net.cpp:86] Creating Layer relu3
I0501 08:30:43.382141 10911 net.cpp:408] relu3 <- ip3
I0501 08:30:43.382145 10911 net.cpp:369] relu3 -> ip3 (in-place)
I0501 08:30:43.382306 10911 net.cpp:124] Setting up relu3
I0501 08:30:43.382314 10911 net.cpp:131] Top shape: 111 80 (8880)
I0501 08:30:43.382318 10911 net.cpp:139] Memory required for data: 19992876
I0501 08:30:43.382321 10911 layer_factory.hpp:77] Creating layer ip4
I0501 08:30:43.382341 10911 net.cpp:86] Creating Layer ip4
I0501 08:30:43.382344 10911 net.cpp:408] ip4 <- ip3
I0501 08:30:43.382349 10911 net.cpp:382] ip4 -> ip4
I0501 08:30:43.382475 10911 net.cpp:124] Setting up ip4
I0501 08:30:43.382483 10911 net.cpp:131] Top shape: 111 10 (1110)
I0501 08:30:43.382486 10911 net.cpp:139] Memory required for data: 19997316
I0501 08:30:43.382493 10911 layer_factory.hpp:77] Creating layer loss
I0501 08:30:43.382498 10911 net.cpp:86] Creating Layer loss
I0501 08:30:43.382501 10911 net.cpp:408] loss <- ip4
I0501 08:30:43.382505 10911 net.cpp:408] loss <- label
I0501 08:30:43.382509 10911 net.cpp:382] loss -> loss
I0501 08:30:43.382525 10911 layer_factory.hpp:77] Creating layer loss
…
I0501 08:30:43.383700 10911 solver.cpp:173] Creating test net (#0) specified by net file: ECE595/cifar/train_test/var_everything/cifar_train_test_513.prototxt
I0501 08:30:43.383726 10911 net.cpp:296] The NetState phase (1) differed from the phase (0) specified by a rule in layer cifar
I0501 08:30:43.383828 10911 net.cpp:53] Initializing net from parameters: 
name: "CIFAR"
state {
  phase: TEST
}
layer {
  name: "cifar"
  type: "Data"
  top: "data"
  top: "label"
  include {
    phase: TEST
  }
  transform_param {
    mean_file: "examples/cifar10/mean.binaryproto"
  }
  data_param {
    source: "examples/cifar10/cifar10_test_lmdb"
    batch_size: 1000
    backend: LMDB
  }
}
layer {
  name: "conv0"
  type: "Convolution"
  bottom: "data"
  top: "conv0"
  param {
    lr_mult: 1
  }
  param {
    lr_mult: 2
  }
  convolution_param {
    num_output: 16
    pad: 2
    kernel_size: 3
    stride: 1
    weight_filler {
      type: "gaussian"
      std: 0.01
    }
    bias_filler {
      type: "constant"
    }
  }
}
layer {
  name: "Sigmoid0"
  type: "Sigmoid"
  bottom: "conv0"
  top: "Sigmoid0"
}
layer {
  name: "pool0"
  type: "Pooling"
  bottom: "Sigmoid0"
  top: "pool0"
  pooling_param {
    pool: AVE
    kernel_size: 3
    stride: 2
  }
}
layer {
  name: "ip1"
  type: "InnerProduct"
  bottom: "pool0"
  top: "ip1"
  param {
    lr_mult: 1
  }
  param {
    lr_mult: 2
  }
  inner_product_param {
    num_output: 10
    weight_filler {
      type: "gaussian"
      std: 0.01
    }
    bias_filler {
      type: "constant"
    }
  }
}
layer {
  name: "relu1"
  type: "ReLU"
  bottom: "ip1"
  top: "ip1"
}
layer {
  name: "ip2"
  type: "InnerProduct"
  bottom: "ip1"
  top: "ip2"
  param {
    lr_mult: 1
  }
  param {
    lr_mult: 2
  }
  inner_product_param {
    num_output: 80
    weight_filler {
      type: "gaussian"
      std: 0.01
    }
    bias_filler {
      type: "constant"
    }
  }
}
layer {
  name: "relu2"
  type: "ReLU"
  bottom: "ip2"
  top: "ip2"
}
layer {
  name: "ip3"
  type: "InnerProduct"
  bottom: "ip2"
  top: "ip3"
  param {
    lr_mult: 1
  }
  param {
    lr_mult: 2
  }
  inner_product_param {
    num_output: 80
    weight_filler {
      type: "gaussian"
      std: 0.01
    }
    bias_filler {
      type: "constant"
    }
  }
}
layer {
  name: "relu3"
  type: "ReLU"
  bottom: "ip3"
  top: "ip3"
}
layer {
  name: "ip4"
  type: "InnerProduct"
  bottom: "ip3"
  top: "ip4"
  param {
    lr_mult: 1
  }
  param {
    lr_mult: 2
  }
  inner_product_param {
    num_output: 10
    weight_filler {
      type: "gaussian"
      std: 0.01
    }
    bias_filler {
      type: "constant"
    }
  }
}
layer {
  name: "accuracy"
  type: "Accuracy"
  bottom: "ip4"
  bottom: "label"
  top: "accuracy"
  include {
    phase: TEST
  }
}
layer {
  name: "loss"
  type: "SoftmaxWithLoss"
  bottom: "ip4"
  bottom: "label"
  top: "loss"
}
I0501 08:30:43.383904 10911 layer_factory.hpp:77] Creating layer cifar
I0501 08:30:43.383949 10911 db_lmdb.cpp:35] Opened lmdb examples/cifar10/cifar10_test_lmdb
I0501 08:30:43.383960 10911 net.cpp:86] Creating Layer cifar
I0501 08:30:43.383965 10911 net.cpp:382] cifar -> data
I0501 08:30:43.383971 10911 net.cpp:382] cifar -> label
I0501 08:30:43.383977 10911 data_transformer.cpp:25] Loading mean file from: examples/cifar10/mean.binaryproto
I0501 08:30:43.384112 10911 data_layer.cpp:45] output data size: 1000,3,32,32
I0501 08:30:43.405633 10911 net.cpp:124] Setting up cifar
I0501 08:30:43.405674 10911 net.cpp:131] Top shape: 1000 3 32 32 (3072000)
I0501 08:30:43.405679 10911 net.cpp:131] Top shape: 1000 (1000)
I0501 08:30:43.405683 10911 net.cpp:139] Memory required for data: 12292000
I0501 08:30:43.405689 10911 layer_factory.hpp:77] Creating layer label_cifar_1_split
I0501 08:30:43.405705 10911 net.cpp:86] Creating Layer label_cifar_1_split
I0501 08:30:43.405709 10911 net.cpp:408] label_cifar_1_split <- label
I0501 08:30:43.405715 10911 net.cpp:382] label_cifar_1_split -> label_cifar_1_split_0
I0501 08:30:43.405740 10911 net.cpp:382] label_cifar_1_split -> label_cifar_1_split_1
I0501 08:30:43.405846 10911 net.cpp:124] Setting up label_cifar_1_split
I0501 08:30:43.405854 10911 net.cpp:131] Top shape: 1000 (1000)
I0501 08:30:43.405858 10911 net.cpp:131] Top shape: 1000 (1000)
I0501 08:30:43.405860 10911 net.cpp:139] Memory required for data: 12300000
I0501 08:30:43.405864 10911 layer_factory.hpp:77] Creating layer conv0
I0501 08:30:43.405874 10911 net.cpp:86] Creating Layer conv0
I0501 08:30:43.405879 10911 net.cpp:408] conv0 <- data
I0501 08:30:43.405884 10911 net.cpp:382] conv0 -> conv0
I0501 08:30:43.407359 10911 net.cpp:124] Setting up conv0
I0501 08:30:43.407387 10911 net.cpp:131] Top shape: 1000 16 34 34 (18496000)
I0501 08:30:43.407392 10911 net.cpp:139] Memory required for data: 86284000
I0501 08:30:43.407400 10911 layer_factory.hpp:77] Creating layer Sigmoid0
I0501 08:30:43.407408 10911 net.cpp:86] Creating Layer Sigmoid0
I0501 08:30:43.407411 10911 net.cpp:408] Sigmoid0 <- conv0
I0501 08:30:43.407415 10911 net.cpp:382] Sigmoid0 -> Sigmoid0
I0501 08:30:43.407615 10911 net.cpp:124] Setting up Sigmoid0
I0501 08:30:43.407624 10911 net.cpp:131] Top shape: 1000 16 34 34 (18496000)
I0501 08:30:43.407627 10911 net.cpp:139] Memory required for data: 160268000
I0501 08:30:43.407631 10911 layer_factory.hpp:77] Creating layer pool0
I0501 08:30:43.407639 10911 net.cpp:86] Creating Layer pool0
I0501 08:30:43.407641 10911 net.cpp:408] pool0 <- Sigmoid0
I0501 08:30:43.407646 10911 net.cpp:382] pool0 -> pool0
I0501 08:30:43.407860 10911 net.cpp:124] Setting up pool0
I0501 08:30:43.407869 10911 net.cpp:131] Top shape: 1000 16 17 17 (4624000)
I0501 08:30:43.407872 10911 net.cpp:139] Memory required for data: 178764000
I0501 08:30:43.407876 10911 layer_factory.hpp:77] Creating layer ip1
I0501 08:30:43.407882 10911 net.cpp:86] Creating Layer ip1
I0501 08:30:43.407886 10911 net.cpp:408] ip1 <- pool0
I0501 08:30:43.407891 10911 net.cpp:382] ip1 -> ip1
I0501 08:30:43.410331 10911 net.cpp:124] Setting up ip1
I0501 08:30:43.410358 10911 net.cpp:131] Top shape: 1000 10 (10000)
I0501 08:30:43.410362 10911 net.cpp:139] Memory required for data: 178804000
I0501 08:30:43.410384 10911 layer_factory.hpp:77] Creating layer relu1
I0501 08:30:43.410392 10911 net.cpp:86] Creating Layer relu1
I0501 08:30:43.410394 10911 net.cpp:408] relu1 <- ip1
I0501 08:30:43.410414 10911 net.cpp:369] relu1 -> ip1 (in-place)
I0501 08:30:43.410598 10911 net.cpp:124] Setting up relu1
I0501 08:30:43.410606 10911 net.cpp:131] Top shape: 1000 10 (10000)
I0501 08:30:43.410609 10911 net.cpp:139] Memory required for data: 178844000
I0501 08:30:43.410614 10911 layer_factory.hpp:77] Creating layer ip2
I0501 08:30:43.410619 10911 net.cpp:86] Creating Layer ip2
I0501 08:30:43.410624 10911 net.cpp:408] ip2 <- ip1
I0501 08:30:43.410629 10911 net.cpp:382] ip2 -> ip2
I0501 08:30:43.410756 10911 net.cpp:124] Setting up ip2
I0501 08:30:43.410764 10911 net.cpp:131] Top shape: 1000 80 (80000)
I0501 08:30:43.410768 10911 net.cpp:139] Memory required for data: 179164000
I0501 08:30:43.410775 10911 layer_factory.hpp:77] Creating layer relu2
I0501 08:30:43.410781 10911 net.cpp:86] Creating Layer relu2
I0501 08:30:43.410784 10911 net.cpp:408] relu2 <- ip2
I0501 08:30:43.410789 10911 net.cpp:369] relu2 -> ip2 (in-place)
I0501 08:30:43.411535 10911 net.cpp:124] Setting up relu2
I0501 08:30:43.411547 10911 net.cpp:131] Top shape: 1000 80 (80000)
I0501 08:30:43.411566 10911 net.cpp:139] Memory required for data: 179484000
I0501 08:30:43.411568 10911 layer_factory.hpp:77] Creating layer ip3
I0501 08:30:43.411576 10911 net.cpp:86] Creating Layer ip3
I0501 08:30:43.411578 10911 net.cpp:408] ip3 <- ip2
I0501 08:30:43.411583 10911 net.cpp:382] ip3 -> ip3
I0501 08:30:43.411887 10911 net.cpp:124] Setting up ip3
I0501 08:30:43.411895 10911 net.cpp:131] Top shape: 1000 80 (80000)
I0501 08:30:43.411898 10911 net.cpp:139] Memory required for data: 179804000
I0501 08:30:43.411905 10911 layer_factory.hpp:77] Creating layer relu3
I0501 08:30:43.411909 10911 net.cpp:86] Creating Layer relu3
I0501 08:30:43.411912 10911 net.cpp:408] relu3 <- ip3
I0501 08:30:43.411916 10911 net.cpp:369] relu3 -> ip3 (in-place)
I0501 08:30:43.412096 10911 net.cpp:124] Setting up relu3
I0501 08:30:43.412106 10911 net.cpp:131] Top shape: 1000 80 (80000)
I0501 08:30:43.412109 10911 net.cpp:139] Memory required for data: 180124000
I0501 08:30:43.412112 10911 layer_factory.hpp:77] Creating layer ip4
I0501 08:30:43.412118 10911 net.cpp:86] Creating Layer ip4
I0501 08:30:43.412122 10911 net.cpp:408] ip4 <- ip3
I0501 08:30:43.412127 10911 net.cpp:382] ip4 -> ip4
I0501 08:30:43.412245 10911 net.cpp:124] Setting up ip4
I0501 08:30:43.412252 10911 net.cpp:131] Top shape: 1000 10 (10000)
I0501 08:30:43.412256 10911 net.cpp:139] Memory required for data: 180164000
I0501 08:30:43.412263 10911 layer_factory.hpp:77] Creating layer ip4_ip4_0_split
I0501 08:30:43.412268 10911 net.cpp:86] Creating Layer ip4_ip4_0_split
I0501 08:30:43.412271 10911 net.cpp:408] ip4_ip4_0_split <- ip4
I0501 08:30:43.412276 10911 net.cpp:382] ip4_ip4_0_split -> ip4_ip4_0_split_0
I0501 08:30:43.412281 10911 net.cpp:382] ip4_ip4_0_split -> ip4_ip4_0_split_1
I0501 08:30:43.412309 10911 net.cpp:124] Setting up ip4_ip4_0_split
I0501 08:30:43.412314 10911 net.cpp:131] Top shape: 1000 10 (10000)
I0501 08:30:43.412317 10911 net.cpp:131] Top shape: 1000 10 (10000)
I0501 08:30:43.412320 10911 net.cpp:139] Memory required for data: 180244000
I0501 08:30:43.412323 10911 layer_factory.hpp:77] Creating layer accuracy
I0501 08:30:43.412328 10911 net.cpp:86] Creating Layer accuracy
I0501 08:30:43.412331 10911 net.cpp:408] accuracy <- ip4_ip4_0_split_0
I0501 08:30:43.412336 10911 net.cpp:408] accuracy <- label_cifar_1_split_0
I0501 08:30:43.412340 10911 net.cpp:382] accuracy -> accuracy
…
