…
I0501 03:17:48.358340 19995 net.cpp:296] The NetState phase (0) differed from the phase (1) specified by a rule in layer cifar
I0501 03:17:48.358359 19995 net.cpp:296] The NetState phase (0) differed from the phase (1) specified by a rule in layer accuracy
I0501 03:17:48.358464 19995 net.cpp:53] Initializing net from parameters: 
name: "CIFAR"
state {
  phase: TRAIN
  level: 0
  stage: ""
}
layer {
  name: "cifar"
  type: "Data"
  top: "data"
  top: "label"
  include {
    phase: TRAIN
  }
  transform_param {
    mean_file: "examples/cifar10/mean.binaryproto"
  }
  data_param {
    source: "examples/cifar10/cifar10_train_lmdb"
    batch_size: 111
    backend: LMDB
  }
}
layer {
  name: "conv0"
  type: "Convolution"
  bottom: "data"
  top: "conv0"
  param {
    lr_mult: 1
  }
  param {
    lr_mult: 2
  }
  convolution_param {
    num_output: 8
    pad: 2
    kernel_size: 5
    stride: 1
    weight_filler {
      type: "gaussian"
      std: 0.01
    }
    bias_filler {
      type: "constant"
    }
  }
}
layer {
  name: "Sigmoid0"
  type: "Sigmoid"
  bottom: "conv0"
  top: "Sigmoid0"
}
layer {
  name: "pool0"
  type: "Pooling"
  bottom: "Sigmoid0"
  top: "pool0"
  pooling_param {
    pool: AVE
    kernel_size: 3
    stride: 2
  }
}
layer {
  name: "ip1"
  type: "InnerProduct"
  bottom: "pool0"
  top: "ip1"
  param {
    lr_mult: 1
  }
  param {
    lr_mult: 2
  }
  inner_product_param {
    num_output: 10
    weight_filler {
      type: "gaussian"
      std: 0.01
    }
    bias_filler {
      type: "constant"
    }
  }
}
layer {
  name: "relu1"
  type: "ReLU"
  bottom: "ip1"
  top: "ip1"
}
layer {
  name: "ip2"
  type: "InnerProduct"
  bottom: "ip1"
  top: "ip2"
  param {
    lr_mult: 1
  }
  param {
    lr_mult: 2
  }
  inner_product_param {
    num_output: 20
    weight_filler {
      type: "gaussian"
      std: 0.01
    }
    bias_filler {
      type: "constant"
    }
  }
}
layer {
  name: "relu2"
  type: "ReLU"
  bottom: "ip2"
  top: "ip2"
}
layer {
  name: "ip3"
  type: "InnerProduct"
  bottom: "ip2"
  top: "ip3"
  param {
    lr_mult: 1
  }
  param {
    lr_mult: 2
  }
  inner_product_param {
    num_output: 160
    weight_filler {
      type: "gaussian"
      std: 0.01
    }
    bias_filler {
      type: "constant"
    }
  }
}
layer {
  name: "relu3"
  type: "ReLU"
  bottom: "ip3"
  top: "ip3"
}
layer {
  name: "ip4"
  type: "InnerProduct"
  bottom: "ip3"
  top: "ip4"
  param {
    lr_mult: 1
  }
  param {
    lr_mult: 2
  }
  inner_product_param {
    num_output: 10
    weight_filler {
      type: "gaussian"
      std: 0.01
    }
    bias_filler {
      type: "constant"
    }
  }
}
layer {
  name: "loss"
  type: "SoftmaxWithLoss"
  bottom: "ip4"
  bottom: "label"
  top: "loss"
}
I0501 03:17:48.358539 19995 layer_factory.hpp:77] Creating layer cifar
I0501 03:17:48.358641 19995 db_lmdb.cpp:35] Opened lmdb examples/cifar10/cifar10_train_lmdb
I0501 03:17:48.358667 19995 net.cpp:86] Creating Layer cifar
I0501 03:17:48.358676 19995 net.cpp:382] cifar -> data
I0501 03:17:48.358698 19995 net.cpp:382] cifar -> label
I0501 03:17:48.358710 19995 data_transformer.cpp:25] Loading mean file from: examples/cifar10/mean.binaryproto
I0501 03:17:48.360776 19995 data_layer.cpp:45] output data size: 111,3,32,32
I0501 03:17:48.368610 19995 net.cpp:124] Setting up cifar
I0501 03:17:48.368628 19995 net.cpp:131] Top shape: 111 3 32 32 (340992)
I0501 03:17:48.368634 19995 net.cpp:131] Top shape: 111 (111)
I0501 03:17:48.368638 19995 net.cpp:139] Memory required for data: 1364412
I0501 03:17:48.368671 19995 layer_factory.hpp:77] Creating layer conv0
I0501 03:17:48.368690 19995 net.cpp:86] Creating Layer conv0
I0501 03:17:48.368695 19995 net.cpp:408] conv0 <- data
I0501 03:17:48.368707 19995 net.cpp:382] conv0 -> conv0
I0501 03:17:48.654567 19995 net.cpp:124] Setting up conv0
I0501 03:17:48.654594 19995 net.cpp:131] Top shape: 111 8 32 32 (909312)
I0501 03:17:48.654599 19995 net.cpp:139] Memory required for data: 5001660
I0501 03:17:48.654614 19995 layer_factory.hpp:77] Creating layer Sigmoid0
I0501 03:17:48.654628 19995 net.cpp:86] Creating Layer Sigmoid0
I0501 03:17:48.654633 19995 net.cpp:408] Sigmoid0 <- conv0
I0501 03:17:48.654639 19995 net.cpp:382] Sigmoid0 -> Sigmoid0
I0501 03:17:48.654816 19995 net.cpp:124] Setting up Sigmoid0
I0501 03:17:48.654826 19995 net.cpp:131] Top shape: 111 8 32 32 (909312)
I0501 03:17:48.654830 19995 net.cpp:139] Memory required for data: 8638908
I0501 03:17:48.654834 19995 layer_factory.hpp:77] Creating layer pool0
I0501 03:17:48.654840 19995 net.cpp:86] Creating Layer pool0
I0501 03:17:48.654844 19995 net.cpp:408] pool0 <- Sigmoid0
I0501 03:17:48.654848 19995 net.cpp:382] pool0 -> pool0
I0501 03:17:48.655630 19995 net.cpp:124] Setting up pool0
I0501 03:17:48.655644 19995 net.cpp:131] Top shape: 111 8 16 16 (227328)
I0501 03:17:48.655648 19995 net.cpp:139] Memory required for data: 9548220
I0501 03:17:48.655652 19995 layer_factory.hpp:77] Creating layer ip1
I0501 03:17:48.655661 19995 net.cpp:86] Creating Layer ip1
I0501 03:17:48.655665 19995 net.cpp:408] ip1 <- pool0
I0501 03:17:48.655671 19995 net.cpp:382] ip1 -> ip1
I0501 03:17:48.657263 19995 net.cpp:124] Setting up ip1
I0501 03:17:48.657276 19995 net.cpp:131] Top shape: 111 10 (1110)
I0501 03:17:48.657280 19995 net.cpp:139] Memory required for data: 9552660
I0501 03:17:48.657289 19995 layer_factory.hpp:77] Creating layer relu1
I0501 03:17:48.657296 19995 net.cpp:86] Creating Layer relu1
I0501 03:17:48.657299 19995 net.cpp:408] relu1 <- ip1
I0501 03:17:48.657305 19995 net.cpp:369] relu1 -> ip1 (in-place)
I0501 03:17:48.657471 19995 net.cpp:124] Setting up relu1
I0501 03:17:48.657480 19995 net.cpp:131] Top shape: 111 10 (1110)
I0501 03:17:48.657483 19995 net.cpp:139] Memory required for data: 9557100
I0501 03:17:48.657487 19995 layer_factory.hpp:77] Creating layer ip2
I0501 03:17:48.657493 19995 net.cpp:86] Creating Layer ip2
I0501 03:17:48.657497 19995 net.cpp:408] ip2 <- ip1
I0501 03:17:48.657502 19995 net.cpp:382] ip2 -> ip2
I0501 03:17:48.657605 19995 net.cpp:124] Setting up ip2
I0501 03:17:48.657613 19995 net.cpp:131] Top shape: 111 20 (2220)
I0501 03:17:48.657616 19995 net.cpp:139] Memory required for data: 9565980
I0501 03:17:48.657624 19995 layer_factory.hpp:77] Creating layer relu2
I0501 03:17:48.657630 19995 net.cpp:86] Creating Layer relu2
I0501 03:17:48.657634 19995 net.cpp:408] relu2 <- ip2
I0501 03:17:48.657639 19995 net.cpp:369] relu2 -> ip2 (in-place)
I0501 03:17:48.657797 19995 net.cpp:124] Setting up relu2
I0501 03:17:48.657805 19995 net.cpp:131] Top shape: 111 20 (2220)
I0501 03:17:48.657809 19995 net.cpp:139] Memory required for data: 9574860
I0501 03:17:48.657812 19995 layer_factory.hpp:77] Creating layer ip3
I0501 03:17:48.657819 19995 net.cpp:86] Creating Layer ip3
I0501 03:17:48.657824 19995 net.cpp:408] ip3 <- ip2
I0501 03:17:48.657829 19995 net.cpp:382] ip3 -> ip3
I0501 03:17:48.658015 19995 net.cpp:124] Setting up ip3
I0501 03:17:48.658022 19995 net.cpp:131] Top shape: 111 160 (17760)
I0501 03:17:48.658025 19995 net.cpp:139] Memory required for data: 9645900
I0501 03:17:48.658031 19995 layer_factory.hpp:77] Creating layer relu3
I0501 03:17:48.658036 19995 net.cpp:86] Creating Layer relu3
I0501 03:17:48.658041 19995 net.cpp:408] relu3 <- ip3
I0501 03:17:48.658044 19995 net.cpp:369] relu3 -> ip3 (in-place)
I0501 03:17:48.658196 19995 net.cpp:124] Setting up relu3
I0501 03:17:48.658205 19995 net.cpp:131] Top shape: 111 160 (17760)
I0501 03:17:48.658207 19995 net.cpp:139] Memory required for data: 9716940
I0501 03:17:48.658210 19995 layer_factory.hpp:77] Creating layer ip4
I0501 03:17:48.658232 19995 net.cpp:86] Creating Layer ip4
I0501 03:17:48.658236 19995 net.cpp:408] ip4 <- ip3
I0501 03:17:48.658241 19995 net.cpp:382] ip4 -> ip4
I0501 03:17:48.658383 19995 net.cpp:124] Setting up ip4
I0501 03:17:48.658391 19995 net.cpp:131] Top shape: 111 10 (1110)
I0501 03:17:48.658394 19995 net.cpp:139] Memory required for data: 9721380
I0501 03:17:48.658402 19995 layer_factory.hpp:77] Creating layer loss
I0501 03:17:48.658408 19995 net.cpp:86] Creating Layer loss
I0501 03:17:48.658411 19995 net.cpp:408] loss <- ip4
I0501 03:17:48.658416 19995 net.cpp:408] loss <- label
I0501 03:17:48.658421 19995 net.cpp:382] loss -> loss
I0501 03:17:48.658437 19995 layer_factory.hpp:77] Creating layer loss
…
I0501 03:17:48.659715 19995 solver.cpp:173] Creating test net (#0) specified by net file: ECE595/cifar/train_test/var_everything/cifar_train_test_349.prototxt
I0501 03:17:48.659744 19995 net.cpp:296] The NetState phase (1) differed from the phase (0) specified by a rule in layer cifar
I0501 03:17:48.659842 19995 net.cpp:53] Initializing net from parameters: 
name: "CIFAR"
state {
  phase: TEST
}
layer {
  name: "cifar"
  type: "Data"
  top: "data"
  top: "label"
  include {
    phase: TEST
  }
  transform_param {
    mean_file: "examples/cifar10/mean.binaryproto"
  }
  data_param {
    source: "examples/cifar10/cifar10_test_lmdb"
    batch_size: 1000
    backend: LMDB
  }
}
layer {
  name: "conv0"
  type: "Convolution"
  bottom: "data"
  top: "conv0"
  param {
    lr_mult: 1
  }
  param {
    lr_mult: 2
  }
  convolution_param {
    num_output: 8
    pad: 2
    kernel_size: 5
    stride: 1
    weight_filler {
      type: "gaussian"
      std: 0.01
    }
    bias_filler {
      type: "constant"
    }
  }
}
layer {
  name: "Sigmoid0"
  type: "Sigmoid"
  bottom: "conv0"
  top: "Sigmoid0"
}
layer {
  name: "pool0"
  type: "Pooling"
  bottom: "Sigmoid0"
  top: "pool0"
  pooling_param {
    pool: AVE
    kernel_size: 3
    stride: 2
  }
}
layer {
  name: "ip1"
  type: "InnerProduct"
  bottom: "pool0"
  top: "ip1"
  param {
    lr_mult: 1
  }
  param {
    lr_mult: 2
  }
  inner_product_param {
    num_output: 10
    weight_filler {
      type: "gaussian"
      std: 0.01
    }
    bias_filler {
      type: "constant"
    }
  }
}
layer {
  name: "relu1"
  type: "ReLU"
  bottom: "ip1"
  top: "ip1"
}
layer {
  name: "ip2"
  type: "InnerProduct"
  bottom: "ip1"
  top: "ip2"
  param {
    lr_mult: 1
  }
  param {
    lr_mult: 2
  }
  inner_product_param {
    num_output: 20
    weight_filler {
      type: "gaussian"
      std: 0.01
    }
    bias_filler {
      type: "constant"
    }
  }
}
layer {
  name: "relu2"
  type: "ReLU"
  bottom: "ip2"
  top: "ip2"
}
layer {
  name: "ip3"
  type: "InnerProduct"
  bottom: "ip2"
  top: "ip3"
  param {
    lr_mult: 1
  }
  param {
    lr_mult: 2
  }
  inner_product_param {
    num_output: 160
    weight_filler {
      type: "gaussian"
      std: 0.01
    }
    bias_filler {
      type: "constant"
    }
  }
}
layer {
  name: "relu3"
  type: "ReLU"
  bottom: "ip3"
  top: "ip3"
}
layer {
  name: "ip4"
  type: "InnerProduct"
  bottom: "ip3"
  top: "ip4"
  param {
    lr_mult: 1
  }
  param {
    lr_mult: 2
  }
  inner_product_param {
    num_output: 10
    weight_filler {
      type: "gaussian"
      std: 0.01
    }
    bias_filler {
      type: "constant"
    }
  }
}
layer {
  name: "accuracy"
  type: "Accuracy"
  bottom: "ip4"
  bottom: "label"
  top: "accuracy"
  include {
    phase: TEST
  }
}
layer {
  name: "loss"
  type: "SoftmaxWithLoss"
  bottom: "ip4"
  bottom: "label"
  top: "loss"
}
I0501 03:17:48.659924 19995 layer_factory.hpp:77] Creating layer cifar
I0501 03:17:48.659970 19995 db_lmdb.cpp:35] Opened lmdb examples/cifar10/cifar10_test_lmdb
I0501 03:17:48.659983 19995 net.cpp:86] Creating Layer cifar
I0501 03:17:48.659988 19995 net.cpp:382] cifar -> data
I0501 03:17:48.659997 19995 net.cpp:382] cifar -> label
I0501 03:17:48.660003 19995 data_transformer.cpp:25] Loading mean file from: examples/cifar10/mean.binaryproto
I0501 03:17:48.660151 19995 data_layer.cpp:45] output data size: 1000,3,32,32
I0501 03:17:48.682837 19995 net.cpp:124] Setting up cifar
I0501 03:17:48.682863 19995 net.cpp:131] Top shape: 1000 3 32 32 (3072000)
I0501 03:17:48.682869 19995 net.cpp:131] Top shape: 1000 (1000)
I0501 03:17:48.682873 19995 net.cpp:139] Memory required for data: 12292000
I0501 03:17:48.682878 19995 layer_factory.hpp:77] Creating layer label_cifar_1_split
I0501 03:17:48.682890 19995 net.cpp:86] Creating Layer label_cifar_1_split
I0501 03:17:48.682894 19995 net.cpp:408] label_cifar_1_split <- label
I0501 03:17:48.682900 19995 net.cpp:382] label_cifar_1_split -> label_cifar_1_split_0
I0501 03:17:48.682909 19995 net.cpp:382] label_cifar_1_split -> label_cifar_1_split_1
I0501 03:17:48.683049 19995 net.cpp:124] Setting up label_cifar_1_split
I0501 03:17:48.683056 19995 net.cpp:131] Top shape: 1000 (1000)
I0501 03:17:48.683060 19995 net.cpp:131] Top shape: 1000 (1000)
I0501 03:17:48.683063 19995 net.cpp:139] Memory required for data: 12300000
I0501 03:17:48.683066 19995 layer_factory.hpp:77] Creating layer conv0
I0501 03:17:48.683079 19995 net.cpp:86] Creating Layer conv0
I0501 03:17:48.683082 19995 net.cpp:408] conv0 <- data
I0501 03:17:48.683087 19995 net.cpp:382] conv0 -> conv0
I0501 03:17:48.684653 19995 net.cpp:124] Setting up conv0
I0501 03:17:48.684666 19995 net.cpp:131] Top shape: 1000 8 32 32 (8192000)
I0501 03:17:48.684670 19995 net.cpp:139] Memory required for data: 45068000
I0501 03:17:48.684680 19995 layer_factory.hpp:77] Creating layer Sigmoid0
I0501 03:17:48.684687 19995 net.cpp:86] Creating Layer Sigmoid0
I0501 03:17:48.684690 19995 net.cpp:408] Sigmoid0 <- conv0
I0501 03:17:48.684695 19995 net.cpp:382] Sigmoid0 -> Sigmoid0
I0501 03:17:48.684871 19995 net.cpp:124] Setting up Sigmoid0
I0501 03:17:48.684881 19995 net.cpp:131] Top shape: 1000 8 32 32 (8192000)
I0501 03:17:48.684885 19995 net.cpp:139] Memory required for data: 77836000
I0501 03:17:48.684888 19995 layer_factory.hpp:77] Creating layer pool0
I0501 03:17:48.684896 19995 net.cpp:86] Creating Layer pool0
I0501 03:17:48.684900 19995 net.cpp:408] pool0 <- Sigmoid0
I0501 03:17:48.684904 19995 net.cpp:382] pool0 -> pool0
I0501 03:17:48.685134 19995 net.cpp:124] Setting up pool0
I0501 03:17:48.685142 19995 net.cpp:131] Top shape: 1000 8 16 16 (2048000)
I0501 03:17:48.685145 19995 net.cpp:139] Memory required for data: 86028000
I0501 03:17:48.685149 19995 layer_factory.hpp:77] Creating layer ip1
I0501 03:17:48.685156 19995 net.cpp:86] Creating Layer ip1
I0501 03:17:48.685159 19995 net.cpp:408] ip1 <- pool0
I0501 03:17:48.685164 19995 net.cpp:382] ip1 -> ip1
I0501 03:17:48.686238 19995 net.cpp:124] Setting up ip1
I0501 03:17:48.686247 19995 net.cpp:131] Top shape: 1000 10 (10000)
I0501 03:17:48.686251 19995 net.cpp:139] Memory required for data: 86068000
I0501 03:17:48.686273 19995 layer_factory.hpp:77] Creating layer relu1
I0501 03:17:48.686280 19995 net.cpp:86] Creating Layer relu1
I0501 03:17:48.686283 19995 net.cpp:408] relu1 <- ip1
I0501 03:17:48.686288 19995 net.cpp:369] relu1 -> ip1 (in-place)
I0501 03:17:48.686447 19995 net.cpp:124] Setting up relu1
I0501 03:17:48.686455 19995 net.cpp:131] Top shape: 1000 10 (10000)
I0501 03:17:48.686458 19995 net.cpp:139] Memory required for data: 86108000
I0501 03:17:48.686461 19995 layer_factory.hpp:77] Creating layer ip2
I0501 03:17:48.686468 19995 net.cpp:86] Creating Layer ip2
I0501 03:17:48.686471 19995 net.cpp:408] ip2 <- ip1
I0501 03:17:48.686475 19995 net.cpp:382] ip2 -> ip2
I0501 03:17:48.686579 19995 net.cpp:124] Setting up ip2
I0501 03:17:48.686586 19995 net.cpp:131] Top shape: 1000 20 (20000)
I0501 03:17:48.686589 19995 net.cpp:139] Memory required for data: 86188000
I0501 03:17:48.686596 19995 layer_factory.hpp:77] Creating layer relu2
I0501 03:17:48.686602 19995 net.cpp:86] Creating Layer relu2
I0501 03:17:48.686605 19995 net.cpp:408] relu2 <- ip2
I0501 03:17:48.686609 19995 net.cpp:369] relu2 -> ip2 (in-place)
I0501 03:17:48.687325 19995 net.cpp:124] Setting up relu2
I0501 03:17:48.687338 19995 net.cpp:131] Top shape: 1000 20 (20000)
I0501 03:17:48.687341 19995 net.cpp:139] Memory required for data: 86268000
I0501 03:17:48.687345 19995 layer_factory.hpp:77] Creating layer ip3
I0501 03:17:48.687352 19995 net.cpp:86] Creating Layer ip3
I0501 03:17:48.687355 19995 net.cpp:408] ip3 <- ip2
I0501 03:17:48.687361 19995 net.cpp:382] ip3 -> ip3
I0501 03:17:48.687542 19995 net.cpp:124] Setting up ip3
I0501 03:17:48.687549 19995 net.cpp:131] Top shape: 1000 160 (160000)
I0501 03:17:48.687553 19995 net.cpp:139] Memory required for data: 86908000
I0501 03:17:48.687558 19995 layer_factory.hpp:77] Creating layer relu3
I0501 03:17:48.687563 19995 net.cpp:86] Creating Layer relu3
I0501 03:17:48.687566 19995 net.cpp:408] relu3 <- ip3
I0501 03:17:48.687571 19995 net.cpp:369] relu3 -> ip3 (in-place)
I0501 03:17:48.687711 19995 net.cpp:124] Setting up relu3
I0501 03:17:48.687719 19995 net.cpp:131] Top shape: 1000 160 (160000)
I0501 03:17:48.687722 19995 net.cpp:139] Memory required for data: 87548000
I0501 03:17:48.687726 19995 layer_factory.hpp:77] Creating layer ip4
I0501 03:17:48.687731 19995 net.cpp:86] Creating Layer ip4
I0501 03:17:48.687733 19995 net.cpp:408] ip4 <- ip3
I0501 03:17:48.687738 19995 net.cpp:382] ip4 -> ip4
I0501 03:17:48.687870 19995 net.cpp:124] Setting up ip4
I0501 03:17:48.687876 19995 net.cpp:131] Top shape: 1000 10 (10000)
I0501 03:17:48.687880 19995 net.cpp:139] Memory required for data: 87588000
I0501 03:17:48.687888 19995 layer_factory.hpp:77] Creating layer ip4_ip4_0_split
I0501 03:17:48.687893 19995 net.cpp:86] Creating Layer ip4_ip4_0_split
I0501 03:17:48.687896 19995 net.cpp:408] ip4_ip4_0_split <- ip4
I0501 03:17:48.687901 19995 net.cpp:382] ip4_ip4_0_split -> ip4_ip4_0_split_0
I0501 03:17:48.687916 19995 net.cpp:382] ip4_ip4_0_split -> ip4_ip4_0_split_1
I0501 03:17:48.687945 19995 net.cpp:124] Setting up ip4_ip4_0_split
I0501 03:17:48.687955 19995 net.cpp:131] Top shape: 1000 10 (10000)
I0501 03:17:48.687959 19995 net.cpp:131] Top shape: 1000 10 (10000)
I0501 03:17:48.687961 19995 net.cpp:139] Memory required for data: 87668000
I0501 03:17:48.687964 19995 layer_factory.hpp:77] Creating layer accuracy
I0501 03:17:48.687970 19995 net.cpp:86] Creating Layer accuracy
I0501 03:17:48.687973 19995 net.cpp:408] accuracy <- ip4_ip4_0_split_0
I0501 03:17:48.687976 19995 net.cpp:408] accuracy <- label_cifar_1_split_0
I0501 03:17:48.687981 19995 net.cpp:382] accuracy -> accuracy
…
