…
I0501 06:10:40.591454 31888 net.cpp:296] The NetState phase (0) differed from the phase (1) specified by a rule in layer cifar
I0501 06:10:40.591472 31888 net.cpp:296] The NetState phase (0) differed from the phase (1) specified by a rule in layer accuracy
I0501 06:10:40.591580 31888 net.cpp:53] Initializing net from parameters: 
name: "CIFAR"
state {
  phase: TRAIN
  level: 0
  stage: ""
}
layer {
  name: "cifar"
  type: "Data"
  top: "data"
  top: "label"
  include {
    phase: TRAIN
  }
  transform_param {
    mean_file: "examples/cifar10/mean.binaryproto"
  }
  data_param {
    source: "examples/cifar10/cifar10_train_lmdb"
    batch_size: 111
    backend: LMDB
  }
}
layer {
  name: "conv0"
  type: "Convolution"
  bottom: "data"
  top: "conv0"
  param {
    lr_mult: 1
  }
  param {
    lr_mult: 2
  }
  convolution_param {
    num_output: 8
    pad: 2
    kernel_size: 5
    stride: 1
    weight_filler {
      type: "gaussian"
      std: 0.01
    }
    bias_filler {
      type: "constant"
    }
  }
}
layer {
  name: "Sigmoid0"
  type: "Sigmoid"
  bottom: "conv0"
  top: "Sigmoid0"
}
layer {
  name: "pool0"
  type: "Pooling"
  bottom: "Sigmoid0"
  top: "pool0"
  pooling_param {
    pool: AVE
    kernel_size: 3
    stride: 2
  }
}
layer {
  name: "ip1"
  type: "InnerProduct"
  bottom: "pool0"
  top: "ip1"
  param {
    lr_mult: 1
  }
  param {
    lr_mult: 2
  }
  inner_product_param {
    num_output: 160
    weight_filler {
      type: "gaussian"
      std: 0.01
    }
    bias_filler {
      type: "constant"
    }
  }
}
layer {
  name: "relu1"
  type: "ReLU"
  bottom: "ip1"
  top: "ip1"
}
layer {
  name: "ip2"
  type: "InnerProduct"
  bottom: "ip1"
  top: "ip2"
  param {
    lr_mult: 1
  }
  param {
    lr_mult: 2
  }
  inner_product_param {
    num_output: 10
    weight_filler {
      type: "gaussian"
      std: 0.01
    }
    bias_filler {
      type: "constant"
    }
  }
}
layer {
  name: "relu2"
  type: "ReLU"
  bottom: "ip2"
  top: "ip2"
}
layer {
  name: "ip3"
  type: "InnerProduct"
  bottom: "ip2"
  top: "ip3"
  param {
    lr_mult: 1
  }
  param {
    lr_mult: 2
  }
  inner_product_param {
    num_output: 40
    weight_filler {
      type: "gaussian"
      std: 0.01
    }
    bias_filler {
      type: "constant"
    }
  }
}
layer {
  name: "relu3"
  type: "ReLU"
  bottom: "ip3"
  top: "ip3"
}
layer {
  name: "ip4"
  type: "InnerProduct"
  bottom: "ip3"
  top: "ip4"
  param {
    lr_mult: 1
  }
  param {
    lr_mult: 2
  }
  inner_product_param {
    num_output: 10
    weight_filler {
      type: "gaussian"
      std: 0.01
    }
    bias_filler {
      type: "constant"
    }
  }
}
layer {
  name: "loss"
  type: "SoftmaxWithLoss"
  bottom: "ip4"
  bottom: "label"
  top: "loss"
}
I0501 06:10:40.591661 31888 layer_factory.hpp:77] Creating layer cifar
I0501 06:10:40.591760 31888 db_lmdb.cpp:35] Opened lmdb examples/cifar10/cifar10_train_lmdb
I0501 06:10:40.591790 31888 net.cpp:86] Creating Layer cifar
I0501 06:10:40.591801 31888 net.cpp:382] cifar -> data
I0501 06:10:40.591827 31888 net.cpp:382] cifar -> label
I0501 06:10:40.591840 31888 data_transformer.cpp:25] Loading mean file from: examples/cifar10/mean.binaryproto
I0501 06:10:40.594007 31888 data_layer.cpp:45] output data size: 111,3,32,32
I0501 06:10:40.601991 31888 net.cpp:124] Setting up cifar
I0501 06:10:40.602010 31888 net.cpp:131] Top shape: 111 3 32 32 (340992)
I0501 06:10:40.602016 31888 net.cpp:131] Top shape: 111 (111)
I0501 06:10:40.602020 31888 net.cpp:139] Memory required for data: 1364412
I0501 06:10:40.602043 31888 layer_factory.hpp:77] Creating layer conv0
I0501 06:10:40.602063 31888 net.cpp:86] Creating Layer conv0
I0501 06:10:40.602068 31888 net.cpp:408] conv0 <- data
I0501 06:10:40.602082 31888 net.cpp:382] conv0 -> conv0
I0501 06:10:40.881378 31888 net.cpp:124] Setting up conv0
I0501 06:10:40.881407 31888 net.cpp:131] Top shape: 111 8 32 32 (909312)
I0501 06:10:40.881410 31888 net.cpp:139] Memory required for data: 5001660
I0501 06:10:40.881424 31888 layer_factory.hpp:77] Creating layer Sigmoid0
I0501 06:10:40.881435 31888 net.cpp:86] Creating Layer Sigmoid0
I0501 06:10:40.881439 31888 net.cpp:408] Sigmoid0 <- conv0
I0501 06:10:40.881444 31888 net.cpp:382] Sigmoid0 -> Sigmoid0
I0501 06:10:40.881613 31888 net.cpp:124] Setting up Sigmoid0
I0501 06:10:40.881621 31888 net.cpp:131] Top shape: 111 8 32 32 (909312)
I0501 06:10:40.881624 31888 net.cpp:139] Memory required for data: 8638908
I0501 06:10:40.881628 31888 layer_factory.hpp:77] Creating layer pool0
I0501 06:10:40.881634 31888 net.cpp:86] Creating Layer pool0
I0501 06:10:40.881638 31888 net.cpp:408] pool0 <- Sigmoid0
I0501 06:10:40.881644 31888 net.cpp:382] pool0 -> pool0
I0501 06:10:40.882426 31888 net.cpp:124] Setting up pool0
I0501 06:10:40.882438 31888 net.cpp:131] Top shape: 111 8 16 16 (227328)
I0501 06:10:40.882441 31888 net.cpp:139] Memory required for data: 9548220
I0501 06:10:40.882444 31888 layer_factory.hpp:77] Creating layer ip1
I0501 06:10:40.882454 31888 net.cpp:86] Creating Layer ip1
I0501 06:10:40.882457 31888 net.cpp:408] ip1 <- pool0
I0501 06:10:40.882462 31888 net.cpp:382] ip1 -> ip1
I0501 06:10:40.891643 31888 net.cpp:124] Setting up ip1
I0501 06:10:40.891654 31888 net.cpp:131] Top shape: 111 160 (17760)
I0501 06:10:40.891657 31888 net.cpp:139] Memory required for data: 9619260
I0501 06:10:40.891664 31888 layer_factory.hpp:77] Creating layer relu1
I0501 06:10:40.891671 31888 net.cpp:86] Creating Layer relu1
I0501 06:10:40.891674 31888 net.cpp:408] relu1 <- ip1
I0501 06:10:40.891680 31888 net.cpp:369] relu1 -> ip1 (in-place)
I0501 06:10:40.891863 31888 net.cpp:124] Setting up relu1
I0501 06:10:40.891873 31888 net.cpp:131] Top shape: 111 160 (17760)
I0501 06:10:40.891876 31888 net.cpp:139] Memory required for data: 9690300
I0501 06:10:40.891880 31888 layer_factory.hpp:77] Creating layer ip2
I0501 06:10:40.891885 31888 net.cpp:86] Creating Layer ip2
I0501 06:10:40.891888 31888 net.cpp:408] ip2 <- ip1
I0501 06:10:40.891893 31888 net.cpp:382] ip2 -> ip2
I0501 06:10:40.892022 31888 net.cpp:124] Setting up ip2
I0501 06:10:40.892030 31888 net.cpp:131] Top shape: 111 10 (1110)
I0501 06:10:40.892031 31888 net.cpp:139] Memory required for data: 9694740
I0501 06:10:40.892038 31888 layer_factory.hpp:77] Creating layer relu2
I0501 06:10:40.892045 31888 net.cpp:86] Creating Layer relu2
I0501 06:10:40.892047 31888 net.cpp:408] relu2 <- ip2
I0501 06:10:40.892051 31888 net.cpp:369] relu2 -> ip2 (in-place)
I0501 06:10:40.892202 31888 net.cpp:124] Setting up relu2
I0501 06:10:40.892211 31888 net.cpp:131] Top shape: 111 10 (1110)
I0501 06:10:40.892215 31888 net.cpp:139] Memory required for data: 9699180
I0501 06:10:40.892216 31888 layer_factory.hpp:77] Creating layer ip3
I0501 06:10:40.892223 31888 net.cpp:86] Creating Layer ip3
I0501 06:10:40.892226 31888 net.cpp:408] ip3 <- ip2
I0501 06:10:40.892233 31888 net.cpp:382] ip3 -> ip3
I0501 06:10:40.892331 31888 net.cpp:124] Setting up ip3
I0501 06:10:40.892338 31888 net.cpp:131] Top shape: 111 40 (4440)
I0501 06:10:40.892340 31888 net.cpp:139] Memory required for data: 9716940
I0501 06:10:40.892345 31888 layer_factory.hpp:77] Creating layer relu3
I0501 06:10:40.892351 31888 net.cpp:86] Creating Layer relu3
I0501 06:10:40.892354 31888 net.cpp:408] relu3 <- ip3
I0501 06:10:40.892357 31888 net.cpp:369] relu3 -> ip3 (in-place)
I0501 06:10:40.892523 31888 net.cpp:124] Setting up relu3
I0501 06:10:40.892530 31888 net.cpp:131] Top shape: 111 40 (4440)
I0501 06:10:40.892534 31888 net.cpp:139] Memory required for data: 9734700
I0501 06:10:40.892536 31888 layer_factory.hpp:77] Creating layer ip4
I0501 06:10:40.892556 31888 net.cpp:86] Creating Layer ip4
I0501 06:10:40.892560 31888 net.cpp:408] ip4 <- ip3
I0501 06:10:40.892581 31888 net.cpp:382] ip4 -> ip4
I0501 06:10:40.892707 31888 net.cpp:124] Setting up ip4
I0501 06:10:40.892729 31888 net.cpp:131] Top shape: 111 10 (1110)
I0501 06:10:40.892732 31888 net.cpp:139] Memory required for data: 9739140
I0501 06:10:40.892740 31888 layer_factory.hpp:77] Creating layer loss
I0501 06:10:40.892745 31888 net.cpp:86] Creating Layer loss
I0501 06:10:40.892748 31888 net.cpp:408] loss <- ip4
I0501 06:10:40.892752 31888 net.cpp:408] loss <- label
I0501 06:10:40.892757 31888 net.cpp:382] loss -> loss
I0501 06:10:40.892776 31888 layer_factory.hpp:77] Creating layer loss
…
I0501 06:10:40.894042 31888 solver.cpp:173] Creating test net (#0) specified by net file: ECE595/cifar/train_test/var_everything/cifar_train_test_442.prototxt
I0501 06:10:40.894068 31888 net.cpp:296] The NetState phase (1) differed from the phase (0) specified by a rule in layer cifar
I0501 06:10:40.894162 31888 net.cpp:53] Initializing net from parameters: 
name: "CIFAR"
state {
  phase: TEST
}
layer {
  name: "cifar"
  type: "Data"
  top: "data"
  top: "label"
  include {
    phase: TEST
  }
  transform_param {
    mean_file: "examples/cifar10/mean.binaryproto"
  }
  data_param {
    source: "examples/cifar10/cifar10_test_lmdb"
    batch_size: 1000
    backend: LMDB
  }
}
layer {
  name: "conv0"
  type: "Convolution"
  bottom: "data"
  top: "conv0"
  param {
    lr_mult: 1
  }
  param {
    lr_mult: 2
  }
  convolution_param {
    num_output: 8
    pad: 2
    kernel_size: 5
    stride: 1
    weight_filler {
      type: "gaussian"
      std: 0.01
    }
    bias_filler {
      type: "constant"
    }
  }
}
layer {
  name: "Sigmoid0"
  type: "Sigmoid"
  bottom: "conv0"
  top: "Sigmoid0"
}
layer {
  name: "pool0"
  type: "Pooling"
  bottom: "Sigmoid0"
  top: "pool0"
  pooling_param {
    pool: AVE
    kernel_size: 3
    stride: 2
  }
}
layer {
  name: "ip1"
  type: "InnerProduct"
  bottom: "pool0"
  top: "ip1"
  param {
    lr_mult: 1
  }
  param {
    lr_mult: 2
  }
  inner_product_param {
    num_output: 160
    weight_filler {
      type: "gaussian"
      std: 0.01
    }
    bias_filler {
      type: "constant"
    }
  }
}
layer {
  name: "relu1"
  type: "ReLU"
  bottom: "ip1"
  top: "ip1"
}
layer {
  name: "ip2"
  type: "InnerProduct"
  bottom: "ip1"
  top: "ip2"
  param {
    lr_mult: 1
  }
  param {
    lr_mult: 2
  }
  inner_product_param {
    num_output: 10
    weight_filler {
      type: "gaussian"
      std: 0.01
    }
    bias_filler {
      type: "constant"
    }
  }
}
layer {
  name: "relu2"
  type: "ReLU"
  bottom: "ip2"
  top: "ip2"
}
layer {
  name: "ip3"
  type: "InnerProduct"
  bottom: "ip2"
  top: "ip3"
  param {
    lr_mult: 1
  }
  param {
    lr_mult: 2
  }
  inner_product_param {
    num_output: 40
    weight_filler {
      type: "gaussian"
      std: 0.01
    }
    bias_filler {
      type: "constant"
    }
  }
}
layer {
  name: "relu3"
  type: "ReLU"
  bottom: "ip3"
  top: "ip3"
}
layer {
  name: "ip4"
  type: "InnerProduct"
  bottom: "ip3"
  top: "ip4"
  param {
    lr_mult: 1
  }
  param {
    lr_mult: 2
  }
  inner_product_param {
    num_output: 10
    weight_filler {
      type: "gaussian"
      std: 0.01
    }
    bias_filler {
      type: "constant"
    }
  }
}
layer {
  name: "accuracy"
  type: "Accuracy"
  bottom: "ip4"
  bottom: "label"
  top: "accuracy"
  include {
    phase: TEST
  }
}
layer {
  name: "loss"
  type: "SoftmaxWithLoss"
  bottom: "ip4"
  bottom: "label"
  top: "loss"
}
I0501 06:10:40.894239 31888 layer_factory.hpp:77] Creating layer cifar
I0501 06:10:40.894284 31888 db_lmdb.cpp:35] Opened lmdb examples/cifar10/cifar10_test_lmdb
I0501 06:10:40.894295 31888 net.cpp:86] Creating Layer cifar
I0501 06:10:40.894301 31888 net.cpp:382] cifar -> data
I0501 06:10:40.894309 31888 net.cpp:382] cifar -> label
I0501 06:10:40.894314 31888 data_transformer.cpp:25] Loading mean file from: examples/cifar10/mean.binaryproto
I0501 06:10:40.894451 31888 data_layer.cpp:45] output data size: 1000,3,32,32
I0501 06:10:40.916157 31888 net.cpp:124] Setting up cifar
I0501 06:10:40.916182 31888 net.cpp:131] Top shape: 1000 3 32 32 (3072000)
I0501 06:10:40.916188 31888 net.cpp:131] Top shape: 1000 (1000)
I0501 06:10:40.916190 31888 net.cpp:139] Memory required for data: 12292000
I0501 06:10:40.916195 31888 layer_factory.hpp:77] Creating layer label_cifar_1_split
I0501 06:10:40.916223 31888 net.cpp:86] Creating Layer label_cifar_1_split
I0501 06:10:40.916227 31888 net.cpp:408] label_cifar_1_split <- label
I0501 06:10:40.916234 31888 net.cpp:382] label_cifar_1_split -> label_cifar_1_split_0
I0501 06:10:40.916257 31888 net.cpp:382] label_cifar_1_split -> label_cifar_1_split_1
I0501 06:10:40.916371 31888 net.cpp:124] Setting up label_cifar_1_split
I0501 06:10:40.916378 31888 net.cpp:131] Top shape: 1000 (1000)
I0501 06:10:40.916383 31888 net.cpp:131] Top shape: 1000 (1000)
I0501 06:10:40.916385 31888 net.cpp:139] Memory required for data: 12300000
I0501 06:10:40.916388 31888 layer_factory.hpp:77] Creating layer conv0
I0501 06:10:40.916400 31888 net.cpp:86] Creating Layer conv0
I0501 06:10:40.916404 31888 net.cpp:408] conv0 <- data
I0501 06:10:40.916409 31888 net.cpp:382] conv0 -> conv0
I0501 06:10:40.918078 31888 net.cpp:124] Setting up conv0
I0501 06:10:40.918107 31888 net.cpp:131] Top shape: 1000 8 32 32 (8192000)
I0501 06:10:40.918112 31888 net.cpp:139] Memory required for data: 45068000
I0501 06:10:40.918120 31888 layer_factory.hpp:77] Creating layer Sigmoid0
I0501 06:10:40.918128 31888 net.cpp:86] Creating Layer Sigmoid0
I0501 06:10:40.918131 31888 net.cpp:408] Sigmoid0 <- conv0
I0501 06:10:40.918136 31888 net.cpp:382] Sigmoid0 -> Sigmoid0
I0501 06:10:40.919364 31888 net.cpp:124] Setting up Sigmoid0
I0501 06:10:40.919375 31888 net.cpp:131] Top shape: 1000 8 32 32 (8192000)
I0501 06:10:40.919379 31888 net.cpp:139] Memory required for data: 77836000
I0501 06:10:40.919383 31888 layer_factory.hpp:77] Creating layer pool0
I0501 06:10:40.919389 31888 net.cpp:86] Creating Layer pool0
I0501 06:10:40.919392 31888 net.cpp:408] pool0 <- Sigmoid0
I0501 06:10:40.919397 31888 net.cpp:382] pool0 -> pool0
I0501 06:10:40.919580 31888 net.cpp:124] Setting up pool0
I0501 06:10:40.919589 31888 net.cpp:131] Top shape: 1000 8 16 16 (2048000)
I0501 06:10:40.919592 31888 net.cpp:139] Memory required for data: 86028000
I0501 06:10:40.919595 31888 layer_factory.hpp:77] Creating layer ip1
I0501 06:10:40.919603 31888 net.cpp:86] Creating Layer ip1
I0501 06:10:40.919607 31888 net.cpp:408] ip1 <- pool0
I0501 06:10:40.919612 31888 net.cpp:382] ip1 -> ip1
I0501 06:10:40.929008 31888 net.cpp:124] Setting up ip1
I0501 06:10:40.929020 31888 net.cpp:131] Top shape: 1000 160 (160000)
I0501 06:10:40.929039 31888 net.cpp:139] Memory required for data: 86668000
I0501 06:10:40.929061 31888 layer_factory.hpp:77] Creating layer relu1
I0501 06:10:40.929069 31888 net.cpp:86] Creating Layer relu1
I0501 06:10:40.929072 31888 net.cpp:408] relu1 <- ip1
I0501 06:10:40.929091 31888 net.cpp:369] relu1 -> ip1 (in-place)
I0501 06:10:40.929281 31888 net.cpp:124] Setting up relu1
I0501 06:10:40.929292 31888 net.cpp:131] Top shape: 1000 160 (160000)
I0501 06:10:40.929296 31888 net.cpp:139] Memory required for data: 87308000
I0501 06:10:40.929298 31888 layer_factory.hpp:77] Creating layer ip2
I0501 06:10:40.929306 31888 net.cpp:86] Creating Layer ip2
I0501 06:10:40.929309 31888 net.cpp:408] ip2 <- ip1
I0501 06:10:40.929316 31888 net.cpp:382] ip2 -> ip2
I0501 06:10:40.929464 31888 net.cpp:124] Setting up ip2
I0501 06:10:40.929471 31888 net.cpp:131] Top shape: 1000 10 (10000)
I0501 06:10:40.929474 31888 net.cpp:139] Memory required for data: 87348000
I0501 06:10:40.929481 31888 layer_factory.hpp:77] Creating layer relu2
I0501 06:10:40.929487 31888 net.cpp:86] Creating Layer relu2
I0501 06:10:40.929491 31888 net.cpp:408] relu2 <- ip2
I0501 06:10:40.929496 31888 net.cpp:369] relu2 -> ip2 (in-place)
I0501 06:10:40.930292 31888 net.cpp:124] Setting up relu2
I0501 06:10:40.930305 31888 net.cpp:131] Top shape: 1000 10 (10000)
I0501 06:10:40.930307 31888 net.cpp:139] Memory required for data: 87388000
I0501 06:10:40.930310 31888 layer_factory.hpp:77] Creating layer ip3
I0501 06:10:40.930317 31888 net.cpp:86] Creating Layer ip3
I0501 06:10:40.930320 31888 net.cpp:408] ip3 <- ip2
I0501 06:10:40.930326 31888 net.cpp:382] ip3 -> ip3
I0501 06:10:40.930462 31888 net.cpp:124] Setting up ip3
I0501 06:10:40.930469 31888 net.cpp:131] Top shape: 1000 40 (40000)
I0501 06:10:40.930472 31888 net.cpp:139] Memory required for data: 87548000
I0501 06:10:40.930477 31888 layer_factory.hpp:77] Creating layer relu3
I0501 06:10:40.930483 31888 net.cpp:86] Creating Layer relu3
I0501 06:10:40.930486 31888 net.cpp:408] relu3 <- ip3
I0501 06:10:40.930490 31888 net.cpp:369] relu3 -> ip3 (in-place)
I0501 06:10:40.930642 31888 net.cpp:124] Setting up relu3
I0501 06:10:40.930650 31888 net.cpp:131] Top shape: 1000 40 (40000)
I0501 06:10:40.930654 31888 net.cpp:139] Memory required for data: 87708000
I0501 06:10:40.930656 31888 layer_factory.hpp:77] Creating layer ip4
I0501 06:10:40.930662 31888 net.cpp:86] Creating Layer ip4
I0501 06:10:40.930665 31888 net.cpp:408] ip4 <- ip3
I0501 06:10:40.930671 31888 net.cpp:382] ip4 -> ip4
I0501 06:10:40.930779 31888 net.cpp:124] Setting up ip4
I0501 06:10:40.930788 31888 net.cpp:131] Top shape: 1000 10 (10000)
I0501 06:10:40.930790 31888 net.cpp:139] Memory required for data: 87748000
I0501 06:10:40.930797 31888 layer_factory.hpp:77] Creating layer ip4_ip4_0_split
I0501 06:10:40.930819 31888 net.cpp:86] Creating Layer ip4_ip4_0_split
I0501 06:10:40.930822 31888 net.cpp:408] ip4_ip4_0_split <- ip4
I0501 06:10:40.930827 31888 net.cpp:382] ip4_ip4_0_split -> ip4_ip4_0_split_0
I0501 06:10:40.930832 31888 net.cpp:382] ip4_ip4_0_split -> ip4_ip4_0_split_1
I0501 06:10:40.930863 31888 net.cpp:124] Setting up ip4_ip4_0_split
I0501 06:10:40.930868 31888 net.cpp:131] Top shape: 1000 10 (10000)
I0501 06:10:40.930872 31888 net.cpp:131] Top shape: 1000 10 (10000)
I0501 06:10:40.930874 31888 net.cpp:139] Memory required for data: 87828000
I0501 06:10:40.930877 31888 layer_factory.hpp:77] Creating layer accuracy
I0501 06:10:40.930883 31888 net.cpp:86] Creating Layer accuracy
I0501 06:10:40.930886 31888 net.cpp:408] accuracy <- ip4_ip4_0_split_0
I0501 06:10:40.930891 31888 net.cpp:408] accuracy <- label_cifar_1_split_0
I0501 06:10:40.930896 31888 net.cpp:382] accuracy -> accuracy
…
