…
I0501 04:13:44.263591 24357 net.cpp:296] The NetState phase (0) differed from the phase (1) specified by a rule in layer cifar
I0501 04:13:44.263607 24357 net.cpp:296] The NetState phase (0) differed from the phase (1) specified by a rule in layer accuracy
I0501 04:13:44.263705 24357 net.cpp:53] Initializing net from parameters: 
name: "CIFAR"
state {
  phase: TRAIN
  level: 0
  stage: ""
}
layer {
  name: "cifar"
  type: "Data"
  top: "data"
  top: "label"
  include {
    phase: TRAIN
  }
  transform_param {
    mean_file: "examples/cifar10/mean.binaryproto"
  }
  data_param {
    source: "examples/cifar10/cifar10_train_lmdb"
    batch_size: 111
    backend: LMDB
  }
}
layer {
  name: "conv0"
  type: "Convolution"
  bottom: "data"
  top: "conv0"
  param {
    lr_mult: 1
  }
  param {
    lr_mult: 2
  }
  convolution_param {
    num_output: 8
    pad: 2
    kernel_size: 5
    stride: 1
    weight_filler {
      type: "gaussian"
      std: 0.01
    }
    bias_filler {
      type: "constant"
    }
  }
}
layer {
  name: "Sigmoid0"
  type: "Sigmoid"
  bottom: "conv0"
  top: "Sigmoid0"
}
layer {
  name: "pool0"
  type: "Pooling"
  bottom: "Sigmoid0"
  top: "pool0"
  pooling_param {
    pool: AVE
    kernel_size: 3
    stride: 2
  }
}
layer {
  name: "ip1"
  type: "InnerProduct"
  bottom: "pool0"
  top: "ip1"
  param {
    lr_mult: 1
  }
  param {
    lr_mult: 2
  }
  inner_product_param {
    num_output: 20
    weight_filler {
      type: "gaussian"
      std: 0.01
    }
    bias_filler {
      type: "constant"
    }
  }
}
layer {
  name: "relu1"
  type: "ReLU"
  bottom: "ip1"
  top: "ip1"
}
layer {
  name: "ip2"
  type: "InnerProduct"
  bottom: "ip1"
  top: "ip2"
  param {
    lr_mult: 1
  }
  param {
    lr_mult: 2
  }
  inner_product_param {
    num_output: 40
    weight_filler {
      type: "gaussian"
      std: 0.01
    }
    bias_filler {
      type: "constant"
    }
  }
}
layer {
  name: "relu2"
  type: "ReLU"
  bottom: "ip2"
  top: "ip2"
}
layer {
  name: "ip3"
  type: "InnerProduct"
  bottom: "ip2"
  top: "ip3"
  param {
    lr_mult: 1
  }
  param {
    lr_mult: 2
  }
  inner_product_param {
    num_output: 160
    weight_filler {
      type: "gaussian"
      std: 0.01
    }
    bias_filler {
      type: "constant"
    }
  }
}
layer {
  name: "relu3"
  type: "ReLU"
  bottom: "ip3"
  top: "ip3"
}
layer {
  name: "ip4"
  type: "InnerProduct"
  bottom: "ip3"
  top: "ip4"
  param {
    lr_mult: 1
  }
  param {
    lr_mult: 2
  }
  inner_product_param {
    num_output: 10
    weight_filler {
      type: "gaussian"
      std: 0.01
    }
    bias_filler {
      type: "constant"
    }
  }
}
layer {
  name: "loss"
  type: "SoftmaxWithLoss"
  bottom: "ip4"
  bottom: "label"
  top: "loss"
}
I0501 04:13:44.263777 24357 layer_factory.hpp:77] Creating layer cifar
I0501 04:13:44.263882 24357 db_lmdb.cpp:35] Opened lmdb examples/cifar10/cifar10_train_lmdb
I0501 04:13:44.263911 24357 net.cpp:86] Creating Layer cifar
I0501 04:13:44.263919 24357 net.cpp:382] cifar -> data
I0501 04:13:44.263942 24357 net.cpp:382] cifar -> label
I0501 04:13:44.263957 24357 data_transformer.cpp:25] Loading mean file from: examples/cifar10/mean.binaryproto
I0501 04:13:44.266072 24357 data_layer.cpp:45] output data size: 111,3,32,32
I0501 04:13:44.273947 24357 net.cpp:124] Setting up cifar
I0501 04:13:44.273965 24357 net.cpp:131] Top shape: 111 3 32 32 (340992)
I0501 04:13:44.273972 24357 net.cpp:131] Top shape: 111 (111)
I0501 04:13:44.273977 24357 net.cpp:139] Memory required for data: 1364412
I0501 04:13:44.274000 24357 layer_factory.hpp:77] Creating layer conv0
I0501 04:13:44.274019 24357 net.cpp:86] Creating Layer conv0
I0501 04:13:44.274024 24357 net.cpp:408] conv0 <- data
I0501 04:13:44.274036 24357 net.cpp:382] conv0 -> conv0
I0501 04:13:44.562739 24357 net.cpp:124] Setting up conv0
I0501 04:13:44.562763 24357 net.cpp:131] Top shape: 111 8 32 32 (909312)
I0501 04:13:44.562768 24357 net.cpp:139] Memory required for data: 5001660
I0501 04:13:44.562784 24357 layer_factory.hpp:77] Creating layer Sigmoid0
I0501 04:13:44.562796 24357 net.cpp:86] Creating Layer Sigmoid0
I0501 04:13:44.562803 24357 net.cpp:408] Sigmoid0 <- conv0
I0501 04:13:44.562824 24357 net.cpp:382] Sigmoid0 -> Sigmoid0
I0501 04:13:44.563010 24357 net.cpp:124] Setting up Sigmoid0
I0501 04:13:44.563020 24357 net.cpp:131] Top shape: 111 8 32 32 (909312)
I0501 04:13:44.563024 24357 net.cpp:139] Memory required for data: 8638908
I0501 04:13:44.563029 24357 layer_factory.hpp:77] Creating layer pool0
I0501 04:13:44.563035 24357 net.cpp:86] Creating Layer pool0
I0501 04:13:44.563040 24357 net.cpp:408] pool0 <- Sigmoid0
I0501 04:13:44.563045 24357 net.cpp:382] pool0 -> pool0
I0501 04:13:44.563944 24357 net.cpp:124] Setting up pool0
I0501 04:13:44.563958 24357 net.cpp:131] Top shape: 111 8 16 16 (227328)
I0501 04:13:44.563962 24357 net.cpp:139] Memory required for data: 9548220
I0501 04:13:44.563966 24357 layer_factory.hpp:77] Creating layer ip1
I0501 04:13:44.563977 24357 net.cpp:86] Creating Layer ip1
I0501 04:13:44.563980 24357 net.cpp:408] ip1 <- pool0
I0501 04:13:44.563987 24357 net.cpp:382] ip1 -> ip1
I0501 04:13:44.566259 24357 net.cpp:124] Setting up ip1
I0501 04:13:44.566274 24357 net.cpp:131] Top shape: 111 20 (2220)
I0501 04:13:44.566279 24357 net.cpp:139] Memory required for data: 9557100
I0501 04:13:44.566288 24357 layer_factory.hpp:77] Creating layer relu1
I0501 04:13:44.566295 24357 net.cpp:86] Creating Layer relu1
I0501 04:13:44.566299 24357 net.cpp:408] relu1 <- ip1
I0501 04:13:44.566304 24357 net.cpp:369] relu1 -> ip1 (in-place)
I0501 04:13:44.566479 24357 net.cpp:124] Setting up relu1
I0501 04:13:44.566488 24357 net.cpp:131] Top shape: 111 20 (2220)
I0501 04:13:44.566493 24357 net.cpp:139] Memory required for data: 9565980
I0501 04:13:44.566495 24357 layer_factory.hpp:77] Creating layer ip2
I0501 04:13:44.566504 24357 net.cpp:86] Creating Layer ip2
I0501 04:13:44.566506 24357 net.cpp:408] ip2 <- ip1
I0501 04:13:44.566512 24357 net.cpp:382] ip2 -> ip2
I0501 04:13:44.566644 24357 net.cpp:124] Setting up ip2
I0501 04:13:44.566651 24357 net.cpp:131] Top shape: 111 40 (4440)
I0501 04:13:44.566655 24357 net.cpp:139] Memory required for data: 9583740
I0501 04:13:44.566663 24357 layer_factory.hpp:77] Creating layer relu2
I0501 04:13:44.566670 24357 net.cpp:86] Creating Layer relu2
I0501 04:13:44.566674 24357 net.cpp:408] relu2 <- ip2
I0501 04:13:44.566679 24357 net.cpp:369] relu2 -> ip2 (in-place)
I0501 04:13:44.566846 24357 net.cpp:124] Setting up relu2
I0501 04:13:44.566854 24357 net.cpp:131] Top shape: 111 40 (4440)
I0501 04:13:44.566859 24357 net.cpp:139] Memory required for data: 9601500
I0501 04:13:44.566861 24357 layer_factory.hpp:77] Creating layer ip3
I0501 04:13:44.566869 24357 net.cpp:86] Creating Layer ip3
I0501 04:13:44.566875 24357 net.cpp:408] ip3 <- ip2
I0501 04:13:44.566880 24357 net.cpp:382] ip3 -> ip3
I0501 04:13:44.568089 24357 net.cpp:124] Setting up ip3
I0501 04:13:44.568104 24357 net.cpp:131] Top shape: 111 160 (17760)
I0501 04:13:44.568107 24357 net.cpp:139] Memory required for data: 9672540
I0501 04:13:44.568114 24357 layer_factory.hpp:77] Creating layer relu3
I0501 04:13:44.568120 24357 net.cpp:86] Creating Layer relu3
I0501 04:13:44.568123 24357 net.cpp:408] relu3 <- ip3
I0501 04:13:44.568130 24357 net.cpp:369] relu3 -> ip3 (in-place)
I0501 04:13:44.568306 24357 net.cpp:124] Setting up relu3
I0501 04:13:44.568315 24357 net.cpp:131] Top shape: 111 160 (17760)
I0501 04:13:44.568318 24357 net.cpp:139] Memory required for data: 9743580
I0501 04:13:44.568321 24357 layer_factory.hpp:77] Creating layer ip4
I0501 04:13:44.568346 24357 net.cpp:86] Creating Layer ip4
I0501 04:13:44.568349 24357 net.cpp:408] ip4 <- ip3
I0501 04:13:44.568354 24357 net.cpp:382] ip4 -> ip4
I0501 04:13:44.568506 24357 net.cpp:124] Setting up ip4
I0501 04:13:44.568514 24357 net.cpp:131] Top shape: 111 10 (1110)
I0501 04:13:44.568517 24357 net.cpp:139] Memory required for data: 9748020
I0501 04:13:44.568527 24357 layer_factory.hpp:77] Creating layer loss
I0501 04:13:44.568534 24357 net.cpp:86] Creating Layer loss
I0501 04:13:44.568538 24357 net.cpp:408] loss <- ip4
I0501 04:13:44.568542 24357 net.cpp:408] loss <- label
I0501 04:13:44.568548 24357 net.cpp:382] loss -> loss
I0501 04:13:44.568563 24357 layer_factory.hpp:77] Creating layer loss
…
I0501 04:13:44.569983 24357 solver.cpp:173] Creating test net (#0) specified by net file: ECE595/cifar/train_test/var_everything/cifar_train_test_379.prototxt
I0501 04:13:44.570024 24357 net.cpp:296] The NetState phase (1) differed from the phase (0) specified by a rule in layer cifar
I0501 04:13:44.570125 24357 net.cpp:53] Initializing net from parameters: 
name: "CIFAR"
state {
  phase: TEST
}
layer {
  name: "cifar"
  type: "Data"
  top: "data"
  top: "label"
  include {
    phase: TEST
  }
  transform_param {
    mean_file: "examples/cifar10/mean.binaryproto"
  }
  data_param {
    source: "examples/cifar10/cifar10_test_lmdb"
    batch_size: 1000
    backend: LMDB
  }
}
layer {
  name: "conv0"
  type: "Convolution"
  bottom: "data"
  top: "conv0"
  param {
    lr_mult: 1
  }
  param {
    lr_mult: 2
  }
  convolution_param {
    num_output: 8
    pad: 2
    kernel_size: 5
    stride: 1
    weight_filler {
      type: "gaussian"
      std: 0.01
    }
    bias_filler {
      type: "constant"
    }
  }
}
layer {
  name: "Sigmoid0"
  type: "Sigmoid"
  bottom: "conv0"
  top: "Sigmoid0"
}
layer {
  name: "pool0"
  type: "Pooling"
  bottom: "Sigmoid0"
  top: "pool0"
  pooling_param {
    pool: AVE
    kernel_size: 3
    stride: 2
  }
}
layer {
  name: "ip1"
  type: "InnerProduct"
  bottom: "pool0"
  top: "ip1"
  param {
    lr_mult: 1
  }
  param {
    lr_mult: 2
  }
  inner_product_param {
    num_output: 20
    weight_filler {
      type: "gaussian"
      std: 0.01
    }
    bias_filler {
      type: "constant"
    }
  }
}
layer {
  name: "relu1"
  type: "ReLU"
  bottom: "ip1"
  top: "ip1"
}
layer {
  name: "ip2"
  type: "InnerProduct"
  bottom: "ip1"
  top: "ip2"
  param {
    lr_mult: 1
  }
  param {
    lr_mult: 2
  }
  inner_product_param {
    num_output: 40
    weight_filler {
      type: "gaussian"
      std: 0.01
    }
    bias_filler {
      type: "constant"
    }
  }
}
layer {
  name: "relu2"
  type: "ReLU"
  bottom: "ip2"
  top: "ip2"
}
layer {
  name: "ip3"
  type: "InnerProduct"
  bottom: "ip2"
  top: "ip3"
  param {
    lr_mult: 1
  }
  param {
    lr_mult: 2
  }
  inner_product_param {
    num_output: 160
    weight_filler {
      type: "gaussian"
      std: 0.01
    }
    bias_filler {
      type: "constant"
    }
  }
}
layer {
  name: "relu3"
  type: "ReLU"
  bottom: "ip3"
  top: "ip3"
}
layer {
  name: "ip4"
  type: "InnerProduct"
  bottom: "ip3"
  top: "ip4"
  param {
    lr_mult: 1
  }
  param {
    lr_mult: 2
  }
  inner_product_param {
    num_output: 10
    weight_filler {
      type: "gaussian"
      std: 0.01
    }
    bias_filler {
      type: "constant"
    }
  }
}
layer {
  name: "accuracy"
  type: "Accuracy"
  bottom: "ip4"
  bottom: "label"
  top: "accuracy"
  include {
    phase: TEST
  }
}
layer {
  name: "loss"
  type: "SoftmaxWithLoss"
  bottom: "ip4"
  bottom: "label"
  top: "loss"
}
I0501 04:13:44.570211 24357 layer_factory.hpp:77] Creating layer cifar
I0501 04:13:44.570257 24357 db_lmdb.cpp:35] Opened lmdb examples/cifar10/cifar10_test_lmdb
I0501 04:13:44.570272 24357 net.cpp:86] Creating Layer cifar
I0501 04:13:44.570278 24357 net.cpp:382] cifar -> data
I0501 04:13:44.570287 24357 net.cpp:382] cifar -> label
I0501 04:13:44.570297 24357 data_transformer.cpp:25] Loading mean file from: examples/cifar10/mean.binaryproto
I0501 04:13:44.570487 24357 data_layer.cpp:45] output data size: 1000,3,32,32
I0501 04:13:44.593925 24357 net.cpp:124] Setting up cifar
I0501 04:13:44.593950 24357 net.cpp:131] Top shape: 1000 3 32 32 (3072000)
I0501 04:13:44.593956 24357 net.cpp:131] Top shape: 1000 (1000)
I0501 04:13:44.593961 24357 net.cpp:139] Memory required for data: 12292000
I0501 04:13:44.593966 24357 layer_factory.hpp:77] Creating layer label_cifar_1_split
I0501 04:13:44.593977 24357 net.cpp:86] Creating Layer label_cifar_1_split
I0501 04:13:44.593981 24357 net.cpp:408] label_cifar_1_split <- label
I0501 04:13:44.593987 24357 net.cpp:382] label_cifar_1_split -> label_cifar_1_split_0
I0501 04:13:44.593997 24357 net.cpp:382] label_cifar_1_split -> label_cifar_1_split_1
I0501 04:13:44.594097 24357 net.cpp:124] Setting up label_cifar_1_split
I0501 04:13:44.594105 24357 net.cpp:131] Top shape: 1000 (1000)
I0501 04:13:44.594108 24357 net.cpp:131] Top shape: 1000 (1000)
I0501 04:13:44.594111 24357 net.cpp:139] Memory required for data: 12300000
I0501 04:13:44.594115 24357 layer_factory.hpp:77] Creating layer conv0
I0501 04:13:44.594127 24357 net.cpp:86] Creating Layer conv0
I0501 04:13:44.594131 24357 net.cpp:408] conv0 <- data
I0501 04:13:44.594137 24357 net.cpp:382] conv0 -> conv0
I0501 04:13:44.595743 24357 net.cpp:124] Setting up conv0
I0501 04:13:44.595757 24357 net.cpp:131] Top shape: 1000 8 32 32 (8192000)
I0501 04:13:44.595760 24357 net.cpp:139] Memory required for data: 45068000
I0501 04:13:44.595770 24357 layer_factory.hpp:77] Creating layer Sigmoid0
I0501 04:13:44.595777 24357 net.cpp:86] Creating Layer Sigmoid0
I0501 04:13:44.595780 24357 net.cpp:408] Sigmoid0 <- conv0
I0501 04:13:44.595785 24357 net.cpp:382] Sigmoid0 -> Sigmoid0
I0501 04:13:44.595957 24357 net.cpp:124] Setting up Sigmoid0
I0501 04:13:44.595965 24357 net.cpp:131] Top shape: 1000 8 32 32 (8192000)
I0501 04:13:44.595968 24357 net.cpp:139] Memory required for data: 77836000
I0501 04:13:44.595971 24357 layer_factory.hpp:77] Creating layer pool0
I0501 04:13:44.595979 24357 net.cpp:86] Creating Layer pool0
I0501 04:13:44.595984 24357 net.cpp:408] pool0 <- Sigmoid0
I0501 04:13:44.596005 24357 net.cpp:382] pool0 -> pool0
I0501 04:13:44.596302 24357 net.cpp:124] Setting up pool0
I0501 04:13:44.596310 24357 net.cpp:131] Top shape: 1000 8 16 16 (2048000)
I0501 04:13:44.596313 24357 net.cpp:139] Memory required for data: 86028000
I0501 04:13:44.596316 24357 layer_factory.hpp:77] Creating layer ip1
I0501 04:13:44.596324 24357 net.cpp:86] Creating Layer ip1
I0501 04:13:44.596328 24357 net.cpp:408] ip1 <- pool0
I0501 04:13:44.596350 24357 net.cpp:382] ip1 -> ip1
I0501 04:13:44.598531 24357 net.cpp:124] Setting up ip1
I0501 04:13:44.598541 24357 net.cpp:131] Top shape: 1000 20 (20000)
I0501 04:13:44.598544 24357 net.cpp:139] Memory required for data: 86108000
I0501 04:13:44.598567 24357 layer_factory.hpp:77] Creating layer relu1
I0501 04:13:44.598573 24357 net.cpp:86] Creating Layer relu1
I0501 04:13:44.598577 24357 net.cpp:408] relu1 <- ip1
I0501 04:13:44.598582 24357 net.cpp:369] relu1 -> ip1 (in-place)
I0501 04:13:44.598765 24357 net.cpp:124] Setting up relu1
I0501 04:13:44.598773 24357 net.cpp:131] Top shape: 1000 20 (20000)
I0501 04:13:44.598776 24357 net.cpp:139] Memory required for data: 86188000
I0501 04:13:44.598780 24357 layer_factory.hpp:77] Creating layer ip2
I0501 04:13:44.598786 24357 net.cpp:86] Creating Layer ip2
I0501 04:13:44.598790 24357 net.cpp:408] ip2 <- ip1
I0501 04:13:44.598795 24357 net.cpp:382] ip2 -> ip2
I0501 04:13:44.598935 24357 net.cpp:124] Setting up ip2
I0501 04:13:44.598944 24357 net.cpp:131] Top shape: 1000 40 (40000)
I0501 04:13:44.598948 24357 net.cpp:139] Memory required for data: 86348000
I0501 04:13:44.598954 24357 layer_factory.hpp:77] Creating layer relu2
I0501 04:13:44.598963 24357 net.cpp:86] Creating Layer relu2
I0501 04:13:44.598981 24357 net.cpp:408] relu2 <- ip2
I0501 04:13:44.598985 24357 net.cpp:369] relu2 -> ip2 (in-place)
I0501 04:13:44.599752 24357 net.cpp:124] Setting up relu2
I0501 04:13:44.599764 24357 net.cpp:131] Top shape: 1000 40 (40000)
I0501 04:13:44.599768 24357 net.cpp:139] Memory required for data: 86508000
I0501 04:13:44.599771 24357 layer_factory.hpp:77] Creating layer ip3
I0501 04:13:44.599778 24357 net.cpp:86] Creating Layer ip3
I0501 04:13:44.599781 24357 net.cpp:408] ip3 <- ip2
I0501 04:13:44.599787 24357 net.cpp:382] ip3 -> ip3
I0501 04:13:44.600092 24357 net.cpp:124] Setting up ip3
I0501 04:13:44.600100 24357 net.cpp:131] Top shape: 1000 160 (160000)
I0501 04:13:44.600103 24357 net.cpp:139] Memory required for data: 87148000
I0501 04:13:44.600109 24357 layer_factory.hpp:77] Creating layer relu3
I0501 04:13:44.600114 24357 net.cpp:86] Creating Layer relu3
I0501 04:13:44.600118 24357 net.cpp:408] relu3 <- ip3
I0501 04:13:44.600122 24357 net.cpp:369] relu3 -> ip3 (in-place)
I0501 04:13:44.600271 24357 net.cpp:124] Setting up relu3
I0501 04:13:44.600281 24357 net.cpp:131] Top shape: 1000 160 (160000)
I0501 04:13:44.600284 24357 net.cpp:139] Memory required for data: 87788000
I0501 04:13:44.600287 24357 layer_factory.hpp:77] Creating layer ip4
I0501 04:13:44.600294 24357 net.cpp:86] Creating Layer ip4
I0501 04:13:44.600297 24357 net.cpp:408] ip4 <- ip3
I0501 04:13:44.600302 24357 net.cpp:382] ip4 -> ip4
I0501 04:13:44.600443 24357 net.cpp:124] Setting up ip4
I0501 04:13:44.600450 24357 net.cpp:131] Top shape: 1000 10 (10000)
I0501 04:13:44.600453 24357 net.cpp:139] Memory required for data: 87828000
I0501 04:13:44.600461 24357 layer_factory.hpp:77] Creating layer ip4_ip4_0_split
I0501 04:13:44.600471 24357 net.cpp:86] Creating Layer ip4_ip4_0_split
I0501 04:13:44.600473 24357 net.cpp:408] ip4_ip4_0_split <- ip4
I0501 04:13:44.600477 24357 net.cpp:382] ip4_ip4_0_split -> ip4_ip4_0_split_0
I0501 04:13:44.600483 24357 net.cpp:382] ip4_ip4_0_split -> ip4_ip4_0_split_1
I0501 04:13:44.600513 24357 net.cpp:124] Setting up ip4_ip4_0_split
I0501 04:13:44.600519 24357 net.cpp:131] Top shape: 1000 10 (10000)
I0501 04:13:44.600523 24357 net.cpp:131] Top shape: 1000 10 (10000)
I0501 04:13:44.600527 24357 net.cpp:139] Memory required for data: 87908000
I0501 04:13:44.600529 24357 layer_factory.hpp:77] Creating layer accuracy
I0501 04:13:44.600536 24357 net.cpp:86] Creating Layer accuracy
I0501 04:13:44.600543 24357 net.cpp:408] accuracy <- ip4_ip4_0_split_0
I0501 04:13:44.600548 24357 net.cpp:408] accuracy <- label_cifar_1_split_0
I0501 04:13:44.600569 24357 net.cpp:382] accuracy -> accuracy
…
