…
I0501 05:01:55.126554 27442 net.cpp:296] The NetState phase (0) differed from the phase (1) specified by a rule in layer cifar
I0501 05:01:55.126577 27442 net.cpp:296] The NetState phase (0) differed from the phase (1) specified by a rule in layer accuracy
I0501 05:01:55.126685 27442 net.cpp:53] Initializing net from parameters: 
name: "CIFAR"
state {
  phase: TRAIN
  level: 0
  stage: ""
}
layer {
  name: "cifar"
  type: "Data"
  top: "data"
  top: "label"
  include {
    phase: TRAIN
  }
  transform_param {
    mean_file: "examples/cifar10/mean.binaryproto"
  }
  data_param {
    source: "examples/cifar10/cifar10_train_lmdb"
    batch_size: 111
    backend: LMDB
  }
}
layer {
  name: "conv0"
  type: "Convolution"
  bottom: "data"
  top: "conv0"
  param {
    lr_mult: 1
  }
  param {
    lr_mult: 2
  }
  convolution_param {
    num_output: 8
    pad: 2
    kernel_size: 5
    stride: 1
    weight_filler {
      type: "gaussian"
      std: 0.01
    }
    bias_filler {
      type: "constant"
    }
  }
}
layer {
  name: "Sigmoid0"
  type: "Sigmoid"
  bottom: "conv0"
  top: "Sigmoid0"
}
layer {
  name: "pool0"
  type: "Pooling"
  bottom: "Sigmoid0"
  top: "pool0"
  pooling_param {
    pool: AVE
    kernel_size: 3
    stride: 2
  }
}
layer {
  name: "ip1"
  type: "InnerProduct"
  bottom: "pool0"
  top: "ip1"
  param {
    lr_mult: 1
  }
  param {
    lr_mult: 2
  }
  inner_product_param {
    num_output: 40
    weight_filler {
      type: "gaussian"
      std: 0.01
    }
    bias_filler {
      type: "constant"
    }
  }
}
layer {
  name: "relu1"
  type: "ReLU"
  bottom: "ip1"
  top: "ip1"
}
layer {
  name: "ip2"
  type: "InnerProduct"
  bottom: "ip1"
  top: "ip2"
  param {
    lr_mult: 1
  }
  param {
    lr_mult: 2
  }
  inner_product_param {
    num_output: 80
    weight_filler {
      type: "gaussian"
      std: 0.01
    }
    bias_filler {
      type: "constant"
    }
  }
}
layer {
  name: "relu2"
  type: "ReLU"
  bottom: "ip2"
  top: "ip2"
}
layer {
  name: "ip3"
  type: "InnerProduct"
  bottom: "ip2"
  top: "ip3"
  param {
    lr_mult: 1
  }
  param {
    lr_mult: 2
  }
  inner_product_param {
    num_output: 10
    weight_filler {
      type: "gaussian"
      std: 0.01
    }
    bias_filler {
      type: "constant"
    }
  }
}
layer {
  name: "relu3"
  type: "ReLU"
  bottom: "ip3"
  top: "ip3"
}
layer {
  name: "ip4"
  type: "InnerProduct"
  bottom: "ip3"
  top: "ip4"
  param {
    lr_mult: 1
  }
  param {
    lr_mult: 2
  }
  inner_product_param {
    num_output: 10
    weight_filler {
      type: "gaussian"
      std: 0.01
    }
    bias_filler {
      type: "constant"
    }
  }
}
layer {
  name: "loss"
  type: "SoftmaxWithLoss"
  bottom: "ip4"
  bottom: "label"
  top: "loss"
}
I0501 05:01:55.126765 27442 layer_factory.hpp:77] Creating layer cifar
I0501 05:01:55.126863 27442 db_lmdb.cpp:35] Opened lmdb examples/cifar10/cifar10_train_lmdb
I0501 05:01:55.126889 27442 net.cpp:86] Creating Layer cifar
I0501 05:01:55.126899 27442 net.cpp:382] cifar -> data
I0501 05:01:55.126921 27442 net.cpp:382] cifar -> label
I0501 05:01:55.126934 27442 data_transformer.cpp:25] Loading mean file from: examples/cifar10/mean.binaryproto
I0501 05:01:55.129118 27442 data_layer.cpp:45] output data size: 111,3,32,32
I0501 05:01:55.137042 27442 net.cpp:124] Setting up cifar
I0501 05:01:55.137066 27442 net.cpp:131] Top shape: 111 3 32 32 (340992)
I0501 05:01:55.137073 27442 net.cpp:131] Top shape: 111 (111)
I0501 05:01:55.137076 27442 net.cpp:139] Memory required for data: 1364412
I0501 05:01:55.137099 27442 layer_factory.hpp:77] Creating layer conv0
I0501 05:01:55.137116 27442 net.cpp:86] Creating Layer conv0
I0501 05:01:55.137121 27442 net.cpp:408] conv0 <- data
I0501 05:01:55.137135 27442 net.cpp:382] conv0 -> conv0
I0501 05:01:55.423851 27442 net.cpp:124] Setting up conv0
I0501 05:01:55.423878 27442 net.cpp:131] Top shape: 111 8 32 32 (909312)
I0501 05:01:55.423883 27442 net.cpp:139] Memory required for data: 5001660
I0501 05:01:55.423898 27442 layer_factory.hpp:77] Creating layer Sigmoid0
I0501 05:01:55.423912 27442 net.cpp:86] Creating Layer Sigmoid0
I0501 05:01:55.423915 27442 net.cpp:408] Sigmoid0 <- conv0
I0501 05:01:55.423920 27442 net.cpp:382] Sigmoid0 -> Sigmoid0
I0501 05:01:55.424094 27442 net.cpp:124] Setting up Sigmoid0
I0501 05:01:55.424104 27442 net.cpp:131] Top shape: 111 8 32 32 (909312)
I0501 05:01:55.424108 27442 net.cpp:139] Memory required for data: 8638908
I0501 05:01:55.424110 27442 layer_factory.hpp:77] Creating layer pool0
I0501 05:01:55.424118 27442 net.cpp:86] Creating Layer pool0
I0501 05:01:55.424121 27442 net.cpp:408] pool0 <- Sigmoid0
I0501 05:01:55.424125 27442 net.cpp:382] pool0 -> pool0
I0501 05:01:55.424895 27442 net.cpp:124] Setting up pool0
I0501 05:01:55.424908 27442 net.cpp:131] Top shape: 111 8 16 16 (227328)
I0501 05:01:55.424911 27442 net.cpp:139] Memory required for data: 9548220
I0501 05:01:55.424916 27442 layer_factory.hpp:77] Creating layer ip1
I0501 05:01:55.424924 27442 net.cpp:86] Creating Layer ip1
I0501 05:01:55.424927 27442 net.cpp:408] ip1 <- pool0
I0501 05:01:55.424933 27442 net.cpp:382] ip1 -> ip1
I0501 05:01:55.427325 27442 net.cpp:124] Setting up ip1
I0501 05:01:55.427332 27442 net.cpp:131] Top shape: 111 40 (4440)
I0501 05:01:55.427335 27442 net.cpp:139] Memory required for data: 9565980
I0501 05:01:55.427343 27442 layer_factory.hpp:77] Creating layer relu1
I0501 05:01:55.427350 27442 net.cpp:86] Creating Layer relu1
I0501 05:01:55.427352 27442 net.cpp:408] relu1 <- ip1
I0501 05:01:55.427357 27442 net.cpp:369] relu1 -> ip1 (in-place)
I0501 05:01:55.427511 27442 net.cpp:124] Setting up relu1
I0501 05:01:55.427520 27442 net.cpp:131] Top shape: 111 40 (4440)
I0501 05:01:55.427523 27442 net.cpp:139] Memory required for data: 9583740
I0501 05:01:55.427526 27442 layer_factory.hpp:77] Creating layer ip2
I0501 05:01:55.427532 27442 net.cpp:86] Creating Layer ip2
I0501 05:01:55.427536 27442 net.cpp:408] ip2 <- ip1
I0501 05:01:55.427541 27442 net.cpp:382] ip2 -> ip2
I0501 05:01:55.427727 27442 net.cpp:124] Setting up ip2
I0501 05:01:55.427736 27442 net.cpp:131] Top shape: 111 80 (8880)
I0501 05:01:55.427738 27442 net.cpp:139] Memory required for data: 9619260
I0501 05:01:55.427745 27442 layer_factory.hpp:77] Creating layer relu2
I0501 05:01:55.427752 27442 net.cpp:86] Creating Layer relu2
I0501 05:01:55.427754 27442 net.cpp:408] relu2 <- ip2
I0501 05:01:55.427758 27442 net.cpp:369] relu2 -> ip2 (in-place)
I0501 05:01:55.427923 27442 net.cpp:124] Setting up relu2
I0501 05:01:55.427933 27442 net.cpp:131] Top shape: 111 80 (8880)
I0501 05:01:55.427937 27442 net.cpp:139] Memory required for data: 9654780
I0501 05:01:55.427940 27442 layer_factory.hpp:77] Creating layer ip3
I0501 05:01:55.427948 27442 net.cpp:86] Creating Layer ip3
I0501 05:01:55.427952 27442 net.cpp:408] ip3 <- ip2
I0501 05:01:55.427956 27442 net.cpp:382] ip3 -> ip3
I0501 05:01:55.428073 27442 net.cpp:124] Setting up ip3
I0501 05:01:55.428081 27442 net.cpp:131] Top shape: 111 10 (1110)
I0501 05:01:55.428084 27442 net.cpp:139] Memory required for data: 9659220
I0501 05:01:55.428089 27442 layer_factory.hpp:77] Creating layer relu3
I0501 05:01:55.428094 27442 net.cpp:86] Creating Layer relu3
I0501 05:01:55.428097 27442 net.cpp:408] relu3 <- ip3
I0501 05:01:55.428102 27442 net.cpp:369] relu3 -> ip3 (in-place)
I0501 05:01:55.428251 27442 net.cpp:124] Setting up relu3
I0501 05:01:55.428258 27442 net.cpp:131] Top shape: 111 10 (1110)
I0501 05:01:55.428261 27442 net.cpp:139] Memory required for data: 9663660
I0501 05:01:55.428266 27442 layer_factory.hpp:77] Creating layer ip4
I0501 05:01:55.428285 27442 net.cpp:86] Creating Layer ip4
I0501 05:01:55.428288 27442 net.cpp:408] ip4 <- ip3
I0501 05:01:55.428293 27442 net.cpp:382] ip4 -> ip4
I0501 05:01:55.428391 27442 net.cpp:124] Setting up ip4
I0501 05:01:55.428400 27442 net.cpp:131] Top shape: 111 10 (1110)
I0501 05:01:55.428403 27442 net.cpp:139] Memory required for data: 9668100
I0501 05:01:55.428411 27442 layer_factory.hpp:77] Creating layer loss
I0501 05:01:55.428422 27442 net.cpp:86] Creating Layer loss
I0501 05:01:55.428426 27442 net.cpp:408] loss <- ip4
I0501 05:01:55.428429 27442 net.cpp:408] loss <- label
I0501 05:01:55.428434 27442 net.cpp:382] loss -> loss
I0501 05:01:55.428447 27442 layer_factory.hpp:77] Creating layer loss
…
I0501 05:01:55.429674 27442 solver.cpp:173] Creating test net (#0) specified by net file: ECE595/cifar/train_test/var_everything/cifar_train_test_405.prototxt
I0501 05:01:55.429702 27442 net.cpp:296] The NetState phase (1) differed from the phase (0) specified by a rule in layer cifar
I0501 05:01:55.429795 27442 net.cpp:53] Initializing net from parameters: 
name: "CIFAR"
state {
  phase: TEST
}
layer {
  name: "cifar"
  type: "Data"
  top: "data"
  top: "label"
  include {
    phase: TEST
  }
  transform_param {
    mean_file: "examples/cifar10/mean.binaryproto"
  }
  data_param {
    source: "examples/cifar10/cifar10_test_lmdb"
    batch_size: 1000
    backend: LMDB
  }
}
layer {
  name: "conv0"
  type: "Convolution"
  bottom: "data"
  top: "conv0"
  param {
    lr_mult: 1
  }
  param {
    lr_mult: 2
  }
  convolution_param {
    num_output: 8
    pad: 2
    kernel_size: 5
    stride: 1
    weight_filler {
      type: "gaussian"
      std: 0.01
    }
    bias_filler {
      type: "constant"
    }
  }
}
layer {
  name: "Sigmoid0"
  type: "Sigmoid"
  bottom: "conv0"
  top: "Sigmoid0"
}
layer {
  name: "pool0"
  type: "Pooling"
  bottom: "Sigmoid0"
  top: "pool0"
  pooling_param {
    pool: AVE
    kernel_size: 3
    stride: 2
  }
}
layer {
  name: "ip1"
  type: "InnerProduct"
  bottom: "pool0"
  top: "ip1"
  param {
    lr_mult: 1
  }
  param {
    lr_mult: 2
  }
  inner_product_param {
    num_output: 40
    weight_filler {
      type: "gaussian"
      std: 0.01
    }
    bias_filler {
      type: "constant"
    }
  }
}
layer {
  name: "relu1"
  type: "ReLU"
  bottom: "ip1"
  top: "ip1"
}
layer {
  name: "ip2"
  type: "InnerProduct"
  bottom: "ip1"
  top: "ip2"
  param {
    lr_mult: 1
  }
  param {
    lr_mult: 2
  }
  inner_product_param {
    num_output: 80
    weight_filler {
      type: "gaussian"
      std: 0.01
    }
    bias_filler {
      type: "constant"
    }
  }
}
layer {
  name: "relu2"
  type: "ReLU"
  bottom: "ip2"
  top: "ip2"
}
layer {
  name: "ip3"
  type: "InnerProduct"
  bottom: "ip2"
  top: "ip3"
  param {
    lr_mult: 1
  }
  param {
    lr_mult: 2
  }
  inner_product_param {
    num_output: 10
    weight_filler {
      type: "gaussian"
      std: 0.01
    }
    bias_filler {
      type: "constant"
    }
  }
}
layer {
  name: "relu3"
  type: "ReLU"
  bottom: "ip3"
  top: "ip3"
}
layer {
  name: "ip4"
  type: "InnerProduct"
  bottom: "ip3"
  top: "ip4"
  param {
    lr_mult: 1
  }
  param {
    lr_mult: 2
  }
  inner_product_param {
    num_output: 10
    weight_filler {
      type: "gaussian"
      std: 0.01
    }
    bias_filler {
      type: "constant"
    }
  }
}
layer {
  name: "accuracy"
  type: "Accuracy"
  bottom: "ip4"
  bottom: "label"
  top: "accuracy"
  include {
    phase: TEST
  }
}
layer {
  name: "loss"
  type: "SoftmaxWithLoss"
  bottom: "ip4"
  bottom: "label"
  top: "loss"
}
I0501 05:01:55.429872 27442 layer_factory.hpp:77] Creating layer cifar
I0501 05:01:55.429918 27442 db_lmdb.cpp:35] Opened lmdb examples/cifar10/cifar10_test_lmdb
I0501 05:01:55.429929 27442 net.cpp:86] Creating Layer cifar
I0501 05:01:55.429934 27442 net.cpp:382] cifar -> data
I0501 05:01:55.429941 27442 net.cpp:382] cifar -> label
I0501 05:01:55.429947 27442 data_transformer.cpp:25] Loading mean file from: examples/cifar10/mean.binaryproto
I0501 05:01:55.430085 27442 data_layer.cpp:45] output data size: 1000,3,32,32
I0501 05:01:55.452478 27442 net.cpp:124] Setting up cifar
I0501 05:01:55.452505 27442 net.cpp:131] Top shape: 1000 3 32 32 (3072000)
I0501 05:01:55.452512 27442 net.cpp:131] Top shape: 1000 (1000)
I0501 05:01:55.452514 27442 net.cpp:139] Memory required for data: 12292000
I0501 05:01:55.452520 27442 layer_factory.hpp:77] Creating layer label_cifar_1_split
I0501 05:01:55.452533 27442 net.cpp:86] Creating Layer label_cifar_1_split
I0501 05:01:55.452536 27442 net.cpp:408] label_cifar_1_split <- label
I0501 05:01:55.452543 27442 net.cpp:382] label_cifar_1_split -> label_cifar_1_split_0
I0501 05:01:55.452551 27442 net.cpp:382] label_cifar_1_split -> label_cifar_1_split_1
I0501 05:01:55.452644 27442 net.cpp:124] Setting up label_cifar_1_split
I0501 05:01:55.452652 27442 net.cpp:131] Top shape: 1000 (1000)
I0501 05:01:55.452656 27442 net.cpp:131] Top shape: 1000 (1000)
I0501 05:01:55.452659 27442 net.cpp:139] Memory required for data: 12300000
I0501 05:01:55.452662 27442 layer_factory.hpp:77] Creating layer conv0
I0501 05:01:55.452674 27442 net.cpp:86] Creating Layer conv0
I0501 05:01:55.452677 27442 net.cpp:408] conv0 <- data
I0501 05:01:55.452683 27442 net.cpp:382] conv0 -> conv0
I0501 05:01:55.454397 27442 net.cpp:124] Setting up conv0
I0501 05:01:55.454411 27442 net.cpp:131] Top shape: 1000 8 32 32 (8192000)
I0501 05:01:55.454416 27442 net.cpp:139] Memory required for data: 45068000
I0501 05:01:55.454424 27442 layer_factory.hpp:77] Creating layer Sigmoid0
I0501 05:01:55.454437 27442 net.cpp:86] Creating Layer Sigmoid0
I0501 05:01:55.454440 27442 net.cpp:408] Sigmoid0 <- conv0
I0501 05:01:55.454445 27442 net.cpp:382] Sigmoid0 -> Sigmoid0
I0501 05:01:55.454648 27442 net.cpp:124] Setting up Sigmoid0
I0501 05:01:55.454659 27442 net.cpp:131] Top shape: 1000 8 32 32 (8192000)
I0501 05:01:55.454663 27442 net.cpp:139] Memory required for data: 77836000
I0501 05:01:55.454665 27442 layer_factory.hpp:77] Creating layer pool0
I0501 05:01:55.454672 27442 net.cpp:86] Creating Layer pool0
I0501 05:01:55.454675 27442 net.cpp:408] pool0 <- Sigmoid0
I0501 05:01:55.454679 27442 net.cpp:382] pool0 -> pool0
I0501 05:01:55.454843 27442 net.cpp:124] Setting up pool0
I0501 05:01:55.454851 27442 net.cpp:131] Top shape: 1000 8 16 16 (2048000)
I0501 05:01:55.454854 27442 net.cpp:139] Memory required for data: 86028000
I0501 05:01:55.454857 27442 layer_factory.hpp:77] Creating layer ip1
I0501 05:01:55.454864 27442 net.cpp:86] Creating Layer ip1
I0501 05:01:55.454867 27442 net.cpp:408] ip1 <- pool0
I0501 05:01:55.454872 27442 net.cpp:382] ip1 -> ip1
I0501 05:01:55.457114 27442 net.cpp:124] Setting up ip1
I0501 05:01:55.457126 27442 net.cpp:131] Top shape: 1000 40 (40000)
I0501 05:01:55.457129 27442 net.cpp:139] Memory required for data: 86188000
I0501 05:01:55.457151 27442 layer_factory.hpp:77] Creating layer relu1
I0501 05:01:55.457157 27442 net.cpp:86] Creating Layer relu1
I0501 05:01:55.457160 27442 net.cpp:408] relu1 <- ip1
I0501 05:01:55.457165 27442 net.cpp:369] relu1 -> ip1 (in-place)
I0501 05:01:55.457330 27442 net.cpp:124] Setting up relu1
I0501 05:01:55.457340 27442 net.cpp:131] Top shape: 1000 40 (40000)
I0501 05:01:55.457343 27442 net.cpp:139] Memory required for data: 86348000
I0501 05:01:55.457346 27442 layer_factory.hpp:77] Creating layer ip2
I0501 05:01:55.457352 27442 net.cpp:86] Creating Layer ip2
I0501 05:01:55.457355 27442 net.cpp:408] ip2 <- ip1
I0501 05:01:55.457361 27442 net.cpp:382] ip2 -> ip2
I0501 05:01:55.457551 27442 net.cpp:124] Setting up ip2
I0501 05:01:55.457557 27442 net.cpp:131] Top shape: 1000 80 (80000)
I0501 05:01:55.457561 27442 net.cpp:139] Memory required for data: 86668000
I0501 05:01:55.457567 27442 layer_factory.hpp:77] Creating layer relu2
I0501 05:01:55.457574 27442 net.cpp:86] Creating Layer relu2
I0501 05:01:55.457577 27442 net.cpp:408] relu2 <- ip2
I0501 05:01:55.457581 27442 net.cpp:369] relu2 -> ip2 (in-place)
I0501 05:01:55.458348 27442 net.cpp:124] Setting up relu2
I0501 05:01:55.458364 27442 net.cpp:131] Top shape: 1000 80 (80000)
I0501 05:01:55.458367 27442 net.cpp:139] Memory required for data: 86988000
I0501 05:01:55.458371 27442 layer_factory.hpp:77] Creating layer ip3
I0501 05:01:55.458377 27442 net.cpp:86] Creating Layer ip3
I0501 05:01:55.458380 27442 net.cpp:408] ip3 <- ip2
I0501 05:01:55.458386 27442 net.cpp:382] ip3 -> ip3
I0501 05:01:55.458514 27442 net.cpp:124] Setting up ip3
I0501 05:01:55.458523 27442 net.cpp:131] Top shape: 1000 10 (10000)
I0501 05:01:55.458525 27442 net.cpp:139] Memory required for data: 87028000
I0501 05:01:55.458530 27442 layer_factory.hpp:77] Creating layer relu3
I0501 05:01:55.458535 27442 net.cpp:86] Creating Layer relu3
I0501 05:01:55.458539 27442 net.cpp:408] relu3 <- ip3
I0501 05:01:55.458542 27442 net.cpp:369] relu3 -> ip3 (in-place)
I0501 05:01:55.458709 27442 net.cpp:124] Setting up relu3
I0501 05:01:55.458716 27442 net.cpp:131] Top shape: 1000 10 (10000)
I0501 05:01:55.458719 27442 net.cpp:139] Memory required for data: 87068000
I0501 05:01:55.458724 27442 layer_factory.hpp:77] Creating layer ip4
I0501 05:01:55.458729 27442 net.cpp:86] Creating Layer ip4
I0501 05:01:55.458734 27442 net.cpp:408] ip4 <- ip3
I0501 05:01:55.458739 27442 net.cpp:382] ip4 -> ip4
I0501 05:01:55.458844 27442 net.cpp:124] Setting up ip4
I0501 05:01:55.458851 27442 net.cpp:131] Top shape: 1000 10 (10000)
I0501 05:01:55.458854 27442 net.cpp:139] Memory required for data: 87108000
I0501 05:01:55.458863 27442 layer_factory.hpp:77] Creating layer ip4_ip4_0_split
I0501 05:01:55.458868 27442 net.cpp:86] Creating Layer ip4_ip4_0_split
I0501 05:01:55.458870 27442 net.cpp:408] ip4_ip4_0_split <- ip4
I0501 05:01:55.458875 27442 net.cpp:382] ip4_ip4_0_split -> ip4_ip4_0_split_0
I0501 05:01:55.458880 27442 net.cpp:382] ip4_ip4_0_split -> ip4_ip4_0_split_1
I0501 05:01:55.458911 27442 net.cpp:124] Setting up ip4_ip4_0_split
I0501 05:01:55.458922 27442 net.cpp:131] Top shape: 1000 10 (10000)
I0501 05:01:55.458926 27442 net.cpp:131] Top shape: 1000 10 (10000)
I0501 05:01:55.458928 27442 net.cpp:139] Memory required for data: 87188000
I0501 05:01:55.458931 27442 layer_factory.hpp:77] Creating layer accuracy
I0501 05:01:55.458938 27442 net.cpp:86] Creating Layer accuracy
I0501 05:01:55.458941 27442 net.cpp:408] accuracy <- ip4_ip4_0_split_0
I0501 05:01:55.458945 27442 net.cpp:408] accuracy <- label_cifar_1_split_0
I0501 05:01:55.458950 27442 net.cpp:382] accuracy -> accuracy
…
