…
I0430 16:47:46.951756 18297 net.cpp:296] The NetState phase (0) differed from the phase (1) specified by a rule in layer cifar
I0430 16:47:46.951769 18297 net.cpp:296] The NetState phase (0) differed from the phase (1) specified by a rule in layer accuracy
I0430 16:47:46.951843 18297 net.cpp:53] Initializing net from parameters: 
name: "CIFAR"
state {
  phase: TRAIN
  level: 0
  stage: ""
}
layer {
  name: "cifar"
  type: "Data"
  top: "data"
  top: "label"
  include {
    phase: TRAIN
  }
  transform_param {
    mean_file: "examples/cifar10/mean.binaryproto"
  }
  data_param {
    source: "examples/cifar10/cifar10_train_lmdb"
    batch_size: 111
    backend: LMDB
  }
}
layer {
  name: "ip1"
  type: "InnerProduct"
  bottom: "data"
  top: "ip1"
  param {
    lr_mult: 1
  }
  param {
    lr_mult: 2
  }
  inner_product_param {
    num_output: 20
    weight_filler {
      type: "gaussian"
      std: 0.01
    }
    bias_filler {
      type: "constant"
    }
  }
}
layer {
  name: "relu1"
  type: "ReLU"
  bottom: "ip1"
  top: "ip1"
}
layer {
  name: "ip2"
  type: "InnerProduct"
  bottom: "ip1"
  top: "ip2"
  param {
    lr_mult: 1
  }
  param {
    lr_mult: 2
  }
  inner_product_param {
    num_output: 160
    weight_filler {
      type: "gaussian"
      std: 0.01
    }
    bias_filler {
      type: "constant"
    }
  }
}
layer {
  name: "relu2"
  type: "ReLU"
  bottom: "ip2"
  top: "ip2"
}
layer {
  name: "ip3"
  type: "InnerProduct"
  bottom: "ip2"
  top: "ip3"
  param {
    lr_mult: 1
  }
  param {
    lr_mult: 2
  }
  inner_product_param {
    num_output: 10
    weight_filler {
      type: "gaussian"
      std: 0.01
    }
    bias_filler {
      type: "constant"
    }
  }
}
layer {
  name: "loss"
  type: "SoftmaxWithLoss"
  bottom: "ip3"
  bottom: "label"
  top: "loss"
}
I0430 16:47:46.951908 18297 layer_factory.hpp:77] Creating layer cifar
I0430 16:47:46.952004 18297 db_lmdb.cpp:35] Opened lmdb examples/cifar10/cifar10_train_lmdb
I0430 16:47:46.952029 18297 net.cpp:86] Creating Layer cifar
I0430 16:47:46.952039 18297 net.cpp:382] cifar -> data
I0430 16:47:46.952059 18297 net.cpp:382] cifar -> label
I0430 16:47:46.952075 18297 data_transformer.cpp:25] Loading mean file from: examples/cifar10/mean.binaryproto
I0430 16:47:46.954181 18297 data_layer.cpp:45] output data size: 111,3,32,32
I0430 16:47:46.962069 18297 net.cpp:124] Setting up cifar
I0430 16:47:46.962087 18297 net.cpp:131] Top shape: 111 3 32 32 (340992)
I0430 16:47:46.962093 18297 net.cpp:131] Top shape: 111 (111)
I0430 16:47:46.962097 18297 net.cpp:139] Memory required for data: 1364412
I0430 16:47:46.962103 18297 layer_factory.hpp:77] Creating layer ip1
I0430 16:47:46.962115 18297 net.cpp:86] Creating Layer ip1
I0430 16:47:46.962119 18297 net.cpp:408] ip1 <- data
I0430 16:47:46.962132 18297 net.cpp:382] ip1 -> ip1
I0430 16:47:46.965298 18297 net.cpp:124] Setting up ip1
I0430 16:47:46.965314 18297 net.cpp:131] Top shape: 111 20 (2220)
I0430 16:47:46.965318 18297 net.cpp:139] Memory required for data: 1373292
I0430 16:47:46.965334 18297 layer_factory.hpp:77] Creating layer relu1
I0430 16:47:46.965343 18297 net.cpp:86] Creating Layer relu1
I0430 16:47:46.965348 18297 net.cpp:408] relu1 <- ip1
I0430 16:47:46.965354 18297 net.cpp:369] relu1 -> ip1 (in-place)
I0430 16:47:47.234705 18297 net.cpp:124] Setting up relu1
I0430 16:47:47.234748 18297 net.cpp:131] Top shape: 111 20 (2220)
I0430 16:47:47.234752 18297 net.cpp:139] Memory required for data: 1382172
I0430 16:47:47.234776 18297 layer_factory.hpp:77] Creating layer ip2
I0430 16:47:47.234789 18297 net.cpp:86] Creating Layer ip2
I0430 16:47:47.234793 18297 net.cpp:408] ip2 <- ip1
I0430 16:47:47.234802 18297 net.cpp:382] ip2 -> ip2
I0430 16:47:47.234990 18297 net.cpp:124] Setting up ip2
I0430 16:47:47.234998 18297 net.cpp:131] Top shape: 111 160 (17760)
I0430 16:47:47.235002 18297 net.cpp:139] Memory required for data: 1453212
I0430 16:47:47.235011 18297 layer_factory.hpp:77] Creating layer relu2
I0430 16:47:47.235019 18297 net.cpp:86] Creating Layer relu2
I0430 16:47:47.235024 18297 net.cpp:408] relu2 <- ip2
I0430 16:47:47.235028 18297 net.cpp:369] relu2 -> ip2 (in-place)
I0430 16:47:47.235759 18297 net.cpp:124] Setting up relu2
I0430 16:47:47.235771 18297 net.cpp:131] Top shape: 111 160 (17760)
I0430 16:47:47.235790 18297 net.cpp:139] Memory required for data: 1524252
I0430 16:47:47.235793 18297 layer_factory.hpp:77] Creating layer ip3
I0430 16:47:47.235816 18297 net.cpp:86] Creating Layer ip3
I0430 16:47:47.235819 18297 net.cpp:408] ip3 <- ip2
I0430 16:47:47.235824 18297 net.cpp:382] ip3 -> ip3
I0430 16:47:47.235957 18297 net.cpp:124] Setting up ip3
I0430 16:47:47.235965 18297 net.cpp:131] Top shape: 111 10 (1110)
I0430 16:47:47.235968 18297 net.cpp:139] Memory required for data: 1528692
I0430 16:47:47.235975 18297 layer_factory.hpp:77] Creating layer loss
I0430 16:47:47.235980 18297 net.cpp:86] Creating Layer loss
I0430 16:47:47.235985 18297 net.cpp:408] loss <- ip3
I0430 16:47:47.235987 18297 net.cpp:408] loss <- label
I0430 16:47:47.235993 18297 net.cpp:382] loss -> loss
I0430 16:47:47.236011 18297 layer_factory.hpp:77] Creating layer loss
…
I0430 16:47:47.236521 18297 solver.cpp:173] Creating test net (#0) specified by net file: ECE595/cifar/train_test/var_everything/cifar_train_test_14.prototxt
I0430 16:47:47.236541 18297 net.cpp:296] The NetState phase (1) differed from the phase (0) specified by a rule in layer cifar
I0430 16:47:47.236608 18297 net.cpp:53] Initializing net from parameters: 
name: "CIFAR"
state {
  phase: TEST
}
layer {
  name: "cifar"
  type: "Data"
  top: "data"
  top: "label"
  include {
    phase: TEST
  }
  transform_param {
    mean_file: "examples/cifar10/mean.binaryproto"
  }
  data_param {
    source: "examples/cifar10/cifar10_test_lmdb"
    batch_size: 1000
    backend: LMDB
  }
}
layer {
  name: "ip1"
  type: "InnerProduct"
  bottom: "data"
  top: "ip1"
  param {
    lr_mult: 1
  }
  param {
    lr_mult: 2
  }
  inner_product_param {
    num_output: 20
    weight_filler {
      type: "gaussian"
      std: 0.01
    }
    bias_filler {
      type: "constant"
    }
  }
}
layer {
  name: "relu1"
  type: "ReLU"
  bottom: "ip1"
  top: "ip1"
}
layer {
  name: "ip2"
  type: "InnerProduct"
  bottom: "ip1"
  top: "ip2"
  param {
    lr_mult: 1
  }
  param {
    lr_mult: 2
  }
  inner_product_param {
    num_output: 160
    weight_filler {
      type: "gaussian"
      std: 0.01
    }
    bias_filler {
      type: "constant"
    }
  }
}
layer {
  name: "relu2"
  type: "ReLU"
  bottom: "ip2"
  top: "ip2"
}
layer {
  name: "ip3"
  type: "InnerProduct"
  bottom: "ip2"
  top: "ip3"
  param {
    lr_mult: 1
  }
  param {
    lr_mult: 2
  }
  inner_product_param {
    num_output: 10
    weight_filler {
      type: "gaussian"
      std: 0.01
    }
    bias_filler {
      type: "constant"
    }
  }
}
layer {
  name: "accuracy"
  type: "Accuracy"
  bottom: "ip3"
  bottom: "label"
  top: "accuracy"
  include {
    phase: TEST
  }
}
layer {
  name: "loss"
  type: "SoftmaxWithLoss"
  bottom: "ip3"
  bottom: "label"
  top: "loss"
}
I0430 16:47:47.236668 18297 layer_factory.hpp:77] Creating layer cifar
I0430 16:47:47.236711 18297 db_lmdb.cpp:35] Opened lmdb examples/cifar10/cifar10_test_lmdb
I0430 16:47:47.236723 18297 net.cpp:86] Creating Layer cifar
I0430 16:47:47.236727 18297 net.cpp:382] cifar -> data
I0430 16:47:47.236735 18297 net.cpp:382] cifar -> label
I0430 16:47:47.236742 18297 data_transformer.cpp:25] Loading mean file from: examples/cifar10/mean.binaryproto
I0430 16:47:47.236927 18297 data_layer.cpp:45] output data size: 1000,3,32,32
I0430 16:47:47.259821 18297 net.cpp:124] Setting up cifar
I0430 16:47:47.259850 18297 net.cpp:131] Top shape: 1000 3 32 32 (3072000)
I0430 16:47:47.259855 18297 net.cpp:131] Top shape: 1000 (1000)
I0430 16:47:47.259858 18297 net.cpp:139] Memory required for data: 12292000
I0430 16:47:47.259863 18297 layer_factory.hpp:77] Creating layer label_cifar_1_split
I0430 16:47:47.259896 18297 net.cpp:86] Creating Layer label_cifar_1_split
I0430 16:47:47.259901 18297 net.cpp:408] label_cifar_1_split <- label
I0430 16:47:47.259907 18297 net.cpp:382] label_cifar_1_split -> label_cifar_1_split_0
I0430 16:47:47.259915 18297 net.cpp:382] label_cifar_1_split -> label_cifar_1_split_1
I0430 16:47:47.259986 18297 net.cpp:124] Setting up label_cifar_1_split
I0430 16:47:47.259995 18297 net.cpp:131] Top shape: 1000 (1000)
I0430 16:47:47.259999 18297 net.cpp:131] Top shape: 1000 (1000)
I0430 16:47:47.260001 18297 net.cpp:139] Memory required for data: 12300000
I0430 16:47:47.260004 18297 layer_factory.hpp:77] Creating layer ip1
I0430 16:47:47.260015 18297 net.cpp:86] Creating Layer ip1
I0430 16:47:47.260017 18297 net.cpp:408] ip1 <- data
I0430 16:47:47.260022 18297 net.cpp:382] ip1 -> ip1
I0430 16:47:47.262578 18297 net.cpp:124] Setting up ip1
I0430 16:47:47.262588 18297 net.cpp:131] Top shape: 1000 20 (20000)
I0430 16:47:47.262594 18297 net.cpp:139] Memory required for data: 12380000
I0430 16:47:47.262619 18297 layer_factory.hpp:77] Creating layer relu1
I0430 16:47:47.262625 18297 net.cpp:86] Creating Layer relu1
I0430 16:47:47.262629 18297 net.cpp:408] relu1 <- ip1
I0430 16:47:47.262634 18297 net.cpp:369] relu1 -> ip1 (in-place)
I0430 16:47:47.262812 18297 net.cpp:124] Setting up relu1
I0430 16:47:47.262821 18297 net.cpp:131] Top shape: 1000 20 (20000)
I0430 16:47:47.262825 18297 net.cpp:139] Memory required for data: 12460000
I0430 16:47:47.262828 18297 layer_factory.hpp:77] Creating layer ip2
I0430 16:47:47.262836 18297 net.cpp:86] Creating Layer ip2
I0430 16:47:47.262840 18297 net.cpp:408] ip2 <- ip1
I0430 16:47:47.262845 18297 net.cpp:382] ip2 -> ip2
I0430 16:47:47.263025 18297 net.cpp:124] Setting up ip2
I0430 16:47:47.263032 18297 net.cpp:131] Top shape: 1000 160 (160000)
I0430 16:47:47.263036 18297 net.cpp:139] Memory required for data: 13100000
I0430 16:47:47.263042 18297 layer_factory.hpp:77] Creating layer relu2
I0430 16:47:47.263047 18297 net.cpp:86] Creating Layer relu2
I0430 16:47:47.263051 18297 net.cpp:408] relu2 <- ip2
I0430 16:47:47.263053 18297 net.cpp:369] relu2 -> ip2 (in-place)
I0430 16:47:47.263792 18297 net.cpp:124] Setting up relu2
I0430 16:47:47.263805 18297 net.cpp:131] Top shape: 1000 160 (160000)
I0430 16:47:47.263808 18297 net.cpp:139] Memory required for data: 13740000
I0430 16:47:47.263811 18297 layer_factory.hpp:77] Creating layer ip3
I0430 16:47:47.263834 18297 net.cpp:86] Creating Layer ip3
I0430 16:47:47.263837 18297 net.cpp:408] ip3 <- ip2
I0430 16:47:47.263844 18297 net.cpp:382] ip3 -> ip3
I0430 16:47:47.263988 18297 net.cpp:124] Setting up ip3
I0430 16:47:47.263996 18297 net.cpp:131] Top shape: 1000 10 (10000)
I0430 16:47:47.263999 18297 net.cpp:139] Memory required for data: 13780000
I0430 16:47:47.264022 18297 layer_factory.hpp:77] Creating layer ip3_ip3_0_split
I0430 16:47:47.264029 18297 net.cpp:86] Creating Layer ip3_ip3_0_split
I0430 16:47:47.264031 18297 net.cpp:408] ip3_ip3_0_split <- ip3
I0430 16:47:47.264035 18297 net.cpp:382] ip3_ip3_0_split -> ip3_ip3_0_split_0
I0430 16:47:47.264041 18297 net.cpp:382] ip3_ip3_0_split -> ip3_ip3_0_split_1
I0430 16:47:47.264075 18297 net.cpp:124] Setting up ip3_ip3_0_split
I0430 16:47:47.264086 18297 net.cpp:131] Top shape: 1000 10 (10000)
I0430 16:47:47.264089 18297 net.cpp:131] Top shape: 1000 10 (10000)
I0430 16:47:47.264092 18297 net.cpp:139] Memory required for data: 13860000
I0430 16:47:47.264096 18297 layer_factory.hpp:77] Creating layer accuracy
I0430 16:47:47.264106 18297 net.cpp:86] Creating Layer accuracy
I0430 16:47:47.264117 18297 net.cpp:408] accuracy <- ip3_ip3_0_split_0
I0430 16:47:47.264120 18297 net.cpp:408] accuracy <- label_cifar_1_split_0
I0430 16:47:47.264124 18297 net.cpp:382] accuracy -> accuracy
…
