…
I0501 03:43:56.743418 22368 net.cpp:296] The NetState phase (0) differed from the phase (1) specified by a rule in layer cifar
I0501 03:43:56.743444 22368 net.cpp:296] The NetState phase (0) differed from the phase (1) specified by a rule in layer accuracy
I0501 03:43:56.743559 22368 net.cpp:53] Initializing net from parameters: 
name: "CIFAR"
state {
  phase: TRAIN
  level: 0
  stage: ""
}
layer {
  name: "cifar"
  type: "Data"
  top: "data"
  top: "label"
  include {
    phase: TRAIN
  }
  transform_param {
    mean_file: "examples/cifar10/mean.binaryproto"
  }
  data_param {
    source: "examples/cifar10/cifar10_train_lmdb"
    batch_size: 111
    backend: LMDB
  }
}
layer {
  name: "conv0"
  type: "Convolution"
  bottom: "data"
  top: "conv0"
  param {
    lr_mult: 1
  }
  param {
    lr_mult: 2
  }
  convolution_param {
    num_output: 8
    pad: 2
    kernel_size: 5
    stride: 1
    weight_filler {
      type: "gaussian"
      std: 0.01
    }
    bias_filler {
      type: "constant"
    }
  }
}
layer {
  name: "Sigmoid0"
  type: "Sigmoid"
  bottom: "conv0"
  top: "Sigmoid0"
}
layer {
  name: "pool0"
  type: "Pooling"
  bottom: "Sigmoid0"
  top: "pool0"
  pooling_param {
    pool: AVE
    kernel_size: 3
    stride: 2
  }
}
layer {
  name: "ip1"
  type: "InnerProduct"
  bottom: "pool0"
  top: "ip1"
  param {
    lr_mult: 1
  }
  param {
    lr_mult: 2
  }
  inner_product_param {
    num_output: 10
    weight_filler {
      type: "gaussian"
      std: 0.01
    }
    bias_filler {
      type: "constant"
    }
  }
}
layer {
  name: "relu1"
  type: "ReLU"
  bottom: "ip1"
  top: "ip1"
}
layer {
  name: "ip2"
  type: "InnerProduct"
  bottom: "ip1"
  top: "ip2"
  param {
    lr_mult: 1
  }
  param {
    lr_mult: 2
  }
  inner_product_param {
    num_output: 160
    weight_filler {
      type: "gaussian"
      std: 0.01
    }
    bias_filler {
      type: "constant"
    }
  }
}
layer {
  name: "relu2"
  type: "ReLU"
  bottom: "ip2"
  top: "ip2"
}
layer {
  name: "ip3"
  type: "InnerProduct"
  bottom: "ip2"
  top: "ip3"
  param {
    lr_mult: 1
  }
  param {
    lr_mult: 2
  }
  inner_product_param {
    num_output: 80
    weight_filler {
      type: "gaussian"
      std: 0.01
    }
    bias_filler {
      type: "constant"
    }
  }
}
layer {
  name: "relu3"
  type: "ReLU"
  bottom: "ip3"
  top: "ip3"
}
layer {
  name: "ip4"
  type: "InnerProduct"
  bottom: "ip3"
  top: "ip4"
  param {
    lr_mult: 1
  }
  param {
    lr_mult: 2
  }
  inner_product_param {
    num_output: 10
    weight_filler {
      type: "gaussian"
      std: 0.01
    }
    bias_filler {
      type: "constant"
    }
  }
}
layer {
  name: "loss"
  type: "SoftmaxWithLoss"
  bottom: "ip4"
  bottom: "label"
  top: "loss"
}
I0501 03:43:56.743639 22368 layer_factory.hpp:77] Creating layer cifar
I0501 03:43:56.743739 22368 db_lmdb.cpp:35] Opened lmdb examples/cifar10/cifar10_train_lmdb
I0501 03:43:56.743767 22368 net.cpp:86] Creating Layer cifar
I0501 03:43:56.743775 22368 net.cpp:382] cifar -> data
I0501 03:43:56.743798 22368 net.cpp:382] cifar -> label
I0501 03:43:56.743813 22368 data_transformer.cpp:25] Loading mean file from: examples/cifar10/mean.binaryproto
I0501 03:43:56.745932 22368 data_layer.cpp:45] output data size: 111,3,32,32
I0501 03:43:56.753801 22368 net.cpp:124] Setting up cifar
I0501 03:43:56.753820 22368 net.cpp:131] Top shape: 111 3 32 32 (340992)
I0501 03:43:56.753828 22368 net.cpp:131] Top shape: 111 (111)
I0501 03:43:56.753831 22368 net.cpp:139] Memory required for data: 1364412
I0501 03:43:56.753854 22368 layer_factory.hpp:77] Creating layer conv0
I0501 03:43:56.753871 22368 net.cpp:86] Creating Layer conv0
I0501 03:43:56.753877 22368 net.cpp:408] conv0 <- data
I0501 03:43:56.753891 22368 net.cpp:382] conv0 -> conv0
I0501 03:43:57.026901 22368 net.cpp:124] Setting up conv0
I0501 03:43:57.026943 22368 net.cpp:131] Top shape: 111 8 32 32 (909312)
I0501 03:43:57.026947 22368 net.cpp:139] Memory required for data: 5001660
I0501 03:43:57.026962 22368 layer_factory.hpp:77] Creating layer Sigmoid0
I0501 03:43:57.026973 22368 net.cpp:86] Creating Layer Sigmoid0
I0501 03:43:57.026978 22368 net.cpp:408] Sigmoid0 <- conv0
I0501 03:43:57.026983 22368 net.cpp:382] Sigmoid0 -> Sigmoid0
I0501 03:43:57.027168 22368 net.cpp:124] Setting up Sigmoid0
I0501 03:43:57.027176 22368 net.cpp:131] Top shape: 111 8 32 32 (909312)
I0501 03:43:57.027180 22368 net.cpp:139] Memory required for data: 8638908
I0501 03:43:57.027184 22368 layer_factory.hpp:77] Creating layer pool0
I0501 03:43:57.027189 22368 net.cpp:86] Creating Layer pool0
I0501 03:43:57.027192 22368 net.cpp:408] pool0 <- Sigmoid0
I0501 03:43:57.027196 22368 net.cpp:382] pool0 -> pool0
I0501 03:43:57.027890 22368 net.cpp:124] Setting up pool0
I0501 03:43:57.027902 22368 net.cpp:131] Top shape: 111 8 16 16 (227328)
I0501 03:43:57.027921 22368 net.cpp:139] Memory required for data: 9548220
I0501 03:43:57.027925 22368 layer_factory.hpp:77] Creating layer ip1
I0501 03:43:57.027933 22368 net.cpp:86] Creating Layer ip1
I0501 03:43:57.027937 22368 net.cpp:408] ip1 <- pool0
I0501 03:43:57.027942 22368 net.cpp:382] ip1 -> ip1
I0501 03:43:57.029402 22368 net.cpp:124] Setting up ip1
I0501 03:43:57.029415 22368 net.cpp:131] Top shape: 111 10 (1110)
I0501 03:43:57.029418 22368 net.cpp:139] Memory required for data: 9552660
I0501 03:43:57.029425 22368 layer_factory.hpp:77] Creating layer relu1
I0501 03:43:57.029431 22368 net.cpp:86] Creating Layer relu1
I0501 03:43:57.029434 22368 net.cpp:408] relu1 <- ip1
I0501 03:43:57.029438 22368 net.cpp:369] relu1 -> ip1 (in-place)
I0501 03:43:57.029594 22368 net.cpp:124] Setting up relu1
I0501 03:43:57.029603 22368 net.cpp:131] Top shape: 111 10 (1110)
I0501 03:43:57.029606 22368 net.cpp:139] Memory required for data: 9557100
I0501 03:43:57.029609 22368 layer_factory.hpp:77] Creating layer ip2
I0501 03:43:57.029614 22368 net.cpp:86] Creating Layer ip2
I0501 03:43:57.029618 22368 net.cpp:408] ip2 <- ip1
I0501 03:43:57.029623 22368 net.cpp:382] ip2 -> ip2
I0501 03:43:57.029745 22368 net.cpp:124] Setting up ip2
I0501 03:43:57.029752 22368 net.cpp:131] Top shape: 111 160 (17760)
I0501 03:43:57.029755 22368 net.cpp:139] Memory required for data: 9628140
I0501 03:43:57.029762 22368 layer_factory.hpp:77] Creating layer relu2
I0501 03:43:57.029767 22368 net.cpp:86] Creating Layer relu2
I0501 03:43:57.029769 22368 net.cpp:408] relu2 <- ip2
I0501 03:43:57.029772 22368 net.cpp:369] relu2 -> ip2 (in-place)
I0501 03:43:57.029911 22368 net.cpp:124] Setting up relu2
I0501 03:43:57.029918 22368 net.cpp:131] Top shape: 111 160 (17760)
I0501 03:43:57.029922 22368 net.cpp:139] Memory required for data: 9699180
I0501 03:43:57.029924 22368 layer_factory.hpp:77] Creating layer ip3
I0501 03:43:57.029930 22368 net.cpp:86] Creating Layer ip3
I0501 03:43:57.029933 22368 net.cpp:408] ip3 <- ip2
I0501 03:43:57.029937 22368 net.cpp:382] ip3 -> ip3
I0501 03:43:57.031157 22368 net.cpp:124] Setting up ip3
I0501 03:43:57.031167 22368 net.cpp:131] Top shape: 111 80 (8880)
I0501 03:43:57.031186 22368 net.cpp:139] Memory required for data: 9734700
I0501 03:43:57.031193 22368 layer_factory.hpp:77] Creating layer relu3
I0501 03:43:57.031198 22368 net.cpp:86] Creating Layer relu3
I0501 03:43:57.031200 22368 net.cpp:408] relu3 <- ip3
I0501 03:43:57.031204 22368 net.cpp:369] relu3 -> ip3 (in-place)
I0501 03:43:57.031368 22368 net.cpp:124] Setting up relu3
I0501 03:43:57.031376 22368 net.cpp:131] Top shape: 111 80 (8880)
I0501 03:43:57.031379 22368 net.cpp:139] Memory required for data: 9770220
I0501 03:43:57.031383 22368 layer_factory.hpp:77] Creating layer ip4
I0501 03:43:57.031402 22368 net.cpp:86] Creating Layer ip4
I0501 03:43:57.031405 22368 net.cpp:408] ip4 <- ip3
I0501 03:43:57.031410 22368 net.cpp:382] ip4 -> ip4
I0501 03:43:57.031529 22368 net.cpp:124] Setting up ip4
I0501 03:43:57.031536 22368 net.cpp:131] Top shape: 111 10 (1110)
I0501 03:43:57.031539 22368 net.cpp:139] Memory required for data: 9774660
I0501 03:43:57.031546 22368 layer_factory.hpp:77] Creating layer loss
I0501 03:43:57.031551 22368 net.cpp:86] Creating Layer loss
I0501 03:43:57.031554 22368 net.cpp:408] loss <- ip4
I0501 03:43:57.031558 22368 net.cpp:408] loss <- label
I0501 03:43:57.031569 22368 net.cpp:382] loss -> loss
I0501 03:43:57.031580 22368 layer_factory.hpp:77] Creating layer loss
…
I0501 03:43:57.032793 22368 solver.cpp:173] Creating test net (#0) specified by net file: ECE595/cifar/train_test/var_everything/cifar_train_test_363.prototxt
I0501 03:43:57.032840 22368 net.cpp:296] The NetState phase (1) differed from the phase (0) specified by a rule in layer cifar
I0501 03:43:57.032954 22368 net.cpp:53] Initializing net from parameters: 
name: "CIFAR"
state {
  phase: TEST
}
layer {
  name: "cifar"
  type: "Data"
  top: "data"
  top: "label"
  include {
    phase: TEST
  }
  transform_param {
    mean_file: "examples/cifar10/mean.binaryproto"
  }
  data_param {
    source: "examples/cifar10/cifar10_test_lmdb"
    batch_size: 1000
    backend: LMDB
  }
}
layer {
  name: "conv0"
  type: "Convolution"
  bottom: "data"
  top: "conv0"
  param {
    lr_mult: 1
  }
  param {
    lr_mult: 2
  }
  convolution_param {
    num_output: 8
    pad: 2
    kernel_size: 5
    stride: 1
    weight_filler {
      type: "gaussian"
      std: 0.01
    }
    bias_filler {
      type: "constant"
    }
  }
}
layer {
  name: "Sigmoid0"
  type: "Sigmoid"
  bottom: "conv0"
  top: "Sigmoid0"
}
layer {
  name: "pool0"
  type: "Pooling"
  bottom: "Sigmoid0"
  top: "pool0"
  pooling_param {
    pool: AVE
    kernel_size: 3
    stride: 2
  }
}
layer {
  name: "ip1"
  type: "InnerProduct"
  bottom: "pool0"
  top: "ip1"
  param {
    lr_mult: 1
  }
  param {
    lr_mult: 2
  }
  inner_product_param {
    num_output: 10
    weight_filler {
      type: "gaussian"
      std: 0.01
    }
    bias_filler {
      type: "constant"
    }
  }
}
layer {
  name: "relu1"
  type: "ReLU"
  bottom: "ip1"
  top: "ip1"
}
layer {
  name: "ip2"
  type: "InnerProduct"
  bottom: "ip1"
  top: "ip2"
  param {
    lr_mult: 1
  }
  param {
    lr_mult: 2
  }
  inner_product_param {
    num_output: 160
    weight_filler {
      type: "gaussian"
      std: 0.01
    }
    bias_filler {
      type: "constant"
    }
  }
}
layer {
  name: "relu2"
  type: "ReLU"
  bottom: "ip2"
  top: "ip2"
}
layer {
  name: "ip3"
  type: "InnerProduct"
  bottom: "ip2"
  top: "ip3"
  param {
    lr_mult: 1
  }
  param {
    lr_mult: 2
  }
  inner_product_param {
    num_output: 80
    weight_filler {
      type: "gaussian"
      std: 0.01
    }
    bias_filler {
      type: "constant"
    }
  }
}
layer {
  name: "relu3"
  type: "ReLU"
  bottom: "ip3"
  top: "ip3"
}
layer {
  name: "ip4"
  type: "InnerProduct"
  bottom: "ip3"
  top: "ip4"
  param {
    lr_mult: 1
  }
  param {
    lr_mult: 2
  }
  inner_product_param {
    num_output: 10
    weight_filler {
      type: "gaussian"
      std: 0.01
    }
    bias_filler {
      type: "constant"
    }
  }
}
layer {
  name: "accuracy"
  type: "Accuracy"
  bottom: "ip4"
  bottom: "label"
  top: "accuracy"
  include {
    phase: TEST
  }
}
layer {
  name: "loss"
  type: "SoftmaxWithLoss"
  bottom: "ip4"
  bottom: "label"
  top: "loss"
}
I0501 03:43:57.033033 22368 layer_factory.hpp:77] Creating layer cifar
I0501 03:43:57.033080 22368 db_lmdb.cpp:35] Opened lmdb examples/cifar10/cifar10_test_lmdb
I0501 03:43:57.033092 22368 net.cpp:86] Creating Layer cifar
I0501 03:43:57.033097 22368 net.cpp:382] cifar -> data
I0501 03:43:57.033103 22368 net.cpp:382] cifar -> label
I0501 03:43:57.033110 22368 data_transformer.cpp:25] Loading mean file from: examples/cifar10/mean.binaryproto
I0501 03:43:57.033272 22368 data_layer.cpp:45] output data size: 1000,3,32,32
I0501 03:43:57.055800 22368 net.cpp:124] Setting up cifar
I0501 03:43:57.055829 22368 net.cpp:131] Top shape: 1000 3 32 32 (3072000)
I0501 03:43:57.055835 22368 net.cpp:131] Top shape: 1000 (1000)
I0501 03:43:57.055837 22368 net.cpp:139] Memory required for data: 12292000
I0501 03:43:57.055843 22368 layer_factory.hpp:77] Creating layer label_cifar_1_split
I0501 03:43:57.055856 22368 net.cpp:86] Creating Layer label_cifar_1_split
I0501 03:43:57.055860 22368 net.cpp:408] label_cifar_1_split <- label
I0501 03:43:57.055866 22368 net.cpp:382] label_cifar_1_split -> label_cifar_1_split_0
I0501 03:43:57.055874 22368 net.cpp:382] label_cifar_1_split -> label_cifar_1_split_1
I0501 03:43:57.055974 22368 net.cpp:124] Setting up label_cifar_1_split
I0501 03:43:57.055981 22368 net.cpp:131] Top shape: 1000 (1000)
I0501 03:43:57.055985 22368 net.cpp:131] Top shape: 1000 (1000)
I0501 03:43:57.055989 22368 net.cpp:139] Memory required for data: 12300000
I0501 03:43:57.055991 22368 layer_factory.hpp:77] Creating layer conv0
I0501 03:43:57.056004 22368 net.cpp:86] Creating Layer conv0
I0501 03:43:57.056006 22368 net.cpp:408] conv0 <- data
I0501 03:43:57.056011 22368 net.cpp:382] conv0 -> conv0
I0501 03:43:57.057790 22368 net.cpp:124] Setting up conv0
I0501 03:43:57.057804 22368 net.cpp:131] Top shape: 1000 8 32 32 (8192000)
I0501 03:43:57.057807 22368 net.cpp:139] Memory required for data: 45068000
I0501 03:43:57.057817 22368 layer_factory.hpp:77] Creating layer Sigmoid0
I0501 03:43:57.057838 22368 net.cpp:86] Creating Layer Sigmoid0
I0501 03:43:57.057842 22368 net.cpp:408] Sigmoid0 <- conv0
I0501 03:43:57.057847 22368 net.cpp:382] Sigmoid0 -> Sigmoid0
I0501 03:43:57.058017 22368 net.cpp:124] Setting up Sigmoid0
I0501 03:43:57.058025 22368 net.cpp:131] Top shape: 1000 8 32 32 (8192000)
I0501 03:43:57.058029 22368 net.cpp:139] Memory required for data: 77836000
I0501 03:43:57.058032 22368 layer_factory.hpp:77] Creating layer pool0
I0501 03:43:57.058040 22368 net.cpp:86] Creating Layer pool0
I0501 03:43:57.058043 22368 net.cpp:408] pool0 <- Sigmoid0
I0501 03:43:57.058048 22368 net.cpp:382] pool0 -> pool0
I0501 03:43:57.058208 22368 net.cpp:124] Setting up pool0
I0501 03:43:57.058218 22368 net.cpp:131] Top shape: 1000 8 16 16 (2048000)
I0501 03:43:57.058238 22368 net.cpp:139] Memory required for data: 86028000
I0501 03:43:57.058240 22368 layer_factory.hpp:77] Creating layer ip1
I0501 03:43:57.058248 22368 net.cpp:86] Creating Layer ip1
I0501 03:43:57.058251 22368 net.cpp:408] ip1 <- pool0
I0501 03:43:57.058256 22368 net.cpp:382] ip1 -> ip1
I0501 03:43:57.059433 22368 net.cpp:124] Setting up ip1
I0501 03:43:57.059443 22368 net.cpp:131] Top shape: 1000 10 (10000)
I0501 03:43:57.059463 22368 net.cpp:139] Memory required for data: 86068000
I0501 03:43:57.059500 22368 layer_factory.hpp:77] Creating layer relu1
I0501 03:43:57.059507 22368 net.cpp:86] Creating Layer relu1
I0501 03:43:57.059526 22368 net.cpp:408] relu1 <- ip1
I0501 03:43:57.059531 22368 net.cpp:369] relu1 -> ip1 (in-place)
I0501 03:43:57.059710 22368 net.cpp:124] Setting up relu1
I0501 03:43:57.059720 22368 net.cpp:131] Top shape: 1000 10 (10000)
I0501 03:43:57.059723 22368 net.cpp:139] Memory required for data: 86108000
I0501 03:43:57.059726 22368 layer_factory.hpp:77] Creating layer ip2
I0501 03:43:57.059733 22368 net.cpp:86] Creating Layer ip2
I0501 03:43:57.059737 22368 net.cpp:408] ip2 <- ip1
I0501 03:43:57.059742 22368 net.cpp:382] ip2 -> ip2
I0501 03:43:57.059906 22368 net.cpp:124] Setting up ip2
I0501 03:43:57.059913 22368 net.cpp:131] Top shape: 1000 160 (160000)
I0501 03:43:57.059916 22368 net.cpp:139] Memory required for data: 86748000
I0501 03:43:57.059924 22368 layer_factory.hpp:77] Creating layer relu2
I0501 03:43:57.059929 22368 net.cpp:86] Creating Layer relu2
I0501 03:43:57.059933 22368 net.cpp:408] relu2 <- ip2
I0501 03:43:57.059937 22368 net.cpp:369] relu2 -> ip2 (in-place)
I0501 03:43:57.060721 22368 net.cpp:124] Setting up relu2
I0501 03:43:57.060750 22368 net.cpp:131] Top shape: 1000 160 (160000)
I0501 03:43:57.060752 22368 net.cpp:139] Memory required for data: 87388000
I0501 03:43:57.060756 22368 layer_factory.hpp:77] Creating layer ip3
I0501 03:43:57.060763 22368 net.cpp:86] Creating Layer ip3
I0501 03:43:57.060767 22368 net.cpp:408] ip3 <- ip2
I0501 03:43:57.060773 22368 net.cpp:382] ip3 -> ip3
I0501 03:43:57.061298 22368 net.cpp:124] Setting up ip3
I0501 03:43:57.061306 22368 net.cpp:131] Top shape: 1000 80 (80000)
I0501 03:43:57.061326 22368 net.cpp:139] Memory required for data: 87708000
I0501 03:43:57.061331 22368 layer_factory.hpp:77] Creating layer relu3
I0501 03:43:57.061336 22368 net.cpp:86] Creating Layer relu3
I0501 03:43:57.061341 22368 net.cpp:408] relu3 <- ip3
I0501 03:43:57.061344 22368 net.cpp:369] relu3 -> ip3 (in-place)
I0501 03:43:57.061514 22368 net.cpp:124] Setting up relu3
I0501 03:43:57.061522 22368 net.cpp:131] Top shape: 1000 80 (80000)
I0501 03:43:57.061527 22368 net.cpp:139] Memory required for data: 88028000
I0501 03:43:57.061529 22368 layer_factory.hpp:77] Creating layer ip4
I0501 03:43:57.061535 22368 net.cpp:86] Creating Layer ip4
I0501 03:43:57.061538 22368 net.cpp:408] ip4 <- ip3
I0501 03:43:57.061543 22368 net.cpp:382] ip4 -> ip4
I0501 03:43:57.061667 22368 net.cpp:124] Setting up ip4
I0501 03:43:57.061674 22368 net.cpp:131] Top shape: 1000 10 (10000)
I0501 03:43:57.061677 22368 net.cpp:139] Memory required for data: 88068000
I0501 03:43:57.061702 22368 layer_factory.hpp:77] Creating layer ip4_ip4_0_split
I0501 03:43:57.061707 22368 net.cpp:86] Creating Layer ip4_ip4_0_split
I0501 03:43:57.061709 22368 net.cpp:408] ip4_ip4_0_split <- ip4
I0501 03:43:57.061715 22368 net.cpp:382] ip4_ip4_0_split -> ip4_ip4_0_split_0
I0501 03:43:57.061720 22368 net.cpp:382] ip4_ip4_0_split -> ip4_ip4_0_split_1
I0501 03:43:57.061753 22368 net.cpp:124] Setting up ip4_ip4_0_split
I0501 03:43:57.061759 22368 net.cpp:131] Top shape: 1000 10 (10000)
I0501 03:43:57.061764 22368 net.cpp:131] Top shape: 1000 10 (10000)
I0501 03:43:57.061766 22368 net.cpp:139] Memory required for data: 88148000
I0501 03:43:57.061769 22368 layer_factory.hpp:77] Creating layer accuracy
I0501 03:43:57.061775 22368 net.cpp:86] Creating Layer accuracy
I0501 03:43:57.061779 22368 net.cpp:408] accuracy <- ip4_ip4_0_split_0
I0501 03:43:57.061784 22368 net.cpp:408] accuracy <- label_cifar_1_split_0
I0501 03:43:57.061789 22368 net.cpp:382] accuracy -> accuracy
…
