…
I0430 19:35:22.607452 26322 net.cpp:296] The NetState phase (0) differed from the phase (1) specified by a rule in layer cifar
I0430 19:35:22.607468 26322 net.cpp:296] The NetState phase (0) differed from the phase (1) specified by a rule in layer accuracy
I0430 19:35:22.607553 26322 net.cpp:53] Initializing net from parameters: 
name: "CIFAR"
state {
  phase: TRAIN
  level: 0
  stage: ""
}
layer {
  name: "cifar"
  type: "Data"
  top: "data"
  top: "label"
  include {
    phase: TRAIN
  }
  transform_param {
    mean_file: "examples/cifar10/mean.binaryproto"
  }
  data_param {
    source: "examples/cifar10/cifar10_train_lmdb"
    batch_size: 111
    backend: LMDB
  }
}
layer {
  name: "ip1"
  type: "InnerProduct"
  bottom: "data"
  top: "ip1"
  param {
    lr_mult: 1
  }
  param {
    lr_mult: 2
  }
  inner_product_param {
    num_output: 40
    weight_filler {
      type: "gaussian"
      std: 0.01
    }
    bias_filler {
      type: "constant"
    }
  }
}
layer {
  name: "relu1"
  type: "ReLU"
  bottom: "ip1"
  top: "ip1"
}
layer {
  name: "ip2"
  type: "InnerProduct"
  bottom: "ip1"
  top: "ip2"
  param {
    lr_mult: 1
  }
  param {
    lr_mult: 2
  }
  inner_product_param {
    num_output: 160
    weight_filler {
      type: "gaussian"
      std: 0.01
    }
    bias_filler {
      type: "constant"
    }
  }
}
layer {
  name: "relu2"
  type: "ReLU"
  bottom: "ip2"
  top: "ip2"
}
layer {
  name: "ip3"
  type: "InnerProduct"
  bottom: "ip2"
  top: "ip3"
  param {
    lr_mult: 1
  }
  param {
    lr_mult: 2
  }
  inner_product_param {
    num_output: 40
    weight_filler {
      type: "gaussian"
      std: 0.01
    }
    bias_filler {
      type: "constant"
    }
  }
}
layer {
  name: "relu3"
  type: "ReLU"
  bottom: "ip3"
  top: "ip3"
}
layer {
  name: "ip4"
  type: "InnerProduct"
  bottom: "ip3"
  top: "ip4"
  param {
    lr_mult: 1
  }
  param {
    lr_mult: 2
  }
  inner_product_param {
    num_output: 10
    weight_filler {
      type: "gaussian"
      std: 0.01
    }
    bias_filler {
      type: "constant"
    }
  }
}
layer {
  name: "loss"
  type: "SoftmaxWithLoss"
  bottom: "ip4"
  bottom: "label"
  top: "loss"
}
I0430 19:35:22.607623 26322 layer_factory.hpp:77] Creating layer cifar
I0430 19:35:22.607720 26322 db_lmdb.cpp:35] Opened lmdb examples/cifar10/cifar10_train_lmdb
I0430 19:35:22.607748 26322 net.cpp:86] Creating Layer cifar
I0430 19:35:22.607754 26322 net.cpp:382] cifar -> data
I0430 19:35:22.607779 26322 net.cpp:382] cifar -> label
I0430 19:35:22.607795 26322 data_transformer.cpp:25] Loading mean file from: examples/cifar10/mean.binaryproto
I0430 19:35:22.609887 26322 data_layer.cpp:45] output data size: 111,3,32,32
I0430 19:35:22.617771 26322 net.cpp:124] Setting up cifar
I0430 19:35:22.617790 26322 net.cpp:131] Top shape: 111 3 32 32 (340992)
I0430 19:35:22.617799 26322 net.cpp:131] Top shape: 111 (111)
I0430 19:35:22.617801 26322 net.cpp:139] Memory required for data: 1364412
I0430 19:35:22.617808 26322 layer_factory.hpp:77] Creating layer ip1
I0430 19:35:22.617820 26322 net.cpp:86] Creating Layer ip1
I0430 19:35:22.617825 26322 net.cpp:408] ip1 <- data
I0430 19:35:22.617836 26322 net.cpp:382] ip1 -> ip1
I0430 19:35:22.622071 26322 net.cpp:124] Setting up ip1
I0430 19:35:22.622082 26322 net.cpp:131] Top shape: 111 40 (4440)
I0430 19:35:22.622087 26322 net.cpp:139] Memory required for data: 1382172
I0430 19:35:22.622099 26322 layer_factory.hpp:77] Creating layer relu1
I0430 19:35:22.622112 26322 net.cpp:86] Creating Layer relu1
I0430 19:35:22.622131 26322 net.cpp:408] relu1 <- ip1
I0430 19:35:22.622136 26322 net.cpp:369] relu1 -> ip1 (in-place)
I0430 19:35:22.899992 26322 net.cpp:124] Setting up relu1
I0430 19:35:22.900017 26322 net.cpp:131] Top shape: 111 40 (4440)
I0430 19:35:22.900022 26322 net.cpp:139] Memory required for data: 1399932
I0430 19:35:22.900027 26322 layer_factory.hpp:77] Creating layer ip2
I0430 19:35:22.900038 26322 net.cpp:86] Creating Layer ip2
I0430 19:35:22.900041 26322 net.cpp:408] ip2 <- ip1
I0430 19:35:22.900049 26322 net.cpp:382] ip2 -> ip2
I0430 19:35:22.901172 26322 net.cpp:124] Setting up ip2
I0430 19:35:22.901185 26322 net.cpp:131] Top shape: 111 160 (17760)
I0430 19:35:22.901187 26322 net.cpp:139] Memory required for data: 1470972
I0430 19:35:22.901196 26322 layer_factory.hpp:77] Creating layer relu2
I0430 19:35:22.901204 26322 net.cpp:86] Creating Layer relu2
I0430 19:35:22.901207 26322 net.cpp:408] relu2 <- ip2
I0430 19:35:22.901211 26322 net.cpp:369] relu2 -> ip2 (in-place)
I0430 19:35:22.901968 26322 net.cpp:124] Setting up relu2
I0430 19:35:22.901980 26322 net.cpp:131] Top shape: 111 160 (17760)
I0430 19:35:22.901983 26322 net.cpp:139] Memory required for data: 1542012
I0430 19:35:22.901986 26322 layer_factory.hpp:77] Creating layer ip3
I0430 19:35:22.901993 26322 net.cpp:86] Creating Layer ip3
I0430 19:35:22.901996 26322 net.cpp:408] ip3 <- ip2
I0430 19:35:22.902001 26322 net.cpp:382] ip3 -> ip3
I0430 19:35:22.902271 26322 net.cpp:124] Setting up ip3
I0430 19:35:22.902278 26322 net.cpp:131] Top shape: 111 40 (4440)
I0430 19:35:22.902281 26322 net.cpp:139] Memory required for data: 1559772
I0430 19:35:22.902288 26322 layer_factory.hpp:77] Creating layer relu3
I0430 19:35:22.902293 26322 net.cpp:86] Creating Layer relu3
I0430 19:35:22.902297 26322 net.cpp:408] relu3 <- ip3
I0430 19:35:22.902302 26322 net.cpp:369] relu3 -> ip3 (in-place)
I0430 19:35:22.902460 26322 net.cpp:124] Setting up relu3
I0430 19:35:22.902468 26322 net.cpp:131] Top shape: 111 40 (4440)
I0430 19:35:22.902472 26322 net.cpp:139] Memory required for data: 1577532
I0430 19:35:22.902474 26322 layer_factory.hpp:77] Creating layer ip4
I0430 19:35:22.902482 26322 net.cpp:86] Creating Layer ip4
I0430 19:35:22.902484 26322 net.cpp:408] ip4 <- ip3
I0430 19:35:22.902489 26322 net.cpp:382] ip4 -> ip4
I0430 19:35:22.903403 26322 net.cpp:124] Setting up ip4
I0430 19:35:22.903414 26322 net.cpp:131] Top shape: 111 10 (1110)
I0430 19:35:22.903416 26322 net.cpp:139] Memory required for data: 1581972
I0430 19:35:22.903439 26322 layer_factory.hpp:77] Creating layer loss
I0430 19:35:22.903445 26322 net.cpp:86] Creating Layer loss
I0430 19:35:22.903448 26322 net.cpp:408] loss <- ip4
I0430 19:35:22.903452 26322 net.cpp:408] loss <- label
I0430 19:35:22.903458 26322 net.cpp:382] loss -> loss
I0430 19:35:22.903476 26322 layer_factory.hpp:77] Creating layer loss
…
I0430 19:35:22.904095 26322 solver.cpp:173] Creating test net (#0) specified by net file: ECE595/cifar/train_test/var_everything/cifar_train_test_102.prototxt
I0430 19:35:22.904132 26322 net.cpp:296] The NetState phase (1) differed from the phase (0) specified by a rule in layer cifar
I0430 19:35:22.904204 26322 net.cpp:53] Initializing net from parameters: 
name: "CIFAR"
state {
  phase: TEST
}
layer {
  name: "cifar"
  type: "Data"
  top: "data"
  top: "label"
  include {
    phase: TEST
  }
  transform_param {
    mean_file: "examples/cifar10/mean.binaryproto"
  }
  data_param {
    source: "examples/cifar10/cifar10_test_lmdb"
    batch_size: 1000
    backend: LMDB
  }
}
layer {
  name: "ip1"
  type: "InnerProduct"
  bottom: "data"
  top: "ip1"
  param {
    lr_mult: 1
  }
  param {
    lr_mult: 2
  }
  inner_product_param {
    num_output: 40
    weight_filler {
      type: "gaussian"
      std: 0.01
    }
    bias_filler {
      type: "constant"
    }
  }
}
layer {
  name: "relu1"
  type: "ReLU"
  bottom: "ip1"
  top: "ip1"
}
layer {
  name: "ip2"
  type: "InnerProduct"
  bottom: "ip1"
  top: "ip2"
  param {
    lr_mult: 1
  }
  param {
    lr_mult: 2
  }
  inner_product_param {
    num_output: 160
    weight_filler {
      type: "gaussian"
      std: 0.01
    }
    bias_filler {
      type: "constant"
    }
  }
}
layer {
  name: "relu2"
  type: "ReLU"
  bottom: "ip2"
  top: "ip2"
}
layer {
  name: "ip3"
  type: "InnerProduct"
  bottom: "ip2"
  top: "ip3"
  param {
    lr_mult: 1
  }
  param {
    lr_mult: 2
  }
  inner_product_param {
    num_output: 40
    weight_filler {
      type: "gaussian"
      std: 0.01
    }
    bias_filler {
      type: "constant"
    }
  }
}
layer {
  name: "relu3"
  type: "ReLU"
  bottom: "ip3"
  top: "ip3"
}
layer {
  name: "ip4"
  type: "InnerProduct"
  bottom: "ip3"
  top: "ip4"
  param {
    lr_mult: 1
  }
  param {
    lr_mult: 2
  }
  inner_product_param {
    num_output: 10
    weight_filler {
      type: "gaussian"
      std: 0.01
    }
    bias_filler {
      type: "constant"
    }
  }
}
layer {
  name: "accuracy"
  type: "Accuracy"
  bottom: "ip4"
  bottom: "label"
  top: "accuracy"
  include {
    phase: TEST
  }
}
layer {
  name: "loss"
  type: "SoftmaxWithLoss"
  bottom: "ip4"
  bottom: "label"
  top: "loss"
}
I0430 19:35:22.904260 26322 layer_factory.hpp:77] Creating layer cifar
I0430 19:35:22.904319 26322 db_lmdb.cpp:35] Opened lmdb examples/cifar10/cifar10_test_lmdb
I0430 19:35:22.904330 26322 net.cpp:86] Creating Layer cifar
I0430 19:35:22.904335 26322 net.cpp:382] cifar -> data
I0430 19:35:22.904342 26322 net.cpp:382] cifar -> label
I0430 19:35:22.904350 26322 data_transformer.cpp:25] Loading mean file from: examples/cifar10/mean.binaryproto
I0430 19:35:22.904487 26322 data_layer.cpp:45] output data size: 1000,3,32,32
I0430 19:35:22.926481 26322 net.cpp:124] Setting up cifar
I0430 19:35:22.926522 26322 net.cpp:131] Top shape: 1000 3 32 32 (3072000)
I0430 19:35:22.926528 26322 net.cpp:131] Top shape: 1000 (1000)
I0430 19:35:22.926532 26322 net.cpp:139] Memory required for data: 12292000
I0430 19:35:22.926537 26322 layer_factory.hpp:77] Creating layer label_cifar_1_split
I0430 19:35:22.926554 26322 net.cpp:86] Creating Layer label_cifar_1_split
I0430 19:35:22.926558 26322 net.cpp:408] label_cifar_1_split <- label
I0430 19:35:22.926564 26322 net.cpp:382] label_cifar_1_split -> label_cifar_1_split_0
I0430 19:35:22.926573 26322 net.cpp:382] label_cifar_1_split -> label_cifar_1_split_1
I0430 19:35:22.926645 26322 net.cpp:124] Setting up label_cifar_1_split
I0430 19:35:22.926652 26322 net.cpp:131] Top shape: 1000 (1000)
I0430 19:35:22.926656 26322 net.cpp:131] Top shape: 1000 (1000)
I0430 19:35:22.926659 26322 net.cpp:139] Memory required for data: 12300000
I0430 19:35:22.926662 26322 layer_factory.hpp:77] Creating layer ip1
I0430 19:35:22.926671 26322 net.cpp:86] Creating Layer ip1
I0430 19:35:22.926676 26322 net.cpp:408] ip1 <- data
I0430 19:35:22.926697 26322 net.cpp:382] ip1 -> ip1
I0430 19:35:22.930518 26322 net.cpp:124] Setting up ip1
I0430 19:35:22.930546 26322 net.cpp:131] Top shape: 1000 40 (40000)
I0430 19:35:22.930549 26322 net.cpp:139] Memory required for data: 12460000
I0430 19:35:22.930574 26322 layer_factory.hpp:77] Creating layer relu1
I0430 19:35:22.930582 26322 net.cpp:86] Creating Layer relu1
I0430 19:35:22.930585 26322 net.cpp:408] relu1 <- ip1
I0430 19:35:22.930589 26322 net.cpp:369] relu1 -> ip1 (in-place)
I0430 19:35:22.931426 26322 net.cpp:124] Setting up relu1
I0430 19:35:22.931438 26322 net.cpp:131] Top shape: 1000 40 (40000)
I0430 19:35:22.931457 26322 net.cpp:139] Memory required for data: 12620000
I0430 19:35:22.931463 26322 layer_factory.hpp:77] Creating layer ip2
I0430 19:35:22.931470 26322 net.cpp:86] Creating Layer ip2
I0430 19:35:22.931474 26322 net.cpp:408] ip2 <- ip1
I0430 19:35:22.931480 26322 net.cpp:382] ip2 -> ip2
I0430 19:35:22.931787 26322 net.cpp:124] Setting up ip2
I0430 19:35:22.931795 26322 net.cpp:131] Top shape: 1000 160 (160000)
I0430 19:35:22.931798 26322 net.cpp:139] Memory required for data: 13260000
I0430 19:35:22.931807 26322 layer_factory.hpp:77] Creating layer relu2
I0430 19:35:22.931813 26322 net.cpp:86] Creating Layer relu2
I0430 19:35:22.931816 26322 net.cpp:408] relu2 <- ip2
I0430 19:35:22.931820 26322 net.cpp:369] relu2 -> ip2 (in-place)
I0430 19:35:22.931985 26322 net.cpp:124] Setting up relu2
I0430 19:35:22.931994 26322 net.cpp:131] Top shape: 1000 160 (160000)
I0430 19:35:22.931998 26322 net.cpp:139] Memory required for data: 13900000
I0430 19:35:22.932001 26322 layer_factory.hpp:77] Creating layer ip3
I0430 19:35:22.932008 26322 net.cpp:86] Creating Layer ip3
I0430 19:35:22.932011 26322 net.cpp:408] ip3 <- ip2
I0430 19:35:22.932016 26322 net.cpp:382] ip3 -> ip3
I0430 19:35:22.932314 26322 net.cpp:124] Setting up ip3
I0430 19:35:22.932322 26322 net.cpp:131] Top shape: 1000 40 (40000)
I0430 19:35:22.932340 26322 net.cpp:139] Memory required for data: 14060000
I0430 19:35:22.932348 26322 layer_factory.hpp:77] Creating layer relu3
I0430 19:35:22.932365 26322 net.cpp:86] Creating Layer relu3
I0430 19:35:22.932368 26322 net.cpp:408] relu3 <- ip3
I0430 19:35:22.932374 26322 net.cpp:369] relu3 -> ip3 (in-place)
I0430 19:35:22.932541 26322 net.cpp:124] Setting up relu3
I0430 19:35:22.932549 26322 net.cpp:131] Top shape: 1000 40 (40000)
I0430 19:35:22.932552 26322 net.cpp:139] Memory required for data: 14220000
I0430 19:35:22.932556 26322 layer_factory.hpp:77] Creating layer ip4
I0430 19:35:22.932564 26322 net.cpp:86] Creating Layer ip4
I0430 19:35:22.932567 26322 net.cpp:408] ip4 <- ip3
I0430 19:35:22.932572 26322 net.cpp:382] ip4 -> ip4
I0430 19:35:22.932690 26322 net.cpp:124] Setting up ip4
I0430 19:35:22.932698 26322 net.cpp:131] Top shape: 1000 10 (10000)
I0430 19:35:22.932700 26322 net.cpp:139] Memory required for data: 14260000
I0430 19:35:22.932706 26322 layer_factory.hpp:77] Creating layer ip4_ip4_0_split
I0430 19:35:22.932716 26322 net.cpp:86] Creating Layer ip4_ip4_0_split
I0430 19:35:22.932719 26322 net.cpp:408] ip4_ip4_0_split <- ip4
I0430 19:35:22.932724 26322 net.cpp:382] ip4_ip4_0_split -> ip4_ip4_0_split_0
I0430 19:35:22.932730 26322 net.cpp:382] ip4_ip4_0_split -> ip4_ip4_0_split_1
I0430 19:35:22.932761 26322 net.cpp:124] Setting up ip4_ip4_0_split
I0430 19:35:22.932768 26322 net.cpp:131] Top shape: 1000 10 (10000)
I0430 19:35:22.932772 26322 net.cpp:131] Top shape: 1000 10 (10000)
I0430 19:35:22.932775 26322 net.cpp:139] Memory required for data: 14340000
I0430 19:35:22.932778 26322 layer_factory.hpp:77] Creating layer accuracy
I0430 19:35:22.932790 26322 net.cpp:86] Creating Layer accuracy
I0430 19:35:22.932795 26322 net.cpp:408] accuracy <- ip4_ip4_0_split_0
I0430 19:35:22.932799 26322 net.cpp:408] accuracy <- label_cifar_1_split_0
I0430 19:35:22.932803 26322 net.cpp:382] accuracy -> accuracy
…
