…
I0430 23:20:19.636152  4667 net.cpp:296] The NetState phase (0) differed from the phase (1) specified by a rule in layer cifar
I0430 23:20:19.636186  4667 net.cpp:296] The NetState phase (0) differed from the phase (1) specified by a rule in layer accuracy
I0430 23:20:19.636323  4667 net.cpp:53] Initializing net from parameters: 
name: "CIFAR"
state {
  phase: TRAIN
  level: 0
  stage: ""
}
layer {
  name: "cifar"
  type: "Data"
  top: "data"
  top: "label"
  include {
    phase: TRAIN
  }
  transform_param {
    mean_file: "examples/cifar10/mean.binaryproto"
  }
  data_param {
    source: "examples/cifar10/cifar10_train_lmdb"
    batch_size: 111
    backend: LMDB
  }
}
layer {
  name: "conv0"
  type: "Convolution"
  bottom: "data"
  top: "conv0"
  param {
    lr_mult: 1
  }
  param {
    lr_mult: 2
  }
  convolution_param {
    num_output: 8
    pad: 2
    kernel_size: 3
    stride: 1
    weight_filler {
      type: "gaussian"
      std: 0.01
    }
    bias_filler {
      type: "constant"
    }
  }
}
layer {
  name: "Sigmoid0"
  type: "Sigmoid"
  bottom: "conv0"
  top: "Sigmoid0"
}
layer {
  name: "pool0"
  type: "Pooling"
  bottom: "Sigmoid0"
  top: "pool0"
  pooling_param {
    pool: AVE
    kernel_size: 3
    stride: 2
  }
}
layer {
  name: "ip1"
  type: "InnerProduct"
  bottom: "pool0"
  top: "ip1"
  param {
    lr_mult: 1
  }
  param {
    lr_mult: 2
  }
  inner_product_param {
    num_output: 20
    weight_filler {
      type: "gaussian"
      std: 0.01
    }
    bias_filler {
      type: "constant"
    }
  }
}
layer {
  name: "relu1"
  type: "ReLU"
  bottom: "ip1"
  top: "ip1"
}
layer {
  name: "ip2"
  type: "InnerProduct"
  bottom: "ip1"
  top: "ip2"
  param {
    lr_mult: 1
  }
  param {
    lr_mult: 2
  }
  inner_product_param {
    num_output: 40
    weight_filler {
      type: "gaussian"
      std: 0.01
    }
    bias_filler {
      type: "constant"
    }
  }
}
layer {
  name: "relu2"
  type: "ReLU"
  bottom: "ip2"
  top: "ip2"
}
layer {
  name: "ip3"
  type: "InnerProduct"
  bottom: "ip2"
  top: "ip3"
  param {
    lr_mult: 1
  }
  param {
    lr_mult: 2
  }
  inner_product_param {
    num_output: 40
    weight_filler {
      type: "gaussian"
      std: 0.01
    }
    bias_filler {
      type: "constant"
    }
  }
}
layer {
  name: "relu3"
  type: "ReLU"
  bottom: "ip3"
  top: "ip3"
}
layer {
  name: "ip4"
  type: "InnerProduct"
  bottom: "ip3"
  top: "ip4"
  param {
    lr_mult: 1
  }
  param {
    lr_mult: 2
  }
  inner_product_param {
    num_output: 10
    weight_filler {
      type: "gaussian"
      std: 0.01
    }
    bias_filler {
      type: "constant"
    }
  }
}
layer {
  name: "loss"
  type: "SoftmaxWithLoss"
  bottom: "ip4"
  bottom: "label"
  top: "loss"
}
I0430 23:20:19.636397  4667 layer_factory.hpp:77] Creating layer cifar
I0430 23:20:19.636482  4667 db_lmdb.cpp:35] Opened lmdb examples/cifar10/cifar10_train_lmdb
I0430 23:20:19.636505  4667 net.cpp:86] Creating Layer cifar
I0430 23:20:19.636515  4667 net.cpp:382] cifar -> data
I0430 23:20:19.636534  4667 net.cpp:382] cifar -> label
I0430 23:20:19.636546  4667 data_transformer.cpp:25] Loading mean file from: examples/cifar10/mean.binaryproto
I0430 23:20:19.638363  4667 data_layer.cpp:45] output data size: 111,3,32,32
I0430 23:20:19.645082  4667 net.cpp:124] Setting up cifar
I0430 23:20:19.645097  4667 net.cpp:131] Top shape: 111 3 32 32 (340992)
I0430 23:20:19.645104  4667 net.cpp:131] Top shape: 111 (111)
I0430 23:20:19.645107  4667 net.cpp:139] Memory required for data: 1364412
I0430 23:20:19.645128  4667 layer_factory.hpp:77] Creating layer conv0
I0430 23:20:19.645143  4667 net.cpp:86] Creating Layer conv0
I0430 23:20:19.645165  4667 net.cpp:408] conv0 <- data
I0430 23:20:19.645192  4667 net.cpp:382] conv0 -> conv0
I0430 23:20:19.874430  4667 net.cpp:124] Setting up conv0
I0430 23:20:19.874475  4667 net.cpp:131] Top shape: 111 8 34 34 (1026528)
I0430 23:20:19.874478  4667 net.cpp:139] Memory required for data: 5470524
I0430 23:20:19.874493  4667 layer_factory.hpp:77] Creating layer Sigmoid0
I0430 23:20:19.874505  4667 net.cpp:86] Creating Layer Sigmoid0
I0430 23:20:19.874507  4667 net.cpp:408] Sigmoid0 <- conv0
I0430 23:20:19.874513  4667 net.cpp:382] Sigmoid0 -> Sigmoid0
I0430 23:20:19.874714  4667 net.cpp:124] Setting up Sigmoid0
I0430 23:20:19.874723  4667 net.cpp:131] Top shape: 111 8 34 34 (1026528)
I0430 23:20:19.874727  4667 net.cpp:139] Memory required for data: 9576636
I0430 23:20:19.874729  4667 layer_factory.hpp:77] Creating layer pool0
I0430 23:20:19.874737  4667 net.cpp:86] Creating Layer pool0
I0430 23:20:19.874739  4667 net.cpp:408] pool0 <- Sigmoid0
I0430 23:20:19.874743  4667 net.cpp:382] pool0 -> pool0
I0430 23:20:19.875481  4667 net.cpp:124] Setting up pool0
I0430 23:20:19.875494  4667 net.cpp:131] Top shape: 111 8 17 17 (256632)
I0430 23:20:19.875512  4667 net.cpp:139] Memory required for data: 10603164
I0430 23:20:19.875515  4667 layer_factory.hpp:77] Creating layer ip1
I0430 23:20:19.875524  4667 net.cpp:86] Creating Layer ip1
I0430 23:20:19.875529  4667 net.cpp:408] ip1 <- pool0
I0430 23:20:19.875533  4667 net.cpp:382] ip1 -> ip1
I0430 23:20:19.877707  4667 net.cpp:124] Setting up ip1
I0430 23:20:19.877733  4667 net.cpp:131] Top shape: 111 20 (2220)
I0430 23:20:19.877737  4667 net.cpp:139] Memory required for data: 10612044
I0430 23:20:19.877745  4667 layer_factory.hpp:77] Creating layer relu1
I0430 23:20:19.877751  4667 net.cpp:86] Creating Layer relu1
I0430 23:20:19.877754  4667 net.cpp:408] relu1 <- ip1
I0430 23:20:19.877759  4667 net.cpp:369] relu1 -> ip1 (in-place)
I0430 23:20:19.877959  4667 net.cpp:124] Setting up relu1
I0430 23:20:19.877969  4667 net.cpp:131] Top shape: 111 20 (2220)
I0430 23:20:19.877971  4667 net.cpp:139] Memory required for data: 10620924
I0430 23:20:19.877974  4667 layer_factory.hpp:77] Creating layer ip2
I0430 23:20:19.877980  4667 net.cpp:86] Creating Layer ip2
I0430 23:20:19.877985  4667 net.cpp:408] ip2 <- ip1
I0430 23:20:19.877990  4667 net.cpp:382] ip2 -> ip2
I0430 23:20:19.878957  4667 net.cpp:124] Setting up ip2
I0430 23:20:19.878983  4667 net.cpp:131] Top shape: 111 40 (4440)
I0430 23:20:19.879001  4667 net.cpp:139] Memory required for data: 10638684
I0430 23:20:19.879009  4667 layer_factory.hpp:77] Creating layer relu2
I0430 23:20:19.879014  4667 net.cpp:86] Creating Layer relu2
I0430 23:20:19.879017  4667 net.cpp:408] relu2 <- ip2
I0430 23:20:19.879022  4667 net.cpp:369] relu2 -> ip2 (in-place)
I0430 23:20:19.879194  4667 net.cpp:124] Setting up relu2
I0430 23:20:19.879201  4667 net.cpp:131] Top shape: 111 40 (4440)
I0430 23:20:19.879204  4667 net.cpp:139] Memory required for data: 10656444
I0430 23:20:19.879209  4667 layer_factory.hpp:77] Creating layer ip3
I0430 23:20:19.879215  4667 net.cpp:86] Creating Layer ip3
I0430 23:20:19.879218  4667 net.cpp:408] ip3 <- ip2
I0430 23:20:19.879223  4667 net.cpp:382] ip3 -> ip3
I0430 23:20:19.879356  4667 net.cpp:124] Setting up ip3
I0430 23:20:19.879364  4667 net.cpp:131] Top shape: 111 40 (4440)
I0430 23:20:19.879366  4667 net.cpp:139] Memory required for data: 10674204
I0430 23:20:19.879377  4667 layer_factory.hpp:77] Creating layer relu3
I0430 23:20:19.879381  4667 net.cpp:86] Creating Layer relu3
I0430 23:20:19.879384  4667 net.cpp:408] relu3 <- ip3
I0430 23:20:19.879390  4667 net.cpp:369] relu3 -> ip3 (in-place)
I0430 23:20:19.879531  4667 net.cpp:124] Setting up relu3
I0430 23:20:19.879539  4667 net.cpp:131] Top shape: 111 40 (4440)
I0430 23:20:19.879542  4667 net.cpp:139] Memory required for data: 10691964
I0430 23:20:19.879545  4667 layer_factory.hpp:77] Creating layer ip4
I0430 23:20:19.879565  4667 net.cpp:86] Creating Layer ip4
I0430 23:20:19.879570  4667 net.cpp:408] ip4 <- ip3
I0430 23:20:19.879590  4667 net.cpp:382] ip4 -> ip4
I0430 23:20:19.879693  4667 net.cpp:124] Setting up ip4
I0430 23:20:19.879700  4667 net.cpp:131] Top shape: 111 10 (1110)
I0430 23:20:19.879703  4667 net.cpp:139] Memory required for data: 10696404
I0430 23:20:19.879711  4667 layer_factory.hpp:77] Creating layer loss
I0430 23:20:19.879716  4667 net.cpp:86] Creating Layer loss
I0430 23:20:19.879720  4667 net.cpp:408] loss <- ip4
I0430 23:20:19.879724  4667 net.cpp:408] loss <- label
I0430 23:20:19.879729  4667 net.cpp:382] loss -> loss
I0430 23:20:19.879762  4667 layer_factory.hpp:77] Creating layer loss
…
I0430 23:20:19.881094  4667 solver.cpp:173] Creating test net (#0) specified by net file: ECE595/cifar/train_test/var_everything/cifar_train_test_222.prototxt
I0430 23:20:19.881124  4667 net.cpp:296] The NetState phase (1) differed from the phase (0) specified by a rule in layer cifar
I0430 23:20:19.881280  4667 net.cpp:53] Initializing net from parameters: 
name: "CIFAR"
state {
  phase: TEST
}
layer {
  name: "cifar"
  type: "Data"
  top: "data"
  top: "label"
  include {
    phase: TEST
  }
  transform_param {
    mean_file: "examples/cifar10/mean.binaryproto"
  }
  data_param {
    source: "examples/cifar10/cifar10_test_lmdb"
    batch_size: 1000
    backend: LMDB
  }
}
layer {
  name: "conv0"
  type: "Convolution"
  bottom: "data"
  top: "conv0"
  param {
    lr_mult: 1
  }
  param {
    lr_mult: 2
  }
  convolution_param {
    num_output: 8
    pad: 2
    kernel_size: 3
    stride: 1
    weight_filler {
      type: "gaussian"
      std: 0.01
    }
    bias_filler {
      type: "constant"
    }
  }
}
layer {
  name: "Sigmoid0"
  type: "Sigmoid"
  bottom: "conv0"
  top: "Sigmoid0"
}
layer {
  name: "pool0"
  type: "Pooling"
  bottom: "Sigmoid0"
  top: "pool0"
  pooling_param {
    pool: AVE
    kernel_size: 3
    stride: 2
  }
}
layer {
  name: "ip1"
  type: "InnerProduct"
  bottom: "pool0"
  top: "ip1"
  param {
    lr_mult: 1
  }
  param {
    lr_mult: 2
  }
  inner_product_param {
    num_output: 20
    weight_filler {
      type: "gaussian"
      std: 0.01
    }
    bias_filler {
      type: "constant"
    }
  }
}
layer {
  name: "relu1"
  type: "ReLU"
  bottom: "ip1"
  top: "ip1"
}
layer {
  name: "ip2"
  type: "InnerProduct"
  bottom: "ip1"
  top: "ip2"
  param {
    lr_mult: 1
  }
  param {
    lr_mult: 2
  }
  inner_product_param {
    num_output: 40
    weight_filler {
      type: "gaussian"
      std: 0.01
    }
    bias_filler {
      type: "constant"
    }
  }
}
layer {
  name: "relu2"
  type: "ReLU"
  bottom: "ip2"
  top: "ip2"
}
layer {
  name: "ip3"
  type: "InnerProduct"
  bottom: "ip2"
  top: "ip3"
  param {
    lr_mult: 1
  }
  param {
    lr_mult: 2
  }
  inner_product_param {
    num_output: 40
    weight_filler {
      type: "gaussian"
      std: 0.01
    }
    bias_filler {
      type: "constant"
    }
  }
}
layer {
  name: "relu3"
  type: "ReLU"
  bottom: "ip3"
  top: "ip3"
}
layer {
  name: "ip4"
  type: "InnerProduct"
  bottom: "ip3"
  top: "ip4"
  param {
    lr_mult: 1
  }
  param {
    lr_mult: 2
  }
  inner_product_param {
    num_output: 10
    weight_filler {
      type: "gaussian"
      std: 0.01
    }
    bias_filler {
      type: "constant"
    }
  }
}
layer {
  name: "accuracy"
  type: "Accuracy"
  bottom: "ip4"
  bottom: "label"
  top: "accuracy"
  include {
    phase: TEST
  }
}
layer {
  name: "loss"
  type: "SoftmaxWithLoss"
  bottom: "ip4"
  bottom: "label"
  top: "loss"
}
I0430 23:20:19.881356  4667 layer_factory.hpp:77] Creating layer cifar
I0430 23:20:19.881402  4667 db_lmdb.cpp:35] Opened lmdb examples/cifar10/cifar10_test_lmdb
I0430 23:20:19.881414  4667 net.cpp:86] Creating Layer cifar
I0430 23:20:19.881419  4667 net.cpp:382] cifar -> data
I0430 23:20:19.881428  4667 net.cpp:382] cifar -> label
I0430 23:20:19.881433  4667 data_transformer.cpp:25] Loading mean file from: examples/cifar10/mean.binaryproto
I0430 23:20:19.881567  4667 data_layer.cpp:45] output data size: 1000,3,32,32
I0430 23:20:19.903946  4667 net.cpp:124] Setting up cifar
I0430 23:20:19.903987  4667 net.cpp:131] Top shape: 1000 3 32 32 (3072000)
I0430 23:20:19.903992  4667 net.cpp:131] Top shape: 1000 (1000)
I0430 23:20:19.903996  4667 net.cpp:139] Memory required for data: 12292000
I0430 23:20:19.904002  4667 layer_factory.hpp:77] Creating layer label_cifar_1_split
I0430 23:20:19.904026  4667 net.cpp:86] Creating Layer label_cifar_1_split
I0430 23:20:19.904029  4667 net.cpp:408] label_cifar_1_split <- label
I0430 23:20:19.904050  4667 net.cpp:382] label_cifar_1_split -> label_cifar_1_split_0
I0430 23:20:19.904060  4667 net.cpp:382] label_cifar_1_split -> label_cifar_1_split_1
I0430 23:20:19.904134  4667 net.cpp:124] Setting up label_cifar_1_split
I0430 23:20:19.904155  4667 net.cpp:131] Top shape: 1000 (1000)
I0430 23:20:19.904160  4667 net.cpp:131] Top shape: 1000 (1000)
I0430 23:20:19.904162  4667 net.cpp:139] Memory required for data: 12300000
I0430 23:20:19.904165  4667 layer_factory.hpp:77] Creating layer conv0
I0430 23:20:19.904177  4667 net.cpp:86] Creating Layer conv0
I0430 23:20:19.904181  4667 net.cpp:408] conv0 <- data
I0430 23:20:19.904186  4667 net.cpp:382] conv0 -> conv0
I0430 23:20:19.905916  4667 net.cpp:124] Setting up conv0
I0430 23:20:19.905946  4667 net.cpp:131] Top shape: 1000 8 34 34 (9248000)
I0430 23:20:19.905949  4667 net.cpp:139] Memory required for data: 49292000
I0430 23:20:19.905975  4667 layer_factory.hpp:77] Creating layer Sigmoid0
I0430 23:20:19.905982  4667 net.cpp:86] Creating Layer Sigmoid0
I0430 23:20:19.905985  4667 net.cpp:408] Sigmoid0 <- conv0
I0430 23:20:19.905989  4667 net.cpp:382] Sigmoid0 -> Sigmoid0
I0430 23:20:19.906204  4667 net.cpp:124] Setting up Sigmoid0
I0430 23:20:19.906213  4667 net.cpp:131] Top shape: 1000 8 34 34 (9248000)
I0430 23:20:19.906217  4667 net.cpp:139] Memory required for data: 86284000
I0430 23:20:19.906220  4667 layer_factory.hpp:77] Creating layer pool0
I0430 23:20:19.906229  4667 net.cpp:86] Creating Layer pool0
I0430 23:20:19.906246  4667 net.cpp:408] pool0 <- Sigmoid0
I0430 23:20:19.906251  4667 net.cpp:382] pool0 -> pool0
I0430 23:20:19.906533  4667 net.cpp:124] Setting up pool0
I0430 23:20:19.906541  4667 net.cpp:131] Top shape: 1000 8 17 17 (2312000)
I0430 23:20:19.906544  4667 net.cpp:139] Memory required for data: 95532000
I0430 23:20:19.906548  4667 layer_factory.hpp:77] Creating layer ip1
I0430 23:20:19.906555  4667 net.cpp:86] Creating Layer ip1
I0430 23:20:19.906559  4667 net.cpp:408] ip1 <- pool0
I0430 23:20:19.906564  4667 net.cpp:382] ip1 -> ip1
I0430 23:20:19.908892  4667 net.cpp:124] Setting up ip1
I0430 23:20:19.908923  4667 net.cpp:131] Top shape: 1000 20 (20000)
I0430 23:20:19.908927  4667 net.cpp:139] Memory required for data: 95612000
I0430 23:20:19.908951  4667 layer_factory.hpp:77] Creating layer relu1
I0430 23:20:19.908958  4667 net.cpp:86] Creating Layer relu1
I0430 23:20:19.908977  4667 net.cpp:408] relu1 <- ip1
I0430 23:20:19.908982  4667 net.cpp:369] relu1 -> ip1 (in-place)
I0430 23:20:19.909176  4667 net.cpp:124] Setting up relu1
I0430 23:20:19.909185  4667 net.cpp:131] Top shape: 1000 20 (20000)
I0430 23:20:19.909188  4667 net.cpp:139] Memory required for data: 95692000
I0430 23:20:19.909193  4667 layer_factory.hpp:77] Creating layer ip2
I0430 23:20:19.909199  4667 net.cpp:86] Creating Layer ip2
I0430 23:20:19.909204  4667 net.cpp:408] ip2 <- ip1
I0430 23:20:19.909209  4667 net.cpp:382] ip2 -> ip2
I0430 23:20:19.909348  4667 net.cpp:124] Setting up ip2
I0430 23:20:19.909355  4667 net.cpp:131] Top shape: 1000 40 (40000)
I0430 23:20:19.909358  4667 net.cpp:139] Memory required for data: 95852000
I0430 23:20:19.909366  4667 layer_factory.hpp:77] Creating layer relu2
I0430 23:20:19.909373  4667 net.cpp:86] Creating Layer relu2
I0430 23:20:19.909375  4667 net.cpp:408] relu2 <- ip2
I0430 23:20:19.909379  4667 net.cpp:369] relu2 -> ip2 (in-place)
I0430 23:20:19.910161  4667 net.cpp:124] Setting up relu2
I0430 23:20:19.910172  4667 net.cpp:131] Top shape: 1000 40 (40000)
I0430 23:20:19.910192  4667 net.cpp:139] Memory required for data: 96012000
I0430 23:20:19.910194  4667 layer_factory.hpp:77] Creating layer ip3
I0430 23:20:19.910202  4667 net.cpp:86] Creating Layer ip3
I0430 23:20:19.910204  4667 net.cpp:408] ip3 <- ip2
I0430 23:20:19.910210  4667 net.cpp:382] ip3 -> ip3
I0430 23:20:19.910373  4667 net.cpp:124] Setting up ip3
I0430 23:20:19.910382  4667 net.cpp:131] Top shape: 1000 40 (40000)
I0430 23:20:19.910384  4667 net.cpp:139] Memory required for data: 96172000
I0430 23:20:19.910389  4667 layer_factory.hpp:77] Creating layer relu3
I0430 23:20:19.910394  4667 net.cpp:86] Creating Layer relu3
I0430 23:20:19.910398  4667 net.cpp:408] relu3 <- ip3
I0430 23:20:19.910403  4667 net.cpp:369] relu3 -> ip3 (in-place)
I0430 23:20:19.910571  4667 net.cpp:124] Setting up relu3
I0430 23:20:19.910580  4667 net.cpp:131] Top shape: 1000 40 (40000)
I0430 23:20:19.910583  4667 net.cpp:139] Memory required for data: 96332000
I0430 23:20:19.910586  4667 layer_factory.hpp:77] Creating layer ip4
I0430 23:20:19.910593  4667 net.cpp:86] Creating Layer ip4
I0430 23:20:19.910595  4667 net.cpp:408] ip4 <- ip3
I0430 23:20:19.910600  4667 net.cpp:382] ip4 -> ip4
I0430 23:20:19.910734  4667 net.cpp:124] Setting up ip4
I0430 23:20:19.910740  4667 net.cpp:131] Top shape: 1000 10 (10000)
I0430 23:20:19.910744  4667 net.cpp:139] Memory required for data: 96372000
I0430 23:20:19.910753  4667 layer_factory.hpp:77] Creating layer ip4_ip4_0_split
I0430 23:20:19.910758  4667 net.cpp:86] Creating Layer ip4_ip4_0_split
I0430 23:20:19.910760  4667 net.cpp:408] ip4_ip4_0_split <- ip4
I0430 23:20:19.910765  4667 net.cpp:382] ip4_ip4_0_split -> ip4_ip4_0_split_0
I0430 23:20:19.910770  4667 net.cpp:382] ip4_ip4_0_split -> ip4_ip4_0_split_1
I0430 23:20:19.910801  4667 net.cpp:124] Setting up ip4_ip4_0_split
I0430 23:20:19.910809  4667 net.cpp:131] Top shape: 1000 10 (10000)
I0430 23:20:19.910814  4667 net.cpp:131] Top shape: 1000 10 (10000)
I0430 23:20:19.910816  4667 net.cpp:139] Memory required for data: 96452000
I0430 23:20:19.910827  4667 layer_factory.hpp:77] Creating layer accuracy
I0430 23:20:19.910833  4667 net.cpp:86] Creating Layer accuracy
I0430 23:20:19.910836  4667 net.cpp:408] accuracy <- ip4_ip4_0_split_0
I0430 23:20:19.910840  4667 net.cpp:408] accuracy <- label_cifar_1_split_0
I0430 23:20:19.910845  4667 net.cpp:382] accuracy -> accuracy
…
