…
I0501 00:31:26.011842  7196 net.cpp:296] The NetState phase (0) differed from the phase (1) specified by a rule in layer cifar
I0501 00:31:26.011858  7196 net.cpp:296] The NetState phase (0) differed from the phase (1) specified by a rule in layer accuracy
I0501 00:31:26.011970  7196 net.cpp:53] Initializing net from parameters: 
name: "CIFAR"
state {
  phase: TRAIN
  level: 0
  stage: ""
}
layer {
  name: "cifar"
  type: "Data"
  top: "data"
  top: "label"
  include {
    phase: TRAIN
  }
  transform_param {
    mean_file: "examples/cifar10/mean.binaryproto"
  }
  data_param {
    source: "examples/cifar10/cifar10_train_lmdb"
    batch_size: 111
    backend: LMDB
  }
}
layer {
  name: "conv0"
  type: "Convolution"
  bottom: "data"
  top: "conv0"
  param {
    lr_mult: 1
  }
  param {
    lr_mult: 2
  }
  convolution_param {
    num_output: 8
    pad: 2
    kernel_size: 3
    stride: 1
    weight_filler {
      type: "gaussian"
      std: 0.01
    }
    bias_filler {
      type: "constant"
    }
  }
}
layer {
  name: "Sigmoid0"
  type: "Sigmoid"
  bottom: "conv0"
  top: "Sigmoid0"
}
layer {
  name: "pool0"
  type: "Pooling"
  bottom: "Sigmoid0"
  top: "pool0"
  pooling_param {
    pool: AVE
    kernel_size: 3
    stride: 2
  }
}
layer {
  name: "ip1"
  type: "InnerProduct"
  bottom: "pool0"
  top: "ip1"
  param {
    lr_mult: 1
  }
  param {
    lr_mult: 2
  }
  inner_product_param {
    num_output: 80
    weight_filler {
      type: "gaussian"
      std: 0.01
    }
    bias_filler {
      type: "constant"
    }
  }
}
layer {
  name: "relu1"
  type: "ReLU"
  bottom: "ip1"
  top: "ip1"
}
layer {
  name: "ip2"
  type: "InnerProduct"
  bottom: "ip1"
  top: "ip2"
  param {
    lr_mult: 1
  }
  param {
    lr_mult: 2
  }
  inner_product_param {
    num_output: 10
    weight_filler {
      type: "gaussian"
      std: 0.01
    }
    bias_filler {
      type: "constant"
    }
  }
}
layer {
  name: "relu2"
  type: "ReLU"
  bottom: "ip2"
  top: "ip2"
}
layer {
  name: "ip3"
  type: "InnerProduct"
  bottom: "ip2"
  top: "ip3"
  param {
    lr_mult: 1
  }
  param {
    lr_mult: 2
  }
  inner_product_param {
    num_output: 10
    weight_filler {
      type: "gaussian"
      std: 0.01
    }
    bias_filler {
      type: "constant"
    }
  }
}
layer {
  name: "relu3"
  type: "ReLU"
  bottom: "ip3"
  top: "ip3"
}
layer {
  name: "ip4"
  type: "InnerProduct"
  bottom: "ip3"
  top: "ip4"
  param {
    lr_mult: 1
  }
  param {
    lr_mult: 2
  }
  inner_product_param {
    num_output: 10
    weight_filler {
      type: "gaussian"
      std: 0.01
    }
    bias_filler {
      type: "constant"
    }
  }
}
layer {
  name: "loss"
  type: "SoftmaxWithLoss"
  bottom: "ip4"
  bottom: "label"
  top: "loss"
}
I0501 00:31:26.012035  7196 layer_factory.hpp:77] Creating layer cifar
I0501 00:31:26.012115  7196 db_lmdb.cpp:35] Opened lmdb examples/cifar10/cifar10_train_lmdb
I0501 00:31:26.012137  7196 net.cpp:86] Creating Layer cifar
I0501 00:31:26.012143  7196 net.cpp:382] cifar -> data
I0501 00:31:26.012163  7196 net.cpp:382] cifar -> label
I0501 00:31:26.012173  7196 data_transformer.cpp:25] Loading mean file from: examples/cifar10/mean.binaryproto
I0501 00:31:26.014029  7196 data_layer.cpp:45] output data size: 111,3,32,32
I0501 00:31:26.020665  7196 net.cpp:124] Setting up cifar
I0501 00:31:26.020681  7196 net.cpp:131] Top shape: 111 3 32 32 (340992)
I0501 00:31:26.020687  7196 net.cpp:131] Top shape: 111 (111)
I0501 00:31:26.020690  7196 net.cpp:139] Memory required for data: 1364412
I0501 00:31:26.020709  7196 layer_factory.hpp:77] Creating layer conv0
I0501 00:31:26.020740  7196 net.cpp:86] Creating Layer conv0
I0501 00:31:26.020745  7196 net.cpp:408] conv0 <- data
I0501 00:31:26.020754  7196 net.cpp:382] conv0 -> conv0
I0501 00:31:26.243455  7196 net.cpp:124] Setting up conv0
I0501 00:31:26.243484  7196 net.cpp:131] Top shape: 111 8 34 34 (1026528)
I0501 00:31:26.243489  7196 net.cpp:139] Memory required for data: 5470524
I0501 00:31:26.243520  7196 layer_factory.hpp:77] Creating layer Sigmoid0
I0501 00:31:26.243531  7196 net.cpp:86] Creating Layer Sigmoid0
I0501 00:31:26.243535  7196 net.cpp:408] Sigmoid0 <- conv0
I0501 00:31:26.243541  7196 net.cpp:382] Sigmoid0 -> Sigmoid0
I0501 00:31:26.243731  7196 net.cpp:124] Setting up Sigmoid0
I0501 00:31:26.243741  7196 net.cpp:131] Top shape: 111 8 34 34 (1026528)
I0501 00:31:26.243746  7196 net.cpp:139] Memory required for data: 9576636
I0501 00:31:26.243749  7196 layer_factory.hpp:77] Creating layer pool0
I0501 00:31:26.243772  7196 net.cpp:86] Creating Layer pool0
I0501 00:31:26.243777  7196 net.cpp:408] pool0 <- Sigmoid0
I0501 00:31:26.243782  7196 net.cpp:382] pool0 -> pool0
I0501 00:31:26.244508  7196 net.cpp:124] Setting up pool0
I0501 00:31:26.244519  7196 net.cpp:131] Top shape: 111 8 17 17 (256632)
I0501 00:31:26.244523  7196 net.cpp:139] Memory required for data: 10603164
I0501 00:31:26.244526  7196 layer_factory.hpp:77] Creating layer ip1
I0501 00:31:26.244535  7196 net.cpp:86] Creating Layer ip1
I0501 00:31:26.244539  7196 net.cpp:408] ip1 <- pool0
I0501 00:31:26.244544  7196 net.cpp:382] ip1 -> ip1
I0501 00:31:26.249910  7196 net.cpp:124] Setting up ip1
I0501 00:31:26.249922  7196 net.cpp:131] Top shape: 111 80 (8880)
I0501 00:31:26.249925  7196 net.cpp:139] Memory required for data: 10638684
I0501 00:31:26.249933  7196 layer_factory.hpp:77] Creating layer relu1
I0501 00:31:26.249939  7196 net.cpp:86] Creating Layer relu1
I0501 00:31:26.249943  7196 net.cpp:408] relu1 <- ip1
I0501 00:31:26.249948  7196 net.cpp:369] relu1 -> ip1 (in-place)
I0501 00:31:26.250162  7196 net.cpp:124] Setting up relu1
I0501 00:31:26.250174  7196 net.cpp:131] Top shape: 111 80 (8880)
I0501 00:31:26.250177  7196 net.cpp:139] Memory required for data: 10674204
I0501 00:31:26.250181  7196 layer_factory.hpp:77] Creating layer ip2
I0501 00:31:26.250205  7196 net.cpp:86] Creating Layer ip2
I0501 00:31:26.250208  7196 net.cpp:408] ip2 <- ip1
I0501 00:31:26.250216  7196 net.cpp:382] ip2 -> ip2
I0501 00:31:26.251191  7196 net.cpp:124] Setting up ip2
I0501 00:31:26.251204  7196 net.cpp:131] Top shape: 111 10 (1110)
I0501 00:31:26.251222  7196 net.cpp:139] Memory required for data: 10678644
I0501 00:31:26.251231  7196 layer_factory.hpp:77] Creating layer relu2
I0501 00:31:26.251237  7196 net.cpp:86] Creating Layer relu2
I0501 00:31:26.251241  7196 net.cpp:408] relu2 <- ip2
I0501 00:31:26.251246  7196 net.cpp:369] relu2 -> ip2 (in-place)
I0501 00:31:26.251436  7196 net.cpp:124] Setting up relu2
I0501 00:31:26.251446  7196 net.cpp:131] Top shape: 111 10 (1110)
I0501 00:31:26.251449  7196 net.cpp:139] Memory required for data: 10683084
I0501 00:31:26.251453  7196 layer_factory.hpp:77] Creating layer ip3
I0501 00:31:26.251461  7196 net.cpp:86] Creating Layer ip3
I0501 00:31:26.251466  7196 net.cpp:408] ip3 <- ip2
I0501 00:31:26.251471  7196 net.cpp:382] ip3 -> ip3
I0501 00:31:26.251579  7196 net.cpp:124] Setting up ip3
I0501 00:31:26.251586  7196 net.cpp:131] Top shape: 111 10 (1110)
I0501 00:31:26.251590  7196 net.cpp:139] Memory required for data: 10687524
I0501 00:31:26.251596  7196 layer_factory.hpp:77] Creating layer relu3
I0501 00:31:26.251601  7196 net.cpp:86] Creating Layer relu3
I0501 00:31:26.251605  7196 net.cpp:408] relu3 <- ip3
I0501 00:31:26.251610  7196 net.cpp:369] relu3 -> ip3 (in-place)
I0501 00:31:26.251754  7196 net.cpp:124] Setting up relu3
I0501 00:31:26.251762  7196 net.cpp:131] Top shape: 111 10 (1110)
I0501 00:31:26.251766  7196 net.cpp:139] Memory required for data: 10691964
I0501 00:31:26.251770  7196 layer_factory.hpp:77] Creating layer ip4
I0501 00:31:26.251791  7196 net.cpp:86] Creating Layer ip4
I0501 00:31:26.251796  7196 net.cpp:408] ip4 <- ip3
I0501 00:31:26.251801  7196 net.cpp:382] ip4 -> ip4
I0501 00:31:26.251904  7196 net.cpp:124] Setting up ip4
I0501 00:31:26.251912  7196 net.cpp:131] Top shape: 111 10 (1110)
I0501 00:31:26.251916  7196 net.cpp:139] Memory required for data: 10696404
I0501 00:31:26.251924  7196 layer_factory.hpp:77] Creating layer loss
I0501 00:31:26.251935  7196 net.cpp:86] Creating Layer loss
I0501 00:31:26.251938  7196 net.cpp:408] loss <- ip4
I0501 00:31:26.251943  7196 net.cpp:408] loss <- label
I0501 00:31:26.251950  7196 net.cpp:382] loss -> loss
I0501 00:31:26.251961  7196 layer_factory.hpp:77] Creating layer loss
…
I0501 00:31:26.253211  7196 solver.cpp:173] Creating test net (#0) specified by net file: ECE595/cifar/train_test/var_everything/cifar_train_test_260.prototxt
I0501 00:31:26.253238  7196 net.cpp:296] The NetState phase (1) differed from the phase (0) specified by a rule in layer cifar
I0501 00:31:26.253327  7196 net.cpp:53] Initializing net from parameters: 
name: "CIFAR"
state {
  phase: TEST
}
layer {
  name: "cifar"
  type: "Data"
  top: "data"
  top: "label"
  include {
    phase: TEST
  }
  transform_param {
    mean_file: "examples/cifar10/mean.binaryproto"
  }
  data_param {
    source: "examples/cifar10/cifar10_test_lmdb"
    batch_size: 1000
    backend: LMDB
  }
}
layer {
  name: "conv0"
  type: "Convolution"
  bottom: "data"
  top: "conv0"
  param {
    lr_mult: 1
  }
  param {
    lr_mult: 2
  }
  convolution_param {
    num_output: 8
    pad: 2
    kernel_size: 3
    stride: 1
    weight_filler {
      type: "gaussian"
      std: 0.01
    }
    bias_filler {
      type: "constant"
    }
  }
}
layer {
  name: "Sigmoid0"
  type: "Sigmoid"
  bottom: "conv0"
  top: "Sigmoid0"
}
layer {
  name: "pool0"
  type: "Pooling"
  bottom: "Sigmoid0"
  top: "pool0"
  pooling_param {
    pool: AVE
    kernel_size: 3
    stride: 2
  }
}
layer {
  name: "ip1"
  type: "InnerProduct"
  bottom: "pool0"
  top: "ip1"
  param {
    lr_mult: 1
  }
  param {
    lr_mult: 2
  }
  inner_product_param {
    num_output: 80
    weight_filler {
      type: "gaussian"
      std: 0.01
    }
    bias_filler {
      type: "constant"
    }
  }
}
layer {
  name: "relu1"
  type: "ReLU"
  bottom: "ip1"
  top: "ip1"
}
layer {
  name: "ip2"
  type: "InnerProduct"
  bottom: "ip1"
  top: "ip2"
  param {
    lr_mult: 1
  }
  param {
    lr_mult: 2
  }
  inner_product_param {
    num_output: 10
    weight_filler {
      type: "gaussian"
      std: 0.01
    }
    bias_filler {
      type: "constant"
    }
  }
}
layer {
  name: "relu2"
  type: "ReLU"
  bottom: "ip2"
  top: "ip2"
}
layer {
  name: "ip3"
  type: "InnerProduct"
  bottom: "ip2"
  top: "ip3"
  param {
    lr_mult: 1
  }
  param {
    lr_mult: 2
  }
  inner_product_param {
    num_output: 10
    weight_filler {
      type: "gaussian"
      std: 0.01
    }
    bias_filler {
      type: "constant"
    }
  }
}
layer {
  name: "relu3"
  type: "ReLU"
  bottom: "ip3"
  top: "ip3"
}
layer {
  name: "ip4"
  type: "InnerProduct"
  bottom: "ip3"
  top: "ip4"
  param {
    lr_mult: 1
  }
  param {
    lr_mult: 2
  }
  inner_product_param {
    num_output: 10
    weight_filler {
      type: "gaussian"
      std: 0.01
    }
    bias_filler {
      type: "constant"
    }
  }
}
layer {
  name: "accuracy"
  type: "Accuracy"
  bottom: "ip4"
  bottom: "label"
  top: "accuracy"
  include {
    phase: TEST
  }
}
layer {
  name: "loss"
  type: "SoftmaxWithLoss"
  bottom: "ip4"
  bottom: "label"
  top: "loss"
}
I0501 00:31:26.253402  7196 layer_factory.hpp:77] Creating layer cifar
I0501 00:31:26.253445  7196 db_lmdb.cpp:35] Opened lmdb examples/cifar10/cifar10_test_lmdb
I0501 00:31:26.253458  7196 net.cpp:86] Creating Layer cifar
I0501 00:31:26.253463  7196 net.cpp:382] cifar -> data
I0501 00:31:26.253470  7196 net.cpp:382] cifar -> label
I0501 00:31:26.253478  7196 data_transformer.cpp:25] Loading mean file from: examples/cifar10/mean.binaryproto
I0501 00:31:26.253607  7196 data_layer.cpp:45] output data size: 1000,3,32,32
I0501 00:31:26.274754  7196 net.cpp:124] Setting up cifar
I0501 00:31:26.274778  7196 net.cpp:131] Top shape: 1000 3 32 32 (3072000)
I0501 00:31:26.274786  7196 net.cpp:131] Top shape: 1000 (1000)
I0501 00:31:26.274791  7196 net.cpp:139] Memory required for data: 12292000
I0501 00:31:26.274796  7196 layer_factory.hpp:77] Creating layer label_cifar_1_split
I0501 00:31:26.274808  7196 net.cpp:86] Creating Layer label_cifar_1_split
I0501 00:31:26.274813  7196 net.cpp:408] label_cifar_1_split <- label
I0501 00:31:26.274834  7196 net.cpp:382] label_cifar_1_split -> label_cifar_1_split_0
I0501 00:31:26.274843  7196 net.cpp:382] label_cifar_1_split -> label_cifar_1_split_1
I0501 00:31:26.274897  7196 net.cpp:124] Setting up label_cifar_1_split
I0501 00:31:26.274904  7196 net.cpp:131] Top shape: 1000 (1000)
I0501 00:31:26.274909  7196 net.cpp:131] Top shape: 1000 (1000)
I0501 00:31:26.274912  7196 net.cpp:139] Memory required for data: 12300000
I0501 00:31:26.274915  7196 layer_factory.hpp:77] Creating layer conv0
I0501 00:31:26.274927  7196 net.cpp:86] Creating Layer conv0
I0501 00:31:26.274931  7196 net.cpp:408] conv0 <- data
I0501 00:31:26.274937  7196 net.cpp:382] conv0 -> conv0
I0501 00:31:26.276592  7196 net.cpp:124] Setting up conv0
I0501 00:31:26.276605  7196 net.cpp:131] Top shape: 1000 8 34 34 (9248000)
I0501 00:31:26.276609  7196 net.cpp:139] Memory required for data: 49292000
I0501 00:31:26.276620  7196 layer_factory.hpp:77] Creating layer Sigmoid0
I0501 00:31:26.276643  7196 net.cpp:86] Creating Layer Sigmoid0
I0501 00:31:26.276646  7196 net.cpp:408] Sigmoid0 <- conv0
I0501 00:31:26.276651  7196 net.cpp:382] Sigmoid0 -> Sigmoid0
I0501 00:31:26.276818  7196 net.cpp:124] Setting up Sigmoid0
I0501 00:31:26.276829  7196 net.cpp:131] Top shape: 1000 8 34 34 (9248000)
I0501 00:31:26.276832  7196 net.cpp:139] Memory required for data: 86284000
I0501 00:31:26.276836  7196 layer_factory.hpp:77] Creating layer pool0
I0501 00:31:26.276845  7196 net.cpp:86] Creating Layer pool0
I0501 00:31:26.276849  7196 net.cpp:408] pool0 <- Sigmoid0
I0501 00:31:26.276854  7196 net.cpp:382] pool0 -> pool0
I0501 00:31:26.277006  7196 net.cpp:124] Setting up pool0
I0501 00:31:26.277015  7196 net.cpp:131] Top shape: 1000 8 17 17 (2312000)
I0501 00:31:26.277019  7196 net.cpp:139] Memory required for data: 95532000
I0501 00:31:26.277024  7196 layer_factory.hpp:77] Creating layer ip1
I0501 00:31:26.277030  7196 net.cpp:86] Creating Layer ip1
I0501 00:31:26.277034  7196 net.cpp:408] ip1 <- pool0
I0501 00:31:26.277040  7196 net.cpp:382] ip1 -> ip1
I0501 00:31:26.282203  7196 net.cpp:124] Setting up ip1
I0501 00:31:26.282214  7196 net.cpp:131] Top shape: 1000 80 (80000)
I0501 00:31:26.282219  7196 net.cpp:139] Memory required for data: 95852000
I0501 00:31:26.282258  7196 layer_factory.hpp:77] Creating layer relu1
I0501 00:31:26.282264  7196 net.cpp:86] Creating Layer relu1
I0501 00:31:26.282269  7196 net.cpp:408] relu1 <- ip1
I0501 00:31:26.282274  7196 net.cpp:369] relu1 -> ip1 (in-place)
I0501 00:31:26.282423  7196 net.cpp:124] Setting up relu1
I0501 00:31:26.282433  7196 net.cpp:131] Top shape: 1000 80 (80000)
I0501 00:31:26.282438  7196 net.cpp:139] Memory required for data: 96172000
I0501 00:31:26.282447  7196 layer_factory.hpp:77] Creating layer ip2
I0501 00:31:26.282454  7196 net.cpp:86] Creating Layer ip2
I0501 00:31:26.282457  7196 net.cpp:408] ip2 <- ip1
I0501 00:31:26.282464  7196 net.cpp:382] ip2 -> ip2
I0501 00:31:26.282577  7196 net.cpp:124] Setting up ip2
I0501 00:31:26.282584  7196 net.cpp:131] Top shape: 1000 10 (10000)
I0501 00:31:26.282588  7196 net.cpp:139] Memory required for data: 96212000
I0501 00:31:26.282604  7196 layer_factory.hpp:77] Creating layer relu2
I0501 00:31:26.282611  7196 net.cpp:86] Creating Layer relu2
I0501 00:31:26.282614  7196 net.cpp:408] relu2 <- ip2
I0501 00:31:26.282619  7196 net.cpp:369] relu2 -> ip2 (in-place)
I0501 00:31:26.283393  7196 net.cpp:124] Setting up relu2
I0501 00:31:26.283406  7196 net.cpp:131] Top shape: 1000 10 (10000)
I0501 00:31:26.283409  7196 net.cpp:139] Memory required for data: 96252000
I0501 00:31:26.283413  7196 layer_factory.hpp:77] Creating layer ip3
I0501 00:31:26.283437  7196 net.cpp:86] Creating Layer ip3
I0501 00:31:26.283442  7196 net.cpp:408] ip3 <- ip2
I0501 00:31:26.283447  7196 net.cpp:382] ip3 -> ip3
I0501 00:31:26.283560  7196 net.cpp:124] Setting up ip3
I0501 00:31:26.283570  7196 net.cpp:131] Top shape: 1000 10 (10000)
I0501 00:31:26.283572  7196 net.cpp:139] Memory required for data: 96292000
I0501 00:31:26.283579  7196 layer_factory.hpp:77] Creating layer relu3
I0501 00:31:26.283584  7196 net.cpp:86] Creating Layer relu3
I0501 00:31:26.283588  7196 net.cpp:408] relu3 <- ip3
I0501 00:31:26.283593  7196 net.cpp:369] relu3 -> ip3 (in-place)
I0501 00:31:26.283731  7196 net.cpp:124] Setting up relu3
I0501 00:31:26.283740  7196 net.cpp:131] Top shape: 1000 10 (10000)
I0501 00:31:26.283743  7196 net.cpp:139] Memory required for data: 96332000
I0501 00:31:26.283747  7196 layer_factory.hpp:77] Creating layer ip4
I0501 00:31:26.283754  7196 net.cpp:86] Creating Layer ip4
I0501 00:31:26.283758  7196 net.cpp:408] ip4 <- ip3
I0501 00:31:26.283764  7196 net.cpp:382] ip4 -> ip4
I0501 00:31:26.283871  7196 net.cpp:124] Setting up ip4
I0501 00:31:26.283879  7196 net.cpp:131] Top shape: 1000 10 (10000)
I0501 00:31:26.283884  7196 net.cpp:139] Memory required for data: 96372000
I0501 00:31:26.283891  7196 layer_factory.hpp:77] Creating layer ip4_ip4_0_split
I0501 00:31:26.283897  7196 net.cpp:86] Creating Layer ip4_ip4_0_split
I0501 00:31:26.283902  7196 net.cpp:408] ip4_ip4_0_split <- ip4
I0501 00:31:26.283906  7196 net.cpp:382] ip4_ip4_0_split -> ip4_ip4_0_split_0
I0501 00:31:26.283912  7196 net.cpp:382] ip4_ip4_0_split -> ip4_ip4_0_split_1
I0501 00:31:26.283942  7196 net.cpp:124] Setting up ip4_ip4_0_split
I0501 00:31:26.283948  7196 net.cpp:131] Top shape: 1000 10 (10000)
I0501 00:31:26.283952  7196 net.cpp:131] Top shape: 1000 10 (10000)
I0501 00:31:26.283956  7196 net.cpp:139] Memory required for data: 96452000
I0501 00:31:26.283959  7196 layer_factory.hpp:77] Creating layer accuracy
I0501 00:31:26.283965  7196 net.cpp:86] Creating Layer accuracy
I0501 00:31:26.283969  7196 net.cpp:408] accuracy <- ip4_ip4_0_split_0
I0501 00:31:26.283973  7196 net.cpp:408] accuracy <- label_cifar_1_split_0
I0501 00:31:26.283978  7196 net.cpp:382] accuracy -> accuracy
…
