…
I0501 04:02:33.655064 23635 net.cpp:296] The NetState phase (0) differed from the phase (1) specified by a rule in layer cifar
I0501 04:02:33.655079 23635 net.cpp:296] The NetState phase (0) differed from the phase (1) specified by a rule in layer accuracy
I0501 04:02:33.655192 23635 net.cpp:53] Initializing net from parameters: 
name: "CIFAR"
state {
  phase: TRAIN
  level: 0
  stage: ""
}
layer {
  name: "cifar"
  type: "Data"
  top: "data"
  top: "label"
  include {
    phase: TRAIN
  }
  transform_param {
    mean_file: "examples/cifar10/mean.binaryproto"
  }
  data_param {
    source: "examples/cifar10/cifar10_train_lmdb"
    batch_size: 111
    backend: LMDB
  }
}
layer {
  name: "conv0"
  type: "Convolution"
  bottom: "data"
  top: "conv0"
  param {
    lr_mult: 1
  }
  param {
    lr_mult: 2
  }
  convolution_param {
    num_output: 8
    pad: 2
    kernel_size: 5
    stride: 1
    weight_filler {
      type: "gaussian"
      std: 0.01
    }
    bias_filler {
      type: "constant"
    }
  }
}
layer {
  name: "Sigmoid0"
  type: "Sigmoid"
  bottom: "conv0"
  top: "Sigmoid0"
}
layer {
  name: "pool0"
  type: "Pooling"
  bottom: "Sigmoid0"
  top: "pool0"
  pooling_param {
    pool: AVE
    kernel_size: 3
    stride: 2
  }
}
layer {
  name: "ip1"
  type: "InnerProduct"
  bottom: "pool0"
  top: "ip1"
  param {
    lr_mult: 1
  }
  param {
    lr_mult: 2
  }
  inner_product_param {
    num_output: 20
    weight_filler {
      type: "gaussian"
      std: 0.01
    }
    bias_filler {
      type: "constant"
    }
  }
}
layer {
  name: "relu1"
  type: "ReLU"
  bottom: "ip1"
  top: "ip1"
}
layer {
  name: "ip2"
  type: "InnerProduct"
  bottom: "ip1"
  top: "ip2"
  param {
    lr_mult: 1
  }
  param {
    lr_mult: 2
  }
  inner_product_param {
    num_output: 20
    weight_filler {
      type: "gaussian"
      std: 0.01
    }
    bias_filler {
      type: "constant"
    }
  }
}
layer {
  name: "relu2"
  type: "ReLU"
  bottom: "ip2"
  top: "ip2"
}
layer {
  name: "ip3"
  type: "InnerProduct"
  bottom: "ip2"
  top: "ip3"
  param {
    lr_mult: 1
  }
  param {
    lr_mult: 2
  }
  inner_product_param {
    num_output: 80
    weight_filler {
      type: "gaussian"
      std: 0.01
    }
    bias_filler {
      type: "constant"
    }
  }
}
layer {
  name: "relu3"
  type: "ReLU"
  bottom: "ip3"
  top: "ip3"
}
layer {
  name: "ip4"
  type: "InnerProduct"
  bottom: "ip3"
  top: "ip4"
  param {
    lr_mult: 1
  }
  param {
    lr_mult: 2
  }
  inner_product_param {
    num_output: 10
    weight_filler {
      type: "gaussian"
      std: 0.01
    }
    bias_filler {
      type: "constant"
    }
  }
}
layer {
  name: "loss"
  type: "SoftmaxWithLoss"
  bottom: "ip4"
  bottom: "label"
  top: "loss"
}
I0501 04:02:33.655256 23635 layer_factory.hpp:77] Creating layer cifar
I0501 04:02:33.655339 23635 db_lmdb.cpp:35] Opened lmdb examples/cifar10/cifar10_train_lmdb
I0501 04:02:33.655359 23635 net.cpp:86] Creating Layer cifar
I0501 04:02:33.655366 23635 net.cpp:382] cifar -> data
I0501 04:02:33.655385 23635 net.cpp:382] cifar -> label
I0501 04:02:33.655397 23635 data_transformer.cpp:25] Loading mean file from: examples/cifar10/mean.binaryproto
I0501 04:02:33.657145 23635 data_layer.cpp:45] output data size: 111,3,32,32
I0501 04:02:33.663489 23635 net.cpp:124] Setting up cifar
I0501 04:02:33.663504 23635 net.cpp:131] Top shape: 111 3 32 32 (340992)
I0501 04:02:33.663511 23635 net.cpp:131] Top shape: 111 (111)
I0501 04:02:33.663513 23635 net.cpp:139] Memory required for data: 1364412
I0501 04:02:33.663530 23635 layer_factory.hpp:77] Creating layer conv0
I0501 04:02:33.663561 23635 net.cpp:86] Creating Layer conv0
I0501 04:02:33.663565 23635 net.cpp:408] conv0 <- data
I0501 04:02:33.663576 23635 net.cpp:382] conv0 -> conv0
I0501 04:02:33.885335 23635 net.cpp:124] Setting up conv0
I0501 04:02:33.885360 23635 net.cpp:131] Top shape: 111 8 32 32 (909312)
I0501 04:02:33.885365 23635 net.cpp:139] Memory required for data: 5001660
I0501 04:02:33.885380 23635 layer_factory.hpp:77] Creating layer Sigmoid0
I0501 04:02:33.885406 23635 net.cpp:86] Creating Layer Sigmoid0
I0501 04:02:33.885411 23635 net.cpp:408] Sigmoid0 <- conv0
I0501 04:02:33.885416 23635 net.cpp:382] Sigmoid0 -> Sigmoid0
I0501 04:02:33.885576 23635 net.cpp:124] Setting up Sigmoid0
I0501 04:02:33.885584 23635 net.cpp:131] Top shape: 111 8 32 32 (909312)
I0501 04:02:33.885587 23635 net.cpp:139] Memory required for data: 8638908
I0501 04:02:33.885591 23635 layer_factory.hpp:77] Creating layer pool0
I0501 04:02:33.885598 23635 net.cpp:86] Creating Layer pool0
I0501 04:02:33.885601 23635 net.cpp:408] pool0 <- Sigmoid0
I0501 04:02:33.885606 23635 net.cpp:382] pool0 -> pool0
I0501 04:02:33.886327 23635 net.cpp:124] Setting up pool0
I0501 04:02:33.886340 23635 net.cpp:131] Top shape: 111 8 16 16 (227328)
I0501 04:02:33.886343 23635 net.cpp:139] Memory required for data: 9548220
I0501 04:02:33.886346 23635 layer_factory.hpp:77] Creating layer ip1
I0501 04:02:33.886371 23635 net.cpp:86] Creating Layer ip1
I0501 04:02:33.886374 23635 net.cpp:408] ip1 <- pool0
I0501 04:02:33.886380 23635 net.cpp:382] ip1 -> ip1
I0501 04:02:33.888352 23635 net.cpp:124] Setting up ip1
I0501 04:02:33.888365 23635 net.cpp:131] Top shape: 111 20 (2220)
I0501 04:02:33.888368 23635 net.cpp:139] Memory required for data: 9557100
I0501 04:02:33.888391 23635 layer_factory.hpp:77] Creating layer relu1
I0501 04:02:33.888399 23635 net.cpp:86] Creating Layer relu1
I0501 04:02:33.888403 23635 net.cpp:408] relu1 <- ip1
I0501 04:02:33.888407 23635 net.cpp:369] relu1 -> ip1 (in-place)
I0501 04:02:33.888556 23635 net.cpp:124] Setting up relu1
I0501 04:02:33.888564 23635 net.cpp:131] Top shape: 111 20 (2220)
I0501 04:02:33.888567 23635 net.cpp:139] Memory required for data: 9565980
I0501 04:02:33.888571 23635 layer_factory.hpp:77] Creating layer ip2
I0501 04:02:33.888576 23635 net.cpp:86] Creating Layer ip2
I0501 04:02:33.888579 23635 net.cpp:408] ip2 <- ip1
I0501 04:02:33.888584 23635 net.cpp:382] ip2 -> ip2
I0501 04:02:33.888677 23635 net.cpp:124] Setting up ip2
I0501 04:02:33.888684 23635 net.cpp:131] Top shape: 111 20 (2220)
I0501 04:02:33.888687 23635 net.cpp:139] Memory required for data: 9574860
I0501 04:02:33.888695 23635 layer_factory.hpp:77] Creating layer relu2
I0501 04:02:33.888698 23635 net.cpp:86] Creating Layer relu2
I0501 04:02:33.888701 23635 net.cpp:408] relu2 <- ip2
I0501 04:02:33.888705 23635 net.cpp:369] relu2 -> ip2 (in-place)
I0501 04:02:33.888888 23635 net.cpp:124] Setting up relu2
I0501 04:02:33.888896 23635 net.cpp:131] Top shape: 111 20 (2220)
I0501 04:02:33.888900 23635 net.cpp:139] Memory required for data: 9583740
I0501 04:02:33.888903 23635 layer_factory.hpp:77] Creating layer ip3
I0501 04:02:33.888911 23635 net.cpp:86] Creating Layer ip3
I0501 04:02:33.888913 23635 net.cpp:408] ip3 <- ip2
I0501 04:02:33.888918 23635 net.cpp:382] ip3 -> ip3
I0501 04:02:33.889065 23635 net.cpp:124] Setting up ip3
I0501 04:02:33.889073 23635 net.cpp:131] Top shape: 111 80 (8880)
I0501 04:02:33.889076 23635 net.cpp:139] Memory required for data: 9619260
I0501 04:02:33.889082 23635 layer_factory.hpp:77] Creating layer relu3
I0501 04:02:33.889087 23635 net.cpp:86] Creating Layer relu3
I0501 04:02:33.889091 23635 net.cpp:408] relu3 <- ip3
I0501 04:02:33.889094 23635 net.cpp:369] relu3 -> ip3 (in-place)
I0501 04:02:33.889267 23635 net.cpp:124] Setting up relu3
I0501 04:02:33.889274 23635 net.cpp:131] Top shape: 111 80 (8880)
I0501 04:02:33.889277 23635 net.cpp:139] Memory required for data: 9654780
I0501 04:02:33.889281 23635 layer_factory.hpp:77] Creating layer ip4
I0501 04:02:33.889302 23635 net.cpp:86] Creating Layer ip4
I0501 04:02:33.889304 23635 net.cpp:408] ip4 <- ip3
I0501 04:02:33.889309 23635 net.cpp:382] ip4 -> ip4
I0501 04:02:33.889421 23635 net.cpp:124] Setting up ip4
I0501 04:02:33.889428 23635 net.cpp:131] Top shape: 111 10 (1110)
I0501 04:02:33.889431 23635 net.cpp:139] Memory required for data: 9659220
I0501 04:02:33.889438 23635 layer_factory.hpp:77] Creating layer loss
I0501 04:02:33.889443 23635 net.cpp:86] Creating Layer loss
I0501 04:02:33.889446 23635 net.cpp:408] loss <- ip4
I0501 04:02:33.889451 23635 net.cpp:408] loss <- label
I0501 04:02:33.889456 23635 net.cpp:382] loss -> loss
I0501 04:02:33.889472 23635 layer_factory.hpp:77] Creating layer loss
…
I0501 04:02:33.890657 23635 solver.cpp:173] Creating test net (#0) specified by net file: ECE595/cifar/train_test/var_everything/cifar_train_test_373.prototxt
I0501 04:02:33.890684 23635 net.cpp:296] The NetState phase (1) differed from the phase (0) specified by a rule in layer cifar
I0501 04:02:33.890795 23635 net.cpp:53] Initializing net from parameters: 
name: "CIFAR"
state {
  phase: TEST
}
layer {
  name: "cifar"
  type: "Data"
  top: "data"
  top: "label"
  include {
    phase: TEST
  }
  transform_param {
    mean_file: "examples/cifar10/mean.binaryproto"
  }
  data_param {
    source: "examples/cifar10/cifar10_test_lmdb"
    batch_size: 1000
    backend: LMDB
  }
}
layer {
  name: "conv0"
  type: "Convolution"
  bottom: "data"
  top: "conv0"
  param {
    lr_mult: 1
  }
  param {
    lr_mult: 2
  }
  convolution_param {
    num_output: 8
    pad: 2
    kernel_size: 5
    stride: 1
    weight_filler {
      type: "gaussian"
      std: 0.01
    }
    bias_filler {
      type: "constant"
    }
  }
}
layer {
  name: "Sigmoid0"
  type: "Sigmoid"
  bottom: "conv0"
  top: "Sigmoid0"
}
layer {
  name: "pool0"
  type: "Pooling"
  bottom: "Sigmoid0"
  top: "pool0"
  pooling_param {
    pool: AVE
    kernel_size: 3
    stride: 2
  }
}
layer {
  name: "ip1"
  type: "InnerProduct"
  bottom: "pool0"
  top: "ip1"
  param {
    lr_mult: 1
  }
  param {
    lr_mult: 2
  }
  inner_product_param {
    num_output: 20
    weight_filler {
      type: "gaussian"
      std: 0.01
    }
    bias_filler {
      type: "constant"
    }
  }
}
layer {
  name: "relu1"
  type: "ReLU"
  bottom: "ip1"
  top: "ip1"
}
layer {
  name: "ip2"
  type: "InnerProduct"
  bottom: "ip1"
  top: "ip2"
  param {
    lr_mult: 1
  }
  param {
    lr_mult: 2
  }
  inner_product_param {
    num_output: 20
    weight_filler {
      type: "gaussian"
      std: 0.01
    }
    bias_filler {
      type: "constant"
    }
  }
}
layer {
  name: "relu2"
  type: "ReLU"
  bottom: "ip2"
  top: "ip2"
}
layer {
  name: "ip3"
  type: "InnerProduct"
  bottom: "ip2"
  top: "ip3"
  param {
    lr_mult: 1
  }
  param {
    lr_mult: 2
  }
  inner_product_param {
    num_output: 80
    weight_filler {
      type: "gaussian"
      std: 0.01
    }
    bias_filler {
      type: "constant"
    }
  }
}
layer {
  name: "relu3"
  type: "ReLU"
  bottom: "ip3"
  top: "ip3"
}
layer {
  name: "ip4"
  type: "InnerProduct"
  bottom: "ip3"
  top: "ip4"
  param {
    lr_mult: 1
  }
  param {
    lr_mult: 2
  }
  inner_product_param {
    num_output: 10
    weight_filler {
      type: "gaussian"
      std: 0.01
    }
    bias_filler {
      type: "constant"
    }
  }
}
layer {
  name: "accuracy"
  type: "Accuracy"
  bottom: "ip4"
  bottom: "label"
  top: "accuracy"
  include {
    phase: TEST
  }
}
layer {
  name: "loss"
  type: "SoftmaxWithLoss"
  bottom: "ip4"
  bottom: "label"
  top: "loss"
}
I0501 04:02:33.890873 23635 layer_factory.hpp:77] Creating layer cifar
I0501 04:02:33.890918 23635 db_lmdb.cpp:35] Opened lmdb examples/cifar10/cifar10_test_lmdb
I0501 04:02:33.890930 23635 net.cpp:86] Creating Layer cifar
I0501 04:02:33.890935 23635 net.cpp:382] cifar -> data
I0501 04:02:33.890943 23635 net.cpp:382] cifar -> label
I0501 04:02:33.890949 23635 data_transformer.cpp:25] Loading mean file from: examples/cifar10/mean.binaryproto
I0501 04:02:33.891104 23635 data_layer.cpp:45] output data size: 1000,3,32,32
I0501 04:02:33.912729 23635 net.cpp:124] Setting up cifar
I0501 04:02:33.912755 23635 net.cpp:131] Top shape: 1000 3 32 32 (3072000)
I0501 04:02:33.912761 23635 net.cpp:131] Top shape: 1000 (1000)
I0501 04:02:33.912765 23635 net.cpp:139] Memory required for data: 12292000
I0501 04:02:33.912770 23635 layer_factory.hpp:77] Creating layer label_cifar_1_split
I0501 04:02:33.912781 23635 net.cpp:86] Creating Layer label_cifar_1_split
I0501 04:02:33.912786 23635 net.cpp:408] label_cifar_1_split <- label
I0501 04:02:33.912791 23635 net.cpp:382] label_cifar_1_split -> label_cifar_1_split_0
I0501 04:02:33.912799 23635 net.cpp:382] label_cifar_1_split -> label_cifar_1_split_1
I0501 04:02:33.912948 23635 net.cpp:124] Setting up label_cifar_1_split
I0501 04:02:33.912956 23635 net.cpp:131] Top shape: 1000 (1000)
I0501 04:02:33.912961 23635 net.cpp:131] Top shape: 1000 (1000)
I0501 04:02:33.912963 23635 net.cpp:139] Memory required for data: 12300000
I0501 04:02:33.912966 23635 layer_factory.hpp:77] Creating layer conv0
I0501 04:02:33.912979 23635 net.cpp:86] Creating Layer conv0
I0501 04:02:33.912982 23635 net.cpp:408] conv0 <- data
I0501 04:02:33.912988 23635 net.cpp:382] conv0 -> conv0
I0501 04:02:33.914517 23635 net.cpp:124] Setting up conv0
I0501 04:02:33.914546 23635 net.cpp:131] Top shape: 1000 8 32 32 (8192000)
I0501 04:02:33.914551 23635 net.cpp:139] Memory required for data: 45068000
I0501 04:02:33.914559 23635 layer_factory.hpp:77] Creating layer Sigmoid0
I0501 04:02:33.914567 23635 net.cpp:86] Creating Layer Sigmoid0
I0501 04:02:33.914572 23635 net.cpp:408] Sigmoid0 <- conv0
I0501 04:02:33.914575 23635 net.cpp:382] Sigmoid0 -> Sigmoid0
I0501 04:02:33.914753 23635 net.cpp:124] Setting up Sigmoid0
I0501 04:02:33.914763 23635 net.cpp:131] Top shape: 1000 8 32 32 (8192000)
I0501 04:02:33.914767 23635 net.cpp:139] Memory required for data: 77836000
I0501 04:02:33.914770 23635 layer_factory.hpp:77] Creating layer pool0
I0501 04:02:33.914778 23635 net.cpp:86] Creating Layer pool0
I0501 04:02:33.914782 23635 net.cpp:408] pool0 <- Sigmoid0
I0501 04:02:33.914785 23635 net.cpp:382] pool0 -> pool0
I0501 04:02:33.916013 23635 net.cpp:124] Setting up pool0
I0501 04:02:33.916023 23635 net.cpp:131] Top shape: 1000 8 16 16 (2048000)
I0501 04:02:33.916025 23635 net.cpp:139] Memory required for data: 86028000
I0501 04:02:33.916033 23635 layer_factory.hpp:77] Creating layer ip1
I0501 04:02:33.916041 23635 net.cpp:86] Creating Layer ip1
I0501 04:02:33.916044 23635 net.cpp:408] ip1 <- pool0
I0501 04:02:33.916049 23635 net.cpp:382] ip1 -> ip1
I0501 04:02:33.917454 23635 net.cpp:124] Setting up ip1
I0501 04:02:33.917464 23635 net.cpp:131] Top shape: 1000 20 (20000)
I0501 04:02:33.917466 23635 net.cpp:139] Memory required for data: 86108000
I0501 04:02:33.917488 23635 layer_factory.hpp:77] Creating layer relu1
I0501 04:02:33.917495 23635 net.cpp:86] Creating Layer relu1
I0501 04:02:33.917497 23635 net.cpp:408] relu1 <- ip1
I0501 04:02:33.917502 23635 net.cpp:369] relu1 -> ip1 (in-place)
I0501 04:02:33.917673 23635 net.cpp:124] Setting up relu1
I0501 04:02:33.917682 23635 net.cpp:131] Top shape: 1000 20 (20000)
I0501 04:02:33.917685 23635 net.cpp:139] Memory required for data: 86188000
I0501 04:02:33.917690 23635 layer_factory.hpp:77] Creating layer ip2
I0501 04:02:33.917695 23635 net.cpp:86] Creating Layer ip2
I0501 04:02:33.917698 23635 net.cpp:408] ip2 <- ip1
I0501 04:02:33.917703 23635 net.cpp:382] ip2 -> ip2
I0501 04:02:33.917814 23635 net.cpp:124] Setting up ip2
I0501 04:02:33.917821 23635 net.cpp:131] Top shape: 1000 20 (20000)
I0501 04:02:33.917824 23635 net.cpp:139] Memory required for data: 86268000
I0501 04:02:33.917831 23635 layer_factory.hpp:77] Creating layer relu2
I0501 04:02:33.917836 23635 net.cpp:86] Creating Layer relu2
I0501 04:02:33.917840 23635 net.cpp:408] relu2 <- ip2
I0501 04:02:33.917845 23635 net.cpp:369] relu2 -> ip2 (in-place)
I0501 04:02:33.918576 23635 net.cpp:124] Setting up relu2
I0501 04:02:33.918587 23635 net.cpp:131] Top shape: 1000 20 (20000)
I0501 04:02:33.918591 23635 net.cpp:139] Memory required for data: 86348000
I0501 04:02:33.918593 23635 layer_factory.hpp:77] Creating layer ip3
I0501 04:02:33.918601 23635 net.cpp:86] Creating Layer ip3
I0501 04:02:33.918604 23635 net.cpp:408] ip3 <- ip2
I0501 04:02:33.918612 23635 net.cpp:382] ip3 -> ip3
I0501 04:02:33.918784 23635 net.cpp:124] Setting up ip3
I0501 04:02:33.918792 23635 net.cpp:131] Top shape: 1000 80 (80000)
I0501 04:02:33.918795 23635 net.cpp:139] Memory required for data: 86668000
I0501 04:02:33.918800 23635 layer_factory.hpp:77] Creating layer relu3
I0501 04:02:33.918805 23635 net.cpp:86] Creating Layer relu3
I0501 04:02:33.918809 23635 net.cpp:408] relu3 <- ip3
I0501 04:02:33.918813 23635 net.cpp:369] relu3 -> ip3 (in-place)
I0501 04:02:33.918964 23635 net.cpp:124] Setting up relu3
I0501 04:02:33.918972 23635 net.cpp:131] Top shape: 1000 80 (80000)
I0501 04:02:33.918975 23635 net.cpp:139] Memory required for data: 86988000
I0501 04:02:33.918978 23635 layer_factory.hpp:77] Creating layer ip4
I0501 04:02:33.918984 23635 net.cpp:86] Creating Layer ip4
I0501 04:02:33.918987 23635 net.cpp:408] ip4 <- ip3
I0501 04:02:33.918992 23635 net.cpp:382] ip4 -> ip4
I0501 04:02:33.919119 23635 net.cpp:124] Setting up ip4
I0501 04:02:33.919126 23635 net.cpp:131] Top shape: 1000 10 (10000)
I0501 04:02:33.919128 23635 net.cpp:139] Memory required for data: 87028000
I0501 04:02:33.919136 23635 layer_factory.hpp:77] Creating layer ip4_ip4_0_split
I0501 04:02:33.919142 23635 net.cpp:86] Creating Layer ip4_ip4_0_split
I0501 04:02:33.919144 23635 net.cpp:408] ip4_ip4_0_split <- ip4
I0501 04:02:33.919152 23635 net.cpp:382] ip4_ip4_0_split -> ip4_ip4_0_split_0
I0501 04:02:33.919157 23635 net.cpp:382] ip4_ip4_0_split -> ip4_ip4_0_split_1
I0501 04:02:33.919186 23635 net.cpp:124] Setting up ip4_ip4_0_split
I0501 04:02:33.919195 23635 net.cpp:131] Top shape: 1000 10 (10000)
I0501 04:02:33.919199 23635 net.cpp:131] Top shape: 1000 10 (10000)
I0501 04:02:33.919201 23635 net.cpp:139] Memory required for data: 87108000
I0501 04:02:33.919204 23635 layer_factory.hpp:77] Creating layer accuracy
I0501 04:02:33.919214 23635 net.cpp:86] Creating Layer accuracy
I0501 04:02:33.919217 23635 net.cpp:408] accuracy <- ip4_ip4_0_split_0
I0501 04:02:33.919221 23635 net.cpp:408] accuracy <- label_cifar_1_split_0
I0501 04:02:33.919226 23635 net.cpp:382] accuracy -> accuracy
…
