…
I0430 22:10:32.424852   833 net.cpp:296] The NetState phase (0) differed from the phase (1) specified by a rule in layer cifar
I0430 22:10:32.424872   833 net.cpp:296] The NetState phase (0) differed from the phase (1) specified by a rule in layer accuracy
I0430 22:10:32.425010   833 net.cpp:53] Initializing net from parameters: 
name: "CIFAR"
state {
  phase: TRAIN
  level: 0
  stage: ""
}
layer {
  name: "cifar"
  type: "Data"
  top: "data"
  top: "label"
  include {
    phase: TRAIN
  }
  transform_param {
    mean_file: "examples/cifar10/mean.binaryproto"
  }
  data_param {
    source: "examples/cifar10/cifar10_train_lmdb"
    batch_size: 111
    backend: LMDB
  }
}
layer {
  name: "conv0"
  type: "Convolution"
  bottom: "data"
  top: "conv0"
  param {
    lr_mult: 1
  }
  param {
    lr_mult: 2
  }
  convolution_param {
    num_output: 8
    pad: 2
    kernel_size: 3
    stride: 1
    weight_filler {
      type: "gaussian"
      std: 0.01
    }
    bias_filler {
      type: "constant"
    }
  }
}
layer {
  name: "Sigmoid0"
  type: "Sigmoid"
  bottom: "conv0"
  top: "Sigmoid0"
}
layer {
  name: "pool0"
  type: "Pooling"
  bottom: "Sigmoid0"
  top: "pool0"
  pooling_param {
    pool: AVE
    kernel_size: 3
    stride: 2
  }
}
layer {
  name: "ip1"
  type: "InnerProduct"
  bottom: "pool0"
  top: "ip1"
  param {
    lr_mult: 1
  }
  param {
    lr_mult: 2
  }
  inner_product_param {
    num_output: 10
    weight_filler {
      type: "gaussian"
      std: 0.01
    }
    bias_filler {
      type: "constant"
    }
  }
}
layer {
  name: "relu1"
  type: "ReLU"
  bottom: "ip1"
  top: "ip1"
}
layer {
  name: "ip2"
  type: "InnerProduct"
  bottom: "ip1"
  top: "ip2"
  param {
    lr_mult: 1
  }
  param {
    lr_mult: 2
  }
  inner_product_param {
    num_output: 10
    weight_filler {
      type: "gaussian"
      std: 0.01
    }
    bias_filler {
      type: "constant"
    }
  }
}
layer {
  name: "relu2"
  type: "ReLU"
  bottom: "ip2"
  top: "ip2"
}
layer {
  name: "ip3"
  type: "InnerProduct"
  bottom: "ip2"
  top: "ip3"
  param {
    lr_mult: 1
  }
  param {
    lr_mult: 2
  }
  inner_product_param {
    num_output: 10
    weight_filler {
      type: "gaussian"
      std: 0.01
    }
    bias_filler {
      type: "constant"
    }
  }
}
layer {
  name: "relu3"
  type: "ReLU"
  bottom: "ip3"
  top: "ip3"
}
layer {
  name: "ip4"
  type: "InnerProduct"
  bottom: "ip3"
  top: "ip4"
  param {
    lr_mult: 1
  }
  param {
    lr_mult: 2
  }
  inner_product_param {
    num_output: 10
    weight_filler {
      type: "gaussian"
      std: 0.01
    }
    bias_filler {
      type: "constant"
    }
  }
}
layer {
  name: "loss"
  type: "SoftmaxWithLoss"
  bottom: "ip4"
  bottom: "label"
  top: "loss"
}
I0430 22:10:32.425092   833 layer_factory.hpp:77] Creating layer cifar
I0430 22:10:32.425210   833 db_lmdb.cpp:35] Opened lmdb examples/cifar10/cifar10_train_lmdb
I0430 22:10:32.425248   833 net.cpp:86] Creating Layer cifar
I0430 22:10:32.425262   833 net.cpp:382] cifar -> data
I0430 22:10:32.425299   833 net.cpp:382] cifar -> label
I0430 22:10:32.425319   833 data_transformer.cpp:25] Loading mean file from: examples/cifar10/mean.binaryproto
I0430 22:10:32.427486   833 data_layer.cpp:45] output data size: 111,3,32,32
I0430 22:10:32.435384   833 net.cpp:124] Setting up cifar
I0430 22:10:32.435402   833 net.cpp:131] Top shape: 111 3 32 32 (340992)
I0430 22:10:32.435408   833 net.cpp:131] Top shape: 111 (111)
I0430 22:10:32.435411   833 net.cpp:139] Memory required for data: 1364412
I0430 22:10:32.435434   833 layer_factory.hpp:77] Creating layer conv0
I0430 22:10:32.435454   833 net.cpp:86] Creating Layer conv0
I0430 22:10:32.435459   833 net.cpp:408] conv0 <- data
I0430 22:10:32.435472   833 net.cpp:382] conv0 -> conv0
I0430 22:10:32.727483   833 net.cpp:124] Setting up conv0
I0430 22:10:32.727525   833 net.cpp:131] Top shape: 111 8 34 34 (1026528)
I0430 22:10:32.727530   833 net.cpp:139] Memory required for data: 5470524
I0430 22:10:32.727545   833 layer_factory.hpp:77] Creating layer Sigmoid0
I0430 22:10:32.727556   833 net.cpp:86] Creating Layer Sigmoid0
I0430 22:10:32.727560   833 net.cpp:408] Sigmoid0 <- conv0
I0430 22:10:32.727566   833 net.cpp:382] Sigmoid0 -> Sigmoid0
I0430 22:10:32.727778   833 net.cpp:124] Setting up Sigmoid0
I0430 22:10:32.727789   833 net.cpp:131] Top shape: 111 8 34 34 (1026528)
I0430 22:10:32.727792   833 net.cpp:139] Memory required for data: 9576636
I0430 22:10:32.727797   833 layer_factory.hpp:77] Creating layer pool0
I0430 22:10:32.727803   833 net.cpp:86] Creating Layer pool0
I0430 22:10:32.727810   833 net.cpp:408] pool0 <- Sigmoid0
I0430 22:10:32.727833   833 net.cpp:382] pool0 -> pool0
I0430 22:10:32.728617   833 net.cpp:124] Setting up pool0
I0430 22:10:32.728646   833 net.cpp:131] Top shape: 111 8 17 17 (256632)
I0430 22:10:32.728649   833 net.cpp:139] Memory required for data: 10603164
I0430 22:10:32.728652   833 layer_factory.hpp:77] Creating layer ip1
I0430 22:10:32.728662   833 net.cpp:86] Creating Layer ip1
I0430 22:10:32.728665   833 net.cpp:408] ip1 <- pool0
I0430 22:10:32.728670   833 net.cpp:382] ip1 -> ip1
I0430 22:10:32.730533   833 net.cpp:124] Setting up ip1
I0430 22:10:32.730545   833 net.cpp:131] Top shape: 111 10 (1110)
I0430 22:10:32.730564   833 net.cpp:139] Memory required for data: 10607604
I0430 22:10:32.730588   833 layer_factory.hpp:77] Creating layer relu1
I0430 22:10:32.730594   833 net.cpp:86] Creating Layer relu1
I0430 22:10:32.730598   833 net.cpp:408] relu1 <- ip1
I0430 22:10:32.730602   833 net.cpp:369] relu1 -> ip1 (in-place)
I0430 22:10:32.730779   833 net.cpp:124] Setting up relu1
I0430 22:10:32.730789   833 net.cpp:131] Top shape: 111 10 (1110)
I0430 22:10:32.730792   833 net.cpp:139] Memory required for data: 10612044
I0430 22:10:32.730795   833 layer_factory.hpp:77] Creating layer ip2
I0430 22:10:32.730803   833 net.cpp:86] Creating Layer ip2
I0430 22:10:32.730805   833 net.cpp:408] ip2 <- ip1
I0430 22:10:32.730811   833 net.cpp:382] ip2 -> ip2
I0430 22:10:32.730937   833 net.cpp:124] Setting up ip2
I0430 22:10:32.730943   833 net.cpp:131] Top shape: 111 10 (1110)
I0430 22:10:32.730947   833 net.cpp:139] Memory required for data: 10616484
I0430 22:10:32.730954   833 layer_factory.hpp:77] Creating layer relu2
I0430 22:10:32.730962   833 net.cpp:86] Creating Layer relu2
I0430 22:10:32.730983   833 net.cpp:408] relu2 <- ip2
I0430 22:10:32.730990   833 net.cpp:369] relu2 -> ip2 (in-place)
I0430 22:10:32.731164   833 net.cpp:124] Setting up relu2
I0430 22:10:32.731173   833 net.cpp:131] Top shape: 111 10 (1110)
I0430 22:10:32.731176   833 net.cpp:139] Memory required for data: 10620924
I0430 22:10:32.731179   833 layer_factory.hpp:77] Creating layer ip3
I0430 22:10:32.731190   833 net.cpp:86] Creating Layer ip3
I0430 22:10:32.731195   833 net.cpp:408] ip3 <- ip2
I0430 22:10:32.731204   833 net.cpp:382] ip3 -> ip3
I0430 22:10:32.731340   833 net.cpp:124] Setting up ip3
I0430 22:10:32.731348   833 net.cpp:131] Top shape: 111 10 (1110)
I0430 22:10:32.731351   833 net.cpp:139] Memory required for data: 10625364
I0430 22:10:32.731358   833 layer_factory.hpp:77] Creating layer relu3
I0430 22:10:32.731365   833 net.cpp:86] Creating Layer relu3
I0430 22:10:32.731371   833 net.cpp:408] relu3 <- ip3
I0430 22:10:32.731379   833 net.cpp:369] relu3 -> ip3 (in-place)
I0430 22:10:32.731536   833 net.cpp:124] Setting up relu3
I0430 22:10:32.731545   833 net.cpp:131] Top shape: 111 10 (1110)
I0430 22:10:32.731549   833 net.cpp:139] Memory required for data: 10629804
I0430 22:10:32.731552   833 layer_factory.hpp:77] Creating layer ip4
I0430 22:10:32.731580   833 net.cpp:86] Creating Layer ip4
I0430 22:10:32.731585   833 net.cpp:408] ip4 <- ip3
I0430 22:10:32.731593   833 net.cpp:382] ip4 -> ip4
I0430 22:10:32.731709   833 net.cpp:124] Setting up ip4
I0430 22:10:32.731717   833 net.cpp:131] Top shape: 111 10 (1110)
I0430 22:10:32.731720   833 net.cpp:139] Memory required for data: 10634244
I0430 22:10:32.731730   833 layer_factory.hpp:77] Creating layer loss
I0430 22:10:32.731739   833 net.cpp:86] Creating Layer loss
I0430 22:10:32.731744   833 net.cpp:408] loss <- ip4
I0430 22:10:32.731750   833 net.cpp:408] loss <- label
I0430 22:10:32.731757   833 net.cpp:382] loss -> loss
I0430 22:10:32.731781   833 layer_factory.hpp:77] Creating layer loss
…
I0430 22:10:32.733163   833 solver.cpp:173] Creating test net (#0) specified by net file: ECE595/cifar/train_test/var_everything/cifar_train_test_185.prototxt
I0430 22:10:32.733207   833 net.cpp:296] The NetState phase (1) differed from the phase (0) specified by a rule in layer cifar
I0430 22:10:32.733311   833 net.cpp:53] Initializing net from parameters: 
name: "CIFAR"
state {
  phase: TEST
}
layer {
  name: "cifar"
  type: "Data"
  top: "data"
  top: "label"
  include {
    phase: TEST
  }
  transform_param {
    mean_file: "examples/cifar10/mean.binaryproto"
  }
  data_param {
    source: "examples/cifar10/cifar10_test_lmdb"
    batch_size: 1000
    backend: LMDB
  }
}
layer {
  name: "conv0"
  type: "Convolution"
  bottom: "data"
  top: "conv0"
  param {
    lr_mult: 1
  }
  param {
    lr_mult: 2
  }
  convolution_param {
    num_output: 8
    pad: 2
    kernel_size: 3
    stride: 1
    weight_filler {
      type: "gaussian"
      std: 0.01
    }
    bias_filler {
      type: "constant"
    }
  }
}
layer {
  name: "Sigmoid0"
  type: "Sigmoid"
  bottom: "conv0"
  top: "Sigmoid0"
}
layer {
  name: "pool0"
  type: "Pooling"
  bottom: "Sigmoid0"
  top: "pool0"
  pooling_param {
    pool: AVE
    kernel_size: 3
    stride: 2
  }
}
layer {
  name: "ip1"
  type: "InnerProduct"
  bottom: "pool0"
  top: "ip1"
  param {
    lr_mult: 1
  }
  param {
    lr_mult: 2
  }
  inner_product_param {
    num_output: 10
    weight_filler {
      type: "gaussian"
      std: 0.01
    }
    bias_filler {
      type: "constant"
    }
  }
}
layer {
  name: "relu1"
  type: "ReLU"
  bottom: "ip1"
  top: "ip1"
}
layer {
  name: "ip2"
  type: "InnerProduct"
  bottom: "ip1"
  top: "ip2"
  param {
    lr_mult: 1
  }
  param {
    lr_mult: 2
  }
  inner_product_param {
    num_output: 10
    weight_filler {
      type: "gaussian"
      std: 0.01
    }
    bias_filler {
      type: "constant"
    }
  }
}
layer {
  name: "relu2"
  type: "ReLU"
  bottom: "ip2"
  top: "ip2"
}
layer {
  name: "ip3"
  type: "InnerProduct"
  bottom: "ip2"
  top: "ip3"
  param {
    lr_mult: 1
  }
  param {
    lr_mult: 2
  }
  inner_product_param {
    num_output: 10
    weight_filler {
      type: "gaussian"
      std: 0.01
    }
    bias_filler {
      type: "constant"
    }
  }
}
layer {
  name: "relu3"
  type: "ReLU"
  bottom: "ip3"
  top: "ip3"
}
layer {
  name: "ip4"
  type: "InnerProduct"
  bottom: "ip3"
  top: "ip4"
  param {
    lr_mult: 1
  }
  param {
    lr_mult: 2
  }
  inner_product_param {
    num_output: 10
    weight_filler {
      type: "gaussian"
      std: 0.01
    }
    bias_filler {
      type: "constant"
    }
  }
}
layer {
  name: "accuracy"
  type: "Accuracy"
  bottom: "ip4"
  bottom: "label"
  top: "accuracy"
  include {
    phase: TEST
  }
}
layer {
  name: "loss"
  type: "SoftmaxWithLoss"
  bottom: "ip4"
  bottom: "label"
  top: "loss"
}
I0430 22:10:32.733429   833 layer_factory.hpp:77] Creating layer cifar
I0430 22:10:32.733487   833 db_lmdb.cpp:35] Opened lmdb examples/cifar10/cifar10_test_lmdb
I0430 22:10:32.733503   833 net.cpp:86] Creating Layer cifar
I0430 22:10:32.733510   833 net.cpp:382] cifar -> data
I0430 22:10:32.733521   833 net.cpp:382] cifar -> label
I0430 22:10:32.733531   833 data_transformer.cpp:25] Loading mean file from: examples/cifar10/mean.binaryproto
I0430 22:10:32.733716   833 data_layer.cpp:45] output data size: 1000,3,32,32
I0430 22:10:32.756531   833 net.cpp:124] Setting up cifar
I0430 22:10:32.756574   833 net.cpp:131] Top shape: 1000 3 32 32 (3072000)
I0430 22:10:32.756579   833 net.cpp:131] Top shape: 1000 (1000)
I0430 22:10:32.756583   833 net.cpp:139] Memory required for data: 12292000
I0430 22:10:32.756588   833 layer_factory.hpp:77] Creating layer label_cifar_1_split
I0430 22:10:32.756618   833 net.cpp:86] Creating Layer label_cifar_1_split
I0430 22:10:32.756624   833 net.cpp:408] label_cifar_1_split <- label
I0430 22:10:32.756640   833 net.cpp:382] label_cifar_1_split -> label_cifar_1_split_0
I0430 22:10:32.756654   833 net.cpp:382] label_cifar_1_split -> label_cifar_1_split_1
I0430 22:10:32.756716   833 net.cpp:124] Setting up label_cifar_1_split
I0430 22:10:32.756722   833 net.cpp:131] Top shape: 1000 (1000)
I0430 22:10:32.756727   833 net.cpp:131] Top shape: 1000 (1000)
I0430 22:10:32.756731   833 net.cpp:139] Memory required for data: 12300000
I0430 22:10:32.756736   833 layer_factory.hpp:77] Creating layer conv0
I0430 22:10:32.756752   833 net.cpp:86] Creating Layer conv0
I0430 22:10:32.756759   833 net.cpp:408] conv0 <- data
I0430 22:10:32.756767   833 net.cpp:382] conv0 -> conv0
I0430 22:10:32.758368   833 net.cpp:124] Setting up conv0
I0430 22:10:32.758397   833 net.cpp:131] Top shape: 1000 8 34 34 (9248000)
I0430 22:10:32.758401   833 net.cpp:139] Memory required for data: 49292000
I0430 22:10:32.758410   833 layer_factory.hpp:77] Creating layer Sigmoid0
I0430 22:10:32.758419   833 net.cpp:86] Creating Layer Sigmoid0
I0430 22:10:32.758424   833 net.cpp:408] Sigmoid0 <- conv0
I0430 22:10:32.758431   833 net.cpp:382] Sigmoid0 -> Sigmoid0
I0430 22:10:32.759608   833 net.cpp:124] Setting up Sigmoid0
I0430 22:10:32.759619   833 net.cpp:131] Top shape: 1000 8 34 34 (9248000)
I0430 22:10:32.759639   833 net.cpp:139] Memory required for data: 86284000
I0430 22:10:32.759642   833 layer_factory.hpp:77] Creating layer pool0
I0430 22:10:32.759651   833 net.cpp:86] Creating Layer pool0
I0430 22:10:32.759655   833 net.cpp:408] pool0 <- Sigmoid0
I0430 22:10:32.759663   833 net.cpp:382] pool0 -> pool0
I0430 22:10:32.759850   833 net.cpp:124] Setting up pool0
I0430 22:10:32.759857   833 net.cpp:131] Top shape: 1000 8 17 17 (2312000)
I0430 22:10:32.759861   833 net.cpp:139] Memory required for data: 95532000
I0430 22:10:32.759865   833 layer_factory.hpp:77] Creating layer ip1
I0430 22:10:32.759874   833 net.cpp:86] Creating Layer ip1
I0430 22:10:32.759879   833 net.cpp:408] ip1 <- pool0
I0430 22:10:32.759886   833 net.cpp:382] ip1 -> ip1
I0430 22:10:32.760606   833 net.cpp:124] Setting up ip1
I0430 22:10:32.760612   833 net.cpp:131] Top shape: 1000 10 (10000)
I0430 22:10:32.760632   833 net.cpp:139] Memory required for data: 95572000
I0430 22:10:32.760658   833 layer_factory.hpp:77] Creating layer relu1
I0430 22:10:32.760666   833 net.cpp:86] Creating Layer relu1
I0430 22:10:32.760671   833 net.cpp:408] relu1 <- ip1
I0430 22:10:32.760684   833 net.cpp:369] relu1 -> ip1 (in-place)
I0430 22:10:32.760903   833 net.cpp:124] Setting up relu1
I0430 22:10:32.760912   833 net.cpp:131] Top shape: 1000 10 (10000)
I0430 22:10:32.760924   833 net.cpp:139] Memory required for data: 95612000
I0430 22:10:32.760927   833 layer_factory.hpp:77] Creating layer ip2
I0430 22:10:32.760934   833 net.cpp:86] Creating Layer ip2
I0430 22:10:32.760939   833 net.cpp:408] ip2 <- ip1
I0430 22:10:32.760947   833 net.cpp:382] ip2 -> ip2
I0430 22:10:32.761068   833 net.cpp:124] Setting up ip2
I0430 22:10:32.761076   833 net.cpp:131] Top shape: 1000 10 (10000)
I0430 22:10:32.761080   833 net.cpp:139] Memory required for data: 95652000
I0430 22:10:32.761092   833 layer_factory.hpp:77] Creating layer relu2
I0430 22:10:32.761101   833 net.cpp:86] Creating Layer relu2
I0430 22:10:32.761106   833 net.cpp:408] relu2 <- ip2
I0430 22:10:32.761114   833 net.cpp:369] relu2 -> ip2 (in-place)
I0430 22:10:32.761907   833 net.cpp:124] Setting up relu2
I0430 22:10:32.761919   833 net.cpp:131] Top shape: 1000 10 (10000)
I0430 22:10:32.761940   833 net.cpp:139] Memory required for data: 95692000
I0430 22:10:32.761942   833 layer_factory.hpp:77] Creating layer ip3
I0430 22:10:32.761950   833 net.cpp:86] Creating Layer ip3
I0430 22:10:32.761952   833 net.cpp:408] ip3 <- ip2
I0430 22:10:32.761960   833 net.cpp:382] ip3 -> ip3
I0430 22:10:32.762085   833 net.cpp:124] Setting up ip3
I0430 22:10:32.762092   833 net.cpp:131] Top shape: 1000 10 (10000)
I0430 22:10:32.762095   833 net.cpp:139] Memory required for data: 95732000
I0430 22:10:32.762101   833 layer_factory.hpp:77] Creating layer relu3
I0430 22:10:32.762109   833 net.cpp:86] Creating Layer relu3
I0430 22:10:32.762114   833 net.cpp:408] relu3 <- ip3
I0430 22:10:32.762120   833 net.cpp:369] relu3 -> ip3 (in-place)
I0430 22:10:32.762280   833 net.cpp:124] Setting up relu3
I0430 22:10:32.762290   833 net.cpp:131] Top shape: 1000 10 (10000)
I0430 22:10:32.762292   833 net.cpp:139] Memory required for data: 95772000
I0430 22:10:32.762296   833 layer_factory.hpp:77] Creating layer ip4
I0430 22:10:32.762305   833 net.cpp:86] Creating Layer ip4
I0430 22:10:32.762311   833 net.cpp:408] ip4 <- ip3
I0430 22:10:32.762320   833 net.cpp:382] ip4 -> ip4
I0430 22:10:32.762426   833 net.cpp:124] Setting up ip4
I0430 22:10:32.762434   833 net.cpp:131] Top shape: 1000 10 (10000)
I0430 22:10:32.762437   833 net.cpp:139] Memory required for data: 95812000
I0430 22:10:32.762447   833 layer_factory.hpp:77] Creating layer ip4_ip4_0_split
I0430 22:10:32.762454   833 net.cpp:86] Creating Layer ip4_ip4_0_split
I0430 22:10:32.762459   833 net.cpp:408] ip4_ip4_0_split <- ip4
I0430 22:10:32.762470   833 net.cpp:382] ip4_ip4_0_split -> ip4_ip4_0_split_0
I0430 22:10:32.762477   833 net.cpp:382] ip4_ip4_0_split -> ip4_ip4_0_split_1
I0430 22:10:32.762521   833 net.cpp:124] Setting up ip4_ip4_0_split
I0430 22:10:32.762527   833 net.cpp:131] Top shape: 1000 10 (10000)
I0430 22:10:32.762531   833 net.cpp:131] Top shape: 1000 10 (10000)
I0430 22:10:32.762533   833 net.cpp:139] Memory required for data: 95892000
I0430 22:10:32.762538   833 layer_factory.hpp:77] Creating layer accuracy
I0430 22:10:32.762547   833 net.cpp:86] Creating Layer accuracy
I0430 22:10:32.762552   833 net.cpp:408] accuracy <- ip4_ip4_0_split_0
I0430 22:10:32.762558   833 net.cpp:408] accuracy <- label_cifar_1_split_0
I0430 22:10:32.762564   833 net.cpp:382] accuracy -> accuracy
…
