…
I0501 03:08:37.801144 19184 net.cpp:296] The NetState phase (0) differed from the phase (1) specified by a rule in layer cifar
I0501 03:08:37.801173 19184 net.cpp:296] The NetState phase (0) differed from the phase (1) specified by a rule in layer accuracy
I0501 03:08:37.801342 19184 net.cpp:53] Initializing net from parameters: 
name: "CIFAR"
state {
  phase: TRAIN
  level: 0
  stage: ""
}
layer {
  name: "cifar"
  type: "Data"
  top: "data"
  top: "label"
  include {
    phase: TRAIN
  }
  transform_param {
    mean_file: "examples/cifar10/mean.binaryproto"
  }
  data_param {
    source: "examples/cifar10/cifar10_train_lmdb"
    batch_size: 111
    backend: LMDB
  }
}
layer {
  name: "conv0"
  type: "Convolution"
  bottom: "data"
  top: "conv0"
  param {
    lr_mult: 1
  }
  param {
    lr_mult: 2
  }
  convolution_param {
    num_output: 8
    pad: 2
    kernel_size: 5
    stride: 1
    weight_filler {
      type: "gaussian"
      std: 0.01
    }
    bias_filler {
      type: "constant"
    }
  }
}
layer {
  name: "Sigmoid0"
  type: "Sigmoid"
  bottom: "conv0"
  top: "Sigmoid0"
}
layer {
  name: "pool0"
  type: "Pooling"
  bottom: "Sigmoid0"
  top: "pool0"
  pooling_param {
    pool: AVE
    kernel_size: 3
    stride: 2
  }
}
layer {
  name: "ip1"
  type: "InnerProduct"
  bottom: "pool0"
  top: "ip1"
  param {
    lr_mult: 1
  }
  param {
    lr_mult: 2
  }
  inner_product_param {
    num_output: 10
    weight_filler {
      type: "gaussian"
      std: 0.01
    }
    bias_filler {
      type: "constant"
    }
  }
}
layer {
  name: "relu1"
  type: "ReLU"
  bottom: "ip1"
  top: "ip1"
}
layer {
  name: "ip2"
  type: "InnerProduct"
  bottom: "ip1"
  top: "ip2"
  param {
    lr_mult: 1
  }
  param {
    lr_mult: 2
  }
  inner_product_param {
    num_output: 10
    weight_filler {
      type: "gaussian"
      std: 0.01
    }
    bias_filler {
      type: "constant"
    }
  }
}
layer {
  name: "relu2"
  type: "ReLU"
  bottom: "ip2"
  top: "ip2"
}
layer {
  name: "ip3"
  type: "InnerProduct"
  bottom: "ip2"
  top: "ip3"
  param {
    lr_mult: 1
  }
  param {
    lr_mult: 2
  }
  inner_product_param {
    num_output: 160
    weight_filler {
      type: "gaussian"
      std: 0.01
    }
    bias_filler {
      type: "constant"
    }
  }
}
layer {
  name: "relu3"
  type: "ReLU"
  bottom: "ip3"
  top: "ip3"
}
layer {
  name: "ip4"
  type: "InnerProduct"
  bottom: "ip3"
  top: "ip4"
  param {
    lr_mult: 1
  }
  param {
    lr_mult: 2
  }
  inner_product_param {
    num_output: 10
    weight_filler {
      type: "gaussian"
      std: 0.01
    }
    bias_filler {
      type: "constant"
    }
  }
}
layer {
  name: "loss"
  type: "SoftmaxWithLoss"
  bottom: "ip4"
  bottom: "label"
  top: "loss"
}
I0501 03:08:37.801451 19184 layer_factory.hpp:77] Creating layer cifar
I0501 03:08:37.801585 19184 db_lmdb.cpp:35] Opened lmdb examples/cifar10/cifar10_train_lmdb
I0501 03:08:37.801620 19184 net.cpp:86] Creating Layer cifar
I0501 03:08:37.801640 19184 net.cpp:382] cifar -> data
I0501 03:08:37.801671 19184 net.cpp:382] cifar -> label
I0501 03:08:37.801687 19184 data_transformer.cpp:25] Loading mean file from: examples/cifar10/mean.binaryproto
I0501 03:08:37.804503 19184 data_layer.cpp:45] output data size: 111,3,32,32
I0501 03:08:37.815073 19184 net.cpp:124] Setting up cifar
I0501 03:08:37.815100 19184 net.cpp:131] Top shape: 111 3 32 32 (340992)
I0501 03:08:37.815109 19184 net.cpp:131] Top shape: 111 (111)
I0501 03:08:37.815114 19184 net.cpp:139] Memory required for data: 1364412
I0501 03:08:37.815145 19184 layer_factory.hpp:77] Creating layer conv0
I0501 03:08:37.815172 19184 net.cpp:86] Creating Layer conv0
I0501 03:08:37.815179 19184 net.cpp:408] conv0 <- data
I0501 03:08:37.815196 19184 net.cpp:382] conv0 -> conv0
I0501 03:08:38.116396 19184 net.cpp:124] Setting up conv0
I0501 03:08:38.116428 19184 net.cpp:131] Top shape: 111 8 32 32 (909312)
I0501 03:08:38.116435 19184 net.cpp:139] Memory required for data: 5001660
I0501 03:08:38.116451 19184 layer_factory.hpp:77] Creating layer Sigmoid0
I0501 03:08:38.116466 19184 net.cpp:86] Creating Layer Sigmoid0
I0501 03:08:38.116470 19184 net.cpp:408] Sigmoid0 <- conv0
I0501 03:08:38.116482 19184 net.cpp:382] Sigmoid0 -> Sigmoid0
I0501 03:08:38.116695 19184 net.cpp:124] Setting up Sigmoid0
I0501 03:08:38.116708 19184 net.cpp:131] Top shape: 111 8 32 32 (909312)
I0501 03:08:38.116711 19184 net.cpp:139] Memory required for data: 8638908
I0501 03:08:38.116715 19184 layer_factory.hpp:77] Creating layer pool0
I0501 03:08:38.116724 19184 net.cpp:86] Creating Layer pool0
I0501 03:08:38.116729 19184 net.cpp:408] pool0 <- Sigmoid0
I0501 03:08:38.116734 19184 net.cpp:382] pool0 -> pool0
I0501 03:08:38.117629 19184 net.cpp:124] Setting up pool0
I0501 03:08:38.117647 19184 net.cpp:131] Top shape: 111 8 16 16 (227328)
I0501 03:08:38.117651 19184 net.cpp:139] Memory required for data: 9548220
I0501 03:08:38.117655 19184 layer_factory.hpp:77] Creating layer ip1
I0501 03:08:38.117666 19184 net.cpp:86] Creating Layer ip1
I0501 03:08:38.117671 19184 net.cpp:408] ip1 <- pool0
I0501 03:08:38.117679 19184 net.cpp:382] ip1 -> ip1
I0501 03:08:38.119469 19184 net.cpp:124] Setting up ip1
I0501 03:08:38.119487 19184 net.cpp:131] Top shape: 111 10 (1110)
I0501 03:08:38.119490 19184 net.cpp:139] Memory required for data: 9552660
I0501 03:08:38.119501 19184 layer_factory.hpp:77] Creating layer relu1
I0501 03:08:38.119508 19184 net.cpp:86] Creating Layer relu1
I0501 03:08:38.119513 19184 net.cpp:408] relu1 <- ip1
I0501 03:08:38.119518 19184 net.cpp:369] relu1 -> ip1 (in-place)
I0501 03:08:38.119716 19184 net.cpp:124] Setting up relu1
I0501 03:08:38.119726 19184 net.cpp:131] Top shape: 111 10 (1110)
I0501 03:08:38.119730 19184 net.cpp:139] Memory required for data: 9557100
I0501 03:08:38.119735 19184 layer_factory.hpp:77] Creating layer ip2
I0501 03:08:38.119741 19184 net.cpp:86] Creating Layer ip2
I0501 03:08:38.119745 19184 net.cpp:408] ip2 <- ip1
I0501 03:08:38.119752 19184 net.cpp:382] ip2 -> ip2
I0501 03:08:38.119873 19184 net.cpp:124] Setting up ip2
I0501 03:08:38.119881 19184 net.cpp:131] Top shape: 111 10 (1110)
I0501 03:08:38.119884 19184 net.cpp:139] Memory required for data: 9561540
I0501 03:08:38.119894 19184 layer_factory.hpp:77] Creating layer relu2
I0501 03:08:38.119900 19184 net.cpp:86] Creating Layer relu2
I0501 03:08:38.119904 19184 net.cpp:408] relu2 <- ip2
I0501 03:08:38.119910 19184 net.cpp:369] relu2 -> ip2 (in-place)
I0501 03:08:38.120100 19184 net.cpp:124] Setting up relu2
I0501 03:08:38.120110 19184 net.cpp:131] Top shape: 111 10 (1110)
I0501 03:08:38.120113 19184 net.cpp:139] Memory required for data: 9565980
I0501 03:08:38.120117 19184 layer_factory.hpp:77] Creating layer ip3
I0501 03:08:38.120129 19184 net.cpp:86] Creating Layer ip3
I0501 03:08:38.120133 19184 net.cpp:408] ip3 <- ip2
I0501 03:08:38.120139 19184 net.cpp:382] ip3 -> ip3
I0501 03:08:38.120306 19184 net.cpp:124] Setting up ip3
I0501 03:08:38.120314 19184 net.cpp:131] Top shape: 111 160 (17760)
I0501 03:08:38.120317 19184 net.cpp:139] Memory required for data: 9637020
I0501 03:08:38.120324 19184 layer_factory.hpp:77] Creating layer relu3
I0501 03:08:38.120331 19184 net.cpp:86] Creating Layer relu3
I0501 03:08:38.120333 19184 net.cpp:408] relu3 <- ip3
I0501 03:08:38.120340 19184 net.cpp:369] relu3 -> ip3 (in-place)
I0501 03:08:38.120522 19184 net.cpp:124] Setting up relu3
I0501 03:08:38.120532 19184 net.cpp:131] Top shape: 111 160 (17760)
I0501 03:08:38.120535 19184 net.cpp:139] Memory required for data: 9708060
I0501 03:08:38.120539 19184 layer_factory.hpp:77] Creating layer ip4
I0501 03:08:38.120566 19184 net.cpp:86] Creating Layer ip4
I0501 03:08:38.120570 19184 net.cpp:408] ip4 <- ip3
I0501 03:08:38.120576 19184 net.cpp:382] ip4 -> ip4
I0501 03:08:38.120748 19184 net.cpp:124] Setting up ip4
I0501 03:08:38.120759 19184 net.cpp:131] Top shape: 111 10 (1110)
I0501 03:08:38.120761 19184 net.cpp:139] Memory required for data: 9712500
I0501 03:08:38.120771 19184 layer_factory.hpp:77] Creating layer loss
I0501 03:08:38.120784 19184 net.cpp:86] Creating Layer loss
I0501 03:08:38.120789 19184 net.cpp:408] loss <- ip4
I0501 03:08:38.120792 19184 net.cpp:408] loss <- label
I0501 03:08:38.120800 19184 net.cpp:382] loss -> loss
I0501 03:08:38.120820 19184 layer_factory.hpp:77] Creating layer loss
…
I0501 03:08:38.122277 19184 solver.cpp:173] Creating test net (#0) specified by net file: ECE595/cifar/train_test/var_everything/cifar_train_test_344.prototxt
I0501 03:08:38.122309 19184 net.cpp:296] The NetState phase (1) differed from the phase (0) specified by a rule in layer cifar
I0501 03:08:38.122427 19184 net.cpp:53] Initializing net from parameters: 
name: "CIFAR"
state {
  phase: TEST
}
layer {
  name: "cifar"
  type: "Data"
  top: "data"
  top: "label"
  include {
    phase: TEST
  }
  transform_param {
    mean_file: "examples/cifar10/mean.binaryproto"
  }
  data_param {
    source: "examples/cifar10/cifar10_test_lmdb"
    batch_size: 1000
    backend: LMDB
  }
}
layer {
  name: "conv0"
  type: "Convolution"
  bottom: "data"
  top: "conv0"
  param {
    lr_mult: 1
  }
  param {
    lr_mult: 2
  }
  convolution_param {
    num_output: 8
    pad: 2
    kernel_size: 5
    stride: 1
    weight_filler {
      type: "gaussian"
      std: 0.01
    }
    bias_filler {
      type: "constant"
    }
  }
}
layer {
  name: "Sigmoid0"
  type: "Sigmoid"
  bottom: "conv0"
  top: "Sigmoid0"
}
layer {
  name: "pool0"
  type: "Pooling"
  bottom: "Sigmoid0"
  top: "pool0"
  pooling_param {
    pool: AVE
    kernel_size: 3
    stride: 2
  }
}
layer {
  name: "ip1"
  type: "InnerProduct"
  bottom: "pool0"
  top: "ip1"
  param {
    lr_mult: 1
  }
  param {
    lr_mult: 2
  }
  inner_product_param {
    num_output: 10
    weight_filler {
      type: "gaussian"
      std: 0.01
    }
    bias_filler {
      type: "constant"
    }
  }
}
layer {
  name: "relu1"
  type: "ReLU"
  bottom: "ip1"
  top: "ip1"
}
layer {
  name: "ip2"
  type: "InnerProduct"
  bottom: "ip1"
  top: "ip2"
  param {
    lr_mult: 1
  }
  param {
    lr_mult: 2
  }
  inner_product_param {
    num_output: 10
    weight_filler {
      type: "gaussian"
      std: 0.01
    }
    bias_filler {
      type: "constant"
    }
  }
}
layer {
  name: "relu2"
  type: "ReLU"
  bottom: "ip2"
  top: "ip2"
}
layer {
  name: "ip3"
  type: "InnerProduct"
  bottom: "ip2"
  top: "ip3"
  param {
    lr_mult: 1
  }
  param {
    lr_mult: 2
  }
  inner_product_param {
    num_output: 160
    weight_filler {
      type: "gaussian"
      std: 0.01
    }
    bias_filler {
      type: "constant"
    }
  }
}
layer {
  name: "relu3"
  type: "ReLU"
  bottom: "ip3"
  top: "ip3"
}
layer {
  name: "ip4"
  type: "InnerProduct"
  bottom: "ip3"
  top: "ip4"
  param {
    lr_mult: 1
  }
  param {
    lr_mult: 2
  }
  inner_product_param {
    num_output: 10
    weight_filler {
      type: "gaussian"
      std: 0.01
    }
    bias_filler {
      type: "constant"
    }
  }
}
layer {
  name: "accuracy"
  type: "Accuracy"
  bottom: "ip4"
  bottom: "label"
  top: "accuracy"
  include {
    phase: TEST
  }
}
layer {
  name: "loss"
  type: "SoftmaxWithLoss"
  bottom: "ip4"
  bottom: "label"
  top: "loss"
}
I0501 03:08:38.122531 19184 layer_factory.hpp:77] Creating layer cifar
I0501 03:08:38.122591 19184 db_lmdb.cpp:35] Opened lmdb examples/cifar10/cifar10_test_lmdb
I0501 03:08:38.122606 19184 net.cpp:86] Creating Layer cifar
I0501 03:08:38.122611 19184 net.cpp:382] cifar -> data
I0501 03:08:38.122622 19184 net.cpp:382] cifar -> label
I0501 03:08:38.122629 19184 data_transformer.cpp:25] Loading mean file from: examples/cifar10/mean.binaryproto
I0501 03:08:38.122804 19184 data_layer.cpp:45] output data size: 1000,3,32,32
I0501 03:08:38.148787 19184 net.cpp:124] Setting up cifar
I0501 03:08:38.148828 19184 net.cpp:131] Top shape: 1000 3 32 32 (3072000)
I0501 03:08:38.148834 19184 net.cpp:131] Top shape: 1000 (1000)
I0501 03:08:38.148838 19184 net.cpp:139] Memory required for data: 12292000
I0501 03:08:38.148844 19184 layer_factory.hpp:77] Creating layer label_cifar_1_split
I0501 03:08:38.148857 19184 net.cpp:86] Creating Layer label_cifar_1_split
I0501 03:08:38.148862 19184 net.cpp:408] label_cifar_1_split <- label
I0501 03:08:38.148871 19184 net.cpp:382] label_cifar_1_split -> label_cifar_1_split_0
I0501 03:08:38.148881 19184 net.cpp:382] label_cifar_1_split -> label_cifar_1_split_1
I0501 03:08:38.149035 19184 net.cpp:124] Setting up label_cifar_1_split
I0501 03:08:38.149044 19184 net.cpp:131] Top shape: 1000 (1000)
I0501 03:08:38.149049 19184 net.cpp:131] Top shape: 1000 (1000)
I0501 03:08:38.149051 19184 net.cpp:139] Memory required for data: 12300000
I0501 03:08:38.149055 19184 layer_factory.hpp:77] Creating layer conv0
I0501 03:08:38.149070 19184 net.cpp:86] Creating Layer conv0
I0501 03:08:38.149075 19184 net.cpp:408] conv0 <- data
I0501 03:08:38.149085 19184 net.cpp:382] conv0 -> conv0
I0501 03:08:38.150928 19184 net.cpp:124] Setting up conv0
I0501 03:08:38.150944 19184 net.cpp:131] Top shape: 1000 8 32 32 (8192000)
I0501 03:08:38.150949 19184 net.cpp:139] Memory required for data: 45068000
I0501 03:08:38.150961 19184 layer_factory.hpp:77] Creating layer Sigmoid0
I0501 03:08:38.150971 19184 net.cpp:86] Creating Layer Sigmoid0
I0501 03:08:38.150975 19184 net.cpp:408] Sigmoid0 <- conv0
I0501 03:08:38.150981 19184 net.cpp:382] Sigmoid0 -> Sigmoid0
I0501 03:08:38.152143 19184 net.cpp:124] Setting up Sigmoid0
I0501 03:08:38.152158 19184 net.cpp:131] Top shape: 1000 8 32 32 (8192000)
I0501 03:08:38.152161 19184 net.cpp:139] Memory required for data: 77836000
I0501 03:08:38.152165 19184 layer_factory.hpp:77] Creating layer pool0
I0501 03:08:38.152175 19184 net.cpp:86] Creating Layer pool0
I0501 03:08:38.152179 19184 net.cpp:408] pool0 <- Sigmoid0
I0501 03:08:38.152186 19184 net.cpp:382] pool0 -> pool0
I0501 03:08:38.152400 19184 net.cpp:124] Setting up pool0
I0501 03:08:38.152410 19184 net.cpp:131] Top shape: 1000 8 16 16 (2048000)
I0501 03:08:38.152413 19184 net.cpp:139] Memory required for data: 86028000
I0501 03:08:38.152417 19184 layer_factory.hpp:77] Creating layer ip1
I0501 03:08:38.152428 19184 net.cpp:86] Creating Layer ip1
I0501 03:08:38.152433 19184 net.cpp:408] ip1 <- pool0
I0501 03:08:38.152438 19184 net.cpp:382] ip1 -> ip1
I0501 03:08:38.153246 19184 net.cpp:124] Setting up ip1
I0501 03:08:38.153259 19184 net.cpp:131] Top shape: 1000 10 (10000)
I0501 03:08:38.153262 19184 net.cpp:139] Memory required for data: 86068000
I0501 03:08:38.153287 19184 layer_factory.hpp:77] Creating layer relu1
I0501 03:08:38.153295 19184 net.cpp:86] Creating Layer relu1
I0501 03:08:38.153298 19184 net.cpp:408] relu1 <- ip1
I0501 03:08:38.153303 19184 net.cpp:369] relu1 -> ip1 (in-place)
I0501 03:08:38.153511 19184 net.cpp:124] Setting up relu1
I0501 03:08:38.153522 19184 net.cpp:131] Top shape: 1000 10 (10000)
I0501 03:08:38.153524 19184 net.cpp:139] Memory required for data: 86108000
I0501 03:08:38.153529 19184 layer_factory.hpp:77] Creating layer ip2
I0501 03:08:38.153537 19184 net.cpp:86] Creating Layer ip2
I0501 03:08:38.153542 19184 net.cpp:408] ip2 <- ip1
I0501 03:08:38.153548 19184 net.cpp:382] ip2 -> ip2
I0501 03:08:38.153681 19184 net.cpp:124] Setting up ip2
I0501 03:08:38.153689 19184 net.cpp:131] Top shape: 1000 10 (10000)
I0501 03:08:38.153692 19184 net.cpp:139] Memory required for data: 86148000
I0501 03:08:38.153700 19184 layer_factory.hpp:77] Creating layer relu2
I0501 03:08:38.153707 19184 net.cpp:86] Creating Layer relu2
I0501 03:08:38.153712 19184 net.cpp:408] relu2 <- ip2
I0501 03:08:38.153718 19184 net.cpp:369] relu2 -> ip2 (in-place)
I0501 03:08:38.154615 19184 net.cpp:124] Setting up relu2
I0501 03:08:38.154631 19184 net.cpp:131] Top shape: 1000 10 (10000)
I0501 03:08:38.154635 19184 net.cpp:139] Memory required for data: 86188000
I0501 03:08:38.154639 19184 layer_factory.hpp:77] Creating layer ip3
I0501 03:08:38.154649 19184 net.cpp:86] Creating Layer ip3
I0501 03:08:38.154654 19184 net.cpp:408] ip3 <- ip2
I0501 03:08:38.154660 19184 net.cpp:382] ip3 -> ip3
I0501 03:08:38.154842 19184 net.cpp:124] Setting up ip3
I0501 03:08:38.154853 19184 net.cpp:131] Top shape: 1000 160 (160000)
I0501 03:08:38.154857 19184 net.cpp:139] Memory required for data: 86828000
I0501 03:08:38.154863 19184 layer_factory.hpp:77] Creating layer relu3
I0501 03:08:38.154870 19184 net.cpp:86] Creating Layer relu3
I0501 03:08:38.154875 19184 net.cpp:408] relu3 <- ip3
I0501 03:08:38.154881 19184 net.cpp:369] relu3 -> ip3 (in-place)
I0501 03:08:38.155077 19184 net.cpp:124] Setting up relu3
I0501 03:08:38.155087 19184 net.cpp:131] Top shape: 1000 160 (160000)
I0501 03:08:38.155092 19184 net.cpp:139] Memory required for data: 87468000
I0501 03:08:38.155095 19184 layer_factory.hpp:77] Creating layer ip4
I0501 03:08:38.155103 19184 net.cpp:86] Creating Layer ip4
I0501 03:08:38.155107 19184 net.cpp:408] ip4 <- ip3
I0501 03:08:38.155113 19184 net.cpp:382] ip4 -> ip4
I0501 03:08:38.155294 19184 net.cpp:124] Setting up ip4
I0501 03:08:38.155303 19184 net.cpp:131] Top shape: 1000 10 (10000)
I0501 03:08:38.155306 19184 net.cpp:139] Memory required for data: 87508000
I0501 03:08:38.155324 19184 layer_factory.hpp:77] Creating layer ip4_ip4_0_split
I0501 03:08:38.155330 19184 net.cpp:86] Creating Layer ip4_ip4_0_split
I0501 03:08:38.155334 19184 net.cpp:408] ip4_ip4_0_split <- ip4
I0501 03:08:38.155341 19184 net.cpp:382] ip4_ip4_0_split -> ip4_ip4_0_split_0
I0501 03:08:38.155347 19184 net.cpp:382] ip4_ip4_0_split -> ip4_ip4_0_split_1
I0501 03:08:38.155386 19184 net.cpp:124] Setting up ip4_ip4_0_split
I0501 03:08:38.155395 19184 net.cpp:131] Top shape: 1000 10 (10000)
I0501 03:08:38.155400 19184 net.cpp:131] Top shape: 1000 10 (10000)
I0501 03:08:38.155403 19184 net.cpp:139] Memory required for data: 87588000
I0501 03:08:38.155406 19184 layer_factory.hpp:77] Creating layer accuracy
I0501 03:08:38.155412 19184 net.cpp:86] Creating Layer accuracy
I0501 03:08:38.155416 19184 net.cpp:408] accuracy <- ip4_ip4_0_split_0
I0501 03:08:38.155421 19184 net.cpp:408] accuracy <- label_cifar_1_split_0
I0501 03:08:38.155427 19184 net.cpp:382] accuracy -> accuracy
…
