…
I0501 07:01:11.092274  3084 net.cpp:296] The NetState phase (0) differed from the phase (1) specified by a rule in layer cifar
I0501 07:01:11.092290  3084 net.cpp:296] The NetState phase (0) differed from the phase (1) specified by a rule in layer accuracy
I0501 07:01:11.092373  3084 net.cpp:53] Initializing net from parameters: 
name: "CIFAR"
state {
  phase: TRAIN
  level: 0
  stage: ""
}
layer {
  name: "cifar"
  type: "Data"
  top: "data"
  top: "label"
  include {
    phase: TRAIN
  }
  transform_param {
    mean_file: "examples/cifar10/mean.binaryproto"
  }
  data_param {
    source: "examples/cifar10/cifar10_train_lmdb"
    batch_size: 111
    backend: LMDB
  }
}
layer {
  name: "conv0"
  type: "Convolution"
  bottom: "data"
  top: "conv0"
  param {
    lr_mult: 1
  }
  param {
    lr_mult: 2
  }
  convolution_param {
    num_output: 16
    pad: 2
    kernel_size: 3
    stride: 1
    weight_filler {
      type: "gaussian"
      std: 0.01
    }
    bias_filler {
      type: "constant"
    }
  }
}
layer {
  name: "Sigmoid0"
  type: "Sigmoid"
  bottom: "conv0"
  top: "Sigmoid0"
}
layer {
  name: "pool0"
  type: "Pooling"
  bottom: "Sigmoid0"
  top: "pool0"
  pooling_param {
    pool: AVE
    kernel_size: 3
    stride: 2
  }
}
layer {
  name: "ip1"
  type: "InnerProduct"
  bottom: "pool0"
  top: "ip1"
  param {
    lr_mult: 1
  }
  param {
    lr_mult: 2
  }
  inner_product_param {
    num_output: 160
    weight_filler {
      type: "gaussian"
      std: 0.01
    }
    bias_filler {
      type: "constant"
    }
  }
}
layer {
  name: "relu1"
  type: "ReLU"
  bottom: "ip1"
  top: "ip1"
}
layer {
  name: "ip2"
  type: "InnerProduct"
  bottom: "ip1"
  top: "ip2"
  param {
    lr_mult: 1
  }
  param {
    lr_mult: 2
  }
  inner_product_param {
    num_output: 10
    weight_filler {
      type: "gaussian"
      std: 0.01
    }
    bias_filler {
      type: "constant"
    }
  }
}
layer {
  name: "loss"
  type: "SoftmaxWithLoss"
  bottom: "ip2"
  bottom: "label"
  top: "loss"
}
I0501 07:01:11.092442  3084 layer_factory.hpp:77] Creating layer cifar
I0501 07:01:11.092540  3084 db_lmdb.cpp:35] Opened lmdb examples/cifar10/cifar10_train_lmdb
I0501 07:01:11.092568  3084 net.cpp:86] Creating Layer cifar
I0501 07:01:11.092576  3084 net.cpp:382] cifar -> data
I0501 07:01:11.092597  3084 net.cpp:382] cifar -> label
I0501 07:01:11.092609  3084 data_transformer.cpp:25] Loading mean file from: examples/cifar10/mean.binaryproto
I0501 07:01:11.094777  3084 data_layer.cpp:45] output data size: 111,3,32,32
I0501 07:01:11.102962  3084 net.cpp:124] Setting up cifar
I0501 07:01:11.102982  3084 net.cpp:131] Top shape: 111 3 32 32 (340992)
I0501 07:01:11.102988  3084 net.cpp:131] Top shape: 111 (111)
I0501 07:01:11.102991  3084 net.cpp:139] Memory required for data: 1364412
I0501 07:01:11.102999  3084 layer_factory.hpp:77] Creating layer conv0
I0501 07:01:11.103021  3084 net.cpp:86] Creating Layer conv0
I0501 07:01:11.103027  3084 net.cpp:408] conv0 <- data
I0501 07:01:11.103040  3084 net.cpp:382] conv0 -> conv0
I0501 07:01:11.393513  3084 net.cpp:124] Setting up conv0
I0501 07:01:11.393543  3084 net.cpp:131] Top shape: 111 16 34 34 (2053056)
I0501 07:01:11.393546  3084 net.cpp:139] Memory required for data: 9576636
I0501 07:01:11.393563  3084 layer_factory.hpp:77] Creating layer Sigmoid0
I0501 07:01:11.393576  3084 net.cpp:86] Creating Layer Sigmoid0
I0501 07:01:11.393580  3084 net.cpp:408] Sigmoid0 <- conv0
I0501 07:01:11.393587  3084 net.cpp:382] Sigmoid0 -> Sigmoid0
I0501 07:01:11.393810  3084 net.cpp:124] Setting up Sigmoid0
I0501 07:01:11.393821  3084 net.cpp:131] Top shape: 111 16 34 34 (2053056)
I0501 07:01:11.393824  3084 net.cpp:139] Memory required for data: 17788860
I0501 07:01:11.393827  3084 layer_factory.hpp:77] Creating layer pool0
I0501 07:01:11.393834  3084 net.cpp:86] Creating Layer pool0
I0501 07:01:11.393841  3084 net.cpp:408] pool0 <- Sigmoid0
I0501 07:01:11.393847  3084 net.cpp:382] pool0 -> pool0
I0501 07:01:11.394649  3084 net.cpp:124] Setting up pool0
I0501 07:01:11.394664  3084 net.cpp:131] Top shape: 111 16 17 17 (513264)
I0501 07:01:11.394667  3084 net.cpp:139] Memory required for data: 19841916
I0501 07:01:11.394670  3084 layer_factory.hpp:77] Creating layer ip1
I0501 07:01:11.394681  3084 net.cpp:86] Creating Layer ip1
I0501 07:01:11.394686  3084 net.cpp:408] ip1 <- pool0
I0501 07:01:11.394693  3084 net.cpp:382] ip1 -> ip1
I0501 07:01:11.416251  3084 net.cpp:124] Setting up ip1
I0501 07:01:11.416265  3084 net.cpp:131] Top shape: 111 160 (17760)
I0501 07:01:11.416267  3084 net.cpp:139] Memory required for data: 19912956
I0501 07:01:11.416275  3084 layer_factory.hpp:77] Creating layer relu1
I0501 07:01:11.416283  3084 net.cpp:86] Creating Layer relu1
I0501 07:01:11.416287  3084 net.cpp:408] relu1 <- ip1
I0501 07:01:11.416292  3084 net.cpp:369] relu1 -> ip1 (in-place)
I0501 07:01:11.416457  3084 net.cpp:124] Setting up relu1
I0501 07:01:11.416466  3084 net.cpp:131] Top shape: 111 160 (17760)
I0501 07:01:11.416470  3084 net.cpp:139] Memory required for data: 19983996
I0501 07:01:11.416472  3084 layer_factory.hpp:77] Creating layer ip2
I0501 07:01:11.416481  3084 net.cpp:86] Creating Layer ip2
I0501 07:01:11.416484  3084 net.cpp:408] ip2 <- ip1
I0501 07:01:11.416491  3084 net.cpp:382] ip2 -> ip2
I0501 07:01:11.416635  3084 net.cpp:124] Setting up ip2
I0501 07:01:11.416645  3084 net.cpp:131] Top shape: 111 10 (1110)
I0501 07:01:11.416647  3084 net.cpp:139] Memory required for data: 19988436
I0501 07:01:11.416654  3084 layer_factory.hpp:77] Creating layer loss
I0501 07:01:11.416661  3084 net.cpp:86] Creating Layer loss
I0501 07:01:11.416663  3084 net.cpp:408] loss <- ip2
I0501 07:01:11.416667  3084 net.cpp:408] loss <- label
I0501 07:01:11.416672  3084 net.cpp:382] loss -> loss
I0501 07:01:11.416687  3084 layer_factory.hpp:77] Creating layer loss
…
I0501 07:01:11.417261  3084 solver.cpp:173] Creating test net (#0) specified by net file: ECE595/cifar/train_test/var_everything/cifar_train_test_469.prototxt
I0501 07:01:11.417284  3084 net.cpp:296] The NetState phase (1) differed from the phase (0) specified by a rule in layer cifar
I0501 07:01:11.417361  3084 net.cpp:53] Initializing net from parameters: 
name: "CIFAR"
state {
  phase: TEST
}
layer {
  name: "cifar"
  type: "Data"
  top: "data"
  top: "label"
  include {
    phase: TEST
  }
  transform_param {
    mean_file: "examples/cifar10/mean.binaryproto"
  }
  data_param {
    source: "examples/cifar10/cifar10_test_lmdb"
    batch_size: 1000
    backend: LMDB
  }
}
layer {
  name: "conv0"
  type: "Convolution"
  bottom: "data"
  top: "conv0"
  param {
    lr_mult: 1
  }
  param {
    lr_mult: 2
  }
  convolution_param {
    num_output: 16
    pad: 2
    kernel_size: 3
    stride: 1
    weight_filler {
      type: "gaussian"
      std: 0.01
    }
    bias_filler {
      type: "constant"
    }
  }
}
layer {
  name: "Sigmoid0"
  type: "Sigmoid"
  bottom: "conv0"
  top: "Sigmoid0"
}
layer {
  name: "pool0"
  type: "Pooling"
  bottom: "Sigmoid0"
  top: "pool0"
  pooling_param {
    pool: AVE
    kernel_size: 3
    stride: 2
  }
}
layer {
  name: "ip1"
  type: "InnerProduct"
  bottom: "pool0"
  top: "ip1"
  param {
    lr_mult: 1
  }
  param {
    lr_mult: 2
  }
  inner_product_param {
    num_output: 160
    weight_filler {
      type: "gaussian"
      std: 0.01
    }
    bias_filler {
      type: "constant"
    }
  }
}
layer {
  name: "relu1"
  type: "ReLU"
  bottom: "ip1"
  top: "ip1"
}
layer {
  name: "ip2"
  type: "InnerProduct"
  bottom: "ip1"
  top: "ip2"
  param {
    lr_mult: 1
  }
  param {
    lr_mult: 2
  }
  inner_product_param {
    num_output: 10
    weight_filler {
      type: "gaussian"
      std: 0.01
    }
    bias_filler {
      type: "constant"
    }
  }
}
layer {
  name: "accuracy"
  type: "Accuracy"
  bottom: "ip2"
  bottom: "label"
  top: "accuracy"
  include {
    phase: TEST
  }
}
layer {
  name: "loss"
  type: "SoftmaxWithLoss"
  bottom: "ip2"
  bottom: "label"
  top: "loss"
}
I0501 07:01:11.417449  3084 layer_factory.hpp:77] Creating layer cifar
I0501 07:01:11.417496  3084 db_lmdb.cpp:35] Opened lmdb examples/cifar10/cifar10_test_lmdb
I0501 07:01:11.417510  3084 net.cpp:86] Creating Layer cifar
I0501 07:01:11.417515  3084 net.cpp:382] cifar -> data
I0501 07:01:11.417523  3084 net.cpp:382] cifar -> label
I0501 07:01:11.417529  3084 data_transformer.cpp:25] Loading mean file from: examples/cifar10/mean.binaryproto
I0501 07:01:11.417690  3084 data_layer.cpp:45] output data size: 1000,3,32,32
I0501 07:01:11.439522  3084 net.cpp:124] Setting up cifar
I0501 07:01:11.439565  3084 net.cpp:131] Top shape: 1000 3 32 32 (3072000)
I0501 07:01:11.439574  3084 net.cpp:131] Top shape: 1000 (1000)
I0501 07:01:11.439577  3084 net.cpp:139] Memory required for data: 12292000
I0501 07:01:11.439582  3084 layer_factory.hpp:77] Creating layer label_cifar_1_split
I0501 07:01:11.439596  3084 net.cpp:86] Creating Layer label_cifar_1_split
I0501 07:01:11.439600  3084 net.cpp:408] label_cifar_1_split <- label
I0501 07:01:11.439607  3084 net.cpp:382] label_cifar_1_split -> label_cifar_1_split_0
I0501 07:01:11.439615  3084 net.cpp:382] label_cifar_1_split -> label_cifar_1_split_1
I0501 07:01:11.439719  3084 net.cpp:124] Setting up label_cifar_1_split
I0501 07:01:11.439728  3084 net.cpp:131] Top shape: 1000 (1000)
I0501 07:01:11.439730  3084 net.cpp:131] Top shape: 1000 (1000)
I0501 07:01:11.439733  3084 net.cpp:139] Memory required for data: 12300000
I0501 07:01:11.439736  3084 layer_factory.hpp:77] Creating layer conv0
I0501 07:01:11.439749  3084 net.cpp:86] Creating Layer conv0
I0501 07:01:11.439754  3084 net.cpp:408] conv0 <- data
I0501 07:01:11.439759  3084 net.cpp:382] conv0 -> conv0
I0501 07:01:11.441521  3084 net.cpp:124] Setting up conv0
I0501 07:01:11.441551  3084 net.cpp:131] Top shape: 1000 16 34 34 (18496000)
I0501 07:01:11.441555  3084 net.cpp:139] Memory required for data: 86284000
I0501 07:01:11.441565  3084 layer_factory.hpp:77] Creating layer Sigmoid0
I0501 07:01:11.441572  3084 net.cpp:86] Creating Layer Sigmoid0
I0501 07:01:11.441576  3084 net.cpp:408] Sigmoid0 <- conv0
I0501 07:01:11.441596  3084 net.cpp:382] Sigmoid0 -> Sigmoid0
I0501 07:01:11.441799  3084 net.cpp:124] Setting up Sigmoid0
I0501 07:01:11.441810  3084 net.cpp:131] Top shape: 1000 16 34 34 (18496000)
I0501 07:01:11.441814  3084 net.cpp:139] Memory required for data: 160268000
I0501 07:01:11.441817  3084 layer_factory.hpp:77] Creating layer pool0
I0501 07:01:11.441825  3084 net.cpp:86] Creating Layer pool0
I0501 07:01:11.441828  3084 net.cpp:408] pool0 <- Sigmoid0
I0501 07:01:11.441833  3084 net.cpp:382] pool0 -> pool0
I0501 07:01:11.442760  3084 net.cpp:124] Setting up pool0
I0501 07:01:11.442772  3084 net.cpp:131] Top shape: 1000 16 17 17 (4624000)
I0501 07:01:11.442791  3084 net.cpp:139] Memory required for data: 178764000
I0501 07:01:11.442795  3084 layer_factory.hpp:77] Creating layer ip1
I0501 07:01:11.442802  3084 net.cpp:86] Creating Layer ip1
I0501 07:01:11.442806  3084 net.cpp:408] ip1 <- pool0
I0501 07:01:11.442812  3084 net.cpp:382] ip1 -> ip1
I0501 07:01:11.464507  3084 net.cpp:124] Setting up ip1
I0501 07:01:11.464539  3084 net.cpp:131] Top shape: 1000 160 (160000)
I0501 07:01:11.464542  3084 net.cpp:139] Memory required for data: 179404000
I0501 07:01:11.464552  3084 layer_factory.hpp:77] Creating layer relu1
I0501 07:01:11.464560  3084 net.cpp:86] Creating Layer relu1
I0501 07:01:11.464563  3084 net.cpp:408] relu1 <- ip1
I0501 07:01:11.464567  3084 net.cpp:369] relu1 -> ip1 (in-place)
I0501 07:01:11.464740  3084 net.cpp:124] Setting up relu1
I0501 07:01:11.464750  3084 net.cpp:131] Top shape: 1000 160 (160000)
I0501 07:01:11.464752  3084 net.cpp:139] Memory required for data: 180044000
I0501 07:01:11.464756  3084 layer_factory.hpp:77] Creating layer ip2
I0501 07:01:11.464762  3084 net.cpp:86] Creating Layer ip2
I0501 07:01:11.464766  3084 net.cpp:408] ip2 <- ip1
I0501 07:01:11.464771  3084 net.cpp:382] ip2 -> ip2
I0501 07:01:11.464985  3084 net.cpp:124] Setting up ip2
I0501 07:01:11.464994  3084 net.cpp:131] Top shape: 1000 10 (10000)
I0501 07:01:11.464998  3084 net.cpp:139] Memory required for data: 180084000
I0501 07:01:11.465006  3084 layer_factory.hpp:77] Creating layer ip2_ip2_0_split
I0501 07:01:11.465014  3084 net.cpp:86] Creating Layer ip2_ip2_0_split
I0501 07:01:11.465019  3084 net.cpp:408] ip2_ip2_0_split <- ip2
I0501 07:01:11.465024  3084 net.cpp:382] ip2_ip2_0_split -> ip2_ip2_0_split_0
I0501 07:01:11.465030  3084 net.cpp:382] ip2_ip2_0_split -> ip2_ip2_0_split_1
I0501 07:01:11.465067  3084 net.cpp:124] Setting up ip2_ip2_0_split
I0501 07:01:11.465075  3084 net.cpp:131] Top shape: 1000 10 (10000)
I0501 07:01:11.465078  3084 net.cpp:131] Top shape: 1000 10 (10000)
I0501 07:01:11.465090  3084 net.cpp:139] Memory required for data: 180164000
I0501 07:01:11.465095  3084 layer_factory.hpp:77] Creating layer accuracy
I0501 07:01:11.465101  3084 net.cpp:86] Creating Layer accuracy
I0501 07:01:11.465104  3084 net.cpp:408] accuracy <- ip2_ip2_0_split_0
I0501 07:01:11.465109  3084 net.cpp:408] accuracy <- label_cifar_1_split_0
I0501 07:01:11.465116  3084 net.cpp:382] accuracy -> accuracy
…
