…
I0501 04:23:05.063387 24976 net.cpp:296] The NetState phase (0) differed from the phase (1) specified by a rule in layer cifar
I0501 04:23:05.063401 24976 net.cpp:296] The NetState phase (0) differed from the phase (1) specified by a rule in layer accuracy
I0501 04:23:05.063483 24976 net.cpp:53] Initializing net from parameters: 
name: "CIFAR"
state {
  phase: TRAIN
  level: 0
  stage: ""
}
layer {
  name: "cifar"
  type: "Data"
  top: "data"
  top: "label"
  include {
    phase: TRAIN
  }
  transform_param {
    mean_file: "examples/cifar10/mean.binaryproto"
  }
  data_param {
    source: "examples/cifar10/cifar10_train_lmdb"
    batch_size: 111
    backend: LMDB
  }
}
layer {
  name: "conv0"
  type: "Convolution"
  bottom: "data"
  top: "conv0"
  param {
    lr_mult: 1
  }
  param {
    lr_mult: 2
  }
  convolution_param {
    num_output: 8
    pad: 2
    kernel_size: 5
    stride: 1
    weight_filler {
      type: "gaussian"
      std: 0.01
    }
    bias_filler {
      type: "constant"
    }
  }
}
layer {
  name: "Sigmoid0"
  type: "Sigmoid"
  bottom: "conv0"
  top: "Sigmoid0"
}
layer {
  name: "pool0"
  type: "Pooling"
  bottom: "Sigmoid0"
  top: "pool0"
  pooling_param {
    pool: AVE
    kernel_size: 3
    stride: 2
  }
}
layer {
  name: "ip1"
  type: "InnerProduct"
  bottom: "pool0"
  top: "ip1"
  param {
    lr_mult: 1
  }
  param {
    lr_mult: 2
  }
  inner_product_param {
    num_output: 20
    weight_filler {
      type: "gaussian"
      std: 0.01
    }
    bias_filler {
      type: "constant"
    }
  }
}
layer {
  name: "relu1"
  type: "ReLU"
  bottom: "ip1"
  top: "ip1"
}
layer {
  name: "ip2"
  type: "InnerProduct"
  bottom: "ip1"
  top: "ip2"
  param {
    lr_mult: 1
  }
  param {
    lr_mult: 2
  }
  inner_product_param {
    num_output: 80
    weight_filler {
      type: "gaussian"
      std: 0.01
    }
    bias_filler {
      type: "constant"
    }
  }
}
layer {
  name: "relu2"
  type: "ReLU"
  bottom: "ip2"
  top: "ip2"
}
layer {
  name: "ip3"
  type: "InnerProduct"
  bottom: "ip2"
  top: "ip3"
  param {
    lr_mult: 1
  }
  param {
    lr_mult: 2
  }
  inner_product_param {
    num_output: 160
    weight_filler {
      type: "gaussian"
      std: 0.01
    }
    bias_filler {
      type: "constant"
    }
  }
}
layer {
  name: "relu3"
  type: "ReLU"
  bottom: "ip3"
  top: "ip3"
}
layer {
  name: "ip4"
  type: "InnerProduct"
  bottom: "ip3"
  top: "ip4"
  param {
    lr_mult: 1
  }
  param {
    lr_mult: 2
  }
  inner_product_param {
    num_output: 10
    weight_filler {
      type: "gaussian"
      std: 0.01
    }
    bias_filler {
      type: "constant"
    }
  }
}
layer {
  name: "loss"
  type: "SoftmaxWithLoss"
  bottom: "ip4"
  bottom: "label"
  top: "loss"
}
I0501 04:23:05.063547 24976 layer_factory.hpp:77] Creating layer cifar
I0501 04:23:05.063627 24976 db_lmdb.cpp:35] Opened lmdb examples/cifar10/cifar10_train_lmdb
I0501 04:23:05.063647 24976 net.cpp:86] Creating Layer cifar
I0501 04:23:05.063654 24976 net.cpp:382] cifar -> data
I0501 04:23:05.063673 24976 net.cpp:382] cifar -> label
I0501 04:23:05.063683 24976 data_transformer.cpp:25] Loading mean file from: examples/cifar10/mean.binaryproto
I0501 04:23:05.065474 24976 data_layer.cpp:45] output data size: 111,3,32,32
I0501 04:23:05.071945 24976 net.cpp:124] Setting up cifar
I0501 04:23:05.071974 24976 net.cpp:131] Top shape: 111 3 32 32 (340992)
I0501 04:23:05.071979 24976 net.cpp:131] Top shape: 111 (111)
I0501 04:23:05.071982 24976 net.cpp:139] Memory required for data: 1364412
I0501 04:23:05.072000 24976 layer_factory.hpp:77] Creating layer conv0
I0501 04:23:05.072016 24976 net.cpp:86] Creating Layer conv0
I0501 04:23:05.072021 24976 net.cpp:408] conv0 <- data
I0501 04:23:05.072029 24976 net.cpp:382] conv0 -> conv0
I0501 04:23:05.306805 24976 net.cpp:124] Setting up conv0
I0501 04:23:05.306846 24976 net.cpp:131] Top shape: 111 8 32 32 (909312)
I0501 04:23:05.306851 24976 net.cpp:139] Memory required for data: 5001660
I0501 04:23:05.306882 24976 layer_factory.hpp:77] Creating layer Sigmoid0
I0501 04:23:05.306893 24976 net.cpp:86] Creating Layer Sigmoid0
I0501 04:23:05.306897 24976 net.cpp:408] Sigmoid0 <- conv0
I0501 04:23:05.306902 24976 net.cpp:382] Sigmoid0 -> Sigmoid0
I0501 04:23:05.307062 24976 net.cpp:124] Setting up Sigmoid0
I0501 04:23:05.307071 24976 net.cpp:131] Top shape: 111 8 32 32 (909312)
I0501 04:23:05.307075 24976 net.cpp:139] Memory required for data: 8638908
I0501 04:23:05.307078 24976 layer_factory.hpp:77] Creating layer pool0
I0501 04:23:05.307085 24976 net.cpp:86] Creating Layer pool0
I0501 04:23:05.307088 24976 net.cpp:408] pool0 <- Sigmoid0
I0501 04:23:05.307092 24976 net.cpp:382] pool0 -> pool0
I0501 04:23:05.307806 24976 net.cpp:124] Setting up pool0
I0501 04:23:05.307817 24976 net.cpp:131] Top shape: 111 8 16 16 (227328)
I0501 04:23:05.307837 24976 net.cpp:139] Memory required for data: 9548220
I0501 04:23:05.307839 24976 layer_factory.hpp:77] Creating layer ip1
I0501 04:23:05.307848 24976 net.cpp:86] Creating Layer ip1
I0501 04:23:05.307852 24976 net.cpp:408] ip1 <- pool0
I0501 04:23:05.307857 24976 net.cpp:382] ip1 -> ip1
I0501 04:23:05.309875 24976 net.cpp:124] Setting up ip1
I0501 04:23:05.309887 24976 net.cpp:131] Top shape: 111 20 (2220)
I0501 04:23:05.309906 24976 net.cpp:139] Memory required for data: 9557100
I0501 04:23:05.309914 24976 layer_factory.hpp:77] Creating layer relu1
I0501 04:23:05.309919 24976 net.cpp:86] Creating Layer relu1
I0501 04:23:05.309923 24976 net.cpp:408] relu1 <- ip1
I0501 04:23:05.309927 24976 net.cpp:369] relu1 -> ip1 (in-place)
I0501 04:23:05.310091 24976 net.cpp:124] Setting up relu1
I0501 04:23:05.310098 24976 net.cpp:131] Top shape: 111 20 (2220)
I0501 04:23:05.310101 24976 net.cpp:139] Memory required for data: 9565980
I0501 04:23:05.310104 24976 layer_factory.hpp:77] Creating layer ip2
I0501 04:23:05.310111 24976 net.cpp:86] Creating Layer ip2
I0501 04:23:05.310113 24976 net.cpp:408] ip2 <- ip1
I0501 04:23:05.310117 24976 net.cpp:382] ip2 -> ip2
I0501 04:23:05.310247 24976 net.cpp:124] Setting up ip2
I0501 04:23:05.310253 24976 net.cpp:131] Top shape: 111 80 (8880)
I0501 04:23:05.310256 24976 net.cpp:139] Memory required for data: 9601500
I0501 04:23:05.310263 24976 layer_factory.hpp:77] Creating layer relu2
I0501 04:23:05.310268 24976 net.cpp:86] Creating Layer relu2
I0501 04:23:05.310271 24976 net.cpp:408] relu2 <- ip2
I0501 04:23:05.310276 24976 net.cpp:369] relu2 -> ip2 (in-place)
I0501 04:23:05.310422 24976 net.cpp:124] Setting up relu2
I0501 04:23:05.310431 24976 net.cpp:131] Top shape: 111 80 (8880)
I0501 04:23:05.310433 24976 net.cpp:139] Memory required for data: 9637020
I0501 04:23:05.310436 24976 layer_factory.hpp:77] Creating layer ip3
I0501 04:23:05.310442 24976 net.cpp:86] Creating Layer ip3
I0501 04:23:05.310446 24976 net.cpp:408] ip3 <- ip2
I0501 04:23:05.310449 24976 net.cpp:382] ip3 -> ip3
I0501 04:23:05.311748 24976 net.cpp:124] Setting up ip3
I0501 04:23:05.311758 24976 net.cpp:131] Top shape: 111 160 (17760)
I0501 04:23:05.311777 24976 net.cpp:139] Memory required for data: 9708060
I0501 04:23:05.311782 24976 layer_factory.hpp:77] Creating layer relu3
I0501 04:23:05.311787 24976 net.cpp:86] Creating Layer relu3
I0501 04:23:05.311791 24976 net.cpp:408] relu3 <- ip3
I0501 04:23:05.311796 24976 net.cpp:369] relu3 -> ip3 (in-place)
I0501 04:23:05.311960 24976 net.cpp:124] Setting up relu3
I0501 04:23:05.311969 24976 net.cpp:131] Top shape: 111 160 (17760)
I0501 04:23:05.311977 24976 net.cpp:139] Memory required for data: 9779100
I0501 04:23:05.311980 24976 layer_factory.hpp:77] Creating layer ip4
I0501 04:23:05.312000 24976 net.cpp:86] Creating Layer ip4
I0501 04:23:05.312003 24976 net.cpp:408] ip4 <- ip3
I0501 04:23:05.312007 24976 net.cpp:382] ip4 -> ip4
I0501 04:23:05.312139 24976 net.cpp:124] Setting up ip4
I0501 04:23:05.312146 24976 net.cpp:131] Top shape: 111 10 (1110)
I0501 04:23:05.312150 24976 net.cpp:139] Memory required for data: 9783540
I0501 04:23:05.312156 24976 layer_factory.hpp:77] Creating layer loss
I0501 04:23:05.312161 24976 net.cpp:86] Creating Layer loss
I0501 04:23:05.312165 24976 net.cpp:408] loss <- ip4
I0501 04:23:05.312168 24976 net.cpp:408] loss <- label
I0501 04:23:05.312173 24976 net.cpp:382] loss -> loss
I0501 04:23:05.312186 24976 layer_factory.hpp:77] Creating layer loss
…
I0501 04:23:05.313390 24976 solver.cpp:173] Creating test net (#0) specified by net file: ECE595/cifar/train_test/var_everything/cifar_train_test_384.prototxt
I0501 04:23:05.313416 24976 net.cpp:296] The NetState phase (1) differed from the phase (0) specified by a rule in layer cifar
I0501 04:23:05.313510 24976 net.cpp:53] Initializing net from parameters: 
name: "CIFAR"
state {
  phase: TEST
}
layer {
  name: "cifar"
  type: "Data"
  top: "data"
  top: "label"
  include {
    phase: TEST
  }
  transform_param {
    mean_file: "examples/cifar10/mean.binaryproto"
  }
  data_param {
    source: "examples/cifar10/cifar10_test_lmdb"
    batch_size: 1000
    backend: LMDB
  }
}
layer {
  name: "conv0"
  type: "Convolution"
  bottom: "data"
  top: "conv0"
  param {
    lr_mult: 1
  }
  param {
    lr_mult: 2
  }
  convolution_param {
    num_output: 8
    pad: 2
    kernel_size: 5
    stride: 1
    weight_filler {
      type: "gaussian"
      std: 0.01
    }
    bias_filler {
      type: "constant"
    }
  }
}
layer {
  name: "Sigmoid0"
  type: "Sigmoid"
  bottom: "conv0"
  top: "Sigmoid0"
}
layer {
  name: "pool0"
  type: "Pooling"
  bottom: "Sigmoid0"
  top: "pool0"
  pooling_param {
    pool: AVE
    kernel_size: 3
    stride: 2
  }
}
layer {
  name: "ip1"
  type: "InnerProduct"
  bottom: "pool0"
  top: "ip1"
  param {
    lr_mult: 1
  }
  param {
    lr_mult: 2
  }
  inner_product_param {
    num_output: 20
    weight_filler {
      type: "gaussian"
      std: 0.01
    }
    bias_filler {
      type: "constant"
    }
  }
}
layer {
  name: "relu1"
  type: "ReLU"
  bottom: "ip1"
  top: "ip1"
}
layer {
  name: "ip2"
  type: "InnerProduct"
  bottom: "ip1"
  top: "ip2"
  param {
    lr_mult: 1
  }
  param {
    lr_mult: 2
  }
  inner_product_param {
    num_output: 80
    weight_filler {
      type: "gaussian"
      std: 0.01
    }
    bias_filler {
      type: "constant"
    }
  }
}
layer {
  name: "relu2"
  type: "ReLU"
  bottom: "ip2"
  top: "ip2"
}
layer {
  name: "ip3"
  type: "InnerProduct"
  bottom: "ip2"
  top: "ip3"
  param {
    lr_mult: 1
  }
  param {
    lr_mult: 2
  }
  inner_product_param {
    num_output: 160
    weight_filler {
      type: "gaussian"
      std: 0.01
    }
    bias_filler {
      type: "constant"
    }
  }
}
layer {
  name: "relu3"
  type: "ReLU"
  bottom: "ip3"
  top: "ip3"
}
layer {
  name: "ip4"
  type: "InnerProduct"
  bottom: "ip3"
  top: "ip4"
  param {
    lr_mult: 1
  }
  param {
    lr_mult: 2
  }
  inner_product_param {
    num_output: 10
    weight_filler {
      type: "gaussian"
      std: 0.01
    }
    bias_filler {
      type: "constant"
    }
  }
}
layer {
  name: "accuracy"
  type: "Accuracy"
  bottom: "ip4"
  bottom: "label"
  top: "accuracy"
  include {
    phase: TEST
  }
}
layer {
  name: "loss"
  type: "SoftmaxWithLoss"
  bottom: "ip4"
  bottom: "label"
  top: "loss"
}
I0501 04:23:05.313591 24976 layer_factory.hpp:77] Creating layer cifar
I0501 04:23:05.313637 24976 db_lmdb.cpp:35] Opened lmdb examples/cifar10/cifar10_test_lmdb
I0501 04:23:05.313647 24976 net.cpp:86] Creating Layer cifar
I0501 04:23:05.313652 24976 net.cpp:382] cifar -> data
I0501 04:23:05.313660 24976 net.cpp:382] cifar -> label
I0501 04:23:05.313666 24976 data_transformer.cpp:25] Loading mean file from: examples/cifar10/mean.binaryproto
I0501 04:23:05.313812 24976 data_layer.cpp:45] output data size: 1000,3,32,32
I0501 04:23:05.336144 24976 net.cpp:124] Setting up cifar
I0501 04:23:05.336187 24976 net.cpp:131] Top shape: 1000 3 32 32 (3072000)
I0501 04:23:05.336202 24976 net.cpp:131] Top shape: 1000 (1000)
I0501 04:23:05.336206 24976 net.cpp:139] Memory required for data: 12292000
I0501 04:23:05.336211 24976 layer_factory.hpp:77] Creating layer label_cifar_1_split
I0501 04:23:05.336239 24976 net.cpp:86] Creating Layer label_cifar_1_split
I0501 04:23:05.336243 24976 net.cpp:408] label_cifar_1_split <- label
I0501 04:23:05.336248 24976 net.cpp:382] label_cifar_1_split -> label_cifar_1_split_0
I0501 04:23:05.336257 24976 net.cpp:382] label_cifar_1_split -> label_cifar_1_split_1
I0501 04:23:05.336328 24976 net.cpp:124] Setting up label_cifar_1_split
I0501 04:23:05.336336 24976 net.cpp:131] Top shape: 1000 (1000)
I0501 04:23:05.336340 24976 net.cpp:131] Top shape: 1000 (1000)
I0501 04:23:05.336344 24976 net.cpp:139] Memory required for data: 12300000
I0501 04:23:05.336346 24976 layer_factory.hpp:77] Creating layer conv0
I0501 04:23:05.336359 24976 net.cpp:86] Creating Layer conv0
I0501 04:23:05.336364 24976 net.cpp:408] conv0 <- data
I0501 04:23:05.336386 24976 net.cpp:382] conv0 -> conv0
I0501 04:23:05.338136 24976 net.cpp:124] Setting up conv0
I0501 04:23:05.338150 24976 net.cpp:131] Top shape: 1000 8 32 32 (8192000)
I0501 04:23:05.338168 24976 net.cpp:139] Memory required for data: 45068000
I0501 04:23:05.338178 24976 layer_factory.hpp:77] Creating layer Sigmoid0
I0501 04:23:05.338186 24976 net.cpp:86] Creating Layer Sigmoid0
I0501 04:23:05.338189 24976 net.cpp:408] Sigmoid0 <- conv0
I0501 04:23:05.338194 24976 net.cpp:382] Sigmoid0 -> Sigmoid0
I0501 04:23:05.339365 24976 net.cpp:124] Setting up Sigmoid0
I0501 04:23:05.339375 24976 net.cpp:131] Top shape: 1000 8 32 32 (8192000)
I0501 04:23:05.339392 24976 net.cpp:139] Memory required for data: 77836000
I0501 04:23:05.339396 24976 layer_factory.hpp:77] Creating layer pool0
I0501 04:23:05.339404 24976 net.cpp:86] Creating Layer pool0
I0501 04:23:05.339407 24976 net.cpp:408] pool0 <- Sigmoid0
I0501 04:23:05.339412 24976 net.cpp:382] pool0 -> pool0
I0501 04:23:05.339591 24976 net.cpp:124] Setting up pool0
I0501 04:23:05.339601 24976 net.cpp:131] Top shape: 1000 8 16 16 (2048000)
I0501 04:23:05.339603 24976 net.cpp:139] Memory required for data: 86028000
I0501 04:23:05.339607 24976 layer_factory.hpp:77] Creating layer ip1
I0501 04:23:05.339615 24976 net.cpp:86] Creating Layer ip1
I0501 04:23:05.339619 24976 net.cpp:408] ip1 <- pool0
I0501 04:23:05.339624 24976 net.cpp:382] ip1 -> ip1
I0501 04:23:05.340903 24976 net.cpp:124] Setting up ip1
I0501 04:23:05.340911 24976 net.cpp:131] Top shape: 1000 20 (20000)
I0501 04:23:05.340929 24976 net.cpp:139] Memory required for data: 86108000
I0501 04:23:05.340951 24976 layer_factory.hpp:77] Creating layer relu1
I0501 04:23:05.340957 24976 net.cpp:86] Creating Layer relu1
I0501 04:23:05.340960 24976 net.cpp:408] relu1 <- ip1
I0501 04:23:05.340965 24976 net.cpp:369] relu1 -> ip1 (in-place)
I0501 04:23:05.341173 24976 net.cpp:124] Setting up relu1
I0501 04:23:05.341182 24976 net.cpp:131] Top shape: 1000 20 (20000)
I0501 04:23:05.341186 24976 net.cpp:139] Memory required for data: 86188000
I0501 04:23:05.341188 24976 layer_factory.hpp:77] Creating layer ip2
I0501 04:23:05.341195 24976 net.cpp:86] Creating Layer ip2
I0501 04:23:05.341198 24976 net.cpp:408] ip2 <- ip1
I0501 04:23:05.341204 24976 net.cpp:382] ip2 -> ip2
I0501 04:23:05.341357 24976 net.cpp:124] Setting up ip2
I0501 04:23:05.341365 24976 net.cpp:131] Top shape: 1000 80 (80000)
I0501 04:23:05.341368 24976 net.cpp:139] Memory required for data: 86508000
I0501 04:23:05.341375 24976 layer_factory.hpp:77] Creating layer relu2
I0501 04:23:05.341383 24976 net.cpp:86] Creating Layer relu2
I0501 04:23:05.341403 24976 net.cpp:408] relu2 <- ip2
I0501 04:23:05.341409 24976 net.cpp:369] relu2 -> ip2 (in-place)
I0501 04:23:05.342191 24976 net.cpp:124] Setting up relu2
I0501 04:23:05.342205 24976 net.cpp:131] Top shape: 1000 80 (80000)
I0501 04:23:05.342223 24976 net.cpp:139] Memory required for data: 86828000
I0501 04:23:05.342227 24976 layer_factory.hpp:77] Creating layer ip3
I0501 04:23:05.342234 24976 net.cpp:86] Creating Layer ip3
I0501 04:23:05.342239 24976 net.cpp:408] ip3 <- ip2
I0501 04:23:05.342244 24976 net.cpp:382] ip3 -> ip3
I0501 04:23:05.342747 24976 net.cpp:124] Setting up ip3
I0501 04:23:05.342754 24976 net.cpp:131] Top shape: 1000 160 (160000)
I0501 04:23:05.342757 24976 net.cpp:139] Memory required for data: 87468000
I0501 04:23:05.342778 24976 layer_factory.hpp:77] Creating layer relu3
I0501 04:23:05.342783 24976 net.cpp:86] Creating Layer relu3
I0501 04:23:05.342787 24976 net.cpp:408] relu3 <- ip3
I0501 04:23:05.342793 24976 net.cpp:369] relu3 -> ip3 (in-place)
I0501 04:23:05.342949 24976 net.cpp:124] Setting up relu3
I0501 04:23:05.342957 24976 net.cpp:131] Top shape: 1000 160 (160000)
I0501 04:23:05.342962 24976 net.cpp:139] Memory required for data: 88108000
I0501 04:23:05.342963 24976 layer_factory.hpp:77] Creating layer ip4
I0501 04:23:05.342970 24976 net.cpp:86] Creating Layer ip4
I0501 04:23:05.342974 24976 net.cpp:408] ip4 <- ip3
I0501 04:23:05.342979 24976 net.cpp:382] ip4 -> ip4
I0501 04:23:05.343129 24976 net.cpp:124] Setting up ip4
I0501 04:23:05.343137 24976 net.cpp:131] Top shape: 1000 10 (10000)
I0501 04:23:05.343140 24976 net.cpp:139] Memory required for data: 88148000
I0501 04:23:05.343147 24976 layer_factory.hpp:77] Creating layer ip4_ip4_0_split
I0501 04:23:05.343154 24976 net.cpp:86] Creating Layer ip4_ip4_0_split
I0501 04:23:05.343158 24976 net.cpp:408] ip4_ip4_0_split <- ip4
I0501 04:23:05.343178 24976 net.cpp:382] ip4_ip4_0_split -> ip4_ip4_0_split_0
I0501 04:23:05.343184 24976 net.cpp:382] ip4_ip4_0_split -> ip4_ip4_0_split_1
I0501 04:23:05.343219 24976 net.cpp:124] Setting up ip4_ip4_0_split
I0501 04:23:05.343225 24976 net.cpp:131] Top shape: 1000 10 (10000)
I0501 04:23:05.343230 24976 net.cpp:131] Top shape: 1000 10 (10000)
I0501 04:23:05.343232 24976 net.cpp:139] Memory required for data: 88228000
I0501 04:23:05.343235 24976 layer_factory.hpp:77] Creating layer accuracy
I0501 04:23:05.343241 24976 net.cpp:86] Creating Layer accuracy
I0501 04:23:05.343245 24976 net.cpp:408] accuracy <- ip4_ip4_0_split_0
I0501 04:23:05.343248 24976 net.cpp:408] accuracy <- label_cifar_1_split_0
I0501 04:23:05.343255 24976 net.cpp:382] accuracy -> accuracy
…
