…
I0501 06:16:13.726940 32241 net.cpp:296] The NetState phase (0) differed from the phase (1) specified by a rule in layer cifar
I0501 06:16:13.726960 32241 net.cpp:296] The NetState phase (0) differed from the phase (1) specified by a rule in layer accuracy
I0501 06:16:13.727088 32241 net.cpp:53] Initializing net from parameters: 
name: "CIFAR"
state {
  phase: TRAIN
  level: 0
  stage: ""
}
layer {
  name: "cifar"
  type: "Data"
  top: "data"
  top: "label"
  include {
    phase: TRAIN
  }
  transform_param {
    mean_file: "examples/cifar10/mean.binaryproto"
  }
  data_param {
    source: "examples/cifar10/cifar10_train_lmdb"
    batch_size: 111
    backend: LMDB
  }
}
layer {
  name: "conv0"
  type: "Convolution"
  bottom: "data"
  top: "conv0"
  param {
    lr_mult: 1
  }
  param {
    lr_mult: 2
  }
  convolution_param {
    num_output: 8
    pad: 2
    kernel_size: 5
    stride: 1
    weight_filler {
      type: "gaussian"
      std: 0.01
    }
    bias_filler {
      type: "constant"
    }
  }
}
layer {
  name: "Sigmoid0"
  type: "Sigmoid"
  bottom: "conv0"
  top: "Sigmoid0"
}
layer {
  name: "pool0"
  type: "Pooling"
  bottom: "Sigmoid0"
  top: "pool0"
  pooling_param {
    pool: AVE
    kernel_size: 3
    stride: 2
  }
}
layer {
  name: "ip1"
  type: "InnerProduct"
  bottom: "pool0"
  top: "ip1"
  param {
    lr_mult: 1
  }
  param {
    lr_mult: 2
  }
  inner_product_param {
    num_output: 160
    weight_filler {
      type: "gaussian"
      std: 0.01
    }
    bias_filler {
      type: "constant"
    }
  }
}
layer {
  name: "relu1"
  type: "ReLU"
  bottom: "ip1"
  top: "ip1"
}
layer {
  name: "ip2"
  type: "InnerProduct"
  bottom: "ip1"
  top: "ip2"
  param {
    lr_mult: 1
  }
  param {
    lr_mult: 2
  }
  inner_product_param {
    num_output: 20
    weight_filler {
      type: "gaussian"
      std: 0.01
    }
    bias_filler {
      type: "constant"
    }
  }
}
layer {
  name: "relu2"
  type: "ReLU"
  bottom: "ip2"
  top: "ip2"
}
layer {
  name: "ip3"
  type: "InnerProduct"
  bottom: "ip2"
  top: "ip3"
  param {
    lr_mult: 1
  }
  param {
    lr_mult: 2
  }
  inner_product_param {
    num_output: 10
    weight_filler {
      type: "gaussian"
      std: 0.01
    }
    bias_filler {
      type: "constant"
    }
  }
}
layer {
  name: "relu3"
  type: "ReLU"
  bottom: "ip3"
  top: "ip3"
}
layer {
  name: "ip4"
  type: "InnerProduct"
  bottom: "ip3"
  top: "ip4"
  param {
    lr_mult: 1
  }
  param {
    lr_mult: 2
  }
  inner_product_param {
    num_output: 10
    weight_filler {
      type: "gaussian"
      std: 0.01
    }
    bias_filler {
      type: "constant"
    }
  }
}
layer {
  name: "loss"
  type: "SoftmaxWithLoss"
  bottom: "ip4"
  bottom: "label"
  top: "loss"
}
I0501 06:16:13.727197 32241 layer_factory.hpp:77] Creating layer cifar
I0501 06:16:13.727327 32241 db_lmdb.cpp:35] Opened lmdb examples/cifar10/cifar10_train_lmdb
I0501 06:16:13.727365 32241 net.cpp:86] Creating Layer cifar
I0501 06:16:13.727381 32241 net.cpp:382] cifar -> data
I0501 06:16:13.727412 32241 net.cpp:382] cifar -> label
I0501 06:16:13.727429 32241 data_transformer.cpp:25] Loading mean file from: examples/cifar10/mean.binaryproto
I0501 06:16:13.729846 32241 data_layer.cpp:45] output data size: 111,3,32,32
I0501 06:16:13.737869 32241 net.cpp:124] Setting up cifar
I0501 06:16:13.737887 32241 net.cpp:131] Top shape: 111 3 32 32 (340992)
I0501 06:16:13.737895 32241 net.cpp:131] Top shape: 111 (111)
I0501 06:16:13.737898 32241 net.cpp:139] Memory required for data: 1364412
I0501 06:16:13.737923 32241 layer_factory.hpp:77] Creating layer conv0
I0501 06:16:13.737948 32241 net.cpp:86] Creating Layer conv0
I0501 06:16:13.737958 32241 net.cpp:408] conv0 <- data
I0501 06:16:13.737979 32241 net.cpp:382] conv0 -> conv0
I0501 06:16:14.030284 32241 net.cpp:124] Setting up conv0
I0501 06:16:14.030318 32241 net.cpp:131] Top shape: 111 8 32 32 (909312)
I0501 06:16:14.030323 32241 net.cpp:139] Memory required for data: 5001660
I0501 06:16:14.030341 32241 layer_factory.hpp:77] Creating layer Sigmoid0
I0501 06:16:14.030356 32241 net.cpp:86] Creating Layer Sigmoid0
I0501 06:16:14.030361 32241 net.cpp:408] Sigmoid0 <- conv0
I0501 06:16:14.030369 32241 net.cpp:382] Sigmoid0 -> Sigmoid0
I0501 06:16:14.030606 32241 net.cpp:124] Setting up Sigmoid0
I0501 06:16:14.030619 32241 net.cpp:131] Top shape: 111 8 32 32 (909312)
I0501 06:16:14.030624 32241 net.cpp:139] Memory required for data: 8638908
I0501 06:16:14.030630 32241 layer_factory.hpp:77] Creating layer pool0
I0501 06:16:14.030642 32241 net.cpp:86] Creating Layer pool0
I0501 06:16:14.030649 32241 net.cpp:408] pool0 <- Sigmoid0
I0501 06:16:14.030658 32241 net.cpp:382] pool0 -> pool0
I0501 06:16:14.031560 32241 net.cpp:124] Setting up pool0
I0501 06:16:14.031577 32241 net.cpp:131] Top shape: 111 8 16 16 (227328)
I0501 06:16:14.031582 32241 net.cpp:139] Memory required for data: 9548220
I0501 06:16:14.031586 32241 layer_factory.hpp:77] Creating layer ip1
I0501 06:16:14.031597 32241 net.cpp:86] Creating Layer ip1
I0501 06:16:14.031602 32241 net.cpp:408] ip1 <- pool0
I0501 06:16:14.031608 32241 net.cpp:382] ip1 -> ip1
I0501 06:16:14.043489 32241 net.cpp:124] Setting up ip1
I0501 06:16:14.043505 32241 net.cpp:131] Top shape: 111 160 (17760)
I0501 06:16:14.043509 32241 net.cpp:139] Memory required for data: 9619260
I0501 06:16:14.043520 32241 layer_factory.hpp:77] Creating layer relu1
I0501 06:16:14.043527 32241 net.cpp:86] Creating Layer relu1
I0501 06:16:14.043531 32241 net.cpp:408] relu1 <- ip1
I0501 06:16:14.043540 32241 net.cpp:369] relu1 -> ip1 (in-place)
I0501 06:16:14.043769 32241 net.cpp:124] Setting up relu1
I0501 06:16:14.043783 32241 net.cpp:131] Top shape: 111 160 (17760)
I0501 06:16:14.043787 32241 net.cpp:139] Memory required for data: 9690300
I0501 06:16:14.043793 32241 layer_factory.hpp:77] Creating layer ip2
I0501 06:16:14.043807 32241 net.cpp:86] Creating Layer ip2
I0501 06:16:14.043813 32241 net.cpp:408] ip2 <- ip1
I0501 06:16:14.043823 32241 net.cpp:382] ip2 -> ip2
I0501 06:16:14.044064 32241 net.cpp:124] Setting up ip2
I0501 06:16:14.044075 32241 net.cpp:131] Top shape: 111 20 (2220)
I0501 06:16:14.044078 32241 net.cpp:139] Memory required for data: 9699180
I0501 06:16:14.044090 32241 layer_factory.hpp:77] Creating layer relu2
I0501 06:16:14.044098 32241 net.cpp:86] Creating Layer relu2
I0501 06:16:14.044106 32241 net.cpp:408] relu2 <- ip2
I0501 06:16:14.044114 32241 net.cpp:369] relu2 -> ip2 (in-place)
I0501 06:16:14.044337 32241 net.cpp:124] Setting up relu2
I0501 06:16:14.044348 32241 net.cpp:131] Top shape: 111 20 (2220)
I0501 06:16:14.044353 32241 net.cpp:139] Memory required for data: 9708060
I0501 06:16:14.044358 32241 layer_factory.hpp:77] Creating layer ip3
I0501 06:16:14.044373 32241 net.cpp:86] Creating Layer ip3
I0501 06:16:14.044380 32241 net.cpp:408] ip3 <- ip2
I0501 06:16:14.044390 32241 net.cpp:382] ip3 -> ip3
I0501 06:16:14.044530 32241 net.cpp:124] Setting up ip3
I0501 06:16:14.044541 32241 net.cpp:131] Top shape: 111 10 (1110)
I0501 06:16:14.044544 32241 net.cpp:139] Memory required for data: 9712500
I0501 06:16:14.044554 32241 layer_factory.hpp:77] Creating layer relu3
I0501 06:16:14.044564 32241 net.cpp:86] Creating Layer relu3
I0501 06:16:14.044571 32241 net.cpp:408] relu3 <- ip3
I0501 06:16:14.044581 32241 net.cpp:369] relu3 -> ip3 (in-place)
I0501 06:16:14.044785 32241 net.cpp:124] Setting up relu3
I0501 06:16:14.044795 32241 net.cpp:131] Top shape: 111 10 (1110)
I0501 06:16:14.044800 32241 net.cpp:139] Memory required for data: 9716940
I0501 06:16:14.044806 32241 layer_factory.hpp:77] Creating layer ip4
I0501 06:16:14.044847 32241 net.cpp:86] Creating Layer ip4
I0501 06:16:14.044854 32241 net.cpp:408] ip4 <- ip3
I0501 06:16:14.044864 32241 net.cpp:382] ip4 -> ip4
I0501 06:16:14.045006 32241 net.cpp:124] Setting up ip4
I0501 06:16:14.045017 32241 net.cpp:131] Top shape: 111 10 (1110)
I0501 06:16:14.045022 32241 net.cpp:139] Memory required for data: 9721380
I0501 06:16:14.045037 32241 layer_factory.hpp:77] Creating layer loss
I0501 06:16:14.045048 32241 net.cpp:86] Creating Layer loss
I0501 06:16:14.045054 32241 net.cpp:408] loss <- ip4
I0501 06:16:14.045063 32241 net.cpp:408] loss <- label
I0501 06:16:14.045073 32241 net.cpp:382] loss -> loss
I0501 06:16:14.045099 32241 layer_factory.hpp:77] Creating layer loss
…
I0501 06:16:14.046635 32241 solver.cpp:173] Creating test net (#0) specified by net file: ECE595/cifar/train_test/var_everything/cifar_train_test_445.prototxt
I0501 06:16:14.046669 32241 net.cpp:296] The NetState phase (1) differed from the phase (0) specified by a rule in layer cifar
I0501 06:16:14.046804 32241 net.cpp:53] Initializing net from parameters: 
name: "CIFAR"
state {
  phase: TEST
}
layer {
  name: "cifar"
  type: "Data"
  top: "data"
  top: "label"
  include {
    phase: TEST
  }
  transform_param {
    mean_file: "examples/cifar10/mean.binaryproto"
  }
  data_param {
    source: "examples/cifar10/cifar10_test_lmdb"
    batch_size: 1000
    backend: LMDB
  }
}
layer {
  name: "conv0"
  type: "Convolution"
  bottom: "data"
  top: "conv0"
  param {
    lr_mult: 1
  }
  param {
    lr_mult: 2
  }
  convolution_param {
    num_output: 8
    pad: 2
    kernel_size: 5
    stride: 1
    weight_filler {
      type: "gaussian"
      std: 0.01
    }
    bias_filler {
      type: "constant"
    }
  }
}
layer {
  name: "Sigmoid0"
  type: "Sigmoid"
  bottom: "conv0"
  top: "Sigmoid0"
}
layer {
  name: "pool0"
  type: "Pooling"
  bottom: "Sigmoid0"
  top: "pool0"
  pooling_param {
    pool: AVE
    kernel_size: 3
    stride: 2
  }
}
layer {
  name: "ip1"
  type: "InnerProduct"
  bottom: "pool0"
  top: "ip1"
  param {
    lr_mult: 1
  }
  param {
    lr_mult: 2
  }
  inner_product_param {
    num_output: 160
    weight_filler {
      type: "gaussian"
      std: 0.01
    }
    bias_filler {
      type: "constant"
    }
  }
}
layer {
  name: "relu1"
  type: "ReLU"
  bottom: "ip1"
  top: "ip1"
}
layer {
  name: "ip2"
  type: "InnerProduct"
  bottom: "ip1"
  top: "ip2"
  param {
    lr_mult: 1
  }
  param {
    lr_mult: 2
  }
  inner_product_param {
    num_output: 20
    weight_filler {
      type: "gaussian"
      std: 0.01
    }
    bias_filler {
      type: "constant"
    }
  }
}
layer {
  name: "relu2"
  type: "ReLU"
  bottom: "ip2"
  top: "ip2"
}
layer {
  name: "ip3"
  type: "InnerProduct"
  bottom: "ip2"
  top: "ip3"
  param {
    lr_mult: 1
  }
  param {
    lr_mult: 2
  }
  inner_product_param {
    num_output: 10
    weight_filler {
      type: "gaussian"
      std: 0.01
    }
    bias_filler {
      type: "constant"
    }
  }
}
layer {
  name: "relu3"
  type: "ReLU"
  bottom: "ip3"
  top: "ip3"
}
layer {
  name: "ip4"
  type: "InnerProduct"
  bottom: "ip3"
  top: "ip4"
  param {
    lr_mult: 1
  }
  param {
    lr_mult: 2
  }
  inner_product_param {
    num_output: 10
    weight_filler {
      type: "gaussian"
      std: 0.01
    }
    bias_filler {
      type: "constant"
    }
  }
}
layer {
  name: "accuracy"
  type: "Accuracy"
  bottom: "ip4"
  bottom: "label"
  top: "accuracy"
  include {
    phase: TEST
  }
}
layer {
  name: "loss"
  type: "SoftmaxWithLoss"
  bottom: "ip4"
  bottom: "label"
  top: "loss"
}
I0501 06:16:14.046950 32241 layer_factory.hpp:77] Creating layer cifar
I0501 06:16:14.047021 32241 db_lmdb.cpp:35] Opened lmdb examples/cifar10/cifar10_test_lmdb
I0501 06:16:14.047044 32241 net.cpp:86] Creating Layer cifar
I0501 06:16:14.047052 32241 net.cpp:382] cifar -> data
I0501 06:16:14.047067 32241 net.cpp:382] cifar -> label
I0501 06:16:14.047080 32241 data_transformer.cpp:25] Loading mean file from: examples/cifar10/mean.binaryproto
I0501 06:16:14.047332 32241 data_layer.cpp:45] output data size: 1000,3,32,32
I0501 06:16:14.073515 32241 net.cpp:124] Setting up cifar
I0501 06:16:14.073546 32241 net.cpp:131] Top shape: 1000 3 32 32 (3072000)
I0501 06:16:14.073554 32241 net.cpp:131] Top shape: 1000 (1000)
I0501 06:16:14.073556 32241 net.cpp:139] Memory required for data: 12292000
I0501 06:16:14.073565 32241 layer_factory.hpp:77] Creating layer label_cifar_1_split
I0501 06:16:14.073583 32241 net.cpp:86] Creating Layer label_cifar_1_split
I0501 06:16:14.073588 32241 net.cpp:408] label_cifar_1_split <- label
I0501 06:16:14.073598 32241 net.cpp:382] label_cifar_1_split -> label_cifar_1_split_0
I0501 06:16:14.073612 32241 net.cpp:382] label_cifar_1_split -> label_cifar_1_split_1
I0501 06:16:14.073721 32241 net.cpp:124] Setting up label_cifar_1_split
I0501 06:16:14.073732 32241 net.cpp:131] Top shape: 1000 (1000)
I0501 06:16:14.073737 32241 net.cpp:131] Top shape: 1000 (1000)
I0501 06:16:14.073743 32241 net.cpp:139] Memory required for data: 12300000
I0501 06:16:14.073750 32241 layer_factory.hpp:77] Creating layer conv0
I0501 06:16:14.073773 32241 net.cpp:86] Creating Layer conv0
I0501 06:16:14.073786 32241 net.cpp:408] conv0 <- data
I0501 06:16:14.073797 32241 net.cpp:382] conv0 -> conv0
I0501 06:16:14.076584 32241 net.cpp:124] Setting up conv0
I0501 06:16:14.076602 32241 net.cpp:131] Top shape: 1000 8 32 32 (8192000)
I0501 06:16:14.076607 32241 net.cpp:139] Memory required for data: 45068000
I0501 06:16:14.076620 32241 layer_factory.hpp:77] Creating layer Sigmoid0
I0501 06:16:14.076630 32241 net.cpp:86] Creating Layer Sigmoid0
I0501 06:16:14.076634 32241 net.cpp:408] Sigmoid0 <- conv0
I0501 06:16:14.076640 32241 net.cpp:382] Sigmoid0 -> Sigmoid0
I0501 06:16:14.076907 32241 net.cpp:124] Setting up Sigmoid0
I0501 06:16:14.076920 32241 net.cpp:131] Top shape: 1000 8 32 32 (8192000)
I0501 06:16:14.076925 32241 net.cpp:139] Memory required for data: 77836000
I0501 06:16:14.076933 32241 layer_factory.hpp:77] Creating layer pool0
I0501 06:16:14.076949 32241 net.cpp:86] Creating Layer pool0
I0501 06:16:14.076957 32241 net.cpp:408] pool0 <- Sigmoid0
I0501 06:16:14.076968 32241 net.cpp:382] pool0 -> pool0
I0501 06:16:14.077219 32241 net.cpp:124] Setting up pool0
I0501 06:16:14.077231 32241 net.cpp:131] Top shape: 1000 8 16 16 (2048000)
I0501 06:16:14.077235 32241 net.cpp:139] Memory required for data: 86028000
I0501 06:16:14.077239 32241 layer_factory.hpp:77] Creating layer ip1
I0501 06:16:14.077249 32241 net.cpp:86] Creating Layer ip1
I0501 06:16:14.077252 32241 net.cpp:408] ip1 <- pool0
I0501 06:16:14.077260 32241 net.cpp:382] ip1 -> ip1
I0501 06:16:14.089169 32241 net.cpp:124] Setting up ip1
I0501 06:16:14.089187 32241 net.cpp:131] Top shape: 1000 160 (160000)
I0501 06:16:14.089191 32241 net.cpp:139] Memory required for data: 86668000
I0501 06:16:14.089222 32241 layer_factory.hpp:77] Creating layer relu1
I0501 06:16:14.089231 32241 net.cpp:86] Creating Layer relu1
I0501 06:16:14.089236 32241 net.cpp:408] relu1 <- ip1
I0501 06:16:14.089246 32241 net.cpp:369] relu1 -> ip1 (in-place)
I0501 06:16:14.089495 32241 net.cpp:124] Setting up relu1
I0501 06:16:14.089509 32241 net.cpp:131] Top shape: 1000 160 (160000)
I0501 06:16:14.089512 32241 net.cpp:139] Memory required for data: 87308000
I0501 06:16:14.089517 32241 layer_factory.hpp:77] Creating layer ip2
I0501 06:16:14.089530 32241 net.cpp:86] Creating Layer ip2
I0501 06:16:14.089536 32241 net.cpp:408] ip2 <- ip1
I0501 06:16:14.089550 32241 net.cpp:382] ip2 -> ip2
I0501 06:16:14.089807 32241 net.cpp:124] Setting up ip2
I0501 06:16:14.089818 32241 net.cpp:131] Top shape: 1000 20 (20000)
I0501 06:16:14.089823 32241 net.cpp:139] Memory required for data: 87388000
I0501 06:16:14.089833 32241 layer_factory.hpp:77] Creating layer relu2
I0501 06:16:14.089840 32241 net.cpp:86] Creating Layer relu2
I0501 06:16:14.089844 32241 net.cpp:408] relu2 <- ip2
I0501 06:16:14.089853 32241 net.cpp:369] relu2 -> ip2 (in-place)
I0501 06:16:14.090777 32241 net.cpp:124] Setting up relu2
I0501 06:16:14.090793 32241 net.cpp:131] Top shape: 1000 20 (20000)
I0501 06:16:14.090797 32241 net.cpp:139] Memory required for data: 87468000
I0501 06:16:14.090802 32241 layer_factory.hpp:77] Creating layer ip3
I0501 06:16:14.090811 32241 net.cpp:86] Creating Layer ip3
I0501 06:16:14.090816 32241 net.cpp:408] ip3 <- ip2
I0501 06:16:14.090822 32241 net.cpp:382] ip3 -> ip3
I0501 06:16:14.090994 32241 net.cpp:124] Setting up ip3
I0501 06:16:14.091014 32241 net.cpp:131] Top shape: 1000 10 (10000)
I0501 06:16:14.091017 32241 net.cpp:139] Memory required for data: 87508000
I0501 06:16:14.091028 32241 layer_factory.hpp:77] Creating layer relu3
I0501 06:16:14.091038 32241 net.cpp:86] Creating Layer relu3
I0501 06:16:14.091045 32241 net.cpp:408] relu3 <- ip3
I0501 06:16:14.091056 32241 net.cpp:369] relu3 -> ip3 (in-place)
I0501 06:16:14.091266 32241 net.cpp:124] Setting up relu3
I0501 06:16:14.091279 32241 net.cpp:131] Top shape: 1000 10 (10000)
I0501 06:16:14.091282 32241 net.cpp:139] Memory required for data: 87548000
I0501 06:16:14.091289 32241 layer_factory.hpp:77] Creating layer ip4
I0501 06:16:14.091301 32241 net.cpp:86] Creating Layer ip4
I0501 06:16:14.091308 32241 net.cpp:408] ip4 <- ip3
I0501 06:16:14.091318 32241 net.cpp:382] ip4 -> ip4
I0501 06:16:14.091464 32241 net.cpp:124] Setting up ip4
I0501 06:16:14.091475 32241 net.cpp:131] Top shape: 1000 10 (10000)
I0501 06:16:14.091478 32241 net.cpp:139] Memory required for data: 87588000
I0501 06:16:14.091493 32241 layer_factory.hpp:77] Creating layer ip4_ip4_0_split
I0501 06:16:14.091506 32241 net.cpp:86] Creating Layer ip4_ip4_0_split
I0501 06:16:14.091512 32241 net.cpp:408] ip4_ip4_0_split <- ip4
I0501 06:16:14.091522 32241 net.cpp:382] ip4_ip4_0_split -> ip4_ip4_0_split_0
I0501 06:16:14.091533 32241 net.cpp:382] ip4_ip4_0_split -> ip4_ip4_0_split_1
I0501 06:16:14.091588 32241 net.cpp:124] Setting up ip4_ip4_0_split
I0501 06:16:14.091596 32241 net.cpp:131] Top shape: 1000 10 (10000)
I0501 06:16:14.091603 32241 net.cpp:131] Top shape: 1000 10 (10000)
I0501 06:16:14.091609 32241 net.cpp:139] Memory required for data: 87668000
I0501 06:16:14.091614 32241 layer_factory.hpp:77] Creating layer accuracy
I0501 06:16:14.091626 32241 net.cpp:86] Creating Layer accuracy
I0501 06:16:14.091632 32241 net.cpp:408] accuracy <- ip4_ip4_0_split_0
I0501 06:16:14.091640 32241 net.cpp:408] accuracy <- label_cifar_1_split_0
I0501 06:16:14.091651 32241 net.cpp:382] accuracy -> accuracy
…
