…
I0430 18:39:42.497611 23932 net.cpp:296] The NetState phase (0) differed from the phase (1) specified by a rule in layer cifar
I0430 18:39:42.497627 23932 net.cpp:296] The NetState phase (0) differed from the phase (1) specified by a rule in layer accuracy
I0430 18:39:42.497711 23932 net.cpp:53] Initializing net from parameters: 
name: "CIFAR"
state {
  phase: TRAIN
  level: 0
  stage: ""
}
layer {
  name: "cifar"
  type: "Data"
  top: "data"
  top: "label"
  include {
    phase: TRAIN
  }
  transform_param {
    mean_file: "examples/cifar10/mean.binaryproto"
  }
  data_param {
    source: "examples/cifar10/cifar10_train_lmdb"
    batch_size: 111
    backend: LMDB
  }
}
layer {
  name: "ip1"
  type: "InnerProduct"
  bottom: "data"
  top: "ip1"
  param {
    lr_mult: 1
  }
  param {
    lr_mult: 2
  }
  inner_product_param {
    num_output: 20
    weight_filler {
      type: "gaussian"
      std: 0.01
    }
    bias_filler {
      type: "constant"
    }
  }
}
layer {
  name: "relu1"
  type: "ReLU"
  bottom: "ip1"
  top: "ip1"
}
layer {
  name: "ip2"
  type: "InnerProduct"
  bottom: "ip1"
  top: "ip2"
  param {
    lr_mult: 1
  }
  param {
    lr_mult: 2
  }
  inner_product_param {
    num_output: 80
    weight_filler {
      type: "gaussian"
      std: 0.01
    }
    bias_filler {
      type: "constant"
    }
  }
}
layer {
  name: "relu2"
  type: "ReLU"
  bottom: "ip2"
  top: "ip2"
}
layer {
  name: "ip3"
  type: "InnerProduct"
  bottom: "ip2"
  top: "ip3"
  param {
    lr_mult: 1
  }
  param {
    lr_mult: 2
  }
  inner_product_param {
    num_output: 80
    weight_filler {
      type: "gaussian"
      std: 0.01
    }
    bias_filler {
      type: "constant"
    }
  }
}
layer {
  name: "relu3"
  type: "ReLU"
  bottom: "ip3"
  top: "ip3"
}
layer {
  name: "ip4"
  type: "InnerProduct"
  bottom: "ip3"
  top: "ip4"
  param {
    lr_mult: 1
  }
  param {
    lr_mult: 2
  }
  inner_product_param {
    num_output: 10
    weight_filler {
      type: "gaussian"
      std: 0.01
    }
    bias_filler {
      type: "constant"
    }
  }
}
layer {
  name: "loss"
  type: "SoftmaxWithLoss"
  bottom: "ip4"
  bottom: "label"
  top: "loss"
}
I0430 18:39:42.497782 23932 layer_factory.hpp:77] Creating layer cifar
I0430 18:39:42.497884 23932 db_lmdb.cpp:35] Opened lmdb examples/cifar10/cifar10_train_lmdb
I0430 18:39:42.497910 23932 net.cpp:86] Creating Layer cifar
I0430 18:39:42.497917 23932 net.cpp:382] cifar -> data
I0430 18:39:42.497941 23932 net.cpp:382] cifar -> label
I0430 18:39:42.497952 23932 data_transformer.cpp:25] Loading mean file from: examples/cifar10/mean.binaryproto
I0430 18:39:42.500077 23932 data_layer.cpp:45] output data size: 111,3,32,32
I0430 18:39:42.507984 23932 net.cpp:124] Setting up cifar
I0430 18:39:42.508005 23932 net.cpp:131] Top shape: 111 3 32 32 (340992)
I0430 18:39:42.508011 23932 net.cpp:131] Top shape: 111 (111)
I0430 18:39:42.508014 23932 net.cpp:139] Memory required for data: 1364412
I0430 18:39:42.508021 23932 layer_factory.hpp:77] Creating layer ip1
I0430 18:39:42.508033 23932 net.cpp:86] Creating Layer ip1
I0430 18:39:42.508038 23932 net.cpp:408] ip1 <- data
I0430 18:39:42.508050 23932 net.cpp:382] ip1 -> ip1
I0430 18:39:42.511265 23932 net.cpp:124] Setting up ip1
I0430 18:39:42.511283 23932 net.cpp:131] Top shape: 111 20 (2220)
I0430 18:39:42.511287 23932 net.cpp:139] Memory required for data: 1373292
I0430 18:39:42.511301 23932 layer_factory.hpp:77] Creating layer relu1
I0430 18:39:42.511310 23932 net.cpp:86] Creating Layer relu1
I0430 18:39:42.511330 23932 net.cpp:408] relu1 <- ip1
I0430 18:39:42.511337 23932 net.cpp:369] relu1 -> ip1 (in-place)
I0430 18:39:42.797031 23932 net.cpp:124] Setting up relu1
I0430 18:39:42.797060 23932 net.cpp:131] Top shape: 111 20 (2220)
I0430 18:39:42.797065 23932 net.cpp:139] Memory required for data: 1382172
I0430 18:39:42.797070 23932 layer_factory.hpp:77] Creating layer ip2
I0430 18:39:42.797082 23932 net.cpp:86] Creating Layer ip2
I0430 18:39:42.797086 23932 net.cpp:408] ip2 <- ip1
I0430 18:39:42.797096 23932 net.cpp:382] ip2 -> ip2
I0430 18:39:42.797302 23932 net.cpp:124] Setting up ip2
I0430 18:39:42.797309 23932 net.cpp:131] Top shape: 111 80 (8880)
I0430 18:39:42.797312 23932 net.cpp:139] Memory required for data: 1417692
I0430 18:39:42.797322 23932 layer_factory.hpp:77] Creating layer relu2
I0430 18:39:42.797346 23932 net.cpp:86] Creating Layer relu2
I0430 18:39:42.797365 23932 net.cpp:408] relu2 <- ip2
I0430 18:39:42.797370 23932 net.cpp:369] relu2 -> ip2 (in-place)
I0430 18:39:42.798156 23932 net.cpp:124] Setting up relu2
I0430 18:39:42.798168 23932 net.cpp:131] Top shape: 111 80 (8880)
I0430 18:39:42.798187 23932 net.cpp:139] Memory required for data: 1453212
I0430 18:39:42.798192 23932 layer_factory.hpp:77] Creating layer ip3
I0430 18:39:42.798197 23932 net.cpp:86] Creating Layer ip3
I0430 18:39:42.798202 23932 net.cpp:408] ip3 <- ip2
I0430 18:39:42.798207 23932 net.cpp:382] ip3 -> ip3
I0430 18:39:42.799362 23932 net.cpp:124] Setting up ip3
I0430 18:39:42.799374 23932 net.cpp:131] Top shape: 111 80 (8880)
I0430 18:39:42.799393 23932 net.cpp:139] Memory required for data: 1488732
I0430 18:39:42.799401 23932 layer_factory.hpp:77] Creating layer relu3
I0430 18:39:42.799407 23932 net.cpp:86] Creating Layer relu3
I0430 18:39:42.799410 23932 net.cpp:408] relu3 <- ip3
I0430 18:39:42.799414 23932 net.cpp:369] relu3 -> ip3 (in-place)
I0430 18:39:42.799579 23932 net.cpp:124] Setting up relu3
I0430 18:39:42.799587 23932 net.cpp:131] Top shape: 111 80 (8880)
I0430 18:39:42.799590 23932 net.cpp:139] Memory required for data: 1524252
I0430 18:39:42.799593 23932 layer_factory.hpp:77] Creating layer ip4
I0430 18:39:42.799599 23932 net.cpp:86] Creating Layer ip4
I0430 18:39:42.799602 23932 net.cpp:408] ip4 <- ip3
I0430 18:39:42.799607 23932 net.cpp:382] ip4 -> ip4
I0430 18:39:42.800557 23932 net.cpp:124] Setting up ip4
I0430 18:39:42.800568 23932 net.cpp:131] Top shape: 111 10 (1110)
I0430 18:39:42.800587 23932 net.cpp:139] Memory required for data: 1528692
I0430 18:39:42.800593 23932 layer_factory.hpp:77] Creating layer loss
I0430 18:39:42.800601 23932 net.cpp:86] Creating Layer loss
I0430 18:39:42.800603 23932 net.cpp:408] loss <- ip4
I0430 18:39:42.800607 23932 net.cpp:408] loss <- label
I0430 18:39:42.800612 23932 net.cpp:382] loss -> loss
I0430 18:39:42.800642 23932 layer_factory.hpp:77] Creating layer loss
…
I0430 18:39:42.801255 23932 solver.cpp:173] Creating test net (#0) specified by net file: ECE595/cifar/train_test/var_everything/cifar_train_test_73.prototxt
I0430 18:39:42.801293 23932 net.cpp:296] The NetState phase (1) differed from the phase (0) specified by a rule in layer cifar
I0430 18:39:42.801369 23932 net.cpp:53] Initializing net from parameters: 
name: "CIFAR"
state {
  phase: TEST
}
layer {
  name: "cifar"
  type: "Data"
  top: "data"
  top: "label"
  include {
    phase: TEST
  }
  transform_param {
    mean_file: "examples/cifar10/mean.binaryproto"
  }
  data_param {
    source: "examples/cifar10/cifar10_test_lmdb"
    batch_size: 1000
    backend: LMDB
  }
}
layer {
  name: "ip1"
  type: "InnerProduct"
  bottom: "data"
  top: "ip1"
  param {
    lr_mult: 1
  }
  param {
    lr_mult: 2
  }
  inner_product_param {
    num_output: 20
    weight_filler {
      type: "gaussian"
      std: 0.01
    }
    bias_filler {
      type: "constant"
    }
  }
}
layer {
  name: "relu1"
  type: "ReLU"
  bottom: "ip1"
  top: "ip1"
}
layer {
  name: "ip2"
  type: "InnerProduct"
  bottom: "ip1"
  top: "ip2"
  param {
    lr_mult: 1
  }
  param {
    lr_mult: 2
  }
  inner_product_param {
    num_output: 80
    weight_filler {
      type: "gaussian"
      std: 0.01
    }
    bias_filler {
      type: "constant"
    }
  }
}
layer {
  name: "relu2"
  type: "ReLU"
  bottom: "ip2"
  top: "ip2"
}
layer {
  name: "ip3"
  type: "InnerProduct"
  bottom: "ip2"
  top: "ip3"
  param {
    lr_mult: 1
  }
  param {
    lr_mult: 2
  }
  inner_product_param {
    num_output: 80
    weight_filler {
      type: "gaussian"
      std: 0.01
    }
    bias_filler {
      type: "constant"
    }
  }
}
layer {
  name: "relu3"
  type: "ReLU"
  bottom: "ip3"
  top: "ip3"
}
layer {
  name: "ip4"
  type: "InnerProduct"
  bottom: "ip3"
  top: "ip4"
  param {
    lr_mult: 1
  }
  param {
    lr_mult: 2
  }
  inner_product_param {
    num_output: 10
    weight_filler {
      type: "gaussian"
      std: 0.01
    }
    bias_filler {
      type: "constant"
    }
  }
}
layer {
  name: "accuracy"
  type: "Accuracy"
  bottom: "ip4"
  bottom: "label"
  top: "accuracy"
  include {
    phase: TEST
  }
}
layer {
  name: "loss"
  type: "SoftmaxWithLoss"
  bottom: "ip4"
  bottom: "label"
  top: "loss"
}
I0430 18:39:42.801429 23932 layer_factory.hpp:77] Creating layer cifar
I0430 18:39:42.801475 23932 db_lmdb.cpp:35] Opened lmdb examples/cifar10/cifar10_test_lmdb
I0430 18:39:42.801486 23932 net.cpp:86] Creating Layer cifar
I0430 18:39:42.801491 23932 net.cpp:382] cifar -> data
I0430 18:39:42.801498 23932 net.cpp:382] cifar -> label
I0430 18:39:42.801506 23932 data_transformer.cpp:25] Loading mean file from: examples/cifar10/mean.binaryproto
I0430 18:39:42.801657 23932 data_layer.cpp:45] output data size: 1000,3,32,32
I0430 18:39:42.823881 23932 net.cpp:124] Setting up cifar
I0430 18:39:42.823922 23932 net.cpp:131] Top shape: 1000 3 32 32 (3072000)
I0430 18:39:42.823928 23932 net.cpp:131] Top shape: 1000 (1000)
I0430 18:39:42.823931 23932 net.cpp:139] Memory required for data: 12292000
I0430 18:39:42.823938 23932 layer_factory.hpp:77] Creating layer label_cifar_1_split
I0430 18:39:42.823954 23932 net.cpp:86] Creating Layer label_cifar_1_split
I0430 18:39:42.823958 23932 net.cpp:408] label_cifar_1_split <- label
I0430 18:39:42.823981 23932 net.cpp:382] label_cifar_1_split -> label_cifar_1_split_0
I0430 18:39:42.823988 23932 net.cpp:382] label_cifar_1_split -> label_cifar_1_split_1
I0430 18:39:42.824043 23932 net.cpp:124] Setting up label_cifar_1_split
I0430 18:39:42.824049 23932 net.cpp:131] Top shape: 1000 (1000)
I0430 18:39:42.824054 23932 net.cpp:131] Top shape: 1000 (1000)
I0430 18:39:42.824055 23932 net.cpp:139] Memory required for data: 12300000
I0430 18:39:42.824059 23932 layer_factory.hpp:77] Creating layer ip1
I0430 18:39:42.824067 23932 net.cpp:86] Creating Layer ip1
I0430 18:39:42.824070 23932 net.cpp:408] ip1 <- data
I0430 18:39:42.824075 23932 net.cpp:382] ip1 -> ip1
I0430 18:39:42.826612 23932 net.cpp:124] Setting up ip1
I0430 18:39:42.826622 23932 net.cpp:131] Top shape: 1000 20 (20000)
I0430 18:39:42.826642 23932 net.cpp:139] Memory required for data: 12380000
I0430 18:39:42.826666 23932 layer_factory.hpp:77] Creating layer relu1
I0430 18:39:42.826673 23932 net.cpp:86] Creating Layer relu1
I0430 18:39:42.826676 23932 net.cpp:408] relu1 <- ip1
I0430 18:39:42.826695 23932 net.cpp:369] relu1 -> ip1 (in-place)
I0430 18:39:42.827505 23932 net.cpp:124] Setting up relu1
I0430 18:39:42.827518 23932 net.cpp:131] Top shape: 1000 20 (20000)
I0430 18:39:42.827538 23932 net.cpp:139] Memory required for data: 12460000
I0430 18:39:42.827541 23932 layer_factory.hpp:77] Creating layer ip2
I0430 18:39:42.827550 23932 net.cpp:86] Creating Layer ip2
I0430 18:39:42.827553 23932 net.cpp:408] ip2 <- ip1
I0430 18:39:42.827559 23932 net.cpp:382] ip2 -> ip2
I0430 18:39:42.827726 23932 net.cpp:124] Setting up ip2
I0430 18:39:42.827734 23932 net.cpp:131] Top shape: 1000 80 (80000)
I0430 18:39:42.827738 23932 net.cpp:139] Memory required for data: 12780000
I0430 18:39:42.827745 23932 layer_factory.hpp:77] Creating layer relu2
I0430 18:39:42.827750 23932 net.cpp:86] Creating Layer relu2
I0430 18:39:42.827754 23932 net.cpp:408] relu2 <- ip2
I0430 18:39:42.827759 23932 net.cpp:369] relu2 -> ip2 (in-place)
I0430 18:39:42.827921 23932 net.cpp:124] Setting up relu2
I0430 18:39:42.827930 23932 net.cpp:131] Top shape: 1000 80 (80000)
I0430 18:39:42.827934 23932 net.cpp:139] Memory required for data: 13100000
I0430 18:39:42.827936 23932 layer_factory.hpp:77] Creating layer ip3
I0430 18:39:42.827942 23932 net.cpp:86] Creating Layer ip3
I0430 18:39:42.827945 23932 net.cpp:408] ip3 <- ip2
I0430 18:39:42.827950 23932 net.cpp:382] ip3 -> ip3
I0430 18:39:42.828217 23932 net.cpp:124] Setting up ip3
I0430 18:39:42.828224 23932 net.cpp:131] Top shape: 1000 80 (80000)
I0430 18:39:42.828227 23932 net.cpp:139] Memory required for data: 13420000
I0430 18:39:42.828234 23932 layer_factory.hpp:77] Creating layer relu3
I0430 18:39:42.828239 23932 net.cpp:86] Creating Layer relu3
I0430 18:39:42.828243 23932 net.cpp:408] relu3 <- ip3
I0430 18:39:42.828246 23932 net.cpp:369] relu3 -> ip3 (in-place)
I0430 18:39:42.828394 23932 net.cpp:124] Setting up relu3
I0430 18:39:42.828402 23932 net.cpp:131] Top shape: 1000 80 (80000)
I0430 18:39:42.828405 23932 net.cpp:139] Memory required for data: 13740000
I0430 18:39:42.828408 23932 layer_factory.hpp:77] Creating layer ip4
I0430 18:39:42.828415 23932 net.cpp:86] Creating Layer ip4
I0430 18:39:42.828418 23932 net.cpp:408] ip4 <- ip3
I0430 18:39:42.828423 23932 net.cpp:382] ip4 -> ip4
I0430 18:39:42.828542 23932 net.cpp:124] Setting up ip4
I0430 18:39:42.828549 23932 net.cpp:131] Top shape: 1000 10 (10000)
I0430 18:39:42.828552 23932 net.cpp:139] Memory required for data: 13780000
I0430 18:39:42.828558 23932 layer_factory.hpp:77] Creating layer ip4_ip4_0_split
I0430 18:39:42.828563 23932 net.cpp:86] Creating Layer ip4_ip4_0_split
I0430 18:39:42.828567 23932 net.cpp:408] ip4_ip4_0_split <- ip4
I0430 18:39:42.828570 23932 net.cpp:382] ip4_ip4_0_split -> ip4_ip4_0_split_0
I0430 18:39:42.828593 23932 net.cpp:382] ip4_ip4_0_split -> ip4_ip4_0_split_1
I0430 18:39:42.828624 23932 net.cpp:124] Setting up ip4_ip4_0_split
I0430 18:39:42.828630 23932 net.cpp:131] Top shape: 1000 10 (10000)
I0430 18:39:42.828634 23932 net.cpp:131] Top shape: 1000 10 (10000)
I0430 18:39:42.828637 23932 net.cpp:139] Memory required for data: 13860000
I0430 18:39:42.828640 23932 layer_factory.hpp:77] Creating layer accuracy
I0430 18:39:42.828645 23932 net.cpp:86] Creating Layer accuracy
I0430 18:39:42.828649 23932 net.cpp:408] accuracy <- ip4_ip4_0_split_0
I0430 18:39:42.828654 23932 net.cpp:408] accuracy <- label_cifar_1_split_0
I0430 18:39:42.828658 23932 net.cpp:382] accuracy -> accuracy
…
