…
I0501 01:16:20.085005  9882 net.cpp:296] The NetState phase (0) differed from the phase (1) specified by a rule in layer cifar
I0501 01:16:20.085023  9882 net.cpp:296] The NetState phase (0) differed from the phase (1) specified by a rule in layer accuracy
I0501 01:16:20.085120  9882 net.cpp:53] Initializing net from parameters: 
name: "CIFAR"
state {
  phase: TRAIN
  level: 0
  stage: ""
}
layer {
  name: "cifar"
  type: "Data"
  top: "data"
  top: "label"
  include {
    phase: TRAIN
  }
  transform_param {
    mean_file: "examples/cifar10/mean.binaryproto"
  }
  data_param {
    source: "examples/cifar10/cifar10_train_lmdb"
    batch_size: 111
    backend: LMDB
  }
}
layer {
  name: "conv0"
  type: "Convolution"
  bottom: "data"
  top: "conv0"
  param {
    lr_mult: 1
  }
  param {
    lr_mult: 2
  }
  convolution_param {
    num_output: 8
    pad: 2
    kernel_size: 3
    stride: 1
    weight_filler {
      type: "gaussian"
      std: 0.01
    }
    bias_filler {
      type: "constant"
    }
  }
}
layer {
  name: "Sigmoid0"
  type: "Sigmoid"
  bottom: "conv0"
  top: "Sigmoid0"
}
layer {
  name: "pool0"
  type: "Pooling"
  bottom: "Sigmoid0"
  top: "pool0"
  pooling_param {
    pool: AVE
    kernel_size: 3
    stride: 2
  }
}
layer {
  name: "ip1"
  type: "InnerProduct"
  bottom: "pool0"
  top: "ip1"
  param {
    lr_mult: 1
  }
  param {
    lr_mult: 2
  }
  inner_product_param {
    num_output: 80
    weight_filler {
      type: "gaussian"
      std: 0.01
    }
    bias_filler {
      type: "constant"
    }
  }
}
layer {
  name: "relu1"
  type: "ReLU"
  bottom: "ip1"
  top: "ip1"
}
layer {
  name: "ip2"
  type: "InnerProduct"
  bottom: "ip1"
  top: "ip2"
  param {
    lr_mult: 1
  }
  param {
    lr_mult: 2
  }
  inner_product_param {
    num_output: 160
    weight_filler {
      type: "gaussian"
      std: 0.01
    }
    bias_filler {
      type: "constant"
    }
  }
}
layer {
  name: "relu2"
  type: "ReLU"
  bottom: "ip2"
  top: "ip2"
}
layer {
  name: "ip3"
  type: "InnerProduct"
  bottom: "ip2"
  top: "ip3"
  param {
    lr_mult: 1
  }
  param {
    lr_mult: 2
  }
  inner_product_param {
    num_output: 160
    weight_filler {
      type: "gaussian"
      std: 0.01
    }
    bias_filler {
      type: "constant"
    }
  }
}
layer {
  name: "relu3"
  type: "ReLU"
  bottom: "ip3"
  top: "ip3"
}
layer {
  name: "ip4"
  type: "InnerProduct"
  bottom: "ip3"
  top: "ip4"
  param {
    lr_mult: 1
  }
  param {
    lr_mult: 2
  }
  inner_product_param {
    num_output: 10
    weight_filler {
      type: "gaussian"
      std: 0.01
    }
    bias_filler {
      type: "constant"
    }
  }
}
layer {
  name: "loss"
  type: "SoftmaxWithLoss"
  bottom: "ip4"
  bottom: "label"
  top: "loss"
}
I0501 01:16:20.085193  9882 layer_factory.hpp:77] Creating layer cifar
I0501 01:16:20.085283  9882 db_lmdb.cpp:35] Opened lmdb examples/cifar10/cifar10_train_lmdb
I0501 01:16:20.085307  9882 net.cpp:86] Creating Layer cifar
I0501 01:16:20.085314  9882 net.cpp:382] cifar -> data
I0501 01:16:20.085345  9882 net.cpp:382] cifar -> label
I0501 01:16:20.085360  9882 data_transformer.cpp:25] Loading mean file from: examples/cifar10/mean.binaryproto
I0501 01:16:20.087254  9882 data_layer.cpp:45] output data size: 111,3,32,32
I0501 01:16:20.094436  9882 net.cpp:124] Setting up cifar
I0501 01:16:20.094455  9882 net.cpp:131] Top shape: 111 3 32 32 (340992)
I0501 01:16:20.094460  9882 net.cpp:131] Top shape: 111 (111)
I0501 01:16:20.094462  9882 net.cpp:139] Memory required for data: 1364412
I0501 01:16:20.094482  9882 layer_factory.hpp:77] Creating layer conv0
I0501 01:16:20.094502  9882 net.cpp:86] Creating Layer conv0
I0501 01:16:20.094507  9882 net.cpp:408] conv0 <- data
I0501 01:16:20.094518  9882 net.cpp:382] conv0 -> conv0
I0501 01:16:20.330772  9882 net.cpp:124] Setting up conv0
I0501 01:16:20.330813  9882 net.cpp:131] Top shape: 111 8 34 34 (1026528)
I0501 01:16:20.330817  9882 net.cpp:139] Memory required for data: 5470524
I0501 01:16:20.330832  9882 layer_factory.hpp:77] Creating layer Sigmoid0
I0501 01:16:20.330843  9882 net.cpp:86] Creating Layer Sigmoid0
I0501 01:16:20.330847  9882 net.cpp:408] Sigmoid0 <- conv0
I0501 01:16:20.330852  9882 net.cpp:382] Sigmoid0 -> Sigmoid0
I0501 01:16:20.331050  9882 net.cpp:124] Setting up Sigmoid0
I0501 01:16:20.331059  9882 net.cpp:131] Top shape: 111 8 34 34 (1026528)
I0501 01:16:20.331063  9882 net.cpp:139] Memory required for data: 9576636
I0501 01:16:20.331066  9882 layer_factory.hpp:77] Creating layer pool0
I0501 01:16:20.331073  9882 net.cpp:86] Creating Layer pool0
I0501 01:16:20.331075  9882 net.cpp:408] pool0 <- Sigmoid0
I0501 01:16:20.331080  9882 net.cpp:382] pool0 -> pool0
I0501 01:16:20.331827  9882 net.cpp:124] Setting up pool0
I0501 01:16:20.331840  9882 net.cpp:131] Top shape: 111 8 17 17 (256632)
I0501 01:16:20.331858  9882 net.cpp:139] Memory required for data: 10603164
I0501 01:16:20.331861  9882 layer_factory.hpp:77] Creating layer ip1
I0501 01:16:20.331871  9882 net.cpp:86] Creating Layer ip1
I0501 01:16:20.331874  9882 net.cpp:408] ip1 <- pool0
I0501 01:16:20.331882  9882 net.cpp:382] ip1 -> ip1
I0501 01:16:20.337759  9882 net.cpp:124] Setting up ip1
I0501 01:16:20.337770  9882 net.cpp:131] Top shape: 111 80 (8880)
I0501 01:16:20.337790  9882 net.cpp:139] Memory required for data: 10638684
I0501 01:16:20.337797  9882 layer_factory.hpp:77] Creating layer relu1
I0501 01:16:20.337802  9882 net.cpp:86] Creating Layer relu1
I0501 01:16:20.337806  9882 net.cpp:408] relu1 <- ip1
I0501 01:16:20.337812  9882 net.cpp:369] relu1 -> ip1 (in-place)
I0501 01:16:20.337983  9882 net.cpp:124] Setting up relu1
I0501 01:16:20.337992  9882 net.cpp:131] Top shape: 111 80 (8880)
I0501 01:16:20.337996  9882 net.cpp:139] Memory required for data: 10674204
I0501 01:16:20.337997  9882 layer_factory.hpp:77] Creating layer ip2
I0501 01:16:20.338006  9882 net.cpp:86] Creating Layer ip2
I0501 01:16:20.338008  9882 net.cpp:408] ip2 <- ip1
I0501 01:16:20.338013  9882 net.cpp:382] ip2 -> ip2
I0501 01:16:20.339299  9882 net.cpp:124] Setting up ip2
I0501 01:16:20.339310  9882 net.cpp:131] Top shape: 111 160 (17760)
I0501 01:16:20.339329  9882 net.cpp:139] Memory required for data: 10745244
I0501 01:16:20.339336  9882 layer_factory.hpp:77] Creating layer relu2
I0501 01:16:20.339344  9882 net.cpp:86] Creating Layer relu2
I0501 01:16:20.339362  9882 net.cpp:408] relu2 <- ip2
I0501 01:16:20.339366  9882 net.cpp:369] relu2 -> ip2 (in-place)
I0501 01:16:20.339550  9882 net.cpp:124] Setting up relu2
I0501 01:16:20.339558  9882 net.cpp:131] Top shape: 111 160 (17760)
I0501 01:16:20.339561  9882 net.cpp:139] Memory required for data: 10816284
I0501 01:16:20.339565  9882 layer_factory.hpp:77] Creating layer ip3
I0501 01:16:20.339573  9882 net.cpp:86] Creating Layer ip3
I0501 01:16:20.339576  9882 net.cpp:408] ip3 <- ip2
I0501 01:16:20.339582  9882 net.cpp:382] ip3 -> ip3
I0501 01:16:20.341272  9882 net.cpp:124] Setting up ip3
I0501 01:16:20.341300  9882 net.cpp:131] Top shape: 111 160 (17760)
I0501 01:16:20.341303  9882 net.cpp:139] Memory required for data: 10887324
I0501 01:16:20.341310  9882 layer_factory.hpp:77] Creating layer relu3
I0501 01:16:20.341315  9882 net.cpp:86] Creating Layer relu3
I0501 01:16:20.341317  9882 net.cpp:408] relu3 <- ip3
I0501 01:16:20.341321  9882 net.cpp:369] relu3 -> ip3 (in-place)
I0501 01:16:20.341498  9882 net.cpp:124] Setting up relu3
I0501 01:16:20.341508  9882 net.cpp:131] Top shape: 111 160 (17760)
I0501 01:16:20.341511  9882 net.cpp:139] Memory required for data: 10958364
I0501 01:16:20.341514  9882 layer_factory.hpp:77] Creating layer ip4
I0501 01:16:20.341533  9882 net.cpp:86] Creating Layer ip4
I0501 01:16:20.341536  9882 net.cpp:408] ip4 <- ip3
I0501 01:16:20.341558  9882 net.cpp:382] ip4 -> ip4
I0501 01:16:20.341707  9882 net.cpp:124] Setting up ip4
I0501 01:16:20.341714  9882 net.cpp:131] Top shape: 111 10 (1110)
I0501 01:16:20.341717  9882 net.cpp:139] Memory required for data: 10962804
I0501 01:16:20.341725  9882 layer_factory.hpp:77] Creating layer loss
I0501 01:16:20.341730  9882 net.cpp:86] Creating Layer loss
I0501 01:16:20.341733  9882 net.cpp:408] loss <- ip4
I0501 01:16:20.341737  9882 net.cpp:408] loss <- label
I0501 01:16:20.341743  9882 net.cpp:382] loss -> loss
I0501 01:16:20.341756  9882 layer_factory.hpp:77] Creating layer loss
…
I0501 01:16:20.343014  9882 solver.cpp:173] Creating test net (#0) specified by net file: ECE595/cifar/train_test/var_everything/cifar_train_test_284.prototxt
I0501 01:16:20.343040  9882 net.cpp:296] The NetState phase (1) differed from the phase (0) specified by a rule in layer cifar
I0501 01:16:20.343135  9882 net.cpp:53] Initializing net from parameters: 
name: "CIFAR"
state {
  phase: TEST
}
layer {
  name: "cifar"
  type: "Data"
  top: "data"
  top: "label"
  include {
    phase: TEST
  }
  transform_param {
    mean_file: "examples/cifar10/mean.binaryproto"
  }
  data_param {
    source: "examples/cifar10/cifar10_test_lmdb"
    batch_size: 1000
    backend: LMDB
  }
}
layer {
  name: "conv0"
  type: "Convolution"
  bottom: "data"
  top: "conv0"
  param {
    lr_mult: 1
  }
  param {
    lr_mult: 2
  }
  convolution_param {
    num_output: 8
    pad: 2
    kernel_size: 3
    stride: 1
    weight_filler {
      type: "gaussian"
      std: 0.01
    }
    bias_filler {
      type: "constant"
    }
  }
}
layer {
  name: "Sigmoid0"
  type: "Sigmoid"
  bottom: "conv0"
  top: "Sigmoid0"
}
layer {
  name: "pool0"
  type: "Pooling"
  bottom: "Sigmoid0"
  top: "pool0"
  pooling_param {
    pool: AVE
    kernel_size: 3
    stride: 2
  }
}
layer {
  name: "ip1"
  type: "InnerProduct"
  bottom: "pool0"
  top: "ip1"
  param {
    lr_mult: 1
  }
  param {
    lr_mult: 2
  }
  inner_product_param {
    num_output: 80
    weight_filler {
      type: "gaussian"
      std: 0.01
    }
    bias_filler {
      type: "constant"
    }
  }
}
layer {
  name: "relu1"
  type: "ReLU"
  bottom: "ip1"
  top: "ip1"
}
layer {
  name: "ip2"
  type: "InnerProduct"
  bottom: "ip1"
  top: "ip2"
  param {
    lr_mult: 1
  }
  param {
    lr_mult: 2
  }
  inner_product_param {
    num_output: 160
    weight_filler {
      type: "gaussian"
      std: 0.01
    }
    bias_filler {
      type: "constant"
    }
  }
}
layer {
  name: "relu2"
  type: "ReLU"
  bottom: "ip2"
  top: "ip2"
}
layer {
  name: "ip3"
  type: "InnerProduct"
  bottom: "ip2"
  top: "ip3"
  param {
    lr_mult: 1
  }
  param {
    lr_mult: 2
  }
  inner_product_param {
    num_output: 160
    weight_filler {
      type: "gaussian"
      std: 0.01
    }
    bias_filler {
      type: "constant"
    }
  }
}
layer {
  name: "relu3"
  type: "ReLU"
  bottom: "ip3"
  top: "ip3"
}
layer {
  name: "ip4"
  type: "InnerProduct"
  bottom: "ip3"
  top: "ip4"
  param {
    lr_mult: 1
  }
  param {
    lr_mult: 2
  }
  inner_product_param {
    num_output: 10
    weight_filler {
      type: "gaussian"
      std: 0.01
    }
    bias_filler {
      type: "constant"
    }
  }
}
layer {
  name: "accuracy"
  type: "Accuracy"
  bottom: "ip4"
  bottom: "label"
  top: "accuracy"
  include {
    phase: TEST
  }
}
layer {
  name: "loss"
  type: "SoftmaxWithLoss"
  bottom: "ip4"
  bottom: "label"
  top: "loss"
}
I0501 01:16:20.343216  9882 layer_factory.hpp:77] Creating layer cifar
I0501 01:16:20.343260  9882 db_lmdb.cpp:35] Opened lmdb examples/cifar10/cifar10_test_lmdb
I0501 01:16:20.343272  9882 net.cpp:86] Creating Layer cifar
I0501 01:16:20.343276  9882 net.cpp:382] cifar -> data
I0501 01:16:20.343283  9882 net.cpp:382] cifar -> label
I0501 01:16:20.343289  9882 data_transformer.cpp:25] Loading mean file from: examples/cifar10/mean.binaryproto
I0501 01:16:20.343446  9882 data_layer.cpp:45] output data size: 1000,3,32,32
I0501 01:16:20.366533  9882 net.cpp:124] Setting up cifar
I0501 01:16:20.366575  9882 net.cpp:131] Top shape: 1000 3 32 32 (3072000)
I0501 01:16:20.366580  9882 net.cpp:131] Top shape: 1000 (1000)
I0501 01:16:20.366582  9882 net.cpp:139] Memory required for data: 12292000
I0501 01:16:20.366588  9882 layer_factory.hpp:77] Creating layer label_cifar_1_split
I0501 01:16:20.366600  9882 net.cpp:86] Creating Layer label_cifar_1_split
I0501 01:16:20.366603  9882 net.cpp:408] label_cifar_1_split <- label
I0501 01:16:20.366611  9882 net.cpp:382] label_cifar_1_split -> label_cifar_1_split_0
I0501 01:16:20.366634  9882 net.cpp:382] label_cifar_1_split -> label_cifar_1_split_1
I0501 01:16:20.366727  9882 net.cpp:124] Setting up label_cifar_1_split
I0501 01:16:20.366736  9882 net.cpp:131] Top shape: 1000 (1000)
I0501 01:16:20.366740  9882 net.cpp:131] Top shape: 1000 (1000)
I0501 01:16:20.366744  9882 net.cpp:139] Memory required for data: 12300000
I0501 01:16:20.366746  9882 layer_factory.hpp:77] Creating layer conv0
I0501 01:16:20.366758  9882 net.cpp:86] Creating Layer conv0
I0501 01:16:20.366762  9882 net.cpp:408] conv0 <- data
I0501 01:16:20.366767  9882 net.cpp:382] conv0 -> conv0
I0501 01:16:20.369293  9882 net.cpp:124] Setting up conv0
I0501 01:16:20.369338  9882 net.cpp:131] Top shape: 1000 8 34 34 (9248000)
I0501 01:16:20.369340  9882 net.cpp:139] Memory required for data: 49292000
I0501 01:16:20.369366  9882 layer_factory.hpp:77] Creating layer Sigmoid0
I0501 01:16:20.369372  9882 net.cpp:86] Creating Layer Sigmoid0
I0501 01:16:20.369377  9882 net.cpp:408] Sigmoid0 <- conv0
I0501 01:16:20.369384  9882 net.cpp:382] Sigmoid0 -> Sigmoid0
I0501 01:16:20.369593  9882 net.cpp:124] Setting up Sigmoid0
I0501 01:16:20.369603  9882 net.cpp:131] Top shape: 1000 8 34 34 (9248000)
I0501 01:16:20.369606  9882 net.cpp:139] Memory required for data: 86284000
I0501 01:16:20.369609  9882 layer_factory.hpp:77] Creating layer pool0
I0501 01:16:20.369618  9882 net.cpp:86] Creating Layer pool0
I0501 01:16:20.369621  9882 net.cpp:408] pool0 <- Sigmoid0
I0501 01:16:20.369626  9882 net.cpp:382] pool0 -> pool0
I0501 01:16:20.369813  9882 net.cpp:124] Setting up pool0
I0501 01:16:20.369822  9882 net.cpp:131] Top shape: 1000 8 17 17 (2312000)
I0501 01:16:20.369825  9882 net.cpp:139] Memory required for data: 95532000
I0501 01:16:20.369828  9882 layer_factory.hpp:77] Creating layer ip1
I0501 01:16:20.369837  9882 net.cpp:86] Creating Layer ip1
I0501 01:16:20.369844  9882 net.cpp:408] ip1 <- pool0
I0501 01:16:20.369851  9882 net.cpp:382] ip1 -> ip1
I0501 01:16:20.375000  9882 net.cpp:124] Setting up ip1
I0501 01:16:20.375010  9882 net.cpp:131] Top shape: 1000 80 (80000)
I0501 01:16:20.375028  9882 net.cpp:139] Memory required for data: 95852000
I0501 01:16:20.375049  9882 layer_factory.hpp:77] Creating layer relu1
I0501 01:16:20.375056  9882 net.cpp:86] Creating Layer relu1
I0501 01:16:20.375058  9882 net.cpp:408] relu1 <- ip1
I0501 01:16:20.375087  9882 net.cpp:369] relu1 -> ip1 (in-place)
I0501 01:16:20.375253  9882 net.cpp:124] Setting up relu1
I0501 01:16:20.375264  9882 net.cpp:131] Top shape: 1000 80 (80000)
I0501 01:16:20.375268  9882 net.cpp:139] Memory required for data: 96172000
I0501 01:16:20.375272  9882 layer_factory.hpp:77] Creating layer ip2
I0501 01:16:20.375277  9882 net.cpp:86] Creating Layer ip2
I0501 01:16:20.375280  9882 net.cpp:408] ip2 <- ip1
I0501 01:16:20.375286  9882 net.cpp:382] ip2 -> ip2
I0501 01:16:20.375778  9882 net.cpp:124] Setting up ip2
I0501 01:16:20.375787  9882 net.cpp:131] Top shape: 1000 160 (160000)
I0501 01:16:20.375804  9882 net.cpp:139] Memory required for data: 96812000
I0501 01:16:20.375813  9882 layer_factory.hpp:77] Creating layer relu2
I0501 01:16:20.375819  9882 net.cpp:86] Creating Layer relu2
I0501 01:16:20.375823  9882 net.cpp:408] relu2 <- ip2
I0501 01:16:20.375826  9882 net.cpp:369] relu2 -> ip2 (in-place)
I0501 01:16:20.376615  9882 net.cpp:124] Setting up relu2
I0501 01:16:20.376626  9882 net.cpp:131] Top shape: 1000 160 (160000)
I0501 01:16:20.376644  9882 net.cpp:139] Memory required for data: 97452000
I0501 01:16:20.376647  9882 layer_factory.hpp:77] Creating layer ip3
I0501 01:16:20.376654  9882 net.cpp:86] Creating Layer ip3
I0501 01:16:20.376657  9882 net.cpp:408] ip3 <- ip2
I0501 01:16:20.376678  9882 net.cpp:382] ip3 -> ip3
I0501 01:16:20.377554  9882 net.cpp:124] Setting up ip3
I0501 01:16:20.377562  9882 net.cpp:131] Top shape: 1000 160 (160000)
I0501 01:16:20.377564  9882 net.cpp:139] Memory required for data: 98092000
I0501 01:16:20.377589  9882 layer_factory.hpp:77] Creating layer relu3
I0501 01:16:20.377595  9882 net.cpp:86] Creating Layer relu3
I0501 01:16:20.377599  9882 net.cpp:408] relu3 <- ip3
I0501 01:16:20.377602  9882 net.cpp:369] relu3 -> ip3 (in-place)
I0501 01:16:20.377789  9882 net.cpp:124] Setting up relu3
I0501 01:16:20.377799  9882 net.cpp:131] Top shape: 1000 160 (160000)
I0501 01:16:20.377801  9882 net.cpp:139] Memory required for data: 98732000
I0501 01:16:20.377804  9882 layer_factory.hpp:77] Creating layer ip4
I0501 01:16:20.377811  9882 net.cpp:86] Creating Layer ip4
I0501 01:16:20.377816  9882 net.cpp:408] ip4 <- ip3
I0501 01:16:20.377821  9882 net.cpp:382] ip4 -> ip4
I0501 01:16:20.377977  9882 net.cpp:124] Setting up ip4
I0501 01:16:20.377985  9882 net.cpp:131] Top shape: 1000 10 (10000)
I0501 01:16:20.377988  9882 net.cpp:139] Memory required for data: 98772000
I0501 01:16:20.377995  9882 layer_factory.hpp:77] Creating layer ip4_ip4_0_split
I0501 01:16:20.378000  9882 net.cpp:86] Creating Layer ip4_ip4_0_split
I0501 01:16:20.378003  9882 net.cpp:408] ip4_ip4_0_split <- ip4
I0501 01:16:20.378007  9882 net.cpp:382] ip4_ip4_0_split -> ip4_ip4_0_split_0
I0501 01:16:20.378015  9882 net.cpp:382] ip4_ip4_0_split -> ip4_ip4_0_split_1
I0501 01:16:20.378049  9882 net.cpp:124] Setting up ip4_ip4_0_split
I0501 01:16:20.378057  9882 net.cpp:131] Top shape: 1000 10 (10000)
I0501 01:16:20.378060  9882 net.cpp:131] Top shape: 1000 10 (10000)
I0501 01:16:20.378062  9882 net.cpp:139] Memory required for data: 98852000
I0501 01:16:20.378065  9882 layer_factory.hpp:77] Creating layer accuracy
I0501 01:16:20.378072  9882 net.cpp:86] Creating Layer accuracy
I0501 01:16:20.378075  9882 net.cpp:408] accuracy <- ip4_ip4_0_split_0
I0501 01:16:20.378080  9882 net.cpp:408] accuracy <- label_cifar_1_split_0
I0501 01:16:20.378084  9882 net.cpp:382] accuracy -> accuracy
…
