…
I0430 16:30:40.210551 17587 net.cpp:296] The NetState phase (0) differed from the phase (1) specified by a rule in layer cifar
I0430 16:30:40.210566 17587 net.cpp:296] The NetState phase (0) differed from the phase (1) specified by a rule in layer accuracy
I0430 16:30:40.210640 17587 net.cpp:53] Initializing net from parameters: 
name: "CIFAR"
state {
  phase: TRAIN
  level: 0
  stage: ""
}
layer {
  name: "cifar"
  type: "Data"
  top: "data"
  top: "label"
  include {
    phase: TRAIN
  }
  transform_param {
    mean_file: "examples/cifar10/mean.binaryproto"
  }
  data_param {
    source: "examples/cifar10/cifar10_train_lmdb"
    batch_size: 111
    backend: LMDB
  }
}
layer {
  name: "ip1"
  type: "InnerProduct"
  bottom: "data"
  top: "ip1"
  param {
    lr_mult: 1
  }
  param {
    lr_mult: 2
  }
  inner_product_param {
    num_output: 10
    weight_filler {
      type: "gaussian"
      std: 0.01
    }
    bias_filler {
      type: "constant"
    }
  }
}
layer {
  name: "relu1"
  type: "ReLU"
  bottom: "ip1"
  top: "ip1"
}
layer {
  name: "ip2"
  type: "InnerProduct"
  bottom: "ip1"
  top: "ip2"
  param {
    lr_mult: 1
  }
  param {
    lr_mult: 2
  }
  inner_product_param {
    num_output: 10
    weight_filler {
      type: "gaussian"
      std: 0.01
    }
    bias_filler {
      type: "constant"
    }
  }
}
layer {
  name: "relu2"
  type: "ReLU"
  bottom: "ip2"
  top: "ip2"
}
layer {
  name: "ip3"
  type: "InnerProduct"
  bottom: "ip2"
  top: "ip3"
  param {
    lr_mult: 1
  }
  param {
    lr_mult: 2
  }
  inner_product_param {
    num_output: 10
    weight_filler {
      type: "gaussian"
      std: 0.01
    }
    bias_filler {
      type: "constant"
    }
  }
}
layer {
  name: "loss"
  type: "SoftmaxWithLoss"
  bottom: "ip3"
  bottom: "label"
  top: "loss"
}
I0430 16:30:40.210707 17587 layer_factory.hpp:77] Creating layer cifar
I0430 16:30:40.210805 17587 db_lmdb.cpp:35] Opened lmdb examples/cifar10/cifar10_train_lmdb
I0430 16:30:40.210831 17587 net.cpp:86] Creating Layer cifar
I0430 16:30:40.210840 17587 net.cpp:382] cifar -> data
I0430 16:30:40.210862 17587 net.cpp:382] cifar -> label
I0430 16:30:40.210875 17587 data_transformer.cpp:25] Loading mean file from: examples/cifar10/mean.binaryproto
I0430 16:30:40.212975 17587 data_layer.cpp:45] output data size: 111,3,32,32
I0430 16:30:40.223400 17587 net.cpp:124] Setting up cifar
I0430 16:30:40.223433 17587 net.cpp:131] Top shape: 111 3 32 32 (340992)
I0430 16:30:40.223446 17587 net.cpp:131] Top shape: 111 (111)
I0430 16:30:40.223453 17587 net.cpp:139] Memory required for data: 1364412
I0430 16:30:40.223465 17587 layer_factory.hpp:77] Creating layer ip1
I0430 16:30:40.223484 17587 net.cpp:86] Creating Layer ip1
I0430 16:30:40.223493 17587 net.cpp:408] ip1 <- data
I0430 16:30:40.223511 17587 net.cpp:382] ip1 -> ip1
I0430 16:30:40.227262 17587 net.cpp:124] Setting up ip1
I0430 16:30:40.227288 17587 net.cpp:131] Top shape: 111 10 (1110)
I0430 16:30:40.227295 17587 net.cpp:139] Memory required for data: 1368852
I0430 16:30:40.227321 17587 layer_factory.hpp:77] Creating layer relu1
I0430 16:30:40.227339 17587 net.cpp:86] Creating Layer relu1
I0430 16:30:40.227346 17587 net.cpp:408] relu1 <- ip1
I0430 16:30:40.227356 17587 net.cpp:369] relu1 -> ip1 (in-place)
I0430 16:30:40.538718 17587 net.cpp:124] Setting up relu1
I0430 16:30:40.538753 17587 net.cpp:131] Top shape: 111 10 (1110)
I0430 16:30:40.538758 17587 net.cpp:139] Memory required for data: 1373292
I0430 16:30:40.538784 17587 layer_factory.hpp:77] Creating layer ip2
I0430 16:30:40.538799 17587 net.cpp:86] Creating Layer ip2
I0430 16:30:40.538805 17587 net.cpp:408] ip2 <- ip1
I0430 16:30:40.538813 17587 net.cpp:382] ip2 -> ip2
I0430 16:30:40.538959 17587 net.cpp:124] Setting up ip2
I0430 16:30:40.538969 17587 net.cpp:131] Top shape: 111 10 (1110)
I0430 16:30:40.538972 17587 net.cpp:139] Memory required for data: 1377732
I0430 16:30:40.538983 17587 layer_factory.hpp:77] Creating layer relu2
I0430 16:30:40.538992 17587 net.cpp:86] Creating Layer relu2
I0430 16:30:40.538996 17587 net.cpp:408] relu2 <- ip2
I0430 16:30:40.539001 17587 net.cpp:369] relu2 -> ip2 (in-place)
I0430 16:30:40.539901 17587 net.cpp:124] Setting up relu2
I0430 16:30:40.539916 17587 net.cpp:131] Top shape: 111 10 (1110)
I0430 16:30:40.539919 17587 net.cpp:139] Memory required for data: 1382172
I0430 16:30:40.539923 17587 layer_factory.hpp:77] Creating layer ip3
I0430 16:30:40.539932 17587 net.cpp:86] Creating Layer ip3
I0430 16:30:40.539937 17587 net.cpp:408] ip3 <- ip2
I0430 16:30:40.539942 17587 net.cpp:382] ip3 -> ip3
I0430 16:30:40.540060 17587 net.cpp:124] Setting up ip3
I0430 16:30:40.540069 17587 net.cpp:131] Top shape: 111 10 (1110)
I0430 16:30:40.540073 17587 net.cpp:139] Memory required for data: 1386612
I0430 16:30:40.540082 17587 layer_factory.hpp:77] Creating layer loss
I0430 16:30:40.540096 17587 net.cpp:86] Creating Layer loss
I0430 16:30:40.540099 17587 net.cpp:408] loss <- ip3
I0430 16:30:40.540104 17587 net.cpp:408] loss <- label
I0430 16:30:40.540110 17587 net.cpp:382] loss -> loss
I0430 16:30:40.540127 17587 layer_factory.hpp:77] Creating layer loss
…
I0430 16:30:40.540745 17587 solver.cpp:173] Creating test net (#0) specified by net file: ECE595/cifar/train_test/var_everything/cifar_train_test_5.prototxt
I0430 16:30:40.540772 17587 net.cpp:296] The NetState phase (1) differed from the phase (0) specified by a rule in layer cifar
I0430 16:30:40.540863 17587 net.cpp:53] Initializing net from parameters: 
name: "CIFAR"
state {
  phase: TEST
}
layer {
  name: "cifar"
  type: "Data"
  top: "data"
  top: "label"
  include {
    phase: TEST
  }
  transform_param {
    mean_file: "examples/cifar10/mean.binaryproto"
  }
  data_param {
    source: "examples/cifar10/cifar10_test_lmdb"
    batch_size: 1000
    backend: LMDB
  }
}
layer {
  name: "ip1"
  type: "InnerProduct"
  bottom: "data"
  top: "ip1"
  param {
    lr_mult: 1
  }
  param {
    lr_mult: 2
  }
  inner_product_param {
    num_output: 10
    weight_filler {
      type: "gaussian"
      std: 0.01
    }
    bias_filler {
      type: "constant"
    }
  }
}
layer {
  name: "relu1"
  type: "ReLU"
  bottom: "ip1"
  top: "ip1"
}
layer {
  name: "ip2"
  type: "InnerProduct"
  bottom: "ip1"
  top: "ip2"
  param {
    lr_mult: 1
  }
  param {
    lr_mult: 2
  }
  inner_product_param {
    num_output: 10
    weight_filler {
      type: "gaussian"
      std: 0.01
    }
    bias_filler {
      type: "constant"
    }
  }
}
layer {
  name: "relu2"
  type: "ReLU"
  bottom: "ip2"
  top: "ip2"
}
layer {
  name: "ip3"
  type: "InnerProduct"
  bottom: "ip2"
  top: "ip3"
  param {
    lr_mult: 1
  }
  param {
    lr_mult: 2
  }
  inner_product_param {
    num_output: 10
    weight_filler {
      type: "gaussian"
      std: 0.01
    }
    bias_filler {
      type: "constant"
    }
  }
}
layer {
  name: "accuracy"
  type: "Accuracy"
  bottom: "ip3"
  bottom: "label"
  top: "accuracy"
  include {
    phase: TEST
  }
}
layer {
  name: "loss"
  type: "SoftmaxWithLoss"
  bottom: "ip3"
  bottom: "label"
  top: "loss"
}
I0430 16:30:40.540946 17587 layer_factory.hpp:77] Creating layer cifar
I0430 16:30:40.540999 17587 db_lmdb.cpp:35] Opened lmdb examples/cifar10/cifar10_test_lmdb
I0430 16:30:40.541014 17587 net.cpp:86] Creating Layer cifar
I0430 16:30:40.541019 17587 net.cpp:382] cifar -> data
I0430 16:30:40.541029 17587 net.cpp:382] cifar -> label
I0430 16:30:40.541036 17587 data_transformer.cpp:25] Loading mean file from: examples/cifar10/mean.binaryproto
I0430 16:30:40.541221 17587 data_layer.cpp:45] output data size: 1000,3,32,32
I0430 16:30:40.567749 17587 net.cpp:124] Setting up cifar
I0430 16:30:40.567780 17587 net.cpp:131] Top shape: 1000 3 32 32 (3072000)
I0430 16:30:40.567787 17587 net.cpp:131] Top shape: 1000 (1000)
I0430 16:30:40.567790 17587 net.cpp:139] Memory required for data: 12292000
I0430 16:30:40.567796 17587 layer_factory.hpp:77] Creating layer label_cifar_1_split
I0430 16:30:40.567818 17587 net.cpp:86] Creating Layer label_cifar_1_split
I0430 16:30:40.567823 17587 net.cpp:408] label_cifar_1_split <- label
I0430 16:30:40.567831 17587 net.cpp:382] label_cifar_1_split -> label_cifar_1_split_0
I0430 16:30:40.567842 17587 net.cpp:382] label_cifar_1_split -> label_cifar_1_split_1
I0430 16:30:40.567956 17587 net.cpp:124] Setting up label_cifar_1_split
I0430 16:30:40.567966 17587 net.cpp:131] Top shape: 1000 (1000)
I0430 16:30:40.567970 17587 net.cpp:131] Top shape: 1000 (1000)
I0430 16:30:40.567975 17587 net.cpp:139] Memory required for data: 12300000
I0430 16:30:40.567977 17587 layer_factory.hpp:77] Creating layer ip1
I0430 16:30:40.567989 17587 net.cpp:86] Creating Layer ip1
I0430 16:30:40.567993 17587 net.cpp:408] ip1 <- data
I0430 16:30:40.567999 17587 net.cpp:382] ip1 -> ip1
I0430 16:30:40.569185 17587 net.cpp:124] Setting up ip1
I0430 16:30:40.569196 17587 net.cpp:131] Top shape: 1000 10 (10000)
I0430 16:30:40.569200 17587 net.cpp:139] Memory required for data: 12340000
I0430 16:30:40.569211 17587 layer_factory.hpp:77] Creating layer relu1
I0430 16:30:40.569218 17587 net.cpp:86] Creating Layer relu1
I0430 16:30:40.569222 17587 net.cpp:408] relu1 <- ip1
I0430 16:30:40.569228 17587 net.cpp:369] relu1 -> ip1 (in-place)
I0430 16:30:40.569541 17587 net.cpp:124] Setting up relu1
I0430 16:30:40.569552 17587 net.cpp:131] Top shape: 1000 10 (10000)
I0430 16:30:40.569557 17587 net.cpp:139] Memory required for data: 12380000
I0430 16:30:40.569561 17587 layer_factory.hpp:77] Creating layer ip2
I0430 16:30:40.569571 17587 net.cpp:86] Creating Layer ip2
I0430 16:30:40.569574 17587 net.cpp:408] ip2 <- ip1
I0430 16:30:40.569581 17587 net.cpp:382] ip2 -> ip2
I0430 16:30:40.570665 17587 net.cpp:124] Setting up ip2
I0430 16:30:40.570677 17587 net.cpp:131] Top shape: 1000 10 (10000)
I0430 16:30:40.570679 17587 net.cpp:139] Memory required for data: 12420000
I0430 16:30:40.570689 17587 layer_factory.hpp:77] Creating layer relu2
I0430 16:30:40.570696 17587 net.cpp:86] Creating Layer relu2
I0430 16:30:40.570699 17587 net.cpp:408] relu2 <- ip2
I0430 16:30:40.570704 17587 net.cpp:369] relu2 -> ip2 (in-place)
I0430 16:30:40.571619 17587 net.cpp:124] Setting up relu2
I0430 16:30:40.571635 17587 net.cpp:131] Top shape: 1000 10 (10000)
I0430 16:30:40.571638 17587 net.cpp:139] Memory required for data: 12460000
I0430 16:30:40.571642 17587 layer_factory.hpp:77] Creating layer ip3
I0430 16:30:40.571650 17587 net.cpp:86] Creating Layer ip3
I0430 16:30:40.571656 17587 net.cpp:408] ip3 <- ip2
I0430 16:30:40.571662 17587 net.cpp:382] ip3 -> ip3
I0430 16:30:40.571795 17587 net.cpp:124] Setting up ip3
I0430 16:30:40.571804 17587 net.cpp:131] Top shape: 1000 10 (10000)
I0430 16:30:40.571807 17587 net.cpp:139] Memory required for data: 12500000
I0430 16:30:40.571833 17587 layer_factory.hpp:77] Creating layer ip3_ip3_0_split
I0430 16:30:40.571841 17587 net.cpp:86] Creating Layer ip3_ip3_0_split
I0430 16:30:40.571843 17587 net.cpp:408] ip3_ip3_0_split <- ip3
I0430 16:30:40.571851 17587 net.cpp:382] ip3_ip3_0_split -> ip3_ip3_0_split_0
I0430 16:30:40.571857 17587 net.cpp:382] ip3_ip3_0_split -> ip3_ip3_0_split_1
I0430 16:30:40.571897 17587 net.cpp:124] Setting up ip3_ip3_0_split
I0430 16:30:40.571905 17587 net.cpp:131] Top shape: 1000 10 (10000)
I0430 16:30:40.571909 17587 net.cpp:131] Top shape: 1000 10 (10000)
I0430 16:30:40.571913 17587 net.cpp:139] Memory required for data: 12580000
I0430 16:30:40.571916 17587 layer_factory.hpp:77] Creating layer accuracy
I0430 16:30:40.571930 17587 net.cpp:86] Creating Layer accuracy
I0430 16:30:40.571934 17587 net.cpp:408] accuracy <- ip3_ip3_0_split_0
I0430 16:30:40.571938 17587 net.cpp:408] accuracy <- label_cifar_1_split_0
I0430 16:30:40.571946 17587 net.cpp:382] accuracy -> accuracy
…
