…
I0430 22:23:35.774200  1880 net.cpp:296] The NetState phase (0) differed from the phase (1) specified by a rule in layer cifar
I0430 22:23:35.774219  1880 net.cpp:296] The NetState phase (0) differed from the phase (1) specified by a rule in layer accuracy
I0430 22:23:35.774327  1880 net.cpp:53] Initializing net from parameters: 
name: "CIFAR"
state {
  phase: TRAIN
  level: 0
  stage: ""
}
layer {
  name: "cifar"
  type: "Data"
  top: "data"
  top: "label"
  include {
    phase: TRAIN
  }
  transform_param {
    mean_file: "examples/cifar10/mean.binaryproto"
  }
  data_param {
    source: "examples/cifar10/cifar10_train_lmdb"
    batch_size: 111
    backend: LMDB
  }
}
layer {
  name: "conv0"
  type: "Convolution"
  bottom: "data"
  top: "conv0"
  param {
    lr_mult: 1
  }
  param {
    lr_mult: 2
  }
  convolution_param {
    num_output: 8
    pad: 2
    kernel_size: 3
    stride: 1
    weight_filler {
      type: "gaussian"
      std: 0.01
    }
    bias_filler {
      type: "constant"
    }
  }
}
layer {
  name: "Sigmoid0"
  type: "Sigmoid"
  bottom: "conv0"
  top: "Sigmoid0"
}
layer {
  name: "pool0"
  type: "Pooling"
  bottom: "Sigmoid0"
  top: "pool0"
  pooling_param {
    pool: AVE
    kernel_size: 3
    stride: 2
  }
}
layer {
  name: "ip1"
  type: "InnerProduct"
  bottom: "pool0"
  top: "ip1"
  param {
    lr_mult: 1
  }
  param {
    lr_mult: 2
  }
  inner_product_param {
    num_output: 10
    weight_filler {
      type: "gaussian"
      std: 0.01
    }
    bias_filler {
      type: "constant"
    }
  }
}
layer {
  name: "relu1"
  type: "ReLU"
  bottom: "ip1"
  top: "ip1"
}
layer {
  name: "ip2"
  type: "InnerProduct"
  bottom: "ip1"
  top: "ip2"
  param {
    lr_mult: 1
  }
  param {
    lr_mult: 2
  }
  inner_product_param {
    num_output: 20
    weight_filler {
      type: "gaussian"
      std: 0.01
    }
    bias_filler {
      type: "constant"
    }
  }
}
layer {
  name: "relu2"
  type: "ReLU"
  bottom: "ip2"
  top: "ip2"
}
layer {
  name: "ip3"
  type: "InnerProduct"
  bottom: "ip2"
  top: "ip3"
  param {
    lr_mult: 1
  }
  param {
    lr_mult: 2
  }
  inner_product_param {
    num_output: 40
    weight_filler {
      type: "gaussian"
      std: 0.01
    }
    bias_filler {
      type: "constant"
    }
  }
}
layer {
  name: "relu3"
  type: "ReLU"
  bottom: "ip3"
  top: "ip3"
}
layer {
  name: "ip4"
  type: "InnerProduct"
  bottom: "ip3"
  top: "ip4"
  param {
    lr_mult: 1
  }
  param {
    lr_mult: 2
  }
  inner_product_param {
    num_output: 10
    weight_filler {
      type: "gaussian"
      std: 0.01
    }
    bias_filler {
      type: "constant"
    }
  }
}
layer {
  name: "loss"
  type: "SoftmaxWithLoss"
  bottom: "ip4"
  bottom: "label"
  top: "loss"
}
I0430 22:23:35.774405  1880 layer_factory.hpp:77] Creating layer cifar
I0430 22:23:35.774502  1880 db_lmdb.cpp:35] Opened lmdb examples/cifar10/cifar10_train_lmdb
I0430 22:23:35.774528  1880 net.cpp:86] Creating Layer cifar
I0430 22:23:35.774538  1880 net.cpp:382] cifar -> data
I0430 22:23:35.774559  1880 net.cpp:382] cifar -> label
I0430 22:23:35.774575  1880 data_transformer.cpp:25] Loading mean file from: examples/cifar10/mean.binaryproto
I0430 22:23:35.776664  1880 data_layer.cpp:45] output data size: 111,3,32,32
I0430 22:23:35.784744  1880 net.cpp:124] Setting up cifar
I0430 22:23:35.784762  1880 net.cpp:131] Top shape: 111 3 32 32 (340992)
I0430 22:23:35.784768  1880 net.cpp:131] Top shape: 111 (111)
I0430 22:23:35.784772  1880 net.cpp:139] Memory required for data: 1364412
I0430 22:23:35.784793  1880 layer_factory.hpp:77] Creating layer conv0
I0430 22:23:35.784819  1880 net.cpp:86] Creating Layer conv0
I0430 22:23:35.784826  1880 net.cpp:408] conv0 <- data
I0430 22:23:35.784840  1880 net.cpp:382] conv0 -> conv0
I0430 22:23:36.067637  1880 net.cpp:124] Setting up conv0
I0430 22:23:36.067663  1880 net.cpp:131] Top shape: 111 8 34 34 (1026528)
I0430 22:23:36.067667  1880 net.cpp:139] Memory required for data: 5470524
I0430 22:23:36.067682  1880 layer_factory.hpp:77] Creating layer Sigmoid0
I0430 22:23:36.067693  1880 net.cpp:86] Creating Layer Sigmoid0
I0430 22:23:36.067698  1880 net.cpp:408] Sigmoid0 <- conv0
I0430 22:23:36.067703  1880 net.cpp:382] Sigmoid0 -> Sigmoid0
I0430 22:23:36.067868  1880 net.cpp:124] Setting up Sigmoid0
I0430 22:23:36.067878  1880 net.cpp:131] Top shape: 111 8 34 34 (1026528)
I0430 22:23:36.067883  1880 net.cpp:139] Memory required for data: 9576636
I0430 22:23:36.067885  1880 layer_factory.hpp:77] Creating layer pool0
I0430 22:23:36.067891  1880 net.cpp:86] Creating Layer pool0
I0430 22:23:36.067895  1880 net.cpp:408] pool0 <- Sigmoid0
I0430 22:23:36.067899  1880 net.cpp:382] pool0 -> pool0
I0430 22:23:36.068608  1880 net.cpp:124] Setting up pool0
I0430 22:23:36.068621  1880 net.cpp:131] Top shape: 111 8 17 17 (256632)
I0430 22:23:36.068625  1880 net.cpp:139] Memory required for data: 10603164
I0430 22:23:36.068629  1880 layer_factory.hpp:77] Creating layer ip1
I0430 22:23:36.068637  1880 net.cpp:86] Creating Layer ip1
I0430 22:23:36.068640  1880 net.cpp:408] ip1 <- pool0
I0430 22:23:36.068645  1880 net.cpp:382] ip1 -> ip1
I0430 22:23:36.070192  1880 net.cpp:124] Setting up ip1
I0430 22:23:36.070204  1880 net.cpp:131] Top shape: 111 10 (1110)
I0430 22:23:36.070209  1880 net.cpp:139] Memory required for data: 10607604
I0430 22:23:36.070216  1880 layer_factory.hpp:77] Creating layer relu1
I0430 22:23:36.070221  1880 net.cpp:86] Creating Layer relu1
I0430 22:23:36.070225  1880 net.cpp:408] relu1 <- ip1
I0430 22:23:36.070230  1880 net.cpp:369] relu1 -> ip1 (in-place)
I0430 22:23:36.070395  1880 net.cpp:124] Setting up relu1
I0430 22:23:36.070405  1880 net.cpp:131] Top shape: 111 10 (1110)
I0430 22:23:36.070408  1880 net.cpp:139] Memory required for data: 10612044
I0430 22:23:36.070411  1880 layer_factory.hpp:77] Creating layer ip2
I0430 22:23:36.070418  1880 net.cpp:86] Creating Layer ip2
I0430 22:23:36.070421  1880 net.cpp:408] ip2 <- ip1
I0430 22:23:36.070426  1880 net.cpp:382] ip2 -> ip2
I0430 22:23:36.070519  1880 net.cpp:124] Setting up ip2
I0430 22:23:36.070526  1880 net.cpp:131] Top shape: 111 20 (2220)
I0430 22:23:36.070530  1880 net.cpp:139] Memory required for data: 10620924
I0430 22:23:36.070536  1880 layer_factory.hpp:77] Creating layer relu2
I0430 22:23:36.070541  1880 net.cpp:86] Creating Layer relu2
I0430 22:23:36.070544  1880 net.cpp:408] relu2 <- ip2
I0430 22:23:36.070549  1880 net.cpp:369] relu2 -> ip2 (in-place)
I0430 22:23:36.070708  1880 net.cpp:124] Setting up relu2
I0430 22:23:36.070715  1880 net.cpp:131] Top shape: 111 20 (2220)
I0430 22:23:36.070719  1880 net.cpp:139] Memory required for data: 10629804
I0430 22:23:36.070721  1880 layer_factory.hpp:77] Creating layer ip3
I0430 22:23:36.070729  1880 net.cpp:86] Creating Layer ip3
I0430 22:23:36.070731  1880 net.cpp:408] ip3 <- ip2
I0430 22:23:36.070736  1880 net.cpp:382] ip3 -> ip3
I0430 22:23:36.071652  1880 net.cpp:124] Setting up ip3
I0430 22:23:36.071665  1880 net.cpp:131] Top shape: 111 40 (4440)
I0430 22:23:36.071667  1880 net.cpp:139] Memory required for data: 10647564
I0430 22:23:36.071673  1880 layer_factory.hpp:77] Creating layer relu3
I0430 22:23:36.071678  1880 net.cpp:86] Creating Layer relu3
I0430 22:23:36.071681  1880 net.cpp:408] relu3 <- ip3
I0430 22:23:36.071686  1880 net.cpp:369] relu3 -> ip3 (in-place)
I0430 22:23:36.071835  1880 net.cpp:124] Setting up relu3
I0430 22:23:36.071843  1880 net.cpp:131] Top shape: 111 40 (4440)
I0430 22:23:36.071846  1880 net.cpp:139] Memory required for data: 10665324
I0430 22:23:36.071849  1880 layer_factory.hpp:77] Creating layer ip4
I0430 22:23:36.071868  1880 net.cpp:86] Creating Layer ip4
I0430 22:23:36.071872  1880 net.cpp:408] ip4 <- ip3
I0430 22:23:36.071877  1880 net.cpp:382] ip4 -> ip4
I0430 22:23:36.071993  1880 net.cpp:124] Setting up ip4
I0430 22:23:36.072001  1880 net.cpp:131] Top shape: 111 10 (1110)
I0430 22:23:36.072005  1880 net.cpp:139] Memory required for data: 10669764
I0430 22:23:36.072011  1880 layer_factory.hpp:77] Creating layer loss
I0430 22:23:36.072016  1880 net.cpp:86] Creating Layer loss
I0430 22:23:36.072021  1880 net.cpp:408] loss <- ip4
I0430 22:23:36.072023  1880 net.cpp:408] loss <- label
I0430 22:23:36.072029  1880 net.cpp:382] loss -> loss
I0430 22:23:36.072042  1880 layer_factory.hpp:77] Creating layer loss
…
I0430 22:23:36.073334  1880 solver.cpp:173] Creating test net (#0) specified by net file: ECE595/cifar/train_test/var_everything/cifar_train_test_192.prototxt
I0430 22:23:36.073361  1880 net.cpp:296] The NetState phase (1) differed from the phase (0) specified by a rule in layer cifar
I0430 22:23:36.073449  1880 net.cpp:53] Initializing net from parameters: 
name: "CIFAR"
state {
  phase: TEST
}
layer {
  name: "cifar"
  type: "Data"
  top: "data"
  top: "label"
  include {
    phase: TEST
  }
  transform_param {
    mean_file: "examples/cifar10/mean.binaryproto"
  }
  data_param {
    source: "examples/cifar10/cifar10_test_lmdb"
    batch_size: 1000
    backend: LMDB
  }
}
layer {
  name: "conv0"
  type: "Convolution"
  bottom: "data"
  top: "conv0"
  param {
    lr_mult: 1
  }
  param {
    lr_mult: 2
  }
  convolution_param {
    num_output: 8
    pad: 2
    kernel_size: 3
    stride: 1
    weight_filler {
      type: "gaussian"
      std: 0.01
    }
    bias_filler {
      type: "constant"
    }
  }
}
layer {
  name: "Sigmoid0"
  type: "Sigmoid"
  bottom: "conv0"
  top: "Sigmoid0"
}
layer {
  name: "pool0"
  type: "Pooling"
  bottom: "Sigmoid0"
  top: "pool0"
  pooling_param {
    pool: AVE
    kernel_size: 3
    stride: 2
  }
}
layer {
  name: "ip1"
  type: "InnerProduct"
  bottom: "pool0"
  top: "ip1"
  param {
    lr_mult: 1
  }
  param {
    lr_mult: 2
  }
  inner_product_param {
    num_output: 10
    weight_filler {
      type: "gaussian"
      std: 0.01
    }
    bias_filler {
      type: "constant"
    }
  }
}
layer {
  name: "relu1"
  type: "ReLU"
  bottom: "ip1"
  top: "ip1"
}
layer {
  name: "ip2"
  type: "InnerProduct"
  bottom: "ip1"
  top: "ip2"
  param {
    lr_mult: 1
  }
  param {
    lr_mult: 2
  }
  inner_product_param {
    num_output: 20
    weight_filler {
      type: "gaussian"
      std: 0.01
    }
    bias_filler {
      type: "constant"
    }
  }
}
layer {
  name: "relu2"
  type: "ReLU"
  bottom: "ip2"
  top: "ip2"
}
layer {
  name: "ip3"
  type: "InnerProduct"
  bottom: "ip2"
  top: "ip3"
  param {
    lr_mult: 1
  }
  param {
    lr_mult: 2
  }
  inner_product_param {
    num_output: 40
    weight_filler {
      type: "gaussian"
      std: 0.01
    }
    bias_filler {
      type: "constant"
    }
  }
}
layer {
  name: "relu3"
  type: "ReLU"
  bottom: "ip3"
  top: "ip3"
}
layer {
  name: "ip4"
  type: "InnerProduct"
  bottom: "ip3"
  top: "ip4"
  param {
    lr_mult: 1
  }
  param {
    lr_mult: 2
  }
  inner_product_param {
    num_output: 10
    weight_filler {
      type: "gaussian"
      std: 0.01
    }
    bias_filler {
      type: "constant"
    }
  }
}
layer {
  name: "accuracy"
  type: "Accuracy"
  bottom: "ip4"
  bottom: "label"
  top: "accuracy"
  include {
    phase: TEST
  }
}
layer {
  name: "loss"
  type: "SoftmaxWithLoss"
  bottom: "ip4"
  bottom: "label"
  top: "loss"
}
I0430 22:23:36.073526  1880 layer_factory.hpp:77] Creating layer cifar
I0430 22:23:36.073587  1880 db_lmdb.cpp:35] Opened lmdb examples/cifar10/cifar10_test_lmdb
I0430 22:23:36.073599  1880 net.cpp:86] Creating Layer cifar
I0430 22:23:36.073604  1880 net.cpp:382] cifar -> data
I0430 22:23:36.073611  1880 net.cpp:382] cifar -> label
I0430 22:23:36.073618  1880 data_transformer.cpp:25] Loading mean file from: examples/cifar10/mean.binaryproto
I0430 22:23:36.073757  1880 data_layer.cpp:45] output data size: 1000,3,32,32
I0430 22:23:36.095818  1880 net.cpp:124] Setting up cifar
I0430 22:23:36.095844  1880 net.cpp:131] Top shape: 1000 3 32 32 (3072000)
I0430 22:23:36.095849  1880 net.cpp:131] Top shape: 1000 (1000)
I0430 22:23:36.095852  1880 net.cpp:139] Memory required for data: 12292000
I0430 22:23:36.095857  1880 layer_factory.hpp:77] Creating layer label_cifar_1_split
I0430 22:23:36.095868  1880 net.cpp:86] Creating Layer label_cifar_1_split
I0430 22:23:36.095873  1880 net.cpp:408] label_cifar_1_split <- label
I0430 22:23:36.095880  1880 net.cpp:382] label_cifar_1_split -> label_cifar_1_split_0
I0430 22:23:36.095888  1880 net.cpp:382] label_cifar_1_split -> label_cifar_1_split_1
I0430 22:23:36.095996  1880 net.cpp:124] Setting up label_cifar_1_split
I0430 22:23:36.096004  1880 net.cpp:131] Top shape: 1000 (1000)
I0430 22:23:36.096007  1880 net.cpp:131] Top shape: 1000 (1000)
I0430 22:23:36.096010  1880 net.cpp:139] Memory required for data: 12300000
I0430 22:23:36.096014  1880 layer_factory.hpp:77] Creating layer conv0
I0430 22:23:36.096025  1880 net.cpp:86] Creating Layer conv0
I0430 22:23:36.096029  1880 net.cpp:408] conv0 <- data
I0430 22:23:36.096034  1880 net.cpp:382] conv0 -> conv0
I0430 22:23:36.097753  1880 net.cpp:124] Setting up conv0
I0430 22:23:36.097782  1880 net.cpp:131] Top shape: 1000 8 34 34 (9248000)
I0430 22:23:36.097785  1880 net.cpp:139] Memory required for data: 49292000
I0430 22:23:36.097795  1880 layer_factory.hpp:77] Creating layer Sigmoid0
I0430 22:23:36.097801  1880 net.cpp:86] Creating Layer Sigmoid0
I0430 22:23:36.097805  1880 net.cpp:408] Sigmoid0 <- conv0
I0430 22:23:36.097810  1880 net.cpp:382] Sigmoid0 -> Sigmoid0
I0430 22:23:36.098007  1880 net.cpp:124] Setting up Sigmoid0
I0430 22:23:36.098017  1880 net.cpp:131] Top shape: 1000 8 34 34 (9248000)
I0430 22:23:36.098021  1880 net.cpp:139] Memory required for data: 86284000
I0430 22:23:36.098023  1880 layer_factory.hpp:77] Creating layer pool0
I0430 22:23:36.098031  1880 net.cpp:86] Creating Layer pool0
I0430 22:23:36.098033  1880 net.cpp:408] pool0 <- Sigmoid0
I0430 22:23:36.098038  1880 net.cpp:382] pool0 -> pool0
I0430 22:23:36.098188  1880 net.cpp:124] Setting up pool0
I0430 22:23:36.098196  1880 net.cpp:131] Top shape: 1000 8 17 17 (2312000)
I0430 22:23:36.098199  1880 net.cpp:139] Memory required for data: 95532000
I0430 22:23:36.098202  1880 layer_factory.hpp:77] Creating layer ip1
I0430 22:23:36.098209  1880 net.cpp:86] Creating Layer ip1
I0430 22:23:36.098213  1880 net.cpp:408] ip1 <- pool0
I0430 22:23:36.098217  1880 net.cpp:382] ip1 -> ip1
I0430 22:23:36.099439  1880 net.cpp:124] Setting up ip1
I0430 22:23:36.099447  1880 net.cpp:131] Top shape: 1000 10 (10000)
I0430 22:23:36.099450  1880 net.cpp:139] Memory required for data: 95572000
I0430 22:23:36.099473  1880 layer_factory.hpp:77] Creating layer relu1
I0430 22:23:36.099479  1880 net.cpp:86] Creating Layer relu1
I0430 22:23:36.099483  1880 net.cpp:408] relu1 <- ip1
I0430 22:23:36.099486  1880 net.cpp:369] relu1 -> ip1 (in-place)
I0430 22:23:36.099655  1880 net.cpp:124] Setting up relu1
I0430 22:23:36.099664  1880 net.cpp:131] Top shape: 1000 10 (10000)
I0430 22:23:36.099675  1880 net.cpp:139] Memory required for data: 95612000
I0430 22:23:36.099678  1880 layer_factory.hpp:77] Creating layer ip2
I0430 22:23:36.099684  1880 net.cpp:86] Creating Layer ip2
I0430 22:23:36.099687  1880 net.cpp:408] ip2 <- ip1
I0430 22:23:36.099692  1880 net.cpp:382] ip2 -> ip2
I0430 22:23:36.099794  1880 net.cpp:124] Setting up ip2
I0430 22:23:36.099802  1880 net.cpp:131] Top shape: 1000 20 (20000)
I0430 22:23:36.099804  1880 net.cpp:139] Memory required for data: 95692000
I0430 22:23:36.099828  1880 layer_factory.hpp:77] Creating layer relu2
I0430 22:23:36.099833  1880 net.cpp:86] Creating Layer relu2
I0430 22:23:36.099836  1880 net.cpp:408] relu2 <- ip2
I0430 22:23:36.099840  1880 net.cpp:369] relu2 -> ip2 (in-place)
I0430 22:23:36.100580  1880 net.cpp:124] Setting up relu2
I0430 22:23:36.100594  1880 net.cpp:131] Top shape: 1000 20 (20000)
I0430 22:23:36.100612  1880 net.cpp:139] Memory required for data: 95772000
I0430 22:23:36.100616  1880 layer_factory.hpp:77] Creating layer ip3
I0430 22:23:36.100622  1880 net.cpp:86] Creating Layer ip3
I0430 22:23:36.100625  1880 net.cpp:408] ip3 <- ip2
I0430 22:23:36.100631  1880 net.cpp:382] ip3 -> ip3
I0430 22:23:36.100791  1880 net.cpp:124] Setting up ip3
I0430 22:23:36.100800  1880 net.cpp:131] Top shape: 1000 40 (40000)
I0430 22:23:36.100802  1880 net.cpp:139] Memory required for data: 95932000
I0430 22:23:36.100808  1880 layer_factory.hpp:77] Creating layer relu3
I0430 22:23:36.100821  1880 net.cpp:86] Creating Layer relu3
I0430 22:23:36.100824  1880 net.cpp:408] relu3 <- ip3
I0430 22:23:36.100829  1880 net.cpp:369] relu3 -> ip3 (in-place)
I0430 22:23:36.101008  1880 net.cpp:124] Setting up relu3
I0430 22:23:36.101017  1880 net.cpp:131] Top shape: 1000 40 (40000)
I0430 22:23:36.101021  1880 net.cpp:139] Memory required for data: 96092000
I0430 22:23:36.101023  1880 layer_factory.hpp:77] Creating layer ip4
I0430 22:23:36.101030  1880 net.cpp:86] Creating Layer ip4
I0430 22:23:36.101033  1880 net.cpp:408] ip4 <- ip3
I0430 22:23:36.101039  1880 net.cpp:382] ip4 -> ip4
I0430 22:23:36.101166  1880 net.cpp:124] Setting up ip4
I0430 22:23:36.101173  1880 net.cpp:131] Top shape: 1000 10 (10000)
I0430 22:23:36.101176  1880 net.cpp:139] Memory required for data: 96132000
I0430 22:23:36.101184  1880 layer_factory.hpp:77] Creating layer ip4_ip4_0_split
I0430 22:23:36.101191  1880 net.cpp:86] Creating Layer ip4_ip4_0_split
I0430 22:23:36.101193  1880 net.cpp:408] ip4_ip4_0_split <- ip4
I0430 22:23:36.101197  1880 net.cpp:382] ip4_ip4_0_split -> ip4_ip4_0_split_0
I0430 22:23:36.101202  1880 net.cpp:382] ip4_ip4_0_split -> ip4_ip4_0_split_1
I0430 22:23:36.101233  1880 net.cpp:124] Setting up ip4_ip4_0_split
I0430 22:23:36.101238  1880 net.cpp:131] Top shape: 1000 10 (10000)
I0430 22:23:36.101243  1880 net.cpp:131] Top shape: 1000 10 (10000)
I0430 22:23:36.101244  1880 net.cpp:139] Memory required for data: 96212000
I0430 22:23:36.101248  1880 layer_factory.hpp:77] Creating layer accuracy
I0430 22:23:36.101253  1880 net.cpp:86] Creating Layer accuracy
I0430 22:23:36.101256  1880 net.cpp:408] accuracy <- ip4_ip4_0_split_0
I0430 22:23:36.101260  1880 net.cpp:408] accuracy <- label_cifar_1_split_0
I0430 22:23:36.101264  1880 net.cpp:382] accuracy -> accuracy
…
