…
I0501 07:35:18.041431  5903 net.cpp:296] The NetState phase (0) differed from the phase (1) specified by a rule in layer cifar
I0501 07:35:18.041447  5903 net.cpp:296] The NetState phase (0) differed from the phase (1) specified by a rule in layer accuracy
I0501 07:35:18.041539  5903 net.cpp:53] Initializing net from parameters: 
name: "CIFAR"
state {
  phase: TRAIN
  level: 0
  stage: ""
}
layer {
  name: "cifar"
  type: "Data"
  top: "data"
  top: "label"
  include {
    phase: TRAIN
  }
  transform_param {
    mean_file: "examples/cifar10/mean.binaryproto"
  }
  data_param {
    source: "examples/cifar10/cifar10_train_lmdb"
    batch_size: 111
    backend: LMDB
  }
}
layer {
  name: "conv0"
  type: "Convolution"
  bottom: "data"
  top: "conv0"
  param {
    lr_mult: 1
  }
  param {
    lr_mult: 2
  }
  convolution_param {
    num_output: 16
    pad: 2
    kernel_size: 3
    stride: 1
    weight_filler {
      type: "gaussian"
      std: 0.01
    }
    bias_filler {
      type: "constant"
    }
  }
}
layer {
  name: "Sigmoid0"
  type: "Sigmoid"
  bottom: "conv0"
  top: "Sigmoid0"
}
layer {
  name: "pool0"
  type: "Pooling"
  bottom: "Sigmoid0"
  top: "pool0"
  pooling_param {
    pool: AVE
    kernel_size: 3
    stride: 2
  }
}
layer {
  name: "ip1"
  type: "InnerProduct"
  bottom: "pool0"
  top: "ip1"
  param {
    lr_mult: 1
  }
  param {
    lr_mult: 2
  }
  inner_product_param {
    num_output: 80
    weight_filler {
      type: "gaussian"
      std: 0.01
    }
    bias_filler {
      type: "constant"
    }
  }
}
layer {
  name: "relu1"
  type: "ReLU"
  bottom: "ip1"
  top: "ip1"
}
layer {
  name: "ip2"
  type: "InnerProduct"
  bottom: "ip1"
  top: "ip2"
  param {
    lr_mult: 1
  }
  param {
    lr_mult: 2
  }
  inner_product_param {
    num_output: 20
    weight_filler {
      type: "gaussian"
      std: 0.01
    }
    bias_filler {
      type: "constant"
    }
  }
}
layer {
  name: "relu2"
  type: "ReLU"
  bottom: "ip2"
  top: "ip2"
}
layer {
  name: "ip3"
  type: "InnerProduct"
  bottom: "ip2"
  top: "ip3"
  param {
    lr_mult: 1
  }
  param {
    lr_mult: 2
  }
  inner_product_param {
    num_output: 10
    weight_filler {
      type: "gaussian"
      std: 0.01
    }
    bias_filler {
      type: "constant"
    }
  }
}
layer {
  name: "loss"
  type: "SoftmaxWithLoss"
  bottom: "ip3"
  bottom: "label"
  top: "loss"
}
I0501 07:35:18.041615  5903 layer_factory.hpp:77] Creating layer cifar
I0501 07:35:18.041714  5903 db_lmdb.cpp:35] Opened lmdb examples/cifar10/cifar10_train_lmdb
I0501 07:35:18.041743  5903 net.cpp:86] Creating Layer cifar
I0501 07:35:18.041752  5903 net.cpp:382] cifar -> data
I0501 07:35:18.041775  5903 net.cpp:382] cifar -> label
I0501 07:35:18.041787  5903 data_transformer.cpp:25] Loading mean file from: examples/cifar10/mean.binaryproto
I0501 07:35:18.043964  5903 data_layer.cpp:45] output data size: 111,3,32,32
I0501 07:35:18.051995  5903 net.cpp:124] Setting up cifar
I0501 07:35:18.052022  5903 net.cpp:131] Top shape: 111 3 32 32 (340992)
I0501 07:35:18.052032  5903 net.cpp:131] Top shape: 111 (111)
I0501 07:35:18.052037  5903 net.cpp:139] Memory required for data: 1364412
I0501 07:35:18.052047  5903 layer_factory.hpp:77] Creating layer conv0
I0501 07:35:18.052072  5903 net.cpp:86] Creating Layer conv0
I0501 07:35:18.052080  5903 net.cpp:408] conv0 <- data
I0501 07:35:18.052095  5903 net.cpp:382] conv0 -> conv0
I0501 07:35:18.339521  5903 net.cpp:124] Setting up conv0
I0501 07:35:18.339570  5903 net.cpp:131] Top shape: 111 16 34 34 (2053056)
I0501 07:35:18.339574  5903 net.cpp:139] Memory required for data: 9576636
I0501 07:35:18.339591  5903 layer_factory.hpp:77] Creating layer Sigmoid0
I0501 07:35:18.339602  5903 net.cpp:86] Creating Layer Sigmoid0
I0501 07:35:18.339607  5903 net.cpp:408] Sigmoid0 <- conv0
I0501 07:35:18.339628  5903 net.cpp:382] Sigmoid0 -> Sigmoid0
I0501 07:35:18.339808  5903 net.cpp:124] Setting up Sigmoid0
I0501 07:35:18.339818  5903 net.cpp:131] Top shape: 111 16 34 34 (2053056)
I0501 07:35:18.339823  5903 net.cpp:139] Memory required for data: 17788860
I0501 07:35:18.339825  5903 layer_factory.hpp:77] Creating layer pool0
I0501 07:35:18.339833  5903 net.cpp:86] Creating Layer pool0
I0501 07:35:18.339836  5903 net.cpp:408] pool0 <- Sigmoid0
I0501 07:35:18.339840  5903 net.cpp:382] pool0 -> pool0
I0501 07:35:18.340574  5903 net.cpp:124] Setting up pool0
I0501 07:35:18.340589  5903 net.cpp:131] Top shape: 111 16 17 17 (513264)
I0501 07:35:18.340591  5903 net.cpp:139] Memory required for data: 19841916
I0501 07:35:18.340595  5903 layer_factory.hpp:77] Creating layer ip1
I0501 07:35:18.340605  5903 net.cpp:86] Creating Layer ip1
I0501 07:35:18.340607  5903 net.cpp:408] ip1 <- pool0
I0501 07:35:18.340612  5903 net.cpp:382] ip1 -> ip1
I0501 07:35:18.351420  5903 net.cpp:124] Setting up ip1
I0501 07:35:18.351434  5903 net.cpp:131] Top shape: 111 80 (8880)
I0501 07:35:18.351438  5903 net.cpp:139] Memory required for data: 19877436
I0501 07:35:18.351446  5903 layer_factory.hpp:77] Creating layer relu1
I0501 07:35:18.351452  5903 net.cpp:86] Creating Layer relu1
I0501 07:35:18.351455  5903 net.cpp:408] relu1 <- ip1
I0501 07:35:18.351459  5903 net.cpp:369] relu1 -> ip1 (in-place)
I0501 07:35:18.351609  5903 net.cpp:124] Setting up relu1
I0501 07:35:18.351619  5903 net.cpp:131] Top shape: 111 80 (8880)
I0501 07:35:18.351621  5903 net.cpp:139] Memory required for data: 19912956
I0501 07:35:18.351624  5903 layer_factory.hpp:77] Creating layer ip2
I0501 07:35:18.351630  5903 net.cpp:86] Creating Layer ip2
I0501 07:35:18.351634  5903 net.cpp:408] ip2 <- ip1
I0501 07:35:18.351639  5903 net.cpp:382] ip2 -> ip2
I0501 07:35:18.351773  5903 net.cpp:124] Setting up ip2
I0501 07:35:18.351779  5903 net.cpp:131] Top shape: 111 20 (2220)
I0501 07:35:18.351783  5903 net.cpp:139] Memory required for data: 19921836
I0501 07:35:18.351789  5903 layer_factory.hpp:77] Creating layer relu2
I0501 07:35:18.351794  5903 net.cpp:86] Creating Layer relu2
I0501 07:35:18.351797  5903 net.cpp:408] relu2 <- ip2
I0501 07:35:18.351800  5903 net.cpp:369] relu2 -> ip2 (in-place)
I0501 07:35:18.351946  5903 net.cpp:124] Setting up relu2
I0501 07:35:18.351955  5903 net.cpp:131] Top shape: 111 20 (2220)
I0501 07:35:18.351958  5903 net.cpp:139] Memory required for data: 19930716
I0501 07:35:18.351961  5903 layer_factory.hpp:77] Creating layer ip3
I0501 07:35:18.351969  5903 net.cpp:86] Creating Layer ip3
I0501 07:35:18.351971  5903 net.cpp:408] ip3 <- ip2
I0501 07:35:18.351976  5903 net.cpp:382] ip3 -> ip3
I0501 07:35:18.352068  5903 net.cpp:124] Setting up ip3
I0501 07:35:18.352075  5903 net.cpp:131] Top shape: 111 10 (1110)
I0501 07:35:18.352078  5903 net.cpp:139] Memory required for data: 19935156
I0501 07:35:18.352083  5903 layer_factory.hpp:77] Creating layer loss
I0501 07:35:18.352088  5903 net.cpp:86] Creating Layer loss
I0501 07:35:18.352092  5903 net.cpp:408] loss <- ip3
I0501 07:35:18.352095  5903 net.cpp:408] loss <- label
I0501 07:35:18.352100  5903 net.cpp:382] loss -> loss
I0501 07:35:18.352118  5903 layer_factory.hpp:77] Creating layer loss
…
I0501 07:35:18.352692  5903 solver.cpp:173] Creating test net (#0) specified by net file: ECE595/cifar/train_test/var_everything/cifar_train_test_486.prototxt
I0501 07:35:18.352716  5903 net.cpp:296] The NetState phase (1) differed from the phase (0) specified by a rule in layer cifar
I0501 07:35:18.352799  5903 net.cpp:53] Initializing net from parameters: 
name: "CIFAR"
state {
  phase: TEST
}
layer {
  name: "cifar"
  type: "Data"
  top: "data"
  top: "label"
  include {
    phase: TEST
  }
  transform_param {
    mean_file: "examples/cifar10/mean.binaryproto"
  }
  data_param {
    source: "examples/cifar10/cifar10_test_lmdb"
    batch_size: 1000
    backend: LMDB
  }
}
layer {
  name: "conv0"
  type: "Convolution"
  bottom: "data"
  top: "conv0"
  param {
    lr_mult: 1
  }
  param {
    lr_mult: 2
  }
  convolution_param {
    num_output: 16
    pad: 2
    kernel_size: 3
    stride: 1
    weight_filler {
      type: "gaussian"
      std: 0.01
    }
    bias_filler {
      type: "constant"
    }
  }
}
layer {
  name: "Sigmoid0"
  type: "Sigmoid"
  bottom: "conv0"
  top: "Sigmoid0"
}
layer {
  name: "pool0"
  type: "Pooling"
  bottom: "Sigmoid0"
  top: "pool0"
  pooling_param {
    pool: AVE
    kernel_size: 3
    stride: 2
  }
}
layer {
  name: "ip1"
  type: "InnerProduct"
  bottom: "pool0"
  top: "ip1"
  param {
    lr_mult: 1
  }
  param {
    lr_mult: 2
  }
  inner_product_param {
    num_output: 80
    weight_filler {
      type: "gaussian"
      std: 0.01
    }
    bias_filler {
      type: "constant"
    }
  }
}
layer {
  name: "relu1"
  type: "ReLU"
  bottom: "ip1"
  top: "ip1"
}
layer {
  name: "ip2"
  type: "InnerProduct"
  bottom: "ip1"
  top: "ip2"
  param {
    lr_mult: 1
  }
  param {
    lr_mult: 2
  }
  inner_product_param {
    num_output: 20
    weight_filler {
      type: "gaussian"
      std: 0.01
    }
    bias_filler {
      type: "constant"
    }
  }
}
layer {
  name: "relu2"
  type: "ReLU"
  bottom: "ip2"
  top: "ip2"
}
layer {
  name: "ip3"
  type: "InnerProduct"
  bottom: "ip2"
  top: "ip3"
  param {
    lr_mult: 1
  }
  param {
    lr_mult: 2
  }
  inner_product_param {
    num_output: 10
    weight_filler {
      type: "gaussian"
      std: 0.01
    }
    bias_filler {
      type: "constant"
    }
  }
}
layer {
  name: "accuracy"
  type: "Accuracy"
  bottom: "ip3"
  bottom: "label"
  top: "accuracy"
  include {
    phase: TEST
  }
}
layer {
  name: "loss"
  type: "SoftmaxWithLoss"
  bottom: "ip3"
  bottom: "label"
  top: "loss"
}
I0501 07:35:18.352902  5903 layer_factory.hpp:77] Creating layer cifar
I0501 07:35:18.352952  5903 db_lmdb.cpp:35] Opened lmdb examples/cifar10/cifar10_test_lmdb
I0501 07:35:18.352965  5903 net.cpp:86] Creating Layer cifar
I0501 07:35:18.352970  5903 net.cpp:382] cifar -> data
I0501 07:35:18.352978  5903 net.cpp:382] cifar -> label
I0501 07:35:18.352985  5903 data_transformer.cpp:25] Loading mean file from: examples/cifar10/mean.binaryproto
I0501 07:35:18.353155  5903 data_layer.cpp:45] output data size: 1000,3,32,32
I0501 07:35:18.374721  5903 net.cpp:124] Setting up cifar
I0501 07:35:18.374747  5903 net.cpp:131] Top shape: 1000 3 32 32 (3072000)
I0501 07:35:18.374752  5903 net.cpp:131] Top shape: 1000 (1000)
I0501 07:35:18.374757  5903 net.cpp:139] Memory required for data: 12292000
I0501 07:35:18.374761  5903 layer_factory.hpp:77] Creating layer label_cifar_1_split
I0501 07:35:18.374774  5903 net.cpp:86] Creating Layer label_cifar_1_split
I0501 07:35:18.374792  5903 net.cpp:408] label_cifar_1_split <- label
I0501 07:35:18.374799  5903 net.cpp:382] label_cifar_1_split -> label_cifar_1_split_0
I0501 07:35:18.374807  5903 net.cpp:382] label_cifar_1_split -> label_cifar_1_split_1
I0501 07:35:18.374883  5903 net.cpp:124] Setting up label_cifar_1_split
I0501 07:35:18.374891  5903 net.cpp:131] Top shape: 1000 (1000)
I0501 07:35:18.374896  5903 net.cpp:131] Top shape: 1000 (1000)
I0501 07:35:18.374897  5903 net.cpp:139] Memory required for data: 12300000
I0501 07:35:18.374900  5903 layer_factory.hpp:77] Creating layer conv0
I0501 07:35:18.374912  5903 net.cpp:86] Creating Layer conv0
I0501 07:35:18.374915  5903 net.cpp:408] conv0 <- data
I0501 07:35:18.374920  5903 net.cpp:382] conv0 -> conv0
I0501 07:35:18.376305  5903 net.cpp:124] Setting up conv0
I0501 07:35:18.376319  5903 net.cpp:131] Top shape: 1000 16 34 34 (18496000)
I0501 07:35:18.376322  5903 net.cpp:139] Memory required for data: 86284000
I0501 07:35:18.376332  5903 layer_factory.hpp:77] Creating layer Sigmoid0
I0501 07:35:18.376338  5903 net.cpp:86] Creating Layer Sigmoid0
I0501 07:35:18.376341  5903 net.cpp:408] Sigmoid0 <- conv0
I0501 07:35:18.376346  5903 net.cpp:382] Sigmoid0 -> Sigmoid0
I0501 07:35:18.377316  5903 net.cpp:124] Setting up Sigmoid0
I0501 07:35:18.377329  5903 net.cpp:131] Top shape: 1000 16 34 34 (18496000)
I0501 07:35:18.377333  5903 net.cpp:139] Memory required for data: 160268000
I0501 07:35:18.377336  5903 layer_factory.hpp:77] Creating layer pool0
I0501 07:35:18.377343  5903 net.cpp:86] Creating Layer pool0
I0501 07:35:18.377362  5903 net.cpp:408] pool0 <- Sigmoid0
I0501 07:35:18.377367  5903 net.cpp:382] pool0 -> pool0
I0501 07:35:18.377522  5903 net.cpp:124] Setting up pool0
I0501 07:35:18.377532  5903 net.cpp:131] Top shape: 1000 16 17 17 (4624000)
I0501 07:35:18.377534  5903 net.cpp:139] Memory required for data: 178764000
I0501 07:35:18.377537  5903 layer_factory.hpp:77] Creating layer ip1
I0501 07:35:18.377544  5903 net.cpp:86] Creating Layer ip1
I0501 07:35:18.377547  5903 net.cpp:408] ip1 <- pool0
I0501 07:35:18.377552  5903 net.cpp:382] ip1 -> ip1
I0501 07:35:18.388414  5903 net.cpp:124] Setting up ip1
I0501 07:35:18.388428  5903 net.cpp:131] Top shape: 1000 80 (80000)
I0501 07:35:18.388432  5903 net.cpp:139] Memory required for data: 179084000
I0501 07:35:18.388442  5903 layer_factory.hpp:77] Creating layer relu1
I0501 07:35:18.388447  5903 net.cpp:86] Creating Layer relu1
I0501 07:35:18.388466  5903 net.cpp:408] relu1 <- ip1
I0501 07:35:18.388478  5903 net.cpp:369] relu1 -> ip1 (in-place)
I0501 07:35:18.388650  5903 net.cpp:124] Setting up relu1
I0501 07:35:18.388660  5903 net.cpp:131] Top shape: 1000 80 (80000)
I0501 07:35:18.388664  5903 net.cpp:139] Memory required for data: 179404000
I0501 07:35:18.388667  5903 layer_factory.hpp:77] Creating layer ip2
I0501 07:35:18.388674  5903 net.cpp:86] Creating Layer ip2
I0501 07:35:18.388677  5903 net.cpp:408] ip2 <- ip1
I0501 07:35:18.388682  5903 net.cpp:382] ip2 -> ip2
I0501 07:35:18.388850  5903 net.cpp:124] Setting up ip2
I0501 07:35:18.388859  5903 net.cpp:131] Top shape: 1000 20 (20000)
I0501 07:35:18.388862  5903 net.cpp:139] Memory required for data: 179484000
I0501 07:35:18.388870  5903 layer_factory.hpp:77] Creating layer relu2
I0501 07:35:18.388876  5903 net.cpp:86] Creating Layer relu2
I0501 07:35:18.388880  5903 net.cpp:408] relu2 <- ip2
I0501 07:35:18.388885  5903 net.cpp:369] relu2 -> ip2 (in-place)
I0501 07:35:18.389061  5903 net.cpp:124] Setting up relu2
I0501 07:35:18.389070  5903 net.cpp:131] Top shape: 1000 20 (20000)
I0501 07:35:18.389073  5903 net.cpp:139] Memory required for data: 179564000
I0501 07:35:18.389076  5903 layer_factory.hpp:77] Creating layer ip3
I0501 07:35:18.389082  5903 net.cpp:86] Creating Layer ip3
I0501 07:35:18.389086  5903 net.cpp:408] ip3 <- ip2
I0501 07:35:18.389091  5903 net.cpp:382] ip3 -> ip3
I0501 07:35:18.389209  5903 net.cpp:124] Setting up ip3
I0501 07:35:18.389215  5903 net.cpp:131] Top shape: 1000 10 (10000)
I0501 07:35:18.389230  5903 net.cpp:139] Memory required for data: 179604000
I0501 07:35:18.389235  5903 layer_factory.hpp:77] Creating layer ip3_ip3_0_split
I0501 07:35:18.389248  5903 net.cpp:86] Creating Layer ip3_ip3_0_split
I0501 07:35:18.389251  5903 net.cpp:408] ip3_ip3_0_split <- ip3
I0501 07:35:18.389256  5903 net.cpp:382] ip3_ip3_0_split -> ip3_ip3_0_split_0
I0501 07:35:18.389261  5903 net.cpp:382] ip3_ip3_0_split -> ip3_ip3_0_split_1
I0501 07:35:18.389292  5903 net.cpp:124] Setting up ip3_ip3_0_split
I0501 07:35:18.389297  5903 net.cpp:131] Top shape: 1000 10 (10000)
I0501 07:35:18.389300  5903 net.cpp:131] Top shape: 1000 10 (10000)
I0501 07:35:18.389302  5903 net.cpp:139] Memory required for data: 179684000
I0501 07:35:18.389305  5903 layer_factory.hpp:77] Creating layer accuracy
I0501 07:35:18.389310  5903 net.cpp:86] Creating Layer accuracy
I0501 07:35:18.389313  5903 net.cpp:408] accuracy <- ip3_ip3_0_split_0
I0501 07:35:18.389317  5903 net.cpp:408] accuracy <- label_cifar_1_split_0
I0501 07:35:18.389322  5903 net.cpp:382] accuracy -> accuracy
…
