…
I0430 21:16:19.177147 30459 net.cpp:296] The NetState phase (0) differed from the phase (1) specified by a rule in layer cifar
I0430 21:16:19.177173 30459 net.cpp:296] The NetState phase (0) differed from the phase (1) specified by a rule in layer accuracy
I0430 21:16:19.177235 30459 net.cpp:53] Initializing net from parameters: 
name: "CIFAR"
state {
  phase: TRAIN
  level: 0
  stage: ""
}
layer {
  name: "cifar"
  type: "Data"
  top: "data"
  top: "label"
  include {
    phase: TRAIN
  }
  transform_param {
    mean_file: "examples/cifar10/mean.binaryproto"
  }
  data_param {
    source: "examples/cifar10/cifar10_train_lmdb"
    batch_size: 111
    backend: LMDB
  }
}
layer {
  name: "conv0"
  type: "Convolution"
  bottom: "data"
  top: "conv0"
  param {
    lr_mult: 1
  }
  param {
    lr_mult: 2
  }
  convolution_param {
    num_output: 8
    pad: 2
    kernel_size: 3
    stride: 1
    weight_filler {
      type: "gaussian"
      std: 0.01
    }
    bias_filler {
      type: "constant"
    }
  }
}
layer {
  name: "Sigmoid0"
  type: "Sigmoid"
  bottom: "conv0"
  top: "Sigmoid0"
}
layer {
  name: "pool0"
  type: "Pooling"
  bottom: "Sigmoid0"
  top: "pool0"
  pooling_param {
    pool: AVE
    kernel_size: 3
    stride: 2
  }
}
layer {
  name: "ip1"
  type: "InnerProduct"
  bottom: "pool0"
  top: "ip1"
  param {
    lr_mult: 1
  }
  param {
    lr_mult: 2
  }
  inner_product_param {
    num_output: 20
    weight_filler {
      type: "gaussian"
      std: 0.01
    }
    bias_filler {
      type: "constant"
    }
  }
}
layer {
  name: "relu1"
  type: "ReLU"
  bottom: "ip1"
  top: "ip1"
}
layer {
  name: "ip2"
  type: "InnerProduct"
  bottom: "ip1"
  top: "ip2"
  param {
    lr_mult: 1
  }
  param {
    lr_mult: 2
  }
  inner_product_param {
    num_output: 10
    weight_filler {
      type: "gaussian"
      std: 0.01
    }
    bias_filler {
      type: "constant"
    }
  }
}
layer {
  name: "loss"
  type: "SoftmaxWithLoss"
  bottom: "ip2"
  bottom: "label"
  top: "loss"
}
I0430 21:16:19.177284 30459 layer_factory.hpp:77] Creating layer cifar
I0430 21:16:19.177362 30459 db_lmdb.cpp:35] Opened lmdb examples/cifar10/cifar10_train_lmdb
I0430 21:16:19.177383 30459 net.cpp:86] Creating Layer cifar
I0430 21:16:19.177389 30459 net.cpp:382] cifar -> data
I0430 21:16:19.177408 30459 net.cpp:382] cifar -> label
I0430 21:16:19.177417 30459 data_transformer.cpp:25] Loading mean file from: examples/cifar10/mean.binaryproto
I0430 21:16:19.179147 30459 data_layer.cpp:45] output data size: 111,3,32,32
I0430 21:16:19.185762 30459 net.cpp:124] Setting up cifar
I0430 21:16:19.185808 30459 net.cpp:131] Top shape: 111 3 32 32 (340992)
I0430 21:16:19.185813 30459 net.cpp:131] Top shape: 111 (111)
I0430 21:16:19.185817 30459 net.cpp:139] Memory required for data: 1364412
I0430 21:16:19.185822 30459 layer_factory.hpp:77] Creating layer conv0
I0430 21:16:19.185837 30459 net.cpp:86] Creating Layer conv0
I0430 21:16:19.185842 30459 net.cpp:408] conv0 <- data
I0430 21:16:19.185850 30459 net.cpp:382] conv0 -> conv0
I0430 21:16:19.410742 30459 net.cpp:124] Setting up conv0
I0430 21:16:19.410784 30459 net.cpp:131] Top shape: 111 8 34 34 (1026528)
I0430 21:16:19.410787 30459 net.cpp:139] Memory required for data: 5470524
I0430 21:16:19.410801 30459 layer_factory.hpp:77] Creating layer Sigmoid0
I0430 21:16:19.410814 30459 net.cpp:86] Creating Layer Sigmoid0
I0430 21:16:19.410817 30459 net.cpp:408] Sigmoid0 <- conv0
I0430 21:16:19.410822 30459 net.cpp:382] Sigmoid0 -> Sigmoid0
I0430 21:16:19.411015 30459 net.cpp:124] Setting up Sigmoid0
I0430 21:16:19.411026 30459 net.cpp:131] Top shape: 111 8 34 34 (1026528)
I0430 21:16:19.411029 30459 net.cpp:139] Memory required for data: 9576636
I0430 21:16:19.411032 30459 layer_factory.hpp:77] Creating layer pool0
I0430 21:16:19.411038 30459 net.cpp:86] Creating Layer pool0
I0430 21:16:19.411042 30459 net.cpp:408] pool0 <- Sigmoid0
I0430 21:16:19.411046 30459 net.cpp:382] pool0 -> pool0
I0430 21:16:19.411762 30459 net.cpp:124] Setting up pool0
I0430 21:16:19.411775 30459 net.cpp:131] Top shape: 111 8 17 17 (256632)
I0430 21:16:19.411794 30459 net.cpp:139] Memory required for data: 10603164
I0430 21:16:19.411798 30459 layer_factory.hpp:77] Creating layer ip1
I0430 21:16:19.411806 30459 net.cpp:86] Creating Layer ip1
I0430 21:16:19.411810 30459 net.cpp:408] ip1 <- pool0
I0430 21:16:19.411815 30459 net.cpp:382] ip1 -> ip1
I0430 21:16:19.413936 30459 net.cpp:124] Setting up ip1
I0430 21:16:19.413949 30459 net.cpp:131] Top shape: 111 20 (2220)
I0430 21:16:19.413969 30459 net.cpp:139] Memory required for data: 10612044
I0430 21:16:19.413976 30459 layer_factory.hpp:77] Creating layer relu1
I0430 21:16:19.413981 30459 net.cpp:86] Creating Layer relu1
I0430 21:16:19.413985 30459 net.cpp:408] relu1 <- ip1
I0430 21:16:19.413990 30459 net.cpp:369] relu1 -> ip1 (in-place)
I0430 21:16:19.414144 30459 net.cpp:124] Setting up relu1
I0430 21:16:19.414152 30459 net.cpp:131] Top shape: 111 20 (2220)
I0430 21:16:19.414155 30459 net.cpp:139] Memory required for data: 10620924
I0430 21:16:19.414158 30459 layer_factory.hpp:77] Creating layer ip2
I0430 21:16:19.414165 30459 net.cpp:86] Creating Layer ip2
I0430 21:16:19.414168 30459 net.cpp:408] ip2 <- ip1
I0430 21:16:19.414175 30459 net.cpp:382] ip2 -> ip2
I0430 21:16:19.414268 30459 net.cpp:124] Setting up ip2
I0430 21:16:19.414274 30459 net.cpp:131] Top shape: 111 10 (1110)
I0430 21:16:19.414276 30459 net.cpp:139] Memory required for data: 10625364
I0430 21:16:19.414283 30459 layer_factory.hpp:77] Creating layer loss
I0430 21:16:19.414289 30459 net.cpp:86] Creating Layer loss
I0430 21:16:19.414293 30459 net.cpp:408] loss <- ip2
I0430 21:16:19.414296 30459 net.cpp:408] loss <- label
I0430 21:16:19.414301 30459 net.cpp:382] loss -> loss
I0430 21:16:19.414319 30459 layer_factory.hpp:77] Creating layer loss
…
I0430 21:16:19.414878 30459 solver.cpp:173] Creating test net (#0) specified by net file: ECE595/cifar/train_test/var_everything/cifar_train_test_156.prototxt
I0430 21:16:19.414901 30459 net.cpp:296] The NetState phase (1) differed from the phase (0) specified by a rule in layer cifar
I0430 21:16:19.414975 30459 net.cpp:53] Initializing net from parameters: 
name: "CIFAR"
state {
  phase: TEST
}
layer {
  name: "cifar"
  type: "Data"
  top: "data"
  top: "label"
  include {
    phase: TEST
  }
  transform_param {
    mean_file: "examples/cifar10/mean.binaryproto"
  }
  data_param {
    source: "examples/cifar10/cifar10_test_lmdb"
    batch_size: 1000
    backend: LMDB
  }
}
layer {
  name: "conv0"
  type: "Convolution"
  bottom: "data"
  top: "conv0"
  param {
    lr_mult: 1
  }
  param {
    lr_mult: 2
  }
  convolution_param {
    num_output: 8
    pad: 2
    kernel_size: 3
    stride: 1
    weight_filler {
      type: "gaussian"
      std: 0.01
    }
    bias_filler {
      type: "constant"
    }
  }
}
layer {
  name: "Sigmoid0"
  type: "Sigmoid"
  bottom: "conv0"
  top: "Sigmoid0"
}
layer {
  name: "pool0"
  type: "Pooling"
  bottom: "Sigmoid0"
  top: "pool0"
  pooling_param {
    pool: AVE
    kernel_size: 3
    stride: 2
  }
}
layer {
  name: "ip1"
  type: "InnerProduct"
  bottom: "pool0"
  top: "ip1"
  param {
    lr_mult: 1
  }
  param {
    lr_mult: 2
  }
  inner_product_param {
    num_output: 20
    weight_filler {
      type: "gaussian"
      std: 0.01
    }
    bias_filler {
      type: "constant"
    }
  }
}
layer {
  name: "relu1"
  type: "ReLU"
  bottom: "ip1"
  top: "ip1"
}
layer {
  name: "ip2"
  type: "InnerProduct"
  bottom: "ip1"
  top: "ip2"
  param {
    lr_mult: 1
  }
  param {
    lr_mult: 2
  }
  inner_product_param {
    num_output: 10
    weight_filler {
      type: "gaussian"
      std: 0.01
    }
    bias_filler {
      type: "constant"
    }
  }
}
layer {
  name: "accuracy"
  type: "Accuracy"
  bottom: "ip2"
  bottom: "label"
  top: "accuracy"
  include {
    phase: TEST
  }
}
layer {
  name: "loss"
  type: "SoftmaxWithLoss"
  bottom: "ip2"
  bottom: "label"
  top: "loss"
}
I0430 21:16:19.415042 30459 layer_factory.hpp:77] Creating layer cifar
I0430 21:16:19.415091 30459 db_lmdb.cpp:35] Opened lmdb examples/cifar10/cifar10_test_lmdb
I0430 21:16:19.415105 30459 net.cpp:86] Creating Layer cifar
I0430 21:16:19.415112 30459 net.cpp:382] cifar -> data
I0430 21:16:19.415120 30459 net.cpp:382] cifar -> label
I0430 21:16:19.415127 30459 data_transformer.cpp:25] Loading mean file from: examples/cifar10/mean.binaryproto
I0430 21:16:19.415263 30459 data_layer.cpp:45] output data size: 1000,3,32,32
I0430 21:16:19.438050 30459 net.cpp:124] Setting up cifar
I0430 21:16:19.438091 30459 net.cpp:131] Top shape: 1000 3 32 32 (3072000)
I0430 21:16:19.438097 30459 net.cpp:131] Top shape: 1000 (1000)
I0430 21:16:19.438100 30459 net.cpp:139] Memory required for data: 12292000
I0430 21:16:19.438107 30459 layer_factory.hpp:77] Creating layer label_cifar_1_split
I0430 21:16:19.438123 30459 net.cpp:86] Creating Layer label_cifar_1_split
I0430 21:16:19.438127 30459 net.cpp:408] label_cifar_1_split <- label
I0430 21:16:19.438133 30459 net.cpp:382] label_cifar_1_split -> label_cifar_1_split_0
I0430 21:16:19.438143 30459 net.cpp:382] label_cifar_1_split -> label_cifar_1_split_1
I0430 21:16:19.438235 30459 net.cpp:124] Setting up label_cifar_1_split
I0430 21:16:19.438243 30459 net.cpp:131] Top shape: 1000 (1000)
I0430 21:16:19.438246 30459 net.cpp:131] Top shape: 1000 (1000)
I0430 21:16:19.438249 30459 net.cpp:139] Memory required for data: 12300000
I0430 21:16:19.438252 30459 layer_factory.hpp:77] Creating layer conv0
I0430 21:16:19.438264 30459 net.cpp:86] Creating Layer conv0
I0430 21:16:19.438267 30459 net.cpp:408] conv0 <- data
I0430 21:16:19.438273 30459 net.cpp:382] conv0 -> conv0
I0430 21:16:19.439848 30459 net.cpp:124] Setting up conv0
I0430 21:16:19.439878 30459 net.cpp:131] Top shape: 1000 8 34 34 (9248000)
I0430 21:16:19.439882 30459 net.cpp:139] Memory required for data: 49292000
I0430 21:16:19.439891 30459 layer_factory.hpp:77] Creating layer Sigmoid0
I0430 21:16:19.439899 30459 net.cpp:86] Creating Layer Sigmoid0
I0430 21:16:19.439903 30459 net.cpp:408] Sigmoid0 <- conv0
I0430 21:16:19.439908 30459 net.cpp:382] Sigmoid0 -> Sigmoid0
I0430 21:16:19.440075 30459 net.cpp:124] Setting up Sigmoid0
I0430 21:16:19.440085 30459 net.cpp:131] Top shape: 1000 8 34 34 (9248000)
I0430 21:16:19.440088 30459 net.cpp:139] Memory required for data: 86284000
I0430 21:16:19.440091 30459 layer_factory.hpp:77] Creating layer pool0
I0430 21:16:19.440099 30459 net.cpp:86] Creating Layer pool0
I0430 21:16:19.440102 30459 net.cpp:408] pool0 <- Sigmoid0
I0430 21:16:19.440107 30459 net.cpp:382] pool0 -> pool0
I0430 21:16:19.440980 30459 net.cpp:124] Setting up pool0
I0430 21:16:19.441021 30459 net.cpp:131] Top shape: 1000 8 17 17 (2312000)
I0430 21:16:19.441025 30459 net.cpp:139] Memory required for data: 95532000
I0430 21:16:19.441030 30459 layer_factory.hpp:77] Creating layer ip1
I0430 21:16:19.441040 30459 net.cpp:86] Creating Layer ip1
I0430 21:16:19.441043 30459 net.cpp:408] ip1 <- pool0
I0430 21:16:19.441049 30459 net.cpp:382] ip1 -> ip1
I0430 21:16:19.443295 30459 net.cpp:124] Setting up ip1
I0430 21:16:19.443306 30459 net.cpp:131] Top shape: 1000 20 (20000)
I0430 21:16:19.443325 30459 net.cpp:139] Memory required for data: 95612000
I0430 21:16:19.443333 30459 layer_factory.hpp:77] Creating layer relu1
I0430 21:16:19.443341 30459 net.cpp:86] Creating Layer relu1
I0430 21:16:19.443343 30459 net.cpp:408] relu1 <- ip1
I0430 21:16:19.443347 30459 net.cpp:369] relu1 -> ip1 (in-place)
I0430 21:16:19.443524 30459 net.cpp:124] Setting up relu1
I0430 21:16:19.443532 30459 net.cpp:131] Top shape: 1000 20 (20000)
I0430 21:16:19.443536 30459 net.cpp:139] Memory required for data: 95692000
I0430 21:16:19.443539 30459 layer_factory.hpp:77] Creating layer ip2
I0430 21:16:19.443547 30459 net.cpp:86] Creating Layer ip2
I0430 21:16:19.443549 30459 net.cpp:408] ip2 <- ip1
I0430 21:16:19.443554 30459 net.cpp:382] ip2 -> ip2
I0430 21:16:19.443665 30459 net.cpp:124] Setting up ip2
I0430 21:16:19.443673 30459 net.cpp:131] Top shape: 1000 10 (10000)
I0430 21:16:19.443676 30459 net.cpp:139] Memory required for data: 95732000
I0430 21:16:19.443684 30459 layer_factory.hpp:77] Creating layer ip2_ip2_0_split
I0430 21:16:19.443691 30459 net.cpp:86] Creating Layer ip2_ip2_0_split
I0430 21:16:19.443693 30459 net.cpp:408] ip2_ip2_0_split <- ip2
I0430 21:16:19.443697 30459 net.cpp:382] ip2_ip2_0_split -> ip2_ip2_0_split_0
I0430 21:16:19.443703 30459 net.cpp:382] ip2_ip2_0_split -> ip2_ip2_0_split_1
I0430 21:16:19.443738 30459 net.cpp:124] Setting up ip2_ip2_0_split
I0430 21:16:19.443745 30459 net.cpp:131] Top shape: 1000 10 (10000)
I0430 21:16:19.443749 30459 net.cpp:131] Top shape: 1000 10 (10000)
I0430 21:16:19.443752 30459 net.cpp:139] Memory required for data: 95812000
I0430 21:16:19.443754 30459 layer_factory.hpp:77] Creating layer accuracy
I0430 21:16:19.443760 30459 net.cpp:86] Creating Layer accuracy
I0430 21:16:19.443764 30459 net.cpp:408] accuracy <- ip2_ip2_0_split_0
I0430 21:16:19.443768 30459 net.cpp:408] accuracy <- label_cifar_1_split_0
I0430 21:16:19.443773 30459 net.cpp:382] accuracy -> accuracy
…
