…
I0501 08:39:16.810557 11512 net.cpp:296] The NetState phase (0) differed from the phase (1) specified by a rule in layer cifar
I0501 08:39:16.810580 11512 net.cpp:296] The NetState phase (0) differed from the phase (1) specified by a rule in layer accuracy
I0501 08:39:16.810680 11512 net.cpp:53] Initializing net from parameters: 
name: "CIFAR"
state {
  phase: TRAIN
  level: 0
  stage: ""
}
layer {
  name: "cifar"
  type: "Data"
  top: "data"
  top: "label"
  include {
    phase: TRAIN
  }
  transform_param {
    mean_file: "examples/cifar10/mean.binaryproto"
  }
  data_param {
    source: "examples/cifar10/cifar10_train_lmdb"
    batch_size: 111
    backend: LMDB
  }
}
layer {
  name: "conv0"
  type: "Convolution"
  bottom: "data"
  top: "conv0"
  param {
    lr_mult: 1
  }
  param {
    lr_mult: 2
  }
  convolution_param {
    num_output: 16
    pad: 2
    kernel_size: 3
    stride: 1
    weight_filler {
      type: "gaussian"
      std: 0.01
    }
    bias_filler {
      type: "constant"
    }
  }
}
layer {
  name: "Sigmoid0"
  type: "Sigmoid"
  bottom: "conv0"
  top: "Sigmoid0"
}
layer {
  name: "pool0"
  type: "Pooling"
  bottom: "Sigmoid0"
  top: "pool0"
  pooling_param {
    pool: AVE
    kernel_size: 3
    stride: 2
  }
}
layer {
  name: "ip1"
  type: "InnerProduct"
  bottom: "pool0"
  top: "ip1"
  param {
    lr_mult: 1
  }
  param {
    lr_mult: 2
  }
  inner_product_param {
    num_output: 10
    weight_filler {
      type: "gaussian"
      std: 0.01
    }
    bias_filler {
      type: "constant"
    }
  }
}
layer {
  name: "relu1"
  type: "ReLU"
  bottom: "ip1"
  top: "ip1"
}
layer {
  name: "ip2"
  type: "InnerProduct"
  bottom: "ip1"
  top: "ip2"
  param {
    lr_mult: 1
  }
  param {
    lr_mult: 2
  }
  inner_product_param {
    num_output: 160
    weight_filler {
      type: "gaussian"
      std: 0.01
    }
    bias_filler {
      type: "constant"
    }
  }
}
layer {
  name: "relu2"
  type: "ReLU"
  bottom: "ip2"
  top: "ip2"
}
layer {
  name: "ip3"
  type: "InnerProduct"
  bottom: "ip2"
  top: "ip3"
  param {
    lr_mult: 1
  }
  param {
    lr_mult: 2
  }
  inner_product_param {
    num_output: 40
    weight_filler {
      type: "gaussian"
      std: 0.01
    }
    bias_filler {
      type: "constant"
    }
  }
}
layer {
  name: "relu3"
  type: "ReLU"
  bottom: "ip3"
  top: "ip3"
}
layer {
  name: "ip4"
  type: "InnerProduct"
  bottom: "ip3"
  top: "ip4"
  param {
    lr_mult: 1
  }
  param {
    lr_mult: 2
  }
  inner_product_param {
    num_output: 10
    weight_filler {
      type: "gaussian"
      std: 0.01
    }
    bias_filler {
      type: "constant"
    }
  }
}
layer {
  name: "loss"
  type: "SoftmaxWithLoss"
  bottom: "ip4"
  bottom: "label"
  top: "loss"
}
I0501 08:39:16.810753 11512 layer_factory.hpp:77] Creating layer cifar
I0501 08:39:16.810853 11512 db_lmdb.cpp:35] Opened lmdb examples/cifar10/cifar10_train_lmdb
I0501 08:39:16.810880 11512 net.cpp:86] Creating Layer cifar
I0501 08:39:16.810889 11512 net.cpp:382] cifar -> data
I0501 08:39:16.810911 11512 net.cpp:382] cifar -> label
I0501 08:39:16.810923 11512 data_transformer.cpp:25] Loading mean file from: examples/cifar10/mean.binaryproto
I0501 08:39:16.813077 11512 data_layer.cpp:45] output data size: 111,3,32,32
I0501 08:39:16.821043 11512 net.cpp:124] Setting up cifar
I0501 08:39:16.821063 11512 net.cpp:131] Top shape: 111 3 32 32 (340992)
I0501 08:39:16.821069 11512 net.cpp:131] Top shape: 111 (111)
I0501 08:39:16.821074 11512 net.cpp:139] Memory required for data: 1364412
I0501 08:39:16.821096 11512 layer_factory.hpp:77] Creating layer conv0
I0501 08:39:16.821115 11512 net.cpp:86] Creating Layer conv0
I0501 08:39:16.821120 11512 net.cpp:408] conv0 <- data
I0501 08:39:16.821131 11512 net.cpp:382] conv0 -> conv0
I0501 08:39:17.103230 11512 net.cpp:124] Setting up conv0
I0501 08:39:17.103258 11512 net.cpp:131] Top shape: 111 16 34 34 (2053056)
I0501 08:39:17.103262 11512 net.cpp:139] Memory required for data: 9576636
I0501 08:39:17.103277 11512 layer_factory.hpp:77] Creating layer Sigmoid0
I0501 08:39:17.103291 11512 net.cpp:86] Creating Layer Sigmoid0
I0501 08:39:17.103296 11512 net.cpp:408] Sigmoid0 <- conv0
I0501 08:39:17.103301 11512 net.cpp:382] Sigmoid0 -> Sigmoid0
I0501 08:39:17.103484 11512 net.cpp:124] Setting up Sigmoid0
I0501 08:39:17.103494 11512 net.cpp:131] Top shape: 111 16 34 34 (2053056)
I0501 08:39:17.103497 11512 net.cpp:139] Memory required for data: 17788860
I0501 08:39:17.103502 11512 layer_factory.hpp:77] Creating layer pool0
I0501 08:39:17.103507 11512 net.cpp:86] Creating Layer pool0
I0501 08:39:17.103510 11512 net.cpp:408] pool0 <- Sigmoid0
I0501 08:39:17.103514 11512 net.cpp:382] pool0 -> pool0
I0501 08:39:17.104241 11512 net.cpp:124] Setting up pool0
I0501 08:39:17.104254 11512 net.cpp:131] Top shape: 111 16 17 17 (513264)
I0501 08:39:17.104257 11512 net.cpp:139] Memory required for data: 19841916
I0501 08:39:17.104261 11512 layer_factory.hpp:77] Creating layer ip1
I0501 08:39:17.104270 11512 net.cpp:86] Creating Layer ip1
I0501 08:39:17.104274 11512 net.cpp:408] ip1 <- pool0
I0501 08:39:17.104279 11512 net.cpp:382] ip1 -> ip1
I0501 08:39:17.106518 11512 net.cpp:124] Setting up ip1
I0501 08:39:17.106546 11512 net.cpp:131] Top shape: 111 10 (1110)
I0501 08:39:17.106550 11512 net.cpp:139] Memory required for data: 19846356
I0501 08:39:17.106572 11512 layer_factory.hpp:77] Creating layer relu1
I0501 08:39:17.106580 11512 net.cpp:86] Creating Layer relu1
I0501 08:39:17.106582 11512 net.cpp:408] relu1 <- ip1
I0501 08:39:17.106604 11512 net.cpp:369] relu1 -> ip1 (in-place)
I0501 08:39:17.106783 11512 net.cpp:124] Setting up relu1
I0501 08:39:17.106792 11512 net.cpp:131] Top shape: 111 10 (1110)
I0501 08:39:17.106796 11512 net.cpp:139] Memory required for data: 19850796
I0501 08:39:17.106798 11512 layer_factory.hpp:77] Creating layer ip2
I0501 08:39:17.106806 11512 net.cpp:86] Creating Layer ip2
I0501 08:39:17.106809 11512 net.cpp:408] ip2 <- ip1
I0501 08:39:17.106814 11512 net.cpp:382] ip2 -> ip2
I0501 08:39:17.106974 11512 net.cpp:124] Setting up ip2
I0501 08:39:17.106981 11512 net.cpp:131] Top shape: 111 160 (17760)
I0501 08:39:17.106984 11512 net.cpp:139] Memory required for data: 19921836
I0501 08:39:17.106992 11512 layer_factory.hpp:77] Creating layer relu2
I0501 08:39:17.106997 11512 net.cpp:86] Creating Layer relu2
I0501 08:39:17.107000 11512 net.cpp:408] relu2 <- ip2
I0501 08:39:17.107004 11512 net.cpp:369] relu2 -> ip2 (in-place)
I0501 08:39:17.107161 11512 net.cpp:124] Setting up relu2
I0501 08:39:17.107169 11512 net.cpp:131] Top shape: 111 160 (17760)
I0501 08:39:17.107172 11512 net.cpp:139] Memory required for data: 19992876
I0501 08:39:17.107175 11512 layer_factory.hpp:77] Creating layer ip3
I0501 08:39:17.107183 11512 net.cpp:86] Creating Layer ip3
I0501 08:39:17.107187 11512 net.cpp:408] ip3 <- ip2
I0501 08:39:17.107192 11512 net.cpp:382] ip3 -> ip3
I0501 08:39:17.108249 11512 net.cpp:124] Setting up ip3
I0501 08:39:17.108261 11512 net.cpp:131] Top shape: 111 40 (4440)
I0501 08:39:17.108264 11512 net.cpp:139] Memory required for data: 20010636
I0501 08:39:17.108270 11512 layer_factory.hpp:77] Creating layer relu3
I0501 08:39:17.108276 11512 net.cpp:86] Creating Layer relu3
I0501 08:39:17.108279 11512 net.cpp:408] relu3 <- ip3
I0501 08:39:17.108283 11512 net.cpp:369] relu3 -> ip3 (in-place)
I0501 08:39:17.108476 11512 net.cpp:124] Setting up relu3
I0501 08:39:17.108485 11512 net.cpp:131] Top shape: 111 40 (4440)
I0501 08:39:17.108489 11512 net.cpp:139] Memory required for data: 20028396
I0501 08:39:17.108491 11512 layer_factory.hpp:77] Creating layer ip4
I0501 08:39:17.108515 11512 net.cpp:86] Creating Layer ip4
I0501 08:39:17.108520 11512 net.cpp:408] ip4 <- ip3
I0501 08:39:17.108525 11512 net.cpp:382] ip4 -> ip4
I0501 08:39:17.108635 11512 net.cpp:124] Setting up ip4
I0501 08:39:17.108644 11512 net.cpp:131] Top shape: 111 10 (1110)
I0501 08:39:17.108646 11512 net.cpp:139] Memory required for data: 20032836
I0501 08:39:17.108654 11512 layer_factory.hpp:77] Creating layer loss
I0501 08:39:17.108659 11512 net.cpp:86] Creating Layer loss
I0501 08:39:17.108662 11512 net.cpp:408] loss <- ip4
I0501 08:39:17.108666 11512 net.cpp:408] loss <- label
I0501 08:39:17.108672 11512 net.cpp:382] loss -> loss
I0501 08:39:17.108690 11512 layer_factory.hpp:77] Creating layer loss
…
I0501 08:39:17.109956 11512 solver.cpp:173] Creating test net (#0) specified by net file: ECE595/cifar/train_test/var_everything/cifar_train_test_517.prototxt
I0501 08:39:17.109999 11512 net.cpp:296] The NetState phase (1) differed from the phase (0) specified by a rule in layer cifar
I0501 08:39:17.110092 11512 net.cpp:53] Initializing net from parameters: 
name: "CIFAR"
state {
  phase: TEST
}
layer {
  name: "cifar"
  type: "Data"
  top: "data"
  top: "label"
  include {
    phase: TEST
  }
  transform_param {
    mean_file: "examples/cifar10/mean.binaryproto"
  }
  data_param {
    source: "examples/cifar10/cifar10_test_lmdb"
    batch_size: 1000
    backend: LMDB
  }
}
layer {
  name: "conv0"
  type: "Convolution"
  bottom: "data"
  top: "conv0"
  param {
    lr_mult: 1
  }
  param {
    lr_mult: 2
  }
  convolution_param {
    num_output: 16
    pad: 2
    kernel_size: 3
    stride: 1
    weight_filler {
      type: "gaussian"
      std: 0.01
    }
    bias_filler {
      type: "constant"
    }
  }
}
layer {
  name: "Sigmoid0"
  type: "Sigmoid"
  bottom: "conv0"
  top: "Sigmoid0"
}
layer {
  name: "pool0"
  type: "Pooling"
  bottom: "Sigmoid0"
  top: "pool0"
  pooling_param {
    pool: AVE
    kernel_size: 3
    stride: 2
  }
}
layer {
  name: "ip1"
  type: "InnerProduct"
  bottom: "pool0"
  top: "ip1"
  param {
    lr_mult: 1
  }
  param {
    lr_mult: 2
  }
  inner_product_param {
    num_output: 10
    weight_filler {
      type: "gaussian"
      std: 0.01
    }
    bias_filler {
      type: "constant"
    }
  }
}
layer {
  name: "relu1"
  type: "ReLU"
  bottom: "ip1"
  top: "ip1"
}
layer {
  name: "ip2"
  type: "InnerProduct"
  bottom: "ip1"
  top: "ip2"
  param {
    lr_mult: 1
  }
  param {
    lr_mult: 2
  }
  inner_product_param {
    num_output: 160
    weight_filler {
      type: "gaussian"
      std: 0.01
    }
    bias_filler {
      type: "constant"
    }
  }
}
layer {
  name: "relu2"
  type: "ReLU"
  bottom: "ip2"
  top: "ip2"
}
layer {
  name: "ip3"
  type: "InnerProduct"
  bottom: "ip2"
  top: "ip3"
  param {
    lr_mult: 1
  }
  param {
    lr_mult: 2
  }
  inner_product_param {
    num_output: 40
    weight_filler {
      type: "gaussian"
      std: 0.01
    }
    bias_filler {
      type: "constant"
    }
  }
}
layer {
  name: "relu3"
  type: "ReLU"
  bottom: "ip3"
  top: "ip3"
}
layer {
  name: "ip4"
  type: "InnerProduct"
  bottom: "ip3"
  top: "ip4"
  param {
    lr_mult: 1
  }
  param {
    lr_mult: 2
  }
  inner_product_param {
    num_output: 10
    weight_filler {
      type: "gaussian"
      std: 0.01
    }
    bias_filler {
      type: "constant"
    }
  }
}
layer {
  name: "accuracy"
  type: "Accuracy"
  bottom: "ip4"
  bottom: "label"
  top: "accuracy"
  include {
    phase: TEST
  }
}
layer {
  name: "loss"
  type: "SoftmaxWithLoss"
  bottom: "ip4"
  bottom: "label"
  top: "loss"
}
I0501 08:39:17.110173 11512 layer_factory.hpp:77] Creating layer cifar
I0501 08:39:17.110216 11512 db_lmdb.cpp:35] Opened lmdb examples/cifar10/cifar10_test_lmdb
I0501 08:39:17.110244 11512 net.cpp:86] Creating Layer cifar
I0501 08:39:17.110249 11512 net.cpp:382] cifar -> data
I0501 08:39:17.110271 11512 net.cpp:382] cifar -> label
I0501 08:39:17.110277 11512 data_transformer.cpp:25] Loading mean file from: examples/cifar10/mean.binaryproto
I0501 08:39:17.110421 11512 data_layer.cpp:45] output data size: 1000,3,32,32
I0501 08:39:17.132046 11512 net.cpp:124] Setting up cifar
I0501 08:39:17.132087 11512 net.cpp:131] Top shape: 1000 3 32 32 (3072000)
I0501 08:39:17.132093 11512 net.cpp:131] Top shape: 1000 (1000)
I0501 08:39:17.132097 11512 net.cpp:139] Memory required for data: 12292000
I0501 08:39:17.132102 11512 layer_factory.hpp:77] Creating layer label_cifar_1_split
I0501 08:39:17.132136 11512 net.cpp:86] Creating Layer label_cifar_1_split
I0501 08:39:17.132141 11512 net.cpp:408] label_cifar_1_split <- label
I0501 08:39:17.132148 11512 net.cpp:382] label_cifar_1_split -> label_cifar_1_split_0
I0501 08:39:17.132156 11512 net.cpp:382] label_cifar_1_split -> label_cifar_1_split_1
I0501 08:39:17.132277 11512 net.cpp:124] Setting up label_cifar_1_split
I0501 08:39:17.132285 11512 net.cpp:131] Top shape: 1000 (1000)
I0501 08:39:17.132289 11512 net.cpp:131] Top shape: 1000 (1000)
I0501 08:39:17.132292 11512 net.cpp:139] Memory required for data: 12300000
I0501 08:39:17.132295 11512 layer_factory.hpp:77] Creating layer conv0
I0501 08:39:17.132308 11512 net.cpp:86] Creating Layer conv0
I0501 08:39:17.132311 11512 net.cpp:408] conv0 <- data
I0501 08:39:17.132316 11512 net.cpp:382] conv0 -> conv0
I0501 08:39:17.133883 11512 net.cpp:124] Setting up conv0
I0501 08:39:17.133898 11512 net.cpp:131] Top shape: 1000 16 34 34 (18496000)
I0501 08:39:17.133900 11512 net.cpp:139] Memory required for data: 86284000
I0501 08:39:17.133909 11512 layer_factory.hpp:77] Creating layer Sigmoid0
I0501 08:39:17.133915 11512 net.cpp:86] Creating Layer Sigmoid0
I0501 08:39:17.133934 11512 net.cpp:408] Sigmoid0 <- conv0
I0501 08:39:17.133940 11512 net.cpp:382] Sigmoid0 -> Sigmoid0
I0501 08:39:17.135171 11512 net.cpp:124] Setting up Sigmoid0
I0501 08:39:17.135182 11512 net.cpp:131] Top shape: 1000 16 34 34 (18496000)
I0501 08:39:17.135200 11512 net.cpp:139] Memory required for data: 160268000
I0501 08:39:17.135203 11512 layer_factory.hpp:77] Creating layer pool0
I0501 08:39:17.135215 11512 net.cpp:86] Creating Layer pool0
I0501 08:39:17.135218 11512 net.cpp:408] pool0 <- Sigmoid0
I0501 08:39:17.135223 11512 net.cpp:382] pool0 -> pool0
I0501 08:39:17.135429 11512 net.cpp:124] Setting up pool0
I0501 08:39:17.135438 11512 net.cpp:131] Top shape: 1000 16 17 17 (4624000)
I0501 08:39:17.135442 11512 net.cpp:139] Memory required for data: 178764000
I0501 08:39:17.135444 11512 layer_factory.hpp:77] Creating layer ip1
I0501 08:39:17.135453 11512 net.cpp:86] Creating Layer ip1
I0501 08:39:17.135457 11512 net.cpp:408] ip1 <- pool0
I0501 08:39:17.135462 11512 net.cpp:382] ip1 -> ip1
I0501 08:39:17.136752 11512 net.cpp:124] Setting up ip1
I0501 08:39:17.136760 11512 net.cpp:131] Top shape: 1000 10 (10000)
I0501 08:39:17.136764 11512 net.cpp:139] Memory required for data: 178804000
I0501 08:39:17.136785 11512 layer_factory.hpp:77] Creating layer relu1
I0501 08:39:17.136790 11512 net.cpp:86] Creating Layer relu1
I0501 08:39:17.136795 11512 net.cpp:408] relu1 <- ip1
I0501 08:39:17.136798 11512 net.cpp:369] relu1 -> ip1 (in-place)
I0501 08:39:17.137022 11512 net.cpp:124] Setting up relu1
I0501 08:39:17.137032 11512 net.cpp:131] Top shape: 1000 10 (10000)
I0501 08:39:17.137035 11512 net.cpp:139] Memory required for data: 178844000
I0501 08:39:17.137038 11512 layer_factory.hpp:77] Creating layer ip2
I0501 08:39:17.137045 11512 net.cpp:86] Creating Layer ip2
I0501 08:39:17.137049 11512 net.cpp:408] ip2 <- ip1
I0501 08:39:17.137055 11512 net.cpp:382] ip2 -> ip2
I0501 08:39:17.137243 11512 net.cpp:124] Setting up ip2
I0501 08:39:17.137250 11512 net.cpp:131] Top shape: 1000 160 (160000)
I0501 08:39:17.137253 11512 net.cpp:139] Memory required for data: 179484000
I0501 08:39:17.137261 11512 layer_factory.hpp:77] Creating layer relu2
I0501 08:39:17.137269 11512 net.cpp:86] Creating Layer relu2
I0501 08:39:17.137272 11512 net.cpp:408] relu2 <- ip2
I0501 08:39:17.137276 11512 net.cpp:369] relu2 -> ip2 (in-place)
I0501 08:39:17.138042 11512 net.cpp:124] Setting up relu2
I0501 08:39:17.138054 11512 net.cpp:131] Top shape: 1000 160 (160000)
I0501 08:39:17.138057 11512 net.cpp:139] Memory required for data: 180124000
I0501 08:39:17.138061 11512 layer_factory.hpp:77] Creating layer ip3
I0501 08:39:17.138069 11512 net.cpp:86] Creating Layer ip3
I0501 08:39:17.138072 11512 net.cpp:408] ip3 <- ip2
I0501 08:39:17.138078 11512 net.cpp:382] ip3 -> ip3
I0501 08:39:17.138381 11512 net.cpp:124] Setting up ip3
I0501 08:39:17.138388 11512 net.cpp:131] Top shape: 1000 40 (40000)
I0501 08:39:17.138392 11512 net.cpp:139] Memory required for data: 180284000
I0501 08:39:17.138397 11512 layer_factory.hpp:77] Creating layer relu3
I0501 08:39:17.138402 11512 net.cpp:86] Creating Layer relu3
I0501 08:39:17.138406 11512 net.cpp:408] relu3 <- ip3
I0501 08:39:17.138411 11512 net.cpp:369] relu3 -> ip3 (in-place)
I0501 08:39:17.138568 11512 net.cpp:124] Setting up relu3
I0501 08:39:17.138576 11512 net.cpp:131] Top shape: 1000 40 (40000)
I0501 08:39:17.138579 11512 net.cpp:139] Memory required for data: 180444000
I0501 08:39:17.138582 11512 layer_factory.hpp:77] Creating layer ip4
I0501 08:39:17.138604 11512 net.cpp:86] Creating Layer ip4
I0501 08:39:17.138607 11512 net.cpp:408] ip4 <- ip3
I0501 08:39:17.138612 11512 net.cpp:382] ip4 -> ip4
I0501 08:39:17.138721 11512 net.cpp:124] Setting up ip4
I0501 08:39:17.138728 11512 net.cpp:131] Top shape: 1000 10 (10000)
I0501 08:39:17.138731 11512 net.cpp:139] Memory required for data: 180484000
I0501 08:39:17.138739 11512 layer_factory.hpp:77] Creating layer ip4_ip4_0_split
I0501 08:39:17.138746 11512 net.cpp:86] Creating Layer ip4_ip4_0_split
I0501 08:39:17.138748 11512 net.cpp:408] ip4_ip4_0_split <- ip4
I0501 08:39:17.138752 11512 net.cpp:382] ip4_ip4_0_split -> ip4_ip4_0_split_0
I0501 08:39:17.138757 11512 net.cpp:382] ip4_ip4_0_split -> ip4_ip4_0_split_1
I0501 08:39:17.138788 11512 net.cpp:124] Setting up ip4_ip4_0_split
I0501 08:39:17.138798 11512 net.cpp:131] Top shape: 1000 10 (10000)
I0501 08:39:17.138802 11512 net.cpp:131] Top shape: 1000 10 (10000)
I0501 08:39:17.138804 11512 net.cpp:139] Memory required for data: 180564000
I0501 08:39:17.138808 11512 layer_factory.hpp:77] Creating layer accuracy
I0501 08:39:17.138813 11512 net.cpp:86] Creating Layer accuracy
I0501 08:39:17.138815 11512 net.cpp:408] accuracy <- ip4_ip4_0_split_0
I0501 08:39:17.138819 11512 net.cpp:408] accuracy <- label_cifar_1_split_0
I0501 08:39:17.138824 11512 net.cpp:382] accuracy -> accuracy
…
