…
I0501 00:27:39.315145  7044 net.cpp:296] The NetState phase (0) differed from the phase (1) specified by a rule in layer cifar
I0501 00:27:39.315160  7044 net.cpp:296] The NetState phase (0) differed from the phase (1) specified by a rule in layer accuracy
I0501 00:27:39.315268  7044 net.cpp:53] Initializing net from parameters: 
name: "CIFAR"
state {
  phase: TRAIN
  level: 0
  stage: ""
}
layer {
  name: "cifar"
  type: "Data"
  top: "data"
  top: "label"
  include {
    phase: TRAIN
  }
  transform_param {
    mean_file: "examples/cifar10/mean.binaryproto"
  }
  data_param {
    source: "examples/cifar10/cifar10_train_lmdb"
    batch_size: 111
    backend: LMDB
  }
}
layer {
  name: "conv0"
  type: "Convolution"
  bottom: "data"
  top: "conv0"
  param {
    lr_mult: 1
  }
  param {
    lr_mult: 2
  }
  convolution_param {
    num_output: 8
    pad: 2
    kernel_size: 3
    stride: 1
    weight_filler {
      type: "gaussian"
      std: 0.01
    }
    bias_filler {
      type: "constant"
    }
  }
}
layer {
  name: "Sigmoid0"
  type: "Sigmoid"
  bottom: "conv0"
  top: "Sigmoid0"
}
layer {
  name: "pool0"
  type: "Pooling"
  bottom: "Sigmoid0"
  top: "pool0"
  pooling_param {
    pool: AVE
    kernel_size: 3
    stride: 2
  }
}
layer {
  name: "ip1"
  type: "InnerProduct"
  bottom: "pool0"
  top: "ip1"
  param {
    lr_mult: 1
  }
  param {
    lr_mult: 2
  }
  inner_product_param {
    num_output: 40
    weight_filler {
      type: "gaussian"
      std: 0.01
    }
    bias_filler {
      type: "constant"
    }
  }
}
layer {
  name: "relu1"
  type: "ReLU"
  bottom: "ip1"
  top: "ip1"
}
layer {
  name: "ip2"
  type: "InnerProduct"
  bottom: "ip1"
  top: "ip2"
  param {
    lr_mult: 1
  }
  param {
    lr_mult: 2
  }
  inner_product_param {
    num_output: 160
    weight_filler {
      type: "gaussian"
      std: 0.01
    }
    bias_filler {
      type: "constant"
    }
  }
}
layer {
  name: "relu2"
  type: "ReLU"
  bottom: "ip2"
  top: "ip2"
}
layer {
  name: "ip3"
  type: "InnerProduct"
  bottom: "ip2"
  top: "ip3"
  param {
    lr_mult: 1
  }
  param {
    lr_mult: 2
  }
  inner_product_param {
    num_output: 80
    weight_filler {
      type: "gaussian"
      std: 0.01
    }
    bias_filler {
      type: "constant"
    }
  }
}
layer {
  name: "relu3"
  type: "ReLU"
  bottom: "ip3"
  top: "ip3"
}
layer {
  name: "ip4"
  type: "InnerProduct"
  bottom: "ip3"
  top: "ip4"
  param {
    lr_mult: 1
  }
  param {
    lr_mult: 2
  }
  inner_product_param {
    num_output: 10
    weight_filler {
      type: "gaussian"
      std: 0.01
    }
    bias_filler {
      type: "constant"
    }
  }
}
layer {
  name: "loss"
  type: "SoftmaxWithLoss"
  bottom: "ip4"
  bottom: "label"
  top: "loss"
}
I0501 00:27:39.315342  7044 layer_factory.hpp:77] Creating layer cifar
I0501 00:27:39.315426  7044 db_lmdb.cpp:35] Opened lmdb examples/cifar10/cifar10_train_lmdb
I0501 00:27:39.315448  7044 net.cpp:86] Creating Layer cifar
I0501 00:27:39.315455  7044 net.cpp:382] cifar -> data
I0501 00:27:39.315474  7044 net.cpp:382] cifar -> label
I0501 00:27:39.315485  7044 data_transformer.cpp:25] Loading mean file from: examples/cifar10/mean.binaryproto
I0501 00:27:39.317229  7044 data_layer.cpp:45] output data size: 111,3,32,32
I0501 00:27:39.323581  7044 net.cpp:124] Setting up cifar
I0501 00:27:39.323596  7044 net.cpp:131] Top shape: 111 3 32 32 (340992)
I0501 00:27:39.323601  7044 net.cpp:131] Top shape: 111 (111)
I0501 00:27:39.323603  7044 net.cpp:139] Memory required for data: 1364412
I0501 00:27:39.323621  7044 layer_factory.hpp:77] Creating layer conv0
I0501 00:27:39.323635  7044 net.cpp:86] Creating Layer conv0
I0501 00:27:39.323639  7044 net.cpp:408] conv0 <- data
I0501 00:27:39.323664  7044 net.cpp:382] conv0 -> conv0
I0501 00:27:39.545161  7044 net.cpp:124] Setting up conv0
I0501 00:27:39.545187  7044 net.cpp:131] Top shape: 111 8 34 34 (1026528)
I0501 00:27:39.545192  7044 net.cpp:139] Memory required for data: 5470524
I0501 00:27:39.545207  7044 layer_factory.hpp:77] Creating layer Sigmoid0
I0501 00:27:39.545233  7044 net.cpp:86] Creating Layer Sigmoid0
I0501 00:27:39.545236  7044 net.cpp:408] Sigmoid0 <- conv0
I0501 00:27:39.545241  7044 net.cpp:382] Sigmoid0 -> Sigmoid0
I0501 00:27:39.545425  7044 net.cpp:124] Setting up Sigmoid0
I0501 00:27:39.545435  7044 net.cpp:131] Top shape: 111 8 34 34 (1026528)
I0501 00:27:39.545439  7044 net.cpp:139] Memory required for data: 9576636
I0501 00:27:39.545441  7044 layer_factory.hpp:77] Creating layer pool0
I0501 00:27:39.545449  7044 net.cpp:86] Creating Layer pool0
I0501 00:27:39.545452  7044 net.cpp:408] pool0 <- Sigmoid0
I0501 00:27:39.545456  7044 net.cpp:382] pool0 -> pool0
I0501 00:27:39.546162  7044 net.cpp:124] Setting up pool0
I0501 00:27:39.546175  7044 net.cpp:131] Top shape: 111 8 17 17 (256632)
I0501 00:27:39.546177  7044 net.cpp:139] Memory required for data: 10603164
I0501 00:27:39.546180  7044 layer_factory.hpp:77] Creating layer ip1
I0501 00:27:39.546192  7044 net.cpp:86] Creating Layer ip1
I0501 00:27:39.546196  7044 net.cpp:408] ip1 <- pool0
I0501 00:27:39.546200  7044 net.cpp:382] ip1 -> ip1
I0501 00:27:39.548589  7044 net.cpp:124] Setting up ip1
I0501 00:27:39.548596  7044 net.cpp:131] Top shape: 111 40 (4440)
I0501 00:27:39.548599  7044 net.cpp:139] Memory required for data: 10620924
I0501 00:27:39.548621  7044 layer_factory.hpp:77] Creating layer relu1
I0501 00:27:39.548626  7044 net.cpp:86] Creating Layer relu1
I0501 00:27:39.548629  7044 net.cpp:408] relu1 <- ip1
I0501 00:27:39.548633  7044 net.cpp:369] relu1 -> ip1 (in-place)
I0501 00:27:39.548794  7044 net.cpp:124] Setting up relu1
I0501 00:27:39.548801  7044 net.cpp:131] Top shape: 111 40 (4440)
I0501 00:27:39.548804  7044 net.cpp:139] Memory required for data: 10638684
I0501 00:27:39.548807  7044 layer_factory.hpp:77] Creating layer ip2
I0501 00:27:39.548838  7044 net.cpp:86] Creating Layer ip2
I0501 00:27:39.548841  7044 net.cpp:408] ip2 <- ip1
I0501 00:27:39.548846  7044 net.cpp:382] ip2 -> ip2
I0501 00:27:39.549943  7044 net.cpp:124] Setting up ip2
I0501 00:27:39.549955  7044 net.cpp:131] Top shape: 111 160 (17760)
I0501 00:27:39.549974  7044 net.cpp:139] Memory required for data: 10709724
I0501 00:27:39.549996  7044 layer_factory.hpp:77] Creating layer relu2
I0501 00:27:39.550001  7044 net.cpp:86] Creating Layer relu2
I0501 00:27:39.550004  7044 net.cpp:408] relu2 <- ip2
I0501 00:27:39.550009  7044 net.cpp:369] relu2 -> ip2 (in-place)
I0501 00:27:39.550171  7044 net.cpp:124] Setting up relu2
I0501 00:27:39.550179  7044 net.cpp:131] Top shape: 111 160 (17760)
I0501 00:27:39.550182  7044 net.cpp:139] Memory required for data: 10780764
I0501 00:27:39.550190  7044 layer_factory.hpp:77] Creating layer ip3
I0501 00:27:39.550197  7044 net.cpp:86] Creating Layer ip3
I0501 00:27:39.550200  7044 net.cpp:408] ip3 <- ip2
I0501 00:27:39.550205  7044 net.cpp:382] ip3 -> ip3
I0501 00:27:39.550618  7044 net.cpp:124] Setting up ip3
I0501 00:27:39.550626  7044 net.cpp:131] Top shape: 111 80 (8880)
I0501 00:27:39.550627  7044 net.cpp:139] Memory required for data: 10816284
I0501 00:27:39.550632  7044 layer_factory.hpp:77] Creating layer relu3
I0501 00:27:39.550637  7044 net.cpp:86] Creating Layer relu3
I0501 00:27:39.550639  7044 net.cpp:408] relu3 <- ip3
I0501 00:27:39.550642  7044 net.cpp:369] relu3 -> ip3 (in-place)
I0501 00:27:39.550813  7044 net.cpp:124] Setting up relu3
I0501 00:27:39.550822  7044 net.cpp:131] Top shape: 111 80 (8880)
I0501 00:27:39.550824  7044 net.cpp:139] Memory required for data: 10851804
I0501 00:27:39.550827  7044 layer_factory.hpp:77] Creating layer ip4
I0501 00:27:39.550848  7044 net.cpp:86] Creating Layer ip4
I0501 00:27:39.550851  7044 net.cpp:408] ip4 <- ip3
I0501 00:27:39.550856  7044 net.cpp:382] ip4 -> ip4
I0501 00:27:39.551805  7044 net.cpp:124] Setting up ip4
I0501 00:27:39.551831  7044 net.cpp:131] Top shape: 111 10 (1110)
I0501 00:27:39.551851  7044 net.cpp:139] Memory required for data: 10856244
I0501 00:27:39.551858  7044 layer_factory.hpp:77] Creating layer loss
I0501 00:27:39.551879  7044 net.cpp:86] Creating Layer loss
I0501 00:27:39.551883  7044 net.cpp:408] loss <- ip4
I0501 00:27:39.551887  7044 net.cpp:408] loss <- label
I0501 00:27:39.551892  7044 net.cpp:382] loss -> loss
I0501 00:27:39.551909  7044 layer_factory.hpp:77] Creating layer loss
…
I0501 00:27:39.553192  7044 solver.cpp:173] Creating test net (#0) specified by net file: ECE595/cifar/train_test/var_everything/cifar_train_test_258.prototxt
I0501 00:27:39.553248  7044 net.cpp:296] The NetState phase (1) differed from the phase (0) specified by a rule in layer cifar
I0501 00:27:39.553380  7044 net.cpp:53] Initializing net from parameters: 
name: "CIFAR"
state {
  phase: TEST
}
layer {
  name: "cifar"
  type: "Data"
  top: "data"
  top: "label"
  include {
    phase: TEST
  }
  transform_param {
    mean_file: "examples/cifar10/mean.binaryproto"
  }
  data_param {
    source: "examples/cifar10/cifar10_test_lmdb"
    batch_size: 1000
    backend: LMDB
  }
}
layer {
  name: "conv0"
  type: "Convolution"
  bottom: "data"
  top: "conv0"
  param {
    lr_mult: 1
  }
  param {
    lr_mult: 2
  }
  convolution_param {
    num_output: 8
    pad: 2
    kernel_size: 3
    stride: 1
    weight_filler {
      type: "gaussian"
      std: 0.01
    }
    bias_filler {
      type: "constant"
    }
  }
}
layer {
  name: "Sigmoid0"
  type: "Sigmoid"
  bottom: "conv0"
  top: "Sigmoid0"
}
layer {
  name: "pool0"
  type: "Pooling"
  bottom: "Sigmoid0"
  top: "pool0"
  pooling_param {
    pool: AVE
    kernel_size: 3
    stride: 2
  }
}
layer {
  name: "ip1"
  type: "InnerProduct"
  bottom: "pool0"
  top: "ip1"
  param {
    lr_mult: 1
  }
  param {
    lr_mult: 2
  }
  inner_product_param {
    num_output: 40
    weight_filler {
      type: "gaussian"
      std: 0.01
    }
    bias_filler {
      type: "constant"
    }
  }
}
layer {
  name: "relu1"
  type: "ReLU"
  bottom: "ip1"
  top: "ip1"
}
layer {
  name: "ip2"
  type: "InnerProduct"
  bottom: "ip1"
  top: "ip2"
  param {
    lr_mult: 1
  }
  param {
    lr_mult: 2
  }
  inner_product_param {
    num_output: 160
    weight_filler {
      type: "gaussian"
      std: 0.01
    }
    bias_filler {
      type: "constant"
    }
  }
}
layer {
  name: "relu2"
  type: "ReLU"
  bottom: "ip2"
  top: "ip2"
}
layer {
  name: "ip3"
  type: "InnerProduct"
  bottom: "ip2"
  top: "ip3"
  param {
    lr_mult: 1
  }
  param {
    lr_mult: 2
  }
  inner_product_param {
    num_output: 80
    weight_filler {
      type: "gaussian"
      std: 0.01
    }
    bias_filler {
      type: "constant"
    }
  }
}
layer {
  name: "relu3"
  type: "ReLU"
  bottom: "ip3"
  top: "ip3"
}
layer {
  name: "ip4"
  type: "InnerProduct"
  bottom: "ip3"
  top: "ip4"
  param {
    lr_mult: 1
  }
  param {
    lr_mult: 2
  }
  inner_product_param {
    num_output: 10
    weight_filler {
      type: "gaussian"
      std: 0.01
    }
    bias_filler {
      type: "constant"
    }
  }
}
layer {
  name: "accuracy"
  type: "Accuracy"
  bottom: "ip4"
  bottom: "label"
  top: "accuracy"
  include {
    phase: TEST
  }
}
layer {
  name: "loss"
  type: "SoftmaxWithLoss"
  bottom: "ip4"
  bottom: "label"
  top: "loss"
}
I0501 00:27:39.553455  7044 layer_factory.hpp:77] Creating layer cifar
I0501 00:27:39.553499  7044 db_lmdb.cpp:35] Opened lmdb examples/cifar10/cifar10_test_lmdb
I0501 00:27:39.553511  7044 net.cpp:86] Creating Layer cifar
I0501 00:27:39.553515  7044 net.cpp:382] cifar -> data
I0501 00:27:39.553522  7044 net.cpp:382] cifar -> label
I0501 00:27:39.553529  7044 data_transformer.cpp:25] Loading mean file from: examples/cifar10/mean.binaryproto
I0501 00:27:39.553661  7044 data_layer.cpp:45] output data size: 1000,3,32,32
I0501 00:27:39.575840  7044 net.cpp:124] Setting up cifar
I0501 00:27:39.575881  7044 net.cpp:131] Top shape: 1000 3 32 32 (3072000)
I0501 00:27:39.575886  7044 net.cpp:131] Top shape: 1000 (1000)
I0501 00:27:39.575889  7044 net.cpp:139] Memory required for data: 12292000
I0501 00:27:39.575894  7044 layer_factory.hpp:77] Creating layer label_cifar_1_split
I0501 00:27:39.575927  7044 net.cpp:86] Creating Layer label_cifar_1_split
I0501 00:27:39.575947  7044 net.cpp:408] label_cifar_1_split <- label
I0501 00:27:39.575955  7044 net.cpp:382] label_cifar_1_split -> label_cifar_1_split_0
I0501 00:27:39.575980  7044 net.cpp:382] label_cifar_1_split -> label_cifar_1_split_1
I0501 00:27:39.576086  7044 net.cpp:124] Setting up label_cifar_1_split
I0501 00:27:39.576093  7044 net.cpp:131] Top shape: 1000 (1000)
I0501 00:27:39.576097  7044 net.cpp:131] Top shape: 1000 (1000)
I0501 00:27:39.576100  7044 net.cpp:139] Memory required for data: 12300000
I0501 00:27:39.576104  7044 layer_factory.hpp:77] Creating layer conv0
I0501 00:27:39.576115  7044 net.cpp:86] Creating Layer conv0
I0501 00:27:39.576122  7044 net.cpp:408] conv0 <- data
I0501 00:27:39.576126  7044 net.cpp:382] conv0 -> conv0
I0501 00:27:39.577890  7044 net.cpp:124] Setting up conv0
I0501 00:27:39.577919  7044 net.cpp:131] Top shape: 1000 8 34 34 (9248000)
I0501 00:27:39.577922  7044 net.cpp:139] Memory required for data: 49292000
I0501 00:27:39.577931  7044 layer_factory.hpp:77] Creating layer Sigmoid0
I0501 00:27:39.577939  7044 net.cpp:86] Creating Layer Sigmoid0
I0501 00:27:39.577942  7044 net.cpp:408] Sigmoid0 <- conv0
I0501 00:27:39.577946  7044 net.cpp:382] Sigmoid0 -> Sigmoid0
I0501 00:27:39.578148  7044 net.cpp:124] Setting up Sigmoid0
I0501 00:27:39.578157  7044 net.cpp:131] Top shape: 1000 8 34 34 (9248000)
I0501 00:27:39.578161  7044 net.cpp:139] Memory required for data: 86284000
I0501 00:27:39.578164  7044 layer_factory.hpp:77] Creating layer pool0
I0501 00:27:39.578172  7044 net.cpp:86] Creating Layer pool0
I0501 00:27:39.578176  7044 net.cpp:408] pool0 <- Sigmoid0
I0501 00:27:39.578181  7044 net.cpp:382] pool0 -> pool0
I0501 00:27:39.578341  7044 net.cpp:124] Setting up pool0
I0501 00:27:39.578349  7044 net.cpp:131] Top shape: 1000 8 17 17 (2312000)
I0501 00:27:39.578352  7044 net.cpp:139] Memory required for data: 95532000
I0501 00:27:39.578356  7044 layer_factory.hpp:77] Creating layer ip1
I0501 00:27:39.578363  7044 net.cpp:86] Creating Layer ip1
I0501 00:27:39.578366  7044 net.cpp:408] ip1 <- pool0
I0501 00:27:39.578372  7044 net.cpp:382] ip1 -> ip1
I0501 00:27:39.580879  7044 net.cpp:124] Setting up ip1
I0501 00:27:39.580905  7044 net.cpp:131] Top shape: 1000 40 (40000)
I0501 00:27:39.580909  7044 net.cpp:139] Memory required for data: 95692000
I0501 00:27:39.580931  7044 layer_factory.hpp:77] Creating layer relu1
I0501 00:27:39.580937  7044 net.cpp:86] Creating Layer relu1
I0501 00:27:39.580941  7044 net.cpp:408] relu1 <- ip1
I0501 00:27:39.580945  7044 net.cpp:369] relu1 -> ip1 (in-place)
I0501 00:27:39.581142  7044 net.cpp:124] Setting up relu1
I0501 00:27:39.581151  7044 net.cpp:131] Top shape: 1000 40 (40000)
I0501 00:27:39.581154  7044 net.cpp:139] Memory required for data: 95852000
I0501 00:27:39.581172  7044 layer_factory.hpp:77] Creating layer ip2
I0501 00:27:39.581179  7044 net.cpp:86] Creating Layer ip2
I0501 00:27:39.581185  7044 net.cpp:408] ip2 <- ip1
I0501 00:27:39.581207  7044 net.cpp:382] ip2 -> ip2
I0501 00:27:39.581508  7044 net.cpp:124] Setting up ip2
I0501 00:27:39.581516  7044 net.cpp:131] Top shape: 1000 160 (160000)
I0501 00:27:39.581519  7044 net.cpp:139] Memory required for data: 96492000
I0501 00:27:39.581527  7044 layer_factory.hpp:77] Creating layer relu2
I0501 00:27:39.581533  7044 net.cpp:86] Creating Layer relu2
I0501 00:27:39.581537  7044 net.cpp:408] relu2 <- ip2
I0501 00:27:39.581540  7044 net.cpp:369] relu2 -> ip2 (in-place)
I0501 00:27:39.582322  7044 net.cpp:124] Setting up relu2
I0501 00:27:39.582334  7044 net.cpp:131] Top shape: 1000 160 (160000)
I0501 00:27:39.582352  7044 net.cpp:139] Memory required for data: 97132000
I0501 00:27:39.582355  7044 layer_factory.hpp:77] Creating layer ip3
I0501 00:27:39.582361  7044 net.cpp:86] Creating Layer ip3
I0501 00:27:39.582365  7044 net.cpp:408] ip3 <- ip2
I0501 00:27:39.582370  7044 net.cpp:382] ip3 -> ip3
I0501 00:27:39.582895  7044 net.cpp:124] Setting up ip3
I0501 00:27:39.582901  7044 net.cpp:131] Top shape: 1000 80 (80000)
I0501 00:27:39.582921  7044 net.cpp:139] Memory required for data: 97452000
I0501 00:27:39.582926  7044 layer_factory.hpp:77] Creating layer relu3
I0501 00:27:39.582931  7044 net.cpp:86] Creating Layer relu3
I0501 00:27:39.582934  7044 net.cpp:408] relu3 <- ip3
I0501 00:27:39.582939  7044 net.cpp:369] relu3 -> ip3 (in-place)
I0501 00:27:39.583104  7044 net.cpp:124] Setting up relu3
I0501 00:27:39.583112  7044 net.cpp:131] Top shape: 1000 80 (80000)
I0501 00:27:39.583115  7044 net.cpp:139] Memory required for data: 97772000
I0501 00:27:39.583119  7044 layer_factory.hpp:77] Creating layer ip4
I0501 00:27:39.583137  7044 net.cpp:86] Creating Layer ip4
I0501 00:27:39.583156  7044 net.cpp:408] ip4 <- ip3
I0501 00:27:39.583163  7044 net.cpp:382] ip4 -> ip4
I0501 00:27:39.583302  7044 net.cpp:124] Setting up ip4
I0501 00:27:39.583309  7044 net.cpp:131] Top shape: 1000 10 (10000)
I0501 00:27:39.583313  7044 net.cpp:139] Memory required for data: 97812000
I0501 00:27:39.583322  7044 layer_factory.hpp:77] Creating layer ip4_ip4_0_split
I0501 00:27:39.583326  7044 net.cpp:86] Creating Layer ip4_ip4_0_split
I0501 00:27:39.583329  7044 net.cpp:408] ip4_ip4_0_split <- ip4
I0501 00:27:39.583333  7044 net.cpp:382] ip4_ip4_0_split -> ip4_ip4_0_split_0
I0501 00:27:39.583339  7044 net.cpp:382] ip4_ip4_0_split -> ip4_ip4_0_split_1
I0501 00:27:39.583370  7044 net.cpp:124] Setting up ip4_ip4_0_split
I0501 00:27:39.583377  7044 net.cpp:131] Top shape: 1000 10 (10000)
I0501 00:27:39.583380  7044 net.cpp:131] Top shape: 1000 10 (10000)
I0501 00:27:39.583384  7044 net.cpp:139] Memory required for data: 97892000
I0501 00:27:39.583386  7044 layer_factory.hpp:77] Creating layer accuracy
I0501 00:27:39.583392  7044 net.cpp:86] Creating Layer accuracy
I0501 00:27:39.583395  7044 net.cpp:408] accuracy <- ip4_ip4_0_split_0
I0501 00:27:39.583400  7044 net.cpp:408] accuracy <- label_cifar_1_split_0
I0501 00:27:39.583418  7044 net.cpp:382] accuracy -> accuracy
…
