…
I0430 16:26:57.708168 17420 net.cpp:296] The NetState phase (0) differed from the phase (1) specified by a rule in layer cifar
I0430 16:26:57.708180 17420 net.cpp:296] The NetState phase (0) differed from the phase (1) specified by a rule in layer accuracy
I0430 16:26:57.708245 17420 net.cpp:53] Initializing net from parameters: 
name: "CIFAR"
state {
  phase: TRAIN
  level: 0
  stage: ""
}
layer {
  name: "cifar"
  type: "Data"
  top: "data"
  top: "label"
  include {
    phase: TRAIN
  }
  transform_param {
    mean_file: "examples/cifar10/mean.binaryproto"
  }
  data_param {
    source: "examples/cifar10/cifar10_train_lmdb"
    batch_size: 111
    backend: LMDB
  }
}
layer {
  name: "ip1"
  type: "InnerProduct"
  bottom: "data"
  top: "ip1"
  param {
    lr_mult: 1
  }
  param {
    lr_mult: 2
  }
  inner_product_param {
    num_output: 80
    weight_filler {
      type: "gaussian"
      std: 0.01
    }
    bias_filler {
      type: "constant"
    }
  }
}
layer {
  name: "relu1"
  type: "ReLU"
  bottom: "ip1"
  top: "ip1"
}
layer {
  name: "ip2"
  type: "InnerProduct"
  bottom: "ip1"
  top: "ip2"
  param {
    lr_mult: 1
  }
  param {
    lr_mult: 2
  }
  inner_product_param {
    num_output: 10
    weight_filler {
      type: "gaussian"
      std: 0.01
    }
    bias_filler {
      type: "constant"
    }
  }
}
layer {
  name: "loss"
  type: "SoftmaxWithLoss"
  bottom: "ip2"
  bottom: "label"
  top: "loss"
}
I0430 16:26:57.708300 17420 layer_factory.hpp:77] Creating layer cifar
I0430 16:26:57.708397 17420 db_lmdb.cpp:35] Opened lmdb examples/cifar10/cifar10_train_lmdb
I0430 16:26:57.708423 17420 net.cpp:86] Creating Layer cifar
I0430 16:26:57.708431 17420 net.cpp:382] cifar -> data
I0430 16:26:57.708453 17420 net.cpp:382] cifar -> label
I0430 16:26:57.708465 17420 data_transformer.cpp:25] Loading mean file from: examples/cifar10/mean.binaryproto
I0430 16:26:57.710543 17420 data_layer.cpp:45] output data size: 111,3,32,32
I0430 16:26:57.718372 17420 net.cpp:124] Setting up cifar
I0430 16:26:57.718392 17420 net.cpp:131] Top shape: 111 3 32 32 (340992)
I0430 16:26:57.718400 17420 net.cpp:131] Top shape: 111 (111)
I0430 16:26:57.718402 17420 net.cpp:139] Memory required for data: 1364412
I0430 16:26:57.718410 17420 layer_factory.hpp:77] Creating layer ip1
I0430 16:26:57.718423 17420 net.cpp:86] Creating Layer ip1
I0430 16:26:57.718428 17420 net.cpp:408] ip1 <- data
I0430 16:26:57.718441 17420 net.cpp:382] ip1 -> ip1
I0430 16:26:57.727674 17420 net.cpp:124] Setting up ip1
I0430 16:26:57.727689 17420 net.cpp:131] Top shape: 111 80 (8880)
I0430 16:26:57.727694 17420 net.cpp:139] Memory required for data: 1399932
I0430 16:26:57.727708 17420 layer_factory.hpp:77] Creating layer relu1
I0430 16:26:57.727718 17420 net.cpp:86] Creating Layer relu1
I0430 16:26:57.727722 17420 net.cpp:408] relu1 <- ip1
I0430 16:26:57.727728 17420 net.cpp:369] relu1 -> ip1 (in-place)
I0430 16:26:58.014199 17420 net.cpp:124] Setting up relu1
I0430 16:26:58.014230 17420 net.cpp:131] Top shape: 111 80 (8880)
I0430 16:26:58.014233 17420 net.cpp:139] Memory required for data: 1435452
I0430 16:26:58.014240 17420 layer_factory.hpp:77] Creating layer ip2
I0430 16:26:58.014255 17420 net.cpp:86] Creating Layer ip2
I0430 16:26:58.014259 17420 net.cpp:408] ip2 <- ip1
I0430 16:26:58.014268 17420 net.cpp:382] ip2 -> ip2
I0430 16:26:58.015419 17420 net.cpp:124] Setting up ip2
I0430 16:26:58.015434 17420 net.cpp:131] Top shape: 111 10 (1110)
I0430 16:26:58.015455 17420 net.cpp:139] Memory required for data: 1439892
I0430 16:26:58.015468 17420 layer_factory.hpp:77] Creating layer loss
I0430 16:26:58.015477 17420 net.cpp:86] Creating Layer loss
I0430 16:26:58.015481 17420 net.cpp:408] loss <- ip2
I0430 16:26:58.015486 17420 net.cpp:408] loss <- label
I0430 16:26:58.015492 17420 net.cpp:382] loss -> loss
I0430 16:26:58.015511 17420 layer_factory.hpp:77] Creating layer loss
…
I0430 16:26:58.016743 17420 solver.cpp:173] Creating test net (#0) specified by net file: ECE595/cifar/train_test/var_everything/cifar_train_test_3.prototxt
I0430 16:26:58.016765 17420 net.cpp:296] The NetState phase (1) differed from the phase (0) specified by a rule in layer cifar
I0430 16:26:58.016840 17420 net.cpp:53] Initializing net from parameters: 
name: "CIFAR"
state {
  phase: TEST
}
layer {
  name: "cifar"
  type: "Data"
  top: "data"
  top: "label"
  include {
    phase: TEST
  }
  transform_param {
    mean_file: "examples/cifar10/mean.binaryproto"
  }
  data_param {
    source: "examples/cifar10/cifar10_test_lmdb"
    batch_size: 1000
    backend: LMDB
  }
}
layer {
  name: "ip1"
  type: "InnerProduct"
  bottom: "data"
  top: "ip1"
  param {
    lr_mult: 1
  }
  param {
    lr_mult: 2
  }
  inner_product_param {
    num_output: 80
    weight_filler {
      type: "gaussian"
      std: 0.01
    }
    bias_filler {
      type: "constant"
    }
  }
}
layer {
  name: "relu1"
  type: "ReLU"
  bottom: "ip1"
  top: "ip1"
}
layer {
  name: "ip2"
  type: "InnerProduct"
  bottom: "ip1"
  top: "ip2"
  param {
    lr_mult: 1
  }
  param {
    lr_mult: 2
  }
  inner_product_param {
    num_output: 10
    weight_filler {
      type: "gaussian"
      std: 0.01
    }
    bias_filler {
      type: "constant"
    }
  }
}
layer {
  name: "accuracy"
  type: "Accuracy"
  bottom: "ip2"
  bottom: "label"
  top: "accuracy"
  include {
    phase: TEST
  }
}
layer {
  name: "loss"
  type: "SoftmaxWithLoss"
  bottom: "ip2"
  bottom: "label"
  top: "loss"
}
I0430 16:26:58.016901 17420 layer_factory.hpp:77] Creating layer cifar
I0430 16:26:58.016953 17420 db_lmdb.cpp:35] Opened lmdb examples/cifar10/cifar10_test_lmdb
I0430 16:26:58.016966 17420 net.cpp:86] Creating Layer cifar
I0430 16:26:58.016973 17420 net.cpp:382] cifar -> data
I0430 16:26:58.016983 17420 net.cpp:382] cifar -> label
I0430 16:26:58.016990 17420 data_transformer.cpp:25] Loading mean file from: examples/cifar10/mean.binaryproto
I0430 16:26:58.017165 17420 data_layer.cpp:45] output data size: 1000,3,32,32
I0430 16:26:58.041259 17420 net.cpp:124] Setting up cifar
I0430 16:26:58.041285 17420 net.cpp:131] Top shape: 1000 3 32 32 (3072000)
I0430 16:26:58.041291 17420 net.cpp:131] Top shape: 1000 (1000)
I0430 16:26:58.041295 17420 net.cpp:139] Memory required for data: 12292000
I0430 16:26:58.041301 17420 layer_factory.hpp:77] Creating layer label_cifar_1_split
I0430 16:26:58.041318 17420 net.cpp:86] Creating Layer label_cifar_1_split
I0430 16:26:58.041322 17420 net.cpp:408] label_cifar_1_split <- label
I0430 16:26:58.041330 17420 net.cpp:382] label_cifar_1_split -> label_cifar_1_split_0
I0430 16:26:58.041339 17420 net.cpp:382] label_cifar_1_split -> label_cifar_1_split_1
I0430 16:26:58.041436 17420 net.cpp:124] Setting up label_cifar_1_split
I0430 16:26:58.041445 17420 net.cpp:131] Top shape: 1000 (1000)
I0430 16:26:58.041465 17420 net.cpp:131] Top shape: 1000 (1000)
I0430 16:26:58.041467 17420 net.cpp:139] Memory required for data: 12300000
I0430 16:26:58.041471 17420 layer_factory.hpp:77] Creating layer ip1
I0430 16:26:58.041481 17420 net.cpp:86] Creating Layer ip1
I0430 16:26:58.041483 17420 net.cpp:408] ip1 <- data
I0430 16:26:58.041489 17420 net.cpp:382] ip1 -> ip1
I0430 16:26:58.048661 17420 net.cpp:124] Setting up ip1
I0430 16:26:58.048672 17420 net.cpp:131] Top shape: 1000 80 (80000)
I0430 16:26:58.048676 17420 net.cpp:139] Memory required for data: 12620000
I0430 16:26:58.048687 17420 layer_factory.hpp:77] Creating layer relu1
I0430 16:26:58.048694 17420 net.cpp:86] Creating Layer relu1
I0430 16:26:58.048697 17420 net.cpp:408] relu1 <- ip1
I0430 16:26:58.048702 17420 net.cpp:369] relu1 -> ip1 (in-place)
I0430 16:26:58.048902 17420 net.cpp:124] Setting up relu1
I0430 16:26:58.048913 17420 net.cpp:131] Top shape: 1000 80 (80000)
I0430 16:26:58.048915 17420 net.cpp:139] Memory required for data: 12940000
I0430 16:26:58.048919 17420 layer_factory.hpp:77] Creating layer ip2
I0430 16:26:58.048928 17420 net.cpp:86] Creating Layer ip2
I0430 16:26:58.048931 17420 net.cpp:408] ip2 <- ip1
I0430 16:26:58.048938 17420 net.cpp:382] ip2 -> ip2
I0430 16:26:58.049070 17420 net.cpp:124] Setting up ip2
I0430 16:26:58.049077 17420 net.cpp:131] Top shape: 1000 10 (10000)
I0430 16:26:58.049080 17420 net.cpp:139] Memory required for data: 12980000
I0430 16:26:58.049088 17420 layer_factory.hpp:77] Creating layer ip2_ip2_0_split
I0430 16:26:58.049093 17420 net.cpp:86] Creating Layer ip2_ip2_0_split
I0430 16:26:58.049096 17420 net.cpp:408] ip2_ip2_0_split <- ip2
I0430 16:26:58.049100 17420 net.cpp:382] ip2_ip2_0_split -> ip2_ip2_0_split_0
I0430 16:26:58.049108 17420 net.cpp:382] ip2_ip2_0_split -> ip2_ip2_0_split_1
I0430 16:26:58.049140 17420 net.cpp:124] Setting up ip2_ip2_0_split
I0430 16:26:58.049146 17420 net.cpp:131] Top shape: 1000 10 (10000)
I0430 16:26:58.049150 17420 net.cpp:131] Top shape: 1000 10 (10000)
I0430 16:26:58.049154 17420 net.cpp:139] Memory required for data: 13060000
I0430 16:26:58.049156 17420 layer_factory.hpp:77] Creating layer accuracy
I0430 16:26:58.049166 17420 net.cpp:86] Creating Layer accuracy
I0430 16:26:58.049170 17420 net.cpp:408] accuracy <- ip2_ip2_0_split_0
I0430 16:26:58.049173 17420 net.cpp:408] accuracy <- label_cifar_1_split_0
I0430 16:26:58.049178 17420 net.cpp:382] accuracy -> accuracy
…
