…
I0501 04:00:40.609064 23551 net.cpp:296] The NetState phase (0) differed from the phase (1) specified by a rule in layer cifar
I0501 04:00:40.609083 23551 net.cpp:296] The NetState phase (0) differed from the phase (1) specified by a rule in layer accuracy
I0501 04:00:40.609200 23551 net.cpp:53] Initializing net from parameters: 
name: "CIFAR"
state {
  phase: TRAIN
  level: 0
  stage: ""
}
layer {
  name: "cifar"
  type: "Data"
  top: "data"
  top: "label"
  include {
    phase: TRAIN
  }
  transform_param {
    mean_file: "examples/cifar10/mean.binaryproto"
  }
  data_param {
    source: "examples/cifar10/cifar10_train_lmdb"
    batch_size: 111
    backend: LMDB
  }
}
layer {
  name: "conv0"
  type: "Convolution"
  bottom: "data"
  top: "conv0"
  param {
    lr_mult: 1
  }
  param {
    lr_mult: 2
  }
  convolution_param {
    num_output: 8
    pad: 2
    kernel_size: 5
    stride: 1
    weight_filler {
      type: "gaussian"
      std: 0.01
    }
    bias_filler {
      type: "constant"
    }
  }
}
layer {
  name: "Sigmoid0"
  type: "Sigmoid"
  bottom: "conv0"
  top: "Sigmoid0"
}
layer {
  name: "pool0"
  type: "Pooling"
  bottom: "Sigmoid0"
  top: "pool0"
  pooling_param {
    pool: AVE
    kernel_size: 3
    stride: 2
  }
}
layer {
  name: "ip1"
  type: "InnerProduct"
  bottom: "pool0"
  top: "ip1"
  param {
    lr_mult: 1
  }
  param {
    lr_mult: 2
  }
  inner_product_param {
    num_output: 20
    weight_filler {
      type: "gaussian"
      std: 0.01
    }
    bias_filler {
      type: "constant"
    }
  }
}
layer {
  name: "relu1"
  type: "ReLU"
  bottom: "ip1"
  top: "ip1"
}
layer {
  name: "ip2"
  type: "InnerProduct"
  bottom: "ip1"
  top: "ip2"
  param {
    lr_mult: 1
  }
  param {
    lr_mult: 2
  }
  inner_product_param {
    num_output: 20
    weight_filler {
      type: "gaussian"
      std: 0.01
    }
    bias_filler {
      type: "constant"
    }
  }
}
layer {
  name: "relu2"
  type: "ReLU"
  bottom: "ip2"
  top: "ip2"
}
layer {
  name: "ip3"
  type: "InnerProduct"
  bottom: "ip2"
  top: "ip3"
  param {
    lr_mult: 1
  }
  param {
    lr_mult: 2
  }
  inner_product_param {
    num_output: 40
    weight_filler {
      type: "gaussian"
      std: 0.01
    }
    bias_filler {
      type: "constant"
    }
  }
}
layer {
  name: "relu3"
  type: "ReLU"
  bottom: "ip3"
  top: "ip3"
}
layer {
  name: "ip4"
  type: "InnerProduct"
  bottom: "ip3"
  top: "ip4"
  param {
    lr_mult: 1
  }
  param {
    lr_mult: 2
  }
  inner_product_param {
    num_output: 10
    weight_filler {
      type: "gaussian"
      std: 0.01
    }
    bias_filler {
      type: "constant"
    }
  }
}
layer {
  name: "loss"
  type: "SoftmaxWithLoss"
  bottom: "ip4"
  bottom: "label"
  top: "loss"
}
I0501 04:00:40.609272 23551 layer_factory.hpp:77] Creating layer cifar
I0501 04:00:40.609380 23551 db_lmdb.cpp:35] Opened lmdb examples/cifar10/cifar10_train_lmdb
I0501 04:00:40.609406 23551 net.cpp:86] Creating Layer cifar
I0501 04:00:40.609423 23551 net.cpp:382] cifar -> data
I0501 04:00:40.609446 23551 net.cpp:382] cifar -> label
I0501 04:00:40.609457 23551 data_transformer.cpp:25] Loading mean file from: examples/cifar10/mean.binaryproto
I0501 04:00:40.611572 23551 data_layer.cpp:45] output data size: 111,3,32,32
I0501 04:00:40.619647 23551 net.cpp:124] Setting up cifar
I0501 04:00:40.619665 23551 net.cpp:131] Top shape: 111 3 32 32 (340992)
I0501 04:00:40.619673 23551 net.cpp:131] Top shape: 111 (111)
I0501 04:00:40.619676 23551 net.cpp:139] Memory required for data: 1364412
I0501 04:00:40.619700 23551 layer_factory.hpp:77] Creating layer conv0
I0501 04:00:40.619729 23551 net.cpp:86] Creating Layer conv0
I0501 04:00:40.619736 23551 net.cpp:408] conv0 <- data
I0501 04:00:40.619750 23551 net.cpp:382] conv0 -> conv0
I0501 04:00:40.896428 23551 net.cpp:124] Setting up conv0
I0501 04:00:40.896472 23551 net.cpp:131] Top shape: 111 8 32 32 (909312)
I0501 04:00:40.896476 23551 net.cpp:139] Memory required for data: 5001660
I0501 04:00:40.896507 23551 layer_factory.hpp:77] Creating layer Sigmoid0
I0501 04:00:40.896519 23551 net.cpp:86] Creating Layer Sigmoid0
I0501 04:00:40.896523 23551 net.cpp:408] Sigmoid0 <- conv0
I0501 04:00:40.896528 23551 net.cpp:382] Sigmoid0 -> Sigmoid0
I0501 04:00:40.896697 23551 net.cpp:124] Setting up Sigmoid0
I0501 04:00:40.896706 23551 net.cpp:131] Top shape: 111 8 32 32 (909312)
I0501 04:00:40.896710 23551 net.cpp:139] Memory required for data: 8638908
I0501 04:00:40.896713 23551 layer_factory.hpp:77] Creating layer pool0
I0501 04:00:40.896719 23551 net.cpp:86] Creating Layer pool0
I0501 04:00:40.896723 23551 net.cpp:408] pool0 <- Sigmoid0
I0501 04:00:40.896728 23551 net.cpp:382] pool0 -> pool0
I0501 04:00:40.897447 23551 net.cpp:124] Setting up pool0
I0501 04:00:40.897460 23551 net.cpp:131] Top shape: 111 8 16 16 (227328)
I0501 04:00:40.897464 23551 net.cpp:139] Memory required for data: 9548220
I0501 04:00:40.897466 23551 layer_factory.hpp:77] Creating layer ip1
I0501 04:00:40.897475 23551 net.cpp:86] Creating Layer ip1
I0501 04:00:40.897478 23551 net.cpp:408] ip1 <- pool0
I0501 04:00:40.897485 23551 net.cpp:382] ip1 -> ip1
I0501 04:00:40.899492 23551 net.cpp:124] Setting up ip1
I0501 04:00:40.899504 23551 net.cpp:131] Top shape: 111 20 (2220)
I0501 04:00:40.899507 23551 net.cpp:139] Memory required for data: 9557100
I0501 04:00:40.899514 23551 layer_factory.hpp:77] Creating layer relu1
I0501 04:00:40.899520 23551 net.cpp:86] Creating Layer relu1
I0501 04:00:40.899523 23551 net.cpp:408] relu1 <- ip1
I0501 04:00:40.899528 23551 net.cpp:369] relu1 -> ip1 (in-place)
I0501 04:00:40.899705 23551 net.cpp:124] Setting up relu1
I0501 04:00:40.899714 23551 net.cpp:131] Top shape: 111 20 (2220)
I0501 04:00:40.899718 23551 net.cpp:139] Memory required for data: 9565980
I0501 04:00:40.899720 23551 layer_factory.hpp:77] Creating layer ip2
I0501 04:00:40.899726 23551 net.cpp:86] Creating Layer ip2
I0501 04:00:40.899729 23551 net.cpp:408] ip2 <- ip1
I0501 04:00:40.899735 23551 net.cpp:382] ip2 -> ip2
I0501 04:00:40.899832 23551 net.cpp:124] Setting up ip2
I0501 04:00:40.899838 23551 net.cpp:131] Top shape: 111 20 (2220)
I0501 04:00:40.899840 23551 net.cpp:139] Memory required for data: 9574860
I0501 04:00:40.899847 23551 layer_factory.hpp:77] Creating layer relu2
I0501 04:00:40.899852 23551 net.cpp:86] Creating Layer relu2
I0501 04:00:40.899855 23551 net.cpp:408] relu2 <- ip2
I0501 04:00:40.899859 23551 net.cpp:369] relu2 -> ip2 (in-place)
I0501 04:00:40.900020 23551 net.cpp:124] Setting up relu2
I0501 04:00:40.900028 23551 net.cpp:131] Top shape: 111 20 (2220)
I0501 04:00:40.900032 23551 net.cpp:139] Memory required for data: 9583740
I0501 04:00:40.900034 23551 layer_factory.hpp:77] Creating layer ip3
I0501 04:00:40.900041 23551 net.cpp:86] Creating Layer ip3
I0501 04:00:40.900044 23551 net.cpp:408] ip3 <- ip2
I0501 04:00:40.900048 23551 net.cpp:382] ip3 -> ip3
I0501 04:00:40.900156 23551 net.cpp:124] Setting up ip3
I0501 04:00:40.900163 23551 net.cpp:131] Top shape: 111 40 (4440)
I0501 04:00:40.900166 23551 net.cpp:139] Memory required for data: 9601500
I0501 04:00:40.900171 23551 layer_factory.hpp:77] Creating layer relu3
I0501 04:00:40.900176 23551 net.cpp:86] Creating Layer relu3
I0501 04:00:40.900179 23551 net.cpp:408] relu3 <- ip3
I0501 04:00:40.900182 23551 net.cpp:369] relu3 -> ip3 (in-place)
I0501 04:00:40.900316 23551 net.cpp:124] Setting up relu3
I0501 04:00:40.900324 23551 net.cpp:131] Top shape: 111 40 (4440)
I0501 04:00:40.900327 23551 net.cpp:139] Memory required for data: 9619260
I0501 04:00:40.900331 23551 layer_factory.hpp:77] Creating layer ip4
I0501 04:00:40.900351 23551 net.cpp:86] Creating Layer ip4
I0501 04:00:40.900353 23551 net.cpp:408] ip4 <- ip3
I0501 04:00:40.900358 23551 net.cpp:382] ip4 -> ip4
I0501 04:00:40.900456 23551 net.cpp:124] Setting up ip4
I0501 04:00:40.900463 23551 net.cpp:131] Top shape: 111 10 (1110)
I0501 04:00:40.900466 23551 net.cpp:139] Memory required for data: 9623700
I0501 04:00:40.900473 23551 layer_factory.hpp:77] Creating layer loss
I0501 04:00:40.900478 23551 net.cpp:86] Creating Layer loss
I0501 04:00:40.900481 23551 net.cpp:408] loss <- ip4
I0501 04:00:40.900485 23551 net.cpp:408] loss <- label
I0501 04:00:40.900490 23551 net.cpp:382] loss -> loss
I0501 04:00:40.900506 23551 layer_factory.hpp:77] Creating layer loss
…
I0501 04:00:40.901696 23551 solver.cpp:173] Creating test net (#0) specified by net file: ECE595/cifar/train_test/var_everything/cifar_train_test_372.prototxt
I0501 04:00:40.901741 23551 net.cpp:296] The NetState phase (1) differed from the phase (0) specified by a rule in layer cifar
I0501 04:00:40.901825 23551 net.cpp:53] Initializing net from parameters: 
name: "CIFAR"
state {
  phase: TEST
}
layer {
  name: "cifar"
  type: "Data"
  top: "data"
  top: "label"
  include {
    phase: TEST
  }
  transform_param {
    mean_file: "examples/cifar10/mean.binaryproto"
  }
  data_param {
    source: "examples/cifar10/cifar10_test_lmdb"
    batch_size: 1000
    backend: LMDB
  }
}
layer {
  name: "conv0"
  type: "Convolution"
  bottom: "data"
  top: "conv0"
  param {
    lr_mult: 1
  }
  param {
    lr_mult: 2
  }
  convolution_param {
    num_output: 8
    pad: 2
    kernel_size: 5
    stride: 1
    weight_filler {
      type: "gaussian"
      std: 0.01
    }
    bias_filler {
      type: "constant"
    }
  }
}
layer {
  name: "Sigmoid0"
  type: "Sigmoid"
  bottom: "conv0"
  top: "Sigmoid0"
}
layer {
  name: "pool0"
  type: "Pooling"
  bottom: "Sigmoid0"
  top: "pool0"
  pooling_param {
    pool: AVE
    kernel_size: 3
    stride: 2
  }
}
layer {
  name: "ip1"
  type: "InnerProduct"
  bottom: "pool0"
  top: "ip1"
  param {
    lr_mult: 1
  }
  param {
    lr_mult: 2
  }
  inner_product_param {
    num_output: 20
    weight_filler {
      type: "gaussian"
      std: 0.01
    }
    bias_filler {
      type: "constant"
    }
  }
}
layer {
  name: "relu1"
  type: "ReLU"
  bottom: "ip1"
  top: "ip1"
}
layer {
  name: "ip2"
  type: "InnerProduct"
  bottom: "ip1"
  top: "ip2"
  param {
    lr_mult: 1
  }
  param {
    lr_mult: 2
  }
  inner_product_param {
    num_output: 20
    weight_filler {
      type: "gaussian"
      std: 0.01
    }
    bias_filler {
      type: "constant"
    }
  }
}
layer {
  name: "relu2"
  type: "ReLU"
  bottom: "ip2"
  top: "ip2"
}
layer {
  name: "ip3"
  type: "InnerProduct"
  bottom: "ip2"
  top: "ip3"
  param {
    lr_mult: 1
  }
  param {
    lr_mult: 2
  }
  inner_product_param {
    num_output: 40
    weight_filler {
      type: "gaussian"
      std: 0.01
    }
    bias_filler {
      type: "constant"
    }
  }
}
layer {
  name: "relu3"
  type: "ReLU"
  bottom: "ip3"
  top: "ip3"
}
layer {
  name: "ip4"
  type: "InnerProduct"
  bottom: "ip3"
  top: "ip4"
  param {
    lr_mult: 1
  }
  param {
    lr_mult: 2
  }
  inner_product_param {
    num_output: 10
    weight_filler {
      type: "gaussian"
      std: 0.01
    }
    bias_filler {
      type: "constant"
    }
  }
}
layer {
  name: "accuracy"
  type: "Accuracy"
  bottom: "ip4"
  bottom: "label"
  top: "accuracy"
  include {
    phase: TEST
  }
}
layer {
  name: "loss"
  type: "SoftmaxWithLoss"
  bottom: "ip4"
  bottom: "label"
  top: "loss"
}
I0501 04:00:40.901916 23551 layer_factory.hpp:77] Creating layer cifar
I0501 04:00:40.901963 23551 db_lmdb.cpp:35] Opened lmdb examples/cifar10/cifar10_test_lmdb
I0501 04:00:40.901975 23551 net.cpp:86] Creating Layer cifar
I0501 04:00:40.901980 23551 net.cpp:382] cifar -> data
I0501 04:00:40.901988 23551 net.cpp:382] cifar -> label
I0501 04:00:40.901994 23551 data_transformer.cpp:25] Loading mean file from: examples/cifar10/mean.binaryproto
I0501 04:00:40.902129 23551 data_layer.cpp:45] output data size: 1000,3,32,32
I0501 04:00:40.923944 23551 net.cpp:124] Setting up cifar
I0501 04:00:40.923986 23551 net.cpp:131] Top shape: 1000 3 32 32 (3072000)
I0501 04:00:40.923992 23551 net.cpp:131] Top shape: 1000 (1000)
I0501 04:00:40.924008 23551 net.cpp:139] Memory required for data: 12292000
I0501 04:00:40.924013 23551 layer_factory.hpp:77] Creating layer label_cifar_1_split
I0501 04:00:40.924044 23551 net.cpp:86] Creating Layer label_cifar_1_split
I0501 04:00:40.924063 23551 net.cpp:408] label_cifar_1_split <- label
I0501 04:00:40.924069 23551 net.cpp:382] label_cifar_1_split -> label_cifar_1_split_0
I0501 04:00:40.924077 23551 net.cpp:382] label_cifar_1_split -> label_cifar_1_split_1
I0501 04:00:40.924180 23551 net.cpp:124] Setting up label_cifar_1_split
I0501 04:00:40.924187 23551 net.cpp:131] Top shape: 1000 (1000)
I0501 04:00:40.924191 23551 net.cpp:131] Top shape: 1000 (1000)
I0501 04:00:40.924195 23551 net.cpp:139] Memory required for data: 12300000
I0501 04:00:40.924197 23551 layer_factory.hpp:77] Creating layer conv0
I0501 04:00:40.924209 23551 net.cpp:86] Creating Layer conv0
I0501 04:00:40.924213 23551 net.cpp:408] conv0 <- data
I0501 04:00:40.924218 23551 net.cpp:382] conv0 -> conv0
I0501 04:00:40.925848 23551 net.cpp:124] Setting up conv0
I0501 04:00:40.925863 23551 net.cpp:131] Top shape: 1000 8 32 32 (8192000)
I0501 04:00:40.925882 23551 net.cpp:139] Memory required for data: 45068000
I0501 04:00:40.925892 23551 layer_factory.hpp:77] Creating layer Sigmoid0
I0501 04:00:40.925899 23551 net.cpp:86] Creating Layer Sigmoid0
I0501 04:00:40.925917 23551 net.cpp:408] Sigmoid0 <- conv0
I0501 04:00:40.925921 23551 net.cpp:382] Sigmoid0 -> Sigmoid0
I0501 04:00:40.926106 23551 net.cpp:124] Setting up Sigmoid0
I0501 04:00:40.926127 23551 net.cpp:131] Top shape: 1000 8 32 32 (8192000)
I0501 04:00:40.926131 23551 net.cpp:139] Memory required for data: 77836000
I0501 04:00:40.926134 23551 layer_factory.hpp:77] Creating layer pool0
I0501 04:00:40.926142 23551 net.cpp:86] Creating Layer pool0
I0501 04:00:40.926146 23551 net.cpp:408] pool0 <- Sigmoid0
I0501 04:00:40.926151 23551 net.cpp:382] pool0 -> pool0
I0501 04:00:40.926414 23551 net.cpp:124] Setting up pool0
I0501 04:00:40.926422 23551 net.cpp:131] Top shape: 1000 8 16 16 (2048000)
I0501 04:00:40.926426 23551 net.cpp:139] Memory required for data: 86028000
I0501 04:00:40.926429 23551 layer_factory.hpp:77] Creating layer ip1
I0501 04:00:40.926437 23551 net.cpp:86] Creating Layer ip1
I0501 04:00:40.926440 23551 net.cpp:408] ip1 <- pool0
I0501 04:00:40.926445 23551 net.cpp:382] ip1 -> ip1
I0501 04:00:40.928524 23551 net.cpp:124] Setting up ip1
I0501 04:00:40.928534 23551 net.cpp:131] Top shape: 1000 20 (20000)
I0501 04:00:40.928553 23551 net.cpp:139] Memory required for data: 86108000
I0501 04:00:40.928589 23551 layer_factory.hpp:77] Creating layer relu1
I0501 04:00:40.928596 23551 net.cpp:86] Creating Layer relu1
I0501 04:00:40.928599 23551 net.cpp:408] relu1 <- ip1
I0501 04:00:40.928604 23551 net.cpp:369] relu1 -> ip1 (in-place)
I0501 04:00:40.928761 23551 net.cpp:124] Setting up relu1
I0501 04:00:40.928771 23551 net.cpp:131] Top shape: 1000 20 (20000)
I0501 04:00:40.928773 23551 net.cpp:139] Memory required for data: 86188000
I0501 04:00:40.928776 23551 layer_factory.hpp:77] Creating layer ip2
I0501 04:00:40.928783 23551 net.cpp:86] Creating Layer ip2
I0501 04:00:40.928786 23551 net.cpp:408] ip2 <- ip1
I0501 04:00:40.928791 23551 net.cpp:382] ip2 -> ip2
I0501 04:00:40.928930 23551 net.cpp:124] Setting up ip2
I0501 04:00:40.928938 23551 net.cpp:131] Top shape: 1000 20 (20000)
I0501 04:00:40.928942 23551 net.cpp:139] Memory required for data: 86268000
I0501 04:00:40.928949 23551 layer_factory.hpp:77] Creating layer relu2
I0501 04:00:40.928961 23551 net.cpp:86] Creating Layer relu2
I0501 04:00:40.928964 23551 net.cpp:408] relu2 <- ip2
I0501 04:00:40.928969 23551 net.cpp:369] relu2 -> ip2 (in-place)
I0501 04:00:40.929757 23551 net.cpp:124] Setting up relu2
I0501 04:00:40.929769 23551 net.cpp:131] Top shape: 1000 20 (20000)
I0501 04:00:40.929791 23551 net.cpp:139] Memory required for data: 86348000
I0501 04:00:40.929795 23551 layer_factory.hpp:77] Creating layer ip3
I0501 04:00:40.929802 23551 net.cpp:86] Creating Layer ip3
I0501 04:00:40.929805 23551 net.cpp:408] ip3 <- ip2
I0501 04:00:40.929826 23551 net.cpp:382] ip3 -> ip3
I0501 04:00:40.929952 23551 net.cpp:124] Setting up ip3
I0501 04:00:40.929960 23551 net.cpp:131] Top shape: 1000 40 (40000)
I0501 04:00:40.929962 23551 net.cpp:139] Memory required for data: 86508000
I0501 04:00:40.929968 23551 layer_factory.hpp:77] Creating layer relu3
I0501 04:00:40.929973 23551 net.cpp:86] Creating Layer relu3
I0501 04:00:40.929976 23551 net.cpp:408] relu3 <- ip3
I0501 04:00:40.929980 23551 net.cpp:369] relu3 -> ip3 (in-place)
I0501 04:00:40.930124 23551 net.cpp:124] Setting up relu3
I0501 04:00:40.930131 23551 net.cpp:131] Top shape: 1000 40 (40000)
I0501 04:00:40.930135 23551 net.cpp:139] Memory required for data: 86668000
I0501 04:00:40.930138 23551 layer_factory.hpp:77] Creating layer ip4
I0501 04:00:40.930143 23551 net.cpp:86] Creating Layer ip4
I0501 04:00:40.930146 23551 net.cpp:408] ip4 <- ip3
I0501 04:00:40.930151 23551 net.cpp:382] ip4 -> ip4
I0501 04:00:40.930259 23551 net.cpp:124] Setting up ip4
I0501 04:00:40.930268 23551 net.cpp:131] Top shape: 1000 10 (10000)
I0501 04:00:40.930270 23551 net.cpp:139] Memory required for data: 86708000
I0501 04:00:40.930279 23551 layer_factory.hpp:77] Creating layer ip4_ip4_0_split
I0501 04:00:40.930284 23551 net.cpp:86] Creating Layer ip4_ip4_0_split
I0501 04:00:40.930287 23551 net.cpp:408] ip4_ip4_0_split <- ip4
I0501 04:00:40.930291 23551 net.cpp:382] ip4_ip4_0_split -> ip4_ip4_0_split_0
I0501 04:00:40.930312 23551 net.cpp:382] ip4_ip4_0_split -> ip4_ip4_0_split_1
I0501 04:00:40.930343 23551 net.cpp:124] Setting up ip4_ip4_0_split
I0501 04:00:40.930352 23551 net.cpp:131] Top shape: 1000 10 (10000)
I0501 04:00:40.930356 23551 net.cpp:131] Top shape: 1000 10 (10000)
I0501 04:00:40.930358 23551 net.cpp:139] Memory required for data: 86788000
I0501 04:00:40.930361 23551 layer_factory.hpp:77] Creating layer accuracy
I0501 04:00:40.930368 23551 net.cpp:86] Creating Layer accuracy
I0501 04:00:40.930371 23551 net.cpp:408] accuracy <- ip4_ip4_0_split_0
I0501 04:00:40.930375 23551 net.cpp:408] accuracy <- label_cifar_1_split_0
I0501 04:00:40.930379 23551 net.cpp:382] accuracy -> accuracy
…
