…
I0501 01:10:43.214654  9483 net.cpp:296] The NetState phase (0) differed from the phase (1) specified by a rule in layer cifar
I0501 01:10:43.214674  9483 net.cpp:296] The NetState phase (0) differed from the phase (1) specified by a rule in layer accuracy
I0501 01:10:43.214779  9483 net.cpp:53] Initializing net from parameters: 
name: "CIFAR"
state {
  phase: TRAIN
  level: 0
  stage: ""
}
layer {
  name: "cifar"
  type: "Data"
  top: "data"
  top: "label"
  include {
    phase: TRAIN
  }
  transform_param {
    mean_file: "examples/cifar10/mean.binaryproto"
  }
  data_param {
    source: "examples/cifar10/cifar10_train_lmdb"
    batch_size: 111
    backend: LMDB
  }
}
layer {
  name: "conv0"
  type: "Convolution"
  bottom: "data"
  top: "conv0"
  param {
    lr_mult: 1
  }
  param {
    lr_mult: 2
  }
  convolution_param {
    num_output: 8
    pad: 2
    kernel_size: 3
    stride: 1
    weight_filler {
      type: "gaussian"
      std: 0.01
    }
    bias_filler {
      type: "constant"
    }
  }
}
layer {
  name: "Sigmoid0"
  type: "Sigmoid"
  bottom: "conv0"
  top: "Sigmoid0"
}
layer {
  name: "pool0"
  type: "Pooling"
  bottom: "Sigmoid0"
  top: "pool0"
  pooling_param {
    pool: AVE
    kernel_size: 3
    stride: 2
  }
}
layer {
  name: "ip1"
  type: "InnerProduct"
  bottom: "pool0"
  top: "ip1"
  param {
    lr_mult: 1
  }
  param {
    lr_mult: 2
  }
  inner_product_param {
    num_output: 80
    weight_filler {
      type: "gaussian"
      std: 0.01
    }
    bias_filler {
      type: "constant"
    }
  }
}
layer {
  name: "relu1"
  type: "ReLU"
  bottom: "ip1"
  top: "ip1"
}
layer {
  name: "ip2"
  type: "InnerProduct"
  bottom: "ip1"
  top: "ip2"
  param {
    lr_mult: 1
  }
  param {
    lr_mult: 2
  }
  inner_product_param {
    num_output: 160
    weight_filler {
      type: "gaussian"
      std: 0.01
    }
    bias_filler {
      type: "constant"
    }
  }
}
layer {
  name: "relu2"
  type: "ReLU"
  bottom: "ip2"
  top: "ip2"
}
layer {
  name: "ip3"
  type: "InnerProduct"
  bottom: "ip2"
  top: "ip3"
  param {
    lr_mult: 1
  }
  param {
    lr_mult: 2
  }
  inner_product_param {
    num_output: 20
    weight_filler {
      type: "gaussian"
      std: 0.01
    }
    bias_filler {
      type: "constant"
    }
  }
}
layer {
  name: "relu3"
  type: "ReLU"
  bottom: "ip3"
  top: "ip3"
}
layer {
  name: "ip4"
  type: "InnerProduct"
  bottom: "ip3"
  top: "ip4"
  param {
    lr_mult: 1
  }
  param {
    lr_mult: 2
  }
  inner_product_param {
    num_output: 10
    weight_filler {
      type: "gaussian"
      std: 0.01
    }
    bias_filler {
      type: "constant"
    }
  }
}
layer {
  name: "loss"
  type: "SoftmaxWithLoss"
  bottom: "ip4"
  bottom: "label"
  top: "loss"
}
I0501 01:10:43.214859  9483 layer_factory.hpp:77] Creating layer cifar
I0501 01:10:43.214953  9483 db_lmdb.cpp:35] Opened lmdb examples/cifar10/cifar10_train_lmdb
I0501 01:10:43.214982  9483 net.cpp:86] Creating Layer cifar
I0501 01:10:43.214990  9483 net.cpp:382] cifar -> data
I0501 01:10:43.215015  9483 net.cpp:382] cifar -> label
I0501 01:10:43.215029  9483 data_transformer.cpp:25] Loading mean file from: examples/cifar10/mean.binaryproto
I0501 01:10:43.217129  9483 data_layer.cpp:45] output data size: 111,3,32,32
I0501 01:10:43.225214  9483 net.cpp:124] Setting up cifar
I0501 01:10:43.225234  9483 net.cpp:131] Top shape: 111 3 32 32 (340992)
I0501 01:10:43.225240  9483 net.cpp:131] Top shape: 111 (111)
I0501 01:10:43.225244  9483 net.cpp:139] Memory required for data: 1364412
I0501 01:10:43.225266  9483 layer_factory.hpp:77] Creating layer conv0
I0501 01:10:43.225284  9483 net.cpp:86] Creating Layer conv0
I0501 01:10:43.225291  9483 net.cpp:408] conv0 <- data
I0501 01:10:43.225303  9483 net.cpp:382] conv0 -> conv0
I0501 01:10:43.480310  9483 net.cpp:124] Setting up conv0
I0501 01:10:43.480336  9483 net.cpp:131] Top shape: 111 8 34 34 (1026528)
I0501 01:10:43.480340  9483 net.cpp:139] Memory required for data: 5470524
I0501 01:10:43.480355  9483 layer_factory.hpp:77] Creating layer Sigmoid0
I0501 01:10:43.480365  9483 net.cpp:86] Creating Layer Sigmoid0
I0501 01:10:43.480370  9483 net.cpp:408] Sigmoid0 <- conv0
I0501 01:10:43.480375  9483 net.cpp:382] Sigmoid0 -> Sigmoid0
I0501 01:10:43.480537  9483 net.cpp:124] Setting up Sigmoid0
I0501 01:10:43.480546  9483 net.cpp:131] Top shape: 111 8 34 34 (1026528)
I0501 01:10:43.480550  9483 net.cpp:139] Memory required for data: 9576636
I0501 01:10:43.480552  9483 layer_factory.hpp:77] Creating layer pool0
I0501 01:10:43.480559  9483 net.cpp:86] Creating Layer pool0
I0501 01:10:43.480562  9483 net.cpp:408] pool0 <- Sigmoid0
I0501 01:10:43.480566  9483 net.cpp:382] pool0 -> pool0
I0501 01:10:43.481284  9483 net.cpp:124] Setting up pool0
I0501 01:10:43.481297  9483 net.cpp:131] Top shape: 111 8 17 17 (256632)
I0501 01:10:43.481302  9483 net.cpp:139] Memory required for data: 10603164
I0501 01:10:43.481305  9483 layer_factory.hpp:77] Creating layer ip1
I0501 01:10:43.481318  9483 net.cpp:86] Creating Layer ip1
I0501 01:10:43.481322  9483 net.cpp:408] ip1 <- pool0
I0501 01:10:43.481326  9483 net.cpp:382] ip1 -> ip1
I0501 01:10:43.487025  9483 net.cpp:124] Setting up ip1
I0501 01:10:43.487052  9483 net.cpp:131] Top shape: 111 80 (8880)
I0501 01:10:43.487056  9483 net.cpp:139] Memory required for data: 10638684
I0501 01:10:43.487063  9483 layer_factory.hpp:77] Creating layer relu1
I0501 01:10:43.487069  9483 net.cpp:86] Creating Layer relu1
I0501 01:10:43.487072  9483 net.cpp:408] relu1 <- ip1
I0501 01:10:43.487076  9483 net.cpp:369] relu1 -> ip1 (in-place)
I0501 01:10:43.487220  9483 net.cpp:124] Setting up relu1
I0501 01:10:43.487228  9483 net.cpp:131] Top shape: 111 80 (8880)
I0501 01:10:43.487231  9483 net.cpp:139] Memory required for data: 10674204
I0501 01:10:43.487234  9483 layer_factory.hpp:77] Creating layer ip2
I0501 01:10:43.487239  9483 net.cpp:86] Creating Layer ip2
I0501 01:10:43.487242  9483 net.cpp:408] ip2 <- ip1
I0501 01:10:43.487247  9483 net.cpp:382] ip2 -> ip2
I0501 01:10:43.488479  9483 net.cpp:124] Setting up ip2
I0501 01:10:43.488492  9483 net.cpp:131] Top shape: 111 160 (17760)
I0501 01:10:43.488509  9483 net.cpp:139] Memory required for data: 10745244
I0501 01:10:43.488517  9483 layer_factory.hpp:77] Creating layer relu2
I0501 01:10:43.488523  9483 net.cpp:86] Creating Layer relu2
I0501 01:10:43.488526  9483 net.cpp:408] relu2 <- ip2
I0501 01:10:43.488530  9483 net.cpp:369] relu2 -> ip2 (in-place)
I0501 01:10:43.488678  9483 net.cpp:124] Setting up relu2
I0501 01:10:43.488687  9483 net.cpp:131] Top shape: 111 160 (17760)
I0501 01:10:43.488689  9483 net.cpp:139] Memory required for data: 10816284
I0501 01:10:43.488692  9483 layer_factory.hpp:77] Creating layer ip3
I0501 01:10:43.488700  9483 net.cpp:86] Creating Layer ip3
I0501 01:10:43.488703  9483 net.cpp:408] ip3 <- ip2
I0501 01:10:43.488708  9483 net.cpp:382] ip3 -> ip3
I0501 01:10:43.488907  9483 net.cpp:124] Setting up ip3
I0501 01:10:43.488915  9483 net.cpp:131] Top shape: 111 20 (2220)
I0501 01:10:43.488919  9483 net.cpp:139] Memory required for data: 10825164
I0501 01:10:43.488924  9483 layer_factory.hpp:77] Creating layer relu3
I0501 01:10:43.488929  9483 net.cpp:86] Creating Layer relu3
I0501 01:10:43.488931  9483 net.cpp:408] relu3 <- ip3
I0501 01:10:43.488935  9483 net.cpp:369] relu3 -> ip3 (in-place)
I0501 01:10:43.489076  9483 net.cpp:124] Setting up relu3
I0501 01:10:43.489084  9483 net.cpp:131] Top shape: 111 20 (2220)
I0501 01:10:43.489087  9483 net.cpp:139] Memory required for data: 10834044
I0501 01:10:43.489090  9483 layer_factory.hpp:77] Creating layer ip4
I0501 01:10:43.489110  9483 net.cpp:86] Creating Layer ip4
I0501 01:10:43.489114  9483 net.cpp:408] ip4 <- ip3
I0501 01:10:43.489118  9483 net.cpp:382] ip4 -> ip4
I0501 01:10:43.489226  9483 net.cpp:124] Setting up ip4
I0501 01:10:43.489233  9483 net.cpp:131] Top shape: 111 10 (1110)
I0501 01:10:43.489236  9483 net.cpp:139] Memory required for data: 10838484
I0501 01:10:43.489243  9483 layer_factory.hpp:77] Creating layer loss
I0501 01:10:43.489249  9483 net.cpp:86] Creating Layer loss
I0501 01:10:43.489251  9483 net.cpp:408] loss <- ip4
I0501 01:10:43.489255  9483 net.cpp:408] loss <- label
I0501 01:10:43.489259  9483 net.cpp:382] loss -> loss
I0501 01:10:43.489276  9483 layer_factory.hpp:77] Creating layer loss
…
I0501 01:10:43.490502  9483 solver.cpp:173] Creating test net (#0) specified by net file: ECE595/cifar/train_test/var_everything/cifar_train_test_281.prototxt
I0501 01:10:43.490528  9483 net.cpp:296] The NetState phase (1) differed from the phase (0) specified by a rule in layer cifar
I0501 01:10:43.490617  9483 net.cpp:53] Initializing net from parameters: 
name: "CIFAR"
state {
  phase: TEST
}
layer {
  name: "cifar"
  type: "Data"
  top: "data"
  top: "label"
  include {
    phase: TEST
  }
  transform_param {
    mean_file: "examples/cifar10/mean.binaryproto"
  }
  data_param {
    source: "examples/cifar10/cifar10_test_lmdb"
    batch_size: 1000
    backend: LMDB
  }
}
layer {
  name: "conv0"
  type: "Convolution"
  bottom: "data"
  top: "conv0"
  param {
    lr_mult: 1
  }
  param {
    lr_mult: 2
  }
  convolution_param {
    num_output: 8
    pad: 2
    kernel_size: 3
    stride: 1
    weight_filler {
      type: "gaussian"
      std: 0.01
    }
    bias_filler {
      type: "constant"
    }
  }
}
layer {
  name: "Sigmoid0"
  type: "Sigmoid"
  bottom: "conv0"
  top: "Sigmoid0"
}
layer {
  name: "pool0"
  type: "Pooling"
  bottom: "Sigmoid0"
  top: "pool0"
  pooling_param {
    pool: AVE
    kernel_size: 3
    stride: 2
  }
}
layer {
  name: "ip1"
  type: "InnerProduct"
  bottom: "pool0"
  top: "ip1"
  param {
    lr_mult: 1
  }
  param {
    lr_mult: 2
  }
  inner_product_param {
    num_output: 80
    weight_filler {
      type: "gaussian"
      std: 0.01
    }
    bias_filler {
      type: "constant"
    }
  }
}
layer {
  name: "relu1"
  type: "ReLU"
  bottom: "ip1"
  top: "ip1"
}
layer {
  name: "ip2"
  type: "InnerProduct"
  bottom: "ip1"
  top: "ip2"
  param {
    lr_mult: 1
  }
  param {
    lr_mult: 2
  }
  inner_product_param {
    num_output: 160
    weight_filler {
      type: "gaussian"
      std: 0.01
    }
    bias_filler {
      type: "constant"
    }
  }
}
layer {
  name: "relu2"
  type: "ReLU"
  bottom: "ip2"
  top: "ip2"
}
layer {
  name: "ip3"
  type: "InnerProduct"
  bottom: "ip2"
  top: "ip3"
  param {
    lr_mult: 1
  }
  param {
    lr_mult: 2
  }
  inner_product_param {
    num_output: 20
    weight_filler {
      type: "gaussian"
      std: 0.01
    }
    bias_filler {
      type: "constant"
    }
  }
}
layer {
  name: "relu3"
  type: "ReLU"
  bottom: "ip3"
  top: "ip3"
}
layer {
  name: "ip4"
  type: "InnerProduct"
  bottom: "ip3"
  top: "ip4"
  param {
    lr_mult: 1
  }
  param {
    lr_mult: 2
  }
  inner_product_param {
    num_output: 10
    weight_filler {
      type: "gaussian"
      std: 0.01
    }
    bias_filler {
      type: "constant"
    }
  }
}
layer {
  name: "accuracy"
  type: "Accuracy"
  bottom: "ip4"
  bottom: "label"
  top: "accuracy"
  include {
    phase: TEST
  }
}
layer {
  name: "loss"
  type: "SoftmaxWithLoss"
  bottom: "ip4"
  bottom: "label"
  top: "loss"
}
I0501 01:10:43.490690  9483 layer_factory.hpp:77] Creating layer cifar
I0501 01:10:43.490733  9483 db_lmdb.cpp:35] Opened lmdb examples/cifar10/cifar10_test_lmdb
I0501 01:10:43.490746  9483 net.cpp:86] Creating Layer cifar
I0501 01:10:43.490766  9483 net.cpp:382] cifar -> data
I0501 01:10:43.490772  9483 net.cpp:382] cifar -> label
I0501 01:10:43.490778  9483 data_transformer.cpp:25] Loading mean file from: examples/cifar10/mean.binaryproto
I0501 01:10:43.490912  9483 data_layer.cpp:45] output data size: 1000,3,32,32
I0501 01:10:43.513532  9483 net.cpp:124] Setting up cifar
I0501 01:10:43.513572  9483 net.cpp:131] Top shape: 1000 3 32 32 (3072000)
I0501 01:10:43.513577  9483 net.cpp:131] Top shape: 1000 (1000)
I0501 01:10:43.513581  9483 net.cpp:139] Memory required for data: 12292000
I0501 01:10:43.513586  9483 layer_factory.hpp:77] Creating layer label_cifar_1_split
I0501 01:10:43.513634  9483 net.cpp:86] Creating Layer label_cifar_1_split
I0501 01:10:43.513639  9483 net.cpp:408] label_cifar_1_split <- label
I0501 01:10:43.513644  9483 net.cpp:382] label_cifar_1_split -> label_cifar_1_split_0
I0501 01:10:43.513653  9483 net.cpp:382] label_cifar_1_split -> label_cifar_1_split_1
I0501 01:10:43.513759  9483 net.cpp:124] Setting up label_cifar_1_split
I0501 01:10:43.513767  9483 net.cpp:131] Top shape: 1000 (1000)
I0501 01:10:43.513770  9483 net.cpp:131] Top shape: 1000 (1000)
I0501 01:10:43.513773  9483 net.cpp:139] Memory required for data: 12300000
I0501 01:10:43.513777  9483 layer_factory.hpp:77] Creating layer conv0
I0501 01:10:43.513799  9483 net.cpp:86] Creating Layer conv0
I0501 01:10:43.513803  9483 net.cpp:408] conv0 <- data
I0501 01:10:43.513808  9483 net.cpp:382] conv0 -> conv0
I0501 01:10:43.515437  9483 net.cpp:124] Setting up conv0
I0501 01:10:43.515465  9483 net.cpp:131] Top shape: 1000 8 34 34 (9248000)
I0501 01:10:43.515470  9483 net.cpp:139] Memory required for data: 49292000
I0501 01:10:43.515480  9483 layer_factory.hpp:77] Creating layer Sigmoid0
I0501 01:10:43.515486  9483 net.cpp:86] Creating Layer Sigmoid0
I0501 01:10:43.515488  9483 net.cpp:408] Sigmoid0 <- conv0
I0501 01:10:43.515493  9483 net.cpp:382] Sigmoid0 -> Sigmoid0
I0501 01:10:43.515676  9483 net.cpp:124] Setting up Sigmoid0
I0501 01:10:43.515689  9483 net.cpp:131] Top shape: 1000 8 34 34 (9248000)
I0501 01:10:43.515693  9483 net.cpp:139] Memory required for data: 86284000
I0501 01:10:43.515697  9483 layer_factory.hpp:77] Creating layer pool0
I0501 01:10:43.515704  9483 net.cpp:86] Creating Layer pool0
I0501 01:10:43.515707  9483 net.cpp:408] pool0 <- Sigmoid0
I0501 01:10:43.515712  9483 net.cpp:382] pool0 -> pool0
I0501 01:10:43.515889  9483 net.cpp:124] Setting up pool0
I0501 01:10:43.515897  9483 net.cpp:131] Top shape: 1000 8 17 17 (2312000)
I0501 01:10:43.515902  9483 net.cpp:139] Memory required for data: 95532000
I0501 01:10:43.515904  9483 layer_factory.hpp:77] Creating layer ip1
I0501 01:10:43.515914  9483 net.cpp:86] Creating Layer ip1
I0501 01:10:43.515918  9483 net.cpp:408] ip1 <- pool0
I0501 01:10:43.515923  9483 net.cpp:382] ip1 -> ip1
I0501 01:10:43.520973  9483 net.cpp:124] Setting up ip1
I0501 01:10:43.520984  9483 net.cpp:131] Top shape: 1000 80 (80000)
I0501 01:10:43.521003  9483 net.cpp:139] Memory required for data: 95852000
I0501 01:10:43.521028  9483 layer_factory.hpp:77] Creating layer relu1
I0501 01:10:43.521034  9483 net.cpp:86] Creating Layer relu1
I0501 01:10:43.521037  9483 net.cpp:408] relu1 <- ip1
I0501 01:10:43.521044  9483 net.cpp:369] relu1 -> ip1 (in-place)
I0501 01:10:43.521265  9483 net.cpp:124] Setting up relu1
I0501 01:10:43.521291  9483 net.cpp:131] Top shape: 1000 80 (80000)
I0501 01:10:43.521293  9483 net.cpp:139] Memory required for data: 96172000
I0501 01:10:43.521296  9483 layer_factory.hpp:77] Creating layer ip2
I0501 01:10:43.521303  9483 net.cpp:86] Creating Layer ip2
I0501 01:10:43.521306  9483 net.cpp:408] ip2 <- ip1
I0501 01:10:43.521311  9483 net.cpp:382] ip2 -> ip2
I0501 01:10:43.521785  9483 net.cpp:124] Setting up ip2
I0501 01:10:43.521791  9483 net.cpp:131] Top shape: 1000 160 (160000)
I0501 01:10:43.521809  9483 net.cpp:139] Memory required for data: 96812000
I0501 01:10:43.521816  9483 layer_factory.hpp:77] Creating layer relu2
I0501 01:10:43.521822  9483 net.cpp:86] Creating Layer relu2
I0501 01:10:43.521827  9483 net.cpp:408] relu2 <- ip2
I0501 01:10:43.521832  9483 net.cpp:369] relu2 -> ip2 (in-place)
I0501 01:10:43.522605  9483 net.cpp:124] Setting up relu2
I0501 01:10:43.522617  9483 net.cpp:131] Top shape: 1000 160 (160000)
I0501 01:10:43.522640  9483 net.cpp:139] Memory required for data: 97452000
I0501 01:10:43.522644  9483 layer_factory.hpp:77] Creating layer ip3
I0501 01:10:43.522666  9483 net.cpp:86] Creating Layer ip3
I0501 01:10:43.522670  9483 net.cpp:408] ip3 <- ip2
I0501 01:10:43.522675  9483 net.cpp:382] ip3 -> ip3
I0501 01:10:43.522902  9483 net.cpp:124] Setting up ip3
I0501 01:10:43.522909  9483 net.cpp:131] Top shape: 1000 20 (20000)
I0501 01:10:43.522912  9483 net.cpp:139] Memory required for data: 97532000
I0501 01:10:43.522918  9483 layer_factory.hpp:77] Creating layer relu3
I0501 01:10:43.522929  9483 net.cpp:86] Creating Layer relu3
I0501 01:10:43.522933  9483 net.cpp:408] relu3 <- ip3
I0501 01:10:43.522936  9483 net.cpp:369] relu3 -> ip3 (in-place)
I0501 01:10:43.523100  9483 net.cpp:124] Setting up relu3
I0501 01:10:43.523108  9483 net.cpp:131] Top shape: 1000 20 (20000)
I0501 01:10:43.523111  9483 net.cpp:139] Memory required for data: 97612000
I0501 01:10:43.523114  9483 layer_factory.hpp:77] Creating layer ip4
I0501 01:10:43.523120  9483 net.cpp:86] Creating Layer ip4
I0501 01:10:43.523123  9483 net.cpp:408] ip4 <- ip3
I0501 01:10:43.523128  9483 net.cpp:382] ip4 -> ip4
I0501 01:10:43.523232  9483 net.cpp:124] Setting up ip4
I0501 01:10:43.523239  9483 net.cpp:131] Top shape: 1000 10 (10000)
I0501 01:10:43.523242  9483 net.cpp:139] Memory required for data: 97652000
I0501 01:10:43.523250  9483 layer_factory.hpp:77] Creating layer ip4_ip4_0_split
I0501 01:10:43.523255  9483 net.cpp:86] Creating Layer ip4_ip4_0_split
I0501 01:10:43.523258  9483 net.cpp:408] ip4_ip4_0_split <- ip4
I0501 01:10:43.523262  9483 net.cpp:382] ip4_ip4_0_split -> ip4_ip4_0_split_0
I0501 01:10:43.523267  9483 net.cpp:382] ip4_ip4_0_split -> ip4_ip4_0_split_1
I0501 01:10:43.523298  9483 net.cpp:124] Setting up ip4_ip4_0_split
I0501 01:10:43.523303  9483 net.cpp:131] Top shape: 1000 10 (10000)
I0501 01:10:43.523306  9483 net.cpp:131] Top shape: 1000 10 (10000)
I0501 01:10:43.523309  9483 net.cpp:139] Memory required for data: 97732000
I0501 01:10:43.523313  9483 layer_factory.hpp:77] Creating layer accuracy
I0501 01:10:43.523319  9483 net.cpp:86] Creating Layer accuracy
I0501 01:10:43.523322  9483 net.cpp:408] accuracy <- ip4_ip4_0_split_0
I0501 01:10:43.523325  9483 net.cpp:408] accuracy <- label_cifar_1_split_0
I0501 01:10:43.523329  9483 net.cpp:382] accuracy -> accuracy
…
