…
I0501 02:31:27.812027 15734 net.cpp:296] The NetState phase (0) differed from the phase (1) specified by a rule in layer cifar
I0501 02:31:27.812043 15734 net.cpp:296] The NetState phase (0) differed from the phase (1) specified by a rule in layer accuracy
I0501 02:31:27.812137 15734 net.cpp:53] Initializing net from parameters: 
name: "CIFAR"
state {
  phase: TRAIN
  level: 0
  stage: ""
}
layer {
  name: "cifar"
  type: "Data"
  top: "data"
  top: "label"
  include {
    phase: TRAIN
  }
  transform_param {
    mean_file: "examples/cifar10/mean.binaryproto"
  }
  data_param {
    source: "examples/cifar10/cifar10_train_lmdb"
    batch_size: 111
    backend: LMDB
  }
}
layer {
  name: "conv0"
  type: "Convolution"
  bottom: "data"
  top: "conv0"
  param {
    lr_mult: 1
  }
  param {
    lr_mult: 2
  }
  convolution_param {
    num_output: 8
    pad: 2
    kernel_size: 5
    stride: 1
    weight_filler {
      type: "gaussian"
      std: 0.01
    }
    bias_filler {
      type: "constant"
    }
  }
}
layer {
  name: "Sigmoid0"
  type: "Sigmoid"
  bottom: "conv0"
  top: "Sigmoid0"
}
layer {
  name: "pool0"
  type: "Pooling"
  bottom: "Sigmoid0"
  top: "pool0"
  pooling_param {
    pool: AVE
    kernel_size: 3
    stride: 2
  }
}
layer {
  name: "ip1"
  type: "InnerProduct"
  bottom: "pool0"
  top: "ip1"
  param {
    lr_mult: 1
  }
  param {
    lr_mult: 2
  }
  inner_product_param {
    num_output: 20
    weight_filler {
      type: "gaussian"
      std: 0.01
    }
    bias_filler {
      type: "constant"
    }
  }
}
layer {
  name: "relu1"
  type: "ReLU"
  bottom: "ip1"
  top: "ip1"
}
layer {
  name: "ip2"
  type: "InnerProduct"
  bottom: "ip1"
  top: "ip2"
  param {
    lr_mult: 1
  }
  param {
    lr_mult: 2
  }
  inner_product_param {
    num_output: 160
    weight_filler {
      type: "gaussian"
      std: 0.01
    }
    bias_filler {
      type: "constant"
    }
  }
}
layer {
  name: "relu2"
  type: "ReLU"
  bottom: "ip2"
  top: "ip2"
}
layer {
  name: "ip3"
  type: "InnerProduct"
  bottom: "ip2"
  top: "ip3"
  param {
    lr_mult: 1
  }
  param {
    lr_mult: 2
  }
  inner_product_param {
    num_output: 10
    weight_filler {
      type: "gaussian"
      std: 0.01
    }
    bias_filler {
      type: "constant"
    }
  }
}
layer {
  name: "loss"
  type: "SoftmaxWithLoss"
  bottom: "ip3"
  bottom: "label"
  top: "loss"
}
I0501 02:31:27.812211 15734 layer_factory.hpp:77] Creating layer cifar
I0501 02:31:27.812309 15734 db_lmdb.cpp:35] Opened lmdb examples/cifar10/cifar10_train_lmdb
I0501 02:31:27.812336 15734 net.cpp:86] Creating Layer cifar
I0501 02:31:27.812345 15734 net.cpp:382] cifar -> data
I0501 02:31:27.812366 15734 net.cpp:382] cifar -> label
I0501 02:31:27.812378 15734 data_transformer.cpp:25] Loading mean file from: examples/cifar10/mean.binaryproto
I0501 02:31:27.814494 15734 data_layer.cpp:45] output data size: 111,3,32,32
I0501 02:31:27.822363 15734 net.cpp:124] Setting up cifar
I0501 02:31:27.822383 15734 net.cpp:131] Top shape: 111 3 32 32 (340992)
I0501 02:31:27.822389 15734 net.cpp:131] Top shape: 111 (111)
I0501 02:31:27.822392 15734 net.cpp:139] Memory required for data: 1364412
I0501 02:31:27.822401 15734 layer_factory.hpp:77] Creating layer conv0
I0501 02:31:27.822420 15734 net.cpp:86] Creating Layer conv0
I0501 02:31:27.822427 15734 net.cpp:408] conv0 <- data
I0501 02:31:27.822439 15734 net.cpp:382] conv0 -> conv0
I0501 02:31:28.112076 15734 net.cpp:124] Setting up conv0
I0501 02:31:28.112125 15734 net.cpp:131] Top shape: 111 8 32 32 (909312)
I0501 02:31:28.112130 15734 net.cpp:139] Memory required for data: 5001660
I0501 02:31:28.112148 15734 layer_factory.hpp:77] Creating layer Sigmoid0
I0501 02:31:28.112162 15734 net.cpp:86] Creating Layer Sigmoid0
I0501 02:31:28.112166 15734 net.cpp:408] Sigmoid0 <- conv0
I0501 02:31:28.112172 15734 net.cpp:382] Sigmoid0 -> Sigmoid0
I0501 02:31:28.112390 15734 net.cpp:124] Setting up Sigmoid0
I0501 02:31:28.112401 15734 net.cpp:131] Top shape: 111 8 32 32 (909312)
I0501 02:31:28.112406 15734 net.cpp:139] Memory required for data: 8638908
I0501 02:31:28.112409 15734 layer_factory.hpp:77] Creating layer pool0
I0501 02:31:28.112416 15734 net.cpp:86] Creating Layer pool0
I0501 02:31:28.112421 15734 net.cpp:408] pool0 <- Sigmoid0
I0501 02:31:28.112426 15734 net.cpp:382] pool0 -> pool0
I0501 02:31:28.113294 15734 net.cpp:124] Setting up pool0
I0501 02:31:28.113310 15734 net.cpp:131] Top shape: 111 8 16 16 (227328)
I0501 02:31:28.113314 15734 net.cpp:139] Memory required for data: 9548220
I0501 02:31:28.113318 15734 layer_factory.hpp:77] Creating layer ip1
I0501 02:31:28.113329 15734 net.cpp:86] Creating Layer ip1
I0501 02:31:28.113333 15734 net.cpp:408] ip1 <- pool0
I0501 02:31:28.113339 15734 net.cpp:382] ip1 -> ip1
I0501 02:31:28.115702 15734 net.cpp:124] Setting up ip1
I0501 02:31:28.115717 15734 net.cpp:131] Top shape: 111 20 (2220)
I0501 02:31:28.115721 15734 net.cpp:139] Memory required for data: 9557100
I0501 02:31:28.115731 15734 layer_factory.hpp:77] Creating layer relu1
I0501 02:31:28.115738 15734 net.cpp:86] Creating Layer relu1
I0501 02:31:28.115742 15734 net.cpp:408] relu1 <- ip1
I0501 02:31:28.115749 15734 net.cpp:369] relu1 -> ip1 (in-place)
I0501 02:31:28.115939 15734 net.cpp:124] Setting up relu1
I0501 02:31:28.115949 15734 net.cpp:131] Top shape: 111 20 (2220)
I0501 02:31:28.115953 15734 net.cpp:139] Memory required for data: 9565980
I0501 02:31:28.115957 15734 layer_factory.hpp:77] Creating layer ip2
I0501 02:31:28.115965 15734 net.cpp:86] Creating Layer ip2
I0501 02:31:28.115970 15734 net.cpp:408] ip2 <- ip1
I0501 02:31:28.115977 15734 net.cpp:382] ip2 -> ip2
I0501 02:31:28.116189 15734 net.cpp:124] Setting up ip2
I0501 02:31:28.116197 15734 net.cpp:131] Top shape: 111 160 (17760)
I0501 02:31:28.116200 15734 net.cpp:139] Memory required for data: 9637020
I0501 02:31:28.116209 15734 layer_factory.hpp:77] Creating layer relu2
I0501 02:31:28.116217 15734 net.cpp:86] Creating Layer relu2
I0501 02:31:28.116222 15734 net.cpp:408] relu2 <- ip2
I0501 02:31:28.116227 15734 net.cpp:369] relu2 -> ip2 (in-place)
I0501 02:31:28.116425 15734 net.cpp:124] Setting up relu2
I0501 02:31:28.116433 15734 net.cpp:131] Top shape: 111 160 (17760)
I0501 02:31:28.116436 15734 net.cpp:139] Memory required for data: 9708060
I0501 02:31:28.116441 15734 layer_factory.hpp:77] Creating layer ip3
I0501 02:31:28.116449 15734 net.cpp:86] Creating Layer ip3
I0501 02:31:28.116453 15734 net.cpp:408] ip3 <- ip2
I0501 02:31:28.116461 15734 net.cpp:382] ip3 -> ip3
I0501 02:31:28.116621 15734 net.cpp:124] Setting up ip3
I0501 02:31:28.116628 15734 net.cpp:131] Top shape: 111 10 (1110)
I0501 02:31:28.116631 15734 net.cpp:139] Memory required for data: 9712500
I0501 02:31:28.116638 15734 layer_factory.hpp:77] Creating layer loss
I0501 02:31:28.116646 15734 net.cpp:86] Creating Layer loss
I0501 02:31:28.116650 15734 net.cpp:408] loss <- ip3
I0501 02:31:28.116654 15734 net.cpp:408] loss <- label
I0501 02:31:28.116660 15734 net.cpp:382] loss -> loss
I0501 02:31:28.116675 15734 layer_factory.hpp:77] Creating layer loss
…
I0501 02:31:28.117388 15734 solver.cpp:173] Creating test net (#0) specified by net file: ECE595/cifar/train_test/var_everything/cifar_train_test_324.prototxt
I0501 02:31:28.117416 15734 net.cpp:296] The NetState phase (1) differed from the phase (0) specified by a rule in layer cifar
I0501 02:31:28.117513 15734 net.cpp:53] Initializing net from parameters: 
name: "CIFAR"
state {
  phase: TEST
}
layer {
  name: "cifar"
  type: "Data"
  top: "data"
  top: "label"
  include {
    phase: TEST
  }
  transform_param {
    mean_file: "examples/cifar10/mean.binaryproto"
  }
  data_param {
    source: "examples/cifar10/cifar10_test_lmdb"
    batch_size: 1000
    backend: LMDB
  }
}
layer {
  name: "conv0"
  type: "Convolution"
  bottom: "data"
  top: "conv0"
  param {
    lr_mult: 1
  }
  param {
    lr_mult: 2
  }
  convolution_param {
    num_output: 8
    pad: 2
    kernel_size: 5
    stride: 1
    weight_filler {
      type: "gaussian"
      std: 0.01
    }
    bias_filler {
      type: "constant"
    }
  }
}
layer {
  name: "Sigmoid0"
  type: "Sigmoid"
  bottom: "conv0"
  top: "Sigmoid0"
}
layer {
  name: "pool0"
  type: "Pooling"
  bottom: "Sigmoid0"
  top: "pool0"
  pooling_param {
    pool: AVE
    kernel_size: 3
    stride: 2
  }
}
layer {
  name: "ip1"
  type: "InnerProduct"
  bottom: "pool0"
  top: "ip1"
  param {
    lr_mult: 1
  }
  param {
    lr_mult: 2
  }
  inner_product_param {
    num_output: 20
    weight_filler {
      type: "gaussian"
      std: 0.01
    }
    bias_filler {
      type: "constant"
    }
  }
}
layer {
  name: "relu1"
  type: "ReLU"
  bottom: "ip1"
  top: "ip1"
}
layer {
  name: "ip2"
  type: "InnerProduct"
  bottom: "ip1"
  top: "ip2"
  param {
    lr_mult: 1
  }
  param {
    lr_mult: 2
  }
  inner_product_param {
    num_output: 160
    weight_filler {
      type: "gaussian"
      std: 0.01
    }
    bias_filler {
      type: "constant"
    }
  }
}
layer {
  name: "relu2"
  type: "ReLU"
  bottom: "ip2"
  top: "ip2"
}
layer {
  name: "ip3"
  type: "InnerProduct"
  bottom: "ip2"
  top: "ip3"
  param {
    lr_mult: 1
  }
  param {
    lr_mult: 2
  }
  inner_product_param {
    num_output: 10
    weight_filler {
      type: "gaussian"
      std: 0.01
    }
    bias_filler {
      type: "constant"
    }
  }
}
layer {
  name: "accuracy"
  type: "Accuracy"
  bottom: "ip3"
  bottom: "label"
  top: "accuracy"
  include {
    phase: TEST
  }
}
layer {
  name: "loss"
  type: "SoftmaxWithLoss"
  bottom: "ip3"
  bottom: "label"
  top: "loss"
}
I0501 02:31:28.117588 15734 layer_factory.hpp:77] Creating layer cifar
I0501 02:31:28.117637 15734 db_lmdb.cpp:35] Opened lmdb examples/cifar10/cifar10_test_lmdb
I0501 02:31:28.117650 15734 net.cpp:86] Creating Layer cifar
I0501 02:31:28.117655 15734 net.cpp:382] cifar -> data
I0501 02:31:28.117668 15734 net.cpp:382] cifar -> label
I0501 02:31:28.117676 15734 data_transformer.cpp:25] Loading mean file from: examples/cifar10/mean.binaryproto
I0501 02:31:28.117841 15734 data_layer.cpp:45] output data size: 1000,3,32,32
I0501 02:31:28.141844 15734 net.cpp:124] Setting up cifar
I0501 02:31:28.141872 15734 net.cpp:131] Top shape: 1000 3 32 32 (3072000)
I0501 02:31:28.141877 15734 net.cpp:131] Top shape: 1000 (1000)
I0501 02:31:28.141880 15734 net.cpp:139] Memory required for data: 12292000
I0501 02:31:28.141886 15734 layer_factory.hpp:77] Creating layer label_cifar_1_split
I0501 02:31:28.141908 15734 net.cpp:86] Creating Layer label_cifar_1_split
I0501 02:31:28.141928 15734 net.cpp:408] label_cifar_1_split <- label
I0501 02:31:28.141937 15734 net.cpp:382] label_cifar_1_split -> label_cifar_1_split_0
I0501 02:31:28.141947 15734 net.cpp:382] label_cifar_1_split -> label_cifar_1_split_1
I0501 02:31:28.142199 15734 net.cpp:124] Setting up label_cifar_1_split
I0501 02:31:28.142207 15734 net.cpp:131] Top shape: 1000 (1000)
I0501 02:31:28.142211 15734 net.cpp:131] Top shape: 1000 (1000)
I0501 02:31:28.142215 15734 net.cpp:139] Memory required for data: 12300000
I0501 02:31:28.142218 15734 layer_factory.hpp:77] Creating layer conv0
I0501 02:31:28.142232 15734 net.cpp:86] Creating Layer conv0
I0501 02:31:28.142236 15734 net.cpp:408] conv0 <- data
I0501 02:31:28.142242 15734 net.cpp:382] conv0 -> conv0
I0501 02:31:28.144906 15734 net.cpp:124] Setting up conv0
I0501 02:31:28.144920 15734 net.cpp:131] Top shape: 1000 8 32 32 (8192000)
I0501 02:31:28.144924 15734 net.cpp:139] Memory required for data: 45068000
I0501 02:31:28.144948 15734 layer_factory.hpp:77] Creating layer Sigmoid0
I0501 02:31:28.144954 15734 net.cpp:86] Creating Layer Sigmoid0
I0501 02:31:28.144958 15734 net.cpp:408] Sigmoid0 <- conv0
I0501 02:31:28.144963 15734 net.cpp:382] Sigmoid0 -> Sigmoid0
I0501 02:31:28.145784 15734 net.cpp:124] Setting up Sigmoid0
I0501 02:31:28.145798 15734 net.cpp:131] Top shape: 1000 8 32 32 (8192000)
I0501 02:31:28.145802 15734 net.cpp:139] Memory required for data: 77836000
I0501 02:31:28.145805 15734 layer_factory.hpp:77] Creating layer pool0
I0501 02:31:28.145815 15734 net.cpp:86] Creating Layer pool0
I0501 02:31:28.145819 15734 net.cpp:408] pool0 <- Sigmoid0
I0501 02:31:28.145825 15734 net.cpp:382] pool0 -> pool0
I0501 02:31:28.146008 15734 net.cpp:124] Setting up pool0
I0501 02:31:28.146018 15734 net.cpp:131] Top shape: 1000 8 16 16 (2048000)
I0501 02:31:28.146020 15734 net.cpp:139] Memory required for data: 86028000
I0501 02:31:28.146023 15734 layer_factory.hpp:77] Creating layer ip1
I0501 02:31:28.146031 15734 net.cpp:86] Creating Layer ip1
I0501 02:31:28.146041 15734 net.cpp:408] ip1 <- pool0
I0501 02:31:28.146046 15734 net.cpp:382] ip1 -> ip1
I0501 02:31:28.147302 15734 net.cpp:124] Setting up ip1
I0501 02:31:28.147310 15734 net.cpp:131] Top shape: 1000 20 (20000)
I0501 02:31:28.147313 15734 net.cpp:139] Memory required for data: 86108000
I0501 02:31:28.147322 15734 layer_factory.hpp:77] Creating layer relu1
I0501 02:31:28.147328 15734 net.cpp:86] Creating Layer relu1
I0501 02:31:28.147331 15734 net.cpp:408] relu1 <- ip1
I0501 02:31:28.147336 15734 net.cpp:369] relu1 -> ip1 (in-place)
I0501 02:31:28.147502 15734 net.cpp:124] Setting up relu1
I0501 02:31:28.147511 15734 net.cpp:131] Top shape: 1000 20 (20000)
I0501 02:31:28.147514 15734 net.cpp:139] Memory required for data: 86188000
I0501 02:31:28.147517 15734 layer_factory.hpp:77] Creating layer ip2
I0501 02:31:28.147523 15734 net.cpp:86] Creating Layer ip2
I0501 02:31:28.147526 15734 net.cpp:408] ip2 <- ip1
I0501 02:31:28.147534 15734 net.cpp:382] ip2 -> ip2
I0501 02:31:28.147732 15734 net.cpp:124] Setting up ip2
I0501 02:31:28.147739 15734 net.cpp:131] Top shape: 1000 160 (160000)
I0501 02:31:28.147742 15734 net.cpp:139] Memory required for data: 86828000
I0501 02:31:28.147750 15734 layer_factory.hpp:77] Creating layer relu2
I0501 02:31:28.147758 15734 net.cpp:86] Creating Layer relu2
I0501 02:31:28.147761 15734 net.cpp:408] relu2 <- ip2
I0501 02:31:28.147766 15734 net.cpp:369] relu2 -> ip2 (in-place)
I0501 02:31:28.147935 15734 net.cpp:124] Setting up relu2
I0501 02:31:28.147943 15734 net.cpp:131] Top shape: 1000 160 (160000)
I0501 02:31:28.147946 15734 net.cpp:139] Memory required for data: 87468000
I0501 02:31:28.147949 15734 layer_factory.hpp:77] Creating layer ip3
I0501 02:31:28.147958 15734 net.cpp:86] Creating Layer ip3
I0501 02:31:28.147960 15734 net.cpp:408] ip3 <- ip2
I0501 02:31:28.147964 15734 net.cpp:382] ip3 -> ip3
I0501 02:31:28.148111 15734 net.cpp:124] Setting up ip3
I0501 02:31:28.148118 15734 net.cpp:131] Top shape: 1000 10 (10000)
I0501 02:31:28.148121 15734 net.cpp:139] Memory required for data: 87508000
I0501 02:31:28.148138 15734 layer_factory.hpp:77] Creating layer ip3_ip3_0_split
I0501 02:31:28.148144 15734 net.cpp:86] Creating Layer ip3_ip3_0_split
I0501 02:31:28.148147 15734 net.cpp:408] ip3_ip3_0_split <- ip3
I0501 02:31:28.148151 15734 net.cpp:382] ip3_ip3_0_split -> ip3_ip3_0_split_0
I0501 02:31:28.148157 15734 net.cpp:382] ip3_ip3_0_split -> ip3_ip3_0_split_1
I0501 02:31:28.148192 15734 net.cpp:124] Setting up ip3_ip3_0_split
I0501 02:31:28.148200 15734 net.cpp:131] Top shape: 1000 10 (10000)
I0501 02:31:28.148202 15734 net.cpp:131] Top shape: 1000 10 (10000)
I0501 02:31:28.148205 15734 net.cpp:139] Memory required for data: 87588000
I0501 02:31:28.148208 15734 layer_factory.hpp:77] Creating layer accuracy
I0501 02:31:28.148216 15734 net.cpp:86] Creating Layer accuracy
I0501 02:31:28.148218 15734 net.cpp:408] accuracy <- ip3_ip3_0_split_0
I0501 02:31:28.148222 15734 net.cpp:408] accuracy <- label_cifar_1_split_0
I0501 02:31:28.148227 15734 net.cpp:382] accuracy -> accuracy
…
