…
I0430 18:24:26.399401 23265 net.cpp:296] The NetState phase (0) differed from the phase (1) specified by a rule in layer cifar
I0430 18:24:26.399417 23265 net.cpp:296] The NetState phase (0) differed from the phase (1) specified by a rule in layer accuracy
I0430 18:24:26.399502 23265 net.cpp:53] Initializing net from parameters: 
name: "CIFAR"
state {
  phase: TRAIN
  level: 0
  stage: ""
}
layer {
  name: "cifar"
  type: "Data"
  top: "data"
  top: "label"
  include {
    phase: TRAIN
  }
  transform_param {
    mean_file: "examples/cifar10/mean.binaryproto"
  }
  data_param {
    source: "examples/cifar10/cifar10_train_lmdb"
    batch_size: 111
    backend: LMDB
  }
}
layer {
  name: "ip1"
  type: "InnerProduct"
  bottom: "data"
  top: "ip1"
  param {
    lr_mult: 1
  }
  param {
    lr_mult: 2
  }
  inner_product_param {
    num_output: 20
    weight_filler {
      type: "gaussian"
      std: 0.01
    }
    bias_filler {
      type: "constant"
    }
  }
}
layer {
  name: "relu1"
  type: "ReLU"
  bottom: "ip1"
  top: "ip1"
}
layer {
  name: "ip2"
  type: "InnerProduct"
  bottom: "ip1"
  top: "ip2"
  param {
    lr_mult: 1
  }
  param {
    lr_mult: 2
  }
  inner_product_param {
    num_output: 40
    weight_filler {
      type: "gaussian"
      std: 0.01
    }
    bias_filler {
      type: "constant"
    }
  }
}
layer {
  name: "relu2"
  type: "ReLU"
  bottom: "ip2"
  top: "ip2"
}
layer {
  name: "ip3"
  type: "InnerProduct"
  bottom: "ip2"
  top: "ip3"
  param {
    lr_mult: 1
  }
  param {
    lr_mult: 2
  }
  inner_product_param {
    num_output: 10
    weight_filler {
      type: "gaussian"
      std: 0.01
    }
    bias_filler {
      type: "constant"
    }
  }
}
layer {
  name: "relu3"
  type: "ReLU"
  bottom: "ip3"
  top: "ip3"
}
layer {
  name: "ip4"
  type: "InnerProduct"
  bottom: "ip3"
  top: "ip4"
  param {
    lr_mult: 1
  }
  param {
    lr_mult: 2
  }
  inner_product_param {
    num_output: 10
    weight_filler {
      type: "gaussian"
      std: 0.01
    }
    bias_filler {
      type: "constant"
    }
  }
}
layer {
  name: "loss"
  type: "SoftmaxWithLoss"
  bottom: "ip4"
  bottom: "label"
  top: "loss"
}
I0430 18:24:26.399571 23265 layer_factory.hpp:77] Creating layer cifar
I0430 18:24:26.399669 23265 db_lmdb.cpp:35] Opened lmdb examples/cifar10/cifar10_train_lmdb
I0430 18:24:26.399696 23265 net.cpp:86] Creating Layer cifar
I0430 18:24:26.399705 23265 net.cpp:382] cifar -> data
I0430 18:24:26.399729 23265 net.cpp:382] cifar -> label
I0430 18:24:26.399740 23265 data_transformer.cpp:25] Loading mean file from: examples/cifar10/mean.binaryproto
I0430 18:24:26.401867 23265 data_layer.cpp:45] output data size: 111,3,32,32
I0430 18:24:26.409741 23265 net.cpp:124] Setting up cifar
I0430 18:24:26.409760 23265 net.cpp:131] Top shape: 111 3 32 32 (340992)
I0430 18:24:26.409767 23265 net.cpp:131] Top shape: 111 (111)
I0430 18:24:26.409771 23265 net.cpp:139] Memory required for data: 1364412
I0430 18:24:26.409778 23265 layer_factory.hpp:77] Creating layer ip1
I0430 18:24:26.409795 23265 net.cpp:86] Creating Layer ip1
I0430 18:24:26.409799 23265 net.cpp:408] ip1 <- data
I0430 18:24:26.409811 23265 net.cpp:382] ip1 -> ip1
I0430 18:24:26.413027 23265 net.cpp:124] Setting up ip1
I0430 18:24:26.413043 23265 net.cpp:131] Top shape: 111 20 (2220)
I0430 18:24:26.413045 23265 net.cpp:139] Memory required for data: 1373292
I0430 18:24:26.413060 23265 layer_factory.hpp:77] Creating layer relu1
I0430 18:24:26.413072 23265 net.cpp:86] Creating Layer relu1
I0430 18:24:26.413091 23265 net.cpp:408] relu1 <- ip1
I0430 18:24:26.413097 23265 net.cpp:369] relu1 -> ip1 (in-place)
I0430 18:24:26.699530 23265 net.cpp:124] Setting up relu1
I0430 18:24:26.699561 23265 net.cpp:131] Top shape: 111 20 (2220)
I0430 18:24:26.699566 23265 net.cpp:139] Memory required for data: 1382172
I0430 18:24:26.699571 23265 layer_factory.hpp:77] Creating layer ip2
I0430 18:24:26.699586 23265 net.cpp:86] Creating Layer ip2
I0430 18:24:26.699591 23265 net.cpp:408] ip2 <- ip1
I0430 18:24:26.699600 23265 net.cpp:382] ip2 -> ip2
I0430 18:24:26.700712 23265 net.cpp:124] Setting up ip2
I0430 18:24:26.700726 23265 net.cpp:131] Top shape: 111 40 (4440)
I0430 18:24:26.700731 23265 net.cpp:139] Memory required for data: 1399932
I0430 18:24:26.700742 23265 layer_factory.hpp:77] Creating layer relu2
I0430 18:24:26.700749 23265 net.cpp:86] Creating Layer relu2
I0430 18:24:26.700753 23265 net.cpp:408] relu2 <- ip2
I0430 18:24:26.700758 23265 net.cpp:369] relu2 -> ip2 (in-place)
I0430 18:24:26.701578 23265 net.cpp:124] Setting up relu2
I0430 18:24:26.701592 23265 net.cpp:131] Top shape: 111 40 (4440)
I0430 18:24:26.701596 23265 net.cpp:139] Memory required for data: 1417692
I0430 18:24:26.701601 23265 layer_factory.hpp:77] Creating layer ip3
I0430 18:24:26.701608 23265 net.cpp:86] Creating Layer ip3
I0430 18:24:26.701611 23265 net.cpp:408] ip3 <- ip2
I0430 18:24:26.701617 23265 net.cpp:382] ip3 -> ip3
I0430 18:24:26.701740 23265 net.cpp:124] Setting up ip3
I0430 18:24:26.701750 23265 net.cpp:131] Top shape: 111 10 (1110)
I0430 18:24:26.701753 23265 net.cpp:139] Memory required for data: 1422132
I0430 18:24:26.701762 23265 layer_factory.hpp:77] Creating layer relu3
I0430 18:24:26.701767 23265 net.cpp:86] Creating Layer relu3
I0430 18:24:26.701771 23265 net.cpp:408] relu3 <- ip3
I0430 18:24:26.701776 23265 net.cpp:369] relu3 -> ip3 (in-place)
I0430 18:24:26.701939 23265 net.cpp:124] Setting up relu3
I0430 18:24:26.701948 23265 net.cpp:131] Top shape: 111 10 (1110)
I0430 18:24:26.701951 23265 net.cpp:139] Memory required for data: 1426572
I0430 18:24:26.701956 23265 layer_factory.hpp:77] Creating layer ip4
I0430 18:24:26.701961 23265 net.cpp:86] Creating Layer ip4
I0430 18:24:26.701966 23265 net.cpp:408] ip4 <- ip3
I0430 18:24:26.701970 23265 net.cpp:382] ip4 -> ip4
I0430 18:24:26.702072 23265 net.cpp:124] Setting up ip4
I0430 18:24:26.702080 23265 net.cpp:131] Top shape: 111 10 (1110)
I0430 18:24:26.702085 23265 net.cpp:139] Memory required for data: 1431012
I0430 18:24:26.702090 23265 layer_factory.hpp:77] Creating layer loss
I0430 18:24:26.702097 23265 net.cpp:86] Creating Layer loss
I0430 18:24:26.702101 23265 net.cpp:408] loss <- ip4
I0430 18:24:26.702105 23265 net.cpp:408] loss <- label
I0430 18:24:26.702111 23265 net.cpp:382] loss -> loss
I0430 18:24:26.702131 23265 layer_factory.hpp:77] Creating layer loss
…
I0430 18:24:26.702733 23265 solver.cpp:173] Creating test net (#0) specified by net file: ECE595/cifar/train_test/var_everything/cifar_train_test_65.prototxt
I0430 18:24:26.702776 23265 net.cpp:296] The NetState phase (1) differed from the phase (0) specified by a rule in layer cifar
I0430 18:24:26.702860 23265 net.cpp:53] Initializing net from parameters: 
name: "CIFAR"
state {
  phase: TEST
}
layer {
  name: "cifar"
  type: "Data"
  top: "data"
  top: "label"
  include {
    phase: TEST
  }
  transform_param {
    mean_file: "examples/cifar10/mean.binaryproto"
  }
  data_param {
    source: "examples/cifar10/cifar10_test_lmdb"
    batch_size: 1000
    backend: LMDB
  }
}
layer {
  name: "ip1"
  type: "InnerProduct"
  bottom: "data"
  top: "ip1"
  param {
    lr_mult: 1
  }
  param {
    lr_mult: 2
  }
  inner_product_param {
    num_output: 20
    weight_filler {
      type: "gaussian"
      std: 0.01
    }
    bias_filler {
      type: "constant"
    }
  }
}
layer {
  name: "relu1"
  type: "ReLU"
  bottom: "ip1"
  top: "ip1"
}
layer {
  name: "ip2"
  type: "InnerProduct"
  bottom: "ip1"
  top: "ip2"
  param {
    lr_mult: 1
  }
  param {
    lr_mult: 2
  }
  inner_product_param {
    num_output: 40
    weight_filler {
      type: "gaussian"
      std: 0.01
    }
    bias_filler {
      type: "constant"
    }
  }
}
layer {
  name: "relu2"
  type: "ReLU"
  bottom: "ip2"
  top: "ip2"
}
layer {
  name: "ip3"
  type: "InnerProduct"
  bottom: "ip2"
  top: "ip3"
  param {
    lr_mult: 1
  }
  param {
    lr_mult: 2
  }
  inner_product_param {
    num_output: 10
    weight_filler {
      type: "gaussian"
      std: 0.01
    }
    bias_filler {
      type: "constant"
    }
  }
}
layer {
  name: "relu3"
  type: "ReLU"
  bottom: "ip3"
  top: "ip3"
}
layer {
  name: "ip4"
  type: "InnerProduct"
  bottom: "ip3"
  top: "ip4"
  param {
    lr_mult: 1
  }
  param {
    lr_mult: 2
  }
  inner_product_param {
    num_output: 10
    weight_filler {
      type: "gaussian"
      std: 0.01
    }
    bias_filler {
      type: "constant"
    }
  }
}
layer {
  name: "accuracy"
  type: "Accuracy"
  bottom: "ip4"
  bottom: "label"
  top: "accuracy"
  include {
    phase: TEST
  }
}
layer {
  name: "loss"
  type: "SoftmaxWithLoss"
  bottom: "ip4"
  bottom: "label"
  top: "loss"
}
I0430 18:24:26.702924 23265 layer_factory.hpp:77] Creating layer cifar
I0430 18:24:26.702975 23265 db_lmdb.cpp:35] Opened lmdb examples/cifar10/cifar10_test_lmdb
I0430 18:24:26.702988 23265 net.cpp:86] Creating Layer cifar
I0430 18:24:26.702993 23265 net.cpp:382] cifar -> data
I0430 18:24:26.703002 23265 net.cpp:382] cifar -> label
I0430 18:24:26.703009 23265 data_transformer.cpp:25] Loading mean file from: examples/cifar10/mean.binaryproto
I0430 18:24:26.703163 23265 data_layer.cpp:45] output data size: 1000,3,32,32
I0430 18:24:26.726532 23265 net.cpp:124] Setting up cifar
I0430 18:24:26.726560 23265 net.cpp:131] Top shape: 1000 3 32 32 (3072000)
I0430 18:24:26.726567 23265 net.cpp:131] Top shape: 1000 (1000)
I0430 18:24:26.726569 23265 net.cpp:139] Memory required for data: 12292000
I0430 18:24:26.726575 23265 layer_factory.hpp:77] Creating layer label_cifar_1_split
I0430 18:24:26.726603 23265 net.cpp:86] Creating Layer label_cifar_1_split
I0430 18:24:26.726608 23265 net.cpp:408] label_cifar_1_split <- label
I0430 18:24:26.726613 23265 net.cpp:382] label_cifar_1_split -> label_cifar_1_split_0
I0430 18:24:26.726622 23265 net.cpp:382] label_cifar_1_split -> label_cifar_1_split_1
I0430 18:24:26.726722 23265 net.cpp:124] Setting up label_cifar_1_split
I0430 18:24:26.726730 23265 net.cpp:131] Top shape: 1000 (1000)
I0430 18:24:26.726734 23265 net.cpp:131] Top shape: 1000 (1000)
I0430 18:24:26.726737 23265 net.cpp:139] Memory required for data: 12300000
I0430 18:24:26.726740 23265 layer_factory.hpp:77] Creating layer ip1
I0430 18:24:26.726749 23265 net.cpp:86] Creating Layer ip1
I0430 18:24:26.726752 23265 net.cpp:408] ip1 <- data
I0430 18:24:26.726758 23265 net.cpp:382] ip1 -> ip1
I0430 18:24:26.729292 23265 net.cpp:124] Setting up ip1
I0430 18:24:26.729303 23265 net.cpp:131] Top shape: 1000 20 (20000)
I0430 18:24:26.729306 23265 net.cpp:139] Memory required for data: 12380000
I0430 18:24:26.729331 23265 layer_factory.hpp:77] Creating layer relu1
I0430 18:24:26.729338 23265 net.cpp:86] Creating Layer relu1
I0430 18:24:26.729341 23265 net.cpp:408] relu1 <- ip1
I0430 18:24:26.729346 23265 net.cpp:369] relu1 -> ip1 (in-place)
I0430 18:24:26.730140 23265 net.cpp:124] Setting up relu1
I0430 18:24:26.730152 23265 net.cpp:131] Top shape: 1000 20 (20000)
I0430 18:24:26.730156 23265 net.cpp:139] Memory required for data: 12460000
I0430 18:24:26.730160 23265 layer_factory.hpp:77] Creating layer ip2
I0430 18:24:26.730168 23265 net.cpp:86] Creating Layer ip2
I0430 18:24:26.730171 23265 net.cpp:408] ip2 <- ip1
I0430 18:24:26.730176 23265 net.cpp:382] ip2 -> ip2
I0430 18:24:26.730311 23265 net.cpp:124] Setting up ip2
I0430 18:24:26.730320 23265 net.cpp:131] Top shape: 1000 40 (40000)
I0430 18:24:26.730324 23265 net.cpp:139] Memory required for data: 12620000
I0430 18:24:26.730331 23265 layer_factory.hpp:77] Creating layer relu2
I0430 18:24:26.730337 23265 net.cpp:86] Creating Layer relu2
I0430 18:24:26.730340 23265 net.cpp:408] relu2 <- ip2
I0430 18:24:26.730346 23265 net.cpp:369] relu2 -> ip2 (in-place)
I0430 18:24:26.730500 23265 net.cpp:124] Setting up relu2
I0430 18:24:26.730509 23265 net.cpp:131] Top shape: 1000 40 (40000)
I0430 18:24:26.730512 23265 net.cpp:139] Memory required for data: 12780000
I0430 18:24:26.730515 23265 layer_factory.hpp:77] Creating layer ip3
I0430 18:24:26.730521 23265 net.cpp:86] Creating Layer ip3
I0430 18:24:26.730525 23265 net.cpp:408] ip3 <- ip2
I0430 18:24:26.730530 23265 net.cpp:382] ip3 -> ip3
I0430 18:24:26.730639 23265 net.cpp:124] Setting up ip3
I0430 18:24:26.730646 23265 net.cpp:131] Top shape: 1000 10 (10000)
I0430 18:24:26.730650 23265 net.cpp:139] Memory required for data: 12820000
I0430 18:24:26.730659 23265 layer_factory.hpp:77] Creating layer relu3
I0430 18:24:26.730664 23265 net.cpp:86] Creating Layer relu3
I0430 18:24:26.730666 23265 net.cpp:408] relu3 <- ip3
I0430 18:24:26.730670 23265 net.cpp:369] relu3 -> ip3 (in-place)
I0430 18:24:26.730819 23265 net.cpp:124] Setting up relu3
I0430 18:24:26.730829 23265 net.cpp:131] Top shape: 1000 10 (10000)
I0430 18:24:26.730831 23265 net.cpp:139] Memory required for data: 12860000
I0430 18:24:26.730835 23265 layer_factory.hpp:77] Creating layer ip4
I0430 18:24:26.730842 23265 net.cpp:86] Creating Layer ip4
I0430 18:24:26.730845 23265 net.cpp:408] ip4 <- ip3
I0430 18:24:26.730850 23265 net.cpp:382] ip4 -> ip4
I0430 18:24:26.730954 23265 net.cpp:124] Setting up ip4
I0430 18:24:26.730962 23265 net.cpp:131] Top shape: 1000 10 (10000)
I0430 18:24:26.730964 23265 net.cpp:139] Memory required for data: 12900000
I0430 18:24:26.730970 23265 layer_factory.hpp:77] Creating layer ip4_ip4_0_split
I0430 18:24:26.730975 23265 net.cpp:86] Creating Layer ip4_ip4_0_split
I0430 18:24:26.730979 23265 net.cpp:408] ip4_ip4_0_split <- ip4
I0430 18:24:26.730984 23265 net.cpp:382] ip4_ip4_0_split -> ip4_ip4_0_split_0
I0430 18:24:26.730991 23265 net.cpp:382] ip4_ip4_0_split -> ip4_ip4_0_split_1
I0430 18:24:26.731021 23265 net.cpp:124] Setting up ip4_ip4_0_split
I0430 18:24:26.731029 23265 net.cpp:131] Top shape: 1000 10 (10000)
I0430 18:24:26.731032 23265 net.cpp:131] Top shape: 1000 10 (10000)
I0430 18:24:26.731035 23265 net.cpp:139] Memory required for data: 12980000
I0430 18:24:26.731039 23265 layer_factory.hpp:77] Creating layer accuracy
I0430 18:24:26.731045 23265 net.cpp:86] Creating Layer accuracy
I0430 18:24:26.731047 23265 net.cpp:408] accuracy <- ip4_ip4_0_split_0
I0430 18:24:26.731051 23265 net.cpp:408] accuracy <- label_cifar_1_split_0
I0430 18:24:26.731056 23265 net.cpp:382] accuracy -> accuracy
…
