…
I0501 08:24:25.226485 10498 net.cpp:296] The NetState phase (0) differed from the phase (1) specified by a rule in layer cifar
I0501 08:24:25.226505 10498 net.cpp:296] The NetState phase (0) differed from the phase (1) specified by a rule in layer accuracy
I0501 08:24:25.226610 10498 net.cpp:53] Initializing net from parameters: 
name: "CIFAR"
state {
  phase: TRAIN
  level: 0
  stage: ""
}
layer {
  name: "cifar"
  type: "Data"
  top: "data"
  top: "label"
  include {
    phase: TRAIN
  }
  transform_param {
    mean_file: "examples/cifar10/mean.binaryproto"
  }
  data_param {
    source: "examples/cifar10/cifar10_train_lmdb"
    batch_size: 111
    backend: LMDB
  }
}
layer {
  name: "conv0"
  type: "Convolution"
  bottom: "data"
  top: "conv0"
  param {
    lr_mult: 1
  }
  param {
    lr_mult: 2
  }
  convolution_param {
    num_output: 16
    pad: 2
    kernel_size: 3
    stride: 1
    weight_filler {
      type: "gaussian"
      std: 0.01
    }
    bias_filler {
      type: "constant"
    }
  }
}
layer {
  name: "Sigmoid0"
  type: "Sigmoid"
  bottom: "conv0"
  top: "Sigmoid0"
}
layer {
  name: "pool0"
  type: "Pooling"
  bottom: "Sigmoid0"
  top: "pool0"
  pooling_param {
    pool: AVE
    kernel_size: 3
    stride: 2
  }
}
layer {
  name: "ip1"
  type: "InnerProduct"
  bottom: "pool0"
  top: "ip1"
  param {
    lr_mult: 1
  }
  param {
    lr_mult: 2
  }
  inner_product_param {
    num_output: 10
    weight_filler {
      type: "gaussian"
      std: 0.01
    }
    bias_filler {
      type: "constant"
    }
  }
}
layer {
  name: "relu1"
  type: "ReLU"
  bottom: "ip1"
  top: "ip1"
}
layer {
  name: "ip2"
  type: "InnerProduct"
  bottom: "ip1"
  top: "ip2"
  param {
    lr_mult: 1
  }
  param {
    lr_mult: 2
  }
  inner_product_param {
    num_output: 80
    weight_filler {
      type: "gaussian"
      std: 0.01
    }
    bias_filler {
      type: "constant"
    }
  }
}
layer {
  name: "relu2"
  type: "ReLU"
  bottom: "ip2"
  top: "ip2"
}
layer {
  name: "ip3"
  type: "InnerProduct"
  bottom: "ip2"
  top: "ip3"
  param {
    lr_mult: 1
  }
  param {
    lr_mult: 2
  }
  inner_product_param {
    num_output: 10
    weight_filler {
      type: "gaussian"
      std: 0.01
    }
    bias_filler {
      type: "constant"
    }
  }
}
layer {
  name: "relu3"
  type: "ReLU"
  bottom: "ip3"
  top: "ip3"
}
layer {
  name: "ip4"
  type: "InnerProduct"
  bottom: "ip3"
  top: "ip4"
  param {
    lr_mult: 1
  }
  param {
    lr_mult: 2
  }
  inner_product_param {
    num_output: 10
    weight_filler {
      type: "gaussian"
      std: 0.01
    }
    bias_filler {
      type: "constant"
    }
  }
}
layer {
  name: "loss"
  type: "SoftmaxWithLoss"
  bottom: "ip4"
  bottom: "label"
  top: "loss"
}
I0501 08:24:25.226688 10498 layer_factory.hpp:77] Creating layer cifar
I0501 08:24:25.226784 10498 db_lmdb.cpp:35] Opened lmdb examples/cifar10/cifar10_train_lmdb
I0501 08:24:25.226814 10498 net.cpp:86] Creating Layer cifar
I0501 08:24:25.226822 10498 net.cpp:382] cifar -> data
I0501 08:24:25.226845 10498 net.cpp:382] cifar -> label
I0501 08:24:25.226856 10498 data_transformer.cpp:25] Loading mean file from: examples/cifar10/mean.binaryproto
I0501 08:24:25.229005 10498 data_layer.cpp:45] output data size: 111,3,32,32
I0501 08:24:25.237015 10498 net.cpp:124] Setting up cifar
I0501 08:24:25.237035 10498 net.cpp:131] Top shape: 111 3 32 32 (340992)
I0501 08:24:25.237056 10498 net.cpp:131] Top shape: 111 (111)
I0501 08:24:25.237059 10498 net.cpp:139] Memory required for data: 1364412
I0501 08:24:25.237094 10498 layer_factory.hpp:77] Creating layer conv0
I0501 08:24:25.237123 10498 net.cpp:86] Creating Layer conv0
I0501 08:24:25.237128 10498 net.cpp:408] conv0 <- data
I0501 08:24:25.237143 10498 net.cpp:382] conv0 -> conv0
I0501 08:24:25.516010 10498 net.cpp:124] Setting up conv0
I0501 08:24:25.516037 10498 net.cpp:131] Top shape: 111 16 34 34 (2053056)
I0501 08:24:25.516042 10498 net.cpp:139] Memory required for data: 9576636
I0501 08:24:25.516057 10498 layer_factory.hpp:77] Creating layer Sigmoid0
I0501 08:24:25.516068 10498 net.cpp:86] Creating Layer Sigmoid0
I0501 08:24:25.516072 10498 net.cpp:408] Sigmoid0 <- conv0
I0501 08:24:25.516077 10498 net.cpp:382] Sigmoid0 -> Sigmoid0
I0501 08:24:25.516247 10498 net.cpp:124] Setting up Sigmoid0
I0501 08:24:25.516255 10498 net.cpp:131] Top shape: 111 16 34 34 (2053056)
I0501 08:24:25.516258 10498 net.cpp:139] Memory required for data: 17788860
I0501 08:24:25.516263 10498 layer_factory.hpp:77] Creating layer pool0
I0501 08:24:25.516269 10498 net.cpp:86] Creating Layer pool0
I0501 08:24:25.516273 10498 net.cpp:408] pool0 <- Sigmoid0
I0501 08:24:25.516278 10498 net.cpp:382] pool0 -> pool0
I0501 08:24:25.516978 10498 net.cpp:124] Setting up pool0
I0501 08:24:25.516991 10498 net.cpp:131] Top shape: 111 16 17 17 (513264)
I0501 08:24:25.517011 10498 net.cpp:139] Memory required for data: 19841916
I0501 08:24:25.517015 10498 layer_factory.hpp:77] Creating layer ip1
I0501 08:24:25.517024 10498 net.cpp:86] Creating Layer ip1
I0501 08:24:25.517027 10498 net.cpp:408] ip1 <- pool0
I0501 08:24:25.517048 10498 net.cpp:382] ip1 -> ip1
I0501 08:24:25.519127 10498 net.cpp:124] Setting up ip1
I0501 08:24:25.519140 10498 net.cpp:131] Top shape: 111 10 (1110)
I0501 08:24:25.519143 10498 net.cpp:139] Memory required for data: 19846356
I0501 08:24:25.519151 10498 layer_factory.hpp:77] Creating layer relu1
I0501 08:24:25.519156 10498 net.cpp:86] Creating Layer relu1
I0501 08:24:25.519160 10498 net.cpp:408] relu1 <- ip1
I0501 08:24:25.519165 10498 net.cpp:369] relu1 -> ip1 (in-place)
I0501 08:24:25.519341 10498 net.cpp:124] Setting up relu1
I0501 08:24:25.519351 10498 net.cpp:131] Top shape: 111 10 (1110)
I0501 08:24:25.519353 10498 net.cpp:139] Memory required for data: 19850796
I0501 08:24:25.519356 10498 layer_factory.hpp:77] Creating layer ip2
I0501 08:24:25.519362 10498 net.cpp:86] Creating Layer ip2
I0501 08:24:25.519364 10498 net.cpp:408] ip2 <- ip1
I0501 08:24:25.519369 10498 net.cpp:382] ip2 -> ip2
I0501 08:24:25.519480 10498 net.cpp:124] Setting up ip2
I0501 08:24:25.519486 10498 net.cpp:131] Top shape: 111 80 (8880)
I0501 08:24:25.519490 10498 net.cpp:139] Memory required for data: 19886316
I0501 08:24:25.519496 10498 layer_factory.hpp:77] Creating layer relu2
I0501 08:24:25.519501 10498 net.cpp:86] Creating Layer relu2
I0501 08:24:25.519505 10498 net.cpp:408] relu2 <- ip2
I0501 08:24:25.519508 10498 net.cpp:369] relu2 -> ip2 (in-place)
I0501 08:24:25.519651 10498 net.cpp:124] Setting up relu2
I0501 08:24:25.519659 10498 net.cpp:131] Top shape: 111 80 (8880)
I0501 08:24:25.519661 10498 net.cpp:139] Memory required for data: 19921836
I0501 08:24:25.519665 10498 layer_factory.hpp:77] Creating layer ip3
I0501 08:24:25.519671 10498 net.cpp:86] Creating Layer ip3
I0501 08:24:25.519675 10498 net.cpp:408] ip3 <- ip2
I0501 08:24:25.519680 10498 net.cpp:382] ip3 -> ip3
I0501 08:24:25.519784 10498 net.cpp:124] Setting up ip3
I0501 08:24:25.519790 10498 net.cpp:131] Top shape: 111 10 (1110)
I0501 08:24:25.519793 10498 net.cpp:139] Memory required for data: 19926276
I0501 08:24:25.519798 10498 layer_factory.hpp:77] Creating layer relu3
I0501 08:24:25.519804 10498 net.cpp:86] Creating Layer relu3
I0501 08:24:25.519806 10498 net.cpp:408] relu3 <- ip3
I0501 08:24:25.519809 10498 net.cpp:369] relu3 -> ip3 (in-place)
I0501 08:24:25.519945 10498 net.cpp:124] Setting up relu3
I0501 08:24:25.519953 10498 net.cpp:131] Top shape: 111 10 (1110)
I0501 08:24:25.519956 10498 net.cpp:139] Memory required for data: 19930716
I0501 08:24:25.519959 10498 layer_factory.hpp:77] Creating layer ip4
I0501 08:24:25.519980 10498 net.cpp:86] Creating Layer ip4
I0501 08:24:25.519987 10498 net.cpp:408] ip4 <- ip3
I0501 08:24:25.519991 10498 net.cpp:382] ip4 -> ip4
I0501 08:24:25.520097 10498 net.cpp:124] Setting up ip4
I0501 08:24:25.520104 10498 net.cpp:131] Top shape: 111 10 (1110)
I0501 08:24:25.520107 10498 net.cpp:139] Memory required for data: 19935156
I0501 08:24:25.520114 10498 layer_factory.hpp:77] Creating layer loss
I0501 08:24:25.520119 10498 net.cpp:86] Creating Layer loss
I0501 08:24:25.520124 10498 net.cpp:408] loss <- ip4
I0501 08:24:25.520128 10498 net.cpp:408] loss <- label
I0501 08:24:25.520133 10498 net.cpp:382] loss -> loss
I0501 08:24:25.520146 10498 layer_factory.hpp:77] Creating layer loss
…
I0501 08:24:25.521453 10498 solver.cpp:173] Creating test net (#0) specified by net file: ECE595/cifar/train_test/var_everything/cifar_train_test_510.prototxt
I0501 08:24:25.521497 10498 net.cpp:296] The NetState phase (1) differed from the phase (0) specified by a rule in layer cifar
I0501 08:24:25.521596 10498 net.cpp:53] Initializing net from parameters: 
name: "CIFAR"
state {
  phase: TEST
}
layer {
  name: "cifar"
  type: "Data"
  top: "data"
  top: "label"
  include {
    phase: TEST
  }
  transform_param {
    mean_file: "examples/cifar10/mean.binaryproto"
  }
  data_param {
    source: "examples/cifar10/cifar10_test_lmdb"
    batch_size: 1000
    backend: LMDB
  }
}
layer {
  name: "conv0"
  type: "Convolution"
  bottom: "data"
  top: "conv0"
  param {
    lr_mult: 1
  }
  param {
    lr_mult: 2
  }
  convolution_param {
    num_output: 16
    pad: 2
    kernel_size: 3
    stride: 1
    weight_filler {
      type: "gaussian"
      std: 0.01
    }
    bias_filler {
      type: "constant"
    }
  }
}
layer {
  name: "Sigmoid0"
  type: "Sigmoid"
  bottom: "conv0"
  top: "Sigmoid0"
}
layer {
  name: "pool0"
  type: "Pooling"
  bottom: "Sigmoid0"
  top: "pool0"
  pooling_param {
    pool: AVE
    kernel_size: 3
    stride: 2
  }
}
layer {
  name: "ip1"
  type: "InnerProduct"
  bottom: "pool0"
  top: "ip1"
  param {
    lr_mult: 1
  }
  param {
    lr_mult: 2
  }
  inner_product_param {
    num_output: 10
    weight_filler {
      type: "gaussian"
      std: 0.01
    }
    bias_filler {
      type: "constant"
    }
  }
}
layer {
  name: "relu1"
  type: "ReLU"
  bottom: "ip1"
  top: "ip1"
}
layer {
  name: "ip2"
  type: "InnerProduct"
  bottom: "ip1"
  top: "ip2"
  param {
    lr_mult: 1
  }
  param {
    lr_mult: 2
  }
  inner_product_param {
    num_output: 80
    weight_filler {
      type: "gaussian"
      std: 0.01
    }
    bias_filler {
      type: "constant"
    }
  }
}
layer {
  name: "relu2"
  type: "ReLU"
  bottom: "ip2"
  top: "ip2"
}
layer {
  name: "ip3"
  type: "InnerProduct"
  bottom: "ip2"
  top: "ip3"
  param {
    lr_mult: 1
  }
  param {
    lr_mult: 2
  }
  inner_product_param {
    num_output: 10
    weight_filler {
      type: "gaussian"
      std: 0.01
    }
    bias_filler {
      type: "constant"
    }
  }
}
layer {
  name: "relu3"
  type: "ReLU"
  bottom: "ip3"
  top: "ip3"
}
layer {
  name: "ip4"
  type: "InnerProduct"
  bottom: "ip3"
  top: "ip4"
  param {
    lr_mult: 1
  }
  param {
    lr_mult: 2
  }
  inner_product_param {
    num_output: 10
    weight_filler {
      type: "gaussian"
      std: 0.01
    }
    bias_filler {
      type: "constant"
    }
  }
}
layer {
  name: "accuracy"
  type: "Accuracy"
  bottom: "ip4"
  bottom: "label"
  top: "accuracy"
  include {
    phase: TEST
  }
}
layer {
  name: "loss"
  type: "SoftmaxWithLoss"
  bottom: "ip4"
  bottom: "label"
  top: "loss"
}
I0501 08:24:25.521672 10498 layer_factory.hpp:77] Creating layer cifar
I0501 08:24:25.521716 10498 db_lmdb.cpp:35] Opened lmdb examples/cifar10/cifar10_test_lmdb
I0501 08:24:25.521728 10498 net.cpp:86] Creating Layer cifar
I0501 08:24:25.521733 10498 net.cpp:382] cifar -> data
I0501 08:24:25.521739 10498 net.cpp:382] cifar -> label
I0501 08:24:25.521745 10498 data_transformer.cpp:25] Loading mean file from: examples/cifar10/mean.binaryproto
I0501 08:24:25.521886 10498 data_layer.cpp:45] output data size: 1000,3,32,32
I0501 08:24:25.543331 10498 net.cpp:124] Setting up cifar
I0501 08:24:25.543375 10498 net.cpp:131] Top shape: 1000 3 32 32 (3072000)
I0501 08:24:25.543380 10498 net.cpp:131] Top shape: 1000 (1000)
I0501 08:24:25.543383 10498 net.cpp:139] Memory required for data: 12292000
I0501 08:24:25.543388 10498 layer_factory.hpp:77] Creating layer label_cifar_1_split
I0501 08:24:25.543400 10498 net.cpp:86] Creating Layer label_cifar_1_split
I0501 08:24:25.543418 10498 net.cpp:408] label_cifar_1_split <- label
I0501 08:24:25.543426 10498 net.cpp:382] label_cifar_1_split -> label_cifar_1_split_0
I0501 08:24:25.543434 10498 net.cpp:382] label_cifar_1_split -> label_cifar_1_split_1
I0501 08:24:25.543526 10498 net.cpp:124] Setting up label_cifar_1_split
I0501 08:24:25.543535 10498 net.cpp:131] Top shape: 1000 (1000)
I0501 08:24:25.543539 10498 net.cpp:131] Top shape: 1000 (1000)
I0501 08:24:25.543541 10498 net.cpp:139] Memory required for data: 12300000
I0501 08:24:25.543545 10498 layer_factory.hpp:77] Creating layer conv0
I0501 08:24:25.543557 10498 net.cpp:86] Creating Layer conv0
I0501 08:24:25.543561 10498 net.cpp:408] conv0 <- data
I0501 08:24:25.543566 10498 net.cpp:382] conv0 -> conv0
I0501 08:24:25.545126 10498 net.cpp:124] Setting up conv0
I0501 08:24:25.545157 10498 net.cpp:131] Top shape: 1000 16 34 34 (18496000)
I0501 08:24:25.545161 10498 net.cpp:139] Memory required for data: 86284000
I0501 08:24:25.545186 10498 layer_factory.hpp:77] Creating layer Sigmoid0
I0501 08:24:25.545207 10498 net.cpp:86] Creating Layer Sigmoid0
I0501 08:24:25.545212 10498 net.cpp:408] Sigmoid0 <- conv0
I0501 08:24:25.545231 10498 net.cpp:382] Sigmoid0 -> Sigmoid0
I0501 08:24:25.545431 10498 net.cpp:124] Setting up Sigmoid0
I0501 08:24:25.545440 10498 net.cpp:131] Top shape: 1000 16 34 34 (18496000)
I0501 08:24:25.545444 10498 net.cpp:139] Memory required for data: 160268000
I0501 08:24:25.545446 10498 layer_factory.hpp:77] Creating layer pool0
I0501 08:24:25.545455 10498 net.cpp:86] Creating Layer pool0
I0501 08:24:25.545459 10498 net.cpp:408] pool0 <- Sigmoid0
I0501 08:24:25.545464 10498 net.cpp:382] pool0 -> pool0
I0501 08:24:25.545697 10498 net.cpp:124] Setting up pool0
I0501 08:24:25.545706 10498 net.cpp:131] Top shape: 1000 16 17 17 (4624000)
I0501 08:24:25.545709 10498 net.cpp:139] Memory required for data: 178764000
I0501 08:24:25.545712 10498 layer_factory.hpp:77] Creating layer ip1
I0501 08:24:25.545722 10498 net.cpp:86] Creating Layer ip1
I0501 08:24:25.545725 10498 net.cpp:408] ip1 <- pool0
I0501 08:24:25.545730 10498 net.cpp:382] ip1 -> ip1
I0501 08:24:25.547907 10498 net.cpp:124] Setting up ip1
I0501 08:24:25.547916 10498 net.cpp:131] Top shape: 1000 10 (10000)
I0501 08:24:25.547919 10498 net.cpp:139] Memory required for data: 178804000
I0501 08:24:25.547971 10498 layer_factory.hpp:77] Creating layer relu1
I0501 08:24:25.547977 10498 net.cpp:86] Creating Layer relu1
I0501 08:24:25.547981 10498 net.cpp:408] relu1 <- ip1
I0501 08:24:25.547986 10498 net.cpp:369] relu1 -> ip1 (in-place)
I0501 08:24:25.548153 10498 net.cpp:124] Setting up relu1
I0501 08:24:25.548162 10498 net.cpp:131] Top shape: 1000 10 (10000)
I0501 08:24:25.548166 10498 net.cpp:139] Memory required for data: 178844000
I0501 08:24:25.548171 10498 layer_factory.hpp:77] Creating layer ip2
I0501 08:24:25.548177 10498 net.cpp:86] Creating Layer ip2
I0501 08:24:25.548179 10498 net.cpp:408] ip2 <- ip1
I0501 08:24:25.548184 10498 net.cpp:382] ip2 -> ip2
I0501 08:24:25.548311 10498 net.cpp:124] Setting up ip2
I0501 08:24:25.548319 10498 net.cpp:131] Top shape: 1000 80 (80000)
I0501 08:24:25.548322 10498 net.cpp:139] Memory required for data: 179164000
I0501 08:24:25.548328 10498 layer_factory.hpp:77] Creating layer relu2
I0501 08:24:25.548336 10498 net.cpp:86] Creating Layer relu2
I0501 08:24:25.548341 10498 net.cpp:408] relu2 <- ip2
I0501 08:24:25.548344 10498 net.cpp:369] relu2 -> ip2 (in-place)
I0501 08:24:25.549154 10498 net.cpp:124] Setting up relu2
I0501 08:24:25.549166 10498 net.cpp:131] Top shape: 1000 80 (80000)
I0501 08:24:25.549186 10498 net.cpp:139] Memory required for data: 179484000
I0501 08:24:25.549190 10498 layer_factory.hpp:77] Creating layer ip3
I0501 08:24:25.549197 10498 net.cpp:86] Creating Layer ip3
I0501 08:24:25.549201 10498 net.cpp:408] ip3 <- ip2
I0501 08:24:25.549222 10498 net.cpp:382] ip3 -> ip3
I0501 08:24:25.549348 10498 net.cpp:124] Setting up ip3
I0501 08:24:25.549356 10498 net.cpp:131] Top shape: 1000 10 (10000)
I0501 08:24:25.549360 10498 net.cpp:139] Memory required for data: 179524000
I0501 08:24:25.549365 10498 layer_factory.hpp:77] Creating layer relu3
I0501 08:24:25.549371 10498 net.cpp:86] Creating Layer relu3
I0501 08:24:25.549373 10498 net.cpp:408] relu3 <- ip3
I0501 08:24:25.549377 10498 net.cpp:369] relu3 -> ip3 (in-place)
I0501 08:24:25.549532 10498 net.cpp:124] Setting up relu3
I0501 08:24:25.549541 10498 net.cpp:131] Top shape: 1000 10 (10000)
I0501 08:24:25.549545 10498 net.cpp:139] Memory required for data: 179564000
I0501 08:24:25.549547 10498 layer_factory.hpp:77] Creating layer ip4
I0501 08:24:25.549554 10498 net.cpp:86] Creating Layer ip4
I0501 08:24:25.549557 10498 net.cpp:408] ip4 <- ip3
I0501 08:24:25.549563 10498 net.cpp:382] ip4 -> ip4
I0501 08:24:25.549667 10498 net.cpp:124] Setting up ip4
I0501 08:24:25.549674 10498 net.cpp:131] Top shape: 1000 10 (10000)
I0501 08:24:25.549677 10498 net.cpp:139] Memory required for data: 179604000
I0501 08:24:25.549686 10498 layer_factory.hpp:77] Creating layer ip4_ip4_0_split
I0501 08:24:25.549692 10498 net.cpp:86] Creating Layer ip4_ip4_0_split
I0501 08:24:25.549695 10498 net.cpp:408] ip4_ip4_0_split <- ip4
I0501 08:24:25.549700 10498 net.cpp:382] ip4_ip4_0_split -> ip4_ip4_0_split_0
I0501 08:24:25.549705 10498 net.cpp:382] ip4_ip4_0_split -> ip4_ip4_0_split_1
I0501 08:24:25.549736 10498 net.cpp:124] Setting up ip4_ip4_0_split
I0501 08:24:25.549741 10498 net.cpp:131] Top shape: 1000 10 (10000)
I0501 08:24:25.549746 10498 net.cpp:131] Top shape: 1000 10 (10000)
I0501 08:24:25.549747 10498 net.cpp:139] Memory required for data: 179684000
I0501 08:24:25.549751 10498 layer_factory.hpp:77] Creating layer accuracy
I0501 08:24:25.549757 10498 net.cpp:86] Creating Layer accuracy
I0501 08:24:25.549760 10498 net.cpp:408] accuracy <- ip4_ip4_0_split_0
I0501 08:24:25.549764 10498 net.cpp:408] accuracy <- label_cifar_1_split_0
I0501 08:24:25.549768 10498 net.cpp:382] accuracy -> accuracy
…
