…
I0430 17:27:18.554257 19741 net.cpp:296] The NetState phase (0) differed from the phase (1) specified by a rule in layer cifar
I0430 17:27:18.554270 19741 net.cpp:296] The NetState phase (0) differed from the phase (1) specified by a rule in layer accuracy
I0430 17:27:18.554337 19741 net.cpp:53] Initializing net from parameters: 
name: "CIFAR"
state {
  phase: TRAIN
  level: 0
  stage: ""
}
layer {
  name: "cifar"
  type: "Data"
  top: "data"
  top: "label"
  include {
    phase: TRAIN
  }
  transform_param {
    mean_file: "examples/cifar10/mean.binaryproto"
  }
  data_param {
    source: "examples/cifar10/cifar10_train_lmdb"
    batch_size: 111
    backend: LMDB
  }
}
layer {
  name: "ip1"
  type: "InnerProduct"
  bottom: "data"
  top: "ip1"
  param {
    lr_mult: 1
  }
  param {
    lr_mult: 2
  }
  inner_product_param {
    num_output: 10
    weight_filler {
      type: "gaussian"
      std: 0.01
    }
    bias_filler {
      type: "constant"
    }
  }
}
layer {
  name: "relu1"
  type: "ReLU"
  bottom: "ip1"
  top: "ip1"
}
layer {
  name: "ip2"
  type: "InnerProduct"
  bottom: "ip1"
  top: "ip2"
  param {
    lr_mult: 1
  }
  param {
    lr_mult: 2
  }
  inner_product_param {
    num_output: 20
    weight_filler {
      type: "gaussian"
      std: 0.01
    }
    bias_filler {
      type: "constant"
    }
  }
}
layer {
  name: "relu2"
  type: "ReLU"
  bottom: "ip2"
  top: "ip2"
}
layer {
  name: "ip3"
  type: "InnerProduct"
  bottom: "ip2"
  top: "ip3"
  param {
    lr_mult: 1
  }
  param {
    lr_mult: 2
  }
  inner_product_param {
    num_output: 10
    weight_filler {
      type: "gaussian"
      std: 0.01
    }
    bias_filler {
      type: "constant"
    }
  }
}
layer {
  name: "relu3"
  type: "ReLU"
  bottom: "ip3"
  top: "ip3"
}
layer {
  name: "ip4"
  type: "InnerProduct"
  bottom: "ip3"
  top: "ip4"
  param {
    lr_mult: 1
  }
  param {
    lr_mult: 2
  }
  inner_product_param {
    num_output: 10
    weight_filler {
      type: "gaussian"
      std: 0.01
    }
    bias_filler {
      type: "constant"
    }
  }
}
layer {
  name: "loss"
  type: "SoftmaxWithLoss"
  bottom: "ip4"
  bottom: "label"
  top: "loss"
}
I0430 17:27:18.554391 19741 layer_factory.hpp:77] Creating layer cifar
I0430 17:27:18.554484 19741 db_lmdb.cpp:35] Opened lmdb examples/cifar10/cifar10_train_lmdb
I0430 17:27:18.554509 19741 net.cpp:86] Creating Layer cifar
I0430 17:27:18.554517 19741 net.cpp:382] cifar -> data
I0430 17:27:18.554538 19741 net.cpp:382] cifar -> label
I0430 17:27:18.554553 19741 data_transformer.cpp:25] Loading mean file from: examples/cifar10/mean.binaryproto
I0430 17:27:18.556380 19741 data_layer.cpp:45] output data size: 111,3,32,32
I0430 17:27:18.562758 19741 net.cpp:124] Setting up cifar
I0430 17:27:18.562773 19741 net.cpp:131] Top shape: 111 3 32 32 (340992)
I0430 17:27:18.562777 19741 net.cpp:131] Top shape: 111 (111)
I0430 17:27:18.562780 19741 net.cpp:139] Memory required for data: 1364412
I0430 17:27:18.562785 19741 layer_factory.hpp:77] Creating layer ip1
I0430 17:27:18.562793 19741 net.cpp:86] Creating Layer ip1
I0430 17:27:18.562798 19741 net.cpp:408] ip1 <- data
I0430 17:27:18.562819 19741 net.cpp:382] ip1 -> ip1
I0430 17:27:18.564564 19741 net.cpp:124] Setting up ip1
I0430 17:27:18.564576 19741 net.cpp:131] Top shape: 111 10 (1110)
I0430 17:27:18.564579 19741 net.cpp:139] Memory required for data: 1368852
I0430 17:27:18.564592 19741 layer_factory.hpp:77] Creating layer relu1
I0430 17:27:18.564599 19741 net.cpp:86] Creating Layer relu1
I0430 17:27:18.564615 19741 net.cpp:408] relu1 <- ip1
I0430 17:27:18.564620 19741 net.cpp:369] relu1 -> ip1 (in-place)
I0430 17:27:18.793334 19741 net.cpp:124] Setting up relu1
I0430 17:27:18.793362 19741 net.cpp:131] Top shape: 111 10 (1110)
I0430 17:27:18.793366 19741 net.cpp:139] Memory required for data: 1373292
I0430 17:27:18.793371 19741 layer_factory.hpp:77] Creating layer ip2
I0430 17:27:18.793382 19741 net.cpp:86] Creating Layer ip2
I0430 17:27:18.793386 19741 net.cpp:408] ip2 <- ip1
I0430 17:27:18.793393 19741 net.cpp:382] ip2 -> ip2
I0430 17:27:18.793520 19741 net.cpp:124] Setting up ip2
I0430 17:27:18.793529 19741 net.cpp:131] Top shape: 111 20 (2220)
I0430 17:27:18.793547 19741 net.cpp:139] Memory required for data: 1382172
I0430 17:27:18.793556 19741 layer_factory.hpp:77] Creating layer relu2
I0430 17:27:18.793565 19741 net.cpp:86] Creating Layer relu2
I0430 17:27:18.793584 19741 net.cpp:408] relu2 <- ip2
I0430 17:27:18.793588 19741 net.cpp:369] relu2 -> ip2 (in-place)
I0430 17:27:18.794419 19741 net.cpp:124] Setting up relu2
I0430 17:27:18.794430 19741 net.cpp:131] Top shape: 111 20 (2220)
I0430 17:27:18.794432 19741 net.cpp:139] Memory required for data: 1391052
I0430 17:27:18.794435 19741 layer_factory.hpp:77] Creating layer ip3
I0430 17:27:18.794441 19741 net.cpp:86] Creating Layer ip3
I0430 17:27:18.794445 19741 net.cpp:408] ip3 <- ip2
I0430 17:27:18.794450 19741 net.cpp:382] ip3 -> ip3
I0430 17:27:18.794554 19741 net.cpp:124] Setting up ip3
I0430 17:27:18.794562 19741 net.cpp:131] Top shape: 111 10 (1110)
I0430 17:27:18.794565 19741 net.cpp:139] Memory required for data: 1395492
I0430 17:27:18.794572 19741 layer_factory.hpp:77] Creating layer relu3
I0430 17:27:18.794577 19741 net.cpp:86] Creating Layer relu3
I0430 17:27:18.794579 19741 net.cpp:408] relu3 <- ip3
I0430 17:27:18.794584 19741 net.cpp:369] relu3 -> ip3 (in-place)
I0430 17:27:18.794734 19741 net.cpp:124] Setting up relu3
I0430 17:27:18.794742 19741 net.cpp:131] Top shape: 111 10 (1110)
I0430 17:27:18.794745 19741 net.cpp:139] Memory required for data: 1399932
I0430 17:27:18.794749 19741 layer_factory.hpp:77] Creating layer ip4
I0430 17:27:18.794754 19741 net.cpp:86] Creating Layer ip4
I0430 17:27:18.794757 19741 net.cpp:408] ip4 <- ip3
I0430 17:27:18.794762 19741 net.cpp:382] ip4 -> ip4
I0430 17:27:18.794850 19741 net.cpp:124] Setting up ip4
I0430 17:27:18.794857 19741 net.cpp:131] Top shape: 111 10 (1110)
I0430 17:27:18.794860 19741 net.cpp:139] Memory required for data: 1404372
I0430 17:27:18.794865 19741 layer_factory.hpp:77] Creating layer loss
I0430 17:27:18.794872 19741 net.cpp:86] Creating Layer loss
I0430 17:27:18.794878 19741 net.cpp:408] loss <- ip4
I0430 17:27:18.794881 19741 net.cpp:408] loss <- label
I0430 17:27:18.794903 19741 net.cpp:382] loss -> loss
I0430 17:27:18.794921 19741 layer_factory.hpp:77] Creating layer loss
…
I0430 17:27:18.795511 19741 solver.cpp:173] Creating test net (#0) specified by net file: ECE595/cifar/train_test/var_everything/cifar_train_test_35.prototxt
I0430 17:27:18.795548 19741 net.cpp:296] The NetState phase (1) differed from the phase (0) specified by a rule in layer cifar
I0430 17:27:18.795620 19741 net.cpp:53] Initializing net from parameters: 
name: "CIFAR"
state {
  phase: TEST
}
layer {
  name: "cifar"
  type: "Data"
  top: "data"
  top: "label"
  include {
    phase: TEST
  }
  transform_param {
    mean_file: "examples/cifar10/mean.binaryproto"
  }
  data_param {
    source: "examples/cifar10/cifar10_test_lmdb"
    batch_size: 1000
    backend: LMDB
  }
}
layer {
  name: "ip1"
  type: "InnerProduct"
  bottom: "data"
  top: "ip1"
  param {
    lr_mult: 1
  }
  param {
    lr_mult: 2
  }
  inner_product_param {
    num_output: 10
    weight_filler {
      type: "gaussian"
      std: 0.01
    }
    bias_filler {
      type: "constant"
    }
  }
}
layer {
  name: "relu1"
  type: "ReLU"
  bottom: "ip1"
  top: "ip1"
}
layer {
  name: "ip2"
  type: "InnerProduct"
  bottom: "ip1"
  top: "ip2"
  param {
    lr_mult: 1
  }
  param {
    lr_mult: 2
  }
  inner_product_param {
    num_output: 20
    weight_filler {
      type: "gaussian"
      std: 0.01
    }
    bias_filler {
      type: "constant"
    }
  }
}
layer {
  name: "relu2"
  type: "ReLU"
  bottom: "ip2"
  top: "ip2"
}
layer {
  name: "ip3"
  type: "InnerProduct"
  bottom: "ip2"
  top: "ip3"
  param {
    lr_mult: 1
  }
  param {
    lr_mult: 2
  }
  inner_product_param {
    num_output: 10
    weight_filler {
      type: "gaussian"
      std: 0.01
    }
    bias_filler {
      type: "constant"
    }
  }
}
layer {
  name: "relu3"
  type: "ReLU"
  bottom: "ip3"
  top: "ip3"
}
layer {
  name: "ip4"
  type: "InnerProduct"
  bottom: "ip3"
  top: "ip4"
  param {
    lr_mult: 1
  }
  param {
    lr_mult: 2
  }
  inner_product_param {
    num_output: 10
    weight_filler {
      type: "gaussian"
      std: 0.01
    }
    bias_filler {
      type: "constant"
    }
  }
}
layer {
  name: "accuracy"
  type: "Accuracy"
  bottom: "ip4"
  bottom: "label"
  top: "accuracy"
  include {
    phase: TEST
  }
}
layer {
  name: "loss"
  type: "SoftmaxWithLoss"
  bottom: "ip4"
  bottom: "label"
  top: "loss"
}
I0430 17:27:18.795675 19741 layer_factory.hpp:77] Creating layer cifar
I0430 17:27:18.795737 19741 db_lmdb.cpp:35] Opened lmdb examples/cifar10/cifar10_test_lmdb
I0430 17:27:18.795750 19741 net.cpp:86] Creating Layer cifar
I0430 17:27:18.795758 19741 net.cpp:382] cifar -> data
I0430 17:27:18.795780 19741 net.cpp:382] cifar -> label
I0430 17:27:18.795791 19741 data_transformer.cpp:25] Loading mean file from: examples/cifar10/mean.binaryproto
I0430 17:27:18.795933 19741 data_layer.cpp:45] output data size: 1000,3,32,32
I0430 17:27:18.817798 19741 net.cpp:124] Setting up cifar
I0430 17:27:18.817824 19741 net.cpp:131] Top shape: 1000 3 32 32 (3072000)
I0430 17:27:18.817831 19741 net.cpp:131] Top shape: 1000 (1000)
I0430 17:27:18.817833 19741 net.cpp:139] Memory required for data: 12292000
I0430 17:27:18.817838 19741 layer_factory.hpp:77] Creating layer label_cifar_1_split
I0430 17:27:18.817854 19741 net.cpp:86] Creating Layer label_cifar_1_split
I0430 17:27:18.817876 19741 net.cpp:408] label_cifar_1_split <- label
I0430 17:27:18.817898 19741 net.cpp:382] label_cifar_1_split -> label_cifar_1_split_0
I0430 17:27:18.817922 19741 net.cpp:382] label_cifar_1_split -> label_cifar_1_split_1
I0430 17:27:18.818013 19741 net.cpp:124] Setting up label_cifar_1_split
I0430 17:27:18.818022 19741 net.cpp:131] Top shape: 1000 (1000)
I0430 17:27:18.818025 19741 net.cpp:131] Top shape: 1000 (1000)
I0430 17:27:18.818028 19741 net.cpp:139] Memory required for data: 12300000
I0430 17:27:18.818032 19741 layer_factory.hpp:77] Creating layer ip1
I0430 17:27:18.818042 19741 net.cpp:86] Creating Layer ip1
I0430 17:27:18.818047 19741 net.cpp:408] ip1 <- data
I0430 17:27:18.818051 19741 net.cpp:382] ip1 -> ip1
I0430 17:27:18.819061 19741 net.cpp:124] Setting up ip1
I0430 17:27:18.819069 19741 net.cpp:131] Top shape: 1000 10 (10000)
I0430 17:27:18.819087 19741 net.cpp:139] Memory required for data: 12340000
I0430 17:27:18.819110 19741 layer_factory.hpp:77] Creating layer relu1
I0430 17:27:18.819116 19741 net.cpp:86] Creating Layer relu1
I0430 17:27:18.819119 19741 net.cpp:408] relu1 <- ip1
I0430 17:27:18.819123 19741 net.cpp:369] relu1 -> ip1 (in-place)
I0430 17:27:18.820098 19741 net.cpp:124] Setting up relu1
I0430 17:27:18.820116 19741 net.cpp:131] Top shape: 1000 10 (10000)
I0430 17:27:18.820134 19741 net.cpp:139] Memory required for data: 12380000
I0430 17:27:18.820137 19741 layer_factory.hpp:77] Creating layer ip2
I0430 17:27:18.820145 19741 net.cpp:86] Creating Layer ip2
I0430 17:27:18.820148 19741 net.cpp:408] ip2 <- ip1
I0430 17:27:18.820153 19741 net.cpp:382] ip2 -> ip2
I0430 17:27:18.821274 19741 net.cpp:124] Setting up ip2
I0430 17:27:18.821283 19741 net.cpp:131] Top shape: 1000 20 (20000)
I0430 17:27:18.821301 19741 net.cpp:139] Memory required for data: 12460000
I0430 17:27:18.821310 19741 layer_factory.hpp:77] Creating layer relu2
I0430 17:27:18.821316 19741 net.cpp:86] Creating Layer relu2
I0430 17:27:18.821318 19741 net.cpp:408] relu2 <- ip2
I0430 17:27:18.821322 19741 net.cpp:369] relu2 -> ip2 (in-place)
I0430 17:27:18.821487 19741 net.cpp:124] Setting up relu2
I0430 17:27:18.821494 19741 net.cpp:131] Top shape: 1000 20 (20000)
I0430 17:27:18.821498 19741 net.cpp:139] Memory required for data: 12540000
I0430 17:27:18.821501 19741 layer_factory.hpp:77] Creating layer ip3
I0430 17:27:18.821507 19741 net.cpp:86] Creating Layer ip3
I0430 17:27:18.821511 19741 net.cpp:408] ip3 <- ip2
I0430 17:27:18.821514 19741 net.cpp:382] ip3 -> ip3
I0430 17:27:18.821611 19741 net.cpp:124] Setting up ip3
I0430 17:27:18.821619 19741 net.cpp:131] Top shape: 1000 10 (10000)
I0430 17:27:18.821621 19741 net.cpp:139] Memory required for data: 12580000
I0430 17:27:18.821629 19741 layer_factory.hpp:77] Creating layer relu3
I0430 17:27:18.821635 19741 net.cpp:86] Creating Layer relu3
I0430 17:27:18.821653 19741 net.cpp:408] relu3 <- ip3
I0430 17:27:18.821658 19741 net.cpp:369] relu3 -> ip3 (in-place)
I0430 17:27:18.821805 19741 net.cpp:124] Setting up relu3
I0430 17:27:18.821813 19741 net.cpp:131] Top shape: 1000 10 (10000)
I0430 17:27:18.821816 19741 net.cpp:139] Memory required for data: 12620000
I0430 17:27:18.821820 19741 layer_factory.hpp:77] Creating layer ip4
I0430 17:27:18.821826 19741 net.cpp:86] Creating Layer ip4
I0430 17:27:18.821832 19741 net.cpp:408] ip4 <- ip3
I0430 17:27:18.821853 19741 net.cpp:382] ip4 -> ip4
I0430 17:27:18.821971 19741 net.cpp:124] Setting up ip4
I0430 17:27:18.821979 19741 net.cpp:131] Top shape: 1000 10 (10000)
I0430 17:27:18.821981 19741 net.cpp:139] Memory required for data: 12660000
I0430 17:27:18.821986 19741 layer_factory.hpp:77] Creating layer ip4_ip4_0_split
I0430 17:27:18.821991 19741 net.cpp:86] Creating Layer ip4_ip4_0_split
I0430 17:27:18.821997 19741 net.cpp:408] ip4_ip4_0_split <- ip4
I0430 17:27:18.822017 19741 net.cpp:382] ip4_ip4_0_split -> ip4_ip4_0_split_0
I0430 17:27:18.822023 19741 net.cpp:382] ip4_ip4_0_split -> ip4_ip4_0_split_1
I0430 17:27:18.822054 19741 net.cpp:124] Setting up ip4_ip4_0_split
I0430 17:27:18.822064 19741 net.cpp:131] Top shape: 1000 10 (10000)
I0430 17:27:18.822069 19741 net.cpp:131] Top shape: 1000 10 (10000)
I0430 17:27:18.822088 19741 net.cpp:139] Memory required for data: 12740000
I0430 17:27:18.822100 19741 layer_factory.hpp:77] Creating layer accuracy
I0430 17:27:18.822110 19741 net.cpp:86] Creating Layer accuracy
I0430 17:27:18.822114 19741 net.cpp:408] accuracy <- ip4_ip4_0_split_0
I0430 17:27:18.822118 19741 net.cpp:408] accuracy <- label_cifar_1_split_0
I0430 17:27:18.822137 19741 net.cpp:382] accuracy -> accuracy
…
