…
I0430 18:57:00.054749 24733 net.cpp:296] The NetState phase (0) differed from the phase (1) specified by a rule in layer cifar
I0430 18:57:00.054762 24733 net.cpp:296] The NetState phase (0) differed from the phase (1) specified by a rule in layer accuracy
I0430 18:57:00.054847 24733 net.cpp:53] Initializing net from parameters: 
name: "CIFAR"
state {
  phase: TRAIN
  level: 0
  stage: ""
}
layer {
  name: "cifar"
  type: "Data"
  top: "data"
  top: "label"
  include {
    phase: TRAIN
  }
  transform_param {
    mean_file: "examples/cifar10/mean.binaryproto"
  }
  data_param {
    source: "examples/cifar10/cifar10_train_lmdb"
    batch_size: 111
    backend: LMDB
  }
}
layer {
  name: "ip1"
  type: "InnerProduct"
  bottom: "data"
  top: "ip1"
  param {
    lr_mult: 1
  }
  param {
    lr_mult: 2
  }
  inner_product_param {
    num_output: 40
    weight_filler {
      type: "gaussian"
      std: 0.01
    }
    bias_filler {
      type: "constant"
    }
  }
}
layer {
  name: "relu1"
  type: "ReLU"
  bottom: "ip1"
  top: "ip1"
}
layer {
  name: "ip2"
  type: "InnerProduct"
  bottom: "ip1"
  top: "ip2"
  param {
    lr_mult: 1
  }
  param {
    lr_mult: 2
  }
  inner_product_param {
    num_output: 10
    weight_filler {
      type: "gaussian"
      std: 0.01
    }
    bias_filler {
      type: "constant"
    }
  }
}
layer {
  name: "relu2"
  type: "ReLU"
  bottom: "ip2"
  top: "ip2"
}
layer {
  name: "ip3"
  type: "InnerProduct"
  bottom: "ip2"
  top: "ip3"
  param {
    lr_mult: 1
  }
  param {
    lr_mult: 2
  }
  inner_product_param {
    num_output: 40
    weight_filler {
      type: "gaussian"
      std: 0.01
    }
    bias_filler {
      type: "constant"
    }
  }
}
layer {
  name: "relu3"
  type: "ReLU"
  bottom: "ip3"
  top: "ip3"
}
layer {
  name: "ip4"
  type: "InnerProduct"
  bottom: "ip3"
  top: "ip4"
  param {
    lr_mult: 1
  }
  param {
    lr_mult: 2
  }
  inner_product_param {
    num_output: 10
    weight_filler {
      type: "gaussian"
      std: 0.01
    }
    bias_filler {
      type: "constant"
    }
  }
}
layer {
  name: "loss"
  type: "SoftmaxWithLoss"
  bottom: "ip4"
  bottom: "label"
  top: "loss"
}
I0430 18:57:00.054919 24733 layer_factory.hpp:77] Creating layer cifar
I0430 18:57:00.055039 24733 db_lmdb.cpp:35] Opened lmdb examples/cifar10/cifar10_train_lmdb
I0430 18:57:00.055068 24733 net.cpp:86] Creating Layer cifar
I0430 18:57:00.055078 24733 net.cpp:382] cifar -> data
I0430 18:57:00.055100 24733 net.cpp:382] cifar -> label
I0430 18:57:00.055112 24733 data_transformer.cpp:25] Loading mean file from: examples/cifar10/mean.binaryproto
I0430 18:57:00.057238 24733 data_layer.cpp:45] output data size: 111,3,32,32
I0430 18:57:00.065361 24733 net.cpp:124] Setting up cifar
I0430 18:57:00.065378 24733 net.cpp:131] Top shape: 111 3 32 32 (340992)
I0430 18:57:00.065387 24733 net.cpp:131] Top shape: 111 (111)
I0430 18:57:00.065390 24733 net.cpp:139] Memory required for data: 1364412
I0430 18:57:00.065398 24733 layer_factory.hpp:77] Creating layer ip1
I0430 18:57:00.065409 24733 net.cpp:86] Creating Layer ip1
I0430 18:57:00.065415 24733 net.cpp:408] ip1 <- data
I0430 18:57:00.065426 24733 net.cpp:382] ip1 -> ip1
I0430 18:57:00.069667 24733 net.cpp:124] Setting up ip1
I0430 18:57:00.069681 24733 net.cpp:131] Top shape: 111 40 (4440)
I0430 18:57:00.069685 24733 net.cpp:139] Memory required for data: 1382172
I0430 18:57:00.069699 24733 layer_factory.hpp:77] Creating layer relu1
I0430 18:57:00.069707 24733 net.cpp:86] Creating Layer relu1
I0430 18:57:00.069728 24733 net.cpp:408] relu1 <- ip1
I0430 18:57:00.069737 24733 net.cpp:369] relu1 -> ip1 (in-place)
I0430 18:57:00.346751 24733 net.cpp:124] Setting up relu1
I0430 18:57:00.346778 24733 net.cpp:131] Top shape: 111 40 (4440)
I0430 18:57:00.346783 24733 net.cpp:139] Memory required for data: 1399932
I0430 18:57:00.346788 24733 layer_factory.hpp:77] Creating layer ip2
I0430 18:57:00.346801 24733 net.cpp:86] Creating Layer ip2
I0430 18:57:00.346806 24733 net.cpp:408] ip2 <- ip1
I0430 18:57:00.346813 24733 net.cpp:382] ip2 -> ip2
I0430 18:57:00.347815 24733 net.cpp:124] Setting up ip2
I0430 18:57:00.347827 24733 net.cpp:131] Top shape: 111 10 (1110)
I0430 18:57:00.347831 24733 net.cpp:139] Memory required for data: 1404372
I0430 18:57:00.347841 24733 layer_factory.hpp:77] Creating layer relu2
I0430 18:57:00.347847 24733 net.cpp:86] Creating Layer relu2
I0430 18:57:00.347851 24733 net.cpp:408] relu2 <- ip2
I0430 18:57:00.347856 24733 net.cpp:369] relu2 -> ip2 (in-place)
I0430 18:57:00.348547 24733 net.cpp:124] Setting up relu2
I0430 18:57:00.348559 24733 net.cpp:131] Top shape: 111 10 (1110)
I0430 18:57:00.348563 24733 net.cpp:139] Memory required for data: 1408812
I0430 18:57:00.348567 24733 layer_factory.hpp:77] Creating layer ip3
I0430 18:57:00.348573 24733 net.cpp:86] Creating Layer ip3
I0430 18:57:00.348577 24733 net.cpp:408] ip3 <- ip2
I0430 18:57:00.348582 24733 net.cpp:382] ip3 -> ip3
I0430 18:57:00.348687 24733 net.cpp:124] Setting up ip3
I0430 18:57:00.348695 24733 net.cpp:131] Top shape: 111 40 (4440)
I0430 18:57:00.348698 24733 net.cpp:139] Memory required for data: 1426572
I0430 18:57:00.348706 24733 layer_factory.hpp:77] Creating layer relu3
I0430 18:57:00.348711 24733 net.cpp:86] Creating Layer relu3
I0430 18:57:00.348713 24733 net.cpp:408] relu3 <- ip3
I0430 18:57:00.348717 24733 net.cpp:369] relu3 -> ip3 (in-place)
I0430 18:57:00.348863 24733 net.cpp:124] Setting up relu3
I0430 18:57:00.348871 24733 net.cpp:131] Top shape: 111 40 (4440)
I0430 18:57:00.348875 24733 net.cpp:139] Memory required for data: 1444332
I0430 18:57:00.348877 24733 layer_factory.hpp:77] Creating layer ip4
I0430 18:57:00.348883 24733 net.cpp:86] Creating Layer ip4
I0430 18:57:00.348886 24733 net.cpp:408] ip4 <- ip3
I0430 18:57:00.348891 24733 net.cpp:382] ip4 -> ip4
I0430 18:57:00.348984 24733 net.cpp:124] Setting up ip4
I0430 18:57:00.348990 24733 net.cpp:131] Top shape: 111 10 (1110)
I0430 18:57:00.348994 24733 net.cpp:139] Memory required for data: 1448772
I0430 18:57:00.348999 24733 layer_factory.hpp:77] Creating layer loss
I0430 18:57:00.349004 24733 net.cpp:86] Creating Layer loss
I0430 18:57:00.349007 24733 net.cpp:408] loss <- ip4
I0430 18:57:00.349011 24733 net.cpp:408] loss <- label
I0430 18:57:00.349016 24733 net.cpp:382] loss -> loss
I0430 18:57:00.349033 24733 layer_factory.hpp:77] Creating layer loss
…
I0430 18:57:00.349582 24733 solver.cpp:173] Creating test net (#0) specified by net file: ECE595/cifar/train_test/var_everything/cifar_train_test_82.prototxt
I0430 18:57:00.349620 24733 net.cpp:296] The NetState phase (1) differed from the phase (0) specified by a rule in layer cifar
I0430 18:57:00.349694 24733 net.cpp:53] Initializing net from parameters: 
name: "CIFAR"
state {
  phase: TEST
}
layer {
  name: "cifar"
  type: "Data"
  top: "data"
  top: "label"
  include {
    phase: TEST
  }
  transform_param {
    mean_file: "examples/cifar10/mean.binaryproto"
  }
  data_param {
    source: "examples/cifar10/cifar10_test_lmdb"
    batch_size: 1000
    backend: LMDB
  }
}
layer {
  name: "ip1"
  type: "InnerProduct"
  bottom: "data"
  top: "ip1"
  param {
    lr_mult: 1
  }
  param {
    lr_mult: 2
  }
  inner_product_param {
    num_output: 40
    weight_filler {
      type: "gaussian"
      std: 0.01
    }
    bias_filler {
      type: "constant"
    }
  }
}
layer {
  name: "relu1"
  type: "ReLU"
  bottom: "ip1"
  top: "ip1"
}
layer {
  name: "ip2"
  type: "InnerProduct"
  bottom: "ip1"
  top: "ip2"
  param {
    lr_mult: 1
  }
  param {
    lr_mult: 2
  }
  inner_product_param {
    num_output: 10
    weight_filler {
      type: "gaussian"
      std: 0.01
    }
    bias_filler {
      type: "constant"
    }
  }
}
layer {
  name: "relu2"
  type: "ReLU"
  bottom: "ip2"
  top: "ip2"
}
layer {
  name: "ip3"
  type: "InnerProduct"
  bottom: "ip2"
  top: "ip3"
  param {
    lr_mult: 1
  }
  param {
    lr_mult: 2
  }
  inner_product_param {
    num_output: 40
    weight_filler {
      type: "gaussian"
      std: 0.01
    }
    bias_filler {
      type: "constant"
    }
  }
}
layer {
  name: "relu3"
  type: "ReLU"
  bottom: "ip3"
  top: "ip3"
}
layer {
  name: "ip4"
  type: "InnerProduct"
  bottom: "ip3"
  top: "ip4"
  param {
    lr_mult: 1
  }
  param {
    lr_mult: 2
  }
  inner_product_param {
    num_output: 10
    weight_filler {
      type: "gaussian"
      std: 0.01
    }
    bias_filler {
      type: "constant"
    }
  }
}
layer {
  name: "accuracy"
  type: "Accuracy"
  bottom: "ip4"
  bottom: "label"
  top: "accuracy"
  include {
    phase: TEST
  }
}
layer {
  name: "loss"
  type: "SoftmaxWithLoss"
  bottom: "ip4"
  bottom: "label"
  top: "loss"
}
I0430 18:57:00.349750 24733 layer_factory.hpp:77] Creating layer cifar
I0430 18:57:00.349792 24733 db_lmdb.cpp:35] Opened lmdb examples/cifar10/cifar10_test_lmdb
I0430 18:57:00.349804 24733 net.cpp:86] Creating Layer cifar
I0430 18:57:00.349808 24733 net.cpp:382] cifar -> data
I0430 18:57:00.349817 24733 net.cpp:382] cifar -> label
I0430 18:57:00.349822 24733 data_transformer.cpp:25] Loading mean file from: examples/cifar10/mean.binaryproto
I0430 18:57:00.349954 24733 data_layer.cpp:45] output data size: 1000,3,32,32
I0430 18:57:00.371961 24733 net.cpp:124] Setting up cifar
I0430 18:57:00.372000 24733 net.cpp:131] Top shape: 1000 3 32 32 (3072000)
I0430 18:57:00.372006 24733 net.cpp:131] Top shape: 1000 (1000)
I0430 18:57:00.372009 24733 net.cpp:139] Memory required for data: 12292000
I0430 18:57:00.372015 24733 layer_factory.hpp:77] Creating layer label_cifar_1_split
I0430 18:57:00.372040 24733 net.cpp:86] Creating Layer label_cifar_1_split
I0430 18:57:00.372045 24733 net.cpp:408] label_cifar_1_split <- label
I0430 18:57:00.372051 24733 net.cpp:382] label_cifar_1_split -> label_cifar_1_split_0
I0430 18:57:00.372061 24733 net.cpp:382] label_cifar_1_split -> label_cifar_1_split_1
I0430 18:57:00.372155 24733 net.cpp:124] Setting up label_cifar_1_split
I0430 18:57:00.372162 24733 net.cpp:131] Top shape: 1000 (1000)
I0430 18:57:00.372166 24733 net.cpp:131] Top shape: 1000 (1000)
I0430 18:57:00.372169 24733 net.cpp:139] Memory required for data: 12300000
I0430 18:57:00.372172 24733 layer_factory.hpp:77] Creating layer ip1
I0430 18:57:00.372180 24733 net.cpp:86] Creating Layer ip1
I0430 18:57:00.372184 24733 net.cpp:408] ip1 <- data
I0430 18:57:00.372189 24733 net.cpp:382] ip1 -> ip1
I0430 18:57:00.375640 24733 net.cpp:124] Setting up ip1
I0430 18:57:00.375649 24733 net.cpp:131] Top shape: 1000 40 (40000)
I0430 18:57:00.375669 24733 net.cpp:139] Memory required for data: 12460000
I0430 18:57:00.375695 24733 layer_factory.hpp:77] Creating layer relu1
I0430 18:57:00.375726 24733 net.cpp:86] Creating Layer relu1
I0430 18:57:00.375730 24733 net.cpp:408] relu1 <- ip1
I0430 18:57:00.375735 24733 net.cpp:369] relu1 -> ip1 (in-place)
I0430 18:57:00.376490 24733 net.cpp:124] Setting up relu1
I0430 18:57:00.376518 24733 net.cpp:131] Top shape: 1000 40 (40000)
I0430 18:57:00.376543 24733 net.cpp:139] Memory required for data: 12620000
I0430 18:57:00.376546 24733 layer_factory.hpp:77] Creating layer ip2
I0430 18:57:00.376556 24733 net.cpp:86] Creating Layer ip2
I0430 18:57:00.376560 24733 net.cpp:408] ip2 <- ip1
I0430 18:57:00.376565 24733 net.cpp:382] ip2 -> ip2
I0430 18:57:00.376678 24733 net.cpp:124] Setting up ip2
I0430 18:57:00.376685 24733 net.cpp:131] Top shape: 1000 10 (10000)
I0430 18:57:00.376688 24733 net.cpp:139] Memory required for data: 12660000
I0430 18:57:00.376696 24733 layer_factory.hpp:77] Creating layer relu2
I0430 18:57:00.376701 24733 net.cpp:86] Creating Layer relu2
I0430 18:57:00.376704 24733 net.cpp:408] relu2 <- ip2
I0430 18:57:00.376708 24733 net.cpp:369] relu2 -> ip2 (in-place)
I0430 18:57:00.376883 24733 net.cpp:124] Setting up relu2
I0430 18:57:00.376891 24733 net.cpp:131] Top shape: 1000 10 (10000)
I0430 18:57:00.376894 24733 net.cpp:139] Memory required for data: 12700000
I0430 18:57:00.376898 24733 layer_factory.hpp:77] Creating layer ip3
I0430 18:57:00.376904 24733 net.cpp:86] Creating Layer ip3
I0430 18:57:00.376907 24733 net.cpp:408] ip3 <- ip2
I0430 18:57:00.376911 24733 net.cpp:382] ip3 -> ip3
I0430 18:57:00.377012 24733 net.cpp:124] Setting up ip3
I0430 18:57:00.377019 24733 net.cpp:131] Top shape: 1000 40 (40000)
I0430 18:57:00.377022 24733 net.cpp:139] Memory required for data: 12860000
I0430 18:57:00.377028 24733 layer_factory.hpp:77] Creating layer relu3
I0430 18:57:00.377034 24733 net.cpp:86] Creating Layer relu3
I0430 18:57:00.377038 24733 net.cpp:408] relu3 <- ip3
I0430 18:57:00.377041 24733 net.cpp:369] relu3 -> ip3 (in-place)
I0430 18:57:00.377178 24733 net.cpp:124] Setting up relu3
I0430 18:57:00.377187 24733 net.cpp:131] Top shape: 1000 40 (40000)
I0430 18:57:00.377189 24733 net.cpp:139] Memory required for data: 13020000
I0430 18:57:00.377192 24733 layer_factory.hpp:77] Creating layer ip4
I0430 18:57:00.377198 24733 net.cpp:86] Creating Layer ip4
I0430 18:57:00.377202 24733 net.cpp:408] ip4 <- ip3
I0430 18:57:00.377207 24733 net.cpp:382] ip4 -> ip4
I0430 18:57:00.377306 24733 net.cpp:124] Setting up ip4
I0430 18:57:00.377313 24733 net.cpp:131] Top shape: 1000 10 (10000)
I0430 18:57:00.377316 24733 net.cpp:139] Memory required for data: 13060000
I0430 18:57:00.377321 24733 layer_factory.hpp:77] Creating layer ip4_ip4_0_split
I0430 18:57:00.377326 24733 net.cpp:86] Creating Layer ip4_ip4_0_split
I0430 18:57:00.377329 24733 net.cpp:408] ip4_ip4_0_split <- ip4
I0430 18:57:00.377333 24733 net.cpp:382] ip4_ip4_0_split -> ip4_ip4_0_split_0
I0430 18:57:00.377339 24733 net.cpp:382] ip4_ip4_0_split -> ip4_ip4_0_split_1
I0430 18:57:00.377367 24733 net.cpp:124] Setting up ip4_ip4_0_split
I0430 18:57:00.377370 24733 net.cpp:131] Top shape: 1000 10 (10000)
I0430 18:57:00.377374 24733 net.cpp:131] Top shape: 1000 10 (10000)
I0430 18:57:00.377377 24733 net.cpp:139] Memory required for data: 13140000
I0430 18:57:00.377380 24733 layer_factory.hpp:77] Creating layer accuracy
I0430 18:57:00.377385 24733 net.cpp:86] Creating Layer accuracy
I0430 18:57:00.377388 24733 net.cpp:408] accuracy <- ip4_ip4_0_split_0
I0430 18:57:00.377391 24733 net.cpp:408] accuracy <- label_cifar_1_split_0
I0430 18:57:00.377395 24733 net.cpp:382] accuracy -> accuracy
…
