…
I0501 07:39:06.449286  6474 net.cpp:296] The NetState phase (0) differed from the phase (1) specified by a rule in layer cifar
I0501 07:39:06.449316  6474 net.cpp:296] The NetState phase (0) differed from the phase (1) specified by a rule in layer accuracy
I0501 07:39:06.449409  6474 net.cpp:53] Initializing net from parameters: 
name: "CIFAR"
state {
  phase: TRAIN
  level: 0
  stage: ""
}
layer {
  name: "cifar"
  type: "Data"
  top: "data"
  top: "label"
  include {
    phase: TRAIN
  }
  transform_param {
    mean_file: "examples/cifar10/mean.binaryproto"
  }
  data_param {
    source: "examples/cifar10/cifar10_train_lmdb"
    batch_size: 111
    backend: LMDB
  }
}
layer {
  name: "conv0"
  type: "Convolution"
  bottom: "data"
  top: "conv0"
  param {
    lr_mult: 1
  }
  param {
    lr_mult: 2
  }
  convolution_param {
    num_output: 16
    pad: 2
    kernel_size: 3
    stride: 1
    weight_filler {
      type: "gaussian"
      std: 0.01
    }
    bias_filler {
      type: "constant"
    }
  }
}
layer {
  name: "Sigmoid0"
  type: "Sigmoid"
  bottom: "conv0"
  top: "Sigmoid0"
}
layer {
  name: "pool0"
  type: "Pooling"
  bottom: "Sigmoid0"
  top: "pool0"
  pooling_param {
    pool: AVE
    kernel_size: 3
    stride: 2
  }
}
layer {
  name: "ip1"
  type: "InnerProduct"
  bottom: "pool0"
  top: "ip1"
  param {
    lr_mult: 1
  }
  param {
    lr_mult: 2
  }
  inner_product_param {
    num_output: 80
    weight_filler {
      type: "gaussian"
      std: 0.01
    }
    bias_filler {
      type: "constant"
    }
  }
}
layer {
  name: "relu1"
  type: "ReLU"
  bottom: "ip1"
  top: "ip1"
}
layer {
  name: "ip2"
  type: "InnerProduct"
  bottom: "ip1"
  top: "ip2"
  param {
    lr_mult: 1
  }
  param {
    lr_mult: 2
  }
  inner_product_param {
    num_output: 80
    weight_filler {
      type: "gaussian"
      std: 0.01
    }
    bias_filler {
      type: "constant"
    }
  }
}
layer {
  name: "relu2"
  type: "ReLU"
  bottom: "ip2"
  top: "ip2"
}
layer {
  name: "ip3"
  type: "InnerProduct"
  bottom: "ip2"
  top: "ip3"
  param {
    lr_mult: 1
  }
  param {
    lr_mult: 2
  }
  inner_product_param {
    num_output: 10
    weight_filler {
      type: "gaussian"
      std: 0.01
    }
    bias_filler {
      type: "constant"
    }
  }
}
layer {
  name: "loss"
  type: "SoftmaxWithLoss"
  bottom: "ip3"
  bottom: "label"
  top: "loss"
}
I0501 07:39:06.449476  6474 layer_factory.hpp:77] Creating layer cifar
I0501 07:39:06.449563  6474 db_lmdb.cpp:35] Opened lmdb examples/cifar10/cifar10_train_lmdb
I0501 07:39:06.449589  6474 net.cpp:86] Creating Layer cifar
I0501 07:39:06.449595  6474 net.cpp:382] cifar -> data
I0501 07:39:06.449615  6474 net.cpp:382] cifar -> label
I0501 07:39:06.449625  6474 data_transformer.cpp:25] Loading mean file from: examples/cifar10/mean.binaryproto
I0501 07:39:06.451490  6474 data_layer.cpp:45] output data size: 111,3,32,32
I0501 07:39:06.458302  6474 net.cpp:124] Setting up cifar
I0501 07:39:06.458333  6474 net.cpp:131] Top shape: 111 3 32 32 (340992)
I0501 07:39:06.458343  6474 net.cpp:131] Top shape: 111 (111)
I0501 07:39:06.458346  6474 net.cpp:139] Memory required for data: 1364412
I0501 07:39:06.458353  6474 layer_factory.hpp:77] Creating layer conv0
I0501 07:39:06.458384  6474 net.cpp:86] Creating Layer conv0
I0501 07:39:06.458389  6474 net.cpp:408] conv0 <- data
I0501 07:39:06.458400  6474 net.cpp:382] conv0 -> conv0
I0501 07:39:06.703982  6474 net.cpp:124] Setting up conv0
I0501 07:39:06.704044  6474 net.cpp:131] Top shape: 111 16 34 34 (2053056)
I0501 07:39:06.704049  6474 net.cpp:139] Memory required for data: 9576636
I0501 07:39:06.704064  6474 layer_factory.hpp:77] Creating layer Sigmoid0
I0501 07:39:06.704084  6474 net.cpp:86] Creating Layer Sigmoid0
I0501 07:39:06.704089  6474 net.cpp:408] Sigmoid0 <- conv0
I0501 07:39:06.704094  6474 net.cpp:382] Sigmoid0 -> Sigmoid0
I0501 07:39:06.704291  6474 net.cpp:124] Setting up Sigmoid0
I0501 07:39:06.704301  6474 net.cpp:131] Top shape: 111 16 34 34 (2053056)
I0501 07:39:06.704305  6474 net.cpp:139] Memory required for data: 17788860
I0501 07:39:06.704308  6474 layer_factory.hpp:77] Creating layer pool0
I0501 07:39:06.704315  6474 net.cpp:86] Creating Layer pool0
I0501 07:39:06.704319  6474 net.cpp:408] pool0 <- Sigmoid0
I0501 07:39:06.704324  6474 net.cpp:382] pool0 -> pool0
I0501 07:39:06.705189  6474 net.cpp:124] Setting up pool0
I0501 07:39:06.705204  6474 net.cpp:131] Top shape: 111 16 17 17 (513264)
I0501 07:39:06.705222  6474 net.cpp:139] Memory required for data: 19841916
I0501 07:39:06.705226  6474 layer_factory.hpp:77] Creating layer ip1
I0501 07:39:06.705236  6474 net.cpp:86] Creating Layer ip1
I0501 07:39:06.705240  6474 net.cpp:408] ip1 <- pool0
I0501 07:39:06.705245  6474 net.cpp:382] ip1 -> ip1
I0501 07:39:06.716239  6474 net.cpp:124] Setting up ip1
I0501 07:39:06.716253  6474 net.cpp:131] Top shape: 111 80 (8880)
I0501 07:39:06.716271  6474 net.cpp:139] Memory required for data: 19877436
I0501 07:39:06.716279  6474 layer_factory.hpp:77] Creating layer relu1
I0501 07:39:06.716286  6474 net.cpp:86] Creating Layer relu1
I0501 07:39:06.716289  6474 net.cpp:408] relu1 <- ip1
I0501 07:39:06.716295  6474 net.cpp:369] relu1 -> ip1 (in-place)
I0501 07:39:06.716470  6474 net.cpp:124] Setting up relu1
I0501 07:39:06.716480  6474 net.cpp:131] Top shape: 111 80 (8880)
I0501 07:39:06.716482  6474 net.cpp:139] Memory required for data: 19912956
I0501 07:39:06.716486  6474 layer_factory.hpp:77] Creating layer ip2
I0501 07:39:06.716492  6474 net.cpp:86] Creating Layer ip2
I0501 07:39:06.716496  6474 net.cpp:408] ip2 <- ip1
I0501 07:39:06.716501  6474 net.cpp:382] ip2 -> ip2
I0501 07:39:06.717687  6474 net.cpp:124] Setting up ip2
I0501 07:39:06.717700  6474 net.cpp:131] Top shape: 111 80 (8880)
I0501 07:39:06.717720  6474 net.cpp:139] Memory required for data: 19948476
I0501 07:39:06.717728  6474 layer_factory.hpp:77] Creating layer relu2
I0501 07:39:06.717734  6474 net.cpp:86] Creating Layer relu2
I0501 07:39:06.717738  6474 net.cpp:408] relu2 <- ip2
I0501 07:39:06.717743  6474 net.cpp:369] relu2 -> ip2 (in-place)
I0501 07:39:06.717936  6474 net.cpp:124] Setting up relu2
I0501 07:39:06.717945  6474 net.cpp:131] Top shape: 111 80 (8880)
I0501 07:39:06.717948  6474 net.cpp:139] Memory required for data: 19983996
I0501 07:39:06.717952  6474 layer_factory.hpp:77] Creating layer ip3
I0501 07:39:06.717960  6474 net.cpp:86] Creating Layer ip3
I0501 07:39:06.717964  6474 net.cpp:408] ip3 <- ip2
I0501 07:39:06.717969  6474 net.cpp:382] ip3 -> ip3
I0501 07:39:06.718103  6474 net.cpp:124] Setting up ip3
I0501 07:39:06.718111  6474 net.cpp:131] Top shape: 111 10 (1110)
I0501 07:39:06.718114  6474 net.cpp:139] Memory required for data: 19988436
I0501 07:39:06.718119  6474 layer_factory.hpp:77] Creating layer loss
I0501 07:39:06.718125  6474 net.cpp:86] Creating Layer loss
I0501 07:39:06.718128  6474 net.cpp:408] loss <- ip3
I0501 07:39:06.718132  6474 net.cpp:408] loss <- label
I0501 07:39:06.718138  6474 net.cpp:382] loss -> loss
I0501 07:39:06.718156  6474 layer_factory.hpp:77] Creating layer loss
…
I0501 07:39:06.718781  6474 solver.cpp:173] Creating test net (#0) specified by net file: ECE595/cifar/train_test/var_everything/cifar_train_test_488.prototxt
I0501 07:39:06.718811  6474 net.cpp:296] The NetState phase (1) differed from the phase (0) specified by a rule in layer cifar
I0501 07:39:06.718900  6474 net.cpp:53] Initializing net from parameters: 
name: "CIFAR"
state {
  phase: TEST
}
layer {
  name: "cifar"
  type: "Data"
  top: "data"
  top: "label"
  include {
    phase: TEST
  }
  transform_param {
    mean_file: "examples/cifar10/mean.binaryproto"
  }
  data_param {
    source: "examples/cifar10/cifar10_test_lmdb"
    batch_size: 1000
    backend: LMDB
  }
}
layer {
  name: "conv0"
  type: "Convolution"
  bottom: "data"
  top: "conv0"
  param {
    lr_mult: 1
  }
  param {
    lr_mult: 2
  }
  convolution_param {
    num_output: 16
    pad: 2
    kernel_size: 3
    stride: 1
    weight_filler {
      type: "gaussian"
      std: 0.01
    }
    bias_filler {
      type: "constant"
    }
  }
}
layer {
  name: "Sigmoid0"
  type: "Sigmoid"
  bottom: "conv0"
  top: "Sigmoid0"
}
layer {
  name: "pool0"
  type: "Pooling"
  bottom: "Sigmoid0"
  top: "pool0"
  pooling_param {
    pool: AVE
    kernel_size: 3
    stride: 2
  }
}
layer {
  name: "ip1"
  type: "InnerProduct"
  bottom: "pool0"
  top: "ip1"
  param {
    lr_mult: 1
  }
  param {
    lr_mult: 2
  }
  inner_product_param {
    num_output: 80
    weight_filler {
      type: "gaussian"
      std: 0.01
    }
    bias_filler {
      type: "constant"
    }
  }
}
layer {
  name: "relu1"
  type: "ReLU"
  bottom: "ip1"
  top: "ip1"
}
layer {
  name: "ip2"
  type: "InnerProduct"
  bottom: "ip1"
  top: "ip2"
  param {
    lr_mult: 1
  }
  param {
    lr_mult: 2
  }
  inner_product_param {
    num_output: 80
    weight_filler {
      type: "gaussian"
      std: 0.01
    }
    bias_filler {
      type: "constant"
    }
  }
}
layer {
  name: "relu2"
  type: "ReLU"
  bottom: "ip2"
  top: "ip2"
}
layer {
  name: "ip3"
  type: "InnerProduct"
  bottom: "ip2"
  top: "ip3"
  param {
    lr_mult: 1
  }
  param {
    lr_mult: 2
  }
  inner_product_param {
    num_output: 10
    weight_filler {
      type: "gaussian"
      std: 0.01
    }
    bias_filler {
      type: "constant"
    }
  }
}
layer {
  name: "accuracy"
  type: "Accuracy"
  bottom: "ip3"
  bottom: "label"
  top: "accuracy"
  include {
    phase: TEST
  }
}
layer {
  name: "loss"
  type: "SoftmaxWithLoss"
  bottom: "ip3"
  bottom: "label"
  top: "loss"
}
I0501 07:39:06.718966  6474 layer_factory.hpp:77] Creating layer cifar
I0501 07:39:06.719014  6474 db_lmdb.cpp:35] Opened lmdb examples/cifar10/cifar10_test_lmdb
I0501 07:39:06.719027  6474 net.cpp:86] Creating Layer cifar
I0501 07:39:06.719033  6474 net.cpp:382] cifar -> data
I0501 07:39:06.719040  6474 net.cpp:382] cifar -> label
I0501 07:39:06.719048  6474 data_transformer.cpp:25] Loading mean file from: examples/cifar10/mean.binaryproto
I0501 07:39:06.719208  6474 data_layer.cpp:45] output data size: 1000,3,32,32
I0501 07:39:06.742362  6474 net.cpp:124] Setting up cifar
I0501 07:39:06.742390  6474 net.cpp:131] Top shape: 1000 3 32 32 (3072000)
I0501 07:39:06.742396  6474 net.cpp:131] Top shape: 1000 (1000)
I0501 07:39:06.742399  6474 net.cpp:139] Memory required for data: 12292000
I0501 07:39:06.742404  6474 layer_factory.hpp:77] Creating layer label_cifar_1_split
I0501 07:39:06.742422  6474 net.cpp:86] Creating Layer label_cifar_1_split
I0501 07:39:06.742441  6474 net.cpp:408] label_cifar_1_split <- label
I0501 07:39:06.742447  6474 net.cpp:382] label_cifar_1_split -> label_cifar_1_split_0
I0501 07:39:06.742477  6474 net.cpp:382] label_cifar_1_split -> label_cifar_1_split_1
I0501 07:39:06.742547  6474 net.cpp:124] Setting up label_cifar_1_split
I0501 07:39:06.742560  6474 net.cpp:131] Top shape: 1000 (1000)
I0501 07:39:06.742564  6474 net.cpp:131] Top shape: 1000 (1000)
I0501 07:39:06.742568  6474 net.cpp:139] Memory required for data: 12300000
I0501 07:39:06.742570  6474 layer_factory.hpp:77] Creating layer conv0
I0501 07:39:06.742583  6474 net.cpp:86] Creating Layer conv0
I0501 07:39:06.742588  6474 net.cpp:408] conv0 <- data
I0501 07:39:06.742593  6474 net.cpp:382] conv0 -> conv0
I0501 07:39:06.744289  6474 net.cpp:124] Setting up conv0
I0501 07:39:06.744319  6474 net.cpp:131] Top shape: 1000 16 34 34 (18496000)
I0501 07:39:06.744323  6474 net.cpp:139] Memory required for data: 86284000
I0501 07:39:06.744333  6474 layer_factory.hpp:77] Creating layer Sigmoid0
I0501 07:39:06.744340  6474 net.cpp:86] Creating Layer Sigmoid0
I0501 07:39:06.744344  6474 net.cpp:408] Sigmoid0 <- conv0
I0501 07:39:06.744349  6474 net.cpp:382] Sigmoid0 -> Sigmoid0
I0501 07:39:06.745322  6474 net.cpp:124] Setting up Sigmoid0
I0501 07:39:06.745365  6474 net.cpp:131] Top shape: 1000 16 34 34 (18496000)
I0501 07:39:06.745369  6474 net.cpp:139] Memory required for data: 160268000
I0501 07:39:06.745373  6474 layer_factory.hpp:77] Creating layer pool0
I0501 07:39:06.745383  6474 net.cpp:86] Creating Layer pool0
I0501 07:39:06.745385  6474 net.cpp:408] pool0 <- Sigmoid0
I0501 07:39:06.745390  6474 net.cpp:382] pool0 -> pool0
I0501 07:39:06.746558  6474 net.cpp:124] Setting up pool0
I0501 07:39:06.746567  6474 net.cpp:131] Top shape: 1000 16 17 17 (4624000)
I0501 07:39:06.746587  6474 net.cpp:139] Memory required for data: 178764000
I0501 07:39:06.746590  6474 layer_factory.hpp:77] Creating layer ip1
I0501 07:39:06.746599  6474 net.cpp:86] Creating Layer ip1
I0501 07:39:06.746603  6474 net.cpp:408] ip1 <- pool0
I0501 07:39:06.746609  6474 net.cpp:382] ip1 -> ip1
I0501 07:39:06.758368  6474 net.cpp:124] Setting up ip1
I0501 07:39:06.758399  6474 net.cpp:131] Top shape: 1000 80 (80000)
I0501 07:39:06.758402  6474 net.cpp:139] Memory required for data: 179084000
I0501 07:39:06.758411  6474 layer_factory.hpp:77] Creating layer relu1
I0501 07:39:06.758417  6474 net.cpp:86] Creating Layer relu1
I0501 07:39:06.758421  6474 net.cpp:408] relu1 <- ip1
I0501 07:39:06.758441  6474 net.cpp:369] relu1 -> ip1 (in-place)
I0501 07:39:06.758636  6474 net.cpp:124] Setting up relu1
I0501 07:39:06.758646  6474 net.cpp:131] Top shape: 1000 80 (80000)
I0501 07:39:06.758651  6474 net.cpp:139] Memory required for data: 179404000
I0501 07:39:06.758653  6474 layer_factory.hpp:77] Creating layer ip2
I0501 07:39:06.758661  6474 net.cpp:86] Creating Layer ip2
I0501 07:39:06.758664  6474 net.cpp:408] ip2 <- ip1
I0501 07:39:06.758671  6474 net.cpp:382] ip2 -> ip2
I0501 07:39:06.758965  6474 net.cpp:124] Setting up ip2
I0501 07:39:06.758975  6474 net.cpp:131] Top shape: 1000 80 (80000)
I0501 07:39:06.758992  6474 net.cpp:139] Memory required for data: 179724000
I0501 07:39:06.759014  6474 layer_factory.hpp:77] Creating layer relu2
I0501 07:39:06.759021  6474 net.cpp:86] Creating Layer relu2
I0501 07:39:06.759039  6474 net.cpp:408] relu2 <- ip2
I0501 07:39:06.759044  6474 net.cpp:369] relu2 -> ip2 (in-place)
I0501 07:39:06.759244  6474 net.cpp:124] Setting up relu2
I0501 07:39:06.759254  6474 net.cpp:131] Top shape: 1000 80 (80000)
I0501 07:39:06.759258  6474 net.cpp:139] Memory required for data: 180044000
I0501 07:39:06.759261  6474 layer_factory.hpp:77] Creating layer ip3
I0501 07:39:06.759268  6474 net.cpp:86] Creating Layer ip3
I0501 07:39:06.759272  6474 net.cpp:408] ip3 <- ip2
I0501 07:39:06.759279  6474 net.cpp:382] ip3 -> ip3
I0501 07:39:06.759418  6474 net.cpp:124] Setting up ip3
I0501 07:39:06.759426  6474 net.cpp:131] Top shape: 1000 10 (10000)
I0501 07:39:06.759448  6474 net.cpp:139] Memory required for data: 180084000
I0501 07:39:06.759454  6474 layer_factory.hpp:77] Creating layer ip3_ip3_0_split
I0501 07:39:06.759460  6474 net.cpp:86] Creating Layer ip3_ip3_0_split
I0501 07:39:06.759464  6474 net.cpp:408] ip3_ip3_0_split <- ip3
I0501 07:39:06.759469  6474 net.cpp:382] ip3_ip3_0_split -> ip3_ip3_0_split_0
I0501 07:39:06.759475  6474 net.cpp:382] ip3_ip3_0_split -> ip3_ip3_0_split_1
I0501 07:39:06.759511  6474 net.cpp:124] Setting up ip3_ip3_0_split
I0501 07:39:06.759516  6474 net.cpp:131] Top shape: 1000 10 (10000)
I0501 07:39:06.759538  6474 net.cpp:131] Top shape: 1000 10 (10000)
I0501 07:39:06.759542  6474 net.cpp:139] Memory required for data: 180164000
I0501 07:39:06.759546  6474 layer_factory.hpp:77] Creating layer accuracy
I0501 07:39:06.759552  6474 net.cpp:86] Creating Layer accuracy
I0501 07:39:06.759554  6474 net.cpp:408] accuracy <- ip3_ip3_0_split_0
I0501 07:39:06.759559  6474 net.cpp:408] accuracy <- label_cifar_1_split_0
I0501 07:39:06.759564  6474 net.cpp:382] accuracy -> accuracy
…
