…
I0501 01:55:49.274813 12840 net.cpp:296] The NetState phase (0) differed from the phase (1) specified by a rule in layer cifar
I0501 01:55:49.274832 12840 net.cpp:296] The NetState phase (0) differed from the phase (1) specified by a rule in layer accuracy
I0501 01:55:49.274936 12840 net.cpp:53] Initializing net from parameters: 
name: "CIFAR"
state {
  phase: TRAIN
  level: 0
  stage: ""
}
layer {
  name: "cifar"
  type: "Data"
  top: "data"
  top: "label"
  include {
    phase: TRAIN
  }
  transform_param {
    mean_file: "examples/cifar10/mean.binaryproto"
  }
  data_param {
    source: "examples/cifar10/cifar10_train_lmdb"
    batch_size: 111
    backend: LMDB
  }
}
layer {
  name: "conv0"
  type: "Convolution"
  bottom: "data"
  top: "conv0"
  param {
    lr_mult: 1
  }
  param {
    lr_mult: 2
  }
  convolution_param {
    num_output: 8
    pad: 2
    kernel_size: 3
    stride: 1
    weight_filler {
      type: "gaussian"
      std: 0.01
    }
    bias_filler {
      type: "constant"
    }
  }
}
layer {
  name: "Sigmoid0"
  type: "Sigmoid"
  bottom: "conv0"
  top: "Sigmoid0"
}
layer {
  name: "pool0"
  type: "Pooling"
  bottom: "Sigmoid0"
  top: "pool0"
  pooling_param {
    pool: AVE
    kernel_size: 3
    stride: 2
  }
}
layer {
  name: "ip1"
  type: "InnerProduct"
  bottom: "pool0"
  top: "ip1"
  param {
    lr_mult: 1
  }
  param {
    lr_mult: 2
  }
  inner_product_param {
    num_output: 160
    weight_filler {
      type: "gaussian"
      std: 0.01
    }
    bias_filler {
      type: "constant"
    }
  }
}
layer {
  name: "relu1"
  type: "ReLU"
  bottom: "ip1"
  top: "ip1"
}
layer {
  name: "ip2"
  type: "InnerProduct"
  bottom: "ip1"
  top: "ip2"
  param {
    lr_mult: 1
  }
  param {
    lr_mult: 2
  }
  inner_product_param {
    num_output: 160
    weight_filler {
      type: "gaussian"
      std: 0.01
    }
    bias_filler {
      type: "constant"
    }
  }
}
layer {
  name: "relu2"
  type: "ReLU"
  bottom: "ip2"
  top: "ip2"
}
layer {
  name: "ip3"
  type: "InnerProduct"
  bottom: "ip2"
  top: "ip3"
  param {
    lr_mult: 1
  }
  param {
    lr_mult: 2
  }
  inner_product_param {
    num_output: 10
    weight_filler {
      type: "gaussian"
      std: 0.01
    }
    bias_filler {
      type: "constant"
    }
  }
}
layer {
  name: "relu3"
  type: "ReLU"
  bottom: "ip3"
  top: "ip3"
}
layer {
  name: "ip4"
  type: "InnerProduct"
  bottom: "ip3"
  top: "ip4"
  param {
    lr_mult: 1
  }
  param {
    lr_mult: 2
  }
  inner_product_param {
    num_output: 10
    weight_filler {
      type: "gaussian"
      std: 0.01
    }
    bias_filler {
      type: "constant"
    }
  }
}
layer {
  name: "loss"
  type: "SoftmaxWithLoss"
  bottom: "ip4"
  bottom: "label"
  top: "loss"
}
I0501 01:55:49.275018 12840 layer_factory.hpp:77] Creating layer cifar
I0501 01:55:49.275118 12840 db_lmdb.cpp:35] Opened lmdb examples/cifar10/cifar10_train_lmdb
I0501 01:55:49.275147 12840 net.cpp:86] Creating Layer cifar
I0501 01:55:49.275156 12840 net.cpp:382] cifar -> data
I0501 01:55:49.275178 12840 net.cpp:382] cifar -> label
I0501 01:55:49.275192 12840 data_transformer.cpp:25] Loading mean file from: examples/cifar10/mean.binaryproto
I0501 01:55:49.277382 12840 data_layer.cpp:45] output data size: 111,3,32,32
I0501 01:55:49.285261 12840 net.cpp:124] Setting up cifar
I0501 01:55:49.285280 12840 net.cpp:131] Top shape: 111 3 32 32 (340992)
I0501 01:55:49.285289 12840 net.cpp:131] Top shape: 111 (111)
I0501 01:55:49.285292 12840 net.cpp:139] Memory required for data: 1364412
I0501 01:55:49.285315 12840 layer_factory.hpp:77] Creating layer conv0
I0501 01:55:49.285334 12840 net.cpp:86] Creating Layer conv0
I0501 01:55:49.285339 12840 net.cpp:408] conv0 <- data
I0501 01:55:49.285354 12840 net.cpp:382] conv0 -> conv0
I0501 01:55:49.571517 12840 net.cpp:124] Setting up conv0
I0501 01:55:49.571547 12840 net.cpp:131] Top shape: 111 8 34 34 (1026528)
I0501 01:55:49.571552 12840 net.cpp:139] Memory required for data: 5470524
I0501 01:55:49.571568 12840 layer_factory.hpp:77] Creating layer Sigmoid0
I0501 01:55:49.571579 12840 net.cpp:86] Creating Layer Sigmoid0
I0501 01:55:49.571584 12840 net.cpp:408] Sigmoid0 <- conv0
I0501 01:55:49.571590 12840 net.cpp:382] Sigmoid0 -> Sigmoid0
I0501 01:55:49.571774 12840 net.cpp:124] Setting up Sigmoid0
I0501 01:55:49.571784 12840 net.cpp:131] Top shape: 111 8 34 34 (1026528)
I0501 01:55:49.571787 12840 net.cpp:139] Memory required for data: 9576636
I0501 01:55:49.571790 12840 layer_factory.hpp:77] Creating layer pool0
I0501 01:55:49.571799 12840 net.cpp:86] Creating Layer pool0
I0501 01:55:49.571801 12840 net.cpp:408] pool0 <- Sigmoid0
I0501 01:55:49.571806 12840 net.cpp:382] pool0 -> pool0
I0501 01:55:49.572559 12840 net.cpp:124] Setting up pool0
I0501 01:55:49.572573 12840 net.cpp:131] Top shape: 111 8 17 17 (256632)
I0501 01:55:49.572576 12840 net.cpp:139] Memory required for data: 10603164
I0501 01:55:49.572580 12840 layer_factory.hpp:77] Creating layer ip1
I0501 01:55:49.572589 12840 net.cpp:86] Creating Layer ip1
I0501 01:55:49.572593 12840 net.cpp:408] ip1 <- pool0
I0501 01:55:49.572598 12840 net.cpp:382] ip1 -> ip1
I0501 01:55:49.583565 12840 net.cpp:124] Setting up ip1
I0501 01:55:49.583580 12840 net.cpp:131] Top shape: 111 160 (17760)
I0501 01:55:49.583582 12840 net.cpp:139] Memory required for data: 10674204
I0501 01:55:49.583591 12840 layer_factory.hpp:77] Creating layer relu1
I0501 01:55:49.583597 12840 net.cpp:86] Creating Layer relu1
I0501 01:55:49.583600 12840 net.cpp:408] relu1 <- ip1
I0501 01:55:49.583605 12840 net.cpp:369] relu1 -> ip1 (in-place)
I0501 01:55:49.583760 12840 net.cpp:124] Setting up relu1
I0501 01:55:49.583767 12840 net.cpp:131] Top shape: 111 160 (17760)
I0501 01:55:49.583771 12840 net.cpp:139] Memory required for data: 10745244
I0501 01:55:49.583775 12840 layer_factory.hpp:77] Creating layer ip2
I0501 01:55:49.583781 12840 net.cpp:86] Creating Layer ip2
I0501 01:55:49.583784 12840 net.cpp:408] ip2 <- ip1
I0501 01:55:49.583789 12840 net.cpp:382] ip2 -> ip2
I0501 01:55:49.585440 12840 net.cpp:124] Setting up ip2
I0501 01:55:49.585453 12840 net.cpp:131] Top shape: 111 160 (17760)
I0501 01:55:49.585456 12840 net.cpp:139] Memory required for data: 10816284
I0501 01:55:49.585464 12840 layer_factory.hpp:77] Creating layer relu2
I0501 01:55:49.585470 12840 net.cpp:86] Creating Layer relu2
I0501 01:55:49.585474 12840 net.cpp:408] relu2 <- ip2
I0501 01:55:49.585479 12840 net.cpp:369] relu2 -> ip2 (in-place)
I0501 01:55:49.585638 12840 net.cpp:124] Setting up relu2
I0501 01:55:49.585647 12840 net.cpp:131] Top shape: 111 160 (17760)
I0501 01:55:49.585650 12840 net.cpp:139] Memory required for data: 10887324
I0501 01:55:49.585654 12840 layer_factory.hpp:77] Creating layer ip3
I0501 01:55:49.585661 12840 net.cpp:86] Creating Layer ip3
I0501 01:55:49.585664 12840 net.cpp:408] ip3 <- ip2
I0501 01:55:49.585669 12840 net.cpp:382] ip3 -> ip3
I0501 01:55:49.585805 12840 net.cpp:124] Setting up ip3
I0501 01:55:49.585813 12840 net.cpp:131] Top shape: 111 10 (1110)
I0501 01:55:49.585816 12840 net.cpp:139] Memory required for data: 10891764
I0501 01:55:49.585821 12840 layer_factory.hpp:77] Creating layer relu3
I0501 01:55:49.585826 12840 net.cpp:86] Creating Layer relu3
I0501 01:55:49.585829 12840 net.cpp:408] relu3 <- ip3
I0501 01:55:49.585834 12840 net.cpp:369] relu3 -> ip3 (in-place)
I0501 01:55:49.585980 12840 net.cpp:124] Setting up relu3
I0501 01:55:49.585988 12840 net.cpp:131] Top shape: 111 10 (1110)
I0501 01:55:49.585991 12840 net.cpp:139] Memory required for data: 10896204
I0501 01:55:49.585994 12840 layer_factory.hpp:77] Creating layer ip4
I0501 01:55:49.586016 12840 net.cpp:86] Creating Layer ip4
I0501 01:55:49.586019 12840 net.cpp:408] ip4 <- ip3
I0501 01:55:49.586024 12840 net.cpp:382] ip4 -> ip4
I0501 01:55:49.586119 12840 net.cpp:124] Setting up ip4
I0501 01:55:49.586127 12840 net.cpp:131] Top shape: 111 10 (1110)
I0501 01:55:49.586130 12840 net.cpp:139] Memory required for data: 10900644
I0501 01:55:49.586138 12840 layer_factory.hpp:77] Creating layer loss
I0501 01:55:49.586144 12840 net.cpp:86] Creating Layer loss
I0501 01:55:49.586148 12840 net.cpp:408] loss <- ip4
I0501 01:55:49.586150 12840 net.cpp:408] loss <- label
I0501 01:55:49.586155 12840 net.cpp:382] loss -> loss
I0501 01:55:49.586169 12840 layer_factory.hpp:77] Creating layer loss
…
I0501 01:55:49.587355 12840 solver.cpp:173] Creating test net (#0) specified by net file: ECE595/cifar/train_test/var_everything/cifar_train_test_305.prototxt
I0501 01:55:49.587383 12840 net.cpp:296] The NetState phase (1) differed from the phase (0) specified by a rule in layer cifar
I0501 01:55:49.587476 12840 net.cpp:53] Initializing net from parameters: 
name: "CIFAR"
state {
  phase: TEST
}
layer {
  name: "cifar"
  type: "Data"
  top: "data"
  top: "label"
  include {
    phase: TEST
  }
  transform_param {
    mean_file: "examples/cifar10/mean.binaryproto"
  }
  data_param {
    source: "examples/cifar10/cifar10_test_lmdb"
    batch_size: 1000
    backend: LMDB
  }
}
layer {
  name: "conv0"
  type: "Convolution"
  bottom: "data"
  top: "conv0"
  param {
    lr_mult: 1
  }
  param {
    lr_mult: 2
  }
  convolution_param {
    num_output: 8
    pad: 2
    kernel_size: 3
    stride: 1
    weight_filler {
      type: "gaussian"
      std: 0.01
    }
    bias_filler {
      type: "constant"
    }
  }
}
layer {
  name: "Sigmoid0"
  type: "Sigmoid"
  bottom: "conv0"
  top: "Sigmoid0"
}
layer {
  name: "pool0"
  type: "Pooling"
  bottom: "Sigmoid0"
  top: "pool0"
  pooling_param {
    pool: AVE
    kernel_size: 3
    stride: 2
  }
}
layer {
  name: "ip1"
  type: "InnerProduct"
  bottom: "pool0"
  top: "ip1"
  param {
    lr_mult: 1
  }
  param {
    lr_mult: 2
  }
  inner_product_param {
    num_output: 160
    weight_filler {
      type: "gaussian"
      std: 0.01
    }
    bias_filler {
      type: "constant"
    }
  }
}
layer {
  name: "relu1"
  type: "ReLU"
  bottom: "ip1"
  top: "ip1"
}
layer {
  name: "ip2"
  type: "InnerProduct"
  bottom: "ip1"
  top: "ip2"
  param {
    lr_mult: 1
  }
  param {
    lr_mult: 2
  }
  inner_product_param {
    num_output: 160
    weight_filler {
      type: "gaussian"
      std: 0.01
    }
    bias_filler {
      type: "constant"
    }
  }
}
layer {
  name: "relu2"
  type: "ReLU"
  bottom: "ip2"
  top: "ip2"
}
layer {
  name: "ip3"
  type: "InnerProduct"
  bottom: "ip2"
  top: "ip3"
  param {
    lr_mult: 1
  }
  param {
    lr_mult: 2
  }
  inner_product_param {
    num_output: 10
    weight_filler {
      type: "gaussian"
      std: 0.01
    }
    bias_filler {
      type: "constant"
    }
  }
}
layer {
  name: "relu3"
  type: "ReLU"
  bottom: "ip3"
  top: "ip3"
}
layer {
  name: "ip4"
  type: "InnerProduct"
  bottom: "ip3"
  top: "ip4"
  param {
    lr_mult: 1
  }
  param {
    lr_mult: 2
  }
  inner_product_param {
    num_output: 10
    weight_filler {
      type: "gaussian"
      std: 0.01
    }
    bias_filler {
      type: "constant"
    }
  }
}
layer {
  name: "accuracy"
  type: "Accuracy"
  bottom: "ip4"
  bottom: "label"
  top: "accuracy"
  include {
    phase: TEST
  }
}
layer {
  name: "loss"
  type: "SoftmaxWithLoss"
  bottom: "ip4"
  bottom: "label"
  top: "loss"
}
I0501 01:55:49.587553 12840 layer_factory.hpp:77] Creating layer cifar
I0501 01:55:49.587599 12840 db_lmdb.cpp:35] Opened lmdb examples/cifar10/cifar10_test_lmdb
I0501 01:55:49.587611 12840 net.cpp:86] Creating Layer cifar
I0501 01:55:49.587616 12840 net.cpp:382] cifar -> data
I0501 01:55:49.587625 12840 net.cpp:382] cifar -> label
I0501 01:55:49.587631 12840 data_transformer.cpp:25] Loading mean file from: examples/cifar10/mean.binaryproto
I0501 01:55:49.587777 12840 data_layer.cpp:45] output data size: 1000,3,32,32
I0501 01:55:49.610628 12840 net.cpp:124] Setting up cifar
I0501 01:55:49.610654 12840 net.cpp:131] Top shape: 1000 3 32 32 (3072000)
I0501 01:55:49.610661 12840 net.cpp:131] Top shape: 1000 (1000)
I0501 01:55:49.610663 12840 net.cpp:139] Memory required for data: 12292000
I0501 01:55:49.610683 12840 layer_factory.hpp:77] Creating layer label_cifar_1_split
I0501 01:55:49.610697 12840 net.cpp:86] Creating Layer label_cifar_1_split
I0501 01:55:49.610700 12840 net.cpp:408] label_cifar_1_split <- label
I0501 01:55:49.610707 12840 net.cpp:382] label_cifar_1_split -> label_cifar_1_split_0
I0501 01:55:49.610716 12840 net.cpp:382] label_cifar_1_split -> label_cifar_1_split_1
I0501 01:55:49.610824 12840 net.cpp:124] Setting up label_cifar_1_split
I0501 01:55:49.610831 12840 net.cpp:131] Top shape: 1000 (1000)
I0501 01:55:49.610836 12840 net.cpp:131] Top shape: 1000 (1000)
I0501 01:55:49.610837 12840 net.cpp:139] Memory required for data: 12300000
I0501 01:55:49.610841 12840 layer_factory.hpp:77] Creating layer conv0
I0501 01:55:49.610854 12840 net.cpp:86] Creating Layer conv0
I0501 01:55:49.610857 12840 net.cpp:408] conv0 <- data
I0501 01:55:49.610863 12840 net.cpp:382] conv0 -> conv0
I0501 01:55:49.612429 12840 net.cpp:124] Setting up conv0
I0501 01:55:49.612458 12840 net.cpp:131] Top shape: 1000 8 34 34 (9248000)
I0501 01:55:49.612462 12840 net.cpp:139] Memory required for data: 49292000
I0501 01:55:49.612473 12840 layer_factory.hpp:77] Creating layer Sigmoid0
I0501 01:55:49.612480 12840 net.cpp:86] Creating Layer Sigmoid0
I0501 01:55:49.612483 12840 net.cpp:408] Sigmoid0 <- conv0
I0501 01:55:49.612489 12840 net.cpp:382] Sigmoid0 -> Sigmoid0
I0501 01:55:49.613665 12840 net.cpp:124] Setting up Sigmoid0
I0501 01:55:49.613677 12840 net.cpp:131] Top shape: 1000 8 34 34 (9248000)
I0501 01:55:49.613680 12840 net.cpp:139] Memory required for data: 86284000
I0501 01:55:49.613683 12840 layer_factory.hpp:77] Creating layer pool0
I0501 01:55:49.613693 12840 net.cpp:86] Creating Layer pool0
I0501 01:55:49.613713 12840 net.cpp:408] pool0 <- Sigmoid0
I0501 01:55:49.613716 12840 net.cpp:382] pool0 -> pool0
I0501 01:55:49.613910 12840 net.cpp:124] Setting up pool0
I0501 01:55:49.613921 12840 net.cpp:131] Top shape: 1000 8 17 17 (2312000)
I0501 01:55:49.613925 12840 net.cpp:139] Memory required for data: 95532000
I0501 01:55:49.613929 12840 layer_factory.hpp:77] Creating layer ip1
I0501 01:55:49.613935 12840 net.cpp:86] Creating Layer ip1
I0501 01:55:49.613953 12840 net.cpp:408] ip1 <- pool0
I0501 01:55:49.613960 12840 net.cpp:382] ip1 -> ip1
I0501 01:55:49.624707 12840 net.cpp:124] Setting up ip1
I0501 01:55:49.624738 12840 net.cpp:131] Top shape: 1000 160 (160000)
I0501 01:55:49.624742 12840 net.cpp:139] Memory required for data: 96172000
I0501 01:55:49.624765 12840 layer_factory.hpp:77] Creating layer relu1
I0501 01:55:49.624773 12840 net.cpp:86] Creating Layer relu1
I0501 01:55:49.624791 12840 net.cpp:408] relu1 <- ip1
I0501 01:55:49.624797 12840 net.cpp:369] relu1 -> ip1 (in-place)
I0501 01:55:49.625016 12840 net.cpp:124] Setting up relu1
I0501 01:55:49.625027 12840 net.cpp:131] Top shape: 1000 160 (160000)
I0501 01:55:49.625031 12840 net.cpp:139] Memory required for data: 96812000
I0501 01:55:49.625035 12840 layer_factory.hpp:77] Creating layer ip2
I0501 01:55:49.625042 12840 net.cpp:86] Creating Layer ip2
I0501 01:55:49.625046 12840 net.cpp:408] ip2 <- ip1
I0501 01:55:49.625051 12840 net.cpp:382] ip2 -> ip2
I0501 01:55:49.625865 12840 net.cpp:124] Setting up ip2
I0501 01:55:49.625874 12840 net.cpp:131] Top shape: 1000 160 (160000)
I0501 01:55:49.625877 12840 net.cpp:139] Memory required for data: 97452000
I0501 01:55:49.625885 12840 layer_factory.hpp:77] Creating layer relu2
I0501 01:55:49.625891 12840 net.cpp:86] Creating Layer relu2
I0501 01:55:49.625895 12840 net.cpp:408] relu2 <- ip2
I0501 01:55:49.625898 12840 net.cpp:369] relu2 -> ip2 (in-place)
I0501 01:55:49.626662 12840 net.cpp:124] Setting up relu2
I0501 01:55:49.626674 12840 net.cpp:131] Top shape: 1000 160 (160000)
I0501 01:55:49.626693 12840 net.cpp:139] Memory required for data: 98092000
I0501 01:55:49.626698 12840 layer_factory.hpp:77] Creating layer ip3
I0501 01:55:49.626703 12840 net.cpp:86] Creating Layer ip3
I0501 01:55:49.626708 12840 net.cpp:408] ip3 <- ip2
I0501 01:55:49.626713 12840 net.cpp:382] ip3 -> ip3
I0501 01:55:49.626902 12840 net.cpp:124] Setting up ip3
I0501 01:55:49.626909 12840 net.cpp:131] Top shape: 1000 10 (10000)
I0501 01:55:49.626912 12840 net.cpp:139] Memory required for data: 98132000
I0501 01:55:49.626919 12840 layer_factory.hpp:77] Creating layer relu3
I0501 01:55:49.626924 12840 net.cpp:86] Creating Layer relu3
I0501 01:55:49.626927 12840 net.cpp:408] relu3 <- ip3
I0501 01:55:49.626932 12840 net.cpp:369] relu3 -> ip3 (in-place)
I0501 01:55:49.627090 12840 net.cpp:124] Setting up relu3
I0501 01:55:49.627099 12840 net.cpp:131] Top shape: 1000 10 (10000)
I0501 01:55:49.627102 12840 net.cpp:139] Memory required for data: 98172000
I0501 01:55:49.627105 12840 layer_factory.hpp:77] Creating layer ip4
I0501 01:55:49.627112 12840 net.cpp:86] Creating Layer ip4
I0501 01:55:49.627115 12840 net.cpp:408] ip4 <- ip3
I0501 01:55:49.627120 12840 net.cpp:382] ip4 -> ip4
I0501 01:55:49.627225 12840 net.cpp:124] Setting up ip4
I0501 01:55:49.627233 12840 net.cpp:131] Top shape: 1000 10 (10000)
I0501 01:55:49.627235 12840 net.cpp:139] Memory required for data: 98212000
I0501 01:55:49.627243 12840 layer_factory.hpp:77] Creating layer ip4_ip4_0_split
I0501 01:55:49.627249 12840 net.cpp:86] Creating Layer ip4_ip4_0_split
I0501 01:55:49.627251 12840 net.cpp:408] ip4_ip4_0_split <- ip4
I0501 01:55:49.627256 12840 net.cpp:382] ip4_ip4_0_split -> ip4_ip4_0_split_0
I0501 01:55:49.627261 12840 net.cpp:382] ip4_ip4_0_split -> ip4_ip4_0_split_1
I0501 01:55:49.627295 12840 net.cpp:124] Setting up ip4_ip4_0_split
I0501 01:55:49.627301 12840 net.cpp:131] Top shape: 1000 10 (10000)
I0501 01:55:49.627305 12840 net.cpp:131] Top shape: 1000 10 (10000)
I0501 01:55:49.627308 12840 net.cpp:139] Memory required for data: 98292000
I0501 01:55:49.627311 12840 layer_factory.hpp:77] Creating layer accuracy
I0501 01:55:49.627318 12840 net.cpp:86] Creating Layer accuracy
I0501 01:55:49.627321 12840 net.cpp:408] accuracy <- ip4_ip4_0_split_0
I0501 01:55:49.627326 12840 net.cpp:408] accuracy <- label_cifar_1_split_0
I0501 01:55:49.627331 12840 net.cpp:382] accuracy -> accuracy
…
