…
I0501 03:01:13.296671 18504 net.cpp:296] The NetState phase (0) differed from the phase (1) specified by a rule in layer cifar
I0501 03:01:13.296690 18504 net.cpp:296] The NetState phase (0) differed from the phase (1) specified by a rule in layer accuracy
I0501 03:01:13.296790 18504 net.cpp:53] Initializing net from parameters: 
name: "CIFAR"
state {
  phase: TRAIN
  level: 0
  stage: ""
}
layer {
  name: "cifar"
  type: "Data"
  top: "data"
  top: "label"
  include {
    phase: TRAIN
  }
  transform_param {
    mean_file: "examples/cifar10/mean.binaryproto"
  }
  data_param {
    source: "examples/cifar10/cifar10_train_lmdb"
    batch_size: 111
    backend: LMDB
  }
}
layer {
  name: "conv0"
  type: "Convolution"
  bottom: "data"
  top: "conv0"
  param {
    lr_mult: 1
  }
  param {
    lr_mult: 2
  }
  convolution_param {
    num_output: 8
    pad: 2
    kernel_size: 5
    stride: 1
    weight_filler {
      type: "gaussian"
      std: 0.01
    }
    bias_filler {
      type: "constant"
    }
  }
}
layer {
  name: "Sigmoid0"
  type: "Sigmoid"
  bottom: "conv0"
  top: "Sigmoid0"
}
layer {
  name: "pool0"
  type: "Pooling"
  bottom: "Sigmoid0"
  top: "pool0"
  pooling_param {
    pool: AVE
    kernel_size: 3
    stride: 2
  }
}
layer {
  name: "ip1"
  type: "InnerProduct"
  bottom: "pool0"
  top: "ip1"
  param {
    lr_mult: 1
  }
  param {
    lr_mult: 2
  }
  inner_product_param {
    num_output: 10
    weight_filler {
      type: "gaussian"
      std: 0.01
    }
    bias_filler {
      type: "constant"
    }
  }
}
layer {
  name: "relu1"
  type: "ReLU"
  bottom: "ip1"
  top: "ip1"
}
layer {
  name: "ip2"
  type: "InnerProduct"
  bottom: "ip1"
  top: "ip2"
  param {
    lr_mult: 1
  }
  param {
    lr_mult: 2
  }
  inner_product_param {
    num_output: 10
    weight_filler {
      type: "gaussian"
      std: 0.01
    }
    bias_filler {
      type: "constant"
    }
  }
}
layer {
  name: "relu2"
  type: "ReLU"
  bottom: "ip2"
  top: "ip2"
}
layer {
  name: "ip3"
  type: "InnerProduct"
  bottom: "ip2"
  top: "ip3"
  param {
    lr_mult: 1
  }
  param {
    lr_mult: 2
  }
  inner_product_param {
    num_output: 10
    weight_filler {
      type: "gaussian"
      std: 0.01
    }
    bias_filler {
      type: "constant"
    }
  }
}
layer {
  name: "relu3"
  type: "ReLU"
  bottom: "ip3"
  top: "ip3"
}
layer {
  name: "ip4"
  type: "InnerProduct"
  bottom: "ip3"
  top: "ip4"
  param {
    lr_mult: 1
  }
  param {
    lr_mult: 2
  }
  inner_product_param {
    num_output: 10
    weight_filler {
      type: "gaussian"
      std: 0.01
    }
    bias_filler {
      type: "constant"
    }
  }
}
layer {
  name: "loss"
  type: "SoftmaxWithLoss"
  bottom: "ip4"
  bottom: "label"
  top: "loss"
}
I0501 03:01:13.296870 18504 layer_factory.hpp:77] Creating layer cifar
I0501 03:01:13.296977 18504 db_lmdb.cpp:35] Opened lmdb examples/cifar10/cifar10_train_lmdb
I0501 03:01:13.297005 18504 net.cpp:86] Creating Layer cifar
I0501 03:01:13.297014 18504 net.cpp:382] cifar -> data
I0501 03:01:13.297037 18504 net.cpp:382] cifar -> label
I0501 03:01:13.297050 18504 data_transformer.cpp:25] Loading mean file from: examples/cifar10/mean.binaryproto
I0501 03:01:13.299162 18504 data_layer.cpp:45] output data size: 111,3,32,32
I0501 03:01:13.307019 18504 net.cpp:124] Setting up cifar
I0501 03:01:13.307039 18504 net.cpp:131] Top shape: 111 3 32 32 (340992)
I0501 03:01:13.307045 18504 net.cpp:131] Top shape: 111 (111)
I0501 03:01:13.307049 18504 net.cpp:139] Memory required for data: 1364412
I0501 03:01:13.307075 18504 layer_factory.hpp:77] Creating layer conv0
I0501 03:01:13.307095 18504 net.cpp:86] Creating Layer conv0
I0501 03:01:13.307101 18504 net.cpp:408] conv0 <- data
I0501 03:01:13.307113 18504 net.cpp:382] conv0 -> conv0
I0501 03:01:13.599685 18504 net.cpp:124] Setting up conv0
I0501 03:01:13.599716 18504 net.cpp:131] Top shape: 111 8 32 32 (909312)
I0501 03:01:13.599721 18504 net.cpp:139] Memory required for data: 5001660
I0501 03:01:13.599738 18504 layer_factory.hpp:77] Creating layer Sigmoid0
I0501 03:01:13.599752 18504 net.cpp:86] Creating Layer Sigmoid0
I0501 03:01:13.599757 18504 net.cpp:408] Sigmoid0 <- conv0
I0501 03:01:13.599764 18504 net.cpp:382] Sigmoid0 -> Sigmoid0
I0501 03:01:13.599983 18504 net.cpp:124] Setting up Sigmoid0
I0501 03:01:13.599995 18504 net.cpp:131] Top shape: 111 8 32 32 (909312)
I0501 03:01:13.600000 18504 net.cpp:139] Memory required for data: 8638908
I0501 03:01:13.600003 18504 layer_factory.hpp:77] Creating layer pool0
I0501 03:01:13.600011 18504 net.cpp:86] Creating Layer pool0
I0501 03:01:13.600016 18504 net.cpp:408] pool0 <- Sigmoid0
I0501 03:01:13.600021 18504 net.cpp:382] pool0 -> pool0
I0501 03:01:13.600879 18504 net.cpp:124] Setting up pool0
I0501 03:01:13.600895 18504 net.cpp:131] Top shape: 111 8 16 16 (227328)
I0501 03:01:13.600899 18504 net.cpp:139] Memory required for data: 9548220
I0501 03:01:13.600904 18504 layer_factory.hpp:77] Creating layer ip1
I0501 03:01:13.600915 18504 net.cpp:86] Creating Layer ip1
I0501 03:01:13.600919 18504 net.cpp:408] ip1 <- pool0
I0501 03:01:13.600925 18504 net.cpp:382] ip1 -> ip1
I0501 03:01:13.602836 18504 net.cpp:124] Setting up ip1
I0501 03:01:13.602852 18504 net.cpp:131] Top shape: 111 10 (1110)
I0501 03:01:13.602856 18504 net.cpp:139] Memory required for data: 9552660
I0501 03:01:13.602866 18504 layer_factory.hpp:77] Creating layer relu1
I0501 03:01:13.602874 18504 net.cpp:86] Creating Layer relu1
I0501 03:01:13.602879 18504 net.cpp:408] relu1 <- ip1
I0501 03:01:13.602885 18504 net.cpp:369] relu1 -> ip1 (in-place)
I0501 03:01:13.603072 18504 net.cpp:124] Setting up relu1
I0501 03:01:13.603083 18504 net.cpp:131] Top shape: 111 10 (1110)
I0501 03:01:13.603087 18504 net.cpp:139] Memory required for data: 9557100
I0501 03:01:13.603091 18504 layer_factory.hpp:77] Creating layer ip2
I0501 03:01:13.603099 18504 net.cpp:86] Creating Layer ip2
I0501 03:01:13.603103 18504 net.cpp:408] ip2 <- ip1
I0501 03:01:13.603109 18504 net.cpp:382] ip2 -> ip2
I0501 03:01:13.603219 18504 net.cpp:124] Setting up ip2
I0501 03:01:13.603227 18504 net.cpp:131] Top shape: 111 10 (1110)
I0501 03:01:13.603231 18504 net.cpp:139] Memory required for data: 9561540
I0501 03:01:13.603240 18504 layer_factory.hpp:77] Creating layer relu2
I0501 03:01:13.603246 18504 net.cpp:86] Creating Layer relu2
I0501 03:01:13.603250 18504 net.cpp:408] relu2 <- ip2
I0501 03:01:13.603255 18504 net.cpp:369] relu2 -> ip2 (in-place)
I0501 03:01:13.603433 18504 net.cpp:124] Setting up relu2
I0501 03:01:13.603442 18504 net.cpp:131] Top shape: 111 10 (1110)
I0501 03:01:13.603446 18504 net.cpp:139] Memory required for data: 9565980
I0501 03:01:13.603451 18504 layer_factory.hpp:77] Creating layer ip3
I0501 03:01:13.603458 18504 net.cpp:86] Creating Layer ip3
I0501 03:01:13.603462 18504 net.cpp:408] ip3 <- ip2
I0501 03:01:13.603468 18504 net.cpp:382] ip3 -> ip3
I0501 03:01:13.603574 18504 net.cpp:124] Setting up ip3
I0501 03:01:13.603582 18504 net.cpp:131] Top shape: 111 10 (1110)
I0501 03:01:13.603586 18504 net.cpp:139] Memory required for data: 9570420
I0501 03:01:13.603592 18504 layer_factory.hpp:77] Creating layer relu3
I0501 03:01:13.603597 18504 net.cpp:86] Creating Layer relu3
I0501 03:01:13.603601 18504 net.cpp:408] relu3 <- ip3
I0501 03:01:13.603606 18504 net.cpp:369] relu3 -> ip3 (in-place)
I0501 03:01:13.603776 18504 net.cpp:124] Setting up relu3
I0501 03:01:13.603785 18504 net.cpp:131] Top shape: 111 10 (1110)
I0501 03:01:13.603790 18504 net.cpp:139] Memory required for data: 9574860
I0501 03:01:13.603792 18504 layer_factory.hpp:77] Creating layer ip4
I0501 03:01:13.603816 18504 net.cpp:86] Creating Layer ip4
I0501 03:01:13.603821 18504 net.cpp:408] ip4 <- ip3
I0501 03:01:13.603826 18504 net.cpp:382] ip4 -> ip4
I0501 03:01:13.603934 18504 net.cpp:124] Setting up ip4
I0501 03:01:13.603942 18504 net.cpp:131] Top shape: 111 10 (1110)
I0501 03:01:13.603946 18504 net.cpp:139] Memory required for data: 9579300
I0501 03:01:13.603955 18504 layer_factory.hpp:77] Creating layer loss
I0501 03:01:13.603961 18504 net.cpp:86] Creating Layer loss
I0501 03:01:13.603965 18504 net.cpp:408] loss <- ip4
I0501 03:01:13.603970 18504 net.cpp:408] loss <- label
I0501 03:01:13.603976 18504 net.cpp:382] loss -> loss
I0501 03:01:13.603991 18504 layer_factory.hpp:77] Creating layer loss
…
I0501 03:01:13.605396 18504 solver.cpp:173] Creating test net (#0) specified by net file: ECE595/cifar/train_test/var_everything/cifar_train_test_340.prototxt
I0501 03:01:13.605425 18504 net.cpp:296] The NetState phase (1) differed from the phase (0) specified by a rule in layer cifar
I0501 03:01:13.605527 18504 net.cpp:53] Initializing net from parameters: 
name: "CIFAR"
state {
  phase: TEST
}
layer {
  name: "cifar"
  type: "Data"
  top: "data"
  top: "label"
  include {
    phase: TEST
  }
  transform_param {
    mean_file: "examples/cifar10/mean.binaryproto"
  }
  data_param {
    source: "examples/cifar10/cifar10_test_lmdb"
    batch_size: 1000
    backend: LMDB
  }
}
layer {
  name: "conv0"
  type: "Convolution"
  bottom: "data"
  top: "conv0"
  param {
    lr_mult: 1
  }
  param {
    lr_mult: 2
  }
  convolution_param {
    num_output: 8
    pad: 2
    kernel_size: 5
    stride: 1
    weight_filler {
      type: "gaussian"
      std: 0.01
    }
    bias_filler {
      type: "constant"
    }
  }
}
layer {
  name: "Sigmoid0"
  type: "Sigmoid"
  bottom: "conv0"
  top: "Sigmoid0"
}
layer {
  name: "pool0"
  type: "Pooling"
  bottom: "Sigmoid0"
  top: "pool0"
  pooling_param {
    pool: AVE
    kernel_size: 3
    stride: 2
  }
}
layer {
  name: "ip1"
  type: "InnerProduct"
  bottom: "pool0"
  top: "ip1"
  param {
    lr_mult: 1
  }
  param {
    lr_mult: 2
  }
  inner_product_param {
    num_output: 10
    weight_filler {
      type: "gaussian"
      std: 0.01
    }
    bias_filler {
      type: "constant"
    }
  }
}
layer {
  name: "relu1"
  type: "ReLU"
  bottom: "ip1"
  top: "ip1"
}
layer {
  name: "ip2"
  type: "InnerProduct"
  bottom: "ip1"
  top: "ip2"
  param {
    lr_mult: 1
  }
  param {
    lr_mult: 2
  }
  inner_product_param {
    num_output: 10
    weight_filler {
      type: "gaussian"
      std: 0.01
    }
    bias_filler {
      type: "constant"
    }
  }
}
layer {
  name: "relu2"
  type: "ReLU"
  bottom: "ip2"
  top: "ip2"
}
layer {
  name: "ip3"
  type: "InnerProduct"
  bottom: "ip2"
  top: "ip3"
  param {
    lr_mult: 1
  }
  param {
    lr_mult: 2
  }
  inner_product_param {
    num_output: 10
    weight_filler {
      type: "gaussian"
      std: 0.01
    }
    bias_filler {
      type: "constant"
    }
  }
}
layer {
  name: "relu3"
  type: "ReLU"
  bottom: "ip3"
  top: "ip3"
}
layer {
  name: "ip4"
  type: "InnerProduct"
  bottom: "ip3"
  top: "ip4"
  param {
    lr_mult: 1
  }
  param {
    lr_mult: 2
  }
  inner_product_param {
    num_output: 10
    weight_filler {
      type: "gaussian"
      std: 0.01
    }
    bias_filler {
      type: "constant"
    }
  }
}
layer {
  name: "accuracy"
  type: "Accuracy"
  bottom: "ip4"
  bottom: "label"
  top: "accuracy"
  include {
    phase: TEST
  }
}
layer {
  name: "loss"
  type: "SoftmaxWithLoss"
  bottom: "ip4"
  bottom: "label"
  top: "loss"
}
I0501 03:01:13.605618 18504 layer_factory.hpp:77] Creating layer cifar
I0501 03:01:13.605667 18504 db_lmdb.cpp:35] Opened lmdb examples/cifar10/cifar10_test_lmdb
I0501 03:01:13.605681 18504 net.cpp:86] Creating Layer cifar
I0501 03:01:13.605687 18504 net.cpp:382] cifar -> data
I0501 03:01:13.605696 18504 net.cpp:382] cifar -> label
I0501 03:01:13.605705 18504 data_transformer.cpp:25] Loading mean file from: examples/cifar10/mean.binaryproto
I0501 03:01:13.605860 18504 data_layer.cpp:45] output data size: 1000,3,32,32
I0501 03:01:13.629979 18504 net.cpp:124] Setting up cifar
I0501 03:01:13.630007 18504 net.cpp:131] Top shape: 1000 3 32 32 (3072000)
I0501 03:01:13.630013 18504 net.cpp:131] Top shape: 1000 (1000)
I0501 03:01:13.630017 18504 net.cpp:139] Memory required for data: 12292000
I0501 03:01:13.630023 18504 layer_factory.hpp:77] Creating layer label_cifar_1_split
I0501 03:01:13.630035 18504 net.cpp:86] Creating Layer label_cifar_1_split
I0501 03:01:13.630039 18504 net.cpp:408] label_cifar_1_split <- label
I0501 03:01:13.630046 18504 net.cpp:382] label_cifar_1_split -> label_cifar_1_split_0
I0501 03:01:13.630056 18504 net.cpp:382] label_cifar_1_split -> label_cifar_1_split_1
I0501 03:01:13.630172 18504 net.cpp:124] Setting up label_cifar_1_split
I0501 03:01:13.630182 18504 net.cpp:131] Top shape: 1000 (1000)
I0501 03:01:13.630185 18504 net.cpp:131] Top shape: 1000 (1000)
I0501 03:01:13.630188 18504 net.cpp:139] Memory required for data: 12300000
I0501 03:01:13.630192 18504 layer_factory.hpp:77] Creating layer conv0
I0501 03:01:13.630205 18504 net.cpp:86] Creating Layer conv0
I0501 03:01:13.630209 18504 net.cpp:408] conv0 <- data
I0501 03:01:13.630215 18504 net.cpp:382] conv0 -> conv0
I0501 03:01:13.631795 18504 net.cpp:124] Setting up conv0
I0501 03:01:13.631810 18504 net.cpp:131] Top shape: 1000 8 32 32 (8192000)
I0501 03:01:13.631814 18504 net.cpp:139] Memory required for data: 45068000
I0501 03:01:13.631824 18504 layer_factory.hpp:77] Creating layer Sigmoid0
I0501 03:01:13.631831 18504 net.cpp:86] Creating Layer Sigmoid0
I0501 03:01:13.631835 18504 net.cpp:408] Sigmoid0 <- conv0
I0501 03:01:13.631840 18504 net.cpp:382] Sigmoid0 -> Sigmoid0
I0501 03:01:13.632019 18504 net.cpp:124] Setting up Sigmoid0
I0501 03:01:13.632028 18504 net.cpp:131] Top shape: 1000 8 32 32 (8192000)
I0501 03:01:13.632031 18504 net.cpp:139] Memory required for data: 77836000
I0501 03:01:13.632035 18504 layer_factory.hpp:77] Creating layer pool0
I0501 03:01:13.632043 18504 net.cpp:86] Creating Layer pool0
I0501 03:01:13.632047 18504 net.cpp:408] pool0 <- Sigmoid0
I0501 03:01:13.632053 18504 net.cpp:382] pool0 -> pool0
I0501 03:01:13.632333 18504 net.cpp:124] Setting up pool0
I0501 03:01:13.632342 18504 net.cpp:131] Top shape: 1000 8 16 16 (2048000)
I0501 03:01:13.632346 18504 net.cpp:139] Memory required for data: 86028000
I0501 03:01:13.632349 18504 layer_factory.hpp:77] Creating layer ip1
I0501 03:01:13.632359 18504 net.cpp:86] Creating Layer ip1
I0501 03:01:13.632362 18504 net.cpp:408] ip1 <- pool0
I0501 03:01:13.632381 18504 net.cpp:382] ip1 -> ip1
I0501 03:01:13.633988 18504 net.cpp:124] Setting up ip1
I0501 03:01:13.633998 18504 net.cpp:131] Top shape: 1000 10 (10000)
I0501 03:01:13.634002 18504 net.cpp:139] Memory required for data: 86068000
I0501 03:01:13.634026 18504 layer_factory.hpp:77] Creating layer relu1
I0501 03:01:13.634032 18504 net.cpp:86] Creating Layer relu1
I0501 03:01:13.634037 18504 net.cpp:408] relu1 <- ip1
I0501 03:01:13.634040 18504 net.cpp:369] relu1 -> ip1 (in-place)
I0501 03:01:13.634219 18504 net.cpp:124] Setting up relu1
I0501 03:01:13.634230 18504 net.cpp:131] Top shape: 1000 10 (10000)
I0501 03:01:13.634233 18504 net.cpp:139] Memory required for data: 86108000
I0501 03:01:13.634238 18504 layer_factory.hpp:77] Creating layer ip2
I0501 03:01:13.634243 18504 net.cpp:86] Creating Layer ip2
I0501 03:01:13.634248 18504 net.cpp:408] ip2 <- ip1
I0501 03:01:13.634253 18504 net.cpp:382] ip2 -> ip2
I0501 03:01:13.634367 18504 net.cpp:124] Setting up ip2
I0501 03:01:13.634376 18504 net.cpp:131] Top shape: 1000 10 (10000)
I0501 03:01:13.634378 18504 net.cpp:139] Memory required for data: 86148000
I0501 03:01:13.634387 18504 layer_factory.hpp:77] Creating layer relu2
I0501 03:01:13.634394 18504 net.cpp:86] Creating Layer relu2
I0501 03:01:13.634397 18504 net.cpp:408] relu2 <- ip2
I0501 03:01:13.634403 18504 net.cpp:369] relu2 -> ip2 (in-place)
I0501 03:01:13.635213 18504 net.cpp:124] Setting up relu2
I0501 03:01:13.635226 18504 net.cpp:131] Top shape: 1000 10 (10000)
I0501 03:01:13.635229 18504 net.cpp:139] Memory required for data: 86188000
I0501 03:01:13.635234 18504 layer_factory.hpp:77] Creating layer ip3
I0501 03:01:13.635241 18504 net.cpp:86] Creating Layer ip3
I0501 03:01:13.635246 18504 net.cpp:408] ip3 <- ip2
I0501 03:01:13.635252 18504 net.cpp:382] ip3 -> ip3
I0501 03:01:13.635367 18504 net.cpp:124] Setting up ip3
I0501 03:01:13.635375 18504 net.cpp:131] Top shape: 1000 10 (10000)
I0501 03:01:13.635378 18504 net.cpp:139] Memory required for data: 86228000
I0501 03:01:13.635385 18504 layer_factory.hpp:77] Creating layer relu3
I0501 03:01:13.635390 18504 net.cpp:86] Creating Layer relu3
I0501 03:01:13.635393 18504 net.cpp:408] relu3 <- ip3
I0501 03:01:13.635399 18504 net.cpp:369] relu3 -> ip3 (in-place)
I0501 03:01:13.635562 18504 net.cpp:124] Setting up relu3
I0501 03:01:13.635572 18504 net.cpp:131] Top shape: 1000 10 (10000)
I0501 03:01:13.635576 18504 net.cpp:139] Memory required for data: 86268000
I0501 03:01:13.635578 18504 layer_factory.hpp:77] Creating layer ip4
I0501 03:01:13.635586 18504 net.cpp:86] Creating Layer ip4
I0501 03:01:13.635589 18504 net.cpp:408] ip4 <- ip3
I0501 03:01:13.635594 18504 net.cpp:382] ip4 -> ip4
I0501 03:01:13.635702 18504 net.cpp:124] Setting up ip4
I0501 03:01:13.635710 18504 net.cpp:131] Top shape: 1000 10 (10000)
I0501 03:01:13.635712 18504 net.cpp:139] Memory required for data: 86308000
I0501 03:01:13.635721 18504 layer_factory.hpp:77] Creating layer ip4_ip4_0_split
I0501 03:01:13.635727 18504 net.cpp:86] Creating Layer ip4_ip4_0_split
I0501 03:01:13.635731 18504 net.cpp:408] ip4_ip4_0_split <- ip4
I0501 03:01:13.635735 18504 net.cpp:382] ip4_ip4_0_split -> ip4_ip4_0_split_0
I0501 03:01:13.635740 18504 net.cpp:382] ip4_ip4_0_split -> ip4_ip4_0_split_1
I0501 03:01:13.635776 18504 net.cpp:124] Setting up ip4_ip4_0_split
I0501 03:01:13.635783 18504 net.cpp:131] Top shape: 1000 10 (10000)
I0501 03:01:13.635787 18504 net.cpp:131] Top shape: 1000 10 (10000)
I0501 03:01:13.635790 18504 net.cpp:139] Memory required for data: 86388000
I0501 03:01:13.635793 18504 layer_factory.hpp:77] Creating layer accuracy
I0501 03:01:13.635799 18504 net.cpp:86] Creating Layer accuracy
I0501 03:01:13.635802 18504 net.cpp:408] accuracy <- ip4_ip4_0_split_0
I0501 03:01:13.635807 18504 net.cpp:408] accuracy <- label_cifar_1_split_0
I0501 03:01:13.635813 18504 net.cpp:382] accuracy -> accuracy
…
