…
I0430 18:03:36.509424 21882 net.cpp:296] The NetState phase (0) differed from the phase (1) specified by a rule in layer cifar
I0430 18:03:36.509439 21882 net.cpp:296] The NetState phase (0) differed from the phase (1) specified by a rule in layer accuracy
I0430 18:03:36.509521 21882 net.cpp:53] Initializing net from parameters: 
name: "CIFAR"
state {
  phase: TRAIN
  level: 0
  stage: ""
}
layer {
  name: "cifar"
  type: "Data"
  top: "data"
  top: "label"
  include {
    phase: TRAIN
  }
  transform_param {
    mean_file: "examples/cifar10/mean.binaryproto"
  }
  data_param {
    source: "examples/cifar10/cifar10_train_lmdb"
    batch_size: 111
    backend: LMDB
  }
}
layer {
  name: "ip1"
  type: "InnerProduct"
  bottom: "data"
  top: "ip1"
  param {
    lr_mult: 1
  }
  param {
    lr_mult: 2
  }
  inner_product_param {
    num_output: 10
    weight_filler {
      type: "gaussian"
      std: 0.01
    }
    bias_filler {
      type: "constant"
    }
  }
}
layer {
  name: "relu1"
  type: "ReLU"
  bottom: "ip1"
  top: "ip1"
}
layer {
  name: "ip2"
  type: "InnerProduct"
  bottom: "ip1"
  top: "ip2"
  param {
    lr_mult: 1
  }
  param {
    lr_mult: 2
  }
  inner_product_param {
    num_output: 160
    weight_filler {
      type: "gaussian"
      std: 0.01
    }
    bias_filler {
      type: "constant"
    }
  }
}
layer {
  name: "relu2"
  type: "ReLU"
  bottom: "ip2"
  top: "ip2"
}
layer {
  name: "ip3"
  type: "InnerProduct"
  bottom: "ip2"
  top: "ip3"
  param {
    lr_mult: 1
  }
  param {
    lr_mult: 2
  }
  inner_product_param {
    num_output: 160
    weight_filler {
      type: "gaussian"
      std: 0.01
    }
    bias_filler {
      type: "constant"
    }
  }
}
layer {
  name: "relu3"
  type: "ReLU"
  bottom: "ip3"
  top: "ip3"
}
layer {
  name: "ip4"
  type: "InnerProduct"
  bottom: "ip3"
  top: "ip4"
  param {
    lr_mult: 1
  }
  param {
    lr_mult: 2
  }
  inner_product_param {
    num_output: 10
    weight_filler {
      type: "gaussian"
      std: 0.01
    }
    bias_filler {
      type: "constant"
    }
  }
}
layer {
  name: "loss"
  type: "SoftmaxWithLoss"
  bottom: "ip4"
  bottom: "label"
  top: "loss"
}
I0430 18:03:36.509587 21882 layer_factory.hpp:77] Creating layer cifar
I0430 18:03:36.509685 21882 db_lmdb.cpp:35] Opened lmdb examples/cifar10/cifar10_train_lmdb
I0430 18:03:36.509712 21882 net.cpp:86] Creating Layer cifar
I0430 18:03:36.509719 21882 net.cpp:382] cifar -> data
I0430 18:03:36.509742 21882 net.cpp:382] cifar -> label
I0430 18:03:36.509753 21882 data_transformer.cpp:25] Loading mean file from: examples/cifar10/mean.binaryproto
I0430 18:03:36.511878 21882 data_layer.cpp:45] output data size: 111,3,32,32
I0430 18:03:36.519790 21882 net.cpp:124] Setting up cifar
I0430 18:03:36.519809 21882 net.cpp:131] Top shape: 111 3 32 32 (340992)
I0430 18:03:36.519815 21882 net.cpp:131] Top shape: 111 (111)
I0430 18:03:36.519819 21882 net.cpp:139] Memory required for data: 1364412
I0430 18:03:36.519829 21882 layer_factory.hpp:77] Creating layer ip1
I0430 18:03:36.519840 21882 net.cpp:86] Creating Layer ip1
I0430 18:03:36.519845 21882 net.cpp:408] ip1 <- data
I0430 18:03:36.519857 21882 net.cpp:382] ip1 -> ip1
I0430 18:03:36.522193 21882 net.cpp:124] Setting up ip1
I0430 18:03:36.522209 21882 net.cpp:131] Top shape: 111 10 (1110)
I0430 18:03:36.522214 21882 net.cpp:139] Memory required for data: 1368852
I0430 18:03:36.522228 21882 layer_factory.hpp:77] Creating layer relu1
I0430 18:03:36.522238 21882 net.cpp:86] Creating Layer relu1
I0430 18:03:36.522258 21882 net.cpp:408] relu1 <- ip1
I0430 18:03:36.522264 21882 net.cpp:369] relu1 -> ip1 (in-place)
I0430 18:03:36.760324 21882 net.cpp:124] Setting up relu1
I0430 18:03:36.760380 21882 net.cpp:131] Top shape: 111 10 (1110)
I0430 18:03:36.760383 21882 net.cpp:139] Memory required for data: 1373292
I0430 18:03:36.760388 21882 layer_factory.hpp:77] Creating layer ip2
I0430 18:03:36.760401 21882 net.cpp:86] Creating Layer ip2
I0430 18:03:36.760406 21882 net.cpp:408] ip2 <- ip1
I0430 18:03:36.760413 21882 net.cpp:382] ip2 -> ip2
I0430 18:03:36.760576 21882 net.cpp:124] Setting up ip2
I0430 18:03:36.760582 21882 net.cpp:131] Top shape: 111 160 (17760)
I0430 18:03:36.760586 21882 net.cpp:139] Memory required for data: 1444332
I0430 18:03:36.760596 21882 layer_factory.hpp:77] Creating layer relu2
I0430 18:03:36.760601 21882 net.cpp:86] Creating Layer relu2
I0430 18:03:36.760604 21882 net.cpp:408] relu2 <- ip2
I0430 18:03:36.760608 21882 net.cpp:369] relu2 -> ip2 (in-place)
I0430 18:03:36.761340 21882 net.cpp:124] Setting up relu2
I0430 18:03:36.761353 21882 net.cpp:131] Top shape: 111 160 (17760)
I0430 18:03:36.761371 21882 net.cpp:139] Memory required for data: 1515372
I0430 18:03:36.761375 21882 layer_factory.hpp:77] Creating layer ip3
I0430 18:03:36.761381 21882 net.cpp:86] Creating Layer ip3
I0430 18:03:36.761385 21882 net.cpp:408] ip3 <- ip2
I0430 18:03:36.761390 21882 net.cpp:382] ip3 -> ip3
I0430 18:03:36.762140 21882 net.cpp:124] Setting up ip3
I0430 18:03:36.762148 21882 net.cpp:131] Top shape: 111 160 (17760)
I0430 18:03:36.762166 21882 net.cpp:139] Memory required for data: 1586412
I0430 18:03:36.762173 21882 layer_factory.hpp:77] Creating layer relu3
I0430 18:03:36.762178 21882 net.cpp:86] Creating Layer relu3
I0430 18:03:36.762181 21882 net.cpp:408] relu3 <- ip3
I0430 18:03:36.762186 21882 net.cpp:369] relu3 -> ip3 (in-place)
I0430 18:03:36.762322 21882 net.cpp:124] Setting up relu3
I0430 18:03:36.762329 21882 net.cpp:131] Top shape: 111 160 (17760)
I0430 18:03:36.762332 21882 net.cpp:139] Memory required for data: 1657452
I0430 18:03:36.762336 21882 layer_factory.hpp:77] Creating layer ip4
I0430 18:03:36.762341 21882 net.cpp:86] Creating Layer ip4
I0430 18:03:36.762344 21882 net.cpp:408] ip4 <- ip3
I0430 18:03:36.762364 21882 net.cpp:382] ip4 -> ip4
I0430 18:03:36.762495 21882 net.cpp:124] Setting up ip4
I0430 18:03:36.762502 21882 net.cpp:131] Top shape: 111 10 (1110)
I0430 18:03:36.762506 21882 net.cpp:139] Memory required for data: 1661892
I0430 18:03:36.762511 21882 layer_factory.hpp:77] Creating layer loss
I0430 18:03:36.762516 21882 net.cpp:86] Creating Layer loss
I0430 18:03:36.762519 21882 net.cpp:408] loss <- ip4
I0430 18:03:36.762523 21882 net.cpp:408] loss <- label
I0430 18:03:36.762528 21882 net.cpp:382] loss -> loss
I0430 18:03:36.762545 21882 layer_factory.hpp:77] Creating layer loss
…
I0430 18:03:36.763084 21882 solver.cpp:173] Creating test net (#0) specified by net file: ECE595/cifar/train_test/var_everything/cifar_train_test_54.prototxt
I0430 18:03:36.763123 21882 net.cpp:296] The NetState phase (1) differed from the phase (0) specified by a rule in layer cifar
I0430 18:03:36.763193 21882 net.cpp:53] Initializing net from parameters: 
name: "CIFAR"
state {
  phase: TEST
}
layer {
  name: "cifar"
  type: "Data"
  top: "data"
  top: "label"
  include {
    phase: TEST
  }
  transform_param {
    mean_file: "examples/cifar10/mean.binaryproto"
  }
  data_param {
    source: "examples/cifar10/cifar10_test_lmdb"
    batch_size: 1000
    backend: LMDB
  }
}
layer {
  name: "ip1"
  type: "InnerProduct"
  bottom: "data"
  top: "ip1"
  param {
    lr_mult: 1
  }
  param {
    lr_mult: 2
  }
  inner_product_param {
    num_output: 10
    weight_filler {
      type: "gaussian"
      std: 0.01
    }
    bias_filler {
      type: "constant"
    }
  }
}
layer {
  name: "relu1"
  type: "ReLU"
  bottom: "ip1"
  top: "ip1"
}
layer {
  name: "ip2"
  type: "InnerProduct"
  bottom: "ip1"
  top: "ip2"
  param {
    lr_mult: 1
  }
  param {
    lr_mult: 2
  }
  inner_product_param {
    num_output: 160
    weight_filler {
      type: "gaussian"
      std: 0.01
    }
    bias_filler {
      type: "constant"
    }
  }
}
layer {
  name: "relu2"
  type: "ReLU"
  bottom: "ip2"
  top: "ip2"
}
layer {
  name: "ip3"
  type: "InnerProduct"
  bottom: "ip2"
  top: "ip3"
  param {
    lr_mult: 1
  }
  param {
    lr_mult: 2
  }
  inner_product_param {
    num_output: 160
    weight_filler {
      type: "gaussian"
      std: 0.01
    }
    bias_filler {
      type: "constant"
    }
  }
}
layer {
  name: "relu3"
  type: "ReLU"
  bottom: "ip3"
  top: "ip3"
}
layer {
  name: "ip4"
  type: "InnerProduct"
  bottom: "ip3"
  top: "ip4"
  param {
    lr_mult: 1
  }
  param {
    lr_mult: 2
  }
  inner_product_param {
    num_output: 10
    weight_filler {
      type: "gaussian"
      std: 0.01
    }
    bias_filler {
      type: "constant"
    }
  }
}
layer {
  name: "accuracy"
  type: "Accuracy"
  bottom: "ip4"
  bottom: "label"
  top: "accuracy"
  include {
    phase: TEST
  }
}
layer {
  name: "loss"
  type: "SoftmaxWithLoss"
  bottom: "ip4"
  bottom: "label"
  top: "loss"
}
I0430 18:03:36.763250 21882 layer_factory.hpp:77] Creating layer cifar
I0430 18:03:36.763291 21882 db_lmdb.cpp:35] Opened lmdb examples/cifar10/cifar10_test_lmdb
I0430 18:03:36.763303 21882 net.cpp:86] Creating Layer cifar
I0430 18:03:36.763308 21882 net.cpp:382] cifar -> data
I0430 18:03:36.763314 21882 net.cpp:382] cifar -> label
I0430 18:03:36.763320 21882 data_transformer.cpp:25] Loading mean file from: examples/cifar10/mean.binaryproto
I0430 18:03:36.763468 21882 data_layer.cpp:45] output data size: 1000,3,32,32
I0430 18:03:36.786237 21882 net.cpp:124] Setting up cifar
I0430 18:03:36.786280 21882 net.cpp:131] Top shape: 1000 3 32 32 (3072000)
I0430 18:03:36.786286 21882 net.cpp:131] Top shape: 1000 (1000)
I0430 18:03:36.786290 21882 net.cpp:139] Memory required for data: 12292000
I0430 18:03:36.786296 21882 layer_factory.hpp:77] Creating layer label_cifar_1_split
I0430 18:03:36.786314 21882 net.cpp:86] Creating Layer label_cifar_1_split
I0430 18:03:36.786317 21882 net.cpp:408] label_cifar_1_split <- label
I0430 18:03:36.786324 21882 net.cpp:382] label_cifar_1_split -> label_cifar_1_split_0
I0430 18:03:36.786332 21882 net.cpp:382] label_cifar_1_split -> label_cifar_1_split_1
I0430 18:03:36.786409 21882 net.cpp:124] Setting up label_cifar_1_split
I0430 18:03:36.786417 21882 net.cpp:131] Top shape: 1000 (1000)
I0430 18:03:36.786422 21882 net.cpp:131] Top shape: 1000 (1000)
I0430 18:03:36.786424 21882 net.cpp:139] Memory required for data: 12300000
I0430 18:03:36.786427 21882 layer_factory.hpp:77] Creating layer ip1
I0430 18:03:36.786437 21882 net.cpp:86] Creating Layer ip1
I0430 18:03:36.786442 21882 net.cpp:408] ip1 <- data
I0430 18:03:36.786461 21882 net.cpp:382] ip1 -> ip1
I0430 18:03:36.787442 21882 net.cpp:124] Setting up ip1
I0430 18:03:36.787451 21882 net.cpp:131] Top shape: 1000 10 (10000)
I0430 18:03:36.787468 21882 net.cpp:139] Memory required for data: 12340000
I0430 18:03:36.787492 21882 layer_factory.hpp:77] Creating layer relu1
I0430 18:03:36.787497 21882 net.cpp:86] Creating Layer relu1
I0430 18:03:36.787500 21882 net.cpp:408] relu1 <- ip1
I0430 18:03:36.787504 21882 net.cpp:369] relu1 -> ip1 (in-place)
I0430 18:03:36.788422 21882 net.cpp:124] Setting up relu1
I0430 18:03:36.788434 21882 net.cpp:131] Top shape: 1000 10 (10000)
I0430 18:03:36.788453 21882 net.cpp:139] Memory required for data: 12380000
I0430 18:03:36.788456 21882 layer_factory.hpp:77] Creating layer ip2
I0430 18:03:36.788465 21882 net.cpp:86] Creating Layer ip2
I0430 18:03:36.788468 21882 net.cpp:408] ip2 <- ip1
I0430 18:03:36.788473 21882 net.cpp:382] ip2 -> ip2
I0430 18:03:36.789626 21882 net.cpp:124] Setting up ip2
I0430 18:03:36.789643 21882 net.cpp:131] Top shape: 1000 160 (160000)
I0430 18:03:36.789660 21882 net.cpp:139] Memory required for data: 13020000
I0430 18:03:36.789674 21882 layer_factory.hpp:77] Creating layer relu2
I0430 18:03:36.789680 21882 net.cpp:86] Creating Layer relu2
I0430 18:03:36.789682 21882 net.cpp:408] relu2 <- ip2
I0430 18:03:36.789686 21882 net.cpp:369] relu2 -> ip2 (in-place)
I0430 18:03:36.789875 21882 net.cpp:124] Setting up relu2
I0430 18:03:36.789882 21882 net.cpp:131] Top shape: 1000 160 (160000)
I0430 18:03:36.789886 21882 net.cpp:139] Memory required for data: 13660000
I0430 18:03:36.789890 21882 layer_factory.hpp:77] Creating layer ip3
I0430 18:03:36.789896 21882 net.cpp:86] Creating Layer ip3
I0430 18:03:36.789898 21882 net.cpp:408] ip3 <- ip2
I0430 18:03:36.789903 21882 net.cpp:382] ip3 -> ip3
I0430 18:03:36.790730 21882 net.cpp:124] Setting up ip3
I0430 18:03:36.790738 21882 net.cpp:131] Top shape: 1000 160 (160000)
I0430 18:03:36.790756 21882 net.cpp:139] Memory required for data: 14300000
I0430 18:03:36.790778 21882 layer_factory.hpp:77] Creating layer relu3
I0430 18:03:36.790783 21882 net.cpp:86] Creating Layer relu3
I0430 18:03:36.790786 21882 net.cpp:408] relu3 <- ip3
I0430 18:03:36.790791 21882 net.cpp:369] relu3 -> ip3 (in-place)
I0430 18:03:36.790973 21882 net.cpp:124] Setting up relu3
I0430 18:03:36.790982 21882 net.cpp:131] Top shape: 1000 160 (160000)
I0430 18:03:36.790984 21882 net.cpp:139] Memory required for data: 14940000
I0430 18:03:36.790988 21882 layer_factory.hpp:77] Creating layer ip4
I0430 18:03:36.790995 21882 net.cpp:86] Creating Layer ip4
I0430 18:03:36.790998 21882 net.cpp:408] ip4 <- ip3
I0430 18:03:36.791003 21882 net.cpp:382] ip4 -> ip4
I0430 18:03:36.791142 21882 net.cpp:124] Setting up ip4
I0430 18:03:36.791149 21882 net.cpp:131] Top shape: 1000 10 (10000)
I0430 18:03:36.791152 21882 net.cpp:139] Memory required for data: 14980000
I0430 18:03:36.791158 21882 layer_factory.hpp:77] Creating layer ip4_ip4_0_split
I0430 18:03:36.791163 21882 net.cpp:86] Creating Layer ip4_ip4_0_split
I0430 18:03:36.791167 21882 net.cpp:408] ip4_ip4_0_split <- ip4
I0430 18:03:36.791170 21882 net.cpp:382] ip4_ip4_0_split -> ip4_ip4_0_split_0
I0430 18:03:36.791191 21882 net.cpp:382] ip4_ip4_0_split -> ip4_ip4_0_split_1
I0430 18:03:36.791236 21882 net.cpp:124] Setting up ip4_ip4_0_split
I0430 18:03:36.791244 21882 net.cpp:131] Top shape: 1000 10 (10000)
I0430 18:03:36.791247 21882 net.cpp:131] Top shape: 1000 10 (10000)
I0430 18:03:36.791250 21882 net.cpp:139] Memory required for data: 15060000
I0430 18:03:36.791254 21882 layer_factory.hpp:77] Creating layer accuracy
I0430 18:03:36.791260 21882 net.cpp:86] Creating Layer accuracy
I0430 18:03:36.791263 21882 net.cpp:408] accuracy <- ip4_ip4_0_split_0
I0430 18:03:36.791267 21882 net.cpp:408] accuracy <- label_cifar_1_split_0
I0430 18:03:36.791271 21882 net.cpp:382] accuracy -> accuracy
…
