…
I0501 00:55:42.605137  8505 net.cpp:296] The NetState phase (0) differed from the phase (1) specified by a rule in layer cifar
I0501 00:55:42.605156  8505 net.cpp:296] The NetState phase (0) differed from the phase (1) specified by a rule in layer accuracy
I0501 00:55:42.605283  8505 net.cpp:53] Initializing net from parameters: 
name: "CIFAR"
state {
  phase: TRAIN
  level: 0
  stage: ""
}
layer {
  name: "cifar"
  type: "Data"
  top: "data"
  top: "label"
  include {
    phase: TRAIN
  }
  transform_param {
    mean_file: "examples/cifar10/mean.binaryproto"
  }
  data_param {
    source: "examples/cifar10/cifar10_train_lmdb"
    batch_size: 111
    backend: LMDB
  }
}
layer {
  name: "conv0"
  type: "Convolution"
  bottom: "data"
  top: "conv0"
  param {
    lr_mult: 1
  }
  param {
    lr_mult: 2
  }
  convolution_param {
    num_output: 8
    pad: 2
    kernel_size: 3
    stride: 1
    weight_filler {
      type: "gaussian"
      std: 0.01
    }
    bias_filler {
      type: "constant"
    }
  }
}
layer {
  name: "Sigmoid0"
  type: "Sigmoid"
  bottom: "conv0"
  top: "Sigmoid0"
}
layer {
  name: "pool0"
  type: "Pooling"
  bottom: "Sigmoid0"
  top: "pool0"
  pooling_param {
    pool: AVE
    kernel_size: 3
    stride: 2
  }
}
layer {
  name: "ip1"
  type: "InnerProduct"
  bottom: "pool0"
  top: "ip1"
  param {
    lr_mult: 1
  }
  param {
    lr_mult: 2
  }
  inner_product_param {
    num_output: 80
    weight_filler {
      type: "gaussian"
      std: 0.01
    }
    bias_filler {
      type: "constant"
    }
  }
}
layer {
  name: "relu1"
  type: "ReLU"
  bottom: "ip1"
  top: "ip1"
}
layer {
  name: "ip2"
  type: "InnerProduct"
  bottom: "ip1"
  top: "ip2"
  param {
    lr_mult: 1
  }
  param {
    lr_mult: 2
  }
  inner_product_param {
    num_output: 40
    weight_filler {
      type: "gaussian"
      std: 0.01
    }
    bias_filler {
      type: "constant"
    }
  }
}
layer {
  name: "relu2"
  type: "ReLU"
  bottom: "ip2"
  top: "ip2"
}
layer {
  name: "ip3"
  type: "InnerProduct"
  bottom: "ip2"
  top: "ip3"
  param {
    lr_mult: 1
  }
  param {
    lr_mult: 2
  }
  inner_product_param {
    num_output: 80
    weight_filler {
      type: "gaussian"
      std: 0.01
    }
    bias_filler {
      type: "constant"
    }
  }
}
layer {
  name: "relu3"
  type: "ReLU"
  bottom: "ip3"
  top: "ip3"
}
layer {
  name: "ip4"
  type: "InnerProduct"
  bottom: "ip3"
  top: "ip4"
  param {
    lr_mult: 1
  }
  param {
    lr_mult: 2
  }
  inner_product_param {
    num_output: 10
    weight_filler {
      type: "gaussian"
      std: 0.01
    }
    bias_filler {
      type: "constant"
    }
  }
}
layer {
  name: "loss"
  type: "SoftmaxWithLoss"
  bottom: "ip4"
  bottom: "label"
  top: "loss"
}
I0501 00:55:42.605367  8505 layer_factory.hpp:77] Creating layer cifar
I0501 00:55:42.605468  8505 db_lmdb.cpp:35] Opened lmdb examples/cifar10/cifar10_train_lmdb
I0501 00:55:42.605497  8505 net.cpp:86] Creating Layer cifar
I0501 00:55:42.605509  8505 net.cpp:382] cifar -> data
I0501 00:55:42.605531  8505 net.cpp:382] cifar -> label
I0501 00:55:42.605543  8505 data_transformer.cpp:25] Loading mean file from: examples/cifar10/mean.binaryproto
I0501 00:55:42.607663  8505 data_layer.cpp:45] output data size: 111,3,32,32
I0501 00:55:42.615561  8505 net.cpp:124] Setting up cifar
I0501 00:55:42.615579  8505 net.cpp:131] Top shape: 111 3 32 32 (340992)
I0501 00:55:42.615587  8505 net.cpp:131] Top shape: 111 (111)
I0501 00:55:42.615592  8505 net.cpp:139] Memory required for data: 1364412
I0501 00:55:42.615617  8505 layer_factory.hpp:77] Creating layer conv0
I0501 00:55:42.615634  8505 net.cpp:86] Creating Layer conv0
I0501 00:55:42.615640  8505 net.cpp:408] conv0 <- data
I0501 00:55:42.615654  8505 net.cpp:382] conv0 -> conv0
I0501 00:55:42.899001  8505 net.cpp:124] Setting up conv0
I0501 00:55:42.899029  8505 net.cpp:131] Top shape: 111 8 34 34 (1026528)
I0501 00:55:42.899032  8505 net.cpp:139] Memory required for data: 5470524
I0501 00:55:42.899047  8505 layer_factory.hpp:77] Creating layer Sigmoid0
I0501 00:55:42.899060  8505 net.cpp:86] Creating Layer Sigmoid0
I0501 00:55:42.899063  8505 net.cpp:408] Sigmoid0 <- conv0
I0501 00:55:42.899068  8505 net.cpp:382] Sigmoid0 -> Sigmoid0
I0501 00:55:42.899235  8505 net.cpp:124] Setting up Sigmoid0
I0501 00:55:42.899243  8505 net.cpp:131] Top shape: 111 8 34 34 (1026528)
I0501 00:55:42.899246  8505 net.cpp:139] Memory required for data: 9576636
I0501 00:55:42.899250  8505 layer_factory.hpp:77] Creating layer pool0
I0501 00:55:42.899255  8505 net.cpp:86] Creating Layer pool0
I0501 00:55:42.899258  8505 net.cpp:408] pool0 <- Sigmoid0
I0501 00:55:42.899263  8505 net.cpp:382] pool0 -> pool0
I0501 00:55:42.899971  8505 net.cpp:124] Setting up pool0
I0501 00:55:42.899983  8505 net.cpp:131] Top shape: 111 8 17 17 (256632)
I0501 00:55:42.899986  8505 net.cpp:139] Memory required for data: 10603164
I0501 00:55:42.899989  8505 layer_factory.hpp:77] Creating layer ip1
I0501 00:55:42.899998  8505 net.cpp:86] Creating Layer ip1
I0501 00:55:42.900002  8505 net.cpp:408] ip1 <- pool0
I0501 00:55:42.900007  8505 net.cpp:382] ip1 -> ip1
I0501 00:55:42.905539  8505 net.cpp:124] Setting up ip1
I0501 00:55:42.905550  8505 net.cpp:131] Top shape: 111 80 (8880)
I0501 00:55:42.905552  8505 net.cpp:139] Memory required for data: 10638684
I0501 00:55:42.905560  8505 layer_factory.hpp:77] Creating layer relu1
I0501 00:55:42.905566  8505 net.cpp:86] Creating Layer relu1
I0501 00:55:42.905570  8505 net.cpp:408] relu1 <- ip1
I0501 00:55:42.905573  8505 net.cpp:369] relu1 -> ip1 (in-place)
I0501 00:55:42.905737  8505 net.cpp:124] Setting up relu1
I0501 00:55:42.905745  8505 net.cpp:131] Top shape: 111 80 (8880)
I0501 00:55:42.905748  8505 net.cpp:139] Memory required for data: 10674204
I0501 00:55:42.905751  8505 layer_factory.hpp:77] Creating layer ip2
I0501 00:55:42.905757  8505 net.cpp:86] Creating Layer ip2
I0501 00:55:42.905761  8505 net.cpp:408] ip2 <- ip1
I0501 00:55:42.905766  8505 net.cpp:382] ip2 -> ip2
I0501 00:55:42.905948  8505 net.cpp:124] Setting up ip2
I0501 00:55:42.905954  8505 net.cpp:131] Top shape: 111 40 (4440)
I0501 00:55:42.905957  8505 net.cpp:139] Memory required for data: 10691964
I0501 00:55:42.905964  8505 layer_factory.hpp:77] Creating layer relu2
I0501 00:55:42.905969  8505 net.cpp:86] Creating Layer relu2
I0501 00:55:42.905972  8505 net.cpp:408] relu2 <- ip2
I0501 00:55:42.905977  8505 net.cpp:369] relu2 -> ip2 (in-place)
I0501 00:55:42.906116  8505 net.cpp:124] Setting up relu2
I0501 00:55:42.906123  8505 net.cpp:131] Top shape: 111 40 (4440)
I0501 00:55:42.906126  8505 net.cpp:139] Memory required for data: 10709724
I0501 00:55:42.906129  8505 layer_factory.hpp:77] Creating layer ip3
I0501 00:55:42.906136  8505 net.cpp:86] Creating Layer ip3
I0501 00:55:42.906139  8505 net.cpp:408] ip3 <- ip2
I0501 00:55:42.906143  8505 net.cpp:382] ip3 -> ip3
I0501 00:55:42.906304  8505 net.cpp:124] Setting up ip3
I0501 00:55:42.906311  8505 net.cpp:131] Top shape: 111 80 (8880)
I0501 00:55:42.906313  8505 net.cpp:139] Memory required for data: 10745244
I0501 00:55:42.906318  8505 layer_factory.hpp:77] Creating layer relu3
I0501 00:55:42.906323  8505 net.cpp:86] Creating Layer relu3
I0501 00:55:42.906327  8505 net.cpp:408] relu3 <- ip3
I0501 00:55:42.906329  8505 net.cpp:369] relu3 -> ip3 (in-place)
I0501 00:55:42.906461  8505 net.cpp:124] Setting up relu3
I0501 00:55:42.906467  8505 net.cpp:131] Top shape: 111 80 (8880)
I0501 00:55:42.906471  8505 net.cpp:139] Memory required for data: 10780764
I0501 00:55:42.906473  8505 layer_factory.hpp:77] Creating layer ip4
I0501 00:55:42.906493  8505 net.cpp:86] Creating Layer ip4
I0501 00:55:42.906497  8505 net.cpp:408] ip4 <- ip3
I0501 00:55:42.906502  8505 net.cpp:382] ip4 -> ip4
I0501 00:55:42.907469  8505 net.cpp:124] Setting up ip4
I0501 00:55:42.907481  8505 net.cpp:131] Top shape: 111 10 (1110)
I0501 00:55:42.907485  8505 net.cpp:139] Memory required for data: 10785204
I0501 00:55:42.907492  8505 layer_factory.hpp:77] Creating layer loss
I0501 00:55:42.907498  8505 net.cpp:86] Creating Layer loss
I0501 00:55:42.907501  8505 net.cpp:408] loss <- ip4
I0501 00:55:42.907505  8505 net.cpp:408] loss <- label
I0501 00:55:42.907510  8505 net.cpp:382] loss -> loss
I0501 00:55:42.907524  8505 layer_factory.hpp:77] Creating layer loss
…
I0501 00:55:42.908679  8505 solver.cpp:173] Creating test net (#0) specified by net file: ECE595/cifar/train_test/var_everything/cifar_train_test_273.prototxt
I0501 00:55:42.908706  8505 net.cpp:296] The NetState phase (1) differed from the phase (0) specified by a rule in layer cifar
I0501 00:55:42.908818  8505 net.cpp:53] Initializing net from parameters: 
name: "CIFAR"
state {
  phase: TEST
}
layer {
  name: "cifar"
  type: "Data"
  top: "data"
  top: "label"
  include {
    phase: TEST
  }
  transform_param {
    mean_file: "examples/cifar10/mean.binaryproto"
  }
  data_param {
    source: "examples/cifar10/cifar10_test_lmdb"
    batch_size: 1000
    backend: LMDB
  }
}
layer {
  name: "conv0"
  type: "Convolution"
  bottom: "data"
  top: "conv0"
  param {
    lr_mult: 1
  }
  param {
    lr_mult: 2
  }
  convolution_param {
    num_output: 8
    pad: 2
    kernel_size: 3
    stride: 1
    weight_filler {
      type: "gaussian"
      std: 0.01
    }
    bias_filler {
      type: "constant"
    }
  }
}
layer {
  name: "Sigmoid0"
  type: "Sigmoid"
  bottom: "conv0"
  top: "Sigmoid0"
}
layer {
  name: "pool0"
  type: "Pooling"
  bottom: "Sigmoid0"
  top: "pool0"
  pooling_param {
    pool: AVE
    kernel_size: 3
    stride: 2
  }
}
layer {
  name: "ip1"
  type: "InnerProduct"
  bottom: "pool0"
  top: "ip1"
  param {
    lr_mult: 1
  }
  param {
    lr_mult: 2
  }
  inner_product_param {
    num_output: 80
    weight_filler {
      type: "gaussian"
      std: 0.01
    }
    bias_filler {
      type: "constant"
    }
  }
}
layer {
  name: "relu1"
  type: "ReLU"
  bottom: "ip1"
  top: "ip1"
}
layer {
  name: "ip2"
  type: "InnerProduct"
  bottom: "ip1"
  top: "ip2"
  param {
    lr_mult: 1
  }
  param {
    lr_mult: 2
  }
  inner_product_param {
    num_output: 40
    weight_filler {
      type: "gaussian"
      std: 0.01
    }
    bias_filler {
      type: "constant"
    }
  }
}
layer {
  name: "relu2"
  type: "ReLU"
  bottom: "ip2"
  top: "ip2"
}
layer {
  name: "ip3"
  type: "InnerProduct"
  bottom: "ip2"
  top: "ip3"
  param {
    lr_mult: 1
  }
  param {
    lr_mult: 2
  }
  inner_product_param {
    num_output: 80
    weight_filler {
      type: "gaussian"
      std: 0.01
    }
    bias_filler {
      type: "constant"
    }
  }
}
layer {
  name: "relu3"
  type: "ReLU"
  bottom: "ip3"
  top: "ip3"
}
layer {
  name: "ip4"
  type: "InnerProduct"
  bottom: "ip3"
  top: "ip4"
  param {
    lr_mult: 1
  }
  param {
    lr_mult: 2
  }
  inner_product_param {
    num_output: 10
    weight_filler {
      type: "gaussian"
      std: 0.01
    }
    bias_filler {
      type: "constant"
    }
  }
}
layer {
  name: "accuracy"
  type: "Accuracy"
  bottom: "ip4"
  bottom: "label"
  top: "accuracy"
  include {
    phase: TEST
  }
}
layer {
  name: "loss"
  type: "SoftmaxWithLoss"
  bottom: "ip4"
  bottom: "label"
  top: "loss"
}
I0501 00:55:42.908895  8505 layer_factory.hpp:77] Creating layer cifar
I0501 00:55:42.908941  8505 db_lmdb.cpp:35] Opened lmdb examples/cifar10/cifar10_test_lmdb
I0501 00:55:42.908953  8505 net.cpp:86] Creating Layer cifar
I0501 00:55:42.908958  8505 net.cpp:382] cifar -> data
I0501 00:55:42.908967  8505 net.cpp:382] cifar -> label
I0501 00:55:42.908972  8505 data_transformer.cpp:25] Loading mean file from: examples/cifar10/mean.binaryproto
I0501 00:55:42.909123  8505 data_layer.cpp:45] output data size: 1000,3,32,32
I0501 00:55:42.930694  8505 net.cpp:124] Setting up cifar
I0501 00:55:42.930721  8505 net.cpp:131] Top shape: 1000 3 32 32 (3072000)
I0501 00:55:42.930726  8505 net.cpp:131] Top shape: 1000 (1000)
I0501 00:55:42.930728  8505 net.cpp:139] Memory required for data: 12292000
I0501 00:55:42.930733  8505 layer_factory.hpp:77] Creating layer label_cifar_1_split
I0501 00:55:42.930745  8505 net.cpp:86] Creating Layer label_cifar_1_split
I0501 00:55:42.930763  8505 net.cpp:408] label_cifar_1_split <- label
I0501 00:55:42.930770  8505 net.cpp:382] label_cifar_1_split -> label_cifar_1_split_0
I0501 00:55:42.930779  8505 net.cpp:382] label_cifar_1_split -> label_cifar_1_split_1
I0501 00:55:42.930860  8505 net.cpp:124] Setting up label_cifar_1_split
I0501 00:55:42.930869  8505 net.cpp:131] Top shape: 1000 (1000)
I0501 00:55:42.930872  8505 net.cpp:131] Top shape: 1000 (1000)
I0501 00:55:42.930876  8505 net.cpp:139] Memory required for data: 12300000
I0501 00:55:42.930878  8505 layer_factory.hpp:77] Creating layer conv0
I0501 00:55:42.930891  8505 net.cpp:86] Creating Layer conv0
I0501 00:55:42.930893  8505 net.cpp:408] conv0 <- data
I0501 00:55:42.930899  8505 net.cpp:382] conv0 -> conv0
I0501 00:55:42.932512  8505 net.cpp:124] Setting up conv0
I0501 00:55:42.932524  8505 net.cpp:131] Top shape: 1000 8 34 34 (9248000)
I0501 00:55:42.932528  8505 net.cpp:139] Memory required for data: 49292000
I0501 00:55:42.932538  8505 layer_factory.hpp:77] Creating layer Sigmoid0
I0501 00:55:42.932559  8505 net.cpp:86] Creating Layer Sigmoid0
I0501 00:55:42.932561  8505 net.cpp:408] Sigmoid0 <- conv0
I0501 00:55:42.932566  8505 net.cpp:382] Sigmoid0 -> Sigmoid0
I0501 00:55:42.932737  8505 net.cpp:124] Setting up Sigmoid0
I0501 00:55:42.932745  8505 net.cpp:131] Top shape: 1000 8 34 34 (9248000)
I0501 00:55:42.932749  8505 net.cpp:139] Memory required for data: 86284000
I0501 00:55:42.932752  8505 layer_factory.hpp:77] Creating layer pool0
I0501 00:55:42.932760  8505 net.cpp:86] Creating Layer pool0
I0501 00:55:42.932763  8505 net.cpp:408] pool0 <- Sigmoid0
I0501 00:55:42.932767  8505 net.cpp:382] pool0 -> pool0
I0501 00:55:42.933100  8505 net.cpp:124] Setting up pool0
I0501 00:55:42.933111  8505 net.cpp:131] Top shape: 1000 8 17 17 (2312000)
I0501 00:55:42.933115  8505 net.cpp:139] Memory required for data: 95532000
I0501 00:55:42.933118  8505 layer_factory.hpp:77] Creating layer ip1
I0501 00:55:42.933128  8505 net.cpp:86] Creating Layer ip1
I0501 00:55:42.933131  8505 net.cpp:408] ip1 <- pool0
I0501 00:55:42.933151  8505 net.cpp:382] ip1 -> ip1
I0501 00:55:42.938997  8505 net.cpp:124] Setting up ip1
I0501 00:55:42.939005  8505 net.cpp:131] Top shape: 1000 80 (80000)
I0501 00:55:42.939008  8505 net.cpp:139] Memory required for data: 95852000
I0501 00:55:42.939045  8505 layer_factory.hpp:77] Creating layer relu1
I0501 00:55:42.939051  8505 net.cpp:86] Creating Layer relu1
I0501 00:55:42.939054  8505 net.cpp:408] relu1 <- ip1
I0501 00:55:42.939059  8505 net.cpp:369] relu1 -> ip1 (in-place)
I0501 00:55:42.939224  8505 net.cpp:124] Setting up relu1
I0501 00:55:42.939231  8505 net.cpp:131] Top shape: 1000 80 (80000)
I0501 00:55:42.939234  8505 net.cpp:139] Memory required for data: 96172000
I0501 00:55:42.939237  8505 layer_factory.hpp:77] Creating layer ip2
I0501 00:55:42.939244  8505 net.cpp:86] Creating Layer ip2
I0501 00:55:42.939245  8505 net.cpp:408] ip2 <- ip1
I0501 00:55:42.939251  8505 net.cpp:382] ip2 -> ip2
I0501 00:55:42.939432  8505 net.cpp:124] Setting up ip2
I0501 00:55:42.939440  8505 net.cpp:131] Top shape: 1000 40 (40000)
I0501 00:55:42.939441  8505 net.cpp:139] Memory required for data: 96332000
I0501 00:55:42.939465  8505 layer_factory.hpp:77] Creating layer relu2
I0501 00:55:42.939471  8505 net.cpp:86] Creating Layer relu2
I0501 00:55:42.939473  8505 net.cpp:408] relu2 <- ip2
I0501 00:55:42.939478  8505 net.cpp:369] relu2 -> ip2 (in-place)
I0501 00:55:42.940218  8505 net.cpp:124] Setting up relu2
I0501 00:55:42.940229  8505 net.cpp:131] Top shape: 1000 40 (40000)
I0501 00:55:42.940232  8505 net.cpp:139] Memory required for data: 96492000
I0501 00:55:42.940237  8505 layer_factory.hpp:77] Creating layer ip3
I0501 00:55:42.940258  8505 net.cpp:86] Creating Layer ip3
I0501 00:55:42.940261  8505 net.cpp:408] ip3 <- ip2
I0501 00:55:42.940268  8505 net.cpp:382] ip3 -> ip3
I0501 00:55:42.940484  8505 net.cpp:124] Setting up ip3
I0501 00:55:42.940490  8505 net.cpp:131] Top shape: 1000 80 (80000)
I0501 00:55:42.940493  8505 net.cpp:139] Memory required for data: 96812000
I0501 00:55:42.940498  8505 layer_factory.hpp:77] Creating layer relu3
I0501 00:55:42.940503  8505 net.cpp:86] Creating Layer relu3
I0501 00:55:42.940506  8505 net.cpp:408] relu3 <- ip3
I0501 00:55:42.940512  8505 net.cpp:369] relu3 -> ip3 (in-place)
I0501 00:55:42.940706  8505 net.cpp:124] Setting up relu3
I0501 00:55:42.940714  8505 net.cpp:131] Top shape: 1000 80 (80000)
I0501 00:55:42.940717  8505 net.cpp:139] Memory required for data: 97132000
I0501 00:55:42.940721  8505 layer_factory.hpp:77] Creating layer ip4
I0501 00:55:42.940727  8505 net.cpp:86] Creating Layer ip4
I0501 00:55:42.940731  8505 net.cpp:408] ip4 <- ip3
I0501 00:55:42.940734  8505 net.cpp:382] ip4 -> ip4
I0501 00:55:42.940901  8505 net.cpp:124] Setting up ip4
I0501 00:55:42.940907  8505 net.cpp:131] Top shape: 1000 10 (10000)
I0501 00:55:42.940910  8505 net.cpp:139] Memory required for data: 97172000
I0501 00:55:42.940917  8505 layer_factory.hpp:77] Creating layer ip4_ip4_0_split
I0501 00:55:42.940922  8505 net.cpp:86] Creating Layer ip4_ip4_0_split
I0501 00:55:42.940925  8505 net.cpp:408] ip4_ip4_0_split <- ip4
I0501 00:55:42.940930  8505 net.cpp:382] ip4_ip4_0_split -> ip4_ip4_0_split_0
I0501 00:55:42.940935  8505 net.cpp:382] ip4_ip4_0_split -> ip4_ip4_0_split_1
I0501 00:55:42.940965  8505 net.cpp:124] Setting up ip4_ip4_0_split
I0501 00:55:42.940969  8505 net.cpp:131] Top shape: 1000 10 (10000)
I0501 00:55:42.940973  8505 net.cpp:131] Top shape: 1000 10 (10000)
I0501 00:55:42.940975  8505 net.cpp:139] Memory required for data: 97252000
I0501 00:55:42.940979  8505 layer_factory.hpp:77] Creating layer accuracy
I0501 00:55:42.940984  8505 net.cpp:86] Creating Layer accuracy
I0501 00:55:42.940987  8505 net.cpp:408] accuracy <- ip4_ip4_0_split_0
I0501 00:55:42.940991  8505 net.cpp:408] accuracy <- label_cifar_1_split_0
I0501 00:55:42.940996  8505 net.cpp:382] accuracy -> accuracy
…
