…
I0501 00:29:33.405135  7153 net.cpp:296] The NetState phase (0) differed from the phase (1) specified by a rule in layer cifar
I0501 00:29:33.405156  7153 net.cpp:296] The NetState phase (0) differed from the phase (1) specified by a rule in layer accuracy
I0501 00:29:33.405262  7153 net.cpp:53] Initializing net from parameters: 
name: "CIFAR"
state {
  phase: TRAIN
  level: 0
  stage: ""
}
layer {
  name: "cifar"
  type: "Data"
  top: "data"
  top: "label"
  include {
    phase: TRAIN
  }
  transform_param {
    mean_file: "examples/cifar10/mean.binaryproto"
  }
  data_param {
    source: "examples/cifar10/cifar10_train_lmdb"
    batch_size: 111
    backend: LMDB
  }
}
layer {
  name: "conv0"
  type: "Convolution"
  bottom: "data"
  top: "conv0"
  param {
    lr_mult: 1
  }
  param {
    lr_mult: 2
  }
  convolution_param {
    num_output: 8
    pad: 2
    kernel_size: 3
    stride: 1
    weight_filler {
      type: "gaussian"
      std: 0.01
    }
    bias_filler {
      type: "constant"
    }
  }
}
layer {
  name: "Sigmoid0"
  type: "Sigmoid"
  bottom: "conv0"
  top: "Sigmoid0"
}
layer {
  name: "pool0"
  type: "Pooling"
  bottom: "Sigmoid0"
  top: "pool0"
  pooling_param {
    pool: AVE
    kernel_size: 3
    stride: 2
  }
}
layer {
  name: "ip1"
  type: "InnerProduct"
  bottom: "pool0"
  top: "ip1"
  param {
    lr_mult: 1
  }
  param {
    lr_mult: 2
  }
  inner_product_param {
    num_output: 40
    weight_filler {
      type: "gaussian"
      std: 0.01
    }
    bias_filler {
      type: "constant"
    }
  }
}
layer {
  name: "relu1"
  type: "ReLU"
  bottom: "ip1"
  top: "ip1"
}
layer {
  name: "ip2"
  type: "InnerProduct"
  bottom: "ip1"
  top: "ip2"
  param {
    lr_mult: 1
  }
  param {
    lr_mult: 2
  }
  inner_product_param {
    num_output: 160
    weight_filler {
      type: "gaussian"
      std: 0.01
    }
    bias_filler {
      type: "constant"
    }
  }
}
layer {
  name: "relu2"
  type: "ReLU"
  bottom: "ip2"
  top: "ip2"
}
layer {
  name: "ip3"
  type: "InnerProduct"
  bottom: "ip2"
  top: "ip3"
  param {
    lr_mult: 1
  }
  param {
    lr_mult: 2
  }
  inner_product_param {
    num_output: 160
    weight_filler {
      type: "gaussian"
      std: 0.01
    }
    bias_filler {
      type: "constant"
    }
  }
}
layer {
  name: "relu3"
  type: "ReLU"
  bottom: "ip3"
  top: "ip3"
}
layer {
  name: "ip4"
  type: "InnerProduct"
  bottom: "ip3"
  top: "ip4"
  param {
    lr_mult: 1
  }
  param {
    lr_mult: 2
  }
  inner_product_param {
    num_output: 10
    weight_filler {
      type: "gaussian"
      std: 0.01
    }
    bias_filler {
      type: "constant"
    }
  }
}
layer {
  name: "loss"
  type: "SoftmaxWithLoss"
  bottom: "ip4"
  bottom: "label"
  top: "loss"
}
I0501 00:29:33.405341  7153 layer_factory.hpp:77] Creating layer cifar
I0501 00:29:33.405441  7153 db_lmdb.cpp:35] Opened lmdb examples/cifar10/cifar10_train_lmdb
I0501 00:29:33.405468  7153 net.cpp:86] Creating Layer cifar
I0501 00:29:33.405478  7153 net.cpp:382] cifar -> data
I0501 00:29:33.405500  7153 net.cpp:382] cifar -> label
I0501 00:29:33.405516  7153 data_transformer.cpp:25] Loading mean file from: examples/cifar10/mean.binaryproto
I0501 00:29:33.407639  7153 data_layer.cpp:45] output data size: 111,3,32,32
I0501 00:29:33.415884  7153 net.cpp:124] Setting up cifar
I0501 00:29:33.415904  7153 net.cpp:131] Top shape: 111 3 32 32 (340992)
I0501 00:29:33.415910  7153 net.cpp:131] Top shape: 111 (111)
I0501 00:29:33.415915  7153 net.cpp:139] Memory required for data: 1364412
I0501 00:29:33.415938  7153 layer_factory.hpp:77] Creating layer conv0
I0501 00:29:33.415961  7153 net.cpp:86] Creating Layer conv0
I0501 00:29:33.415966  7153 net.cpp:408] conv0 <- data
I0501 00:29:33.415980  7153 net.cpp:382] conv0 -> conv0
I0501 00:29:33.704329  7153 net.cpp:124] Setting up conv0
I0501 00:29:33.704356  7153 net.cpp:131] Top shape: 111 8 34 34 (1026528)
I0501 00:29:33.704360  7153 net.cpp:139] Memory required for data: 5470524
I0501 00:29:33.704376  7153 layer_factory.hpp:77] Creating layer Sigmoid0
I0501 00:29:33.704388  7153 net.cpp:86] Creating Layer Sigmoid0
I0501 00:29:33.704392  7153 net.cpp:408] Sigmoid0 <- conv0
I0501 00:29:33.704402  7153 net.cpp:382] Sigmoid0 -> Sigmoid0
I0501 00:29:33.704584  7153 net.cpp:124] Setting up Sigmoid0
I0501 00:29:33.704594  7153 net.cpp:131] Top shape: 111 8 34 34 (1026528)
I0501 00:29:33.704597  7153 net.cpp:139] Memory required for data: 9576636
I0501 00:29:33.704601  7153 layer_factory.hpp:77] Creating layer pool0
I0501 00:29:33.704612  7153 net.cpp:86] Creating Layer pool0
I0501 00:29:33.704615  7153 net.cpp:408] pool0 <- Sigmoid0
I0501 00:29:33.704622  7153 net.cpp:382] pool0 -> pool0
I0501 00:29:33.705391  7153 net.cpp:124] Setting up pool0
I0501 00:29:33.705405  7153 net.cpp:131] Top shape: 111 8 17 17 (256632)
I0501 00:29:33.705410  7153 net.cpp:139] Memory required for data: 10603164
I0501 00:29:33.705412  7153 layer_factory.hpp:77] Creating layer ip1
I0501 00:29:33.705423  7153 net.cpp:86] Creating Layer ip1
I0501 00:29:33.705426  7153 net.cpp:408] ip1 <- pool0
I0501 00:29:33.705432  7153 net.cpp:382] ip1 -> ip1
I0501 00:29:33.708120  7153 net.cpp:124] Setting up ip1
I0501 00:29:33.708129  7153 net.cpp:131] Top shape: 111 40 (4440)
I0501 00:29:33.708132  7153 net.cpp:139] Memory required for data: 10620924
I0501 00:29:33.708140  7153 layer_factory.hpp:77] Creating layer relu1
I0501 00:29:33.708145  7153 net.cpp:86] Creating Layer relu1
I0501 00:29:33.708148  7153 net.cpp:408] relu1 <- ip1
I0501 00:29:33.708154  7153 net.cpp:369] relu1 -> ip1 (in-place)
I0501 00:29:33.708315  7153 net.cpp:124] Setting up relu1
I0501 00:29:33.708323  7153 net.cpp:131] Top shape: 111 40 (4440)
I0501 00:29:33.708328  7153 net.cpp:139] Memory required for data: 10638684
I0501 00:29:33.708330  7153 layer_factory.hpp:77] Creating layer ip2
I0501 00:29:33.708338  7153 net.cpp:86] Creating Layer ip2
I0501 00:29:33.708341  7153 net.cpp:408] ip2 <- ip1
I0501 00:29:33.708345  7153 net.cpp:382] ip2 -> ip2
I0501 00:29:33.709489  7153 net.cpp:124] Setting up ip2
I0501 00:29:33.709502  7153 net.cpp:131] Top shape: 111 160 (17760)
I0501 00:29:33.709506  7153 net.cpp:139] Memory required for data: 10709724
I0501 00:29:33.709514  7153 layer_factory.hpp:77] Creating layer relu2
I0501 00:29:33.709522  7153 net.cpp:86] Creating Layer relu2
I0501 00:29:33.709524  7153 net.cpp:408] relu2 <- ip2
I0501 00:29:33.709529  7153 net.cpp:369] relu2 -> ip2 (in-place)
I0501 00:29:33.709705  7153 net.cpp:124] Setting up relu2
I0501 00:29:33.709715  7153 net.cpp:131] Top shape: 111 160 (17760)
I0501 00:29:33.709718  7153 net.cpp:139] Memory required for data: 10780764
I0501 00:29:33.709722  7153 layer_factory.hpp:77] Creating layer ip3
I0501 00:29:33.709730  7153 net.cpp:86] Creating Layer ip3
I0501 00:29:33.709733  7153 net.cpp:408] ip3 <- ip2
I0501 00:29:33.709739  7153 net.cpp:382] ip3 -> ip3
I0501 00:29:33.711390  7153 net.cpp:124] Setting up ip3
I0501 00:29:33.711401  7153 net.cpp:131] Top shape: 111 160 (17760)
I0501 00:29:33.711405  7153 net.cpp:139] Memory required for data: 10851804
I0501 00:29:33.711411  7153 layer_factory.hpp:77] Creating layer relu3
I0501 00:29:33.711418  7153 net.cpp:86] Creating Layer relu3
I0501 00:29:33.711421  7153 net.cpp:408] relu3 <- ip3
I0501 00:29:33.711426  7153 net.cpp:369] relu3 -> ip3 (in-place)
I0501 00:29:33.711597  7153 net.cpp:124] Setting up relu3
I0501 00:29:33.711606  7153 net.cpp:131] Top shape: 111 160 (17760)
I0501 00:29:33.711609  7153 net.cpp:139] Memory required for data: 10922844
I0501 00:29:33.711612  7153 layer_factory.hpp:77] Creating layer ip4
I0501 00:29:33.711634  7153 net.cpp:86] Creating Layer ip4
I0501 00:29:33.711638  7153 net.cpp:408] ip4 <- ip3
I0501 00:29:33.711644  7153 net.cpp:382] ip4 -> ip4
I0501 00:29:33.711794  7153 net.cpp:124] Setting up ip4
I0501 00:29:33.711803  7153 net.cpp:131] Top shape: 111 10 (1110)
I0501 00:29:33.711807  7153 net.cpp:139] Memory required for data: 10927284
I0501 00:29:33.711813  7153 layer_factory.hpp:77] Creating layer loss
I0501 00:29:33.711819  7153 net.cpp:86] Creating Layer loss
I0501 00:29:33.711822  7153 net.cpp:408] loss <- ip4
I0501 00:29:33.711827  7153 net.cpp:408] loss <- label
I0501 00:29:33.711834  7153 net.cpp:382] loss -> loss
I0501 00:29:33.711850  7153 layer_factory.hpp:77] Creating layer loss
…
I0501 00:29:33.713174  7153 solver.cpp:173] Creating test net (#0) specified by net file: ECE595/cifar/train_test/var_everything/cifar_train_test_259.prototxt
I0501 00:29:33.713203  7153 net.cpp:296] The NetState phase (1) differed from the phase (0) specified by a rule in layer cifar
I0501 00:29:33.713304  7153 net.cpp:53] Initializing net from parameters: 
name: "CIFAR"
state {
  phase: TEST
}
layer {
  name: "cifar"
  type: "Data"
  top: "data"
  top: "label"
  include {
    phase: TEST
  }
  transform_param {
    mean_file: "examples/cifar10/mean.binaryproto"
  }
  data_param {
    source: "examples/cifar10/cifar10_test_lmdb"
    batch_size: 1000
    backend: LMDB
  }
}
layer {
  name: "conv0"
  type: "Convolution"
  bottom: "data"
  top: "conv0"
  param {
    lr_mult: 1
  }
  param {
    lr_mult: 2
  }
  convolution_param {
    num_output: 8
    pad: 2
    kernel_size: 3
    stride: 1
    weight_filler {
      type: "gaussian"
      std: 0.01
    }
    bias_filler {
      type: "constant"
    }
  }
}
layer {
  name: "Sigmoid0"
  type: "Sigmoid"
  bottom: "conv0"
  top: "Sigmoid0"
}
layer {
  name: "pool0"
  type: "Pooling"
  bottom: "Sigmoid0"
  top: "pool0"
  pooling_param {
    pool: AVE
    kernel_size: 3
    stride: 2
  }
}
layer {
  name: "ip1"
  type: "InnerProduct"
  bottom: "pool0"
  top: "ip1"
  param {
    lr_mult: 1
  }
  param {
    lr_mult: 2
  }
  inner_product_param {
    num_output: 40
    weight_filler {
      type: "gaussian"
      std: 0.01
    }
    bias_filler {
      type: "constant"
    }
  }
}
layer {
  name: "relu1"
  type: "ReLU"
  bottom: "ip1"
  top: "ip1"
}
layer {
  name: "ip2"
  type: "InnerProduct"
  bottom: "ip1"
  top: "ip2"
  param {
    lr_mult: 1
  }
  param {
    lr_mult: 2
  }
  inner_product_param {
    num_output: 160
    weight_filler {
      type: "gaussian"
      std: 0.01
    }
    bias_filler {
      type: "constant"
    }
  }
}
layer {
  name: "relu2"
  type: "ReLU"
  bottom: "ip2"
  top: "ip2"
}
layer {
  name: "ip3"
  type: "InnerProduct"
  bottom: "ip2"
  top: "ip3"
  param {
    lr_mult: 1
  }
  param {
    lr_mult: 2
  }
  inner_product_param {
    num_output: 160
    weight_filler {
      type: "gaussian"
      std: 0.01
    }
    bias_filler {
      type: "constant"
    }
  }
}
layer {
  name: "relu3"
  type: "ReLU"
  bottom: "ip3"
  top: "ip3"
}
layer {
  name: "ip4"
  type: "InnerProduct"
  bottom: "ip3"
  top: "ip4"
  param {
    lr_mult: 1
  }
  param {
    lr_mult: 2
  }
  inner_product_param {
    num_output: 10
    weight_filler {
      type: "gaussian"
      std: 0.01
    }
    bias_filler {
      type: "constant"
    }
  }
}
layer {
  name: "accuracy"
  type: "Accuracy"
  bottom: "ip4"
  bottom: "label"
  top: "accuracy"
  include {
    phase: TEST
  }
}
layer {
  name: "loss"
  type: "SoftmaxWithLoss"
  bottom: "ip4"
  bottom: "label"
  top: "loss"
}
I0501 00:29:33.713390  7153 layer_factory.hpp:77] Creating layer cifar
I0501 00:29:33.713436  7153 db_lmdb.cpp:35] Opened lmdb examples/cifar10/cifar10_test_lmdb
I0501 00:29:33.713449  7153 net.cpp:86] Creating Layer cifar
I0501 00:29:33.713455  7153 net.cpp:382] cifar -> data
I0501 00:29:33.713462  7153 net.cpp:382] cifar -> label
I0501 00:29:33.713469  7153 data_transformer.cpp:25] Loading mean file from: examples/cifar10/mean.binaryproto
I0501 00:29:33.713621  7153 data_layer.cpp:45] output data size: 1000,3,32,32
I0501 00:29:33.736707  7153 net.cpp:124] Setting up cifar
I0501 00:29:33.736735  7153 net.cpp:131] Top shape: 1000 3 32 32 (3072000)
I0501 00:29:33.736742  7153 net.cpp:131] Top shape: 1000 (1000)
I0501 00:29:33.736744  7153 net.cpp:139] Memory required for data: 12292000
I0501 00:29:33.736750  7153 layer_factory.hpp:77] Creating layer label_cifar_1_split
I0501 00:29:33.736765  7153 net.cpp:86] Creating Layer label_cifar_1_split
I0501 00:29:33.736769  7153 net.cpp:408] label_cifar_1_split <- label
I0501 00:29:33.736776  7153 net.cpp:382] label_cifar_1_split -> label_cifar_1_split_0
I0501 00:29:33.736785  7153 net.cpp:382] label_cifar_1_split -> label_cifar_1_split_1
I0501 00:29:33.736903  7153 net.cpp:124] Setting up label_cifar_1_split
I0501 00:29:33.736912  7153 net.cpp:131] Top shape: 1000 (1000)
I0501 00:29:33.736915  7153 net.cpp:131] Top shape: 1000 (1000)
I0501 00:29:33.736918  7153 net.cpp:139] Memory required for data: 12300000
I0501 00:29:33.736922  7153 layer_factory.hpp:77] Creating layer conv0
I0501 00:29:33.736937  7153 net.cpp:86] Creating Layer conv0
I0501 00:29:33.736939  7153 net.cpp:408] conv0 <- data
I0501 00:29:33.736945  7153 net.cpp:382] conv0 -> conv0
I0501 00:29:33.738612  7153 net.cpp:124] Setting up conv0
I0501 00:29:33.738627  7153 net.cpp:131] Top shape: 1000 8 34 34 (9248000)
I0501 00:29:33.738631  7153 net.cpp:139] Memory required for data: 49292000
I0501 00:29:33.738641  7153 layer_factory.hpp:77] Creating layer Sigmoid0
I0501 00:29:33.738646  7153 net.cpp:86] Creating Layer Sigmoid0
I0501 00:29:33.738649  7153 net.cpp:408] Sigmoid0 <- conv0
I0501 00:29:33.738656  7153 net.cpp:382] Sigmoid0 -> Sigmoid0
I0501 00:29:33.738837  7153 net.cpp:124] Setting up Sigmoid0
I0501 00:29:33.738847  7153 net.cpp:131] Top shape: 1000 8 34 34 (9248000)
I0501 00:29:33.738849  7153 net.cpp:139] Memory required for data: 86284000
I0501 00:29:33.738852  7153 layer_factory.hpp:77] Creating layer pool0
I0501 00:29:33.738862  7153 net.cpp:86] Creating Layer pool0
I0501 00:29:33.738867  7153 net.cpp:408] pool0 <- Sigmoid0
I0501 00:29:33.738870  7153 net.cpp:382] pool0 -> pool0
I0501 00:29:33.739140  7153 net.cpp:124] Setting up pool0
I0501 00:29:33.739150  7153 net.cpp:131] Top shape: 1000 8 17 17 (2312000)
I0501 00:29:33.739152  7153 net.cpp:139] Memory required for data: 95532000
I0501 00:29:33.739156  7153 layer_factory.hpp:77] Creating layer ip1
I0501 00:29:33.739163  7153 net.cpp:86] Creating Layer ip1
I0501 00:29:33.739166  7153 net.cpp:408] ip1 <- pool0
I0501 00:29:33.739173  7153 net.cpp:382] ip1 -> ip1
I0501 00:29:33.742692  7153 net.cpp:124] Setting up ip1
I0501 00:29:33.742702  7153 net.cpp:131] Top shape: 1000 40 (40000)
I0501 00:29:33.742720  7153 net.cpp:139] Memory required for data: 95692000
I0501 00:29:33.742743  7153 layer_factory.hpp:77] Creating layer relu1
I0501 00:29:33.742751  7153 net.cpp:86] Creating Layer relu1
I0501 00:29:33.742755  7153 net.cpp:408] relu1 <- ip1
I0501 00:29:33.742759  7153 net.cpp:369] relu1 -> ip1 (in-place)
I0501 00:29:33.742944  7153 net.cpp:124] Setting up relu1
I0501 00:29:33.742951  7153 net.cpp:131] Top shape: 1000 40 (40000)
I0501 00:29:33.742954  7153 net.cpp:139] Memory required for data: 95852000
I0501 00:29:33.742957  7153 layer_factory.hpp:77] Creating layer ip2
I0501 00:29:33.742964  7153 net.cpp:86] Creating Layer ip2
I0501 00:29:33.742969  7153 net.cpp:408] ip2 <- ip1
I0501 00:29:33.742974  7153 net.cpp:382] ip2 -> ip2
I0501 00:29:33.743238  7153 net.cpp:124] Setting up ip2
I0501 00:29:33.743247  7153 net.cpp:131] Top shape: 1000 160 (160000)
I0501 00:29:33.743249  7153 net.cpp:139] Memory required for data: 96492000
I0501 00:29:33.743257  7153 layer_factory.hpp:77] Creating layer relu2
I0501 00:29:33.743263  7153 net.cpp:86] Creating Layer relu2
I0501 00:29:33.743265  7153 net.cpp:408] relu2 <- ip2
I0501 00:29:33.743269  7153 net.cpp:369] relu2 -> ip2 (in-place)
I0501 00:29:33.743999  7153 net.cpp:124] Setting up relu2
I0501 00:29:33.744010  7153 net.cpp:131] Top shape: 1000 160 (160000)
I0501 00:29:33.744014  7153 net.cpp:139] Memory required for data: 97132000
I0501 00:29:33.744017  7153 layer_factory.hpp:77] Creating layer ip3
I0501 00:29:33.744024  7153 net.cpp:86] Creating Layer ip3
I0501 00:29:33.744029  7153 net.cpp:408] ip3 <- ip2
I0501 00:29:33.744033  7153 net.cpp:382] ip3 -> ip3
I0501 00:29:33.744797  7153 net.cpp:124] Setting up ip3
I0501 00:29:33.744806  7153 net.cpp:131] Top shape: 1000 160 (160000)
I0501 00:29:33.744830  7153 net.cpp:139] Memory required for data: 97772000
I0501 00:29:33.744853  7153 layer_factory.hpp:77] Creating layer relu3
I0501 00:29:33.744858  7153 net.cpp:86] Creating Layer relu3
I0501 00:29:33.744860  7153 net.cpp:408] relu3 <- ip3
I0501 00:29:33.744865  7153 net.cpp:369] relu3 -> ip3 (in-place)
I0501 00:29:33.745029  7153 net.cpp:124] Setting up relu3
I0501 00:29:33.745039  7153 net.cpp:131] Top shape: 1000 160 (160000)
I0501 00:29:33.745043  7153 net.cpp:139] Memory required for data: 98412000
I0501 00:29:33.745046  7153 layer_factory.hpp:77] Creating layer ip4
I0501 00:29:33.745052  7153 net.cpp:86] Creating Layer ip4
I0501 00:29:33.745055  7153 net.cpp:408] ip4 <- ip3
I0501 00:29:33.745061  7153 net.cpp:382] ip4 -> ip4
I0501 00:29:33.745240  7153 net.cpp:124] Setting up ip4
I0501 00:29:33.745249  7153 net.cpp:131] Top shape: 1000 10 (10000)
I0501 00:29:33.745251  7153 net.cpp:139] Memory required for data: 98452000
I0501 00:29:33.745260  7153 layer_factory.hpp:77] Creating layer ip4_ip4_0_split
I0501 00:29:33.745265  7153 net.cpp:86] Creating Layer ip4_ip4_0_split
I0501 00:29:33.745267  7153 net.cpp:408] ip4_ip4_0_split <- ip4
I0501 00:29:33.745272  7153 net.cpp:382] ip4_ip4_0_split -> ip4_ip4_0_split_0
I0501 00:29:33.745277  7153 net.cpp:382] ip4_ip4_0_split -> ip4_ip4_0_split_1
I0501 00:29:33.745307  7153 net.cpp:124] Setting up ip4_ip4_0_split
I0501 00:29:33.745311  7153 net.cpp:131] Top shape: 1000 10 (10000)
I0501 00:29:33.745316  7153 net.cpp:131] Top shape: 1000 10 (10000)
I0501 00:29:33.745317  7153 net.cpp:139] Memory required for data: 98532000
I0501 00:29:33.745321  7153 layer_factory.hpp:77] Creating layer accuracy
I0501 00:29:33.745332  7153 net.cpp:86] Creating Layer accuracy
I0501 00:29:33.745334  7153 net.cpp:408] accuracy <- ip4_ip4_0_split_0
I0501 00:29:33.745337  7153 net.cpp:408] accuracy <- label_cifar_1_split_0
I0501 00:29:33.745342  7153 net.cpp:382] accuracy -> accuracy
…
