…
I0430 20:29:33.103224 28820 net.cpp:296] The NetState phase (0) differed from the phase (1) specified by a rule in layer cifar
I0430 20:29:33.103237 28820 net.cpp:296] The NetState phase (0) differed from the phase (1) specified by a rule in layer accuracy
I0430 20:29:33.103307 28820 net.cpp:53] Initializing net from parameters: 
name: "CIFAR"
state {
  phase: TRAIN
  level: 0
  stage: ""
}
layer {
  name: "cifar"
  type: "Data"
  top: "data"
  top: "label"
  include {
    phase: TRAIN
  }
  transform_param {
    mean_file: "examples/cifar10/mean.binaryproto"
  }
  data_param {
    source: "examples/cifar10/cifar10_train_lmdb"
    batch_size: 111
    backend: LMDB
  }
}
layer {
  name: "ip1"
  type: "InnerProduct"
  bottom: "data"
  top: "ip1"
  param {
    lr_mult: 1
  }
  param {
    lr_mult: 2
  }
  inner_product_param {
    num_output: 160
    weight_filler {
      type: "gaussian"
      std: 0.01
    }
    bias_filler {
      type: "constant"
    }
  }
}
layer {
  name: "relu1"
  type: "ReLU"
  bottom: "ip1"
  top: "ip1"
}
layer {
  name: "ip2"
  type: "InnerProduct"
  bottom: "ip1"
  top: "ip2"
  param {
    lr_mult: 1
  }
  param {
    lr_mult: 2
  }
  inner_product_param {
    num_output: 10
    weight_filler {
      type: "gaussian"
      std: 0.01
    }
    bias_filler {
      type: "constant"
    }
  }
}
layer {
  name: "relu2"
  type: "ReLU"
  bottom: "ip2"
  top: "ip2"
}
layer {
  name: "ip3"
  type: "InnerProduct"
  bottom: "ip2"
  top: "ip3"
  param {
    lr_mult: 1
  }
  param {
    lr_mult: 2
  }
  inner_product_param {
    num_output: 20
    weight_filler {
      type: "gaussian"
      std: 0.01
    }
    bias_filler {
      type: "constant"
    }
  }
}
layer {
  name: "relu3"
  type: "ReLU"
  bottom: "ip3"
  top: "ip3"
}
layer {
  name: "ip4"
  type: "InnerProduct"
  bottom: "ip3"
  top: "ip4"
  param {
    lr_mult: 1
  }
  param {
    lr_mult: 2
  }
  inner_product_param {
    num_output: 10
    weight_filler {
      type: "gaussian"
      std: 0.01
    }
    bias_filler {
      type: "constant"
    }
  }
}
layer {
  name: "loss"
  type: "SoftmaxWithLoss"
  bottom: "ip4"
  bottom: "label"
  top: "loss"
}
I0430 20:29:33.103365 28820 layer_factory.hpp:77] Creating layer cifar
I0430 20:29:33.103448 28820 db_lmdb.cpp:35] Opened lmdb examples/cifar10/cifar10_train_lmdb
I0430 20:29:33.103484 28820 net.cpp:86] Creating Layer cifar
I0430 20:29:33.103493 28820 net.cpp:382] cifar -> data
I0430 20:29:33.103512 28820 net.cpp:382] cifar -> label
I0430 20:29:33.103520 28820 data_transformer.cpp:25] Loading mean file from: examples/cifar10/mean.binaryproto
I0430 20:29:33.105289 28820 data_layer.cpp:45] output data size: 111,3,32,32
I0430 20:29:33.111729 28820 net.cpp:124] Setting up cifar
I0430 20:29:33.111760 28820 net.cpp:131] Top shape: 111 3 32 32 (340992)
I0430 20:29:33.111766 28820 net.cpp:131] Top shape: 111 (111)
I0430 20:29:33.111769 28820 net.cpp:139] Memory required for data: 1364412
I0430 20:29:33.111775 28820 layer_factory.hpp:77] Creating layer ip1
I0430 20:29:33.111784 28820 net.cpp:86] Creating Layer ip1
I0430 20:29:33.111789 28820 net.cpp:408] ip1 <- data
I0430 20:29:33.111798 28820 net.cpp:382] ip1 -> ip1
I0430 20:29:33.125396 28820 net.cpp:124] Setting up ip1
I0430 20:29:33.125422 28820 net.cpp:131] Top shape: 111 160 (17760)
I0430 20:29:33.125425 28820 net.cpp:139] Memory required for data: 1435452
I0430 20:29:33.125437 28820 layer_factory.hpp:77] Creating layer relu1
I0430 20:29:33.125458 28820 net.cpp:86] Creating Layer relu1
I0430 20:29:33.125489 28820 net.cpp:408] relu1 <- ip1
I0430 20:29:33.125495 28820 net.cpp:369] relu1 -> ip1 (in-place)
I0430 20:29:33.353080 28820 net.cpp:124] Setting up relu1
I0430 20:29:33.353123 28820 net.cpp:131] Top shape: 111 160 (17760)
I0430 20:29:33.353142 28820 net.cpp:139] Memory required for data: 1506492
I0430 20:29:33.353148 28820 layer_factory.hpp:77] Creating layer ip2
I0430 20:29:33.353178 28820 net.cpp:86] Creating Layer ip2
I0430 20:29:33.353183 28820 net.cpp:408] ip2 <- ip1
I0430 20:29:33.353190 28820 net.cpp:382] ip2 -> ip2
I0430 20:29:33.353360 28820 net.cpp:124] Setting up ip2
I0430 20:29:33.353368 28820 net.cpp:131] Top shape: 111 10 (1110)
I0430 20:29:33.353371 28820 net.cpp:139] Memory required for data: 1510932
I0430 20:29:33.353381 28820 layer_factory.hpp:77] Creating layer relu2
I0430 20:29:33.353389 28820 net.cpp:86] Creating Layer relu2
I0430 20:29:33.353391 28820 net.cpp:408] relu2 <- ip2
I0430 20:29:33.353395 28820 net.cpp:369] relu2 -> ip2 (in-place)
I0430 20:29:33.354223 28820 net.cpp:124] Setting up relu2
I0430 20:29:33.354236 28820 net.cpp:131] Top shape: 111 10 (1110)
I0430 20:29:33.354255 28820 net.cpp:139] Memory required for data: 1515372
I0430 20:29:33.354259 28820 layer_factory.hpp:77] Creating layer ip3
I0430 20:29:33.354266 28820 net.cpp:86] Creating Layer ip3
I0430 20:29:33.354269 28820 net.cpp:408] ip3 <- ip2
I0430 20:29:33.354275 28820 net.cpp:382] ip3 -> ip3
I0430 20:29:33.354426 28820 net.cpp:124] Setting up ip3
I0430 20:29:33.354441 28820 net.cpp:131] Top shape: 111 20 (2220)
I0430 20:29:33.354444 28820 net.cpp:139] Memory required for data: 1524252
I0430 20:29:33.354451 28820 layer_factory.hpp:77] Creating layer relu3
I0430 20:29:33.354457 28820 net.cpp:86] Creating Layer relu3
I0430 20:29:33.354460 28820 net.cpp:408] relu3 <- ip3
I0430 20:29:33.354465 28820 net.cpp:369] relu3 -> ip3 (in-place)
I0430 20:29:33.354615 28820 net.cpp:124] Setting up relu3
I0430 20:29:33.354622 28820 net.cpp:131] Top shape: 111 20 (2220)
I0430 20:29:33.354625 28820 net.cpp:139] Memory required for data: 1533132
I0430 20:29:33.354629 28820 layer_factory.hpp:77] Creating layer ip4
I0430 20:29:33.354635 28820 net.cpp:86] Creating Layer ip4
I0430 20:29:33.354637 28820 net.cpp:408] ip4 <- ip3
I0430 20:29:33.354641 28820 net.cpp:382] ip4 -> ip4
I0430 20:29:33.354728 28820 net.cpp:124] Setting up ip4
I0430 20:29:33.354735 28820 net.cpp:131] Top shape: 111 10 (1110)
I0430 20:29:33.354737 28820 net.cpp:139] Memory required for data: 1537572
I0430 20:29:33.354743 28820 layer_factory.hpp:77] Creating layer loss
I0430 20:29:33.354748 28820 net.cpp:86] Creating Layer loss
I0430 20:29:33.354751 28820 net.cpp:408] loss <- ip4
I0430 20:29:33.354755 28820 net.cpp:408] loss <- label
I0430 20:29:33.354760 28820 net.cpp:382] loss -> loss
I0430 20:29:33.354774 28820 layer_factory.hpp:77] Creating layer loss
…
I0430 20:29:33.355291 28820 solver.cpp:173] Creating test net (#0) specified by net file: ECE595/cifar/train_test/var_everything/cifar_train_test_131.prototxt
I0430 20:29:33.355345 28820 net.cpp:296] The NetState phase (1) differed from the phase (0) specified by a rule in layer cifar
I0430 20:29:33.355434 28820 net.cpp:53] Initializing net from parameters: 
name: "CIFAR"
state {
  phase: TEST
}
layer {
  name: "cifar"
  type: "Data"
  top: "data"
  top: "label"
  include {
    phase: TEST
  }
  transform_param {
    mean_file: "examples/cifar10/mean.binaryproto"
  }
  data_param {
    source: "examples/cifar10/cifar10_test_lmdb"
    batch_size: 1000
    backend: LMDB
  }
}
layer {
  name: "ip1"
  type: "InnerProduct"
  bottom: "data"
  top: "ip1"
  param {
    lr_mult: 1
  }
  param {
    lr_mult: 2
  }
  inner_product_param {
    num_output: 160
    weight_filler {
      type: "gaussian"
      std: 0.01
    }
    bias_filler {
      type: "constant"
    }
  }
}
layer {
  name: "relu1"
  type: "ReLU"
  bottom: "ip1"
  top: "ip1"
}
layer {
  name: "ip2"
  type: "InnerProduct"
  bottom: "ip1"
  top: "ip2"
  param {
    lr_mult: 1
  }
  param {
    lr_mult: 2
  }
  inner_product_param {
    num_output: 10
    weight_filler {
      type: "gaussian"
      std: 0.01
    }
    bias_filler {
      type: "constant"
    }
  }
}
layer {
  name: "relu2"
  type: "ReLU"
  bottom: "ip2"
  top: "ip2"
}
layer {
  name: "ip3"
  type: "InnerProduct"
  bottom: "ip2"
  top: "ip3"
  param {
    lr_mult: 1
  }
  param {
    lr_mult: 2
  }
  inner_product_param {
    num_output: 20
    weight_filler {
      type: "gaussian"
      std: 0.01
    }
    bias_filler {
      type: "constant"
    }
  }
}
layer {
  name: "relu3"
  type: "ReLU"
  bottom: "ip3"
  top: "ip3"
}
layer {
  name: "ip4"
  type: "InnerProduct"
  bottom: "ip3"
  top: "ip4"
  param {
    lr_mult: 1
  }
  param {
    lr_mult: 2
  }
  inner_product_param {
    num_output: 10
    weight_filler {
      type: "gaussian"
      std: 0.01
    }
    bias_filler {
      type: "constant"
    }
  }
}
layer {
  name: "accuracy"
  type: "Accuracy"
  bottom: "ip4"
  bottom: "label"
  top: "accuracy"
  include {
    phase: TEST
  }
}
layer {
  name: "loss"
  type: "SoftmaxWithLoss"
  bottom: "ip4"
  bottom: "label"
  top: "loss"
}
I0430 20:29:33.355494 28820 layer_factory.hpp:77] Creating layer cifar
I0430 20:29:33.355537 28820 db_lmdb.cpp:35] Opened lmdb examples/cifar10/cifar10_test_lmdb
I0430 20:29:33.355550 28820 net.cpp:86] Creating Layer cifar
I0430 20:29:33.355554 28820 net.cpp:382] cifar -> data
I0430 20:29:33.355561 28820 net.cpp:382] cifar -> label
I0430 20:29:33.355568 28820 data_transformer.cpp:25] Loading mean file from: examples/cifar10/mean.binaryproto
I0430 20:29:33.355720 28820 data_layer.cpp:45] output data size: 1000,3,32,32
I0430 20:29:33.379173 28820 net.cpp:124] Setting up cifar
I0430 20:29:33.379199 28820 net.cpp:131] Top shape: 1000 3 32 32 (3072000)
I0430 20:29:33.379205 28820 net.cpp:131] Top shape: 1000 (1000)
I0430 20:29:33.379209 28820 net.cpp:139] Memory required for data: 12292000
I0430 20:29:33.379215 28820 layer_factory.hpp:77] Creating layer label_cifar_1_split
I0430 20:29:33.379247 28820 net.cpp:86] Creating Layer label_cifar_1_split
I0430 20:29:33.379252 28820 net.cpp:408] label_cifar_1_split <- label
I0430 20:29:33.379258 28820 net.cpp:382] label_cifar_1_split -> label_cifar_1_split_0
I0430 20:29:33.379281 28820 net.cpp:382] label_cifar_1_split -> label_cifar_1_split_1
I0430 20:29:33.379348 28820 net.cpp:124] Setting up label_cifar_1_split
I0430 20:29:33.379354 28820 net.cpp:131] Top shape: 1000 (1000)
I0430 20:29:33.379359 28820 net.cpp:131] Top shape: 1000 (1000)
I0430 20:29:33.379361 28820 net.cpp:139] Memory required for data: 12300000
I0430 20:29:33.379364 28820 layer_factory.hpp:77] Creating layer ip1
I0430 20:29:33.379374 28820 net.cpp:86] Creating Layer ip1
I0430 20:29:33.379376 28820 net.cpp:408] ip1 <- data
I0430 20:29:33.379380 28820 net.cpp:382] ip1 -> ip1
I0430 20:29:33.393209 28820 net.cpp:124] Setting up ip1
I0430 20:29:33.393237 28820 net.cpp:131] Top shape: 1000 160 (160000)
I0430 20:29:33.393261 28820 net.cpp:139] Memory required for data: 12940000
I0430 20:29:33.393286 28820 layer_factory.hpp:77] Creating layer relu1
I0430 20:29:33.393309 28820 net.cpp:86] Creating Layer relu1
I0430 20:29:33.393312 28820 net.cpp:408] relu1 <- ip1
I0430 20:29:33.393317 28820 net.cpp:369] relu1 -> ip1 (in-place)
I0430 20:29:33.394111 28820 net.cpp:124] Setting up relu1
I0430 20:29:33.394122 28820 net.cpp:131] Top shape: 1000 160 (160000)
I0430 20:29:33.394141 28820 net.cpp:139] Memory required for data: 13580000
I0430 20:29:33.394145 28820 layer_factory.hpp:77] Creating layer ip2
I0430 20:29:33.394152 28820 net.cpp:86] Creating Layer ip2
I0430 20:29:33.394156 28820 net.cpp:408] ip2 <- ip1
I0430 20:29:33.394161 28820 net.cpp:382] ip2 -> ip2
I0430 20:29:33.394320 28820 net.cpp:124] Setting up ip2
I0430 20:29:33.394328 28820 net.cpp:131] Top shape: 1000 10 (10000)
I0430 20:29:33.394331 28820 net.cpp:139] Memory required for data: 13620000
I0430 20:29:33.394338 28820 layer_factory.hpp:77] Creating layer relu2
I0430 20:29:33.394343 28820 net.cpp:86] Creating Layer relu2
I0430 20:29:33.394347 28820 net.cpp:408] relu2 <- ip2
I0430 20:29:33.394351 28820 net.cpp:369] relu2 -> ip2 (in-place)
I0430 20:29:33.394496 28820 net.cpp:124] Setting up relu2
I0430 20:29:33.394505 28820 net.cpp:131] Top shape: 1000 10 (10000)
I0430 20:29:33.394507 28820 net.cpp:139] Memory required for data: 13660000
I0430 20:29:33.394510 28820 layer_factory.hpp:77] Creating layer ip3
I0430 20:29:33.394516 28820 net.cpp:86] Creating Layer ip3
I0430 20:29:33.394520 28820 net.cpp:408] ip3 <- ip2
I0430 20:29:33.394525 28820 net.cpp:382] ip3 -> ip3
I0430 20:29:33.394623 28820 net.cpp:124] Setting up ip3
I0430 20:29:33.394630 28820 net.cpp:131] Top shape: 1000 20 (20000)
I0430 20:29:33.394634 28820 net.cpp:139] Memory required for data: 13740000
I0430 20:29:33.394640 28820 layer_factory.hpp:77] Creating layer relu3
I0430 20:29:33.394645 28820 net.cpp:86] Creating Layer relu3
I0430 20:29:33.394649 28820 net.cpp:408] relu3 <- ip3
I0430 20:29:33.394652 28820 net.cpp:369] relu3 -> ip3 (in-place)
I0430 20:29:33.394812 28820 net.cpp:124] Setting up relu3
I0430 20:29:33.394821 28820 net.cpp:131] Top shape: 1000 20 (20000)
I0430 20:29:33.394824 28820 net.cpp:139] Memory required for data: 13820000
I0430 20:29:33.394827 28820 layer_factory.hpp:77] Creating layer ip4
I0430 20:29:33.394834 28820 net.cpp:86] Creating Layer ip4
I0430 20:29:33.394839 28820 net.cpp:408] ip4 <- ip3
I0430 20:29:33.394842 28820 net.cpp:382] ip4 -> ip4
I0430 20:29:33.394944 28820 net.cpp:124] Setting up ip4
I0430 20:29:33.394951 28820 net.cpp:131] Top shape: 1000 10 (10000)
I0430 20:29:33.394954 28820 net.cpp:139] Memory required for data: 13860000
I0430 20:29:33.394959 28820 layer_factory.hpp:77] Creating layer ip4_ip4_0_split
I0430 20:29:33.394964 28820 net.cpp:86] Creating Layer ip4_ip4_0_split
I0430 20:29:33.394969 28820 net.cpp:408] ip4_ip4_0_split <- ip4
I0430 20:29:33.394973 28820 net.cpp:382] ip4_ip4_0_split -> ip4_ip4_0_split_0
I0430 20:29:33.394979 28820 net.cpp:382] ip4_ip4_0_split -> ip4_ip4_0_split_1
I0430 20:29:33.395009 28820 net.cpp:124] Setting up ip4_ip4_0_split
I0430 20:29:33.395015 28820 net.cpp:131] Top shape: 1000 10 (10000)
I0430 20:29:33.395020 28820 net.cpp:131] Top shape: 1000 10 (10000)
I0430 20:29:33.395022 28820 net.cpp:139] Memory required for data: 13940000
I0430 20:29:33.395025 28820 layer_factory.hpp:77] Creating layer accuracy
I0430 20:29:33.395031 28820 net.cpp:86] Creating Layer accuracy
I0430 20:29:33.395035 28820 net.cpp:408] accuracy <- ip4_ip4_0_split_0
I0430 20:29:33.395038 28820 net.cpp:408] accuracy <- label_cifar_1_split_0
I0430 20:29:33.395042 28820 net.cpp:382] accuracy -> accuracy
…
