…
I0430 20:36:59.841817 29025 net.cpp:296] The NetState phase (0) differed from the phase (1) specified by a rule in layer cifar
I0430 20:36:59.841832 29025 net.cpp:296] The NetState phase (0) differed from the phase (1) specified by a rule in layer accuracy
I0430 20:36:59.841915 29025 net.cpp:53] Initializing net from parameters: 
name: "CIFAR"
state {
  phase: TRAIN
  level: 0
  stage: ""
}
layer {
  name: "cifar"
  type: "Data"
  top: "data"
  top: "label"
  include {
    phase: TRAIN
  }
  transform_param {
    mean_file: "examples/cifar10/mean.binaryproto"
  }
  data_param {
    source: "examples/cifar10/cifar10_train_lmdb"
    batch_size: 111
    backend: LMDB
  }
}
layer {
  name: "ip1"
  type: "InnerProduct"
  bottom: "data"
  top: "ip1"
  param {
    lr_mult: 1
  }
  param {
    lr_mult: 2
  }
  inner_product_param {
    num_output: 160
    weight_filler {
      type: "gaussian"
      std: 0.01
    }
    bias_filler {
      type: "constant"
    }
  }
}
layer {
  name: "relu1"
  type: "ReLU"
  bottom: "ip1"
  top: "ip1"
}
layer {
  name: "ip2"
  type: "InnerProduct"
  bottom: "ip1"
  top: "ip2"
  param {
    lr_mult: 1
  }
  param {
    lr_mult: 2
  }
  inner_product_param {
    num_output: 20
    weight_filler {
      type: "gaussian"
      std: 0.01
    }
    bias_filler {
      type: "constant"
    }
  }
}
layer {
  name: "relu2"
  type: "ReLU"
  bottom: "ip2"
  top: "ip2"
}
layer {
  name: "ip3"
  type: "InnerProduct"
  bottom: "ip2"
  top: "ip3"
  param {
    lr_mult: 1
  }
  param {
    lr_mult: 2
  }
  inner_product_param {
    num_output: 10
    weight_filler {
      type: "gaussian"
      std: 0.01
    }
    bias_filler {
      type: "constant"
    }
  }
}
layer {
  name: "relu3"
  type: "ReLU"
  bottom: "ip3"
  top: "ip3"
}
layer {
  name: "ip4"
  type: "InnerProduct"
  bottom: "ip3"
  top: "ip4"
  param {
    lr_mult: 1
  }
  param {
    lr_mult: 2
  }
  inner_product_param {
    num_output: 10
    weight_filler {
      type: "gaussian"
      std: 0.01
    }
    bias_filler {
      type: "constant"
    }
  }
}
layer {
  name: "loss"
  type: "SoftmaxWithLoss"
  bottom: "ip4"
  bottom: "label"
  top: "loss"
}
I0430 20:36:59.841980 29025 layer_factory.hpp:77] Creating layer cifar
I0430 20:36:59.842078 29025 db_lmdb.cpp:35] Opened lmdb examples/cifar10/cifar10_train_lmdb
I0430 20:36:59.842108 29025 net.cpp:86] Creating Layer cifar
I0430 20:36:59.842118 29025 net.cpp:382] cifar -> data
I0430 20:36:59.842139 29025 net.cpp:382] cifar -> label
I0430 20:36:59.842157 29025 data_transformer.cpp:25] Loading mean file from: examples/cifar10/mean.binaryproto
I0430 20:36:59.844246 29025 data_layer.cpp:45] output data size: 111,3,32,32
I0430 20:36:59.852098 29025 net.cpp:124] Setting up cifar
I0430 20:36:59.852116 29025 net.cpp:131] Top shape: 111 3 32 32 (340992)
I0430 20:36:59.852123 29025 net.cpp:131] Top shape: 111 (111)
I0430 20:36:59.852126 29025 net.cpp:139] Memory required for data: 1364412
I0430 20:36:59.852134 29025 layer_factory.hpp:77] Creating layer ip1
I0430 20:36:59.852145 29025 net.cpp:86] Creating Layer ip1
I0430 20:36:59.852150 29025 net.cpp:408] ip1 <- data
I0430 20:36:59.852165 29025 net.cpp:382] ip1 -> ip1
I0430 20:36:59.869413 29025 net.cpp:124] Setting up ip1
I0430 20:36:59.869429 29025 net.cpp:131] Top shape: 111 160 (17760)
I0430 20:36:59.869434 29025 net.cpp:139] Memory required for data: 1435452
I0430 20:36:59.869449 29025 layer_factory.hpp:77] Creating layer relu1
I0430 20:36:59.869484 29025 net.cpp:86] Creating Layer relu1
I0430 20:36:59.869489 29025 net.cpp:408] relu1 <- ip1
I0430 20:36:59.869495 29025 net.cpp:369] relu1 -> ip1 (in-place)
I0430 20:37:00.146786 29025 net.cpp:124] Setting up relu1
I0430 20:37:00.146813 29025 net.cpp:131] Top shape: 111 160 (17760)
I0430 20:37:00.146817 29025 net.cpp:139] Memory required for data: 1506492
I0430 20:37:00.146823 29025 layer_factory.hpp:77] Creating layer ip2
I0430 20:37:00.146836 29025 net.cpp:86] Creating Layer ip2
I0430 20:37:00.146841 29025 net.cpp:408] ip2 <- ip1
I0430 20:37:00.146847 29025 net.cpp:382] ip2 -> ip2
I0430 20:37:00.147088 29025 net.cpp:124] Setting up ip2
I0430 20:37:00.147096 29025 net.cpp:131] Top shape: 111 20 (2220)
I0430 20:37:00.147099 29025 net.cpp:139] Memory required for data: 1515372
I0430 20:37:00.147109 29025 layer_factory.hpp:77] Creating layer relu2
I0430 20:37:00.147115 29025 net.cpp:86] Creating Layer relu2
I0430 20:37:00.147119 29025 net.cpp:408] relu2 <- ip2
I0430 20:37:00.147122 29025 net.cpp:369] relu2 -> ip2 (in-place)
I0430 20:37:00.147897 29025 net.cpp:124] Setting up relu2
I0430 20:37:00.147909 29025 net.cpp:131] Top shape: 111 20 (2220)
I0430 20:37:00.147913 29025 net.cpp:139] Memory required for data: 1524252
I0430 20:37:00.147917 29025 layer_factory.hpp:77] Creating layer ip3
I0430 20:37:00.147923 29025 net.cpp:86] Creating Layer ip3
I0430 20:37:00.147927 29025 net.cpp:408] ip3 <- ip2
I0430 20:37:00.147933 29025 net.cpp:382] ip3 -> ip3
I0430 20:37:00.148027 29025 net.cpp:124] Setting up ip3
I0430 20:37:00.148036 29025 net.cpp:131] Top shape: 111 10 (1110)
I0430 20:37:00.148038 29025 net.cpp:139] Memory required for data: 1528692
I0430 20:37:00.148046 29025 layer_factory.hpp:77] Creating layer relu3
I0430 20:37:00.148049 29025 net.cpp:86] Creating Layer relu3
I0430 20:37:00.148052 29025 net.cpp:408] relu3 <- ip3
I0430 20:37:00.148056 29025 net.cpp:369] relu3 -> ip3 (in-place)
I0430 20:37:00.148191 29025 net.cpp:124] Setting up relu3
I0430 20:37:00.148200 29025 net.cpp:131] Top shape: 111 10 (1110)
I0430 20:37:00.148202 29025 net.cpp:139] Memory required for data: 1533132
I0430 20:37:00.148205 29025 layer_factory.hpp:77] Creating layer ip4
I0430 20:37:00.148211 29025 net.cpp:86] Creating Layer ip4
I0430 20:37:00.148213 29025 net.cpp:408] ip4 <- ip3
I0430 20:37:00.148217 29025 net.cpp:382] ip4 -> ip4
I0430 20:37:00.148304 29025 net.cpp:124] Setting up ip4
I0430 20:37:00.148311 29025 net.cpp:131] Top shape: 111 10 (1110)
I0430 20:37:00.148314 29025 net.cpp:139] Memory required for data: 1537572
I0430 20:37:00.148319 29025 layer_factory.hpp:77] Creating layer loss
I0430 20:37:00.148324 29025 net.cpp:86] Creating Layer loss
I0430 20:37:00.148327 29025 net.cpp:408] loss <- ip4
I0430 20:37:00.148331 29025 net.cpp:408] loss <- label
I0430 20:37:00.148336 29025 net.cpp:382] loss -> loss
I0430 20:37:00.148350 29025 layer_factory.hpp:77] Creating layer loss
…
I0430 20:37:00.148911 29025 solver.cpp:173] Creating test net (#0) specified by net file: ECE595/cifar/train_test/var_everything/cifar_train_test_135.prototxt
I0430 20:37:00.148952 29025 net.cpp:296] The NetState phase (1) differed from the phase (0) specified by a rule in layer cifar
I0430 20:37:00.149045 29025 net.cpp:53] Initializing net from parameters: 
name: "CIFAR"
state {
  phase: TEST
}
layer {
  name: "cifar"
  type: "Data"
  top: "data"
  top: "label"
  include {
    phase: TEST
  }
  transform_param {
    mean_file: "examples/cifar10/mean.binaryproto"
  }
  data_param {
    source: "examples/cifar10/cifar10_test_lmdb"
    batch_size: 1000
    backend: LMDB
  }
}
layer {
  name: "ip1"
  type: "InnerProduct"
  bottom: "data"
  top: "ip1"
  param {
    lr_mult: 1
  }
  param {
    lr_mult: 2
  }
  inner_product_param {
    num_output: 160
    weight_filler {
      type: "gaussian"
      std: 0.01
    }
    bias_filler {
      type: "constant"
    }
  }
}
layer {
  name: "relu1"
  type: "ReLU"
  bottom: "ip1"
  top: "ip1"
}
layer {
  name: "ip2"
  type: "InnerProduct"
  bottom: "ip1"
  top: "ip2"
  param {
    lr_mult: 1
  }
  param {
    lr_mult: 2
  }
  inner_product_param {
    num_output: 20
    weight_filler {
      type: "gaussian"
      std: 0.01
    }
    bias_filler {
      type: "constant"
    }
  }
}
layer {
  name: "relu2"
  type: "ReLU"
  bottom: "ip2"
  top: "ip2"
}
layer {
  name: "ip3"
  type: "InnerProduct"
  bottom: "ip2"
  top: "ip3"
  param {
    lr_mult: 1
  }
  param {
    lr_mult: 2
  }
  inner_product_param {
    num_output: 10
    weight_filler {
      type: "gaussian"
      std: 0.01
    }
    bias_filler {
      type: "constant"
    }
  }
}
layer {
  name: "relu3"
  type: "ReLU"
  bottom: "ip3"
  top: "ip3"
}
layer {
  name: "ip4"
  type: "InnerProduct"
  bottom: "ip3"
  top: "ip4"
  param {
    lr_mult: 1
  }
  param {
    lr_mult: 2
  }
  inner_product_param {
    num_output: 10
    weight_filler {
      type: "gaussian"
      std: 0.01
    }
    bias_filler {
      type: "constant"
    }
  }
}
layer {
  name: "accuracy"
  type: "Accuracy"
  bottom: "ip4"
  bottom: "label"
  top: "accuracy"
  include {
    phase: TEST
  }
}
layer {
  name: "loss"
  type: "SoftmaxWithLoss"
  bottom: "ip4"
  bottom: "label"
  top: "loss"
}
I0430 20:37:00.149142 29025 layer_factory.hpp:77] Creating layer cifar
I0430 20:37:00.149193 29025 db_lmdb.cpp:35] Opened lmdb examples/cifar10/cifar10_test_lmdb
I0430 20:37:00.149206 29025 net.cpp:86] Creating Layer cifar
I0430 20:37:00.149211 29025 net.cpp:382] cifar -> data
I0430 20:37:00.149219 29025 net.cpp:382] cifar -> label
I0430 20:37:00.149226 29025 data_transformer.cpp:25] Loading mean file from: examples/cifar10/mean.binaryproto
I0430 20:37:00.149382 29025 data_layer.cpp:45] output data size: 1000,3,32,32
I0430 20:37:00.172212 29025 net.cpp:124] Setting up cifar
I0430 20:37:00.172268 29025 net.cpp:131] Top shape: 1000 3 32 32 (3072000)
I0430 20:37:00.172274 29025 net.cpp:131] Top shape: 1000 (1000)
I0430 20:37:00.172278 29025 net.cpp:139] Memory required for data: 12292000
I0430 20:37:00.172299 29025 layer_factory.hpp:77] Creating layer label_cifar_1_split
I0430 20:37:00.172315 29025 net.cpp:86] Creating Layer label_cifar_1_split
I0430 20:37:00.172319 29025 net.cpp:408] label_cifar_1_split <- label
I0430 20:37:00.172341 29025 net.cpp:382] label_cifar_1_split -> label_cifar_1_split_0
I0430 20:37:00.172350 29025 net.cpp:382] label_cifar_1_split -> label_cifar_1_split_1
I0430 20:37:00.172448 29025 net.cpp:124] Setting up label_cifar_1_split
I0430 20:37:00.172457 29025 net.cpp:131] Top shape: 1000 (1000)
I0430 20:37:00.172461 29025 net.cpp:131] Top shape: 1000 (1000)
I0430 20:37:00.172464 29025 net.cpp:139] Memory required for data: 12300000
I0430 20:37:00.172467 29025 layer_factory.hpp:77] Creating layer ip1
I0430 20:37:00.172477 29025 net.cpp:86] Creating Layer ip1
I0430 20:37:00.172480 29025 net.cpp:408] ip1 <- data
I0430 20:37:00.172485 29025 net.cpp:382] ip1 -> ip1
I0430 20:37:00.186527 29025 net.cpp:124] Setting up ip1
I0430 20:37:00.186542 29025 net.cpp:131] Top shape: 1000 160 (160000)
I0430 20:37:00.186545 29025 net.cpp:139] Memory required for data: 12940000
I0430 20:37:00.186571 29025 layer_factory.hpp:77] Creating layer relu1
I0430 20:37:00.186578 29025 net.cpp:86] Creating Layer relu1
I0430 20:37:00.186583 29025 net.cpp:408] relu1 <- ip1
I0430 20:37:00.186586 29025 net.cpp:369] relu1 -> ip1 (in-place)
I0430 20:37:00.187358 29025 net.cpp:124] Setting up relu1
I0430 20:37:00.187371 29025 net.cpp:131] Top shape: 1000 160 (160000)
I0430 20:37:00.187389 29025 net.cpp:139] Memory required for data: 13580000
I0430 20:37:00.187392 29025 layer_factory.hpp:77] Creating layer ip2
I0430 20:37:00.187415 29025 net.cpp:86] Creating Layer ip2
I0430 20:37:00.187419 29025 net.cpp:408] ip2 <- ip1
I0430 20:37:00.187424 29025 net.cpp:382] ip2 -> ip2
I0430 20:37:00.187623 29025 net.cpp:124] Setting up ip2
I0430 20:37:00.187630 29025 net.cpp:131] Top shape: 1000 20 (20000)
I0430 20:37:00.187633 29025 net.cpp:139] Memory required for data: 13660000
I0430 20:37:00.187641 29025 layer_factory.hpp:77] Creating layer relu2
I0430 20:37:00.187647 29025 net.cpp:86] Creating Layer relu2
I0430 20:37:00.187650 29025 net.cpp:408] relu2 <- ip2
I0430 20:37:00.187654 29025 net.cpp:369] relu2 -> ip2 (in-place)
I0430 20:37:00.187798 29025 net.cpp:124] Setting up relu2
I0430 20:37:00.187805 29025 net.cpp:131] Top shape: 1000 20 (20000)
I0430 20:37:00.187808 29025 net.cpp:139] Memory required for data: 13740000
I0430 20:37:00.187811 29025 layer_factory.hpp:77] Creating layer ip3
I0430 20:37:00.187818 29025 net.cpp:86] Creating Layer ip3
I0430 20:37:00.187820 29025 net.cpp:408] ip3 <- ip2
I0430 20:37:00.187829 29025 net.cpp:382] ip3 -> ip3
I0430 20:37:00.187929 29025 net.cpp:124] Setting up ip3
I0430 20:37:00.187937 29025 net.cpp:131] Top shape: 1000 10 (10000)
I0430 20:37:00.187939 29025 net.cpp:139] Memory required for data: 13780000
I0430 20:37:00.187947 29025 layer_factory.hpp:77] Creating layer relu3
I0430 20:37:00.187952 29025 net.cpp:86] Creating Layer relu3
I0430 20:37:00.187954 29025 net.cpp:408] relu3 <- ip3
I0430 20:37:00.187958 29025 net.cpp:369] relu3 -> ip3 (in-place)
I0430 20:37:00.188108 29025 net.cpp:124] Setting up relu3
I0430 20:37:00.188117 29025 net.cpp:131] Top shape: 1000 10 (10000)
I0430 20:37:00.188119 29025 net.cpp:139] Memory required for data: 13820000
I0430 20:37:00.188122 29025 layer_factory.hpp:77] Creating layer ip4
I0430 20:37:00.188129 29025 net.cpp:86] Creating Layer ip4
I0430 20:37:00.188133 29025 net.cpp:408] ip4 <- ip3
I0430 20:37:00.188138 29025 net.cpp:382] ip4 -> ip4
I0430 20:37:00.188257 29025 net.cpp:124] Setting up ip4
I0430 20:37:00.188264 29025 net.cpp:131] Top shape: 1000 10 (10000)
I0430 20:37:00.188267 29025 net.cpp:139] Memory required for data: 13860000
I0430 20:37:00.188272 29025 layer_factory.hpp:77] Creating layer ip4_ip4_0_split
I0430 20:37:00.188277 29025 net.cpp:86] Creating Layer ip4_ip4_0_split
I0430 20:37:00.188280 29025 net.cpp:408] ip4_ip4_0_split <- ip4
I0430 20:37:00.188287 29025 net.cpp:382] ip4_ip4_0_split -> ip4_ip4_0_split_0
I0430 20:37:00.188292 29025 net.cpp:382] ip4_ip4_0_split -> ip4_ip4_0_split_1
I0430 20:37:00.188324 29025 net.cpp:124] Setting up ip4_ip4_0_split
I0430 20:37:00.188333 29025 net.cpp:131] Top shape: 1000 10 (10000)
I0430 20:37:00.188338 29025 net.cpp:131] Top shape: 1000 10 (10000)
I0430 20:37:00.188339 29025 net.cpp:139] Memory required for data: 13940000
I0430 20:37:00.188343 29025 layer_factory.hpp:77] Creating layer accuracy
I0430 20:37:00.188354 29025 net.cpp:86] Creating Layer accuracy
I0430 20:37:00.188357 29025 net.cpp:408] accuracy <- ip4_ip4_0_split_0
I0430 20:37:00.188361 29025 net.cpp:408] accuracy <- label_cifar_1_split_0
I0430 20:37:00.188366 29025 net.cpp:382] accuracy -> accuracy
…
