…
I0430 17:29:14.406884 19834 net.cpp:296] The NetState phase (0) differed from the phase (1) specified by a rule in layer cifar
I0430 17:29:14.406898 19834 net.cpp:296] The NetState phase (0) differed from the phase (1) specified by a rule in layer accuracy
I0430 17:29:14.406970 19834 net.cpp:53] Initializing net from parameters: 
name: "CIFAR"
state {
  phase: TRAIN
  level: 0
  stage: ""
}
layer {
  name: "cifar"
  type: "Data"
  top: "data"
  top: "label"
  include {
    phase: TRAIN
  }
  transform_param {
    mean_file: "examples/cifar10/mean.binaryproto"
  }
  data_param {
    source: "examples/cifar10/cifar10_train_lmdb"
    batch_size: 111
    backend: LMDB
  }
}
layer {
  name: "ip1"
  type: "InnerProduct"
  bottom: "data"
  top: "ip1"
  param {
    lr_mult: 1
  }
  param {
    lr_mult: 2
  }
  inner_product_param {
    num_output: 10
    weight_filler {
      type: "gaussian"
      std: 0.01
    }
    bias_filler {
      type: "constant"
    }
  }
}
layer {
  name: "relu1"
  type: "ReLU"
  bottom: "ip1"
  top: "ip1"
}
layer {
  name: "ip2"
  type: "InnerProduct"
  bottom: "ip1"
  top: "ip2"
  param {
    lr_mult: 1
  }
  param {
    lr_mult: 2
  }
  inner_product_param {
    num_output: 20
    weight_filler {
      type: "gaussian"
      std: 0.01
    }
    bias_filler {
      type: "constant"
    }
  }
}
layer {
  name: "relu2"
  type: "ReLU"
  bottom: "ip2"
  top: "ip2"
}
layer {
  name: "ip3"
  type: "InnerProduct"
  bottom: "ip2"
  top: "ip3"
  param {
    lr_mult: 1
  }
  param {
    lr_mult: 2
  }
  inner_product_param {
    num_output: 20
    weight_filler {
      type: "gaussian"
      std: 0.01
    }
    bias_filler {
      type: "constant"
    }
  }
}
layer {
  name: "relu3"
  type: "ReLU"
  bottom: "ip3"
  top: "ip3"
}
layer {
  name: "ip4"
  type: "InnerProduct"
  bottom: "ip3"
  top: "ip4"
  param {
    lr_mult: 1
  }
  param {
    lr_mult: 2
  }
  inner_product_param {
    num_output: 10
    weight_filler {
      type: "gaussian"
      std: 0.01
    }
    bias_filler {
      type: "constant"
    }
  }
}
layer {
  name: "loss"
  type: "SoftmaxWithLoss"
  bottom: "ip4"
  bottom: "label"
  top: "loss"
}
I0430 17:29:14.407030 19834 layer_factory.hpp:77] Creating layer cifar
I0430 17:29:14.407114 19834 db_lmdb.cpp:35] Opened lmdb examples/cifar10/cifar10_train_lmdb
I0430 17:29:14.407136 19834 net.cpp:86] Creating Layer cifar
I0430 17:29:14.407143 19834 net.cpp:382] cifar -> data
I0430 17:29:14.407162 19834 net.cpp:382] cifar -> label
I0430 17:29:14.407171 19834 data_transformer.cpp:25] Loading mean file from: examples/cifar10/mean.binaryproto
I0430 17:29:14.408990 19834 data_layer.cpp:45] output data size: 111,3,32,32
I0430 17:29:14.415665 19834 net.cpp:124] Setting up cifar
I0430 17:29:14.415681 19834 net.cpp:131] Top shape: 111 3 32 32 (340992)
I0430 17:29:14.415686 19834 net.cpp:131] Top shape: 111 (111)
I0430 17:29:14.415690 19834 net.cpp:139] Memory required for data: 1364412
I0430 17:29:14.415698 19834 layer_factory.hpp:77] Creating layer ip1
I0430 17:29:14.415709 19834 net.cpp:86] Creating Layer ip1
I0430 17:29:14.415712 19834 net.cpp:408] ip1 <- data
I0430 17:29:14.415722 19834 net.cpp:382] ip1 -> ip1
I0430 17:29:14.417531 19834 net.cpp:124] Setting up ip1
I0430 17:29:14.417542 19834 net.cpp:131] Top shape: 111 10 (1110)
I0430 17:29:14.417546 19834 net.cpp:139] Memory required for data: 1368852
I0430 17:29:14.417557 19834 layer_factory.hpp:77] Creating layer relu1
I0430 17:29:14.417567 19834 net.cpp:86] Creating Layer relu1
I0430 17:29:14.417584 19834 net.cpp:408] relu1 <- ip1
I0430 17:29:14.417589 19834 net.cpp:369] relu1 -> ip1 (in-place)
I0430 17:29:14.638672 19834 net.cpp:124] Setting up relu1
I0430 17:29:14.638715 19834 net.cpp:131] Top shape: 111 10 (1110)
I0430 17:29:14.638718 19834 net.cpp:139] Memory required for data: 1373292
I0430 17:29:14.638723 19834 layer_factory.hpp:77] Creating layer ip2
I0430 17:29:14.638736 19834 net.cpp:86] Creating Layer ip2
I0430 17:29:14.638739 19834 net.cpp:408] ip2 <- ip1
I0430 17:29:14.638762 19834 net.cpp:382] ip2 -> ip2
I0430 17:29:14.638898 19834 net.cpp:124] Setting up ip2
I0430 17:29:14.638906 19834 net.cpp:131] Top shape: 111 20 (2220)
I0430 17:29:14.638908 19834 net.cpp:139] Memory required for data: 1382172
I0430 17:29:14.638917 19834 layer_factory.hpp:77] Creating layer relu2
I0430 17:29:14.638924 19834 net.cpp:86] Creating Layer relu2
I0430 17:29:14.638927 19834 net.cpp:408] relu2 <- ip2
I0430 17:29:14.638931 19834 net.cpp:369] relu2 -> ip2 (in-place)
I0430 17:29:14.639629 19834 net.cpp:124] Setting up relu2
I0430 17:29:14.639641 19834 net.cpp:131] Top shape: 111 20 (2220)
I0430 17:29:14.639659 19834 net.cpp:139] Memory required for data: 1391052
I0430 17:29:14.639662 19834 layer_factory.hpp:77] Creating layer ip3
I0430 17:29:14.639669 19834 net.cpp:86] Creating Layer ip3
I0430 17:29:14.639672 19834 net.cpp:408] ip3 <- ip2
I0430 17:29:14.639678 19834 net.cpp:382] ip3 -> ip3
I0430 17:29:14.640594 19834 net.cpp:124] Setting up ip3
I0430 17:29:14.640606 19834 net.cpp:131] Top shape: 111 20 (2220)
I0430 17:29:14.640625 19834 net.cpp:139] Memory required for data: 1399932
I0430 17:29:14.640633 19834 layer_factory.hpp:77] Creating layer relu3
I0430 17:29:14.640638 19834 net.cpp:86] Creating Layer relu3
I0430 17:29:14.640641 19834 net.cpp:408] relu3 <- ip3
I0430 17:29:14.640645 19834 net.cpp:369] relu3 -> ip3 (in-place)
I0430 17:29:14.640866 19834 net.cpp:124] Setting up relu3
I0430 17:29:14.640874 19834 net.cpp:131] Top shape: 111 20 (2220)
I0430 17:29:14.640878 19834 net.cpp:139] Memory required for data: 1408812
I0430 17:29:14.640882 19834 layer_factory.hpp:77] Creating layer ip4
I0430 17:29:14.640887 19834 net.cpp:86] Creating Layer ip4
I0430 17:29:14.640890 19834 net.cpp:408] ip4 <- ip3
I0430 17:29:14.640895 19834 net.cpp:382] ip4 -> ip4
I0430 17:29:14.640990 19834 net.cpp:124] Setting up ip4
I0430 17:29:14.640996 19834 net.cpp:131] Top shape: 111 10 (1110)
I0430 17:29:14.641000 19834 net.cpp:139] Memory required for data: 1413252
I0430 17:29:14.641005 19834 layer_factory.hpp:77] Creating layer loss
I0430 17:29:14.641012 19834 net.cpp:86] Creating Layer loss
I0430 17:29:14.641016 19834 net.cpp:408] loss <- ip4
I0430 17:29:14.641018 19834 net.cpp:408] loss <- label
I0430 17:29:14.641023 19834 net.cpp:382] loss -> loss
I0430 17:29:14.641037 19834 layer_factory.hpp:77] Creating layer loss
…
I0430 17:29:14.641589 19834 solver.cpp:173] Creating test net (#0) specified by net file: ECE595/cifar/train_test/var_everything/cifar_train_test_36.prototxt
I0430 17:29:14.641626 19834 net.cpp:296] The NetState phase (1) differed from the phase (0) specified by a rule in layer cifar
I0430 17:29:14.641715 19834 net.cpp:53] Initializing net from parameters: 
name: "CIFAR"
state {
  phase: TEST
}
layer {
  name: "cifar"
  type: "Data"
  top: "data"
  top: "label"
  include {
    phase: TEST
  }
  transform_param {
    mean_file: "examples/cifar10/mean.binaryproto"
  }
  data_param {
    source: "examples/cifar10/cifar10_test_lmdb"
    batch_size: 1000
    backend: LMDB
  }
}
layer {
  name: "ip1"
  type: "InnerProduct"
  bottom: "data"
  top: "ip1"
  param {
    lr_mult: 1
  }
  param {
    lr_mult: 2
  }
  inner_product_param {
    num_output: 10
    weight_filler {
      type: "gaussian"
      std: 0.01
    }
    bias_filler {
      type: "constant"
    }
  }
}
layer {
  name: "relu1"
  type: "ReLU"
  bottom: "ip1"
  top: "ip1"
}
layer {
  name: "ip2"
  type: "InnerProduct"
  bottom: "ip1"
  top: "ip2"
  param {
    lr_mult: 1
  }
  param {
    lr_mult: 2
  }
  inner_product_param {
    num_output: 20
    weight_filler {
      type: "gaussian"
      std: 0.01
    }
    bias_filler {
      type: "constant"
    }
  }
}
layer {
  name: "relu2"
  type: "ReLU"
  bottom: "ip2"
  top: "ip2"
}
layer {
  name: "ip3"
  type: "InnerProduct"
  bottom: "ip2"
  top: "ip3"
  param {
    lr_mult: 1
  }
  param {
    lr_mult: 2
  }
  inner_product_param {
    num_output: 20
    weight_filler {
      type: "gaussian"
      std: 0.01
    }
    bias_filler {
      type: "constant"
    }
  }
}
layer {
  name: "relu3"
  type: "ReLU"
  bottom: "ip3"
  top: "ip3"
}
layer {
  name: "ip4"
  type: "InnerProduct"
  bottom: "ip3"
  top: "ip4"
  param {
    lr_mult: 1
  }
  param {
    lr_mult: 2
  }
  inner_product_param {
    num_output: 10
    weight_filler {
      type: "gaussian"
      std: 0.01
    }
    bias_filler {
      type: "constant"
    }
  }
}
layer {
  name: "accuracy"
  type: "Accuracy"
  bottom: "ip4"
  bottom: "label"
  top: "accuracy"
  include {
    phase: TEST
  }
}
layer {
  name: "loss"
  type: "SoftmaxWithLoss"
  bottom: "ip4"
  bottom: "label"
  top: "loss"
}
I0430 17:29:14.641820 19834 layer_factory.hpp:77] Creating layer cifar
I0430 17:29:14.641867 19834 db_lmdb.cpp:35] Opened lmdb examples/cifar10/cifar10_test_lmdb
I0430 17:29:14.641880 19834 net.cpp:86] Creating Layer cifar
I0430 17:29:14.641885 19834 net.cpp:382] cifar -> data
I0430 17:29:14.641893 19834 net.cpp:382] cifar -> label
I0430 17:29:14.641901 19834 data_transformer.cpp:25] Loading mean file from: examples/cifar10/mean.binaryproto
I0430 17:29:14.642051 19834 data_layer.cpp:45] output data size: 1000,3,32,32
I0430 17:29:14.662991 19834 net.cpp:124] Setting up cifar
I0430 17:29:14.663014 19834 net.cpp:131] Top shape: 1000 3 32 32 (3072000)
I0430 17:29:14.663020 19834 net.cpp:131] Top shape: 1000 (1000)
I0430 17:29:14.663023 19834 net.cpp:139] Memory required for data: 12292000
I0430 17:29:14.663028 19834 layer_factory.hpp:77] Creating layer label_cifar_1_split
I0430 17:29:14.663072 19834 net.cpp:86] Creating Layer label_cifar_1_split
I0430 17:29:14.663077 19834 net.cpp:408] label_cifar_1_split <- label
I0430 17:29:14.663084 19834 net.cpp:382] label_cifar_1_split -> label_cifar_1_split_0
I0430 17:29:14.663092 19834 net.cpp:382] label_cifar_1_split -> label_cifar_1_split_1
I0430 17:29:14.663209 19834 net.cpp:124] Setting up label_cifar_1_split
I0430 17:29:14.663215 19834 net.cpp:131] Top shape: 1000 (1000)
I0430 17:29:14.663219 19834 net.cpp:131] Top shape: 1000 (1000)
I0430 17:29:14.663221 19834 net.cpp:139] Memory required for data: 12300000
I0430 17:29:14.663224 19834 layer_factory.hpp:77] Creating layer ip1
I0430 17:29:14.663233 19834 net.cpp:86] Creating Layer ip1
I0430 17:29:14.663236 19834 net.cpp:408] ip1 <- data
I0430 17:29:14.663240 19834 net.cpp:382] ip1 -> ip1
I0430 17:29:14.664155 19834 net.cpp:124] Setting up ip1
I0430 17:29:14.664161 19834 net.cpp:131] Top shape: 1000 10 (10000)
I0430 17:29:14.664165 19834 net.cpp:139] Memory required for data: 12340000
I0430 17:29:14.664201 19834 layer_factory.hpp:77] Creating layer relu1
I0430 17:29:14.664207 19834 net.cpp:86] Creating Layer relu1
I0430 17:29:14.664211 19834 net.cpp:408] relu1 <- ip1
I0430 17:29:14.664214 19834 net.cpp:369] relu1 -> ip1 (in-place)
I0430 17:29:14.665086 19834 net.cpp:124] Setting up relu1
I0430 17:29:14.665098 19834 net.cpp:131] Top shape: 1000 10 (10000)
I0430 17:29:14.665102 19834 net.cpp:139] Memory required for data: 12380000
I0430 17:29:14.665105 19834 layer_factory.hpp:77] Creating layer ip2
I0430 17:29:14.665129 19834 net.cpp:86] Creating Layer ip2
I0430 17:29:14.665132 19834 net.cpp:408] ip2 <- ip1
I0430 17:29:14.665138 19834 net.cpp:382] ip2 -> ip2
I0430 17:29:14.666237 19834 net.cpp:124] Setting up ip2
I0430 17:29:14.666246 19834 net.cpp:131] Top shape: 1000 20 (20000)
I0430 17:29:14.666249 19834 net.cpp:139] Memory required for data: 12460000
I0430 17:29:14.666256 19834 layer_factory.hpp:77] Creating layer relu2
I0430 17:29:14.666276 19834 net.cpp:86] Creating Layer relu2
I0430 17:29:14.666280 19834 net.cpp:408] relu2 <- ip2
I0430 17:29:14.666283 19834 net.cpp:369] relu2 -> ip2 (in-place)
I0430 17:29:14.666435 19834 net.cpp:124] Setting up relu2
I0430 17:29:14.666443 19834 net.cpp:131] Top shape: 1000 20 (20000)
I0430 17:29:14.666446 19834 net.cpp:139] Memory required for data: 12540000
I0430 17:29:14.666450 19834 layer_factory.hpp:77] Creating layer ip3
I0430 17:29:14.666455 19834 net.cpp:86] Creating Layer ip3
I0430 17:29:14.666457 19834 net.cpp:408] ip3 <- ip2
I0430 17:29:14.666462 19834 net.cpp:382] ip3 -> ip3
I0430 17:29:14.666559 19834 net.cpp:124] Setting up ip3
I0430 17:29:14.666566 19834 net.cpp:131] Top shape: 1000 20 (20000)
I0430 17:29:14.666569 19834 net.cpp:139] Memory required for data: 12620000
I0430 17:29:14.666575 19834 layer_factory.hpp:77] Creating layer relu3
I0430 17:29:14.666580 19834 net.cpp:86] Creating Layer relu3
I0430 17:29:14.666582 19834 net.cpp:408] relu3 <- ip3
I0430 17:29:14.666586 19834 net.cpp:369] relu3 -> ip3 (in-place)
I0430 17:29:14.666779 19834 net.cpp:124] Setting up relu3
I0430 17:29:14.666785 19834 net.cpp:131] Top shape: 1000 20 (20000)
I0430 17:29:14.666788 19834 net.cpp:139] Memory required for data: 12700000
I0430 17:29:14.666792 19834 layer_factory.hpp:77] Creating layer ip4
I0430 17:29:14.666800 19834 net.cpp:86] Creating Layer ip4
I0430 17:29:14.666803 19834 net.cpp:408] ip4 <- ip3
I0430 17:29:14.666808 19834 net.cpp:382] ip4 -> ip4
I0430 17:29:14.666929 19834 net.cpp:124] Setting up ip4
I0430 17:29:14.666936 19834 net.cpp:131] Top shape: 1000 10 (10000)
I0430 17:29:14.666940 19834 net.cpp:139] Memory required for data: 12740000
I0430 17:29:14.666945 19834 layer_factory.hpp:77] Creating layer ip4_ip4_0_split
I0430 17:29:14.666951 19834 net.cpp:86] Creating Layer ip4_ip4_0_split
I0430 17:29:14.666955 19834 net.cpp:408] ip4_ip4_0_split <- ip4
I0430 17:29:14.666960 19834 net.cpp:382] ip4_ip4_0_split -> ip4_ip4_0_split_0
I0430 17:29:14.666965 19834 net.cpp:382] ip4_ip4_0_split -> ip4_ip4_0_split_1
I0430 17:29:14.667038 19834 net.cpp:124] Setting up ip4_ip4_0_split
I0430 17:29:14.667044 19834 net.cpp:131] Top shape: 1000 10 (10000)
I0430 17:29:14.667048 19834 net.cpp:131] Top shape: 1000 10 (10000)
I0430 17:29:14.667050 19834 net.cpp:139] Memory required for data: 12820000
I0430 17:29:14.667053 19834 layer_factory.hpp:77] Creating layer accuracy
I0430 17:29:14.667059 19834 net.cpp:86] Creating Layer accuracy
I0430 17:29:14.667062 19834 net.cpp:408] accuracy <- ip4_ip4_0_split_0
I0430 17:29:14.667065 19834 net.cpp:408] accuracy <- label_cifar_1_split_0
I0430 17:29:14.667070 19834 net.cpp:382] accuracy -> accuracy
…
