…
I0501 01:03:12.441310  9029 net.cpp:296] The NetState phase (0) differed from the phase (1) specified by a rule in layer cifar
I0501 01:03:12.441331  9029 net.cpp:296] The NetState phase (0) differed from the phase (1) specified by a rule in layer accuracy
I0501 01:03:12.441437  9029 net.cpp:53] Initializing net from parameters: 
name: "CIFAR"
state {
  phase: TRAIN
  level: 0
  stage: ""
}
layer {
  name: "cifar"
  type: "Data"
  top: "data"
  top: "label"
  include {
    phase: TRAIN
  }
  transform_param {
    mean_file: "examples/cifar10/mean.binaryproto"
  }
  data_param {
    source: "examples/cifar10/cifar10_train_lmdb"
    batch_size: 111
    backend: LMDB
  }
}
layer {
  name: "conv0"
  type: "Convolution"
  bottom: "data"
  top: "conv0"
  param {
    lr_mult: 1
  }
  param {
    lr_mult: 2
  }
  convolution_param {
    num_output: 8
    pad: 2
    kernel_size: 3
    stride: 1
    weight_filler {
      type: "gaussian"
      std: 0.01
    }
    bias_filler {
      type: "constant"
    }
  }
}
layer {
  name: "Sigmoid0"
  type: "Sigmoid"
  bottom: "conv0"
  top: "Sigmoid0"
}
layer {
  name: "pool0"
  type: "Pooling"
  bottom: "Sigmoid0"
  top: "pool0"
  pooling_param {
    pool: AVE
    kernel_size: 3
    stride: 2
  }
}
layer {
  name: "ip1"
  type: "InnerProduct"
  bottom: "pool0"
  top: "ip1"
  param {
    lr_mult: 1
  }
  param {
    lr_mult: 2
  }
  inner_product_param {
    num_output: 80
    weight_filler {
      type: "gaussian"
      std: 0.01
    }
    bias_filler {
      type: "constant"
    }
  }
}
layer {
  name: "relu1"
  type: "ReLU"
  bottom: "ip1"
  top: "ip1"
}
layer {
  name: "ip2"
  type: "InnerProduct"
  bottom: "ip1"
  top: "ip2"
  param {
    lr_mult: 1
  }
  param {
    lr_mult: 2
  }
  inner_product_param {
    num_output: 80
    weight_filler {
      type: "gaussian"
      std: 0.01
    }
    bias_filler {
      type: "constant"
    }
  }
}
layer {
  name: "relu2"
  type: "ReLU"
  bottom: "ip2"
  top: "ip2"
}
layer {
  name: "ip3"
  type: "InnerProduct"
  bottom: "ip2"
  top: "ip3"
  param {
    lr_mult: 1
  }
  param {
    lr_mult: 2
  }
  inner_product_param {
    num_output: 40
    weight_filler {
      type: "gaussian"
      std: 0.01
    }
    bias_filler {
      type: "constant"
    }
  }
}
layer {
  name: "relu3"
  type: "ReLU"
  bottom: "ip3"
  top: "ip3"
}
layer {
  name: "ip4"
  type: "InnerProduct"
  bottom: "ip3"
  top: "ip4"
  param {
    lr_mult: 1
  }
  param {
    lr_mult: 2
  }
  inner_product_param {
    num_output: 10
    weight_filler {
      type: "gaussian"
      std: 0.01
    }
    bias_filler {
      type: "constant"
    }
  }
}
layer {
  name: "loss"
  type: "SoftmaxWithLoss"
  bottom: "ip4"
  bottom: "label"
  top: "loss"
}
I0501 01:03:12.441515  9029 layer_factory.hpp:77] Creating layer cifar
I0501 01:03:12.441614  9029 db_lmdb.cpp:35] Opened lmdb examples/cifar10/cifar10_train_lmdb
I0501 01:03:12.441640  9029 net.cpp:86] Creating Layer cifar
I0501 01:03:12.441649  9029 net.cpp:382] cifar -> data
I0501 01:03:12.441671  9029 net.cpp:382] cifar -> label
I0501 01:03:12.441687  9029 data_transformer.cpp:25] Loading mean file from: examples/cifar10/mean.binaryproto
I0501 01:03:12.443773  9029 data_layer.cpp:45] output data size: 111,3,32,32
I0501 01:03:12.451607  9029 net.cpp:124] Setting up cifar
I0501 01:03:12.451627  9029 net.cpp:131] Top shape: 111 3 32 32 (340992)
I0501 01:03:12.451634  9029 net.cpp:131] Top shape: 111 (111)
I0501 01:03:12.451638  9029 net.cpp:139] Memory required for data: 1364412
I0501 01:03:12.451661  9029 layer_factory.hpp:77] Creating layer conv0
I0501 01:03:12.451683  9029 net.cpp:86] Creating Layer conv0
I0501 01:03:12.451689  9029 net.cpp:408] conv0 <- data
I0501 01:03:12.451701  9029 net.cpp:382] conv0 -> conv0
I0501 01:03:12.728359  9029 net.cpp:124] Setting up conv0
I0501 01:03:12.728386  9029 net.cpp:131] Top shape: 111 8 34 34 (1026528)
I0501 01:03:12.728390  9029 net.cpp:139] Memory required for data: 5470524
I0501 01:03:12.728404  9029 layer_factory.hpp:77] Creating layer Sigmoid0
I0501 01:03:12.728415  9029 net.cpp:86] Creating Layer Sigmoid0
I0501 01:03:12.728420  9029 net.cpp:408] Sigmoid0 <- conv0
I0501 01:03:12.728425  9029 net.cpp:382] Sigmoid0 -> Sigmoid0
I0501 01:03:12.728588  9029 net.cpp:124] Setting up Sigmoid0
I0501 01:03:12.728597  9029 net.cpp:131] Top shape: 111 8 34 34 (1026528)
I0501 01:03:12.728600  9029 net.cpp:139] Memory required for data: 9576636
I0501 01:03:12.728605  9029 layer_factory.hpp:77] Creating layer pool0
I0501 01:03:12.728610  9029 net.cpp:86] Creating Layer pool0
I0501 01:03:12.728613  9029 net.cpp:408] pool0 <- Sigmoid0
I0501 01:03:12.728617  9029 net.cpp:382] pool0 -> pool0
I0501 01:03:12.729313  9029 net.cpp:124] Setting up pool0
I0501 01:03:12.729326  9029 net.cpp:131] Top shape: 111 8 17 17 (256632)
I0501 01:03:12.729331  9029 net.cpp:139] Memory required for data: 10603164
I0501 01:03:12.729333  9029 layer_factory.hpp:77] Creating layer ip1
I0501 01:03:12.729342  9029 net.cpp:86] Creating Layer ip1
I0501 01:03:12.729346  9029 net.cpp:408] ip1 <- pool0
I0501 01:03:12.729351  9029 net.cpp:382] ip1 -> ip1
I0501 01:03:12.734912  9029 net.cpp:124] Setting up ip1
I0501 01:03:12.734925  9029 net.cpp:131] Top shape: 111 80 (8880)
I0501 01:03:12.734927  9029 net.cpp:139] Memory required for data: 10638684
I0501 01:03:12.734935  9029 layer_factory.hpp:77] Creating layer relu1
I0501 01:03:12.734941  9029 net.cpp:86] Creating Layer relu1
I0501 01:03:12.734943  9029 net.cpp:408] relu1 <- ip1
I0501 01:03:12.734947  9029 net.cpp:369] relu1 -> ip1 (in-place)
I0501 01:03:12.735090  9029 net.cpp:124] Setting up relu1
I0501 01:03:12.735100  9029 net.cpp:131] Top shape: 111 80 (8880)
I0501 01:03:12.735102  9029 net.cpp:139] Memory required for data: 10674204
I0501 01:03:12.735105  9029 layer_factory.hpp:77] Creating layer ip2
I0501 01:03:12.735111  9029 net.cpp:86] Creating Layer ip2
I0501 01:03:12.735115  9029 net.cpp:408] ip2 <- ip1
I0501 01:03:12.735119  9029 net.cpp:382] ip2 -> ip2
I0501 01:03:12.736194  9029 net.cpp:124] Setting up ip2
I0501 01:03:12.736205  9029 net.cpp:131] Top shape: 111 80 (8880)
I0501 01:03:12.736208  9029 net.cpp:139] Memory required for data: 10709724
I0501 01:03:12.736217  9029 layer_factory.hpp:77] Creating layer relu2
I0501 01:03:12.736222  9029 net.cpp:86] Creating Layer relu2
I0501 01:03:12.736224  9029 net.cpp:408] relu2 <- ip2
I0501 01:03:12.736228  9029 net.cpp:369] relu2 -> ip2 (in-place)
I0501 01:03:12.736378  9029 net.cpp:124] Setting up relu2
I0501 01:03:12.736387  9029 net.cpp:131] Top shape: 111 80 (8880)
I0501 01:03:12.736390  9029 net.cpp:139] Memory required for data: 10745244
I0501 01:03:12.736393  9029 layer_factory.hpp:77] Creating layer ip3
I0501 01:03:12.736400  9029 net.cpp:86] Creating Layer ip3
I0501 01:03:12.736403  9029 net.cpp:408] ip3 <- ip2
I0501 01:03:12.736408  9029 net.cpp:382] ip3 -> ip3
I0501 01:03:12.736577  9029 net.cpp:124] Setting up ip3
I0501 01:03:12.736589  9029 net.cpp:131] Top shape: 111 40 (4440)
I0501 01:03:12.736593  9029 net.cpp:139] Memory required for data: 10763004
I0501 01:03:12.736598  9029 layer_factory.hpp:77] Creating layer relu3
I0501 01:03:12.736601  9029 net.cpp:86] Creating Layer relu3
I0501 01:03:12.736604  9029 net.cpp:408] relu3 <- ip3
I0501 01:03:12.736608  9029 net.cpp:369] relu3 -> ip3 (in-place)
I0501 01:03:12.736745  9029 net.cpp:124] Setting up relu3
I0501 01:03:12.736753  9029 net.cpp:131] Top shape: 111 40 (4440)
I0501 01:03:12.736757  9029 net.cpp:139] Memory required for data: 10780764
I0501 01:03:12.736759  9029 layer_factory.hpp:77] Creating layer ip4
I0501 01:03:12.736779  9029 net.cpp:86] Creating Layer ip4
I0501 01:03:12.736783  9029 net.cpp:408] ip4 <- ip3
I0501 01:03:12.736788  9029 net.cpp:382] ip4 -> ip4
I0501 01:03:12.737762  9029 net.cpp:124] Setting up ip4
I0501 01:03:12.737774  9029 net.cpp:131] Top shape: 111 10 (1110)
I0501 01:03:12.737777  9029 net.cpp:139] Memory required for data: 10785204
I0501 01:03:12.737785  9029 layer_factory.hpp:77] Creating layer loss
I0501 01:03:12.737790  9029 net.cpp:86] Creating Layer loss
I0501 01:03:12.737793  9029 net.cpp:408] loss <- ip4
I0501 01:03:12.737797  9029 net.cpp:408] loss <- label
I0501 01:03:12.737802  9029 net.cpp:382] loss -> loss
I0501 01:03:12.737819  9029 layer_factory.hpp:77] Creating layer loss
…
I0501 01:03:12.739027  9029 solver.cpp:173] Creating test net (#0) specified by net file: ECE595/cifar/train_test/var_everything/cifar_train_test_277.prototxt
I0501 01:03:12.739054  9029 net.cpp:296] The NetState phase (1) differed from the phase (0) specified by a rule in layer cifar
I0501 01:03:12.739147  9029 net.cpp:53] Initializing net from parameters: 
name: "CIFAR"
state {
  phase: TEST
}
layer {
  name: "cifar"
  type: "Data"
  top: "data"
  top: "label"
  include {
    phase: TEST
  }
  transform_param {
    mean_file: "examples/cifar10/mean.binaryproto"
  }
  data_param {
    source: "examples/cifar10/cifar10_test_lmdb"
    batch_size: 1000
    backend: LMDB
  }
}
layer {
  name: "conv0"
  type: "Convolution"
  bottom: "data"
  top: "conv0"
  param {
    lr_mult: 1
  }
  param {
    lr_mult: 2
  }
  convolution_param {
    num_output: 8
    pad: 2
    kernel_size: 3
    stride: 1
    weight_filler {
      type: "gaussian"
      std: 0.01
    }
    bias_filler {
      type: "constant"
    }
  }
}
layer {
  name: "Sigmoid0"
  type: "Sigmoid"
  bottom: "conv0"
  top: "Sigmoid0"
}
layer {
  name: "pool0"
  type: "Pooling"
  bottom: "Sigmoid0"
  top: "pool0"
  pooling_param {
    pool: AVE
    kernel_size: 3
    stride: 2
  }
}
layer {
  name: "ip1"
  type: "InnerProduct"
  bottom: "pool0"
  top: "ip1"
  param {
    lr_mult: 1
  }
  param {
    lr_mult: 2
  }
  inner_product_param {
    num_output: 80
    weight_filler {
      type: "gaussian"
      std: 0.01
    }
    bias_filler {
      type: "constant"
    }
  }
}
layer {
  name: "relu1"
  type: "ReLU"
  bottom: "ip1"
  top: "ip1"
}
layer {
  name: "ip2"
  type: "InnerProduct"
  bottom: "ip1"
  top: "ip2"
  param {
    lr_mult: 1
  }
  param {
    lr_mult: 2
  }
  inner_product_param {
    num_output: 80
    weight_filler {
      type: "gaussian"
      std: 0.01
    }
    bias_filler {
      type: "constant"
    }
  }
}
layer {
  name: "relu2"
  type: "ReLU"
  bottom: "ip2"
  top: "ip2"
}
layer {
  name: "ip3"
  type: "InnerProduct"
  bottom: "ip2"
  top: "ip3"
  param {
    lr_mult: 1
  }
  param {
    lr_mult: 2
  }
  inner_product_param {
    num_output: 40
    weight_filler {
      type: "gaussian"
      std: 0.01
    }
    bias_filler {
      type: "constant"
    }
  }
}
layer {
  name: "relu3"
  type: "ReLU"
  bottom: "ip3"
  top: "ip3"
}
layer {
  name: "ip4"
  type: "InnerProduct"
  bottom: "ip3"
  top: "ip4"
  param {
    lr_mult: 1
  }
  param {
    lr_mult: 2
  }
  inner_product_param {
    num_output: 10
    weight_filler {
      type: "gaussian"
      std: 0.01
    }
    bias_filler {
      type: "constant"
    }
  }
}
layer {
  name: "accuracy"
  type: "Accuracy"
  bottom: "ip4"
  bottom: "label"
  top: "accuracy"
  include {
    phase: TEST
  }
}
layer {
  name: "loss"
  type: "SoftmaxWithLoss"
  bottom: "ip4"
  bottom: "label"
  top: "loss"
}
I0501 01:03:12.739223  9029 layer_factory.hpp:77] Creating layer cifar
I0501 01:03:12.739269  9029 db_lmdb.cpp:35] Opened lmdb examples/cifar10/cifar10_test_lmdb
I0501 01:03:12.739281  9029 net.cpp:86] Creating Layer cifar
I0501 01:03:12.739285  9029 net.cpp:382] cifar -> data
I0501 01:03:12.739293  9029 net.cpp:382] cifar -> label
I0501 01:03:12.739300  9029 data_transformer.cpp:25] Loading mean file from: examples/cifar10/mean.binaryproto
I0501 01:03:12.739444  9029 data_layer.cpp:45] output data size: 1000,3,32,32
I0501 01:03:12.760900  9029 net.cpp:124] Setting up cifar
I0501 01:03:12.760941  9029 net.cpp:131] Top shape: 1000 3 32 32 (3072000)
I0501 01:03:12.760947  9029 net.cpp:131] Top shape: 1000 (1000)
I0501 01:03:12.760951  9029 net.cpp:139] Memory required for data: 12292000
I0501 01:03:12.760957  9029 layer_factory.hpp:77] Creating layer label_cifar_1_split
I0501 01:03:12.760969  9029 net.cpp:86] Creating Layer label_cifar_1_split
I0501 01:03:12.760975  9029 net.cpp:408] label_cifar_1_split <- label
I0501 01:03:12.760996  9029 net.cpp:382] label_cifar_1_split -> label_cifar_1_split_0
I0501 01:03:12.761005  9029 net.cpp:382] label_cifar_1_split -> label_cifar_1_split_1
I0501 01:03:12.761106  9029 net.cpp:124] Setting up label_cifar_1_split
I0501 01:03:12.761114  9029 net.cpp:131] Top shape: 1000 (1000)
I0501 01:03:12.761118  9029 net.cpp:131] Top shape: 1000 (1000)
I0501 01:03:12.761121  9029 net.cpp:139] Memory required for data: 12300000
I0501 01:03:12.761124  9029 layer_factory.hpp:77] Creating layer conv0
I0501 01:03:12.761137  9029 net.cpp:86] Creating Layer conv0
I0501 01:03:12.761139  9029 net.cpp:408] conv0 <- data
I0501 01:03:12.761145  9029 net.cpp:382] conv0 -> conv0
I0501 01:03:12.762768  9029 net.cpp:124] Setting up conv0
I0501 01:03:12.762780  9029 net.cpp:131] Top shape: 1000 8 34 34 (9248000)
I0501 01:03:12.762784  9029 net.cpp:139] Memory required for data: 49292000
I0501 01:03:12.762792  9029 layer_factory.hpp:77] Creating layer Sigmoid0
I0501 01:03:12.762814  9029 net.cpp:86] Creating Layer Sigmoid0
I0501 01:03:12.762817  9029 net.cpp:408] Sigmoid0 <- conv0
I0501 01:03:12.762822  9029 net.cpp:382] Sigmoid0 -> Sigmoid0
I0501 01:03:12.762980  9029 net.cpp:124] Setting up Sigmoid0
I0501 01:03:12.762989  9029 net.cpp:131] Top shape: 1000 8 34 34 (9248000)
I0501 01:03:12.762992  9029 net.cpp:139] Memory required for data: 86284000
I0501 01:03:12.762995  9029 layer_factory.hpp:77] Creating layer pool0
I0501 01:03:12.763003  9029 net.cpp:86] Creating Layer pool0
I0501 01:03:12.763006  9029 net.cpp:408] pool0 <- Sigmoid0
I0501 01:03:12.763010  9029 net.cpp:382] pool0 -> pool0
I0501 01:03:12.763177  9029 net.cpp:124] Setting up pool0
I0501 01:03:12.763186  9029 net.cpp:131] Top shape: 1000 8 17 17 (2312000)
I0501 01:03:12.763190  9029 net.cpp:139] Memory required for data: 95532000
I0501 01:03:12.763192  9029 layer_factory.hpp:77] Creating layer ip1
I0501 01:03:12.763200  9029 net.cpp:86] Creating Layer ip1
I0501 01:03:12.763202  9029 net.cpp:408] ip1 <- pool0
I0501 01:03:12.763207  9029 net.cpp:382] ip1 -> ip1
I0501 01:03:12.768399  9029 net.cpp:124] Setting up ip1
I0501 01:03:12.768409  9029 net.cpp:131] Top shape: 1000 80 (80000)
I0501 01:03:12.768414  9029 net.cpp:139] Memory required for data: 95852000
I0501 01:03:12.768450  9029 layer_factory.hpp:77] Creating layer relu1
I0501 01:03:12.768465  9029 net.cpp:86] Creating Layer relu1
I0501 01:03:12.768470  9029 net.cpp:408] relu1 <- ip1
I0501 01:03:12.768473  9029 net.cpp:369] relu1 -> ip1 (in-place)
I0501 01:03:12.768640  9029 net.cpp:124] Setting up relu1
I0501 01:03:12.768649  9029 net.cpp:131] Top shape: 1000 80 (80000)
I0501 01:03:12.768652  9029 net.cpp:139] Memory required for data: 96172000
I0501 01:03:12.768656  9029 layer_factory.hpp:77] Creating layer ip2
I0501 01:03:12.768662  9029 net.cpp:86] Creating Layer ip2
I0501 01:03:12.768666  9029 net.cpp:408] ip2 <- ip1
I0501 01:03:12.768669  9029 net.cpp:382] ip2 -> ip2
I0501 01:03:12.768985  9029 net.cpp:124] Setting up ip2
I0501 01:03:12.768995  9029 net.cpp:131] Top shape: 1000 80 (80000)
I0501 01:03:12.768997  9029 net.cpp:139] Memory required for data: 96492000
I0501 01:03:12.769006  9029 layer_factory.hpp:77] Creating layer relu2
I0501 01:03:12.769011  9029 net.cpp:86] Creating Layer relu2
I0501 01:03:12.769014  9029 net.cpp:408] relu2 <- ip2
I0501 01:03:12.769019  9029 net.cpp:369] relu2 -> ip2 (in-place)
I0501 01:03:12.769779  9029 net.cpp:124] Setting up relu2
I0501 01:03:12.769791  9029 net.cpp:131] Top shape: 1000 80 (80000)
I0501 01:03:12.769794  9029 net.cpp:139] Memory required for data: 96812000
I0501 01:03:12.769798  9029 layer_factory.hpp:77] Creating layer ip3
I0501 01:03:12.769804  9029 net.cpp:86] Creating Layer ip3
I0501 01:03:12.769822  9029 net.cpp:408] ip3 <- ip2
I0501 01:03:12.769829  9029 net.cpp:382] ip3 -> ip3
I0501 01:03:12.770026  9029 net.cpp:124] Setting up ip3
I0501 01:03:12.770033  9029 net.cpp:131] Top shape: 1000 40 (40000)
I0501 01:03:12.770037  9029 net.cpp:139] Memory required for data: 96972000
I0501 01:03:12.770042  9029 layer_factory.hpp:77] Creating layer relu3
I0501 01:03:12.770046  9029 net.cpp:86] Creating Layer relu3
I0501 01:03:12.770050  9029 net.cpp:408] relu3 <- ip3
I0501 01:03:12.770053  9029 net.cpp:369] relu3 -> ip3 (in-place)
I0501 01:03:12.770192  9029 net.cpp:124] Setting up relu3
I0501 01:03:12.770200  9029 net.cpp:131] Top shape: 1000 40 (40000)
I0501 01:03:12.770203  9029 net.cpp:139] Memory required for data: 97132000
I0501 01:03:12.770206  9029 layer_factory.hpp:77] Creating layer ip4
I0501 01:03:12.770212  9029 net.cpp:86] Creating Layer ip4
I0501 01:03:12.770215  9029 net.cpp:408] ip4 <- ip3
I0501 01:03:12.770220  9029 net.cpp:382] ip4 -> ip4
I0501 01:03:12.770318  9029 net.cpp:124] Setting up ip4
I0501 01:03:12.770325  9029 net.cpp:131] Top shape: 1000 10 (10000)
I0501 01:03:12.770328  9029 net.cpp:139] Memory required for data: 97172000
I0501 01:03:12.770336  9029 layer_factory.hpp:77] Creating layer ip4_ip4_0_split
I0501 01:03:12.770340  9029 net.cpp:86] Creating Layer ip4_ip4_0_split
I0501 01:03:12.770344  9029 net.cpp:408] ip4_ip4_0_split <- ip4
I0501 01:03:12.770347  9029 net.cpp:382] ip4_ip4_0_split -> ip4_ip4_0_split_0
I0501 01:03:12.770352  9029 net.cpp:382] ip4_ip4_0_split -> ip4_ip4_0_split_1
I0501 01:03:12.770380  9029 net.cpp:124] Setting up ip4_ip4_0_split
I0501 01:03:12.770383  9029 net.cpp:131] Top shape: 1000 10 (10000)
I0501 01:03:12.770387  9029 net.cpp:131] Top shape: 1000 10 (10000)
I0501 01:03:12.770390  9029 net.cpp:139] Memory required for data: 97252000
I0501 01:03:12.770392  9029 layer_factory.hpp:77] Creating layer accuracy
I0501 01:03:12.770401  9029 net.cpp:86] Creating Layer accuracy
I0501 01:03:12.770404  9029 net.cpp:408] accuracy <- ip4_ip4_0_split_0
I0501 01:03:12.770408  9029 net.cpp:408] accuracy <- label_cifar_1_split_0
I0501 01:03:12.770413  9029 net.cpp:382] accuracy -> accuracy
…
