…
I0501 08:05:38.652369  9128 net.cpp:296] The NetState phase (0) differed from the phase (1) specified by a rule in layer cifar
I0501 08:05:38.652403  9128 net.cpp:296] The NetState phase (0) differed from the phase (1) specified by a rule in layer accuracy
I0501 08:05:38.652496  9128 net.cpp:53] Initializing net from parameters: 
name: "CIFAR"
state {
  phase: TRAIN
  level: 0
  stage: ""
}
layer {
  name: "cifar"
  type: "Data"
  top: "data"
  top: "label"
  include {
    phase: TRAIN
  }
  transform_param {
    mean_file: "examples/cifar10/mean.binaryproto"
  }
  data_param {
    source: "examples/cifar10/cifar10_train_lmdb"
    batch_size: 111
    backend: LMDB
  }
}
layer {
  name: "conv0"
  type: "Convolution"
  bottom: "data"
  top: "conv0"
  param {
    lr_mult: 1
  }
  param {
    lr_mult: 2
  }
  convolution_param {
    num_output: 16
    pad: 2
    kernel_size: 3
    stride: 1
    weight_filler {
      type: "gaussian"
      std: 0.01
    }
    bias_filler {
      type: "constant"
    }
  }
}
layer {
  name: "Sigmoid0"
  type: "Sigmoid"
  bottom: "conv0"
  top: "Sigmoid0"
}
layer {
  name: "pool0"
  type: "Pooling"
  bottom: "Sigmoid0"
  top: "pool0"
  pooling_param {
    pool: AVE
    kernel_size: 3
    stride: 2
  }
}
layer {
  name: "ip1"
  type: "InnerProduct"
  bottom: "pool0"
  top: "ip1"
  param {
    lr_mult: 1
  }
  param {
    lr_mult: 2
  }
  inner_product_param {
    num_output: 10
    weight_filler {
      type: "gaussian"
      std: 0.01
    }
    bias_filler {
      type: "constant"
    }
  }
}
layer {
  name: "relu1"
  type: "ReLU"
  bottom: "ip1"
  top: "ip1"
}
layer {
  name: "ip2"
  type: "InnerProduct"
  bottom: "ip1"
  top: "ip2"
  param {
    lr_mult: 1
  }
  param {
    lr_mult: 2
  }
  inner_product_param {
    num_output: 20
    weight_filler {
      type: "gaussian"
      std: 0.01
    }
    bias_filler {
      type: "constant"
    }
  }
}
layer {
  name: "relu2"
  type: "ReLU"
  bottom: "ip2"
  top: "ip2"
}
layer {
  name: "ip3"
  type: "InnerProduct"
  bottom: "ip2"
  top: "ip3"
  param {
    lr_mult: 1
  }
  param {
    lr_mult: 2
  }
  inner_product_param {
    num_output: 20
    weight_filler {
      type: "gaussian"
      std: 0.01
    }
    bias_filler {
      type: "constant"
    }
  }
}
layer {
  name: "relu3"
  type: "ReLU"
  bottom: "ip3"
  top: "ip3"
}
layer {
  name: "ip4"
  type: "InnerProduct"
  bottom: "ip3"
  top: "ip4"
  param {
    lr_mult: 1
  }
  param {
    lr_mult: 2
  }
  inner_product_param {
    num_output: 10
    weight_filler {
      type: "gaussian"
      std: 0.01
    }
    bias_filler {
      type: "constant"
    }
  }
}
layer {
  name: "loss"
  type: "SoftmaxWithLoss"
  bottom: "ip4"
  bottom: "label"
  top: "loss"
}
I0501 08:05:38.652585  9128 layer_factory.hpp:77] Creating layer cifar
I0501 08:05:38.652683  9128 db_lmdb.cpp:35] Opened lmdb examples/cifar10/cifar10_train_lmdb
I0501 08:05:38.652706  9128 net.cpp:86] Creating Layer cifar
I0501 08:05:38.652714  9128 net.cpp:382] cifar -> data
I0501 08:05:38.652734  9128 net.cpp:382] cifar -> label
I0501 08:05:38.652743  9128 data_transformer.cpp:25] Loading mean file from: examples/cifar10/mean.binaryproto
I0501 08:05:38.654708  9128 data_layer.cpp:45] output data size: 111,3,32,32
I0501 08:05:38.661187  9128 net.cpp:124] Setting up cifar
I0501 08:05:38.661203  9128 net.cpp:131] Top shape: 111 3 32 32 (340992)
I0501 08:05:38.661208  9128 net.cpp:131] Top shape: 111 (111)
I0501 08:05:38.661211  9128 net.cpp:139] Memory required for data: 1364412
I0501 08:05:38.661231  9128 layer_factory.hpp:77] Creating layer conv0
I0501 08:05:38.661247  9128 net.cpp:86] Creating Layer conv0
I0501 08:05:38.661252  9128 net.cpp:408] conv0 <- data
I0501 08:05:38.661262  9128 net.cpp:382] conv0 -> conv0
I0501 08:05:38.898289  9128 net.cpp:124] Setting up conv0
I0501 08:05:38.898334  9128 net.cpp:131] Top shape: 111 16 34 34 (2053056)
I0501 08:05:38.898339  9128 net.cpp:139] Memory required for data: 9576636
I0501 08:05:38.898353  9128 layer_factory.hpp:77] Creating layer Sigmoid0
I0501 08:05:38.898365  9128 net.cpp:86] Creating Layer Sigmoid0
I0501 08:05:38.898370  9128 net.cpp:408] Sigmoid0 <- conv0
I0501 08:05:38.898373  9128 net.cpp:382] Sigmoid0 -> Sigmoid0
I0501 08:05:38.898578  9128 net.cpp:124] Setting up Sigmoid0
I0501 08:05:38.898588  9128 net.cpp:131] Top shape: 111 16 34 34 (2053056)
I0501 08:05:38.898591  9128 net.cpp:139] Memory required for data: 17788860
I0501 08:05:38.898594  9128 layer_factory.hpp:77] Creating layer pool0
I0501 08:05:38.898602  9128 net.cpp:86] Creating Layer pool0
I0501 08:05:38.898605  9128 net.cpp:408] pool0 <- Sigmoid0
I0501 08:05:38.898609  9128 net.cpp:382] pool0 -> pool0
I0501 08:05:38.899343  9128 net.cpp:124] Setting up pool0
I0501 08:05:38.899372  9128 net.cpp:131] Top shape: 111 16 17 17 (513264)
I0501 08:05:38.899375  9128 net.cpp:139] Memory required for data: 19841916
I0501 08:05:38.899379  9128 layer_factory.hpp:77] Creating layer ip1
I0501 08:05:38.899389  9128 net.cpp:86] Creating Layer ip1
I0501 08:05:38.899391  9128 net.cpp:408] ip1 <- pool0
I0501 08:05:38.899396  9128 net.cpp:382] ip1 -> ip1
I0501 08:05:38.901603  9128 net.cpp:124] Setting up ip1
I0501 08:05:38.901631  9128 net.cpp:131] Top shape: 111 10 (1110)
I0501 08:05:38.901635  9128 net.cpp:139] Memory required for data: 19846356
I0501 08:05:38.901643  9128 layer_factory.hpp:77] Creating layer relu1
I0501 08:05:38.901649  9128 net.cpp:86] Creating Layer relu1
I0501 08:05:38.901654  9128 net.cpp:408] relu1 <- ip1
I0501 08:05:38.901657  9128 net.cpp:369] relu1 -> ip1 (in-place)
I0501 08:05:38.901805  9128 net.cpp:124] Setting up relu1
I0501 08:05:38.901830  9128 net.cpp:131] Top shape: 111 10 (1110)
I0501 08:05:38.901834  9128 net.cpp:139] Memory required for data: 19850796
I0501 08:05:38.901836  9128 layer_factory.hpp:77] Creating layer ip2
I0501 08:05:38.901844  9128 net.cpp:86] Creating Layer ip2
I0501 08:05:38.901847  9128 net.cpp:408] ip2 <- ip1
I0501 08:05:38.901852  9128 net.cpp:382] ip2 -> ip2
I0501 08:05:38.901968  9128 net.cpp:124] Setting up ip2
I0501 08:05:38.901975  9128 net.cpp:131] Top shape: 111 20 (2220)
I0501 08:05:38.901978  9128 net.cpp:139] Memory required for data: 19859676
I0501 08:05:38.901986  9128 layer_factory.hpp:77] Creating layer relu2
I0501 08:05:38.901993  9128 net.cpp:86] Creating Layer relu2
I0501 08:05:38.901995  9128 net.cpp:408] relu2 <- ip2
I0501 08:05:38.902000  9128 net.cpp:369] relu2 -> ip2 (in-place)
I0501 08:05:38.902171  9128 net.cpp:124] Setting up relu2
I0501 08:05:38.902179  9128 net.cpp:131] Top shape: 111 20 (2220)
I0501 08:05:38.902184  9128 net.cpp:139] Memory required for data: 19868556
I0501 08:05:38.902187  9128 layer_factory.hpp:77] Creating layer ip3
I0501 08:05:38.902194  9128 net.cpp:86] Creating Layer ip3
I0501 08:05:38.902197  9128 net.cpp:408] ip3 <- ip2
I0501 08:05:38.902204  9128 net.cpp:382] ip3 -> ip3
I0501 08:05:38.902320  9128 net.cpp:124] Setting up ip3
I0501 08:05:38.902328  9128 net.cpp:131] Top shape: 111 20 (2220)
I0501 08:05:38.902330  9128 net.cpp:139] Memory required for data: 19877436
I0501 08:05:38.902335  9128 layer_factory.hpp:77] Creating layer relu3
I0501 08:05:38.902341  9128 net.cpp:86] Creating Layer relu3
I0501 08:05:38.902344  9128 net.cpp:408] relu3 <- ip3
I0501 08:05:38.902348  9128 net.cpp:369] relu3 -> ip3 (in-place)
I0501 08:05:38.902489  9128 net.cpp:124] Setting up relu3
I0501 08:05:38.902498  9128 net.cpp:131] Top shape: 111 20 (2220)
I0501 08:05:38.902500  9128 net.cpp:139] Memory required for data: 19886316
I0501 08:05:38.902503  9128 layer_factory.hpp:77] Creating layer ip4
I0501 08:05:38.902524  9128 net.cpp:86] Creating Layer ip4
I0501 08:05:38.902528  9128 net.cpp:408] ip4 <- ip3
I0501 08:05:38.902534  9128 net.cpp:382] ip4 -> ip4
I0501 08:05:38.902629  9128 net.cpp:124] Setting up ip4
I0501 08:05:38.902637  9128 net.cpp:131] Top shape: 111 10 (1110)
I0501 08:05:38.902640  9128 net.cpp:139] Memory required for data: 19890756
I0501 08:05:38.902647  9128 layer_factory.hpp:77] Creating layer loss
I0501 08:05:38.902652  9128 net.cpp:86] Creating Layer loss
I0501 08:05:38.902655  9128 net.cpp:408] loss <- ip4
I0501 08:05:38.902659  9128 net.cpp:408] loss <- label
I0501 08:05:38.902667  9128 net.cpp:382] loss -> loss
I0501 08:05:38.902681  9128 layer_factory.hpp:77] Creating layer loss
…
I0501 08:05:38.903904  9128 solver.cpp:173] Creating test net (#0) specified by net file: ECE595/cifar/train_test/var_everything/cifar_train_test_501.prototxt
I0501 08:05:38.903933  9128 net.cpp:296] The NetState phase (1) differed from the phase (0) specified by a rule in layer cifar
I0501 08:05:38.904059  9128 net.cpp:53] Initializing net from parameters: 
name: "CIFAR"
state {
  phase: TEST
}
layer {
  name: "cifar"
  type: "Data"
  top: "data"
  top: "label"
  include {
    phase: TEST
  }
  transform_param {
    mean_file: "examples/cifar10/mean.binaryproto"
  }
  data_param {
    source: "examples/cifar10/cifar10_test_lmdb"
    batch_size: 1000
    backend: LMDB
  }
}
layer {
  name: "conv0"
  type: "Convolution"
  bottom: "data"
  top: "conv0"
  param {
    lr_mult: 1
  }
  param {
    lr_mult: 2
  }
  convolution_param {
    num_output: 16
    pad: 2
    kernel_size: 3
    stride: 1
    weight_filler {
      type: "gaussian"
      std: 0.01
    }
    bias_filler {
      type: "constant"
    }
  }
}
layer {
  name: "Sigmoid0"
  type: "Sigmoid"
  bottom: "conv0"
  top: "Sigmoid0"
}
layer {
  name: "pool0"
  type: "Pooling"
  bottom: "Sigmoid0"
  top: "pool0"
  pooling_param {
    pool: AVE
    kernel_size: 3
    stride: 2
  }
}
layer {
  name: "ip1"
  type: "InnerProduct"
  bottom: "pool0"
  top: "ip1"
  param {
    lr_mult: 1
  }
  param {
    lr_mult: 2
  }
  inner_product_param {
    num_output: 10
    weight_filler {
      type: "gaussian"
      std: 0.01
    }
    bias_filler {
      type: "constant"
    }
  }
}
layer {
  name: "relu1"
  type: "ReLU"
  bottom: "ip1"
  top: "ip1"
}
layer {
  name: "ip2"
  type: "InnerProduct"
  bottom: "ip1"
  top: "ip2"
  param {
    lr_mult: 1
  }
  param {
    lr_mult: 2
  }
  inner_product_param {
    num_output: 20
    weight_filler {
      type: "gaussian"
      std: 0.01
    }
    bias_filler {
      type: "constant"
    }
  }
}
layer {
  name: "relu2"
  type: "ReLU"
  bottom: "ip2"
  top: "ip2"
}
layer {
  name: "ip3"
  type: "InnerProduct"
  bottom: "ip2"
  top: "ip3"
  param {
    lr_mult: 1
  }
  param {
    lr_mult: 2
  }
  inner_product_param {
    num_output: 20
    weight_filler {
      type: "gaussian"
      std: 0.01
    }
    bias_filler {
      type: "constant"
    }
  }
}
layer {
  name: "relu3"
  type: "ReLU"
  bottom: "ip3"
  top: "ip3"
}
layer {
  name: "ip4"
  type: "InnerProduct"
  bottom: "ip3"
  top: "ip4"
  param {
    lr_mult: 1
  }
  param {
    lr_mult: 2
  }
  inner_product_param {
    num_output: 10
    weight_filler {
      type: "gaussian"
      std: 0.01
    }
    bias_filler {
      type: "constant"
    }
  }
}
layer {
  name: "accuracy"
  type: "Accuracy"
  bottom: "ip4"
  bottom: "label"
  top: "accuracy"
  include {
    phase: TEST
  }
}
layer {
  name: "loss"
  type: "SoftmaxWithLoss"
  bottom: "ip4"
  bottom: "label"
  top: "loss"
}
I0501 08:05:38.904140  9128 layer_factory.hpp:77] Creating layer cifar
I0501 08:05:38.904186  9128 db_lmdb.cpp:35] Opened lmdb examples/cifar10/cifar10_test_lmdb
I0501 08:05:38.904198  9128 net.cpp:86] Creating Layer cifar
I0501 08:05:38.904204  9128 net.cpp:382] cifar -> data
I0501 08:05:38.904212  9128 net.cpp:382] cifar -> label
I0501 08:05:38.904218  9128 data_transformer.cpp:25] Loading mean file from: examples/cifar10/mean.binaryproto
I0501 08:05:38.904389  9128 data_layer.cpp:45] output data size: 1000,3,32,32
I0501 08:05:38.926826  9128 net.cpp:124] Setting up cifar
I0501 08:05:38.926852  9128 net.cpp:131] Top shape: 1000 3 32 32 (3072000)
I0501 08:05:38.926858  9128 net.cpp:131] Top shape: 1000 (1000)
I0501 08:05:38.926862  9128 net.cpp:139] Memory required for data: 12292000
I0501 08:05:38.926867  9128 layer_factory.hpp:77] Creating layer label_cifar_1_split
I0501 08:05:38.926882  9128 net.cpp:86] Creating Layer label_cifar_1_split
I0501 08:05:38.926887  9128 net.cpp:408] label_cifar_1_split <- label
I0501 08:05:38.926895  9128 net.cpp:382] label_cifar_1_split -> label_cifar_1_split_0
I0501 08:05:38.926904  9128 net.cpp:382] label_cifar_1_split -> label_cifar_1_split_1
I0501 08:05:38.927007  9128 net.cpp:124] Setting up label_cifar_1_split
I0501 08:05:38.927016  9128 net.cpp:131] Top shape: 1000 (1000)
I0501 08:05:38.927019  9128 net.cpp:131] Top shape: 1000 (1000)
I0501 08:05:38.927022  9128 net.cpp:139] Memory required for data: 12300000
I0501 08:05:38.927026  9128 layer_factory.hpp:77] Creating layer conv0
I0501 08:05:38.927038  9128 net.cpp:86] Creating Layer conv0
I0501 08:05:38.927042  9128 net.cpp:408] conv0 <- data
I0501 08:05:38.927063  9128 net.cpp:382] conv0 -> conv0
I0501 08:05:38.928786  9128 net.cpp:124] Setting up conv0
I0501 08:05:38.928799  9128 net.cpp:131] Top shape: 1000 16 34 34 (18496000)
I0501 08:05:38.928803  9128 net.cpp:139] Memory required for data: 86284000
I0501 08:05:38.928836  9128 layer_factory.hpp:77] Creating layer Sigmoid0
I0501 08:05:38.928859  9128 net.cpp:86] Creating Layer Sigmoid0
I0501 08:05:38.928864  9128 net.cpp:408] Sigmoid0 <- conv0
I0501 08:05:38.928870  9128 net.cpp:382] Sigmoid0 -> Sigmoid0
I0501 08:05:38.929095  9128 net.cpp:124] Setting up Sigmoid0
I0501 08:05:38.929107  9128 net.cpp:131] Top shape: 1000 16 34 34 (18496000)
I0501 08:05:38.929112  9128 net.cpp:139] Memory required for data: 160268000
I0501 08:05:38.929116  9128 layer_factory.hpp:77] Creating layer pool0
I0501 08:05:38.929124  9128 net.cpp:86] Creating Layer pool0
I0501 08:05:38.929128  9128 net.cpp:408] pool0 <- Sigmoid0
I0501 08:05:38.929133  9128 net.cpp:382] pool0 -> pool0
I0501 08:05:38.929383  9128 net.cpp:124] Setting up pool0
I0501 08:05:38.929391  9128 net.cpp:131] Top shape: 1000 16 17 17 (4624000)
I0501 08:05:38.929394  9128 net.cpp:139] Memory required for data: 178764000
I0501 08:05:38.929399  9128 layer_factory.hpp:77] Creating layer ip1
I0501 08:05:38.929409  9128 net.cpp:86] Creating Layer ip1
I0501 08:05:38.929412  9128 net.cpp:408] ip1 <- pool0
I0501 08:05:38.929419  9128 net.cpp:382] ip1 -> ip1
I0501 08:05:38.930815  9128 net.cpp:124] Setting up ip1
I0501 08:05:38.930824  9128 net.cpp:131] Top shape: 1000 10 (10000)
I0501 08:05:38.930829  9128 net.cpp:139] Memory required for data: 178804000
I0501 08:05:38.930848  9128 layer_factory.hpp:77] Creating layer relu1
I0501 08:05:38.930855  9128 net.cpp:86] Creating Layer relu1
I0501 08:05:38.930858  9128 net.cpp:408] relu1 <- ip1
I0501 08:05:38.930863  9128 net.cpp:369] relu1 -> ip1 (in-place)
I0501 08:05:38.931030  9128 net.cpp:124] Setting up relu1
I0501 08:05:38.931038  9128 net.cpp:131] Top shape: 1000 10 (10000)
I0501 08:05:38.931042  9128 net.cpp:139] Memory required for data: 178844000
I0501 08:05:38.931046  9128 layer_factory.hpp:77] Creating layer ip2
I0501 08:05:38.931051  9128 net.cpp:86] Creating Layer ip2
I0501 08:05:38.931063  9128 net.cpp:408] ip2 <- ip1
I0501 08:05:38.931071  9128 net.cpp:382] ip2 -> ip2
I0501 08:05:38.931186  9128 net.cpp:124] Setting up ip2
I0501 08:05:38.931195  9128 net.cpp:131] Top shape: 1000 20 (20000)
I0501 08:05:38.931197  9128 net.cpp:139] Memory required for data: 178924000
I0501 08:05:38.931203  9128 layer_factory.hpp:77] Creating layer relu2
I0501 08:05:38.931211  9128 net.cpp:86] Creating Layer relu2
I0501 08:05:38.931215  9128 net.cpp:408] relu2 <- ip2
I0501 08:05:38.931218  9128 net.cpp:369] relu2 -> ip2 (in-place)
I0501 08:05:38.931988  9128 net.cpp:124] Setting up relu2
I0501 08:05:38.932001  9128 net.cpp:131] Top shape: 1000 20 (20000)
I0501 08:05:38.932004  9128 net.cpp:139] Memory required for data: 179004000
I0501 08:05:38.932016  9128 layer_factory.hpp:77] Creating layer ip3
I0501 08:05:38.932025  9128 net.cpp:86] Creating Layer ip3
I0501 08:05:38.932029  9128 net.cpp:408] ip3 <- ip2
I0501 08:05:38.932035  9128 net.cpp:382] ip3 -> ip3
I0501 08:05:38.932154  9128 net.cpp:124] Setting up ip3
I0501 08:05:38.932163  9128 net.cpp:131] Top shape: 1000 20 (20000)
I0501 08:05:38.932166  9128 net.cpp:139] Memory required for data: 179084000
I0501 08:05:38.932171  9128 layer_factory.hpp:77] Creating layer relu3
I0501 08:05:38.932183  9128 net.cpp:86] Creating Layer relu3
I0501 08:05:38.932186  9128 net.cpp:408] relu3 <- ip3
I0501 08:05:38.932190  9128 net.cpp:369] relu3 -> ip3 (in-place)
I0501 08:05:38.932345  9128 net.cpp:124] Setting up relu3
I0501 08:05:38.932355  9128 net.cpp:131] Top shape: 1000 20 (20000)
I0501 08:05:38.932358  9128 net.cpp:139] Memory required for data: 179164000
I0501 08:05:38.932361  9128 layer_factory.hpp:77] Creating layer ip4
I0501 08:05:38.932368  9128 net.cpp:86] Creating Layer ip4
I0501 08:05:38.932370  9128 net.cpp:408] ip4 <- ip3
I0501 08:05:38.932377  9128 net.cpp:382] ip4 -> ip4
I0501 08:05:38.932485  9128 net.cpp:124] Setting up ip4
I0501 08:05:38.932492  9128 net.cpp:131] Top shape: 1000 10 (10000)
I0501 08:05:38.932495  9128 net.cpp:139] Memory required for data: 179204000
I0501 08:05:38.932504  9128 layer_factory.hpp:77] Creating layer ip4_ip4_0_split
I0501 08:05:38.932509  9128 net.cpp:86] Creating Layer ip4_ip4_0_split
I0501 08:05:38.932512  9128 net.cpp:408] ip4_ip4_0_split <- ip4
I0501 08:05:38.932518  9128 net.cpp:382] ip4_ip4_0_split -> ip4_ip4_0_split_0
I0501 08:05:38.932523  9128 net.cpp:382] ip4_ip4_0_split -> ip4_ip4_0_split_1
I0501 08:05:38.932569  9128 net.cpp:124] Setting up ip4_ip4_0_split
I0501 08:05:38.932575  9128 net.cpp:131] Top shape: 1000 10 (10000)
I0501 08:05:38.932579  9128 net.cpp:131] Top shape: 1000 10 (10000)
I0501 08:05:38.932581  9128 net.cpp:139] Memory required for data: 179284000
I0501 08:05:38.932585  9128 layer_factory.hpp:77] Creating layer accuracy
I0501 08:05:38.932590  9128 net.cpp:86] Creating Layer accuracy
I0501 08:05:38.932595  9128 net.cpp:408] accuracy <- ip4_ip4_0_split_0
I0501 08:05:38.932598  9128 net.cpp:408] accuracy <- label_cifar_1_split_0
I0501 08:05:38.932610  9128 net.cpp:382] accuracy -> accuracy
…
