…
I0430 20:46:21.361976 29346 net.cpp:296] The NetState phase (0) differed from the phase (1) specified by a rule in layer cifar
I0430 20:46:21.361989 29346 net.cpp:296] The NetState phase (0) differed from the phase (1) specified by a rule in layer accuracy
I0430 20:46:21.362057 29346 net.cpp:53] Initializing net from parameters: 
name: "CIFAR"
state {
  phase: TRAIN
  level: 0
  stage: ""
}
layer {
  name: "cifar"
  type: "Data"
  top: "data"
  top: "label"
  include {
    phase: TRAIN
  }
  transform_param {
    mean_file: "examples/cifar10/mean.binaryproto"
  }
  data_param {
    source: "examples/cifar10/cifar10_train_lmdb"
    batch_size: 111
    backend: LMDB
  }
}
layer {
  name: "ip1"
  type: "InnerProduct"
  bottom: "data"
  top: "ip1"
  param {
    lr_mult: 1
  }
  param {
    lr_mult: 2
  }
  inner_product_param {
    num_output: 160
    weight_filler {
      type: "gaussian"
      std: 0.01
    }
    bias_filler {
      type: "constant"
    }
  }
}
layer {
  name: "relu1"
  type: "ReLU"
  bottom: "ip1"
  top: "ip1"
}
layer {
  name: "ip2"
  type: "InnerProduct"
  bottom: "ip1"
  top: "ip2"
  param {
    lr_mult: 1
  }
  param {
    lr_mult: 2
  }
  inner_product_param {
    num_output: 40
    weight_filler {
      type: "gaussian"
      std: 0.01
    }
    bias_filler {
      type: "constant"
    }
  }
}
layer {
  name: "relu2"
  type: "ReLU"
  bottom: "ip2"
  top: "ip2"
}
layer {
  name: "ip3"
  type: "InnerProduct"
  bottom: "ip2"
  top: "ip3"
  param {
    lr_mult: 1
  }
  param {
    lr_mult: 2
  }
  inner_product_param {
    num_output: 10
    weight_filler {
      type: "gaussian"
      std: 0.01
    }
    bias_filler {
      type: "constant"
    }
  }
}
layer {
  name: "relu3"
  type: "ReLU"
  bottom: "ip3"
  top: "ip3"
}
layer {
  name: "ip4"
  type: "InnerProduct"
  bottom: "ip3"
  top: "ip4"
  param {
    lr_mult: 1
  }
  param {
    lr_mult: 2
  }
  inner_product_param {
    num_output: 10
    weight_filler {
      type: "gaussian"
      std: 0.01
    }
    bias_filler {
      type: "constant"
    }
  }
}
layer {
  name: "loss"
  type: "SoftmaxWithLoss"
  bottom: "ip4"
  bottom: "label"
  top: "loss"
}
I0430 20:46:21.362114 29346 layer_factory.hpp:77] Creating layer cifar
I0430 20:46:21.362198 29346 db_lmdb.cpp:35] Opened lmdb examples/cifar10/cifar10_train_lmdb
I0430 20:46:21.362221 29346 net.cpp:86] Creating Layer cifar
I0430 20:46:21.362228 29346 net.cpp:382] cifar -> data
I0430 20:46:21.362247 29346 net.cpp:382] cifar -> label
I0430 20:46:21.362257 29346 data_transformer.cpp:25] Loading mean file from: examples/cifar10/mean.binaryproto
I0430 20:46:21.363987 29346 data_layer.cpp:45] output data size: 111,3,32,32
I0430 20:46:21.370514 29346 net.cpp:124] Setting up cifar
I0430 20:46:21.370529 29346 net.cpp:131] Top shape: 111 3 32 32 (340992)
I0430 20:46:21.370534 29346 net.cpp:131] Top shape: 111 (111)
I0430 20:46:21.370537 29346 net.cpp:139] Memory required for data: 1364412
I0430 20:46:21.370543 29346 layer_factory.hpp:77] Creating layer ip1
I0430 20:46:21.370553 29346 net.cpp:86] Creating Layer ip1
I0430 20:46:21.370558 29346 net.cpp:408] ip1 <- data
I0430 20:46:21.370566 29346 net.cpp:382] ip1 -> ip1
I0430 20:46:21.383839 29346 net.cpp:124] Setting up ip1
I0430 20:46:21.383852 29346 net.cpp:131] Top shape: 111 160 (17760)
I0430 20:46:21.383855 29346 net.cpp:139] Memory required for data: 1435452
I0430 20:46:21.383867 29346 layer_factory.hpp:77] Creating layer relu1
I0430 20:46:21.383903 29346 net.cpp:86] Creating Layer relu1
I0430 20:46:21.383908 29346 net.cpp:408] relu1 <- ip1
I0430 20:46:21.383911 29346 net.cpp:369] relu1 -> ip1 (in-place)
I0430 20:46:21.611497 29346 net.cpp:124] Setting up relu1
I0430 20:46:21.611536 29346 net.cpp:131] Top shape: 111 160 (17760)
I0430 20:46:21.611541 29346 net.cpp:139] Memory required for data: 1506492
I0430 20:46:21.611546 29346 layer_factory.hpp:77] Creating layer ip2
I0430 20:46:21.611559 29346 net.cpp:86] Creating Layer ip2
I0430 20:46:21.611563 29346 net.cpp:408] ip2 <- ip1
I0430 20:46:21.611570 29346 net.cpp:382] ip2 -> ip2
I0430 20:46:21.612740 29346 net.cpp:124] Setting up ip2
I0430 20:46:21.612751 29346 net.cpp:131] Top shape: 111 40 (4440)
I0430 20:46:21.612771 29346 net.cpp:139] Memory required for data: 1524252
I0430 20:46:21.612781 29346 layer_factory.hpp:77] Creating layer relu2
I0430 20:46:21.612788 29346 net.cpp:86] Creating Layer relu2
I0430 20:46:21.612792 29346 net.cpp:408] relu2 <- ip2
I0430 20:46:21.612795 29346 net.cpp:369] relu2 -> ip2 (in-place)
I0430 20:46:21.613724 29346 net.cpp:124] Setting up relu2
I0430 20:46:21.613752 29346 net.cpp:131] Top shape: 111 40 (4440)
I0430 20:46:21.613756 29346 net.cpp:139] Memory required for data: 1542012
I0430 20:46:21.613760 29346 layer_factory.hpp:77] Creating layer ip3
I0430 20:46:21.613767 29346 net.cpp:86] Creating Layer ip3
I0430 20:46:21.613771 29346 net.cpp:408] ip3 <- ip2
I0430 20:46:21.613776 29346 net.cpp:382] ip3 -> ip3
I0430 20:46:21.614758 29346 net.cpp:124] Setting up ip3
I0430 20:46:21.614769 29346 net.cpp:131] Top shape: 111 10 (1110)
I0430 20:46:21.614789 29346 net.cpp:139] Memory required for data: 1546452
I0430 20:46:21.614796 29346 layer_factory.hpp:77] Creating layer relu3
I0430 20:46:21.614801 29346 net.cpp:86] Creating Layer relu3
I0430 20:46:21.614805 29346 net.cpp:408] relu3 <- ip3
I0430 20:46:21.614809 29346 net.cpp:369] relu3 -> ip3 (in-place)
I0430 20:46:21.614989 29346 net.cpp:124] Setting up relu3
I0430 20:46:21.614997 29346 net.cpp:131] Top shape: 111 10 (1110)
I0430 20:46:21.615000 29346 net.cpp:139] Memory required for data: 1550892
I0430 20:46:21.615003 29346 layer_factory.hpp:77] Creating layer ip4
I0430 20:46:21.615010 29346 net.cpp:86] Creating Layer ip4
I0430 20:46:21.615013 29346 net.cpp:408] ip4 <- ip3
I0430 20:46:21.615017 29346 net.cpp:382] ip4 -> ip4
I0430 20:46:21.615134 29346 net.cpp:124] Setting up ip4
I0430 20:46:21.615141 29346 net.cpp:131] Top shape: 111 10 (1110)
I0430 20:46:21.615144 29346 net.cpp:139] Memory required for data: 1555332
I0430 20:46:21.615149 29346 layer_factory.hpp:77] Creating layer loss
I0430 20:46:21.615156 29346 net.cpp:86] Creating Layer loss
I0430 20:46:21.615159 29346 net.cpp:408] loss <- ip4
I0430 20:46:21.615164 29346 net.cpp:408] loss <- label
I0430 20:46:21.615170 29346 net.cpp:382] loss -> loss
I0430 20:46:21.615188 29346 layer_factory.hpp:77] Creating layer loss
…
I0430 20:46:21.615758 29346 solver.cpp:173] Creating test net (#0) specified by net file: ECE595/cifar/train_test/var_everything/cifar_train_test_140.prototxt
I0430 20:46:21.615793 29346 net.cpp:296] The NetState phase (1) differed from the phase (0) specified by a rule in layer cifar
I0430 20:46:21.615885 29346 net.cpp:53] Initializing net from parameters: 
name: "CIFAR"
state {
  phase: TEST
}
layer {
  name: "cifar"
  type: "Data"
  top: "data"
  top: "label"
  include {
    phase: TEST
  }
  transform_param {
    mean_file: "examples/cifar10/mean.binaryproto"
  }
  data_param {
    source: "examples/cifar10/cifar10_test_lmdb"
    batch_size: 1000
    backend: LMDB
  }
}
layer {
  name: "ip1"
  type: "InnerProduct"
  bottom: "data"
  top: "ip1"
  param {
    lr_mult: 1
  }
  param {
    lr_mult: 2
  }
  inner_product_param {
    num_output: 160
    weight_filler {
      type: "gaussian"
      std: 0.01
    }
    bias_filler {
      type: "constant"
    }
  }
}
layer {
  name: "relu1"
  type: "ReLU"
  bottom: "ip1"
  top: "ip1"
}
layer {
  name: "ip2"
  type: "InnerProduct"
  bottom: "ip1"
  top: "ip2"
  param {
    lr_mult: 1
  }
  param {
    lr_mult: 2
  }
  inner_product_param {
    num_output: 40
    weight_filler {
      type: "gaussian"
      std: 0.01
    }
    bias_filler {
      type: "constant"
    }
  }
}
layer {
  name: "relu2"
  type: "ReLU"
  bottom: "ip2"
  top: "ip2"
}
layer {
  name: "ip3"
  type: "InnerProduct"
  bottom: "ip2"
  top: "ip3"
  param {
    lr_mult: 1
  }
  param {
    lr_mult: 2
  }
  inner_product_param {
    num_output: 10
    weight_filler {
      type: "gaussian"
      std: 0.01
    }
    bias_filler {
      type: "constant"
    }
  }
}
layer {
  name: "relu3"
  type: "ReLU"
  bottom: "ip3"
  top: "ip3"
}
layer {
  name: "ip4"
  type: "InnerProduct"
  bottom: "ip3"
  top: "ip4"
  param {
    lr_mult: 1
  }
  param {
    lr_mult: 2
  }
  inner_product_param {
    num_output: 10
    weight_filler {
      type: "gaussian"
      std: 0.01
    }
    bias_filler {
      type: "constant"
    }
  }
}
layer {
  name: "accuracy"
  type: "Accuracy"
  bottom: "ip4"
  bottom: "label"
  top: "accuracy"
  include {
    phase: TEST
  }
}
layer {
  name: "loss"
  type: "SoftmaxWithLoss"
  bottom: "ip4"
  bottom: "label"
  top: "loss"
}
I0430 20:46:21.615944 29346 layer_factory.hpp:77] Creating layer cifar
I0430 20:46:21.615988 29346 db_lmdb.cpp:35] Opened lmdb examples/cifar10/cifar10_test_lmdb
I0430 20:46:21.616000 29346 net.cpp:86] Creating Layer cifar
I0430 20:46:21.616005 29346 net.cpp:382] cifar -> data
I0430 20:46:21.616014 29346 net.cpp:382] cifar -> label
I0430 20:46:21.616019 29346 data_transformer.cpp:25] Loading mean file from: examples/cifar10/mean.binaryproto
I0430 20:46:21.616176 29346 data_layer.cpp:45] output data size: 1000,3,32,32
I0430 20:46:21.639037 29346 net.cpp:124] Setting up cifar
I0430 20:46:21.639063 29346 net.cpp:131] Top shape: 1000 3 32 32 (3072000)
I0430 20:46:21.639068 29346 net.cpp:131] Top shape: 1000 (1000)
I0430 20:46:21.639071 29346 net.cpp:139] Memory required for data: 12292000
I0430 20:46:21.639077 29346 layer_factory.hpp:77] Creating layer label_cifar_1_split
I0430 20:46:21.639123 29346 net.cpp:86] Creating Layer label_cifar_1_split
I0430 20:46:21.639128 29346 net.cpp:408] label_cifar_1_split <- label
I0430 20:46:21.639134 29346 net.cpp:382] label_cifar_1_split -> label_cifar_1_split_0
I0430 20:46:21.639143 29346 net.cpp:382] label_cifar_1_split -> label_cifar_1_split_1
I0430 20:46:21.639204 29346 net.cpp:124] Setting up label_cifar_1_split
I0430 20:46:21.639211 29346 net.cpp:131] Top shape: 1000 (1000)
I0430 20:46:21.639215 29346 net.cpp:131] Top shape: 1000 (1000)
I0430 20:46:21.639219 29346 net.cpp:139] Memory required for data: 12300000
I0430 20:46:21.639221 29346 layer_factory.hpp:77] Creating layer ip1
I0430 20:46:21.639230 29346 net.cpp:86] Creating Layer ip1
I0430 20:46:21.639233 29346 net.cpp:408] ip1 <- data
I0430 20:46:21.639237 29346 net.cpp:382] ip1 -> ip1
I0430 20:46:21.653527 29346 net.cpp:124] Setting up ip1
I0430 20:46:21.653542 29346 net.cpp:131] Top shape: 1000 160 (160000)
I0430 20:46:21.653547 29346 net.cpp:139] Memory required for data: 12940000
I0430 20:46:21.653570 29346 layer_factory.hpp:77] Creating layer relu1
I0430 20:46:21.653594 29346 net.cpp:86] Creating Layer relu1
I0430 20:46:21.653596 29346 net.cpp:408] relu1 <- ip1
I0430 20:46:21.653601 29346 net.cpp:369] relu1 -> ip1 (in-place)
I0430 20:46:21.654374 29346 net.cpp:124] Setting up relu1
I0430 20:46:21.654386 29346 net.cpp:131] Top shape: 1000 160 (160000)
I0430 20:46:21.654389 29346 net.cpp:139] Memory required for data: 13580000
I0430 20:46:21.654394 29346 layer_factory.hpp:77] Creating layer ip2
I0430 20:46:21.654417 29346 net.cpp:86] Creating Layer ip2
I0430 20:46:21.654422 29346 net.cpp:408] ip2 <- ip1
I0430 20:46:21.654443 29346 net.cpp:382] ip2 -> ip2
I0430 20:46:21.654722 29346 net.cpp:124] Setting up ip2
I0430 20:46:21.654731 29346 net.cpp:131] Top shape: 1000 40 (40000)
I0430 20:46:21.654734 29346 net.cpp:139] Memory required for data: 13740000
I0430 20:46:21.654742 29346 layer_factory.hpp:77] Creating layer relu2
I0430 20:46:21.654747 29346 net.cpp:86] Creating Layer relu2
I0430 20:46:21.654749 29346 net.cpp:408] relu2 <- ip2
I0430 20:46:21.654768 29346 net.cpp:369] relu2 -> ip2 (in-place)
I0430 20:46:21.654913 29346 net.cpp:124] Setting up relu2
I0430 20:46:21.654922 29346 net.cpp:131] Top shape: 1000 40 (40000)
I0430 20:46:21.654924 29346 net.cpp:139] Memory required for data: 13900000
I0430 20:46:21.654927 29346 layer_factory.hpp:77] Creating layer ip3
I0430 20:46:21.654933 29346 net.cpp:86] Creating Layer ip3
I0430 20:46:21.654937 29346 net.cpp:408] ip3 <- ip2
I0430 20:46:21.654942 29346 net.cpp:382] ip3 -> ip3
I0430 20:46:21.655047 29346 net.cpp:124] Setting up ip3
I0430 20:46:21.655053 29346 net.cpp:131] Top shape: 1000 10 (10000)
I0430 20:46:21.655057 29346 net.cpp:139] Memory required for data: 13940000
I0430 20:46:21.655064 29346 layer_factory.hpp:77] Creating layer relu3
I0430 20:46:21.655069 29346 net.cpp:86] Creating Layer relu3
I0430 20:46:21.655072 29346 net.cpp:408] relu3 <- ip3
I0430 20:46:21.655076 29346 net.cpp:369] relu3 -> ip3 (in-place)
I0430 20:46:21.655215 29346 net.cpp:124] Setting up relu3
I0430 20:46:21.655223 29346 net.cpp:131] Top shape: 1000 10 (10000)
I0430 20:46:21.655226 29346 net.cpp:139] Memory required for data: 13980000
I0430 20:46:21.655230 29346 layer_factory.hpp:77] Creating layer ip4
I0430 20:46:21.655236 29346 net.cpp:86] Creating Layer ip4
I0430 20:46:21.655238 29346 net.cpp:408] ip4 <- ip3
I0430 20:46:21.655243 29346 net.cpp:382] ip4 -> ip4
I0430 20:46:21.655340 29346 net.cpp:124] Setting up ip4
I0430 20:46:21.655346 29346 net.cpp:131] Top shape: 1000 10 (10000)
I0430 20:46:21.655350 29346 net.cpp:139] Memory required for data: 14020000
I0430 20:46:21.655355 29346 layer_factory.hpp:77] Creating layer ip4_ip4_0_split
I0430 20:46:21.655360 29346 net.cpp:86] Creating Layer ip4_ip4_0_split
I0430 20:46:21.655364 29346 net.cpp:408] ip4_ip4_0_split <- ip4
I0430 20:46:21.655367 29346 net.cpp:382] ip4_ip4_0_split -> ip4_ip4_0_split_0
I0430 20:46:21.655375 29346 net.cpp:382] ip4_ip4_0_split -> ip4_ip4_0_split_1
I0430 20:46:21.655402 29346 net.cpp:124] Setting up ip4_ip4_0_split
I0430 20:46:21.655407 29346 net.cpp:131] Top shape: 1000 10 (10000)
I0430 20:46:21.655411 29346 net.cpp:131] Top shape: 1000 10 (10000)
I0430 20:46:21.655414 29346 net.cpp:139] Memory required for data: 14100000
I0430 20:46:21.655417 29346 layer_factory.hpp:77] Creating layer accuracy
I0430 20:46:21.655422 29346 net.cpp:86] Creating Layer accuracy
I0430 20:46:21.655426 29346 net.cpp:408] accuracy <- ip4_ip4_0_split_0
I0430 20:46:21.655429 29346 net.cpp:408] accuracy <- label_cifar_1_split_0
I0430 20:46:21.655433 29346 net.cpp:382] accuracy -> accuracy
…
