…
I0501 02:20:13.584132 14816 net.cpp:296] The NetState phase (0) differed from the phase (1) specified by a rule in layer cifar
I0501 02:20:13.584153 14816 net.cpp:296] The NetState phase (0) differed from the phase (1) specified by a rule in layer accuracy
I0501 02:20:13.584255 14816 net.cpp:53] Initializing net from parameters: 
name: "CIFAR"
state {
  phase: TRAIN
  level: 0
  stage: ""
}
layer {
  name: "cifar"
  type: "Data"
  top: "data"
  top: "label"
  include {
    phase: TRAIN
  }
  transform_param {
    mean_file: "examples/cifar10/mean.binaryproto"
  }
  data_param {
    source: "examples/cifar10/cifar10_train_lmdb"
    batch_size: 111
    backend: LMDB
  }
}
layer {
  name: "conv0"
  type: "Convolution"
  bottom: "data"
  top: "conv0"
  param {
    lr_mult: 1
  }
  param {
    lr_mult: 2
  }
  convolution_param {
    num_output: 8
    pad: 2
    kernel_size: 5
    stride: 1
    weight_filler {
      type: "gaussian"
      std: 0.01
    }
    bias_filler {
      type: "constant"
    }
  }
}
layer {
  name: "Sigmoid0"
  type: "Sigmoid"
  bottom: "conv0"
  top: "Sigmoid0"
}
layer {
  name: "pool0"
  type: "Pooling"
  bottom: "Sigmoid0"
  top: "pool0"
  pooling_param {
    pool: AVE
    kernel_size: 3
    stride: 2
  }
}
layer {
  name: "ip1"
  type: "InnerProduct"
  bottom: "pool0"
  top: "ip1"
  param {
    lr_mult: 1
  }
  param {
    lr_mult: 2
  }
  inner_product_param {
    num_output: 10
    weight_filler {
      type: "gaussian"
      std: 0.01
    }
    bias_filler {
      type: "constant"
    }
  }
}
layer {
  name: "relu1"
  type: "ReLU"
  bottom: "ip1"
  top: "ip1"
}
layer {
  name: "ip2"
  type: "InnerProduct"
  bottom: "ip1"
  top: "ip2"
  param {
    lr_mult: 1
  }
  param {
    lr_mult: 2
  }
  inner_product_param {
    num_output: 80
    weight_filler {
      type: "gaussian"
      std: 0.01
    }
    bias_filler {
      type: "constant"
    }
  }
}
layer {
  name: "relu2"
  type: "ReLU"
  bottom: "ip2"
  top: "ip2"
}
layer {
  name: "ip3"
  type: "InnerProduct"
  bottom: "ip2"
  top: "ip3"
  param {
    lr_mult: 1
  }
  param {
    lr_mult: 2
  }
  inner_product_param {
    num_output: 10
    weight_filler {
      type: "gaussian"
      std: 0.01
    }
    bias_filler {
      type: "constant"
    }
  }
}
layer {
  name: "loss"
  type: "SoftmaxWithLoss"
  bottom: "ip3"
  bottom: "label"
  top: "loss"
}
I0501 02:20:13.584333 14816 layer_factory.hpp:77] Creating layer cifar
I0501 02:20:13.584439 14816 db_lmdb.cpp:35] Opened lmdb examples/cifar10/cifar10_train_lmdb
I0501 02:20:13.584467 14816 net.cpp:86] Creating Layer cifar
I0501 02:20:13.584475 14816 net.cpp:382] cifar -> data
I0501 02:20:13.584497 14816 net.cpp:382] cifar -> label
I0501 02:20:13.584511 14816 data_transformer.cpp:25] Loading mean file from: examples/cifar10/mean.binaryproto
I0501 02:20:13.586642 14816 data_layer.cpp:45] output data size: 111,3,32,32
I0501 02:20:13.594568 14816 net.cpp:124] Setting up cifar
I0501 02:20:13.594586 14816 net.cpp:131] Top shape: 111 3 32 32 (340992)
I0501 02:20:13.594594 14816 net.cpp:131] Top shape: 111 (111)
I0501 02:20:13.594599 14816 net.cpp:139] Memory required for data: 1364412
I0501 02:20:13.594607 14816 layer_factory.hpp:77] Creating layer conv0
I0501 02:20:13.594625 14816 net.cpp:86] Creating Layer conv0
I0501 02:20:13.594630 14816 net.cpp:408] conv0 <- data
I0501 02:20:13.594645 14816 net.cpp:382] conv0 -> conv0
I0501 02:20:13.886240 14816 net.cpp:124] Setting up conv0
I0501 02:20:13.886291 14816 net.cpp:131] Top shape: 111 8 32 32 (909312)
I0501 02:20:13.886296 14816 net.cpp:139] Memory required for data: 5001660
I0501 02:20:13.886313 14816 layer_factory.hpp:77] Creating layer Sigmoid0
I0501 02:20:13.886327 14816 net.cpp:86] Creating Layer Sigmoid0
I0501 02:20:13.886332 14816 net.cpp:408] Sigmoid0 <- conv0
I0501 02:20:13.886337 14816 net.cpp:382] Sigmoid0 -> Sigmoid0
I0501 02:20:13.886530 14816 net.cpp:124] Setting up Sigmoid0
I0501 02:20:13.886541 14816 net.cpp:131] Top shape: 111 8 32 32 (909312)
I0501 02:20:13.886545 14816 net.cpp:139] Memory required for data: 8638908
I0501 02:20:13.886549 14816 layer_factory.hpp:77] Creating layer pool0
I0501 02:20:13.886556 14816 net.cpp:86] Creating Layer pool0
I0501 02:20:13.886560 14816 net.cpp:408] pool0 <- Sigmoid0
I0501 02:20:13.886565 14816 net.cpp:382] pool0 -> pool0
I0501 02:20:13.887423 14816 net.cpp:124] Setting up pool0
I0501 02:20:13.887439 14816 net.cpp:131] Top shape: 111 8 16 16 (227328)
I0501 02:20:13.887442 14816 net.cpp:139] Memory required for data: 9548220
I0501 02:20:13.887446 14816 layer_factory.hpp:77] Creating layer ip1
I0501 02:20:13.887456 14816 net.cpp:86] Creating Layer ip1
I0501 02:20:13.887460 14816 net.cpp:408] ip1 <- pool0
I0501 02:20:13.887466 14816 net.cpp:382] ip1 -> ip1
I0501 02:20:13.889173 14816 net.cpp:124] Setting up ip1
I0501 02:20:13.889186 14816 net.cpp:131] Top shape: 111 10 (1110)
I0501 02:20:13.889190 14816 net.cpp:139] Memory required for data: 9552660
I0501 02:20:13.889200 14816 layer_factory.hpp:77] Creating layer relu1
I0501 02:20:13.889209 14816 net.cpp:86] Creating Layer relu1
I0501 02:20:13.889212 14816 net.cpp:408] relu1 <- ip1
I0501 02:20:13.889217 14816 net.cpp:369] relu1 -> ip1 (in-place)
I0501 02:20:13.889396 14816 net.cpp:124] Setting up relu1
I0501 02:20:13.889406 14816 net.cpp:131] Top shape: 111 10 (1110)
I0501 02:20:13.889410 14816 net.cpp:139] Memory required for data: 9557100
I0501 02:20:13.889413 14816 layer_factory.hpp:77] Creating layer ip2
I0501 02:20:13.889420 14816 net.cpp:86] Creating Layer ip2
I0501 02:20:13.889425 14816 net.cpp:408] ip2 <- ip1
I0501 02:20:13.889430 14816 net.cpp:382] ip2 -> ip2
I0501 02:20:13.889564 14816 net.cpp:124] Setting up ip2
I0501 02:20:13.889570 14816 net.cpp:131] Top shape: 111 80 (8880)
I0501 02:20:13.889574 14816 net.cpp:139] Memory required for data: 9592620
I0501 02:20:13.889582 14816 layer_factory.hpp:77] Creating layer relu2
I0501 02:20:13.889587 14816 net.cpp:86] Creating Layer relu2
I0501 02:20:13.889591 14816 net.cpp:408] relu2 <- ip2
I0501 02:20:13.889596 14816 net.cpp:369] relu2 -> ip2 (in-place)
I0501 02:20:13.889768 14816 net.cpp:124] Setting up relu2
I0501 02:20:13.889776 14816 net.cpp:131] Top shape: 111 80 (8880)
I0501 02:20:13.889780 14816 net.cpp:139] Memory required for data: 9628140
I0501 02:20:13.889783 14816 layer_factory.hpp:77] Creating layer ip3
I0501 02:20:13.889791 14816 net.cpp:86] Creating Layer ip3
I0501 02:20:13.889796 14816 net.cpp:408] ip3 <- ip2
I0501 02:20:13.889801 14816 net.cpp:382] ip3 -> ip3
I0501 02:20:13.889930 14816 net.cpp:124] Setting up ip3
I0501 02:20:13.889938 14816 net.cpp:131] Top shape: 111 10 (1110)
I0501 02:20:13.889941 14816 net.cpp:139] Memory required for data: 9632580
I0501 02:20:13.889947 14816 layer_factory.hpp:77] Creating layer loss
I0501 02:20:13.889955 14816 net.cpp:86] Creating Layer loss
I0501 02:20:13.889958 14816 net.cpp:408] loss <- ip3
I0501 02:20:13.889962 14816 net.cpp:408] loss <- label
I0501 02:20:13.889967 14816 net.cpp:382] loss -> loss
I0501 02:20:13.889989 14816 layer_factory.hpp:77] Creating layer loss
…
I0501 02:20:13.890666 14816 solver.cpp:173] Creating test net (#0) specified by net file: ECE595/cifar/train_test/var_everything/cifar_train_test_318.prototxt
I0501 02:20:13.890697 14816 net.cpp:296] The NetState phase (1) differed from the phase (0) specified by a rule in layer cifar
I0501 02:20:13.890791 14816 net.cpp:53] Initializing net from parameters: 
name: "CIFAR"
state {
  phase: TEST
}
layer {
  name: "cifar"
  type: "Data"
  top: "data"
  top: "label"
  include {
    phase: TEST
  }
  transform_param {
    mean_file: "examples/cifar10/mean.binaryproto"
  }
  data_param {
    source: "examples/cifar10/cifar10_test_lmdb"
    batch_size: 1000
    backend: LMDB
  }
}
layer {
  name: "conv0"
  type: "Convolution"
  bottom: "data"
  top: "conv0"
  param {
    lr_mult: 1
  }
  param {
    lr_mult: 2
  }
  convolution_param {
    num_output: 8
    pad: 2
    kernel_size: 5
    stride: 1
    weight_filler {
      type: "gaussian"
      std: 0.01
    }
    bias_filler {
      type: "constant"
    }
  }
}
layer {
  name: "Sigmoid0"
  type: "Sigmoid"
  bottom: "conv0"
  top: "Sigmoid0"
}
layer {
  name: "pool0"
  type: "Pooling"
  bottom: "Sigmoid0"
  top: "pool0"
  pooling_param {
    pool: AVE
    kernel_size: 3
    stride: 2
  }
}
layer {
  name: "ip1"
  type: "InnerProduct"
  bottom: "pool0"
  top: "ip1"
  param {
    lr_mult: 1
  }
  param {
    lr_mult: 2
  }
  inner_product_param {
    num_output: 10
    weight_filler {
      type: "gaussian"
      std: 0.01
    }
    bias_filler {
      type: "constant"
    }
  }
}
layer {
  name: "relu1"
  type: "ReLU"
  bottom: "ip1"
  top: "ip1"
}
layer {
  name: "ip2"
  type: "InnerProduct"
  bottom: "ip1"
  top: "ip2"
  param {
    lr_mult: 1
  }
  param {
    lr_mult: 2
  }
  inner_product_param {
    num_output: 80
    weight_filler {
      type: "gaussian"
      std: 0.01
    }
    bias_filler {
      type: "constant"
    }
  }
}
layer {
  name: "relu2"
  type: "ReLU"
  bottom: "ip2"
  top: "ip2"
}
layer {
  name: "ip3"
  type: "InnerProduct"
  bottom: "ip2"
  top: "ip3"
  param {
    lr_mult: 1
  }
  param {
    lr_mult: 2
  }
  inner_product_param {
    num_output: 10
    weight_filler {
      type: "gaussian"
      std: 0.01
    }
    bias_filler {
      type: "constant"
    }
  }
}
layer {
  name: "accuracy"
  type: "Accuracy"
  bottom: "ip3"
  bottom: "label"
  top: "accuracy"
  include {
    phase: TEST
  }
}
layer {
  name: "loss"
  type: "SoftmaxWithLoss"
  bottom: "ip3"
  bottom: "label"
  top: "loss"
}
I0501 02:20:13.890866 14816 layer_factory.hpp:77] Creating layer cifar
I0501 02:20:13.890918 14816 db_lmdb.cpp:35] Opened lmdb examples/cifar10/cifar10_test_lmdb
I0501 02:20:13.890931 14816 net.cpp:86] Creating Layer cifar
I0501 02:20:13.890938 14816 net.cpp:382] cifar -> data
I0501 02:20:13.890946 14816 net.cpp:382] cifar -> label
I0501 02:20:13.890954 14816 data_transformer.cpp:25] Loading mean file from: examples/cifar10/mean.binaryproto
I0501 02:20:13.891124 14816 data_layer.cpp:45] output data size: 1000,3,32,32
I0501 02:20:13.915666 14816 net.cpp:124] Setting up cifar
I0501 02:20:13.915693 14816 net.cpp:131] Top shape: 1000 3 32 32 (3072000)
I0501 02:20:13.915699 14816 net.cpp:131] Top shape: 1000 (1000)
I0501 02:20:13.915702 14816 net.cpp:139] Memory required for data: 12292000
I0501 02:20:13.915709 14816 layer_factory.hpp:77] Creating layer label_cifar_1_split
I0501 02:20:13.915721 14816 net.cpp:86] Creating Layer label_cifar_1_split
I0501 02:20:13.915742 14816 net.cpp:408] label_cifar_1_split <- label
I0501 02:20:13.915750 14816 net.cpp:382] label_cifar_1_split -> label_cifar_1_split_0
I0501 02:20:13.915760 14816 net.cpp:382] label_cifar_1_split -> label_cifar_1_split_1
I0501 02:20:13.915877 14816 net.cpp:124] Setting up label_cifar_1_split
I0501 02:20:13.915885 14816 net.cpp:131] Top shape: 1000 (1000)
I0501 02:20:13.915889 14816 net.cpp:131] Top shape: 1000 (1000)
I0501 02:20:13.915892 14816 net.cpp:139] Memory required for data: 12300000
I0501 02:20:13.915896 14816 layer_factory.hpp:77] Creating layer conv0
I0501 02:20:13.915910 14816 net.cpp:86] Creating Layer conv0
I0501 02:20:13.915915 14816 net.cpp:408] conv0 <- data
I0501 02:20:13.915920 14816 net.cpp:382] conv0 -> conv0
I0501 02:20:13.917683 14816 net.cpp:124] Setting up conv0
I0501 02:20:13.917699 14816 net.cpp:131] Top shape: 1000 8 32 32 (8192000)
I0501 02:20:13.917703 14816 net.cpp:139] Memory required for data: 45068000
I0501 02:20:13.917714 14816 layer_factory.hpp:77] Creating layer Sigmoid0
I0501 02:20:13.917721 14816 net.cpp:86] Creating Layer Sigmoid0
I0501 02:20:13.917726 14816 net.cpp:408] Sigmoid0 <- conv0
I0501 02:20:13.917732 14816 net.cpp:382] Sigmoid0 -> Sigmoid0
I0501 02:20:13.918653 14816 net.cpp:124] Setting up Sigmoid0
I0501 02:20:13.918666 14816 net.cpp:131] Top shape: 1000 8 32 32 (8192000)
I0501 02:20:13.918670 14816 net.cpp:139] Memory required for data: 77836000
I0501 02:20:13.918674 14816 layer_factory.hpp:77] Creating layer pool0
I0501 02:20:13.918684 14816 net.cpp:86] Creating Layer pool0
I0501 02:20:13.918687 14816 net.cpp:408] pool0 <- Sigmoid0
I0501 02:20:13.918692 14816 net.cpp:382] pool0 -> pool0
I0501 02:20:13.919837 14816 net.cpp:124] Setting up pool0
I0501 02:20:13.919850 14816 net.cpp:131] Top shape: 1000 8 16 16 (2048000)
I0501 02:20:13.919854 14816 net.cpp:139] Memory required for data: 86028000
I0501 02:20:13.919857 14816 layer_factory.hpp:77] Creating layer ip1
I0501 02:20:13.919867 14816 net.cpp:86] Creating Layer ip1
I0501 02:20:13.919869 14816 net.cpp:408] ip1 <- pool0
I0501 02:20:13.919875 14816 net.cpp:382] ip1 -> ip1
I0501 02:20:13.920608 14816 net.cpp:124] Setting up ip1
I0501 02:20:13.920615 14816 net.cpp:131] Top shape: 1000 10 (10000)
I0501 02:20:13.920619 14816 net.cpp:139] Memory required for data: 86068000
I0501 02:20:13.920629 14816 layer_factory.hpp:77] Creating layer relu1
I0501 02:20:13.920636 14816 net.cpp:86] Creating Layer relu1
I0501 02:20:13.920640 14816 net.cpp:408] relu1 <- ip1
I0501 02:20:13.920652 14816 net.cpp:369] relu1 -> ip1 (in-place)
I0501 02:20:13.920837 14816 net.cpp:124] Setting up relu1
I0501 02:20:13.920846 14816 net.cpp:131] Top shape: 1000 10 (10000)
I0501 02:20:13.920850 14816 net.cpp:139] Memory required for data: 86108000
I0501 02:20:13.920853 14816 layer_factory.hpp:77] Creating layer ip2
I0501 02:20:13.920861 14816 net.cpp:86] Creating Layer ip2
I0501 02:20:13.920871 14816 net.cpp:408] ip2 <- ip1
I0501 02:20:13.920878 14816 net.cpp:382] ip2 -> ip2
I0501 02:20:13.921028 14816 net.cpp:124] Setting up ip2
I0501 02:20:13.921036 14816 net.cpp:131] Top shape: 1000 80 (80000)
I0501 02:20:13.921039 14816 net.cpp:139] Memory required for data: 86428000
I0501 02:20:13.921047 14816 layer_factory.hpp:77] Creating layer relu2
I0501 02:20:13.921056 14816 net.cpp:86] Creating Layer relu2
I0501 02:20:13.921058 14816 net.cpp:408] relu2 <- ip2
I0501 02:20:13.921063 14816 net.cpp:369] relu2 -> ip2 (in-place)
I0501 02:20:13.921237 14816 net.cpp:124] Setting up relu2
I0501 02:20:13.921245 14816 net.cpp:131] Top shape: 1000 80 (80000)
I0501 02:20:13.921248 14816 net.cpp:139] Memory required for data: 86748000
I0501 02:20:13.921252 14816 layer_factory.hpp:77] Creating layer ip3
I0501 02:20:13.921258 14816 net.cpp:86] Creating Layer ip3
I0501 02:20:13.921262 14816 net.cpp:408] ip3 <- ip2
I0501 02:20:13.921267 14816 net.cpp:382] ip3 -> ip3
I0501 02:20:13.921399 14816 net.cpp:124] Setting up ip3
I0501 02:20:13.921406 14816 net.cpp:131] Top shape: 1000 10 (10000)
I0501 02:20:13.921409 14816 net.cpp:139] Memory required for data: 86788000
I0501 02:20:13.921425 14816 layer_factory.hpp:77] Creating layer ip3_ip3_0_split
I0501 02:20:13.921432 14816 net.cpp:86] Creating Layer ip3_ip3_0_split
I0501 02:20:13.921434 14816 net.cpp:408] ip3_ip3_0_split <- ip3
I0501 02:20:13.921442 14816 net.cpp:382] ip3_ip3_0_split -> ip3_ip3_0_split_0
I0501 02:20:13.921447 14816 net.cpp:382] ip3_ip3_0_split -> ip3_ip3_0_split_1
I0501 02:20:13.921480 14816 net.cpp:124] Setting up ip3_ip3_0_split
I0501 02:20:13.921485 14816 net.cpp:131] Top shape: 1000 10 (10000)
I0501 02:20:13.921489 14816 net.cpp:131] Top shape: 1000 10 (10000)
I0501 02:20:13.921492 14816 net.cpp:139] Memory required for data: 86868000
I0501 02:20:13.921495 14816 layer_factory.hpp:77] Creating layer accuracy
I0501 02:20:13.921502 14816 net.cpp:86] Creating Layer accuracy
I0501 02:20:13.921505 14816 net.cpp:408] accuracy <- ip3_ip3_0_split_0
I0501 02:20:13.921509 14816 net.cpp:408] accuracy <- label_cifar_1_split_0
I0501 02:20:13.921514 14816 net.cpp:382] accuracy -> accuracy
…
