…
I0501 06:51:31.698909  2243 net.cpp:296] The NetState phase (0) differed from the phase (1) specified by a rule in layer cifar
I0501 06:51:31.698937  2243 net.cpp:296] The NetState phase (0) differed from the phase (1) specified by a rule in layer accuracy
I0501 06:51:31.699079  2243 net.cpp:53] Initializing net from parameters: 
name: "CIFAR"
state {
  phase: TRAIN
  level: 0
  stage: ""
}
layer {
  name: "cifar"
  type: "Data"
  top: "data"
  top: "label"
  include {
    phase: TRAIN
  }
  transform_param {
    mean_file: "examples/cifar10/mean.binaryproto"
  }
  data_param {
    source: "examples/cifar10/cifar10_train_lmdb"
    batch_size: 111
    backend: LMDB
  }
}
layer {
  name: "conv0"
  type: "Convolution"
  bottom: "data"
  top: "conv0"
  param {
    lr_mult: 1
  }
  param {
    lr_mult: 2
  }
  convolution_param {
    num_output: 8
    pad: 2
    kernel_size: 5
    stride: 1
    weight_filler {
      type: "gaussian"
      std: 0.01
    }
    bias_filler {
      type: "constant"
    }
  }
}
layer {
  name: "Sigmoid0"
  type: "Sigmoid"
  bottom: "conv0"
  top: "Sigmoid0"
}
layer {
  name: "pool0"
  type: "Pooling"
  bottom: "Sigmoid0"
  top: "pool0"
  pooling_param {
    pool: AVE
    kernel_size: 3
    stride: 2
  }
}
layer {
  name: "ip1"
  type: "InnerProduct"
  bottom: "pool0"
  top: "ip1"
  param {
    lr_mult: 1
  }
  param {
    lr_mult: 2
  }
  inner_product_param {
    num_output: 160
    weight_filler {
      type: "gaussian"
      std: 0.01
    }
    bias_filler {
      type: "constant"
    }
  }
}
layer {
  name: "relu1"
  type: "ReLU"
  bottom: "ip1"
  top: "ip1"
}
layer {
  name: "ip2"
  type: "InnerProduct"
  bottom: "ip1"
  top: "ip2"
  param {
    lr_mult: 1
  }
  param {
    lr_mult: 2
  }
  inner_product_param {
    num_output: 160
    weight_filler {
      type: "gaussian"
      std: 0.01
    }
    bias_filler {
      type: "constant"
    }
  }
}
layer {
  name: "relu2"
  type: "ReLU"
  bottom: "ip2"
  top: "ip2"
}
layer {
  name: "ip3"
  type: "InnerProduct"
  bottom: "ip2"
  top: "ip3"
  param {
    lr_mult: 1
  }
  param {
    lr_mult: 2
  }
  inner_product_param {
    num_output: 160
    weight_filler {
      type: "gaussian"
      std: 0.01
    }
    bias_filler {
      type: "constant"
    }
  }
}
layer {
  name: "relu3"
  type: "ReLU"
  bottom: "ip3"
  top: "ip3"
}
layer {
  name: "ip4"
  type: "InnerProduct"
  bottom: "ip3"
  top: "ip4"
  param {
    lr_mult: 1
  }
  param {
    lr_mult: 2
  }
  inner_product_param {
    num_output: 10
    weight_filler {
      type: "gaussian"
      std: 0.01
    }
    bias_filler {
      type: "constant"
    }
  }
}
layer {
  name: "loss"
  type: "SoftmaxWithLoss"
  bottom: "ip4"
  bottom: "label"
  top: "loss"
}
I0501 06:51:31.699138  2243 layer_factory.hpp:77] Creating layer cifar
I0501 06:51:31.699237  2243 db_lmdb.cpp:35] Opened lmdb examples/cifar10/cifar10_train_lmdb
I0501 06:51:31.699259  2243 net.cpp:86] Creating Layer cifar
I0501 06:51:31.699265  2243 net.cpp:382] cifar -> data
I0501 06:51:31.699285  2243 net.cpp:382] cifar -> label
I0501 06:51:31.699297  2243 data_transformer.cpp:25] Loading mean file from: examples/cifar10/mean.binaryproto
I0501 06:51:31.701117  2243 data_layer.cpp:45] output data size: 111,3,32,32
I0501 06:51:31.707608  2243 net.cpp:124] Setting up cifar
I0501 06:51:31.707654  2243 net.cpp:131] Top shape: 111 3 32 32 (340992)
I0501 06:51:31.707659  2243 net.cpp:131] Top shape: 111 (111)
I0501 06:51:31.707662  2243 net.cpp:139] Memory required for data: 1364412
I0501 06:51:31.707681  2243 layer_factory.hpp:77] Creating layer conv0
I0501 06:51:31.707715  2243 net.cpp:86] Creating Layer conv0
I0501 06:51:31.707720  2243 net.cpp:408] conv0 <- data
I0501 06:51:31.707729  2243 net.cpp:382] conv0 -> conv0
I0501 06:51:31.943995  2243 net.cpp:124] Setting up conv0
I0501 06:51:31.944037  2243 net.cpp:131] Top shape: 111 8 32 32 (909312)
I0501 06:51:31.944042  2243 net.cpp:139] Memory required for data: 5001660
I0501 06:51:31.944056  2243 layer_factory.hpp:77] Creating layer Sigmoid0
I0501 06:51:31.944068  2243 net.cpp:86] Creating Layer Sigmoid0
I0501 06:51:31.944072  2243 net.cpp:408] Sigmoid0 <- conv0
I0501 06:51:31.944077  2243 net.cpp:382] Sigmoid0 -> Sigmoid0
I0501 06:51:31.944269  2243 net.cpp:124] Setting up Sigmoid0
I0501 06:51:31.944279  2243 net.cpp:131] Top shape: 111 8 32 32 (909312)
I0501 06:51:31.944283  2243 net.cpp:139] Memory required for data: 8638908
I0501 06:51:31.944285  2243 layer_factory.hpp:77] Creating layer pool0
I0501 06:51:31.944293  2243 net.cpp:86] Creating Layer pool0
I0501 06:51:31.944295  2243 net.cpp:408] pool0 <- Sigmoid0
I0501 06:51:31.944300  2243 net.cpp:382] pool0 -> pool0
I0501 06:51:31.945067  2243 net.cpp:124] Setting up pool0
I0501 06:51:31.945096  2243 net.cpp:131] Top shape: 111 8 16 16 (227328)
I0501 06:51:31.945099  2243 net.cpp:139] Memory required for data: 9548220
I0501 06:51:31.945103  2243 layer_factory.hpp:77] Creating layer ip1
I0501 06:51:31.945114  2243 net.cpp:86] Creating Layer ip1
I0501 06:51:31.945117  2243 net.cpp:408] ip1 <- pool0
I0501 06:51:31.945123  2243 net.cpp:382] ip1 -> ip1
I0501 06:51:31.954608  2243 net.cpp:124] Setting up ip1
I0501 06:51:31.954619  2243 net.cpp:131] Top shape: 111 160 (17760)
I0501 06:51:31.954638  2243 net.cpp:139] Memory required for data: 9619260
I0501 06:51:31.954645  2243 layer_factory.hpp:77] Creating layer relu1
I0501 06:51:31.954651  2243 net.cpp:86] Creating Layer relu1
I0501 06:51:31.954654  2243 net.cpp:408] relu1 <- ip1
I0501 06:51:31.954660  2243 net.cpp:369] relu1 -> ip1 (in-place)
I0501 06:51:31.954850  2243 net.cpp:124] Setting up relu1
I0501 06:51:31.954859  2243 net.cpp:131] Top shape: 111 160 (17760)
I0501 06:51:31.954862  2243 net.cpp:139] Memory required for data: 9690300
I0501 06:51:31.954865  2243 layer_factory.hpp:77] Creating layer ip2
I0501 06:51:31.954874  2243 net.cpp:86] Creating Layer ip2
I0501 06:51:31.954885  2243 net.cpp:408] ip2 <- ip1
I0501 06:51:31.954890  2243 net.cpp:382] ip2 -> ip2
I0501 06:51:31.956461  2243 net.cpp:124] Setting up ip2
I0501 06:51:31.956472  2243 net.cpp:131] Top shape: 111 160 (17760)
I0501 06:51:31.956491  2243 net.cpp:139] Memory required for data: 9761340
I0501 06:51:31.956498  2243 layer_factory.hpp:77] Creating layer relu2
I0501 06:51:31.956506  2243 net.cpp:86] Creating Layer relu2
I0501 06:51:31.956508  2243 net.cpp:408] relu2 <- ip2
I0501 06:51:31.956513  2243 net.cpp:369] relu2 -> ip2 (in-place)
I0501 06:51:31.956694  2243 net.cpp:124] Setting up relu2
I0501 06:51:31.956703  2243 net.cpp:131] Top shape: 111 160 (17760)
I0501 06:51:31.956707  2243 net.cpp:139] Memory required for data: 9832380
I0501 06:51:31.956709  2243 layer_factory.hpp:77] Creating layer ip3
I0501 06:51:31.956717  2243 net.cpp:86] Creating Layer ip3
I0501 06:51:31.956720  2243 net.cpp:408] ip3 <- ip2
I0501 06:51:31.956727  2243 net.cpp:382] ip3 -> ip3
I0501 06:51:31.957595  2243 net.cpp:124] Setting up ip3
I0501 06:51:31.957602  2243 net.cpp:131] Top shape: 111 160 (17760)
I0501 06:51:31.957622  2243 net.cpp:139] Memory required for data: 9903420
I0501 06:51:31.957626  2243 layer_factory.hpp:77] Creating layer relu3
I0501 06:51:31.957631  2243 net.cpp:86] Creating Layer relu3
I0501 06:51:31.957634  2243 net.cpp:408] relu3 <- ip3
I0501 06:51:31.957639  2243 net.cpp:369] relu3 -> ip3 (in-place)
I0501 06:51:31.957805  2243 net.cpp:124] Setting up relu3
I0501 06:51:31.957813  2243 net.cpp:131] Top shape: 111 160 (17760)
I0501 06:51:31.957816  2243 net.cpp:139] Memory required for data: 9974460
I0501 06:51:31.957819  2243 layer_factory.hpp:77] Creating layer ip4
I0501 06:51:31.957839  2243 net.cpp:86] Creating Layer ip4
I0501 06:51:31.957844  2243 net.cpp:408] ip4 <- ip3
I0501 06:51:31.957847  2243 net.cpp:382] ip4 -> ip4
I0501 06:51:31.957979  2243 net.cpp:124] Setting up ip4
I0501 06:51:31.957988  2243 net.cpp:131] Top shape: 111 10 (1110)
I0501 06:51:31.957990  2243 net.cpp:139] Memory required for data: 9978900
I0501 06:51:31.957998  2243 layer_factory.hpp:77] Creating layer loss
I0501 06:51:31.958003  2243 net.cpp:86] Creating Layer loss
I0501 06:51:31.958006  2243 net.cpp:408] loss <- ip4
I0501 06:51:31.958010  2243 net.cpp:408] loss <- label
I0501 06:51:31.958015  2243 net.cpp:382] loss -> loss
I0501 06:51:31.958031  2243 layer_factory.hpp:77] Creating layer loss
…
I0501 06:51:31.959300  2243 solver.cpp:173] Creating test net (#0) specified by net file: ECE595/cifar/train_test/var_everything/cifar_train_test_464.prototxt
I0501 06:51:31.959327  2243 net.cpp:296] The NetState phase (1) differed from the phase (0) specified by a rule in layer cifar
I0501 06:51:31.959424  2243 net.cpp:53] Initializing net from parameters: 
name: "CIFAR"
state {
  phase: TEST
}
layer {
  name: "cifar"
  type: "Data"
  top: "data"
  top: "label"
  include {
    phase: TEST
  }
  transform_param {
    mean_file: "examples/cifar10/mean.binaryproto"
  }
  data_param {
    source: "examples/cifar10/cifar10_test_lmdb"
    batch_size: 1000
    backend: LMDB
  }
}
layer {
  name: "conv0"
  type: "Convolution"
  bottom: "data"
  top: "conv0"
  param {
    lr_mult: 1
  }
  param {
    lr_mult: 2
  }
  convolution_param {
    num_output: 8
    pad: 2
    kernel_size: 5
    stride: 1
    weight_filler {
      type: "gaussian"
      std: 0.01
    }
    bias_filler {
      type: "constant"
    }
  }
}
layer {
  name: "Sigmoid0"
  type: "Sigmoid"
  bottom: "conv0"
  top: "Sigmoid0"
}
layer {
  name: "pool0"
  type: "Pooling"
  bottom: "Sigmoid0"
  top: "pool0"
  pooling_param {
    pool: AVE
    kernel_size: 3
    stride: 2
  }
}
layer {
  name: "ip1"
  type: "InnerProduct"
  bottom: "pool0"
  top: "ip1"
  param {
    lr_mult: 1
  }
  param {
    lr_mult: 2
  }
  inner_product_param {
    num_output: 160
    weight_filler {
      type: "gaussian"
      std: 0.01
    }
    bias_filler {
      type: "constant"
    }
  }
}
layer {
  name: "relu1"
  type: "ReLU"
  bottom: "ip1"
  top: "ip1"
}
layer {
  name: "ip2"
  type: "InnerProduct"
  bottom: "ip1"
  top: "ip2"
  param {
    lr_mult: 1
  }
  param {
    lr_mult: 2
  }
  inner_product_param {
    num_output: 160
    weight_filler {
      type: "gaussian"
      std: 0.01
    }
    bias_filler {
      type: "constant"
    }
  }
}
layer {
  name: "relu2"
  type: "ReLU"
  bottom: "ip2"
  top: "ip2"
}
layer {
  name: "ip3"
  type: "InnerProduct"
  bottom: "ip2"
  top: "ip3"
  param {
    lr_mult: 1
  }
  param {
    lr_mult: 2
  }
  inner_product_param {
    num_output: 160
    weight_filler {
      type: "gaussian"
      std: 0.01
    }
    bias_filler {
      type: "constant"
    }
  }
}
layer {
  name: "relu3"
  type: "ReLU"
  bottom: "ip3"
  top: "ip3"
}
layer {
  name: "ip4"
  type: "InnerProduct"
  bottom: "ip3"
  top: "ip4"
  param {
    lr_mult: 1
  }
  param {
    lr_mult: 2
  }
  inner_product_param {
    num_output: 10
    weight_filler {
      type: "gaussian"
      std: 0.01
    }
    bias_filler {
      type: "constant"
    }
  }
}
layer {
  name: "accuracy"
  type: "Accuracy"
  bottom: "ip4"
  bottom: "label"
  top: "accuracy"
  include {
    phase: TEST
  }
}
layer {
  name: "loss"
  type: "SoftmaxWithLoss"
  bottom: "ip4"
  bottom: "label"
  top: "loss"
}
I0501 06:51:31.959508  2243 layer_factory.hpp:77] Creating layer cifar
I0501 06:51:31.959566  2243 db_lmdb.cpp:35] Opened lmdb examples/cifar10/cifar10_test_lmdb
I0501 06:51:31.959579  2243 net.cpp:86] Creating Layer cifar
I0501 06:51:31.959583  2243 net.cpp:382] cifar -> data
I0501 06:51:31.959591  2243 net.cpp:382] cifar -> label
I0501 06:51:31.959599  2243 data_transformer.cpp:25] Loading mean file from: examples/cifar10/mean.binaryproto
I0501 06:51:31.959740  2243 data_layer.cpp:45] output data size: 1000,3,32,32
I0501 06:51:31.982447  2243 net.cpp:124] Setting up cifar
I0501 06:51:31.982487  2243 net.cpp:131] Top shape: 1000 3 32 32 (3072000)
I0501 06:51:31.982492  2243 net.cpp:131] Top shape: 1000 (1000)
I0501 06:51:31.982496  2243 net.cpp:139] Memory required for data: 12292000
I0501 06:51:31.982501  2243 layer_factory.hpp:77] Creating layer label_cifar_1_split
I0501 06:51:31.982512  2243 net.cpp:86] Creating Layer label_cifar_1_split
I0501 06:51:31.982517  2243 net.cpp:408] label_cifar_1_split <- label
I0501 06:51:31.982523  2243 net.cpp:382] label_cifar_1_split -> label_cifar_1_split_0
I0501 06:51:31.982530  2243 net.cpp:382] label_cifar_1_split -> label_cifar_1_split_1
I0501 06:51:31.982635  2243 net.cpp:124] Setting up label_cifar_1_split
I0501 06:51:31.982642  2243 net.cpp:131] Top shape: 1000 (1000)
I0501 06:51:31.982646  2243 net.cpp:131] Top shape: 1000 (1000)
I0501 06:51:31.982650  2243 net.cpp:139] Memory required for data: 12300000
I0501 06:51:31.982652  2243 layer_factory.hpp:77] Creating layer conv0
I0501 06:51:31.982666  2243 net.cpp:86] Creating Layer conv0
I0501 06:51:31.982671  2243 net.cpp:408] conv0 <- data
I0501 06:51:31.982676  2243 net.cpp:382] conv0 -> conv0
I0501 06:51:31.984268  2243 net.cpp:124] Setting up conv0
I0501 06:51:31.984282  2243 net.cpp:131] Top shape: 1000 8 32 32 (8192000)
I0501 06:51:31.984300  2243 net.cpp:139] Memory required for data: 45068000
I0501 06:51:31.984310  2243 layer_factory.hpp:77] Creating layer Sigmoid0
I0501 06:51:31.984318  2243 net.cpp:86] Creating Layer Sigmoid0
I0501 06:51:31.984320  2243 net.cpp:408] Sigmoid0 <- conv0
I0501 06:51:31.984325  2243 net.cpp:382] Sigmoid0 -> Sigmoid0
I0501 06:51:31.984530  2243 net.cpp:124] Setting up Sigmoid0
I0501 06:51:31.984541  2243 net.cpp:131] Top shape: 1000 8 32 32 (8192000)
I0501 06:51:31.984544  2243 net.cpp:139] Memory required for data: 77836000
I0501 06:51:31.984547  2243 layer_factory.hpp:77] Creating layer pool0
I0501 06:51:31.984555  2243 net.cpp:86] Creating Layer pool0
I0501 06:51:31.984558  2243 net.cpp:408] pool0 <- Sigmoid0
I0501 06:51:31.984562  2243 net.cpp:382] pool0 -> pool0
I0501 06:51:31.985770  2243 net.cpp:124] Setting up pool0
I0501 06:51:31.985780  2243 net.cpp:131] Top shape: 1000 8 16 16 (2048000)
I0501 06:51:31.985803  2243 net.cpp:139] Memory required for data: 86028000
I0501 06:51:31.985807  2243 layer_factory.hpp:77] Creating layer ip1
I0501 06:51:31.985816  2243 net.cpp:86] Creating Layer ip1
I0501 06:51:31.985821  2243 net.cpp:408] ip1 <- pool0
I0501 06:51:31.985824  2243 net.cpp:382] ip1 -> ip1
I0501 06:51:31.994962  2243 net.cpp:124] Setting up ip1
I0501 06:51:31.994974  2243 net.cpp:131] Top shape: 1000 160 (160000)
I0501 06:51:31.994993  2243 net.cpp:139] Memory required for data: 86668000
I0501 06:51:31.995015  2243 layer_factory.hpp:77] Creating layer relu1
I0501 06:51:31.995023  2243 net.cpp:86] Creating Layer relu1
I0501 06:51:31.995026  2243 net.cpp:408] relu1 <- ip1
I0501 06:51:31.995046  2243 net.cpp:369] relu1 -> ip1 (in-place)
I0501 06:51:31.995220  2243 net.cpp:124] Setting up relu1
I0501 06:51:31.995229  2243 net.cpp:131] Top shape: 1000 160 (160000)
I0501 06:51:31.995232  2243 net.cpp:139] Memory required for data: 87308000
I0501 06:51:31.995236  2243 layer_factory.hpp:77] Creating layer ip2
I0501 06:51:31.995244  2243 net.cpp:86] Creating Layer ip2
I0501 06:51:31.995247  2243 net.cpp:408] ip2 <- ip1
I0501 06:51:31.995252  2243 net.cpp:382] ip2 -> ip2
I0501 06:51:31.996021  2243 net.cpp:124] Setting up ip2
I0501 06:51:31.996028  2243 net.cpp:131] Top shape: 1000 160 (160000)
I0501 06:51:31.996031  2243 net.cpp:139] Memory required for data: 87948000
I0501 06:51:31.996054  2243 layer_factory.hpp:77] Creating layer relu2
I0501 06:51:31.996060  2243 net.cpp:86] Creating Layer relu2
I0501 06:51:31.996063  2243 net.cpp:408] relu2 <- ip2
I0501 06:51:31.996068  2243 net.cpp:369] relu2 -> ip2 (in-place)
I0501 06:51:31.996855  2243 net.cpp:124] Setting up relu2
I0501 06:51:31.996882  2243 net.cpp:131] Top shape: 1000 160 (160000)
I0501 06:51:31.996886  2243 net.cpp:139] Memory required for data: 88588000
I0501 06:51:31.996906  2243 layer_factory.hpp:77] Creating layer ip3
I0501 06:51:31.996914  2243 net.cpp:86] Creating Layer ip3
I0501 06:51:31.996925  2243 net.cpp:408] ip3 <- ip2
I0501 06:51:31.996930  2243 net.cpp:382] ip3 -> ip3
I0501 06:51:31.997763  2243 net.cpp:124] Setting up ip3
I0501 06:51:31.997771  2243 net.cpp:131] Top shape: 1000 160 (160000)
I0501 06:51:31.997788  2243 net.cpp:139] Memory required for data: 89228000
I0501 06:51:31.997794  2243 layer_factory.hpp:77] Creating layer relu3
I0501 06:51:31.997799  2243 net.cpp:86] Creating Layer relu3
I0501 06:51:31.997802  2243 net.cpp:408] relu3 <- ip3
I0501 06:51:31.997807  2243 net.cpp:369] relu3 -> ip3 (in-place)
I0501 06:51:31.997974  2243 net.cpp:124] Setting up relu3
I0501 06:51:31.997982  2243 net.cpp:131] Top shape: 1000 160 (160000)
I0501 06:51:31.997985  2243 net.cpp:139] Memory required for data: 89868000
I0501 06:51:31.997988  2243 layer_factory.hpp:77] Creating layer ip4
I0501 06:51:31.997994  2243 net.cpp:86] Creating Layer ip4
I0501 06:51:31.997997  2243 net.cpp:408] ip4 <- ip3
I0501 06:51:31.998003  2243 net.cpp:382] ip4 -> ip4
I0501 06:51:31.998162  2243 net.cpp:124] Setting up ip4
I0501 06:51:31.998169  2243 net.cpp:131] Top shape: 1000 10 (10000)
I0501 06:51:31.998172  2243 net.cpp:139] Memory required for data: 89908000
I0501 06:51:31.998181  2243 layer_factory.hpp:77] Creating layer ip4_ip4_0_split
I0501 06:51:31.998186  2243 net.cpp:86] Creating Layer ip4_ip4_0_split
I0501 06:51:31.998188  2243 net.cpp:408] ip4_ip4_0_split <- ip4
I0501 06:51:31.998193  2243 net.cpp:382] ip4_ip4_0_split -> ip4_ip4_0_split_0
I0501 06:51:31.998198  2243 net.cpp:382] ip4_ip4_0_split -> ip4_ip4_0_split_1
I0501 06:51:31.998230  2243 net.cpp:124] Setting up ip4_ip4_0_split
I0501 06:51:31.998236  2243 net.cpp:131] Top shape: 1000 10 (10000)
I0501 06:51:31.998240  2243 net.cpp:131] Top shape: 1000 10 (10000)
I0501 06:51:31.998244  2243 net.cpp:139] Memory required for data: 89988000
I0501 06:51:31.998246  2243 layer_factory.hpp:77] Creating layer accuracy
I0501 06:51:31.998256  2243 net.cpp:86] Creating Layer accuracy
I0501 06:51:31.998260  2243 net.cpp:408] accuracy <- ip4_ip4_0_split_0
I0501 06:51:31.998263  2243 net.cpp:408] accuracy <- label_cifar_1_split_0
I0501 06:51:31.998267  2243 net.cpp:382] accuracy -> accuracy
…
