…
I0501 04:58:11.916651 27208 net.cpp:296] The NetState phase (0) differed from the phase (1) specified by a rule in layer cifar
I0501 04:58:11.916669 27208 net.cpp:296] The NetState phase (0) differed from the phase (1) specified by a rule in layer accuracy
I0501 04:58:11.916777 27208 net.cpp:53] Initializing net from parameters: 
name: "CIFAR"
state {
  phase: TRAIN
  level: 0
  stage: ""
}
layer {
  name: "cifar"
  type: "Data"
  top: "data"
  top: "label"
  include {
    phase: TRAIN
  }
  transform_param {
    mean_file: "examples/cifar10/mean.binaryproto"
  }
  data_param {
    source: "examples/cifar10/cifar10_train_lmdb"
    batch_size: 111
    backend: LMDB
  }
}
layer {
  name: "conv0"
  type: "Convolution"
  bottom: "data"
  top: "conv0"
  param {
    lr_mult: 1
  }
  param {
    lr_mult: 2
  }
  convolution_param {
    num_output: 8
    pad: 2
    kernel_size: 5
    stride: 1
    weight_filler {
      type: "gaussian"
      std: 0.01
    }
    bias_filler {
      type: "constant"
    }
  }
}
layer {
  name: "Sigmoid0"
  type: "Sigmoid"
  bottom: "conv0"
  top: "Sigmoid0"
}
layer {
  name: "pool0"
  type: "Pooling"
  bottom: "Sigmoid0"
  top: "pool0"
  pooling_param {
    pool: AVE
    kernel_size: 3
    stride: 2
  }
}
layer {
  name: "ip1"
  type: "InnerProduct"
  bottom: "pool0"
  top: "ip1"
  param {
    lr_mult: 1
  }
  param {
    lr_mult: 2
  }
  inner_product_param {
    num_output: 40
    weight_filler {
      type: "gaussian"
      std: 0.01
    }
    bias_filler {
      type: "constant"
    }
  }
}
layer {
  name: "relu1"
  type: "ReLU"
  bottom: "ip1"
  top: "ip1"
}
layer {
  name: "ip2"
  type: "InnerProduct"
  bottom: "ip1"
  top: "ip2"
  param {
    lr_mult: 1
  }
  param {
    lr_mult: 2
  }
  inner_product_param {
    num_output: 40
    weight_filler {
      type: "gaussian"
      std: 0.01
    }
    bias_filler {
      type: "constant"
    }
  }
}
layer {
  name: "relu2"
  type: "ReLU"
  bottom: "ip2"
  top: "ip2"
}
layer {
  name: "ip3"
  type: "InnerProduct"
  bottom: "ip2"
  top: "ip3"
  param {
    lr_mult: 1
  }
  param {
    lr_mult: 2
  }
  inner_product_param {
    num_output: 80
    weight_filler {
      type: "gaussian"
      std: 0.01
    }
    bias_filler {
      type: "constant"
    }
  }
}
layer {
  name: "relu3"
  type: "ReLU"
  bottom: "ip3"
  top: "ip3"
}
layer {
  name: "ip4"
  type: "InnerProduct"
  bottom: "ip3"
  top: "ip4"
  param {
    lr_mult: 1
  }
  param {
    lr_mult: 2
  }
  inner_product_param {
    num_output: 10
    weight_filler {
      type: "gaussian"
      std: 0.01
    }
    bias_filler {
      type: "constant"
    }
  }
}
layer {
  name: "loss"
  type: "SoftmaxWithLoss"
  bottom: "ip4"
  bottom: "label"
  top: "loss"
}
I0501 04:58:11.916864 27208 layer_factory.hpp:77] Creating layer cifar
I0501 04:58:11.916963 27208 db_lmdb.cpp:35] Opened lmdb examples/cifar10/cifar10_train_lmdb
I0501 04:58:11.916991 27208 net.cpp:86] Creating Layer cifar
I0501 04:58:11.917001 27208 net.cpp:382] cifar -> data
I0501 04:58:11.917023 27208 net.cpp:382] cifar -> label
I0501 04:58:11.917034 27208 data_transformer.cpp:25] Loading mean file from: examples/cifar10/mean.binaryproto
I0501 04:58:11.919194 27208 data_layer.cpp:45] output data size: 111,3,32,32
I0501 04:58:11.927116 27208 net.cpp:124] Setting up cifar
I0501 04:58:11.927135 27208 net.cpp:131] Top shape: 111 3 32 32 (340992)
I0501 04:58:11.927142 27208 net.cpp:131] Top shape: 111 (111)
I0501 04:58:11.927145 27208 net.cpp:139] Memory required for data: 1364412
I0501 04:58:11.927168 27208 layer_factory.hpp:77] Creating layer conv0
I0501 04:58:11.927186 27208 net.cpp:86] Creating Layer conv0
I0501 04:58:11.927192 27208 net.cpp:408] conv0 <- data
I0501 04:58:11.927206 27208 net.cpp:382] conv0 -> conv0
I0501 04:58:12.187909 27208 net.cpp:124] Setting up conv0
I0501 04:58:12.187952 27208 net.cpp:131] Top shape: 111 8 32 32 (909312)
I0501 04:58:12.187955 27208 net.cpp:139] Memory required for data: 5001660
I0501 04:58:12.187969 27208 layer_factory.hpp:77] Creating layer Sigmoid0
I0501 04:58:12.187981 27208 net.cpp:86] Creating Layer Sigmoid0
I0501 04:58:12.187985 27208 net.cpp:408] Sigmoid0 <- conv0
I0501 04:58:12.187990 27208 net.cpp:382] Sigmoid0 -> Sigmoid0
I0501 04:58:12.188166 27208 net.cpp:124] Setting up Sigmoid0
I0501 04:58:12.188176 27208 net.cpp:131] Top shape: 111 8 32 32 (909312)
I0501 04:58:12.188179 27208 net.cpp:139] Memory required for data: 8638908
I0501 04:58:12.188184 27208 layer_factory.hpp:77] Creating layer pool0
I0501 04:58:12.188190 27208 net.cpp:86] Creating Layer pool0
I0501 04:58:12.188194 27208 net.cpp:408] pool0 <- Sigmoid0
I0501 04:58:12.188197 27208 net.cpp:382] pool0 -> pool0
I0501 04:58:12.188913 27208 net.cpp:124] Setting up pool0
I0501 04:58:12.188941 27208 net.cpp:131] Top shape: 111 8 16 16 (227328)
I0501 04:58:12.188946 27208 net.cpp:139] Memory required for data: 9548220
I0501 04:58:12.188948 27208 layer_factory.hpp:77] Creating layer ip1
I0501 04:58:12.188957 27208 net.cpp:86] Creating Layer ip1
I0501 04:58:12.188961 27208 net.cpp:408] ip1 <- pool0
I0501 04:58:12.188966 27208 net.cpp:382] ip1 -> ip1
I0501 04:58:12.191201 27208 net.cpp:124] Setting up ip1
I0501 04:58:12.191210 27208 net.cpp:131] Top shape: 111 40 (4440)
I0501 04:58:12.191212 27208 net.cpp:139] Memory required for data: 9565980
I0501 04:58:12.191220 27208 layer_factory.hpp:77] Creating layer relu1
I0501 04:58:12.191241 27208 net.cpp:86] Creating Layer relu1
I0501 04:58:12.191243 27208 net.cpp:408] relu1 <- ip1
I0501 04:58:12.191247 27208 net.cpp:369] relu1 -> ip1 (in-place)
I0501 04:58:12.191407 27208 net.cpp:124] Setting up relu1
I0501 04:58:12.191416 27208 net.cpp:131] Top shape: 111 40 (4440)
I0501 04:58:12.191419 27208 net.cpp:139] Memory required for data: 9583740
I0501 04:58:12.191422 27208 layer_factory.hpp:77] Creating layer ip2
I0501 04:58:12.191428 27208 net.cpp:86] Creating Layer ip2
I0501 04:58:12.191431 27208 net.cpp:408] ip2 <- ip1
I0501 04:58:12.191437 27208 net.cpp:382] ip2 -> ip2
I0501 04:58:12.191577 27208 net.cpp:124] Setting up ip2
I0501 04:58:12.191584 27208 net.cpp:131] Top shape: 111 40 (4440)
I0501 04:58:12.191587 27208 net.cpp:139] Memory required for data: 9601500
I0501 04:58:12.191594 27208 layer_factory.hpp:77] Creating layer relu2
I0501 04:58:12.191599 27208 net.cpp:86] Creating Layer relu2
I0501 04:58:12.191602 27208 net.cpp:408] relu2 <- ip2
I0501 04:58:12.191606 27208 net.cpp:369] relu2 -> ip2 (in-place)
I0501 04:58:12.191745 27208 net.cpp:124] Setting up relu2
I0501 04:58:12.191753 27208 net.cpp:131] Top shape: 111 40 (4440)
I0501 04:58:12.191756 27208 net.cpp:139] Memory required for data: 9619260
I0501 04:58:12.191759 27208 layer_factory.hpp:77] Creating layer ip3
I0501 04:58:12.191766 27208 net.cpp:86] Creating Layer ip3
I0501 04:58:12.191769 27208 net.cpp:408] ip3 <- ip2
I0501 04:58:12.191774 27208 net.cpp:382] ip3 -> ip3
I0501 04:58:12.191941 27208 net.cpp:124] Setting up ip3
I0501 04:58:12.191948 27208 net.cpp:131] Top shape: 111 80 (8880)
I0501 04:58:12.191951 27208 net.cpp:139] Memory required for data: 9654780
I0501 04:58:12.191956 27208 layer_factory.hpp:77] Creating layer relu3
I0501 04:58:12.191962 27208 net.cpp:86] Creating Layer relu3
I0501 04:58:12.191964 27208 net.cpp:408] relu3 <- ip3
I0501 04:58:12.191968 27208 net.cpp:369] relu3 -> ip3 (in-place)
I0501 04:58:12.192102 27208 net.cpp:124] Setting up relu3
I0501 04:58:12.192111 27208 net.cpp:131] Top shape: 111 80 (8880)
I0501 04:58:12.192113 27208 net.cpp:139] Memory required for data: 9690300
I0501 04:58:12.192116 27208 layer_factory.hpp:77] Creating layer ip4
I0501 04:58:12.192136 27208 net.cpp:86] Creating Layer ip4
I0501 04:58:12.192142 27208 net.cpp:408] ip4 <- ip3
I0501 04:58:12.192162 27208 net.cpp:382] ip4 -> ip4
I0501 04:58:12.192271 27208 net.cpp:124] Setting up ip4
I0501 04:58:12.192278 27208 net.cpp:131] Top shape: 111 10 (1110)
I0501 04:58:12.192281 27208 net.cpp:139] Memory required for data: 9694740
I0501 04:58:12.192288 27208 layer_factory.hpp:77] Creating layer loss
I0501 04:58:12.192294 27208 net.cpp:86] Creating Layer loss
I0501 04:58:12.192297 27208 net.cpp:408] loss <- ip4
I0501 04:58:12.192301 27208 net.cpp:408] loss <- label
I0501 04:58:12.192306 27208 net.cpp:382] loss -> loss
I0501 04:58:12.192338 27208 layer_factory.hpp:77] Creating layer loss
…
I0501 04:58:12.193524 27208 solver.cpp:173] Creating test net (#0) specified by net file: ECE595/cifar/train_test/var_everything/cifar_train_test_403.prototxt
I0501 04:58:12.193552 27208 net.cpp:296] The NetState phase (1) differed from the phase (0) specified by a rule in layer cifar
I0501 04:58:12.193645 27208 net.cpp:53] Initializing net from parameters: 
name: "CIFAR"
state {
  phase: TEST
}
layer {
  name: "cifar"
  type: "Data"
  top: "data"
  top: "label"
  include {
    phase: TEST
  }
  transform_param {
    mean_file: "examples/cifar10/mean.binaryproto"
  }
  data_param {
    source: "examples/cifar10/cifar10_test_lmdb"
    batch_size: 1000
    backend: LMDB
  }
}
layer {
  name: "conv0"
  type: "Convolution"
  bottom: "data"
  top: "conv0"
  param {
    lr_mult: 1
  }
  param {
    lr_mult: 2
  }
  convolution_param {
    num_output: 8
    pad: 2
    kernel_size: 5
    stride: 1
    weight_filler {
      type: "gaussian"
      std: 0.01
    }
    bias_filler {
      type: "constant"
    }
  }
}
layer {
  name: "Sigmoid0"
  type: "Sigmoid"
  bottom: "conv0"
  top: "Sigmoid0"
}
layer {
  name: "pool0"
  type: "Pooling"
  bottom: "Sigmoid0"
  top: "pool0"
  pooling_param {
    pool: AVE
    kernel_size: 3
    stride: 2
  }
}
layer {
  name: "ip1"
  type: "InnerProduct"
  bottom: "pool0"
  top: "ip1"
  param {
    lr_mult: 1
  }
  param {
    lr_mult: 2
  }
  inner_product_param {
    num_output: 40
    weight_filler {
      type: "gaussian"
      std: 0.01
    }
    bias_filler {
      type: "constant"
    }
  }
}
layer {
  name: "relu1"
  type: "ReLU"
  bottom: "ip1"
  top: "ip1"
}
layer {
  name: "ip2"
  type: "InnerProduct"
  bottom: "ip1"
  top: "ip2"
  param {
    lr_mult: 1
  }
  param {
    lr_mult: 2
  }
  inner_product_param {
    num_output: 40
    weight_filler {
      type: "gaussian"
      std: 0.01
    }
    bias_filler {
      type: "constant"
    }
  }
}
layer {
  name: "relu2"
  type: "ReLU"
  bottom: "ip2"
  top: "ip2"
}
layer {
  name: "ip3"
  type: "InnerProduct"
  bottom: "ip2"
  top: "ip3"
  param {
    lr_mult: 1
  }
  param {
    lr_mult: 2
  }
  inner_product_param {
    num_output: 80
    weight_filler {
      type: "gaussian"
      std: 0.01
    }
    bias_filler {
      type: "constant"
    }
  }
}
layer {
  name: "relu3"
  type: "ReLU"
  bottom: "ip3"
  top: "ip3"
}
layer {
  name: "ip4"
  type: "InnerProduct"
  bottom: "ip3"
  top: "ip4"
  param {
    lr_mult: 1
  }
  param {
    lr_mult: 2
  }
  inner_product_param {
    num_output: 10
    weight_filler {
      type: "gaussian"
      std: 0.01
    }
    bias_filler {
      type: "constant"
    }
  }
}
layer {
  name: "accuracy"
  type: "Accuracy"
  bottom: "ip4"
  bottom: "label"
  top: "accuracy"
  include {
    phase: TEST
  }
}
layer {
  name: "loss"
  type: "SoftmaxWithLoss"
  bottom: "ip4"
  bottom: "label"
  top: "loss"
}
I0501 04:58:12.193734 27208 layer_factory.hpp:77] Creating layer cifar
I0501 04:58:12.193776 27208 db_lmdb.cpp:35] Opened lmdb examples/cifar10/cifar10_test_lmdb
I0501 04:58:12.193789 27208 net.cpp:86] Creating Layer cifar
I0501 04:58:12.193792 27208 net.cpp:382] cifar -> data
I0501 04:58:12.193800 27208 net.cpp:382] cifar -> label
I0501 04:58:12.193806 27208 data_transformer.cpp:25] Loading mean file from: examples/cifar10/mean.binaryproto
I0501 04:58:12.193938 27208 data_layer.cpp:45] output data size: 1000,3,32,32
I0501 04:58:12.215360 27208 net.cpp:124] Setting up cifar
I0501 04:58:12.215386 27208 net.cpp:131] Top shape: 1000 3 32 32 (3072000)
I0501 04:58:12.215392 27208 net.cpp:131] Top shape: 1000 (1000)
I0501 04:58:12.215395 27208 net.cpp:139] Memory required for data: 12292000
I0501 04:58:12.215401 27208 layer_factory.hpp:77] Creating layer label_cifar_1_split
I0501 04:58:12.215430 27208 net.cpp:86] Creating Layer label_cifar_1_split
I0501 04:58:12.215450 27208 net.cpp:408] label_cifar_1_split <- label
I0501 04:58:12.215456 27208 net.cpp:382] label_cifar_1_split -> label_cifar_1_split_0
I0501 04:58:12.215463 27208 net.cpp:382] label_cifar_1_split -> label_cifar_1_split_1
I0501 04:58:12.215535 27208 net.cpp:124] Setting up label_cifar_1_split
I0501 04:58:12.215543 27208 net.cpp:131] Top shape: 1000 (1000)
I0501 04:58:12.215548 27208 net.cpp:131] Top shape: 1000 (1000)
I0501 04:58:12.215549 27208 net.cpp:139] Memory required for data: 12300000
I0501 04:58:12.215553 27208 layer_factory.hpp:77] Creating layer conv0
I0501 04:58:12.215564 27208 net.cpp:86] Creating Layer conv0
I0501 04:58:12.215567 27208 net.cpp:408] conv0 <- data
I0501 04:58:12.215572 27208 net.cpp:382] conv0 -> conv0
I0501 04:58:12.217155 27208 net.cpp:124] Setting up conv0
I0501 04:58:12.217170 27208 net.cpp:131] Top shape: 1000 8 32 32 (8192000)
I0501 04:58:12.217173 27208 net.cpp:139] Memory required for data: 45068000
I0501 04:58:12.217181 27208 layer_factory.hpp:77] Creating layer Sigmoid0
I0501 04:58:12.217202 27208 net.cpp:86] Creating Layer Sigmoid0
I0501 04:58:12.217206 27208 net.cpp:408] Sigmoid0 <- conv0
I0501 04:58:12.217211 27208 net.cpp:382] Sigmoid0 -> Sigmoid0
I0501 04:58:12.217384 27208 net.cpp:124] Setting up Sigmoid0
I0501 04:58:12.217394 27208 net.cpp:131] Top shape: 1000 8 32 32 (8192000)
I0501 04:58:12.217397 27208 net.cpp:139] Memory required for data: 77836000
I0501 04:58:12.217401 27208 layer_factory.hpp:77] Creating layer pool0
I0501 04:58:12.217407 27208 net.cpp:86] Creating Layer pool0
I0501 04:58:12.217411 27208 net.cpp:408] pool0 <- Sigmoid0
I0501 04:58:12.217416 27208 net.cpp:382] pool0 -> pool0
I0501 04:58:12.217572 27208 net.cpp:124] Setting up pool0
I0501 04:58:12.217582 27208 net.cpp:131] Top shape: 1000 8 16 16 (2048000)
I0501 04:58:12.217599 27208 net.cpp:139] Memory required for data: 86028000
I0501 04:58:12.217602 27208 layer_factory.hpp:77] Creating layer ip1
I0501 04:58:12.217609 27208 net.cpp:86] Creating Layer ip1
I0501 04:58:12.217612 27208 net.cpp:408] ip1 <- pool0
I0501 04:58:12.217617 27208 net.cpp:382] ip1 -> ip1
I0501 04:58:12.219878 27208 net.cpp:124] Setting up ip1
I0501 04:58:12.219888 27208 net.cpp:131] Top shape: 1000 40 (40000)
I0501 04:58:12.219892 27208 net.cpp:139] Memory required for data: 86188000
I0501 04:58:12.219928 27208 layer_factory.hpp:77] Creating layer relu1
I0501 04:58:12.219934 27208 net.cpp:86] Creating Layer relu1
I0501 04:58:12.219938 27208 net.cpp:408] relu1 <- ip1
I0501 04:58:12.219943 27208 net.cpp:369] relu1 -> ip1 (in-place)
I0501 04:58:12.220100 27208 net.cpp:124] Setting up relu1
I0501 04:58:12.220109 27208 net.cpp:131] Top shape: 1000 40 (40000)
I0501 04:58:12.220113 27208 net.cpp:139] Memory required for data: 86348000
I0501 04:58:12.220115 27208 layer_factory.hpp:77] Creating layer ip2
I0501 04:58:12.220121 27208 net.cpp:86] Creating Layer ip2
I0501 04:58:12.220139 27208 net.cpp:408] ip2 <- ip1
I0501 04:58:12.220144 27208 net.cpp:382] ip2 -> ip2
I0501 04:58:12.220293 27208 net.cpp:124] Setting up ip2
I0501 04:58:12.220301 27208 net.cpp:131] Top shape: 1000 40 (40000)
I0501 04:58:12.220304 27208 net.cpp:139] Memory required for data: 86508000
I0501 04:58:12.220311 27208 layer_factory.hpp:77] Creating layer relu2
I0501 04:58:12.220316 27208 net.cpp:86] Creating Layer relu2
I0501 04:58:12.220319 27208 net.cpp:408] relu2 <- ip2
I0501 04:58:12.220324 27208 net.cpp:369] relu2 -> ip2 (in-place)
I0501 04:58:12.221120 27208 net.cpp:124] Setting up relu2
I0501 04:58:12.221132 27208 net.cpp:131] Top shape: 1000 40 (40000)
I0501 04:58:12.221138 27208 net.cpp:139] Memory required for data: 86668000
I0501 04:58:12.221140 27208 layer_factory.hpp:77] Creating layer ip3
I0501 04:58:12.221148 27208 net.cpp:86] Creating Layer ip3
I0501 04:58:12.221165 27208 net.cpp:408] ip3 <- ip2
I0501 04:58:12.221170 27208 net.cpp:382] ip3 -> ip3
I0501 04:58:12.221371 27208 net.cpp:124] Setting up ip3
I0501 04:58:12.221379 27208 net.cpp:131] Top shape: 1000 80 (80000)
I0501 04:58:12.221382 27208 net.cpp:139] Memory required for data: 86988000
I0501 04:58:12.221387 27208 layer_factory.hpp:77] Creating layer relu3
I0501 04:58:12.221392 27208 net.cpp:86] Creating Layer relu3
I0501 04:58:12.221395 27208 net.cpp:408] relu3 <- ip3
I0501 04:58:12.221398 27208 net.cpp:369] relu3 -> ip3 (in-place)
I0501 04:58:12.221541 27208 net.cpp:124] Setting up relu3
I0501 04:58:12.221549 27208 net.cpp:131] Top shape: 1000 80 (80000)
I0501 04:58:12.221551 27208 net.cpp:139] Memory required for data: 87308000
I0501 04:58:12.221555 27208 layer_factory.hpp:77] Creating layer ip4
I0501 04:58:12.221570 27208 net.cpp:86] Creating Layer ip4
I0501 04:58:12.221573 27208 net.cpp:408] ip4 <- ip3
I0501 04:58:12.221577 27208 net.cpp:382] ip4 -> ip4
I0501 04:58:12.221707 27208 net.cpp:124] Setting up ip4
I0501 04:58:12.221714 27208 net.cpp:131] Top shape: 1000 10 (10000)
I0501 04:58:12.221719 27208 net.cpp:139] Memory required for data: 87348000
I0501 04:58:12.221726 27208 layer_factory.hpp:77] Creating layer ip4_ip4_0_split
I0501 04:58:12.221738 27208 net.cpp:86] Creating Layer ip4_ip4_0_split
I0501 04:58:12.221741 27208 net.cpp:408] ip4_ip4_0_split <- ip4
I0501 04:58:12.221745 27208 net.cpp:382] ip4_ip4_0_split -> ip4_ip4_0_split_0
I0501 04:58:12.221750 27208 net.cpp:382] ip4_ip4_0_split -> ip4_ip4_0_split_1
I0501 04:58:12.221781 27208 net.cpp:124] Setting up ip4_ip4_0_split
I0501 04:58:12.221786 27208 net.cpp:131] Top shape: 1000 10 (10000)
I0501 04:58:12.221789 27208 net.cpp:131] Top shape: 1000 10 (10000)
I0501 04:58:12.221792 27208 net.cpp:139] Memory required for data: 87428000
I0501 04:58:12.221796 27208 layer_factory.hpp:77] Creating layer accuracy
I0501 04:58:12.221801 27208 net.cpp:86] Creating Layer accuracy
I0501 04:58:12.221803 27208 net.cpp:408] accuracy <- ip4_ip4_0_split_0
I0501 04:58:12.221807 27208 net.cpp:408] accuracy <- label_cifar_1_split_0
I0501 04:58:12.221812 27208 net.cpp:382] accuracy -> accuracy
…
