…
I0430 21:18:10.774958 30545 net.cpp:296] The NetState phase (0) differed from the phase (1) specified by a rule in layer cifar
I0430 21:18:10.774973 30545 net.cpp:296] The NetState phase (0) differed from the phase (1) specified by a rule in layer accuracy
I0430 21:18:10.775055 30545 net.cpp:53] Initializing net from parameters: 
name: "CIFAR"
state {
  phase: TRAIN
  level: 0
  stage: ""
}
layer {
  name: "cifar"
  type: "Data"
  top: "data"
  top: "label"
  include {
    phase: TRAIN
  }
  transform_param {
    mean_file: "examples/cifar10/mean.binaryproto"
  }
  data_param {
    source: "examples/cifar10/cifar10_train_lmdb"
    batch_size: 111
    backend: LMDB
  }
}
layer {
  name: "conv0"
  type: "Convolution"
  bottom: "data"
  top: "conv0"
  param {
    lr_mult: 1
  }
  param {
    lr_mult: 2
  }
  convolution_param {
    num_output: 8
    pad: 2
    kernel_size: 3
    stride: 1
    weight_filler {
      type: "gaussian"
      std: 0.01
    }
    bias_filler {
      type: "constant"
    }
  }
}
layer {
  name: "Sigmoid0"
  type: "Sigmoid"
  bottom: "conv0"
  top: "Sigmoid0"
}
layer {
  name: "pool0"
  type: "Pooling"
  bottom: "Sigmoid0"
  top: "pool0"
  pooling_param {
    pool: AVE
    kernel_size: 3
    stride: 2
  }
}
layer {
  name: "ip1"
  type: "InnerProduct"
  bottom: "pool0"
  top: "ip1"
  param {
    lr_mult: 1
  }
  param {
    lr_mult: 2
  }
  inner_product_param {
    num_output: 40
    weight_filler {
      type: "gaussian"
      std: 0.01
    }
    bias_filler {
      type: "constant"
    }
  }
}
layer {
  name: "relu1"
  type: "ReLU"
  bottom: "ip1"
  top: "ip1"
}
layer {
  name: "ip2"
  type: "InnerProduct"
  bottom: "ip1"
  top: "ip2"
  param {
    lr_mult: 1
  }
  param {
    lr_mult: 2
  }
  inner_product_param {
    num_output: 10
    weight_filler {
      type: "gaussian"
      std: 0.01
    }
    bias_filler {
      type: "constant"
    }
  }
}
layer {
  name: "loss"
  type: "SoftmaxWithLoss"
  bottom: "ip2"
  bottom: "label"
  top: "loss"
}
I0430 21:18:10.775125 30545 layer_factory.hpp:77] Creating layer cifar
I0430 21:18:10.775223 30545 db_lmdb.cpp:35] Opened lmdb examples/cifar10/cifar10_train_lmdb
I0430 21:18:10.775249 30545 net.cpp:86] Creating Layer cifar
I0430 21:18:10.775259 30545 net.cpp:382] cifar -> data
I0430 21:18:10.775281 30545 net.cpp:382] cifar -> label
I0430 21:18:10.775293 30545 data_transformer.cpp:25] Loading mean file from: examples/cifar10/mean.binaryproto
I0430 21:18:10.777417 30545 data_layer.cpp:45] output data size: 111,3,32,32
I0430 21:18:10.785287 30545 net.cpp:124] Setting up cifar
I0430 21:18:10.785305 30545 net.cpp:131] Top shape: 111 3 32 32 (340992)
I0430 21:18:10.785311 30545 net.cpp:131] Top shape: 111 (111)
I0430 21:18:10.785315 30545 net.cpp:139] Memory required for data: 1364412
I0430 21:18:10.785322 30545 layer_factory.hpp:77] Creating layer conv0
I0430 21:18:10.785341 30545 net.cpp:86] Creating Layer conv0
I0430 21:18:10.785346 30545 net.cpp:408] conv0 <- data
I0430 21:18:10.785359 30545 net.cpp:382] conv0 -> conv0
I0430 21:18:11.069607 30545 net.cpp:124] Setting up conv0
I0430 21:18:11.069633 30545 net.cpp:131] Top shape: 111 8 34 34 (1026528)
I0430 21:18:11.069636 30545 net.cpp:139] Memory required for data: 5470524
I0430 21:18:11.069651 30545 layer_factory.hpp:77] Creating layer Sigmoid0
I0430 21:18:11.069664 30545 net.cpp:86] Creating Layer Sigmoid0
I0430 21:18:11.069666 30545 net.cpp:408] Sigmoid0 <- conv0
I0430 21:18:11.069671 30545 net.cpp:382] Sigmoid0 -> Sigmoid0
I0430 21:18:11.069861 30545 net.cpp:124] Setting up Sigmoid0
I0430 21:18:11.069871 30545 net.cpp:131] Top shape: 111 8 34 34 (1026528)
I0430 21:18:11.069875 30545 net.cpp:139] Memory required for data: 9576636
I0430 21:18:11.069878 30545 layer_factory.hpp:77] Creating layer pool0
I0430 21:18:11.069885 30545 net.cpp:86] Creating Layer pool0
I0430 21:18:11.069888 30545 net.cpp:408] pool0 <- Sigmoid0
I0430 21:18:11.069892 30545 net.cpp:382] pool0 -> pool0
I0430 21:18:11.070605 30545 net.cpp:124] Setting up pool0
I0430 21:18:11.070617 30545 net.cpp:131] Top shape: 111 8 17 17 (256632)
I0430 21:18:11.070622 30545 net.cpp:139] Memory required for data: 10603164
I0430 21:18:11.070626 30545 layer_factory.hpp:77] Creating layer ip1
I0430 21:18:11.070634 30545 net.cpp:86] Creating Layer ip1
I0430 21:18:11.070638 30545 net.cpp:408] ip1 <- pool0
I0430 21:18:11.070643 30545 net.cpp:382] ip1 -> ip1
I0430 21:18:11.073145 30545 net.cpp:124] Setting up ip1
I0430 21:18:11.073154 30545 net.cpp:131] Top shape: 111 40 (4440)
I0430 21:18:11.073158 30545 net.cpp:139] Memory required for data: 10620924
I0430 21:18:11.073164 30545 layer_factory.hpp:77] Creating layer relu1
I0430 21:18:11.073169 30545 net.cpp:86] Creating Layer relu1
I0430 21:18:11.073173 30545 net.cpp:408] relu1 <- ip1
I0430 21:18:11.073177 30545 net.cpp:369] relu1 -> ip1 (in-place)
I0430 21:18:11.073323 30545 net.cpp:124] Setting up relu1
I0430 21:18:11.073331 30545 net.cpp:131] Top shape: 111 40 (4440)
I0430 21:18:11.073334 30545 net.cpp:139] Memory required for data: 10638684
I0430 21:18:11.073338 30545 layer_factory.hpp:77] Creating layer ip2
I0430 21:18:11.073343 30545 net.cpp:86] Creating Layer ip2
I0430 21:18:11.073345 30545 net.cpp:408] ip2 <- ip1
I0430 21:18:11.073350 30545 net.cpp:382] ip2 -> ip2
I0430 21:18:11.074270 30545 net.cpp:124] Setting up ip2
I0430 21:18:11.074297 30545 net.cpp:131] Top shape: 111 10 (1110)
I0430 21:18:11.074301 30545 net.cpp:139] Memory required for data: 10643124
I0430 21:18:11.074309 30545 layer_factory.hpp:77] Creating layer loss
I0430 21:18:11.074316 30545 net.cpp:86] Creating Layer loss
I0430 21:18:11.074334 30545 net.cpp:408] loss <- ip2
I0430 21:18:11.074339 30545 net.cpp:408] loss <- label
I0430 21:18:11.074344 30545 net.cpp:382] loss -> loss
I0430 21:18:11.074359 30545 layer_factory.hpp:77] Creating layer loss
…
I0430 21:18:11.074930 30545 solver.cpp:173] Creating test net (#0) specified by net file: ECE595/cifar/train_test/var_everything/cifar_train_test_157.prototxt
I0430 21:18:11.074954 30545 net.cpp:296] The NetState phase (1) differed from the phase (0) specified by a rule in layer cifar
I0430 21:18:11.075026 30545 net.cpp:53] Initializing net from parameters: 
name: "CIFAR"
state {
  phase: TEST
}
layer {
  name: "cifar"
  type: "Data"
  top: "data"
  top: "label"
  include {
    phase: TEST
  }
  transform_param {
    mean_file: "examples/cifar10/mean.binaryproto"
  }
  data_param {
    source: "examples/cifar10/cifar10_test_lmdb"
    batch_size: 1000
    backend: LMDB
  }
}
layer {
  name: "conv0"
  type: "Convolution"
  bottom: "data"
  top: "conv0"
  param {
    lr_mult: 1
  }
  param {
    lr_mult: 2
  }
  convolution_param {
    num_output: 8
    pad: 2
    kernel_size: 3
    stride: 1
    weight_filler {
      type: "gaussian"
      std: 0.01
    }
    bias_filler {
      type: "constant"
    }
  }
}
layer {
  name: "Sigmoid0"
  type: "Sigmoid"
  bottom: "conv0"
  top: "Sigmoid0"
}
layer {
  name: "pool0"
  type: "Pooling"
  bottom: "Sigmoid0"
  top: "pool0"
  pooling_param {
    pool: AVE
    kernel_size: 3
    stride: 2
  }
}
layer {
  name: "ip1"
  type: "InnerProduct"
  bottom: "pool0"
  top: "ip1"
  param {
    lr_mult: 1
  }
  param {
    lr_mult: 2
  }
  inner_product_param {
    num_output: 40
    weight_filler {
      type: "gaussian"
      std: 0.01
    }
    bias_filler {
      type: "constant"
    }
  }
}
layer {
  name: "relu1"
  type: "ReLU"
  bottom: "ip1"
  top: "ip1"
}
layer {
  name: "ip2"
  type: "InnerProduct"
  bottom: "ip1"
  top: "ip2"
  param {
    lr_mult: 1
  }
  param {
    lr_mult: 2
  }
  inner_product_param {
    num_output: 10
    weight_filler {
      type: "gaussian"
      std: 0.01
    }
    bias_filler {
      type: "constant"
    }
  }
}
layer {
  name: "accuracy"
  type: "Accuracy"
  bottom: "ip2"
  bottom: "label"
  top: "accuracy"
  include {
    phase: TEST
  }
}
layer {
  name: "loss"
  type: "SoftmaxWithLoss"
  bottom: "ip2"
  bottom: "label"
  top: "loss"
}
I0430 21:18:11.075091 30545 layer_factory.hpp:77] Creating layer cifar
I0430 21:18:11.075137 30545 db_lmdb.cpp:35] Opened lmdb examples/cifar10/cifar10_test_lmdb
I0430 21:18:11.075150 30545 net.cpp:86] Creating Layer cifar
I0430 21:18:11.075153 30545 net.cpp:382] cifar -> data
I0430 21:18:11.075160 30545 net.cpp:382] cifar -> label
I0430 21:18:11.075166 30545 data_transformer.cpp:25] Loading mean file from: examples/cifar10/mean.binaryproto
I0430 21:18:11.075302 30545 data_layer.cpp:45] output data size: 1000,3,32,32
I0430 21:18:11.097002 30545 net.cpp:124] Setting up cifar
I0430 21:18:11.097043 30545 net.cpp:131] Top shape: 1000 3 32 32 (3072000)
I0430 21:18:11.097049 30545 net.cpp:131] Top shape: 1000 (1000)
I0430 21:18:11.097053 30545 net.cpp:139] Memory required for data: 12292000
I0430 21:18:11.097060 30545 layer_factory.hpp:77] Creating layer label_cifar_1_split
I0430 21:18:11.097072 30545 net.cpp:86] Creating Layer label_cifar_1_split
I0430 21:18:11.097076 30545 net.cpp:408] label_cifar_1_split <- label
I0430 21:18:11.097082 30545 net.cpp:382] label_cifar_1_split -> label_cifar_1_split_0
I0430 21:18:11.097090 30545 net.cpp:382] label_cifar_1_split -> label_cifar_1_split_1
I0430 21:18:11.097204 30545 net.cpp:124] Setting up label_cifar_1_split
I0430 21:18:11.097213 30545 net.cpp:131] Top shape: 1000 (1000)
I0430 21:18:11.097215 30545 net.cpp:131] Top shape: 1000 (1000)
I0430 21:18:11.097218 30545 net.cpp:139] Memory required for data: 12300000
I0430 21:18:11.097221 30545 layer_factory.hpp:77] Creating layer conv0
I0430 21:18:11.097234 30545 net.cpp:86] Creating Layer conv0
I0430 21:18:11.097236 30545 net.cpp:408] conv0 <- data
I0430 21:18:11.097242 30545 net.cpp:382] conv0 -> conv0
I0430 21:18:11.098865 30545 net.cpp:124] Setting up conv0
I0430 21:18:11.098893 30545 net.cpp:131] Top shape: 1000 8 34 34 (9248000)
I0430 21:18:11.098897 30545 net.cpp:139] Memory required for data: 49292000
I0430 21:18:11.098906 30545 layer_factory.hpp:77] Creating layer Sigmoid0
I0430 21:18:11.098914 30545 net.cpp:86] Creating Layer Sigmoid0
I0430 21:18:11.098917 30545 net.cpp:408] Sigmoid0 <- conv0
I0430 21:18:11.098922 30545 net.cpp:382] Sigmoid0 -> Sigmoid0
I0430 21:18:11.099088 30545 net.cpp:124] Setting up Sigmoid0
I0430 21:18:11.099097 30545 net.cpp:131] Top shape: 1000 8 34 34 (9248000)
I0430 21:18:11.099102 30545 net.cpp:139] Memory required for data: 86284000
I0430 21:18:11.099104 30545 layer_factory.hpp:77] Creating layer pool0
I0430 21:18:11.099112 30545 net.cpp:86] Creating Layer pool0
I0430 21:18:11.099115 30545 net.cpp:408] pool0 <- Sigmoid0
I0430 21:18:11.099119 30545 net.cpp:382] pool0 -> pool0
I0430 21:18:11.099930 30545 net.cpp:124] Setting up pool0
I0430 21:18:11.099968 30545 net.cpp:131] Top shape: 1000 8 17 17 (2312000)
I0430 21:18:11.099972 30545 net.cpp:139] Memory required for data: 95532000
I0430 21:18:11.099975 30545 layer_factory.hpp:77] Creating layer ip1
I0430 21:18:11.099983 30545 net.cpp:86] Creating Layer ip1
I0430 21:18:11.099987 30545 net.cpp:408] ip1 <- pool0
I0430 21:18:11.099992 30545 net.cpp:382] ip1 -> ip1
I0430 21:18:11.103427 30545 net.cpp:124] Setting up ip1
I0430 21:18:11.103437 30545 net.cpp:131] Top shape: 1000 40 (40000)
I0430 21:18:11.103456 30545 net.cpp:139] Memory required for data: 95692000
I0430 21:18:11.103479 30545 layer_factory.hpp:77] Creating layer relu1
I0430 21:18:11.103487 30545 net.cpp:86] Creating Layer relu1
I0430 21:18:11.103489 30545 net.cpp:408] relu1 <- ip1
I0430 21:18:11.103493 30545 net.cpp:369] relu1 -> ip1 (in-place)
I0430 21:18:11.103682 30545 net.cpp:124] Setting up relu1
I0430 21:18:11.103691 30545 net.cpp:131] Top shape: 1000 40 (40000)
I0430 21:18:11.103694 30545 net.cpp:139] Memory required for data: 95852000
I0430 21:18:11.103698 30545 layer_factory.hpp:77] Creating layer ip2
I0430 21:18:11.103703 30545 net.cpp:86] Creating Layer ip2
I0430 21:18:11.103708 30545 net.cpp:408] ip2 <- ip1
I0430 21:18:11.103713 30545 net.cpp:382] ip2 -> ip2
I0430 21:18:11.103822 30545 net.cpp:124] Setting up ip2
I0430 21:18:11.103830 30545 net.cpp:131] Top shape: 1000 10 (10000)
I0430 21:18:11.103833 30545 net.cpp:139] Memory required for data: 95892000
I0430 21:18:11.103840 30545 layer_factory.hpp:77] Creating layer ip2_ip2_0_split
I0430 21:18:11.103847 30545 net.cpp:86] Creating Layer ip2_ip2_0_split
I0430 21:18:11.103849 30545 net.cpp:408] ip2_ip2_0_split <- ip2
I0430 21:18:11.103868 30545 net.cpp:382] ip2_ip2_0_split -> ip2_ip2_0_split_0
I0430 21:18:11.103873 30545 net.cpp:382] ip2_ip2_0_split -> ip2_ip2_0_split_1
I0430 21:18:11.103902 30545 net.cpp:124] Setting up ip2_ip2_0_split
I0430 21:18:11.103909 30545 net.cpp:131] Top shape: 1000 10 (10000)
I0430 21:18:11.103914 30545 net.cpp:131] Top shape: 1000 10 (10000)
I0430 21:18:11.103915 30545 net.cpp:139] Memory required for data: 95972000
I0430 21:18:11.103919 30545 layer_factory.hpp:77] Creating layer accuracy
I0430 21:18:11.103924 30545 net.cpp:86] Creating Layer accuracy
I0430 21:18:11.103926 30545 net.cpp:408] accuracy <- ip2_ip2_0_split_0
I0430 21:18:11.103930 30545 net.cpp:408] accuracy <- label_cifar_1_split_0
I0430 21:18:11.103935 30545 net.cpp:382] accuracy -> accuracy
…
