…
I0501 07:03:05.018106  3292 net.cpp:296] The NetState phase (0) differed from the phase (1) specified by a rule in layer cifar
I0501 07:03:05.018121  3292 net.cpp:296] The NetState phase (0) differed from the phase (1) specified by a rule in layer accuracy
I0501 07:03:05.018193  3292 net.cpp:53] Initializing net from parameters: 
name: "CIFAR"
state {
  phase: TRAIN
  level: 0
  stage: ""
}
layer {
  name: "cifar"
  type: "Data"
  top: "data"
  top: "label"
  include {
    phase: TRAIN
  }
  transform_param {
    mean_file: "examples/cifar10/mean.binaryproto"
  }
  data_param {
    source: "examples/cifar10/cifar10_train_lmdb"
    batch_size: 111
    backend: LMDB
  }
}
layer {
  name: "conv0"
  type: "Convolution"
  bottom: "data"
  top: "conv0"
  param {
    lr_mult: 1
  }
  param {
    lr_mult: 2
  }
  convolution_param {
    num_output: 16
    pad: 2
    kernel_size: 3
    stride: 1
    weight_filler {
      type: "gaussian"
      std: 0.01
    }
    bias_filler {
      type: "constant"
    }
  }
}
layer {
  name: "Sigmoid0"
  type: "Sigmoid"
  bottom: "conv0"
  top: "Sigmoid0"
}
layer {
  name: "pool0"
  type: "Pooling"
  bottom: "Sigmoid0"
  top: "pool0"
  pooling_param {
    pool: AVE
    kernel_size: 3
    stride: 2
  }
}
layer {
  name: "ip1"
  type: "InnerProduct"
  bottom: "pool0"
  top: "ip1"
  param {
    lr_mult: 1
  }
  param {
    lr_mult: 2
  }
  inner_product_param {
    num_output: 10
    weight_filler {
      type: "gaussian"
      std: 0.01
    }
    bias_filler {
      type: "constant"
    }
  }
}
layer {
  name: "relu1"
  type: "ReLU"
  bottom: "ip1"
  top: "ip1"
}
layer {
  name: "ip2"
  type: "InnerProduct"
  bottom: "ip1"
  top: "ip2"
  param {
    lr_mult: 1
  }
  param {
    lr_mult: 2
  }
  inner_product_param {
    num_output: 10
    weight_filler {
      type: "gaussian"
      std: 0.01
    }
    bias_filler {
      type: "constant"
    }
  }
}
layer {
  name: "relu2"
  type: "ReLU"
  bottom: "ip2"
  top: "ip2"
}
layer {
  name: "ip3"
  type: "InnerProduct"
  bottom: "ip2"
  top: "ip3"
  param {
    lr_mult: 1
  }
  param {
    lr_mult: 2
  }
  inner_product_param {
    num_output: 10
    weight_filler {
      type: "gaussian"
      std: 0.01
    }
    bias_filler {
      type: "constant"
    }
  }
}
layer {
  name: "loss"
  type: "SoftmaxWithLoss"
  bottom: "ip3"
  bottom: "label"
  top: "loss"
}
I0501 07:03:05.018259  3292 layer_factory.hpp:77] Creating layer cifar
I0501 07:03:05.018340  3292 db_lmdb.cpp:35] Opened lmdb examples/cifar10/cifar10_train_lmdb
I0501 07:03:05.018378  3292 net.cpp:86] Creating Layer cifar
I0501 07:03:05.018384  3292 net.cpp:382] cifar -> data
I0501 07:03:05.018404  3292 net.cpp:382] cifar -> label
I0501 07:03:05.018414  3292 data_transformer.cpp:25] Loading mean file from: examples/cifar10/mean.binaryproto
I0501 07:03:05.020197  3292 data_layer.cpp:45] output data size: 111,3,32,32
I0501 07:03:05.026842  3292 net.cpp:124] Setting up cifar
I0501 07:03:05.026875  3292 net.cpp:131] Top shape: 111 3 32 32 (340992)
I0501 07:03:05.026881  3292 net.cpp:131] Top shape: 111 (111)
I0501 07:03:05.026885  3292 net.cpp:139] Memory required for data: 1364412
I0501 07:03:05.026891  3292 layer_factory.hpp:77] Creating layer conv0
I0501 07:03:05.026906  3292 net.cpp:86] Creating Layer conv0
I0501 07:03:05.026909  3292 net.cpp:408] conv0 <- data
I0501 07:03:05.026921  3292 net.cpp:382] conv0 -> conv0
I0501 07:03:05.262473  3292 net.cpp:124] Setting up conv0
I0501 07:03:05.262518  3292 net.cpp:131] Top shape: 111 16 34 34 (2053056)
I0501 07:03:05.262522  3292 net.cpp:139] Memory required for data: 9576636
I0501 07:03:05.262537  3292 layer_factory.hpp:77] Creating layer Sigmoid0
I0501 07:03:05.262548  3292 net.cpp:86] Creating Layer Sigmoid0
I0501 07:03:05.262552  3292 net.cpp:408] Sigmoid0 <- conv0
I0501 07:03:05.262557  3292 net.cpp:382] Sigmoid0 -> Sigmoid0
I0501 07:03:05.262737  3292 net.cpp:124] Setting up Sigmoid0
I0501 07:03:05.262748  3292 net.cpp:131] Top shape: 111 16 34 34 (2053056)
I0501 07:03:05.262750  3292 net.cpp:139] Memory required for data: 17788860
I0501 07:03:05.262753  3292 layer_factory.hpp:77] Creating layer pool0
I0501 07:03:05.262760  3292 net.cpp:86] Creating Layer pool0
I0501 07:03:05.262763  3292 net.cpp:408] pool0 <- Sigmoid0
I0501 07:03:05.262768  3292 net.cpp:382] pool0 -> pool0
I0501 07:03:05.263536  3292 net.cpp:124] Setting up pool0
I0501 07:03:05.263550  3292 net.cpp:131] Top shape: 111 16 17 17 (513264)
I0501 07:03:05.263552  3292 net.cpp:139] Memory required for data: 19841916
I0501 07:03:05.263556  3292 layer_factory.hpp:77] Creating layer ip1
I0501 07:03:05.263564  3292 net.cpp:86] Creating Layer ip1
I0501 07:03:05.263567  3292 net.cpp:408] ip1 <- pool0
I0501 07:03:05.263572  3292 net.cpp:382] ip1 -> ip1
I0501 07:03:05.265599  3292 net.cpp:124] Setting up ip1
I0501 07:03:05.265610  3292 net.cpp:131] Top shape: 111 10 (1110)
I0501 07:03:05.265614  3292 net.cpp:139] Memory required for data: 19846356
I0501 07:03:05.265621  3292 layer_factory.hpp:77] Creating layer relu1
I0501 07:03:05.265626  3292 net.cpp:86] Creating Layer relu1
I0501 07:03:05.265630  3292 net.cpp:408] relu1 <- ip1
I0501 07:03:05.265635  3292 net.cpp:369] relu1 -> ip1 (in-place)
I0501 07:03:05.265794  3292 net.cpp:124] Setting up relu1
I0501 07:03:05.265801  3292 net.cpp:131] Top shape: 111 10 (1110)
I0501 07:03:05.265805  3292 net.cpp:139] Memory required for data: 19850796
I0501 07:03:05.265808  3292 layer_factory.hpp:77] Creating layer ip2
I0501 07:03:05.265815  3292 net.cpp:86] Creating Layer ip2
I0501 07:03:05.265817  3292 net.cpp:408] ip2 <- ip1
I0501 07:03:05.265821  3292 net.cpp:382] ip2 -> ip2
I0501 07:03:05.265909  3292 net.cpp:124] Setting up ip2
I0501 07:03:05.265916  3292 net.cpp:131] Top shape: 111 10 (1110)
I0501 07:03:05.265919  3292 net.cpp:139] Memory required for data: 19855236
I0501 07:03:05.265926  3292 layer_factory.hpp:77] Creating layer relu2
I0501 07:03:05.265930  3292 net.cpp:86] Creating Layer relu2
I0501 07:03:05.265933  3292 net.cpp:408] relu2 <- ip2
I0501 07:03:05.265938  3292 net.cpp:369] relu2 -> ip2 (in-place)
I0501 07:03:05.266077  3292 net.cpp:124] Setting up relu2
I0501 07:03:05.266084  3292 net.cpp:131] Top shape: 111 10 (1110)
I0501 07:03:05.266088  3292 net.cpp:139] Memory required for data: 19859676
I0501 07:03:05.266090  3292 layer_factory.hpp:77] Creating layer ip3
I0501 07:03:05.266098  3292 net.cpp:86] Creating Layer ip3
I0501 07:03:05.266100  3292 net.cpp:408] ip3 <- ip2
I0501 07:03:05.266105  3292 net.cpp:382] ip3 -> ip3
I0501 07:03:05.266208  3292 net.cpp:124] Setting up ip3
I0501 07:03:05.266216  3292 net.cpp:131] Top shape: 111 10 (1110)
I0501 07:03:05.266218  3292 net.cpp:139] Memory required for data: 19864116
I0501 07:03:05.266223  3292 layer_factory.hpp:77] Creating layer loss
I0501 07:03:05.266229  3292 net.cpp:86] Creating Layer loss
I0501 07:03:05.266232  3292 net.cpp:408] loss <- ip3
I0501 07:03:05.266237  3292 net.cpp:408] loss <- label
I0501 07:03:05.266242  3292 net.cpp:382] loss -> loss
I0501 07:03:05.266258  3292 layer_factory.hpp:77] Creating layer loss
…
I0501 07:03:05.266876  3292 solver.cpp:173] Creating test net (#0) specified by net file: ECE595/cifar/train_test/var_everything/cifar_train_test_470.prototxt
I0501 07:03:05.266901  3292 net.cpp:296] The NetState phase (1) differed from the phase (0) specified by a rule in layer cifar
I0501 07:03:05.266980  3292 net.cpp:53] Initializing net from parameters: 
name: "CIFAR"
state {
  phase: TEST
}
layer {
  name: "cifar"
  type: "Data"
  top: "data"
  top: "label"
  include {
    phase: TEST
  }
  transform_param {
    mean_file: "examples/cifar10/mean.binaryproto"
  }
  data_param {
    source: "examples/cifar10/cifar10_test_lmdb"
    batch_size: 1000
    backend: LMDB
  }
}
layer {
  name: "conv0"
  type: "Convolution"
  bottom: "data"
  top: "conv0"
  param {
    lr_mult: 1
  }
  param {
    lr_mult: 2
  }
  convolution_param {
    num_output: 16
    pad: 2
    kernel_size: 3
    stride: 1
    weight_filler {
      type: "gaussian"
      std: 0.01
    }
    bias_filler {
      type: "constant"
    }
  }
}
layer {
  name: "Sigmoid0"
  type: "Sigmoid"
  bottom: "conv0"
  top: "Sigmoid0"
}
layer {
  name: "pool0"
  type: "Pooling"
  bottom: "Sigmoid0"
  top: "pool0"
  pooling_param {
    pool: AVE
    kernel_size: 3
    stride: 2
  }
}
layer {
  name: "ip1"
  type: "InnerProduct"
  bottom: "pool0"
  top: "ip1"
  param {
    lr_mult: 1
  }
  param {
    lr_mult: 2
  }
  inner_product_param {
    num_output: 10
    weight_filler {
      type: "gaussian"
      std: 0.01
    }
    bias_filler {
      type: "constant"
    }
  }
}
layer {
  name: "relu1"
  type: "ReLU"
  bottom: "ip1"
  top: "ip1"
}
layer {
  name: "ip2"
  type: "InnerProduct"
  bottom: "ip1"
  top: "ip2"
  param {
    lr_mult: 1
  }
  param {
    lr_mult: 2
  }
  inner_product_param {
    num_output: 10
    weight_filler {
      type: "gaussian"
      std: 0.01
    }
    bias_filler {
      type: "constant"
    }
  }
}
layer {
  name: "relu2"
  type: "ReLU"
  bottom: "ip2"
  top: "ip2"
}
layer {
  name: "ip3"
  type: "InnerProduct"
  bottom: "ip2"
  top: "ip3"
  param {
    lr_mult: 1
  }
  param {
    lr_mult: 2
  }
  inner_product_param {
    num_output: 10
    weight_filler {
      type: "gaussian"
      std: 0.01
    }
    bias_filler {
      type: "constant"
    }
  }
}
layer {
  name: "accuracy"
  type: "Accuracy"
  bottom: "ip3"
  bottom: "label"
  top: "accuracy"
  include {
    phase: TEST
  }
}
layer {
  name: "loss"
  type: "SoftmaxWithLoss"
  bottom: "ip3"
  bottom: "label"
  top: "loss"
}
I0501 07:03:05.267040  3292 layer_factory.hpp:77] Creating layer cifar
I0501 07:03:05.267084  3292 db_lmdb.cpp:35] Opened lmdb examples/cifar10/cifar10_test_lmdb
I0501 07:03:05.267098  3292 net.cpp:86] Creating Layer cifar
I0501 07:03:05.267105  3292 net.cpp:382] cifar -> data
I0501 07:03:05.267128  3292 net.cpp:382] cifar -> label
I0501 07:03:05.267134  3292 data_transformer.cpp:25] Loading mean file from: examples/cifar10/mean.binaryproto
I0501 07:03:05.267289  3292 data_layer.cpp:45] output data size: 1000,3,32,32
I0501 07:03:05.289510  3292 net.cpp:124] Setting up cifar
I0501 07:03:05.289553  3292 net.cpp:131] Top shape: 1000 3 32 32 (3072000)
I0501 07:03:05.289559  3292 net.cpp:131] Top shape: 1000 (1000)
I0501 07:03:05.289562  3292 net.cpp:139] Memory required for data: 12292000
I0501 07:03:05.289569  3292 layer_factory.hpp:77] Creating layer label_cifar_1_split
I0501 07:03:05.289587  3292 net.cpp:86] Creating Layer label_cifar_1_split
I0501 07:03:05.289605  3292 net.cpp:408] label_cifar_1_split <- label
I0501 07:03:05.289613  3292 net.cpp:382] label_cifar_1_split -> label_cifar_1_split_0
I0501 07:03:05.289621  3292 net.cpp:382] label_cifar_1_split -> label_cifar_1_split_1
I0501 07:03:05.289700  3292 net.cpp:124] Setting up label_cifar_1_split
I0501 07:03:05.289708  3292 net.cpp:131] Top shape: 1000 (1000)
I0501 07:03:05.289727  3292 net.cpp:131] Top shape: 1000 (1000)
I0501 07:03:05.289731  3292 net.cpp:139] Memory required for data: 12300000
I0501 07:03:05.289734  3292 layer_factory.hpp:77] Creating layer conv0
I0501 07:03:05.289746  3292 net.cpp:86] Creating Layer conv0
I0501 07:03:05.289749  3292 net.cpp:408] conv0 <- data
I0501 07:03:05.289754  3292 net.cpp:382] conv0 -> conv0
I0501 07:03:05.291327  3292 net.cpp:124] Setting up conv0
I0501 07:03:05.291340  3292 net.cpp:131] Top shape: 1000 16 34 34 (18496000)
I0501 07:03:05.291359  3292 net.cpp:139] Memory required for data: 86284000
I0501 07:03:05.291368  3292 layer_factory.hpp:77] Creating layer Sigmoid0
I0501 07:03:05.291374  3292 net.cpp:86] Creating Layer Sigmoid0
I0501 07:03:05.291378  3292 net.cpp:408] Sigmoid0 <- conv0
I0501 07:03:05.291383  3292 net.cpp:382] Sigmoid0 -> Sigmoid0
I0501 07:03:05.292258  3292 net.cpp:124] Setting up Sigmoid0
I0501 07:03:05.292270  3292 net.cpp:131] Top shape: 1000 16 34 34 (18496000)
I0501 07:03:05.292289  3292 net.cpp:139] Memory required for data: 160268000
I0501 07:03:05.292292  3292 layer_factory.hpp:77] Creating layer pool0
I0501 07:03:05.292301  3292 net.cpp:86] Creating Layer pool0
I0501 07:03:05.292304  3292 net.cpp:408] pool0 <- Sigmoid0
I0501 07:03:05.292309  3292 net.cpp:382] pool0 -> pool0
I0501 07:03:05.293470  3292 net.cpp:124] Setting up pool0
I0501 07:03:05.293480  3292 net.cpp:131] Top shape: 1000 16 17 17 (4624000)
I0501 07:03:05.293498  3292 net.cpp:139] Memory required for data: 178764000
I0501 07:03:05.293503  3292 layer_factory.hpp:77] Creating layer ip1
I0501 07:03:05.293510  3292 net.cpp:86] Creating Layer ip1
I0501 07:03:05.293514  3292 net.cpp:408] ip1 <- pool0
I0501 07:03:05.293519  3292 net.cpp:382] ip1 -> ip1
I0501 07:03:05.294833  3292 net.cpp:124] Setting up ip1
I0501 07:03:05.294842  3292 net.cpp:131] Top shape: 1000 10 (10000)
I0501 07:03:05.294844  3292 net.cpp:139] Memory required for data: 178804000
I0501 07:03:05.294867  3292 layer_factory.hpp:77] Creating layer relu1
I0501 07:03:05.294872  3292 net.cpp:86] Creating Layer relu1
I0501 07:03:05.294875  3292 net.cpp:408] relu1 <- ip1
I0501 07:03:05.294880  3292 net.cpp:369] relu1 -> ip1 (in-place)
I0501 07:03:05.295053  3292 net.cpp:124] Setting up relu1
I0501 07:03:05.295060  3292 net.cpp:131] Top shape: 1000 10 (10000)
I0501 07:03:05.295063  3292 net.cpp:139] Memory required for data: 178844000
I0501 07:03:05.295068  3292 layer_factory.hpp:77] Creating layer ip2
I0501 07:03:05.295074  3292 net.cpp:86] Creating Layer ip2
I0501 07:03:05.295078  3292 net.cpp:408] ip2 <- ip1
I0501 07:03:05.295083  3292 net.cpp:382] ip2 -> ip2
I0501 07:03:05.295207  3292 net.cpp:124] Setting up ip2
I0501 07:03:05.295214  3292 net.cpp:131] Top shape: 1000 10 (10000)
I0501 07:03:05.295217  3292 net.cpp:139] Memory required for data: 178884000
I0501 07:03:05.295224  3292 layer_factory.hpp:77] Creating layer relu2
I0501 07:03:05.295231  3292 net.cpp:86] Creating Layer relu2
I0501 07:03:05.295236  3292 net.cpp:408] relu2 <- ip2
I0501 07:03:05.295256  3292 net.cpp:369] relu2 -> ip2 (in-place)
I0501 07:03:05.295418  3292 net.cpp:124] Setting up relu2
I0501 07:03:05.295425  3292 net.cpp:131] Top shape: 1000 10 (10000)
I0501 07:03:05.295428  3292 net.cpp:139] Memory required for data: 178924000
I0501 07:03:05.295431  3292 layer_factory.hpp:77] Creating layer ip3
I0501 07:03:05.295439  3292 net.cpp:86] Creating Layer ip3
I0501 07:03:05.295442  3292 net.cpp:408] ip3 <- ip2
I0501 07:03:05.295449  3292 net.cpp:382] ip3 -> ip3
I0501 07:03:05.295584  3292 net.cpp:124] Setting up ip3
I0501 07:03:05.295593  3292 net.cpp:131] Top shape: 1000 10 (10000)
I0501 07:03:05.295608  3292 net.cpp:139] Memory required for data: 178964000
I0501 07:03:05.295630  3292 layer_factory.hpp:77] Creating layer ip3_ip3_0_split
I0501 07:03:05.295636  3292 net.cpp:86] Creating Layer ip3_ip3_0_split
I0501 07:03:05.295639  3292 net.cpp:408] ip3_ip3_0_split <- ip3
I0501 07:03:05.295644  3292 net.cpp:382] ip3_ip3_0_split -> ip3_ip3_0_split_0
I0501 07:03:05.295650  3292 net.cpp:382] ip3_ip3_0_split -> ip3_ip3_0_split_1
I0501 07:03:05.295684  3292 net.cpp:124] Setting up ip3_ip3_0_split
I0501 07:03:05.295691  3292 net.cpp:131] Top shape: 1000 10 (10000)
I0501 07:03:05.295696  3292 net.cpp:131] Top shape: 1000 10 (10000)
I0501 07:03:05.295698  3292 net.cpp:139] Memory required for data: 179044000
I0501 07:03:05.295702  3292 layer_factory.hpp:77] Creating layer accuracy
I0501 07:03:05.295708  3292 net.cpp:86] Creating Layer accuracy
I0501 07:03:05.295719  3292 net.cpp:408] accuracy <- ip3_ip3_0_split_0
I0501 07:03:05.295723  3292 net.cpp:408] accuracy <- label_cifar_1_split_0
I0501 07:03:05.295729  3292 net.cpp:382] accuracy -> accuracy
…
