…
I0430 17:04:44.313928 18778 net.cpp:296] The NetState phase (0) differed from the phase (1) specified by a rule in layer cifar
I0430 17:04:44.313943 18778 net.cpp:296] The NetState phase (0) differed from the phase (1) specified by a rule in layer accuracy
I0430 17:04:44.314020 18778 net.cpp:53] Initializing net from parameters: 
name: "CIFAR"
state {
  phase: TRAIN
  level: 0
  stage: ""
}
layer {
  name: "cifar"
  type: "Data"
  top: "data"
  top: "label"
  include {
    phase: TRAIN
  }
  transform_param {
    mean_file: "examples/cifar10/mean.binaryproto"
  }
  data_param {
    source: "examples/cifar10/cifar10_train_lmdb"
    batch_size: 111
    backend: LMDB
  }
}
layer {
  name: "ip1"
  type: "InnerProduct"
  bottom: "data"
  top: "ip1"
  param {
    lr_mult: 1
  }
  param {
    lr_mult: 2
  }
  inner_product_param {
    num_output: 80
    weight_filler {
      type: "gaussian"
      std: 0.01
    }
    bias_filler {
      type: "constant"
    }
  }
}
layer {
  name: "relu1"
  type: "ReLU"
  bottom: "ip1"
  top: "ip1"
}
layer {
  name: "ip2"
  type: "InnerProduct"
  bottom: "ip1"
  top: "ip2"
  param {
    lr_mult: 1
  }
  param {
    lr_mult: 2
  }
  inner_product_param {
    num_output: 80
    weight_filler {
      type: "gaussian"
      std: 0.01
    }
    bias_filler {
      type: "constant"
    }
  }
}
layer {
  name: "relu2"
  type: "ReLU"
  bottom: "ip2"
  top: "ip2"
}
layer {
  name: "ip3"
  type: "InnerProduct"
  bottom: "ip2"
  top: "ip3"
  param {
    lr_mult: 1
  }
  param {
    lr_mult: 2
  }
  inner_product_param {
    num_output: 10
    weight_filler {
      type: "gaussian"
      std: 0.01
    }
    bias_filler {
      type: "constant"
    }
  }
}
layer {
  name: "loss"
  type: "SoftmaxWithLoss"
  bottom: "ip3"
  bottom: "label"
  top: "loss"
}
I0430 17:04:44.314090 18778 layer_factory.hpp:77] Creating layer cifar
I0430 17:04:44.314188 18778 db_lmdb.cpp:35] Opened lmdb examples/cifar10/cifar10_train_lmdb
I0430 17:04:44.314218 18778 net.cpp:86] Creating Layer cifar
I0430 17:04:44.314224 18778 net.cpp:382] cifar -> data
I0430 17:04:44.314249 18778 net.cpp:382] cifar -> label
I0430 17:04:44.314261 18778 data_transformer.cpp:25] Loading mean file from: examples/cifar10/mean.binaryproto
I0430 17:04:44.316364 18778 data_layer.cpp:45] output data size: 111,3,32,32
I0430 17:04:44.324293 18778 net.cpp:124] Setting up cifar
I0430 17:04:44.324313 18778 net.cpp:131] Top shape: 111 3 32 32 (340992)
I0430 17:04:44.324321 18778 net.cpp:131] Top shape: 111 (111)
I0430 17:04:44.324326 18778 net.cpp:139] Memory required for data: 1364412
I0430 17:04:44.324332 18778 layer_factory.hpp:77] Creating layer ip1
I0430 17:04:44.324343 18778 net.cpp:86] Creating Layer ip1
I0430 17:04:44.324348 18778 net.cpp:408] ip1 <- data
I0430 17:04:44.324360 18778 net.cpp:382] ip1 -> ip1
I0430 17:04:44.333606 18778 net.cpp:124] Setting up ip1
I0430 17:04:44.333623 18778 net.cpp:131] Top shape: 111 80 (8880)
I0430 17:04:44.333627 18778 net.cpp:139] Memory required for data: 1399932
I0430 17:04:44.333642 18778 layer_factory.hpp:77] Creating layer relu1
I0430 17:04:44.333650 18778 net.cpp:86] Creating Layer relu1
I0430 17:04:44.333655 18778 net.cpp:408] relu1 <- ip1
I0430 17:04:44.333660 18778 net.cpp:369] relu1 -> ip1 (in-place)
I0430 17:04:44.600083 18778 net.cpp:124] Setting up relu1
I0430 17:04:44.600123 18778 net.cpp:131] Top shape: 111 80 (8880)
I0430 17:04:44.600127 18778 net.cpp:139] Memory required for data: 1435452
I0430 17:04:44.600152 18778 layer_factory.hpp:77] Creating layer ip2
I0430 17:04:44.600164 18778 net.cpp:86] Creating Layer ip2
I0430 17:04:44.600168 18778 net.cpp:408] ip2 <- ip1
I0430 17:04:44.600175 18778 net.cpp:382] ip2 -> ip2
I0430 17:04:44.601400 18778 net.cpp:124] Setting up ip2
I0430 17:04:44.601413 18778 net.cpp:131] Top shape: 111 80 (8880)
I0430 17:04:44.601431 18778 net.cpp:139] Memory required for data: 1470972
I0430 17:04:44.601441 18778 layer_factory.hpp:77] Creating layer relu2
I0430 17:04:44.601449 18778 net.cpp:86] Creating Layer relu2
I0430 17:04:44.601452 18778 net.cpp:408] relu2 <- ip2
I0430 17:04:44.601456 18778 net.cpp:369] relu2 -> ip2 (in-place)
I0430 17:04:44.602208 18778 net.cpp:124] Setting up relu2
I0430 17:04:44.602219 18778 net.cpp:131] Top shape: 111 80 (8880)
I0430 17:04:44.602238 18778 net.cpp:139] Memory required for data: 1506492
I0430 17:04:44.602241 18778 layer_factory.hpp:77] Creating layer ip3
I0430 17:04:44.602248 18778 net.cpp:86] Creating Layer ip3
I0430 17:04:44.602252 18778 net.cpp:408] ip3 <- ip2
I0430 17:04:44.602257 18778 net.cpp:382] ip3 -> ip3
I0430 17:04:44.603219 18778 net.cpp:124] Setting up ip3
I0430 17:04:44.603246 18778 net.cpp:131] Top shape: 111 10 (1110)
I0430 17:04:44.603250 18778 net.cpp:139] Memory required for data: 1510932
I0430 17:04:44.603257 18778 layer_factory.hpp:77] Creating layer loss
I0430 17:04:44.603265 18778 net.cpp:86] Creating Layer loss
I0430 17:04:44.603267 18778 net.cpp:408] loss <- ip3
I0430 17:04:44.603272 18778 net.cpp:408] loss <- label
I0430 17:04:44.603277 18778 net.cpp:382] loss -> loss
I0430 17:04:44.603293 18778 layer_factory.hpp:77] Creating layer loss
…
I0430 17:04:44.603869 18778 solver.cpp:173] Creating test net (#0) specified by net file: ECE595/cifar/train_test/var_everything/cifar_train_test_23.prototxt
I0430 17:04:44.603893 18778 net.cpp:296] The NetState phase (1) differed from the phase (0) specified by a rule in layer cifar
I0430 17:04:44.603960 18778 net.cpp:53] Initializing net from parameters: 
name: "CIFAR"
state {
  phase: TEST
}
layer {
  name: "cifar"
  type: "Data"
  top: "data"
  top: "label"
  include {
    phase: TEST
  }
  transform_param {
    mean_file: "examples/cifar10/mean.binaryproto"
  }
  data_param {
    source: "examples/cifar10/cifar10_test_lmdb"
    batch_size: 1000
    backend: LMDB
  }
}
layer {
  name: "ip1"
  type: "InnerProduct"
  bottom: "data"
  top: "ip1"
  param {
    lr_mult: 1
  }
  param {
    lr_mult: 2
  }
  inner_product_param {
    num_output: 80
    weight_filler {
      type: "gaussian"
      std: 0.01
    }
    bias_filler {
      type: "constant"
    }
  }
}
layer {
  name: "relu1"
  type: "ReLU"
  bottom: "ip1"
  top: "ip1"
}
layer {
  name: "ip2"
  type: "InnerProduct"
  bottom: "ip1"
  top: "ip2"
  param {
    lr_mult: 1
  }
  param {
    lr_mult: 2
  }
  inner_product_param {
    num_output: 80
    weight_filler {
      type: "gaussian"
      std: 0.01
    }
    bias_filler {
      type: "constant"
    }
  }
}
layer {
  name: "relu2"
  type: "ReLU"
  bottom: "ip2"
  top: "ip2"
}
layer {
  name: "ip3"
  type: "InnerProduct"
  bottom: "ip2"
  top: "ip3"
  param {
    lr_mult: 1
  }
  param {
    lr_mult: 2
  }
  inner_product_param {
    num_output: 10
    weight_filler {
      type: "gaussian"
      std: 0.01
    }
    bias_filler {
      type: "constant"
    }
  }
}
layer {
  name: "accuracy"
  type: "Accuracy"
  bottom: "ip3"
  bottom: "label"
  top: "accuracy"
  include {
    phase: TEST
  }
}
layer {
  name: "loss"
  type: "SoftmaxWithLoss"
  bottom: "ip3"
  bottom: "label"
  top: "loss"
}
I0430 17:04:44.604041 18778 layer_factory.hpp:77] Creating layer cifar
I0430 17:04:44.604106 18778 db_lmdb.cpp:35] Opened lmdb examples/cifar10/cifar10_test_lmdb
I0430 17:04:44.604120 18778 net.cpp:86] Creating Layer cifar
I0430 17:04:44.604125 18778 net.cpp:382] cifar -> data
I0430 17:04:44.604131 18778 net.cpp:382] cifar -> label
I0430 17:04:44.604140 18778 data_transformer.cpp:25] Loading mean file from: examples/cifar10/mean.binaryproto
I0430 17:04:44.604282 18778 data_layer.cpp:45] output data size: 1000,3,32,32
I0430 17:04:44.627063 18778 net.cpp:124] Setting up cifar
I0430 17:04:44.627087 18778 net.cpp:131] Top shape: 1000 3 32 32 (3072000)
I0430 17:04:44.627094 18778 net.cpp:131] Top shape: 1000 (1000)
I0430 17:04:44.627096 18778 net.cpp:139] Memory required for data: 12292000
I0430 17:04:44.627102 18778 layer_factory.hpp:77] Creating layer label_cifar_1_split
I0430 17:04:44.627118 18778 net.cpp:86] Creating Layer label_cifar_1_split
I0430 17:04:44.627122 18778 net.cpp:408] label_cifar_1_split <- label
I0430 17:04:44.627128 18778 net.cpp:382] label_cifar_1_split -> label_cifar_1_split_0
I0430 17:04:44.627137 18778 net.cpp:382] label_cifar_1_split -> label_cifar_1_split_1
I0430 17:04:44.627271 18778 net.cpp:124] Setting up label_cifar_1_split
I0430 17:04:44.627279 18778 net.cpp:131] Top shape: 1000 (1000)
I0430 17:04:44.627284 18778 net.cpp:131] Top shape: 1000 (1000)
I0430 17:04:44.627286 18778 net.cpp:139] Memory required for data: 12300000
I0430 17:04:44.627290 18778 layer_factory.hpp:77] Creating layer ip1
I0430 17:04:44.627298 18778 net.cpp:86] Creating Layer ip1
I0430 17:04:44.627301 18778 net.cpp:408] ip1 <- data
I0430 17:04:44.627307 18778 net.cpp:382] ip1 -> ip1
I0430 17:04:44.634348 18778 net.cpp:124] Setting up ip1
I0430 17:04:44.634359 18778 net.cpp:131] Top shape: 1000 80 (80000)
I0430 17:04:44.634363 18778 net.cpp:139] Memory required for data: 12620000
I0430 17:04:44.634373 18778 layer_factory.hpp:77] Creating layer relu1
I0430 17:04:44.634382 18778 net.cpp:86] Creating Layer relu1
I0430 17:04:44.634384 18778 net.cpp:408] relu1 <- ip1
I0430 17:04:44.634389 18778 net.cpp:369] relu1 -> ip1 (in-place)
I0430 17:04:44.634605 18778 net.cpp:124] Setting up relu1
I0430 17:04:44.634618 18778 net.cpp:131] Top shape: 1000 80 (80000)
I0430 17:04:44.634635 18778 net.cpp:139] Memory required for data: 12940000
I0430 17:04:44.634639 18778 layer_factory.hpp:77] Creating layer ip2
I0430 17:04:44.634646 18778 net.cpp:86] Creating Layer ip2
I0430 17:04:44.634649 18778 net.cpp:408] ip2 <- ip1
I0430 17:04:44.634654 18778 net.cpp:382] ip2 -> ip2
I0430 17:04:44.634914 18778 net.cpp:124] Setting up ip2
I0430 17:04:44.634922 18778 net.cpp:131] Top shape: 1000 80 (80000)
I0430 17:04:44.634924 18778 net.cpp:139] Memory required for data: 13260000
I0430 17:04:44.634932 18778 layer_factory.hpp:77] Creating layer relu2
I0430 17:04:44.634937 18778 net.cpp:86] Creating Layer relu2
I0430 17:04:44.634939 18778 net.cpp:408] relu2 <- ip2
I0430 17:04:44.634943 18778 net.cpp:369] relu2 -> ip2 (in-place)
I0430 17:04:44.635758 18778 net.cpp:124] Setting up relu2
I0430 17:04:44.635771 18778 net.cpp:131] Top shape: 1000 80 (80000)
I0430 17:04:44.635774 18778 net.cpp:139] Memory required for data: 13580000
I0430 17:04:44.635777 18778 layer_factory.hpp:77] Creating layer ip3
I0430 17:04:44.635784 18778 net.cpp:86] Creating Layer ip3
I0430 17:04:44.635787 18778 net.cpp:408] ip3 <- ip2
I0430 17:04:44.635795 18778 net.cpp:382] ip3 -> ip3
I0430 17:04:44.635931 18778 net.cpp:124] Setting up ip3
I0430 17:04:44.635938 18778 net.cpp:131] Top shape: 1000 10 (10000)
I0430 17:04:44.635941 18778 net.cpp:139] Memory required for data: 13620000
I0430 17:04:44.635964 18778 layer_factory.hpp:77] Creating layer ip3_ip3_0_split
I0430 17:04:44.635970 18778 net.cpp:86] Creating Layer ip3_ip3_0_split
I0430 17:04:44.635974 18778 net.cpp:408] ip3_ip3_0_split <- ip3
I0430 17:04:44.635995 18778 net.cpp:382] ip3_ip3_0_split -> ip3_ip3_0_split_0
I0430 17:04:44.636018 18778 net.cpp:382] ip3_ip3_0_split -> ip3_ip3_0_split_1
I0430 17:04:44.636051 18778 net.cpp:124] Setting up ip3_ip3_0_split
I0430 17:04:44.636061 18778 net.cpp:131] Top shape: 1000 10 (10000)
I0430 17:04:44.636081 18778 net.cpp:131] Top shape: 1000 10 (10000)
I0430 17:04:44.636085 18778 net.cpp:139] Memory required for data: 13700000
I0430 17:04:44.636087 18778 layer_factory.hpp:77] Creating layer accuracy
I0430 17:04:44.636096 18778 net.cpp:86] Creating Layer accuracy
I0430 17:04:44.636098 18778 net.cpp:408] accuracy <- ip3_ip3_0_split_0
I0430 17:04:44.636102 18778 net.cpp:408] accuracy <- label_cifar_1_split_0
I0430 17:04:44.636107 18778 net.cpp:382] accuracy -> accuracy
…
