…
I0501 09:21:46.514086 14144 net.cpp:296] The NetState phase (0) differed from the phase (1) specified by a rule in layer cifar
I0501 09:21:46.514106 14144 net.cpp:296] The NetState phase (0) differed from the phase (1) specified by a rule in layer accuracy
I0501 09:21:46.514214 14144 net.cpp:53] Initializing net from parameters: 
name: "CIFAR"
state {
  phase: TRAIN
  level: 0
  stage: ""
}
layer {
  name: "cifar"
  type: "Data"
  top: "data"
  top: "label"
  include {
    phase: TRAIN
  }
  transform_param {
    mean_file: "examples/cifar10/mean.binaryproto"
  }
  data_param {
    source: "examples/cifar10/cifar10_train_lmdb"
    batch_size: 111
    backend: LMDB
  }
}
layer {
  name: "conv0"
  type: "Convolution"
  bottom: "data"
  top: "conv0"
  param {
    lr_mult: 1
  }
  param {
    lr_mult: 2
  }
  convolution_param {
    num_output: 16
    pad: 2
    kernel_size: 3
    stride: 1
    weight_filler {
      type: "gaussian"
      std: 0.01
    }
    bias_filler {
      type: "constant"
    }
  }
}
layer {
  name: "Sigmoid0"
  type: "Sigmoid"
  bottom: "conv0"
  top: "Sigmoid0"
}
layer {
  name: "pool0"
  type: "Pooling"
  bottom: "Sigmoid0"
  top: "pool0"
  pooling_param {
    pool: AVE
    kernel_size: 3
    stride: 2
  }
}
layer {
  name: "ip1"
  type: "InnerProduct"
  bottom: "pool0"
  top: "ip1"
  param {
    lr_mult: 1
  }
  param {
    lr_mult: 2
  }
  inner_product_param {
    num_output: 20
    weight_filler {
      type: "gaussian"
      std: 0.01
    }
    bias_filler {
      type: "constant"
    }
  }
}
layer {
  name: "relu1"
  type: "ReLU"
  bottom: "ip1"
  top: "ip1"
}
layer {
  name: "ip2"
  type: "InnerProduct"
  bottom: "ip1"
  top: "ip2"
  param {
    lr_mult: 1
  }
  param {
    lr_mult: 2
  }
  inner_product_param {
    num_output: 80
    weight_filler {
      type: "gaussian"
      std: 0.01
    }
    bias_filler {
      type: "constant"
    }
  }
}
layer {
  name: "relu2"
  type: "ReLU"
  bottom: "ip2"
  top: "ip2"
}
layer {
  name: "ip3"
  type: "InnerProduct"
  bottom: "ip2"
  top: "ip3"
  param {
    lr_mult: 1
  }
  param {
    lr_mult: 2
  }
  inner_product_param {
    num_output: 40
    weight_filler {
      type: "gaussian"
      std: 0.01
    }
    bias_filler {
      type: "constant"
    }
  }
}
layer {
  name: "relu3"
  type: "ReLU"
  bottom: "ip3"
  top: "ip3"
}
layer {
  name: "ip4"
  type: "InnerProduct"
  bottom: "ip3"
  top: "ip4"
  param {
    lr_mult: 1
  }
  param {
    lr_mult: 2
  }
  inner_product_param {
    num_output: 10
    weight_filler {
      type: "gaussian"
      std: 0.01
    }
    bias_filler {
      type: "constant"
    }
  }
}
layer {
  name: "loss"
  type: "SoftmaxWithLoss"
  bottom: "ip4"
  bottom: "label"
  top: "loss"
}
I0501 09:21:46.514292 14144 layer_factory.hpp:77] Creating layer cifar
I0501 09:21:46.514391 14144 db_lmdb.cpp:35] Opened lmdb examples/cifar10/cifar10_train_lmdb
I0501 09:21:46.514417 14144 net.cpp:86] Creating Layer cifar
I0501 09:21:46.514426 14144 net.cpp:382] cifar -> data
I0501 09:21:46.514449 14144 net.cpp:382] cifar -> label
I0501 09:21:46.514461 14144 data_transformer.cpp:25] Loading mean file from: examples/cifar10/mean.binaryproto
I0501 09:21:46.516629 14144 data_layer.cpp:45] output data size: 111,3,32,32
I0501 09:21:46.524588 14144 net.cpp:124] Setting up cifar
I0501 09:21:46.524607 14144 net.cpp:131] Top shape: 111 3 32 32 (340992)
I0501 09:21:46.524613 14144 net.cpp:131] Top shape: 111 (111)
I0501 09:21:46.524617 14144 net.cpp:139] Memory required for data: 1364412
I0501 09:21:46.524641 14144 layer_factory.hpp:77] Creating layer conv0
I0501 09:21:46.524660 14144 net.cpp:86] Creating Layer conv0
I0501 09:21:46.524667 14144 net.cpp:408] conv0 <- data
I0501 09:21:46.524679 14144 net.cpp:382] conv0 -> conv0
I0501 09:21:46.821044 14144 net.cpp:124] Setting up conv0
I0501 09:21:46.821079 14144 net.cpp:131] Top shape: 111 16 34 34 (2053056)
I0501 09:21:46.821084 14144 net.cpp:139] Memory required for data: 9576636
I0501 09:21:46.821102 14144 layer_factory.hpp:77] Creating layer Sigmoid0
I0501 09:21:46.821115 14144 net.cpp:86] Creating Layer Sigmoid0
I0501 09:21:46.821120 14144 net.cpp:408] Sigmoid0 <- conv0
I0501 09:21:46.821127 14144 net.cpp:382] Sigmoid0 -> Sigmoid0
I0501 09:21:46.821342 14144 net.cpp:124] Setting up Sigmoid0
I0501 09:21:46.821354 14144 net.cpp:131] Top shape: 111 16 34 34 (2053056)
I0501 09:21:46.821358 14144 net.cpp:139] Memory required for data: 17788860
I0501 09:21:46.821362 14144 layer_factory.hpp:77] Creating layer pool0
I0501 09:21:46.821370 14144 net.cpp:86] Creating Layer pool0
I0501 09:21:46.821374 14144 net.cpp:408] pool0 <- Sigmoid0
I0501 09:21:46.821379 14144 net.cpp:382] pool0 -> pool0
I0501 09:21:46.822262 14144 net.cpp:124] Setting up pool0
I0501 09:21:46.822278 14144 net.cpp:131] Top shape: 111 16 17 17 (513264)
I0501 09:21:46.822283 14144 net.cpp:139] Memory required for data: 19841916
I0501 09:21:46.822286 14144 layer_factory.hpp:77] Creating layer ip1
I0501 09:21:46.822298 14144 net.cpp:86] Creating Layer ip1
I0501 09:21:46.822301 14144 net.cpp:408] ip1 <- pool0
I0501 09:21:46.822309 14144 net.cpp:382] ip1 -> ip1
I0501 09:21:46.825491 14144 net.cpp:124] Setting up ip1
I0501 09:21:46.825502 14144 net.cpp:131] Top shape: 111 20 (2220)
I0501 09:21:46.825506 14144 net.cpp:139] Memory required for data: 19850796
I0501 09:21:46.825516 14144 layer_factory.hpp:77] Creating layer relu1
I0501 09:21:46.825523 14144 net.cpp:86] Creating Layer relu1
I0501 09:21:46.825527 14144 net.cpp:408] relu1 <- ip1
I0501 09:21:46.825532 14144 net.cpp:369] relu1 -> ip1 (in-place)
I0501 09:21:46.825718 14144 net.cpp:124] Setting up relu1
I0501 09:21:46.825728 14144 net.cpp:131] Top shape: 111 20 (2220)
I0501 09:21:46.825732 14144 net.cpp:139] Memory required for data: 19859676
I0501 09:21:46.825736 14144 layer_factory.hpp:77] Creating layer ip2
I0501 09:21:46.825743 14144 net.cpp:86] Creating Layer ip2
I0501 09:21:46.825747 14144 net.cpp:408] ip2 <- ip1
I0501 09:21:46.825753 14144 net.cpp:382] ip2 -> ip2
I0501 09:21:46.825923 14144 net.cpp:124] Setting up ip2
I0501 09:21:46.825932 14144 net.cpp:131] Top shape: 111 80 (8880)
I0501 09:21:46.825935 14144 net.cpp:139] Memory required for data: 19895196
I0501 09:21:46.825944 14144 layer_factory.hpp:77] Creating layer relu2
I0501 09:21:46.825950 14144 net.cpp:86] Creating Layer relu2
I0501 09:21:46.825954 14144 net.cpp:408] relu2 <- ip2
I0501 09:21:46.825959 14144 net.cpp:369] relu2 -> ip2 (in-place)
I0501 09:21:46.826144 14144 net.cpp:124] Setting up relu2
I0501 09:21:46.826159 14144 net.cpp:131] Top shape: 111 80 (8880)
I0501 09:21:46.826164 14144 net.cpp:139] Memory required for data: 19930716
I0501 09:21:46.826170 14144 layer_factory.hpp:77] Creating layer ip3
I0501 09:21:46.826179 14144 net.cpp:86] Creating Layer ip3
I0501 09:21:46.826184 14144 net.cpp:408] ip3 <- ip2
I0501 09:21:46.826189 14144 net.cpp:382] ip3 -> ip3
I0501 09:21:46.826423 14144 net.cpp:124] Setting up ip3
I0501 09:21:46.826432 14144 net.cpp:131] Top shape: 111 40 (4440)
I0501 09:21:46.826436 14144 net.cpp:139] Memory required for data: 19948476
I0501 09:21:46.826443 14144 layer_factory.hpp:77] Creating layer relu3
I0501 09:21:46.826448 14144 net.cpp:86] Creating Layer relu3
I0501 09:21:46.826452 14144 net.cpp:408] relu3 <- ip3
I0501 09:21:46.826457 14144 net.cpp:369] relu3 -> ip3 (in-place)
I0501 09:21:46.826637 14144 net.cpp:124] Setting up relu3
I0501 09:21:46.826647 14144 net.cpp:131] Top shape: 111 40 (4440)
I0501 09:21:46.826649 14144 net.cpp:139] Memory required for data: 19966236
I0501 09:21:46.826653 14144 layer_factory.hpp:77] Creating layer ip4
I0501 09:21:46.826678 14144 net.cpp:86] Creating Layer ip4
I0501 09:21:46.826683 14144 net.cpp:408] ip4 <- ip3
I0501 09:21:46.826690 14144 net.cpp:382] ip4 -> ip4
I0501 09:21:46.826815 14144 net.cpp:124] Setting up ip4
I0501 09:21:46.826824 14144 net.cpp:131] Top shape: 111 10 (1110)
I0501 09:21:46.826828 14144 net.cpp:139] Memory required for data: 19970676
I0501 09:21:46.826838 14144 layer_factory.hpp:77] Creating layer loss
I0501 09:21:46.826844 14144 net.cpp:86] Creating Layer loss
I0501 09:21:46.826848 14144 net.cpp:408] loss <- ip4
I0501 09:21:46.826853 14144 net.cpp:408] loss <- label
I0501 09:21:46.826858 14144 net.cpp:382] loss -> loss
I0501 09:21:46.826879 14144 layer_factory.hpp:77] Creating layer loss
…
I0501 09:21:46.828315 14144 solver.cpp:173] Creating test net (#0) specified by net file: ECE595/cifar/train_test/var_everything/cifar_train_test_537.prototxt
I0501 09:21:46.828348 14144 net.cpp:296] The NetState phase (1) differed from the phase (0) specified by a rule in layer cifar
I0501 09:21:46.828459 14144 net.cpp:53] Initializing net from parameters: 
name: "CIFAR"
state {
  phase: TEST
}
layer {
  name: "cifar"
  type: "Data"
  top: "data"
  top: "label"
  include {
    phase: TEST
  }
  transform_param {
    mean_file: "examples/cifar10/mean.binaryproto"
  }
  data_param {
    source: "examples/cifar10/cifar10_test_lmdb"
    batch_size: 1000
    backend: LMDB
  }
}
layer {
  name: "conv0"
  type: "Convolution"
  bottom: "data"
  top: "conv0"
  param {
    lr_mult: 1
  }
  param {
    lr_mult: 2
  }
  convolution_param {
    num_output: 16
    pad: 2
    kernel_size: 3
    stride: 1
    weight_filler {
      type: "gaussian"
      std: 0.01
    }
    bias_filler {
      type: "constant"
    }
  }
}
layer {
  name: "Sigmoid0"
  type: "Sigmoid"
  bottom: "conv0"
  top: "Sigmoid0"
}
layer {
  name: "pool0"
  type: "Pooling"
  bottom: "Sigmoid0"
  top: "pool0"
  pooling_param {
    pool: AVE
    kernel_size: 3
    stride: 2
  }
}
layer {
  name: "ip1"
  type: "InnerProduct"
  bottom: "pool0"
  top: "ip1"
  param {
    lr_mult: 1
  }
  param {
    lr_mult: 2
  }
  inner_product_param {
    num_output: 20
    weight_filler {
      type: "gaussian"
      std: 0.01
    }
    bias_filler {
      type: "constant"
    }
  }
}
layer {
  name: "relu1"
  type: "ReLU"
  bottom: "ip1"
  top: "ip1"
}
layer {
  name: "ip2"
  type: "InnerProduct"
  bottom: "ip1"
  top: "ip2"
  param {
    lr_mult: 1
  }
  param {
    lr_mult: 2
  }
  inner_product_param {
    num_output: 80
    weight_filler {
      type: "gaussian"
      std: 0.01
    }
    bias_filler {
      type: "constant"
    }
  }
}
layer {
  name: "relu2"
  type: "ReLU"
  bottom: "ip2"
  top: "ip2"
}
layer {
  name: "ip3"
  type: "InnerProduct"
  bottom: "ip2"
  top: "ip3"
  param {
    lr_mult: 1
  }
  param {
    lr_mult: 2
  }
  inner_product_param {
    num_output: 40
    weight_filler {
      type: "gaussian"
      std: 0.01
    }
    bias_filler {
      type: "constant"
    }
  }
}
layer {
  name: "relu3"
  type: "ReLU"
  bottom: "ip3"
  top: "ip3"
}
layer {
  name: "ip4"
  type: "InnerProduct"
  bottom: "ip3"
  top: "ip4"
  param {
    lr_mult: 1
  }
  param {
    lr_mult: 2
  }
  inner_product_param {
    num_output: 10
    weight_filler {
      type: "gaussian"
      std: 0.01
    }
    bias_filler {
      type: "constant"
    }
  }
}
layer {
  name: "accuracy"
  type: "Accuracy"
  bottom: "ip4"
  bottom: "label"
  top: "accuracy"
  include {
    phase: TEST
  }
}
layer {
  name: "loss"
  type: "SoftmaxWithLoss"
  bottom: "ip4"
  bottom: "label"
  top: "loss"
}
I0501 09:21:46.828553 14144 layer_factory.hpp:77] Creating layer cifar
I0501 09:21:46.828609 14144 db_lmdb.cpp:35] Opened lmdb examples/cifar10/cifar10_test_lmdb
I0501 09:21:46.828624 14144 net.cpp:86] Creating Layer cifar
I0501 09:21:46.828630 14144 net.cpp:382] cifar -> data
I0501 09:21:46.828639 14144 net.cpp:382] cifar -> label
I0501 09:21:46.828647 14144 data_transformer.cpp:25] Loading mean file from: examples/cifar10/mean.binaryproto
I0501 09:21:46.828824 14144 data_layer.cpp:45] output data size: 1000,3,32,32
I0501 09:21:46.854080 14144 net.cpp:124] Setting up cifar
I0501 09:21:46.854109 14144 net.cpp:131] Top shape: 1000 3 32 32 (3072000)
I0501 09:21:46.854115 14144 net.cpp:131] Top shape: 1000 (1000)
I0501 09:21:46.854118 14144 net.cpp:139] Memory required for data: 12292000
I0501 09:21:46.854125 14144 layer_factory.hpp:77] Creating layer label_cifar_1_split
I0501 09:21:46.854141 14144 net.cpp:86] Creating Layer label_cifar_1_split
I0501 09:21:46.854146 14144 net.cpp:408] label_cifar_1_split <- label
I0501 09:21:46.854153 14144 net.cpp:382] label_cifar_1_split -> label_cifar_1_split_0
I0501 09:21:46.854163 14144 net.cpp:382] label_cifar_1_split -> label_cifar_1_split_1
I0501 09:21:46.854295 14144 net.cpp:124] Setting up label_cifar_1_split
I0501 09:21:46.854303 14144 net.cpp:131] Top shape: 1000 (1000)
I0501 09:21:46.854307 14144 net.cpp:131] Top shape: 1000 (1000)
I0501 09:21:46.854310 14144 net.cpp:139] Memory required for data: 12300000
I0501 09:21:46.854315 14144 layer_factory.hpp:77] Creating layer conv0
I0501 09:21:46.854327 14144 net.cpp:86] Creating Layer conv0
I0501 09:21:46.854331 14144 net.cpp:408] conv0 <- data
I0501 09:21:46.854337 14144 net.cpp:382] conv0 -> conv0
I0501 09:21:46.856037 14144 net.cpp:124] Setting up conv0
I0501 09:21:46.856051 14144 net.cpp:131] Top shape: 1000 16 34 34 (18496000)
I0501 09:21:46.856055 14144 net.cpp:139] Memory required for data: 86284000
I0501 09:21:46.856066 14144 layer_factory.hpp:77] Creating layer Sigmoid0
I0501 09:21:46.856073 14144 net.cpp:86] Creating Layer Sigmoid0
I0501 09:21:46.856077 14144 net.cpp:408] Sigmoid0 <- conv0
I0501 09:21:46.856083 14144 net.cpp:382] Sigmoid0 -> Sigmoid0
I0501 09:21:46.857270 14144 net.cpp:124] Setting up Sigmoid0
I0501 09:21:46.857282 14144 net.cpp:131] Top shape: 1000 16 34 34 (18496000)
I0501 09:21:46.857285 14144 net.cpp:139] Memory required for data: 160268000
I0501 09:21:46.857290 14144 layer_factory.hpp:77] Creating layer pool0
I0501 09:21:46.857298 14144 net.cpp:86] Creating Layer pool0
I0501 09:21:46.857302 14144 net.cpp:408] pool0 <- Sigmoid0
I0501 09:21:46.857307 14144 net.cpp:382] pool0 -> pool0
I0501 09:21:46.857492 14144 net.cpp:124] Setting up pool0
I0501 09:21:46.857501 14144 net.cpp:131] Top shape: 1000 16 17 17 (4624000)
I0501 09:21:46.857504 14144 net.cpp:139] Memory required for data: 178764000
I0501 09:21:46.857508 14144 layer_factory.hpp:77] Creating layer ip1
I0501 09:21:46.857516 14144 net.cpp:86] Creating Layer ip1
I0501 09:21:46.857519 14144 net.cpp:408] ip1 <- pool0
I0501 09:21:46.857525 14144 net.cpp:382] ip1 -> ip1
I0501 09:21:46.860438 14144 net.cpp:124] Setting up ip1
I0501 09:21:46.860446 14144 net.cpp:131] Top shape: 1000 20 (20000)
I0501 09:21:46.860450 14144 net.cpp:139] Memory required for data: 178844000
I0501 09:21:46.860476 14144 layer_factory.hpp:77] Creating layer relu1
I0501 09:21:46.860482 14144 net.cpp:86] Creating Layer relu1
I0501 09:21:46.860486 14144 net.cpp:408] relu1 <- ip1
I0501 09:21:46.860491 14144 net.cpp:369] relu1 -> ip1 (in-place)
I0501 09:21:46.860668 14144 net.cpp:124] Setting up relu1
I0501 09:21:46.860677 14144 net.cpp:131] Top shape: 1000 20 (20000)
I0501 09:21:46.860682 14144 net.cpp:139] Memory required for data: 178924000
I0501 09:21:46.860685 14144 layer_factory.hpp:77] Creating layer ip2
I0501 09:21:46.860692 14144 net.cpp:86] Creating Layer ip2
I0501 09:21:46.860695 14144 net.cpp:408] ip2 <- ip1
I0501 09:21:46.860702 14144 net.cpp:382] ip2 -> ip2
I0501 09:21:46.860877 14144 net.cpp:124] Setting up ip2
I0501 09:21:46.860885 14144 net.cpp:131] Top shape: 1000 80 (80000)
I0501 09:21:46.860889 14144 net.cpp:139] Memory required for data: 179244000
I0501 09:21:46.860898 14144 layer_factory.hpp:77] Creating layer relu2
I0501 09:21:46.860903 14144 net.cpp:86] Creating Layer relu2
I0501 09:21:46.860908 14144 net.cpp:408] relu2 <- ip2
I0501 09:21:46.860913 14144 net.cpp:369] relu2 -> ip2 (in-place)
I0501 09:21:46.861727 14144 net.cpp:124] Setting up relu2
I0501 09:21:46.861740 14144 net.cpp:131] Top shape: 1000 80 (80000)
I0501 09:21:46.861744 14144 net.cpp:139] Memory required for data: 179564000
I0501 09:21:46.861747 14144 layer_factory.hpp:77] Creating layer ip3
I0501 09:21:46.861755 14144 net.cpp:86] Creating Layer ip3
I0501 09:21:46.861759 14144 net.cpp:408] ip3 <- ip2
I0501 09:21:46.861764 14144 net.cpp:382] ip3 -> ip3
I0501 09:21:46.861970 14144 net.cpp:124] Setting up ip3
I0501 09:21:46.861979 14144 net.cpp:131] Top shape: 1000 40 (40000)
I0501 09:21:46.861982 14144 net.cpp:139] Memory required for data: 179724000
I0501 09:21:46.861989 14144 layer_factory.hpp:77] Creating layer relu3
I0501 09:21:46.861994 14144 net.cpp:86] Creating Layer relu3
I0501 09:21:46.861996 14144 net.cpp:408] relu3 <- ip3
I0501 09:21:46.862001 14144 net.cpp:369] relu3 -> ip3 (in-place)
I0501 09:21:46.862162 14144 net.cpp:124] Setting up relu3
I0501 09:21:46.862171 14144 net.cpp:131] Top shape: 1000 40 (40000)
I0501 09:21:46.862175 14144 net.cpp:139] Memory required for data: 179884000
I0501 09:21:46.862179 14144 layer_factory.hpp:77] Creating layer ip4
I0501 09:21:46.862185 14144 net.cpp:86] Creating Layer ip4
I0501 09:21:46.862188 14144 net.cpp:408] ip4 <- ip3
I0501 09:21:46.862193 14144 net.cpp:382] ip4 -> ip4
I0501 09:21:46.862311 14144 net.cpp:124] Setting up ip4
I0501 09:21:46.862319 14144 net.cpp:131] Top shape: 1000 10 (10000)
I0501 09:21:46.862323 14144 net.cpp:139] Memory required for data: 179924000
I0501 09:21:46.862331 14144 layer_factory.hpp:77] Creating layer ip4_ip4_0_split
I0501 09:21:46.862336 14144 net.cpp:86] Creating Layer ip4_ip4_0_split
I0501 09:21:46.862339 14144 net.cpp:408] ip4_ip4_0_split <- ip4
I0501 09:21:46.862344 14144 net.cpp:382] ip4_ip4_0_split -> ip4_ip4_0_split_0
I0501 09:21:46.862349 14144 net.cpp:382] ip4_ip4_0_split -> ip4_ip4_0_split_1
I0501 09:21:46.862380 14144 net.cpp:124] Setting up ip4_ip4_0_split
I0501 09:21:46.862385 14144 net.cpp:131] Top shape: 1000 10 (10000)
I0501 09:21:46.862390 14144 net.cpp:131] Top shape: 1000 10 (10000)
I0501 09:21:46.862392 14144 net.cpp:139] Memory required for data: 180004000
I0501 09:21:46.862396 14144 layer_factory.hpp:77] Creating layer accuracy
I0501 09:21:46.862401 14144 net.cpp:86] Creating Layer accuracy
I0501 09:21:46.862404 14144 net.cpp:408] accuracy <- ip4_ip4_0_split_0
I0501 09:21:46.862408 14144 net.cpp:408] accuracy <- label_cifar_1_split_0
I0501 09:21:46.862413 14144 net.cpp:382] accuracy -> accuracy
…
