…
I0430 18:18:41.449820 22917 net.cpp:296] The NetState phase (0) differed from the phase (1) specified by a rule in layer cifar
I0430 18:18:41.449841 22917 net.cpp:296] The NetState phase (0) differed from the phase (1) specified by a rule in layer accuracy
I0430 18:18:41.449934 22917 net.cpp:53] Initializing net from parameters: 
name: "CIFAR"
state {
  phase: TRAIN
  level: 0
  stage: ""
}
layer {
  name: "cifar"
  type: "Data"
  top: "data"
  top: "label"
  include {
    phase: TRAIN
  }
  transform_param {
    mean_file: "examples/cifar10/mean.binaryproto"
  }
  data_param {
    source: "examples/cifar10/cifar10_train_lmdb"
    batch_size: 111
    backend: LMDB
  }
}
layer {
  name: "ip1"
  type: "InnerProduct"
  bottom: "data"
  top: "ip1"
  param {
    lr_mult: 1
  }
  param {
    lr_mult: 2
  }
  inner_product_param {
    num_output: 20
    weight_filler {
      type: "gaussian"
      std: 0.01
    }
    bias_filler {
      type: "constant"
    }
  }
}
layer {
  name: "relu1"
  type: "ReLU"
  bottom: "ip1"
  top: "ip1"
}
layer {
  name: "ip2"
  type: "InnerProduct"
  bottom: "ip1"
  top: "ip2"
  param {
    lr_mult: 1
  }
  param {
    lr_mult: 2
  }
  inner_product_param {
    num_output: 20
    weight_filler {
      type: "gaussian"
      std: 0.01
    }
    bias_filler {
      type: "constant"
    }
  }
}
layer {
  name: "relu2"
  type: "ReLU"
  bottom: "ip2"
  top: "ip2"
}
layer {
  name: "ip3"
  type: "InnerProduct"
  bottom: "ip2"
  top: "ip3"
  param {
    lr_mult: 1
  }
  param {
    lr_mult: 2
  }
  inner_product_param {
    num_output: 40
    weight_filler {
      type: "gaussian"
      std: 0.01
    }
    bias_filler {
      type: "constant"
    }
  }
}
layer {
  name: "relu3"
  type: "ReLU"
  bottom: "ip3"
  top: "ip3"
}
layer {
  name: "ip4"
  type: "InnerProduct"
  bottom: "ip3"
  top: "ip4"
  param {
    lr_mult: 1
  }
  param {
    lr_mult: 2
  }
  inner_product_param {
    num_output: 10
    weight_filler {
      type: "gaussian"
      std: 0.01
    }
    bias_filler {
      type: "constant"
    }
  }
}
layer {
  name: "loss"
  type: "SoftmaxWithLoss"
  bottom: "ip4"
  bottom: "label"
  top: "loss"
}
I0430 18:18:41.450026 22917 layer_factory.hpp:77] Creating layer cifar
I0430 18:18:41.450148 22917 db_lmdb.cpp:35] Opened lmdb examples/cifar10/cifar10_train_lmdb
I0430 18:18:41.450187 22917 net.cpp:86] Creating Layer cifar
I0430 18:18:41.450199 22917 net.cpp:382] cifar -> data
I0430 18:18:41.450228 22917 net.cpp:382] cifar -> label
I0430 18:18:41.450244 22917 data_transformer.cpp:25] Loading mean file from: examples/cifar10/mean.binaryproto
I0430 18:18:41.452441 22917 data_layer.cpp:45] output data size: 111,3,32,32
I0430 18:18:41.460144 22917 net.cpp:124] Setting up cifar
I0430 18:18:41.460165 22917 net.cpp:131] Top shape: 111 3 32 32 (340992)
I0430 18:18:41.460175 22917 net.cpp:131] Top shape: 111 (111)
I0430 18:18:41.460181 22917 net.cpp:139] Memory required for data: 1364412
I0430 18:18:41.460192 22917 layer_factory.hpp:77] Creating layer ip1
I0430 18:18:41.460216 22917 net.cpp:86] Creating Layer ip1
I0430 18:18:41.460225 22917 net.cpp:408] ip1 <- data
I0430 18:18:41.460243 22917 net.cpp:382] ip1 -> ip1
I0430 18:18:41.463399 22917 net.cpp:124] Setting up ip1
I0430 18:18:41.463416 22917 net.cpp:131] Top shape: 111 20 (2220)
I0430 18:18:41.463424 22917 net.cpp:139] Memory required for data: 1373292
I0430 18:18:41.463445 22917 layer_factory.hpp:77] Creating layer relu1
I0430 18:18:41.463469 22917 net.cpp:86] Creating Layer relu1
I0430 18:18:41.463490 22917 net.cpp:408] relu1 <- ip1
I0430 18:18:41.463501 22917 net.cpp:369] relu1 -> ip1 (in-place)
I0430 18:18:41.749383 22917 net.cpp:124] Setting up relu1
I0430 18:18:41.749413 22917 net.cpp:131] Top shape: 111 20 (2220)
I0430 18:18:41.749419 22917 net.cpp:139] Memory required for data: 1382172
I0430 18:18:41.749426 22917 layer_factory.hpp:77] Creating layer ip2
I0430 18:18:41.749444 22917 net.cpp:86] Creating Layer ip2
I0430 18:18:41.749450 22917 net.cpp:408] ip2 <- ip1
I0430 18:18:41.749464 22917 net.cpp:382] ip2 -> ip2
I0430 18:18:41.750525 22917 net.cpp:124] Setting up ip2
I0430 18:18:41.750541 22917 net.cpp:131] Top shape: 111 20 (2220)
I0430 18:18:41.750547 22917 net.cpp:139] Memory required for data: 1391052
I0430 18:18:41.750564 22917 layer_factory.hpp:77] Creating layer relu2
I0430 18:18:41.750577 22917 net.cpp:86] Creating Layer relu2
I0430 18:18:41.750586 22917 net.cpp:408] relu2 <- ip2
I0430 18:18:41.750594 22917 net.cpp:369] relu2 -> ip2 (in-place)
I0430 18:18:41.751377 22917 net.cpp:124] Setting up relu2
I0430 18:18:41.751392 22917 net.cpp:131] Top shape: 111 20 (2220)
I0430 18:18:41.751399 22917 net.cpp:139] Memory required for data: 1399932
I0430 18:18:41.751405 22917 layer_factory.hpp:77] Creating layer ip3
I0430 18:18:41.751416 22917 net.cpp:86] Creating Layer ip3
I0430 18:18:41.751422 22917 net.cpp:408] ip3 <- ip2
I0430 18:18:41.751432 22917 net.cpp:382] ip3 -> ip3
I0430 18:18:41.751570 22917 net.cpp:124] Setting up ip3
I0430 18:18:41.751581 22917 net.cpp:131] Top shape: 111 40 (4440)
I0430 18:18:41.751587 22917 net.cpp:139] Memory required for data: 1417692
I0430 18:18:41.751600 22917 layer_factory.hpp:77] Creating layer relu3
I0430 18:18:41.751610 22917 net.cpp:86] Creating Layer relu3
I0430 18:18:41.751616 22917 net.cpp:408] relu3 <- ip3
I0430 18:18:41.751623 22917 net.cpp:369] relu3 -> ip3 (in-place)
I0430 18:18:41.751790 22917 net.cpp:124] Setting up relu3
I0430 18:18:41.751801 22917 net.cpp:131] Top shape: 111 40 (4440)
I0430 18:18:41.751806 22917 net.cpp:139] Memory required for data: 1435452
I0430 18:18:41.751811 22917 layer_factory.hpp:77] Creating layer ip4
I0430 18:18:41.751821 22917 net.cpp:86] Creating Layer ip4
I0430 18:18:41.751827 22917 net.cpp:408] ip4 <- ip3
I0430 18:18:41.751835 22917 net.cpp:382] ip4 -> ip4
I0430 18:18:41.751956 22917 net.cpp:124] Setting up ip4
I0430 18:18:41.751966 22917 net.cpp:131] Top shape: 111 10 (1110)
I0430 18:18:41.751971 22917 net.cpp:139] Memory required for data: 1439892
I0430 18:18:41.751981 22917 layer_factory.hpp:77] Creating layer loss
I0430 18:18:41.751992 22917 net.cpp:86] Creating Layer loss
I0430 18:18:41.751998 22917 net.cpp:408] loss <- ip4
I0430 18:18:41.752005 22917 net.cpp:408] loss <- label
I0430 18:18:41.752014 22917 net.cpp:382] loss -> loss
I0430 18:18:41.752039 22917 layer_factory.hpp:77] Creating layer loss
…
I0430 18:18:41.752682 22917 solver.cpp:173] Creating test net (#0) specified by net file: ECE595/cifar/train_test/var_everything/cifar_train_test_62.prototxt
I0430 18:18:41.752733 22917 net.cpp:296] The NetState phase (1) differed from the phase (0) specified by a rule in layer cifar
I0430 18:18:41.752830 22917 net.cpp:53] Initializing net from parameters: 
name: "CIFAR"
state {
  phase: TEST
}
layer {
  name: "cifar"
  type: "Data"
  top: "data"
  top: "label"
  include {
    phase: TEST
  }
  transform_param {
    mean_file: "examples/cifar10/mean.binaryproto"
  }
  data_param {
    source: "examples/cifar10/cifar10_test_lmdb"
    batch_size: 1000
    backend: LMDB
  }
}
layer {
  name: "ip1"
  type: "InnerProduct"
  bottom: "data"
  top: "ip1"
  param {
    lr_mult: 1
  }
  param {
    lr_mult: 2
  }
  inner_product_param {
    num_output: 20
    weight_filler {
      type: "gaussian"
      std: 0.01
    }
    bias_filler {
      type: "constant"
    }
  }
}
layer {
  name: "relu1"
  type: "ReLU"
  bottom: "ip1"
  top: "ip1"
}
layer {
  name: "ip2"
  type: "InnerProduct"
  bottom: "ip1"
  top: "ip2"
  param {
    lr_mult: 1
  }
  param {
    lr_mult: 2
  }
  inner_product_param {
    num_output: 20
    weight_filler {
      type: "gaussian"
      std: 0.01
    }
    bias_filler {
      type: "constant"
    }
  }
}
layer {
  name: "relu2"
  type: "ReLU"
  bottom: "ip2"
  top: "ip2"
}
layer {
  name: "ip3"
  type: "InnerProduct"
  bottom: "ip2"
  top: "ip3"
  param {
    lr_mult: 1
  }
  param {
    lr_mult: 2
  }
  inner_product_param {
    num_output: 40
    weight_filler {
      type: "gaussian"
      std: 0.01
    }
    bias_filler {
      type: "constant"
    }
  }
}
layer {
  name: "relu3"
  type: "ReLU"
  bottom: "ip3"
  top: "ip3"
}
layer {
  name: "ip4"
  type: "InnerProduct"
  bottom: "ip3"
  top: "ip4"
  param {
    lr_mult: 1
  }
  param {
    lr_mult: 2
  }
  inner_product_param {
    num_output: 10
    weight_filler {
      type: "gaussian"
      std: 0.01
    }
    bias_filler {
      type: "constant"
    }
  }
}
layer {
  name: "accuracy"
  type: "Accuracy"
  bottom: "ip4"
  bottom: "label"
  top: "accuracy"
  include {
    phase: TEST
  }
}
layer {
  name: "loss"
  type: "SoftmaxWithLoss"
  bottom: "ip4"
  bottom: "label"
  top: "loss"
}
I0430 18:18:41.752924 22917 layer_factory.hpp:77] Creating layer cifar
I0430 18:18:41.752990 22917 db_lmdb.cpp:35] Opened lmdb examples/cifar10/cifar10_test_lmdb
I0430 18:18:41.753008 22917 net.cpp:86] Creating Layer cifar
I0430 18:18:41.753016 22917 net.cpp:382] cifar -> data
I0430 18:18:41.753029 22917 net.cpp:382] cifar -> label
I0430 18:18:41.753041 22917 data_transformer.cpp:25] Loading mean file from: examples/cifar10/mean.binaryproto
I0430 18:18:41.753259 22917 data_layer.cpp:45] output data size: 1000,3,32,32
I0430 18:18:41.777176 22917 net.cpp:124] Setting up cifar
I0430 18:18:41.777204 22917 net.cpp:131] Top shape: 1000 3 32 32 (3072000)
I0430 18:18:41.777211 22917 net.cpp:131] Top shape: 1000 (1000)
I0430 18:18:41.777216 22917 net.cpp:139] Memory required for data: 12292000
I0430 18:18:41.777240 22917 layer_factory.hpp:77] Creating layer label_cifar_1_split
I0430 18:18:41.777276 22917 net.cpp:86] Creating Layer label_cifar_1_split
I0430 18:18:41.777289 22917 net.cpp:408] label_cifar_1_split <- label
I0430 18:18:41.777299 22917 net.cpp:382] label_cifar_1_split -> label_cifar_1_split_0
I0430 18:18:41.777312 22917 net.cpp:382] label_cifar_1_split -> label_cifar_1_split_1
I0430 18:18:41.777380 22917 net.cpp:124] Setting up label_cifar_1_split
I0430 18:18:41.777390 22917 net.cpp:131] Top shape: 1000 (1000)
I0430 18:18:41.777396 22917 net.cpp:131] Top shape: 1000 (1000)
I0430 18:18:41.777402 22917 net.cpp:139] Memory required for data: 12300000
I0430 18:18:41.777408 22917 layer_factory.hpp:77] Creating layer ip1
I0430 18:18:41.777421 22917 net.cpp:86] Creating Layer ip1
I0430 18:18:41.777431 22917 net.cpp:408] ip1 <- data
I0430 18:18:41.777441 22917 net.cpp:382] ip1 -> ip1
I0430 18:18:41.780072 22917 net.cpp:124] Setting up ip1
I0430 18:18:41.780086 22917 net.cpp:131] Top shape: 1000 20 (20000)
I0430 18:18:41.780092 22917 net.cpp:139] Memory required for data: 12380000
I0430 18:18:41.780125 22917 layer_factory.hpp:77] Creating layer relu1
I0430 18:18:41.780136 22917 net.cpp:86] Creating Layer relu1
I0430 18:18:41.780145 22917 net.cpp:408] relu1 <- ip1
I0430 18:18:41.780153 22917 net.cpp:369] relu1 -> ip1 (in-place)
I0430 18:18:41.781011 22917 net.cpp:124] Setting up relu1
I0430 18:18:41.781028 22917 net.cpp:131] Top shape: 1000 20 (20000)
I0430 18:18:41.781033 22917 net.cpp:139] Memory required for data: 12460000
I0430 18:18:41.781054 22917 layer_factory.hpp:77] Creating layer ip2
I0430 18:18:41.781077 22917 net.cpp:86] Creating Layer ip2
I0430 18:18:41.781090 22917 net.cpp:408] ip2 <- ip1
I0430 18:18:41.781100 22917 net.cpp:382] ip2 -> ip2
I0430 18:18:41.781275 22917 net.cpp:124] Setting up ip2
I0430 18:18:41.781283 22917 net.cpp:131] Top shape: 1000 20 (20000)
I0430 18:18:41.781288 22917 net.cpp:139] Memory required for data: 12540000
I0430 18:18:41.781301 22917 layer_factory.hpp:77] Creating layer relu2
I0430 18:18:41.781311 22917 net.cpp:86] Creating Layer relu2
I0430 18:18:41.781316 22917 net.cpp:408] relu2 <- ip2
I0430 18:18:41.781325 22917 net.cpp:369] relu2 -> ip2 (in-place)
I0430 18:18:41.781486 22917 net.cpp:124] Setting up relu2
I0430 18:18:41.781494 22917 net.cpp:131] Top shape: 1000 20 (20000)
I0430 18:18:41.781499 22917 net.cpp:139] Memory required for data: 12620000
I0430 18:18:41.781504 22917 layer_factory.hpp:77] Creating layer ip3
I0430 18:18:41.781514 22917 net.cpp:86] Creating Layer ip3
I0430 18:18:41.781519 22917 net.cpp:408] ip3 <- ip2
I0430 18:18:41.781528 22917 net.cpp:382] ip3 -> ip3
I0430 18:18:41.781674 22917 net.cpp:124] Setting up ip3
I0430 18:18:41.781683 22917 net.cpp:131] Top shape: 1000 40 (40000)
I0430 18:18:41.781688 22917 net.cpp:139] Memory required for data: 12780000
I0430 18:18:41.781702 22917 layer_factory.hpp:77] Creating layer relu3
I0430 18:18:41.781709 22917 net.cpp:86] Creating Layer relu3
I0430 18:18:41.781715 22917 net.cpp:408] relu3 <- ip3
I0430 18:18:41.781723 22917 net.cpp:369] relu3 -> ip3 (in-place)
I0430 18:18:41.781885 22917 net.cpp:124] Setting up relu3
I0430 18:18:41.781895 22917 net.cpp:131] Top shape: 1000 40 (40000)
I0430 18:18:41.781901 22917 net.cpp:139] Memory required for data: 12940000
I0430 18:18:41.781906 22917 layer_factory.hpp:77] Creating layer ip4
I0430 18:18:41.781919 22917 net.cpp:86] Creating Layer ip4
I0430 18:18:41.781924 22917 net.cpp:408] ip4 <- ip3
I0430 18:18:41.781946 22917 net.cpp:382] ip4 -> ip4
I0430 18:18:41.782066 22917 net.cpp:124] Setting up ip4
I0430 18:18:41.782075 22917 net.cpp:131] Top shape: 1000 10 (10000)
I0430 18:18:41.782080 22917 net.cpp:139] Memory required for data: 12980000
I0430 18:18:41.782089 22917 layer_factory.hpp:77] Creating layer ip4_ip4_0_split
I0430 18:18:41.782097 22917 net.cpp:86] Creating Layer ip4_ip4_0_split
I0430 18:18:41.782104 22917 net.cpp:408] ip4_ip4_0_split <- ip4
I0430 18:18:41.782110 22917 net.cpp:382] ip4_ip4_0_split -> ip4_ip4_0_split_0
I0430 18:18:41.782121 22917 net.cpp:382] ip4_ip4_0_split -> ip4_ip4_0_split_1
I0430 18:18:41.782158 22917 net.cpp:124] Setting up ip4_ip4_0_split
I0430 18:18:41.782166 22917 net.cpp:131] Top shape: 1000 10 (10000)
I0430 18:18:41.782172 22917 net.cpp:131] Top shape: 1000 10 (10000)
I0430 18:18:41.782177 22917 net.cpp:139] Memory required for data: 13060000
I0430 18:18:41.782182 22917 layer_factory.hpp:77] Creating layer accuracy
I0430 18:18:41.782191 22917 net.cpp:86] Creating Layer accuracy
I0430 18:18:41.782196 22917 net.cpp:408] accuracy <- ip4_ip4_0_split_0
I0430 18:18:41.782202 22917 net.cpp:408] accuracy <- label_cifar_1_split_0
I0430 18:18:41.782210 22917 net.cpp:382] accuracy -> accuracy
…
