…
I0501 04:35:59.286969 25807 net.cpp:296] The NetState phase (0) differed from the phase (1) specified by a rule in layer cifar
I0501 04:35:59.286988 25807 net.cpp:296] The NetState phase (0) differed from the phase (1) specified by a rule in layer accuracy
I0501 04:35:59.287096 25807 net.cpp:53] Initializing net from parameters: 
name: "CIFAR"
state {
  phase: TRAIN
  level: 0
  stage: ""
}
layer {
  name: "cifar"
  type: "Data"
  top: "data"
  top: "label"
  include {
    phase: TRAIN
  }
  transform_param {
    mean_file: "examples/cifar10/mean.binaryproto"
  }
  data_param {
    source: "examples/cifar10/cifar10_train_lmdb"
    batch_size: 111
    backend: LMDB
  }
}
layer {
  name: "conv0"
  type: "Convolution"
  bottom: "data"
  top: "conv0"
  param {
    lr_mult: 1
  }
  param {
    lr_mult: 2
  }
  convolution_param {
    num_output: 8
    pad: 2
    kernel_size: 5
    stride: 1
    weight_filler {
      type: "gaussian"
      std: 0.01
    }
    bias_filler {
      type: "constant"
    }
  }
}
layer {
  name: "Sigmoid0"
  type: "Sigmoid"
  bottom: "conv0"
  top: "Sigmoid0"
}
layer {
  name: "pool0"
  type: "Pooling"
  bottom: "Sigmoid0"
  top: "pool0"
  pooling_param {
    pool: AVE
    kernel_size: 3
    stride: 2
  }
}
layer {
  name: "ip1"
  type: "InnerProduct"
  bottom: "pool0"
  top: "ip1"
  param {
    lr_mult: 1
  }
  param {
    lr_mult: 2
  }
  inner_product_param {
    num_output: 40
    weight_filler {
      type: "gaussian"
      std: 0.01
    }
    bias_filler {
      type: "constant"
    }
  }
}
layer {
  name: "relu1"
  type: "ReLU"
  bottom: "ip1"
  top: "ip1"
}
layer {
  name: "ip2"
  type: "InnerProduct"
  bottom: "ip1"
  top: "ip2"
  param {
    lr_mult: 1
  }
  param {
    lr_mult: 2
  }
  inner_product_param {
    num_output: 10
    weight_filler {
      type: "gaussian"
      std: 0.01
    }
    bias_filler {
      type: "constant"
    }
  }
}
layer {
  name: "relu2"
  type: "ReLU"
  bottom: "ip2"
  top: "ip2"
}
layer {
  name: "ip3"
  type: "InnerProduct"
  bottom: "ip2"
  top: "ip3"
  param {
    lr_mult: 1
  }
  param {
    lr_mult: 2
  }
  inner_product_param {
    num_output: 20
    weight_filler {
      type: "gaussian"
      std: 0.01
    }
    bias_filler {
      type: "constant"
    }
  }
}
layer {
  name: "relu3"
  type: "ReLU"
  bottom: "ip3"
  top: "ip3"
}
layer {
  name: "ip4"
  type: "InnerProduct"
  bottom: "ip3"
  top: "ip4"
  param {
    lr_mult: 1
  }
  param {
    lr_mult: 2
  }
  inner_product_param {
    num_output: 10
    weight_filler {
      type: "gaussian"
      std: 0.01
    }
    bias_filler {
      type: "constant"
    }
  }
}
layer {
  name: "loss"
  type: "SoftmaxWithLoss"
  bottom: "ip4"
  bottom: "label"
  top: "loss"
}
I0501 04:35:59.287176 25807 layer_factory.hpp:77] Creating layer cifar
I0501 04:35:59.287286 25807 db_lmdb.cpp:35] Opened lmdb examples/cifar10/cifar10_train_lmdb
I0501 04:35:59.287317 25807 net.cpp:86] Creating Layer cifar
I0501 04:35:59.287324 25807 net.cpp:382] cifar -> data
I0501 04:35:59.287349 25807 net.cpp:382] cifar -> label
I0501 04:35:59.287361 25807 data_transformer.cpp:25] Loading mean file from: examples/cifar10/mean.binaryproto
I0501 04:35:59.289585 25807 data_layer.cpp:45] output data size: 111,3,32,32
I0501 04:35:59.297461 25807 net.cpp:124] Setting up cifar
I0501 04:35:59.297480 25807 net.cpp:131] Top shape: 111 3 32 32 (340992)
I0501 04:35:59.297488 25807 net.cpp:131] Top shape: 111 (111)
I0501 04:35:59.297493 25807 net.cpp:139] Memory required for data: 1364412
I0501 04:35:59.297518 25807 layer_factory.hpp:77] Creating layer conv0
I0501 04:35:59.297538 25807 net.cpp:86] Creating Layer conv0
I0501 04:35:59.297544 25807 net.cpp:408] conv0 <- data
I0501 04:35:59.297555 25807 net.cpp:382] conv0 -> conv0
I0501 04:35:59.577138 25807 net.cpp:124] Setting up conv0
I0501 04:35:59.577167 25807 net.cpp:131] Top shape: 111 8 32 32 (909312)
I0501 04:35:59.577169 25807 net.cpp:139] Memory required for data: 5001660
I0501 04:35:59.577184 25807 layer_factory.hpp:77] Creating layer Sigmoid0
I0501 04:35:59.577195 25807 net.cpp:86] Creating Layer Sigmoid0
I0501 04:35:59.577200 25807 net.cpp:408] Sigmoid0 <- conv0
I0501 04:35:59.577205 25807 net.cpp:382] Sigmoid0 -> Sigmoid0
I0501 04:35:59.577390 25807 net.cpp:124] Setting up Sigmoid0
I0501 04:35:59.577399 25807 net.cpp:131] Top shape: 111 8 32 32 (909312)
I0501 04:35:59.577404 25807 net.cpp:139] Memory required for data: 8638908
I0501 04:35:59.577406 25807 layer_factory.hpp:77] Creating layer pool0
I0501 04:35:59.577412 25807 net.cpp:86] Creating Layer pool0
I0501 04:35:59.577415 25807 net.cpp:408] pool0 <- Sigmoid0
I0501 04:35:59.577419 25807 net.cpp:382] pool0 -> pool0
I0501 04:35:59.578119 25807 net.cpp:124] Setting up pool0
I0501 04:35:59.578132 25807 net.cpp:131] Top shape: 111 8 16 16 (227328)
I0501 04:35:59.578135 25807 net.cpp:139] Memory required for data: 9548220
I0501 04:35:59.578140 25807 layer_factory.hpp:77] Creating layer ip1
I0501 04:35:59.578147 25807 net.cpp:86] Creating Layer ip1
I0501 04:35:59.578151 25807 net.cpp:408] ip1 <- pool0
I0501 04:35:59.578155 25807 net.cpp:382] ip1 -> ip1
I0501 04:35:59.580339 25807 net.cpp:124] Setting up ip1
I0501 04:35:59.580346 25807 net.cpp:131] Top shape: 111 40 (4440)
I0501 04:35:59.580349 25807 net.cpp:139] Memory required for data: 9565980
I0501 04:35:59.580356 25807 layer_factory.hpp:77] Creating layer relu1
I0501 04:35:59.580363 25807 net.cpp:86] Creating Layer relu1
I0501 04:35:59.580365 25807 net.cpp:408] relu1 <- ip1
I0501 04:35:59.580369 25807 net.cpp:369] relu1 -> ip1 (in-place)
I0501 04:35:59.580526 25807 net.cpp:124] Setting up relu1
I0501 04:35:59.580534 25807 net.cpp:131] Top shape: 111 40 (4440)
I0501 04:35:59.580538 25807 net.cpp:139] Memory required for data: 9583740
I0501 04:35:59.580540 25807 layer_factory.hpp:77] Creating layer ip2
I0501 04:35:59.580546 25807 net.cpp:86] Creating Layer ip2
I0501 04:35:59.580549 25807 net.cpp:408] ip2 <- ip1
I0501 04:35:59.580554 25807 net.cpp:382] ip2 -> ip2
I0501 04:35:59.580657 25807 net.cpp:124] Setting up ip2
I0501 04:35:59.580664 25807 net.cpp:131] Top shape: 111 10 (1110)
I0501 04:35:59.580667 25807 net.cpp:139] Memory required for data: 9588180
I0501 04:35:59.580673 25807 layer_factory.hpp:77] Creating layer relu2
I0501 04:35:59.580678 25807 net.cpp:86] Creating Layer relu2
I0501 04:35:59.580682 25807 net.cpp:408] relu2 <- ip2
I0501 04:35:59.580684 25807 net.cpp:369] relu2 -> ip2 (in-place)
I0501 04:35:59.580828 25807 net.cpp:124] Setting up relu2
I0501 04:35:59.580852 25807 net.cpp:131] Top shape: 111 10 (1110)
I0501 04:35:59.580854 25807 net.cpp:139] Memory required for data: 9592620
I0501 04:35:59.580857 25807 layer_factory.hpp:77] Creating layer ip3
I0501 04:35:59.580864 25807 net.cpp:86] Creating Layer ip3
I0501 04:35:59.580868 25807 net.cpp:408] ip3 <- ip2
I0501 04:35:59.580873 25807 net.cpp:382] ip3 -> ip3
I0501 04:35:59.580981 25807 net.cpp:124] Setting up ip3
I0501 04:35:59.580987 25807 net.cpp:131] Top shape: 111 20 (2220)
I0501 04:35:59.580991 25807 net.cpp:139] Memory required for data: 9601500
I0501 04:35:59.580996 25807 layer_factory.hpp:77] Creating layer relu3
I0501 04:35:59.581001 25807 net.cpp:86] Creating Layer relu3
I0501 04:35:59.581003 25807 net.cpp:408] relu3 <- ip3
I0501 04:35:59.581007 25807 net.cpp:369] relu3 -> ip3 (in-place)
I0501 04:35:59.581146 25807 net.cpp:124] Setting up relu3
I0501 04:35:59.581152 25807 net.cpp:131] Top shape: 111 20 (2220)
I0501 04:35:59.581156 25807 net.cpp:139] Memory required for data: 9610380
I0501 04:35:59.581158 25807 layer_factory.hpp:77] Creating layer ip4
I0501 04:35:59.581207 25807 net.cpp:86] Creating Layer ip4
I0501 04:35:59.581212 25807 net.cpp:408] ip4 <- ip3
I0501 04:35:59.581215 25807 net.cpp:382] ip4 -> ip4
I0501 04:35:59.581300 25807 net.cpp:124] Setting up ip4
I0501 04:35:59.581307 25807 net.cpp:131] Top shape: 111 10 (1110)
I0501 04:35:59.581310 25807 net.cpp:139] Memory required for data: 9614820
I0501 04:35:59.581317 25807 layer_factory.hpp:77] Creating layer loss
I0501 04:35:59.581322 25807 net.cpp:86] Creating Layer loss
I0501 04:35:59.581326 25807 net.cpp:408] loss <- ip4
I0501 04:35:59.581329 25807 net.cpp:408] loss <- label
I0501 04:35:59.581333 25807 net.cpp:382] loss -> loss
I0501 04:35:59.581351 25807 layer_factory.hpp:77] Creating layer loss
…
I0501 04:35:59.582538 25807 solver.cpp:173] Creating test net (#0) specified by net file: ECE595/cifar/train_test/var_everything/cifar_train_test_391.prototxt
I0501 04:35:59.582566 25807 net.cpp:296] The NetState phase (1) differed from the phase (0) specified by a rule in layer cifar
I0501 04:35:59.582656 25807 net.cpp:53] Initializing net from parameters: 
name: "CIFAR"
state {
  phase: TEST
}
layer {
  name: "cifar"
  type: "Data"
  top: "data"
  top: "label"
  include {
    phase: TEST
  }
  transform_param {
    mean_file: "examples/cifar10/mean.binaryproto"
  }
  data_param {
    source: "examples/cifar10/cifar10_test_lmdb"
    batch_size: 1000
    backend: LMDB
  }
}
layer {
  name: "conv0"
  type: "Convolution"
  bottom: "data"
  top: "conv0"
  param {
    lr_mult: 1
  }
  param {
    lr_mult: 2
  }
  convolution_param {
    num_output: 8
    pad: 2
    kernel_size: 5
    stride: 1
    weight_filler {
      type: "gaussian"
      std: 0.01
    }
    bias_filler {
      type: "constant"
    }
  }
}
layer {
  name: "Sigmoid0"
  type: "Sigmoid"
  bottom: "conv0"
  top: "Sigmoid0"
}
layer {
  name: "pool0"
  type: "Pooling"
  bottom: "Sigmoid0"
  top: "pool0"
  pooling_param {
    pool: AVE
    kernel_size: 3
    stride: 2
  }
}
layer {
  name: "ip1"
  type: "InnerProduct"
  bottom: "pool0"
  top: "ip1"
  param {
    lr_mult: 1
  }
  param {
    lr_mult: 2
  }
  inner_product_param {
    num_output: 40
    weight_filler {
      type: "gaussian"
      std: 0.01
    }
    bias_filler {
      type: "constant"
    }
  }
}
layer {
  name: "relu1"
  type: "ReLU"
  bottom: "ip1"
  top: "ip1"
}
layer {
  name: "ip2"
  type: "InnerProduct"
  bottom: "ip1"
  top: "ip2"
  param {
    lr_mult: 1
  }
  param {
    lr_mult: 2
  }
  inner_product_param {
    num_output: 10
    weight_filler {
      type: "gaussian"
      std: 0.01
    }
    bias_filler {
      type: "constant"
    }
  }
}
layer {
  name: "relu2"
  type: "ReLU"
  bottom: "ip2"
  top: "ip2"
}
layer {
  name: "ip3"
  type: "InnerProduct"
  bottom: "ip2"
  top: "ip3"
  param {
    lr_mult: 1
  }
  param {
    lr_mult: 2
  }
  inner_product_param {
    num_output: 20
    weight_filler {
      type: "gaussian"
      std: 0.01
    }
    bias_filler {
      type: "constant"
    }
  }
}
layer {
  name: "relu3"
  type: "ReLU"
  bottom: "ip3"
  top: "ip3"
}
layer {
  name: "ip4"
  type: "InnerProduct"
  bottom: "ip3"
  top: "ip4"
  param {
    lr_mult: 1
  }
  param {
    lr_mult: 2
  }
  inner_product_param {
    num_output: 10
    weight_filler {
      type: "gaussian"
      std: 0.01
    }
    bias_filler {
      type: "constant"
    }
  }
}
layer {
  name: "accuracy"
  type: "Accuracy"
  bottom: "ip4"
  bottom: "label"
  top: "accuracy"
  include {
    phase: TEST
  }
}
layer {
  name: "loss"
  type: "SoftmaxWithLoss"
  bottom: "ip4"
  bottom: "label"
  top: "loss"
}
I0501 04:35:59.582732 25807 layer_factory.hpp:77] Creating layer cifar
I0501 04:35:59.582789 25807 db_lmdb.cpp:35] Opened lmdb examples/cifar10/cifar10_test_lmdb
I0501 04:35:59.582801 25807 net.cpp:86] Creating Layer cifar
I0501 04:35:59.582806 25807 net.cpp:382] cifar -> data
I0501 04:35:59.582813 25807 net.cpp:382] cifar -> label
I0501 04:35:59.582819 25807 data_transformer.cpp:25] Loading mean file from: examples/cifar10/mean.binaryproto
I0501 04:35:59.582949 25807 data_layer.cpp:45] output data size: 1000,3,32,32
I0501 04:35:59.604359 25807 net.cpp:124] Setting up cifar
I0501 04:35:59.604416 25807 net.cpp:131] Top shape: 1000 3 32 32 (3072000)
I0501 04:35:59.604423 25807 net.cpp:131] Top shape: 1000 (1000)
I0501 04:35:59.604426 25807 net.cpp:139] Memory required for data: 12292000
I0501 04:35:59.604434 25807 layer_factory.hpp:77] Creating layer label_cifar_1_split
I0501 04:35:59.604445 25807 net.cpp:86] Creating Layer label_cifar_1_split
I0501 04:35:59.604449 25807 net.cpp:408] label_cifar_1_split <- label
I0501 04:35:59.604456 25807 net.cpp:382] label_cifar_1_split -> label_cifar_1_split_0
I0501 04:35:59.604465 25807 net.cpp:382] label_cifar_1_split -> label_cifar_1_split_1
I0501 04:35:59.604570 25807 net.cpp:124] Setting up label_cifar_1_split
I0501 04:35:59.604578 25807 net.cpp:131] Top shape: 1000 (1000)
I0501 04:35:59.604581 25807 net.cpp:131] Top shape: 1000 (1000)
I0501 04:35:59.604584 25807 net.cpp:139] Memory required for data: 12300000
I0501 04:35:59.604588 25807 layer_factory.hpp:77] Creating layer conv0
I0501 04:35:59.604600 25807 net.cpp:86] Creating Layer conv0
I0501 04:35:59.604605 25807 net.cpp:408] conv0 <- data
I0501 04:35:59.604626 25807 net.cpp:382] conv0 -> conv0
I0501 04:35:59.606403 25807 net.cpp:124] Setting up conv0
I0501 04:35:59.606432 25807 net.cpp:131] Top shape: 1000 8 32 32 (8192000)
I0501 04:35:59.606436 25807 net.cpp:139] Memory required for data: 45068000
I0501 04:35:59.606446 25807 layer_factory.hpp:77] Creating layer Sigmoid0
I0501 04:35:59.606452 25807 net.cpp:86] Creating Layer Sigmoid0
I0501 04:35:59.606456 25807 net.cpp:408] Sigmoid0 <- conv0
I0501 04:35:59.606459 25807 net.cpp:382] Sigmoid0 -> Sigmoid0
I0501 04:35:59.606703 25807 net.cpp:124] Setting up Sigmoid0
I0501 04:35:59.606714 25807 net.cpp:131] Top shape: 1000 8 32 32 (8192000)
I0501 04:35:59.606719 25807 net.cpp:139] Memory required for data: 77836000
I0501 04:35:59.606724 25807 layer_factory.hpp:77] Creating layer pool0
I0501 04:35:59.606735 25807 net.cpp:86] Creating Layer pool0
I0501 04:35:59.606742 25807 net.cpp:408] pool0 <- Sigmoid0
I0501 04:35:59.606762 25807 net.cpp:382] pool0 -> pool0
I0501 04:35:59.607049 25807 net.cpp:124] Setting up pool0
I0501 04:35:59.607059 25807 net.cpp:131] Top shape: 1000 8 16 16 (2048000)
I0501 04:35:59.607062 25807 net.cpp:139] Memory required for data: 86028000
I0501 04:35:59.607065 25807 layer_factory.hpp:77] Creating layer ip1
I0501 04:35:59.607074 25807 net.cpp:86] Creating Layer ip1
I0501 04:35:59.607076 25807 net.cpp:408] ip1 <- pool0
I0501 04:35:59.607081 25807 net.cpp:382] ip1 -> ip1
I0501 04:35:59.610265 25807 net.cpp:124] Setting up ip1
I0501 04:35:59.610275 25807 net.cpp:131] Top shape: 1000 40 (40000)
I0501 04:35:59.610292 25807 net.cpp:139] Memory required for data: 86188000
I0501 04:35:59.610332 25807 layer_factory.hpp:77] Creating layer relu1
I0501 04:35:59.610337 25807 net.cpp:86] Creating Layer relu1
I0501 04:35:59.610342 25807 net.cpp:408] relu1 <- ip1
I0501 04:35:59.610345 25807 net.cpp:369] relu1 -> ip1 (in-place)
I0501 04:35:59.610543 25807 net.cpp:124] Setting up relu1
I0501 04:35:59.610553 25807 net.cpp:131] Top shape: 1000 40 (40000)
I0501 04:35:59.610555 25807 net.cpp:139] Memory required for data: 86348000
I0501 04:35:59.610559 25807 layer_factory.hpp:77] Creating layer ip2
I0501 04:35:59.610565 25807 net.cpp:86] Creating Layer ip2
I0501 04:35:59.610569 25807 net.cpp:408] ip2 <- ip1
I0501 04:35:59.610574 25807 net.cpp:382] ip2 -> ip2
I0501 04:35:59.610690 25807 net.cpp:124] Setting up ip2
I0501 04:35:59.610697 25807 net.cpp:131] Top shape: 1000 10 (10000)
I0501 04:35:59.610700 25807 net.cpp:139] Memory required for data: 86388000
I0501 04:35:59.610708 25807 layer_factory.hpp:77] Creating layer relu2
I0501 04:35:59.610716 25807 net.cpp:86] Creating Layer relu2
I0501 04:35:59.610720 25807 net.cpp:408] relu2 <- ip2
I0501 04:35:59.610724 25807 net.cpp:369] relu2 -> ip2 (in-place)
I0501 04:35:59.611626 25807 net.cpp:124] Setting up relu2
I0501 04:35:59.611639 25807 net.cpp:131] Top shape: 1000 10 (10000)
I0501 04:35:59.611659 25807 net.cpp:139] Memory required for data: 86428000
I0501 04:35:59.611662 25807 layer_factory.hpp:77] Creating layer ip3
I0501 04:35:59.611670 25807 net.cpp:86] Creating Layer ip3
I0501 04:35:59.611673 25807 net.cpp:408] ip3 <- ip2
I0501 04:35:59.611680 25807 net.cpp:382] ip3 -> ip3
I0501 04:35:59.611821 25807 net.cpp:124] Setting up ip3
I0501 04:35:59.611829 25807 net.cpp:131] Top shape: 1000 20 (20000)
I0501 04:35:59.611832 25807 net.cpp:139] Memory required for data: 86508000
I0501 04:35:59.611838 25807 layer_factory.hpp:77] Creating layer relu3
I0501 04:35:59.611845 25807 net.cpp:86] Creating Layer relu3
I0501 04:35:59.611847 25807 net.cpp:408] relu3 <- ip3
I0501 04:35:59.611852 25807 net.cpp:369] relu3 -> ip3 (in-place)
I0501 04:35:59.611999 25807 net.cpp:124] Setting up relu3
I0501 04:35:59.612006 25807 net.cpp:131] Top shape: 1000 20 (20000)
I0501 04:35:59.612010 25807 net.cpp:139] Memory required for data: 86588000
I0501 04:35:59.612012 25807 layer_factory.hpp:77] Creating layer ip4
I0501 04:35:59.612020 25807 net.cpp:86] Creating Layer ip4
I0501 04:35:59.612022 25807 net.cpp:408] ip4 <- ip3
I0501 04:35:59.612027 25807 net.cpp:382] ip4 -> ip4
I0501 04:35:59.612145 25807 net.cpp:124] Setting up ip4
I0501 04:35:59.612152 25807 net.cpp:131] Top shape: 1000 10 (10000)
I0501 04:35:59.612155 25807 net.cpp:139] Memory required for data: 86628000
I0501 04:35:59.612164 25807 layer_factory.hpp:77] Creating layer ip4_ip4_0_split
I0501 04:35:59.612172 25807 net.cpp:86] Creating Layer ip4_ip4_0_split
I0501 04:35:59.612176 25807 net.cpp:408] ip4_ip4_0_split <- ip4
I0501 04:35:59.612181 25807 net.cpp:382] ip4_ip4_0_split -> ip4_ip4_0_split_0
I0501 04:35:59.612186 25807 net.cpp:382] ip4_ip4_0_split -> ip4_ip4_0_split_1
I0501 04:35:59.612217 25807 net.cpp:124] Setting up ip4_ip4_0_split
I0501 04:35:59.612223 25807 net.cpp:131] Top shape: 1000 10 (10000)
I0501 04:35:59.612227 25807 net.cpp:131] Top shape: 1000 10 (10000)
I0501 04:35:59.612231 25807 net.cpp:139] Memory required for data: 86708000
I0501 04:35:59.612233 25807 layer_factory.hpp:77] Creating layer accuracy
I0501 04:35:59.612239 25807 net.cpp:86] Creating Layer accuracy
I0501 04:35:59.612243 25807 net.cpp:408] accuracy <- ip4_ip4_0_split_0
I0501 04:35:59.612247 25807 net.cpp:408] accuracy <- label_cifar_1_split_0
I0501 04:35:59.612252 25807 net.cpp:382] accuracy -> accuracy
…
