…
I0501 05:48:30.441385 30454 net.cpp:296] The NetState phase (0) differed from the phase (1) specified by a rule in layer cifar
I0501 05:48:30.441401 30454 net.cpp:296] The NetState phase (0) differed from the phase (1) specified by a rule in layer accuracy
I0501 05:48:30.441495 30454 net.cpp:53] Initializing net from parameters: 
name: "CIFAR"
state {
  phase: TRAIN
  level: 0
  stage: ""
}
layer {
  name: "cifar"
  type: "Data"
  top: "data"
  top: "label"
  include {
    phase: TRAIN
  }
  transform_param {
    mean_file: "examples/cifar10/mean.binaryproto"
  }
  data_param {
    source: "examples/cifar10/cifar10_train_lmdb"
    batch_size: 111
    backend: LMDB
  }
}
layer {
  name: "conv0"
  type: "Convolution"
  bottom: "data"
  top: "conv0"
  param {
    lr_mult: 1
  }
  param {
    lr_mult: 2
  }
  convolution_param {
    num_output: 8
    pad: 2
    kernel_size: 5
    stride: 1
    weight_filler {
      type: "gaussian"
      std: 0.01
    }
    bias_filler {
      type: "constant"
    }
  }
}
layer {
  name: "Sigmoid0"
  type: "Sigmoid"
  bottom: "conv0"
  top: "Sigmoid0"
}
layer {
  name: "pool0"
  type: "Pooling"
  bottom: "Sigmoid0"
  top: "pool0"
  pooling_param {
    pool: AVE
    kernel_size: 3
    stride: 2
  }
}
layer {
  name: "ip1"
  type: "InnerProduct"
  bottom: "pool0"
  top: "ip1"
  param {
    lr_mult: 1
  }
  param {
    lr_mult: 2
  }
  inner_product_param {
    num_output: 80
    weight_filler {
      type: "gaussian"
      std: 0.01
    }
    bias_filler {
      type: "constant"
    }
  }
}
layer {
  name: "relu1"
  type: "ReLU"
  bottom: "ip1"
  top: "ip1"
}
layer {
  name: "ip2"
  type: "InnerProduct"
  bottom: "ip1"
  top: "ip2"
  param {
    lr_mult: 1
  }
  param {
    lr_mult: 2
  }
  inner_product_param {
    num_output: 80
    weight_filler {
      type: "gaussian"
      std: 0.01
    }
    bias_filler {
      type: "constant"
    }
  }
}
layer {
  name: "relu2"
  type: "ReLU"
  bottom: "ip2"
  top: "ip2"
}
layer {
  name: "ip3"
  type: "InnerProduct"
  bottom: "ip2"
  top: "ip3"
  param {
    lr_mult: 1
  }
  param {
    lr_mult: 2
  }
  inner_product_param {
    num_output: 10
    weight_filler {
      type: "gaussian"
      std: 0.01
    }
    bias_filler {
      type: "constant"
    }
  }
}
layer {
  name: "relu3"
  type: "ReLU"
  bottom: "ip3"
  top: "ip3"
}
layer {
  name: "ip4"
  type: "InnerProduct"
  bottom: "ip3"
  top: "ip4"
  param {
    lr_mult: 1
  }
  param {
    lr_mult: 2
  }
  inner_product_param {
    num_output: 10
    weight_filler {
      type: "gaussian"
      std: 0.01
    }
    bias_filler {
      type: "constant"
    }
  }
}
layer {
  name: "loss"
  type: "SoftmaxWithLoss"
  bottom: "ip4"
  bottom: "label"
  top: "loss"
}
I0501 05:48:30.441558 30454 layer_factory.hpp:77] Creating layer cifar
I0501 05:48:30.441635 30454 db_lmdb.cpp:35] Opened lmdb examples/cifar10/cifar10_train_lmdb
I0501 05:48:30.441658 30454 net.cpp:86] Creating Layer cifar
I0501 05:48:30.441664 30454 net.cpp:382] cifar -> data
I0501 05:48:30.441682 30454 net.cpp:382] cifar -> label
I0501 05:48:30.441694 30454 data_transformer.cpp:25] Loading mean file from: examples/cifar10/mean.binaryproto
I0501 05:48:30.443419 30454 data_layer.cpp:45] output data size: 111,3,32,32
I0501 05:48:30.449954 30454 net.cpp:124] Setting up cifar
I0501 05:48:30.449983 30454 net.cpp:131] Top shape: 111 3 32 32 (340992)
I0501 05:48:30.449987 30454 net.cpp:131] Top shape: 111 (111)
I0501 05:48:30.449990 30454 net.cpp:139] Memory required for data: 1364412
I0501 05:48:30.450009 30454 layer_factory.hpp:77] Creating layer conv0
I0501 05:48:30.450040 30454 net.cpp:86] Creating Layer conv0
I0501 05:48:30.450045 30454 net.cpp:408] conv0 <- data
I0501 05:48:30.450058 30454 net.cpp:382] conv0 -> conv0
I0501 05:48:30.682790 30454 net.cpp:124] Setting up conv0
I0501 05:48:30.682832 30454 net.cpp:131] Top shape: 111 8 32 32 (909312)
I0501 05:48:30.682835 30454 net.cpp:139] Memory required for data: 5001660
I0501 05:48:30.682852 30454 layer_factory.hpp:77] Creating layer Sigmoid0
I0501 05:48:30.682862 30454 net.cpp:86] Creating Layer Sigmoid0
I0501 05:48:30.682868 30454 net.cpp:408] Sigmoid0 <- conv0
I0501 05:48:30.682873 30454 net.cpp:382] Sigmoid0 -> Sigmoid0
I0501 05:48:30.683040 30454 net.cpp:124] Setting up Sigmoid0
I0501 05:48:30.683049 30454 net.cpp:131] Top shape: 111 8 32 32 (909312)
I0501 05:48:30.683053 30454 net.cpp:139] Memory required for data: 8638908
I0501 05:48:30.683055 30454 layer_factory.hpp:77] Creating layer pool0
I0501 05:48:30.683063 30454 net.cpp:86] Creating Layer pool0
I0501 05:48:30.683065 30454 net.cpp:408] pool0 <- Sigmoid0
I0501 05:48:30.683069 30454 net.cpp:382] pool0 -> pool0
I0501 05:48:30.683825 30454 net.cpp:124] Setting up pool0
I0501 05:48:30.683853 30454 net.cpp:131] Top shape: 111 8 16 16 (227328)
I0501 05:48:30.683857 30454 net.cpp:139] Memory required for data: 9548220
I0501 05:48:30.683861 30454 layer_factory.hpp:77] Creating layer ip1
I0501 05:48:30.683869 30454 net.cpp:86] Creating Layer ip1
I0501 05:48:30.683872 30454 net.cpp:408] ip1 <- pool0
I0501 05:48:30.683877 30454 net.cpp:382] ip1 -> ip1
I0501 05:48:30.688336 30454 net.cpp:124] Setting up ip1
I0501 05:48:30.688344 30454 net.cpp:131] Top shape: 111 80 (8880)
I0501 05:48:30.688362 30454 net.cpp:139] Memory required for data: 9583740
I0501 05:48:30.688370 30454 layer_factory.hpp:77] Creating layer relu1
I0501 05:48:30.688375 30454 net.cpp:86] Creating Layer relu1
I0501 05:48:30.688380 30454 net.cpp:408] relu1 <- ip1
I0501 05:48:30.688383 30454 net.cpp:369] relu1 -> ip1 (in-place)
I0501 05:48:30.688550 30454 net.cpp:124] Setting up relu1
I0501 05:48:30.688558 30454 net.cpp:131] Top shape: 111 80 (8880)
I0501 05:48:30.688561 30454 net.cpp:139] Memory required for data: 9619260
I0501 05:48:30.688565 30454 layer_factory.hpp:77] Creating layer ip2
I0501 05:48:30.688570 30454 net.cpp:86] Creating Layer ip2
I0501 05:48:30.688573 30454 net.cpp:408] ip2 <- ip1
I0501 05:48:30.688577 30454 net.cpp:382] ip2 -> ip2
I0501 05:48:30.689728 30454 net.cpp:124] Setting up ip2
I0501 05:48:30.689739 30454 net.cpp:131] Top shape: 111 80 (8880)
I0501 05:48:30.689757 30454 net.cpp:139] Memory required for data: 9654780
I0501 05:48:30.689765 30454 layer_factory.hpp:77] Creating layer relu2
I0501 05:48:30.689770 30454 net.cpp:86] Creating Layer relu2
I0501 05:48:30.689774 30454 net.cpp:408] relu2 <- ip2
I0501 05:48:30.689779 30454 net.cpp:369] relu2 -> ip2 (in-place)
I0501 05:48:30.689949 30454 net.cpp:124] Setting up relu2
I0501 05:48:30.689956 30454 net.cpp:131] Top shape: 111 80 (8880)
I0501 05:48:30.689960 30454 net.cpp:139] Memory required for data: 9690300
I0501 05:48:30.689963 30454 layer_factory.hpp:77] Creating layer ip3
I0501 05:48:30.689970 30454 net.cpp:86] Creating Layer ip3
I0501 05:48:30.689973 30454 net.cpp:408] ip3 <- ip2
I0501 05:48:30.689978 30454 net.cpp:382] ip3 -> ip3
I0501 05:48:30.690109 30454 net.cpp:124] Setting up ip3
I0501 05:48:30.690115 30454 net.cpp:131] Top shape: 111 10 (1110)
I0501 05:48:30.690119 30454 net.cpp:139] Memory required for data: 9694740
I0501 05:48:30.690124 30454 layer_factory.hpp:77] Creating layer relu3
I0501 05:48:30.690129 30454 net.cpp:86] Creating Layer relu3
I0501 05:48:30.690131 30454 net.cpp:408] relu3 <- ip3
I0501 05:48:30.690135 30454 net.cpp:369] relu3 -> ip3 (in-place)
I0501 05:48:30.690279 30454 net.cpp:124] Setting up relu3
I0501 05:48:30.690287 30454 net.cpp:131] Top shape: 111 10 (1110)
I0501 05:48:30.690305 30454 net.cpp:139] Memory required for data: 9699180
I0501 05:48:30.690309 30454 layer_factory.hpp:77] Creating layer ip4
I0501 05:48:30.690328 30454 net.cpp:86] Creating Layer ip4
I0501 05:48:30.690331 30454 net.cpp:408] ip4 <- ip3
I0501 05:48:30.690336 30454 net.cpp:382] ip4 -> ip4
I0501 05:48:30.690425 30454 net.cpp:124] Setting up ip4
I0501 05:48:30.690433 30454 net.cpp:131] Top shape: 111 10 (1110)
I0501 05:48:30.690435 30454 net.cpp:139] Memory required for data: 9703620
I0501 05:48:30.690443 30454 layer_factory.hpp:77] Creating layer loss
I0501 05:48:30.690448 30454 net.cpp:86] Creating Layer loss
I0501 05:48:30.690450 30454 net.cpp:408] loss <- ip4
I0501 05:48:30.690454 30454 net.cpp:408] loss <- label
I0501 05:48:30.690459 30454 net.cpp:382] loss -> loss
I0501 05:48:30.690475 30454 layer_factory.hpp:77] Creating layer loss
…
I0501 05:48:30.691705 30454 solver.cpp:173] Creating test net (#0) specified by net file: ECE595/cifar/train_test/var_everything/cifar_train_test_430.prototxt
I0501 05:48:30.691733 30454 net.cpp:296] The NetState phase (1) differed from the phase (0) specified by a rule in layer cifar
I0501 05:48:30.691824 30454 net.cpp:53] Initializing net from parameters: 
name: "CIFAR"
state {
  phase: TEST
}
layer {
  name: "cifar"
  type: "Data"
  top: "data"
  top: "label"
  include {
    phase: TEST
  }
  transform_param {
    mean_file: "examples/cifar10/mean.binaryproto"
  }
  data_param {
    source: "examples/cifar10/cifar10_test_lmdb"
    batch_size: 1000
    backend: LMDB
  }
}
layer {
  name: "conv0"
  type: "Convolution"
  bottom: "data"
  top: "conv0"
  param {
    lr_mult: 1
  }
  param {
    lr_mult: 2
  }
  convolution_param {
    num_output: 8
    pad: 2
    kernel_size: 5
    stride: 1
    weight_filler {
      type: "gaussian"
      std: 0.01
    }
    bias_filler {
      type: "constant"
    }
  }
}
layer {
  name: "Sigmoid0"
  type: "Sigmoid"
  bottom: "conv0"
  top: "Sigmoid0"
}
layer {
  name: "pool0"
  type: "Pooling"
  bottom: "Sigmoid0"
  top: "pool0"
  pooling_param {
    pool: AVE
    kernel_size: 3
    stride: 2
  }
}
layer {
  name: "ip1"
  type: "InnerProduct"
  bottom: "pool0"
  top: "ip1"
  param {
    lr_mult: 1
  }
  param {
    lr_mult: 2
  }
  inner_product_param {
    num_output: 80
    weight_filler {
      type: "gaussian"
      std: 0.01
    }
    bias_filler {
      type: "constant"
    }
  }
}
layer {
  name: "relu1"
  type: "ReLU"
  bottom: "ip1"
  top: "ip1"
}
layer {
  name: "ip2"
  type: "InnerProduct"
  bottom: "ip1"
  top: "ip2"
  param {
    lr_mult: 1
  }
  param {
    lr_mult: 2
  }
  inner_product_param {
    num_output: 80
    weight_filler {
      type: "gaussian"
      std: 0.01
    }
    bias_filler {
      type: "constant"
    }
  }
}
layer {
  name: "relu2"
  type: "ReLU"
  bottom: "ip2"
  top: "ip2"
}
layer {
  name: "ip3"
  type: "InnerProduct"
  bottom: "ip2"
  top: "ip3"
  param {
    lr_mult: 1
  }
  param {
    lr_mult: 2
  }
  inner_product_param {
    num_output: 10
    weight_filler {
      type: "gaussian"
      std: 0.01
    }
    bias_filler {
      type: "constant"
    }
  }
}
layer {
  name: "relu3"
  type: "ReLU"
  bottom: "ip3"
  top: "ip3"
}
layer {
  name: "ip4"
  type: "InnerProduct"
  bottom: "ip3"
  top: "ip4"
  param {
    lr_mult: 1
  }
  param {
    lr_mult: 2
  }
  inner_product_param {
    num_output: 10
    weight_filler {
      type: "gaussian"
      std: 0.01
    }
    bias_filler {
      type: "constant"
    }
  }
}
layer {
  name: "accuracy"
  type: "Accuracy"
  bottom: "ip4"
  bottom: "label"
  top: "accuracy"
  include {
    phase: TEST
  }
}
layer {
  name: "loss"
  type: "SoftmaxWithLoss"
  bottom: "ip4"
  bottom: "label"
  top: "loss"
}
I0501 05:48:30.691900 30454 layer_factory.hpp:77] Creating layer cifar
I0501 05:48:30.691943 30454 db_lmdb.cpp:35] Opened lmdb examples/cifar10/cifar10_test_lmdb
I0501 05:48:30.691956 30454 net.cpp:86] Creating Layer cifar
I0501 05:48:30.691959 30454 net.cpp:382] cifar -> data
I0501 05:48:30.691967 30454 net.cpp:382] cifar -> label
I0501 05:48:30.691973 30454 data_transformer.cpp:25] Loading mean file from: examples/cifar10/mean.binaryproto
I0501 05:48:30.692106 30454 data_layer.cpp:45] output data size: 1000,3,32,32
I0501 05:48:30.714509 30454 net.cpp:124] Setting up cifar
I0501 05:48:30.714534 30454 net.cpp:131] Top shape: 1000 3 32 32 (3072000)
I0501 05:48:30.714540 30454 net.cpp:131] Top shape: 1000 (1000)
I0501 05:48:30.714543 30454 net.cpp:139] Memory required for data: 12292000
I0501 05:48:30.714548 30454 layer_factory.hpp:77] Creating layer label_cifar_1_split
I0501 05:48:30.714560 30454 net.cpp:86] Creating Layer label_cifar_1_split
I0501 05:48:30.714565 30454 net.cpp:408] label_cifar_1_split <- label
I0501 05:48:30.714586 30454 net.cpp:382] label_cifar_1_split -> label_cifar_1_split_0
I0501 05:48:30.714594 30454 net.cpp:382] label_cifar_1_split -> label_cifar_1_split_1
I0501 05:48:30.714694 30454 net.cpp:124] Setting up label_cifar_1_split
I0501 05:48:30.714701 30454 net.cpp:131] Top shape: 1000 (1000)
I0501 05:48:30.714705 30454 net.cpp:131] Top shape: 1000 (1000)
I0501 05:48:30.714707 30454 net.cpp:139] Memory required for data: 12300000
I0501 05:48:30.714710 30454 layer_factory.hpp:77] Creating layer conv0
I0501 05:48:30.714722 30454 net.cpp:86] Creating Layer conv0
I0501 05:48:30.714725 30454 net.cpp:408] conv0 <- data
I0501 05:48:30.714730 30454 net.cpp:382] conv0 -> conv0
I0501 05:48:30.716331 30454 net.cpp:124] Setting up conv0
I0501 05:48:30.716344 30454 net.cpp:131] Top shape: 1000 8 32 32 (8192000)
I0501 05:48:30.716348 30454 net.cpp:139] Memory required for data: 45068000
I0501 05:48:30.716358 30454 layer_factory.hpp:77] Creating layer Sigmoid0
I0501 05:48:30.716365 30454 net.cpp:86] Creating Layer Sigmoid0
I0501 05:48:30.716368 30454 net.cpp:408] Sigmoid0 <- conv0
I0501 05:48:30.716374 30454 net.cpp:382] Sigmoid0 -> Sigmoid0
I0501 05:48:30.716542 30454 net.cpp:124] Setting up Sigmoid0
I0501 05:48:30.716552 30454 net.cpp:131] Top shape: 1000 8 32 32 (8192000)
I0501 05:48:30.716569 30454 net.cpp:139] Memory required for data: 77836000
I0501 05:48:30.716572 30454 layer_factory.hpp:77] Creating layer pool0
I0501 05:48:30.716580 30454 net.cpp:86] Creating Layer pool0
I0501 05:48:30.716583 30454 net.cpp:408] pool0 <- Sigmoid0
I0501 05:48:30.716588 30454 net.cpp:382] pool0 -> pool0
I0501 05:48:30.716868 30454 net.cpp:124] Setting up pool0
I0501 05:48:30.716877 30454 net.cpp:131] Top shape: 1000 8 16 16 (2048000)
I0501 05:48:30.716881 30454 net.cpp:139] Memory required for data: 86028000
I0501 05:48:30.716884 30454 layer_factory.hpp:77] Creating layer ip1
I0501 05:48:30.716892 30454 net.cpp:86] Creating Layer ip1
I0501 05:48:30.716895 30454 net.cpp:408] ip1 <- pool0
I0501 05:48:30.716900 30454 net.cpp:382] ip1 -> ip1
I0501 05:48:30.722465 30454 net.cpp:124] Setting up ip1
I0501 05:48:30.722476 30454 net.cpp:131] Top shape: 1000 80 (80000)
I0501 05:48:30.722479 30454 net.cpp:139] Memory required for data: 86348000
I0501 05:48:30.722517 30454 layer_factory.hpp:77] Creating layer relu1
I0501 05:48:30.722523 30454 net.cpp:86] Creating Layer relu1
I0501 05:48:30.722527 30454 net.cpp:408] relu1 <- ip1
I0501 05:48:30.722532 30454 net.cpp:369] relu1 -> ip1 (in-place)
I0501 05:48:30.722692 30454 net.cpp:124] Setting up relu1
I0501 05:48:30.722699 30454 net.cpp:131] Top shape: 1000 80 (80000)
I0501 05:48:30.722703 30454 net.cpp:139] Memory required for data: 86668000
I0501 05:48:30.722707 30454 layer_factory.hpp:77] Creating layer ip2
I0501 05:48:30.722719 30454 net.cpp:86] Creating Layer ip2
I0501 05:48:30.722723 30454 net.cpp:408] ip2 <- ip1
I0501 05:48:30.722728 30454 net.cpp:382] ip2 -> ip2
I0501 05:48:30.723011 30454 net.cpp:124] Setting up ip2
I0501 05:48:30.723019 30454 net.cpp:131] Top shape: 1000 80 (80000)
I0501 05:48:30.723022 30454 net.cpp:139] Memory required for data: 86988000
I0501 05:48:30.723029 30454 layer_factory.hpp:77] Creating layer relu2
I0501 05:48:30.723036 30454 net.cpp:86] Creating Layer relu2
I0501 05:48:30.723038 30454 net.cpp:408] relu2 <- ip2
I0501 05:48:30.723042 30454 net.cpp:369] relu2 -> ip2 (in-place)
I0501 05:48:30.723788 30454 net.cpp:124] Setting up relu2
I0501 05:48:30.723800 30454 net.cpp:131] Top shape: 1000 80 (80000)
I0501 05:48:30.723804 30454 net.cpp:139] Memory required for data: 87308000
I0501 05:48:30.723808 30454 layer_factory.hpp:77] Creating layer ip3
I0501 05:48:30.723814 30454 net.cpp:86] Creating Layer ip3
I0501 05:48:30.723832 30454 net.cpp:408] ip3 <- ip2
I0501 05:48:30.723837 30454 net.cpp:382] ip3 -> ip3
I0501 05:48:30.723985 30454 net.cpp:124] Setting up ip3
I0501 05:48:30.723992 30454 net.cpp:131] Top shape: 1000 10 (10000)
I0501 05:48:30.723996 30454 net.cpp:139] Memory required for data: 87348000
I0501 05:48:30.724002 30454 layer_factory.hpp:77] Creating layer relu3
I0501 05:48:30.724007 30454 net.cpp:86] Creating Layer relu3
I0501 05:48:30.724010 30454 net.cpp:408] relu3 <- ip3
I0501 05:48:30.724014 30454 net.cpp:369] relu3 -> ip3 (in-place)
I0501 05:48:30.724161 30454 net.cpp:124] Setting up relu3
I0501 05:48:30.724169 30454 net.cpp:131] Top shape: 1000 10 (10000)
I0501 05:48:30.724171 30454 net.cpp:139] Memory required for data: 87388000
I0501 05:48:30.724174 30454 layer_factory.hpp:77] Creating layer ip4
I0501 05:48:30.724181 30454 net.cpp:86] Creating Layer ip4
I0501 05:48:30.724184 30454 net.cpp:408] ip4 <- ip3
I0501 05:48:30.724189 30454 net.cpp:382] ip4 -> ip4
I0501 05:48:30.724299 30454 net.cpp:124] Setting up ip4
I0501 05:48:30.724306 30454 net.cpp:131] Top shape: 1000 10 (10000)
I0501 05:48:30.724309 30454 net.cpp:139] Memory required for data: 87428000
I0501 05:48:30.724318 30454 layer_factory.hpp:77] Creating layer ip4_ip4_0_split
I0501 05:48:30.724323 30454 net.cpp:86] Creating Layer ip4_ip4_0_split
I0501 05:48:30.724325 30454 net.cpp:408] ip4_ip4_0_split <- ip4
I0501 05:48:30.724329 30454 net.cpp:382] ip4_ip4_0_split -> ip4_ip4_0_split_0
I0501 05:48:30.724334 30454 net.cpp:382] ip4_ip4_0_split -> ip4_ip4_0_split_1
I0501 05:48:30.724364 30454 net.cpp:124] Setting up ip4_ip4_0_split
I0501 05:48:30.724367 30454 net.cpp:131] Top shape: 1000 10 (10000)
I0501 05:48:30.724370 30454 net.cpp:131] Top shape: 1000 10 (10000)
I0501 05:48:30.724373 30454 net.cpp:139] Memory required for data: 87508000
I0501 05:48:30.724376 30454 layer_factory.hpp:77] Creating layer accuracy
I0501 05:48:30.724395 30454 net.cpp:86] Creating Layer accuracy
I0501 05:48:30.724397 30454 net.cpp:408] accuracy <- ip4_ip4_0_split_0
I0501 05:48:30.724401 30454 net.cpp:408] accuracy <- label_cifar_1_split_0
I0501 05:48:30.724406 30454 net.cpp:382] accuracy -> accuracy
…
