…
I0501 02:50:03.122983 17563 net.cpp:296] The NetState phase (0) differed from the phase (1) specified by a rule in layer cifar
I0501 02:50:03.123009 17563 net.cpp:296] The NetState phase (0) differed from the phase (1) specified by a rule in layer accuracy
I0501 02:50:03.123095 17563 net.cpp:53] Initializing net from parameters: 
name: "CIFAR"
state {
  phase: TRAIN
  level: 0
  stage: ""
}
layer {
  name: "cifar"
  type: "Data"
  top: "data"
  top: "label"
  include {
    phase: TRAIN
  }
  transform_param {
    mean_file: "examples/cifar10/mean.binaryproto"
  }
  data_param {
    source: "examples/cifar10/cifar10_train_lmdb"
    batch_size: 111
    backend: LMDB
  }
}
layer {
  name: "conv0"
  type: "Convolution"
  bottom: "data"
  top: "conv0"
  param {
    lr_mult: 1
  }
  param {
    lr_mult: 2
  }
  convolution_param {
    num_output: 8
    pad: 2
    kernel_size: 5
    stride: 1
    weight_filler {
      type: "gaussian"
      std: 0.01
    }
    bias_filler {
      type: "constant"
    }
  }
}
layer {
  name: "Sigmoid0"
  type: "Sigmoid"
  bottom: "conv0"
  top: "Sigmoid0"
}
layer {
  name: "pool0"
  type: "Pooling"
  bottom: "Sigmoid0"
  top: "pool0"
  pooling_param {
    pool: AVE
    kernel_size: 3
    stride: 2
  }
}
layer {
  name: "ip1"
  type: "InnerProduct"
  bottom: "pool0"
  top: "ip1"
  param {
    lr_mult: 1
  }
  param {
    lr_mult: 2
  }
  inner_product_param {
    num_output: 80
    weight_filler {
      type: "gaussian"
      std: 0.01
    }
    bias_filler {
      type: "constant"
    }
  }
}
layer {
  name: "relu1"
  type: "ReLU"
  bottom: "ip1"
  top: "ip1"
}
layer {
  name: "ip2"
  type: "InnerProduct"
  bottom: "ip1"
  top: "ip2"
  param {
    lr_mult: 1
  }
  param {
    lr_mult: 2
  }
  inner_product_param {
    num_output: 160
    weight_filler {
      type: "gaussian"
      std: 0.01
    }
    bias_filler {
      type: "constant"
    }
  }
}
layer {
  name: "relu2"
  type: "ReLU"
  bottom: "ip2"
  top: "ip2"
}
layer {
  name: "ip3"
  type: "InnerProduct"
  bottom: "ip2"
  top: "ip3"
  param {
    lr_mult: 1
  }
  param {
    lr_mult: 2
  }
  inner_product_param {
    num_output: 10
    weight_filler {
      type: "gaussian"
      std: 0.01
    }
    bias_filler {
      type: "constant"
    }
  }
}
layer {
  name: "loss"
  type: "SoftmaxWithLoss"
  bottom: "ip3"
  bottom: "label"
  top: "loss"
}
I0501 02:50:03.123149 17563 layer_factory.hpp:77] Creating layer cifar
I0501 02:50:03.123232 17563 db_lmdb.cpp:35] Opened lmdb examples/cifar10/cifar10_train_lmdb
I0501 02:50:03.123258 17563 net.cpp:86] Creating Layer cifar
I0501 02:50:03.123266 17563 net.cpp:382] cifar -> data
I0501 02:50:03.123286 17563 net.cpp:382] cifar -> label
I0501 02:50:03.123296 17563 data_transformer.cpp:25] Loading mean file from: examples/cifar10/mean.binaryproto
I0501 02:50:03.125102 17563 data_layer.cpp:45] output data size: 111,3,32,32
I0501 02:50:03.132104 17563 net.cpp:124] Setting up cifar
I0501 02:50:03.132134 17563 net.cpp:131] Top shape: 111 3 32 32 (340992)
I0501 02:50:03.132139 17563 net.cpp:131] Top shape: 111 (111)
I0501 02:50:03.132143 17563 net.cpp:139] Memory required for data: 1364412
I0501 02:50:03.132149 17563 layer_factory.hpp:77] Creating layer conv0
I0501 02:50:03.132164 17563 net.cpp:86] Creating Layer conv0
I0501 02:50:03.132169 17563 net.cpp:408] conv0 <- data
I0501 02:50:03.132179 17563 net.cpp:382] conv0 -> conv0
I0501 02:50:03.362231 17563 net.cpp:124] Setting up conv0
I0501 02:50:03.362275 17563 net.cpp:131] Top shape: 111 8 32 32 (909312)
I0501 02:50:03.362279 17563 net.cpp:139] Memory required for data: 5001660
I0501 02:50:03.362294 17563 layer_factory.hpp:77] Creating layer Sigmoid0
I0501 02:50:03.362304 17563 net.cpp:86] Creating Layer Sigmoid0
I0501 02:50:03.362308 17563 net.cpp:408] Sigmoid0 <- conv0
I0501 02:50:03.362313 17563 net.cpp:382] Sigmoid0 -> Sigmoid0
I0501 02:50:03.362519 17563 net.cpp:124] Setting up Sigmoid0
I0501 02:50:03.362529 17563 net.cpp:131] Top shape: 111 8 32 32 (909312)
I0501 02:50:03.362532 17563 net.cpp:139] Memory required for data: 8638908
I0501 02:50:03.362535 17563 layer_factory.hpp:77] Creating layer pool0
I0501 02:50:03.362542 17563 net.cpp:86] Creating Layer pool0
I0501 02:50:03.362545 17563 net.cpp:408] pool0 <- Sigmoid0
I0501 02:50:03.362550 17563 net.cpp:382] pool0 -> pool0
I0501 02:50:03.363286 17563 net.cpp:124] Setting up pool0
I0501 02:50:03.363298 17563 net.cpp:131] Top shape: 111 8 16 16 (227328)
I0501 02:50:03.363302 17563 net.cpp:139] Memory required for data: 9548220
I0501 02:50:03.363306 17563 layer_factory.hpp:77] Creating layer ip1
I0501 02:50:03.363313 17563 net.cpp:86] Creating Layer ip1
I0501 02:50:03.363317 17563 net.cpp:408] ip1 <- pool0
I0501 02:50:03.363322 17563 net.cpp:382] ip1 -> ip1
I0501 02:50:03.367650 17563 net.cpp:124] Setting up ip1
I0501 02:50:03.367658 17563 net.cpp:131] Top shape: 111 80 (8880)
I0501 02:50:03.367676 17563 net.cpp:139] Memory required for data: 9583740
I0501 02:50:03.367683 17563 layer_factory.hpp:77] Creating layer relu1
I0501 02:50:03.367689 17563 net.cpp:86] Creating Layer relu1
I0501 02:50:03.367692 17563 net.cpp:408] relu1 <- ip1
I0501 02:50:03.367697 17563 net.cpp:369] relu1 -> ip1 (in-place)
I0501 02:50:03.367867 17563 net.cpp:124] Setting up relu1
I0501 02:50:03.367877 17563 net.cpp:131] Top shape: 111 80 (8880)
I0501 02:50:03.367879 17563 net.cpp:139] Memory required for data: 9619260
I0501 02:50:03.367882 17563 layer_factory.hpp:77] Creating layer ip2
I0501 02:50:03.367888 17563 net.cpp:86] Creating Layer ip2
I0501 02:50:03.367892 17563 net.cpp:408] ip2 <- ip1
I0501 02:50:03.367897 17563 net.cpp:382] ip2 -> ip2
I0501 02:50:03.369115 17563 net.cpp:124] Setting up ip2
I0501 02:50:03.369143 17563 net.cpp:131] Top shape: 111 160 (17760)
I0501 02:50:03.369160 17563 net.cpp:139] Memory required for data: 9690300
I0501 02:50:03.369168 17563 layer_factory.hpp:77] Creating layer relu2
I0501 02:50:03.369189 17563 net.cpp:86] Creating Layer relu2
I0501 02:50:03.369192 17563 net.cpp:408] relu2 <- ip2
I0501 02:50:03.369196 17563 net.cpp:369] relu2 -> ip2 (in-place)
I0501 02:50:03.369352 17563 net.cpp:124] Setting up relu2
I0501 02:50:03.369361 17563 net.cpp:131] Top shape: 111 160 (17760)
I0501 02:50:03.369364 17563 net.cpp:139] Memory required for data: 9761340
I0501 02:50:03.369367 17563 layer_factory.hpp:77] Creating layer ip3
I0501 02:50:03.369374 17563 net.cpp:86] Creating Layer ip3
I0501 02:50:03.369379 17563 net.cpp:408] ip3 <- ip2
I0501 02:50:03.369385 17563 net.cpp:382] ip3 -> ip3
I0501 02:50:03.369513 17563 net.cpp:124] Setting up ip3
I0501 02:50:03.369520 17563 net.cpp:131] Top shape: 111 10 (1110)
I0501 02:50:03.369524 17563 net.cpp:139] Memory required for data: 9765780
I0501 02:50:03.369529 17563 layer_factory.hpp:77] Creating layer loss
I0501 02:50:03.369534 17563 net.cpp:86] Creating Layer loss
I0501 02:50:03.369536 17563 net.cpp:408] loss <- ip3
I0501 02:50:03.369539 17563 net.cpp:408] loss <- label
I0501 02:50:03.369544 17563 net.cpp:382] loss -> loss
I0501 02:50:03.369559 17563 layer_factory.hpp:77] Creating layer loss
…
I0501 02:50:03.370285 17563 solver.cpp:173] Creating test net (#0) specified by net file: ECE595/cifar/train_test/var_everything/cifar_train_test_334.prototxt
I0501 02:50:03.370324 17563 net.cpp:296] The NetState phase (1) differed from the phase (0) specified by a rule in layer cifar
I0501 02:50:03.370435 17563 net.cpp:53] Initializing net from parameters: 
name: "CIFAR"
state {
  phase: TEST
}
layer {
  name: "cifar"
  type: "Data"
  top: "data"
  top: "label"
  include {
    phase: TEST
  }
  transform_param {
    mean_file: "examples/cifar10/mean.binaryproto"
  }
  data_param {
    source: "examples/cifar10/cifar10_test_lmdb"
    batch_size: 1000
    backend: LMDB
  }
}
layer {
  name: "conv0"
  type: "Convolution"
  bottom: "data"
  top: "conv0"
  param {
    lr_mult: 1
  }
  param {
    lr_mult: 2
  }
  convolution_param {
    num_output: 8
    pad: 2
    kernel_size: 5
    stride: 1
    weight_filler {
      type: "gaussian"
      std: 0.01
    }
    bias_filler {
      type: "constant"
    }
  }
}
layer {
  name: "Sigmoid0"
  type: "Sigmoid"
  bottom: "conv0"
  top: "Sigmoid0"
}
layer {
  name: "pool0"
  type: "Pooling"
  bottom: "Sigmoid0"
  top: "pool0"
  pooling_param {
    pool: AVE
    kernel_size: 3
    stride: 2
  }
}
layer {
  name: "ip1"
  type: "InnerProduct"
  bottom: "pool0"
  top: "ip1"
  param {
    lr_mult: 1
  }
  param {
    lr_mult: 2
  }
  inner_product_param {
    num_output: 80
    weight_filler {
      type: "gaussian"
      std: 0.01
    }
    bias_filler {
      type: "constant"
    }
  }
}
layer {
  name: "relu1"
  type: "ReLU"
  bottom: "ip1"
  top: "ip1"
}
layer {
  name: "ip2"
  type: "InnerProduct"
  bottom: "ip1"
  top: "ip2"
  param {
    lr_mult: 1
  }
  param {
    lr_mult: 2
  }
  inner_product_param {
    num_output: 160
    weight_filler {
      type: "gaussian"
      std: 0.01
    }
    bias_filler {
      type: "constant"
    }
  }
}
layer {
  name: "relu2"
  type: "ReLU"
  bottom: "ip2"
  top: "ip2"
}
layer {
  name: "ip3"
  type: "InnerProduct"
  bottom: "ip2"
  top: "ip3"
  param {
    lr_mult: 1
  }
  param {
    lr_mult: 2
  }
  inner_product_param {
    num_output: 10
    weight_filler {
      type: "gaussian"
      std: 0.01
    }
    bias_filler {
      type: "constant"
    }
  }
}
layer {
  name: "accuracy"
  type: "Accuracy"
  bottom: "ip3"
  bottom: "label"
  top: "accuracy"
  include {
    phase: TEST
  }
}
layer {
  name: "loss"
  type: "SoftmaxWithLoss"
  bottom: "ip3"
  bottom: "label"
  top: "loss"
}
I0501 02:50:03.370501 17563 layer_factory.hpp:77] Creating layer cifar
I0501 02:50:03.370543 17563 db_lmdb.cpp:35] Opened lmdb examples/cifar10/cifar10_test_lmdb
I0501 02:50:03.370558 17563 net.cpp:86] Creating Layer cifar
I0501 02:50:03.370564 17563 net.cpp:382] cifar -> data
I0501 02:50:03.370587 17563 net.cpp:382] cifar -> label
I0501 02:50:03.370594 17563 data_transformer.cpp:25] Loading mean file from: examples/cifar10/mean.binaryproto
I0501 02:50:03.370739 17563 data_layer.cpp:45] output data size: 1000,3,32,32
I0501 02:50:03.392078 17563 net.cpp:124] Setting up cifar
I0501 02:50:03.392120 17563 net.cpp:131] Top shape: 1000 3 32 32 (3072000)
I0501 02:50:03.392127 17563 net.cpp:131] Top shape: 1000 (1000)
I0501 02:50:03.392129 17563 net.cpp:139] Memory required for data: 12292000
I0501 02:50:03.392134 17563 layer_factory.hpp:77] Creating layer label_cifar_1_split
I0501 02:50:03.392148 17563 net.cpp:86] Creating Layer label_cifar_1_split
I0501 02:50:03.392168 17563 net.cpp:408] label_cifar_1_split <- label
I0501 02:50:03.392174 17563 net.cpp:382] label_cifar_1_split -> label_cifar_1_split_0
I0501 02:50:03.392184 17563 net.cpp:382] label_cifar_1_split -> label_cifar_1_split_1
I0501 02:50:03.392276 17563 net.cpp:124] Setting up label_cifar_1_split
I0501 02:50:03.392283 17563 net.cpp:131] Top shape: 1000 (1000)
I0501 02:50:03.392287 17563 net.cpp:131] Top shape: 1000 (1000)
I0501 02:50:03.392289 17563 net.cpp:139] Memory required for data: 12300000
I0501 02:50:03.392293 17563 layer_factory.hpp:77] Creating layer conv0
I0501 02:50:03.392307 17563 net.cpp:86] Creating Layer conv0
I0501 02:50:03.392312 17563 net.cpp:408] conv0 <- data
I0501 02:50:03.392316 17563 net.cpp:382] conv0 -> conv0
I0501 02:50:03.394785 17563 net.cpp:124] Setting up conv0
I0501 02:50:03.394825 17563 net.cpp:131] Top shape: 1000 8 32 32 (8192000)
I0501 02:50:03.394831 17563 net.cpp:139] Memory required for data: 45068000
I0501 02:50:03.394860 17563 layer_factory.hpp:77] Creating layer Sigmoid0
I0501 02:50:03.394871 17563 net.cpp:86] Creating Layer Sigmoid0
I0501 02:50:03.394878 17563 net.cpp:408] Sigmoid0 <- conv0
I0501 02:50:03.394902 17563 net.cpp:382] Sigmoid0 -> Sigmoid0
I0501 02:50:03.397349 17563 net.cpp:124] Setting up Sigmoid0
I0501 02:50:03.397403 17563 net.cpp:131] Top shape: 1000 8 32 32 (8192000)
I0501 02:50:03.397410 17563 net.cpp:139] Memory required for data: 77836000
I0501 02:50:03.397418 17563 layer_factory.hpp:77] Creating layer pool0
I0501 02:50:03.397439 17563 net.cpp:86] Creating Layer pool0
I0501 02:50:03.397464 17563 net.cpp:408] pool0 <- Sigmoid0
I0501 02:50:03.397475 17563 net.cpp:382] pool0 -> pool0
I0501 02:50:03.397809 17563 net.cpp:124] Setting up pool0
I0501 02:50:03.397826 17563 net.cpp:131] Top shape: 1000 8 16 16 (2048000)
I0501 02:50:03.397840 17563 net.cpp:139] Memory required for data: 86028000
I0501 02:50:03.397845 17563 layer_factory.hpp:77] Creating layer ip1
I0501 02:50:03.397867 17563 net.cpp:86] Creating Layer ip1
I0501 02:50:03.397873 17563 net.cpp:408] ip1 <- pool0
I0501 02:50:03.397882 17563 net.cpp:382] ip1 -> ip1
I0501 02:50:03.406899 17563 net.cpp:124] Setting up ip1
I0501 02:50:03.406919 17563 net.cpp:131] Top shape: 1000 80 (80000)
I0501 02:50:03.406925 17563 net.cpp:139] Memory required for data: 86348000
I0501 02:50:03.406944 17563 layer_factory.hpp:77] Creating layer relu1
I0501 02:50:03.406958 17563 net.cpp:86] Creating Layer relu1
I0501 02:50:03.406966 17563 net.cpp:408] relu1 <- ip1
I0501 02:50:03.406975 17563 net.cpp:369] relu1 -> ip1 (in-place)
I0501 02:50:03.407315 17563 net.cpp:124] Setting up relu1
I0501 02:50:03.407331 17563 net.cpp:131] Top shape: 1000 80 (80000)
I0501 02:50:03.407338 17563 net.cpp:139] Memory required for data: 86668000
I0501 02:50:03.407344 17563 layer_factory.hpp:77] Creating layer ip2
I0501 02:50:03.407359 17563 net.cpp:86] Creating Layer ip2
I0501 02:50:03.407366 17563 net.cpp:408] ip2 <- ip1
I0501 02:50:03.407377 17563 net.cpp:382] ip2 -> ip2
I0501 02:50:03.408360 17563 net.cpp:124] Setting up ip2
I0501 02:50:03.408375 17563 net.cpp:131] Top shape: 1000 160 (160000)
I0501 02:50:03.408382 17563 net.cpp:139] Memory required for data: 87308000
I0501 02:50:03.408396 17563 layer_factory.hpp:77] Creating layer relu2
I0501 02:50:03.408411 17563 net.cpp:86] Creating Layer relu2
I0501 02:50:03.408419 17563 net.cpp:408] relu2 <- ip2
I0501 02:50:03.408428 17563 net.cpp:369] relu2 -> ip2 (in-place)
I0501 02:50:03.408784 17563 net.cpp:124] Setting up relu2
I0501 02:50:03.408802 17563 net.cpp:131] Top shape: 1000 160 (160000)
I0501 02:50:03.408820 17563 net.cpp:139] Memory required for data: 87948000
I0501 02:50:03.408828 17563 layer_factory.hpp:77] Creating layer ip3
I0501 02:50:03.408843 17563 net.cpp:86] Creating Layer ip3
I0501 02:50:03.408851 17563 net.cpp:408] ip3 <- ip2
I0501 02:50:03.408865 17563 net.cpp:382] ip3 -> ip3
I0501 02:50:03.409183 17563 net.cpp:124] Setting up ip3
I0501 02:50:03.409199 17563 net.cpp:131] Top shape: 1000 10 (10000)
I0501 02:50:03.409206 17563 net.cpp:139] Memory required for data: 87988000
I0501 02:50:03.409240 17563 layer_factory.hpp:77] Creating layer ip3_ip3_0_split
I0501 02:50:03.409251 17563 net.cpp:86] Creating Layer ip3_ip3_0_split
I0501 02:50:03.409258 17563 net.cpp:408] ip3_ip3_0_split <- ip3
I0501 02:50:03.409267 17563 net.cpp:382] ip3_ip3_0_split -> ip3_ip3_0_split_0
I0501 02:50:03.409279 17563 net.cpp:382] ip3_ip3_0_split -> ip3_ip3_0_split_1
I0501 02:50:03.409353 17563 net.cpp:124] Setting up ip3_ip3_0_split
I0501 02:50:03.409364 17563 net.cpp:131] Top shape: 1000 10 (10000)
I0501 02:50:03.409373 17563 net.cpp:131] Top shape: 1000 10 (10000)
I0501 02:50:03.409379 17563 net.cpp:139] Memory required for data: 88068000
I0501 02:50:03.409385 17563 layer_factory.hpp:77] Creating layer accuracy
I0501 02:50:03.409396 17563 net.cpp:86] Creating Layer accuracy
I0501 02:50:03.409404 17563 net.cpp:408] accuracy <- ip3_ip3_0_split_0
I0501 02:50:03.409412 17563 net.cpp:408] accuracy <- label_cifar_1_split_0
I0501 02:50:03.409423 17563 net.cpp:382] accuracy -> accuracy
…
