…
I0430 21:01:22.273429 29910 net.cpp:296] The NetState phase (0) differed from the phase (1) specified by a rule in layer cifar
I0430 21:01:22.273447 29910 net.cpp:296] The NetState phase (0) differed from the phase (1) specified by a rule in layer accuracy
I0430 21:01:22.273530 29910 net.cpp:53] Initializing net from parameters: 
name: "CIFAR"
state {
  phase: TRAIN
  level: 0
  stage: ""
}
layer {
  name: "cifar"
  type: "Data"
  top: "data"
  top: "label"
  include {
    phase: TRAIN
  }
  transform_param {
    mean_file: "examples/cifar10/mean.binaryproto"
  }
  data_param {
    source: "examples/cifar10/cifar10_train_lmdb"
    batch_size: 111
    backend: LMDB
  }
}
layer {
  name: "ip1"
  type: "InnerProduct"
  bottom: "data"
  top: "ip1"
  param {
    lr_mult: 1
  }
  param {
    lr_mult: 2
  }
  inner_product_param {
    num_output: 160
    weight_filler {
      type: "gaussian"
      std: 0.01
    }
    bias_filler {
      type: "constant"
    }
  }
}
layer {
  name: "relu1"
  type: "ReLU"
  bottom: "ip1"
  top: "ip1"
}
layer {
  name: "ip2"
  type: "InnerProduct"
  bottom: "ip1"
  top: "ip2"
  param {
    lr_mult: 1
  }
  param {
    lr_mult: 2
  }
  inner_product_param {
    num_output: 80
    weight_filler {
      type: "gaussian"
      std: 0.01
    }
    bias_filler {
      type: "constant"
    }
  }
}
layer {
  name: "relu2"
  type: "ReLU"
  bottom: "ip2"
  top: "ip2"
}
layer {
  name: "ip3"
  type: "InnerProduct"
  bottom: "ip2"
  top: "ip3"
  param {
    lr_mult: 1
  }
  param {
    lr_mult: 2
  }
  inner_product_param {
    num_output: 80
    weight_filler {
      type: "gaussian"
      std: 0.01
    }
    bias_filler {
      type: "constant"
    }
  }
}
layer {
  name: "relu3"
  type: "ReLU"
  bottom: "ip3"
  top: "ip3"
}
layer {
  name: "ip4"
  type: "InnerProduct"
  bottom: "ip3"
  top: "ip4"
  param {
    lr_mult: 1
  }
  param {
    lr_mult: 2
  }
  inner_product_param {
    num_output: 10
    weight_filler {
      type: "gaussian"
      std: 0.01
    }
    bias_filler {
      type: "constant"
    }
  }
}
layer {
  name: "loss"
  type: "SoftmaxWithLoss"
  bottom: "ip4"
  bottom: "label"
  top: "loss"
}
I0430 21:01:22.273604 29910 layer_factory.hpp:77] Creating layer cifar
I0430 21:01:22.273705 29910 db_lmdb.cpp:35] Opened lmdb examples/cifar10/cifar10_train_lmdb
I0430 21:01:22.273730 29910 net.cpp:86] Creating Layer cifar
I0430 21:01:22.273739 29910 net.cpp:382] cifar -> data
I0430 21:01:22.273761 29910 net.cpp:382] cifar -> label
I0430 21:01:22.273773 29910 data_transformer.cpp:25] Loading mean file from: examples/cifar10/mean.binaryproto
I0430 21:01:22.275890 29910 data_layer.cpp:45] output data size: 111,3,32,32
I0430 21:01:22.283748 29910 net.cpp:124] Setting up cifar
I0430 21:01:22.283769 29910 net.cpp:131] Top shape: 111 3 32 32 (340992)
I0430 21:01:22.283776 29910 net.cpp:131] Top shape: 111 (111)
I0430 21:01:22.283779 29910 net.cpp:139] Memory required for data: 1364412
I0430 21:01:22.283787 29910 layer_factory.hpp:77] Creating layer ip1
I0430 21:01:22.283816 29910 net.cpp:86] Creating Layer ip1
I0430 21:01:22.283823 29910 net.cpp:408] ip1 <- data
I0430 21:01:22.283834 29910 net.cpp:382] ip1 -> ip1
I0430 21:01:22.301102 29910 net.cpp:124] Setting up ip1
I0430 21:01:22.301118 29910 net.cpp:131] Top shape: 111 160 (17760)
I0430 21:01:22.301122 29910 net.cpp:139] Memory required for data: 1435452
I0430 21:01:22.301137 29910 layer_factory.hpp:77] Creating layer relu1
I0430 21:01:22.301163 29910 net.cpp:86] Creating Layer relu1
I0430 21:01:22.301168 29910 net.cpp:408] relu1 <- ip1
I0430 21:01:22.301173 29910 net.cpp:369] relu1 -> ip1 (in-place)
I0430 21:01:22.578816 29910 net.cpp:124] Setting up relu1
I0430 21:01:22.578850 29910 net.cpp:131] Top shape: 111 160 (17760)
I0430 21:01:22.578855 29910 net.cpp:139] Memory required for data: 1506492
I0430 21:01:22.578861 29910 layer_factory.hpp:77] Creating layer ip2
I0430 21:01:22.578877 29910 net.cpp:86] Creating Layer ip2
I0430 21:01:22.578884 29910 net.cpp:408] ip2 <- ip1
I0430 21:01:22.578896 29910 net.cpp:382] ip2 -> ip2
I0430 21:01:22.580848 29910 net.cpp:124] Setting up ip2
I0430 21:01:22.580869 29910 net.cpp:131] Top shape: 111 80 (8880)
I0430 21:01:22.580884 29910 net.cpp:139] Memory required for data: 1542012
I0430 21:01:22.580899 29910 layer_factory.hpp:77] Creating layer relu2
I0430 21:01:22.580911 29910 net.cpp:86] Creating Layer relu2
I0430 21:01:22.580916 29910 net.cpp:408] relu2 <- ip2
I0430 21:01:22.580927 29910 net.cpp:369] relu2 -> ip2 (in-place)
I0430 21:01:22.582037 29910 net.cpp:124] Setting up relu2
I0430 21:01:22.582056 29910 net.cpp:131] Top shape: 111 80 (8880)
I0430 21:01:22.582062 29910 net.cpp:139] Memory required for data: 1577532
I0430 21:01:22.582067 29910 layer_factory.hpp:77] Creating layer ip3
I0430 21:01:22.582077 29910 net.cpp:86] Creating Layer ip3
I0430 21:01:22.582082 29910 net.cpp:408] ip3 <- ip2
I0430 21:01:22.582092 29910 net.cpp:382] ip3 -> ip3
I0430 21:01:22.582535 29910 net.cpp:124] Setting up ip3
I0430 21:01:22.582551 29910 net.cpp:131] Top shape: 111 80 (8880)
I0430 21:01:22.582554 29910 net.cpp:139] Memory required for data: 1613052
I0430 21:01:22.582567 29910 layer_factory.hpp:77] Creating layer relu3
I0430 21:01:22.582576 29910 net.cpp:86] Creating Layer relu3
I0430 21:01:22.582581 29910 net.cpp:408] relu3 <- ip3
I0430 21:01:22.582587 29910 net.cpp:369] relu3 -> ip3 (in-place)
I0430 21:01:22.582855 29910 net.cpp:124] Setting up relu3
I0430 21:01:22.582868 29910 net.cpp:131] Top shape: 111 80 (8880)
I0430 21:01:22.582875 29910 net.cpp:139] Memory required for data: 1648572
I0430 21:01:22.582882 29910 layer_factory.hpp:77] Creating layer ip4
I0430 21:01:22.582896 29910 net.cpp:86] Creating Layer ip4
I0430 21:01:22.582904 29910 net.cpp:408] ip4 <- ip3
I0430 21:01:22.582917 29910 net.cpp:382] ip4 -> ip4
I0430 21:01:22.584244 29910 net.cpp:124] Setting up ip4
I0430 21:01:22.584262 29910 net.cpp:131] Top shape: 111 10 (1110)
I0430 21:01:22.584267 29910 net.cpp:139] Memory required for data: 1653012
I0430 21:01:22.584277 29910 layer_factory.hpp:77] Creating layer loss
I0430 21:01:22.584288 29910 net.cpp:86] Creating Layer loss
I0430 21:01:22.584293 29910 net.cpp:408] loss <- ip4
I0430 21:01:22.584300 29910 net.cpp:408] loss <- label
I0430 21:01:22.584309 29910 net.cpp:382] loss -> loss
I0430 21:01:22.584342 29910 layer_factory.hpp:77] Creating layer loss
…
I0430 21:01:22.585351 29910 solver.cpp:173] Creating test net (#0) specified by net file: ECE595/cifar/train_test/var_everything/cifar_train_test_148.prototxt
I0430 21:01:22.585407 29910 net.cpp:296] The NetState phase (1) differed from the phase (0) specified by a rule in layer cifar
I0430 21:01:22.585543 29910 net.cpp:53] Initializing net from parameters: 
name: "CIFAR"
state {
  phase: TEST
}
layer {
  name: "cifar"
  type: "Data"
  top: "data"
  top: "label"
  include {
    phase: TEST
  }
  transform_param {
    mean_file: "examples/cifar10/mean.binaryproto"
  }
  data_param {
    source: "examples/cifar10/cifar10_test_lmdb"
    batch_size: 1000
    backend: LMDB
  }
}
layer {
  name: "ip1"
  type: "InnerProduct"
  bottom: "data"
  top: "ip1"
  param {
    lr_mult: 1
  }
  param {
    lr_mult: 2
  }
  inner_product_param {
    num_output: 160
    weight_filler {
      type: "gaussian"
      std: 0.01
    }
    bias_filler {
      type: "constant"
    }
  }
}
layer {
  name: "relu1"
  type: "ReLU"
  bottom: "ip1"
  top: "ip1"
}
layer {
  name: "ip2"
  type: "InnerProduct"
  bottom: "ip1"
  top: "ip2"
  param {
    lr_mult: 1
  }
  param {
    lr_mult: 2
  }
  inner_product_param {
    num_output: 80
    weight_filler {
      type: "gaussian"
      std: 0.01
    }
    bias_filler {
      type: "constant"
    }
  }
}
layer {
  name: "relu2"
  type: "ReLU"
  bottom: "ip2"
  top: "ip2"
}
layer {
  name: "ip3"
  type: "InnerProduct"
  bottom: "ip2"
  top: "ip3"
  param {
    lr_mult: 1
  }
  param {
    lr_mult: 2
  }
  inner_product_param {
    num_output: 80
    weight_filler {
      type: "gaussian"
      std: 0.01
    }
    bias_filler {
      type: "constant"
    }
  }
}
layer {
  name: "relu3"
  type: "ReLU"
  bottom: "ip3"
  top: "ip3"
}
layer {
  name: "ip4"
  type: "InnerProduct"
  bottom: "ip3"
  top: "ip4"
  param {
    lr_mult: 1
  }
  param {
    lr_mult: 2
  }
  inner_product_param {
    num_output: 10
    weight_filler {
      type: "gaussian"
      std: 0.01
    }
    bias_filler {
      type: "constant"
    }
  }
}
layer {
  name: "accuracy"
  type: "Accuracy"
  bottom: "ip4"
  bottom: "label"
  top: "accuracy"
  include {
    phase: TEST
  }
}
layer {
  name: "loss"
  type: "SoftmaxWithLoss"
  bottom: "ip4"
  bottom: "label"
  top: "loss"
}
I0430 21:01:22.585670 29910 layer_factory.hpp:77] Creating layer cifar
I0430 21:01:22.585753 29910 db_lmdb.cpp:35] Opened lmdb examples/cifar10/cifar10_test_lmdb
I0430 21:01:22.585777 29910 net.cpp:86] Creating Layer cifar
I0430 21:01:22.585789 29910 net.cpp:382] cifar -> data
I0430 21:01:22.585808 29910 net.cpp:382] cifar -> label
I0430 21:01:22.585822 29910 data_transformer.cpp:25] Loading mean file from: examples/cifar10/mean.binaryproto
I0430 21:01:22.586133 29910 data_layer.cpp:45] output data size: 1000,3,32,32
I0430 21:01:22.612694 29910 net.cpp:124] Setting up cifar
I0430 21:01:22.612731 29910 net.cpp:131] Top shape: 1000 3 32 32 (3072000)
I0430 21:01:22.612740 29910 net.cpp:131] Top shape: 1000 (1000)
I0430 21:01:22.612743 29910 net.cpp:139] Memory required for data: 12292000
I0430 21:01:22.612751 29910 layer_factory.hpp:77] Creating layer label_cifar_1_split
I0430 21:01:22.612769 29910 net.cpp:86] Creating Layer label_cifar_1_split
I0430 21:01:22.612774 29910 net.cpp:408] label_cifar_1_split <- label
I0430 21:01:22.612784 29910 net.cpp:382] label_cifar_1_split -> label_cifar_1_split_0
I0430 21:01:22.612799 29910 net.cpp:382] label_cifar_1_split -> label_cifar_1_split_1
I0430 21:01:22.612946 29910 net.cpp:124] Setting up label_cifar_1_split
I0430 21:01:22.612958 29910 net.cpp:131] Top shape: 1000 (1000)
I0430 21:01:22.612963 29910 net.cpp:131] Top shape: 1000 (1000)
I0430 21:01:22.612969 29910 net.cpp:139] Memory required for data: 12300000
I0430 21:01:22.612977 29910 layer_factory.hpp:77] Creating layer ip1
I0430 21:01:22.612993 29910 net.cpp:86] Creating Layer ip1
I0430 21:01:22.612999 29910 net.cpp:408] ip1 <- data
I0430 21:01:22.613009 29910 net.cpp:382] ip1 -> ip1
I0430 21:01:22.630249 29910 net.cpp:124] Setting up ip1
I0430 21:01:22.630266 29910 net.cpp:131] Top shape: 1000 160 (160000)
I0430 21:01:22.630271 29910 net.cpp:139] Memory required for data: 12940000
I0430 21:01:22.630306 29910 layer_factory.hpp:77] Creating layer relu1
I0430 21:01:22.630314 29910 net.cpp:86] Creating Layer relu1
I0430 21:01:22.630321 29910 net.cpp:408] relu1 <- ip1
I0430 21:01:22.630329 29910 net.cpp:369] relu1 -> ip1 (in-place)
I0430 21:01:22.631266 29910 net.cpp:124] Setting up relu1
I0430 21:01:22.631283 29910 net.cpp:131] Top shape: 1000 160 (160000)
I0430 21:01:22.631289 29910 net.cpp:139] Memory required for data: 13580000
I0430 21:01:22.631292 29910 layer_factory.hpp:77] Creating layer ip2
I0430 21:01:22.631304 29910 net.cpp:86] Creating Layer ip2
I0430 21:01:22.631307 29910 net.cpp:408] ip2 <- ip1
I0430 21:01:22.631314 29910 net.cpp:382] ip2 -> ip2
I0430 21:01:22.631887 29910 net.cpp:124] Setting up ip2
I0430 21:01:22.631898 29910 net.cpp:131] Top shape: 1000 80 (80000)
I0430 21:01:22.631902 29910 net.cpp:139] Memory required for data: 13900000
I0430 21:01:22.631914 29910 layer_factory.hpp:77] Creating layer relu2
I0430 21:01:22.631924 29910 net.cpp:86] Creating Layer relu2
I0430 21:01:22.631932 29910 net.cpp:408] relu2 <- ip2
I0430 21:01:22.631940 29910 net.cpp:369] relu2 -> ip2 (in-place)
I0430 21:01:22.632138 29910 net.cpp:124] Setting up relu2
I0430 21:01:22.632148 29910 net.cpp:131] Top shape: 1000 80 (80000)
I0430 21:01:22.632153 29910 net.cpp:139] Memory required for data: 14220000
I0430 21:01:22.632158 29910 layer_factory.hpp:77] Creating layer ip3
I0430 21:01:22.632169 29910 net.cpp:86] Creating Layer ip3
I0430 21:01:22.632175 29910 net.cpp:408] ip3 <- ip2
I0430 21:01:22.632185 29910 net.cpp:382] ip3 -> ip3
I0430 21:01:22.632524 29910 net.cpp:124] Setting up ip3
I0430 21:01:22.632534 29910 net.cpp:131] Top shape: 1000 80 (80000)
I0430 21:01:22.632536 29910 net.cpp:139] Memory required for data: 14540000
I0430 21:01:22.632546 29910 layer_factory.hpp:77] Creating layer relu3
I0430 21:01:22.632552 29910 net.cpp:86] Creating Layer relu3
I0430 21:01:22.632556 29910 net.cpp:408] relu3 <- ip3
I0430 21:01:22.632560 29910 net.cpp:369] relu3 -> ip3 (in-place)
I0430 21:01:22.632764 29910 net.cpp:124] Setting up relu3
I0430 21:01:22.632776 29910 net.cpp:131] Top shape: 1000 80 (80000)
I0430 21:01:22.632779 29910 net.cpp:139] Memory required for data: 14860000
I0430 21:01:22.632784 29910 layer_factory.hpp:77] Creating layer ip4
I0430 21:01:22.632797 29910 net.cpp:86] Creating Layer ip4
I0430 21:01:22.632802 29910 net.cpp:408] ip4 <- ip3
I0430 21:01:22.632818 29910 net.cpp:382] ip4 -> ip4
I0430 21:01:22.632994 29910 net.cpp:124] Setting up ip4
I0430 21:01:22.633004 29910 net.cpp:131] Top shape: 1000 10 (10000)
I0430 21:01:22.633008 29910 net.cpp:139] Memory required for data: 14900000
I0430 21:01:22.633018 29910 layer_factory.hpp:77] Creating layer ip4_ip4_0_split
I0430 21:01:22.633028 29910 net.cpp:86] Creating Layer ip4_ip4_0_split
I0430 21:01:22.633035 29910 net.cpp:408] ip4_ip4_0_split <- ip4
I0430 21:01:22.633044 29910 net.cpp:382] ip4_ip4_0_split -> ip4_ip4_0_split_0
I0430 21:01:22.633057 29910 net.cpp:382] ip4_ip4_0_split -> ip4_ip4_0_split_1
I0430 21:01:22.633110 29910 net.cpp:124] Setting up ip4_ip4_0_split
I0430 21:01:22.633118 29910 net.cpp:131] Top shape: 1000 10 (10000)
I0430 21:01:22.633126 29910 net.cpp:131] Top shape: 1000 10 (10000)
I0430 21:01:22.633131 29910 net.cpp:139] Memory required for data: 14980000
I0430 21:01:22.633137 29910 layer_factory.hpp:77] Creating layer accuracy
I0430 21:01:22.633147 29910 net.cpp:86] Creating Layer accuracy
I0430 21:01:22.633154 29910 net.cpp:408] accuracy <- ip4_ip4_0_split_0
I0430 21:01:22.633162 29910 net.cpp:408] accuracy <- label_cifar_1_split_0
I0430 21:01:22.633172 29910 net.cpp:382] accuracy -> accuracy
…
