…
I0501 03:40:12.228224 22069 net.cpp:296] The NetState phase (0) differed from the phase (1) specified by a rule in layer cifar
I0501 03:40:12.228245 22069 net.cpp:296] The NetState phase (0) differed from the phase (1) specified by a rule in layer accuracy
I0501 03:40:12.228349 22069 net.cpp:53] Initializing net from parameters: 
name: "CIFAR"
state {
  phase: TRAIN
  level: 0
  stage: ""
}
layer {
  name: "cifar"
  type: "Data"
  top: "data"
  top: "label"
  include {
    phase: TRAIN
  }
  transform_param {
    mean_file: "examples/cifar10/mean.binaryproto"
  }
  data_param {
    source: "examples/cifar10/cifar10_train_lmdb"
    batch_size: 111
    backend: LMDB
  }
}
layer {
  name: "conv0"
  type: "Convolution"
  bottom: "data"
  top: "conv0"
  param {
    lr_mult: 1
  }
  param {
    lr_mult: 2
  }
  convolution_param {
    num_output: 8
    pad: 2
    kernel_size: 5
    stride: 1
    weight_filler {
      type: "gaussian"
      std: 0.01
    }
    bias_filler {
      type: "constant"
    }
  }
}
layer {
  name: "Sigmoid0"
  type: "Sigmoid"
  bottom: "conv0"
  top: "Sigmoid0"
}
layer {
  name: "pool0"
  type: "Pooling"
  bottom: "Sigmoid0"
  top: "pool0"
  pooling_param {
    pool: AVE
    kernel_size: 3
    stride: 2
  }
}
layer {
  name: "ip1"
  type: "InnerProduct"
  bottom: "pool0"
  top: "ip1"
  param {
    lr_mult: 1
  }
  param {
    lr_mult: 2
  }
  inner_product_param {
    num_output: 10
    weight_filler {
      type: "gaussian"
      std: 0.01
    }
    bias_filler {
      type: "constant"
    }
  }
}
layer {
  name: "relu1"
  type: "ReLU"
  bottom: "ip1"
  top: "ip1"
}
layer {
  name: "ip2"
  type: "InnerProduct"
  bottom: "ip1"
  top: "ip2"
  param {
    lr_mult: 1
  }
  param {
    lr_mult: 2
  }
  inner_product_param {
    num_output: 160
    weight_filler {
      type: "gaussian"
      std: 0.01
    }
    bias_filler {
      type: "constant"
    }
  }
}
layer {
  name: "relu2"
  type: "ReLU"
  bottom: "ip2"
  top: "ip2"
}
layer {
  name: "ip3"
  type: "InnerProduct"
  bottom: "ip2"
  top: "ip3"
  param {
    lr_mult: 1
  }
  param {
    lr_mult: 2
  }
  inner_product_param {
    num_output: 20
    weight_filler {
      type: "gaussian"
      std: 0.01
    }
    bias_filler {
      type: "constant"
    }
  }
}
layer {
  name: "relu3"
  type: "ReLU"
  bottom: "ip3"
  top: "ip3"
}
layer {
  name: "ip4"
  type: "InnerProduct"
  bottom: "ip3"
  top: "ip4"
  param {
    lr_mult: 1
  }
  param {
    lr_mult: 2
  }
  inner_product_param {
    num_output: 10
    weight_filler {
      type: "gaussian"
      std: 0.01
    }
    bias_filler {
      type: "constant"
    }
  }
}
layer {
  name: "loss"
  type: "SoftmaxWithLoss"
  bottom: "ip4"
  bottom: "label"
  top: "loss"
}
I0501 03:40:12.228431 22069 layer_factory.hpp:77] Creating layer cifar
I0501 03:40:12.228535 22069 db_lmdb.cpp:35] Opened lmdb examples/cifar10/cifar10_train_lmdb
I0501 03:40:12.228564 22069 net.cpp:86] Creating Layer cifar
I0501 03:40:12.228574 22069 net.cpp:382] cifar -> data
I0501 03:40:12.228595 22069 net.cpp:382] cifar -> label
I0501 03:40:12.228607 22069 data_transformer.cpp:25] Loading mean file from: examples/cifar10/mean.binaryproto
I0501 03:40:12.230733 22069 data_layer.cpp:45] output data size: 111,3,32,32
I0501 03:40:12.238590 22069 net.cpp:124] Setting up cifar
I0501 03:40:12.238612 22069 net.cpp:131] Top shape: 111 3 32 32 (340992)
I0501 03:40:12.238620 22069 net.cpp:131] Top shape: 111 (111)
I0501 03:40:12.238623 22069 net.cpp:139] Memory required for data: 1364412
I0501 03:40:12.238644 22069 layer_factory.hpp:77] Creating layer conv0
I0501 03:40:12.238663 22069 net.cpp:86] Creating Layer conv0
I0501 03:40:12.238669 22069 net.cpp:408] conv0 <- data
I0501 03:40:12.238683 22069 net.cpp:382] conv0 -> conv0
I0501 03:40:12.509971 22069 net.cpp:124] Setting up conv0
I0501 03:40:12.510012 22069 net.cpp:131] Top shape: 111 8 32 32 (909312)
I0501 03:40:12.510017 22069 net.cpp:139] Memory required for data: 5001660
I0501 03:40:12.510031 22069 layer_factory.hpp:77] Creating layer Sigmoid0
I0501 03:40:12.510045 22069 net.cpp:86] Creating Layer Sigmoid0
I0501 03:40:12.510047 22069 net.cpp:408] Sigmoid0 <- conv0
I0501 03:40:12.510053 22069 net.cpp:382] Sigmoid0 -> Sigmoid0
I0501 03:40:12.510246 22069 net.cpp:124] Setting up Sigmoid0
I0501 03:40:12.510254 22069 net.cpp:131] Top shape: 111 8 32 32 (909312)
I0501 03:40:12.510257 22069 net.cpp:139] Memory required for data: 8638908
I0501 03:40:12.510262 22069 layer_factory.hpp:77] Creating layer pool0
I0501 03:40:12.510267 22069 net.cpp:86] Creating Layer pool0
I0501 03:40:12.510272 22069 net.cpp:408] pool0 <- Sigmoid0
I0501 03:40:12.510275 22069 net.cpp:382] pool0 -> pool0
I0501 03:40:12.510982 22069 net.cpp:124] Setting up pool0
I0501 03:40:12.510994 22069 net.cpp:131] Top shape: 111 8 16 16 (227328)
I0501 03:40:12.510998 22069 net.cpp:139] Memory required for data: 9548220
I0501 03:40:12.511000 22069 layer_factory.hpp:77] Creating layer ip1
I0501 03:40:12.511009 22069 net.cpp:86] Creating Layer ip1
I0501 03:40:12.511029 22069 net.cpp:408] ip1 <- pool0
I0501 03:40:12.511034 22069 net.cpp:382] ip1 -> ip1
I0501 03:40:12.512459 22069 net.cpp:124] Setting up ip1
I0501 03:40:12.512471 22069 net.cpp:131] Top shape: 111 10 (1110)
I0501 03:40:12.512475 22069 net.cpp:139] Memory required for data: 9552660
I0501 03:40:12.512482 22069 layer_factory.hpp:77] Creating layer relu1
I0501 03:40:12.512490 22069 net.cpp:86] Creating Layer relu1
I0501 03:40:12.512492 22069 net.cpp:408] relu1 <- ip1
I0501 03:40:12.512496 22069 net.cpp:369] relu1 -> ip1 (in-place)
I0501 03:40:12.512665 22069 net.cpp:124] Setting up relu1
I0501 03:40:12.512672 22069 net.cpp:131] Top shape: 111 10 (1110)
I0501 03:40:12.512676 22069 net.cpp:139] Memory required for data: 9557100
I0501 03:40:12.512678 22069 layer_factory.hpp:77] Creating layer ip2
I0501 03:40:12.512686 22069 net.cpp:86] Creating Layer ip2
I0501 03:40:12.512688 22069 net.cpp:408] ip2 <- ip1
I0501 03:40:12.512692 22069 net.cpp:382] ip2 -> ip2
I0501 03:40:12.512841 22069 net.cpp:124] Setting up ip2
I0501 03:40:12.512850 22069 net.cpp:131] Top shape: 111 160 (17760)
I0501 03:40:12.512851 22069 net.cpp:139] Memory required for data: 9628140
I0501 03:40:12.512859 22069 layer_factory.hpp:77] Creating layer relu2
I0501 03:40:12.512866 22069 net.cpp:86] Creating Layer relu2
I0501 03:40:12.512868 22069 net.cpp:408] relu2 <- ip2
I0501 03:40:12.512872 22069 net.cpp:369] relu2 -> ip2 (in-place)
I0501 03:40:12.513028 22069 net.cpp:124] Setting up relu2
I0501 03:40:12.513036 22069 net.cpp:131] Top shape: 111 160 (17760)
I0501 03:40:12.513039 22069 net.cpp:139] Memory required for data: 9699180
I0501 03:40:12.513042 22069 layer_factory.hpp:77] Creating layer ip3
I0501 03:40:12.513051 22069 net.cpp:86] Creating Layer ip3
I0501 03:40:12.513054 22069 net.cpp:408] ip3 <- ip2
I0501 03:40:12.513058 22069 net.cpp:382] ip3 -> ip3
I0501 03:40:12.513267 22069 net.cpp:124] Setting up ip3
I0501 03:40:12.513273 22069 net.cpp:131] Top shape: 111 20 (2220)
I0501 03:40:12.513276 22069 net.cpp:139] Memory required for data: 9708060
I0501 03:40:12.513281 22069 layer_factory.hpp:77] Creating layer relu3
I0501 03:40:12.513288 22069 net.cpp:86] Creating Layer relu3
I0501 03:40:12.513290 22069 net.cpp:408] relu3 <- ip3
I0501 03:40:12.513293 22069 net.cpp:369] relu3 -> ip3 (in-place)
I0501 03:40:12.513442 22069 net.cpp:124] Setting up relu3
I0501 03:40:12.513450 22069 net.cpp:131] Top shape: 111 20 (2220)
I0501 03:40:12.513453 22069 net.cpp:139] Memory required for data: 9716940
I0501 03:40:12.513456 22069 layer_factory.hpp:77] Creating layer ip4
I0501 03:40:12.513478 22069 net.cpp:86] Creating Layer ip4
I0501 03:40:12.513480 22069 net.cpp:408] ip4 <- ip3
I0501 03:40:12.513486 22069 net.cpp:382] ip4 -> ip4
I0501 03:40:12.513597 22069 net.cpp:124] Setting up ip4
I0501 03:40:12.513603 22069 net.cpp:131] Top shape: 111 10 (1110)
I0501 03:40:12.513607 22069 net.cpp:139] Memory required for data: 9721380
I0501 03:40:12.513613 22069 layer_factory.hpp:77] Creating layer loss
I0501 03:40:12.513618 22069 net.cpp:86] Creating Layer loss
I0501 03:40:12.513620 22069 net.cpp:408] loss <- ip4
I0501 03:40:12.513624 22069 net.cpp:408] loss <- label
I0501 03:40:12.513629 22069 net.cpp:382] loss -> loss
I0501 03:40:12.513643 22069 layer_factory.hpp:77] Creating layer loss
…
I0501 03:40:12.514837 22069 solver.cpp:173] Creating test net (#0) specified by net file: ECE595/cifar/train_test/var_everything/cifar_train_test_361.prototxt
I0501 03:40:12.514863 22069 net.cpp:296] The NetState phase (1) differed from the phase (0) specified by a rule in layer cifar
I0501 03:40:12.514955 22069 net.cpp:53] Initializing net from parameters: 
name: "CIFAR"
state {
  phase: TEST
}
layer {
  name: "cifar"
  type: "Data"
  top: "data"
  top: "label"
  include {
    phase: TEST
  }
  transform_param {
    mean_file: "examples/cifar10/mean.binaryproto"
  }
  data_param {
    source: "examples/cifar10/cifar10_test_lmdb"
    batch_size: 1000
    backend: LMDB
  }
}
layer {
  name: "conv0"
  type: "Convolution"
  bottom: "data"
  top: "conv0"
  param {
    lr_mult: 1
  }
  param {
    lr_mult: 2
  }
  convolution_param {
    num_output: 8
    pad: 2
    kernel_size: 5
    stride: 1
    weight_filler {
      type: "gaussian"
      std: 0.01
    }
    bias_filler {
      type: "constant"
    }
  }
}
layer {
  name: "Sigmoid0"
  type: "Sigmoid"
  bottom: "conv0"
  top: "Sigmoid0"
}
layer {
  name: "pool0"
  type: "Pooling"
  bottom: "Sigmoid0"
  top: "pool0"
  pooling_param {
    pool: AVE
    kernel_size: 3
    stride: 2
  }
}
layer {
  name: "ip1"
  type: "InnerProduct"
  bottom: "pool0"
  top: "ip1"
  param {
    lr_mult: 1
  }
  param {
    lr_mult: 2
  }
  inner_product_param {
    num_output: 10
    weight_filler {
      type: "gaussian"
      std: 0.01
    }
    bias_filler {
      type: "constant"
    }
  }
}
layer {
  name: "relu1"
  type: "ReLU"
  bottom: "ip1"
  top: "ip1"
}
layer {
  name: "ip2"
  type: "InnerProduct"
  bottom: "ip1"
  top: "ip2"
  param {
    lr_mult: 1
  }
  param {
    lr_mult: 2
  }
  inner_product_param {
    num_output: 160
    weight_filler {
      type: "gaussian"
      std: 0.01
    }
    bias_filler {
      type: "constant"
    }
  }
}
layer {
  name: "relu2"
  type: "ReLU"
  bottom: "ip2"
  top: "ip2"
}
layer {
  name: "ip3"
  type: "InnerProduct"
  bottom: "ip2"
  top: "ip3"
  param {
    lr_mult: 1
  }
  param {
    lr_mult: 2
  }
  inner_product_param {
    num_output: 20
    weight_filler {
      type: "gaussian"
      std: 0.01
    }
    bias_filler {
      type: "constant"
    }
  }
}
layer {
  name: "relu3"
  type: "ReLU"
  bottom: "ip3"
  top: "ip3"
}
layer {
  name: "ip4"
  type: "InnerProduct"
  bottom: "ip3"
  top: "ip4"
  param {
    lr_mult: 1
  }
  param {
    lr_mult: 2
  }
  inner_product_param {
    num_output: 10
    weight_filler {
      type: "gaussian"
      std: 0.01
    }
    bias_filler {
      type: "constant"
    }
  }
}
layer {
  name: "accuracy"
  type: "Accuracy"
  bottom: "ip4"
  bottom: "label"
  top: "accuracy"
  include {
    phase: TEST
  }
}
layer {
  name: "loss"
  type: "SoftmaxWithLoss"
  bottom: "ip4"
  bottom: "label"
  top: "loss"
}
I0501 03:40:12.515033 22069 layer_factory.hpp:77] Creating layer cifar
I0501 03:40:12.515075 22069 db_lmdb.cpp:35] Opened lmdb examples/cifar10/cifar10_test_lmdb
I0501 03:40:12.515087 22069 net.cpp:86] Creating Layer cifar
I0501 03:40:12.515092 22069 net.cpp:382] cifar -> data
I0501 03:40:12.515100 22069 net.cpp:382] cifar -> label
I0501 03:40:12.515106 22069 data_transformer.cpp:25] Loading mean file from: examples/cifar10/mean.binaryproto
I0501 03:40:12.515242 22069 data_layer.cpp:45] output data size: 1000,3,32,32
I0501 03:40:12.536787 22069 net.cpp:124] Setting up cifar
I0501 03:40:12.536850 22069 net.cpp:131] Top shape: 1000 3 32 32 (3072000)
I0501 03:40:12.536859 22069 net.cpp:131] Top shape: 1000 (1000)
I0501 03:40:12.536861 22069 net.cpp:139] Memory required for data: 12292000
I0501 03:40:12.536866 22069 layer_factory.hpp:77] Creating layer label_cifar_1_split
I0501 03:40:12.536880 22069 net.cpp:86] Creating Layer label_cifar_1_split
I0501 03:40:12.536885 22069 net.cpp:408] label_cifar_1_split <- label
I0501 03:40:12.536890 22069 net.cpp:382] label_cifar_1_split -> label_cifar_1_split_0
I0501 03:40:12.536916 22069 net.cpp:382] label_cifar_1_split -> label_cifar_1_split_1
I0501 03:40:12.537041 22069 net.cpp:124] Setting up label_cifar_1_split
I0501 03:40:12.537050 22069 net.cpp:131] Top shape: 1000 (1000)
I0501 03:40:12.537053 22069 net.cpp:131] Top shape: 1000 (1000)
I0501 03:40:12.537056 22069 net.cpp:139] Memory required for data: 12300000
I0501 03:40:12.537060 22069 layer_factory.hpp:77] Creating layer conv0
I0501 03:40:12.537073 22069 net.cpp:86] Creating Layer conv0
I0501 03:40:12.537077 22069 net.cpp:408] conv0 <- data
I0501 03:40:12.537083 22069 net.cpp:382] conv0 -> conv0
I0501 03:40:12.538734 22069 net.cpp:124] Setting up conv0
I0501 03:40:12.538764 22069 net.cpp:131] Top shape: 1000 8 32 32 (8192000)
I0501 03:40:12.538769 22069 net.cpp:139] Memory required for data: 45068000
I0501 03:40:12.538777 22069 layer_factory.hpp:77] Creating layer Sigmoid0
I0501 03:40:12.538785 22069 net.cpp:86] Creating Layer Sigmoid0
I0501 03:40:12.538789 22069 net.cpp:408] Sigmoid0 <- conv0
I0501 03:40:12.538792 22069 net.cpp:382] Sigmoid0 -> Sigmoid0
I0501 03:40:12.538981 22069 net.cpp:124] Setting up Sigmoid0
I0501 03:40:12.538990 22069 net.cpp:131] Top shape: 1000 8 32 32 (8192000)
I0501 03:40:12.538993 22069 net.cpp:139] Memory required for data: 77836000
I0501 03:40:12.538996 22069 layer_factory.hpp:77] Creating layer pool0
I0501 03:40:12.539005 22069 net.cpp:86] Creating Layer pool0
I0501 03:40:12.539008 22069 net.cpp:408] pool0 <- Sigmoid0
I0501 03:40:12.539013 22069 net.cpp:382] pool0 -> pool0
I0501 03:40:12.539175 22069 net.cpp:124] Setting up pool0
I0501 03:40:12.539185 22069 net.cpp:131] Top shape: 1000 8 16 16 (2048000)
I0501 03:40:12.539187 22069 net.cpp:139] Memory required for data: 86028000
I0501 03:40:12.539206 22069 layer_factory.hpp:77] Creating layer ip1
I0501 03:40:12.539216 22069 net.cpp:86] Creating Layer ip1
I0501 03:40:12.539219 22069 net.cpp:408] ip1 <- pool0
I0501 03:40:12.539225 22069 net.cpp:382] ip1 -> ip1
I0501 03:40:12.540428 22069 net.cpp:124] Setting up ip1
I0501 03:40:12.540437 22069 net.cpp:131] Top shape: 1000 10 (10000)
I0501 03:40:12.540457 22069 net.cpp:139] Memory required for data: 86068000
I0501 03:40:12.540494 22069 layer_factory.hpp:77] Creating layer relu1
I0501 03:40:12.540500 22069 net.cpp:86] Creating Layer relu1
I0501 03:40:12.540519 22069 net.cpp:408] relu1 <- ip1
I0501 03:40:12.540525 22069 net.cpp:369] relu1 -> ip1 (in-place)
I0501 03:40:12.540724 22069 net.cpp:124] Setting up relu1
I0501 03:40:12.540733 22069 net.cpp:131] Top shape: 1000 10 (10000)
I0501 03:40:12.540737 22069 net.cpp:139] Memory required for data: 86108000
I0501 03:40:12.540740 22069 layer_factory.hpp:77] Creating layer ip2
I0501 03:40:12.540748 22069 net.cpp:86] Creating Layer ip2
I0501 03:40:12.540752 22069 net.cpp:408] ip2 <- ip1
I0501 03:40:12.540757 22069 net.cpp:382] ip2 -> ip2
I0501 03:40:12.540972 22069 net.cpp:124] Setting up ip2
I0501 03:40:12.540982 22069 net.cpp:131] Top shape: 1000 160 (160000)
I0501 03:40:12.540985 22069 net.cpp:139] Memory required for data: 86748000
I0501 03:40:12.540992 22069 layer_factory.hpp:77] Creating layer relu2
I0501 03:40:12.540998 22069 net.cpp:86] Creating Layer relu2
I0501 03:40:12.541002 22069 net.cpp:408] relu2 <- ip2
I0501 03:40:12.541007 22069 net.cpp:369] relu2 -> ip2 (in-place)
I0501 03:40:12.541776 22069 net.cpp:124] Setting up relu2
I0501 03:40:12.541788 22069 net.cpp:131] Top shape: 1000 160 (160000)
I0501 03:40:12.541807 22069 net.cpp:139] Memory required for data: 87388000
I0501 03:40:12.541810 22069 layer_factory.hpp:77] Creating layer ip3
I0501 03:40:12.541818 22069 net.cpp:86] Creating Layer ip3
I0501 03:40:12.541821 22069 net.cpp:408] ip3 <- ip2
I0501 03:40:12.541826 22069 net.cpp:382] ip3 -> ip3
I0501 03:40:12.542052 22069 net.cpp:124] Setting up ip3
I0501 03:40:12.542058 22069 net.cpp:131] Top shape: 1000 20 (20000)
I0501 03:40:12.542062 22069 net.cpp:139] Memory required for data: 87468000
I0501 03:40:12.542068 22069 layer_factory.hpp:77] Creating layer relu3
I0501 03:40:12.542073 22069 net.cpp:86] Creating Layer relu3
I0501 03:40:12.542075 22069 net.cpp:408] relu3 <- ip3
I0501 03:40:12.542080 22069 net.cpp:369] relu3 -> ip3 (in-place)
I0501 03:40:12.542233 22069 net.cpp:124] Setting up relu3
I0501 03:40:12.542242 22069 net.cpp:131] Top shape: 1000 20 (20000)
I0501 03:40:12.542244 22069 net.cpp:139] Memory required for data: 87548000
I0501 03:40:12.542248 22069 layer_factory.hpp:77] Creating layer ip4
I0501 03:40:12.542254 22069 net.cpp:86] Creating Layer ip4
I0501 03:40:12.542258 22069 net.cpp:408] ip4 <- ip3
I0501 03:40:12.542263 22069 net.cpp:382] ip4 -> ip4
I0501 03:40:12.542366 22069 net.cpp:124] Setting up ip4
I0501 03:40:12.542373 22069 net.cpp:131] Top shape: 1000 10 (10000)
I0501 03:40:12.542376 22069 net.cpp:139] Memory required for data: 87588000
I0501 03:40:12.542385 22069 layer_factory.hpp:77] Creating layer ip4_ip4_0_split
I0501 03:40:12.542392 22069 net.cpp:86] Creating Layer ip4_ip4_0_split
I0501 03:40:12.542394 22069 net.cpp:408] ip4_ip4_0_split <- ip4
I0501 03:40:12.542398 22069 net.cpp:382] ip4_ip4_0_split -> ip4_ip4_0_split_0
I0501 03:40:12.542403 22069 net.cpp:382] ip4_ip4_0_split -> ip4_ip4_0_split_1
I0501 03:40:12.542433 22069 net.cpp:124] Setting up ip4_ip4_0_split
I0501 03:40:12.542438 22069 net.cpp:131] Top shape: 1000 10 (10000)
I0501 03:40:12.542443 22069 net.cpp:131] Top shape: 1000 10 (10000)
I0501 03:40:12.542444 22069 net.cpp:139] Memory required for data: 87668000
I0501 03:40:12.542448 22069 layer_factory.hpp:77] Creating layer accuracy
I0501 03:40:12.542454 22069 net.cpp:86] Creating Layer accuracy
I0501 03:40:12.542455 22069 net.cpp:408] accuracy <- ip4_ip4_0_split_0
I0501 03:40:12.542459 22069 net.cpp:408] accuracy <- label_cifar_1_split_0
I0501 03:40:12.542464 22069 net.cpp:382] accuracy -> accuracy
…
