…
I0430 20:16:33.170171 28360 net.cpp:296] The NetState phase (0) differed from the phase (1) specified by a rule in layer cifar
I0430 20:16:33.170184 28360 net.cpp:296] The NetState phase (0) differed from the phase (1) specified by a rule in layer accuracy
I0430 20:16:33.170265 28360 net.cpp:53] Initializing net from parameters: 
name: "CIFAR"
state {
  phase: TRAIN
  level: 0
  stage: ""
}
layer {
  name: "cifar"
  type: "Data"
  top: "data"
  top: "label"
  include {
    phase: TRAIN
  }
  transform_param {
    mean_file: "examples/cifar10/mean.binaryproto"
  }
  data_param {
    source: "examples/cifar10/cifar10_train_lmdb"
    batch_size: 111
    backend: LMDB
  }
}
layer {
  name: "ip1"
  type: "InnerProduct"
  bottom: "data"
  top: "ip1"
  param {
    lr_mult: 1
  }
  param {
    lr_mult: 2
  }
  inner_product_param {
    num_output: 80
    weight_filler {
      type: "gaussian"
      std: 0.01
    }
    bias_filler {
      type: "constant"
    }
  }
}
layer {
  name: "relu1"
  type: "ReLU"
  bottom: "ip1"
  top: "ip1"
}
layer {
  name: "ip2"
  type: "InnerProduct"
  bottom: "ip1"
  top: "ip2"
  param {
    lr_mult: 1
  }
  param {
    lr_mult: 2
  }
  inner_product_param {
    num_output: 80
    weight_filler {
      type: "gaussian"
      std: 0.01
    }
    bias_filler {
      type: "constant"
    }
  }
}
layer {
  name: "relu2"
  type: "ReLU"
  bottom: "ip2"
  top: "ip2"
}
layer {
  name: "ip3"
  type: "InnerProduct"
  bottom: "ip2"
  top: "ip3"
  param {
    lr_mult: 1
  }
  param {
    lr_mult: 2
  }
  inner_product_param {
    num_output: 160
    weight_filler {
      type: "gaussian"
      std: 0.01
    }
    bias_filler {
      type: "constant"
    }
  }
}
layer {
  name: "relu3"
  type: "ReLU"
  bottom: "ip3"
  top: "ip3"
}
layer {
  name: "ip4"
  type: "InnerProduct"
  bottom: "ip3"
  top: "ip4"
  param {
    lr_mult: 1
  }
  param {
    lr_mult: 2
  }
  inner_product_param {
    num_output: 10
    weight_filler {
      type: "gaussian"
      std: 0.01
    }
    bias_filler {
      type: "constant"
    }
  }
}
layer {
  name: "loss"
  type: "SoftmaxWithLoss"
  bottom: "ip4"
  bottom: "label"
  top: "loss"
}
I0430 20:16:33.170330 28360 layer_factory.hpp:77] Creating layer cifar
I0430 20:16:33.170423 28360 db_lmdb.cpp:35] Opened lmdb examples/cifar10/cifar10_train_lmdb
I0430 20:16:33.170449 28360 net.cpp:86] Creating Layer cifar
I0430 20:16:33.170456 28360 net.cpp:382] cifar -> data
I0430 20:16:33.170478 28360 net.cpp:382] cifar -> label
I0430 20:16:33.170490 28360 data_transformer.cpp:25] Loading mean file from: examples/cifar10/mean.binaryproto
I0430 20:16:33.172499 28360 data_layer.cpp:45] output data size: 111,3,32,32
I0430 20:16:33.180171 28360 net.cpp:124] Setting up cifar
I0430 20:16:33.180189 28360 net.cpp:131] Top shape: 111 3 32 32 (340992)
I0430 20:16:33.180196 28360 net.cpp:131] Top shape: 111 (111)
I0430 20:16:33.180199 28360 net.cpp:139] Memory required for data: 1364412
I0430 20:16:33.180207 28360 layer_factory.hpp:77] Creating layer ip1
I0430 20:16:33.180218 28360 net.cpp:86] Creating Layer ip1
I0430 20:16:33.180224 28360 net.cpp:408] ip1 <- data
I0430 20:16:33.180236 28360 net.cpp:382] ip1 -> ip1
I0430 20:16:33.189383 28360 net.cpp:124] Setting up ip1
I0430 20:16:33.189399 28360 net.cpp:131] Top shape: 111 80 (8880)
I0430 20:16:33.189402 28360 net.cpp:139] Memory required for data: 1399932
I0430 20:16:33.189417 28360 layer_factory.hpp:77] Creating layer relu1
I0430 20:16:33.189427 28360 net.cpp:86] Creating Layer relu1
I0430 20:16:33.189446 28360 net.cpp:408] relu1 <- ip1
I0430 20:16:33.189455 28360 net.cpp:369] relu1 -> ip1 (in-place)
I0430 20:16:33.475847 28360 net.cpp:124] Setting up relu1
I0430 20:16:33.475878 28360 net.cpp:131] Top shape: 111 80 (8880)
I0430 20:16:33.475883 28360 net.cpp:139] Memory required for data: 1435452
I0430 20:16:33.475888 28360 layer_factory.hpp:77] Creating layer ip2
I0430 20:16:33.475901 28360 net.cpp:86] Creating Layer ip2
I0430 20:16:33.475906 28360 net.cpp:408] ip2 <- ip1
I0430 20:16:33.475915 28360 net.cpp:382] ip2 -> ip2
I0430 20:16:33.477200 28360 net.cpp:124] Setting up ip2
I0430 20:16:33.477214 28360 net.cpp:131] Top shape: 111 80 (8880)
I0430 20:16:33.477218 28360 net.cpp:139] Memory required for data: 1470972
I0430 20:16:33.477229 28360 layer_factory.hpp:77] Creating layer relu2
I0430 20:16:33.477237 28360 net.cpp:86] Creating Layer relu2
I0430 20:16:33.477241 28360 net.cpp:408] relu2 <- ip2
I0430 20:16:33.477246 28360 net.cpp:369] relu2 -> ip2 (in-place)
I0430 20:16:33.478034 28360 net.cpp:124] Setting up relu2
I0430 20:16:33.478046 28360 net.cpp:131] Top shape: 111 80 (8880)
I0430 20:16:33.478050 28360 net.cpp:139] Memory required for data: 1506492
I0430 20:16:33.478055 28360 layer_factory.hpp:77] Creating layer ip3
I0430 20:16:33.478062 28360 net.cpp:86] Creating Layer ip3
I0430 20:16:33.478065 28360 net.cpp:408] ip3 <- ip2
I0430 20:16:33.478071 28360 net.cpp:382] ip3 -> ip3
I0430 20:16:33.478538 28360 net.cpp:124] Setting up ip3
I0430 20:16:33.478546 28360 net.cpp:131] Top shape: 111 160 (17760)
I0430 20:16:33.478549 28360 net.cpp:139] Memory required for data: 1577532
I0430 20:16:33.478559 28360 layer_factory.hpp:77] Creating layer relu3
I0430 20:16:33.478564 28360 net.cpp:86] Creating Layer relu3
I0430 20:16:33.478566 28360 net.cpp:408] relu3 <- ip3
I0430 20:16:33.478571 28360 net.cpp:369] relu3 -> ip3 (in-place)
I0430 20:16:33.478730 28360 net.cpp:124] Setting up relu3
I0430 20:16:33.478740 28360 net.cpp:131] Top shape: 111 160 (17760)
I0430 20:16:33.478744 28360 net.cpp:139] Memory required for data: 1648572
I0430 20:16:33.478746 28360 layer_factory.hpp:77] Creating layer ip4
I0430 20:16:33.478754 28360 net.cpp:86] Creating Layer ip4
I0430 20:16:33.478757 28360 net.cpp:408] ip4 <- ip3
I0430 20:16:33.478762 28360 net.cpp:382] ip4 -> ip4
I0430 20:16:33.478904 28360 net.cpp:124] Setting up ip4
I0430 20:16:33.478912 28360 net.cpp:131] Top shape: 111 10 (1110)
I0430 20:16:33.478915 28360 net.cpp:139] Memory required for data: 1653012
I0430 20:16:33.478921 28360 layer_factory.hpp:77] Creating layer loss
I0430 20:16:33.478929 28360 net.cpp:86] Creating Layer loss
I0430 20:16:33.478931 28360 net.cpp:408] loss <- ip4
I0430 20:16:33.478935 28360 net.cpp:408] loss <- label
I0430 20:16:33.478941 28360 net.cpp:382] loss -> loss
I0430 20:16:33.478957 28360 layer_factory.hpp:77] Creating layer loss
…
I0430 20:16:33.479550 28360 solver.cpp:173] Creating test net (#0) specified by net file: ECE595/cifar/train_test/var_everything/cifar_train_test_124.prototxt
I0430 20:16:33.479591 28360 net.cpp:296] The NetState phase (1) differed from the phase (0) specified by a rule in layer cifar
I0430 20:16:33.479673 28360 net.cpp:53] Initializing net from parameters: 
name: "CIFAR"
state {
  phase: TEST
}
layer {
  name: "cifar"
  type: "Data"
  top: "data"
  top: "label"
  include {
    phase: TEST
  }
  transform_param {
    mean_file: "examples/cifar10/mean.binaryproto"
  }
  data_param {
    source: "examples/cifar10/cifar10_test_lmdb"
    batch_size: 1000
    backend: LMDB
  }
}
layer {
  name: "ip1"
  type: "InnerProduct"
  bottom: "data"
  top: "ip1"
  param {
    lr_mult: 1
  }
  param {
    lr_mult: 2
  }
  inner_product_param {
    num_output: 80
    weight_filler {
      type: "gaussian"
      std: 0.01
    }
    bias_filler {
      type: "constant"
    }
  }
}
layer {
  name: "relu1"
  type: "ReLU"
  bottom: "ip1"
  top: "ip1"
}
layer {
  name: "ip2"
  type: "InnerProduct"
  bottom: "ip1"
  top: "ip2"
  param {
    lr_mult: 1
  }
  param {
    lr_mult: 2
  }
  inner_product_param {
    num_output: 80
    weight_filler {
      type: "gaussian"
      std: 0.01
    }
    bias_filler {
      type: "constant"
    }
  }
}
layer {
  name: "relu2"
  type: "ReLU"
  bottom: "ip2"
  top: "ip2"
}
layer {
  name: "ip3"
  type: "InnerProduct"
  bottom: "ip2"
  top: "ip3"
  param {
    lr_mult: 1
  }
  param {
    lr_mult: 2
  }
  inner_product_param {
    num_output: 160
    weight_filler {
      type: "gaussian"
      std: 0.01
    }
    bias_filler {
      type: "constant"
    }
  }
}
layer {
  name: "relu3"
  type: "ReLU"
  bottom: "ip3"
  top: "ip3"
}
layer {
  name: "ip4"
  type: "InnerProduct"
  bottom: "ip3"
  top: "ip4"
  param {
    lr_mult: 1
  }
  param {
    lr_mult: 2
  }
  inner_product_param {
    num_output: 10
    weight_filler {
      type: "gaussian"
      std: 0.01
    }
    bias_filler {
      type: "constant"
    }
  }
}
layer {
  name: "accuracy"
  type: "Accuracy"
  bottom: "ip4"
  bottom: "label"
  top: "accuracy"
  include {
    phase: TEST
  }
}
layer {
  name: "loss"
  type: "SoftmaxWithLoss"
  bottom: "ip4"
  bottom: "label"
  top: "loss"
}
I0430 20:16:33.479737 28360 layer_factory.hpp:77] Creating layer cifar
I0430 20:16:33.479784 28360 db_lmdb.cpp:35] Opened lmdb examples/cifar10/cifar10_test_lmdb
I0430 20:16:33.479796 28360 net.cpp:86] Creating Layer cifar
I0430 20:16:33.479801 28360 net.cpp:382] cifar -> data
I0430 20:16:33.479810 28360 net.cpp:382] cifar -> label
I0430 20:16:33.479817 28360 data_transformer.cpp:25] Loading mean file from: examples/cifar10/mean.binaryproto
I0430 20:16:33.479969 28360 data_layer.cpp:45] output data size: 1000,3,32,32
I0430 20:16:33.503724 28360 net.cpp:124] Setting up cifar
I0430 20:16:33.503751 28360 net.cpp:131] Top shape: 1000 3 32 32 (3072000)
I0430 20:16:33.503757 28360 net.cpp:131] Top shape: 1000 (1000)
I0430 20:16:33.503760 28360 net.cpp:139] Memory required for data: 12292000
I0430 20:16:33.503767 28360 layer_factory.hpp:77] Creating layer label_cifar_1_split
I0430 20:16:33.503784 28360 net.cpp:86] Creating Layer label_cifar_1_split
I0430 20:16:33.503789 28360 net.cpp:408] label_cifar_1_split <- label
I0430 20:16:33.503795 28360 net.cpp:382] label_cifar_1_split -> label_cifar_1_split_0
I0430 20:16:33.503804 28360 net.cpp:382] label_cifar_1_split -> label_cifar_1_split_1
I0430 20:16:33.503900 28360 net.cpp:124] Setting up label_cifar_1_split
I0430 20:16:33.503908 28360 net.cpp:131] Top shape: 1000 (1000)
I0430 20:16:33.503912 28360 net.cpp:131] Top shape: 1000 (1000)
I0430 20:16:33.503916 28360 net.cpp:139] Memory required for data: 12300000
I0430 20:16:33.503918 28360 layer_factory.hpp:77] Creating layer ip1
I0430 20:16:33.503927 28360 net.cpp:86] Creating Layer ip1
I0430 20:16:33.503931 28360 net.cpp:408] ip1 <- data
I0430 20:16:33.503937 28360 net.cpp:382] ip1 -> ip1
I0430 20:16:33.510469 28360 net.cpp:124] Setting up ip1
I0430 20:16:33.510480 28360 net.cpp:131] Top shape: 1000 80 (80000)
I0430 20:16:33.510499 28360 net.cpp:139] Memory required for data: 12620000
I0430 20:16:33.510524 28360 layer_factory.hpp:77] Creating layer relu1
I0430 20:16:33.510529 28360 net.cpp:86] Creating Layer relu1
I0430 20:16:33.510532 28360 net.cpp:408] relu1 <- ip1
I0430 20:16:33.510553 28360 net.cpp:369] relu1 -> ip1 (in-place)
I0430 20:16:33.511355 28360 net.cpp:124] Setting up relu1
I0430 20:16:33.511368 28360 net.cpp:131] Top shape: 1000 80 (80000)
I0430 20:16:33.511386 28360 net.cpp:139] Memory required for data: 12940000
I0430 20:16:33.511389 28360 layer_factory.hpp:77] Creating layer ip2
I0430 20:16:33.511397 28360 net.cpp:86] Creating Layer ip2
I0430 20:16:33.511401 28360 net.cpp:408] ip2 <- ip1
I0430 20:16:33.511407 28360 net.cpp:382] ip2 -> ip2
I0430 20:16:33.511693 28360 net.cpp:124] Setting up ip2
I0430 20:16:33.511701 28360 net.cpp:131] Top shape: 1000 80 (80000)
I0430 20:16:33.511705 28360 net.cpp:139] Memory required for data: 13260000
I0430 20:16:33.511713 28360 layer_factory.hpp:77] Creating layer relu2
I0430 20:16:33.511718 28360 net.cpp:86] Creating Layer relu2
I0430 20:16:33.511721 28360 net.cpp:408] relu2 <- ip2
I0430 20:16:33.511729 28360 net.cpp:369] relu2 -> ip2 (in-place)
I0430 20:16:33.511898 28360 net.cpp:124] Setting up relu2
I0430 20:16:33.511907 28360 net.cpp:131] Top shape: 1000 80 (80000)
I0430 20:16:33.511911 28360 net.cpp:139] Memory required for data: 13580000
I0430 20:16:33.511914 28360 layer_factory.hpp:77] Creating layer ip3
I0430 20:16:33.511920 28360 net.cpp:86] Creating Layer ip3
I0430 20:16:33.511924 28360 net.cpp:408] ip3 <- ip2
I0430 20:16:33.511929 28360 net.cpp:382] ip3 -> ip3
I0430 20:16:33.512436 28360 net.cpp:124] Setting up ip3
I0430 20:16:33.512444 28360 net.cpp:131] Top shape: 1000 160 (160000)
I0430 20:16:33.512460 28360 net.cpp:139] Memory required for data: 14220000
I0430 20:16:33.512467 28360 layer_factory.hpp:77] Creating layer relu3
I0430 20:16:33.512487 28360 net.cpp:86] Creating Layer relu3
I0430 20:16:33.512490 28360 net.cpp:408] relu3 <- ip3
I0430 20:16:33.512495 28360 net.cpp:369] relu3 -> ip3 (in-place)
I0430 20:16:33.512671 28360 net.cpp:124] Setting up relu3
I0430 20:16:33.512681 28360 net.cpp:131] Top shape: 1000 160 (160000)
I0430 20:16:33.512683 28360 net.cpp:139] Memory required for data: 14860000
I0430 20:16:33.512686 28360 layer_factory.hpp:77] Creating layer ip4
I0430 20:16:33.512693 28360 net.cpp:86] Creating Layer ip4
I0430 20:16:33.512697 28360 net.cpp:408] ip4 <- ip3
I0430 20:16:33.512704 28360 net.cpp:382] ip4 -> ip4
I0430 20:16:33.512858 28360 net.cpp:124] Setting up ip4
I0430 20:16:33.512867 28360 net.cpp:131] Top shape: 1000 10 (10000)
I0430 20:16:33.512887 28360 net.cpp:139] Memory required for data: 14900000
I0430 20:16:33.512892 28360 layer_factory.hpp:77] Creating layer ip4_ip4_0_split
I0430 20:16:33.512897 28360 net.cpp:86] Creating Layer ip4_ip4_0_split
I0430 20:16:33.512900 28360 net.cpp:408] ip4_ip4_0_split <- ip4
I0430 20:16:33.512905 28360 net.cpp:382] ip4_ip4_0_split -> ip4_ip4_0_split_0
I0430 20:16:33.512913 28360 net.cpp:382] ip4_ip4_0_split -> ip4_ip4_0_split_1
I0430 20:16:33.512946 28360 net.cpp:124] Setting up ip4_ip4_0_split
I0430 20:16:33.512951 28360 net.cpp:131] Top shape: 1000 10 (10000)
I0430 20:16:33.512954 28360 net.cpp:131] Top shape: 1000 10 (10000)
I0430 20:16:33.512958 28360 net.cpp:139] Memory required for data: 14980000
I0430 20:16:33.512960 28360 layer_factory.hpp:77] Creating layer accuracy
I0430 20:16:33.512971 28360 net.cpp:86] Creating Layer accuracy
I0430 20:16:33.512975 28360 net.cpp:408] accuracy <- ip4_ip4_0_split_0
I0430 20:16:33.512979 28360 net.cpp:408] accuracy <- label_cifar_1_split_0
I0430 20:16:33.512984 28360 net.cpp:382] accuracy -> accuracy
…
