…
I0501 08:03:33.300752  8889 net.cpp:296] The NetState phase (0) differed from the phase (1) specified by a rule in layer cifar
I0501 08:03:33.300771  8889 net.cpp:296] The NetState phase (0) differed from the phase (1) specified by a rule in layer accuracy
I0501 08:03:33.300889  8889 net.cpp:53] Initializing net from parameters: 
name: "CIFAR"
state {
  phase: TRAIN
  level: 0
  stage: ""
}
layer {
  name: "cifar"
  type: "Data"
  top: "data"
  top: "label"
  include {
    phase: TRAIN
  }
  transform_param {
    mean_file: "examples/cifar10/mean.binaryproto"
  }
  data_param {
    source: "examples/cifar10/cifar10_train_lmdb"
    batch_size: 111
    backend: LMDB
  }
}
layer {
  name: "conv0"
  type: "Convolution"
  bottom: "data"
  top: "conv0"
  param {
    lr_mult: 1
  }
  param {
    lr_mult: 2
  }
  convolution_param {
    num_output: 16
    pad: 2
    kernel_size: 3
    stride: 1
    weight_filler {
      type: "gaussian"
      std: 0.01
    }
    bias_filler {
      type: "constant"
    }
  }
}
layer {
  name: "Sigmoid0"
  type: "Sigmoid"
  bottom: "conv0"
  top: "Sigmoid0"
}
layer {
  name: "pool0"
  type: "Pooling"
  bottom: "Sigmoid0"
  top: "pool0"
  pooling_param {
    pool: AVE
    kernel_size: 3
    stride: 2
  }
}
layer {
  name: "ip1"
  type: "InnerProduct"
  bottom: "pool0"
  top: "ip1"
  param {
    lr_mult: 1
  }
  param {
    lr_mult: 2
  }
  inner_product_param {
    num_output: 10
    weight_filler {
      type: "gaussian"
      std: 0.01
    }
    bias_filler {
      type: "constant"
    }
  }
}
layer {
  name: "relu1"
  type: "ReLU"
  bottom: "ip1"
  top: "ip1"
}
layer {
  name: "ip2"
  type: "InnerProduct"
  bottom: "ip1"
  top: "ip2"
  param {
    lr_mult: 1
  }
  param {
    lr_mult: 2
  }
  inner_product_param {
    num_output: 20
    weight_filler {
      type: "gaussian"
      std: 0.01
    }
    bias_filler {
      type: "constant"
    }
  }
}
layer {
  name: "relu2"
  type: "ReLU"
  bottom: "ip2"
  top: "ip2"
}
layer {
  name: "ip3"
  type: "InnerProduct"
  bottom: "ip2"
  top: "ip3"
  param {
    lr_mult: 1
  }
  param {
    lr_mult: 2
  }
  inner_product_param {
    num_output: 10
    weight_filler {
      type: "gaussian"
      std: 0.01
    }
    bias_filler {
      type: "constant"
    }
  }
}
layer {
  name: "relu3"
  type: "ReLU"
  bottom: "ip3"
  top: "ip3"
}
layer {
  name: "ip4"
  type: "InnerProduct"
  bottom: "ip3"
  top: "ip4"
  param {
    lr_mult: 1
  }
  param {
    lr_mult: 2
  }
  inner_product_param {
    num_output: 10
    weight_filler {
      type: "gaussian"
      std: 0.01
    }
    bias_filler {
      type: "constant"
    }
  }
}
layer {
  name: "loss"
  type: "SoftmaxWithLoss"
  bottom: "ip4"
  bottom: "label"
  top: "loss"
}
I0501 08:03:33.300972  8889 layer_factory.hpp:77] Creating layer cifar
I0501 08:03:33.301079  8889 db_lmdb.cpp:35] Opened lmdb examples/cifar10/cifar10_train_lmdb
I0501 08:03:33.301105  8889 net.cpp:86] Creating Layer cifar
I0501 08:03:33.301115  8889 net.cpp:382] cifar -> data
I0501 08:03:33.301136  8889 net.cpp:382] cifar -> label
I0501 08:03:33.301149  8889 data_transformer.cpp:25] Loading mean file from: examples/cifar10/mean.binaryproto
I0501 08:03:33.303303  8889 data_layer.cpp:45] output data size: 111,3,32,32
I0501 08:03:33.311221  8889 net.cpp:124] Setting up cifar
I0501 08:03:33.311240  8889 net.cpp:131] Top shape: 111 3 32 32 (340992)
I0501 08:03:33.311247  8889 net.cpp:131] Top shape: 111 (111)
I0501 08:03:33.311250  8889 net.cpp:139] Memory required for data: 1364412
I0501 08:03:33.311273  8889 layer_factory.hpp:77] Creating layer conv0
I0501 08:03:33.311295  8889 net.cpp:86] Creating Layer conv0
I0501 08:03:33.311300  8889 net.cpp:408] conv0 <- data
I0501 08:03:33.311314  8889 net.cpp:382] conv0 -> conv0
I0501 08:03:33.590448  8889 net.cpp:124] Setting up conv0
I0501 08:03:33.590474  8889 net.cpp:131] Top shape: 111 16 34 34 (2053056)
I0501 08:03:33.590478  8889 net.cpp:139] Memory required for data: 9576636
I0501 08:03:33.590508  8889 layer_factory.hpp:77] Creating layer Sigmoid0
I0501 08:03:33.590522  8889 net.cpp:86] Creating Layer Sigmoid0
I0501 08:03:33.590525  8889 net.cpp:408] Sigmoid0 <- conv0
I0501 08:03:33.590530  8889 net.cpp:382] Sigmoid0 -> Sigmoid0
I0501 08:03:33.590719  8889 net.cpp:124] Setting up Sigmoid0
I0501 08:03:33.590729  8889 net.cpp:131] Top shape: 111 16 34 34 (2053056)
I0501 08:03:33.590733  8889 net.cpp:139] Memory required for data: 17788860
I0501 08:03:33.590735  8889 layer_factory.hpp:77] Creating layer pool0
I0501 08:03:33.590741  8889 net.cpp:86] Creating Layer pool0
I0501 08:03:33.590745  8889 net.cpp:408] pool0 <- Sigmoid0
I0501 08:03:33.590749  8889 net.cpp:382] pool0 -> pool0
I0501 08:03:33.591511  8889 net.cpp:124] Setting up pool0
I0501 08:03:33.591523  8889 net.cpp:131] Top shape: 111 16 17 17 (513264)
I0501 08:03:33.591526  8889 net.cpp:139] Memory required for data: 19841916
I0501 08:03:33.591531  8889 layer_factory.hpp:77] Creating layer ip1
I0501 08:03:33.591539  8889 net.cpp:86] Creating Layer ip1
I0501 08:03:33.591542  8889 net.cpp:408] ip1 <- pool0
I0501 08:03:33.591547  8889 net.cpp:382] ip1 -> ip1
I0501 08:03:33.593711  8889 net.cpp:124] Setting up ip1
I0501 08:03:33.593724  8889 net.cpp:131] Top shape: 111 10 (1110)
I0501 08:03:33.593744  8889 net.cpp:139] Memory required for data: 19846356
I0501 08:03:33.593751  8889 layer_factory.hpp:77] Creating layer relu1
I0501 08:03:33.593757  8889 net.cpp:86] Creating Layer relu1
I0501 08:03:33.593761  8889 net.cpp:408] relu1 <- ip1
I0501 08:03:33.593765  8889 net.cpp:369] relu1 -> ip1 (in-place)
I0501 08:03:33.593935  8889 net.cpp:124] Setting up relu1
I0501 08:03:33.593945  8889 net.cpp:131] Top shape: 111 10 (1110)
I0501 08:03:33.593962  8889 net.cpp:139] Memory required for data: 19850796
I0501 08:03:33.593966  8889 layer_factory.hpp:77] Creating layer ip2
I0501 08:03:33.593972  8889 net.cpp:86] Creating Layer ip2
I0501 08:03:33.593976  8889 net.cpp:408] ip2 <- ip1
I0501 08:03:33.593979  8889 net.cpp:382] ip2 -> ip2
I0501 08:03:33.594074  8889 net.cpp:124] Setting up ip2
I0501 08:03:33.594080  8889 net.cpp:131] Top shape: 111 20 (2220)
I0501 08:03:33.594084  8889 net.cpp:139] Memory required for data: 19859676
I0501 08:03:33.594090  8889 layer_factory.hpp:77] Creating layer relu2
I0501 08:03:33.594094  8889 net.cpp:86] Creating Layer relu2
I0501 08:03:33.594097  8889 net.cpp:408] relu2 <- ip2
I0501 08:03:33.594101  8889 net.cpp:369] relu2 -> ip2 (in-place)
I0501 08:03:33.594244  8889 net.cpp:124] Setting up relu2
I0501 08:03:33.594250  8889 net.cpp:131] Top shape: 111 20 (2220)
I0501 08:03:33.594254  8889 net.cpp:139] Memory required for data: 19868556
I0501 08:03:33.594256  8889 layer_factory.hpp:77] Creating layer ip3
I0501 08:03:33.594264  8889 net.cpp:86] Creating Layer ip3
I0501 08:03:33.594266  8889 net.cpp:408] ip3 <- ip2
I0501 08:03:33.594271  8889 net.cpp:382] ip3 -> ip3
I0501 08:03:33.594358  8889 net.cpp:124] Setting up ip3
I0501 08:03:33.594364  8889 net.cpp:131] Top shape: 111 10 (1110)
I0501 08:03:33.594367  8889 net.cpp:139] Memory required for data: 19872996
I0501 08:03:33.594372  8889 layer_factory.hpp:77] Creating layer relu3
I0501 08:03:33.594377  8889 net.cpp:86] Creating Layer relu3
I0501 08:03:33.594379  8889 net.cpp:408] relu3 <- ip3
I0501 08:03:33.594383  8889 net.cpp:369] relu3 -> ip3 (in-place)
I0501 08:03:33.594537  8889 net.cpp:124] Setting up relu3
I0501 08:03:33.594544  8889 net.cpp:131] Top shape: 111 10 (1110)
I0501 08:03:33.594548  8889 net.cpp:139] Memory required for data: 19877436
I0501 08:03:33.594550  8889 layer_factory.hpp:77] Creating layer ip4
I0501 08:03:33.594571  8889 net.cpp:86] Creating Layer ip4
I0501 08:03:33.594575  8889 net.cpp:408] ip4 <- ip3
I0501 08:03:33.594580  8889 net.cpp:382] ip4 -> ip4
I0501 08:03:33.594673  8889 net.cpp:124] Setting up ip4
I0501 08:03:33.594681  8889 net.cpp:131] Top shape: 111 10 (1110)
I0501 08:03:33.594683  8889 net.cpp:139] Memory required for data: 19881876
I0501 08:03:33.594691  8889 layer_factory.hpp:77] Creating layer loss
I0501 08:03:33.594696  8889 net.cpp:86] Creating Layer loss
I0501 08:03:33.594699  8889 net.cpp:408] loss <- ip4
I0501 08:03:33.594703  8889 net.cpp:408] loss <- label
I0501 08:03:33.594708  8889 net.cpp:382] loss -> loss
I0501 08:03:33.594722  8889 layer_factory.hpp:77] Creating layer loss
…
I0501 08:03:33.595957  8889 solver.cpp:173] Creating test net (#0) specified by net file: ECE595/cifar/train_test/var_everything/cifar_train_test_500.prototxt
I0501 08:03:33.596000  8889 net.cpp:296] The NetState phase (1) differed from the phase (0) specified by a rule in layer cifar
I0501 08:03:33.596118  8889 net.cpp:53] Initializing net from parameters: 
name: "CIFAR"
state {
  phase: TEST
}
layer {
  name: "cifar"
  type: "Data"
  top: "data"
  top: "label"
  include {
    phase: TEST
  }
  transform_param {
    mean_file: "examples/cifar10/mean.binaryproto"
  }
  data_param {
    source: "examples/cifar10/cifar10_test_lmdb"
    batch_size: 1000
    backend: LMDB
  }
}
layer {
  name: "conv0"
  type: "Convolution"
  bottom: "data"
  top: "conv0"
  param {
    lr_mult: 1
  }
  param {
    lr_mult: 2
  }
  convolution_param {
    num_output: 16
    pad: 2
    kernel_size: 3
    stride: 1
    weight_filler {
      type: "gaussian"
      std: 0.01
    }
    bias_filler {
      type: "constant"
    }
  }
}
layer {
  name: "Sigmoid0"
  type: "Sigmoid"
  bottom: "conv0"
  top: "Sigmoid0"
}
layer {
  name: "pool0"
  type: "Pooling"
  bottom: "Sigmoid0"
  top: "pool0"
  pooling_param {
    pool: AVE
    kernel_size: 3
    stride: 2
  }
}
layer {
  name: "ip1"
  type: "InnerProduct"
  bottom: "pool0"
  top: "ip1"
  param {
    lr_mult: 1
  }
  param {
    lr_mult: 2
  }
  inner_product_param {
    num_output: 10
    weight_filler {
      type: "gaussian"
      std: 0.01
    }
    bias_filler {
      type: "constant"
    }
  }
}
layer {
  name: "relu1"
  type: "ReLU"
  bottom: "ip1"
  top: "ip1"
}
layer {
  name: "ip2"
  type: "InnerProduct"
  bottom: "ip1"
  top: "ip2"
  param {
    lr_mult: 1
  }
  param {
    lr_mult: 2
  }
  inner_product_param {
    num_output: 20
    weight_filler {
      type: "gaussian"
      std: 0.01
    }
    bias_filler {
      type: "constant"
    }
  }
}
layer {
  name: "relu2"
  type: "ReLU"
  bottom: "ip2"
  top: "ip2"
}
layer {
  name: "ip3"
  type: "InnerProduct"
  bottom: "ip2"
  top: "ip3"
  param {
    lr_mult: 1
  }
  param {
    lr_mult: 2
  }
  inner_product_param {
    num_output: 10
    weight_filler {
      type: "gaussian"
      std: 0.01
    }
    bias_filler {
      type: "constant"
    }
  }
}
layer {
  name: "relu3"
  type: "ReLU"
  bottom: "ip3"
  top: "ip3"
}
layer {
  name: "ip4"
  type: "InnerProduct"
  bottom: "ip3"
  top: "ip4"
  param {
    lr_mult: 1
  }
  param {
    lr_mult: 2
  }
  inner_product_param {
    num_output: 10
    weight_filler {
      type: "gaussian"
      std: 0.01
    }
    bias_filler {
      type: "constant"
    }
  }
}
layer {
  name: "accuracy"
  type: "Accuracy"
  bottom: "ip4"
  bottom: "label"
  top: "accuracy"
  include {
    phase: TEST
  }
}
layer {
  name: "loss"
  type: "SoftmaxWithLoss"
  bottom: "ip4"
  bottom: "label"
  top: "loss"
}
I0501 08:03:33.596194  8889 layer_factory.hpp:77] Creating layer cifar
I0501 08:03:33.596238  8889 db_lmdb.cpp:35] Opened lmdb examples/cifar10/cifar10_test_lmdb
I0501 08:03:33.596251  8889 net.cpp:86] Creating Layer cifar
I0501 08:03:33.596256  8889 net.cpp:382] cifar -> data
I0501 08:03:33.596262  8889 net.cpp:382] cifar -> label
I0501 08:03:33.596269  8889 data_transformer.cpp:25] Loading mean file from: examples/cifar10/mean.binaryproto
I0501 08:03:33.596405  8889 data_layer.cpp:45] output data size: 1000,3,32,32
I0501 08:03:33.618042  8889 net.cpp:124] Setting up cifar
I0501 08:03:33.618085  8889 net.cpp:131] Top shape: 1000 3 32 32 (3072000)
I0501 08:03:33.618090  8889 net.cpp:131] Top shape: 1000 (1000)
I0501 08:03:33.618094  8889 net.cpp:139] Memory required for data: 12292000
I0501 08:03:33.618099  8889 layer_factory.hpp:77] Creating layer label_cifar_1_split
I0501 08:03:33.618113  8889 net.cpp:86] Creating Layer label_cifar_1_split
I0501 08:03:33.618118  8889 net.cpp:408] label_cifar_1_split <- label
I0501 08:03:33.618124  8889 net.cpp:382] label_cifar_1_split -> label_cifar_1_split_0
I0501 08:03:33.618132  8889 net.cpp:382] label_cifar_1_split -> label_cifar_1_split_1
I0501 08:03:33.618249  8889 net.cpp:124] Setting up label_cifar_1_split
I0501 08:03:33.618257  8889 net.cpp:131] Top shape: 1000 (1000)
I0501 08:03:33.618261  8889 net.cpp:131] Top shape: 1000 (1000)
I0501 08:03:33.618264  8889 net.cpp:139] Memory required for data: 12300000
I0501 08:03:33.618268  8889 layer_factory.hpp:77] Creating layer conv0
I0501 08:03:33.618280  8889 net.cpp:86] Creating Layer conv0
I0501 08:03:33.618286  8889 net.cpp:408] conv0 <- data
I0501 08:03:33.618291  8889 net.cpp:382] conv0 -> conv0
I0501 08:03:33.619889  8889 net.cpp:124] Setting up conv0
I0501 08:03:33.619918  8889 net.cpp:131] Top shape: 1000 16 34 34 (18496000)
I0501 08:03:33.619921  8889 net.cpp:139] Memory required for data: 86284000
I0501 08:03:33.619931  8889 layer_factory.hpp:77] Creating layer Sigmoid0
I0501 08:03:33.619938  8889 net.cpp:86] Creating Layer Sigmoid0
I0501 08:03:33.619942  8889 net.cpp:408] Sigmoid0 <- conv0
I0501 08:03:33.619946  8889 net.cpp:382] Sigmoid0 -> Sigmoid0
I0501 08:03:33.620129  8889 net.cpp:124] Setting up Sigmoid0
I0501 08:03:33.620138  8889 net.cpp:131] Top shape: 1000 16 34 34 (18496000)
I0501 08:03:33.620141  8889 net.cpp:139] Memory required for data: 160268000
I0501 08:03:33.620144  8889 layer_factory.hpp:77] Creating layer pool0
I0501 08:03:33.620153  8889 net.cpp:86] Creating Layer pool0
I0501 08:03:33.620157  8889 net.cpp:408] pool0 <- Sigmoid0
I0501 08:03:33.620160  8889 net.cpp:382] pool0 -> pool0
I0501 08:03:33.620406  8889 net.cpp:124] Setting up pool0
I0501 08:03:33.620414  8889 net.cpp:131] Top shape: 1000 16 17 17 (4624000)
I0501 08:03:33.620417  8889 net.cpp:139] Memory required for data: 178764000
I0501 08:03:33.620421  8889 layer_factory.hpp:77] Creating layer ip1
I0501 08:03:33.620429  8889 net.cpp:86] Creating Layer ip1
I0501 08:03:33.620432  8889 net.cpp:408] ip1 <- pool0
I0501 08:03:33.620437  8889 net.cpp:382] ip1 -> ip1
I0501 08:03:33.622846  8889 net.cpp:124] Setting up ip1
I0501 08:03:33.622856  8889 net.cpp:131] Top shape: 1000 10 (10000)
I0501 08:03:33.622874  8889 net.cpp:139] Memory required for data: 178804000
I0501 08:03:33.622897  8889 layer_factory.hpp:77] Creating layer relu1
I0501 08:03:33.622903  8889 net.cpp:86] Creating Layer relu1
I0501 08:03:33.622906  8889 net.cpp:408] relu1 <- ip1
I0501 08:03:33.622926  8889 net.cpp:369] relu1 -> ip1 (in-place)
I0501 08:03:33.623090  8889 net.cpp:124] Setting up relu1
I0501 08:03:33.623098  8889 net.cpp:131] Top shape: 1000 10 (10000)
I0501 08:03:33.623101  8889 net.cpp:139] Memory required for data: 178844000
I0501 08:03:33.623106  8889 layer_factory.hpp:77] Creating layer ip2
I0501 08:03:33.623111  8889 net.cpp:86] Creating Layer ip2
I0501 08:03:33.623116  8889 net.cpp:408] ip2 <- ip1
I0501 08:03:33.623121  8889 net.cpp:382] ip2 -> ip2
I0501 08:03:33.623242  8889 net.cpp:124] Setting up ip2
I0501 08:03:33.623250  8889 net.cpp:131] Top shape: 1000 20 (20000)
I0501 08:03:33.623253  8889 net.cpp:139] Memory required for data: 178924000
I0501 08:03:33.623260  8889 layer_factory.hpp:77] Creating layer relu2
I0501 08:03:33.623266  8889 net.cpp:86] Creating Layer relu2
I0501 08:03:33.623280  8889 net.cpp:408] relu2 <- ip2
I0501 08:03:33.623288  8889 net.cpp:369] relu2 -> ip2 (in-place)
I0501 08:03:33.624105  8889 net.cpp:124] Setting up relu2
I0501 08:03:33.624119  8889 net.cpp:131] Top shape: 1000 20 (20000)
I0501 08:03:33.624136  8889 net.cpp:139] Memory required for data: 179004000
I0501 08:03:33.624140  8889 layer_factory.hpp:77] Creating layer ip3
I0501 08:03:33.624150  8889 net.cpp:86] Creating Layer ip3
I0501 08:03:33.624152  8889 net.cpp:408] ip3 <- ip2
I0501 08:03:33.624158  8889 net.cpp:382] ip3 -> ip3
I0501 08:03:33.624302  8889 net.cpp:124] Setting up ip3
I0501 08:03:33.624310  8889 net.cpp:131] Top shape: 1000 10 (10000)
I0501 08:03:33.624313  8889 net.cpp:139] Memory required for data: 179044000
I0501 08:03:33.624320  8889 layer_factory.hpp:77] Creating layer relu3
I0501 08:03:33.624325  8889 net.cpp:86] Creating Layer relu3
I0501 08:03:33.624327  8889 net.cpp:408] relu3 <- ip3
I0501 08:03:33.624331  8889 net.cpp:369] relu3 -> ip3 (in-place)
I0501 08:03:33.624493  8889 net.cpp:124] Setting up relu3
I0501 08:03:33.624502  8889 net.cpp:131] Top shape: 1000 10 (10000)
I0501 08:03:33.624505  8889 net.cpp:139] Memory required for data: 179084000
I0501 08:03:33.624508  8889 layer_factory.hpp:77] Creating layer ip4
I0501 08:03:33.624514  8889 net.cpp:86] Creating Layer ip4
I0501 08:03:33.624517  8889 net.cpp:408] ip4 <- ip3
I0501 08:03:33.624522  8889 net.cpp:382] ip4 -> ip4
I0501 08:03:33.624624  8889 net.cpp:124] Setting up ip4
I0501 08:03:33.624630  8889 net.cpp:131] Top shape: 1000 10 (10000)
I0501 08:03:33.624634  8889 net.cpp:139] Memory required for data: 179124000
I0501 08:03:33.624641  8889 layer_factory.hpp:77] Creating layer ip4_ip4_0_split
I0501 08:03:33.624646  8889 net.cpp:86] Creating Layer ip4_ip4_0_split
I0501 08:03:33.624650  8889 net.cpp:408] ip4_ip4_0_split <- ip4
I0501 08:03:33.624655  8889 net.cpp:382] ip4_ip4_0_split -> ip4_ip4_0_split_0
I0501 08:03:33.624660  8889 net.cpp:382] ip4_ip4_0_split -> ip4_ip4_0_split_1
I0501 08:03:33.624688  8889 net.cpp:124] Setting up ip4_ip4_0_split
I0501 08:03:33.624692  8889 net.cpp:131] Top shape: 1000 10 (10000)
I0501 08:03:33.624696  8889 net.cpp:131] Top shape: 1000 10 (10000)
I0501 08:03:33.624699  8889 net.cpp:139] Memory required for data: 179204000
I0501 08:03:33.624702  8889 layer_factory.hpp:77] Creating layer accuracy
I0501 08:03:33.624707  8889 net.cpp:86] Creating Layer accuracy
I0501 08:03:33.624711  8889 net.cpp:408] accuracy <- ip4_ip4_0_split_0
I0501 08:03:33.624716  8889 net.cpp:408] accuracy <- label_cifar_1_split_0
I0501 08:03:33.624719  8889 net.cpp:382] accuracy -> accuracy
…
