…
I0430 16:59:10.000748 18639 net.cpp:296] The NetState phase (0) differed from the phase (1) specified by a rule in layer cifar
I0430 16:59:10.000761 18639 net.cpp:296] The NetState phase (0) differed from the phase (1) specified by a rule in layer accuracy
I0430 16:59:10.000839 18639 net.cpp:53] Initializing net from parameters: 
name: "CIFAR"
state {
  phase: TRAIN
  level: 0
  stage: ""
}
layer {
  name: "cifar"
  type: "Data"
  top: "data"
  top: "label"
  include {
    phase: TRAIN
  }
  transform_param {
    mean_file: "examples/cifar10/mean.binaryproto"
  }
  data_param {
    source: "examples/cifar10/cifar10_train_lmdb"
    batch_size: 111
    backend: LMDB
  }
}
layer {
  name: "ip1"
  type: "InnerProduct"
  bottom: "data"
  top: "ip1"
  param {
    lr_mult: 1
  }
  param {
    lr_mult: 2
  }
  inner_product_param {
    num_output: 80
    weight_filler {
      type: "gaussian"
      std: 0.01
    }
    bias_filler {
      type: "constant"
    }
  }
}
layer {
  name: "relu1"
  type: "ReLU"
  bottom: "ip1"
  top: "ip1"
}
layer {
  name: "ip2"
  type: "InnerProduct"
  bottom: "ip1"
  top: "ip2"
  param {
    lr_mult: 1
  }
  param {
    lr_mult: 2
  }
  inner_product_param {
    num_output: 10
    weight_filler {
      type: "gaussian"
      std: 0.01
    }
    bias_filler {
      type: "constant"
    }
  }
}
layer {
  name: "relu2"
  type: "ReLU"
  bottom: "ip2"
  top: "ip2"
}
layer {
  name: "ip3"
  type: "InnerProduct"
  bottom: "ip2"
  top: "ip3"
  param {
    lr_mult: 1
  }
  param {
    lr_mult: 2
  }
  inner_product_param {
    num_output: 10
    weight_filler {
      type: "gaussian"
      std: 0.01
    }
    bias_filler {
      type: "constant"
    }
  }
}
layer {
  name: "loss"
  type: "SoftmaxWithLoss"
  bottom: "ip3"
  bottom: "label"
  top: "loss"
}
I0430 16:59:10.000892 18639 layer_factory.hpp:77] Creating layer cifar
I0430 16:59:10.000973 18639 db_lmdb.cpp:35] Opened lmdb examples/cifar10/cifar10_train_lmdb
I0430 16:59:10.000998 18639 net.cpp:86] Creating Layer cifar
I0430 16:59:10.001004 18639 net.cpp:382] cifar -> data
I0430 16:59:10.001022 18639 net.cpp:382] cifar -> label
I0430 16:59:10.001032 18639 data_transformer.cpp:25] Loading mean file from: examples/cifar10/mean.binaryproto
I0430 16:59:10.002769 18639 data_layer.cpp:45] output data size: 111,3,32,32
I0430 16:59:10.009126 18639 net.cpp:124] Setting up cifar
I0430 16:59:10.009155 18639 net.cpp:131] Top shape: 111 3 32 32 (340992)
I0430 16:59:10.009160 18639 net.cpp:131] Top shape: 111 (111)
I0430 16:59:10.009163 18639 net.cpp:139] Memory required for data: 1364412
I0430 16:59:10.009168 18639 layer_factory.hpp:77] Creating layer ip1
I0430 16:59:10.009196 18639 net.cpp:86] Creating Layer ip1
I0430 16:59:10.009201 18639 net.cpp:408] ip1 <- data
I0430 16:59:10.009209 18639 net.cpp:382] ip1 -> ip1
I0430 16:59:10.016962 18639 net.cpp:124] Setting up ip1
I0430 16:59:10.016974 18639 net.cpp:131] Top shape: 111 80 (8880)
I0430 16:59:10.016978 18639 net.cpp:139] Memory required for data: 1399932
I0430 16:59:10.016989 18639 layer_factory.hpp:77] Creating layer relu1
I0430 16:59:10.016997 18639 net.cpp:86] Creating Layer relu1
I0430 16:59:10.017015 18639 net.cpp:408] relu1 <- ip1
I0430 16:59:10.017020 18639 net.cpp:369] relu1 -> ip1 (in-place)
I0430 16:59:10.245337 18639 net.cpp:124] Setting up relu1
I0430 16:59:10.245362 18639 net.cpp:131] Top shape: 111 80 (8880)
I0430 16:59:10.245367 18639 net.cpp:139] Memory required for data: 1435452
I0430 16:59:10.245389 18639 layer_factory.hpp:77] Creating layer ip2
I0430 16:59:10.245419 18639 net.cpp:86] Creating Layer ip2
I0430 16:59:10.245422 18639 net.cpp:408] ip2 <- ip1
I0430 16:59:10.245429 18639 net.cpp:382] ip2 -> ip2
I0430 16:59:10.246433 18639 net.cpp:124] Setting up ip2
I0430 16:59:10.246444 18639 net.cpp:131] Top shape: 111 10 (1110)
I0430 16:59:10.246448 18639 net.cpp:139] Memory required for data: 1439892
I0430 16:59:10.246456 18639 layer_factory.hpp:77] Creating layer relu2
I0430 16:59:10.246464 18639 net.cpp:86] Creating Layer relu2
I0430 16:59:10.246466 18639 net.cpp:408] relu2 <- ip2
I0430 16:59:10.246486 18639 net.cpp:369] relu2 -> ip2 (in-place)
I0430 16:59:10.247197 18639 net.cpp:124] Setting up relu2
I0430 16:59:10.247208 18639 net.cpp:131] Top shape: 111 10 (1110)
I0430 16:59:10.247211 18639 net.cpp:139] Memory required for data: 1444332
I0430 16:59:10.247215 18639 layer_factory.hpp:77] Creating layer ip3
I0430 16:59:10.247221 18639 net.cpp:86] Creating Layer ip3
I0430 16:59:10.247225 18639 net.cpp:408] ip3 <- ip2
I0430 16:59:10.247229 18639 net.cpp:382] ip3 -> ip3
I0430 16:59:10.247334 18639 net.cpp:124] Setting up ip3
I0430 16:59:10.247341 18639 net.cpp:131] Top shape: 111 10 (1110)
I0430 16:59:10.247344 18639 net.cpp:139] Memory required for data: 1448772
I0430 16:59:10.247351 18639 layer_factory.hpp:77] Creating layer loss
I0430 16:59:10.247357 18639 net.cpp:86] Creating Layer loss
I0430 16:59:10.247360 18639 net.cpp:408] loss <- ip3
I0430 16:59:10.247364 18639 net.cpp:408] loss <- label
I0430 16:59:10.247369 18639 net.cpp:382] loss -> loss
I0430 16:59:10.247385 18639 layer_factory.hpp:77] Creating layer loss
…
I0430 16:59:10.247864 18639 solver.cpp:173] Creating test net (#0) specified by net file: ECE595/cifar/train_test/var_everything/cifar_train_test_20.prototxt
I0430 16:59:10.247885 18639 net.cpp:296] The NetState phase (1) differed from the phase (0) specified by a rule in layer cifar
I0430 16:59:10.247951 18639 net.cpp:53] Initializing net from parameters: 
name: "CIFAR"
state {
  phase: TEST
}
layer {
  name: "cifar"
  type: "Data"
  top: "data"
  top: "label"
  include {
    phase: TEST
  }
  transform_param {
    mean_file: "examples/cifar10/mean.binaryproto"
  }
  data_param {
    source: "examples/cifar10/cifar10_test_lmdb"
    batch_size: 1000
    backend: LMDB
  }
}
layer {
  name: "ip1"
  type: "InnerProduct"
  bottom: "data"
  top: "ip1"
  param {
    lr_mult: 1
  }
  param {
    lr_mult: 2
  }
  inner_product_param {
    num_output: 80
    weight_filler {
      type: "gaussian"
      std: 0.01
    }
    bias_filler {
      type: "constant"
    }
  }
}
layer {
  name: "relu1"
  type: "ReLU"
  bottom: "ip1"
  top: "ip1"
}
layer {
  name: "ip2"
  type: "InnerProduct"
  bottom: "ip1"
  top: "ip2"
  param {
    lr_mult: 1
  }
  param {
    lr_mult: 2
  }
  inner_product_param {
    num_output: 10
    weight_filler {
      type: "gaussian"
      std: 0.01
    }
    bias_filler {
      type: "constant"
    }
  }
}
layer {
  name: "relu2"
  type: "ReLU"
  bottom: "ip2"
  top: "ip2"
}
layer {
  name: "ip3"
  type: "InnerProduct"
  bottom: "ip2"
  top: "ip3"
  param {
    lr_mult: 1
  }
  param {
    lr_mult: 2
  }
  inner_product_param {
    num_output: 10
    weight_filler {
      type: "gaussian"
      std: 0.01
    }
    bias_filler {
      type: "constant"
    }
  }
}
layer {
  name: "accuracy"
  type: "Accuracy"
  bottom: "ip3"
  bottom: "label"
  top: "accuracy"
  include {
    phase: TEST
  }
}
layer {
  name: "loss"
  type: "SoftmaxWithLoss"
  bottom: "ip3"
  bottom: "label"
  top: "loss"
}
I0430 16:59:10.248013 18639 layer_factory.hpp:77] Creating layer cifar
I0430 16:59:10.248054 18639 db_lmdb.cpp:35] Opened lmdb examples/cifar10/cifar10_test_lmdb
I0430 16:59:10.248066 18639 net.cpp:86] Creating Layer cifar
I0430 16:59:10.248070 18639 net.cpp:382] cifar -> data
I0430 16:59:10.248077 18639 net.cpp:382] cifar -> label
I0430 16:59:10.248083 18639 data_transformer.cpp:25] Loading mean file from: examples/cifar10/mean.binaryproto
I0430 16:59:10.248215 18639 data_layer.cpp:45] output data size: 1000,3,32,32
I0430 16:59:10.269577 18639 net.cpp:124] Setting up cifar
I0430 16:59:10.269618 18639 net.cpp:131] Top shape: 1000 3 32 32 (3072000)
I0430 16:59:10.269623 18639 net.cpp:131] Top shape: 1000 (1000)
I0430 16:59:10.269626 18639 net.cpp:139] Memory required for data: 12292000
I0430 16:59:10.269631 18639 layer_factory.hpp:77] Creating layer label_cifar_1_split
I0430 16:59:10.269649 18639 net.cpp:86] Creating Layer label_cifar_1_split
I0430 16:59:10.269654 18639 net.cpp:408] label_cifar_1_split <- label
I0430 16:59:10.269660 18639 net.cpp:382] label_cifar_1_split -> label_cifar_1_split_0
I0430 16:59:10.269668 18639 net.cpp:382] label_cifar_1_split -> label_cifar_1_split_1
I0430 16:59:10.269778 18639 net.cpp:124] Setting up label_cifar_1_split
I0430 16:59:10.269784 18639 net.cpp:131] Top shape: 1000 (1000)
I0430 16:59:10.269788 18639 net.cpp:131] Top shape: 1000 (1000)
I0430 16:59:10.269790 18639 net.cpp:139] Memory required for data: 12300000
I0430 16:59:10.269793 18639 layer_factory.hpp:77] Creating layer ip1
I0430 16:59:10.269803 18639 net.cpp:86] Creating Layer ip1
I0430 16:59:10.269809 18639 net.cpp:408] ip1 <- data
I0430 16:59:10.269827 18639 net.cpp:382] ip1 -> ip1
I0430 16:59:10.276299 18639 net.cpp:124] Setting up ip1
I0430 16:59:10.276309 18639 net.cpp:131] Top shape: 1000 80 (80000)
I0430 16:59:10.276329 18639 net.cpp:139] Memory required for data: 12620000
I0430 16:59:10.276338 18639 layer_factory.hpp:77] Creating layer relu1
I0430 16:59:10.276343 18639 net.cpp:86] Creating Layer relu1
I0430 16:59:10.276347 18639 net.cpp:408] relu1 <- ip1
I0430 16:59:10.276351 18639 net.cpp:369] relu1 -> ip1 (in-place)
I0430 16:59:10.276540 18639 net.cpp:124] Setting up relu1
I0430 16:59:10.276548 18639 net.cpp:131] Top shape: 1000 80 (80000)
I0430 16:59:10.276552 18639 net.cpp:139] Memory required for data: 12940000
I0430 16:59:10.276556 18639 layer_factory.hpp:77] Creating layer ip2
I0430 16:59:10.276562 18639 net.cpp:86] Creating Layer ip2
I0430 16:59:10.276566 18639 net.cpp:408] ip2 <- ip1
I0430 16:59:10.276571 18639 net.cpp:382] ip2 -> ip2
I0430 16:59:10.276686 18639 net.cpp:124] Setting up ip2
I0430 16:59:10.276695 18639 net.cpp:131] Top shape: 1000 10 (10000)
I0430 16:59:10.276697 18639 net.cpp:139] Memory required for data: 12980000
I0430 16:59:10.276703 18639 layer_factory.hpp:77] Creating layer relu2
I0430 16:59:10.276708 18639 net.cpp:86] Creating Layer relu2
I0430 16:59:10.276711 18639 net.cpp:408] relu2 <- ip2
I0430 16:59:10.276715 18639 net.cpp:369] relu2 -> ip2 (in-place)
I0430 16:59:10.277490 18639 net.cpp:124] Setting up relu2
I0430 16:59:10.277503 18639 net.cpp:131] Top shape: 1000 10 (10000)
I0430 16:59:10.277523 18639 net.cpp:139] Memory required for data: 13020000
I0430 16:59:10.277526 18639 layer_factory.hpp:77] Creating layer ip3
I0430 16:59:10.277534 18639 net.cpp:86] Creating Layer ip3
I0430 16:59:10.277537 18639 net.cpp:408] ip3 <- ip2
I0430 16:59:10.277542 18639 net.cpp:382] ip3 -> ip3
I0430 16:59:10.277658 18639 net.cpp:124] Setting up ip3
I0430 16:59:10.277665 18639 net.cpp:131] Top shape: 1000 10 (10000)
I0430 16:59:10.277668 18639 net.cpp:139] Memory required for data: 13060000
I0430 16:59:10.277689 18639 layer_factory.hpp:77] Creating layer ip3_ip3_0_split
I0430 16:59:10.277695 18639 net.cpp:86] Creating Layer ip3_ip3_0_split
I0430 16:59:10.277698 18639 net.cpp:408] ip3_ip3_0_split <- ip3
I0430 16:59:10.277704 18639 net.cpp:382] ip3_ip3_0_split -> ip3_ip3_0_split_0
I0430 16:59:10.277709 18639 net.cpp:382] ip3_ip3_0_split -> ip3_ip3_0_split_1
I0430 16:59:10.277740 18639 net.cpp:124] Setting up ip3_ip3_0_split
I0430 16:59:10.277745 18639 net.cpp:131] Top shape: 1000 10 (10000)
I0430 16:59:10.277748 18639 net.cpp:131] Top shape: 1000 10 (10000)
I0430 16:59:10.277751 18639 net.cpp:139] Memory required for data: 13140000
I0430 16:59:10.277753 18639 layer_factory.hpp:77] Creating layer accuracy
I0430 16:59:10.277760 18639 net.cpp:86] Creating Layer accuracy
I0430 16:59:10.277763 18639 net.cpp:408] accuracy <- ip3_ip3_0_split_0
I0430 16:59:10.277767 18639 net.cpp:408] accuracy <- label_cifar_1_split_0
I0430 16:59:10.277771 18639 net.cpp:382] accuracy -> accuracy
…
