…
I0430 18:14:51.768889 22693 net.cpp:296] The NetState phase (0) differed from the phase (1) specified by a rule in layer cifar
I0430 18:14:51.768906 22693 net.cpp:296] The NetState phase (0) differed from the phase (1) specified by a rule in layer accuracy
I0430 18:14:51.768995 22693 net.cpp:53] Initializing net from parameters: 
name: "CIFAR"
state {
  phase: TRAIN
  level: 0
  stage: ""
}
layer {
  name: "cifar"
  type: "Data"
  top: "data"
  top: "label"
  include {
    phase: TRAIN
  }
  transform_param {
    mean_file: "examples/cifar10/mean.binaryproto"
  }
  data_param {
    source: "examples/cifar10/cifar10_train_lmdb"
    batch_size: 111
    backend: LMDB
  }
}
layer {
  name: "ip1"
  type: "InnerProduct"
  bottom: "data"
  top: "ip1"
  param {
    lr_mult: 1
  }
  param {
    lr_mult: 2
  }
  inner_product_param {
    num_output: 20
    weight_filler {
      type: "gaussian"
      std: 0.01
    }
    bias_filler {
      type: "constant"
    }
  }
}
layer {
  name: "relu1"
  type: "ReLU"
  bottom: "ip1"
  top: "ip1"
}
layer {
  name: "ip2"
  type: "InnerProduct"
  bottom: "ip1"
  top: "ip2"
  param {
    lr_mult: 1
  }
  param {
    lr_mult: 2
  }
  inner_product_param {
    num_output: 20
    weight_filler {
      type: "gaussian"
      std: 0.01
    }
    bias_filler {
      type: "constant"
    }
  }
}
layer {
  name: "relu2"
  type: "ReLU"
  bottom: "ip2"
  top: "ip2"
}
layer {
  name: "ip3"
  type: "InnerProduct"
  bottom: "ip2"
  top: "ip3"
  param {
    lr_mult: 1
  }
  param {
    lr_mult: 2
  }
  inner_product_param {
    num_output: 10
    weight_filler {
      type: "gaussian"
      std: 0.01
    }
    bias_filler {
      type: "constant"
    }
  }
}
layer {
  name: "relu3"
  type: "ReLU"
  bottom: "ip3"
  top: "ip3"
}
layer {
  name: "ip4"
  type: "InnerProduct"
  bottom: "ip3"
  top: "ip4"
  param {
    lr_mult: 1
  }
  param {
    lr_mult: 2
  }
  inner_product_param {
    num_output: 10
    weight_filler {
      type: "gaussian"
      std: 0.01
    }
    bias_filler {
      type: "constant"
    }
  }
}
layer {
  name: "loss"
  type: "SoftmaxWithLoss"
  bottom: "ip4"
  bottom: "label"
  top: "loss"
}
I0430 18:14:51.769064 22693 layer_factory.hpp:77] Creating layer cifar
I0430 18:14:51.769165 22693 db_lmdb.cpp:35] Opened lmdb examples/cifar10/cifar10_train_lmdb
I0430 18:14:51.769193 22693 net.cpp:86] Creating Layer cifar
I0430 18:14:51.769201 22693 net.cpp:382] cifar -> data
I0430 18:14:51.769224 22693 net.cpp:382] cifar -> label
I0430 18:14:51.769237 22693 data_transformer.cpp:25] Loading mean file from: examples/cifar10/mean.binaryproto
I0430 18:14:51.771365 22693 data_layer.cpp:45] output data size: 111,3,32,32
I0430 18:14:51.779220 22693 net.cpp:124] Setting up cifar
I0430 18:14:51.779240 22693 net.cpp:131] Top shape: 111 3 32 32 (340992)
I0430 18:14:51.779247 22693 net.cpp:131] Top shape: 111 (111)
I0430 18:14:51.779250 22693 net.cpp:139] Memory required for data: 1364412
I0430 18:14:51.779258 22693 layer_factory.hpp:77] Creating layer ip1
I0430 18:14:51.779269 22693 net.cpp:86] Creating Layer ip1
I0430 18:14:51.779275 22693 net.cpp:408] ip1 <- data
I0430 18:14:51.779289 22693 net.cpp:382] ip1 -> ip1
I0430 18:14:51.782449 22693 net.cpp:124] Setting up ip1
I0430 18:14:51.782470 22693 net.cpp:131] Top shape: 111 20 (2220)
I0430 18:14:51.782476 22693 net.cpp:139] Memory required for data: 1373292
I0430 18:14:51.782490 22693 layer_factory.hpp:77] Creating layer relu1
I0430 18:14:51.782500 22693 net.cpp:86] Creating Layer relu1
I0430 18:14:51.782526 22693 net.cpp:408] relu1 <- ip1
I0430 18:14:51.782532 22693 net.cpp:369] relu1 -> ip1 (in-place)
I0430 18:14:52.057060 22693 net.cpp:124] Setting up relu1
I0430 18:14:52.057090 22693 net.cpp:131] Top shape: 111 20 (2220)
I0430 18:14:52.057093 22693 net.cpp:139] Memory required for data: 1382172
I0430 18:14:52.057098 22693 layer_factory.hpp:77] Creating layer ip2
I0430 18:14:52.057111 22693 net.cpp:86] Creating Layer ip2
I0430 18:14:52.057116 22693 net.cpp:408] ip2 <- ip1
I0430 18:14:52.057122 22693 net.cpp:382] ip2 -> ip2
I0430 18:14:52.058148 22693 net.cpp:124] Setting up ip2
I0430 18:14:52.058161 22693 net.cpp:131] Top shape: 111 20 (2220)
I0430 18:14:52.058164 22693 net.cpp:139] Memory required for data: 1391052
I0430 18:14:52.058173 22693 layer_factory.hpp:77] Creating layer relu2
I0430 18:14:52.058182 22693 net.cpp:86] Creating Layer relu2
I0430 18:14:52.058184 22693 net.cpp:408] relu2 <- ip2
I0430 18:14:52.058188 22693 net.cpp:369] relu2 -> ip2 (in-place)
I0430 18:14:52.058938 22693 net.cpp:124] Setting up relu2
I0430 18:14:52.058948 22693 net.cpp:131] Top shape: 111 20 (2220)
I0430 18:14:52.058953 22693 net.cpp:139] Memory required for data: 1399932
I0430 18:14:52.058955 22693 layer_factory.hpp:77] Creating layer ip3
I0430 18:14:52.058962 22693 net.cpp:86] Creating Layer ip3
I0430 18:14:52.058965 22693 net.cpp:408] ip3 <- ip2
I0430 18:14:52.058970 22693 net.cpp:382] ip3 -> ip3
I0430 18:14:52.059063 22693 net.cpp:124] Setting up ip3
I0430 18:14:52.059070 22693 net.cpp:131] Top shape: 111 10 (1110)
I0430 18:14:52.059073 22693 net.cpp:139] Memory required for data: 1404372
I0430 18:14:52.059080 22693 layer_factory.hpp:77] Creating layer relu3
I0430 18:14:52.059085 22693 net.cpp:86] Creating Layer relu3
I0430 18:14:52.059088 22693 net.cpp:408] relu3 <- ip3
I0430 18:14:52.059092 22693 net.cpp:369] relu3 -> ip3 (in-place)
I0430 18:14:52.059226 22693 net.cpp:124] Setting up relu3
I0430 18:14:52.059232 22693 net.cpp:131] Top shape: 111 10 (1110)
I0430 18:14:52.059236 22693 net.cpp:139] Memory required for data: 1408812
I0430 18:14:52.059238 22693 layer_factory.hpp:77] Creating layer ip4
I0430 18:14:52.059244 22693 net.cpp:86] Creating Layer ip4
I0430 18:14:52.059248 22693 net.cpp:408] ip4 <- ip3
I0430 18:14:52.059252 22693 net.cpp:382] ip4 -> ip4
I0430 18:14:52.059336 22693 net.cpp:124] Setting up ip4
I0430 18:14:52.059343 22693 net.cpp:131] Top shape: 111 10 (1110)
I0430 18:14:52.059345 22693 net.cpp:139] Memory required for data: 1413252
I0430 18:14:52.059350 22693 layer_factory.hpp:77] Creating layer loss
I0430 18:14:52.059356 22693 net.cpp:86] Creating Layer loss
I0430 18:14:52.059360 22693 net.cpp:408] loss <- ip4
I0430 18:14:52.059363 22693 net.cpp:408] loss <- label
I0430 18:14:52.059368 22693 net.cpp:382] loss -> loss
I0430 18:14:52.059386 22693 layer_factory.hpp:77] Creating layer loss
…
I0430 18:14:52.059936 22693 solver.cpp:173] Creating test net (#0) specified by net file: ECE595/cifar/train_test/var_everything/cifar_train_test_60.prototxt
I0430 18:14:52.059973 22693 net.cpp:296] The NetState phase (1) differed from the phase (0) specified by a rule in layer cifar
I0430 18:14:52.060045 22693 net.cpp:53] Initializing net from parameters: 
name: "CIFAR"
state {
  phase: TEST
}
layer {
  name: "cifar"
  type: "Data"
  top: "data"
  top: "label"
  include {
    phase: TEST
  }
  transform_param {
    mean_file: "examples/cifar10/mean.binaryproto"
  }
  data_param {
    source: "examples/cifar10/cifar10_test_lmdb"
    batch_size: 1000
    backend: LMDB
  }
}
layer {
  name: "ip1"
  type: "InnerProduct"
  bottom: "data"
  top: "ip1"
  param {
    lr_mult: 1
  }
  param {
    lr_mult: 2
  }
  inner_product_param {
    num_output: 20
    weight_filler {
      type: "gaussian"
      std: 0.01
    }
    bias_filler {
      type: "constant"
    }
  }
}
layer {
  name: "relu1"
  type: "ReLU"
  bottom: "ip1"
  top: "ip1"
}
layer {
  name: "ip2"
  type: "InnerProduct"
  bottom: "ip1"
  top: "ip2"
  param {
    lr_mult: 1
  }
  param {
    lr_mult: 2
  }
  inner_product_param {
    num_output: 20
    weight_filler {
      type: "gaussian"
      std: 0.01
    }
    bias_filler {
      type: "constant"
    }
  }
}
layer {
  name: "relu2"
  type: "ReLU"
  bottom: "ip2"
  top: "ip2"
}
layer {
  name: "ip3"
  type: "InnerProduct"
  bottom: "ip2"
  top: "ip3"
  param {
    lr_mult: 1
  }
  param {
    lr_mult: 2
  }
  inner_product_param {
    num_output: 10
    weight_filler {
      type: "gaussian"
      std: 0.01
    }
    bias_filler {
      type: "constant"
    }
  }
}
layer {
  name: "relu3"
  type: "ReLU"
  bottom: "ip3"
  top: "ip3"
}
layer {
  name: "ip4"
  type: "InnerProduct"
  bottom: "ip3"
  top: "ip4"
  param {
    lr_mult: 1
  }
  param {
    lr_mult: 2
  }
  inner_product_param {
    num_output: 10
    weight_filler {
      type: "gaussian"
      std: 0.01
    }
    bias_filler {
      type: "constant"
    }
  }
}
layer {
  name: "accuracy"
  type: "Accuracy"
  bottom: "ip4"
  bottom: "label"
  top: "accuracy"
  include {
    phase: TEST
  }
}
layer {
  name: "loss"
  type: "SoftmaxWithLoss"
  bottom: "ip4"
  bottom: "label"
  top: "loss"
}
I0430 18:14:52.060099 22693 layer_factory.hpp:77] Creating layer cifar
I0430 18:14:52.060143 22693 db_lmdb.cpp:35] Opened lmdb examples/cifar10/cifar10_test_lmdb
I0430 18:14:52.060155 22693 net.cpp:86] Creating Layer cifar
I0430 18:14:52.060159 22693 net.cpp:382] cifar -> data
I0430 18:14:52.060168 22693 net.cpp:382] cifar -> label
I0430 18:14:52.060173 22693 data_transformer.cpp:25] Loading mean file from: examples/cifar10/mean.binaryproto
I0430 18:14:52.060307 22693 data_layer.cpp:45] output data size: 1000,3,32,32
I0430 18:14:52.081825 22693 net.cpp:124] Setting up cifar
I0430 18:14:52.081866 22693 net.cpp:131] Top shape: 1000 3 32 32 (3072000)
I0430 18:14:52.081873 22693 net.cpp:131] Top shape: 1000 (1000)
I0430 18:14:52.081876 22693 net.cpp:139] Memory required for data: 12292000
I0430 18:14:52.081884 22693 layer_factory.hpp:77] Creating layer label_cifar_1_split
I0430 18:14:52.081900 22693 net.cpp:86] Creating Layer label_cifar_1_split
I0430 18:14:52.081904 22693 net.cpp:408] label_cifar_1_split <- label
I0430 18:14:52.081926 22693 net.cpp:382] label_cifar_1_split -> label_cifar_1_split_0
I0430 18:14:52.081934 22693 net.cpp:382] label_cifar_1_split -> label_cifar_1_split_1
I0430 18:14:52.082015 22693 net.cpp:124] Setting up label_cifar_1_split
I0430 18:14:52.082022 22693 net.cpp:131] Top shape: 1000 (1000)
I0430 18:14:52.082026 22693 net.cpp:131] Top shape: 1000 (1000)
I0430 18:14:52.082029 22693 net.cpp:139] Memory required for data: 12300000
I0430 18:14:52.082032 22693 layer_factory.hpp:77] Creating layer ip1
I0430 18:14:52.082041 22693 net.cpp:86] Creating Layer ip1
I0430 18:14:52.082044 22693 net.cpp:408] ip1 <- data
I0430 18:14:52.082049 22693 net.cpp:382] ip1 -> ip1
I0430 18:14:52.084597 22693 net.cpp:124] Setting up ip1
I0430 18:14:52.084605 22693 net.cpp:131] Top shape: 1000 20 (20000)
I0430 18:14:52.084625 22693 net.cpp:139] Memory required for data: 12380000
I0430 18:14:52.084662 22693 layer_factory.hpp:77] Creating layer relu1
I0430 18:14:52.084669 22693 net.cpp:86] Creating Layer relu1
I0430 18:14:52.084688 22693 net.cpp:408] relu1 <- ip1
I0430 18:14:52.084693 22693 net.cpp:369] relu1 -> ip1 (in-place)
I0430 18:14:52.085515 22693 net.cpp:124] Setting up relu1
I0430 18:14:52.085542 22693 net.cpp:131] Top shape: 1000 20 (20000)
I0430 18:14:52.085546 22693 net.cpp:139] Memory required for data: 12460000
I0430 18:14:52.085549 22693 layer_factory.hpp:77] Creating layer ip2
I0430 18:14:52.085557 22693 net.cpp:86] Creating Layer ip2
I0430 18:14:52.085561 22693 net.cpp:408] ip2 <- ip1
I0430 18:14:52.085566 22693 net.cpp:382] ip2 -> ip2
I0430 18:14:52.085690 22693 net.cpp:124] Setting up ip2
I0430 18:14:52.085697 22693 net.cpp:131] Top shape: 1000 20 (20000)
I0430 18:14:52.085700 22693 net.cpp:139] Memory required for data: 12540000
I0430 18:14:52.085707 22693 layer_factory.hpp:77] Creating layer relu2
I0430 18:14:52.085712 22693 net.cpp:86] Creating Layer relu2
I0430 18:14:52.085716 22693 net.cpp:408] relu2 <- ip2
I0430 18:14:52.085721 22693 net.cpp:369] relu2 -> ip2 (in-place)
I0430 18:14:52.085885 22693 net.cpp:124] Setting up relu2
I0430 18:14:52.085892 22693 net.cpp:131] Top shape: 1000 20 (20000)
I0430 18:14:52.085896 22693 net.cpp:139] Memory required for data: 12620000
I0430 18:14:52.085898 22693 layer_factory.hpp:77] Creating layer ip3
I0430 18:14:52.085904 22693 net.cpp:86] Creating Layer ip3
I0430 18:14:52.085907 22693 net.cpp:408] ip3 <- ip2
I0430 18:14:52.085912 22693 net.cpp:382] ip3 -> ip3
I0430 18:14:52.086019 22693 net.cpp:124] Setting up ip3
I0430 18:14:52.086025 22693 net.cpp:131] Top shape: 1000 10 (10000)
I0430 18:14:52.086028 22693 net.cpp:139] Memory required for data: 12660000
I0430 18:14:52.086035 22693 layer_factory.hpp:77] Creating layer relu3
I0430 18:14:52.086040 22693 net.cpp:86] Creating Layer relu3
I0430 18:14:52.086056 22693 net.cpp:408] relu3 <- ip3
I0430 18:14:52.086061 22693 net.cpp:369] relu3 -> ip3 (in-place)
I0430 18:14:52.086205 22693 net.cpp:124] Setting up relu3
I0430 18:14:52.086211 22693 net.cpp:131] Top shape: 1000 10 (10000)
I0430 18:14:52.086215 22693 net.cpp:139] Memory required for data: 12700000
I0430 18:14:52.086217 22693 layer_factory.hpp:77] Creating layer ip4
I0430 18:14:52.086225 22693 net.cpp:86] Creating Layer ip4
I0430 18:14:52.086227 22693 net.cpp:408] ip4 <- ip3
I0430 18:14:52.086232 22693 net.cpp:382] ip4 -> ip4
I0430 18:14:52.086326 22693 net.cpp:124] Setting up ip4
I0430 18:14:52.086333 22693 net.cpp:131] Top shape: 1000 10 (10000)
I0430 18:14:52.086336 22693 net.cpp:139] Memory required for data: 12740000
I0430 18:14:52.086343 22693 layer_factory.hpp:77] Creating layer ip4_ip4_0_split
I0430 18:14:52.086346 22693 net.cpp:86] Creating Layer ip4_ip4_0_split
I0430 18:14:52.086349 22693 net.cpp:408] ip4_ip4_0_split <- ip4
I0430 18:14:52.086354 22693 net.cpp:382] ip4_ip4_0_split -> ip4_ip4_0_split_0
I0430 18:14:52.086359 22693 net.cpp:382] ip4_ip4_0_split -> ip4_ip4_0_split_1
I0430 18:14:52.086388 22693 net.cpp:124] Setting up ip4_ip4_0_split
I0430 18:14:52.086392 22693 net.cpp:131] Top shape: 1000 10 (10000)
I0430 18:14:52.086395 22693 net.cpp:131] Top shape: 1000 10 (10000)
I0430 18:14:52.086398 22693 net.cpp:139] Memory required for data: 12820000
I0430 18:14:52.086401 22693 layer_factory.hpp:77] Creating layer accuracy
I0430 18:14:52.086407 22693 net.cpp:86] Creating Layer accuracy
I0430 18:14:52.086410 22693 net.cpp:408] accuracy <- ip4_ip4_0_split_0
I0430 18:14:52.086414 22693 net.cpp:408] accuracy <- label_cifar_1_split_0
I0430 18:14:52.086419 22693 net.cpp:382] accuracy -> accuracy
…
