…
I0501 07:57:08.994153  8190 net.cpp:296] The NetState phase (0) differed from the phase (1) specified by a rule in layer cifar
I0501 07:57:08.994169  8190 net.cpp:296] The NetState phase (0) differed from the phase (1) specified by a rule in layer accuracy
I0501 07:57:08.994254  8190 net.cpp:53] Initializing net from parameters: 
name: "CIFAR"
state {
  phase: TRAIN
  level: 0
  stage: ""
}
layer {
  name: "cifar"
  type: "Data"
  top: "data"
  top: "label"
  include {
    phase: TRAIN
  }
  transform_param {
    mean_file: "examples/cifar10/mean.binaryproto"
  }
  data_param {
    source: "examples/cifar10/cifar10_train_lmdb"
    batch_size: 111
    backend: LMDB
  }
}
layer {
  name: "conv0"
  type: "Convolution"
  bottom: "data"
  top: "conv0"
  param {
    lr_mult: 1
  }
  param {
    lr_mult: 2
  }
  convolution_param {
    num_output: 16
    pad: 2
    kernel_size: 3
    stride: 1
    weight_filler {
      type: "gaussian"
      std: 0.01
    }
    bias_filler {
      type: "constant"
    }
  }
}
layer {
  name: "Sigmoid0"
  type: "Sigmoid"
  bottom: "conv0"
  top: "Sigmoid0"
}
layer {
  name: "pool0"
  type: "Pooling"
  bottom: "Sigmoid0"
  top: "pool0"
  pooling_param {
    pool: AVE
    kernel_size: 3
    stride: 2
  }
}
layer {
  name: "ip1"
  type: "InnerProduct"
  bottom: "pool0"
  top: "ip1"
  param {
    lr_mult: 1
  }
  param {
    lr_mult: 2
  }
  inner_product_param {
    num_output: 10
    weight_filler {
      type: "gaussian"
      std: 0.01
    }
    bias_filler {
      type: "constant"
    }
  }
}
layer {
  name: "relu1"
  type: "ReLU"
  bottom: "ip1"
  top: "ip1"
}
layer {
  name: "ip2"
  type: "InnerProduct"
  bottom: "ip1"
  top: "ip2"
  param {
    lr_mult: 1
  }
  param {
    lr_mult: 2
  }
  inner_product_param {
    num_output: 10
    weight_filler {
      type: "gaussian"
      std: 0.01
    }
    bias_filler {
      type: "constant"
    }
  }
}
layer {
  name: "relu2"
  type: "ReLU"
  bottom: "ip2"
  top: "ip2"
}
layer {
  name: "ip3"
  type: "InnerProduct"
  bottom: "ip2"
  top: "ip3"
  param {
    lr_mult: 1
  }
  param {
    lr_mult: 2
  }
  inner_product_param {
    num_output: 40
    weight_filler {
      type: "gaussian"
      std: 0.01
    }
    bias_filler {
      type: "constant"
    }
  }
}
layer {
  name: "relu3"
  type: "ReLU"
  bottom: "ip3"
  top: "ip3"
}
layer {
  name: "ip4"
  type: "InnerProduct"
  bottom: "ip3"
  top: "ip4"
  param {
    lr_mult: 1
  }
  param {
    lr_mult: 2
  }
  inner_product_param {
    num_output: 10
    weight_filler {
      type: "gaussian"
      std: 0.01
    }
    bias_filler {
      type: "constant"
    }
  }
}
layer {
  name: "loss"
  type: "SoftmaxWithLoss"
  bottom: "ip4"
  bottom: "label"
  top: "loss"
}
I0501 07:57:08.994321  8190 layer_factory.hpp:77] Creating layer cifar
I0501 07:57:08.994417  8190 db_lmdb.cpp:35] Opened lmdb examples/cifar10/cifar10_train_lmdb
I0501 07:57:08.994441  8190 net.cpp:86] Creating Layer cifar
I0501 07:57:08.994448  8190 net.cpp:382] cifar -> data
I0501 07:57:08.994467  8190 net.cpp:382] cifar -> label
I0501 07:57:08.994477  8190 data_transformer.cpp:25] Loading mean file from: examples/cifar10/mean.binaryproto
I0501 07:57:08.996286  8190 data_layer.cpp:45] output data size: 111,3,32,32
I0501 07:57:09.003005  8190 net.cpp:124] Setting up cifar
I0501 07:57:09.003020  8190 net.cpp:131] Top shape: 111 3 32 32 (340992)
I0501 07:57:09.003026  8190 net.cpp:131] Top shape: 111 (111)
I0501 07:57:09.003028  8190 net.cpp:139] Memory required for data: 1364412
I0501 07:57:09.003062  8190 layer_factory.hpp:77] Creating layer conv0
I0501 07:57:09.003077  8190 net.cpp:86] Creating Layer conv0
I0501 07:57:09.003082  8190 net.cpp:408] conv0 <- data
I0501 07:57:09.003093  8190 net.cpp:382] conv0 -> conv0
I0501 07:57:09.237455  8190 net.cpp:124] Setting up conv0
I0501 07:57:09.237496  8190 net.cpp:131] Top shape: 111 16 34 34 (2053056)
I0501 07:57:09.237500  8190 net.cpp:139] Memory required for data: 9576636
I0501 07:57:09.237515  8190 layer_factory.hpp:77] Creating layer Sigmoid0
I0501 07:57:09.237526  8190 net.cpp:86] Creating Layer Sigmoid0
I0501 07:57:09.237531  8190 net.cpp:408] Sigmoid0 <- conv0
I0501 07:57:09.237536  8190 net.cpp:382] Sigmoid0 -> Sigmoid0
I0501 07:57:09.237732  8190 net.cpp:124] Setting up Sigmoid0
I0501 07:57:09.237742  8190 net.cpp:131] Top shape: 111 16 34 34 (2053056)
I0501 07:57:09.237746  8190 net.cpp:139] Memory required for data: 17788860
I0501 07:57:09.237748  8190 layer_factory.hpp:77] Creating layer pool0
I0501 07:57:09.237756  8190 net.cpp:86] Creating Layer pool0
I0501 07:57:09.237759  8190 net.cpp:408] pool0 <- Sigmoid0
I0501 07:57:09.237763  8190 net.cpp:382] pool0 -> pool0
I0501 07:57:09.238564  8190 net.cpp:124] Setting up pool0
I0501 07:57:09.238577  8190 net.cpp:131] Top shape: 111 16 17 17 (513264)
I0501 07:57:09.238596  8190 net.cpp:139] Memory required for data: 19841916
I0501 07:57:09.238600  8190 layer_factory.hpp:77] Creating layer ip1
I0501 07:57:09.238610  8190 net.cpp:86] Creating Layer ip1
I0501 07:57:09.238613  8190 net.cpp:408] ip1 <- pool0
I0501 07:57:09.238618  8190 net.cpp:382] ip1 -> ip1
I0501 07:57:09.241013  8190 net.cpp:124] Setting up ip1
I0501 07:57:09.241042  8190 net.cpp:131] Top shape: 111 10 (1110)
I0501 07:57:09.241046  8190 net.cpp:139] Memory required for data: 19846356
I0501 07:57:09.241055  8190 layer_factory.hpp:77] Creating layer relu1
I0501 07:57:09.241061  8190 net.cpp:86] Creating Layer relu1
I0501 07:57:09.241065  8190 net.cpp:408] relu1 <- ip1
I0501 07:57:09.241070  8190 net.cpp:369] relu1 -> ip1 (in-place)
I0501 07:57:09.241317  8190 net.cpp:124] Setting up relu1
I0501 07:57:09.241327  8190 net.cpp:131] Top shape: 111 10 (1110)
I0501 07:57:09.241329  8190 net.cpp:139] Memory required for data: 19850796
I0501 07:57:09.241333  8190 layer_factory.hpp:77] Creating layer ip2
I0501 07:57:09.241340  8190 net.cpp:86] Creating Layer ip2
I0501 07:57:09.241343  8190 net.cpp:408] ip2 <- ip1
I0501 07:57:09.241348  8190 net.cpp:382] ip2 -> ip2
I0501 07:57:09.241454  8190 net.cpp:124] Setting up ip2
I0501 07:57:09.241462  8190 net.cpp:131] Top shape: 111 10 (1110)
I0501 07:57:09.241466  8190 net.cpp:139] Memory required for data: 19855236
I0501 07:57:09.241473  8190 layer_factory.hpp:77] Creating layer relu2
I0501 07:57:09.241493  8190 net.cpp:86] Creating Layer relu2
I0501 07:57:09.241497  8190 net.cpp:408] relu2 <- ip2
I0501 07:57:09.241503  8190 net.cpp:369] relu2 -> ip2 (in-place)
I0501 07:57:09.241673  8190 net.cpp:124] Setting up relu2
I0501 07:57:09.241683  8190 net.cpp:131] Top shape: 111 10 (1110)
I0501 07:57:09.241685  8190 net.cpp:139] Memory required for data: 19859676
I0501 07:57:09.241688  8190 layer_factory.hpp:77] Creating layer ip3
I0501 07:57:09.241698  8190 net.cpp:86] Creating Layer ip3
I0501 07:57:09.241700  8190 net.cpp:408] ip3 <- ip2
I0501 07:57:09.241706  8190 net.cpp:382] ip3 -> ip3
I0501 07:57:09.241822  8190 net.cpp:124] Setting up ip3
I0501 07:57:09.241842  8190 net.cpp:131] Top shape: 111 40 (4440)
I0501 07:57:09.241845  8190 net.cpp:139] Memory required for data: 19877436
I0501 07:57:09.241850  8190 layer_factory.hpp:77] Creating layer relu3
I0501 07:57:09.241858  8190 net.cpp:86] Creating Layer relu3
I0501 07:57:09.241860  8190 net.cpp:408] relu3 <- ip3
I0501 07:57:09.241864  8190 net.cpp:369] relu3 -> ip3 (in-place)
I0501 07:57:09.242014  8190 net.cpp:124] Setting up relu3
I0501 07:57:09.242022  8190 net.cpp:131] Top shape: 111 40 (4440)
I0501 07:57:09.242025  8190 net.cpp:139] Memory required for data: 19895196
I0501 07:57:09.242028  8190 layer_factory.hpp:77] Creating layer ip4
I0501 07:57:09.242050  8190 net.cpp:86] Creating Layer ip4
I0501 07:57:09.242053  8190 net.cpp:408] ip4 <- ip3
I0501 07:57:09.242059  8190 net.cpp:382] ip4 -> ip4
I0501 07:57:09.242172  8190 net.cpp:124] Setting up ip4
I0501 07:57:09.242180  8190 net.cpp:131] Top shape: 111 10 (1110)
I0501 07:57:09.242183  8190 net.cpp:139] Memory required for data: 19899636
I0501 07:57:09.242192  8190 layer_factory.hpp:77] Creating layer loss
I0501 07:57:09.242197  8190 net.cpp:86] Creating Layer loss
I0501 07:57:09.242200  8190 net.cpp:408] loss <- ip4
I0501 07:57:09.242203  8190 net.cpp:408] loss <- label
I0501 07:57:09.242209  8190 net.cpp:382] loss -> loss
I0501 07:57:09.242225  8190 layer_factory.hpp:77] Creating layer loss
…
I0501 07:57:09.243525  8190 solver.cpp:173] Creating test net (#0) specified by net file: ECE595/cifar/train_test/var_everything/cifar_train_test_497.prototxt
I0501 07:57:09.243553  8190 net.cpp:296] The NetState phase (1) differed from the phase (0) specified by a rule in layer cifar
I0501 07:57:09.243666  8190 net.cpp:53] Initializing net from parameters: 
name: "CIFAR"
state {
  phase: TEST
}
layer {
  name: "cifar"
  type: "Data"
  top: "data"
  top: "label"
  include {
    phase: TEST
  }
  transform_param {
    mean_file: "examples/cifar10/mean.binaryproto"
  }
  data_param {
    source: "examples/cifar10/cifar10_test_lmdb"
    batch_size: 1000
    backend: LMDB
  }
}
layer {
  name: "conv0"
  type: "Convolution"
  bottom: "data"
  top: "conv0"
  param {
    lr_mult: 1
  }
  param {
    lr_mult: 2
  }
  convolution_param {
    num_output: 16
    pad: 2
    kernel_size: 3
    stride: 1
    weight_filler {
      type: "gaussian"
      std: 0.01
    }
    bias_filler {
      type: "constant"
    }
  }
}
layer {
  name: "Sigmoid0"
  type: "Sigmoid"
  bottom: "conv0"
  top: "Sigmoid0"
}
layer {
  name: "pool0"
  type: "Pooling"
  bottom: "Sigmoid0"
  top: "pool0"
  pooling_param {
    pool: AVE
    kernel_size: 3
    stride: 2
  }
}
layer {
  name: "ip1"
  type: "InnerProduct"
  bottom: "pool0"
  top: "ip1"
  param {
    lr_mult: 1
  }
  param {
    lr_mult: 2
  }
  inner_product_param {
    num_output: 10
    weight_filler {
      type: "gaussian"
      std: 0.01
    }
    bias_filler {
      type: "constant"
    }
  }
}
layer {
  name: "relu1"
  type: "ReLU"
  bottom: "ip1"
  top: "ip1"
}
layer {
  name: "ip2"
  type: "InnerProduct"
  bottom: "ip1"
  top: "ip2"
  param {
    lr_mult: 1
  }
  param {
    lr_mult: 2
  }
  inner_product_param {
    num_output: 10
    weight_filler {
      type: "gaussian"
      std: 0.01
    }
    bias_filler {
      type: "constant"
    }
  }
}
layer {
  name: "relu2"
  type: "ReLU"
  bottom: "ip2"
  top: "ip2"
}
layer {
  name: "ip3"
  type: "InnerProduct"
  bottom: "ip2"
  top: "ip3"
  param {
    lr_mult: 1
  }
  param {
    lr_mult: 2
  }
  inner_product_param {
    num_output: 40
    weight_filler {
      type: "gaussian"
      std: 0.01
    }
    bias_filler {
      type: "constant"
    }
  }
}
layer {
  name: "relu3"
  type: "ReLU"
  bottom: "ip3"
  top: "ip3"
}
layer {
  name: "ip4"
  type: "InnerProduct"
  bottom: "ip3"
  top: "ip4"
  param {
    lr_mult: 1
  }
  param {
    lr_mult: 2
  }
  inner_product_param {
    num_output: 10
    weight_filler {
      type: "gaussian"
      std: 0.01
    }
    bias_filler {
      type: "constant"
    }
  }
}
layer {
  name: "accuracy"
  type: "Accuracy"
  bottom: "ip4"
  bottom: "label"
  top: "accuracy"
  include {
    phase: TEST
  }
}
layer {
  name: "loss"
  type: "SoftmaxWithLoss"
  bottom: "ip4"
  bottom: "label"
  top: "loss"
}
I0501 07:57:09.243749  8190 layer_factory.hpp:77] Creating layer cifar
I0501 07:57:09.243793  8190 db_lmdb.cpp:35] Opened lmdb examples/cifar10/cifar10_test_lmdb
I0501 07:57:09.243805  8190 net.cpp:86] Creating Layer cifar
I0501 07:57:09.243811  8190 net.cpp:382] cifar -> data
I0501 07:57:09.243818  8190 net.cpp:382] cifar -> label
I0501 07:57:09.243825  8190 data_transformer.cpp:25] Loading mean file from: examples/cifar10/mean.binaryproto
I0501 07:57:09.243973  8190 data_layer.cpp:45] output data size: 1000,3,32,32
I0501 07:57:09.266198  8190 net.cpp:124] Setting up cifar
I0501 07:57:09.266227  8190 net.cpp:131] Top shape: 1000 3 32 32 (3072000)
I0501 07:57:09.266232  8190 net.cpp:131] Top shape: 1000 (1000)
I0501 07:57:09.266235  8190 net.cpp:139] Memory required for data: 12292000
I0501 07:57:09.266240  8190 layer_factory.hpp:77] Creating layer label_cifar_1_split
I0501 07:57:09.266257  8190 net.cpp:86] Creating Layer label_cifar_1_split
I0501 07:57:09.266276  8190 net.cpp:408] label_cifar_1_split <- label
I0501 07:57:09.266284  8190 net.cpp:382] label_cifar_1_split -> label_cifar_1_split_0
I0501 07:57:09.266294  8190 net.cpp:382] label_cifar_1_split -> label_cifar_1_split_1
I0501 07:57:09.266418  8190 net.cpp:124] Setting up label_cifar_1_split
I0501 07:57:09.266427  8190 net.cpp:131] Top shape: 1000 (1000)
I0501 07:57:09.266432  8190 net.cpp:131] Top shape: 1000 (1000)
I0501 07:57:09.266434  8190 net.cpp:139] Memory required for data: 12300000
I0501 07:57:09.266438  8190 layer_factory.hpp:77] Creating layer conv0
I0501 07:57:09.266449  8190 net.cpp:86] Creating Layer conv0
I0501 07:57:09.266453  8190 net.cpp:408] conv0 <- data
I0501 07:57:09.266458  8190 net.cpp:382] conv0 -> conv0
I0501 07:57:09.268069  8190 net.cpp:124] Setting up conv0
I0501 07:57:09.268081  8190 net.cpp:131] Top shape: 1000 16 34 34 (18496000)
I0501 07:57:09.268085  8190 net.cpp:139] Memory required for data: 86284000
I0501 07:57:09.268095  8190 layer_factory.hpp:77] Creating layer Sigmoid0
I0501 07:57:09.268116  8190 net.cpp:86] Creating Layer Sigmoid0
I0501 07:57:09.268121  8190 net.cpp:408] Sigmoid0 <- conv0
I0501 07:57:09.268126  8190 net.cpp:382] Sigmoid0 -> Sigmoid0
I0501 07:57:09.268328  8190 net.cpp:124] Setting up Sigmoid0
I0501 07:57:09.268337  8190 net.cpp:131] Top shape: 1000 16 34 34 (18496000)
I0501 07:57:09.268340  8190 net.cpp:139] Memory required for data: 160268000
I0501 07:57:09.268344  8190 layer_factory.hpp:77] Creating layer pool0
I0501 07:57:09.268352  8190 net.cpp:86] Creating Layer pool0
I0501 07:57:09.268355  8190 net.cpp:408] pool0 <- Sigmoid0
I0501 07:57:09.268360  8190 net.cpp:382] pool0 -> pool0
I0501 07:57:09.268630  8190 net.cpp:124] Setting up pool0
I0501 07:57:09.268640  8190 net.cpp:131] Top shape: 1000 16 17 17 (4624000)
I0501 07:57:09.268642  8190 net.cpp:139] Memory required for data: 178764000
I0501 07:57:09.268646  8190 layer_factory.hpp:77] Creating layer ip1
I0501 07:57:09.268656  8190 net.cpp:86] Creating Layer ip1
I0501 07:57:09.268658  8190 net.cpp:408] ip1 <- pool0
I0501 07:57:09.268664  8190 net.cpp:382] ip1 -> ip1
I0501 07:57:09.271059  8190 net.cpp:124] Setting up ip1
I0501 07:57:09.271069  8190 net.cpp:131] Top shape: 1000 10 (10000)
I0501 07:57:09.271071  8190 net.cpp:139] Memory required for data: 178804000
I0501 07:57:09.271106  8190 layer_factory.hpp:77] Creating layer relu1
I0501 07:57:09.271113  8190 net.cpp:86] Creating Layer relu1
I0501 07:57:09.271116  8190 net.cpp:408] relu1 <- ip1
I0501 07:57:09.271121  8190 net.cpp:369] relu1 -> ip1 (in-place)
I0501 07:57:09.271294  8190 net.cpp:124] Setting up relu1
I0501 07:57:09.271302  8190 net.cpp:131] Top shape: 1000 10 (10000)
I0501 07:57:09.271306  8190 net.cpp:139] Memory required for data: 178844000
I0501 07:57:09.271309  8190 layer_factory.hpp:77] Creating layer ip2
I0501 07:57:09.271316  8190 net.cpp:86] Creating Layer ip2
I0501 07:57:09.271318  8190 net.cpp:408] ip2 <- ip1
I0501 07:57:09.271323  8190 net.cpp:382] ip2 -> ip2
I0501 07:57:09.271431  8190 net.cpp:124] Setting up ip2
I0501 07:57:09.271438  8190 net.cpp:131] Top shape: 1000 10 (10000)
I0501 07:57:09.271441  8190 net.cpp:139] Memory required for data: 178884000
I0501 07:57:09.271448  8190 layer_factory.hpp:77] Creating layer relu2
I0501 07:57:09.271456  8190 net.cpp:86] Creating Layer relu2
I0501 07:57:09.271459  8190 net.cpp:408] relu2 <- ip2
I0501 07:57:09.271464  8190 net.cpp:369] relu2 -> ip2 (in-place)
I0501 07:57:09.272254  8190 net.cpp:124] Setting up relu2
I0501 07:57:09.272266  8190 net.cpp:131] Top shape: 1000 10 (10000)
I0501 07:57:09.272269  8190 net.cpp:139] Memory required for data: 178924000
I0501 07:57:09.272274  8190 layer_factory.hpp:77] Creating layer ip3
I0501 07:57:09.272296  8190 net.cpp:86] Creating Layer ip3
I0501 07:57:09.272300  8190 net.cpp:408] ip3 <- ip2
I0501 07:57:09.272307  8190 net.cpp:382] ip3 -> ip3
I0501 07:57:09.272426  8190 net.cpp:124] Setting up ip3
I0501 07:57:09.272435  8190 net.cpp:131] Top shape: 1000 40 (40000)
I0501 07:57:09.272439  8190 net.cpp:139] Memory required for data: 179084000
I0501 07:57:09.272444  8190 layer_factory.hpp:77] Creating layer relu3
I0501 07:57:09.272450  8190 net.cpp:86] Creating Layer relu3
I0501 07:57:09.272454  8190 net.cpp:408] relu3 <- ip3
I0501 07:57:09.272457  8190 net.cpp:369] relu3 -> ip3 (in-place)
I0501 07:57:09.272630  8190 net.cpp:124] Setting up relu3
I0501 07:57:09.272639  8190 net.cpp:131] Top shape: 1000 40 (40000)
I0501 07:57:09.272642  8190 net.cpp:139] Memory required for data: 179244000
I0501 07:57:09.272645  8190 layer_factory.hpp:77] Creating layer ip4
I0501 07:57:09.272652  8190 net.cpp:86] Creating Layer ip4
I0501 07:57:09.272655  8190 net.cpp:408] ip4 <- ip3
I0501 07:57:09.272660  8190 net.cpp:382] ip4 -> ip4
I0501 07:57:09.272778  8190 net.cpp:124] Setting up ip4
I0501 07:57:09.272786  8190 net.cpp:131] Top shape: 1000 10 (10000)
I0501 07:57:09.272789  8190 net.cpp:139] Memory required for data: 179284000
I0501 07:57:09.272796  8190 layer_factory.hpp:77] Creating layer ip4_ip4_0_split
I0501 07:57:09.272802  8190 net.cpp:86] Creating Layer ip4_ip4_0_split
I0501 07:57:09.272805  8190 net.cpp:408] ip4_ip4_0_split <- ip4
I0501 07:57:09.272817  8190 net.cpp:382] ip4_ip4_0_split -> ip4_ip4_0_split_0
I0501 07:57:09.272824  8190 net.cpp:382] ip4_ip4_0_split -> ip4_ip4_0_split_1
I0501 07:57:09.272874  8190 net.cpp:124] Setting up ip4_ip4_0_split
I0501 07:57:09.272879  8190 net.cpp:131] Top shape: 1000 10 (10000)
I0501 07:57:09.272883  8190 net.cpp:131] Top shape: 1000 10 (10000)
I0501 07:57:09.272896  8190 net.cpp:139] Memory required for data: 179364000
I0501 07:57:09.272898  8190 layer_factory.hpp:77] Creating layer accuracy
I0501 07:57:09.272907  8190 net.cpp:86] Creating Layer accuracy
I0501 07:57:09.272910  8190 net.cpp:408] accuracy <- ip4_ip4_0_split_0
I0501 07:57:09.272914  8190 net.cpp:408] accuracy <- label_cifar_1_split_0
I0501 07:57:09.272919  8190 net.cpp:382] accuracy -> accuracy
…
