…
I0430 20:23:57.100371 28632 net.cpp:296] The NetState phase (0) differed from the phase (1) specified by a rule in layer cifar
I0430 20:23:57.100389 28632 net.cpp:296] The NetState phase (0) differed from the phase (1) specified by a rule in layer accuracy
I0430 20:23:57.100478 28632 net.cpp:53] Initializing net from parameters: 
name: "CIFAR"
state {
  phase: TRAIN
  level: 0
  stage: ""
}
layer {
  name: "cifar"
  type: "Data"
  top: "data"
  top: "label"
  include {
    phase: TRAIN
  }
  transform_param {
    mean_file: "examples/cifar10/mean.binaryproto"
  }
  data_param {
    source: "examples/cifar10/cifar10_train_lmdb"
    batch_size: 111
    backend: LMDB
  }
}
layer {
  name: "ip1"
  type: "InnerProduct"
  bottom: "data"
  top: "ip1"
  param {
    lr_mult: 1
  }
  param {
    lr_mult: 2
  }
  inner_product_param {
    num_output: 80
    weight_filler {
      type: "gaussian"
      std: 0.01
    }
    bias_filler {
      type: "constant"
    }
  }
}
layer {
  name: "relu1"
  type: "ReLU"
  bottom: "ip1"
  top: "ip1"
}
layer {
  name: "ip2"
  type: "InnerProduct"
  bottom: "ip1"
  top: "ip2"
  param {
    lr_mult: 1
  }
  param {
    lr_mult: 2
  }
  inner_product_param {
    num_output: 160
    weight_filler {
      type: "gaussian"
      std: 0.01
    }
    bias_filler {
      type: "constant"
    }
  }
}
layer {
  name: "relu2"
  type: "ReLU"
  bottom: "ip2"
  top: "ip2"
}
layer {
  name: "ip3"
  type: "InnerProduct"
  bottom: "ip2"
  top: "ip3"
  param {
    lr_mult: 1
  }
  param {
    lr_mult: 2
  }
  inner_product_param {
    num_output: 80
    weight_filler {
      type: "gaussian"
      std: 0.01
    }
    bias_filler {
      type: "constant"
    }
  }
}
layer {
  name: "relu3"
  type: "ReLU"
  bottom: "ip3"
  top: "ip3"
}
layer {
  name: "ip4"
  type: "InnerProduct"
  bottom: "ip3"
  top: "ip4"
  param {
    lr_mult: 1
  }
  param {
    lr_mult: 2
  }
  inner_product_param {
    num_output: 10
    weight_filler {
      type: "gaussian"
      std: 0.01
    }
    bias_filler {
      type: "constant"
    }
  }
}
layer {
  name: "loss"
  type: "SoftmaxWithLoss"
  bottom: "ip4"
  bottom: "label"
  top: "loss"
}
I0430 20:23:57.100548 28632 layer_factory.hpp:77] Creating layer cifar
I0430 20:23:57.100644 28632 db_lmdb.cpp:35] Opened lmdb examples/cifar10/cifar10_train_lmdb
I0430 20:23:57.100669 28632 net.cpp:86] Creating Layer cifar
I0430 20:23:57.100678 28632 net.cpp:382] cifar -> data
I0430 20:23:57.100699 28632 net.cpp:382] cifar -> label
I0430 20:23:57.100711 28632 data_transformer.cpp:25] Loading mean file from: examples/cifar10/mean.binaryproto
I0430 20:23:57.102830 28632 data_layer.cpp:45] output data size: 111,3,32,32
I0430 20:23:57.110695 28632 net.cpp:124] Setting up cifar
I0430 20:23:57.110715 28632 net.cpp:131] Top shape: 111 3 32 32 (340992)
I0430 20:23:57.110723 28632 net.cpp:131] Top shape: 111 (111)
I0430 20:23:57.110726 28632 net.cpp:139] Memory required for data: 1364412
I0430 20:23:57.110734 28632 layer_factory.hpp:77] Creating layer ip1
I0430 20:23:57.110745 28632 net.cpp:86] Creating Layer ip1
I0430 20:23:57.110751 28632 net.cpp:408] ip1 <- data
I0430 20:23:57.110764 28632 net.cpp:382] ip1 -> ip1
I0430 20:23:57.119989 28632 net.cpp:124] Setting up ip1
I0430 20:23:57.120005 28632 net.cpp:131] Top shape: 111 80 (8880)
I0430 20:23:57.120009 28632 net.cpp:139] Memory required for data: 1399932
I0430 20:23:57.120023 28632 layer_factory.hpp:77] Creating layer relu1
I0430 20:23:57.120033 28632 net.cpp:86] Creating Layer relu1
I0430 20:23:57.120054 28632 net.cpp:408] relu1 <- ip1
I0430 20:23:57.120059 28632 net.cpp:369] relu1 -> ip1 (in-place)
I0430 20:23:57.399294 28632 net.cpp:124] Setting up relu1
I0430 20:23:57.399322 28632 net.cpp:131] Top shape: 111 80 (8880)
I0430 20:23:57.399325 28632 net.cpp:139] Memory required for data: 1435452
I0430 20:23:57.399332 28632 layer_factory.hpp:77] Creating layer ip2
I0430 20:23:57.399344 28632 net.cpp:86] Creating Layer ip2
I0430 20:23:57.399349 28632 net.cpp:408] ip2 <- ip1
I0430 20:23:57.399358 28632 net.cpp:382] ip2 -> ip2
I0430 20:23:57.400671 28632 net.cpp:124] Setting up ip2
I0430 20:23:57.400682 28632 net.cpp:131] Top shape: 111 160 (17760)
I0430 20:23:57.400686 28632 net.cpp:139] Memory required for data: 1506492
I0430 20:23:57.400696 28632 layer_factory.hpp:77] Creating layer relu2
I0430 20:23:57.400704 28632 net.cpp:86] Creating Layer relu2
I0430 20:23:57.400708 28632 net.cpp:408] relu2 <- ip2
I0430 20:23:57.400712 28632 net.cpp:369] relu2 -> ip2 (in-place)
I0430 20:23:57.401504 28632 net.cpp:124] Setting up relu2
I0430 20:23:57.401516 28632 net.cpp:131] Top shape: 111 160 (17760)
I0430 20:23:57.401520 28632 net.cpp:139] Memory required for data: 1577532
I0430 20:23:57.401522 28632 layer_factory.hpp:77] Creating layer ip3
I0430 20:23:57.401530 28632 net.cpp:86] Creating Layer ip3
I0430 20:23:57.401532 28632 net.cpp:408] ip3 <- ip2
I0430 20:23:57.401537 28632 net.cpp:382] ip3 -> ip3
I0430 20:23:57.401942 28632 net.cpp:124] Setting up ip3
I0430 20:23:57.401950 28632 net.cpp:131] Top shape: 111 80 (8880)
I0430 20:23:57.401953 28632 net.cpp:139] Memory required for data: 1613052
I0430 20:23:57.401960 28632 layer_factory.hpp:77] Creating layer relu3
I0430 20:23:57.401965 28632 net.cpp:86] Creating Layer relu3
I0430 20:23:57.401968 28632 net.cpp:408] relu3 <- ip3
I0430 20:23:57.401973 28632 net.cpp:369] relu3 -> ip3 (in-place)
I0430 20:23:57.402109 28632 net.cpp:124] Setting up relu3
I0430 20:23:57.402117 28632 net.cpp:131] Top shape: 111 80 (8880)
I0430 20:23:57.402119 28632 net.cpp:139] Memory required for data: 1648572
I0430 20:23:57.402122 28632 layer_factory.hpp:77] Creating layer ip4
I0430 20:23:57.402128 28632 net.cpp:86] Creating Layer ip4
I0430 20:23:57.402132 28632 net.cpp:408] ip4 <- ip3
I0430 20:23:57.402135 28632 net.cpp:382] ip4 -> ip4
I0430 20:23:57.403023 28632 net.cpp:124] Setting up ip4
I0430 20:23:57.403034 28632 net.cpp:131] Top shape: 111 10 (1110)
I0430 20:23:57.403038 28632 net.cpp:139] Memory required for data: 1653012
I0430 20:23:57.403043 28632 layer_factory.hpp:77] Creating layer loss
I0430 20:23:57.403050 28632 net.cpp:86] Creating Layer loss
I0430 20:23:57.403053 28632 net.cpp:408] loss <- ip4
I0430 20:23:57.403057 28632 net.cpp:408] loss <- label
I0430 20:23:57.403062 28632 net.cpp:382] loss -> loss
I0430 20:23:57.403081 28632 layer_factory.hpp:77] Creating layer loss
…
I0430 20:23:57.403663 28632 solver.cpp:173] Creating test net (#0) specified by net file: ECE595/cifar/train_test/var_everything/cifar_train_test_128.prototxt
I0430 20:23:57.403730 28632 net.cpp:296] The NetState phase (1) differed from the phase (0) specified by a rule in layer cifar
I0430 20:23:57.403820 28632 net.cpp:53] Initializing net from parameters: 
name: "CIFAR"
state {
  phase: TEST
}
layer {
  name: "cifar"
  type: "Data"
  top: "data"
  top: "label"
  include {
    phase: TEST
  }
  transform_param {
    mean_file: "examples/cifar10/mean.binaryproto"
  }
  data_param {
    source: "examples/cifar10/cifar10_test_lmdb"
    batch_size: 1000
    backend: LMDB
  }
}
layer {
  name: "ip1"
  type: "InnerProduct"
  bottom: "data"
  top: "ip1"
  param {
    lr_mult: 1
  }
  param {
    lr_mult: 2
  }
  inner_product_param {
    num_output: 80
    weight_filler {
      type: "gaussian"
      std: 0.01
    }
    bias_filler {
      type: "constant"
    }
  }
}
layer {
  name: "relu1"
  type: "ReLU"
  bottom: "ip1"
  top: "ip1"
}
layer {
  name: "ip2"
  type: "InnerProduct"
  bottom: "ip1"
  top: "ip2"
  param {
    lr_mult: 1
  }
  param {
    lr_mult: 2
  }
  inner_product_param {
    num_output: 160
    weight_filler {
      type: "gaussian"
      std: 0.01
    }
    bias_filler {
      type: "constant"
    }
  }
}
layer {
  name: "relu2"
  type: "ReLU"
  bottom: "ip2"
  top: "ip2"
}
layer {
  name: "ip3"
  type: "InnerProduct"
  bottom: "ip2"
  top: "ip3"
  param {
    lr_mult: 1
  }
  param {
    lr_mult: 2
  }
  inner_product_param {
    num_output: 80
    weight_filler {
      type: "gaussian"
      std: 0.01
    }
    bias_filler {
      type: "constant"
    }
  }
}
layer {
  name: "relu3"
  type: "ReLU"
  bottom: "ip3"
  top: "ip3"
}
layer {
  name: "ip4"
  type: "InnerProduct"
  bottom: "ip3"
  top: "ip4"
  param {
    lr_mult: 1
  }
  param {
    lr_mult: 2
  }
  inner_product_param {
    num_output: 10
    weight_filler {
      type: "gaussian"
      std: 0.01
    }
    bias_filler {
      type: "constant"
    }
  }
}
layer {
  name: "accuracy"
  type: "Accuracy"
  bottom: "ip4"
  bottom: "label"
  top: "accuracy"
  include {
    phase: TEST
  }
}
layer {
  name: "loss"
  type: "SoftmaxWithLoss"
  bottom: "ip4"
  bottom: "label"
  top: "loss"
}
I0430 20:23:57.403877 28632 layer_factory.hpp:77] Creating layer cifar
I0430 20:23:57.403920 28632 db_lmdb.cpp:35] Opened lmdb examples/cifar10/cifar10_test_lmdb
I0430 20:23:57.403934 28632 net.cpp:86] Creating Layer cifar
I0430 20:23:57.403940 28632 net.cpp:382] cifar -> data
I0430 20:23:57.403964 28632 net.cpp:382] cifar -> label
I0430 20:23:57.403970 28632 data_transformer.cpp:25] Loading mean file from: examples/cifar10/mean.binaryproto
I0430 20:23:57.404105 28632 data_layer.cpp:45] output data size: 1000,3,32,32
I0430 20:23:57.425645 28632 net.cpp:124] Setting up cifar
I0430 20:23:57.425700 28632 net.cpp:131] Top shape: 1000 3 32 32 (3072000)
I0430 20:23:57.425706 28632 net.cpp:131] Top shape: 1000 (1000)
I0430 20:23:57.425709 28632 net.cpp:139] Memory required for data: 12292000
I0430 20:23:57.425715 28632 layer_factory.hpp:77] Creating layer label_cifar_1_split
I0430 20:23:57.425732 28632 net.cpp:86] Creating Layer label_cifar_1_split
I0430 20:23:57.425736 28632 net.cpp:408] label_cifar_1_split <- label
I0430 20:23:57.425742 28632 net.cpp:382] label_cifar_1_split -> label_cifar_1_split_0
I0430 20:23:57.425750 28632 net.cpp:382] label_cifar_1_split -> label_cifar_1_split_1
I0430 20:23:57.425833 28632 net.cpp:124] Setting up label_cifar_1_split
I0430 20:23:57.425842 28632 net.cpp:131] Top shape: 1000 (1000)
I0430 20:23:57.425845 28632 net.cpp:131] Top shape: 1000 (1000)
I0430 20:23:57.425848 28632 net.cpp:139] Memory required for data: 12300000
I0430 20:23:57.425850 28632 layer_factory.hpp:77] Creating layer ip1
I0430 20:23:57.425859 28632 net.cpp:86] Creating Layer ip1
I0430 20:23:57.425864 28632 net.cpp:408] ip1 <- data
I0430 20:23:57.425885 28632 net.cpp:382] ip1 -> ip1
I0430 20:23:57.432647 28632 net.cpp:124] Setting up ip1
I0430 20:23:57.432657 28632 net.cpp:131] Top shape: 1000 80 (80000)
I0430 20:23:57.432675 28632 net.cpp:139] Memory required for data: 12620000
I0430 20:23:57.432699 28632 layer_factory.hpp:77] Creating layer relu1
I0430 20:23:57.432706 28632 net.cpp:86] Creating Layer relu1
I0430 20:23:57.432709 28632 net.cpp:408] relu1 <- ip1
I0430 20:23:57.432729 28632 net.cpp:369] relu1 -> ip1 (in-place)
I0430 20:23:57.433538 28632 net.cpp:124] Setting up relu1
I0430 20:23:57.433549 28632 net.cpp:131] Top shape: 1000 80 (80000)
I0430 20:23:57.433568 28632 net.cpp:139] Memory required for data: 12940000
I0430 20:23:57.433571 28632 layer_factory.hpp:77] Creating layer ip2
I0430 20:23:57.433579 28632 net.cpp:86] Creating Layer ip2
I0430 20:23:57.433583 28632 net.cpp:408] ip2 <- ip1
I0430 20:23:57.433588 28632 net.cpp:382] ip2 -> ip2
I0430 20:23:57.434062 28632 net.cpp:124] Setting up ip2
I0430 20:23:57.434072 28632 net.cpp:131] Top shape: 1000 160 (160000)
I0430 20:23:57.434089 28632 net.cpp:139] Memory required for data: 13580000
I0430 20:23:57.434097 28632 layer_factory.hpp:77] Creating layer relu2
I0430 20:23:57.434103 28632 net.cpp:86] Creating Layer relu2
I0430 20:23:57.434106 28632 net.cpp:408] relu2 <- ip2
I0430 20:23:57.434110 28632 net.cpp:369] relu2 -> ip2 (in-place)
I0430 20:23:57.434278 28632 net.cpp:124] Setting up relu2
I0430 20:23:57.434288 28632 net.cpp:131] Top shape: 1000 160 (160000)
I0430 20:23:57.434290 28632 net.cpp:139] Memory required for data: 14220000
I0430 20:23:57.434293 28632 layer_factory.hpp:77] Creating layer ip3
I0430 20:23:57.434299 28632 net.cpp:86] Creating Layer ip3
I0430 20:23:57.434303 28632 net.cpp:408] ip3 <- ip2
I0430 20:23:57.434307 28632 net.cpp:382] ip3 -> ip3
I0430 20:23:57.434768 28632 net.cpp:124] Setting up ip3
I0430 20:23:57.434774 28632 net.cpp:131] Top shape: 1000 80 (80000)
I0430 20:23:57.434777 28632 net.cpp:139] Memory required for data: 14540000
I0430 20:23:57.434799 28632 layer_factory.hpp:77] Creating layer relu3
I0430 20:23:57.434804 28632 net.cpp:86] Creating Layer relu3
I0430 20:23:57.434808 28632 net.cpp:408] relu3 <- ip3
I0430 20:23:57.434811 28632 net.cpp:369] relu3 -> ip3 (in-place)
I0430 20:23:57.434981 28632 net.cpp:124] Setting up relu3
I0430 20:23:57.434988 28632 net.cpp:131] Top shape: 1000 80 (80000)
I0430 20:23:57.434993 28632 net.cpp:139] Memory required for data: 14860000
I0430 20:23:57.434995 28632 layer_factory.hpp:77] Creating layer ip4
I0430 20:23:57.435003 28632 net.cpp:86] Creating Layer ip4
I0430 20:23:57.435006 28632 net.cpp:408] ip4 <- ip3
I0430 20:23:57.435011 28632 net.cpp:382] ip4 -> ip4
I0430 20:23:57.435148 28632 net.cpp:124] Setting up ip4
I0430 20:23:57.435155 28632 net.cpp:131] Top shape: 1000 10 (10000)
I0430 20:23:57.435158 28632 net.cpp:139] Memory required for data: 14900000
I0430 20:23:57.435163 28632 layer_factory.hpp:77] Creating layer ip4_ip4_0_split
I0430 20:23:57.435169 28632 net.cpp:86] Creating Layer ip4_ip4_0_split
I0430 20:23:57.435173 28632 net.cpp:408] ip4_ip4_0_split <- ip4
I0430 20:23:57.435176 28632 net.cpp:382] ip4_ip4_0_split -> ip4_ip4_0_split_0
I0430 20:23:57.435184 28632 net.cpp:382] ip4_ip4_0_split -> ip4_ip4_0_split_1
I0430 20:23:57.435215 28632 net.cpp:124] Setting up ip4_ip4_0_split
I0430 20:23:57.435225 28632 net.cpp:131] Top shape: 1000 10 (10000)
I0430 20:23:57.435228 28632 net.cpp:131] Top shape: 1000 10 (10000)
I0430 20:23:57.435231 28632 net.cpp:139] Memory required for data: 14980000
I0430 20:23:57.435235 28632 layer_factory.hpp:77] Creating layer accuracy
I0430 20:23:57.435241 28632 net.cpp:86] Creating Layer accuracy
I0430 20:23:57.435245 28632 net.cpp:408] accuracy <- ip4_ip4_0_split_0
I0430 20:23:57.435248 28632 net.cpp:408] accuracy <- label_cifar_1_split_0
I0430 20:23:57.435252 28632 net.cpp:382] accuracy -> accuracy
…
