…
I0430 21:21:52.804436 30673 net.cpp:296] The NetState phase (0) differed from the phase (1) specified by a rule in layer cifar
I0430 21:21:52.804451 30673 net.cpp:296] The NetState phase (0) differed from the phase (1) specified by a rule in layer accuracy
I0430 21:21:52.804533 30673 net.cpp:53] Initializing net from parameters: 
name: "CIFAR"
state {
  phase: TRAIN
  level: 0
  stage: ""
}
layer {
  name: "cifar"
  type: "Data"
  top: "data"
  top: "label"
  include {
    phase: TRAIN
  }
  transform_param {
    mean_file: "examples/cifar10/mean.binaryproto"
  }
  data_param {
    source: "examples/cifar10/cifar10_train_lmdb"
    batch_size: 111
    backend: LMDB
  }
}
layer {
  name: "conv0"
  type: "Convolution"
  bottom: "data"
  top: "conv0"
  param {
    lr_mult: 1
  }
  param {
    lr_mult: 2
  }
  convolution_param {
    num_output: 8
    pad: 2
    kernel_size: 3
    stride: 1
    weight_filler {
      type: "gaussian"
      std: 0.01
    }
    bias_filler {
      type: "constant"
    }
  }
}
layer {
  name: "Sigmoid0"
  type: "Sigmoid"
  bottom: "conv0"
  top: "Sigmoid0"
}
layer {
  name: "pool0"
  type: "Pooling"
  bottom: "Sigmoid0"
  top: "pool0"
  pooling_param {
    pool: AVE
    kernel_size: 3
    stride: 2
  }
}
layer {
  name: "ip1"
  type: "InnerProduct"
  bottom: "pool0"
  top: "ip1"
  param {
    lr_mult: 1
  }
  param {
    lr_mult: 2
  }
  inner_product_param {
    num_output: 160
    weight_filler {
      type: "gaussian"
      std: 0.01
    }
    bias_filler {
      type: "constant"
    }
  }
}
layer {
  name: "relu1"
  type: "ReLU"
  bottom: "ip1"
  top: "ip1"
}
layer {
  name: "ip2"
  type: "InnerProduct"
  bottom: "ip1"
  top: "ip2"
  param {
    lr_mult: 1
  }
  param {
    lr_mult: 2
  }
  inner_product_param {
    num_output: 10
    weight_filler {
      type: "gaussian"
      std: 0.01
    }
    bias_filler {
      type: "constant"
    }
  }
}
layer {
  name: "loss"
  type: "SoftmaxWithLoss"
  bottom: "ip2"
  bottom: "label"
  top: "loss"
}
I0430 21:21:52.804602 30673 layer_factory.hpp:77] Creating layer cifar
I0430 21:21:52.804707 30673 db_lmdb.cpp:35] Opened lmdb examples/cifar10/cifar10_train_lmdb
I0430 21:21:52.804734 30673 net.cpp:86] Creating Layer cifar
I0430 21:21:52.804743 30673 net.cpp:382] cifar -> data
I0430 21:21:52.804766 30673 net.cpp:382] cifar -> label
I0430 21:21:52.804778 30673 data_transformer.cpp:25] Loading mean file from: examples/cifar10/mean.binaryproto
I0430 21:21:52.806910 30673 data_layer.cpp:45] output data size: 111,3,32,32
I0430 21:21:52.814796 30673 net.cpp:124] Setting up cifar
I0430 21:21:52.814816 30673 net.cpp:131] Top shape: 111 3 32 32 (340992)
I0430 21:21:52.814823 30673 net.cpp:131] Top shape: 111 (111)
I0430 21:21:52.814828 30673 net.cpp:139] Memory required for data: 1364412
I0430 21:21:52.814836 30673 layer_factory.hpp:77] Creating layer conv0
I0430 21:21:52.814855 30673 net.cpp:86] Creating Layer conv0
I0430 21:21:52.814862 30673 net.cpp:408] conv0 <- data
I0430 21:21:52.814874 30673 net.cpp:382] conv0 -> conv0
I0430 21:21:53.084094 30673 net.cpp:124] Setting up conv0
I0430 21:21:53.084120 30673 net.cpp:131] Top shape: 111 8 34 34 (1026528)
I0430 21:21:53.084123 30673 net.cpp:139] Memory required for data: 5470524
I0430 21:21:53.084137 30673 layer_factory.hpp:77] Creating layer Sigmoid0
I0430 21:21:53.084149 30673 net.cpp:86] Creating Layer Sigmoid0
I0430 21:21:53.084153 30673 net.cpp:408] Sigmoid0 <- conv0
I0430 21:21:53.084158 30673 net.cpp:382] Sigmoid0 -> Sigmoid0
I0430 21:21:53.084358 30673 net.cpp:124] Setting up Sigmoid0
I0430 21:21:53.084368 30673 net.cpp:131] Top shape: 111 8 34 34 (1026528)
I0430 21:21:53.084372 30673 net.cpp:139] Memory required for data: 9576636
I0430 21:21:53.084374 30673 layer_factory.hpp:77] Creating layer pool0
I0430 21:21:53.084381 30673 net.cpp:86] Creating Layer pool0
I0430 21:21:53.084385 30673 net.cpp:408] pool0 <- Sigmoid0
I0430 21:21:53.084389 30673 net.cpp:382] pool0 -> pool0
I0430 21:21:53.085153 30673 net.cpp:124] Setting up pool0
I0430 21:21:53.085165 30673 net.cpp:131] Top shape: 111 8 17 17 (256632)
I0430 21:21:53.085168 30673 net.cpp:139] Memory required for data: 10603164
I0430 21:21:53.085172 30673 layer_factory.hpp:77] Creating layer ip1
I0430 21:21:53.085180 30673 net.cpp:86] Creating Layer ip1
I0430 21:21:53.085183 30673 net.cpp:408] ip1 <- pool0
I0430 21:21:53.085188 30673 net.cpp:382] ip1 -> ip1
I0430 21:21:53.095152 30673 net.cpp:124] Setting up ip1
I0430 21:21:53.095163 30673 net.cpp:131] Top shape: 111 160 (17760)
I0430 21:21:53.095166 30673 net.cpp:139] Memory required for data: 10674204
I0430 21:21:53.095175 30673 layer_factory.hpp:77] Creating layer relu1
I0430 21:21:53.095180 30673 net.cpp:86] Creating Layer relu1
I0430 21:21:53.095182 30673 net.cpp:408] relu1 <- ip1
I0430 21:21:53.095187 30673 net.cpp:369] relu1 -> ip1 (in-place)
I0430 21:21:53.095346 30673 net.cpp:124] Setting up relu1
I0430 21:21:53.095355 30673 net.cpp:131] Top shape: 111 160 (17760)
I0430 21:21:53.095358 30673 net.cpp:139] Memory required for data: 10745244
I0430 21:21:53.095361 30673 layer_factory.hpp:77] Creating layer ip2
I0430 21:21:53.095367 30673 net.cpp:86] Creating Layer ip2
I0430 21:21:53.095371 30673 net.cpp:408] ip2 <- ip1
I0430 21:21:53.095374 30673 net.cpp:382] ip2 -> ip2
I0430 21:21:53.095506 30673 net.cpp:124] Setting up ip2
I0430 21:21:53.095513 30673 net.cpp:131] Top shape: 111 10 (1110)
I0430 21:21:53.095515 30673 net.cpp:139] Memory required for data: 10749684
I0430 21:21:53.095522 30673 layer_factory.hpp:77] Creating layer loss
I0430 21:21:53.095527 30673 net.cpp:86] Creating Layer loss
I0430 21:21:53.095530 30673 net.cpp:408] loss <- ip2
I0430 21:21:53.095535 30673 net.cpp:408] loss <- label
I0430 21:21:53.095540 30673 net.cpp:382] loss -> loss
I0430 21:21:53.095556 30673 layer_factory.hpp:77] Creating layer loss
…
I0430 21:21:53.096110 30673 solver.cpp:173] Creating test net (#0) specified by net file: ECE595/cifar/train_test/var_everything/cifar_train_test_159.prototxt
I0430 21:21:53.096134 30673 net.cpp:296] The NetState phase (1) differed from the phase (0) specified by a rule in layer cifar
I0430 21:21:53.096205 30673 net.cpp:53] Initializing net from parameters: 
name: "CIFAR"
state {
  phase: TEST
}
layer {
  name: "cifar"
  type: "Data"
  top: "data"
  top: "label"
  include {
    phase: TEST
  }
  transform_param {
    mean_file: "examples/cifar10/mean.binaryproto"
  }
  data_param {
    source: "examples/cifar10/cifar10_test_lmdb"
    batch_size: 1000
    backend: LMDB
  }
}
layer {
  name: "conv0"
  type: "Convolution"
  bottom: "data"
  top: "conv0"
  param {
    lr_mult: 1
  }
  param {
    lr_mult: 2
  }
  convolution_param {
    num_output: 8
    pad: 2
    kernel_size: 3
    stride: 1
    weight_filler {
      type: "gaussian"
      std: 0.01
    }
    bias_filler {
      type: "constant"
    }
  }
}
layer {
  name: "Sigmoid0"
  type: "Sigmoid"
  bottom: "conv0"
  top: "Sigmoid0"
}
layer {
  name: "pool0"
  type: "Pooling"
  bottom: "Sigmoid0"
  top: "pool0"
  pooling_param {
    pool: AVE
    kernel_size: 3
    stride: 2
  }
}
layer {
  name: "ip1"
  type: "InnerProduct"
  bottom: "pool0"
  top: "ip1"
  param {
    lr_mult: 1
  }
  param {
    lr_mult: 2
  }
  inner_product_param {
    num_output: 160
    weight_filler {
      type: "gaussian"
      std: 0.01
    }
    bias_filler {
      type: "constant"
    }
  }
}
layer {
  name: "relu1"
  type: "ReLU"
  bottom: "ip1"
  top: "ip1"
}
layer {
  name: "ip2"
  type: "InnerProduct"
  bottom: "ip1"
  top: "ip2"
  param {
    lr_mult: 1
  }
  param {
    lr_mult: 2
  }
  inner_product_param {
    num_output: 10
    weight_filler {
      type: "gaussian"
      std: 0.01
    }
    bias_filler {
      type: "constant"
    }
  }
}
layer {
  name: "accuracy"
  type: "Accuracy"
  bottom: "ip2"
  bottom: "label"
  top: "accuracy"
  include {
    phase: TEST
  }
}
layer {
  name: "loss"
  type: "SoftmaxWithLoss"
  bottom: "ip2"
  bottom: "label"
  top: "loss"
}
I0430 21:21:53.096271 30673 layer_factory.hpp:77] Creating layer cifar
I0430 21:21:53.096315 30673 db_lmdb.cpp:35] Opened lmdb examples/cifar10/cifar10_test_lmdb
I0430 21:21:53.096328 30673 net.cpp:86] Creating Layer cifar
I0430 21:21:53.096331 30673 net.cpp:382] cifar -> data
I0430 21:21:53.096338 30673 net.cpp:382] cifar -> label
I0430 21:21:53.096344 30673 data_transformer.cpp:25] Loading mean file from: examples/cifar10/mean.binaryproto
I0430 21:21:53.096477 30673 data_layer.cpp:45] output data size: 1000,3,32,32
I0430 21:21:53.119221 30673 net.cpp:124] Setting up cifar
I0430 21:21:53.119246 30673 net.cpp:131] Top shape: 1000 3 32 32 (3072000)
I0430 21:21:53.119251 30673 net.cpp:131] Top shape: 1000 (1000)
I0430 21:21:53.119254 30673 net.cpp:139] Memory required for data: 12292000
I0430 21:21:53.119261 30673 layer_factory.hpp:77] Creating layer label_cifar_1_split
I0430 21:21:53.119288 30673 net.cpp:86] Creating Layer label_cifar_1_split
I0430 21:21:53.119292 30673 net.cpp:408] label_cifar_1_split <- label
I0430 21:21:53.119298 30673 net.cpp:382] label_cifar_1_split -> label_cifar_1_split_0
I0430 21:21:53.119307 30673 net.cpp:382] label_cifar_1_split -> label_cifar_1_split_1
I0430 21:21:53.119385 30673 net.cpp:124] Setting up label_cifar_1_split
I0430 21:21:53.119391 30673 net.cpp:131] Top shape: 1000 (1000)
I0430 21:21:53.119395 30673 net.cpp:131] Top shape: 1000 (1000)
I0430 21:21:53.119397 30673 net.cpp:139] Memory required for data: 12300000
I0430 21:21:53.119400 30673 layer_factory.hpp:77] Creating layer conv0
I0430 21:21:53.119412 30673 net.cpp:86] Creating Layer conv0
I0430 21:21:53.119415 30673 net.cpp:408] conv0 <- data
I0430 21:21:53.119421 30673 net.cpp:382] conv0 -> conv0
I0430 21:21:53.121121 30673 net.cpp:124] Setting up conv0
I0430 21:21:53.121150 30673 net.cpp:131] Top shape: 1000 8 34 34 (9248000)
I0430 21:21:53.121152 30673 net.cpp:139] Memory required for data: 49292000
I0430 21:21:53.121162 30673 layer_factory.hpp:77] Creating layer Sigmoid0
I0430 21:21:53.121183 30673 net.cpp:86] Creating Layer Sigmoid0
I0430 21:21:53.121187 30673 net.cpp:408] Sigmoid0 <- conv0
I0430 21:21:53.121191 30673 net.cpp:382] Sigmoid0 -> Sigmoid0
I0430 21:21:53.121356 30673 net.cpp:124] Setting up Sigmoid0
I0430 21:21:53.121364 30673 net.cpp:131] Top shape: 1000 8 34 34 (9248000)
I0430 21:21:53.121367 30673 net.cpp:139] Memory required for data: 86284000
I0430 21:21:53.121371 30673 layer_factory.hpp:77] Creating layer pool0
I0430 21:21:53.121378 30673 net.cpp:86] Creating Layer pool0
I0430 21:21:53.121381 30673 net.cpp:408] pool0 <- Sigmoid0
I0430 21:21:53.121386 30673 net.cpp:382] pool0 -> pool0
I0430 21:21:53.122251 30673 net.cpp:124] Setting up pool0
I0430 21:21:53.122274 30673 net.cpp:131] Top shape: 1000 8 17 17 (2312000)
I0430 21:21:53.122278 30673 net.cpp:139] Memory required for data: 95532000
I0430 21:21:53.122282 30673 layer_factory.hpp:77] Creating layer ip1
I0430 21:21:53.122289 30673 net.cpp:86] Creating Layer ip1
I0430 21:21:53.122308 30673 net.cpp:408] ip1 <- pool0
I0430 21:21:53.122314 30673 net.cpp:382] ip1 -> ip1
I0430 21:21:53.133749 30673 net.cpp:124] Setting up ip1
I0430 21:21:53.133761 30673 net.cpp:131] Top shape: 1000 160 (160000)
I0430 21:21:53.133765 30673 net.cpp:139] Memory required for data: 96172000
I0430 21:21:53.133774 30673 layer_factory.hpp:77] Creating layer relu1
I0430 21:21:53.133781 30673 net.cpp:86] Creating Layer relu1
I0430 21:21:53.133800 30673 net.cpp:408] relu1 <- ip1
I0430 21:21:53.133805 30673 net.cpp:369] relu1 -> ip1 (in-place)
I0430 21:21:53.133986 30673 net.cpp:124] Setting up relu1
I0430 21:21:53.133996 30673 net.cpp:131] Top shape: 1000 160 (160000)
I0430 21:21:53.133998 30673 net.cpp:139] Memory required for data: 96812000
I0430 21:21:53.134001 30673 layer_factory.hpp:77] Creating layer ip2
I0430 21:21:53.134008 30673 net.cpp:86] Creating Layer ip2
I0430 21:21:53.134012 30673 net.cpp:408] ip2 <- ip1
I0430 21:21:53.134018 30673 net.cpp:382] ip2 -> ip2
I0430 21:21:53.134166 30673 net.cpp:124] Setting up ip2
I0430 21:21:53.134174 30673 net.cpp:131] Top shape: 1000 10 (10000)
I0430 21:21:53.134177 30673 net.cpp:139] Memory required for data: 96852000
I0430 21:21:53.134184 30673 layer_factory.hpp:77] Creating layer ip2_ip2_0_split
I0430 21:21:53.134191 30673 net.cpp:86] Creating Layer ip2_ip2_0_split
I0430 21:21:53.134193 30673 net.cpp:408] ip2_ip2_0_split <- ip2
I0430 21:21:53.134197 30673 net.cpp:382] ip2_ip2_0_split -> ip2_ip2_0_split_0
I0430 21:21:53.134203 30673 net.cpp:382] ip2_ip2_0_split -> ip2_ip2_0_split_1
I0430 21:21:53.134234 30673 net.cpp:124] Setting up ip2_ip2_0_split
I0430 21:21:53.134239 30673 net.cpp:131] Top shape: 1000 10 (10000)
I0430 21:21:53.134243 30673 net.cpp:131] Top shape: 1000 10 (10000)
I0430 21:21:53.134245 30673 net.cpp:139] Memory required for data: 96932000
I0430 21:21:53.134248 30673 layer_factory.hpp:77] Creating layer accuracy
I0430 21:21:53.134254 30673 net.cpp:86] Creating Layer accuracy
I0430 21:21:53.134258 30673 net.cpp:408] accuracy <- ip2_ip2_0_split_0
I0430 21:21:53.134270 30673 net.cpp:408] accuracy <- label_cifar_1_split_0
I0430 21:21:53.134274 30673 net.cpp:382] accuracy -> accuracy
…
