…
I0501 05:24:16.600868 28934 net.cpp:296] The NetState phase (0) differed from the phase (1) specified by a rule in layer cifar
I0501 05:24:16.600888 28934 net.cpp:296] The NetState phase (0) differed from the phase (1) specified by a rule in layer accuracy
I0501 05:24:16.600994 28934 net.cpp:53] Initializing net from parameters: 
name: "CIFAR"
state {
  phase: TRAIN
  level: 0
  stage: ""
}
layer {
  name: "cifar"
  type: "Data"
  top: "data"
  top: "label"
  include {
    phase: TRAIN
  }
  transform_param {
    mean_file: "examples/cifar10/mean.binaryproto"
  }
  data_param {
    source: "examples/cifar10/cifar10_train_lmdb"
    batch_size: 111
    backend: LMDB
  }
}
layer {
  name: "conv0"
  type: "Convolution"
  bottom: "data"
  top: "conv0"
  param {
    lr_mult: 1
  }
  param {
    lr_mult: 2
  }
  convolution_param {
    num_output: 8
    pad: 2
    kernel_size: 5
    stride: 1
    weight_filler {
      type: "gaussian"
      std: 0.01
    }
    bias_filler {
      type: "constant"
    }
  }
}
layer {
  name: "Sigmoid0"
  type: "Sigmoid"
  bottom: "conv0"
  top: "Sigmoid0"
}
layer {
  name: "pool0"
  type: "Pooling"
  bottom: "Sigmoid0"
  top: "pool0"
  pooling_param {
    pool: AVE
    kernel_size: 3
    stride: 2
  }
}
layer {
  name: "ip1"
  type: "InnerProduct"
  bottom: "pool0"
  top: "ip1"
  param {
    lr_mult: 1
  }
  param {
    lr_mult: 2
  }
  inner_product_param {
    num_output: 80
    weight_filler {
      type: "gaussian"
      std: 0.01
    }
    bias_filler {
      type: "constant"
    }
  }
}
layer {
  name: "relu1"
  type: "ReLU"
  bottom: "ip1"
  top: "ip1"
}
layer {
  name: "ip2"
  type: "InnerProduct"
  bottom: "ip1"
  top: "ip2"
  param {
    lr_mult: 1
  }
  param {
    lr_mult: 2
  }
  inner_product_param {
    num_output: 10
    weight_filler {
      type: "gaussian"
      std: 0.01
    }
    bias_filler {
      type: "constant"
    }
  }
}
layer {
  name: "relu2"
  type: "ReLU"
  bottom: "ip2"
  top: "ip2"
}
layer {
  name: "ip3"
  type: "InnerProduct"
  bottom: "ip2"
  top: "ip3"
  param {
    lr_mult: 1
  }
  param {
    lr_mult: 2
  }
  inner_product_param {
    num_output: 40
    weight_filler {
      type: "gaussian"
      std: 0.01
    }
    bias_filler {
      type: "constant"
    }
  }
}
layer {
  name: "relu3"
  type: "ReLU"
  bottom: "ip3"
  top: "ip3"
}
layer {
  name: "ip4"
  type: "InnerProduct"
  bottom: "ip3"
  top: "ip4"
  param {
    lr_mult: 1
  }
  param {
    lr_mult: 2
  }
  inner_product_param {
    num_output: 10
    weight_filler {
      type: "gaussian"
      std: 0.01
    }
    bias_filler {
      type: "constant"
    }
  }
}
layer {
  name: "loss"
  type: "SoftmaxWithLoss"
  bottom: "ip4"
  bottom: "label"
  top: "loss"
}
I0501 05:24:16.601074 28934 layer_factory.hpp:77] Creating layer cifar
I0501 05:24:16.601176 28934 db_lmdb.cpp:35] Opened lmdb examples/cifar10/cifar10_train_lmdb
I0501 05:24:16.601202 28934 net.cpp:86] Creating Layer cifar
I0501 05:24:16.601212 28934 net.cpp:382] cifar -> data
I0501 05:24:16.601234 28934 net.cpp:382] cifar -> label
I0501 05:24:16.601246 28934 data_transformer.cpp:25] Loading mean file from: examples/cifar10/mean.binaryproto
I0501 05:24:16.603348 28934 data_layer.cpp:45] output data size: 111,3,32,32
I0501 05:24:16.611233 28934 net.cpp:124] Setting up cifar
I0501 05:24:16.611254 28934 net.cpp:131] Top shape: 111 3 32 32 (340992)
I0501 05:24:16.611260 28934 net.cpp:131] Top shape: 111 (111)
I0501 05:24:16.611264 28934 net.cpp:139] Memory required for data: 1364412
I0501 05:24:16.611287 28934 layer_factory.hpp:77] Creating layer conv0
I0501 05:24:16.611307 28934 net.cpp:86] Creating Layer conv0
I0501 05:24:16.611313 28934 net.cpp:408] conv0 <- data
I0501 05:24:16.611330 28934 net.cpp:382] conv0 -> conv0
I0501 05:24:16.893337 28934 net.cpp:124] Setting up conv0
I0501 05:24:16.893379 28934 net.cpp:131] Top shape: 111 8 32 32 (909312)
I0501 05:24:16.893384 28934 net.cpp:139] Memory required for data: 5001660
I0501 05:24:16.893414 28934 layer_factory.hpp:77] Creating layer Sigmoid0
I0501 05:24:16.893425 28934 net.cpp:86] Creating Layer Sigmoid0
I0501 05:24:16.893445 28934 net.cpp:408] Sigmoid0 <- conv0
I0501 05:24:16.893450 28934 net.cpp:382] Sigmoid0 -> Sigmoid0
I0501 05:24:16.893622 28934 net.cpp:124] Setting up Sigmoid0
I0501 05:24:16.893633 28934 net.cpp:131] Top shape: 111 8 32 32 (909312)
I0501 05:24:16.893636 28934 net.cpp:139] Memory required for data: 8638908
I0501 05:24:16.893640 28934 layer_factory.hpp:77] Creating layer pool0
I0501 05:24:16.893646 28934 net.cpp:86] Creating Layer pool0
I0501 05:24:16.893651 28934 net.cpp:408] pool0 <- Sigmoid0
I0501 05:24:16.893654 28934 net.cpp:382] pool0 -> pool0
I0501 05:24:16.894415 28934 net.cpp:124] Setting up pool0
I0501 05:24:16.894444 28934 net.cpp:131] Top shape: 111 8 16 16 (227328)
I0501 05:24:16.894448 28934 net.cpp:139] Memory required for data: 9548220
I0501 05:24:16.894453 28934 layer_factory.hpp:77] Creating layer ip1
I0501 05:24:16.894461 28934 net.cpp:86] Creating Layer ip1
I0501 05:24:16.894465 28934 net.cpp:408] ip1 <- pool0
I0501 05:24:16.894470 28934 net.cpp:382] ip1 -> ip1
I0501 05:24:16.899031 28934 net.cpp:124] Setting up ip1
I0501 05:24:16.899040 28934 net.cpp:131] Top shape: 111 80 (8880)
I0501 05:24:16.899044 28934 net.cpp:139] Memory required for data: 9583740
I0501 05:24:16.899050 28934 layer_factory.hpp:77] Creating layer relu1
I0501 05:24:16.899056 28934 net.cpp:86] Creating Layer relu1
I0501 05:24:16.899060 28934 net.cpp:408] relu1 <- ip1
I0501 05:24:16.899063 28934 net.cpp:369] relu1 -> ip1 (in-place)
I0501 05:24:16.899237 28934 net.cpp:124] Setting up relu1
I0501 05:24:16.899246 28934 net.cpp:131] Top shape: 111 80 (8880)
I0501 05:24:16.899250 28934 net.cpp:139] Memory required for data: 9619260
I0501 05:24:16.899252 28934 layer_factory.hpp:77] Creating layer ip2
I0501 05:24:16.899258 28934 net.cpp:86] Creating Layer ip2
I0501 05:24:16.899262 28934 net.cpp:408] ip2 <- ip1
I0501 05:24:16.899266 28934 net.cpp:382] ip2 -> ip2
I0501 05:24:16.899379 28934 net.cpp:124] Setting up ip2
I0501 05:24:16.899386 28934 net.cpp:131] Top shape: 111 10 (1110)
I0501 05:24:16.899389 28934 net.cpp:139] Memory required for data: 9623700
I0501 05:24:16.899397 28934 layer_factory.hpp:77] Creating layer relu2
I0501 05:24:16.899402 28934 net.cpp:86] Creating Layer relu2
I0501 05:24:16.899405 28934 net.cpp:408] relu2 <- ip2
I0501 05:24:16.899410 28934 net.cpp:369] relu2 -> ip2 (in-place)
I0501 05:24:16.899560 28934 net.cpp:124] Setting up relu2
I0501 05:24:16.899569 28934 net.cpp:131] Top shape: 111 10 (1110)
I0501 05:24:16.899571 28934 net.cpp:139] Memory required for data: 9628140
I0501 05:24:16.899574 28934 layer_factory.hpp:77] Creating layer ip3
I0501 05:24:16.899581 28934 net.cpp:86] Creating Layer ip3
I0501 05:24:16.899585 28934 net.cpp:408] ip3 <- ip2
I0501 05:24:16.899590 28934 net.cpp:382] ip3 -> ip3
I0501 05:24:16.899713 28934 net.cpp:124] Setting up ip3
I0501 05:24:16.899721 28934 net.cpp:131] Top shape: 111 40 (4440)
I0501 05:24:16.899727 28934 net.cpp:139] Memory required for data: 9645900
I0501 05:24:16.899734 28934 layer_factory.hpp:77] Creating layer relu3
I0501 05:24:16.899739 28934 net.cpp:86] Creating Layer relu3
I0501 05:24:16.899741 28934 net.cpp:408] relu3 <- ip3
I0501 05:24:16.899745 28934 net.cpp:369] relu3 -> ip3 (in-place)
I0501 05:24:16.899897 28934 net.cpp:124] Setting up relu3
I0501 05:24:16.899906 28934 net.cpp:131] Top shape: 111 40 (4440)
I0501 05:24:16.899909 28934 net.cpp:139] Memory required for data: 9663660
I0501 05:24:16.899912 28934 layer_factory.hpp:77] Creating layer ip4
I0501 05:24:16.899935 28934 net.cpp:86] Creating Layer ip4
I0501 05:24:16.899937 28934 net.cpp:408] ip4 <- ip3
I0501 05:24:16.899943 28934 net.cpp:382] ip4 -> ip4
I0501 05:24:16.900063 28934 net.cpp:124] Setting up ip4
I0501 05:24:16.900070 28934 net.cpp:131] Top shape: 111 10 (1110)
I0501 05:24:16.900074 28934 net.cpp:139] Memory required for data: 9668100
I0501 05:24:16.900081 28934 layer_factory.hpp:77] Creating layer loss
I0501 05:24:16.900087 28934 net.cpp:86] Creating Layer loss
I0501 05:24:16.900090 28934 net.cpp:408] loss <- ip4
I0501 05:24:16.900094 28934 net.cpp:408] loss <- label
I0501 05:24:16.900099 28934 net.cpp:382] loss -> loss
I0501 05:24:16.900118 28934 layer_factory.hpp:77] Creating layer loss
…
I0501 05:24:16.901407 28934 solver.cpp:173] Creating test net (#0) specified by net file: ECE595/cifar/train_test/var_everything/cifar_train_test_417.prototxt
I0501 05:24:16.901435 28934 net.cpp:296] The NetState phase (1) differed from the phase (0) specified by a rule in layer cifar
I0501 05:24:16.901533 28934 net.cpp:53] Initializing net from parameters: 
name: "CIFAR"
state {
  phase: TEST
}
layer {
  name: "cifar"
  type: "Data"
  top: "data"
  top: "label"
  include {
    phase: TEST
  }
  transform_param {
    mean_file: "examples/cifar10/mean.binaryproto"
  }
  data_param {
    source: "examples/cifar10/cifar10_test_lmdb"
    batch_size: 1000
    backend: LMDB
  }
}
layer {
  name: "conv0"
  type: "Convolution"
  bottom: "data"
  top: "conv0"
  param {
    lr_mult: 1
  }
  param {
    lr_mult: 2
  }
  convolution_param {
    num_output: 8
    pad: 2
    kernel_size: 5
    stride: 1
    weight_filler {
      type: "gaussian"
      std: 0.01
    }
    bias_filler {
      type: "constant"
    }
  }
}
layer {
  name: "Sigmoid0"
  type: "Sigmoid"
  bottom: "conv0"
  top: "Sigmoid0"
}
layer {
  name: "pool0"
  type: "Pooling"
  bottom: "Sigmoid0"
  top: "pool0"
  pooling_param {
    pool: AVE
    kernel_size: 3
    stride: 2
  }
}
layer {
  name: "ip1"
  type: "InnerProduct"
  bottom: "pool0"
  top: "ip1"
  param {
    lr_mult: 1
  }
  param {
    lr_mult: 2
  }
  inner_product_param {
    num_output: 80
    weight_filler {
      type: "gaussian"
      std: 0.01
    }
    bias_filler {
      type: "constant"
    }
  }
}
layer {
  name: "relu1"
  type: "ReLU"
  bottom: "ip1"
  top: "ip1"
}
layer {
  name: "ip2"
  type: "InnerProduct"
  bottom: "ip1"
  top: "ip2"
  param {
    lr_mult: 1
  }
  param {
    lr_mult: 2
  }
  inner_product_param {
    num_output: 10
    weight_filler {
      type: "gaussian"
      std: 0.01
    }
    bias_filler {
      type: "constant"
    }
  }
}
layer {
  name: "relu2"
  type: "ReLU"
  bottom: "ip2"
  top: "ip2"
}
layer {
  name: "ip3"
  type: "InnerProduct"
  bottom: "ip2"
  top: "ip3"
  param {
    lr_mult: 1
  }
  param {
    lr_mult: 2
  }
  inner_product_param {
    num_output: 40
    weight_filler {
      type: "gaussian"
      std: 0.01
    }
    bias_filler {
      type: "constant"
    }
  }
}
layer {
  name: "relu3"
  type: "ReLU"
  bottom: "ip3"
  top: "ip3"
}
layer {
  name: "ip4"
  type: "InnerProduct"
  bottom: "ip3"
  top: "ip4"
  param {
    lr_mult: 1
  }
  param {
    lr_mult: 2
  }
  inner_product_param {
    num_output: 10
    weight_filler {
      type: "gaussian"
      std: 0.01
    }
    bias_filler {
      type: "constant"
    }
  }
}
layer {
  name: "accuracy"
  type: "Accuracy"
  bottom: "ip4"
  bottom: "label"
  top: "accuracy"
  include {
    phase: TEST
  }
}
layer {
  name: "loss"
  type: "SoftmaxWithLoss"
  bottom: "ip4"
  bottom: "label"
  top: "loss"
}
I0501 05:24:16.901613 28934 layer_factory.hpp:77] Creating layer cifar
I0501 05:24:16.901660 28934 db_lmdb.cpp:35] Opened lmdb examples/cifar10/cifar10_test_lmdb
I0501 05:24:16.901674 28934 net.cpp:86] Creating Layer cifar
I0501 05:24:16.901679 28934 net.cpp:382] cifar -> data
I0501 05:24:16.901686 28934 net.cpp:382] cifar -> label
I0501 05:24:16.901693 28934 data_transformer.cpp:25] Loading mean file from: examples/cifar10/mean.binaryproto
I0501 05:24:16.901862 28934 data_layer.cpp:45] output data size: 1000,3,32,32
I0501 05:24:16.924316 28934 net.cpp:124] Setting up cifar
I0501 05:24:16.924372 28934 net.cpp:131] Top shape: 1000 3 32 32 (3072000)
I0501 05:24:16.924379 28934 net.cpp:131] Top shape: 1000 (1000)
I0501 05:24:16.924382 28934 net.cpp:139] Memory required for data: 12292000
I0501 05:24:16.924389 28934 layer_factory.hpp:77] Creating layer label_cifar_1_split
I0501 05:24:16.924413 28934 net.cpp:86] Creating Layer label_cifar_1_split
I0501 05:24:16.924432 28934 net.cpp:408] label_cifar_1_split <- label
I0501 05:24:16.924438 28934 net.cpp:382] label_cifar_1_split -> label_cifar_1_split_0
I0501 05:24:16.924448 28934 net.cpp:382] label_cifar_1_split -> label_cifar_1_split_1
I0501 05:24:16.924553 28934 net.cpp:124] Setting up label_cifar_1_split
I0501 05:24:16.924561 28934 net.cpp:131] Top shape: 1000 (1000)
I0501 05:24:16.924566 28934 net.cpp:131] Top shape: 1000 (1000)
I0501 05:24:16.924569 28934 net.cpp:139] Memory required for data: 12300000
I0501 05:24:16.924572 28934 layer_factory.hpp:77] Creating layer conv0
I0501 05:24:16.924587 28934 net.cpp:86] Creating Layer conv0
I0501 05:24:16.924605 28934 net.cpp:408] conv0 <- data
I0501 05:24:16.924612 28934 net.cpp:382] conv0 -> conv0
I0501 05:24:16.926295 28934 net.cpp:124] Setting up conv0
I0501 05:24:16.926309 28934 net.cpp:131] Top shape: 1000 8 32 32 (8192000)
I0501 05:24:16.926329 28934 net.cpp:139] Memory required for data: 45068000
I0501 05:24:16.926342 28934 layer_factory.hpp:77] Creating layer Sigmoid0
I0501 05:24:16.926350 28934 net.cpp:86] Creating Layer Sigmoid0
I0501 05:24:16.926353 28934 net.cpp:408] Sigmoid0 <- conv0
I0501 05:24:16.926359 28934 net.cpp:382] Sigmoid0 -> Sigmoid0
I0501 05:24:16.927572 28934 net.cpp:124] Setting up Sigmoid0
I0501 05:24:16.927583 28934 net.cpp:131] Top shape: 1000 8 32 32 (8192000)
I0501 05:24:16.927603 28934 net.cpp:139] Memory required for data: 77836000
I0501 05:24:16.927605 28934 layer_factory.hpp:77] Creating layer pool0
I0501 05:24:16.927615 28934 net.cpp:86] Creating Layer pool0
I0501 05:24:16.927618 28934 net.cpp:408] pool0 <- Sigmoid0
I0501 05:24:16.927623 28934 net.cpp:382] pool0 -> pool0
I0501 05:24:16.927822 28934 net.cpp:124] Setting up pool0
I0501 05:24:16.927834 28934 net.cpp:131] Top shape: 1000 8 16 16 (2048000)
I0501 05:24:16.927837 28934 net.cpp:139] Memory required for data: 86028000
I0501 05:24:16.927840 28934 layer_factory.hpp:77] Creating layer ip1
I0501 05:24:16.927848 28934 net.cpp:86] Creating Layer ip1
I0501 05:24:16.927852 28934 net.cpp:408] ip1 <- pool0
I0501 05:24:16.927858 28934 net.cpp:382] ip1 -> ip1
I0501 05:24:16.932746 28934 net.cpp:124] Setting up ip1
I0501 05:24:16.932755 28934 net.cpp:131] Top shape: 1000 80 (80000)
I0501 05:24:16.932773 28934 net.cpp:139] Memory required for data: 86348000
I0501 05:24:16.932798 28934 layer_factory.hpp:77] Creating layer relu1
I0501 05:24:16.932804 28934 net.cpp:86] Creating Layer relu1
I0501 05:24:16.932808 28934 net.cpp:408] relu1 <- ip1
I0501 05:24:16.932833 28934 net.cpp:369] relu1 -> ip1 (in-place)
I0501 05:24:16.933023 28934 net.cpp:124] Setting up relu1
I0501 05:24:16.933033 28934 net.cpp:131] Top shape: 1000 80 (80000)
I0501 05:24:16.933037 28934 net.cpp:139] Memory required for data: 86668000
I0501 05:24:16.933040 28934 layer_factory.hpp:77] Creating layer ip2
I0501 05:24:16.933055 28934 net.cpp:86] Creating Layer ip2
I0501 05:24:16.933059 28934 net.cpp:408] ip2 <- ip1
I0501 05:24:16.933064 28934 net.cpp:382] ip2 -> ip2
I0501 05:24:16.933208 28934 net.cpp:124] Setting up ip2
I0501 05:24:16.933217 28934 net.cpp:131] Top shape: 1000 10 (10000)
I0501 05:24:16.933220 28934 net.cpp:139] Memory required for data: 86708000
I0501 05:24:16.933229 28934 layer_factory.hpp:77] Creating layer relu2
I0501 05:24:16.933239 28934 net.cpp:86] Creating Layer relu2
I0501 05:24:16.933243 28934 net.cpp:408] relu2 <- ip2
I0501 05:24:16.933246 28934 net.cpp:369] relu2 -> ip2 (in-place)
I0501 05:24:16.934092 28934 net.cpp:124] Setting up relu2
I0501 05:24:16.934120 28934 net.cpp:131] Top shape: 1000 10 (10000)
I0501 05:24:16.934124 28934 net.cpp:139] Memory required for data: 86748000
I0501 05:24:16.934128 28934 layer_factory.hpp:77] Creating layer ip3
I0501 05:24:16.934136 28934 net.cpp:86] Creating Layer ip3
I0501 05:24:16.934140 28934 net.cpp:408] ip3 <- ip2
I0501 05:24:16.934147 28934 net.cpp:382] ip3 -> ip3
I0501 05:24:16.934296 28934 net.cpp:124] Setting up ip3
I0501 05:24:16.934304 28934 net.cpp:131] Top shape: 1000 40 (40000)
I0501 05:24:16.934309 28934 net.cpp:139] Memory required for data: 86908000
I0501 05:24:16.934315 28934 layer_factory.hpp:77] Creating layer relu3
I0501 05:24:16.934320 28934 net.cpp:86] Creating Layer relu3
I0501 05:24:16.934324 28934 net.cpp:408] relu3 <- ip3
I0501 05:24:16.934329 28934 net.cpp:369] relu3 -> ip3 (in-place)
I0501 05:24:16.934505 28934 net.cpp:124] Setting up relu3
I0501 05:24:16.934514 28934 net.cpp:131] Top shape: 1000 40 (40000)
I0501 05:24:16.934517 28934 net.cpp:139] Memory required for data: 87068000
I0501 05:24:16.934520 28934 layer_factory.hpp:77] Creating layer ip4
I0501 05:24:16.934527 28934 net.cpp:86] Creating Layer ip4
I0501 05:24:16.934530 28934 net.cpp:408] ip4 <- ip3
I0501 05:24:16.934537 28934 net.cpp:382] ip4 -> ip4
I0501 05:24:16.934664 28934 net.cpp:124] Setting up ip4
I0501 05:24:16.934672 28934 net.cpp:131] Top shape: 1000 10 (10000)
I0501 05:24:16.934682 28934 net.cpp:139] Memory required for data: 87108000
I0501 05:24:16.934690 28934 layer_factory.hpp:77] Creating layer ip4_ip4_0_split
I0501 05:24:16.934696 28934 net.cpp:86] Creating Layer ip4_ip4_0_split
I0501 05:24:16.934700 28934 net.cpp:408] ip4_ip4_0_split <- ip4
I0501 05:24:16.934706 28934 net.cpp:382] ip4_ip4_0_split -> ip4_ip4_0_split_0
I0501 05:24:16.934712 28934 net.cpp:382] ip4_ip4_0_split -> ip4_ip4_0_split_1
I0501 05:24:16.934747 28934 net.cpp:124] Setting up ip4_ip4_0_split
I0501 05:24:16.934756 28934 net.cpp:131] Top shape: 1000 10 (10000)
I0501 05:24:16.934761 28934 net.cpp:131] Top shape: 1000 10 (10000)
I0501 05:24:16.934763 28934 net.cpp:139] Memory required for data: 87188000
I0501 05:24:16.934767 28934 layer_factory.hpp:77] Creating layer accuracy
I0501 05:24:16.934773 28934 net.cpp:86] Creating Layer accuracy
I0501 05:24:16.934777 28934 net.cpp:408] accuracy <- ip4_ip4_0_split_0
I0501 05:24:16.934780 28934 net.cpp:408] accuracy <- label_cifar_1_split_0
I0501 05:24:16.934785 28934 net.cpp:382] accuracy -> accuracy
…
