…
I0430 19:10:29.589860 25353 net.cpp:296] The NetState phase (0) differed from the phase (1) specified by a rule in layer cifar
I0430 19:10:29.589877 25353 net.cpp:296] The NetState phase (0) differed from the phase (1) specified by a rule in layer accuracy
I0430 19:10:29.589962 25353 net.cpp:53] Initializing net from parameters: 
name: "CIFAR"
state {
  phase: TRAIN
  level: 0
  stage: ""
}
layer {
  name: "cifar"
  type: "Data"
  top: "data"
  top: "label"
  include {
    phase: TRAIN
  }
  transform_param {
    mean_file: "examples/cifar10/mean.binaryproto"
  }
  data_param {
    source: "examples/cifar10/cifar10_train_lmdb"
    batch_size: 111
    backend: LMDB
  }
}
layer {
  name: "ip1"
  type: "InnerProduct"
  bottom: "data"
  top: "ip1"
  param {
    lr_mult: 1
  }
  param {
    lr_mult: 2
  }
  inner_product_param {
    num_output: 40
    weight_filler {
      type: "gaussian"
      std: 0.01
    }
    bias_filler {
      type: "constant"
    }
  }
}
layer {
  name: "relu1"
  type: "ReLU"
  bottom: "ip1"
  top: "ip1"
}
layer {
  name: "ip2"
  type: "InnerProduct"
  bottom: "ip1"
  top: "ip2"
  param {
    lr_mult: 1
  }
  param {
    lr_mult: 2
  }
  inner_product_param {
    num_output: 20
    weight_filler {
      type: "gaussian"
      std: 0.01
    }
    bias_filler {
      type: "constant"
    }
  }
}
layer {
  name: "relu2"
  type: "ReLU"
  bottom: "ip2"
  top: "ip2"
}
layer {
  name: "ip3"
  type: "InnerProduct"
  bottom: "ip2"
  top: "ip3"
  param {
    lr_mult: 1
  }
  param {
    lr_mult: 2
  }
  inner_product_param {
    num_output: 160
    weight_filler {
      type: "gaussian"
      std: 0.01
    }
    bias_filler {
      type: "constant"
    }
  }
}
layer {
  name: "relu3"
  type: "ReLU"
  bottom: "ip3"
  top: "ip3"
}
layer {
  name: "ip4"
  type: "InnerProduct"
  bottom: "ip3"
  top: "ip4"
  param {
    lr_mult: 1
  }
  param {
    lr_mult: 2
  }
  inner_product_param {
    num_output: 10
    weight_filler {
      type: "gaussian"
      std: 0.01
    }
    bias_filler {
      type: "constant"
    }
  }
}
layer {
  name: "loss"
  type: "SoftmaxWithLoss"
  bottom: "ip4"
  bottom: "label"
  top: "loss"
}
I0430 19:10:29.590040 25353 layer_factory.hpp:77] Creating layer cifar
I0430 19:10:29.590142 25353 db_lmdb.cpp:35] Opened lmdb examples/cifar10/cifar10_train_lmdb
I0430 19:10:29.590171 25353 net.cpp:86] Creating Layer cifar
I0430 19:10:29.590179 25353 net.cpp:382] cifar -> data
I0430 19:10:29.590201 25353 net.cpp:382] cifar -> label
I0430 19:10:29.590214 25353 data_transformer.cpp:25] Loading mean file from: examples/cifar10/mean.binaryproto
I0430 19:10:29.592331 25353 data_layer.cpp:45] output data size: 111,3,32,32
I0430 19:10:29.600275 25353 net.cpp:124] Setting up cifar
I0430 19:10:29.600294 25353 net.cpp:131] Top shape: 111 3 32 32 (340992)
I0430 19:10:29.600302 25353 net.cpp:131] Top shape: 111 (111)
I0430 19:10:29.600306 25353 net.cpp:139] Memory required for data: 1364412
I0430 19:10:29.600314 25353 layer_factory.hpp:77] Creating layer ip1
I0430 19:10:29.600325 25353 net.cpp:86] Creating Layer ip1
I0430 19:10:29.600330 25353 net.cpp:408] ip1 <- data
I0430 19:10:29.600342 25353 net.cpp:382] ip1 -> ip1
I0430 19:10:29.604863 25353 net.cpp:124] Setting up ip1
I0430 19:10:29.604877 25353 net.cpp:131] Top shape: 111 40 (4440)
I0430 19:10:29.604882 25353 net.cpp:139] Memory required for data: 1382172
I0430 19:10:29.604894 25353 layer_factory.hpp:77] Creating layer relu1
I0430 19:10:29.604904 25353 net.cpp:86] Creating Layer relu1
I0430 19:10:29.604924 25353 net.cpp:408] relu1 <- ip1
I0430 19:10:29.604930 25353 net.cpp:369] relu1 -> ip1 (in-place)
I0430 19:10:29.886135 25353 net.cpp:124] Setting up relu1
I0430 19:10:29.886163 25353 net.cpp:131] Top shape: 111 40 (4440)
I0430 19:10:29.886168 25353 net.cpp:139] Memory required for data: 1399932
I0430 19:10:29.886173 25353 layer_factory.hpp:77] Creating layer ip2
I0430 19:10:29.886185 25353 net.cpp:86] Creating Layer ip2
I0430 19:10:29.886191 25353 net.cpp:408] ip2 <- ip1
I0430 19:10:29.886199 25353 net.cpp:382] ip2 -> ip2
I0430 19:10:29.887192 25353 net.cpp:124] Setting up ip2
I0430 19:10:29.887205 25353 net.cpp:131] Top shape: 111 20 (2220)
I0430 19:10:29.887208 25353 net.cpp:139] Memory required for data: 1408812
I0430 19:10:29.887218 25353 layer_factory.hpp:77] Creating layer relu2
I0430 19:10:29.887226 25353 net.cpp:86] Creating Layer relu2
I0430 19:10:29.887229 25353 net.cpp:408] relu2 <- ip2
I0430 19:10:29.887234 25353 net.cpp:369] relu2 -> ip2 (in-place)
I0430 19:10:29.887959 25353 net.cpp:124] Setting up relu2
I0430 19:10:29.887970 25353 net.cpp:131] Top shape: 111 20 (2220)
I0430 19:10:29.887974 25353 net.cpp:139] Memory required for data: 1417692
I0430 19:10:29.887977 25353 layer_factory.hpp:77] Creating layer ip3
I0430 19:10:29.887984 25353 net.cpp:86] Creating Layer ip3
I0430 19:10:29.887987 25353 net.cpp:408] ip3 <- ip2
I0430 19:10:29.887994 25353 net.cpp:382] ip3 -> ip3
I0430 19:10:29.888219 25353 net.cpp:124] Setting up ip3
I0430 19:10:29.888227 25353 net.cpp:131] Top shape: 111 160 (17760)
I0430 19:10:29.888231 25353 net.cpp:139] Memory required for data: 1488732
I0430 19:10:29.888238 25353 layer_factory.hpp:77] Creating layer relu3
I0430 19:10:29.888243 25353 net.cpp:86] Creating Layer relu3
I0430 19:10:29.888247 25353 net.cpp:408] relu3 <- ip3
I0430 19:10:29.888252 25353 net.cpp:369] relu3 -> ip3 (in-place)
I0430 19:10:29.888403 25353 net.cpp:124] Setting up relu3
I0430 19:10:29.888411 25353 net.cpp:131] Top shape: 111 160 (17760)
I0430 19:10:29.888414 25353 net.cpp:139] Memory required for data: 1559772
I0430 19:10:29.888418 25353 layer_factory.hpp:77] Creating layer ip4
I0430 19:10:29.888424 25353 net.cpp:86] Creating Layer ip4
I0430 19:10:29.888427 25353 net.cpp:408] ip4 <- ip3
I0430 19:10:29.888432 25353 net.cpp:382] ip4 -> ip4
I0430 19:10:29.888582 25353 net.cpp:124] Setting up ip4
I0430 19:10:29.888589 25353 net.cpp:131] Top shape: 111 10 (1110)
I0430 19:10:29.888592 25353 net.cpp:139] Memory required for data: 1564212
I0430 19:10:29.888597 25353 layer_factory.hpp:77] Creating layer loss
I0430 19:10:29.888604 25353 net.cpp:86] Creating Layer loss
I0430 19:10:29.888607 25353 net.cpp:408] loss <- ip4
I0430 19:10:29.888612 25353 net.cpp:408] loss <- label
I0430 19:10:29.888617 25353 net.cpp:382] loss -> loss
I0430 19:10:29.888630 25353 layer_factory.hpp:77] Creating layer loss
…
I0430 19:10:29.889291 25353 solver.cpp:173] Creating test net (#0) specified by net file: ECE595/cifar/train_test/var_everything/cifar_train_test_89.prototxt
I0430 19:10:29.889331 25353 net.cpp:296] The NetState phase (1) differed from the phase (0) specified by a rule in layer cifar
I0430 19:10:29.889416 25353 net.cpp:53] Initializing net from parameters: 
name: "CIFAR"
state {
  phase: TEST
}
layer {
  name: "cifar"
  type: "Data"
  top: "data"
  top: "label"
  include {
    phase: TEST
  }
  transform_param {
    mean_file: "examples/cifar10/mean.binaryproto"
  }
  data_param {
    source: "examples/cifar10/cifar10_test_lmdb"
    batch_size: 1000
    backend: LMDB
  }
}
layer {
  name: "ip1"
  type: "InnerProduct"
  bottom: "data"
  top: "ip1"
  param {
    lr_mult: 1
  }
  param {
    lr_mult: 2
  }
  inner_product_param {
    num_output: 40
    weight_filler {
      type: "gaussian"
      std: 0.01
    }
    bias_filler {
      type: "constant"
    }
  }
}
layer {
  name: "relu1"
  type: "ReLU"
  bottom: "ip1"
  top: "ip1"
}
layer {
  name: "ip2"
  type: "InnerProduct"
  bottom: "ip1"
  top: "ip2"
  param {
    lr_mult: 1
  }
  param {
    lr_mult: 2
  }
  inner_product_param {
    num_output: 20
    weight_filler {
      type: "gaussian"
      std: 0.01
    }
    bias_filler {
      type: "constant"
    }
  }
}
layer {
  name: "relu2"
  type: "ReLU"
  bottom: "ip2"
  top: "ip2"
}
layer {
  name: "ip3"
  type: "InnerProduct"
  bottom: "ip2"
  top: "ip3"
  param {
    lr_mult: 1
  }
  param {
    lr_mult: 2
  }
  inner_product_param {
    num_output: 160
    weight_filler {
      type: "gaussian"
      std: 0.01
    }
    bias_filler {
      type: "constant"
    }
  }
}
layer {
  name: "relu3"
  type: "ReLU"
  bottom: "ip3"
  top: "ip3"
}
layer {
  name: "ip4"
  type: "InnerProduct"
  bottom: "ip3"
  top: "ip4"
  param {
    lr_mult: 1
  }
  param {
    lr_mult: 2
  }
  inner_product_param {
    num_output: 10
    weight_filler {
      type: "gaussian"
      std: 0.01
    }
    bias_filler {
      type: "constant"
    }
  }
}
layer {
  name: "accuracy"
  type: "Accuracy"
  bottom: "ip4"
  bottom: "label"
  top: "accuracy"
  include {
    phase: TEST
  }
}
layer {
  name: "loss"
  type: "SoftmaxWithLoss"
  bottom: "ip4"
  bottom: "label"
  top: "loss"
}
I0430 19:10:29.889482 25353 layer_factory.hpp:77] Creating layer cifar
I0430 19:10:29.889541 25353 db_lmdb.cpp:35] Opened lmdb examples/cifar10/cifar10_test_lmdb
I0430 19:10:29.889552 25353 net.cpp:86] Creating Layer cifar
I0430 19:10:29.889559 25353 net.cpp:382] cifar -> data
I0430 19:10:29.889566 25353 net.cpp:382] cifar -> label
I0430 19:10:29.889572 25353 data_transformer.cpp:25] Loading mean file from: examples/cifar10/mean.binaryproto
I0430 19:10:29.889719 25353 data_layer.cpp:45] output data size: 1000,3,32,32
I0430 19:10:29.912026 25353 net.cpp:124] Setting up cifar
I0430 19:10:29.912084 25353 net.cpp:131] Top shape: 1000 3 32 32 (3072000)
I0430 19:10:29.912091 25353 net.cpp:131] Top shape: 1000 (1000)
I0430 19:10:29.912094 25353 net.cpp:139] Memory required for data: 12292000
I0430 19:10:29.912099 25353 layer_factory.hpp:77] Creating layer label_cifar_1_split
I0430 19:10:29.912116 25353 net.cpp:86] Creating Layer label_cifar_1_split
I0430 19:10:29.912120 25353 net.cpp:408] label_cifar_1_split <- label
I0430 19:10:29.912127 25353 net.cpp:382] label_cifar_1_split -> label_cifar_1_split_0
I0430 19:10:29.912149 25353 net.cpp:382] label_cifar_1_split -> label_cifar_1_split_1
I0430 19:10:29.912238 25353 net.cpp:124] Setting up label_cifar_1_split
I0430 19:10:29.912246 25353 net.cpp:131] Top shape: 1000 (1000)
I0430 19:10:29.912250 25353 net.cpp:131] Top shape: 1000 (1000)
I0430 19:10:29.912253 25353 net.cpp:139] Memory required for data: 12300000
I0430 19:10:29.912256 25353 layer_factory.hpp:77] Creating layer ip1
I0430 19:10:29.912266 25353 net.cpp:86] Creating Layer ip1
I0430 19:10:29.912273 25353 net.cpp:408] ip1 <- data
I0430 19:10:29.912279 25353 net.cpp:382] ip1 -> ip1
I0430 19:10:29.915907 25353 net.cpp:124] Setting up ip1
I0430 19:10:29.915917 25353 net.cpp:131] Top shape: 1000 40 (40000)
I0430 19:10:29.915936 25353 net.cpp:139] Memory required for data: 12460000
I0430 19:10:29.915961 25353 layer_factory.hpp:77] Creating layer relu1
I0430 19:10:29.915968 25353 net.cpp:86] Creating Layer relu1
I0430 19:10:29.915972 25353 net.cpp:408] relu1 <- ip1
I0430 19:10:29.915992 25353 net.cpp:369] relu1 -> ip1 (in-place)
I0430 19:10:29.916857 25353 net.cpp:124] Setting up relu1
I0430 19:10:29.916870 25353 net.cpp:131] Top shape: 1000 40 (40000)
I0430 19:10:29.916889 25353 net.cpp:139] Memory required for data: 12620000
I0430 19:10:29.916893 25353 layer_factory.hpp:77] Creating layer ip2
I0430 19:10:29.916903 25353 net.cpp:86] Creating Layer ip2
I0430 19:10:29.916906 25353 net.cpp:408] ip2 <- ip1
I0430 19:10:29.916913 25353 net.cpp:382] ip2 -> ip2
I0430 19:10:29.917069 25353 net.cpp:124] Setting up ip2
I0430 19:10:29.917078 25353 net.cpp:131] Top shape: 1000 20 (20000)
I0430 19:10:29.917083 25353 net.cpp:139] Memory required for data: 12700000
I0430 19:10:29.917091 25353 layer_factory.hpp:77] Creating layer relu2
I0430 19:10:29.917098 25353 net.cpp:86] Creating Layer relu2
I0430 19:10:29.917100 25353 net.cpp:408] relu2 <- ip2
I0430 19:10:29.917104 25353 net.cpp:369] relu2 -> ip2 (in-place)
I0430 19:10:29.917304 25353 net.cpp:124] Setting up relu2
I0430 19:10:29.917312 25353 net.cpp:131] Top shape: 1000 20 (20000)
I0430 19:10:29.917316 25353 net.cpp:139] Memory required for data: 12780000
I0430 19:10:29.917320 25353 layer_factory.hpp:77] Creating layer ip3
I0430 19:10:29.917325 25353 net.cpp:86] Creating Layer ip3
I0430 19:10:29.917330 25353 net.cpp:408] ip3 <- ip2
I0430 19:10:29.917335 25353 net.cpp:382] ip3 -> ip3
I0430 19:10:29.917544 25353 net.cpp:124] Setting up ip3
I0430 19:10:29.917551 25353 net.cpp:131] Top shape: 1000 160 (160000)
I0430 19:10:29.917554 25353 net.cpp:139] Memory required for data: 13420000
I0430 19:10:29.917562 25353 layer_factory.hpp:77] Creating layer relu3
I0430 19:10:29.917568 25353 net.cpp:86] Creating Layer relu3
I0430 19:10:29.917572 25353 net.cpp:408] relu3 <- ip3
I0430 19:10:29.917577 25353 net.cpp:369] relu3 -> ip3 (in-place)
I0430 19:10:29.917737 25353 net.cpp:124] Setting up relu3
I0430 19:10:29.917747 25353 net.cpp:131] Top shape: 1000 160 (160000)
I0430 19:10:29.917749 25353 net.cpp:139] Memory required for data: 14060000
I0430 19:10:29.917752 25353 layer_factory.hpp:77] Creating layer ip4
I0430 19:10:29.917760 25353 net.cpp:86] Creating Layer ip4
I0430 19:10:29.917763 25353 net.cpp:408] ip4 <- ip3
I0430 19:10:29.917769 25353 net.cpp:382] ip4 -> ip4
I0430 19:10:29.917914 25353 net.cpp:124] Setting up ip4
I0430 19:10:29.917922 25353 net.cpp:131] Top shape: 1000 10 (10000)
I0430 19:10:29.917927 25353 net.cpp:139] Memory required for data: 14100000
I0430 19:10:29.917932 25353 layer_factory.hpp:77] Creating layer ip4_ip4_0_split
I0430 19:10:29.917938 25353 net.cpp:86] Creating Layer ip4_ip4_0_split
I0430 19:10:29.917942 25353 net.cpp:408] ip4_ip4_0_split <- ip4
I0430 19:10:29.917945 25353 net.cpp:382] ip4_ip4_0_split -> ip4_ip4_0_split_0
I0430 19:10:29.917951 25353 net.cpp:382] ip4_ip4_0_split -> ip4_ip4_0_split_1
I0430 19:10:29.917985 25353 net.cpp:124] Setting up ip4_ip4_0_split
I0430 19:10:29.917991 25353 net.cpp:131] Top shape: 1000 10 (10000)
I0430 19:10:29.917995 25353 net.cpp:131] Top shape: 1000 10 (10000)
I0430 19:10:29.917999 25353 net.cpp:139] Memory required for data: 14180000
I0430 19:10:29.918001 25353 layer_factory.hpp:77] Creating layer accuracy
I0430 19:10:29.918011 25353 net.cpp:86] Creating Layer accuracy
I0430 19:10:29.918015 25353 net.cpp:408] accuracy <- ip4_ip4_0_split_0
I0430 19:10:29.918018 25353 net.cpp:408] accuracy <- label_cifar_1_split_0
I0430 19:10:29.918025 25353 net.cpp:382] accuracy -> accuracy
…
