…
I0430 20:55:43.866586 29722 net.cpp:296] The NetState phase (0) differed from the phase (1) specified by a rule in layer cifar
I0430 20:55:43.866603 29722 net.cpp:296] The NetState phase (0) differed from the phase (1) specified by a rule in layer accuracy
I0430 20:55:43.866713 29722 net.cpp:53] Initializing net from parameters: 
name: "CIFAR"
state {
  phase: TRAIN
  level: 0
  stage: ""
}
layer {
  name: "cifar"
  type: "Data"
  top: "data"
  top: "label"
  include {
    phase: TRAIN
  }
  transform_param {
    mean_file: "examples/cifar10/mean.binaryproto"
  }
  data_param {
    source: "examples/cifar10/cifar10_train_lmdb"
    batch_size: 111
    backend: LMDB
  }
}
layer {
  name: "ip1"
  type: "InnerProduct"
  bottom: "data"
  top: "ip1"
  param {
    lr_mult: 1
  }
  param {
    lr_mult: 2
  }
  inner_product_param {
    num_output: 160
    weight_filler {
      type: "gaussian"
      std: 0.01
    }
    bias_filler {
      type: "constant"
    }
  }
}
layer {
  name: "relu1"
  type: "ReLU"
  bottom: "ip1"
  top: "ip1"
}
layer {
  name: "ip2"
  type: "InnerProduct"
  bottom: "ip1"
  top: "ip2"
  param {
    lr_mult: 1
  }
  param {
    lr_mult: 2
  }
  inner_product_param {
    num_output: 80
    weight_filler {
      type: "gaussian"
      std: 0.01
    }
    bias_filler {
      type: "constant"
    }
  }
}
layer {
  name: "relu2"
  type: "ReLU"
  bottom: "ip2"
  top: "ip2"
}
layer {
  name: "ip3"
  type: "InnerProduct"
  bottom: "ip2"
  top: "ip3"
  param {
    lr_mult: 1
  }
  param {
    lr_mult: 2
  }
  inner_product_param {
    num_output: 10
    weight_filler {
      type: "gaussian"
      std: 0.01
    }
    bias_filler {
      type: "constant"
    }
  }
}
layer {
  name: "relu3"
  type: "ReLU"
  bottom: "ip3"
  top: "ip3"
}
layer {
  name: "ip4"
  type: "InnerProduct"
  bottom: "ip3"
  top: "ip4"
  param {
    lr_mult: 1
  }
  param {
    lr_mult: 2
  }
  inner_product_param {
    num_output: 10
    weight_filler {
      type: "gaussian"
      std: 0.01
    }
    bias_filler {
      type: "constant"
    }
  }
}
layer {
  name: "loss"
  type: "SoftmaxWithLoss"
  bottom: "ip4"
  bottom: "label"
  top: "loss"
}
I0430 20:55:43.866802 29722 layer_factory.hpp:77] Creating layer cifar
I0430 20:55:43.866935 29722 db_lmdb.cpp:35] Opened lmdb examples/cifar10/cifar10_train_lmdb
I0430 20:55:43.866972 29722 net.cpp:86] Creating Layer cifar
I0430 20:55:43.866986 29722 net.cpp:382] cifar -> data
I0430 20:55:43.867017 29722 net.cpp:382] cifar -> label
I0430 20:55:43.867033 29722 data_transformer.cpp:25] Loading mean file from: examples/cifar10/mean.binaryproto
I0430 20:55:43.869321 29722 data_layer.cpp:45] output data size: 111,3,32,32
I0430 20:55:43.877194 29722 net.cpp:124] Setting up cifar
I0430 20:55:43.877214 29722 net.cpp:131] Top shape: 111 3 32 32 (340992)
I0430 20:55:43.877221 29722 net.cpp:131] Top shape: 111 (111)
I0430 20:55:43.877224 29722 net.cpp:139] Memory required for data: 1364412
I0430 20:55:43.877233 29722 layer_factory.hpp:77] Creating layer ip1
I0430 20:55:43.877243 29722 net.cpp:86] Creating Layer ip1
I0430 20:55:43.877249 29722 net.cpp:408] ip1 <- data
I0430 20:55:43.877262 29722 net.cpp:382] ip1 -> ip1
I0430 20:55:43.894556 29722 net.cpp:124] Setting up ip1
I0430 20:55:43.894572 29722 net.cpp:131] Top shape: 111 160 (17760)
I0430 20:55:43.894577 29722 net.cpp:139] Memory required for data: 1435452
I0430 20:55:43.894592 29722 layer_factory.hpp:77] Creating layer relu1
I0430 20:55:43.894616 29722 net.cpp:86] Creating Layer relu1
I0430 20:55:43.894621 29722 net.cpp:408] relu1 <- ip1
I0430 20:55:43.894626 29722 net.cpp:369] relu1 -> ip1 (in-place)
I0430 20:55:44.149034 29722 net.cpp:124] Setting up relu1
I0430 20:55:44.149060 29722 net.cpp:131] Top shape: 111 160 (17760)
I0430 20:55:44.149065 29722 net.cpp:139] Memory required for data: 1506492
I0430 20:55:44.149070 29722 layer_factory.hpp:77] Creating layer ip2
I0430 20:55:44.149082 29722 net.cpp:86] Creating Layer ip2
I0430 20:55:44.149086 29722 net.cpp:408] ip2 <- ip1
I0430 20:55:44.149093 29722 net.cpp:382] ip2 -> ip2
I0430 20:55:44.150486 29722 net.cpp:124] Setting up ip2
I0430 20:55:44.150499 29722 net.cpp:131] Top shape: 111 80 (8880)
I0430 20:55:44.150503 29722 net.cpp:139] Memory required for data: 1542012
I0430 20:55:44.150512 29722 layer_factory.hpp:77] Creating layer relu2
I0430 20:55:44.150540 29722 net.cpp:86] Creating Layer relu2
I0430 20:55:44.150547 29722 net.cpp:408] relu2 <- ip2
I0430 20:55:44.150553 29722 net.cpp:369] relu2 -> ip2 (in-place)
I0430 20:55:44.151279 29722 net.cpp:124] Setting up relu2
I0430 20:55:44.151291 29722 net.cpp:131] Top shape: 111 80 (8880)
I0430 20:55:44.151310 29722 net.cpp:139] Memory required for data: 1577532
I0430 20:55:44.151314 29722 layer_factory.hpp:77] Creating layer ip3
I0430 20:55:44.151320 29722 net.cpp:86] Creating Layer ip3
I0430 20:55:44.151324 29722 net.cpp:408] ip3 <- ip2
I0430 20:55:44.151329 29722 net.cpp:382] ip3 -> ip3
I0430 20:55:44.152281 29722 net.cpp:124] Setting up ip3
I0430 20:55:44.152293 29722 net.cpp:131] Top shape: 111 10 (1110)
I0430 20:55:44.152312 29722 net.cpp:139] Memory required for data: 1581972
I0430 20:55:44.152320 29722 layer_factory.hpp:77] Creating layer relu3
I0430 20:55:44.152325 29722 net.cpp:86] Creating Layer relu3
I0430 20:55:44.152328 29722 net.cpp:408] relu3 <- ip3
I0430 20:55:44.152333 29722 net.cpp:369] relu3 -> ip3 (in-place)
I0430 20:55:44.152516 29722 net.cpp:124] Setting up relu3
I0430 20:55:44.152525 29722 net.cpp:131] Top shape: 111 10 (1110)
I0430 20:55:44.152529 29722 net.cpp:139] Memory required for data: 1586412
I0430 20:55:44.152532 29722 layer_factory.hpp:77] Creating layer ip4
I0430 20:55:44.152541 29722 net.cpp:86] Creating Layer ip4
I0430 20:55:44.152546 29722 net.cpp:408] ip4 <- ip3
I0430 20:55:44.152554 29722 net.cpp:382] ip4 -> ip4
I0430 20:55:44.152659 29722 net.cpp:124] Setting up ip4
I0430 20:55:44.152667 29722 net.cpp:131] Top shape: 111 10 (1110)
I0430 20:55:44.152670 29722 net.cpp:139] Memory required for data: 1590852
I0430 20:55:44.152676 29722 layer_factory.hpp:77] Creating layer loss
I0430 20:55:44.152686 29722 net.cpp:86] Creating Layer loss
I0430 20:55:44.152691 29722 net.cpp:408] loss <- ip4
I0430 20:55:44.152698 29722 net.cpp:408] loss <- label
I0430 20:55:44.152705 29722 net.cpp:382] loss -> loss
I0430 20:55:44.152725 29722 layer_factory.hpp:77] Creating layer loss
…
I0430 20:55:44.153347 29722 solver.cpp:173] Creating test net (#0) specified by net file: ECE595/cifar/train_test/var_everything/cifar_train_test_145.prototxt
I0430 20:55:44.153383 29722 net.cpp:296] The NetState phase (1) differed from the phase (0) specified by a rule in layer cifar
I0430 20:55:44.153468 29722 net.cpp:53] Initializing net from parameters: 
name: "CIFAR"
state {
  phase: TEST
}
layer {
  name: "cifar"
  type: "Data"
  top: "data"
  top: "label"
  include {
    phase: TEST
  }
  transform_param {
    mean_file: "examples/cifar10/mean.binaryproto"
  }
  data_param {
    source: "examples/cifar10/cifar10_test_lmdb"
    batch_size: 1000
    backend: LMDB
  }
}
layer {
  name: "ip1"
  type: "InnerProduct"
  bottom: "data"
  top: "ip1"
  param {
    lr_mult: 1
  }
  param {
    lr_mult: 2
  }
  inner_product_param {
    num_output: 160
    weight_filler {
      type: "gaussian"
      std: 0.01
    }
    bias_filler {
      type: "constant"
    }
  }
}
layer {
  name: "relu1"
  type: "ReLU"
  bottom: "ip1"
  top: "ip1"
}
layer {
  name: "ip2"
  type: "InnerProduct"
  bottom: "ip1"
  top: "ip2"
  param {
    lr_mult: 1
  }
  param {
    lr_mult: 2
  }
  inner_product_param {
    num_output: 80
    weight_filler {
      type: "gaussian"
      std: 0.01
    }
    bias_filler {
      type: "constant"
    }
  }
}
layer {
  name: "relu2"
  type: "ReLU"
  bottom: "ip2"
  top: "ip2"
}
layer {
  name: "ip3"
  type: "InnerProduct"
  bottom: "ip2"
  top: "ip3"
  param {
    lr_mult: 1
  }
  param {
    lr_mult: 2
  }
  inner_product_param {
    num_output: 10
    weight_filler {
      type: "gaussian"
      std: 0.01
    }
    bias_filler {
      type: "constant"
    }
  }
}
layer {
  name: "relu3"
  type: "ReLU"
  bottom: "ip3"
  top: "ip3"
}
layer {
  name: "ip4"
  type: "InnerProduct"
  bottom: "ip3"
  top: "ip4"
  param {
    lr_mult: 1
  }
  param {
    lr_mult: 2
  }
  inner_product_param {
    num_output: 10
    weight_filler {
      type: "gaussian"
      std: 0.01
    }
    bias_filler {
      type: "constant"
    }
  }
}
layer {
  name: "accuracy"
  type: "Accuracy"
  bottom: "ip4"
  bottom: "label"
  top: "accuracy"
  include {
    phase: TEST
  }
}
layer {
  name: "loss"
  type: "SoftmaxWithLoss"
  bottom: "ip4"
  bottom: "label"
  top: "loss"
}
I0430 20:55:44.153563 29722 layer_factory.hpp:77] Creating layer cifar
I0430 20:55:44.153620 29722 db_lmdb.cpp:35] Opened lmdb examples/cifar10/cifar10_test_lmdb
I0430 20:55:44.153637 29722 net.cpp:86] Creating Layer cifar
I0430 20:55:44.153645 29722 net.cpp:382] cifar -> data
I0430 20:55:44.153656 29722 net.cpp:382] cifar -> label
I0430 20:55:44.153666 29722 data_transformer.cpp:25] Loading mean file from: examples/cifar10/mean.binaryproto
I0430 20:55:44.153869 29722 data_layer.cpp:45] output data size: 1000,3,32,32
I0430 20:55:44.176110 29722 net.cpp:124] Setting up cifar
I0430 20:55:44.176136 29722 net.cpp:131] Top shape: 1000 3 32 32 (3072000)
I0430 20:55:44.176141 29722 net.cpp:131] Top shape: 1000 (1000)
I0430 20:55:44.176144 29722 net.cpp:139] Memory required for data: 12292000
I0430 20:55:44.176149 29722 layer_factory.hpp:77] Creating layer label_cifar_1_split
I0430 20:55:44.176167 29722 net.cpp:86] Creating Layer label_cifar_1_split
I0430 20:55:44.176174 29722 net.cpp:408] label_cifar_1_split <- label
I0430 20:55:44.176198 29722 net.cpp:382] label_cifar_1_split -> label_cifar_1_split_0
I0430 20:55:44.176209 29722 net.cpp:382] label_cifar_1_split -> label_cifar_1_split_1
I0430 20:55:44.176306 29722 net.cpp:124] Setting up label_cifar_1_split
I0430 20:55:44.176313 29722 net.cpp:131] Top shape: 1000 (1000)
I0430 20:55:44.176317 29722 net.cpp:131] Top shape: 1000 (1000)
I0430 20:55:44.176319 29722 net.cpp:139] Memory required for data: 12300000
I0430 20:55:44.176323 29722 layer_factory.hpp:77] Creating layer ip1
I0430 20:55:44.176332 29722 net.cpp:86] Creating Layer ip1
I0430 20:55:44.176337 29722 net.cpp:408] ip1 <- data
I0430 20:55:44.176360 29722 net.cpp:382] ip1 -> ip1
I0430 20:55:44.190507 29722 net.cpp:124] Setting up ip1
I0430 20:55:44.190536 29722 net.cpp:131] Top shape: 1000 160 (160000)
I0430 20:55:44.190539 29722 net.cpp:139] Memory required for data: 12940000
I0430 20:55:44.190567 29722 layer_factory.hpp:77] Creating layer relu1
I0430 20:55:44.190573 29722 net.cpp:86] Creating Layer relu1
I0430 20:55:44.190578 29722 net.cpp:408] relu1 <- ip1
I0430 20:55:44.190582 29722 net.cpp:369] relu1 -> ip1 (in-place)
I0430 20:55:44.191396 29722 net.cpp:124] Setting up relu1
I0430 20:55:44.191424 29722 net.cpp:131] Top shape: 1000 160 (160000)
I0430 20:55:44.191427 29722 net.cpp:139] Memory required for data: 13580000
I0430 20:55:44.191431 29722 layer_factory.hpp:77] Creating layer ip2
I0430 20:55:44.191440 29722 net.cpp:86] Creating Layer ip2
I0430 20:55:44.191444 29722 net.cpp:408] ip2 <- ip1
I0430 20:55:44.191449 29722 net.cpp:382] ip2 -> ip2
I0430 20:55:44.191921 29722 net.cpp:124] Setting up ip2
I0430 20:55:44.191931 29722 net.cpp:131] Top shape: 1000 80 (80000)
I0430 20:55:44.191933 29722 net.cpp:139] Memory required for data: 13900000
I0430 20:55:44.191941 29722 layer_factory.hpp:77] Creating layer relu2
I0430 20:55:44.191946 29722 net.cpp:86] Creating Layer relu2
I0430 20:55:44.191949 29722 net.cpp:408] relu2 <- ip2
I0430 20:55:44.191953 29722 net.cpp:369] relu2 -> ip2 (in-place)
I0430 20:55:44.192114 29722 net.cpp:124] Setting up relu2
I0430 20:55:44.192123 29722 net.cpp:131] Top shape: 1000 80 (80000)
I0430 20:55:44.192126 29722 net.cpp:139] Memory required for data: 14220000
I0430 20:55:44.192129 29722 layer_factory.hpp:77] Creating layer ip3
I0430 20:55:44.192137 29722 net.cpp:86] Creating Layer ip3
I0430 20:55:44.192139 29722 net.cpp:408] ip3 <- ip2
I0430 20:55:44.192143 29722 net.cpp:382] ip3 -> ip3
I0430 20:55:44.192277 29722 net.cpp:124] Setting up ip3
I0430 20:55:44.192286 29722 net.cpp:131] Top shape: 1000 10 (10000)
I0430 20:55:44.192289 29722 net.cpp:139] Memory required for data: 14260000
I0430 20:55:44.192296 29722 layer_factory.hpp:77] Creating layer relu3
I0430 20:55:44.192306 29722 net.cpp:86] Creating Layer relu3
I0430 20:55:44.192325 29722 net.cpp:408] relu3 <- ip3
I0430 20:55:44.192332 29722 net.cpp:369] relu3 -> ip3 (in-place)
I0430 20:55:44.192498 29722 net.cpp:124] Setting up relu3
I0430 20:55:44.192507 29722 net.cpp:131] Top shape: 1000 10 (10000)
I0430 20:55:44.192512 29722 net.cpp:139] Memory required for data: 14300000
I0430 20:55:44.192515 29722 layer_factory.hpp:77] Creating layer ip4
I0430 20:55:44.192526 29722 net.cpp:86] Creating Layer ip4
I0430 20:55:44.192531 29722 net.cpp:408] ip4 <- ip3
I0430 20:55:44.192539 29722 net.cpp:382] ip4 -> ip4
I0430 20:55:44.192668 29722 net.cpp:124] Setting up ip4
I0430 20:55:44.192677 29722 net.cpp:131] Top shape: 1000 10 (10000)
I0430 20:55:44.192679 29722 net.cpp:139] Memory required for data: 14340000
I0430 20:55:44.192685 29722 layer_factory.hpp:77] Creating layer ip4_ip4_0_split
I0430 20:55:44.192693 29722 net.cpp:86] Creating Layer ip4_ip4_0_split
I0430 20:55:44.192699 29722 net.cpp:408] ip4_ip4_0_split <- ip4
I0430 20:55:44.192706 29722 net.cpp:382] ip4_ip4_0_split -> ip4_ip4_0_split_0
I0430 20:55:44.192716 29722 net.cpp:382] ip4_ip4_0_split -> ip4_ip4_0_split_1
I0430 20:55:44.192759 29722 net.cpp:124] Setting up ip4_ip4_0_split
I0430 20:55:44.192766 29722 net.cpp:131] Top shape: 1000 10 (10000)
I0430 20:55:44.192770 29722 net.cpp:131] Top shape: 1000 10 (10000)
I0430 20:55:44.192773 29722 net.cpp:139] Memory required for data: 14420000
I0430 20:55:44.192778 29722 layer_factory.hpp:77] Creating layer accuracy
I0430 20:55:44.192787 29722 net.cpp:86] Creating Layer accuracy
I0430 20:55:44.192793 29722 net.cpp:408] accuracy <- ip4_ip4_0_split_0
I0430 20:55:44.192800 29722 net.cpp:408] accuracy <- label_cifar_1_split_0
I0430 20:55:44.192806 29722 net.cpp:382] accuracy -> accuracy
…
