…
I0430 18:16:46.628918 22782 net.cpp:296] The NetState phase (0) differed from the phase (1) specified by a rule in layer cifar
I0430 18:16:46.628934 22782 net.cpp:296] The NetState phase (0) differed from the phase (1) specified by a rule in layer accuracy
I0430 18:16:46.629017 22782 net.cpp:53] Initializing net from parameters: 
name: "CIFAR"
state {
  phase: TRAIN
  level: 0
  stage: ""
}
layer {
  name: "cifar"
  type: "Data"
  top: "data"
  top: "label"
  include {
    phase: TRAIN
  }
  transform_param {
    mean_file: "examples/cifar10/mean.binaryproto"
  }
  data_param {
    source: "examples/cifar10/cifar10_train_lmdb"
    batch_size: 111
    backend: LMDB
  }
}
layer {
  name: "ip1"
  type: "InnerProduct"
  bottom: "data"
  top: "ip1"
  param {
    lr_mult: 1
  }
  param {
    lr_mult: 2
  }
  inner_product_param {
    num_output: 20
    weight_filler {
      type: "gaussian"
      std: 0.01
    }
    bias_filler {
      type: "constant"
    }
  }
}
layer {
  name: "relu1"
  type: "ReLU"
  bottom: "ip1"
  top: "ip1"
}
layer {
  name: "ip2"
  type: "InnerProduct"
  bottom: "ip1"
  top: "ip2"
  param {
    lr_mult: 1
  }
  param {
    lr_mult: 2
  }
  inner_product_param {
    num_output: 20
    weight_filler {
      type: "gaussian"
      std: 0.01
    }
    bias_filler {
      type: "constant"
    }
  }
}
layer {
  name: "relu2"
  type: "ReLU"
  bottom: "ip2"
  top: "ip2"
}
layer {
  name: "ip3"
  type: "InnerProduct"
  bottom: "ip2"
  top: "ip3"
  param {
    lr_mult: 1
  }
  param {
    lr_mult: 2
  }
  inner_product_param {
    num_output: 20
    weight_filler {
      type: "gaussian"
      std: 0.01
    }
    bias_filler {
      type: "constant"
    }
  }
}
layer {
  name: "relu3"
  type: "ReLU"
  bottom: "ip3"
  top: "ip3"
}
layer {
  name: "ip4"
  type: "InnerProduct"
  bottom: "ip3"
  top: "ip4"
  param {
    lr_mult: 1
  }
  param {
    lr_mult: 2
  }
  inner_product_param {
    num_output: 10
    weight_filler {
      type: "gaussian"
      std: 0.01
    }
    bias_filler {
      type: "constant"
    }
  }
}
layer {
  name: "loss"
  type: "SoftmaxWithLoss"
  bottom: "ip4"
  bottom: "label"
  top: "loss"
}
I0430 18:16:46.629089 22782 layer_factory.hpp:77] Creating layer cifar
I0430 18:16:46.629185 22782 db_lmdb.cpp:35] Opened lmdb examples/cifar10/cifar10_train_lmdb
I0430 18:16:46.629215 22782 net.cpp:86] Creating Layer cifar
I0430 18:16:46.629221 22782 net.cpp:382] cifar -> data
I0430 18:16:46.629245 22782 net.cpp:382] cifar -> label
I0430 18:16:46.629257 22782 data_transformer.cpp:25] Loading mean file from: examples/cifar10/mean.binaryproto
I0430 18:16:46.631363 22782 data_layer.cpp:45] output data size: 111,3,32,32
I0430 18:16:46.639255 22782 net.cpp:124] Setting up cifar
I0430 18:16:46.639276 22782 net.cpp:131] Top shape: 111 3 32 32 (340992)
I0430 18:16:46.639282 22782 net.cpp:131] Top shape: 111 (111)
I0430 18:16:46.639286 22782 net.cpp:139] Memory required for data: 1364412
I0430 18:16:46.639294 22782 layer_factory.hpp:77] Creating layer ip1
I0430 18:16:46.639305 22782 net.cpp:86] Creating Layer ip1
I0430 18:16:46.639312 22782 net.cpp:408] ip1 <- data
I0430 18:16:46.639324 22782 net.cpp:382] ip1 -> ip1
I0430 18:16:46.642549 22782 net.cpp:124] Setting up ip1
I0430 18:16:46.642565 22782 net.cpp:131] Top shape: 111 20 (2220)
I0430 18:16:46.642568 22782 net.cpp:139] Memory required for data: 1373292
I0430 18:16:46.642582 22782 layer_factory.hpp:77] Creating layer relu1
I0430 18:16:46.642591 22782 net.cpp:86] Creating Layer relu1
I0430 18:16:46.642611 22782 net.cpp:408] relu1 <- ip1
I0430 18:16:46.642618 22782 net.cpp:369] relu1 -> ip1 (in-place)
I0430 18:16:46.923691 22782 net.cpp:124] Setting up relu1
I0430 18:16:46.923722 22782 net.cpp:131] Top shape: 111 20 (2220)
I0430 18:16:46.923725 22782 net.cpp:139] Memory required for data: 1382172
I0430 18:16:46.923730 22782 layer_factory.hpp:77] Creating layer ip2
I0430 18:16:46.923741 22782 net.cpp:86] Creating Layer ip2
I0430 18:16:46.923746 22782 net.cpp:408] ip2 <- ip1
I0430 18:16:46.923753 22782 net.cpp:382] ip2 -> ip2
I0430 18:16:46.924758 22782 net.cpp:124] Setting up ip2
I0430 18:16:46.924770 22782 net.cpp:131] Top shape: 111 20 (2220)
I0430 18:16:46.924774 22782 net.cpp:139] Memory required for data: 1391052
I0430 18:16:46.924783 22782 layer_factory.hpp:77] Creating layer relu2
I0430 18:16:46.924792 22782 net.cpp:86] Creating Layer relu2
I0430 18:16:46.924794 22782 net.cpp:408] relu2 <- ip2
I0430 18:16:46.924799 22782 net.cpp:369] relu2 -> ip2 (in-place)
I0430 18:16:46.925571 22782 net.cpp:124] Setting up relu2
I0430 18:16:46.925585 22782 net.cpp:131] Top shape: 111 20 (2220)
I0430 18:16:46.925587 22782 net.cpp:139] Memory required for data: 1399932
I0430 18:16:46.925590 22782 layer_factory.hpp:77] Creating layer ip3
I0430 18:16:46.925597 22782 net.cpp:86] Creating Layer ip3
I0430 18:16:46.925601 22782 net.cpp:408] ip3 <- ip2
I0430 18:16:46.925606 22782 net.cpp:382] ip3 -> ip3
I0430 18:16:46.925707 22782 net.cpp:124] Setting up ip3
I0430 18:16:46.925715 22782 net.cpp:131] Top shape: 111 20 (2220)
I0430 18:16:46.925719 22782 net.cpp:139] Memory required for data: 1408812
I0430 18:16:46.925725 22782 layer_factory.hpp:77] Creating layer relu3
I0430 18:16:46.925730 22782 net.cpp:86] Creating Layer relu3
I0430 18:16:46.925734 22782 net.cpp:408] relu3 <- ip3
I0430 18:16:46.925737 22782 net.cpp:369] relu3 -> ip3 (in-place)
I0430 18:16:46.925876 22782 net.cpp:124] Setting up relu3
I0430 18:16:46.925884 22782 net.cpp:131] Top shape: 111 20 (2220)
I0430 18:16:46.925887 22782 net.cpp:139] Memory required for data: 1417692
I0430 18:16:46.925890 22782 layer_factory.hpp:77] Creating layer ip4
I0430 18:16:46.925896 22782 net.cpp:86] Creating Layer ip4
I0430 18:16:46.925899 22782 net.cpp:408] ip4 <- ip3
I0430 18:16:46.925904 22782 net.cpp:382] ip4 -> ip4
I0430 18:16:46.925994 22782 net.cpp:124] Setting up ip4
I0430 18:16:46.926000 22782 net.cpp:131] Top shape: 111 10 (1110)
I0430 18:16:46.926003 22782 net.cpp:139] Memory required for data: 1422132
I0430 18:16:46.926008 22782 layer_factory.hpp:77] Creating layer loss
I0430 18:16:46.926014 22782 net.cpp:86] Creating Layer loss
I0430 18:16:46.926017 22782 net.cpp:408] loss <- ip4
I0430 18:16:46.926021 22782 net.cpp:408] loss <- label
I0430 18:16:46.926026 22782 net.cpp:382] loss -> loss
I0430 18:16:46.926044 22782 layer_factory.hpp:77] Creating layer loss
…
I0430 18:16:46.926568 22782 solver.cpp:173] Creating test net (#0) specified by net file: ECE595/cifar/train_test/var_everything/cifar_train_test_61.prototxt
I0430 18:16:46.926606 22782 net.cpp:296] The NetState phase (1) differed from the phase (0) specified by a rule in layer cifar
I0430 18:16:46.926686 22782 net.cpp:53] Initializing net from parameters: 
name: "CIFAR"
state {
  phase: TEST
}
layer {
  name: "cifar"
  type: "Data"
  top: "data"
  top: "label"
  include {
    phase: TEST
  }
  transform_param {
    mean_file: "examples/cifar10/mean.binaryproto"
  }
  data_param {
    source: "examples/cifar10/cifar10_test_lmdb"
    batch_size: 1000
    backend: LMDB
  }
}
layer {
  name: "ip1"
  type: "InnerProduct"
  bottom: "data"
  top: "ip1"
  param {
    lr_mult: 1
  }
  param {
    lr_mult: 2
  }
  inner_product_param {
    num_output: 20
    weight_filler {
      type: "gaussian"
      std: 0.01
    }
    bias_filler {
      type: "constant"
    }
  }
}
layer {
  name: "relu1"
  type: "ReLU"
  bottom: "ip1"
  top: "ip1"
}
layer {
  name: "ip2"
  type: "InnerProduct"
  bottom: "ip1"
  top: "ip2"
  param {
    lr_mult: 1
  }
  param {
    lr_mult: 2
  }
  inner_product_param {
    num_output: 20
    weight_filler {
      type: "gaussian"
      std: 0.01
    }
    bias_filler {
      type: "constant"
    }
  }
}
layer {
  name: "relu2"
  type: "ReLU"
  bottom: "ip2"
  top: "ip2"
}
layer {
  name: "ip3"
  type: "InnerProduct"
  bottom: "ip2"
  top: "ip3"
  param {
    lr_mult: 1
  }
  param {
    lr_mult: 2
  }
  inner_product_param {
    num_output: 20
    weight_filler {
      type: "gaussian"
      std: 0.01
    }
    bias_filler {
      type: "constant"
    }
  }
}
layer {
  name: "relu3"
  type: "ReLU"
  bottom: "ip3"
  top: "ip3"
}
layer {
  name: "ip4"
  type: "InnerProduct"
  bottom: "ip3"
  top: "ip4"
  param {
    lr_mult: 1
  }
  param {
    lr_mult: 2
  }
  inner_product_param {
    num_output: 10
    weight_filler {
      type: "gaussian"
      std: 0.01
    }
    bias_filler {
      type: "constant"
    }
  }
}
layer {
  name: "accuracy"
  type: "Accuracy"
  bottom: "ip4"
  bottom: "label"
  top: "accuracy"
  include {
    phase: TEST
  }
}
layer {
  name: "loss"
  type: "SoftmaxWithLoss"
  bottom: "ip4"
  bottom: "label"
  top: "loss"
}
I0430 18:16:46.926743 22782 layer_factory.hpp:77] Creating layer cifar
I0430 18:16:46.926789 22782 db_lmdb.cpp:35] Opened lmdb examples/cifar10/cifar10_test_lmdb
I0430 18:16:46.926800 22782 net.cpp:86] Creating Layer cifar
I0430 18:16:46.926805 22782 net.cpp:382] cifar -> data
I0430 18:16:46.926812 22782 net.cpp:382] cifar -> label
I0430 18:16:46.926820 22782 data_transformer.cpp:25] Loading mean file from: examples/cifar10/mean.binaryproto
I0430 18:16:46.926959 22782 data_layer.cpp:45] output data size: 1000,3,32,32
I0430 18:16:46.948585 22782 net.cpp:124] Setting up cifar
I0430 18:16:46.948611 22782 net.cpp:131] Top shape: 1000 3 32 32 (3072000)
I0430 18:16:46.948617 22782 net.cpp:131] Top shape: 1000 (1000)
I0430 18:16:46.948621 22782 net.cpp:139] Memory required for data: 12292000
I0430 18:16:46.948626 22782 layer_factory.hpp:77] Creating layer label_cifar_1_split
I0430 18:16:46.948673 22782 net.cpp:86] Creating Layer label_cifar_1_split
I0430 18:16:46.948679 22782 net.cpp:408] label_cifar_1_split <- label
I0430 18:16:46.948686 22782 net.cpp:382] label_cifar_1_split -> label_cifar_1_split_0
I0430 18:16:46.948695 22782 net.cpp:382] label_cifar_1_split -> label_cifar_1_split_1
I0430 18:16:46.948797 22782 net.cpp:124] Setting up label_cifar_1_split
I0430 18:16:46.948806 22782 net.cpp:131] Top shape: 1000 (1000)
I0430 18:16:46.948815 22782 net.cpp:131] Top shape: 1000 (1000)
I0430 18:16:46.948818 22782 net.cpp:139] Memory required for data: 12300000
I0430 18:16:46.948837 22782 layer_factory.hpp:77] Creating layer ip1
I0430 18:16:46.948863 22782 net.cpp:86] Creating Layer ip1
I0430 18:16:46.948868 22782 net.cpp:408] ip1 <- data
I0430 18:16:46.948890 22782 net.cpp:382] ip1 -> ip1
I0430 18:16:46.951464 22782 net.cpp:124] Setting up ip1
I0430 18:16:46.951474 22782 net.cpp:131] Top shape: 1000 20 (20000)
I0430 18:16:46.951493 22782 net.cpp:139] Memory required for data: 12380000
I0430 18:16:46.951517 22782 layer_factory.hpp:77] Creating layer relu1
I0430 18:16:46.951524 22782 net.cpp:86] Creating Layer relu1
I0430 18:16:46.951541 22782 net.cpp:408] relu1 <- ip1
I0430 18:16:46.951546 22782 net.cpp:369] relu1 -> ip1 (in-place)
I0430 18:16:46.952344 22782 net.cpp:124] Setting up relu1
I0430 18:16:46.952358 22782 net.cpp:131] Top shape: 1000 20 (20000)
I0430 18:16:46.952378 22782 net.cpp:139] Memory required for data: 12460000
I0430 18:16:46.952383 22782 layer_factory.hpp:77] Creating layer ip2
I0430 18:16:46.952391 22782 net.cpp:86] Creating Layer ip2
I0430 18:16:46.952395 22782 net.cpp:408] ip2 <- ip1
I0430 18:16:46.952400 22782 net.cpp:382] ip2 -> ip2
I0430 18:16:46.952560 22782 net.cpp:124] Setting up ip2
I0430 18:16:46.952569 22782 net.cpp:131] Top shape: 1000 20 (20000)
I0430 18:16:46.952571 22782 net.cpp:139] Memory required for data: 12540000
I0430 18:16:46.952579 22782 layer_factory.hpp:77] Creating layer relu2
I0430 18:16:46.952585 22782 net.cpp:86] Creating Layer relu2
I0430 18:16:46.952589 22782 net.cpp:408] relu2 <- ip2
I0430 18:16:46.952592 22782 net.cpp:369] relu2 -> ip2 (in-place)
I0430 18:16:46.952747 22782 net.cpp:124] Setting up relu2
I0430 18:16:46.952755 22782 net.cpp:131] Top shape: 1000 20 (20000)
I0430 18:16:46.952765 22782 net.cpp:139] Memory required for data: 12620000
I0430 18:16:46.952769 22782 layer_factory.hpp:77] Creating layer ip3
I0430 18:16:46.952775 22782 net.cpp:86] Creating Layer ip3
I0430 18:16:46.952777 22782 net.cpp:408] ip3 <- ip2
I0430 18:16:46.952783 22782 net.cpp:382] ip3 -> ip3
I0430 18:16:46.952950 22782 net.cpp:124] Setting up ip3
I0430 18:16:46.952962 22782 net.cpp:131] Top shape: 1000 20 (20000)
I0430 18:16:46.952968 22782 net.cpp:139] Memory required for data: 12700000
I0430 18:16:46.952977 22782 layer_factory.hpp:77] Creating layer relu3
I0430 18:16:46.952983 22782 net.cpp:86] Creating Layer relu3
I0430 18:16:46.952986 22782 net.cpp:408] relu3 <- ip3
I0430 18:16:46.952991 22782 net.cpp:369] relu3 -> ip3 (in-place)
I0430 18:16:46.953150 22782 net.cpp:124] Setting up relu3
I0430 18:16:46.953158 22782 net.cpp:131] Top shape: 1000 20 (20000)
I0430 18:16:46.953161 22782 net.cpp:139] Memory required for data: 12780000
I0430 18:16:46.953166 22782 layer_factory.hpp:77] Creating layer ip4
I0430 18:16:46.953187 22782 net.cpp:86] Creating Layer ip4
I0430 18:16:46.953191 22782 net.cpp:408] ip4 <- ip3
I0430 18:16:46.953196 22782 net.cpp:382] ip4 -> ip4
I0430 18:16:46.953317 22782 net.cpp:124] Setting up ip4
I0430 18:16:46.953325 22782 net.cpp:131] Top shape: 1000 10 (10000)
I0430 18:16:46.953327 22782 net.cpp:139] Memory required for data: 12820000
I0430 18:16:46.953333 22782 layer_factory.hpp:77] Creating layer ip4_ip4_0_split
I0430 18:16:46.953338 22782 net.cpp:86] Creating Layer ip4_ip4_0_split
I0430 18:16:46.953341 22782 net.cpp:408] ip4_ip4_0_split <- ip4
I0430 18:16:46.953346 22782 net.cpp:382] ip4_ip4_0_split -> ip4_ip4_0_split_0
I0430 18:16:46.953353 22782 net.cpp:382] ip4_ip4_0_split -> ip4_ip4_0_split_1
I0430 18:16:46.953383 22782 net.cpp:124] Setting up ip4_ip4_0_split
I0430 18:16:46.953390 22782 net.cpp:131] Top shape: 1000 10 (10000)
I0430 18:16:46.953394 22782 net.cpp:131] Top shape: 1000 10 (10000)
I0430 18:16:46.953397 22782 net.cpp:139] Memory required for data: 12900000
I0430 18:16:46.953400 22782 layer_factory.hpp:77] Creating layer accuracy
I0430 18:16:46.953407 22782 net.cpp:86] Creating Layer accuracy
I0430 18:16:46.953409 22782 net.cpp:408] accuracy <- ip4_ip4_0_split_0
I0430 18:16:46.953413 22782 net.cpp:408] accuracy <- label_cifar_1_split_0
I0430 18:16:46.953418 22782 net.cpp:382] accuracy -> accuracy
…
