…
I0501 05:26:08.269938 29041 net.cpp:296] The NetState phase (0) differed from the phase (1) specified by a rule in layer cifar
I0501 05:26:08.269956 29041 net.cpp:296] The NetState phase (0) differed from the phase (1) specified by a rule in layer accuracy
I0501 05:26:08.270064 29041 net.cpp:53] Initializing net from parameters: 
name: "CIFAR"
state {
  phase: TRAIN
  level: 0
  stage: ""
}
layer {
  name: "cifar"
  type: "Data"
  top: "data"
  top: "label"
  include {
    phase: TRAIN
  }
  transform_param {
    mean_file: "examples/cifar10/mean.binaryproto"
  }
  data_param {
    source: "examples/cifar10/cifar10_train_lmdb"
    batch_size: 111
    backend: LMDB
  }
}
layer {
  name: "conv0"
  type: "Convolution"
  bottom: "data"
  top: "conv0"
  param {
    lr_mult: 1
  }
  param {
    lr_mult: 2
  }
  convolution_param {
    num_output: 8
    pad: 2
    kernel_size: 5
    stride: 1
    weight_filler {
      type: "gaussian"
      std: 0.01
    }
    bias_filler {
      type: "constant"
    }
  }
}
layer {
  name: "Sigmoid0"
  type: "Sigmoid"
  bottom: "conv0"
  top: "Sigmoid0"
}
layer {
  name: "pool0"
  type: "Pooling"
  bottom: "Sigmoid0"
  top: "pool0"
  pooling_param {
    pool: AVE
    kernel_size: 3
    stride: 2
  }
}
layer {
  name: "ip1"
  type: "InnerProduct"
  bottom: "pool0"
  top: "ip1"
  param {
    lr_mult: 1
  }
  param {
    lr_mult: 2
  }
  inner_product_param {
    num_output: 80
    weight_filler {
      type: "gaussian"
      std: 0.01
    }
    bias_filler {
      type: "constant"
    }
  }
}
layer {
  name: "relu1"
  type: "ReLU"
  bottom: "ip1"
  top: "ip1"
}
layer {
  name: "ip2"
  type: "InnerProduct"
  bottom: "ip1"
  top: "ip2"
  param {
    lr_mult: 1
  }
  param {
    lr_mult: 2
  }
  inner_product_param {
    num_output: 10
    weight_filler {
      type: "gaussian"
      std: 0.01
    }
    bias_filler {
      type: "constant"
    }
  }
}
layer {
  name: "relu2"
  type: "ReLU"
  bottom: "ip2"
  top: "ip2"
}
layer {
  name: "ip3"
  type: "InnerProduct"
  bottom: "ip2"
  top: "ip3"
  param {
    lr_mult: 1
  }
  param {
    lr_mult: 2
  }
  inner_product_param {
    num_output: 80
    weight_filler {
      type: "gaussian"
      std: 0.01
    }
    bias_filler {
      type: "constant"
    }
  }
}
layer {
  name: "relu3"
  type: "ReLU"
  bottom: "ip3"
  top: "ip3"
}
layer {
  name: "ip4"
  type: "InnerProduct"
  bottom: "ip3"
  top: "ip4"
  param {
    lr_mult: 1
  }
  param {
    lr_mult: 2
  }
  inner_product_param {
    num_output: 10
    weight_filler {
      type: "gaussian"
      std: 0.01
    }
    bias_filler {
      type: "constant"
    }
  }
}
layer {
  name: "loss"
  type: "SoftmaxWithLoss"
  bottom: "ip4"
  bottom: "label"
  top: "loss"
}
I0501 05:26:08.270145 29041 layer_factory.hpp:77] Creating layer cifar
I0501 05:26:08.270242 29041 db_lmdb.cpp:35] Opened lmdb examples/cifar10/cifar10_train_lmdb
I0501 05:26:08.270269 29041 net.cpp:86] Creating Layer cifar
I0501 05:26:08.270277 29041 net.cpp:382] cifar -> data
I0501 05:26:08.270301 29041 net.cpp:382] cifar -> label
I0501 05:26:08.270313 29041 data_transformer.cpp:25] Loading mean file from: examples/cifar10/mean.binaryproto
I0501 05:26:08.272413 29041 data_layer.cpp:45] output data size: 111,3,32,32
I0501 05:26:08.280515 29041 net.cpp:124] Setting up cifar
I0501 05:26:08.280534 29041 net.cpp:131] Top shape: 111 3 32 32 (340992)
I0501 05:26:08.280540 29041 net.cpp:131] Top shape: 111 (111)
I0501 05:26:08.280544 29041 net.cpp:139] Memory required for data: 1364412
I0501 05:26:08.280568 29041 layer_factory.hpp:77] Creating layer conv0
I0501 05:26:08.280588 29041 net.cpp:86] Creating Layer conv0
I0501 05:26:08.280594 29041 net.cpp:408] conv0 <- data
I0501 05:26:08.280606 29041 net.cpp:382] conv0 -> conv0
I0501 05:26:08.551602 29041 net.cpp:124] Setting up conv0
I0501 05:26:08.551627 29041 net.cpp:131] Top shape: 111 8 32 32 (909312)
I0501 05:26:08.551631 29041 net.cpp:139] Memory required for data: 5001660
I0501 05:26:08.551645 29041 layer_factory.hpp:77] Creating layer Sigmoid0
I0501 05:26:08.551657 29041 net.cpp:86] Creating Layer Sigmoid0
I0501 05:26:08.551661 29041 net.cpp:408] Sigmoid0 <- conv0
I0501 05:26:08.551666 29041 net.cpp:382] Sigmoid0 -> Sigmoid0
I0501 05:26:08.551851 29041 net.cpp:124] Setting up Sigmoid0
I0501 05:26:08.551861 29041 net.cpp:131] Top shape: 111 8 32 32 (909312)
I0501 05:26:08.551863 29041 net.cpp:139] Memory required for data: 8638908
I0501 05:26:08.551867 29041 layer_factory.hpp:77] Creating layer pool0
I0501 05:26:08.551873 29041 net.cpp:86] Creating Layer pool0
I0501 05:26:08.551877 29041 net.cpp:408] pool0 <- Sigmoid0
I0501 05:26:08.551880 29041 net.cpp:382] pool0 -> pool0
I0501 05:26:08.552642 29041 net.cpp:124] Setting up pool0
I0501 05:26:08.552654 29041 net.cpp:131] Top shape: 111 8 16 16 (227328)
I0501 05:26:08.552657 29041 net.cpp:139] Memory required for data: 9548220
I0501 05:26:08.552660 29041 layer_factory.hpp:77] Creating layer ip1
I0501 05:26:08.552669 29041 net.cpp:86] Creating Layer ip1
I0501 05:26:08.552672 29041 net.cpp:408] ip1 <- pool0
I0501 05:26:08.552676 29041 net.cpp:382] ip1 -> ip1
I0501 05:26:08.557035 29041 net.cpp:124] Setting up ip1
I0501 05:26:08.557044 29041 net.cpp:131] Top shape: 111 80 (8880)
I0501 05:26:08.557046 29041 net.cpp:139] Memory required for data: 9583740
I0501 05:26:08.557054 29041 layer_factory.hpp:77] Creating layer relu1
I0501 05:26:08.557060 29041 net.cpp:86] Creating Layer relu1
I0501 05:26:08.557063 29041 net.cpp:408] relu1 <- ip1
I0501 05:26:08.557067 29041 net.cpp:369] relu1 -> ip1 (in-place)
I0501 05:26:08.557271 29041 net.cpp:124] Setting up relu1
I0501 05:26:08.557279 29041 net.cpp:131] Top shape: 111 80 (8880)
I0501 05:26:08.557283 29041 net.cpp:139] Memory required for data: 9619260
I0501 05:26:08.557286 29041 layer_factory.hpp:77] Creating layer ip2
I0501 05:26:08.557292 29041 net.cpp:86] Creating Layer ip2
I0501 05:26:08.557296 29041 net.cpp:408] ip2 <- ip1
I0501 05:26:08.557301 29041 net.cpp:382] ip2 -> ip2
I0501 05:26:08.557422 29041 net.cpp:124] Setting up ip2
I0501 05:26:08.557430 29041 net.cpp:131] Top shape: 111 10 (1110)
I0501 05:26:08.557432 29041 net.cpp:139] Memory required for data: 9623700
I0501 05:26:08.557440 29041 layer_factory.hpp:77] Creating layer relu2
I0501 05:26:08.557446 29041 net.cpp:86] Creating Layer relu2
I0501 05:26:08.557449 29041 net.cpp:408] relu2 <- ip2
I0501 05:26:08.557453 29041 net.cpp:369] relu2 -> ip2 (in-place)
I0501 05:26:08.557605 29041 net.cpp:124] Setting up relu2
I0501 05:26:08.557615 29041 net.cpp:131] Top shape: 111 10 (1110)
I0501 05:26:08.557617 29041 net.cpp:139] Memory required for data: 9628140
I0501 05:26:08.557621 29041 layer_factory.hpp:77] Creating layer ip3
I0501 05:26:08.557627 29041 net.cpp:86] Creating Layer ip3
I0501 05:26:08.557629 29041 net.cpp:408] ip3 <- ip2
I0501 05:26:08.557636 29041 net.cpp:382] ip3 -> ip3
I0501 05:26:08.557763 29041 net.cpp:124] Setting up ip3
I0501 05:26:08.557770 29041 net.cpp:131] Top shape: 111 80 (8880)
I0501 05:26:08.557772 29041 net.cpp:139] Memory required for data: 9663660
I0501 05:26:08.557777 29041 layer_factory.hpp:77] Creating layer relu3
I0501 05:26:08.557782 29041 net.cpp:86] Creating Layer relu3
I0501 05:26:08.557785 29041 net.cpp:408] relu3 <- ip3
I0501 05:26:08.557790 29041 net.cpp:369] relu3 -> ip3 (in-place)
I0501 05:26:08.557931 29041 net.cpp:124] Setting up relu3
I0501 05:26:08.557938 29041 net.cpp:131] Top shape: 111 80 (8880)
I0501 05:26:08.557941 29041 net.cpp:139] Memory required for data: 9699180
I0501 05:26:08.557945 29041 layer_factory.hpp:77] Creating layer ip4
I0501 05:26:08.557963 29041 net.cpp:86] Creating Layer ip4
I0501 05:26:08.557967 29041 net.cpp:408] ip4 <- ip3
I0501 05:26:08.557974 29041 net.cpp:382] ip4 -> ip4
I0501 05:26:08.558084 29041 net.cpp:124] Setting up ip4
I0501 05:26:08.558091 29041 net.cpp:131] Top shape: 111 10 (1110)
I0501 05:26:08.558094 29041 net.cpp:139] Memory required for data: 9703620
I0501 05:26:08.558101 29041 layer_factory.hpp:77] Creating layer loss
I0501 05:26:08.558106 29041 net.cpp:86] Creating Layer loss
I0501 05:26:08.558109 29041 net.cpp:408] loss <- ip4
I0501 05:26:08.558113 29041 net.cpp:408] loss <- label
I0501 05:26:08.558118 29041 net.cpp:382] loss -> loss
I0501 05:26:08.558135 29041 layer_factory.hpp:77] Creating layer loss
…
I0501 05:26:08.559319 29041 solver.cpp:173] Creating test net (#0) specified by net file: ECE595/cifar/train_test/var_everything/cifar_train_test_418.prototxt
I0501 05:26:08.559345 29041 net.cpp:296] The NetState phase (1) differed from the phase (0) specified by a rule in layer cifar
I0501 05:26:08.559438 29041 net.cpp:53] Initializing net from parameters: 
name: "CIFAR"
state {
  phase: TEST
}
layer {
  name: "cifar"
  type: "Data"
  top: "data"
  top: "label"
  include {
    phase: TEST
  }
  transform_param {
    mean_file: "examples/cifar10/mean.binaryproto"
  }
  data_param {
    source: "examples/cifar10/cifar10_test_lmdb"
    batch_size: 1000
    backend: LMDB
  }
}
layer {
  name: "conv0"
  type: "Convolution"
  bottom: "data"
  top: "conv0"
  param {
    lr_mult: 1
  }
  param {
    lr_mult: 2
  }
  convolution_param {
    num_output: 8
    pad: 2
    kernel_size: 5
    stride: 1
    weight_filler {
      type: "gaussian"
      std: 0.01
    }
    bias_filler {
      type: "constant"
    }
  }
}
layer {
  name: "Sigmoid0"
  type: "Sigmoid"
  bottom: "conv0"
  top: "Sigmoid0"
}
layer {
  name: "pool0"
  type: "Pooling"
  bottom: "Sigmoid0"
  top: "pool0"
  pooling_param {
    pool: AVE
    kernel_size: 3
    stride: 2
  }
}
layer {
  name: "ip1"
  type: "InnerProduct"
  bottom: "pool0"
  top: "ip1"
  param {
    lr_mult: 1
  }
  param {
    lr_mult: 2
  }
  inner_product_param {
    num_output: 80
    weight_filler {
      type: "gaussian"
      std: 0.01
    }
    bias_filler {
      type: "constant"
    }
  }
}
layer {
  name: "relu1"
  type: "ReLU"
  bottom: "ip1"
  top: "ip1"
}
layer {
  name: "ip2"
  type: "InnerProduct"
  bottom: "ip1"
  top: "ip2"
  param {
    lr_mult: 1
  }
  param {
    lr_mult: 2
  }
  inner_product_param {
    num_output: 10
    weight_filler {
      type: "gaussian"
      std: 0.01
    }
    bias_filler {
      type: "constant"
    }
  }
}
layer {
  name: "relu2"
  type: "ReLU"
  bottom: "ip2"
  top: "ip2"
}
layer {
  name: "ip3"
  type: "InnerProduct"
  bottom: "ip2"
  top: "ip3"
  param {
    lr_mult: 1
  }
  param {
    lr_mult: 2
  }
  inner_product_param {
    num_output: 80
    weight_filler {
      type: "gaussian"
      std: 0.01
    }
    bias_filler {
      type: "constant"
    }
  }
}
layer {
  name: "relu3"
  type: "ReLU"
  bottom: "ip3"
  top: "ip3"
}
layer {
  name: "ip4"
  type: "InnerProduct"
  bottom: "ip3"
  top: "ip4"
  param {
    lr_mult: 1
  }
  param {
    lr_mult: 2
  }
  inner_product_param {
    num_output: 10
    weight_filler {
      type: "gaussian"
      std: 0.01
    }
    bias_filler {
      type: "constant"
    }
  }
}
layer {
  name: "accuracy"
  type: "Accuracy"
  bottom: "ip4"
  bottom: "label"
  top: "accuracy"
  include {
    phase: TEST
  }
}
layer {
  name: "loss"
  type: "SoftmaxWithLoss"
  bottom: "ip4"
  bottom: "label"
  top: "loss"
}
I0501 05:26:08.559517 29041 layer_factory.hpp:77] Creating layer cifar
I0501 05:26:08.559563 29041 db_lmdb.cpp:35] Opened lmdb examples/cifar10/cifar10_test_lmdb
I0501 05:26:08.559590 29041 net.cpp:86] Creating Layer cifar
I0501 05:26:08.559597 29041 net.cpp:382] cifar -> data
I0501 05:26:08.559603 29041 net.cpp:382] cifar -> label
I0501 05:26:08.559610 29041 data_transformer.cpp:25] Loading mean file from: examples/cifar10/mean.binaryproto
I0501 05:26:08.559752 29041 data_layer.cpp:45] output data size: 1000,3,32,32
I0501 05:26:08.581756 29041 net.cpp:124] Setting up cifar
I0501 05:26:08.581784 29041 net.cpp:131] Top shape: 1000 3 32 32 (3072000)
I0501 05:26:08.581789 29041 net.cpp:131] Top shape: 1000 (1000)
I0501 05:26:08.581792 29041 net.cpp:139] Memory required for data: 12292000
I0501 05:26:08.581799 29041 layer_factory.hpp:77] Creating layer label_cifar_1_split
I0501 05:26:08.581828 29041 net.cpp:86] Creating Layer label_cifar_1_split
I0501 05:26:08.581832 29041 net.cpp:408] label_cifar_1_split <- label
I0501 05:26:08.581840 29041 net.cpp:382] label_cifar_1_split -> label_cifar_1_split_0
I0501 05:26:08.581863 29041 net.cpp:382] label_cifar_1_split -> label_cifar_1_split_1
I0501 05:26:08.581943 29041 net.cpp:124] Setting up label_cifar_1_split
I0501 05:26:08.581951 29041 net.cpp:131] Top shape: 1000 (1000)
I0501 05:26:08.581954 29041 net.cpp:131] Top shape: 1000 (1000)
I0501 05:26:08.581957 29041 net.cpp:139] Memory required for data: 12300000
I0501 05:26:08.581959 29041 layer_factory.hpp:77] Creating layer conv0
I0501 05:26:08.581972 29041 net.cpp:86] Creating Layer conv0
I0501 05:26:08.581975 29041 net.cpp:408] conv0 <- data
I0501 05:26:08.581980 29041 net.cpp:382] conv0 -> conv0
I0501 05:26:08.583653 29041 net.cpp:124] Setting up conv0
I0501 05:26:08.583667 29041 net.cpp:131] Top shape: 1000 8 32 32 (8192000)
I0501 05:26:08.583670 29041 net.cpp:139] Memory required for data: 45068000
I0501 05:26:08.583680 29041 layer_factory.hpp:77] Creating layer Sigmoid0
I0501 05:26:08.583688 29041 net.cpp:86] Creating Layer Sigmoid0
I0501 05:26:08.583690 29041 net.cpp:408] Sigmoid0 <- conv0
I0501 05:26:08.583710 29041 net.cpp:382] Sigmoid0 -> Sigmoid0
I0501 05:26:08.583884 29041 net.cpp:124] Setting up Sigmoid0
I0501 05:26:08.583896 29041 net.cpp:131] Top shape: 1000 8 32 32 (8192000)
I0501 05:26:08.583899 29041 net.cpp:139] Memory required for data: 77836000
I0501 05:26:08.583902 29041 layer_factory.hpp:77] Creating layer pool0
I0501 05:26:08.583909 29041 net.cpp:86] Creating Layer pool0
I0501 05:26:08.583912 29041 net.cpp:408] pool0 <- Sigmoid0
I0501 05:26:08.583917 29041 net.cpp:382] pool0 -> pool0
I0501 05:26:08.584174 29041 net.cpp:124] Setting up pool0
I0501 05:26:08.584183 29041 net.cpp:131] Top shape: 1000 8 16 16 (2048000)
I0501 05:26:08.584187 29041 net.cpp:139] Memory required for data: 86028000
I0501 05:26:08.584189 29041 layer_factory.hpp:77] Creating layer ip1
I0501 05:26:08.584198 29041 net.cpp:86] Creating Layer ip1
I0501 05:26:08.584202 29041 net.cpp:408] ip1 <- pool0
I0501 05:26:08.584205 29041 net.cpp:382] ip1 -> ip1
I0501 05:26:08.589563 29041 net.cpp:124] Setting up ip1
I0501 05:26:08.589574 29041 net.cpp:131] Top shape: 1000 80 (80000)
I0501 05:26:08.589594 29041 net.cpp:139] Memory required for data: 86348000
I0501 05:26:08.589617 29041 layer_factory.hpp:77] Creating layer relu1
I0501 05:26:08.589623 29041 net.cpp:86] Creating Layer relu1
I0501 05:26:08.589627 29041 net.cpp:408] relu1 <- ip1
I0501 05:26:08.589630 29041 net.cpp:369] relu1 -> ip1 (in-place)
I0501 05:26:08.589797 29041 net.cpp:124] Setting up relu1
I0501 05:26:08.589807 29041 net.cpp:131] Top shape: 1000 80 (80000)
I0501 05:26:08.589809 29041 net.cpp:139] Memory required for data: 86668000
I0501 05:26:08.589812 29041 layer_factory.hpp:77] Creating layer ip2
I0501 05:26:08.589819 29041 net.cpp:86] Creating Layer ip2
I0501 05:26:08.589821 29041 net.cpp:408] ip2 <- ip1
I0501 05:26:08.589828 29041 net.cpp:382] ip2 -> ip2
I0501 05:26:08.589951 29041 net.cpp:124] Setting up ip2
I0501 05:26:08.589957 29041 net.cpp:131] Top shape: 1000 10 (10000)
I0501 05:26:08.589960 29041 net.cpp:139] Memory required for data: 86708000
I0501 05:26:08.589967 29041 layer_factory.hpp:77] Creating layer relu2
I0501 05:26:08.589972 29041 net.cpp:86] Creating Layer relu2
I0501 05:26:08.589975 29041 net.cpp:408] relu2 <- ip2
I0501 05:26:08.589982 29041 net.cpp:369] relu2 -> ip2 (in-place)
I0501 05:26:08.590734 29041 net.cpp:124] Setting up relu2
I0501 05:26:08.590745 29041 net.cpp:131] Top shape: 1000 10 (10000)
I0501 05:26:08.590764 29041 net.cpp:139] Memory required for data: 86748000
I0501 05:26:08.590768 29041 layer_factory.hpp:77] Creating layer ip3
I0501 05:26:08.590775 29041 net.cpp:86] Creating Layer ip3
I0501 05:26:08.590777 29041 net.cpp:408] ip3 <- ip2
I0501 05:26:08.590783 29041 net.cpp:382] ip3 -> ip3
I0501 05:26:08.590905 29041 net.cpp:124] Setting up ip3
I0501 05:26:08.590914 29041 net.cpp:131] Top shape: 1000 80 (80000)
I0501 05:26:08.590916 29041 net.cpp:139] Memory required for data: 87068000
I0501 05:26:08.590921 29041 layer_factory.hpp:77] Creating layer relu3
I0501 05:26:08.590926 29041 net.cpp:86] Creating Layer relu3
I0501 05:26:08.590929 29041 net.cpp:408] relu3 <- ip3
I0501 05:26:08.590934 29041 net.cpp:369] relu3 -> ip3 (in-place)
I0501 05:26:08.591081 29041 net.cpp:124] Setting up relu3
I0501 05:26:08.591089 29041 net.cpp:131] Top shape: 1000 80 (80000)
I0501 05:26:08.591092 29041 net.cpp:139] Memory required for data: 87388000
I0501 05:26:08.591095 29041 layer_factory.hpp:77] Creating layer ip4
I0501 05:26:08.591102 29041 net.cpp:86] Creating Layer ip4
I0501 05:26:08.591105 29041 net.cpp:408] ip4 <- ip3
I0501 05:26:08.591109 29041 net.cpp:382] ip4 -> ip4
I0501 05:26:08.591226 29041 net.cpp:124] Setting up ip4
I0501 05:26:08.591233 29041 net.cpp:131] Top shape: 1000 10 (10000)
I0501 05:26:08.591238 29041 net.cpp:139] Memory required for data: 87428000
I0501 05:26:08.591244 29041 layer_factory.hpp:77] Creating layer ip4_ip4_0_split
I0501 05:26:08.591250 29041 net.cpp:86] Creating Layer ip4_ip4_0_split
I0501 05:26:08.591253 29041 net.cpp:408] ip4_ip4_0_split <- ip4
I0501 05:26:08.591258 29041 net.cpp:382] ip4_ip4_0_split -> ip4_ip4_0_split_0
I0501 05:26:08.591261 29041 net.cpp:382] ip4_ip4_0_split -> ip4_ip4_0_split_1
I0501 05:26:08.591292 29041 net.cpp:124] Setting up ip4_ip4_0_split
I0501 05:26:08.591300 29041 net.cpp:131] Top shape: 1000 10 (10000)
I0501 05:26:08.591303 29041 net.cpp:131] Top shape: 1000 10 (10000)
I0501 05:26:08.591306 29041 net.cpp:139] Memory required for data: 87508000
I0501 05:26:08.591310 29041 layer_factory.hpp:77] Creating layer accuracy
I0501 05:26:08.591315 29041 net.cpp:86] Creating Layer accuracy
I0501 05:26:08.591318 29041 net.cpp:408] accuracy <- ip4_ip4_0_split_0
I0501 05:26:08.591321 29041 net.cpp:408] accuracy <- label_cifar_1_split_0
I0501 05:26:08.591326 29041 net.cpp:382] accuracy -> accuracy
…
