…
I0501 08:58:26.262687 12618 net.cpp:296] The NetState phase (0) differed from the phase (1) specified by a rule in layer cifar
I0501 08:58:26.262701 12618 net.cpp:296] The NetState phase (0) differed from the phase (1) specified by a rule in layer accuracy
I0501 08:58:26.262781 12618 net.cpp:53] Initializing net from parameters: 
name: "CIFAR"
state {
  phase: TRAIN
  level: 0
  stage: ""
}
layer {
  name: "cifar"
  type: "Data"
  top: "data"
  top: "label"
  include {
    phase: TRAIN
  }
  transform_param {
    mean_file: "examples/cifar10/mean.binaryproto"
  }
  data_param {
    source: "examples/cifar10/cifar10_train_lmdb"
    batch_size: 111
    backend: LMDB
  }
}
layer {
  name: "conv0"
  type: "Convolution"
  bottom: "data"
  top: "conv0"
  param {
    lr_mult: 1
  }
  param {
    lr_mult: 2
  }
  convolution_param {
    num_output: 16
    pad: 2
    kernel_size: 3
    stride: 1
    weight_filler {
      type: "gaussian"
      std: 0.01
    }
    bias_filler {
      type: "constant"
    }
  }
}
layer {
  name: "Sigmoid0"
  type: "Sigmoid"
  bottom: "conv0"
  top: "Sigmoid0"
}
layer {
  name: "pool0"
  type: "Pooling"
  bottom: "Sigmoid0"
  top: "pool0"
  pooling_param {
    pool: AVE
    kernel_size: 3
    stride: 2
  }
}
layer {
  name: "ip1"
  type: "InnerProduct"
  bottom: "pool0"
  top: "ip1"
  param {
    lr_mult: 1
  }
  param {
    lr_mult: 2
  }
  inner_product_param {
    num_output: 20
    weight_filler {
      type: "gaussian"
      std: 0.01
    }
    bias_filler {
      type: "constant"
    }
  }
}
layer {
  name: "relu1"
  type: "ReLU"
  bottom: "ip1"
  top: "ip1"
}
layer {
  name: "ip2"
  type: "InnerProduct"
  bottom: "ip1"
  top: "ip2"
  param {
    lr_mult: 1
  }
  param {
    lr_mult: 2
  }
  inner_product_param {
    num_output: 20
    weight_filler {
      type: "gaussian"
      std: 0.01
    }
    bias_filler {
      type: "constant"
    }
  }
}
layer {
  name: "relu2"
  type: "ReLU"
  bottom: "ip2"
  top: "ip2"
}
layer {
  name: "ip3"
  type: "InnerProduct"
  bottom: "ip2"
  top: "ip3"
  param {
    lr_mult: 1
  }
  param {
    lr_mult: 2
  }
  inner_product_param {
    num_output: 20
    weight_filler {
      type: "gaussian"
      std: 0.01
    }
    bias_filler {
      type: "constant"
    }
  }
}
layer {
  name: "relu3"
  type: "ReLU"
  bottom: "ip3"
  top: "ip3"
}
layer {
  name: "ip4"
  type: "InnerProduct"
  bottom: "ip3"
  top: "ip4"
  param {
    lr_mult: 1
  }
  param {
    lr_mult: 2
  }
  inner_product_param {
    num_output: 10
    weight_filler {
      type: "gaussian"
      std: 0.01
    }
    bias_filler {
      type: "constant"
    }
  }
}
layer {
  name: "loss"
  type: "SoftmaxWithLoss"
  bottom: "ip4"
  bottom: "label"
  top: "loss"
}
I0501 08:58:26.262840 12618 layer_factory.hpp:77] Creating layer cifar
I0501 08:58:26.262923 12618 db_lmdb.cpp:35] Opened lmdb examples/cifar10/cifar10_train_lmdb
I0501 08:58:26.262944 12618 net.cpp:86] Creating Layer cifar
I0501 08:58:26.262950 12618 net.cpp:382] cifar -> data
I0501 08:58:26.262969 12618 net.cpp:382] cifar -> label
I0501 08:58:26.262982 12618 data_transformer.cpp:25] Loading mean file from: examples/cifar10/mean.binaryproto
I0501 08:58:26.264736 12618 data_layer.cpp:45] output data size: 111,3,32,32
I0501 08:58:26.271270 12618 net.cpp:124] Setting up cifar
I0501 08:58:26.271286 12618 net.cpp:131] Top shape: 111 3 32 32 (340992)
I0501 08:58:26.271291 12618 net.cpp:131] Top shape: 111 (111)
I0501 08:58:26.271293 12618 net.cpp:139] Memory required for data: 1364412
I0501 08:58:26.271312 12618 layer_factory.hpp:77] Creating layer conv0
I0501 08:58:26.271327 12618 net.cpp:86] Creating Layer conv0
I0501 08:58:26.271332 12618 net.cpp:408] conv0 <- data
I0501 08:58:26.271342 12618 net.cpp:382] conv0 -> conv0
I0501 08:58:26.501368 12618 net.cpp:124] Setting up conv0
I0501 08:58:26.501394 12618 net.cpp:131] Top shape: 111 16 34 34 (2053056)
I0501 08:58:26.501397 12618 net.cpp:139] Memory required for data: 9576636
I0501 08:58:26.501411 12618 layer_factory.hpp:77] Creating layer Sigmoid0
I0501 08:58:26.501422 12618 net.cpp:86] Creating Layer Sigmoid0
I0501 08:58:26.501426 12618 net.cpp:408] Sigmoid0 <- conv0
I0501 08:58:26.501431 12618 net.cpp:382] Sigmoid0 -> Sigmoid0
I0501 08:58:26.501611 12618 net.cpp:124] Setting up Sigmoid0
I0501 08:58:26.501621 12618 net.cpp:131] Top shape: 111 16 34 34 (2053056)
I0501 08:58:26.501623 12618 net.cpp:139] Memory required for data: 17788860
I0501 08:58:26.501626 12618 layer_factory.hpp:77] Creating layer pool0
I0501 08:58:26.501632 12618 net.cpp:86] Creating Layer pool0
I0501 08:58:26.501639 12618 net.cpp:408] pool0 <- Sigmoid0
I0501 08:58:26.501643 12618 net.cpp:382] pool0 -> pool0
I0501 08:58:26.502408 12618 net.cpp:124] Setting up pool0
I0501 08:58:26.502419 12618 net.cpp:131] Top shape: 111 16 17 17 (513264)
I0501 08:58:26.502423 12618 net.cpp:139] Memory required for data: 19841916
I0501 08:58:26.502425 12618 layer_factory.hpp:77] Creating layer ip1
I0501 08:58:26.502434 12618 net.cpp:86] Creating Layer ip1
I0501 08:58:26.502436 12618 net.cpp:408] ip1 <- pool0
I0501 08:58:26.502441 12618 net.cpp:382] ip1 -> ip1
I0501 08:58:26.504819 12618 net.cpp:124] Setting up ip1
I0501 08:58:26.504827 12618 net.cpp:131] Top shape: 111 20 (2220)
I0501 08:58:26.504830 12618 net.cpp:139] Memory required for data: 19850796
I0501 08:58:26.504853 12618 layer_factory.hpp:77] Creating layer relu1
I0501 08:58:26.504858 12618 net.cpp:86] Creating Layer relu1
I0501 08:58:26.504860 12618 net.cpp:408] relu1 <- ip1
I0501 08:58:26.504865 12618 net.cpp:369] relu1 -> ip1 (in-place)
I0501 08:58:26.505065 12618 net.cpp:124] Setting up relu1
I0501 08:58:26.505074 12618 net.cpp:131] Top shape: 111 20 (2220)
I0501 08:58:26.505077 12618 net.cpp:139] Memory required for data: 19859676
I0501 08:58:26.505080 12618 layer_factory.hpp:77] Creating layer ip2
I0501 08:58:26.505087 12618 net.cpp:86] Creating Layer ip2
I0501 08:58:26.505090 12618 net.cpp:408] ip2 <- ip1
I0501 08:58:26.505095 12618 net.cpp:382] ip2 -> ip2
I0501 08:58:26.505228 12618 net.cpp:124] Setting up ip2
I0501 08:58:26.505235 12618 net.cpp:131] Top shape: 111 20 (2220)
I0501 08:58:26.505252 12618 net.cpp:139] Memory required for data: 19868556
I0501 08:58:26.505259 12618 layer_factory.hpp:77] Creating layer relu2
I0501 08:58:26.505264 12618 net.cpp:86] Creating Layer relu2
I0501 08:58:26.505266 12618 net.cpp:408] relu2 <- ip2
I0501 08:58:26.505270 12618 net.cpp:369] relu2 -> ip2 (in-place)
I0501 08:58:26.505432 12618 net.cpp:124] Setting up relu2
I0501 08:58:26.505440 12618 net.cpp:131] Top shape: 111 20 (2220)
I0501 08:58:26.505444 12618 net.cpp:139] Memory required for data: 19877436
I0501 08:58:26.505446 12618 layer_factory.hpp:77] Creating layer ip3
I0501 08:58:26.505452 12618 net.cpp:86] Creating Layer ip3
I0501 08:58:26.505455 12618 net.cpp:408] ip3 <- ip2
I0501 08:58:26.505460 12618 net.cpp:382] ip3 -> ip3
I0501 08:58:26.505554 12618 net.cpp:124] Setting up ip3
I0501 08:58:26.505561 12618 net.cpp:131] Top shape: 111 20 (2220)
I0501 08:58:26.505563 12618 net.cpp:139] Memory required for data: 19886316
I0501 08:58:26.505569 12618 layer_factory.hpp:77] Creating layer relu3
I0501 08:58:26.505573 12618 net.cpp:86] Creating Layer relu3
I0501 08:58:26.505576 12618 net.cpp:408] relu3 <- ip3
I0501 08:58:26.505580 12618 net.cpp:369] relu3 -> ip3 (in-place)
I0501 08:58:26.505730 12618 net.cpp:124] Setting up relu3
I0501 08:58:26.505738 12618 net.cpp:131] Top shape: 111 20 (2220)
I0501 08:58:26.505741 12618 net.cpp:139] Memory required for data: 19895196
I0501 08:58:26.505744 12618 layer_factory.hpp:77] Creating layer ip4
I0501 08:58:26.505761 12618 net.cpp:86] Creating Layer ip4
I0501 08:58:26.505765 12618 net.cpp:408] ip4 <- ip3
I0501 08:58:26.505770 12618 net.cpp:382] ip4 -> ip4
I0501 08:58:26.505867 12618 net.cpp:124] Setting up ip4
I0501 08:58:26.505873 12618 net.cpp:131] Top shape: 111 10 (1110)
I0501 08:58:26.505877 12618 net.cpp:139] Memory required for data: 19899636
I0501 08:58:26.505883 12618 layer_factory.hpp:77] Creating layer loss
I0501 08:58:26.505889 12618 net.cpp:86] Creating Layer loss
I0501 08:58:26.505892 12618 net.cpp:408] loss <- ip4
I0501 08:58:26.505895 12618 net.cpp:408] loss <- label
I0501 08:58:26.505900 12618 net.cpp:382] loss -> loss
I0501 08:58:26.505913 12618 layer_factory.hpp:77] Creating layer loss
…
I0501 08:58:26.507084 12618 solver.cpp:173] Creating test net (#0) specified by net file: ECE595/cifar/train_test/var_everything/cifar_train_test_526.prototxt
I0501 08:58:26.507112 12618 net.cpp:296] The NetState phase (1) differed from the phase (0) specified by a rule in layer cifar
I0501 08:58:26.507271 12618 net.cpp:53] Initializing net from parameters: 
name: "CIFAR"
state {
  phase: TEST
}
layer {
  name: "cifar"
  type: "Data"
  top: "data"
  top: "label"
  include {
    phase: TEST
  }
  transform_param {
    mean_file: "examples/cifar10/mean.binaryproto"
  }
  data_param {
    source: "examples/cifar10/cifar10_test_lmdb"
    batch_size: 1000
    backend: LMDB
  }
}
layer {
  name: "conv0"
  type: "Convolution"
  bottom: "data"
  top: "conv0"
  param {
    lr_mult: 1
  }
  param {
    lr_mult: 2
  }
  convolution_param {
    num_output: 16
    pad: 2
    kernel_size: 3
    stride: 1
    weight_filler {
      type: "gaussian"
      std: 0.01
    }
    bias_filler {
      type: "constant"
    }
  }
}
layer {
  name: "Sigmoid0"
  type: "Sigmoid"
  bottom: "conv0"
  top: "Sigmoid0"
}
layer {
  name: "pool0"
  type: "Pooling"
  bottom: "Sigmoid0"
  top: "pool0"
  pooling_param {
    pool: AVE
    kernel_size: 3
    stride: 2
  }
}
layer {
  name: "ip1"
  type: "InnerProduct"
  bottom: "pool0"
  top: "ip1"
  param {
    lr_mult: 1
  }
  param {
    lr_mult: 2
  }
  inner_product_param {
    num_output: 20
    weight_filler {
      type: "gaussian"
      std: 0.01
    }
    bias_filler {
      type: "constant"
    }
  }
}
layer {
  name: "relu1"
  type: "ReLU"
  bottom: "ip1"
  top: "ip1"
}
layer {
  name: "ip2"
  type: "InnerProduct"
  bottom: "ip1"
  top: "ip2"
  param {
    lr_mult: 1
  }
  param {
    lr_mult: 2
  }
  inner_product_param {
    num_output: 20
    weight_filler {
      type: "gaussian"
      std: 0.01
    }
    bias_filler {
      type: "constant"
    }
  }
}
layer {
  name: "relu2"
  type: "ReLU"
  bottom: "ip2"
  top: "ip2"
}
layer {
  name: "ip3"
  type: "InnerProduct"
  bottom: "ip2"
  top: "ip3"
  param {
    lr_mult: 1
  }
  param {
    lr_mult: 2
  }
  inner_product_param {
    num_output: 20
    weight_filler {
      type: "gaussian"
      std: 0.01
    }
    bias_filler {
      type: "constant"
    }
  }
}
layer {
  name: "relu3"
  type: "ReLU"
  bottom: "ip3"
  top: "ip3"
}
layer {
  name: "ip4"
  type: "InnerProduct"
  bottom: "ip3"
  top: "ip4"
  param {
    lr_mult: 1
  }
  param {
    lr_mult: 2
  }
  inner_product_param {
    num_output: 10
    weight_filler {
      type: "gaussian"
      std: 0.01
    }
    bias_filler {
      type: "constant"
    }
  }
}
layer {
  name: "accuracy"
  type: "Accuracy"
  bottom: "ip4"
  bottom: "label"
  top: "accuracy"
  include {
    phase: TEST
  }
}
layer {
  name: "loss"
  type: "SoftmaxWithLoss"
  bottom: "ip4"
  bottom: "label"
  top: "loss"
}
I0501 08:58:26.507375 12618 layer_factory.hpp:77] Creating layer cifar
I0501 08:58:26.507426 12618 db_lmdb.cpp:35] Opened lmdb examples/cifar10/cifar10_test_lmdb
I0501 08:58:26.507441 12618 net.cpp:86] Creating Layer cifar
I0501 08:58:26.507446 12618 net.cpp:382] cifar -> data
I0501 08:58:26.507462 12618 net.cpp:382] cifar -> label
I0501 08:58:26.507470 12618 data_transformer.cpp:25] Loading mean file from: examples/cifar10/mean.binaryproto
I0501 08:58:26.507635 12618 data_layer.cpp:45] output data size: 1000,3,32,32
I0501 08:58:26.531214 12618 net.cpp:124] Setting up cifar
I0501 08:58:26.531258 12618 net.cpp:131] Top shape: 1000 3 32 32 (3072000)
I0501 08:58:26.531265 12618 net.cpp:131] Top shape: 1000 (1000)
I0501 08:58:26.531268 12618 net.cpp:139] Memory required for data: 12292000
I0501 08:58:26.531275 12618 layer_factory.hpp:77] Creating layer label_cifar_1_split
I0501 08:58:26.531288 12618 net.cpp:86] Creating Layer label_cifar_1_split
I0501 08:58:26.531292 12618 net.cpp:408] label_cifar_1_split <- label
I0501 08:58:26.531316 12618 net.cpp:382] label_cifar_1_split -> label_cifar_1_split_0
I0501 08:58:26.531325 12618 net.cpp:382] label_cifar_1_split -> label_cifar_1_split_1
I0501 08:58:26.531428 12618 net.cpp:124] Setting up label_cifar_1_split
I0501 08:58:26.531437 12618 net.cpp:131] Top shape: 1000 (1000)
I0501 08:58:26.531441 12618 net.cpp:131] Top shape: 1000 (1000)
I0501 08:58:26.531445 12618 net.cpp:139] Memory required for data: 12300000
I0501 08:58:26.531448 12618 layer_factory.hpp:77] Creating layer conv0
I0501 08:58:26.531464 12618 net.cpp:86] Creating Layer conv0
I0501 08:58:26.531467 12618 net.cpp:408] conv0 <- data
I0501 08:58:26.531473 12618 net.cpp:382] conv0 -> conv0
I0501 08:58:26.533165 12618 net.cpp:124] Setting up conv0
I0501 08:58:26.533195 12618 net.cpp:131] Top shape: 1000 16 34 34 (18496000)
I0501 08:58:26.533198 12618 net.cpp:139] Memory required for data: 86284000
I0501 08:58:26.533224 12618 layer_factory.hpp:77] Creating layer Sigmoid0
I0501 08:58:26.533232 12618 net.cpp:86] Creating Layer Sigmoid0
I0501 08:58:26.533236 12618 net.cpp:408] Sigmoid0 <- conv0
I0501 08:58:26.533242 12618 net.cpp:382] Sigmoid0 -> Sigmoid0
I0501 08:58:26.534411 12618 net.cpp:124] Setting up Sigmoid0
I0501 08:58:26.534423 12618 net.cpp:131] Top shape: 1000 16 34 34 (18496000)
I0501 08:58:26.534426 12618 net.cpp:139] Memory required for data: 160268000
I0501 08:58:26.534430 12618 layer_factory.hpp:77] Creating layer pool0
I0501 08:58:26.534454 12618 net.cpp:86] Creating Layer pool0
I0501 08:58:26.534458 12618 net.cpp:408] pool0 <- Sigmoid0
I0501 08:58:26.534463 12618 net.cpp:382] pool0 -> pool0
I0501 08:58:26.534646 12618 net.cpp:124] Setting up pool0
I0501 08:58:26.534656 12618 net.cpp:131] Top shape: 1000 16 17 17 (4624000)
I0501 08:58:26.534660 12618 net.cpp:139] Memory required for data: 178764000
I0501 08:58:26.534663 12618 layer_factory.hpp:77] Creating layer ip1
I0501 08:58:26.534672 12618 net.cpp:86] Creating Layer ip1
I0501 08:58:26.534675 12618 net.cpp:408] ip1 <- pool0
I0501 08:58:26.534680 12618 net.cpp:382] ip1 -> ip1
I0501 08:58:26.537451 12618 net.cpp:124] Setting up ip1
I0501 08:58:26.537461 12618 net.cpp:131] Top shape: 1000 20 (20000)
I0501 08:58:26.537478 12618 net.cpp:139] Memory required for data: 178844000
I0501 08:58:26.537502 12618 layer_factory.hpp:77] Creating layer relu1
I0501 08:58:26.537508 12618 net.cpp:86] Creating Layer relu1
I0501 08:58:26.537511 12618 net.cpp:408] relu1 <- ip1
I0501 08:58:26.537515 12618 net.cpp:369] relu1 -> ip1 (in-place)
I0501 08:58:26.537698 12618 net.cpp:124] Setting up relu1
I0501 08:58:26.537706 12618 net.cpp:131] Top shape: 1000 20 (20000)
I0501 08:58:26.537709 12618 net.cpp:139] Memory required for data: 178924000
I0501 08:58:26.537714 12618 layer_factory.hpp:77] Creating layer ip2
I0501 08:58:26.537721 12618 net.cpp:86] Creating Layer ip2
I0501 08:58:26.537724 12618 net.cpp:408] ip2 <- ip1
I0501 08:58:26.537730 12618 net.cpp:382] ip2 -> ip2
I0501 08:58:26.537853 12618 net.cpp:124] Setting up ip2
I0501 08:58:26.537859 12618 net.cpp:131] Top shape: 1000 20 (20000)
I0501 08:58:26.537863 12618 net.cpp:139] Memory required for data: 179004000
I0501 08:58:26.537870 12618 layer_factory.hpp:77] Creating layer relu2
I0501 08:58:26.537878 12618 net.cpp:86] Creating Layer relu2
I0501 08:58:26.537880 12618 net.cpp:408] relu2 <- ip2
I0501 08:58:26.537884 12618 net.cpp:369] relu2 -> ip2 (in-place)
I0501 08:58:26.538674 12618 net.cpp:124] Setting up relu2
I0501 08:58:26.538686 12618 net.cpp:131] Top shape: 1000 20 (20000)
I0501 08:58:26.538705 12618 net.cpp:139] Memory required for data: 179084000
I0501 08:58:26.538709 12618 layer_factory.hpp:77] Creating layer ip3
I0501 08:58:26.538717 12618 net.cpp:86] Creating Layer ip3
I0501 08:58:26.538722 12618 net.cpp:408] ip3 <- ip2
I0501 08:58:26.538727 12618 net.cpp:382] ip3 -> ip3
I0501 08:58:26.538866 12618 net.cpp:124] Setting up ip3
I0501 08:58:26.538874 12618 net.cpp:131] Top shape: 1000 20 (20000)
I0501 08:58:26.538877 12618 net.cpp:139] Memory required for data: 179164000
I0501 08:58:26.538883 12618 layer_factory.hpp:77] Creating layer relu3
I0501 08:58:26.538889 12618 net.cpp:86] Creating Layer relu3
I0501 08:58:26.538892 12618 net.cpp:408] relu3 <- ip3
I0501 08:58:26.538897 12618 net.cpp:369] relu3 -> ip3 (in-place)
I0501 08:58:26.539063 12618 net.cpp:124] Setting up relu3
I0501 08:58:26.539072 12618 net.cpp:131] Top shape: 1000 20 (20000)
I0501 08:58:26.539075 12618 net.cpp:139] Memory required for data: 179244000
I0501 08:58:26.539078 12618 layer_factory.hpp:77] Creating layer ip4
I0501 08:58:26.539084 12618 net.cpp:86] Creating Layer ip4
I0501 08:58:26.539088 12618 net.cpp:408] ip4 <- ip3
I0501 08:58:26.539094 12618 net.cpp:382] ip4 -> ip4
I0501 08:58:26.539208 12618 net.cpp:124] Setting up ip4
I0501 08:58:26.539216 12618 net.cpp:131] Top shape: 1000 10 (10000)
I0501 08:58:26.539219 12618 net.cpp:139] Memory required for data: 179284000
I0501 08:58:26.539227 12618 layer_factory.hpp:77] Creating layer ip4_ip4_0_split
I0501 08:58:26.539233 12618 net.cpp:86] Creating Layer ip4_ip4_0_split
I0501 08:58:26.539237 12618 net.cpp:408] ip4_ip4_0_split <- ip4
I0501 08:58:26.539242 12618 net.cpp:382] ip4_ip4_0_split -> ip4_ip4_0_split_0
I0501 08:58:26.539247 12618 net.cpp:382] ip4_ip4_0_split -> ip4_ip4_0_split_1
I0501 08:58:26.539278 12618 net.cpp:124] Setting up ip4_ip4_0_split
I0501 08:58:26.539284 12618 net.cpp:131] Top shape: 1000 10 (10000)
I0501 08:58:26.539288 12618 net.cpp:131] Top shape: 1000 10 (10000)
I0501 08:58:26.539291 12618 net.cpp:139] Memory required for data: 179364000
I0501 08:58:26.539294 12618 layer_factory.hpp:77] Creating layer accuracy
I0501 08:58:26.539300 12618 net.cpp:86] Creating Layer accuracy
I0501 08:58:26.539304 12618 net.cpp:408] accuracy <- ip4_ip4_0_split_0
I0501 08:58:26.539307 12618 net.cpp:408] accuracy <- label_cifar_1_split_0
I0501 08:58:26.539312 12618 net.cpp:382] accuracy -> accuracy
…
