…
I0430 17:08:29.285429 18928 net.cpp:296] The NetState phase (0) differed from the phase (1) specified by a rule in layer cifar
I0430 17:08:29.285444 18928 net.cpp:296] The NetState phase (0) differed from the phase (1) specified by a rule in layer accuracy
I0430 17:08:29.285522 18928 net.cpp:53] Initializing net from parameters: 
name: "CIFAR"
state {
  phase: TRAIN
  level: 0
  stage: ""
}
layer {
  name: "cifar"
  type: "Data"
  top: "data"
  top: "label"
  include {
    phase: TRAIN
  }
  transform_param {
    mean_file: "examples/cifar10/mean.binaryproto"
  }
  data_param {
    source: "examples/cifar10/cifar10_train_lmdb"
    batch_size: 111
    backend: LMDB
  }
}
layer {
  name: "ip1"
  type: "InnerProduct"
  bottom: "data"
  top: "ip1"
  param {
    lr_mult: 1
  }
  param {
    lr_mult: 2
  }
  inner_product_param {
    num_output: 160
    weight_filler {
      type: "gaussian"
      std: 0.01
    }
    bias_filler {
      type: "constant"
    }
  }
}
layer {
  name: "relu1"
  type: "ReLU"
  bottom: "ip1"
  top: "ip1"
}
layer {
  name: "ip2"
  type: "InnerProduct"
  bottom: "ip1"
  top: "ip2"
  param {
    lr_mult: 1
  }
  param {
    lr_mult: 2
  }
  inner_product_param {
    num_output: 10
    weight_filler {
      type: "gaussian"
      std: 0.01
    }
    bias_filler {
      type: "constant"
    }
  }
}
layer {
  name: "relu2"
  type: "ReLU"
  bottom: "ip2"
  top: "ip2"
}
layer {
  name: "ip3"
  type: "InnerProduct"
  bottom: "ip2"
  top: "ip3"
  param {
    lr_mult: 1
  }
  param {
    lr_mult: 2
  }
  inner_product_param {
    num_output: 10
    weight_filler {
      type: "gaussian"
      std: 0.01
    }
    bias_filler {
      type: "constant"
    }
  }
}
layer {
  name: "loss"
  type: "SoftmaxWithLoss"
  bottom: "ip3"
  bottom: "label"
  top: "loss"
}
I0430 17:08:29.285586 18928 layer_factory.hpp:77] Creating layer cifar
I0430 17:08:29.285682 18928 db_lmdb.cpp:35] Opened lmdb examples/cifar10/cifar10_train_lmdb
I0430 17:08:29.285708 18928 net.cpp:86] Creating Layer cifar
I0430 17:08:29.285717 18928 net.cpp:382] cifar -> data
I0430 17:08:29.285739 18928 net.cpp:382] cifar -> label
I0430 17:08:29.285750 18928 data_transformer.cpp:25] Loading mean file from: examples/cifar10/mean.binaryproto
I0430 17:08:29.287859 18928 data_layer.cpp:45] output data size: 111,3,32,32
I0430 17:08:29.295958 18928 net.cpp:124] Setting up cifar
I0430 17:08:29.295976 18928 net.cpp:131] Top shape: 111 3 32 32 (340992)
I0430 17:08:29.295982 18928 net.cpp:131] Top shape: 111 (111)
I0430 17:08:29.295986 18928 net.cpp:139] Memory required for data: 1364412
I0430 17:08:29.295994 18928 layer_factory.hpp:77] Creating layer ip1
I0430 17:08:29.296020 18928 net.cpp:86] Creating Layer ip1
I0430 17:08:29.296026 18928 net.cpp:408] ip1 <- data
I0430 17:08:29.296038 18928 net.cpp:382] ip1 -> ip1
I0430 17:08:29.314191 18928 net.cpp:124] Setting up ip1
I0430 17:08:29.314209 18928 net.cpp:131] Top shape: 111 160 (17760)
I0430 17:08:29.314213 18928 net.cpp:139] Memory required for data: 1435452
I0430 17:08:29.314227 18928 layer_factory.hpp:77] Creating layer relu1
I0430 17:08:29.314239 18928 net.cpp:86] Creating Layer relu1
I0430 17:08:29.314244 18928 net.cpp:408] relu1 <- ip1
I0430 17:08:29.314249 18928 net.cpp:369] relu1 -> ip1 (in-place)
I0430 17:08:29.603027 18928 net.cpp:124] Setting up relu1
I0430 17:08:29.603058 18928 net.cpp:131] Top shape: 111 160 (17760)
I0430 17:08:29.603063 18928 net.cpp:139] Memory required for data: 1506492
I0430 17:08:29.603091 18928 layer_factory.hpp:77] Creating layer ip2
I0430 17:08:29.603106 18928 net.cpp:86] Creating Layer ip2
I0430 17:08:29.603111 18928 net.cpp:408] ip2 <- ip1
I0430 17:08:29.603119 18928 net.cpp:382] ip2 -> ip2
I0430 17:08:29.603312 18928 net.cpp:124] Setting up ip2
I0430 17:08:29.603322 18928 net.cpp:131] Top shape: 111 10 (1110)
I0430 17:08:29.603327 18928 net.cpp:139] Memory required for data: 1510932
I0430 17:08:29.603338 18928 layer_factory.hpp:77] Creating layer relu2
I0430 17:08:29.603346 18928 net.cpp:86] Creating Layer relu2
I0430 17:08:29.603350 18928 net.cpp:408] relu2 <- ip2
I0430 17:08:29.603355 18928 net.cpp:369] relu2 -> ip2 (in-place)
I0430 17:08:29.604245 18928 net.cpp:124] Setting up relu2
I0430 17:08:29.604261 18928 net.cpp:131] Top shape: 111 10 (1110)
I0430 17:08:29.604265 18928 net.cpp:139] Memory required for data: 1515372
I0430 17:08:29.604270 18928 layer_factory.hpp:77] Creating layer ip3
I0430 17:08:29.604279 18928 net.cpp:86] Creating Layer ip3
I0430 17:08:29.604282 18928 net.cpp:408] ip3 <- ip2
I0430 17:08:29.604288 18928 net.cpp:382] ip3 -> ip3
I0430 17:08:29.604413 18928 net.cpp:124] Setting up ip3
I0430 17:08:29.604423 18928 net.cpp:131] Top shape: 111 10 (1110)
I0430 17:08:29.604426 18928 net.cpp:139] Memory required for data: 1519812
I0430 17:08:29.604435 18928 layer_factory.hpp:77] Creating layer loss
I0430 17:08:29.604442 18928 net.cpp:86] Creating Layer loss
I0430 17:08:29.604446 18928 net.cpp:408] loss <- ip3
I0430 17:08:29.604451 18928 net.cpp:408] loss <- label
I0430 17:08:29.604457 18928 net.cpp:382] loss -> loss
I0430 17:08:29.604478 18928 layer_factory.hpp:77] Creating layer loss
…
I0430 17:08:29.605118 18928 solver.cpp:173] Creating test net (#0) specified by net file: ECE595/cifar/train_test/var_everything/cifar_train_test_25.prototxt
I0430 17:08:29.605142 18928 net.cpp:296] The NetState phase (1) differed from the phase (0) specified by a rule in layer cifar
I0430 17:08:29.605223 18928 net.cpp:53] Initializing net from parameters: 
name: "CIFAR"
state {
  phase: TEST
}
layer {
  name: "cifar"
  type: "Data"
  top: "data"
  top: "label"
  include {
    phase: TEST
  }
  transform_param {
    mean_file: "examples/cifar10/mean.binaryproto"
  }
  data_param {
    source: "examples/cifar10/cifar10_test_lmdb"
    batch_size: 1000
    backend: LMDB
  }
}
layer {
  name: "ip1"
  type: "InnerProduct"
  bottom: "data"
  top: "ip1"
  param {
    lr_mult: 1
  }
  param {
    lr_mult: 2
  }
  inner_product_param {
    num_output: 160
    weight_filler {
      type: "gaussian"
      std: 0.01
    }
    bias_filler {
      type: "constant"
    }
  }
}
layer {
  name: "relu1"
  type: "ReLU"
  bottom: "ip1"
  top: "ip1"
}
layer {
  name: "ip2"
  type: "InnerProduct"
  bottom: "ip1"
  top: "ip2"
  param {
    lr_mult: 1
  }
  param {
    lr_mult: 2
  }
  inner_product_param {
    num_output: 10
    weight_filler {
      type: "gaussian"
      std: 0.01
    }
    bias_filler {
      type: "constant"
    }
  }
}
layer {
  name: "relu2"
  type: "ReLU"
  bottom: "ip2"
  top: "ip2"
}
layer {
  name: "ip3"
  type: "InnerProduct"
  bottom: "ip2"
  top: "ip3"
  param {
    lr_mult: 1
  }
  param {
    lr_mult: 2
  }
  inner_product_param {
    num_output: 10
    weight_filler {
      type: "gaussian"
      std: 0.01
    }
    bias_filler {
      type: "constant"
    }
  }
}
layer {
  name: "accuracy"
  type: "Accuracy"
  bottom: "ip3"
  bottom: "label"
  top: "accuracy"
  include {
    phase: TEST
  }
}
layer {
  name: "loss"
  type: "SoftmaxWithLoss"
  bottom: "ip3"
  bottom: "label"
  top: "loss"
}
I0430 17:08:29.605303 18928 layer_factory.hpp:77] Creating layer cifar
I0430 17:08:29.605353 18928 db_lmdb.cpp:35] Opened lmdb examples/cifar10/cifar10_test_lmdb
I0430 17:08:29.605368 18928 net.cpp:86] Creating Layer cifar
I0430 17:08:29.605373 18928 net.cpp:382] cifar -> data
I0430 17:08:29.605382 18928 net.cpp:382] cifar -> label
I0430 17:08:29.605391 18928 data_transformer.cpp:25] Loading mean file from: examples/cifar10/mean.binaryproto
I0430 17:08:29.605576 18928 data_layer.cpp:45] output data size: 1000,3,32,32
I0430 17:08:29.632091 18928 net.cpp:124] Setting up cifar
I0430 17:08:29.632118 18928 net.cpp:131] Top shape: 1000 3 32 32 (3072000)
I0430 17:08:29.632125 18928 net.cpp:131] Top shape: 1000 (1000)
I0430 17:08:29.632128 18928 net.cpp:139] Memory required for data: 12292000
I0430 17:08:29.632134 18928 layer_factory.hpp:77] Creating layer label_cifar_1_split
I0430 17:08:29.632153 18928 net.cpp:86] Creating Layer label_cifar_1_split
I0430 17:08:29.632158 18928 net.cpp:408] label_cifar_1_split <- label
I0430 17:08:29.632166 18928 net.cpp:382] label_cifar_1_split -> label_cifar_1_split_0
I0430 17:08:29.632176 18928 net.cpp:382] label_cifar_1_split -> label_cifar_1_split_1
I0430 17:08:29.632295 18928 net.cpp:124] Setting up label_cifar_1_split
I0430 17:08:29.632304 18928 net.cpp:131] Top shape: 1000 (1000)
I0430 17:08:29.632309 18928 net.cpp:131] Top shape: 1000 (1000)
I0430 17:08:29.632313 18928 net.cpp:139] Memory required for data: 12300000
I0430 17:08:29.632316 18928 layer_factory.hpp:77] Creating layer ip1
I0430 17:08:29.632328 18928 net.cpp:86] Creating Layer ip1
I0430 17:08:29.632331 18928 net.cpp:408] ip1 <- data
I0430 17:08:29.632339 18928 net.cpp:382] ip1 -> ip1
I0430 17:08:29.648540 18928 net.cpp:124] Setting up ip1
I0430 17:08:29.648556 18928 net.cpp:131] Top shape: 1000 160 (160000)
I0430 17:08:29.648561 18928 net.cpp:139] Memory required for data: 12940000
I0430 17:08:29.648572 18928 layer_factory.hpp:77] Creating layer relu1
I0430 17:08:29.648581 18928 net.cpp:86] Creating Layer relu1
I0430 17:08:29.648583 18928 net.cpp:408] relu1 <- ip1
I0430 17:08:29.648591 18928 net.cpp:369] relu1 -> ip1 (in-place)
I0430 17:08:29.648802 18928 net.cpp:124] Setting up relu1
I0430 17:08:29.648820 18928 net.cpp:131] Top shape: 1000 160 (160000)
I0430 17:08:29.648824 18928 net.cpp:139] Memory required for data: 13580000
I0430 17:08:29.648828 18928 layer_factory.hpp:77] Creating layer ip2
I0430 17:08:29.648836 18928 net.cpp:86] Creating Layer ip2
I0430 17:08:29.648840 18928 net.cpp:408] ip2 <- ip1
I0430 17:08:29.648847 18928 net.cpp:382] ip2 -> ip2
I0430 17:08:29.649013 18928 net.cpp:124] Setting up ip2
I0430 17:08:29.649021 18928 net.cpp:131] Top shape: 1000 10 (10000)
I0430 17:08:29.649025 18928 net.cpp:139] Memory required for data: 13620000
I0430 17:08:29.649034 18928 layer_factory.hpp:77] Creating layer relu2
I0430 17:08:29.649049 18928 net.cpp:86] Creating Layer relu2
I0430 17:08:29.649052 18928 net.cpp:408] relu2 <- ip2
I0430 17:08:29.649056 18928 net.cpp:369] relu2 -> ip2 (in-place)
I0430 17:08:29.649899 18928 net.cpp:124] Setting up relu2
I0430 17:08:29.649914 18928 net.cpp:131] Top shape: 1000 10 (10000)
I0430 17:08:29.649919 18928 net.cpp:139] Memory required for data: 13660000
I0430 17:08:29.649921 18928 layer_factory.hpp:77] Creating layer ip3
I0430 17:08:29.649930 18928 net.cpp:86] Creating Layer ip3
I0430 17:08:29.649933 18928 net.cpp:408] ip3 <- ip2
I0430 17:08:29.649940 18928 net.cpp:382] ip3 -> ip3
I0430 17:08:29.650065 18928 net.cpp:124] Setting up ip3
I0430 17:08:29.650074 18928 net.cpp:131] Top shape: 1000 10 (10000)
I0430 17:08:29.650077 18928 net.cpp:139] Memory required for data: 13700000
I0430 17:08:29.650101 18928 layer_factory.hpp:77] Creating layer ip3_ip3_0_split
I0430 17:08:29.650108 18928 net.cpp:86] Creating Layer ip3_ip3_0_split
I0430 17:08:29.650112 18928 net.cpp:408] ip3_ip3_0_split <- ip3
I0430 17:08:29.650118 18928 net.cpp:382] ip3_ip3_0_split -> ip3_ip3_0_split_0
I0430 17:08:29.650125 18928 net.cpp:382] ip3_ip3_0_split -> ip3_ip3_0_split_1
I0430 17:08:29.650182 18928 net.cpp:124] Setting up ip3_ip3_0_split
I0430 17:08:29.650188 18928 net.cpp:131] Top shape: 1000 10 (10000)
I0430 17:08:29.650193 18928 net.cpp:131] Top shape: 1000 10 (10000)
I0430 17:08:29.650197 18928 net.cpp:139] Memory required for data: 13780000
I0430 17:08:29.650199 18928 layer_factory.hpp:77] Creating layer accuracy
I0430 17:08:29.650208 18928 net.cpp:86] Creating Layer accuracy
I0430 17:08:29.650212 18928 net.cpp:408] accuracy <- ip3_ip3_0_split_0
I0430 17:08:29.650215 18928 net.cpp:408] accuracy <- label_cifar_1_split_0
I0430 17:08:29.650220 18928 net.cpp:382] accuracy -> accuracy
…
