…
I0501 02:48:11.233160 17384 net.cpp:296] The NetState phase (0) differed from the phase (1) specified by a rule in layer cifar
I0501 02:48:11.233181 17384 net.cpp:296] The NetState phase (0) differed from the phase (1) specified by a rule in layer accuracy
I0501 02:48:11.233284 17384 net.cpp:53] Initializing net from parameters: 
name: "CIFAR"
state {
  phase: TRAIN
  level: 0
  stage: ""
}
layer {
  name: "cifar"
  type: "Data"
  top: "data"
  top: "label"
  include {
    phase: TRAIN
  }
  transform_param {
    mean_file: "examples/cifar10/mean.binaryproto"
  }
  data_param {
    source: "examples/cifar10/cifar10_train_lmdb"
    batch_size: 111
    backend: LMDB
  }
}
layer {
  name: "conv0"
  type: "Convolution"
  bottom: "data"
  top: "conv0"
  param {
    lr_mult: 1
  }
  param {
    lr_mult: 2
  }
  convolution_param {
    num_output: 8
    pad: 2
    kernel_size: 5
    stride: 1
    weight_filler {
      type: "gaussian"
      std: 0.01
    }
    bias_filler {
      type: "constant"
    }
  }
}
layer {
  name: "Sigmoid0"
  type: "Sigmoid"
  bottom: "conv0"
  top: "Sigmoid0"
}
layer {
  name: "pool0"
  type: "Pooling"
  bottom: "Sigmoid0"
  top: "pool0"
  pooling_param {
    pool: AVE
    kernel_size: 3
    stride: 2
  }
}
layer {
  name: "ip1"
  type: "InnerProduct"
  bottom: "pool0"
  top: "ip1"
  param {
    lr_mult: 1
  }
  param {
    lr_mult: 2
  }
  inner_product_param {
    num_output: 80
    weight_filler {
      type: "gaussian"
      std: 0.01
    }
    bias_filler {
      type: "constant"
    }
  }
}
layer {
  name: "relu1"
  type: "ReLU"
  bottom: "ip1"
  top: "ip1"
}
layer {
  name: "ip2"
  type: "InnerProduct"
  bottom: "ip1"
  top: "ip2"
  param {
    lr_mult: 1
  }
  param {
    lr_mult: 2
  }
  inner_product_param {
    num_output: 80
    weight_filler {
      type: "gaussian"
      std: 0.01
    }
    bias_filler {
      type: "constant"
    }
  }
}
layer {
  name: "relu2"
  type: "ReLU"
  bottom: "ip2"
  top: "ip2"
}
layer {
  name: "ip3"
  type: "InnerProduct"
  bottom: "ip2"
  top: "ip3"
  param {
    lr_mult: 1
  }
  param {
    lr_mult: 2
  }
  inner_product_param {
    num_output: 10
    weight_filler {
      type: "gaussian"
      std: 0.01
    }
    bias_filler {
      type: "constant"
    }
  }
}
layer {
  name: "loss"
  type: "SoftmaxWithLoss"
  bottom: "ip3"
  bottom: "label"
  top: "loss"
}
I0501 02:48:11.233363 17384 layer_factory.hpp:77] Creating layer cifar
I0501 02:48:11.233463 17384 db_lmdb.cpp:35] Opened lmdb examples/cifar10/cifar10_train_lmdb
I0501 02:48:11.233490 17384 net.cpp:86] Creating Layer cifar
I0501 02:48:11.233499 17384 net.cpp:382] cifar -> data
I0501 02:48:11.233521 17384 net.cpp:382] cifar -> label
I0501 02:48:11.233533 17384 data_transformer.cpp:25] Loading mean file from: examples/cifar10/mean.binaryproto
I0501 02:48:11.235644 17384 data_layer.cpp:45] output data size: 111,3,32,32
I0501 02:48:11.243726 17384 net.cpp:124] Setting up cifar
I0501 02:48:11.243747 17384 net.cpp:131] Top shape: 111 3 32 32 (340992)
I0501 02:48:11.243753 17384 net.cpp:131] Top shape: 111 (111)
I0501 02:48:11.243758 17384 net.cpp:139] Memory required for data: 1364412
I0501 02:48:11.243767 17384 layer_factory.hpp:77] Creating layer conv0
I0501 02:48:11.243787 17384 net.cpp:86] Creating Layer conv0
I0501 02:48:11.243791 17384 net.cpp:408] conv0 <- data
I0501 02:48:11.243804 17384 net.cpp:382] conv0 -> conv0
I0501 02:48:11.488245 17384 net.cpp:124] Setting up conv0
I0501 02:48:11.488303 17384 net.cpp:131] Top shape: 111 8 32 32 (909312)
I0501 02:48:11.488307 17384 net.cpp:139] Memory required for data: 5001660
I0501 02:48:11.488322 17384 layer_factory.hpp:77] Creating layer Sigmoid0
I0501 02:48:11.488334 17384 net.cpp:86] Creating Layer Sigmoid0
I0501 02:48:11.488338 17384 net.cpp:408] Sigmoid0 <- conv0
I0501 02:48:11.488343 17384 net.cpp:382] Sigmoid0 -> Sigmoid0
I0501 02:48:11.488521 17384 net.cpp:124] Setting up Sigmoid0
I0501 02:48:11.488545 17384 net.cpp:131] Top shape: 111 8 32 32 (909312)
I0501 02:48:11.488548 17384 net.cpp:139] Memory required for data: 8638908
I0501 02:48:11.488551 17384 layer_factory.hpp:77] Creating layer pool0
I0501 02:48:11.488557 17384 net.cpp:86] Creating Layer pool0
I0501 02:48:11.488560 17384 net.cpp:408] pool0 <- Sigmoid0
I0501 02:48:11.488564 17384 net.cpp:382] pool0 -> pool0
I0501 02:48:11.489298 17384 net.cpp:124] Setting up pool0
I0501 02:48:11.489310 17384 net.cpp:131] Top shape: 111 8 16 16 (227328)
I0501 02:48:11.489313 17384 net.cpp:139] Memory required for data: 9548220
I0501 02:48:11.489317 17384 layer_factory.hpp:77] Creating layer ip1
I0501 02:48:11.489341 17384 net.cpp:86] Creating Layer ip1
I0501 02:48:11.489344 17384 net.cpp:408] ip1 <- pool0
I0501 02:48:11.489349 17384 net.cpp:382] ip1 -> ip1
I0501 02:48:11.493607 17384 net.cpp:124] Setting up ip1
I0501 02:48:11.493615 17384 net.cpp:131] Top shape: 111 80 (8880)
I0501 02:48:11.493618 17384 net.cpp:139] Memory required for data: 9583740
I0501 02:48:11.493624 17384 layer_factory.hpp:77] Creating layer relu1
I0501 02:48:11.493629 17384 net.cpp:86] Creating Layer relu1
I0501 02:48:11.493633 17384 net.cpp:408] relu1 <- ip1
I0501 02:48:11.493636 17384 net.cpp:369] relu1 -> ip1 (in-place)
I0501 02:48:11.493810 17384 net.cpp:124] Setting up relu1
I0501 02:48:11.493819 17384 net.cpp:131] Top shape: 111 80 (8880)
I0501 02:48:11.493823 17384 net.cpp:139] Memory required for data: 9619260
I0501 02:48:11.493825 17384 layer_factory.hpp:77] Creating layer ip2
I0501 02:48:11.493830 17384 net.cpp:86] Creating Layer ip2
I0501 02:48:11.493834 17384 net.cpp:408] ip2 <- ip1
I0501 02:48:11.493839 17384 net.cpp:382] ip2 -> ip2
I0501 02:48:11.495124 17384 net.cpp:124] Setting up ip2
I0501 02:48:11.495136 17384 net.cpp:131] Top shape: 111 80 (8880)
I0501 02:48:11.495138 17384 net.cpp:139] Memory required for data: 9654780
I0501 02:48:11.495146 17384 layer_factory.hpp:77] Creating layer relu2
I0501 02:48:11.495151 17384 net.cpp:86] Creating Layer relu2
I0501 02:48:11.495154 17384 net.cpp:408] relu2 <- ip2
I0501 02:48:11.495158 17384 net.cpp:369] relu2 -> ip2 (in-place)
I0501 02:48:11.495324 17384 net.cpp:124] Setting up relu2
I0501 02:48:11.495332 17384 net.cpp:131] Top shape: 111 80 (8880)
I0501 02:48:11.495335 17384 net.cpp:139] Memory required for data: 9690300
I0501 02:48:11.495338 17384 layer_factory.hpp:77] Creating layer ip3
I0501 02:48:11.495345 17384 net.cpp:86] Creating Layer ip3
I0501 02:48:11.495348 17384 net.cpp:408] ip3 <- ip2
I0501 02:48:11.495352 17384 net.cpp:382] ip3 -> ip3
I0501 02:48:11.495457 17384 net.cpp:124] Setting up ip3
I0501 02:48:11.495465 17384 net.cpp:131] Top shape: 111 10 (1110)
I0501 02:48:11.495466 17384 net.cpp:139] Memory required for data: 9694740
I0501 02:48:11.495471 17384 layer_factory.hpp:77] Creating layer loss
I0501 02:48:11.495477 17384 net.cpp:86] Creating Layer loss
I0501 02:48:11.495479 17384 net.cpp:408] loss <- ip3
I0501 02:48:11.495483 17384 net.cpp:408] loss <- label
I0501 02:48:11.495488 17384 net.cpp:382] loss -> loss
I0501 02:48:11.495506 17384 layer_factory.hpp:77] Creating layer loss
…
I0501 02:48:11.496070 17384 solver.cpp:173] Creating test net (#0) specified by net file: ECE595/cifar/train_test/var_everything/cifar_train_test_333.prototxt
I0501 02:48:11.496095 17384 net.cpp:296] The NetState phase (1) differed from the phase (0) specified by a rule in layer cifar
I0501 02:48:11.496178 17384 net.cpp:53] Initializing net from parameters: 
name: "CIFAR"
state {
  phase: TEST
}
layer {
  name: "cifar"
  type: "Data"
  top: "data"
  top: "label"
  include {
    phase: TEST
  }
  transform_param {
    mean_file: "examples/cifar10/mean.binaryproto"
  }
  data_param {
    source: "examples/cifar10/cifar10_test_lmdb"
    batch_size: 1000
    backend: LMDB
  }
}
layer {
  name: "conv0"
  type: "Convolution"
  bottom: "data"
  top: "conv0"
  param {
    lr_mult: 1
  }
  param {
    lr_mult: 2
  }
  convolution_param {
    num_output: 8
    pad: 2
    kernel_size: 5
    stride: 1
    weight_filler {
      type: "gaussian"
      std: 0.01
    }
    bias_filler {
      type: "constant"
    }
  }
}
layer {
  name: "Sigmoid0"
  type: "Sigmoid"
  bottom: "conv0"
  top: "Sigmoid0"
}
layer {
  name: "pool0"
  type: "Pooling"
  bottom: "Sigmoid0"
  top: "pool0"
  pooling_param {
    pool: AVE
    kernel_size: 3
    stride: 2
  }
}
layer {
  name: "ip1"
  type: "InnerProduct"
  bottom: "pool0"
  top: "ip1"
  param {
    lr_mult: 1
  }
  param {
    lr_mult: 2
  }
  inner_product_param {
    num_output: 80
    weight_filler {
      type: "gaussian"
      std: 0.01
    }
    bias_filler {
      type: "constant"
    }
  }
}
layer {
  name: "relu1"
  type: "ReLU"
  bottom: "ip1"
  top: "ip1"
}
layer {
  name: "ip2"
  type: "InnerProduct"
  bottom: "ip1"
  top: "ip2"
  param {
    lr_mult: 1
  }
  param {
    lr_mult: 2
  }
  inner_product_param {
    num_output: 80
    weight_filler {
      type: "gaussian"
      std: 0.01
    }
    bias_filler {
      type: "constant"
    }
  }
}
layer {
  name: "relu2"
  type: "ReLU"
  bottom: "ip2"
  top: "ip2"
}
layer {
  name: "ip3"
  type: "InnerProduct"
  bottom: "ip2"
  top: "ip3"
  param {
    lr_mult: 1
  }
  param {
    lr_mult: 2
  }
  inner_product_param {
    num_output: 10
    weight_filler {
      type: "gaussian"
      std: 0.01
    }
    bias_filler {
      type: "constant"
    }
  }
}
layer {
  name: "accuracy"
  type: "Accuracy"
  bottom: "ip3"
  bottom: "label"
  top: "accuracy"
  include {
    phase: TEST
  }
}
layer {
  name: "loss"
  type: "SoftmaxWithLoss"
  bottom: "ip3"
  bottom: "label"
  top: "loss"
}
I0501 02:48:11.496251 17384 layer_factory.hpp:77] Creating layer cifar
I0501 02:48:11.496292 17384 db_lmdb.cpp:35] Opened lmdb examples/cifar10/cifar10_test_lmdb
I0501 02:48:11.496304 17384 net.cpp:86] Creating Layer cifar
I0501 02:48:11.496309 17384 net.cpp:382] cifar -> data
I0501 02:48:11.496315 17384 net.cpp:382] cifar -> label
I0501 02:48:11.496321 17384 data_transformer.cpp:25] Loading mean file from: examples/cifar10/mean.binaryproto
I0501 02:48:11.496450 17384 data_layer.cpp:45] output data size: 1000,3,32,32
I0501 02:48:11.517938 17384 net.cpp:124] Setting up cifar
I0501 02:48:11.517962 17384 net.cpp:131] Top shape: 1000 3 32 32 (3072000)
I0501 02:48:11.517968 17384 net.cpp:131] Top shape: 1000 (1000)
I0501 02:48:11.517971 17384 net.cpp:139] Memory required for data: 12292000
I0501 02:48:11.517977 17384 layer_factory.hpp:77] Creating layer label_cifar_1_split
I0501 02:48:11.517992 17384 net.cpp:86] Creating Layer label_cifar_1_split
I0501 02:48:11.518028 17384 net.cpp:408] label_cifar_1_split <- label
I0501 02:48:11.518035 17384 net.cpp:382] label_cifar_1_split -> label_cifar_1_split_0
I0501 02:48:11.518044 17384 net.cpp:382] label_cifar_1_split -> label_cifar_1_split_1
I0501 02:48:11.518141 17384 net.cpp:124] Setting up label_cifar_1_split
I0501 02:48:11.518151 17384 net.cpp:131] Top shape: 1000 (1000)
I0501 02:48:11.518154 17384 net.cpp:131] Top shape: 1000 (1000)
I0501 02:48:11.518157 17384 net.cpp:139] Memory required for data: 12300000
I0501 02:48:11.518160 17384 layer_factory.hpp:77] Creating layer conv0
I0501 02:48:11.518172 17384 net.cpp:86] Creating Layer conv0
I0501 02:48:11.518174 17384 net.cpp:408] conv0 <- data
I0501 02:48:11.518183 17384 net.cpp:382] conv0 -> conv0
I0501 02:48:11.519726 17384 net.cpp:124] Setting up conv0
I0501 02:48:11.519737 17384 net.cpp:131] Top shape: 1000 8 32 32 (8192000)
I0501 02:48:11.519742 17384 net.cpp:139] Memory required for data: 45068000
I0501 02:48:11.519750 17384 layer_factory.hpp:77] Creating layer Sigmoid0
I0501 02:48:11.519773 17384 net.cpp:86] Creating Layer Sigmoid0
I0501 02:48:11.519775 17384 net.cpp:408] Sigmoid0 <- conv0
I0501 02:48:11.519780 17384 net.cpp:382] Sigmoid0 -> Sigmoid0
I0501 02:48:11.520651 17384 net.cpp:124] Setting up Sigmoid0
I0501 02:48:11.520663 17384 net.cpp:131] Top shape: 1000 8 32 32 (8192000)
I0501 02:48:11.520666 17384 net.cpp:139] Memory required for data: 77836000
I0501 02:48:11.520670 17384 layer_factory.hpp:77] Creating layer pool0
I0501 02:48:11.520678 17384 net.cpp:86] Creating Layer pool0
I0501 02:48:11.520697 17384 net.cpp:408] pool0 <- Sigmoid0
I0501 02:48:11.520702 17384 net.cpp:382] pool0 -> pool0
I0501 02:48:11.521867 17384 net.cpp:124] Setting up pool0
I0501 02:48:11.521878 17384 net.cpp:131] Top shape: 1000 8 16 16 (2048000)
I0501 02:48:11.521881 17384 net.cpp:139] Memory required for data: 86028000
I0501 02:48:11.521885 17384 layer_factory.hpp:77] Creating layer ip1
I0501 02:48:11.521893 17384 net.cpp:86] Creating Layer ip1
I0501 02:48:11.521895 17384 net.cpp:408] ip1 <- pool0
I0501 02:48:11.521916 17384 net.cpp:382] ip1 -> ip1
I0501 02:48:11.526298 17384 net.cpp:124] Setting up ip1
I0501 02:48:11.526306 17384 net.cpp:131] Top shape: 1000 80 (80000)
I0501 02:48:11.526309 17384 net.cpp:139] Memory required for data: 86348000
I0501 02:48:11.526317 17384 layer_factory.hpp:77] Creating layer relu1
I0501 02:48:11.526322 17384 net.cpp:86] Creating Layer relu1
I0501 02:48:11.526341 17384 net.cpp:408] relu1 <- ip1
I0501 02:48:11.526345 17384 net.cpp:369] relu1 -> ip1 (in-place)
I0501 02:48:11.526490 17384 net.cpp:124] Setting up relu1
I0501 02:48:11.526499 17384 net.cpp:131] Top shape: 1000 80 (80000)
I0501 02:48:11.526501 17384 net.cpp:139] Memory required for data: 86668000
I0501 02:48:11.526504 17384 layer_factory.hpp:77] Creating layer ip2
I0501 02:48:11.526510 17384 net.cpp:86] Creating Layer ip2
I0501 02:48:11.526513 17384 net.cpp:408] ip2 <- ip1
I0501 02:48:11.526533 17384 net.cpp:382] ip2 -> ip2
I0501 02:48:11.526792 17384 net.cpp:124] Setting up ip2
I0501 02:48:11.526798 17384 net.cpp:131] Top shape: 1000 80 (80000)
I0501 02:48:11.526803 17384 net.cpp:139] Memory required for data: 86988000
I0501 02:48:11.526809 17384 layer_factory.hpp:77] Creating layer relu2
I0501 02:48:11.526814 17384 net.cpp:86] Creating Layer relu2
I0501 02:48:11.526818 17384 net.cpp:408] relu2 <- ip2
I0501 02:48:11.526821 17384 net.cpp:369] relu2 -> ip2 (in-place)
I0501 02:48:11.527014 17384 net.cpp:124] Setting up relu2
I0501 02:48:11.527021 17384 net.cpp:131] Top shape: 1000 80 (80000)
I0501 02:48:11.527025 17384 net.cpp:139] Memory required for data: 87308000
I0501 02:48:11.527029 17384 layer_factory.hpp:77] Creating layer ip3
I0501 02:48:11.527034 17384 net.cpp:86] Creating Layer ip3
I0501 02:48:11.527037 17384 net.cpp:408] ip3 <- ip2
I0501 02:48:11.527042 17384 net.cpp:382] ip3 -> ip3
I0501 02:48:11.527165 17384 net.cpp:124] Setting up ip3
I0501 02:48:11.527171 17384 net.cpp:131] Top shape: 1000 10 (10000)
I0501 02:48:11.527175 17384 net.cpp:139] Memory required for data: 87348000
I0501 02:48:11.527191 17384 layer_factory.hpp:77] Creating layer ip3_ip3_0_split
I0501 02:48:11.527196 17384 net.cpp:86] Creating Layer ip3_ip3_0_split
I0501 02:48:11.527199 17384 net.cpp:408] ip3_ip3_0_split <- ip3
I0501 02:48:11.527204 17384 net.cpp:382] ip3_ip3_0_split -> ip3_ip3_0_split_0
I0501 02:48:11.527209 17384 net.cpp:382] ip3_ip3_0_split -> ip3_ip3_0_split_1
I0501 02:48:11.527240 17384 net.cpp:124] Setting up ip3_ip3_0_split
I0501 02:48:11.527259 17384 net.cpp:131] Top shape: 1000 10 (10000)
I0501 02:48:11.527262 17384 net.cpp:131] Top shape: 1000 10 (10000)
I0501 02:48:11.527266 17384 net.cpp:139] Memory required for data: 87428000
I0501 02:48:11.527268 17384 layer_factory.hpp:77] Creating layer accuracy
I0501 02:48:11.527273 17384 net.cpp:86] Creating Layer accuracy
I0501 02:48:11.527276 17384 net.cpp:408] accuracy <- ip3_ip3_0_split_0
I0501 02:48:11.527279 17384 net.cpp:408] accuracy <- label_cifar_1_split_0
I0501 02:48:11.527298 17384 net.cpp:382] accuracy -> accuracy
…
