…
I0430 22:25:29.443863  1986 net.cpp:296] The NetState phase (0) differed from the phase (1) specified by a rule in layer cifar
I0430 22:25:29.443881  1986 net.cpp:296] The NetState phase (0) differed from the phase (1) specified by a rule in layer accuracy
I0430 22:25:29.443989  1986 net.cpp:53] Initializing net from parameters: 
name: "CIFAR"
state {
  phase: TRAIN
  level: 0
  stage: ""
}
layer {
  name: "cifar"
  type: "Data"
  top: "data"
  top: "label"
  include {
    phase: TRAIN
  }
  transform_param {
    mean_file: "examples/cifar10/mean.binaryproto"
  }
  data_param {
    source: "examples/cifar10/cifar10_train_lmdb"
    batch_size: 111
    backend: LMDB
  }
}
layer {
  name: "conv0"
  type: "Convolution"
  bottom: "data"
  top: "conv0"
  param {
    lr_mult: 1
  }
  param {
    lr_mult: 2
  }
  convolution_param {
    num_output: 8
    pad: 2
    kernel_size: 3
    stride: 1
    weight_filler {
      type: "gaussian"
      std: 0.01
    }
    bias_filler {
      type: "constant"
    }
  }
}
layer {
  name: "Sigmoid0"
  type: "Sigmoid"
  bottom: "conv0"
  top: "Sigmoid0"
}
layer {
  name: "pool0"
  type: "Pooling"
  bottom: "Sigmoid0"
  top: "pool0"
  pooling_param {
    pool: AVE
    kernel_size: 3
    stride: 2
  }
}
layer {
  name: "ip1"
  type: "InnerProduct"
  bottom: "pool0"
  top: "ip1"
  param {
    lr_mult: 1
  }
  param {
    lr_mult: 2
  }
  inner_product_param {
    num_output: 10
    weight_filler {
      type: "gaussian"
      std: 0.01
    }
    bias_filler {
      type: "constant"
    }
  }
}
layer {
  name: "relu1"
  type: "ReLU"
  bottom: "ip1"
  top: "ip1"
}
layer {
  name: "ip2"
  type: "InnerProduct"
  bottom: "ip1"
  top: "ip2"
  param {
    lr_mult: 1
  }
  param {
    lr_mult: 2
  }
  inner_product_param {
    num_output: 20
    weight_filler {
      type: "gaussian"
      std: 0.01
    }
    bias_filler {
      type: "constant"
    }
  }
}
layer {
  name: "relu2"
  type: "ReLU"
  bottom: "ip2"
  top: "ip2"
}
layer {
  name: "ip3"
  type: "InnerProduct"
  bottom: "ip2"
  top: "ip3"
  param {
    lr_mult: 1
  }
  param {
    lr_mult: 2
  }
  inner_product_param {
    num_output: 80
    weight_filler {
      type: "gaussian"
      std: 0.01
    }
    bias_filler {
      type: "constant"
    }
  }
}
layer {
  name: "relu3"
  type: "ReLU"
  bottom: "ip3"
  top: "ip3"
}
layer {
  name: "ip4"
  type: "InnerProduct"
  bottom: "ip3"
  top: "ip4"
  param {
    lr_mult: 1
  }
  param {
    lr_mult: 2
  }
  inner_product_param {
    num_output: 10
    weight_filler {
      type: "gaussian"
      std: 0.01
    }
    bias_filler {
      type: "constant"
    }
  }
}
layer {
  name: "loss"
  type: "SoftmaxWithLoss"
  bottom: "ip4"
  bottom: "label"
  top: "loss"
}
I0430 22:25:29.444067  1986 layer_factory.hpp:77] Creating layer cifar
I0430 22:25:29.444167  1986 db_lmdb.cpp:35] Opened lmdb examples/cifar10/cifar10_train_lmdb
I0430 22:25:29.444193  1986 net.cpp:86] Creating Layer cifar
I0430 22:25:29.444200  1986 net.cpp:382] cifar -> data
I0430 22:25:29.444224  1986 net.cpp:382] cifar -> label
I0430 22:25:29.444236  1986 data_transformer.cpp:25] Loading mean file from: examples/cifar10/mean.binaryproto
I0430 22:25:29.446347  1986 data_layer.cpp:45] output data size: 111,3,32,32
I0430 22:25:29.454232  1986 net.cpp:124] Setting up cifar
I0430 22:25:29.454252  1986 net.cpp:131] Top shape: 111 3 32 32 (340992)
I0430 22:25:29.454257  1986 net.cpp:131] Top shape: 111 (111)
I0430 22:25:29.454262  1986 net.cpp:139] Memory required for data: 1364412
I0430 22:25:29.454282  1986 layer_factory.hpp:77] Creating layer conv0
I0430 22:25:29.454304  1986 net.cpp:86] Creating Layer conv0
I0430 22:25:29.454310  1986 net.cpp:408] conv0 <- data
I0430 22:25:29.454321  1986 net.cpp:382] conv0 -> conv0
I0430 22:25:29.714263  1986 net.cpp:124] Setting up conv0
I0430 22:25:29.714288  1986 net.cpp:131] Top shape: 111 8 34 34 (1026528)
I0430 22:25:29.714293  1986 net.cpp:139] Memory required for data: 5470524
I0430 22:25:29.714305  1986 layer_factory.hpp:77] Creating layer Sigmoid0
I0430 22:25:29.714318  1986 net.cpp:86] Creating Layer Sigmoid0
I0430 22:25:29.714323  1986 net.cpp:408] Sigmoid0 <- conv0
I0430 22:25:29.714328  1986 net.cpp:382] Sigmoid0 -> Sigmoid0
I0430 22:25:29.714507  1986 net.cpp:124] Setting up Sigmoid0
I0430 22:25:29.714516  1986 net.cpp:131] Top shape: 111 8 34 34 (1026528)
I0430 22:25:29.714519  1986 net.cpp:139] Memory required for data: 9576636
I0430 22:25:29.714524  1986 layer_factory.hpp:77] Creating layer pool0
I0430 22:25:29.714529  1986 net.cpp:86] Creating Layer pool0
I0430 22:25:29.714532  1986 net.cpp:408] pool0 <- Sigmoid0
I0430 22:25:29.714536  1986 net.cpp:382] pool0 -> pool0
I0430 22:25:29.715266  1986 net.cpp:124] Setting up pool0
I0430 22:25:29.715278  1986 net.cpp:131] Top shape: 111 8 17 17 (256632)
I0430 22:25:29.715281  1986 net.cpp:139] Memory required for data: 10603164
I0430 22:25:29.715284  1986 layer_factory.hpp:77] Creating layer ip1
I0430 22:25:29.715293  1986 net.cpp:86] Creating Layer ip1
I0430 22:25:29.715296  1986 net.cpp:408] ip1 <- pool0
I0430 22:25:29.715301  1986 net.cpp:382] ip1 -> ip1
I0430 22:25:29.716763  1986 net.cpp:124] Setting up ip1
I0430 22:25:29.716774  1986 net.cpp:131] Top shape: 111 10 (1110)
I0430 22:25:29.716778  1986 net.cpp:139] Memory required for data: 10607604
I0430 22:25:29.716784  1986 layer_factory.hpp:77] Creating layer relu1
I0430 22:25:29.716790  1986 net.cpp:86] Creating Layer relu1
I0430 22:25:29.716794  1986 net.cpp:408] relu1 <- ip1
I0430 22:25:29.716797  1986 net.cpp:369] relu1 -> ip1 (in-place)
I0430 22:25:29.717061  1986 net.cpp:124] Setting up relu1
I0430 22:25:29.717072  1986 net.cpp:131] Top shape: 111 10 (1110)
I0430 22:25:29.717075  1986 net.cpp:139] Memory required for data: 10612044
I0430 22:25:29.717078  1986 layer_factory.hpp:77] Creating layer ip2
I0430 22:25:29.717085  1986 net.cpp:86] Creating Layer ip2
I0430 22:25:29.717089  1986 net.cpp:408] ip2 <- ip1
I0430 22:25:29.717094  1986 net.cpp:382] ip2 -> ip2
I0430 22:25:29.717259  1986 net.cpp:124] Setting up ip2
I0430 22:25:29.717265  1986 net.cpp:131] Top shape: 111 20 (2220)
I0430 22:25:29.717268  1986 net.cpp:139] Memory required for data: 10620924
I0430 22:25:29.717275  1986 layer_factory.hpp:77] Creating layer relu2
I0430 22:25:29.717280  1986 net.cpp:86] Creating Layer relu2
I0430 22:25:29.717283  1986 net.cpp:408] relu2 <- ip2
I0430 22:25:29.717288  1986 net.cpp:369] relu2 -> ip2 (in-place)
I0430 22:25:29.717442  1986 net.cpp:124] Setting up relu2
I0430 22:25:29.717450  1986 net.cpp:131] Top shape: 111 20 (2220)
I0430 22:25:29.717453  1986 net.cpp:139] Memory required for data: 10629804
I0430 22:25:29.717456  1986 layer_factory.hpp:77] Creating layer ip3
I0430 22:25:29.717463  1986 net.cpp:86] Creating Layer ip3
I0430 22:25:29.717465  1986 net.cpp:408] ip3 <- ip2
I0430 22:25:29.717470  1986 net.cpp:382] ip3 -> ip3
I0430 22:25:29.717597  1986 net.cpp:124] Setting up ip3
I0430 22:25:29.717603  1986 net.cpp:131] Top shape: 111 80 (8880)
I0430 22:25:29.717607  1986 net.cpp:139] Memory required for data: 10665324
I0430 22:25:29.717612  1986 layer_factory.hpp:77] Creating layer relu3
I0430 22:25:29.717615  1986 net.cpp:86] Creating Layer relu3
I0430 22:25:29.717618  1986 net.cpp:408] relu3 <- ip3
I0430 22:25:29.717622  1986 net.cpp:369] relu3 -> ip3 (in-place)
I0430 22:25:29.717758  1986 net.cpp:124] Setting up relu3
I0430 22:25:29.717766  1986 net.cpp:131] Top shape: 111 80 (8880)
I0430 22:25:29.717768  1986 net.cpp:139] Memory required for data: 10700844
I0430 22:25:29.717772  1986 layer_factory.hpp:77] Creating layer ip4
I0430 22:25:29.717790  1986 net.cpp:86] Creating Layer ip4
I0430 22:25:29.717793  1986 net.cpp:408] ip4 <- ip3
I0430 22:25:29.717799  1986 net.cpp:382] ip4 -> ip4
I0430 22:25:29.718735  1986 net.cpp:124] Setting up ip4
I0430 22:25:29.718746  1986 net.cpp:131] Top shape: 111 10 (1110)
I0430 22:25:29.718765  1986 net.cpp:139] Memory required for data: 10705284
I0430 22:25:29.718773  1986 layer_factory.hpp:77] Creating layer loss
I0430 22:25:29.718780  1986 net.cpp:86] Creating Layer loss
I0430 22:25:29.718782  1986 net.cpp:408] loss <- ip4
I0430 22:25:29.718786  1986 net.cpp:408] loss <- label
I0430 22:25:29.718791  1986 net.cpp:382] loss -> loss
I0430 22:25:29.718804  1986 layer_factory.hpp:77] Creating layer loss
…
I0430 22:25:29.719986  1986 solver.cpp:173] Creating test net (#0) specified by net file: ECE595/cifar/train_test/var_everything/cifar_train_test_193.prototxt
I0430 22:25:29.720011  1986 net.cpp:296] The NetState phase (1) differed from the phase (0) specified by a rule in layer cifar
I0430 22:25:29.720103  1986 net.cpp:53] Initializing net from parameters: 
name: "CIFAR"
state {
  phase: TEST
}
layer {
  name: "cifar"
  type: "Data"
  top: "data"
  top: "label"
  include {
    phase: TEST
  }
  transform_param {
    mean_file: "examples/cifar10/mean.binaryproto"
  }
  data_param {
    source: "examples/cifar10/cifar10_test_lmdb"
    batch_size: 1000
    backend: LMDB
  }
}
layer {
  name: "conv0"
  type: "Convolution"
  bottom: "data"
  top: "conv0"
  param {
    lr_mult: 1
  }
  param {
    lr_mult: 2
  }
  convolution_param {
    num_output: 8
    pad: 2
    kernel_size: 3
    stride: 1
    weight_filler {
      type: "gaussian"
      std: 0.01
    }
    bias_filler {
      type: "constant"
    }
  }
}
layer {
  name: "Sigmoid0"
  type: "Sigmoid"
  bottom: "conv0"
  top: "Sigmoid0"
}
layer {
  name: "pool0"
  type: "Pooling"
  bottom: "Sigmoid0"
  top: "pool0"
  pooling_param {
    pool: AVE
    kernel_size: 3
    stride: 2
  }
}
layer {
  name: "ip1"
  type: "InnerProduct"
  bottom: "pool0"
  top: "ip1"
  param {
    lr_mult: 1
  }
  param {
    lr_mult: 2
  }
  inner_product_param {
    num_output: 10
    weight_filler {
      type: "gaussian"
      std: 0.01
    }
    bias_filler {
      type: "constant"
    }
  }
}
layer {
  name: "relu1"
  type: "ReLU"
  bottom: "ip1"
  top: "ip1"
}
layer {
  name: "ip2"
  type: "InnerProduct"
  bottom: "ip1"
  top: "ip2"
  param {
    lr_mult: 1
  }
  param {
    lr_mult: 2
  }
  inner_product_param {
    num_output: 20
    weight_filler {
      type: "gaussian"
      std: 0.01
    }
    bias_filler {
      type: "constant"
    }
  }
}
layer {
  name: "relu2"
  type: "ReLU"
  bottom: "ip2"
  top: "ip2"
}
layer {
  name: "ip3"
  type: "InnerProduct"
  bottom: "ip2"
  top: "ip3"
  param {
    lr_mult: 1
  }
  param {
    lr_mult: 2
  }
  inner_product_param {
    num_output: 80
    weight_filler {
      type: "gaussian"
      std: 0.01
    }
    bias_filler {
      type: "constant"
    }
  }
}
layer {
  name: "relu3"
  type: "ReLU"
  bottom: "ip3"
  top: "ip3"
}
layer {
  name: "ip4"
  type: "InnerProduct"
  bottom: "ip3"
  top: "ip4"
  param {
    lr_mult: 1
  }
  param {
    lr_mult: 2
  }
  inner_product_param {
    num_output: 10
    weight_filler {
      type: "gaussian"
      std: 0.01
    }
    bias_filler {
      type: "constant"
    }
  }
}
layer {
  name: "accuracy"
  type: "Accuracy"
  bottom: "ip4"
  bottom: "label"
  top: "accuracy"
  include {
    phase: TEST
  }
}
layer {
  name: "loss"
  type: "SoftmaxWithLoss"
  bottom: "ip4"
  bottom: "label"
  top: "loss"
}
I0430 22:25:29.720178  1986 layer_factory.hpp:77] Creating layer cifar
I0430 22:25:29.720237  1986 db_lmdb.cpp:35] Opened lmdb examples/cifar10/cifar10_test_lmdb
I0430 22:25:29.720249  1986 net.cpp:86] Creating Layer cifar
I0430 22:25:29.720253  1986 net.cpp:382] cifar -> data
I0430 22:25:29.720260  1986 net.cpp:382] cifar -> label
I0430 22:25:29.720268  1986 data_transformer.cpp:25] Loading mean file from: examples/cifar10/mean.binaryproto
I0430 22:25:29.720414  1986 data_layer.cpp:45] output data size: 1000,3,32,32
I0430 22:25:29.742406  1986 net.cpp:124] Setting up cifar
I0430 22:25:29.742445  1986 net.cpp:131] Top shape: 1000 3 32 32 (3072000)
I0430 22:25:29.742450  1986 net.cpp:131] Top shape: 1000 (1000)
I0430 22:25:29.742453  1986 net.cpp:139] Memory required for data: 12292000
I0430 22:25:29.742460  1986 layer_factory.hpp:77] Creating layer label_cifar_1_split
I0430 22:25:29.742470  1986 net.cpp:86] Creating Layer label_cifar_1_split
I0430 22:25:29.742473  1986 net.cpp:408] label_cifar_1_split <- label
I0430 22:25:29.742496  1986 net.cpp:382] label_cifar_1_split -> label_cifar_1_split_0
I0430 22:25:29.742503  1986 net.cpp:382] label_cifar_1_split -> label_cifar_1_split_1
I0430 22:25:29.742624  1986 net.cpp:124] Setting up label_cifar_1_split
I0430 22:25:29.742630  1986 net.cpp:131] Top shape: 1000 (1000)
I0430 22:25:29.742635  1986 net.cpp:131] Top shape: 1000 (1000)
I0430 22:25:29.742636  1986 net.cpp:139] Memory required for data: 12300000
I0430 22:25:29.742655  1986 layer_factory.hpp:77] Creating layer conv0
I0430 22:25:29.742668  1986 net.cpp:86] Creating Layer conv0
I0430 22:25:29.742672  1986 net.cpp:408] conv0 <- data
I0430 22:25:29.742676  1986 net.cpp:382] conv0 -> conv0
I0430 22:25:29.744258  1986 net.cpp:124] Setting up conv0
I0430 22:25:29.744287  1986 net.cpp:131] Top shape: 1000 8 34 34 (9248000)
I0430 22:25:29.744290  1986 net.cpp:139] Memory required for data: 49292000
I0430 22:25:29.744299  1986 layer_factory.hpp:77] Creating layer Sigmoid0
I0430 22:25:29.744321  1986 net.cpp:86] Creating Layer Sigmoid0
I0430 22:25:29.744324  1986 net.cpp:408] Sigmoid0 <- conv0
I0430 22:25:29.744329  1986 net.cpp:382] Sigmoid0 -> Sigmoid0
I0430 22:25:29.744508  1986 net.cpp:124] Setting up Sigmoid0
I0430 22:25:29.744518  1986 net.cpp:131] Top shape: 1000 8 34 34 (9248000)
I0430 22:25:29.744520  1986 net.cpp:139] Memory required for data: 86284000
I0430 22:25:29.744524  1986 layer_factory.hpp:77] Creating layer pool0
I0430 22:25:29.744531  1986 net.cpp:86] Creating Layer pool0
I0430 22:25:29.744534  1986 net.cpp:408] pool0 <- Sigmoid0
I0430 22:25:29.744539  1986 net.cpp:382] pool0 -> pool0
I0430 22:25:29.744844  1986 net.cpp:124] Setting up pool0
I0430 22:25:29.744854  1986 net.cpp:131] Top shape: 1000 8 17 17 (2312000)
I0430 22:25:29.744858  1986 net.cpp:139] Memory required for data: 95532000
I0430 22:25:29.744861  1986 layer_factory.hpp:77] Creating layer ip1
I0430 22:25:29.744869  1986 net.cpp:86] Creating Layer ip1
I0430 22:25:29.744873  1986 net.cpp:408] ip1 <- pool0
I0430 22:25:29.744879  1986 net.cpp:382] ip1 -> ip1
I0430 22:25:29.746580  1986 net.cpp:124] Setting up ip1
I0430 22:25:29.746590  1986 net.cpp:131] Top shape: 1000 10 (10000)
I0430 22:25:29.746593  1986 net.cpp:139] Memory required for data: 95572000
I0430 22:25:29.746629  1986 layer_factory.hpp:77] Creating layer relu1
I0430 22:25:29.746635  1986 net.cpp:86] Creating Layer relu1
I0430 22:25:29.746639  1986 net.cpp:408] relu1 <- ip1
I0430 22:25:29.746644  1986 net.cpp:369] relu1 -> ip1 (in-place)
I0430 22:25:29.746821  1986 net.cpp:124] Setting up relu1
I0430 22:25:29.746830  1986 net.cpp:131] Top shape: 1000 10 (10000)
I0430 22:25:29.746832  1986 net.cpp:139] Memory required for data: 95612000
I0430 22:25:29.746835  1986 layer_factory.hpp:77] Creating layer ip2
I0430 22:25:29.746842  1986 net.cpp:86] Creating Layer ip2
I0430 22:25:29.746845  1986 net.cpp:408] ip2 <- ip1
I0430 22:25:29.746850  1986 net.cpp:382] ip2 -> ip2
I0430 22:25:29.746958  1986 net.cpp:124] Setting up ip2
I0430 22:25:29.746964  1986 net.cpp:131] Top shape: 1000 20 (20000)
I0430 22:25:29.746968  1986 net.cpp:139] Memory required for data: 95692000
I0430 22:25:29.746974  1986 layer_factory.hpp:77] Creating layer relu2
I0430 22:25:29.746987  1986 net.cpp:86] Creating Layer relu2
I0430 22:25:29.746989  1986 net.cpp:408] relu2 <- ip2
I0430 22:25:29.746994  1986 net.cpp:369] relu2 -> ip2 (in-place)
I0430 22:25:29.747723  1986 net.cpp:124] Setting up relu2
I0430 22:25:29.747735  1986 net.cpp:131] Top shape: 1000 20 (20000)
I0430 22:25:29.747738  1986 net.cpp:139] Memory required for data: 95772000
I0430 22:25:29.747741  1986 layer_factory.hpp:77] Creating layer ip3
I0430 22:25:29.747764  1986 net.cpp:86] Creating Layer ip3
I0430 22:25:29.747767  1986 net.cpp:408] ip3 <- ip2
I0430 22:25:29.747772  1986 net.cpp:382] ip3 -> ip3
I0430 22:25:29.747934  1986 net.cpp:124] Setting up ip3
I0430 22:25:29.747941  1986 net.cpp:131] Top shape: 1000 80 (80000)
I0430 22:25:29.747944  1986 net.cpp:139] Memory required for data: 96092000
I0430 22:25:29.747949  1986 layer_factory.hpp:77] Creating layer relu3
I0430 22:25:29.747956  1986 net.cpp:86] Creating Layer relu3
I0430 22:25:29.747958  1986 net.cpp:408] relu3 <- ip3
I0430 22:25:29.747961  1986 net.cpp:369] relu3 -> ip3 (in-place)
I0430 22:25:29.748119  1986 net.cpp:124] Setting up relu3
I0430 22:25:29.748127  1986 net.cpp:131] Top shape: 1000 80 (80000)
I0430 22:25:29.748131  1986 net.cpp:139] Memory required for data: 96412000
I0430 22:25:29.748133  1986 layer_factory.hpp:77] Creating layer ip4
I0430 22:25:29.748141  1986 net.cpp:86] Creating Layer ip4
I0430 22:25:29.748148  1986 net.cpp:408] ip4 <- ip3
I0430 22:25:29.748154  1986 net.cpp:382] ip4 -> ip4
I0430 22:25:29.748271  1986 net.cpp:124] Setting up ip4
I0430 22:25:29.748278  1986 net.cpp:131] Top shape: 1000 10 (10000)
I0430 22:25:29.748281  1986 net.cpp:139] Memory required for data: 96452000
I0430 22:25:29.748288  1986 layer_factory.hpp:77] Creating layer ip4_ip4_0_split
I0430 22:25:29.748293  1986 net.cpp:86] Creating Layer ip4_ip4_0_split
I0430 22:25:29.748301  1986 net.cpp:408] ip4_ip4_0_split <- ip4
I0430 22:25:29.748309  1986 net.cpp:382] ip4_ip4_0_split -> ip4_ip4_0_split_0
I0430 22:25:29.748316  1986 net.cpp:382] ip4_ip4_0_split -> ip4_ip4_0_split_1
I0430 22:25:29.748345  1986 net.cpp:124] Setting up ip4_ip4_0_split
I0430 22:25:29.748349  1986 net.cpp:131] Top shape: 1000 10 (10000)
I0430 22:25:29.748353  1986 net.cpp:131] Top shape: 1000 10 (10000)
I0430 22:25:29.748355  1986 net.cpp:139] Memory required for data: 96532000
I0430 22:25:29.748358  1986 layer_factory.hpp:77] Creating layer accuracy
I0430 22:25:29.748364  1986 net.cpp:86] Creating Layer accuracy
I0430 22:25:29.748366  1986 net.cpp:408] accuracy <- ip4_ip4_0_split_0
I0430 22:25:29.748371  1986 net.cpp:408] accuracy <- label_cifar_1_split_0
I0430 22:25:29.748374  1986 net.cpp:382] accuracy -> accuracy
…
