…
I0430 19:54:15.735153 27253 net.cpp:296] The NetState phase (0) differed from the phase (1) specified by a rule in layer cifar
I0430 19:54:15.735175 27253 net.cpp:296] The NetState phase (0) differed from the phase (1) specified by a rule in layer accuracy
I0430 19:54:15.735270 27253 net.cpp:53] Initializing net from parameters: 
name: "CIFAR"
state {
  phase: TRAIN
  level: 0
  stage: ""
}
layer {
  name: "cifar"
  type: "Data"
  top: "data"
  top: "label"
  include {
    phase: TRAIN
  }
  transform_param {
    mean_file: "examples/cifar10/mean.binaryproto"
  }
  data_param {
    source: "examples/cifar10/cifar10_train_lmdb"
    batch_size: 111
    backend: LMDB
  }
}
layer {
  name: "ip1"
  type: "InnerProduct"
  bottom: "data"
  top: "ip1"
  param {
    lr_mult: 1
  }
  param {
    lr_mult: 2
  }
  inner_product_param {
    num_output: 80
    weight_filler {
      type: "gaussian"
      std: 0.01
    }
    bias_filler {
      type: "constant"
    }
  }
}
layer {
  name: "relu1"
  type: "ReLU"
  bottom: "ip1"
  top: "ip1"
}
layer {
  name: "ip2"
  type: "InnerProduct"
  bottom: "ip1"
  top: "ip2"
  param {
    lr_mult: 1
  }
  param {
    lr_mult: 2
  }
  inner_product_param {
    num_output: 20
    weight_filler {
      type: "gaussian"
      std: 0.01
    }
    bias_filler {
      type: "constant"
    }
  }
}
layer {
  name: "relu2"
  type: "ReLU"
  bottom: "ip2"
  top: "ip2"
}
layer {
  name: "ip3"
  type: "InnerProduct"
  bottom: "ip2"
  top: "ip3"
  param {
    lr_mult: 1
  }
  param {
    lr_mult: 2
  }
  inner_product_param {
    num_output: 40
    weight_filler {
      type: "gaussian"
      std: 0.01
    }
    bias_filler {
      type: "constant"
    }
  }
}
layer {
  name: "relu3"
  type: "ReLU"
  bottom: "ip3"
  top: "ip3"
}
layer {
  name: "ip4"
  type: "InnerProduct"
  bottom: "ip3"
  top: "ip4"
  param {
    lr_mult: 1
  }
  param {
    lr_mult: 2
  }
  inner_product_param {
    num_output: 10
    weight_filler {
      type: "gaussian"
      std: 0.01
    }
    bias_filler {
      type: "constant"
    }
  }
}
layer {
  name: "loss"
  type: "SoftmaxWithLoss"
  bottom: "ip4"
  bottom: "label"
  top: "loss"
}
I0430 19:54:15.735373 27253 layer_factory.hpp:77] Creating layer cifar
I0430 19:54:15.735501 27253 db_lmdb.cpp:35] Opened lmdb examples/cifar10/cifar10_train_lmdb
I0430 19:54:15.735538 27253 net.cpp:86] Creating Layer cifar
I0430 19:54:15.735550 27253 net.cpp:382] cifar -> data
I0430 19:54:15.735584 27253 net.cpp:382] cifar -> label
I0430 19:54:15.735601 27253 data_transformer.cpp:25] Loading mean file from: examples/cifar10/mean.binaryproto
I0430 19:54:15.737931 27253 data_layer.cpp:45] output data size: 111,3,32,32
I0430 19:54:15.746038 27253 net.cpp:124] Setting up cifar
I0430 19:54:15.746062 27253 net.cpp:131] Top shape: 111 3 32 32 (340992)
I0430 19:54:15.746073 27253 net.cpp:131] Top shape: 111 (111)
I0430 19:54:15.746079 27253 net.cpp:139] Memory required for data: 1364412
I0430 19:54:15.746091 27253 layer_factory.hpp:77] Creating layer ip1
I0430 19:54:15.746109 27253 net.cpp:86] Creating Layer ip1
I0430 19:54:15.746124 27253 net.cpp:408] ip1 <- data
I0430 19:54:15.746145 27253 net.cpp:382] ip1 -> ip1
I0430 19:54:15.755390 27253 net.cpp:124] Setting up ip1
I0430 19:54:15.755409 27253 net.cpp:131] Top shape: 111 80 (8880)
I0430 19:54:15.755415 27253 net.cpp:139] Memory required for data: 1399932
I0430 19:54:15.755437 27253 layer_factory.hpp:77] Creating layer relu1
I0430 19:54:15.755451 27253 net.cpp:86] Creating Layer relu1
I0430 19:54:15.755475 27253 net.cpp:408] relu1 <- ip1
I0430 19:54:15.755484 27253 net.cpp:369] relu1 -> ip1 (in-place)
I0430 19:54:16.043054 27253 net.cpp:124] Setting up relu1
I0430 19:54:16.043087 27253 net.cpp:131] Top shape: 111 80 (8880)
I0430 19:54:16.043094 27253 net.cpp:139] Memory required for data: 1435452
I0430 19:54:16.043102 27253 layer_factory.hpp:77] Creating layer ip2
I0430 19:54:16.043121 27253 net.cpp:86] Creating Layer ip2
I0430 19:54:16.043128 27253 net.cpp:408] ip2 <- ip1
I0430 19:54:16.043143 27253 net.cpp:382] ip2 -> ip2
I0430 19:54:16.043335 27253 net.cpp:124] Setting up ip2
I0430 19:54:16.043346 27253 net.cpp:131] Top shape: 111 20 (2220)
I0430 19:54:16.043354 27253 net.cpp:139] Memory required for data: 1444332
I0430 19:54:16.043370 27253 layer_factory.hpp:77] Creating layer relu2
I0430 19:54:16.043388 27253 net.cpp:86] Creating Layer relu2
I0430 19:54:16.043396 27253 net.cpp:408] relu2 <- ip2
I0430 19:54:16.043406 27253 net.cpp:369] relu2 -> ip2 (in-place)
I0430 19:54:16.044287 27253 net.cpp:124] Setting up relu2
I0430 19:54:16.044304 27253 net.cpp:131] Top shape: 111 20 (2220)
I0430 19:54:16.044312 27253 net.cpp:139] Memory required for data: 1453212
I0430 19:54:16.044318 27253 layer_factory.hpp:77] Creating layer ip3
I0430 19:54:16.044332 27253 net.cpp:86] Creating Layer ip3
I0430 19:54:16.044338 27253 net.cpp:408] ip3 <- ip2
I0430 19:54:16.044348 27253 net.cpp:382] ip3 -> ip3
I0430 19:54:16.045495 27253 net.cpp:124] Setting up ip3
I0430 19:54:16.045511 27253 net.cpp:131] Top shape: 111 40 (4440)
I0430 19:54:16.045518 27253 net.cpp:139] Memory required for data: 1470972
I0430 19:54:16.045534 27253 layer_factory.hpp:77] Creating layer relu3
I0430 19:54:16.045545 27253 net.cpp:86] Creating Layer relu3
I0430 19:54:16.045552 27253 net.cpp:408] relu3 <- ip3
I0430 19:54:16.045562 27253 net.cpp:369] relu3 -> ip3 (in-place)
I0430 19:54:16.045754 27253 net.cpp:124] Setting up relu3
I0430 19:54:16.045768 27253 net.cpp:131] Top shape: 111 40 (4440)
I0430 19:54:16.045773 27253 net.cpp:139] Memory required for data: 1488732
I0430 19:54:16.045780 27253 layer_factory.hpp:77] Creating layer ip4
I0430 19:54:16.045791 27253 net.cpp:86] Creating Layer ip4
I0430 19:54:16.045799 27253 net.cpp:408] ip4 <- ip3
I0430 19:54:16.045809 27253 net.cpp:382] ip4 -> ip4
I0430 19:54:16.045941 27253 net.cpp:124] Setting up ip4
I0430 19:54:16.045953 27253 net.cpp:131] Top shape: 111 10 (1110)
I0430 19:54:16.045958 27253 net.cpp:139] Memory required for data: 1493172
I0430 19:54:16.045969 27253 layer_factory.hpp:77] Creating layer loss
I0430 19:54:16.045980 27253 net.cpp:86] Creating Layer loss
I0430 19:54:16.045986 27253 net.cpp:408] loss <- ip4
I0430 19:54:16.045994 27253 net.cpp:408] loss <- label
I0430 19:54:16.046005 27253 net.cpp:382] loss -> loss
I0430 19:54:16.046031 27253 layer_factory.hpp:77] Creating layer loss
…
I0430 19:54:16.046754 27253 solver.cpp:173] Creating test net (#0) specified by net file: ECE595/cifar/train_test/var_everything/cifar_train_test_112.prototxt
I0430 19:54:16.046808 27253 net.cpp:296] The NetState phase (1) differed from the phase (0) specified by a rule in layer cifar
I0430 19:54:16.046905 27253 net.cpp:53] Initializing net from parameters: 
name: "CIFAR"
state {
  phase: TEST
}
layer {
  name: "cifar"
  type: "Data"
  top: "data"
  top: "label"
  include {
    phase: TEST
  }
  transform_param {
    mean_file: "examples/cifar10/mean.binaryproto"
  }
  data_param {
    source: "examples/cifar10/cifar10_test_lmdb"
    batch_size: 1000
    backend: LMDB
  }
}
layer {
  name: "ip1"
  type: "InnerProduct"
  bottom: "data"
  top: "ip1"
  param {
    lr_mult: 1
  }
  param {
    lr_mult: 2
  }
  inner_product_param {
    num_output: 80
    weight_filler {
      type: "gaussian"
      std: 0.01
    }
    bias_filler {
      type: "constant"
    }
  }
}
layer {
  name: "relu1"
  type: "ReLU"
  bottom: "ip1"
  top: "ip1"
}
layer {
  name: "ip2"
  type: "InnerProduct"
  bottom: "ip1"
  top: "ip2"
  param {
    lr_mult: 1
  }
  param {
    lr_mult: 2
  }
  inner_product_param {
    num_output: 20
    weight_filler {
      type: "gaussian"
      std: 0.01
    }
    bias_filler {
      type: "constant"
    }
  }
}
layer {
  name: "relu2"
  type: "ReLU"
  bottom: "ip2"
  top: "ip2"
}
layer {
  name: "ip3"
  type: "InnerProduct"
  bottom: "ip2"
  top: "ip3"
  param {
    lr_mult: 1
  }
  param {
    lr_mult: 2
  }
  inner_product_param {
    num_output: 40
    weight_filler {
      type: "gaussian"
      std: 0.01
    }
    bias_filler {
      type: "constant"
    }
  }
}
layer {
  name: "relu3"
  type: "ReLU"
  bottom: "ip3"
  top: "ip3"
}
layer {
  name: "ip4"
  type: "InnerProduct"
  bottom: "ip3"
  top: "ip4"
  param {
    lr_mult: 1
  }
  param {
    lr_mult: 2
  }
  inner_product_param {
    num_output: 10
    weight_filler {
      type: "gaussian"
      std: 0.01
    }
    bias_filler {
      type: "constant"
    }
  }
}
layer {
  name: "accuracy"
  type: "Accuracy"
  bottom: "ip4"
  bottom: "label"
  top: "accuracy"
  include {
    phase: TEST
  }
}
layer {
  name: "loss"
  type: "SoftmaxWithLoss"
  bottom: "ip4"
  bottom: "label"
  top: "loss"
}
I0430 19:54:16.047005 27253 layer_factory.hpp:77] Creating layer cifar
I0430 19:54:16.047075 27253 db_lmdb.cpp:35] Opened lmdb examples/cifar10/cifar10_test_lmdb
I0430 19:54:16.047096 27253 net.cpp:86] Creating Layer cifar
I0430 19:54:16.047104 27253 net.cpp:382] cifar -> data
I0430 19:54:16.047118 27253 net.cpp:382] cifar -> label
I0430 19:54:16.047130 27253 data_transformer.cpp:25] Loading mean file from: examples/cifar10/mean.binaryproto
I0430 19:54:16.047363 27253 data_layer.cpp:45] output data size: 1000,3,32,32
I0430 19:54:16.071912 27253 net.cpp:124] Setting up cifar
I0430 19:54:16.071941 27253 net.cpp:131] Top shape: 1000 3 32 32 (3072000)
I0430 19:54:16.071950 27253 net.cpp:131] Top shape: 1000 (1000)
I0430 19:54:16.071956 27253 net.cpp:139] Memory required for data: 12292000
I0430 19:54:16.071964 27253 layer_factory.hpp:77] Creating layer label_cifar_1_split
I0430 19:54:16.071986 27253 net.cpp:86] Creating Layer label_cifar_1_split
I0430 19:54:16.071995 27253 net.cpp:408] label_cifar_1_split <- label
I0430 19:54:16.072005 27253 net.cpp:382] label_cifar_1_split -> label_cifar_1_split_0
I0430 19:54:16.072019 27253 net.cpp:382] label_cifar_1_split -> label_cifar_1_split_1
I0430 19:54:16.072136 27253 net.cpp:124] Setting up label_cifar_1_split
I0430 19:54:16.072146 27253 net.cpp:131] Top shape: 1000 (1000)
I0430 19:54:16.072152 27253 net.cpp:131] Top shape: 1000 (1000)
I0430 19:54:16.072158 27253 net.cpp:139] Memory required for data: 12300000
I0430 19:54:16.072163 27253 layer_factory.hpp:77] Creating layer ip1
I0430 19:54:16.072177 27253 net.cpp:86] Creating Layer ip1
I0430 19:54:16.072190 27253 net.cpp:408] ip1 <- data
I0430 19:54:16.072198 27253 net.cpp:382] ip1 -> ip1
I0430 19:54:16.079494 27253 net.cpp:124] Setting up ip1
I0430 19:54:16.079507 27253 net.cpp:131] Top shape: 1000 80 (80000)
I0430 19:54:16.079514 27253 net.cpp:139] Memory required for data: 12620000
I0430 19:54:16.079550 27253 layer_factory.hpp:77] Creating layer relu1
I0430 19:54:16.079562 27253 net.cpp:86] Creating Layer relu1
I0430 19:54:16.079569 27253 net.cpp:408] relu1 <- ip1
I0430 19:54:16.079577 27253 net.cpp:369] relu1 -> ip1 (in-place)
I0430 19:54:16.080404 27253 net.cpp:124] Setting up relu1
I0430 19:54:16.080420 27253 net.cpp:131] Top shape: 1000 80 (80000)
I0430 19:54:16.080425 27253 net.cpp:139] Memory required for data: 12940000
I0430 19:54:16.080431 27253 layer_factory.hpp:77] Creating layer ip2
I0430 19:54:16.080445 27253 net.cpp:86] Creating Layer ip2
I0430 19:54:16.080451 27253 net.cpp:408] ip2 <- ip1
I0430 19:54:16.080461 27253 net.cpp:382] ip2 -> ip2
I0430 19:54:16.080623 27253 net.cpp:124] Setting up ip2
I0430 19:54:16.080633 27253 net.cpp:131] Top shape: 1000 20 (20000)
I0430 19:54:16.080638 27253 net.cpp:139] Memory required for data: 13020000
I0430 19:54:16.080652 27253 layer_factory.hpp:77] Creating layer relu2
I0430 19:54:16.080662 27253 net.cpp:86] Creating Layer relu2
I0430 19:54:16.080673 27253 net.cpp:408] relu2 <- ip2
I0430 19:54:16.080682 27253 net.cpp:369] relu2 -> ip2 (in-place)
I0430 19:54:16.080888 27253 net.cpp:124] Setting up relu2
I0430 19:54:16.080899 27253 net.cpp:131] Top shape: 1000 20 (20000)
I0430 19:54:16.080904 27253 net.cpp:139] Memory required for data: 13100000
I0430 19:54:16.080910 27253 layer_factory.hpp:77] Creating layer ip3
I0430 19:54:16.080920 27253 net.cpp:86] Creating Layer ip3
I0430 19:54:16.080927 27253 net.cpp:408] ip3 <- ip2
I0430 19:54:16.080936 27253 net.cpp:382] ip3 -> ip3
I0430 19:54:16.081077 27253 net.cpp:124] Setting up ip3
I0430 19:54:16.081086 27253 net.cpp:131] Top shape: 1000 40 (40000)
I0430 19:54:16.081092 27253 net.cpp:139] Memory required for data: 13260000
I0430 19:54:16.081105 27253 layer_factory.hpp:77] Creating layer relu3
I0430 19:54:16.081115 27253 net.cpp:86] Creating Layer relu3
I0430 19:54:16.081120 27253 net.cpp:408] relu3 <- ip3
I0430 19:54:16.081127 27253 net.cpp:369] relu3 -> ip3 (in-place)
I0430 19:54:16.081301 27253 net.cpp:124] Setting up relu3
I0430 19:54:16.081312 27253 net.cpp:131] Top shape: 1000 40 (40000)
I0430 19:54:16.081317 27253 net.cpp:139] Memory required for data: 13420000
I0430 19:54:16.081323 27253 layer_factory.hpp:77] Creating layer ip4
I0430 19:54:16.081334 27253 net.cpp:86] Creating Layer ip4
I0430 19:54:16.081341 27253 net.cpp:408] ip4 <- ip3
I0430 19:54:16.081351 27253 net.cpp:382] ip4 -> ip4
I0430 19:54:16.081470 27253 net.cpp:124] Setting up ip4
I0430 19:54:16.081478 27253 net.cpp:131] Top shape: 1000 10 (10000)
I0430 19:54:16.081485 27253 net.cpp:139] Memory required for data: 13460000
I0430 19:54:16.081495 27253 layer_factory.hpp:77] Creating layer ip4_ip4_0_split
I0430 19:54:16.081502 27253 net.cpp:86] Creating Layer ip4_ip4_0_split
I0430 19:54:16.081508 27253 net.cpp:408] ip4_ip4_0_split <- ip4
I0430 19:54:16.081516 27253 net.cpp:382] ip4_ip4_0_split -> ip4_ip4_0_split_0
I0430 19:54:16.081527 27253 net.cpp:382] ip4_ip4_0_split -> ip4_ip4_0_split_1
I0430 19:54:16.081568 27253 net.cpp:124] Setting up ip4_ip4_0_split
I0430 19:54:16.081575 27253 net.cpp:131] Top shape: 1000 10 (10000)
I0430 19:54:16.081583 27253 net.cpp:131] Top shape: 1000 10 (10000)
I0430 19:54:16.081588 27253 net.cpp:139] Memory required for data: 13540000
I0430 19:54:16.081593 27253 layer_factory.hpp:77] Creating layer accuracy
I0430 19:54:16.081601 27253 net.cpp:86] Creating Layer accuracy
I0430 19:54:16.081607 27253 net.cpp:408] accuracy <- ip4_ip4_0_split_0
I0430 19:54:16.081614 27253 net.cpp:408] accuracy <- label_cifar_1_split_0
I0430 19:54:16.081622 27253 net.cpp:382] accuracy -> accuracy
…
