…
I0430 23:38:56.208256  5281 net.cpp:296] The NetState phase (0) differed from the phase (1) specified by a rule in layer cifar
I0430 23:38:56.208273  5281 net.cpp:296] The NetState phase (0) differed from the phase (1) specified by a rule in layer accuracy
I0430 23:38:56.208374  5281 net.cpp:53] Initializing net from parameters: 
name: "CIFAR"
state {
  phase: TRAIN
  level: 0
  stage: ""
}
layer {
  name: "cifar"
  type: "Data"
  top: "data"
  top: "label"
  include {
    phase: TRAIN
  }
  transform_param {
    mean_file: "examples/cifar10/mean.binaryproto"
  }
  data_param {
    source: "examples/cifar10/cifar10_train_lmdb"
    batch_size: 111
    backend: LMDB
  }
}
layer {
  name: "conv0"
  type: "Convolution"
  bottom: "data"
  top: "conv0"
  param {
    lr_mult: 1
  }
  param {
    lr_mult: 2
  }
  convolution_param {
    num_output: 8
    pad: 2
    kernel_size: 3
    stride: 1
    weight_filler {
      type: "gaussian"
      std: 0.01
    }
    bias_filler {
      type: "constant"
    }
  }
}
layer {
  name: "Sigmoid0"
  type: "Sigmoid"
  bottom: "conv0"
  top: "Sigmoid0"
}
layer {
  name: "pool0"
  type: "Pooling"
  bottom: "Sigmoid0"
  top: "pool0"
  pooling_param {
    pool: AVE
    kernel_size: 3
    stride: 2
  }
}
layer {
  name: "ip1"
  type: "InnerProduct"
  bottom: "pool0"
  top: "ip1"
  param {
    lr_mult: 1
  }
  param {
    lr_mult: 2
  }
  inner_product_param {
    num_output: 20
    weight_filler {
      type: "gaussian"
      std: 0.01
    }
    bias_filler {
      type: "constant"
    }
  }
}
layer {
  name: "relu1"
  type: "ReLU"
  bottom: "ip1"
  top: "ip1"
}
layer {
  name: "ip2"
  type: "InnerProduct"
  bottom: "ip1"
  top: "ip2"
  param {
    lr_mult: 1
  }
  param {
    lr_mult: 2
  }
  inner_product_param {
    num_output: 160
    weight_filler {
      type: "gaussian"
      std: 0.01
    }
    bias_filler {
      type: "constant"
    }
  }
}
layer {
  name: "relu2"
  type: "ReLU"
  bottom: "ip2"
  top: "ip2"
}
layer {
  name: "ip3"
  type: "InnerProduct"
  bottom: "ip2"
  top: "ip3"
  param {
    lr_mult: 1
  }
  param {
    lr_mult: 2
  }
  inner_product_param {
    num_output: 40
    weight_filler {
      type: "gaussian"
      std: 0.01
    }
    bias_filler {
      type: "constant"
    }
  }
}
layer {
  name: "relu3"
  type: "ReLU"
  bottom: "ip3"
  top: "ip3"
}
layer {
  name: "ip4"
  type: "InnerProduct"
  bottom: "ip3"
  top: "ip4"
  param {
    lr_mult: 1
  }
  param {
    lr_mult: 2
  }
  inner_product_param {
    num_output: 10
    weight_filler {
      type: "gaussian"
      std: 0.01
    }
    bias_filler {
      type: "constant"
    }
  }
}
layer {
  name: "loss"
  type: "SoftmaxWithLoss"
  bottom: "ip4"
  bottom: "label"
  top: "loss"
}
I0430 23:38:56.208449  5281 layer_factory.hpp:77] Creating layer cifar
I0430 23:38:56.208550  5281 db_lmdb.cpp:35] Opened lmdb examples/cifar10/cifar10_train_lmdb
I0430 23:38:56.208576  5281 net.cpp:86] Creating Layer cifar
I0430 23:38:56.208585  5281 net.cpp:382] cifar -> data
I0430 23:38:56.208608  5281 net.cpp:382] cifar -> label
I0430 23:38:56.208621  5281 data_transformer.cpp:25] Loading mean file from: examples/cifar10/mean.binaryproto
I0430 23:38:56.210728  5281 data_layer.cpp:45] output data size: 111,3,32,32
I0430 23:38:56.218598  5281 net.cpp:124] Setting up cifar
I0430 23:38:56.218617  5281 net.cpp:131] Top shape: 111 3 32 32 (340992)
I0430 23:38:56.218624  5281 net.cpp:131] Top shape: 111 (111)
I0430 23:38:56.218628  5281 net.cpp:139] Memory required for data: 1364412
I0430 23:38:56.218652  5281 layer_factory.hpp:77] Creating layer conv0
I0430 23:38:56.218670  5281 net.cpp:86] Creating Layer conv0
I0430 23:38:56.218677  5281 net.cpp:408] conv0 <- data
I0430 23:38:56.218688  5281 net.cpp:382] conv0 -> conv0
I0430 23:38:56.509450  5281 net.cpp:124] Setting up conv0
I0430 23:38:56.509480  5281 net.cpp:131] Top shape: 111 8 34 34 (1026528)
I0430 23:38:56.509485  5281 net.cpp:139] Memory required for data: 5470524
I0430 23:38:56.509502  5281 layer_factory.hpp:77] Creating layer Sigmoid0
I0430 23:38:56.509516  5281 net.cpp:86] Creating Layer Sigmoid0
I0430 23:38:56.509521  5281 net.cpp:408] Sigmoid0 <- conv0
I0430 23:38:56.509526  5281 net.cpp:382] Sigmoid0 -> Sigmoid0
I0430 23:38:56.509716  5281 net.cpp:124] Setting up Sigmoid0
I0430 23:38:56.509726  5281 net.cpp:131] Top shape: 111 8 34 34 (1026528)
I0430 23:38:56.509729  5281 net.cpp:139] Memory required for data: 9576636
I0430 23:38:56.509733  5281 layer_factory.hpp:77] Creating layer pool0
I0430 23:38:56.509742  5281 net.cpp:86] Creating Layer pool0
I0430 23:38:56.509744  5281 net.cpp:408] pool0 <- Sigmoid0
I0430 23:38:56.509749  5281 net.cpp:382] pool0 -> pool0
I0430 23:38:56.510545  5281 net.cpp:124] Setting up pool0
I0430 23:38:56.510560  5281 net.cpp:131] Top shape: 111 8 17 17 (256632)
I0430 23:38:56.510563  5281 net.cpp:139] Memory required for data: 10603164
I0430 23:38:56.510567  5281 layer_factory.hpp:77] Creating layer ip1
I0430 23:38:56.510577  5281 net.cpp:86] Creating Layer ip1
I0430 23:38:56.510581  5281 net.cpp:408] ip1 <- pool0
I0430 23:38:56.510587  5281 net.cpp:382] ip1 -> ip1
I0430 23:38:56.512933  5281 net.cpp:124] Setting up ip1
I0430 23:38:56.512946  5281 net.cpp:131] Top shape: 111 20 (2220)
I0430 23:38:56.512949  5281 net.cpp:139] Memory required for data: 10612044
I0430 23:38:56.512959  5281 layer_factory.hpp:77] Creating layer relu1
I0430 23:38:56.512965  5281 net.cpp:86] Creating Layer relu1
I0430 23:38:56.512969  5281 net.cpp:408] relu1 <- ip1
I0430 23:38:56.512974  5281 net.cpp:369] relu1 -> ip1 (in-place)
I0430 23:38:56.513133  5281 net.cpp:124] Setting up relu1
I0430 23:38:56.513141  5281 net.cpp:131] Top shape: 111 20 (2220)
I0430 23:38:56.513144  5281 net.cpp:139] Memory required for data: 10620924
I0430 23:38:56.513149  5281 layer_factory.hpp:77] Creating layer ip2
I0430 23:38:56.513154  5281 net.cpp:86] Creating Layer ip2
I0430 23:38:56.513159  5281 net.cpp:408] ip2 <- ip1
I0430 23:38:56.513164  5281 net.cpp:382] ip2 -> ip2
I0430 23:38:56.513348  5281 net.cpp:124] Setting up ip2
I0430 23:38:56.513355  5281 net.cpp:131] Top shape: 111 160 (17760)
I0430 23:38:56.513360  5281 net.cpp:139] Memory required for data: 10691964
I0430 23:38:56.513366  5281 layer_factory.hpp:77] Creating layer relu2
I0430 23:38:56.513371  5281 net.cpp:86] Creating Layer relu2
I0430 23:38:56.513375  5281 net.cpp:408] relu2 <- ip2
I0430 23:38:56.513380  5281 net.cpp:369] relu2 -> ip2 (in-place)
I0430 23:38:56.513540  5281 net.cpp:124] Setting up relu2
I0430 23:38:56.513550  5281 net.cpp:131] Top shape: 111 160 (17760)
I0430 23:38:56.513553  5281 net.cpp:139] Memory required for data: 10763004
I0430 23:38:56.513556  5281 layer_factory.hpp:77] Creating layer ip3
I0430 23:38:56.513564  5281 net.cpp:86] Creating Layer ip3
I0430 23:38:56.513567  5281 net.cpp:408] ip3 <- ip2
I0430 23:38:56.513572  5281 net.cpp:382] ip3 -> ip3
I0430 23:38:56.514693  5281 net.cpp:124] Setting up ip3
I0430 23:38:56.514708  5281 net.cpp:131] Top shape: 111 40 (4440)
I0430 23:38:56.514710  5281 net.cpp:139] Memory required for data: 10780764
I0430 23:38:56.514717  5281 layer_factory.hpp:77] Creating layer relu3
I0430 23:38:56.514722  5281 net.cpp:86] Creating Layer relu3
I0430 23:38:56.514726  5281 net.cpp:408] relu3 <- ip3
I0430 23:38:56.514731  5281 net.cpp:369] relu3 -> ip3 (in-place)
I0430 23:38:56.514894  5281 net.cpp:124] Setting up relu3
I0430 23:38:56.514904  5281 net.cpp:131] Top shape: 111 40 (4440)
I0430 23:38:56.514906  5281 net.cpp:139] Memory required for data: 10798524
I0430 23:38:56.514910  5281 layer_factory.hpp:77] Creating layer ip4
I0430 23:38:56.514931  5281 net.cpp:86] Creating Layer ip4
I0430 23:38:56.514935  5281 net.cpp:408] ip4 <- ip3
I0430 23:38:56.514940  5281 net.cpp:382] ip4 -> ip4
I0430 23:38:56.515904  5281 net.cpp:124] Setting up ip4
I0430 23:38:56.515918  5281 net.cpp:131] Top shape: 111 10 (1110)
I0430 23:38:56.515921  5281 net.cpp:139] Memory required for data: 10802964
I0430 23:38:56.515930  5281 layer_factory.hpp:77] Creating layer loss
I0430 23:38:56.515938  5281 net.cpp:86] Creating Layer loss
I0430 23:38:56.515940  5281 net.cpp:408] loss <- ip4
I0430 23:38:56.515944  5281 net.cpp:408] loss <- label
I0430 23:38:56.515950  5281 net.cpp:382] loss -> loss
I0430 23:38:56.515964  5281 layer_factory.hpp:77] Creating layer loss
…
I0430 23:38:56.517199  5281 solver.cpp:173] Creating test net (#0) specified by net file: ECE595/cifar/train_test/var_everything/cifar_train_test_232.prototxt
I0430 23:38:56.517228  5281 net.cpp:296] The NetState phase (1) differed from the phase (0) specified by a rule in layer cifar
I0430 23:38:56.517324  5281 net.cpp:53] Initializing net from parameters: 
name: "CIFAR"
state {
  phase: TEST
}
layer {
  name: "cifar"
  type: "Data"
  top: "data"
  top: "label"
  include {
    phase: TEST
  }
  transform_param {
    mean_file: "examples/cifar10/mean.binaryproto"
  }
  data_param {
    source: "examples/cifar10/cifar10_test_lmdb"
    batch_size: 1000
    backend: LMDB
  }
}
layer {
  name: "conv0"
  type: "Convolution"
  bottom: "data"
  top: "conv0"
  param {
    lr_mult: 1
  }
  param {
    lr_mult: 2
  }
  convolution_param {
    num_output: 8
    pad: 2
    kernel_size: 3
    stride: 1
    weight_filler {
      type: "gaussian"
      std: 0.01
    }
    bias_filler {
      type: "constant"
    }
  }
}
layer {
  name: "Sigmoid0"
  type: "Sigmoid"
  bottom: "conv0"
  top: "Sigmoid0"
}
layer {
  name: "pool0"
  type: "Pooling"
  bottom: "Sigmoid0"
  top: "pool0"
  pooling_param {
    pool: AVE
    kernel_size: 3
    stride: 2
  }
}
layer {
  name: "ip1"
  type: "InnerProduct"
  bottom: "pool0"
  top: "ip1"
  param {
    lr_mult: 1
  }
  param {
    lr_mult: 2
  }
  inner_product_param {
    num_output: 20
    weight_filler {
      type: "gaussian"
      std: 0.01
    }
    bias_filler {
      type: "constant"
    }
  }
}
layer {
  name: "relu1"
  type: "ReLU"
  bottom: "ip1"
  top: "ip1"
}
layer {
  name: "ip2"
  type: "InnerProduct"
  bottom: "ip1"
  top: "ip2"
  param {
    lr_mult: 1
  }
  param {
    lr_mult: 2
  }
  inner_product_param {
    num_output: 160
    weight_filler {
      type: "gaussian"
      std: 0.01
    }
    bias_filler {
      type: "constant"
    }
  }
}
layer {
  name: "relu2"
  type: "ReLU"
  bottom: "ip2"
  top: "ip2"
}
layer {
  name: "ip3"
  type: "InnerProduct"
  bottom: "ip2"
  top: "ip3"
  param {
    lr_mult: 1
  }
  param {
    lr_mult: 2
  }
  inner_product_param {
    num_output: 40
    weight_filler {
      type: "gaussian"
      std: 0.01
    }
    bias_filler {
      type: "constant"
    }
  }
}
layer {
  name: "relu3"
  type: "ReLU"
  bottom: "ip3"
  top: "ip3"
}
layer {
  name: "ip4"
  type: "InnerProduct"
  bottom: "ip3"
  top: "ip4"
  param {
    lr_mult: 1
  }
  param {
    lr_mult: 2
  }
  inner_product_param {
    num_output: 10
    weight_filler {
      type: "gaussian"
      std: 0.01
    }
    bias_filler {
      type: "constant"
    }
  }
}
layer {
  name: "accuracy"
  type: "Accuracy"
  bottom: "ip4"
  bottom: "label"
  top: "accuracy"
  include {
    phase: TEST
  }
}
layer {
  name: "loss"
  type: "SoftmaxWithLoss"
  bottom: "ip4"
  bottom: "label"
  top: "loss"
}
I0430 23:38:56.517405  5281 layer_factory.hpp:77] Creating layer cifar
I0430 23:38:56.517453  5281 db_lmdb.cpp:35] Opened lmdb examples/cifar10/cifar10_test_lmdb
I0430 23:38:56.517465  5281 net.cpp:86] Creating Layer cifar
I0430 23:38:56.517470  5281 net.cpp:382] cifar -> data
I0430 23:38:56.517478  5281 net.cpp:382] cifar -> label
I0430 23:38:56.517484  5281 data_transformer.cpp:25] Loading mean file from: examples/cifar10/mean.binaryproto
I0430 23:38:56.517627  5281 data_layer.cpp:45] output data size: 1000,3,32,32
I0430 23:38:56.539819  5281 net.cpp:124] Setting up cifar
I0430 23:38:56.539846  5281 net.cpp:131] Top shape: 1000 3 32 32 (3072000)
I0430 23:38:56.539851  5281 net.cpp:131] Top shape: 1000 (1000)
I0430 23:38:56.539855  5281 net.cpp:139] Memory required for data: 12292000
I0430 23:38:56.539860  5281 layer_factory.hpp:77] Creating layer label_cifar_1_split
I0430 23:38:56.539872  5281 net.cpp:86] Creating Layer label_cifar_1_split
I0430 23:38:56.539877  5281 net.cpp:408] label_cifar_1_split <- label
I0430 23:38:56.539883  5281 net.cpp:382] label_cifar_1_split -> label_cifar_1_split_0
I0430 23:38:56.539892  5281 net.cpp:382] label_cifar_1_split -> label_cifar_1_split_1
I0430 23:38:56.540000  5281 net.cpp:124] Setting up label_cifar_1_split
I0430 23:38:56.540009  5281 net.cpp:131] Top shape: 1000 (1000)
I0430 23:38:56.540011  5281 net.cpp:131] Top shape: 1000 (1000)
I0430 23:38:56.540014  5281 net.cpp:139] Memory required for data: 12300000
I0430 23:38:56.540017  5281 layer_factory.hpp:77] Creating layer conv0
I0430 23:38:56.540030  5281 net.cpp:86] Creating Layer conv0
I0430 23:38:56.540033  5281 net.cpp:408] conv0 <- data
I0430 23:38:56.540038  5281 net.cpp:382] conv0 -> conv0
I0430 23:38:56.541663  5281 net.cpp:124] Setting up conv0
I0430 23:38:56.541676  5281 net.cpp:131] Top shape: 1000 8 34 34 (9248000)
I0430 23:38:56.541681  5281 net.cpp:139] Memory required for data: 49292000
I0430 23:38:56.541690  5281 layer_factory.hpp:77] Creating layer Sigmoid0
I0430 23:38:56.541697  5281 net.cpp:86] Creating Layer Sigmoid0
I0430 23:38:56.541699  5281 net.cpp:408] Sigmoid0 <- conv0
I0430 23:38:56.541704  5281 net.cpp:382] Sigmoid0 -> Sigmoid0
I0430 23:38:56.541869  5281 net.cpp:124] Setting up Sigmoid0
I0430 23:38:56.541878  5281 net.cpp:131] Top shape: 1000 8 34 34 (9248000)
I0430 23:38:56.541882  5281 net.cpp:139] Memory required for data: 86284000
I0430 23:38:56.541885  5281 layer_factory.hpp:77] Creating layer pool0
I0430 23:38:56.541893  5281 net.cpp:86] Creating Layer pool0
I0430 23:38:56.541895  5281 net.cpp:408] pool0 <- Sigmoid0
I0430 23:38:56.541900  5281 net.cpp:382] pool0 -> pool0
I0430 23:38:56.542050  5281 net.cpp:124] Setting up pool0
I0430 23:38:56.542057  5281 net.cpp:131] Top shape: 1000 8 17 17 (2312000)
I0430 23:38:56.542062  5281 net.cpp:139] Memory required for data: 95532000
I0430 23:38:56.542064  5281 layer_factory.hpp:77] Creating layer ip1
I0430 23:38:56.542071  5281 net.cpp:86] Creating Layer ip1
I0430 23:38:56.542074  5281 net.cpp:408] ip1 <- pool0
I0430 23:38:56.542079  5281 net.cpp:382] ip1 -> ip1
I0430 23:38:56.543422  5281 net.cpp:124] Setting up ip1
I0430 23:38:56.543431  5281 net.cpp:131] Top shape: 1000 20 (20000)
I0430 23:38:56.543434  5281 net.cpp:139] Memory required for data: 95612000
I0430 23:38:56.543457  5281 layer_factory.hpp:77] Creating layer relu1
I0430 23:38:56.543462  5281 net.cpp:86] Creating Layer relu1
I0430 23:38:56.543465  5281 net.cpp:408] relu1 <- ip1
I0430 23:38:56.543470  5281 net.cpp:369] relu1 -> ip1 (in-place)
I0430 23:38:56.543622  5281 net.cpp:124] Setting up relu1
I0430 23:38:56.543630  5281 net.cpp:131] Top shape: 1000 20 (20000)
I0430 23:38:56.543633  5281 net.cpp:139] Memory required for data: 95692000
I0430 23:38:56.543637  5281 layer_factory.hpp:77] Creating layer ip2
I0430 23:38:56.543643  5281 net.cpp:86] Creating Layer ip2
I0430 23:38:56.543647  5281 net.cpp:408] ip2 <- ip1
I0430 23:38:56.543651  5281 net.cpp:382] ip2 -> ip2
I0430 23:38:56.543838  5281 net.cpp:124] Setting up ip2
I0430 23:38:56.543846  5281 net.cpp:131] Top shape: 1000 160 (160000)
I0430 23:38:56.543849  5281 net.cpp:139] Memory required for data: 96332000
I0430 23:38:56.543856  5281 layer_factory.hpp:77] Creating layer relu2
I0430 23:38:56.543862  5281 net.cpp:86] Creating Layer relu2
I0430 23:38:56.543866  5281 net.cpp:408] relu2 <- ip2
I0430 23:38:56.543870  5281 net.cpp:369] relu2 -> ip2 (in-place)
I0430 23:38:56.544589  5281 net.cpp:124] Setting up relu2
I0430 23:38:56.544600  5281 net.cpp:131] Top shape: 1000 160 (160000)
I0430 23:38:56.544603  5281 net.cpp:139] Memory required for data: 96972000
I0430 23:38:56.544607  5281 layer_factory.hpp:77] Creating layer ip3
I0430 23:38:56.544615  5281 net.cpp:86] Creating Layer ip3
I0430 23:38:56.544617  5281 net.cpp:408] ip3 <- ip2
I0430 23:38:56.544623  5281 net.cpp:382] ip3 -> ip3
I0430 23:38:56.544890  5281 net.cpp:124] Setting up ip3
I0430 23:38:56.544899  5281 net.cpp:131] Top shape: 1000 40 (40000)
I0430 23:38:56.544903  5281 net.cpp:139] Memory required for data: 97132000
I0430 23:38:56.544909  5281 layer_factory.hpp:77] Creating layer relu3
I0430 23:38:56.544912  5281 net.cpp:86] Creating Layer relu3
I0430 23:38:56.544916  5281 net.cpp:408] relu3 <- ip3
I0430 23:38:56.544920  5281 net.cpp:369] relu3 -> ip3 (in-place)
I0430 23:38:56.545059  5281 net.cpp:124] Setting up relu3
I0430 23:38:56.545068  5281 net.cpp:131] Top shape: 1000 40 (40000)
I0430 23:38:56.545071  5281 net.cpp:139] Memory required for data: 97292000
I0430 23:38:56.545074  5281 layer_factory.hpp:77] Creating layer ip4
I0430 23:38:56.545079  5281 net.cpp:86] Creating Layer ip4
I0430 23:38:56.545083  5281 net.cpp:408] ip4 <- ip3
I0430 23:38:56.545087  5281 net.cpp:382] ip4 -> ip4
I0430 23:38:56.545189  5281 net.cpp:124] Setting up ip4
I0430 23:38:56.545197  5281 net.cpp:131] Top shape: 1000 10 (10000)
I0430 23:38:56.545199  5281 net.cpp:139] Memory required for data: 97332000
I0430 23:38:56.545208  5281 layer_factory.hpp:77] Creating layer ip4_ip4_0_split
I0430 23:38:56.545213  5281 net.cpp:86] Creating Layer ip4_ip4_0_split
I0430 23:38:56.545215  5281 net.cpp:408] ip4_ip4_0_split <- ip4
I0430 23:38:56.545220  5281 net.cpp:382] ip4_ip4_0_split -> ip4_ip4_0_split_0
I0430 23:38:56.545225  5281 net.cpp:382] ip4_ip4_0_split -> ip4_ip4_0_split_1
I0430 23:38:56.545253  5281 net.cpp:124] Setting up ip4_ip4_0_split
I0430 23:38:56.545258  5281 net.cpp:131] Top shape: 1000 10 (10000)
I0430 23:38:56.545260  5281 net.cpp:131] Top shape: 1000 10 (10000)
I0430 23:38:56.545264  5281 net.cpp:139] Memory required for data: 97412000
I0430 23:38:56.545266  5281 layer_factory.hpp:77] Creating layer accuracy
I0430 23:38:56.545272  5281 net.cpp:86] Creating Layer accuracy
I0430 23:38:56.545275  5281 net.cpp:408] accuracy <- ip4_ip4_0_split_0
I0430 23:38:56.545289  5281 net.cpp:408] accuracy <- label_cifar_1_split_0
I0430 23:38:56.545292  5281 net.cpp:382] accuracy -> accuracy
…
