…
I0501 02:07:05.242887 13706 net.cpp:296] The NetState phase (0) differed from the phase (1) specified by a rule in layer cifar
I0501 02:07:05.242900 13706 net.cpp:296] The NetState phase (0) differed from the phase (1) specified by a rule in layer accuracy
I0501 02:07:05.242987 13706 net.cpp:53] Initializing net from parameters: 
name: "CIFAR"
state {
  phase: TRAIN
  level: 0
  stage: ""
}
layer {
  name: "cifar"
  type: "Data"
  top: "data"
  top: "label"
  include {
    phase: TRAIN
  }
  transform_param {
    mean_file: "examples/cifar10/mean.binaryproto"
  }
  data_param {
    source: "examples/cifar10/cifar10_train_lmdb"
    batch_size: 111
    backend: LMDB
  }
}
layer {
  name: "conv0"
  type: "Convolution"
  bottom: "data"
  top: "conv0"
  param {
    lr_mult: 1
  }
  param {
    lr_mult: 2
  }
  convolution_param {
    num_output: 8
    pad: 2
    kernel_size: 5
    stride: 1
    weight_filler {
      type: "gaussian"
      std: 0.01
    }
    bias_filler {
      type: "constant"
    }
  }
}
layer {
  name: "Sigmoid0"
  type: "Sigmoid"
  bottom: "conv0"
  top: "Sigmoid0"
}
layer {
  name: "pool0"
  type: "Pooling"
  bottom: "Sigmoid0"
  top: "pool0"
  pooling_param {
    pool: AVE
    kernel_size: 3
    stride: 2
  }
}
layer {
  name: "ip1"
  type: "InnerProduct"
  bottom: "pool0"
  top: "ip1"
  param {
    lr_mult: 1
  }
  param {
    lr_mult: 2
  }
  inner_product_param {
    num_output: 20
    weight_filler {
      type: "gaussian"
      std: 0.01
    }
    bias_filler {
      type: "constant"
    }
  }
}
layer {
  name: "relu1"
  type: "ReLU"
  bottom: "ip1"
  top: "ip1"
}
layer {
  name: "ip2"
  type: "InnerProduct"
  bottom: "ip1"
  top: "ip2"
  param {
    lr_mult: 1
  }
  param {
    lr_mult: 2
  }
  inner_product_param {
    num_output: 10
    weight_filler {
      type: "gaussian"
      std: 0.01
    }
    bias_filler {
      type: "constant"
    }
  }
}
layer {
  name: "loss"
  type: "SoftmaxWithLoss"
  bottom: "ip2"
  bottom: "label"
  top: "loss"
}
I0501 02:07:05.243057 13706 layer_factory.hpp:77] Creating layer cifar
I0501 02:07:05.243161 13706 db_lmdb.cpp:35] Opened lmdb examples/cifar10/cifar10_train_lmdb
I0501 02:07:05.243191 13706 net.cpp:86] Creating Layer cifar
I0501 02:07:05.243201 13706 net.cpp:382] cifar -> data
I0501 02:07:05.243226 13706 net.cpp:382] cifar -> label
I0501 02:07:05.243242 13706 data_transformer.cpp:25] Loading mean file from: examples/cifar10/mean.binaryproto
I0501 02:07:05.245409 13706 data_layer.cpp:45] output data size: 111,3,32,32
I0501 02:07:05.253451 13706 net.cpp:124] Setting up cifar
I0501 02:07:05.253491 13706 net.cpp:131] Top shape: 111 3 32 32 (340992)
I0501 02:07:05.253497 13706 net.cpp:131] Top shape: 111 (111)
I0501 02:07:05.253501 13706 net.cpp:139] Memory required for data: 1364412
I0501 02:07:05.253509 13706 layer_factory.hpp:77] Creating layer conv0
I0501 02:07:05.253530 13706 net.cpp:86] Creating Layer conv0
I0501 02:07:05.253545 13706 net.cpp:408] conv0 <- data
I0501 02:07:05.253558 13706 net.cpp:382] conv0 -> conv0
I0501 02:07:05.544059 13706 net.cpp:124] Setting up conv0
I0501 02:07:05.544088 13706 net.cpp:131] Top shape: 111 8 32 32 (909312)
I0501 02:07:05.544095 13706 net.cpp:139] Memory required for data: 5001660
I0501 02:07:05.544111 13706 layer_factory.hpp:77] Creating layer Sigmoid0
I0501 02:07:05.544124 13706 net.cpp:86] Creating Layer Sigmoid0
I0501 02:07:05.544131 13706 net.cpp:408] Sigmoid0 <- conv0
I0501 02:07:05.544137 13706 net.cpp:382] Sigmoid0 -> Sigmoid0
I0501 02:07:05.544373 13706 net.cpp:124] Setting up Sigmoid0
I0501 02:07:05.544384 13706 net.cpp:131] Top shape: 111 8 32 32 (909312)
I0501 02:07:05.544389 13706 net.cpp:139] Memory required for data: 8638908
I0501 02:07:05.544392 13706 layer_factory.hpp:77] Creating layer pool0
I0501 02:07:05.544400 13706 net.cpp:86] Creating Layer pool0
I0501 02:07:05.544404 13706 net.cpp:408] pool0 <- Sigmoid0
I0501 02:07:05.544410 13706 net.cpp:382] pool0 -> pool0
I0501 02:07:05.545302 13706 net.cpp:124] Setting up pool0
I0501 02:07:05.545318 13706 net.cpp:131] Top shape: 111 8 16 16 (227328)
I0501 02:07:05.545322 13706 net.cpp:139] Memory required for data: 9548220
I0501 02:07:05.545326 13706 layer_factory.hpp:77] Creating layer ip1
I0501 02:07:05.545337 13706 net.cpp:86] Creating Layer ip1
I0501 02:07:05.545341 13706 net.cpp:408] ip1 <- pool0
I0501 02:07:05.545349 13706 net.cpp:382] ip1 -> ip1
I0501 02:07:05.547785 13706 net.cpp:124] Setting up ip1
I0501 02:07:05.547801 13706 net.cpp:131] Top shape: 111 20 (2220)
I0501 02:07:05.547804 13706 net.cpp:139] Memory required for data: 9557100
I0501 02:07:05.547814 13706 layer_factory.hpp:77] Creating layer relu1
I0501 02:07:05.547821 13706 net.cpp:86] Creating Layer relu1
I0501 02:07:05.547825 13706 net.cpp:408] relu1 <- ip1
I0501 02:07:05.547830 13706 net.cpp:369] relu1 -> ip1 (in-place)
I0501 02:07:05.548030 13706 net.cpp:124] Setting up relu1
I0501 02:07:05.548041 13706 net.cpp:131] Top shape: 111 20 (2220)
I0501 02:07:05.548045 13706 net.cpp:139] Memory required for data: 9565980
I0501 02:07:05.548048 13706 layer_factory.hpp:77] Creating layer ip2
I0501 02:07:05.548056 13706 net.cpp:86] Creating Layer ip2
I0501 02:07:05.548059 13706 net.cpp:408] ip2 <- ip1
I0501 02:07:05.548066 13706 net.cpp:382] ip2 -> ip2
I0501 02:07:05.548187 13706 net.cpp:124] Setting up ip2
I0501 02:07:05.548194 13706 net.cpp:131] Top shape: 111 10 (1110)
I0501 02:07:05.548198 13706 net.cpp:139] Memory required for data: 9570420
I0501 02:07:05.548207 13706 layer_factory.hpp:77] Creating layer loss
I0501 02:07:05.548215 13706 net.cpp:86] Creating Layer loss
I0501 02:07:05.548219 13706 net.cpp:408] loss <- ip2
I0501 02:07:05.548223 13706 net.cpp:408] loss <- label
I0501 02:07:05.548229 13706 net.cpp:382] loss -> loss
I0501 02:07:05.548249 13706 layer_factory.hpp:77] Creating layer loss
…
I0501 02:07:05.548919 13706 solver.cpp:173] Creating test net (#0) specified by net file: ECE595/cifar/train_test/var_everything/cifar_train_test_311.prototxt
I0501 02:07:05.548949 13706 net.cpp:296] The NetState phase (1) differed from the phase (0) specified by a rule in layer cifar
I0501 02:07:05.549037 13706 net.cpp:53] Initializing net from parameters: 
name: "CIFAR"
state {
  phase: TEST
}
layer {
  name: "cifar"
  type: "Data"
  top: "data"
  top: "label"
  include {
    phase: TEST
  }
  transform_param {
    mean_file: "examples/cifar10/mean.binaryproto"
  }
  data_param {
    source: "examples/cifar10/cifar10_test_lmdb"
    batch_size: 1000
    backend: LMDB
  }
}
layer {
  name: "conv0"
  type: "Convolution"
  bottom: "data"
  top: "conv0"
  param {
    lr_mult: 1
  }
  param {
    lr_mult: 2
  }
  convolution_param {
    num_output: 8
    pad: 2
    kernel_size: 5
    stride: 1
    weight_filler {
      type: "gaussian"
      std: 0.01
    }
    bias_filler {
      type: "constant"
    }
  }
}
layer {
  name: "Sigmoid0"
  type: "Sigmoid"
  bottom: "conv0"
  top: "Sigmoid0"
}
layer {
  name: "pool0"
  type: "Pooling"
  bottom: "Sigmoid0"
  top: "pool0"
  pooling_param {
    pool: AVE
    kernel_size: 3
    stride: 2
  }
}
layer {
  name: "ip1"
  type: "InnerProduct"
  bottom: "pool0"
  top: "ip1"
  param {
    lr_mult: 1
  }
  param {
    lr_mult: 2
  }
  inner_product_param {
    num_output: 20
    weight_filler {
      type: "gaussian"
      std: 0.01
    }
    bias_filler {
      type: "constant"
    }
  }
}
layer {
  name: "relu1"
  type: "ReLU"
  bottom: "ip1"
  top: "ip1"
}
layer {
  name: "ip2"
  type: "InnerProduct"
  bottom: "ip1"
  top: "ip2"
  param {
    lr_mult: 1
  }
  param {
    lr_mult: 2
  }
  inner_product_param {
    num_output: 10
    weight_filler {
      type: "gaussian"
      std: 0.01
    }
    bias_filler {
      type: "constant"
    }
  }
}
layer {
  name: "accuracy"
  type: "Accuracy"
  bottom: "ip2"
  bottom: "label"
  top: "accuracy"
  include {
    phase: TEST
  }
}
layer {
  name: "loss"
  type: "SoftmaxWithLoss"
  bottom: "ip2"
  bottom: "label"
  top: "loss"
}
I0501 02:07:05.549124 13706 layer_factory.hpp:77] Creating layer cifar
I0501 02:07:05.549175 13706 db_lmdb.cpp:35] Opened lmdb examples/cifar10/cifar10_test_lmdb
I0501 02:07:05.549190 13706 net.cpp:86] Creating Layer cifar
I0501 02:07:05.549196 13706 net.cpp:382] cifar -> data
I0501 02:07:05.549206 13706 net.cpp:382] cifar -> label
I0501 02:07:05.549213 13706 data_transformer.cpp:25] Loading mean file from: examples/cifar10/mean.binaryproto
I0501 02:07:05.549393 13706 data_layer.cpp:45] output data size: 1000,3,32,32
I0501 02:07:05.574671 13706 net.cpp:124] Setting up cifar
I0501 02:07:05.574702 13706 net.cpp:131] Top shape: 1000 3 32 32 (3072000)
I0501 02:07:05.574708 13706 net.cpp:131] Top shape: 1000 (1000)
I0501 02:07:05.574712 13706 net.cpp:139] Memory required for data: 12292000
I0501 02:07:05.574718 13706 layer_factory.hpp:77] Creating layer label_cifar_1_split
I0501 02:07:05.574738 13706 net.cpp:86] Creating Layer label_cifar_1_split
I0501 02:07:05.574743 13706 net.cpp:408] label_cifar_1_split <- label
I0501 02:07:05.574751 13706 net.cpp:382] label_cifar_1_split -> label_cifar_1_split_0
I0501 02:07:05.574761 13706 net.cpp:382] label_cifar_1_split -> label_cifar_1_split_1
I0501 02:07:05.574885 13706 net.cpp:124] Setting up label_cifar_1_split
I0501 02:07:05.574894 13706 net.cpp:131] Top shape: 1000 (1000)
I0501 02:07:05.574898 13706 net.cpp:131] Top shape: 1000 (1000)
I0501 02:07:05.574903 13706 net.cpp:139] Memory required for data: 12300000
I0501 02:07:05.574905 13706 layer_factory.hpp:77] Creating layer conv0
I0501 02:07:05.574921 13706 net.cpp:86] Creating Layer conv0
I0501 02:07:05.574926 13706 net.cpp:408] conv0 <- data
I0501 02:07:05.574932 13706 net.cpp:382] conv0 -> conv0
I0501 02:07:05.576864 13706 net.cpp:124] Setting up conv0
I0501 02:07:05.576880 13706 net.cpp:131] Top shape: 1000 8 32 32 (8192000)
I0501 02:07:05.576884 13706 net.cpp:139] Memory required for data: 45068000
I0501 02:07:05.576898 13706 layer_factory.hpp:77] Creating layer Sigmoid0
I0501 02:07:05.576906 13706 net.cpp:86] Creating Layer Sigmoid0
I0501 02:07:05.576911 13706 net.cpp:408] Sigmoid0 <- conv0
I0501 02:07:05.576916 13706 net.cpp:382] Sigmoid0 -> Sigmoid0
I0501 02:07:05.578198 13706 net.cpp:124] Setting up Sigmoid0
I0501 02:07:05.578213 13706 net.cpp:131] Top shape: 1000 8 32 32 (8192000)
I0501 02:07:05.578217 13706 net.cpp:139] Memory required for data: 77836000
I0501 02:07:05.578222 13706 layer_factory.hpp:77] Creating layer pool0
I0501 02:07:05.578233 13706 net.cpp:86] Creating Layer pool0
I0501 02:07:05.578238 13706 net.cpp:408] pool0 <- Sigmoid0
I0501 02:07:05.578244 13706 net.cpp:382] pool0 -> pool0
I0501 02:07:05.579169 13706 net.cpp:124] Setting up pool0
I0501 02:07:05.579198 13706 net.cpp:131] Top shape: 1000 8 16 16 (2048000)
I0501 02:07:05.579202 13706 net.cpp:139] Memory required for data: 86028000
I0501 02:07:05.579207 13706 layer_factory.hpp:77] Creating layer ip1
I0501 02:07:05.579217 13706 net.cpp:86] Creating Layer ip1
I0501 02:07:05.579222 13706 net.cpp:408] ip1 <- pool0
I0501 02:07:05.579228 13706 net.cpp:382] ip1 -> ip1
I0501 02:07:05.580705 13706 net.cpp:124] Setting up ip1
I0501 02:07:05.580715 13706 net.cpp:131] Top shape: 1000 20 (20000)
I0501 02:07:05.580719 13706 net.cpp:139] Memory required for data: 86108000
I0501 02:07:05.580729 13706 layer_factory.hpp:77] Creating layer relu1
I0501 02:07:05.580735 13706 net.cpp:86] Creating Layer relu1
I0501 02:07:05.580739 13706 net.cpp:408] relu1 <- ip1
I0501 02:07:05.580744 13706 net.cpp:369] relu1 -> ip1 (in-place)
I0501 02:07:05.580950 13706 net.cpp:124] Setting up relu1
I0501 02:07:05.580961 13706 net.cpp:131] Top shape: 1000 20 (20000)
I0501 02:07:05.580965 13706 net.cpp:139] Memory required for data: 86188000
I0501 02:07:05.580970 13706 layer_factory.hpp:77] Creating layer ip2
I0501 02:07:05.580976 13706 net.cpp:86] Creating Layer ip2
I0501 02:07:05.580981 13706 net.cpp:408] ip2 <- ip1
I0501 02:07:05.580988 13706 net.cpp:382] ip2 -> ip2
I0501 02:07:05.581123 13706 net.cpp:124] Setting up ip2
I0501 02:07:05.581132 13706 net.cpp:131] Top shape: 1000 10 (10000)
I0501 02:07:05.581135 13706 net.cpp:139] Memory required for data: 86228000
I0501 02:07:05.581145 13706 layer_factory.hpp:77] Creating layer ip2_ip2_0_split
I0501 02:07:05.581152 13706 net.cpp:86] Creating Layer ip2_ip2_0_split
I0501 02:07:05.581156 13706 net.cpp:408] ip2_ip2_0_split <- ip2
I0501 02:07:05.581162 13706 net.cpp:382] ip2_ip2_0_split -> ip2_ip2_0_split_0
I0501 02:07:05.581171 13706 net.cpp:382] ip2_ip2_0_split -> ip2_ip2_0_split_1
I0501 02:07:05.581207 13706 net.cpp:124] Setting up ip2_ip2_0_split
I0501 02:07:05.581221 13706 net.cpp:131] Top shape: 1000 10 (10000)
I0501 02:07:05.581226 13706 net.cpp:131] Top shape: 1000 10 (10000)
I0501 02:07:05.581229 13706 net.cpp:139] Memory required for data: 86308000
I0501 02:07:05.581233 13706 layer_factory.hpp:77] Creating layer accuracy
I0501 02:07:05.581239 13706 net.cpp:86] Creating Layer accuracy
I0501 02:07:05.581243 13706 net.cpp:408] accuracy <- ip2_ip2_0_split_0
I0501 02:07:05.581248 13706 net.cpp:408] accuracy <- label_cifar_1_split_0
I0501 02:07:05.581254 13706 net.cpp:382] accuracy -> accuracy
…
