…
I0430 19:08:33.901782 25242 net.cpp:296] The NetState phase (0) differed from the phase (1) specified by a rule in layer cifar
I0430 19:08:33.901799 25242 net.cpp:296] The NetState phase (0) differed from the phase (1) specified by a rule in layer accuracy
I0430 19:08:33.901883 25242 net.cpp:53] Initializing net from parameters: 
name: "CIFAR"
state {
  phase: TRAIN
  level: 0
  stage: ""
}
layer {
  name: "cifar"
  type: "Data"
  top: "data"
  top: "label"
  include {
    phase: TRAIN
  }
  transform_param {
    mean_file: "examples/cifar10/mean.binaryproto"
  }
  data_param {
    source: "examples/cifar10/cifar10_train_lmdb"
    batch_size: 111
    backend: LMDB
  }
}
layer {
  name: "ip1"
  type: "InnerProduct"
  bottom: "data"
  top: "ip1"
  param {
    lr_mult: 1
  }
  param {
    lr_mult: 2
  }
  inner_product_param {
    num_output: 40
    weight_filler {
      type: "gaussian"
      std: 0.01
    }
    bias_filler {
      type: "constant"
    }
  }
}
layer {
  name: "relu1"
  type: "ReLU"
  bottom: "ip1"
  top: "ip1"
}
layer {
  name: "ip2"
  type: "InnerProduct"
  bottom: "ip1"
  top: "ip2"
  param {
    lr_mult: 1
  }
  param {
    lr_mult: 2
  }
  inner_product_param {
    num_output: 20
    weight_filler {
      type: "gaussian"
      std: 0.01
    }
    bias_filler {
      type: "constant"
    }
  }
}
layer {
  name: "relu2"
  type: "ReLU"
  bottom: "ip2"
  top: "ip2"
}
layer {
  name: "ip3"
  type: "InnerProduct"
  bottom: "ip2"
  top: "ip3"
  param {
    lr_mult: 1
  }
  param {
    lr_mult: 2
  }
  inner_product_param {
    num_output: 80
    weight_filler {
      type: "gaussian"
      std: 0.01
    }
    bias_filler {
      type: "constant"
    }
  }
}
layer {
  name: "relu3"
  type: "ReLU"
  bottom: "ip3"
  top: "ip3"
}
layer {
  name: "ip4"
  type: "InnerProduct"
  bottom: "ip3"
  top: "ip4"
  param {
    lr_mult: 1
  }
  param {
    lr_mult: 2
  }
  inner_product_param {
    num_output: 10
    weight_filler {
      type: "gaussian"
      std: 0.01
    }
    bias_filler {
      type: "constant"
    }
  }
}
layer {
  name: "loss"
  type: "SoftmaxWithLoss"
  bottom: "ip4"
  bottom: "label"
  top: "loss"
}
I0430 19:08:33.901953 25242 layer_factory.hpp:77] Creating layer cifar
I0430 19:08:33.902055 25242 db_lmdb.cpp:35] Opened lmdb examples/cifar10/cifar10_train_lmdb
I0430 19:08:33.902083 25242 net.cpp:86] Creating Layer cifar
I0430 19:08:33.902091 25242 net.cpp:382] cifar -> data
I0430 19:08:33.902113 25242 net.cpp:382] cifar -> label
I0430 19:08:33.902127 25242 data_transformer.cpp:25] Loading mean file from: examples/cifar10/mean.binaryproto
I0430 19:08:33.904247 25242 data_layer.cpp:45] output data size: 111,3,32,32
I0430 19:08:33.912341 25242 net.cpp:124] Setting up cifar
I0430 19:08:33.912362 25242 net.cpp:131] Top shape: 111 3 32 32 (340992)
I0430 19:08:33.912369 25242 net.cpp:131] Top shape: 111 (111)
I0430 19:08:33.912372 25242 net.cpp:139] Memory required for data: 1364412
I0430 19:08:33.912380 25242 layer_factory.hpp:77] Creating layer ip1
I0430 19:08:33.912395 25242 net.cpp:86] Creating Layer ip1
I0430 19:08:33.912400 25242 net.cpp:408] ip1 <- data
I0430 19:08:33.912415 25242 net.cpp:382] ip1 -> ip1
I0430 19:08:33.916651 25242 net.cpp:124] Setting up ip1
I0430 19:08:33.916662 25242 net.cpp:131] Top shape: 111 40 (4440)
I0430 19:08:33.916666 25242 net.cpp:139] Memory required for data: 1382172
I0430 19:08:33.916682 25242 layer_factory.hpp:77] Creating layer relu1
I0430 19:08:33.916690 25242 net.cpp:86] Creating Layer relu1
I0430 19:08:33.916710 25242 net.cpp:408] relu1 <- ip1
I0430 19:08:33.916716 25242 net.cpp:369] relu1 -> ip1 (in-place)
I0430 19:08:34.199659 25242 net.cpp:124] Setting up relu1
I0430 19:08:34.199688 25242 net.cpp:131] Top shape: 111 40 (4440)
I0430 19:08:34.199692 25242 net.cpp:139] Memory required for data: 1399932
I0430 19:08:34.199698 25242 layer_factory.hpp:77] Creating layer ip2
I0430 19:08:34.199710 25242 net.cpp:86] Creating Layer ip2
I0430 19:08:34.199717 25242 net.cpp:408] ip2 <- ip1
I0430 19:08:34.199724 25242 net.cpp:382] ip2 -> ip2
I0430 19:08:34.200733 25242 net.cpp:124] Setting up ip2
I0430 19:08:34.200747 25242 net.cpp:131] Top shape: 111 20 (2220)
I0430 19:08:34.200750 25242 net.cpp:139] Memory required for data: 1408812
I0430 19:08:34.200760 25242 layer_factory.hpp:77] Creating layer relu2
I0430 19:08:34.200768 25242 net.cpp:86] Creating Layer relu2
I0430 19:08:34.200773 25242 net.cpp:408] relu2 <- ip2
I0430 19:08:34.200778 25242 net.cpp:369] relu2 -> ip2 (in-place)
I0430 19:08:34.201575 25242 net.cpp:124] Setting up relu2
I0430 19:08:34.201588 25242 net.cpp:131] Top shape: 111 20 (2220)
I0430 19:08:34.201592 25242 net.cpp:139] Memory required for data: 1417692
I0430 19:08:34.201596 25242 layer_factory.hpp:77] Creating layer ip3
I0430 19:08:34.201602 25242 net.cpp:86] Creating Layer ip3
I0430 19:08:34.201606 25242 net.cpp:408] ip3 <- ip2
I0430 19:08:34.201611 25242 net.cpp:382] ip3 -> ip3
I0430 19:08:34.201750 25242 net.cpp:124] Setting up ip3
I0430 19:08:34.201759 25242 net.cpp:131] Top shape: 111 80 (8880)
I0430 19:08:34.201762 25242 net.cpp:139] Memory required for data: 1453212
I0430 19:08:34.201769 25242 layer_factory.hpp:77] Creating layer relu3
I0430 19:08:34.201774 25242 net.cpp:86] Creating Layer relu3
I0430 19:08:34.201777 25242 net.cpp:408] relu3 <- ip3
I0430 19:08:34.201781 25242 net.cpp:369] relu3 -> ip3 (in-place)
I0430 19:08:34.201926 25242 net.cpp:124] Setting up relu3
I0430 19:08:34.201934 25242 net.cpp:131] Top shape: 111 80 (8880)
I0430 19:08:34.201937 25242 net.cpp:139] Memory required for data: 1488732
I0430 19:08:34.201941 25242 layer_factory.hpp:77] Creating layer ip4
I0430 19:08:34.201946 25242 net.cpp:86] Creating Layer ip4
I0430 19:08:34.201949 25242 net.cpp:408] ip4 <- ip3
I0430 19:08:34.201954 25242 net.cpp:382] ip4 -> ip4
I0430 19:08:34.202067 25242 net.cpp:124] Setting up ip4
I0430 19:08:34.202074 25242 net.cpp:131] Top shape: 111 10 (1110)
I0430 19:08:34.202076 25242 net.cpp:139] Memory required for data: 1493172
I0430 19:08:34.202082 25242 layer_factory.hpp:77] Creating layer loss
I0430 19:08:34.202090 25242 net.cpp:86] Creating Layer loss
I0430 19:08:34.202092 25242 net.cpp:408] loss <- ip4
I0430 19:08:34.202096 25242 net.cpp:408] loss <- label
I0430 19:08:34.202101 25242 net.cpp:382] loss -> loss
I0430 19:08:34.202119 25242 layer_factory.hpp:77] Creating layer loss
…
I0430 19:08:34.202669 25242 solver.cpp:173] Creating test net (#0) specified by net file: ECE595/cifar/train_test/var_everything/cifar_train_test_88.prototxt
I0430 19:08:34.202708 25242 net.cpp:296] The NetState phase (1) differed from the phase (0) specified by a rule in layer cifar
I0430 19:08:34.202785 25242 net.cpp:53] Initializing net from parameters: 
name: "CIFAR"
state {
  phase: TEST
}
layer {
  name: "cifar"
  type: "Data"
  top: "data"
  top: "label"
  include {
    phase: TEST
  }
  transform_param {
    mean_file: "examples/cifar10/mean.binaryproto"
  }
  data_param {
    source: "examples/cifar10/cifar10_test_lmdb"
    batch_size: 1000
    backend: LMDB
  }
}
layer {
  name: "ip1"
  type: "InnerProduct"
  bottom: "data"
  top: "ip1"
  param {
    lr_mult: 1
  }
  param {
    lr_mult: 2
  }
  inner_product_param {
    num_output: 40
    weight_filler {
      type: "gaussian"
      std: 0.01
    }
    bias_filler {
      type: "constant"
    }
  }
}
layer {
  name: "relu1"
  type: "ReLU"
  bottom: "ip1"
  top: "ip1"
}
layer {
  name: "ip2"
  type: "InnerProduct"
  bottom: "ip1"
  top: "ip2"
  param {
    lr_mult: 1
  }
  param {
    lr_mult: 2
  }
  inner_product_param {
    num_output: 20
    weight_filler {
      type: "gaussian"
      std: 0.01
    }
    bias_filler {
      type: "constant"
    }
  }
}
layer {
  name: "relu2"
  type: "ReLU"
  bottom: "ip2"
  top: "ip2"
}
layer {
  name: "ip3"
  type: "InnerProduct"
  bottom: "ip2"
  top: "ip3"
  param {
    lr_mult: 1
  }
  param {
    lr_mult: 2
  }
  inner_product_param {
    num_output: 80
    weight_filler {
      type: "gaussian"
      std: 0.01
    }
    bias_filler {
      type: "constant"
    }
  }
}
layer {
  name: "relu3"
  type: "ReLU"
  bottom: "ip3"
  top: "ip3"
}
layer {
  name: "ip4"
  type: "InnerProduct"
  bottom: "ip3"
  top: "ip4"
  param {
    lr_mult: 1
  }
  param {
    lr_mult: 2
  }
  inner_product_param {
    num_output: 10
    weight_filler {
      type: "gaussian"
      std: 0.01
    }
    bias_filler {
      type: "constant"
    }
  }
}
layer {
  name: "accuracy"
  type: "Accuracy"
  bottom: "ip4"
  bottom: "label"
  top: "accuracy"
  include {
    phase: TEST
  }
}
layer {
  name: "loss"
  type: "SoftmaxWithLoss"
  bottom: "ip4"
  bottom: "label"
  top: "loss"
}
I0430 19:08:34.202844 25242 layer_factory.hpp:77] Creating layer cifar
I0430 19:08:34.202888 25242 db_lmdb.cpp:35] Opened lmdb examples/cifar10/cifar10_test_lmdb
I0430 19:08:34.202901 25242 net.cpp:86] Creating Layer cifar
I0430 19:08:34.202906 25242 net.cpp:382] cifar -> data
I0430 19:08:34.202914 25242 net.cpp:382] cifar -> label
I0430 19:08:34.202920 25242 data_transformer.cpp:25] Loading mean file from: examples/cifar10/mean.binaryproto
I0430 19:08:34.203057 25242 data_layer.cpp:45] output data size: 1000,3,32,32
I0430 19:08:34.225080 25242 net.cpp:124] Setting up cifar
I0430 19:08:34.225106 25242 net.cpp:131] Top shape: 1000 3 32 32 (3072000)
I0430 19:08:34.225111 25242 net.cpp:131] Top shape: 1000 (1000)
I0430 19:08:34.225116 25242 net.cpp:139] Memory required for data: 12292000
I0430 19:08:34.225121 25242 layer_factory.hpp:77] Creating layer label_cifar_1_split
I0430 19:08:34.225136 25242 net.cpp:86] Creating Layer label_cifar_1_split
I0430 19:08:34.225142 25242 net.cpp:408] label_cifar_1_split <- label
I0430 19:08:34.225147 25242 net.cpp:382] label_cifar_1_split -> label_cifar_1_split_0
I0430 19:08:34.225157 25242 net.cpp:382] label_cifar_1_split -> label_cifar_1_split_1
I0430 19:08:34.225237 25242 net.cpp:124] Setting up label_cifar_1_split
I0430 19:08:34.225244 25242 net.cpp:131] Top shape: 1000 (1000)
I0430 19:08:34.225246 25242 net.cpp:131] Top shape: 1000 (1000)
I0430 19:08:34.225250 25242 net.cpp:139] Memory required for data: 12300000
I0430 19:08:34.225252 25242 layer_factory.hpp:77] Creating layer ip1
I0430 19:08:34.225261 25242 net.cpp:86] Creating Layer ip1
I0430 19:08:34.225265 25242 net.cpp:408] ip1 <- data
I0430 19:08:34.225270 25242 net.cpp:382] ip1 -> ip1
I0430 19:08:34.228729 25242 net.cpp:124] Setting up ip1
I0430 19:08:34.228739 25242 net.cpp:131] Top shape: 1000 40 (40000)
I0430 19:08:34.228759 25242 net.cpp:139] Memory required for data: 12460000
I0430 19:08:34.228785 25242 layer_factory.hpp:77] Creating layer relu1
I0430 19:08:34.228790 25242 net.cpp:86] Creating Layer relu1
I0430 19:08:34.228795 25242 net.cpp:408] relu1 <- ip1
I0430 19:08:34.228821 25242 net.cpp:369] relu1 -> ip1 (in-place)
I0430 19:08:34.229614 25242 net.cpp:124] Setting up relu1
I0430 19:08:34.229625 25242 net.cpp:131] Top shape: 1000 40 (40000)
I0430 19:08:34.229629 25242 net.cpp:139] Memory required for data: 12620000
I0430 19:08:34.229632 25242 layer_factory.hpp:77] Creating layer ip2
I0430 19:08:34.229641 25242 net.cpp:86] Creating Layer ip2
I0430 19:08:34.229645 25242 net.cpp:408] ip2 <- ip1
I0430 19:08:34.229666 25242 net.cpp:382] ip2 -> ip2
I0430 19:08:34.229813 25242 net.cpp:124] Setting up ip2
I0430 19:08:34.229821 25242 net.cpp:131] Top shape: 1000 20 (20000)
I0430 19:08:34.229825 25242 net.cpp:139] Memory required for data: 12700000
I0430 19:08:34.229833 25242 layer_factory.hpp:77] Creating layer relu2
I0430 19:08:34.229840 25242 net.cpp:86] Creating Layer relu2
I0430 19:08:34.229842 25242 net.cpp:408] relu2 <- ip2
I0430 19:08:34.229847 25242 net.cpp:369] relu2 -> ip2 (in-place)
I0430 19:08:34.230018 25242 net.cpp:124] Setting up relu2
I0430 19:08:34.230026 25242 net.cpp:131] Top shape: 1000 20 (20000)
I0430 19:08:34.230031 25242 net.cpp:139] Memory required for data: 12780000
I0430 19:08:34.230033 25242 layer_factory.hpp:77] Creating layer ip3
I0430 19:08:34.230039 25242 net.cpp:86] Creating Layer ip3
I0430 19:08:34.230042 25242 net.cpp:408] ip3 <- ip2
I0430 19:08:34.230047 25242 net.cpp:382] ip3 -> ip3
I0430 19:08:34.230188 25242 net.cpp:124] Setting up ip3
I0430 19:08:34.230195 25242 net.cpp:131] Top shape: 1000 80 (80000)
I0430 19:08:34.230198 25242 net.cpp:139] Memory required for data: 13100000
I0430 19:08:34.230206 25242 layer_factory.hpp:77] Creating layer relu3
I0430 19:08:34.230211 25242 net.cpp:86] Creating Layer relu3
I0430 19:08:34.230214 25242 net.cpp:408] relu3 <- ip3
I0430 19:08:34.230218 25242 net.cpp:369] relu3 -> ip3 (in-place)
I0430 19:08:34.230370 25242 net.cpp:124] Setting up relu3
I0430 19:08:34.230377 25242 net.cpp:131] Top shape: 1000 80 (80000)
I0430 19:08:34.230381 25242 net.cpp:139] Memory required for data: 13420000
I0430 19:08:34.230383 25242 layer_factory.hpp:77] Creating layer ip4
I0430 19:08:34.230391 25242 net.cpp:86] Creating Layer ip4
I0430 19:08:34.230394 25242 net.cpp:408] ip4 <- ip3
I0430 19:08:34.230399 25242 net.cpp:382] ip4 -> ip4
I0430 19:08:34.230520 25242 net.cpp:124] Setting up ip4
I0430 19:08:34.230527 25242 net.cpp:131] Top shape: 1000 10 (10000)
I0430 19:08:34.230530 25242 net.cpp:139] Memory required for data: 13460000
I0430 19:08:34.230536 25242 layer_factory.hpp:77] Creating layer ip4_ip4_0_split
I0430 19:08:34.230540 25242 net.cpp:86] Creating Layer ip4_ip4_0_split
I0430 19:08:34.230543 25242 net.cpp:408] ip4_ip4_0_split <- ip4
I0430 19:08:34.230548 25242 net.cpp:382] ip4_ip4_0_split -> ip4_ip4_0_split_0
I0430 19:08:34.230554 25242 net.cpp:382] ip4_ip4_0_split -> ip4_ip4_0_split_1
I0430 19:08:34.230583 25242 net.cpp:124] Setting up ip4_ip4_0_split
I0430 19:08:34.230592 25242 net.cpp:131] Top shape: 1000 10 (10000)
I0430 19:08:34.230595 25242 net.cpp:131] Top shape: 1000 10 (10000)
I0430 19:08:34.230598 25242 net.cpp:139] Memory required for data: 13540000
I0430 19:08:34.230602 25242 layer_factory.hpp:77] Creating layer accuracy
I0430 19:08:34.230607 25242 net.cpp:86] Creating Layer accuracy
I0430 19:08:34.230610 25242 net.cpp:408] accuracy <- ip4_ip4_0_split_0
I0430 19:08:34.230613 25242 net.cpp:408] accuracy <- label_cifar_1_split_0
I0430 19:08:34.230618 25242 net.cpp:382] accuracy -> accuracy
…
