…
I0501 03:55:06.649235 23174 net.cpp:296] The NetState phase (0) differed from the phase (1) specified by a rule in layer cifar
I0501 03:55:06.649261 23174 net.cpp:296] The NetState phase (0) differed from the phase (1) specified by a rule in layer accuracy
I0501 03:55:06.649379 23174 net.cpp:53] Initializing net from parameters: 
name: "CIFAR"
state {
  phase: TRAIN
  level: 0
  stage: ""
}
layer {
  name: "cifar"
  type: "Data"
  top: "data"
  top: "label"
  include {
    phase: TRAIN
  }
  transform_param {
    mean_file: "examples/cifar10/mean.binaryproto"
  }
  data_param {
    source: "examples/cifar10/cifar10_train_lmdb"
    batch_size: 111
    backend: LMDB
  }
}
layer {
  name: "conv0"
  type: "Convolution"
  bottom: "data"
  top: "conv0"
  param {
    lr_mult: 1
  }
  param {
    lr_mult: 2
  }
  convolution_param {
    num_output: 8
    pad: 2
    kernel_size: 5
    stride: 1
    weight_filler {
      type: "gaussian"
      std: 0.01
    }
    bias_filler {
      type: "constant"
    }
  }
}
layer {
  name: "Sigmoid0"
  type: "Sigmoid"
  bottom: "conv0"
  top: "Sigmoid0"
}
layer {
  name: "pool0"
  type: "Pooling"
  bottom: "Sigmoid0"
  top: "pool0"
  pooling_param {
    pool: AVE
    kernel_size: 3
    stride: 2
  }
}
layer {
  name: "ip1"
  type: "InnerProduct"
  bottom: "pool0"
  top: "ip1"
  param {
    lr_mult: 1
  }
  param {
    lr_mult: 2
  }
  inner_product_param {
    num_output: 20
    weight_filler {
      type: "gaussian"
      std: 0.01
    }
    bias_filler {
      type: "constant"
    }
  }
}
layer {
  name: "relu1"
  type: "ReLU"
  bottom: "ip1"
  top: "ip1"
}
layer {
  name: "ip2"
  type: "InnerProduct"
  bottom: "ip1"
  top: "ip2"
  param {
    lr_mult: 1
  }
  param {
    lr_mult: 2
  }
  inner_product_param {
    num_output: 10
    weight_filler {
      type: "gaussian"
      std: 0.01
    }
    bias_filler {
      type: "constant"
    }
  }
}
layer {
  name: "relu2"
  type: "ReLU"
  bottom: "ip2"
  top: "ip2"
}
layer {
  name: "ip3"
  type: "InnerProduct"
  bottom: "ip2"
  top: "ip3"
  param {
    lr_mult: 1
  }
  param {
    lr_mult: 2
  }
  inner_product_param {
    num_output: 160
    weight_filler {
      type: "gaussian"
      std: 0.01
    }
    bias_filler {
      type: "constant"
    }
  }
}
layer {
  name: "relu3"
  type: "ReLU"
  bottom: "ip3"
  top: "ip3"
}
layer {
  name: "ip4"
  type: "InnerProduct"
  bottom: "ip3"
  top: "ip4"
  param {
    lr_mult: 1
  }
  param {
    lr_mult: 2
  }
  inner_product_param {
    num_output: 10
    weight_filler {
      type: "gaussian"
      std: 0.01
    }
    bias_filler {
      type: "constant"
    }
  }
}
layer {
  name: "loss"
  type: "SoftmaxWithLoss"
  bottom: "ip4"
  bottom: "label"
  top: "loss"
}
I0501 03:55:06.649492 23174 layer_factory.hpp:77] Creating layer cifar
I0501 03:55:06.649623 23174 db_lmdb.cpp:35] Opened lmdb examples/cifar10/cifar10_train_lmdb
I0501 03:55:06.649659 23174 net.cpp:86] Creating Layer cifar
I0501 03:55:06.649673 23174 net.cpp:382] cifar -> data
I0501 03:55:06.649704 23174 net.cpp:382] cifar -> label
I0501 03:55:06.649726 23174 data_transformer.cpp:25] Loading mean file from: examples/cifar10/mean.binaryproto
I0501 03:55:06.652043 23174 data_layer.cpp:45] output data size: 111,3,32,32
I0501 03:55:06.659952 23174 net.cpp:124] Setting up cifar
I0501 03:55:06.659978 23174 net.cpp:131] Top shape: 111 3 32 32 (340992)
I0501 03:55:06.659988 23174 net.cpp:131] Top shape: 111 (111)
I0501 03:55:06.659994 23174 net.cpp:139] Memory required for data: 1364412
I0501 03:55:06.660030 23174 layer_factory.hpp:77] Creating layer conv0
I0501 03:55:06.660058 23174 net.cpp:86] Creating Layer conv0
I0501 03:55:06.660068 23174 net.cpp:408] conv0 <- data
I0501 03:55:06.660085 23174 net.cpp:382] conv0 -> conv0
I0501 03:55:06.946332 23174 net.cpp:124] Setting up conv0
I0501 03:55:06.946362 23174 net.cpp:131] Top shape: 111 8 32 32 (909312)
I0501 03:55:06.946368 23174 net.cpp:139] Memory required for data: 5001660
I0501 03:55:06.946390 23174 layer_factory.hpp:77] Creating layer Sigmoid0
I0501 03:55:06.946408 23174 net.cpp:86] Creating Layer Sigmoid0
I0501 03:55:06.946414 23174 net.cpp:408] Sigmoid0 <- conv0
I0501 03:55:06.946424 23174 net.cpp:382] Sigmoid0 -> Sigmoid0
I0501 03:55:06.946611 23174 net.cpp:124] Setting up Sigmoid0
I0501 03:55:06.946624 23174 net.cpp:131] Top shape: 111 8 32 32 (909312)
I0501 03:55:06.946630 23174 net.cpp:139] Memory required for data: 8638908
I0501 03:55:06.946635 23174 layer_factory.hpp:77] Creating layer pool0
I0501 03:55:06.946645 23174 net.cpp:86] Creating Layer pool0
I0501 03:55:06.946651 23174 net.cpp:408] pool0 <- Sigmoid0
I0501 03:55:06.946660 23174 net.cpp:382] pool0 -> pool0
I0501 03:55:06.947456 23174 net.cpp:124] Setting up pool0
I0501 03:55:06.947473 23174 net.cpp:131] Top shape: 111 8 16 16 (227328)
I0501 03:55:06.947479 23174 net.cpp:139] Memory required for data: 9548220
I0501 03:55:06.947484 23174 layer_factory.hpp:77] Creating layer ip1
I0501 03:55:06.947499 23174 net.cpp:86] Creating Layer ip1
I0501 03:55:06.947505 23174 net.cpp:408] ip1 <- pool0
I0501 03:55:06.947515 23174 net.cpp:382] ip1 -> ip1
I0501 03:55:06.949717 23174 net.cpp:124] Setting up ip1
I0501 03:55:06.949731 23174 net.cpp:131] Top shape: 111 20 (2220)
I0501 03:55:06.949738 23174 net.cpp:139] Memory required for data: 9557100
I0501 03:55:06.949751 23174 layer_factory.hpp:77] Creating layer relu1
I0501 03:55:06.949762 23174 net.cpp:86] Creating Layer relu1
I0501 03:55:06.949769 23174 net.cpp:408] relu1 <- ip1
I0501 03:55:06.949776 23174 net.cpp:369] relu1 -> ip1 (in-place)
I0501 03:55:06.949947 23174 net.cpp:124] Setting up relu1
I0501 03:55:06.949959 23174 net.cpp:131] Top shape: 111 20 (2220)
I0501 03:55:06.949964 23174 net.cpp:139] Memory required for data: 9565980
I0501 03:55:06.949970 23174 layer_factory.hpp:77] Creating layer ip2
I0501 03:55:06.949980 23174 net.cpp:86] Creating Layer ip2
I0501 03:55:06.949986 23174 net.cpp:408] ip2 <- ip1
I0501 03:55:06.949995 23174 net.cpp:382] ip2 -> ip2
I0501 03:55:06.950104 23174 net.cpp:124] Setting up ip2
I0501 03:55:06.950114 23174 net.cpp:131] Top shape: 111 10 (1110)
I0501 03:55:06.950119 23174 net.cpp:139] Memory required for data: 9570420
I0501 03:55:06.950132 23174 layer_factory.hpp:77] Creating layer relu2
I0501 03:55:06.950140 23174 net.cpp:86] Creating Layer relu2
I0501 03:55:06.950146 23174 net.cpp:408] relu2 <- ip2
I0501 03:55:06.950155 23174 net.cpp:369] relu2 -> ip2 (in-place)
I0501 03:55:06.950321 23174 net.cpp:124] Setting up relu2
I0501 03:55:06.950331 23174 net.cpp:131] Top shape: 111 10 (1110)
I0501 03:55:06.950337 23174 net.cpp:139] Memory required for data: 9574860
I0501 03:55:06.950342 23174 layer_factory.hpp:77] Creating layer ip3
I0501 03:55:06.950354 23174 net.cpp:86] Creating Layer ip3
I0501 03:55:06.950361 23174 net.cpp:408] ip3 <- ip2
I0501 03:55:06.950369 23174 net.cpp:382] ip3 -> ip3
I0501 03:55:06.950516 23174 net.cpp:124] Setting up ip3
I0501 03:55:06.950526 23174 net.cpp:131] Top shape: 111 160 (17760)
I0501 03:55:06.950531 23174 net.cpp:139] Memory required for data: 9645900
I0501 03:55:06.950541 23174 layer_factory.hpp:77] Creating layer relu3
I0501 03:55:06.950551 23174 net.cpp:86] Creating Layer relu3
I0501 03:55:06.950556 23174 net.cpp:408] relu3 <- ip3
I0501 03:55:06.950563 23174 net.cpp:369] relu3 -> ip3 (in-place)
I0501 03:55:06.950723 23174 net.cpp:124] Setting up relu3
I0501 03:55:06.950733 23174 net.cpp:131] Top shape: 111 160 (17760)
I0501 03:55:06.950739 23174 net.cpp:139] Memory required for data: 9716940
I0501 03:55:06.950744 23174 layer_factory.hpp:77] Creating layer ip4
I0501 03:55:06.950776 23174 net.cpp:86] Creating Layer ip4
I0501 03:55:06.950786 23174 net.cpp:408] ip4 <- ip3
I0501 03:55:06.950795 23174 net.cpp:382] ip4 -> ip4
I0501 03:55:06.950949 23174 net.cpp:124] Setting up ip4
I0501 03:55:06.950959 23174 net.cpp:131] Top shape: 111 10 (1110)
I0501 03:55:06.950964 23174 net.cpp:139] Memory required for data: 9721380
I0501 03:55:06.950978 23174 layer_factory.hpp:77] Creating layer loss
I0501 03:55:06.950986 23174 net.cpp:86] Creating Layer loss
I0501 03:55:06.950994 23174 net.cpp:408] loss <- ip4
I0501 03:55:06.951001 23174 net.cpp:408] loss <- label
I0501 03:55:06.951009 23174 net.cpp:382] loss -> loss
I0501 03:55:06.951033 23174 layer_factory.hpp:77] Creating layer loss
…
I0501 03:55:06.952364 23174 solver.cpp:173] Creating test net (#0) specified by net file: ECE595/cifar/train_test/var_everything/cifar_train_test_369.prototxt
I0501 03:55:06.952401 23174 net.cpp:296] The NetState phase (1) differed from the phase (0) specified by a rule in layer cifar
I0501 03:55:06.952509 23174 net.cpp:53] Initializing net from parameters: 
name: "CIFAR"
state {
  phase: TEST
}
layer {
  name: "cifar"
  type: "Data"
  top: "data"
  top: "label"
  include {
    phase: TEST
  }
  transform_param {
    mean_file: "examples/cifar10/mean.binaryproto"
  }
  data_param {
    source: "examples/cifar10/cifar10_test_lmdb"
    batch_size: 1000
    backend: LMDB
  }
}
layer {
  name: "conv0"
  type: "Convolution"
  bottom: "data"
  top: "conv0"
  param {
    lr_mult: 1
  }
  param {
    lr_mult: 2
  }
  convolution_param {
    num_output: 8
    pad: 2
    kernel_size: 5
    stride: 1
    weight_filler {
      type: "gaussian"
      std: 0.01
    }
    bias_filler {
      type: "constant"
    }
  }
}
layer {
  name: "Sigmoid0"
  type: "Sigmoid"
  bottom: "conv0"
  top: "Sigmoid0"
}
layer {
  name: "pool0"
  type: "Pooling"
  bottom: "Sigmoid0"
  top: "pool0"
  pooling_param {
    pool: AVE
    kernel_size: 3
    stride: 2
  }
}
layer {
  name: "ip1"
  type: "InnerProduct"
  bottom: "pool0"
  top: "ip1"
  param {
    lr_mult: 1
  }
  param {
    lr_mult: 2
  }
  inner_product_param {
    num_output: 20
    weight_filler {
      type: "gaussian"
      std: 0.01
    }
    bias_filler {
      type: "constant"
    }
  }
}
layer {
  name: "relu1"
  type: "ReLU"
  bottom: "ip1"
  top: "ip1"
}
layer {
  name: "ip2"
  type: "InnerProduct"
  bottom: "ip1"
  top: "ip2"
  param {
    lr_mult: 1
  }
  param {
    lr_mult: 2
  }
  inner_product_param {
    num_output: 10
    weight_filler {
      type: "gaussian"
      std: 0.01
    }
    bias_filler {
      type: "constant"
    }
  }
}
layer {
  name: "relu2"
  type: "ReLU"
  bottom: "ip2"
  top: "ip2"
}
layer {
  name: "ip3"
  type: "InnerProduct"
  bottom: "ip2"
  top: "ip3"
  param {
    lr_mult: 1
  }
  param {
    lr_mult: 2
  }
  inner_product_param {
    num_output: 160
    weight_filler {
      type: "gaussian"
      std: 0.01
    }
    bias_filler {
      type: "constant"
    }
  }
}
layer {
  name: "relu3"
  type: "ReLU"
  bottom: "ip3"
  top: "ip3"
}
layer {
  name: "ip4"
  type: "InnerProduct"
  bottom: "ip3"
  top: "ip4"
  param {
    lr_mult: 1
  }
  param {
    lr_mult: 2
  }
  inner_product_param {
    num_output: 10
    weight_filler {
      type: "gaussian"
      std: 0.01
    }
    bias_filler {
      type: "constant"
    }
  }
}
layer {
  name: "accuracy"
  type: "Accuracy"
  bottom: "ip4"
  bottom: "label"
  top: "accuracy"
  include {
    phase: TEST
  }
}
layer {
  name: "loss"
  type: "SoftmaxWithLoss"
  bottom: "ip4"
  bottom: "label"
  top: "loss"
}
I0501 03:55:06.952630 23174 layer_factory.hpp:77] Creating layer cifar
I0501 03:55:06.952693 23174 db_lmdb.cpp:35] Opened lmdb examples/cifar10/cifar10_test_lmdb
I0501 03:55:06.952711 23174 net.cpp:86] Creating Layer cifar
I0501 03:55:06.952720 23174 net.cpp:382] cifar -> data
I0501 03:55:06.952733 23174 net.cpp:382] cifar -> label
I0501 03:55:06.952744 23174 data_transformer.cpp:25] Loading mean file from: examples/cifar10/mean.binaryproto
I0501 03:55:06.952978 23174 data_layer.cpp:45] output data size: 1000,3,32,32
I0501 03:55:06.975258 23174 net.cpp:124] Setting up cifar
I0501 03:55:06.975286 23174 net.cpp:131] Top shape: 1000 3 32 32 (3072000)
I0501 03:55:06.975294 23174 net.cpp:131] Top shape: 1000 (1000)
I0501 03:55:06.975299 23174 net.cpp:139] Memory required for data: 12292000
I0501 03:55:06.975322 23174 layer_factory.hpp:77] Creating layer label_cifar_1_split
I0501 03:55:06.975337 23174 net.cpp:86] Creating Layer label_cifar_1_split
I0501 03:55:06.975343 23174 net.cpp:408] label_cifar_1_split <- label
I0501 03:55:06.975353 23174 net.cpp:382] label_cifar_1_split -> label_cifar_1_split_0
I0501 03:55:06.975365 23174 net.cpp:382] label_cifar_1_split -> label_cifar_1_split_1
I0501 03:55:06.975448 23174 net.cpp:124] Setting up label_cifar_1_split
I0501 03:55:06.975457 23174 net.cpp:131] Top shape: 1000 (1000)
I0501 03:55:06.975463 23174 net.cpp:131] Top shape: 1000 (1000)
I0501 03:55:06.975468 23174 net.cpp:139] Memory required for data: 12300000
I0501 03:55:06.975473 23174 layer_factory.hpp:77] Creating layer conv0
I0501 03:55:06.975491 23174 net.cpp:86] Creating Layer conv0
I0501 03:55:06.975497 23174 net.cpp:408] conv0 <- data
I0501 03:55:06.975505 23174 net.cpp:382] conv0 -> conv0
I0501 03:55:06.976925 23174 net.cpp:124] Setting up conv0
I0501 03:55:06.976940 23174 net.cpp:131] Top shape: 1000 8 32 32 (8192000)
I0501 03:55:06.976946 23174 net.cpp:139] Memory required for data: 45068000
I0501 03:55:06.976979 23174 layer_factory.hpp:77] Creating layer Sigmoid0
I0501 03:55:06.976991 23174 net.cpp:86] Creating Layer Sigmoid0
I0501 03:55:06.977004 23174 net.cpp:408] Sigmoid0 <- conv0
I0501 03:55:06.977012 23174 net.cpp:382] Sigmoid0 -> Sigmoid0
I0501 03:55:06.978219 23174 net.cpp:124] Setting up Sigmoid0
I0501 03:55:06.978232 23174 net.cpp:131] Top shape: 1000 8 32 32 (8192000)
I0501 03:55:06.978237 23174 net.cpp:139] Memory required for data: 77836000
I0501 03:55:06.978257 23174 layer_factory.hpp:77] Creating layer pool0
I0501 03:55:06.978268 23174 net.cpp:86] Creating Layer pool0
I0501 03:55:06.978274 23174 net.cpp:408] pool0 <- Sigmoid0
I0501 03:55:06.978286 23174 net.cpp:382] pool0 -> pool0
I0501 03:55:06.978464 23174 net.cpp:124] Setting up pool0
I0501 03:55:06.978474 23174 net.cpp:131] Top shape: 1000 8 16 16 (2048000)
I0501 03:55:06.978478 23174 net.cpp:139] Memory required for data: 86028000
I0501 03:55:06.978483 23174 layer_factory.hpp:77] Creating layer ip1
I0501 03:55:06.978497 23174 net.cpp:86] Creating Layer ip1
I0501 03:55:06.978503 23174 net.cpp:408] ip1 <- pool0
I0501 03:55:06.978512 23174 net.cpp:382] ip1 -> ip1
I0501 03:55:06.979703 23174 net.cpp:124] Setting up ip1
I0501 03:55:06.979712 23174 net.cpp:131] Top shape: 1000 20 (20000)
I0501 03:55:06.979717 23174 net.cpp:139] Memory required for data: 86108000
I0501 03:55:06.979764 23174 layer_factory.hpp:77] Creating layer relu1
I0501 03:55:06.979774 23174 net.cpp:86] Creating Layer relu1
I0501 03:55:06.979780 23174 net.cpp:408] relu1 <- ip1
I0501 03:55:06.979787 23174 net.cpp:369] relu1 -> ip1 (in-place)
I0501 03:55:06.979954 23174 net.cpp:124] Setting up relu1
I0501 03:55:06.979964 23174 net.cpp:131] Top shape: 1000 20 (20000)
I0501 03:55:06.979967 23174 net.cpp:139] Memory required for data: 86188000
I0501 03:55:06.979974 23174 layer_factory.hpp:77] Creating layer ip2
I0501 03:55:06.979984 23174 net.cpp:86] Creating Layer ip2
I0501 03:55:06.979988 23174 net.cpp:408] ip2 <- ip1
I0501 03:55:06.979997 23174 net.cpp:382] ip2 -> ip2
I0501 03:55:06.980129 23174 net.cpp:124] Setting up ip2
I0501 03:55:06.980139 23174 net.cpp:131] Top shape: 1000 10 (10000)
I0501 03:55:06.980144 23174 net.cpp:139] Memory required for data: 86228000
I0501 03:55:06.980156 23174 layer_factory.hpp:77] Creating layer relu2
I0501 03:55:06.980167 23174 net.cpp:86] Creating Layer relu2
I0501 03:55:06.980175 23174 net.cpp:408] relu2 <- ip2
I0501 03:55:06.980181 23174 net.cpp:369] relu2 -> ip2 (in-place)
I0501 03:55:06.980957 23174 net.cpp:124] Setting up relu2
I0501 03:55:06.980971 23174 net.cpp:131] Top shape: 1000 10 (10000)
I0501 03:55:06.980978 23174 net.cpp:139] Memory required for data: 86268000
I0501 03:55:06.980983 23174 layer_factory.hpp:77] Creating layer ip3
I0501 03:55:06.981009 23174 net.cpp:86] Creating Layer ip3
I0501 03:55:06.981014 23174 net.cpp:408] ip3 <- ip2
I0501 03:55:06.981024 23174 net.cpp:382] ip3 -> ip3
I0501 03:55:06.981209 23174 net.cpp:124] Setting up ip3
I0501 03:55:06.981218 23174 net.cpp:131] Top shape: 1000 160 (160000)
I0501 03:55:06.981223 23174 net.cpp:139] Memory required for data: 86908000
I0501 03:55:06.981233 23174 layer_factory.hpp:77] Creating layer relu3
I0501 03:55:06.981241 23174 net.cpp:86] Creating Layer relu3
I0501 03:55:06.981247 23174 net.cpp:408] relu3 <- ip3
I0501 03:55:06.981256 23174 net.cpp:369] relu3 -> ip3 (in-place)
I0501 03:55:06.981420 23174 net.cpp:124] Setting up relu3
I0501 03:55:06.981429 23174 net.cpp:131] Top shape: 1000 160 (160000)
I0501 03:55:06.981434 23174 net.cpp:139] Memory required for data: 87548000
I0501 03:55:06.981439 23174 layer_factory.hpp:77] Creating layer ip4
I0501 03:55:06.981451 23174 net.cpp:86] Creating Layer ip4
I0501 03:55:06.981456 23174 net.cpp:408] ip4 <- ip3
I0501 03:55:06.981477 23174 net.cpp:382] ip4 -> ip4
I0501 03:55:06.981626 23174 net.cpp:124] Setting up ip4
I0501 03:55:06.981636 23174 net.cpp:131] Top shape: 1000 10 (10000)
I0501 03:55:06.981639 23174 net.cpp:139] Memory required for data: 87588000
I0501 03:55:06.981652 23174 layer_factory.hpp:77] Creating layer ip4_ip4_0_split
I0501 03:55:06.981662 23174 net.cpp:86] Creating Layer ip4_ip4_0_split
I0501 03:55:06.981667 23174 net.cpp:408] ip4_ip4_0_split <- ip4
I0501 03:55:06.981674 23174 net.cpp:382] ip4_ip4_0_split -> ip4_ip4_0_split_0
I0501 03:55:06.981683 23174 net.cpp:382] ip4_ip4_0_split -> ip4_ip4_0_split_1
I0501 03:55:06.981721 23174 net.cpp:124] Setting up ip4_ip4_0_split
I0501 03:55:06.981729 23174 net.cpp:131] Top shape: 1000 10 (10000)
I0501 03:55:06.981734 23174 net.cpp:131] Top shape: 1000 10 (10000)
I0501 03:55:06.981739 23174 net.cpp:139] Memory required for data: 87668000
I0501 03:55:06.981745 23174 layer_factory.hpp:77] Creating layer accuracy
I0501 03:55:06.981757 23174 net.cpp:86] Creating Layer accuracy
I0501 03:55:06.981763 23174 net.cpp:408] accuracy <- ip4_ip4_0_split_0
I0501 03:55:06.981771 23174 net.cpp:408] accuracy <- label_cifar_1_split_0
I0501 03:55:06.981781 23174 net.cpp:382] accuracy -> accuracy
…
