…
I0430 23:12:45.433152  4444 net.cpp:296] The NetState phase (0) differed from the phase (1) specified by a rule in layer cifar
I0430 23:12:45.433182  4444 net.cpp:296] The NetState phase (0) differed from the phase (1) specified by a rule in layer accuracy
I0430 23:12:45.433266  4444 net.cpp:53] Initializing net from parameters: 
name: "CIFAR"
state {
  phase: TRAIN
  level: 0
  stage: ""
}
layer {
  name: "cifar"
  type: "Data"
  top: "data"
  top: "label"
  include {
    phase: TRAIN
  }
  transform_param {
    mean_file: "examples/cifar10/mean.binaryproto"
  }
  data_param {
    source: "examples/cifar10/cifar10_train_lmdb"
    batch_size: 111
    backend: LMDB
  }
}
layer {
  name: "conv0"
  type: "Convolution"
  bottom: "data"
  top: "conv0"
  param {
    lr_mult: 1
  }
  param {
    lr_mult: 2
  }
  convolution_param {
    num_output: 8
    pad: 2
    kernel_size: 3
    stride: 1
    weight_filler {
      type: "gaussian"
      std: 0.01
    }
    bias_filler {
      type: "constant"
    }
  }
}
layer {
  name: "Sigmoid0"
  type: "Sigmoid"
  bottom: "conv0"
  top: "Sigmoid0"
}
layer {
  name: "pool0"
  type: "Pooling"
  bottom: "Sigmoid0"
  top: "pool0"
  pooling_param {
    pool: AVE
    kernel_size: 3
    stride: 2
  }
}
layer {
  name: "ip1"
  type: "InnerProduct"
  bottom: "pool0"
  top: "ip1"
  param {
    lr_mult: 1
  }
  param {
    lr_mult: 2
  }
  inner_product_param {
    num_output: 20
    weight_filler {
      type: "gaussian"
      std: 0.01
    }
    bias_filler {
      type: "constant"
    }
  }
}
layer {
  name: "relu1"
  type: "ReLU"
  bottom: "ip1"
  top: "ip1"
}
layer {
  name: "ip2"
  type: "InnerProduct"
  bottom: "ip1"
  top: "ip2"
  param {
    lr_mult: 1
  }
  param {
    lr_mult: 2
  }
  inner_product_param {
    num_output: 20
    weight_filler {
      type: "gaussian"
      std: 0.01
    }
    bias_filler {
      type: "constant"
    }
  }
}
layer {
  name: "relu2"
  type: "ReLU"
  bottom: "ip2"
  top: "ip2"
}
layer {
  name: "ip3"
  type: "InnerProduct"
  bottom: "ip2"
  top: "ip3"
  param {
    lr_mult: 1
  }
  param {
    lr_mult: 2
  }
  inner_product_param {
    num_output: 80
    weight_filler {
      type: "gaussian"
      std: 0.01
    }
    bias_filler {
      type: "constant"
    }
  }
}
layer {
  name: "relu3"
  type: "ReLU"
  bottom: "ip3"
  top: "ip3"
}
layer {
  name: "ip4"
  type: "InnerProduct"
  bottom: "ip3"
  top: "ip4"
  param {
    lr_mult: 1
  }
  param {
    lr_mult: 2
  }
  inner_product_param {
    num_output: 10
    weight_filler {
      type: "gaussian"
      std: 0.01
    }
    bias_filler {
      type: "constant"
    }
  }
}
layer {
  name: "loss"
  type: "SoftmaxWithLoss"
  bottom: "ip4"
  bottom: "label"
  top: "loss"
}
I0430 23:12:45.433331  4444 layer_factory.hpp:77] Creating layer cifar
I0430 23:12:45.433415  4444 db_lmdb.cpp:35] Opened lmdb examples/cifar10/cifar10_train_lmdb
I0430 23:12:45.433439  4444 net.cpp:86] Creating Layer cifar
I0430 23:12:45.433447  4444 net.cpp:382] cifar -> data
I0430 23:12:45.433467  4444 net.cpp:382] cifar -> label
I0430 23:12:45.433477  4444 data_transformer.cpp:25] Loading mean file from: examples/cifar10/mean.binaryproto
I0430 23:12:45.435256  4444 data_layer.cpp:45] output data size: 111,3,32,32
I0430 23:12:45.442159  4444 net.cpp:124] Setting up cifar
I0430 23:12:45.442206  4444 net.cpp:131] Top shape: 111 3 32 32 (340992)
I0430 23:12:45.442211  4444 net.cpp:131] Top shape: 111 (111)
I0430 23:12:45.442214  4444 net.cpp:139] Memory required for data: 1364412
I0430 23:12:45.442232  4444 layer_factory.hpp:77] Creating layer conv0
I0430 23:12:45.442248  4444 net.cpp:86] Creating Layer conv0
I0430 23:12:45.442270  4444 net.cpp:408] conv0 <- data
I0430 23:12:45.442299  4444 net.cpp:382] conv0 -> conv0
I0430 23:12:45.675717  4444 net.cpp:124] Setting up conv0
I0430 23:12:45.675745  4444 net.cpp:131] Top shape: 111 8 34 34 (1026528)
I0430 23:12:45.675748  4444 net.cpp:139] Memory required for data: 5470524
I0430 23:12:45.675762  4444 layer_factory.hpp:77] Creating layer Sigmoid0
I0430 23:12:45.675775  4444 net.cpp:86] Creating Layer Sigmoid0
I0430 23:12:45.675778  4444 net.cpp:408] Sigmoid0 <- conv0
I0430 23:12:45.675783  4444 net.cpp:382] Sigmoid0 -> Sigmoid0
I0430 23:12:45.675961  4444 net.cpp:124] Setting up Sigmoid0
I0430 23:12:45.675969  4444 net.cpp:131] Top shape: 111 8 34 34 (1026528)
I0430 23:12:45.675972  4444 net.cpp:139] Memory required for data: 9576636
I0430 23:12:45.675976  4444 layer_factory.hpp:77] Creating layer pool0
I0430 23:12:45.675982  4444 net.cpp:86] Creating Layer pool0
I0430 23:12:45.675986  4444 net.cpp:408] pool0 <- Sigmoid0
I0430 23:12:45.675990  4444 net.cpp:382] pool0 -> pool0
I0430 23:12:45.676686  4444 net.cpp:124] Setting up pool0
I0430 23:12:45.676697  4444 net.cpp:131] Top shape: 111 8 17 17 (256632)
I0430 23:12:45.676700  4444 net.cpp:139] Memory required for data: 10603164
I0430 23:12:45.676703  4444 layer_factory.hpp:77] Creating layer ip1
I0430 23:12:45.676712  4444 net.cpp:86] Creating Layer ip1
I0430 23:12:45.676718  4444 net.cpp:408] ip1 <- pool0
I0430 23:12:45.676740  4444 net.cpp:382] ip1 -> ip1
I0430 23:12:45.678961  4444 net.cpp:124] Setting up ip1
I0430 23:12:45.678973  4444 net.cpp:131] Top shape: 111 20 (2220)
I0430 23:12:45.678993  4444 net.cpp:139] Memory required for data: 10612044
I0430 23:12:45.679002  4444 layer_factory.hpp:77] Creating layer relu1
I0430 23:12:45.679008  4444 net.cpp:86] Creating Layer relu1
I0430 23:12:45.679010  4444 net.cpp:408] relu1 <- ip1
I0430 23:12:45.679018  4444 net.cpp:369] relu1 -> ip1 (in-place)
I0430 23:12:45.679214  4444 net.cpp:124] Setting up relu1
I0430 23:12:45.679222  4444 net.cpp:131] Top shape: 111 20 (2220)
I0430 23:12:45.679225  4444 net.cpp:139] Memory required for data: 10620924
I0430 23:12:45.679229  4444 layer_factory.hpp:77] Creating layer ip2
I0430 23:12:45.679234  4444 net.cpp:86] Creating Layer ip2
I0430 23:12:45.679237  4444 net.cpp:408] ip2 <- ip1
I0430 23:12:45.679242  4444 net.cpp:382] ip2 -> ip2
I0430 23:12:45.680181  4444 net.cpp:124] Setting up ip2
I0430 23:12:45.680192  4444 net.cpp:131] Top shape: 111 20 (2220)
I0430 23:12:45.680196  4444 net.cpp:139] Memory required for data: 10629804
I0430 23:12:45.680203  4444 layer_factory.hpp:77] Creating layer relu2
I0430 23:12:45.680208  4444 net.cpp:86] Creating Layer relu2
I0430 23:12:45.680212  4444 net.cpp:408] relu2 <- ip2
I0430 23:12:45.680215  4444 net.cpp:369] relu2 -> ip2 (in-place)
I0430 23:12:45.680380  4444 net.cpp:124] Setting up relu2
I0430 23:12:45.680387  4444 net.cpp:131] Top shape: 111 20 (2220)
I0430 23:12:45.680390  4444 net.cpp:139] Memory required for data: 10638684
I0430 23:12:45.680393  4444 layer_factory.hpp:77] Creating layer ip3
I0430 23:12:45.680402  4444 net.cpp:86] Creating Layer ip3
I0430 23:12:45.680404  4444 net.cpp:408] ip3 <- ip2
I0430 23:12:45.680408  4444 net.cpp:382] ip3 -> ip3
I0430 23:12:45.680557  4444 net.cpp:124] Setting up ip3
I0430 23:12:45.680564  4444 net.cpp:131] Top shape: 111 80 (8880)
I0430 23:12:45.680567  4444 net.cpp:139] Memory required for data: 10674204
I0430 23:12:45.680572  4444 layer_factory.hpp:77] Creating layer relu3
I0430 23:12:45.680577  4444 net.cpp:86] Creating Layer relu3
I0430 23:12:45.680580  4444 net.cpp:408] relu3 <- ip3
I0430 23:12:45.680584  4444 net.cpp:369] relu3 -> ip3 (in-place)
I0430 23:12:45.680738  4444 net.cpp:124] Setting up relu3
I0430 23:12:45.680745  4444 net.cpp:131] Top shape: 111 80 (8880)
I0430 23:12:45.680748  4444 net.cpp:139] Memory required for data: 10709724
I0430 23:12:45.680750  4444 layer_factory.hpp:77] Creating layer ip4
I0430 23:12:45.680771  4444 net.cpp:86] Creating Layer ip4
I0430 23:12:45.680778  4444 net.cpp:408] ip4 <- ip3
I0430 23:12:45.680783  4444 net.cpp:382] ip4 -> ip4
I0430 23:12:45.680930  4444 net.cpp:124] Setting up ip4
I0430 23:12:45.680938  4444 net.cpp:131] Top shape: 111 10 (1110)
I0430 23:12:45.680941  4444 net.cpp:139] Memory required for data: 10714164
I0430 23:12:45.680949  4444 layer_factory.hpp:77] Creating layer loss
I0430 23:12:45.680955  4444 net.cpp:86] Creating Layer loss
I0430 23:12:45.680963  4444 net.cpp:408] loss <- ip4
I0430 23:12:45.680966  4444 net.cpp:408] loss <- label
I0430 23:12:45.680987  4444 net.cpp:382] loss -> loss
I0430 23:12:45.681016  4444 layer_factory.hpp:77] Creating layer loss
…
I0430 23:12:45.682364  4444 solver.cpp:173] Creating test net (#0) specified by net file: ECE595/cifar/train_test/var_everything/cifar_train_test_218.prototxt
I0430 23:12:45.682420  4444 net.cpp:296] The NetState phase (1) differed from the phase (0) specified by a rule in layer cifar
I0430 23:12:45.682508  4444 net.cpp:53] Initializing net from parameters: 
name: "CIFAR"
state {
  phase: TEST
}
layer {
  name: "cifar"
  type: "Data"
  top: "data"
  top: "label"
  include {
    phase: TEST
  }
  transform_param {
    mean_file: "examples/cifar10/mean.binaryproto"
  }
  data_param {
    source: "examples/cifar10/cifar10_test_lmdb"
    batch_size: 1000
    backend: LMDB
  }
}
layer {
  name: "conv0"
  type: "Convolution"
  bottom: "data"
  top: "conv0"
  param {
    lr_mult: 1
  }
  param {
    lr_mult: 2
  }
  convolution_param {
    num_output: 8
    pad: 2
    kernel_size: 3
    stride: 1
    weight_filler {
      type: "gaussian"
      std: 0.01
    }
    bias_filler {
      type: "constant"
    }
  }
}
layer {
  name: "Sigmoid0"
  type: "Sigmoid"
  bottom: "conv0"
  top: "Sigmoid0"
}
layer {
  name: "pool0"
  type: "Pooling"
  bottom: "Sigmoid0"
  top: "pool0"
  pooling_param {
    pool: AVE
    kernel_size: 3
    stride: 2
  }
}
layer {
  name: "ip1"
  type: "InnerProduct"
  bottom: "pool0"
  top: "ip1"
  param {
    lr_mult: 1
  }
  param {
    lr_mult: 2
  }
  inner_product_param {
    num_output: 20
    weight_filler {
      type: "gaussian"
      std: 0.01
    }
    bias_filler {
      type: "constant"
    }
  }
}
layer {
  name: "relu1"
  type: "ReLU"
  bottom: "ip1"
  top: "ip1"
}
layer {
  name: "ip2"
  type: "InnerProduct"
  bottom: "ip1"
  top: "ip2"
  param {
    lr_mult: 1
  }
  param {
    lr_mult: 2
  }
  inner_product_param {
    num_output: 20
    weight_filler {
      type: "gaussian"
      std: 0.01
    }
    bias_filler {
      type: "constant"
    }
  }
}
layer {
  name: "relu2"
  type: "ReLU"
  bottom: "ip2"
  top: "ip2"
}
layer {
  name: "ip3"
  type: "InnerProduct"
  bottom: "ip2"
  top: "ip3"
  param {
    lr_mult: 1
  }
  param {
    lr_mult: 2
  }
  inner_product_param {
    num_output: 80
    weight_filler {
      type: "gaussian"
      std: 0.01
    }
    bias_filler {
      type: "constant"
    }
  }
}
layer {
  name: "relu3"
  type: "ReLU"
  bottom: "ip3"
  top: "ip3"
}
layer {
  name: "ip4"
  type: "InnerProduct"
  bottom: "ip3"
  top: "ip4"
  param {
    lr_mult: 1
  }
  param {
    lr_mult: 2
  }
  inner_product_param {
    num_output: 10
    weight_filler {
      type: "gaussian"
      std: 0.01
    }
    bias_filler {
      type: "constant"
    }
  }
}
layer {
  name: "accuracy"
  type: "Accuracy"
  bottom: "ip4"
  bottom: "label"
  top: "accuracy"
  include {
    phase: TEST
  }
}
layer {
  name: "loss"
  type: "SoftmaxWithLoss"
  bottom: "ip4"
  bottom: "label"
  top: "loss"
}
I0430 23:12:45.682586  4444 layer_factory.hpp:77] Creating layer cifar
I0430 23:12:45.682632  4444 db_lmdb.cpp:35] Opened lmdb examples/cifar10/cifar10_test_lmdb
I0430 23:12:45.682662  4444 net.cpp:86] Creating Layer cifar
I0430 23:12:45.682667  4444 net.cpp:382] cifar -> data
I0430 23:12:45.682677  4444 net.cpp:382] cifar -> label
I0430 23:12:45.682684  4444 data_transformer.cpp:25] Loading mean file from: examples/cifar10/mean.binaryproto
I0430 23:12:45.682824  4444 data_layer.cpp:45] output data size: 1000,3,32,32
I0430 23:12:45.704380  4444 net.cpp:124] Setting up cifar
I0430 23:12:45.704421  4444 net.cpp:131] Top shape: 1000 3 32 32 (3072000)
I0430 23:12:45.704426  4444 net.cpp:131] Top shape: 1000 (1000)
I0430 23:12:45.704428  4444 net.cpp:139] Memory required for data: 12292000
I0430 23:12:45.704434  4444 layer_factory.hpp:77] Creating layer label_cifar_1_split
I0430 23:12:45.704447  4444 net.cpp:86] Creating Layer label_cifar_1_split
I0430 23:12:45.704449  4444 net.cpp:408] label_cifar_1_split <- label
I0430 23:12:45.704455  4444 net.cpp:382] label_cifar_1_split -> label_cifar_1_split_0
I0430 23:12:45.704464  4444 net.cpp:382] label_cifar_1_split -> label_cifar_1_split_1
I0430 23:12:45.704596  4444 net.cpp:124] Setting up label_cifar_1_split
I0430 23:12:45.704603  4444 net.cpp:131] Top shape: 1000 (1000)
I0430 23:12:45.704607  4444 net.cpp:131] Top shape: 1000 (1000)
I0430 23:12:45.704609  4444 net.cpp:139] Memory required for data: 12300000
I0430 23:12:45.704612  4444 layer_factory.hpp:77] Creating layer conv0
I0430 23:12:45.704624  4444 net.cpp:86] Creating Layer conv0
I0430 23:12:45.704630  4444 net.cpp:408] conv0 <- data
I0430 23:12:45.704651  4444 net.cpp:382] conv0 -> conv0
I0430 23:12:45.706298  4444 net.cpp:124] Setting up conv0
I0430 23:12:45.706311  4444 net.cpp:131] Top shape: 1000 8 34 34 (9248000)
I0430 23:12:45.706316  4444 net.cpp:139] Memory required for data: 49292000
I0430 23:12:45.706326  4444 layer_factory.hpp:77] Creating layer Sigmoid0
I0430 23:12:45.706333  4444 net.cpp:86] Creating Layer Sigmoid0
I0430 23:12:45.706338  4444 net.cpp:408] Sigmoid0 <- conv0
I0430 23:12:45.706359  4444 net.cpp:382] Sigmoid0 -> Sigmoid0
I0430 23:12:45.707552  4444 net.cpp:124] Setting up Sigmoid0
I0430 23:12:45.707562  4444 net.cpp:131] Top shape: 1000 8 34 34 (9248000)
I0430 23:12:45.707581  4444 net.cpp:139] Memory required for data: 86284000
I0430 23:12:45.707586  4444 layer_factory.hpp:77] Creating layer pool0
I0430 23:12:45.707594  4444 net.cpp:86] Creating Layer pool0
I0430 23:12:45.707597  4444 net.cpp:408] pool0 <- Sigmoid0
I0430 23:12:45.707602  4444 net.cpp:382] pool0 -> pool0
I0430 23:12:45.707784  4444 net.cpp:124] Setting up pool0
I0430 23:12:45.707792  4444 net.cpp:131] Top shape: 1000 8 17 17 (2312000)
I0430 23:12:45.707795  4444 net.cpp:139] Memory required for data: 95532000
I0430 23:12:45.707798  4444 layer_factory.hpp:77] Creating layer ip1
I0430 23:12:45.707808  4444 net.cpp:86] Creating Layer ip1
I0430 23:12:45.707813  4444 net.cpp:408] ip1 <- pool0
I0430 23:12:45.707835  4444 net.cpp:382] ip1 -> ip1
I0430 23:12:45.709211  4444 net.cpp:124] Setting up ip1
I0430 23:12:45.709219  4444 net.cpp:131] Top shape: 1000 20 (20000)
I0430 23:12:45.709239  4444 net.cpp:139] Memory required for data: 95612000
I0430 23:12:45.709259  4444 layer_factory.hpp:77] Creating layer relu1
I0430 23:12:45.709265  4444 net.cpp:86] Creating Layer relu1
I0430 23:12:45.709269  4444 net.cpp:408] relu1 <- ip1
I0430 23:12:45.709272  4444 net.cpp:369] relu1 -> ip1 (in-place)
I0430 23:12:45.709465  4444 net.cpp:124] Setting up relu1
I0430 23:12:45.709473  4444 net.cpp:131] Top shape: 1000 20 (20000)
I0430 23:12:45.709476  4444 net.cpp:139] Memory required for data: 95692000
I0430 23:12:45.709480  4444 layer_factory.hpp:77] Creating layer ip2
I0430 23:12:45.709486  4444 net.cpp:86] Creating Layer ip2
I0430 23:12:45.709491  4444 net.cpp:408] ip2 <- ip1
I0430 23:12:45.709513  4444 net.cpp:382] ip2 -> ip2
I0430 23:12:45.709633  4444 net.cpp:124] Setting up ip2
I0430 23:12:45.709641  4444 net.cpp:131] Top shape: 1000 20 (20000)
I0430 23:12:45.709645  4444 net.cpp:139] Memory required for data: 95772000
I0430 23:12:45.709652  4444 layer_factory.hpp:77] Creating layer relu2
I0430 23:12:45.709661  4444 net.cpp:86] Creating Layer relu2
I0430 23:12:45.709681  4444 net.cpp:408] relu2 <- ip2
I0430 23:12:45.709684  4444 net.cpp:369] relu2 -> ip2 (in-place)
I0430 23:12:45.710500  4444 net.cpp:124] Setting up relu2
I0430 23:12:45.710512  4444 net.cpp:131] Top shape: 1000 20 (20000)
I0430 23:12:45.710531  4444 net.cpp:139] Memory required for data: 95852000
I0430 23:12:45.710535  4444 layer_factory.hpp:77] Creating layer ip3
I0430 23:12:45.710543  4444 net.cpp:86] Creating Layer ip3
I0430 23:12:45.710546  4444 net.cpp:408] ip3 <- ip2
I0430 23:12:45.710551  4444 net.cpp:382] ip3 -> ip3
I0430 23:12:45.710738  4444 net.cpp:124] Setting up ip3
I0430 23:12:45.710747  4444 net.cpp:131] Top shape: 1000 80 (80000)
I0430 23:12:45.710749  4444 net.cpp:139] Memory required for data: 96172000
I0430 23:12:45.710754  4444 layer_factory.hpp:77] Creating layer relu3
I0430 23:12:45.710760  4444 net.cpp:86] Creating Layer relu3
I0430 23:12:45.710767  4444 net.cpp:408] relu3 <- ip3
I0430 23:12:45.710788  4444 net.cpp:369] relu3 -> ip3 (in-place)
I0430 23:12:45.710947  4444 net.cpp:124] Setting up relu3
I0430 23:12:45.710955  4444 net.cpp:131] Top shape: 1000 80 (80000)
I0430 23:12:45.710958  4444 net.cpp:139] Memory required for data: 96492000
I0430 23:12:45.710961  4444 layer_factory.hpp:77] Creating layer ip4
I0430 23:12:45.710968  4444 net.cpp:86] Creating Layer ip4
I0430 23:12:45.710980  4444 net.cpp:408] ip4 <- ip3
I0430 23:12:45.710985  4444 net.cpp:382] ip4 -> ip4
I0430 23:12:45.711113  4444 net.cpp:124] Setting up ip4
I0430 23:12:45.711122  4444 net.cpp:131] Top shape: 1000 10 (10000)
I0430 23:12:45.711124  4444 net.cpp:139] Memory required for data: 96532000
I0430 23:12:45.711133  4444 layer_factory.hpp:77] Creating layer ip4_ip4_0_split
I0430 23:12:45.711139  4444 net.cpp:86] Creating Layer ip4_ip4_0_split
I0430 23:12:45.711143  4444 net.cpp:408] ip4_ip4_0_split <- ip4
I0430 23:12:45.711148  4444 net.cpp:382] ip4_ip4_0_split -> ip4_ip4_0_split_0
I0430 23:12:45.711155  4444 net.cpp:382] ip4_ip4_0_split -> ip4_ip4_0_split_1
I0430 23:12:45.711186  4444 net.cpp:124] Setting up ip4_ip4_0_split
I0430 23:12:45.711192  4444 net.cpp:131] Top shape: 1000 10 (10000)
I0430 23:12:45.711195  4444 net.cpp:131] Top shape: 1000 10 (10000)
I0430 23:12:45.711199  4444 net.cpp:139] Memory required for data: 96612000
I0430 23:12:45.711201  4444 layer_factory.hpp:77] Creating layer accuracy
I0430 23:12:45.711208  4444 net.cpp:86] Creating Layer accuracy
I0430 23:12:45.711212  4444 net.cpp:408] accuracy <- ip4_ip4_0_split_0
I0430 23:12:45.711216  4444 net.cpp:408] accuracy <- label_cifar_1_split_0
I0430 23:12:45.711220  4444 net.cpp:382] accuracy -> accuracy
…
