…
I0501 03:10:29.506458 19367 net.cpp:296] The NetState phase (0) differed from the phase (1) specified by a rule in layer cifar
I0501 03:10:29.506477 19367 net.cpp:296] The NetState phase (0) differed from the phase (1) specified by a rule in layer accuracy
I0501 03:10:29.506582 19367 net.cpp:53] Initializing net from parameters: 
name: "CIFAR"
state {
  phase: TRAIN
  level: 0
  stage: ""
}
layer {
  name: "cifar"
  type: "Data"
  top: "data"
  top: "label"
  include {
    phase: TRAIN
  }
  transform_param {
    mean_file: "examples/cifar10/mean.binaryproto"
  }
  data_param {
    source: "examples/cifar10/cifar10_train_lmdb"
    batch_size: 111
    backend: LMDB
  }
}
layer {
  name: "conv0"
  type: "Convolution"
  bottom: "data"
  top: "conv0"
  param {
    lr_mult: 1
  }
  param {
    lr_mult: 2
  }
  convolution_param {
    num_output: 8
    pad: 2
    kernel_size: 5
    stride: 1
    weight_filler {
      type: "gaussian"
      std: 0.01
    }
    bias_filler {
      type: "constant"
    }
  }
}
layer {
  name: "Sigmoid0"
  type: "Sigmoid"
  bottom: "conv0"
  top: "Sigmoid0"
}
layer {
  name: "pool0"
  type: "Pooling"
  bottom: "Sigmoid0"
  top: "pool0"
  pooling_param {
    pool: AVE
    kernel_size: 3
    stride: 2
  }
}
layer {
  name: "ip1"
  type: "InnerProduct"
  bottom: "pool0"
  top: "ip1"
  param {
    lr_mult: 1
  }
  param {
    lr_mult: 2
  }
  inner_product_param {
    num_output: 10
    weight_filler {
      type: "gaussian"
      std: 0.01
    }
    bias_filler {
      type: "constant"
    }
  }
}
layer {
  name: "relu1"
  type: "ReLU"
  bottom: "ip1"
  top: "ip1"
}
layer {
  name: "ip2"
  type: "InnerProduct"
  bottom: "ip1"
  top: "ip2"
  param {
    lr_mult: 1
  }
  param {
    lr_mult: 2
  }
  inner_product_param {
    num_output: 20
    weight_filler {
      type: "gaussian"
      std: 0.01
    }
    bias_filler {
      type: "constant"
    }
  }
}
layer {
  name: "relu2"
  type: "ReLU"
  bottom: "ip2"
  top: "ip2"
}
layer {
  name: "ip3"
  type: "InnerProduct"
  bottom: "ip2"
  top: "ip3"
  param {
    lr_mult: 1
  }
  param {
    lr_mult: 2
  }
  inner_product_param {
    num_output: 10
    weight_filler {
      type: "gaussian"
      std: 0.01
    }
    bias_filler {
      type: "constant"
    }
  }
}
layer {
  name: "relu3"
  type: "ReLU"
  bottom: "ip3"
  top: "ip3"
}
layer {
  name: "ip4"
  type: "InnerProduct"
  bottom: "ip3"
  top: "ip4"
  param {
    lr_mult: 1
  }
  param {
    lr_mult: 2
  }
  inner_product_param {
    num_output: 10
    weight_filler {
      type: "gaussian"
      std: 0.01
    }
    bias_filler {
      type: "constant"
    }
  }
}
layer {
  name: "loss"
  type: "SoftmaxWithLoss"
  bottom: "ip4"
  bottom: "label"
  top: "loss"
}
I0501 03:10:29.506664 19367 layer_factory.hpp:77] Creating layer cifar
I0501 03:10:29.506767 19367 db_lmdb.cpp:35] Opened lmdb examples/cifar10/cifar10_train_lmdb
I0501 03:10:29.506793 19367 net.cpp:86] Creating Layer cifar
I0501 03:10:29.506804 19367 net.cpp:382] cifar -> data
I0501 03:10:29.506827 19367 net.cpp:382] cifar -> label
I0501 03:10:29.506839 19367 data_transformer.cpp:25] Loading mean file from: examples/cifar10/mean.binaryproto
I0501 03:10:29.508958 19367 data_layer.cpp:45] output data size: 111,3,32,32
I0501 03:10:29.516834 19367 net.cpp:124] Setting up cifar
I0501 03:10:29.516855 19367 net.cpp:131] Top shape: 111 3 32 32 (340992)
I0501 03:10:29.516861 19367 net.cpp:131] Top shape: 111 (111)
I0501 03:10:29.516865 19367 net.cpp:139] Memory required for data: 1364412
I0501 03:10:29.516890 19367 layer_factory.hpp:77] Creating layer conv0
I0501 03:10:29.516912 19367 net.cpp:86] Creating Layer conv0
I0501 03:10:29.516918 19367 net.cpp:408] conv0 <- data
I0501 03:10:29.516932 19367 net.cpp:382] conv0 -> conv0
I0501 03:10:29.808248 19367 net.cpp:124] Setting up conv0
I0501 03:10:29.808280 19367 net.cpp:131] Top shape: 111 8 32 32 (909312)
I0501 03:10:29.808285 19367 net.cpp:139] Memory required for data: 5001660
I0501 03:10:29.808303 19367 layer_factory.hpp:77] Creating layer Sigmoid0
I0501 03:10:29.808318 19367 net.cpp:86] Creating Layer Sigmoid0
I0501 03:10:29.808323 19367 net.cpp:408] Sigmoid0 <- conv0
I0501 03:10:29.808329 19367 net.cpp:382] Sigmoid0 -> Sigmoid0
I0501 03:10:29.808534 19367 net.cpp:124] Setting up Sigmoid0
I0501 03:10:29.808547 19367 net.cpp:131] Top shape: 111 8 32 32 (909312)
I0501 03:10:29.808552 19367 net.cpp:139] Memory required for data: 8638908
I0501 03:10:29.808555 19367 layer_factory.hpp:77] Creating layer pool0
I0501 03:10:29.808563 19367 net.cpp:86] Creating Layer pool0
I0501 03:10:29.808568 19367 net.cpp:408] pool0 <- Sigmoid0
I0501 03:10:29.808573 19367 net.cpp:382] pool0 -> pool0
I0501 03:10:29.809466 19367 net.cpp:124] Setting up pool0
I0501 03:10:29.809484 19367 net.cpp:131] Top shape: 111 8 16 16 (227328)
I0501 03:10:29.809487 19367 net.cpp:139] Memory required for data: 9548220
I0501 03:10:29.809491 19367 layer_factory.hpp:77] Creating layer ip1
I0501 03:10:29.809504 19367 net.cpp:86] Creating Layer ip1
I0501 03:10:29.809507 19367 net.cpp:408] ip1 <- pool0
I0501 03:10:29.809514 19367 net.cpp:382] ip1 -> ip1
I0501 03:10:29.811290 19367 net.cpp:124] Setting up ip1
I0501 03:10:29.811306 19367 net.cpp:131] Top shape: 111 10 (1110)
I0501 03:10:29.811311 19367 net.cpp:139] Memory required for data: 9552660
I0501 03:10:29.811319 19367 layer_factory.hpp:77] Creating layer relu1
I0501 03:10:29.811327 19367 net.cpp:86] Creating Layer relu1
I0501 03:10:29.811331 19367 net.cpp:408] relu1 <- ip1
I0501 03:10:29.811336 19367 net.cpp:369] relu1 -> ip1 (in-place)
I0501 03:10:29.811555 19367 net.cpp:124] Setting up relu1
I0501 03:10:29.811566 19367 net.cpp:131] Top shape: 111 10 (1110)
I0501 03:10:29.811570 19367 net.cpp:139] Memory required for data: 9557100
I0501 03:10:29.811574 19367 layer_factory.hpp:77] Creating layer ip2
I0501 03:10:29.811583 19367 net.cpp:86] Creating Layer ip2
I0501 03:10:29.811585 19367 net.cpp:408] ip2 <- ip1
I0501 03:10:29.811594 19367 net.cpp:382] ip2 -> ip2
I0501 03:10:29.811731 19367 net.cpp:124] Setting up ip2
I0501 03:10:29.811739 19367 net.cpp:131] Top shape: 111 20 (2220)
I0501 03:10:29.811743 19367 net.cpp:139] Memory required for data: 9565980
I0501 03:10:29.811753 19367 layer_factory.hpp:77] Creating layer relu2
I0501 03:10:29.811758 19367 net.cpp:86] Creating Layer relu2
I0501 03:10:29.811763 19367 net.cpp:408] relu2 <- ip2
I0501 03:10:29.811769 19367 net.cpp:369] relu2 -> ip2 (in-place)
I0501 03:10:29.811971 19367 net.cpp:124] Setting up relu2
I0501 03:10:29.811981 19367 net.cpp:131] Top shape: 111 20 (2220)
I0501 03:10:29.811995 19367 net.cpp:139] Memory required for data: 9574860
I0501 03:10:29.811998 19367 layer_factory.hpp:77] Creating layer ip3
I0501 03:10:29.812010 19367 net.cpp:86] Creating Layer ip3
I0501 03:10:29.812012 19367 net.cpp:408] ip3 <- ip2
I0501 03:10:29.812018 19367 net.cpp:382] ip3 -> ip3
I0501 03:10:29.812136 19367 net.cpp:124] Setting up ip3
I0501 03:10:29.812144 19367 net.cpp:131] Top shape: 111 10 (1110)
I0501 03:10:29.812147 19367 net.cpp:139] Memory required for data: 9579300
I0501 03:10:29.812155 19367 layer_factory.hpp:77] Creating layer relu3
I0501 03:10:29.812161 19367 net.cpp:86] Creating Layer relu3
I0501 03:10:29.812165 19367 net.cpp:408] relu3 <- ip3
I0501 03:10:29.812170 19367 net.cpp:369] relu3 -> ip3 (in-place)
I0501 03:10:29.812355 19367 net.cpp:124] Setting up relu3
I0501 03:10:29.812364 19367 net.cpp:131] Top shape: 111 10 (1110)
I0501 03:10:29.812368 19367 net.cpp:139] Memory required for data: 9583740
I0501 03:10:29.812372 19367 layer_factory.hpp:77] Creating layer ip4
I0501 03:10:29.812398 19367 net.cpp:86] Creating Layer ip4
I0501 03:10:29.812403 19367 net.cpp:408] ip4 <- ip3
I0501 03:10:29.812408 19367 net.cpp:382] ip4 -> ip4
I0501 03:10:29.812526 19367 net.cpp:124] Setting up ip4
I0501 03:10:29.812536 19367 net.cpp:131] Top shape: 111 10 (1110)
I0501 03:10:29.812539 19367 net.cpp:139] Memory required for data: 9588180
I0501 03:10:29.812548 19367 layer_factory.hpp:77] Creating layer loss
I0501 03:10:29.812561 19367 net.cpp:86] Creating Layer loss
I0501 03:10:29.812566 19367 net.cpp:408] loss <- ip4
I0501 03:10:29.812571 19367 net.cpp:408] loss <- label
I0501 03:10:29.812580 19367 net.cpp:382] loss -> loss
I0501 03:10:29.812595 19367 layer_factory.hpp:77] Creating layer loss
…
I0501 03:10:29.814059 19367 solver.cpp:173] Creating test net (#0) specified by net file: ECE595/cifar/train_test/var_everything/cifar_train_test_345.prototxt
I0501 03:10:29.814091 19367 net.cpp:296] The NetState phase (1) differed from the phase (0) specified by a rule in layer cifar
I0501 03:10:29.814209 19367 net.cpp:53] Initializing net from parameters: 
name: "CIFAR"
state {
  phase: TEST
}
layer {
  name: "cifar"
  type: "Data"
  top: "data"
  top: "label"
  include {
    phase: TEST
  }
  transform_param {
    mean_file: "examples/cifar10/mean.binaryproto"
  }
  data_param {
    source: "examples/cifar10/cifar10_test_lmdb"
    batch_size: 1000
    backend: LMDB
  }
}
layer {
  name: "conv0"
  type: "Convolution"
  bottom: "data"
  top: "conv0"
  param {
    lr_mult: 1
  }
  param {
    lr_mult: 2
  }
  convolution_param {
    num_output: 8
    pad: 2
    kernel_size: 5
    stride: 1
    weight_filler {
      type: "gaussian"
      std: 0.01
    }
    bias_filler {
      type: "constant"
    }
  }
}
layer {
  name: "Sigmoid0"
  type: "Sigmoid"
  bottom: "conv0"
  top: "Sigmoid0"
}
layer {
  name: "pool0"
  type: "Pooling"
  bottom: "Sigmoid0"
  top: "pool0"
  pooling_param {
    pool: AVE
    kernel_size: 3
    stride: 2
  }
}
layer {
  name: "ip1"
  type: "InnerProduct"
  bottom: "pool0"
  top: "ip1"
  param {
    lr_mult: 1
  }
  param {
    lr_mult: 2
  }
  inner_product_param {
    num_output: 10
    weight_filler {
      type: "gaussian"
      std: 0.01
    }
    bias_filler {
      type: "constant"
    }
  }
}
layer {
  name: "relu1"
  type: "ReLU"
  bottom: "ip1"
  top: "ip1"
}
layer {
  name: "ip2"
  type: "InnerProduct"
  bottom: "ip1"
  top: "ip2"
  param {
    lr_mult: 1
  }
  param {
    lr_mult: 2
  }
  inner_product_param {
    num_output: 20
    weight_filler {
      type: "gaussian"
      std: 0.01
    }
    bias_filler {
      type: "constant"
    }
  }
}
layer {
  name: "relu2"
  type: "ReLU"
  bottom: "ip2"
  top: "ip2"
}
layer {
  name: "ip3"
  type: "InnerProduct"
  bottom: "ip2"
  top: "ip3"
  param {
    lr_mult: 1
  }
  param {
    lr_mult: 2
  }
  inner_product_param {
    num_output: 10
    weight_filler {
      type: "gaussian"
      std: 0.01
    }
    bias_filler {
      type: "constant"
    }
  }
}
layer {
  name: "relu3"
  type: "ReLU"
  bottom: "ip3"
  top: "ip3"
}
layer {
  name: "ip4"
  type: "InnerProduct"
  bottom: "ip3"
  top: "ip4"
  param {
    lr_mult: 1
  }
  param {
    lr_mult: 2
  }
  inner_product_param {
    num_output: 10
    weight_filler {
      type: "gaussian"
      std: 0.01
    }
    bias_filler {
      type: "constant"
    }
  }
}
layer {
  name: "accuracy"
  type: "Accuracy"
  bottom: "ip4"
  bottom: "label"
  top: "accuracy"
  include {
    phase: TEST
  }
}
layer {
  name: "loss"
  type: "SoftmaxWithLoss"
  bottom: "ip4"
  bottom: "label"
  top: "loss"
}
I0501 03:10:29.814313 19367 layer_factory.hpp:77] Creating layer cifar
I0501 03:10:29.814366 19367 db_lmdb.cpp:35] Opened lmdb examples/cifar10/cifar10_test_lmdb
I0501 03:10:29.814383 19367 net.cpp:86] Creating Layer cifar
I0501 03:10:29.814389 19367 net.cpp:382] cifar -> data
I0501 03:10:29.814399 19367 net.cpp:382] cifar -> label
I0501 03:10:29.814406 19367 data_transformer.cpp:25] Loading mean file from: examples/cifar10/mean.binaryproto
I0501 03:10:29.814584 19367 data_layer.cpp:45] output data size: 1000,3,32,32
I0501 03:10:29.840893 19367 net.cpp:124] Setting up cifar
I0501 03:10:29.840924 19367 net.cpp:131] Top shape: 1000 3 32 32 (3072000)
I0501 03:10:29.840931 19367 net.cpp:131] Top shape: 1000 (1000)
I0501 03:10:29.840934 19367 net.cpp:139] Memory required for data: 12292000
I0501 03:10:29.840941 19367 layer_factory.hpp:77] Creating layer label_cifar_1_split
I0501 03:10:29.840955 19367 net.cpp:86] Creating Layer label_cifar_1_split
I0501 03:10:29.840961 19367 net.cpp:408] label_cifar_1_split <- label
I0501 03:10:29.840967 19367 net.cpp:382] label_cifar_1_split -> label_cifar_1_split_0
I0501 03:10:29.840978 19367 net.cpp:382] label_cifar_1_split -> label_cifar_1_split_1
I0501 03:10:29.841106 19367 net.cpp:124] Setting up label_cifar_1_split
I0501 03:10:29.841115 19367 net.cpp:131] Top shape: 1000 (1000)
I0501 03:10:29.841120 19367 net.cpp:131] Top shape: 1000 (1000)
I0501 03:10:29.841123 19367 net.cpp:139] Memory required for data: 12300000
I0501 03:10:29.841127 19367 layer_factory.hpp:77] Creating layer conv0
I0501 03:10:29.841143 19367 net.cpp:86] Creating Layer conv0
I0501 03:10:29.841147 19367 net.cpp:408] conv0 <- data
I0501 03:10:29.841164 19367 net.cpp:382] conv0 -> conv0
I0501 03:10:29.843895 19367 net.cpp:124] Setting up conv0
I0501 03:10:29.843912 19367 net.cpp:131] Top shape: 1000 8 32 32 (8192000)
I0501 03:10:29.843917 19367 net.cpp:139] Memory required for data: 45068000
I0501 03:10:29.843930 19367 layer_factory.hpp:77] Creating layer Sigmoid0
I0501 03:10:29.843938 19367 net.cpp:86] Creating Layer Sigmoid0
I0501 03:10:29.843943 19367 net.cpp:408] Sigmoid0 <- conv0
I0501 03:10:29.843948 19367 net.cpp:382] Sigmoid0 -> Sigmoid0
I0501 03:10:29.844173 19367 net.cpp:124] Setting up Sigmoid0
I0501 03:10:29.844184 19367 net.cpp:131] Top shape: 1000 8 32 32 (8192000)
I0501 03:10:29.844188 19367 net.cpp:139] Memory required for data: 77836000
I0501 03:10:29.844193 19367 layer_factory.hpp:77] Creating layer pool0
I0501 03:10:29.844202 19367 net.cpp:86] Creating Layer pool0
I0501 03:10:29.844207 19367 net.cpp:408] pool0 <- Sigmoid0
I0501 03:10:29.844213 19367 net.cpp:382] pool0 -> pool0
I0501 03:10:29.844432 19367 net.cpp:124] Setting up pool0
I0501 03:10:29.844444 19367 net.cpp:131] Top shape: 1000 8 16 16 (2048000)
I0501 03:10:29.844447 19367 net.cpp:139] Memory required for data: 86028000
I0501 03:10:29.844451 19367 layer_factory.hpp:77] Creating layer ip1
I0501 03:10:29.844461 19367 net.cpp:86] Creating Layer ip1
I0501 03:10:29.844465 19367 net.cpp:408] ip1 <- pool0
I0501 03:10:29.844471 19367 net.cpp:382] ip1 -> ip1
I0501 03:10:29.845293 19367 net.cpp:124] Setting up ip1
I0501 03:10:29.845302 19367 net.cpp:131] Top shape: 1000 10 (10000)
I0501 03:10:29.845306 19367 net.cpp:139] Memory required for data: 86068000
I0501 03:10:29.845333 19367 layer_factory.hpp:77] Creating layer relu1
I0501 03:10:29.845340 19367 net.cpp:86] Creating Layer relu1
I0501 03:10:29.845345 19367 net.cpp:408] relu1 <- ip1
I0501 03:10:29.845350 19367 net.cpp:369] relu1 -> ip1 (in-place)
I0501 03:10:29.845567 19367 net.cpp:124] Setting up relu1
I0501 03:10:29.845578 19367 net.cpp:131] Top shape: 1000 10 (10000)
I0501 03:10:29.845582 19367 net.cpp:139] Memory required for data: 86108000
I0501 03:10:29.845587 19367 layer_factory.hpp:77] Creating layer ip2
I0501 03:10:29.845593 19367 net.cpp:86] Creating Layer ip2
I0501 03:10:29.845597 19367 net.cpp:408] ip2 <- ip1
I0501 03:10:29.845604 19367 net.cpp:382] ip2 -> ip2
I0501 03:10:29.845741 19367 net.cpp:124] Setting up ip2
I0501 03:10:29.845748 19367 net.cpp:131] Top shape: 1000 20 (20000)
I0501 03:10:29.845752 19367 net.cpp:139] Memory required for data: 86188000
I0501 03:10:29.845762 19367 layer_factory.hpp:77] Creating layer relu2
I0501 03:10:29.845768 19367 net.cpp:86] Creating Layer relu2
I0501 03:10:29.845772 19367 net.cpp:408] relu2 <- ip2
I0501 03:10:29.845777 19367 net.cpp:369] relu2 -> ip2 (in-place)
I0501 03:10:29.846689 19367 net.cpp:124] Setting up relu2
I0501 03:10:29.846705 19367 net.cpp:131] Top shape: 1000 20 (20000)
I0501 03:10:29.846709 19367 net.cpp:139] Memory required for data: 86268000
I0501 03:10:29.846714 19367 layer_factory.hpp:77] Creating layer ip3
I0501 03:10:29.846722 19367 net.cpp:86] Creating Layer ip3
I0501 03:10:29.846727 19367 net.cpp:408] ip3 <- ip2
I0501 03:10:29.846735 19367 net.cpp:382] ip3 -> ip3
I0501 03:10:29.846869 19367 net.cpp:124] Setting up ip3
I0501 03:10:29.846879 19367 net.cpp:131] Top shape: 1000 10 (10000)
I0501 03:10:29.846882 19367 net.cpp:139] Memory required for data: 86308000
I0501 03:10:29.846889 19367 layer_factory.hpp:77] Creating layer relu3
I0501 03:10:29.846895 19367 net.cpp:86] Creating Layer relu3
I0501 03:10:29.846899 19367 net.cpp:408] relu3 <- ip3
I0501 03:10:29.846904 19367 net.cpp:369] relu3 -> ip3 (in-place)
I0501 03:10:29.847093 19367 net.cpp:124] Setting up relu3
I0501 03:10:29.847103 19367 net.cpp:131] Top shape: 1000 10 (10000)
I0501 03:10:29.847107 19367 net.cpp:139] Memory required for data: 86348000
I0501 03:10:29.847111 19367 layer_factory.hpp:77] Creating layer ip4
I0501 03:10:29.847120 19367 net.cpp:86] Creating Layer ip4
I0501 03:10:29.847123 19367 net.cpp:408] ip4 <- ip3
I0501 03:10:29.847129 19367 net.cpp:382] ip4 -> ip4
I0501 03:10:29.847259 19367 net.cpp:124] Setting up ip4
I0501 03:10:29.847267 19367 net.cpp:131] Top shape: 1000 10 (10000)
I0501 03:10:29.847271 19367 net.cpp:139] Memory required for data: 86388000
I0501 03:10:29.847280 19367 layer_factory.hpp:77] Creating layer ip4_ip4_0_split
I0501 03:10:29.847287 19367 net.cpp:86] Creating Layer ip4_ip4_0_split
I0501 03:10:29.847291 19367 net.cpp:408] ip4_ip4_0_split <- ip4
I0501 03:10:29.847296 19367 net.cpp:382] ip4_ip4_0_split -> ip4_ip4_0_split_0
I0501 03:10:29.847302 19367 net.cpp:382] ip4_ip4_0_split -> ip4_ip4_0_split_1
I0501 03:10:29.847340 19367 net.cpp:124] Setting up ip4_ip4_0_split
I0501 03:10:29.847347 19367 net.cpp:131] Top shape: 1000 10 (10000)
I0501 03:10:29.847352 19367 net.cpp:131] Top shape: 1000 10 (10000)
I0501 03:10:29.847355 19367 net.cpp:139] Memory required for data: 86468000
I0501 03:10:29.847359 19367 layer_factory.hpp:77] Creating layer accuracy
I0501 03:10:29.847367 19367 net.cpp:86] Creating Layer accuracy
I0501 03:10:29.847379 19367 net.cpp:408] accuracy <- ip4_ip4_0_split_0
I0501 03:10:29.847384 19367 net.cpp:408] accuracy <- label_cifar_1_split_0
I0501 03:10:29.847389 19367 net.cpp:382] accuracy -> accuracy
…
