…
I0501 02:14:32.929649 14352 net.cpp:296] The NetState phase (0) differed from the phase (1) specified by a rule in layer cifar
I0501 02:14:32.929666 14352 net.cpp:296] The NetState phase (0) differed from the phase (1) specified by a rule in layer accuracy
I0501 02:14:32.929786 14352 net.cpp:53] Initializing net from parameters: 
name: "CIFAR"
state {
  phase: TRAIN
  level: 0
  stage: ""
}
layer {
  name: "cifar"
  type: "Data"
  top: "data"
  top: "label"
  include {
    phase: TRAIN
  }
  transform_param {
    mean_file: "examples/cifar10/mean.binaryproto"
  }
  data_param {
    source: "examples/cifar10/cifar10_train_lmdb"
    batch_size: 111
    backend: LMDB
  }
}
layer {
  name: "conv0"
  type: "Convolution"
  bottom: "data"
  top: "conv0"
  param {
    lr_mult: 1
  }
  param {
    lr_mult: 2
  }
  convolution_param {
    num_output: 8
    pad: 2
    kernel_size: 5
    stride: 1
    weight_filler {
      type: "gaussian"
      std: 0.01
    }
    bias_filler {
      type: "constant"
    }
  }
}
layer {
  name: "Sigmoid0"
  type: "Sigmoid"
  bottom: "conv0"
  top: "Sigmoid0"
}
layer {
  name: "pool0"
  type: "Pooling"
  bottom: "Sigmoid0"
  top: "pool0"
  pooling_param {
    pool: AVE
    kernel_size: 3
    stride: 2
  }
}
layer {
  name: "ip1"
  type: "InnerProduct"
  bottom: "pool0"
  top: "ip1"
  param {
    lr_mult: 1
  }
  param {
    lr_mult: 2
  }
  inner_product_param {
    num_output: 10
    weight_filler {
      type: "gaussian"
      std: 0.01
    }
    bias_filler {
      type: "constant"
    }
  }
}
layer {
  name: "relu1"
  type: "ReLU"
  bottom: "ip1"
  top: "ip1"
}
layer {
  name: "ip2"
  type: "InnerProduct"
  bottom: "ip1"
  top: "ip2"
  param {
    lr_mult: 1
  }
  param {
    lr_mult: 2
  }
  inner_product_param {
    num_output: 10
    weight_filler {
      type: "gaussian"
      std: 0.01
    }
    bias_filler {
      type: "constant"
    }
  }
}
layer {
  name: "relu2"
  type: "ReLU"
  bottom: "ip2"
  top: "ip2"
}
layer {
  name: "ip3"
  type: "InnerProduct"
  bottom: "ip2"
  top: "ip3"
  param {
    lr_mult: 1
  }
  param {
    lr_mult: 2
  }
  inner_product_param {
    num_output: 10
    weight_filler {
      type: "gaussian"
      std: 0.01
    }
    bias_filler {
      type: "constant"
    }
  }
}
layer {
  name: "loss"
  type: "SoftmaxWithLoss"
  bottom: "ip3"
  bottom: "label"
  top: "loss"
}
I0501 02:14:32.929875 14352 layer_factory.hpp:77] Creating layer cifar
I0501 02:14:32.929980 14352 db_lmdb.cpp:35] Opened lmdb examples/cifar10/cifar10_train_lmdb
I0501 02:14:32.930009 14352 net.cpp:86] Creating Layer cifar
I0501 02:14:32.930019 14352 net.cpp:382] cifar -> data
I0501 02:14:32.930042 14352 net.cpp:382] cifar -> label
I0501 02:14:32.930057 14352 data_transformer.cpp:25] Loading mean file from: examples/cifar10/mean.binaryproto
I0501 02:14:32.932169 14352 data_layer.cpp:45] output data size: 111,3,32,32
I0501 02:14:32.940021 14352 net.cpp:124] Setting up cifar
I0501 02:14:32.940039 14352 net.cpp:131] Top shape: 111 3 32 32 (340992)
I0501 02:14:32.940047 14352 net.cpp:131] Top shape: 111 (111)
I0501 02:14:32.940049 14352 net.cpp:139] Memory required for data: 1364412
I0501 02:14:32.940057 14352 layer_factory.hpp:77] Creating layer conv0
I0501 02:14:32.940075 14352 net.cpp:86] Creating Layer conv0
I0501 02:14:32.940080 14352 net.cpp:408] conv0 <- data
I0501 02:14:32.940093 14352 net.cpp:382] conv0 -> conv0
I0501 02:14:33.224089 14352 net.cpp:124] Setting up conv0
I0501 02:14:33.224136 14352 net.cpp:131] Top shape: 111 8 32 32 (909312)
I0501 02:14:33.224140 14352 net.cpp:139] Memory required for data: 5001660
I0501 02:14:33.224156 14352 layer_factory.hpp:77] Creating layer Sigmoid0
I0501 02:14:33.224169 14352 net.cpp:86] Creating Layer Sigmoid0
I0501 02:14:33.224174 14352 net.cpp:408] Sigmoid0 <- conv0
I0501 02:14:33.224179 14352 net.cpp:382] Sigmoid0 -> Sigmoid0
I0501 02:14:33.224346 14352 net.cpp:124] Setting up Sigmoid0
I0501 02:14:33.224356 14352 net.cpp:131] Top shape: 111 8 32 32 (909312)
I0501 02:14:33.224359 14352 net.cpp:139] Memory required for data: 8638908
I0501 02:14:33.224362 14352 layer_factory.hpp:77] Creating layer pool0
I0501 02:14:33.224370 14352 net.cpp:86] Creating Layer pool0
I0501 02:14:33.224372 14352 net.cpp:408] pool0 <- Sigmoid0
I0501 02:14:33.224378 14352 net.cpp:382] pool0 -> pool0
I0501 02:14:33.225152 14352 net.cpp:124] Setting up pool0
I0501 02:14:33.225167 14352 net.cpp:131] Top shape: 111 8 16 16 (227328)
I0501 02:14:33.225169 14352 net.cpp:139] Memory required for data: 9548220
I0501 02:14:33.225173 14352 layer_factory.hpp:77] Creating layer ip1
I0501 02:14:33.225183 14352 net.cpp:86] Creating Layer ip1
I0501 02:14:33.225186 14352 net.cpp:408] ip1 <- pool0
I0501 02:14:33.225191 14352 net.cpp:382] ip1 -> ip1
I0501 02:14:33.226686 14352 net.cpp:124] Setting up ip1
I0501 02:14:33.226698 14352 net.cpp:131] Top shape: 111 10 (1110)
I0501 02:14:33.226701 14352 net.cpp:139] Memory required for data: 9552660
I0501 02:14:33.226709 14352 layer_factory.hpp:77] Creating layer relu1
I0501 02:14:33.226716 14352 net.cpp:86] Creating Layer relu1
I0501 02:14:33.226718 14352 net.cpp:408] relu1 <- ip1
I0501 02:14:33.226723 14352 net.cpp:369] relu1 -> ip1 (in-place)
I0501 02:14:33.226872 14352 net.cpp:124] Setting up relu1
I0501 02:14:33.226881 14352 net.cpp:131] Top shape: 111 10 (1110)
I0501 02:14:33.226883 14352 net.cpp:139] Memory required for data: 9557100
I0501 02:14:33.226886 14352 layer_factory.hpp:77] Creating layer ip2
I0501 02:14:33.226893 14352 net.cpp:86] Creating Layer ip2
I0501 02:14:33.226897 14352 net.cpp:408] ip2 <- ip1
I0501 02:14:33.226902 14352 net.cpp:382] ip2 -> ip2
I0501 02:14:33.226989 14352 net.cpp:124] Setting up ip2
I0501 02:14:33.226994 14352 net.cpp:131] Top shape: 111 10 (1110)
I0501 02:14:33.226997 14352 net.cpp:139] Memory required for data: 9561540
I0501 02:14:33.227005 14352 layer_factory.hpp:77] Creating layer relu2
I0501 02:14:33.227010 14352 net.cpp:86] Creating Layer relu2
I0501 02:14:33.227012 14352 net.cpp:408] relu2 <- ip2
I0501 02:14:33.227016 14352 net.cpp:369] relu2 -> ip2 (in-place)
I0501 02:14:33.227160 14352 net.cpp:124] Setting up relu2
I0501 02:14:33.227169 14352 net.cpp:131] Top shape: 111 10 (1110)
I0501 02:14:33.227171 14352 net.cpp:139] Memory required for data: 9565980
I0501 02:14:33.227174 14352 layer_factory.hpp:77] Creating layer ip3
I0501 02:14:33.227181 14352 net.cpp:86] Creating Layer ip3
I0501 02:14:33.227185 14352 net.cpp:408] ip3 <- ip2
I0501 02:14:33.227190 14352 net.cpp:382] ip3 -> ip3
I0501 02:14:33.227275 14352 net.cpp:124] Setting up ip3
I0501 02:14:33.227283 14352 net.cpp:131] Top shape: 111 10 (1110)
I0501 02:14:33.227285 14352 net.cpp:139] Memory required for data: 9570420
I0501 02:14:33.227290 14352 layer_factory.hpp:77] Creating layer loss
I0501 02:14:33.227295 14352 net.cpp:86] Creating Layer loss
I0501 02:14:33.227298 14352 net.cpp:408] loss <- ip3
I0501 02:14:33.227303 14352 net.cpp:408] loss <- label
I0501 02:14:33.227308 14352 net.cpp:382] loss -> loss
I0501 02:14:33.227325 14352 layer_factory.hpp:77] Creating layer loss
…
I0501 02:14:33.227895 14352 solver.cpp:173] Creating test net (#0) specified by net file: ECE595/cifar/train_test/var_everything/cifar_train_test_315.prototxt
I0501 02:14:33.227918 14352 net.cpp:296] The NetState phase (1) differed from the phase (0) specified by a rule in layer cifar
I0501 02:14:33.227999 14352 net.cpp:53] Initializing net from parameters: 
name: "CIFAR"
state {
  phase: TEST
}
layer {
  name: "cifar"
  type: "Data"
  top: "data"
  top: "label"
  include {
    phase: TEST
  }
  transform_param {
    mean_file: "examples/cifar10/mean.binaryproto"
  }
  data_param {
    source: "examples/cifar10/cifar10_test_lmdb"
    batch_size: 1000
    backend: LMDB
  }
}
layer {
  name: "conv0"
  type: "Convolution"
  bottom: "data"
  top: "conv0"
  param {
    lr_mult: 1
  }
  param {
    lr_mult: 2
  }
  convolution_param {
    num_output: 8
    pad: 2
    kernel_size: 5
    stride: 1
    weight_filler {
      type: "gaussian"
      std: 0.01
    }
    bias_filler {
      type: "constant"
    }
  }
}
layer {
  name: "Sigmoid0"
  type: "Sigmoid"
  bottom: "conv0"
  top: "Sigmoid0"
}
layer {
  name: "pool0"
  type: "Pooling"
  bottom: "Sigmoid0"
  top: "pool0"
  pooling_param {
    pool: AVE
    kernel_size: 3
    stride: 2
  }
}
layer {
  name: "ip1"
  type: "InnerProduct"
  bottom: "pool0"
  top: "ip1"
  param {
    lr_mult: 1
  }
  param {
    lr_mult: 2
  }
  inner_product_param {
    num_output: 10
    weight_filler {
      type: "gaussian"
      std: 0.01
    }
    bias_filler {
      type: "constant"
    }
  }
}
layer {
  name: "relu1"
  type: "ReLU"
  bottom: "ip1"
  top: "ip1"
}
layer {
  name: "ip2"
  type: "InnerProduct"
  bottom: "ip1"
  top: "ip2"
  param {
    lr_mult: 1
  }
  param {
    lr_mult: 2
  }
  inner_product_param {
    num_output: 10
    weight_filler {
      type: "gaussian"
      std: 0.01
    }
    bias_filler {
      type: "constant"
    }
  }
}
layer {
  name: "relu2"
  type: "ReLU"
  bottom: "ip2"
  top: "ip2"
}
layer {
  name: "ip3"
  type: "InnerProduct"
  bottom: "ip2"
  top: "ip3"
  param {
    lr_mult: 1
  }
  param {
    lr_mult: 2
  }
  inner_product_param {
    num_output: 10
    weight_filler {
      type: "gaussian"
      std: 0.01
    }
    bias_filler {
      type: "constant"
    }
  }
}
layer {
  name: "accuracy"
  type: "Accuracy"
  bottom: "ip3"
  bottom: "label"
  top: "accuracy"
  include {
    phase: TEST
  }
}
layer {
  name: "loss"
  type: "SoftmaxWithLoss"
  bottom: "ip3"
  bottom: "label"
  top: "loss"
}
I0501 02:14:33.228065 14352 layer_factory.hpp:77] Creating layer cifar
I0501 02:14:33.228111 14352 db_lmdb.cpp:35] Opened lmdb examples/cifar10/cifar10_test_lmdb
I0501 02:14:33.228126 14352 net.cpp:86] Creating Layer cifar
I0501 02:14:33.228132 14352 net.cpp:382] cifar -> data
I0501 02:14:33.228155 14352 net.cpp:382] cifar -> label
I0501 02:14:33.228163 14352 data_transformer.cpp:25] Loading mean file from: examples/cifar10/mean.binaryproto
I0501 02:14:33.228301 14352 data_layer.cpp:45] output data size: 1000,3,32,32
I0501 02:14:33.249963 14352 net.cpp:124] Setting up cifar
I0501 02:14:33.250002 14352 net.cpp:131] Top shape: 1000 3 32 32 (3072000)
I0501 02:14:33.250008 14352 net.cpp:131] Top shape: 1000 (1000)
I0501 02:14:33.250011 14352 net.cpp:139] Memory required for data: 12292000
I0501 02:14:33.250017 14352 layer_factory.hpp:77] Creating layer label_cifar_1_split
I0501 02:14:33.250035 14352 net.cpp:86] Creating Layer label_cifar_1_split
I0501 02:14:33.250052 14352 net.cpp:408] label_cifar_1_split <- label
I0501 02:14:33.250059 14352 net.cpp:382] label_cifar_1_split -> label_cifar_1_split_0
I0501 02:14:33.250068 14352 net.cpp:382] label_cifar_1_split -> label_cifar_1_split_1
I0501 02:14:33.250156 14352 net.cpp:124] Setting up label_cifar_1_split
I0501 02:14:33.250164 14352 net.cpp:131] Top shape: 1000 (1000)
I0501 02:14:33.250167 14352 net.cpp:131] Top shape: 1000 (1000)
I0501 02:14:33.250170 14352 net.cpp:139] Memory required for data: 12300000
I0501 02:14:33.250174 14352 layer_factory.hpp:77] Creating layer conv0
I0501 02:14:33.250186 14352 net.cpp:86] Creating Layer conv0
I0501 02:14:33.250191 14352 net.cpp:408] conv0 <- data
I0501 02:14:33.250197 14352 net.cpp:382] conv0 -> conv0
I0501 02:14:33.251823 14352 net.cpp:124] Setting up conv0
I0501 02:14:33.251837 14352 net.cpp:131] Top shape: 1000 8 32 32 (8192000)
I0501 02:14:33.251855 14352 net.cpp:139] Memory required for data: 45068000
I0501 02:14:33.251864 14352 layer_factory.hpp:77] Creating layer Sigmoid0
I0501 02:14:33.251874 14352 net.cpp:86] Creating Layer Sigmoid0
I0501 02:14:33.251878 14352 net.cpp:408] Sigmoid0 <- conv0
I0501 02:14:33.251881 14352 net.cpp:382] Sigmoid0 -> Sigmoid0
I0501 02:14:33.252899 14352 net.cpp:124] Setting up Sigmoid0
I0501 02:14:33.252912 14352 net.cpp:131] Top shape: 1000 8 32 32 (8192000)
I0501 02:14:33.252914 14352 net.cpp:139] Memory required for data: 77836000
I0501 02:14:33.252918 14352 layer_factory.hpp:77] Creating layer pool0
I0501 02:14:33.252926 14352 net.cpp:86] Creating Layer pool0
I0501 02:14:33.252930 14352 net.cpp:408] pool0 <- Sigmoid0
I0501 02:14:33.252934 14352 net.cpp:382] pool0 -> pool0
I0501 02:14:33.254140 14352 net.cpp:124] Setting up pool0
I0501 02:14:33.254150 14352 net.cpp:131] Top shape: 1000 8 16 16 (2048000)
I0501 02:14:33.254169 14352 net.cpp:139] Memory required for data: 86028000
I0501 02:14:33.254173 14352 layer_factory.hpp:77] Creating layer ip1
I0501 02:14:33.254182 14352 net.cpp:86] Creating Layer ip1
I0501 02:14:33.254185 14352 net.cpp:408] ip1 <- pool0
I0501 02:14:33.254191 14352 net.cpp:382] ip1 -> ip1
I0501 02:14:33.254885 14352 net.cpp:124] Setting up ip1
I0501 02:14:33.254892 14352 net.cpp:131] Top shape: 1000 10 (10000)
I0501 02:14:33.254894 14352 net.cpp:139] Memory required for data: 86068000
I0501 02:14:33.254917 14352 layer_factory.hpp:77] Creating layer relu1
I0501 02:14:33.254922 14352 net.cpp:86] Creating Layer relu1
I0501 02:14:33.254925 14352 net.cpp:408] relu1 <- ip1
I0501 02:14:33.254931 14352 net.cpp:369] relu1 -> ip1 (in-place)
I0501 02:14:33.255100 14352 net.cpp:124] Setting up relu1
I0501 02:14:33.255107 14352 net.cpp:131] Top shape: 1000 10 (10000)
I0501 02:14:33.255110 14352 net.cpp:139] Memory required for data: 86108000
I0501 02:14:33.255113 14352 layer_factory.hpp:77] Creating layer ip2
I0501 02:14:33.255131 14352 net.cpp:86] Creating Layer ip2
I0501 02:14:33.255133 14352 net.cpp:408] ip2 <- ip1
I0501 02:14:33.255139 14352 net.cpp:382] ip2 -> ip2
I0501 02:14:33.255245 14352 net.cpp:124] Setting up ip2
I0501 02:14:33.255252 14352 net.cpp:131] Top shape: 1000 10 (10000)
I0501 02:14:33.255255 14352 net.cpp:139] Memory required for data: 86148000
I0501 02:14:33.255262 14352 layer_factory.hpp:77] Creating layer relu2
I0501 02:14:33.255270 14352 net.cpp:86] Creating Layer relu2
I0501 02:14:33.255288 14352 net.cpp:408] relu2 <- ip2
I0501 02:14:33.255293 14352 net.cpp:369] relu2 -> ip2 (in-place)
I0501 02:14:33.255489 14352 net.cpp:124] Setting up relu2
I0501 02:14:33.255498 14352 net.cpp:131] Top shape: 1000 10 (10000)
I0501 02:14:33.255502 14352 net.cpp:139] Memory required for data: 86188000
I0501 02:14:33.255506 14352 layer_factory.hpp:77] Creating layer ip3
I0501 02:14:33.255512 14352 net.cpp:86] Creating Layer ip3
I0501 02:14:33.255517 14352 net.cpp:408] ip3 <- ip2
I0501 02:14:33.255522 14352 net.cpp:382] ip3 -> ip3
I0501 02:14:33.255657 14352 net.cpp:124] Setting up ip3
I0501 02:14:33.255666 14352 net.cpp:131] Top shape: 1000 10 (10000)
I0501 02:14:33.255669 14352 net.cpp:139] Memory required for data: 86228000
I0501 02:14:33.255686 14352 layer_factory.hpp:77] Creating layer ip3_ip3_0_split
I0501 02:14:33.255692 14352 net.cpp:86] Creating Layer ip3_ip3_0_split
I0501 02:14:33.255694 14352 net.cpp:408] ip3_ip3_0_split <- ip3
I0501 02:14:33.255698 14352 net.cpp:382] ip3_ip3_0_split -> ip3_ip3_0_split_0
I0501 02:14:33.255704 14352 net.cpp:382] ip3_ip3_0_split -> ip3_ip3_0_split_1
I0501 02:14:33.255751 14352 net.cpp:124] Setting up ip3_ip3_0_split
I0501 02:14:33.255758 14352 net.cpp:131] Top shape: 1000 10 (10000)
I0501 02:14:33.255761 14352 net.cpp:131] Top shape: 1000 10 (10000)
I0501 02:14:33.255764 14352 net.cpp:139] Memory required for data: 86308000
I0501 02:14:33.255766 14352 layer_factory.hpp:77] Creating layer accuracy
I0501 02:14:33.255771 14352 net.cpp:86] Creating Layer accuracy
I0501 02:14:33.255774 14352 net.cpp:408] accuracy <- ip3_ip3_0_split_0
I0501 02:14:33.255779 14352 net.cpp:408] accuracy <- label_cifar_1_split_0
I0501 02:14:33.255784 14352 net.cpp:382] accuracy -> accuracy
…
