…
I0501 08:11:53.028458  9669 net.cpp:296] The NetState phase (0) differed from the phase (1) specified by a rule in layer cifar
I0501 08:11:53.028477  9669 net.cpp:296] The NetState phase (0) differed from the phase (1) specified by a rule in layer accuracy
I0501 08:11:53.028583  9669 net.cpp:53] Initializing net from parameters: 
name: "CIFAR"
state {
  phase: TRAIN
  level: 0
  stage: ""
}
layer {
  name: "cifar"
  type: "Data"
  top: "data"
  top: "label"
  include {
    phase: TRAIN
  }
  transform_param {
    mean_file: "examples/cifar10/mean.binaryproto"
  }
  data_param {
    source: "examples/cifar10/cifar10_train_lmdb"
    batch_size: 111
    backend: LMDB
  }
}
layer {
  name: "conv0"
  type: "Convolution"
  bottom: "data"
  top: "conv0"
  param {
    lr_mult: 1
  }
  param {
    lr_mult: 2
  }
  convolution_param {
    num_output: 16
    pad: 2
    kernel_size: 3
    stride: 1
    weight_filler {
      type: "gaussian"
      std: 0.01
    }
    bias_filler {
      type: "constant"
    }
  }
}
layer {
  name: "Sigmoid0"
  type: "Sigmoid"
  bottom: "conv0"
  top: "Sigmoid0"
}
layer {
  name: "pool0"
  type: "Pooling"
  bottom: "Sigmoid0"
  top: "pool0"
  pooling_param {
    pool: AVE
    kernel_size: 3
    stride: 2
  }
}
layer {
  name: "ip1"
  type: "InnerProduct"
  bottom: "pool0"
  top: "ip1"
  param {
    lr_mult: 1
  }
  param {
    lr_mult: 2
  }
  inner_product_param {
    num_output: 10
    weight_filler {
      type: "gaussian"
      std: 0.01
    }
    bias_filler {
      type: "constant"
    }
  }
}
layer {
  name: "relu1"
  type: "ReLU"
  bottom: "ip1"
  top: "ip1"
}
layer {
  name: "ip2"
  type: "InnerProduct"
  bottom: "ip1"
  top: "ip2"
  param {
    lr_mult: 1
  }
  param {
    lr_mult: 2
  }
  inner_product_param {
    num_output: 20
    weight_filler {
      type: "gaussian"
      std: 0.01
    }
    bias_filler {
      type: "constant"
    }
  }
}
layer {
  name: "relu2"
  type: "ReLU"
  bottom: "ip2"
  top: "ip2"
}
layer {
  name: "ip3"
  type: "InnerProduct"
  bottom: "ip2"
  top: "ip3"
  param {
    lr_mult: 1
  }
  param {
    lr_mult: 2
  }
  inner_product_param {
    num_output: 160
    weight_filler {
      type: "gaussian"
      std: 0.01
    }
    bias_filler {
      type: "constant"
    }
  }
}
layer {
  name: "relu3"
  type: "ReLU"
  bottom: "ip3"
  top: "ip3"
}
layer {
  name: "ip4"
  type: "InnerProduct"
  bottom: "ip3"
  top: "ip4"
  param {
    lr_mult: 1
  }
  param {
    lr_mult: 2
  }
  inner_product_param {
    num_output: 10
    weight_filler {
      type: "gaussian"
      std: 0.01
    }
    bias_filler {
      type: "constant"
    }
  }
}
layer {
  name: "loss"
  type: "SoftmaxWithLoss"
  bottom: "ip4"
  bottom: "label"
  top: "loss"
}
I0501 08:11:53.028661  9669 layer_factory.hpp:77] Creating layer cifar
I0501 08:11:53.028756  9669 db_lmdb.cpp:35] Opened lmdb examples/cifar10/cifar10_train_lmdb
I0501 08:11:53.028781  9669 net.cpp:86] Creating Layer cifar
I0501 08:11:53.028801  9669 net.cpp:382] cifar -> data
I0501 08:11:53.028832  9669 net.cpp:382] cifar -> label
I0501 08:11:53.028844  9669 data_transformer.cpp:25] Loading mean file from: examples/cifar10/mean.binaryproto
I0501 08:11:53.030905  9669 data_layer.cpp:45] output data size: 111,3,32,32
I0501 08:11:53.038523  9669 net.cpp:124] Setting up cifar
I0501 08:11:53.038542  9669 net.cpp:131] Top shape: 111 3 32 32 (340992)
I0501 08:11:53.038548  9669 net.cpp:131] Top shape: 111 (111)
I0501 08:11:53.038552  9669 net.cpp:139] Memory required for data: 1364412
I0501 08:11:53.038573  9669 layer_factory.hpp:77] Creating layer conv0
I0501 08:11:53.038589  9669 net.cpp:86] Creating Layer conv0
I0501 08:11:53.038594  9669 net.cpp:408] conv0 <- data
I0501 08:11:53.038609  9669 net.cpp:382] conv0 -> conv0
I0501 08:11:53.279633  9669 net.cpp:124] Setting up conv0
I0501 08:11:53.279675  9669 net.cpp:131] Top shape: 111 16 34 34 (2053056)
I0501 08:11:53.279680  9669 net.cpp:139] Memory required for data: 9576636
I0501 08:11:53.279693  9669 layer_factory.hpp:77] Creating layer Sigmoid0
I0501 08:11:53.279706  9669 net.cpp:86] Creating Layer Sigmoid0
I0501 08:11:53.279722  9669 net.cpp:408] Sigmoid0 <- conv0
I0501 08:11:53.279727  9669 net.cpp:382] Sigmoid0 -> Sigmoid0
I0501 08:11:53.279906  9669 net.cpp:124] Setting up Sigmoid0
I0501 08:11:53.279914  9669 net.cpp:131] Top shape: 111 16 34 34 (2053056)
I0501 08:11:53.279917  9669 net.cpp:139] Memory required for data: 17788860
I0501 08:11:53.279920  9669 layer_factory.hpp:77] Creating layer pool0
I0501 08:11:53.279927  9669 net.cpp:86] Creating Layer pool0
I0501 08:11:53.279929  9669 net.cpp:408] pool0 <- Sigmoid0
I0501 08:11:53.279934  9669 net.cpp:382] pool0 -> pool0
I0501 08:11:53.280645  9669 net.cpp:124] Setting up pool0
I0501 08:11:53.280673  9669 net.cpp:131] Top shape: 111 16 17 17 (513264)
I0501 08:11:53.280678  9669 net.cpp:139] Memory required for data: 19841916
I0501 08:11:53.280680  9669 layer_factory.hpp:77] Creating layer ip1
I0501 08:11:53.280689  9669 net.cpp:86] Creating Layer ip1
I0501 08:11:53.280694  9669 net.cpp:408] ip1 <- pool0
I0501 08:11:53.280699  9669 net.cpp:382] ip1 -> ip1
I0501 08:11:53.282894  9669 net.cpp:124] Setting up ip1
I0501 08:11:53.282907  9669 net.cpp:131] Top shape: 111 10 (1110)
I0501 08:11:53.282925  9669 net.cpp:139] Memory required for data: 19846356
I0501 08:11:53.282933  9669 layer_factory.hpp:77] Creating layer relu1
I0501 08:11:53.282939  9669 net.cpp:86] Creating Layer relu1
I0501 08:11:53.282943  9669 net.cpp:408] relu1 <- ip1
I0501 08:11:53.282948  9669 net.cpp:369] relu1 -> ip1 (in-place)
I0501 08:11:53.283107  9669 net.cpp:124] Setting up relu1
I0501 08:11:53.283114  9669 net.cpp:131] Top shape: 111 10 (1110)
I0501 08:11:53.283116  9669 net.cpp:139] Memory required for data: 19850796
I0501 08:11:53.283119  9669 layer_factory.hpp:77] Creating layer ip2
I0501 08:11:53.283125  9669 net.cpp:86] Creating Layer ip2
I0501 08:11:53.283128  9669 net.cpp:408] ip2 <- ip1
I0501 08:11:53.283133  9669 net.cpp:382] ip2 -> ip2
I0501 08:11:53.283223  9669 net.cpp:124] Setting up ip2
I0501 08:11:53.283229  9669 net.cpp:131] Top shape: 111 20 (2220)
I0501 08:11:53.283232  9669 net.cpp:139] Memory required for data: 19859676
I0501 08:11:53.283238  9669 layer_factory.hpp:77] Creating layer relu2
I0501 08:11:53.283243  9669 net.cpp:86] Creating Layer relu2
I0501 08:11:53.283246  9669 net.cpp:408] relu2 <- ip2
I0501 08:11:53.283249  9669 net.cpp:369] relu2 -> ip2 (in-place)
I0501 08:11:53.283386  9669 net.cpp:124] Setting up relu2
I0501 08:11:53.283392  9669 net.cpp:131] Top shape: 111 20 (2220)
I0501 08:11:53.283396  9669 net.cpp:139] Memory required for data: 19868556
I0501 08:11:53.283398  9669 layer_factory.hpp:77] Creating layer ip3
I0501 08:11:53.283406  9669 net.cpp:86] Creating Layer ip3
I0501 08:11:53.283408  9669 net.cpp:408] ip3 <- ip2
I0501 08:11:53.283412  9669 net.cpp:382] ip3 -> ip3
I0501 08:11:53.283576  9669 net.cpp:124] Setting up ip3
I0501 08:11:53.283582  9669 net.cpp:131] Top shape: 111 160 (17760)
I0501 08:11:53.283586  9669 net.cpp:139] Memory required for data: 19939596
I0501 08:11:53.283591  9669 layer_factory.hpp:77] Creating layer relu3
I0501 08:11:53.283594  9669 net.cpp:86] Creating Layer relu3
I0501 08:11:53.283597  9669 net.cpp:408] relu3 <- ip3
I0501 08:11:53.283601  9669 net.cpp:369] relu3 -> ip3 (in-place)
I0501 08:11:53.283731  9669 net.cpp:124] Setting up relu3
I0501 08:11:53.283738  9669 net.cpp:131] Top shape: 111 160 (17760)
I0501 08:11:53.283741  9669 net.cpp:139] Memory required for data: 20010636
I0501 08:11:53.283745  9669 layer_factory.hpp:77] Creating layer ip4
I0501 08:11:53.283764  9669 net.cpp:86] Creating Layer ip4
I0501 08:11:53.283767  9669 net.cpp:408] ip4 <- ip3
I0501 08:11:53.283771  9669 net.cpp:382] ip4 -> ip4
I0501 08:11:53.283913  9669 net.cpp:124] Setting up ip4
I0501 08:11:53.283921  9669 net.cpp:131] Top shape: 111 10 (1110)
I0501 08:11:53.283924  9669 net.cpp:139] Memory required for data: 20015076
I0501 08:11:53.283931  9669 layer_factory.hpp:77] Creating layer loss
I0501 08:11:53.283936  9669 net.cpp:86] Creating Layer loss
I0501 08:11:53.283939  9669 net.cpp:408] loss <- ip4
I0501 08:11:53.283942  9669 net.cpp:408] loss <- label
I0501 08:11:53.283947  9669 net.cpp:382] loss -> loss
I0501 08:11:53.283960  9669 layer_factory.hpp:77] Creating layer loss
…
I0501 08:11:53.285181  9669 solver.cpp:173] Creating test net (#0) specified by net file: ECE595/cifar/train_test/var_everything/cifar_train_test_504.prototxt
I0501 08:11:53.285236  9669 net.cpp:296] The NetState phase (1) differed from the phase (0) specified by a rule in layer cifar
I0501 08:11:53.285323  9669 net.cpp:53] Initializing net from parameters: 
name: "CIFAR"
state {
  phase: TEST
}
layer {
  name: "cifar"
  type: "Data"
  top: "data"
  top: "label"
  include {
    phase: TEST
  }
  transform_param {
    mean_file: "examples/cifar10/mean.binaryproto"
  }
  data_param {
    source: "examples/cifar10/cifar10_test_lmdb"
    batch_size: 1000
    backend: LMDB
  }
}
layer {
  name: "conv0"
  type: "Convolution"
  bottom: "data"
  top: "conv0"
  param {
    lr_mult: 1
  }
  param {
    lr_mult: 2
  }
  convolution_param {
    num_output: 16
    pad: 2
    kernel_size: 3
    stride: 1
    weight_filler {
      type: "gaussian"
      std: 0.01
    }
    bias_filler {
      type: "constant"
    }
  }
}
layer {
  name: "Sigmoid0"
  type: "Sigmoid"
  bottom: "conv0"
  top: "Sigmoid0"
}
layer {
  name: "pool0"
  type: "Pooling"
  bottom: "Sigmoid0"
  top: "pool0"
  pooling_param {
    pool: AVE
    kernel_size: 3
    stride: 2
  }
}
layer {
  name: "ip1"
  type: "InnerProduct"
  bottom: "pool0"
  top: "ip1"
  param {
    lr_mult: 1
  }
  param {
    lr_mult: 2
  }
  inner_product_param {
    num_output: 10
    weight_filler {
      type: "gaussian"
      std: 0.01
    }
    bias_filler {
      type: "constant"
    }
  }
}
layer {
  name: "relu1"
  type: "ReLU"
  bottom: "ip1"
  top: "ip1"
}
layer {
  name: "ip2"
  type: "InnerProduct"
  bottom: "ip1"
  top: "ip2"
  param {
    lr_mult: 1
  }
  param {
    lr_mult: 2
  }
  inner_product_param {
    num_output: 20
    weight_filler {
      type: "gaussian"
      std: 0.01
    }
    bias_filler {
      type: "constant"
    }
  }
}
layer {
  name: "relu2"
  type: "ReLU"
  bottom: "ip2"
  top: "ip2"
}
layer {
  name: "ip3"
  type: "InnerProduct"
  bottom: "ip2"
  top: "ip3"
  param {
    lr_mult: 1
  }
  param {
    lr_mult: 2
  }
  inner_product_param {
    num_output: 160
    weight_filler {
      type: "gaussian"
      std: 0.01
    }
    bias_filler {
      type: "constant"
    }
  }
}
layer {
  name: "relu3"
  type: "ReLU"
  bottom: "ip3"
  top: "ip3"
}
layer {
  name: "ip4"
  type: "InnerProduct"
  bottom: "ip3"
  top: "ip4"
  param {
    lr_mult: 1
  }
  param {
    lr_mult: 2
  }
  inner_product_param {
    num_output: 10
    weight_filler {
      type: "gaussian"
      std: 0.01
    }
    bias_filler {
      type: "constant"
    }
  }
}
layer {
  name: "accuracy"
  type: "Accuracy"
  bottom: "ip4"
  bottom: "label"
  top: "accuracy"
  include {
    phase: TEST
  }
}
layer {
  name: "loss"
  type: "SoftmaxWithLoss"
  bottom: "ip4"
  bottom: "label"
  top: "loss"
}
I0501 08:11:53.285396  9669 layer_factory.hpp:77] Creating layer cifar
I0501 08:11:53.285439  9669 db_lmdb.cpp:35] Opened lmdb examples/cifar10/cifar10_test_lmdb
I0501 08:11:53.285449  9669 net.cpp:86] Creating Layer cifar
I0501 08:11:53.285454  9669 net.cpp:382] cifar -> data
I0501 08:11:53.285461  9669 net.cpp:382] cifar -> label
I0501 08:11:53.285467  9669 data_transformer.cpp:25] Loading mean file from: examples/cifar10/mean.binaryproto
I0501 08:11:53.285600  9669 data_layer.cpp:45] output data size: 1000,3,32,32
I0501 08:11:53.307534  9669 net.cpp:124] Setting up cifar
I0501 08:11:53.307560  9669 net.cpp:131] Top shape: 1000 3 32 32 (3072000)
I0501 08:11:53.307565  9669 net.cpp:131] Top shape: 1000 (1000)
I0501 08:11:53.307569  9669 net.cpp:139] Memory required for data: 12292000
I0501 08:11:53.307574  9669 layer_factory.hpp:77] Creating layer label_cifar_1_split
I0501 08:11:53.307585  9669 net.cpp:86] Creating Layer label_cifar_1_split
I0501 08:11:53.307590  9669 net.cpp:408] label_cifar_1_split <- label
I0501 08:11:53.307595  9669 net.cpp:382] label_cifar_1_split -> label_cifar_1_split_0
I0501 08:11:53.307603  9669 net.cpp:382] label_cifar_1_split -> label_cifar_1_split_1
I0501 08:11:53.307759  9669 net.cpp:124] Setting up label_cifar_1_split
I0501 08:11:53.307765  9669 net.cpp:131] Top shape: 1000 (1000)
I0501 08:11:53.307770  9669 net.cpp:131] Top shape: 1000 (1000)
I0501 08:11:53.307772  9669 net.cpp:139] Memory required for data: 12300000
I0501 08:11:53.307775  9669 layer_factory.hpp:77] Creating layer conv0
I0501 08:11:53.307787  9669 net.cpp:86] Creating Layer conv0
I0501 08:11:53.307790  9669 net.cpp:408] conv0 <- data
I0501 08:11:53.307796  9669 net.cpp:382] conv0 -> conv0
I0501 08:11:53.309492  9669 net.cpp:124] Setting up conv0
I0501 08:11:53.309505  9669 net.cpp:131] Top shape: 1000 16 34 34 (18496000)
I0501 08:11:53.309509  9669 net.cpp:139] Memory required for data: 86284000
I0501 08:11:53.309520  9669 layer_factory.hpp:77] Creating layer Sigmoid0
I0501 08:11:53.309526  9669 net.cpp:86] Creating Layer Sigmoid0
I0501 08:11:53.309530  9669 net.cpp:408] Sigmoid0 <- conv0
I0501 08:11:53.309533  9669 net.cpp:382] Sigmoid0 -> Sigmoid0
I0501 08:11:53.309705  9669 net.cpp:124] Setting up Sigmoid0
I0501 08:11:53.309713  9669 net.cpp:131] Top shape: 1000 16 34 34 (18496000)
I0501 08:11:53.309716  9669 net.cpp:139] Memory required for data: 160268000
I0501 08:11:53.309720  9669 layer_factory.hpp:77] Creating layer pool0
I0501 08:11:53.309727  9669 net.cpp:86] Creating Layer pool0
I0501 08:11:53.309731  9669 net.cpp:408] pool0 <- Sigmoid0
I0501 08:11:53.309734  9669 net.cpp:382] pool0 -> pool0
I0501 08:11:53.309963  9669 net.cpp:124] Setting up pool0
I0501 08:11:53.309973  9669 net.cpp:131] Top shape: 1000 16 17 17 (4624000)
I0501 08:11:53.309975  9669 net.cpp:139] Memory required for data: 178764000
I0501 08:11:53.309978  9669 layer_factory.hpp:77] Creating layer ip1
I0501 08:11:53.309985  9669 net.cpp:86] Creating Layer ip1
I0501 08:11:53.309993  9669 net.cpp:408] ip1 <- pool0
I0501 08:11:53.309999  9669 net.cpp:382] ip1 -> ip1
I0501 08:11:53.312297  9669 net.cpp:124] Setting up ip1
I0501 08:11:53.312307  9669 net.cpp:131] Top shape: 1000 10 (10000)
I0501 08:11:53.312310  9669 net.cpp:139] Memory required for data: 178804000
I0501 08:11:53.312332  9669 layer_factory.hpp:77] Creating layer relu1
I0501 08:11:53.312340  9669 net.cpp:86] Creating Layer relu1
I0501 08:11:53.312342  9669 net.cpp:408] relu1 <- ip1
I0501 08:11:53.312347  9669 net.cpp:369] relu1 -> ip1 (in-place)
I0501 08:11:53.312522  9669 net.cpp:124] Setting up relu1
I0501 08:11:53.312530  9669 net.cpp:131] Top shape: 1000 10 (10000)
I0501 08:11:53.312533  9669 net.cpp:139] Memory required for data: 178844000
I0501 08:11:53.312536  9669 layer_factory.hpp:77] Creating layer ip2
I0501 08:11:53.312561  9669 net.cpp:86] Creating Layer ip2
I0501 08:11:53.312580  9669 net.cpp:408] ip2 <- ip1
I0501 08:11:53.312602  9669 net.cpp:382] ip2 -> ip2
I0501 08:11:53.312762  9669 net.cpp:124] Setting up ip2
I0501 08:11:53.312772  9669 net.cpp:131] Top shape: 1000 20 (20000)
I0501 08:11:53.312775  9669 net.cpp:139] Memory required for data: 178924000
I0501 08:11:53.312791  9669 layer_factory.hpp:77] Creating layer relu2
I0501 08:11:53.312800  9669 net.cpp:86] Creating Layer relu2
I0501 08:11:53.312803  9669 net.cpp:408] relu2 <- ip2
I0501 08:11:53.312808  9669 net.cpp:369] relu2 -> ip2 (in-place)
I0501 08:11:53.313673  9669 net.cpp:124] Setting up relu2
I0501 08:11:53.313686  9669 net.cpp:131] Top shape: 1000 20 (20000)
I0501 08:11:53.313689  9669 net.cpp:139] Memory required for data: 179004000
I0501 08:11:53.313693  9669 layer_factory.hpp:77] Creating layer ip3
I0501 08:11:53.313714  9669 net.cpp:86] Creating Layer ip3
I0501 08:11:53.313717  9669 net.cpp:408] ip3 <- ip2
I0501 08:11:53.313724  9669 net.cpp:382] ip3 -> ip3
I0501 08:11:53.313916  9669 net.cpp:124] Setting up ip3
I0501 08:11:53.313923  9669 net.cpp:131] Top shape: 1000 160 (160000)
I0501 08:11:53.313925  9669 net.cpp:139] Memory required for data: 179644000
I0501 08:11:53.313931  9669 layer_factory.hpp:77] Creating layer relu3
I0501 08:11:53.313937  9669 net.cpp:86] Creating Layer relu3
I0501 08:11:53.313941  9669 net.cpp:408] relu3 <- ip3
I0501 08:11:53.313944  9669 net.cpp:369] relu3 -> ip3 (in-place)
I0501 08:11:53.314093  9669 net.cpp:124] Setting up relu3
I0501 08:11:53.314101  9669 net.cpp:131] Top shape: 1000 160 (160000)
I0501 08:11:53.314105  9669 net.cpp:139] Memory required for data: 180284000
I0501 08:11:53.314106  9669 layer_factory.hpp:77] Creating layer ip4
I0501 08:11:53.314113  9669 net.cpp:86] Creating Layer ip4
I0501 08:11:53.314117  9669 net.cpp:408] ip4 <- ip3
I0501 08:11:53.314131  9669 net.cpp:382] ip4 -> ip4
I0501 08:11:53.314267  9669 net.cpp:124] Setting up ip4
I0501 08:11:53.314275  9669 net.cpp:131] Top shape: 1000 10 (10000)
I0501 08:11:53.314294  9669 net.cpp:139] Memory required for data: 180324000
I0501 08:11:53.314302  9669 layer_factory.hpp:77] Creating layer ip4_ip4_0_split
I0501 08:11:53.314307  9669 net.cpp:86] Creating Layer ip4_ip4_0_split
I0501 08:11:53.314311  9669 net.cpp:408] ip4_ip4_0_split <- ip4
I0501 08:11:53.314314  9669 net.cpp:382] ip4_ip4_0_split -> ip4_ip4_0_split_0
I0501 08:11:53.314319  9669 net.cpp:382] ip4_ip4_0_split -> ip4_ip4_0_split_1
I0501 08:11:53.314352  9669 net.cpp:124] Setting up ip4_ip4_0_split
I0501 08:11:53.314357  9669 net.cpp:131] Top shape: 1000 10 (10000)
I0501 08:11:53.314360  9669 net.cpp:131] Top shape: 1000 10 (10000)
I0501 08:11:53.314363  9669 net.cpp:139] Memory required for data: 180404000
I0501 08:11:53.314365  9669 layer_factory.hpp:77] Creating layer accuracy
I0501 08:11:53.314378  9669 net.cpp:86] Creating Layer accuracy
I0501 08:11:53.314380  9669 net.cpp:408] accuracy <- ip4_ip4_0_split_0
I0501 08:11:53.314384  9669 net.cpp:408] accuracy <- label_cifar_1_split_0
I0501 08:11:53.314389  9669 net.cpp:382] accuracy -> accuracy
…
