…
I0501 01:05:05.844243  9148 net.cpp:296] The NetState phase (0) differed from the phase (1) specified by a rule in layer cifar
I0501 01:05:05.844269  9148 net.cpp:296] The NetState phase (0) differed from the phase (1) specified by a rule in layer accuracy
I0501 01:05:05.844437  9148 net.cpp:53] Initializing net from parameters: 
name: "CIFAR"
state {
  phase: TRAIN
  level: 0
  stage: ""
}
layer {
  name: "cifar"
  type: "Data"
  top: "data"
  top: "label"
  include {
    phase: TRAIN
  }
  transform_param {
    mean_file: "examples/cifar10/mean.binaryproto"
  }
  data_param {
    source: "examples/cifar10/cifar10_train_lmdb"
    batch_size: 111
    backend: LMDB
  }
}
layer {
  name: "conv0"
  type: "Convolution"
  bottom: "data"
  top: "conv0"
  param {
    lr_mult: 1
  }
  param {
    lr_mult: 2
  }
  convolution_param {
    num_output: 8
    pad: 2
    kernel_size: 3
    stride: 1
    weight_filler {
      type: "gaussian"
      std: 0.01
    }
    bias_filler {
      type: "constant"
    }
  }
}
layer {
  name: "Sigmoid0"
  type: "Sigmoid"
  bottom: "conv0"
  top: "Sigmoid0"
}
layer {
  name: "pool0"
  type: "Pooling"
  bottom: "Sigmoid0"
  top: "pool0"
  pooling_param {
    pool: AVE
    kernel_size: 3
    stride: 2
  }
}
layer {
  name: "ip1"
  type: "InnerProduct"
  bottom: "pool0"
  top: "ip1"
  param {
    lr_mult: 1
  }
  param {
    lr_mult: 2
  }
  inner_product_param {
    num_output: 80
    weight_filler {
      type: "gaussian"
      std: 0.01
    }
    bias_filler {
      type: "constant"
    }
  }
}
layer {
  name: "relu1"
  type: "ReLU"
  bottom: "ip1"
  top: "ip1"
}
layer {
  name: "ip2"
  type: "InnerProduct"
  bottom: "ip1"
  top: "ip2"
  param {
    lr_mult: 1
  }
  param {
    lr_mult: 2
  }
  inner_product_param {
    num_output: 80
    weight_filler {
      type: "gaussian"
      std: 0.01
    }
    bias_filler {
      type: "constant"
    }
  }
}
layer {
  name: "relu2"
  type: "ReLU"
  bottom: "ip2"
  top: "ip2"
}
layer {
  name: "ip3"
  type: "InnerProduct"
  bottom: "ip2"
  top: "ip3"
  param {
    lr_mult: 1
  }
  param {
    lr_mult: 2
  }
  inner_product_param {
    num_output: 80
    weight_filler {
      type: "gaussian"
      std: 0.01
    }
    bias_filler {
      type: "constant"
    }
  }
}
layer {
  name: "relu3"
  type: "ReLU"
  bottom: "ip3"
  top: "ip3"
}
layer {
  name: "ip4"
  type: "InnerProduct"
  bottom: "ip3"
  top: "ip4"
  param {
    lr_mult: 1
  }
  param {
    lr_mult: 2
  }
  inner_product_param {
    num_output: 10
    weight_filler {
      type: "gaussian"
      std: 0.01
    }
    bias_filler {
      type: "constant"
    }
  }
}
layer {
  name: "loss"
  type: "SoftmaxWithLoss"
  bottom: "ip4"
  bottom: "label"
  top: "loss"
}
I0501 01:05:05.844558  9148 layer_factory.hpp:77] Creating layer cifar
I0501 01:05:05.844687  9148 db_lmdb.cpp:35] Opened lmdb examples/cifar10/cifar10_train_lmdb
I0501 01:05:05.844722  9148 net.cpp:86] Creating Layer cifar
I0501 01:05:05.844735  9148 net.cpp:382] cifar -> data
I0501 01:05:05.844764  9148 net.cpp:382] cifar -> label
I0501 01:05:05.844786  9148 data_transformer.cpp:25] Loading mean file from: examples/cifar10/mean.binaryproto
I0501 01:05:05.847515  9148 data_layer.cpp:45] output data size: 111,3,32,32
I0501 01:05:05.857862  9148 net.cpp:124] Setting up cifar
I0501 01:05:05.857887  9148 net.cpp:131] Top shape: 111 3 32 32 (340992)
I0501 01:05:05.857894  9148 net.cpp:131] Top shape: 111 (111)
I0501 01:05:05.857899  9148 net.cpp:139] Memory required for data: 1364412
I0501 01:05:05.857939  9148 layer_factory.hpp:77] Creating layer conv0
I0501 01:05:05.857964  9148 net.cpp:86] Creating Layer conv0
I0501 01:05:05.857973  9148 net.cpp:408] conv0 <- data
I0501 01:05:05.857991  9148 net.cpp:382] conv0 -> conv0
I0501 01:05:06.159157  9148 net.cpp:124] Setting up conv0
I0501 01:05:06.159188  9148 net.cpp:131] Top shape: 111 8 34 34 (1026528)
I0501 01:05:06.159194  9148 net.cpp:139] Memory required for data: 5470524
I0501 01:05:06.159211  9148 layer_factory.hpp:77] Creating layer Sigmoid0
I0501 01:05:06.159226  9148 net.cpp:86] Creating Layer Sigmoid0
I0501 01:05:06.159230  9148 net.cpp:408] Sigmoid0 <- conv0
I0501 01:05:06.159246  9148 net.cpp:382] Sigmoid0 -> Sigmoid0
I0501 01:05:06.159456  9148 net.cpp:124] Setting up Sigmoid0
I0501 01:05:06.159467  9148 net.cpp:131] Top shape: 111 8 34 34 (1026528)
I0501 01:05:06.159471  9148 net.cpp:139] Memory required for data: 9576636
I0501 01:05:06.159476  9148 layer_factory.hpp:77] Creating layer pool0
I0501 01:05:06.159484  9148 net.cpp:86] Creating Layer pool0
I0501 01:05:06.159492  9148 net.cpp:408] pool0 <- Sigmoid0
I0501 01:05:06.159497  9148 net.cpp:382] pool0 -> pool0
I0501 01:05:06.160372  9148 net.cpp:124] Setting up pool0
I0501 01:05:06.160387  9148 net.cpp:131] Top shape: 111 8 17 17 (256632)
I0501 01:05:06.160392  9148 net.cpp:139] Memory required for data: 10603164
I0501 01:05:06.160396  9148 layer_factory.hpp:77] Creating layer ip1
I0501 01:05:06.160408  9148 net.cpp:86] Creating Layer ip1
I0501 01:05:06.160411  9148 net.cpp:408] ip1 <- pool0
I0501 01:05:06.160418  9148 net.cpp:382] ip1 -> ip1
I0501 01:05:06.168066  9148 net.cpp:124] Setting up ip1
I0501 01:05:06.168082  9148 net.cpp:131] Top shape: 111 80 (8880)
I0501 01:05:06.168087  9148 net.cpp:139] Memory required for data: 10638684
I0501 01:05:06.168097  9148 layer_factory.hpp:77] Creating layer relu1
I0501 01:05:06.168103  9148 net.cpp:86] Creating Layer relu1
I0501 01:05:06.168108  9148 net.cpp:408] relu1 <- ip1
I0501 01:05:06.168113  9148 net.cpp:369] relu1 -> ip1 (in-place)
I0501 01:05:06.168305  9148 net.cpp:124] Setting up relu1
I0501 01:05:06.168315  9148 net.cpp:131] Top shape: 111 80 (8880)
I0501 01:05:06.168319  9148 net.cpp:139] Memory required for data: 10674204
I0501 01:05:06.168323  9148 layer_factory.hpp:77] Creating layer ip2
I0501 01:05:06.168331  9148 net.cpp:86] Creating Layer ip2
I0501 01:05:06.168335  9148 net.cpp:408] ip2 <- ip1
I0501 01:05:06.168341  9148 net.cpp:382] ip2 -> ip2
I0501 01:05:06.169667  9148 net.cpp:124] Setting up ip2
I0501 01:05:06.169682  9148 net.cpp:131] Top shape: 111 80 (8880)
I0501 01:05:06.169687  9148 net.cpp:139] Memory required for data: 10709724
I0501 01:05:06.169697  9148 layer_factory.hpp:77] Creating layer relu2
I0501 01:05:06.169704  9148 net.cpp:86] Creating Layer relu2
I0501 01:05:06.169708  9148 net.cpp:408] relu2 <- ip2
I0501 01:05:06.169713  9148 net.cpp:369] relu2 -> ip2 (in-place)
I0501 01:05:06.169908  9148 net.cpp:124] Setting up relu2
I0501 01:05:06.169917  9148 net.cpp:131] Top shape: 111 80 (8880)
I0501 01:05:06.169921  9148 net.cpp:139] Memory required for data: 10745244
I0501 01:05:06.169925  9148 layer_factory.hpp:77] Creating layer ip3
I0501 01:05:06.169934  9148 net.cpp:86] Creating Layer ip3
I0501 01:05:06.169939  9148 net.cpp:408] ip3 <- ip2
I0501 01:05:06.169945  9148 net.cpp:382] ip3 -> ip3
I0501 01:05:06.170274  9148 net.cpp:124] Setting up ip3
I0501 01:05:06.170281  9148 net.cpp:131] Top shape: 111 80 (8880)
I0501 01:05:06.170285  9148 net.cpp:139] Memory required for data: 10780764
I0501 01:05:06.170291  9148 layer_factory.hpp:77] Creating layer relu3
I0501 01:05:06.170297  9148 net.cpp:86] Creating Layer relu3
I0501 01:05:06.170300  9148 net.cpp:408] relu3 <- ip3
I0501 01:05:06.170305  9148 net.cpp:369] relu3 -> ip3 (in-place)
I0501 01:05:06.170485  9148 net.cpp:124] Setting up relu3
I0501 01:05:06.170493  9148 net.cpp:131] Top shape: 111 80 (8880)
I0501 01:05:06.170497  9148 net.cpp:139] Memory required for data: 10816284
I0501 01:05:06.170501  9148 layer_factory.hpp:77] Creating layer ip4
I0501 01:05:06.170526  9148 net.cpp:86] Creating Layer ip4
I0501 01:05:06.170529  9148 net.cpp:408] ip4 <- ip3
I0501 01:05:06.170536  9148 net.cpp:382] ip4 -> ip4
I0501 01:05:06.171654  9148 net.cpp:124] Setting up ip4
I0501 01:05:06.171670  9148 net.cpp:131] Top shape: 111 10 (1110)
I0501 01:05:06.171674  9148 net.cpp:139] Memory required for data: 10820724
I0501 01:05:06.171684  9148 layer_factory.hpp:77] Creating layer loss
I0501 01:05:06.171691  9148 net.cpp:86] Creating Layer loss
I0501 01:05:06.171695  9148 net.cpp:408] loss <- ip4
I0501 01:05:06.171700  9148 net.cpp:408] loss <- label
I0501 01:05:06.171707  9148 net.cpp:382] loss -> loss
I0501 01:05:06.171732  9148 layer_factory.hpp:77] Creating layer loss
…
I0501 01:05:06.173200  9148 solver.cpp:173] Creating test net (#0) specified by net file: ECE595/cifar/train_test/var_everything/cifar_train_test_278.prototxt
I0501 01:05:06.173234  9148 net.cpp:296] The NetState phase (1) differed from the phase (0) specified by a rule in layer cifar
I0501 01:05:06.173359  9148 net.cpp:53] Initializing net from parameters: 
name: "CIFAR"
state {
  phase: TEST
}
layer {
  name: "cifar"
  type: "Data"
  top: "data"
  top: "label"
  include {
    phase: TEST
  }
  transform_param {
    mean_file: "examples/cifar10/mean.binaryproto"
  }
  data_param {
    source: "examples/cifar10/cifar10_test_lmdb"
    batch_size: 1000
    backend: LMDB
  }
}
layer {
  name: "conv0"
  type: "Convolution"
  bottom: "data"
  top: "conv0"
  param {
    lr_mult: 1
  }
  param {
    lr_mult: 2
  }
  convolution_param {
    num_output: 8
    pad: 2
    kernel_size: 3
    stride: 1
    weight_filler {
      type: "gaussian"
      std: 0.01
    }
    bias_filler {
      type: "constant"
    }
  }
}
layer {
  name: "Sigmoid0"
  type: "Sigmoid"
  bottom: "conv0"
  top: "Sigmoid0"
}
layer {
  name: "pool0"
  type: "Pooling"
  bottom: "Sigmoid0"
  top: "pool0"
  pooling_param {
    pool: AVE
    kernel_size: 3
    stride: 2
  }
}
layer {
  name: "ip1"
  type: "InnerProduct"
  bottom: "pool0"
  top: "ip1"
  param {
    lr_mult: 1
  }
  param {
    lr_mult: 2
  }
  inner_product_param {
    num_output: 80
    weight_filler {
      type: "gaussian"
      std: 0.01
    }
    bias_filler {
      type: "constant"
    }
  }
}
layer {
  name: "relu1"
  type: "ReLU"
  bottom: "ip1"
  top: "ip1"
}
layer {
  name: "ip2"
  type: "InnerProduct"
  bottom: "ip1"
  top: "ip2"
  param {
    lr_mult: 1
  }
  param {
    lr_mult: 2
  }
  inner_product_param {
    num_output: 80
    weight_filler {
      type: "gaussian"
      std: 0.01
    }
    bias_filler {
      type: "constant"
    }
  }
}
layer {
  name: "relu2"
  type: "ReLU"
  bottom: "ip2"
  top: "ip2"
}
layer {
  name: "ip3"
  type: "InnerProduct"
  bottom: "ip2"
  top: "ip3"
  param {
    lr_mult: 1
  }
  param {
    lr_mult: 2
  }
  inner_product_param {
    num_output: 80
    weight_filler {
      type: "gaussian"
      std: 0.01
    }
    bias_filler {
      type: "constant"
    }
  }
}
layer {
  name: "relu3"
  type: "ReLU"
  bottom: "ip3"
  top: "ip3"
}
layer {
  name: "ip4"
  type: "InnerProduct"
  bottom: "ip3"
  top: "ip4"
  param {
    lr_mult: 1
  }
  param {
    lr_mult: 2
  }
  inner_product_param {
    num_output: 10
    weight_filler {
      type: "gaussian"
      std: 0.01
    }
    bias_filler {
      type: "constant"
    }
  }
}
layer {
  name: "accuracy"
  type: "Accuracy"
  bottom: "ip4"
  bottom: "label"
  top: "accuracy"
  include {
    phase: TEST
  }
}
layer {
  name: "loss"
  type: "SoftmaxWithLoss"
  bottom: "ip4"
  bottom: "label"
  top: "loss"
}
I0501 01:05:06.173456  9148 layer_factory.hpp:77] Creating layer cifar
I0501 01:05:06.173508  9148 db_lmdb.cpp:35] Opened lmdb examples/cifar10/cifar10_test_lmdb
I0501 01:05:06.173522  9148 net.cpp:86] Creating Layer cifar
I0501 01:05:06.173527  9148 net.cpp:382] cifar -> data
I0501 01:05:06.173537  9148 net.cpp:382] cifar -> label
I0501 01:05:06.173545  9148 data_transformer.cpp:25] Loading mean file from: examples/cifar10/mean.binaryproto
I0501 01:05:06.173727  9148 data_layer.cpp:45] output data size: 1000,3,32,32
I0501 01:05:06.199730  9148 net.cpp:124] Setting up cifar
I0501 01:05:06.199762  9148 net.cpp:131] Top shape: 1000 3 32 32 (3072000)
I0501 01:05:06.199769  9148 net.cpp:131] Top shape: 1000 (1000)
I0501 01:05:06.199774  9148 net.cpp:139] Memory required for data: 12292000
I0501 01:05:06.199780  9148 layer_factory.hpp:77] Creating layer label_cifar_1_split
I0501 01:05:06.199795  9148 net.cpp:86] Creating Layer label_cifar_1_split
I0501 01:05:06.199800  9148 net.cpp:408] label_cifar_1_split <- label
I0501 01:05:06.199806  9148 net.cpp:382] label_cifar_1_split -> label_cifar_1_split_0
I0501 01:05:06.199827  9148 net.cpp:382] label_cifar_1_split -> label_cifar_1_split_1
I0501 01:05:06.199960  9148 net.cpp:124] Setting up label_cifar_1_split
I0501 01:05:06.199970  9148 net.cpp:131] Top shape: 1000 (1000)
I0501 01:05:06.199975  9148 net.cpp:131] Top shape: 1000 (1000)
I0501 01:05:06.199978  9148 net.cpp:139] Memory required for data: 12300000
I0501 01:05:06.199982  9148 layer_factory.hpp:77] Creating layer conv0
I0501 01:05:06.199996  9148 net.cpp:86] Creating Layer conv0
I0501 01:05:06.200001  9148 net.cpp:408] conv0 <- data
I0501 01:05:06.200007  9148 net.cpp:382] conv0 -> conv0
I0501 01:05:06.201756  9148 net.cpp:124] Setting up conv0
I0501 01:05:06.201773  9148 net.cpp:131] Top shape: 1000 8 34 34 (9248000)
I0501 01:05:06.201778  9148 net.cpp:139] Memory required for data: 49292000
I0501 01:05:06.201792  9148 layer_factory.hpp:77] Creating layer Sigmoid0
I0501 01:05:06.201799  9148 net.cpp:86] Creating Layer Sigmoid0
I0501 01:05:06.201803  9148 net.cpp:408] Sigmoid0 <- conv0
I0501 01:05:06.201809  9148 net.cpp:382] Sigmoid0 -> Sigmoid0
I0501 01:05:06.203007  9148 net.cpp:124] Setting up Sigmoid0
I0501 01:05:06.203021  9148 net.cpp:131] Top shape: 1000 8 34 34 (9248000)
I0501 01:05:06.203024  9148 net.cpp:139] Memory required for data: 86284000
I0501 01:05:06.203028  9148 layer_factory.hpp:77] Creating layer pool0
I0501 01:05:06.203038  9148 net.cpp:86] Creating Layer pool0
I0501 01:05:06.203043  9148 net.cpp:408] pool0 <- Sigmoid0
I0501 01:05:06.203049  9148 net.cpp:382] pool0 -> pool0
I0501 01:05:06.203269  9148 net.cpp:124] Setting up pool0
I0501 01:05:06.203279  9148 net.cpp:131] Top shape: 1000 8 17 17 (2312000)
I0501 01:05:06.203284  9148 net.cpp:139] Memory required for data: 95532000
I0501 01:05:06.203287  9148 layer_factory.hpp:77] Creating layer ip1
I0501 01:05:06.203296  9148 net.cpp:86] Creating Layer ip1
I0501 01:05:06.203299  9148 net.cpp:408] ip1 <- pool0
I0501 01:05:06.203305  9148 net.cpp:382] ip1 -> ip1
I0501 01:05:06.209548  9148 net.cpp:124] Setting up ip1
I0501 01:05:06.209558  9148 net.cpp:131] Top shape: 1000 80 (80000)
I0501 01:05:06.209563  9148 net.cpp:139] Memory required for data: 95852000
I0501 01:05:06.209588  9148 layer_factory.hpp:77] Creating layer relu1
I0501 01:05:06.209595  9148 net.cpp:86] Creating Layer relu1
I0501 01:05:06.209611  9148 net.cpp:408] relu1 <- ip1
I0501 01:05:06.209616  9148 net.cpp:369] relu1 -> ip1 (in-place)
I0501 01:05:06.209808  9148 net.cpp:124] Setting up relu1
I0501 01:05:06.209818  9148 net.cpp:131] Top shape: 1000 80 (80000)
I0501 01:05:06.209823  9148 net.cpp:139] Memory required for data: 96172000
I0501 01:05:06.209827  9148 layer_factory.hpp:77] Creating layer ip2
I0501 01:05:06.209834  9148 net.cpp:86] Creating Layer ip2
I0501 01:05:06.209838  9148 net.cpp:408] ip2 <- ip1
I0501 01:05:06.209844  9148 net.cpp:382] ip2 -> ip2
I0501 01:05:06.210173  9148 net.cpp:124] Setting up ip2
I0501 01:05:06.210182  9148 net.cpp:131] Top shape: 1000 80 (80000)
I0501 01:05:06.210186  9148 net.cpp:139] Memory required for data: 96492000
I0501 01:05:06.210196  9148 layer_factory.hpp:77] Creating layer relu2
I0501 01:05:06.210204  9148 net.cpp:86] Creating Layer relu2
I0501 01:05:06.210209  9148 net.cpp:408] relu2 <- ip2
I0501 01:05:06.210217  9148 net.cpp:369] relu2 -> ip2 (in-place)
I0501 01:05:06.211120  9148 net.cpp:124] Setting up relu2
I0501 01:05:06.211135  9148 net.cpp:131] Top shape: 1000 80 (80000)
I0501 01:05:06.211139  9148 net.cpp:139] Memory required for data: 96812000
I0501 01:05:06.211144  9148 layer_factory.hpp:77] Creating layer ip3
I0501 01:05:06.211153  9148 net.cpp:86] Creating Layer ip3
I0501 01:05:06.211156  9148 net.cpp:408] ip3 <- ip2
I0501 01:05:06.211163  9148 net.cpp:382] ip3 -> ip3
I0501 01:05:06.211495  9148 net.cpp:124] Setting up ip3
I0501 01:05:06.211505  9148 net.cpp:131] Top shape: 1000 80 (80000)
I0501 01:05:06.211509  9148 net.cpp:139] Memory required for data: 97132000
I0501 01:05:06.211516  9148 layer_factory.hpp:77] Creating layer relu3
I0501 01:05:06.211522  9148 net.cpp:86] Creating Layer relu3
I0501 01:05:06.211526  9148 net.cpp:408] relu3 <- ip3
I0501 01:05:06.211531  9148 net.cpp:369] relu3 -> ip3 (in-place)
I0501 01:05:06.211710  9148 net.cpp:124] Setting up relu3
I0501 01:05:06.211720  9148 net.cpp:131] Top shape: 1000 80 (80000)
I0501 01:05:06.211725  9148 net.cpp:139] Memory required for data: 97452000
I0501 01:05:06.211730  9148 layer_factory.hpp:77] Creating layer ip4
I0501 01:05:06.211736  9148 net.cpp:86] Creating Layer ip4
I0501 01:05:06.211740  9148 net.cpp:408] ip4 <- ip3
I0501 01:05:06.211746  9148 net.cpp:382] ip4 -> ip4
I0501 01:05:06.211894  9148 net.cpp:124] Setting up ip4
I0501 01:05:06.211901  9148 net.cpp:131] Top shape: 1000 10 (10000)
I0501 01:05:06.211905  9148 net.cpp:139] Memory required for data: 97492000
I0501 01:05:06.211915  9148 layer_factory.hpp:77] Creating layer ip4_ip4_0_split
I0501 01:05:06.211920  9148 net.cpp:86] Creating Layer ip4_ip4_0_split
I0501 01:05:06.211925  9148 net.cpp:408] ip4_ip4_0_split <- ip4
I0501 01:05:06.211930  9148 net.cpp:382] ip4_ip4_0_split -> ip4_ip4_0_split_0
I0501 01:05:06.211935  9148 net.cpp:382] ip4_ip4_0_split -> ip4_ip4_0_split_1
I0501 01:05:06.211972  9148 net.cpp:124] Setting up ip4_ip4_0_split
I0501 01:05:06.211979  9148 net.cpp:131] Top shape: 1000 10 (10000)
I0501 01:05:06.211984  9148 net.cpp:131] Top shape: 1000 10 (10000)
I0501 01:05:06.211987  9148 net.cpp:139] Memory required for data: 97572000
I0501 01:05:06.211990  9148 layer_factory.hpp:77] Creating layer accuracy
I0501 01:05:06.211997  9148 net.cpp:86] Creating Layer accuracy
I0501 01:05:06.212002  9148 net.cpp:408] accuracy <- ip4_ip4_0_split_0
I0501 01:05:06.212007  9148 net.cpp:408] accuracy <- label_cifar_1_split_0
I0501 01:05:06.212011  9148 net.cpp:382] accuracy -> accuracy
…
