…
I0430 19:20:00.027446 25713 net.cpp:296] The NetState phase (0) differed from the phase (1) specified by a rule in layer cifar
I0430 19:20:00.027458 25713 net.cpp:296] The NetState phase (0) differed from the phase (1) specified by a rule in layer accuracy
I0430 19:20:00.027523 25713 net.cpp:53] Initializing net from parameters: 
name: "CIFAR"
state {
  phase: TRAIN
  level: 0
  stage: ""
}
layer {
  name: "cifar"
  type: "Data"
  top: "data"
  top: "label"
  include {
    phase: TRAIN
  }
  transform_param {
    mean_file: "examples/cifar10/mean.binaryproto"
  }
  data_param {
    source: "examples/cifar10/cifar10_train_lmdb"
    batch_size: 111
    backend: LMDB
  }
}
layer {
  name: "ip1"
  type: "InnerProduct"
  bottom: "data"
  top: "ip1"
  param {
    lr_mult: 1
  }
  param {
    lr_mult: 2
  }
  inner_product_param {
    num_output: 40
    weight_filler {
      type: "gaussian"
      std: 0.01
    }
    bias_filler {
      type: "constant"
    }
  }
}
layer {
  name: "relu1"
  type: "ReLU"
  bottom: "ip1"
  top: "ip1"
}
layer {
  name: "ip2"
  type: "InnerProduct"
  bottom: "ip1"
  top: "ip2"
  param {
    lr_mult: 1
  }
  param {
    lr_mult: 2
  }
  inner_product_param {
    num_output: 40
    weight_filler {
      type: "gaussian"
      std: 0.01
    }
    bias_filler {
      type: "constant"
    }
  }
}
layer {
  name: "relu2"
  type: "ReLU"
  bottom: "ip2"
  top: "ip2"
}
layer {
  name: "ip3"
  type: "InnerProduct"
  bottom: "ip2"
  top: "ip3"
  param {
    lr_mult: 1
  }
  param {
    lr_mult: 2
  }
  inner_product_param {
    num_output: 160
    weight_filler {
      type: "gaussian"
      std: 0.01
    }
    bias_filler {
      type: "constant"
    }
  }
}
layer {
  name: "relu3"
  type: "ReLU"
  bottom: "ip3"
  top: "ip3"
}
layer {
  name: "ip4"
  type: "InnerProduct"
  bottom: "ip3"
  top: "ip4"
  param {
    lr_mult: 1
  }
  param {
    lr_mult: 2
  }
  inner_product_param {
    num_output: 10
    weight_filler {
      type: "gaussian"
      std: 0.01
    }
    bias_filler {
      type: "constant"
    }
  }
}
layer {
  name: "loss"
  type: "SoftmaxWithLoss"
  bottom: "ip4"
  bottom: "label"
  top: "loss"
}
I0430 19:20:00.027578 25713 layer_factory.hpp:77] Creating layer cifar
I0430 19:20:00.027657 25713 db_lmdb.cpp:35] Opened lmdb examples/cifar10/cifar10_train_lmdb
I0430 19:20:00.027679 25713 net.cpp:86] Creating Layer cifar
I0430 19:20:00.027685 25713 net.cpp:382] cifar -> data
I0430 19:20:00.027704 25713 net.cpp:382] cifar -> label
I0430 19:20:00.027714 25713 data_transformer.cpp:25] Loading mean file from: examples/cifar10/mean.binaryproto
I0430 19:20:00.029495 25713 data_layer.cpp:45] output data size: 111,3,32,32
I0430 19:20:00.035805 25713 net.cpp:124] Setting up cifar
I0430 19:20:00.035837 25713 net.cpp:131] Top shape: 111 3 32 32 (340992)
I0430 19:20:00.035872 25713 net.cpp:131] Top shape: 111 (111)
I0430 19:20:00.035876 25713 net.cpp:139] Memory required for data: 1364412
I0430 19:20:00.035883 25713 layer_factory.hpp:77] Creating layer ip1
I0430 19:20:00.035907 25713 net.cpp:86] Creating Layer ip1
I0430 19:20:00.035912 25713 net.cpp:408] ip1 <- data
I0430 19:20:00.035923 25713 net.cpp:382] ip1 -> ip1
I0430 19:20:00.039237 25713 net.cpp:124] Setting up ip1
I0430 19:20:00.039247 25713 net.cpp:131] Top shape: 111 40 (4440)
I0430 19:20:00.039248 25713 net.cpp:139] Memory required for data: 1382172
I0430 19:20:00.039259 25713 layer_factory.hpp:77] Creating layer relu1
I0430 19:20:00.039268 25713 net.cpp:86] Creating Layer relu1
I0430 19:20:00.039299 25713 net.cpp:408] relu1 <- ip1
I0430 19:20:00.039302 25713 net.cpp:369] relu1 -> ip1 (in-place)
I0430 19:20:00.269244 25713 net.cpp:124] Setting up relu1
I0430 19:20:00.269286 25713 net.cpp:131] Top shape: 111 40 (4440)
I0430 19:20:00.269290 25713 net.cpp:139] Memory required for data: 1399932
I0430 19:20:00.269295 25713 layer_factory.hpp:77] Creating layer ip2
I0430 19:20:00.269309 25713 net.cpp:86] Creating Layer ip2
I0430 19:20:00.269312 25713 net.cpp:408] ip2 <- ip1
I0430 19:20:00.269320 25713 net.cpp:382] ip2 -> ip2
I0430 19:20:00.269496 25713 net.cpp:124] Setting up ip2
I0430 19:20:00.269505 25713 net.cpp:131] Top shape: 111 40 (4440)
I0430 19:20:00.269508 25713 net.cpp:139] Memory required for data: 1417692
I0430 19:20:00.269518 25713 layer_factory.hpp:77] Creating layer relu2
I0430 19:20:00.269526 25713 net.cpp:86] Creating Layer relu2
I0430 19:20:00.269527 25713 net.cpp:408] relu2 <- ip2
I0430 19:20:00.269531 25713 net.cpp:369] relu2 -> ip2 (in-place)
I0430 19:20:00.270309 25713 net.cpp:124] Setting up relu2
I0430 19:20:00.270321 25713 net.cpp:131] Top shape: 111 40 (4440)
I0430 19:20:00.270340 25713 net.cpp:139] Memory required for data: 1435452
I0430 19:20:00.270344 25713 layer_factory.hpp:77] Creating layer ip3
I0430 19:20:00.270351 25713 net.cpp:86] Creating Layer ip3
I0430 19:20:00.270355 25713 net.cpp:408] ip3 <- ip2
I0430 19:20:00.270361 25713 net.cpp:382] ip3 -> ip3
I0430 19:20:00.271487 25713 net.cpp:124] Setting up ip3
I0430 19:20:00.271515 25713 net.cpp:131] Top shape: 111 160 (17760)
I0430 19:20:00.271518 25713 net.cpp:139] Memory required for data: 1506492
I0430 19:20:00.271526 25713 layer_factory.hpp:77] Creating layer relu3
I0430 19:20:00.271533 25713 net.cpp:86] Creating Layer relu3
I0430 19:20:00.271536 25713 net.cpp:408] relu3 <- ip3
I0430 19:20:00.271541 25713 net.cpp:369] relu3 -> ip3 (in-place)
I0430 19:20:00.271716 25713 net.cpp:124] Setting up relu3
I0430 19:20:00.271725 25713 net.cpp:131] Top shape: 111 160 (17760)
I0430 19:20:00.271728 25713 net.cpp:139] Memory required for data: 1577532
I0430 19:20:00.271731 25713 layer_factory.hpp:77] Creating layer ip4
I0430 19:20:00.271740 25713 net.cpp:86] Creating Layer ip4
I0430 19:20:00.271744 25713 net.cpp:408] ip4 <- ip3
I0430 19:20:00.271749 25713 net.cpp:382] ip4 -> ip4
I0430 19:20:00.271888 25713 net.cpp:124] Setting up ip4
I0430 19:20:00.271894 25713 net.cpp:131] Top shape: 111 10 (1110)
I0430 19:20:00.271898 25713 net.cpp:139] Memory required for data: 1581972
I0430 19:20:00.271903 25713 layer_factory.hpp:77] Creating layer loss
I0430 19:20:00.271909 25713 net.cpp:86] Creating Layer loss
I0430 19:20:00.271913 25713 net.cpp:408] loss <- ip4
I0430 19:20:00.271916 25713 net.cpp:408] loss <- label
I0430 19:20:00.271922 25713 net.cpp:382] loss -> loss
I0430 19:20:00.271936 25713 layer_factory.hpp:77] Creating layer loss
…
I0430 19:20:00.272528 25713 solver.cpp:173] Creating test net (#0) specified by net file: ECE595/cifar/train_test/var_everything/cifar_train_test_94.prototxt
I0430 19:20:00.272565 25713 net.cpp:296] The NetState phase (1) differed from the phase (0) specified by a rule in layer cifar
I0430 19:20:00.272639 25713 net.cpp:53] Initializing net from parameters: 
name: "CIFAR"
state {
  phase: TEST
}
layer {
  name: "cifar"
  type: "Data"
  top: "data"
  top: "label"
  include {
    phase: TEST
  }
  transform_param {
    mean_file: "examples/cifar10/mean.binaryproto"
  }
  data_param {
    source: "examples/cifar10/cifar10_test_lmdb"
    batch_size: 1000
    backend: LMDB
  }
}
layer {
  name: "ip1"
  type: "InnerProduct"
  bottom: "data"
  top: "ip1"
  param {
    lr_mult: 1
  }
  param {
    lr_mult: 2
  }
  inner_product_param {
    num_output: 40
    weight_filler {
      type: "gaussian"
      std: 0.01
    }
    bias_filler {
      type: "constant"
    }
  }
}
layer {
  name: "relu1"
  type: "ReLU"
  bottom: "ip1"
  top: "ip1"
}
layer {
  name: "ip2"
  type: "InnerProduct"
  bottom: "ip1"
  top: "ip2"
  param {
    lr_mult: 1
  }
  param {
    lr_mult: 2
  }
  inner_product_param {
    num_output: 40
    weight_filler {
      type: "gaussian"
      std: 0.01
    }
    bias_filler {
      type: "constant"
    }
  }
}
layer {
  name: "relu2"
  type: "ReLU"
  bottom: "ip2"
  top: "ip2"
}
layer {
  name: "ip3"
  type: "InnerProduct"
  bottom: "ip2"
  top: "ip3"
  param {
    lr_mult: 1
  }
  param {
    lr_mult: 2
  }
  inner_product_param {
    num_output: 160
    weight_filler {
      type: "gaussian"
      std: 0.01
    }
    bias_filler {
      type: "constant"
    }
  }
}
layer {
  name: "relu3"
  type: "ReLU"
  bottom: "ip3"
  top: "ip3"
}
layer {
  name: "ip4"
  type: "InnerProduct"
  bottom: "ip3"
  top: "ip4"
  param {
    lr_mult: 1
  }
  param {
    lr_mult: 2
  }
  inner_product_param {
    num_output: 10
    weight_filler {
      type: "gaussian"
      std: 0.01
    }
    bias_filler {
      type: "constant"
    }
  }
}
layer {
  name: "accuracy"
  type: "Accuracy"
  bottom: "ip4"
  bottom: "label"
  top: "accuracy"
  include {
    phase: TEST
  }
}
layer {
  name: "loss"
  type: "SoftmaxWithLoss"
  bottom: "ip4"
  bottom: "label"
  top: "loss"
}
I0430 19:20:00.272699 25713 layer_factory.hpp:77] Creating layer cifar
I0430 19:20:00.272742 25713 db_lmdb.cpp:35] Opened lmdb examples/cifar10/cifar10_test_lmdb
I0430 19:20:00.272756 25713 net.cpp:86] Creating Layer cifar
I0430 19:20:00.272761 25713 net.cpp:382] cifar -> data
I0430 19:20:00.272769 25713 net.cpp:382] cifar -> label
I0430 19:20:00.272776 25713 data_transformer.cpp:25] Loading mean file from: examples/cifar10/mean.binaryproto
I0430 19:20:00.272966 25713 data_layer.cpp:45] output data size: 1000,3,32,32
I0430 19:20:00.295936 25713 net.cpp:124] Setting up cifar
I0430 19:20:00.295964 25713 net.cpp:131] Top shape: 1000 3 32 32 (3072000)
I0430 19:20:00.295969 25713 net.cpp:131] Top shape: 1000 (1000)
I0430 19:20:00.295974 25713 net.cpp:139] Memory required for data: 12292000
I0430 19:20:00.295994 25713 layer_factory.hpp:77] Creating layer label_cifar_1_split
I0430 19:20:00.296026 25713 net.cpp:86] Creating Layer label_cifar_1_split
I0430 19:20:00.296030 25713 net.cpp:408] label_cifar_1_split <- label
I0430 19:20:00.296036 25713 net.cpp:382] label_cifar_1_split -> label_cifar_1_split_0
I0430 19:20:00.296046 25713 net.cpp:382] label_cifar_1_split -> label_cifar_1_split_1
I0430 19:20:00.296144 25713 net.cpp:124] Setting up label_cifar_1_split
I0430 19:20:00.296152 25713 net.cpp:131] Top shape: 1000 (1000)
I0430 19:20:00.296157 25713 net.cpp:131] Top shape: 1000 (1000)
I0430 19:20:00.296160 25713 net.cpp:139] Memory required for data: 12300000
I0430 19:20:00.296164 25713 layer_factory.hpp:77] Creating layer ip1
I0430 19:20:00.296171 25713 net.cpp:86] Creating Layer ip1
I0430 19:20:00.296175 25713 net.cpp:408] ip1 <- data
I0430 19:20:00.296180 25713 net.cpp:382] ip1 -> ip1
I0430 19:20:00.299705 25713 net.cpp:124] Setting up ip1
I0430 19:20:00.299715 25713 net.cpp:131] Top shape: 1000 40 (40000)
I0430 19:20:00.299721 25713 net.cpp:139] Memory required for data: 12460000
I0430 19:20:00.299759 25713 layer_factory.hpp:77] Creating layer relu1
I0430 19:20:00.299765 25713 net.cpp:86] Creating Layer relu1
I0430 19:20:00.299769 25713 net.cpp:408] relu1 <- ip1
I0430 19:20:00.299773 25713 net.cpp:369] relu1 -> ip1 (in-place)
I0430 19:20:00.300562 25713 net.cpp:124] Setting up relu1
I0430 19:20:00.300575 25713 net.cpp:131] Top shape: 1000 40 (40000)
I0430 19:20:00.300580 25713 net.cpp:139] Memory required for data: 12620000
I0430 19:20:00.300582 25713 layer_factory.hpp:77] Creating layer ip2
I0430 19:20:00.300590 25713 net.cpp:86] Creating Layer ip2
I0430 19:20:00.300626 25713 net.cpp:408] ip2 <- ip1
I0430 19:20:00.300631 25713 net.cpp:382] ip2 -> ip2
I0430 19:20:00.300789 25713 net.cpp:124] Setting up ip2
I0430 19:20:00.300796 25713 net.cpp:131] Top shape: 1000 40 (40000)
I0430 19:20:00.300801 25713 net.cpp:139] Memory required for data: 12780000
I0430 19:20:00.300807 25713 layer_factory.hpp:77] Creating layer relu2
I0430 19:20:00.300834 25713 net.cpp:86] Creating Layer relu2
I0430 19:20:00.300853 25713 net.cpp:408] relu2 <- ip2
I0430 19:20:00.300858 25713 net.cpp:369] relu2 -> ip2 (in-place)
I0430 19:20:00.301045 25713 net.cpp:124] Setting up relu2
I0430 19:20:00.301054 25713 net.cpp:131] Top shape: 1000 40 (40000)
I0430 19:20:00.301057 25713 net.cpp:139] Memory required for data: 12940000
I0430 19:20:00.301061 25713 layer_factory.hpp:77] Creating layer ip3
I0430 19:20:00.301067 25713 net.cpp:86] Creating Layer ip3
I0430 19:20:00.301071 25713 net.cpp:408] ip3 <- ip2
I0430 19:20:00.301076 25713 net.cpp:382] ip3 -> ip3
I0430 19:20:00.301390 25713 net.cpp:124] Setting up ip3
I0430 19:20:00.301398 25713 net.cpp:131] Top shape: 1000 160 (160000)
I0430 19:20:00.301400 25713 net.cpp:139] Memory required for data: 13580000
I0430 19:20:00.301407 25713 layer_factory.hpp:77] Creating layer relu3
I0430 19:20:00.301412 25713 net.cpp:86] Creating Layer relu3
I0430 19:20:00.301415 25713 net.cpp:408] relu3 <- ip3
I0430 19:20:00.301430 25713 net.cpp:369] relu3 -> ip3 (in-place)
I0430 19:20:00.301607 25713 net.cpp:124] Setting up relu3
I0430 19:20:00.301615 25713 net.cpp:131] Top shape: 1000 160 (160000)
I0430 19:20:00.301620 25713 net.cpp:139] Memory required for data: 14220000
I0430 19:20:00.301622 25713 layer_factory.hpp:77] Creating layer ip4
I0430 19:20:00.301630 25713 net.cpp:86] Creating Layer ip4
I0430 19:20:00.301633 25713 net.cpp:408] ip4 <- ip3
I0430 19:20:00.301638 25713 net.cpp:382] ip4 -> ip4
I0430 19:20:00.301800 25713 net.cpp:124] Setting up ip4
I0430 19:20:00.301807 25713 net.cpp:131] Top shape: 1000 10 (10000)
I0430 19:20:00.301810 25713 net.cpp:139] Memory required for data: 14260000
I0430 19:20:00.301831 25713 layer_factory.hpp:77] Creating layer ip4_ip4_0_split
I0430 19:20:00.301837 25713 net.cpp:86] Creating Layer ip4_ip4_0_split
I0430 19:20:00.301854 25713 net.cpp:408] ip4_ip4_0_split <- ip4
I0430 19:20:00.301867 25713 net.cpp:382] ip4_ip4_0_split -> ip4_ip4_0_split_0
I0430 19:20:00.301873 25713 net.cpp:382] ip4_ip4_0_split -> ip4_ip4_0_split_1
I0430 19:20:00.301905 25713 net.cpp:124] Setting up ip4_ip4_0_split
I0430 19:20:00.301910 25713 net.cpp:131] Top shape: 1000 10 (10000)
I0430 19:20:00.301914 25713 net.cpp:131] Top shape: 1000 10 (10000)
I0430 19:20:00.301918 25713 net.cpp:139] Memory required for data: 14340000
I0430 19:20:00.301920 25713 layer_factory.hpp:77] Creating layer accuracy
I0430 19:20:00.301926 25713 net.cpp:86] Creating Layer accuracy
I0430 19:20:00.301929 25713 net.cpp:408] accuracy <- ip4_ip4_0_split_0
I0430 19:20:00.301934 25713 net.cpp:408] accuracy <- label_cifar_1_split_0
I0430 19:20:00.301937 25713 net.cpp:382] accuracy -> accuracy
…
