…
I0501 02:05:13.431829 13594 net.cpp:296] The NetState phase (0) differed from the phase (1) specified by a rule in layer cifar
I0501 02:05:13.431845 13594 net.cpp:296] The NetState phase (0) differed from the phase (1) specified by a rule in layer accuracy
I0501 02:05:13.431928 13594 net.cpp:53] Initializing net from parameters: 
name: "CIFAR"
state {
  phase: TRAIN
  level: 0
  stage: ""
}
layer {
  name: "cifar"
  type: "Data"
  top: "data"
  top: "label"
  include {
    phase: TRAIN
  }
  transform_param {
    mean_file: "examples/cifar10/mean.binaryproto"
  }
  data_param {
    source: "examples/cifar10/cifar10_train_lmdb"
    batch_size: 111
    backend: LMDB
  }
}
layer {
  name: "conv0"
  type: "Convolution"
  bottom: "data"
  top: "conv0"
  param {
    lr_mult: 1
  }
  param {
    lr_mult: 2
  }
  convolution_param {
    num_output: 8
    pad: 2
    kernel_size: 5
    stride: 1
    weight_filler {
      type: "gaussian"
      std: 0.01
    }
    bias_filler {
      type: "constant"
    }
  }
}
layer {
  name: "Sigmoid0"
  type: "Sigmoid"
  bottom: "conv0"
  top: "Sigmoid0"
}
layer {
  name: "pool0"
  type: "Pooling"
  bottom: "Sigmoid0"
  top: "pool0"
  pooling_param {
    pool: AVE
    kernel_size: 3
    stride: 2
  }
}
layer {
  name: "ip1"
  type: "InnerProduct"
  bottom: "pool0"
  top: "ip1"
  param {
    lr_mult: 1
  }
  param {
    lr_mult: 2
  }
  inner_product_param {
    num_output: 10
    weight_filler {
      type: "gaussian"
      std: 0.01
    }
    bias_filler {
      type: "constant"
    }
  }
}
layer {
  name: "relu1"
  type: "ReLU"
  bottom: "ip1"
  top: "ip1"
}
layer {
  name: "ip2"
  type: "InnerProduct"
  bottom: "ip1"
  top: "ip2"
  param {
    lr_mult: 1
  }
  param {
    lr_mult: 2
  }
  inner_product_param {
    num_output: 10
    weight_filler {
      type: "gaussian"
      std: 0.01
    }
    bias_filler {
      type: "constant"
    }
  }
}
layer {
  name: "loss"
  type: "SoftmaxWithLoss"
  bottom: "ip2"
  bottom: "label"
  top: "loss"
}
I0501 02:05:13.431998 13594 layer_factory.hpp:77] Creating layer cifar
I0501 02:05:13.432104 13594 db_lmdb.cpp:35] Opened lmdb examples/cifar10/cifar10_train_lmdb
I0501 02:05:13.432132 13594 net.cpp:86] Creating Layer cifar
I0501 02:05:13.432142 13594 net.cpp:382] cifar -> data
I0501 02:05:13.432163 13594 net.cpp:382] cifar -> label
I0501 02:05:13.432175 13594 data_transformer.cpp:25] Loading mean file from: examples/cifar10/mean.binaryproto
I0501 02:05:13.434306 13594 data_layer.cpp:45] output data size: 111,3,32,32
I0501 02:05:13.442172 13594 net.cpp:124] Setting up cifar
I0501 02:05:13.442191 13594 net.cpp:131] Top shape: 111 3 32 32 (340992)
I0501 02:05:13.442198 13594 net.cpp:131] Top shape: 111 (111)
I0501 02:05:13.442201 13594 net.cpp:139] Memory required for data: 1364412
I0501 02:05:13.442209 13594 layer_factory.hpp:77] Creating layer conv0
I0501 02:05:13.442229 13594 net.cpp:86] Creating Layer conv0
I0501 02:05:13.442234 13594 net.cpp:408] conv0 <- data
I0501 02:05:13.442247 13594 net.cpp:382] conv0 -> conv0
I0501 02:05:13.729908 13594 net.cpp:124] Setting up conv0
I0501 02:05:13.729938 13594 net.cpp:131] Top shape: 111 8 32 32 (909312)
I0501 02:05:13.729941 13594 net.cpp:139] Memory required for data: 5001660
I0501 02:05:13.729956 13594 layer_factory.hpp:77] Creating layer Sigmoid0
I0501 02:05:13.729969 13594 net.cpp:86] Creating Layer Sigmoid0
I0501 02:05:13.729972 13594 net.cpp:408] Sigmoid0 <- conv0
I0501 02:05:13.729980 13594 net.cpp:382] Sigmoid0 -> Sigmoid0
I0501 02:05:13.730178 13594 net.cpp:124] Setting up Sigmoid0
I0501 02:05:13.730188 13594 net.cpp:131] Top shape: 111 8 32 32 (909312)
I0501 02:05:13.730192 13594 net.cpp:139] Memory required for data: 8638908
I0501 02:05:13.730195 13594 layer_factory.hpp:77] Creating layer pool0
I0501 02:05:13.730202 13594 net.cpp:86] Creating Layer pool0
I0501 02:05:13.730206 13594 net.cpp:408] pool0 <- Sigmoid0
I0501 02:05:13.730211 13594 net.cpp:382] pool0 -> pool0
I0501 02:05:13.730957 13594 net.cpp:124] Setting up pool0
I0501 02:05:13.730970 13594 net.cpp:131] Top shape: 111 8 16 16 (227328)
I0501 02:05:13.730974 13594 net.cpp:139] Memory required for data: 9548220
I0501 02:05:13.730978 13594 layer_factory.hpp:77] Creating layer ip1
I0501 02:05:13.730988 13594 net.cpp:86] Creating Layer ip1
I0501 02:05:13.730990 13594 net.cpp:408] ip1 <- pool0
I0501 02:05:13.730995 13594 net.cpp:382] ip1 -> ip1
I0501 02:05:13.732486 13594 net.cpp:124] Setting up ip1
I0501 02:05:13.732499 13594 net.cpp:131] Top shape: 111 10 (1110)
I0501 02:05:13.732502 13594 net.cpp:139] Memory required for data: 9552660
I0501 02:05:13.732511 13594 layer_factory.hpp:77] Creating layer relu1
I0501 02:05:13.732517 13594 net.cpp:86] Creating Layer relu1
I0501 02:05:13.732519 13594 net.cpp:408] relu1 <- ip1
I0501 02:05:13.732524 13594 net.cpp:369] relu1 -> ip1 (in-place)
I0501 02:05:13.732681 13594 net.cpp:124] Setting up relu1
I0501 02:05:13.732689 13594 net.cpp:131] Top shape: 111 10 (1110)
I0501 02:05:13.732692 13594 net.cpp:139] Memory required for data: 9557100
I0501 02:05:13.732695 13594 layer_factory.hpp:77] Creating layer ip2
I0501 02:05:13.732702 13594 net.cpp:86] Creating Layer ip2
I0501 02:05:13.732705 13594 net.cpp:408] ip2 <- ip1
I0501 02:05:13.732710 13594 net.cpp:382] ip2 -> ip2
I0501 02:05:13.732805 13594 net.cpp:124] Setting up ip2
I0501 02:05:13.732815 13594 net.cpp:131] Top shape: 111 10 (1110)
I0501 02:05:13.732820 13594 net.cpp:139] Memory required for data: 9561540
I0501 02:05:13.732826 13594 layer_factory.hpp:77] Creating layer loss
I0501 02:05:13.732832 13594 net.cpp:86] Creating Layer loss
I0501 02:05:13.732836 13594 net.cpp:408] loss <- ip2
I0501 02:05:13.732839 13594 net.cpp:408] loss <- label
I0501 02:05:13.732844 13594 net.cpp:382] loss -> loss
I0501 02:05:13.732858 13594 layer_factory.hpp:77] Creating layer loss
…
I0501 02:05:13.733409 13594 solver.cpp:173] Creating test net (#0) specified by net file: ECE595/cifar/train_test/var_everything/cifar_train_test_310.prototxt
I0501 02:05:13.733433 13594 net.cpp:296] The NetState phase (1) differed from the phase (0) specified by a rule in layer cifar
I0501 02:05:13.733508 13594 net.cpp:53] Initializing net from parameters: 
name: "CIFAR"
state {
  phase: TEST
}
layer {
  name: "cifar"
  type: "Data"
  top: "data"
  top: "label"
  include {
    phase: TEST
  }
  transform_param {
    mean_file: "examples/cifar10/mean.binaryproto"
  }
  data_param {
    source: "examples/cifar10/cifar10_test_lmdb"
    batch_size: 1000
    backend: LMDB
  }
}
layer {
  name: "conv0"
  type: "Convolution"
  bottom: "data"
  top: "conv0"
  param {
    lr_mult: 1
  }
  param {
    lr_mult: 2
  }
  convolution_param {
    num_output: 8
    pad: 2
    kernel_size: 5
    stride: 1
    weight_filler {
      type: "gaussian"
      std: 0.01
    }
    bias_filler {
      type: "constant"
    }
  }
}
layer {
  name: "Sigmoid0"
  type: "Sigmoid"
  bottom: "conv0"
  top: "Sigmoid0"
}
layer {
  name: "pool0"
  type: "Pooling"
  bottom: "Sigmoid0"
  top: "pool0"
  pooling_param {
    pool: AVE
    kernel_size: 3
    stride: 2
  }
}
layer {
  name: "ip1"
  type: "InnerProduct"
  bottom: "pool0"
  top: "ip1"
  param {
    lr_mult: 1
  }
  param {
    lr_mult: 2
  }
  inner_product_param {
    num_output: 10
    weight_filler {
      type: "gaussian"
      std: 0.01
    }
    bias_filler {
      type: "constant"
    }
  }
}
layer {
  name: "relu1"
  type: "ReLU"
  bottom: "ip1"
  top: "ip1"
}
layer {
  name: "ip2"
  type: "InnerProduct"
  bottom: "ip1"
  top: "ip2"
  param {
    lr_mult: 1
  }
  param {
    lr_mult: 2
  }
  inner_product_param {
    num_output: 10
    weight_filler {
      type: "gaussian"
      std: 0.01
    }
    bias_filler {
      type: "constant"
    }
  }
}
layer {
  name: "accuracy"
  type: "Accuracy"
  bottom: "ip2"
  bottom: "label"
  top: "accuracy"
  include {
    phase: TEST
  }
}
layer {
  name: "loss"
  type: "SoftmaxWithLoss"
  bottom: "ip2"
  bottom: "label"
  top: "loss"
}
I0501 02:05:13.733578 13594 layer_factory.hpp:77] Creating layer cifar
I0501 02:05:13.733623 13594 db_lmdb.cpp:35] Opened lmdb examples/cifar10/cifar10_test_lmdb
I0501 02:05:13.733636 13594 net.cpp:86] Creating Layer cifar
I0501 02:05:13.733640 13594 net.cpp:382] cifar -> data
I0501 02:05:13.733649 13594 net.cpp:382] cifar -> label
I0501 02:05:13.733655 13594 data_transformer.cpp:25] Loading mean file from: examples/cifar10/mean.binaryproto
I0501 02:05:13.733796 13594 data_layer.cpp:45] output data size: 1000,3,32,32
I0501 02:05:13.755774 13594 net.cpp:124] Setting up cifar
I0501 02:05:13.755816 13594 net.cpp:131] Top shape: 1000 3 32 32 (3072000)
I0501 02:05:13.755822 13594 net.cpp:131] Top shape: 1000 (1000)
I0501 02:05:13.755825 13594 net.cpp:139] Memory required for data: 12292000
I0501 02:05:13.755831 13594 layer_factory.hpp:77] Creating layer label_cifar_1_split
I0501 02:05:13.755859 13594 net.cpp:86] Creating Layer label_cifar_1_split
I0501 02:05:13.755863 13594 net.cpp:408] label_cifar_1_split <- label
I0501 02:05:13.755869 13594 net.cpp:382] label_cifar_1_split -> label_cifar_1_split_0
I0501 02:05:13.755877 13594 net.cpp:382] label_cifar_1_split -> label_cifar_1_split_1
I0501 02:05:13.755967 13594 net.cpp:124] Setting up label_cifar_1_split
I0501 02:05:13.755975 13594 net.cpp:131] Top shape: 1000 (1000)
I0501 02:05:13.755980 13594 net.cpp:131] Top shape: 1000 (1000)
I0501 02:05:13.755982 13594 net.cpp:139] Memory required for data: 12300000
I0501 02:05:13.755985 13594 layer_factory.hpp:77] Creating layer conv0
I0501 02:05:13.756000 13594 net.cpp:86] Creating Layer conv0
I0501 02:05:13.756002 13594 net.cpp:408] conv0 <- data
I0501 02:05:13.756007 13594 net.cpp:382] conv0 -> conv0
I0501 02:05:13.757618 13594 net.cpp:124] Setting up conv0
I0501 02:05:13.757632 13594 net.cpp:131] Top shape: 1000 8 32 32 (8192000)
I0501 02:05:13.757635 13594 net.cpp:139] Memory required for data: 45068000
I0501 02:05:13.757645 13594 layer_factory.hpp:77] Creating layer Sigmoid0
I0501 02:05:13.757652 13594 net.cpp:86] Creating Layer Sigmoid0
I0501 02:05:13.757654 13594 net.cpp:408] Sigmoid0 <- conv0
I0501 02:05:13.757658 13594 net.cpp:382] Sigmoid0 -> Sigmoid0
I0501 02:05:13.757839 13594 net.cpp:124] Setting up Sigmoid0
I0501 02:05:13.757848 13594 net.cpp:131] Top shape: 1000 8 32 32 (8192000)
I0501 02:05:13.757851 13594 net.cpp:139] Memory required for data: 77836000
I0501 02:05:13.757855 13594 layer_factory.hpp:77] Creating layer pool0
I0501 02:05:13.757863 13594 net.cpp:86] Creating Layer pool0
I0501 02:05:13.757865 13594 net.cpp:408] pool0 <- Sigmoid0
I0501 02:05:13.757870 13594 net.cpp:382] pool0 -> pool0
I0501 02:05:13.758734 13594 net.cpp:124] Setting up pool0
I0501 02:05:13.758757 13594 net.cpp:131] Top shape: 1000 8 16 16 (2048000)
I0501 02:05:13.758761 13594 net.cpp:139] Memory required for data: 86028000
I0501 02:05:13.758764 13594 layer_factory.hpp:77] Creating layer ip1
I0501 02:05:13.758774 13594 net.cpp:86] Creating Layer ip1
I0501 02:05:13.758776 13594 net.cpp:408] ip1 <- pool0
I0501 02:05:13.758782 13594 net.cpp:382] ip1 -> ip1
I0501 02:05:13.760342 13594 net.cpp:124] Setting up ip1
I0501 02:05:13.760350 13594 net.cpp:131] Top shape: 1000 10 (10000)
I0501 02:05:13.760368 13594 net.cpp:139] Memory required for data: 86068000
I0501 02:05:13.760376 13594 layer_factory.hpp:77] Creating layer relu1
I0501 02:05:13.760382 13594 net.cpp:86] Creating Layer relu1
I0501 02:05:13.760385 13594 net.cpp:408] relu1 <- ip1
I0501 02:05:13.760390 13594 net.cpp:369] relu1 -> ip1 (in-place)
I0501 02:05:13.760577 13594 net.cpp:124] Setting up relu1
I0501 02:05:13.760586 13594 net.cpp:131] Top shape: 1000 10 (10000)
I0501 02:05:13.760588 13594 net.cpp:139] Memory required for data: 86108000
I0501 02:05:13.760592 13594 layer_factory.hpp:77] Creating layer ip2
I0501 02:05:13.760598 13594 net.cpp:86] Creating Layer ip2
I0501 02:05:13.760602 13594 net.cpp:408] ip2 <- ip1
I0501 02:05:13.760607 13594 net.cpp:382] ip2 -> ip2
I0501 02:05:13.760709 13594 net.cpp:124] Setting up ip2
I0501 02:05:13.760715 13594 net.cpp:131] Top shape: 1000 10 (10000)
I0501 02:05:13.760718 13594 net.cpp:139] Memory required for data: 86148000
I0501 02:05:13.760725 13594 layer_factory.hpp:77] Creating layer ip2_ip2_0_split
I0501 02:05:13.760731 13594 net.cpp:86] Creating Layer ip2_ip2_0_split
I0501 02:05:13.760735 13594 net.cpp:408] ip2_ip2_0_split <- ip2
I0501 02:05:13.760738 13594 net.cpp:382] ip2_ip2_0_split -> ip2_ip2_0_split_0
I0501 02:05:13.760743 13594 net.cpp:382] ip2_ip2_0_split -> ip2_ip2_0_split_1
I0501 02:05:13.760772 13594 net.cpp:124] Setting up ip2_ip2_0_split
I0501 02:05:13.760778 13594 net.cpp:131] Top shape: 1000 10 (10000)
I0501 02:05:13.760782 13594 net.cpp:131] Top shape: 1000 10 (10000)
I0501 02:05:13.760784 13594 net.cpp:139] Memory required for data: 86228000
I0501 02:05:13.760787 13594 layer_factory.hpp:77] Creating layer accuracy
I0501 02:05:13.760793 13594 net.cpp:86] Creating Layer accuracy
I0501 02:05:13.760797 13594 net.cpp:408] accuracy <- ip2_ip2_0_split_0
I0501 02:05:13.760800 13594 net.cpp:408] accuracy <- label_cifar_1_split_0
I0501 02:05:13.760805 13594 net.cpp:382] accuracy -> accuracy
…
