…
I0501 08:49:59.548261 12125 net.cpp:296] The NetState phase (0) differed from the phase (1) specified by a rule in layer cifar
I0501 08:49:59.548280 12125 net.cpp:296] The NetState phase (0) differed from the phase (1) specified by a rule in layer accuracy
I0501 08:49:59.548387 12125 net.cpp:53] Initializing net from parameters: 
name: "CIFAR"
state {
  phase: TRAIN
  level: 0
  stage: ""
}
layer {
  name: "cifar"
  type: "Data"
  top: "data"
  top: "label"
  include {
    phase: TRAIN
  }
  transform_param {
    mean_file: "examples/cifar10/mean.binaryproto"
  }
  data_param {
    source: "examples/cifar10/cifar10_train_lmdb"
    batch_size: 111
    backend: LMDB
  }
}
layer {
  name: "conv0"
  type: "Convolution"
  bottom: "data"
  top: "conv0"
  param {
    lr_mult: 1
  }
  param {
    lr_mult: 2
  }
  convolution_param {
    num_output: 16
    pad: 2
    kernel_size: 3
    stride: 1
    weight_filler {
      type: "gaussian"
      std: 0.01
    }
    bias_filler {
      type: "constant"
    }
  }
}
layer {
  name: "Sigmoid0"
  type: "Sigmoid"
  bottom: "conv0"
  top: "Sigmoid0"
}
layer {
  name: "pool0"
  type: "Pooling"
  bottom: "Sigmoid0"
  top: "pool0"
  pooling_param {
    pool: AVE
    kernel_size: 3
    stride: 2
  }
}
layer {
  name: "ip1"
  type: "InnerProduct"
  bottom: "pool0"
  top: "ip1"
  param {
    lr_mult: 1
  }
  param {
    lr_mult: 2
  }
  inner_product_param {
    num_output: 20
    weight_filler {
      type: "gaussian"
      std: 0.01
    }
    bias_filler {
      type: "constant"
    }
  }
}
layer {
  name: "relu1"
  type: "ReLU"
  bottom: "ip1"
  top: "ip1"
}
layer {
  name: "ip2"
  type: "InnerProduct"
  bottom: "ip1"
  top: "ip2"
  param {
    lr_mult: 1
  }
  param {
    lr_mult: 2
  }
  inner_product_param {
    num_output: 10
    weight_filler {
      type: "gaussian"
      std: 0.01
    }
    bias_filler {
      type: "constant"
    }
  }
}
layer {
  name: "relu2"
  type: "ReLU"
  bottom: "ip2"
  top: "ip2"
}
layer {
  name: "ip3"
  type: "InnerProduct"
  bottom: "ip2"
  top: "ip3"
  param {
    lr_mult: 1
  }
  param {
    lr_mult: 2
  }
  inner_product_param {
    num_output: 40
    weight_filler {
      type: "gaussian"
      std: 0.01
    }
    bias_filler {
      type: "constant"
    }
  }
}
layer {
  name: "relu3"
  type: "ReLU"
  bottom: "ip3"
  top: "ip3"
}
layer {
  name: "ip4"
  type: "InnerProduct"
  bottom: "ip3"
  top: "ip4"
  param {
    lr_mult: 1
  }
  param {
    lr_mult: 2
  }
  inner_product_param {
    num_output: 10
    weight_filler {
      type: "gaussian"
      std: 0.01
    }
    bias_filler {
      type: "constant"
    }
  }
}
layer {
  name: "loss"
  type: "SoftmaxWithLoss"
  bottom: "ip4"
  bottom: "label"
  top: "loss"
}
I0501 08:49:59.548467 12125 layer_factory.hpp:77] Creating layer cifar
I0501 08:49:59.548566 12125 db_lmdb.cpp:35] Opened lmdb examples/cifar10/cifar10_train_lmdb
I0501 08:49:59.548594 12125 net.cpp:86] Creating Layer cifar
I0501 08:49:59.548604 12125 net.cpp:382] cifar -> data
I0501 08:49:59.548626 12125 net.cpp:382] cifar -> label
I0501 08:49:59.548637 12125 data_transformer.cpp:25] Loading mean file from: examples/cifar10/mean.binaryproto
I0501 08:49:59.550830 12125 data_layer.cpp:45] output data size: 111,3,32,32
I0501 08:49:59.558825 12125 net.cpp:124] Setting up cifar
I0501 08:49:59.558845 12125 net.cpp:131] Top shape: 111 3 32 32 (340992)
I0501 08:49:59.558852 12125 net.cpp:131] Top shape: 111 (111)
I0501 08:49:59.558856 12125 net.cpp:139] Memory required for data: 1364412
I0501 08:49:59.558881 12125 layer_factory.hpp:77] Creating layer conv0
I0501 08:49:59.558898 12125 net.cpp:86] Creating Layer conv0
I0501 08:49:59.558904 12125 net.cpp:408] conv0 <- data
I0501 08:49:59.558917 12125 net.cpp:382] conv0 -> conv0
I0501 08:49:59.837504 12125 net.cpp:124] Setting up conv0
I0501 08:49:59.837532 12125 net.cpp:131] Top shape: 111 16 34 34 (2053056)
I0501 08:49:59.837537 12125 net.cpp:139] Memory required for data: 9576636
I0501 08:49:59.837550 12125 layer_factory.hpp:77] Creating layer Sigmoid0
I0501 08:49:59.837563 12125 net.cpp:86] Creating Layer Sigmoid0
I0501 08:49:59.837566 12125 net.cpp:408] Sigmoid0 <- conv0
I0501 08:49:59.837571 12125 net.cpp:382] Sigmoid0 -> Sigmoid0
I0501 08:49:59.837770 12125 net.cpp:124] Setting up Sigmoid0
I0501 08:49:59.837779 12125 net.cpp:131] Top shape: 111 16 34 34 (2053056)
I0501 08:49:59.837783 12125 net.cpp:139] Memory required for data: 17788860
I0501 08:49:59.837786 12125 layer_factory.hpp:77] Creating layer pool0
I0501 08:49:59.837792 12125 net.cpp:86] Creating Layer pool0
I0501 08:49:59.837795 12125 net.cpp:408] pool0 <- Sigmoid0
I0501 08:49:59.837800 12125 net.cpp:382] pool0 -> pool0
I0501 08:49:59.838506 12125 net.cpp:124] Setting up pool0
I0501 08:49:59.838518 12125 net.cpp:131] Top shape: 111 16 17 17 (513264)
I0501 08:49:59.838521 12125 net.cpp:139] Memory required for data: 19841916
I0501 08:49:59.838524 12125 layer_factory.hpp:77] Creating layer ip1
I0501 08:49:59.838533 12125 net.cpp:86] Creating Layer ip1
I0501 08:49:59.838536 12125 net.cpp:408] ip1 <- pool0
I0501 08:49:59.838541 12125 net.cpp:382] ip1 -> ip1
I0501 08:49:59.841059 12125 net.cpp:124] Setting up ip1
I0501 08:49:59.841068 12125 net.cpp:131] Top shape: 111 20 (2220)
I0501 08:49:59.841071 12125 net.cpp:139] Memory required for data: 19850796
I0501 08:49:59.841079 12125 layer_factory.hpp:77] Creating layer relu1
I0501 08:49:59.841085 12125 net.cpp:86] Creating Layer relu1
I0501 08:49:59.841089 12125 net.cpp:408] relu1 <- ip1
I0501 08:49:59.841109 12125 net.cpp:369] relu1 -> ip1 (in-place)
I0501 08:49:59.841295 12125 net.cpp:124] Setting up relu1
I0501 08:49:59.841302 12125 net.cpp:131] Top shape: 111 20 (2220)
I0501 08:49:59.841305 12125 net.cpp:139] Memory required for data: 19859676
I0501 08:49:59.841308 12125 layer_factory.hpp:77] Creating layer ip2
I0501 08:49:59.841315 12125 net.cpp:86] Creating Layer ip2
I0501 08:49:59.841317 12125 net.cpp:408] ip2 <- ip1
I0501 08:49:59.841321 12125 net.cpp:382] ip2 -> ip2
I0501 08:49:59.841410 12125 net.cpp:124] Setting up ip2
I0501 08:49:59.841418 12125 net.cpp:131] Top shape: 111 10 (1110)
I0501 08:49:59.841419 12125 net.cpp:139] Memory required for data: 19864116
I0501 08:49:59.841426 12125 layer_factory.hpp:77] Creating layer relu2
I0501 08:49:59.841430 12125 net.cpp:86] Creating Layer relu2
I0501 08:49:59.841434 12125 net.cpp:408] relu2 <- ip2
I0501 08:49:59.841437 12125 net.cpp:369] relu2 -> ip2 (in-place)
I0501 08:49:59.841569 12125 net.cpp:124] Setting up relu2
I0501 08:49:59.841576 12125 net.cpp:131] Top shape: 111 10 (1110)
I0501 08:49:59.841579 12125 net.cpp:139] Memory required for data: 19868556
I0501 08:49:59.841583 12125 layer_factory.hpp:77] Creating layer ip3
I0501 08:49:59.841589 12125 net.cpp:86] Creating Layer ip3
I0501 08:49:59.841591 12125 net.cpp:408] ip3 <- ip2
I0501 08:49:59.841596 12125 net.cpp:382] ip3 -> ip3
I0501 08:49:59.841691 12125 net.cpp:124] Setting up ip3
I0501 08:49:59.841696 12125 net.cpp:131] Top shape: 111 40 (4440)
I0501 08:49:59.841699 12125 net.cpp:139] Memory required for data: 19886316
I0501 08:49:59.841703 12125 layer_factory.hpp:77] Creating layer relu3
I0501 08:49:59.841708 12125 net.cpp:86] Creating Layer relu3
I0501 08:49:59.841711 12125 net.cpp:408] relu3 <- ip3
I0501 08:49:59.841716 12125 net.cpp:369] relu3 -> ip3 (in-place)
I0501 08:49:59.841841 12125 net.cpp:124] Setting up relu3
I0501 08:49:59.841850 12125 net.cpp:131] Top shape: 111 40 (4440)
I0501 08:49:59.841851 12125 net.cpp:139] Memory required for data: 19904076
I0501 08:49:59.841855 12125 layer_factory.hpp:77] Creating layer ip4
I0501 08:49:59.841873 12125 net.cpp:86] Creating Layer ip4
I0501 08:49:59.841877 12125 net.cpp:408] ip4 <- ip3
I0501 08:49:59.841881 12125 net.cpp:382] ip4 -> ip4
I0501 08:49:59.841989 12125 net.cpp:124] Setting up ip4
I0501 08:49:59.841996 12125 net.cpp:131] Top shape: 111 10 (1110)
I0501 08:49:59.842000 12125 net.cpp:139] Memory required for data: 19908516
I0501 08:49:59.842007 12125 layer_factory.hpp:77] Creating layer loss
I0501 08:49:59.842012 12125 net.cpp:86] Creating Layer loss
I0501 08:49:59.842015 12125 net.cpp:408] loss <- ip4
I0501 08:49:59.842018 12125 net.cpp:408] loss <- label
I0501 08:49:59.842023 12125 net.cpp:382] loss -> loss
I0501 08:49:59.842037 12125 layer_factory.hpp:77] Creating layer loss
…
I0501 08:49:59.843207 12125 solver.cpp:173] Creating test net (#0) specified by net file: ECE595/cifar/train_test/var_everything/cifar_train_test_522.prototxt
I0501 08:49:59.843235 12125 net.cpp:296] The NetState phase (1) differed from the phase (0) specified by a rule in layer cifar
I0501 08:49:59.843325 12125 net.cpp:53] Initializing net from parameters: 
name: "CIFAR"
state {
  phase: TEST
}
layer {
  name: "cifar"
  type: "Data"
  top: "data"
  top: "label"
  include {
    phase: TEST
  }
  transform_param {
    mean_file: "examples/cifar10/mean.binaryproto"
  }
  data_param {
    source: "examples/cifar10/cifar10_test_lmdb"
    batch_size: 1000
    backend: LMDB
  }
}
layer {
  name: "conv0"
  type: "Convolution"
  bottom: "data"
  top: "conv0"
  param {
    lr_mult: 1
  }
  param {
    lr_mult: 2
  }
  convolution_param {
    num_output: 16
    pad: 2
    kernel_size: 3
    stride: 1
    weight_filler {
      type: "gaussian"
      std: 0.01
    }
    bias_filler {
      type: "constant"
    }
  }
}
layer {
  name: "Sigmoid0"
  type: "Sigmoid"
  bottom: "conv0"
  top: "Sigmoid0"
}
layer {
  name: "pool0"
  type: "Pooling"
  bottom: "Sigmoid0"
  top: "pool0"
  pooling_param {
    pool: AVE
    kernel_size: 3
    stride: 2
  }
}
layer {
  name: "ip1"
  type: "InnerProduct"
  bottom: "pool0"
  top: "ip1"
  param {
    lr_mult: 1
  }
  param {
    lr_mult: 2
  }
  inner_product_param {
    num_output: 20
    weight_filler {
      type: "gaussian"
      std: 0.01
    }
    bias_filler {
      type: "constant"
    }
  }
}
layer {
  name: "relu1"
  type: "ReLU"
  bottom: "ip1"
  top: "ip1"
}
layer {
  name: "ip2"
  type: "InnerProduct"
  bottom: "ip1"
  top: "ip2"
  param {
    lr_mult: 1
  }
  param {
    lr_mult: 2
  }
  inner_product_param {
    num_output: 10
    weight_filler {
      type: "gaussian"
      std: 0.01
    }
    bias_filler {
      type: "constant"
    }
  }
}
layer {
  name: "relu2"
  type: "ReLU"
  bottom: "ip2"
  top: "ip2"
}
layer {
  name: "ip3"
  type: "InnerProduct"
  bottom: "ip2"
  top: "ip3"
  param {
    lr_mult: 1
  }
  param {
    lr_mult: 2
  }
  inner_product_param {
    num_output: 40
    weight_filler {
      type: "gaussian"
      std: 0.01
    }
    bias_filler {
      type: "constant"
    }
  }
}
layer {
  name: "relu3"
  type: "ReLU"
  bottom: "ip3"
  top: "ip3"
}
layer {
  name: "ip4"
  type: "InnerProduct"
  bottom: "ip3"
  top: "ip4"
  param {
    lr_mult: 1
  }
  param {
    lr_mult: 2
  }
  inner_product_param {
    num_output: 10
    weight_filler {
      type: "gaussian"
      std: 0.01
    }
    bias_filler {
      type: "constant"
    }
  }
}
layer {
  name: "accuracy"
  type: "Accuracy"
  bottom: "ip4"
  bottom: "label"
  top: "accuracy"
  include {
    phase: TEST
  }
}
layer {
  name: "loss"
  type: "SoftmaxWithLoss"
  bottom: "ip4"
  bottom: "label"
  top: "loss"
}
I0501 08:49:59.843415 12125 layer_factory.hpp:77] Creating layer cifar
I0501 08:49:59.843459 12125 db_lmdb.cpp:35] Opened lmdb examples/cifar10/cifar10_test_lmdb
I0501 08:49:59.843471 12125 net.cpp:86] Creating Layer cifar
I0501 08:49:59.843475 12125 net.cpp:382] cifar -> data
I0501 08:49:59.843482 12125 net.cpp:382] cifar -> label
I0501 08:49:59.843488 12125 data_transformer.cpp:25] Loading mean file from: examples/cifar10/mean.binaryproto
I0501 08:49:59.843616 12125 data_layer.cpp:45] output data size: 1000,3,32,32
I0501 08:49:59.865475 12125 net.cpp:124] Setting up cifar
I0501 08:49:59.865500 12125 net.cpp:131] Top shape: 1000 3 32 32 (3072000)
I0501 08:49:59.865507 12125 net.cpp:131] Top shape: 1000 (1000)
I0501 08:49:59.865510 12125 net.cpp:139] Memory required for data: 12292000
I0501 08:49:59.865516 12125 layer_factory.hpp:77] Creating layer label_cifar_1_split
I0501 08:49:59.865528 12125 net.cpp:86] Creating Layer label_cifar_1_split
I0501 08:49:59.865532 12125 net.cpp:408] label_cifar_1_split <- label
I0501 08:49:59.865537 12125 net.cpp:382] label_cifar_1_split -> label_cifar_1_split_0
I0501 08:49:59.865562 12125 net.cpp:382] label_cifar_1_split -> label_cifar_1_split_1
I0501 08:49:59.865614 12125 net.cpp:124] Setting up label_cifar_1_split
I0501 08:49:59.865619 12125 net.cpp:131] Top shape: 1000 (1000)
I0501 08:49:59.865622 12125 net.cpp:131] Top shape: 1000 (1000)
I0501 08:49:59.865631 12125 net.cpp:139] Memory required for data: 12300000
I0501 08:49:59.865633 12125 layer_factory.hpp:77] Creating layer conv0
I0501 08:49:59.865645 12125 net.cpp:86] Creating Layer conv0
I0501 08:49:59.865648 12125 net.cpp:408] conv0 <- data
I0501 08:49:59.865653 12125 net.cpp:382] conv0 -> conv0
I0501 08:49:59.867434 12125 net.cpp:124] Setting up conv0
I0501 08:49:59.867447 12125 net.cpp:131] Top shape: 1000 16 34 34 (18496000)
I0501 08:49:59.867451 12125 net.cpp:139] Memory required for data: 86284000
I0501 08:49:59.867475 12125 layer_factory.hpp:77] Creating layer Sigmoid0
I0501 08:49:59.867497 12125 net.cpp:86] Creating Layer Sigmoid0
I0501 08:49:59.867501 12125 net.cpp:408] Sigmoid0 <- conv0
I0501 08:49:59.867504 12125 net.cpp:382] Sigmoid0 -> Sigmoid0
I0501 08:49:59.867662 12125 net.cpp:124] Setting up Sigmoid0
I0501 08:49:59.867671 12125 net.cpp:131] Top shape: 1000 16 34 34 (18496000)
I0501 08:49:59.867674 12125 net.cpp:139] Memory required for data: 160268000
I0501 08:49:59.867677 12125 layer_factory.hpp:77] Creating layer pool0
I0501 08:49:59.867684 12125 net.cpp:86] Creating Layer pool0
I0501 08:49:59.867687 12125 net.cpp:408] pool0 <- Sigmoid0
I0501 08:49:59.867691 12125 net.cpp:382] pool0 -> pool0
I0501 08:49:59.867835 12125 net.cpp:124] Setting up pool0
I0501 08:49:59.867843 12125 net.cpp:131] Top shape: 1000 16 17 17 (4624000)
I0501 08:49:59.867846 12125 net.cpp:139] Memory required for data: 178764000
I0501 08:49:59.867848 12125 layer_factory.hpp:77] Creating layer ip1
I0501 08:49:59.867856 12125 net.cpp:86] Creating Layer ip1
I0501 08:49:59.867858 12125 net.cpp:408] ip1 <- pool0
I0501 08:49:59.867863 12125 net.cpp:382] ip1 -> ip1
I0501 08:49:59.870357 12125 net.cpp:124] Setting up ip1
I0501 08:49:59.870367 12125 net.cpp:131] Top shape: 1000 20 (20000)
I0501 08:49:59.870369 12125 net.cpp:139] Memory required for data: 178844000
I0501 08:49:59.870391 12125 layer_factory.hpp:77] Creating layer relu1
I0501 08:49:59.870412 12125 net.cpp:86] Creating Layer relu1
I0501 08:49:59.870415 12125 net.cpp:408] relu1 <- ip1
I0501 08:49:59.870436 12125 net.cpp:369] relu1 -> ip1 (in-place)
I0501 08:49:59.870586 12125 net.cpp:124] Setting up relu1
I0501 08:49:59.870594 12125 net.cpp:131] Top shape: 1000 20 (20000)
I0501 08:49:59.870599 12125 net.cpp:139] Memory required for data: 178924000
I0501 08:49:59.870601 12125 layer_factory.hpp:77] Creating layer ip2
I0501 08:49:59.870607 12125 net.cpp:86] Creating Layer ip2
I0501 08:49:59.870610 12125 net.cpp:408] ip2 <- ip1
I0501 08:49:59.870615 12125 net.cpp:382] ip2 -> ip2
I0501 08:49:59.870717 12125 net.cpp:124] Setting up ip2
I0501 08:49:59.870738 12125 net.cpp:131] Top shape: 1000 10 (10000)
I0501 08:49:59.870741 12125 net.cpp:139] Memory required for data: 178964000
I0501 08:49:59.870748 12125 layer_factory.hpp:77] Creating layer relu2
I0501 08:49:59.870754 12125 net.cpp:86] Creating Layer relu2
I0501 08:49:59.870757 12125 net.cpp:408] relu2 <- ip2
I0501 08:49:59.870760 12125 net.cpp:369] relu2 -> ip2 (in-place)
I0501 08:49:59.871480 12125 net.cpp:124] Setting up relu2
I0501 08:49:59.871493 12125 net.cpp:131] Top shape: 1000 10 (10000)
I0501 08:49:59.871496 12125 net.cpp:139] Memory required for data: 179004000
I0501 08:49:59.871500 12125 layer_factory.hpp:77] Creating layer ip3
I0501 08:49:59.871506 12125 net.cpp:86] Creating Layer ip3
I0501 08:49:59.871510 12125 net.cpp:408] ip3 <- ip2
I0501 08:49:59.871531 12125 net.cpp:382] ip3 -> ip3
I0501 08:49:59.871644 12125 net.cpp:124] Setting up ip3
I0501 08:49:59.871651 12125 net.cpp:131] Top shape: 1000 40 (40000)
I0501 08:49:59.871655 12125 net.cpp:139] Memory required for data: 179164000
I0501 08:49:59.871660 12125 layer_factory.hpp:77] Creating layer relu3
I0501 08:49:59.871665 12125 net.cpp:86] Creating Layer relu3
I0501 08:49:59.871668 12125 net.cpp:408] relu3 <- ip3
I0501 08:49:59.871672 12125 net.cpp:369] relu3 -> ip3 (in-place)
I0501 08:49:59.871840 12125 net.cpp:124] Setting up relu3
I0501 08:49:59.871848 12125 net.cpp:131] Top shape: 1000 40 (40000)
I0501 08:49:59.871851 12125 net.cpp:139] Memory required for data: 179324000
I0501 08:49:59.871855 12125 layer_factory.hpp:77] Creating layer ip4
I0501 08:49:59.871860 12125 net.cpp:86] Creating Layer ip4
I0501 08:49:59.871862 12125 net.cpp:408] ip4 <- ip3
I0501 08:49:59.871867 12125 net.cpp:382] ip4 -> ip4
I0501 08:49:59.871964 12125 net.cpp:124] Setting up ip4
I0501 08:49:59.871970 12125 net.cpp:131] Top shape: 1000 10 (10000)
I0501 08:49:59.871974 12125 net.cpp:139] Memory required for data: 179364000
I0501 08:49:59.871981 12125 layer_factory.hpp:77] Creating layer ip4_ip4_0_split
I0501 08:49:59.871985 12125 net.cpp:86] Creating Layer ip4_ip4_0_split
I0501 08:49:59.871989 12125 net.cpp:408] ip4_ip4_0_split <- ip4
I0501 08:49:59.871992 12125 net.cpp:382] ip4_ip4_0_split -> ip4_ip4_0_split_0
I0501 08:49:59.871999 12125 net.cpp:382] ip4_ip4_0_split -> ip4_ip4_0_split_1
I0501 08:49:59.872025 12125 net.cpp:124] Setting up ip4_ip4_0_split
I0501 08:49:59.872030 12125 net.cpp:131] Top shape: 1000 10 (10000)
I0501 08:49:59.872032 12125 net.cpp:131] Top shape: 1000 10 (10000)
I0501 08:49:59.872035 12125 net.cpp:139] Memory required for data: 179444000
I0501 08:49:59.872046 12125 layer_factory.hpp:77] Creating layer accuracy
I0501 08:49:59.872052 12125 net.cpp:86] Creating Layer accuracy
I0501 08:49:59.872056 12125 net.cpp:408] accuracy <- ip4_ip4_0_split_0
I0501 08:49:59.872058 12125 net.cpp:408] accuracy <- label_cifar_1_split_0
I0501 08:49:59.872063 12125 net.cpp:382] accuracy -> accuracy
…
