…
I0430 22:50:03.799360  3449 net.cpp:296] The NetState phase (0) differed from the phase (1) specified by a rule in layer cifar
I0430 22:50:03.799378  3449 net.cpp:296] The NetState phase (0) differed from the phase (1) specified by a rule in layer accuracy
I0430 22:50:03.799481  3449 net.cpp:53] Initializing net from parameters: 
name: "CIFAR"
state {
  phase: TRAIN
  level: 0
  stage: ""
}
layer {
  name: "cifar"
  type: "Data"
  top: "data"
  top: "label"
  include {
    phase: TRAIN
  }
  transform_param {
    mean_file: "examples/cifar10/mean.binaryproto"
  }
  data_param {
    source: "examples/cifar10/cifar10_train_lmdb"
    batch_size: 111
    backend: LMDB
  }
}
layer {
  name: "conv0"
  type: "Convolution"
  bottom: "data"
  top: "conv0"
  param {
    lr_mult: 1
  }
  param {
    lr_mult: 2
  }
  convolution_param {
    num_output: 8
    pad: 2
    kernel_size: 3
    stride: 1
    weight_filler {
      type: "gaussian"
      std: 0.01
    }
    bias_filler {
      type: "constant"
    }
  }
}
layer {
  name: "Sigmoid0"
  type: "Sigmoid"
  bottom: "conv0"
  top: "Sigmoid0"
}
layer {
  name: "pool0"
  type: "Pooling"
  bottom: "Sigmoid0"
  top: "pool0"
  pooling_param {
    pool: AVE
    kernel_size: 3
    stride: 2
  }
}
layer {
  name: "ip1"
  type: "InnerProduct"
  bottom: "pool0"
  top: "ip1"
  param {
    lr_mult: 1
  }
  param {
    lr_mult: 2
  }
  inner_product_param {
    num_output: 10
    weight_filler {
      type: "gaussian"
      std: 0.01
    }
    bias_filler {
      type: "constant"
    }
  }
}
layer {
  name: "relu1"
  type: "ReLU"
  bottom: "ip1"
  top: "ip1"
}
layer {
  name: "ip2"
  type: "InnerProduct"
  bottom: "ip1"
  top: "ip2"
  param {
    lr_mult: 1
  }
  param {
    lr_mult: 2
  }
  inner_product_param {
    num_output: 160
    weight_filler {
      type: "gaussian"
      std: 0.01
    }
    bias_filler {
      type: "constant"
    }
  }
}
layer {
  name: "relu2"
  type: "ReLU"
  bottom: "ip2"
  top: "ip2"
}
layer {
  name: "ip3"
  type: "InnerProduct"
  bottom: "ip2"
  top: "ip3"
  param {
    lr_mult: 1
  }
  param {
    lr_mult: 2
  }
  inner_product_param {
    num_output: 20
    weight_filler {
      type: "gaussian"
      std: 0.01
    }
    bias_filler {
      type: "constant"
    }
  }
}
layer {
  name: "relu3"
  type: "ReLU"
  bottom: "ip3"
  top: "ip3"
}
layer {
  name: "ip4"
  type: "InnerProduct"
  bottom: "ip3"
  top: "ip4"
  param {
    lr_mult: 1
  }
  param {
    lr_mult: 2
  }
  inner_product_param {
    num_output: 10
    weight_filler {
      type: "gaussian"
      std: 0.01
    }
    bias_filler {
      type: "constant"
    }
  }
}
layer {
  name: "loss"
  type: "SoftmaxWithLoss"
  bottom: "ip4"
  bottom: "label"
  top: "loss"
}
I0430 22:50:03.799558  3449 layer_factory.hpp:77] Creating layer cifar
I0430 22:50:03.799654  3449 db_lmdb.cpp:35] Opened lmdb examples/cifar10/cifar10_train_lmdb
I0430 22:50:03.799679  3449 net.cpp:86] Creating Layer cifar
I0430 22:50:03.799688  3449 net.cpp:382] cifar -> data
I0430 22:50:03.799710  3449 net.cpp:382] cifar -> label
I0430 22:50:03.799721  3449 data_transformer.cpp:25] Loading mean file from: examples/cifar10/mean.binaryproto
I0430 22:50:03.801826  3449 data_layer.cpp:45] output data size: 111,3,32,32
I0430 22:50:03.809907  3449 net.cpp:124] Setting up cifar
I0430 22:50:03.809927  3449 net.cpp:131] Top shape: 111 3 32 32 (340992)
I0430 22:50:03.809933  3449 net.cpp:131] Top shape: 111 (111)
I0430 22:50:03.809937  3449 net.cpp:139] Memory required for data: 1364412
I0430 22:50:03.809959  3449 layer_factory.hpp:77] Creating layer conv0
I0430 22:50:03.809979  3449 net.cpp:86] Creating Layer conv0
I0430 22:50:03.809985  3449 net.cpp:408] conv0 <- data
I0430 22:50:03.810001  3449 net.cpp:382] conv0 -> conv0
I0430 22:50:04.095679  3449 net.cpp:124] Setting up conv0
I0430 22:50:04.095708  3449 net.cpp:131] Top shape: 111 8 34 34 (1026528)
I0430 22:50:04.095713  3449 net.cpp:139] Memory required for data: 5470524
I0430 22:50:04.095728  3449 layer_factory.hpp:77] Creating layer Sigmoid0
I0430 22:50:04.095741  3449 net.cpp:86] Creating Layer Sigmoid0
I0430 22:50:04.095746  3449 net.cpp:408] Sigmoid0 <- conv0
I0430 22:50:04.095751  3449 net.cpp:382] Sigmoid0 -> Sigmoid0
I0430 22:50:04.095932  3449 net.cpp:124] Setting up Sigmoid0
I0430 22:50:04.095942  3449 net.cpp:131] Top shape: 111 8 34 34 (1026528)
I0430 22:50:04.095945  3449 net.cpp:139] Memory required for data: 9576636
I0430 22:50:04.095949  3449 layer_factory.hpp:77] Creating layer pool0
I0430 22:50:04.095957  3449 net.cpp:86] Creating Layer pool0
I0430 22:50:04.095959  3449 net.cpp:408] pool0 <- Sigmoid0
I0430 22:50:04.095964  3449 net.cpp:382] pool0 -> pool0
I0430 22:50:04.096740  3449 net.cpp:124] Setting up pool0
I0430 22:50:04.096755  3449 net.cpp:131] Top shape: 111 8 17 17 (256632)
I0430 22:50:04.096757  3449 net.cpp:139] Memory required for data: 10603164
I0430 22:50:04.096761  3449 layer_factory.hpp:77] Creating layer ip1
I0430 22:50:04.096776  3449 net.cpp:86] Creating Layer ip1
I0430 22:50:04.096778  3449 net.cpp:408] ip1 <- pool0
I0430 22:50:04.096784  3449 net.cpp:382] ip1 -> ip1
I0430 22:50:04.098399  3449 net.cpp:124] Setting up ip1
I0430 22:50:04.098412  3449 net.cpp:131] Top shape: 111 10 (1110)
I0430 22:50:04.098417  3449 net.cpp:139] Memory required for data: 10607604
I0430 22:50:04.098425  3449 layer_factory.hpp:77] Creating layer relu1
I0430 22:50:04.098431  3449 net.cpp:86] Creating Layer relu1
I0430 22:50:04.098434  3449 net.cpp:408] relu1 <- ip1
I0430 22:50:04.098439  3449 net.cpp:369] relu1 -> ip1 (in-place)
I0430 22:50:04.098603  3449 net.cpp:124] Setting up relu1
I0430 22:50:04.098611  3449 net.cpp:131] Top shape: 111 10 (1110)
I0430 22:50:04.098614  3449 net.cpp:139] Memory required for data: 10612044
I0430 22:50:04.098618  3449 layer_factory.hpp:77] Creating layer ip2
I0430 22:50:04.098624  3449 net.cpp:86] Creating Layer ip2
I0430 22:50:04.098628  3449 net.cpp:408] ip2 <- ip1
I0430 22:50:04.098633  3449 net.cpp:382] ip2 -> ip2
I0430 22:50:04.098779  3449 net.cpp:124] Setting up ip2
I0430 22:50:04.098786  3449 net.cpp:131] Top shape: 111 160 (17760)
I0430 22:50:04.098789  3449 net.cpp:139] Memory required for data: 10683084
I0430 22:50:04.098798  3449 layer_factory.hpp:77] Creating layer relu2
I0430 22:50:04.098804  3449 net.cpp:86] Creating Layer relu2
I0430 22:50:04.098808  3449 net.cpp:408] relu2 <- ip2
I0430 22:50:04.098811  3449 net.cpp:369] relu2 -> ip2 (in-place)
I0430 22:50:04.098984  3449 net.cpp:124] Setting up relu2
I0430 22:50:04.098992  3449 net.cpp:131] Top shape: 111 160 (17760)
I0430 22:50:04.098995  3449 net.cpp:139] Memory required for data: 10754124
I0430 22:50:04.098999  3449 layer_factory.hpp:77] Creating layer ip3
I0430 22:50:04.099007  3449 net.cpp:86] Creating Layer ip3
I0430 22:50:04.099010  3449 net.cpp:408] ip3 <- ip2
I0430 22:50:04.099016  3449 net.cpp:382] ip3 -> ip3
I0430 22:50:04.099210  3449 net.cpp:124] Setting up ip3
I0430 22:50:04.099216  3449 net.cpp:131] Top shape: 111 20 (2220)
I0430 22:50:04.099220  3449 net.cpp:139] Memory required for data: 10763004
I0430 22:50:04.099225  3449 layer_factory.hpp:77] Creating layer relu3
I0430 22:50:04.099231  3449 net.cpp:86] Creating Layer relu3
I0430 22:50:04.099233  3449 net.cpp:408] relu3 <- ip3
I0430 22:50:04.099237  3449 net.cpp:369] relu3 -> ip3 (in-place)
I0430 22:50:04.099395  3449 net.cpp:124] Setting up relu3
I0430 22:50:04.099403  3449 net.cpp:131] Top shape: 111 20 (2220)
I0430 22:50:04.099406  3449 net.cpp:139] Memory required for data: 10771884
I0430 22:50:04.099409  3449 layer_factory.hpp:77] Creating layer ip4
I0430 22:50:04.099431  3449 net.cpp:86] Creating Layer ip4
I0430 22:50:04.099433  3449 net.cpp:408] ip4 <- ip3
I0430 22:50:04.099439  3449 net.cpp:382] ip4 -> ip4
I0430 22:50:04.099545  3449 net.cpp:124] Setting up ip4
I0430 22:50:04.099553  3449 net.cpp:131] Top shape: 111 10 (1110)
I0430 22:50:04.099556  3449 net.cpp:139] Memory required for data: 10776324
I0430 22:50:04.099563  3449 layer_factory.hpp:77] Creating layer loss
I0430 22:50:04.099570  3449 net.cpp:86] Creating Layer loss
I0430 22:50:04.099572  3449 net.cpp:408] loss <- ip4
I0430 22:50:04.099576  3449 net.cpp:408] loss <- label
I0430 22:50:04.099582  3449 net.cpp:382] loss -> loss
I0430 22:50:04.099598  3449 layer_factory.hpp:77] Creating layer loss
…
I0430 22:50:04.100860  3449 solver.cpp:173] Creating test net (#0) specified by net file: ECE595/cifar/train_test/var_everything/cifar_train_test_206.prototxt
I0430 22:50:04.100889  3449 net.cpp:296] The NetState phase (1) differed from the phase (0) specified by a rule in layer cifar
I0430 22:50:04.100992  3449 net.cpp:53] Initializing net from parameters: 
name: "CIFAR"
state {
  phase: TEST
}
layer {
  name: "cifar"
  type: "Data"
  top: "data"
  top: "label"
  include {
    phase: TEST
  }
  transform_param {
    mean_file: "examples/cifar10/mean.binaryproto"
  }
  data_param {
    source: "examples/cifar10/cifar10_test_lmdb"
    batch_size: 1000
    backend: LMDB
  }
}
layer {
  name: "conv0"
  type: "Convolution"
  bottom: "data"
  top: "conv0"
  param {
    lr_mult: 1
  }
  param {
    lr_mult: 2
  }
  convolution_param {
    num_output: 8
    pad: 2
    kernel_size: 3
    stride: 1
    weight_filler {
      type: "gaussian"
      std: 0.01
    }
    bias_filler {
      type: "constant"
    }
  }
}
layer {
  name: "Sigmoid0"
  type: "Sigmoid"
  bottom: "conv0"
  top: "Sigmoid0"
}
layer {
  name: "pool0"
  type: "Pooling"
  bottom: "Sigmoid0"
  top: "pool0"
  pooling_param {
    pool: AVE
    kernel_size: 3
    stride: 2
  }
}
layer {
  name: "ip1"
  type: "InnerProduct"
  bottom: "pool0"
  top: "ip1"
  param {
    lr_mult: 1
  }
  param {
    lr_mult: 2
  }
  inner_product_param {
    num_output: 10
    weight_filler {
      type: "gaussian"
      std: 0.01
    }
    bias_filler {
      type: "constant"
    }
  }
}
layer {
  name: "relu1"
  type: "ReLU"
  bottom: "ip1"
  top: "ip1"
}
layer {
  name: "ip2"
  type: "InnerProduct"
  bottom: "ip1"
  top: "ip2"
  param {
    lr_mult: 1
  }
  param {
    lr_mult: 2
  }
  inner_product_param {
    num_output: 160
    weight_filler {
      type: "gaussian"
      std: 0.01
    }
    bias_filler {
      type: "constant"
    }
  }
}
layer {
  name: "relu2"
  type: "ReLU"
  bottom: "ip2"
  top: "ip2"
}
layer {
  name: "ip3"
  type: "InnerProduct"
  bottom: "ip2"
  top: "ip3"
  param {
    lr_mult: 1
  }
  param {
    lr_mult: 2
  }
  inner_product_param {
    num_output: 20
    weight_filler {
      type: "gaussian"
      std: 0.01
    }
    bias_filler {
      type: "constant"
    }
  }
}
layer {
  name: "relu3"
  type: "ReLU"
  bottom: "ip3"
  top: "ip3"
}
layer {
  name: "ip4"
  type: "InnerProduct"
  bottom: "ip3"
  top: "ip4"
  param {
    lr_mult: 1
  }
  param {
    lr_mult: 2
  }
  inner_product_param {
    num_output: 10
    weight_filler {
      type: "gaussian"
      std: 0.01
    }
    bias_filler {
      type: "constant"
    }
  }
}
layer {
  name: "accuracy"
  type: "Accuracy"
  bottom: "ip4"
  bottom: "label"
  top: "accuracy"
  include {
    phase: TEST
  }
}
layer {
  name: "loss"
  type: "SoftmaxWithLoss"
  bottom: "ip4"
  bottom: "label"
  top: "loss"
}
I0430 22:50:04.101078  3449 layer_factory.hpp:77] Creating layer cifar
I0430 22:50:04.101122  3449 db_lmdb.cpp:35] Opened lmdb examples/cifar10/cifar10_test_lmdb
I0430 22:50:04.101135  3449 net.cpp:86] Creating Layer cifar
I0430 22:50:04.101140  3449 net.cpp:382] cifar -> data
I0430 22:50:04.101148  3449 net.cpp:382] cifar -> label
I0430 22:50:04.101155  3449 data_transformer.cpp:25] Loading mean file from: examples/cifar10/mean.binaryproto
I0430 22:50:04.101316  3449 data_layer.cpp:45] output data size: 1000,3,32,32
I0430 22:50:04.124181  3449 net.cpp:124] Setting up cifar
I0430 22:50:04.124207  3449 net.cpp:131] Top shape: 1000 3 32 32 (3072000)
I0430 22:50:04.124212  3449 net.cpp:131] Top shape: 1000 (1000)
I0430 22:50:04.124215  3449 net.cpp:139] Memory required for data: 12292000
I0430 22:50:04.124220  3449 layer_factory.hpp:77] Creating layer label_cifar_1_split
I0430 22:50:04.124249  3449 net.cpp:86] Creating Layer label_cifar_1_split
I0430 22:50:04.124254  3449 net.cpp:408] label_cifar_1_split <- label
I0430 22:50:04.124260  3449 net.cpp:382] label_cifar_1_split -> label_cifar_1_split_0
I0430 22:50:04.124285  3449 net.cpp:382] label_cifar_1_split -> label_cifar_1_split_1
I0430 22:50:04.124374  3449 net.cpp:124] Setting up label_cifar_1_split
I0430 22:50:04.124382  3449 net.cpp:131] Top shape: 1000 (1000)
I0430 22:50:04.124385  3449 net.cpp:131] Top shape: 1000 (1000)
I0430 22:50:04.124388  3449 net.cpp:139] Memory required for data: 12300000
I0430 22:50:04.124392  3449 layer_factory.hpp:77] Creating layer conv0
I0430 22:50:04.124403  3449 net.cpp:86] Creating Layer conv0
I0430 22:50:04.124406  3449 net.cpp:408] conv0 <- data
I0430 22:50:04.124413  3449 net.cpp:382] conv0 -> conv0
I0430 22:50:04.126137  3449 net.cpp:124] Setting up conv0
I0430 22:50:04.126153  3449 net.cpp:131] Top shape: 1000 8 34 34 (9248000)
I0430 22:50:04.126157  3449 net.cpp:139] Memory required for data: 49292000
I0430 22:50:04.126183  3449 layer_factory.hpp:77] Creating layer Sigmoid0
I0430 22:50:04.126189  3449 net.cpp:86] Creating Layer Sigmoid0
I0430 22:50:04.126193  3449 net.cpp:408] Sigmoid0 <- conv0
I0430 22:50:04.126199  3449 net.cpp:382] Sigmoid0 -> Sigmoid0
I0430 22:50:04.126442  3449 net.cpp:124] Setting up Sigmoid0
I0430 22:50:04.126451  3449 net.cpp:131] Top shape: 1000 8 34 34 (9248000)
I0430 22:50:04.126454  3449 net.cpp:139] Memory required for data: 86284000
I0430 22:50:04.126458  3449 layer_factory.hpp:77] Creating layer pool0
I0430 22:50:04.126467  3449 net.cpp:86] Creating Layer pool0
I0430 22:50:04.126471  3449 net.cpp:408] pool0 <- Sigmoid0
I0430 22:50:04.126477  3449 net.cpp:382] pool0 -> pool0
I0430 22:50:04.126740  3449 net.cpp:124] Setting up pool0
I0430 22:50:04.126749  3449 net.cpp:131] Top shape: 1000 8 17 17 (2312000)
I0430 22:50:04.126752  3449 net.cpp:139] Memory required for data: 95532000
I0430 22:50:04.126755  3449 layer_factory.hpp:77] Creating layer ip1
I0430 22:50:04.126765  3449 net.cpp:86] Creating Layer ip1
I0430 22:50:04.126768  3449 net.cpp:408] ip1 <- pool0
I0430 22:50:04.126775  3449 net.cpp:382] ip1 -> ip1
I0430 22:50:04.128437  3449 net.cpp:124] Setting up ip1
I0430 22:50:04.128448  3449 net.cpp:131] Top shape: 1000 10 (10000)
I0430 22:50:04.128466  3449 net.cpp:139] Memory required for data: 95572000
I0430 22:50:04.128489  3449 layer_factory.hpp:77] Creating layer relu1
I0430 22:50:04.128494  3449 net.cpp:86] Creating Layer relu1
I0430 22:50:04.128497  3449 net.cpp:408] relu1 <- ip1
I0430 22:50:04.128517  3449 net.cpp:369] relu1 -> ip1 (in-place)
I0430 22:50:04.128701  3449 net.cpp:124] Setting up relu1
I0430 22:50:04.128711  3449 net.cpp:131] Top shape: 1000 10 (10000)
I0430 22:50:04.128715  3449 net.cpp:139] Memory required for data: 95612000
I0430 22:50:04.128718  3449 layer_factory.hpp:77] Creating layer ip2
I0430 22:50:04.128726  3449 net.cpp:86] Creating Layer ip2
I0430 22:50:04.128728  3449 net.cpp:408] ip2 <- ip1
I0430 22:50:04.128733  3449 net.cpp:382] ip2 -> ip2
I0430 22:50:04.128914  3449 net.cpp:124] Setting up ip2
I0430 22:50:04.128922  3449 net.cpp:131] Top shape: 1000 160 (160000)
I0430 22:50:04.128926  3449 net.cpp:139] Memory required for data: 96252000
I0430 22:50:04.128933  3449 layer_factory.hpp:77] Creating layer relu2
I0430 22:50:04.128939  3449 net.cpp:86] Creating Layer relu2
I0430 22:50:04.128942  3449 net.cpp:408] relu2 <- ip2
I0430 22:50:04.128948  3449 net.cpp:369] relu2 -> ip2 (in-place)
I0430 22:50:04.129762  3449 net.cpp:124] Setting up relu2
I0430 22:50:04.129775  3449 net.cpp:131] Top shape: 1000 160 (160000)
I0430 22:50:04.129792  3449 net.cpp:139] Memory required for data: 96892000
I0430 22:50:04.129796  3449 layer_factory.hpp:77] Creating layer ip3
I0430 22:50:04.129803  3449 net.cpp:86] Creating Layer ip3
I0430 22:50:04.129807  3449 net.cpp:408] ip3 <- ip2
I0430 22:50:04.129813  3449 net.cpp:382] ip3 -> ip3
I0430 22:50:04.130024  3449 net.cpp:124] Setting up ip3
I0430 22:50:04.130033  3449 net.cpp:131] Top shape: 1000 20 (20000)
I0430 22:50:04.130035  3449 net.cpp:139] Memory required for data: 96972000
I0430 22:50:04.130041  3449 layer_factory.hpp:77] Creating layer relu3
I0430 22:50:04.130046  3449 net.cpp:86] Creating Layer relu3
I0430 22:50:04.130049  3449 net.cpp:408] relu3 <- ip3
I0430 22:50:04.130054  3449 net.cpp:369] relu3 -> ip3 (in-place)
I0430 22:50:04.130209  3449 net.cpp:124] Setting up relu3
I0430 22:50:04.130218  3449 net.cpp:131] Top shape: 1000 20 (20000)
I0430 22:50:04.130220  3449 net.cpp:139] Memory required for data: 97052000
I0430 22:50:04.130223  3449 layer_factory.hpp:77] Creating layer ip4
I0430 22:50:04.130231  3449 net.cpp:86] Creating Layer ip4
I0430 22:50:04.130234  3449 net.cpp:408] ip4 <- ip3
I0430 22:50:04.130239  3449 net.cpp:382] ip4 -> ip4
I0430 22:50:04.130348  3449 net.cpp:124] Setting up ip4
I0430 22:50:04.130364  3449 net.cpp:131] Top shape: 1000 10 (10000)
I0430 22:50:04.130367  3449 net.cpp:139] Memory required for data: 97092000
I0430 22:50:04.130375  3449 layer_factory.hpp:77] Creating layer ip4_ip4_0_split
I0430 22:50:04.130383  3449 net.cpp:86] Creating Layer ip4_ip4_0_split
I0430 22:50:04.130385  3449 net.cpp:408] ip4_ip4_0_split <- ip4
I0430 22:50:04.130389  3449 net.cpp:382] ip4_ip4_0_split -> ip4_ip4_0_split_0
I0430 22:50:04.130394  3449 net.cpp:382] ip4_ip4_0_split -> ip4_ip4_0_split_1
I0430 22:50:04.130427  3449 net.cpp:124] Setting up ip4_ip4_0_split
I0430 22:50:04.130436  3449 net.cpp:131] Top shape: 1000 10 (10000)
I0430 22:50:04.130440  3449 net.cpp:131] Top shape: 1000 10 (10000)
I0430 22:50:04.130450  3449 net.cpp:139] Memory required for data: 97172000
I0430 22:50:04.130452  3449 layer_factory.hpp:77] Creating layer accuracy
I0430 22:50:04.130457  3449 net.cpp:86] Creating Layer accuracy
I0430 22:50:04.130460  3449 net.cpp:408] accuracy <- ip4_ip4_0_split_0
I0430 22:50:04.130480  3449 net.cpp:408] accuracy <- label_cifar_1_split_0
I0430 22:50:04.130486  3449 net.cpp:382] accuracy -> accuracy
…
