…
I0501 08:37:06.702823 11363 net.cpp:296] The NetState phase (0) differed from the phase (1) specified by a rule in layer cifar
I0501 08:37:06.702854 11363 net.cpp:296] The NetState phase (0) differed from the phase (1) specified by a rule in layer accuracy
I0501 08:37:06.703002 11363 net.cpp:53] Initializing net from parameters: 
name: "CIFAR"
state {
  phase: TRAIN
  level: 0
  stage: ""
}
layer {
  name: "cifar"
  type: "Data"
  top: "data"
  top: "label"
  include {
    phase: TRAIN
  }
  transform_param {
    mean_file: "examples/cifar10/mean.binaryproto"
  }
  data_param {
    source: "examples/cifar10/cifar10_train_lmdb"
    batch_size: 111
    backend: LMDB
  }
}
layer {
  name: "conv0"
  type: "Convolution"
  bottom: "data"
  top: "conv0"
  param {
    lr_mult: 1
  }
  param {
    lr_mult: 2
  }
  convolution_param {
    num_output: 16
    pad: 2
    kernel_size: 3
    stride: 1
    weight_filler {
      type: "gaussian"
      std: 0.01
    }
    bias_filler {
      type: "constant"
    }
  }
}
layer {
  name: "Sigmoid0"
  type: "Sigmoid"
  bottom: "conv0"
  top: "Sigmoid0"
}
layer {
  name: "pool0"
  type: "Pooling"
  bottom: "Sigmoid0"
  top: "pool0"
  pooling_param {
    pool: AVE
    kernel_size: 3
    stride: 2
  }
}
layer {
  name: "ip1"
  type: "InnerProduct"
  bottom: "pool0"
  top: "ip1"
  param {
    lr_mult: 1
  }
  param {
    lr_mult: 2
  }
  inner_product_param {
    num_output: 10
    weight_filler {
      type: "gaussian"
      std: 0.01
    }
    bias_filler {
      type: "constant"
    }
  }
}
layer {
  name: "relu1"
  type: "ReLU"
  bottom: "ip1"
  top: "ip1"
}
layer {
  name: "ip2"
  type: "InnerProduct"
  bottom: "ip1"
  top: "ip2"
  param {
    lr_mult: 1
  }
  param {
    lr_mult: 2
  }
  inner_product_param {
    num_output: 160
    weight_filler {
      type: "gaussian"
      std: 0.01
    }
    bias_filler {
      type: "constant"
    }
  }
}
layer {
  name: "relu2"
  type: "ReLU"
  bottom: "ip2"
  top: "ip2"
}
layer {
  name: "ip3"
  type: "InnerProduct"
  bottom: "ip2"
  top: "ip3"
  param {
    lr_mult: 1
  }
  param {
    lr_mult: 2
  }
  inner_product_param {
    num_output: 20
    weight_filler {
      type: "gaussian"
      std: 0.01
    }
    bias_filler {
      type: "constant"
    }
  }
}
layer {
  name: "relu3"
  type: "ReLU"
  bottom: "ip3"
  top: "ip3"
}
layer {
  name: "ip4"
  type: "InnerProduct"
  bottom: "ip3"
  top: "ip4"
  param {
    lr_mult: 1
  }
  param {
    lr_mult: 2
  }
  inner_product_param {
    num_output: 10
    weight_filler {
      type: "gaussian"
      std: 0.01
    }
    bias_filler {
      type: "constant"
    }
  }
}
layer {
  name: "loss"
  type: "SoftmaxWithLoss"
  bottom: "ip4"
  bottom: "label"
  top: "loss"
}
I0501 08:37:06.703110 11363 layer_factory.hpp:77] Creating layer cifar
I0501 08:37:06.703238 11363 db_lmdb.cpp:35] Opened lmdb examples/cifar10/cifar10_train_lmdb
I0501 08:37:06.703271 11363 net.cpp:86] Creating Layer cifar
I0501 08:37:06.703285 11363 net.cpp:382] cifar -> data
I0501 08:37:06.703313 11363 net.cpp:382] cifar -> label
I0501 08:37:06.703330 11363 data_transformer.cpp:25] Loading mean file from: examples/cifar10/mean.binaryproto
I0501 08:37:06.706113 11363 data_layer.cpp:45] output data size: 111,3,32,32
I0501 08:37:06.716400 11363 net.cpp:124] Setting up cifar
I0501 08:37:06.716424 11363 net.cpp:131] Top shape: 111 3 32 32 (340992)
I0501 08:37:06.716435 11363 net.cpp:131] Top shape: 111 (111)
I0501 08:37:06.716440 11363 net.cpp:139] Memory required for data: 1364412
I0501 08:37:06.716470 11363 layer_factory.hpp:77] Creating layer conv0
I0501 08:37:06.716492 11363 net.cpp:86] Creating Layer conv0
I0501 08:37:06.716500 11363 net.cpp:408] conv0 <- data
I0501 08:37:06.716517 11363 net.cpp:382] conv0 -> conv0
I0501 08:37:07.030643 11363 net.cpp:124] Setting up conv0
I0501 08:37:07.030683 11363 net.cpp:131] Top shape: 111 16 34 34 (2053056)
I0501 08:37:07.030691 11363 net.cpp:139] Memory required for data: 9576636
I0501 08:37:07.030715 11363 layer_factory.hpp:77] Creating layer Sigmoid0
I0501 08:37:07.030733 11363 net.cpp:86] Creating Layer Sigmoid0
I0501 08:37:07.030740 11363 net.cpp:408] Sigmoid0 <- conv0
I0501 08:37:07.030750 11363 net.cpp:382] Sigmoid0 -> Sigmoid0
I0501 08:37:07.031049 11363 net.cpp:124] Setting up Sigmoid0
I0501 08:37:07.031064 11363 net.cpp:131] Top shape: 111 16 34 34 (2053056)
I0501 08:37:07.031069 11363 net.cpp:139] Memory required for data: 17788860
I0501 08:37:07.031075 11363 layer_factory.hpp:77] Creating layer pool0
I0501 08:37:07.031086 11363 net.cpp:86] Creating Layer pool0
I0501 08:37:07.031091 11363 net.cpp:408] pool0 <- Sigmoid0
I0501 08:37:07.031100 11363 net.cpp:382] pool0 -> pool0
I0501 08:37:07.032325 11363 net.cpp:124] Setting up pool0
I0501 08:37:07.032348 11363 net.cpp:131] Top shape: 111 16 17 17 (513264)
I0501 08:37:07.032356 11363 net.cpp:139] Memory required for data: 19841916
I0501 08:37:07.032361 11363 layer_factory.hpp:77] Creating layer ip1
I0501 08:37:07.032377 11363 net.cpp:86] Creating Layer ip1
I0501 08:37:07.032382 11363 net.cpp:408] ip1 <- pool0
I0501 08:37:07.032392 11363 net.cpp:382] ip1 -> ip1
I0501 08:37:07.036098 11363 net.cpp:124] Setting up ip1
I0501 08:37:07.036120 11363 net.cpp:131] Top shape: 111 10 (1110)
I0501 08:37:07.036126 11363 net.cpp:139] Memory required for data: 19846356
I0501 08:37:07.036141 11363 layer_factory.hpp:77] Creating layer relu1
I0501 08:37:07.036151 11363 net.cpp:86] Creating Layer relu1
I0501 08:37:07.036157 11363 net.cpp:408] relu1 <- ip1
I0501 08:37:07.036166 11363 net.cpp:369] relu1 -> ip1 (in-place)
I0501 08:37:07.036427 11363 net.cpp:124] Setting up relu1
I0501 08:37:07.036440 11363 net.cpp:131] Top shape: 111 10 (1110)
I0501 08:37:07.036445 11363 net.cpp:139] Memory required for data: 19850796
I0501 08:37:07.036451 11363 layer_factory.hpp:77] Creating layer ip2
I0501 08:37:07.036463 11363 net.cpp:86] Creating Layer ip2
I0501 08:37:07.036468 11363 net.cpp:408] ip2 <- ip1
I0501 08:37:07.036476 11363 net.cpp:382] ip2 -> ip2
I0501 08:37:07.036717 11363 net.cpp:124] Setting up ip2
I0501 08:37:07.036728 11363 net.cpp:131] Top shape: 111 160 (17760)
I0501 08:37:07.036734 11363 net.cpp:139] Memory required for data: 19921836
I0501 08:37:07.036746 11363 layer_factory.hpp:77] Creating layer relu2
I0501 08:37:07.036756 11363 net.cpp:86] Creating Layer relu2
I0501 08:37:07.036761 11363 net.cpp:408] relu2 <- ip2
I0501 08:37:07.036768 11363 net.cpp:369] relu2 -> ip2 (in-place)
I0501 08:37:07.037045 11363 net.cpp:124] Setting up relu2
I0501 08:37:07.037060 11363 net.cpp:131] Top shape: 111 160 (17760)
I0501 08:37:07.037065 11363 net.cpp:139] Memory required for data: 19992876
I0501 08:37:07.037071 11363 layer_factory.hpp:77] Creating layer ip3
I0501 08:37:07.037083 11363 net.cpp:86] Creating Layer ip3
I0501 08:37:07.037088 11363 net.cpp:408] ip3 <- ip2
I0501 08:37:07.037097 11363 net.cpp:382] ip3 -> ip3
I0501 08:37:07.037413 11363 net.cpp:124] Setting up ip3
I0501 08:37:07.037425 11363 net.cpp:131] Top shape: 111 20 (2220)
I0501 08:37:07.037431 11363 net.cpp:139] Memory required for data: 20001756
I0501 08:37:07.037439 11363 layer_factory.hpp:77] Creating layer relu3
I0501 08:37:07.037448 11363 net.cpp:86] Creating Layer relu3
I0501 08:37:07.037453 11363 net.cpp:408] relu3 <- ip3
I0501 08:37:07.037461 11363 net.cpp:369] relu3 -> ip3 (in-place)
I0501 08:37:07.037729 11363 net.cpp:124] Setting up relu3
I0501 08:37:07.037741 11363 net.cpp:131] Top shape: 111 20 (2220)
I0501 08:37:07.037747 11363 net.cpp:139] Memory required for data: 20010636
I0501 08:37:07.037753 11363 layer_factory.hpp:77] Creating layer ip4
I0501 08:37:07.037786 11363 net.cpp:86] Creating Layer ip4
I0501 08:37:07.037791 11363 net.cpp:408] ip4 <- ip3
I0501 08:37:07.037801 11363 net.cpp:382] ip4 -> ip4
I0501 08:37:07.037979 11363 net.cpp:124] Setting up ip4
I0501 08:37:07.037992 11363 net.cpp:131] Top shape: 111 10 (1110)
I0501 08:37:07.037997 11363 net.cpp:139] Memory required for data: 20015076
I0501 08:37:07.038012 11363 layer_factory.hpp:77] Creating layer loss
I0501 08:37:07.038022 11363 net.cpp:86] Creating Layer loss
I0501 08:37:07.038027 11363 net.cpp:408] loss <- ip4
I0501 08:37:07.038033 11363 net.cpp:408] loss <- label
I0501 08:37:07.038044 11363 net.cpp:382] loss -> loss
I0501 08:37:07.038065 11363 layer_factory.hpp:77] Creating layer loss
…
I0501 08:37:07.040104 11363 solver.cpp:173] Creating test net (#0) specified by net file: ECE595/cifar/train_test/var_everything/cifar_train_test_516.prototxt
I0501 08:37:07.040151 11363 net.cpp:296] The NetState phase (1) differed from the phase (0) specified by a rule in layer cifar
I0501 08:37:07.040319 11363 net.cpp:53] Initializing net from parameters: 
name: "CIFAR"
state {
  phase: TEST
}
layer {
  name: "cifar"
  type: "Data"
  top: "data"
  top: "label"
  include {
    phase: TEST
  }
  transform_param {
    mean_file: "examples/cifar10/mean.binaryproto"
  }
  data_param {
    source: "examples/cifar10/cifar10_test_lmdb"
    batch_size: 1000
    backend: LMDB
  }
}
layer {
  name: "conv0"
  type: "Convolution"
  bottom: "data"
  top: "conv0"
  param {
    lr_mult: 1
  }
  param {
    lr_mult: 2
  }
  convolution_param {
    num_output: 16
    pad: 2
    kernel_size: 3
    stride: 1
    weight_filler {
      type: "gaussian"
      std: 0.01
    }
    bias_filler {
      type: "constant"
    }
  }
}
layer {
  name: "Sigmoid0"
  type: "Sigmoid"
  bottom: "conv0"
  top: "Sigmoid0"
}
layer {
  name: "pool0"
  type: "Pooling"
  bottom: "Sigmoid0"
  top: "pool0"
  pooling_param {
    pool: AVE
    kernel_size: 3
    stride: 2
  }
}
layer {
  name: "ip1"
  type: "InnerProduct"
  bottom: "pool0"
  top: "ip1"
  param {
    lr_mult: 1
  }
  param {
    lr_mult: 2
  }
  inner_product_param {
    num_output: 10
    weight_filler {
      type: "gaussian"
      std: 0.01
    }
    bias_filler {
      type: "constant"
    }
  }
}
layer {
  name: "relu1"
  type: "ReLU"
  bottom: "ip1"
  top: "ip1"
}
layer {
  name: "ip2"
  type: "InnerProduct"
  bottom: "ip1"
  top: "ip2"
  param {
    lr_mult: 1
  }
  param {
    lr_mult: 2
  }
  inner_product_param {
    num_output: 160
    weight_filler {
      type: "gaussian"
      std: 0.01
    }
    bias_filler {
      type: "constant"
    }
  }
}
layer {
  name: "relu2"
  type: "ReLU"
  bottom: "ip2"
  top: "ip2"
}
layer {
  name: "ip3"
  type: "InnerProduct"
  bottom: "ip2"
  top: "ip3"
  param {
    lr_mult: 1
  }
  param {
    lr_mult: 2
  }
  inner_product_param {
    num_output: 20
    weight_filler {
      type: "gaussian"
      std: 0.01
    }
    bias_filler {
      type: "constant"
    }
  }
}
layer {
  name: "relu3"
  type: "ReLU"
  bottom: "ip3"
  top: "ip3"
}
layer {
  name: "ip4"
  type: "InnerProduct"
  bottom: "ip3"
  top: "ip4"
  param {
    lr_mult: 1
  }
  param {
    lr_mult: 2
  }
  inner_product_param {
    num_output: 10
    weight_filler {
      type: "gaussian"
      std: 0.01
    }
    bias_filler {
      type: "constant"
    }
  }
}
layer {
  name: "accuracy"
  type: "Accuracy"
  bottom: "ip4"
  bottom: "label"
  top: "accuracy"
  include {
    phase: TEST
  }
}
layer {
  name: "loss"
  type: "SoftmaxWithLoss"
  bottom: "ip4"
  bottom: "label"
  top: "loss"
}
I0501 08:37:07.040465 11363 layer_factory.hpp:77] Creating layer cifar
I0501 08:37:07.040540 11363 db_lmdb.cpp:35] Opened lmdb examples/cifar10/cifar10_test_lmdb
I0501 08:37:07.040560 11363 net.cpp:86] Creating Layer cifar
I0501 08:37:07.040570 11363 net.cpp:382] cifar -> data
I0501 08:37:07.040582 11363 net.cpp:382] cifar -> label
I0501 08:37:07.040593 11363 data_transformer.cpp:25] Loading mean file from: examples/cifar10/mean.binaryproto
I0501 08:37:07.040856 11363 data_layer.cpp:45] output data size: 1000,3,32,32
I0501 08:37:07.072834 11363 net.cpp:124] Setting up cifar
I0501 08:37:07.072870 11363 net.cpp:131] Top shape: 1000 3 32 32 (3072000)
I0501 08:37:07.072878 11363 net.cpp:131] Top shape: 1000 (1000)
I0501 08:37:07.072883 11363 net.cpp:139] Memory required for data: 12292000
I0501 08:37:07.072891 11363 layer_factory.hpp:77] Creating layer label_cifar_1_split
I0501 08:37:07.072906 11363 net.cpp:86] Creating Layer label_cifar_1_split
I0501 08:37:07.072911 11363 net.cpp:408] label_cifar_1_split <- label
I0501 08:37:07.072921 11363 net.cpp:382] label_cifar_1_split -> label_cifar_1_split_0
I0501 08:37:07.072932 11363 net.cpp:382] label_cifar_1_split -> label_cifar_1_split_1
I0501 08:37:07.073051 11363 net.cpp:124] Setting up label_cifar_1_split
I0501 08:37:07.073065 11363 net.cpp:131] Top shape: 1000 (1000)
I0501 08:37:07.073070 11363 net.cpp:131] Top shape: 1000 (1000)
I0501 08:37:07.073073 11363 net.cpp:139] Memory required for data: 12300000
I0501 08:37:07.073078 11363 layer_factory.hpp:77] Creating layer conv0
I0501 08:37:07.073096 11363 net.cpp:86] Creating Layer conv0
I0501 08:37:07.073101 11363 net.cpp:408] conv0 <- data
I0501 08:37:07.073114 11363 net.cpp:382] conv0 -> conv0
I0501 08:37:07.076198 11363 net.cpp:124] Setting up conv0
I0501 08:37:07.076223 11363 net.cpp:131] Top shape: 1000 16 34 34 (18496000)
I0501 08:37:07.076228 11363 net.cpp:139] Memory required for data: 86284000
I0501 08:37:07.076243 11363 layer_factory.hpp:77] Creating layer Sigmoid0
I0501 08:37:07.076256 11363 net.cpp:86] Creating Layer Sigmoid0
I0501 08:37:07.076261 11363 net.cpp:408] Sigmoid0 <- conv0
I0501 08:37:07.076285 11363 net.cpp:382] Sigmoid0 -> Sigmoid0
I0501 08:37:07.076601 11363 net.cpp:124] Setting up Sigmoid0
I0501 08:37:07.076616 11363 net.cpp:131] Top shape: 1000 16 34 34 (18496000)
I0501 08:37:07.076620 11363 net.cpp:139] Memory required for data: 160268000
I0501 08:37:07.076625 11363 layer_factory.hpp:77] Creating layer pool0
I0501 08:37:07.076637 11363 net.cpp:86] Creating Layer pool0
I0501 08:37:07.076642 11363 net.cpp:408] pool0 <- Sigmoid0
I0501 08:37:07.076650 11363 net.cpp:382] pool0 -> pool0
I0501 08:37:07.076928 11363 net.cpp:124] Setting up pool0
I0501 08:37:07.076942 11363 net.cpp:131] Top shape: 1000 16 17 17 (4624000)
I0501 08:37:07.076946 11363 net.cpp:139] Memory required for data: 178764000
I0501 08:37:07.076951 11363 layer_factory.hpp:77] Creating layer ip1
I0501 08:37:07.076964 11363 net.cpp:86] Creating Layer ip1
I0501 08:37:07.076969 11363 net.cpp:408] ip1 <- pool0
I0501 08:37:07.076977 11363 net.cpp:382] ip1 -> ip1
I0501 08:37:07.078900 11363 net.cpp:124] Setting up ip1
I0501 08:37:07.078912 11363 net.cpp:131] Top shape: 1000 10 (10000)
I0501 08:37:07.078917 11363 net.cpp:139] Memory required for data: 178804000
I0501 08:37:07.078945 11363 layer_factory.hpp:77] Creating layer relu1
I0501 08:37:07.078953 11363 net.cpp:86] Creating Layer relu1
I0501 08:37:07.078958 11363 net.cpp:408] relu1 <- ip1
I0501 08:37:07.078965 11363 net.cpp:369] relu1 -> ip1 (in-place)
I0501 08:37:07.079200 11363 net.cpp:124] Setting up relu1
I0501 08:37:07.079212 11363 net.cpp:131] Top shape: 1000 10 (10000)
I0501 08:37:07.079216 11363 net.cpp:139] Memory required for data: 178844000
I0501 08:37:07.079221 11363 layer_factory.hpp:77] Creating layer ip2
I0501 08:37:07.079231 11363 net.cpp:86] Creating Layer ip2
I0501 08:37:07.079236 11363 net.cpp:408] ip2 <- ip1
I0501 08:37:07.079244 11363 net.cpp:382] ip2 -> ip2
I0501 08:37:07.079457 11363 net.cpp:124] Setting up ip2
I0501 08:37:07.079468 11363 net.cpp:131] Top shape: 1000 160 (160000)
I0501 08:37:07.079471 11363 net.cpp:139] Memory required for data: 179484000
I0501 08:37:07.079481 11363 layer_factory.hpp:77] Creating layer relu2
I0501 08:37:07.079489 11363 net.cpp:86] Creating Layer relu2
I0501 08:37:07.079494 11363 net.cpp:408] relu2 <- ip2
I0501 08:37:07.079500 11363 net.cpp:369] relu2 -> ip2 (in-place)
I0501 08:37:07.080538 11363 net.cpp:124] Setting up relu2
I0501 08:37:07.080555 11363 net.cpp:131] Top shape: 1000 160 (160000)
I0501 08:37:07.080560 11363 net.cpp:139] Memory required for data: 180124000
I0501 08:37:07.080565 11363 layer_factory.hpp:77] Creating layer ip3
I0501 08:37:07.080574 11363 net.cpp:86] Creating Layer ip3
I0501 08:37:07.080579 11363 net.cpp:408] ip3 <- ip2
I0501 08:37:07.080588 11363 net.cpp:382] ip3 -> ip3
I0501 08:37:07.080878 11363 net.cpp:124] Setting up ip3
I0501 08:37:07.080890 11363 net.cpp:131] Top shape: 1000 20 (20000)
I0501 08:37:07.080895 11363 net.cpp:139] Memory required for data: 180204000
I0501 08:37:07.080904 11363 layer_factory.hpp:77] Creating layer relu3
I0501 08:37:07.080910 11363 net.cpp:86] Creating Layer relu3
I0501 08:37:07.080914 11363 net.cpp:408] relu3 <- ip3
I0501 08:37:07.080921 11363 net.cpp:369] relu3 -> ip3 (in-place)
I0501 08:37:07.081140 11363 net.cpp:124] Setting up relu3
I0501 08:37:07.081151 11363 net.cpp:131] Top shape: 1000 20 (20000)
I0501 08:37:07.081156 11363 net.cpp:139] Memory required for data: 180284000
I0501 08:37:07.081161 11363 layer_factory.hpp:77] Creating layer ip4
I0501 08:37:07.081169 11363 net.cpp:86] Creating Layer ip4
I0501 08:37:07.081173 11363 net.cpp:408] ip4 <- ip3
I0501 08:37:07.081182 11363 net.cpp:382] ip4 -> ip4
I0501 08:37:07.081338 11363 net.cpp:124] Setting up ip4
I0501 08:37:07.081347 11363 net.cpp:131] Top shape: 1000 10 (10000)
I0501 08:37:07.081351 11363 net.cpp:139] Memory required for data: 180324000
I0501 08:37:07.081362 11363 layer_factory.hpp:77] Creating layer ip4_ip4_0_split
I0501 08:37:07.081372 11363 net.cpp:86] Creating Layer ip4_ip4_0_split
I0501 08:37:07.081375 11363 net.cpp:408] ip4_ip4_0_split <- ip4
I0501 08:37:07.081382 11363 net.cpp:382] ip4_ip4_0_split -> ip4_ip4_0_split_0
I0501 08:37:07.081389 11363 net.cpp:382] ip4_ip4_0_split -> ip4_ip4_0_split_1
I0501 08:37:07.081435 11363 net.cpp:124] Setting up ip4_ip4_0_split
I0501 08:37:07.081444 11363 net.cpp:131] Top shape: 1000 10 (10000)
I0501 08:37:07.081449 11363 net.cpp:131] Top shape: 1000 10 (10000)
I0501 08:37:07.081454 11363 net.cpp:139] Memory required for data: 180404000
I0501 08:37:07.081457 11363 layer_factory.hpp:77] Creating layer accuracy
I0501 08:37:07.081465 11363 net.cpp:86] Creating Layer accuracy
I0501 08:37:07.081470 11363 net.cpp:408] accuracy <- ip4_ip4_0_split_0
I0501 08:37:07.081475 11363 net.cpp:408] accuracy <- label_cifar_1_split_0
I0501 08:37:07.081483 11363 net.cpp:382] accuracy -> accuracy
…
