…
I0430 22:31:10.135416  2240 net.cpp:296] The NetState phase (0) differed from the phase (1) specified by a rule in layer cifar
I0430 22:31:10.135435  2240 net.cpp:296] The NetState phase (0) differed from the phase (1) specified by a rule in layer accuracy
I0430 22:31:10.135535  2240 net.cpp:53] Initializing net from parameters: 
name: "CIFAR"
state {
  phase: TRAIN
  level: 0
  stage: ""
}
layer {
  name: "cifar"
  type: "Data"
  top: "data"
  top: "label"
  include {
    phase: TRAIN
  }
  transform_param {
    mean_file: "examples/cifar10/mean.binaryproto"
  }
  data_param {
    source: "examples/cifar10/cifar10_train_lmdb"
    batch_size: 111
    backend: LMDB
  }
}
layer {
  name: "conv0"
  type: "Convolution"
  bottom: "data"
  top: "conv0"
  param {
    lr_mult: 1
  }
  param {
    lr_mult: 2
  }
  convolution_param {
    num_output: 8
    pad: 2
    kernel_size: 3
    stride: 1
    weight_filler {
      type: "gaussian"
      std: 0.01
    }
    bias_filler {
      type: "constant"
    }
  }
}
layer {
  name: "Sigmoid0"
  type: "Sigmoid"
  bottom: "conv0"
  top: "Sigmoid0"
}
layer {
  name: "pool0"
  type: "Pooling"
  bottom: "Sigmoid0"
  top: "pool0"
  pooling_param {
    pool: AVE
    kernel_size: 3
    stride: 2
  }
}
layer {
  name: "ip1"
  type: "InnerProduct"
  bottom: "pool0"
  top: "ip1"
  param {
    lr_mult: 1
  }
  param {
    lr_mult: 2
  }
  inner_product_param {
    num_output: 10
    weight_filler {
      type: "gaussian"
      std: 0.01
    }
    bias_filler {
      type: "constant"
    }
  }
}
layer {
  name: "relu1"
  type: "ReLU"
  bottom: "ip1"
  top: "ip1"
}
layer {
  name: "ip2"
  type: "InnerProduct"
  bottom: "ip1"
  top: "ip2"
  param {
    lr_mult: 1
  }
  param {
    lr_mult: 2
  }
  inner_product_param {
    num_output: 40
    weight_filler {
      type: "gaussian"
      std: 0.01
    }
    bias_filler {
      type: "constant"
    }
  }
}
layer {
  name: "relu2"
  type: "ReLU"
  bottom: "ip2"
  top: "ip2"
}
layer {
  name: "ip3"
  type: "InnerProduct"
  bottom: "ip2"
  top: "ip3"
  param {
    lr_mult: 1
  }
  param {
    lr_mult: 2
  }
  inner_product_param {
    num_output: 20
    weight_filler {
      type: "gaussian"
      std: 0.01
    }
    bias_filler {
      type: "constant"
    }
  }
}
layer {
  name: "relu3"
  type: "ReLU"
  bottom: "ip3"
  top: "ip3"
}
layer {
  name: "ip4"
  type: "InnerProduct"
  bottom: "ip3"
  top: "ip4"
  param {
    lr_mult: 1
  }
  param {
    lr_mult: 2
  }
  inner_product_param {
    num_output: 10
    weight_filler {
      type: "gaussian"
      std: 0.01
    }
    bias_filler {
      type: "constant"
    }
  }
}
layer {
  name: "loss"
  type: "SoftmaxWithLoss"
  bottom: "ip4"
  bottom: "label"
  top: "loss"
}
I0430 22:31:10.135607  2240 layer_factory.hpp:77] Creating layer cifar
I0430 22:31:10.135707  2240 db_lmdb.cpp:35] Opened lmdb examples/cifar10/cifar10_train_lmdb
I0430 22:31:10.135735  2240 net.cpp:86] Creating Layer cifar
I0430 22:31:10.135742  2240 net.cpp:382] cifar -> data
I0430 22:31:10.135766  2240 net.cpp:382] cifar -> label
I0430 22:31:10.135777  2240 data_transformer.cpp:25] Loading mean file from: examples/cifar10/mean.binaryproto
I0430 22:31:10.137886  2240 data_layer.cpp:45] output data size: 111,3,32,32
I0430 22:31:10.145730  2240 net.cpp:124] Setting up cifar
I0430 22:31:10.145747  2240 net.cpp:131] Top shape: 111 3 32 32 (340992)
I0430 22:31:10.145753  2240 net.cpp:131] Top shape: 111 (111)
I0430 22:31:10.145757  2240 net.cpp:139] Memory required for data: 1364412
I0430 22:31:10.145781  2240 layer_factory.hpp:77] Creating layer conv0
I0430 22:31:10.145800  2240 net.cpp:86] Creating Layer conv0
I0430 22:31:10.145805  2240 net.cpp:408] conv0 <- data
I0430 22:31:10.145817  2240 net.cpp:382] conv0 -> conv0
I0430 22:31:10.434474  2240 net.cpp:124] Setting up conv0
I0430 22:31:10.434505  2240 net.cpp:131] Top shape: 111 8 34 34 (1026528)
I0430 22:31:10.434510  2240 net.cpp:139] Memory required for data: 5470524
I0430 22:31:10.434528  2240 layer_factory.hpp:77] Creating layer Sigmoid0
I0430 22:31:10.434542  2240 net.cpp:86] Creating Layer Sigmoid0
I0430 22:31:10.434547  2240 net.cpp:408] Sigmoid0 <- conv0
I0430 22:31:10.434553  2240 net.cpp:382] Sigmoid0 -> Sigmoid0
I0430 22:31:10.434764  2240 net.cpp:124] Setting up Sigmoid0
I0430 22:31:10.434777  2240 net.cpp:131] Top shape: 111 8 34 34 (1026528)
I0430 22:31:10.434780  2240 net.cpp:139] Memory required for data: 9576636
I0430 22:31:10.434784  2240 layer_factory.hpp:77] Creating layer pool0
I0430 22:31:10.434792  2240 net.cpp:86] Creating Layer pool0
I0430 22:31:10.434797  2240 net.cpp:408] pool0 <- Sigmoid0
I0430 22:31:10.434803  2240 net.cpp:382] pool0 -> pool0
I0430 22:31:10.435688  2240 net.cpp:124] Setting up pool0
I0430 22:31:10.435704  2240 net.cpp:131] Top shape: 111 8 17 17 (256632)
I0430 22:31:10.435709  2240 net.cpp:139] Memory required for data: 10603164
I0430 22:31:10.435714  2240 layer_factory.hpp:77] Creating layer ip1
I0430 22:31:10.435724  2240 net.cpp:86] Creating Layer ip1
I0430 22:31:10.435729  2240 net.cpp:408] ip1 <- pool0
I0430 22:31:10.435735  2240 net.cpp:382] ip1 -> ip1
I0430 22:31:10.437608  2240 net.cpp:124] Setting up ip1
I0430 22:31:10.437623  2240 net.cpp:131] Top shape: 111 10 (1110)
I0430 22:31:10.437628  2240 net.cpp:139] Memory required for data: 10607604
I0430 22:31:10.437638  2240 layer_factory.hpp:77] Creating layer relu1
I0430 22:31:10.437645  2240 net.cpp:86] Creating Layer relu1
I0430 22:31:10.437650  2240 net.cpp:408] relu1 <- ip1
I0430 22:31:10.437656  2240 net.cpp:369] relu1 -> ip1 (in-place)
I0430 22:31:10.437844  2240 net.cpp:124] Setting up relu1
I0430 22:31:10.437855  2240 net.cpp:131] Top shape: 111 10 (1110)
I0430 22:31:10.437860  2240 net.cpp:139] Memory required for data: 10612044
I0430 22:31:10.437863  2240 layer_factory.hpp:77] Creating layer ip2
I0430 22:31:10.437870  2240 net.cpp:86] Creating Layer ip2
I0430 22:31:10.437875  2240 net.cpp:408] ip2 <- ip1
I0430 22:31:10.437880  2240 net.cpp:382] ip2 -> ip2
I0430 22:31:10.438980  2240 net.cpp:124] Setting up ip2
I0430 22:31:10.438995  2240 net.cpp:131] Top shape: 111 40 (4440)
I0430 22:31:10.439002  2240 net.cpp:139] Memory required for data: 10629804
I0430 22:31:10.439012  2240 layer_factory.hpp:77] Creating layer relu2
I0430 22:31:10.439018  2240 net.cpp:86] Creating Layer relu2
I0430 22:31:10.439023  2240 net.cpp:408] relu2 <- ip2
I0430 22:31:10.439028  2240 net.cpp:369] relu2 -> ip2 (in-place)
I0430 22:31:10.439229  2240 net.cpp:124] Setting up relu2
I0430 22:31:10.439239  2240 net.cpp:131] Top shape: 111 40 (4440)
I0430 22:31:10.439244  2240 net.cpp:139] Memory required for data: 10647564
I0430 22:31:10.439247  2240 layer_factory.hpp:77] Creating layer ip3
I0430 22:31:10.439256  2240 net.cpp:86] Creating Layer ip3
I0430 22:31:10.439260  2240 net.cpp:408] ip3 <- ip2
I0430 22:31:10.439266  2240 net.cpp:382] ip3 -> ip3
I0430 22:31:10.439406  2240 net.cpp:124] Setting up ip3
I0430 22:31:10.439415  2240 net.cpp:131] Top shape: 111 20 (2220)
I0430 22:31:10.439419  2240 net.cpp:139] Memory required for data: 10656444
I0430 22:31:10.439426  2240 layer_factory.hpp:77] Creating layer relu3
I0430 22:31:10.439432  2240 net.cpp:86] Creating Layer relu3
I0430 22:31:10.439436  2240 net.cpp:408] relu3 <- ip3
I0430 22:31:10.439441  2240 net.cpp:369] relu3 -> ip3 (in-place)
I0430 22:31:10.439626  2240 net.cpp:124] Setting up relu3
I0430 22:31:10.439636  2240 net.cpp:131] Top shape: 111 20 (2220)
I0430 22:31:10.439640  2240 net.cpp:139] Memory required for data: 10665324
I0430 22:31:10.439644  2240 layer_factory.hpp:77] Creating layer ip4
I0430 22:31:10.439671  2240 net.cpp:86] Creating Layer ip4
I0430 22:31:10.439674  2240 net.cpp:408] ip4 <- ip3
I0430 22:31:10.439682  2240 net.cpp:382] ip4 -> ip4
I0430 22:31:10.439800  2240 net.cpp:124] Setting up ip4
I0430 22:31:10.439810  2240 net.cpp:131] Top shape: 111 10 (1110)
I0430 22:31:10.439815  2240 net.cpp:139] Memory required for data: 10669764
I0430 22:31:10.439823  2240 layer_factory.hpp:77] Creating layer loss
I0430 22:31:10.439829  2240 net.cpp:86] Creating Layer loss
I0430 22:31:10.439833  2240 net.cpp:408] loss <- ip4
I0430 22:31:10.439838  2240 net.cpp:408] loss <- label
I0430 22:31:10.439844  2240 net.cpp:382] loss -> loss
I0430 22:31:10.439865  2240 layer_factory.hpp:77] Creating layer loss
…
I0430 22:31:10.441318  2240 solver.cpp:173] Creating test net (#0) specified by net file: ECE595/cifar/train_test/var_everything/cifar_train_test_196.prototxt
I0430 22:31:10.441352  2240 net.cpp:296] The NetState phase (1) differed from the phase (0) specified by a rule in layer cifar
I0430 22:31:10.441463  2240 net.cpp:53] Initializing net from parameters: 
name: "CIFAR"
state {
  phase: TEST
}
layer {
  name: "cifar"
  type: "Data"
  top: "data"
  top: "label"
  include {
    phase: TEST
  }
  transform_param {
    mean_file: "examples/cifar10/mean.binaryproto"
  }
  data_param {
    source: "examples/cifar10/cifar10_test_lmdb"
    batch_size: 1000
    backend: LMDB
  }
}
layer {
  name: "conv0"
  type: "Convolution"
  bottom: "data"
  top: "conv0"
  param {
    lr_mult: 1
  }
  param {
    lr_mult: 2
  }
  convolution_param {
    num_output: 8
    pad: 2
    kernel_size: 3
    stride: 1
    weight_filler {
      type: "gaussian"
      std: 0.01
    }
    bias_filler {
      type: "constant"
    }
  }
}
layer {
  name: "Sigmoid0"
  type: "Sigmoid"
  bottom: "conv0"
  top: "Sigmoid0"
}
layer {
  name: "pool0"
  type: "Pooling"
  bottom: "Sigmoid0"
  top: "pool0"
  pooling_param {
    pool: AVE
    kernel_size: 3
    stride: 2
  }
}
layer {
  name: "ip1"
  type: "InnerProduct"
  bottom: "pool0"
  top: "ip1"
  param {
    lr_mult: 1
  }
  param {
    lr_mult: 2
  }
  inner_product_param {
    num_output: 10
    weight_filler {
      type: "gaussian"
      std: 0.01
    }
    bias_filler {
      type: "constant"
    }
  }
}
layer {
  name: "relu1"
  type: "ReLU"
  bottom: "ip1"
  top: "ip1"
}
layer {
  name: "ip2"
  type: "InnerProduct"
  bottom: "ip1"
  top: "ip2"
  param {
    lr_mult: 1
  }
  param {
    lr_mult: 2
  }
  inner_product_param {
    num_output: 40
    weight_filler {
      type: "gaussian"
      std: 0.01
    }
    bias_filler {
      type: "constant"
    }
  }
}
layer {
  name: "relu2"
  type: "ReLU"
  bottom: "ip2"
  top: "ip2"
}
layer {
  name: "ip3"
  type: "InnerProduct"
  bottom: "ip2"
  top: "ip3"
  param {
    lr_mult: 1
  }
  param {
    lr_mult: 2
  }
  inner_product_param {
    num_output: 20
    weight_filler {
      type: "gaussian"
      std: 0.01
    }
    bias_filler {
      type: "constant"
    }
  }
}
layer {
  name: "relu3"
  type: "ReLU"
  bottom: "ip3"
  top: "ip3"
}
layer {
  name: "ip4"
  type: "InnerProduct"
  bottom: "ip3"
  top: "ip4"
  param {
    lr_mult: 1
  }
  param {
    lr_mult: 2
  }
  inner_product_param {
    num_output: 10
    weight_filler {
      type: "gaussian"
      std: 0.01
    }
    bias_filler {
      type: "constant"
    }
  }
}
layer {
  name: "accuracy"
  type: "Accuracy"
  bottom: "ip4"
  bottom: "label"
  top: "accuracy"
  include {
    phase: TEST
  }
}
layer {
  name: "loss"
  type: "SoftmaxWithLoss"
  bottom: "ip4"
  bottom: "label"
  top: "loss"
}
I0430 22:31:10.441557  2240 layer_factory.hpp:77] Creating layer cifar
I0430 22:31:10.441614  2240 db_lmdb.cpp:35] Opened lmdb examples/cifar10/cifar10_test_lmdb
I0430 22:31:10.441629  2240 net.cpp:86] Creating Layer cifar
I0430 22:31:10.441635  2240 net.cpp:382] cifar -> data
I0430 22:31:10.441644  2240 net.cpp:382] cifar -> label
I0430 22:31:10.441653  2240 data_transformer.cpp:25] Loading mean file from: examples/cifar10/mean.binaryproto
I0430 22:31:10.441825  2240 data_layer.cpp:45] output data size: 1000,3,32,32
I0430 22:31:10.467643  2240 net.cpp:124] Setting up cifar
I0430 22:31:10.467674  2240 net.cpp:131] Top shape: 1000 3 32 32 (3072000)
I0430 22:31:10.467681  2240 net.cpp:131] Top shape: 1000 (1000)
I0430 22:31:10.467686  2240 net.cpp:139] Memory required for data: 12292000
I0430 22:31:10.467692  2240 layer_factory.hpp:77] Creating layer label_cifar_1_split
I0430 22:31:10.467711  2240 net.cpp:86] Creating Layer label_cifar_1_split
I0430 22:31:10.467717  2240 net.cpp:408] label_cifar_1_split <- label
I0430 22:31:10.467725  2240 net.cpp:382] label_cifar_1_split -> label_cifar_1_split_0
I0430 22:31:10.467734  2240 net.cpp:382] label_cifar_1_split -> label_cifar_1_split_1
I0430 22:31:10.467862  2240 net.cpp:124] Setting up label_cifar_1_split
I0430 22:31:10.467872  2240 net.cpp:131] Top shape: 1000 (1000)
I0430 22:31:10.467877  2240 net.cpp:131] Top shape: 1000 (1000)
I0430 22:31:10.467881  2240 net.cpp:139] Memory required for data: 12300000
I0430 22:31:10.467885  2240 layer_factory.hpp:77] Creating layer conv0
I0430 22:31:10.467900  2240 net.cpp:86] Creating Layer conv0
I0430 22:31:10.467906  2240 net.cpp:408] conv0 <- data
I0430 22:31:10.467913  2240 net.cpp:382] conv0 -> conv0
I0430 22:31:10.469743  2240 net.cpp:124] Setting up conv0
I0430 22:31:10.469760  2240 net.cpp:131] Top shape: 1000 8 34 34 (9248000)
I0430 22:31:10.469765  2240 net.cpp:139] Memory required for data: 49292000
I0430 22:31:10.469776  2240 layer_factory.hpp:77] Creating layer Sigmoid0
I0430 22:31:10.469784  2240 net.cpp:86] Creating Layer Sigmoid0
I0430 22:31:10.469789  2240 net.cpp:408] Sigmoid0 <- conv0
I0430 22:31:10.469796  2240 net.cpp:382] Sigmoid0 -> Sigmoid0
I0430 22:31:10.470960  2240 net.cpp:124] Setting up Sigmoid0
I0430 22:31:10.470973  2240 net.cpp:131] Top shape: 1000 8 34 34 (9248000)
I0430 22:31:10.470978  2240 net.cpp:139] Memory required for data: 86284000
I0430 22:31:10.470981  2240 layer_factory.hpp:77] Creating layer pool0
I0430 22:31:10.470993  2240 net.cpp:86] Creating Layer pool0
I0430 22:31:10.470996  2240 net.cpp:408] pool0 <- Sigmoid0
I0430 22:31:10.471002  2240 net.cpp:382] pool0 -> pool0
I0430 22:31:10.471216  2240 net.cpp:124] Setting up pool0
I0430 22:31:10.471227  2240 net.cpp:131] Top shape: 1000 8 17 17 (2312000)
I0430 22:31:10.471231  2240 net.cpp:139] Memory required for data: 95532000
I0430 22:31:10.471235  2240 layer_factory.hpp:77] Creating layer ip1
I0430 22:31:10.471249  2240 net.cpp:86] Creating Layer ip1
I0430 22:31:10.471256  2240 net.cpp:408] ip1 <- pool0
I0430 22:31:10.471263  2240 net.cpp:382] ip1 -> ip1
I0430 22:31:10.472172  2240 net.cpp:124] Setting up ip1
I0430 22:31:10.472182  2240 net.cpp:131] Top shape: 1000 10 (10000)
I0430 22:31:10.472185  2240 net.cpp:139] Memory required for data: 95572000
I0430 22:31:10.472210  2240 layer_factory.hpp:77] Creating layer relu1
I0430 22:31:10.472219  2240 net.cpp:86] Creating Layer relu1
I0430 22:31:10.472223  2240 net.cpp:408] relu1 <- ip1
I0430 22:31:10.472228  2240 net.cpp:369] relu1 -> ip1 (in-place)
I0430 22:31:10.472432  2240 net.cpp:124] Setting up relu1
I0430 22:31:10.472442  2240 net.cpp:131] Top shape: 1000 10 (10000)
I0430 22:31:10.472446  2240 net.cpp:139] Memory required for data: 95612000
I0430 22:31:10.472450  2240 layer_factory.hpp:77] Creating layer ip2
I0430 22:31:10.472457  2240 net.cpp:86] Creating Layer ip2
I0430 22:31:10.472461  2240 net.cpp:408] ip2 <- ip1
I0430 22:31:10.472468  2240 net.cpp:382] ip2 -> ip2
I0430 22:31:10.472616  2240 net.cpp:124] Setting up ip2
I0430 22:31:10.472626  2240 net.cpp:131] Top shape: 1000 40 (40000)
I0430 22:31:10.472630  2240 net.cpp:139] Memory required for data: 95772000
I0430 22:31:10.472640  2240 layer_factory.hpp:77] Creating layer relu2
I0430 22:31:10.472651  2240 net.cpp:86] Creating Layer relu2
I0430 22:31:10.472654  2240 net.cpp:408] relu2 <- ip2
I0430 22:31:10.472659  2240 net.cpp:369] relu2 -> ip2 (in-place)
I0430 22:31:10.473567  2240 net.cpp:124] Setting up relu2
I0430 22:31:10.473582  2240 net.cpp:131] Top shape: 1000 40 (40000)
I0430 22:31:10.473587  2240 net.cpp:139] Memory required for data: 95932000
I0430 22:31:10.473590  2240 layer_factory.hpp:77] Creating layer ip3
I0430 22:31:10.473600  2240 net.cpp:86] Creating Layer ip3
I0430 22:31:10.473604  2240 net.cpp:408] ip3 <- ip2
I0430 22:31:10.473611  2240 net.cpp:382] ip3 -> ip3
I0430 22:31:10.473773  2240 net.cpp:124] Setting up ip3
I0430 22:31:10.473783  2240 net.cpp:131] Top shape: 1000 20 (20000)
I0430 22:31:10.473788  2240 net.cpp:139] Memory required for data: 96012000
I0430 22:31:10.473794  2240 layer_factory.hpp:77] Creating layer relu3
I0430 22:31:10.473800  2240 net.cpp:86] Creating Layer relu3
I0430 22:31:10.473804  2240 net.cpp:408] relu3 <- ip3
I0430 22:31:10.473809  2240 net.cpp:369] relu3 -> ip3 (in-place)
I0430 22:31:10.474002  2240 net.cpp:124] Setting up relu3
I0430 22:31:10.474014  2240 net.cpp:131] Top shape: 1000 20 (20000)
I0430 22:31:10.474017  2240 net.cpp:139] Memory required for data: 96092000
I0430 22:31:10.474021  2240 layer_factory.hpp:77] Creating layer ip4
I0430 22:31:10.474028  2240 net.cpp:86] Creating Layer ip4
I0430 22:31:10.474035  2240 net.cpp:408] ip4 <- ip3
I0430 22:31:10.474040  2240 net.cpp:382] ip4 -> ip4
I0430 22:31:10.474175  2240 net.cpp:124] Setting up ip4
I0430 22:31:10.474184  2240 net.cpp:131] Top shape: 1000 10 (10000)
I0430 22:31:10.474189  2240 net.cpp:139] Memory required for data: 96132000
I0430 22:31:10.474200  2240 layer_factory.hpp:77] Creating layer ip4_ip4_0_split
I0430 22:31:10.474205  2240 net.cpp:86] Creating Layer ip4_ip4_0_split
I0430 22:31:10.474210  2240 net.cpp:408] ip4_ip4_0_split <- ip4
I0430 22:31:10.474215  2240 net.cpp:382] ip4_ip4_0_split -> ip4_ip4_0_split_0
I0430 22:31:10.474221  2240 net.cpp:382] ip4_ip4_0_split -> ip4_ip4_0_split_1
I0430 22:31:10.474259  2240 net.cpp:124] Setting up ip4_ip4_0_split
I0430 22:31:10.474267  2240 net.cpp:131] Top shape: 1000 10 (10000)
I0430 22:31:10.474272  2240 net.cpp:131] Top shape: 1000 10 (10000)
I0430 22:31:10.474275  2240 net.cpp:139] Memory required for data: 96212000
I0430 22:31:10.474278  2240 layer_factory.hpp:77] Creating layer accuracy
I0430 22:31:10.474287  2240 net.cpp:86] Creating Layer accuracy
I0430 22:31:10.474292  2240 net.cpp:408] accuracy <- ip4_ip4_0_split_0
I0430 22:31:10.474295  2240 net.cpp:408] accuracy <- label_cifar_1_split_0
I0430 22:31:10.474301  2240 net.cpp:382] accuracy -> accuracy
…
