…
I0501 09:34:40.458719 14951 net.cpp:296] The NetState phase (0) differed from the phase (1) specified by a rule in layer cifar
I0501 09:34:40.458744 14951 net.cpp:296] The NetState phase (0) differed from the phase (1) specified by a rule in layer accuracy
I0501 09:34:40.458855 14951 net.cpp:53] Initializing net from parameters: 
name: "CIFAR"
state {
  phase: TRAIN
  level: 0
  stage: ""
}
layer {
  name: "cifar"
  type: "Data"
  top: "data"
  top: "label"
  include {
    phase: TRAIN
  }
  transform_param {
    mean_file: "examples/cifar10/mean.binaryproto"
  }
  data_param {
    source: "examples/cifar10/cifar10_train_lmdb"
    batch_size: 111
    backend: LMDB
  }
}
layer {
  name: "conv0"
  type: "Convolution"
  bottom: "data"
  top: "conv0"
  param {
    lr_mult: 1
  }
  param {
    lr_mult: 2
  }
  convolution_param {
    num_output: 16
    pad: 2
    kernel_size: 3
    stride: 1
    weight_filler {
      type: "gaussian"
      std: 0.01
    }
    bias_filler {
      type: "constant"
    }
  }
}
layer {
  name: "Sigmoid0"
  type: "Sigmoid"
  bottom: "conv0"
  top: "Sigmoid0"
}
layer {
  name: "pool0"
  type: "Pooling"
  bottom: "Sigmoid0"
  top: "pool0"
  pooling_param {
    pool: AVE
    kernel_size: 3
    stride: 2
  }
}
layer {
  name: "ip1"
  type: "InnerProduct"
  bottom: "pool0"
  top: "ip1"
  param {
    lr_mult: 1
  }
  param {
    lr_mult: 2
  }
  inner_product_param {
    num_output: 20
    weight_filler {
      type: "gaussian"
      std: 0.01
    }
    bias_filler {
      type: "constant"
    }
  }
}
layer {
  name: "relu1"
  type: "ReLU"
  bottom: "ip1"
  top: "ip1"
}
layer {
  name: "ip2"
  type: "InnerProduct"
  bottom: "ip1"
  top: "ip2"
  param {
    lr_mult: 1
  }
  param {
    lr_mult: 2
  }
  inner_product_param {
    num_output: 160
    weight_filler {
      type: "gaussian"
      std: 0.01
    }
    bias_filler {
      type: "constant"
    }
  }
}
layer {
  name: "relu2"
  type: "ReLU"
  bottom: "ip2"
  top: "ip2"
}
layer {
  name: "ip3"
  type: "InnerProduct"
  bottom: "ip2"
  top: "ip3"
  param {
    lr_mult: 1
  }
  param {
    lr_mult: 2
  }
  inner_product_param {
    num_output: 80
    weight_filler {
      type: "gaussian"
      std: 0.01
    }
    bias_filler {
      type: "constant"
    }
  }
}
layer {
  name: "relu3"
  type: "ReLU"
  bottom: "ip3"
  top: "ip3"
}
layer {
  name: "ip4"
  type: "InnerProduct"
  bottom: "ip3"
  top: "ip4"
  param {
    lr_mult: 1
  }
  param {
    lr_mult: 2
  }
  inner_product_param {
    num_output: 10
    weight_filler {
      type: "gaussian"
      std: 0.01
    }
    bias_filler {
      type: "constant"
    }
  }
}
layer {
  name: "loss"
  type: "SoftmaxWithLoss"
  bottom: "ip4"
  bottom: "label"
  top: "loss"
}
I0501 09:34:40.458936 14951 layer_factory.hpp:77] Creating layer cifar
I0501 09:34:40.459048 14951 db_lmdb.cpp:35] Opened lmdb examples/cifar10/cifar10_train_lmdb
I0501 09:34:40.459076 14951 net.cpp:86] Creating Layer cifar
I0501 09:34:40.459089 14951 net.cpp:382] cifar -> data
I0501 09:34:40.459115 14951 net.cpp:382] cifar -> label
I0501 09:34:40.459126 14951 data_transformer.cpp:25] Loading mean file from: examples/cifar10/mean.binaryproto
I0501 09:34:40.461293 14951 data_layer.cpp:45] output data size: 111,3,32,32
I0501 09:34:40.469270 14951 net.cpp:124] Setting up cifar
I0501 09:34:40.469290 14951 net.cpp:131] Top shape: 111 3 32 32 (340992)
I0501 09:34:40.469295 14951 net.cpp:131] Top shape: 111 (111)
I0501 09:34:40.469298 14951 net.cpp:139] Memory required for data: 1364412
I0501 09:34:40.469322 14951 layer_factory.hpp:77] Creating layer conv0
I0501 09:34:40.469343 14951 net.cpp:86] Creating Layer conv0
I0501 09:34:40.469349 14951 net.cpp:408] conv0 <- data
I0501 09:34:40.469365 14951 net.cpp:382] conv0 -> conv0
I0501 09:34:40.761237 14951 net.cpp:124] Setting up conv0
I0501 09:34:40.761266 14951 net.cpp:131] Top shape: 111 16 34 34 (2053056)
I0501 09:34:40.761271 14951 net.cpp:139] Memory required for data: 9576636
I0501 09:34:40.761287 14951 layer_factory.hpp:77] Creating layer Sigmoid0
I0501 09:34:40.761302 14951 net.cpp:86] Creating Layer Sigmoid0
I0501 09:34:40.761307 14951 net.cpp:408] Sigmoid0 <- conv0
I0501 09:34:40.761313 14951 net.cpp:382] Sigmoid0 -> Sigmoid0
I0501 09:34:40.761512 14951 net.cpp:124] Setting up Sigmoid0
I0501 09:34:40.761521 14951 net.cpp:131] Top shape: 111 16 34 34 (2053056)
I0501 09:34:40.761525 14951 net.cpp:139] Memory required for data: 17788860
I0501 09:34:40.761528 14951 layer_factory.hpp:77] Creating layer pool0
I0501 09:34:40.761536 14951 net.cpp:86] Creating Layer pool0
I0501 09:34:40.761539 14951 net.cpp:408] pool0 <- Sigmoid0
I0501 09:34:40.761545 14951 net.cpp:382] pool0 -> pool0
I0501 09:34:40.762362 14951 net.cpp:124] Setting up pool0
I0501 09:34:40.762377 14951 net.cpp:131] Top shape: 111 16 17 17 (513264)
I0501 09:34:40.762380 14951 net.cpp:139] Memory required for data: 19841916
I0501 09:34:40.762384 14951 layer_factory.hpp:77] Creating layer ip1
I0501 09:34:40.762394 14951 net.cpp:86] Creating Layer ip1
I0501 09:34:40.762398 14951 net.cpp:408] ip1 <- pool0
I0501 09:34:40.762403 14951 net.cpp:382] ip1 -> ip1
I0501 09:34:40.765337 14951 net.cpp:124] Setting up ip1
I0501 09:34:40.765347 14951 net.cpp:131] Top shape: 111 20 (2220)
I0501 09:34:40.765350 14951 net.cpp:139] Memory required for data: 19850796
I0501 09:34:40.765359 14951 layer_factory.hpp:77] Creating layer relu1
I0501 09:34:40.765365 14951 net.cpp:86] Creating Layer relu1
I0501 09:34:40.765368 14951 net.cpp:408] relu1 <- ip1
I0501 09:34:40.765373 14951 net.cpp:369] relu1 -> ip1 (in-place)
I0501 09:34:40.765534 14951 net.cpp:124] Setting up relu1
I0501 09:34:40.765543 14951 net.cpp:131] Top shape: 111 20 (2220)
I0501 09:34:40.765547 14951 net.cpp:139] Memory required for data: 19859676
I0501 09:34:40.765549 14951 layer_factory.hpp:77] Creating layer ip2
I0501 09:34:40.765557 14951 net.cpp:86] Creating Layer ip2
I0501 09:34:40.765559 14951 net.cpp:408] ip2 <- ip1
I0501 09:34:40.765564 14951 net.cpp:382] ip2 -> ip2
I0501 09:34:40.765758 14951 net.cpp:124] Setting up ip2
I0501 09:34:40.765765 14951 net.cpp:131] Top shape: 111 160 (17760)
I0501 09:34:40.765769 14951 net.cpp:139] Memory required for data: 19930716
I0501 09:34:40.765776 14951 layer_factory.hpp:77] Creating layer relu2
I0501 09:34:40.765781 14951 net.cpp:86] Creating Layer relu2
I0501 09:34:40.765785 14951 net.cpp:408] relu2 <- ip2
I0501 09:34:40.765789 14951 net.cpp:369] relu2 -> ip2 (in-place)
I0501 09:34:40.765947 14951 net.cpp:124] Setting up relu2
I0501 09:34:40.765955 14951 net.cpp:131] Top shape: 111 160 (17760)
I0501 09:34:40.765959 14951 net.cpp:139] Memory required for data: 20001756
I0501 09:34:40.765962 14951 layer_factory.hpp:77] Creating layer ip3
I0501 09:34:40.765969 14951 net.cpp:86] Creating Layer ip3
I0501 09:34:40.765974 14951 net.cpp:408] ip3 <- ip2
I0501 09:34:40.765979 14951 net.cpp:382] ip3 -> ip3
I0501 09:34:40.767338 14951 net.cpp:124] Setting up ip3
I0501 09:34:40.767350 14951 net.cpp:131] Top shape: 111 80 (8880)
I0501 09:34:40.767354 14951 net.cpp:139] Memory required for data: 20037276
I0501 09:34:40.767360 14951 layer_factory.hpp:77] Creating layer relu3
I0501 09:34:40.767366 14951 net.cpp:86] Creating Layer relu3
I0501 09:34:40.767370 14951 net.cpp:408] relu3 <- ip3
I0501 09:34:40.767375 14951 net.cpp:369] relu3 -> ip3 (in-place)
I0501 09:34:40.767545 14951 net.cpp:124] Setting up relu3
I0501 09:34:40.767554 14951 net.cpp:131] Top shape: 111 80 (8880)
I0501 09:34:40.767557 14951 net.cpp:139] Memory required for data: 20072796
I0501 09:34:40.767561 14951 layer_factory.hpp:77] Creating layer ip4
I0501 09:34:40.767583 14951 net.cpp:86] Creating Layer ip4
I0501 09:34:40.767587 14951 net.cpp:408] ip4 <- ip3
I0501 09:34:40.767592 14951 net.cpp:382] ip4 -> ip4
I0501 09:34:40.767722 14951 net.cpp:124] Setting up ip4
I0501 09:34:40.767730 14951 net.cpp:131] Top shape: 111 10 (1110)
I0501 09:34:40.767735 14951 net.cpp:139] Memory required for data: 20077236
I0501 09:34:40.767742 14951 layer_factory.hpp:77] Creating layer loss
I0501 09:34:40.767748 14951 net.cpp:86] Creating Layer loss
I0501 09:34:40.767751 14951 net.cpp:408] loss <- ip4
I0501 09:34:40.767755 14951 net.cpp:408] loss <- label
I0501 09:34:40.767761 14951 net.cpp:382] loss -> loss
I0501 09:34:40.767779 14951 layer_factory.hpp:77] Creating layer loss
…
I0501 09:34:40.769090 14951 solver.cpp:173] Creating test net (#0) specified by net file: ECE595/cifar/train_test/var_everything/cifar_train_test_543.prototxt
I0501 09:34:40.769119 14951 net.cpp:296] The NetState phase (1) differed from the phase (0) specified by a rule in layer cifar
I0501 09:34:40.769225 14951 net.cpp:53] Initializing net from parameters: 
name: "CIFAR"
state {
  phase: TEST
}
layer {
  name: "cifar"
  type: "Data"
  top: "data"
  top: "label"
  include {
    phase: TEST
  }
  transform_param {
    mean_file: "examples/cifar10/mean.binaryproto"
  }
  data_param {
    source: "examples/cifar10/cifar10_test_lmdb"
    batch_size: 1000
    backend: LMDB
  }
}
layer {
  name: "conv0"
  type: "Convolution"
  bottom: "data"
  top: "conv0"
  param {
    lr_mult: 1
  }
  param {
    lr_mult: 2
  }
  convolution_param {
    num_output: 16
    pad: 2
    kernel_size: 3
    stride: 1
    weight_filler {
      type: "gaussian"
      std: 0.01
    }
    bias_filler {
      type: "constant"
    }
  }
}
layer {
  name: "Sigmoid0"
  type: "Sigmoid"
  bottom: "conv0"
  top: "Sigmoid0"
}
layer {
  name: "pool0"
  type: "Pooling"
  bottom: "Sigmoid0"
  top: "pool0"
  pooling_param {
    pool: AVE
    kernel_size: 3
    stride: 2
  }
}
layer {
  name: "ip1"
  type: "InnerProduct"
  bottom: "pool0"
  top: "ip1"
  param {
    lr_mult: 1
  }
  param {
    lr_mult: 2
  }
  inner_product_param {
    num_output: 20
    weight_filler {
      type: "gaussian"
      std: 0.01
    }
    bias_filler {
      type: "constant"
    }
  }
}
layer {
  name: "relu1"
  type: "ReLU"
  bottom: "ip1"
  top: "ip1"
}
layer {
  name: "ip2"
  type: "InnerProduct"
  bottom: "ip1"
  top: "ip2"
  param {
    lr_mult: 1
  }
  param {
    lr_mult: 2
  }
  inner_product_param {
    num_output: 160
    weight_filler {
      type: "gaussian"
      std: 0.01
    }
    bias_filler {
      type: "constant"
    }
  }
}
layer {
  name: "relu2"
  type: "ReLU"
  bottom: "ip2"
  top: "ip2"
}
layer {
  name: "ip3"
  type: "InnerProduct"
  bottom: "ip2"
  top: "ip3"
  param {
    lr_mult: 1
  }
  param {
    lr_mult: 2
  }
  inner_product_param {
    num_output: 80
    weight_filler {
      type: "gaussian"
      std: 0.01
    }
    bias_filler {
      type: "constant"
    }
  }
}
layer {
  name: "relu3"
  type: "ReLU"
  bottom: "ip3"
  top: "ip3"
}
layer {
  name: "ip4"
  type: "InnerProduct"
  bottom: "ip3"
  top: "ip4"
  param {
    lr_mult: 1
  }
  param {
    lr_mult: 2
  }
  inner_product_param {
    num_output: 10
    weight_filler {
      type: "gaussian"
      std: 0.01
    }
    bias_filler {
      type: "constant"
    }
  }
}
layer {
  name: "accuracy"
  type: "Accuracy"
  bottom: "ip4"
  bottom: "label"
  top: "accuracy"
  include {
    phase: TEST
  }
}
layer {
  name: "loss"
  type: "SoftmaxWithLoss"
  bottom: "ip4"
  bottom: "label"
  top: "loss"
}
I0501 09:34:40.769309 14951 layer_factory.hpp:77] Creating layer cifar
I0501 09:34:40.769354 14951 db_lmdb.cpp:35] Opened lmdb examples/cifar10/cifar10_test_lmdb
I0501 09:34:40.769367 14951 net.cpp:86] Creating Layer cifar
I0501 09:34:40.769372 14951 net.cpp:382] cifar -> data
I0501 09:34:40.769381 14951 net.cpp:382] cifar -> label
I0501 09:34:40.769388 14951 data_transformer.cpp:25] Loading mean file from: examples/cifar10/mean.binaryproto
I0501 09:34:40.769536 14951 data_layer.cpp:45] output data size: 1000,3,32,32
I0501 09:34:40.792579 14951 net.cpp:124] Setting up cifar
I0501 09:34:40.792606 14951 net.cpp:131] Top shape: 1000 3 32 32 (3072000)
I0501 09:34:40.792613 14951 net.cpp:131] Top shape: 1000 (1000)
I0501 09:34:40.792616 14951 net.cpp:139] Memory required for data: 12292000
I0501 09:34:40.792621 14951 layer_factory.hpp:77] Creating layer label_cifar_1_split
I0501 09:34:40.792639 14951 net.cpp:86] Creating Layer label_cifar_1_split
I0501 09:34:40.792644 14951 net.cpp:408] label_cifar_1_split <- label
I0501 09:34:40.792649 14951 net.cpp:382] label_cifar_1_split -> label_cifar_1_split_0
I0501 09:34:40.792659 14951 net.cpp:382] label_cifar_1_split -> label_cifar_1_split_1
I0501 09:34:40.792770 14951 net.cpp:124] Setting up label_cifar_1_split
I0501 09:34:40.792778 14951 net.cpp:131] Top shape: 1000 (1000)
I0501 09:34:40.792783 14951 net.cpp:131] Top shape: 1000 (1000)
I0501 09:34:40.792785 14951 net.cpp:139] Memory required for data: 12300000
I0501 09:34:40.792788 14951 layer_factory.hpp:77] Creating layer conv0
I0501 09:34:40.792800 14951 net.cpp:86] Creating Layer conv0
I0501 09:34:40.792804 14951 net.cpp:408] conv0 <- data
I0501 09:34:40.792814 14951 net.cpp:382] conv0 -> conv0
I0501 09:34:40.794461 14951 net.cpp:124] Setting up conv0
I0501 09:34:40.794474 14951 net.cpp:131] Top shape: 1000 16 34 34 (18496000)
I0501 09:34:40.794477 14951 net.cpp:139] Memory required for data: 86284000
I0501 09:34:40.794490 14951 layer_factory.hpp:77] Creating layer Sigmoid0
I0501 09:34:40.794497 14951 net.cpp:86] Creating Layer Sigmoid0
I0501 09:34:40.794502 14951 net.cpp:408] Sigmoid0 <- conv0
I0501 09:34:40.794507 14951 net.cpp:382] Sigmoid0 -> Sigmoid0
I0501 09:34:40.794690 14951 net.cpp:124] Setting up Sigmoid0
I0501 09:34:40.794699 14951 net.cpp:131] Top shape: 1000 16 34 34 (18496000)
I0501 09:34:40.794703 14951 net.cpp:139] Memory required for data: 160268000
I0501 09:34:40.794705 14951 layer_factory.hpp:77] Creating layer pool0
I0501 09:34:40.794714 14951 net.cpp:86] Creating Layer pool0
I0501 09:34:40.794718 14951 net.cpp:408] pool0 <- Sigmoid0
I0501 09:34:40.794723 14951 net.cpp:382] pool0 -> pool0
I0501 09:34:40.795022 14951 net.cpp:124] Setting up pool0
I0501 09:34:40.795030 14951 net.cpp:131] Top shape: 1000 16 17 17 (4624000)
I0501 09:34:40.795033 14951 net.cpp:139] Memory required for data: 178764000
I0501 09:34:40.795037 14951 layer_factory.hpp:77] Creating layer ip1
I0501 09:34:40.795043 14951 net.cpp:86] Creating Layer ip1
I0501 09:34:40.795047 14951 net.cpp:408] ip1 <- pool0
I0501 09:34:40.795053 14951 net.cpp:382] ip1 -> ip1
I0501 09:34:40.798660 14951 net.cpp:124] Setting up ip1
I0501 09:34:40.798671 14951 net.cpp:131] Top shape: 1000 20 (20000)
I0501 09:34:40.798674 14951 net.cpp:139] Memory required for data: 178844000
I0501 09:34:40.798696 14951 layer_factory.hpp:77] Creating layer relu1
I0501 09:34:40.798703 14951 net.cpp:86] Creating Layer relu1
I0501 09:34:40.798707 14951 net.cpp:408] relu1 <- ip1
I0501 09:34:40.798712 14951 net.cpp:369] relu1 -> ip1 (in-place)
I0501 09:34:40.798884 14951 net.cpp:124] Setting up relu1
I0501 09:34:40.798893 14951 net.cpp:131] Top shape: 1000 20 (20000)
I0501 09:34:40.798897 14951 net.cpp:139] Memory required for data: 178924000
I0501 09:34:40.798900 14951 layer_factory.hpp:77] Creating layer ip2
I0501 09:34:40.798907 14951 net.cpp:86] Creating Layer ip2
I0501 09:34:40.798912 14951 net.cpp:408] ip2 <- ip1
I0501 09:34:40.798916 14951 net.cpp:382] ip2 -> ip2
I0501 09:34:40.799110 14951 net.cpp:124] Setting up ip2
I0501 09:34:40.799118 14951 net.cpp:131] Top shape: 1000 160 (160000)
I0501 09:34:40.799121 14951 net.cpp:139] Memory required for data: 179564000
I0501 09:34:40.799129 14951 layer_factory.hpp:77] Creating layer relu2
I0501 09:34:40.799134 14951 net.cpp:86] Creating Layer relu2
I0501 09:34:40.799137 14951 net.cpp:408] relu2 <- ip2
I0501 09:34:40.799142 14951 net.cpp:369] relu2 -> ip2 (in-place)
I0501 09:34:40.799896 14951 net.cpp:124] Setting up relu2
I0501 09:34:40.799907 14951 net.cpp:131] Top shape: 1000 160 (160000)
I0501 09:34:40.799911 14951 net.cpp:139] Memory required for data: 180204000
I0501 09:34:40.799914 14951 layer_factory.hpp:77] Creating layer ip3
I0501 09:34:40.799922 14951 net.cpp:86] Creating Layer ip3
I0501 09:34:40.799926 14951 net.cpp:408] ip3 <- ip2
I0501 09:34:40.799931 14951 net.cpp:382] ip3 -> ip3
I0501 09:34:40.800487 14951 net.cpp:124] Setting up ip3
I0501 09:34:40.800495 14951 net.cpp:131] Top shape: 1000 80 (80000)
I0501 09:34:40.800498 14951 net.cpp:139] Memory required for data: 180524000
I0501 09:34:40.800519 14951 layer_factory.hpp:77] Creating layer relu3
I0501 09:34:40.800524 14951 net.cpp:86] Creating Layer relu3
I0501 09:34:40.800528 14951 net.cpp:408] relu3 <- ip3
I0501 09:34:40.800534 14951 net.cpp:369] relu3 -> ip3 (in-place)
I0501 09:34:40.800739 14951 net.cpp:124] Setting up relu3
I0501 09:34:40.800746 14951 net.cpp:131] Top shape: 1000 80 (80000)
I0501 09:34:40.800750 14951 net.cpp:139] Memory required for data: 180844000
I0501 09:34:40.800752 14951 layer_factory.hpp:77] Creating layer ip4
I0501 09:34:40.800760 14951 net.cpp:86] Creating Layer ip4
I0501 09:34:40.800763 14951 net.cpp:408] ip4 <- ip3
I0501 09:34:40.800768 14951 net.cpp:382] ip4 -> ip4
I0501 09:34:40.800905 14951 net.cpp:124] Setting up ip4
I0501 09:34:40.800914 14951 net.cpp:131] Top shape: 1000 10 (10000)
I0501 09:34:40.800916 14951 net.cpp:139] Memory required for data: 180884000
I0501 09:34:40.800927 14951 layer_factory.hpp:77] Creating layer ip4_ip4_0_split
I0501 09:34:40.800933 14951 net.cpp:86] Creating Layer ip4_ip4_0_split
I0501 09:34:40.800936 14951 net.cpp:408] ip4_ip4_0_split <- ip4
I0501 09:34:40.800940 14951 net.cpp:382] ip4_ip4_0_split -> ip4_ip4_0_split_0
I0501 09:34:40.800945 14951 net.cpp:382] ip4_ip4_0_split -> ip4_ip4_0_split_1
I0501 09:34:40.800978 14951 net.cpp:124] Setting up ip4_ip4_0_split
I0501 09:34:40.800984 14951 net.cpp:131] Top shape: 1000 10 (10000)
I0501 09:34:40.800988 14951 net.cpp:131] Top shape: 1000 10 (10000)
I0501 09:34:40.800992 14951 net.cpp:139] Memory required for data: 180964000
I0501 09:34:40.800994 14951 layer_factory.hpp:77] Creating layer accuracy
I0501 09:34:40.800999 14951 net.cpp:86] Creating Layer accuracy
I0501 09:34:40.801002 14951 net.cpp:408] accuracy <- ip4_ip4_0_split_0
I0501 09:34:40.801007 14951 net.cpp:408] accuracy <- label_cifar_1_split_0
I0501 09:34:40.801012 14951 net.cpp:382] accuracy -> accuracy
…
