…
I0430 16:28:48.754766 17529 net.cpp:296] The NetState phase (0) differed from the phase (1) specified by a rule in layer cifar
I0430 16:28:48.754781 17529 net.cpp:296] The NetState phase (0) differed from the phase (1) specified by a rule in layer accuracy
I0430 16:28:48.754849 17529 net.cpp:53] Initializing net from parameters: 
name: "CIFAR"
state {
  phase: TRAIN
  level: 0
  stage: ""
}
layer {
  name: "cifar"
  type: "Data"
  top: "data"
  top: "label"
  include {
    phase: TRAIN
  }
  transform_param {
    mean_file: "examples/cifar10/mean.binaryproto"
  }
  data_param {
    source: "examples/cifar10/cifar10_train_lmdb"
    batch_size: 111
    backend: LMDB
  }
}
layer {
  name: "ip1"
  type: "InnerProduct"
  bottom: "data"
  top: "ip1"
  param {
    lr_mult: 1
  }
  param {
    lr_mult: 2
  }
  inner_product_param {
    num_output: 160
    weight_filler {
      type: "gaussian"
      std: 0.01
    }
    bias_filler {
      type: "constant"
    }
  }
}
layer {
  name: "relu1"
  type: "ReLU"
  bottom: "ip1"
  top: "ip1"
}
layer {
  name: "ip2"
  type: "InnerProduct"
  bottom: "ip1"
  top: "ip2"
  param {
    lr_mult: 1
  }
  param {
    lr_mult: 2
  }
  inner_product_param {
    num_output: 10
    weight_filler {
      type: "gaussian"
      std: 0.01
    }
    bias_filler {
      type: "constant"
    }
  }
}
layer {
  name: "loss"
  type: "SoftmaxWithLoss"
  bottom: "ip2"
  bottom: "label"
  top: "loss"
}
I0430 16:28:48.754907 17529 layer_factory.hpp:77] Creating layer cifar
I0430 16:28:48.755007 17529 db_lmdb.cpp:35] Opened lmdb examples/cifar10/cifar10_train_lmdb
I0430 16:28:48.755035 17529 net.cpp:86] Creating Layer cifar
I0430 16:28:48.755043 17529 net.cpp:382] cifar -> data
I0430 16:28:48.755066 17529 net.cpp:382] cifar -> label
I0430 16:28:48.755081 17529 data_transformer.cpp:25] Loading mean file from: examples/cifar10/mean.binaryproto
I0430 16:28:48.757189 17529 data_layer.cpp:45] output data size: 111,3,32,32
I0430 16:28:48.765033 17529 net.cpp:124] Setting up cifar
I0430 16:28:48.765053 17529 net.cpp:131] Top shape: 111 3 32 32 (340992)
I0430 16:28:48.765060 17529 net.cpp:131] Top shape: 111 (111)
I0430 16:28:48.765064 17529 net.cpp:139] Memory required for data: 1364412
I0430 16:28:48.765071 17529 layer_factory.hpp:77] Creating layer ip1
I0430 16:28:48.765082 17529 net.cpp:86] Creating Layer ip1
I0430 16:28:48.765089 17529 net.cpp:408] ip1 <- data
I0430 16:28:48.765102 17529 net.cpp:382] ip1 -> ip1
I0430 16:28:48.782390 17529 net.cpp:124] Setting up ip1
I0430 16:28:48.782407 17529 net.cpp:131] Top shape: 111 160 (17760)
I0430 16:28:48.782413 17529 net.cpp:139] Memory required for data: 1435452
I0430 16:28:48.782426 17529 layer_factory.hpp:77] Creating layer relu1
I0430 16:28:48.782436 17529 net.cpp:86] Creating Layer relu1
I0430 16:28:48.782440 17529 net.cpp:408] relu1 <- ip1
I0430 16:28:48.782446 17529 net.cpp:369] relu1 -> ip1 (in-place)
I0430 16:28:49.063247 17529 net.cpp:124] Setting up relu1
I0430 16:28:49.063273 17529 net.cpp:131] Top shape: 111 160 (17760)
I0430 16:28:49.063278 17529 net.cpp:139] Memory required for data: 1506492
I0430 16:28:49.063283 17529 layer_factory.hpp:77] Creating layer ip2
I0430 16:28:49.063295 17529 net.cpp:86] Creating Layer ip2
I0430 16:28:49.063302 17529 net.cpp:408] ip2 <- ip1
I0430 16:28:49.063309 17529 net.cpp:382] ip2 -> ip2
I0430 16:28:49.063465 17529 net.cpp:124] Setting up ip2
I0430 16:28:49.063473 17529 net.cpp:131] Top shape: 111 10 (1110)
I0430 16:28:49.063496 17529 net.cpp:139] Memory required for data: 1510932
I0430 16:28:49.063508 17529 layer_factory.hpp:77] Creating layer loss
I0430 16:28:49.063514 17529 net.cpp:86] Creating Layer loss
I0430 16:28:49.063518 17529 net.cpp:408] loss <- ip2
I0430 16:28:49.063522 17529 net.cpp:408] loss <- label
I0430 16:28:49.063526 17529 net.cpp:382] loss -> loss
I0430 16:28:49.063545 17529 layer_factory.hpp:77] Creating layer loss
…
I0430 16:28:49.064635 17529 solver.cpp:173] Creating test net (#0) specified by net file: ECE595/cifar/train_test/var_everything/cifar_train_test_4.prototxt
I0430 16:28:49.064656 17529 net.cpp:296] The NetState phase (1) differed from the phase (0) specified by a rule in layer cifar
I0430 16:28:49.064714 17529 net.cpp:53] Initializing net from parameters: 
name: "CIFAR"
state {
  phase: TEST
}
layer {
  name: "cifar"
  type: "Data"
  top: "data"
  top: "label"
  include {
    phase: TEST
  }
  transform_param {
    mean_file: "examples/cifar10/mean.binaryproto"
  }
  data_param {
    source: "examples/cifar10/cifar10_test_lmdb"
    batch_size: 1000
    backend: LMDB
  }
}
layer {
  name: "ip1"
  type: "InnerProduct"
  bottom: "data"
  top: "ip1"
  param {
    lr_mult: 1
  }
  param {
    lr_mult: 2
  }
  inner_product_param {
    num_output: 160
    weight_filler {
      type: "gaussian"
      std: 0.01
    }
    bias_filler {
      type: "constant"
    }
  }
}
layer {
  name: "relu1"
  type: "ReLU"
  bottom: "ip1"
  top: "ip1"
}
layer {
  name: "ip2"
  type: "InnerProduct"
  bottom: "ip1"
  top: "ip2"
  param {
    lr_mult: 1
  }
  param {
    lr_mult: 2
  }
  inner_product_param {
    num_output: 10
    weight_filler {
      type: "gaussian"
      std: 0.01
    }
    bias_filler {
      type: "constant"
    }
  }
}
layer {
  name: "accuracy"
  type: "Accuracy"
  bottom: "ip2"
  bottom: "label"
  top: "accuracy"
  include {
    phase: TEST
  }
}
layer {
  name: "loss"
  type: "SoftmaxWithLoss"
  bottom: "ip2"
  bottom: "label"
  top: "loss"
}
I0430 16:28:49.064764 17529 layer_factory.hpp:77] Creating layer cifar
I0430 16:28:49.064807 17529 db_lmdb.cpp:35] Opened lmdb examples/cifar10/cifar10_test_lmdb
I0430 16:28:49.064831 17529 net.cpp:86] Creating Layer cifar
I0430 16:28:49.064836 17529 net.cpp:382] cifar -> data
I0430 16:28:49.064843 17529 net.cpp:382] cifar -> label
I0430 16:28:49.064849 17529 data_transformer.cpp:25] Loading mean file from: examples/cifar10/mean.binaryproto
I0430 16:28:49.065007 17529 data_layer.cpp:45] output data size: 1000,3,32,32
I0430 16:28:49.087743 17529 net.cpp:124] Setting up cifar
I0430 16:28:49.087770 17529 net.cpp:131] Top shape: 1000 3 32 32 (3072000)
I0430 16:28:49.087776 17529 net.cpp:131] Top shape: 1000 (1000)
I0430 16:28:49.087779 17529 net.cpp:139] Memory required for data: 12292000
I0430 16:28:49.087785 17529 layer_factory.hpp:77] Creating layer label_cifar_1_split
I0430 16:28:49.087826 17529 net.cpp:86] Creating Layer label_cifar_1_split
I0430 16:28:49.087831 17529 net.cpp:408] label_cifar_1_split <- label
I0430 16:28:49.087837 17529 net.cpp:382] label_cifar_1_split -> label_cifar_1_split_0
I0430 16:28:49.087846 17529 net.cpp:382] label_cifar_1_split -> label_cifar_1_split_1
I0430 16:28:49.087894 17529 net.cpp:124] Setting up label_cifar_1_split
I0430 16:28:49.087900 17529 net.cpp:131] Top shape: 1000 (1000)
I0430 16:28:49.087918 17529 net.cpp:131] Top shape: 1000 (1000)
I0430 16:28:49.087921 17529 net.cpp:139] Memory required for data: 12300000
I0430 16:28:49.087924 17529 layer_factory.hpp:77] Creating layer ip1
I0430 16:28:49.087932 17529 net.cpp:86] Creating Layer ip1
I0430 16:28:49.087935 17529 net.cpp:408] ip1 <- data
I0430 16:28:49.087940 17529 net.cpp:382] ip1 -> ip1
I0430 16:28:49.101737 17529 net.cpp:124] Setting up ip1
I0430 16:28:49.101750 17529 net.cpp:131] Top shape: 1000 160 (160000)
I0430 16:28:49.101754 17529 net.cpp:139] Memory required for data: 12940000
I0430 16:28:49.101764 17529 layer_factory.hpp:77] Creating layer relu1
I0430 16:28:49.101771 17529 net.cpp:86] Creating Layer relu1
I0430 16:28:49.101775 17529 net.cpp:408] relu1 <- ip1
I0430 16:28:49.101779 17529 net.cpp:369] relu1 -> ip1 (in-place)
I0430 16:28:49.101950 17529 net.cpp:124] Setting up relu1
I0430 16:28:49.101958 17529 net.cpp:131] Top shape: 1000 160 (160000)
I0430 16:28:49.101961 17529 net.cpp:139] Memory required for data: 13580000
I0430 16:28:49.101964 17529 layer_factory.hpp:77] Creating layer ip2
I0430 16:28:49.101972 17529 net.cpp:86] Creating Layer ip2
I0430 16:28:49.101975 17529 net.cpp:408] ip2 <- ip1
I0430 16:28:49.101980 17529 net.cpp:382] ip2 -> ip2
I0430 16:28:49.102129 17529 net.cpp:124] Setting up ip2
I0430 16:28:49.102136 17529 net.cpp:131] Top shape: 1000 10 (10000)
I0430 16:28:49.102139 17529 net.cpp:139] Memory required for data: 13620000
I0430 16:28:49.102146 17529 layer_factory.hpp:77] Creating layer ip2_ip2_0_split
I0430 16:28:49.102151 17529 net.cpp:86] Creating Layer ip2_ip2_0_split
I0430 16:28:49.102154 17529 net.cpp:408] ip2_ip2_0_split <- ip2
I0430 16:28:49.102159 17529 net.cpp:382] ip2_ip2_0_split -> ip2_ip2_0_split_0
I0430 16:28:49.102164 17529 net.cpp:382] ip2_ip2_0_split -> ip2_ip2_0_split_1
I0430 16:28:49.102192 17529 net.cpp:124] Setting up ip2_ip2_0_split
I0430 16:28:49.102197 17529 net.cpp:131] Top shape: 1000 10 (10000)
I0430 16:28:49.102200 17529 net.cpp:131] Top shape: 1000 10 (10000)
I0430 16:28:49.102203 17529 net.cpp:139] Memory required for data: 13700000
I0430 16:28:49.102205 17529 layer_factory.hpp:77] Creating layer accuracy
I0430 16:28:49.102216 17529 net.cpp:86] Creating Layer accuracy
I0430 16:28:49.102218 17529 net.cpp:408] accuracy <- ip2_ip2_0_split_0
I0430 16:28:49.102222 17529 net.cpp:408] accuracy <- label_cifar_1_split_0
I0430 16:28:49.102227 17529 net.cpp:382] accuracy -> accuracy
…
