…
I0430 18:30:10.284561 23494 net.cpp:296] The NetState phase (0) differed from the phase (1) specified by a rule in layer cifar
I0430 18:30:10.284579 23494 net.cpp:296] The NetState phase (0) differed from the phase (1) specified by a rule in layer accuracy
I0430 18:30:10.284664 23494 net.cpp:53] Initializing net from parameters: 
name: "CIFAR"
state {
  phase: TRAIN
  level: 0
  stage: ""
}
layer {
  name: "cifar"
  type: "Data"
  top: "data"
  top: "label"
  include {
    phase: TRAIN
  }
  transform_param {
    mean_file: "examples/cifar10/mean.binaryproto"
  }
  data_param {
    source: "examples/cifar10/cifar10_train_lmdb"
    batch_size: 111
    backend: LMDB
  }
}
layer {
  name: "ip1"
  type: "InnerProduct"
  bottom: "data"
  top: "ip1"
  param {
    lr_mult: 1
  }
  param {
    lr_mult: 2
  }
  inner_product_param {
    num_output: 20
    weight_filler {
      type: "gaussian"
      std: 0.01
    }
    bias_filler {
      type: "constant"
    }
  }
}
layer {
  name: "relu1"
  type: "ReLU"
  bottom: "ip1"
  top: "ip1"
}
layer {
  name: "ip2"
  type: "InnerProduct"
  bottom: "ip1"
  top: "ip2"
  param {
    lr_mult: 1
  }
  param {
    lr_mult: 2
  }
  inner_product_param {
    num_output: 40
    weight_filler {
      type: "gaussian"
      std: 0.01
    }
    bias_filler {
      type: "constant"
    }
  }
}
layer {
  name: "relu2"
  type: "ReLU"
  bottom: "ip2"
  top: "ip2"
}
layer {
  name: "ip3"
  type: "InnerProduct"
  bottom: "ip2"
  top: "ip3"
  param {
    lr_mult: 1
  }
  param {
    lr_mult: 2
  }
  inner_product_param {
    num_output: 80
    weight_filler {
      type: "gaussian"
      std: 0.01
    }
    bias_filler {
      type: "constant"
    }
  }
}
layer {
  name: "relu3"
  type: "ReLU"
  bottom: "ip3"
  top: "ip3"
}
layer {
  name: "ip4"
  type: "InnerProduct"
  bottom: "ip3"
  top: "ip4"
  param {
    lr_mult: 1
  }
  param {
    lr_mult: 2
  }
  inner_product_param {
    num_output: 10
    weight_filler {
      type: "gaussian"
      std: 0.01
    }
    bias_filler {
      type: "constant"
    }
  }
}
layer {
  name: "loss"
  type: "SoftmaxWithLoss"
  bottom: "ip4"
  bottom: "label"
  top: "loss"
}
I0430 18:30:10.284734 23494 layer_factory.hpp:77] Creating layer cifar
I0430 18:30:10.284842 23494 db_lmdb.cpp:35] Opened lmdb examples/cifar10/cifar10_train_lmdb
I0430 18:30:10.284870 23494 net.cpp:86] Creating Layer cifar
I0430 18:30:10.284879 23494 net.cpp:382] cifar -> data
I0430 18:30:10.284903 23494 net.cpp:382] cifar -> label
I0430 18:30:10.284914 23494 data_transformer.cpp:25] Loading mean file from: examples/cifar10/mean.binaryproto
I0430 18:30:10.287055 23494 data_layer.cpp:45] output data size: 111,3,32,32
I0430 18:30:10.294960 23494 net.cpp:124] Setting up cifar
I0430 18:30:10.294980 23494 net.cpp:131] Top shape: 111 3 32 32 (340992)
I0430 18:30:10.294987 23494 net.cpp:131] Top shape: 111 (111)
I0430 18:30:10.294991 23494 net.cpp:139] Memory required for data: 1364412
I0430 18:30:10.294999 23494 layer_factory.hpp:77] Creating layer ip1
I0430 18:30:10.295011 23494 net.cpp:86] Creating Layer ip1
I0430 18:30:10.295017 23494 net.cpp:408] ip1 <- data
I0430 18:30:10.295027 23494 net.cpp:382] ip1 -> ip1
I0430 18:30:10.298251 23494 net.cpp:124] Setting up ip1
I0430 18:30:10.298267 23494 net.cpp:131] Top shape: 111 20 (2220)
I0430 18:30:10.298272 23494 net.cpp:139] Memory required for data: 1373292
I0430 18:30:10.298286 23494 layer_factory.hpp:77] Creating layer relu1
I0430 18:30:10.298298 23494 net.cpp:86] Creating Layer relu1
I0430 18:30:10.298318 23494 net.cpp:408] relu1 <- ip1
I0430 18:30:10.298324 23494 net.cpp:369] relu1 -> ip1 (in-place)
I0430 18:30:10.564599 23494 net.cpp:124] Setting up relu1
I0430 18:30:10.564641 23494 net.cpp:131] Top shape: 111 20 (2220)
I0430 18:30:10.564646 23494 net.cpp:139] Memory required for data: 1382172
I0430 18:30:10.564651 23494 layer_factory.hpp:77] Creating layer ip2
I0430 18:30:10.564662 23494 net.cpp:86] Creating Layer ip2
I0430 18:30:10.564666 23494 net.cpp:408] ip2 <- ip1
I0430 18:30:10.564674 23494 net.cpp:382] ip2 -> ip2
I0430 18:30:10.565716 23494 net.cpp:124] Setting up ip2
I0430 18:30:10.565742 23494 net.cpp:131] Top shape: 111 40 (4440)
I0430 18:30:10.565747 23494 net.cpp:139] Memory required for data: 1399932
I0430 18:30:10.565757 23494 layer_factory.hpp:77] Creating layer relu2
I0430 18:30:10.565764 23494 net.cpp:86] Creating Layer relu2
I0430 18:30:10.565768 23494 net.cpp:408] relu2 <- ip2
I0430 18:30:10.565773 23494 net.cpp:369] relu2 -> ip2 (in-place)
I0430 18:30:10.566509 23494 net.cpp:124] Setting up relu2
I0430 18:30:10.566521 23494 net.cpp:131] Top shape: 111 40 (4440)
I0430 18:30:10.566540 23494 net.cpp:139] Memory required for data: 1417692
I0430 18:30:10.566543 23494 layer_factory.hpp:77] Creating layer ip3
I0430 18:30:10.566550 23494 net.cpp:86] Creating Layer ip3
I0430 18:30:10.566553 23494 net.cpp:408] ip3 <- ip2
I0430 18:30:10.566558 23494 net.cpp:382] ip3 -> ip3
I0430 18:30:10.566752 23494 net.cpp:124] Setting up ip3
I0430 18:30:10.566761 23494 net.cpp:131] Top shape: 111 80 (8880)
I0430 18:30:10.566763 23494 net.cpp:139] Memory required for data: 1453212
I0430 18:30:10.566771 23494 layer_factory.hpp:77] Creating layer relu3
I0430 18:30:10.566776 23494 net.cpp:86] Creating Layer relu3
I0430 18:30:10.566779 23494 net.cpp:408] relu3 <- ip3
I0430 18:30:10.566783 23494 net.cpp:369] relu3 -> ip3 (in-place)
I0430 18:30:10.566926 23494 net.cpp:124] Setting up relu3
I0430 18:30:10.566934 23494 net.cpp:131] Top shape: 111 80 (8880)
I0430 18:30:10.566937 23494 net.cpp:139] Memory required for data: 1488732
I0430 18:30:10.566941 23494 layer_factory.hpp:77] Creating layer ip4
I0430 18:30:10.566946 23494 net.cpp:86] Creating Layer ip4
I0430 18:30:10.566949 23494 net.cpp:408] ip4 <- ip3
I0430 18:30:10.566954 23494 net.cpp:382] ip4 -> ip4
I0430 18:30:10.567066 23494 net.cpp:124] Setting up ip4
I0430 18:30:10.567073 23494 net.cpp:131] Top shape: 111 10 (1110)
I0430 18:30:10.567076 23494 net.cpp:139] Memory required for data: 1493172
I0430 18:30:10.567082 23494 layer_factory.hpp:77] Creating layer loss
I0430 18:30:10.567088 23494 net.cpp:86] Creating Layer loss
I0430 18:30:10.567091 23494 net.cpp:408] loss <- ip4
I0430 18:30:10.567095 23494 net.cpp:408] loss <- label
I0430 18:30:10.567101 23494 net.cpp:382] loss -> loss
I0430 18:30:10.567117 23494 layer_factory.hpp:77] Creating layer loss
…
I0430 18:30:10.567668 23494 solver.cpp:173] Creating test net (#0) specified by net file: ECE595/cifar/train_test/var_everything/cifar_train_test_68.prototxt
I0430 18:30:10.567706 23494 net.cpp:296] The NetState phase (1) differed from the phase (0) specified by a rule in layer cifar
I0430 18:30:10.567796 23494 net.cpp:53] Initializing net from parameters: 
name: "CIFAR"
state {
  phase: TEST
}
layer {
  name: "cifar"
  type: "Data"
  top: "data"
  top: "label"
  include {
    phase: TEST
  }
  transform_param {
    mean_file: "examples/cifar10/mean.binaryproto"
  }
  data_param {
    source: "examples/cifar10/cifar10_test_lmdb"
    batch_size: 1000
    backend: LMDB
  }
}
layer {
  name: "ip1"
  type: "InnerProduct"
  bottom: "data"
  top: "ip1"
  param {
    lr_mult: 1
  }
  param {
    lr_mult: 2
  }
  inner_product_param {
    num_output: 20
    weight_filler {
      type: "gaussian"
      std: 0.01
    }
    bias_filler {
      type: "constant"
    }
  }
}
layer {
  name: "relu1"
  type: "ReLU"
  bottom: "ip1"
  top: "ip1"
}
layer {
  name: "ip2"
  type: "InnerProduct"
  bottom: "ip1"
  top: "ip2"
  param {
    lr_mult: 1
  }
  param {
    lr_mult: 2
  }
  inner_product_param {
    num_output: 40
    weight_filler {
      type: "gaussian"
      std: 0.01
    }
    bias_filler {
      type: "constant"
    }
  }
}
layer {
  name: "relu2"
  type: "ReLU"
  bottom: "ip2"
  top: "ip2"
}
layer {
  name: "ip3"
  type: "InnerProduct"
  bottom: "ip2"
  top: "ip3"
  param {
    lr_mult: 1
  }
  param {
    lr_mult: 2
  }
  inner_product_param {
    num_output: 80
    weight_filler {
      type: "gaussian"
      std: 0.01
    }
    bias_filler {
      type: "constant"
    }
  }
}
layer {
  name: "relu3"
  type: "ReLU"
  bottom: "ip3"
  top: "ip3"
}
layer {
  name: "ip4"
  type: "InnerProduct"
  bottom: "ip3"
  top: "ip4"
  param {
    lr_mult: 1
  }
  param {
    lr_mult: 2
  }
  inner_product_param {
    num_output: 10
    weight_filler {
      type: "gaussian"
      std: 0.01
    }
    bias_filler {
      type: "constant"
    }
  }
}
layer {
  name: "accuracy"
  type: "Accuracy"
  bottom: "ip4"
  bottom: "label"
  top: "accuracy"
  include {
    phase: TEST
  }
}
layer {
  name: "loss"
  type: "SoftmaxWithLoss"
  bottom: "ip4"
  bottom: "label"
  top: "loss"
}
I0430 18:30:10.567853 23494 layer_factory.hpp:77] Creating layer cifar
I0430 18:30:10.567896 23494 db_lmdb.cpp:35] Opened lmdb examples/cifar10/cifar10_test_lmdb
I0430 18:30:10.567909 23494 net.cpp:86] Creating Layer cifar
I0430 18:30:10.567912 23494 net.cpp:382] cifar -> data
I0430 18:30:10.567920 23494 net.cpp:382] cifar -> label
I0430 18:30:10.567926 23494 data_transformer.cpp:25] Loading mean file from: examples/cifar10/mean.binaryproto
I0430 18:30:10.568068 23494 data_layer.cpp:45] output data size: 1000,3,32,32
I0430 18:30:10.589867 23494 net.cpp:124] Setting up cifar
I0430 18:30:10.589892 23494 net.cpp:131] Top shape: 1000 3 32 32 (3072000)
I0430 18:30:10.589897 23494 net.cpp:131] Top shape: 1000 (1000)
I0430 18:30:10.589900 23494 net.cpp:139] Memory required for data: 12292000
I0430 18:30:10.589905 23494 layer_factory.hpp:77] Creating layer label_cifar_1_split
I0430 18:30:10.589921 23494 net.cpp:86] Creating Layer label_cifar_1_split
I0430 18:30:10.589941 23494 net.cpp:408] label_cifar_1_split <- label
I0430 18:30:10.589948 23494 net.cpp:382] label_cifar_1_split -> label_cifar_1_split_0
I0430 18:30:10.589956 23494 net.cpp:382] label_cifar_1_split -> label_cifar_1_split_1
I0430 18:30:10.590052 23494 net.cpp:124] Setting up label_cifar_1_split
I0430 18:30:10.590061 23494 net.cpp:131] Top shape: 1000 (1000)
I0430 18:30:10.590065 23494 net.cpp:131] Top shape: 1000 (1000)
I0430 18:30:10.590067 23494 net.cpp:139] Memory required for data: 12300000
I0430 18:30:10.590070 23494 layer_factory.hpp:77] Creating layer ip1
I0430 18:30:10.590078 23494 net.cpp:86] Creating Layer ip1
I0430 18:30:10.590081 23494 net.cpp:408] ip1 <- data
I0430 18:30:10.590087 23494 net.cpp:382] ip1 -> ip1
I0430 18:30:10.592665 23494 net.cpp:124] Setting up ip1
I0430 18:30:10.592675 23494 net.cpp:131] Top shape: 1000 20 (20000)
I0430 18:30:10.592679 23494 net.cpp:139] Memory required for data: 12380000
I0430 18:30:10.592716 23494 layer_factory.hpp:77] Creating layer relu1
I0430 18:30:10.592725 23494 net.cpp:86] Creating Layer relu1
I0430 18:30:10.592727 23494 net.cpp:408] relu1 <- ip1
I0430 18:30:10.592732 23494 net.cpp:369] relu1 -> ip1 (in-place)
I0430 18:30:10.593560 23494 net.cpp:124] Setting up relu1
I0430 18:30:10.593574 23494 net.cpp:131] Top shape: 1000 20 (20000)
I0430 18:30:10.593576 23494 net.cpp:139] Memory required for data: 12460000
I0430 18:30:10.593580 23494 layer_factory.hpp:77] Creating layer ip2
I0430 18:30:10.593587 23494 net.cpp:86] Creating Layer ip2
I0430 18:30:10.593606 23494 net.cpp:408] ip2 <- ip1
I0430 18:30:10.593612 23494 net.cpp:382] ip2 -> ip2
I0430 18:30:10.593744 23494 net.cpp:124] Setting up ip2
I0430 18:30:10.593751 23494 net.cpp:131] Top shape: 1000 40 (40000)
I0430 18:30:10.593755 23494 net.cpp:139] Memory required for data: 12620000
I0430 18:30:10.593771 23494 layer_factory.hpp:77] Creating layer relu2
I0430 18:30:10.593776 23494 net.cpp:86] Creating Layer relu2
I0430 18:30:10.593780 23494 net.cpp:408] relu2 <- ip2
I0430 18:30:10.593785 23494 net.cpp:369] relu2 -> ip2 (in-place)
I0430 18:30:10.593945 23494 net.cpp:124] Setting up relu2
I0430 18:30:10.593953 23494 net.cpp:131] Top shape: 1000 40 (40000)
I0430 18:30:10.593957 23494 net.cpp:139] Memory required for data: 12780000
I0430 18:30:10.593961 23494 layer_factory.hpp:77] Creating layer ip3
I0430 18:30:10.593967 23494 net.cpp:86] Creating Layer ip3
I0430 18:30:10.593971 23494 net.cpp:408] ip3 <- ip2
I0430 18:30:10.593974 23494 net.cpp:382] ip3 -> ip3
I0430 18:30:10.594158 23494 net.cpp:124] Setting up ip3
I0430 18:30:10.594166 23494 net.cpp:131] Top shape: 1000 80 (80000)
I0430 18:30:10.594168 23494 net.cpp:139] Memory required for data: 13100000
I0430 18:30:10.594177 23494 layer_factory.hpp:77] Creating layer relu3
I0430 18:30:10.594208 23494 net.cpp:86] Creating Layer relu3
I0430 18:30:10.594216 23494 net.cpp:408] relu3 <- ip3
I0430 18:30:10.594221 23494 net.cpp:369] relu3 -> ip3 (in-place)
I0430 18:30:10.594383 23494 net.cpp:124] Setting up relu3
I0430 18:30:10.594393 23494 net.cpp:131] Top shape: 1000 80 (80000)
I0430 18:30:10.594395 23494 net.cpp:139] Memory required for data: 13420000
I0430 18:30:10.594398 23494 layer_factory.hpp:77] Creating layer ip4
I0430 18:30:10.594405 23494 net.cpp:86] Creating Layer ip4
I0430 18:30:10.594408 23494 net.cpp:408] ip4 <- ip3
I0430 18:30:10.594415 23494 net.cpp:382] ip4 -> ip4
I0430 18:30:10.594553 23494 net.cpp:124] Setting up ip4
I0430 18:30:10.594560 23494 net.cpp:131] Top shape: 1000 10 (10000)
I0430 18:30:10.594563 23494 net.cpp:139] Memory required for data: 13460000
I0430 18:30:10.594568 23494 layer_factory.hpp:77] Creating layer ip4_ip4_0_split
I0430 18:30:10.594573 23494 net.cpp:86] Creating Layer ip4_ip4_0_split
I0430 18:30:10.594576 23494 net.cpp:408] ip4_ip4_0_split <- ip4
I0430 18:30:10.594583 23494 net.cpp:382] ip4_ip4_0_split -> ip4_ip4_0_split_0
I0430 18:30:10.594589 23494 net.cpp:382] ip4_ip4_0_split -> ip4_ip4_0_split_1
I0430 18:30:10.594620 23494 net.cpp:124] Setting up ip4_ip4_0_split
I0430 18:30:10.594625 23494 net.cpp:131] Top shape: 1000 10 (10000)
I0430 18:30:10.594629 23494 net.cpp:131] Top shape: 1000 10 (10000)
I0430 18:30:10.594630 23494 net.cpp:139] Memory required for data: 13540000
I0430 18:30:10.594633 23494 layer_factory.hpp:77] Creating layer accuracy
I0430 18:30:10.594638 23494 net.cpp:86] Creating Layer accuracy
I0430 18:30:10.594641 23494 net.cpp:408] accuracy <- ip4_ip4_0_split_0
I0430 18:30:10.594645 23494 net.cpp:408] accuracy <- label_cifar_1_split_0
I0430 18:30:10.594650 23494 net.cpp:382] accuracy -> accuracy
…
