…
I0501 03:42:04.092121 22173 net.cpp:296] The NetState phase (0) differed from the phase (1) specified by a rule in layer cifar
I0501 03:42:04.092144 22173 net.cpp:296] The NetState phase (0) differed from the phase (1) specified by a rule in layer accuracy
I0501 03:42:04.092253 22173 net.cpp:53] Initializing net from parameters: 
name: "CIFAR"
state {
  phase: TRAIN
  level: 0
  stage: ""
}
layer {
  name: "cifar"
  type: "Data"
  top: "data"
  top: "label"
  include {
    phase: TRAIN
  }
  transform_param {
    mean_file: "examples/cifar10/mean.binaryproto"
  }
  data_param {
    source: "examples/cifar10/cifar10_train_lmdb"
    batch_size: 111
    backend: LMDB
  }
}
layer {
  name: "conv0"
  type: "Convolution"
  bottom: "data"
  top: "conv0"
  param {
    lr_mult: 1
  }
  param {
    lr_mult: 2
  }
  convolution_param {
    num_output: 8
    pad: 2
    kernel_size: 5
    stride: 1
    weight_filler {
      type: "gaussian"
      std: 0.01
    }
    bias_filler {
      type: "constant"
    }
  }
}
layer {
  name: "Sigmoid0"
  type: "Sigmoid"
  bottom: "conv0"
  top: "Sigmoid0"
}
layer {
  name: "pool0"
  type: "Pooling"
  bottom: "Sigmoid0"
  top: "pool0"
  pooling_param {
    pool: AVE
    kernel_size: 3
    stride: 2
  }
}
layer {
  name: "ip1"
  type: "InnerProduct"
  bottom: "pool0"
  top: "ip1"
  param {
    lr_mult: 1
  }
  param {
    lr_mult: 2
  }
  inner_product_param {
    num_output: 10
    weight_filler {
      type: "gaussian"
      std: 0.01
    }
    bias_filler {
      type: "constant"
    }
  }
}
layer {
  name: "relu1"
  type: "ReLU"
  bottom: "ip1"
  top: "ip1"
}
layer {
  name: "ip2"
  type: "InnerProduct"
  bottom: "ip1"
  top: "ip2"
  param {
    lr_mult: 1
  }
  param {
    lr_mult: 2
  }
  inner_product_param {
    num_output: 160
    weight_filler {
      type: "gaussian"
      std: 0.01
    }
    bias_filler {
      type: "constant"
    }
  }
}
layer {
  name: "relu2"
  type: "ReLU"
  bottom: "ip2"
  top: "ip2"
}
layer {
  name: "ip3"
  type: "InnerProduct"
  bottom: "ip2"
  top: "ip3"
  param {
    lr_mult: 1
  }
  param {
    lr_mult: 2
  }
  inner_product_param {
    num_output: 40
    weight_filler {
      type: "gaussian"
      std: 0.01
    }
    bias_filler {
      type: "constant"
    }
  }
}
layer {
  name: "relu3"
  type: "ReLU"
  bottom: "ip3"
  top: "ip3"
}
layer {
  name: "ip4"
  type: "InnerProduct"
  bottom: "ip3"
  top: "ip4"
  param {
    lr_mult: 1
  }
  param {
    lr_mult: 2
  }
  inner_product_param {
    num_output: 10
    weight_filler {
      type: "gaussian"
      std: 0.01
    }
    bias_filler {
      type: "constant"
    }
  }
}
layer {
  name: "loss"
  type: "SoftmaxWithLoss"
  bottom: "ip4"
  bottom: "label"
  top: "loss"
}
I0501 03:42:04.092327 22173 layer_factory.hpp:77] Creating layer cifar
I0501 03:42:04.092427 22173 db_lmdb.cpp:35] Opened lmdb examples/cifar10/cifar10_train_lmdb
I0501 03:42:04.092453 22173 net.cpp:86] Creating Layer cifar
I0501 03:42:04.092461 22173 net.cpp:382] cifar -> data
I0501 03:42:04.092484 22173 net.cpp:382] cifar -> label
I0501 03:42:04.092496 22173 data_transformer.cpp:25] Loading mean file from: examples/cifar10/mean.binaryproto
I0501 03:42:04.094607 22173 data_layer.cpp:45] output data size: 111,3,32,32
I0501 03:42:04.102656 22173 net.cpp:124] Setting up cifar
I0501 03:42:04.102676 22173 net.cpp:131] Top shape: 111 3 32 32 (340992)
I0501 03:42:04.102684 22173 net.cpp:131] Top shape: 111 (111)
I0501 03:42:04.102686 22173 net.cpp:139] Memory required for data: 1364412
I0501 03:42:04.102710 22173 layer_factory.hpp:77] Creating layer conv0
I0501 03:42:04.102730 22173 net.cpp:86] Creating Layer conv0
I0501 03:42:04.102735 22173 net.cpp:408] conv0 <- data
I0501 03:42:04.102748 22173 net.cpp:382] conv0 -> conv0
I0501 03:42:04.398255 22173 net.cpp:124] Setting up conv0
I0501 03:42:04.398290 22173 net.cpp:131] Top shape: 111 8 32 32 (909312)
I0501 03:42:04.398295 22173 net.cpp:139] Memory required for data: 5001660
I0501 03:42:04.398313 22173 layer_factory.hpp:77] Creating layer Sigmoid0
I0501 03:42:04.398326 22173 net.cpp:86] Creating Layer Sigmoid0
I0501 03:42:04.398332 22173 net.cpp:408] Sigmoid0 <- conv0
I0501 03:42:04.398339 22173 net.cpp:382] Sigmoid0 -> Sigmoid0
I0501 03:42:04.398545 22173 net.cpp:124] Setting up Sigmoid0
I0501 03:42:04.398556 22173 net.cpp:131] Top shape: 111 8 32 32 (909312)
I0501 03:42:04.398561 22173 net.cpp:139] Memory required for data: 8638908
I0501 03:42:04.398564 22173 layer_factory.hpp:77] Creating layer pool0
I0501 03:42:04.398571 22173 net.cpp:86] Creating Layer pool0
I0501 03:42:04.398576 22173 net.cpp:408] pool0 <- Sigmoid0
I0501 03:42:04.398581 22173 net.cpp:382] pool0 -> pool0
I0501 03:42:04.399467 22173 net.cpp:124] Setting up pool0
I0501 03:42:04.399484 22173 net.cpp:131] Top shape: 111 8 16 16 (227328)
I0501 03:42:04.399488 22173 net.cpp:139] Memory required for data: 9548220
I0501 03:42:04.399492 22173 layer_factory.hpp:77] Creating layer ip1
I0501 03:42:04.399503 22173 net.cpp:86] Creating Layer ip1
I0501 03:42:04.399507 22173 net.cpp:408] ip1 <- pool0
I0501 03:42:04.399515 22173 net.cpp:382] ip1 -> ip1
I0501 03:42:04.401317 22173 net.cpp:124] Setting up ip1
I0501 03:42:04.401332 22173 net.cpp:131] Top shape: 111 10 (1110)
I0501 03:42:04.401336 22173 net.cpp:139] Memory required for data: 9552660
I0501 03:42:04.401346 22173 layer_factory.hpp:77] Creating layer relu1
I0501 03:42:04.401355 22173 net.cpp:86] Creating Layer relu1
I0501 03:42:04.401358 22173 net.cpp:408] relu1 <- ip1
I0501 03:42:04.401365 22173 net.cpp:369] relu1 -> ip1 (in-place)
I0501 03:42:04.401553 22173 net.cpp:124] Setting up relu1
I0501 03:42:04.401564 22173 net.cpp:131] Top shape: 111 10 (1110)
I0501 03:42:04.401568 22173 net.cpp:139] Memory required for data: 9557100
I0501 03:42:04.401572 22173 layer_factory.hpp:77] Creating layer ip2
I0501 03:42:04.401581 22173 net.cpp:86] Creating Layer ip2
I0501 03:42:04.401584 22173 net.cpp:408] ip2 <- ip1
I0501 03:42:04.401590 22173 net.cpp:382] ip2 -> ip2
I0501 03:42:04.401751 22173 net.cpp:124] Setting up ip2
I0501 03:42:04.401760 22173 net.cpp:131] Top shape: 111 160 (17760)
I0501 03:42:04.401764 22173 net.cpp:139] Memory required for data: 9628140
I0501 03:42:04.401772 22173 layer_factory.hpp:77] Creating layer relu2
I0501 03:42:04.401779 22173 net.cpp:86] Creating Layer relu2
I0501 03:42:04.401782 22173 net.cpp:408] relu2 <- ip2
I0501 03:42:04.401787 22173 net.cpp:369] relu2 -> ip2 (in-place)
I0501 03:42:04.401973 22173 net.cpp:124] Setting up relu2
I0501 03:42:04.401981 22173 net.cpp:131] Top shape: 111 160 (17760)
I0501 03:42:04.401985 22173 net.cpp:139] Memory required for data: 9699180
I0501 03:42:04.401989 22173 layer_factory.hpp:77] Creating layer ip3
I0501 03:42:04.401998 22173 net.cpp:86] Creating Layer ip3
I0501 03:42:04.402001 22173 net.cpp:408] ip3 <- ip2
I0501 03:42:04.402007 22173 net.cpp:382] ip3 -> ip3
I0501 03:42:04.403321 22173 net.cpp:124] Setting up ip3
I0501 03:42:04.403336 22173 net.cpp:131] Top shape: 111 40 (4440)
I0501 03:42:04.403339 22173 net.cpp:139] Memory required for data: 9716940
I0501 03:42:04.403347 22173 layer_factory.hpp:77] Creating layer relu3
I0501 03:42:04.403353 22173 net.cpp:86] Creating Layer relu3
I0501 03:42:04.403357 22173 net.cpp:408] relu3 <- ip3
I0501 03:42:04.403363 22173 net.cpp:369] relu3 -> ip3 (in-place)
I0501 03:42:04.403553 22173 net.cpp:124] Setting up relu3
I0501 03:42:04.403563 22173 net.cpp:131] Top shape: 111 40 (4440)
I0501 03:42:04.403565 22173 net.cpp:139] Memory required for data: 9734700
I0501 03:42:04.403569 22173 layer_factory.hpp:77] Creating layer ip4
I0501 03:42:04.403601 22173 net.cpp:86] Creating Layer ip4
I0501 03:42:04.403605 22173 net.cpp:408] ip4 <- ip3
I0501 03:42:04.403611 22173 net.cpp:382] ip4 -> ip4
I0501 03:42:04.403738 22173 net.cpp:124] Setting up ip4
I0501 03:42:04.403748 22173 net.cpp:131] Top shape: 111 10 (1110)
I0501 03:42:04.403750 22173 net.cpp:139] Memory required for data: 9739140
I0501 03:42:04.403760 22173 layer_factory.hpp:77] Creating layer loss
I0501 03:42:04.403772 22173 net.cpp:86] Creating Layer loss
I0501 03:42:04.403777 22173 net.cpp:408] loss <- ip4
I0501 03:42:04.403782 22173 net.cpp:408] loss <- label
I0501 03:42:04.403789 22173 net.cpp:382] loss -> loss
I0501 03:42:04.403805 22173 layer_factory.hpp:77] Creating layer loss
…
I0501 03:42:04.405251 22173 solver.cpp:173] Creating test net (#0) specified by net file: ECE595/cifar/train_test/var_everything/cifar_train_test_362.prototxt
I0501 03:42:04.405285 22173 net.cpp:296] The NetState phase (1) differed from the phase (0) specified by a rule in layer cifar
I0501 03:42:04.405397 22173 net.cpp:53] Initializing net from parameters: 
name: "CIFAR"
state {
  phase: TEST
}
layer {
  name: "cifar"
  type: "Data"
  top: "data"
  top: "label"
  include {
    phase: TEST
  }
  transform_param {
    mean_file: "examples/cifar10/mean.binaryproto"
  }
  data_param {
    source: "examples/cifar10/cifar10_test_lmdb"
    batch_size: 1000
    backend: LMDB
  }
}
layer {
  name: "conv0"
  type: "Convolution"
  bottom: "data"
  top: "conv0"
  param {
    lr_mult: 1
  }
  param {
    lr_mult: 2
  }
  convolution_param {
    num_output: 8
    pad: 2
    kernel_size: 5
    stride: 1
    weight_filler {
      type: "gaussian"
      std: 0.01
    }
    bias_filler {
      type: "constant"
    }
  }
}
layer {
  name: "Sigmoid0"
  type: "Sigmoid"
  bottom: "conv0"
  top: "Sigmoid0"
}
layer {
  name: "pool0"
  type: "Pooling"
  bottom: "Sigmoid0"
  top: "pool0"
  pooling_param {
    pool: AVE
    kernel_size: 3
    stride: 2
  }
}
layer {
  name: "ip1"
  type: "InnerProduct"
  bottom: "pool0"
  top: "ip1"
  param {
    lr_mult: 1
  }
  param {
    lr_mult: 2
  }
  inner_product_param {
    num_output: 10
    weight_filler {
      type: "gaussian"
      std: 0.01
    }
    bias_filler {
      type: "constant"
    }
  }
}
layer {
  name: "relu1"
  type: "ReLU"
  bottom: "ip1"
  top: "ip1"
}
layer {
  name: "ip2"
  type: "InnerProduct"
  bottom: "ip1"
  top: "ip2"
  param {
    lr_mult: 1
  }
  param {
    lr_mult: 2
  }
  inner_product_param {
    num_output: 160
    weight_filler {
      type: "gaussian"
      std: 0.01
    }
    bias_filler {
      type: "constant"
    }
  }
}
layer {
  name: "relu2"
  type: "ReLU"
  bottom: "ip2"
  top: "ip2"
}
layer {
  name: "ip3"
  type: "InnerProduct"
  bottom: "ip2"
  top: "ip3"
  param {
    lr_mult: 1
  }
  param {
    lr_mult: 2
  }
  inner_product_param {
    num_output: 40
    weight_filler {
      type: "gaussian"
      std: 0.01
    }
    bias_filler {
      type: "constant"
    }
  }
}
layer {
  name: "relu3"
  type: "ReLU"
  bottom: "ip3"
  top: "ip3"
}
layer {
  name: "ip4"
  type: "InnerProduct"
  bottom: "ip3"
  top: "ip4"
  param {
    lr_mult: 1
  }
  param {
    lr_mult: 2
  }
  inner_product_param {
    num_output: 10
    weight_filler {
      type: "gaussian"
      std: 0.01
    }
    bias_filler {
      type: "constant"
    }
  }
}
layer {
  name: "accuracy"
  type: "Accuracy"
  bottom: "ip4"
  bottom: "label"
  top: "accuracy"
  include {
    phase: TEST
  }
}
layer {
  name: "loss"
  type: "SoftmaxWithLoss"
  bottom: "ip4"
  bottom: "label"
  top: "loss"
}
I0501 03:42:04.405493 22173 layer_factory.hpp:77] Creating layer cifar
I0501 03:42:04.405547 22173 db_lmdb.cpp:35] Opened lmdb examples/cifar10/cifar10_test_lmdb
I0501 03:42:04.405561 22173 net.cpp:86] Creating Layer cifar
I0501 03:42:04.405567 22173 net.cpp:382] cifar -> data
I0501 03:42:04.405576 22173 net.cpp:382] cifar -> label
I0501 03:42:04.405585 22173 data_transformer.cpp:25] Loading mean file from: examples/cifar10/mean.binaryproto
I0501 03:42:04.405757 22173 data_layer.cpp:45] output data size: 1000,3,32,32
I0501 03:42:04.431777 22173 net.cpp:124] Setting up cifar
I0501 03:42:04.431807 22173 net.cpp:131] Top shape: 1000 3 32 32 (3072000)
I0501 03:42:04.431815 22173 net.cpp:131] Top shape: 1000 (1000)
I0501 03:42:04.431819 22173 net.cpp:139] Memory required for data: 12292000
I0501 03:42:04.431825 22173 layer_factory.hpp:77] Creating layer label_cifar_1_split
I0501 03:42:04.431839 22173 net.cpp:86] Creating Layer label_cifar_1_split
I0501 03:42:04.431844 22173 net.cpp:408] label_cifar_1_split <- label
I0501 03:42:04.431851 22173 net.cpp:382] label_cifar_1_split -> label_cifar_1_split_0
I0501 03:42:04.431861 22173 net.cpp:382] label_cifar_1_split -> label_cifar_1_split_1
I0501 03:42:04.432010 22173 net.cpp:124] Setting up label_cifar_1_split
I0501 03:42:04.432019 22173 net.cpp:131] Top shape: 1000 (1000)
I0501 03:42:04.432024 22173 net.cpp:131] Top shape: 1000 (1000)
I0501 03:42:04.432027 22173 net.cpp:139] Memory required for data: 12300000
I0501 03:42:04.432031 22173 layer_factory.hpp:77] Creating layer conv0
I0501 03:42:04.432045 22173 net.cpp:86] Creating Layer conv0
I0501 03:42:04.432050 22173 net.cpp:408] conv0 <- data
I0501 03:42:04.432057 22173 net.cpp:382] conv0 -> conv0
I0501 03:42:04.433862 22173 net.cpp:124] Setting up conv0
I0501 03:42:04.433879 22173 net.cpp:131] Top shape: 1000 8 32 32 (8192000)
I0501 03:42:04.433884 22173 net.cpp:139] Memory required for data: 45068000
I0501 03:42:04.433897 22173 layer_factory.hpp:77] Creating layer Sigmoid0
I0501 03:42:04.433904 22173 net.cpp:86] Creating Layer Sigmoid0
I0501 03:42:04.433908 22173 net.cpp:408] Sigmoid0 <- conv0
I0501 03:42:04.433914 22173 net.cpp:382] Sigmoid0 -> Sigmoid0
I0501 03:42:04.435068 22173 net.cpp:124] Setting up Sigmoid0
I0501 03:42:04.435081 22173 net.cpp:131] Top shape: 1000 8 32 32 (8192000)
I0501 03:42:04.435086 22173 net.cpp:139] Memory required for data: 77836000
I0501 03:42:04.435089 22173 layer_factory.hpp:77] Creating layer pool0
I0501 03:42:04.435099 22173 net.cpp:86] Creating Layer pool0
I0501 03:42:04.435103 22173 net.cpp:408] pool0 <- Sigmoid0
I0501 03:42:04.435109 22173 net.cpp:382] pool0 -> pool0
I0501 03:42:04.435328 22173 net.cpp:124] Setting up pool0
I0501 03:42:04.435339 22173 net.cpp:131] Top shape: 1000 8 16 16 (2048000)
I0501 03:42:04.435343 22173 net.cpp:139] Memory required for data: 86028000
I0501 03:42:04.435348 22173 layer_factory.hpp:77] Creating layer ip1
I0501 03:42:04.435356 22173 net.cpp:86] Creating Layer ip1
I0501 03:42:04.435360 22173 net.cpp:408] ip1 <- pool0
I0501 03:42:04.435366 22173 net.cpp:382] ip1 -> ip1
I0501 03:42:04.436158 22173 net.cpp:124] Setting up ip1
I0501 03:42:04.436167 22173 net.cpp:131] Top shape: 1000 10 (10000)
I0501 03:42:04.436172 22173 net.cpp:139] Memory required for data: 86068000
I0501 03:42:04.436199 22173 layer_factory.hpp:77] Creating layer relu1
I0501 03:42:04.436206 22173 net.cpp:86] Creating Layer relu1
I0501 03:42:04.436210 22173 net.cpp:408] relu1 <- ip1
I0501 03:42:04.436215 22173 net.cpp:369] relu1 -> ip1 (in-place)
I0501 03:42:04.436408 22173 net.cpp:124] Setting up relu1
I0501 03:42:04.436417 22173 net.cpp:131] Top shape: 1000 10 (10000)
I0501 03:42:04.436421 22173 net.cpp:139] Memory required for data: 86108000
I0501 03:42:04.436424 22173 layer_factory.hpp:77] Creating layer ip2
I0501 03:42:04.436432 22173 net.cpp:86] Creating Layer ip2
I0501 03:42:04.436435 22173 net.cpp:408] ip2 <- ip1
I0501 03:42:04.436442 22173 net.cpp:382] ip2 -> ip2
I0501 03:42:04.436616 22173 net.cpp:124] Setting up ip2
I0501 03:42:04.436625 22173 net.cpp:131] Top shape: 1000 160 (160000)
I0501 03:42:04.436628 22173 net.cpp:139] Memory required for data: 86748000
I0501 03:42:04.436638 22173 layer_factory.hpp:77] Creating layer relu2
I0501 03:42:04.436645 22173 net.cpp:86] Creating Layer relu2
I0501 03:42:04.436650 22173 net.cpp:408] relu2 <- ip2
I0501 03:42:04.436655 22173 net.cpp:369] relu2 -> ip2 (in-place)
I0501 03:42:04.437547 22173 net.cpp:124] Setting up relu2
I0501 03:42:04.437563 22173 net.cpp:131] Top shape: 1000 160 (160000)
I0501 03:42:04.437568 22173 net.cpp:139] Memory required for data: 87388000
I0501 03:42:04.437572 22173 layer_factory.hpp:77] Creating layer ip3
I0501 03:42:04.437580 22173 net.cpp:86] Creating Layer ip3
I0501 03:42:04.437584 22173 net.cpp:408] ip3 <- ip2
I0501 03:42:04.437592 22173 net.cpp:382] ip3 -> ip3
I0501 03:42:04.437929 22173 net.cpp:124] Setting up ip3
I0501 03:42:04.437938 22173 net.cpp:131] Top shape: 1000 40 (40000)
I0501 03:42:04.437942 22173 net.cpp:139] Memory required for data: 87548000
I0501 03:42:04.437949 22173 layer_factory.hpp:77] Creating layer relu3
I0501 03:42:04.437957 22173 net.cpp:86] Creating Layer relu3
I0501 03:42:04.437959 22173 net.cpp:408] relu3 <- ip3
I0501 03:42:04.437965 22173 net.cpp:369] relu3 -> ip3 (in-place)
I0501 03:42:04.438146 22173 net.cpp:124] Setting up relu3
I0501 03:42:04.438155 22173 net.cpp:131] Top shape: 1000 40 (40000)
I0501 03:42:04.438159 22173 net.cpp:139] Memory required for data: 87708000
I0501 03:42:04.438163 22173 layer_factory.hpp:77] Creating layer ip4
I0501 03:42:04.438170 22173 net.cpp:86] Creating Layer ip4
I0501 03:42:04.438174 22173 net.cpp:408] ip4 <- ip3
I0501 03:42:04.438179 22173 net.cpp:382] ip4 -> ip4
I0501 03:42:04.438315 22173 net.cpp:124] Setting up ip4
I0501 03:42:04.438323 22173 net.cpp:131] Top shape: 1000 10 (10000)
I0501 03:42:04.438326 22173 net.cpp:139] Memory required for data: 87748000
I0501 03:42:04.438336 22173 layer_factory.hpp:77] Creating layer ip4_ip4_0_split
I0501 03:42:04.438343 22173 net.cpp:86] Creating Layer ip4_ip4_0_split
I0501 03:42:04.438346 22173 net.cpp:408] ip4_ip4_0_split <- ip4
I0501 03:42:04.438351 22173 net.cpp:382] ip4_ip4_0_split -> ip4_ip4_0_split_0
I0501 03:42:04.438357 22173 net.cpp:382] ip4_ip4_0_split -> ip4_ip4_0_split_1
I0501 03:42:04.438393 22173 net.cpp:124] Setting up ip4_ip4_0_split
I0501 03:42:04.438398 22173 net.cpp:131] Top shape: 1000 10 (10000)
I0501 03:42:04.438403 22173 net.cpp:131] Top shape: 1000 10 (10000)
I0501 03:42:04.438406 22173 net.cpp:139] Memory required for data: 87828000
I0501 03:42:04.438410 22173 layer_factory.hpp:77] Creating layer accuracy
I0501 03:42:04.438416 22173 net.cpp:86] Creating Layer accuracy
I0501 03:42:04.438421 22173 net.cpp:408] accuracy <- ip4_ip4_0_split_0
I0501 03:42:04.438426 22173 net.cpp:408] accuracy <- label_cifar_1_split_0
I0501 03:42:04.438431 22173 net.cpp:382] accuracy -> accuracy
…
