…
I0501 06:07:04.760684 31630 net.cpp:296] The NetState phase (0) differed from the phase (1) specified by a rule in layer cifar
I0501 06:07:04.760710 31630 net.cpp:296] The NetState phase (0) differed from the phase (1) specified by a rule in layer accuracy
I0501 06:07:04.760888 31630 net.cpp:53] Initializing net from parameters: 
name: "CIFAR"
state {
  phase: TRAIN
  level: 0
  stage: ""
}
layer {
  name: "cifar"
  type: "Data"
  top: "data"
  top: "label"
  include {
    phase: TRAIN
  }
  transform_param {
    mean_file: "examples/cifar10/mean.binaryproto"
  }
  data_param {
    source: "examples/cifar10/cifar10_train_lmdb"
    batch_size: 111
    backend: LMDB
  }
}
layer {
  name: "conv0"
  type: "Convolution"
  bottom: "data"
  top: "conv0"
  param {
    lr_mult: 1
  }
  param {
    lr_mult: 2
  }
  convolution_param {
    num_output: 8
    pad: 2
    kernel_size: 5
    stride: 1
    weight_filler {
      type: "gaussian"
      std: 0.01
    }
    bias_filler {
      type: "constant"
    }
  }
}
layer {
  name: "Sigmoid0"
  type: "Sigmoid"
  bottom: "conv0"
  top: "Sigmoid0"
}
layer {
  name: "pool0"
  type: "Pooling"
  bottom: "Sigmoid0"
  top: "pool0"
  pooling_param {
    pool: AVE
    kernel_size: 3
    stride: 2
  }
}
layer {
  name: "ip1"
  type: "InnerProduct"
  bottom: "pool0"
  top: "ip1"
  param {
    lr_mult: 1
  }
  param {
    lr_mult: 2
  }
  inner_product_param {
    num_output: 160
    weight_filler {
      type: "gaussian"
      std: 0.01
    }
    bias_filler {
      type: "constant"
    }
  }
}
layer {
  name: "relu1"
  type: "ReLU"
  bottom: "ip1"
  top: "ip1"
}
layer {
  name: "ip2"
  type: "InnerProduct"
  bottom: "ip1"
  top: "ip2"
  param {
    lr_mult: 1
  }
  param {
    lr_mult: 2
  }
  inner_product_param {
    num_output: 10
    weight_filler {
      type: "gaussian"
      std: 0.01
    }
    bias_filler {
      type: "constant"
    }
  }
}
layer {
  name: "relu2"
  type: "ReLU"
  bottom: "ip2"
  top: "ip2"
}
layer {
  name: "ip3"
  type: "InnerProduct"
  bottom: "ip2"
  top: "ip3"
  param {
    lr_mult: 1
  }
  param {
    lr_mult: 2
  }
  inner_product_param {
    num_output: 10
    weight_filler {
      type: "gaussian"
      std: 0.01
    }
    bias_filler {
      type: "constant"
    }
  }
}
layer {
  name: "relu3"
  type: "ReLU"
  bottom: "ip3"
  top: "ip3"
}
layer {
  name: "ip4"
  type: "InnerProduct"
  bottom: "ip3"
  top: "ip4"
  param {
    lr_mult: 1
  }
  param {
    lr_mult: 2
  }
  inner_product_param {
    num_output: 10
    weight_filler {
      type: "gaussian"
      std: 0.01
    }
    bias_filler {
      type: "constant"
    }
  }
}
layer {
  name: "loss"
  type: "SoftmaxWithLoss"
  bottom: "ip4"
  bottom: "label"
  top: "loss"
}
I0501 06:07:04.761001 31630 layer_factory.hpp:77] Creating layer cifar
I0501 06:07:04.761133 31630 db_lmdb.cpp:35] Opened lmdb examples/cifar10/cifar10_train_lmdb
I0501 06:07:04.761173 31630 net.cpp:86] Creating Layer cifar
I0501 06:07:04.761183 31630 net.cpp:382] cifar -> data
I0501 06:07:04.761214 31630 net.cpp:382] cifar -> label
I0501 06:07:04.761231 31630 data_transformer.cpp:25] Loading mean file from: examples/cifar10/mean.binaryproto
I0501 06:07:04.764087 31630 data_layer.cpp:45] output data size: 111,3,32,32
I0501 06:07:04.774507 31630 net.cpp:124] Setting up cifar
I0501 06:07:04.774533 31630 net.cpp:131] Top shape: 111 3 32 32 (340992)
I0501 06:07:04.774544 31630 net.cpp:131] Top shape: 111 (111)
I0501 06:07:04.774549 31630 net.cpp:139] Memory required for data: 1364412
I0501 06:07:04.774580 31630 layer_factory.hpp:77] Creating layer conv0
I0501 06:07:04.774608 31630 net.cpp:86] Creating Layer conv0
I0501 06:07:04.774618 31630 net.cpp:408] conv0 <- data
I0501 06:07:04.774636 31630 net.cpp:382] conv0 -> conv0
I0501 06:07:05.079704 31630 net.cpp:124] Setting up conv0
I0501 06:07:05.079737 31630 net.cpp:131] Top shape: 111 8 32 32 (909312)
I0501 06:07:05.079742 31630 net.cpp:139] Memory required for data: 5001660
I0501 06:07:05.079761 31630 layer_factory.hpp:77] Creating layer Sigmoid0
I0501 06:07:05.079776 31630 net.cpp:86] Creating Layer Sigmoid0
I0501 06:07:05.079780 31630 net.cpp:408] Sigmoid0 <- conv0
I0501 06:07:05.079787 31630 net.cpp:382] Sigmoid0 -> Sigmoid0
I0501 06:07:05.079993 31630 net.cpp:124] Setting up Sigmoid0
I0501 06:07:05.080004 31630 net.cpp:131] Top shape: 111 8 32 32 (909312)
I0501 06:07:05.080008 31630 net.cpp:139] Memory required for data: 8638908
I0501 06:07:05.080013 31630 layer_factory.hpp:77] Creating layer pool0
I0501 06:07:05.080020 31630 net.cpp:86] Creating Layer pool0
I0501 06:07:05.080024 31630 net.cpp:408] pool0 <- Sigmoid0
I0501 06:07:05.080030 31630 net.cpp:382] pool0 -> pool0
I0501 06:07:05.080920 31630 net.cpp:124] Setting up pool0
I0501 06:07:05.080937 31630 net.cpp:131] Top shape: 111 8 16 16 (227328)
I0501 06:07:05.080941 31630 net.cpp:139] Memory required for data: 9548220
I0501 06:07:05.080945 31630 layer_factory.hpp:77] Creating layer ip1
I0501 06:07:05.080956 31630 net.cpp:86] Creating Layer ip1
I0501 06:07:05.080960 31630 net.cpp:408] ip1 <- pool0
I0501 06:07:05.080966 31630 net.cpp:382] ip1 -> ip1
I0501 06:07:05.092820 31630 net.cpp:124] Setting up ip1
I0501 06:07:05.092836 31630 net.cpp:131] Top shape: 111 160 (17760)
I0501 06:07:05.092841 31630 net.cpp:139] Memory required for data: 9619260
I0501 06:07:05.092851 31630 layer_factory.hpp:77] Creating layer relu1
I0501 06:07:05.092859 31630 net.cpp:86] Creating Layer relu1
I0501 06:07:05.092864 31630 net.cpp:408] relu1 <- ip1
I0501 06:07:05.092870 31630 net.cpp:369] relu1 -> ip1 (in-place)
I0501 06:07:05.093061 31630 net.cpp:124] Setting up relu1
I0501 06:07:05.093071 31630 net.cpp:131] Top shape: 111 160 (17760)
I0501 06:07:05.093075 31630 net.cpp:139] Memory required for data: 9690300
I0501 06:07:05.093080 31630 layer_factory.hpp:77] Creating layer ip2
I0501 06:07:05.093087 31630 net.cpp:86] Creating Layer ip2
I0501 06:07:05.093091 31630 net.cpp:408] ip2 <- ip1
I0501 06:07:05.093097 31630 net.cpp:382] ip2 -> ip2
I0501 06:07:05.093261 31630 net.cpp:124] Setting up ip2
I0501 06:07:05.093268 31630 net.cpp:131] Top shape: 111 10 (1110)
I0501 06:07:05.093272 31630 net.cpp:139] Memory required for data: 9694740
I0501 06:07:05.093281 31630 layer_factory.hpp:77] Creating layer relu2
I0501 06:07:05.093286 31630 net.cpp:86] Creating Layer relu2
I0501 06:07:05.093291 31630 net.cpp:408] relu2 <- ip2
I0501 06:07:05.093296 31630 net.cpp:369] relu2 -> ip2 (in-place)
I0501 06:07:05.093480 31630 net.cpp:124] Setting up relu2
I0501 06:07:05.093490 31630 net.cpp:131] Top shape: 111 10 (1110)
I0501 06:07:05.093494 31630 net.cpp:139] Memory required for data: 9699180
I0501 06:07:05.093498 31630 layer_factory.hpp:77] Creating layer ip3
I0501 06:07:05.093507 31630 net.cpp:86] Creating Layer ip3
I0501 06:07:05.093510 31630 net.cpp:408] ip3 <- ip2
I0501 06:07:05.093516 31630 net.cpp:382] ip3 -> ip3
I0501 06:07:05.093628 31630 net.cpp:124] Setting up ip3
I0501 06:07:05.093637 31630 net.cpp:131] Top shape: 111 10 (1110)
I0501 06:07:05.093641 31630 net.cpp:139] Memory required for data: 9703620
I0501 06:07:05.093647 31630 layer_factory.hpp:77] Creating layer relu3
I0501 06:07:05.093652 31630 net.cpp:86] Creating Layer relu3
I0501 06:07:05.093657 31630 net.cpp:408] relu3 <- ip3
I0501 06:07:05.093662 31630 net.cpp:369] relu3 -> ip3 (in-place)
I0501 06:07:05.093837 31630 net.cpp:124] Setting up relu3
I0501 06:07:05.093847 31630 net.cpp:131] Top shape: 111 10 (1110)
I0501 06:07:05.093850 31630 net.cpp:139] Memory required for data: 9708060
I0501 06:07:05.093854 31630 layer_factory.hpp:77] Creating layer ip4
I0501 06:07:05.093880 31630 net.cpp:86] Creating Layer ip4
I0501 06:07:05.093884 31630 net.cpp:408] ip4 <- ip3
I0501 06:07:05.093890 31630 net.cpp:382] ip4 -> ip4
I0501 06:07:05.094003 31630 net.cpp:124] Setting up ip4
I0501 06:07:05.094012 31630 net.cpp:131] Top shape: 111 10 (1110)
I0501 06:07:05.094017 31630 net.cpp:139] Memory required for data: 9712500
I0501 06:07:05.094025 31630 layer_factory.hpp:77] Creating layer loss
I0501 06:07:05.094032 31630 net.cpp:86] Creating Layer loss
I0501 06:07:05.094035 31630 net.cpp:408] loss <- ip4
I0501 06:07:05.094040 31630 net.cpp:408] loss <- label
I0501 06:07:05.094046 31630 net.cpp:382] loss -> loss
I0501 06:07:05.094068 31630 layer_factory.hpp:77] Creating layer loss
…
I0501 06:07:05.095510 31630 solver.cpp:173] Creating test net (#0) specified by net file: ECE595/cifar/train_test/var_everything/cifar_train_test_440.prototxt
I0501 06:07:05.095543 31630 net.cpp:296] The NetState phase (1) differed from the phase (0) specified by a rule in layer cifar
I0501 06:07:05.095655 31630 net.cpp:53] Initializing net from parameters: 
name: "CIFAR"
state {
  phase: TEST
}
layer {
  name: "cifar"
  type: "Data"
  top: "data"
  top: "label"
  include {
    phase: TEST
  }
  transform_param {
    mean_file: "examples/cifar10/mean.binaryproto"
  }
  data_param {
    source: "examples/cifar10/cifar10_test_lmdb"
    batch_size: 1000
    backend: LMDB
  }
}
layer {
  name: "conv0"
  type: "Convolution"
  bottom: "data"
  top: "conv0"
  param {
    lr_mult: 1
  }
  param {
    lr_mult: 2
  }
  convolution_param {
    num_output: 8
    pad: 2
    kernel_size: 5
    stride: 1
    weight_filler {
      type: "gaussian"
      std: 0.01
    }
    bias_filler {
      type: "constant"
    }
  }
}
layer {
  name: "Sigmoid0"
  type: "Sigmoid"
  bottom: "conv0"
  top: "Sigmoid0"
}
layer {
  name: "pool0"
  type: "Pooling"
  bottom: "Sigmoid0"
  top: "pool0"
  pooling_param {
    pool: AVE
    kernel_size: 3
    stride: 2
  }
}
layer {
  name: "ip1"
  type: "InnerProduct"
  bottom: "pool0"
  top: "ip1"
  param {
    lr_mult: 1
  }
  param {
    lr_mult: 2
  }
  inner_product_param {
    num_output: 160
    weight_filler {
      type: "gaussian"
      std: 0.01
    }
    bias_filler {
      type: "constant"
    }
  }
}
layer {
  name: "relu1"
  type: "ReLU"
  bottom: "ip1"
  top: "ip1"
}
layer {
  name: "ip2"
  type: "InnerProduct"
  bottom: "ip1"
  top: "ip2"
  param {
    lr_mult: 1
  }
  param {
    lr_mult: 2
  }
  inner_product_param {
    num_output: 10
    weight_filler {
      type: "gaussian"
      std: 0.01
    }
    bias_filler {
      type: "constant"
    }
  }
}
layer {
  name: "relu2"
  type: "ReLU"
  bottom: "ip2"
  top: "ip2"
}
layer {
  name: "ip3"
  type: "InnerProduct"
  bottom: "ip2"
  top: "ip3"
  param {
    lr_mult: 1
  }
  param {
    lr_mult: 2
  }
  inner_product_param {
    num_output: 10
    weight_filler {
      type: "gaussian"
      std: 0.01
    }
    bias_filler {
      type: "constant"
    }
  }
}
layer {
  name: "relu3"
  type: "ReLU"
  bottom: "ip3"
  top: "ip3"
}
layer {
  name: "ip4"
  type: "InnerProduct"
  bottom: "ip3"
  top: "ip4"
  param {
    lr_mult: 1
  }
  param {
    lr_mult: 2
  }
  inner_product_param {
    num_output: 10
    weight_filler {
      type: "gaussian"
      std: 0.01
    }
    bias_filler {
      type: "constant"
    }
  }
}
layer {
  name: "accuracy"
  type: "Accuracy"
  bottom: "ip4"
  bottom: "label"
  top: "accuracy"
  include {
    phase: TEST
  }
}
layer {
  name: "loss"
  type: "SoftmaxWithLoss"
  bottom: "ip4"
  bottom: "label"
  top: "loss"
}
I0501 06:07:05.095752 31630 layer_factory.hpp:77] Creating layer cifar
I0501 06:07:05.095810 31630 db_lmdb.cpp:35] Opened lmdb examples/cifar10/cifar10_test_lmdb
I0501 06:07:05.095825 31630 net.cpp:86] Creating Layer cifar
I0501 06:07:05.095831 31630 net.cpp:382] cifar -> data
I0501 06:07:05.095841 31630 net.cpp:382] cifar -> label
I0501 06:07:05.095849 31630 data_transformer.cpp:25] Loading mean file from: examples/cifar10/mean.binaryproto
I0501 06:07:05.096020 31630 data_layer.cpp:45] output data size: 1000,3,32,32
I0501 06:07:05.121978 31630 net.cpp:124] Setting up cifar
I0501 06:07:05.122006 31630 net.cpp:131] Top shape: 1000 3 32 32 (3072000)
I0501 06:07:05.122014 31630 net.cpp:131] Top shape: 1000 (1000)
I0501 06:07:05.122018 31630 net.cpp:139] Memory required for data: 12292000
I0501 06:07:05.122025 31630 layer_factory.hpp:77] Creating layer label_cifar_1_split
I0501 06:07:05.122043 31630 net.cpp:86] Creating Layer label_cifar_1_split
I0501 06:07:05.122050 31630 net.cpp:408] label_cifar_1_split <- label
I0501 06:07:05.122056 31630 net.cpp:382] label_cifar_1_split -> label_cifar_1_split_0
I0501 06:07:05.122066 31630 net.cpp:382] label_cifar_1_split -> label_cifar_1_split_1
I0501 06:07:05.122184 31630 net.cpp:124] Setting up label_cifar_1_split
I0501 06:07:05.122192 31630 net.cpp:131] Top shape: 1000 (1000)
I0501 06:07:05.122197 31630 net.cpp:131] Top shape: 1000 (1000)
I0501 06:07:05.122201 31630 net.cpp:139] Memory required for data: 12300000
I0501 06:07:05.122205 31630 layer_factory.hpp:77] Creating layer conv0
I0501 06:07:05.122218 31630 net.cpp:86] Creating Layer conv0
I0501 06:07:05.122222 31630 net.cpp:408] conv0 <- data
I0501 06:07:05.122229 31630 net.cpp:382] conv0 -> conv0
I0501 06:07:05.124945 31630 net.cpp:124] Setting up conv0
I0501 06:07:05.124964 31630 net.cpp:131] Top shape: 1000 8 32 32 (8192000)
I0501 06:07:05.124969 31630 net.cpp:139] Memory required for data: 45068000
I0501 06:07:05.124986 31630 layer_factory.hpp:77] Creating layer Sigmoid0
I0501 06:07:05.124994 31630 net.cpp:86] Creating Layer Sigmoid0
I0501 06:07:05.125000 31630 net.cpp:408] Sigmoid0 <- conv0
I0501 06:07:05.125005 31630 net.cpp:382] Sigmoid0 -> Sigmoid0
I0501 06:07:05.125248 31630 net.cpp:124] Setting up Sigmoid0
I0501 06:07:05.125259 31630 net.cpp:131] Top shape: 1000 8 32 32 (8192000)
I0501 06:07:05.125263 31630 net.cpp:139] Memory required for data: 77836000
I0501 06:07:05.125267 31630 layer_factory.hpp:77] Creating layer pool0
I0501 06:07:05.125277 31630 net.cpp:86] Creating Layer pool0
I0501 06:07:05.125280 31630 net.cpp:408] pool0 <- Sigmoid0
I0501 06:07:05.125286 31630 net.cpp:382] pool0 -> pool0
I0501 06:07:05.125481 31630 net.cpp:124] Setting up pool0
I0501 06:07:05.125490 31630 net.cpp:131] Top shape: 1000 8 16 16 (2048000)
I0501 06:07:05.125494 31630 net.cpp:139] Memory required for data: 86028000
I0501 06:07:05.125499 31630 layer_factory.hpp:77] Creating layer ip1
I0501 06:07:05.125507 31630 net.cpp:86] Creating Layer ip1
I0501 06:07:05.125511 31630 net.cpp:408] ip1 <- pool0
I0501 06:07:05.125517 31630 net.cpp:382] ip1 -> ip1
I0501 06:07:05.137354 31630 net.cpp:124] Setting up ip1
I0501 06:07:05.137370 31630 net.cpp:131] Top shape: 1000 160 (160000)
I0501 06:07:05.137375 31630 net.cpp:139] Memory required for data: 86668000
I0501 06:07:05.137403 31630 layer_factory.hpp:77] Creating layer relu1
I0501 06:07:05.137410 31630 net.cpp:86] Creating Layer relu1
I0501 06:07:05.137414 31630 net.cpp:408] relu1 <- ip1
I0501 06:07:05.137420 31630 net.cpp:369] relu1 -> ip1 (in-place)
I0501 06:07:05.137632 31630 net.cpp:124] Setting up relu1
I0501 06:07:05.137645 31630 net.cpp:131] Top shape: 1000 160 (160000)
I0501 06:07:05.137648 31630 net.cpp:139] Memory required for data: 87308000
I0501 06:07:05.137652 31630 layer_factory.hpp:77] Creating layer ip2
I0501 06:07:05.137660 31630 net.cpp:86] Creating Layer ip2
I0501 06:07:05.137665 31630 net.cpp:408] ip2 <- ip1
I0501 06:07:05.137670 31630 net.cpp:382] ip2 -> ip2
I0501 06:07:05.137848 31630 net.cpp:124] Setting up ip2
I0501 06:07:05.137858 31630 net.cpp:131] Top shape: 1000 10 (10000)
I0501 06:07:05.137862 31630 net.cpp:139] Memory required for data: 87348000
I0501 06:07:05.137871 31630 layer_factory.hpp:77] Creating layer relu2
I0501 06:07:05.137878 31630 net.cpp:86] Creating Layer relu2
I0501 06:07:05.137882 31630 net.cpp:408] relu2 <- ip2
I0501 06:07:05.137888 31630 net.cpp:369] relu2 -> ip2 (in-place)
I0501 06:07:05.138777 31630 net.cpp:124] Setting up relu2
I0501 06:07:05.138792 31630 net.cpp:131] Top shape: 1000 10 (10000)
I0501 06:07:05.138795 31630 net.cpp:139] Memory required for data: 87388000
I0501 06:07:05.138800 31630 layer_factory.hpp:77] Creating layer ip3
I0501 06:07:05.138808 31630 net.cpp:86] Creating Layer ip3
I0501 06:07:05.138813 31630 net.cpp:408] ip3 <- ip2
I0501 06:07:05.138820 31630 net.cpp:382] ip3 -> ip3
I0501 06:07:05.138950 31630 net.cpp:124] Setting up ip3
I0501 06:07:05.138959 31630 net.cpp:131] Top shape: 1000 10 (10000)
I0501 06:07:05.138962 31630 net.cpp:139] Memory required for data: 87428000
I0501 06:07:05.138969 31630 layer_factory.hpp:77] Creating layer relu3
I0501 06:07:05.138975 31630 net.cpp:86] Creating Layer relu3
I0501 06:07:05.138979 31630 net.cpp:408] relu3 <- ip3
I0501 06:07:05.138984 31630 net.cpp:369] relu3 -> ip3 (in-place)
I0501 06:07:05.139163 31630 net.cpp:124] Setting up relu3
I0501 06:07:05.139173 31630 net.cpp:131] Top shape: 1000 10 (10000)
I0501 06:07:05.139176 31630 net.cpp:139] Memory required for data: 87468000
I0501 06:07:05.139180 31630 layer_factory.hpp:77] Creating layer ip4
I0501 06:07:05.139188 31630 net.cpp:86] Creating Layer ip4
I0501 06:07:05.139191 31630 net.cpp:408] ip4 <- ip3
I0501 06:07:05.139197 31630 net.cpp:382] ip4 -> ip4
I0501 06:07:05.139322 31630 net.cpp:124] Setting up ip4
I0501 06:07:05.139329 31630 net.cpp:131] Top shape: 1000 10 (10000)
I0501 06:07:05.139333 31630 net.cpp:139] Memory required for data: 87508000
I0501 06:07:05.139343 31630 layer_factory.hpp:77] Creating layer ip4_ip4_0_split
I0501 06:07:05.139349 31630 net.cpp:86] Creating Layer ip4_ip4_0_split
I0501 06:07:05.139353 31630 net.cpp:408] ip4_ip4_0_split <- ip4
I0501 06:07:05.139358 31630 net.cpp:382] ip4_ip4_0_split -> ip4_ip4_0_split_0
I0501 06:07:05.139364 31630 net.cpp:382] ip4_ip4_0_split -> ip4_ip4_0_split_1
I0501 06:07:05.139401 31630 net.cpp:124] Setting up ip4_ip4_0_split
I0501 06:07:05.139408 31630 net.cpp:131] Top shape: 1000 10 (10000)
I0501 06:07:05.139412 31630 net.cpp:131] Top shape: 1000 10 (10000)
I0501 06:07:05.139416 31630 net.cpp:139] Memory required for data: 87588000
I0501 06:07:05.139420 31630 layer_factory.hpp:77] Creating layer accuracy
I0501 06:07:05.139426 31630 net.cpp:86] Creating Layer accuracy
I0501 06:07:05.139431 31630 net.cpp:408] accuracy <- ip4_ip4_0_split_0
I0501 06:07:05.139436 31630 net.cpp:408] accuracy <- label_cifar_1_split_0
I0501 06:07:05.139441 31630 net.cpp:382] accuracy -> accuracy
…
