…
I0501 00:22:01.344483  6856 net.cpp:296] The NetState phase (0) differed from the phase (1) specified by a rule in layer cifar
I0501 00:22:01.344503  6856 net.cpp:296] The NetState phase (0) differed from the phase (1) specified by a rule in layer accuracy
I0501 00:22:01.344609  6856 net.cpp:53] Initializing net from parameters: 
name: "CIFAR"
state {
  phase: TRAIN
  level: 0
  stage: ""
}
layer {
  name: "cifar"
  type: "Data"
  top: "data"
  top: "label"
  include {
    phase: TRAIN
  }
  transform_param {
    mean_file: "examples/cifar10/mean.binaryproto"
  }
  data_param {
    source: "examples/cifar10/cifar10_train_lmdb"
    batch_size: 111
    backend: LMDB
  }
}
layer {
  name: "conv0"
  type: "Convolution"
  bottom: "data"
  top: "conv0"
  param {
    lr_mult: 1
  }
  param {
    lr_mult: 2
  }
  convolution_param {
    num_output: 8
    pad: 2
    kernel_size: 3
    stride: 1
    weight_filler {
      type: "gaussian"
      std: 0.01
    }
    bias_filler {
      type: "constant"
    }
  }
}
layer {
  name: "Sigmoid0"
  type: "Sigmoid"
  bottom: "conv0"
  top: "Sigmoid0"
}
layer {
  name: "pool0"
  type: "Pooling"
  bottom: "Sigmoid0"
  top: "pool0"
  pooling_param {
    pool: AVE
    kernel_size: 3
    stride: 2
  }
}
layer {
  name: "ip1"
  type: "InnerProduct"
  bottom: "pool0"
  top: "ip1"
  param {
    lr_mult: 1
  }
  param {
    lr_mult: 2
  }
  inner_product_param {
    num_output: 40
    weight_filler {
      type: "gaussian"
      std: 0.01
    }
    bias_filler {
      type: "constant"
    }
  }
}
layer {
  name: "relu1"
  type: "ReLU"
  bottom: "ip1"
  top: "ip1"
}
layer {
  name: "ip2"
  type: "InnerProduct"
  bottom: "ip1"
  top: "ip2"
  param {
    lr_mult: 1
  }
  param {
    lr_mult: 2
  }
  inner_product_param {
    num_output: 160
    weight_filler {
      type: "gaussian"
      std: 0.01
    }
    bias_filler {
      type: "constant"
    }
  }
}
layer {
  name: "relu2"
  type: "ReLU"
  bottom: "ip2"
  top: "ip2"
}
layer {
  name: "ip3"
  type: "InnerProduct"
  bottom: "ip2"
  top: "ip3"
  param {
    lr_mult: 1
  }
  param {
    lr_mult: 2
  }
  inner_product_param {
    num_output: 10
    weight_filler {
      type: "gaussian"
      std: 0.01
    }
    bias_filler {
      type: "constant"
    }
  }
}
layer {
  name: "relu3"
  type: "ReLU"
  bottom: "ip3"
  top: "ip3"
}
layer {
  name: "ip4"
  type: "InnerProduct"
  bottom: "ip3"
  top: "ip4"
  param {
    lr_mult: 1
  }
  param {
    lr_mult: 2
  }
  inner_product_param {
    num_output: 10
    weight_filler {
      type: "gaussian"
      std: 0.01
    }
    bias_filler {
      type: "constant"
    }
  }
}
layer {
  name: "loss"
  type: "SoftmaxWithLoss"
  bottom: "ip4"
  bottom: "label"
  top: "loss"
}
I0501 00:22:01.344691  6856 layer_factory.hpp:77] Creating layer cifar
I0501 00:22:01.344794  6856 db_lmdb.cpp:35] Opened lmdb examples/cifar10/cifar10_train_lmdb
I0501 00:22:01.344827  6856 net.cpp:86] Creating Layer cifar
I0501 00:22:01.344836  6856 net.cpp:382] cifar -> data
I0501 00:22:01.344858  6856 net.cpp:382] cifar -> label
I0501 00:22:01.344871  6856 data_transformer.cpp:25] Loading mean file from: examples/cifar10/mean.binaryproto
I0501 00:22:01.347015  6856 data_layer.cpp:45] output data size: 111,3,32,32
I0501 00:22:01.355420  6856 net.cpp:124] Setting up cifar
I0501 00:22:01.355443  6856 net.cpp:131] Top shape: 111 3 32 32 (340992)
I0501 00:22:01.355448  6856 net.cpp:131] Top shape: 111 (111)
I0501 00:22:01.355453  6856 net.cpp:139] Memory required for data: 1364412
I0501 00:22:01.355479  6856 layer_factory.hpp:77] Creating layer conv0
I0501 00:22:01.355502  6856 net.cpp:86] Creating Layer conv0
I0501 00:22:01.355514  6856 net.cpp:408] conv0 <- data
I0501 00:22:01.355526  6856 net.cpp:382] conv0 -> conv0
I0501 00:22:01.634073  6856 net.cpp:124] Setting up conv0
I0501 00:22:01.634127  6856 net.cpp:131] Top shape: 111 8 34 34 (1026528)
I0501 00:22:01.634131  6856 net.cpp:139] Memory required for data: 5470524
I0501 00:22:01.634146  6856 layer_factory.hpp:77] Creating layer Sigmoid0
I0501 00:22:01.634158  6856 net.cpp:86] Creating Layer Sigmoid0
I0501 00:22:01.634161  6856 net.cpp:408] Sigmoid0 <- conv0
I0501 00:22:01.634168  6856 net.cpp:382] Sigmoid0 -> Sigmoid0
I0501 00:22:01.634364  6856 net.cpp:124] Setting up Sigmoid0
I0501 00:22:01.634373  6856 net.cpp:131] Top shape: 111 8 34 34 (1026528)
I0501 00:22:01.634377  6856 net.cpp:139] Memory required for data: 9576636
I0501 00:22:01.634379  6856 layer_factory.hpp:77] Creating layer pool0
I0501 00:22:01.634387  6856 net.cpp:86] Creating Layer pool0
I0501 00:22:01.634389  6856 net.cpp:408] pool0 <- Sigmoid0
I0501 00:22:01.634393  6856 net.cpp:382] pool0 -> pool0
I0501 00:22:01.635099  6856 net.cpp:124] Setting up pool0
I0501 00:22:01.635113  6856 net.cpp:131] Top shape: 111 8 17 17 (256632)
I0501 00:22:01.635116  6856 net.cpp:139] Memory required for data: 10603164
I0501 00:22:01.635119  6856 layer_factory.hpp:77] Creating layer ip1
I0501 00:22:01.635128  6856 net.cpp:86] Creating Layer ip1
I0501 00:22:01.635130  6856 net.cpp:408] ip1 <- pool0
I0501 00:22:01.635138  6856 net.cpp:382] ip1 -> ip1
I0501 00:22:01.637605  6856 net.cpp:124] Setting up ip1
I0501 00:22:01.637614  6856 net.cpp:131] Top shape: 111 40 (4440)
I0501 00:22:01.637616  6856 net.cpp:139] Memory required for data: 10620924
I0501 00:22:01.637624  6856 layer_factory.hpp:77] Creating layer relu1
I0501 00:22:01.637630  6856 net.cpp:86] Creating Layer relu1
I0501 00:22:01.637634  6856 net.cpp:408] relu1 <- ip1
I0501 00:22:01.637637  6856 net.cpp:369] relu1 -> ip1 (in-place)
I0501 00:22:01.637814  6856 net.cpp:124] Setting up relu1
I0501 00:22:01.637821  6856 net.cpp:131] Top shape: 111 40 (4440)
I0501 00:22:01.637825  6856 net.cpp:139] Memory required for data: 10638684
I0501 00:22:01.637827  6856 layer_factory.hpp:77] Creating layer ip2
I0501 00:22:01.637833  6856 net.cpp:86] Creating Layer ip2
I0501 00:22:01.637836  6856 net.cpp:408] ip2 <- ip1
I0501 00:22:01.637841  6856 net.cpp:382] ip2 -> ip2
I0501 00:22:01.638905  6856 net.cpp:124] Setting up ip2
I0501 00:22:01.638916  6856 net.cpp:131] Top shape: 111 160 (17760)
I0501 00:22:01.638919  6856 net.cpp:139] Memory required for data: 10709724
I0501 00:22:01.638926  6856 layer_factory.hpp:77] Creating layer relu2
I0501 00:22:01.638933  6856 net.cpp:86] Creating Layer relu2
I0501 00:22:01.638936  6856 net.cpp:408] relu2 <- ip2
I0501 00:22:01.638941  6856 net.cpp:369] relu2 -> ip2 (in-place)
I0501 00:22:01.639098  6856 net.cpp:124] Setting up relu2
I0501 00:22:01.639106  6856 net.cpp:131] Top shape: 111 160 (17760)
I0501 00:22:01.639109  6856 net.cpp:139] Memory required for data: 10780764
I0501 00:22:01.639112  6856 layer_factory.hpp:77] Creating layer ip3
I0501 00:22:01.639119  6856 net.cpp:86] Creating Layer ip3
I0501 00:22:01.639122  6856 net.cpp:408] ip3 <- ip2
I0501 00:22:01.639127  6856 net.cpp:382] ip3 -> ip3
I0501 00:22:01.639263  6856 net.cpp:124] Setting up ip3
I0501 00:22:01.639271  6856 net.cpp:131] Top shape: 111 10 (1110)
I0501 00:22:01.639272  6856 net.cpp:139] Memory required for data: 10785204
I0501 00:22:01.639277  6856 layer_factory.hpp:77] Creating layer relu3
I0501 00:22:01.639282  6856 net.cpp:86] Creating Layer relu3
I0501 00:22:01.639284  6856 net.cpp:408] relu3 <- ip3
I0501 00:22:01.639289  6856 net.cpp:369] relu3 -> ip3 (in-place)
I0501 00:22:01.639436  6856 net.cpp:124] Setting up relu3
I0501 00:22:01.639443  6856 net.cpp:131] Top shape: 111 10 (1110)
I0501 00:22:01.639446  6856 net.cpp:139] Memory required for data: 10789644
I0501 00:22:01.639449  6856 layer_factory.hpp:77] Creating layer ip4
I0501 00:22:01.639469  6856 net.cpp:86] Creating Layer ip4
I0501 00:22:01.639472  6856 net.cpp:408] ip4 <- ip3
I0501 00:22:01.639477  6856 net.cpp:382] ip4 -> ip4
I0501 00:22:01.639588  6856 net.cpp:124] Setting up ip4
I0501 00:22:01.639595  6856 net.cpp:131] Top shape: 111 10 (1110)
I0501 00:22:01.639598  6856 net.cpp:139] Memory required for data: 10794084
I0501 00:22:01.639605  6856 layer_factory.hpp:77] Creating layer loss
I0501 00:22:01.639612  6856 net.cpp:86] Creating Layer loss
I0501 00:22:01.639614  6856 net.cpp:408] loss <- ip4
I0501 00:22:01.639618  6856 net.cpp:408] loss <- label
I0501 00:22:01.639622  6856 net.cpp:382] loss -> loss
I0501 00:22:01.639636  6856 layer_factory.hpp:77] Creating layer loss
…
I0501 00:22:01.640853  6856 solver.cpp:173] Creating test net (#0) specified by net file: ECE595/cifar/train_test/var_everything/cifar_train_test_255.prototxt
I0501 00:22:01.640898  6856 net.cpp:296] The NetState phase (1) differed from the phase (0) specified by a rule in layer cifar
I0501 00:22:01.641006  6856 net.cpp:53] Initializing net from parameters: 
name: "CIFAR"
state {
  phase: TEST
}
layer {
  name: "cifar"
  type: "Data"
  top: "data"
  top: "label"
  include {
    phase: TEST
  }
  transform_param {
    mean_file: "examples/cifar10/mean.binaryproto"
  }
  data_param {
    source: "examples/cifar10/cifar10_test_lmdb"
    batch_size: 1000
    backend: LMDB
  }
}
layer {
  name: "conv0"
  type: "Convolution"
  bottom: "data"
  top: "conv0"
  param {
    lr_mult: 1
  }
  param {
    lr_mult: 2
  }
  convolution_param {
    num_output: 8
    pad: 2
    kernel_size: 3
    stride: 1
    weight_filler {
      type: "gaussian"
      std: 0.01
    }
    bias_filler {
      type: "constant"
    }
  }
}
layer {
  name: "Sigmoid0"
  type: "Sigmoid"
  bottom: "conv0"
  top: "Sigmoid0"
}
layer {
  name: "pool0"
  type: "Pooling"
  bottom: "Sigmoid0"
  top: "pool0"
  pooling_param {
    pool: AVE
    kernel_size: 3
    stride: 2
  }
}
layer {
  name: "ip1"
  type: "InnerProduct"
  bottom: "pool0"
  top: "ip1"
  param {
    lr_mult: 1
  }
  param {
    lr_mult: 2
  }
  inner_product_param {
    num_output: 40
    weight_filler {
      type: "gaussian"
      std: 0.01
    }
    bias_filler {
      type: "constant"
    }
  }
}
layer {
  name: "relu1"
  type: "ReLU"
  bottom: "ip1"
  top: "ip1"
}
layer {
  name: "ip2"
  type: "InnerProduct"
  bottom: "ip1"
  top: "ip2"
  param {
    lr_mult: 1
  }
  param {
    lr_mult: 2
  }
  inner_product_param {
    num_output: 160
    weight_filler {
      type: "gaussian"
      std: 0.01
    }
    bias_filler {
      type: "constant"
    }
  }
}
layer {
  name: "relu2"
  type: "ReLU"
  bottom: "ip2"
  top: "ip2"
}
layer {
  name: "ip3"
  type: "InnerProduct"
  bottom: "ip2"
  top: "ip3"
  param {
    lr_mult: 1
  }
  param {
    lr_mult: 2
  }
  inner_product_param {
    num_output: 10
    weight_filler {
      type: "gaussian"
      std: 0.01
    }
    bias_filler {
      type: "constant"
    }
  }
}
layer {
  name: "relu3"
  type: "ReLU"
  bottom: "ip3"
  top: "ip3"
}
layer {
  name: "ip4"
  type: "InnerProduct"
  bottom: "ip3"
  top: "ip4"
  param {
    lr_mult: 1
  }
  param {
    lr_mult: 2
  }
  inner_product_param {
    num_output: 10
    weight_filler {
      type: "gaussian"
      std: 0.01
    }
    bias_filler {
      type: "constant"
    }
  }
}
layer {
  name: "accuracy"
  type: "Accuracy"
  bottom: "ip4"
  bottom: "label"
  top: "accuracy"
  include {
    phase: TEST
  }
}
layer {
  name: "loss"
  type: "SoftmaxWithLoss"
  bottom: "ip4"
  bottom: "label"
  top: "loss"
}
I0501 00:22:01.641101  6856 layer_factory.hpp:77] Creating layer cifar
I0501 00:22:01.641165  6856 db_lmdb.cpp:35] Opened lmdb examples/cifar10/cifar10_test_lmdb
I0501 00:22:01.641196  6856 net.cpp:86] Creating Layer cifar
I0501 00:22:01.641214  6856 net.cpp:382] cifar -> data
I0501 00:22:01.641237  6856 net.cpp:382] cifar -> label
I0501 00:22:01.641243  6856 data_transformer.cpp:25] Loading mean file from: examples/cifar10/mean.binaryproto
I0501 00:22:01.641382  6856 data_layer.cpp:45] output data size: 1000,3,32,32
I0501 00:22:01.663532  6856 net.cpp:124] Setting up cifar
I0501 00:22:01.663558  6856 net.cpp:131] Top shape: 1000 3 32 32 (3072000)
I0501 00:22:01.663563  6856 net.cpp:131] Top shape: 1000 (1000)
I0501 00:22:01.663566  6856 net.cpp:139] Memory required for data: 12292000
I0501 00:22:01.663573  6856 layer_factory.hpp:77] Creating layer label_cifar_1_split
I0501 00:22:01.663601  6856 net.cpp:86] Creating Layer label_cifar_1_split
I0501 00:22:01.663607  6856 net.cpp:408] label_cifar_1_split <- label
I0501 00:22:01.663630  6856 net.cpp:382] label_cifar_1_split -> label_cifar_1_split_0
I0501 00:22:01.663638  6856 net.cpp:382] label_cifar_1_split -> label_cifar_1_split_1
I0501 00:22:01.663748  6856 net.cpp:124] Setting up label_cifar_1_split
I0501 00:22:01.663756  6856 net.cpp:131] Top shape: 1000 (1000)
I0501 00:22:01.663759  6856 net.cpp:131] Top shape: 1000 (1000)
I0501 00:22:01.663763  6856 net.cpp:139] Memory required for data: 12300000
I0501 00:22:01.663765  6856 layer_factory.hpp:77] Creating layer conv0
I0501 00:22:01.663779  6856 net.cpp:86] Creating Layer conv0
I0501 00:22:01.663781  6856 net.cpp:408] conv0 <- data
I0501 00:22:01.663789  6856 net.cpp:382] conv0 -> conv0
I0501 00:22:01.665333  6856 net.cpp:124] Setting up conv0
I0501 00:22:01.665347  6856 net.cpp:131] Top shape: 1000 8 34 34 (9248000)
I0501 00:22:01.665365  6856 net.cpp:139] Memory required for data: 49292000
I0501 00:22:01.665376  6856 layer_factory.hpp:77] Creating layer Sigmoid0
I0501 00:22:01.665385  6856 net.cpp:86] Creating Layer Sigmoid0
I0501 00:22:01.665387  6856 net.cpp:408] Sigmoid0 <- conv0
I0501 00:22:01.665391  6856 net.cpp:382] Sigmoid0 -> Sigmoid0
I0501 00:22:01.665649  6856 net.cpp:124] Setting up Sigmoid0
I0501 00:22:01.665658  6856 net.cpp:131] Top shape: 1000 8 34 34 (9248000)
I0501 00:22:01.665663  6856 net.cpp:139] Memory required for data: 86284000
I0501 00:22:01.665665  6856 layer_factory.hpp:77] Creating layer pool0
I0501 00:22:01.665673  6856 net.cpp:86] Creating Layer pool0
I0501 00:22:01.665678  6856 net.cpp:408] pool0 <- Sigmoid0
I0501 00:22:01.665683  6856 net.cpp:382] pool0 -> pool0
I0501 00:22:01.666838  6856 net.cpp:124] Setting up pool0
I0501 00:22:01.666849  6856 net.cpp:131] Top shape: 1000 8 17 17 (2312000)
I0501 00:22:01.666867  6856 net.cpp:139] Memory required for data: 95532000
I0501 00:22:01.666870  6856 layer_factory.hpp:77] Creating layer ip1
I0501 00:22:01.666893  6856 net.cpp:86] Creating Layer ip1
I0501 00:22:01.666896  6856 net.cpp:408] ip1 <- pool0
I0501 00:22:01.666903  6856 net.cpp:382] ip1 -> ip1
I0501 00:22:01.669422  6856 net.cpp:124] Setting up ip1
I0501 00:22:01.669431  6856 net.cpp:131] Top shape: 1000 40 (40000)
I0501 00:22:01.669450  6856 net.cpp:139] Memory required for data: 95692000
I0501 00:22:01.669471  6856 layer_factory.hpp:77] Creating layer relu1
I0501 00:22:01.669476  6856 net.cpp:86] Creating Layer relu1
I0501 00:22:01.669495  6856 net.cpp:408] relu1 <- ip1
I0501 00:22:01.669500  6856 net.cpp:369] relu1 -> ip1 (in-place)
I0501 00:22:01.669664  6856 net.cpp:124] Setting up relu1
I0501 00:22:01.669673  6856 net.cpp:131] Top shape: 1000 40 (40000)
I0501 00:22:01.669677  6856 net.cpp:139] Memory required for data: 95852000
I0501 00:22:01.669679  6856 layer_factory.hpp:77] Creating layer ip2
I0501 00:22:01.669687  6856 net.cpp:86] Creating Layer ip2
I0501 00:22:01.669690  6856 net.cpp:408] ip2 <- ip1
I0501 00:22:01.669694  6856 net.cpp:382] ip2 -> ip2
I0501 00:22:01.669960  6856 net.cpp:124] Setting up ip2
I0501 00:22:01.669967  6856 net.cpp:131] Top shape: 1000 160 (160000)
I0501 00:22:01.669970  6856 net.cpp:139] Memory required for data: 96492000
I0501 00:22:01.669977  6856 layer_factory.hpp:77] Creating layer relu2
I0501 00:22:01.669983  6856 net.cpp:86] Creating Layer relu2
I0501 00:22:01.669986  6856 net.cpp:408] relu2 <- ip2
I0501 00:22:01.669991  6856 net.cpp:369] relu2 -> ip2 (in-place)
I0501 00:22:01.670763  6856 net.cpp:124] Setting up relu2
I0501 00:22:01.670776  6856 net.cpp:131] Top shape: 1000 160 (160000)
I0501 00:22:01.670795  6856 net.cpp:139] Memory required for data: 97132000
I0501 00:22:01.670799  6856 layer_factory.hpp:77] Creating layer ip3
I0501 00:22:01.670807  6856 net.cpp:86] Creating Layer ip3
I0501 00:22:01.670810  6856 net.cpp:408] ip3 <- ip2
I0501 00:22:01.670815  6856 net.cpp:382] ip3 -> ip3
I0501 00:22:01.670986  6856 net.cpp:124] Setting up ip3
I0501 00:22:01.671011  6856 net.cpp:131] Top shape: 1000 10 (10000)
I0501 00:22:01.671016  6856 net.cpp:139] Memory required for data: 97172000
I0501 00:22:01.671041  6856 layer_factory.hpp:77] Creating layer relu3
I0501 00:22:01.671048  6856 net.cpp:86] Creating Layer relu3
I0501 00:22:01.671051  6856 net.cpp:408] relu3 <- ip3
I0501 00:22:01.671057  6856 net.cpp:369] relu3 -> ip3 (in-place)
I0501 00:22:01.671238  6856 net.cpp:124] Setting up relu3
I0501 00:22:01.671247  6856 net.cpp:131] Top shape: 1000 10 (10000)
I0501 00:22:01.671252  6856 net.cpp:139] Memory required for data: 97212000
I0501 00:22:01.671254  6856 layer_factory.hpp:77] Creating layer ip4
I0501 00:22:01.671262  6856 net.cpp:86] Creating Layer ip4
I0501 00:22:01.671273  6856 net.cpp:408] ip4 <- ip3
I0501 00:22:01.671278  6856 net.cpp:382] ip4 -> ip4
I0501 00:22:01.671406  6856 net.cpp:124] Setting up ip4
I0501 00:22:01.671414  6856 net.cpp:131] Top shape: 1000 10 (10000)
I0501 00:22:01.671416  6856 net.cpp:139] Memory required for data: 97252000
I0501 00:22:01.671425  6856 layer_factory.hpp:77] Creating layer ip4_ip4_0_split
I0501 00:22:01.671432  6856 net.cpp:86] Creating Layer ip4_ip4_0_split
I0501 00:22:01.671434  6856 net.cpp:408] ip4_ip4_0_split <- ip4
I0501 00:22:01.671438  6856 net.cpp:382] ip4_ip4_0_split -> ip4_ip4_0_split_0
I0501 00:22:01.671443  6856 net.cpp:382] ip4_ip4_0_split -> ip4_ip4_0_split_1
I0501 00:22:01.671475  6856 net.cpp:124] Setting up ip4_ip4_0_split
I0501 00:22:01.671481  6856 net.cpp:131] Top shape: 1000 10 (10000)
I0501 00:22:01.671485  6856 net.cpp:131] Top shape: 1000 10 (10000)
I0501 00:22:01.671489  6856 net.cpp:139] Memory required for data: 97332000
I0501 00:22:01.671491  6856 layer_factory.hpp:77] Creating layer accuracy
I0501 00:22:01.671497  6856 net.cpp:86] Creating Layer accuracy
I0501 00:22:01.671500  6856 net.cpp:408] accuracy <- ip4_ip4_0_split_0
I0501 00:22:01.671504  6856 net.cpp:408] accuracy <- label_cifar_1_split_0
I0501 00:22:01.671509  6856 net.cpp:382] accuracy -> accuracy
…
