…
I0501 03:56:58.507015 23285 net.cpp:296] The NetState phase (0) differed from the phase (1) specified by a rule in layer cifar
I0501 03:56:58.507035 23285 net.cpp:296] The NetState phase (0) differed from the phase (1) specified by a rule in layer accuracy
I0501 03:56:58.507169 23285 net.cpp:53] Initializing net from parameters: 
name: "CIFAR"
state {
  phase: TRAIN
  level: 0
  stage: ""
}
layer {
  name: "cifar"
  type: "Data"
  top: "data"
  top: "label"
  include {
    phase: TRAIN
  }
  transform_param {
    mean_file: "examples/cifar10/mean.binaryproto"
  }
  data_param {
    source: "examples/cifar10/cifar10_train_lmdb"
    batch_size: 111
    backend: LMDB
  }
}
layer {
  name: "conv0"
  type: "Convolution"
  bottom: "data"
  top: "conv0"
  param {
    lr_mult: 1
  }
  param {
    lr_mult: 2
  }
  convolution_param {
    num_output: 8
    pad: 2
    kernel_size: 5
    stride: 1
    weight_filler {
      type: "gaussian"
      std: 0.01
    }
    bias_filler {
      type: "constant"
    }
  }
}
layer {
  name: "Sigmoid0"
  type: "Sigmoid"
  bottom: "conv0"
  top: "Sigmoid0"
}
layer {
  name: "pool0"
  type: "Pooling"
  bottom: "Sigmoid0"
  top: "pool0"
  pooling_param {
    pool: AVE
    kernel_size: 3
    stride: 2
  }
}
layer {
  name: "ip1"
  type: "InnerProduct"
  bottom: "pool0"
  top: "ip1"
  param {
    lr_mult: 1
  }
  param {
    lr_mult: 2
  }
  inner_product_param {
    num_output: 20
    weight_filler {
      type: "gaussian"
      std: 0.01
    }
    bias_filler {
      type: "constant"
    }
  }
}
layer {
  name: "relu1"
  type: "ReLU"
  bottom: "ip1"
  top: "ip1"
}
layer {
  name: "ip2"
  type: "InnerProduct"
  bottom: "ip1"
  top: "ip2"
  param {
    lr_mult: 1
  }
  param {
    lr_mult: 2
  }
  inner_product_param {
    num_output: 20
    weight_filler {
      type: "gaussian"
      std: 0.01
    }
    bias_filler {
      type: "constant"
    }
  }
}
layer {
  name: "relu2"
  type: "ReLU"
  bottom: "ip2"
  top: "ip2"
}
layer {
  name: "ip3"
  type: "InnerProduct"
  bottom: "ip2"
  top: "ip3"
  param {
    lr_mult: 1
  }
  param {
    lr_mult: 2
  }
  inner_product_param {
    num_output: 10
    weight_filler {
      type: "gaussian"
      std: 0.01
    }
    bias_filler {
      type: "constant"
    }
  }
}
layer {
  name: "relu3"
  type: "ReLU"
  bottom: "ip3"
  top: "ip3"
}
layer {
  name: "ip4"
  type: "InnerProduct"
  bottom: "ip3"
  top: "ip4"
  param {
    lr_mult: 1
  }
  param {
    lr_mult: 2
  }
  inner_product_param {
    num_output: 10
    weight_filler {
      type: "gaussian"
      std: 0.01
    }
    bias_filler {
      type: "constant"
    }
  }
}
layer {
  name: "loss"
  type: "SoftmaxWithLoss"
  bottom: "ip4"
  bottom: "label"
  top: "loss"
}
I0501 03:56:58.507267 23285 layer_factory.hpp:77] Creating layer cifar
I0501 03:56:58.507370 23285 db_lmdb.cpp:35] Opened lmdb examples/cifar10/cifar10_train_lmdb
I0501 03:56:58.507400 23285 net.cpp:86] Creating Layer cifar
I0501 03:56:58.507410 23285 net.cpp:382] cifar -> data
I0501 03:56:58.507436 23285 net.cpp:382] cifar -> label
I0501 03:56:58.507448 23285 data_transformer.cpp:25] Loading mean file from: examples/cifar10/mean.binaryproto
I0501 03:56:58.509392 23285 data_layer.cpp:45] output data size: 111,3,32,32
I0501 03:56:58.515705 23285 net.cpp:124] Setting up cifar
I0501 03:56:58.515722 23285 net.cpp:131] Top shape: 111 3 32 32 (340992)
I0501 03:56:58.515746 23285 net.cpp:131] Top shape: 111 (111)
I0501 03:56:58.515751 23285 net.cpp:139] Memory required for data: 1364412
I0501 03:56:58.515779 23285 layer_factory.hpp:77] Creating layer conv0
I0501 03:56:58.515797 23285 net.cpp:86] Creating Layer conv0
I0501 03:56:58.515806 23285 net.cpp:408] conv0 <- data
I0501 03:56:58.515821 23285 net.cpp:382] conv0 -> conv0
I0501 03:56:58.829048 23285 net.cpp:124] Setting up conv0
I0501 03:56:58.829077 23285 net.cpp:131] Top shape: 111 8 32 32 (909312)
I0501 03:56:58.829083 23285 net.cpp:139] Memory required for data: 5001660
I0501 03:56:58.829102 23285 layer_factory.hpp:77] Creating layer Sigmoid0
I0501 03:56:58.829114 23285 net.cpp:86] Creating Layer Sigmoid0
I0501 03:56:58.829119 23285 net.cpp:408] Sigmoid0 <- conv0
I0501 03:56:58.829125 23285 net.cpp:382] Sigmoid0 -> Sigmoid0
I0501 03:56:58.829324 23285 net.cpp:124] Setting up Sigmoid0
I0501 03:56:58.829334 23285 net.cpp:131] Top shape: 111 8 32 32 (909312)
I0501 03:56:58.829339 23285 net.cpp:139] Memory required for data: 8638908
I0501 03:56:58.829342 23285 layer_factory.hpp:77] Creating layer pool0
I0501 03:56:58.829349 23285 net.cpp:86] Creating Layer pool0
I0501 03:56:58.829354 23285 net.cpp:408] pool0 <- Sigmoid0
I0501 03:56:58.829360 23285 net.cpp:382] pool0 -> pool0
I0501 03:56:58.830245 23285 net.cpp:124] Setting up pool0
I0501 03:56:58.830261 23285 net.cpp:131] Top shape: 111 8 16 16 (227328)
I0501 03:56:58.830265 23285 net.cpp:139] Memory required for data: 9548220
I0501 03:56:58.830269 23285 layer_factory.hpp:77] Creating layer ip1
I0501 03:56:58.830281 23285 net.cpp:86] Creating Layer ip1
I0501 03:56:58.830284 23285 net.cpp:408] ip1 <- pool0
I0501 03:56:58.830291 23285 net.cpp:382] ip1 -> ip1
I0501 03:56:58.832718 23285 net.cpp:124] Setting up ip1
I0501 03:56:58.832733 23285 net.cpp:131] Top shape: 111 20 (2220)
I0501 03:56:58.832737 23285 net.cpp:139] Memory required for data: 9557100
I0501 03:56:58.832747 23285 layer_factory.hpp:77] Creating layer relu1
I0501 03:56:58.832754 23285 net.cpp:86] Creating Layer relu1
I0501 03:56:58.832758 23285 net.cpp:408] relu1 <- ip1
I0501 03:56:58.832764 23285 net.cpp:369] relu1 -> ip1 (in-place)
I0501 03:56:58.832957 23285 net.cpp:124] Setting up relu1
I0501 03:56:58.832967 23285 net.cpp:131] Top shape: 111 20 (2220)
I0501 03:56:58.832970 23285 net.cpp:139] Memory required for data: 9565980
I0501 03:56:58.832974 23285 layer_factory.hpp:77] Creating layer ip2
I0501 03:56:58.832983 23285 net.cpp:86] Creating Layer ip2
I0501 03:56:58.832986 23285 net.cpp:408] ip2 <- ip1
I0501 03:56:58.832993 23285 net.cpp:382] ip2 -> ip2
I0501 03:56:58.833111 23285 net.cpp:124] Setting up ip2
I0501 03:56:58.833118 23285 net.cpp:131] Top shape: 111 20 (2220)
I0501 03:56:58.833122 23285 net.cpp:139] Memory required for data: 9574860
I0501 03:56:58.833132 23285 layer_factory.hpp:77] Creating layer relu2
I0501 03:56:58.833137 23285 net.cpp:86] Creating Layer relu2
I0501 03:56:58.833142 23285 net.cpp:408] relu2 <- ip2
I0501 03:56:58.833147 23285 net.cpp:369] relu2 -> ip2 (in-place)
I0501 03:56:58.833328 23285 net.cpp:124] Setting up relu2
I0501 03:56:58.833338 23285 net.cpp:131] Top shape: 111 20 (2220)
I0501 03:56:58.833343 23285 net.cpp:139] Memory required for data: 9583740
I0501 03:56:58.833346 23285 layer_factory.hpp:77] Creating layer ip3
I0501 03:56:58.833354 23285 net.cpp:86] Creating Layer ip3
I0501 03:56:58.833359 23285 net.cpp:408] ip3 <- ip2
I0501 03:56:58.833364 23285 net.cpp:382] ip3 -> ip3
I0501 03:56:58.833480 23285 net.cpp:124] Setting up ip3
I0501 03:56:58.833488 23285 net.cpp:131] Top shape: 111 10 (1110)
I0501 03:56:58.833492 23285 net.cpp:139] Memory required for data: 9588180
I0501 03:56:58.833498 23285 layer_factory.hpp:77] Creating layer relu3
I0501 03:56:58.833503 23285 net.cpp:86] Creating Layer relu3
I0501 03:56:58.833508 23285 net.cpp:408] relu3 <- ip3
I0501 03:56:58.833513 23285 net.cpp:369] relu3 -> ip3 (in-place)
I0501 03:56:58.833683 23285 net.cpp:124] Setting up relu3
I0501 03:56:58.833691 23285 net.cpp:131] Top shape: 111 10 (1110)
I0501 03:56:58.833694 23285 net.cpp:139] Memory required for data: 9592620
I0501 03:56:58.833698 23285 layer_factory.hpp:77] Creating layer ip4
I0501 03:56:58.833722 23285 net.cpp:86] Creating Layer ip4
I0501 03:56:58.833727 23285 net.cpp:408] ip4 <- ip3
I0501 03:56:58.833732 23285 net.cpp:382] ip4 -> ip4
I0501 03:56:58.833844 23285 net.cpp:124] Setting up ip4
I0501 03:56:58.833853 23285 net.cpp:131] Top shape: 111 10 (1110)
I0501 03:56:58.833856 23285 net.cpp:139] Memory required for data: 9597060
I0501 03:56:58.833865 23285 layer_factory.hpp:77] Creating layer loss
I0501 03:56:58.833871 23285 net.cpp:86] Creating Layer loss
I0501 03:56:58.833875 23285 net.cpp:408] loss <- ip4
I0501 03:56:58.833880 23285 net.cpp:408] loss <- label
I0501 03:56:58.833886 23285 net.cpp:382] loss -> loss
I0501 03:56:58.833905 23285 layer_factory.hpp:77] Creating layer loss
…
I0501 03:56:58.835319 23285 solver.cpp:173] Creating test net (#0) specified by net file: ECE595/cifar/train_test/var_everything/cifar_train_test_370.prototxt
I0501 03:56:58.835352 23285 net.cpp:296] The NetState phase (1) differed from the phase (0) specified by a rule in layer cifar
I0501 03:56:58.835464 23285 net.cpp:53] Initializing net from parameters: 
name: "CIFAR"
state {
  phase: TEST
}
layer {
  name: "cifar"
  type: "Data"
  top: "data"
  top: "label"
  include {
    phase: TEST
  }
  transform_param {
    mean_file: "examples/cifar10/mean.binaryproto"
  }
  data_param {
    source: "examples/cifar10/cifar10_test_lmdb"
    batch_size: 1000
    backend: LMDB
  }
}
layer {
  name: "conv0"
  type: "Convolution"
  bottom: "data"
  top: "conv0"
  param {
    lr_mult: 1
  }
  param {
    lr_mult: 2
  }
  convolution_param {
    num_output: 8
    pad: 2
    kernel_size: 5
    stride: 1
    weight_filler {
      type: "gaussian"
      std: 0.01
    }
    bias_filler {
      type: "constant"
    }
  }
}
layer {
  name: "Sigmoid0"
  type: "Sigmoid"
  bottom: "conv0"
  top: "Sigmoid0"
}
layer {
  name: "pool0"
  type: "Pooling"
  bottom: "Sigmoid0"
  top: "pool0"
  pooling_param {
    pool: AVE
    kernel_size: 3
    stride: 2
  }
}
layer {
  name: "ip1"
  type: "InnerProduct"
  bottom: "pool0"
  top: "ip1"
  param {
    lr_mult: 1
  }
  param {
    lr_mult: 2
  }
  inner_product_param {
    num_output: 20
    weight_filler {
      type: "gaussian"
      std: 0.01
    }
    bias_filler {
      type: "constant"
    }
  }
}
layer {
  name: "relu1"
  type: "ReLU"
  bottom: "ip1"
  top: "ip1"
}
layer {
  name: "ip2"
  type: "InnerProduct"
  bottom: "ip1"
  top: "ip2"
  param {
    lr_mult: 1
  }
  param {
    lr_mult: 2
  }
  inner_product_param {
    num_output: 20
    weight_filler {
      type: "gaussian"
      std: 0.01
    }
    bias_filler {
      type: "constant"
    }
  }
}
layer {
  name: "relu2"
  type: "ReLU"
  bottom: "ip2"
  top: "ip2"
}
layer {
  name: "ip3"
  type: "InnerProduct"
  bottom: "ip2"
  top: "ip3"
  param {
    lr_mult: 1
  }
  param {
    lr_mult: 2
  }
  inner_product_param {
    num_output: 10
    weight_filler {
      type: "gaussian"
      std: 0.01
    }
    bias_filler {
      type: "constant"
    }
  }
}
layer {
  name: "relu3"
  type: "ReLU"
  bottom: "ip3"
  top: "ip3"
}
layer {
  name: "ip4"
  type: "InnerProduct"
  bottom: "ip3"
  top: "ip4"
  param {
    lr_mult: 1
  }
  param {
    lr_mult: 2
  }
  inner_product_param {
    num_output: 10
    weight_filler {
      type: "gaussian"
      std: 0.01
    }
    bias_filler {
      type: "constant"
    }
  }
}
layer {
  name: "accuracy"
  type: "Accuracy"
  bottom: "ip4"
  bottom: "label"
  top: "accuracy"
  include {
    phase: TEST
  }
}
layer {
  name: "loss"
  type: "SoftmaxWithLoss"
  bottom: "ip4"
  bottom: "label"
  top: "loss"
}
I0501 03:56:58.835558 23285 layer_factory.hpp:77] Creating layer cifar
I0501 03:56:58.835611 23285 db_lmdb.cpp:35] Opened lmdb examples/cifar10/cifar10_test_lmdb
I0501 03:56:58.835625 23285 net.cpp:86] Creating Layer cifar
I0501 03:56:58.835631 23285 net.cpp:382] cifar -> data
I0501 03:56:58.835640 23285 net.cpp:382] cifar -> label
I0501 03:56:58.835649 23285 data_transformer.cpp:25] Loading mean file from: examples/cifar10/mean.binaryproto
I0501 03:56:58.835814 23285 data_layer.cpp:45] output data size: 1000,3,32,32
I0501 03:56:58.861443 23285 net.cpp:124] Setting up cifar
I0501 03:56:58.861474 23285 net.cpp:131] Top shape: 1000 3 32 32 (3072000)
I0501 03:56:58.861480 23285 net.cpp:131] Top shape: 1000 (1000)
I0501 03:56:58.861485 23285 net.cpp:139] Memory required for data: 12292000
I0501 03:56:58.861490 23285 layer_factory.hpp:77] Creating layer label_cifar_1_split
I0501 03:56:58.861510 23285 net.cpp:86] Creating Layer label_cifar_1_split
I0501 03:56:58.861515 23285 net.cpp:408] label_cifar_1_split <- label
I0501 03:56:58.861521 23285 net.cpp:382] label_cifar_1_split -> label_cifar_1_split_0
I0501 03:56:58.861531 23285 net.cpp:382] label_cifar_1_split -> label_cifar_1_split_1
I0501 03:56:58.861654 23285 net.cpp:124] Setting up label_cifar_1_split
I0501 03:56:58.861665 23285 net.cpp:131] Top shape: 1000 (1000)
I0501 03:56:58.861668 23285 net.cpp:131] Top shape: 1000 (1000)
I0501 03:56:58.861672 23285 net.cpp:139] Memory required for data: 12300000
I0501 03:56:58.861676 23285 layer_factory.hpp:77] Creating layer conv0
I0501 03:56:58.861696 23285 net.cpp:86] Creating Layer conv0
I0501 03:56:58.861701 23285 net.cpp:408] conv0 <- data
I0501 03:56:58.861707 23285 net.cpp:382] conv0 -> conv0
I0501 03:56:58.863483 23285 net.cpp:124] Setting up conv0
I0501 03:56:58.863499 23285 net.cpp:131] Top shape: 1000 8 32 32 (8192000)
I0501 03:56:58.863504 23285 net.cpp:139] Memory required for data: 45068000
I0501 03:56:58.863517 23285 layer_factory.hpp:77] Creating layer Sigmoid0
I0501 03:56:58.863524 23285 net.cpp:86] Creating Layer Sigmoid0
I0501 03:56:58.863529 23285 net.cpp:408] Sigmoid0 <- conv0
I0501 03:56:58.863534 23285 net.cpp:382] Sigmoid0 -> Sigmoid0
I0501 03:56:58.864718 23285 net.cpp:124] Setting up Sigmoid0
I0501 03:56:58.864730 23285 net.cpp:131] Top shape: 1000 8 32 32 (8192000)
I0501 03:56:58.864734 23285 net.cpp:139] Memory required for data: 77836000
I0501 03:56:58.864738 23285 layer_factory.hpp:77] Creating layer pool0
I0501 03:56:58.864748 23285 net.cpp:86] Creating Layer pool0
I0501 03:56:58.864753 23285 net.cpp:408] pool0 <- Sigmoid0
I0501 03:56:58.864759 23285 net.cpp:382] pool0 -> pool0
I0501 03:56:58.864979 23285 net.cpp:124] Setting up pool0
I0501 03:56:58.864989 23285 net.cpp:131] Top shape: 1000 8 16 16 (2048000)
I0501 03:56:58.864992 23285 net.cpp:139] Memory required for data: 86028000
I0501 03:56:58.864996 23285 layer_factory.hpp:77] Creating layer ip1
I0501 03:56:58.865005 23285 net.cpp:86] Creating Layer ip1
I0501 03:56:58.865010 23285 net.cpp:408] ip1 <- pool0
I0501 03:56:58.865015 23285 net.cpp:382] ip1 -> ip1
I0501 03:56:58.866483 23285 net.cpp:124] Setting up ip1
I0501 03:56:58.866492 23285 net.cpp:131] Top shape: 1000 20 (20000)
I0501 03:56:58.866497 23285 net.cpp:139] Memory required for data: 86108000
I0501 03:56:58.866523 23285 layer_factory.hpp:77] Creating layer relu1
I0501 03:56:58.866529 23285 net.cpp:86] Creating Layer relu1
I0501 03:56:58.866533 23285 net.cpp:408] relu1 <- ip1
I0501 03:56:58.866539 23285 net.cpp:369] relu1 -> ip1 (in-place)
I0501 03:56:58.866729 23285 net.cpp:124] Setting up relu1
I0501 03:56:58.866739 23285 net.cpp:131] Top shape: 1000 20 (20000)
I0501 03:56:58.866741 23285 net.cpp:139] Memory required for data: 86188000
I0501 03:56:58.866745 23285 layer_factory.hpp:77] Creating layer ip2
I0501 03:56:58.866753 23285 net.cpp:86] Creating Layer ip2
I0501 03:56:58.866756 23285 net.cpp:408] ip2 <- ip1
I0501 03:56:58.866762 23285 net.cpp:382] ip2 -> ip2
I0501 03:56:58.866895 23285 net.cpp:124] Setting up ip2
I0501 03:56:58.866904 23285 net.cpp:131] Top shape: 1000 20 (20000)
I0501 03:56:58.866907 23285 net.cpp:139] Memory required for data: 86268000
I0501 03:56:58.866915 23285 layer_factory.hpp:77] Creating layer relu2
I0501 03:56:58.866922 23285 net.cpp:86] Creating Layer relu2
I0501 03:56:58.866926 23285 net.cpp:408] relu2 <- ip2
I0501 03:56:58.866932 23285 net.cpp:369] relu2 -> ip2 (in-place)
I0501 03:56:58.867810 23285 net.cpp:124] Setting up relu2
I0501 03:56:58.867826 23285 net.cpp:131] Top shape: 1000 20 (20000)
I0501 03:56:58.867830 23285 net.cpp:139] Memory required for data: 86348000
I0501 03:56:58.867835 23285 layer_factory.hpp:77] Creating layer ip3
I0501 03:56:58.867842 23285 net.cpp:86] Creating Layer ip3
I0501 03:56:58.867846 23285 net.cpp:408] ip3 <- ip2
I0501 03:56:58.867853 23285 net.cpp:382] ip3 -> ip3
I0501 03:56:58.867990 23285 net.cpp:124] Setting up ip3
I0501 03:56:58.867998 23285 net.cpp:131] Top shape: 1000 10 (10000)
I0501 03:56:58.868002 23285 net.cpp:139] Memory required for data: 86388000
I0501 03:56:58.868010 23285 layer_factory.hpp:77] Creating layer relu3
I0501 03:56:58.868016 23285 net.cpp:86] Creating Layer relu3
I0501 03:56:58.868018 23285 net.cpp:408] relu3 <- ip3
I0501 03:56:58.868023 23285 net.cpp:369] relu3 -> ip3 (in-place)
I0501 03:56:58.868201 23285 net.cpp:124] Setting up relu3
I0501 03:56:58.868211 23285 net.cpp:131] Top shape: 1000 10 (10000)
I0501 03:56:58.868213 23285 net.cpp:139] Memory required for data: 86428000
I0501 03:56:58.868217 23285 layer_factory.hpp:77] Creating layer ip4
I0501 03:56:58.868224 23285 net.cpp:86] Creating Layer ip4
I0501 03:56:58.868227 23285 net.cpp:408] ip4 <- ip3
I0501 03:56:58.868233 23285 net.cpp:382] ip4 -> ip4
I0501 03:56:58.868355 23285 net.cpp:124] Setting up ip4
I0501 03:56:58.868361 23285 net.cpp:131] Top shape: 1000 10 (10000)
I0501 03:56:58.868366 23285 net.cpp:139] Memory required for data: 86468000
I0501 03:56:58.868376 23285 layer_factory.hpp:77] Creating layer ip4_ip4_0_split
I0501 03:56:58.868381 23285 net.cpp:86] Creating Layer ip4_ip4_0_split
I0501 03:56:58.868386 23285 net.cpp:408] ip4_ip4_0_split <- ip4
I0501 03:56:58.868391 23285 net.cpp:382] ip4_ip4_0_split -> ip4_ip4_0_split_0
I0501 03:56:58.868397 23285 net.cpp:382] ip4_ip4_0_split -> ip4_ip4_0_split_1
I0501 03:56:58.868432 23285 net.cpp:124] Setting up ip4_ip4_0_split
I0501 03:56:58.868439 23285 net.cpp:131] Top shape: 1000 10 (10000)
I0501 03:56:58.868444 23285 net.cpp:131] Top shape: 1000 10 (10000)
I0501 03:56:58.868448 23285 net.cpp:139] Memory required for data: 86548000
I0501 03:56:58.868450 23285 layer_factory.hpp:77] Creating layer accuracy
I0501 03:56:58.868458 23285 net.cpp:86] Creating Layer accuracy
I0501 03:56:58.868461 23285 net.cpp:408] accuracy <- ip4_ip4_0_split_0
I0501 03:56:58.868466 23285 net.cpp:408] accuracy <- label_cifar_1_split_0
I0501 03:56:58.868472 23285 net.cpp:382] accuracy -> accuracy
…
