…
I0501 05:50:21.952792 30565 net.cpp:296] The NetState phase (0) differed from the phase (1) specified by a rule in layer cifar
I0501 05:50:21.952818 30565 net.cpp:296] The NetState phase (0) differed from the phase (1) specified by a rule in layer accuracy
I0501 05:50:21.952925 30565 net.cpp:53] Initializing net from parameters: 
name: "CIFAR"
state {
  phase: TRAIN
  level: 0
  stage: ""
}
layer {
  name: "cifar"
  type: "Data"
  top: "data"
  top: "label"
  include {
    phase: TRAIN
  }
  transform_param {
    mean_file: "examples/cifar10/mean.binaryproto"
  }
  data_param {
    source: "examples/cifar10/cifar10_train_lmdb"
    batch_size: 111
    backend: LMDB
  }
}
layer {
  name: "conv0"
  type: "Convolution"
  bottom: "data"
  top: "conv0"
  param {
    lr_mult: 1
  }
  param {
    lr_mult: 2
  }
  convolution_param {
    num_output: 8
    pad: 2
    kernel_size: 5
    stride: 1
    weight_filler {
      type: "gaussian"
      std: 0.01
    }
    bias_filler {
      type: "constant"
    }
  }
}
layer {
  name: "Sigmoid0"
  type: "Sigmoid"
  bottom: "conv0"
  top: "Sigmoid0"
}
layer {
  name: "pool0"
  type: "Pooling"
  bottom: "Sigmoid0"
  top: "pool0"
  pooling_param {
    pool: AVE
    kernel_size: 3
    stride: 2
  }
}
layer {
  name: "ip1"
  type: "InnerProduct"
  bottom: "pool0"
  top: "ip1"
  param {
    lr_mult: 1
  }
  param {
    lr_mult: 2
  }
  inner_product_param {
    num_output: 80
    weight_filler {
      type: "gaussian"
      std: 0.01
    }
    bias_filler {
      type: "constant"
    }
  }
}
layer {
  name: "relu1"
  type: "ReLU"
  bottom: "ip1"
  top: "ip1"
}
layer {
  name: "ip2"
  type: "InnerProduct"
  bottom: "ip1"
  top: "ip2"
  param {
    lr_mult: 1
  }
  param {
    lr_mult: 2
  }
  inner_product_param {
    num_output: 80
    weight_filler {
      type: "gaussian"
      std: 0.01
    }
    bias_filler {
      type: "constant"
    }
  }
}
layer {
  name: "relu2"
  type: "ReLU"
  bottom: "ip2"
  top: "ip2"
}
layer {
  name: "ip3"
  type: "InnerProduct"
  bottom: "ip2"
  top: "ip3"
  param {
    lr_mult: 1
  }
  param {
    lr_mult: 2
  }
  inner_product_param {
    num_output: 20
    weight_filler {
      type: "gaussian"
      std: 0.01
    }
    bias_filler {
      type: "constant"
    }
  }
}
layer {
  name: "relu3"
  type: "ReLU"
  bottom: "ip3"
  top: "ip3"
}
layer {
  name: "ip4"
  type: "InnerProduct"
  bottom: "ip3"
  top: "ip4"
  param {
    lr_mult: 1
  }
  param {
    lr_mult: 2
  }
  inner_product_param {
    num_output: 10
    weight_filler {
      type: "gaussian"
      std: 0.01
    }
    bias_filler {
      type: "constant"
    }
  }
}
layer {
  name: "loss"
  type: "SoftmaxWithLoss"
  bottom: "ip4"
  bottom: "label"
  top: "loss"
}
I0501 05:50:21.953007 30565 layer_factory.hpp:77] Creating layer cifar
I0501 05:50:21.953107 30565 db_lmdb.cpp:35] Opened lmdb examples/cifar10/cifar10_train_lmdb
I0501 05:50:21.953133 30565 net.cpp:86] Creating Layer cifar
I0501 05:50:21.953142 30565 net.cpp:382] cifar -> data
I0501 05:50:21.953166 30565 net.cpp:382] cifar -> label
I0501 05:50:21.953176 30565 data_transformer.cpp:25] Loading mean file from: examples/cifar10/mean.binaryproto
I0501 05:50:21.955288 30565 data_layer.cpp:45] output data size: 111,3,32,32
I0501 05:50:21.963150 30565 net.cpp:124] Setting up cifar
I0501 05:50:21.963171 30565 net.cpp:131] Top shape: 111 3 32 32 (340992)
I0501 05:50:21.963176 30565 net.cpp:131] Top shape: 111 (111)
I0501 05:50:21.963179 30565 net.cpp:139] Memory required for data: 1364412
I0501 05:50:21.963202 30565 layer_factory.hpp:77] Creating layer conv0
I0501 05:50:21.963222 30565 net.cpp:86] Creating Layer conv0
I0501 05:50:21.963228 30565 net.cpp:408] conv0 <- data
I0501 05:50:21.963243 30565 net.cpp:382] conv0 -> conv0
I0501 05:50:22.233404 30565 net.cpp:124] Setting up conv0
I0501 05:50:22.233429 30565 net.cpp:131] Top shape: 111 8 32 32 (909312)
I0501 05:50:22.233433 30565 net.cpp:139] Memory required for data: 5001660
I0501 05:50:22.233448 30565 layer_factory.hpp:77] Creating layer Sigmoid0
I0501 05:50:22.233459 30565 net.cpp:86] Creating Layer Sigmoid0
I0501 05:50:22.233464 30565 net.cpp:408] Sigmoid0 <- conv0
I0501 05:50:22.233469 30565 net.cpp:382] Sigmoid0 -> Sigmoid0
I0501 05:50:22.233640 30565 net.cpp:124] Setting up Sigmoid0
I0501 05:50:22.233649 30565 net.cpp:131] Top shape: 111 8 32 32 (909312)
I0501 05:50:22.233652 30565 net.cpp:139] Memory required for data: 8638908
I0501 05:50:22.233656 30565 layer_factory.hpp:77] Creating layer pool0
I0501 05:50:22.233678 30565 net.cpp:86] Creating Layer pool0
I0501 05:50:22.233681 30565 net.cpp:408] pool0 <- Sigmoid0
I0501 05:50:22.233685 30565 net.cpp:382] pool0 -> pool0
I0501 05:50:22.234405 30565 net.cpp:124] Setting up pool0
I0501 05:50:22.234417 30565 net.cpp:131] Top shape: 111 8 16 16 (227328)
I0501 05:50:22.234421 30565 net.cpp:139] Memory required for data: 9548220
I0501 05:50:22.234424 30565 layer_factory.hpp:77] Creating layer ip1
I0501 05:50:22.234432 30565 net.cpp:86] Creating Layer ip1
I0501 05:50:22.234436 30565 net.cpp:408] ip1 <- pool0
I0501 05:50:22.234441 30565 net.cpp:382] ip1 -> ip1
I0501 05:50:22.238656 30565 net.cpp:124] Setting up ip1
I0501 05:50:22.238662 30565 net.cpp:131] Top shape: 111 80 (8880)
I0501 05:50:22.238665 30565 net.cpp:139] Memory required for data: 9583740
I0501 05:50:22.238672 30565 layer_factory.hpp:77] Creating layer relu1
I0501 05:50:22.238677 30565 net.cpp:86] Creating Layer relu1
I0501 05:50:22.238680 30565 net.cpp:408] relu1 <- ip1
I0501 05:50:22.238684 30565 net.cpp:369] relu1 -> ip1 (in-place)
I0501 05:50:22.238839 30565 net.cpp:124] Setting up relu1
I0501 05:50:22.238847 30565 net.cpp:131] Top shape: 111 80 (8880)
I0501 05:50:22.238850 30565 net.cpp:139] Memory required for data: 9619260
I0501 05:50:22.238853 30565 layer_factory.hpp:77] Creating layer ip2
I0501 05:50:22.238858 30565 net.cpp:86] Creating Layer ip2
I0501 05:50:22.238862 30565 net.cpp:408] ip2 <- ip1
I0501 05:50:22.238867 30565 net.cpp:382] ip2 -> ip2
I0501 05:50:22.239935 30565 net.cpp:124] Setting up ip2
I0501 05:50:22.239946 30565 net.cpp:131] Top shape: 111 80 (8880)
I0501 05:50:22.239949 30565 net.cpp:139] Memory required for data: 9654780
I0501 05:50:22.239958 30565 layer_factory.hpp:77] Creating layer relu2
I0501 05:50:22.239962 30565 net.cpp:86] Creating Layer relu2
I0501 05:50:22.239965 30565 net.cpp:408] relu2 <- ip2
I0501 05:50:22.239969 30565 net.cpp:369] relu2 -> ip2 (in-place)
I0501 05:50:22.240134 30565 net.cpp:124] Setting up relu2
I0501 05:50:22.240141 30565 net.cpp:131] Top shape: 111 80 (8880)
I0501 05:50:22.240144 30565 net.cpp:139] Memory required for data: 9690300
I0501 05:50:22.240147 30565 layer_factory.hpp:77] Creating layer ip3
I0501 05:50:22.240154 30565 net.cpp:86] Creating Layer ip3
I0501 05:50:22.240157 30565 net.cpp:408] ip3 <- ip2
I0501 05:50:22.240161 30565 net.cpp:382] ip3 -> ip3
I0501 05:50:22.240303 30565 net.cpp:124] Setting up ip3
I0501 05:50:22.240309 30565 net.cpp:131] Top shape: 111 20 (2220)
I0501 05:50:22.240311 30565 net.cpp:139] Memory required for data: 9699180
I0501 05:50:22.240316 30565 layer_factory.hpp:77] Creating layer relu3
I0501 05:50:22.240321 30565 net.cpp:86] Creating Layer relu3
I0501 05:50:22.240324 30565 net.cpp:408] relu3 <- ip3
I0501 05:50:22.240329 30565 net.cpp:369] relu3 -> ip3 (in-place)
I0501 05:50:22.240464 30565 net.cpp:124] Setting up relu3
I0501 05:50:22.240471 30565 net.cpp:131] Top shape: 111 20 (2220)
I0501 05:50:22.240474 30565 net.cpp:139] Memory required for data: 9708060
I0501 05:50:22.240478 30565 layer_factory.hpp:77] Creating layer ip4
I0501 05:50:22.240497 30565 net.cpp:86] Creating Layer ip4
I0501 05:50:22.240501 30565 net.cpp:408] ip4 <- ip3
I0501 05:50:22.240505 30565 net.cpp:382] ip4 -> ip4
I0501 05:50:22.240612 30565 net.cpp:124] Setting up ip4
I0501 05:50:22.240619 30565 net.cpp:131] Top shape: 111 10 (1110)
I0501 05:50:22.240622 30565 net.cpp:139] Memory required for data: 9712500
I0501 05:50:22.240629 30565 layer_factory.hpp:77] Creating layer loss
I0501 05:50:22.240635 30565 net.cpp:86] Creating Layer loss
I0501 05:50:22.240638 30565 net.cpp:408] loss <- ip4
I0501 05:50:22.240641 30565 net.cpp:408] loss <- label
I0501 05:50:22.240645 30565 net.cpp:382] loss -> loss
I0501 05:50:22.240661 30565 layer_factory.hpp:77] Creating layer loss
…
I0501 05:50:22.241842 30565 solver.cpp:173] Creating test net (#0) specified by net file: ECE595/cifar/train_test/var_everything/cifar_train_test_431.prototxt
I0501 05:50:22.241866 30565 net.cpp:296] The NetState phase (1) differed from the phase (0) specified by a rule in layer cifar
I0501 05:50:22.241956 30565 net.cpp:53] Initializing net from parameters: 
name: "CIFAR"
state {
  phase: TEST
}
layer {
  name: "cifar"
  type: "Data"
  top: "data"
  top: "label"
  include {
    phase: TEST
  }
  transform_param {
    mean_file: "examples/cifar10/mean.binaryproto"
  }
  data_param {
    source: "examples/cifar10/cifar10_test_lmdb"
    batch_size: 1000
    backend: LMDB
  }
}
layer {
  name: "conv0"
  type: "Convolution"
  bottom: "data"
  top: "conv0"
  param {
    lr_mult: 1
  }
  param {
    lr_mult: 2
  }
  convolution_param {
    num_output: 8
    pad: 2
    kernel_size: 5
    stride: 1
    weight_filler {
      type: "gaussian"
      std: 0.01
    }
    bias_filler {
      type: "constant"
    }
  }
}
layer {
  name: "Sigmoid0"
  type: "Sigmoid"
  bottom: "conv0"
  top: "Sigmoid0"
}
layer {
  name: "pool0"
  type: "Pooling"
  bottom: "Sigmoid0"
  top: "pool0"
  pooling_param {
    pool: AVE
    kernel_size: 3
    stride: 2
  }
}
layer {
  name: "ip1"
  type: "InnerProduct"
  bottom: "pool0"
  top: "ip1"
  param {
    lr_mult: 1
  }
  param {
    lr_mult: 2
  }
  inner_product_param {
    num_output: 80
    weight_filler {
      type: "gaussian"
      std: 0.01
    }
    bias_filler {
      type: "constant"
    }
  }
}
layer {
  name: "relu1"
  type: "ReLU"
  bottom: "ip1"
  top: "ip1"
}
layer {
  name: "ip2"
  type: "InnerProduct"
  bottom: "ip1"
  top: "ip2"
  param {
    lr_mult: 1
  }
  param {
    lr_mult: 2
  }
  inner_product_param {
    num_output: 80
    weight_filler {
      type: "gaussian"
      std: 0.01
    }
    bias_filler {
      type: "constant"
    }
  }
}
layer {
  name: "relu2"
  type: "ReLU"
  bottom: "ip2"
  top: "ip2"
}
layer {
  name: "ip3"
  type: "InnerProduct"
  bottom: "ip2"
  top: "ip3"
  param {
    lr_mult: 1
  }
  param {
    lr_mult: 2
  }
  inner_product_param {
    num_output: 20
    weight_filler {
      type: "gaussian"
      std: 0.01
    }
    bias_filler {
      type: "constant"
    }
  }
}
layer {
  name: "relu3"
  type: "ReLU"
  bottom: "ip3"
  top: "ip3"
}
layer {
  name: "ip4"
  type: "InnerProduct"
  bottom: "ip3"
  top: "ip4"
  param {
    lr_mult: 1
  }
  param {
    lr_mult: 2
  }
  inner_product_param {
    num_output: 10
    weight_filler {
      type: "gaussian"
      std: 0.01
    }
    bias_filler {
      type: "constant"
    }
  }
}
layer {
  name: "accuracy"
  type: "Accuracy"
  bottom: "ip4"
  bottom: "label"
  top: "accuracy"
  include {
    phase: TEST
  }
}
layer {
  name: "loss"
  type: "SoftmaxWithLoss"
  bottom: "ip4"
  bottom: "label"
  top: "loss"
}
I0501 05:50:22.242032 30565 layer_factory.hpp:77] Creating layer cifar
I0501 05:50:22.242074 30565 db_lmdb.cpp:35] Opened lmdb examples/cifar10/cifar10_test_lmdb
I0501 05:50:22.242085 30565 net.cpp:86] Creating Layer cifar
I0501 05:50:22.242089 30565 net.cpp:382] cifar -> data
I0501 05:50:22.242096 30565 net.cpp:382] cifar -> label
I0501 05:50:22.242102 30565 data_transformer.cpp:25] Loading mean file from: examples/cifar10/mean.binaryproto
I0501 05:50:22.242233 30565 data_layer.cpp:45] output data size: 1000,3,32,32
I0501 05:50:22.263686 30565 net.cpp:124] Setting up cifar
I0501 05:50:22.263727 30565 net.cpp:131] Top shape: 1000 3 32 32 (3072000)
I0501 05:50:22.263732 30565 net.cpp:131] Top shape: 1000 (1000)
I0501 05:50:22.263736 30565 net.cpp:139] Memory required for data: 12292000
I0501 05:50:22.263741 30565 layer_factory.hpp:77] Creating layer label_cifar_1_split
I0501 05:50:22.263782 30565 net.cpp:86] Creating Layer label_cifar_1_split
I0501 05:50:22.263787 30565 net.cpp:408] label_cifar_1_split <- label
I0501 05:50:22.263792 30565 net.cpp:382] label_cifar_1_split -> label_cifar_1_split_0
I0501 05:50:22.263802 30565 net.cpp:382] label_cifar_1_split -> label_cifar_1_split_1
I0501 05:50:22.263906 30565 net.cpp:124] Setting up label_cifar_1_split
I0501 05:50:22.263913 30565 net.cpp:131] Top shape: 1000 (1000)
I0501 05:50:22.263917 30565 net.cpp:131] Top shape: 1000 (1000)
I0501 05:50:22.263919 30565 net.cpp:139] Memory required for data: 12300000
I0501 05:50:22.263923 30565 layer_factory.hpp:77] Creating layer conv0
I0501 05:50:22.263934 30565 net.cpp:86] Creating Layer conv0
I0501 05:50:22.263938 30565 net.cpp:408] conv0 <- data
I0501 05:50:22.263943 30565 net.cpp:382] conv0 -> conv0
I0501 05:50:22.265476 30565 net.cpp:124] Setting up conv0
I0501 05:50:22.265489 30565 net.cpp:131] Top shape: 1000 8 32 32 (8192000)
I0501 05:50:22.265509 30565 net.cpp:139] Memory required for data: 45068000
I0501 05:50:22.265518 30565 layer_factory.hpp:77] Creating layer Sigmoid0
I0501 05:50:22.265527 30565 net.cpp:86] Creating Layer Sigmoid0
I0501 05:50:22.265529 30565 net.cpp:408] Sigmoid0 <- conv0
I0501 05:50:22.265534 30565 net.cpp:382] Sigmoid0 -> Sigmoid0
I0501 05:50:22.265728 30565 net.cpp:124] Setting up Sigmoid0
I0501 05:50:22.265736 30565 net.cpp:131] Top shape: 1000 8 32 32 (8192000)
I0501 05:50:22.265739 30565 net.cpp:139] Memory required for data: 77836000
I0501 05:50:22.265759 30565 layer_factory.hpp:77] Creating layer pool0
I0501 05:50:22.265769 30565 net.cpp:86] Creating Layer pool0
I0501 05:50:22.265771 30565 net.cpp:408] pool0 <- Sigmoid0
I0501 05:50:22.265776 30565 net.cpp:382] pool0 -> pool0
I0501 05:50:22.266010 30565 net.cpp:124] Setting up pool0
I0501 05:50:22.266017 30565 net.cpp:131] Top shape: 1000 8 16 16 (2048000)
I0501 05:50:22.266021 30565 net.cpp:139] Memory required for data: 86028000
I0501 05:50:22.266024 30565 layer_factory.hpp:77] Creating layer ip1
I0501 05:50:22.266031 30565 net.cpp:86] Creating Layer ip1
I0501 05:50:22.266034 30565 net.cpp:408] ip1 <- pool0
I0501 05:50:22.266041 30565 net.cpp:382] ip1 -> ip1
I0501 05:50:22.271445 30565 net.cpp:124] Setting up ip1
I0501 05:50:22.271453 30565 net.cpp:131] Top shape: 1000 80 (80000)
I0501 05:50:22.271471 30565 net.cpp:139] Memory required for data: 86348000
I0501 05:50:22.271493 30565 layer_factory.hpp:77] Creating layer relu1
I0501 05:50:22.271499 30565 net.cpp:86] Creating Layer relu1
I0501 05:50:22.271502 30565 net.cpp:408] relu1 <- ip1
I0501 05:50:22.271507 30565 net.cpp:369] relu1 -> ip1 (in-place)
I0501 05:50:22.271672 30565 net.cpp:124] Setting up relu1
I0501 05:50:22.271680 30565 net.cpp:131] Top shape: 1000 80 (80000)
I0501 05:50:22.271683 30565 net.cpp:139] Memory required for data: 86668000
I0501 05:50:22.271687 30565 layer_factory.hpp:77] Creating layer ip2
I0501 05:50:22.271692 30565 net.cpp:86] Creating Layer ip2
I0501 05:50:22.271695 30565 net.cpp:408] ip2 <- ip1
I0501 05:50:22.271702 30565 net.cpp:382] ip2 -> ip2
I0501 05:50:22.271981 30565 net.cpp:124] Setting up ip2
I0501 05:50:22.271987 30565 net.cpp:131] Top shape: 1000 80 (80000)
I0501 05:50:22.271991 30565 net.cpp:139] Memory required for data: 86988000
I0501 05:50:22.271997 30565 layer_factory.hpp:77] Creating layer relu2
I0501 05:50:22.272004 30565 net.cpp:86] Creating Layer relu2
I0501 05:50:22.272007 30565 net.cpp:408] relu2 <- ip2
I0501 05:50:22.272011 30565 net.cpp:369] relu2 -> ip2 (in-place)
I0501 05:50:22.272779 30565 net.cpp:124] Setting up relu2
I0501 05:50:22.272790 30565 net.cpp:131] Top shape: 1000 80 (80000)
I0501 05:50:22.272814 30565 net.cpp:139] Memory required for data: 87308000
I0501 05:50:22.272819 30565 layer_factory.hpp:77] Creating layer ip3
I0501 05:50:22.272825 30565 net.cpp:86] Creating Layer ip3
I0501 05:50:22.272845 30565 net.cpp:408] ip3 <- ip2
I0501 05:50:22.272851 30565 net.cpp:382] ip3 -> ip3
I0501 05:50:22.273023 30565 net.cpp:124] Setting up ip3
I0501 05:50:22.273030 30565 net.cpp:131] Top shape: 1000 20 (20000)
I0501 05:50:22.273035 30565 net.cpp:139] Memory required for data: 87388000
I0501 05:50:22.273041 30565 layer_factory.hpp:77] Creating layer relu3
I0501 05:50:22.273046 30565 net.cpp:86] Creating Layer relu3
I0501 05:50:22.273049 30565 net.cpp:408] relu3 <- ip3
I0501 05:50:22.273054 30565 net.cpp:369] relu3 -> ip3 (in-place)
I0501 05:50:22.273248 30565 net.cpp:124] Setting up relu3
I0501 05:50:22.273255 30565 net.cpp:131] Top shape: 1000 20 (20000)
I0501 05:50:22.273258 30565 net.cpp:139] Memory required for data: 87468000
I0501 05:50:22.273262 30565 layer_factory.hpp:77] Creating layer ip4
I0501 05:50:22.273268 30565 net.cpp:86] Creating Layer ip4
I0501 05:50:22.273272 30565 net.cpp:408] ip4 <- ip3
I0501 05:50:22.273277 30565 net.cpp:382] ip4 -> ip4
I0501 05:50:22.273376 30565 net.cpp:124] Setting up ip4
I0501 05:50:22.273383 30565 net.cpp:131] Top shape: 1000 10 (10000)
I0501 05:50:22.273386 30565 net.cpp:139] Memory required for data: 87508000
I0501 05:50:22.273393 30565 layer_factory.hpp:77] Creating layer ip4_ip4_0_split
I0501 05:50:22.273399 30565 net.cpp:86] Creating Layer ip4_ip4_0_split
I0501 05:50:22.273402 30565 net.cpp:408] ip4_ip4_0_split <- ip4
I0501 05:50:22.273406 30565 net.cpp:382] ip4_ip4_0_split -> ip4_ip4_0_split_0
I0501 05:50:22.273411 30565 net.cpp:382] ip4_ip4_0_split -> ip4_ip4_0_split_1
I0501 05:50:22.273440 30565 net.cpp:124] Setting up ip4_ip4_0_split
I0501 05:50:22.273449 30565 net.cpp:131] Top shape: 1000 10 (10000)
I0501 05:50:22.273453 30565 net.cpp:131] Top shape: 1000 10 (10000)
I0501 05:50:22.273457 30565 net.cpp:139] Memory required for data: 87588000
I0501 05:50:22.273459 30565 layer_factory.hpp:77] Creating layer accuracy
I0501 05:50:22.273464 30565 net.cpp:86] Creating Layer accuracy
I0501 05:50:22.273468 30565 net.cpp:408] accuracy <- ip4_ip4_0_split_0
I0501 05:50:22.273471 30565 net.cpp:408] accuracy <- label_cifar_1_split_0
I0501 05:50:22.273475 30565 net.cpp:382] accuracy -> accuracy
…
