…
I0501 08:22:20.129382 10335 net.cpp:296] The NetState phase (0) differed from the phase (1) specified by a rule in layer cifar
I0501 08:22:20.129410 10335 net.cpp:296] The NetState phase (0) differed from the phase (1) specified by a rule in layer accuracy
I0501 08:22:20.129503 10335 net.cpp:53] Initializing net from parameters: 
name: "CIFAR"
state {
  phase: TRAIN
  level: 0
  stage: ""
}
layer {
  name: "cifar"
  type: "Data"
  top: "data"
  top: "label"
  include {
    phase: TRAIN
  }
  transform_param {
    mean_file: "examples/cifar10/mean.binaryproto"
  }
  data_param {
    source: "examples/cifar10/cifar10_train_lmdb"
    batch_size: 111
    backend: LMDB
  }
}
layer {
  name: "conv0"
  type: "Convolution"
  bottom: "data"
  top: "conv0"
  param {
    lr_mult: 1
  }
  param {
    lr_mult: 2
  }
  convolution_param {
    num_output: 16
    pad: 2
    kernel_size: 3
    stride: 1
    weight_filler {
      type: "gaussian"
      std: 0.01
    }
    bias_filler {
      type: "constant"
    }
  }
}
layer {
  name: "Sigmoid0"
  type: "Sigmoid"
  bottom: "conv0"
  top: "Sigmoid0"
}
layer {
  name: "pool0"
  type: "Pooling"
  bottom: "Sigmoid0"
  top: "pool0"
  pooling_param {
    pool: AVE
    kernel_size: 3
    stride: 2
  }
}
layer {
  name: "ip1"
  type: "InnerProduct"
  bottom: "pool0"
  top: "ip1"
  param {
    lr_mult: 1
  }
  param {
    lr_mult: 2
  }
  inner_product_param {
    num_output: 10
    weight_filler {
      type: "gaussian"
      std: 0.01
    }
    bias_filler {
      type: "constant"
    }
  }
}
layer {
  name: "relu1"
  type: "ReLU"
  bottom: "ip1"
  top: "ip1"
}
layer {
  name: "ip2"
  type: "InnerProduct"
  bottom: "ip1"
  top: "ip2"
  param {
    lr_mult: 1
  }
  param {
    lr_mult: 2
  }
  inner_product_param {
    num_output: 40
    weight_filler {
      type: "gaussian"
      std: 0.01
    }
    bias_filler {
      type: "constant"
    }
  }
}
layer {
  name: "relu2"
  type: "ReLU"
  bottom: "ip2"
  top: "ip2"
}
layer {
  name: "ip3"
  type: "InnerProduct"
  bottom: "ip2"
  top: "ip3"
  param {
    lr_mult: 1
  }
  param {
    lr_mult: 2
  }
  inner_product_param {
    num_output: 160
    weight_filler {
      type: "gaussian"
      std: 0.01
    }
    bias_filler {
      type: "constant"
    }
  }
}
layer {
  name: "relu3"
  type: "ReLU"
  bottom: "ip3"
  top: "ip3"
}
layer {
  name: "ip4"
  type: "InnerProduct"
  bottom: "ip3"
  top: "ip4"
  param {
    lr_mult: 1
  }
  param {
    lr_mult: 2
  }
  inner_product_param {
    num_output: 10
    weight_filler {
      type: "gaussian"
      std: 0.01
    }
    bias_filler {
      type: "constant"
    }
  }
}
layer {
  name: "loss"
  type: "SoftmaxWithLoss"
  bottom: "ip4"
  bottom: "label"
  top: "loss"
}
I0501 08:22:20.129561 10335 layer_factory.hpp:77] Creating layer cifar
I0501 08:22:20.129643 10335 db_lmdb.cpp:35] Opened lmdb examples/cifar10/cifar10_train_lmdb
I0501 08:22:20.129665 10335 net.cpp:86] Creating Layer cifar
I0501 08:22:20.129672 10335 net.cpp:382] cifar -> data
I0501 08:22:20.129690 10335 net.cpp:382] cifar -> label
I0501 08:22:20.129700 10335 data_transformer.cpp:25] Loading mean file from: examples/cifar10/mean.binaryproto
I0501 08:22:20.131629 10335 data_layer.cpp:45] output data size: 111,3,32,32
I0501 08:22:20.138216 10335 net.cpp:124] Setting up cifar
I0501 08:22:20.138264 10335 net.cpp:131] Top shape: 111 3 32 32 (340992)
I0501 08:22:20.138269 10335 net.cpp:131] Top shape: 111 (111)
I0501 08:22:20.138273 10335 net.cpp:139] Memory required for data: 1364412
I0501 08:22:20.138291 10335 layer_factory.hpp:77] Creating layer conv0
I0501 08:22:20.138322 10335 net.cpp:86] Creating Layer conv0
I0501 08:22:20.138334 10335 net.cpp:408] conv0 <- data
I0501 08:22:20.138345 10335 net.cpp:382] conv0 -> conv0
I0501 08:22:20.371294 10335 net.cpp:124] Setting up conv0
I0501 08:22:20.371338 10335 net.cpp:131] Top shape: 111 16 34 34 (2053056)
I0501 08:22:20.371342 10335 net.cpp:139] Memory required for data: 9576636
I0501 08:22:20.371357 10335 layer_factory.hpp:77] Creating layer Sigmoid0
I0501 08:22:20.371368 10335 net.cpp:86] Creating Layer Sigmoid0
I0501 08:22:20.371371 10335 net.cpp:408] Sigmoid0 <- conv0
I0501 08:22:20.371376 10335 net.cpp:382] Sigmoid0 -> Sigmoid0
I0501 08:22:20.371563 10335 net.cpp:124] Setting up Sigmoid0
I0501 08:22:20.371572 10335 net.cpp:131] Top shape: 111 16 34 34 (2053056)
I0501 08:22:20.371575 10335 net.cpp:139] Memory required for data: 17788860
I0501 08:22:20.371578 10335 layer_factory.hpp:77] Creating layer pool0
I0501 08:22:20.371585 10335 net.cpp:86] Creating Layer pool0
I0501 08:22:20.371587 10335 net.cpp:408] pool0 <- Sigmoid0
I0501 08:22:20.371592 10335 net.cpp:382] pool0 -> pool0
I0501 08:22:20.372349 10335 net.cpp:124] Setting up pool0
I0501 08:22:20.372361 10335 net.cpp:131] Top shape: 111 16 17 17 (513264)
I0501 08:22:20.372380 10335 net.cpp:139] Memory required for data: 19841916
I0501 08:22:20.372383 10335 layer_factory.hpp:77] Creating layer ip1
I0501 08:22:20.372392 10335 net.cpp:86] Creating Layer ip1
I0501 08:22:20.372395 10335 net.cpp:408] ip1 <- pool0
I0501 08:22:20.372400 10335 net.cpp:382] ip1 -> ip1
I0501 08:22:20.374572 10335 net.cpp:124] Setting up ip1
I0501 08:22:20.374598 10335 net.cpp:131] Top shape: 111 10 (1110)
I0501 08:22:20.374603 10335 net.cpp:139] Memory required for data: 19846356
I0501 08:22:20.374609 10335 layer_factory.hpp:77] Creating layer relu1
I0501 08:22:20.374615 10335 net.cpp:86] Creating Layer relu1
I0501 08:22:20.374619 10335 net.cpp:408] relu1 <- ip1
I0501 08:22:20.374624 10335 net.cpp:369] relu1 -> ip1 (in-place)
I0501 08:22:20.374786 10335 net.cpp:124] Setting up relu1
I0501 08:22:20.374794 10335 net.cpp:131] Top shape: 111 10 (1110)
I0501 08:22:20.374797 10335 net.cpp:139] Memory required for data: 19850796
I0501 08:22:20.374800 10335 layer_factory.hpp:77] Creating layer ip2
I0501 08:22:20.374807 10335 net.cpp:86] Creating Layer ip2
I0501 08:22:20.374810 10335 net.cpp:408] ip2 <- ip1
I0501 08:22:20.374815 10335 net.cpp:382] ip2 -> ip2
I0501 08:22:20.374920 10335 net.cpp:124] Setting up ip2
I0501 08:22:20.374927 10335 net.cpp:131] Top shape: 111 40 (4440)
I0501 08:22:20.374930 10335 net.cpp:139] Memory required for data: 19868556
I0501 08:22:20.374938 10335 layer_factory.hpp:77] Creating layer relu2
I0501 08:22:20.374943 10335 net.cpp:86] Creating Layer relu2
I0501 08:22:20.374945 10335 net.cpp:408] relu2 <- ip2
I0501 08:22:20.374949 10335 net.cpp:369] relu2 -> ip2 (in-place)
I0501 08:22:20.375118 10335 net.cpp:124] Setting up relu2
I0501 08:22:20.375125 10335 net.cpp:131] Top shape: 111 40 (4440)
I0501 08:22:20.375128 10335 net.cpp:139] Memory required for data: 19886316
I0501 08:22:20.375131 10335 layer_factory.hpp:77] Creating layer ip3
I0501 08:22:20.375138 10335 net.cpp:86] Creating Layer ip3
I0501 08:22:20.375141 10335 net.cpp:408] ip3 <- ip2
I0501 08:22:20.375146 10335 net.cpp:382] ip3 -> ip3
I0501 08:22:20.376238 10335 net.cpp:124] Setting up ip3
I0501 08:22:20.376250 10335 net.cpp:131] Top shape: 111 160 (17760)
I0501 08:22:20.376268 10335 net.cpp:139] Memory required for data: 19957356
I0501 08:22:20.376274 10335 layer_factory.hpp:77] Creating layer relu3
I0501 08:22:20.376281 10335 net.cpp:86] Creating Layer relu3
I0501 08:22:20.376283 10335 net.cpp:408] relu3 <- ip3
I0501 08:22:20.376287 10335 net.cpp:369] relu3 -> ip3 (in-place)
I0501 08:22:20.376472 10335 net.cpp:124] Setting up relu3
I0501 08:22:20.376480 10335 net.cpp:131] Top shape: 111 160 (17760)
I0501 08:22:20.376483 10335 net.cpp:139] Memory required for data: 20028396
I0501 08:22:20.376487 10335 layer_factory.hpp:77] Creating layer ip4
I0501 08:22:20.376507 10335 net.cpp:86] Creating Layer ip4
I0501 08:22:20.376510 10335 net.cpp:408] ip4 <- ip3
I0501 08:22:20.376515 10335 net.cpp:382] ip4 -> ip4
I0501 08:22:20.376648 10335 net.cpp:124] Setting up ip4
I0501 08:22:20.376657 10335 net.cpp:131] Top shape: 111 10 (1110)
I0501 08:22:20.376659 10335 net.cpp:139] Memory required for data: 20032836
I0501 08:22:20.376667 10335 layer_factory.hpp:77] Creating layer loss
I0501 08:22:20.376677 10335 net.cpp:86] Creating Layer loss
I0501 08:22:20.376680 10335 net.cpp:408] loss <- ip4
I0501 08:22:20.376683 10335 net.cpp:408] loss <- label
I0501 08:22:20.376688 10335 net.cpp:382] loss -> loss
I0501 08:22:20.376700 10335 layer_factory.hpp:77] Creating layer loss
…
I0501 08:22:20.377980 10335 solver.cpp:173] Creating test net (#0) specified by net file: ECE595/cifar/train_test/var_everything/cifar_train_test_509.prototxt
I0501 08:22:20.378007 10335 net.cpp:296] The NetState phase (1) differed from the phase (0) specified by a rule in layer cifar
I0501 08:22:20.378099 10335 net.cpp:53] Initializing net from parameters: 
name: "CIFAR"
state {
  phase: TEST
}
layer {
  name: "cifar"
  type: "Data"
  top: "data"
  top: "label"
  include {
    phase: TEST
  }
  transform_param {
    mean_file: "examples/cifar10/mean.binaryproto"
  }
  data_param {
    source: "examples/cifar10/cifar10_test_lmdb"
    batch_size: 1000
    backend: LMDB
  }
}
layer {
  name: "conv0"
  type: "Convolution"
  bottom: "data"
  top: "conv0"
  param {
    lr_mult: 1
  }
  param {
    lr_mult: 2
  }
  convolution_param {
    num_output: 16
    pad: 2
    kernel_size: 3
    stride: 1
    weight_filler {
      type: "gaussian"
      std: 0.01
    }
    bias_filler {
      type: "constant"
    }
  }
}
layer {
  name: "Sigmoid0"
  type: "Sigmoid"
  bottom: "conv0"
  top: "Sigmoid0"
}
layer {
  name: "pool0"
  type: "Pooling"
  bottom: "Sigmoid0"
  top: "pool0"
  pooling_param {
    pool: AVE
    kernel_size: 3
    stride: 2
  }
}
layer {
  name: "ip1"
  type: "InnerProduct"
  bottom: "pool0"
  top: "ip1"
  param {
    lr_mult: 1
  }
  param {
    lr_mult: 2
  }
  inner_product_param {
    num_output: 10
    weight_filler {
      type: "gaussian"
      std: 0.01
    }
    bias_filler {
      type: "constant"
    }
  }
}
layer {
  name: "relu1"
  type: "ReLU"
  bottom: "ip1"
  top: "ip1"
}
layer {
  name: "ip2"
  type: "InnerProduct"
  bottom: "ip1"
  top: "ip2"
  param {
    lr_mult: 1
  }
  param {
    lr_mult: 2
  }
  inner_product_param {
    num_output: 40
    weight_filler {
      type: "gaussian"
      std: 0.01
    }
    bias_filler {
      type: "constant"
    }
  }
}
layer {
  name: "relu2"
  type: "ReLU"
  bottom: "ip2"
  top: "ip2"
}
layer {
  name: "ip3"
  type: "InnerProduct"
  bottom: "ip2"
  top: "ip3"
  param {
    lr_mult: 1
  }
  param {
    lr_mult: 2
  }
  inner_product_param {
    num_output: 160
    weight_filler {
      type: "gaussian"
      std: 0.01
    }
    bias_filler {
      type: "constant"
    }
  }
}
layer {
  name: "relu3"
  type: "ReLU"
  bottom: "ip3"
  top: "ip3"
}
layer {
  name: "ip4"
  type: "InnerProduct"
  bottom: "ip3"
  top: "ip4"
  param {
    lr_mult: 1
  }
  param {
    lr_mult: 2
  }
  inner_product_param {
    num_output: 10
    weight_filler {
      type: "gaussian"
      std: 0.01
    }
    bias_filler {
      type: "constant"
    }
  }
}
layer {
  name: "accuracy"
  type: "Accuracy"
  bottom: "ip4"
  bottom: "label"
  top: "accuracy"
  include {
    phase: TEST
  }
}
layer {
  name: "loss"
  type: "SoftmaxWithLoss"
  bottom: "ip4"
  bottom: "label"
  top: "loss"
}
I0501 08:22:20.378175 10335 layer_factory.hpp:77] Creating layer cifar
I0501 08:22:20.378221 10335 db_lmdb.cpp:35] Opened lmdb examples/cifar10/cifar10_test_lmdb
I0501 08:22:20.378232 10335 net.cpp:86] Creating Layer cifar
I0501 08:22:20.378237 10335 net.cpp:382] cifar -> data
I0501 08:22:20.378244 10335 net.cpp:382] cifar -> label
I0501 08:22:20.378250 10335 data_transformer.cpp:25] Loading mean file from: examples/cifar10/mean.binaryproto
I0501 08:22:20.378401 10335 data_layer.cpp:45] output data size: 1000,3,32,32
I0501 08:22:20.400161 10335 net.cpp:124] Setting up cifar
I0501 08:22:20.400202 10335 net.cpp:131] Top shape: 1000 3 32 32 (3072000)
I0501 08:22:20.400207 10335 net.cpp:131] Top shape: 1000 (1000)
I0501 08:22:20.400209 10335 net.cpp:139] Memory required for data: 12292000
I0501 08:22:20.400215 10335 layer_factory.hpp:77] Creating layer label_cifar_1_split
I0501 08:22:20.400228 10335 net.cpp:86] Creating Layer label_cifar_1_split
I0501 08:22:20.400246 10335 net.cpp:408] label_cifar_1_split <- label
I0501 08:22:20.400252 10335 net.cpp:382] label_cifar_1_split -> label_cifar_1_split_0
I0501 08:22:20.400277 10335 net.cpp:382] label_cifar_1_split -> label_cifar_1_split_1
I0501 08:22:20.400370 10335 net.cpp:124] Setting up label_cifar_1_split
I0501 08:22:20.400378 10335 net.cpp:131] Top shape: 1000 (1000)
I0501 08:22:20.400382 10335 net.cpp:131] Top shape: 1000 (1000)
I0501 08:22:20.400385 10335 net.cpp:139] Memory required for data: 12300000
I0501 08:22:20.400388 10335 layer_factory.hpp:77] Creating layer conv0
I0501 08:22:20.400400 10335 net.cpp:86] Creating Layer conv0
I0501 08:22:20.400404 10335 net.cpp:408] conv0 <- data
I0501 08:22:20.400409 10335 net.cpp:382] conv0 -> conv0
I0501 08:22:20.402931 10335 net.cpp:124] Setting up conv0
I0501 08:22:20.402961 10335 net.cpp:131] Top shape: 1000 16 34 34 (18496000)
I0501 08:22:20.402966 10335 net.cpp:139] Memory required for data: 86284000
I0501 08:22:20.402976 10335 layer_factory.hpp:77] Creating layer Sigmoid0
I0501 08:22:20.402983 10335 net.cpp:86] Creating Layer Sigmoid0
I0501 08:22:20.402987 10335 net.cpp:408] Sigmoid0 <- conv0
I0501 08:22:20.403007 10335 net.cpp:382] Sigmoid0 -> Sigmoid0
I0501 08:22:20.403209 10335 net.cpp:124] Setting up Sigmoid0
I0501 08:22:20.403218 10335 net.cpp:131] Top shape: 1000 16 34 34 (18496000)
I0501 08:22:20.403221 10335 net.cpp:139] Memory required for data: 160268000
I0501 08:22:20.403225 10335 layer_factory.hpp:77] Creating layer pool0
I0501 08:22:20.403234 10335 net.cpp:86] Creating Layer pool0
I0501 08:22:20.403249 10335 net.cpp:408] pool0 <- Sigmoid0
I0501 08:22:20.403254 10335 net.cpp:382] pool0 -> pool0
I0501 08:22:20.403435 10335 net.cpp:124] Setting up pool0
I0501 08:22:20.403445 10335 net.cpp:131] Top shape: 1000 16 17 17 (4624000)
I0501 08:22:20.403447 10335 net.cpp:139] Memory required for data: 178764000
I0501 08:22:20.403450 10335 layer_factory.hpp:77] Creating layer ip1
I0501 08:22:20.403458 10335 net.cpp:86] Creating Layer ip1
I0501 08:22:20.403461 10335 net.cpp:408] ip1 <- pool0
I0501 08:22:20.403465 10335 net.cpp:382] ip1 -> ip1
I0501 08:22:20.404866 10335 net.cpp:124] Setting up ip1
I0501 08:22:20.404875 10335 net.cpp:131] Top shape: 1000 10 (10000)
I0501 08:22:20.404892 10335 net.cpp:139] Memory required for data: 178804000
I0501 08:22:20.404916 10335 layer_factory.hpp:77] Creating layer relu1
I0501 08:22:20.404922 10335 net.cpp:86] Creating Layer relu1
I0501 08:22:20.404927 10335 net.cpp:408] relu1 <- ip1
I0501 08:22:20.404930 10335 net.cpp:369] relu1 -> ip1 (in-place)
I0501 08:22:20.405128 10335 net.cpp:124] Setting up relu1
I0501 08:22:20.405150 10335 net.cpp:131] Top shape: 1000 10 (10000)
I0501 08:22:20.405153 10335 net.cpp:139] Memory required for data: 178844000
I0501 08:22:20.405156 10335 layer_factory.hpp:77] Creating layer ip2
I0501 08:22:20.405163 10335 net.cpp:86] Creating Layer ip2
I0501 08:22:20.405166 10335 net.cpp:408] ip2 <- ip1
I0501 08:22:20.405171 10335 net.cpp:382] ip2 -> ip2
I0501 08:22:20.405290 10335 net.cpp:124] Setting up ip2
I0501 08:22:20.405297 10335 net.cpp:131] Top shape: 1000 40 (40000)
I0501 08:22:20.405300 10335 net.cpp:139] Memory required for data: 179004000
I0501 08:22:20.405308 10335 layer_factory.hpp:77] Creating layer relu2
I0501 08:22:20.405314 10335 net.cpp:86] Creating Layer relu2
I0501 08:22:20.405318 10335 net.cpp:408] relu2 <- ip2
I0501 08:22:20.405321 10335 net.cpp:369] relu2 -> ip2 (in-place)
I0501 08:22:20.406095 10335 net.cpp:124] Setting up relu2
I0501 08:22:20.406107 10335 net.cpp:131] Top shape: 1000 40 (40000)
I0501 08:22:20.406126 10335 net.cpp:139] Memory required for data: 179164000
I0501 08:22:20.406129 10335 layer_factory.hpp:77] Creating layer ip3
I0501 08:22:20.406136 10335 net.cpp:86] Creating Layer ip3
I0501 08:22:20.406138 10335 net.cpp:408] ip3 <- ip2
I0501 08:22:20.406146 10335 net.cpp:382] ip3 -> ip3
I0501 08:22:20.406430 10335 net.cpp:124] Setting up ip3
I0501 08:22:20.406436 10335 net.cpp:131] Top shape: 1000 160 (160000)
I0501 08:22:20.406440 10335 net.cpp:139] Memory required for data: 179804000
I0501 08:22:20.406445 10335 layer_factory.hpp:77] Creating layer relu3
I0501 08:22:20.406451 10335 net.cpp:86] Creating Layer relu3
I0501 08:22:20.406455 10335 net.cpp:408] relu3 <- ip3
I0501 08:22:20.406458 10335 net.cpp:369] relu3 -> ip3 (in-place)
I0501 08:22:20.406611 10335 net.cpp:124] Setting up relu3
I0501 08:22:20.406620 10335 net.cpp:131] Top shape: 1000 160 (160000)
I0501 08:22:20.406622 10335 net.cpp:139] Memory required for data: 180444000
I0501 08:22:20.406625 10335 layer_factory.hpp:77] Creating layer ip4
I0501 08:22:20.406633 10335 net.cpp:86] Creating Layer ip4
I0501 08:22:20.406636 10335 net.cpp:408] ip4 <- ip3
I0501 08:22:20.406641 10335 net.cpp:382] ip4 -> ip4
I0501 08:22:20.406785 10335 net.cpp:124] Setting up ip4
I0501 08:22:20.406792 10335 net.cpp:131] Top shape: 1000 10 (10000)
I0501 08:22:20.406795 10335 net.cpp:139] Memory required for data: 180484000
I0501 08:22:20.406803 10335 layer_factory.hpp:77] Creating layer ip4_ip4_0_split
I0501 08:22:20.406810 10335 net.cpp:86] Creating Layer ip4_ip4_0_split
I0501 08:22:20.406812 10335 net.cpp:408] ip4_ip4_0_split <- ip4
I0501 08:22:20.406836 10335 net.cpp:382] ip4_ip4_0_split -> ip4_ip4_0_split_0
I0501 08:22:20.406841 10335 net.cpp:382] ip4_ip4_0_split -> ip4_ip4_0_split_1
I0501 08:22:20.406872 10335 net.cpp:124] Setting up ip4_ip4_0_split
I0501 08:22:20.406878 10335 net.cpp:131] Top shape: 1000 10 (10000)
I0501 08:22:20.406883 10335 net.cpp:131] Top shape: 1000 10 (10000)
I0501 08:22:20.406884 10335 net.cpp:139] Memory required for data: 180564000
I0501 08:22:20.406888 10335 layer_factory.hpp:77] Creating layer accuracy
I0501 08:22:20.406894 10335 net.cpp:86] Creating Layer accuracy
I0501 08:22:20.406898 10335 net.cpp:408] accuracy <- ip4_ip4_0_split_0
I0501 08:22:20.406901 10335 net.cpp:408] accuracy <- label_cifar_1_split_0
I0501 08:22:20.406906 10335 net.cpp:382] accuracy -> accuracy
…
