…
I0430 22:27:23.188547  2073 net.cpp:296] The NetState phase (0) differed from the phase (1) specified by a rule in layer cifar
I0430 22:27:23.188568  2073 net.cpp:296] The NetState phase (0) differed from the phase (1) specified by a rule in layer accuracy
I0430 22:27:23.188674  2073 net.cpp:53] Initializing net from parameters: 
name: "CIFAR"
state {
  phase: TRAIN
  level: 0
  stage: ""
}
layer {
  name: "cifar"
  type: "Data"
  top: "data"
  top: "label"
  include {
    phase: TRAIN
  }
  transform_param {
    mean_file: "examples/cifar10/mean.binaryproto"
  }
  data_param {
    source: "examples/cifar10/cifar10_train_lmdb"
    batch_size: 111
    backend: LMDB
  }
}
layer {
  name: "conv0"
  type: "Convolution"
  bottom: "data"
  top: "conv0"
  param {
    lr_mult: 1
  }
  param {
    lr_mult: 2
  }
  convolution_param {
    num_output: 8
    pad: 2
    kernel_size: 3
    stride: 1
    weight_filler {
      type: "gaussian"
      std: 0.01
    }
    bias_filler {
      type: "constant"
    }
  }
}
layer {
  name: "Sigmoid0"
  type: "Sigmoid"
  bottom: "conv0"
  top: "Sigmoid0"
}
layer {
  name: "pool0"
  type: "Pooling"
  bottom: "Sigmoid0"
  top: "pool0"
  pooling_param {
    pool: AVE
    kernel_size: 3
    stride: 2
  }
}
layer {
  name: "ip1"
  type: "InnerProduct"
  bottom: "pool0"
  top: "ip1"
  param {
    lr_mult: 1
  }
  param {
    lr_mult: 2
  }
  inner_product_param {
    num_output: 10
    weight_filler {
      type: "gaussian"
      std: 0.01
    }
    bias_filler {
      type: "constant"
    }
  }
}
layer {
  name: "relu1"
  type: "ReLU"
  bottom: "ip1"
  top: "ip1"
}
layer {
  name: "ip2"
  type: "InnerProduct"
  bottom: "ip1"
  top: "ip2"
  param {
    lr_mult: 1
  }
  param {
    lr_mult: 2
  }
  inner_product_param {
    num_output: 20
    weight_filler {
      type: "gaussian"
      std: 0.01
    }
    bias_filler {
      type: "constant"
    }
  }
}
layer {
  name: "relu2"
  type: "ReLU"
  bottom: "ip2"
  top: "ip2"
}
layer {
  name: "ip3"
  type: "InnerProduct"
  bottom: "ip2"
  top: "ip3"
  param {
    lr_mult: 1
  }
  param {
    lr_mult: 2
  }
  inner_product_param {
    num_output: 160
    weight_filler {
      type: "gaussian"
      std: 0.01
    }
    bias_filler {
      type: "constant"
    }
  }
}
layer {
  name: "relu3"
  type: "ReLU"
  bottom: "ip3"
  top: "ip3"
}
layer {
  name: "ip4"
  type: "InnerProduct"
  bottom: "ip3"
  top: "ip4"
  param {
    lr_mult: 1
  }
  param {
    lr_mult: 2
  }
  inner_product_param {
    num_output: 10
    weight_filler {
      type: "gaussian"
      std: 0.01
    }
    bias_filler {
      type: "constant"
    }
  }
}
layer {
  name: "loss"
  type: "SoftmaxWithLoss"
  bottom: "ip4"
  bottom: "label"
  top: "loss"
}
I0430 22:27:23.188755  2073 layer_factory.hpp:77] Creating layer cifar
I0430 22:27:23.188860  2073 db_lmdb.cpp:35] Opened lmdb examples/cifar10/cifar10_train_lmdb
I0430 22:27:23.188889  2073 net.cpp:86] Creating Layer cifar
I0430 22:27:23.188899  2073 net.cpp:382] cifar -> data
I0430 22:27:23.188922  2073 net.cpp:382] cifar -> label
I0430 22:27:23.188935  2073 data_transformer.cpp:25] Loading mean file from: examples/cifar10/mean.binaryproto
I0430 22:27:23.191037  2073 data_layer.cpp:45] output data size: 111,3,32,32
I0430 22:27:23.198943  2073 net.cpp:124] Setting up cifar
I0430 22:27:23.198961  2073 net.cpp:131] Top shape: 111 3 32 32 (340992)
I0430 22:27:23.198968  2073 net.cpp:131] Top shape: 111 (111)
I0430 22:27:23.198971  2073 net.cpp:139] Memory required for data: 1364412
I0430 22:27:23.198994  2073 layer_factory.hpp:77] Creating layer conv0
I0430 22:27:23.199014  2073 net.cpp:86] Creating Layer conv0
I0430 22:27:23.199020  2073 net.cpp:408] conv0 <- data
I0430 22:27:23.199033  2073 net.cpp:382] conv0 -> conv0
I0430 22:27:23.489797  2073 net.cpp:124] Setting up conv0
I0430 22:27:23.489827  2073 net.cpp:131] Top shape: 111 8 34 34 (1026528)
I0430 22:27:23.489832  2073 net.cpp:139] Memory required for data: 5470524
I0430 22:27:23.489850  2073 layer_factory.hpp:77] Creating layer Sigmoid0
I0430 22:27:23.489863  2073 net.cpp:86] Creating Layer Sigmoid0
I0430 22:27:23.489868  2073 net.cpp:408] Sigmoid0 <- conv0
I0430 22:27:23.489874  2073 net.cpp:382] Sigmoid0 -> Sigmoid0
I0430 22:27:23.490082  2073 net.cpp:124] Setting up Sigmoid0
I0430 22:27:23.490092  2073 net.cpp:131] Top shape: 111 8 34 34 (1026528)
I0430 22:27:23.490097  2073 net.cpp:139] Memory required for data: 9576636
I0430 22:27:23.490100  2073 layer_factory.hpp:77] Creating layer pool0
I0430 22:27:23.490108  2073 net.cpp:86] Creating Layer pool0
I0430 22:27:23.490111  2073 net.cpp:408] pool0 <- Sigmoid0
I0430 22:27:23.490116  2073 net.cpp:382] pool0 -> pool0
I0430 22:27:23.490963  2073 net.cpp:124] Setting up pool0
I0430 22:27:23.490978  2073 net.cpp:131] Top shape: 111 8 17 17 (256632)
I0430 22:27:23.490983  2073 net.cpp:139] Memory required for data: 10603164
I0430 22:27:23.490986  2073 layer_factory.hpp:77] Creating layer ip1
I0430 22:27:23.490998  2073 net.cpp:86] Creating Layer ip1
I0430 22:27:23.491001  2073 net.cpp:408] ip1 <- pool0
I0430 22:27:23.491008  2073 net.cpp:382] ip1 -> ip1
I0430 22:27:23.492797  2073 net.cpp:124] Setting up ip1
I0430 22:27:23.492820  2073 net.cpp:131] Top shape: 111 10 (1110)
I0430 22:27:23.492825  2073 net.cpp:139] Memory required for data: 10607604
I0430 22:27:23.492835  2073 layer_factory.hpp:77] Creating layer relu1
I0430 22:27:23.492841  2073 net.cpp:86] Creating Layer relu1
I0430 22:27:23.492846  2073 net.cpp:408] relu1 <- ip1
I0430 22:27:23.492851  2073 net.cpp:369] relu1 -> ip1 (in-place)
I0430 22:27:23.493046  2073 net.cpp:124] Setting up relu1
I0430 22:27:23.493055  2073 net.cpp:131] Top shape: 111 10 (1110)
I0430 22:27:23.493059  2073 net.cpp:139] Memory required for data: 10612044
I0430 22:27:23.493062  2073 layer_factory.hpp:77] Creating layer ip2
I0430 22:27:23.493070  2073 net.cpp:86] Creating Layer ip2
I0430 22:27:23.493073  2073 net.cpp:408] ip2 <- ip1
I0430 22:27:23.493079  2073 net.cpp:382] ip2 -> ip2
I0430 22:27:23.493185  2073 net.cpp:124] Setting up ip2
I0430 22:27:23.493193  2073 net.cpp:131] Top shape: 111 20 (2220)
I0430 22:27:23.493197  2073 net.cpp:139] Memory required for data: 10620924
I0430 22:27:23.493204  2073 layer_factory.hpp:77] Creating layer relu2
I0430 22:27:23.493211  2073 net.cpp:86] Creating Layer relu2
I0430 22:27:23.493214  2073 net.cpp:408] relu2 <- ip2
I0430 22:27:23.493218  2073 net.cpp:369] relu2 -> ip2 (in-place)
I0430 22:27:23.493386  2073 net.cpp:124] Setting up relu2
I0430 22:27:23.493394  2073 net.cpp:131] Top shape: 111 20 (2220)
I0430 22:27:23.493397  2073 net.cpp:139] Memory required for data: 10629804
I0430 22:27:23.493402  2073 layer_factory.hpp:77] Creating layer ip3
I0430 22:27:23.493409  2073 net.cpp:86] Creating Layer ip3
I0430 22:27:23.493413  2073 net.cpp:408] ip3 <- ip2
I0430 22:27:23.493418  2073 net.cpp:382] ip3 -> ip3
I0430 22:27:23.493618  2073 net.cpp:124] Setting up ip3
I0430 22:27:23.493625  2073 net.cpp:131] Top shape: 111 160 (17760)
I0430 22:27:23.493629  2073 net.cpp:139] Memory required for data: 10700844
I0430 22:27:23.493635  2073 layer_factory.hpp:77] Creating layer relu3
I0430 22:27:23.493640  2073 net.cpp:86] Creating Layer relu3
I0430 22:27:23.493644  2073 net.cpp:408] relu3 <- ip3
I0430 22:27:23.493649  2073 net.cpp:369] relu3 -> ip3 (in-place)
I0430 22:27:23.493808  2073 net.cpp:124] Setting up relu3
I0430 22:27:23.493818  2073 net.cpp:131] Top shape: 111 160 (17760)
I0430 22:27:23.493820  2073 net.cpp:139] Memory required for data: 10771884
I0430 22:27:23.493824  2073 layer_factory.hpp:77] Creating layer ip4
I0430 22:27:23.493846  2073 net.cpp:86] Creating Layer ip4
I0430 22:27:23.493849  2073 net.cpp:408] ip4 <- ip3
I0430 22:27:23.493855  2073 net.cpp:382] ip4 -> ip4
I0430 22:27:23.494004  2073 net.cpp:124] Setting up ip4
I0430 22:27:23.494014  2073 net.cpp:131] Top shape: 111 10 (1110)
I0430 22:27:23.494016  2073 net.cpp:139] Memory required for data: 10776324
I0430 22:27:23.494025  2073 layer_factory.hpp:77] Creating layer loss
I0430 22:27:23.494031  2073 net.cpp:86] Creating Layer loss
I0430 22:27:23.494035  2073 net.cpp:408] loss <- ip4
I0430 22:27:23.494040  2073 net.cpp:408] loss <- label
I0430 22:27:23.494045  2073 net.cpp:382] loss -> loss
I0430 22:27:23.494063  2073 layer_factory.hpp:77] Creating layer loss
…
I0430 22:27:23.495401  2073 solver.cpp:173] Creating test net (#0) specified by net file: ECE595/cifar/train_test/var_everything/cifar_train_test_194.prototxt
I0430 22:27:23.495434  2073 net.cpp:296] The NetState phase (1) differed from the phase (0) specified by a rule in layer cifar
I0430 22:27:23.495535  2073 net.cpp:53] Initializing net from parameters: 
name: "CIFAR"
state {
  phase: TEST
}
layer {
  name: "cifar"
  type: "Data"
  top: "data"
  top: "label"
  include {
    phase: TEST
  }
  transform_param {
    mean_file: "examples/cifar10/mean.binaryproto"
  }
  data_param {
    source: "examples/cifar10/cifar10_test_lmdb"
    batch_size: 1000
    backend: LMDB
  }
}
layer {
  name: "conv0"
  type: "Convolution"
  bottom: "data"
  top: "conv0"
  param {
    lr_mult: 1
  }
  param {
    lr_mult: 2
  }
  convolution_param {
    num_output: 8
    pad: 2
    kernel_size: 3
    stride: 1
    weight_filler {
      type: "gaussian"
      std: 0.01
    }
    bias_filler {
      type: "constant"
    }
  }
}
layer {
  name: "Sigmoid0"
  type: "Sigmoid"
  bottom: "conv0"
  top: "Sigmoid0"
}
layer {
  name: "pool0"
  type: "Pooling"
  bottom: "Sigmoid0"
  top: "pool0"
  pooling_param {
    pool: AVE
    kernel_size: 3
    stride: 2
  }
}
layer {
  name: "ip1"
  type: "InnerProduct"
  bottom: "pool0"
  top: "ip1"
  param {
    lr_mult: 1
  }
  param {
    lr_mult: 2
  }
  inner_product_param {
    num_output: 10
    weight_filler {
      type: "gaussian"
      std: 0.01
    }
    bias_filler {
      type: "constant"
    }
  }
}
layer {
  name: "relu1"
  type: "ReLU"
  bottom: "ip1"
  top: "ip1"
}
layer {
  name: "ip2"
  type: "InnerProduct"
  bottom: "ip1"
  top: "ip2"
  param {
    lr_mult: 1
  }
  param {
    lr_mult: 2
  }
  inner_product_param {
    num_output: 20
    weight_filler {
      type: "gaussian"
      std: 0.01
    }
    bias_filler {
      type: "constant"
    }
  }
}
layer {
  name: "relu2"
  type: "ReLU"
  bottom: "ip2"
  top: "ip2"
}
layer {
  name: "ip3"
  type: "InnerProduct"
  bottom: "ip2"
  top: "ip3"
  param {
    lr_mult: 1
  }
  param {
    lr_mult: 2
  }
  inner_product_param {
    num_output: 160
    weight_filler {
      type: "gaussian"
      std: 0.01
    }
    bias_filler {
      type: "constant"
    }
  }
}
layer {
  name: "relu3"
  type: "ReLU"
  bottom: "ip3"
  top: "ip3"
}
layer {
  name: "ip4"
  type: "InnerProduct"
  bottom: "ip3"
  top: "ip4"
  param {
    lr_mult: 1
  }
  param {
    lr_mult: 2
  }
  inner_product_param {
    num_output: 10
    weight_filler {
      type: "gaussian"
      std: 0.01
    }
    bias_filler {
      type: "constant"
    }
  }
}
layer {
  name: "accuracy"
  type: "Accuracy"
  bottom: "ip4"
  bottom: "label"
  top: "accuracy"
  include {
    phase: TEST
  }
}
layer {
  name: "loss"
  type: "SoftmaxWithLoss"
  bottom: "ip4"
  bottom: "label"
  top: "loss"
}
I0430 22:27:23.495621  2073 layer_factory.hpp:77] Creating layer cifar
I0430 22:27:23.495672  2073 db_lmdb.cpp:35] Opened lmdb examples/cifar10/cifar10_test_lmdb
I0430 22:27:23.495685  2073 net.cpp:86] Creating Layer cifar
I0430 22:27:23.495690  2073 net.cpp:382] cifar -> data
I0430 22:27:23.495699  2073 net.cpp:382] cifar -> label
I0430 22:27:23.495707  2073 data_transformer.cpp:25] Loading mean file from: examples/cifar10/mean.binaryproto
I0430 22:27:23.495862  2073 data_layer.cpp:45] output data size: 1000,3,32,32
I0430 22:27:23.520578  2073 net.cpp:124] Setting up cifar
I0430 22:27:23.520604  2073 net.cpp:131] Top shape: 1000 3 32 32 (3072000)
I0430 22:27:23.520611  2073 net.cpp:131] Top shape: 1000 (1000)
I0430 22:27:23.520614  2073 net.cpp:139] Memory required for data: 12292000
I0430 22:27:23.520620  2073 layer_factory.hpp:77] Creating layer label_cifar_1_split
I0430 22:27:23.520632  2073 net.cpp:86] Creating Layer label_cifar_1_split
I0430 22:27:23.520648  2073 net.cpp:408] label_cifar_1_split <- label
I0430 22:27:23.520654  2073 net.cpp:382] label_cifar_1_split -> label_cifar_1_split_0
I0430 22:27:23.520663  2073 net.cpp:382] label_cifar_1_split -> label_cifar_1_split_1
I0430 22:27:23.520721  2073 net.cpp:124] Setting up label_cifar_1_split
I0430 22:27:23.520733  2073 net.cpp:131] Top shape: 1000 (1000)
I0430 22:27:23.520737  2073 net.cpp:131] Top shape: 1000 (1000)
I0430 22:27:23.520740  2073 net.cpp:139] Memory required for data: 12300000
I0430 22:27:23.520743  2073 layer_factory.hpp:77] Creating layer conv0
I0430 22:27:23.520756  2073 net.cpp:86] Creating Layer conv0
I0430 22:27:23.520758  2073 net.cpp:408] conv0 <- data
I0430 22:27:23.520764  2073 net.cpp:382] conv0 -> conv0
I0430 22:27:23.523265  2073 net.cpp:124] Setting up conv0
I0430 22:27:23.523282  2073 net.cpp:131] Top shape: 1000 8 34 34 (9248000)
I0430 22:27:23.523285  2073 net.cpp:139] Memory required for data: 49292000
I0430 22:27:23.523295  2073 layer_factory.hpp:77] Creating layer Sigmoid0
I0430 22:27:23.523303  2073 net.cpp:86] Creating Layer Sigmoid0
I0430 22:27:23.523305  2073 net.cpp:408] Sigmoid0 <- conv0
I0430 22:27:23.523313  2073 net.cpp:382] Sigmoid0 -> Sigmoid0
I0430 22:27:23.523501  2073 net.cpp:124] Setting up Sigmoid0
I0430 22:27:23.523511  2073 net.cpp:131] Top shape: 1000 8 34 34 (9248000)
I0430 22:27:23.523514  2073 net.cpp:139] Memory required for data: 86284000
I0430 22:27:23.523519  2073 layer_factory.hpp:77] Creating layer pool0
I0430 22:27:23.523527  2073 net.cpp:86] Creating Layer pool0
I0430 22:27:23.523531  2073 net.cpp:408] pool0 <- Sigmoid0
I0430 22:27:23.523535  2073 net.cpp:382] pool0 -> pool0
I0430 22:27:23.523706  2073 net.cpp:124] Setting up pool0
I0430 22:27:23.523717  2073 net.cpp:131] Top shape: 1000 8 17 17 (2312000)
I0430 22:27:23.523720  2073 net.cpp:139] Memory required for data: 95532000
I0430 22:27:23.523723  2073 layer_factory.hpp:77] Creating layer ip1
I0430 22:27:23.523730  2073 net.cpp:86] Creating Layer ip1
I0430 22:27:23.523735  2073 net.cpp:408] ip1 <- pool0
I0430 22:27:23.523739  2073 net.cpp:382] ip1 -> ip1
I0430 22:27:23.524497  2073 net.cpp:124] Setting up ip1
I0430 22:27:23.524505  2073 net.cpp:131] Top shape: 1000 10 (10000)
I0430 22:27:23.524508  2073 net.cpp:139] Memory required for data: 95572000
I0430 22:27:23.524531  2073 layer_factory.hpp:77] Creating layer relu1
I0430 22:27:23.524538  2073 net.cpp:86] Creating Layer relu1
I0430 22:27:23.524540  2073 net.cpp:408] relu1 <- ip1
I0430 22:27:23.524545  2073 net.cpp:369] relu1 -> ip1 (in-place)
I0430 22:27:23.524709  2073 net.cpp:124] Setting up relu1
I0430 22:27:23.524718  2073 net.cpp:131] Top shape: 1000 10 (10000)
I0430 22:27:23.524721  2073 net.cpp:139] Memory required for data: 95612000
I0430 22:27:23.524725  2073 layer_factory.hpp:77] Creating layer ip2
I0430 22:27:23.524732  2073 net.cpp:86] Creating Layer ip2
I0430 22:27:23.524735  2073 net.cpp:408] ip2 <- ip1
I0430 22:27:23.524740  2073 net.cpp:382] ip2 -> ip2
I0430 22:27:23.524904  2073 net.cpp:124] Setting up ip2
I0430 22:27:23.524915  2073 net.cpp:131] Top shape: 1000 20 (20000)
I0430 22:27:23.524919  2073 net.cpp:139] Memory required for data: 95692000
I0430 22:27:23.524926  2073 layer_factory.hpp:77] Creating layer relu2
I0430 22:27:23.524932  2073 net.cpp:86] Creating Layer relu2
I0430 22:27:23.524936  2073 net.cpp:408] relu2 <- ip2
I0430 22:27:23.524940  2073 net.cpp:369] relu2 -> ip2 (in-place)
I0430 22:27:23.525707  2073 net.cpp:124] Setting up relu2
I0430 22:27:23.525719  2073 net.cpp:131] Top shape: 1000 20 (20000)
I0430 22:27:23.525723  2073 net.cpp:139] Memory required for data: 95772000
I0430 22:27:23.525727  2073 layer_factory.hpp:77] Creating layer ip3
I0430 22:27:23.525734  2073 net.cpp:86] Creating Layer ip3
I0430 22:27:23.525738  2073 net.cpp:408] ip3 <- ip2
I0430 22:27:23.525743  2073 net.cpp:382] ip3 -> ip3
I0430 22:27:23.525941  2073 net.cpp:124] Setting up ip3
I0430 22:27:23.525952  2073 net.cpp:131] Top shape: 1000 160 (160000)
I0430 22:27:23.525955  2073 net.cpp:139] Memory required for data: 96412000
I0430 22:27:23.525961  2073 layer_factory.hpp:77] Creating layer relu3
I0430 22:27:23.525967  2073 net.cpp:86] Creating Layer relu3
I0430 22:27:23.525970  2073 net.cpp:408] relu3 <- ip3
I0430 22:27:23.525975  2073 net.cpp:369] relu3 -> ip3 (in-place)
I0430 22:27:23.526129  2073 net.cpp:124] Setting up relu3
I0430 22:27:23.526137  2073 net.cpp:131] Top shape: 1000 160 (160000)
I0430 22:27:23.526141  2073 net.cpp:139] Memory required for data: 97052000
I0430 22:27:23.526145  2073 layer_factory.hpp:77] Creating layer ip4
I0430 22:27:23.526151  2073 net.cpp:86] Creating Layer ip4
I0430 22:27:23.526154  2073 net.cpp:408] ip4 <- ip3
I0430 22:27:23.526160  2073 net.cpp:382] ip4 -> ip4
I0430 22:27:23.526300  2073 net.cpp:124] Setting up ip4
I0430 22:27:23.526309  2073 net.cpp:131] Top shape: 1000 10 (10000)
I0430 22:27:23.526311  2073 net.cpp:139] Memory required for data: 97092000
I0430 22:27:23.526319  2073 layer_factory.hpp:77] Creating layer ip4_ip4_0_split
I0430 22:27:23.526325  2073 net.cpp:86] Creating Layer ip4_ip4_0_split
I0430 22:27:23.526329  2073 net.cpp:408] ip4_ip4_0_split <- ip4
I0430 22:27:23.526332  2073 net.cpp:382] ip4_ip4_0_split -> ip4_ip4_0_split_0
I0430 22:27:23.526338  2073 net.cpp:382] ip4_ip4_0_split -> ip4_ip4_0_split_1
I0430 22:27:23.526370  2073 net.cpp:124] Setting up ip4_ip4_0_split
I0430 22:27:23.526374  2073 net.cpp:131] Top shape: 1000 10 (10000)
I0430 22:27:23.526378  2073 net.cpp:131] Top shape: 1000 10 (10000)
I0430 22:27:23.526381  2073 net.cpp:139] Memory required for data: 97172000
I0430 22:27:23.526384  2073 layer_factory.hpp:77] Creating layer accuracy
I0430 22:27:23.526391  2073 net.cpp:86] Creating Layer accuracy
I0430 22:27:23.526393  2073 net.cpp:408] accuracy <- ip4_ip4_0_split_0
I0430 22:27:23.526397  2073 net.cpp:408] accuracy <- label_cifar_1_split_0
I0430 22:27:23.526402  2073 net.cpp:382] accuracy -> accuracy
…
