…
I0501 07:29:17.118716  5252 net.cpp:296] The NetState phase (0) differed from the phase (1) specified by a rule in layer cifar
I0501 07:29:17.118743  5252 net.cpp:296] The NetState phase (0) differed from the phase (1) specified by a rule in layer accuracy
I0501 07:29:17.118862  5252 net.cpp:53] Initializing net from parameters: 
name: "CIFAR"
state {
  phase: TRAIN
  level: 0
  stage: ""
}
layer {
  name: "cifar"
  type: "Data"
  top: "data"
  top: "label"
  include {
    phase: TRAIN
  }
  transform_param {
    mean_file: "examples/cifar10/mean.binaryproto"
  }
  data_param {
    source: "examples/cifar10/cifar10_train_lmdb"
    batch_size: 111
    backend: LMDB
  }
}
layer {
  name: "conv0"
  type: "Convolution"
  bottom: "data"
  top: "conv0"
  param {
    lr_mult: 1
  }
  param {
    lr_mult: 2
  }
  convolution_param {
    num_output: 16
    pad: 2
    kernel_size: 3
    stride: 1
    weight_filler {
      type: "gaussian"
      std: 0.01
    }
    bias_filler {
      type: "constant"
    }
  }
}
layer {
  name: "Sigmoid0"
  type: "Sigmoid"
  bottom: "conv0"
  top: "Sigmoid0"
}
layer {
  name: "pool0"
  type: "Pooling"
  bottom: "Sigmoid0"
  top: "pool0"
  pooling_param {
    pool: AVE
    kernel_size: 3
    stride: 2
  }
}
layer {
  name: "ip1"
  type: "InnerProduct"
  bottom: "pool0"
  top: "ip1"
  param {
    lr_mult: 1
  }
  param {
    lr_mult: 2
  }
  inner_product_param {
    num_output: 40
    weight_filler {
      type: "gaussian"
      std: 0.01
    }
    bias_filler {
      type: "constant"
    }
  }
}
layer {
  name: "relu1"
  type: "ReLU"
  bottom: "ip1"
  top: "ip1"
}
layer {
  name: "ip2"
  type: "InnerProduct"
  bottom: "ip1"
  top: "ip2"
  param {
    lr_mult: 1
  }
  param {
    lr_mult: 2
  }
  inner_product_param {
    num_output: 80
    weight_filler {
      type: "gaussian"
      std: 0.01
    }
    bias_filler {
      type: "constant"
    }
  }
}
layer {
  name: "relu2"
  type: "ReLU"
  bottom: "ip2"
  top: "ip2"
}
layer {
  name: "ip3"
  type: "InnerProduct"
  bottom: "ip2"
  top: "ip3"
  param {
    lr_mult: 1
  }
  param {
    lr_mult: 2
  }
  inner_product_param {
    num_output: 10
    weight_filler {
      type: "gaussian"
      std: 0.01
    }
    bias_filler {
      type: "constant"
    }
  }
}
layer {
  name: "loss"
  type: "SoftmaxWithLoss"
  bottom: "ip3"
  bottom: "label"
  top: "loss"
}
I0501 07:29:17.118926  5252 layer_factory.hpp:77] Creating layer cifar
I0501 07:29:17.119009  5252 db_lmdb.cpp:35] Opened lmdb examples/cifar10/cifar10_train_lmdb
I0501 07:29:17.119035  5252 net.cpp:86] Creating Layer cifar
I0501 07:29:17.119043  5252 net.cpp:382] cifar -> data
I0501 07:29:17.119062  5252 net.cpp:382] cifar -> label
I0501 07:29:17.119074  5252 data_transformer.cpp:25] Loading mean file from: examples/cifar10/mean.binaryproto
I0501 07:29:17.120945  5252 data_layer.cpp:45] output data size: 111,3,32,32
I0501 07:29:17.127715  5252 net.cpp:124] Setting up cifar
I0501 07:29:17.127748  5252 net.cpp:131] Top shape: 111 3 32 32 (340992)
I0501 07:29:17.127753  5252 net.cpp:131] Top shape: 111 (111)
I0501 07:29:17.127755  5252 net.cpp:139] Memory required for data: 1364412
I0501 07:29:17.127763  5252 layer_factory.hpp:77] Creating layer conv0
I0501 07:29:17.127794  5252 net.cpp:86] Creating Layer conv0
I0501 07:29:17.127799  5252 net.cpp:408] conv0 <- data
I0501 07:29:17.127809  5252 net.cpp:382] conv0 -> conv0
I0501 07:29:17.356765  5252 net.cpp:124] Setting up conv0
I0501 07:29:17.356845  5252 net.cpp:131] Top shape: 111 16 34 34 (2053056)
I0501 07:29:17.356851  5252 net.cpp:139] Memory required for data: 9576636
I0501 07:29:17.356866  5252 layer_factory.hpp:77] Creating layer Sigmoid0
I0501 07:29:17.356894  5252 net.cpp:86] Creating Layer Sigmoid0
I0501 07:29:17.356899  5252 net.cpp:408] Sigmoid0 <- conv0
I0501 07:29:17.356932  5252 net.cpp:382] Sigmoid0 -> Sigmoid0
I0501 07:29:17.357185  5252 net.cpp:124] Setting up Sigmoid0
I0501 07:29:17.357193  5252 net.cpp:131] Top shape: 111 16 34 34 (2053056)
I0501 07:29:17.357197  5252 net.cpp:139] Memory required for data: 17788860
I0501 07:29:17.357200  5252 layer_factory.hpp:77] Creating layer pool0
I0501 07:29:17.357208  5252 net.cpp:86] Creating Layer pool0
I0501 07:29:17.357225  5252 net.cpp:408] pool0 <- Sigmoid0
I0501 07:29:17.357229  5252 net.cpp:382] pool0 -> pool0
I0501 07:29:17.358093  5252 net.cpp:124] Setting up pool0
I0501 07:29:17.358108  5252 net.cpp:131] Top shape: 111 16 17 17 (513264)
I0501 07:29:17.358114  5252 net.cpp:139] Memory required for data: 19841916
I0501 07:29:17.358119  5252 layer_factory.hpp:77] Creating layer ip1
I0501 07:29:17.358132  5252 net.cpp:86] Creating Layer ip1
I0501 07:29:17.358139  5252 net.cpp:408] ip1 <- pool0
I0501 07:29:17.358146  5252 net.cpp:382] ip1 -> ip1
I0501 07:29:17.363600  5252 net.cpp:124] Setting up ip1
I0501 07:29:17.363613  5252 net.cpp:131] Top shape: 111 40 (4440)
I0501 07:29:17.363620  5252 net.cpp:139] Memory required for data: 19859676
I0501 07:29:17.363646  5252 layer_factory.hpp:77] Creating layer relu1
I0501 07:29:17.363656  5252 net.cpp:86] Creating Layer relu1
I0501 07:29:17.363661  5252 net.cpp:408] relu1 <- ip1
I0501 07:29:17.363668  5252 net.cpp:369] relu1 -> ip1 (in-place)
I0501 07:29:17.363817  5252 net.cpp:124] Setting up relu1
I0501 07:29:17.363827  5252 net.cpp:131] Top shape: 111 40 (4440)
I0501 07:29:17.363832  5252 net.cpp:139] Memory required for data: 19877436
I0501 07:29:17.363837  5252 layer_factory.hpp:77] Creating layer ip2
I0501 07:29:17.363847  5252 net.cpp:86] Creating Layer ip2
I0501 07:29:17.363852  5252 net.cpp:408] ip2 <- ip1
I0501 07:29:17.363860  5252 net.cpp:382] ip2 -> ip2
I0501 07:29:17.364053  5252 net.cpp:124] Setting up ip2
I0501 07:29:17.364061  5252 net.cpp:131] Top shape: 111 80 (8880)
I0501 07:29:17.364065  5252 net.cpp:139] Memory required for data: 19912956
I0501 07:29:17.364076  5252 layer_factory.hpp:77] Creating layer relu2
I0501 07:29:17.364084  5252 net.cpp:86] Creating Layer relu2
I0501 07:29:17.364089  5252 net.cpp:408] relu2 <- ip2
I0501 07:29:17.364095  5252 net.cpp:369] relu2 -> ip2 (in-place)
I0501 07:29:17.364241  5252 net.cpp:124] Setting up relu2
I0501 07:29:17.364251  5252 net.cpp:131] Top shape: 111 80 (8880)
I0501 07:29:17.364255  5252 net.cpp:139] Memory required for data: 19948476
I0501 07:29:17.364260  5252 layer_factory.hpp:77] Creating layer ip3
I0501 07:29:17.364270  5252 net.cpp:86] Creating Layer ip3
I0501 07:29:17.364276  5252 net.cpp:408] ip3 <- ip2
I0501 07:29:17.364284  5252 net.cpp:382] ip3 -> ip3
I0501 07:29:17.364394  5252 net.cpp:124] Setting up ip3
I0501 07:29:17.364403  5252 net.cpp:131] Top shape: 111 10 (1110)
I0501 07:29:17.364408  5252 net.cpp:139] Memory required for data: 19952916
I0501 07:29:17.364415  5252 layer_factory.hpp:77] Creating layer loss
I0501 07:29:17.364423  5252 net.cpp:86] Creating Layer loss
I0501 07:29:17.364428  5252 net.cpp:408] loss <- ip3
I0501 07:29:17.364434  5252 net.cpp:408] loss <- label
I0501 07:29:17.364442  5252 net.cpp:382] loss -> loss
I0501 07:29:17.364464  5252 layer_factory.hpp:77] Creating layer loss
…
I0501 07:29:17.365242  5252 solver.cpp:173] Creating test net (#0) specified by net file: ECE595/cifar/train_test/var_everything/cifar_train_test_483.prototxt
I0501 07:29:17.365272  5252 net.cpp:296] The NetState phase (1) differed from the phase (0) specified by a rule in layer cifar
I0501 07:29:17.365356  5252 net.cpp:53] Initializing net from parameters: 
name: "CIFAR"
state {
  phase: TEST
}
layer {
  name: "cifar"
  type: "Data"
  top: "data"
  top: "label"
  include {
    phase: TEST
  }
  transform_param {
    mean_file: "examples/cifar10/mean.binaryproto"
  }
  data_param {
    source: "examples/cifar10/cifar10_test_lmdb"
    batch_size: 1000
    backend: LMDB
  }
}
layer {
  name: "conv0"
  type: "Convolution"
  bottom: "data"
  top: "conv0"
  param {
    lr_mult: 1
  }
  param {
    lr_mult: 2
  }
  convolution_param {
    num_output: 16
    pad: 2
    kernel_size: 3
    stride: 1
    weight_filler {
      type: "gaussian"
      std: 0.01
    }
    bias_filler {
      type: "constant"
    }
  }
}
layer {
  name: "Sigmoid0"
  type: "Sigmoid"
  bottom: "conv0"
  top: "Sigmoid0"
}
layer {
  name: "pool0"
  type: "Pooling"
  bottom: "Sigmoid0"
  top: "pool0"
  pooling_param {
    pool: AVE
    kernel_size: 3
    stride: 2
  }
}
layer {
  name: "ip1"
  type: "InnerProduct"
  bottom: "pool0"
  top: "ip1"
  param {
    lr_mult: 1
  }
  param {
    lr_mult: 2
  }
  inner_product_param {
    num_output: 40
    weight_filler {
      type: "gaussian"
      std: 0.01
    }
    bias_filler {
      type: "constant"
    }
  }
}
layer {
  name: "relu1"
  type: "ReLU"
  bottom: "ip1"
  top: "ip1"
}
layer {
  name: "ip2"
  type: "InnerProduct"
  bottom: "ip1"
  top: "ip2"
  param {
    lr_mult: 1
  }
  param {
    lr_mult: 2
  }
  inner_product_param {
    num_output: 80
    weight_filler {
      type: "gaussian"
      std: 0.01
    }
    bias_filler {
      type: "constant"
    }
  }
}
layer {
  name: "relu2"
  type: "ReLU"
  bottom: "ip2"
  top: "ip2"
}
layer {
  name: "ip3"
  type: "InnerProduct"
  bottom: "ip2"
  top: "ip3"
  param {
    lr_mult: 1
  }
  param {
    lr_mult: 2
  }
  inner_product_param {
    num_output: 10
    weight_filler {
      type: "gaussian"
      std: 0.01
    }
    bias_filler {
      type: "constant"
    }
  }
}
layer {
  name: "accuracy"
  type: "Accuracy"
  bottom: "ip3"
  bottom: "label"
  top: "accuracy"
  include {
    phase: TEST
  }
}
layer {
  name: "loss"
  type: "SoftmaxWithLoss"
  bottom: "ip3"
  bottom: "label"
  top: "loss"
}
I0501 07:29:17.365443  5252 layer_factory.hpp:77] Creating layer cifar
I0501 07:29:17.365500  5252 db_lmdb.cpp:35] Opened lmdb examples/cifar10/cifar10_test_lmdb
I0501 07:29:17.365517  5252 net.cpp:86] Creating Layer cifar
I0501 07:29:17.365525  5252 net.cpp:382] cifar -> data
I0501 07:29:17.365535  5252 net.cpp:382] cifar -> label
I0501 07:29:17.365545  5252 data_transformer.cpp:25] Loading mean file from: examples/cifar10/mean.binaryproto
I0501 07:29:17.365728  5252 data_layer.cpp:45] output data size: 1000,3,32,32
I0501 07:29:17.387658  5252 net.cpp:124] Setting up cifar
I0501 07:29:17.387686  5252 net.cpp:131] Top shape: 1000 3 32 32 (3072000)
I0501 07:29:17.387694  5252 net.cpp:131] Top shape: 1000 (1000)
I0501 07:29:17.387715  5252 net.cpp:139] Memory required for data: 12292000
I0501 07:29:17.387723  5252 layer_factory.hpp:77] Creating layer label_cifar_1_split
I0501 07:29:17.387758  5252 net.cpp:86] Creating Layer label_cifar_1_split
I0501 07:29:17.387790  5252 net.cpp:408] label_cifar_1_split <- label
I0501 07:29:17.387801  5252 net.cpp:382] label_cifar_1_split -> label_cifar_1_split_0
I0501 07:29:17.387818  5252 net.cpp:382] label_cifar_1_split -> label_cifar_1_split_1
I0501 07:29:17.387910  5252 net.cpp:124] Setting up label_cifar_1_split
I0501 07:29:17.387920  5252 net.cpp:131] Top shape: 1000 (1000)
I0501 07:29:17.387928  5252 net.cpp:131] Top shape: 1000 (1000)
I0501 07:29:17.387933  5252 net.cpp:139] Memory required for data: 12300000
I0501 07:29:17.387938  5252 layer_factory.hpp:77] Creating layer conv0
I0501 07:29:17.387956  5252 net.cpp:86] Creating Layer conv0
I0501 07:29:17.387964  5252 net.cpp:408] conv0 <- data
I0501 07:29:17.387974  5252 net.cpp:382] conv0 -> conv0
I0501 07:29:17.389616  5252 net.cpp:124] Setting up conv0
I0501 07:29:17.389631  5252 net.cpp:131] Top shape: 1000 16 34 34 (18496000)
I0501 07:29:17.389637  5252 net.cpp:139] Memory required for data: 86284000
I0501 07:29:17.389668  5252 layer_factory.hpp:77] Creating layer Sigmoid0
I0501 07:29:17.389678  5252 net.cpp:86] Creating Layer Sigmoid0
I0501 07:29:17.389684  5252 net.cpp:408] Sigmoid0 <- conv0
I0501 07:29:17.389693  5252 net.cpp:382] Sigmoid0 -> Sigmoid0
I0501 07:29:17.390663  5252 net.cpp:124] Setting up Sigmoid0
I0501 07:29:17.390676  5252 net.cpp:131] Top shape: 1000 16 34 34 (18496000)
I0501 07:29:17.390682  5252 net.cpp:139] Memory required for data: 160268000
I0501 07:29:17.390704  5252 layer_factory.hpp:77] Creating layer pool0
I0501 07:29:17.390717  5252 net.cpp:86] Creating Layer pool0
I0501 07:29:17.390723  5252 net.cpp:408] pool0 <- Sigmoid0
I0501 07:29:17.390732  5252 net.cpp:382] pool0 -> pool0
I0501 07:29:17.391870  5252 net.cpp:124] Setting up pool0
I0501 07:29:17.391881  5252 net.cpp:131] Top shape: 1000 16 17 17 (4624000)
I0501 07:29:17.391886  5252 net.cpp:139] Memory required for data: 178764000
I0501 07:29:17.391907  5252 layer_factory.hpp:77] Creating layer ip1
I0501 07:29:17.391918  5252 net.cpp:86] Creating Layer ip1
I0501 07:29:17.391924  5252 net.cpp:408] ip1 <- pool0
I0501 07:29:17.391933  5252 net.cpp:382] ip1 -> ip1
I0501 07:29:17.397302  5252 net.cpp:124] Setting up ip1
I0501 07:29:17.397313  5252 net.cpp:131] Top shape: 1000 40 (40000)
I0501 07:29:17.397318  5252 net.cpp:139] Memory required for data: 178924000
I0501 07:29:17.397347  5252 layer_factory.hpp:77] Creating layer relu1
I0501 07:29:17.397357  5252 net.cpp:86] Creating Layer relu1
I0501 07:29:17.397367  5252 net.cpp:408] relu1 <- ip1
I0501 07:29:17.397375  5252 net.cpp:369] relu1 -> ip1 (in-place)
I0501 07:29:17.397549  5252 net.cpp:124] Setting up relu1
I0501 07:29:17.397559  5252 net.cpp:131] Top shape: 1000 40 (40000)
I0501 07:29:17.397564  5252 net.cpp:139] Memory required for data: 179084000
I0501 07:29:17.397570  5252 layer_factory.hpp:77] Creating layer ip2
I0501 07:29:17.397580  5252 net.cpp:86] Creating Layer ip2
I0501 07:29:17.397585  5252 net.cpp:408] ip2 <- ip1
I0501 07:29:17.397594  5252 net.cpp:382] ip2 -> ip2
I0501 07:29:17.397821  5252 net.cpp:124] Setting up ip2
I0501 07:29:17.397831  5252 net.cpp:131] Top shape: 1000 80 (80000)
I0501 07:29:17.397836  5252 net.cpp:139] Memory required for data: 179404000
I0501 07:29:17.397850  5252 layer_factory.hpp:77] Creating layer relu2
I0501 07:29:17.397861  5252 net.cpp:86] Creating Layer relu2
I0501 07:29:17.397871  5252 net.cpp:408] relu2 <- ip2
I0501 07:29:17.397878  5252 net.cpp:369] relu2 -> ip2 (in-place)
I0501 07:29:17.398067  5252 net.cpp:124] Setting up relu2
I0501 07:29:17.398077  5252 net.cpp:131] Top shape: 1000 80 (80000)
I0501 07:29:17.398082  5252 net.cpp:139] Memory required for data: 179724000
I0501 07:29:17.398088  5252 layer_factory.hpp:77] Creating layer ip3
I0501 07:29:17.398099  5252 net.cpp:86] Creating Layer ip3
I0501 07:29:17.398105  5252 net.cpp:408] ip3 <- ip2
I0501 07:29:17.398114  5252 net.cpp:382] ip3 -> ip3
I0501 07:29:17.398252  5252 net.cpp:124] Setting up ip3
I0501 07:29:17.398260  5252 net.cpp:131] Top shape: 1000 10 (10000)
I0501 07:29:17.398280  5252 net.cpp:139] Memory required for data: 179764000
I0501 07:29:17.398289  5252 layer_factory.hpp:77] Creating layer ip3_ip3_0_split
I0501 07:29:17.398299  5252 net.cpp:86] Creating Layer ip3_ip3_0_split
I0501 07:29:17.398304  5252 net.cpp:408] ip3_ip3_0_split <- ip3
I0501 07:29:17.398313  5252 net.cpp:382] ip3_ip3_0_split -> ip3_ip3_0_split_0
I0501 07:29:17.398320  5252 net.cpp:382] ip3_ip3_0_split -> ip3_ip3_0_split_1
I0501 07:29:17.398367  5252 net.cpp:124] Setting up ip3_ip3_0_split
I0501 07:29:17.398375  5252 net.cpp:131] Top shape: 1000 10 (10000)
I0501 07:29:17.398381  5252 net.cpp:131] Top shape: 1000 10 (10000)
I0501 07:29:17.398386  5252 net.cpp:139] Memory required for data: 179844000
I0501 07:29:17.398392  5252 layer_factory.hpp:77] Creating layer accuracy
I0501 07:29:17.398402  5252 net.cpp:86] Creating Layer accuracy
I0501 07:29:17.398407  5252 net.cpp:408] accuracy <- ip3_ip3_0_split_0
I0501 07:29:17.398414  5252 net.cpp:408] accuracy <- label_cifar_1_split_0
I0501 07:29:17.398423  5252 net.cpp:382] accuracy -> accuracy
…
