…
I0430 23:10:52.189354  4366 net.cpp:296] The NetState phase (0) differed from the phase (1) specified by a rule in layer cifar
I0430 23:10:52.189373  4366 net.cpp:296] The NetState phase (0) differed from the phase (1) specified by a rule in layer accuracy
I0430 23:10:52.189493  4366 net.cpp:53] Initializing net from parameters: 
name: "CIFAR"
state {
  phase: TRAIN
  level: 0
  stage: ""
}
layer {
  name: "cifar"
  type: "Data"
  top: "data"
  top: "label"
  include {
    phase: TRAIN
  }
  transform_param {
    mean_file: "examples/cifar10/mean.binaryproto"
  }
  data_param {
    source: "examples/cifar10/cifar10_train_lmdb"
    batch_size: 111
    backend: LMDB
  }
}
layer {
  name: "conv0"
  type: "Convolution"
  bottom: "data"
  top: "conv0"
  param {
    lr_mult: 1
  }
  param {
    lr_mult: 2
  }
  convolution_param {
    num_output: 8
    pad: 2
    kernel_size: 3
    stride: 1
    weight_filler {
      type: "gaussian"
      std: 0.01
    }
    bias_filler {
      type: "constant"
    }
  }
}
layer {
  name: "Sigmoid0"
  type: "Sigmoid"
  bottom: "conv0"
  top: "Sigmoid0"
}
layer {
  name: "pool0"
  type: "Pooling"
  bottom: "Sigmoid0"
  top: "pool0"
  pooling_param {
    pool: AVE
    kernel_size: 3
    stride: 2
  }
}
layer {
  name: "ip1"
  type: "InnerProduct"
  bottom: "pool0"
  top: "ip1"
  param {
    lr_mult: 1
  }
  param {
    lr_mult: 2
  }
  inner_product_param {
    num_output: 20
    weight_filler {
      type: "gaussian"
      std: 0.01
    }
    bias_filler {
      type: "constant"
    }
  }
}
layer {
  name: "relu1"
  type: "ReLU"
  bottom: "ip1"
  top: "ip1"
}
layer {
  name: "ip2"
  type: "InnerProduct"
  bottom: "ip1"
  top: "ip2"
  param {
    lr_mult: 1
  }
  param {
    lr_mult: 2
  }
  inner_product_param {
    num_output: 20
    weight_filler {
      type: "gaussian"
      std: 0.01
    }
    bias_filler {
      type: "constant"
    }
  }
}
layer {
  name: "relu2"
  type: "ReLU"
  bottom: "ip2"
  top: "ip2"
}
layer {
  name: "ip3"
  type: "InnerProduct"
  bottom: "ip2"
  top: "ip3"
  param {
    lr_mult: 1
  }
  param {
    lr_mult: 2
  }
  inner_product_param {
    num_output: 40
    weight_filler {
      type: "gaussian"
      std: 0.01
    }
    bias_filler {
      type: "constant"
    }
  }
}
layer {
  name: "relu3"
  type: "ReLU"
  bottom: "ip3"
  top: "ip3"
}
layer {
  name: "ip4"
  type: "InnerProduct"
  bottom: "ip3"
  top: "ip4"
  param {
    lr_mult: 1
  }
  param {
    lr_mult: 2
  }
  inner_product_param {
    num_output: 10
    weight_filler {
      type: "gaussian"
      std: 0.01
    }
    bias_filler {
      type: "constant"
    }
  }
}
layer {
  name: "loss"
  type: "SoftmaxWithLoss"
  bottom: "ip4"
  bottom: "label"
  top: "loss"
}
I0430 23:10:52.189570  4366 layer_factory.hpp:77] Creating layer cifar
I0430 23:10:52.189663  4366 db_lmdb.cpp:35] Opened lmdb examples/cifar10/cifar10_train_lmdb
I0430 23:10:52.189690  4366 net.cpp:86] Creating Layer cifar
I0430 23:10:52.189707  4366 net.cpp:382] cifar -> data
I0430 23:10:52.189728  4366 net.cpp:382] cifar -> label
I0430 23:10:52.189738  4366 data_transformer.cpp:25] Loading mean file from: examples/cifar10/mean.binaryproto
I0430 23:10:52.191802  4366 data_layer.cpp:45] output data size: 111,3,32,32
I0430 23:10:52.199442  4366 net.cpp:124] Setting up cifar
I0430 23:10:52.199460  4366 net.cpp:131] Top shape: 111 3 32 32 (340992)
I0430 23:10:52.199466  4366 net.cpp:131] Top shape: 111 (111)
I0430 23:10:52.199470  4366 net.cpp:139] Memory required for data: 1364412
I0430 23:10:52.199504  4366 layer_factory.hpp:77] Creating layer conv0
I0430 23:10:52.199532  4366 net.cpp:86] Creating Layer conv0
I0430 23:10:52.199537  4366 net.cpp:408] conv0 <- data
I0430 23:10:52.199551  4366 net.cpp:382] conv0 -> conv0
I0430 23:10:52.430339  4366 net.cpp:124] Setting up conv0
I0430 23:10:52.430380  4366 net.cpp:131] Top shape: 111 8 34 34 (1026528)
I0430 23:10:52.430384  4366 net.cpp:139] Memory required for data: 5470524
I0430 23:10:52.430399  4366 layer_factory.hpp:77] Creating layer Sigmoid0
I0430 23:10:52.430410  4366 net.cpp:86] Creating Layer Sigmoid0
I0430 23:10:52.430414  4366 net.cpp:408] Sigmoid0 <- conv0
I0430 23:10:52.430419  4366 net.cpp:382] Sigmoid0 -> Sigmoid0
I0430 23:10:52.430601  4366 net.cpp:124] Setting up Sigmoid0
I0430 23:10:52.430610  4366 net.cpp:131] Top shape: 111 8 34 34 (1026528)
I0430 23:10:52.430613  4366 net.cpp:139] Memory required for data: 9576636
I0430 23:10:52.430616  4366 layer_factory.hpp:77] Creating layer pool0
I0430 23:10:52.430624  4366 net.cpp:86] Creating Layer pool0
I0430 23:10:52.430626  4366 net.cpp:408] pool0 <- Sigmoid0
I0430 23:10:52.430631  4366 net.cpp:382] pool0 -> pool0
I0430 23:10:52.431365  4366 net.cpp:124] Setting up pool0
I0430 23:10:52.431376  4366 net.cpp:131] Top shape: 111 8 17 17 (256632)
I0430 23:10:52.431380  4366 net.cpp:139] Memory required for data: 10603164
I0430 23:10:52.431382  4366 layer_factory.hpp:77] Creating layer ip1
I0430 23:10:52.431391  4366 net.cpp:86] Creating Layer ip1
I0430 23:10:52.431394  4366 net.cpp:408] ip1 <- pool0
I0430 23:10:52.431398  4366 net.cpp:382] ip1 -> ip1
I0430 23:10:52.433498  4366 net.cpp:124] Setting up ip1
I0430 23:10:52.433508  4366 net.cpp:131] Top shape: 111 20 (2220)
I0430 23:10:52.433511  4366 net.cpp:139] Memory required for data: 10612044
I0430 23:10:52.433519  4366 layer_factory.hpp:77] Creating layer relu1
I0430 23:10:52.433524  4366 net.cpp:86] Creating Layer relu1
I0430 23:10:52.433527  4366 net.cpp:408] relu1 <- ip1
I0430 23:10:52.433531  4366 net.cpp:369] relu1 -> ip1 (in-place)
I0430 23:10:52.433687  4366 net.cpp:124] Setting up relu1
I0430 23:10:52.433696  4366 net.cpp:131] Top shape: 111 20 (2220)
I0430 23:10:52.433698  4366 net.cpp:139] Memory required for data: 10620924
I0430 23:10:52.433701  4366 layer_factory.hpp:77] Creating layer ip2
I0430 23:10:52.433707  4366 net.cpp:86] Creating Layer ip2
I0430 23:10:52.433710  4366 net.cpp:408] ip2 <- ip1
I0430 23:10:52.433715  4366 net.cpp:382] ip2 -> ip2
I0430 23:10:52.434582  4366 net.cpp:124] Setting up ip2
I0430 23:10:52.434593  4366 net.cpp:131] Top shape: 111 20 (2220)
I0430 23:10:52.434597  4366 net.cpp:139] Memory required for data: 10629804
I0430 23:10:52.434603  4366 layer_factory.hpp:77] Creating layer relu2
I0430 23:10:52.434608  4366 net.cpp:86] Creating Layer relu2
I0430 23:10:52.434612  4366 net.cpp:408] relu2 <- ip2
I0430 23:10:52.434615  4366 net.cpp:369] relu2 -> ip2 (in-place)
I0430 23:10:52.434777  4366 net.cpp:124] Setting up relu2
I0430 23:10:52.434785  4366 net.cpp:131] Top shape: 111 20 (2220)
I0430 23:10:52.434788  4366 net.cpp:139] Memory required for data: 10638684
I0430 23:10:52.434792  4366 layer_factory.hpp:77] Creating layer ip3
I0430 23:10:52.434798  4366 net.cpp:86] Creating Layer ip3
I0430 23:10:52.434801  4366 net.cpp:408] ip3 <- ip2
I0430 23:10:52.434806  4366 net.cpp:382] ip3 -> ip3
I0430 23:10:52.434913  4366 net.cpp:124] Setting up ip3
I0430 23:10:52.434921  4366 net.cpp:131] Top shape: 111 40 (4440)
I0430 23:10:52.434923  4366 net.cpp:139] Memory required for data: 10656444
I0430 23:10:52.434928  4366 layer_factory.hpp:77] Creating layer relu3
I0430 23:10:52.434932  4366 net.cpp:86] Creating Layer relu3
I0430 23:10:52.434936  4366 net.cpp:408] relu3 <- ip3
I0430 23:10:52.434939  4366 net.cpp:369] relu3 -> ip3 (in-place)
I0430 23:10:52.435075  4366 net.cpp:124] Setting up relu3
I0430 23:10:52.435083  4366 net.cpp:131] Top shape: 111 40 (4440)
I0430 23:10:52.435086  4366 net.cpp:139] Memory required for data: 10674204
I0430 23:10:52.435089  4366 layer_factory.hpp:77] Creating layer ip4
I0430 23:10:52.435108  4366 net.cpp:86] Creating Layer ip4
I0430 23:10:52.435112  4366 net.cpp:408] ip4 <- ip3
I0430 23:10:52.435117  4366 net.cpp:382] ip4 -> ip4
I0430 23:10:52.435231  4366 net.cpp:124] Setting up ip4
I0430 23:10:52.435240  4366 net.cpp:131] Top shape: 111 10 (1110)
I0430 23:10:52.435242  4366 net.cpp:139] Memory required for data: 10678644
I0430 23:10:52.435250  4366 layer_factory.hpp:77] Creating layer loss
I0430 23:10:52.435256  4366 net.cpp:86] Creating Layer loss
I0430 23:10:52.435258  4366 net.cpp:408] loss <- ip4
I0430 23:10:52.435261  4366 net.cpp:408] loss <- label
I0430 23:10:52.435266  4366 net.cpp:382] loss -> loss
I0430 23:10:52.435281  4366 layer_factory.hpp:77] Creating layer loss
…
I0430 23:10:52.436460  4366 solver.cpp:173] Creating test net (#0) specified by net file: ECE595/cifar/train_test/var_everything/cifar_train_test_217.prototxt
I0430 23:10:52.436486  4366 net.cpp:296] The NetState phase (1) differed from the phase (0) specified by a rule in layer cifar
I0430 23:10:52.436592  4366 net.cpp:53] Initializing net from parameters: 
name: "CIFAR"
state {
  phase: TEST
}
layer {
  name: "cifar"
  type: "Data"
  top: "data"
  top: "label"
  include {
    phase: TEST
  }
  transform_param {
    mean_file: "examples/cifar10/mean.binaryproto"
  }
  data_param {
    source: "examples/cifar10/cifar10_test_lmdb"
    batch_size: 1000
    backend: LMDB
  }
}
layer {
  name: "conv0"
  type: "Convolution"
  bottom: "data"
  top: "conv0"
  param {
    lr_mult: 1
  }
  param {
    lr_mult: 2
  }
  convolution_param {
    num_output: 8
    pad: 2
    kernel_size: 3
    stride: 1
    weight_filler {
      type: "gaussian"
      std: 0.01
    }
    bias_filler {
      type: "constant"
    }
  }
}
layer {
  name: "Sigmoid0"
  type: "Sigmoid"
  bottom: "conv0"
  top: "Sigmoid0"
}
layer {
  name: "pool0"
  type: "Pooling"
  bottom: "Sigmoid0"
  top: "pool0"
  pooling_param {
    pool: AVE
    kernel_size: 3
    stride: 2
  }
}
layer {
  name: "ip1"
  type: "InnerProduct"
  bottom: "pool0"
  top: "ip1"
  param {
    lr_mult: 1
  }
  param {
    lr_mult: 2
  }
  inner_product_param {
    num_output: 20
    weight_filler {
      type: "gaussian"
      std: 0.01
    }
    bias_filler {
      type: "constant"
    }
  }
}
layer {
  name: "relu1"
  type: "ReLU"
  bottom: "ip1"
  top: "ip1"
}
layer {
  name: "ip2"
  type: "InnerProduct"
  bottom: "ip1"
  top: "ip2"
  param {
    lr_mult: 1
  }
  param {
    lr_mult: 2
  }
  inner_product_param {
    num_output: 20
    weight_filler {
      type: "gaussian"
      std: 0.01
    }
    bias_filler {
      type: "constant"
    }
  }
}
layer {
  name: "relu2"
  type: "ReLU"
  bottom: "ip2"
  top: "ip2"
}
layer {
  name: "ip3"
  type: "InnerProduct"
  bottom: "ip2"
  top: "ip3"
  param {
    lr_mult: 1
  }
  param {
    lr_mult: 2
  }
  inner_product_param {
    num_output: 40
    weight_filler {
      type: "gaussian"
      std: 0.01
    }
    bias_filler {
      type: "constant"
    }
  }
}
layer {
  name: "relu3"
  type: "ReLU"
  bottom: "ip3"
  top: "ip3"
}
layer {
  name: "ip4"
  type: "InnerProduct"
  bottom: "ip3"
  top: "ip4"
  param {
    lr_mult: 1
  }
  param {
    lr_mult: 2
  }
  inner_product_param {
    num_output: 10
    weight_filler {
      type: "gaussian"
      std: 0.01
    }
    bias_filler {
      type: "constant"
    }
  }
}
layer {
  name: "accuracy"
  type: "Accuracy"
  bottom: "ip4"
  bottom: "label"
  top: "accuracy"
  include {
    phase: TEST
  }
}
layer {
  name: "loss"
  type: "SoftmaxWithLoss"
  bottom: "ip4"
  bottom: "label"
  top: "loss"
}
I0430 23:10:52.436666  4366 layer_factory.hpp:77] Creating layer cifar
I0430 23:10:52.436707  4366 db_lmdb.cpp:35] Opened lmdb examples/cifar10/cifar10_test_lmdb
I0430 23:10:52.436718  4366 net.cpp:86] Creating Layer cifar
I0430 23:10:52.436722  4366 net.cpp:382] cifar -> data
I0430 23:10:52.436729  4366 net.cpp:382] cifar -> label
I0430 23:10:52.436735  4366 data_transformer.cpp:25] Loading mean file from: examples/cifar10/mean.binaryproto
I0430 23:10:52.436908  4366 data_layer.cpp:45] output data size: 1000,3,32,32
I0430 23:10:52.459309  4366 net.cpp:124] Setting up cifar
I0430 23:10:52.459336  4366 net.cpp:131] Top shape: 1000 3 32 32 (3072000)
I0430 23:10:52.459342  4366 net.cpp:131] Top shape: 1000 (1000)
I0430 23:10:52.459344  4366 net.cpp:139] Memory required for data: 12292000
I0430 23:10:52.459350  4366 layer_factory.hpp:77] Creating layer label_cifar_1_split
I0430 23:10:52.459378  4366 net.cpp:86] Creating Layer label_cifar_1_split
I0430 23:10:52.459381  4366 net.cpp:408] label_cifar_1_split <- label
I0430 23:10:52.459388  4366 net.cpp:382] label_cifar_1_split -> label_cifar_1_split_0
I0430 23:10:52.459409  4366 net.cpp:382] label_cifar_1_split -> label_cifar_1_split_1
I0430 23:10:52.459484  4366 net.cpp:124] Setting up label_cifar_1_split
I0430 23:10:52.459492  4366 net.cpp:131] Top shape: 1000 (1000)
I0430 23:10:52.459496  4366 net.cpp:131] Top shape: 1000 (1000)
I0430 23:10:52.459498  4366 net.cpp:139] Memory required for data: 12300000
I0430 23:10:52.459501  4366 layer_factory.hpp:77] Creating layer conv0
I0430 23:10:52.459512  4366 net.cpp:86] Creating Layer conv0
I0430 23:10:52.459516  4366 net.cpp:408] conv0 <- data
I0430 23:10:52.459520  4366 net.cpp:382] conv0 -> conv0
I0430 23:10:52.461154  4366 net.cpp:124] Setting up conv0
I0430 23:10:52.461166  4366 net.cpp:131] Top shape: 1000 8 34 34 (9248000)
I0430 23:10:52.461170  4366 net.cpp:139] Memory required for data: 49292000
I0430 23:10:52.461179  4366 layer_factory.hpp:77] Creating layer Sigmoid0
I0430 23:10:52.461201  4366 net.cpp:86] Creating Layer Sigmoid0
I0430 23:10:52.461205  4366 net.cpp:408] Sigmoid0 <- conv0
I0430 23:10:52.461208  4366 net.cpp:382] Sigmoid0 -> Sigmoid0
I0430 23:10:52.461386  4366 net.cpp:124] Setting up Sigmoid0
I0430 23:10:52.461395  4366 net.cpp:131] Top shape: 1000 8 34 34 (9248000)
I0430 23:10:52.461397  4366 net.cpp:139] Memory required for data: 86284000
I0430 23:10:52.461401  4366 layer_factory.hpp:77] Creating layer pool0
I0430 23:10:52.461410  4366 net.cpp:86] Creating Layer pool0
I0430 23:10:52.461412  4366 net.cpp:408] pool0 <- Sigmoid0
I0430 23:10:52.461417  4366 net.cpp:382] pool0 -> pool0
I0430 23:10:52.461643  4366 net.cpp:124] Setting up pool0
I0430 23:10:52.461652  4366 net.cpp:131] Top shape: 1000 8 17 17 (2312000)
I0430 23:10:52.461655  4366 net.cpp:139] Memory required for data: 95532000
I0430 23:10:52.461658  4366 layer_factory.hpp:77] Creating layer ip1
I0430 23:10:52.461666  4366 net.cpp:86] Creating Layer ip1
I0430 23:10:52.461669  4366 net.cpp:408] ip1 <- pool0
I0430 23:10:52.461675  4366 net.cpp:382] ip1 -> ip1
I0430 23:10:52.463910  4366 net.cpp:124] Setting up ip1
I0430 23:10:52.463920  4366 net.cpp:131] Top shape: 1000 20 (20000)
I0430 23:10:52.463923  4366 net.cpp:139] Memory required for data: 95612000
I0430 23:10:52.463963  4366 layer_factory.hpp:77] Creating layer relu1
I0430 23:10:52.463969  4366 net.cpp:86] Creating Layer relu1
I0430 23:10:52.463973  4366 net.cpp:408] relu1 <- ip1
I0430 23:10:52.463976  4366 net.cpp:369] relu1 -> ip1 (in-place)
I0430 23:10:52.464141  4366 net.cpp:124] Setting up relu1
I0430 23:10:52.464149  4366 net.cpp:131] Top shape: 1000 20 (20000)
I0430 23:10:52.464153  4366 net.cpp:139] Memory required for data: 95692000
I0430 23:10:52.464155  4366 layer_factory.hpp:77] Creating layer ip2
I0430 23:10:52.464161  4366 net.cpp:86] Creating Layer ip2
I0430 23:10:52.464164  4366 net.cpp:408] ip2 <- ip1
I0430 23:10:52.464169  4366 net.cpp:382] ip2 -> ip2
I0430 23:10:52.464274  4366 net.cpp:124] Setting up ip2
I0430 23:10:52.464282  4366 net.cpp:131] Top shape: 1000 20 (20000)
I0430 23:10:52.464284  4366 net.cpp:139] Memory required for data: 95772000
I0430 23:10:52.464292  4366 layer_factory.hpp:77] Creating layer relu2
I0430 23:10:52.464296  4366 net.cpp:86] Creating Layer relu2
I0430 23:10:52.464299  4366 net.cpp:408] relu2 <- ip2
I0430 23:10:52.464303  4366 net.cpp:369] relu2 -> ip2 (in-place)
I0430 23:10:52.465096  4366 net.cpp:124] Setting up relu2
I0430 23:10:52.465108  4366 net.cpp:131] Top shape: 1000 20 (20000)
I0430 23:10:52.465112  4366 net.cpp:139] Memory required for data: 95852000
I0430 23:10:52.465116  4366 layer_factory.hpp:77] Creating layer ip3
I0430 23:10:52.465122  4366 net.cpp:86] Creating Layer ip3
I0430 23:10:52.465137  4366 net.cpp:408] ip3 <- ip2
I0430 23:10:52.465142  4366 net.cpp:382] ip3 -> ip3
I0430 23:10:52.465313  4366 net.cpp:124] Setting up ip3
I0430 23:10:52.465320  4366 net.cpp:131] Top shape: 1000 40 (40000)
I0430 23:10:52.465324  4366 net.cpp:139] Memory required for data: 96012000
I0430 23:10:52.465330  4366 layer_factory.hpp:77] Creating layer relu3
I0430 23:10:52.465334  4366 net.cpp:86] Creating Layer relu3
I0430 23:10:52.465337  4366 net.cpp:408] relu3 <- ip3
I0430 23:10:52.465342  4366 net.cpp:369] relu3 -> ip3 (in-place)
I0430 23:10:52.465490  4366 net.cpp:124] Setting up relu3
I0430 23:10:52.465497  4366 net.cpp:131] Top shape: 1000 40 (40000)
I0430 23:10:52.465500  4366 net.cpp:139] Memory required for data: 96172000
I0430 23:10:52.465503  4366 layer_factory.hpp:77] Creating layer ip4
I0430 23:10:52.465510  4366 net.cpp:86] Creating Layer ip4
I0430 23:10:52.465513  4366 net.cpp:408] ip4 <- ip3
I0430 23:10:52.465517  4366 net.cpp:382] ip4 -> ip4
I0430 23:10:52.465641  4366 net.cpp:124] Setting up ip4
I0430 23:10:52.465648  4366 net.cpp:131] Top shape: 1000 10 (10000)
I0430 23:10:52.465651  4366 net.cpp:139] Memory required for data: 96212000
I0430 23:10:52.465659  4366 layer_factory.hpp:77] Creating layer ip4_ip4_0_split
I0430 23:10:52.465663  4366 net.cpp:86] Creating Layer ip4_ip4_0_split
I0430 23:10:52.465667  4366 net.cpp:408] ip4_ip4_0_split <- ip4
I0430 23:10:52.465672  4366 net.cpp:382] ip4_ip4_0_split -> ip4_ip4_0_split_0
I0430 23:10:52.465677  4366 net.cpp:382] ip4_ip4_0_split -> ip4_ip4_0_split_1
I0430 23:10:52.465708  4366 net.cpp:124] Setting up ip4_ip4_0_split
I0430 23:10:52.465713  4366 net.cpp:131] Top shape: 1000 10 (10000)
I0430 23:10:52.465715  4366 net.cpp:131] Top shape: 1000 10 (10000)
I0430 23:10:52.465718  4366 net.cpp:139] Memory required for data: 96292000
I0430 23:10:52.465721  4366 layer_factory.hpp:77] Creating layer accuracy
I0430 23:10:52.465734  4366 net.cpp:86] Creating Layer accuracy
I0430 23:10:52.465737  4366 net.cpp:408] accuracy <- ip4_ip4_0_split_0
I0430 23:10:52.465741  4366 net.cpp:408] accuracy <- label_cifar_1_split_0
I0430 23:10:52.465746  4366 net.cpp:382] accuracy -> accuracy
…
