…
I0430 20:35:08.434003 28995 net.cpp:296] The NetState phase (0) differed from the phase (1) specified by a rule in layer cifar
I0430 20:35:08.434017 28995 net.cpp:296] The NetState phase (0) differed from the phase (1) specified by a rule in layer accuracy
I0430 20:35:08.434099 28995 net.cpp:53] Initializing net from parameters: 
name: "CIFAR"
state {
  phase: TRAIN
  level: 0
  stage: ""
}
layer {
  name: "cifar"
  type: "Data"
  top: "data"
  top: "label"
  include {
    phase: TRAIN
  }
  transform_param {
    mean_file: "examples/cifar10/mean.binaryproto"
  }
  data_param {
    source: "examples/cifar10/cifar10_train_lmdb"
    batch_size: 111
    backend: LMDB
  }
}
layer {
  name: "ip1"
  type: "InnerProduct"
  bottom: "data"
  top: "ip1"
  param {
    lr_mult: 1
  }
  param {
    lr_mult: 2
  }
  inner_product_param {
    num_output: 160
    weight_filler {
      type: "gaussian"
      std: 0.01
    }
    bias_filler {
      type: "constant"
    }
  }
}
layer {
  name: "relu1"
  type: "ReLU"
  bottom: "ip1"
  top: "ip1"
}
layer {
  name: "ip2"
  type: "InnerProduct"
  bottom: "ip1"
  top: "ip2"
  param {
    lr_mult: 1
  }
  param {
    lr_mult: 2
  }
  inner_product_param {
    num_output: 10
    weight_filler {
      type: "gaussian"
      std: 0.01
    }
    bias_filler {
      type: "constant"
    }
  }
}
layer {
  name: "relu2"
  type: "ReLU"
  bottom: "ip2"
  top: "ip2"
}
layer {
  name: "ip3"
  type: "InnerProduct"
  bottom: "ip2"
  top: "ip3"
  param {
    lr_mult: 1
  }
  param {
    lr_mult: 2
  }
  inner_product_param {
    num_output: 160
    weight_filler {
      type: "gaussian"
      std: 0.01
    }
    bias_filler {
      type: "constant"
    }
  }
}
layer {
  name: "relu3"
  type: "ReLU"
  bottom: "ip3"
  top: "ip3"
}
layer {
  name: "ip4"
  type: "InnerProduct"
  bottom: "ip3"
  top: "ip4"
  param {
    lr_mult: 1
  }
  param {
    lr_mult: 2
  }
  inner_product_param {
    num_output: 10
    weight_filler {
      type: "gaussian"
      std: 0.01
    }
    bias_filler {
      type: "constant"
    }
  }
}
layer {
  name: "loss"
  type: "SoftmaxWithLoss"
  bottom: "ip4"
  bottom: "label"
  top: "loss"
}
I0430 20:35:08.434167 28995 layer_factory.hpp:77] Creating layer cifar
I0430 20:35:08.434263 28995 db_lmdb.cpp:35] Opened lmdb examples/cifar10/cifar10_train_lmdb
I0430 20:35:08.434290 28995 net.cpp:86] Creating Layer cifar
I0430 20:35:08.434298 28995 net.cpp:382] cifar -> data
I0430 20:35:08.434319 28995 net.cpp:382] cifar -> label
I0430 20:35:08.434330 28995 data_transformer.cpp:25] Loading mean file from: examples/cifar10/mean.binaryproto
I0430 20:35:08.436411 28995 data_layer.cpp:45] output data size: 111,3,32,32
I0430 20:35:08.443974 28995 net.cpp:124] Setting up cifar
I0430 20:35:08.443991 28995 net.cpp:131] Top shape: 111 3 32 32 (340992)
I0430 20:35:08.443997 28995 net.cpp:131] Top shape: 111 (111)
I0430 20:35:08.444000 28995 net.cpp:139] Memory required for data: 1364412
I0430 20:35:08.444008 28995 layer_factory.hpp:77] Creating layer ip1
I0430 20:35:08.444020 28995 net.cpp:86] Creating Layer ip1
I0430 20:35:08.444025 28995 net.cpp:408] ip1 <- data
I0430 20:35:08.444037 28995 net.cpp:382] ip1 -> ip1
I0430 20:35:08.459877 28995 net.cpp:124] Setting up ip1
I0430 20:35:08.459890 28995 net.cpp:131] Top shape: 111 160 (17760)
I0430 20:35:08.459894 28995 net.cpp:139] Memory required for data: 1435452
I0430 20:35:08.459906 28995 layer_factory.hpp:77] Creating layer relu1
I0430 20:35:08.459930 28995 net.cpp:86] Creating Layer relu1
I0430 20:35:08.459935 28995 net.cpp:408] relu1 <- ip1
I0430 20:35:08.459940 28995 net.cpp:369] relu1 -> ip1 (in-place)
I0430 20:35:08.684088 28995 net.cpp:124] Setting up relu1
I0430 20:35:08.684116 28995 net.cpp:131] Top shape: 111 160 (17760)
I0430 20:35:08.684120 28995 net.cpp:139] Memory required for data: 1506492
I0430 20:35:08.684125 28995 layer_factory.hpp:77] Creating layer ip2
I0430 20:35:08.684137 28995 net.cpp:86] Creating Layer ip2
I0430 20:35:08.684141 28995 net.cpp:408] ip2 <- ip1
I0430 20:35:08.684149 28995 net.cpp:382] ip2 -> ip2
I0430 20:35:08.684306 28995 net.cpp:124] Setting up ip2
I0430 20:35:08.684314 28995 net.cpp:131] Top shape: 111 10 (1110)
I0430 20:35:08.684319 28995 net.cpp:139] Memory required for data: 1510932
I0430 20:35:08.684327 28995 layer_factory.hpp:77] Creating layer relu2
I0430 20:35:08.684334 28995 net.cpp:86] Creating Layer relu2
I0430 20:35:08.684337 28995 net.cpp:408] relu2 <- ip2
I0430 20:35:08.684341 28995 net.cpp:369] relu2 -> ip2 (in-place)
I0430 20:35:08.685199 28995 net.cpp:124] Setting up relu2
I0430 20:35:08.685210 28995 net.cpp:131] Top shape: 111 10 (1110)
I0430 20:35:08.685214 28995 net.cpp:139] Memory required for data: 1515372
I0430 20:35:08.685217 28995 layer_factory.hpp:77] Creating layer ip3
I0430 20:35:08.685238 28995 net.cpp:86] Creating Layer ip3
I0430 20:35:08.685241 28995 net.cpp:408] ip3 <- ip2
I0430 20:35:08.685246 28995 net.cpp:382] ip3 -> ip3
I0430 20:35:08.685375 28995 net.cpp:124] Setting up ip3
I0430 20:35:08.685384 28995 net.cpp:131] Top shape: 111 160 (17760)
I0430 20:35:08.685385 28995 net.cpp:139] Memory required for data: 1586412
I0430 20:35:08.685392 28995 layer_factory.hpp:77] Creating layer relu3
I0430 20:35:08.685397 28995 net.cpp:86] Creating Layer relu3
I0430 20:35:08.685400 28995 net.cpp:408] relu3 <- ip3
I0430 20:35:08.685405 28995 net.cpp:369] relu3 -> ip3 (in-place)
I0430 20:35:08.685541 28995 net.cpp:124] Setting up relu3
I0430 20:35:08.685549 28995 net.cpp:131] Top shape: 111 160 (17760)
I0430 20:35:08.685552 28995 net.cpp:139] Memory required for data: 1657452
I0430 20:35:08.685555 28995 layer_factory.hpp:77] Creating layer ip4
I0430 20:35:08.685560 28995 net.cpp:86] Creating Layer ip4
I0430 20:35:08.685564 28995 net.cpp:408] ip4 <- ip3
I0430 20:35:08.685569 28995 net.cpp:382] ip4 -> ip4
I0430 20:35:08.685693 28995 net.cpp:124] Setting up ip4
I0430 20:35:08.685700 28995 net.cpp:131] Top shape: 111 10 (1110)
I0430 20:35:08.685703 28995 net.cpp:139] Memory required for data: 1661892
I0430 20:35:08.685708 28995 layer_factory.hpp:77] Creating layer loss
I0430 20:35:08.685714 28995 net.cpp:86] Creating Layer loss
I0430 20:35:08.685717 28995 net.cpp:408] loss <- ip4
I0430 20:35:08.685720 28995 net.cpp:408] loss <- label
I0430 20:35:08.685725 28995 net.cpp:382] loss -> loss
I0430 20:35:08.685742 28995 layer_factory.hpp:77] Creating layer loss
…
I0430 20:35:08.686343 28995 solver.cpp:173] Creating test net (#0) specified by net file: ECE595/cifar/train_test/var_everything/cifar_train_test_134.prototxt
I0430 20:35:08.686380 28995 net.cpp:296] The NetState phase (1) differed from the phase (0) specified by a rule in layer cifar
I0430 20:35:08.686457 28995 net.cpp:53] Initializing net from parameters: 
name: "CIFAR"
state {
  phase: TEST
}
layer {
  name: "cifar"
  type: "Data"
  top: "data"
  top: "label"
  include {
    phase: TEST
  }
  transform_param {
    mean_file: "examples/cifar10/mean.binaryproto"
  }
  data_param {
    source: "examples/cifar10/cifar10_test_lmdb"
    batch_size: 1000
    backend: LMDB
  }
}
layer {
  name: "ip1"
  type: "InnerProduct"
  bottom: "data"
  top: "ip1"
  param {
    lr_mult: 1
  }
  param {
    lr_mult: 2
  }
  inner_product_param {
    num_output: 160
    weight_filler {
      type: "gaussian"
      std: 0.01
    }
    bias_filler {
      type: "constant"
    }
  }
}
layer {
  name: "relu1"
  type: "ReLU"
  bottom: "ip1"
  top: "ip1"
}
layer {
  name: "ip2"
  type: "InnerProduct"
  bottom: "ip1"
  top: "ip2"
  param {
    lr_mult: 1
  }
  param {
    lr_mult: 2
  }
  inner_product_param {
    num_output: 10
    weight_filler {
      type: "gaussian"
      std: 0.01
    }
    bias_filler {
      type: "constant"
    }
  }
}
layer {
  name: "relu2"
  type: "ReLU"
  bottom: "ip2"
  top: "ip2"
}
layer {
  name: "ip3"
  type: "InnerProduct"
  bottom: "ip2"
  top: "ip3"
  param {
    lr_mult: 1
  }
  param {
    lr_mult: 2
  }
  inner_product_param {
    num_output: 160
    weight_filler {
      type: "gaussian"
      std: 0.01
    }
    bias_filler {
      type: "constant"
    }
  }
}
layer {
  name: "relu3"
  type: "ReLU"
  bottom: "ip3"
  top: "ip3"
}
layer {
  name: "ip4"
  type: "InnerProduct"
  bottom: "ip3"
  top: "ip4"
  param {
    lr_mult: 1
  }
  param {
    lr_mult: 2
  }
  inner_product_param {
    num_output: 10
    weight_filler {
      type: "gaussian"
      std: 0.01
    }
    bias_filler {
      type: "constant"
    }
  }
}
layer {
  name: "accuracy"
  type: "Accuracy"
  bottom: "ip4"
  bottom: "label"
  top: "accuracy"
  include {
    phase: TEST
  }
}
layer {
  name: "loss"
  type: "SoftmaxWithLoss"
  bottom: "ip4"
  bottom: "label"
  top: "loss"
}
I0430 20:35:08.686517 28995 layer_factory.hpp:77] Creating layer cifar
I0430 20:35:08.686592 28995 db_lmdb.cpp:35] Opened lmdb examples/cifar10/cifar10_test_lmdb
I0430 20:35:08.686604 28995 net.cpp:86] Creating Layer cifar
I0430 20:35:08.686609 28995 net.cpp:382] cifar -> data
I0430 20:35:08.686615 28995 net.cpp:382] cifar -> label
I0430 20:35:08.686621 28995 data_transformer.cpp:25] Loading mean file from: examples/cifar10/mean.binaryproto
I0430 20:35:08.686751 28995 data_layer.cpp:45] output data size: 1000,3,32,32
I0430 20:35:08.708508 28995 net.cpp:124] Setting up cifar
I0430 20:35:08.708550 28995 net.cpp:131] Top shape: 1000 3 32 32 (3072000)
I0430 20:35:08.708555 28995 net.cpp:131] Top shape: 1000 (1000)
I0430 20:35:08.708559 28995 net.cpp:139] Memory required for data: 12292000
I0430 20:35:08.708564 28995 layer_factory.hpp:77] Creating layer label_cifar_1_split
I0430 20:35:08.708581 28995 net.cpp:86] Creating Layer label_cifar_1_split
I0430 20:35:08.708585 28995 net.cpp:408] label_cifar_1_split <- label
I0430 20:35:08.708590 28995 net.cpp:382] label_cifar_1_split -> label_cifar_1_split_0
I0430 20:35:08.708614 28995 net.cpp:382] label_cifar_1_split -> label_cifar_1_split_1
I0430 20:35:08.708696 28995 net.cpp:124] Setting up label_cifar_1_split
I0430 20:35:08.708704 28995 net.cpp:131] Top shape: 1000 (1000)
I0430 20:35:08.708708 28995 net.cpp:131] Top shape: 1000 (1000)
I0430 20:35:08.708710 28995 net.cpp:139] Memory required for data: 12300000
I0430 20:35:08.708714 28995 layer_factory.hpp:77] Creating layer ip1
I0430 20:35:08.708724 28995 net.cpp:86] Creating Layer ip1
I0430 20:35:08.708726 28995 net.cpp:408] ip1 <- data
I0430 20:35:08.708731 28995 net.cpp:382] ip1 -> ip1
I0430 20:35:08.722079 28995 net.cpp:124] Setting up ip1
I0430 20:35:08.722108 28995 net.cpp:131] Top shape: 1000 160 (160000)
I0430 20:35:08.722112 28995 net.cpp:139] Memory required for data: 12940000
I0430 20:35:08.722137 28995 layer_factory.hpp:77] Creating layer relu1
I0430 20:35:08.722144 28995 net.cpp:86] Creating Layer relu1
I0430 20:35:08.722147 28995 net.cpp:408] relu1 <- ip1
I0430 20:35:08.722167 28995 net.cpp:369] relu1 -> ip1 (in-place)
I0430 20:35:08.722935 28995 net.cpp:124] Setting up relu1
I0430 20:35:08.722946 28995 net.cpp:131] Top shape: 1000 160 (160000)
I0430 20:35:08.722965 28995 net.cpp:139] Memory required for data: 13580000
I0430 20:35:08.722970 28995 layer_factory.hpp:77] Creating layer ip2
I0430 20:35:08.722977 28995 net.cpp:86] Creating Layer ip2
I0430 20:35:08.722982 28995 net.cpp:408] ip2 <- ip1
I0430 20:35:08.722987 28995 net.cpp:382] ip2 -> ip2
I0430 20:35:08.723163 28995 net.cpp:124] Setting up ip2
I0430 20:35:08.723171 28995 net.cpp:131] Top shape: 1000 10 (10000)
I0430 20:35:08.723175 28995 net.cpp:139] Memory required for data: 13620000
I0430 20:35:08.723181 28995 layer_factory.hpp:77] Creating layer relu2
I0430 20:35:08.723186 28995 net.cpp:86] Creating Layer relu2
I0430 20:35:08.723189 28995 net.cpp:408] relu2 <- ip2
I0430 20:35:08.723194 28995 net.cpp:369] relu2 -> ip2 (in-place)
I0430 20:35:08.723345 28995 net.cpp:124] Setting up relu2
I0430 20:35:08.723352 28995 net.cpp:131] Top shape: 1000 10 (10000)
I0430 20:35:08.723371 28995 net.cpp:139] Memory required for data: 13660000
I0430 20:35:08.723373 28995 layer_factory.hpp:77] Creating layer ip3
I0430 20:35:08.723379 28995 net.cpp:86] Creating Layer ip3
I0430 20:35:08.723382 28995 net.cpp:408] ip3 <- ip2
I0430 20:35:08.723387 28995 net.cpp:382] ip3 -> ip3
I0430 20:35:08.723523 28995 net.cpp:124] Setting up ip3
I0430 20:35:08.723529 28995 net.cpp:131] Top shape: 1000 160 (160000)
I0430 20:35:08.723532 28995 net.cpp:139] Memory required for data: 14300000
I0430 20:35:08.723539 28995 layer_factory.hpp:77] Creating layer relu3
I0430 20:35:08.723544 28995 net.cpp:86] Creating Layer relu3
I0430 20:35:08.723547 28995 net.cpp:408] relu3 <- ip3
I0430 20:35:08.723551 28995 net.cpp:369] relu3 -> ip3 (in-place)
I0430 20:35:08.723695 28995 net.cpp:124] Setting up relu3
I0430 20:35:08.723702 28995 net.cpp:131] Top shape: 1000 160 (160000)
I0430 20:35:08.723706 28995 net.cpp:139] Memory required for data: 14940000
I0430 20:35:08.723709 28995 layer_factory.hpp:77] Creating layer ip4
I0430 20:35:08.723726 28995 net.cpp:86] Creating Layer ip4
I0430 20:35:08.723728 28995 net.cpp:408] ip4 <- ip3
I0430 20:35:08.723733 28995 net.cpp:382] ip4 -> ip4
I0430 20:35:08.723871 28995 net.cpp:124] Setting up ip4
I0430 20:35:08.723878 28995 net.cpp:131] Top shape: 1000 10 (10000)
I0430 20:35:08.723881 28995 net.cpp:139] Memory required for data: 14980000
I0430 20:35:08.723886 28995 layer_factory.hpp:77] Creating layer ip4_ip4_0_split
I0430 20:35:08.723892 28995 net.cpp:86] Creating Layer ip4_ip4_0_split
I0430 20:35:08.723896 28995 net.cpp:408] ip4_ip4_0_split <- ip4
I0430 20:35:08.723899 28995 net.cpp:382] ip4_ip4_0_split -> ip4_ip4_0_split_0
I0430 20:35:08.723906 28995 net.cpp:382] ip4_ip4_0_split -> ip4_ip4_0_split_1
I0430 20:35:08.723933 28995 net.cpp:124] Setting up ip4_ip4_0_split
I0430 20:35:08.723938 28995 net.cpp:131] Top shape: 1000 10 (10000)
I0430 20:35:08.723942 28995 net.cpp:131] Top shape: 1000 10 (10000)
I0430 20:35:08.723945 28995 net.cpp:139] Memory required for data: 15060000
I0430 20:35:08.723948 28995 layer_factory.hpp:77] Creating layer accuracy
I0430 20:35:08.723953 28995 net.cpp:86] Creating Layer accuracy
I0430 20:35:08.723956 28995 net.cpp:408] accuracy <- ip4_ip4_0_split_0
I0430 20:35:08.723960 28995 net.cpp:408] accuracy <- label_cifar_1_split_0
I0430 20:35:08.723964 28995 net.cpp:382] accuracy -> accuracy
…
