…
I0430 18:33:58.672466 23661 net.cpp:296] The NetState phase (0) differed from the phase (1) specified by a rule in layer cifar
I0430 18:33:58.672477 23661 net.cpp:296] The NetState phase (0) differed from the phase (1) specified by a rule in layer accuracy
I0430 18:33:58.672541 23661 net.cpp:53] Initializing net from parameters: 
name: "CIFAR"
state {
  phase: TRAIN
  level: 0
  stage: ""
}
layer {
  name: "cifar"
  type: "Data"
  top: "data"
  top: "label"
  include {
    phase: TRAIN
  }
  transform_param {
    mean_file: "examples/cifar10/mean.binaryproto"
  }
  data_param {
    source: "examples/cifar10/cifar10_train_lmdb"
    batch_size: 111
    backend: LMDB
  }
}
layer {
  name: "ip1"
  type: "InnerProduct"
  bottom: "data"
  top: "ip1"
  param {
    lr_mult: 1
  }
  param {
    lr_mult: 2
  }
  inner_product_param {
    num_output: 20
    weight_filler {
      type: "gaussian"
      std: 0.01
    }
    bias_filler {
      type: "constant"
    }
  }
}
layer {
  name: "relu1"
  type: "ReLU"
  bottom: "ip1"
  top: "ip1"
}
layer {
  name: "ip2"
  type: "InnerProduct"
  bottom: "ip1"
  top: "ip2"
  param {
    lr_mult: 1
  }
  param {
    lr_mult: 2
  }
  inner_product_param {
    num_output: 80
    weight_filler {
      type: "gaussian"
      std: 0.01
    }
    bias_filler {
      type: "constant"
    }
  }
}
layer {
  name: "relu2"
  type: "ReLU"
  bottom: "ip2"
  top: "ip2"
}
layer {
  name: "ip3"
  type: "InnerProduct"
  bottom: "ip2"
  top: "ip3"
  param {
    lr_mult: 1
  }
  param {
    lr_mult: 2
  }
  inner_product_param {
    num_output: 10
    weight_filler {
      type: "gaussian"
      std: 0.01
    }
    bias_filler {
      type: "constant"
    }
  }
}
layer {
  name: "relu3"
  type: "ReLU"
  bottom: "ip3"
  top: "ip3"
}
layer {
  name: "ip4"
  type: "InnerProduct"
  bottom: "ip3"
  top: "ip4"
  param {
    lr_mult: 1
  }
  param {
    lr_mult: 2
  }
  inner_product_param {
    num_output: 10
    weight_filler {
      type: "gaussian"
      std: 0.01
    }
    bias_filler {
      type: "constant"
    }
  }
}
layer {
  name: "loss"
  type: "SoftmaxWithLoss"
  bottom: "ip4"
  bottom: "label"
  top: "loss"
}
I0430 18:33:58.672600 23661 layer_factory.hpp:77] Creating layer cifar
I0430 18:33:58.672693 23661 db_lmdb.cpp:35] Opened lmdb examples/cifar10/cifar10_train_lmdb
I0430 18:33:58.672715 23661 net.cpp:86] Creating Layer cifar
I0430 18:33:58.672722 23661 net.cpp:382] cifar -> data
I0430 18:33:58.672758 23661 net.cpp:382] cifar -> label
I0430 18:33:58.672768 23661 data_transformer.cpp:25] Loading mean file from: examples/cifar10/mean.binaryproto
I0430 18:33:58.674504 23661 data_layer.cpp:45] output data size: 111,3,32,32
I0430 18:33:58.681005 23661 net.cpp:124] Setting up cifar
I0430 18:33:58.681035 23661 net.cpp:131] Top shape: 111 3 32 32 (340992)
I0430 18:33:58.681041 23661 net.cpp:131] Top shape: 111 (111)
I0430 18:33:58.681043 23661 net.cpp:139] Memory required for data: 1364412
I0430 18:33:58.681049 23661 layer_factory.hpp:77] Creating layer ip1
I0430 18:33:58.681058 23661 net.cpp:86] Creating Layer ip1
I0430 18:33:58.681078 23661 net.cpp:408] ip1 <- data
I0430 18:33:58.681087 23661 net.cpp:382] ip1 -> ip1
I0430 18:33:58.683699 23661 net.cpp:124] Setting up ip1
I0430 18:33:58.683710 23661 net.cpp:131] Top shape: 111 20 (2220)
I0430 18:33:58.683729 23661 net.cpp:139] Memory required for data: 1373292
I0430 18:33:58.683740 23661 layer_factory.hpp:77] Creating layer relu1
I0430 18:33:58.683748 23661 net.cpp:86] Creating Layer relu1
I0430 18:33:58.683764 23661 net.cpp:408] relu1 <- ip1
I0430 18:33:58.683769 23661 net.cpp:369] relu1 -> ip1 (in-place)
I0430 18:33:58.906711 23661 net.cpp:124] Setting up relu1
I0430 18:33:58.906738 23661 net.cpp:131] Top shape: 111 20 (2220)
I0430 18:33:58.906741 23661 net.cpp:139] Memory required for data: 1382172
I0430 18:33:58.906745 23661 layer_factory.hpp:77] Creating layer ip2
I0430 18:33:58.906757 23661 net.cpp:86] Creating Layer ip2
I0430 18:33:58.906761 23661 net.cpp:408] ip2 <- ip1
I0430 18:33:58.906769 23661 net.cpp:382] ip2 -> ip2
I0430 18:33:58.906936 23661 net.cpp:124] Setting up ip2
I0430 18:33:58.906944 23661 net.cpp:131] Top shape: 111 80 (8880)
I0430 18:33:58.906946 23661 net.cpp:139] Memory required for data: 1417692
I0430 18:33:58.906955 23661 layer_factory.hpp:77] Creating layer relu2
I0430 18:33:58.906965 23661 net.cpp:86] Creating Layer relu2
I0430 18:33:58.906985 23661 net.cpp:408] relu2 <- ip2
I0430 18:33:58.906988 23661 net.cpp:369] relu2 -> ip2 (in-place)
I0430 18:33:58.907719 23661 net.cpp:124] Setting up relu2
I0430 18:33:58.907732 23661 net.cpp:131] Top shape: 111 80 (8880)
I0430 18:33:58.907750 23661 net.cpp:139] Memory required for data: 1453212
I0430 18:33:58.907754 23661 layer_factory.hpp:77] Creating layer ip3
I0430 18:33:58.907760 23661 net.cpp:86] Creating Layer ip3
I0430 18:33:58.907763 23661 net.cpp:408] ip3 <- ip2
I0430 18:33:58.907768 23661 net.cpp:382] ip3 -> ip3
I0430 18:33:58.908704 23661 net.cpp:124] Setting up ip3
I0430 18:33:58.908730 23661 net.cpp:131] Top shape: 111 10 (1110)
I0430 18:33:58.908733 23661 net.cpp:139] Memory required for data: 1457652
I0430 18:33:58.908741 23661 layer_factory.hpp:77] Creating layer relu3
I0430 18:33:58.908747 23661 net.cpp:86] Creating Layer relu3
I0430 18:33:58.908751 23661 net.cpp:408] relu3 <- ip3
I0430 18:33:58.908754 23661 net.cpp:369] relu3 -> ip3 (in-place)
I0430 18:33:58.908985 23661 net.cpp:124] Setting up relu3
I0430 18:33:58.908994 23661 net.cpp:131] Top shape: 111 10 (1110)
I0430 18:33:58.908998 23661 net.cpp:139] Memory required for data: 1462092
I0430 18:33:58.909001 23661 layer_factory.hpp:77] Creating layer ip4
I0430 18:33:58.909008 23661 net.cpp:86] Creating Layer ip4
I0430 18:33:58.909010 23661 net.cpp:408] ip4 <- ip3
I0430 18:33:58.909015 23661 net.cpp:382] ip4 -> ip4
I0430 18:33:58.909113 23661 net.cpp:124] Setting up ip4
I0430 18:33:58.909121 23661 net.cpp:131] Top shape: 111 10 (1110)
I0430 18:33:58.909123 23661 net.cpp:139] Memory required for data: 1466532
I0430 18:33:58.909142 23661 layer_factory.hpp:77] Creating layer loss
I0430 18:33:58.909149 23661 net.cpp:86] Creating Layer loss
I0430 18:33:58.909152 23661 net.cpp:408] loss <- ip4
I0430 18:33:58.909155 23661 net.cpp:408] loss <- label
I0430 18:33:58.909160 23661 net.cpp:382] loss -> loss
I0430 18:33:58.909194 23661 layer_factory.hpp:77] Creating layer loss
…
I0430 18:33:58.909768 23661 solver.cpp:173] Creating test net (#0) specified by net file: ECE595/cifar/train_test/var_everything/cifar_train_test_70.prototxt
I0430 18:33:58.909806 23661 net.cpp:296] The NetState phase (1) differed from the phase (0) specified by a rule in layer cifar
I0430 18:33:58.909879 23661 net.cpp:53] Initializing net from parameters: 
name: "CIFAR"
state {
  phase: TEST
}
layer {
  name: "cifar"
  type: "Data"
  top: "data"
  top: "label"
  include {
    phase: TEST
  }
  transform_param {
    mean_file: "examples/cifar10/mean.binaryproto"
  }
  data_param {
    source: "examples/cifar10/cifar10_test_lmdb"
    batch_size: 1000
    backend: LMDB
  }
}
layer {
  name: "ip1"
  type: "InnerProduct"
  bottom: "data"
  top: "ip1"
  param {
    lr_mult: 1
  }
  param {
    lr_mult: 2
  }
  inner_product_param {
    num_output: 20
    weight_filler {
      type: "gaussian"
      std: 0.01
    }
    bias_filler {
      type: "constant"
    }
  }
}
layer {
  name: "relu1"
  type: "ReLU"
  bottom: "ip1"
  top: "ip1"
}
layer {
  name: "ip2"
  type: "InnerProduct"
  bottom: "ip1"
  top: "ip2"
  param {
    lr_mult: 1
  }
  param {
    lr_mult: 2
  }
  inner_product_param {
    num_output: 80
    weight_filler {
      type: "gaussian"
      std: 0.01
    }
    bias_filler {
      type: "constant"
    }
  }
}
layer {
  name: "relu2"
  type: "ReLU"
  bottom: "ip2"
  top: "ip2"
}
layer {
  name: "ip3"
  type: "InnerProduct"
  bottom: "ip2"
  top: "ip3"
  param {
    lr_mult: 1
  }
  param {
    lr_mult: 2
  }
  inner_product_param {
    num_output: 10
    weight_filler {
      type: "gaussian"
      std: 0.01
    }
    bias_filler {
      type: "constant"
    }
  }
}
layer {
  name: "relu3"
  type: "ReLU"
  bottom: "ip3"
  top: "ip3"
}
layer {
  name: "ip4"
  type: "InnerProduct"
  bottom: "ip3"
  top: "ip4"
  param {
    lr_mult: 1
  }
  param {
    lr_mult: 2
  }
  inner_product_param {
    num_output: 10
    weight_filler {
      type: "gaussian"
      std: 0.01
    }
    bias_filler {
      type: "constant"
    }
  }
}
layer {
  name: "accuracy"
  type: "Accuracy"
  bottom: "ip4"
  bottom: "label"
  top: "accuracy"
  include {
    phase: TEST
  }
}
layer {
  name: "loss"
  type: "SoftmaxWithLoss"
  bottom: "ip4"
  bottom: "label"
  top: "loss"
}
I0430 18:33:58.909936 23661 layer_factory.hpp:77] Creating layer cifar
I0430 18:33:58.909993 23661 db_lmdb.cpp:35] Opened lmdb examples/cifar10/cifar10_test_lmdb
I0430 18:33:58.910006 23661 net.cpp:86] Creating Layer cifar
I0430 18:33:58.910009 23661 net.cpp:382] cifar -> data
I0430 18:33:58.910017 23661 net.cpp:382] cifar -> label
I0430 18:33:58.910022 23661 data_transformer.cpp:25] Loading mean file from: examples/cifar10/mean.binaryproto
I0430 18:33:58.910156 23661 data_layer.cpp:45] output data size: 1000,3,32,32
I0430 18:33:58.931532 23661 net.cpp:124] Setting up cifar
I0430 18:33:58.931589 23661 net.cpp:131] Top shape: 1000 3 32 32 (3072000)
I0430 18:33:58.931596 23661 net.cpp:131] Top shape: 1000 (1000)
I0430 18:33:58.931598 23661 net.cpp:139] Memory required for data: 12292000
I0430 18:33:58.931604 23661 layer_factory.hpp:77] Creating layer label_cifar_1_split
I0430 18:33:58.931622 23661 net.cpp:86] Creating Layer label_cifar_1_split
I0430 18:33:58.931625 23661 net.cpp:408] label_cifar_1_split <- label
I0430 18:33:58.931632 23661 net.cpp:382] label_cifar_1_split -> label_cifar_1_split_0
I0430 18:33:58.931656 23661 net.cpp:382] label_cifar_1_split -> label_cifar_1_split_1
I0430 18:33:58.931731 23661 net.cpp:124] Setting up label_cifar_1_split
I0430 18:33:58.931740 23661 net.cpp:131] Top shape: 1000 (1000)
I0430 18:33:58.931742 23661 net.cpp:131] Top shape: 1000 (1000)
I0430 18:33:58.931746 23661 net.cpp:139] Memory required for data: 12300000
I0430 18:33:58.931748 23661 layer_factory.hpp:77] Creating layer ip1
I0430 18:33:58.931757 23661 net.cpp:86] Creating Layer ip1
I0430 18:33:58.931761 23661 net.cpp:408] ip1 <- data
I0430 18:33:58.931766 23661 net.cpp:382] ip1 -> ip1
I0430 18:33:58.934362 23661 net.cpp:124] Setting up ip1
I0430 18:33:58.934372 23661 net.cpp:131] Top shape: 1000 20 (20000)
I0430 18:33:58.934391 23661 net.cpp:139] Memory required for data: 12380000
I0430 18:33:58.934414 23661 layer_factory.hpp:77] Creating layer relu1
I0430 18:33:58.934422 23661 net.cpp:86] Creating Layer relu1
I0430 18:33:58.934424 23661 net.cpp:408] relu1 <- ip1
I0430 18:33:58.934444 23661 net.cpp:369] relu1 -> ip1 (in-place)
I0430 18:33:58.935261 23661 net.cpp:124] Setting up relu1
I0430 18:33:58.935272 23661 net.cpp:131] Top shape: 1000 20 (20000)
I0430 18:33:58.935290 23661 net.cpp:139] Memory required for data: 12460000
I0430 18:33:58.935294 23661 layer_factory.hpp:77] Creating layer ip2
I0430 18:33:58.935302 23661 net.cpp:86] Creating Layer ip2
I0430 18:33:58.935305 23661 net.cpp:408] ip2 <- ip1
I0430 18:33:58.935310 23661 net.cpp:382] ip2 -> ip2
I0430 18:33:58.935487 23661 net.cpp:124] Setting up ip2
I0430 18:33:58.935493 23661 net.cpp:131] Top shape: 1000 80 (80000)
I0430 18:33:58.935497 23661 net.cpp:139] Memory required for data: 12780000
I0430 18:33:58.935503 23661 layer_factory.hpp:77] Creating layer relu2
I0430 18:33:58.935508 23661 net.cpp:86] Creating Layer relu2
I0430 18:33:58.935511 23661 net.cpp:408] relu2 <- ip2
I0430 18:33:58.935516 23661 net.cpp:369] relu2 -> ip2 (in-place)
I0430 18:33:58.935662 23661 net.cpp:124] Setting up relu2
I0430 18:33:58.935669 23661 net.cpp:131] Top shape: 1000 80 (80000)
I0430 18:33:58.935672 23661 net.cpp:139] Memory required for data: 13100000
I0430 18:33:58.935675 23661 layer_factory.hpp:77] Creating layer ip3
I0430 18:33:58.935681 23661 net.cpp:86] Creating Layer ip3
I0430 18:33:58.935683 23661 net.cpp:408] ip3 <- ip2
I0430 18:33:58.935688 23661 net.cpp:382] ip3 -> ip3
I0430 18:33:58.935804 23661 net.cpp:124] Setting up ip3
I0430 18:33:58.935811 23661 net.cpp:131] Top shape: 1000 10 (10000)
I0430 18:33:58.935813 23661 net.cpp:139] Memory required for data: 13140000
I0430 18:33:58.935820 23661 layer_factory.hpp:77] Creating layer relu3
I0430 18:33:58.935825 23661 net.cpp:86] Creating Layer relu3
I0430 18:33:58.935829 23661 net.cpp:408] relu3 <- ip3
I0430 18:33:58.935833 23661 net.cpp:369] relu3 -> ip3 (in-place)
I0430 18:33:58.935991 23661 net.cpp:124] Setting up relu3
I0430 18:33:58.935998 23661 net.cpp:131] Top shape: 1000 10 (10000)
I0430 18:33:58.936002 23661 net.cpp:139] Memory required for data: 13180000
I0430 18:33:58.936004 23661 layer_factory.hpp:77] Creating layer ip4
I0430 18:33:58.936012 23661 net.cpp:86] Creating Layer ip4
I0430 18:33:58.936014 23661 net.cpp:408] ip4 <- ip3
I0430 18:33:58.936019 23661 net.cpp:382] ip4 -> ip4
I0430 18:33:58.936120 23661 net.cpp:124] Setting up ip4
I0430 18:33:58.936126 23661 net.cpp:131] Top shape: 1000 10 (10000)
I0430 18:33:58.936130 23661 net.cpp:139] Memory required for data: 13220000
I0430 18:33:58.936136 23661 layer_factory.hpp:77] Creating layer ip4_ip4_0_split
I0430 18:33:58.936141 23661 net.cpp:86] Creating Layer ip4_ip4_0_split
I0430 18:33:58.936143 23661 net.cpp:408] ip4_ip4_0_split <- ip4
I0430 18:33:58.936148 23661 net.cpp:382] ip4_ip4_0_split -> ip4_ip4_0_split_0
I0430 18:33:58.936154 23661 net.cpp:382] ip4_ip4_0_split -> ip4_ip4_0_split_1
I0430 18:33:58.936184 23661 net.cpp:124] Setting up ip4_ip4_0_split
I0430 18:33:58.936199 23661 net.cpp:131] Top shape: 1000 10 (10000)
I0430 18:33:58.936203 23661 net.cpp:131] Top shape: 1000 10 (10000)
I0430 18:33:58.936206 23661 net.cpp:139] Memory required for data: 13300000
I0430 18:33:58.936209 23661 layer_factory.hpp:77] Creating layer accuracy
I0430 18:33:58.936215 23661 net.cpp:86] Creating Layer accuracy
I0430 18:33:58.936218 23661 net.cpp:408] accuracy <- ip4_ip4_0_split_0
I0430 18:33:58.936223 23661 net.cpp:408] accuracy <- label_cifar_1_split_0
I0430 18:33:58.936228 23661 net.cpp:382] accuracy -> accuracy
…
