…
I0430 17:50:12.050812 20943 net.cpp:296] The NetState phase (0) differed from the phase (1) specified by a rule in layer cifar
I0430 17:50:12.050828 20943 net.cpp:296] The NetState phase (0) differed from the phase (1) specified by a rule in layer accuracy
I0430 17:50:12.050911 20943 net.cpp:53] Initializing net from parameters: 
name: "CIFAR"
state {
  phase: TRAIN
  level: 0
  stage: ""
}
layer {
  name: "cifar"
  type: "Data"
  top: "data"
  top: "label"
  include {
    phase: TRAIN
  }
  transform_param {
    mean_file: "examples/cifar10/mean.binaryproto"
  }
  data_param {
    source: "examples/cifar10/cifar10_train_lmdb"
    batch_size: 111
    backend: LMDB
  }
}
layer {
  name: "ip1"
  type: "InnerProduct"
  bottom: "data"
  top: "ip1"
  param {
    lr_mult: 1
  }
  param {
    lr_mult: 2
  }
  inner_product_param {
    num_output: 10
    weight_filler {
      type: "gaussian"
      std: 0.01
    }
    bias_filler {
      type: "constant"
    }
  }
}
layer {
  name: "relu1"
  type: "ReLU"
  bottom: "ip1"
  top: "ip1"
}
layer {
  name: "ip2"
  type: "InnerProduct"
  bottom: "ip1"
  top: "ip2"
  param {
    lr_mult: 1
  }
  param {
    lr_mult: 2
  }
  inner_product_param {
    num_output: 80
    weight_filler {
      type: "gaussian"
      std: 0.01
    }
    bias_filler {
      type: "constant"
    }
  }
}
layer {
  name: "relu2"
  type: "ReLU"
  bottom: "ip2"
  top: "ip2"
}
layer {
  name: "ip3"
  type: "InnerProduct"
  bottom: "ip2"
  top: "ip3"
  param {
    lr_mult: 1
  }
  param {
    lr_mult: 2
  }
  inner_product_param {
    num_output: 40
    weight_filler {
      type: "gaussian"
      std: 0.01
    }
    bias_filler {
      type: "constant"
    }
  }
}
layer {
  name: "relu3"
  type: "ReLU"
  bottom: "ip3"
  top: "ip3"
}
layer {
  name: "ip4"
  type: "InnerProduct"
  bottom: "ip3"
  top: "ip4"
  param {
    lr_mult: 1
  }
  param {
    lr_mult: 2
  }
  inner_product_param {
    num_output: 10
    weight_filler {
      type: "gaussian"
      std: 0.01
    }
    bias_filler {
      type: "constant"
    }
  }
}
layer {
  name: "loss"
  type: "SoftmaxWithLoss"
  bottom: "ip4"
  bottom: "label"
  top: "loss"
}
I0430 17:50:12.050982 20943 layer_factory.hpp:77] Creating layer cifar
I0430 17:50:12.051079 20943 db_lmdb.cpp:35] Opened lmdb examples/cifar10/cifar10_train_lmdb
I0430 17:50:12.051108 20943 net.cpp:86] Creating Layer cifar
I0430 17:50:12.051117 20943 net.cpp:382] cifar -> data
I0430 17:50:12.051141 20943 net.cpp:382] cifar -> label
I0430 17:50:12.051156 20943 data_transformer.cpp:25] Loading mean file from: examples/cifar10/mean.binaryproto
I0430 17:50:12.053289 20943 data_layer.cpp:45] output data size: 111,3,32,32
I0430 17:50:12.061163 20943 net.cpp:124] Setting up cifar
I0430 17:50:12.061182 20943 net.cpp:131] Top shape: 111 3 32 32 (340992)
I0430 17:50:12.061190 20943 net.cpp:131] Top shape: 111 (111)
I0430 17:50:12.061193 20943 net.cpp:139] Memory required for data: 1364412
I0430 17:50:12.061202 20943 layer_factory.hpp:77] Creating layer ip1
I0430 17:50:12.061213 20943 net.cpp:86] Creating Layer ip1
I0430 17:50:12.061219 20943 net.cpp:408] ip1 <- data
I0430 17:50:12.061245 20943 net.cpp:382] ip1 -> ip1
I0430 17:50:12.063571 20943 net.cpp:124] Setting up ip1
I0430 17:50:12.063591 20943 net.cpp:131] Top shape: 111 10 (1110)
I0430 17:50:12.063609 20943 net.cpp:139] Memory required for data: 1368852
I0430 17:50:12.063623 20943 layer_factory.hpp:77] Creating layer relu1
I0430 17:50:12.063632 20943 net.cpp:86] Creating Layer relu1
I0430 17:50:12.063665 20943 net.cpp:408] relu1 <- ip1
I0430 17:50:12.063671 20943 net.cpp:369] relu1 -> ip1 (in-place)
I0430 17:50:12.370697 20943 net.cpp:124] Setting up relu1
I0430 17:50:12.370728 20943 net.cpp:131] Top shape: 111 10 (1110)
I0430 17:50:12.370733 20943 net.cpp:139] Memory required for data: 1373292
I0430 17:50:12.370738 20943 layer_factory.hpp:77] Creating layer ip2
I0430 17:50:12.370751 20943 net.cpp:86] Creating Layer ip2
I0430 17:50:12.370756 20943 net.cpp:408] ip2 <- ip1
I0430 17:50:12.370764 20943 net.cpp:382] ip2 -> ip2
I0430 17:50:12.371863 20943 net.cpp:124] Setting up ip2
I0430 17:50:12.371877 20943 net.cpp:131] Top shape: 111 80 (8880)
I0430 17:50:12.371881 20943 net.cpp:139] Memory required for data: 1408812
I0430 17:50:12.371892 20943 layer_factory.hpp:77] Creating layer relu2
I0430 17:50:12.371901 20943 net.cpp:86] Creating Layer relu2
I0430 17:50:12.371906 20943 net.cpp:408] relu2 <- ip2
I0430 17:50:12.371911 20943 net.cpp:369] relu2 -> ip2 (in-place)
I0430 17:50:12.372706 20943 net.cpp:124] Setting up relu2
I0430 17:50:12.372720 20943 net.cpp:131] Top shape: 111 80 (8880)
I0430 17:50:12.372725 20943 net.cpp:139] Memory required for data: 1444332
I0430 17:50:12.372728 20943 layer_factory.hpp:77] Creating layer ip3
I0430 17:50:12.372736 20943 net.cpp:86] Creating Layer ip3
I0430 17:50:12.372740 20943 net.cpp:408] ip3 <- ip2
I0430 17:50:12.372745 20943 net.cpp:382] ip3 -> ip3
I0430 17:50:12.372958 20943 net.cpp:124] Setting up ip3
I0430 17:50:12.372968 20943 net.cpp:131] Top shape: 111 40 (4440)
I0430 17:50:12.372972 20943 net.cpp:139] Memory required for data: 1462092
I0430 17:50:12.372982 20943 layer_factory.hpp:77] Creating layer relu3
I0430 17:50:12.372987 20943 net.cpp:86] Creating Layer relu3
I0430 17:50:12.372992 20943 net.cpp:408] relu3 <- ip3
I0430 17:50:12.372995 20943 net.cpp:369] relu3 -> ip3 (in-place)
I0430 17:50:12.373159 20943 net.cpp:124] Setting up relu3
I0430 17:50:12.373168 20943 net.cpp:131] Top shape: 111 40 (4440)
I0430 17:50:12.373172 20943 net.cpp:139] Memory required for data: 1479852
I0430 17:50:12.373177 20943 layer_factory.hpp:77] Creating layer ip4
I0430 17:50:12.373183 20943 net.cpp:86] Creating Layer ip4
I0430 17:50:12.373186 20943 net.cpp:408] ip4 <- ip3
I0430 17:50:12.373191 20943 net.cpp:382] ip4 -> ip4
I0430 17:50:12.373306 20943 net.cpp:124] Setting up ip4
I0430 17:50:12.373313 20943 net.cpp:131] Top shape: 111 10 (1110)
I0430 17:50:12.373317 20943 net.cpp:139] Memory required for data: 1484292
I0430 17:50:12.373323 20943 layer_factory.hpp:77] Creating layer loss
I0430 17:50:12.373330 20943 net.cpp:86] Creating Layer loss
I0430 17:50:12.373333 20943 net.cpp:408] loss <- ip4
I0430 17:50:12.373338 20943 net.cpp:408] loss <- label
I0430 17:50:12.373343 20943 net.cpp:382] loss -> loss
I0430 17:50:12.373369 20943 layer_factory.hpp:77] Creating layer loss
…
I0430 17:50:12.373970 20943 solver.cpp:173] Creating test net (#0) specified by net file: ECE595/cifar/train_test/var_everything/cifar_train_test_47.prototxt
I0430 17:50:12.374011 20943 net.cpp:296] The NetState phase (1) differed from the phase (0) specified by a rule in layer cifar
I0430 17:50:12.374095 20943 net.cpp:53] Initializing net from parameters: 
name: "CIFAR"
state {
  phase: TEST
}
layer {
  name: "cifar"
  type: "Data"
  top: "data"
  top: "label"
  include {
    phase: TEST
  }
  transform_param {
    mean_file: "examples/cifar10/mean.binaryproto"
  }
  data_param {
    source: "examples/cifar10/cifar10_test_lmdb"
    batch_size: 1000
    backend: LMDB
  }
}
layer {
  name: "ip1"
  type: "InnerProduct"
  bottom: "data"
  top: "ip1"
  param {
    lr_mult: 1
  }
  param {
    lr_mult: 2
  }
  inner_product_param {
    num_output: 10
    weight_filler {
      type: "gaussian"
      std: 0.01
    }
    bias_filler {
      type: "constant"
    }
  }
}
layer {
  name: "relu1"
  type: "ReLU"
  bottom: "ip1"
  top: "ip1"
}
layer {
  name: "ip2"
  type: "InnerProduct"
  bottom: "ip1"
  top: "ip2"
  param {
    lr_mult: 1
  }
  param {
    lr_mult: 2
  }
  inner_product_param {
    num_output: 80
    weight_filler {
      type: "gaussian"
      std: 0.01
    }
    bias_filler {
      type: "constant"
    }
  }
}
layer {
  name: "relu2"
  type: "ReLU"
  bottom: "ip2"
  top: "ip2"
}
layer {
  name: "ip3"
  type: "InnerProduct"
  bottom: "ip2"
  top: "ip3"
  param {
    lr_mult: 1
  }
  param {
    lr_mult: 2
  }
  inner_product_param {
    num_output: 40
    weight_filler {
      type: "gaussian"
      std: 0.01
    }
    bias_filler {
      type: "constant"
    }
  }
}
layer {
  name: "relu3"
  type: "ReLU"
  bottom: "ip3"
  top: "ip3"
}
layer {
  name: "ip4"
  type: "InnerProduct"
  bottom: "ip3"
  top: "ip4"
  param {
    lr_mult: 1
  }
  param {
    lr_mult: 2
  }
  inner_product_param {
    num_output: 10
    weight_filler {
      type: "gaussian"
      std: 0.01
    }
    bias_filler {
      type: "constant"
    }
  }
}
layer {
  name: "accuracy"
  type: "Accuracy"
  bottom: "ip4"
  bottom: "label"
  top: "accuracy"
  include {
    phase: TEST
  }
}
layer {
  name: "loss"
  type: "SoftmaxWithLoss"
  bottom: "ip4"
  bottom: "label"
  top: "loss"
}
I0430 17:50:12.374161 20943 layer_factory.hpp:77] Creating layer cifar
I0430 17:50:12.374209 20943 db_lmdb.cpp:35] Opened lmdb examples/cifar10/cifar10_test_lmdb
I0430 17:50:12.374222 20943 net.cpp:86] Creating Layer cifar
I0430 17:50:12.374228 20943 net.cpp:382] cifar -> data
I0430 17:50:12.374235 20943 net.cpp:382] cifar -> label
I0430 17:50:12.374243 20943 data_transformer.cpp:25] Loading mean file from: examples/cifar10/mean.binaryproto
I0430 17:50:12.374400 20943 data_layer.cpp:45] output data size: 1000,3,32,32
I0430 17:50:12.397917 20943 net.cpp:124] Setting up cifar
I0430 17:50:12.397943 20943 net.cpp:131] Top shape: 1000 3 32 32 (3072000)
I0430 17:50:12.397950 20943 net.cpp:131] Top shape: 1000 (1000)
I0430 17:50:12.397953 20943 net.cpp:139] Memory required for data: 12292000
I0430 17:50:12.397959 20943 layer_factory.hpp:77] Creating layer label_cifar_1_split
I0430 17:50:12.397986 20943 net.cpp:86] Creating Layer label_cifar_1_split
I0430 17:50:12.397990 20943 net.cpp:408] label_cifar_1_split <- label
I0430 17:50:12.397997 20943 net.cpp:382] label_cifar_1_split -> label_cifar_1_split_0
I0430 17:50:12.398005 20943 net.cpp:382] label_cifar_1_split -> label_cifar_1_split_1
I0430 17:50:12.398120 20943 net.cpp:124] Setting up label_cifar_1_split
I0430 17:50:12.398128 20943 net.cpp:131] Top shape: 1000 (1000)
I0430 17:50:12.398131 20943 net.cpp:131] Top shape: 1000 (1000)
I0430 17:50:12.398134 20943 net.cpp:139] Memory required for data: 12300000
I0430 17:50:12.398138 20943 layer_factory.hpp:77] Creating layer ip1
I0430 17:50:12.398147 20943 net.cpp:86] Creating Layer ip1
I0430 17:50:12.398150 20943 net.cpp:408] ip1 <- data
I0430 17:50:12.398155 20943 net.cpp:382] ip1 -> ip1
I0430 17:50:12.399127 20943 net.cpp:124] Setting up ip1
I0430 17:50:12.399135 20943 net.cpp:131] Top shape: 1000 10 (10000)
I0430 17:50:12.399138 20943 net.cpp:139] Memory required for data: 12340000
I0430 17:50:12.399163 20943 layer_factory.hpp:77] Creating layer relu1
I0430 17:50:12.399168 20943 net.cpp:86] Creating Layer relu1
I0430 17:50:12.399173 20943 net.cpp:408] relu1 <- ip1
I0430 17:50:12.399176 20943 net.cpp:369] relu1 -> ip1 (in-place)
I0430 17:50:12.399962 20943 net.cpp:124] Setting up relu1
I0430 17:50:12.399973 20943 net.cpp:131] Top shape: 1000 10 (10000)
I0430 17:50:12.399977 20943 net.cpp:139] Memory required for data: 12380000
I0430 17:50:12.399981 20943 layer_factory.hpp:77] Creating layer ip2
I0430 17:50:12.399989 20943 net.cpp:86] Creating Layer ip2
I0430 17:50:12.399992 20943 net.cpp:408] ip2 <- ip1
I0430 17:50:12.399998 20943 net.cpp:382] ip2 -> ip2
I0430 17:50:12.400166 20943 net.cpp:124] Setting up ip2
I0430 17:50:12.400174 20943 net.cpp:131] Top shape: 1000 80 (80000)
I0430 17:50:12.400177 20943 net.cpp:139] Memory required for data: 12700000
I0430 17:50:12.400185 20943 layer_factory.hpp:77] Creating layer relu2
I0430 17:50:12.400190 20943 net.cpp:86] Creating Layer relu2
I0430 17:50:12.400194 20943 net.cpp:408] relu2 <- ip2
I0430 17:50:12.400198 20943 net.cpp:369] relu2 -> ip2 (in-place)
I0430 17:50:12.401316 20943 net.cpp:124] Setting up relu2
I0430 17:50:12.401327 20943 net.cpp:131] Top shape: 1000 80 (80000)
I0430 17:50:12.401330 20943 net.cpp:139] Memory required for data: 13020000
I0430 17:50:12.401335 20943 layer_factory.hpp:77] Creating layer ip3
I0430 17:50:12.401340 20943 net.cpp:86] Creating Layer ip3
I0430 17:50:12.401343 20943 net.cpp:408] ip3 <- ip2
I0430 17:50:12.401350 20943 net.cpp:382] ip3 -> ip3
I0430 17:50:12.401540 20943 net.cpp:124] Setting up ip3
I0430 17:50:12.401548 20943 net.cpp:131] Top shape: 1000 40 (40000)
I0430 17:50:12.401551 20943 net.cpp:139] Memory required for data: 13180000
I0430 17:50:12.401559 20943 layer_factory.hpp:77] Creating layer relu3
I0430 17:50:12.401564 20943 net.cpp:86] Creating Layer relu3
I0430 17:50:12.401567 20943 net.cpp:408] relu3 <- ip3
I0430 17:50:12.401571 20943 net.cpp:369] relu3 -> ip3 (in-place)
I0430 17:50:12.401723 20943 net.cpp:124] Setting up relu3
I0430 17:50:12.401731 20943 net.cpp:131] Top shape: 1000 40 (40000)
I0430 17:50:12.401734 20943 net.cpp:139] Memory required for data: 13340000
I0430 17:50:12.401738 20943 layer_factory.hpp:77] Creating layer ip4
I0430 17:50:12.401746 20943 net.cpp:86] Creating Layer ip4
I0430 17:50:12.401749 20943 net.cpp:408] ip4 <- ip3
I0430 17:50:12.401754 20943 net.cpp:382] ip4 -> ip4
I0430 17:50:12.401865 20943 net.cpp:124] Setting up ip4
I0430 17:50:12.401871 20943 net.cpp:131] Top shape: 1000 10 (10000)
I0430 17:50:12.401875 20943 net.cpp:139] Memory required for data: 13380000
I0430 17:50:12.401880 20943 layer_factory.hpp:77] Creating layer ip4_ip4_0_split
I0430 17:50:12.401886 20943 net.cpp:86] Creating Layer ip4_ip4_0_split
I0430 17:50:12.401890 20943 net.cpp:408] ip4_ip4_0_split <- ip4
I0430 17:50:12.401895 20943 net.cpp:382] ip4_ip4_0_split -> ip4_ip4_0_split_0
I0430 17:50:12.401901 20943 net.cpp:382] ip4_ip4_0_split -> ip4_ip4_0_split_1
I0430 17:50:12.401931 20943 net.cpp:124] Setting up ip4_ip4_0_split
I0430 17:50:12.401939 20943 net.cpp:131] Top shape: 1000 10 (10000)
I0430 17:50:12.401943 20943 net.cpp:131] Top shape: 1000 10 (10000)
I0430 17:50:12.401947 20943 net.cpp:139] Memory required for data: 13460000
I0430 17:50:12.401949 20943 layer_factory.hpp:77] Creating layer accuracy
I0430 17:50:12.401955 20943 net.cpp:86] Creating Layer accuracy
I0430 17:50:12.401958 20943 net.cpp:408] accuracy <- ip4_ip4_0_split_0
I0430 17:50:12.401962 20943 net.cpp:408] accuracy <- label_cifar_1_split_0
I0430 17:50:12.401968 20943 net.cpp:382] accuracy -> accuracy
…
