…
I0430 21:03:15.889925 29985 net.cpp:296] The NetState phase (0) differed from the phase (1) specified by a rule in layer cifar
I0430 21:03:15.889940 29985 net.cpp:296] The NetState phase (0) differed from the phase (1) specified by a rule in layer accuracy
I0430 21:03:15.890022 29985 net.cpp:53] Initializing net from parameters: 
name: "CIFAR"
state {
  phase: TRAIN
  level: 0
  stage: ""
}
layer {
  name: "cifar"
  type: "Data"
  top: "data"
  top: "label"
  include {
    phase: TRAIN
  }
  transform_param {
    mean_file: "examples/cifar10/mean.binaryproto"
  }
  data_param {
    source: "examples/cifar10/cifar10_train_lmdb"
    batch_size: 111
    backend: LMDB
  }
}
layer {
  name: "ip1"
  type: "InnerProduct"
  bottom: "data"
  top: "ip1"
  param {
    lr_mult: 1
  }
  param {
    lr_mult: 2
  }
  inner_product_param {
    num_output: 160
    weight_filler {
      type: "gaussian"
      std: 0.01
    }
    bias_filler {
      type: "constant"
    }
  }
}
layer {
  name: "relu1"
  type: "ReLU"
  bottom: "ip1"
  top: "ip1"
}
layer {
  name: "ip2"
  type: "InnerProduct"
  bottom: "ip1"
  top: "ip2"
  param {
    lr_mult: 1
  }
  param {
    lr_mult: 2
  }
  inner_product_param {
    num_output: 80
    weight_filler {
      type: "gaussian"
      std: 0.01
    }
    bias_filler {
      type: "constant"
    }
  }
}
layer {
  name: "relu2"
  type: "ReLU"
  bottom: "ip2"
  top: "ip2"
}
layer {
  name: "ip3"
  type: "InnerProduct"
  bottom: "ip2"
  top: "ip3"
  param {
    lr_mult: 1
  }
  param {
    lr_mult: 2
  }
  inner_product_param {
    num_output: 160
    weight_filler {
      type: "gaussian"
      std: 0.01
    }
    bias_filler {
      type: "constant"
    }
  }
}
layer {
  name: "relu3"
  type: "ReLU"
  bottom: "ip3"
  top: "ip3"
}
layer {
  name: "ip4"
  type: "InnerProduct"
  bottom: "ip3"
  top: "ip4"
  param {
    lr_mult: 1
  }
  param {
    lr_mult: 2
  }
  inner_product_param {
    num_output: 10
    weight_filler {
      type: "gaussian"
      std: 0.01
    }
    bias_filler {
      type: "constant"
    }
  }
}
layer {
  name: "loss"
  type: "SoftmaxWithLoss"
  bottom: "ip4"
  bottom: "label"
  top: "loss"
}
I0430 21:03:15.890086 29985 layer_factory.hpp:77] Creating layer cifar
I0430 21:03:15.890187 29985 db_lmdb.cpp:35] Opened lmdb examples/cifar10/cifar10_train_lmdb
I0430 21:03:15.890213 29985 net.cpp:86] Creating Layer cifar
I0430 21:03:15.890221 29985 net.cpp:382] cifar -> data
I0430 21:03:15.890244 29985 net.cpp:382] cifar -> label
I0430 21:03:15.890260 29985 data_transformer.cpp:25] Loading mean file from: examples/cifar10/mean.binaryproto
I0430 21:03:15.892388 29985 data_layer.cpp:45] output data size: 111,3,32,32
I0430 21:03:15.900279 29985 net.cpp:124] Setting up cifar
I0430 21:03:15.900300 29985 net.cpp:131] Top shape: 111 3 32 32 (340992)
I0430 21:03:15.900307 29985 net.cpp:131] Top shape: 111 (111)
I0430 21:03:15.900311 29985 net.cpp:139] Memory required for data: 1364412
I0430 21:03:15.900319 29985 layer_factory.hpp:77] Creating layer ip1
I0430 21:03:15.900332 29985 net.cpp:86] Creating Layer ip1
I0430 21:03:15.900337 29985 net.cpp:408] ip1 <- data
I0430 21:03:15.900349 29985 net.cpp:382] ip1 -> ip1
I0430 21:03:15.917657 29985 net.cpp:124] Setting up ip1
I0430 21:03:15.917675 29985 net.cpp:131] Top shape: 111 160 (17760)
I0430 21:03:15.917681 29985 net.cpp:139] Memory required for data: 1435452
I0430 21:03:15.917697 29985 layer_factory.hpp:77] Creating layer relu1
I0430 21:03:15.917737 29985 net.cpp:86] Creating Layer relu1
I0430 21:03:15.917742 29985 net.cpp:408] relu1 <- ip1
I0430 21:03:15.917748 29985 net.cpp:369] relu1 -> ip1 (in-place)
I0430 21:03:16.193801 29985 net.cpp:124] Setting up relu1
I0430 21:03:16.193827 29985 net.cpp:131] Top shape: 111 160 (17760)
I0430 21:03:16.193831 29985 net.cpp:139] Memory required for data: 1506492
I0430 21:03:16.193837 29985 layer_factory.hpp:77] Creating layer ip2
I0430 21:03:16.193850 29985 net.cpp:86] Creating Layer ip2
I0430 21:03:16.193855 29985 net.cpp:408] ip2 <- ip1
I0430 21:03:16.193862 29985 net.cpp:382] ip2 -> ip2
I0430 21:03:16.195155 29985 net.cpp:124] Setting up ip2
I0430 21:03:16.195169 29985 net.cpp:131] Top shape: 111 80 (8880)
I0430 21:03:16.195173 29985 net.cpp:139] Memory required for data: 1542012
I0430 21:03:16.195183 29985 layer_factory.hpp:77] Creating layer relu2
I0430 21:03:16.195194 29985 net.cpp:86] Creating Layer relu2
I0430 21:03:16.195201 29985 net.cpp:408] relu2 <- ip2
I0430 21:03:16.195205 29985 net.cpp:369] relu2 -> ip2 (in-place)
I0430 21:03:16.195976 29985 net.cpp:124] Setting up relu2
I0430 21:03:16.195988 29985 net.cpp:131] Top shape: 111 80 (8880)
I0430 21:03:16.195991 29985 net.cpp:139] Memory required for data: 1577532
I0430 21:03:16.195996 29985 layer_factory.hpp:77] Creating layer ip3
I0430 21:03:16.196002 29985 net.cpp:86] Creating Layer ip3
I0430 21:03:16.196005 29985 net.cpp:408] ip3 <- ip2
I0430 21:03:16.196010 29985 net.cpp:382] ip3 -> ip3
I0430 21:03:16.196429 29985 net.cpp:124] Setting up ip3
I0430 21:03:16.196437 29985 net.cpp:131] Top shape: 111 160 (17760)
I0430 21:03:16.196440 29985 net.cpp:139] Memory required for data: 1648572
I0430 21:03:16.196447 29985 layer_factory.hpp:77] Creating layer relu3
I0430 21:03:16.196452 29985 net.cpp:86] Creating Layer relu3
I0430 21:03:16.196455 29985 net.cpp:408] relu3 <- ip3
I0430 21:03:16.196460 29985 net.cpp:369] relu3 -> ip3 (in-place)
I0430 21:03:16.196601 29985 net.cpp:124] Setting up relu3
I0430 21:03:16.196609 29985 net.cpp:131] Top shape: 111 160 (17760)
I0430 21:03:16.196612 29985 net.cpp:139] Memory required for data: 1719612
I0430 21:03:16.196615 29985 layer_factory.hpp:77] Creating layer ip4
I0430 21:03:16.196621 29985 net.cpp:86] Creating Layer ip4
I0430 21:03:16.196624 29985 net.cpp:408] ip4 <- ip3
I0430 21:03:16.196629 29985 net.cpp:382] ip4 -> ip4
I0430 21:03:16.196758 29985 net.cpp:124] Setting up ip4
I0430 21:03:16.196764 29985 net.cpp:131] Top shape: 111 10 (1110)
I0430 21:03:16.196768 29985 net.cpp:139] Memory required for data: 1724052
I0430 21:03:16.196772 29985 layer_factory.hpp:77] Creating layer loss
I0430 21:03:16.196779 29985 net.cpp:86] Creating Layer loss
I0430 21:03:16.196782 29985 net.cpp:408] loss <- ip4
I0430 21:03:16.196785 29985 net.cpp:408] loss <- label
I0430 21:03:16.196791 29985 net.cpp:382] loss -> loss
I0430 21:03:16.196815 29985 layer_factory.hpp:77] Creating layer loss
…
I0430 21:03:16.197358 29985 solver.cpp:173] Creating test net (#0) specified by net file: ECE595/cifar/train_test/var_everything/cifar_train_test_149.prototxt
I0430 21:03:16.197396 29985 net.cpp:296] The NetState phase (1) differed from the phase (0) specified by a rule in layer cifar
I0430 21:03:16.197484 29985 net.cpp:53] Initializing net from parameters: 
name: "CIFAR"
state {
  phase: TEST
}
layer {
  name: "cifar"
  type: "Data"
  top: "data"
  top: "label"
  include {
    phase: TEST
  }
  transform_param {
    mean_file: "examples/cifar10/mean.binaryproto"
  }
  data_param {
    source: "examples/cifar10/cifar10_test_lmdb"
    batch_size: 1000
    backend: LMDB
  }
}
layer {
  name: "ip1"
  type: "InnerProduct"
  bottom: "data"
  top: "ip1"
  param {
    lr_mult: 1
  }
  param {
    lr_mult: 2
  }
  inner_product_param {
    num_output: 160
    weight_filler {
      type: "gaussian"
      std: 0.01
    }
    bias_filler {
      type: "constant"
    }
  }
}
layer {
  name: "relu1"
  type: "ReLU"
  bottom: "ip1"
  top: "ip1"
}
layer {
  name: "ip2"
  type: "InnerProduct"
  bottom: "ip1"
  top: "ip2"
  param {
    lr_mult: 1
  }
  param {
    lr_mult: 2
  }
  inner_product_param {
    num_output: 80
    weight_filler {
      type: "gaussian"
      std: 0.01
    }
    bias_filler {
      type: "constant"
    }
  }
}
layer {
  name: "relu2"
  type: "ReLU"
  bottom: "ip2"
  top: "ip2"
}
layer {
  name: "ip3"
  type: "InnerProduct"
  bottom: "ip2"
  top: "ip3"
  param {
    lr_mult: 1
  }
  param {
    lr_mult: 2
  }
  inner_product_param {
    num_output: 160
    weight_filler {
      type: "gaussian"
      std: 0.01
    }
    bias_filler {
      type: "constant"
    }
  }
}
layer {
  name: "relu3"
  type: "ReLU"
  bottom: "ip3"
  top: "ip3"
}
layer {
  name: "ip4"
  type: "InnerProduct"
  bottom: "ip3"
  top: "ip4"
  param {
    lr_mult: 1
  }
  param {
    lr_mult: 2
  }
  inner_product_param {
    num_output: 10
    weight_filler {
      type: "gaussian"
      std: 0.01
    }
    bias_filler {
      type: "constant"
    }
  }
}
layer {
  name: "accuracy"
  type: "Accuracy"
  bottom: "ip4"
  bottom: "label"
  top: "accuracy"
  include {
    phase: TEST
  }
}
layer {
  name: "loss"
  type: "SoftmaxWithLoss"
  bottom: "ip4"
  bottom: "label"
  top: "loss"
}
I0430 21:03:16.197540 29985 layer_factory.hpp:77] Creating layer cifar
I0430 21:03:16.197582 29985 db_lmdb.cpp:35] Opened lmdb examples/cifar10/cifar10_test_lmdb
I0430 21:03:16.197594 29985 net.cpp:86] Creating Layer cifar
I0430 21:03:16.197598 29985 net.cpp:382] cifar -> data
I0430 21:03:16.197607 29985 net.cpp:382] cifar -> label
I0430 21:03:16.197613 29985 data_transformer.cpp:25] Loading mean file from: examples/cifar10/mean.binaryproto
I0430 21:03:16.197751 29985 data_layer.cpp:45] output data size: 1000,3,32,32
I0430 21:03:16.220134 29985 net.cpp:124] Setting up cifar
I0430 21:03:16.220158 29985 net.cpp:131] Top shape: 1000 3 32 32 (3072000)
I0430 21:03:16.220163 29985 net.cpp:131] Top shape: 1000 (1000)
I0430 21:03:16.220166 29985 net.cpp:139] Memory required for data: 12292000
I0430 21:03:16.220186 29985 layer_factory.hpp:77] Creating layer label_cifar_1_split
I0430 21:03:16.220202 29985 net.cpp:86] Creating Layer label_cifar_1_split
I0430 21:03:16.220208 29985 net.cpp:408] label_cifar_1_split <- label
I0430 21:03:16.220216 29985 net.cpp:382] label_cifar_1_split -> label_cifar_1_split_0
I0430 21:03:16.220224 29985 net.cpp:382] label_cifar_1_split -> label_cifar_1_split_1
I0430 21:03:16.220309 29985 net.cpp:124] Setting up label_cifar_1_split
I0430 21:03:16.220316 29985 net.cpp:131] Top shape: 1000 (1000)
I0430 21:03:16.220320 29985 net.cpp:131] Top shape: 1000 (1000)
I0430 21:03:16.220322 29985 net.cpp:139] Memory required for data: 12300000
I0430 21:03:16.220326 29985 layer_factory.hpp:77] Creating layer ip1
I0430 21:03:16.220335 29985 net.cpp:86] Creating Layer ip1
I0430 21:03:16.220337 29985 net.cpp:408] ip1 <- data
I0430 21:03:16.220342 29985 net.cpp:382] ip1 -> ip1
I0430 21:03:16.234213 29985 net.cpp:124] Setting up ip1
I0430 21:03:16.234228 29985 net.cpp:131] Top shape: 1000 160 (160000)
I0430 21:03:16.234231 29985 net.cpp:139] Memory required for data: 12940000
I0430 21:03:16.234272 29985 layer_factory.hpp:77] Creating layer relu1
I0430 21:03:16.234282 29985 net.cpp:86] Creating Layer relu1
I0430 21:03:16.234284 29985 net.cpp:408] relu1 <- ip1
I0430 21:03:16.234289 29985 net.cpp:369] relu1 -> ip1 (in-place)
I0430 21:03:16.235079 29985 net.cpp:124] Setting up relu1
I0430 21:03:16.235090 29985 net.cpp:131] Top shape: 1000 160 (160000)
I0430 21:03:16.235095 29985 net.cpp:139] Memory required for data: 13580000
I0430 21:03:16.235112 29985 layer_factory.hpp:77] Creating layer ip2
I0430 21:03:16.235121 29985 net.cpp:86] Creating Layer ip2
I0430 21:03:16.235126 29985 net.cpp:408] ip2 <- ip1
I0430 21:03:16.235131 29985 net.cpp:382] ip2 -> ip2
I0430 21:03:16.235579 29985 net.cpp:124] Setting up ip2
I0430 21:03:16.235586 29985 net.cpp:131] Top shape: 1000 80 (80000)
I0430 21:03:16.235589 29985 net.cpp:139] Memory required for data: 13900000
I0430 21:03:16.235611 29985 layer_factory.hpp:77] Creating layer relu2
I0430 21:03:16.235617 29985 net.cpp:86] Creating Layer relu2
I0430 21:03:16.235622 29985 net.cpp:408] relu2 <- ip2
I0430 21:03:16.235626 29985 net.cpp:369] relu2 -> ip2 (in-place)
I0430 21:03:16.235785 29985 net.cpp:124] Setting up relu2
I0430 21:03:16.235793 29985 net.cpp:131] Top shape: 1000 80 (80000)
I0430 21:03:16.235796 29985 net.cpp:139] Memory required for data: 14220000
I0430 21:03:16.235800 29985 layer_factory.hpp:77] Creating layer ip3
I0430 21:03:16.235805 29985 net.cpp:86] Creating Layer ip3
I0430 21:03:16.235808 29985 net.cpp:408] ip3 <- ip2
I0430 21:03:16.235813 29985 net.cpp:382] ip3 -> ip3
I0430 21:03:16.236270 29985 net.cpp:124] Setting up ip3
I0430 21:03:16.236277 29985 net.cpp:131] Top shape: 1000 160 (160000)
I0430 21:03:16.236279 29985 net.cpp:139] Memory required for data: 14860000
I0430 21:03:16.236301 29985 layer_factory.hpp:77] Creating layer relu3
I0430 21:03:16.236307 29985 net.cpp:86] Creating Layer relu3
I0430 21:03:16.236310 29985 net.cpp:408] relu3 <- ip3
I0430 21:03:16.236315 29985 net.cpp:369] relu3 -> ip3 (in-place)
I0430 21:03:16.236456 29985 net.cpp:124] Setting up relu3
I0430 21:03:16.236464 29985 net.cpp:131] Top shape: 1000 160 (160000)
I0430 21:03:16.236467 29985 net.cpp:139] Memory required for data: 15500000
I0430 21:03:16.236470 29985 layer_factory.hpp:77] Creating layer ip4
I0430 21:03:16.236477 29985 net.cpp:86] Creating Layer ip4
I0430 21:03:16.236480 29985 net.cpp:408] ip4 <- ip3
I0430 21:03:16.236485 29985 net.cpp:382] ip4 -> ip4
I0430 21:03:16.236624 29985 net.cpp:124] Setting up ip4
I0430 21:03:16.236631 29985 net.cpp:131] Top shape: 1000 10 (10000)
I0430 21:03:16.236634 29985 net.cpp:139] Memory required for data: 15540000
I0430 21:03:16.236639 29985 layer_factory.hpp:77] Creating layer ip4_ip4_0_split
I0430 21:03:16.236644 29985 net.cpp:86] Creating Layer ip4_ip4_0_split
I0430 21:03:16.236647 29985 net.cpp:408] ip4_ip4_0_split <- ip4
I0430 21:03:16.236651 29985 net.cpp:382] ip4_ip4_0_split -> ip4_ip4_0_split_0
I0430 21:03:16.236659 29985 net.cpp:382] ip4_ip4_0_split -> ip4_ip4_0_split_1
I0430 21:03:16.236688 29985 net.cpp:124] Setting up ip4_ip4_0_split
I0430 21:03:16.236695 29985 net.cpp:131] Top shape: 1000 10 (10000)
I0430 21:03:16.236697 29985 net.cpp:131] Top shape: 1000 10 (10000)
I0430 21:03:16.236701 29985 net.cpp:139] Memory required for data: 15620000
I0430 21:03:16.236703 29985 layer_factory.hpp:77] Creating layer accuracy
I0430 21:03:16.236713 29985 net.cpp:86] Creating Layer accuracy
I0430 21:03:16.236716 29985 net.cpp:408] accuracy <- ip4_ip4_0_split_0
I0430 21:03:16.236721 29985 net.cpp:408] accuracy <- label_cifar_1_split_0
I0430 21:03:16.236724 29985 net.cpp:382] accuracy -> accuracy
…
