…
I0430 16:45:52.292897 18227 net.cpp:296] The NetState phase (0) differed from the phase (1) specified by a rule in layer cifar
I0430 16:45:52.292912 18227 net.cpp:296] The NetState phase (0) differed from the phase (1) specified by a rule in layer accuracy
I0430 16:45:52.292985 18227 net.cpp:53] Initializing net from parameters: 
name: "CIFAR"
state {
  phase: TRAIN
  level: 0
  stage: ""
}
layer {
  name: "cifar"
  type: "Data"
  top: "data"
  top: "label"
  include {
    phase: TRAIN
  }
  transform_param {
    mean_file: "examples/cifar10/mean.binaryproto"
  }
  data_param {
    source: "examples/cifar10/cifar10_train_lmdb"
    batch_size: 111
    backend: LMDB
  }
}
layer {
  name: "ip1"
  type: "InnerProduct"
  bottom: "data"
  top: "ip1"
  param {
    lr_mult: 1
  }
  param {
    lr_mult: 2
  }
  inner_product_param {
    num_output: 20
    weight_filler {
      type: "gaussian"
      std: 0.01
    }
    bias_filler {
      type: "constant"
    }
  }
}
layer {
  name: "relu1"
  type: "ReLU"
  bottom: "ip1"
  top: "ip1"
}
layer {
  name: "ip2"
  type: "InnerProduct"
  bottom: "ip1"
  top: "ip2"
  param {
    lr_mult: 1
  }
  param {
    lr_mult: 2
  }
  inner_product_param {
    num_output: 80
    weight_filler {
      type: "gaussian"
      std: 0.01
    }
    bias_filler {
      type: "constant"
    }
  }
}
layer {
  name: "relu2"
  type: "ReLU"
  bottom: "ip2"
  top: "ip2"
}
layer {
  name: "ip3"
  type: "InnerProduct"
  bottom: "ip2"
  top: "ip3"
  param {
    lr_mult: 1
  }
  param {
    lr_mult: 2
  }
  inner_product_param {
    num_output: 10
    weight_filler {
      type: "gaussian"
      std: 0.01
    }
    bias_filler {
      type: "constant"
    }
  }
}
layer {
  name: "loss"
  type: "SoftmaxWithLoss"
  bottom: "ip3"
  bottom: "label"
  top: "loss"
}
I0430 16:45:52.293043 18227 layer_factory.hpp:77] Creating layer cifar
I0430 16:45:52.293143 18227 db_lmdb.cpp:35] Opened lmdb examples/cifar10/cifar10_train_lmdb
I0430 16:45:52.293170 18227 net.cpp:86] Creating Layer cifar
I0430 16:45:52.293179 18227 net.cpp:382] cifar -> data
I0430 16:45:52.293201 18227 net.cpp:382] cifar -> label
I0430 16:45:52.293213 18227 data_transformer.cpp:25] Loading mean file from: examples/cifar10/mean.binaryproto
I0430 16:45:52.295313 18227 data_layer.cpp:45] output data size: 111,3,32,32
I0430 16:45:52.303182 18227 net.cpp:124] Setting up cifar
I0430 16:45:52.303202 18227 net.cpp:131] Top shape: 111 3 32 32 (340992)
I0430 16:45:52.303210 18227 net.cpp:131] Top shape: 111 (111)
I0430 16:45:52.303213 18227 net.cpp:139] Memory required for data: 1364412
I0430 16:45:52.303221 18227 layer_factory.hpp:77] Creating layer ip1
I0430 16:45:52.303232 18227 net.cpp:86] Creating Layer ip1
I0430 16:45:52.303238 18227 net.cpp:408] ip1 <- data
I0430 16:45:52.303251 18227 net.cpp:382] ip1 -> ip1
I0430 16:45:52.306455 18227 net.cpp:124] Setting up ip1
I0430 16:45:52.306471 18227 net.cpp:131] Top shape: 111 20 (2220)
I0430 16:45:52.306476 18227 net.cpp:139] Memory required for data: 1373292
I0430 16:45:52.306493 18227 layer_factory.hpp:77] Creating layer relu1
I0430 16:45:52.306501 18227 net.cpp:86] Creating Layer relu1
I0430 16:45:52.306506 18227 net.cpp:408] relu1 <- ip1
I0430 16:45:52.306512 18227 net.cpp:369] relu1 -> ip1 (in-place)
I0430 16:45:52.579265 18227 net.cpp:124] Setting up relu1
I0430 16:45:52.579308 18227 net.cpp:131] Top shape: 111 20 (2220)
I0430 16:45:52.579313 18227 net.cpp:139] Memory required for data: 1382172
I0430 16:45:52.579350 18227 layer_factory.hpp:77] Creating layer ip2
I0430 16:45:52.579362 18227 net.cpp:86] Creating Layer ip2
I0430 16:45:52.579382 18227 net.cpp:408] ip2 <- ip1
I0430 16:45:52.579390 18227 net.cpp:382] ip2 -> ip2
I0430 16:45:52.579540 18227 net.cpp:124] Setting up ip2
I0430 16:45:52.579547 18227 net.cpp:131] Top shape: 111 80 (8880)
I0430 16:45:52.579550 18227 net.cpp:139] Memory required for data: 1417692
I0430 16:45:52.579560 18227 layer_factory.hpp:77] Creating layer relu2
I0430 16:45:52.579566 18227 net.cpp:86] Creating Layer relu2
I0430 16:45:52.579569 18227 net.cpp:408] relu2 <- ip2
I0430 16:45:52.579573 18227 net.cpp:369] relu2 -> ip2 (in-place)
I0430 16:45:52.580379 18227 net.cpp:124] Setting up relu2
I0430 16:45:52.580390 18227 net.cpp:131] Top shape: 111 80 (8880)
I0430 16:45:52.580410 18227 net.cpp:139] Memory required for data: 1453212
I0430 16:45:52.580413 18227 layer_factory.hpp:77] Creating layer ip3
I0430 16:45:52.580433 18227 net.cpp:86] Creating Layer ip3
I0430 16:45:52.580436 18227 net.cpp:408] ip3 <- ip2
I0430 16:45:52.580441 18227 net.cpp:382] ip3 -> ip3
I0430 16:45:52.581394 18227 net.cpp:124] Setting up ip3
I0430 16:45:52.581421 18227 net.cpp:131] Top shape: 111 10 (1110)
I0430 16:45:52.581425 18227 net.cpp:139] Memory required for data: 1457652
I0430 16:45:52.581434 18227 layer_factory.hpp:77] Creating layer loss
I0430 16:45:52.581439 18227 net.cpp:86] Creating Layer loss
I0430 16:45:52.581444 18227 net.cpp:408] loss <- ip3
I0430 16:45:52.581447 18227 net.cpp:408] loss <- label
I0430 16:45:52.581452 18227 net.cpp:382] loss -> loss
I0430 16:45:52.581485 18227 layer_factory.hpp:77] Creating layer loss
…
I0430 16:45:52.582010 18227 solver.cpp:173] Creating test net (#0) specified by net file: ECE595/cifar/train_test/var_everything/cifar_train_test_13.prototxt
I0430 16:45:52.582031 18227 net.cpp:296] The NetState phase (1) differed from the phase (0) specified by a rule in layer cifar
I0430 16:45:52.582101 18227 net.cpp:53] Initializing net from parameters: 
name: "CIFAR"
state {
  phase: TEST
}
layer {
  name: "cifar"
  type: "Data"
  top: "data"
  top: "label"
  include {
    phase: TEST
  }
  transform_param {
    mean_file: "examples/cifar10/mean.binaryproto"
  }
  data_param {
    source: "examples/cifar10/cifar10_test_lmdb"
    batch_size: 1000
    backend: LMDB
  }
}
layer {
  name: "ip1"
  type: "InnerProduct"
  bottom: "data"
  top: "ip1"
  param {
    lr_mult: 1
  }
  param {
    lr_mult: 2
  }
  inner_product_param {
    num_output: 20
    weight_filler {
      type: "gaussian"
      std: 0.01
    }
    bias_filler {
      type: "constant"
    }
  }
}
layer {
  name: "relu1"
  type: "ReLU"
  bottom: "ip1"
  top: "ip1"
}
layer {
  name: "ip2"
  type: "InnerProduct"
  bottom: "ip1"
  top: "ip2"
  param {
    lr_mult: 1
  }
  param {
    lr_mult: 2
  }
  inner_product_param {
    num_output: 80
    weight_filler {
      type: "gaussian"
      std: 0.01
    }
    bias_filler {
      type: "constant"
    }
  }
}
layer {
  name: "relu2"
  type: "ReLU"
  bottom: "ip2"
  top: "ip2"
}
layer {
  name: "ip3"
  type: "InnerProduct"
  bottom: "ip2"
  top: "ip3"
  param {
    lr_mult: 1
  }
  param {
    lr_mult: 2
  }
  inner_product_param {
    num_output: 10
    weight_filler {
      type: "gaussian"
      std: 0.01
    }
    bias_filler {
      type: "constant"
    }
  }
}
layer {
  name: "accuracy"
  type: "Accuracy"
  bottom: "ip3"
  bottom: "label"
  top: "accuracy"
  include {
    phase: TEST
  }
}
layer {
  name: "loss"
  type: "SoftmaxWithLoss"
  bottom: "ip3"
  bottom: "label"
  top: "loss"
}
I0430 16:45:52.582165 18227 layer_factory.hpp:77] Creating layer cifar
I0430 16:45:52.582222 18227 db_lmdb.cpp:35] Opened lmdb examples/cifar10/cifar10_test_lmdb
I0430 16:45:52.582236 18227 net.cpp:86] Creating Layer cifar
I0430 16:45:52.582239 18227 net.cpp:382] cifar -> data
I0430 16:45:52.582247 18227 net.cpp:382] cifar -> label
I0430 16:45:52.582252 18227 data_transformer.cpp:25] Loading mean file from: examples/cifar10/mean.binaryproto
I0430 16:45:52.582402 18227 data_layer.cpp:45] output data size: 1000,3,32,32
I0430 16:45:52.603740 18227 net.cpp:124] Setting up cifar
I0430 16:45:52.603780 18227 net.cpp:131] Top shape: 1000 3 32 32 (3072000)
I0430 16:45:52.603786 18227 net.cpp:131] Top shape: 1000 (1000)
I0430 16:45:52.603790 18227 net.cpp:139] Memory required for data: 12292000
I0430 16:45:52.603795 18227 layer_factory.hpp:77] Creating layer label_cifar_1_split
I0430 16:45:52.603811 18227 net.cpp:86] Creating Layer label_cifar_1_split
I0430 16:45:52.603814 18227 net.cpp:408] label_cifar_1_split <- label
I0430 16:45:52.603821 18227 net.cpp:382] label_cifar_1_split -> label_cifar_1_split_0
I0430 16:45:52.603843 18227 net.cpp:382] label_cifar_1_split -> label_cifar_1_split_1
I0430 16:45:52.603924 18227 net.cpp:124] Setting up label_cifar_1_split
I0430 16:45:52.603930 18227 net.cpp:131] Top shape: 1000 (1000)
I0430 16:45:52.603935 18227 net.cpp:131] Top shape: 1000 (1000)
I0430 16:45:52.603936 18227 net.cpp:139] Memory required for data: 12300000
I0430 16:45:52.603940 18227 layer_factory.hpp:77] Creating layer ip1
I0430 16:45:52.603948 18227 net.cpp:86] Creating Layer ip1
I0430 16:45:52.603951 18227 net.cpp:408] ip1 <- data
I0430 16:45:52.603956 18227 net.cpp:382] ip1 -> ip1
I0430 16:45:52.606549 18227 net.cpp:124] Setting up ip1
I0430 16:45:52.606557 18227 net.cpp:131] Top shape: 1000 20 (20000)
I0430 16:45:52.606575 18227 net.cpp:139] Memory required for data: 12380000
I0430 16:45:52.606585 18227 layer_factory.hpp:77] Creating layer relu1
I0430 16:45:52.606591 18227 net.cpp:86] Creating Layer relu1
I0430 16:45:52.606595 18227 net.cpp:408] relu1 <- ip1
I0430 16:45:52.606600 18227 net.cpp:369] relu1 -> ip1 (in-place)
I0430 16:45:52.606801 18227 net.cpp:124] Setting up relu1
I0430 16:45:52.606811 18227 net.cpp:131] Top shape: 1000 20 (20000)
I0430 16:45:52.606813 18227 net.cpp:139] Memory required for data: 12460000
I0430 16:45:52.606817 18227 layer_factory.hpp:77] Creating layer ip2
I0430 16:45:52.606825 18227 net.cpp:86] Creating Layer ip2
I0430 16:45:52.606828 18227 net.cpp:408] ip2 <- ip1
I0430 16:45:52.606833 18227 net.cpp:382] ip2 -> ip2
I0430 16:45:52.606971 18227 net.cpp:124] Setting up ip2
I0430 16:45:52.606978 18227 net.cpp:131] Top shape: 1000 80 (80000)
I0430 16:45:52.606981 18227 net.cpp:139] Memory required for data: 12780000
I0430 16:45:52.606988 18227 layer_factory.hpp:77] Creating layer relu2
I0430 16:45:52.606992 18227 net.cpp:86] Creating Layer relu2
I0430 16:45:52.606995 18227 net.cpp:408] relu2 <- ip2
I0430 16:45:52.606999 18227 net.cpp:369] relu2 -> ip2 (in-place)
I0430 16:45:52.607766 18227 net.cpp:124] Setting up relu2
I0430 16:45:52.607779 18227 net.cpp:131] Top shape: 1000 80 (80000)
I0430 16:45:52.607796 18227 net.cpp:139] Memory required for data: 13100000
I0430 16:45:52.607800 18227 layer_factory.hpp:77] Creating layer ip3
I0430 16:45:52.607807 18227 net.cpp:86] Creating Layer ip3
I0430 16:45:52.607810 18227 net.cpp:408] ip3 <- ip2
I0430 16:45:52.607815 18227 net.cpp:382] ip3 -> ip3
I0430 16:45:52.607949 18227 net.cpp:124] Setting up ip3
I0430 16:45:52.607956 18227 net.cpp:131] Top shape: 1000 10 (10000)
I0430 16:45:52.607959 18227 net.cpp:139] Memory required for data: 13140000
I0430 16:45:52.607982 18227 layer_factory.hpp:77] Creating layer ip3_ip3_0_split
I0430 16:45:52.607987 18227 net.cpp:86] Creating Layer ip3_ip3_0_split
I0430 16:45:52.607990 18227 net.cpp:408] ip3_ip3_0_split <- ip3
I0430 16:45:52.607995 18227 net.cpp:382] ip3_ip3_0_split -> ip3_ip3_0_split_0
I0430 16:45:52.608000 18227 net.cpp:382] ip3_ip3_0_split -> ip3_ip3_0_split_1
I0430 16:45:52.608032 18227 net.cpp:124] Setting up ip3_ip3_0_split
I0430 16:45:52.608037 18227 net.cpp:131] Top shape: 1000 10 (10000)
I0430 16:45:52.608042 18227 net.cpp:131] Top shape: 1000 10 (10000)
I0430 16:45:52.608045 18227 net.cpp:139] Memory required for data: 13220000
I0430 16:45:52.608048 18227 layer_factory.hpp:77] Creating layer accuracy
I0430 16:45:52.608054 18227 net.cpp:86] Creating Layer accuracy
I0430 16:45:52.608057 18227 net.cpp:408] accuracy <- ip3_ip3_0_split_0
I0430 16:45:52.608062 18227 net.cpp:408] accuracy <- label_cifar_1_split_0
I0430 16:45:52.608065 18227 net.cpp:382] accuracy -> accuracy
…
