…
I0501 02:18:19.146801 14658 net.cpp:296] The NetState phase (0) differed from the phase (1) specified by a rule in layer cifar
I0501 02:18:19.146821 14658 net.cpp:296] The NetState phase (0) differed from the phase (1) specified by a rule in layer accuracy
I0501 02:18:19.146921 14658 net.cpp:53] Initializing net from parameters: 
name: "CIFAR"
state {
  phase: TRAIN
  level: 0
  stage: ""
}
layer {
  name: "cifar"
  type: "Data"
  top: "data"
  top: "label"
  include {
    phase: TRAIN
  }
  transform_param {
    mean_file: "examples/cifar10/mean.binaryproto"
  }
  data_param {
    source: "examples/cifar10/cifar10_train_lmdb"
    batch_size: 111
    backend: LMDB
  }
}
layer {
  name: "conv0"
  type: "Convolution"
  bottom: "data"
  top: "conv0"
  param {
    lr_mult: 1
  }
  param {
    lr_mult: 2
  }
  convolution_param {
    num_output: 8
    pad: 2
    kernel_size: 5
    stride: 1
    weight_filler {
      type: "gaussian"
      std: 0.01
    }
    bias_filler {
      type: "constant"
    }
  }
}
layer {
  name: "Sigmoid0"
  type: "Sigmoid"
  bottom: "conv0"
  top: "Sigmoid0"
}
layer {
  name: "pool0"
  type: "Pooling"
  bottom: "Sigmoid0"
  top: "pool0"
  pooling_param {
    pool: AVE
    kernel_size: 3
    stride: 2
  }
}
layer {
  name: "ip1"
  type: "InnerProduct"
  bottom: "pool0"
  top: "ip1"
  param {
    lr_mult: 1
  }
  param {
    lr_mult: 2
  }
  inner_product_param {
    num_output: 10
    weight_filler {
      type: "gaussian"
      std: 0.01
    }
    bias_filler {
      type: "constant"
    }
  }
}
layer {
  name: "relu1"
  type: "ReLU"
  bottom: "ip1"
  top: "ip1"
}
layer {
  name: "ip2"
  type: "InnerProduct"
  bottom: "ip1"
  top: "ip2"
  param {
    lr_mult: 1
  }
  param {
    lr_mult: 2
  }
  inner_product_param {
    num_output: 40
    weight_filler {
      type: "gaussian"
      std: 0.01
    }
    bias_filler {
      type: "constant"
    }
  }
}
layer {
  name: "relu2"
  type: "ReLU"
  bottom: "ip2"
  top: "ip2"
}
layer {
  name: "ip3"
  type: "InnerProduct"
  bottom: "ip2"
  top: "ip3"
  param {
    lr_mult: 1
  }
  param {
    lr_mult: 2
  }
  inner_product_param {
    num_output: 10
    weight_filler {
      type: "gaussian"
      std: 0.01
    }
    bias_filler {
      type: "constant"
    }
  }
}
layer {
  name: "loss"
  type: "SoftmaxWithLoss"
  bottom: "ip3"
  bottom: "label"
  top: "loss"
}
I0501 02:18:19.146997 14658 layer_factory.hpp:77] Creating layer cifar
I0501 02:18:19.147102 14658 db_lmdb.cpp:35] Opened lmdb examples/cifar10/cifar10_train_lmdb
I0501 02:18:19.147135 14658 net.cpp:86] Creating Layer cifar
I0501 02:18:19.147147 14658 net.cpp:382] cifar -> data
I0501 02:18:19.147172 14658 net.cpp:382] cifar -> label
I0501 02:18:19.147186 14658 data_transformer.cpp:25] Loading mean file from: examples/cifar10/mean.binaryproto
I0501 02:18:19.149282 14658 data_layer.cpp:45] output data size: 111,3,32,32
I0501 02:18:19.157269 14658 net.cpp:124] Setting up cifar
I0501 02:18:19.157290 14658 net.cpp:131] Top shape: 111 3 32 32 (340992)
I0501 02:18:19.157297 14658 net.cpp:131] Top shape: 111 (111)
I0501 02:18:19.157300 14658 net.cpp:139] Memory required for data: 1364412
I0501 02:18:19.157308 14658 layer_factory.hpp:77] Creating layer conv0
I0501 02:18:19.157327 14658 net.cpp:86] Creating Layer conv0
I0501 02:18:19.157333 14658 net.cpp:408] conv0 <- data
I0501 02:18:19.157346 14658 net.cpp:382] conv0 -> conv0
I0501 02:18:19.452121 14658 net.cpp:124] Setting up conv0
I0501 02:18:19.452173 14658 net.cpp:131] Top shape: 111 8 32 32 (909312)
I0501 02:18:19.452178 14658 net.cpp:139] Memory required for data: 5001660
I0501 02:18:19.452195 14658 layer_factory.hpp:77] Creating layer Sigmoid0
I0501 02:18:19.452208 14658 net.cpp:86] Creating Layer Sigmoid0
I0501 02:18:19.452214 14658 net.cpp:408] Sigmoid0 <- conv0
I0501 02:18:19.452219 14658 net.cpp:382] Sigmoid0 -> Sigmoid0
I0501 02:18:19.452415 14658 net.cpp:124] Setting up Sigmoid0
I0501 02:18:19.452426 14658 net.cpp:131] Top shape: 111 8 32 32 (909312)
I0501 02:18:19.452430 14658 net.cpp:139] Memory required for data: 8638908
I0501 02:18:19.452433 14658 layer_factory.hpp:77] Creating layer pool0
I0501 02:18:19.452440 14658 net.cpp:86] Creating Layer pool0
I0501 02:18:19.452445 14658 net.cpp:408] pool0 <- Sigmoid0
I0501 02:18:19.452450 14658 net.cpp:382] pool0 -> pool0
I0501 02:18:19.453307 14658 net.cpp:124] Setting up pool0
I0501 02:18:19.453323 14658 net.cpp:131] Top shape: 111 8 16 16 (227328)
I0501 02:18:19.453327 14658 net.cpp:139] Memory required for data: 9548220
I0501 02:18:19.453331 14658 layer_factory.hpp:77] Creating layer ip1
I0501 02:18:19.453341 14658 net.cpp:86] Creating Layer ip1
I0501 02:18:19.453346 14658 net.cpp:408] ip1 <- pool0
I0501 02:18:19.453351 14658 net.cpp:382] ip1 -> ip1
I0501 02:18:19.455083 14658 net.cpp:124] Setting up ip1
I0501 02:18:19.455098 14658 net.cpp:131] Top shape: 111 10 (1110)
I0501 02:18:19.455101 14658 net.cpp:139] Memory required for data: 9552660
I0501 02:18:19.455111 14658 layer_factory.hpp:77] Creating layer relu1
I0501 02:18:19.455118 14658 net.cpp:86] Creating Layer relu1
I0501 02:18:19.455122 14658 net.cpp:408] relu1 <- ip1
I0501 02:18:19.455128 14658 net.cpp:369] relu1 -> ip1 (in-place)
I0501 02:18:19.455307 14658 net.cpp:124] Setting up relu1
I0501 02:18:19.455317 14658 net.cpp:131] Top shape: 111 10 (1110)
I0501 02:18:19.455320 14658 net.cpp:139] Memory required for data: 9557100
I0501 02:18:19.455323 14658 layer_factory.hpp:77] Creating layer ip2
I0501 02:18:19.455332 14658 net.cpp:86] Creating Layer ip2
I0501 02:18:19.455334 14658 net.cpp:408] ip2 <- ip1
I0501 02:18:19.455340 14658 net.cpp:382] ip2 -> ip2
I0501 02:18:19.455458 14658 net.cpp:124] Setting up ip2
I0501 02:18:19.455466 14658 net.cpp:131] Top shape: 111 40 (4440)
I0501 02:18:19.455469 14658 net.cpp:139] Memory required for data: 9574860
I0501 02:18:19.455478 14658 layer_factory.hpp:77] Creating layer relu2
I0501 02:18:19.455483 14658 net.cpp:86] Creating Layer relu2
I0501 02:18:19.455487 14658 net.cpp:408] relu2 <- ip2
I0501 02:18:19.455492 14658 net.cpp:369] relu2 -> ip2 (in-place)
I0501 02:18:19.455664 14658 net.cpp:124] Setting up relu2
I0501 02:18:19.455673 14658 net.cpp:131] Top shape: 111 40 (4440)
I0501 02:18:19.455677 14658 net.cpp:139] Memory required for data: 9592620
I0501 02:18:19.455680 14658 layer_factory.hpp:77] Creating layer ip3
I0501 02:18:19.455688 14658 net.cpp:86] Creating Layer ip3
I0501 02:18:19.455693 14658 net.cpp:408] ip3 <- ip2
I0501 02:18:19.455698 14658 net.cpp:382] ip3 -> ip3
I0501 02:18:19.455814 14658 net.cpp:124] Setting up ip3
I0501 02:18:19.455821 14658 net.cpp:131] Top shape: 111 10 (1110)
I0501 02:18:19.455826 14658 net.cpp:139] Memory required for data: 9597060
I0501 02:18:19.455832 14658 layer_factory.hpp:77] Creating layer loss
I0501 02:18:19.455837 14658 net.cpp:86] Creating Layer loss
I0501 02:18:19.455840 14658 net.cpp:408] loss <- ip3
I0501 02:18:19.455844 14658 net.cpp:408] loss <- label
I0501 02:18:19.455850 14658 net.cpp:382] loss -> loss
I0501 02:18:19.455868 14658 layer_factory.hpp:77] Creating layer loss
…
I0501 02:18:19.456563 14658 solver.cpp:173] Creating test net (#0) specified by net file: ECE595/cifar/train_test/var_everything/cifar_train_test_317.prototxt
I0501 02:18:19.456593 14658 net.cpp:296] The NetState phase (1) differed from the phase (0) specified by a rule in layer cifar
I0501 02:18:19.456688 14658 net.cpp:53] Initializing net from parameters: 
name: "CIFAR"
state {
  phase: TEST
}
layer {
  name: "cifar"
  type: "Data"
  top: "data"
  top: "label"
  include {
    phase: TEST
  }
  transform_param {
    mean_file: "examples/cifar10/mean.binaryproto"
  }
  data_param {
    source: "examples/cifar10/cifar10_test_lmdb"
    batch_size: 1000
    backend: LMDB
  }
}
layer {
  name: "conv0"
  type: "Convolution"
  bottom: "data"
  top: "conv0"
  param {
    lr_mult: 1
  }
  param {
    lr_mult: 2
  }
  convolution_param {
    num_output: 8
    pad: 2
    kernel_size: 5
    stride: 1
    weight_filler {
      type: "gaussian"
      std: 0.01
    }
    bias_filler {
      type: "constant"
    }
  }
}
layer {
  name: "Sigmoid0"
  type: "Sigmoid"
  bottom: "conv0"
  top: "Sigmoid0"
}
layer {
  name: "pool0"
  type: "Pooling"
  bottom: "Sigmoid0"
  top: "pool0"
  pooling_param {
    pool: AVE
    kernel_size: 3
    stride: 2
  }
}
layer {
  name: "ip1"
  type: "InnerProduct"
  bottom: "pool0"
  top: "ip1"
  param {
    lr_mult: 1
  }
  param {
    lr_mult: 2
  }
  inner_product_param {
    num_output: 10
    weight_filler {
      type: "gaussian"
      std: 0.01
    }
    bias_filler {
      type: "constant"
    }
  }
}
layer {
  name: "relu1"
  type: "ReLU"
  bottom: "ip1"
  top: "ip1"
}
layer {
  name: "ip2"
  type: "InnerProduct"
  bottom: "ip1"
  top: "ip2"
  param {
    lr_mult: 1
  }
  param {
    lr_mult: 2
  }
  inner_product_param {
    num_output: 40
    weight_filler {
      type: "gaussian"
      std: 0.01
    }
    bias_filler {
      type: "constant"
    }
  }
}
layer {
  name: "relu2"
  type: "ReLU"
  bottom: "ip2"
  top: "ip2"
}
layer {
  name: "ip3"
  type: "InnerProduct"
  bottom: "ip2"
  top: "ip3"
  param {
    lr_mult: 1
  }
  param {
    lr_mult: 2
  }
  inner_product_param {
    num_output: 10
    weight_filler {
      type: "gaussian"
      std: 0.01
    }
    bias_filler {
      type: "constant"
    }
  }
}
layer {
  name: "accuracy"
  type: "Accuracy"
  bottom: "ip3"
  bottom: "label"
  top: "accuracy"
  include {
    phase: TEST
  }
}
layer {
  name: "loss"
  type: "SoftmaxWithLoss"
  bottom: "ip3"
  bottom: "label"
  top: "loss"
}
I0501 02:18:19.456761 14658 layer_factory.hpp:77] Creating layer cifar
I0501 02:18:19.456820 14658 db_lmdb.cpp:35] Opened lmdb examples/cifar10/cifar10_test_lmdb
I0501 02:18:19.456835 14658 net.cpp:86] Creating Layer cifar
I0501 02:18:19.456840 14658 net.cpp:382] cifar -> data
I0501 02:18:19.456851 14658 net.cpp:382] cifar -> label
I0501 02:18:19.456857 14658 data_transformer.cpp:25] Loading mean file from: examples/cifar10/mean.binaryproto
I0501 02:18:19.457020 14658 data_layer.cpp:45] output data size: 1000,3,32,32
I0501 02:18:19.481578 14658 net.cpp:124] Setting up cifar
I0501 02:18:19.481604 14658 net.cpp:131] Top shape: 1000 3 32 32 (3072000)
I0501 02:18:19.481611 14658 net.cpp:131] Top shape: 1000 (1000)
I0501 02:18:19.481614 14658 net.cpp:139] Memory required for data: 12292000
I0501 02:18:19.481621 14658 layer_factory.hpp:77] Creating layer label_cifar_1_split
I0501 02:18:19.481633 14658 net.cpp:86] Creating Layer label_cifar_1_split
I0501 02:18:19.481657 14658 net.cpp:408] label_cifar_1_split <- label
I0501 02:18:19.481663 14658 net.cpp:382] label_cifar_1_split -> label_cifar_1_split_0
I0501 02:18:19.481673 14658 net.cpp:382] label_cifar_1_split -> label_cifar_1_split_1
I0501 02:18:19.481786 14658 net.cpp:124] Setting up label_cifar_1_split
I0501 02:18:19.481794 14658 net.cpp:131] Top shape: 1000 (1000)
I0501 02:18:19.481799 14658 net.cpp:131] Top shape: 1000 (1000)
I0501 02:18:19.481802 14658 net.cpp:139] Memory required for data: 12300000
I0501 02:18:19.481806 14658 layer_factory.hpp:77] Creating layer conv0
I0501 02:18:19.481818 14658 net.cpp:86] Creating Layer conv0
I0501 02:18:19.481822 14658 net.cpp:408] conv0 <- data
I0501 02:18:19.481828 14658 net.cpp:382] conv0 -> conv0
I0501 02:18:19.483554 14658 net.cpp:124] Setting up conv0
I0501 02:18:19.483569 14658 net.cpp:131] Top shape: 1000 8 32 32 (8192000)
I0501 02:18:19.483573 14658 net.cpp:139] Memory required for data: 45068000
I0501 02:18:19.483584 14658 layer_factory.hpp:77] Creating layer Sigmoid0
I0501 02:18:19.483592 14658 net.cpp:86] Creating Layer Sigmoid0
I0501 02:18:19.483595 14658 net.cpp:408] Sigmoid0 <- conv0
I0501 02:18:19.483602 14658 net.cpp:382] Sigmoid0 -> Sigmoid0
I0501 02:18:19.484491 14658 net.cpp:124] Setting up Sigmoid0
I0501 02:18:19.484504 14658 net.cpp:131] Top shape: 1000 8 32 32 (8192000)
I0501 02:18:19.484508 14658 net.cpp:139] Memory required for data: 77836000
I0501 02:18:19.484511 14658 layer_factory.hpp:77] Creating layer pool0
I0501 02:18:19.484521 14658 net.cpp:86] Creating Layer pool0
I0501 02:18:19.484524 14658 net.cpp:408] pool0 <- Sigmoid0
I0501 02:18:19.484530 14658 net.cpp:382] pool0 -> pool0
I0501 02:18:19.485664 14658 net.cpp:124] Setting up pool0
I0501 02:18:19.485674 14658 net.cpp:131] Top shape: 1000 8 16 16 (2048000)
I0501 02:18:19.485677 14658 net.cpp:139] Memory required for data: 86028000
I0501 02:18:19.485682 14658 layer_factory.hpp:77] Creating layer ip1
I0501 02:18:19.485689 14658 net.cpp:86] Creating Layer ip1
I0501 02:18:19.485693 14658 net.cpp:408] ip1 <- pool0
I0501 02:18:19.485699 14658 net.cpp:382] ip1 -> ip1
I0501 02:18:19.486415 14658 net.cpp:124] Setting up ip1
I0501 02:18:19.486423 14658 net.cpp:131] Top shape: 1000 10 (10000)
I0501 02:18:19.486426 14658 net.cpp:139] Memory required for data: 86068000
I0501 02:18:19.486434 14658 layer_factory.hpp:77] Creating layer relu1
I0501 02:18:19.486440 14658 net.cpp:86] Creating Layer relu1
I0501 02:18:19.486443 14658 net.cpp:408] relu1 <- ip1
I0501 02:18:19.486449 14658 net.cpp:369] relu1 -> ip1 (in-place)
I0501 02:18:19.486611 14658 net.cpp:124] Setting up relu1
I0501 02:18:19.486619 14658 net.cpp:131] Top shape: 1000 10 (10000)
I0501 02:18:19.486624 14658 net.cpp:139] Memory required for data: 86108000
I0501 02:18:19.486626 14658 layer_factory.hpp:77] Creating layer ip2
I0501 02:18:19.486634 14658 net.cpp:86] Creating Layer ip2
I0501 02:18:19.486637 14658 net.cpp:408] ip2 <- ip1
I0501 02:18:19.486642 14658 net.cpp:382] ip2 -> ip2
I0501 02:18:19.486764 14658 net.cpp:124] Setting up ip2
I0501 02:18:19.486771 14658 net.cpp:131] Top shape: 1000 40 (40000)
I0501 02:18:19.486775 14658 net.cpp:139] Memory required for data: 86268000
I0501 02:18:19.486783 14658 layer_factory.hpp:77] Creating layer relu2
I0501 02:18:19.486789 14658 net.cpp:86] Creating Layer relu2
I0501 02:18:19.486793 14658 net.cpp:408] relu2 <- ip2
I0501 02:18:19.486798 14658 net.cpp:369] relu2 -> ip2 (in-place)
I0501 02:18:19.486960 14658 net.cpp:124] Setting up relu2
I0501 02:18:19.486968 14658 net.cpp:131] Top shape: 1000 40 (40000)
I0501 02:18:19.486971 14658 net.cpp:139] Memory required for data: 86428000
I0501 02:18:19.486975 14658 layer_factory.hpp:77] Creating layer ip3
I0501 02:18:19.486981 14658 net.cpp:86] Creating Layer ip3
I0501 02:18:19.486985 14658 net.cpp:408] ip3 <- ip2
I0501 02:18:19.486989 14658 net.cpp:382] ip3 -> ip3
I0501 02:18:19.487107 14658 net.cpp:124] Setting up ip3
I0501 02:18:19.487113 14658 net.cpp:131] Top shape: 1000 10 (10000)
I0501 02:18:19.487116 14658 net.cpp:139] Memory required for data: 86468000
I0501 02:18:19.487134 14658 layer_factory.hpp:77] Creating layer ip3_ip3_0_split
I0501 02:18:19.487140 14658 net.cpp:86] Creating Layer ip3_ip3_0_split
I0501 02:18:19.487143 14658 net.cpp:408] ip3_ip3_0_split <- ip3
I0501 02:18:19.487149 14658 net.cpp:382] ip3_ip3_0_split -> ip3_ip3_0_split_0
I0501 02:18:19.487154 14658 net.cpp:382] ip3_ip3_0_split -> ip3_ip3_0_split_1
I0501 02:18:19.487188 14658 net.cpp:124] Setting up ip3_ip3_0_split
I0501 02:18:19.487198 14658 net.cpp:131] Top shape: 1000 10 (10000)
I0501 02:18:19.487202 14658 net.cpp:131] Top shape: 1000 10 (10000)
I0501 02:18:19.487205 14658 net.cpp:139] Memory required for data: 86548000
I0501 02:18:19.487208 14658 layer_factory.hpp:77] Creating layer accuracy
I0501 02:18:19.487215 14658 net.cpp:86] Creating Layer accuracy
I0501 02:18:19.487217 14658 net.cpp:408] accuracy <- ip3_ip3_0_split_0
I0501 02:18:19.487231 14658 net.cpp:408] accuracy <- label_cifar_1_split_0
I0501 02:18:19.487236 14658 net.cpp:382] accuracy -> accuracy
…
