…
I0501 03:14:11.023265 19675 net.cpp:296] The NetState phase (0) differed from the phase (1) specified by a rule in layer cifar
I0501 03:14:11.023284 19675 net.cpp:296] The NetState phase (0) differed from the phase (1) specified by a rule in layer accuracy
I0501 03:14:11.023389 19675 net.cpp:53] Initializing net from parameters: 
name: "CIFAR"
state {
  phase: TRAIN
  level: 0
  stage: ""
}
layer {
  name: "cifar"
  type: "Data"
  top: "data"
  top: "label"
  include {
    phase: TRAIN
  }
  transform_param {
    mean_file: "examples/cifar10/mean.binaryproto"
  }
  data_param {
    source: "examples/cifar10/cifar10_train_lmdb"
    batch_size: 111
    backend: LMDB
  }
}
layer {
  name: "conv0"
  type: "Convolution"
  bottom: "data"
  top: "conv0"
  param {
    lr_mult: 1
  }
  param {
    lr_mult: 2
  }
  convolution_param {
    num_output: 8
    pad: 2
    kernel_size: 5
    stride: 1
    weight_filler {
      type: "gaussian"
      std: 0.01
    }
    bias_filler {
      type: "constant"
    }
  }
}
layer {
  name: "Sigmoid0"
  type: "Sigmoid"
  bottom: "conv0"
  top: "Sigmoid0"
}
layer {
  name: "pool0"
  type: "Pooling"
  bottom: "Sigmoid0"
  top: "pool0"
  pooling_param {
    pool: AVE
    kernel_size: 3
    stride: 2
  }
}
layer {
  name: "ip1"
  type: "InnerProduct"
  bottom: "pool0"
  top: "ip1"
  param {
    lr_mult: 1
  }
  param {
    lr_mult: 2
  }
  inner_product_param {
    num_output: 10
    weight_filler {
      type: "gaussian"
      std: 0.01
    }
    bias_filler {
      type: "constant"
    }
  }
}
layer {
  name: "relu1"
  type: "ReLU"
  bottom: "ip1"
  top: "ip1"
}
layer {
  name: "ip2"
  type: "InnerProduct"
  bottom: "ip1"
  top: "ip2"
  param {
    lr_mult: 1
  }
  param {
    lr_mult: 2
  }
  inner_product_param {
    num_output: 20
    weight_filler {
      type: "gaussian"
      std: 0.01
    }
    bias_filler {
      type: "constant"
    }
  }
}
layer {
  name: "relu2"
  type: "ReLU"
  bottom: "ip2"
  top: "ip2"
}
layer {
  name: "ip3"
  type: "InnerProduct"
  bottom: "ip2"
  top: "ip3"
  param {
    lr_mult: 1
  }
  param {
    lr_mult: 2
  }
  inner_product_param {
    num_output: 40
    weight_filler {
      type: "gaussian"
      std: 0.01
    }
    bias_filler {
      type: "constant"
    }
  }
}
layer {
  name: "relu3"
  type: "ReLU"
  bottom: "ip3"
  top: "ip3"
}
layer {
  name: "ip4"
  type: "InnerProduct"
  bottom: "ip3"
  top: "ip4"
  param {
    lr_mult: 1
  }
  param {
    lr_mult: 2
  }
  inner_product_param {
    num_output: 10
    weight_filler {
      type: "gaussian"
      std: 0.01
    }
    bias_filler {
      type: "constant"
    }
  }
}
layer {
  name: "loss"
  type: "SoftmaxWithLoss"
  bottom: "ip4"
  bottom: "label"
  top: "loss"
}
I0501 03:14:11.023468 19675 layer_factory.hpp:77] Creating layer cifar
I0501 03:14:11.023566 19675 db_lmdb.cpp:35] Opened lmdb examples/cifar10/cifar10_train_lmdb
I0501 03:14:11.023592 19675 net.cpp:86] Creating Layer cifar
I0501 03:14:11.023602 19675 net.cpp:382] cifar -> data
I0501 03:14:11.023625 19675 net.cpp:382] cifar -> label
I0501 03:14:11.023638 19675 data_transformer.cpp:25] Loading mean file from: examples/cifar10/mean.binaryproto
I0501 03:14:11.025758 19675 data_layer.cpp:45] output data size: 111,3,32,32
I0501 03:14:11.033633 19675 net.cpp:124] Setting up cifar
I0501 03:14:11.033653 19675 net.cpp:131] Top shape: 111 3 32 32 (340992)
I0501 03:14:11.033659 19675 net.cpp:131] Top shape: 111 (111)
I0501 03:14:11.033663 19675 net.cpp:139] Memory required for data: 1364412
I0501 03:14:11.033685 19675 layer_factory.hpp:77] Creating layer conv0
I0501 03:14:11.033706 19675 net.cpp:86] Creating Layer conv0
I0501 03:14:11.033712 19675 net.cpp:408] conv0 <- data
I0501 03:14:11.033726 19675 net.cpp:382] conv0 -> conv0
I0501 03:14:11.314082 19675 net.cpp:124] Setting up conv0
I0501 03:14:11.314110 19675 net.cpp:131] Top shape: 111 8 32 32 (909312)
I0501 03:14:11.314115 19675 net.cpp:139] Memory required for data: 5001660
I0501 03:14:11.314129 19675 layer_factory.hpp:77] Creating layer Sigmoid0
I0501 03:14:11.314141 19675 net.cpp:86] Creating Layer Sigmoid0
I0501 03:14:11.314146 19675 net.cpp:408] Sigmoid0 <- conv0
I0501 03:14:11.314151 19675 net.cpp:382] Sigmoid0 -> Sigmoid0
I0501 03:14:11.314347 19675 net.cpp:124] Setting up Sigmoid0
I0501 03:14:11.314357 19675 net.cpp:131] Top shape: 111 8 32 32 (909312)
I0501 03:14:11.314360 19675 net.cpp:139] Memory required for data: 8638908
I0501 03:14:11.314363 19675 layer_factory.hpp:77] Creating layer pool0
I0501 03:14:11.314369 19675 net.cpp:86] Creating Layer pool0
I0501 03:14:11.314373 19675 net.cpp:408] pool0 <- Sigmoid0
I0501 03:14:11.314378 19675 net.cpp:382] pool0 -> pool0
I0501 03:14:11.315093 19675 net.cpp:124] Setting up pool0
I0501 03:14:11.315105 19675 net.cpp:131] Top shape: 111 8 16 16 (227328)
I0501 03:14:11.315109 19675 net.cpp:139] Memory required for data: 9548220
I0501 03:14:11.315112 19675 layer_factory.hpp:77] Creating layer ip1
I0501 03:14:11.315121 19675 net.cpp:86] Creating Layer ip1
I0501 03:14:11.315125 19675 net.cpp:408] ip1 <- pool0
I0501 03:14:11.315130 19675 net.cpp:382] ip1 -> ip1
I0501 03:14:11.316617 19675 net.cpp:124] Setting up ip1
I0501 03:14:11.316628 19675 net.cpp:131] Top shape: 111 10 (1110)
I0501 03:14:11.316632 19675 net.cpp:139] Memory required for data: 9552660
I0501 03:14:11.316640 19675 layer_factory.hpp:77] Creating layer relu1
I0501 03:14:11.316646 19675 net.cpp:86] Creating Layer relu1
I0501 03:14:11.316649 19675 net.cpp:408] relu1 <- ip1
I0501 03:14:11.316654 19675 net.cpp:369] relu1 -> ip1 (in-place)
I0501 03:14:11.316805 19675 net.cpp:124] Setting up relu1
I0501 03:14:11.316836 19675 net.cpp:131] Top shape: 111 10 (1110)
I0501 03:14:11.316840 19675 net.cpp:139] Memory required for data: 9557100
I0501 03:14:11.316843 19675 layer_factory.hpp:77] Creating layer ip2
I0501 03:14:11.316849 19675 net.cpp:86] Creating Layer ip2
I0501 03:14:11.316853 19675 net.cpp:408] ip2 <- ip1
I0501 03:14:11.316857 19675 net.cpp:382] ip2 -> ip2
I0501 03:14:11.316957 19675 net.cpp:124] Setting up ip2
I0501 03:14:11.316964 19675 net.cpp:131] Top shape: 111 20 (2220)
I0501 03:14:11.316967 19675 net.cpp:139] Memory required for data: 9565980
I0501 03:14:11.316975 19675 layer_factory.hpp:77] Creating layer relu2
I0501 03:14:11.316980 19675 net.cpp:86] Creating Layer relu2
I0501 03:14:11.316983 19675 net.cpp:408] relu2 <- ip2
I0501 03:14:11.316987 19675 net.cpp:369] relu2 -> ip2 (in-place)
I0501 03:14:11.317152 19675 net.cpp:124] Setting up relu2
I0501 03:14:11.317159 19675 net.cpp:131] Top shape: 111 20 (2220)
I0501 03:14:11.317162 19675 net.cpp:139] Memory required for data: 9574860
I0501 03:14:11.317165 19675 layer_factory.hpp:77] Creating layer ip3
I0501 03:14:11.317173 19675 net.cpp:86] Creating Layer ip3
I0501 03:14:11.317175 19675 net.cpp:408] ip3 <- ip2
I0501 03:14:11.317180 19675 net.cpp:382] ip3 -> ip3
I0501 03:14:11.317286 19675 net.cpp:124] Setting up ip3
I0501 03:14:11.317292 19675 net.cpp:131] Top shape: 111 40 (4440)
I0501 03:14:11.317296 19675 net.cpp:139] Memory required for data: 9592620
I0501 03:14:11.317301 19675 layer_factory.hpp:77] Creating layer relu3
I0501 03:14:11.317304 19675 net.cpp:86] Creating Layer relu3
I0501 03:14:11.317307 19675 net.cpp:408] relu3 <- ip3
I0501 03:14:11.317312 19675 net.cpp:369] relu3 -> ip3 (in-place)
I0501 03:14:11.317471 19675 net.cpp:124] Setting up relu3
I0501 03:14:11.317478 19675 net.cpp:131] Top shape: 111 40 (4440)
I0501 03:14:11.317481 19675 net.cpp:139] Memory required for data: 9610380
I0501 03:14:11.317484 19675 layer_factory.hpp:77] Creating layer ip4
I0501 03:14:11.317505 19675 net.cpp:86] Creating Layer ip4
I0501 03:14:11.317509 19675 net.cpp:408] ip4 <- ip3
I0501 03:14:11.317513 19675 net.cpp:382] ip4 -> ip4
I0501 03:14:11.317616 19675 net.cpp:124] Setting up ip4
I0501 03:14:11.317623 19675 net.cpp:131] Top shape: 111 10 (1110)
I0501 03:14:11.317627 19675 net.cpp:139] Memory required for data: 9614820
I0501 03:14:11.317649 19675 layer_factory.hpp:77] Creating layer loss
I0501 03:14:11.317654 19675 net.cpp:86] Creating Layer loss
I0501 03:14:11.317657 19675 net.cpp:408] loss <- ip4
I0501 03:14:11.317662 19675 net.cpp:408] loss <- label
I0501 03:14:11.317667 19675 net.cpp:382] loss -> loss
I0501 03:14:11.317682 19675 layer_factory.hpp:77] Creating layer loss
…
I0501 03:14:11.318894 19675 solver.cpp:173] Creating test net (#0) specified by net file: ECE595/cifar/train_test/var_everything/cifar_train_test_347.prototxt
I0501 03:14:11.318950 19675 net.cpp:296] The NetState phase (1) differed from the phase (0) specified by a rule in layer cifar
I0501 03:14:11.319038 19675 net.cpp:53] Initializing net from parameters: 
name: "CIFAR"
state {
  phase: TEST
}
layer {
  name: "cifar"
  type: "Data"
  top: "data"
  top: "label"
  include {
    phase: TEST
  }
  transform_param {
    mean_file: "examples/cifar10/mean.binaryproto"
  }
  data_param {
    source: "examples/cifar10/cifar10_test_lmdb"
    batch_size: 1000
    backend: LMDB
  }
}
layer {
  name: "conv0"
  type: "Convolution"
  bottom: "data"
  top: "conv0"
  param {
    lr_mult: 1
  }
  param {
    lr_mult: 2
  }
  convolution_param {
    num_output: 8
    pad: 2
    kernel_size: 5
    stride: 1
    weight_filler {
      type: "gaussian"
      std: 0.01
    }
    bias_filler {
      type: "constant"
    }
  }
}
layer {
  name: "Sigmoid0"
  type: "Sigmoid"
  bottom: "conv0"
  top: "Sigmoid0"
}
layer {
  name: "pool0"
  type: "Pooling"
  bottom: "Sigmoid0"
  top: "pool0"
  pooling_param {
    pool: AVE
    kernel_size: 3
    stride: 2
  }
}
layer {
  name: "ip1"
  type: "InnerProduct"
  bottom: "pool0"
  top: "ip1"
  param {
    lr_mult: 1
  }
  param {
    lr_mult: 2
  }
  inner_product_param {
    num_output: 10
    weight_filler {
      type: "gaussian"
      std: 0.01
    }
    bias_filler {
      type: "constant"
    }
  }
}
layer {
  name: "relu1"
  type: "ReLU"
  bottom: "ip1"
  top: "ip1"
}
layer {
  name: "ip2"
  type: "InnerProduct"
  bottom: "ip1"
  top: "ip2"
  param {
    lr_mult: 1
  }
  param {
    lr_mult: 2
  }
  inner_product_param {
    num_output: 20
    weight_filler {
      type: "gaussian"
      std: 0.01
    }
    bias_filler {
      type: "constant"
    }
  }
}
layer {
  name: "relu2"
  type: "ReLU"
  bottom: "ip2"
  top: "ip2"
}
layer {
  name: "ip3"
  type: "InnerProduct"
  bottom: "ip2"
  top: "ip3"
  param {
    lr_mult: 1
  }
  param {
    lr_mult: 2
  }
  inner_product_param {
    num_output: 40
    weight_filler {
      type: "gaussian"
      std: 0.01
    }
    bias_filler {
      type: "constant"
    }
  }
}
layer {
  name: "relu3"
  type: "ReLU"
  bottom: "ip3"
  top: "ip3"
}
layer {
  name: "ip4"
  type: "InnerProduct"
  bottom: "ip3"
  top: "ip4"
  param {
    lr_mult: 1
  }
  param {
    lr_mult: 2
  }
  inner_product_param {
    num_output: 10
    weight_filler {
      type: "gaussian"
      std: 0.01
    }
    bias_filler {
      type: "constant"
    }
  }
}
layer {
  name: "accuracy"
  type: "Accuracy"
  bottom: "ip4"
  bottom: "label"
  top: "accuracy"
  include {
    phase: TEST
  }
}
layer {
  name: "loss"
  type: "SoftmaxWithLoss"
  bottom: "ip4"
  bottom: "label"
  top: "loss"
}
I0501 03:14:11.319114 19675 layer_factory.hpp:77] Creating layer cifar
I0501 03:14:11.319157 19675 db_lmdb.cpp:35] Opened lmdb examples/cifar10/cifar10_test_lmdb
I0501 03:14:11.319170 19675 net.cpp:86] Creating Layer cifar
I0501 03:14:11.319175 19675 net.cpp:382] cifar -> data
I0501 03:14:11.319181 19675 net.cpp:382] cifar -> label
I0501 03:14:11.319188 19675 data_transformer.cpp:25] Loading mean file from: examples/cifar10/mean.binaryproto
I0501 03:14:11.319321 19675 data_layer.cpp:45] output data size: 1000,3,32,32
I0501 03:14:11.341262 19675 net.cpp:124] Setting up cifar
I0501 03:14:11.341290 19675 net.cpp:131] Top shape: 1000 3 32 32 (3072000)
I0501 03:14:11.341295 19675 net.cpp:131] Top shape: 1000 (1000)
I0501 03:14:11.341298 19675 net.cpp:139] Memory required for data: 12292000
I0501 03:14:11.341303 19675 layer_factory.hpp:77] Creating layer label_cifar_1_split
I0501 03:14:11.341320 19675 net.cpp:86] Creating Layer label_cifar_1_split
I0501 03:14:11.341332 19675 net.cpp:408] label_cifar_1_split <- label
I0501 03:14:11.341337 19675 net.cpp:382] label_cifar_1_split -> label_cifar_1_split_0
I0501 03:14:11.341346 19675 net.cpp:382] label_cifar_1_split -> label_cifar_1_split_1
I0501 03:14:11.341452 19675 net.cpp:124] Setting up label_cifar_1_split
I0501 03:14:11.341460 19675 net.cpp:131] Top shape: 1000 (1000)
I0501 03:14:11.341464 19675 net.cpp:131] Top shape: 1000 (1000)
I0501 03:14:11.341466 19675 net.cpp:139] Memory required for data: 12300000
I0501 03:14:11.341470 19675 layer_factory.hpp:77] Creating layer conv0
I0501 03:14:11.341481 19675 net.cpp:86] Creating Layer conv0
I0501 03:14:11.341485 19675 net.cpp:408] conv0 <- data
I0501 03:14:11.341490 19675 net.cpp:382] conv0 -> conv0
I0501 03:14:11.343039 19675 net.cpp:124] Setting up conv0
I0501 03:14:11.343067 19675 net.cpp:131] Top shape: 1000 8 32 32 (8192000)
I0501 03:14:11.343071 19675 net.cpp:139] Memory required for data: 45068000
I0501 03:14:11.343080 19675 layer_factory.hpp:77] Creating layer Sigmoid0
I0501 03:14:11.343086 19675 net.cpp:86] Creating Layer Sigmoid0
I0501 03:14:11.343091 19675 net.cpp:408] Sigmoid0 <- conv0
I0501 03:14:11.343094 19675 net.cpp:382] Sigmoid0 -> Sigmoid0
I0501 03:14:11.343345 19675 net.cpp:124] Setting up Sigmoid0
I0501 03:14:11.343354 19675 net.cpp:131] Top shape: 1000 8 32 32 (8192000)
I0501 03:14:11.343358 19675 net.cpp:139] Memory required for data: 77836000
I0501 03:14:11.343360 19675 layer_factory.hpp:77] Creating layer pool0
I0501 03:14:11.343369 19675 net.cpp:86] Creating Layer pool0
I0501 03:14:11.343372 19675 net.cpp:408] pool0 <- Sigmoid0
I0501 03:14:11.343377 19675 net.cpp:382] pool0 -> pool0
I0501 03:14:11.344530 19675 net.cpp:124] Setting up pool0
I0501 03:14:11.344540 19675 net.cpp:131] Top shape: 1000 8 16 16 (2048000)
I0501 03:14:11.344559 19675 net.cpp:139] Memory required for data: 86028000
I0501 03:14:11.344563 19675 layer_factory.hpp:77] Creating layer ip1
I0501 03:14:11.344570 19675 net.cpp:86] Creating Layer ip1
I0501 03:14:11.344573 19675 net.cpp:408] ip1 <- pool0
I0501 03:14:11.344578 19675 net.cpp:382] ip1 -> ip1
I0501 03:14:11.345402 19675 net.cpp:124] Setting up ip1
I0501 03:14:11.345410 19675 net.cpp:131] Top shape: 1000 10 (10000)
I0501 03:14:11.345429 19675 net.cpp:139] Memory required for data: 86068000
I0501 03:14:11.345450 19675 layer_factory.hpp:77] Creating layer relu1
I0501 03:14:11.345456 19675 net.cpp:86] Creating Layer relu1
I0501 03:14:11.345459 19675 net.cpp:408] relu1 <- ip1
I0501 03:14:11.345479 19675 net.cpp:369] relu1 -> ip1 (in-place)
I0501 03:14:11.345630 19675 net.cpp:124] Setting up relu1
I0501 03:14:11.345639 19675 net.cpp:131] Top shape: 1000 10 (10000)
I0501 03:14:11.345659 19675 net.cpp:139] Memory required for data: 86108000
I0501 03:14:11.345662 19675 layer_factory.hpp:77] Creating layer ip2
I0501 03:14:11.345669 19675 net.cpp:86] Creating Layer ip2
I0501 03:14:11.345674 19675 net.cpp:408] ip2 <- ip1
I0501 03:14:11.345679 19675 net.cpp:382] ip2 -> ip2
I0501 03:14:11.345806 19675 net.cpp:124] Setting up ip2
I0501 03:14:11.345814 19675 net.cpp:131] Top shape: 1000 20 (20000)
I0501 03:14:11.345818 19675 net.cpp:139] Memory required for data: 86188000
I0501 03:14:11.345825 19675 layer_factory.hpp:77] Creating layer relu2
I0501 03:14:11.345831 19675 net.cpp:86] Creating Layer relu2
I0501 03:14:11.345834 19675 net.cpp:408] relu2 <- ip2
I0501 03:14:11.345839 19675 net.cpp:369] relu2 -> ip2 (in-place)
I0501 03:14:11.346602 19675 net.cpp:124] Setting up relu2
I0501 03:14:11.346614 19675 net.cpp:131] Top shape: 1000 20 (20000)
I0501 03:14:11.346633 19675 net.cpp:139] Memory required for data: 86268000
I0501 03:14:11.346637 19675 layer_factory.hpp:77] Creating layer ip3
I0501 03:14:11.346644 19675 net.cpp:86] Creating Layer ip3
I0501 03:14:11.346648 19675 net.cpp:408] ip3 <- ip2
I0501 03:14:11.346653 19675 net.cpp:382] ip3 -> ip3
I0501 03:14:11.346792 19675 net.cpp:124] Setting up ip3
I0501 03:14:11.346801 19675 net.cpp:131] Top shape: 1000 40 (40000)
I0501 03:14:11.346803 19675 net.cpp:139] Memory required for data: 86428000
I0501 03:14:11.346809 19675 layer_factory.hpp:77] Creating layer relu3
I0501 03:14:11.346814 19675 net.cpp:86] Creating Layer relu3
I0501 03:14:11.346817 19675 net.cpp:408] relu3 <- ip3
I0501 03:14:11.346822 19675 net.cpp:369] relu3 -> ip3 (in-place)
I0501 03:14:11.346983 19675 net.cpp:124] Setting up relu3
I0501 03:14:11.346992 19675 net.cpp:131] Top shape: 1000 40 (40000)
I0501 03:14:11.346994 19675 net.cpp:139] Memory required for data: 86588000
I0501 03:14:11.346998 19675 layer_factory.hpp:77] Creating layer ip4
I0501 03:14:11.347004 19675 net.cpp:86] Creating Layer ip4
I0501 03:14:11.347007 19675 net.cpp:408] ip4 <- ip3
I0501 03:14:11.347012 19675 net.cpp:382] ip4 -> ip4
I0501 03:14:11.347122 19675 net.cpp:124] Setting up ip4
I0501 03:14:11.347128 19675 net.cpp:131] Top shape: 1000 10 (10000)
I0501 03:14:11.347131 19675 net.cpp:139] Memory required for data: 86628000
I0501 03:14:11.347139 19675 layer_factory.hpp:77] Creating layer ip4_ip4_0_split
I0501 03:14:11.347146 19675 net.cpp:86] Creating Layer ip4_ip4_0_split
I0501 03:14:11.347149 19675 net.cpp:408] ip4_ip4_0_split <- ip4
I0501 03:14:11.347153 19675 net.cpp:382] ip4_ip4_0_split -> ip4_ip4_0_split_0
I0501 03:14:11.347159 19675 net.cpp:382] ip4_ip4_0_split -> ip4_ip4_0_split_1
I0501 03:14:11.347204 19675 net.cpp:124] Setting up ip4_ip4_0_split
I0501 03:14:11.347210 19675 net.cpp:131] Top shape: 1000 10 (10000)
I0501 03:14:11.347214 19675 net.cpp:131] Top shape: 1000 10 (10000)
I0501 03:14:11.347218 19675 net.cpp:139] Memory required for data: 86708000
I0501 03:14:11.347219 19675 layer_factory.hpp:77] Creating layer accuracy
I0501 03:14:11.347225 19675 net.cpp:86] Creating Layer accuracy
I0501 03:14:11.347229 19675 net.cpp:408] accuracy <- ip4_ip4_0_split_0
I0501 03:14:11.347232 19675 net.cpp:408] accuracy <- label_cifar_1_split_0
I0501 03:14:11.347237 19675 net.cpp:382] accuracy -> accuracy
…
