…
I0501 00:38:53.254070  7482 net.cpp:296] The NetState phase (0) differed from the phase (1) specified by a rule in layer cifar
I0501 00:38:53.254087  7482 net.cpp:296] The NetState phase (0) differed from the phase (1) specified by a rule in layer accuracy
I0501 00:38:53.254194  7482 net.cpp:53] Initializing net from parameters: 
name: "CIFAR"
state {
  phase: TRAIN
  level: 0
  stage: ""
}
layer {
  name: "cifar"
  type: "Data"
  top: "data"
  top: "label"
  include {
    phase: TRAIN
  }
  transform_param {
    mean_file: "examples/cifar10/mean.binaryproto"
  }
  data_param {
    source: "examples/cifar10/cifar10_train_lmdb"
    batch_size: 111
    backend: LMDB
  }
}
layer {
  name: "conv0"
  type: "Convolution"
  bottom: "data"
  top: "conv0"
  param {
    lr_mult: 1
  }
  param {
    lr_mult: 2
  }
  convolution_param {
    num_output: 8
    pad: 2
    kernel_size: 3
    stride: 1
    weight_filler {
      type: "gaussian"
      std: 0.01
    }
    bias_filler {
      type: "constant"
    }
  }
}
layer {
  name: "Sigmoid0"
  type: "Sigmoid"
  bottom: "conv0"
  top: "Sigmoid0"
}
layer {
  name: "pool0"
  type: "Pooling"
  bottom: "Sigmoid0"
  top: "pool0"
  pooling_param {
    pool: AVE
    kernel_size: 3
    stride: 2
  }
}
layer {
  name: "ip1"
  type: "InnerProduct"
  bottom: "pool0"
  top: "ip1"
  param {
    lr_mult: 1
  }
  param {
    lr_mult: 2
  }
  inner_product_param {
    num_output: 80
    weight_filler {
      type: "gaussian"
      std: 0.01
    }
    bias_filler {
      type: "constant"
    }
  }
}
layer {
  name: "relu1"
  type: "ReLU"
  bottom: "ip1"
  top: "ip1"
}
layer {
  name: "ip2"
  type: "InnerProduct"
  bottom: "ip1"
  top: "ip2"
  param {
    lr_mult: 1
  }
  param {
    lr_mult: 2
  }
  inner_product_param {
    num_output: 10
    weight_filler {
      type: "gaussian"
      std: 0.01
    }
    bias_filler {
      type: "constant"
    }
  }
}
layer {
  name: "relu2"
  type: "ReLU"
  bottom: "ip2"
  top: "ip2"
}
layer {
  name: "ip3"
  type: "InnerProduct"
  bottom: "ip2"
  top: "ip3"
  param {
    lr_mult: 1
  }
  param {
    lr_mult: 2
  }
  inner_product_param {
    num_output: 160
    weight_filler {
      type: "gaussian"
      std: 0.01
    }
    bias_filler {
      type: "constant"
    }
  }
}
layer {
  name: "relu3"
  type: "ReLU"
  bottom: "ip3"
  top: "ip3"
}
layer {
  name: "ip4"
  type: "InnerProduct"
  bottom: "ip3"
  top: "ip4"
  param {
    lr_mult: 1
  }
  param {
    lr_mult: 2
  }
  inner_product_param {
    num_output: 10
    weight_filler {
      type: "gaussian"
      std: 0.01
    }
    bias_filler {
      type: "constant"
    }
  }
}
layer {
  name: "loss"
  type: "SoftmaxWithLoss"
  bottom: "ip4"
  bottom: "label"
  top: "loss"
}
I0501 00:38:53.254273  7482 layer_factory.hpp:77] Creating layer cifar
I0501 00:38:53.254374  7482 db_lmdb.cpp:35] Opened lmdb examples/cifar10/cifar10_train_lmdb
I0501 00:38:53.254400  7482 net.cpp:86] Creating Layer cifar
I0501 00:38:53.254410  7482 net.cpp:382] cifar -> data
I0501 00:38:53.254432  7482 net.cpp:382] cifar -> label
I0501 00:38:53.254444  7482 data_transformer.cpp:25] Loading mean file from: examples/cifar10/mean.binaryproto
I0501 00:38:53.256553  7482 data_layer.cpp:45] output data size: 111,3,32,32
I0501 00:38:53.264431  7482 net.cpp:124] Setting up cifar
I0501 00:38:53.264449  7482 net.cpp:131] Top shape: 111 3 32 32 (340992)
I0501 00:38:53.264456  7482 net.cpp:131] Top shape: 111 (111)
I0501 00:38:53.264459  7482 net.cpp:139] Memory required for data: 1364412
I0501 00:38:53.264482  7482 layer_factory.hpp:77] Creating layer conv0
I0501 00:38:53.264504  7482 net.cpp:86] Creating Layer conv0
I0501 00:38:53.264509  7482 net.cpp:408] conv0 <- data
I0501 00:38:53.264523  7482 net.cpp:382] conv0 -> conv0
I0501 00:38:53.557564  7482 net.cpp:124] Setting up conv0
I0501 00:38:53.557596  7482 net.cpp:131] Top shape: 111 8 34 34 (1026528)
I0501 00:38:53.557601  7482 net.cpp:139] Memory required for data: 5470524
I0501 00:38:53.557618  7482 layer_factory.hpp:77] Creating layer Sigmoid0
I0501 00:38:53.557632  7482 net.cpp:86] Creating Layer Sigmoid0
I0501 00:38:53.557637  7482 net.cpp:408] Sigmoid0 <- conv0
I0501 00:38:53.557644  7482 net.cpp:382] Sigmoid0 -> Sigmoid0
I0501 00:38:53.557858  7482 net.cpp:124] Setting up Sigmoid0
I0501 00:38:53.557870  7482 net.cpp:131] Top shape: 111 8 34 34 (1026528)
I0501 00:38:53.557874  7482 net.cpp:139] Memory required for data: 9576636
I0501 00:38:53.557878  7482 layer_factory.hpp:77] Creating layer pool0
I0501 00:38:53.557886  7482 net.cpp:86] Creating Layer pool0
I0501 00:38:53.557890  7482 net.cpp:408] pool0 <- Sigmoid0
I0501 00:38:53.557895  7482 net.cpp:382] pool0 -> pool0
I0501 00:38:53.558775  7482 net.cpp:124] Setting up pool0
I0501 00:38:53.558792  7482 net.cpp:131] Top shape: 111 8 17 17 (256632)
I0501 00:38:53.558796  7482 net.cpp:139] Memory required for data: 10603164
I0501 00:38:53.558800  7482 layer_factory.hpp:77] Creating layer ip1
I0501 00:38:53.558812  7482 net.cpp:86] Creating Layer ip1
I0501 00:38:53.558816  7482 net.cpp:408] ip1 <- pool0
I0501 00:38:53.558822  7482 net.cpp:382] ip1 -> ip1
I0501 00:38:53.566023  7482 net.cpp:124] Setting up ip1
I0501 00:38:53.566038  7482 net.cpp:131] Top shape: 111 80 (8880)
I0501 00:38:53.566043  7482 net.cpp:139] Memory required for data: 10638684
I0501 00:38:53.566053  7482 layer_factory.hpp:77] Creating layer relu1
I0501 00:38:53.566061  7482 net.cpp:86] Creating Layer relu1
I0501 00:38:53.566066  7482 net.cpp:408] relu1 <- ip1
I0501 00:38:53.566071  7482 net.cpp:369] relu1 -> ip1 (in-place)
I0501 00:38:53.566258  7482 net.cpp:124] Setting up relu1
I0501 00:38:53.566268  7482 net.cpp:131] Top shape: 111 80 (8880)
I0501 00:38:53.566272  7482 net.cpp:139] Memory required for data: 10674204
I0501 00:38:53.566277  7482 layer_factory.hpp:77] Creating layer ip2
I0501 00:38:53.566284  7482 net.cpp:86] Creating Layer ip2
I0501 00:38:53.566288  7482 net.cpp:408] ip2 <- ip1
I0501 00:38:53.566295  7482 net.cpp:382] ip2 -> ip2
I0501 00:38:53.567420  7482 net.cpp:124] Setting up ip2
I0501 00:38:53.567435  7482 net.cpp:131] Top shape: 111 10 (1110)
I0501 00:38:53.567440  7482 net.cpp:139] Memory required for data: 10678644
I0501 00:38:53.567450  7482 layer_factory.hpp:77] Creating layer relu2
I0501 00:38:53.567456  7482 net.cpp:86] Creating Layer relu2
I0501 00:38:53.567461  7482 net.cpp:408] relu2 <- ip2
I0501 00:38:53.567466  7482 net.cpp:369] relu2 -> ip2 (in-place)
I0501 00:38:53.567664  7482 net.cpp:124] Setting up relu2
I0501 00:38:53.567674  7482 net.cpp:131] Top shape: 111 10 (1110)
I0501 00:38:53.567678  7482 net.cpp:139] Memory required for data: 10683084
I0501 00:38:53.567682  7482 layer_factory.hpp:77] Creating layer ip3
I0501 00:38:53.567692  7482 net.cpp:86] Creating Layer ip3
I0501 00:38:53.567695  7482 net.cpp:408] ip3 <- ip2
I0501 00:38:53.567701  7482 net.cpp:382] ip3 -> ip3
I0501 00:38:53.567865  7482 net.cpp:124] Setting up ip3
I0501 00:38:53.567873  7482 net.cpp:131] Top shape: 111 160 (17760)
I0501 00:38:53.567878  7482 net.cpp:139] Memory required for data: 10754124
I0501 00:38:53.567884  7482 layer_factory.hpp:77] Creating layer relu3
I0501 00:38:53.567890  7482 net.cpp:86] Creating Layer relu3
I0501 00:38:53.567893  7482 net.cpp:408] relu3 <- ip3
I0501 00:38:53.567898  7482 net.cpp:369] relu3 -> ip3 (in-place)
I0501 00:38:53.568078  7482 net.cpp:124] Setting up relu3
I0501 00:38:53.568087  7482 net.cpp:131] Top shape: 111 160 (17760)
I0501 00:38:53.568090  7482 net.cpp:139] Memory required for data: 10825164
I0501 00:38:53.568094  7482 layer_factory.hpp:77] Creating layer ip4
I0501 00:38:53.568120  7482 net.cpp:86] Creating Layer ip4
I0501 00:38:53.568123  7482 net.cpp:408] ip4 <- ip3
I0501 00:38:53.568130  7482 net.cpp:382] ip4 -> ip4
I0501 00:38:53.568300  7482 net.cpp:124] Setting up ip4
I0501 00:38:53.568308  7482 net.cpp:131] Top shape: 111 10 (1110)
I0501 00:38:53.568312  7482 net.cpp:139] Memory required for data: 10829604
I0501 00:38:53.568321  7482 layer_factory.hpp:77] Creating layer loss
I0501 00:38:53.568328  7482 net.cpp:86] Creating Layer loss
I0501 00:38:53.568332  7482 net.cpp:408] loss <- ip4
I0501 00:38:53.568336  7482 net.cpp:408] loss <- label
I0501 00:38:53.568343  7482 net.cpp:382] loss -> loss
I0501 00:38:53.568363  7482 layer_factory.hpp:77] Creating layer loss
…
I0501 00:38:53.569838  7482 solver.cpp:173] Creating test net (#0) specified by net file: ECE595/cifar/train_test/var_everything/cifar_train_test_264.prototxt
I0501 00:38:53.569870  7482 net.cpp:296] The NetState phase (1) differed from the phase (0) specified by a rule in layer cifar
I0501 00:38:53.569983  7482 net.cpp:53] Initializing net from parameters: 
name: "CIFAR"
state {
  phase: TEST
}
layer {
  name: "cifar"
  type: "Data"
  top: "data"
  top: "label"
  include {
    phase: TEST
  }
  transform_param {
    mean_file: "examples/cifar10/mean.binaryproto"
  }
  data_param {
    source: "examples/cifar10/cifar10_test_lmdb"
    batch_size: 1000
    backend: LMDB
  }
}
layer {
  name: "conv0"
  type: "Convolution"
  bottom: "data"
  top: "conv0"
  param {
    lr_mult: 1
  }
  param {
    lr_mult: 2
  }
  convolution_param {
    num_output: 8
    pad: 2
    kernel_size: 3
    stride: 1
    weight_filler {
      type: "gaussian"
      std: 0.01
    }
    bias_filler {
      type: "constant"
    }
  }
}
layer {
  name: "Sigmoid0"
  type: "Sigmoid"
  bottom: "conv0"
  top: "Sigmoid0"
}
layer {
  name: "pool0"
  type: "Pooling"
  bottom: "Sigmoid0"
  top: "pool0"
  pooling_param {
    pool: AVE
    kernel_size: 3
    stride: 2
  }
}
layer {
  name: "ip1"
  type: "InnerProduct"
  bottom: "pool0"
  top: "ip1"
  param {
    lr_mult: 1
  }
  param {
    lr_mult: 2
  }
  inner_product_param {
    num_output: 80
    weight_filler {
      type: "gaussian"
      std: 0.01
    }
    bias_filler {
      type: "constant"
    }
  }
}
layer {
  name: "relu1"
  type: "ReLU"
  bottom: "ip1"
  top: "ip1"
}
layer {
  name: "ip2"
  type: "InnerProduct"
  bottom: "ip1"
  top: "ip2"
  param {
    lr_mult: 1
  }
  param {
    lr_mult: 2
  }
  inner_product_param {
    num_output: 10
    weight_filler {
      type: "gaussian"
      std: 0.01
    }
    bias_filler {
      type: "constant"
    }
  }
}
layer {
  name: "relu2"
  type: "ReLU"
  bottom: "ip2"
  top: "ip2"
}
layer {
  name: "ip3"
  type: "InnerProduct"
  bottom: "ip2"
  top: "ip3"
  param {
    lr_mult: 1
  }
  param {
    lr_mult: 2
  }
  inner_product_param {
    num_output: 160
    weight_filler {
      type: "gaussian"
      std: 0.01
    }
    bias_filler {
      type: "constant"
    }
  }
}
layer {
  name: "relu3"
  type: "ReLU"
  bottom: "ip3"
  top: "ip3"
}
layer {
  name: "ip4"
  type: "InnerProduct"
  bottom: "ip3"
  top: "ip4"
  param {
    lr_mult: 1
  }
  param {
    lr_mult: 2
  }
  inner_product_param {
    num_output: 10
    weight_filler {
      type: "gaussian"
      std: 0.01
    }
    bias_filler {
      type: "constant"
    }
  }
}
layer {
  name: "accuracy"
  type: "Accuracy"
  bottom: "ip4"
  bottom: "label"
  top: "accuracy"
  include {
    phase: TEST
  }
}
layer {
  name: "loss"
  type: "SoftmaxWithLoss"
  bottom: "ip4"
  bottom: "label"
  top: "loss"
}
I0501 00:38:53.570075  7482 layer_factory.hpp:77] Creating layer cifar
I0501 00:38:53.570127  7482 db_lmdb.cpp:35] Opened lmdb examples/cifar10/cifar10_test_lmdb
I0501 00:38:53.570142  7482 net.cpp:86] Creating Layer cifar
I0501 00:38:53.570147  7482 net.cpp:382] cifar -> data
I0501 00:38:53.570158  7482 net.cpp:382] cifar -> label
I0501 00:38:53.570165  7482 data_transformer.cpp:25] Loading mean file from: examples/cifar10/mean.binaryproto
I0501 00:38:53.570348  7482 data_layer.cpp:45] output data size: 1000,3,32,32
I0501 00:38:53.596094  7482 net.cpp:124] Setting up cifar
I0501 00:38:53.596124  7482 net.cpp:131] Top shape: 1000 3 32 32 (3072000)
I0501 00:38:53.596132  7482 net.cpp:131] Top shape: 1000 (1000)
I0501 00:38:53.596134  7482 net.cpp:139] Memory required for data: 12292000
I0501 00:38:53.596140  7482 layer_factory.hpp:77] Creating layer label_cifar_1_split
I0501 00:38:53.596159  7482 net.cpp:86] Creating Layer label_cifar_1_split
I0501 00:38:53.596164  7482 net.cpp:408] label_cifar_1_split <- label
I0501 00:38:53.596173  7482 net.cpp:382] label_cifar_1_split -> label_cifar_1_split_0
I0501 00:38:53.596181  7482 net.cpp:382] label_cifar_1_split -> label_cifar_1_split_1
I0501 00:38:53.596300  7482 net.cpp:124] Setting up label_cifar_1_split
I0501 00:38:53.596309  7482 net.cpp:131] Top shape: 1000 (1000)
I0501 00:38:53.596314  7482 net.cpp:131] Top shape: 1000 (1000)
I0501 00:38:53.596318  7482 net.cpp:139] Memory required for data: 12300000
I0501 00:38:53.596320  7482 layer_factory.hpp:77] Creating layer conv0
I0501 00:38:53.596335  7482 net.cpp:86] Creating Layer conv0
I0501 00:38:53.596339  7482 net.cpp:408] conv0 <- data
I0501 00:38:53.596346  7482 net.cpp:382] conv0 -> conv0
I0501 00:38:53.599030  7482 net.cpp:124] Setting up conv0
I0501 00:38:53.599048  7482 net.cpp:131] Top shape: 1000 8 34 34 (9248000)
I0501 00:38:53.599052  7482 net.cpp:139] Memory required for data: 49292000
I0501 00:38:53.599064  7482 layer_factory.hpp:77] Creating layer Sigmoid0
I0501 00:38:53.599072  7482 net.cpp:86] Creating Layer Sigmoid0
I0501 00:38:53.599076  7482 net.cpp:408] Sigmoid0 <- conv0
I0501 00:38:53.599081  7482 net.cpp:382] Sigmoid0 -> Sigmoid0
I0501 00:38:53.599309  7482 net.cpp:124] Setting up Sigmoid0
I0501 00:38:53.599319  7482 net.cpp:131] Top shape: 1000 8 34 34 (9248000)
I0501 00:38:53.599323  7482 net.cpp:139] Memory required for data: 86284000
I0501 00:38:53.599328  7482 layer_factory.hpp:77] Creating layer pool0
I0501 00:38:53.599339  7482 net.cpp:86] Creating Layer pool0
I0501 00:38:53.599342  7482 net.cpp:408] pool0 <- Sigmoid0
I0501 00:38:53.599347  7482 net.cpp:382] pool0 -> pool0
I0501 00:38:53.599542  7482 net.cpp:124] Setting up pool0
I0501 00:38:53.599551  7482 net.cpp:131] Top shape: 1000 8 17 17 (2312000)
I0501 00:38:53.599555  7482 net.cpp:139] Memory required for data: 95532000
I0501 00:38:53.599558  7482 layer_factory.hpp:77] Creating layer ip1
I0501 00:38:53.599568  7482 net.cpp:86] Creating Layer ip1
I0501 00:38:53.599572  7482 net.cpp:408] ip1 <- pool0
I0501 00:38:53.599578  7482 net.cpp:382] ip1 -> ip1
I0501 00:38:53.605613  7482 net.cpp:124] Setting up ip1
I0501 00:38:53.605623  7482 net.cpp:131] Top shape: 1000 80 (80000)
I0501 00:38:53.605625  7482 net.cpp:139] Memory required for data: 95852000
I0501 00:38:53.605649  7482 layer_factory.hpp:77] Creating layer relu1
I0501 00:38:53.605657  7482 net.cpp:86] Creating Layer relu1
I0501 00:38:53.605661  7482 net.cpp:408] relu1 <- ip1
I0501 00:38:53.605666  7482 net.cpp:369] relu1 -> ip1 (in-place)
I0501 00:38:53.605851  7482 net.cpp:124] Setting up relu1
I0501 00:38:53.605861  7482 net.cpp:131] Top shape: 1000 80 (80000)
I0501 00:38:53.605865  7482 net.cpp:139] Memory required for data: 96172000
I0501 00:38:53.605868  7482 layer_factory.hpp:77] Creating layer ip2
I0501 00:38:53.605877  7482 net.cpp:86] Creating Layer ip2
I0501 00:38:53.605881  7482 net.cpp:408] ip2 <- ip1
I0501 00:38:53.605886  7482 net.cpp:382] ip2 -> ip2
I0501 00:38:53.606032  7482 net.cpp:124] Setting up ip2
I0501 00:38:53.606040  7482 net.cpp:131] Top shape: 1000 10 (10000)
I0501 00:38:53.606043  7482 net.cpp:139] Memory required for data: 96212000
I0501 00:38:53.606051  7482 layer_factory.hpp:77] Creating layer relu2
I0501 00:38:53.606060  7482 net.cpp:86] Creating Layer relu2
I0501 00:38:53.606063  7482 net.cpp:408] relu2 <- ip2
I0501 00:38:53.606070  7482 net.cpp:369] relu2 -> ip2 (in-place)
I0501 00:38:53.606896  7482 net.cpp:124] Setting up relu2
I0501 00:38:53.606910  7482 net.cpp:131] Top shape: 1000 10 (10000)
I0501 00:38:53.606914  7482 net.cpp:139] Memory required for data: 96252000
I0501 00:38:53.606919  7482 layer_factory.hpp:77] Creating layer ip3
I0501 00:38:53.606926  7482 net.cpp:86] Creating Layer ip3
I0501 00:38:53.606930  7482 net.cpp:408] ip3 <- ip2
I0501 00:38:53.606937  7482 net.cpp:382] ip3 -> ip3
I0501 00:38:53.607110  7482 net.cpp:124] Setting up ip3
I0501 00:38:53.607118  7482 net.cpp:131] Top shape: 1000 160 (160000)
I0501 00:38:53.607121  7482 net.cpp:139] Memory required for data: 96892000
I0501 00:38:53.607128  7482 layer_factory.hpp:77] Creating layer relu3
I0501 00:38:53.607133  7482 net.cpp:86] Creating Layer relu3
I0501 00:38:53.607137  7482 net.cpp:408] relu3 <- ip3
I0501 00:38:53.607142  7482 net.cpp:369] relu3 -> ip3 (in-place)
I0501 00:38:53.607321  7482 net.cpp:124] Setting up relu3
I0501 00:38:53.607331  7482 net.cpp:131] Top shape: 1000 160 (160000)
I0501 00:38:53.607334  7482 net.cpp:139] Memory required for data: 97532000
I0501 00:38:53.607337  7482 layer_factory.hpp:77] Creating layer ip4
I0501 00:38:53.607345  7482 net.cpp:86] Creating Layer ip4
I0501 00:38:53.607349  7482 net.cpp:408] ip4 <- ip3
I0501 00:38:53.607354  7482 net.cpp:382] ip4 -> ip4
I0501 00:38:53.607522  7482 net.cpp:124] Setting up ip4
I0501 00:38:53.607529  7482 net.cpp:131] Top shape: 1000 10 (10000)
I0501 00:38:53.607533  7482 net.cpp:139] Memory required for data: 97572000
I0501 00:38:53.607542  7482 layer_factory.hpp:77] Creating layer ip4_ip4_0_split
I0501 00:38:53.607547  7482 net.cpp:86] Creating Layer ip4_ip4_0_split
I0501 00:38:53.607550  7482 net.cpp:408] ip4_ip4_0_split <- ip4
I0501 00:38:53.607556  7482 net.cpp:382] ip4_ip4_0_split -> ip4_ip4_0_split_0
I0501 00:38:53.607563  7482 net.cpp:382] ip4_ip4_0_split -> ip4_ip4_0_split_1
I0501 00:38:53.607599  7482 net.cpp:124] Setting up ip4_ip4_0_split
I0501 00:38:53.607604  7482 net.cpp:131] Top shape: 1000 10 (10000)
I0501 00:38:53.607609  7482 net.cpp:131] Top shape: 1000 10 (10000)
I0501 00:38:53.607612  7482 net.cpp:139] Memory required for data: 97652000
I0501 00:38:53.607615  7482 layer_factory.hpp:77] Creating layer accuracy
I0501 00:38:53.607623  7482 net.cpp:86] Creating Layer accuracy
I0501 00:38:53.607626  7482 net.cpp:408] accuracy <- ip4_ip4_0_split_0
I0501 00:38:53.607631  7482 net.cpp:408] accuracy <- label_cifar_1_split_0
I0501 00:38:53.607637  7482 net.cpp:382] accuracy -> accuracy
…
