…
I0501 04:56:19.927327 27079 net.cpp:296] The NetState phase (0) differed from the phase (1) specified by a rule in layer cifar
I0501 04:56:19.927350 27079 net.cpp:296] The NetState phase (0) differed from the phase (1) specified by a rule in layer accuracy
I0501 04:56:19.927471 27079 net.cpp:53] Initializing net from parameters: 
name: "CIFAR"
state {
  phase: TRAIN
  level: 0
  stage: ""
}
layer {
  name: "cifar"
  type: "Data"
  top: "data"
  top: "label"
  include {
    phase: TRAIN
  }
  transform_param {
    mean_file: "examples/cifar10/mean.binaryproto"
  }
  data_param {
    source: "examples/cifar10/cifar10_train_lmdb"
    batch_size: 111
    backend: LMDB
  }
}
layer {
  name: "conv0"
  type: "Convolution"
  bottom: "data"
  top: "conv0"
  param {
    lr_mult: 1
  }
  param {
    lr_mult: 2
  }
  convolution_param {
    num_output: 8
    pad: 2
    kernel_size: 5
    stride: 1
    weight_filler {
      type: "gaussian"
      std: 0.01
    }
    bias_filler {
      type: "constant"
    }
  }
}
layer {
  name: "Sigmoid0"
  type: "Sigmoid"
  bottom: "conv0"
  top: "Sigmoid0"
}
layer {
  name: "pool0"
  type: "Pooling"
  bottom: "Sigmoid0"
  top: "pool0"
  pooling_param {
    pool: AVE
    kernel_size: 3
    stride: 2
  }
}
layer {
  name: "ip1"
  type: "InnerProduct"
  bottom: "pool0"
  top: "ip1"
  param {
    lr_mult: 1
  }
  param {
    lr_mult: 2
  }
  inner_product_param {
    num_output: 40
    weight_filler {
      type: "gaussian"
      std: 0.01
    }
    bias_filler {
      type: "constant"
    }
  }
}
layer {
  name: "relu1"
  type: "ReLU"
  bottom: "ip1"
  top: "ip1"
}
layer {
  name: "ip2"
  type: "InnerProduct"
  bottom: "ip1"
  top: "ip2"
  param {
    lr_mult: 1
  }
  param {
    lr_mult: 2
  }
  inner_product_param {
    num_output: 40
    weight_filler {
      type: "gaussian"
      std: 0.01
    }
    bias_filler {
      type: "constant"
    }
  }
}
layer {
  name: "relu2"
  type: "ReLU"
  bottom: "ip2"
  top: "ip2"
}
layer {
  name: "ip3"
  type: "InnerProduct"
  bottom: "ip2"
  top: "ip3"
  param {
    lr_mult: 1
  }
  param {
    lr_mult: 2
  }
  inner_product_param {
    num_output: 40
    weight_filler {
      type: "gaussian"
      std: 0.01
    }
    bias_filler {
      type: "constant"
    }
  }
}
layer {
  name: "relu3"
  type: "ReLU"
  bottom: "ip3"
  top: "ip3"
}
layer {
  name: "ip4"
  type: "InnerProduct"
  bottom: "ip3"
  top: "ip4"
  param {
    lr_mult: 1
  }
  param {
    lr_mult: 2
  }
  inner_product_param {
    num_output: 10
    weight_filler {
      type: "gaussian"
      std: 0.01
    }
    bias_filler {
      type: "constant"
    }
  }
}
layer {
  name: "loss"
  type: "SoftmaxWithLoss"
  bottom: "ip4"
  bottom: "label"
  top: "loss"
}
I0501 04:56:19.927551 27079 layer_factory.hpp:77] Creating layer cifar
I0501 04:56:19.927652 27079 db_lmdb.cpp:35] Opened lmdb examples/cifar10/cifar10_train_lmdb
I0501 04:56:19.927680 27079 net.cpp:86] Creating Layer cifar
I0501 04:56:19.927690 27079 net.cpp:382] cifar -> data
I0501 04:56:19.927711 27079 net.cpp:382] cifar -> label
I0501 04:56:19.927723 27079 data_transformer.cpp:25] Loading mean file from: examples/cifar10/mean.binaryproto
I0501 04:56:19.929898 27079 data_layer.cpp:45] output data size: 111,3,32,32
I0501 04:56:19.937963 27079 net.cpp:124] Setting up cifar
I0501 04:56:19.937980 27079 net.cpp:131] Top shape: 111 3 32 32 (340992)
I0501 04:56:19.937988 27079 net.cpp:131] Top shape: 111 (111)
I0501 04:56:19.937990 27079 net.cpp:139] Memory required for data: 1364412
I0501 04:56:19.938019 27079 layer_factory.hpp:77] Creating layer conv0
I0501 04:56:19.938046 27079 net.cpp:86] Creating Layer conv0
I0501 04:56:19.938061 27079 net.cpp:408] conv0 <- data
I0501 04:56:19.938077 27079 net.cpp:382] conv0 -> conv0
I0501 04:56:20.226765 27079 net.cpp:124] Setting up conv0
I0501 04:56:20.226794 27079 net.cpp:131] Top shape: 111 8 32 32 (909312)
I0501 04:56:20.226799 27079 net.cpp:139] Memory required for data: 5001660
I0501 04:56:20.226815 27079 layer_factory.hpp:77] Creating layer Sigmoid0
I0501 04:56:20.226828 27079 net.cpp:86] Creating Layer Sigmoid0
I0501 04:56:20.226833 27079 net.cpp:408] Sigmoid0 <- conv0
I0501 04:56:20.226840 27079 net.cpp:382] Sigmoid0 -> Sigmoid0
I0501 04:56:20.227028 27079 net.cpp:124] Setting up Sigmoid0
I0501 04:56:20.227039 27079 net.cpp:131] Top shape: 111 8 32 32 (909312)
I0501 04:56:20.227043 27079 net.cpp:139] Memory required for data: 8638908
I0501 04:56:20.227047 27079 layer_factory.hpp:77] Creating layer pool0
I0501 04:56:20.227054 27079 net.cpp:86] Creating Layer pool0
I0501 04:56:20.227058 27079 net.cpp:408] pool0 <- Sigmoid0
I0501 04:56:20.227063 27079 net.cpp:382] pool0 -> pool0
I0501 04:56:20.227877 27079 net.cpp:124] Setting up pool0
I0501 04:56:20.227893 27079 net.cpp:131] Top shape: 111 8 16 16 (227328)
I0501 04:56:20.227897 27079 net.cpp:139] Memory required for data: 9548220
I0501 04:56:20.227901 27079 layer_factory.hpp:77] Creating layer ip1
I0501 04:56:20.227911 27079 net.cpp:86] Creating Layer ip1
I0501 04:56:20.227916 27079 net.cpp:408] ip1 <- pool0
I0501 04:56:20.227921 27079 net.cpp:382] ip1 -> ip1
I0501 04:56:20.230515 27079 net.cpp:124] Setting up ip1
I0501 04:56:20.230525 27079 net.cpp:131] Top shape: 111 40 (4440)
I0501 04:56:20.230530 27079 net.cpp:139] Memory required for data: 9565980
I0501 04:56:20.230537 27079 layer_factory.hpp:77] Creating layer relu1
I0501 04:56:20.230543 27079 net.cpp:86] Creating Layer relu1
I0501 04:56:20.230547 27079 net.cpp:408] relu1 <- ip1
I0501 04:56:20.230552 27079 net.cpp:369] relu1 -> ip1 (in-place)
I0501 04:56:20.230720 27079 net.cpp:124] Setting up relu1
I0501 04:56:20.230731 27079 net.cpp:131] Top shape: 111 40 (4440)
I0501 04:56:20.230733 27079 net.cpp:139] Memory required for data: 9583740
I0501 04:56:20.230737 27079 layer_factory.hpp:77] Creating layer ip2
I0501 04:56:20.230743 27079 net.cpp:86] Creating Layer ip2
I0501 04:56:20.230747 27079 net.cpp:408] ip2 <- ip1
I0501 04:56:20.230752 27079 net.cpp:382] ip2 -> ip2
I0501 04:56:20.230901 27079 net.cpp:124] Setting up ip2
I0501 04:56:20.230908 27079 net.cpp:131] Top shape: 111 40 (4440)
I0501 04:56:20.230912 27079 net.cpp:139] Memory required for data: 9601500
I0501 04:56:20.230919 27079 layer_factory.hpp:77] Creating layer relu2
I0501 04:56:20.230926 27079 net.cpp:86] Creating Layer relu2
I0501 04:56:20.230929 27079 net.cpp:408] relu2 <- ip2
I0501 04:56:20.230933 27079 net.cpp:369] relu2 -> ip2 (in-place)
I0501 04:56:20.231099 27079 net.cpp:124] Setting up relu2
I0501 04:56:20.231108 27079 net.cpp:131] Top shape: 111 40 (4440)
I0501 04:56:20.231112 27079 net.cpp:139] Memory required for data: 9619260
I0501 04:56:20.231115 27079 layer_factory.hpp:77] Creating layer ip3
I0501 04:56:20.231122 27079 net.cpp:86] Creating Layer ip3
I0501 04:56:20.231127 27079 net.cpp:408] ip3 <- ip2
I0501 04:56:20.231132 27079 net.cpp:382] ip3 -> ip3
I0501 04:56:20.231284 27079 net.cpp:124] Setting up ip3
I0501 04:56:20.231292 27079 net.cpp:131] Top shape: 111 40 (4440)
I0501 04:56:20.231297 27079 net.cpp:139] Memory required for data: 9637020
I0501 04:56:20.231302 27079 layer_factory.hpp:77] Creating layer relu3
I0501 04:56:20.231307 27079 net.cpp:86] Creating Layer relu3
I0501 04:56:20.231312 27079 net.cpp:408] relu3 <- ip3
I0501 04:56:20.231315 27079 net.cpp:369] relu3 -> ip3 (in-place)
I0501 04:56:20.231477 27079 net.cpp:124] Setting up relu3
I0501 04:56:20.231485 27079 net.cpp:131] Top shape: 111 40 (4440)
I0501 04:56:20.231488 27079 net.cpp:139] Memory required for data: 9654780
I0501 04:56:20.231492 27079 layer_factory.hpp:77] Creating layer ip4
I0501 04:56:20.231515 27079 net.cpp:86] Creating Layer ip4
I0501 04:56:20.231519 27079 net.cpp:408] ip4 <- ip3
I0501 04:56:20.231524 27079 net.cpp:382] ip4 -> ip4
I0501 04:56:20.231639 27079 net.cpp:124] Setting up ip4
I0501 04:56:20.231648 27079 net.cpp:131] Top shape: 111 10 (1110)
I0501 04:56:20.231652 27079 net.cpp:139] Memory required for data: 9659220
I0501 04:56:20.231660 27079 layer_factory.hpp:77] Creating layer loss
I0501 04:56:20.231667 27079 net.cpp:86] Creating Layer loss
I0501 04:56:20.231669 27079 net.cpp:408] loss <- ip4
I0501 04:56:20.231673 27079 net.cpp:408] loss <- label
I0501 04:56:20.231678 27079 net.cpp:382] loss -> loss
I0501 04:56:20.231698 27079 layer_factory.hpp:77] Creating layer loss
…
I0501 04:56:20.233031 27079 solver.cpp:173] Creating test net (#0) specified by net file: ECE595/cifar/train_test/var_everything/cifar_train_test_402.prototxt
I0501 04:56:20.233060 27079 net.cpp:296] The NetState phase (1) differed from the phase (0) specified by a rule in layer cifar
I0501 04:56:20.233163 27079 net.cpp:53] Initializing net from parameters: 
name: "CIFAR"
state {
  phase: TEST
}
layer {
  name: "cifar"
  type: "Data"
  top: "data"
  top: "label"
  include {
    phase: TEST
  }
  transform_param {
    mean_file: "examples/cifar10/mean.binaryproto"
  }
  data_param {
    source: "examples/cifar10/cifar10_test_lmdb"
    batch_size: 1000
    backend: LMDB
  }
}
layer {
  name: "conv0"
  type: "Convolution"
  bottom: "data"
  top: "conv0"
  param {
    lr_mult: 1
  }
  param {
    lr_mult: 2
  }
  convolution_param {
    num_output: 8
    pad: 2
    kernel_size: 5
    stride: 1
    weight_filler {
      type: "gaussian"
      std: 0.01
    }
    bias_filler {
      type: "constant"
    }
  }
}
layer {
  name: "Sigmoid0"
  type: "Sigmoid"
  bottom: "conv0"
  top: "Sigmoid0"
}
layer {
  name: "pool0"
  type: "Pooling"
  bottom: "Sigmoid0"
  top: "pool0"
  pooling_param {
    pool: AVE
    kernel_size: 3
    stride: 2
  }
}
layer {
  name: "ip1"
  type: "InnerProduct"
  bottom: "pool0"
  top: "ip1"
  param {
    lr_mult: 1
  }
  param {
    lr_mult: 2
  }
  inner_product_param {
    num_output: 40
    weight_filler {
      type: "gaussian"
      std: 0.01
    }
    bias_filler {
      type: "constant"
    }
  }
}
layer {
  name: "relu1"
  type: "ReLU"
  bottom: "ip1"
  top: "ip1"
}
layer {
  name: "ip2"
  type: "InnerProduct"
  bottom: "ip1"
  top: "ip2"
  param {
    lr_mult: 1
  }
  param {
    lr_mult: 2
  }
  inner_product_param {
    num_output: 40
    weight_filler {
      type: "gaussian"
      std: 0.01
    }
    bias_filler {
      type: "constant"
    }
  }
}
layer {
  name: "relu2"
  type: "ReLU"
  bottom: "ip2"
  top: "ip2"
}
layer {
  name: "ip3"
  type: "InnerProduct"
  bottom: "ip2"
  top: "ip3"
  param {
    lr_mult: 1
  }
  param {
    lr_mult: 2
  }
  inner_product_param {
    num_output: 40
    weight_filler {
      type: "gaussian"
      std: 0.01
    }
    bias_filler {
      type: "constant"
    }
  }
}
layer {
  name: "relu3"
  type: "ReLU"
  bottom: "ip3"
  top: "ip3"
}
layer {
  name: "ip4"
  type: "InnerProduct"
  bottom: "ip3"
  top: "ip4"
  param {
    lr_mult: 1
  }
  param {
    lr_mult: 2
  }
  inner_product_param {
    num_output: 10
    weight_filler {
      type: "gaussian"
      std: 0.01
    }
    bias_filler {
      type: "constant"
    }
  }
}
layer {
  name: "accuracy"
  type: "Accuracy"
  bottom: "ip4"
  bottom: "label"
  top: "accuracy"
  include {
    phase: TEST
  }
}
layer {
  name: "loss"
  type: "SoftmaxWithLoss"
  bottom: "ip4"
  bottom: "label"
  top: "loss"
}
I0501 04:56:20.233266 27079 layer_factory.hpp:77] Creating layer cifar
I0501 04:56:20.233315 27079 db_lmdb.cpp:35] Opened lmdb examples/cifar10/cifar10_test_lmdb
I0501 04:56:20.233328 27079 net.cpp:86] Creating Layer cifar
I0501 04:56:20.233333 27079 net.cpp:382] cifar -> data
I0501 04:56:20.233342 27079 net.cpp:382] cifar -> label
I0501 04:56:20.233350 27079 data_transformer.cpp:25] Loading mean file from: examples/cifar10/mean.binaryproto
I0501 04:56:20.233501 27079 data_layer.cpp:45] output data size: 1000,3,32,32
I0501 04:56:20.256932 27079 net.cpp:124] Setting up cifar
I0501 04:56:20.256956 27079 net.cpp:131] Top shape: 1000 3 32 32 (3072000)
I0501 04:56:20.256963 27079 net.cpp:131] Top shape: 1000 (1000)
I0501 04:56:20.256966 27079 net.cpp:139] Memory required for data: 12292000
I0501 04:56:20.256971 27079 layer_factory.hpp:77] Creating layer label_cifar_1_split
I0501 04:56:20.256983 27079 net.cpp:86] Creating Layer label_cifar_1_split
I0501 04:56:20.256989 27079 net.cpp:408] label_cifar_1_split <- label
I0501 04:56:20.256994 27079 net.cpp:382] label_cifar_1_split -> label_cifar_1_split_0
I0501 04:56:20.257002 27079 net.cpp:382] label_cifar_1_split -> label_cifar_1_split_1
I0501 04:56:20.257109 27079 net.cpp:124] Setting up label_cifar_1_split
I0501 04:56:20.257117 27079 net.cpp:131] Top shape: 1000 (1000)
I0501 04:56:20.257122 27079 net.cpp:131] Top shape: 1000 (1000)
I0501 04:56:20.257124 27079 net.cpp:139] Memory required for data: 12300000
I0501 04:56:20.257128 27079 layer_factory.hpp:77] Creating layer conv0
I0501 04:56:20.257139 27079 net.cpp:86] Creating Layer conv0
I0501 04:56:20.257143 27079 net.cpp:408] conv0 <- data
I0501 04:56:20.257148 27079 net.cpp:382] conv0 -> conv0
I0501 04:56:20.259698 27079 net.cpp:124] Setting up conv0
I0501 04:56:20.259716 27079 net.cpp:131] Top shape: 1000 8 32 32 (8192000)
I0501 04:56:20.259732 27079 net.cpp:139] Memory required for data: 45068000
I0501 04:56:20.259743 27079 layer_factory.hpp:77] Creating layer Sigmoid0
I0501 04:56:20.259752 27079 net.cpp:86] Creating Layer Sigmoid0
I0501 04:56:20.259757 27079 net.cpp:408] Sigmoid0 <- conv0
I0501 04:56:20.259762 27079 net.cpp:382] Sigmoid0 -> Sigmoid0
I0501 04:56:20.259958 27079 net.cpp:124] Setting up Sigmoid0
I0501 04:56:20.259966 27079 net.cpp:131] Top shape: 1000 8 32 32 (8192000)
I0501 04:56:20.259970 27079 net.cpp:139] Memory required for data: 77836000
I0501 04:56:20.259974 27079 layer_factory.hpp:77] Creating layer pool0
I0501 04:56:20.259981 27079 net.cpp:86] Creating Layer pool0
I0501 04:56:20.259985 27079 net.cpp:408] pool0 <- Sigmoid0
I0501 04:56:20.259990 27079 net.cpp:382] pool0 -> pool0
I0501 04:56:20.260159 27079 net.cpp:124] Setting up pool0
I0501 04:56:20.260167 27079 net.cpp:131] Top shape: 1000 8 16 16 (2048000)
I0501 04:56:20.260170 27079 net.cpp:139] Memory required for data: 86028000
I0501 04:56:20.260174 27079 layer_factory.hpp:77] Creating layer ip1
I0501 04:56:20.260181 27079 net.cpp:86] Creating Layer ip1
I0501 04:56:20.260186 27079 net.cpp:408] ip1 <- pool0
I0501 04:56:20.260191 27079 net.cpp:382] ip1 -> ip1
I0501 04:56:20.262658 27079 net.cpp:124] Setting up ip1
I0501 04:56:20.262668 27079 net.cpp:131] Top shape: 1000 40 (40000)
I0501 04:56:20.262671 27079 net.cpp:139] Memory required for data: 86188000
I0501 04:56:20.262693 27079 layer_factory.hpp:77] Creating layer relu1
I0501 04:56:20.262701 27079 net.cpp:86] Creating Layer relu1
I0501 04:56:20.262703 27079 net.cpp:408] relu1 <- ip1
I0501 04:56:20.262708 27079 net.cpp:369] relu1 -> ip1 (in-place)
I0501 04:56:20.262881 27079 net.cpp:124] Setting up relu1
I0501 04:56:20.262889 27079 net.cpp:131] Top shape: 1000 40 (40000)
I0501 04:56:20.262893 27079 net.cpp:139] Memory required for data: 86348000
I0501 04:56:20.262897 27079 layer_factory.hpp:77] Creating layer ip2
I0501 04:56:20.262903 27079 net.cpp:86] Creating Layer ip2
I0501 04:56:20.262907 27079 net.cpp:408] ip2 <- ip1
I0501 04:56:20.262912 27079 net.cpp:382] ip2 -> ip2
I0501 04:56:20.263058 27079 net.cpp:124] Setting up ip2
I0501 04:56:20.263067 27079 net.cpp:131] Top shape: 1000 40 (40000)
I0501 04:56:20.263070 27079 net.cpp:139] Memory required for data: 86508000
I0501 04:56:20.263077 27079 layer_factory.hpp:77] Creating layer relu2
I0501 04:56:20.263084 27079 net.cpp:86] Creating Layer relu2
I0501 04:56:20.263088 27079 net.cpp:408] relu2 <- ip2
I0501 04:56:20.263092 27079 net.cpp:369] relu2 -> ip2 (in-place)
I0501 04:56:20.263888 27079 net.cpp:124] Setting up relu2
I0501 04:56:20.263901 27079 net.cpp:131] Top shape: 1000 40 (40000)
I0501 04:56:20.263906 27079 net.cpp:139] Memory required for data: 86668000
I0501 04:56:20.263909 27079 layer_factory.hpp:77] Creating layer ip3
I0501 04:56:20.263916 27079 net.cpp:86] Creating Layer ip3
I0501 04:56:20.263919 27079 net.cpp:408] ip3 <- ip2
I0501 04:56:20.263926 27079 net.cpp:382] ip3 -> ip3
I0501 04:56:20.264081 27079 net.cpp:124] Setting up ip3
I0501 04:56:20.264089 27079 net.cpp:131] Top shape: 1000 40 (40000)
I0501 04:56:20.264092 27079 net.cpp:139] Memory required for data: 86828000
I0501 04:56:20.264099 27079 layer_factory.hpp:77] Creating layer relu3
I0501 04:56:20.264104 27079 net.cpp:86] Creating Layer relu3
I0501 04:56:20.264107 27079 net.cpp:408] relu3 <- ip3
I0501 04:56:20.264111 27079 net.cpp:369] relu3 -> ip3 (in-place)
I0501 04:56:20.264269 27079 net.cpp:124] Setting up relu3
I0501 04:56:20.264277 27079 net.cpp:131] Top shape: 1000 40 (40000)
I0501 04:56:20.264281 27079 net.cpp:139] Memory required for data: 86988000
I0501 04:56:20.264284 27079 layer_factory.hpp:77] Creating layer ip4
I0501 04:56:20.264291 27079 net.cpp:86] Creating Layer ip4
I0501 04:56:20.264294 27079 net.cpp:408] ip4 <- ip3
I0501 04:56:20.264299 27079 net.cpp:382] ip4 -> ip4
I0501 04:56:20.264415 27079 net.cpp:124] Setting up ip4
I0501 04:56:20.264421 27079 net.cpp:131] Top shape: 1000 10 (10000)
I0501 04:56:20.264425 27079 net.cpp:139] Memory required for data: 87028000
I0501 04:56:20.264433 27079 layer_factory.hpp:77] Creating layer ip4_ip4_0_split
I0501 04:56:20.264438 27079 net.cpp:86] Creating Layer ip4_ip4_0_split
I0501 04:56:20.264441 27079 net.cpp:408] ip4_ip4_0_split <- ip4
I0501 04:56:20.264446 27079 net.cpp:382] ip4_ip4_0_split -> ip4_ip4_0_split_0
I0501 04:56:20.264451 27079 net.cpp:382] ip4_ip4_0_split -> ip4_ip4_0_split_1
I0501 04:56:20.264482 27079 net.cpp:124] Setting up ip4_ip4_0_split
I0501 04:56:20.264487 27079 net.cpp:131] Top shape: 1000 10 (10000)
I0501 04:56:20.264492 27079 net.cpp:131] Top shape: 1000 10 (10000)
I0501 04:56:20.264494 27079 net.cpp:139] Memory required for data: 87108000
I0501 04:56:20.264498 27079 layer_factory.hpp:77] Creating layer accuracy
I0501 04:56:20.264504 27079 net.cpp:86] Creating Layer accuracy
I0501 04:56:20.264508 27079 net.cpp:408] accuracy <- ip4_ip4_0_split_0
I0501 04:56:20.264511 27079 net.cpp:408] accuracy <- label_cifar_1_split_0
I0501 04:56:20.264516 27079 net.cpp:382] accuracy -> accuracy
…
