…
I0501 09:32:34.341401 14792 net.cpp:296] The NetState phase (0) differed from the phase (1) specified by a rule in layer cifar
I0501 09:32:34.341434 14792 net.cpp:296] The NetState phase (0) differed from the phase (1) specified by a rule in layer accuracy
I0501 09:32:34.341550 14792 net.cpp:53] Initializing net from parameters: 
name: "CIFAR"
state {
  phase: TRAIN
  level: 0
  stage: ""
}
layer {
  name: "cifar"
  type: "Data"
  top: "data"
  top: "label"
  include {
    phase: TRAIN
  }
  transform_param {
    mean_file: "examples/cifar10/mean.binaryproto"
  }
  data_param {
    source: "examples/cifar10/cifar10_train_lmdb"
    batch_size: 111
    backend: LMDB
  }
}
layer {
  name: "conv0"
  type: "Convolution"
  bottom: "data"
  top: "conv0"
  param {
    lr_mult: 1
  }
  param {
    lr_mult: 2
  }
  convolution_param {
    num_output: 16
    pad: 2
    kernel_size: 3
    stride: 1
    weight_filler {
      type: "gaussian"
      std: 0.01
    }
    bias_filler {
      type: "constant"
    }
  }
}
layer {
  name: "Sigmoid0"
  type: "Sigmoid"
  bottom: "conv0"
  top: "Sigmoid0"
}
layer {
  name: "pool0"
  type: "Pooling"
  bottom: "Sigmoid0"
  top: "pool0"
  pooling_param {
    pool: AVE
    kernel_size: 3
    stride: 2
  }
}
layer {
  name: "ip1"
  type: "InnerProduct"
  bottom: "pool0"
  top: "ip1"
  param {
    lr_mult: 1
  }
  param {
    lr_mult: 2
  }
  inner_product_param {
    num_output: 20
    weight_filler {
      type: "gaussian"
      std: 0.01
    }
    bias_filler {
      type: "constant"
    }
  }
}
layer {
  name: "relu1"
  type: "ReLU"
  bottom: "ip1"
  top: "ip1"
}
layer {
  name: "ip2"
  type: "InnerProduct"
  bottom: "ip1"
  top: "ip2"
  param {
    lr_mult: 1
  }
  param {
    lr_mult: 2
  }
  inner_product_param {
    num_output: 160
    weight_filler {
      type: "gaussian"
      std: 0.01
    }
    bias_filler {
      type: "constant"
    }
  }
}
layer {
  name: "relu2"
  type: "ReLU"
  bottom: "ip2"
  top: "ip2"
}
layer {
  name: "ip3"
  type: "InnerProduct"
  bottom: "ip2"
  top: "ip3"
  param {
    lr_mult: 1
  }
  param {
    lr_mult: 2
  }
  inner_product_param {
    num_output: 40
    weight_filler {
      type: "gaussian"
      std: 0.01
    }
    bias_filler {
      type: "constant"
    }
  }
}
layer {
  name: "relu3"
  type: "ReLU"
  bottom: "ip3"
  top: "ip3"
}
layer {
  name: "ip4"
  type: "InnerProduct"
  bottom: "ip3"
  top: "ip4"
  param {
    lr_mult: 1
  }
  param {
    lr_mult: 2
  }
  inner_product_param {
    num_output: 10
    weight_filler {
      type: "gaussian"
      std: 0.01
    }
    bias_filler {
      type: "constant"
    }
  }
}
layer {
  name: "loss"
  type: "SoftmaxWithLoss"
  bottom: "ip4"
  bottom: "label"
  top: "loss"
}
I0501 09:32:34.341665 14792 layer_factory.hpp:77] Creating layer cifar
I0501 09:32:34.341801 14792 db_lmdb.cpp:35] Opened lmdb examples/cifar10/cifar10_train_lmdb
I0501 09:32:34.341840 14792 net.cpp:86] Creating Layer cifar
I0501 09:32:34.341853 14792 net.cpp:382] cifar -> data
I0501 09:32:34.341884 14792 net.cpp:382] cifar -> label
I0501 09:32:34.341902 14792 data_transformer.cpp:25] Loading mean file from: examples/cifar10/mean.binaryproto
I0501 09:32:34.344256 14792 data_layer.cpp:45] output data size: 111,3,32,32
I0501 09:32:34.352269 14792 net.cpp:124] Setting up cifar
I0501 09:32:34.352291 14792 net.cpp:131] Top shape: 111 3 32 32 (340992)
I0501 09:32:34.352301 14792 net.cpp:131] Top shape: 111 (111)
I0501 09:32:34.352308 14792 net.cpp:139] Memory required for data: 1364412
I0501 09:32:34.352344 14792 layer_factory.hpp:77] Creating layer conv0
I0501 09:32:34.352371 14792 net.cpp:86] Creating Layer conv0
I0501 09:32:34.352381 14792 net.cpp:408] conv0 <- data
I0501 09:32:34.352401 14792 net.cpp:382] conv0 -> conv0
I0501 09:32:34.638208 14792 net.cpp:124] Setting up conv0
I0501 09:32:34.638236 14792 net.cpp:131] Top shape: 111 16 34 34 (2053056)
I0501 09:32:34.638242 14792 net.cpp:139] Memory required for data: 9576636
I0501 09:32:34.638262 14792 layer_factory.hpp:77] Creating layer Sigmoid0
I0501 09:32:34.638278 14792 net.cpp:86] Creating Layer Sigmoid0
I0501 09:32:34.638285 14792 net.cpp:408] Sigmoid0 <- conv0
I0501 09:32:34.638294 14792 net.cpp:382] Sigmoid0 -> Sigmoid0
I0501 09:32:34.638478 14792 net.cpp:124] Setting up Sigmoid0
I0501 09:32:34.638490 14792 net.cpp:131] Top shape: 111 16 34 34 (2053056)
I0501 09:32:34.638495 14792 net.cpp:139] Memory required for data: 17788860
I0501 09:32:34.638500 14792 layer_factory.hpp:77] Creating layer pool0
I0501 09:32:34.638510 14792 net.cpp:86] Creating Layer pool0
I0501 09:32:34.638515 14792 net.cpp:408] pool0 <- Sigmoid0
I0501 09:32:34.638523 14792 net.cpp:382] pool0 -> pool0
I0501 09:32:34.639269 14792 net.cpp:124] Setting up pool0
I0501 09:32:34.639286 14792 net.cpp:131] Top shape: 111 16 17 17 (513264)
I0501 09:32:34.639292 14792 net.cpp:139] Memory required for data: 19841916
I0501 09:32:34.639297 14792 layer_factory.hpp:77] Creating layer ip1
I0501 09:32:34.639312 14792 net.cpp:86] Creating Layer ip1
I0501 09:32:34.639317 14792 net.cpp:408] ip1 <- pool0
I0501 09:32:34.639327 14792 net.cpp:382] ip1 -> ip1
I0501 09:32:34.642215 14792 net.cpp:124] Setting up ip1
I0501 09:32:34.642225 14792 net.cpp:131] Top shape: 111 20 (2220)
I0501 09:32:34.642231 14792 net.cpp:139] Memory required for data: 19850796
I0501 09:32:34.642259 14792 layer_factory.hpp:77] Creating layer relu1
I0501 09:32:34.642268 14792 net.cpp:86] Creating Layer relu1
I0501 09:32:34.642274 14792 net.cpp:408] relu1 <- ip1
I0501 09:32:34.642282 14792 net.cpp:369] relu1 -> ip1 (in-place)
I0501 09:32:34.642448 14792 net.cpp:124] Setting up relu1
I0501 09:32:34.642458 14792 net.cpp:131] Top shape: 111 20 (2220)
I0501 09:32:34.642464 14792 net.cpp:139] Memory required for data: 19859676
I0501 09:32:34.642469 14792 layer_factory.hpp:77] Creating layer ip2
I0501 09:32:34.642479 14792 net.cpp:86] Creating Layer ip2
I0501 09:32:34.642484 14792 net.cpp:408] ip2 <- ip1
I0501 09:32:34.642493 14792 net.cpp:382] ip2 -> ip2
I0501 09:32:34.642689 14792 net.cpp:124] Setting up ip2
I0501 09:32:34.642699 14792 net.cpp:131] Top shape: 111 160 (17760)
I0501 09:32:34.642704 14792 net.cpp:139] Memory required for data: 19930716
I0501 09:32:34.642716 14792 layer_factory.hpp:77] Creating layer relu2
I0501 09:32:34.642724 14792 net.cpp:86] Creating Layer relu2
I0501 09:32:34.642730 14792 net.cpp:408] relu2 <- ip2
I0501 09:32:34.642737 14792 net.cpp:369] relu2 -> ip2 (in-place)
I0501 09:32:34.642901 14792 net.cpp:124] Setting up relu2
I0501 09:32:34.642911 14792 net.cpp:131] Top shape: 111 160 (17760)
I0501 09:32:34.642916 14792 net.cpp:139] Memory required for data: 20001756
I0501 09:32:34.642922 14792 layer_factory.hpp:77] Creating layer ip3
I0501 09:32:34.642933 14792 net.cpp:86] Creating Layer ip3
I0501 09:32:34.642940 14792 net.cpp:408] ip3 <- ip2
I0501 09:32:34.642948 14792 net.cpp:382] ip3 -> ip3
I0501 09:32:34.644104 14792 net.cpp:124] Setting up ip3
I0501 09:32:34.644119 14792 net.cpp:131] Top shape: 111 40 (4440)
I0501 09:32:34.644124 14792 net.cpp:139] Memory required for data: 20019516
I0501 09:32:34.644145 14792 layer_factory.hpp:77] Creating layer relu3
I0501 09:32:34.644155 14792 net.cpp:86] Creating Layer relu3
I0501 09:32:34.644161 14792 net.cpp:408] relu3 <- ip3
I0501 09:32:34.644170 14792 net.cpp:369] relu3 -> ip3 (in-place)
I0501 09:32:34.644357 14792 net.cpp:124] Setting up relu3
I0501 09:32:34.644368 14792 net.cpp:131] Top shape: 111 40 (4440)
I0501 09:32:34.644373 14792 net.cpp:139] Memory required for data: 20037276
I0501 09:32:34.644379 14792 layer_factory.hpp:77] Creating layer ip4
I0501 09:32:34.644405 14792 net.cpp:86] Creating Layer ip4
I0501 09:32:34.644414 14792 net.cpp:408] ip4 <- ip3
I0501 09:32:34.644423 14792 net.cpp:382] ip4 -> ip4
I0501 09:32:34.644541 14792 net.cpp:124] Setting up ip4
I0501 09:32:34.644551 14792 net.cpp:131] Top shape: 111 10 (1110)
I0501 09:32:34.644556 14792 net.cpp:139] Memory required for data: 20041716
I0501 09:32:34.644569 14792 layer_factory.hpp:77] Creating layer loss
I0501 09:32:34.644579 14792 net.cpp:86] Creating Layer loss
I0501 09:32:34.644585 14792 net.cpp:408] loss <- ip4
I0501 09:32:34.644593 14792 net.cpp:408] loss <- label
I0501 09:32:34.644601 14792 net.cpp:382] loss -> loss
I0501 09:32:34.644639 14792 layer_factory.hpp:77] Creating layer loss
…
I0501 09:32:34.645939 14792 solver.cpp:173] Creating test net (#0) specified by net file: ECE595/cifar/train_test/var_everything/cifar_train_test_542.prototxt
I0501 09:32:34.645974 14792 net.cpp:296] The NetState phase (1) differed from the phase (0) specified by a rule in layer cifar
I0501 09:32:34.646076 14792 net.cpp:53] Initializing net from parameters: 
name: "CIFAR"
state {
  phase: TEST
}
layer {
  name: "cifar"
  type: "Data"
  top: "data"
  top: "label"
  include {
    phase: TEST
  }
  transform_param {
    mean_file: "examples/cifar10/mean.binaryproto"
  }
  data_param {
    source: "examples/cifar10/cifar10_test_lmdb"
    batch_size: 1000
    backend: LMDB
  }
}
layer {
  name: "conv0"
  type: "Convolution"
  bottom: "data"
  top: "conv0"
  param {
    lr_mult: 1
  }
  param {
    lr_mult: 2
  }
  convolution_param {
    num_output: 16
    pad: 2
    kernel_size: 3
    stride: 1
    weight_filler {
      type: "gaussian"
      std: 0.01
    }
    bias_filler {
      type: "constant"
    }
  }
}
layer {
  name: "Sigmoid0"
  type: "Sigmoid"
  bottom: "conv0"
  top: "Sigmoid0"
}
layer {
  name: "pool0"
  type: "Pooling"
  bottom: "Sigmoid0"
  top: "pool0"
  pooling_param {
    pool: AVE
    kernel_size: 3
    stride: 2
  }
}
layer {
  name: "ip1"
  type: "InnerProduct"
  bottom: "pool0"
  top: "ip1"
  param {
    lr_mult: 1
  }
  param {
    lr_mult: 2
  }
  inner_product_param {
    num_output: 20
    weight_filler {
      type: "gaussian"
      std: 0.01
    }
    bias_filler {
      type: "constant"
    }
  }
}
layer {
  name: "relu1"
  type: "ReLU"
  bottom: "ip1"
  top: "ip1"
}
layer {
  name: "ip2"
  type: "InnerProduct"
  bottom: "ip1"
  top: "ip2"
  param {
    lr_mult: 1
  }
  param {
    lr_mult: 2
  }
  inner_product_param {
    num_output: 160
    weight_filler {
      type: "gaussian"
      std: 0.01
    }
    bias_filler {
      type: "constant"
    }
  }
}
layer {
  name: "relu2"
  type: "ReLU"
  bottom: "ip2"
  top: "ip2"
}
layer {
  name: "ip3"
  type: "InnerProduct"
  bottom: "ip2"
  top: "ip3"
  param {
    lr_mult: 1
  }
  param {
    lr_mult: 2
  }
  inner_product_param {
    num_output: 40
    weight_filler {
      type: "gaussian"
      std: 0.01
    }
    bias_filler {
      type: "constant"
    }
  }
}
layer {
  name: "relu3"
  type: "ReLU"
  bottom: "ip3"
  top: "ip3"
}
layer {
  name: "ip4"
  type: "InnerProduct"
  bottom: "ip3"
  top: "ip4"
  param {
    lr_mult: 1
  }
  param {
    lr_mult: 2
  }
  inner_product_param {
    num_output: 10
    weight_filler {
      type: "gaussian"
      std: 0.01
    }
    bias_filler {
      type: "constant"
    }
  }
}
layer {
  name: "accuracy"
  type: "Accuracy"
  bottom: "ip4"
  bottom: "label"
  top: "accuracy"
  include {
    phase: TEST
  }
}
layer {
  name: "loss"
  type: "SoftmaxWithLoss"
  bottom: "ip4"
  bottom: "label"
  top: "loss"
}
I0501 09:32:34.646189 14792 layer_factory.hpp:77] Creating layer cifar
I0501 09:32:34.646250 14792 db_lmdb.cpp:35] Opened lmdb examples/cifar10/cifar10_test_lmdb
I0501 09:32:34.646267 14792 net.cpp:86] Creating Layer cifar
I0501 09:32:34.646275 14792 net.cpp:382] cifar -> data
I0501 09:32:34.646287 14792 net.cpp:382] cifar -> label
I0501 09:32:34.646297 14792 data_transformer.cpp:25] Loading mean file from: examples/cifar10/mean.binaryproto
I0501 09:32:34.646529 14792 data_layer.cpp:45] output data size: 1000,3,32,32
I0501 09:32:34.668797 14792 net.cpp:124] Setting up cifar
I0501 09:32:34.668830 14792 net.cpp:131] Top shape: 1000 3 32 32 (3072000)
I0501 09:32:34.668839 14792 net.cpp:131] Top shape: 1000 (1000)
I0501 09:32:34.668844 14792 net.cpp:139] Memory required for data: 12292000
I0501 09:32:34.668867 14792 layer_factory.hpp:77] Creating layer label_cifar_1_split
I0501 09:32:34.668882 14792 net.cpp:86] Creating Layer label_cifar_1_split
I0501 09:32:34.668889 14792 net.cpp:408] label_cifar_1_split <- label
I0501 09:32:34.668898 14792 net.cpp:382] label_cifar_1_split -> label_cifar_1_split_0
I0501 09:32:34.668912 14792 net.cpp:382] label_cifar_1_split -> label_cifar_1_split_1
I0501 09:32:34.669013 14792 net.cpp:124] Setting up label_cifar_1_split
I0501 09:32:34.669021 14792 net.cpp:131] Top shape: 1000 (1000)
I0501 09:32:34.669028 14792 net.cpp:131] Top shape: 1000 (1000)
I0501 09:32:34.669034 14792 net.cpp:139] Memory required for data: 12300000
I0501 09:32:34.669039 14792 layer_factory.hpp:77] Creating layer conv0
I0501 09:32:34.669055 14792 net.cpp:86] Creating Layer conv0
I0501 09:32:34.669062 14792 net.cpp:408] conv0 <- data
I0501 09:32:34.669071 14792 net.cpp:382] conv0 -> conv0
I0501 09:32:34.670469 14792 net.cpp:124] Setting up conv0
I0501 09:32:34.670483 14792 net.cpp:131] Top shape: 1000 16 34 34 (18496000)
I0501 09:32:34.670490 14792 net.cpp:139] Memory required for data: 86284000
I0501 09:32:34.670505 14792 layer_factory.hpp:77] Creating layer Sigmoid0
I0501 09:32:34.670514 14792 net.cpp:86] Creating Layer Sigmoid0
I0501 09:32:34.670524 14792 net.cpp:408] Sigmoid0 <- conv0
I0501 09:32:34.670532 14792 net.cpp:382] Sigmoid0 -> Sigmoid0
I0501 09:32:34.671694 14792 net.cpp:124] Setting up Sigmoid0
I0501 09:32:34.671706 14792 net.cpp:131] Top shape: 1000 16 34 34 (18496000)
I0501 09:32:34.671711 14792 net.cpp:139] Memory required for data: 160268000
I0501 09:32:34.671732 14792 layer_factory.hpp:77] Creating layer pool0
I0501 09:32:34.671744 14792 net.cpp:86] Creating Layer pool0
I0501 09:32:34.671749 14792 net.cpp:408] pool0 <- Sigmoid0
I0501 09:32:34.671757 14792 net.cpp:382] pool0 -> pool0
I0501 09:32:34.671936 14792 net.cpp:124] Setting up pool0
I0501 09:32:34.671960 14792 net.cpp:131] Top shape: 1000 16 17 17 (4624000)
I0501 09:32:34.671965 14792 net.cpp:139] Memory required for data: 178764000
I0501 09:32:34.671970 14792 layer_factory.hpp:77] Creating layer ip1
I0501 09:32:34.671982 14792 net.cpp:86] Creating Layer ip1
I0501 09:32:34.671988 14792 net.cpp:408] ip1 <- pool0
I0501 09:32:34.671995 14792 net.cpp:382] ip1 -> ip1
I0501 09:32:34.674599 14792 net.cpp:124] Setting up ip1
I0501 09:32:34.674610 14792 net.cpp:131] Top shape: 1000 20 (20000)
I0501 09:32:34.674614 14792 net.cpp:139] Memory required for data: 178844000
I0501 09:32:34.674662 14792 layer_factory.hpp:77] Creating layer relu1
I0501 09:32:34.674674 14792 net.cpp:86] Creating Layer relu1
I0501 09:32:34.674682 14792 net.cpp:408] relu1 <- ip1
I0501 09:32:34.674690 14792 net.cpp:369] relu1 -> ip1 (in-place)
I0501 09:32:34.674852 14792 net.cpp:124] Setting up relu1
I0501 09:32:34.674862 14792 net.cpp:131] Top shape: 1000 20 (20000)
I0501 09:32:34.674866 14792 net.cpp:139] Memory required for data: 178924000
I0501 09:32:34.674872 14792 layer_factory.hpp:77] Creating layer ip2
I0501 09:32:34.674881 14792 net.cpp:86] Creating Layer ip2
I0501 09:32:34.674887 14792 net.cpp:408] ip2 <- ip1
I0501 09:32:34.674896 14792 net.cpp:382] ip2 -> ip2
I0501 09:32:34.675107 14792 net.cpp:124] Setting up ip2
I0501 09:32:34.675117 14792 net.cpp:131] Top shape: 1000 160 (160000)
I0501 09:32:34.675122 14792 net.cpp:139] Memory required for data: 179564000
I0501 09:32:34.675134 14792 layer_factory.hpp:77] Creating layer relu2
I0501 09:32:34.675143 14792 net.cpp:86] Creating Layer relu2
I0501 09:32:34.675154 14792 net.cpp:408] relu2 <- ip2
I0501 09:32:34.675161 14792 net.cpp:369] relu2 -> ip2 (in-place)
I0501 09:32:34.675912 14792 net.cpp:124] Setting up relu2
I0501 09:32:34.675925 14792 net.cpp:131] Top shape: 1000 160 (160000)
I0501 09:32:34.675931 14792 net.cpp:139] Memory required for data: 180204000
I0501 09:32:34.675951 14792 layer_factory.hpp:77] Creating layer ip3
I0501 09:32:34.675962 14792 net.cpp:86] Creating Layer ip3
I0501 09:32:34.675968 14792 net.cpp:408] ip3 <- ip2
I0501 09:32:34.675978 14792 net.cpp:382] ip3 -> ip3
I0501 09:32:34.676283 14792 net.cpp:124] Setting up ip3
I0501 09:32:34.676295 14792 net.cpp:131] Top shape: 1000 40 (40000)
I0501 09:32:34.676300 14792 net.cpp:139] Memory required for data: 180364000
I0501 09:32:34.676308 14792 layer_factory.hpp:77] Creating layer relu3
I0501 09:32:34.676316 14792 net.cpp:86] Creating Layer relu3
I0501 09:32:34.676337 14792 net.cpp:408] relu3 <- ip3
I0501 09:32:34.676343 14792 net.cpp:369] relu3 -> ip3 (in-place)
I0501 09:32:34.676504 14792 net.cpp:124] Setting up relu3
I0501 09:32:34.676514 14792 net.cpp:131] Top shape: 1000 40 (40000)
I0501 09:32:34.676519 14792 net.cpp:139] Memory required for data: 180524000
I0501 09:32:34.676524 14792 layer_factory.hpp:77] Creating layer ip4
I0501 09:32:34.676534 14792 net.cpp:86] Creating Layer ip4
I0501 09:32:34.676540 14792 net.cpp:408] ip4 <- ip3
I0501 09:32:34.676549 14792 net.cpp:382] ip4 -> ip4
I0501 09:32:34.676669 14792 net.cpp:124] Setting up ip4
I0501 09:32:34.676678 14792 net.cpp:131] Top shape: 1000 10 (10000)
I0501 09:32:34.676683 14792 net.cpp:139] Memory required for data: 180564000
I0501 09:32:34.676695 14792 layer_factory.hpp:77] Creating layer ip4_ip4_0_split
I0501 09:32:34.676703 14792 net.cpp:86] Creating Layer ip4_ip4_0_split
I0501 09:32:34.676709 14792 net.cpp:408] ip4_ip4_0_split <- ip4
I0501 09:32:34.676717 14792 net.cpp:382] ip4_ip4_0_split -> ip4_ip4_0_split_0
I0501 09:32:34.676724 14792 net.cpp:382] ip4_ip4_0_split -> ip4_ip4_0_split_1
I0501 09:32:34.676765 14792 net.cpp:124] Setting up ip4_ip4_0_split
I0501 09:32:34.676774 14792 net.cpp:131] Top shape: 1000 10 (10000)
I0501 09:32:34.676779 14792 net.cpp:131] Top shape: 1000 10 (10000)
I0501 09:32:34.676784 14792 net.cpp:139] Memory required for data: 180644000
I0501 09:32:34.676789 14792 layer_factory.hpp:77] Creating layer accuracy
I0501 09:32:34.676797 14792 net.cpp:86] Creating Layer accuracy
I0501 09:32:34.676802 14792 net.cpp:408] accuracy <- ip4_ip4_0_split_0
I0501 09:32:34.676815 14792 net.cpp:408] accuracy <- label_cifar_1_split_0
I0501 09:32:34.676839 14792 net.cpp:382] accuracy -> accuracy
…
