…
I0430 22:17:58.382516  1454 net.cpp:296] The NetState phase (0) differed from the phase (1) specified by a rule in layer cifar
I0430 22:17:58.382541  1454 net.cpp:296] The NetState phase (0) differed from the phase (1) specified by a rule in layer accuracy
I0430 22:17:58.382663  1454 net.cpp:53] Initializing net from parameters: 
name: "CIFAR"
state {
  phase: TRAIN
  level: 0
  stage: ""
}
layer {
  name: "cifar"
  type: "Data"
  top: "data"
  top: "label"
  include {
    phase: TRAIN
  }
  transform_param {
    mean_file: "examples/cifar10/mean.binaryproto"
  }
  data_param {
    source: "examples/cifar10/cifar10_train_lmdb"
    batch_size: 111
    backend: LMDB
  }
}
layer {
  name: "conv0"
  type: "Convolution"
  bottom: "data"
  top: "conv0"
  param {
    lr_mult: 1
  }
  param {
    lr_mult: 2
  }
  convolution_param {
    num_output: 8
    pad: 2
    kernel_size: 3
    stride: 1
    weight_filler {
      type: "gaussian"
      std: 0.01
    }
    bias_filler {
      type: "constant"
    }
  }
}
layer {
  name: "Sigmoid0"
  type: "Sigmoid"
  bottom: "conv0"
  top: "Sigmoid0"
}
layer {
  name: "pool0"
  type: "Pooling"
  bottom: "Sigmoid0"
  top: "pool0"
  pooling_param {
    pool: AVE
    kernel_size: 3
    stride: 2
  }
}
layer {
  name: "ip1"
  type: "InnerProduct"
  bottom: "pool0"
  top: "ip1"
  param {
    lr_mult: 1
  }
  param {
    lr_mult: 2
  }
  inner_product_param {
    num_output: 10
    weight_filler {
      type: "gaussian"
      std: 0.01
    }
    bias_filler {
      type: "constant"
    }
  }
}
layer {
  name: "relu1"
  type: "ReLU"
  bottom: "ip1"
  top: "ip1"
}
layer {
  name: "ip2"
  type: "InnerProduct"
  bottom: "ip1"
  top: "ip2"
  param {
    lr_mult: 1
  }
  param {
    lr_mult: 2
  }
  inner_product_param {
    num_output: 10
    weight_filler {
      type: "gaussian"
      std: 0.01
    }
    bias_filler {
      type: "constant"
    }
  }
}
layer {
  name: "relu2"
  type: "ReLU"
  bottom: "ip2"
  top: "ip2"
}
layer {
  name: "ip3"
  type: "InnerProduct"
  bottom: "ip2"
  top: "ip3"
  param {
    lr_mult: 1
  }
  param {
    lr_mult: 2
  }
  inner_product_param {
    num_output: 160
    weight_filler {
      type: "gaussian"
      std: 0.01
    }
    bias_filler {
      type: "constant"
    }
  }
}
layer {
  name: "relu3"
  type: "ReLU"
  bottom: "ip3"
  top: "ip3"
}
layer {
  name: "ip4"
  type: "InnerProduct"
  bottom: "ip3"
  top: "ip4"
  param {
    lr_mult: 1
  }
  param {
    lr_mult: 2
  }
  inner_product_param {
    num_output: 10
    weight_filler {
      type: "gaussian"
      std: 0.01
    }
    bias_filler {
      type: "constant"
    }
  }
}
layer {
  name: "loss"
  type: "SoftmaxWithLoss"
  bottom: "ip4"
  bottom: "label"
  top: "loss"
}
I0430 22:17:58.382776  1454 layer_factory.hpp:77] Creating layer cifar
I0430 22:17:58.382905  1454 db_lmdb.cpp:35] Opened lmdb examples/cifar10/cifar10_train_lmdb
I0430 22:17:58.382942  1454 net.cpp:86] Creating Layer cifar
I0430 22:17:58.382956  1454 net.cpp:382] cifar -> data
I0430 22:17:58.382987  1454 net.cpp:382] cifar -> label
I0430 22:17:58.383003  1454 data_transformer.cpp:25] Loading mean file from: examples/cifar10/mean.binaryproto
I0430 22:17:58.385365  1454 data_layer.cpp:45] output data size: 111,3,32,32
I0430 22:17:58.393234  1454 net.cpp:124] Setting up cifar
I0430 22:17:58.393255  1454 net.cpp:131] Top shape: 111 3 32 32 (340992)
I0430 22:17:58.393265  1454 net.cpp:131] Top shape: 111 (111)
I0430 22:17:58.393271  1454 net.cpp:139] Memory required for data: 1364412
I0430 22:17:58.393314  1454 layer_factory.hpp:77] Creating layer conv0
I0430 22:17:58.393342  1454 net.cpp:86] Creating Layer conv0
I0430 22:17:58.393352  1454 net.cpp:408] conv0 <- data
I0430 22:17:58.393373  1454 net.cpp:382] conv0 -> conv0
I0430 22:17:58.682828  1454 net.cpp:124] Setting up conv0
I0430 22:17:58.682859  1454 net.cpp:131] Top shape: 111 8 34 34 (1026528)
I0430 22:17:58.682867  1454 net.cpp:139] Memory required for data: 5470524
I0430 22:17:58.682889  1454 layer_factory.hpp:77] Creating layer Sigmoid0
I0430 22:17:58.682907  1454 net.cpp:86] Creating Layer Sigmoid0
I0430 22:17:58.682916  1454 net.cpp:408] Sigmoid0 <- conv0
I0430 22:17:58.682926  1454 net.cpp:382] Sigmoid0 -> Sigmoid0
I0430 22:17:58.683145  1454 net.cpp:124] Setting up Sigmoid0
I0430 22:17:58.683157  1454 net.cpp:131] Top shape: 111 8 34 34 (1026528)
I0430 22:17:58.683164  1454 net.cpp:139] Memory required for data: 9576636
I0430 22:17:58.683171  1454 layer_factory.hpp:77] Creating layer pool0
I0430 22:17:58.683182  1454 net.cpp:86] Creating Layer pool0
I0430 22:17:58.683188  1454 net.cpp:408] pool0 <- Sigmoid0
I0430 22:17:58.683197  1454 net.cpp:382] pool0 -> pool0
I0430 22:17:58.684056  1454 net.cpp:124] Setting up pool0
I0430 22:17:58.684073  1454 net.cpp:131] Top shape: 111 8 17 17 (256632)
I0430 22:17:58.684080  1454 net.cpp:139] Memory required for data: 10603164
I0430 22:17:58.684087  1454 layer_factory.hpp:77] Creating layer ip1
I0430 22:17:58.684104  1454 net.cpp:86] Creating Layer ip1
I0430 22:17:58.684111  1454 net.cpp:408] ip1 <- pool0
I0430 22:17:58.684123  1454 net.cpp:382] ip1 -> ip1
I0430 22:17:58.685946  1454 net.cpp:124] Setting up ip1
I0430 22:17:58.685963  1454 net.cpp:131] Top shape: 111 10 (1110)
I0430 22:17:58.685971  1454 net.cpp:139] Memory required for data: 10607604
I0430 22:17:58.685986  1454 layer_factory.hpp:77] Creating layer relu1
I0430 22:17:58.685995  1454 net.cpp:86] Creating Layer relu1
I0430 22:17:58.686002  1454 net.cpp:408] relu1 <- ip1
I0430 22:17:58.686012  1454 net.cpp:369] relu1 -> ip1 (in-place)
I0430 22:17:58.686197  1454 net.cpp:124] Setting up relu1
I0430 22:17:58.686209  1454 net.cpp:131] Top shape: 111 10 (1110)
I0430 22:17:58.686215  1454 net.cpp:139] Memory required for data: 10612044
I0430 22:17:58.686221  1454 layer_factory.hpp:77] Creating layer ip2
I0430 22:17:58.686233  1454 net.cpp:86] Creating Layer ip2
I0430 22:17:58.686239  1454 net.cpp:408] ip2 <- ip1
I0430 22:17:58.686249  1454 net.cpp:382] ip2 -> ip2
I0430 22:17:58.686372  1454 net.cpp:124] Setting up ip2
I0430 22:17:58.686383  1454 net.cpp:131] Top shape: 111 10 (1110)
I0430 22:17:58.686388  1454 net.cpp:139] Memory required for data: 10616484
I0430 22:17:58.686401  1454 layer_factory.hpp:77] Creating layer relu2
I0430 22:17:58.686411  1454 net.cpp:86] Creating Layer relu2
I0430 22:17:58.686417  1454 net.cpp:408] relu2 <- ip2
I0430 22:17:58.686426  1454 net.cpp:369] relu2 -> ip2 (in-place)
I0430 22:17:58.686609  1454 net.cpp:124] Setting up relu2
I0430 22:17:58.686619  1454 net.cpp:131] Top shape: 111 10 (1110)
I0430 22:17:58.686625  1454 net.cpp:139] Memory required for data: 10620924
I0430 22:17:58.686631  1454 layer_factory.hpp:77] Creating layer ip3
I0430 22:17:58.686645  1454 net.cpp:86] Creating Layer ip3
I0430 22:17:58.686650  1454 net.cpp:408] ip3 <- ip2
I0430 22:17:58.686661  1454 net.cpp:382] ip3 -> ip3
I0430 22:17:58.686831  1454 net.cpp:124] Setting up ip3
I0430 22:17:58.686842  1454 net.cpp:131] Top shape: 111 160 (17760)
I0430 22:17:58.686847  1454 net.cpp:139] Memory required for data: 10691964
I0430 22:17:58.686857  1454 layer_factory.hpp:77] Creating layer relu3
I0430 22:17:58.686867  1454 net.cpp:86] Creating Layer relu3
I0430 22:17:58.686873  1454 net.cpp:408] relu3 <- ip3
I0430 22:17:58.686882  1454 net.cpp:369] relu3 -> ip3 (in-place)
I0430 22:17:58.687060  1454 net.cpp:124] Setting up relu3
I0430 22:17:58.687072  1454 net.cpp:131] Top shape: 111 160 (17760)
I0430 22:17:58.687077  1454 net.cpp:139] Memory required for data: 10763004
I0430 22:17:58.687083  1454 layer_factory.hpp:77] Creating layer ip4
I0430 22:17:58.687113  1454 net.cpp:86] Creating Layer ip4
I0430 22:17:58.687119  1454 net.cpp:408] ip4 <- ip3
I0430 22:17:58.687129  1454 net.cpp:382] ip4 -> ip4
I0430 22:17:58.687300  1454 net.cpp:124] Setting up ip4
I0430 22:17:58.687311  1454 net.cpp:131] Top shape: 111 10 (1110)
I0430 22:17:58.687316  1454 net.cpp:139] Memory required for data: 10767444
I0430 22:17:58.687331  1454 layer_factory.hpp:77] Creating layer loss
I0430 22:17:58.687341  1454 net.cpp:86] Creating Layer loss
I0430 22:17:58.687348  1454 net.cpp:408] loss <- ip4
I0430 22:17:58.687355  1454 net.cpp:408] loss <- label
I0430 22:17:58.687364  1454 net.cpp:382] loss -> loss
I0430 22:17:58.687391  1454 layer_factory.hpp:77] Creating layer loss
…
I0430 22:17:58.688861  1454 solver.cpp:173] Creating test net (#0) specified by net file: ECE595/cifar/train_test/var_everything/cifar_train_test_189.prototxt
I0430 22:17:58.688905  1454 net.cpp:296] The NetState phase (1) differed from the phase (0) specified by a rule in layer cifar
I0430 22:17:58.689021  1454 net.cpp:53] Initializing net from parameters: 
name: "CIFAR"
state {
  phase: TEST
}
layer {
  name: "cifar"
  type: "Data"
  top: "data"
  top: "label"
  include {
    phase: TEST
  }
  transform_param {
    mean_file: "examples/cifar10/mean.binaryproto"
  }
  data_param {
    source: "examples/cifar10/cifar10_test_lmdb"
    batch_size: 1000
    backend: LMDB
  }
}
layer {
  name: "conv0"
  type: "Convolution"
  bottom: "data"
  top: "conv0"
  param {
    lr_mult: 1
  }
  param {
    lr_mult: 2
  }
  convolution_param {
    num_output: 8
    pad: 2
    kernel_size: 3
    stride: 1
    weight_filler {
      type: "gaussian"
      std: 0.01
    }
    bias_filler {
      type: "constant"
    }
  }
}
layer {
  name: "Sigmoid0"
  type: "Sigmoid"
  bottom: "conv0"
  top: "Sigmoid0"
}
layer {
  name: "pool0"
  type: "Pooling"
  bottom: "Sigmoid0"
  top: "pool0"
  pooling_param {
    pool: AVE
    kernel_size: 3
    stride: 2
  }
}
layer {
  name: "ip1"
  type: "InnerProduct"
  bottom: "pool0"
  top: "ip1"
  param {
    lr_mult: 1
  }
  param {
    lr_mult: 2
  }
  inner_product_param {
    num_output: 10
    weight_filler {
      type: "gaussian"
      std: 0.01
    }
    bias_filler {
      type: "constant"
    }
  }
}
layer {
  name: "relu1"
  type: "ReLU"
  bottom: "ip1"
  top: "ip1"
}
layer {
  name: "ip2"
  type: "InnerProduct"
  bottom: "ip1"
  top: "ip2"
  param {
    lr_mult: 1
  }
  param {
    lr_mult: 2
  }
  inner_product_param {
    num_output: 10
    weight_filler {
      type: "gaussian"
      std: 0.01
    }
    bias_filler {
      type: "constant"
    }
  }
}
layer {
  name: "relu2"
  type: "ReLU"
  bottom: "ip2"
  top: "ip2"
}
layer {
  name: "ip3"
  type: "InnerProduct"
  bottom: "ip2"
  top: "ip3"
  param {
    lr_mult: 1
  }
  param {
    lr_mult: 2
  }
  inner_product_param {
    num_output: 160
    weight_filler {
      type: "gaussian"
      std: 0.01
    }
    bias_filler {
      type: "constant"
    }
  }
}
layer {
  name: "relu3"
  type: "ReLU"
  bottom: "ip3"
  top: "ip3"
}
layer {
  name: "ip4"
  type: "InnerProduct"
  bottom: "ip3"
  top: "ip4"
  param {
    lr_mult: 1
  }
  param {
    lr_mult: 2
  }
  inner_product_param {
    num_output: 10
    weight_filler {
      type: "gaussian"
      std: 0.01
    }
    bias_filler {
      type: "constant"
    }
  }
}
layer {
  name: "accuracy"
  type: "Accuracy"
  bottom: "ip4"
  bottom: "label"
  top: "accuracy"
  include {
    phase: TEST
  }
}
layer {
  name: "loss"
  type: "SoftmaxWithLoss"
  bottom: "ip4"
  bottom: "label"
  top: "loss"
}
I0430 22:17:58.689152  1454 layer_factory.hpp:77] Creating layer cifar
I0430 22:17:58.689224  1454 db_lmdb.cpp:35] Opened lmdb examples/cifar10/cifar10_test_lmdb
I0430 22:17:58.689244  1454 net.cpp:86] Creating Layer cifar
I0430 22:17:58.689252  1454 net.cpp:382] cifar -> data
I0430 22:17:58.689265  1454 net.cpp:382] cifar -> label
I0430 22:17:58.689277  1454 data_transformer.cpp:25] Loading mean file from: examples/cifar10/mean.binaryproto
I0430 22:17:58.689507  1454 data_layer.cpp:45] output data size: 1000,3,32,32
I0430 22:17:58.715358  1454 net.cpp:124] Setting up cifar
I0430 22:17:58.715387  1454 net.cpp:131] Top shape: 1000 3 32 32 (3072000)
I0430 22:17:58.715396  1454 net.cpp:131] Top shape: 1000 (1000)
I0430 22:17:58.715401  1454 net.cpp:139] Memory required for data: 12292000
I0430 22:17:58.715410  1454 layer_factory.hpp:77] Creating layer label_cifar_1_split
I0430 22:17:58.715431  1454 net.cpp:86] Creating Layer label_cifar_1_split
I0430 22:17:58.715440  1454 net.cpp:408] label_cifar_1_split <- label
I0430 22:17:58.715450  1454 net.cpp:382] label_cifar_1_split -> label_cifar_1_split_0
I0430 22:17:58.715464  1454 net.cpp:382] label_cifar_1_split -> label_cifar_1_split_1
I0430 22:17:58.715575  1454 net.cpp:124] Setting up label_cifar_1_split
I0430 22:17:58.715585  1454 net.cpp:131] Top shape: 1000 (1000)
I0430 22:17:58.715592  1454 net.cpp:131] Top shape: 1000 (1000)
I0430 22:17:58.715598  1454 net.cpp:139] Memory required for data: 12300000
I0430 22:17:58.715603  1454 layer_factory.hpp:77] Creating layer conv0
I0430 22:17:58.715622  1454 net.cpp:86] Creating Layer conv0
I0430 22:17:58.715628  1454 net.cpp:408] conv0 <- data
I0430 22:17:58.715637  1454 net.cpp:382] conv0 -> conv0
I0430 22:17:58.717216  1454 net.cpp:124] Setting up conv0
I0430 22:17:58.717233  1454 net.cpp:131] Top shape: 1000 8 34 34 (9248000)
I0430 22:17:58.717242  1454 net.cpp:139] Memory required for data: 49292000
I0430 22:17:58.717258  1454 layer_factory.hpp:77] Creating layer Sigmoid0
I0430 22:17:58.717281  1454 net.cpp:86] Creating Layer Sigmoid0
I0430 22:17:58.717288  1454 net.cpp:408] Sigmoid0 <- conv0
I0430 22:17:58.717296  1454 net.cpp:382] Sigmoid0 -> Sigmoid0
I0430 22:17:58.718385  1454 net.cpp:124] Setting up Sigmoid0
I0430 22:17:58.718399  1454 net.cpp:131] Top shape: 1000 8 34 34 (9248000)
I0430 22:17:58.718405  1454 net.cpp:139] Memory required for data: 86284000
I0430 22:17:58.718410  1454 layer_factory.hpp:77] Creating layer pool0
I0430 22:17:58.718422  1454 net.cpp:86] Creating Layer pool0
I0430 22:17:58.718428  1454 net.cpp:408] pool0 <- Sigmoid0
I0430 22:17:58.718437  1454 net.cpp:382] pool0 -> pool0
I0430 22:17:58.718617  1454 net.cpp:124] Setting up pool0
I0430 22:17:58.718629  1454 net.cpp:131] Top shape: 1000 8 17 17 (2312000)
I0430 22:17:58.718634  1454 net.cpp:139] Memory required for data: 95532000
I0430 22:17:58.718641  1454 layer_factory.hpp:77] Creating layer ip1
I0430 22:17:58.718652  1454 net.cpp:86] Creating Layer ip1
I0430 22:17:58.718657  1454 net.cpp:408] ip1 <- pool0
I0430 22:17:58.718667  1454 net.cpp:382] ip1 -> ip1
I0430 22:17:58.719470  1454 net.cpp:124] Setting up ip1
I0430 22:17:58.719480  1454 net.cpp:131] Top shape: 1000 10 (10000)
I0430 22:17:58.719487  1454 net.cpp:139] Memory required for data: 95572000
I0430 22:17:58.719522  1454 layer_factory.hpp:77] Creating layer relu1
I0430 22:17:58.719533  1454 net.cpp:86] Creating Layer relu1
I0430 22:17:58.719540  1454 net.cpp:408] relu1 <- ip1
I0430 22:17:58.719547  1454 net.cpp:369] relu1 -> ip1 (in-place)
I0430 22:17:58.719727  1454 net.cpp:124] Setting up relu1
I0430 22:17:58.719738  1454 net.cpp:131] Top shape: 1000 10 (10000)
I0430 22:17:58.719743  1454 net.cpp:139] Memory required for data: 95612000
I0430 22:17:58.719749  1454 layer_factory.hpp:77] Creating layer ip2
I0430 22:17:58.719759  1454 net.cpp:86] Creating Layer ip2
I0430 22:17:58.719766  1454 net.cpp:408] ip2 <- ip1
I0430 22:17:58.719775  1454 net.cpp:382] ip2 -> ip2
I0430 22:17:58.719894  1454 net.cpp:124] Setting up ip2
I0430 22:17:58.719904  1454 net.cpp:131] Top shape: 1000 10 (10000)
I0430 22:17:58.719910  1454 net.cpp:139] Memory required for data: 95652000
I0430 22:17:58.719923  1454 layer_factory.hpp:77] Creating layer relu2
I0430 22:17:58.719933  1454 net.cpp:86] Creating Layer relu2
I0430 22:17:58.719938  1454 net.cpp:408] relu2 <- ip2
I0430 22:17:58.719946  1454 net.cpp:369] relu2 -> ip2 (in-place)
I0430 22:17:58.720741  1454 net.cpp:124] Setting up relu2
I0430 22:17:58.720757  1454 net.cpp:131] Top shape: 1000 10 (10000)
I0430 22:17:58.720762  1454 net.cpp:139] Memory required for data: 95692000
I0430 22:17:58.720767  1454 layer_factory.hpp:77] Creating layer ip3
I0430 22:17:58.720778  1454 net.cpp:86] Creating Layer ip3
I0430 22:17:58.720785  1454 net.cpp:408] ip3 <- ip2
I0430 22:17:58.720795  1454 net.cpp:382] ip3 -> ip3
I0430 22:17:58.720971  1454 net.cpp:124] Setting up ip3
I0430 22:17:58.720983  1454 net.cpp:131] Top shape: 1000 160 (160000)
I0430 22:17:58.720988  1454 net.cpp:139] Memory required for data: 96332000
I0430 22:17:58.720999  1454 layer_factory.hpp:77] Creating layer relu3
I0430 22:17:58.721012  1454 net.cpp:86] Creating Layer relu3
I0430 22:17:58.721019  1454 net.cpp:408] relu3 <- ip3
I0430 22:17:58.721026  1454 net.cpp:369] relu3 -> ip3 (in-place)
I0430 22:17:58.721227  1454 net.cpp:124] Setting up relu3
I0430 22:17:58.721238  1454 net.cpp:131] Top shape: 1000 160 (160000)
I0430 22:17:58.721243  1454 net.cpp:139] Memory required for data: 96972000
I0430 22:17:58.721248  1454 layer_factory.hpp:77] Creating layer ip4
I0430 22:17:58.721259  1454 net.cpp:86] Creating Layer ip4
I0430 22:17:58.721264  1454 net.cpp:408] ip4 <- ip3
I0430 22:17:58.721276  1454 net.cpp:382] ip4 -> ip4
I0430 22:17:58.721441  1454 net.cpp:124] Setting up ip4
I0430 22:17:58.721451  1454 net.cpp:131] Top shape: 1000 10 (10000)
I0430 22:17:58.721457  1454 net.cpp:139] Memory required for data: 97012000
I0430 22:17:58.721469  1454 layer_factory.hpp:77] Creating layer ip4_ip4_0_split
I0430 22:17:58.721478  1454 net.cpp:86] Creating Layer ip4_ip4_0_split
I0430 22:17:58.721487  1454 net.cpp:408] ip4_ip4_0_split <- ip4
I0430 22:17:58.721495  1454 net.cpp:382] ip4_ip4_0_split -> ip4_ip4_0_split_0
I0430 22:17:58.721506  1454 net.cpp:382] ip4_ip4_0_split -> ip4_ip4_0_split_1
I0430 22:17:58.721552  1454 net.cpp:124] Setting up ip4_ip4_0_split
I0430 22:17:58.721560  1454 net.cpp:131] Top shape: 1000 10 (10000)
I0430 22:17:58.721567  1454 net.cpp:131] Top shape: 1000 10 (10000)
I0430 22:17:58.721572  1454 net.cpp:139] Memory required for data: 97092000
I0430 22:17:58.721578  1454 layer_factory.hpp:77] Creating layer accuracy
I0430 22:17:58.721587  1454 net.cpp:86] Creating Layer accuracy
I0430 22:17:58.721593  1454 net.cpp:408] accuracy <- ip4_ip4_0_split_0
I0430 22:17:58.721601  1454 net.cpp:408] accuracy <- label_cifar_1_split_0
I0430 22:17:58.721608  1454 net.cpp:382] accuracy -> accuracy
…
