…
I0501 03:21:32.877825 20274 net.cpp:296] The NetState phase (0) differed from the phase (1) specified by a rule in layer cifar
I0501 03:21:32.877840 20274 net.cpp:296] The NetState phase (0) differed from the phase (1) specified by a rule in layer accuracy
I0501 03:21:32.877923 20274 net.cpp:53] Initializing net from parameters: 
name: "CIFAR"
state {
  phase: TRAIN
  level: 0
  stage: ""
}
layer {
  name: "cifar"
  type: "Data"
  top: "data"
  top: "label"
  include {
    phase: TRAIN
  }
  transform_param {
    mean_file: "examples/cifar10/mean.binaryproto"
  }
  data_param {
    source: "examples/cifar10/cifar10_train_lmdb"
    batch_size: 111
    backend: LMDB
  }
}
layer {
  name: "conv0"
  type: "Convolution"
  bottom: "data"
  top: "conv0"
  param {
    lr_mult: 1
  }
  param {
    lr_mult: 2
  }
  convolution_param {
    num_output: 8
    pad: 2
    kernel_size: 5
    stride: 1
    weight_filler {
      type: "gaussian"
      std: 0.01
    }
    bias_filler {
      type: "constant"
    }
  }
}
layer {
  name: "Sigmoid0"
  type: "Sigmoid"
  bottom: "conv0"
  top: "Sigmoid0"
}
layer {
  name: "pool0"
  type: "Pooling"
  bottom: "Sigmoid0"
  top: "pool0"
  pooling_param {
    pool: AVE
    kernel_size: 3
    stride: 2
  }
}
layer {
  name: "ip1"
  type: "InnerProduct"
  bottom: "pool0"
  top: "ip1"
  param {
    lr_mult: 1
  }
  param {
    lr_mult: 2
  }
  inner_product_param {
    num_output: 10
    weight_filler {
      type: "gaussian"
      std: 0.01
    }
    bias_filler {
      type: "constant"
    }
  }
}
layer {
  name: "relu1"
  type: "ReLU"
  bottom: "ip1"
  top: "ip1"
}
layer {
  name: "ip2"
  type: "InnerProduct"
  bottom: "ip1"
  top: "ip2"
  param {
    lr_mult: 1
  }
  param {
    lr_mult: 2
  }
  inner_product_param {
    num_output: 40
    weight_filler {
      type: "gaussian"
      std: 0.01
    }
    bias_filler {
      type: "constant"
    }
  }
}
layer {
  name: "relu2"
  type: "ReLU"
  bottom: "ip2"
  top: "ip2"
}
layer {
  name: "ip3"
  type: "InnerProduct"
  bottom: "ip2"
  top: "ip3"
  param {
    lr_mult: 1
  }
  param {
    lr_mult: 2
  }
  inner_product_param {
    num_output: 20
    weight_filler {
      type: "gaussian"
      std: 0.01
    }
    bias_filler {
      type: "constant"
    }
  }
}
layer {
  name: "relu3"
  type: "ReLU"
  bottom: "ip3"
  top: "ip3"
}
layer {
  name: "ip4"
  type: "InnerProduct"
  bottom: "ip3"
  top: "ip4"
  param {
    lr_mult: 1
  }
  param {
    lr_mult: 2
  }
  inner_product_param {
    num_output: 10
    weight_filler {
      type: "gaussian"
      std: 0.01
    }
    bias_filler {
      type: "constant"
    }
  }
}
layer {
  name: "loss"
  type: "SoftmaxWithLoss"
  bottom: "ip4"
  bottom: "label"
  top: "loss"
}
I0501 03:21:32.877985 20274 layer_factory.hpp:77] Creating layer cifar
I0501 03:21:32.878078 20274 db_lmdb.cpp:35] Opened lmdb examples/cifar10/cifar10_train_lmdb
I0501 03:21:32.878101 20274 net.cpp:86] Creating Layer cifar
I0501 03:21:32.878109 20274 net.cpp:382] cifar -> data
I0501 03:21:32.878129 20274 net.cpp:382] cifar -> label
I0501 03:21:32.878137 20274 data_transformer.cpp:25] Loading mean file from: examples/cifar10/mean.binaryproto
I0501 03:21:32.879880 20274 data_layer.cpp:45] output data size: 111,3,32,32
I0501 03:21:32.886554 20274 net.cpp:124] Setting up cifar
I0501 03:21:32.886600 20274 net.cpp:131] Top shape: 111 3 32 32 (340992)
I0501 03:21:32.886605 20274 net.cpp:131] Top shape: 111 (111)
I0501 03:21:32.886607 20274 net.cpp:139] Memory required for data: 1364412
I0501 03:21:32.886626 20274 layer_factory.hpp:77] Creating layer conv0
I0501 03:21:32.886642 20274 net.cpp:86] Creating Layer conv0
I0501 03:21:32.886646 20274 net.cpp:408] conv0 <- data
I0501 03:21:32.886657 20274 net.cpp:382] conv0 -> conv0
I0501 03:21:33.118696 20274 net.cpp:124] Setting up conv0
I0501 03:21:33.118738 20274 net.cpp:131] Top shape: 111 8 32 32 (909312)
I0501 03:21:33.118742 20274 net.cpp:139] Memory required for data: 5001660
I0501 03:21:33.118757 20274 layer_factory.hpp:77] Creating layer Sigmoid0
I0501 03:21:33.118769 20274 net.cpp:86] Creating Layer Sigmoid0
I0501 03:21:33.118777 20274 net.cpp:408] Sigmoid0 <- conv0
I0501 03:21:33.118782 20274 net.cpp:382] Sigmoid0 -> Sigmoid0
I0501 03:21:33.119005 20274 net.cpp:124] Setting up Sigmoid0
I0501 03:21:33.119014 20274 net.cpp:131] Top shape: 111 8 32 32 (909312)
I0501 03:21:33.119019 20274 net.cpp:139] Memory required for data: 8638908
I0501 03:21:33.119021 20274 layer_factory.hpp:77] Creating layer pool0
I0501 03:21:33.119029 20274 net.cpp:86] Creating Layer pool0
I0501 03:21:33.119031 20274 net.cpp:408] pool0 <- Sigmoid0
I0501 03:21:33.119036 20274 net.cpp:382] pool0 -> pool0
I0501 03:21:33.119784 20274 net.cpp:124] Setting up pool0
I0501 03:21:33.119797 20274 net.cpp:131] Top shape: 111 8 16 16 (227328)
I0501 03:21:33.119801 20274 net.cpp:139] Memory required for data: 9548220
I0501 03:21:33.119803 20274 layer_factory.hpp:77] Creating layer ip1
I0501 03:21:33.119812 20274 net.cpp:86] Creating Layer ip1
I0501 03:21:33.119830 20274 net.cpp:408] ip1 <- pool0
I0501 03:21:33.119835 20274 net.cpp:382] ip1 -> ip1
I0501 03:21:33.121315 20274 net.cpp:124] Setting up ip1
I0501 03:21:33.121326 20274 net.cpp:131] Top shape: 111 10 (1110)
I0501 03:21:33.121330 20274 net.cpp:139] Memory required for data: 9552660
I0501 03:21:33.121337 20274 layer_factory.hpp:77] Creating layer relu1
I0501 03:21:33.121343 20274 net.cpp:86] Creating Layer relu1
I0501 03:21:33.121346 20274 net.cpp:408] relu1 <- ip1
I0501 03:21:33.121351 20274 net.cpp:369] relu1 -> ip1 (in-place)
I0501 03:21:33.121507 20274 net.cpp:124] Setting up relu1
I0501 03:21:33.121515 20274 net.cpp:131] Top shape: 111 10 (1110)
I0501 03:21:33.121518 20274 net.cpp:139] Memory required for data: 9557100
I0501 03:21:33.121521 20274 layer_factory.hpp:77] Creating layer ip2
I0501 03:21:33.121527 20274 net.cpp:86] Creating Layer ip2
I0501 03:21:33.121531 20274 net.cpp:408] ip2 <- ip1
I0501 03:21:33.121534 20274 net.cpp:382] ip2 -> ip2
I0501 03:21:33.121629 20274 net.cpp:124] Setting up ip2
I0501 03:21:33.121636 20274 net.cpp:131] Top shape: 111 40 (4440)
I0501 03:21:33.121639 20274 net.cpp:139] Memory required for data: 9574860
I0501 03:21:33.121646 20274 layer_factory.hpp:77] Creating layer relu2
I0501 03:21:33.121654 20274 net.cpp:86] Creating Layer relu2
I0501 03:21:33.121656 20274 net.cpp:408] relu2 <- ip2
I0501 03:21:33.121660 20274 net.cpp:369] relu2 -> ip2 (in-place)
I0501 03:21:33.121795 20274 net.cpp:124] Setting up relu2
I0501 03:21:33.121803 20274 net.cpp:131] Top shape: 111 40 (4440)
I0501 03:21:33.121806 20274 net.cpp:139] Memory required for data: 9592620
I0501 03:21:33.121809 20274 layer_factory.hpp:77] Creating layer ip3
I0501 03:21:33.121815 20274 net.cpp:86] Creating Layer ip3
I0501 03:21:33.121819 20274 net.cpp:408] ip3 <- ip2
I0501 03:21:33.121822 20274 net.cpp:382] ip3 -> ip3
I0501 03:21:33.121960 20274 net.cpp:124] Setting up ip3
I0501 03:21:33.121966 20274 net.cpp:131] Top shape: 111 20 (2220)
I0501 03:21:33.121969 20274 net.cpp:139] Memory required for data: 9601500
I0501 03:21:33.121974 20274 layer_factory.hpp:77] Creating layer relu3
I0501 03:21:33.121978 20274 net.cpp:86] Creating Layer relu3
I0501 03:21:33.121981 20274 net.cpp:408] relu3 <- ip3
I0501 03:21:33.121985 20274 net.cpp:369] relu3 -> ip3 (in-place)
I0501 03:21:33.122138 20274 net.cpp:124] Setting up relu3
I0501 03:21:33.122144 20274 net.cpp:131] Top shape: 111 20 (2220)
I0501 03:21:33.122148 20274 net.cpp:139] Memory required for data: 9610380
I0501 03:21:33.122150 20274 layer_factory.hpp:77] Creating layer ip4
I0501 03:21:33.122169 20274 net.cpp:86] Creating Layer ip4
I0501 03:21:33.122172 20274 net.cpp:408] ip4 <- ip3
I0501 03:21:33.122177 20274 net.cpp:382] ip4 -> ip4
I0501 03:21:33.122267 20274 net.cpp:124] Setting up ip4
I0501 03:21:33.122275 20274 net.cpp:131] Top shape: 111 10 (1110)
I0501 03:21:33.122278 20274 net.cpp:139] Memory required for data: 9614820
I0501 03:21:33.122285 20274 layer_factory.hpp:77] Creating layer loss
I0501 03:21:33.122290 20274 net.cpp:86] Creating Layer loss
I0501 03:21:33.122293 20274 net.cpp:408] loss <- ip4
I0501 03:21:33.122311 20274 net.cpp:408] loss <- label
I0501 03:21:33.122316 20274 net.cpp:382] loss -> loss
I0501 03:21:33.122333 20274 layer_factory.hpp:77] Creating layer loss
…
I0501 03:21:33.123502 20274 solver.cpp:173] Creating test net (#0) specified by net file: ECE595/cifar/train_test/var_everything/cifar_train_test_351.prototxt
I0501 03:21:33.123528 20274 net.cpp:296] The NetState phase (1) differed from the phase (0) specified by a rule in layer cifar
I0501 03:21:33.123615 20274 net.cpp:53] Initializing net from parameters: 
name: "CIFAR"
state {
  phase: TEST
}
layer {
  name: "cifar"
  type: "Data"
  top: "data"
  top: "label"
  include {
    phase: TEST
  }
  transform_param {
    mean_file: "examples/cifar10/mean.binaryproto"
  }
  data_param {
    source: "examples/cifar10/cifar10_test_lmdb"
    batch_size: 1000
    backend: LMDB
  }
}
layer {
  name: "conv0"
  type: "Convolution"
  bottom: "data"
  top: "conv0"
  param {
    lr_mult: 1
  }
  param {
    lr_mult: 2
  }
  convolution_param {
    num_output: 8
    pad: 2
    kernel_size: 5
    stride: 1
    weight_filler {
      type: "gaussian"
      std: 0.01
    }
    bias_filler {
      type: "constant"
    }
  }
}
layer {
  name: "Sigmoid0"
  type: "Sigmoid"
  bottom: "conv0"
  top: "Sigmoid0"
}
layer {
  name: "pool0"
  type: "Pooling"
  bottom: "Sigmoid0"
  top: "pool0"
  pooling_param {
    pool: AVE
    kernel_size: 3
    stride: 2
  }
}
layer {
  name: "ip1"
  type: "InnerProduct"
  bottom: "pool0"
  top: "ip1"
  param {
    lr_mult: 1
  }
  param {
    lr_mult: 2
  }
  inner_product_param {
    num_output: 10
    weight_filler {
      type: "gaussian"
      std: 0.01
    }
    bias_filler {
      type: "constant"
    }
  }
}
layer {
  name: "relu1"
  type: "ReLU"
  bottom: "ip1"
  top: "ip1"
}
layer {
  name: "ip2"
  type: "InnerProduct"
  bottom: "ip1"
  top: "ip2"
  param {
    lr_mult: 1
  }
  param {
    lr_mult: 2
  }
  inner_product_param {
    num_output: 40
    weight_filler {
      type: "gaussian"
      std: 0.01
    }
    bias_filler {
      type: "constant"
    }
  }
}
layer {
  name: "relu2"
  type: "ReLU"
  bottom: "ip2"
  top: "ip2"
}
layer {
  name: "ip3"
  type: "InnerProduct"
  bottom: "ip2"
  top: "ip3"
  param {
    lr_mult: 1
  }
  param {
    lr_mult: 2
  }
  inner_product_param {
    num_output: 20
    weight_filler {
      type: "gaussian"
      std: 0.01
    }
    bias_filler {
      type: "constant"
    }
  }
}
layer {
  name: "relu3"
  type: "ReLU"
  bottom: "ip3"
  top: "ip3"
}
layer {
  name: "ip4"
  type: "InnerProduct"
  bottom: "ip3"
  top: "ip4"
  param {
    lr_mult: 1
  }
  param {
    lr_mult: 2
  }
  inner_product_param {
    num_output: 10
    weight_filler {
      type: "gaussian"
      std: 0.01
    }
    bias_filler {
      type: "constant"
    }
  }
}
layer {
  name: "accuracy"
  type: "Accuracy"
  bottom: "ip4"
  bottom: "label"
  top: "accuracy"
  include {
    phase: TEST
  }
}
layer {
  name: "loss"
  type: "SoftmaxWithLoss"
  bottom: "ip4"
  bottom: "label"
  top: "loss"
}
I0501 03:21:33.123688 20274 layer_factory.hpp:77] Creating layer cifar
I0501 03:21:33.123733 20274 db_lmdb.cpp:35] Opened lmdb examples/cifar10/cifar10_test_lmdb
I0501 03:21:33.123744 20274 net.cpp:86] Creating Layer cifar
I0501 03:21:33.123749 20274 net.cpp:382] cifar -> data
I0501 03:21:33.123755 20274 net.cpp:382] cifar -> label
I0501 03:21:33.123762 20274 data_transformer.cpp:25] Loading mean file from: examples/cifar10/mean.binaryproto
I0501 03:21:33.123890 20274 data_layer.cpp:45] output data size: 1000,3,32,32
I0501 03:21:33.145434 20274 net.cpp:124] Setting up cifar
I0501 03:21:33.145474 20274 net.cpp:131] Top shape: 1000 3 32 32 (3072000)
I0501 03:21:33.145480 20274 net.cpp:131] Top shape: 1000 (1000)
I0501 03:21:33.145483 20274 net.cpp:139] Memory required for data: 12292000
I0501 03:21:33.145489 20274 layer_factory.hpp:77] Creating layer label_cifar_1_split
I0501 03:21:33.145504 20274 net.cpp:86] Creating Layer label_cifar_1_split
I0501 03:21:33.145509 20274 net.cpp:408] label_cifar_1_split <- label
I0501 03:21:33.145514 20274 net.cpp:382] label_cifar_1_split -> label_cifar_1_split_0
I0501 03:21:33.145539 20274 net.cpp:382] label_cifar_1_split -> label_cifar_1_split_1
I0501 03:21:33.145642 20274 net.cpp:124] Setting up label_cifar_1_split
I0501 03:21:33.145650 20274 net.cpp:131] Top shape: 1000 (1000)
I0501 03:21:33.145654 20274 net.cpp:131] Top shape: 1000 (1000)
I0501 03:21:33.145656 20274 net.cpp:139] Memory required for data: 12300000
I0501 03:21:33.145659 20274 layer_factory.hpp:77] Creating layer conv0
I0501 03:21:33.145671 20274 net.cpp:86] Creating Layer conv0
I0501 03:21:33.145674 20274 net.cpp:408] conv0 <- data
I0501 03:21:33.145679 20274 net.cpp:382] conv0 -> conv0
I0501 03:21:33.147156 20274 net.cpp:124] Setting up conv0
I0501 03:21:33.147188 20274 net.cpp:131] Top shape: 1000 8 32 32 (8192000)
I0501 03:21:33.147192 20274 net.cpp:139] Memory required for data: 45068000
I0501 03:21:33.147202 20274 layer_factory.hpp:77] Creating layer Sigmoid0
I0501 03:21:33.147209 20274 net.cpp:86] Creating Layer Sigmoid0
I0501 03:21:33.147213 20274 net.cpp:408] Sigmoid0 <- conv0
I0501 03:21:33.147217 20274 net.cpp:382] Sigmoid0 -> Sigmoid0
I0501 03:21:33.148388 20274 net.cpp:124] Setting up Sigmoid0
I0501 03:21:33.148398 20274 net.cpp:131] Top shape: 1000 8 32 32 (8192000)
I0501 03:21:33.148417 20274 net.cpp:139] Memory required for data: 77836000
I0501 03:21:33.148422 20274 layer_factory.hpp:77] Creating layer pool0
I0501 03:21:33.148429 20274 net.cpp:86] Creating Layer pool0
I0501 03:21:33.148433 20274 net.cpp:408] pool0 <- Sigmoid0
I0501 03:21:33.148437 20274 net.cpp:382] pool0 -> pool0
I0501 03:21:33.148622 20274 net.cpp:124] Setting up pool0
I0501 03:21:33.148630 20274 net.cpp:131] Top shape: 1000 8 16 16 (2048000)
I0501 03:21:33.148634 20274 net.cpp:139] Memory required for data: 86028000
I0501 03:21:33.148638 20274 layer_factory.hpp:77] Creating layer ip1
I0501 03:21:33.148644 20274 net.cpp:86] Creating Layer ip1
I0501 03:21:33.148648 20274 net.cpp:408] ip1 <- pool0
I0501 03:21:33.148653 20274 net.cpp:382] ip1 -> ip1
I0501 03:21:33.149332 20274 net.cpp:124] Setting up ip1
I0501 03:21:33.149339 20274 net.cpp:131] Top shape: 1000 10 (10000)
I0501 03:21:33.149358 20274 net.cpp:139] Memory required for data: 86068000
I0501 03:21:33.149394 20274 layer_factory.hpp:77] Creating layer relu1
I0501 03:21:33.149399 20274 net.cpp:86] Creating Layer relu1
I0501 03:21:33.149404 20274 net.cpp:408] relu1 <- ip1
I0501 03:21:33.149423 20274 net.cpp:369] relu1 -> ip1 (in-place)
I0501 03:21:33.149575 20274 net.cpp:124] Setting up relu1
I0501 03:21:33.149585 20274 net.cpp:131] Top shape: 1000 10 (10000)
I0501 03:21:33.149587 20274 net.cpp:139] Memory required for data: 86108000
I0501 03:21:33.149590 20274 layer_factory.hpp:77] Creating layer ip2
I0501 03:21:33.149596 20274 net.cpp:86] Creating Layer ip2
I0501 03:21:33.149600 20274 net.cpp:408] ip2 <- ip1
I0501 03:21:33.149605 20274 net.cpp:382] ip2 -> ip2
I0501 03:21:33.149732 20274 net.cpp:124] Setting up ip2
I0501 03:21:33.149739 20274 net.cpp:131] Top shape: 1000 40 (40000)
I0501 03:21:33.149742 20274 net.cpp:139] Memory required for data: 86268000
I0501 03:21:33.149749 20274 layer_factory.hpp:77] Creating layer relu2
I0501 03:21:33.149755 20274 net.cpp:86] Creating Layer relu2
I0501 03:21:33.149758 20274 net.cpp:408] relu2 <- ip2
I0501 03:21:33.149762 20274 net.cpp:369] relu2 -> ip2 (in-place)
I0501 03:21:33.150496 20274 net.cpp:124] Setting up relu2
I0501 03:21:33.150508 20274 net.cpp:131] Top shape: 1000 40 (40000)
I0501 03:21:33.150527 20274 net.cpp:139] Memory required for data: 86428000
I0501 03:21:33.150532 20274 layer_factory.hpp:77] Creating layer ip3
I0501 03:21:33.150538 20274 net.cpp:86] Creating Layer ip3
I0501 03:21:33.150542 20274 net.cpp:408] ip3 <- ip2
I0501 03:21:33.150547 20274 net.cpp:382] ip3 -> ip3
I0501 03:21:33.150686 20274 net.cpp:124] Setting up ip3
I0501 03:21:33.150694 20274 net.cpp:131] Top shape: 1000 20 (20000)
I0501 03:21:33.150697 20274 net.cpp:139] Memory required for data: 86508000
I0501 03:21:33.150703 20274 layer_factory.hpp:77] Creating layer relu3
I0501 03:21:33.150708 20274 net.cpp:86] Creating Layer relu3
I0501 03:21:33.150712 20274 net.cpp:408] relu3 <- ip3
I0501 03:21:33.150715 20274 net.cpp:369] relu3 -> ip3 (in-place)
I0501 03:21:33.150869 20274 net.cpp:124] Setting up relu3
I0501 03:21:33.150876 20274 net.cpp:131] Top shape: 1000 20 (20000)
I0501 03:21:33.150879 20274 net.cpp:139] Memory required for data: 86588000
I0501 03:21:33.150882 20274 layer_factory.hpp:77] Creating layer ip4
I0501 03:21:33.150889 20274 net.cpp:86] Creating Layer ip4
I0501 03:21:33.150892 20274 net.cpp:408] ip4 <- ip3
I0501 03:21:33.150897 20274 net.cpp:382] ip4 -> ip4
I0501 03:21:33.150996 20274 net.cpp:124] Setting up ip4
I0501 03:21:33.151003 20274 net.cpp:131] Top shape: 1000 10 (10000)
I0501 03:21:33.151006 20274 net.cpp:139] Memory required for data: 86628000
I0501 03:21:33.151015 20274 layer_factory.hpp:77] Creating layer ip4_ip4_0_split
I0501 03:21:33.151021 20274 net.cpp:86] Creating Layer ip4_ip4_0_split
I0501 03:21:33.151023 20274 net.cpp:408] ip4_ip4_0_split <- ip4
I0501 03:21:33.151027 20274 net.cpp:382] ip4_ip4_0_split -> ip4_ip4_0_split_0
I0501 03:21:33.151032 20274 net.cpp:382] ip4_ip4_0_split -> ip4_ip4_0_split_1
I0501 03:21:33.151060 20274 net.cpp:124] Setting up ip4_ip4_0_split
I0501 03:21:33.151065 20274 net.cpp:131] Top shape: 1000 10 (10000)
I0501 03:21:33.151068 20274 net.cpp:131] Top shape: 1000 10 (10000)
I0501 03:21:33.151072 20274 net.cpp:139] Memory required for data: 86708000
I0501 03:21:33.151074 20274 layer_factory.hpp:77] Creating layer accuracy
I0501 03:21:33.151079 20274 net.cpp:86] Creating Layer accuracy
I0501 03:21:33.151082 20274 net.cpp:408] accuracy <- ip4_ip4_0_split_0
I0501 03:21:33.151087 20274 net.cpp:408] accuracy <- label_cifar_1_split_0
I0501 03:21:33.151090 20274 net.cpp:382] accuracy -> accuracy
…
