…
I0430 22:46:15.451926  3289 net.cpp:296] The NetState phase (0) differed from the phase (1) specified by a rule in layer cifar
I0430 22:46:15.451947  3289 net.cpp:296] The NetState phase (0) differed from the phase (1) specified by a rule in layer accuracy
I0430 22:46:15.452074  3289 net.cpp:53] Initializing net from parameters: 
name: "CIFAR"
state {
  phase: TRAIN
  level: 0
  stage: ""
}
layer {
  name: "cifar"
  type: "Data"
  top: "data"
  top: "label"
  include {
    phase: TRAIN
  }
  transform_param {
    mean_file: "examples/cifar10/mean.binaryproto"
  }
  data_param {
    source: "examples/cifar10/cifar10_train_lmdb"
    batch_size: 111
    backend: LMDB
  }
}
layer {
  name: "conv0"
  type: "Convolution"
  bottom: "data"
  top: "conv0"
  param {
    lr_mult: 1
  }
  param {
    lr_mult: 2
  }
  convolution_param {
    num_output: 8
    pad: 2
    kernel_size: 3
    stride: 1
    weight_filler {
      type: "gaussian"
      std: 0.01
    }
    bias_filler {
      type: "constant"
    }
  }
}
layer {
  name: "Sigmoid0"
  type: "Sigmoid"
  bottom: "conv0"
  top: "Sigmoid0"
}
layer {
  name: "pool0"
  type: "Pooling"
  bottom: "Sigmoid0"
  top: "pool0"
  pooling_param {
    pool: AVE
    kernel_size: 3
    stride: 2
  }
}
layer {
  name: "ip1"
  type: "InnerProduct"
  bottom: "pool0"
  top: "ip1"
  param {
    lr_mult: 1
  }
  param {
    lr_mult: 2
  }
  inner_product_param {
    num_output: 10
    weight_filler {
      type: "gaussian"
      std: 0.01
    }
    bias_filler {
      type: "constant"
    }
  }
}
layer {
  name: "relu1"
  type: "ReLU"
  bottom: "ip1"
  top: "ip1"
}
layer {
  name: "ip2"
  type: "InnerProduct"
  bottom: "ip1"
  top: "ip2"
  param {
    lr_mult: 1
  }
  param {
    lr_mult: 2
  }
  inner_product_param {
    num_output: 80
    weight_filler {
      type: "gaussian"
      std: 0.01
    }
    bias_filler {
      type: "constant"
    }
  }
}
layer {
  name: "relu2"
  type: "ReLU"
  bottom: "ip2"
  top: "ip2"
}
layer {
  name: "ip3"
  type: "InnerProduct"
  bottom: "ip2"
  top: "ip3"
  param {
    lr_mult: 1
  }
  param {
    lr_mult: 2
  }
  inner_product_param {
    num_output: 160
    weight_filler {
      type: "gaussian"
      std: 0.01
    }
    bias_filler {
      type: "constant"
    }
  }
}
layer {
  name: "relu3"
  type: "ReLU"
  bottom: "ip3"
  top: "ip3"
}
layer {
  name: "ip4"
  type: "InnerProduct"
  bottom: "ip3"
  top: "ip4"
  param {
    lr_mult: 1
  }
  param {
    lr_mult: 2
  }
  inner_product_param {
    num_output: 10
    weight_filler {
      type: "gaussian"
      std: 0.01
    }
    bias_filler {
      type: "constant"
    }
  }
}
layer {
  name: "loss"
  type: "SoftmaxWithLoss"
  bottom: "ip4"
  bottom: "label"
  top: "loss"
}
I0430 22:46:15.452178  3289 layer_factory.hpp:77] Creating layer cifar
I0430 22:46:15.452307  3289 db_lmdb.cpp:35] Opened lmdb examples/cifar10/cifar10_train_lmdb
I0430 22:46:15.452345  3289 net.cpp:86] Creating Layer cifar
I0430 22:46:15.452360  3289 net.cpp:382] cifar -> data
I0430 22:46:15.452389  3289 net.cpp:382] cifar -> label
I0430 22:46:15.452405  3289 data_transformer.cpp:25] Loading mean file from: examples/cifar10/mean.binaryproto
I0430 22:46:15.454777  3289 data_layer.cpp:45] output data size: 111,3,32,32
I0430 22:46:15.462683  3289 net.cpp:124] Setting up cifar
I0430 22:46:15.462702  3289 net.cpp:131] Top shape: 111 3 32 32 (340992)
I0430 22:46:15.462708  3289 net.cpp:131] Top shape: 111 (111)
I0430 22:46:15.462713  3289 net.cpp:139] Memory required for data: 1364412
I0430 22:46:15.462740  3289 layer_factory.hpp:77] Creating layer conv0
I0430 22:46:15.462759  3289 net.cpp:86] Creating Layer conv0
I0430 22:46:15.462764  3289 net.cpp:408] conv0 <- data
I0430 22:46:15.462780  3289 net.cpp:382] conv0 -> conv0
I0430 22:46:15.745157  3289 net.cpp:124] Setting up conv0
I0430 22:46:15.745183  3289 net.cpp:131] Top shape: 111 8 34 34 (1026528)
I0430 22:46:15.745187  3289 net.cpp:139] Memory required for data: 5470524
I0430 22:46:15.745201  3289 layer_factory.hpp:77] Creating layer Sigmoid0
I0430 22:46:15.745213  3289 net.cpp:86] Creating Layer Sigmoid0
I0430 22:46:15.745218  3289 net.cpp:408] Sigmoid0 <- conv0
I0430 22:46:15.745223  3289 net.cpp:382] Sigmoid0 -> Sigmoid0
I0430 22:46:15.745421  3289 net.cpp:124] Setting up Sigmoid0
I0430 22:46:15.745431  3289 net.cpp:131] Top shape: 111 8 34 34 (1026528)
I0430 22:46:15.745434  3289 net.cpp:139] Memory required for data: 9576636
I0430 22:46:15.745438  3289 layer_factory.hpp:77] Creating layer pool0
I0430 22:46:15.745447  3289 net.cpp:86] Creating Layer pool0
I0430 22:46:15.745453  3289 net.cpp:408] pool0 <- Sigmoid0
I0430 22:46:15.745460  3289 net.cpp:382] pool0 -> pool0
I0430 22:46:15.746191  3289 net.cpp:124] Setting up pool0
I0430 22:46:15.746204  3289 net.cpp:131] Top shape: 111 8 17 17 (256632)
I0430 22:46:15.746208  3289 net.cpp:139] Memory required for data: 10603164
I0430 22:46:15.746212  3289 layer_factory.hpp:77] Creating layer ip1
I0430 22:46:15.746220  3289 net.cpp:86] Creating Layer ip1
I0430 22:46:15.746223  3289 net.cpp:408] ip1 <- pool0
I0430 22:46:15.746228  3289 net.cpp:382] ip1 -> ip1
I0430 22:46:15.747761  3289 net.cpp:124] Setting up ip1
I0430 22:46:15.747772  3289 net.cpp:131] Top shape: 111 10 (1110)
I0430 22:46:15.747776  3289 net.cpp:139] Memory required for data: 10607604
I0430 22:46:15.747784  3289 layer_factory.hpp:77] Creating layer relu1
I0430 22:46:15.747790  3289 net.cpp:86] Creating Layer relu1
I0430 22:46:15.747793  3289 net.cpp:408] relu1 <- ip1
I0430 22:46:15.747797  3289 net.cpp:369] relu1 -> ip1 (in-place)
I0430 22:46:15.747969  3289 net.cpp:124] Setting up relu1
I0430 22:46:15.747979  3289 net.cpp:131] Top shape: 111 10 (1110)
I0430 22:46:15.747982  3289 net.cpp:139] Memory required for data: 10612044
I0430 22:46:15.747987  3289 layer_factory.hpp:77] Creating layer ip2
I0430 22:46:15.747995  3289 net.cpp:86] Creating Layer ip2
I0430 22:46:15.748000  3289 net.cpp:408] ip2 <- ip1
I0430 22:46:15.748008  3289 net.cpp:382] ip2 -> ip2
I0430 22:46:15.748941  3289 net.cpp:124] Setting up ip2
I0430 22:46:15.748953  3289 net.cpp:131] Top shape: 111 80 (8880)
I0430 22:46:15.748956  3289 net.cpp:139] Memory required for data: 10647564
I0430 22:46:15.748965  3289 layer_factory.hpp:77] Creating layer relu2
I0430 22:46:15.748970  3289 net.cpp:86] Creating Layer relu2
I0430 22:46:15.748973  3289 net.cpp:408] relu2 <- ip2
I0430 22:46:15.748977  3289 net.cpp:369] relu2 -> ip2 (in-place)
I0430 22:46:15.749155  3289 net.cpp:124] Setting up relu2
I0430 22:46:15.749166  3289 net.cpp:131] Top shape: 111 80 (8880)
I0430 22:46:15.749168  3289 net.cpp:139] Memory required for data: 10683084
I0430 22:46:15.749172  3289 layer_factory.hpp:77] Creating layer ip3
I0430 22:46:15.749182  3289 net.cpp:86] Creating Layer ip3
I0430 22:46:15.749187  3289 net.cpp:408] ip3 <- ip2
I0430 22:46:15.749195  3289 net.cpp:382] ip3 -> ip3
I0430 22:46:15.750425  3289 net.cpp:124] Setting up ip3
I0430 22:46:15.750437  3289 net.cpp:131] Top shape: 111 160 (17760)
I0430 22:46:15.750440  3289 net.cpp:139] Memory required for data: 10754124
I0430 22:46:15.750447  3289 layer_factory.hpp:77] Creating layer relu3
I0430 22:46:15.750452  3289 net.cpp:86] Creating Layer relu3
I0430 22:46:15.750454  3289 net.cpp:408] relu3 <- ip3
I0430 22:46:15.750459  3289 net.cpp:369] relu3 -> ip3 (in-place)
I0430 22:46:15.750633  3289 net.cpp:124] Setting up relu3
I0430 22:46:15.750643  3289 net.cpp:131] Top shape: 111 160 (17760)
I0430 22:46:15.750645  3289 net.cpp:139] Memory required for data: 10825164
I0430 22:46:15.750649  3289 layer_factory.hpp:77] Creating layer ip4
I0430 22:46:15.750682  3289 net.cpp:86] Creating Layer ip4
I0430 22:46:15.750689  3289 net.cpp:408] ip4 <- ip3
I0430 22:46:15.750696  3289 net.cpp:382] ip4 -> ip4
I0430 22:46:15.750844  3289 net.cpp:124] Setting up ip4
I0430 22:46:15.750854  3289 net.cpp:131] Top shape: 111 10 (1110)
I0430 22:46:15.750856  3289 net.cpp:139] Memory required for data: 10829604
I0430 22:46:15.750866  3289 layer_factory.hpp:77] Creating layer loss
I0430 22:46:15.750875  3289 net.cpp:86] Creating Layer loss
I0430 22:46:15.750880  3289 net.cpp:408] loss <- ip4
I0430 22:46:15.750886  3289 net.cpp:408] loss <- label
I0430 22:46:15.750895  3289 net.cpp:382] loss -> loss
I0430 22:46:15.750916  3289 layer_factory.hpp:77] Creating layer loss
…
I0430 22:46:15.752131  3289 solver.cpp:173] Creating test net (#0) specified by net file: ECE595/cifar/train_test/var_everything/cifar_train_test_204.prototxt
I0430 22:46:15.752164  3289 net.cpp:296] The NetState phase (1) differed from the phase (0) specified by a rule in layer cifar
I0430 22:46:15.752265  3289 net.cpp:53] Initializing net from parameters: 
name: "CIFAR"
state {
  phase: TEST
}
layer {
  name: "cifar"
  type: "Data"
  top: "data"
  top: "label"
  include {
    phase: TEST
  }
  transform_param {
    mean_file: "examples/cifar10/mean.binaryproto"
  }
  data_param {
    source: "examples/cifar10/cifar10_test_lmdb"
    batch_size: 1000
    backend: LMDB
  }
}
layer {
  name: "conv0"
  type: "Convolution"
  bottom: "data"
  top: "conv0"
  param {
    lr_mult: 1
  }
  param {
    lr_mult: 2
  }
  convolution_param {
    num_output: 8
    pad: 2
    kernel_size: 3
    stride: 1
    weight_filler {
      type: "gaussian"
      std: 0.01
    }
    bias_filler {
      type: "constant"
    }
  }
}
layer {
  name: "Sigmoid0"
  type: "Sigmoid"
  bottom: "conv0"
  top: "Sigmoid0"
}
layer {
  name: "pool0"
  type: "Pooling"
  bottom: "Sigmoid0"
  top: "pool0"
  pooling_param {
    pool: AVE
    kernel_size: 3
    stride: 2
  }
}
layer {
  name: "ip1"
  type: "InnerProduct"
  bottom: "pool0"
  top: "ip1"
  param {
    lr_mult: 1
  }
  param {
    lr_mult: 2
  }
  inner_product_param {
    num_output: 10
    weight_filler {
      type: "gaussian"
      std: 0.01
    }
    bias_filler {
      type: "constant"
    }
  }
}
layer {
  name: "relu1"
  type: "ReLU"
  bottom: "ip1"
  top: "ip1"
}
layer {
  name: "ip2"
  type: "InnerProduct"
  bottom: "ip1"
  top: "ip2"
  param {
    lr_mult: 1
  }
  param {
    lr_mult: 2
  }
  inner_product_param {
    num_output: 80
    weight_filler {
      type: "gaussian"
      std: 0.01
    }
    bias_filler {
      type: "constant"
    }
  }
}
layer {
  name: "relu2"
  type: "ReLU"
  bottom: "ip2"
  top: "ip2"
}
layer {
  name: "ip3"
  type: "InnerProduct"
  bottom: "ip2"
  top: "ip3"
  param {
    lr_mult: 1
  }
  param {
    lr_mult: 2
  }
  inner_product_param {
    num_output: 160
    weight_filler {
      type: "gaussian"
      std: 0.01
    }
    bias_filler {
      type: "constant"
    }
  }
}
layer {
  name: "relu3"
  type: "ReLU"
  bottom: "ip3"
  top: "ip3"
}
layer {
  name: "ip4"
  type: "InnerProduct"
  bottom: "ip3"
  top: "ip4"
  param {
    lr_mult: 1
  }
  param {
    lr_mult: 2
  }
  inner_product_param {
    num_output: 10
    weight_filler {
      type: "gaussian"
      std: 0.01
    }
    bias_filler {
      type: "constant"
    }
  }
}
layer {
  name: "accuracy"
  type: "Accuracy"
  bottom: "ip4"
  bottom: "label"
  top: "accuracy"
  include {
    phase: TEST
  }
}
layer {
  name: "loss"
  type: "SoftmaxWithLoss"
  bottom: "ip4"
  bottom: "label"
  top: "loss"
}
I0430 22:46:15.752370  3289 layer_factory.hpp:77] Creating layer cifar
I0430 22:46:15.752429  3289 db_lmdb.cpp:35] Opened lmdb examples/cifar10/cifar10_test_lmdb
I0430 22:46:15.752445  3289 net.cpp:86] Creating Layer cifar
I0430 22:46:15.752454  3289 net.cpp:382] cifar -> data
I0430 22:46:15.752465  3289 net.cpp:382] cifar -> label
I0430 22:46:15.752475  3289 data_transformer.cpp:25] Loading mean file from: examples/cifar10/mean.binaryproto
I0430 22:46:15.752665  3289 data_layer.cpp:45] output data size: 1000,3,32,32
I0430 22:46:15.774605  3289 net.cpp:124] Setting up cifar
I0430 22:46:15.774646  3289 net.cpp:131] Top shape: 1000 3 32 32 (3072000)
I0430 22:46:15.774652  3289 net.cpp:131] Top shape: 1000 (1000)
I0430 22:46:15.774654  3289 net.cpp:139] Memory required for data: 12292000
I0430 22:46:15.774662  3289 layer_factory.hpp:77] Creating layer label_cifar_1_split
I0430 22:46:15.774673  3289 net.cpp:86] Creating Layer label_cifar_1_split
I0430 22:46:15.774677  3289 net.cpp:408] label_cifar_1_split <- label
I0430 22:46:15.774683  3289 net.cpp:382] label_cifar_1_split -> label_cifar_1_split_0
I0430 22:46:15.774694  3289 net.cpp:382] label_cifar_1_split -> label_cifar_1_split_1
I0430 22:46:15.774796  3289 net.cpp:124] Setting up label_cifar_1_split
I0430 22:46:15.774803  3289 net.cpp:131] Top shape: 1000 (1000)
I0430 22:46:15.774807  3289 net.cpp:131] Top shape: 1000 (1000)
I0430 22:46:15.774811  3289 net.cpp:139] Memory required for data: 12300000
I0430 22:46:15.774814  3289 layer_factory.hpp:77] Creating layer conv0
I0430 22:46:15.774830  3289 net.cpp:86] Creating Layer conv0
I0430 22:46:15.774835  3289 net.cpp:408] conv0 <- data
I0430 22:46:15.774844  3289 net.cpp:382] conv0 -> conv0
I0430 22:46:15.776325  3289 net.cpp:124] Setting up conv0
I0430 22:46:15.776338  3289 net.cpp:131] Top shape: 1000 8 34 34 (9248000)
I0430 22:46:15.776357  3289 net.cpp:139] Memory required for data: 49292000
I0430 22:46:15.776366  3289 layer_factory.hpp:77] Creating layer Sigmoid0
I0430 22:46:15.776373  3289 net.cpp:86] Creating Layer Sigmoid0
I0430 22:46:15.776376  3289 net.cpp:408] Sigmoid0 <- conv0
I0430 22:46:15.776381  3289 net.cpp:382] Sigmoid0 -> Sigmoid0
I0430 22:46:15.776561  3289 net.cpp:124] Setting up Sigmoid0
I0430 22:46:15.776571  3289 net.cpp:131] Top shape: 1000 8 34 34 (9248000)
I0430 22:46:15.776574  3289 net.cpp:139] Memory required for data: 86284000
I0430 22:46:15.776577  3289 layer_factory.hpp:77] Creating layer pool0
I0430 22:46:15.776588  3289 net.cpp:86] Creating Layer pool0
I0430 22:46:15.776593  3289 net.cpp:408] pool0 <- Sigmoid0
I0430 22:46:15.776599  3289 net.cpp:382] pool0 -> pool0
I0430 22:46:15.776872  3289 net.cpp:124] Setting up pool0
I0430 22:46:15.776882  3289 net.cpp:131] Top shape: 1000 8 17 17 (2312000)
I0430 22:46:15.776886  3289 net.cpp:139] Memory required for data: 95532000
I0430 22:46:15.776890  3289 layer_factory.hpp:77] Creating layer ip1
I0430 22:46:15.776901  3289 net.cpp:86] Creating Layer ip1
I0430 22:46:15.776906  3289 net.cpp:408] ip1 <- pool0
I0430 22:46:15.776913  3289 net.cpp:382] ip1 -> ip1
I0430 22:46:15.778513  3289 net.cpp:124] Setting up ip1
I0430 22:46:15.778522  3289 net.cpp:131] Top shape: 1000 10 (10000)
I0430 22:46:15.778540  3289 net.cpp:139] Memory required for data: 95572000
I0430 22:46:15.778563  3289 layer_factory.hpp:77] Creating layer relu1
I0430 22:46:15.778568  3289 net.cpp:86] Creating Layer relu1
I0430 22:46:15.778573  3289 net.cpp:408] relu1 <- ip1
I0430 22:46:15.778578  3289 net.cpp:369] relu1 -> ip1 (in-place)
I0430 22:46:15.778750  3289 net.cpp:124] Setting up relu1
I0430 22:46:15.778759  3289 net.cpp:131] Top shape: 1000 10 (10000)
I0430 22:46:15.778762  3289 net.cpp:139] Memory required for data: 95612000
I0430 22:46:15.778766  3289 layer_factory.hpp:77] Creating layer ip2
I0430 22:46:15.778775  3289 net.cpp:86] Creating Layer ip2
I0430 22:46:15.778780  3289 net.cpp:408] ip2 <- ip1
I0430 22:46:15.778789  3289 net.cpp:382] ip2 -> ip2
I0430 22:46:15.778930  3289 net.cpp:124] Setting up ip2
I0430 22:46:15.778939  3289 net.cpp:131] Top shape: 1000 80 (80000)
I0430 22:46:15.778941  3289 net.cpp:139] Memory required for data: 95932000
I0430 22:46:15.778951  3289 layer_factory.hpp:77] Creating layer relu2
I0430 22:46:15.778960  3289 net.cpp:86] Creating Layer relu2
I0430 22:46:15.778965  3289 net.cpp:408] relu2 <- ip2
I0430 22:46:15.778972  3289 net.cpp:369] relu2 -> ip2 (in-place)
I0430 22:46:15.779734  3289 net.cpp:124] Setting up relu2
I0430 22:46:15.779747  3289 net.cpp:131] Top shape: 1000 80 (80000)
I0430 22:46:15.779768  3289 net.cpp:139] Memory required for data: 96252000
I0430 22:46:15.779772  3289 layer_factory.hpp:77] Creating layer ip3
I0430 22:46:15.779778  3289 net.cpp:86] Creating Layer ip3
I0430 22:46:15.779783  3289 net.cpp:408] ip3 <- ip2
I0430 22:46:15.779788  3289 net.cpp:382] ip3 -> ip3
I0430 22:46:15.780248  3289 net.cpp:124] Setting up ip3
I0430 22:46:15.780256  3289 net.cpp:131] Top shape: 1000 160 (160000)
I0430 22:46:15.780274  3289 net.cpp:139] Memory required for data: 96892000
I0430 22:46:15.780280  3289 layer_factory.hpp:77] Creating layer relu3
I0430 22:46:15.780285  3289 net.cpp:86] Creating Layer relu3
I0430 22:46:15.780288  3289 net.cpp:408] relu3 <- ip3
I0430 22:46:15.780292  3289 net.cpp:369] relu3 -> ip3 (in-place)
I0430 22:46:15.780453  3289 net.cpp:124] Setting up relu3
I0430 22:46:15.780462  3289 net.cpp:131] Top shape: 1000 160 (160000)
I0430 22:46:15.780465  3289 net.cpp:139] Memory required for data: 97532000
I0430 22:46:15.780468  3289 layer_factory.hpp:77] Creating layer ip4
I0430 22:46:15.780478  3289 net.cpp:86] Creating Layer ip4
I0430 22:46:15.780483  3289 net.cpp:408] ip4 <- ip3
I0430 22:46:15.780491  3289 net.cpp:382] ip4 -> ip4
I0430 22:46:15.780637  3289 net.cpp:124] Setting up ip4
I0430 22:46:15.780643  3289 net.cpp:131] Top shape: 1000 10 (10000)
I0430 22:46:15.780647  3289 net.cpp:139] Memory required for data: 97572000
I0430 22:46:15.780656  3289 layer_factory.hpp:77] Creating layer ip4_ip4_0_split
I0430 22:46:15.780664  3289 net.cpp:86] Creating Layer ip4_ip4_0_split
I0430 22:46:15.780669  3289 net.cpp:408] ip4_ip4_0_split <- ip4
I0430 22:46:15.780675  3289 net.cpp:382] ip4_ip4_0_split -> ip4_ip4_0_split_0
I0430 22:46:15.780683  3289 net.cpp:382] ip4_ip4_0_split -> ip4_ip4_0_split_1
I0430 22:46:15.780725  3289 net.cpp:124] Setting up ip4_ip4_0_split
I0430 22:46:15.780731  3289 net.cpp:131] Top shape: 1000 10 (10000)
I0430 22:46:15.780735  3289 net.cpp:131] Top shape: 1000 10 (10000)
I0430 22:46:15.780738  3289 net.cpp:139] Memory required for data: 97652000
I0430 22:46:15.780742  3289 layer_factory.hpp:77] Creating layer accuracy
I0430 22:46:15.780750  3289 net.cpp:86] Creating Layer accuracy
I0430 22:46:15.780755  3289 net.cpp:408] accuracy <- ip4_ip4_0_split_0
I0430 22:46:15.780761  3289 net.cpp:408] accuracy <- label_cifar_1_split_0
I0430 22:46:15.780768  3289 net.cpp:382] accuracy -> accuracy
…
