…
I0501 05:37:19.666533 29756 net.cpp:296] The NetState phase (0) differed from the phase (1) specified by a rule in layer cifar
I0501 05:37:19.666551 29756 net.cpp:296] The NetState phase (0) differed from the phase (1) specified by a rule in layer accuracy
I0501 05:37:19.666658 29756 net.cpp:53] Initializing net from parameters: 
name: "CIFAR"
state {
  phase: TRAIN
  level: 0
  stage: ""
}
layer {
  name: "cifar"
  type: "Data"
  top: "data"
  top: "label"
  include {
    phase: TRAIN
  }
  transform_param {
    mean_file: "examples/cifar10/mean.binaryproto"
  }
  data_param {
    source: "examples/cifar10/cifar10_train_lmdb"
    batch_size: 111
    backend: LMDB
  }
}
layer {
  name: "conv0"
  type: "Convolution"
  bottom: "data"
  top: "conv0"
  param {
    lr_mult: 1
  }
  param {
    lr_mult: 2
  }
  convolution_param {
    num_output: 8
    pad: 2
    kernel_size: 5
    stride: 1
    weight_filler {
      type: "gaussian"
      std: 0.01
    }
    bias_filler {
      type: "constant"
    }
  }
}
layer {
  name: "Sigmoid0"
  type: "Sigmoid"
  bottom: "conv0"
  top: "Sigmoid0"
}
layer {
  name: "pool0"
  type: "Pooling"
  bottom: "Sigmoid0"
  top: "pool0"
  pooling_param {
    pool: AVE
    kernel_size: 3
    stride: 2
  }
}
layer {
  name: "ip1"
  type: "InnerProduct"
  bottom: "pool0"
  top: "ip1"
  param {
    lr_mult: 1
  }
  param {
    lr_mult: 2
  }
  inner_product_param {
    num_output: 80
    weight_filler {
      type: "gaussian"
      std: 0.01
    }
    bias_filler {
      type: "constant"
    }
  }
}
layer {
  name: "relu1"
  type: "ReLU"
  bottom: "ip1"
  top: "ip1"
}
layer {
  name: "ip2"
  type: "InnerProduct"
  bottom: "ip1"
  top: "ip2"
  param {
    lr_mult: 1
  }
  param {
    lr_mult: 2
  }
  inner_product_param {
    num_output: 20
    weight_filler {
      type: "gaussian"
      std: 0.01
    }
    bias_filler {
      type: "constant"
    }
  }
}
layer {
  name: "relu2"
  type: "ReLU"
  bottom: "ip2"
  top: "ip2"
}
layer {
  name: "ip3"
  type: "InnerProduct"
  bottom: "ip2"
  top: "ip3"
  param {
    lr_mult: 1
  }
  param {
    lr_mult: 2
  }
  inner_product_param {
    num_output: 160
    weight_filler {
      type: "gaussian"
      std: 0.01
    }
    bias_filler {
      type: "constant"
    }
  }
}
layer {
  name: "relu3"
  type: "ReLU"
  bottom: "ip3"
  top: "ip3"
}
layer {
  name: "ip4"
  type: "InnerProduct"
  bottom: "ip3"
  top: "ip4"
  param {
    lr_mult: 1
  }
  param {
    lr_mult: 2
  }
  inner_product_param {
    num_output: 10
    weight_filler {
      type: "gaussian"
      std: 0.01
    }
    bias_filler {
      type: "constant"
    }
  }
}
layer {
  name: "loss"
  type: "SoftmaxWithLoss"
  bottom: "ip4"
  bottom: "label"
  top: "loss"
}
I0501 05:37:19.666736 29756 layer_factory.hpp:77] Creating layer cifar
I0501 05:37:19.666837 29756 db_lmdb.cpp:35] Opened lmdb examples/cifar10/cifar10_train_lmdb
I0501 05:37:19.666864 29756 net.cpp:86] Creating Layer cifar
I0501 05:37:19.666872 29756 net.cpp:382] cifar -> data
I0501 05:37:19.666894 29756 net.cpp:382] cifar -> label
I0501 05:37:19.666906 29756 data_transformer.cpp:25] Loading mean file from: examples/cifar10/mean.binaryproto
I0501 05:37:19.669035 29756 data_layer.cpp:45] output data size: 111,3,32,32
I0501 05:37:19.676906 29756 net.cpp:124] Setting up cifar
I0501 05:37:19.676933 29756 net.cpp:131] Top shape: 111 3 32 32 (340992)
I0501 05:37:19.676939 29756 net.cpp:131] Top shape: 111 (111)
I0501 05:37:19.676942 29756 net.cpp:139] Memory required for data: 1364412
I0501 05:37:19.676976 29756 layer_factory.hpp:77] Creating layer conv0
I0501 05:37:19.676997 29756 net.cpp:86] Creating Layer conv0
I0501 05:37:19.677006 29756 net.cpp:408] conv0 <- data
I0501 05:37:19.677021 29756 net.cpp:382] conv0 -> conv0
I0501 05:37:19.947530 29756 net.cpp:124] Setting up conv0
I0501 05:37:19.947556 29756 net.cpp:131] Top shape: 111 8 32 32 (909312)
I0501 05:37:19.947558 29756 net.cpp:139] Memory required for data: 5001660
I0501 05:37:19.947574 29756 layer_factory.hpp:77] Creating layer Sigmoid0
I0501 05:37:19.947584 29756 net.cpp:86] Creating Layer Sigmoid0
I0501 05:37:19.947588 29756 net.cpp:408] Sigmoid0 <- conv0
I0501 05:37:19.947593 29756 net.cpp:382] Sigmoid0 -> Sigmoid0
I0501 05:37:19.947793 29756 net.cpp:124] Setting up Sigmoid0
I0501 05:37:19.947803 29756 net.cpp:131] Top shape: 111 8 32 32 (909312)
I0501 05:37:19.947806 29756 net.cpp:139] Memory required for data: 8638908
I0501 05:37:19.947809 29756 layer_factory.hpp:77] Creating layer pool0
I0501 05:37:19.947815 29756 net.cpp:86] Creating Layer pool0
I0501 05:37:19.947818 29756 net.cpp:408] pool0 <- Sigmoid0
I0501 05:37:19.947825 29756 net.cpp:382] pool0 -> pool0
I0501 05:37:19.948552 29756 net.cpp:124] Setting up pool0
I0501 05:37:19.948565 29756 net.cpp:131] Top shape: 111 8 16 16 (227328)
I0501 05:37:19.948583 29756 net.cpp:139] Memory required for data: 9548220
I0501 05:37:19.948586 29756 layer_factory.hpp:77] Creating layer ip1
I0501 05:37:19.948596 29756 net.cpp:86] Creating Layer ip1
I0501 05:37:19.948601 29756 net.cpp:408] ip1 <- pool0
I0501 05:37:19.948604 29756 net.cpp:382] ip1 -> ip1
I0501 05:37:19.952929 29756 net.cpp:124] Setting up ip1
I0501 05:37:19.952937 29756 net.cpp:131] Top shape: 111 80 (8880)
I0501 05:37:19.952956 29756 net.cpp:139] Memory required for data: 9583740
I0501 05:37:19.952965 29756 layer_factory.hpp:77] Creating layer relu1
I0501 05:37:19.952970 29756 net.cpp:86] Creating Layer relu1
I0501 05:37:19.952975 29756 net.cpp:408] relu1 <- ip1
I0501 05:37:19.952980 29756 net.cpp:369] relu1 -> ip1 (in-place)
I0501 05:37:19.953183 29756 net.cpp:124] Setting up relu1
I0501 05:37:19.953207 29756 net.cpp:131] Top shape: 111 80 (8880)
I0501 05:37:19.953209 29756 net.cpp:139] Memory required for data: 9619260
I0501 05:37:19.953212 29756 layer_factory.hpp:77] Creating layer ip2
I0501 05:37:19.953218 29756 net.cpp:86] Creating Layer ip2
I0501 05:37:19.953222 29756 net.cpp:408] ip2 <- ip1
I0501 05:37:19.953225 29756 net.cpp:382] ip2 -> ip2
I0501 05:37:19.953369 29756 net.cpp:124] Setting up ip2
I0501 05:37:19.953377 29756 net.cpp:131] Top shape: 111 20 (2220)
I0501 05:37:19.953379 29756 net.cpp:139] Memory required for data: 9628140
I0501 05:37:19.953387 29756 layer_factory.hpp:77] Creating layer relu2
I0501 05:37:19.953392 29756 net.cpp:86] Creating Layer relu2
I0501 05:37:19.953394 29756 net.cpp:408] relu2 <- ip2
I0501 05:37:19.953399 29756 net.cpp:369] relu2 -> ip2 (in-place)
I0501 05:37:19.953567 29756 net.cpp:124] Setting up relu2
I0501 05:37:19.953575 29756 net.cpp:131] Top shape: 111 20 (2220)
I0501 05:37:19.953578 29756 net.cpp:139] Memory required for data: 9637020
I0501 05:37:19.953582 29756 layer_factory.hpp:77] Creating layer ip3
I0501 05:37:19.953588 29756 net.cpp:86] Creating Layer ip3
I0501 05:37:19.953591 29756 net.cpp:408] ip3 <- ip2
I0501 05:37:19.953596 29756 net.cpp:382] ip3 -> ip3
I0501 05:37:19.953764 29756 net.cpp:124] Setting up ip3
I0501 05:37:19.953771 29756 net.cpp:131] Top shape: 111 160 (17760)
I0501 05:37:19.953773 29756 net.cpp:139] Memory required for data: 9708060
I0501 05:37:19.953778 29756 layer_factory.hpp:77] Creating layer relu3
I0501 05:37:19.953783 29756 net.cpp:86] Creating Layer relu3
I0501 05:37:19.953786 29756 net.cpp:408] relu3 <- ip3
I0501 05:37:19.953791 29756 net.cpp:369] relu3 -> ip3 (in-place)
I0501 05:37:19.953934 29756 net.cpp:124] Setting up relu3
I0501 05:37:19.953943 29756 net.cpp:131] Top shape: 111 160 (17760)
I0501 05:37:19.953945 29756 net.cpp:139] Memory required for data: 9779100
I0501 05:37:19.953948 29756 layer_factory.hpp:77] Creating layer ip4
I0501 05:37:19.953969 29756 net.cpp:86] Creating Layer ip4
I0501 05:37:19.953971 29756 net.cpp:408] ip4 <- ip3
I0501 05:37:19.953976 29756 net.cpp:382] ip4 -> ip4
I0501 05:37:19.954102 29756 net.cpp:124] Setting up ip4
I0501 05:37:19.954110 29756 net.cpp:131] Top shape: 111 10 (1110)
I0501 05:37:19.954113 29756 net.cpp:139] Memory required for data: 9783540
I0501 05:37:19.954119 29756 layer_factory.hpp:77] Creating layer loss
I0501 05:37:19.954125 29756 net.cpp:86] Creating Layer loss
I0501 05:37:19.954128 29756 net.cpp:408] loss <- ip4
I0501 05:37:19.954131 29756 net.cpp:408] loss <- label
I0501 05:37:19.954151 29756 net.cpp:382] loss -> loss
I0501 05:37:19.954167 29756 layer_factory.hpp:77] Creating layer loss
…
I0501 05:37:19.955369 29756 solver.cpp:173] Creating test net (#0) specified by net file: ECE595/cifar/train_test/var_everything/cifar_train_test_424.prototxt
I0501 05:37:19.955395 29756 net.cpp:296] The NetState phase (1) differed from the phase (0) specified by a rule in layer cifar
I0501 05:37:19.955504 29756 net.cpp:53] Initializing net from parameters: 
name: "CIFAR"
state {
  phase: TEST
}
layer {
  name: "cifar"
  type: "Data"
  top: "data"
  top: "label"
  include {
    phase: TEST
  }
  transform_param {
    mean_file: "examples/cifar10/mean.binaryproto"
  }
  data_param {
    source: "examples/cifar10/cifar10_test_lmdb"
    batch_size: 1000
    backend: LMDB
  }
}
layer {
  name: "conv0"
  type: "Convolution"
  bottom: "data"
  top: "conv0"
  param {
    lr_mult: 1
  }
  param {
    lr_mult: 2
  }
  convolution_param {
    num_output: 8
    pad: 2
    kernel_size: 5
    stride: 1
    weight_filler {
      type: "gaussian"
      std: 0.01
    }
    bias_filler {
      type: "constant"
    }
  }
}
layer {
  name: "Sigmoid0"
  type: "Sigmoid"
  bottom: "conv0"
  top: "Sigmoid0"
}
layer {
  name: "pool0"
  type: "Pooling"
  bottom: "Sigmoid0"
  top: "pool0"
  pooling_param {
    pool: AVE
    kernel_size: 3
    stride: 2
  }
}
layer {
  name: "ip1"
  type: "InnerProduct"
  bottom: "pool0"
  top: "ip1"
  param {
    lr_mult: 1
  }
  param {
    lr_mult: 2
  }
  inner_product_param {
    num_output: 80
    weight_filler {
      type: "gaussian"
      std: 0.01
    }
    bias_filler {
      type: "constant"
    }
  }
}
layer {
  name: "relu1"
  type: "ReLU"
  bottom: "ip1"
  top: "ip1"
}
layer {
  name: "ip2"
  type: "InnerProduct"
  bottom: "ip1"
  top: "ip2"
  param {
    lr_mult: 1
  }
  param {
    lr_mult: 2
  }
  inner_product_param {
    num_output: 20
    weight_filler {
      type: "gaussian"
      std: 0.01
    }
    bias_filler {
      type: "constant"
    }
  }
}
layer {
  name: "relu2"
  type: "ReLU"
  bottom: "ip2"
  top: "ip2"
}
layer {
  name: "ip3"
  type: "InnerProduct"
  bottom: "ip2"
  top: "ip3"
  param {
    lr_mult: 1
  }
  param {
    lr_mult: 2
  }
  inner_product_param {
    num_output: 160
    weight_filler {
      type: "gaussian"
      std: 0.01
    }
    bias_filler {
      type: "constant"
    }
  }
}
layer {
  name: "relu3"
  type: "ReLU"
  bottom: "ip3"
  top: "ip3"
}
layer {
  name: "ip4"
  type: "InnerProduct"
  bottom: "ip3"
  top: "ip4"
  param {
    lr_mult: 1
  }
  param {
    lr_mult: 2
  }
  inner_product_param {
    num_output: 10
    weight_filler {
      type: "gaussian"
      std: 0.01
    }
    bias_filler {
      type: "constant"
    }
  }
}
layer {
  name: "accuracy"
  type: "Accuracy"
  bottom: "ip4"
  bottom: "label"
  top: "accuracy"
  include {
    phase: TEST
  }
}
layer {
  name: "loss"
  type: "SoftmaxWithLoss"
  bottom: "ip4"
  bottom: "label"
  top: "loss"
}
I0501 05:37:19.955585 29756 layer_factory.hpp:77] Creating layer cifar
I0501 05:37:19.955631 29756 db_lmdb.cpp:35] Opened lmdb examples/cifar10/cifar10_test_lmdb
I0501 05:37:19.955642 29756 net.cpp:86] Creating Layer cifar
I0501 05:37:19.955646 29756 net.cpp:382] cifar -> data
I0501 05:37:19.955654 29756 net.cpp:382] cifar -> label
I0501 05:37:19.955662 29756 data_transformer.cpp:25] Loading mean file from: examples/cifar10/mean.binaryproto
I0501 05:37:19.955813 29756 data_layer.cpp:45] output data size: 1000,3,32,32
I0501 05:37:19.978045 29756 net.cpp:124] Setting up cifar
I0501 05:37:19.978072 29756 net.cpp:131] Top shape: 1000 3 32 32 (3072000)
I0501 05:37:19.978077 29756 net.cpp:131] Top shape: 1000 (1000)
I0501 05:37:19.978080 29756 net.cpp:139] Memory required for data: 12292000
I0501 05:37:19.978101 29756 layer_factory.hpp:77] Creating layer label_cifar_1_split
I0501 05:37:19.978118 29756 net.cpp:86] Creating Layer label_cifar_1_split
I0501 05:37:19.978122 29756 net.cpp:408] label_cifar_1_split <- label
I0501 05:37:19.978130 29756 net.cpp:382] label_cifar_1_split -> label_cifar_1_split_0
I0501 05:37:19.978138 29756 net.cpp:382] label_cifar_1_split -> label_cifar_1_split_1
I0501 05:37:19.978243 29756 net.cpp:124] Setting up label_cifar_1_split
I0501 05:37:19.978251 29756 net.cpp:131] Top shape: 1000 (1000)
I0501 05:37:19.978255 29756 net.cpp:131] Top shape: 1000 (1000)
I0501 05:37:19.978257 29756 net.cpp:139] Memory required for data: 12300000
I0501 05:37:19.978260 29756 layer_factory.hpp:77] Creating layer conv0
I0501 05:37:19.978273 29756 net.cpp:86] Creating Layer conv0
I0501 05:37:19.978276 29756 net.cpp:408] conv0 <- data
I0501 05:37:19.978282 29756 net.cpp:382] conv0 -> conv0
I0501 05:37:19.979876 29756 net.cpp:124] Setting up conv0
I0501 05:37:19.979903 29756 net.cpp:131] Top shape: 1000 8 32 32 (8192000)
I0501 05:37:19.979907 29756 net.cpp:139] Memory required for data: 45068000
I0501 05:37:19.979918 29756 layer_factory.hpp:77] Creating layer Sigmoid0
I0501 05:37:19.979925 29756 net.cpp:86] Creating Layer Sigmoid0
I0501 05:37:19.979928 29756 net.cpp:408] Sigmoid0 <- conv0
I0501 05:37:19.979933 29756 net.cpp:382] Sigmoid0 -> Sigmoid0
I0501 05:37:19.980121 29756 net.cpp:124] Setting up Sigmoid0
I0501 05:37:19.980130 29756 net.cpp:131] Top shape: 1000 8 32 32 (8192000)
I0501 05:37:19.980134 29756 net.cpp:139] Memory required for data: 77836000
I0501 05:37:19.980136 29756 layer_factory.hpp:77] Creating layer pool0
I0501 05:37:19.980145 29756 net.cpp:86] Creating Layer pool0
I0501 05:37:19.980149 29756 net.cpp:408] pool0 <- Sigmoid0
I0501 05:37:19.980154 29756 net.cpp:382] pool0 -> pool0
I0501 05:37:19.980433 29756 net.cpp:124] Setting up pool0
I0501 05:37:19.980443 29756 net.cpp:131] Top shape: 1000 8 16 16 (2048000)
I0501 05:37:19.980446 29756 net.cpp:139] Memory required for data: 86028000
I0501 05:37:19.980449 29756 layer_factory.hpp:77] Creating layer ip1
I0501 05:37:19.980473 29756 net.cpp:86] Creating Layer ip1
I0501 05:37:19.980475 29756 net.cpp:408] ip1 <- pool0
I0501 05:37:19.980481 29756 net.cpp:382] ip1 -> ip1
I0501 05:37:19.986048 29756 net.cpp:124] Setting up ip1
I0501 05:37:19.986062 29756 net.cpp:131] Top shape: 1000 80 (80000)
I0501 05:37:19.986064 29756 net.cpp:139] Memory required for data: 86348000
I0501 05:37:19.986100 29756 layer_factory.hpp:77] Creating layer relu1
I0501 05:37:19.986109 29756 net.cpp:86] Creating Layer relu1
I0501 05:37:19.986112 29756 net.cpp:408] relu1 <- ip1
I0501 05:37:19.986116 29756 net.cpp:369] relu1 -> ip1 (in-place)
I0501 05:37:19.986289 29756 net.cpp:124] Setting up relu1
I0501 05:37:19.986296 29756 net.cpp:131] Top shape: 1000 80 (80000)
I0501 05:37:19.986300 29756 net.cpp:139] Memory required for data: 86668000
I0501 05:37:19.986304 29756 layer_factory.hpp:77] Creating layer ip2
I0501 05:37:19.986312 29756 net.cpp:86] Creating Layer ip2
I0501 05:37:19.986316 29756 net.cpp:408] ip2 <- ip1
I0501 05:37:19.986322 29756 net.cpp:382] ip2 -> ip2
I0501 05:37:19.986469 29756 net.cpp:124] Setting up ip2
I0501 05:37:19.986476 29756 net.cpp:131] Top shape: 1000 20 (20000)
I0501 05:37:19.986479 29756 net.cpp:139] Memory required for data: 86748000
I0501 05:37:19.986486 29756 layer_factory.hpp:77] Creating layer relu2
I0501 05:37:19.986493 29756 net.cpp:86] Creating Layer relu2
I0501 05:37:19.986496 29756 net.cpp:408] relu2 <- ip2
I0501 05:37:19.986500 29756 net.cpp:369] relu2 -> ip2 (in-place)
I0501 05:37:19.987263 29756 net.cpp:124] Setting up relu2
I0501 05:37:19.987275 29756 net.cpp:131] Top shape: 1000 20 (20000)
I0501 05:37:19.987279 29756 net.cpp:139] Memory required for data: 86828000
I0501 05:37:19.987282 29756 layer_factory.hpp:77] Creating layer ip3
I0501 05:37:19.987288 29756 net.cpp:86] Creating Layer ip3
I0501 05:37:19.987292 29756 net.cpp:408] ip3 <- ip2
I0501 05:37:19.987298 29756 net.cpp:382] ip3 -> ip3
I0501 05:37:19.987502 29756 net.cpp:124] Setting up ip3
I0501 05:37:19.987510 29756 net.cpp:131] Top shape: 1000 160 (160000)
I0501 05:37:19.987514 29756 net.cpp:139] Memory required for data: 87468000
I0501 05:37:19.987519 29756 layer_factory.hpp:77] Creating layer relu3
I0501 05:37:19.987524 29756 net.cpp:86] Creating Layer relu3
I0501 05:37:19.987526 29756 net.cpp:408] relu3 <- ip3
I0501 05:37:19.987530 29756 net.cpp:369] relu3 -> ip3 (in-place)
I0501 05:37:19.987687 29756 net.cpp:124] Setting up relu3
I0501 05:37:19.987696 29756 net.cpp:131] Top shape: 1000 160 (160000)
I0501 05:37:19.987699 29756 net.cpp:139] Memory required for data: 88108000
I0501 05:37:19.987702 29756 layer_factory.hpp:77] Creating layer ip4
I0501 05:37:19.987709 29756 net.cpp:86] Creating Layer ip4
I0501 05:37:19.987711 29756 net.cpp:408] ip4 <- ip3
I0501 05:37:19.987717 29756 net.cpp:382] ip4 -> ip4
I0501 05:37:19.987859 29756 net.cpp:124] Setting up ip4
I0501 05:37:19.987866 29756 net.cpp:131] Top shape: 1000 10 (10000)
I0501 05:37:19.987869 29756 net.cpp:139] Memory required for data: 88148000
I0501 05:37:19.987876 29756 layer_factory.hpp:77] Creating layer ip4_ip4_0_split
I0501 05:37:19.987884 29756 net.cpp:86] Creating Layer ip4_ip4_0_split
I0501 05:37:19.987886 29756 net.cpp:408] ip4_ip4_0_split <- ip4
I0501 05:37:19.987891 29756 net.cpp:382] ip4_ip4_0_split -> ip4_ip4_0_split_0
I0501 05:37:19.987896 29756 net.cpp:382] ip4_ip4_0_split -> ip4_ip4_0_split_1
I0501 05:37:19.987927 29756 net.cpp:124] Setting up ip4_ip4_0_split
I0501 05:37:19.987933 29756 net.cpp:131] Top shape: 1000 10 (10000)
I0501 05:37:19.987936 29756 net.cpp:131] Top shape: 1000 10 (10000)
I0501 05:37:19.987939 29756 net.cpp:139] Memory required for data: 88228000
I0501 05:37:19.987942 29756 layer_factory.hpp:77] Creating layer accuracy
I0501 05:37:19.987948 29756 net.cpp:86] Creating Layer accuracy
I0501 05:37:19.987951 29756 net.cpp:408] accuracy <- ip4_ip4_0_split_0
I0501 05:37:19.987954 29756 net.cpp:408] accuracy <- label_cifar_1_split_0
I0501 05:37:19.987959 29756 net.cpp:382] accuracy -> accuracy
…
