…
I0501 02:08:57.010957 13910 net.cpp:296] The NetState phase (0) differed from the phase (1) specified by a rule in layer cifar
I0501 02:08:57.010975 13910 net.cpp:296] The NetState phase (0) differed from the phase (1) specified by a rule in layer accuracy
I0501 02:08:57.011066 13910 net.cpp:53] Initializing net from parameters: 
name: "CIFAR"
state {
  phase: TRAIN
  level: 0
  stage: ""
}
layer {
  name: "cifar"
  type: "Data"
  top: "data"
  top: "label"
  include {
    phase: TRAIN
  }
  transform_param {
    mean_file: "examples/cifar10/mean.binaryproto"
  }
  data_param {
    source: "examples/cifar10/cifar10_train_lmdb"
    batch_size: 111
    backend: LMDB
  }
}
layer {
  name: "conv0"
  type: "Convolution"
  bottom: "data"
  top: "conv0"
  param {
    lr_mult: 1
  }
  param {
    lr_mult: 2
  }
  convolution_param {
    num_output: 8
    pad: 2
    kernel_size: 5
    stride: 1
    weight_filler {
      type: "gaussian"
      std: 0.01
    }
    bias_filler {
      type: "constant"
    }
  }
}
layer {
  name: "Sigmoid0"
  type: "Sigmoid"
  bottom: "conv0"
  top: "Sigmoid0"
}
layer {
  name: "pool0"
  type: "Pooling"
  bottom: "Sigmoid0"
  top: "pool0"
  pooling_param {
    pool: AVE
    kernel_size: 3
    stride: 2
  }
}
layer {
  name: "ip1"
  type: "InnerProduct"
  bottom: "pool0"
  top: "ip1"
  param {
    lr_mult: 1
  }
  param {
    lr_mult: 2
  }
  inner_product_param {
    num_output: 40
    weight_filler {
      type: "gaussian"
      std: 0.01
    }
    bias_filler {
      type: "constant"
    }
  }
}
layer {
  name: "relu1"
  type: "ReLU"
  bottom: "ip1"
  top: "ip1"
}
layer {
  name: "ip2"
  type: "InnerProduct"
  bottom: "ip1"
  top: "ip2"
  param {
    lr_mult: 1
  }
  param {
    lr_mult: 2
  }
  inner_product_param {
    num_output: 10
    weight_filler {
      type: "gaussian"
      std: 0.01
    }
    bias_filler {
      type: "constant"
    }
  }
}
layer {
  name: "loss"
  type: "SoftmaxWithLoss"
  bottom: "ip2"
  bottom: "label"
  top: "loss"
}
I0501 02:08:57.011137 13910 layer_factory.hpp:77] Creating layer cifar
I0501 02:08:57.011250 13910 db_lmdb.cpp:35] Opened lmdb examples/cifar10/cifar10_train_lmdb
I0501 02:08:57.011279 13910 net.cpp:86] Creating Layer cifar
I0501 02:08:57.011292 13910 net.cpp:382] cifar -> data
I0501 02:08:57.011315 13910 net.cpp:382] cifar -> label
I0501 02:08:57.011329 13910 data_transformer.cpp:25] Loading mean file from: examples/cifar10/mean.binaryproto
I0501 02:08:57.013445 13910 data_layer.cpp:45] output data size: 111,3,32,32
I0501 02:08:57.021293 13910 net.cpp:124] Setting up cifar
I0501 02:08:57.021312 13910 net.cpp:131] Top shape: 111 3 32 32 (340992)
I0501 02:08:57.021320 13910 net.cpp:131] Top shape: 111 (111)
I0501 02:08:57.021324 13910 net.cpp:139] Memory required for data: 1364412
I0501 02:08:57.021332 13910 layer_factory.hpp:77] Creating layer conv0
I0501 02:08:57.021349 13910 net.cpp:86] Creating Layer conv0
I0501 02:08:57.021355 13910 net.cpp:408] conv0 <- data
I0501 02:08:57.021369 13910 net.cpp:382] conv0 -> conv0
I0501 02:08:57.301342 13910 net.cpp:124] Setting up conv0
I0501 02:08:57.301368 13910 net.cpp:131] Top shape: 111 8 32 32 (909312)
I0501 02:08:57.301373 13910 net.cpp:139] Memory required for data: 5001660
I0501 02:08:57.301386 13910 layer_factory.hpp:77] Creating layer Sigmoid0
I0501 02:08:57.301398 13910 net.cpp:86] Creating Layer Sigmoid0
I0501 02:08:57.301401 13910 net.cpp:408] Sigmoid0 <- conv0
I0501 02:08:57.301407 13910 net.cpp:382] Sigmoid0 -> Sigmoid0
I0501 02:08:57.301582 13910 net.cpp:124] Setting up Sigmoid0
I0501 02:08:57.301591 13910 net.cpp:131] Top shape: 111 8 32 32 (909312)
I0501 02:08:57.301594 13910 net.cpp:139] Memory required for data: 8638908
I0501 02:08:57.301599 13910 layer_factory.hpp:77] Creating layer pool0
I0501 02:08:57.301605 13910 net.cpp:86] Creating Layer pool0
I0501 02:08:57.301609 13910 net.cpp:408] pool0 <- Sigmoid0
I0501 02:08:57.301614 13910 net.cpp:382] pool0 -> pool0
I0501 02:08:57.302377 13910 net.cpp:124] Setting up pool0
I0501 02:08:57.302390 13910 net.cpp:131] Top shape: 111 8 16 16 (227328)
I0501 02:08:57.302393 13910 net.cpp:139] Memory required for data: 9548220
I0501 02:08:57.302413 13910 layer_factory.hpp:77] Creating layer ip1
I0501 02:08:57.302423 13910 net.cpp:86] Creating Layer ip1
I0501 02:08:57.302426 13910 net.cpp:408] ip1 <- pool0
I0501 02:08:57.302431 13910 net.cpp:382] ip1 -> ip1
I0501 02:08:57.304702 13910 net.cpp:124] Setting up ip1
I0501 02:08:57.304710 13910 net.cpp:131] Top shape: 111 40 (4440)
I0501 02:08:57.304713 13910 net.cpp:139] Memory required for data: 9565980
I0501 02:08:57.304720 13910 layer_factory.hpp:77] Creating layer relu1
I0501 02:08:57.304725 13910 net.cpp:86] Creating Layer relu1
I0501 02:08:57.304728 13910 net.cpp:408] relu1 <- ip1
I0501 02:08:57.304733 13910 net.cpp:369] relu1 -> ip1 (in-place)
I0501 02:08:57.304929 13910 net.cpp:124] Setting up relu1
I0501 02:08:57.304937 13910 net.cpp:131] Top shape: 111 40 (4440)
I0501 02:08:57.304940 13910 net.cpp:139] Memory required for data: 9583740
I0501 02:08:57.304944 13910 layer_factory.hpp:77] Creating layer ip2
I0501 02:08:57.304950 13910 net.cpp:86] Creating Layer ip2
I0501 02:08:57.304955 13910 net.cpp:408] ip2 <- ip1
I0501 02:08:57.304960 13910 net.cpp:382] ip2 -> ip2
I0501 02:08:57.305058 13910 net.cpp:124] Setting up ip2
I0501 02:08:57.305065 13910 net.cpp:131] Top shape: 111 10 (1110)
I0501 02:08:57.305068 13910 net.cpp:139] Memory required for data: 9588180
I0501 02:08:57.305075 13910 layer_factory.hpp:77] Creating layer loss
I0501 02:08:57.305081 13910 net.cpp:86] Creating Layer loss
I0501 02:08:57.305088 13910 net.cpp:408] loss <- ip2
I0501 02:08:57.305091 13910 net.cpp:408] loss <- label
I0501 02:08:57.305097 13910 net.cpp:382] loss -> loss
I0501 02:08:57.305115 13910 layer_factory.hpp:77] Creating layer loss
…
I0501 02:08:57.305796 13910 solver.cpp:173] Creating test net (#0) specified by net file: ECE595/cifar/train_test/var_everything/cifar_train_test_312.prototxt
I0501 02:08:57.305819 13910 net.cpp:296] The NetState phase (1) differed from the phase (0) specified by a rule in layer cifar
I0501 02:08:57.305905 13910 net.cpp:53] Initializing net from parameters: 
name: "CIFAR"
state {
  phase: TEST
}
layer {
  name: "cifar"
  type: "Data"
  top: "data"
  top: "label"
  include {
    phase: TEST
  }
  transform_param {
    mean_file: "examples/cifar10/mean.binaryproto"
  }
  data_param {
    source: "examples/cifar10/cifar10_test_lmdb"
    batch_size: 1000
    backend: LMDB
  }
}
layer {
  name: "conv0"
  type: "Convolution"
  bottom: "data"
  top: "conv0"
  param {
    lr_mult: 1
  }
  param {
    lr_mult: 2
  }
  convolution_param {
    num_output: 8
    pad: 2
    kernel_size: 5
    stride: 1
    weight_filler {
      type: "gaussian"
      std: 0.01
    }
    bias_filler {
      type: "constant"
    }
  }
}
layer {
  name: "Sigmoid0"
  type: "Sigmoid"
  bottom: "conv0"
  top: "Sigmoid0"
}
layer {
  name: "pool0"
  type: "Pooling"
  bottom: "Sigmoid0"
  top: "pool0"
  pooling_param {
    pool: AVE
    kernel_size: 3
    stride: 2
  }
}
layer {
  name: "ip1"
  type: "InnerProduct"
  bottom: "pool0"
  top: "ip1"
  param {
    lr_mult: 1
  }
  param {
    lr_mult: 2
  }
  inner_product_param {
    num_output: 40
    weight_filler {
      type: "gaussian"
      std: 0.01
    }
    bias_filler {
      type: "constant"
    }
  }
}
layer {
  name: "relu1"
  type: "ReLU"
  bottom: "ip1"
  top: "ip1"
}
layer {
  name: "ip2"
  type: "InnerProduct"
  bottom: "ip1"
  top: "ip2"
  param {
    lr_mult: 1
  }
  param {
    lr_mult: 2
  }
  inner_product_param {
    num_output: 10
    weight_filler {
      type: "gaussian"
      std: 0.01
    }
    bias_filler {
      type: "constant"
    }
  }
}
layer {
  name: "accuracy"
  type: "Accuracy"
  bottom: "ip2"
  bottom: "label"
  top: "accuracy"
  include {
    phase: TEST
  }
}
layer {
  name: "loss"
  type: "SoftmaxWithLoss"
  bottom: "ip2"
  bottom: "label"
  top: "loss"
}
I0501 02:08:57.305972 13910 layer_factory.hpp:77] Creating layer cifar
I0501 02:08:57.306017 13910 db_lmdb.cpp:35] Opened lmdb examples/cifar10/cifar10_test_lmdb
I0501 02:08:57.306031 13910 net.cpp:86] Creating Layer cifar
I0501 02:08:57.306038 13910 net.cpp:382] cifar -> data
I0501 02:08:57.306046 13910 net.cpp:382] cifar -> label
I0501 02:08:57.306051 13910 data_transformer.cpp:25] Loading mean file from: examples/cifar10/mean.binaryproto
I0501 02:08:57.306188 13910 data_layer.cpp:45] output data size: 1000,3,32,32
I0501 02:08:57.327854 13910 net.cpp:124] Setting up cifar
I0501 02:08:57.327880 13910 net.cpp:131] Top shape: 1000 3 32 32 (3072000)
I0501 02:08:57.327885 13910 net.cpp:131] Top shape: 1000 (1000)
I0501 02:08:57.327889 13910 net.cpp:139] Memory required for data: 12292000
I0501 02:08:57.327895 13910 layer_factory.hpp:77] Creating layer label_cifar_1_split
I0501 02:08:57.327908 13910 net.cpp:86] Creating Layer label_cifar_1_split
I0501 02:08:57.327911 13910 net.cpp:408] label_cifar_1_split <- label
I0501 02:08:57.327917 13910 net.cpp:382] label_cifar_1_split -> label_cifar_1_split_0
I0501 02:08:57.327926 13910 net.cpp:382] label_cifar_1_split -> label_cifar_1_split_1
I0501 02:08:57.327975 13910 net.cpp:124] Setting up label_cifar_1_split
I0501 02:08:57.327980 13910 net.cpp:131] Top shape: 1000 (1000)
I0501 02:08:57.328001 13910 net.cpp:131] Top shape: 1000 (1000)
I0501 02:08:57.328003 13910 net.cpp:139] Memory required for data: 12300000
I0501 02:08:57.328006 13910 layer_factory.hpp:77] Creating layer conv0
I0501 02:08:57.328018 13910 net.cpp:86] Creating Layer conv0
I0501 02:08:57.328022 13910 net.cpp:408] conv0 <- data
I0501 02:08:57.328027 13910 net.cpp:382] conv0 -> conv0
I0501 02:08:57.329869 13910 net.cpp:124] Setting up conv0
I0501 02:08:57.329881 13910 net.cpp:131] Top shape: 1000 8 32 32 (8192000)
I0501 02:08:57.329885 13910 net.cpp:139] Memory required for data: 45068000
I0501 02:08:57.329895 13910 layer_factory.hpp:77] Creating layer Sigmoid0
I0501 02:08:57.329901 13910 net.cpp:86] Creating Layer Sigmoid0
I0501 02:08:57.329905 13910 net.cpp:408] Sigmoid0 <- conv0
I0501 02:08:57.329910 13910 net.cpp:382] Sigmoid0 -> Sigmoid0
I0501 02:08:57.330067 13910 net.cpp:124] Setting up Sigmoid0
I0501 02:08:57.330075 13910 net.cpp:131] Top shape: 1000 8 32 32 (8192000)
I0501 02:08:57.330078 13910 net.cpp:139] Memory required for data: 77836000
I0501 02:08:57.330081 13910 layer_factory.hpp:77] Creating layer pool0
I0501 02:08:57.330090 13910 net.cpp:86] Creating Layer pool0
I0501 02:08:57.330093 13910 net.cpp:408] pool0 <- Sigmoid0
I0501 02:08:57.330097 13910 net.cpp:382] pool0 -> pool0
I0501 02:08:57.330948 13910 net.cpp:124] Setting up pool0
I0501 02:08:57.330972 13910 net.cpp:131] Top shape: 1000 8 16 16 (2048000)
I0501 02:08:57.330976 13910 net.cpp:139] Memory required for data: 86028000
I0501 02:08:57.330979 13910 layer_factory.hpp:77] Creating layer ip1
I0501 02:08:57.330987 13910 net.cpp:86] Creating Layer ip1
I0501 02:08:57.330991 13910 net.cpp:408] ip1 <- pool0
I0501 02:08:57.330996 13910 net.cpp:382] ip1 -> ip1
I0501 02:08:57.334091 13910 net.cpp:124] Setting up ip1
I0501 02:08:57.334100 13910 net.cpp:131] Top shape: 1000 40 (40000)
I0501 02:08:57.334103 13910 net.cpp:139] Memory required for data: 86188000
I0501 02:08:57.334111 13910 layer_factory.hpp:77] Creating layer relu1
I0501 02:08:57.334117 13910 net.cpp:86] Creating Layer relu1
I0501 02:08:57.334120 13910 net.cpp:408] relu1 <- ip1
I0501 02:08:57.334125 13910 net.cpp:369] relu1 -> ip1 (in-place)
I0501 02:08:57.334270 13910 net.cpp:124] Setting up relu1
I0501 02:08:57.334278 13910 net.cpp:131] Top shape: 1000 40 (40000)
I0501 02:08:57.334282 13910 net.cpp:139] Memory required for data: 86348000
I0501 02:08:57.334285 13910 layer_factory.hpp:77] Creating layer ip2
I0501 02:08:57.334291 13910 net.cpp:86] Creating Layer ip2
I0501 02:08:57.334295 13910 net.cpp:408] ip2 <- ip1
I0501 02:08:57.334298 13910 net.cpp:382] ip2 -> ip2
I0501 02:08:57.334403 13910 net.cpp:124] Setting up ip2
I0501 02:08:57.334410 13910 net.cpp:131] Top shape: 1000 10 (10000)
I0501 02:08:57.334414 13910 net.cpp:139] Memory required for data: 86388000
I0501 02:08:57.334420 13910 layer_factory.hpp:77] Creating layer ip2_ip2_0_split
I0501 02:08:57.334425 13910 net.cpp:86] Creating Layer ip2_ip2_0_split
I0501 02:08:57.334429 13910 net.cpp:408] ip2_ip2_0_split <- ip2
I0501 02:08:57.334440 13910 net.cpp:382] ip2_ip2_0_split -> ip2_ip2_0_split_0
I0501 02:08:57.334445 13910 net.cpp:382] ip2_ip2_0_split -> ip2_ip2_0_split_1
I0501 02:08:57.334475 13910 net.cpp:124] Setting up ip2_ip2_0_split
I0501 02:08:57.334486 13910 net.cpp:131] Top shape: 1000 10 (10000)
I0501 02:08:57.334489 13910 net.cpp:131] Top shape: 1000 10 (10000)
I0501 02:08:57.334492 13910 net.cpp:139] Memory required for data: 86468000
I0501 02:08:57.334496 13910 layer_factory.hpp:77] Creating layer accuracy
I0501 02:08:57.334501 13910 net.cpp:86] Creating Layer accuracy
I0501 02:08:57.334503 13910 net.cpp:408] accuracy <- ip2_ip2_0_split_0
I0501 02:08:57.334507 13910 net.cpp:408] accuracy <- label_cifar_1_split_0
I0501 02:08:57.334511 13910 net.cpp:382] accuracy -> accuracy
…
