…
I0501 06:29:15.250473   650 net.cpp:296] The NetState phase (0) differed from the phase (1) specified by a rule in layer cifar
I0501 06:29:15.250488   650 net.cpp:296] The NetState phase (0) differed from the phase (1) specified by a rule in layer accuracy
I0501 06:29:15.250583   650 net.cpp:53] Initializing net from parameters: 
name: "CIFAR"
state {
  phase: TRAIN
  level: 0
  stage: ""
}
layer {
  name: "cifar"
  type: "Data"
  top: "data"
  top: "label"
  include {
    phase: TRAIN
  }
  transform_param {
    mean_file: "examples/cifar10/mean.binaryproto"
  }
  data_param {
    source: "examples/cifar10/cifar10_train_lmdb"
    batch_size: 111
    backend: LMDB
  }
}
layer {
  name: "conv0"
  type: "Convolution"
  bottom: "data"
  top: "conv0"
  param {
    lr_mult: 1
  }
  param {
    lr_mult: 2
  }
  convolution_param {
    num_output: 8
    pad: 2
    kernel_size: 5
    stride: 1
    weight_filler {
      type: "gaussian"
      std: 0.01
    }
    bias_filler {
      type: "constant"
    }
  }
}
layer {
  name: "Sigmoid0"
  type: "Sigmoid"
  bottom: "conv0"
  top: "Sigmoid0"
}
layer {
  name: "pool0"
  type: "Pooling"
  bottom: "Sigmoid0"
  top: "pool0"
  pooling_param {
    pool: AVE
    kernel_size: 3
    stride: 2
  }
}
layer {
  name: "ip1"
  type: "InnerProduct"
  bottom: "pool0"
  top: "ip1"
  param {
    lr_mult: 1
  }
  param {
    lr_mult: 2
  }
  inner_product_param {
    num_output: 160
    weight_filler {
      type: "gaussian"
      std: 0.01
    }
    bias_filler {
      type: "constant"
    }
  }
}
layer {
  name: "relu1"
  type: "ReLU"
  bottom: "ip1"
  top: "ip1"
}
layer {
  name: "ip2"
  type: "InnerProduct"
  bottom: "ip1"
  top: "ip2"
  param {
    lr_mult: 1
  }
  param {
    lr_mult: 2
  }
  inner_product_param {
    num_output: 40
    weight_filler {
      type: "gaussian"
      std: 0.01
    }
    bias_filler {
      type: "constant"
    }
  }
}
layer {
  name: "relu2"
  type: "ReLU"
  bottom: "ip2"
  top: "ip2"
}
layer {
  name: "ip3"
  type: "InnerProduct"
  bottom: "ip2"
  top: "ip3"
  param {
    lr_mult: 1
  }
  param {
    lr_mult: 2
  }
  inner_product_param {
    num_output: 40
    weight_filler {
      type: "gaussian"
      std: 0.01
    }
    bias_filler {
      type: "constant"
    }
  }
}
layer {
  name: "relu3"
  type: "ReLU"
  bottom: "ip3"
  top: "ip3"
}
layer {
  name: "ip4"
  type: "InnerProduct"
  bottom: "ip3"
  top: "ip4"
  param {
    lr_mult: 1
  }
  param {
    lr_mult: 2
  }
  inner_product_param {
    num_output: 10
    weight_filler {
      type: "gaussian"
      std: 0.01
    }
    bias_filler {
      type: "constant"
    }
  }
}
layer {
  name: "loss"
  type: "SoftmaxWithLoss"
  bottom: "ip4"
  bottom: "label"
  top: "loss"
}
I0501 06:29:15.250648   650 layer_factory.hpp:77] Creating layer cifar
I0501 06:29:15.250728   650 db_lmdb.cpp:35] Opened lmdb examples/cifar10/cifar10_train_lmdb
I0501 06:29:15.250751   650 net.cpp:86] Creating Layer cifar
I0501 06:29:15.250758   650 net.cpp:382] cifar -> data
I0501 06:29:15.250777   650 net.cpp:382] cifar -> label
I0501 06:29:15.250787   650 data_transformer.cpp:25] Loading mean file from: examples/cifar10/mean.binaryproto
I0501 06:29:15.252645   650 data_layer.cpp:45] output data size: 111,3,32,32
I0501 06:29:15.259279   650 net.cpp:124] Setting up cifar
I0501 06:29:15.259310   650 net.cpp:131] Top shape: 111 3 32 32 (340992)
I0501 06:29:15.259315   650 net.cpp:131] Top shape: 111 (111)
I0501 06:29:15.259318   650 net.cpp:139] Memory required for data: 1364412
I0501 06:29:15.259336   650 layer_factory.hpp:77] Creating layer conv0
I0501 06:29:15.259367   650 net.cpp:86] Creating Layer conv0
I0501 06:29:15.259372   650 net.cpp:408] conv0 <- data
I0501 06:29:15.259383   650 net.cpp:382] conv0 -> conv0
I0501 06:29:15.488534   650 net.cpp:124] Setting up conv0
I0501 06:29:15.488561   650 net.cpp:131] Top shape: 111 8 32 32 (909312)
I0501 06:29:15.488565   650 net.cpp:139] Memory required for data: 5001660
I0501 06:29:15.488579   650 layer_factory.hpp:77] Creating layer Sigmoid0
I0501 06:29:15.488591   650 net.cpp:86] Creating Layer Sigmoid0
I0501 06:29:15.488595   650 net.cpp:408] Sigmoid0 <- conv0
I0501 06:29:15.488600   650 net.cpp:382] Sigmoid0 -> Sigmoid0
I0501 06:29:15.488771   650 net.cpp:124] Setting up Sigmoid0
I0501 06:29:15.488780   650 net.cpp:131] Top shape: 111 8 32 32 (909312)
I0501 06:29:15.488783   650 net.cpp:139] Memory required for data: 8638908
I0501 06:29:15.488787   650 layer_factory.hpp:77] Creating layer pool0
I0501 06:29:15.488793   650 net.cpp:86] Creating Layer pool0
I0501 06:29:15.488796   650 net.cpp:408] pool0 <- Sigmoid0
I0501 06:29:15.488801   650 net.cpp:382] pool0 -> pool0
I0501 06:29:15.489542   650 net.cpp:124] Setting up pool0
I0501 06:29:15.489555   650 net.cpp:131] Top shape: 111 8 16 16 (227328)
I0501 06:29:15.489558   650 net.cpp:139] Memory required for data: 9548220
I0501 06:29:15.489562   650 layer_factory.hpp:77] Creating layer ip1
I0501 06:29:15.489572   650 net.cpp:86] Creating Layer ip1
I0501 06:29:15.489574   650 net.cpp:408] ip1 <- pool0
I0501 06:29:15.489579   650 net.cpp:382] ip1 -> ip1
I0501 06:29:15.498689   650 net.cpp:124] Setting up ip1
I0501 06:29:15.498702   650 net.cpp:131] Top shape: 111 160 (17760)
I0501 06:29:15.498705   650 net.cpp:139] Memory required for data: 9619260
I0501 06:29:15.498713   650 layer_factory.hpp:77] Creating layer relu1
I0501 06:29:15.498719   650 net.cpp:86] Creating Layer relu1
I0501 06:29:15.498738   650 net.cpp:408] relu1 <- ip1
I0501 06:29:15.498741   650 net.cpp:369] relu1 -> ip1 (in-place)
I0501 06:29:15.498899   650 net.cpp:124] Setting up relu1
I0501 06:29:15.498908   650 net.cpp:131] Top shape: 111 160 (17760)
I0501 06:29:15.498911   650 net.cpp:139] Memory required for data: 9690300
I0501 06:29:15.498914   650 layer_factory.hpp:77] Creating layer ip2
I0501 06:29:15.498922   650 net.cpp:86] Creating Layer ip2
I0501 06:29:15.498925   650 net.cpp:408] ip2 <- ip1
I0501 06:29:15.498929   650 net.cpp:382] ip2 -> ip2
I0501 06:29:15.499958   650 net.cpp:124] Setting up ip2
I0501 06:29:15.499969   650 net.cpp:131] Top shape: 111 40 (4440)
I0501 06:29:15.499971   650 net.cpp:139] Memory required for data: 9708060
I0501 06:29:15.499980   650 layer_factory.hpp:77] Creating layer relu2
I0501 06:29:15.499985   650 net.cpp:86] Creating Layer relu2
I0501 06:29:15.499989   650 net.cpp:408] relu2 <- ip2
I0501 06:29:15.499992   650 net.cpp:369] relu2 -> ip2 (in-place)
I0501 06:29:15.500170   650 net.cpp:124] Setting up relu2
I0501 06:29:15.500180   650 net.cpp:131] Top shape: 111 40 (4440)
I0501 06:29:15.500181   650 net.cpp:139] Memory required for data: 9725820
I0501 06:29:15.500185   650 layer_factory.hpp:77] Creating layer ip3
I0501 06:29:15.500193   650 net.cpp:86] Creating Layer ip3
I0501 06:29:15.500196   650 net.cpp:408] ip3 <- ip2
I0501 06:29:15.500201   650 net.cpp:382] ip3 -> ip3
I0501 06:29:15.500329   650 net.cpp:124] Setting up ip3
I0501 06:29:15.500337   650 net.cpp:131] Top shape: 111 40 (4440)
I0501 06:29:15.500339   650 net.cpp:139] Memory required for data: 9743580
I0501 06:29:15.500345   650 layer_factory.hpp:77] Creating layer relu3
I0501 06:29:15.500349   650 net.cpp:86] Creating Layer relu3
I0501 06:29:15.500352   650 net.cpp:408] relu3 <- ip3
I0501 06:29:15.500356   650 net.cpp:369] relu3 -> ip3 (in-place)
I0501 06:29:15.500501   650 net.cpp:124] Setting up relu3
I0501 06:29:15.500511   650 net.cpp:131] Top shape: 111 40 (4440)
I0501 06:29:15.500514   650 net.cpp:139] Memory required for data: 9761340
I0501 06:29:15.500517   650 layer_factory.hpp:77] Creating layer ip4
I0501 06:29:15.500536   650 net.cpp:86] Creating Layer ip4
I0501 06:29:15.500540   650 net.cpp:408] ip4 <- ip3
I0501 06:29:15.500545   650 net.cpp:382] ip4 -> ip4
I0501 06:29:15.500648   650 net.cpp:124] Setting up ip4
I0501 06:29:15.500655   650 net.cpp:131] Top shape: 111 10 (1110)
I0501 06:29:15.500674   650 net.cpp:139] Memory required for data: 9765780
I0501 06:29:15.500680   650 layer_factory.hpp:77] Creating layer loss
I0501 06:29:15.500692   650 net.cpp:86] Creating Layer loss
I0501 06:29:15.500695   650 net.cpp:408] loss <- ip4
I0501 06:29:15.500699   650 net.cpp:408] loss <- label
I0501 06:29:15.500705   650 net.cpp:382] loss -> loss
I0501 06:29:15.500717   650 layer_factory.hpp:77] Creating layer loss
…
I0501 06:29:15.502033   650 solver.cpp:173] Creating test net (#0) specified by net file: ECE595/cifar/train_test/var_everything/cifar_train_test_452.prototxt
I0501 06:29:15.502074   650 net.cpp:296] The NetState phase (1) differed from the phase (0) specified by a rule in layer cifar
I0501 06:29:15.502164   650 net.cpp:53] Initializing net from parameters: 
name: "CIFAR"
state {
  phase: TEST
}
layer {
  name: "cifar"
  type: "Data"
  top: "data"
  top: "label"
  include {
    phase: TEST
  }
  transform_param {
    mean_file: "examples/cifar10/mean.binaryproto"
  }
  data_param {
    source: "examples/cifar10/cifar10_test_lmdb"
    batch_size: 1000
    backend: LMDB
  }
}
layer {
  name: "conv0"
  type: "Convolution"
  bottom: "data"
  top: "conv0"
  param {
    lr_mult: 1
  }
  param {
    lr_mult: 2
  }
  convolution_param {
    num_output: 8
    pad: 2
    kernel_size: 5
    stride: 1
    weight_filler {
      type: "gaussian"
      std: 0.01
    }
    bias_filler {
      type: "constant"
    }
  }
}
layer {
  name: "Sigmoid0"
  type: "Sigmoid"
  bottom: "conv0"
  top: "Sigmoid0"
}
layer {
  name: "pool0"
  type: "Pooling"
  bottom: "Sigmoid0"
  top: "pool0"
  pooling_param {
    pool: AVE
    kernel_size: 3
    stride: 2
  }
}
layer {
  name: "ip1"
  type: "InnerProduct"
  bottom: "pool0"
  top: "ip1"
  param {
    lr_mult: 1
  }
  param {
    lr_mult: 2
  }
  inner_product_param {
    num_output: 160
    weight_filler {
      type: "gaussian"
      std: 0.01
    }
    bias_filler {
      type: "constant"
    }
  }
}
layer {
  name: "relu1"
  type: "ReLU"
  bottom: "ip1"
  top: "ip1"
}
layer {
  name: "ip2"
  type: "InnerProduct"
  bottom: "ip1"
  top: "ip2"
  param {
    lr_mult: 1
  }
  param {
    lr_mult: 2
  }
  inner_product_param {
    num_output: 40
    weight_filler {
      type: "gaussian"
      std: 0.01
    }
    bias_filler {
      type: "constant"
    }
  }
}
layer {
  name: "relu2"
  type: "ReLU"
  bottom: "ip2"
  top: "ip2"
}
layer {
  name: "ip3"
  type: "InnerProduct"
  bottom: "ip2"
  top: "ip3"
  param {
    lr_mult: 1
  }
  param {
    lr_mult: 2
  }
  inner_product_param {
    num_output: 40
    weight_filler {
      type: "gaussian"
      std: 0.01
    }
    bias_filler {
      type: "constant"
    }
  }
}
layer {
  name: "relu3"
  type: "ReLU"
  bottom: "ip3"
  top: "ip3"
}
layer {
  name: "ip4"
  type: "InnerProduct"
  bottom: "ip3"
  top: "ip4"
  param {
    lr_mult: 1
  }
  param {
    lr_mult: 2
  }
  inner_product_param {
    num_output: 10
    weight_filler {
      type: "gaussian"
      std: 0.01
    }
    bias_filler {
      type: "constant"
    }
  }
}
layer {
  name: "accuracy"
  type: "Accuracy"
  bottom: "ip4"
  bottom: "label"
  top: "accuracy"
  include {
    phase: TEST
  }
}
layer {
  name: "loss"
  type: "SoftmaxWithLoss"
  bottom: "ip4"
  bottom: "label"
  top: "loss"
}
I0501 06:29:15.502311   650 layer_factory.hpp:77] Creating layer cifar
I0501 06:29:15.502362   650 db_lmdb.cpp:35] Opened lmdb examples/cifar10/cifar10_test_lmdb
I0501 06:29:15.502374   650 net.cpp:86] Creating Layer cifar
I0501 06:29:15.502380   650 net.cpp:382] cifar -> data
I0501 06:29:15.502388   650 net.cpp:382] cifar -> label
I0501 06:29:15.502395   650 data_transformer.cpp:25] Loading mean file from: examples/cifar10/mean.binaryproto
I0501 06:29:15.502554   650 data_layer.cpp:45] output data size: 1000,3,32,32
I0501 06:29:15.524015   650 net.cpp:124] Setting up cifar
I0501 06:29:15.524057   650 net.cpp:131] Top shape: 1000 3 32 32 (3072000)
I0501 06:29:15.524062   650 net.cpp:131] Top shape: 1000 (1000)
I0501 06:29:15.524065   650 net.cpp:139] Memory required for data: 12292000
I0501 06:29:15.524070   650 layer_factory.hpp:77] Creating layer label_cifar_1_split
I0501 06:29:15.524082   650 net.cpp:86] Creating Layer label_cifar_1_split
I0501 06:29:15.524086   650 net.cpp:408] label_cifar_1_split <- label
I0501 06:29:15.524091   650 net.cpp:382] label_cifar_1_split -> label_cifar_1_split_0
I0501 06:29:15.524114   650 net.cpp:382] label_cifar_1_split -> label_cifar_1_split_1
I0501 06:29:15.524226   650 net.cpp:124] Setting up label_cifar_1_split
I0501 06:29:15.524235   650 net.cpp:131] Top shape: 1000 (1000)
I0501 06:29:15.524238   650 net.cpp:131] Top shape: 1000 (1000)
I0501 06:29:15.524240   650 net.cpp:139] Memory required for data: 12300000
I0501 06:29:15.524243   650 layer_factory.hpp:77] Creating layer conv0
I0501 06:29:15.524256   650 net.cpp:86] Creating Layer conv0
I0501 06:29:15.524260   650 net.cpp:408] conv0 <- data
I0501 06:29:15.524266   650 net.cpp:382] conv0 -> conv0
I0501 06:29:15.525885   650 net.cpp:124] Setting up conv0
I0501 06:29:15.525915   650 net.cpp:131] Top shape: 1000 8 32 32 (8192000)
I0501 06:29:15.525919   650 net.cpp:139] Memory required for data: 45068000
I0501 06:29:15.525929   650 layer_factory.hpp:77] Creating layer Sigmoid0
I0501 06:29:15.525935   650 net.cpp:86] Creating Layer Sigmoid0
I0501 06:29:15.525939   650 net.cpp:408] Sigmoid0 <- conv0
I0501 06:29:15.525944   650 net.cpp:382] Sigmoid0 -> Sigmoid0
I0501 06:29:15.527204   650 net.cpp:124] Setting up Sigmoid0
I0501 06:29:15.527215   650 net.cpp:131] Top shape: 1000 8 32 32 (8192000)
I0501 06:29:15.527235   650 net.cpp:139] Memory required for data: 77836000
I0501 06:29:15.527237   650 layer_factory.hpp:77] Creating layer pool0
I0501 06:29:15.527262   650 net.cpp:86] Creating Layer pool0
I0501 06:29:15.527266   650 net.cpp:408] pool0 <- Sigmoid0
I0501 06:29:15.527271   650 net.cpp:382] pool0 -> pool0
I0501 06:29:15.527458   650 net.cpp:124] Setting up pool0
I0501 06:29:15.527467   650 net.cpp:131] Top shape: 1000 8 16 16 (2048000)
I0501 06:29:15.527470   650 net.cpp:139] Memory required for data: 86028000
I0501 06:29:15.527473   650 layer_factory.hpp:77] Creating layer ip1
I0501 06:29:15.527480   650 net.cpp:86] Creating Layer ip1
I0501 06:29:15.527484   650 net.cpp:408] ip1 <- pool0
I0501 06:29:15.527489   650 net.cpp:382] ip1 -> ip1
I0501 06:29:15.536736   650 net.cpp:124] Setting up ip1
I0501 06:29:15.536747   650 net.cpp:131] Top shape: 1000 160 (160000)
I0501 06:29:15.536767   650 net.cpp:139] Memory required for data: 86668000
I0501 06:29:15.536805   650 layer_factory.hpp:77] Creating layer relu1
I0501 06:29:15.536831   650 net.cpp:86] Creating Layer relu1
I0501 06:29:15.536837   650 net.cpp:408] relu1 <- ip1
I0501 06:29:15.536842   650 net.cpp:369] relu1 -> ip1 (in-place)
I0501 06:29:15.537030   650 net.cpp:124] Setting up relu1
I0501 06:29:15.537041   650 net.cpp:131] Top shape: 1000 160 (160000)
I0501 06:29:15.537045   650 net.cpp:139] Memory required for data: 87308000
I0501 06:29:15.537048   650 layer_factory.hpp:77] Creating layer ip2
I0501 06:29:15.537055   650 net.cpp:86] Creating Layer ip2
I0501 06:29:15.537060   650 net.cpp:408] ip2 <- ip1
I0501 06:29:15.537065   650 net.cpp:382] ip2 -> ip2
I0501 06:29:15.537448   650 net.cpp:124] Setting up ip2
I0501 06:29:15.537457   650 net.cpp:131] Top shape: 1000 40 (40000)
I0501 06:29:15.537475   650 net.cpp:139] Memory required for data: 87468000
I0501 06:29:15.537484   650 layer_factory.hpp:77] Creating layer relu2
I0501 06:29:15.537492   650 net.cpp:86] Creating Layer relu2
I0501 06:29:15.537497   650 net.cpp:408] relu2 <- ip2
I0501 06:29:15.537500   650 net.cpp:369] relu2 -> ip2 (in-place)
I0501 06:29:15.538293   650 net.cpp:124] Setting up relu2
I0501 06:29:15.538305   650 net.cpp:131] Top shape: 1000 40 (40000)
I0501 06:29:15.538323   650 net.cpp:139] Memory required for data: 87628000
I0501 06:29:15.538326   650 layer_factory.hpp:77] Creating layer ip3
I0501 06:29:15.538333   650 net.cpp:86] Creating Layer ip3
I0501 06:29:15.538336   650 net.cpp:408] ip3 <- ip2
I0501 06:29:15.538342   650 net.cpp:382] ip3 -> ip3
I0501 06:29:15.538504   650 net.cpp:124] Setting up ip3
I0501 06:29:15.538513   650 net.cpp:131] Top shape: 1000 40 (40000)
I0501 06:29:15.538516   650 net.cpp:139] Memory required for data: 87788000
I0501 06:29:15.538522   650 layer_factory.hpp:77] Creating layer relu3
I0501 06:29:15.538527   650 net.cpp:86] Creating Layer relu3
I0501 06:29:15.538530   650 net.cpp:408] relu3 <- ip3
I0501 06:29:15.538535   650 net.cpp:369] relu3 -> ip3 (in-place)
I0501 06:29:15.538687   650 net.cpp:124] Setting up relu3
I0501 06:29:15.538697   650 net.cpp:131] Top shape: 1000 40 (40000)
I0501 06:29:15.538699   650 net.cpp:139] Memory required for data: 87948000
I0501 06:29:15.538702   650 layer_factory.hpp:77] Creating layer ip4
I0501 06:29:15.538709   650 net.cpp:86] Creating Layer ip4
I0501 06:29:15.538712   650 net.cpp:408] ip4 <- ip3
I0501 06:29:15.538717   650 net.cpp:382] ip4 -> ip4
I0501 06:29:15.538835   650 net.cpp:124] Setting up ip4
I0501 06:29:15.538841   650 net.cpp:131] Top shape: 1000 10 (10000)
I0501 06:29:15.538844   650 net.cpp:139] Memory required for data: 87988000
I0501 06:29:15.538852   650 layer_factory.hpp:77] Creating layer ip4_ip4_0_split
I0501 06:29:15.538857   650 net.cpp:86] Creating Layer ip4_ip4_0_split
I0501 06:29:15.538861   650 net.cpp:408] ip4_ip4_0_split <- ip4
I0501 06:29:15.538864   650 net.cpp:382] ip4_ip4_0_split -> ip4_ip4_0_split_0
I0501 06:29:15.538871   650 net.cpp:382] ip4_ip4_0_split -> ip4_ip4_0_split_1
I0501 06:29:15.538900   650 net.cpp:124] Setting up ip4_ip4_0_split
I0501 06:29:15.538910   650 net.cpp:131] Top shape: 1000 10 (10000)
I0501 06:29:15.538913   650 net.cpp:131] Top shape: 1000 10 (10000)
I0501 06:29:15.538918   650 net.cpp:139] Memory required for data: 88068000
I0501 06:29:15.538920   650 layer_factory.hpp:77] Creating layer accuracy
I0501 06:29:15.538926   650 net.cpp:86] Creating Layer accuracy
I0501 06:29:15.538930   650 net.cpp:408] accuracy <- ip4_ip4_0_split_0
I0501 06:29:15.538933   650 net.cpp:408] accuracy <- label_cifar_1_split_0
I0501 06:29:15.538938   650 net.cpp:382] accuracy -> accuracy
…
