…
I0430 19:29:42.932451 26090 net.cpp:296] The NetState phase (0) differed from the phase (1) specified by a rule in layer cifar
I0430 19:29:42.932468 26090 net.cpp:296] The NetState phase (0) differed from the phase (1) specified by a rule in layer accuracy
I0430 19:29:42.932551 26090 net.cpp:53] Initializing net from parameters: 
name: "CIFAR"
state {
  phase: TRAIN
  level: 0
  stage: ""
}
layer {
  name: "cifar"
  type: "Data"
  top: "data"
  top: "label"
  include {
    phase: TRAIN
  }
  transform_param {
    mean_file: "examples/cifar10/mean.binaryproto"
  }
  data_param {
    source: "examples/cifar10/cifar10_train_lmdb"
    batch_size: 111
    backend: LMDB
  }
}
layer {
  name: "ip1"
  type: "InnerProduct"
  bottom: "data"
  top: "ip1"
  param {
    lr_mult: 1
  }
  param {
    lr_mult: 2
  }
  inner_product_param {
    num_output: 40
    weight_filler {
      type: "gaussian"
      std: 0.01
    }
    bias_filler {
      type: "constant"
    }
  }
}
layer {
  name: "relu1"
  type: "ReLU"
  bottom: "ip1"
  top: "ip1"
}
layer {
  name: "ip2"
  type: "InnerProduct"
  bottom: "ip1"
  top: "ip2"
  param {
    lr_mult: 1
  }
  param {
    lr_mult: 2
  }
  inner_product_param {
    num_output: 80
    weight_filler {
      type: "gaussian"
      std: 0.01
    }
    bias_filler {
      type: "constant"
    }
  }
}
layer {
  name: "relu2"
  type: "ReLU"
  bottom: "ip2"
  top: "ip2"
}
layer {
  name: "ip3"
  type: "InnerProduct"
  bottom: "ip2"
  top: "ip3"
  param {
    lr_mult: 1
  }
  param {
    lr_mult: 2
  }
  inner_product_param {
    num_output: 160
    weight_filler {
      type: "gaussian"
      std: 0.01
    }
    bias_filler {
      type: "constant"
    }
  }
}
layer {
  name: "relu3"
  type: "ReLU"
  bottom: "ip3"
  top: "ip3"
}
layer {
  name: "ip4"
  type: "InnerProduct"
  bottom: "ip3"
  top: "ip4"
  param {
    lr_mult: 1
  }
  param {
    lr_mult: 2
  }
  inner_product_param {
    num_output: 10
    weight_filler {
      type: "gaussian"
      std: 0.01
    }
    bias_filler {
      type: "constant"
    }
  }
}
layer {
  name: "loss"
  type: "SoftmaxWithLoss"
  bottom: "ip4"
  bottom: "label"
  top: "loss"
}
I0430 19:29:42.932620 26090 layer_factory.hpp:77] Creating layer cifar
I0430 19:29:42.932715 26090 db_lmdb.cpp:35] Opened lmdb examples/cifar10/cifar10_train_lmdb
I0430 19:29:42.932742 26090 net.cpp:86] Creating Layer cifar
I0430 19:29:42.932750 26090 net.cpp:382] cifar -> data
I0430 19:29:42.932772 26090 net.cpp:382] cifar -> label
I0430 19:29:42.932785 26090 data_transformer.cpp:25] Loading mean file from: examples/cifar10/mean.binaryproto
I0430 19:29:42.934916 26090 data_layer.cpp:45] output data size: 111,3,32,32
I0430 19:29:42.942785 26090 net.cpp:124] Setting up cifar
I0430 19:29:42.942813 26090 net.cpp:131] Top shape: 111 3 32 32 (340992)
I0430 19:29:42.942821 26090 net.cpp:131] Top shape: 111 (111)
I0430 19:29:42.942824 26090 net.cpp:139] Memory required for data: 1364412
I0430 19:29:42.942831 26090 layer_factory.hpp:77] Creating layer ip1
I0430 19:29:42.942843 26090 net.cpp:86] Creating Layer ip1
I0430 19:29:42.942848 26090 net.cpp:408] ip1 <- data
I0430 19:29:42.942862 26090 net.cpp:382] ip1 -> ip1
I0430 19:29:42.947108 26090 net.cpp:124] Setting up ip1
I0430 19:29:42.947119 26090 net.cpp:131] Top shape: 111 40 (4440)
I0430 19:29:42.947123 26090 net.cpp:139] Memory required for data: 1382172
I0430 19:29:42.947137 26090 layer_factory.hpp:77] Creating layer relu1
I0430 19:29:42.947146 26090 net.cpp:86] Creating Layer relu1
I0430 19:29:42.947166 26090 net.cpp:408] relu1 <- ip1
I0430 19:29:42.947172 26090 net.cpp:369] relu1 -> ip1 (in-place)
I0430 19:29:43.233505 26090 net.cpp:124] Setting up relu1
I0430 19:29:43.233533 26090 net.cpp:131] Top shape: 111 40 (4440)
I0430 19:29:43.233537 26090 net.cpp:139] Memory required for data: 1399932
I0430 19:29:43.233544 26090 layer_factory.hpp:77] Creating layer ip2
I0430 19:29:43.233558 26090 net.cpp:86] Creating Layer ip2
I0430 19:29:43.233563 26090 net.cpp:408] ip2 <- ip1
I0430 19:29:43.233572 26090 net.cpp:382] ip2 -> ip2
I0430 19:29:43.233789 26090 net.cpp:124] Setting up ip2
I0430 19:29:43.233798 26090 net.cpp:131] Top shape: 111 80 (8880)
I0430 19:29:43.233803 26090 net.cpp:139] Memory required for data: 1435452
I0430 19:29:43.233814 26090 layer_factory.hpp:77] Creating layer relu2
I0430 19:29:43.233821 26090 net.cpp:86] Creating Layer relu2
I0430 19:29:43.233825 26090 net.cpp:408] relu2 <- ip2
I0430 19:29:43.233829 26090 net.cpp:369] relu2 -> ip2 (in-place)
I0430 19:29:43.234654 26090 net.cpp:124] Setting up relu2
I0430 19:29:43.234668 26090 net.cpp:131] Top shape: 111 80 (8880)
I0430 19:29:43.234673 26090 net.cpp:139] Memory required for data: 1470972
I0430 19:29:43.234676 26090 layer_factory.hpp:77] Creating layer ip3
I0430 19:29:43.234684 26090 net.cpp:86] Creating Layer ip3
I0430 19:29:43.234688 26090 net.cpp:408] ip3 <- ip2
I0430 19:29:43.234694 26090 net.cpp:382] ip3 -> ip3
I0430 19:29:43.236091 26090 net.cpp:124] Setting up ip3
I0430 19:29:43.236105 26090 net.cpp:131] Top shape: 111 160 (17760)
I0430 19:29:43.236109 26090 net.cpp:139] Memory required for data: 1542012
I0430 19:29:43.236119 26090 layer_factory.hpp:77] Creating layer relu3
I0430 19:29:43.236125 26090 net.cpp:86] Creating Layer relu3
I0430 19:29:43.236129 26090 net.cpp:408] relu3 <- ip3
I0430 19:29:43.236133 26090 net.cpp:369] relu3 -> ip3 (in-place)
I0430 19:29:43.236312 26090 net.cpp:124] Setting up relu3
I0430 19:29:43.236321 26090 net.cpp:131] Top shape: 111 160 (17760)
I0430 19:29:43.236325 26090 net.cpp:139] Memory required for data: 1613052
I0430 19:29:43.236328 26090 layer_factory.hpp:77] Creating layer ip4
I0430 19:29:43.236335 26090 net.cpp:86] Creating Layer ip4
I0430 19:29:43.236338 26090 net.cpp:408] ip4 <- ip3
I0430 19:29:43.236343 26090 net.cpp:382] ip4 -> ip4
I0430 19:29:43.236493 26090 net.cpp:124] Setting up ip4
I0430 19:29:43.236500 26090 net.cpp:131] Top shape: 111 10 (1110)
I0430 19:29:43.236505 26090 net.cpp:139] Memory required for data: 1617492
I0430 19:29:43.236510 26090 layer_factory.hpp:77] Creating layer loss
I0430 19:29:43.236517 26090 net.cpp:86] Creating Layer loss
I0430 19:29:43.236521 26090 net.cpp:408] loss <- ip4
I0430 19:29:43.236526 26090 net.cpp:408] loss <- label
I0430 19:29:43.236531 26090 net.cpp:382] loss -> loss
I0430 19:29:43.236551 26090 layer_factory.hpp:77] Creating layer loss
…
I0430 19:29:43.237188 26090 solver.cpp:173] Creating test net (#0) specified by net file: ECE595/cifar/train_test/var_everything/cifar_train_test_99.prototxt
I0430 19:29:43.237229 26090 net.cpp:296] The NetState phase (1) differed from the phase (0) specified by a rule in layer cifar
I0430 19:29:43.237310 26090 net.cpp:53] Initializing net from parameters: 
name: "CIFAR"
state {
  phase: TEST
}
layer {
  name: "cifar"
  type: "Data"
  top: "data"
  top: "label"
  include {
    phase: TEST
  }
  transform_param {
    mean_file: "examples/cifar10/mean.binaryproto"
  }
  data_param {
    source: "examples/cifar10/cifar10_test_lmdb"
    batch_size: 1000
    backend: LMDB
  }
}
layer {
  name: "ip1"
  type: "InnerProduct"
  bottom: "data"
  top: "ip1"
  param {
    lr_mult: 1
  }
  param {
    lr_mult: 2
  }
  inner_product_param {
    num_output: 40
    weight_filler {
      type: "gaussian"
      std: 0.01
    }
    bias_filler {
      type: "constant"
    }
  }
}
layer {
  name: "relu1"
  type: "ReLU"
  bottom: "ip1"
  top: "ip1"
}
layer {
  name: "ip2"
  type: "InnerProduct"
  bottom: "ip1"
  top: "ip2"
  param {
    lr_mult: 1
  }
  param {
    lr_mult: 2
  }
  inner_product_param {
    num_output: 80
    weight_filler {
      type: "gaussian"
      std: 0.01
    }
    bias_filler {
      type: "constant"
    }
  }
}
layer {
  name: "relu2"
  type: "ReLU"
  bottom: "ip2"
  top: "ip2"
}
layer {
  name: "ip3"
  type: "InnerProduct"
  bottom: "ip2"
  top: "ip3"
  param {
    lr_mult: 1
  }
  param {
    lr_mult: 2
  }
  inner_product_param {
    num_output: 160
    weight_filler {
      type: "gaussian"
      std: 0.01
    }
    bias_filler {
      type: "constant"
    }
  }
}
layer {
  name: "relu3"
  type: "ReLU"
  bottom: "ip3"
  top: "ip3"
}
layer {
  name: "ip4"
  type: "InnerProduct"
  bottom: "ip3"
  top: "ip4"
  param {
    lr_mult: 1
  }
  param {
    lr_mult: 2
  }
  inner_product_param {
    num_output: 10
    weight_filler {
      type: "gaussian"
      std: 0.01
    }
    bias_filler {
      type: "constant"
    }
  }
}
layer {
  name: "accuracy"
  type: "Accuracy"
  bottom: "ip4"
  bottom: "label"
  top: "accuracy"
  include {
    phase: TEST
  }
}
layer {
  name: "loss"
  type: "SoftmaxWithLoss"
  bottom: "ip4"
  bottom: "label"
  top: "loss"
}
I0430 19:29:43.237371 26090 layer_factory.hpp:77] Creating layer cifar
I0430 19:29:43.237418 26090 db_lmdb.cpp:35] Opened lmdb examples/cifar10/cifar10_test_lmdb
I0430 19:29:43.237432 26090 net.cpp:86] Creating Layer cifar
I0430 19:29:43.237437 26090 net.cpp:382] cifar -> data
I0430 19:29:43.237444 26090 net.cpp:382] cifar -> label
I0430 19:29:43.237452 26090 data_transformer.cpp:25] Loading mean file from: examples/cifar10/mean.binaryproto
I0430 19:29:43.237617 26090 data_layer.cpp:45] output data size: 1000,3,32,32
I0430 19:29:43.261523 26090 net.cpp:124] Setting up cifar
I0430 19:29:43.261548 26090 net.cpp:131] Top shape: 1000 3 32 32 (3072000)
I0430 19:29:43.261554 26090 net.cpp:131] Top shape: 1000 (1000)
I0430 19:29:43.261559 26090 net.cpp:139] Memory required for data: 12292000
I0430 19:29:43.261564 26090 layer_factory.hpp:77] Creating layer label_cifar_1_split
I0430 19:29:43.261593 26090 net.cpp:86] Creating Layer label_cifar_1_split
I0430 19:29:43.261598 26090 net.cpp:408] label_cifar_1_split <- label
I0430 19:29:43.261605 26090 net.cpp:382] label_cifar_1_split -> label_cifar_1_split_0
I0430 19:29:43.261613 26090 net.cpp:382] label_cifar_1_split -> label_cifar_1_split_1
I0430 19:29:43.261708 26090 net.cpp:124] Setting up label_cifar_1_split
I0430 19:29:43.261715 26090 net.cpp:131] Top shape: 1000 (1000)
I0430 19:29:43.261719 26090 net.cpp:131] Top shape: 1000 (1000)
I0430 19:29:43.261723 26090 net.cpp:139] Memory required for data: 12300000
I0430 19:29:43.261725 26090 layer_factory.hpp:77] Creating layer ip1
I0430 19:29:43.261734 26090 net.cpp:86] Creating Layer ip1
I0430 19:29:43.261736 26090 net.cpp:408] ip1 <- data
I0430 19:29:43.261741 26090 net.cpp:382] ip1 -> ip1
I0430 19:29:43.265203 26090 net.cpp:124] Setting up ip1
I0430 19:29:43.265213 26090 net.cpp:131] Top shape: 1000 40 (40000)
I0430 19:29:43.265216 26090 net.cpp:139] Memory required for data: 12460000
I0430 19:29:43.265241 26090 layer_factory.hpp:77] Creating layer relu1
I0430 19:29:43.265247 26090 net.cpp:86] Creating Layer relu1
I0430 19:29:43.265251 26090 net.cpp:408] relu1 <- ip1
I0430 19:29:43.265255 26090 net.cpp:369] relu1 -> ip1 (in-place)
I0430 19:29:43.266031 26090 net.cpp:124] Setting up relu1
I0430 19:29:43.266043 26090 net.cpp:131] Top shape: 1000 40 (40000)
I0430 19:29:43.266047 26090 net.cpp:139] Memory required for data: 12620000
I0430 19:29:43.266050 26090 layer_factory.hpp:77] Creating layer ip2
I0430 19:29:43.266058 26090 net.cpp:86] Creating Layer ip2
I0430 19:29:43.266062 26090 net.cpp:408] ip2 <- ip1
I0430 19:29:43.266067 26090 net.cpp:382] ip2 -> ip2
I0430 19:29:43.266279 26090 net.cpp:124] Setting up ip2
I0430 19:29:43.266288 26090 net.cpp:131] Top shape: 1000 80 (80000)
I0430 19:29:43.266290 26090 net.cpp:139] Memory required for data: 12940000
I0430 19:29:43.266299 26090 layer_factory.hpp:77] Creating layer relu2
I0430 19:29:43.266304 26090 net.cpp:86] Creating Layer relu2
I0430 19:29:43.266307 26090 net.cpp:408] relu2 <- ip2
I0430 19:29:43.266311 26090 net.cpp:369] relu2 -> ip2 (in-place)
I0430 19:29:43.266480 26090 net.cpp:124] Setting up relu2
I0430 19:29:43.266489 26090 net.cpp:131] Top shape: 1000 80 (80000)
I0430 19:29:43.266491 26090 net.cpp:139] Memory required for data: 13260000
I0430 19:29:43.266494 26090 layer_factory.hpp:77] Creating layer ip3
I0430 19:29:43.266500 26090 net.cpp:86] Creating Layer ip3
I0430 19:29:43.266504 26090 net.cpp:408] ip3 <- ip2
I0430 19:29:43.266508 26090 net.cpp:382] ip3 -> ip3
I0430 19:29:43.267043 26090 net.cpp:124] Setting up ip3
I0430 19:29:43.267052 26090 net.cpp:131] Top shape: 1000 160 (160000)
I0430 19:29:43.267056 26090 net.cpp:139] Memory required for data: 13900000
I0430 19:29:43.267065 26090 layer_factory.hpp:77] Creating layer relu3
I0430 19:29:43.267071 26090 net.cpp:86] Creating Layer relu3
I0430 19:29:43.267073 26090 net.cpp:408] relu3 <- ip3
I0430 19:29:43.267078 26090 net.cpp:369] relu3 -> ip3 (in-place)
I0430 19:29:43.267282 26090 net.cpp:124] Setting up relu3
I0430 19:29:43.267290 26090 net.cpp:131] Top shape: 1000 160 (160000)
I0430 19:29:43.267294 26090 net.cpp:139] Memory required for data: 14540000
I0430 19:29:43.267297 26090 layer_factory.hpp:77] Creating layer ip4
I0430 19:29:43.267304 26090 net.cpp:86] Creating Layer ip4
I0430 19:29:43.267307 26090 net.cpp:408] ip4 <- ip3
I0430 19:29:43.267313 26090 net.cpp:382] ip4 -> ip4
I0430 19:29:43.267474 26090 net.cpp:124] Setting up ip4
I0430 19:29:43.267480 26090 net.cpp:131] Top shape: 1000 10 (10000)
I0430 19:29:43.267483 26090 net.cpp:139] Memory required for data: 14580000
I0430 19:29:43.267489 26090 layer_factory.hpp:77] Creating layer ip4_ip4_0_split
I0430 19:29:43.267494 26090 net.cpp:86] Creating Layer ip4_ip4_0_split
I0430 19:29:43.267498 26090 net.cpp:408] ip4_ip4_0_split <- ip4
I0430 19:29:43.267503 26090 net.cpp:382] ip4_ip4_0_split -> ip4_ip4_0_split_0
I0430 19:29:43.267508 26090 net.cpp:382] ip4_ip4_0_split -> ip4_ip4_0_split_1
I0430 19:29:43.267539 26090 net.cpp:124] Setting up ip4_ip4_0_split
I0430 19:29:43.267544 26090 net.cpp:131] Top shape: 1000 10 (10000)
I0430 19:29:43.267547 26090 net.cpp:131] Top shape: 1000 10 (10000)
I0430 19:29:43.267550 26090 net.cpp:139] Memory required for data: 14660000
I0430 19:29:43.267554 26090 layer_factory.hpp:77] Creating layer accuracy
I0430 19:29:43.267560 26090 net.cpp:86] Creating Layer accuracy
I0430 19:29:43.267562 26090 net.cpp:408] accuracy <- ip4_ip4_0_split_0
I0430 19:29:43.267565 26090 net.cpp:408] accuracy <- label_cifar_1_split_0
I0430 19:29:43.267570 26090 net.cpp:382] accuracy -> accuracy
…
