…
I0501 06:53:23.765277  2443 net.cpp:296] The NetState phase (0) differed from the phase (1) specified by a rule in layer cifar
I0501 06:53:23.765292  2443 net.cpp:296] The NetState phase (0) differed from the phase (1) specified by a rule in layer accuracy
I0501 06:53:23.765373  2443 net.cpp:53] Initializing net from parameters: 
name: "CIFAR"
state {
  phase: TRAIN
  level: 0
  stage: ""
}
layer {
  name: "cifar"
  type: "Data"
  top: "data"
  top: "label"
  include {
    phase: TRAIN
  }
  transform_param {
    mean_file: "examples/cifar10/mean.binaryproto"
  }
  data_param {
    source: "examples/cifar10/cifar10_train_lmdb"
    batch_size: 111
    backend: LMDB
  }
}
layer {
  name: "conv0"
  type: "Convolution"
  bottom: "data"
  top: "conv0"
  param {
    lr_mult: 1
  }
  param {
    lr_mult: 2
  }
  convolution_param {
    num_output: 16
    pad: 2
    kernel_size: 3
    stride: 1
    weight_filler {
      type: "gaussian"
      std: 0.01
    }
    bias_filler {
      type: "constant"
    }
  }
}
layer {
  name: "Sigmoid0"
  type: "Sigmoid"
  bottom: "conv0"
  top: "Sigmoid0"
}
layer {
  name: "pool0"
  type: "Pooling"
  bottom: "Sigmoid0"
  top: "pool0"
  pooling_param {
    pool: AVE
    kernel_size: 3
    stride: 2
  }
}
layer {
  name: "ip1"
  type: "InnerProduct"
  bottom: "pool0"
  top: "ip1"
  param {
    lr_mult: 1
  }
  param {
    lr_mult: 2
  }
  inner_product_param {
    num_output: 10
    weight_filler {
      type: "gaussian"
      std: 0.01
    }
    bias_filler {
      type: "constant"
    }
  }
}
layer {
  name: "relu1"
  type: "ReLU"
  bottom: "ip1"
  top: "ip1"
}
layer {
  name: "ip2"
  type: "InnerProduct"
  bottom: "ip1"
  top: "ip2"
  param {
    lr_mult: 1
  }
  param {
    lr_mult: 2
  }
  inner_product_param {
    num_output: 10
    weight_filler {
      type: "gaussian"
      std: 0.01
    }
    bias_filler {
      type: "constant"
    }
  }
}
layer {
  name: "loss"
  type: "SoftmaxWithLoss"
  bottom: "ip2"
  bottom: "label"
  top: "loss"
}
I0501 06:53:23.765437  2443 layer_factory.hpp:77] Creating layer cifar
I0501 06:53:23.765538  2443 db_lmdb.cpp:35] Opened lmdb examples/cifar10/cifar10_train_lmdb
I0501 06:53:23.765565  2443 net.cpp:86] Creating Layer cifar
I0501 06:53:23.765573  2443 net.cpp:382] cifar -> data
I0501 06:53:23.765596  2443 net.cpp:382] cifar -> label
I0501 06:53:23.765614  2443 data_transformer.cpp:25] Loading mean file from: examples/cifar10/mean.binaryproto
I0501 06:53:23.767796  2443 data_layer.cpp:45] output data size: 111,3,32,32
I0501 06:53:23.775784  2443 net.cpp:124] Setting up cifar
I0501 06:53:23.775804  2443 net.cpp:131] Top shape: 111 3 32 32 (340992)
I0501 06:53:23.775810  2443 net.cpp:131] Top shape: 111 (111)
I0501 06:53:23.775813  2443 net.cpp:139] Memory required for data: 1364412
I0501 06:53:23.775821  2443 layer_factory.hpp:77] Creating layer conv0
I0501 06:53:23.775840  2443 net.cpp:86] Creating Layer conv0
I0501 06:53:23.775846  2443 net.cpp:408] conv0 <- data
I0501 06:53:23.775857  2443 net.cpp:382] conv0 -> conv0
I0501 06:53:24.068094  2443 net.cpp:124] Setting up conv0
I0501 06:53:24.068127  2443 net.cpp:131] Top shape: 111 16 34 34 (2053056)
I0501 06:53:24.068132  2443 net.cpp:139] Memory required for data: 9576636
I0501 06:53:24.068150  2443 layer_factory.hpp:77] Creating layer Sigmoid0
I0501 06:53:24.068166  2443 net.cpp:86] Creating Layer Sigmoid0
I0501 06:53:24.068171  2443 net.cpp:408] Sigmoid0 <- conv0
I0501 06:53:24.068177  2443 net.cpp:382] Sigmoid0 -> Sigmoid0
I0501 06:53:24.068419  2443 net.cpp:124] Setting up Sigmoid0
I0501 06:53:24.068431  2443 net.cpp:131] Top shape: 111 16 34 34 (2053056)
I0501 06:53:24.068435  2443 net.cpp:139] Memory required for data: 17788860
I0501 06:53:24.068439  2443 layer_factory.hpp:77] Creating layer pool0
I0501 06:53:24.068449  2443 net.cpp:86] Creating Layer pool0
I0501 06:53:24.068451  2443 net.cpp:408] pool0 <- Sigmoid0
I0501 06:53:24.068457  2443 net.cpp:382] pool0 -> pool0
I0501 06:53:24.069351  2443 net.cpp:124] Setting up pool0
I0501 06:53:24.069368  2443 net.cpp:131] Top shape: 111 16 17 17 (513264)
I0501 06:53:24.069372  2443 net.cpp:139] Memory required for data: 19841916
I0501 06:53:24.069376  2443 layer_factory.hpp:77] Creating layer ip1
I0501 06:53:24.069388  2443 net.cpp:86] Creating Layer ip1
I0501 06:53:24.069392  2443 net.cpp:408] ip1 <- pool0
I0501 06:53:24.069398  2443 net.cpp:382] ip1 -> ip1
I0501 06:53:24.072019  2443 net.cpp:124] Setting up ip1
I0501 06:53:24.072036  2443 net.cpp:131] Top shape: 111 10 (1110)
I0501 06:53:24.072039  2443 net.cpp:139] Memory required for data: 19846356
I0501 06:53:24.072049  2443 layer_factory.hpp:77] Creating layer relu1
I0501 06:53:24.072057  2443 net.cpp:86] Creating Layer relu1
I0501 06:53:24.072062  2443 net.cpp:408] relu1 <- ip1
I0501 06:53:24.072067  2443 net.cpp:369] relu1 -> ip1 (in-place)
I0501 06:53:24.072260  2443 net.cpp:124] Setting up relu1
I0501 06:53:24.072271  2443 net.cpp:131] Top shape: 111 10 (1110)
I0501 06:53:24.072275  2443 net.cpp:139] Memory required for data: 19850796
I0501 06:53:24.072279  2443 layer_factory.hpp:77] Creating layer ip2
I0501 06:53:24.072288  2443 net.cpp:86] Creating Layer ip2
I0501 06:53:24.072290  2443 net.cpp:408] ip2 <- ip1
I0501 06:53:24.072296  2443 net.cpp:382] ip2 -> ip2
I0501 06:53:24.072412  2443 net.cpp:124] Setting up ip2
I0501 06:53:24.072420  2443 net.cpp:131] Top shape: 111 10 (1110)
I0501 06:53:24.072423  2443 net.cpp:139] Memory required for data: 19855236
I0501 06:53:24.072432  2443 layer_factory.hpp:77] Creating layer loss
I0501 06:53:24.072439  2443 net.cpp:86] Creating Layer loss
I0501 06:53:24.072443  2443 net.cpp:408] loss <- ip2
I0501 06:53:24.072448  2443 net.cpp:408] loss <- label
I0501 06:53:24.072453  2443 net.cpp:382] loss -> loss
I0501 06:53:24.072474  2443 layer_factory.hpp:77] Creating layer loss
…
I0501 06:53:24.073153  2443 solver.cpp:173] Creating test net (#0) specified by net file: ECE595/cifar/train_test/var_everything/cifar_train_test_465.prototxt
I0501 06:53:24.073181  2443 net.cpp:296] The NetState phase (1) differed from the phase (0) specified by a rule in layer cifar
I0501 06:53:24.073271  2443 net.cpp:53] Initializing net from parameters: 
name: "CIFAR"
state {
  phase: TEST
}
layer {
  name: "cifar"
  type: "Data"
  top: "data"
  top: "label"
  include {
    phase: TEST
  }
  transform_param {
    mean_file: "examples/cifar10/mean.binaryproto"
  }
  data_param {
    source: "examples/cifar10/cifar10_test_lmdb"
    batch_size: 1000
    backend: LMDB
  }
}
layer {
  name: "conv0"
  type: "Convolution"
  bottom: "data"
  top: "conv0"
  param {
    lr_mult: 1
  }
  param {
    lr_mult: 2
  }
  convolution_param {
    num_output: 16
    pad: 2
    kernel_size: 3
    stride: 1
    weight_filler {
      type: "gaussian"
      std: 0.01
    }
    bias_filler {
      type: "constant"
    }
  }
}
layer {
  name: "Sigmoid0"
  type: "Sigmoid"
  bottom: "conv0"
  top: "Sigmoid0"
}
layer {
  name: "pool0"
  type: "Pooling"
  bottom: "Sigmoid0"
  top: "pool0"
  pooling_param {
    pool: AVE
    kernel_size: 3
    stride: 2
  }
}
layer {
  name: "ip1"
  type: "InnerProduct"
  bottom: "pool0"
  top: "ip1"
  param {
    lr_mult: 1
  }
  param {
    lr_mult: 2
  }
  inner_product_param {
    num_output: 10
    weight_filler {
      type: "gaussian"
      std: 0.01
    }
    bias_filler {
      type: "constant"
    }
  }
}
layer {
  name: "relu1"
  type: "ReLU"
  bottom: "ip1"
  top: "ip1"
}
layer {
  name: "ip2"
  type: "InnerProduct"
  bottom: "ip1"
  top: "ip2"
  param {
    lr_mult: 1
  }
  param {
    lr_mult: 2
  }
  inner_product_param {
    num_output: 10
    weight_filler {
      type: "gaussian"
      std: 0.01
    }
    bias_filler {
      type: "constant"
    }
  }
}
layer {
  name: "accuracy"
  type: "Accuracy"
  bottom: "ip2"
  bottom: "label"
  top: "accuracy"
  include {
    phase: TEST
  }
}
layer {
  name: "loss"
  type: "SoftmaxWithLoss"
  bottom: "ip2"
  bottom: "label"
  top: "loss"
}
I0501 06:53:24.073355  2443 layer_factory.hpp:77] Creating layer cifar
I0501 06:53:24.073410  2443 db_lmdb.cpp:35] Opened lmdb examples/cifar10/cifar10_test_lmdb
I0501 06:53:24.073423  2443 net.cpp:86] Creating Layer cifar
I0501 06:53:24.073431  2443 net.cpp:382] cifar -> data
I0501 06:53:24.073439  2443 net.cpp:382] cifar -> label
I0501 06:53:24.073446  2443 data_transformer.cpp:25] Loading mean file from: examples/cifar10/mean.binaryproto
I0501 06:53:24.073618  2443 data_layer.cpp:45] output data size: 1000,3,32,32
I0501 06:53:24.099824  2443 net.cpp:124] Setting up cifar
I0501 06:53:24.099856  2443 net.cpp:131] Top shape: 1000 3 32 32 (3072000)
I0501 06:53:24.099864  2443 net.cpp:131] Top shape: 1000 (1000)
I0501 06:53:24.099867  2443 net.cpp:139] Memory required for data: 12292000
I0501 06:53:24.099874  2443 layer_factory.hpp:77] Creating layer label_cifar_1_split
I0501 06:53:24.099889  2443 net.cpp:86] Creating Layer label_cifar_1_split
I0501 06:53:24.099895  2443 net.cpp:408] label_cifar_1_split <- label
I0501 06:53:24.099901  2443 net.cpp:382] label_cifar_1_split -> label_cifar_1_split_0
I0501 06:53:24.099911  2443 net.cpp:382] label_cifar_1_split -> label_cifar_1_split_1
I0501 06:53:24.100041  2443 net.cpp:124] Setting up label_cifar_1_split
I0501 06:53:24.100051  2443 net.cpp:131] Top shape: 1000 (1000)
I0501 06:53:24.100056  2443 net.cpp:131] Top shape: 1000 (1000)
I0501 06:53:24.100059  2443 net.cpp:139] Memory required for data: 12300000
I0501 06:53:24.100064  2443 layer_factory.hpp:77] Creating layer conv0
I0501 06:53:24.100078  2443 net.cpp:86] Creating Layer conv0
I0501 06:53:24.100082  2443 net.cpp:408] conv0 <- data
I0501 06:53:24.100088  2443 net.cpp:382] conv0 -> conv0
I0501 06:53:24.102007  2443 net.cpp:124] Setting up conv0
I0501 06:53:24.102025  2443 net.cpp:131] Top shape: 1000 16 34 34 (18496000)
I0501 06:53:24.102028  2443 net.cpp:139] Memory required for data: 86284000
I0501 06:53:24.102041  2443 layer_factory.hpp:77] Creating layer Sigmoid0
I0501 06:53:24.102049  2443 net.cpp:86] Creating Layer Sigmoid0
I0501 06:53:24.102053  2443 net.cpp:408] Sigmoid0 <- conv0
I0501 06:53:24.102059  2443 net.cpp:382] Sigmoid0 -> Sigmoid0
I0501 06:53:24.102355  2443 net.cpp:124] Setting up Sigmoid0
I0501 06:53:24.102366  2443 net.cpp:131] Top shape: 1000 16 34 34 (18496000)
I0501 06:53:24.102370  2443 net.cpp:139] Memory required for data: 160268000
I0501 06:53:24.102375  2443 layer_factory.hpp:77] Creating layer pool0
I0501 06:53:24.102385  2443 net.cpp:86] Creating Layer pool0
I0501 06:53:24.102388  2443 net.cpp:408] pool0 <- Sigmoid0
I0501 06:53:24.102394  2443 net.cpp:382] pool0 -> pool0
I0501 06:53:24.104259  2443 net.cpp:124] Setting up pool0
I0501 06:53:24.104290  2443 net.cpp:131] Top shape: 1000 16 17 17 (4624000)
I0501 06:53:24.104295  2443 net.cpp:139] Memory required for data: 178764000
I0501 06:53:24.104300  2443 layer_factory.hpp:77] Creating layer ip1
I0501 06:53:24.104310  2443 net.cpp:86] Creating Layer ip1
I0501 06:53:24.104315  2443 net.cpp:408] ip1 <- pool0
I0501 06:53:24.104323  2443 net.cpp:382] ip1 -> ip1
I0501 06:53:24.105994  2443 net.cpp:124] Setting up ip1
I0501 06:53:24.106005  2443 net.cpp:131] Top shape: 1000 10 (10000)
I0501 06:53:24.106010  2443 net.cpp:139] Memory required for data: 178804000
I0501 06:53:24.106021  2443 layer_factory.hpp:77] Creating layer relu1
I0501 06:53:24.106027  2443 net.cpp:86] Creating Layer relu1
I0501 06:53:24.106032  2443 net.cpp:408] relu1 <- ip1
I0501 06:53:24.106037  2443 net.cpp:369] relu1 -> ip1 (in-place)
I0501 06:53:24.106230  2443 net.cpp:124] Setting up relu1
I0501 06:53:24.106240  2443 net.cpp:131] Top shape: 1000 10 (10000)
I0501 06:53:24.106245  2443 net.cpp:139] Memory required for data: 178844000
I0501 06:53:24.106248  2443 layer_factory.hpp:77] Creating layer ip2
I0501 06:53:24.106256  2443 net.cpp:86] Creating Layer ip2
I0501 06:53:24.106259  2443 net.cpp:408] ip2 <- ip1
I0501 06:53:24.106266  2443 net.cpp:382] ip2 -> ip2
I0501 06:53:24.106393  2443 net.cpp:124] Setting up ip2
I0501 06:53:24.106403  2443 net.cpp:131] Top shape: 1000 10 (10000)
I0501 06:53:24.106406  2443 net.cpp:139] Memory required for data: 178884000
I0501 06:53:24.106415  2443 layer_factory.hpp:77] Creating layer ip2_ip2_0_split
I0501 06:53:24.106423  2443 net.cpp:86] Creating Layer ip2_ip2_0_split
I0501 06:53:24.106427  2443 net.cpp:408] ip2_ip2_0_split <- ip2
I0501 06:53:24.106433  2443 net.cpp:382] ip2_ip2_0_split -> ip2_ip2_0_split_0
I0501 06:53:24.106441  2443 net.cpp:382] ip2_ip2_0_split -> ip2_ip2_0_split_1
I0501 06:53:24.106477  2443 net.cpp:124] Setting up ip2_ip2_0_split
I0501 06:53:24.106485  2443 net.cpp:131] Top shape: 1000 10 (10000)
I0501 06:53:24.106489  2443 net.cpp:131] Top shape: 1000 10 (10000)
I0501 06:53:24.106493  2443 net.cpp:139] Memory required for data: 178964000
I0501 06:53:24.106497  2443 layer_factory.hpp:77] Creating layer accuracy
I0501 06:53:24.106508  2443 net.cpp:86] Creating Layer accuracy
I0501 06:53:24.106513  2443 net.cpp:408] accuracy <- ip2_ip2_0_split_0
I0501 06:53:24.106518  2443 net.cpp:408] accuracy <- label_cifar_1_split_0
I0501 06:53:24.106523  2443 net.cpp:382] accuracy -> accuracy
…
