…
I0501 06:25:31.867863   389 net.cpp:296] The NetState phase (0) differed from the phase (1) specified by a rule in layer cifar
I0501 06:25:31.867880   389 net.cpp:296] The NetState phase (0) differed from the phase (1) specified by a rule in layer accuracy
I0501 06:25:31.867980   389 net.cpp:53] Initializing net from parameters: 
name: "CIFAR"
state {
  phase: TRAIN
  level: 0
  stage: ""
}
layer {
  name: "cifar"
  type: "Data"
  top: "data"
  top: "label"
  include {
    phase: TRAIN
  }
  transform_param {
    mean_file: "examples/cifar10/mean.binaryproto"
  }
  data_param {
    source: "examples/cifar10/cifar10_train_lmdb"
    batch_size: 111
    backend: LMDB
  }
}
layer {
  name: "conv0"
  type: "Convolution"
  bottom: "data"
  top: "conv0"
  param {
    lr_mult: 1
  }
  param {
    lr_mult: 2
  }
  convolution_param {
    num_output: 8
    pad: 2
    kernel_size: 5
    stride: 1
    weight_filler {
      type: "gaussian"
      std: 0.01
    }
    bias_filler {
      type: "constant"
    }
  }
}
layer {
  name: "Sigmoid0"
  type: "Sigmoid"
  bottom: "conv0"
  top: "Sigmoid0"
}
layer {
  name: "pool0"
  type: "Pooling"
  bottom: "Sigmoid0"
  top: "pool0"
  pooling_param {
    pool: AVE
    kernel_size: 3
    stride: 2
  }
}
layer {
  name: "ip1"
  type: "InnerProduct"
  bottom: "pool0"
  top: "ip1"
  param {
    lr_mult: 1
  }
  param {
    lr_mult: 2
  }
  inner_product_param {
    num_output: 160
    weight_filler {
      type: "gaussian"
      std: 0.01
    }
    bias_filler {
      type: "constant"
    }
  }
}
layer {
  name: "relu1"
  type: "ReLU"
  bottom: "ip1"
  top: "ip1"
}
layer {
  name: "ip2"
  type: "InnerProduct"
  bottom: "ip1"
  top: "ip2"
  param {
    lr_mult: 1
  }
  param {
    lr_mult: 2
  }
  inner_product_param {
    num_output: 40
    weight_filler {
      type: "gaussian"
      std: 0.01
    }
    bias_filler {
      type: "constant"
    }
  }
}
layer {
  name: "relu2"
  type: "ReLU"
  bottom: "ip2"
  top: "ip2"
}
layer {
  name: "ip3"
  type: "InnerProduct"
  bottom: "ip2"
  top: "ip3"
  param {
    lr_mult: 1
  }
  param {
    lr_mult: 2
  }
  inner_product_param {
    num_output: 10
    weight_filler {
      type: "gaussian"
      std: 0.01
    }
    bias_filler {
      type: "constant"
    }
  }
}
layer {
  name: "relu3"
  type: "ReLU"
  bottom: "ip3"
  top: "ip3"
}
layer {
  name: "ip4"
  type: "InnerProduct"
  bottom: "ip3"
  top: "ip4"
  param {
    lr_mult: 1
  }
  param {
    lr_mult: 2
  }
  inner_product_param {
    num_output: 10
    weight_filler {
      type: "gaussian"
      std: 0.01
    }
    bias_filler {
      type: "constant"
    }
  }
}
layer {
  name: "loss"
  type: "SoftmaxWithLoss"
  bottom: "ip4"
  bottom: "label"
  top: "loss"
}
I0501 06:25:31.868053   389 layer_factory.hpp:77] Creating layer cifar
I0501 06:25:31.868157   389 db_lmdb.cpp:35] Opened lmdb examples/cifar10/cifar10_train_lmdb
I0501 06:25:31.868187   389 net.cpp:86] Creating Layer cifar
I0501 06:25:31.868198   389 net.cpp:382] cifar -> data
I0501 06:25:31.868221   389 net.cpp:382] cifar -> label
I0501 06:25:31.868234   389 data_transformer.cpp:25] Loading mean file from: examples/cifar10/mean.binaryproto
I0501 06:25:31.870393   389 data_layer.cpp:45] output data size: 111,3,32,32
I0501 06:25:31.878391   389 net.cpp:124] Setting up cifar
I0501 06:25:31.878410   389 net.cpp:131] Top shape: 111 3 32 32 (340992)
I0501 06:25:31.878417   389 net.cpp:131] Top shape: 111 (111)
I0501 06:25:31.878422   389 net.cpp:139] Memory required for data: 1364412
I0501 06:25:31.878445   389 layer_factory.hpp:77] Creating layer conv0
I0501 06:25:31.878464   389 net.cpp:86] Creating Layer conv0
I0501 06:25:31.878470   389 net.cpp:408] conv0 <- data
I0501 06:25:31.878482   389 net.cpp:382] conv0 -> conv0
I0501 06:25:32.163275   389 net.cpp:124] Setting up conv0
I0501 06:25:32.163303   389 net.cpp:131] Top shape: 111 8 32 32 (909312)
I0501 06:25:32.163308   389 net.cpp:139] Memory required for data: 5001660
I0501 06:25:32.163324   389 layer_factory.hpp:77] Creating layer Sigmoid0
I0501 06:25:32.163337   389 net.cpp:86] Creating Layer Sigmoid0
I0501 06:25:32.163341   389 net.cpp:408] Sigmoid0 <- conv0
I0501 06:25:32.163347   389 net.cpp:382] Sigmoid0 -> Sigmoid0
I0501 06:25:32.163527   389 net.cpp:124] Setting up Sigmoid0
I0501 06:25:32.163537   389 net.cpp:131] Top shape: 111 8 32 32 (909312)
I0501 06:25:32.163542   389 net.cpp:139] Memory required for data: 8638908
I0501 06:25:32.163544   389 layer_factory.hpp:77] Creating layer pool0
I0501 06:25:32.163552   389 net.cpp:86] Creating Layer pool0
I0501 06:25:32.163555   389 net.cpp:408] pool0 <- Sigmoid0
I0501 06:25:32.163559   389 net.cpp:382] pool0 -> pool0
I0501 06:25:32.164306   389 net.cpp:124] Setting up pool0
I0501 06:25:32.164319   389 net.cpp:131] Top shape: 111 8 16 16 (227328)
I0501 06:25:32.164322   389 net.cpp:139] Memory required for data: 9548220
I0501 06:25:32.164326   389 layer_factory.hpp:77] Creating layer ip1
I0501 06:25:32.164336   389 net.cpp:86] Creating Layer ip1
I0501 06:25:32.164340   389 net.cpp:408] ip1 <- pool0
I0501 06:25:32.164345   389 net.cpp:382] ip1 -> ip1
I0501 06:25:32.173869   389 net.cpp:124] Setting up ip1
I0501 06:25:32.173882   389 net.cpp:131] Top shape: 111 160 (17760)
I0501 06:25:32.173884   389 net.cpp:139] Memory required for data: 9619260
I0501 06:25:32.173892   389 layer_factory.hpp:77] Creating layer relu1
I0501 06:25:32.173898   389 net.cpp:86] Creating Layer relu1
I0501 06:25:32.173902   389 net.cpp:408] relu1 <- ip1
I0501 06:25:32.173908   389 net.cpp:369] relu1 -> ip1 (in-place)
I0501 06:25:32.174064   389 net.cpp:124] Setting up relu1
I0501 06:25:32.174072   389 net.cpp:131] Top shape: 111 160 (17760)
I0501 06:25:32.174075   389 net.cpp:139] Memory required for data: 9690300
I0501 06:25:32.174078   389 layer_factory.hpp:77] Creating layer ip2
I0501 06:25:32.174085   389 net.cpp:86] Creating Layer ip2
I0501 06:25:32.174088   389 net.cpp:408] ip2 <- ip1
I0501 06:25:32.174093   389 net.cpp:382] ip2 -> ip2
I0501 06:25:32.175153   389 net.cpp:124] Setting up ip2
I0501 06:25:32.175164   389 net.cpp:131] Top shape: 111 40 (4440)
I0501 06:25:32.175168   389 net.cpp:139] Memory required for data: 9708060
I0501 06:25:32.175175   389 layer_factory.hpp:77] Creating layer relu2
I0501 06:25:32.175182   389 net.cpp:86] Creating Layer relu2
I0501 06:25:32.175185   389 net.cpp:408] relu2 <- ip2
I0501 06:25:32.175190   389 net.cpp:369] relu2 -> ip2 (in-place)
I0501 06:25:32.175359   389 net.cpp:124] Setting up relu2
I0501 06:25:32.175367   389 net.cpp:131] Top shape: 111 40 (4440)
I0501 06:25:32.175370   389 net.cpp:139] Memory required for data: 9725820
I0501 06:25:32.175374   389 layer_factory.hpp:77] Creating layer ip3
I0501 06:25:32.175381   389 net.cpp:86] Creating Layer ip3
I0501 06:25:32.175384   389 net.cpp:408] ip3 <- ip2
I0501 06:25:32.175390   389 net.cpp:382] ip3 -> ip3
I0501 06:25:32.175488   389 net.cpp:124] Setting up ip3
I0501 06:25:32.175495   389 net.cpp:131] Top shape: 111 10 (1110)
I0501 06:25:32.175498   389 net.cpp:139] Memory required for data: 9730260
I0501 06:25:32.175503   389 layer_factory.hpp:77] Creating layer relu3
I0501 06:25:32.175508   389 net.cpp:86] Creating Layer relu3
I0501 06:25:32.175511   389 net.cpp:408] relu3 <- ip3
I0501 06:25:32.175515   389 net.cpp:369] relu3 -> ip3 (in-place)
I0501 06:25:32.175664   389 net.cpp:124] Setting up relu3
I0501 06:25:32.175673   389 net.cpp:131] Top shape: 111 10 (1110)
I0501 06:25:32.175675   389 net.cpp:139] Memory required for data: 9734700
I0501 06:25:32.175678   389 layer_factory.hpp:77] Creating layer ip4
I0501 06:25:32.175699   389 net.cpp:86] Creating Layer ip4
I0501 06:25:32.175703   389 net.cpp:408] ip4 <- ip3
I0501 06:25:32.175706   389 net.cpp:382] ip4 -> ip4
I0501 06:25:32.175806   389 net.cpp:124] Setting up ip4
I0501 06:25:32.175812   389 net.cpp:131] Top shape: 111 10 (1110)
I0501 06:25:32.175815   389 net.cpp:139] Memory required for data: 9739140
I0501 06:25:32.175822   389 layer_factory.hpp:77] Creating layer loss
I0501 06:25:32.175828   389 net.cpp:86] Creating Layer loss
I0501 06:25:32.175832   389 net.cpp:408] loss <- ip4
I0501 06:25:32.175835   389 net.cpp:408] loss <- label
I0501 06:25:32.175840   389 net.cpp:382] loss -> loss
I0501 06:25:32.175858   389 layer_factory.hpp:77] Creating layer loss
…
I0501 06:25:32.177135   389 solver.cpp:173] Creating test net (#0) specified by net file: ECE595/cifar/train_test/var_everything/cifar_train_test_450.prototxt
I0501 06:25:32.177196   389 net.cpp:296] The NetState phase (1) differed from the phase (0) specified by a rule in layer cifar
I0501 06:25:32.177337   389 net.cpp:53] Initializing net from parameters: 
name: "CIFAR"
state {
  phase: TEST
}
layer {
  name: "cifar"
  type: "Data"
  top: "data"
  top: "label"
  include {
    phase: TEST
  }
  transform_param {
    mean_file: "examples/cifar10/mean.binaryproto"
  }
  data_param {
    source: "examples/cifar10/cifar10_test_lmdb"
    batch_size: 1000
    backend: LMDB
  }
}
layer {
  name: "conv0"
  type: "Convolution"
  bottom: "data"
  top: "conv0"
  param {
    lr_mult: 1
  }
  param {
    lr_mult: 2
  }
  convolution_param {
    num_output: 8
    pad: 2
    kernel_size: 5
    stride: 1
    weight_filler {
      type: "gaussian"
      std: 0.01
    }
    bias_filler {
      type: "constant"
    }
  }
}
layer {
  name: "Sigmoid0"
  type: "Sigmoid"
  bottom: "conv0"
  top: "Sigmoid0"
}
layer {
  name: "pool0"
  type: "Pooling"
  bottom: "Sigmoid0"
  top: "pool0"
  pooling_param {
    pool: AVE
    kernel_size: 3
    stride: 2
  }
}
layer {
  name: "ip1"
  type: "InnerProduct"
  bottom: "pool0"
  top: "ip1"
  param {
    lr_mult: 1
  }
  param {
    lr_mult: 2
  }
  inner_product_param {
    num_output: 160
    weight_filler {
      type: "gaussian"
      std: 0.01
    }
    bias_filler {
      type: "constant"
    }
  }
}
layer {
  name: "relu1"
  type: "ReLU"
  bottom: "ip1"
  top: "ip1"
}
layer {
  name: "ip2"
  type: "InnerProduct"
  bottom: "ip1"
  top: "ip2"
  param {
    lr_mult: 1
  }
  param {
    lr_mult: 2
  }
  inner_product_param {
    num_output: 40
    weight_filler {
      type: "gaussian"
      std: 0.01
    }
    bias_filler {
      type: "constant"
    }
  }
}
layer {
  name: "relu2"
  type: "ReLU"
  bottom: "ip2"
  top: "ip2"
}
layer {
  name: "ip3"
  type: "InnerProduct"
  bottom: "ip2"
  top: "ip3"
  param {
    lr_mult: 1
  }
  param {
    lr_mult: 2
  }
  inner_product_param {
    num_output: 10
    weight_filler {
      type: "gaussian"
      std: 0.01
    }
    bias_filler {
      type: "constant"
    }
  }
}
layer {
  name: "relu3"
  type: "ReLU"
  bottom: "ip3"
  top: "ip3"
}
layer {
  name: "ip4"
  type: "InnerProduct"
  bottom: "ip3"
  top: "ip4"
  param {
    lr_mult: 1
  }
  param {
    lr_mult: 2
  }
  inner_product_param {
    num_output: 10
    weight_filler {
      type: "gaussian"
      std: 0.01
    }
    bias_filler {
      type: "constant"
    }
  }
}
layer {
  name: "accuracy"
  type: "Accuracy"
  bottom: "ip4"
  bottom: "label"
  top: "accuracy"
  include {
    phase: TEST
  }
}
layer {
  name: "loss"
  type: "SoftmaxWithLoss"
  bottom: "ip4"
  bottom: "label"
  top: "loss"
}
I0501 06:25:32.177419   389 layer_factory.hpp:77] Creating layer cifar
I0501 06:25:32.177464   389 db_lmdb.cpp:35] Opened lmdb examples/cifar10/cifar10_test_lmdb
I0501 06:25:32.177476   389 net.cpp:86] Creating Layer cifar
I0501 06:25:32.177481   389 net.cpp:382] cifar -> data
I0501 06:25:32.177489   389 net.cpp:382] cifar -> label
I0501 06:25:32.177495   389 data_transformer.cpp:25] Loading mean file from: examples/cifar10/mean.binaryproto
I0501 06:25:32.177647   389 data_layer.cpp:45] output data size: 1000,3,32,32
I0501 06:25:32.199843   389 net.cpp:124] Setting up cifar
I0501 06:25:32.199868   389 net.cpp:131] Top shape: 1000 3 32 32 (3072000)
I0501 06:25:32.199890   389 net.cpp:131] Top shape: 1000 (1000)
I0501 06:25:32.199893   389 net.cpp:139] Memory required for data: 12292000
I0501 06:25:32.199899   389 layer_factory.hpp:77] Creating layer label_cifar_1_split
I0501 06:25:32.199913   389 net.cpp:86] Creating Layer label_cifar_1_split
I0501 06:25:32.199915   389 net.cpp:408] label_cifar_1_split <- label
I0501 06:25:32.199921   389 net.cpp:382] label_cifar_1_split -> label_cifar_1_split_0
I0501 06:25:32.199944   389 net.cpp:382] label_cifar_1_split -> label_cifar_1_split_1
I0501 06:25:32.200026   389 net.cpp:124] Setting up label_cifar_1_split
I0501 06:25:32.200033   389 net.cpp:131] Top shape: 1000 (1000)
I0501 06:25:32.200037   389 net.cpp:131] Top shape: 1000 (1000)
I0501 06:25:32.200039   389 net.cpp:139] Memory required for data: 12300000
I0501 06:25:32.200042   389 layer_factory.hpp:77] Creating layer conv0
I0501 06:25:32.200054   389 net.cpp:86] Creating Layer conv0
I0501 06:25:32.200058   389 net.cpp:408] conv0 <- data
I0501 06:25:32.200064   389 net.cpp:382] conv0 -> conv0
I0501 06:25:32.201778   389 net.cpp:124] Setting up conv0
I0501 06:25:32.201792   389 net.cpp:131] Top shape: 1000 8 32 32 (8192000)
I0501 06:25:32.201797   389 net.cpp:139] Memory required for data: 45068000
I0501 06:25:32.201807   389 layer_factory.hpp:77] Creating layer Sigmoid0
I0501 06:25:32.201813   389 net.cpp:86] Creating Layer Sigmoid0
I0501 06:25:32.201831   389 net.cpp:408] Sigmoid0 <- conv0
I0501 06:25:32.201836   389 net.cpp:382] Sigmoid0 -> Sigmoid0
I0501 06:25:32.202011   389 net.cpp:124] Setting up Sigmoid0
I0501 06:25:32.202021   389 net.cpp:131] Top shape: 1000 8 32 32 (8192000)
I0501 06:25:32.202024   389 net.cpp:139] Memory required for data: 77836000
I0501 06:25:32.202028   389 layer_factory.hpp:77] Creating layer pool0
I0501 06:25:32.202034   389 net.cpp:86] Creating Layer pool0
I0501 06:25:32.202038   389 net.cpp:408] pool0 <- Sigmoid0
I0501 06:25:32.202042   389 net.cpp:382] pool0 -> pool0
I0501 06:25:32.202303   389 net.cpp:124] Setting up pool0
I0501 06:25:32.202312   389 net.cpp:131] Top shape: 1000 8 16 16 (2048000)
I0501 06:25:32.202316   389 net.cpp:139] Memory required for data: 86028000
I0501 06:25:32.202318   389 layer_factory.hpp:77] Creating layer ip1
I0501 06:25:32.202328   389 net.cpp:86] Creating Layer ip1
I0501 06:25:32.202332   389 net.cpp:408] ip1 <- pool0
I0501 06:25:32.202337   389 net.cpp:382] ip1 -> ip1
I0501 06:25:32.212543   389 net.cpp:124] Setting up ip1
I0501 06:25:32.212556   389 net.cpp:131] Top shape: 1000 160 (160000)
I0501 06:25:32.212559   389 net.cpp:139] Memory required for data: 86668000
I0501 06:25:32.212597   389 layer_factory.hpp:77] Creating layer relu1
I0501 06:25:32.212606   389 net.cpp:86] Creating Layer relu1
I0501 06:25:32.212610   389 net.cpp:408] relu1 <- ip1
I0501 06:25:32.212615   389 net.cpp:369] relu1 -> ip1 (in-place)
I0501 06:25:32.212791   389 net.cpp:124] Setting up relu1
I0501 06:25:32.212800   389 net.cpp:131] Top shape: 1000 160 (160000)
I0501 06:25:32.212803   389 net.cpp:139] Memory required for data: 87308000
I0501 06:25:32.212807   389 layer_factory.hpp:77] Creating layer ip2
I0501 06:25:32.212836   389 net.cpp:86] Creating Layer ip2
I0501 06:25:32.212839   389 net.cpp:408] ip2 <- ip1
I0501 06:25:32.212860   389 net.cpp:382] ip2 -> ip2
I0501 06:25:32.213168   389 net.cpp:124] Setting up ip2
I0501 06:25:32.213191   389 net.cpp:131] Top shape: 1000 40 (40000)
I0501 06:25:32.213193   389 net.cpp:139] Memory required for data: 87468000
I0501 06:25:32.213217   389 layer_factory.hpp:77] Creating layer relu2
I0501 06:25:32.213238   389 net.cpp:86] Creating Layer relu2
I0501 06:25:32.213241   389 net.cpp:408] relu2 <- ip2
I0501 06:25:32.213245   389 net.cpp:369] relu2 -> ip2 (in-place)
I0501 06:25:32.213991   389 net.cpp:124] Setting up relu2
I0501 06:25:32.214002   389 net.cpp:131] Top shape: 1000 40 (40000)
I0501 06:25:32.214006   389 net.cpp:139] Memory required for data: 87628000
I0501 06:25:32.214010   389 layer_factory.hpp:77] Creating layer ip3
I0501 06:25:32.214017   389 net.cpp:86] Creating Layer ip3
I0501 06:25:32.214020   389 net.cpp:408] ip3 <- ip2
I0501 06:25:32.214027   389 net.cpp:382] ip3 -> ip3
I0501 06:25:32.214164   389 net.cpp:124] Setting up ip3
I0501 06:25:32.214170   389 net.cpp:131] Top shape: 1000 10 (10000)
I0501 06:25:32.214188   389 net.cpp:139] Memory required for data: 87668000
I0501 06:25:32.214195   389 layer_factory.hpp:77] Creating layer relu3
I0501 06:25:32.214200   389 net.cpp:86] Creating Layer relu3
I0501 06:25:32.214203   389 net.cpp:408] relu3 <- ip3
I0501 06:25:32.214207   389 net.cpp:369] relu3 -> ip3 (in-place)
I0501 06:25:32.214362   389 net.cpp:124] Setting up relu3
I0501 06:25:32.214371   389 net.cpp:131] Top shape: 1000 10 (10000)
I0501 06:25:32.214375   389 net.cpp:139] Memory required for data: 87708000
I0501 06:25:32.214377   389 layer_factory.hpp:77] Creating layer ip4
I0501 06:25:32.214385   389 net.cpp:86] Creating Layer ip4
I0501 06:25:32.214387   389 net.cpp:408] ip4 <- ip3
I0501 06:25:32.214393   389 net.cpp:382] ip4 -> ip4
I0501 06:25:32.214499   389 net.cpp:124] Setting up ip4
I0501 06:25:32.214520   389 net.cpp:131] Top shape: 1000 10 (10000)
I0501 06:25:32.214524   389 net.cpp:139] Memory required for data: 87748000
I0501 06:25:32.214531   389 layer_factory.hpp:77] Creating layer ip4_ip4_0_split
I0501 06:25:32.214536   389 net.cpp:86] Creating Layer ip4_ip4_0_split
I0501 06:25:32.214540   389 net.cpp:408] ip4_ip4_0_split <- ip4
I0501 06:25:32.214543   389 net.cpp:382] ip4_ip4_0_split -> ip4_ip4_0_split_0
I0501 06:25:32.214550   389 net.cpp:382] ip4_ip4_0_split -> ip4_ip4_0_split_1
I0501 06:25:32.214579   389 net.cpp:124] Setting up ip4_ip4_0_split
I0501 06:25:32.214583   389 net.cpp:131] Top shape: 1000 10 (10000)
I0501 06:25:32.214587   389 net.cpp:131] Top shape: 1000 10 (10000)
I0501 06:25:32.214591   389 net.cpp:139] Memory required for data: 87828000
I0501 06:25:32.214593   389 layer_factory.hpp:77] Creating layer accuracy
I0501 06:25:32.214599   389 net.cpp:86] Creating Layer accuracy
I0501 06:25:32.214602   389 net.cpp:408] accuracy <- ip4_ip4_0_split_0
I0501 06:25:32.214607   389 net.cpp:408] accuracy <- label_cifar_1_split_0
I0501 06:25:32.214610   389 net.cpp:382] accuracy -> accuracy
…
