…
I0430 23:16:33.399116  4534 net.cpp:296] The NetState phase (0) differed from the phase (1) specified by a rule in layer cifar
I0430 23:16:33.399133  4534 net.cpp:296] The NetState phase (0) differed from the phase (1) specified by a rule in layer accuracy
I0430 23:16:33.399237  4534 net.cpp:53] Initializing net from parameters: 
name: "CIFAR"
state {
  phase: TRAIN
  level: 0
  stage: ""
}
layer {
  name: "cifar"
  type: "Data"
  top: "data"
  top: "label"
  include {
    phase: TRAIN
  }
  transform_param {
    mean_file: "examples/cifar10/mean.binaryproto"
  }
  data_param {
    source: "examples/cifar10/cifar10_train_lmdb"
    batch_size: 111
    backend: LMDB
  }
}
layer {
  name: "conv0"
  type: "Convolution"
  bottom: "data"
  top: "conv0"
  param {
    lr_mult: 1
  }
  param {
    lr_mult: 2
  }
  convolution_param {
    num_output: 8
    pad: 2
    kernel_size: 3
    stride: 1
    weight_filler {
      type: "gaussian"
      std: 0.01
    }
    bias_filler {
      type: "constant"
    }
  }
}
layer {
  name: "Sigmoid0"
  type: "Sigmoid"
  bottom: "conv0"
  top: "Sigmoid0"
}
layer {
  name: "pool0"
  type: "Pooling"
  bottom: "Sigmoid0"
  top: "pool0"
  pooling_param {
    pool: AVE
    kernel_size: 3
    stride: 2
  }
}
layer {
  name: "ip1"
  type: "InnerProduct"
  bottom: "pool0"
  top: "ip1"
  param {
    lr_mult: 1
  }
  param {
    lr_mult: 2
  }
  inner_product_param {
    num_output: 20
    weight_filler {
      type: "gaussian"
      std: 0.01
    }
    bias_filler {
      type: "constant"
    }
  }
}
layer {
  name: "relu1"
  type: "ReLU"
  bottom: "ip1"
  top: "ip1"
}
layer {
  name: "ip2"
  type: "InnerProduct"
  bottom: "ip1"
  top: "ip2"
  param {
    lr_mult: 1
  }
  param {
    lr_mult: 2
  }
  inner_product_param {
    num_output: 40
    weight_filler {
      type: "gaussian"
      std: 0.01
    }
    bias_filler {
      type: "constant"
    }
  }
}
layer {
  name: "relu2"
  type: "ReLU"
  bottom: "ip2"
  top: "ip2"
}
layer {
  name: "ip3"
  type: "InnerProduct"
  bottom: "ip2"
  top: "ip3"
  param {
    lr_mult: 1
  }
  param {
    lr_mult: 2
  }
  inner_product_param {
    num_output: 10
    weight_filler {
      type: "gaussian"
      std: 0.01
    }
    bias_filler {
      type: "constant"
    }
  }
}
layer {
  name: "relu3"
  type: "ReLU"
  bottom: "ip3"
  top: "ip3"
}
layer {
  name: "ip4"
  type: "InnerProduct"
  bottom: "ip3"
  top: "ip4"
  param {
    lr_mult: 1
  }
  param {
    lr_mult: 2
  }
  inner_product_param {
    num_output: 10
    weight_filler {
      type: "gaussian"
      std: 0.01
    }
    bias_filler {
      type: "constant"
    }
  }
}
layer {
  name: "loss"
  type: "SoftmaxWithLoss"
  bottom: "ip4"
  bottom: "label"
  top: "loss"
}
I0430 23:16:33.399317  4534 layer_factory.hpp:77] Creating layer cifar
I0430 23:16:33.399413  4534 db_lmdb.cpp:35] Opened lmdb examples/cifar10/cifar10_train_lmdb
I0430 23:16:33.399440  4534 net.cpp:86] Creating Layer cifar
I0430 23:16:33.399451  4534 net.cpp:382] cifar -> data
I0430 23:16:33.399473  4534 net.cpp:382] cifar -> label
I0430 23:16:33.399485  4534 data_transformer.cpp:25] Loading mean file from: examples/cifar10/mean.binaryproto
I0430 23:16:33.401597  4534 data_layer.cpp:45] output data size: 111,3,32,32
I0430 23:16:33.409495  4534 net.cpp:124] Setting up cifar
I0430 23:16:33.409514  4534 net.cpp:131] Top shape: 111 3 32 32 (340992)
I0430 23:16:33.409521  4534 net.cpp:131] Top shape: 111 (111)
I0430 23:16:33.409524  4534 net.cpp:139] Memory required for data: 1364412
I0430 23:16:33.409546  4534 layer_factory.hpp:77] Creating layer conv0
I0430 23:16:33.409565  4534 net.cpp:86] Creating Layer conv0
I0430 23:16:33.409571  4534 net.cpp:408] conv0 <- data
I0430 23:16:33.409586  4534 net.cpp:382] conv0 -> conv0
I0430 23:16:33.692574  4534 net.cpp:124] Setting up conv0
I0430 23:16:33.692602  4534 net.cpp:131] Top shape: 111 8 34 34 (1026528)
I0430 23:16:33.692606  4534 net.cpp:139] Memory required for data: 5470524
I0430 23:16:33.692621  4534 layer_factory.hpp:77] Creating layer Sigmoid0
I0430 23:16:33.692632  4534 net.cpp:86] Creating Layer Sigmoid0
I0430 23:16:33.692636  4534 net.cpp:408] Sigmoid0 <- conv0
I0430 23:16:33.692641  4534 net.cpp:382] Sigmoid0 -> Sigmoid0
I0430 23:16:33.692817  4534 net.cpp:124] Setting up Sigmoid0
I0430 23:16:33.692828  4534 net.cpp:131] Top shape: 111 8 34 34 (1026528)
I0430 23:16:33.692831  4534 net.cpp:139] Memory required for data: 9576636
I0430 23:16:33.692834  4534 layer_factory.hpp:77] Creating layer pool0
I0430 23:16:33.692842  4534 net.cpp:86] Creating Layer pool0
I0430 23:16:33.692844  4534 net.cpp:408] pool0 <- Sigmoid0
I0430 23:16:33.692848  4534 net.cpp:382] pool0 -> pool0
I0430 23:16:33.693595  4534 net.cpp:124] Setting up pool0
I0430 23:16:33.693608  4534 net.cpp:131] Top shape: 111 8 17 17 (256632)
I0430 23:16:33.693611  4534 net.cpp:139] Memory required for data: 10603164
I0430 23:16:33.693615  4534 layer_factory.hpp:77] Creating layer ip1
I0430 23:16:33.693629  4534 net.cpp:86] Creating Layer ip1
I0430 23:16:33.693632  4534 net.cpp:408] ip1 <- pool0
I0430 23:16:33.693637  4534 net.cpp:382] ip1 -> ip1
I0430 23:16:33.695742  4534 net.cpp:124] Setting up ip1
I0430 23:16:33.695755  4534 net.cpp:131] Top shape: 111 20 (2220)
I0430 23:16:33.695758  4534 net.cpp:139] Memory required for data: 10612044
I0430 23:16:33.695766  4534 layer_factory.hpp:77] Creating layer relu1
I0430 23:16:33.695773  4534 net.cpp:86] Creating Layer relu1
I0430 23:16:33.695776  4534 net.cpp:408] relu1 <- ip1
I0430 23:16:33.695781  4534 net.cpp:369] relu1 -> ip1 (in-place)
I0430 23:16:33.695929  4534 net.cpp:124] Setting up relu1
I0430 23:16:33.695936  4534 net.cpp:131] Top shape: 111 20 (2220)
I0430 23:16:33.695940  4534 net.cpp:139] Memory required for data: 10620924
I0430 23:16:33.695943  4534 layer_factory.hpp:77] Creating layer ip2
I0430 23:16:33.695950  4534 net.cpp:86] Creating Layer ip2
I0430 23:16:33.695952  4534 net.cpp:408] ip2 <- ip1
I0430 23:16:33.695957  4534 net.cpp:382] ip2 -> ip2
I0430 23:16:33.696879  4534 net.cpp:124] Setting up ip2
I0430 23:16:33.696907  4534 net.cpp:131] Top shape: 111 40 (4440)
I0430 23:16:33.696910  4534 net.cpp:139] Memory required for data: 10638684
I0430 23:16:33.696918  4534 layer_factory.hpp:77] Creating layer relu2
I0430 23:16:33.696939  4534 net.cpp:86] Creating Layer relu2
I0430 23:16:33.696943  4534 net.cpp:408] relu2 <- ip2
I0430 23:16:33.696949  4534 net.cpp:369] relu2 -> ip2 (in-place)
I0430 23:16:33.697127  4534 net.cpp:124] Setting up relu2
I0430 23:16:33.697136  4534 net.cpp:131] Top shape: 111 40 (4440)
I0430 23:16:33.697139  4534 net.cpp:139] Memory required for data: 10656444
I0430 23:16:33.697142  4534 layer_factory.hpp:77] Creating layer ip3
I0430 23:16:33.697165  4534 net.cpp:86] Creating Layer ip3
I0430 23:16:33.697170  4534 net.cpp:408] ip3 <- ip2
I0430 23:16:33.697176  4534 net.cpp:382] ip3 -> ip3
I0430 23:16:33.697275  4534 net.cpp:124] Setting up ip3
I0430 23:16:33.697283  4534 net.cpp:131] Top shape: 111 10 (1110)
I0430 23:16:33.697285  4534 net.cpp:139] Memory required for data: 10660884
I0430 23:16:33.697291  4534 layer_factory.hpp:77] Creating layer relu3
I0430 23:16:33.697295  4534 net.cpp:86] Creating Layer relu3
I0430 23:16:33.697299  4534 net.cpp:408] relu3 <- ip3
I0430 23:16:33.697304  4534 net.cpp:369] relu3 -> ip3 (in-place)
I0430 23:16:33.697448  4534 net.cpp:124] Setting up relu3
I0430 23:16:33.697455  4534 net.cpp:131] Top shape: 111 10 (1110)
I0430 23:16:33.697458  4534 net.cpp:139] Memory required for data: 10665324
I0430 23:16:33.697461  4534 layer_factory.hpp:77] Creating layer ip4
I0430 23:16:33.697484  4534 net.cpp:86] Creating Layer ip4
I0430 23:16:33.697489  4534 net.cpp:408] ip4 <- ip3
I0430 23:16:33.697494  4534 net.cpp:382] ip4 -> ip4
I0430 23:16:33.697587  4534 net.cpp:124] Setting up ip4
I0430 23:16:33.697594  4534 net.cpp:131] Top shape: 111 10 (1110)
I0430 23:16:33.697597  4534 net.cpp:139] Memory required for data: 10669764
I0430 23:16:33.697604  4534 layer_factory.hpp:77] Creating layer loss
I0430 23:16:33.697609  4534 net.cpp:86] Creating Layer loss
I0430 23:16:33.697613  4534 net.cpp:408] loss <- ip4
I0430 23:16:33.697616  4534 net.cpp:408] loss <- label
I0430 23:16:33.697621  4534 net.cpp:382] loss -> loss
I0430 23:16:33.697638  4534 layer_factory.hpp:77] Creating layer loss
…
I0430 23:16:33.698807  4534 solver.cpp:173] Creating test net (#0) specified by net file: ECE595/cifar/train_test/var_everything/cifar_train_test_220.prototxt
I0430 23:16:33.698833  4534 net.cpp:296] The NetState phase (1) differed from the phase (0) specified by a rule in layer cifar
I0430 23:16:33.698923  4534 net.cpp:53] Initializing net from parameters: 
name: "CIFAR"
state {
  phase: TEST
}
layer {
  name: "cifar"
  type: "Data"
  top: "data"
  top: "label"
  include {
    phase: TEST
  }
  transform_param {
    mean_file: "examples/cifar10/mean.binaryproto"
  }
  data_param {
    source: "examples/cifar10/cifar10_test_lmdb"
    batch_size: 1000
    backend: LMDB
  }
}
layer {
  name: "conv0"
  type: "Convolution"
  bottom: "data"
  top: "conv0"
  param {
    lr_mult: 1
  }
  param {
    lr_mult: 2
  }
  convolution_param {
    num_output: 8
    pad: 2
    kernel_size: 3
    stride: 1
    weight_filler {
      type: "gaussian"
      std: 0.01
    }
    bias_filler {
      type: "constant"
    }
  }
}
layer {
  name: "Sigmoid0"
  type: "Sigmoid"
  bottom: "conv0"
  top: "Sigmoid0"
}
layer {
  name: "pool0"
  type: "Pooling"
  bottom: "Sigmoid0"
  top: "pool0"
  pooling_param {
    pool: AVE
    kernel_size: 3
    stride: 2
  }
}
layer {
  name: "ip1"
  type: "InnerProduct"
  bottom: "pool0"
  top: "ip1"
  param {
    lr_mult: 1
  }
  param {
    lr_mult: 2
  }
  inner_product_param {
    num_output: 20
    weight_filler {
      type: "gaussian"
      std: 0.01
    }
    bias_filler {
      type: "constant"
    }
  }
}
layer {
  name: "relu1"
  type: "ReLU"
  bottom: "ip1"
  top: "ip1"
}
layer {
  name: "ip2"
  type: "InnerProduct"
  bottom: "ip1"
  top: "ip2"
  param {
    lr_mult: 1
  }
  param {
    lr_mult: 2
  }
  inner_product_param {
    num_output: 40
    weight_filler {
      type: "gaussian"
      std: 0.01
    }
    bias_filler {
      type: "constant"
    }
  }
}
layer {
  name: "relu2"
  type: "ReLU"
  bottom: "ip2"
  top: "ip2"
}
layer {
  name: "ip3"
  type: "InnerProduct"
  bottom: "ip2"
  top: "ip3"
  param {
    lr_mult: 1
  }
  param {
    lr_mult: 2
  }
  inner_product_param {
    num_output: 10
    weight_filler {
      type: "gaussian"
      std: 0.01
    }
    bias_filler {
      type: "constant"
    }
  }
}
layer {
  name: "relu3"
  type: "ReLU"
  bottom: "ip3"
  top: "ip3"
}
layer {
  name: "ip4"
  type: "InnerProduct"
  bottom: "ip3"
  top: "ip4"
  param {
    lr_mult: 1
  }
  param {
    lr_mult: 2
  }
  inner_product_param {
    num_output: 10
    weight_filler {
      type: "gaussian"
      std: 0.01
    }
    bias_filler {
      type: "constant"
    }
  }
}
layer {
  name: "accuracy"
  type: "Accuracy"
  bottom: "ip4"
  bottom: "label"
  top: "accuracy"
  include {
    phase: TEST
  }
}
layer {
  name: "loss"
  type: "SoftmaxWithLoss"
  bottom: "ip4"
  bottom: "label"
  top: "loss"
}
I0430 23:16:33.698999  4534 layer_factory.hpp:77] Creating layer cifar
I0430 23:16:33.699045  4534 db_lmdb.cpp:35] Opened lmdb examples/cifar10/cifar10_test_lmdb
I0430 23:16:33.699056  4534 net.cpp:86] Creating Layer cifar
I0430 23:16:33.699061  4534 net.cpp:382] cifar -> data
I0430 23:16:33.699069  4534 net.cpp:382] cifar -> label
I0430 23:16:33.699074  4534 data_transformer.cpp:25] Loading mean file from: examples/cifar10/mean.binaryproto
I0430 23:16:33.699211  4534 data_layer.cpp:45] output data size: 1000,3,32,32
I0430 23:16:33.720765  4534 net.cpp:124] Setting up cifar
I0430 23:16:33.720829  4534 net.cpp:131] Top shape: 1000 3 32 32 (3072000)
I0430 23:16:33.720836  4534 net.cpp:131] Top shape: 1000 (1000)
I0430 23:16:33.720839  4534 net.cpp:139] Memory required for data: 12292000
I0430 23:16:33.720845  4534 layer_factory.hpp:77] Creating layer label_cifar_1_split
I0430 23:16:33.720901  4534 net.cpp:86] Creating Layer label_cifar_1_split
I0430 23:16:33.720906  4534 net.cpp:408] label_cifar_1_split <- label
I0430 23:16:33.720912  4534 net.cpp:382] label_cifar_1_split -> label_cifar_1_split_0
I0430 23:16:33.720922  4534 net.cpp:382] label_cifar_1_split -> label_cifar_1_split_1
I0430 23:16:33.721050  4534 net.cpp:124] Setting up label_cifar_1_split
I0430 23:16:33.721058  4534 net.cpp:131] Top shape: 1000 (1000)
I0430 23:16:33.721062  4534 net.cpp:131] Top shape: 1000 (1000)
I0430 23:16:33.721065  4534 net.cpp:139] Memory required for data: 12300000
I0430 23:16:33.721068  4534 layer_factory.hpp:77] Creating layer conv0
I0430 23:16:33.721081  4534 net.cpp:86] Creating Layer conv0
I0430 23:16:33.721086  4534 net.cpp:408] conv0 <- data
I0430 23:16:33.721092  4534 net.cpp:382] conv0 -> conv0
I0430 23:16:33.722666  4534 net.cpp:124] Setting up conv0
I0430 23:16:33.722694  4534 net.cpp:131] Top shape: 1000 8 34 34 (9248000)
I0430 23:16:33.722698  4534 net.cpp:139] Memory required for data: 49292000
I0430 23:16:33.722707  4534 layer_factory.hpp:77] Creating layer Sigmoid0
I0430 23:16:33.722713  4534 net.cpp:86] Creating Layer Sigmoid0
I0430 23:16:33.722733  4534 net.cpp:408] Sigmoid0 <- conv0
I0430 23:16:33.722738  4534 net.cpp:382] Sigmoid0 -> Sigmoid0
I0430 23:16:33.722965  4534 net.cpp:124] Setting up Sigmoid0
I0430 23:16:33.722973  4534 net.cpp:131] Top shape: 1000 8 34 34 (9248000)
I0430 23:16:33.722977  4534 net.cpp:139] Memory required for data: 86284000
I0430 23:16:33.722980  4534 layer_factory.hpp:77] Creating layer pool0
I0430 23:16:33.722988  4534 net.cpp:86] Creating Layer pool0
I0430 23:16:33.722991  4534 net.cpp:408] pool0 <- Sigmoid0
I0430 23:16:33.722995  4534 net.cpp:382] pool0 -> pool0
I0430 23:16:33.724191  4534 net.cpp:124] Setting up pool0
I0430 23:16:33.724201  4534 net.cpp:131] Top shape: 1000 8 17 17 (2312000)
I0430 23:16:33.724220  4534 net.cpp:139] Memory required for data: 95532000
I0430 23:16:33.724225  4534 layer_factory.hpp:77] Creating layer ip1
I0430 23:16:33.724231  4534 net.cpp:86] Creating Layer ip1
I0430 23:16:33.724234  4534 net.cpp:408] ip1 <- pool0
I0430 23:16:33.724239  4534 net.cpp:382] ip1 -> ip1
I0430 23:16:33.725594  4534 net.cpp:124] Setting up ip1
I0430 23:16:33.725601  4534 net.cpp:131] Top shape: 1000 20 (20000)
I0430 23:16:33.725620  4534 net.cpp:139] Memory required for data: 95612000
I0430 23:16:33.725658  4534 layer_factory.hpp:77] Creating layer relu1
I0430 23:16:33.725664  4534 net.cpp:86] Creating Layer relu1
I0430 23:16:33.725668  4534 net.cpp:408] relu1 <- ip1
I0430 23:16:33.725672  4534 net.cpp:369] relu1 -> ip1 (in-place)
I0430 23:16:33.725826  4534 net.cpp:124] Setting up relu1
I0430 23:16:33.725834  4534 net.cpp:131] Top shape: 1000 20 (20000)
I0430 23:16:33.725838  4534 net.cpp:139] Memory required for data: 95692000
I0430 23:16:33.725841  4534 layer_factory.hpp:77] Creating layer ip2
I0430 23:16:33.725859  4534 net.cpp:86] Creating Layer ip2
I0430 23:16:33.725863  4534 net.cpp:408] ip2 <- ip1
I0430 23:16:33.725868  4534 net.cpp:382] ip2 -> ip2
I0430 23:16:33.725987  4534 net.cpp:124] Setting up ip2
I0430 23:16:33.725996  4534 net.cpp:131] Top shape: 1000 40 (40000)
I0430 23:16:33.725999  4534 net.cpp:139] Memory required for data: 95852000
I0430 23:16:33.726006  4534 layer_factory.hpp:77] Creating layer relu2
I0430 23:16:33.726011  4534 net.cpp:86] Creating Layer relu2
I0430 23:16:33.726014  4534 net.cpp:408] relu2 <- ip2
I0430 23:16:33.726018  4534 net.cpp:369] relu2 -> ip2 (in-place)
I0430 23:16:33.726783  4534 net.cpp:124] Setting up relu2
I0430 23:16:33.726795  4534 net.cpp:131] Top shape: 1000 40 (40000)
I0430 23:16:33.726814  4534 net.cpp:139] Memory required for data: 96012000
I0430 23:16:33.726819  4534 layer_factory.hpp:77] Creating layer ip3
I0430 23:16:33.726825  4534 net.cpp:86] Creating Layer ip3
I0430 23:16:33.726830  4534 net.cpp:408] ip3 <- ip2
I0430 23:16:33.726835  4534 net.cpp:382] ip3 -> ip3
I0430 23:16:33.726960  4534 net.cpp:124] Setting up ip3
I0430 23:16:33.726969  4534 net.cpp:131] Top shape: 1000 10 (10000)
I0430 23:16:33.726971  4534 net.cpp:139] Memory required for data: 96052000
I0430 23:16:33.726976  4534 layer_factory.hpp:77] Creating layer relu3
I0430 23:16:33.726981  4534 net.cpp:86] Creating Layer relu3
I0430 23:16:33.726992  4534 net.cpp:408] relu3 <- ip3
I0430 23:16:33.726996  4534 net.cpp:369] relu3 -> ip3 (in-place)
I0430 23:16:33.727141  4534 net.cpp:124] Setting up relu3
I0430 23:16:33.727149  4534 net.cpp:131] Top shape: 1000 10 (10000)
I0430 23:16:33.727152  4534 net.cpp:139] Memory required for data: 96092000
I0430 23:16:33.727155  4534 layer_factory.hpp:77] Creating layer ip4
I0430 23:16:33.727161  4534 net.cpp:86] Creating Layer ip4
I0430 23:16:33.727165  4534 net.cpp:408] ip4 <- ip3
I0430 23:16:33.727170  4534 net.cpp:382] ip4 -> ip4
I0430 23:16:33.727272  4534 net.cpp:124] Setting up ip4
I0430 23:16:33.727277  4534 net.cpp:131] Top shape: 1000 10 (10000)
I0430 23:16:33.727282  4534 net.cpp:139] Memory required for data: 96132000
I0430 23:16:33.727288  4534 layer_factory.hpp:77] Creating layer ip4_ip4_0_split
I0430 23:16:33.727294  4534 net.cpp:86] Creating Layer ip4_ip4_0_split
I0430 23:16:33.727298  4534 net.cpp:408] ip4_ip4_0_split <- ip4
I0430 23:16:33.727301  4534 net.cpp:382] ip4_ip4_0_split -> ip4_ip4_0_split_0
I0430 23:16:33.727306  4534 net.cpp:382] ip4_ip4_0_split -> ip4_ip4_0_split_1
I0430 23:16:33.727336  4534 net.cpp:124] Setting up ip4_ip4_0_split
I0430 23:16:33.727342  4534 net.cpp:131] Top shape: 1000 10 (10000)
I0430 23:16:33.727346  4534 net.cpp:131] Top shape: 1000 10 (10000)
I0430 23:16:33.727349  4534 net.cpp:139] Memory required for data: 96212000
I0430 23:16:33.727352  4534 layer_factory.hpp:77] Creating layer accuracy
I0430 23:16:33.727357  4534 net.cpp:86] Creating Layer accuracy
I0430 23:16:33.727361  4534 net.cpp:408] accuracy <- ip4_ip4_0_split_0
I0430 23:16:33.727365  4534 net.cpp:408] accuracy <- label_cifar_1_split_0
I0430 23:16:33.727370  4534 net.cpp:382] accuracy -> accuracy
…
