…
I0501 07:23:15.239009  4834 net.cpp:296] The NetState phase (0) differed from the phase (1) specified by a rule in layer cifar
I0501 07:23:15.239028  4834 net.cpp:296] The NetState phase (0) differed from the phase (1) specified by a rule in layer accuracy
I0501 07:23:15.239120  4834 net.cpp:53] Initializing net from parameters: 
name: "CIFAR"
state {
  phase: TRAIN
  level: 0
  stage: ""
}
layer {
  name: "cifar"
  type: "Data"
  top: "data"
  top: "label"
  include {
    phase: TRAIN
  }
  transform_param {
    mean_file: "examples/cifar10/mean.binaryproto"
  }
  data_param {
    source: "examples/cifar10/cifar10_train_lmdb"
    batch_size: 111
    backend: LMDB
  }
}
layer {
  name: "conv0"
  type: "Convolution"
  bottom: "data"
  top: "conv0"
  param {
    lr_mult: 1
  }
  param {
    lr_mult: 2
  }
  convolution_param {
    num_output: 16
    pad: 2
    kernel_size: 3
    stride: 1
    weight_filler {
      type: "gaussian"
      std: 0.01
    }
    bias_filler {
      type: "constant"
    }
  }
}
layer {
  name: "Sigmoid0"
  type: "Sigmoid"
  bottom: "conv0"
  top: "Sigmoid0"
}
layer {
  name: "pool0"
  type: "Pooling"
  bottom: "Sigmoid0"
  top: "pool0"
  pooling_param {
    pool: AVE
    kernel_size: 3
    stride: 2
  }
}
layer {
  name: "ip1"
  type: "InnerProduct"
  bottom: "pool0"
  top: "ip1"
  param {
    lr_mult: 1
  }
  param {
    lr_mult: 2
  }
  inner_product_param {
    num_output: 40
    weight_filler {
      type: "gaussian"
      std: 0.01
    }
    bias_filler {
      type: "constant"
    }
  }
}
layer {
  name: "relu1"
  type: "ReLU"
  bottom: "ip1"
  top: "ip1"
}
layer {
  name: "ip2"
  type: "InnerProduct"
  bottom: "ip1"
  top: "ip2"
  param {
    lr_mult: 1
  }
  param {
    lr_mult: 2
  }
  inner_product_param {
    num_output: 10
    weight_filler {
      type: "gaussian"
      std: 0.01
    }
    bias_filler {
      type: "constant"
    }
  }
}
layer {
  name: "relu2"
  type: "ReLU"
  bottom: "ip2"
  top: "ip2"
}
layer {
  name: "ip3"
  type: "InnerProduct"
  bottom: "ip2"
  top: "ip3"
  param {
    lr_mult: 1
  }
  param {
    lr_mult: 2
  }
  inner_product_param {
    num_output: 10
    weight_filler {
      type: "gaussian"
      std: 0.01
    }
    bias_filler {
      type: "constant"
    }
  }
}
layer {
  name: "loss"
  type: "SoftmaxWithLoss"
  bottom: "ip3"
  bottom: "label"
  top: "loss"
}
I0501 07:23:15.239193  4834 layer_factory.hpp:77] Creating layer cifar
I0501 07:23:15.239292  4834 db_lmdb.cpp:35] Opened lmdb examples/cifar10/cifar10_train_lmdb
I0501 07:23:15.239323  4834 net.cpp:86] Creating Layer cifar
I0501 07:23:15.239331  4834 net.cpp:382] cifar -> data
I0501 07:23:15.239353  4834 net.cpp:382] cifar -> label
I0501 07:23:15.239367  4834 data_transformer.cpp:25] Loading mean file from: examples/cifar10/mean.binaryproto
I0501 07:23:15.241524  4834 data_layer.cpp:45] output data size: 111,3,32,32
I0501 07:23:15.249490  4834 net.cpp:124] Setting up cifar
I0501 07:23:15.249511  4834 net.cpp:131] Top shape: 111 3 32 32 (340992)
I0501 07:23:15.249519  4834 net.cpp:131] Top shape: 111 (111)
I0501 07:23:15.249522  4834 net.cpp:139] Memory required for data: 1364412
I0501 07:23:15.249531  4834 layer_factory.hpp:77] Creating layer conv0
I0501 07:23:15.249548  4834 net.cpp:86] Creating Layer conv0
I0501 07:23:15.249559  4834 net.cpp:408] conv0 <- data
I0501 07:23:15.249572  4834 net.cpp:382] conv0 -> conv0
I0501 07:23:15.570735  4834 net.cpp:124] Setting up conv0
I0501 07:23:15.570791  4834 net.cpp:131] Top shape: 111 16 34 34 (2053056)
I0501 07:23:15.570798  4834 net.cpp:139] Memory required for data: 9576636
I0501 07:23:15.570816  4834 layer_factory.hpp:77] Creating layer Sigmoid0
I0501 07:23:15.570829  4834 net.cpp:86] Creating Layer Sigmoid0
I0501 07:23:15.570834  4834 net.cpp:408] Sigmoid0 <- conv0
I0501 07:23:15.570840  4834 net.cpp:382] Sigmoid0 -> Sigmoid0
I0501 07:23:15.571058  4834 net.cpp:124] Setting up Sigmoid0
I0501 07:23:15.571070  4834 net.cpp:131] Top shape: 111 16 34 34 (2053056)
I0501 07:23:15.571074  4834 net.cpp:139] Memory required for data: 17788860
I0501 07:23:15.571079  4834 layer_factory.hpp:77] Creating layer pool0
I0501 07:23:15.571087  4834 net.cpp:86] Creating Layer pool0
I0501 07:23:15.571091  4834 net.cpp:408] pool0 <- Sigmoid0
I0501 07:23:15.571096  4834 net.cpp:382] pool0 -> pool0
I0501 07:23:15.571974  4834 net.cpp:124] Setting up pool0
I0501 07:23:15.571990  4834 net.cpp:131] Top shape: 111 16 17 17 (513264)
I0501 07:23:15.571995  4834 net.cpp:139] Memory required for data: 19841916
I0501 07:23:15.572000  4834 layer_factory.hpp:77] Creating layer ip1
I0501 07:23:15.572010  4834 net.cpp:86] Creating Layer ip1
I0501 07:23:15.572015  4834 net.cpp:408] ip1 <- pool0
I0501 07:23:15.572021  4834 net.cpp:382] ip1 -> ip1
I0501 07:23:15.579205  4834 net.cpp:124] Setting up ip1
I0501 07:23:15.579219  4834 net.cpp:131] Top shape: 111 40 (4440)
I0501 07:23:15.579223  4834 net.cpp:139] Memory required for data: 19859676
I0501 07:23:15.579233  4834 layer_factory.hpp:77] Creating layer relu1
I0501 07:23:15.579241  4834 net.cpp:86] Creating Layer relu1
I0501 07:23:15.579246  4834 net.cpp:408] relu1 <- ip1
I0501 07:23:15.579252  4834 net.cpp:369] relu1 -> ip1 (in-place)
I0501 07:23:15.579442  4834 net.cpp:124] Setting up relu1
I0501 07:23:15.579452  4834 net.cpp:131] Top shape: 111 40 (4440)
I0501 07:23:15.579457  4834 net.cpp:139] Memory required for data: 19877436
I0501 07:23:15.579459  4834 layer_factory.hpp:77] Creating layer ip2
I0501 07:23:15.579468  4834 net.cpp:86] Creating Layer ip2
I0501 07:23:15.579471  4834 net.cpp:408] ip2 <- ip1
I0501 07:23:15.579478  4834 net.cpp:382] ip2 -> ip2
I0501 07:23:15.579601  4834 net.cpp:124] Setting up ip2
I0501 07:23:15.579609  4834 net.cpp:131] Top shape: 111 10 (1110)
I0501 07:23:15.579613  4834 net.cpp:139] Memory required for data: 19881876
I0501 07:23:15.579622  4834 layer_factory.hpp:77] Creating layer relu2
I0501 07:23:15.579627  4834 net.cpp:86] Creating Layer relu2
I0501 07:23:15.579632  4834 net.cpp:408] relu2 <- ip2
I0501 07:23:15.579637  4834 net.cpp:369] relu2 -> ip2 (in-place)
I0501 07:23:15.579818  4834 net.cpp:124] Setting up relu2
I0501 07:23:15.579826  4834 net.cpp:131] Top shape: 111 10 (1110)
I0501 07:23:15.579830  4834 net.cpp:139] Memory required for data: 19886316
I0501 07:23:15.579833  4834 layer_factory.hpp:77] Creating layer ip3
I0501 07:23:15.579843  4834 net.cpp:86] Creating Layer ip3
I0501 07:23:15.579846  4834 net.cpp:408] ip3 <- ip2
I0501 07:23:15.579851  4834 net.cpp:382] ip3 -> ip3
I0501 07:23:15.579960  4834 net.cpp:124] Setting up ip3
I0501 07:23:15.579968  4834 net.cpp:131] Top shape: 111 10 (1110)
I0501 07:23:15.579972  4834 net.cpp:139] Memory required for data: 19890756
I0501 07:23:15.579978  4834 layer_factory.hpp:77] Creating layer loss
I0501 07:23:15.579984  4834 net.cpp:86] Creating Layer loss
I0501 07:23:15.579988  4834 net.cpp:408] loss <- ip3
I0501 07:23:15.579993  4834 net.cpp:408] loss <- label
I0501 07:23:15.579999  4834 net.cpp:382] loss -> loss
I0501 07:23:15.580020  4834 layer_factory.hpp:77] Creating layer loss
…
I0501 07:23:15.580729  4834 solver.cpp:173] Creating test net (#0) specified by net file: ECE595/cifar/train_test/var_everything/cifar_train_test_480.prototxt
I0501 07:23:15.580762  4834 net.cpp:296] The NetState phase (1) differed from the phase (0) specified by a rule in layer cifar
I0501 07:23:15.580895  4834 net.cpp:53] Initializing net from parameters: 
name: "CIFAR"
state {
  phase: TEST
}
layer {
  name: "cifar"
  type: "Data"
  top: "data"
  top: "label"
  include {
    phase: TEST
  }
  transform_param {
    mean_file: "examples/cifar10/mean.binaryproto"
  }
  data_param {
    source: "examples/cifar10/cifar10_test_lmdb"
    batch_size: 1000
    backend: LMDB
  }
}
layer {
  name: "conv0"
  type: "Convolution"
  bottom: "data"
  top: "conv0"
  param {
    lr_mult: 1
  }
  param {
    lr_mult: 2
  }
  convolution_param {
    num_output: 16
    pad: 2
    kernel_size: 3
    stride: 1
    weight_filler {
      type: "gaussian"
      std: 0.01
    }
    bias_filler {
      type: "constant"
    }
  }
}
layer {
  name: "Sigmoid0"
  type: "Sigmoid"
  bottom: "conv0"
  top: "Sigmoid0"
}
layer {
  name: "pool0"
  type: "Pooling"
  bottom: "Sigmoid0"
  top: "pool0"
  pooling_param {
    pool: AVE
    kernel_size: 3
    stride: 2
  }
}
layer {
  name: "ip1"
  type: "InnerProduct"
  bottom: "pool0"
  top: "ip1"
  param {
    lr_mult: 1
  }
  param {
    lr_mult: 2
  }
  inner_product_param {
    num_output: 40
    weight_filler {
      type: "gaussian"
      std: 0.01
    }
    bias_filler {
      type: "constant"
    }
  }
}
layer {
  name: "relu1"
  type: "ReLU"
  bottom: "ip1"
  top: "ip1"
}
layer {
  name: "ip2"
  type: "InnerProduct"
  bottom: "ip1"
  top: "ip2"
  param {
    lr_mult: 1
  }
  param {
    lr_mult: 2
  }
  inner_product_param {
    num_output: 10
    weight_filler {
      type: "gaussian"
      std: 0.01
    }
    bias_filler {
      type: "constant"
    }
  }
}
layer {
  name: "relu2"
  type: "ReLU"
  bottom: "ip2"
  top: "ip2"
}
layer {
  name: "ip3"
  type: "InnerProduct"
  bottom: "ip2"
  top: "ip3"
  param {
    lr_mult: 1
  }
  param {
    lr_mult: 2
  }
  inner_product_param {
    num_output: 10
    weight_filler {
      type: "gaussian"
      std: 0.01
    }
    bias_filler {
      type: "constant"
    }
  }
}
layer {
  name: "accuracy"
  type: "Accuracy"
  bottom: "ip3"
  bottom: "label"
  top: "accuracy"
  include {
    phase: TEST
  }
}
layer {
  name: "loss"
  type: "SoftmaxWithLoss"
  bottom: "ip3"
  bottom: "label"
  top: "loss"
}
I0501 07:23:15.580972  4834 layer_factory.hpp:77] Creating layer cifar
I0501 07:23:15.581025  4834 db_lmdb.cpp:35] Opened lmdb examples/cifar10/cifar10_test_lmdb
I0501 07:23:15.581040  4834 net.cpp:86] Creating Layer cifar
I0501 07:23:15.581046  4834 net.cpp:382] cifar -> data
I0501 07:23:15.581055  4834 net.cpp:382] cifar -> label
I0501 07:23:15.581063  4834 data_transformer.cpp:25] Loading mean file from: examples/cifar10/mean.binaryproto
I0501 07:23:15.581234  4834 data_layer.cpp:45] output data size: 1000,3,32,32
I0501 07:23:15.607097  4834 net.cpp:124] Setting up cifar
I0501 07:23:15.607128  4834 net.cpp:131] Top shape: 1000 3 32 32 (3072000)
I0501 07:23:15.607136  4834 net.cpp:131] Top shape: 1000 (1000)
I0501 07:23:15.607141  4834 net.cpp:139] Memory required for data: 12292000
I0501 07:23:15.607146  4834 layer_factory.hpp:77] Creating layer label_cifar_1_split
I0501 07:23:15.607165  4834 net.cpp:86] Creating Layer label_cifar_1_split
I0501 07:23:15.607188  4834 net.cpp:408] label_cifar_1_split <- label
I0501 07:23:15.607195  4834 net.cpp:382] label_cifar_1_split -> label_cifar_1_split_0
I0501 07:23:15.607208  4834 net.cpp:382] label_cifar_1_split -> label_cifar_1_split_1
I0501 07:23:15.607348  4834 net.cpp:124] Setting up label_cifar_1_split
I0501 07:23:15.607358  4834 net.cpp:131] Top shape: 1000 (1000)
I0501 07:23:15.607362  4834 net.cpp:131] Top shape: 1000 (1000)
I0501 07:23:15.607367  4834 net.cpp:139] Memory required for data: 12300000
I0501 07:23:15.607370  4834 layer_factory.hpp:77] Creating layer conv0
I0501 07:23:15.607384  4834 net.cpp:86] Creating Layer conv0
I0501 07:23:15.607388  4834 net.cpp:408] conv0 <- data
I0501 07:23:15.607395  4834 net.cpp:382] conv0 -> conv0
I0501 07:23:15.609136  4834 net.cpp:124] Setting up conv0
I0501 07:23:15.609153  4834 net.cpp:131] Top shape: 1000 16 34 34 (18496000)
I0501 07:23:15.609158  4834 net.cpp:139] Memory required for data: 86284000
I0501 07:23:15.609170  4834 layer_factory.hpp:77] Creating layer Sigmoid0
I0501 07:23:15.609179  4834 net.cpp:86] Creating Layer Sigmoid0
I0501 07:23:15.609182  4834 net.cpp:408] Sigmoid0 <- conv0
I0501 07:23:15.609189  4834 net.cpp:382] Sigmoid0 -> Sigmoid0
I0501 07:23:15.611167  4834 net.cpp:124] Setting up Sigmoid0
I0501 07:23:15.611184  4834 net.cpp:131] Top shape: 1000 16 34 34 (18496000)
I0501 07:23:15.611189  4834 net.cpp:139] Memory required for data: 160268000
I0501 07:23:15.611193  4834 layer_factory.hpp:77] Creating layer pool0
I0501 07:23:15.611204  4834 net.cpp:86] Creating Layer pool0
I0501 07:23:15.611209  4834 net.cpp:408] pool0 <- Sigmoid0
I0501 07:23:15.611217  4834 net.cpp:382] pool0 -> pool0
I0501 07:23:15.611424  4834 net.cpp:124] Setting up pool0
I0501 07:23:15.611435  4834 net.cpp:131] Top shape: 1000 16 17 17 (4624000)
I0501 07:23:15.611439  4834 net.cpp:139] Memory required for data: 178764000
I0501 07:23:15.611443  4834 layer_factory.hpp:77] Creating layer ip1
I0501 07:23:15.611452  4834 net.cpp:86] Creating Layer ip1
I0501 07:23:15.611457  4834 net.cpp:408] ip1 <- pool0
I0501 07:23:15.611484  4834 net.cpp:382] ip1 -> ip1
I0501 07:23:15.617758  4834 net.cpp:124] Setting up ip1
I0501 07:23:15.617770  4834 net.cpp:131] Top shape: 1000 40 (40000)
I0501 07:23:15.617774  4834 net.cpp:139] Memory required for data: 178924000
I0501 07:23:15.617784  4834 layer_factory.hpp:77] Creating layer relu1
I0501 07:23:15.617791  4834 net.cpp:86] Creating Layer relu1
I0501 07:23:15.617795  4834 net.cpp:408] relu1 <- ip1
I0501 07:23:15.617801  4834 net.cpp:369] relu1 -> ip1 (in-place)
I0501 07:23:15.617995  4834 net.cpp:124] Setting up relu1
I0501 07:23:15.618005  4834 net.cpp:131] Top shape: 1000 40 (40000)
I0501 07:23:15.618010  4834 net.cpp:139] Memory required for data: 179084000
I0501 07:23:15.618013  4834 layer_factory.hpp:77] Creating layer ip2
I0501 07:23:15.618021  4834 net.cpp:86] Creating Layer ip2
I0501 07:23:15.618024  4834 net.cpp:408] ip2 <- ip1
I0501 07:23:15.618031  4834 net.cpp:382] ip2 -> ip2
I0501 07:23:15.618173  4834 net.cpp:124] Setting up ip2
I0501 07:23:15.618182  4834 net.cpp:131] Top shape: 1000 10 (10000)
I0501 07:23:15.618187  4834 net.cpp:139] Memory required for data: 179124000
I0501 07:23:15.618196  4834 layer_factory.hpp:77] Creating layer relu2
I0501 07:23:15.618204  4834 net.cpp:86] Creating Layer relu2
I0501 07:23:15.618208  4834 net.cpp:408] relu2 <- ip2
I0501 07:23:15.618216  4834 net.cpp:369] relu2 -> ip2 (in-place)
I0501 07:23:15.618412  4834 net.cpp:124] Setting up relu2
I0501 07:23:15.618422  4834 net.cpp:131] Top shape: 1000 10 (10000)
I0501 07:23:15.618427  4834 net.cpp:139] Memory required for data: 179164000
I0501 07:23:15.618430  4834 layer_factory.hpp:77] Creating layer ip3
I0501 07:23:15.618440  4834 net.cpp:86] Creating Layer ip3
I0501 07:23:15.618444  4834 net.cpp:408] ip3 <- ip2
I0501 07:23:15.618449  4834 net.cpp:382] ip3 -> ip3
I0501 07:23:15.618577  4834 net.cpp:124] Setting up ip3
I0501 07:23:15.618585  4834 net.cpp:131] Top shape: 1000 10 (10000)
I0501 07:23:15.618605  4834 net.cpp:139] Memory required for data: 179204000
I0501 07:23:15.618613  4834 layer_factory.hpp:77] Creating layer ip3_ip3_0_split
I0501 07:23:15.618620  4834 net.cpp:86] Creating Layer ip3_ip3_0_split
I0501 07:23:15.618624  4834 net.cpp:408] ip3_ip3_0_split <- ip3
I0501 07:23:15.618630  4834 net.cpp:382] ip3_ip3_0_split -> ip3_ip3_0_split_0
I0501 07:23:15.618636  4834 net.cpp:382] ip3_ip3_0_split -> ip3_ip3_0_split_1
I0501 07:23:15.618676  4834 net.cpp:124] Setting up ip3_ip3_0_split
I0501 07:23:15.618686  4834 net.cpp:131] Top shape: 1000 10 (10000)
I0501 07:23:15.618690  4834 net.cpp:131] Top shape: 1000 10 (10000)
I0501 07:23:15.618695  4834 net.cpp:139] Memory required for data: 179284000
I0501 07:23:15.618698  4834 layer_factory.hpp:77] Creating layer accuracy
I0501 07:23:15.618705  4834 net.cpp:86] Creating Layer accuracy
I0501 07:23:15.618710  4834 net.cpp:408] accuracy <- ip3_ip3_0_split_0
I0501 07:23:15.618715  4834 net.cpp:408] accuracy <- label_cifar_1_split_0
I0501 07:23:15.618721  4834 net.cpp:382] accuracy -> accuracy
…
