…
I0501 05:28:00.627955 29171 net.cpp:296] The NetState phase (0) differed from the phase (1) specified by a rule in layer cifar
I0501 05:28:00.627974 29171 net.cpp:296] The NetState phase (0) differed from the phase (1) specified by a rule in layer accuracy
I0501 05:28:00.628074 29171 net.cpp:53] Initializing net from parameters: 
name: "CIFAR"
state {
  phase: TRAIN
  level: 0
  stage: ""
}
layer {
  name: "cifar"
  type: "Data"
  top: "data"
  top: "label"
  include {
    phase: TRAIN
  }
  transform_param {
    mean_file: "examples/cifar10/mean.binaryproto"
  }
  data_param {
    source: "examples/cifar10/cifar10_train_lmdb"
    batch_size: 111
    backend: LMDB
  }
}
layer {
  name: "conv0"
  type: "Convolution"
  bottom: "data"
  top: "conv0"
  param {
    lr_mult: 1
  }
  param {
    lr_mult: 2
  }
  convolution_param {
    num_output: 8
    pad: 2
    kernel_size: 5
    stride: 1
    weight_filler {
      type: "gaussian"
      std: 0.01
    }
    bias_filler {
      type: "constant"
    }
  }
}
layer {
  name: "Sigmoid0"
  type: "Sigmoid"
  bottom: "conv0"
  top: "Sigmoid0"
}
layer {
  name: "pool0"
  type: "Pooling"
  bottom: "Sigmoid0"
  top: "pool0"
  pooling_param {
    pool: AVE
    kernel_size: 3
    stride: 2
  }
}
layer {
  name: "ip1"
  type: "InnerProduct"
  bottom: "pool0"
  top: "ip1"
  param {
    lr_mult: 1
  }
  param {
    lr_mult: 2
  }
  inner_product_param {
    num_output: 80
    weight_filler {
      type: "gaussian"
      std: 0.01
    }
    bias_filler {
      type: "constant"
    }
  }
}
layer {
  name: "relu1"
  type: "ReLU"
  bottom: "ip1"
  top: "ip1"
}
layer {
  name: "ip2"
  type: "InnerProduct"
  bottom: "ip1"
  top: "ip2"
  param {
    lr_mult: 1
  }
  param {
    lr_mult: 2
  }
  inner_product_param {
    num_output: 10
    weight_filler {
      type: "gaussian"
      std: 0.01
    }
    bias_filler {
      type: "constant"
    }
  }
}
layer {
  name: "relu2"
  type: "ReLU"
  bottom: "ip2"
  top: "ip2"
}
layer {
  name: "ip3"
  type: "InnerProduct"
  bottom: "ip2"
  top: "ip3"
  param {
    lr_mult: 1
  }
  param {
    lr_mult: 2
  }
  inner_product_param {
    num_output: 160
    weight_filler {
      type: "gaussian"
      std: 0.01
    }
    bias_filler {
      type: "constant"
    }
  }
}
layer {
  name: "relu3"
  type: "ReLU"
  bottom: "ip3"
  top: "ip3"
}
layer {
  name: "ip4"
  type: "InnerProduct"
  bottom: "ip3"
  top: "ip4"
  param {
    lr_mult: 1
  }
  param {
    lr_mult: 2
  }
  inner_product_param {
    num_output: 10
    weight_filler {
      type: "gaussian"
      std: 0.01
    }
    bias_filler {
      type: "constant"
    }
  }
}
layer {
  name: "loss"
  type: "SoftmaxWithLoss"
  bottom: "ip4"
  bottom: "label"
  top: "loss"
}
I0501 05:28:00.628147 29171 layer_factory.hpp:77] Creating layer cifar
I0501 05:28:00.628247 29171 db_lmdb.cpp:35] Opened lmdb examples/cifar10/cifar10_train_lmdb
I0501 05:28:00.628275 29171 net.cpp:86] Creating Layer cifar
I0501 05:28:00.628283 29171 net.cpp:382] cifar -> data
I0501 05:28:00.628307 29171 net.cpp:382] cifar -> label
I0501 05:28:00.628319 29171 data_transformer.cpp:25] Loading mean file from: examples/cifar10/mean.binaryproto
I0501 05:28:00.630431 29171 data_layer.cpp:45] output data size: 111,3,32,32
I0501 05:28:00.638310 29171 net.cpp:124] Setting up cifar
I0501 05:28:00.638331 29171 net.cpp:131] Top shape: 111 3 32 32 (340992)
I0501 05:28:00.638337 29171 net.cpp:131] Top shape: 111 (111)
I0501 05:28:00.638342 29171 net.cpp:139] Memory required for data: 1364412
I0501 05:28:00.638365 29171 layer_factory.hpp:77] Creating layer conv0
I0501 05:28:00.638384 29171 net.cpp:86] Creating Layer conv0
I0501 05:28:00.638391 29171 net.cpp:408] conv0 <- data
I0501 05:28:00.638403 29171 net.cpp:382] conv0 -> conv0
I0501 05:28:00.919104 29171 net.cpp:124] Setting up conv0
I0501 05:28:00.919131 29171 net.cpp:131] Top shape: 111 8 32 32 (909312)
I0501 05:28:00.919136 29171 net.cpp:139] Memory required for data: 5001660
I0501 05:28:00.919150 29171 layer_factory.hpp:77] Creating layer Sigmoid0
I0501 05:28:00.919162 29171 net.cpp:86] Creating Layer Sigmoid0
I0501 05:28:00.919167 29171 net.cpp:408] Sigmoid0 <- conv0
I0501 05:28:00.919172 29171 net.cpp:382] Sigmoid0 -> Sigmoid0
I0501 05:28:00.919332 29171 net.cpp:124] Setting up Sigmoid0
I0501 05:28:00.919342 29171 net.cpp:131] Top shape: 111 8 32 32 (909312)
I0501 05:28:00.919345 29171 net.cpp:139] Memory required for data: 8638908
I0501 05:28:00.919348 29171 layer_factory.hpp:77] Creating layer pool0
I0501 05:28:00.919355 29171 net.cpp:86] Creating Layer pool0
I0501 05:28:00.919358 29171 net.cpp:408] pool0 <- Sigmoid0
I0501 05:28:00.919363 29171 net.cpp:382] pool0 -> pool0
I0501 05:28:00.920073 29171 net.cpp:124] Setting up pool0
I0501 05:28:00.920086 29171 net.cpp:131] Top shape: 111 8 16 16 (227328)
I0501 05:28:00.920090 29171 net.cpp:139] Memory required for data: 9548220
I0501 05:28:00.920094 29171 layer_factory.hpp:77] Creating layer ip1
I0501 05:28:00.920102 29171 net.cpp:86] Creating Layer ip1
I0501 05:28:00.920105 29171 net.cpp:408] ip1 <- pool0
I0501 05:28:00.920110 29171 net.cpp:382] ip1 -> ip1
I0501 05:28:00.924391 29171 net.cpp:124] Setting up ip1
I0501 05:28:00.924401 29171 net.cpp:131] Top shape: 111 80 (8880)
I0501 05:28:00.924403 29171 net.cpp:139] Memory required for data: 9583740
I0501 05:28:00.924410 29171 layer_factory.hpp:77] Creating layer relu1
I0501 05:28:00.924415 29171 net.cpp:86] Creating Layer relu1
I0501 05:28:00.924419 29171 net.cpp:408] relu1 <- ip1
I0501 05:28:00.924423 29171 net.cpp:369] relu1 -> ip1 (in-place)
I0501 05:28:00.924562 29171 net.cpp:124] Setting up relu1
I0501 05:28:00.924571 29171 net.cpp:131] Top shape: 111 80 (8880)
I0501 05:28:00.924574 29171 net.cpp:139] Memory required for data: 9619260
I0501 05:28:00.924577 29171 layer_factory.hpp:77] Creating layer ip2
I0501 05:28:00.924583 29171 net.cpp:86] Creating Layer ip2
I0501 05:28:00.924587 29171 net.cpp:408] ip2 <- ip1
I0501 05:28:00.924590 29171 net.cpp:382] ip2 -> ip2
I0501 05:28:00.924692 29171 net.cpp:124] Setting up ip2
I0501 05:28:00.924700 29171 net.cpp:131] Top shape: 111 10 (1110)
I0501 05:28:00.924702 29171 net.cpp:139] Memory required for data: 9623700
I0501 05:28:00.924710 29171 layer_factory.hpp:77] Creating layer relu2
I0501 05:28:00.924713 29171 net.cpp:86] Creating Layer relu2
I0501 05:28:00.924716 29171 net.cpp:408] relu2 <- ip2
I0501 05:28:00.924721 29171 net.cpp:369] relu2 -> ip2 (in-place)
I0501 05:28:00.924862 29171 net.cpp:124] Setting up relu2
I0501 05:28:00.924870 29171 net.cpp:131] Top shape: 111 10 (1110)
I0501 05:28:00.924875 29171 net.cpp:139] Memory required for data: 9628140
I0501 05:28:00.924877 29171 layer_factory.hpp:77] Creating layer ip3
I0501 05:28:00.924883 29171 net.cpp:86] Creating Layer ip3
I0501 05:28:00.924887 29171 net.cpp:408] ip3 <- ip2
I0501 05:28:00.924892 29171 net.cpp:382] ip3 -> ip3
I0501 05:28:00.925010 29171 net.cpp:124] Setting up ip3
I0501 05:28:00.925017 29171 net.cpp:131] Top shape: 111 160 (17760)
I0501 05:28:00.925020 29171 net.cpp:139] Memory required for data: 9699180
I0501 05:28:00.925025 29171 layer_factory.hpp:77] Creating layer relu3
I0501 05:28:00.925030 29171 net.cpp:86] Creating Layer relu3
I0501 05:28:00.925034 29171 net.cpp:408] relu3 <- ip3
I0501 05:28:00.925037 29171 net.cpp:369] relu3 -> ip3 (in-place)
I0501 05:28:00.925194 29171 net.cpp:124] Setting up relu3
I0501 05:28:00.925202 29171 net.cpp:131] Top shape: 111 160 (17760)
I0501 05:28:00.925205 29171 net.cpp:139] Memory required for data: 9770220
I0501 05:28:00.925209 29171 layer_factory.hpp:77] Creating layer ip4
I0501 05:28:00.925230 29171 net.cpp:86] Creating Layer ip4
I0501 05:28:00.925233 29171 net.cpp:408] ip4 <- ip3
I0501 05:28:00.925237 29171 net.cpp:382] ip4 -> ip4
I0501 05:28:00.925389 29171 net.cpp:124] Setting up ip4
I0501 05:28:00.925396 29171 net.cpp:131] Top shape: 111 10 (1110)
I0501 05:28:00.925400 29171 net.cpp:139] Memory required for data: 9774660
I0501 05:28:00.925406 29171 layer_factory.hpp:77] Creating layer loss
I0501 05:28:00.925413 29171 net.cpp:86] Creating Layer loss
I0501 05:28:00.925416 29171 net.cpp:408] loss <- ip4
I0501 05:28:00.925420 29171 net.cpp:408] loss <- label
I0501 05:28:00.925426 29171 net.cpp:382] loss -> loss
I0501 05:28:00.925457 29171 layer_factory.hpp:77] Creating layer loss
…
I0501 05:28:00.926640 29171 solver.cpp:173] Creating test net (#0) specified by net file: ECE595/cifar/train_test/var_everything/cifar_train_test_419.prototxt
I0501 05:28:00.926666 29171 net.cpp:296] The NetState phase (1) differed from the phase (0) specified by a rule in layer cifar
I0501 05:28:00.926767 29171 net.cpp:53] Initializing net from parameters: 
name: "CIFAR"
state {
  phase: TEST
}
layer {
  name: "cifar"
  type: "Data"
  top: "data"
  top: "label"
  include {
    phase: TEST
  }
  transform_param {
    mean_file: "examples/cifar10/mean.binaryproto"
  }
  data_param {
    source: "examples/cifar10/cifar10_test_lmdb"
    batch_size: 1000
    backend: LMDB
  }
}
layer {
  name: "conv0"
  type: "Convolution"
  bottom: "data"
  top: "conv0"
  param {
    lr_mult: 1
  }
  param {
    lr_mult: 2
  }
  convolution_param {
    num_output: 8
    pad: 2
    kernel_size: 5
    stride: 1
    weight_filler {
      type: "gaussian"
      std: 0.01
    }
    bias_filler {
      type: "constant"
    }
  }
}
layer {
  name: "Sigmoid0"
  type: "Sigmoid"
  bottom: "conv0"
  top: "Sigmoid0"
}
layer {
  name: "pool0"
  type: "Pooling"
  bottom: "Sigmoid0"
  top: "pool0"
  pooling_param {
    pool: AVE
    kernel_size: 3
    stride: 2
  }
}
layer {
  name: "ip1"
  type: "InnerProduct"
  bottom: "pool0"
  top: "ip1"
  param {
    lr_mult: 1
  }
  param {
    lr_mult: 2
  }
  inner_product_param {
    num_output: 80
    weight_filler {
      type: "gaussian"
      std: 0.01
    }
    bias_filler {
      type: "constant"
    }
  }
}
layer {
  name: "relu1"
  type: "ReLU"
  bottom: "ip1"
  top: "ip1"
}
layer {
  name: "ip2"
  type: "InnerProduct"
  bottom: "ip1"
  top: "ip2"
  param {
    lr_mult: 1
  }
  param {
    lr_mult: 2
  }
  inner_product_param {
    num_output: 10
    weight_filler {
      type: "gaussian"
      std: 0.01
    }
    bias_filler {
      type: "constant"
    }
  }
}
layer {
  name: "relu2"
  type: "ReLU"
  bottom: "ip2"
  top: "ip2"
}
layer {
  name: "ip3"
  type: "InnerProduct"
  bottom: "ip2"
  top: "ip3"
  param {
    lr_mult: 1
  }
  param {
    lr_mult: 2
  }
  inner_product_param {
    num_output: 160
    weight_filler {
      type: "gaussian"
      std: 0.01
    }
    bias_filler {
      type: "constant"
    }
  }
}
layer {
  name: "relu3"
  type: "ReLU"
  bottom: "ip3"
  top: "ip3"
}
layer {
  name: "ip4"
  type: "InnerProduct"
  bottom: "ip3"
  top: "ip4"
  param {
    lr_mult: 1
  }
  param {
    lr_mult: 2
  }
  inner_product_param {
    num_output: 10
    weight_filler {
      type: "gaussian"
      std: 0.01
    }
    bias_filler {
      type: "constant"
    }
  }
}
layer {
  name: "accuracy"
  type: "Accuracy"
  bottom: "ip4"
  bottom: "label"
  top: "accuracy"
  include {
    phase: TEST
  }
}
layer {
  name: "loss"
  type: "SoftmaxWithLoss"
  bottom: "ip4"
  bottom: "label"
  top: "loss"
}
I0501 05:28:00.926862 29171 layer_factory.hpp:77] Creating layer cifar
I0501 05:28:00.926905 29171 db_lmdb.cpp:35] Opened lmdb examples/cifar10/cifar10_test_lmdb
I0501 05:28:00.926918 29171 net.cpp:86] Creating Layer cifar
I0501 05:28:00.926923 29171 net.cpp:382] cifar -> data
I0501 05:28:00.926931 29171 net.cpp:382] cifar -> label
I0501 05:28:00.926937 29171 data_transformer.cpp:25] Loading mean file from: examples/cifar10/mean.binaryproto
I0501 05:28:00.927078 29171 data_layer.cpp:45] output data size: 1000,3,32,32
I0501 05:28:00.948616 29171 net.cpp:124] Setting up cifar
I0501 05:28:00.948659 29171 net.cpp:131] Top shape: 1000 3 32 32 (3072000)
I0501 05:28:00.948667 29171 net.cpp:131] Top shape: 1000 (1000)
I0501 05:28:00.948669 29171 net.cpp:139] Memory required for data: 12292000
I0501 05:28:00.948678 29171 layer_factory.hpp:77] Creating layer label_cifar_1_split
I0501 05:28:00.948693 29171 net.cpp:86] Creating Layer label_cifar_1_split
I0501 05:28:00.948696 29171 net.cpp:408] label_cifar_1_split <- label
I0501 05:28:00.948719 29171 net.cpp:382] label_cifar_1_split -> label_cifar_1_split_0
I0501 05:28:00.948726 29171 net.cpp:382] label_cifar_1_split -> label_cifar_1_split_1
I0501 05:28:00.948803 29171 net.cpp:124] Setting up label_cifar_1_split
I0501 05:28:00.948817 29171 net.cpp:131] Top shape: 1000 (1000)
I0501 05:28:00.948837 29171 net.cpp:131] Top shape: 1000 (1000)
I0501 05:28:00.948840 29171 net.cpp:139] Memory required for data: 12300000
I0501 05:28:00.948843 29171 layer_factory.hpp:77] Creating layer conv0
I0501 05:28:00.948858 29171 net.cpp:86] Creating Layer conv0
I0501 05:28:00.948878 29171 net.cpp:408] conv0 <- data
I0501 05:28:00.948884 29171 net.cpp:382] conv0 -> conv0
I0501 05:28:00.950498 29171 net.cpp:124] Setting up conv0
I0501 05:28:00.950525 29171 net.cpp:131] Top shape: 1000 8 32 32 (8192000)
I0501 05:28:00.950544 29171 net.cpp:139] Memory required for data: 45068000
I0501 05:28:00.950554 29171 layer_factory.hpp:77] Creating layer Sigmoid0
I0501 05:28:00.950562 29171 net.cpp:86] Creating Layer Sigmoid0
I0501 05:28:00.950564 29171 net.cpp:408] Sigmoid0 <- conv0
I0501 05:28:00.950569 29171 net.cpp:382] Sigmoid0 -> Sigmoid0
I0501 05:28:00.950757 29171 net.cpp:124] Setting up Sigmoid0
I0501 05:28:00.950767 29171 net.cpp:131] Top shape: 1000 8 32 32 (8192000)
I0501 05:28:00.950770 29171 net.cpp:139] Memory required for data: 77836000
I0501 05:28:00.950773 29171 layer_factory.hpp:77] Creating layer pool0
I0501 05:28:00.950780 29171 net.cpp:86] Creating Layer pool0
I0501 05:28:00.950783 29171 net.cpp:408] pool0 <- Sigmoid0
I0501 05:28:00.950789 29171 net.cpp:382] pool0 -> pool0
I0501 05:28:00.951059 29171 net.cpp:124] Setting up pool0
I0501 05:28:00.951069 29171 net.cpp:131] Top shape: 1000 8 16 16 (2048000)
I0501 05:28:00.951072 29171 net.cpp:139] Memory required for data: 86028000
I0501 05:28:00.951076 29171 layer_factory.hpp:77] Creating layer ip1
I0501 05:28:00.951086 29171 net.cpp:86] Creating Layer ip1
I0501 05:28:00.951088 29171 net.cpp:408] ip1 <- pool0
I0501 05:28:00.951093 29171 net.cpp:382] ip1 -> ip1
I0501 05:28:00.956367 29171 net.cpp:124] Setting up ip1
I0501 05:28:00.956377 29171 net.cpp:131] Top shape: 1000 80 (80000)
I0501 05:28:00.956396 29171 net.cpp:139] Memory required for data: 86348000
I0501 05:28:00.956418 29171 layer_factory.hpp:77] Creating layer relu1
I0501 05:28:00.956424 29171 net.cpp:86] Creating Layer relu1
I0501 05:28:00.956428 29171 net.cpp:408] relu1 <- ip1
I0501 05:28:00.956432 29171 net.cpp:369] relu1 -> ip1 (in-place)
I0501 05:28:00.956619 29171 net.cpp:124] Setting up relu1
I0501 05:28:00.956626 29171 net.cpp:131] Top shape: 1000 80 (80000)
I0501 05:28:00.956629 29171 net.cpp:139] Memory required for data: 86668000
I0501 05:28:00.956634 29171 layer_factory.hpp:77] Creating layer ip2
I0501 05:28:00.956640 29171 net.cpp:86] Creating Layer ip2
I0501 05:28:00.956643 29171 net.cpp:408] ip2 <- ip1
I0501 05:28:00.956650 29171 net.cpp:382] ip2 -> ip2
I0501 05:28:00.956769 29171 net.cpp:124] Setting up ip2
I0501 05:28:00.956794 29171 net.cpp:131] Top shape: 1000 10 (10000)
I0501 05:28:00.956796 29171 net.cpp:139] Memory required for data: 86708000
I0501 05:28:00.956804 29171 layer_factory.hpp:77] Creating layer relu2
I0501 05:28:00.956830 29171 net.cpp:86] Creating Layer relu2
I0501 05:28:00.956835 29171 net.cpp:408] relu2 <- ip2
I0501 05:28:00.956840 29171 net.cpp:369] relu2 -> ip2 (in-place)
I0501 05:28:00.957657 29171 net.cpp:124] Setting up relu2
I0501 05:28:00.957669 29171 net.cpp:131] Top shape: 1000 10 (10000)
I0501 05:28:00.957689 29171 net.cpp:139] Memory required for data: 86748000
I0501 05:28:00.957691 29171 layer_factory.hpp:77] Creating layer ip3
I0501 05:28:00.957700 29171 net.cpp:86] Creating Layer ip3
I0501 05:28:00.957705 29171 net.cpp:408] ip3 <- ip2
I0501 05:28:00.957710 29171 net.cpp:382] ip3 -> ip3
I0501 05:28:00.957866 29171 net.cpp:124] Setting up ip3
I0501 05:28:00.957875 29171 net.cpp:131] Top shape: 1000 160 (160000)
I0501 05:28:00.957877 29171 net.cpp:139] Memory required for data: 87388000
I0501 05:28:00.957882 29171 layer_factory.hpp:77] Creating layer relu3
I0501 05:28:00.957888 29171 net.cpp:86] Creating Layer relu3
I0501 05:28:00.957907 29171 net.cpp:408] relu3 <- ip3
I0501 05:28:00.957911 29171 net.cpp:369] relu3 -> ip3 (in-place)
I0501 05:28:00.958066 29171 net.cpp:124] Setting up relu3
I0501 05:28:00.958076 29171 net.cpp:131] Top shape: 1000 160 (160000)
I0501 05:28:00.958078 29171 net.cpp:139] Memory required for data: 88028000
I0501 05:28:00.958082 29171 layer_factory.hpp:77] Creating layer ip4
I0501 05:28:00.958091 29171 net.cpp:86] Creating Layer ip4
I0501 05:28:00.958096 29171 net.cpp:408] ip4 <- ip3
I0501 05:28:00.958099 29171 net.cpp:382] ip4 -> ip4
I0501 05:28:00.958257 29171 net.cpp:124] Setting up ip4
I0501 05:28:00.958266 29171 net.cpp:131] Top shape: 1000 10 (10000)
I0501 05:28:00.958268 29171 net.cpp:139] Memory required for data: 88068000
I0501 05:28:00.958276 29171 layer_factory.hpp:77] Creating layer ip4_ip4_0_split
I0501 05:28:00.958282 29171 net.cpp:86] Creating Layer ip4_ip4_0_split
I0501 05:28:00.958286 29171 net.cpp:408] ip4_ip4_0_split <- ip4
I0501 05:28:00.958289 29171 net.cpp:382] ip4_ip4_0_split -> ip4_ip4_0_split_0
I0501 05:28:00.958294 29171 net.cpp:382] ip4_ip4_0_split -> ip4_ip4_0_split_1
I0501 05:28:00.958324 29171 net.cpp:124] Setting up ip4_ip4_0_split
I0501 05:28:00.958334 29171 net.cpp:131] Top shape: 1000 10 (10000)
I0501 05:28:00.958338 29171 net.cpp:131] Top shape: 1000 10 (10000)
I0501 05:28:00.958341 29171 net.cpp:139] Memory required for data: 88148000
I0501 05:28:00.958344 29171 layer_factory.hpp:77] Creating layer accuracy
I0501 05:28:00.958351 29171 net.cpp:86] Creating Layer accuracy
I0501 05:28:00.958354 29171 net.cpp:408] accuracy <- ip4_ip4_0_split_0
I0501 05:28:00.958359 29171 net.cpp:408] accuracy <- label_cifar_1_split_0
I0501 05:28:00.958362 29171 net.cpp:382] accuracy -> accuracy
…
