…
I0430 18:20:36.331619 23037 net.cpp:296] The NetState phase (0) differed from the phase (1) specified by a rule in layer cifar
I0430 18:20:36.331634 23037 net.cpp:296] The NetState phase (0) differed from the phase (1) specified by a rule in layer accuracy
I0430 18:20:36.331717 23037 net.cpp:53] Initializing net from parameters: 
name: "CIFAR"
state {
  phase: TRAIN
  level: 0
  stage: ""
}
layer {
  name: "cifar"
  type: "Data"
  top: "data"
  top: "label"
  include {
    phase: TRAIN
  }
  transform_param {
    mean_file: "examples/cifar10/mean.binaryproto"
  }
  data_param {
    source: "examples/cifar10/cifar10_train_lmdb"
    batch_size: 111
    backend: LMDB
  }
}
layer {
  name: "ip1"
  type: "InnerProduct"
  bottom: "data"
  top: "ip1"
  param {
    lr_mult: 1
  }
  param {
    lr_mult: 2
  }
  inner_product_param {
    num_output: 20
    weight_filler {
      type: "gaussian"
      std: 0.01
    }
    bias_filler {
      type: "constant"
    }
  }
}
layer {
  name: "relu1"
  type: "ReLU"
  bottom: "ip1"
  top: "ip1"
}
layer {
  name: "ip2"
  type: "InnerProduct"
  bottom: "ip1"
  top: "ip2"
  param {
    lr_mult: 1
  }
  param {
    lr_mult: 2
  }
  inner_product_param {
    num_output: 20
    weight_filler {
      type: "gaussian"
      std: 0.01
    }
    bias_filler {
      type: "constant"
    }
  }
}
layer {
  name: "relu2"
  type: "ReLU"
  bottom: "ip2"
  top: "ip2"
}
layer {
  name: "ip3"
  type: "InnerProduct"
  bottom: "ip2"
  top: "ip3"
  param {
    lr_mult: 1
  }
  param {
    lr_mult: 2
  }
  inner_product_param {
    num_output: 80
    weight_filler {
      type: "gaussian"
      std: 0.01
    }
    bias_filler {
      type: "constant"
    }
  }
}
layer {
  name: "relu3"
  type: "ReLU"
  bottom: "ip3"
  top: "ip3"
}
layer {
  name: "ip4"
  type: "InnerProduct"
  bottom: "ip3"
  top: "ip4"
  param {
    lr_mult: 1
  }
  param {
    lr_mult: 2
  }
  inner_product_param {
    num_output: 10
    weight_filler {
      type: "gaussian"
      std: 0.01
    }
    bias_filler {
      type: "constant"
    }
  }
}
layer {
  name: "loss"
  type: "SoftmaxWithLoss"
  bottom: "ip4"
  bottom: "label"
  top: "loss"
}
I0430 18:20:36.331781 23037 layer_factory.hpp:77] Creating layer cifar
I0430 18:20:36.331883 23037 db_lmdb.cpp:35] Opened lmdb examples/cifar10/cifar10_train_lmdb
I0430 18:20:36.331910 23037 net.cpp:86] Creating Layer cifar
I0430 18:20:36.331918 23037 net.cpp:382] cifar -> data
I0430 18:20:36.331941 23037 net.cpp:382] cifar -> label
I0430 18:20:36.331954 23037 data_transformer.cpp:25] Loading mean file from: examples/cifar10/mean.binaryproto
I0430 18:20:36.334066 23037 data_layer.cpp:45] output data size: 111,3,32,32
I0430 18:20:36.342206 23037 net.cpp:124] Setting up cifar
I0430 18:20:36.342226 23037 net.cpp:131] Top shape: 111 3 32 32 (340992)
I0430 18:20:36.342231 23037 net.cpp:131] Top shape: 111 (111)
I0430 18:20:36.342236 23037 net.cpp:139] Memory required for data: 1364412
I0430 18:20:36.342242 23037 layer_factory.hpp:77] Creating layer ip1
I0430 18:20:36.342267 23037 net.cpp:86] Creating Layer ip1
I0430 18:20:36.342273 23037 net.cpp:408] ip1 <- data
I0430 18:20:36.342286 23037 net.cpp:382] ip1 -> ip1
I0430 18:20:36.345466 23037 net.cpp:124] Setting up ip1
I0430 18:20:36.345482 23037 net.cpp:131] Top shape: 111 20 (2220)
I0430 18:20:36.345486 23037 net.cpp:139] Memory required for data: 1373292
I0430 18:20:36.345504 23037 layer_factory.hpp:77] Creating layer relu1
I0430 18:20:36.345512 23037 net.cpp:86] Creating Layer relu1
I0430 18:20:36.345544 23037 net.cpp:408] relu1 <- ip1
I0430 18:20:36.345551 23037 net.cpp:369] relu1 -> ip1 (in-place)
I0430 18:20:36.634323 23037 net.cpp:124] Setting up relu1
I0430 18:20:36.634353 23037 net.cpp:131] Top shape: 111 20 (2220)
I0430 18:20:36.634358 23037 net.cpp:139] Memory required for data: 1382172
I0430 18:20:36.634364 23037 layer_factory.hpp:77] Creating layer ip2
I0430 18:20:36.634378 23037 net.cpp:86] Creating Layer ip2
I0430 18:20:36.634383 23037 net.cpp:408] ip2 <- ip1
I0430 18:20:36.634392 23037 net.cpp:382] ip2 -> ip2
I0430 18:20:36.635572 23037 net.cpp:124] Setting up ip2
I0430 18:20:36.635588 23037 net.cpp:131] Top shape: 111 20 (2220)
I0430 18:20:36.635592 23037 net.cpp:139] Memory required for data: 1391052
I0430 18:20:36.635604 23037 layer_factory.hpp:77] Creating layer relu2
I0430 18:20:36.635613 23037 net.cpp:86] Creating Layer relu2
I0430 18:20:36.635617 23037 net.cpp:408] relu2 <- ip2
I0430 18:20:36.635623 23037 net.cpp:369] relu2 -> ip2 (in-place)
I0430 18:20:36.636490 23037 net.cpp:124] Setting up relu2
I0430 18:20:36.636505 23037 net.cpp:131] Top shape: 111 20 (2220)
I0430 18:20:36.636509 23037 net.cpp:139] Memory required for data: 1399932
I0430 18:20:36.636514 23037 layer_factory.hpp:77] Creating layer ip3
I0430 18:20:36.636523 23037 net.cpp:86] Creating Layer ip3
I0430 18:20:36.636526 23037 net.cpp:408] ip3 <- ip2
I0430 18:20:36.636533 23037 net.cpp:382] ip3 -> ip3
I0430 18:20:36.636704 23037 net.cpp:124] Setting up ip3
I0430 18:20:36.636713 23037 net.cpp:131] Top shape: 111 80 (8880)
I0430 18:20:36.636718 23037 net.cpp:139] Memory required for data: 1435452
I0430 18:20:36.636728 23037 layer_factory.hpp:77] Creating layer relu3
I0430 18:20:36.636734 23037 net.cpp:86] Creating Layer relu3
I0430 18:20:36.636736 23037 net.cpp:408] relu3 <- ip3
I0430 18:20:36.636741 23037 net.cpp:369] relu3 -> ip3 (in-place)
I0430 18:20:36.636930 23037 net.cpp:124] Setting up relu3
I0430 18:20:36.636941 23037 net.cpp:131] Top shape: 111 80 (8880)
I0430 18:20:36.636945 23037 net.cpp:139] Memory required for data: 1470972
I0430 18:20:36.636950 23037 layer_factory.hpp:77] Creating layer ip4
I0430 18:20:36.636956 23037 net.cpp:86] Creating Layer ip4
I0430 18:20:36.636960 23037 net.cpp:408] ip4 <- ip3
I0430 18:20:36.636965 23037 net.cpp:382] ip4 -> ip4
I0430 18:20:36.637106 23037 net.cpp:124] Setting up ip4
I0430 18:20:36.637115 23037 net.cpp:131] Top shape: 111 10 (1110)
I0430 18:20:36.637118 23037 net.cpp:139] Memory required for data: 1475412
I0430 18:20:36.637125 23037 layer_factory.hpp:77] Creating layer loss
I0430 18:20:36.637132 23037 net.cpp:86] Creating Layer loss
I0430 18:20:36.637136 23037 net.cpp:408] loss <- ip4
I0430 18:20:36.637140 23037 net.cpp:408] loss <- label
I0430 18:20:36.637146 23037 net.cpp:382] loss -> loss
I0430 18:20:36.637168 23037 layer_factory.hpp:77] Creating layer loss
…
I0430 18:20:36.637830 23037 solver.cpp:173] Creating test net (#0) specified by net file: ECE595/cifar/train_test/var_everything/cifar_train_test_63.prototxt
I0430 18:20:36.637874 23037 net.cpp:296] The NetState phase (1) differed from the phase (0) specified by a rule in layer cifar
I0430 18:20:36.637964 23037 net.cpp:53] Initializing net from parameters: 
name: "CIFAR"
state {
  phase: TEST
}
layer {
  name: "cifar"
  type: "Data"
  top: "data"
  top: "label"
  include {
    phase: TEST
  }
  transform_param {
    mean_file: "examples/cifar10/mean.binaryproto"
  }
  data_param {
    source: "examples/cifar10/cifar10_test_lmdb"
    batch_size: 1000
    backend: LMDB
  }
}
layer {
  name: "ip1"
  type: "InnerProduct"
  bottom: "data"
  top: "ip1"
  param {
    lr_mult: 1
  }
  param {
    lr_mult: 2
  }
  inner_product_param {
    num_output: 20
    weight_filler {
      type: "gaussian"
      std: 0.01
    }
    bias_filler {
      type: "constant"
    }
  }
}
layer {
  name: "relu1"
  type: "ReLU"
  bottom: "ip1"
  top: "ip1"
}
layer {
  name: "ip2"
  type: "InnerProduct"
  bottom: "ip1"
  top: "ip2"
  param {
    lr_mult: 1
  }
  param {
    lr_mult: 2
  }
  inner_product_param {
    num_output: 20
    weight_filler {
      type: "gaussian"
      std: 0.01
    }
    bias_filler {
      type: "constant"
    }
  }
}
layer {
  name: "relu2"
  type: "ReLU"
  bottom: "ip2"
  top: "ip2"
}
layer {
  name: "ip3"
  type: "InnerProduct"
  bottom: "ip2"
  top: "ip3"
  param {
    lr_mult: 1
  }
  param {
    lr_mult: 2
  }
  inner_product_param {
    num_output: 80
    weight_filler {
      type: "gaussian"
      std: 0.01
    }
    bias_filler {
      type: "constant"
    }
  }
}
layer {
  name: "relu3"
  type: "ReLU"
  bottom: "ip3"
  top: "ip3"
}
layer {
  name: "ip4"
  type: "InnerProduct"
  bottom: "ip3"
  top: "ip4"
  param {
    lr_mult: 1
  }
  param {
    lr_mult: 2
  }
  inner_product_param {
    num_output: 10
    weight_filler {
      type: "gaussian"
      std: 0.01
    }
    bias_filler {
      type: "constant"
    }
  }
}
layer {
  name: "accuracy"
  type: "Accuracy"
  bottom: "ip4"
  bottom: "label"
  top: "accuracy"
  include {
    phase: TEST
  }
}
layer {
  name: "loss"
  type: "SoftmaxWithLoss"
  bottom: "ip4"
  bottom: "label"
  top: "loss"
}
I0430 18:20:36.638036 23037 layer_factory.hpp:77] Creating layer cifar
I0430 18:20:36.638088 23037 db_lmdb.cpp:35] Opened lmdb examples/cifar10/cifar10_test_lmdb
I0430 18:20:36.638103 23037 net.cpp:86] Creating Layer cifar
I0430 18:20:36.638108 23037 net.cpp:382] cifar -> data
I0430 18:20:36.638118 23037 net.cpp:382] cifar -> label
I0430 18:20:36.638125 23037 data_transformer.cpp:25] Loading mean file from: examples/cifar10/mean.binaryproto
I0430 18:20:36.638294 23037 data_layer.cpp:45] output data size: 1000,3,32,32
I0430 18:20:36.663730 23037 net.cpp:124] Setting up cifar
I0430 18:20:36.663759 23037 net.cpp:131] Top shape: 1000 3 32 32 (3072000)
I0430 18:20:36.663766 23037 net.cpp:131] Top shape: 1000 (1000)
I0430 18:20:36.663770 23037 net.cpp:139] Memory required for data: 12292000
I0430 18:20:36.663776 23037 layer_factory.hpp:77] Creating layer label_cifar_1_split
I0430 18:20:36.663795 23037 net.cpp:86] Creating Layer label_cifar_1_split
I0430 18:20:36.663800 23037 net.cpp:408] label_cifar_1_split <- label
I0430 18:20:36.663807 23037 net.cpp:382] label_cifar_1_split -> label_cifar_1_split_0
I0430 18:20:36.663817 23037 net.cpp:382] label_cifar_1_split -> label_cifar_1_split_1
I0430 18:20:36.663939 23037 net.cpp:124] Setting up label_cifar_1_split
I0430 18:20:36.663949 23037 net.cpp:131] Top shape: 1000 (1000)
I0430 18:20:36.663954 23037 net.cpp:131] Top shape: 1000 (1000)
I0430 18:20:36.663956 23037 net.cpp:139] Memory required for data: 12300000
I0430 18:20:36.663960 23037 layer_factory.hpp:77] Creating layer ip1
I0430 18:20:36.663971 23037 net.cpp:86] Creating Layer ip1
I0430 18:20:36.663975 23037 net.cpp:408] ip1 <- data
I0430 18:20:36.663981 23037 net.cpp:382] ip1 -> ip1
I0430 18:20:36.666625 23037 net.cpp:124] Setting up ip1
I0430 18:20:36.666638 23037 net.cpp:131] Top shape: 1000 20 (20000)
I0430 18:20:36.666642 23037 net.cpp:139] Memory required for data: 12380000
I0430 18:20:36.666671 23037 layer_factory.hpp:77] Creating layer relu1
I0430 18:20:36.666678 23037 net.cpp:86] Creating Layer relu1
I0430 18:20:36.666682 23037 net.cpp:408] relu1 <- ip1
I0430 18:20:36.666688 23037 net.cpp:369] relu1 -> ip1 (in-place)
I0430 18:20:36.667598 23037 net.cpp:124] Setting up relu1
I0430 18:20:36.667614 23037 net.cpp:131] Top shape: 1000 20 (20000)
I0430 18:20:36.667618 23037 net.cpp:139] Memory required for data: 12460000
I0430 18:20:36.667624 23037 layer_factory.hpp:77] Creating layer ip2
I0430 18:20:36.667634 23037 net.cpp:86] Creating Layer ip2
I0430 18:20:36.667639 23037 net.cpp:408] ip2 <- ip1
I0430 18:20:36.667644 23037 net.cpp:382] ip2 -> ip2
I0430 18:20:36.667784 23037 net.cpp:124] Setting up ip2
I0430 18:20:36.667793 23037 net.cpp:131] Top shape: 1000 20 (20000)
I0430 18:20:36.667796 23037 net.cpp:139] Memory required for data: 12540000
I0430 18:20:36.667806 23037 layer_factory.hpp:77] Creating layer relu2
I0430 18:20:36.667812 23037 net.cpp:86] Creating Layer relu2
I0430 18:20:36.667815 23037 net.cpp:408] relu2 <- ip2
I0430 18:20:36.667820 23037 net.cpp:369] relu2 -> ip2 (in-place)
I0430 18:20:36.668004 23037 net.cpp:124] Setting up relu2
I0430 18:20:36.668015 23037 net.cpp:131] Top shape: 1000 20 (20000)
I0430 18:20:36.668018 23037 net.cpp:139] Memory required for data: 12620000
I0430 18:20:36.668021 23037 layer_factory.hpp:77] Creating layer ip3
I0430 18:20:36.668028 23037 net.cpp:86] Creating Layer ip3
I0430 18:20:36.668032 23037 net.cpp:408] ip3 <- ip2
I0430 18:20:36.668040 23037 net.cpp:382] ip3 -> ip3
I0430 18:20:36.668212 23037 net.cpp:124] Setting up ip3
I0430 18:20:36.668220 23037 net.cpp:131] Top shape: 1000 80 (80000)
I0430 18:20:36.668225 23037 net.cpp:139] Memory required for data: 12940000
I0430 18:20:36.668233 23037 layer_factory.hpp:77] Creating layer relu3
I0430 18:20:36.668239 23037 net.cpp:86] Creating Layer relu3
I0430 18:20:36.668243 23037 net.cpp:408] relu3 <- ip3
I0430 18:20:36.668247 23037 net.cpp:369] relu3 -> ip3 (in-place)
I0430 18:20:36.668428 23037 net.cpp:124] Setting up relu3
I0430 18:20:36.668437 23037 net.cpp:131] Top shape: 1000 80 (80000)
I0430 18:20:36.668442 23037 net.cpp:139] Memory required for data: 13260000
I0430 18:20:36.668445 23037 layer_factory.hpp:77] Creating layer ip4
I0430 18:20:36.668454 23037 net.cpp:86] Creating Layer ip4
I0430 18:20:36.668458 23037 net.cpp:408] ip4 <- ip3
I0430 18:20:36.668463 23037 net.cpp:382] ip4 -> ip4
I0430 18:20:36.668609 23037 net.cpp:124] Setting up ip4
I0430 18:20:36.668617 23037 net.cpp:131] Top shape: 1000 10 (10000)
I0430 18:20:36.668622 23037 net.cpp:139] Memory required for data: 13300000
I0430 18:20:36.668628 23037 layer_factory.hpp:77] Creating layer ip4_ip4_0_split
I0430 18:20:36.668635 23037 net.cpp:86] Creating Layer ip4_ip4_0_split
I0430 18:20:36.668638 23037 net.cpp:408] ip4_ip4_0_split <- ip4
I0430 18:20:36.668644 23037 net.cpp:382] ip4_ip4_0_split -> ip4_ip4_0_split_0
I0430 18:20:36.668651 23037 net.cpp:382] ip4_ip4_0_split -> ip4_ip4_0_split_1
I0430 18:20:36.668686 23037 net.cpp:124] Setting up ip4_ip4_0_split
I0430 18:20:36.668694 23037 net.cpp:131] Top shape: 1000 10 (10000)
I0430 18:20:36.668700 23037 net.cpp:131] Top shape: 1000 10 (10000)
I0430 18:20:36.668704 23037 net.cpp:139] Memory required for data: 13380000
I0430 18:20:36.668707 23037 layer_factory.hpp:77] Creating layer accuracy
I0430 18:20:36.668714 23037 net.cpp:86] Creating Layer accuracy
I0430 18:20:36.668717 23037 net.cpp:408] accuracy <- ip4_ip4_0_split_0
I0430 18:20:36.668722 23037 net.cpp:408] accuracy <- label_cifar_1_split_0
I0430 18:20:36.668728 23037 net.cpp:382] accuracy -> accuracy
…
