…
I0430 16:53:28.745378 18446 net.cpp:296] The NetState phase (0) differed from the phase (1) specified by a rule in layer cifar
I0430 16:53:28.745393 18446 net.cpp:296] The NetState phase (0) differed from the phase (1) specified by a rule in layer accuracy
I0430 16:53:28.745466 18446 net.cpp:53] Initializing net from parameters: 
name: "CIFAR"
state {
  phase: TRAIN
  level: 0
  stage: ""
}
layer {
  name: "cifar"
  type: "Data"
  top: "data"
  top: "label"
  include {
    phase: TRAIN
  }
  transform_param {
    mean_file: "examples/cifar10/mean.binaryproto"
  }
  data_param {
    source: "examples/cifar10/cifar10_train_lmdb"
    batch_size: 111
    backend: LMDB
  }
}
layer {
  name: "ip1"
  type: "InnerProduct"
  bottom: "data"
  top: "ip1"
  param {
    lr_mult: 1
  }
  param {
    lr_mult: 2
  }
  inner_product_param {
    num_output: 40
    weight_filler {
      type: "gaussian"
      std: 0.01
    }
    bias_filler {
      type: "constant"
    }
  }
}
layer {
  name: "relu1"
  type: "ReLU"
  bottom: "ip1"
  top: "ip1"
}
layer {
  name: "ip2"
  type: "InnerProduct"
  bottom: "ip1"
  top: "ip2"
  param {
    lr_mult: 1
  }
  param {
    lr_mult: 2
  }
  inner_product_param {
    num_output: 40
    weight_filler {
      type: "gaussian"
      std: 0.01
    }
    bias_filler {
      type: "constant"
    }
  }
}
layer {
  name: "relu2"
  type: "ReLU"
  bottom: "ip2"
  top: "ip2"
}
layer {
  name: "ip3"
  type: "InnerProduct"
  bottom: "ip2"
  top: "ip3"
  param {
    lr_mult: 1
  }
  param {
    lr_mult: 2
  }
  inner_product_param {
    num_output: 10
    weight_filler {
      type: "gaussian"
      std: 0.01
    }
    bias_filler {
      type: "constant"
    }
  }
}
layer {
  name: "loss"
  type: "SoftmaxWithLoss"
  bottom: "ip3"
  bottom: "label"
  top: "loss"
}
I0430 16:53:28.745527 18446 layer_factory.hpp:77] Creating layer cifar
I0430 16:53:28.745623 18446 db_lmdb.cpp:35] Opened lmdb examples/cifar10/cifar10_train_lmdb
I0430 16:53:28.745651 18446 net.cpp:86] Creating Layer cifar
I0430 16:53:28.745657 18446 net.cpp:382] cifar -> data
I0430 16:53:28.745679 18446 net.cpp:382] cifar -> label
I0430 16:53:28.745692 18446 data_transformer.cpp:25] Loading mean file from: examples/cifar10/mean.binaryproto
I0430 16:53:28.747792 18446 data_layer.cpp:45] output data size: 111,3,32,32
I0430 16:53:28.755664 18446 net.cpp:124] Setting up cifar
I0430 16:53:28.755683 18446 net.cpp:131] Top shape: 111 3 32 32 (340992)
I0430 16:53:28.755689 18446 net.cpp:131] Top shape: 111 (111)
I0430 16:53:28.755693 18446 net.cpp:139] Memory required for data: 1364412
I0430 16:53:28.755702 18446 layer_factory.hpp:77] Creating layer ip1
I0430 16:53:28.755713 18446 net.cpp:86] Creating Layer ip1
I0430 16:53:28.755719 18446 net.cpp:408] ip1 <- data
I0430 16:53:28.755729 18446 net.cpp:382] ip1 -> ip1
I0430 16:53:28.759963 18446 net.cpp:124] Setting up ip1
I0430 16:53:28.759976 18446 net.cpp:131] Top shape: 111 40 (4440)
I0430 16:53:28.759980 18446 net.cpp:139] Memory required for data: 1382172
I0430 16:53:28.759994 18446 layer_factory.hpp:77] Creating layer relu1
I0430 16:53:28.760004 18446 net.cpp:86] Creating Layer relu1
I0430 16:53:28.760007 18446 net.cpp:408] relu1 <- ip1
I0430 16:53:28.760013 18446 net.cpp:369] relu1 -> ip1 (in-place)
I0430 16:53:29.046954 18446 net.cpp:124] Setting up relu1
I0430 16:53:29.046985 18446 net.cpp:131] Top shape: 111 40 (4440)
I0430 16:53:29.046990 18446 net.cpp:139] Memory required for data: 1399932
I0430 16:53:29.047019 18446 layer_factory.hpp:77] Creating layer ip2
I0430 16:53:29.047035 18446 net.cpp:86] Creating Layer ip2
I0430 16:53:29.047040 18446 net.cpp:408] ip2 <- ip1
I0430 16:53:29.047050 18446 net.cpp:382] ip2 -> ip2
I0430 16:53:29.047240 18446 net.cpp:124] Setting up ip2
I0430 16:53:29.047252 18446 net.cpp:131] Top shape: 111 40 (4440)
I0430 16:53:29.047256 18446 net.cpp:139] Memory required for data: 1417692
I0430 16:53:29.047267 18446 layer_factory.hpp:77] Creating layer relu2
I0430 16:53:29.047276 18446 net.cpp:86] Creating Layer relu2
I0430 16:53:29.047281 18446 net.cpp:408] relu2 <- ip2
I0430 16:53:29.047286 18446 net.cpp:369] relu2 -> ip2 (in-place)
I0430 16:53:29.048183 18446 net.cpp:124] Setting up relu2
I0430 16:53:29.048198 18446 net.cpp:131] Top shape: 111 40 (4440)
I0430 16:53:29.048202 18446 net.cpp:139] Memory required for data: 1435452
I0430 16:53:29.048207 18446 layer_factory.hpp:77] Creating layer ip3
I0430 16:53:29.048215 18446 net.cpp:86] Creating Layer ip3
I0430 16:53:29.048219 18446 net.cpp:408] ip3 <- ip2
I0430 16:53:29.048225 18446 net.cpp:382] ip3 -> ip3
I0430 16:53:29.049353 18446 net.cpp:124] Setting up ip3
I0430 16:53:29.049370 18446 net.cpp:131] Top shape: 111 10 (1110)
I0430 16:53:29.049373 18446 net.cpp:139] Memory required for data: 1439892
I0430 16:53:29.049383 18446 layer_factory.hpp:77] Creating layer loss
I0430 16:53:29.049391 18446 net.cpp:86] Creating Layer loss
I0430 16:53:29.049396 18446 net.cpp:408] loss <- ip3
I0430 16:53:29.049401 18446 net.cpp:408] loss <- label
I0430 16:53:29.049407 18446 net.cpp:382] loss -> loss
I0430 16:53:29.049430 18446 layer_factory.hpp:77] Creating layer loss
…
I0430 16:53:29.050076 18446 solver.cpp:173] Creating test net (#0) specified by net file: ECE595/cifar/train_test/var_everything/cifar_train_test_17.prototxt
I0430 16:53:29.050103 18446 net.cpp:296] The NetState phase (1) differed from the phase (0) specified by a rule in layer cifar
I0430 16:53:29.050190 18446 net.cpp:53] Initializing net from parameters: 
name: "CIFAR"
state {
  phase: TEST
}
layer {
  name: "cifar"
  type: "Data"
  top: "data"
  top: "label"
  include {
    phase: TEST
  }
  transform_param {
    mean_file: "examples/cifar10/mean.binaryproto"
  }
  data_param {
    source: "examples/cifar10/cifar10_test_lmdb"
    batch_size: 1000
    backend: LMDB
  }
}
layer {
  name: "ip1"
  type: "InnerProduct"
  bottom: "data"
  top: "ip1"
  param {
    lr_mult: 1
  }
  param {
    lr_mult: 2
  }
  inner_product_param {
    num_output: 40
    weight_filler {
      type: "gaussian"
      std: 0.01
    }
    bias_filler {
      type: "constant"
    }
  }
}
layer {
  name: "relu1"
  type: "ReLU"
  bottom: "ip1"
  top: "ip1"
}
layer {
  name: "ip2"
  type: "InnerProduct"
  bottom: "ip1"
  top: "ip2"
  param {
    lr_mult: 1
  }
  param {
    lr_mult: 2
  }
  inner_product_param {
    num_output: 40
    weight_filler {
      type: "gaussian"
      std: 0.01
    }
    bias_filler {
      type: "constant"
    }
  }
}
layer {
  name: "relu2"
  type: "ReLU"
  bottom: "ip2"
  top: "ip2"
}
layer {
  name: "ip3"
  type: "InnerProduct"
  bottom: "ip2"
  top: "ip3"
  param {
    lr_mult: 1
  }
  param {
    lr_mult: 2
  }
  inner_product_param {
    num_output: 10
    weight_filler {
      type: "gaussian"
      std: 0.01
    }
    bias_filler {
      type: "constant"
    }
  }
}
layer {
  name: "accuracy"
  type: "Accuracy"
  bottom: "ip3"
  bottom: "label"
  top: "accuracy"
  include {
    phase: TEST
  }
}
layer {
  name: "loss"
  type: "SoftmaxWithLoss"
  bottom: "ip3"
  bottom: "label"
  top: "loss"
}
I0430 16:53:29.050269 18446 layer_factory.hpp:77] Creating layer cifar
I0430 16:53:29.050320 18446 db_lmdb.cpp:35] Opened lmdb examples/cifar10/cifar10_test_lmdb
I0430 16:53:29.050334 18446 net.cpp:86] Creating Layer cifar
I0430 16:53:29.050339 18446 net.cpp:382] cifar -> data
I0430 16:53:29.050348 18446 net.cpp:382] cifar -> label
I0430 16:53:29.050356 18446 data_transformer.cpp:25] Loading mean file from: examples/cifar10/mean.binaryproto
I0430 16:53:29.050529 18446 data_layer.cpp:45] output data size: 1000,3,32,32
I0430 16:53:29.076309 18446 net.cpp:124] Setting up cifar
I0430 16:53:29.076339 18446 net.cpp:131] Top shape: 1000 3 32 32 (3072000)
I0430 16:53:29.076346 18446 net.cpp:131] Top shape: 1000 (1000)
I0430 16:53:29.076350 18446 net.cpp:139] Memory required for data: 12292000
I0430 16:53:29.076356 18446 layer_factory.hpp:77] Creating layer label_cifar_1_split
I0430 16:53:29.076376 18446 net.cpp:86] Creating Layer label_cifar_1_split
I0430 16:53:29.076380 18446 net.cpp:408] label_cifar_1_split <- label
I0430 16:53:29.076387 18446 net.cpp:382] label_cifar_1_split -> label_cifar_1_split_0
I0430 16:53:29.076400 18446 net.cpp:382] label_cifar_1_split -> label_cifar_1_split_1
I0430 16:53:29.076508 18446 net.cpp:124] Setting up label_cifar_1_split
I0430 16:53:29.076519 18446 net.cpp:131] Top shape: 1000 (1000)
I0430 16:53:29.076524 18446 net.cpp:131] Top shape: 1000 (1000)
I0430 16:53:29.076526 18446 net.cpp:139] Memory required for data: 12300000
I0430 16:53:29.076530 18446 layer_factory.hpp:77] Creating layer ip1
I0430 16:53:29.076542 18446 net.cpp:86] Creating Layer ip1
I0430 16:53:29.076546 18446 net.cpp:408] ip1 <- data
I0430 16:53:29.076553 18446 net.cpp:382] ip1 -> ip1
I0430 16:53:29.080778 18446 net.cpp:124] Setting up ip1
I0430 16:53:29.080791 18446 net.cpp:131] Top shape: 1000 40 (40000)
I0430 16:53:29.080796 18446 net.cpp:139] Memory required for data: 12460000
I0430 16:53:29.080807 18446 layer_factory.hpp:77] Creating layer relu1
I0430 16:53:29.080821 18446 net.cpp:86] Creating Layer relu1
I0430 16:53:29.080824 18446 net.cpp:408] relu1 <- ip1
I0430 16:53:29.080831 18446 net.cpp:369] relu1 -> ip1 (in-place)
I0430 16:53:29.081063 18446 net.cpp:124] Setting up relu1
I0430 16:53:29.081074 18446 net.cpp:131] Top shape: 1000 40 (40000)
I0430 16:53:29.081079 18446 net.cpp:139] Memory required for data: 12620000
I0430 16:53:29.081082 18446 layer_factory.hpp:77] Creating layer ip2
I0430 16:53:29.081092 18446 net.cpp:86] Creating Layer ip2
I0430 16:53:29.081096 18446 net.cpp:408] ip2 <- ip1
I0430 16:53:29.081102 18446 net.cpp:382] ip2 -> ip2
I0430 16:53:29.081276 18446 net.cpp:124] Setting up ip2
I0430 16:53:29.081285 18446 net.cpp:131] Top shape: 1000 40 (40000)
I0430 16:53:29.081290 18446 net.cpp:139] Memory required for data: 12780000
I0430 16:53:29.081298 18446 layer_factory.hpp:77] Creating layer relu2
I0430 16:53:29.081305 18446 net.cpp:86] Creating Layer relu2
I0430 16:53:29.081307 18446 net.cpp:408] relu2 <- ip2
I0430 16:53:29.081315 18446 net.cpp:369] relu2 -> ip2 (in-place)
I0430 16:53:29.082218 18446 net.cpp:124] Setting up relu2
I0430 16:53:29.082234 18446 net.cpp:131] Top shape: 1000 40 (40000)
I0430 16:53:29.082237 18446 net.cpp:139] Memory required for data: 12940000
I0430 16:53:29.082242 18446 layer_factory.hpp:77] Creating layer ip3
I0430 16:53:29.082250 18446 net.cpp:86] Creating Layer ip3
I0430 16:53:29.082254 18446 net.cpp:408] ip3 <- ip2
I0430 16:53:29.082262 18446 net.cpp:382] ip3 -> ip3
I0430 16:53:29.082406 18446 net.cpp:124] Setting up ip3
I0430 16:53:29.082415 18446 net.cpp:131] Top shape: 1000 10 (10000)
I0430 16:53:29.082419 18446 net.cpp:139] Memory required for data: 12980000
I0430 16:53:29.082444 18446 layer_factory.hpp:77] Creating layer ip3_ip3_0_split
I0430 16:53:29.082453 18446 net.cpp:86] Creating Layer ip3_ip3_0_split
I0430 16:53:29.082458 18446 net.cpp:408] ip3_ip3_0_split <- ip3
I0430 16:53:29.082463 18446 net.cpp:382] ip3_ip3_0_split -> ip3_ip3_0_split_0
I0430 16:53:29.082469 18446 net.cpp:382] ip3_ip3_0_split -> ip3_ip3_0_split_1
I0430 16:53:29.082511 18446 net.cpp:124] Setting up ip3_ip3_0_split
I0430 16:53:29.082517 18446 net.cpp:131] Top shape: 1000 10 (10000)
I0430 16:53:29.082522 18446 net.cpp:131] Top shape: 1000 10 (10000)
I0430 16:53:29.082525 18446 net.cpp:139] Memory required for data: 13060000
I0430 16:53:29.082528 18446 layer_factory.hpp:77] Creating layer accuracy
I0430 16:53:29.082541 18446 net.cpp:86] Creating Layer accuracy
I0430 16:53:29.082545 18446 net.cpp:408] accuracy <- ip3_ip3_0_split_0
I0430 16:53:29.082551 18446 net.cpp:408] accuracy <- label_cifar_1_split_0
I0430 16:53:29.082556 18446 net.cpp:382] accuracy -> accuracy
…
