…
I0430 20:31:25.497190 28843 net.cpp:296] The NetState phase (0) differed from the phase (1) specified by a rule in layer cifar
I0430 20:31:25.497205 28843 net.cpp:296] The NetState phase (0) differed from the phase (1) specified by a rule in layer accuracy
I0430 20:31:25.497290 28843 net.cpp:53] Initializing net from parameters: 
name: "CIFAR"
state {
  phase: TRAIN
  level: 0
  stage: ""
}
layer {
  name: "cifar"
  type: "Data"
  top: "data"
  top: "label"
  include {
    phase: TRAIN
  }
  transform_param {
    mean_file: "examples/cifar10/mean.binaryproto"
  }
  data_param {
    source: "examples/cifar10/cifar10_train_lmdb"
    batch_size: 111
    backend: LMDB
  }
}
layer {
  name: "ip1"
  type: "InnerProduct"
  bottom: "data"
  top: "ip1"
  param {
    lr_mult: 1
  }
  param {
    lr_mult: 2
  }
  inner_product_param {
    num_output: 160
    weight_filler {
      type: "gaussian"
      std: 0.01
    }
    bias_filler {
      type: "constant"
    }
  }
}
layer {
  name: "relu1"
  type: "ReLU"
  bottom: "ip1"
  top: "ip1"
}
layer {
  name: "ip2"
  type: "InnerProduct"
  bottom: "ip1"
  top: "ip2"
  param {
    lr_mult: 1
  }
  param {
    lr_mult: 2
  }
  inner_product_param {
    num_output: 10
    weight_filler {
      type: "gaussian"
      std: 0.01
    }
    bias_filler {
      type: "constant"
    }
  }
}
layer {
  name: "relu2"
  type: "ReLU"
  bottom: "ip2"
  top: "ip2"
}
layer {
  name: "ip3"
  type: "InnerProduct"
  bottom: "ip2"
  top: "ip3"
  param {
    lr_mult: 1
  }
  param {
    lr_mult: 2
  }
  inner_product_param {
    num_output: 40
    weight_filler {
      type: "gaussian"
      std: 0.01
    }
    bias_filler {
      type: "constant"
    }
  }
}
layer {
  name: "relu3"
  type: "ReLU"
  bottom: "ip3"
  top: "ip3"
}
layer {
  name: "ip4"
  type: "InnerProduct"
  bottom: "ip3"
  top: "ip4"
  param {
    lr_mult: 1
  }
  param {
    lr_mult: 2
  }
  inner_product_param {
    num_output: 10
    weight_filler {
      type: "gaussian"
      std: 0.01
    }
    bias_filler {
      type: "constant"
    }
  }
}
layer {
  name: "loss"
  type: "SoftmaxWithLoss"
  bottom: "ip4"
  bottom: "label"
  top: "loss"
}
I0430 20:31:25.497365 28843 layer_factory.hpp:77] Creating layer cifar
I0430 20:31:25.497467 28843 db_lmdb.cpp:35] Opened lmdb examples/cifar10/cifar10_train_lmdb
I0430 20:31:25.497493 28843 net.cpp:86] Creating Layer cifar
I0430 20:31:25.497503 28843 net.cpp:382] cifar -> data
I0430 20:31:25.497525 28843 net.cpp:382] cifar -> label
I0430 20:31:25.497536 28843 data_transformer.cpp:25] Loading mean file from: examples/cifar10/mean.binaryproto
I0430 20:31:25.499646 28843 data_layer.cpp:45] output data size: 111,3,32,32
I0430 20:31:25.507531 28843 net.cpp:124] Setting up cifar
I0430 20:31:25.507550 28843 net.cpp:131] Top shape: 111 3 32 32 (340992)
I0430 20:31:25.507556 28843 net.cpp:131] Top shape: 111 (111)
I0430 20:31:25.507560 28843 net.cpp:139] Memory required for data: 1364412
I0430 20:31:25.507567 28843 layer_factory.hpp:77] Creating layer ip1
I0430 20:31:25.507580 28843 net.cpp:86] Creating Layer ip1
I0430 20:31:25.507586 28843 net.cpp:408] ip1 <- data
I0430 20:31:25.507598 28843 net.cpp:382] ip1 -> ip1
I0430 20:31:25.524873 28843 net.cpp:124] Setting up ip1
I0430 20:31:25.524888 28843 net.cpp:131] Top shape: 111 160 (17760)
I0430 20:31:25.524893 28843 net.cpp:139] Memory required for data: 1435452
I0430 20:31:25.524906 28843 layer_factory.hpp:77] Creating layer relu1
I0430 20:31:25.524935 28843 net.cpp:86] Creating Layer relu1
I0430 20:31:25.524940 28843 net.cpp:408] relu1 <- ip1
I0430 20:31:25.524946 28843 net.cpp:369] relu1 -> ip1 (in-place)
I0430 20:31:25.802788 28843 net.cpp:124] Setting up relu1
I0430 20:31:25.802815 28843 net.cpp:131] Top shape: 111 160 (17760)
I0430 20:31:25.802819 28843 net.cpp:139] Memory required for data: 1506492
I0430 20:31:25.802824 28843 layer_factory.hpp:77] Creating layer ip2
I0430 20:31:25.802836 28843 net.cpp:86] Creating Layer ip2
I0430 20:31:25.802840 28843 net.cpp:408] ip2 <- ip1
I0430 20:31:25.802848 28843 net.cpp:382] ip2 -> ip2
I0430 20:31:25.802991 28843 net.cpp:124] Setting up ip2
I0430 20:31:25.802999 28843 net.cpp:131] Top shape: 111 10 (1110)
I0430 20:31:25.803002 28843 net.cpp:139] Memory required for data: 1510932
I0430 20:31:25.803011 28843 layer_factory.hpp:77] Creating layer relu2
I0430 20:31:25.803019 28843 net.cpp:86] Creating Layer relu2
I0430 20:31:25.803021 28843 net.cpp:408] relu2 <- ip2
I0430 20:31:25.803025 28843 net.cpp:369] relu2 -> ip2 (in-place)
I0430 20:31:25.803838 28843 net.cpp:124] Setting up relu2
I0430 20:31:25.803849 28843 net.cpp:131] Top shape: 111 10 (1110)
I0430 20:31:25.803853 28843 net.cpp:139] Memory required for data: 1515372
I0430 20:31:25.803856 28843 layer_factory.hpp:77] Creating layer ip3
I0430 20:31:25.803863 28843 net.cpp:86] Creating Layer ip3
I0430 20:31:25.803866 28843 net.cpp:408] ip3 <- ip2
I0430 20:31:25.803871 28843 net.cpp:382] ip3 -> ip3
I0430 20:31:25.804774 28843 net.cpp:124] Setting up ip3
I0430 20:31:25.804786 28843 net.cpp:131] Top shape: 111 40 (4440)
I0430 20:31:25.804790 28843 net.cpp:139] Memory required for data: 1533132
I0430 20:31:25.804796 28843 layer_factory.hpp:77] Creating layer relu3
I0430 20:31:25.804801 28843 net.cpp:86] Creating Layer relu3
I0430 20:31:25.804805 28843 net.cpp:408] relu3 <- ip3
I0430 20:31:25.804816 28843 net.cpp:369] relu3 -> ip3 (in-place)
I0430 20:31:25.804978 28843 net.cpp:124] Setting up relu3
I0430 20:31:25.804986 28843 net.cpp:131] Top shape: 111 40 (4440)
I0430 20:31:25.804989 28843 net.cpp:139] Memory required for data: 1550892
I0430 20:31:25.804993 28843 layer_factory.hpp:77] Creating layer ip4
I0430 20:31:25.804999 28843 net.cpp:86] Creating Layer ip4
I0430 20:31:25.805002 28843 net.cpp:408] ip4 <- ip3
I0430 20:31:25.805007 28843 net.cpp:382] ip4 -> ip4
I0430 20:31:25.805105 28843 net.cpp:124] Setting up ip4
I0430 20:31:25.805111 28843 net.cpp:131] Top shape: 111 10 (1110)
I0430 20:31:25.805114 28843 net.cpp:139] Memory required for data: 1555332
I0430 20:31:25.805120 28843 layer_factory.hpp:77] Creating layer loss
I0430 20:31:25.805126 28843 net.cpp:86] Creating Layer loss
I0430 20:31:25.805130 28843 net.cpp:408] loss <- ip4
I0430 20:31:25.805133 28843 net.cpp:408] loss <- label
I0430 20:31:25.805138 28843 net.cpp:382] loss -> loss
I0430 20:31:25.805171 28843 layer_factory.hpp:77] Creating layer loss
…
I0430 20:31:25.805687 28843 solver.cpp:173] Creating test net (#0) specified by net file: ECE595/cifar/train_test/var_everything/cifar_train_test_132.prototxt
I0430 20:31:25.805724 28843 net.cpp:296] The NetState phase (1) differed from the phase (0) specified by a rule in layer cifar
I0430 20:31:25.805797 28843 net.cpp:53] Initializing net from parameters: 
name: "CIFAR"
state {
  phase: TEST
}
layer {
  name: "cifar"
  type: "Data"
  top: "data"
  top: "label"
  include {
    phase: TEST
  }
  transform_param {
    mean_file: "examples/cifar10/mean.binaryproto"
  }
  data_param {
    source: "examples/cifar10/cifar10_test_lmdb"
    batch_size: 1000
    backend: LMDB
  }
}
layer {
  name: "ip1"
  type: "InnerProduct"
  bottom: "data"
  top: "ip1"
  param {
    lr_mult: 1
  }
  param {
    lr_mult: 2
  }
  inner_product_param {
    num_output: 160
    weight_filler {
      type: "gaussian"
      std: 0.01
    }
    bias_filler {
      type: "constant"
    }
  }
}
layer {
  name: "relu1"
  type: "ReLU"
  bottom: "ip1"
  top: "ip1"
}
layer {
  name: "ip2"
  type: "InnerProduct"
  bottom: "ip1"
  top: "ip2"
  param {
    lr_mult: 1
  }
  param {
    lr_mult: 2
  }
  inner_product_param {
    num_output: 10
    weight_filler {
      type: "gaussian"
      std: 0.01
    }
    bias_filler {
      type: "constant"
    }
  }
}
layer {
  name: "relu2"
  type: "ReLU"
  bottom: "ip2"
  top: "ip2"
}
layer {
  name: "ip3"
  type: "InnerProduct"
  bottom: "ip2"
  top: "ip3"
  param {
    lr_mult: 1
  }
  param {
    lr_mult: 2
  }
  inner_product_param {
    num_output: 40
    weight_filler {
      type: "gaussian"
      std: 0.01
    }
    bias_filler {
      type: "constant"
    }
  }
}
layer {
  name: "relu3"
  type: "ReLU"
  bottom: "ip3"
  top: "ip3"
}
layer {
  name: "ip4"
  type: "InnerProduct"
  bottom: "ip3"
  top: "ip4"
  param {
    lr_mult: 1
  }
  param {
    lr_mult: 2
  }
  inner_product_param {
    num_output: 10
    weight_filler {
      type: "gaussian"
      std: 0.01
    }
    bias_filler {
      type: "constant"
    }
  }
}
layer {
  name: "accuracy"
  type: "Accuracy"
  bottom: "ip4"
  bottom: "label"
  top: "accuracy"
  include {
    phase: TEST
  }
}
layer {
  name: "loss"
  type: "SoftmaxWithLoss"
  bottom: "ip4"
  bottom: "label"
  top: "loss"
}
I0430 20:31:25.805852 28843 layer_factory.hpp:77] Creating layer cifar
I0430 20:31:25.805897 28843 db_lmdb.cpp:35] Opened lmdb examples/cifar10/cifar10_test_lmdb
I0430 20:31:25.805908 28843 net.cpp:86] Creating Layer cifar
I0430 20:31:25.805912 28843 net.cpp:382] cifar -> data
I0430 20:31:25.805919 28843 net.cpp:382] cifar -> label
I0430 20:31:25.805925 28843 data_transformer.cpp:25] Loading mean file from: examples/cifar10/mean.binaryproto
I0430 20:31:25.806056 28843 data_layer.cpp:45] output data size: 1000,3,32,32
I0430 20:31:25.827734 28843 net.cpp:124] Setting up cifar
I0430 20:31:25.827760 28843 net.cpp:131] Top shape: 1000 3 32 32 (3072000)
I0430 20:31:25.827766 28843 net.cpp:131] Top shape: 1000 (1000)
I0430 20:31:25.827769 28843 net.cpp:139] Memory required for data: 12292000
I0430 20:31:25.827790 28843 layer_factory.hpp:77] Creating layer label_cifar_1_split
I0430 20:31:25.827807 28843 net.cpp:86] Creating Layer label_cifar_1_split
I0430 20:31:25.827812 28843 net.cpp:408] label_cifar_1_split <- label
I0430 20:31:25.827832 28843 net.cpp:382] label_cifar_1_split -> label_cifar_1_split_0
I0430 20:31:25.827841 28843 net.cpp:382] label_cifar_1_split -> label_cifar_1_split_1
I0430 20:31:25.827911 28843 net.cpp:124] Setting up label_cifar_1_split
I0430 20:31:25.827919 28843 net.cpp:131] Top shape: 1000 (1000)
I0430 20:31:25.827922 28843 net.cpp:131] Top shape: 1000 (1000)
I0430 20:31:25.827924 28843 net.cpp:139] Memory required for data: 12300000
I0430 20:31:25.827927 28843 layer_factory.hpp:77] Creating layer ip1
I0430 20:31:25.827936 28843 net.cpp:86] Creating Layer ip1
I0430 20:31:25.827939 28843 net.cpp:408] ip1 <- data
I0430 20:31:25.827944 28843 net.cpp:382] ip1 -> ip1
I0430 20:31:25.841948 28843 net.cpp:124] Setting up ip1
I0430 20:31:25.841961 28843 net.cpp:131] Top shape: 1000 160 (160000)
I0430 20:31:25.841965 28843 net.cpp:139] Memory required for data: 12940000
I0430 20:31:25.842005 28843 layer_factory.hpp:77] Creating layer relu1
I0430 20:31:25.842013 28843 net.cpp:86] Creating Layer relu1
I0430 20:31:25.842017 28843 net.cpp:408] relu1 <- ip1
I0430 20:31:25.842021 28843 net.cpp:369] relu1 -> ip1 (in-place)
I0430 20:31:25.842813 28843 net.cpp:124] Setting up relu1
I0430 20:31:25.842825 28843 net.cpp:131] Top shape: 1000 160 (160000)
I0430 20:31:25.842829 28843 net.cpp:139] Memory required for data: 13580000
I0430 20:31:25.842833 28843 layer_factory.hpp:77] Creating layer ip2
I0430 20:31:25.842855 28843 net.cpp:86] Creating Layer ip2
I0430 20:31:25.842859 28843 net.cpp:408] ip2 <- ip1
I0430 20:31:25.842865 28843 net.cpp:382] ip2 -> ip2
I0430 20:31:25.843009 28843 net.cpp:124] Setting up ip2
I0430 20:31:25.843019 28843 net.cpp:131] Top shape: 1000 10 (10000)
I0430 20:31:25.843021 28843 net.cpp:139] Memory required for data: 13620000
I0430 20:31:25.843029 28843 layer_factory.hpp:77] Creating layer relu2
I0430 20:31:25.843034 28843 net.cpp:86] Creating Layer relu2
I0430 20:31:25.843046 28843 net.cpp:408] relu2 <- ip2
I0430 20:31:25.843050 28843 net.cpp:369] relu2 -> ip2 (in-place)
I0430 20:31:25.843204 28843 net.cpp:124] Setting up relu2
I0430 20:31:25.843212 28843 net.cpp:131] Top shape: 1000 10 (10000)
I0430 20:31:25.843215 28843 net.cpp:139] Memory required for data: 13660000
I0430 20:31:25.843219 28843 layer_factory.hpp:77] Creating layer ip3
I0430 20:31:25.843225 28843 net.cpp:86] Creating Layer ip3
I0430 20:31:25.843228 28843 net.cpp:408] ip3 <- ip2
I0430 20:31:25.843235 28843 net.cpp:382] ip3 -> ip3
I0430 20:31:25.843348 28843 net.cpp:124] Setting up ip3
I0430 20:31:25.843356 28843 net.cpp:131] Top shape: 1000 40 (40000)
I0430 20:31:25.843359 28843 net.cpp:139] Memory required for data: 13820000
I0430 20:31:25.843381 28843 layer_factory.hpp:77] Creating layer relu3
I0430 20:31:25.843386 28843 net.cpp:86] Creating Layer relu3
I0430 20:31:25.843389 28843 net.cpp:408] relu3 <- ip3
I0430 20:31:25.843394 28843 net.cpp:369] relu3 -> ip3 (in-place)
I0430 20:31:25.843542 28843 net.cpp:124] Setting up relu3
I0430 20:31:25.843550 28843 net.cpp:131] Top shape: 1000 40 (40000)
I0430 20:31:25.843554 28843 net.cpp:139] Memory required for data: 13980000
I0430 20:31:25.843556 28843 layer_factory.hpp:77] Creating layer ip4
I0430 20:31:25.843564 28843 net.cpp:86] Creating Layer ip4
I0430 20:31:25.843566 28843 net.cpp:408] ip4 <- ip3
I0430 20:31:25.843572 28843 net.cpp:382] ip4 -> ip4
I0430 20:31:25.843683 28843 net.cpp:124] Setting up ip4
I0430 20:31:25.843688 28843 net.cpp:131] Top shape: 1000 10 (10000)
I0430 20:31:25.843706 28843 net.cpp:139] Memory required for data: 14020000
I0430 20:31:25.843711 28843 layer_factory.hpp:77] Creating layer ip4_ip4_0_split
I0430 20:31:25.843716 28843 net.cpp:86] Creating Layer ip4_ip4_0_split
I0430 20:31:25.843719 28843 net.cpp:408] ip4_ip4_0_split <- ip4
I0430 20:31:25.843724 28843 net.cpp:382] ip4_ip4_0_split -> ip4_ip4_0_split_0
I0430 20:31:25.843729 28843 net.cpp:382] ip4_ip4_0_split -> ip4_ip4_0_split_1
I0430 20:31:25.843758 28843 net.cpp:124] Setting up ip4_ip4_0_split
I0430 20:31:25.843767 28843 net.cpp:131] Top shape: 1000 10 (10000)
I0430 20:31:25.843771 28843 net.cpp:131] Top shape: 1000 10 (10000)
I0430 20:31:25.843773 28843 net.cpp:139] Memory required for data: 14100000
I0430 20:31:25.843776 28843 layer_factory.hpp:77] Creating layer accuracy
I0430 20:31:25.843782 28843 net.cpp:86] Creating Layer accuracy
I0430 20:31:25.843786 28843 net.cpp:408] accuracy <- ip4_ip4_0_split_0
I0430 20:31:25.843789 28843 net.cpp:408] accuracy <- label_cifar_1_split_0
I0430 20:31:25.843793 28843 net.cpp:382] accuracy -> accuracy
…
