…
I0430 19:14:19.794327 25511 net.cpp:296] The NetState phase (0) differed from the phase (1) specified by a rule in layer cifar
I0430 19:14:19.794344 25511 net.cpp:296] The NetState phase (0) differed from the phase (1) specified by a rule in layer accuracy
I0430 19:14:19.794431 25511 net.cpp:53] Initializing net from parameters: 
name: "CIFAR"
state {
  phase: TRAIN
  level: 0
  stage: ""
}
layer {
  name: "cifar"
  type: "Data"
  top: "data"
  top: "label"
  include {
    phase: TRAIN
  }
  transform_param {
    mean_file: "examples/cifar10/mean.binaryproto"
  }
  data_param {
    source: "examples/cifar10/cifar10_train_lmdb"
    batch_size: 111
    backend: LMDB
  }
}
layer {
  name: "ip1"
  type: "InnerProduct"
  bottom: "data"
  top: "ip1"
  param {
    lr_mult: 1
  }
  param {
    lr_mult: 2
  }
  inner_product_param {
    num_output: 40
    weight_filler {
      type: "gaussian"
      std: 0.01
    }
    bias_filler {
      type: "constant"
    }
  }
}
layer {
  name: "relu1"
  type: "ReLU"
  bottom: "ip1"
  top: "ip1"
}
layer {
  name: "ip2"
  type: "InnerProduct"
  bottom: "ip1"
  top: "ip2"
  param {
    lr_mult: 1
  }
  param {
    lr_mult: 2
  }
  inner_product_param {
    num_output: 40
    weight_filler {
      type: "gaussian"
      std: 0.01
    }
    bias_filler {
      type: "constant"
    }
  }
}
layer {
  name: "relu2"
  type: "ReLU"
  bottom: "ip2"
  top: "ip2"
}
layer {
  name: "ip3"
  type: "InnerProduct"
  bottom: "ip2"
  top: "ip3"
  param {
    lr_mult: 1
  }
  param {
    lr_mult: 2
  }
  inner_product_param {
    num_output: 20
    weight_filler {
      type: "gaussian"
      std: 0.01
    }
    bias_filler {
      type: "constant"
    }
  }
}
layer {
  name: "relu3"
  type: "ReLU"
  bottom: "ip3"
  top: "ip3"
}
layer {
  name: "ip4"
  type: "InnerProduct"
  bottom: "ip3"
  top: "ip4"
  param {
    lr_mult: 1
  }
  param {
    lr_mult: 2
  }
  inner_product_param {
    num_output: 10
    weight_filler {
      type: "gaussian"
      std: 0.01
    }
    bias_filler {
      type: "constant"
    }
  }
}
layer {
  name: "loss"
  type: "SoftmaxWithLoss"
  bottom: "ip4"
  bottom: "label"
  top: "loss"
}
I0430 19:14:19.794502 25511 layer_factory.hpp:77] Creating layer cifar
I0430 19:14:19.794601 25511 db_lmdb.cpp:35] Opened lmdb examples/cifar10/cifar10_train_lmdb
I0430 19:14:19.794630 25511 net.cpp:86] Creating Layer cifar
I0430 19:14:19.794638 25511 net.cpp:382] cifar -> data
I0430 19:14:19.794661 25511 net.cpp:382] cifar -> label
I0430 19:14:19.794673 25511 data_transformer.cpp:25] Loading mean file from: examples/cifar10/mean.binaryproto
I0430 19:14:19.796803 25511 data_layer.cpp:45] output data size: 111,3,32,32
I0430 19:14:19.804930 25511 net.cpp:124] Setting up cifar
I0430 19:14:19.804950 25511 net.cpp:131] Top shape: 111 3 32 32 (340992)
I0430 19:14:19.804958 25511 net.cpp:131] Top shape: 111 (111)
I0430 19:14:19.804962 25511 net.cpp:139] Memory required for data: 1364412
I0430 19:14:19.804970 25511 layer_factory.hpp:77] Creating layer ip1
I0430 19:14:19.804982 25511 net.cpp:86] Creating Layer ip1
I0430 19:14:19.804988 25511 net.cpp:408] ip1 <- data
I0430 19:14:19.805001 25511 net.cpp:382] ip1 -> ip1
I0430 19:14:19.809214 25511 net.cpp:124] Setting up ip1
I0430 19:14:19.809226 25511 net.cpp:131] Top shape: 111 40 (4440)
I0430 19:14:19.809231 25511 net.cpp:139] Memory required for data: 1382172
I0430 19:14:19.809244 25511 layer_factory.hpp:77] Creating layer relu1
I0430 19:14:19.809252 25511 net.cpp:86] Creating Layer relu1
I0430 19:14:19.809273 25511 net.cpp:408] relu1 <- ip1
I0430 19:14:19.809278 25511 net.cpp:369] relu1 -> ip1 (in-place)
I0430 19:14:20.095844 25511 net.cpp:124] Setting up relu1
I0430 19:14:20.095875 25511 net.cpp:131] Top shape: 111 40 (4440)
I0430 19:14:20.095880 25511 net.cpp:139] Memory required for data: 1399932
I0430 19:14:20.095886 25511 layer_factory.hpp:77] Creating layer ip2
I0430 19:14:20.095901 25511 net.cpp:86] Creating Layer ip2
I0430 19:14:20.095907 25511 net.cpp:408] ip2 <- ip1
I0430 19:14:20.095916 25511 net.cpp:382] ip2 -> ip2
I0430 19:14:20.096110 25511 net.cpp:124] Setting up ip2
I0430 19:14:20.096120 25511 net.cpp:131] Top shape: 111 40 (4440)
I0430 19:14:20.096125 25511 net.cpp:139] Memory required for data: 1417692
I0430 19:14:20.096137 25511 layer_factory.hpp:77] Creating layer relu2
I0430 19:14:20.096145 25511 net.cpp:86] Creating Layer relu2
I0430 19:14:20.096149 25511 net.cpp:408] relu2 <- ip2
I0430 19:14:20.096155 25511 net.cpp:369] relu2 -> ip2 (in-place)
I0430 19:14:20.097056 25511 net.cpp:124] Setting up relu2
I0430 19:14:20.097071 25511 net.cpp:131] Top shape: 111 40 (4440)
I0430 19:14:20.097076 25511 net.cpp:139] Memory required for data: 1435452
I0430 19:14:20.097081 25511 layer_factory.hpp:77] Creating layer ip3
I0430 19:14:20.097090 25511 net.cpp:86] Creating Layer ip3
I0430 19:14:20.097095 25511 net.cpp:408] ip3 <- ip2
I0430 19:14:20.097101 25511 net.cpp:382] ip3 -> ip3
I0430 19:14:20.098253 25511 net.cpp:124] Setting up ip3
I0430 19:14:20.098269 25511 net.cpp:131] Top shape: 111 20 (2220)
I0430 19:14:20.098273 25511 net.cpp:139] Memory required for data: 1444332
I0430 19:14:20.098284 25511 layer_factory.hpp:77] Creating layer relu3
I0430 19:14:20.098290 25511 net.cpp:86] Creating Layer relu3
I0430 19:14:20.098295 25511 net.cpp:408] relu3 <- ip3
I0430 19:14:20.098301 25511 net.cpp:369] relu3 -> ip3 (in-place)
I0430 19:14:20.098505 25511 net.cpp:124] Setting up relu3
I0430 19:14:20.098517 25511 net.cpp:131] Top shape: 111 20 (2220)
I0430 19:14:20.098521 25511 net.cpp:139] Memory required for data: 1453212
I0430 19:14:20.098526 25511 layer_factory.hpp:77] Creating layer ip4
I0430 19:14:20.098534 25511 net.cpp:86] Creating Layer ip4
I0430 19:14:20.098539 25511 net.cpp:408] ip4 <- ip3
I0430 19:14:20.098544 25511 net.cpp:382] ip4 -> ip4
I0430 19:14:20.098671 25511 net.cpp:124] Setting up ip4
I0430 19:14:20.098680 25511 net.cpp:131] Top shape: 111 10 (1110)
I0430 19:14:20.098685 25511 net.cpp:139] Memory required for data: 1457652
I0430 19:14:20.098690 25511 layer_factory.hpp:77] Creating layer loss
I0430 19:14:20.098700 25511 net.cpp:86] Creating Layer loss
I0430 19:14:20.098703 25511 net.cpp:408] loss <- ip4
I0430 19:14:20.098708 25511 net.cpp:408] loss <- label
I0430 19:14:20.098716 25511 net.cpp:382] loss -> loss
I0430 19:14:20.098737 25511 layer_factory.hpp:77] Creating layer loss
…
I0430 19:14:20.099433 25511 solver.cpp:173] Creating test net (#0) specified by net file: ECE595/cifar/train_test/var_everything/cifar_train_test_91.prototxt
I0430 19:14:20.099478 25511 net.cpp:296] The NetState phase (1) differed from the phase (0) specified by a rule in layer cifar
I0430 19:14:20.099572 25511 net.cpp:53] Initializing net from parameters: 
name: "CIFAR"
state {
  phase: TEST
}
layer {
  name: "cifar"
  type: "Data"
  top: "data"
  top: "label"
  include {
    phase: TEST
  }
  transform_param {
    mean_file: "examples/cifar10/mean.binaryproto"
  }
  data_param {
    source: "examples/cifar10/cifar10_test_lmdb"
    batch_size: 1000
    backend: LMDB
  }
}
layer {
  name: "ip1"
  type: "InnerProduct"
  bottom: "data"
  top: "ip1"
  param {
    lr_mult: 1
  }
  param {
    lr_mult: 2
  }
  inner_product_param {
    num_output: 40
    weight_filler {
      type: "gaussian"
      std: 0.01
    }
    bias_filler {
      type: "constant"
    }
  }
}
layer {
  name: "relu1"
  type: "ReLU"
  bottom: "ip1"
  top: "ip1"
}
layer {
  name: "ip2"
  type: "InnerProduct"
  bottom: "ip1"
  top: "ip2"
  param {
    lr_mult: 1
  }
  param {
    lr_mult: 2
  }
  inner_product_param {
    num_output: 40
    weight_filler {
      type: "gaussian"
      std: 0.01
    }
    bias_filler {
      type: "constant"
    }
  }
}
layer {
  name: "relu2"
  type: "ReLU"
  bottom: "ip2"
  top: "ip2"
}
layer {
  name: "ip3"
  type: "InnerProduct"
  bottom: "ip2"
  top: "ip3"
  param {
    lr_mult: 1
  }
  param {
    lr_mult: 2
  }
  inner_product_param {
    num_output: 20
    weight_filler {
      type: "gaussian"
      std: 0.01
    }
    bias_filler {
      type: "constant"
    }
  }
}
layer {
  name: "relu3"
  type: "ReLU"
  bottom: "ip3"
  top: "ip3"
}
layer {
  name: "ip4"
  type: "InnerProduct"
  bottom: "ip3"
  top: "ip4"
  param {
    lr_mult: 1
  }
  param {
    lr_mult: 2
  }
  inner_product_param {
    num_output: 10
    weight_filler {
      type: "gaussian"
      std: 0.01
    }
    bias_filler {
      type: "constant"
    }
  }
}
layer {
  name: "accuracy"
  type: "Accuracy"
  bottom: "ip4"
  bottom: "label"
  top: "accuracy"
  include {
    phase: TEST
  }
}
layer {
  name: "loss"
  type: "SoftmaxWithLoss"
  bottom: "ip4"
  bottom: "label"
  top: "loss"
}
I0430 19:14:20.099650 25511 layer_factory.hpp:77] Creating layer cifar
I0430 19:14:20.099704 25511 db_lmdb.cpp:35] Opened lmdb examples/cifar10/cifar10_test_lmdb
I0430 19:14:20.099720 25511 net.cpp:86] Creating Layer cifar
I0430 19:14:20.099727 25511 net.cpp:382] cifar -> data
I0430 19:14:20.099737 25511 net.cpp:382] cifar -> label
I0430 19:14:20.099745 25511 data_transformer.cpp:25] Loading mean file from: examples/cifar10/mean.binaryproto
I0430 19:14:20.099926 25511 data_layer.cpp:45] output data size: 1000,3,32,32
I0430 19:14:20.125644 25511 net.cpp:124] Setting up cifar
I0430 19:14:20.125677 25511 net.cpp:131] Top shape: 1000 3 32 32 (3072000)
I0430 19:14:20.125685 25511 net.cpp:131] Top shape: 1000 (1000)
I0430 19:14:20.125689 25511 net.cpp:139] Memory required for data: 12292000
I0430 19:14:20.125696 25511 layer_factory.hpp:77] Creating layer label_cifar_1_split
I0430 19:14:20.125715 25511 net.cpp:86] Creating Layer label_cifar_1_split
I0430 19:14:20.125720 25511 net.cpp:408] label_cifar_1_split <- label
I0430 19:14:20.125727 25511 net.cpp:382] label_cifar_1_split -> label_cifar_1_split_0
I0430 19:14:20.125738 25511 net.cpp:382] label_cifar_1_split -> label_cifar_1_split_1
I0430 19:14:20.125864 25511 net.cpp:124] Setting up label_cifar_1_split
I0430 19:14:20.125874 25511 net.cpp:131] Top shape: 1000 (1000)
I0430 19:14:20.125879 25511 net.cpp:131] Top shape: 1000 (1000)
I0430 19:14:20.125882 25511 net.cpp:139] Memory required for data: 12300000
I0430 19:14:20.125886 25511 layer_factory.hpp:77] Creating layer ip1
I0430 19:14:20.125898 25511 net.cpp:86] Creating Layer ip1
I0430 19:14:20.125902 25511 net.cpp:408] ip1 <- data
I0430 19:14:20.125908 25511 net.cpp:382] ip1 -> ip1
I0430 19:14:20.130128 25511 net.cpp:124] Setting up ip1
I0430 19:14:20.130141 25511 net.cpp:131] Top shape: 1000 40 (40000)
I0430 19:14:20.130146 25511 net.cpp:139] Memory required for data: 12460000
I0430 19:14:20.130174 25511 layer_factory.hpp:77] Creating layer relu1
I0430 19:14:20.130183 25511 net.cpp:86] Creating Layer relu1
I0430 19:14:20.130188 25511 net.cpp:408] relu1 <- ip1
I0430 19:14:20.130193 25511 net.cpp:369] relu1 -> ip1 (in-place)
I0430 19:14:20.131124 25511 net.cpp:124] Setting up relu1
I0430 19:14:20.131140 25511 net.cpp:131] Top shape: 1000 40 (40000)
I0430 19:14:20.131145 25511 net.cpp:139] Memory required for data: 12620000
I0430 19:14:20.131150 25511 layer_factory.hpp:77] Creating layer ip2
I0430 19:14:20.131161 25511 net.cpp:86] Creating Layer ip2
I0430 19:14:20.131166 25511 net.cpp:408] ip2 <- ip1
I0430 19:14:20.131175 25511 net.cpp:382] ip2 -> ip2
I0430 19:14:20.131353 25511 net.cpp:124] Setting up ip2
I0430 19:14:20.131363 25511 net.cpp:131] Top shape: 1000 40 (40000)
I0430 19:14:20.131366 25511 net.cpp:139] Memory required for data: 12780000
I0430 19:14:20.131376 25511 layer_factory.hpp:77] Creating layer relu2
I0430 19:14:20.131382 25511 net.cpp:86] Creating Layer relu2
I0430 19:14:20.131387 25511 net.cpp:408] relu2 <- ip2
I0430 19:14:20.131393 25511 net.cpp:369] relu2 -> ip2 (in-place)
I0430 19:14:20.131599 25511 net.cpp:124] Setting up relu2
I0430 19:14:20.131610 25511 net.cpp:131] Top shape: 1000 40 (40000)
I0430 19:14:20.131614 25511 net.cpp:139] Memory required for data: 12940000
I0430 19:14:20.131618 25511 layer_factory.hpp:77] Creating layer ip3
I0430 19:14:20.131628 25511 net.cpp:86] Creating Layer ip3
I0430 19:14:20.131633 25511 net.cpp:408] ip3 <- ip2
I0430 19:14:20.131639 25511 net.cpp:382] ip3 -> ip3
I0430 19:14:20.131789 25511 net.cpp:124] Setting up ip3
I0430 19:14:20.131798 25511 net.cpp:131] Top shape: 1000 20 (20000)
I0430 19:14:20.131803 25511 net.cpp:139] Memory required for data: 13020000
I0430 19:14:20.131811 25511 layer_factory.hpp:77] Creating layer relu3
I0430 19:14:20.131819 25511 net.cpp:86] Creating Layer relu3
I0430 19:14:20.131824 25511 net.cpp:408] relu3 <- ip3
I0430 19:14:20.131829 25511 net.cpp:369] relu3 -> ip3 (in-place)
I0430 19:14:20.132017 25511 net.cpp:124] Setting up relu3
I0430 19:14:20.132027 25511 net.cpp:131] Top shape: 1000 20 (20000)
I0430 19:14:20.132031 25511 net.cpp:139] Memory required for data: 13100000
I0430 19:14:20.132035 25511 layer_factory.hpp:77] Creating layer ip4
I0430 19:14:20.132045 25511 net.cpp:86] Creating Layer ip4
I0430 19:14:20.132061 25511 net.cpp:408] ip4 <- ip3
I0430 19:14:20.132067 25511 net.cpp:382] ip4 -> ip4
I0430 19:14:20.132203 25511 net.cpp:124] Setting up ip4
I0430 19:14:20.132212 25511 net.cpp:131] Top shape: 1000 10 (10000)
I0430 19:14:20.132215 25511 net.cpp:139] Memory required for data: 13140000
I0430 19:14:20.132222 25511 layer_factory.hpp:77] Creating layer ip4_ip4_0_split
I0430 19:14:20.132228 25511 net.cpp:86] Creating Layer ip4_ip4_0_split
I0430 19:14:20.132232 25511 net.cpp:408] ip4_ip4_0_split <- ip4
I0430 19:14:20.132237 25511 net.cpp:382] ip4_ip4_0_split -> ip4_ip4_0_split_0
I0430 19:14:20.132246 25511 net.cpp:382] ip4_ip4_0_split -> ip4_ip4_0_split_1
I0430 19:14:20.132285 25511 net.cpp:124] Setting up ip4_ip4_0_split
I0430 19:14:20.132292 25511 net.cpp:131] Top shape: 1000 10 (10000)
I0430 19:14:20.132297 25511 net.cpp:131] Top shape: 1000 10 (10000)
I0430 19:14:20.132299 25511 net.cpp:139] Memory required for data: 13220000
I0430 19:14:20.132303 25511 layer_factory.hpp:77] Creating layer accuracy
I0430 19:14:20.132310 25511 net.cpp:86] Creating Layer accuracy
I0430 19:14:20.132314 25511 net.cpp:408] accuracy <- ip4_ip4_0_split_0
I0430 19:14:20.132319 25511 net.cpp:408] accuracy <- label_cifar_1_split_0
I0430 19:14:20.132325 25511 net.cpp:382] accuracy -> accuracy
…
