…
I0501 08:45:45.527604 11880 net.cpp:296] The NetState phase (0) differed from the phase (1) specified by a rule in layer cifar
I0501 08:45:45.527631 11880 net.cpp:296] The NetState phase (0) differed from the phase (1) specified by a rule in layer accuracy
I0501 08:45:45.527746 11880 net.cpp:53] Initializing net from parameters: 
name: "CIFAR"
state {
  phase: TRAIN
  level: 0
  stage: ""
}
layer {
  name: "cifar"
  type: "Data"
  top: "data"
  top: "label"
  include {
    phase: TRAIN
  }
  transform_param {
    mean_file: "examples/cifar10/mean.binaryproto"
  }
  data_param {
    source: "examples/cifar10/cifar10_train_lmdb"
    batch_size: 111
    backend: LMDB
  }
}
layer {
  name: "conv0"
  type: "Convolution"
  bottom: "data"
  top: "conv0"
  param {
    lr_mult: 1
  }
  param {
    lr_mult: 2
  }
  convolution_param {
    num_output: 16
    pad: 2
    kernel_size: 3
    stride: 1
    weight_filler {
      type: "gaussian"
      std: 0.01
    }
    bias_filler {
      type: "constant"
    }
  }
}
layer {
  name: "Sigmoid0"
  type: "Sigmoid"
  bottom: "conv0"
  top: "Sigmoid0"
}
layer {
  name: "pool0"
  type: "Pooling"
  bottom: "Sigmoid0"
  top: "pool0"
  pooling_param {
    pool: AVE
    kernel_size: 3
    stride: 2
  }
}
layer {
  name: "ip1"
  type: "InnerProduct"
  bottom: "pool0"
  top: "ip1"
  param {
    lr_mult: 1
  }
  param {
    lr_mult: 2
  }
  inner_product_param {
    num_output: 20
    weight_filler {
      type: "gaussian"
      std: 0.01
    }
    bias_filler {
      type: "constant"
    }
  }
}
layer {
  name: "relu1"
  type: "ReLU"
  bottom: "ip1"
  top: "ip1"
}
layer {
  name: "ip2"
  type: "InnerProduct"
  bottom: "ip1"
  top: "ip2"
  param {
    lr_mult: 1
  }
  param {
    lr_mult: 2
  }
  inner_product_param {
    num_output: 10
    weight_filler {
      type: "gaussian"
      std: 0.01
    }
    bias_filler {
      type: "constant"
    }
  }
}
layer {
  name: "relu2"
  type: "ReLU"
  bottom: "ip2"
  top: "ip2"
}
layer {
  name: "ip3"
  type: "InnerProduct"
  bottom: "ip2"
  top: "ip3"
  param {
    lr_mult: 1
  }
  param {
    lr_mult: 2
  }
  inner_product_param {
    num_output: 10
    weight_filler {
      type: "gaussian"
      std: 0.01
    }
    bias_filler {
      type: "constant"
    }
  }
}
layer {
  name: "relu3"
  type: "ReLU"
  bottom: "ip3"
  top: "ip3"
}
layer {
  name: "ip4"
  type: "InnerProduct"
  bottom: "ip3"
  top: "ip4"
  param {
    lr_mult: 1
  }
  param {
    lr_mult: 2
  }
  inner_product_param {
    num_output: 10
    weight_filler {
      type: "gaussian"
      std: 0.01
    }
    bias_filler {
      type: "constant"
    }
  }
}
layer {
  name: "loss"
  type: "SoftmaxWithLoss"
  bottom: "ip4"
  bottom: "label"
  top: "loss"
}
I0501 08:45:45.527812 11880 layer_factory.hpp:77] Creating layer cifar
I0501 08:45:45.527894 11880 db_lmdb.cpp:35] Opened lmdb examples/cifar10/cifar10_train_lmdb
I0501 08:45:45.527916 11880 net.cpp:86] Creating Layer cifar
I0501 08:45:45.527923 11880 net.cpp:382] cifar -> data
I0501 08:45:45.527942 11880 net.cpp:382] cifar -> label
I0501 08:45:45.527951 11880 data_transformer.cpp:25] Loading mean file from: examples/cifar10/mean.binaryproto
I0501 08:45:45.529810 11880 data_layer.cpp:45] output data size: 111,3,32,32
I0501 08:45:45.536469 11880 net.cpp:124] Setting up cifar
I0501 08:45:45.536501 11880 net.cpp:131] Top shape: 111 3 32 32 (340992)
I0501 08:45:45.536506 11880 net.cpp:131] Top shape: 111 (111)
I0501 08:45:45.536509 11880 net.cpp:139] Memory required for data: 1364412
I0501 08:45:45.536526 11880 layer_factory.hpp:77] Creating layer conv0
I0501 08:45:45.536559 11880 net.cpp:86] Creating Layer conv0
I0501 08:45:45.536564 11880 net.cpp:408] conv0 <- data
I0501 08:45:45.536573 11880 net.cpp:382] conv0 -> conv0
I0501 08:45:45.778906 11880 net.cpp:124] Setting up conv0
I0501 08:45:45.778949 11880 net.cpp:131] Top shape: 111 16 34 34 (2053056)
I0501 08:45:45.778954 11880 net.cpp:139] Memory required for data: 9576636
I0501 08:45:45.778969 11880 layer_factory.hpp:77] Creating layer Sigmoid0
I0501 08:45:45.778981 11880 net.cpp:86] Creating Layer Sigmoid0
I0501 08:45:45.778985 11880 net.cpp:408] Sigmoid0 <- conv0
I0501 08:45:45.779006 11880 net.cpp:382] Sigmoid0 -> Sigmoid0
I0501 08:45:45.779182 11880 net.cpp:124] Setting up Sigmoid0
I0501 08:45:45.779191 11880 net.cpp:131] Top shape: 111 16 34 34 (2053056)
I0501 08:45:45.779196 11880 net.cpp:139] Memory required for data: 17788860
I0501 08:45:45.779198 11880 layer_factory.hpp:77] Creating layer pool0
I0501 08:45:45.779204 11880 net.cpp:86] Creating Layer pool0
I0501 08:45:45.779208 11880 net.cpp:408] pool0 <- Sigmoid0
I0501 08:45:45.779212 11880 net.cpp:382] pool0 -> pool0
I0501 08:45:45.779945 11880 net.cpp:124] Setting up pool0
I0501 08:45:45.779973 11880 net.cpp:131] Top shape: 111 16 17 17 (513264)
I0501 08:45:45.779978 11880 net.cpp:139] Memory required for data: 19841916
I0501 08:45:45.779981 11880 layer_factory.hpp:77] Creating layer ip1
I0501 08:45:45.779990 11880 net.cpp:86] Creating Layer ip1
I0501 08:45:45.779994 11880 net.cpp:408] ip1 <- pool0
I0501 08:45:45.779999 11880 net.cpp:382] ip1 -> ip1
I0501 08:45:45.782691 11880 net.cpp:124] Setting up ip1
I0501 08:45:45.782699 11880 net.cpp:131] Top shape: 111 20 (2220)
I0501 08:45:45.782718 11880 net.cpp:139] Memory required for data: 19850796
I0501 08:45:45.782726 11880 layer_factory.hpp:77] Creating layer relu1
I0501 08:45:45.782732 11880 net.cpp:86] Creating Layer relu1
I0501 08:45:45.782734 11880 net.cpp:408] relu1 <- ip1
I0501 08:45:45.782738 11880 net.cpp:369] relu1 -> ip1 (in-place)
I0501 08:45:45.782923 11880 net.cpp:124] Setting up relu1
I0501 08:45:45.782932 11880 net.cpp:131] Top shape: 111 20 (2220)
I0501 08:45:45.782935 11880 net.cpp:139] Memory required for data: 19859676
I0501 08:45:45.782938 11880 layer_factory.hpp:77] Creating layer ip2
I0501 08:45:45.782945 11880 net.cpp:86] Creating Layer ip2
I0501 08:45:45.782948 11880 net.cpp:408] ip2 <- ip1
I0501 08:45:45.782953 11880 net.cpp:382] ip2 -> ip2
I0501 08:45:45.783049 11880 net.cpp:124] Setting up ip2
I0501 08:45:45.783056 11880 net.cpp:131] Top shape: 111 10 (1110)
I0501 08:45:45.783061 11880 net.cpp:139] Memory required for data: 19864116
I0501 08:45:45.783067 11880 layer_factory.hpp:77] Creating layer relu2
I0501 08:45:45.783072 11880 net.cpp:86] Creating Layer relu2
I0501 08:45:45.783076 11880 net.cpp:408] relu2 <- ip2
I0501 08:45:45.783079 11880 net.cpp:369] relu2 -> ip2 (in-place)
I0501 08:45:45.783239 11880 net.cpp:124] Setting up relu2
I0501 08:45:45.783247 11880 net.cpp:131] Top shape: 111 10 (1110)
I0501 08:45:45.783252 11880 net.cpp:139] Memory required for data: 19868556
I0501 08:45:45.783254 11880 layer_factory.hpp:77] Creating layer ip3
I0501 08:45:45.783262 11880 net.cpp:86] Creating Layer ip3
I0501 08:45:45.783264 11880 net.cpp:408] ip3 <- ip2
I0501 08:45:45.783269 11880 net.cpp:382] ip3 -> ip3
I0501 08:45:45.783359 11880 net.cpp:124] Setting up ip3
I0501 08:45:45.783365 11880 net.cpp:131] Top shape: 111 10 (1110)
I0501 08:45:45.783368 11880 net.cpp:139] Memory required for data: 19872996
I0501 08:45:45.783375 11880 layer_factory.hpp:77] Creating layer relu3
I0501 08:45:45.783378 11880 net.cpp:86] Creating Layer relu3
I0501 08:45:45.783381 11880 net.cpp:408] relu3 <- ip3
I0501 08:45:45.783385 11880 net.cpp:369] relu3 -> ip3 (in-place)
I0501 08:45:45.783524 11880 net.cpp:124] Setting up relu3
I0501 08:45:45.783531 11880 net.cpp:131] Top shape: 111 10 (1110)
I0501 08:45:45.783535 11880 net.cpp:139] Memory required for data: 19877436
I0501 08:45:45.783537 11880 layer_factory.hpp:77] Creating layer ip4
I0501 08:45:45.783558 11880 net.cpp:86] Creating Layer ip4
I0501 08:45:45.783561 11880 net.cpp:408] ip4 <- ip3
I0501 08:45:45.783566 11880 net.cpp:382] ip4 -> ip4
I0501 08:45:45.783658 11880 net.cpp:124] Setting up ip4
I0501 08:45:45.783664 11880 net.cpp:131] Top shape: 111 10 (1110)
I0501 08:45:45.783668 11880 net.cpp:139] Memory required for data: 19881876
I0501 08:45:45.783675 11880 layer_factory.hpp:77] Creating layer loss
I0501 08:45:45.783685 11880 net.cpp:86] Creating Layer loss
I0501 08:45:45.783689 11880 net.cpp:408] loss <- ip4
I0501 08:45:45.783692 11880 net.cpp:408] loss <- label
I0501 08:45:45.783697 11880 net.cpp:382] loss -> loss
I0501 08:45:45.783710 11880 layer_factory.hpp:77] Creating layer loss
…
I0501 08:45:45.785008 11880 solver.cpp:173] Creating test net (#0) specified by net file: ECE595/cifar/train_test/var_everything/cifar_train_test_520.prototxt
I0501 08:45:45.785069 11880 net.cpp:296] The NetState phase (1) differed from the phase (0) specified by a rule in layer cifar
I0501 08:45:45.785181 11880 net.cpp:53] Initializing net from parameters: 
name: "CIFAR"
state {
  phase: TEST
}
layer {
  name: "cifar"
  type: "Data"
  top: "data"
  top: "label"
  include {
    phase: TEST
  }
  transform_param {
    mean_file: "examples/cifar10/mean.binaryproto"
  }
  data_param {
    source: "examples/cifar10/cifar10_test_lmdb"
    batch_size: 1000
    backend: LMDB
  }
}
layer {
  name: "conv0"
  type: "Convolution"
  bottom: "data"
  top: "conv0"
  param {
    lr_mult: 1
  }
  param {
    lr_mult: 2
  }
  convolution_param {
    num_output: 16
    pad: 2
    kernel_size: 3
    stride: 1
    weight_filler {
      type: "gaussian"
      std: 0.01
    }
    bias_filler {
      type: "constant"
    }
  }
}
layer {
  name: "Sigmoid0"
  type: "Sigmoid"
  bottom: "conv0"
  top: "Sigmoid0"
}
layer {
  name: "pool0"
  type: "Pooling"
  bottom: "Sigmoid0"
  top: "pool0"
  pooling_param {
    pool: AVE
    kernel_size: 3
    stride: 2
  }
}
layer {
  name: "ip1"
  type: "InnerProduct"
  bottom: "pool0"
  top: "ip1"
  param {
    lr_mult: 1
  }
  param {
    lr_mult: 2
  }
  inner_product_param {
    num_output: 20
    weight_filler {
      type: "gaussian"
      std: 0.01
    }
    bias_filler {
      type: "constant"
    }
  }
}
layer {
  name: "relu1"
  type: "ReLU"
  bottom: "ip1"
  top: "ip1"
}
layer {
  name: "ip2"
  type: "InnerProduct"
  bottom: "ip1"
  top: "ip2"
  param {
    lr_mult: 1
  }
  param {
    lr_mult: 2
  }
  inner_product_param {
    num_output: 10
    weight_filler {
      type: "gaussian"
      std: 0.01
    }
    bias_filler {
      type: "constant"
    }
  }
}
layer {
  name: "relu2"
  type: "ReLU"
  bottom: "ip2"
  top: "ip2"
}
layer {
  name: "ip3"
  type: "InnerProduct"
  bottom: "ip2"
  top: "ip3"
  param {
    lr_mult: 1
  }
  param {
    lr_mult: 2
  }
  inner_product_param {
    num_output: 10
    weight_filler {
      type: "gaussian"
      std: 0.01
    }
    bias_filler {
      type: "constant"
    }
  }
}
layer {
  name: "relu3"
  type: "ReLU"
  bottom: "ip3"
  top: "ip3"
}
layer {
  name: "ip4"
  type: "InnerProduct"
  bottom: "ip3"
  top: "ip4"
  param {
    lr_mult: 1
  }
  param {
    lr_mult: 2
  }
  inner_product_param {
    num_output: 10
    weight_filler {
      type: "gaussian"
      std: 0.01
    }
    bias_filler {
      type: "constant"
    }
  }
}
layer {
  name: "accuracy"
  type: "Accuracy"
  bottom: "ip4"
  bottom: "label"
  top: "accuracy"
  include {
    phase: TEST
  }
}
layer {
  name: "loss"
  type: "SoftmaxWithLoss"
  bottom: "ip4"
  bottom: "label"
  top: "loss"
}
I0501 08:45:45.785260 11880 layer_factory.hpp:77] Creating layer cifar
I0501 08:45:45.785308 11880 db_lmdb.cpp:35] Opened lmdb examples/cifar10/cifar10_test_lmdb
I0501 08:45:45.785320 11880 net.cpp:86] Creating Layer cifar
I0501 08:45:45.785325 11880 net.cpp:382] cifar -> data
I0501 08:45:45.785347 11880 net.cpp:382] cifar -> label
I0501 08:45:45.785353 11880 data_transformer.cpp:25] Loading mean file from: examples/cifar10/mean.binaryproto
I0501 08:45:45.785490 11880 data_layer.cpp:45] output data size: 1000,3,32,32
I0501 08:45:45.808120 11880 net.cpp:124] Setting up cifar
I0501 08:45:45.808163 11880 net.cpp:131] Top shape: 1000 3 32 32 (3072000)
I0501 08:45:45.808169 11880 net.cpp:131] Top shape: 1000 (1000)
I0501 08:45:45.808173 11880 net.cpp:139] Memory required for data: 12292000
I0501 08:45:45.808179 11880 layer_factory.hpp:77] Creating layer label_cifar_1_split
I0501 08:45:45.808192 11880 net.cpp:86] Creating Layer label_cifar_1_split
I0501 08:45:45.808197 11880 net.cpp:408] label_cifar_1_split <- label
I0501 08:45:45.808202 11880 net.cpp:382] label_cifar_1_split -> label_cifar_1_split_0
I0501 08:45:45.808226 11880 net.cpp:382] label_cifar_1_split -> label_cifar_1_split_1
I0501 08:45:45.808320 11880 net.cpp:124] Setting up label_cifar_1_split
I0501 08:45:45.808328 11880 net.cpp:131] Top shape: 1000 (1000)
I0501 08:45:45.808333 11880 net.cpp:131] Top shape: 1000 (1000)
I0501 08:45:45.808336 11880 net.cpp:139] Memory required for data: 12300000
I0501 08:45:45.808339 11880 layer_factory.hpp:77] Creating layer conv0
I0501 08:45:45.808367 11880 net.cpp:86] Creating Layer conv0
I0501 08:45:45.808370 11880 net.cpp:408] conv0 <- data
I0501 08:45:45.808375 11880 net.cpp:382] conv0 -> conv0
I0501 08:45:45.809999 11880 net.cpp:124] Setting up conv0
I0501 08:45:45.810029 11880 net.cpp:131] Top shape: 1000 16 34 34 (18496000)
I0501 08:45:45.810034 11880 net.cpp:139] Memory required for data: 86284000
I0501 08:45:45.810042 11880 layer_factory.hpp:77] Creating layer Sigmoid0
I0501 08:45:45.810050 11880 net.cpp:86] Creating Layer Sigmoid0
I0501 08:45:45.810055 11880 net.cpp:408] Sigmoid0 <- conv0
I0501 08:45:45.810058 11880 net.cpp:382] Sigmoid0 -> Sigmoid0
I0501 08:45:45.810271 11880 net.cpp:124] Setting up Sigmoid0
I0501 08:45:45.810281 11880 net.cpp:131] Top shape: 1000 16 34 34 (18496000)
I0501 08:45:45.810284 11880 net.cpp:139] Memory required for data: 160268000
I0501 08:45:45.810287 11880 layer_factory.hpp:77] Creating layer pool0
I0501 08:45:45.810295 11880 net.cpp:86] Creating Layer pool0
I0501 08:45:45.810299 11880 net.cpp:408] pool0 <- Sigmoid0
I0501 08:45:45.810304 11880 net.cpp:382] pool0 -> pool0
I0501 08:45:45.810590 11880 net.cpp:124] Setting up pool0
I0501 08:45:45.810600 11880 net.cpp:131] Top shape: 1000 16 17 17 (4624000)
I0501 08:45:45.810603 11880 net.cpp:139] Memory required for data: 178764000
I0501 08:45:45.810607 11880 layer_factory.hpp:77] Creating layer ip1
I0501 08:45:45.810614 11880 net.cpp:86] Creating Layer ip1
I0501 08:45:45.810618 11880 net.cpp:408] ip1 <- pool0
I0501 08:45:45.810638 11880 net.cpp:382] ip1 -> ip1
I0501 08:45:45.814329 11880 net.cpp:124] Setting up ip1
I0501 08:45:45.814342 11880 net.cpp:131] Top shape: 1000 20 (20000)
I0501 08:45:45.814359 11880 net.cpp:139] Memory required for data: 178844000
I0501 08:45:45.814383 11880 layer_factory.hpp:77] Creating layer relu1
I0501 08:45:45.814388 11880 net.cpp:86] Creating Layer relu1
I0501 08:45:45.814393 11880 net.cpp:408] relu1 <- ip1
I0501 08:45:45.814414 11880 net.cpp:369] relu1 -> ip1 (in-place)
I0501 08:45:45.814584 11880 net.cpp:124] Setting up relu1
I0501 08:45:45.814594 11880 net.cpp:131] Top shape: 1000 20 (20000)
I0501 08:45:45.814597 11880 net.cpp:139] Memory required for data: 178924000
I0501 08:45:45.814600 11880 layer_factory.hpp:77] Creating layer ip2
I0501 08:45:45.814607 11880 net.cpp:86] Creating Layer ip2
I0501 08:45:45.814627 11880 net.cpp:408] ip2 <- ip1
I0501 08:45:45.814632 11880 net.cpp:382] ip2 -> ip2
I0501 08:45:45.814748 11880 net.cpp:124] Setting up ip2
I0501 08:45:45.814756 11880 net.cpp:131] Top shape: 1000 10 (10000)
I0501 08:45:45.814760 11880 net.cpp:139] Memory required for data: 178964000
I0501 08:45:45.814769 11880 layer_factory.hpp:77] Creating layer relu2
I0501 08:45:45.814774 11880 net.cpp:86] Creating Layer relu2
I0501 08:45:45.814777 11880 net.cpp:408] relu2 <- ip2
I0501 08:45:45.814781 11880 net.cpp:369] relu2 -> ip2 (in-place)
I0501 08:45:45.815592 11880 net.cpp:124] Setting up relu2
I0501 08:45:45.815604 11880 net.cpp:131] Top shape: 1000 10 (10000)
I0501 08:45:45.815608 11880 net.cpp:139] Memory required for data: 179004000
I0501 08:45:45.815611 11880 layer_factory.hpp:77] Creating layer ip3
I0501 08:45:45.815618 11880 net.cpp:86] Creating Layer ip3
I0501 08:45:45.815621 11880 net.cpp:408] ip3 <- ip2
I0501 08:45:45.815644 11880 net.cpp:382] ip3 -> ip3
I0501 08:45:45.815769 11880 net.cpp:124] Setting up ip3
I0501 08:45:45.815778 11880 net.cpp:131] Top shape: 1000 10 (10000)
I0501 08:45:45.815783 11880 net.cpp:139] Memory required for data: 179044000
I0501 08:45:45.815788 11880 layer_factory.hpp:77] Creating layer relu3
I0501 08:45:45.815793 11880 net.cpp:86] Creating Layer relu3
I0501 08:45:45.815796 11880 net.cpp:408] relu3 <- ip3
I0501 08:45:45.815801 11880 net.cpp:369] relu3 -> ip3 (in-place)
I0501 08:45:45.815971 11880 net.cpp:124] Setting up relu3
I0501 08:45:45.815981 11880 net.cpp:131] Top shape: 1000 10 (10000)
I0501 08:45:45.815984 11880 net.cpp:139] Memory required for data: 179084000
I0501 08:45:45.815989 11880 layer_factory.hpp:77] Creating layer ip4
I0501 08:45:45.815995 11880 net.cpp:86] Creating Layer ip4
I0501 08:45:45.815999 11880 net.cpp:408] ip4 <- ip3
I0501 08:45:45.816004 11880 net.cpp:382] ip4 -> ip4
I0501 08:45:45.816153 11880 net.cpp:124] Setting up ip4
I0501 08:45:45.816159 11880 net.cpp:131] Top shape: 1000 10 (10000)
I0501 08:45:45.816164 11880 net.cpp:139] Memory required for data: 179124000
I0501 08:45:45.816174 11880 layer_factory.hpp:77] Creating layer ip4_ip4_0_split
I0501 08:45:45.816179 11880 net.cpp:86] Creating Layer ip4_ip4_0_split
I0501 08:45:45.816182 11880 net.cpp:408] ip4_ip4_0_split <- ip4
I0501 08:45:45.816187 11880 net.cpp:382] ip4_ip4_0_split -> ip4_ip4_0_split_0
I0501 08:45:45.816193 11880 net.cpp:382] ip4_ip4_0_split -> ip4_ip4_0_split_1
I0501 08:45:45.816226 11880 net.cpp:124] Setting up ip4_ip4_0_split
I0501 08:45:45.816232 11880 net.cpp:131] Top shape: 1000 10 (10000)
I0501 08:45:45.816236 11880 net.cpp:131] Top shape: 1000 10 (10000)
I0501 08:45:45.816239 11880 net.cpp:139] Memory required for data: 179204000
I0501 08:45:45.816242 11880 layer_factory.hpp:77] Creating layer accuracy
I0501 08:45:45.816249 11880 net.cpp:86] Creating Layer accuracy
I0501 08:45:45.816253 11880 net.cpp:408] accuracy <- ip4_ip4_0_split_0
I0501 08:45:45.816257 11880 net.cpp:408] accuracy <- label_cifar_1_split_0
I0501 08:45:45.816262 11880 net.cpp:382] accuracy -> accuracy
…
