…
I0501 09:23:55.146807 14299 net.cpp:296] The NetState phase (0) differed from the phase (1) specified by a rule in layer cifar
I0501 09:23:55.146826 14299 net.cpp:296] The NetState phase (0) differed from the phase (1) specified by a rule in layer accuracy
I0501 09:23:55.146935 14299 net.cpp:53] Initializing net from parameters: 
name: "CIFAR"
state {
  phase: TRAIN
  level: 0
  stage: ""
}
layer {
  name: "cifar"
  type: "Data"
  top: "data"
  top: "label"
  include {
    phase: TRAIN
  }
  transform_param {
    mean_file: "examples/cifar10/mean.binaryproto"
  }
  data_param {
    source: "examples/cifar10/cifar10_train_lmdb"
    batch_size: 111
    backend: LMDB
  }
}
layer {
  name: "conv0"
  type: "Convolution"
  bottom: "data"
  top: "conv0"
  param {
    lr_mult: 1
  }
  param {
    lr_mult: 2
  }
  convolution_param {
    num_output: 16
    pad: 2
    kernel_size: 3
    stride: 1
    weight_filler {
      type: "gaussian"
      std: 0.01
    }
    bias_filler {
      type: "constant"
    }
  }
}
layer {
  name: "Sigmoid0"
  type: "Sigmoid"
  bottom: "conv0"
  top: "Sigmoid0"
}
layer {
  name: "pool0"
  type: "Pooling"
  bottom: "Sigmoid0"
  top: "pool0"
  pooling_param {
    pool: AVE
    kernel_size: 3
    stride: 2
  }
}
layer {
  name: "ip1"
  type: "InnerProduct"
  bottom: "pool0"
  top: "ip1"
  param {
    lr_mult: 1
  }
  param {
    lr_mult: 2
  }
  inner_product_param {
    num_output: 20
    weight_filler {
      type: "gaussian"
      std: 0.01
    }
    bias_filler {
      type: "constant"
    }
  }
}
layer {
  name: "relu1"
  type: "ReLU"
  bottom: "ip1"
  top: "ip1"
}
layer {
  name: "ip2"
  type: "InnerProduct"
  bottom: "ip1"
  top: "ip2"
  param {
    lr_mult: 1
  }
  param {
    lr_mult: 2
  }
  inner_product_param {
    num_output: 80
    weight_filler {
      type: "gaussian"
      std: 0.01
    }
    bias_filler {
      type: "constant"
    }
  }
}
layer {
  name: "relu2"
  type: "ReLU"
  bottom: "ip2"
  top: "ip2"
}
layer {
  name: "ip3"
  type: "InnerProduct"
  bottom: "ip2"
  top: "ip3"
  param {
    lr_mult: 1
  }
  param {
    lr_mult: 2
  }
  inner_product_param {
    num_output: 80
    weight_filler {
      type: "gaussian"
      std: 0.01
    }
    bias_filler {
      type: "constant"
    }
  }
}
layer {
  name: "relu3"
  type: "ReLU"
  bottom: "ip3"
  top: "ip3"
}
layer {
  name: "ip4"
  type: "InnerProduct"
  bottom: "ip3"
  top: "ip4"
  param {
    lr_mult: 1
  }
  param {
    lr_mult: 2
  }
  inner_product_param {
    num_output: 10
    weight_filler {
      type: "gaussian"
      std: 0.01
    }
    bias_filler {
      type: "constant"
    }
  }
}
layer {
  name: "loss"
  type: "SoftmaxWithLoss"
  bottom: "ip4"
  bottom: "label"
  top: "loss"
}
I0501 09:23:55.147014 14299 layer_factory.hpp:77] Creating layer cifar
I0501 09:23:55.147112 14299 db_lmdb.cpp:35] Opened lmdb examples/cifar10/cifar10_train_lmdb
I0501 09:23:55.147140 14299 net.cpp:86] Creating Layer cifar
I0501 09:23:55.147148 14299 net.cpp:382] cifar -> data
I0501 09:23:55.147171 14299 net.cpp:382] cifar -> label
I0501 09:23:55.147182 14299 data_transformer.cpp:25] Loading mean file from: examples/cifar10/mean.binaryproto
I0501 09:23:55.149358 14299 data_layer.cpp:45] output data size: 111,3,32,32
I0501 09:23:55.157327 14299 net.cpp:124] Setting up cifar
I0501 09:23:55.157346 14299 net.cpp:131] Top shape: 111 3 32 32 (340992)
I0501 09:23:55.157352 14299 net.cpp:131] Top shape: 111 (111)
I0501 09:23:55.157356 14299 net.cpp:139] Memory required for data: 1364412
I0501 09:23:55.157382 14299 layer_factory.hpp:77] Creating layer conv0
I0501 09:23:55.157402 14299 net.cpp:86] Creating Layer conv0
I0501 09:23:55.157407 14299 net.cpp:408] conv0 <- data
I0501 09:23:55.157420 14299 net.cpp:382] conv0 -> conv0
I0501 09:23:55.446674 14299 net.cpp:124] Setting up conv0
I0501 09:23:55.446702 14299 net.cpp:131] Top shape: 111 16 34 34 (2053056)
I0501 09:23:55.446705 14299 net.cpp:139] Memory required for data: 9576636
I0501 09:23:55.446720 14299 layer_factory.hpp:77] Creating layer Sigmoid0
I0501 09:23:55.446732 14299 net.cpp:86] Creating Layer Sigmoid0
I0501 09:23:55.446737 14299 net.cpp:408] Sigmoid0 <- conv0
I0501 09:23:55.446741 14299 net.cpp:382] Sigmoid0 -> Sigmoid0
I0501 09:23:55.446913 14299 net.cpp:124] Setting up Sigmoid0
I0501 09:23:55.446921 14299 net.cpp:131] Top shape: 111 16 34 34 (2053056)
I0501 09:23:55.446925 14299 net.cpp:139] Memory required for data: 17788860
I0501 09:23:55.446928 14299 layer_factory.hpp:77] Creating layer pool0
I0501 09:23:55.446935 14299 net.cpp:86] Creating Layer pool0
I0501 09:23:55.446938 14299 net.cpp:408] pool0 <- Sigmoid0
I0501 09:23:55.446943 14299 net.cpp:382] pool0 -> pool0
I0501 09:23:55.447670 14299 net.cpp:124] Setting up pool0
I0501 09:23:55.447684 14299 net.cpp:131] Top shape: 111 16 17 17 (513264)
I0501 09:23:55.447687 14299 net.cpp:139] Memory required for data: 19841916
I0501 09:23:55.447690 14299 layer_factory.hpp:77] Creating layer ip1
I0501 09:23:55.447700 14299 net.cpp:86] Creating Layer ip1
I0501 09:23:55.447703 14299 net.cpp:408] ip1 <- pool0
I0501 09:23:55.447708 14299 net.cpp:382] ip1 -> ip1
I0501 09:23:55.450304 14299 net.cpp:124] Setting up ip1
I0501 09:23:55.450314 14299 net.cpp:131] Top shape: 111 20 (2220)
I0501 09:23:55.450317 14299 net.cpp:139] Memory required for data: 19850796
I0501 09:23:55.450325 14299 layer_factory.hpp:77] Creating layer relu1
I0501 09:23:55.450330 14299 net.cpp:86] Creating Layer relu1
I0501 09:23:55.450333 14299 net.cpp:408] relu1 <- ip1
I0501 09:23:55.450338 14299 net.cpp:369] relu1 -> ip1 (in-place)
I0501 09:23:55.450487 14299 net.cpp:124] Setting up relu1
I0501 09:23:55.450495 14299 net.cpp:131] Top shape: 111 20 (2220)
I0501 09:23:55.450498 14299 net.cpp:139] Memory required for data: 19859676
I0501 09:23:55.450502 14299 layer_factory.hpp:77] Creating layer ip2
I0501 09:23:55.450508 14299 net.cpp:86] Creating Layer ip2
I0501 09:23:55.450511 14299 net.cpp:408] ip2 <- ip1
I0501 09:23:55.450516 14299 net.cpp:382] ip2 -> ip2
I0501 09:23:55.450654 14299 net.cpp:124] Setting up ip2
I0501 09:23:55.450661 14299 net.cpp:131] Top shape: 111 80 (8880)
I0501 09:23:55.450664 14299 net.cpp:139] Memory required for data: 19895196
I0501 09:23:55.450671 14299 layer_factory.hpp:77] Creating layer relu2
I0501 09:23:55.450676 14299 net.cpp:86] Creating Layer relu2
I0501 09:23:55.450680 14299 net.cpp:408] relu2 <- ip2
I0501 09:23:55.450683 14299 net.cpp:369] relu2 -> ip2 (in-place)
I0501 09:23:55.450824 14299 net.cpp:124] Setting up relu2
I0501 09:23:55.450832 14299 net.cpp:131] Top shape: 111 80 (8880)
I0501 09:23:55.450836 14299 net.cpp:139] Memory required for data: 19930716
I0501 09:23:55.450839 14299 layer_factory.hpp:77] Creating layer ip3
I0501 09:23:55.450846 14299 net.cpp:86] Creating Layer ip3
I0501 09:23:55.450850 14299 net.cpp:408] ip3 <- ip2
I0501 09:23:55.450853 14299 net.cpp:382] ip3 -> ip3
I0501 09:23:55.451990 14299 net.cpp:124] Setting up ip3
I0501 09:23:55.452003 14299 net.cpp:131] Top shape: 111 80 (8880)
I0501 09:23:55.452006 14299 net.cpp:139] Memory required for data: 19966236
I0501 09:23:55.452013 14299 layer_factory.hpp:77] Creating layer relu3
I0501 09:23:55.452018 14299 net.cpp:86] Creating Layer relu3
I0501 09:23:55.452023 14299 net.cpp:408] relu3 <- ip3
I0501 09:23:55.452026 14299 net.cpp:369] relu3 -> ip3 (in-place)
I0501 09:23:55.452178 14299 net.cpp:124] Setting up relu3
I0501 09:23:55.452185 14299 net.cpp:131] Top shape: 111 80 (8880)
I0501 09:23:55.452188 14299 net.cpp:139] Memory required for data: 20001756
I0501 09:23:55.452191 14299 layer_factory.hpp:77] Creating layer ip4
I0501 09:23:55.452214 14299 net.cpp:86] Creating Layer ip4
I0501 09:23:55.452217 14299 net.cpp:408] ip4 <- ip3
I0501 09:23:55.452222 14299 net.cpp:382] ip4 -> ip4
I0501 09:23:55.452339 14299 net.cpp:124] Setting up ip4
I0501 09:23:55.452347 14299 net.cpp:131] Top shape: 111 10 (1110)
I0501 09:23:55.452350 14299 net.cpp:139] Memory required for data: 20006196
I0501 09:23:55.452358 14299 layer_factory.hpp:77] Creating layer loss
I0501 09:23:55.452363 14299 net.cpp:86] Creating Layer loss
I0501 09:23:55.452366 14299 net.cpp:408] loss <- ip4
I0501 09:23:55.452370 14299 net.cpp:408] loss <- label
I0501 09:23:55.452375 14299 net.cpp:382] loss -> loss
I0501 09:23:55.452392 14299 layer_factory.hpp:77] Creating layer loss
…
I0501 09:23:55.453601 14299 solver.cpp:173] Creating test net (#0) specified by net file: ECE595/cifar/train_test/var_everything/cifar_train_test_538.prototxt
I0501 09:23:55.453629 14299 net.cpp:296] The NetState phase (1) differed from the phase (0) specified by a rule in layer cifar
I0501 09:23:55.453721 14299 net.cpp:53] Initializing net from parameters: 
name: "CIFAR"
state {
  phase: TEST
}
layer {
  name: "cifar"
  type: "Data"
  top: "data"
  top: "label"
  include {
    phase: TEST
  }
  transform_param {
    mean_file: "examples/cifar10/mean.binaryproto"
  }
  data_param {
    source: "examples/cifar10/cifar10_test_lmdb"
    batch_size: 1000
    backend: LMDB
  }
}
layer {
  name: "conv0"
  type: "Convolution"
  bottom: "data"
  top: "conv0"
  param {
    lr_mult: 1
  }
  param {
    lr_mult: 2
  }
  convolution_param {
    num_output: 16
    pad: 2
    kernel_size: 3
    stride: 1
    weight_filler {
      type: "gaussian"
      std: 0.01
    }
    bias_filler {
      type: "constant"
    }
  }
}
layer {
  name: "Sigmoid0"
  type: "Sigmoid"
  bottom: "conv0"
  top: "Sigmoid0"
}
layer {
  name: "pool0"
  type: "Pooling"
  bottom: "Sigmoid0"
  top: "pool0"
  pooling_param {
    pool: AVE
    kernel_size: 3
    stride: 2
  }
}
layer {
  name: "ip1"
  type: "InnerProduct"
  bottom: "pool0"
  top: "ip1"
  param {
    lr_mult: 1
  }
  param {
    lr_mult: 2
  }
  inner_product_param {
    num_output: 20
    weight_filler {
      type: "gaussian"
      std: 0.01
    }
    bias_filler {
      type: "constant"
    }
  }
}
layer {
  name: "relu1"
  type: "ReLU"
  bottom: "ip1"
  top: "ip1"
}
layer {
  name: "ip2"
  type: "InnerProduct"
  bottom: "ip1"
  top: "ip2"
  param {
    lr_mult: 1
  }
  param {
    lr_mult: 2
  }
  inner_product_param {
    num_output: 80
    weight_filler {
      type: "gaussian"
      std: 0.01
    }
    bias_filler {
      type: "constant"
    }
  }
}
layer {
  name: "relu2"
  type: "ReLU"
  bottom: "ip2"
  top: "ip2"
}
layer {
  name: "ip3"
  type: "InnerProduct"
  bottom: "ip2"
  top: "ip3"
  param {
    lr_mult: 1
  }
  param {
    lr_mult: 2
  }
  inner_product_param {
    num_output: 80
    weight_filler {
      type: "gaussian"
      std: 0.01
    }
    bias_filler {
      type: "constant"
    }
  }
}
layer {
  name: "relu3"
  type: "ReLU"
  bottom: "ip3"
  top: "ip3"
}
layer {
  name: "ip4"
  type: "InnerProduct"
  bottom: "ip3"
  top: "ip4"
  param {
    lr_mult: 1
  }
  param {
    lr_mult: 2
  }
  inner_product_param {
    num_output: 10
    weight_filler {
      type: "gaussian"
      std: 0.01
    }
    bias_filler {
      type: "constant"
    }
  }
}
layer {
  name: "accuracy"
  type: "Accuracy"
  bottom: "ip4"
  bottom: "label"
  top: "accuracy"
  include {
    phase: TEST
  }
}
layer {
  name: "loss"
  type: "SoftmaxWithLoss"
  bottom: "ip4"
  bottom: "label"
  top: "loss"
}
I0501 09:23:55.453799 14299 layer_factory.hpp:77] Creating layer cifar
I0501 09:23:55.453845 14299 db_lmdb.cpp:35] Opened lmdb examples/cifar10/cifar10_test_lmdb
I0501 09:23:55.453857 14299 net.cpp:86] Creating Layer cifar
I0501 09:23:55.453862 14299 net.cpp:382] cifar -> data
I0501 09:23:55.453869 14299 net.cpp:382] cifar -> label
I0501 09:23:55.453876 14299 data_transformer.cpp:25] Loading mean file from: examples/cifar10/mean.binaryproto
I0501 09:23:55.454015 14299 data_layer.cpp:45] output data size: 1000,3,32,32
I0501 09:23:55.475778 14299 net.cpp:124] Setting up cifar
I0501 09:23:55.475821 14299 net.cpp:131] Top shape: 1000 3 32 32 (3072000)
I0501 09:23:55.475827 14299 net.cpp:131] Top shape: 1000 (1000)
I0501 09:23:55.475831 14299 net.cpp:139] Memory required for data: 12292000
I0501 09:23:55.475852 14299 layer_factory.hpp:77] Creating layer label_cifar_1_split
I0501 09:23:55.475868 14299 net.cpp:86] Creating Layer label_cifar_1_split
I0501 09:23:55.475872 14299 net.cpp:408] label_cifar_1_split <- label
I0501 09:23:55.475879 14299 net.cpp:382] label_cifar_1_split -> label_cifar_1_split_0
I0501 09:23:55.475888 14299 net.cpp:382] label_cifar_1_split -> label_cifar_1_split_1
I0501 09:23:55.475985 14299 net.cpp:124] Setting up label_cifar_1_split
I0501 09:23:55.475992 14299 net.cpp:131] Top shape: 1000 (1000)
I0501 09:23:55.475996 14299 net.cpp:131] Top shape: 1000 (1000)
I0501 09:23:55.475999 14299 net.cpp:139] Memory required for data: 12300000
I0501 09:23:55.476002 14299 layer_factory.hpp:77] Creating layer conv0
I0501 09:23:55.476014 14299 net.cpp:86] Creating Layer conv0
I0501 09:23:55.476017 14299 net.cpp:408] conv0 <- data
I0501 09:23:55.476022 14299 net.cpp:382] conv0 -> conv0
I0501 09:23:55.477598 14299 net.cpp:124] Setting up conv0
I0501 09:23:55.477627 14299 net.cpp:131] Top shape: 1000 16 34 34 (18496000)
I0501 09:23:55.477632 14299 net.cpp:139] Memory required for data: 86284000
I0501 09:23:55.477640 14299 layer_factory.hpp:77] Creating layer Sigmoid0
I0501 09:23:55.477646 14299 net.cpp:86] Creating Layer Sigmoid0
I0501 09:23:55.477650 14299 net.cpp:408] Sigmoid0 <- conv0
I0501 09:23:55.477654 14299 net.cpp:382] Sigmoid0 -> Sigmoid0
I0501 09:23:55.477833 14299 net.cpp:124] Setting up Sigmoid0
I0501 09:23:55.477841 14299 net.cpp:131] Top shape: 1000 16 34 34 (18496000)
I0501 09:23:55.477844 14299 net.cpp:139] Memory required for data: 160268000
I0501 09:23:55.477847 14299 layer_factory.hpp:77] Creating layer pool0
I0501 09:23:55.477855 14299 net.cpp:86] Creating Layer pool0
I0501 09:23:55.477859 14299 net.cpp:408] pool0 <- Sigmoid0
I0501 09:23:55.477864 14299 net.cpp:382] pool0 -> pool0
I0501 09:23:55.478101 14299 net.cpp:124] Setting up pool0
I0501 09:23:55.478108 14299 net.cpp:131] Top shape: 1000 16 17 17 (4624000)
I0501 09:23:55.478112 14299 net.cpp:139] Memory required for data: 178764000
I0501 09:23:55.478116 14299 layer_factory.hpp:77] Creating layer ip1
I0501 09:23:55.478122 14299 net.cpp:86] Creating Layer ip1
I0501 09:23:55.478126 14299 net.cpp:408] ip1 <- pool0
I0501 09:23:55.478132 14299 net.cpp:382] ip1 -> ip1
I0501 09:23:55.481505 14299 net.cpp:124] Setting up ip1
I0501 09:23:55.481515 14299 net.cpp:131] Top shape: 1000 20 (20000)
I0501 09:23:55.481534 14299 net.cpp:139] Memory required for data: 178844000
I0501 09:23:55.481556 14299 layer_factory.hpp:77] Creating layer relu1
I0501 09:23:55.481562 14299 net.cpp:86] Creating Layer relu1
I0501 09:23:55.481566 14299 net.cpp:408] relu1 <- ip1
I0501 09:23:55.481570 14299 net.cpp:369] relu1 -> ip1 (in-place)
I0501 09:23:55.481752 14299 net.cpp:124] Setting up relu1
I0501 09:23:55.481761 14299 net.cpp:131] Top shape: 1000 20 (20000)
I0501 09:23:55.481765 14299 net.cpp:139] Memory required for data: 178924000
I0501 09:23:55.481767 14299 layer_factory.hpp:77] Creating layer ip2
I0501 09:23:55.481773 14299 net.cpp:86] Creating Layer ip2
I0501 09:23:55.481776 14299 net.cpp:408] ip2 <- ip1
I0501 09:23:55.481781 14299 net.cpp:382] ip2 -> ip2
I0501 09:23:55.481925 14299 net.cpp:124] Setting up ip2
I0501 09:23:55.481931 14299 net.cpp:131] Top shape: 1000 80 (80000)
I0501 09:23:55.481935 14299 net.cpp:139] Memory required for data: 179244000
I0501 09:23:55.481941 14299 layer_factory.hpp:77] Creating layer relu2
I0501 09:23:55.481947 14299 net.cpp:86] Creating Layer relu2
I0501 09:23:55.481950 14299 net.cpp:408] relu2 <- ip2
I0501 09:23:55.481955 14299 net.cpp:369] relu2 -> ip2 (in-place)
I0501 09:23:55.482730 14299 net.cpp:124] Setting up relu2
I0501 09:23:55.482743 14299 net.cpp:131] Top shape: 1000 80 (80000)
I0501 09:23:55.482745 14299 net.cpp:139] Memory required for data: 179564000
I0501 09:23:55.482748 14299 layer_factory.hpp:77] Creating layer ip3
I0501 09:23:55.482756 14299 net.cpp:86] Creating Layer ip3
I0501 09:23:55.482759 14299 net.cpp:408] ip3 <- ip2
I0501 09:23:55.482764 14299 net.cpp:382] ip3 -> ip3
I0501 09:23:55.483034 14299 net.cpp:124] Setting up ip3
I0501 09:23:55.483042 14299 net.cpp:131] Top shape: 1000 80 (80000)
I0501 09:23:55.483045 14299 net.cpp:139] Memory required for data: 179884000
I0501 09:23:55.483052 14299 layer_factory.hpp:77] Creating layer relu3
I0501 09:23:55.483057 14299 net.cpp:86] Creating Layer relu3
I0501 09:23:55.483059 14299 net.cpp:408] relu3 <- ip3
I0501 09:23:55.483063 14299 net.cpp:369] relu3 -> ip3 (in-place)
I0501 09:23:55.483201 14299 net.cpp:124] Setting up relu3
I0501 09:23:55.483208 14299 net.cpp:131] Top shape: 1000 80 (80000)
I0501 09:23:55.483211 14299 net.cpp:139] Memory required for data: 180204000
I0501 09:23:55.483214 14299 layer_factory.hpp:77] Creating layer ip4
I0501 09:23:55.483220 14299 net.cpp:86] Creating Layer ip4
I0501 09:23:55.483240 14299 net.cpp:408] ip4 <- ip3
I0501 09:23:55.483247 14299 net.cpp:382] ip4 -> ip4
I0501 09:23:55.483363 14299 net.cpp:124] Setting up ip4
I0501 09:23:55.483371 14299 net.cpp:131] Top shape: 1000 10 (10000)
I0501 09:23:55.483373 14299 net.cpp:139] Memory required for data: 180244000
I0501 09:23:55.483381 14299 layer_factory.hpp:77] Creating layer ip4_ip4_0_split
I0501 09:23:55.483387 14299 net.cpp:86] Creating Layer ip4_ip4_0_split
I0501 09:23:55.483391 14299 net.cpp:408] ip4_ip4_0_split <- ip4
I0501 09:23:55.483394 14299 net.cpp:382] ip4_ip4_0_split -> ip4_ip4_0_split_0
I0501 09:23:55.483399 14299 net.cpp:382] ip4_ip4_0_split -> ip4_ip4_0_split_1
I0501 09:23:55.483428 14299 net.cpp:124] Setting up ip4_ip4_0_split
I0501 09:23:55.483433 14299 net.cpp:131] Top shape: 1000 10 (10000)
I0501 09:23:55.483438 14299 net.cpp:131] Top shape: 1000 10 (10000)
I0501 09:23:55.483439 14299 net.cpp:139] Memory required for data: 180324000
I0501 09:23:55.483443 14299 layer_factory.hpp:77] Creating layer accuracy
I0501 09:23:55.483448 14299 net.cpp:86] Creating Layer accuracy
I0501 09:23:55.483451 14299 net.cpp:408] accuracy <- ip4_ip4_0_split_0
I0501 09:23:55.483455 14299 net.cpp:408] accuracy <- label_cifar_1_split_0
I0501 09:23:55.483459 14299 net.cpp:382] accuracy -> accuracy
…
