…
I0430 18:53:11.981104 24579 net.cpp:296] The NetState phase (0) differed from the phase (1) specified by a rule in layer cifar
I0430 18:53:11.981122 24579 net.cpp:296] The NetState phase (0) differed from the phase (1) specified by a rule in layer accuracy
I0430 18:53:11.981206 24579 net.cpp:53] Initializing net from parameters: 
name: "CIFAR"
state {
  phase: TRAIN
  level: 0
  stage: ""
}
layer {
  name: "cifar"
  type: "Data"
  top: "data"
  top: "label"
  include {
    phase: TRAIN
  }
  transform_param {
    mean_file: "examples/cifar10/mean.binaryproto"
  }
  data_param {
    source: "examples/cifar10/cifar10_train_lmdb"
    batch_size: 111
    backend: LMDB
  }
}
layer {
  name: "ip1"
  type: "InnerProduct"
  bottom: "data"
  top: "ip1"
  param {
    lr_mult: 1
  }
  param {
    lr_mult: 2
  }
  inner_product_param {
    num_output: 40
    weight_filler {
      type: "gaussian"
      std: 0.01
    }
    bias_filler {
      type: "constant"
    }
  }
}
layer {
  name: "relu1"
  type: "ReLU"
  bottom: "ip1"
  top: "ip1"
}
layer {
  name: "ip2"
  type: "InnerProduct"
  bottom: "ip1"
  top: "ip2"
  param {
    lr_mult: 1
  }
  param {
    lr_mult: 2
  }
  inner_product_param {
    num_output: 10
    weight_filler {
      type: "gaussian"
      std: 0.01
    }
    bias_filler {
      type: "constant"
    }
  }
}
layer {
  name: "relu2"
  type: "ReLU"
  bottom: "ip2"
  top: "ip2"
}
layer {
  name: "ip3"
  type: "InnerProduct"
  bottom: "ip2"
  top: "ip3"
  param {
    lr_mult: 1
  }
  param {
    lr_mult: 2
  }
  inner_product_param {
    num_output: 10
    weight_filler {
      type: "gaussian"
      std: 0.01
    }
    bias_filler {
      type: "constant"
    }
  }
}
layer {
  name: "relu3"
  type: "ReLU"
  bottom: "ip3"
  top: "ip3"
}
layer {
  name: "ip4"
  type: "InnerProduct"
  bottom: "ip3"
  top: "ip4"
  param {
    lr_mult: 1
  }
  param {
    lr_mult: 2
  }
  inner_product_param {
    num_output: 10
    weight_filler {
      type: "gaussian"
      std: 0.01
    }
    bias_filler {
      type: "constant"
    }
  }
}
layer {
  name: "loss"
  type: "SoftmaxWithLoss"
  bottom: "ip4"
  bottom: "label"
  top: "loss"
}
I0430 18:53:11.981278 24579 layer_factory.hpp:77] Creating layer cifar
I0430 18:53:11.981382 24579 db_lmdb.cpp:35] Opened lmdb examples/cifar10/cifar10_train_lmdb
I0430 18:53:11.981410 24579 net.cpp:86] Creating Layer cifar
I0430 18:53:11.981417 24579 net.cpp:382] cifar -> data
I0430 18:53:11.981441 24579 net.cpp:382] cifar -> label
I0430 18:53:11.981453 24579 data_transformer.cpp:25] Loading mean file from: examples/cifar10/mean.binaryproto
I0430 18:53:11.983578 24579 data_layer.cpp:45] output data size: 111,3,32,32
I0430 18:53:11.991502 24579 net.cpp:124] Setting up cifar
I0430 18:53:11.991521 24579 net.cpp:131] Top shape: 111 3 32 32 (340992)
I0430 18:53:11.991528 24579 net.cpp:131] Top shape: 111 (111)
I0430 18:53:11.991531 24579 net.cpp:139] Memory required for data: 1364412
I0430 18:53:11.991539 24579 layer_factory.hpp:77] Creating layer ip1
I0430 18:53:11.991551 24579 net.cpp:86] Creating Layer ip1
I0430 18:53:11.991557 24579 net.cpp:408] ip1 <- data
I0430 18:53:11.991570 24579 net.cpp:382] ip1 -> ip1
I0430 18:53:11.995803 24579 net.cpp:124] Setting up ip1
I0430 18:53:11.995815 24579 net.cpp:131] Top shape: 111 40 (4440)
I0430 18:53:11.995820 24579 net.cpp:139] Memory required for data: 1382172
I0430 18:53:11.995833 24579 layer_factory.hpp:77] Creating layer relu1
I0430 18:53:11.995846 24579 net.cpp:86] Creating Layer relu1
I0430 18:53:11.995864 24579 net.cpp:408] relu1 <- ip1
I0430 18:53:11.995870 24579 net.cpp:369] relu1 -> ip1 (in-place)
I0430 18:53:12.270846 24579 net.cpp:124] Setting up relu1
I0430 18:53:12.270889 24579 net.cpp:131] Top shape: 111 40 (4440)
I0430 18:53:12.270892 24579 net.cpp:139] Memory required for data: 1399932
I0430 18:53:12.270897 24579 layer_factory.hpp:77] Creating layer ip2
I0430 18:53:12.270910 24579 net.cpp:86] Creating Layer ip2
I0430 18:53:12.270915 24579 net.cpp:408] ip2 <- ip1
I0430 18:53:12.270921 24579 net.cpp:382] ip2 -> ip2
I0430 18:53:12.271908 24579 net.cpp:124] Setting up ip2
I0430 18:53:12.271921 24579 net.cpp:131] Top shape: 111 10 (1110)
I0430 18:53:12.271924 24579 net.cpp:139] Memory required for data: 1404372
I0430 18:53:12.271934 24579 layer_factory.hpp:77] Creating layer relu2
I0430 18:53:12.271956 24579 net.cpp:86] Creating Layer relu2
I0430 18:53:12.271960 24579 net.cpp:408] relu2 <- ip2
I0430 18:53:12.271963 24579 net.cpp:369] relu2 -> ip2 (in-place)
I0430 18:53:12.272725 24579 net.cpp:124] Setting up relu2
I0430 18:53:12.272737 24579 net.cpp:131] Top shape: 111 10 (1110)
I0430 18:53:12.272740 24579 net.cpp:139] Memory required for data: 1408812
I0430 18:53:12.272743 24579 layer_factory.hpp:77] Creating layer ip3
I0430 18:53:12.272749 24579 net.cpp:86] Creating Layer ip3
I0430 18:53:12.272753 24579 net.cpp:408] ip3 <- ip2
I0430 18:53:12.272758 24579 net.cpp:382] ip3 -> ip3
I0430 18:53:12.272887 24579 net.cpp:124] Setting up ip3
I0430 18:53:12.272897 24579 net.cpp:131] Top shape: 111 10 (1110)
I0430 18:53:12.272899 24579 net.cpp:139] Memory required for data: 1413252
I0430 18:53:12.272907 24579 layer_factory.hpp:77] Creating layer relu3
I0430 18:53:12.272912 24579 net.cpp:86] Creating Layer relu3
I0430 18:53:12.272915 24579 net.cpp:408] relu3 <- ip3
I0430 18:53:12.272919 24579 net.cpp:369] relu3 -> ip3 (in-place)
I0430 18:53:12.273077 24579 net.cpp:124] Setting up relu3
I0430 18:53:12.273085 24579 net.cpp:131] Top shape: 111 10 (1110)
I0430 18:53:12.273088 24579 net.cpp:139] Memory required for data: 1417692
I0430 18:53:12.273092 24579 layer_factory.hpp:77] Creating layer ip4
I0430 18:53:12.273097 24579 net.cpp:86] Creating Layer ip4
I0430 18:53:12.273100 24579 net.cpp:408] ip4 <- ip3
I0430 18:53:12.273105 24579 net.cpp:382] ip4 -> ip4
I0430 18:53:12.273207 24579 net.cpp:124] Setting up ip4
I0430 18:53:12.273214 24579 net.cpp:131] Top shape: 111 10 (1110)
I0430 18:53:12.273217 24579 net.cpp:139] Memory required for data: 1422132
I0430 18:53:12.273222 24579 layer_factory.hpp:77] Creating layer loss
I0430 18:53:12.273229 24579 net.cpp:86] Creating Layer loss
I0430 18:53:12.273232 24579 net.cpp:408] loss <- ip4
I0430 18:53:12.273236 24579 net.cpp:408] loss <- label
I0430 18:53:12.273241 24579 net.cpp:382] loss -> loss
I0430 18:53:12.273259 24579 layer_factory.hpp:77] Creating layer loss
…
I0430 18:53:12.273792 24579 solver.cpp:173] Creating test net (#0) specified by net file: ECE595/cifar/train_test/var_everything/cifar_train_test_80.prototxt
I0430 18:53:12.273828 24579 net.cpp:296] The NetState phase (1) differed from the phase (0) specified by a rule in layer cifar
I0430 18:53:12.273901 24579 net.cpp:53] Initializing net from parameters: 
name: "CIFAR"
state {
  phase: TEST
}
layer {
  name: "cifar"
  type: "Data"
  top: "data"
  top: "label"
  include {
    phase: TEST
  }
  transform_param {
    mean_file: "examples/cifar10/mean.binaryproto"
  }
  data_param {
    source: "examples/cifar10/cifar10_test_lmdb"
    batch_size: 1000
    backend: LMDB
  }
}
layer {
  name: "ip1"
  type: "InnerProduct"
  bottom: "data"
  top: "ip1"
  param {
    lr_mult: 1
  }
  param {
    lr_mult: 2
  }
  inner_product_param {
    num_output: 40
    weight_filler {
      type: "gaussian"
      std: 0.01
    }
    bias_filler {
      type: "constant"
    }
  }
}
layer {
  name: "relu1"
  type: "ReLU"
  bottom: "ip1"
  top: "ip1"
}
layer {
  name: "ip2"
  type: "InnerProduct"
  bottom: "ip1"
  top: "ip2"
  param {
    lr_mult: 1
  }
  param {
    lr_mult: 2
  }
  inner_product_param {
    num_output: 10
    weight_filler {
      type: "gaussian"
      std: 0.01
    }
    bias_filler {
      type: "constant"
    }
  }
}
layer {
  name: "relu2"
  type: "ReLU"
  bottom: "ip2"
  top: "ip2"
}
layer {
  name: "ip3"
  type: "InnerProduct"
  bottom: "ip2"
  top: "ip3"
  param {
    lr_mult: 1
  }
  param {
    lr_mult: 2
  }
  inner_product_param {
    num_output: 10
    weight_filler {
      type: "gaussian"
      std: 0.01
    }
    bias_filler {
      type: "constant"
    }
  }
}
layer {
  name: "relu3"
  type: "ReLU"
  bottom: "ip3"
  top: "ip3"
}
layer {
  name: "ip4"
  type: "InnerProduct"
  bottom: "ip3"
  top: "ip4"
  param {
    lr_mult: 1
  }
  param {
    lr_mult: 2
  }
  inner_product_param {
    num_output: 10
    weight_filler {
      type: "gaussian"
      std: 0.01
    }
    bias_filler {
      type: "constant"
    }
  }
}
layer {
  name: "accuracy"
  type: "Accuracy"
  bottom: "ip4"
  bottom: "label"
  top: "accuracy"
  include {
    phase: TEST
  }
}
layer {
  name: "loss"
  type: "SoftmaxWithLoss"
  bottom: "ip4"
  bottom: "label"
  top: "loss"
}
I0430 18:53:12.273957 24579 layer_factory.hpp:77] Creating layer cifar
I0430 18:53:12.273998 24579 db_lmdb.cpp:35] Opened lmdb examples/cifar10/cifar10_test_lmdb
I0430 18:53:12.274010 24579 net.cpp:86] Creating Layer cifar
I0430 18:53:12.274014 24579 net.cpp:382] cifar -> data
I0430 18:53:12.274021 24579 net.cpp:382] cifar -> label
I0430 18:53:12.274027 24579 data_transformer.cpp:25] Loading mean file from: examples/cifar10/mean.binaryproto
I0430 18:53:12.274178 24579 data_layer.cpp:45] output data size: 1000,3,32,32
I0430 18:53:12.295282 24579 net.cpp:124] Setting up cifar
I0430 18:53:12.295322 24579 net.cpp:131] Top shape: 1000 3 32 32 (3072000)
I0430 18:53:12.295328 24579 net.cpp:131] Top shape: 1000 (1000)
I0430 18:53:12.295332 24579 net.cpp:139] Memory required for data: 12292000
I0430 18:53:12.295337 24579 layer_factory.hpp:77] Creating layer label_cifar_1_split
I0430 18:53:12.295354 24579 net.cpp:86] Creating Layer label_cifar_1_split
I0430 18:53:12.295358 24579 net.cpp:408] label_cifar_1_split <- label
I0430 18:53:12.295364 24579 net.cpp:382] label_cifar_1_split -> label_cifar_1_split_0
I0430 18:53:12.295388 24579 net.cpp:382] label_cifar_1_split -> label_cifar_1_split_1
I0430 18:53:12.295440 24579 net.cpp:124] Setting up label_cifar_1_split
I0430 18:53:12.295445 24579 net.cpp:131] Top shape: 1000 (1000)
I0430 18:53:12.295449 24579 net.cpp:131] Top shape: 1000 (1000)
I0430 18:53:12.295452 24579 net.cpp:139] Memory required for data: 12300000
I0430 18:53:12.295454 24579 layer_factory.hpp:77] Creating layer ip1
I0430 18:53:12.295462 24579 net.cpp:86] Creating Layer ip1
I0430 18:53:12.295465 24579 net.cpp:408] ip1 <- data
I0430 18:53:12.295470 24579 net.cpp:382] ip1 -> ip1
I0430 18:53:12.298836 24579 net.cpp:124] Setting up ip1
I0430 18:53:12.298846 24579 net.cpp:131] Top shape: 1000 40 (40000)
I0430 18:53:12.298866 24579 net.cpp:139] Memory required for data: 12460000
I0430 18:53:12.298889 24579 layer_factory.hpp:77] Creating layer relu1
I0430 18:53:12.298895 24579 net.cpp:86] Creating Layer relu1
I0430 18:53:12.298899 24579 net.cpp:408] relu1 <- ip1
I0430 18:53:12.298919 24579 net.cpp:369] relu1 -> ip1 (in-place)
I0430 18:53:12.299715 24579 net.cpp:124] Setting up relu1
I0430 18:53:12.299727 24579 net.cpp:131] Top shape: 1000 40 (40000)
I0430 18:53:12.299746 24579 net.cpp:139] Memory required for data: 12620000
I0430 18:53:12.299751 24579 layer_factory.hpp:77] Creating layer ip2
I0430 18:53:12.299757 24579 net.cpp:86] Creating Layer ip2
I0430 18:53:12.299762 24579 net.cpp:408] ip2 <- ip1
I0430 18:53:12.299767 24579 net.cpp:382] ip2 -> ip2
I0430 18:53:12.299901 24579 net.cpp:124] Setting up ip2
I0430 18:53:12.299909 24579 net.cpp:131] Top shape: 1000 10 (10000)
I0430 18:53:12.299913 24579 net.cpp:139] Memory required for data: 12660000
I0430 18:53:12.299921 24579 layer_factory.hpp:77] Creating layer relu2
I0430 18:53:12.299926 24579 net.cpp:86] Creating Layer relu2
I0430 18:53:12.299928 24579 net.cpp:408] relu2 <- ip2
I0430 18:53:12.299932 24579 net.cpp:369] relu2 -> ip2 (in-place)
I0430 18:53:12.300083 24579 net.cpp:124] Setting up relu2
I0430 18:53:12.300091 24579 net.cpp:131] Top shape: 1000 10 (10000)
I0430 18:53:12.300094 24579 net.cpp:139] Memory required for data: 12700000
I0430 18:53:12.300097 24579 layer_factory.hpp:77] Creating layer ip3
I0430 18:53:12.300104 24579 net.cpp:86] Creating Layer ip3
I0430 18:53:12.300107 24579 net.cpp:408] ip3 <- ip2
I0430 18:53:12.300112 24579 net.cpp:382] ip3 -> ip3
I0430 18:53:12.300232 24579 net.cpp:124] Setting up ip3
I0430 18:53:12.300240 24579 net.cpp:131] Top shape: 1000 10 (10000)
I0430 18:53:12.300243 24579 net.cpp:139] Memory required for data: 12740000
I0430 18:53:12.300251 24579 layer_factory.hpp:77] Creating layer relu3
I0430 18:53:12.300258 24579 net.cpp:86] Creating Layer relu3
I0430 18:53:12.300261 24579 net.cpp:408] relu3 <- ip3
I0430 18:53:12.300266 24579 net.cpp:369] relu3 -> ip3 (in-place)
I0430 18:53:12.300422 24579 net.cpp:124] Setting up relu3
I0430 18:53:12.300431 24579 net.cpp:131] Top shape: 1000 10 (10000)
I0430 18:53:12.300433 24579 net.cpp:139] Memory required for data: 12780000
I0430 18:53:12.300436 24579 layer_factory.hpp:77] Creating layer ip4
I0430 18:53:12.300444 24579 net.cpp:86] Creating Layer ip4
I0430 18:53:12.300447 24579 net.cpp:408] ip4 <- ip3
I0430 18:53:12.300452 24579 net.cpp:382] ip4 -> ip4
I0430 18:53:12.300557 24579 net.cpp:124] Setting up ip4
I0430 18:53:12.300565 24579 net.cpp:131] Top shape: 1000 10 (10000)
I0430 18:53:12.300568 24579 net.cpp:139] Memory required for data: 12820000
I0430 18:53:12.300573 24579 layer_factory.hpp:77] Creating layer ip4_ip4_0_split
I0430 18:53:12.300580 24579 net.cpp:86] Creating Layer ip4_ip4_0_split
I0430 18:53:12.300583 24579 net.cpp:408] ip4_ip4_0_split <- ip4
I0430 18:53:12.300588 24579 net.cpp:382] ip4_ip4_0_split -> ip4_ip4_0_split_0
I0430 18:53:12.300595 24579 net.cpp:382] ip4_ip4_0_split -> ip4_ip4_0_split_1
I0430 18:53:12.300652 24579 net.cpp:124] Setting up ip4_ip4_0_split
I0430 18:53:12.300659 24579 net.cpp:131] Top shape: 1000 10 (10000)
I0430 18:53:12.300662 24579 net.cpp:131] Top shape: 1000 10 (10000)
I0430 18:53:12.300665 24579 net.cpp:139] Memory required for data: 12900000
I0430 18:53:12.300668 24579 layer_factory.hpp:77] Creating layer accuracy
I0430 18:53:12.300673 24579 net.cpp:86] Creating Layer accuracy
I0430 18:53:12.300676 24579 net.cpp:408] accuracy <- ip4_ip4_0_split_0
I0430 18:53:12.300681 24579 net.cpp:408] accuracy <- label_cifar_1_split_0
I0430 18:53:12.300685 24579 net.cpp:382] accuracy -> accuracy
…
