…
I0501 07:41:01.333256  6642 net.cpp:296] The NetState phase (0) differed from the phase (1) specified by a rule in layer cifar
I0501 07:41:01.333271  6642 net.cpp:296] The NetState phase (0) differed from the phase (1) specified by a rule in layer accuracy
I0501 07:41:01.333361  6642 net.cpp:53] Initializing net from parameters: 
name: "CIFAR"
state {
  phase: TRAIN
  level: 0
  stage: ""
}
layer {
  name: "cifar"
  type: "Data"
  top: "data"
  top: "label"
  include {
    phase: TRAIN
  }
  transform_param {
    mean_file: "examples/cifar10/mean.binaryproto"
  }
  data_param {
    source: "examples/cifar10/cifar10_train_lmdb"
    batch_size: 111
    backend: LMDB
  }
}
layer {
  name: "conv0"
  type: "Convolution"
  bottom: "data"
  top: "conv0"
  param {
    lr_mult: 1
  }
  param {
    lr_mult: 2
  }
  convolution_param {
    num_output: 16
    pad: 2
    kernel_size: 3
    stride: 1
    weight_filler {
      type: "gaussian"
      std: 0.01
    }
    bias_filler {
      type: "constant"
    }
  }
}
layer {
  name: "Sigmoid0"
  type: "Sigmoid"
  bottom: "conv0"
  top: "Sigmoid0"
}
layer {
  name: "pool0"
  type: "Pooling"
  bottom: "Sigmoid0"
  top: "pool0"
  pooling_param {
    pool: AVE
    kernel_size: 3
    stride: 2
  }
}
layer {
  name: "ip1"
  type: "InnerProduct"
  bottom: "pool0"
  top: "ip1"
  param {
    lr_mult: 1
  }
  param {
    lr_mult: 2
  }
  inner_product_param {
    num_output: 80
    weight_filler {
      type: "gaussian"
      std: 0.01
    }
    bias_filler {
      type: "constant"
    }
  }
}
layer {
  name: "relu1"
  type: "ReLU"
  bottom: "ip1"
  top: "ip1"
}
layer {
  name: "ip2"
  type: "InnerProduct"
  bottom: "ip1"
  top: "ip2"
  param {
    lr_mult: 1
  }
  param {
    lr_mult: 2
  }
  inner_product_param {
    num_output: 160
    weight_filler {
      type: "gaussian"
      std: 0.01
    }
    bias_filler {
      type: "constant"
    }
  }
}
layer {
  name: "relu2"
  type: "ReLU"
  bottom: "ip2"
  top: "ip2"
}
layer {
  name: "ip3"
  type: "InnerProduct"
  bottom: "ip2"
  top: "ip3"
  param {
    lr_mult: 1
  }
  param {
    lr_mult: 2
  }
  inner_product_param {
    num_output: 10
    weight_filler {
      type: "gaussian"
      std: 0.01
    }
    bias_filler {
      type: "constant"
    }
  }
}
layer {
  name: "loss"
  type: "SoftmaxWithLoss"
  bottom: "ip3"
  bottom: "label"
  top: "loss"
}
I0501 07:41:01.333431  6642 layer_factory.hpp:77] Creating layer cifar
I0501 07:41:01.333528  6642 db_lmdb.cpp:35] Opened lmdb examples/cifar10/cifar10_train_lmdb
I0501 07:41:01.333555  6642 net.cpp:86] Creating Layer cifar
I0501 07:41:01.333564  6642 net.cpp:382] cifar -> data
I0501 07:41:01.333586  6642 net.cpp:382] cifar -> label
I0501 07:41:01.333598  6642 data_transformer.cpp:25] Loading mean file from: examples/cifar10/mean.binaryproto
I0501 07:41:01.335737  6642 data_layer.cpp:45] output data size: 111,3,32,32
I0501 07:41:01.343650  6642 net.cpp:124] Setting up cifar
I0501 07:41:01.343669  6642 net.cpp:131] Top shape: 111 3 32 32 (340992)
I0501 07:41:01.343677  6642 net.cpp:131] Top shape: 111 (111)
I0501 07:41:01.343680  6642 net.cpp:139] Memory required for data: 1364412
I0501 07:41:01.343688  6642 layer_factory.hpp:77] Creating layer conv0
I0501 07:41:01.343706  6642 net.cpp:86] Creating Layer conv0
I0501 07:41:01.343713  6642 net.cpp:408] conv0 <- data
I0501 07:41:01.343724  6642 net.cpp:382] conv0 -> conv0
I0501 07:41:01.630817  6642 net.cpp:124] Setting up conv0
I0501 07:41:01.630864  6642 net.cpp:131] Top shape: 111 16 34 34 (2053056)
I0501 07:41:01.630869  6642 net.cpp:139] Memory required for data: 9576636
I0501 07:41:01.630884  6642 layer_factory.hpp:77] Creating layer Sigmoid0
I0501 07:41:01.630897  6642 net.cpp:86] Creating Layer Sigmoid0
I0501 07:41:01.630901  6642 net.cpp:408] Sigmoid0 <- conv0
I0501 07:41:01.630906  6642 net.cpp:382] Sigmoid0 -> Sigmoid0
I0501 07:41:01.631088  6642 net.cpp:124] Setting up Sigmoid0
I0501 07:41:01.631098  6642 net.cpp:131] Top shape: 111 16 34 34 (2053056)
I0501 07:41:01.631101  6642 net.cpp:139] Memory required for data: 17788860
I0501 07:41:01.631104  6642 layer_factory.hpp:77] Creating layer pool0
I0501 07:41:01.631111  6642 net.cpp:86] Creating Layer pool0
I0501 07:41:01.631114  6642 net.cpp:408] pool0 <- Sigmoid0
I0501 07:41:01.631119  6642 net.cpp:382] pool0 -> pool0
I0501 07:41:01.631875  6642 net.cpp:124] Setting up pool0
I0501 07:41:01.631887  6642 net.cpp:131] Top shape: 111 16 17 17 (513264)
I0501 07:41:01.631891  6642 net.cpp:139] Memory required for data: 19841916
I0501 07:41:01.631896  6642 layer_factory.hpp:77] Creating layer ip1
I0501 07:41:01.631904  6642 net.cpp:86] Creating Layer ip1
I0501 07:41:01.631907  6642 net.cpp:408] ip1 <- pool0
I0501 07:41:01.631913  6642 net.cpp:382] ip1 -> ip1
I0501 07:41:01.643149  6642 net.cpp:124] Setting up ip1
I0501 07:41:01.643162  6642 net.cpp:131] Top shape: 111 80 (8880)
I0501 07:41:01.643165  6642 net.cpp:139] Memory required for data: 19877436
I0501 07:41:01.643173  6642 layer_factory.hpp:77] Creating layer relu1
I0501 07:41:01.643179  6642 net.cpp:86] Creating Layer relu1
I0501 07:41:01.643183  6642 net.cpp:408] relu1 <- ip1
I0501 07:41:01.643187  6642 net.cpp:369] relu1 -> ip1 (in-place)
I0501 07:41:01.643357  6642 net.cpp:124] Setting up relu1
I0501 07:41:01.643366  6642 net.cpp:131] Top shape: 111 80 (8880)
I0501 07:41:01.643369  6642 net.cpp:139] Memory required for data: 19912956
I0501 07:41:01.643373  6642 layer_factory.hpp:77] Creating layer ip2
I0501 07:41:01.643380  6642 net.cpp:86] Creating Layer ip2
I0501 07:41:01.643383  6642 net.cpp:408] ip2 <- ip1
I0501 07:41:01.643388  6642 net.cpp:382] ip2 -> ip2
I0501 07:41:01.644662  6642 net.cpp:124] Setting up ip2
I0501 07:41:01.644675  6642 net.cpp:131] Top shape: 111 160 (17760)
I0501 07:41:01.644678  6642 net.cpp:139] Memory required for data: 19983996
I0501 07:41:01.644686  6642 layer_factory.hpp:77] Creating layer relu2
I0501 07:41:01.644692  6642 net.cpp:86] Creating Layer relu2
I0501 07:41:01.644695  6642 net.cpp:408] relu2 <- ip2
I0501 07:41:01.644701  6642 net.cpp:369] relu2 -> ip2 (in-place)
I0501 07:41:01.644875  6642 net.cpp:124] Setting up relu2
I0501 07:41:01.644884  6642 net.cpp:131] Top shape: 111 160 (17760)
I0501 07:41:01.644887  6642 net.cpp:139] Memory required for data: 20055036
I0501 07:41:01.644891  6642 layer_factory.hpp:77] Creating layer ip3
I0501 07:41:01.644898  6642 net.cpp:86] Creating Layer ip3
I0501 07:41:01.644901  6642 net.cpp:408] ip3 <- ip2
I0501 07:41:01.644906  6642 net.cpp:382] ip3 -> ip3
I0501 07:41:01.645042  6642 net.cpp:124] Setting up ip3
I0501 07:41:01.645050  6642 net.cpp:131] Top shape: 111 10 (1110)
I0501 07:41:01.645052  6642 net.cpp:139] Memory required for data: 20059476
I0501 07:41:01.645057  6642 layer_factory.hpp:77] Creating layer loss
I0501 07:41:01.645063  6642 net.cpp:86] Creating Layer loss
I0501 07:41:01.645066  6642 net.cpp:408] loss <- ip3
I0501 07:41:01.645071  6642 net.cpp:408] loss <- label
I0501 07:41:01.645076  6642 net.cpp:382] loss -> loss
I0501 07:41:01.645092  6642 layer_factory.hpp:77] Creating layer loss
…
I0501 07:41:01.645674  6642 solver.cpp:173] Creating test net (#0) specified by net file: ECE595/cifar/train_test/var_everything/cifar_train_test_489.prototxt
I0501 07:41:01.645700  6642 net.cpp:296] The NetState phase (1) differed from the phase (0) specified by a rule in layer cifar
I0501 07:41:01.645784  6642 net.cpp:53] Initializing net from parameters: 
name: "CIFAR"
state {
  phase: TEST
}
layer {
  name: "cifar"
  type: "Data"
  top: "data"
  top: "label"
  include {
    phase: TEST
  }
  transform_param {
    mean_file: "examples/cifar10/mean.binaryproto"
  }
  data_param {
    source: "examples/cifar10/cifar10_test_lmdb"
    batch_size: 1000
    backend: LMDB
  }
}
layer {
  name: "conv0"
  type: "Convolution"
  bottom: "data"
  top: "conv0"
  param {
    lr_mult: 1
  }
  param {
    lr_mult: 2
  }
  convolution_param {
    num_output: 16
    pad: 2
    kernel_size: 3
    stride: 1
    weight_filler {
      type: "gaussian"
      std: 0.01
    }
    bias_filler {
      type: "constant"
    }
  }
}
layer {
  name: "Sigmoid0"
  type: "Sigmoid"
  bottom: "conv0"
  top: "Sigmoid0"
}
layer {
  name: "pool0"
  type: "Pooling"
  bottom: "Sigmoid0"
  top: "pool0"
  pooling_param {
    pool: AVE
    kernel_size: 3
    stride: 2
  }
}
layer {
  name: "ip1"
  type: "InnerProduct"
  bottom: "pool0"
  top: "ip1"
  param {
    lr_mult: 1
  }
  param {
    lr_mult: 2
  }
  inner_product_param {
    num_output: 80
    weight_filler {
      type: "gaussian"
      std: 0.01
    }
    bias_filler {
      type: "constant"
    }
  }
}
layer {
  name: "relu1"
  type: "ReLU"
  bottom: "ip1"
  top: "ip1"
}
layer {
  name: "ip2"
  type: "InnerProduct"
  bottom: "ip1"
  top: "ip2"
  param {
    lr_mult: 1
  }
  param {
    lr_mult: 2
  }
  inner_product_param {
    num_output: 160
    weight_filler {
      type: "gaussian"
      std: 0.01
    }
    bias_filler {
      type: "constant"
    }
  }
}
layer {
  name: "relu2"
  type: "ReLU"
  bottom: "ip2"
  top: "ip2"
}
layer {
  name: "ip3"
  type: "InnerProduct"
  bottom: "ip2"
  top: "ip3"
  param {
    lr_mult: 1
  }
  param {
    lr_mult: 2
  }
  inner_product_param {
    num_output: 10
    weight_filler {
      type: "gaussian"
      std: 0.01
    }
    bias_filler {
      type: "constant"
    }
  }
}
layer {
  name: "accuracy"
  type: "Accuracy"
  bottom: "ip3"
  bottom: "label"
  top: "accuracy"
  include {
    phase: TEST
  }
}
layer {
  name: "loss"
  type: "SoftmaxWithLoss"
  bottom: "ip3"
  bottom: "label"
  top: "loss"
}
I0501 07:41:01.645846  6642 layer_factory.hpp:77] Creating layer cifar
I0501 07:41:01.645894  6642 db_lmdb.cpp:35] Opened lmdb examples/cifar10/cifar10_test_lmdb
I0501 07:41:01.645905  6642 net.cpp:86] Creating Layer cifar
I0501 07:41:01.645910  6642 net.cpp:382] cifar -> data
I0501 07:41:01.645917  6642 net.cpp:382] cifar -> label
I0501 07:41:01.645925  6642 data_transformer.cpp:25] Loading mean file from: examples/cifar10/mean.binaryproto
I0501 07:41:01.646061  6642 data_layer.cpp:45] output data size: 1000,3,32,32
I0501 07:41:01.668393  6642 net.cpp:124] Setting up cifar
I0501 07:41:01.668436  6642 net.cpp:131] Top shape: 1000 3 32 32 (3072000)
I0501 07:41:01.668442  6642 net.cpp:131] Top shape: 1000 (1000)
I0501 07:41:01.668445  6642 net.cpp:139] Memory required for data: 12292000
I0501 07:41:01.668452  6642 layer_factory.hpp:77] Creating layer label_cifar_1_split
I0501 07:41:01.668468  6642 net.cpp:86] Creating Layer label_cifar_1_split
I0501 07:41:01.668490  6642 net.cpp:408] label_cifar_1_split <- label
I0501 07:41:01.668498  6642 net.cpp:382] label_cifar_1_split -> label_cifar_1_split_0
I0501 07:41:01.668520  6642 net.cpp:382] label_cifar_1_split -> label_cifar_1_split_1
I0501 07:41:01.668589  6642 net.cpp:124] Setting up label_cifar_1_split
I0501 07:41:01.668597  6642 net.cpp:131] Top shape: 1000 (1000)
I0501 07:41:01.668601  6642 net.cpp:131] Top shape: 1000 (1000)
I0501 07:41:01.668603  6642 net.cpp:139] Memory required for data: 12300000
I0501 07:41:01.668607  6642 layer_factory.hpp:77] Creating layer conv0
I0501 07:41:01.668618  6642 net.cpp:86] Creating Layer conv0
I0501 07:41:01.668622  6642 net.cpp:408] conv0 <- data
I0501 07:41:01.668627  6642 net.cpp:382] conv0 -> conv0
I0501 07:41:01.670327  6642 net.cpp:124] Setting up conv0
I0501 07:41:01.670341  6642 net.cpp:131] Top shape: 1000 16 34 34 (18496000)
I0501 07:41:01.670344  6642 net.cpp:139] Memory required for data: 86284000
I0501 07:41:01.670354  6642 layer_factory.hpp:77] Creating layer Sigmoid0
I0501 07:41:01.670362  6642 net.cpp:86] Creating Layer Sigmoid0
I0501 07:41:01.670366  6642 net.cpp:408] Sigmoid0 <- conv0
I0501 07:41:01.670370  6642 net.cpp:382] Sigmoid0 -> Sigmoid0
I0501 07:41:01.672204  6642 net.cpp:124] Setting up Sigmoid0
I0501 07:41:01.672219  6642 net.cpp:131] Top shape: 1000 16 34 34 (18496000)
I0501 07:41:01.672221  6642 net.cpp:139] Memory required for data: 160268000
I0501 07:41:01.672225  6642 layer_factory.hpp:77] Creating layer pool0
I0501 07:41:01.672235  6642 net.cpp:86] Creating Layer pool0
I0501 07:41:01.672240  6642 net.cpp:408] pool0 <- Sigmoid0
I0501 07:41:01.672245  6642 net.cpp:382] pool0 -> pool0
I0501 07:41:01.672425  6642 net.cpp:124] Setting up pool0
I0501 07:41:01.672433  6642 net.cpp:131] Top shape: 1000 16 17 17 (4624000)
I0501 07:41:01.672437  6642 net.cpp:139] Memory required for data: 178764000
I0501 07:41:01.672441  6642 layer_factory.hpp:77] Creating layer ip1
I0501 07:41:01.672449  6642 net.cpp:86] Creating Layer ip1
I0501 07:41:01.672452  6642 net.cpp:408] ip1 <- pool0
I0501 07:41:01.672458  6642 net.cpp:382] ip1 -> ip1
I0501 07:41:01.683297  6642 net.cpp:124] Setting up ip1
I0501 07:41:01.683310  6642 net.cpp:131] Top shape: 1000 80 (80000)
I0501 07:41:01.683313  6642 net.cpp:139] Memory required for data: 179084000
I0501 07:41:01.683322  6642 layer_factory.hpp:77] Creating layer relu1
I0501 07:41:01.683329  6642 net.cpp:86] Creating Layer relu1
I0501 07:41:01.683333  6642 net.cpp:408] relu1 <- ip1
I0501 07:41:01.683338  6642 net.cpp:369] relu1 -> ip1 (in-place)
I0501 07:41:01.683503  6642 net.cpp:124] Setting up relu1
I0501 07:41:01.683512  6642 net.cpp:131] Top shape: 1000 80 (80000)
I0501 07:41:01.683516  6642 net.cpp:139] Memory required for data: 179404000
I0501 07:41:01.683519  6642 layer_factory.hpp:77] Creating layer ip2
I0501 07:41:01.683527  6642 net.cpp:86] Creating Layer ip2
I0501 07:41:01.683531  6642 net.cpp:408] ip2 <- ip1
I0501 07:41:01.683537  6642 net.cpp:382] ip2 -> ip2
I0501 07:41:01.683982  6642 net.cpp:124] Setting up ip2
I0501 07:41:01.683991  6642 net.cpp:131] Top shape: 1000 160 (160000)
I0501 07:41:01.683995  6642 net.cpp:139] Memory required for data: 180044000
I0501 07:41:01.684001  6642 layer_factory.hpp:77] Creating layer relu2
I0501 07:41:01.684007  6642 net.cpp:86] Creating Layer relu2
I0501 07:41:01.684010  6642 net.cpp:408] relu2 <- ip2
I0501 07:41:01.684015  6642 net.cpp:369] relu2 -> ip2 (in-place)
I0501 07:41:01.684175  6642 net.cpp:124] Setting up relu2
I0501 07:41:01.684185  6642 net.cpp:131] Top shape: 1000 160 (160000)
I0501 07:41:01.684188  6642 net.cpp:139] Memory required for data: 180684000
I0501 07:41:01.684191  6642 layer_factory.hpp:77] Creating layer ip3
I0501 07:41:01.684197  6642 net.cpp:86] Creating Layer ip3
I0501 07:41:01.684201  6642 net.cpp:408] ip3 <- ip2
I0501 07:41:01.684206  6642 net.cpp:382] ip3 -> ip3
I0501 07:41:01.684358  6642 net.cpp:124] Setting up ip3
I0501 07:41:01.684365  6642 net.cpp:131] Top shape: 1000 10 (10000)
I0501 07:41:01.684378  6642 net.cpp:139] Memory required for data: 180724000
I0501 07:41:01.684384  6642 layer_factory.hpp:77] Creating layer ip3_ip3_0_split
I0501 07:41:01.684391  6642 net.cpp:86] Creating Layer ip3_ip3_0_split
I0501 07:41:01.684394  6642 net.cpp:408] ip3_ip3_0_split <- ip3
I0501 07:41:01.684398  6642 net.cpp:382] ip3_ip3_0_split -> ip3_ip3_0_split_0
I0501 07:41:01.684406  6642 net.cpp:382] ip3_ip3_0_split -> ip3_ip3_0_split_1
I0501 07:41:01.684439  6642 net.cpp:124] Setting up ip3_ip3_0_split
I0501 07:41:01.684444  6642 net.cpp:131] Top shape: 1000 10 (10000)
I0501 07:41:01.684448  6642 net.cpp:131] Top shape: 1000 10 (10000)
I0501 07:41:01.684451  6642 net.cpp:139] Memory required for data: 180804000
I0501 07:41:01.684454  6642 layer_factory.hpp:77] Creating layer accuracy
I0501 07:41:01.684461  6642 net.cpp:86] Creating Layer accuracy
I0501 07:41:01.684465  6642 net.cpp:408] accuracy <- ip3_ip3_0_split_0
I0501 07:41:01.684469  6642 net.cpp:408] accuracy <- label_cifar_1_split_0
I0501 07:41:01.684473  6642 net.cpp:382] accuracy -> accuracy
…
