…
I0501 03:06:45.653884 19001 net.cpp:296] The NetState phase (0) differed from the phase (1) specified by a rule in layer cifar
I0501 03:06:45.653903 19001 net.cpp:296] The NetState phase (0) differed from the phase (1) specified by a rule in layer accuracy
I0501 03:06:45.654007 19001 net.cpp:53] Initializing net from parameters: 
name: "CIFAR"
state {
  phase: TRAIN
  level: 0
  stage: ""
}
layer {
  name: "cifar"
  type: "Data"
  top: "data"
  top: "label"
  include {
    phase: TRAIN
  }
  transform_param {
    mean_file: "examples/cifar10/mean.binaryproto"
  }
  data_param {
    source: "examples/cifar10/cifar10_train_lmdb"
    batch_size: 111
    backend: LMDB
  }
}
layer {
  name: "conv0"
  type: "Convolution"
  bottom: "data"
  top: "conv0"
  param {
    lr_mult: 1
  }
  param {
    lr_mult: 2
  }
  convolution_param {
    num_output: 8
    pad: 2
    kernel_size: 5
    stride: 1
    weight_filler {
      type: "gaussian"
      std: 0.01
    }
    bias_filler {
      type: "constant"
    }
  }
}
layer {
  name: "Sigmoid0"
  type: "Sigmoid"
  bottom: "conv0"
  top: "Sigmoid0"
}
layer {
  name: "pool0"
  type: "Pooling"
  bottom: "Sigmoid0"
  top: "pool0"
  pooling_param {
    pool: AVE
    kernel_size: 3
    stride: 2
  }
}
layer {
  name: "ip1"
  type: "InnerProduct"
  bottom: "pool0"
  top: "ip1"
  param {
    lr_mult: 1
  }
  param {
    lr_mult: 2
  }
  inner_product_param {
    num_output: 10
    weight_filler {
      type: "gaussian"
      std: 0.01
    }
    bias_filler {
      type: "constant"
    }
  }
}
layer {
  name: "relu1"
  type: "ReLU"
  bottom: "ip1"
  top: "ip1"
}
layer {
  name: "ip2"
  type: "InnerProduct"
  bottom: "ip1"
  top: "ip2"
  param {
    lr_mult: 1
  }
  param {
    lr_mult: 2
  }
  inner_product_param {
    num_output: 10
    weight_filler {
      type: "gaussian"
      std: 0.01
    }
    bias_filler {
      type: "constant"
    }
  }
}
layer {
  name: "relu2"
  type: "ReLU"
  bottom: "ip2"
  top: "ip2"
}
layer {
  name: "ip3"
  type: "InnerProduct"
  bottom: "ip2"
  top: "ip3"
  param {
    lr_mult: 1
  }
  param {
    lr_mult: 2
  }
  inner_product_param {
    num_output: 80
    weight_filler {
      type: "gaussian"
      std: 0.01
    }
    bias_filler {
      type: "constant"
    }
  }
}
layer {
  name: "relu3"
  type: "ReLU"
  bottom: "ip3"
  top: "ip3"
}
layer {
  name: "ip4"
  type: "InnerProduct"
  bottom: "ip3"
  top: "ip4"
  param {
    lr_mult: 1
  }
  param {
    lr_mult: 2
  }
  inner_product_param {
    num_output: 10
    weight_filler {
      type: "gaussian"
      std: 0.01
    }
    bias_filler {
      type: "constant"
    }
  }
}
layer {
  name: "loss"
  type: "SoftmaxWithLoss"
  bottom: "ip4"
  bottom: "label"
  top: "loss"
}
I0501 03:06:45.654086 19001 layer_factory.hpp:77] Creating layer cifar
I0501 03:06:45.654187 19001 db_lmdb.cpp:35] Opened lmdb examples/cifar10/cifar10_train_lmdb
I0501 03:06:45.654217 19001 net.cpp:86] Creating Layer cifar
I0501 03:06:45.654227 19001 net.cpp:382] cifar -> data
I0501 03:06:45.654253 19001 net.cpp:382] cifar -> label
I0501 03:06:45.654269 19001 data_transformer.cpp:25] Loading mean file from: examples/cifar10/mean.binaryproto
I0501 03:06:45.656378 19001 data_layer.cpp:45] output data size: 111,3,32,32
I0501 03:06:45.664230 19001 net.cpp:124] Setting up cifar
I0501 03:06:45.664252 19001 net.cpp:131] Top shape: 111 3 32 32 (340992)
I0501 03:06:45.664259 19001 net.cpp:131] Top shape: 111 (111)
I0501 03:06:45.664263 19001 net.cpp:139] Memory required for data: 1364412
I0501 03:06:45.664286 19001 layer_factory.hpp:77] Creating layer conv0
I0501 03:06:45.664307 19001 net.cpp:86] Creating Layer conv0
I0501 03:06:45.664314 19001 net.cpp:408] conv0 <- data
I0501 03:06:45.664326 19001 net.cpp:382] conv0 -> conv0
I0501 03:06:45.955865 19001 net.cpp:124] Setting up conv0
I0501 03:06:45.955893 19001 net.cpp:131] Top shape: 111 8 32 32 (909312)
I0501 03:06:45.955899 19001 net.cpp:139] Memory required for data: 5001660
I0501 03:06:45.955915 19001 layer_factory.hpp:77] Creating layer Sigmoid0
I0501 03:06:45.955929 19001 net.cpp:86] Creating Layer Sigmoid0
I0501 03:06:45.955934 19001 net.cpp:408] Sigmoid0 <- conv0
I0501 03:06:45.955940 19001 net.cpp:382] Sigmoid0 -> Sigmoid0
I0501 03:06:45.956128 19001 net.cpp:124] Setting up Sigmoid0
I0501 03:06:45.956140 19001 net.cpp:131] Top shape: 111 8 32 32 (909312)
I0501 03:06:45.956142 19001 net.cpp:139] Memory required for data: 8638908
I0501 03:06:45.956146 19001 layer_factory.hpp:77] Creating layer pool0
I0501 03:06:45.956153 19001 net.cpp:86] Creating Layer pool0
I0501 03:06:45.956157 19001 net.cpp:408] pool0 <- Sigmoid0
I0501 03:06:45.956163 19001 net.cpp:382] pool0 -> pool0
I0501 03:06:45.957000 19001 net.cpp:124] Setting up pool0
I0501 03:06:45.957015 19001 net.cpp:131] Top shape: 111 8 16 16 (227328)
I0501 03:06:45.957020 19001 net.cpp:139] Memory required for data: 9548220
I0501 03:06:45.957025 19001 layer_factory.hpp:77] Creating layer ip1
I0501 03:06:45.957034 19001 net.cpp:86] Creating Layer ip1
I0501 03:06:45.957037 19001 net.cpp:408] ip1 <- pool0
I0501 03:06:45.957043 19001 net.cpp:382] ip1 -> ip1
I0501 03:06:45.958676 19001 net.cpp:124] Setting up ip1
I0501 03:06:45.958690 19001 net.cpp:131] Top shape: 111 10 (1110)
I0501 03:06:45.958694 19001 net.cpp:139] Memory required for data: 9552660
I0501 03:06:45.958703 19001 layer_factory.hpp:77] Creating layer relu1
I0501 03:06:45.958710 19001 net.cpp:86] Creating Layer relu1
I0501 03:06:45.958714 19001 net.cpp:408] relu1 <- ip1
I0501 03:06:45.958719 19001 net.cpp:369] relu1 -> ip1 (in-place)
I0501 03:06:45.958891 19001 net.cpp:124] Setting up relu1
I0501 03:06:45.958901 19001 net.cpp:131] Top shape: 111 10 (1110)
I0501 03:06:45.958905 19001 net.cpp:139] Memory required for data: 9557100
I0501 03:06:45.958909 19001 layer_factory.hpp:77] Creating layer ip2
I0501 03:06:45.958916 19001 net.cpp:86] Creating Layer ip2
I0501 03:06:45.958920 19001 net.cpp:408] ip2 <- ip1
I0501 03:06:45.958925 19001 net.cpp:382] ip2 -> ip2
I0501 03:06:45.959028 19001 net.cpp:124] Setting up ip2
I0501 03:06:45.959038 19001 net.cpp:131] Top shape: 111 10 (1110)
I0501 03:06:45.959040 19001 net.cpp:139] Memory required for data: 9561540
I0501 03:06:45.959048 19001 layer_factory.hpp:77] Creating layer relu2
I0501 03:06:45.959058 19001 net.cpp:86] Creating Layer relu2
I0501 03:06:45.959060 19001 net.cpp:408] relu2 <- ip2
I0501 03:06:45.959065 19001 net.cpp:369] relu2 -> ip2 (in-place)
I0501 03:06:45.959233 19001 net.cpp:124] Setting up relu2
I0501 03:06:45.959242 19001 net.cpp:131] Top shape: 111 10 (1110)
I0501 03:06:45.959245 19001 net.cpp:139] Memory required for data: 9565980
I0501 03:06:45.959249 19001 layer_factory.hpp:77] Creating layer ip3
I0501 03:06:45.959257 19001 net.cpp:86] Creating Layer ip3
I0501 03:06:45.959260 19001 net.cpp:408] ip3 <- ip2
I0501 03:06:45.959265 19001 net.cpp:382] ip3 -> ip3
I0501 03:06:45.959393 19001 net.cpp:124] Setting up ip3
I0501 03:06:45.959399 19001 net.cpp:131] Top shape: 111 80 (8880)
I0501 03:06:45.959403 19001 net.cpp:139] Memory required for data: 9601500
I0501 03:06:45.959409 19001 layer_factory.hpp:77] Creating layer relu3
I0501 03:06:45.959415 19001 net.cpp:86] Creating Layer relu3
I0501 03:06:45.959419 19001 net.cpp:408] relu3 <- ip3
I0501 03:06:45.959424 19001 net.cpp:369] relu3 -> ip3 (in-place)
I0501 03:06:45.959588 19001 net.cpp:124] Setting up relu3
I0501 03:06:45.959596 19001 net.cpp:131] Top shape: 111 80 (8880)
I0501 03:06:45.959600 19001 net.cpp:139] Memory required for data: 9637020
I0501 03:06:45.959604 19001 layer_factory.hpp:77] Creating layer ip4
I0501 03:06:45.959626 19001 net.cpp:86] Creating Layer ip4
I0501 03:06:45.959632 19001 net.cpp:408] ip4 <- ip3
I0501 03:06:45.959638 19001 net.cpp:382] ip4 -> ip4
I0501 03:06:45.959766 19001 net.cpp:124] Setting up ip4
I0501 03:06:45.959775 19001 net.cpp:131] Top shape: 111 10 (1110)
I0501 03:06:45.959779 19001 net.cpp:139] Memory required for data: 9641460
I0501 03:06:45.959787 19001 layer_factory.hpp:77] Creating layer loss
I0501 03:06:45.959794 19001 net.cpp:86] Creating Layer loss
I0501 03:06:45.959797 19001 net.cpp:408] loss <- ip4
I0501 03:06:45.959801 19001 net.cpp:408] loss <- label
I0501 03:06:45.959807 19001 net.cpp:382] loss -> loss
I0501 03:06:45.959826 19001 layer_factory.hpp:77] Creating layer loss
…
I0501 03:06:45.961160 19001 solver.cpp:173] Creating test net (#0) specified by net file: ECE595/cifar/train_test/var_everything/cifar_train_test_343.prototxt
I0501 03:06:45.961192 19001 net.cpp:296] The NetState phase (1) differed from the phase (0) specified by a rule in layer cifar
I0501 03:06:45.961297 19001 net.cpp:53] Initializing net from parameters: 
name: "CIFAR"
state {
  phase: TEST
}
layer {
  name: "cifar"
  type: "Data"
  top: "data"
  top: "label"
  include {
    phase: TEST
  }
  transform_param {
    mean_file: "examples/cifar10/mean.binaryproto"
  }
  data_param {
    source: "examples/cifar10/cifar10_test_lmdb"
    batch_size: 1000
    backend: LMDB
  }
}
layer {
  name: "conv0"
  type: "Convolution"
  bottom: "data"
  top: "conv0"
  param {
    lr_mult: 1
  }
  param {
    lr_mult: 2
  }
  convolution_param {
    num_output: 8
    pad: 2
    kernel_size: 5
    stride: 1
    weight_filler {
      type: "gaussian"
      std: 0.01
    }
    bias_filler {
      type: "constant"
    }
  }
}
layer {
  name: "Sigmoid0"
  type: "Sigmoid"
  bottom: "conv0"
  top: "Sigmoid0"
}
layer {
  name: "pool0"
  type: "Pooling"
  bottom: "Sigmoid0"
  top: "pool0"
  pooling_param {
    pool: AVE
    kernel_size: 3
    stride: 2
  }
}
layer {
  name: "ip1"
  type: "InnerProduct"
  bottom: "pool0"
  top: "ip1"
  param {
    lr_mult: 1
  }
  param {
    lr_mult: 2
  }
  inner_product_param {
    num_output: 10
    weight_filler {
      type: "gaussian"
      std: 0.01
    }
    bias_filler {
      type: "constant"
    }
  }
}
layer {
  name: "relu1"
  type: "ReLU"
  bottom: "ip1"
  top: "ip1"
}
layer {
  name: "ip2"
  type: "InnerProduct"
  bottom: "ip1"
  top: "ip2"
  param {
    lr_mult: 1
  }
  param {
    lr_mult: 2
  }
  inner_product_param {
    num_output: 10
    weight_filler {
      type: "gaussian"
      std: 0.01
    }
    bias_filler {
      type: "constant"
    }
  }
}
layer {
  name: "relu2"
  type: "ReLU"
  bottom: "ip2"
  top: "ip2"
}
layer {
  name: "ip3"
  type: "InnerProduct"
  bottom: "ip2"
  top: "ip3"
  param {
    lr_mult: 1
  }
  param {
    lr_mult: 2
  }
  inner_product_param {
    num_output: 80
    weight_filler {
      type: "gaussian"
      std: 0.01
    }
    bias_filler {
      type: "constant"
    }
  }
}
layer {
  name: "relu3"
  type: "ReLU"
  bottom: "ip3"
  top: "ip3"
}
layer {
  name: "ip4"
  type: "InnerProduct"
  bottom: "ip3"
  top: "ip4"
  param {
    lr_mult: 1
  }
  param {
    lr_mult: 2
  }
  inner_product_param {
    num_output: 10
    weight_filler {
      type: "gaussian"
      std: 0.01
    }
    bias_filler {
      type: "constant"
    }
  }
}
layer {
  name: "accuracy"
  type: "Accuracy"
  bottom: "ip4"
  bottom: "label"
  top: "accuracy"
  include {
    phase: TEST
  }
}
layer {
  name: "loss"
  type: "SoftmaxWithLoss"
  bottom: "ip4"
  bottom: "label"
  top: "loss"
}
I0501 03:06:45.961385 19001 layer_factory.hpp:77] Creating layer cifar
I0501 03:06:45.961436 19001 db_lmdb.cpp:35] Opened lmdb examples/cifar10/cifar10_test_lmdb
I0501 03:06:45.961448 19001 net.cpp:86] Creating Layer cifar
I0501 03:06:45.961453 19001 net.cpp:382] cifar -> data
I0501 03:06:45.961462 19001 net.cpp:382] cifar -> label
I0501 03:06:45.961469 19001 data_transformer.cpp:25] Loading mean file from: examples/cifar10/mean.binaryproto
I0501 03:06:45.961627 19001 data_layer.cpp:45] output data size: 1000,3,32,32
I0501 03:06:45.985374 19001 net.cpp:124] Setting up cifar
I0501 03:06:45.985400 19001 net.cpp:131] Top shape: 1000 3 32 32 (3072000)
I0501 03:06:45.985406 19001 net.cpp:131] Top shape: 1000 (1000)
I0501 03:06:45.985410 19001 net.cpp:139] Memory required for data: 12292000
I0501 03:06:45.985415 19001 layer_factory.hpp:77] Creating layer label_cifar_1_split
I0501 03:06:45.985429 19001 net.cpp:86] Creating Layer label_cifar_1_split
I0501 03:06:45.985433 19001 net.cpp:408] label_cifar_1_split <- label
I0501 03:06:45.985440 19001 net.cpp:382] label_cifar_1_split -> label_cifar_1_split_0
I0501 03:06:45.985450 19001 net.cpp:382] label_cifar_1_split -> label_cifar_1_split_1
I0501 03:06:45.985545 19001 net.cpp:124] Setting up label_cifar_1_split
I0501 03:06:45.985553 19001 net.cpp:131] Top shape: 1000 (1000)
I0501 03:06:45.985558 19001 net.cpp:131] Top shape: 1000 (1000)
I0501 03:06:45.985559 19001 net.cpp:139] Memory required for data: 12300000
I0501 03:06:45.985563 19001 layer_factory.hpp:77] Creating layer conv0
I0501 03:06:45.985576 19001 net.cpp:86] Creating Layer conv0
I0501 03:06:45.985579 19001 net.cpp:408] conv0 <- data
I0501 03:06:45.985584 19001 net.cpp:382] conv0 -> conv0
I0501 03:06:45.987264 19001 net.cpp:124] Setting up conv0
I0501 03:06:45.987279 19001 net.cpp:131] Top shape: 1000 8 32 32 (8192000)
I0501 03:06:45.987282 19001 net.cpp:139] Memory required for data: 45068000
I0501 03:06:45.987293 19001 layer_factory.hpp:77] Creating layer Sigmoid0
I0501 03:06:45.987300 19001 net.cpp:86] Creating Layer Sigmoid0
I0501 03:06:45.987304 19001 net.cpp:408] Sigmoid0 <- conv0
I0501 03:06:45.987310 19001 net.cpp:382] Sigmoid0 -> Sigmoid0
I0501 03:06:45.987484 19001 net.cpp:124] Setting up Sigmoid0
I0501 03:06:45.987493 19001 net.cpp:131] Top shape: 1000 8 32 32 (8192000)
I0501 03:06:45.987496 19001 net.cpp:139] Memory required for data: 77836000
I0501 03:06:45.987500 19001 layer_factory.hpp:77] Creating layer pool0
I0501 03:06:45.987507 19001 net.cpp:86] Creating Layer pool0
I0501 03:06:45.987511 19001 net.cpp:408] pool0 <- Sigmoid0
I0501 03:06:45.987515 19001 net.cpp:382] pool0 -> pool0
I0501 03:06:45.987810 19001 net.cpp:124] Setting up pool0
I0501 03:06:45.987819 19001 net.cpp:131] Top shape: 1000 8 16 16 (2048000)
I0501 03:06:45.987823 19001 net.cpp:139] Memory required for data: 86028000
I0501 03:06:45.987826 19001 layer_factory.hpp:77] Creating layer ip1
I0501 03:06:45.987833 19001 net.cpp:86] Creating Layer ip1
I0501 03:06:45.987838 19001 net.cpp:408] ip1 <- pool0
I0501 03:06:45.987843 19001 net.cpp:382] ip1 -> ip1
I0501 03:06:45.989559 19001 net.cpp:124] Setting up ip1
I0501 03:06:45.989576 19001 net.cpp:131] Top shape: 1000 10 (10000)
I0501 03:06:45.989580 19001 net.cpp:139] Memory required for data: 86068000
I0501 03:06:45.989604 19001 layer_factory.hpp:77] Creating layer relu1
I0501 03:06:45.989612 19001 net.cpp:86] Creating Layer relu1
I0501 03:06:45.989615 19001 net.cpp:408] relu1 <- ip1
I0501 03:06:45.989620 19001 net.cpp:369] relu1 -> ip1 (in-place)
I0501 03:06:45.989817 19001 net.cpp:124] Setting up relu1
I0501 03:06:45.989827 19001 net.cpp:131] Top shape: 1000 10 (10000)
I0501 03:06:45.989830 19001 net.cpp:139] Memory required for data: 86108000
I0501 03:06:45.989835 19001 layer_factory.hpp:77] Creating layer ip2
I0501 03:06:45.989841 19001 net.cpp:86] Creating Layer ip2
I0501 03:06:45.989845 19001 net.cpp:408] ip2 <- ip1
I0501 03:06:45.989850 19001 net.cpp:382] ip2 -> ip2
I0501 03:06:45.989961 19001 net.cpp:124] Setting up ip2
I0501 03:06:45.989970 19001 net.cpp:131] Top shape: 1000 10 (10000)
I0501 03:06:45.989974 19001 net.cpp:139] Memory required for data: 86148000
I0501 03:06:45.989981 19001 layer_factory.hpp:77] Creating layer relu2
I0501 03:06:45.989989 19001 net.cpp:86] Creating Layer relu2
I0501 03:06:45.989991 19001 net.cpp:408] relu2 <- ip2
I0501 03:06:45.989995 19001 net.cpp:369] relu2 -> ip2 (in-place)
I0501 03:06:45.990792 19001 net.cpp:124] Setting up relu2
I0501 03:06:45.990806 19001 net.cpp:131] Top shape: 1000 10 (10000)
I0501 03:06:45.990809 19001 net.cpp:139] Memory required for data: 86188000
I0501 03:06:45.990813 19001 layer_factory.hpp:77] Creating layer ip3
I0501 03:06:45.990820 19001 net.cpp:86] Creating Layer ip3
I0501 03:06:45.990824 19001 net.cpp:408] ip3 <- ip2
I0501 03:06:45.990829 19001 net.cpp:382] ip3 -> ip3
I0501 03:06:45.990962 19001 net.cpp:124] Setting up ip3
I0501 03:06:45.990970 19001 net.cpp:131] Top shape: 1000 80 (80000)
I0501 03:06:45.990973 19001 net.cpp:139] Memory required for data: 86508000
I0501 03:06:45.990979 19001 layer_factory.hpp:77] Creating layer relu3
I0501 03:06:45.990984 19001 net.cpp:86] Creating Layer relu3
I0501 03:06:45.990989 19001 net.cpp:408] relu3 <- ip3
I0501 03:06:45.990993 19001 net.cpp:369] relu3 -> ip3 (in-place)
I0501 03:06:45.991147 19001 net.cpp:124] Setting up relu3
I0501 03:06:45.991155 19001 net.cpp:131] Top shape: 1000 80 (80000)
I0501 03:06:45.991158 19001 net.cpp:139] Memory required for data: 86828000
I0501 03:06:45.991161 19001 layer_factory.hpp:77] Creating layer ip4
I0501 03:06:45.991168 19001 net.cpp:86] Creating Layer ip4
I0501 03:06:45.991171 19001 net.cpp:408] ip4 <- ip3
I0501 03:06:45.991176 19001 net.cpp:382] ip4 -> ip4
I0501 03:06:45.991299 19001 net.cpp:124] Setting up ip4
I0501 03:06:45.991307 19001 net.cpp:131] Top shape: 1000 10 (10000)
I0501 03:06:45.991310 19001 net.cpp:139] Memory required for data: 86868000
I0501 03:06:45.991318 19001 layer_factory.hpp:77] Creating layer ip4_ip4_0_split
I0501 03:06:45.991324 19001 net.cpp:86] Creating Layer ip4_ip4_0_split
I0501 03:06:45.991328 19001 net.cpp:408] ip4_ip4_0_split <- ip4
I0501 03:06:45.991331 19001 net.cpp:382] ip4_ip4_0_split -> ip4_ip4_0_split_0
I0501 03:06:45.991338 19001 net.cpp:382] ip4_ip4_0_split -> ip4_ip4_0_split_1
I0501 03:06:45.991369 19001 net.cpp:124] Setting up ip4_ip4_0_split
I0501 03:06:45.991374 19001 net.cpp:131] Top shape: 1000 10 (10000)
I0501 03:06:45.991379 19001 net.cpp:131] Top shape: 1000 10 (10000)
I0501 03:06:45.991380 19001 net.cpp:139] Memory required for data: 86948000
I0501 03:06:45.991384 19001 layer_factory.hpp:77] Creating layer accuracy
I0501 03:06:45.991394 19001 net.cpp:86] Creating Layer accuracy
I0501 03:06:45.991399 19001 net.cpp:408] accuracy <- ip4_ip4_0_split_0
I0501 03:06:45.991402 19001 net.cpp:408] accuracy <- label_cifar_1_split_0
I0501 03:06:45.991407 19001 net.cpp:382] accuracy -> accuracy
…
