…
I0501 07:37:12.481909  6015 net.cpp:296] The NetState phase (0) differed from the phase (1) specified by a rule in layer cifar
I0501 07:37:12.481921  6015 net.cpp:296] The NetState phase (0) differed from the phase (1) specified by a rule in layer accuracy
I0501 07:37:12.481990  6015 net.cpp:53] Initializing net from parameters: 
name: "CIFAR"
state {
  phase: TRAIN
  level: 0
  stage: ""
}
layer {
  name: "cifar"
  type: "Data"
  top: "data"
  top: "label"
  include {
    phase: TRAIN
  }
  transform_param {
    mean_file: "examples/cifar10/mean.binaryproto"
  }
  data_param {
    source: "examples/cifar10/cifar10_train_lmdb"
    batch_size: 111
    backend: LMDB
  }
}
layer {
  name: "conv0"
  type: "Convolution"
  bottom: "data"
  top: "conv0"
  param {
    lr_mult: 1
  }
  param {
    lr_mult: 2
  }
  convolution_param {
    num_output: 16
    pad: 2
    kernel_size: 3
    stride: 1
    weight_filler {
      type: "gaussian"
      std: 0.01
    }
    bias_filler {
      type: "constant"
    }
  }
}
layer {
  name: "Sigmoid0"
  type: "Sigmoid"
  bottom: "conv0"
  top: "Sigmoid0"
}
layer {
  name: "pool0"
  type: "Pooling"
  bottom: "Sigmoid0"
  top: "pool0"
  pooling_param {
    pool: AVE
    kernel_size: 3
    stride: 2
  }
}
layer {
  name: "ip1"
  type: "InnerProduct"
  bottom: "pool0"
  top: "ip1"
  param {
    lr_mult: 1
  }
  param {
    lr_mult: 2
  }
  inner_product_param {
    num_output: 80
    weight_filler {
      type: "gaussian"
      std: 0.01
    }
    bias_filler {
      type: "constant"
    }
  }
}
layer {
  name: "relu1"
  type: "ReLU"
  bottom: "ip1"
  top: "ip1"
}
layer {
  name: "ip2"
  type: "InnerProduct"
  bottom: "ip1"
  top: "ip2"
  param {
    lr_mult: 1
  }
  param {
    lr_mult: 2
  }
  inner_product_param {
    num_output: 40
    weight_filler {
      type: "gaussian"
      std: 0.01
    }
    bias_filler {
      type: "constant"
    }
  }
}
layer {
  name: "relu2"
  type: "ReLU"
  bottom: "ip2"
  top: "ip2"
}
layer {
  name: "ip3"
  type: "InnerProduct"
  bottom: "ip2"
  top: "ip3"
  param {
    lr_mult: 1
  }
  param {
    lr_mult: 2
  }
  inner_product_param {
    num_output: 10
    weight_filler {
      type: "gaussian"
      std: 0.01
    }
    bias_filler {
      type: "constant"
    }
  }
}
layer {
  name: "loss"
  type: "SoftmaxWithLoss"
  bottom: "ip3"
  bottom: "label"
  top: "loss"
}
I0501 07:37:12.482043  6015 layer_factory.hpp:77] Creating layer cifar
I0501 07:37:12.482123  6015 db_lmdb.cpp:35] Opened lmdb examples/cifar10/cifar10_train_lmdb
I0501 07:37:12.482146  6015 net.cpp:86] Creating Layer cifar
I0501 07:37:12.482151  6015 net.cpp:382] cifar -> data
I0501 07:37:12.482168  6015 net.cpp:382] cifar -> label
I0501 07:37:12.482180  6015 data_transformer.cpp:25] Loading mean file from: examples/cifar10/mean.binaryproto
I0501 07:37:12.483969  6015 data_layer.cpp:45] output data size: 111,3,32,32
I0501 07:37:12.490759  6015 net.cpp:124] Setting up cifar
I0501 07:37:12.490789  6015 net.cpp:131] Top shape: 111 3 32 32 (340992)
I0501 07:37:12.490795  6015 net.cpp:131] Top shape: 111 (111)
I0501 07:37:12.490798  6015 net.cpp:139] Memory required for data: 1364412
I0501 07:37:12.490804  6015 layer_factory.hpp:77] Creating layer conv0
I0501 07:37:12.490820  6015 net.cpp:86] Creating Layer conv0
I0501 07:37:12.490824  6015 net.cpp:408] conv0 <- data
I0501 07:37:12.490833  6015 net.cpp:382] conv0 -> conv0
I0501 07:37:12.722476  6015 net.cpp:124] Setting up conv0
I0501 07:37:12.722535  6015 net.cpp:131] Top shape: 111 16 34 34 (2053056)
I0501 07:37:12.722540  6015 net.cpp:139] Memory required for data: 9576636
I0501 07:37:12.722555  6015 layer_factory.hpp:77] Creating layer Sigmoid0
I0501 07:37:12.722568  6015 net.cpp:86] Creating Layer Sigmoid0
I0501 07:37:12.722571  6015 net.cpp:408] Sigmoid0 <- conv0
I0501 07:37:12.722576  6015 net.cpp:382] Sigmoid0 -> Sigmoid0
I0501 07:37:12.722781  6015 net.cpp:124] Setting up Sigmoid0
I0501 07:37:12.722791  6015 net.cpp:131] Top shape: 111 16 34 34 (2053056)
I0501 07:37:12.722795  6015 net.cpp:139] Memory required for data: 17788860
I0501 07:37:12.722797  6015 layer_factory.hpp:77] Creating layer pool0
I0501 07:37:12.722805  6015 net.cpp:86] Creating Layer pool0
I0501 07:37:12.722808  6015 net.cpp:408] pool0 <- Sigmoid0
I0501 07:37:12.722812  6015 net.cpp:382] pool0 -> pool0
I0501 07:37:12.723593  6015 net.cpp:124] Setting up pool0
I0501 07:37:12.723605  6015 net.cpp:131] Top shape: 111 16 17 17 (513264)
I0501 07:37:12.723625  6015 net.cpp:139] Memory required for data: 19841916
I0501 07:37:12.723628  6015 layer_factory.hpp:77] Creating layer ip1
I0501 07:37:12.723637  6015 net.cpp:86] Creating Layer ip1
I0501 07:37:12.723640  6015 net.cpp:408] ip1 <- pool0
I0501 07:37:12.723645  6015 net.cpp:382] ip1 -> ip1
I0501 07:37:12.734064  6015 net.cpp:124] Setting up ip1
I0501 07:37:12.734092  6015 net.cpp:131] Top shape: 111 80 (8880)
I0501 07:37:12.734097  6015 net.cpp:139] Memory required for data: 19877436
I0501 07:37:12.734103  6015 layer_factory.hpp:77] Creating layer relu1
I0501 07:37:12.734109  6015 net.cpp:86] Creating Layer relu1
I0501 07:37:12.734113  6015 net.cpp:408] relu1 <- ip1
I0501 07:37:12.734117  6015 net.cpp:369] relu1 -> ip1 (in-place)
I0501 07:37:12.734283  6015 net.cpp:124] Setting up relu1
I0501 07:37:12.734293  6015 net.cpp:131] Top shape: 111 80 (8880)
I0501 07:37:12.734297  6015 net.cpp:139] Memory required for data: 19912956
I0501 07:37:12.734300  6015 layer_factory.hpp:77] Creating layer ip2
I0501 07:37:12.734307  6015 net.cpp:86] Creating Layer ip2
I0501 07:37:12.734309  6015 net.cpp:408] ip2 <- ip1
I0501 07:37:12.734314  6015 net.cpp:382] ip2 -> ip2
I0501 07:37:12.734514  6015 net.cpp:124] Setting up ip2
I0501 07:37:12.734522  6015 net.cpp:131] Top shape: 111 40 (4440)
I0501 07:37:12.734525  6015 net.cpp:139] Memory required for data: 19930716
I0501 07:37:12.734532  6015 layer_factory.hpp:77] Creating layer relu2
I0501 07:37:12.734537  6015 net.cpp:86] Creating Layer relu2
I0501 07:37:12.734540  6015 net.cpp:408] relu2 <- ip2
I0501 07:37:12.734544  6015 net.cpp:369] relu2 -> ip2 (in-place)
I0501 07:37:12.734726  6015 net.cpp:124] Setting up relu2
I0501 07:37:12.734735  6015 net.cpp:131] Top shape: 111 40 (4440)
I0501 07:37:12.734737  6015 net.cpp:139] Memory required for data: 19948476
I0501 07:37:12.734740  6015 layer_factory.hpp:77] Creating layer ip3
I0501 07:37:12.734763  6015 net.cpp:86] Creating Layer ip3
I0501 07:37:12.734766  6015 net.cpp:408] ip3 <- ip2
I0501 07:37:12.734771  6015 net.cpp:382] ip3 -> ip3
I0501 07:37:12.734879  6015 net.cpp:124] Setting up ip3
I0501 07:37:12.734886  6015 net.cpp:131] Top shape: 111 10 (1110)
I0501 07:37:12.734889  6015 net.cpp:139] Memory required for data: 19952916
I0501 07:37:12.734895  6015 layer_factory.hpp:77] Creating layer loss
I0501 07:37:12.734900  6015 net.cpp:86] Creating Layer loss
I0501 07:37:12.734904  6015 net.cpp:408] loss <- ip3
I0501 07:37:12.734907  6015 net.cpp:408] loss <- label
I0501 07:37:12.734913  6015 net.cpp:382] loss -> loss
I0501 07:37:12.734932  6015 layer_factory.hpp:77] Creating layer loss
…
I0501 07:37:12.735538  6015 solver.cpp:173] Creating test net (#0) specified by net file: ECE595/cifar/train_test/var_everything/cifar_train_test_487.prototxt
I0501 07:37:12.735563  6015 net.cpp:296] The NetState phase (1) differed from the phase (0) specified by a rule in layer cifar
I0501 07:37:12.735646  6015 net.cpp:53] Initializing net from parameters: 
name: "CIFAR"
state {
  phase: TEST
}
layer {
  name: "cifar"
  type: "Data"
  top: "data"
  top: "label"
  include {
    phase: TEST
  }
  transform_param {
    mean_file: "examples/cifar10/mean.binaryproto"
  }
  data_param {
    source: "examples/cifar10/cifar10_test_lmdb"
    batch_size: 1000
    backend: LMDB
  }
}
layer {
  name: "conv0"
  type: "Convolution"
  bottom: "data"
  top: "conv0"
  param {
    lr_mult: 1
  }
  param {
    lr_mult: 2
  }
  convolution_param {
    num_output: 16
    pad: 2
    kernel_size: 3
    stride: 1
    weight_filler {
      type: "gaussian"
      std: 0.01
    }
    bias_filler {
      type: "constant"
    }
  }
}
layer {
  name: "Sigmoid0"
  type: "Sigmoid"
  bottom: "conv0"
  top: "Sigmoid0"
}
layer {
  name: "pool0"
  type: "Pooling"
  bottom: "Sigmoid0"
  top: "pool0"
  pooling_param {
    pool: AVE
    kernel_size: 3
    stride: 2
  }
}
layer {
  name: "ip1"
  type: "InnerProduct"
  bottom: "pool0"
  top: "ip1"
  param {
    lr_mult: 1
  }
  param {
    lr_mult: 2
  }
  inner_product_param {
    num_output: 80
    weight_filler {
      type: "gaussian"
      std: 0.01
    }
    bias_filler {
      type: "constant"
    }
  }
}
layer {
  name: "relu1"
  type: "ReLU"
  bottom: "ip1"
  top: "ip1"
}
layer {
  name: "ip2"
  type: "InnerProduct"
  bottom: "ip1"
  top: "ip2"
  param {
    lr_mult: 1
  }
  param {
    lr_mult: 2
  }
  inner_product_param {
    num_output: 40
    weight_filler {
      type: "gaussian"
      std: 0.01
    }
    bias_filler {
      type: "constant"
    }
  }
}
layer {
  name: "relu2"
  type: "ReLU"
  bottom: "ip2"
  top: "ip2"
}
layer {
  name: "ip3"
  type: "InnerProduct"
  bottom: "ip2"
  top: "ip3"
  param {
    lr_mult: 1
  }
  param {
    lr_mult: 2
  }
  inner_product_param {
    num_output: 10
    weight_filler {
      type: "gaussian"
      std: 0.01
    }
    bias_filler {
      type: "constant"
    }
  }
}
layer {
  name: "accuracy"
  type: "Accuracy"
  bottom: "ip3"
  bottom: "label"
  top: "accuracy"
  include {
    phase: TEST
  }
}
layer {
  name: "loss"
  type: "SoftmaxWithLoss"
  bottom: "ip3"
  bottom: "label"
  top: "loss"
}
I0501 07:37:12.735707  6015 layer_factory.hpp:77] Creating layer cifar
I0501 07:37:12.735767  6015 db_lmdb.cpp:35] Opened lmdb examples/cifar10/cifar10_test_lmdb
I0501 07:37:12.735780  6015 net.cpp:86] Creating Layer cifar
I0501 07:37:12.735785  6015 net.cpp:382] cifar -> data
I0501 07:37:12.735791  6015 net.cpp:382] cifar -> label
I0501 07:37:12.735797  6015 data_transformer.cpp:25] Loading mean file from: examples/cifar10/mean.binaryproto
I0501 07:37:12.735936  6015 data_layer.cpp:45] output data size: 1000,3,32,32
I0501 07:37:12.758049  6015 net.cpp:124] Setting up cifar
I0501 07:37:12.758088  6015 net.cpp:131] Top shape: 1000 3 32 32 (3072000)
I0501 07:37:12.758095  6015 net.cpp:131] Top shape: 1000 (1000)
I0501 07:37:12.758097  6015 net.cpp:139] Memory required for data: 12292000
I0501 07:37:12.758102  6015 layer_factory.hpp:77] Creating layer label_cifar_1_split
I0501 07:37:12.758116  6015 net.cpp:86] Creating Layer label_cifar_1_split
I0501 07:37:12.758152  6015 net.cpp:408] label_cifar_1_split <- label
I0501 07:37:12.758158  6015 net.cpp:382] label_cifar_1_split -> label_cifar_1_split_0
I0501 07:37:12.758167  6015 net.cpp:382] label_cifar_1_split -> label_cifar_1_split_1
I0501 07:37:12.758267  6015 net.cpp:124] Setting up label_cifar_1_split
I0501 07:37:12.758275  6015 net.cpp:131] Top shape: 1000 (1000)
I0501 07:37:12.758278  6015 net.cpp:131] Top shape: 1000 (1000)
I0501 07:37:12.758281  6015 net.cpp:139] Memory required for data: 12300000
I0501 07:37:12.758285  6015 layer_factory.hpp:77] Creating layer conv0
I0501 07:37:12.758297  6015 net.cpp:86] Creating Layer conv0
I0501 07:37:12.758301  6015 net.cpp:408] conv0 <- data
I0501 07:37:12.758306  6015 net.cpp:382] conv0 -> conv0
I0501 07:37:12.759862  6015 net.cpp:124] Setting up conv0
I0501 07:37:12.759876  6015 net.cpp:131] Top shape: 1000 16 34 34 (18496000)
I0501 07:37:12.759896  6015 net.cpp:139] Memory required for data: 86284000
I0501 07:37:12.759905  6015 layer_factory.hpp:77] Creating layer Sigmoid0
I0501 07:37:12.759912  6015 net.cpp:86] Creating Layer Sigmoid0
I0501 07:37:12.759917  6015 net.cpp:408] Sigmoid0 <- conv0
I0501 07:37:12.759920  6015 net.cpp:382] Sigmoid0 -> Sigmoid0
I0501 07:37:12.760794  6015 net.cpp:124] Setting up Sigmoid0
I0501 07:37:12.760828  6015 net.cpp:131] Top shape: 1000 16 34 34 (18496000)
I0501 07:37:12.760848  6015 net.cpp:139] Memory required for data: 160268000
I0501 07:37:12.760851  6015 layer_factory.hpp:77] Creating layer pool0
I0501 07:37:12.760875  6015 net.cpp:86] Creating Layer pool0
I0501 07:37:12.760879  6015 net.cpp:408] pool0 <- Sigmoid0
I0501 07:37:12.760901  6015 net.cpp:382] pool0 -> pool0
I0501 07:37:12.762071  6015 net.cpp:124] Setting up pool0
I0501 07:37:12.762099  6015 net.cpp:131] Top shape: 1000 16 17 17 (4624000)
I0501 07:37:12.762104  6015 net.cpp:139] Memory required for data: 178764000
I0501 07:37:12.762109  6015 layer_factory.hpp:77] Creating layer ip1
I0501 07:37:12.762121  6015 net.cpp:86] Creating Layer ip1
I0501 07:37:12.762126  6015 net.cpp:408] ip1 <- pool0
I0501 07:37:12.762133  6015 net.cpp:382] ip1 -> ip1
I0501 07:37:12.773099  6015 net.cpp:124] Setting up ip1
I0501 07:37:12.773130  6015 net.cpp:131] Top shape: 1000 80 (80000)
I0501 07:37:12.773134  6015 net.cpp:139] Memory required for data: 179084000
I0501 07:37:12.773144  6015 layer_factory.hpp:77] Creating layer relu1
I0501 07:37:12.773151  6015 net.cpp:86] Creating Layer relu1
I0501 07:37:12.773155  6015 net.cpp:408] relu1 <- ip1
I0501 07:37:12.773175  6015 net.cpp:369] relu1 -> ip1 (in-place)
I0501 07:37:12.773404  6015 net.cpp:124] Setting up relu1
I0501 07:37:12.773414  6015 net.cpp:131] Top shape: 1000 80 (80000)
I0501 07:37:12.773418  6015 net.cpp:139] Memory required for data: 179404000
I0501 07:37:12.773422  6015 layer_factory.hpp:77] Creating layer ip2
I0501 07:37:12.773429  6015 net.cpp:86] Creating Layer ip2
I0501 07:37:12.773432  6015 net.cpp:408] ip2 <- ip1
I0501 07:37:12.773438  6015 net.cpp:382] ip2 -> ip2
I0501 07:37:12.773648  6015 net.cpp:124] Setting up ip2
I0501 07:37:12.773658  6015 net.cpp:131] Top shape: 1000 40 (40000)
I0501 07:37:12.773660  6015 net.cpp:139] Memory required for data: 179564000
I0501 07:37:12.773669  6015 layer_factory.hpp:77] Creating layer relu2
I0501 07:37:12.773674  6015 net.cpp:86] Creating Layer relu2
I0501 07:37:12.773679  6015 net.cpp:408] relu2 <- ip2
I0501 07:37:12.773684  6015 net.cpp:369] relu2 -> ip2 (in-place)
I0501 07:37:12.773864  6015 net.cpp:124] Setting up relu2
I0501 07:37:12.773871  6015 net.cpp:131] Top shape: 1000 40 (40000)
I0501 07:37:12.773875  6015 net.cpp:139] Memory required for data: 179724000
I0501 07:37:12.773879  6015 layer_factory.hpp:77] Creating layer ip3
I0501 07:37:12.773885  6015 net.cpp:86] Creating Layer ip3
I0501 07:37:12.773890  6015 net.cpp:408] ip3 <- ip2
I0501 07:37:12.773895  6015 net.cpp:382] ip3 -> ip3
I0501 07:37:12.774031  6015 net.cpp:124] Setting up ip3
I0501 07:37:12.774039  6015 net.cpp:131] Top shape: 1000 10 (10000)
I0501 07:37:12.774054  6015 net.cpp:139] Memory required for data: 179764000
I0501 07:37:12.774060  6015 layer_factory.hpp:77] Creating layer ip3_ip3_0_split
I0501 07:37:12.774065  6015 net.cpp:86] Creating Layer ip3_ip3_0_split
I0501 07:37:12.774068  6015 net.cpp:408] ip3_ip3_0_split <- ip3
I0501 07:37:12.774073  6015 net.cpp:382] ip3_ip3_0_split -> ip3_ip3_0_split_0
I0501 07:37:12.774080  6015 net.cpp:382] ip3_ip3_0_split -> ip3_ip3_0_split_1
I0501 07:37:12.774113  6015 net.cpp:124] Setting up ip3_ip3_0_split
I0501 07:37:12.774118  6015 net.cpp:131] Top shape: 1000 10 (10000)
I0501 07:37:12.774122  6015 net.cpp:131] Top shape: 1000 10 (10000)
I0501 07:37:12.774124  6015 net.cpp:139] Memory required for data: 179844000
I0501 07:37:12.774127  6015 layer_factory.hpp:77] Creating layer accuracy
I0501 07:37:12.774139  6015 net.cpp:86] Creating Layer accuracy
I0501 07:37:12.774142  6015 net.cpp:408] accuracy <- ip3_ip3_0_split_0
I0501 07:37:12.774147  6015 net.cpp:408] accuracy <- label_cifar_1_split_0
I0501 07:37:12.774152  6015 net.cpp:382] accuracy -> accuracy
…
