…
I0430 21:42:29.344096 31449 net.cpp:296] The NetState phase (0) differed from the phase (1) specified by a rule in layer cifar
I0430 21:42:29.344115 31449 net.cpp:296] The NetState phase (0) differed from the phase (1) specified by a rule in layer accuracy
I0430 21:42:29.344207 31449 net.cpp:53] Initializing net from parameters: 
name: "CIFAR"
state {
  phase: TRAIN
  level: 0
  stage: ""
}
layer {
  name: "cifar"
  type: "Data"
  top: "data"
  top: "label"
  include {
    phase: TRAIN
  }
  transform_param {
    mean_file: "examples/cifar10/mean.binaryproto"
  }
  data_param {
    source: "examples/cifar10/cifar10_train_lmdb"
    batch_size: 111
    backend: LMDB
  }
}
layer {
  name: "conv0"
  type: "Convolution"
  bottom: "data"
  top: "conv0"
  param {
    lr_mult: 1
  }
  param {
    lr_mult: 2
  }
  convolution_param {
    num_output: 8
    pad: 2
    kernel_size: 3
    stride: 1
    weight_filler {
      type: "gaussian"
      std: 0.01
    }
    bias_filler {
      type: "constant"
    }
  }
}
layer {
  name: "Sigmoid0"
  type: "Sigmoid"
  bottom: "conv0"
  top: "Sigmoid0"
}
layer {
  name: "pool0"
  type: "Pooling"
  bottom: "Sigmoid0"
  top: "pool0"
  pooling_param {
    pool: AVE
    kernel_size: 3
    stride: 2
  }
}
layer {
  name: "ip1"
  type: "InnerProduct"
  bottom: "pool0"
  top: "ip1"
  param {
    lr_mult: 1
  }
  param {
    lr_mult: 2
  }
  inner_product_param {
    num_output: 40
    weight_filler {
      type: "gaussian"
      std: 0.01
    }
    bias_filler {
      type: "constant"
    }
  }
}
layer {
  name: "relu1"
  type: "ReLU"
  bottom: "ip1"
  top: "ip1"
}
layer {
  name: "ip2"
  type: "InnerProduct"
  bottom: "ip1"
  top: "ip2"
  param {
    lr_mult: 1
  }
  param {
    lr_mult: 2
  }
  inner_product_param {
    num_output: 10
    weight_filler {
      type: "gaussian"
      std: 0.01
    }
    bias_filler {
      type: "constant"
    }
  }
}
layer {
  name: "relu2"
  type: "ReLU"
  bottom: "ip2"
  top: "ip2"
}
layer {
  name: "ip3"
  type: "InnerProduct"
  bottom: "ip2"
  top: "ip3"
  param {
    lr_mult: 1
  }
  param {
    lr_mult: 2
  }
  inner_product_param {
    num_output: 10
    weight_filler {
      type: "gaussian"
      std: 0.01
    }
    bias_filler {
      type: "constant"
    }
  }
}
layer {
  name: "loss"
  type: "SoftmaxWithLoss"
  bottom: "ip3"
  bottom: "label"
  top: "loss"
}
I0430 21:42:29.344280 31449 layer_factory.hpp:77] Creating layer cifar
I0430 21:42:29.344382 31449 db_lmdb.cpp:35] Opened lmdb examples/cifar10/cifar10_train_lmdb
I0430 21:42:29.344411 31449 net.cpp:86] Creating Layer cifar
I0430 21:42:29.344419 31449 net.cpp:382] cifar -> data
I0430 21:42:29.344442 31449 net.cpp:382] cifar -> label
I0430 21:42:29.344455 31449 data_transformer.cpp:25] Loading mean file from: examples/cifar10/mean.binaryproto
I0430 21:42:29.346577 31449 data_layer.cpp:45] output data size: 111,3,32,32
I0430 21:42:29.354437 31449 net.cpp:124] Setting up cifar
I0430 21:42:29.354460 31449 net.cpp:131] Top shape: 111 3 32 32 (340992)
I0430 21:42:29.354465 31449 net.cpp:131] Top shape: 111 (111)
I0430 21:42:29.354470 31449 net.cpp:139] Memory required for data: 1364412
I0430 21:42:29.354477 31449 layer_factory.hpp:77] Creating layer conv0
I0430 21:42:29.354496 31449 net.cpp:86] Creating Layer conv0
I0430 21:42:29.354502 31449 net.cpp:408] conv0 <- data
I0430 21:42:29.354513 31449 net.cpp:382] conv0 -> conv0
I0430 21:42:29.635524 31449 net.cpp:124] Setting up conv0
I0430 21:42:29.635571 31449 net.cpp:131] Top shape: 111 8 34 34 (1026528)
I0430 21:42:29.635576 31449 net.cpp:139] Memory required for data: 5470524
I0430 21:42:29.635591 31449 layer_factory.hpp:77] Creating layer Sigmoid0
I0430 21:42:29.635604 31449 net.cpp:86] Creating Layer Sigmoid0
I0430 21:42:29.635608 31449 net.cpp:408] Sigmoid0 <- conv0
I0430 21:42:29.635613 31449 net.cpp:382] Sigmoid0 -> Sigmoid0
I0430 21:42:29.635787 31449 net.cpp:124] Setting up Sigmoid0
I0430 21:42:29.635795 31449 net.cpp:131] Top shape: 111 8 34 34 (1026528)
I0430 21:42:29.635798 31449 net.cpp:139] Memory required for data: 9576636
I0430 21:42:29.635802 31449 layer_factory.hpp:77] Creating layer pool0
I0430 21:42:29.635808 31449 net.cpp:86] Creating Layer pool0
I0430 21:42:29.635812 31449 net.cpp:408] pool0 <- Sigmoid0
I0430 21:42:29.635815 31449 net.cpp:382] pool0 -> pool0
I0430 21:42:29.636566 31449 net.cpp:124] Setting up pool0
I0430 21:42:29.636580 31449 net.cpp:131] Top shape: 111 8 17 17 (256632)
I0430 21:42:29.636584 31449 net.cpp:139] Memory required for data: 10603164
I0430 21:42:29.636586 31449 layer_factory.hpp:77] Creating layer ip1
I0430 21:42:29.636596 31449 net.cpp:86] Creating Layer ip1
I0430 21:42:29.636600 31449 net.cpp:408] ip1 <- pool0
I0430 21:42:29.636605 31449 net.cpp:382] ip1 -> ip1
I0430 21:42:29.639178 31449 net.cpp:124] Setting up ip1
I0430 21:42:29.639188 31449 net.cpp:131] Top shape: 111 40 (4440)
I0430 21:42:29.639190 31449 net.cpp:139] Memory required for data: 10620924
I0430 21:42:29.639199 31449 layer_factory.hpp:77] Creating layer relu1
I0430 21:42:29.639204 31449 net.cpp:86] Creating Layer relu1
I0430 21:42:29.639206 31449 net.cpp:408] relu1 <- ip1
I0430 21:42:29.639210 31449 net.cpp:369] relu1 -> ip1 (in-place)
I0430 21:42:29.639372 31449 net.cpp:124] Setting up relu1
I0430 21:42:29.639380 31449 net.cpp:131] Top shape: 111 40 (4440)
I0430 21:42:29.639384 31449 net.cpp:139] Memory required for data: 10638684
I0430 21:42:29.639387 31449 layer_factory.hpp:77] Creating layer ip2
I0430 21:42:29.639392 31449 net.cpp:86] Creating Layer ip2
I0430 21:42:29.639395 31449 net.cpp:408] ip2 <- ip1
I0430 21:42:29.639400 31449 net.cpp:382] ip2 -> ip2
I0430 21:42:29.640324 31449 net.cpp:124] Setting up ip2
I0430 21:42:29.640337 31449 net.cpp:131] Top shape: 111 10 (1110)
I0430 21:42:29.640341 31449 net.cpp:139] Memory required for data: 10643124
I0430 21:42:29.640348 31449 layer_factory.hpp:77] Creating layer relu2
I0430 21:42:29.640354 31449 net.cpp:86] Creating Layer relu2
I0430 21:42:29.640357 31449 net.cpp:408] relu2 <- ip2
I0430 21:42:29.640362 31449 net.cpp:369] relu2 -> ip2 (in-place)
I0430 21:42:29.640547 31449 net.cpp:124] Setting up relu2
I0430 21:42:29.640557 31449 net.cpp:131] Top shape: 111 10 (1110)
I0430 21:42:29.640559 31449 net.cpp:139] Memory required for data: 10647564
I0430 21:42:29.640563 31449 layer_factory.hpp:77] Creating layer ip3
I0430 21:42:29.640570 31449 net.cpp:86] Creating Layer ip3
I0430 21:42:29.640573 31449 net.cpp:408] ip3 <- ip2
I0430 21:42:29.640578 31449 net.cpp:382] ip3 -> ip3
I0430 21:42:29.640668 31449 net.cpp:124] Setting up ip3
I0430 21:42:29.640676 31449 net.cpp:131] Top shape: 111 10 (1110)
I0430 21:42:29.640678 31449 net.cpp:139] Memory required for data: 10652004
I0430 21:42:29.640683 31449 layer_factory.hpp:77] Creating layer loss
I0430 21:42:29.640688 31449 net.cpp:86] Creating Layer loss
I0430 21:42:29.640691 31449 net.cpp:408] loss <- ip3
I0430 21:42:29.640696 31449 net.cpp:408] loss <- label
I0430 21:42:29.640700 31449 net.cpp:382] loss -> loss
I0430 21:42:29.640717 31449 layer_factory.hpp:77] Creating layer loss
…
I0430 21:42:29.641470 31449 solver.cpp:173] Creating test net (#0) specified by net file: ECE595/cifar/train_test/var_everything/cifar_train_test_170.prototxt
I0430 21:42:29.641525 31449 net.cpp:296] The NetState phase (1) differed from the phase (0) specified by a rule in layer cifar
I0430 21:42:29.641638 31449 net.cpp:53] Initializing net from parameters: 
name: "CIFAR"
state {
  phase: TEST
}
layer {
  name: "cifar"
  type: "Data"
  top: "data"
  top: "label"
  include {
    phase: TEST
  }
  transform_param {
    mean_file: "examples/cifar10/mean.binaryproto"
  }
  data_param {
    source: "examples/cifar10/cifar10_test_lmdb"
    batch_size: 1000
    backend: LMDB
  }
}
layer {
  name: "conv0"
  type: "Convolution"
  bottom: "data"
  top: "conv0"
  param {
    lr_mult: 1
  }
  param {
    lr_mult: 2
  }
  convolution_param {
    num_output: 8
    pad: 2
    kernel_size: 3
    stride: 1
    weight_filler {
      type: "gaussian"
      std: 0.01
    }
    bias_filler {
      type: "constant"
    }
  }
}
layer {
  name: "Sigmoid0"
  type: "Sigmoid"
  bottom: "conv0"
  top: "Sigmoid0"
}
layer {
  name: "pool0"
  type: "Pooling"
  bottom: "Sigmoid0"
  top: "pool0"
  pooling_param {
    pool: AVE
    kernel_size: 3
    stride: 2
  }
}
layer {
  name: "ip1"
  type: "InnerProduct"
  bottom: "pool0"
  top: "ip1"
  param {
    lr_mult: 1
  }
  param {
    lr_mult: 2
  }
  inner_product_param {
    num_output: 40
    weight_filler {
      type: "gaussian"
      std: 0.01
    }
    bias_filler {
      type: "constant"
    }
  }
}
layer {
  name: "relu1"
  type: "ReLU"
  bottom: "ip1"
  top: "ip1"
}
layer {
  name: "ip2"
  type: "InnerProduct"
  bottom: "ip1"
  top: "ip2"
  param {
    lr_mult: 1
  }
  param {
    lr_mult: 2
  }
  inner_product_param {
    num_output: 10
    weight_filler {
      type: "gaussian"
      std: 0.01
    }
    bias_filler {
      type: "constant"
    }
  }
}
layer {
  name: "relu2"
  type: "ReLU"
  bottom: "ip2"
  top: "ip2"
}
layer {
  name: "ip3"
  type: "InnerProduct"
  bottom: "ip2"
  top: "ip3"
  param {
    lr_mult: 1
  }
  param {
    lr_mult: 2
  }
  inner_product_param {
    num_output: 10
    weight_filler {
      type: "gaussian"
      std: 0.01
    }
    bias_filler {
      type: "constant"
    }
  }
}
layer {
  name: "accuracy"
  type: "Accuracy"
  bottom: "ip3"
  bottom: "label"
  top: "accuracy"
  include {
    phase: TEST
  }
}
layer {
  name: "loss"
  type: "SoftmaxWithLoss"
  bottom: "ip3"
  bottom: "label"
  top: "loss"
}
I0430 21:42:29.641697 31449 layer_factory.hpp:77] Creating layer cifar
I0430 21:42:29.641742 31449 db_lmdb.cpp:35] Opened lmdb examples/cifar10/cifar10_test_lmdb
I0430 21:42:29.641754 31449 net.cpp:86] Creating Layer cifar
I0430 21:42:29.641759 31449 net.cpp:382] cifar -> data
I0430 21:42:29.641767 31449 net.cpp:382] cifar -> label
I0430 21:42:29.641772 31449 data_transformer.cpp:25] Loading mean file from: examples/cifar10/mean.binaryproto
I0430 21:42:29.641909 31449 data_layer.cpp:45] output data size: 1000,3,32,32
I0430 21:42:29.663605 31449 net.cpp:124] Setting up cifar
I0430 21:42:29.663647 31449 net.cpp:131] Top shape: 1000 3 32 32 (3072000)
I0430 21:42:29.663668 31449 net.cpp:131] Top shape: 1000 (1000)
I0430 21:42:29.663672 31449 net.cpp:139] Memory required for data: 12292000
I0430 21:42:29.663678 31449 layer_factory.hpp:77] Creating layer label_cifar_1_split
I0430 21:42:29.663697 31449 net.cpp:86] Creating Layer label_cifar_1_split
I0430 21:42:29.663749 31449 net.cpp:408] label_cifar_1_split <- label
I0430 21:42:29.663758 31449 net.cpp:382] label_cifar_1_split -> label_cifar_1_split_0
I0430 21:42:29.663766 31449 net.cpp:382] label_cifar_1_split -> label_cifar_1_split_1
I0430 21:42:29.663833 31449 net.cpp:124] Setting up label_cifar_1_split
I0430 21:42:29.663841 31449 net.cpp:131] Top shape: 1000 (1000)
I0430 21:42:29.663846 31449 net.cpp:131] Top shape: 1000 (1000)
I0430 21:42:29.663849 31449 net.cpp:139] Memory required for data: 12300000
I0430 21:42:29.663852 31449 layer_factory.hpp:77] Creating layer conv0
I0430 21:42:29.663866 31449 net.cpp:86] Creating Layer conv0
I0430 21:42:29.663869 31449 net.cpp:408] conv0 <- data
I0430 21:42:29.663874 31449 net.cpp:382] conv0 -> conv0
I0430 21:42:29.665606 31449 net.cpp:124] Setting up conv0
I0430 21:42:29.665635 31449 net.cpp:131] Top shape: 1000 8 34 34 (9248000)
I0430 21:42:29.665638 31449 net.cpp:139] Memory required for data: 49292000
I0430 21:42:29.665648 31449 layer_factory.hpp:77] Creating layer Sigmoid0
I0430 21:42:29.665655 31449 net.cpp:86] Creating Layer Sigmoid0
I0430 21:42:29.665658 31449 net.cpp:408] Sigmoid0 <- conv0
I0430 21:42:29.665664 31449 net.cpp:382] Sigmoid0 -> Sigmoid0
I0430 21:42:29.667553 31449 net.cpp:124] Setting up Sigmoid0
I0430 21:42:29.667568 31449 net.cpp:131] Top shape: 1000 8 34 34 (9248000)
I0430 21:42:29.667587 31449 net.cpp:139] Memory required for data: 86284000
I0430 21:42:29.667590 31449 layer_factory.hpp:77] Creating layer pool0
I0430 21:42:29.667601 31449 net.cpp:86] Creating Layer pool0
I0430 21:42:29.667604 31449 net.cpp:408] pool0 <- Sigmoid0
I0430 21:42:29.667610 31449 net.cpp:382] pool0 -> pool0
I0430 21:42:29.667793 31449 net.cpp:124] Setting up pool0
I0430 21:42:29.667801 31449 net.cpp:131] Top shape: 1000 8 17 17 (2312000)
I0430 21:42:29.667804 31449 net.cpp:139] Memory required for data: 95532000
I0430 21:42:29.667809 31449 layer_factory.hpp:77] Creating layer ip1
I0430 21:42:29.667815 31449 net.cpp:86] Creating Layer ip1
I0430 21:42:29.667819 31449 net.cpp:408] ip1 <- pool0
I0430 21:42:29.667824 31449 net.cpp:382] ip1 -> ip1
I0430 21:42:29.670459 31449 net.cpp:124] Setting up ip1
I0430 21:42:29.670471 31449 net.cpp:131] Top shape: 1000 40 (40000)
I0430 21:42:29.670490 31449 net.cpp:139] Memory required for data: 95692000
I0430 21:42:29.670497 31449 layer_factory.hpp:77] Creating layer relu1
I0430 21:42:29.670505 31449 net.cpp:86] Creating Layer relu1
I0430 21:42:29.670507 31449 net.cpp:408] relu1 <- ip1
I0430 21:42:29.670511 31449 net.cpp:369] relu1 -> ip1 (in-place)
I0430 21:42:29.670686 31449 net.cpp:124] Setting up relu1
I0430 21:42:29.670694 31449 net.cpp:131] Top shape: 1000 40 (40000)
I0430 21:42:29.670697 31449 net.cpp:139] Memory required for data: 95852000
I0430 21:42:29.670701 31449 layer_factory.hpp:77] Creating layer ip2
I0430 21:42:29.670708 31449 net.cpp:86] Creating Layer ip2
I0430 21:42:29.670711 31449 net.cpp:408] ip2 <- ip1
I0430 21:42:29.670718 31449 net.cpp:382] ip2 -> ip2
I0430 21:42:29.670837 31449 net.cpp:124] Setting up ip2
I0430 21:42:29.670845 31449 net.cpp:131] Top shape: 1000 10 (10000)
I0430 21:42:29.670847 31449 net.cpp:139] Memory required for data: 95892000
I0430 21:42:29.670855 31449 layer_factory.hpp:77] Creating layer relu2
I0430 21:42:29.670861 31449 net.cpp:86] Creating Layer relu2
I0430 21:42:29.670863 31449 net.cpp:408] relu2 <- ip2
I0430 21:42:29.670868 31449 net.cpp:369] relu2 -> ip2 (in-place)
I0430 21:42:29.671025 31449 net.cpp:124] Setting up relu2
I0430 21:42:29.671032 31449 net.cpp:131] Top shape: 1000 10 (10000)
I0430 21:42:29.671036 31449 net.cpp:139] Memory required for data: 95932000
I0430 21:42:29.671041 31449 layer_factory.hpp:77] Creating layer ip3
I0430 21:42:29.671046 31449 net.cpp:86] Creating Layer ip3
I0430 21:42:29.671049 31449 net.cpp:408] ip3 <- ip2
I0430 21:42:29.671054 31449 net.cpp:382] ip3 -> ip3
I0430 21:42:29.671159 31449 net.cpp:124] Setting up ip3
I0430 21:42:29.671165 31449 net.cpp:131] Top shape: 1000 10 (10000)
I0430 21:42:29.671169 31449 net.cpp:139] Memory required for data: 95972000
I0430 21:42:29.671185 31449 layer_factory.hpp:77] Creating layer ip3_ip3_0_split
I0430 21:42:29.671191 31449 net.cpp:86] Creating Layer ip3_ip3_0_split
I0430 21:42:29.671195 31449 net.cpp:408] ip3_ip3_0_split <- ip3
I0430 21:42:29.671200 31449 net.cpp:382] ip3_ip3_0_split -> ip3_ip3_0_split_0
I0430 21:42:29.671205 31449 net.cpp:382] ip3_ip3_0_split -> ip3_ip3_0_split_1
I0430 21:42:29.671237 31449 net.cpp:124] Setting up ip3_ip3_0_split
I0430 21:42:29.671242 31449 net.cpp:131] Top shape: 1000 10 (10000)
I0430 21:42:29.671247 31449 net.cpp:131] Top shape: 1000 10 (10000)
I0430 21:42:29.671249 31449 net.cpp:139] Memory required for data: 96052000
I0430 21:42:29.671252 31449 layer_factory.hpp:77] Creating layer accuracy
I0430 21:42:29.671257 31449 net.cpp:86] Creating Layer accuracy
I0430 21:42:29.671260 31449 net.cpp:408] accuracy <- ip3_ip3_0_split_0
I0430 21:42:29.671264 31449 net.cpp:408] accuracy <- label_cifar_1_split_0
I0430 21:42:29.671270 31449 net.cpp:382] accuracy -> accuracy
…
