…
I0501 03:19:41.404592 20132 net.cpp:296] The NetState phase (0) differed from the phase (1) specified by a rule in layer cifar
I0501 03:19:41.404614 20132 net.cpp:296] The NetState phase (0) differed from the phase (1) specified by a rule in layer accuracy
I0501 03:19:41.404721 20132 net.cpp:53] Initializing net from parameters: 
name: "CIFAR"
state {
  phase: TRAIN
  level: 0
  stage: ""
}
layer {
  name: "cifar"
  type: "Data"
  top: "data"
  top: "label"
  include {
    phase: TRAIN
  }
  transform_param {
    mean_file: "examples/cifar10/mean.binaryproto"
  }
  data_param {
    source: "examples/cifar10/cifar10_train_lmdb"
    batch_size: 111
    backend: LMDB
  }
}
layer {
  name: "conv0"
  type: "Convolution"
  bottom: "data"
  top: "conv0"
  param {
    lr_mult: 1
  }
  param {
    lr_mult: 2
  }
  convolution_param {
    num_output: 8
    pad: 2
    kernel_size: 5
    stride: 1
    weight_filler {
      type: "gaussian"
      std: 0.01
    }
    bias_filler {
      type: "constant"
    }
  }
}
layer {
  name: "Sigmoid0"
  type: "Sigmoid"
  bottom: "conv0"
  top: "Sigmoid0"
}
layer {
  name: "pool0"
  type: "Pooling"
  bottom: "Sigmoid0"
  top: "pool0"
  pooling_param {
    pool: AVE
    kernel_size: 3
    stride: 2
  }
}
layer {
  name: "ip1"
  type: "InnerProduct"
  bottom: "pool0"
  top: "ip1"
  param {
    lr_mult: 1
  }
  param {
    lr_mult: 2
  }
  inner_product_param {
    num_output: 10
    weight_filler {
      type: "gaussian"
      std: 0.01
    }
    bias_filler {
      type: "constant"
    }
  }
}
layer {
  name: "relu1"
  type: "ReLU"
  bottom: "ip1"
  top: "ip1"
}
layer {
  name: "ip2"
  type: "InnerProduct"
  bottom: "ip1"
  top: "ip2"
  param {
    lr_mult: 1
  }
  param {
    lr_mult: 2
  }
  inner_product_param {
    num_output: 40
    weight_filler {
      type: "gaussian"
      std: 0.01
    }
    bias_filler {
      type: "constant"
    }
  }
}
layer {
  name: "relu2"
  type: "ReLU"
  bottom: "ip2"
  top: "ip2"
}
layer {
  name: "ip3"
  type: "InnerProduct"
  bottom: "ip2"
  top: "ip3"
  param {
    lr_mult: 1
  }
  param {
    lr_mult: 2
  }
  inner_product_param {
    num_output: 10
    weight_filler {
      type: "gaussian"
      std: 0.01
    }
    bias_filler {
      type: "constant"
    }
  }
}
layer {
  name: "relu3"
  type: "ReLU"
  bottom: "ip3"
  top: "ip3"
}
layer {
  name: "ip4"
  type: "InnerProduct"
  bottom: "ip3"
  top: "ip4"
  param {
    lr_mult: 1
  }
  param {
    lr_mult: 2
  }
  inner_product_param {
    num_output: 10
    weight_filler {
      type: "gaussian"
      std: 0.01
    }
    bias_filler {
      type: "constant"
    }
  }
}
layer {
  name: "loss"
  type: "SoftmaxWithLoss"
  bottom: "ip4"
  bottom: "label"
  top: "loss"
}
I0501 03:19:41.404835 20132 layer_factory.hpp:77] Creating layer cifar
I0501 03:19:41.404969 20132 db_lmdb.cpp:35] Opened lmdb examples/cifar10/cifar10_train_lmdb
I0501 03:19:41.405005 20132 net.cpp:86] Creating Layer cifar
I0501 03:19:41.405017 20132 net.cpp:382] cifar -> data
I0501 03:19:41.405048 20132 net.cpp:382] cifar -> label
I0501 03:19:41.405066 20132 data_transformer.cpp:25] Loading mean file from: examples/cifar10/mean.binaryproto
I0501 03:19:41.407409 20132 data_layer.cpp:45] output data size: 111,3,32,32
I0501 03:19:41.415282 20132 net.cpp:124] Setting up cifar
I0501 03:19:41.415303 20132 net.cpp:131] Top shape: 111 3 32 32 (340992)
I0501 03:19:41.415314 20132 net.cpp:131] Top shape: 111 (111)
I0501 03:19:41.415320 20132 net.cpp:139] Memory required for data: 1364412
I0501 03:19:41.415356 20132 layer_factory.hpp:77] Creating layer conv0
I0501 03:19:41.415385 20132 net.cpp:86] Creating Layer conv0
I0501 03:19:41.415393 20132 net.cpp:408] conv0 <- data
I0501 03:19:41.415416 20132 net.cpp:382] conv0 -> conv0
I0501 03:19:41.710352 20132 net.cpp:124] Setting up conv0
I0501 03:19:41.710389 20132 net.cpp:131] Top shape: 111 8 32 32 (909312)
I0501 03:19:41.710397 20132 net.cpp:139] Memory required for data: 5001660
I0501 03:19:41.710422 20132 layer_factory.hpp:77] Creating layer Sigmoid0
I0501 03:19:41.710440 20132 net.cpp:86] Creating Layer Sigmoid0
I0501 03:19:41.710448 20132 net.cpp:408] Sigmoid0 <- conv0
I0501 03:19:41.710459 20132 net.cpp:382] Sigmoid0 -> Sigmoid0
I0501 03:19:41.710676 20132 net.cpp:124] Setting up Sigmoid0
I0501 03:19:41.710690 20132 net.cpp:131] Top shape: 111 8 32 32 (909312)
I0501 03:19:41.710697 20132 net.cpp:139] Memory required for data: 8638908
I0501 03:19:41.710705 20132 layer_factory.hpp:77] Creating layer pool0
I0501 03:19:41.710716 20132 net.cpp:86] Creating Layer pool0
I0501 03:19:41.710722 20132 net.cpp:408] pool0 <- Sigmoid0
I0501 03:19:41.710732 20132 net.cpp:382] pool0 -> pool0
I0501 03:19:41.711623 20132 net.cpp:124] Setting up pool0
I0501 03:19:41.711642 20132 net.cpp:131] Top shape: 111 8 16 16 (227328)
I0501 03:19:41.711649 20132 net.cpp:139] Memory required for data: 9548220
I0501 03:19:41.711657 20132 layer_factory.hpp:77] Creating layer ip1
I0501 03:19:41.711678 20132 net.cpp:86] Creating Layer ip1
I0501 03:19:41.711688 20132 net.cpp:408] ip1 <- pool0
I0501 03:19:41.711699 20132 net.cpp:382] ip1 -> ip1
I0501 03:19:41.713496 20132 net.cpp:124] Setting up ip1
I0501 03:19:41.713515 20132 net.cpp:131] Top shape: 111 10 (1110)
I0501 03:19:41.713521 20132 net.cpp:139] Memory required for data: 9552660
I0501 03:19:41.713536 20132 layer_factory.hpp:77] Creating layer relu1
I0501 03:19:41.713548 20132 net.cpp:86] Creating Layer relu1
I0501 03:19:41.713556 20132 net.cpp:408] relu1 <- ip1
I0501 03:19:41.713564 20132 net.cpp:369] relu1 -> ip1 (in-place)
I0501 03:19:41.713762 20132 net.cpp:124] Setting up relu1
I0501 03:19:41.713775 20132 net.cpp:131] Top shape: 111 10 (1110)
I0501 03:19:41.713781 20132 net.cpp:139] Memory required for data: 9557100
I0501 03:19:41.713788 20132 layer_factory.hpp:77] Creating layer ip2
I0501 03:19:41.713800 20132 net.cpp:86] Creating Layer ip2
I0501 03:19:41.713807 20132 net.cpp:408] ip2 <- ip1
I0501 03:19:41.713817 20132 net.cpp:382] ip2 -> ip2
I0501 03:19:41.713953 20132 net.cpp:124] Setting up ip2
I0501 03:19:41.713963 20132 net.cpp:131] Top shape: 111 40 (4440)
I0501 03:19:41.713969 20132 net.cpp:139] Memory required for data: 9574860
I0501 03:19:41.713984 20132 layer_factory.hpp:77] Creating layer relu2
I0501 03:19:41.713994 20132 net.cpp:86] Creating Layer relu2
I0501 03:19:41.714000 20132 net.cpp:408] relu2 <- ip2
I0501 03:19:41.714010 20132 net.cpp:369] relu2 -> ip2 (in-place)
I0501 03:19:41.714203 20132 net.cpp:124] Setting up relu2
I0501 03:19:41.714215 20132 net.cpp:131] Top shape: 111 40 (4440)
I0501 03:19:41.714221 20132 net.cpp:139] Memory required for data: 9592620
I0501 03:19:41.714228 20132 layer_factory.hpp:77] Creating layer ip3
I0501 03:19:41.714241 20132 net.cpp:86] Creating Layer ip3
I0501 03:19:41.714248 20132 net.cpp:408] ip3 <- ip2
I0501 03:19:41.714258 20132 net.cpp:382] ip3 -> ip3
I0501 03:19:41.714392 20132 net.cpp:124] Setting up ip3
I0501 03:19:41.714403 20132 net.cpp:131] Top shape: 111 10 (1110)
I0501 03:19:41.714411 20132 net.cpp:139] Memory required for data: 9597060
I0501 03:19:41.714421 20132 layer_factory.hpp:77] Creating layer relu3
I0501 03:19:41.714431 20132 net.cpp:86] Creating Layer relu3
I0501 03:19:41.714437 20132 net.cpp:408] relu3 <- ip3
I0501 03:19:41.714445 20132 net.cpp:369] relu3 -> ip3 (in-place)
I0501 03:19:41.714632 20132 net.cpp:124] Setting up relu3
I0501 03:19:41.714643 20132 net.cpp:131] Top shape: 111 10 (1110)
I0501 03:19:41.714649 20132 net.cpp:139] Memory required for data: 9601500
I0501 03:19:41.714656 20132 layer_factory.hpp:77] Creating layer ip4
I0501 03:19:41.714691 20132 net.cpp:86] Creating Layer ip4
I0501 03:19:41.714699 20132 net.cpp:408] ip4 <- ip3
I0501 03:19:41.714709 20132 net.cpp:382] ip4 -> ip4
I0501 03:19:41.714831 20132 net.cpp:124] Setting up ip4
I0501 03:19:41.714843 20132 net.cpp:131] Top shape: 111 10 (1110)
I0501 03:19:41.714848 20132 net.cpp:139] Memory required for data: 9605940
I0501 03:19:41.714864 20132 layer_factory.hpp:77] Creating layer loss
I0501 03:19:41.714876 20132 net.cpp:86] Creating Layer loss
I0501 03:19:41.714884 20132 net.cpp:408] loss <- ip4
I0501 03:19:41.714892 20132 net.cpp:408] loss <- label
I0501 03:19:41.714901 20132 net.cpp:382] loss -> loss
I0501 03:19:41.714929 20132 layer_factory.hpp:77] Creating layer loss
…
I0501 03:19:41.716433 20132 solver.cpp:173] Creating test net (#0) specified by net file: ECE595/cifar/train_test/var_everything/cifar_train_test_350.prototxt
I0501 03:19:41.716475 20132 net.cpp:296] The NetState phase (1) differed from the phase (0) specified by a rule in layer cifar
I0501 03:19:41.716598 20132 net.cpp:53] Initializing net from parameters: 
name: "CIFAR"
state {
  phase: TEST
}
layer {
  name: "cifar"
  type: "Data"
  top: "data"
  top: "label"
  include {
    phase: TEST
  }
  transform_param {
    mean_file: "examples/cifar10/mean.binaryproto"
  }
  data_param {
    source: "examples/cifar10/cifar10_test_lmdb"
    batch_size: 1000
    backend: LMDB
  }
}
layer {
  name: "conv0"
  type: "Convolution"
  bottom: "data"
  top: "conv0"
  param {
    lr_mult: 1
  }
  param {
    lr_mult: 2
  }
  convolution_param {
    num_output: 8
    pad: 2
    kernel_size: 5
    stride: 1
    weight_filler {
      type: "gaussian"
      std: 0.01
    }
    bias_filler {
      type: "constant"
    }
  }
}
layer {
  name: "Sigmoid0"
  type: "Sigmoid"
  bottom: "conv0"
  top: "Sigmoid0"
}
layer {
  name: "pool0"
  type: "Pooling"
  bottom: "Sigmoid0"
  top: "pool0"
  pooling_param {
    pool: AVE
    kernel_size: 3
    stride: 2
  }
}
layer {
  name: "ip1"
  type: "InnerProduct"
  bottom: "pool0"
  top: "ip1"
  param {
    lr_mult: 1
  }
  param {
    lr_mult: 2
  }
  inner_product_param {
    num_output: 10
    weight_filler {
      type: "gaussian"
      std: 0.01
    }
    bias_filler {
      type: "constant"
    }
  }
}
layer {
  name: "relu1"
  type: "ReLU"
  bottom: "ip1"
  top: "ip1"
}
layer {
  name: "ip2"
  type: "InnerProduct"
  bottom: "ip1"
  top: "ip2"
  param {
    lr_mult: 1
  }
  param {
    lr_mult: 2
  }
  inner_product_param {
    num_output: 40
    weight_filler {
      type: "gaussian"
      std: 0.01
    }
    bias_filler {
      type: "constant"
    }
  }
}
layer {
  name: "relu2"
  type: "ReLU"
  bottom: "ip2"
  top: "ip2"
}
layer {
  name: "ip3"
  type: "InnerProduct"
  bottom: "ip2"
  top: "ip3"
  param {
    lr_mult: 1
  }
  param {
    lr_mult: 2
  }
  inner_product_param {
    num_output: 10
    weight_filler {
      type: "gaussian"
      std: 0.01
    }
    bias_filler {
      type: "constant"
    }
  }
}
layer {
  name: "relu3"
  type: "ReLU"
  bottom: "ip3"
  top: "ip3"
}
layer {
  name: "ip4"
  type: "InnerProduct"
  bottom: "ip3"
  top: "ip4"
  param {
    lr_mult: 1
  }
  param {
    lr_mult: 2
  }
  inner_product_param {
    num_output: 10
    weight_filler {
      type: "gaussian"
      std: 0.01
    }
    bias_filler {
      type: "constant"
    }
  }
}
layer {
  name: "accuracy"
  type: "Accuracy"
  bottom: "ip4"
  bottom: "label"
  top: "accuracy"
  include {
    phase: TEST
  }
}
layer {
  name: "loss"
  type: "SoftmaxWithLoss"
  bottom: "ip4"
  bottom: "label"
  top: "loss"
}
I0501 03:19:41.716732 20132 layer_factory.hpp:77] Creating layer cifar
I0501 03:19:41.716801 20132 db_lmdb.cpp:35] Opened lmdb examples/cifar10/cifar10_test_lmdb
I0501 03:19:41.716832 20132 net.cpp:86] Creating Layer cifar
I0501 03:19:41.716843 20132 net.cpp:382] cifar -> data
I0501 03:19:41.716857 20132 net.cpp:382] cifar -> label
I0501 03:19:41.716871 20132 data_transformer.cpp:25] Loading mean file from: examples/cifar10/mean.binaryproto
I0501 03:19:41.717109 20132 data_layer.cpp:45] output data size: 1000,3,32,32
I0501 03:19:41.743268 20132 net.cpp:124] Setting up cifar
I0501 03:19:41.743302 20132 net.cpp:131] Top shape: 1000 3 32 32 (3072000)
I0501 03:19:41.743314 20132 net.cpp:131] Top shape: 1000 (1000)
I0501 03:19:41.743319 20132 net.cpp:139] Memory required for data: 12292000
I0501 03:19:41.743330 20132 layer_factory.hpp:77] Creating layer label_cifar_1_split
I0501 03:19:41.743353 20132 net.cpp:86] Creating Layer label_cifar_1_split
I0501 03:19:41.743362 20132 net.cpp:408] label_cifar_1_split <- label
I0501 03:19:41.743373 20132 net.cpp:382] label_cifar_1_split -> label_cifar_1_split_0
I0501 03:19:41.743397 20132 net.cpp:382] label_cifar_1_split -> label_cifar_1_split_1
I0501 03:19:41.743489 20132 net.cpp:124] Setting up label_cifar_1_split
I0501 03:19:41.743501 20132 net.cpp:131] Top shape: 1000 (1000)
I0501 03:19:41.743510 20132 net.cpp:131] Top shape: 1000 (1000)
I0501 03:19:41.743515 20132 net.cpp:139] Memory required for data: 12300000
I0501 03:19:41.743521 20132 layer_factory.hpp:77] Creating layer conv0
I0501 03:19:41.743543 20132 net.cpp:86] Creating Layer conv0
I0501 03:19:41.743551 20132 net.cpp:408] conv0 <- data
I0501 03:19:41.743562 20132 net.cpp:382] conv0 -> conv0
I0501 03:19:41.746292 20132 net.cpp:124] Setting up conv0
I0501 03:19:41.746315 20132 net.cpp:131] Top shape: 1000 8 32 32 (8192000)
I0501 03:19:41.746321 20132 net.cpp:139] Memory required for data: 45068000
I0501 03:19:41.746340 20132 layer_factory.hpp:77] Creating layer Sigmoid0
I0501 03:19:41.746353 20132 net.cpp:86] Creating Layer Sigmoid0
I0501 03:19:41.746361 20132 net.cpp:408] Sigmoid0 <- conv0
I0501 03:19:41.746371 20132 net.cpp:382] Sigmoid0 -> Sigmoid0
I0501 03:19:41.746589 20132 net.cpp:124] Setting up Sigmoid0
I0501 03:19:41.746603 20132 net.cpp:131] Top shape: 1000 8 32 32 (8192000)
I0501 03:19:41.746611 20132 net.cpp:139] Memory required for data: 77836000
I0501 03:19:41.746618 20132 layer_factory.hpp:77] Creating layer pool0
I0501 03:19:41.746632 20132 net.cpp:86] Creating Layer pool0
I0501 03:19:41.746639 20132 net.cpp:408] pool0 <- Sigmoid0
I0501 03:19:41.746649 20132 net.cpp:382] pool0 -> pool0
I0501 03:19:41.746855 20132 net.cpp:124] Setting up pool0
I0501 03:19:41.746867 20132 net.cpp:131] Top shape: 1000 8 16 16 (2048000)
I0501 03:19:41.746875 20132 net.cpp:139] Memory required for data: 86028000
I0501 03:19:41.746881 20132 layer_factory.hpp:77] Creating layer ip1
I0501 03:19:41.746893 20132 net.cpp:86] Creating Layer ip1
I0501 03:19:41.746901 20132 net.cpp:408] ip1 <- pool0
I0501 03:19:41.746911 20132 net.cpp:382] ip1 -> ip1
I0501 03:19:41.747714 20132 net.cpp:124] Setting up ip1
I0501 03:19:41.747726 20132 net.cpp:131] Top shape: 1000 10 (10000)
I0501 03:19:41.747733 20132 net.cpp:139] Memory required for data: 86068000
I0501 03:19:41.747771 20132 layer_factory.hpp:77] Creating layer relu1
I0501 03:19:41.747782 20132 net.cpp:86] Creating Layer relu1
I0501 03:19:41.747794 20132 net.cpp:408] relu1 <- ip1
I0501 03:19:41.747803 20132 net.cpp:369] relu1 -> ip1 (in-place)
I0501 03:19:41.747999 20132 net.cpp:124] Setting up relu1
I0501 03:19:41.748011 20132 net.cpp:131] Top shape: 1000 10 (10000)
I0501 03:19:41.748018 20132 net.cpp:139] Memory required for data: 86108000
I0501 03:19:41.748024 20132 layer_factory.hpp:77] Creating layer ip2
I0501 03:19:41.748036 20132 net.cpp:86] Creating Layer ip2
I0501 03:19:41.748044 20132 net.cpp:408] ip2 <- ip1
I0501 03:19:41.748054 20132 net.cpp:382] ip2 -> ip2
I0501 03:19:41.748201 20132 net.cpp:124] Setting up ip2
I0501 03:19:41.748214 20132 net.cpp:131] Top shape: 1000 40 (40000)
I0501 03:19:41.748220 20132 net.cpp:139] Memory required for data: 86268000
I0501 03:19:41.748234 20132 layer_factory.hpp:77] Creating layer relu2
I0501 03:19:41.748246 20132 net.cpp:86] Creating Layer relu2
I0501 03:19:41.748255 20132 net.cpp:408] relu2 <- ip2
I0501 03:19:41.748263 20132 net.cpp:369] relu2 -> ip2 (in-place)
I0501 03:19:41.749169 20132 net.cpp:124] Setting up relu2
I0501 03:19:41.749187 20132 net.cpp:131] Top shape: 1000 40 (40000)
I0501 03:19:41.749194 20132 net.cpp:139] Memory required for data: 86428000
I0501 03:19:41.749202 20132 layer_factory.hpp:77] Creating layer ip3
I0501 03:19:41.749214 20132 net.cpp:86] Creating Layer ip3
I0501 03:19:41.749222 20132 net.cpp:408] ip3 <- ip2
I0501 03:19:41.749233 20132 net.cpp:382] ip3 -> ip3
I0501 03:19:41.749377 20132 net.cpp:124] Setting up ip3
I0501 03:19:41.749389 20132 net.cpp:131] Top shape: 1000 10 (10000)
I0501 03:19:41.749397 20132 net.cpp:139] Memory required for data: 86468000
I0501 03:19:41.749408 20132 layer_factory.hpp:77] Creating layer relu3
I0501 03:19:41.749418 20132 net.cpp:86] Creating Layer relu3
I0501 03:19:41.749425 20132 net.cpp:408] relu3 <- ip3
I0501 03:19:41.749434 20132 net.cpp:369] relu3 -> ip3 (in-place)
I0501 03:19:41.749621 20132 net.cpp:124] Setting up relu3
I0501 03:19:41.749634 20132 net.cpp:131] Top shape: 1000 10 (10000)
I0501 03:19:41.749640 20132 net.cpp:139] Memory required for data: 86508000
I0501 03:19:41.749646 20132 layer_factory.hpp:77] Creating layer ip4
I0501 03:19:41.749657 20132 net.cpp:86] Creating Layer ip4
I0501 03:19:41.749665 20132 net.cpp:408] ip4 <- ip3
I0501 03:19:41.749675 20132 net.cpp:382] ip4 -> ip4
I0501 03:19:41.749806 20132 net.cpp:124] Setting up ip4
I0501 03:19:41.749819 20132 net.cpp:131] Top shape: 1000 10 (10000)
I0501 03:19:41.749825 20132 net.cpp:139] Memory required for data: 86548000
I0501 03:19:41.749840 20132 layer_factory.hpp:77] Creating layer ip4_ip4_0_split
I0501 03:19:41.749850 20132 net.cpp:86] Creating Layer ip4_ip4_0_split
I0501 03:19:41.749856 20132 net.cpp:408] ip4_ip4_0_split <- ip4
I0501 03:19:41.749866 20132 net.cpp:382] ip4_ip4_0_split -> ip4_ip4_0_split_0
I0501 03:19:41.749876 20132 net.cpp:382] ip4_ip4_0_split -> ip4_ip4_0_split_1
I0501 03:19:41.749924 20132 net.cpp:124] Setting up ip4_ip4_0_split
I0501 03:19:41.749934 20132 net.cpp:131] Top shape: 1000 10 (10000)
I0501 03:19:41.749943 20132 net.cpp:131] Top shape: 1000 10 (10000)
I0501 03:19:41.749963 20132 net.cpp:139] Memory required for data: 86628000
I0501 03:19:41.749969 20132 layer_factory.hpp:77] Creating layer accuracy
I0501 03:19:41.749980 20132 net.cpp:86] Creating Layer accuracy
I0501 03:19:41.749987 20132 net.cpp:408] accuracy <- ip4_ip4_0_split_0
I0501 03:19:41.749996 20132 net.cpp:408] accuracy <- label_cifar_1_split_0
I0501 03:19:41.750006 20132 net.cpp:382] accuracy -> accuracy
…
