…
I0501 00:44:29.779934  7806 net.cpp:296] The NetState phase (0) differed from the phase (1) specified by a rule in layer cifar
I0501 00:44:29.779952  7806 net.cpp:296] The NetState phase (0) differed from the phase (1) specified by a rule in layer accuracy
I0501 00:44:29.780050  7806 net.cpp:53] Initializing net from parameters: 
name: "CIFAR"
state {
  phase: TRAIN
  level: 0
  stage: ""
}
layer {
  name: "cifar"
  type: "Data"
  top: "data"
  top: "label"
  include {
    phase: TRAIN
  }
  transform_param {
    mean_file: "examples/cifar10/mean.binaryproto"
  }
  data_param {
    source: "examples/cifar10/cifar10_train_lmdb"
    batch_size: 111
    backend: LMDB
  }
}
layer {
  name: "conv0"
  type: "Convolution"
  bottom: "data"
  top: "conv0"
  param {
    lr_mult: 1
  }
  param {
    lr_mult: 2
  }
  convolution_param {
    num_output: 8
    pad: 2
    kernel_size: 3
    stride: 1
    weight_filler {
      type: "gaussian"
      std: 0.01
    }
    bias_filler {
      type: "constant"
    }
  }
}
layer {
  name: "Sigmoid0"
  type: "Sigmoid"
  bottom: "conv0"
  top: "Sigmoid0"
}
layer {
  name: "pool0"
  type: "Pooling"
  bottom: "Sigmoid0"
  top: "pool0"
  pooling_param {
    pool: AVE
    kernel_size: 3
    stride: 2
  }
}
layer {
  name: "ip1"
  type: "InnerProduct"
  bottom: "pool0"
  top: "ip1"
  param {
    lr_mult: 1
  }
  param {
    lr_mult: 2
  }
  inner_product_param {
    num_output: 80
    weight_filler {
      type: "gaussian"
      std: 0.01
    }
    bias_filler {
      type: "constant"
    }
  }
}
layer {
  name: "relu1"
  type: "ReLU"
  bottom: "ip1"
  top: "ip1"
}
layer {
  name: "ip2"
  type: "InnerProduct"
  bottom: "ip1"
  top: "ip2"
  param {
    lr_mult: 1
  }
  param {
    lr_mult: 2
  }
  inner_product_param {
    num_output: 20
    weight_filler {
      type: "gaussian"
      std: 0.01
    }
    bias_filler {
      type: "constant"
    }
  }
}
layer {
  name: "relu2"
  type: "ReLU"
  bottom: "ip2"
  top: "ip2"
}
layer {
  name: "ip3"
  type: "InnerProduct"
  bottom: "ip2"
  top: "ip3"
  param {
    lr_mult: 1
  }
  param {
    lr_mult: 2
  }
  inner_product_param {
    num_output: 40
    weight_filler {
      type: "gaussian"
      std: 0.01
    }
    bias_filler {
      type: "constant"
    }
  }
}
layer {
  name: "relu3"
  type: "ReLU"
  bottom: "ip3"
  top: "ip3"
}
layer {
  name: "ip4"
  type: "InnerProduct"
  bottom: "ip3"
  top: "ip4"
  param {
    lr_mult: 1
  }
  param {
    lr_mult: 2
  }
  inner_product_param {
    num_output: 10
    weight_filler {
      type: "gaussian"
      std: 0.01
    }
    bias_filler {
      type: "constant"
    }
  }
}
layer {
  name: "loss"
  type: "SoftmaxWithLoss"
  bottom: "ip4"
  bottom: "label"
  top: "loss"
}
I0501 00:44:29.780123  7806 layer_factory.hpp:77] Creating layer cifar
I0501 00:44:29.780222  7806 db_lmdb.cpp:35] Opened lmdb examples/cifar10/cifar10_train_lmdb
I0501 00:44:29.780251  7806 net.cpp:86] Creating Layer cifar
I0501 00:44:29.780261  7806 net.cpp:382] cifar -> data
I0501 00:44:29.780282  7806 net.cpp:382] cifar -> label
I0501 00:44:29.780297  7806 data_transformer.cpp:25] Loading mean file from: examples/cifar10/mean.binaryproto
I0501 00:44:29.782414  7806 data_layer.cpp:45] output data size: 111,3,32,32
I0501 00:44:29.790298  7806 net.cpp:124] Setting up cifar
I0501 00:44:29.790318  7806 net.cpp:131] Top shape: 111 3 32 32 (340992)
I0501 00:44:29.790323  7806 net.cpp:131] Top shape: 111 (111)
I0501 00:44:29.790328  7806 net.cpp:139] Memory required for data: 1364412
I0501 00:44:29.790350  7806 layer_factory.hpp:77] Creating layer conv0
I0501 00:44:29.790369  7806 net.cpp:86] Creating Layer conv0
I0501 00:44:29.790374  7806 net.cpp:408] conv0 <- data
I0501 00:44:29.790387  7806 net.cpp:382] conv0 -> conv0
I0501 00:44:30.062680  7806 net.cpp:124] Setting up conv0
I0501 00:44:30.062722  7806 net.cpp:131] Top shape: 111 8 34 34 (1026528)
I0501 00:44:30.062726  7806 net.cpp:139] Memory required for data: 5470524
I0501 00:44:30.062755  7806 layer_factory.hpp:77] Creating layer Sigmoid0
I0501 00:44:30.062767  7806 net.cpp:86] Creating Layer Sigmoid0
I0501 00:44:30.062770  7806 net.cpp:408] Sigmoid0 <- conv0
I0501 00:44:30.062775  7806 net.cpp:382] Sigmoid0 -> Sigmoid0
I0501 00:44:30.062971  7806 net.cpp:124] Setting up Sigmoid0
I0501 00:44:30.062981  7806 net.cpp:131] Top shape: 111 8 34 34 (1026528)
I0501 00:44:30.062984  7806 net.cpp:139] Memory required for data: 9576636
I0501 00:44:30.063004  7806 layer_factory.hpp:77] Creating layer pool0
I0501 00:44:30.063014  7806 net.cpp:86] Creating Layer pool0
I0501 00:44:30.063031  7806 net.cpp:408] pool0 <- Sigmoid0
I0501 00:44:30.063036  7806 net.cpp:382] pool0 -> pool0
I0501 00:44:30.063781  7806 net.cpp:124] Setting up pool0
I0501 00:44:30.063793  7806 net.cpp:131] Top shape: 111 8 17 17 (256632)
I0501 00:44:30.063797  7806 net.cpp:139] Memory required for data: 10603164
I0501 00:44:30.063801  7806 layer_factory.hpp:77] Creating layer ip1
I0501 00:44:30.063808  7806 net.cpp:86] Creating Layer ip1
I0501 00:44:30.063812  7806 net.cpp:408] ip1 <- pool0
I0501 00:44:30.063817  7806 net.cpp:382] ip1 -> ip1
I0501 00:44:30.069406  7806 net.cpp:124] Setting up ip1
I0501 00:44:30.069418  7806 net.cpp:131] Top shape: 111 80 (8880)
I0501 00:44:30.069422  7806 net.cpp:139] Memory required for data: 10638684
I0501 00:44:30.069430  7806 layer_factory.hpp:77] Creating layer relu1
I0501 00:44:30.069437  7806 net.cpp:86] Creating Layer relu1
I0501 00:44:30.069439  7806 net.cpp:408] relu1 <- ip1
I0501 00:44:30.069443  7806 net.cpp:369] relu1 -> ip1 (in-place)
I0501 00:44:30.069620  7806 net.cpp:124] Setting up relu1
I0501 00:44:30.069629  7806 net.cpp:131] Top shape: 111 80 (8880)
I0501 00:44:30.069633  7806 net.cpp:139] Memory required for data: 10674204
I0501 00:44:30.069635  7806 layer_factory.hpp:77] Creating layer ip2
I0501 00:44:30.069643  7806 net.cpp:86] Creating Layer ip2
I0501 00:44:30.069645  7806 net.cpp:408] ip2 <- ip1
I0501 00:44:30.069650  7806 net.cpp:382] ip2 -> ip2
I0501 00:44:30.069785  7806 net.cpp:124] Setting up ip2
I0501 00:44:30.069808  7806 net.cpp:131] Top shape: 111 20 (2220)
I0501 00:44:30.069810  7806 net.cpp:139] Memory required for data: 10683084
I0501 00:44:30.069816  7806 layer_factory.hpp:77] Creating layer relu2
I0501 00:44:30.069821  7806 net.cpp:86] Creating Layer relu2
I0501 00:44:30.069824  7806 net.cpp:408] relu2 <- ip2
I0501 00:44:30.069828  7806 net.cpp:369] relu2 -> ip2 (in-place)
I0501 00:44:30.069988  7806 net.cpp:124] Setting up relu2
I0501 00:44:30.069995  7806 net.cpp:131] Top shape: 111 20 (2220)
I0501 00:44:30.069998  7806 net.cpp:139] Memory required for data: 10691964
I0501 00:44:30.070001  7806 layer_factory.hpp:77] Creating layer ip3
I0501 00:44:30.070008  7806 net.cpp:86] Creating Layer ip3
I0501 00:44:30.070011  7806 net.cpp:408] ip3 <- ip2
I0501 00:44:30.070016  7806 net.cpp:382] ip3 -> ip3
I0501 00:44:30.070935  7806 net.cpp:124] Setting up ip3
I0501 00:44:30.070946  7806 net.cpp:131] Top shape: 111 40 (4440)
I0501 00:44:30.070950  7806 net.cpp:139] Memory required for data: 10709724
I0501 00:44:30.070955  7806 layer_factory.hpp:77] Creating layer relu3
I0501 00:44:30.070960  7806 net.cpp:86] Creating Layer relu3
I0501 00:44:30.070962  7806 net.cpp:408] relu3 <- ip3
I0501 00:44:30.070967  7806 net.cpp:369] relu3 -> ip3 (in-place)
I0501 00:44:30.071128  7806 net.cpp:124] Setting up relu3
I0501 00:44:30.071136  7806 net.cpp:131] Top shape: 111 40 (4440)
I0501 00:44:30.071140  7806 net.cpp:139] Memory required for data: 10727484
I0501 00:44:30.071142  7806 layer_factory.hpp:77] Creating layer ip4
I0501 00:44:30.071162  7806 net.cpp:86] Creating Layer ip4
I0501 00:44:30.071166  7806 net.cpp:408] ip4 <- ip3
I0501 00:44:30.071171  7806 net.cpp:382] ip4 -> ip4
I0501 00:44:30.071269  7806 net.cpp:124] Setting up ip4
I0501 00:44:30.071276  7806 net.cpp:131] Top shape: 111 10 (1110)
I0501 00:44:30.071280  7806 net.cpp:139] Memory required for data: 10731924
I0501 00:44:30.071287  7806 layer_factory.hpp:77] Creating layer loss
I0501 00:44:30.071295  7806 net.cpp:86] Creating Layer loss
I0501 00:44:30.071315  7806 net.cpp:408] loss <- ip4
I0501 00:44:30.071317  7806 net.cpp:408] loss <- label
I0501 00:44:30.071322  7806 net.cpp:382] loss -> loss
I0501 00:44:30.071341  7806 layer_factory.hpp:77] Creating layer loss
…
I0501 00:44:30.072556  7806 solver.cpp:173] Creating test net (#0) specified by net file: ECE595/cifar/train_test/var_everything/cifar_train_test_267.prototxt
I0501 00:44:30.072597  7806 net.cpp:296] The NetState phase (1) differed from the phase (0) specified by a rule in layer cifar
I0501 00:44:30.072685  7806 net.cpp:53] Initializing net from parameters: 
name: "CIFAR"
state {
  phase: TEST
}
layer {
  name: "cifar"
  type: "Data"
  top: "data"
  top: "label"
  include {
    phase: TEST
  }
  transform_param {
    mean_file: "examples/cifar10/mean.binaryproto"
  }
  data_param {
    source: "examples/cifar10/cifar10_test_lmdb"
    batch_size: 1000
    backend: LMDB
  }
}
layer {
  name: "conv0"
  type: "Convolution"
  bottom: "data"
  top: "conv0"
  param {
    lr_mult: 1
  }
  param {
    lr_mult: 2
  }
  convolution_param {
    num_output: 8
    pad: 2
    kernel_size: 3
    stride: 1
    weight_filler {
      type: "gaussian"
      std: 0.01
    }
    bias_filler {
      type: "constant"
    }
  }
}
layer {
  name: "Sigmoid0"
  type: "Sigmoid"
  bottom: "conv0"
  top: "Sigmoid0"
}
layer {
  name: "pool0"
  type: "Pooling"
  bottom: "Sigmoid0"
  top: "pool0"
  pooling_param {
    pool: AVE
    kernel_size: 3
    stride: 2
  }
}
layer {
  name: "ip1"
  type: "InnerProduct"
  bottom: "pool0"
  top: "ip1"
  param {
    lr_mult: 1
  }
  param {
    lr_mult: 2
  }
  inner_product_param {
    num_output: 80
    weight_filler {
      type: "gaussian"
      std: 0.01
    }
    bias_filler {
      type: "constant"
    }
  }
}
layer {
  name: "relu1"
  type: "ReLU"
  bottom: "ip1"
  top: "ip1"
}
layer {
  name: "ip2"
  type: "InnerProduct"
  bottom: "ip1"
  top: "ip2"
  param {
    lr_mult: 1
  }
  param {
    lr_mult: 2
  }
  inner_product_param {
    num_output: 20
    weight_filler {
      type: "gaussian"
      std: 0.01
    }
    bias_filler {
      type: "constant"
    }
  }
}
layer {
  name: "relu2"
  type: "ReLU"
  bottom: "ip2"
  top: "ip2"
}
layer {
  name: "ip3"
  type: "InnerProduct"
  bottom: "ip2"
  top: "ip3"
  param {
    lr_mult: 1
  }
  param {
    lr_mult: 2
  }
  inner_product_param {
    num_output: 40
    weight_filler {
      type: "gaussian"
      std: 0.01
    }
    bias_filler {
      type: "constant"
    }
  }
}
layer {
  name: "relu3"
  type: "ReLU"
  bottom: "ip3"
  top: "ip3"
}
layer {
  name: "ip4"
  type: "InnerProduct"
  bottom: "ip3"
  top: "ip4"
  param {
    lr_mult: 1
  }
  param {
    lr_mult: 2
  }
  inner_product_param {
    num_output: 10
    weight_filler {
      type: "gaussian"
      std: 0.01
    }
    bias_filler {
      type: "constant"
    }
  }
}
layer {
  name: "accuracy"
  type: "Accuracy"
  bottom: "ip4"
  bottom: "label"
  top: "accuracy"
  include {
    phase: TEST
  }
}
layer {
  name: "loss"
  type: "SoftmaxWithLoss"
  bottom: "ip4"
  bottom: "label"
  top: "loss"
}
I0501 00:44:30.072760  7806 layer_factory.hpp:77] Creating layer cifar
I0501 00:44:30.072857  7806 db_lmdb.cpp:35] Opened lmdb examples/cifar10/cifar10_test_lmdb
I0501 00:44:30.072873  7806 net.cpp:86] Creating Layer cifar
I0501 00:44:30.072883  7806 net.cpp:382] cifar -> data
I0501 00:44:30.072908  7806 net.cpp:382] cifar -> label
I0501 00:44:30.072916  7806 data_transformer.cpp:25] Loading mean file from: examples/cifar10/mean.binaryproto
I0501 00:44:30.073070  7806 data_layer.cpp:45] output data size: 1000,3,32,32
I0501 00:44:30.094660  7806 net.cpp:124] Setting up cifar
I0501 00:44:30.094700  7806 net.cpp:131] Top shape: 1000 3 32 32 (3072000)
I0501 00:44:30.094707  7806 net.cpp:131] Top shape: 1000 (1000)
I0501 00:44:30.094709  7806 net.cpp:139] Memory required for data: 12292000
I0501 00:44:30.094717  7806 layer_factory.hpp:77] Creating layer label_cifar_1_split
I0501 00:44:30.094729  7806 net.cpp:86] Creating Layer label_cifar_1_split
I0501 00:44:30.094733  7806 net.cpp:408] label_cifar_1_split <- label
I0501 00:44:30.094739  7806 net.cpp:382] label_cifar_1_split -> label_cifar_1_split_0
I0501 00:44:30.094748  7806 net.cpp:382] label_cifar_1_split -> label_cifar_1_split_1
I0501 00:44:30.094857  7806 net.cpp:124] Setting up label_cifar_1_split
I0501 00:44:30.094864  7806 net.cpp:131] Top shape: 1000 (1000)
I0501 00:44:30.094868  7806 net.cpp:131] Top shape: 1000 (1000)
I0501 00:44:30.094871  7806 net.cpp:139] Memory required for data: 12300000
I0501 00:44:30.094874  7806 layer_factory.hpp:77] Creating layer conv0
I0501 00:44:30.094887  7806 net.cpp:86] Creating Layer conv0
I0501 00:44:30.094892  7806 net.cpp:408] conv0 <- data
I0501 00:44:30.094913  7806 net.cpp:382] conv0 -> conv0
I0501 00:44:30.096576  7806 net.cpp:124] Setting up conv0
I0501 00:44:30.096590  7806 net.cpp:131] Top shape: 1000 8 34 34 (9248000)
I0501 00:44:30.096609  7806 net.cpp:139] Memory required for data: 49292000
I0501 00:44:30.096618  7806 layer_factory.hpp:77] Creating layer Sigmoid0
I0501 00:44:30.096626  7806 net.cpp:86] Creating Layer Sigmoid0
I0501 00:44:30.096629  7806 net.cpp:408] Sigmoid0 <- conv0
I0501 00:44:30.096634  7806 net.cpp:382] Sigmoid0 -> Sigmoid0
I0501 00:44:30.096845  7806 net.cpp:124] Setting up Sigmoid0
I0501 00:44:30.096870  7806 net.cpp:131] Top shape: 1000 8 34 34 (9248000)
I0501 00:44:30.096873  7806 net.cpp:139] Memory required for data: 86284000
I0501 00:44:30.096876  7806 layer_factory.hpp:77] Creating layer pool0
I0501 00:44:30.096884  7806 net.cpp:86] Creating Layer pool0
I0501 00:44:30.096887  7806 net.cpp:408] pool0 <- Sigmoid0
I0501 00:44:30.096892  7806 net.cpp:382] pool0 -> pool0
I0501 00:44:30.097129  7806 net.cpp:124] Setting up pool0
I0501 00:44:30.097152  7806 net.cpp:131] Top shape: 1000 8 17 17 (2312000)
I0501 00:44:30.097156  7806 net.cpp:139] Memory required for data: 95532000
I0501 00:44:30.097158  7806 layer_factory.hpp:77] Creating layer ip1
I0501 00:44:30.097167  7806 net.cpp:86] Creating Layer ip1
I0501 00:44:30.097169  7806 net.cpp:408] ip1 <- pool0
I0501 00:44:30.097174  7806 net.cpp:382] ip1 -> ip1
I0501 00:44:30.103174  7806 net.cpp:124] Setting up ip1
I0501 00:44:30.103183  7806 net.cpp:131] Top shape: 1000 80 (80000)
I0501 00:44:30.103201  7806 net.cpp:139] Memory required for data: 95852000
I0501 00:44:30.103224  7806 layer_factory.hpp:77] Creating layer relu1
I0501 00:44:30.103231  7806 net.cpp:86] Creating Layer relu1
I0501 00:44:30.103235  7806 net.cpp:408] relu1 <- ip1
I0501 00:44:30.103240  7806 net.cpp:369] relu1 -> ip1 (in-place)
I0501 00:44:30.103431  7806 net.cpp:124] Setting up relu1
I0501 00:44:30.103440  7806 net.cpp:131] Top shape: 1000 80 (80000)
I0501 00:44:30.103443  7806 net.cpp:139] Memory required for data: 96172000
I0501 00:44:30.103447  7806 layer_factory.hpp:77] Creating layer ip2
I0501 00:44:30.103453  7806 net.cpp:86] Creating Layer ip2
I0501 00:44:30.103456  7806 net.cpp:408] ip2 <- ip1
I0501 00:44:30.103461  7806 net.cpp:382] ip2 -> ip2
I0501 00:44:30.103603  7806 net.cpp:124] Setting up ip2
I0501 00:44:30.103611  7806 net.cpp:131] Top shape: 1000 20 (20000)
I0501 00:44:30.103615  7806 net.cpp:139] Memory required for data: 96252000
I0501 00:44:30.103621  7806 layer_factory.hpp:77] Creating layer relu2
I0501 00:44:30.103629  7806 net.cpp:86] Creating Layer relu2
I0501 00:44:30.103632  7806 net.cpp:408] relu2 <- ip2
I0501 00:44:30.103636  7806 net.cpp:369] relu2 -> ip2 (in-place)
I0501 00:44:30.104390  7806 net.cpp:124] Setting up relu2
I0501 00:44:30.104403  7806 net.cpp:131] Top shape: 1000 20 (20000)
I0501 00:44:30.104420  7806 net.cpp:139] Memory required for data: 96332000
I0501 00:44:30.104423  7806 layer_factory.hpp:77] Creating layer ip3
I0501 00:44:30.104431  7806 net.cpp:86] Creating Layer ip3
I0501 00:44:30.104459  7806 net.cpp:408] ip3 <- ip2
I0501 00:44:30.104463  7806 net.cpp:382] ip3 -> ip3
I0501 00:44:30.104601  7806 net.cpp:124] Setting up ip3
I0501 00:44:30.104609  7806 net.cpp:131] Top shape: 1000 40 (40000)
I0501 00:44:30.104612  7806 net.cpp:139] Memory required for data: 96492000
I0501 00:44:30.104617  7806 layer_factory.hpp:77] Creating layer relu3
I0501 00:44:30.104624  7806 net.cpp:86] Creating Layer relu3
I0501 00:44:30.104626  7806 net.cpp:408] relu3 <- ip3
I0501 00:44:30.104630  7806 net.cpp:369] relu3 -> ip3 (in-place)
I0501 00:44:30.104776  7806 net.cpp:124] Setting up relu3
I0501 00:44:30.104784  7806 net.cpp:131] Top shape: 1000 40 (40000)
I0501 00:44:30.104787  7806 net.cpp:139] Memory required for data: 96652000
I0501 00:44:30.104790  7806 layer_factory.hpp:77] Creating layer ip4
I0501 00:44:30.104796  7806 net.cpp:86] Creating Layer ip4
I0501 00:44:30.104799  7806 net.cpp:408] ip4 <- ip3
I0501 00:44:30.104805  7806 net.cpp:382] ip4 -> ip4
I0501 00:44:30.104956  7806 net.cpp:124] Setting up ip4
I0501 00:44:30.104964  7806 net.cpp:131] Top shape: 1000 10 (10000)
I0501 00:44:30.104969  7806 net.cpp:139] Memory required for data: 96692000
I0501 00:44:30.104976  7806 layer_factory.hpp:77] Creating layer ip4_ip4_0_split
I0501 00:44:30.104984  7806 net.cpp:86] Creating Layer ip4_ip4_0_split
I0501 00:44:30.104988  7806 net.cpp:408] ip4_ip4_0_split <- ip4
I0501 00:44:30.104993  7806 net.cpp:382] ip4_ip4_0_split -> ip4_ip4_0_split_0
I0501 00:44:30.104998  7806 net.cpp:382] ip4_ip4_0_split -> ip4_ip4_0_split_1
I0501 00:44:30.105031  7806 net.cpp:124] Setting up ip4_ip4_0_split
I0501 00:44:30.105037  7806 net.cpp:131] Top shape: 1000 10 (10000)
I0501 00:44:30.105041  7806 net.cpp:131] Top shape: 1000 10 (10000)
I0501 00:44:30.105044  7806 net.cpp:139] Memory required for data: 96772000
I0501 00:44:30.105047  7806 layer_factory.hpp:77] Creating layer accuracy
I0501 00:44:30.105053  7806 net.cpp:86] Creating Layer accuracy
I0501 00:44:30.105057  7806 net.cpp:408] accuracy <- ip4_ip4_0_split_0
I0501 00:44:30.105062  7806 net.cpp:408] accuracy <- label_cifar_1_split_0
I0501 00:44:30.105067  7806 net.cpp:382] accuracy -> accuracy
…
