…
I0430 17:59:43.603783 21557 net.cpp:296] The NetState phase (0) differed from the phase (1) specified by a rule in layer cifar
I0430 17:59:43.603801 21557 net.cpp:296] The NetState phase (0) differed from the phase (1) specified by a rule in layer accuracy
I0430 17:59:43.603884 21557 net.cpp:53] Initializing net from parameters: 
name: "CIFAR"
state {
  phase: TRAIN
  level: 0
  stage: ""
}
layer {
  name: "cifar"
  type: "Data"
  top: "data"
  top: "label"
  include {
    phase: TRAIN
  }
  transform_param {
    mean_file: "examples/cifar10/mean.binaryproto"
  }
  data_param {
    source: "examples/cifar10/cifar10_train_lmdb"
    batch_size: 111
    backend: LMDB
  }
}
layer {
  name: "ip1"
  type: "InnerProduct"
  bottom: "data"
  top: "ip1"
  param {
    lr_mult: 1
  }
  param {
    lr_mult: 2
  }
  inner_product_param {
    num_output: 10
    weight_filler {
      type: "gaussian"
      std: 0.01
    }
    bias_filler {
      type: "constant"
    }
  }
}
layer {
  name: "relu1"
  type: "ReLU"
  bottom: "ip1"
  top: "ip1"
}
layer {
  name: "ip2"
  type: "InnerProduct"
  bottom: "ip1"
  top: "ip2"
  param {
    lr_mult: 1
  }
  param {
    lr_mult: 2
  }
  inner_product_param {
    num_output: 160
    weight_filler {
      type: "gaussian"
      std: 0.01
    }
    bias_filler {
      type: "constant"
    }
  }
}
layer {
  name: "relu2"
  type: "ReLU"
  bottom: "ip2"
  top: "ip2"
}
layer {
  name: "ip3"
  type: "InnerProduct"
  bottom: "ip2"
  top: "ip3"
  param {
    lr_mult: 1
  }
  param {
    lr_mult: 2
  }
  inner_product_param {
    num_output: 40
    weight_filler {
      type: "gaussian"
      std: 0.01
    }
    bias_filler {
      type: "constant"
    }
  }
}
layer {
  name: "relu3"
  type: "ReLU"
  bottom: "ip3"
  top: "ip3"
}
layer {
  name: "ip4"
  type: "InnerProduct"
  bottom: "ip3"
  top: "ip4"
  param {
    lr_mult: 1
  }
  param {
    lr_mult: 2
  }
  inner_product_param {
    num_output: 10
    weight_filler {
      type: "gaussian"
      std: 0.01
    }
    bias_filler {
      type: "constant"
    }
  }
}
layer {
  name: "loss"
  type: "SoftmaxWithLoss"
  bottom: "ip4"
  bottom: "label"
  top: "loss"
}
I0430 17:59:43.603956 21557 layer_factory.hpp:77] Creating layer cifar
I0430 17:59:43.604053 21557 db_lmdb.cpp:35] Opened lmdb examples/cifar10/cifar10_train_lmdb
I0430 17:59:43.604079 21557 net.cpp:86] Creating Layer cifar
I0430 17:59:43.604089 21557 net.cpp:382] cifar -> data
I0430 17:59:43.604111 21557 net.cpp:382] cifar -> label
I0430 17:59:43.604122 21557 data_transformer.cpp:25] Loading mean file from: examples/cifar10/mean.binaryproto
I0430 17:59:43.606256 21557 data_layer.cpp:45] output data size: 111,3,32,32
I0430 17:59:43.614151 21557 net.cpp:124] Setting up cifar
I0430 17:59:43.614169 21557 net.cpp:131] Top shape: 111 3 32 32 (340992)
I0430 17:59:43.614177 21557 net.cpp:131] Top shape: 111 (111)
I0430 17:59:43.614181 21557 net.cpp:139] Memory required for data: 1364412
I0430 17:59:43.614188 21557 layer_factory.hpp:77] Creating layer ip1
I0430 17:59:43.614199 21557 net.cpp:86] Creating Layer ip1
I0430 17:59:43.614204 21557 net.cpp:408] ip1 <- data
I0430 17:59:43.614215 21557 net.cpp:382] ip1 -> ip1
I0430 17:59:43.616415 21557 net.cpp:124] Setting up ip1
I0430 17:59:43.616430 21557 net.cpp:131] Top shape: 111 10 (1110)
I0430 17:59:43.616433 21557 net.cpp:139] Memory required for data: 1368852
I0430 17:59:43.616447 21557 layer_factory.hpp:77] Creating layer relu1
I0430 17:59:43.616457 21557 net.cpp:86] Creating Layer relu1
I0430 17:59:43.616477 21557 net.cpp:408] relu1 <- ip1
I0430 17:59:43.616482 21557 net.cpp:369] relu1 -> ip1 (in-place)
I0430 17:59:43.891933 21557 net.cpp:124] Setting up relu1
I0430 17:59:43.891975 21557 net.cpp:131] Top shape: 111 10 (1110)
I0430 17:59:43.891979 21557 net.cpp:139] Memory required for data: 1373292
I0430 17:59:43.891984 21557 layer_factory.hpp:77] Creating layer ip2
I0430 17:59:43.891997 21557 net.cpp:86] Creating Layer ip2
I0430 17:59:43.892002 21557 net.cpp:408] ip2 <- ip1
I0430 17:59:43.892009 21557 net.cpp:382] ip2 -> ip2
I0430 17:59:43.892194 21557 net.cpp:124] Setting up ip2
I0430 17:59:43.892202 21557 net.cpp:131] Top shape: 111 160 (17760)
I0430 17:59:43.892205 21557 net.cpp:139] Memory required for data: 1444332
I0430 17:59:43.892215 21557 layer_factory.hpp:77] Creating layer relu2
I0430 17:59:43.892221 21557 net.cpp:86] Creating Layer relu2
I0430 17:59:43.892225 21557 net.cpp:408] relu2 <- ip2
I0430 17:59:43.892228 21557 net.cpp:369] relu2 -> ip2 (in-place)
I0430 17:59:43.893133 21557 net.cpp:124] Setting up relu2
I0430 17:59:43.893146 21557 net.cpp:131] Top shape: 111 160 (17760)
I0430 17:59:43.893163 21557 net.cpp:139] Memory required for data: 1515372
I0430 17:59:43.893167 21557 layer_factory.hpp:77] Creating layer ip3
I0430 17:59:43.893174 21557 net.cpp:86] Creating Layer ip3
I0430 17:59:43.893177 21557 net.cpp:408] ip3 <- ip2
I0430 17:59:43.893182 21557 net.cpp:382] ip3 -> ip3
I0430 17:59:43.894328 21557 net.cpp:124] Setting up ip3
I0430 17:59:43.894356 21557 net.cpp:131] Top shape: 111 40 (4440)
I0430 17:59:43.894358 21557 net.cpp:139] Memory required for data: 1533132
I0430 17:59:43.894366 21557 layer_factory.hpp:77] Creating layer relu3
I0430 17:59:43.894372 21557 net.cpp:86] Creating Layer relu3
I0430 17:59:43.894376 21557 net.cpp:408] relu3 <- ip3
I0430 17:59:43.894379 21557 net.cpp:369] relu3 -> ip3 (in-place)
I0430 17:59:43.894546 21557 net.cpp:124] Setting up relu3
I0430 17:59:43.894554 21557 net.cpp:131] Top shape: 111 40 (4440)
I0430 17:59:43.894557 21557 net.cpp:139] Memory required for data: 1550892
I0430 17:59:43.894560 21557 layer_factory.hpp:77] Creating layer ip4
I0430 17:59:43.894567 21557 net.cpp:86] Creating Layer ip4
I0430 17:59:43.894570 21557 net.cpp:408] ip4 <- ip3
I0430 17:59:43.894575 21557 net.cpp:382] ip4 -> ip4
I0430 17:59:43.895550 21557 net.cpp:124] Setting up ip4
I0430 17:59:43.895562 21557 net.cpp:131] Top shape: 111 10 (1110)
I0430 17:59:43.895565 21557 net.cpp:139] Memory required for data: 1555332
I0430 17:59:43.895571 21557 layer_factory.hpp:77] Creating layer loss
I0430 17:59:43.895593 21557 net.cpp:86] Creating Layer loss
I0430 17:59:43.895597 21557 net.cpp:408] loss <- ip4
I0430 17:59:43.895601 21557 net.cpp:408] loss <- label
I0430 17:59:43.895606 21557 net.cpp:382] loss -> loss
I0430 17:59:43.895627 21557 layer_factory.hpp:77] Creating layer loss
…
I0430 17:59:43.896209 21557 solver.cpp:173] Creating test net (#0) specified by net file: ECE595/cifar/train_test/var_everything/cifar_train_test_52.prototxt
I0430 17:59:43.896246 21557 net.cpp:296] The NetState phase (1) differed from the phase (0) specified by a rule in layer cifar
I0430 17:59:43.896323 21557 net.cpp:53] Initializing net from parameters: 
name: "CIFAR"
state {
  phase: TEST
}
layer {
  name: "cifar"
  type: "Data"
  top: "data"
  top: "label"
  include {
    phase: TEST
  }
  transform_param {
    mean_file: "examples/cifar10/mean.binaryproto"
  }
  data_param {
    source: "examples/cifar10/cifar10_test_lmdb"
    batch_size: 1000
    backend: LMDB
  }
}
layer {
  name: "ip1"
  type: "InnerProduct"
  bottom: "data"
  top: "ip1"
  param {
    lr_mult: 1
  }
  param {
    lr_mult: 2
  }
  inner_product_param {
    num_output: 10
    weight_filler {
      type: "gaussian"
      std: 0.01
    }
    bias_filler {
      type: "constant"
    }
  }
}
layer {
  name: "relu1"
  type: "ReLU"
  bottom: "ip1"
  top: "ip1"
}
layer {
  name: "ip2"
  type: "InnerProduct"
  bottom: "ip1"
  top: "ip2"
  param {
    lr_mult: 1
  }
  param {
    lr_mult: 2
  }
  inner_product_param {
    num_output: 160
    weight_filler {
      type: "gaussian"
      std: 0.01
    }
    bias_filler {
      type: "constant"
    }
  }
}
layer {
  name: "relu2"
  type: "ReLU"
  bottom: "ip2"
  top: "ip2"
}
layer {
  name: "ip3"
  type: "InnerProduct"
  bottom: "ip2"
  top: "ip3"
  param {
    lr_mult: 1
  }
  param {
    lr_mult: 2
  }
  inner_product_param {
    num_output: 40
    weight_filler {
      type: "gaussian"
      std: 0.01
    }
    bias_filler {
      type: "constant"
    }
  }
}
layer {
  name: "relu3"
  type: "ReLU"
  bottom: "ip3"
  top: "ip3"
}
layer {
  name: "ip4"
  type: "InnerProduct"
  bottom: "ip3"
  top: "ip4"
  param {
    lr_mult: 1
  }
  param {
    lr_mult: 2
  }
  inner_product_param {
    num_output: 10
    weight_filler {
      type: "gaussian"
      std: 0.01
    }
    bias_filler {
      type: "constant"
    }
  }
}
layer {
  name: "accuracy"
  type: "Accuracy"
  bottom: "ip4"
  bottom: "label"
  top: "accuracy"
  include {
    phase: TEST
  }
}
layer {
  name: "loss"
  type: "SoftmaxWithLoss"
  bottom: "ip4"
  bottom: "label"
  top: "loss"
}
I0430 17:59:43.896383 21557 layer_factory.hpp:77] Creating layer cifar
I0430 17:59:43.896426 21557 db_lmdb.cpp:35] Opened lmdb examples/cifar10/cifar10_test_lmdb
I0430 17:59:43.896438 21557 net.cpp:86] Creating Layer cifar
I0430 17:59:43.896443 21557 net.cpp:382] cifar -> data
I0430 17:59:43.896450 21557 net.cpp:382] cifar -> label
I0430 17:59:43.896456 21557 data_transformer.cpp:25] Loading mean file from: examples/cifar10/mean.binaryproto
I0430 17:59:43.896612 21557 data_layer.cpp:45] output data size: 1000,3,32,32
I0430 17:59:43.918649 21557 net.cpp:124] Setting up cifar
I0430 17:59:43.918689 21557 net.cpp:131] Top shape: 1000 3 32 32 (3072000)
I0430 17:59:43.918695 21557 net.cpp:131] Top shape: 1000 (1000)
I0430 17:59:43.918699 21557 net.cpp:139] Memory required for data: 12292000
I0430 17:59:43.918704 21557 layer_factory.hpp:77] Creating layer label_cifar_1_split
I0430 17:59:43.918721 21557 net.cpp:86] Creating Layer label_cifar_1_split
I0430 17:59:43.918725 21557 net.cpp:408] label_cifar_1_split <- label
I0430 17:59:43.918731 21557 net.cpp:382] label_cifar_1_split -> label_cifar_1_split_0
I0430 17:59:43.918740 21557 net.cpp:382] label_cifar_1_split -> label_cifar_1_split_1
I0430 17:59:43.918854 21557 net.cpp:124] Setting up label_cifar_1_split
I0430 17:59:43.918862 21557 net.cpp:131] Top shape: 1000 (1000)
I0430 17:59:43.918865 21557 net.cpp:131] Top shape: 1000 (1000)
I0430 17:59:43.918869 21557 net.cpp:139] Memory required for data: 12300000
I0430 17:59:43.918871 21557 layer_factory.hpp:77] Creating layer ip1
I0430 17:59:43.918879 21557 net.cpp:86] Creating Layer ip1
I0430 17:59:43.918884 21557 net.cpp:408] ip1 <- data
I0430 17:59:43.918887 21557 net.cpp:382] ip1 -> ip1
I0430 17:59:43.919854 21557 net.cpp:124] Setting up ip1
I0430 17:59:43.919862 21557 net.cpp:131] Top shape: 1000 10 (10000)
I0430 17:59:43.919865 21557 net.cpp:139] Memory required for data: 12340000
I0430 17:59:43.919889 21557 layer_factory.hpp:77] Creating layer relu1
I0430 17:59:43.919895 21557 net.cpp:86] Creating Layer relu1
I0430 17:59:43.919898 21557 net.cpp:408] relu1 <- ip1
I0430 17:59:43.919903 21557 net.cpp:369] relu1 -> ip1 (in-place)
I0430 17:59:43.920758 21557 net.cpp:124] Setting up relu1
I0430 17:59:43.920784 21557 net.cpp:131] Top shape: 1000 10 (10000)
I0430 17:59:43.920788 21557 net.cpp:139] Memory required for data: 12380000
I0430 17:59:43.920791 21557 layer_factory.hpp:77] Creating layer ip2
I0430 17:59:43.920799 21557 net.cpp:86] Creating Layer ip2
I0430 17:59:43.920802 21557 net.cpp:408] ip2 <- ip1
I0430 17:59:43.920809 21557 net.cpp:382] ip2 -> ip2
I0430 17:59:43.921977 21557 net.cpp:124] Setting up ip2
I0430 17:59:43.921986 21557 net.cpp:131] Top shape: 1000 160 (160000)
I0430 17:59:43.922004 21557 net.cpp:139] Memory required for data: 13020000
I0430 17:59:43.922013 21557 layer_factory.hpp:77] Creating layer relu2
I0430 17:59:43.922018 21557 net.cpp:86] Creating Layer relu2
I0430 17:59:43.922022 21557 net.cpp:408] relu2 <- ip2
I0430 17:59:43.922026 21557 net.cpp:369] relu2 -> ip2 (in-place)
I0430 17:59:43.922178 21557 net.cpp:124] Setting up relu2
I0430 17:59:43.922185 21557 net.cpp:131] Top shape: 1000 160 (160000)
I0430 17:59:43.922188 21557 net.cpp:139] Memory required for data: 13660000
I0430 17:59:43.922191 21557 layer_factory.hpp:77] Creating layer ip3
I0430 17:59:43.922199 21557 net.cpp:86] Creating Layer ip3
I0430 17:59:43.922201 21557 net.cpp:408] ip3 <- ip2
I0430 17:59:43.922206 21557 net.cpp:382] ip3 -> ip3
I0430 17:59:43.922490 21557 net.cpp:124] Setting up ip3
I0430 17:59:43.922497 21557 net.cpp:131] Top shape: 1000 40 (40000)
I0430 17:59:43.922502 21557 net.cpp:139] Memory required for data: 13820000
I0430 17:59:43.922508 21557 layer_factory.hpp:77] Creating layer relu3
I0430 17:59:43.922513 21557 net.cpp:86] Creating Layer relu3
I0430 17:59:43.922516 21557 net.cpp:408] relu3 <- ip3
I0430 17:59:43.922520 21557 net.cpp:369] relu3 -> ip3 (in-place)
I0430 17:59:43.922668 21557 net.cpp:124] Setting up relu3
I0430 17:59:43.922677 21557 net.cpp:131] Top shape: 1000 40 (40000)
I0430 17:59:43.922679 21557 net.cpp:139] Memory required for data: 13980000
I0430 17:59:43.922683 21557 layer_factory.hpp:77] Creating layer ip4
I0430 17:59:43.922689 21557 net.cpp:86] Creating Layer ip4
I0430 17:59:43.922693 21557 net.cpp:408] ip4 <- ip3
I0430 17:59:43.922698 21557 net.cpp:382] ip4 -> ip4
I0430 17:59:43.922817 21557 net.cpp:124] Setting up ip4
I0430 17:59:43.922824 21557 net.cpp:131] Top shape: 1000 10 (10000)
I0430 17:59:43.922827 21557 net.cpp:139] Memory required for data: 14020000
I0430 17:59:43.922832 21557 layer_factory.hpp:77] Creating layer ip4_ip4_0_split
I0430 17:59:43.922837 21557 net.cpp:86] Creating Layer ip4_ip4_0_split
I0430 17:59:43.922840 21557 net.cpp:408] ip4_ip4_0_split <- ip4
I0430 17:59:43.922843 21557 net.cpp:382] ip4_ip4_0_split -> ip4_ip4_0_split_0
I0430 17:59:43.922850 21557 net.cpp:382] ip4_ip4_0_split -> ip4_ip4_0_split_1
I0430 17:59:43.922888 21557 net.cpp:124] Setting up ip4_ip4_0_split
I0430 17:59:43.922894 21557 net.cpp:131] Top shape: 1000 10 (10000)
I0430 17:59:43.922899 21557 net.cpp:131] Top shape: 1000 10 (10000)
I0430 17:59:43.922900 21557 net.cpp:139] Memory required for data: 14100000
I0430 17:59:43.922904 21557 layer_factory.hpp:77] Creating layer accuracy
I0430 17:59:43.922915 21557 net.cpp:86] Creating Layer accuracy
I0430 17:59:43.922919 21557 net.cpp:408] accuracy <- ip4_ip4_0_split_0
I0430 17:59:43.922921 21557 net.cpp:408] accuracy <- label_cifar_1_split_0
I0430 17:59:43.922927 21557 net.cpp:382] accuracy -> accuracy
…
