…
I0501 01:44:33.354005 11859 net.cpp:296] The NetState phase (0) differed from the phase (1) specified by a rule in layer cifar
I0501 01:44:33.354024 11859 net.cpp:296] The NetState phase (0) differed from the phase (1) specified by a rule in layer accuracy
I0501 01:44:33.354130 11859 net.cpp:53] Initializing net from parameters: 
name: "CIFAR"
state {
  phase: TRAIN
  level: 0
  stage: ""
}
layer {
  name: "cifar"
  type: "Data"
  top: "data"
  top: "label"
  include {
    phase: TRAIN
  }
  transform_param {
    mean_file: "examples/cifar10/mean.binaryproto"
  }
  data_param {
    source: "examples/cifar10/cifar10_train_lmdb"
    batch_size: 111
    backend: LMDB
  }
}
layer {
  name: "conv0"
  type: "Convolution"
  bottom: "data"
  top: "conv0"
  param {
    lr_mult: 1
  }
  param {
    lr_mult: 2
  }
  convolution_param {
    num_output: 8
    pad: 2
    kernel_size: 3
    stride: 1
    weight_filler {
      type: "gaussian"
      std: 0.01
    }
    bias_filler {
      type: "constant"
    }
  }
}
layer {
  name: "Sigmoid0"
  type: "Sigmoid"
  bottom: "conv0"
  top: "Sigmoid0"
}
layer {
  name: "pool0"
  type: "Pooling"
  bottom: "Sigmoid0"
  top: "pool0"
  pooling_param {
    pool: AVE
    kernel_size: 3
    stride: 2
  }
}
layer {
  name: "ip1"
  type: "InnerProduct"
  bottom: "pool0"
  top: "ip1"
  param {
    lr_mult: 1
  }
  param {
    lr_mult: 2
  }
  inner_product_param {
    num_output: 160
    weight_filler {
      type: "gaussian"
      std: 0.01
    }
    bias_filler {
      type: "constant"
    }
  }
}
layer {
  name: "relu1"
  type: "ReLU"
  bottom: "ip1"
  top: "ip1"
}
layer {
  name: "ip2"
  type: "InnerProduct"
  bottom: "ip1"
  top: "ip2"
  param {
    lr_mult: 1
  }
  param {
    lr_mult: 2
  }
  inner_product_param {
    num_output: 40
    weight_filler {
      type: "gaussian"
      std: 0.01
    }
    bias_filler {
      type: "constant"
    }
  }
}
layer {
  name: "relu2"
  type: "ReLU"
  bottom: "ip2"
  top: "ip2"
}
layer {
  name: "ip3"
  type: "InnerProduct"
  bottom: "ip2"
  top: "ip3"
  param {
    lr_mult: 1
  }
  param {
    lr_mult: 2
  }
  inner_product_param {
    num_output: 160
    weight_filler {
      type: "gaussian"
      std: 0.01
    }
    bias_filler {
      type: "constant"
    }
  }
}
layer {
  name: "relu3"
  type: "ReLU"
  bottom: "ip3"
  top: "ip3"
}
layer {
  name: "ip4"
  type: "InnerProduct"
  bottom: "ip3"
  top: "ip4"
  param {
    lr_mult: 1
  }
  param {
    lr_mult: 2
  }
  inner_product_param {
    num_output: 10
    weight_filler {
      type: "gaussian"
      std: 0.01
    }
    bias_filler {
      type: "constant"
    }
  }
}
layer {
  name: "loss"
  type: "SoftmaxWithLoss"
  bottom: "ip4"
  bottom: "label"
  top: "loss"
}
I0501 01:44:33.354209 11859 layer_factory.hpp:77] Creating layer cifar
I0501 01:44:33.354307 11859 db_lmdb.cpp:35] Opened lmdb examples/cifar10/cifar10_train_lmdb
I0501 01:44:33.354334 11859 net.cpp:86] Creating Layer cifar
I0501 01:44:33.354344 11859 net.cpp:382] cifar -> data
I0501 01:44:33.354367 11859 net.cpp:382] cifar -> label
I0501 01:44:33.354378 11859 data_transformer.cpp:25] Loading mean file from: examples/cifar10/mean.binaryproto
I0501 01:44:33.356503 11859 data_layer.cpp:45] output data size: 111,3,32,32
I0501 01:44:33.364369 11859 net.cpp:124] Setting up cifar
I0501 01:44:33.364387 11859 net.cpp:131] Top shape: 111 3 32 32 (340992)
I0501 01:44:33.364393 11859 net.cpp:131] Top shape: 111 (111)
I0501 01:44:33.364398 11859 net.cpp:139] Memory required for data: 1364412
I0501 01:44:33.364421 11859 layer_factory.hpp:77] Creating layer conv0
I0501 01:44:33.364439 11859 net.cpp:86] Creating Layer conv0
I0501 01:44:33.364445 11859 net.cpp:408] conv0 <- data
I0501 01:44:33.364459 11859 net.cpp:382] conv0 -> conv0
I0501 01:44:33.632346 11859 net.cpp:124] Setting up conv0
I0501 01:44:33.632375 11859 net.cpp:131] Top shape: 111 8 34 34 (1026528)
I0501 01:44:33.632378 11859 net.cpp:139] Memory required for data: 5470524
I0501 01:44:33.632392 11859 layer_factory.hpp:77] Creating layer Sigmoid0
I0501 01:44:33.632405 11859 net.cpp:86] Creating Layer Sigmoid0
I0501 01:44:33.632408 11859 net.cpp:408] Sigmoid0 <- conv0
I0501 01:44:33.632413 11859 net.cpp:382] Sigmoid0 -> Sigmoid0
I0501 01:44:33.632596 11859 net.cpp:124] Setting up Sigmoid0
I0501 01:44:33.632606 11859 net.cpp:131] Top shape: 111 8 34 34 (1026528)
I0501 01:44:33.632609 11859 net.cpp:139] Memory required for data: 9576636
I0501 01:44:33.632613 11859 layer_factory.hpp:77] Creating layer pool0
I0501 01:44:33.632619 11859 net.cpp:86] Creating Layer pool0
I0501 01:44:33.632622 11859 net.cpp:408] pool0 <- Sigmoid0
I0501 01:44:33.632627 11859 net.cpp:382] pool0 -> pool0
I0501 01:44:33.633419 11859 net.cpp:124] Setting up pool0
I0501 01:44:33.633431 11859 net.cpp:131] Top shape: 111 8 17 17 (256632)
I0501 01:44:33.633435 11859 net.cpp:139] Memory required for data: 10603164
I0501 01:44:33.633438 11859 layer_factory.hpp:77] Creating layer ip1
I0501 01:44:33.633448 11859 net.cpp:86] Creating Layer ip1
I0501 01:44:33.633451 11859 net.cpp:408] ip1 <- pool0
I0501 01:44:33.633456 11859 net.cpp:382] ip1 -> ip1
I0501 01:44:33.643786 11859 net.cpp:124] Setting up ip1
I0501 01:44:33.643798 11859 net.cpp:131] Top shape: 111 160 (17760)
I0501 01:44:33.643801 11859 net.cpp:139] Memory required for data: 10674204
I0501 01:44:33.643810 11859 layer_factory.hpp:77] Creating layer relu1
I0501 01:44:33.643815 11859 net.cpp:86] Creating Layer relu1
I0501 01:44:33.643818 11859 net.cpp:408] relu1 <- ip1
I0501 01:44:33.643822 11859 net.cpp:369] relu1 -> ip1 (in-place)
I0501 01:44:33.643996 11859 net.cpp:124] Setting up relu1
I0501 01:44:33.644004 11859 net.cpp:131] Top shape: 111 160 (17760)
I0501 01:44:33.644007 11859 net.cpp:139] Memory required for data: 10745244
I0501 01:44:33.644011 11859 layer_factory.hpp:77] Creating layer ip2
I0501 01:44:33.644016 11859 net.cpp:86] Creating Layer ip2
I0501 01:44:33.644019 11859 net.cpp:408] ip2 <- ip1
I0501 01:44:33.644024 11859 net.cpp:382] ip2 -> ip2
I0501 01:44:33.645061 11859 net.cpp:124] Setting up ip2
I0501 01:44:33.645074 11859 net.cpp:131] Top shape: 111 40 (4440)
I0501 01:44:33.645077 11859 net.cpp:139] Memory required for data: 10763004
I0501 01:44:33.645086 11859 layer_factory.hpp:77] Creating layer relu2
I0501 01:44:33.645090 11859 net.cpp:86] Creating Layer relu2
I0501 01:44:33.645093 11859 net.cpp:408] relu2 <- ip2
I0501 01:44:33.645097 11859 net.cpp:369] relu2 -> ip2 (in-place)
I0501 01:44:33.645259 11859 net.cpp:124] Setting up relu2
I0501 01:44:33.645268 11859 net.cpp:131] Top shape: 111 40 (4440)
I0501 01:44:33.645272 11859 net.cpp:139] Memory required for data: 10780764
I0501 01:44:33.645274 11859 layer_factory.hpp:77] Creating layer ip3
I0501 01:44:33.645282 11859 net.cpp:86] Creating Layer ip3
I0501 01:44:33.645284 11859 net.cpp:408] ip3 <- ip2
I0501 01:44:33.645289 11859 net.cpp:382] ip3 -> ip3
I0501 01:44:33.645535 11859 net.cpp:124] Setting up ip3
I0501 01:44:33.645542 11859 net.cpp:131] Top shape: 111 160 (17760)
I0501 01:44:33.645545 11859 net.cpp:139] Memory required for data: 10851804
I0501 01:44:33.645550 11859 layer_factory.hpp:77] Creating layer relu3
I0501 01:44:33.645555 11859 net.cpp:86] Creating Layer relu3
I0501 01:44:33.645558 11859 net.cpp:408] relu3 <- ip3
I0501 01:44:33.645562 11859 net.cpp:369] relu3 -> ip3 (in-place)
I0501 01:44:33.645712 11859 net.cpp:124] Setting up relu3
I0501 01:44:33.645720 11859 net.cpp:131] Top shape: 111 160 (17760)
I0501 01:44:33.645722 11859 net.cpp:139] Memory required for data: 10922844
I0501 01:44:33.645725 11859 layer_factory.hpp:77] Creating layer ip4
I0501 01:44:33.645745 11859 net.cpp:86] Creating Layer ip4
I0501 01:44:33.645750 11859 net.cpp:408] ip4 <- ip3
I0501 01:44:33.645754 11859 net.cpp:382] ip4 -> ip4
I0501 01:44:33.645911 11859 net.cpp:124] Setting up ip4
I0501 01:44:33.645920 11859 net.cpp:131] Top shape: 111 10 (1110)
I0501 01:44:33.645921 11859 net.cpp:139] Memory required for data: 10927284
I0501 01:44:33.645929 11859 layer_factory.hpp:77] Creating layer loss
I0501 01:44:33.645954 11859 net.cpp:86] Creating Layer loss
I0501 01:44:33.645957 11859 net.cpp:408] loss <- ip4
I0501 01:44:33.645961 11859 net.cpp:408] loss <- label
I0501 01:44:33.645967 11859 net.cpp:382] loss -> loss
I0501 01:44:33.645980 11859 layer_factory.hpp:77] Creating layer loss
…
I0501 01:44:33.647234 11859 solver.cpp:173] Creating test net (#0) specified by net file: ECE595/cifar/train_test/var_everything/cifar_train_test_299.prototxt
I0501 01:44:33.647261 11859 net.cpp:296] The NetState phase (1) differed from the phase (0) specified by a rule in layer cifar
I0501 01:44:33.647351 11859 net.cpp:53] Initializing net from parameters: 
name: "CIFAR"
state {
  phase: TEST
}
layer {
  name: "cifar"
  type: "Data"
  top: "data"
  top: "label"
  include {
    phase: TEST
  }
  transform_param {
    mean_file: "examples/cifar10/mean.binaryproto"
  }
  data_param {
    source: "examples/cifar10/cifar10_test_lmdb"
    batch_size: 1000
    backend: LMDB
  }
}
layer {
  name: "conv0"
  type: "Convolution"
  bottom: "data"
  top: "conv0"
  param {
    lr_mult: 1
  }
  param {
    lr_mult: 2
  }
  convolution_param {
    num_output: 8
    pad: 2
    kernel_size: 3
    stride: 1
    weight_filler {
      type: "gaussian"
      std: 0.01
    }
    bias_filler {
      type: "constant"
    }
  }
}
layer {
  name: "Sigmoid0"
  type: "Sigmoid"
  bottom: "conv0"
  top: "Sigmoid0"
}
layer {
  name: "pool0"
  type: "Pooling"
  bottom: "Sigmoid0"
  top: "pool0"
  pooling_param {
    pool: AVE
    kernel_size: 3
    stride: 2
  }
}
layer {
  name: "ip1"
  type: "InnerProduct"
  bottom: "pool0"
  top: "ip1"
  param {
    lr_mult: 1
  }
  param {
    lr_mult: 2
  }
  inner_product_param {
    num_output: 160
    weight_filler {
      type: "gaussian"
      std: 0.01
    }
    bias_filler {
      type: "constant"
    }
  }
}
layer {
  name: "relu1"
  type: "ReLU"
  bottom: "ip1"
  top: "ip1"
}
layer {
  name: "ip2"
  type: "InnerProduct"
  bottom: "ip1"
  top: "ip2"
  param {
    lr_mult: 1
  }
  param {
    lr_mult: 2
  }
  inner_product_param {
    num_output: 40
    weight_filler {
      type: "gaussian"
      std: 0.01
    }
    bias_filler {
      type: "constant"
    }
  }
}
layer {
  name: "relu2"
  type: "ReLU"
  bottom: "ip2"
  top: "ip2"
}
layer {
  name: "ip3"
  type: "InnerProduct"
  bottom: "ip2"
  top: "ip3"
  param {
    lr_mult: 1
  }
  param {
    lr_mult: 2
  }
  inner_product_param {
    num_output: 160
    weight_filler {
      type: "gaussian"
      std: 0.01
    }
    bias_filler {
      type: "constant"
    }
  }
}
layer {
  name: "relu3"
  type: "ReLU"
  bottom: "ip3"
  top: "ip3"
}
layer {
  name: "ip4"
  type: "InnerProduct"
  bottom: "ip3"
  top: "ip4"
  param {
    lr_mult: 1
  }
  param {
    lr_mult: 2
  }
  inner_product_param {
    num_output: 10
    weight_filler {
      type: "gaussian"
      std: 0.01
    }
    bias_filler {
      type: "constant"
    }
  }
}
layer {
  name: "accuracy"
  type: "Accuracy"
  bottom: "ip4"
  bottom: "label"
  top: "accuracy"
  include {
    phase: TEST
  }
}
layer {
  name: "loss"
  type: "SoftmaxWithLoss"
  bottom: "ip4"
  bottom: "label"
  top: "loss"
}
I0501 01:44:33.647429 11859 layer_factory.hpp:77] Creating layer cifar
I0501 01:44:33.647471 11859 db_lmdb.cpp:35] Opened lmdb examples/cifar10/cifar10_test_lmdb
I0501 01:44:33.647482 11859 net.cpp:86] Creating Layer cifar
I0501 01:44:33.647488 11859 net.cpp:382] cifar -> data
I0501 01:44:33.647495 11859 net.cpp:382] cifar -> label
I0501 01:44:33.647501 11859 data_transformer.cpp:25] Loading mean file from: examples/cifar10/mean.binaryproto
I0501 01:44:33.647639 11859 data_layer.cpp:45] output data size: 1000,3,32,32
I0501 01:44:33.669750 11859 net.cpp:124] Setting up cifar
I0501 01:44:33.669792 11859 net.cpp:131] Top shape: 1000 3 32 32 (3072000)
I0501 01:44:33.669797 11859 net.cpp:131] Top shape: 1000 (1000)
I0501 01:44:33.669800 11859 net.cpp:139] Memory required for data: 12292000
I0501 01:44:33.669806 11859 layer_factory.hpp:77] Creating layer label_cifar_1_split
I0501 01:44:33.669817 11859 net.cpp:86] Creating Layer label_cifar_1_split
I0501 01:44:33.669836 11859 net.cpp:408] label_cifar_1_split <- label
I0501 01:44:33.669844 11859 net.cpp:382] label_cifar_1_split -> label_cifar_1_split_0
I0501 01:44:33.669867 11859 net.cpp:382] label_cifar_1_split -> label_cifar_1_split_1
I0501 01:44:33.669988 11859 net.cpp:124] Setting up label_cifar_1_split
I0501 01:44:33.669996 11859 net.cpp:131] Top shape: 1000 (1000)
I0501 01:44:33.670001 11859 net.cpp:131] Top shape: 1000 (1000)
I0501 01:44:33.670002 11859 net.cpp:139] Memory required for data: 12300000
I0501 01:44:33.670006 11859 layer_factory.hpp:77] Creating layer conv0
I0501 01:44:33.670022 11859 net.cpp:86] Creating Layer conv0
I0501 01:44:33.670025 11859 net.cpp:408] conv0 <- data
I0501 01:44:33.670030 11859 net.cpp:382] conv0 -> conv0
I0501 01:44:33.671576 11859 net.cpp:124] Setting up conv0
I0501 01:44:33.671603 11859 net.cpp:131] Top shape: 1000 8 34 34 (9248000)
I0501 01:44:33.671607 11859 net.cpp:139] Memory required for data: 49292000
I0501 01:44:33.671617 11859 layer_factory.hpp:77] Creating layer Sigmoid0
I0501 01:44:33.671624 11859 net.cpp:86] Creating Layer Sigmoid0
I0501 01:44:33.671627 11859 net.cpp:408] Sigmoid0 <- conv0
I0501 01:44:33.671633 11859 net.cpp:382] Sigmoid0 -> Sigmoid0
I0501 01:44:33.671826 11859 net.cpp:124] Setting up Sigmoid0
I0501 01:44:33.671835 11859 net.cpp:131] Top shape: 1000 8 34 34 (9248000)
I0501 01:44:33.671838 11859 net.cpp:139] Memory required for data: 86284000
I0501 01:44:33.671841 11859 layer_factory.hpp:77] Creating layer pool0
I0501 01:44:33.671850 11859 net.cpp:86] Creating Layer pool0
I0501 01:44:33.671854 11859 net.cpp:408] pool0 <- Sigmoid0
I0501 01:44:33.671859 11859 net.cpp:382] pool0 -> pool0
I0501 01:44:33.672165 11859 net.cpp:124] Setting up pool0
I0501 01:44:33.672174 11859 net.cpp:131] Top shape: 1000 8 17 17 (2312000)
I0501 01:44:33.672191 11859 net.cpp:139] Memory required for data: 95532000
I0501 01:44:33.672194 11859 layer_factory.hpp:77] Creating layer ip1
I0501 01:44:33.672217 11859 net.cpp:86] Creating Layer ip1
I0501 01:44:33.672221 11859 net.cpp:408] ip1 <- pool0
I0501 01:44:33.672241 11859 net.cpp:382] ip1 -> ip1
I0501 01:44:33.683630 11859 net.cpp:124] Setting up ip1
I0501 01:44:33.683658 11859 net.cpp:131] Top shape: 1000 160 (160000)
I0501 01:44:33.683662 11859 net.cpp:139] Memory required for data: 96172000
I0501 01:44:33.683684 11859 layer_factory.hpp:77] Creating layer relu1
I0501 01:44:33.683691 11859 net.cpp:86] Creating Layer relu1
I0501 01:44:33.683694 11859 net.cpp:408] relu1 <- ip1
I0501 01:44:33.683713 11859 net.cpp:369] relu1 -> ip1 (in-place)
I0501 01:44:33.683890 11859 net.cpp:124] Setting up relu1
I0501 01:44:33.683899 11859 net.cpp:131] Top shape: 1000 160 (160000)
I0501 01:44:33.683902 11859 net.cpp:139] Memory required for data: 96812000
I0501 01:44:33.683905 11859 layer_factory.hpp:77] Creating layer ip2
I0501 01:44:33.683912 11859 net.cpp:86] Creating Layer ip2
I0501 01:44:33.683917 11859 net.cpp:408] ip2 <- ip1
I0501 01:44:33.683921 11859 net.cpp:382] ip2 -> ip2
I0501 01:44:33.684249 11859 net.cpp:124] Setting up ip2
I0501 01:44:33.684257 11859 net.cpp:131] Top shape: 1000 40 (40000)
I0501 01:44:33.684260 11859 net.cpp:139] Memory required for data: 96972000
I0501 01:44:33.684283 11859 layer_factory.hpp:77] Creating layer relu2
I0501 01:44:33.684289 11859 net.cpp:86] Creating Layer relu2
I0501 01:44:33.684293 11859 net.cpp:408] relu2 <- ip2
I0501 01:44:33.684298 11859 net.cpp:369] relu2 -> ip2 (in-place)
I0501 01:44:33.685150 11859 net.cpp:124] Setting up relu2
I0501 01:44:33.685181 11859 net.cpp:131] Top shape: 1000 40 (40000)
I0501 01:44:33.685185 11859 net.cpp:139] Memory required for data: 97132000
I0501 01:44:33.685189 11859 layer_factory.hpp:77] Creating layer ip3
I0501 01:44:33.685212 11859 net.cpp:86] Creating Layer ip3
I0501 01:44:33.685216 11859 net.cpp:408] ip3 <- ip2
I0501 01:44:33.685222 11859 net.cpp:382] ip3 -> ip3
I0501 01:44:33.685540 11859 net.cpp:124] Setting up ip3
I0501 01:44:33.685547 11859 net.cpp:131] Top shape: 1000 160 (160000)
I0501 01:44:33.685564 11859 net.cpp:139] Memory required for data: 97772000
I0501 01:44:33.685570 11859 layer_factory.hpp:77] Creating layer relu3
I0501 01:44:33.685591 11859 net.cpp:86] Creating Layer relu3
I0501 01:44:33.685595 11859 net.cpp:408] relu3 <- ip3
I0501 01:44:33.685612 11859 net.cpp:369] relu3 -> ip3 (in-place)
I0501 01:44:33.685780 11859 net.cpp:124] Setting up relu3
I0501 01:44:33.685787 11859 net.cpp:131] Top shape: 1000 160 (160000)
I0501 01:44:33.685791 11859 net.cpp:139] Memory required for data: 98412000
I0501 01:44:33.685793 11859 layer_factory.hpp:77] Creating layer ip4
I0501 01:44:33.685801 11859 net.cpp:86] Creating Layer ip4
I0501 01:44:33.685804 11859 net.cpp:408] ip4 <- ip3
I0501 01:44:33.685808 11859 net.cpp:382] ip4 -> ip4
I0501 01:44:33.685955 11859 net.cpp:124] Setting up ip4
I0501 01:44:33.685962 11859 net.cpp:131] Top shape: 1000 10 (10000)
I0501 01:44:33.685966 11859 net.cpp:139] Memory required for data: 98452000
I0501 01:44:33.685974 11859 layer_factory.hpp:77] Creating layer ip4_ip4_0_split
I0501 01:44:33.685981 11859 net.cpp:86] Creating Layer ip4_ip4_0_split
I0501 01:44:33.685983 11859 net.cpp:408] ip4_ip4_0_split <- ip4
I0501 01:44:33.685988 11859 net.cpp:382] ip4_ip4_0_split -> ip4_ip4_0_split_0
I0501 01:44:33.685993 11859 net.cpp:382] ip4_ip4_0_split -> ip4_ip4_0_split_1
I0501 01:44:33.686023 11859 net.cpp:124] Setting up ip4_ip4_0_split
I0501 01:44:33.686028 11859 net.cpp:131] Top shape: 1000 10 (10000)
I0501 01:44:33.686031 11859 net.cpp:131] Top shape: 1000 10 (10000)
I0501 01:44:33.686034 11859 net.cpp:139] Memory required for data: 98532000
I0501 01:44:33.686038 11859 layer_factory.hpp:77] Creating layer accuracy
I0501 01:44:33.686044 11859 net.cpp:86] Creating Layer accuracy
I0501 01:44:33.686048 11859 net.cpp:408] accuracy <- ip4_ip4_0_split_0
I0501 01:44:33.686051 11859 net.cpp:408] accuracy <- label_cifar_1_split_0
I0501 01:44:33.686056 11859 net.cpp:382] accuracy -> accuracy
…
