…
I0430 16:23:08.742218 17254 net.cpp:296] The NetState phase (0) differed from the phase (1) specified by a rule in layer cifar
I0430 16:23:08.742229 17254 net.cpp:296] The NetState phase (0) differed from the phase (1) specified by a rule in layer accuracy
I0430 16:23:08.742281 17254 net.cpp:53] Initializing net from parameters: 
name: "CIFAR"
state {
  phase: TRAIN
  level: 0
  stage: ""
}
layer {
  name: "cifar"
  type: "Data"
  top: "data"
  top: "label"
  include {
    phase: TRAIN
  }
  transform_param {
    mean_file: "examples/cifar10/mean.binaryproto"
  }
  data_param {
    source: "examples/cifar10/cifar10_train_lmdb"
    batch_size: 111
    backend: LMDB
  }
}
layer {
  name: "ip1"
  type: "InnerProduct"
  bottom: "data"
  top: "ip1"
  param {
    lr_mult: 1
  }
  param {
    lr_mult: 2
  }
  inner_product_param {
    num_output: 20
    weight_filler {
      type: "gaussian"
      std: 0.01
    }
    bias_filler {
      type: "constant"
    }
  }
}
layer {
  name: "relu1"
  type: "ReLU"
  bottom: "ip1"
  top: "ip1"
}
layer {
  name: "ip2"
  type: "InnerProduct"
  bottom: "ip1"
  top: "ip2"
  param {
    lr_mult: 1
  }
  param {
    lr_mult: 2
  }
  inner_product_param {
    num_output: 10
    weight_filler {
      type: "gaussian"
      std: 0.01
    }
    bias_filler {
      type: "constant"
    }
  }
}
layer {
  name: "loss"
  type: "SoftmaxWithLoss"
  bottom: "ip2"
  bottom: "label"
  top: "loss"
}
I0430 16:23:08.742326 17254 layer_factory.hpp:77] Creating layer cifar
I0430 16:23:08.742424 17254 db_lmdb.cpp:35] Opened lmdb examples/cifar10/cifar10_train_lmdb
I0430 16:23:08.742445 17254 net.cpp:86] Creating Layer cifar
I0430 16:23:08.742452 17254 net.cpp:382] cifar -> data
I0430 16:23:08.742470 17254 net.cpp:382] cifar -> label
I0430 16:23:08.742480 17254 data_transformer.cpp:25] Loading mean file from: examples/cifar10/mean.binaryproto
I0430 16:23:08.744168 17254 data_layer.cpp:45] output data size: 111,3,32,32
I0430 16:23:08.750550 17254 net.cpp:124] Setting up cifar
I0430 16:23:08.750564 17254 net.cpp:131] Top shape: 111 3 32 32 (340992)
I0430 16:23:08.750568 17254 net.cpp:131] Top shape: 111 (111)
I0430 16:23:08.750571 17254 net.cpp:139] Memory required for data: 1364412
I0430 16:23:08.750576 17254 layer_factory.hpp:77] Creating layer ip1
I0430 16:23:08.750584 17254 net.cpp:86] Creating Layer ip1
I0430 16:23:08.750588 17254 net.cpp:408] ip1 <- data
I0430 16:23:08.750624 17254 net.cpp:382] ip1 -> ip1
I0430 16:23:08.753226 17254 net.cpp:124] Setting up ip1
I0430 16:23:08.753239 17254 net.cpp:131] Top shape: 111 20 (2220)
I0430 16:23:08.753242 17254 net.cpp:139] Memory required for data: 1373292
I0430 16:23:08.753253 17254 layer_factory.hpp:77] Creating layer relu1
I0430 16:23:08.753262 17254 net.cpp:86] Creating Layer relu1
I0430 16:23:08.753264 17254 net.cpp:408] relu1 <- ip1
I0430 16:23:08.753286 17254 net.cpp:369] relu1 -> ip1 (in-place)
I0430 16:23:08.980888 17254 net.cpp:124] Setting up relu1
I0430 16:23:08.980929 17254 net.cpp:131] Top shape: 111 20 (2220)
I0430 16:23:08.980933 17254 net.cpp:139] Memory required for data: 1382172
I0430 16:23:08.980938 17254 layer_factory.hpp:77] Creating layer ip2
I0430 16:23:08.980952 17254 net.cpp:86] Creating Layer ip2
I0430 16:23:08.980957 17254 net.cpp:408] ip2 <- ip1
I0430 16:23:08.980963 17254 net.cpp:382] ip2 -> ip2
I0430 16:23:08.981083 17254 net.cpp:124] Setting up ip2
I0430 16:23:08.981091 17254 net.cpp:131] Top shape: 111 10 (1110)
I0430 16:23:08.981112 17254 net.cpp:139] Memory required for data: 1386612
I0430 16:23:08.981122 17254 layer_factory.hpp:77] Creating layer loss
I0430 16:23:08.981128 17254 net.cpp:86] Creating Layer loss
I0430 16:23:08.981132 17254 net.cpp:408] loss <- ip2
I0430 16:23:08.981135 17254 net.cpp:408] loss <- label
I0430 16:23:08.981140 17254 net.cpp:382] loss -> loss
I0430 16:23:08.981158 17254 layer_factory.hpp:77] Creating layer loss
…
I0430 16:23:08.982234 17254 solver.cpp:173] Creating test net (#0) specified by net file: ECE595/cifar/train_test/var_everything/cifar_train_test_1.prototxt
I0430 16:23:08.982252 17254 net.cpp:296] The NetState phase (1) differed from the phase (0) specified by a rule in layer cifar
I0430 16:23:08.982316 17254 net.cpp:53] Initializing net from parameters: 
name: "CIFAR"
state {
  phase: TEST
}
layer {
  name: "cifar"
  type: "Data"
  top: "data"
  top: "label"
  include {
    phase: TEST
  }
  transform_param {
    mean_file: "examples/cifar10/mean.binaryproto"
  }
  data_param {
    source: "examples/cifar10/cifar10_test_lmdb"
    batch_size: 1000
    backend: LMDB
  }
}
layer {
  name: "ip1"
  type: "InnerProduct"
  bottom: "data"
  top: "ip1"
  param {
    lr_mult: 1
  }
  param {
    lr_mult: 2
  }
  inner_product_param {
    num_output: 20
    weight_filler {
      type: "gaussian"
      std: 0.01
    }
    bias_filler {
      type: "constant"
    }
  }
}
layer {
  name: "relu1"
  type: "ReLU"
  bottom: "ip1"
  top: "ip1"
}
layer {
  name: "ip2"
  type: "InnerProduct"
  bottom: "ip1"
  top: "ip2"
  param {
    lr_mult: 1
  }
  param {
    lr_mult: 2
  }
  inner_product_param {
    num_output: 10
    weight_filler {
      type: "gaussian"
      std: 0.01
    }
    bias_filler {
      type: "constant"
    }
  }
}
layer {
  name: "accuracy"
  type: "Accuracy"
  bottom: "ip2"
  bottom: "label"
  top: "accuracy"
  include {
    phase: TEST
  }
}
layer {
  name: "loss"
  type: "SoftmaxWithLoss"
  bottom: "ip2"
  bottom: "label"
  top: "loss"
}
I0430 16:23:08.982379 17254 layer_factory.hpp:77] Creating layer cifar
I0430 16:23:08.982424 17254 db_lmdb.cpp:35] Opened lmdb examples/cifar10/cifar10_test_lmdb
I0430 16:23:08.982435 17254 net.cpp:86] Creating Layer cifar
I0430 16:23:08.982440 17254 net.cpp:382] cifar -> data
I0430 16:23:08.982447 17254 net.cpp:382] cifar -> label
I0430 16:23:08.982455 17254 data_transformer.cpp:25] Loading mean file from: examples/cifar10/mean.binaryproto
I0430 16:23:08.982594 17254 data_layer.cpp:45] output data size: 1000,3,32,32
I0430 16:23:09.004791 17254 net.cpp:124] Setting up cifar
I0430 16:23:09.004854 17254 net.cpp:131] Top shape: 1000 3 32 32 (3072000)
I0430 16:23:09.004875 17254 net.cpp:131] Top shape: 1000 (1000)
I0430 16:23:09.004879 17254 net.cpp:139] Memory required for data: 12292000
I0430 16:23:09.004899 17254 layer_factory.hpp:77] Creating layer label_cifar_1_split
I0430 16:23:09.004916 17254 net.cpp:86] Creating Layer label_cifar_1_split
I0430 16:23:09.004920 17254 net.cpp:408] label_cifar_1_split <- label
I0430 16:23:09.004943 17254 net.cpp:382] label_cifar_1_split -> label_cifar_1_split_0
I0430 16:23:09.004953 17254 net.cpp:382] label_cifar_1_split -> label_cifar_1_split_1
I0430 16:23:09.005049 17254 net.cpp:124] Setting up label_cifar_1_split
I0430 16:23:09.005066 17254 net.cpp:131] Top shape: 1000 (1000)
I0430 16:23:09.005085 17254 net.cpp:131] Top shape: 1000 (1000)
I0430 16:23:09.005089 17254 net.cpp:139] Memory required for data: 12300000
I0430 16:23:09.005092 17254 layer_factory.hpp:77] Creating layer ip1
I0430 16:23:09.005101 17254 net.cpp:86] Creating Layer ip1
I0430 16:23:09.005105 17254 net.cpp:408] ip1 <- data
I0430 16:23:09.005110 17254 net.cpp:382] ip1 -> ip1
I0430 16:23:09.007664 17254 net.cpp:124] Setting up ip1
I0430 16:23:09.007675 17254 net.cpp:131] Top shape: 1000 20 (20000)
I0430 16:23:09.007678 17254 net.cpp:139] Memory required for data: 12380000
I0430 16:23:09.007688 17254 layer_factory.hpp:77] Creating layer relu1
I0430 16:23:09.007694 17254 net.cpp:86] Creating Layer relu1
I0430 16:23:09.007699 17254 net.cpp:408] relu1 <- ip1
I0430 16:23:09.007702 17254 net.cpp:369] relu1 -> ip1 (in-place)
I0430 16:23:09.007880 17254 net.cpp:124] Setting up relu1
I0430 16:23:09.007889 17254 net.cpp:131] Top shape: 1000 20 (20000)
I0430 16:23:09.007891 17254 net.cpp:139] Memory required for data: 12460000
I0430 16:23:09.007894 17254 layer_factory.hpp:77] Creating layer ip2
I0430 16:23:09.007903 17254 net.cpp:86] Creating Layer ip2
I0430 16:23:09.007906 17254 net.cpp:408] ip2 <- ip1
I0430 16:23:09.007911 17254 net.cpp:382] ip2 -> ip2
I0430 16:23:09.008018 17254 net.cpp:124] Setting up ip2
I0430 16:23:09.008026 17254 net.cpp:131] Top shape: 1000 10 (10000)
I0430 16:23:09.008028 17254 net.cpp:139] Memory required for data: 12500000
I0430 16:23:09.008036 17254 layer_factory.hpp:77] Creating layer ip2_ip2_0_split
I0430 16:23:09.008041 17254 net.cpp:86] Creating Layer ip2_ip2_0_split
I0430 16:23:09.008044 17254 net.cpp:408] ip2_ip2_0_split <- ip2
I0430 16:23:09.008049 17254 net.cpp:382] ip2_ip2_0_split -> ip2_ip2_0_split_0
I0430 16:23:09.008054 17254 net.cpp:382] ip2_ip2_0_split -> ip2_ip2_0_split_1
I0430 16:23:09.008085 17254 net.cpp:124] Setting up ip2_ip2_0_split
I0430 16:23:09.008090 17254 net.cpp:131] Top shape: 1000 10 (10000)
I0430 16:23:09.008093 17254 net.cpp:131] Top shape: 1000 10 (10000)
I0430 16:23:09.008103 17254 net.cpp:139] Memory required for data: 12580000
I0430 16:23:09.008106 17254 layer_factory.hpp:77] Creating layer accuracy
I0430 16:23:09.008112 17254 net.cpp:86] Creating Layer accuracy
I0430 16:23:09.008116 17254 net.cpp:408] accuracy <- ip2_ip2_0_split_0
I0430 16:23:09.008119 17254 net.cpp:408] accuracy <- label_cifar_1_split_0
I0430 16:23:09.008123 17254 net.cpp:382] accuracy -> accuracy
…
