…
I0501 06:05:14.002328 31522 net.cpp:296] The NetState phase (0) differed from the phase (1) specified by a rule in layer cifar
I0501 06:05:14.002357 31522 net.cpp:296] The NetState phase (0) differed from the phase (1) specified by a rule in layer accuracy
I0501 06:05:14.002457 31522 net.cpp:53] Initializing net from parameters: 
name: "CIFAR"
state {
  phase: TRAIN
  level: 0
  stage: ""
}
layer {
  name: "cifar"
  type: "Data"
  top: "data"
  top: "label"
  include {
    phase: TRAIN
  }
  transform_param {
    mean_file: "examples/cifar10/mean.binaryproto"
  }
  data_param {
    source: "examples/cifar10/cifar10_train_lmdb"
    batch_size: 111
    backend: LMDB
  }
}
layer {
  name: "conv0"
  type: "Convolution"
  bottom: "data"
  top: "conv0"
  param {
    lr_mult: 1
  }
  param {
    lr_mult: 2
  }
  convolution_param {
    num_output: 8
    pad: 2
    kernel_size: 5
    stride: 1
    weight_filler {
      type: "gaussian"
      std: 0.01
    }
    bias_filler {
      type: "constant"
    }
  }
}
layer {
  name: "Sigmoid0"
  type: "Sigmoid"
  bottom: "conv0"
  top: "Sigmoid0"
}
layer {
  name: "pool0"
  type: "Pooling"
  bottom: "Sigmoid0"
  top: "pool0"
  pooling_param {
    pool: AVE
    kernel_size: 3
    stride: 2
  }
}
layer {
  name: "ip1"
  type: "InnerProduct"
  bottom: "pool0"
  top: "ip1"
  param {
    lr_mult: 1
  }
  param {
    lr_mult: 2
  }
  inner_product_param {
    num_output: 80
    weight_filler {
      type: "gaussian"
      std: 0.01
    }
    bias_filler {
      type: "constant"
    }
  }
}
layer {
  name: "relu1"
  type: "ReLU"
  bottom: "ip1"
  top: "ip1"
}
layer {
  name: "ip2"
  type: "InnerProduct"
  bottom: "ip1"
  top: "ip2"
  param {
    lr_mult: 1
  }
  param {
    lr_mult: 2
  }
  inner_product_param {
    num_output: 160
    weight_filler {
      type: "gaussian"
      std: 0.01
    }
    bias_filler {
      type: "constant"
    }
  }
}
layer {
  name: "relu2"
  type: "ReLU"
  bottom: "ip2"
  top: "ip2"
}
layer {
  name: "ip3"
  type: "InnerProduct"
  bottom: "ip2"
  top: "ip3"
  param {
    lr_mult: 1
  }
  param {
    lr_mult: 2
  }
  inner_product_param {
    num_output: 160
    weight_filler {
      type: "gaussian"
      std: 0.01
    }
    bias_filler {
      type: "constant"
    }
  }
}
layer {
  name: "relu3"
  type: "ReLU"
  bottom: "ip3"
  top: "ip3"
}
layer {
  name: "ip4"
  type: "InnerProduct"
  bottom: "ip3"
  top: "ip4"
  param {
    lr_mult: 1
  }
  param {
    lr_mult: 2
  }
  inner_product_param {
    num_output: 10
    weight_filler {
      type: "gaussian"
      std: 0.01
    }
    bias_filler {
      type: "constant"
    }
  }
}
layer {
  name: "loss"
  type: "SoftmaxWithLoss"
  bottom: "ip4"
  bottom: "label"
  top: "loss"
}
I0501 06:05:14.002526 31522 layer_factory.hpp:77] Creating layer cifar
I0501 06:05:14.002605 31522 db_lmdb.cpp:35] Opened lmdb examples/cifar10/cifar10_train_lmdb
I0501 06:05:14.002627 31522 net.cpp:86] Creating Layer cifar
I0501 06:05:14.002653 31522 net.cpp:382] cifar -> data
I0501 06:05:14.002688 31522 net.cpp:382] cifar -> label
I0501 06:05:14.002699 31522 data_transformer.cpp:25] Loading mean file from: examples/cifar10/mean.binaryproto
I0501 06:05:14.004531 31522 data_layer.cpp:45] output data size: 111,3,32,32
I0501 06:05:14.011423 31522 net.cpp:124] Setting up cifar
I0501 06:05:14.011456 31522 net.cpp:131] Top shape: 111 3 32 32 (340992)
I0501 06:05:14.011461 31522 net.cpp:131] Top shape: 111 (111)
I0501 06:05:14.011463 31522 net.cpp:139] Memory required for data: 1364412
I0501 06:05:14.011498 31522 layer_factory.hpp:77] Creating layer conv0
I0501 06:05:14.011515 31522 net.cpp:86] Creating Layer conv0
I0501 06:05:14.011520 31522 net.cpp:408] conv0 <- data
I0501 06:05:14.011531 31522 net.cpp:382] conv0 -> conv0
I0501 06:05:14.247951 31522 net.cpp:124] Setting up conv0
I0501 06:05:14.247978 31522 net.cpp:131] Top shape: 111 8 32 32 (909312)
I0501 06:05:14.247982 31522 net.cpp:139] Memory required for data: 5001660
I0501 06:05:14.247997 31522 layer_factory.hpp:77] Creating layer Sigmoid0
I0501 06:05:14.248008 31522 net.cpp:86] Creating Layer Sigmoid0
I0501 06:05:14.248011 31522 net.cpp:408] Sigmoid0 <- conv0
I0501 06:05:14.248016 31522 net.cpp:382] Sigmoid0 -> Sigmoid0
I0501 06:05:14.248189 31522 net.cpp:124] Setting up Sigmoid0
I0501 06:05:14.248198 31522 net.cpp:131] Top shape: 111 8 32 32 (909312)
I0501 06:05:14.248201 31522 net.cpp:139] Memory required for data: 8638908
I0501 06:05:14.248204 31522 layer_factory.hpp:77] Creating layer pool0
I0501 06:05:14.248211 31522 net.cpp:86] Creating Layer pool0
I0501 06:05:14.248214 31522 net.cpp:408] pool0 <- Sigmoid0
I0501 06:05:14.248219 31522 net.cpp:382] pool0 -> pool0
I0501 06:05:14.248976 31522 net.cpp:124] Setting up pool0
I0501 06:05:14.249006 31522 net.cpp:131] Top shape: 111 8 16 16 (227328)
I0501 06:05:14.249008 31522 net.cpp:139] Memory required for data: 9548220
I0501 06:05:14.249011 31522 layer_factory.hpp:77] Creating layer ip1
I0501 06:05:14.249022 31522 net.cpp:86] Creating Layer ip1
I0501 06:05:14.249024 31522 net.cpp:408] ip1 <- pool0
I0501 06:05:14.249029 31522 net.cpp:382] ip1 -> ip1
I0501 06:05:14.253424 31522 net.cpp:124] Setting up ip1
I0501 06:05:14.253432 31522 net.cpp:131] Top shape: 111 80 (8880)
I0501 06:05:14.253450 31522 net.cpp:139] Memory required for data: 9583740
I0501 06:05:14.253473 31522 layer_factory.hpp:77] Creating layer relu1
I0501 06:05:14.253480 31522 net.cpp:86] Creating Layer relu1
I0501 06:05:14.253484 31522 net.cpp:408] relu1 <- ip1
I0501 06:05:14.253487 31522 net.cpp:369] relu1 -> ip1 (in-place)
I0501 06:05:14.253657 31522 net.cpp:124] Setting up relu1
I0501 06:05:14.253666 31522 net.cpp:131] Top shape: 111 80 (8880)
I0501 06:05:14.253669 31522 net.cpp:139] Memory required for data: 9619260
I0501 06:05:14.253671 31522 layer_factory.hpp:77] Creating layer ip2
I0501 06:05:14.253677 31522 net.cpp:86] Creating Layer ip2
I0501 06:05:14.253681 31522 net.cpp:408] ip2 <- ip1
I0501 06:05:14.253685 31522 net.cpp:382] ip2 -> ip2
I0501 06:05:14.254931 31522 net.cpp:124] Setting up ip2
I0501 06:05:14.254942 31522 net.cpp:131] Top shape: 111 160 (17760)
I0501 06:05:14.254961 31522 net.cpp:139] Memory required for data: 9690300
I0501 06:05:14.254969 31522 layer_factory.hpp:77] Creating layer relu2
I0501 06:05:14.254974 31522 net.cpp:86] Creating Layer relu2
I0501 06:05:14.254977 31522 net.cpp:408] relu2 <- ip2
I0501 06:05:14.254982 31522 net.cpp:369] relu2 -> ip2 (in-place)
I0501 06:05:14.255162 31522 net.cpp:124] Setting up relu2
I0501 06:05:14.255172 31522 net.cpp:131] Top shape: 111 160 (17760)
I0501 06:05:14.255174 31522 net.cpp:139] Memory required for data: 9761340
I0501 06:05:14.255177 31522 layer_factory.hpp:77] Creating layer ip3
I0501 06:05:14.255184 31522 net.cpp:86] Creating Layer ip3
I0501 06:05:14.255187 31522 net.cpp:408] ip3 <- ip2
I0501 06:05:14.255192 31522 net.cpp:382] ip3 -> ip3
I0501 06:05:14.256721 31522 net.cpp:124] Setting up ip3
I0501 06:05:14.256733 31522 net.cpp:131] Top shape: 111 160 (17760)
I0501 06:05:14.256736 31522 net.cpp:139] Memory required for data: 9832380
I0501 06:05:14.256742 31522 layer_factory.hpp:77] Creating layer relu3
I0501 06:05:14.256747 31522 net.cpp:86] Creating Layer relu3
I0501 06:05:14.256749 31522 net.cpp:408] relu3 <- ip3
I0501 06:05:14.256753 31522 net.cpp:369] relu3 -> ip3 (in-place)
I0501 06:05:14.256939 31522 net.cpp:124] Setting up relu3
I0501 06:05:14.256948 31522 net.cpp:131] Top shape: 111 160 (17760)
I0501 06:05:14.256952 31522 net.cpp:139] Memory required for data: 9903420
I0501 06:05:14.256954 31522 layer_factory.hpp:77] Creating layer ip4
I0501 06:05:14.256974 31522 net.cpp:86] Creating Layer ip4
I0501 06:05:14.256978 31522 net.cpp:408] ip4 <- ip3
I0501 06:05:14.256983 31522 net.cpp:382] ip4 -> ip4
I0501 06:05:14.257117 31522 net.cpp:124] Setting up ip4
I0501 06:05:14.257124 31522 net.cpp:131] Top shape: 111 10 (1110)
I0501 06:05:14.257127 31522 net.cpp:139] Memory required for data: 9907860
I0501 06:05:14.257150 31522 layer_factory.hpp:77] Creating layer loss
I0501 06:05:14.257175 31522 net.cpp:86] Creating Layer loss
I0501 06:05:14.257179 31522 net.cpp:408] loss <- ip4
I0501 06:05:14.257181 31522 net.cpp:408] loss <- label
I0501 06:05:14.257189 31522 net.cpp:382] loss -> loss
I0501 06:05:14.257202 31522 layer_factory.hpp:77] Creating layer loss
…
I0501 06:05:14.258426 31522 solver.cpp:173] Creating test net (#0) specified by net file: ECE595/cifar/train_test/var_everything/cifar_train_test_439.prototxt
I0501 06:05:14.258453 31522 net.cpp:296] The NetState phase (1) differed from the phase (0) specified by a rule in layer cifar
I0501 06:05:14.258558 31522 net.cpp:53] Initializing net from parameters: 
name: "CIFAR"
state {
  phase: TEST
}
layer {
  name: "cifar"
  type: "Data"
  top: "data"
  top: "label"
  include {
    phase: TEST
  }
  transform_param {
    mean_file: "examples/cifar10/mean.binaryproto"
  }
  data_param {
    source: "examples/cifar10/cifar10_test_lmdb"
    batch_size: 1000
    backend: LMDB
  }
}
layer {
  name: "conv0"
  type: "Convolution"
  bottom: "data"
  top: "conv0"
  param {
    lr_mult: 1
  }
  param {
    lr_mult: 2
  }
  convolution_param {
    num_output: 8
    pad: 2
    kernel_size: 5
    stride: 1
    weight_filler {
      type: "gaussian"
      std: 0.01
    }
    bias_filler {
      type: "constant"
    }
  }
}
layer {
  name: "Sigmoid0"
  type: "Sigmoid"
  bottom: "conv0"
  top: "Sigmoid0"
}
layer {
  name: "pool0"
  type: "Pooling"
  bottom: "Sigmoid0"
  top: "pool0"
  pooling_param {
    pool: AVE
    kernel_size: 3
    stride: 2
  }
}
layer {
  name: "ip1"
  type: "InnerProduct"
  bottom: "pool0"
  top: "ip1"
  param {
    lr_mult: 1
  }
  param {
    lr_mult: 2
  }
  inner_product_param {
    num_output: 80
    weight_filler {
      type: "gaussian"
      std: 0.01
    }
    bias_filler {
      type: "constant"
    }
  }
}
layer {
  name: "relu1"
  type: "ReLU"
  bottom: "ip1"
  top: "ip1"
}
layer {
  name: "ip2"
  type: "InnerProduct"
  bottom: "ip1"
  top: "ip2"
  param {
    lr_mult: 1
  }
  param {
    lr_mult: 2
  }
  inner_product_param {
    num_output: 160
    weight_filler {
      type: "gaussian"
      std: 0.01
    }
    bias_filler {
      type: "constant"
    }
  }
}
layer {
  name: "relu2"
  type: "ReLU"
  bottom: "ip2"
  top: "ip2"
}
layer {
  name: "ip3"
  type: "InnerProduct"
  bottom: "ip2"
  top: "ip3"
  param {
    lr_mult: 1
  }
  param {
    lr_mult: 2
  }
  inner_product_param {
    num_output: 160
    weight_filler {
      type: "gaussian"
      std: 0.01
    }
    bias_filler {
      type: "constant"
    }
  }
}
layer {
  name: "relu3"
  type: "ReLU"
  bottom: "ip3"
  top: "ip3"
}
layer {
  name: "ip4"
  type: "InnerProduct"
  bottom: "ip3"
  top: "ip4"
  param {
    lr_mult: 1
  }
  param {
    lr_mult: 2
  }
  inner_product_param {
    num_output: 10
    weight_filler {
      type: "gaussian"
      std: 0.01
    }
    bias_filler {
      type: "constant"
    }
  }
}
layer {
  name: "accuracy"
  type: "Accuracy"
  bottom: "ip4"
  bottom: "label"
  top: "accuracy"
  include {
    phase: TEST
  }
}
layer {
  name: "loss"
  type: "SoftmaxWithLoss"
  bottom: "ip4"
  bottom: "label"
  top: "loss"
}
I0501 06:05:14.258632 31522 layer_factory.hpp:77] Creating layer cifar
I0501 06:05:14.258677 31522 db_lmdb.cpp:35] Opened lmdb examples/cifar10/cifar10_test_lmdb
I0501 06:05:14.258688 31522 net.cpp:86] Creating Layer cifar
I0501 06:05:14.258693 31522 net.cpp:382] cifar -> data
I0501 06:05:14.258700 31522 net.cpp:382] cifar -> label
I0501 06:05:14.258708 31522 data_transformer.cpp:25] Loading mean file from: examples/cifar10/mean.binaryproto
I0501 06:05:14.258857 31522 data_layer.cpp:45] output data size: 1000,3,32,32
I0501 06:05:14.280724 31522 net.cpp:124] Setting up cifar
I0501 06:05:14.280747 31522 net.cpp:131] Top shape: 1000 3 32 32 (3072000)
I0501 06:05:14.280755 31522 net.cpp:131] Top shape: 1000 (1000)
I0501 06:05:14.280757 31522 net.cpp:139] Memory required for data: 12292000
I0501 06:05:14.280762 31522 layer_factory.hpp:77] Creating layer label_cifar_1_split
I0501 06:05:14.280774 31522 net.cpp:86] Creating Layer label_cifar_1_split
I0501 06:05:14.280777 31522 net.cpp:408] label_cifar_1_split <- label
I0501 06:05:14.280783 31522 net.cpp:382] label_cifar_1_split -> label_cifar_1_split_0
I0501 06:05:14.280814 31522 net.cpp:382] label_cifar_1_split -> label_cifar_1_split_1
I0501 06:05:14.280912 31522 net.cpp:124] Setting up label_cifar_1_split
I0501 06:05:14.280935 31522 net.cpp:131] Top shape: 1000 (1000)
I0501 06:05:14.280938 31522 net.cpp:131] Top shape: 1000 (1000)
I0501 06:05:14.280958 31522 net.cpp:139] Memory required for data: 12300000
I0501 06:05:14.280961 31522 layer_factory.hpp:77] Creating layer conv0
I0501 06:05:14.280982 31522 net.cpp:86] Creating Layer conv0
I0501 06:05:14.280985 31522 net.cpp:408] conv0 <- data
I0501 06:05:14.280992 31522 net.cpp:382] conv0 -> conv0
I0501 06:05:14.282667 31522 net.cpp:124] Setting up conv0
I0501 06:05:14.282680 31522 net.cpp:131] Top shape: 1000 8 32 32 (8192000)
I0501 06:05:14.282683 31522 net.cpp:139] Memory required for data: 45068000
I0501 06:05:14.282693 31522 layer_factory.hpp:77] Creating layer Sigmoid0
I0501 06:05:14.282716 31522 net.cpp:86] Creating Layer Sigmoid0
I0501 06:05:14.282719 31522 net.cpp:408] Sigmoid0 <- conv0
I0501 06:05:14.282723 31522 net.cpp:382] Sigmoid0 -> Sigmoid0
I0501 06:05:14.282881 31522 net.cpp:124] Setting up Sigmoid0
I0501 06:05:14.282888 31522 net.cpp:131] Top shape: 1000 8 32 32 (8192000)
I0501 06:05:14.282891 31522 net.cpp:139] Memory required for data: 77836000
I0501 06:05:14.282894 31522 layer_factory.hpp:77] Creating layer pool0
I0501 06:05:14.282902 31522 net.cpp:86] Creating Layer pool0
I0501 06:05:14.282905 31522 net.cpp:408] pool0 <- Sigmoid0
I0501 06:05:14.282909 31522 net.cpp:382] pool0 -> pool0
I0501 06:05:14.283056 31522 net.cpp:124] Setting up pool0
I0501 06:05:14.283064 31522 net.cpp:131] Top shape: 1000 8 16 16 (2048000)
I0501 06:05:14.283067 31522 net.cpp:139] Memory required for data: 86028000
I0501 06:05:14.283071 31522 layer_factory.hpp:77] Creating layer ip1
I0501 06:05:14.283077 31522 net.cpp:86] Creating Layer ip1
I0501 06:05:14.283080 31522 net.cpp:408] ip1 <- pool0
I0501 06:05:14.283085 31522 net.cpp:382] ip1 -> ip1
I0501 06:05:14.287338 31522 net.cpp:124] Setting up ip1
I0501 06:05:14.287348 31522 net.cpp:131] Top shape: 1000 80 (80000)
I0501 06:05:14.287350 31522 net.cpp:139] Memory required for data: 86348000
I0501 06:05:14.287387 31522 layer_factory.hpp:77] Creating layer relu1
I0501 06:05:14.287395 31522 net.cpp:86] Creating Layer relu1
I0501 06:05:14.287398 31522 net.cpp:408] relu1 <- ip1
I0501 06:05:14.287402 31522 net.cpp:369] relu1 -> ip1 (in-place)
I0501 06:05:14.287555 31522 net.cpp:124] Setting up relu1
I0501 06:05:14.287564 31522 net.cpp:131] Top shape: 1000 80 (80000)
I0501 06:05:14.287566 31522 net.cpp:139] Memory required for data: 86668000
I0501 06:05:14.287569 31522 layer_factory.hpp:77] Creating layer ip2
I0501 06:05:14.287575 31522 net.cpp:86] Creating Layer ip2
I0501 06:05:14.287578 31522 net.cpp:408] ip2 <- ip1
I0501 06:05:14.287583 31522 net.cpp:382] ip2 -> ip2
I0501 06:05:14.288008 31522 net.cpp:124] Setting up ip2
I0501 06:05:14.288015 31522 net.cpp:131] Top shape: 1000 160 (160000)
I0501 06:05:14.288018 31522 net.cpp:139] Memory required for data: 87308000
I0501 06:05:14.288025 31522 layer_factory.hpp:77] Creating layer relu2
I0501 06:05:14.288046 31522 net.cpp:86] Creating Layer relu2
I0501 06:05:14.288049 31522 net.cpp:408] relu2 <- ip2
I0501 06:05:14.288054 31522 net.cpp:369] relu2 -> ip2 (in-place)
I0501 06:05:14.288764 31522 net.cpp:124] Setting up relu2
I0501 06:05:14.288776 31522 net.cpp:131] Top shape: 1000 160 (160000)
I0501 06:05:14.288780 31522 net.cpp:139] Memory required for data: 87948000
I0501 06:05:14.288784 31522 layer_factory.hpp:77] Creating layer ip3
I0501 06:05:14.288789 31522 net.cpp:86] Creating Layer ip3
I0501 06:05:14.288808 31522 net.cpp:408] ip3 <- ip2
I0501 06:05:14.288836 31522 net.cpp:382] ip3 -> ip3
I0501 06:05:14.289712 31522 net.cpp:124] Setting up ip3
I0501 06:05:14.289721 31522 net.cpp:131] Top shape: 1000 160 (160000)
I0501 06:05:14.289723 31522 net.cpp:139] Memory required for data: 88588000
I0501 06:05:14.289728 31522 layer_factory.hpp:77] Creating layer relu3
I0501 06:05:14.289733 31522 net.cpp:86] Creating Layer relu3
I0501 06:05:14.289752 31522 net.cpp:408] relu3 <- ip3
I0501 06:05:14.289757 31522 net.cpp:369] relu3 -> ip3 (in-place)
I0501 06:05:14.289917 31522 net.cpp:124] Setting up relu3
I0501 06:05:14.289925 31522 net.cpp:131] Top shape: 1000 160 (160000)
I0501 06:05:14.289929 31522 net.cpp:139] Memory required for data: 89228000
I0501 06:05:14.289932 31522 layer_factory.hpp:77] Creating layer ip4
I0501 06:05:14.289938 31522 net.cpp:86] Creating Layer ip4
I0501 06:05:14.289942 31522 net.cpp:408] ip4 <- ip3
I0501 06:05:14.289947 31522 net.cpp:382] ip4 -> ip4
I0501 06:05:14.290081 31522 net.cpp:124] Setting up ip4
I0501 06:05:14.290087 31522 net.cpp:131] Top shape: 1000 10 (10000)
I0501 06:05:14.290091 31522 net.cpp:139] Memory required for data: 89268000
I0501 06:05:14.290098 31522 layer_factory.hpp:77] Creating layer ip4_ip4_0_split
I0501 06:05:14.290103 31522 net.cpp:86] Creating Layer ip4_ip4_0_split
I0501 06:05:14.290107 31522 net.cpp:408] ip4_ip4_0_split <- ip4
I0501 06:05:14.290112 31522 net.cpp:382] ip4_ip4_0_split -> ip4_ip4_0_split_0
I0501 06:05:14.290117 31522 net.cpp:382] ip4_ip4_0_split -> ip4_ip4_0_split_1
I0501 06:05:14.290145 31522 net.cpp:124] Setting up ip4_ip4_0_split
I0501 06:05:14.290149 31522 net.cpp:131] Top shape: 1000 10 (10000)
I0501 06:05:14.290153 31522 net.cpp:131] Top shape: 1000 10 (10000)
I0501 06:05:14.290156 31522 net.cpp:139] Memory required for data: 89348000
I0501 06:05:14.290158 31522 layer_factory.hpp:77] Creating layer accuracy
I0501 06:05:14.290164 31522 net.cpp:86] Creating Layer accuracy
I0501 06:05:14.290168 31522 net.cpp:408] accuracy <- ip4_ip4_0_split_0
I0501 06:05:14.290171 31522 net.cpp:408] accuracy <- label_cifar_1_split_0
I0501 06:05:14.290182 31522 net.cpp:382] accuracy -> accuracy
…
