…
I0501 01:35:07.130775 11230 net.cpp:296] The NetState phase (0) differed from the phase (1) specified by a rule in layer cifar
I0501 01:35:07.130791 11230 net.cpp:296] The NetState phase (0) differed from the phase (1) specified by a rule in layer accuracy
I0501 01:35:07.130899 11230 net.cpp:53] Initializing net from parameters: 
name: "CIFAR"
state {
  phase: TRAIN
  level: 0
  stage: ""
}
layer {
  name: "cifar"
  type: "Data"
  top: "data"
  top: "label"
  include {
    phase: TRAIN
  }
  transform_param {
    mean_file: "examples/cifar10/mean.binaryproto"
  }
  data_param {
    source: "examples/cifar10/cifar10_train_lmdb"
    batch_size: 111
    backend: LMDB
  }
}
layer {
  name: "conv0"
  type: "Convolution"
  bottom: "data"
  top: "conv0"
  param {
    lr_mult: 1
  }
  param {
    lr_mult: 2
  }
  convolution_param {
    num_output: 8
    pad: 2
    kernel_size: 3
    stride: 1
    weight_filler {
      type: "gaussian"
      std: 0.01
    }
    bias_filler {
      type: "constant"
    }
  }
}
layer {
  name: "Sigmoid0"
  type: "Sigmoid"
  bottom: "conv0"
  top: "Sigmoid0"
}
layer {
  name: "pool0"
  type: "Pooling"
  bottom: "Sigmoid0"
  top: "pool0"
  pooling_param {
    pool: AVE
    kernel_size: 3
    stride: 2
  }
}
layer {
  name: "ip1"
  type: "InnerProduct"
  bottom: "pool0"
  top: "ip1"
  param {
    lr_mult: 1
  }
  param {
    lr_mult: 2
  }
  inner_product_param {
    num_output: 160
    weight_filler {
      type: "gaussian"
      std: 0.01
    }
    bias_filler {
      type: "constant"
    }
  }
}
layer {
  name: "relu1"
  type: "ReLU"
  bottom: "ip1"
  top: "ip1"
}
layer {
  name: "ip2"
  type: "InnerProduct"
  bottom: "ip1"
  top: "ip2"
  param {
    lr_mult: 1
  }
  param {
    lr_mult: 2
  }
  inner_product_param {
    num_output: 20
    weight_filler {
      type: "gaussian"
      std: 0.01
    }
    bias_filler {
      type: "constant"
    }
  }
}
layer {
  name: "relu2"
  type: "ReLU"
  bottom: "ip2"
  top: "ip2"
}
layer {
  name: "ip3"
  type: "InnerProduct"
  bottom: "ip2"
  top: "ip3"
  param {
    lr_mult: 1
  }
  param {
    lr_mult: 2
  }
  inner_product_param {
    num_output: 160
    weight_filler {
      type: "gaussian"
      std: 0.01
    }
    bias_filler {
      type: "constant"
    }
  }
}
layer {
  name: "relu3"
  type: "ReLU"
  bottom: "ip3"
  top: "ip3"
}
layer {
  name: "ip4"
  type: "InnerProduct"
  bottom: "ip3"
  top: "ip4"
  param {
    lr_mult: 1
  }
  param {
    lr_mult: 2
  }
  inner_product_param {
    num_output: 10
    weight_filler {
      type: "gaussian"
      std: 0.01
    }
    bias_filler {
      type: "constant"
    }
  }
}
layer {
  name: "loss"
  type: "SoftmaxWithLoss"
  bottom: "ip4"
  bottom: "label"
  top: "loss"
}
I0501 01:35:07.130978 11230 layer_factory.hpp:77] Creating layer cifar
I0501 01:35:07.131075 11230 db_lmdb.cpp:35] Opened lmdb examples/cifar10/cifar10_train_lmdb
I0501 01:35:07.131101 11230 net.cpp:86] Creating Layer cifar
I0501 01:35:07.131111 11230 net.cpp:382] cifar -> data
I0501 01:35:07.131134 11230 net.cpp:382] cifar -> label
I0501 01:35:07.131145 11230 data_transformer.cpp:25] Loading mean file from: examples/cifar10/mean.binaryproto
I0501 01:35:07.133291 11230 data_layer.cpp:45] output data size: 111,3,32,32
I0501 01:35:07.141155 11230 net.cpp:124] Setting up cifar
I0501 01:35:07.141178 11230 net.cpp:131] Top shape: 111 3 32 32 (340992)
I0501 01:35:07.141185 11230 net.cpp:131] Top shape: 111 (111)
I0501 01:35:07.141188 11230 net.cpp:139] Memory required for data: 1364412
I0501 01:35:07.141211 11230 layer_factory.hpp:77] Creating layer conv0
I0501 01:35:07.141230 11230 net.cpp:86] Creating Layer conv0
I0501 01:35:07.141237 11230 net.cpp:408] conv0 <- data
I0501 01:35:07.141249 11230 net.cpp:382] conv0 -> conv0
I0501 01:35:07.408067 11230 net.cpp:124] Setting up conv0
I0501 01:35:07.408110 11230 net.cpp:131] Top shape: 111 8 34 34 (1026528)
I0501 01:35:07.408114 11230 net.cpp:139] Memory required for data: 5470524
I0501 01:35:07.408130 11230 layer_factory.hpp:77] Creating layer Sigmoid0
I0501 01:35:07.408159 11230 net.cpp:86] Creating Layer Sigmoid0
I0501 01:35:07.408162 11230 net.cpp:408] Sigmoid0 <- conv0
I0501 01:35:07.408169 11230 net.cpp:382] Sigmoid0 -> Sigmoid0
I0501 01:35:07.408352 11230 net.cpp:124] Setting up Sigmoid0
I0501 01:35:07.408361 11230 net.cpp:131] Top shape: 111 8 34 34 (1026528)
I0501 01:35:07.408373 11230 net.cpp:139] Memory required for data: 9576636
I0501 01:35:07.408376 11230 layer_factory.hpp:77] Creating layer pool0
I0501 01:35:07.408382 11230 net.cpp:86] Creating Layer pool0
I0501 01:35:07.408386 11230 net.cpp:408] pool0 <- Sigmoid0
I0501 01:35:07.408390 11230 net.cpp:382] pool0 -> pool0
I0501 01:35:07.409152 11230 net.cpp:124] Setting up pool0
I0501 01:35:07.409165 11230 net.cpp:131] Top shape: 111 8 17 17 (256632)
I0501 01:35:07.409184 11230 net.cpp:139] Memory required for data: 10603164
I0501 01:35:07.409188 11230 layer_factory.hpp:77] Creating layer ip1
I0501 01:35:07.409196 11230 net.cpp:86] Creating Layer ip1
I0501 01:35:07.409199 11230 net.cpp:408] ip1 <- pool0
I0501 01:35:07.409220 11230 net.cpp:382] ip1 -> ip1
I0501 01:35:07.419571 11230 net.cpp:124] Setting up ip1
I0501 01:35:07.419584 11230 net.cpp:131] Top shape: 111 160 (17760)
I0501 01:35:07.419587 11230 net.cpp:139] Memory required for data: 10674204
I0501 01:35:07.419595 11230 layer_factory.hpp:77] Creating layer relu1
I0501 01:35:07.419601 11230 net.cpp:86] Creating Layer relu1
I0501 01:35:07.419605 11230 net.cpp:408] relu1 <- ip1
I0501 01:35:07.419608 11230 net.cpp:369] relu1 -> ip1 (in-place)
I0501 01:35:07.419775 11230 net.cpp:124] Setting up relu1
I0501 01:35:07.419782 11230 net.cpp:131] Top shape: 111 160 (17760)
I0501 01:35:07.419786 11230 net.cpp:139] Memory required for data: 10745244
I0501 01:35:07.419790 11230 layer_factory.hpp:77] Creating layer ip2
I0501 01:35:07.419795 11230 net.cpp:86] Creating Layer ip2
I0501 01:35:07.419800 11230 net.cpp:408] ip2 <- ip1
I0501 01:35:07.419803 11230 net.cpp:382] ip2 -> ip2
I0501 01:35:07.420001 11230 net.cpp:124] Setting up ip2
I0501 01:35:07.420009 11230 net.cpp:131] Top shape: 111 20 (2220)
I0501 01:35:07.420012 11230 net.cpp:139] Memory required for data: 10754124
I0501 01:35:07.420019 11230 layer_factory.hpp:77] Creating layer relu2
I0501 01:35:07.420024 11230 net.cpp:86] Creating Layer relu2
I0501 01:35:07.420027 11230 net.cpp:408] relu2 <- ip2
I0501 01:35:07.420032 11230 net.cpp:369] relu2 -> ip2 (in-place)
I0501 01:35:07.420181 11230 net.cpp:124] Setting up relu2
I0501 01:35:07.420191 11230 net.cpp:131] Top shape: 111 20 (2220)
I0501 01:35:07.420193 11230 net.cpp:139] Memory required for data: 10763004
I0501 01:35:07.420197 11230 layer_factory.hpp:77] Creating layer ip3
I0501 01:35:07.420204 11230 net.cpp:86] Creating Layer ip3
I0501 01:35:07.420207 11230 net.cpp:408] ip3 <- ip2
I0501 01:35:07.420228 11230 net.cpp:382] ip3 -> ip3
I0501 01:35:07.420393 11230 net.cpp:124] Setting up ip3
I0501 01:35:07.420400 11230 net.cpp:131] Top shape: 111 160 (17760)
I0501 01:35:07.420403 11230 net.cpp:139] Memory required for data: 10834044
I0501 01:35:07.420408 11230 layer_factory.hpp:77] Creating layer relu3
I0501 01:35:07.420413 11230 net.cpp:86] Creating Layer relu3
I0501 01:35:07.420416 11230 net.cpp:408] relu3 <- ip3
I0501 01:35:07.420419 11230 net.cpp:369] relu3 -> ip3 (in-place)
I0501 01:35:07.420557 11230 net.cpp:124] Setting up relu3
I0501 01:35:07.420565 11230 net.cpp:131] Top shape: 111 160 (17760)
I0501 01:35:07.420568 11230 net.cpp:139] Memory required for data: 10905084
I0501 01:35:07.420572 11230 layer_factory.hpp:77] Creating layer ip4
I0501 01:35:07.420590 11230 net.cpp:86] Creating Layer ip4
I0501 01:35:07.420594 11230 net.cpp:408] ip4 <- ip3
I0501 01:35:07.420598 11230 net.cpp:382] ip4 -> ip4
I0501 01:35:07.420727 11230 net.cpp:124] Setting up ip4
I0501 01:35:07.420734 11230 net.cpp:131] Top shape: 111 10 (1110)
I0501 01:35:07.420737 11230 net.cpp:139] Memory required for data: 10909524
I0501 01:35:07.420744 11230 layer_factory.hpp:77] Creating layer loss
I0501 01:35:07.420749 11230 net.cpp:86] Creating Layer loss
I0501 01:35:07.420753 11230 net.cpp:408] loss <- ip4
I0501 01:35:07.420756 11230 net.cpp:408] loss <- label
I0501 01:35:07.420761 11230 net.cpp:382] loss -> loss
I0501 01:35:07.420778 11230 layer_factory.hpp:77] Creating layer loss
…
I0501 01:35:07.422235 11230 solver.cpp:173] Creating test net (#0) specified by net file: ECE595/cifar/train_test/var_everything/cifar_train_test_294.prototxt
I0501 01:35:07.422277 11230 net.cpp:296] The NetState phase (1) differed from the phase (0) specified by a rule in layer cifar
I0501 01:35:07.422382 11230 net.cpp:53] Initializing net from parameters: 
name: "CIFAR"
state {
  phase: TEST
}
layer {
  name: "cifar"
  type: "Data"
  top: "data"
  top: "label"
  include {
    phase: TEST
  }
  transform_param {
    mean_file: "examples/cifar10/mean.binaryproto"
  }
  data_param {
    source: "examples/cifar10/cifar10_test_lmdb"
    batch_size: 1000
    backend: LMDB
  }
}
layer {
  name: "conv0"
  type: "Convolution"
  bottom: "data"
  top: "conv0"
  param {
    lr_mult: 1
  }
  param {
    lr_mult: 2
  }
  convolution_param {
    num_output: 8
    pad: 2
    kernel_size: 3
    stride: 1
    weight_filler {
      type: "gaussian"
      std: 0.01
    }
    bias_filler {
      type: "constant"
    }
  }
}
layer {
  name: "Sigmoid0"
  type: "Sigmoid"
  bottom: "conv0"
  top: "Sigmoid0"
}
layer {
  name: "pool0"
  type: "Pooling"
  bottom: "Sigmoid0"
  top: "pool0"
  pooling_param {
    pool: AVE
    kernel_size: 3
    stride: 2
  }
}
layer {
  name: "ip1"
  type: "InnerProduct"
  bottom: "pool0"
  top: "ip1"
  param {
    lr_mult: 1
  }
  param {
    lr_mult: 2
  }
  inner_product_param {
    num_output: 160
    weight_filler {
      type: "gaussian"
      std: 0.01
    }
    bias_filler {
      type: "constant"
    }
  }
}
layer {
  name: "relu1"
  type: "ReLU"
  bottom: "ip1"
  top: "ip1"
}
layer {
  name: "ip2"
  type: "InnerProduct"
  bottom: "ip1"
  top: "ip2"
  param {
    lr_mult: 1
  }
  param {
    lr_mult: 2
  }
  inner_product_param {
    num_output: 20
    weight_filler {
      type: "gaussian"
      std: 0.01
    }
    bias_filler {
      type: "constant"
    }
  }
}
layer {
  name: "relu2"
  type: "ReLU"
  bottom: "ip2"
  top: "ip2"
}
layer {
  name: "ip3"
  type: "InnerProduct"
  bottom: "ip2"
  top: "ip3"
  param {
    lr_mult: 1
  }
  param {
    lr_mult: 2
  }
  inner_product_param {
    num_output: 160
    weight_filler {
      type: "gaussian"
      std: 0.01
    }
    bias_filler {
      type: "constant"
    }
  }
}
layer {
  name: "relu3"
  type: "ReLU"
  bottom: "ip3"
  top: "ip3"
}
layer {
  name: "ip4"
  type: "InnerProduct"
  bottom: "ip3"
  top: "ip4"
  param {
    lr_mult: 1
  }
  param {
    lr_mult: 2
  }
  inner_product_param {
    num_output: 10
    weight_filler {
      type: "gaussian"
      std: 0.01
    }
    bias_filler {
      type: "constant"
    }
  }
}
layer {
  name: "accuracy"
  type: "Accuracy"
  bottom: "ip4"
  bottom: "label"
  top: "accuracy"
  include {
    phase: TEST
  }
}
layer {
  name: "loss"
  type: "SoftmaxWithLoss"
  bottom: "ip4"
  bottom: "label"
  top: "loss"
}
I0501 01:35:07.422474 11230 layer_factory.hpp:77] Creating layer cifar
I0501 01:35:07.422516 11230 db_lmdb.cpp:35] Opened lmdb examples/cifar10/cifar10_test_lmdb
I0501 01:35:07.422528 11230 net.cpp:86] Creating Layer cifar
I0501 01:35:07.422533 11230 net.cpp:382] cifar -> data
I0501 01:35:07.422540 11230 net.cpp:382] cifar -> label
I0501 01:35:07.422546 11230 data_transformer.cpp:25] Loading mean file from: examples/cifar10/mean.binaryproto
I0501 01:35:07.422683 11230 data_layer.cpp:45] output data size: 1000,3,32,32
I0501 01:35:07.445360 11230 net.cpp:124] Setting up cifar
I0501 01:35:07.445401 11230 net.cpp:131] Top shape: 1000 3 32 32 (3072000)
I0501 01:35:07.445406 11230 net.cpp:131] Top shape: 1000 (1000)
I0501 01:35:07.445410 11230 net.cpp:139] Memory required for data: 12292000
I0501 01:35:07.445415 11230 layer_factory.hpp:77] Creating layer label_cifar_1_split
I0501 01:35:07.445461 11230 net.cpp:86] Creating Layer label_cifar_1_split
I0501 01:35:07.445466 11230 net.cpp:408] label_cifar_1_split <- label
I0501 01:35:07.445472 11230 net.cpp:382] label_cifar_1_split -> label_cifar_1_split_0
I0501 01:35:07.445480 11230 net.cpp:382] label_cifar_1_split -> label_cifar_1_split_1
I0501 01:35:07.445556 11230 net.cpp:124] Setting up label_cifar_1_split
I0501 01:35:07.445564 11230 net.cpp:131] Top shape: 1000 (1000)
I0501 01:35:07.445567 11230 net.cpp:131] Top shape: 1000 (1000)
I0501 01:35:07.445570 11230 net.cpp:139] Memory required for data: 12300000
I0501 01:35:07.445574 11230 layer_factory.hpp:77] Creating layer conv0
I0501 01:35:07.445585 11230 net.cpp:86] Creating Layer conv0
I0501 01:35:07.445588 11230 net.cpp:408] conv0 <- data
I0501 01:35:07.445595 11230 net.cpp:382] conv0 -> conv0
I0501 01:35:07.448094 11230 net.cpp:124] Setting up conv0
I0501 01:35:07.448108 11230 net.cpp:131] Top shape: 1000 8 34 34 (9248000)
I0501 01:35:07.448112 11230 net.cpp:139] Memory required for data: 49292000
I0501 01:35:07.448137 11230 layer_factory.hpp:77] Creating layer Sigmoid0
I0501 01:35:07.448144 11230 net.cpp:86] Creating Layer Sigmoid0
I0501 01:35:07.448164 11230 net.cpp:408] Sigmoid0 <- conv0
I0501 01:35:07.448169 11230 net.cpp:382] Sigmoid0 -> Sigmoid0
I0501 01:35:07.448372 11230 net.cpp:124] Setting up Sigmoid0
I0501 01:35:07.448381 11230 net.cpp:131] Top shape: 1000 8 34 34 (9248000)
I0501 01:35:07.448385 11230 net.cpp:139] Memory required for data: 86284000
I0501 01:35:07.448388 11230 layer_factory.hpp:77] Creating layer pool0
I0501 01:35:07.448397 11230 net.cpp:86] Creating Layer pool0
I0501 01:35:07.448400 11230 net.cpp:408] pool0 <- Sigmoid0
I0501 01:35:07.448406 11230 net.cpp:382] pool0 -> pool0
I0501 01:35:07.448597 11230 net.cpp:124] Setting up pool0
I0501 01:35:07.448606 11230 net.cpp:131] Top shape: 1000 8 17 17 (2312000)
I0501 01:35:07.448609 11230 net.cpp:139] Memory required for data: 95532000
I0501 01:35:07.448612 11230 layer_factory.hpp:77] Creating layer ip1
I0501 01:35:07.448635 11230 net.cpp:86] Creating Layer ip1
I0501 01:35:07.448639 11230 net.cpp:408] ip1 <- pool0
I0501 01:35:07.448644 11230 net.cpp:382] ip1 -> ip1
I0501 01:35:07.459828 11230 net.cpp:124] Setting up ip1
I0501 01:35:07.459841 11230 net.cpp:131] Top shape: 1000 160 (160000)
I0501 01:35:07.459844 11230 net.cpp:139] Memory required for data: 96172000
I0501 01:35:07.459900 11230 layer_factory.hpp:77] Creating layer relu1
I0501 01:35:07.459908 11230 net.cpp:86] Creating Layer relu1
I0501 01:35:07.459911 11230 net.cpp:408] relu1 <- ip1
I0501 01:35:07.459918 11230 net.cpp:369] relu1 -> ip1 (in-place)
I0501 01:35:07.460093 11230 net.cpp:124] Setting up relu1
I0501 01:35:07.460101 11230 net.cpp:131] Top shape: 1000 160 (160000)
I0501 01:35:07.460105 11230 net.cpp:139] Memory required for data: 96812000
I0501 01:35:07.460108 11230 layer_factory.hpp:77] Creating layer ip2
I0501 01:35:07.460116 11230 net.cpp:86] Creating Layer ip2
I0501 01:35:07.460120 11230 net.cpp:408] ip2 <- ip1
I0501 01:35:07.460126 11230 net.cpp:382] ip2 -> ip2
I0501 01:35:07.460325 11230 net.cpp:124] Setting up ip2
I0501 01:35:07.460333 11230 net.cpp:131] Top shape: 1000 20 (20000)
I0501 01:35:07.460336 11230 net.cpp:139] Memory required for data: 96892000
I0501 01:35:07.460345 11230 layer_factory.hpp:77] Creating layer relu2
I0501 01:35:07.460373 11230 net.cpp:86] Creating Layer relu2
I0501 01:35:07.460376 11230 net.cpp:408] relu2 <- ip2
I0501 01:35:07.460381 11230 net.cpp:369] relu2 -> ip2 (in-place)
I0501 01:35:07.461261 11230 net.cpp:124] Setting up relu2
I0501 01:35:07.461273 11230 net.cpp:131] Top shape: 1000 20 (20000)
I0501 01:35:07.461277 11230 net.cpp:139] Memory required for data: 96972000
I0501 01:35:07.461282 11230 layer_factory.hpp:77] Creating layer ip3
I0501 01:35:07.461304 11230 net.cpp:86] Creating Layer ip3
I0501 01:35:07.461308 11230 net.cpp:408] ip3 <- ip2
I0501 01:35:07.461314 11230 net.cpp:382] ip3 -> ip3
I0501 01:35:07.461539 11230 net.cpp:124] Setting up ip3
I0501 01:35:07.461546 11230 net.cpp:131] Top shape: 1000 160 (160000)
I0501 01:35:07.461549 11230 net.cpp:139] Memory required for data: 97612000
I0501 01:35:07.461555 11230 layer_factory.hpp:77] Creating layer relu3
I0501 01:35:07.461560 11230 net.cpp:86] Creating Layer relu3
I0501 01:35:07.461563 11230 net.cpp:408] relu3 <- ip3
I0501 01:35:07.461567 11230 net.cpp:369] relu3 -> ip3 (in-place)
I0501 01:35:07.461727 11230 net.cpp:124] Setting up relu3
I0501 01:35:07.461736 11230 net.cpp:131] Top shape: 1000 160 (160000)
I0501 01:35:07.461740 11230 net.cpp:139] Memory required for data: 98252000
I0501 01:35:07.461742 11230 layer_factory.hpp:77] Creating layer ip4
I0501 01:35:07.461748 11230 net.cpp:86] Creating Layer ip4
I0501 01:35:07.461752 11230 net.cpp:408] ip4 <- ip3
I0501 01:35:07.461758 11230 net.cpp:382] ip4 -> ip4
I0501 01:35:07.461915 11230 net.cpp:124] Setting up ip4
I0501 01:35:07.461922 11230 net.cpp:131] Top shape: 1000 10 (10000)
I0501 01:35:07.461925 11230 net.cpp:139] Memory required for data: 98292000
I0501 01:35:07.461933 11230 layer_factory.hpp:77] Creating layer ip4_ip4_0_split
I0501 01:35:07.461940 11230 net.cpp:86] Creating Layer ip4_ip4_0_split
I0501 01:35:07.461943 11230 net.cpp:408] ip4_ip4_0_split <- ip4
I0501 01:35:07.461946 11230 net.cpp:382] ip4_ip4_0_split -> ip4_ip4_0_split_0
I0501 01:35:07.461952 11230 net.cpp:382] ip4_ip4_0_split -> ip4_ip4_0_split_1
I0501 01:35:07.461983 11230 net.cpp:124] Setting up ip4_ip4_0_split
I0501 01:35:07.461989 11230 net.cpp:131] Top shape: 1000 10 (10000)
I0501 01:35:07.461993 11230 net.cpp:131] Top shape: 1000 10 (10000)
I0501 01:35:07.461995 11230 net.cpp:139] Memory required for data: 98372000
I0501 01:35:07.461998 11230 layer_factory.hpp:77] Creating layer accuracy
I0501 01:35:07.462005 11230 net.cpp:86] Creating Layer accuracy
I0501 01:35:07.462008 11230 net.cpp:408] accuracy <- ip4_ip4_0_split_0
I0501 01:35:07.462011 11230 net.cpp:408] accuracy <- label_cifar_1_split_0
I0501 01:35:07.462016 11230 net.cpp:382] accuracy -> accuracy
…
