…
I0501 05:07:32.109426 27814 net.cpp:296] The NetState phase (0) differed from the phase (1) specified by a rule in layer cifar
I0501 05:07:32.109446 27814 net.cpp:296] The NetState phase (0) differed from the phase (1) specified by a rule in layer accuracy
I0501 05:07:32.109549 27814 net.cpp:53] Initializing net from parameters: 
name: "CIFAR"
state {
  phase: TRAIN
  level: 0
  stage: ""
}
layer {
  name: "cifar"
  type: "Data"
  top: "data"
  top: "label"
  include {
    phase: TRAIN
  }
  transform_param {
    mean_file: "examples/cifar10/mean.binaryproto"
  }
  data_param {
    source: "examples/cifar10/cifar10_train_lmdb"
    batch_size: 111
    backend: LMDB
  }
}
layer {
  name: "conv0"
  type: "Convolution"
  bottom: "data"
  top: "conv0"
  param {
    lr_mult: 1
  }
  param {
    lr_mult: 2
  }
  convolution_param {
    num_output: 8
    pad: 2
    kernel_size: 5
    stride: 1
    weight_filler {
      type: "gaussian"
      std: 0.01
    }
    bias_filler {
      type: "constant"
    }
  }
}
layer {
  name: "Sigmoid0"
  type: "Sigmoid"
  bottom: "conv0"
  top: "Sigmoid0"
}
layer {
  name: "pool0"
  type: "Pooling"
  bottom: "Sigmoid0"
  top: "pool0"
  pooling_param {
    pool: AVE
    kernel_size: 3
    stride: 2
  }
}
layer {
  name: "ip1"
  type: "InnerProduct"
  bottom: "pool0"
  top: "ip1"
  param {
    lr_mult: 1
  }
  param {
    lr_mult: 2
  }
  inner_product_param {
    num_output: 40
    weight_filler {
      type: "gaussian"
      std: 0.01
    }
    bias_filler {
      type: "constant"
    }
  }
}
layer {
  name: "relu1"
  type: "ReLU"
  bottom: "ip1"
  top: "ip1"
}
layer {
  name: "ip2"
  type: "InnerProduct"
  bottom: "ip1"
  top: "ip2"
  param {
    lr_mult: 1
  }
  param {
    lr_mult: 2
  }
  inner_product_param {
    num_output: 80
    weight_filler {
      type: "gaussian"
      std: 0.01
    }
    bias_filler {
      type: "constant"
    }
  }
}
layer {
  name: "relu2"
  type: "ReLU"
  bottom: "ip2"
  top: "ip2"
}
layer {
  name: "ip3"
  type: "InnerProduct"
  bottom: "ip2"
  top: "ip3"
  param {
    lr_mult: 1
  }
  param {
    lr_mult: 2
  }
  inner_product_param {
    num_output: 80
    weight_filler {
      type: "gaussian"
      std: 0.01
    }
    bias_filler {
      type: "constant"
    }
  }
}
layer {
  name: "relu3"
  type: "ReLU"
  bottom: "ip3"
  top: "ip3"
}
layer {
  name: "ip4"
  type: "InnerProduct"
  bottom: "ip3"
  top: "ip4"
  param {
    lr_mult: 1
  }
  param {
    lr_mult: 2
  }
  inner_product_param {
    num_output: 10
    weight_filler {
      type: "gaussian"
      std: 0.01
    }
    bias_filler {
      type: "constant"
    }
  }
}
layer {
  name: "loss"
  type: "SoftmaxWithLoss"
  bottom: "ip4"
  bottom: "label"
  top: "loss"
}
I0501 05:07:32.109623 27814 layer_factory.hpp:77] Creating layer cifar
I0501 05:07:32.109730 27814 db_lmdb.cpp:35] Opened lmdb examples/cifar10/cifar10_train_lmdb
I0501 05:07:32.109757 27814 net.cpp:86] Creating Layer cifar
I0501 05:07:32.109766 27814 net.cpp:382] cifar -> data
I0501 05:07:32.109788 27814 net.cpp:382] cifar -> label
I0501 05:07:32.109800 27814 data_transformer.cpp:25] Loading mean file from: examples/cifar10/mean.binaryproto
I0501 05:07:32.111950 27814 data_layer.cpp:45] output data size: 111,3,32,32
I0501 05:07:32.119828 27814 net.cpp:124] Setting up cifar
I0501 05:07:32.119846 27814 net.cpp:131] Top shape: 111 3 32 32 (340992)
I0501 05:07:32.119853 27814 net.cpp:131] Top shape: 111 (111)
I0501 05:07:32.119858 27814 net.cpp:139] Memory required for data: 1364412
I0501 05:07:32.119881 27814 layer_factory.hpp:77] Creating layer conv0
I0501 05:07:32.119900 27814 net.cpp:86] Creating Layer conv0
I0501 05:07:32.119906 27814 net.cpp:408] conv0 <- data
I0501 05:07:32.119918 27814 net.cpp:382] conv0 -> conv0
I0501 05:07:32.414129 27814 net.cpp:124] Setting up conv0
I0501 05:07:32.414161 27814 net.cpp:131] Top shape: 111 8 32 32 (909312)
I0501 05:07:32.414166 27814 net.cpp:139] Memory required for data: 5001660
I0501 05:07:32.414183 27814 layer_factory.hpp:77] Creating layer Sigmoid0
I0501 05:07:32.414198 27814 net.cpp:86] Creating Layer Sigmoid0
I0501 05:07:32.414203 27814 net.cpp:408] Sigmoid0 <- conv0
I0501 05:07:32.414209 27814 net.cpp:382] Sigmoid0 -> Sigmoid0
I0501 05:07:32.414419 27814 net.cpp:124] Setting up Sigmoid0
I0501 05:07:32.414433 27814 net.cpp:131] Top shape: 111 8 32 32 (909312)
I0501 05:07:32.414436 27814 net.cpp:139] Memory required for data: 8638908
I0501 05:07:32.414439 27814 layer_factory.hpp:77] Creating layer pool0
I0501 05:07:32.414448 27814 net.cpp:86] Creating Layer pool0
I0501 05:07:32.414451 27814 net.cpp:408] pool0 <- Sigmoid0
I0501 05:07:32.414456 27814 net.cpp:382] pool0 -> pool0
I0501 05:07:32.415319 27814 net.cpp:124] Setting up pool0
I0501 05:07:32.415334 27814 net.cpp:131] Top shape: 111 8 16 16 (227328)
I0501 05:07:32.415338 27814 net.cpp:139] Memory required for data: 9548220
I0501 05:07:32.415343 27814 layer_factory.hpp:77] Creating layer ip1
I0501 05:07:32.415354 27814 net.cpp:86] Creating Layer ip1
I0501 05:07:32.415357 27814 net.cpp:408] ip1 <- pool0
I0501 05:07:32.415364 27814 net.cpp:382] ip1 -> ip1
I0501 05:07:32.418102 27814 net.cpp:124] Setting up ip1
I0501 05:07:32.418112 27814 net.cpp:131] Top shape: 111 40 (4440)
I0501 05:07:32.418115 27814 net.cpp:139] Memory required for data: 9565980
I0501 05:07:32.418124 27814 layer_factory.hpp:77] Creating layer relu1
I0501 05:07:32.418131 27814 net.cpp:86] Creating Layer relu1
I0501 05:07:32.418134 27814 net.cpp:408] relu1 <- ip1
I0501 05:07:32.418141 27814 net.cpp:369] relu1 -> ip1 (in-place)
I0501 05:07:32.418323 27814 net.cpp:124] Setting up relu1
I0501 05:07:32.418332 27814 net.cpp:131] Top shape: 111 40 (4440)
I0501 05:07:32.418336 27814 net.cpp:139] Memory required for data: 9583740
I0501 05:07:32.418340 27814 layer_factory.hpp:77] Creating layer ip2
I0501 05:07:32.418349 27814 net.cpp:86] Creating Layer ip2
I0501 05:07:32.418352 27814 net.cpp:408] ip2 <- ip1
I0501 05:07:32.418357 27814 net.cpp:382] ip2 -> ip2
I0501 05:07:32.418572 27814 net.cpp:124] Setting up ip2
I0501 05:07:32.418581 27814 net.cpp:131] Top shape: 111 80 (8880)
I0501 05:07:32.418584 27814 net.cpp:139] Memory required for data: 9619260
I0501 05:07:32.418593 27814 layer_factory.hpp:77] Creating layer relu2
I0501 05:07:32.418598 27814 net.cpp:86] Creating Layer relu2
I0501 05:07:32.418602 27814 net.cpp:408] relu2 <- ip2
I0501 05:07:32.418607 27814 net.cpp:369] relu2 -> ip2 (in-place)
I0501 05:07:32.418794 27814 net.cpp:124] Setting up relu2
I0501 05:07:32.418803 27814 net.cpp:131] Top shape: 111 80 (8880)
I0501 05:07:32.418807 27814 net.cpp:139] Memory required for data: 9654780
I0501 05:07:32.418812 27814 layer_factory.hpp:77] Creating layer ip3
I0501 05:07:32.418820 27814 net.cpp:86] Creating Layer ip3
I0501 05:07:32.418824 27814 net.cpp:408] ip3 <- ip2
I0501 05:07:32.418829 27814 net.cpp:382] ip3 -> ip3
I0501 05:07:32.420100 27814 net.cpp:124] Setting up ip3
I0501 05:07:32.420115 27814 net.cpp:131] Top shape: 111 80 (8880)
I0501 05:07:32.420119 27814 net.cpp:139] Memory required for data: 9690300
I0501 05:07:32.420125 27814 layer_factory.hpp:77] Creating layer relu3
I0501 05:07:32.420132 27814 net.cpp:86] Creating Layer relu3
I0501 05:07:32.420135 27814 net.cpp:408] relu3 <- ip3
I0501 05:07:32.420142 27814 net.cpp:369] relu3 -> ip3 (in-place)
I0501 05:07:32.420333 27814 net.cpp:124] Setting up relu3
I0501 05:07:32.420343 27814 net.cpp:131] Top shape: 111 80 (8880)
I0501 05:07:32.420347 27814 net.cpp:139] Memory required for data: 9725820
I0501 05:07:32.420351 27814 layer_factory.hpp:77] Creating layer ip4
I0501 05:07:32.420375 27814 net.cpp:86] Creating Layer ip4
I0501 05:07:32.420379 27814 net.cpp:408] ip4 <- ip3
I0501 05:07:32.420384 27814 net.cpp:382] ip4 -> ip4
I0501 05:07:32.420526 27814 net.cpp:124] Setting up ip4
I0501 05:07:32.420534 27814 net.cpp:131] Top shape: 111 10 (1110)
I0501 05:07:32.420538 27814 net.cpp:139] Memory required for data: 9730260
I0501 05:07:32.420547 27814 layer_factory.hpp:77] Creating layer loss
I0501 05:07:32.420553 27814 net.cpp:86] Creating Layer loss
I0501 05:07:32.420557 27814 net.cpp:408] loss <- ip4
I0501 05:07:32.420560 27814 net.cpp:408] loss <- label
I0501 05:07:32.420568 27814 net.cpp:382] loss -> loss
I0501 05:07:32.420588 27814 layer_factory.hpp:77] Creating layer loss
…
I0501 05:07:32.421988 27814 solver.cpp:173] Creating test net (#0) specified by net file: ECE595/cifar/train_test/var_everything/cifar_train_test_408.prototxt
I0501 05:07:32.422021 27814 net.cpp:296] The NetState phase (1) differed from the phase (0) specified by a rule in layer cifar
I0501 05:07:32.422132 27814 net.cpp:53] Initializing net from parameters: 
name: "CIFAR"
state {
  phase: TEST
}
layer {
  name: "cifar"
  type: "Data"
  top: "data"
  top: "label"
  include {
    phase: TEST
  }
  transform_param {
    mean_file: "examples/cifar10/mean.binaryproto"
  }
  data_param {
    source: "examples/cifar10/cifar10_test_lmdb"
    batch_size: 1000
    backend: LMDB
  }
}
layer {
  name: "conv0"
  type: "Convolution"
  bottom: "data"
  top: "conv0"
  param {
    lr_mult: 1
  }
  param {
    lr_mult: 2
  }
  convolution_param {
    num_output: 8
    pad: 2
    kernel_size: 5
    stride: 1
    weight_filler {
      type: "gaussian"
      std: 0.01
    }
    bias_filler {
      type: "constant"
    }
  }
}
layer {
  name: "Sigmoid0"
  type: "Sigmoid"
  bottom: "conv0"
  top: "Sigmoid0"
}
layer {
  name: "pool0"
  type: "Pooling"
  bottom: "Sigmoid0"
  top: "pool0"
  pooling_param {
    pool: AVE
    kernel_size: 3
    stride: 2
  }
}
layer {
  name: "ip1"
  type: "InnerProduct"
  bottom: "pool0"
  top: "ip1"
  param {
    lr_mult: 1
  }
  param {
    lr_mult: 2
  }
  inner_product_param {
    num_output: 40
    weight_filler {
      type: "gaussian"
      std: 0.01
    }
    bias_filler {
      type: "constant"
    }
  }
}
layer {
  name: "relu1"
  type: "ReLU"
  bottom: "ip1"
  top: "ip1"
}
layer {
  name: "ip2"
  type: "InnerProduct"
  bottom: "ip1"
  top: "ip2"
  param {
    lr_mult: 1
  }
  param {
    lr_mult: 2
  }
  inner_product_param {
    num_output: 80
    weight_filler {
      type: "gaussian"
      std: 0.01
    }
    bias_filler {
      type: "constant"
    }
  }
}
layer {
  name: "relu2"
  type: "ReLU"
  bottom: "ip2"
  top: "ip2"
}
layer {
  name: "ip3"
  type: "InnerProduct"
  bottom: "ip2"
  top: "ip3"
  param {
    lr_mult: 1
  }
  param {
    lr_mult: 2
  }
  inner_product_param {
    num_output: 80
    weight_filler {
      type: "gaussian"
      std: 0.01
    }
    bias_filler {
      type: "constant"
    }
  }
}
layer {
  name: "relu3"
  type: "ReLU"
  bottom: "ip3"
  top: "ip3"
}
layer {
  name: "ip4"
  type: "InnerProduct"
  bottom: "ip3"
  top: "ip4"
  param {
    lr_mult: 1
  }
  param {
    lr_mult: 2
  }
  inner_product_param {
    num_output: 10
    weight_filler {
      type: "gaussian"
      std: 0.01
    }
    bias_filler {
      type: "constant"
    }
  }
}
layer {
  name: "accuracy"
  type: "Accuracy"
  bottom: "ip4"
  bottom: "label"
  top: "accuracy"
  include {
    phase: TEST
  }
}
layer {
  name: "loss"
  type: "SoftmaxWithLoss"
  bottom: "ip4"
  bottom: "label"
  top: "loss"
}
I0501 05:07:32.422230 27814 layer_factory.hpp:77] Creating layer cifar
I0501 05:07:32.422283 27814 db_lmdb.cpp:35] Opened lmdb examples/cifar10/cifar10_test_lmdb
I0501 05:07:32.422298 27814 net.cpp:86] Creating Layer cifar
I0501 05:07:32.422307 27814 net.cpp:382] cifar -> data
I0501 05:07:32.422317 27814 net.cpp:382] cifar -> label
I0501 05:07:32.422324 27814 data_transformer.cpp:25] Loading mean file from: examples/cifar10/mean.binaryproto
I0501 05:07:32.422495 27814 data_layer.cpp:45] output data size: 1000,3,32,32
I0501 05:07:32.446683 27814 net.cpp:124] Setting up cifar
I0501 05:07:32.446710 27814 net.cpp:131] Top shape: 1000 3 32 32 (3072000)
I0501 05:07:32.446717 27814 net.cpp:131] Top shape: 1000 (1000)
I0501 05:07:32.446720 27814 net.cpp:139] Memory required for data: 12292000
I0501 05:07:32.446725 27814 layer_factory.hpp:77] Creating layer label_cifar_1_split
I0501 05:07:32.446739 27814 net.cpp:86] Creating Layer label_cifar_1_split
I0501 05:07:32.446743 27814 net.cpp:408] label_cifar_1_split <- label
I0501 05:07:32.446751 27814 net.cpp:382] label_cifar_1_split -> label_cifar_1_split_0
I0501 05:07:32.446760 27814 net.cpp:382] label_cifar_1_split -> label_cifar_1_split_1
I0501 05:07:32.446873 27814 net.cpp:124] Setting up label_cifar_1_split
I0501 05:07:32.446883 27814 net.cpp:131] Top shape: 1000 (1000)
I0501 05:07:32.446887 27814 net.cpp:131] Top shape: 1000 (1000)
I0501 05:07:32.446890 27814 net.cpp:139] Memory required for data: 12300000
I0501 05:07:32.446893 27814 layer_factory.hpp:77] Creating layer conv0
I0501 05:07:32.446907 27814 net.cpp:86] Creating Layer conv0
I0501 05:07:32.446912 27814 net.cpp:408] conv0 <- data
I0501 05:07:32.446916 27814 net.cpp:382] conv0 -> conv0
I0501 05:07:32.448565 27814 net.cpp:124] Setting up conv0
I0501 05:07:32.448580 27814 net.cpp:131] Top shape: 1000 8 32 32 (8192000)
I0501 05:07:32.448583 27814 net.cpp:139] Memory required for data: 45068000
I0501 05:07:32.448595 27814 layer_factory.hpp:77] Creating layer Sigmoid0
I0501 05:07:32.448603 27814 net.cpp:86] Creating Layer Sigmoid0
I0501 05:07:32.448607 27814 net.cpp:408] Sigmoid0 <- conv0
I0501 05:07:32.448612 27814 net.cpp:382] Sigmoid0 -> Sigmoid0
I0501 05:07:32.449756 27814 net.cpp:124] Setting up Sigmoid0
I0501 05:07:32.449769 27814 net.cpp:131] Top shape: 1000 8 32 32 (8192000)
I0501 05:07:32.449771 27814 net.cpp:139] Memory required for data: 77836000
I0501 05:07:32.449775 27814 layer_factory.hpp:77] Creating layer pool0
I0501 05:07:32.449784 27814 net.cpp:86] Creating Layer pool0
I0501 05:07:32.449786 27814 net.cpp:408] pool0 <- Sigmoid0
I0501 05:07:32.449791 27814 net.cpp:382] pool0 -> pool0
I0501 05:07:32.449978 27814 net.cpp:124] Setting up pool0
I0501 05:07:32.449988 27814 net.cpp:131] Top shape: 1000 8 16 16 (2048000)
I0501 05:07:32.449991 27814 net.cpp:139] Memory required for data: 86028000
I0501 05:07:32.449995 27814 layer_factory.hpp:77] Creating layer ip1
I0501 05:07:32.450004 27814 net.cpp:86] Creating Layer ip1
I0501 05:07:32.450008 27814 net.cpp:408] ip1 <- pool0
I0501 05:07:32.450013 27814 net.cpp:382] ip1 -> ip1
I0501 05:07:32.452505 27814 net.cpp:124] Setting up ip1
I0501 05:07:32.452514 27814 net.cpp:131] Top shape: 1000 40 (40000)
I0501 05:07:32.452517 27814 net.cpp:139] Memory required for data: 86188000
I0501 05:07:32.452540 27814 layer_factory.hpp:77] Creating layer relu1
I0501 05:07:32.452548 27814 net.cpp:86] Creating Layer relu1
I0501 05:07:32.452550 27814 net.cpp:408] relu1 <- ip1
I0501 05:07:32.452555 27814 net.cpp:369] relu1 -> ip1 (in-place)
I0501 05:07:32.452733 27814 net.cpp:124] Setting up relu1
I0501 05:07:32.452744 27814 net.cpp:131] Top shape: 1000 40 (40000)
I0501 05:07:32.452747 27814 net.cpp:139] Memory required for data: 86348000
I0501 05:07:32.452750 27814 layer_factory.hpp:77] Creating layer ip2
I0501 05:07:32.452757 27814 net.cpp:86] Creating Layer ip2
I0501 05:07:32.452760 27814 net.cpp:408] ip2 <- ip1
I0501 05:07:32.452769 27814 net.cpp:382] ip2 -> ip2
I0501 05:07:32.452994 27814 net.cpp:124] Setting up ip2
I0501 05:07:32.453003 27814 net.cpp:131] Top shape: 1000 80 (80000)
I0501 05:07:32.453007 27814 net.cpp:139] Memory required for data: 86668000
I0501 05:07:32.453032 27814 layer_factory.hpp:77] Creating layer relu2
I0501 05:07:32.453039 27814 net.cpp:86] Creating Layer relu2
I0501 05:07:32.453043 27814 net.cpp:408] relu2 <- ip2
I0501 05:07:32.453047 27814 net.cpp:369] relu2 -> ip2 (in-place)
I0501 05:07:32.453843 27814 net.cpp:124] Setting up relu2
I0501 05:07:32.453856 27814 net.cpp:131] Top shape: 1000 80 (80000)
I0501 05:07:32.453860 27814 net.cpp:139] Memory required for data: 86988000
I0501 05:07:32.453863 27814 layer_factory.hpp:77] Creating layer ip3
I0501 05:07:32.453871 27814 net.cpp:86] Creating Layer ip3
I0501 05:07:32.453873 27814 net.cpp:408] ip3 <- ip2
I0501 05:07:32.453879 27814 net.cpp:382] ip3 -> ip3
I0501 05:07:32.454174 27814 net.cpp:124] Setting up ip3
I0501 05:07:32.454181 27814 net.cpp:131] Top shape: 1000 80 (80000)
I0501 05:07:32.454185 27814 net.cpp:139] Memory required for data: 87308000
I0501 05:07:32.454190 27814 layer_factory.hpp:77] Creating layer relu3
I0501 05:07:32.454197 27814 net.cpp:86] Creating Layer relu3
I0501 05:07:32.454200 27814 net.cpp:408] relu3 <- ip3
I0501 05:07:32.454205 27814 net.cpp:369] relu3 -> ip3 (in-place)
I0501 05:07:32.454368 27814 net.cpp:124] Setting up relu3
I0501 05:07:32.454375 27814 net.cpp:131] Top shape: 1000 80 (80000)
I0501 05:07:32.454380 27814 net.cpp:139] Memory required for data: 87628000
I0501 05:07:32.454382 27814 layer_factory.hpp:77] Creating layer ip4
I0501 05:07:32.454391 27814 net.cpp:86] Creating Layer ip4
I0501 05:07:32.454393 27814 net.cpp:408] ip4 <- ip3
I0501 05:07:32.454399 27814 net.cpp:382] ip4 -> ip4
I0501 05:07:32.454531 27814 net.cpp:124] Setting up ip4
I0501 05:07:32.454538 27814 net.cpp:131] Top shape: 1000 10 (10000)
I0501 05:07:32.454541 27814 net.cpp:139] Memory required for data: 87668000
I0501 05:07:32.454550 27814 layer_factory.hpp:77] Creating layer ip4_ip4_0_split
I0501 05:07:32.454555 27814 net.cpp:86] Creating Layer ip4_ip4_0_split
I0501 05:07:32.454558 27814 net.cpp:408] ip4_ip4_0_split <- ip4
I0501 05:07:32.454562 27814 net.cpp:382] ip4_ip4_0_split -> ip4_ip4_0_split_0
I0501 05:07:32.454571 27814 net.cpp:382] ip4_ip4_0_split -> ip4_ip4_0_split_1
I0501 05:07:32.454604 27814 net.cpp:124] Setting up ip4_ip4_0_split
I0501 05:07:32.454612 27814 net.cpp:131] Top shape: 1000 10 (10000)
I0501 05:07:32.454617 27814 net.cpp:131] Top shape: 1000 10 (10000)
I0501 05:07:32.454619 27814 net.cpp:139] Memory required for data: 87748000
I0501 05:07:32.454622 27814 layer_factory.hpp:77] Creating layer accuracy
I0501 05:07:32.454628 27814 net.cpp:86] Creating Layer accuracy
I0501 05:07:32.454632 27814 net.cpp:408] accuracy <- ip4_ip4_0_split_0
I0501 05:07:32.454637 27814 net.cpp:408] accuracy <- label_cifar_1_split_0
I0501 05:07:32.454640 27814 net.cpp:382] accuracy -> accuracy
…
