…
I0430 20:05:25.592250 27821 net.cpp:296] The NetState phase (0) differed from the phase (1) specified by a rule in layer cifar
I0430 20:05:25.592267 27821 net.cpp:296] The NetState phase (0) differed from the phase (1) specified by a rule in layer accuracy
I0430 20:05:25.592348 27821 net.cpp:53] Initializing net from parameters: 
name: "CIFAR"
state {
  phase: TRAIN
  level: 0
  stage: ""
}
layer {
  name: "cifar"
  type: "Data"
  top: "data"
  top: "label"
  include {
    phase: TRAIN
  }
  transform_param {
    mean_file: "examples/cifar10/mean.binaryproto"
  }
  data_param {
    source: "examples/cifar10/cifar10_train_lmdb"
    batch_size: 111
    backend: LMDB
  }
}
layer {
  name: "ip1"
  type: "InnerProduct"
  bottom: "data"
  top: "ip1"
  param {
    lr_mult: 1
  }
  param {
    lr_mult: 2
  }
  inner_product_param {
    num_output: 80
    weight_filler {
      type: "gaussian"
      std: 0.01
    }
    bias_filler {
      type: "constant"
    }
  }
}
layer {
  name: "relu1"
  type: "ReLU"
  bottom: "ip1"
  top: "ip1"
}
layer {
  name: "ip2"
  type: "InnerProduct"
  bottom: "ip1"
  top: "ip2"
  param {
    lr_mult: 1
  }
  param {
    lr_mult: 2
  }
  inner_product_param {
    num_output: 40
    weight_filler {
      type: "gaussian"
      std: 0.01
    }
    bias_filler {
      type: "constant"
    }
  }
}
layer {
  name: "relu2"
  type: "ReLU"
  bottom: "ip2"
  top: "ip2"
}
layer {
  name: "ip3"
  type: "InnerProduct"
  bottom: "ip2"
  top: "ip3"
  param {
    lr_mult: 1
  }
  param {
    lr_mult: 2
  }
  inner_product_param {
    num_output: 80
    weight_filler {
      type: "gaussian"
      std: 0.01
    }
    bias_filler {
      type: "constant"
    }
  }
}
layer {
  name: "relu3"
  type: "ReLU"
  bottom: "ip3"
  top: "ip3"
}
layer {
  name: "ip4"
  type: "InnerProduct"
  bottom: "ip3"
  top: "ip4"
  param {
    lr_mult: 1
  }
  param {
    lr_mult: 2
  }
  inner_product_param {
    num_output: 10
    weight_filler {
      type: "gaussian"
      std: 0.01
    }
    bias_filler {
      type: "constant"
    }
  }
}
layer {
  name: "loss"
  type: "SoftmaxWithLoss"
  bottom: "ip4"
  bottom: "label"
  top: "loss"
}
I0430 20:05:25.592423 27821 layer_factory.hpp:77] Creating layer cifar
I0430 20:05:25.592521 27821 db_lmdb.cpp:35] Opened lmdb examples/cifar10/cifar10_train_lmdb
I0430 20:05:25.592550 27821 net.cpp:86] Creating Layer cifar
I0430 20:05:25.592557 27821 net.cpp:382] cifar -> data
I0430 20:05:25.592581 27821 net.cpp:382] cifar -> label
I0430 20:05:25.592593 27821 data_transformer.cpp:25] Loading mean file from: examples/cifar10/mean.binaryproto
I0430 20:05:25.594713 27821 data_layer.cpp:45] output data size: 111,3,32,32
I0430 20:05:25.602890 27821 net.cpp:124] Setting up cifar
I0430 20:05:25.602910 27821 net.cpp:131] Top shape: 111 3 32 32 (340992)
I0430 20:05:25.602916 27821 net.cpp:131] Top shape: 111 (111)
I0430 20:05:25.602921 27821 net.cpp:139] Memory required for data: 1364412
I0430 20:05:25.602929 27821 layer_factory.hpp:77] Creating layer ip1
I0430 20:05:25.602941 27821 net.cpp:86] Creating Layer ip1
I0430 20:05:25.602946 27821 net.cpp:408] ip1 <- data
I0430 20:05:25.602959 27821 net.cpp:382] ip1 -> ip1
I0430 20:05:25.612221 27821 net.cpp:124] Setting up ip1
I0430 20:05:25.612238 27821 net.cpp:131] Top shape: 111 80 (8880)
I0430 20:05:25.612242 27821 net.cpp:139] Memory required for data: 1399932
I0430 20:05:25.612257 27821 layer_factory.hpp:77] Creating layer relu1
I0430 20:05:25.612265 27821 net.cpp:86] Creating Layer relu1
I0430 20:05:25.612285 27821 net.cpp:408] relu1 <- ip1
I0430 20:05:25.612292 27821 net.cpp:369] relu1 -> ip1 (in-place)
I0430 20:05:25.874714 27821 net.cpp:124] Setting up relu1
I0430 20:05:25.874742 27821 net.cpp:131] Top shape: 111 80 (8880)
I0430 20:05:25.874747 27821 net.cpp:139] Memory required for data: 1435452
I0430 20:05:25.874752 27821 layer_factory.hpp:77] Creating layer ip2
I0430 20:05:25.874764 27821 net.cpp:86] Creating Layer ip2
I0430 20:05:25.874768 27821 net.cpp:408] ip2 <- ip1
I0430 20:05:25.874775 27821 net.cpp:382] ip2 -> ip2
I0430 20:05:25.874979 27821 net.cpp:124] Setting up ip2
I0430 20:05:25.874986 27821 net.cpp:131] Top shape: 111 40 (4440)
I0430 20:05:25.874989 27821 net.cpp:139] Memory required for data: 1453212
I0430 20:05:25.874999 27821 layer_factory.hpp:77] Creating layer relu2
I0430 20:05:25.875005 27821 net.cpp:86] Creating Layer relu2
I0430 20:05:25.875008 27821 net.cpp:408] relu2 <- ip2
I0430 20:05:25.875012 27821 net.cpp:369] relu2 -> ip2 (in-place)
I0430 20:05:25.875725 27821 net.cpp:124] Setting up relu2
I0430 20:05:25.875735 27821 net.cpp:131] Top shape: 111 40 (4440)
I0430 20:05:25.875754 27821 net.cpp:139] Memory required for data: 1470972
I0430 20:05:25.875758 27821 layer_factory.hpp:77] Creating layer ip3
I0430 20:05:25.875766 27821 net.cpp:86] Creating Layer ip3
I0430 20:05:25.875769 27821 net.cpp:408] ip3 <- ip2
I0430 20:05:25.875788 27821 net.cpp:382] ip3 -> ip3
I0430 20:05:25.875974 27821 net.cpp:124] Setting up ip3
I0430 20:05:25.875982 27821 net.cpp:131] Top shape: 111 80 (8880)
I0430 20:05:25.875985 27821 net.cpp:139] Memory required for data: 1506492
I0430 20:05:25.875991 27821 layer_factory.hpp:77] Creating layer relu3
I0430 20:05:25.875996 27821 net.cpp:86] Creating Layer relu3
I0430 20:05:25.875999 27821 net.cpp:408] relu3 <- ip3
I0430 20:05:25.876003 27821 net.cpp:369] relu3 -> ip3 (in-place)
I0430 20:05:25.876137 27821 net.cpp:124] Setting up relu3
I0430 20:05:25.876145 27821 net.cpp:131] Top shape: 111 80 (8880)
I0430 20:05:25.876148 27821 net.cpp:139] Memory required for data: 1542012
I0430 20:05:25.876152 27821 layer_factory.hpp:77] Creating layer ip4
I0430 20:05:25.876157 27821 net.cpp:86] Creating Layer ip4
I0430 20:05:25.876159 27821 net.cpp:408] ip4 <- ip3
I0430 20:05:25.876164 27821 net.cpp:382] ip4 -> ip4
I0430 20:05:25.877177 27821 net.cpp:124] Setting up ip4
I0430 20:05:25.877189 27821 net.cpp:131] Top shape: 111 10 (1110)
I0430 20:05:25.877192 27821 net.cpp:139] Memory required for data: 1546452
I0430 20:05:25.877197 27821 layer_factory.hpp:77] Creating layer loss
I0430 20:05:25.877204 27821 net.cpp:86] Creating Layer loss
I0430 20:05:25.877207 27821 net.cpp:408] loss <- ip4
I0430 20:05:25.877212 27821 net.cpp:408] loss <- label
I0430 20:05:25.877216 27821 net.cpp:382] loss -> loss
I0430 20:05:25.877235 27821 layer_factory.hpp:77] Creating layer loss
…
I0430 20:05:25.877794 27821 solver.cpp:173] Creating test net (#0) specified by net file: ECE595/cifar/train_test/var_everything/cifar_train_test_118.prototxt
I0430 20:05:25.877831 27821 net.cpp:296] The NetState phase (1) differed from the phase (0) specified by a rule in layer cifar
I0430 20:05:25.877905 27821 net.cpp:53] Initializing net from parameters: 
name: "CIFAR"
state {
  phase: TEST
}
layer {
  name: "cifar"
  type: "Data"
  top: "data"
  top: "label"
  include {
    phase: TEST
  }
  transform_param {
    mean_file: "examples/cifar10/mean.binaryproto"
  }
  data_param {
    source: "examples/cifar10/cifar10_test_lmdb"
    batch_size: 1000
    backend: LMDB
  }
}
layer {
  name: "ip1"
  type: "InnerProduct"
  bottom: "data"
  top: "ip1"
  param {
    lr_mult: 1
  }
  param {
    lr_mult: 2
  }
  inner_product_param {
    num_output: 80
    weight_filler {
      type: "gaussian"
      std: 0.01
    }
    bias_filler {
      type: "constant"
    }
  }
}
layer {
  name: "relu1"
  type: "ReLU"
  bottom: "ip1"
  top: "ip1"
}
layer {
  name: "ip2"
  type: "InnerProduct"
  bottom: "ip1"
  top: "ip2"
  param {
    lr_mult: 1
  }
  param {
    lr_mult: 2
  }
  inner_product_param {
    num_output: 40
    weight_filler {
      type: "gaussian"
      std: 0.01
    }
    bias_filler {
      type: "constant"
    }
  }
}
layer {
  name: "relu2"
  type: "ReLU"
  bottom: "ip2"
  top: "ip2"
}
layer {
  name: "ip3"
  type: "InnerProduct"
  bottom: "ip2"
  top: "ip3"
  param {
    lr_mult: 1
  }
  param {
    lr_mult: 2
  }
  inner_product_param {
    num_output: 80
    weight_filler {
      type: "gaussian"
      std: 0.01
    }
    bias_filler {
      type: "constant"
    }
  }
}
layer {
  name: "relu3"
  type: "ReLU"
  bottom: "ip3"
  top: "ip3"
}
layer {
  name: "ip4"
  type: "InnerProduct"
  bottom: "ip3"
  top: "ip4"
  param {
    lr_mult: 1
  }
  param {
    lr_mult: 2
  }
  inner_product_param {
    num_output: 10
    weight_filler {
      type: "gaussian"
      std: 0.01
    }
    bias_filler {
      type: "constant"
    }
  }
}
layer {
  name: "accuracy"
  type: "Accuracy"
  bottom: "ip4"
  bottom: "label"
  top: "accuracy"
  include {
    phase: TEST
  }
}
layer {
  name: "loss"
  type: "SoftmaxWithLoss"
  bottom: "ip4"
  bottom: "label"
  top: "loss"
}
I0430 20:05:25.877962 27821 layer_factory.hpp:77] Creating layer cifar
I0430 20:05:25.878020 27821 db_lmdb.cpp:35] Opened lmdb examples/cifar10/cifar10_test_lmdb
I0430 20:05:25.878032 27821 net.cpp:86] Creating Layer cifar
I0430 20:05:25.878036 27821 net.cpp:382] cifar -> data
I0430 20:05:25.878043 27821 net.cpp:382] cifar -> label
I0430 20:05:25.878049 27821 data_transformer.cpp:25] Loading mean file from: examples/cifar10/mean.binaryproto
I0430 20:05:25.878180 27821 data_layer.cpp:45] output data size: 1000,3,32,32
I0430 20:05:25.899483 27821 net.cpp:124] Setting up cifar
I0430 20:05:25.899541 27821 net.cpp:131] Top shape: 1000 3 32 32 (3072000)
I0430 20:05:25.899547 27821 net.cpp:131] Top shape: 1000 (1000)
I0430 20:05:25.899550 27821 net.cpp:139] Memory required for data: 12292000
I0430 20:05:25.899556 27821 layer_factory.hpp:77] Creating layer label_cifar_1_split
I0430 20:05:25.899574 27821 net.cpp:86] Creating Layer label_cifar_1_split
I0430 20:05:25.899577 27821 net.cpp:408] label_cifar_1_split <- label
I0430 20:05:25.899583 27821 net.cpp:382] label_cifar_1_split -> label_cifar_1_split_0
I0430 20:05:25.899608 27821 net.cpp:382] label_cifar_1_split -> label_cifar_1_split_1
I0430 20:05:25.899691 27821 net.cpp:124] Setting up label_cifar_1_split
I0430 20:05:25.899699 27821 net.cpp:131] Top shape: 1000 (1000)
I0430 20:05:25.899703 27821 net.cpp:131] Top shape: 1000 (1000)
I0430 20:05:25.899705 27821 net.cpp:139] Memory required for data: 12300000
I0430 20:05:25.899708 27821 layer_factory.hpp:77] Creating layer ip1
I0430 20:05:25.899718 27821 net.cpp:86] Creating Layer ip1
I0430 20:05:25.899721 27821 net.cpp:408] ip1 <- data
I0430 20:05:25.899725 27821 net.cpp:382] ip1 -> ip1
I0430 20:05:25.906198 27821 net.cpp:124] Setting up ip1
I0430 20:05:25.906224 27821 net.cpp:131] Top shape: 1000 80 (80000)
I0430 20:05:25.906227 27821 net.cpp:139] Memory required for data: 12620000
I0430 20:05:25.906253 27821 layer_factory.hpp:77] Creating layer relu1
I0430 20:05:25.906260 27821 net.cpp:86] Creating Layer relu1
I0430 20:05:25.906280 27821 net.cpp:408] relu1 <- ip1
I0430 20:05:25.906285 27821 net.cpp:369] relu1 -> ip1 (in-place)
I0430 20:05:25.907102 27821 net.cpp:124] Setting up relu1
I0430 20:05:25.907130 27821 net.cpp:131] Top shape: 1000 80 (80000)
I0430 20:05:25.907133 27821 net.cpp:139] Memory required for data: 12940000
I0430 20:05:25.907136 27821 layer_factory.hpp:77] Creating layer ip2
I0430 20:05:25.907145 27821 net.cpp:86] Creating Layer ip2
I0430 20:05:25.907148 27821 net.cpp:408] ip2 <- ip1
I0430 20:05:25.907153 27821 net.cpp:382] ip2 -> ip2
I0430 20:05:25.907376 27821 net.cpp:124] Setting up ip2
I0430 20:05:25.907382 27821 net.cpp:131] Top shape: 1000 40 (40000)
I0430 20:05:25.907385 27821 net.cpp:139] Memory required for data: 13100000
I0430 20:05:25.907394 27821 layer_factory.hpp:77] Creating layer relu2
I0430 20:05:25.907398 27821 net.cpp:86] Creating Layer relu2
I0430 20:05:25.907402 27821 net.cpp:408] relu2 <- ip2
I0430 20:05:25.907407 27821 net.cpp:369] relu2 -> ip2 (in-place)
I0430 20:05:25.907570 27821 net.cpp:124] Setting up relu2
I0430 20:05:25.907579 27821 net.cpp:131] Top shape: 1000 40 (40000)
I0430 20:05:25.907583 27821 net.cpp:139] Memory required for data: 13260000
I0430 20:05:25.907587 27821 layer_factory.hpp:77] Creating layer ip3
I0430 20:05:25.907593 27821 net.cpp:86] Creating Layer ip3
I0430 20:05:25.907595 27821 net.cpp:408] ip3 <- ip2
I0430 20:05:25.907599 27821 net.cpp:382] ip3 -> ip3
I0430 20:05:25.907773 27821 net.cpp:124] Setting up ip3
I0430 20:05:25.907779 27821 net.cpp:131] Top shape: 1000 80 (80000)
I0430 20:05:25.907783 27821 net.cpp:139] Memory required for data: 13580000
I0430 20:05:25.907789 27821 layer_factory.hpp:77] Creating layer relu3
I0430 20:05:25.907793 27821 net.cpp:86] Creating Layer relu3
I0430 20:05:25.907796 27821 net.cpp:408] relu3 <- ip3
I0430 20:05:25.907800 27821 net.cpp:369] relu3 -> ip3 (in-place)
I0430 20:05:25.907945 27821 net.cpp:124] Setting up relu3
I0430 20:05:25.907953 27821 net.cpp:131] Top shape: 1000 80 (80000)
I0430 20:05:25.907956 27821 net.cpp:139] Memory required for data: 13900000
I0430 20:05:25.907959 27821 layer_factory.hpp:77] Creating layer ip4
I0430 20:05:25.907966 27821 net.cpp:86] Creating Layer ip4
I0430 20:05:25.907969 27821 net.cpp:408] ip4 <- ip3
I0430 20:05:25.907974 27821 net.cpp:382] ip4 -> ip4
I0430 20:05:25.908092 27821 net.cpp:124] Setting up ip4
I0430 20:05:25.908098 27821 net.cpp:131] Top shape: 1000 10 (10000)
I0430 20:05:25.908102 27821 net.cpp:139] Memory required for data: 13940000
I0430 20:05:25.908107 27821 layer_factory.hpp:77] Creating layer ip4_ip4_0_split
I0430 20:05:25.908110 27821 net.cpp:86] Creating Layer ip4_ip4_0_split
I0430 20:05:25.908113 27821 net.cpp:408] ip4_ip4_0_split <- ip4
I0430 20:05:25.908118 27821 net.cpp:382] ip4_ip4_0_split -> ip4_ip4_0_split_0
I0430 20:05:25.908124 27821 net.cpp:382] ip4_ip4_0_split -> ip4_ip4_0_split_1
I0430 20:05:25.908151 27821 net.cpp:124] Setting up ip4_ip4_0_split
I0430 20:05:25.908156 27821 net.cpp:131] Top shape: 1000 10 (10000)
I0430 20:05:25.908160 27821 net.cpp:131] Top shape: 1000 10 (10000)
I0430 20:05:25.908164 27821 net.cpp:139] Memory required for data: 14020000
I0430 20:05:25.908166 27821 layer_factory.hpp:77] Creating layer accuracy
I0430 20:05:25.908172 27821 net.cpp:86] Creating Layer accuracy
I0430 20:05:25.908175 27821 net.cpp:408] accuracy <- ip4_ip4_0_split_0
I0430 20:05:25.908179 27821 net.cpp:408] accuracy <- label_cifar_1_split_0
I0430 20:05:25.908184 27821 net.cpp:382] accuracy -> accuracy
…
