…
I0501 03:27:08.885263 20818 net.cpp:296] The NetState phase (0) differed from the phase (1) specified by a rule in layer cifar
I0501 03:27:08.885283 20818 net.cpp:296] The NetState phase (0) differed from the phase (1) specified by a rule in layer accuracy
I0501 03:27:08.885409 20818 net.cpp:53] Initializing net from parameters: 
name: "CIFAR"
state {
  phase: TRAIN
  level: 0
  stage: ""
}
layer {
  name: "cifar"
  type: "Data"
  top: "data"
  top: "label"
  include {
    phase: TRAIN
  }
  transform_param {
    mean_file: "examples/cifar10/mean.binaryproto"
  }
  data_param {
    source: "examples/cifar10/cifar10_train_lmdb"
    batch_size: 111
    backend: LMDB
  }
}
layer {
  name: "conv0"
  type: "Convolution"
  bottom: "data"
  top: "conv0"
  param {
    lr_mult: 1
  }
  param {
    lr_mult: 2
  }
  convolution_param {
    num_output: 8
    pad: 2
    kernel_size: 5
    stride: 1
    weight_filler {
      type: "gaussian"
      std: 0.01
    }
    bias_filler {
      type: "constant"
    }
  }
}
layer {
  name: "Sigmoid0"
  type: "Sigmoid"
  bottom: "conv0"
  top: "Sigmoid0"
}
layer {
  name: "pool0"
  type: "Pooling"
  bottom: "Sigmoid0"
  top: "pool0"
  pooling_param {
    pool: AVE
    kernel_size: 3
    stride: 2
  }
}
layer {
  name: "ip1"
  type: "InnerProduct"
  bottom: "pool0"
  top: "ip1"
  param {
    lr_mult: 1
  }
  param {
    lr_mult: 2
  }
  inner_product_param {
    num_output: 10
    weight_filler {
      type: "gaussian"
      std: 0.01
    }
    bias_filler {
      type: "constant"
    }
  }
}
layer {
  name: "relu1"
  type: "ReLU"
  bottom: "ip1"
  top: "ip1"
}
layer {
  name: "ip2"
  type: "InnerProduct"
  bottom: "ip1"
  top: "ip2"
  param {
    lr_mult: 1
  }
  param {
    lr_mult: 2
  }
  inner_product_param {
    num_output: 40
    weight_filler {
      type: "gaussian"
      std: 0.01
    }
    bias_filler {
      type: "constant"
    }
  }
}
layer {
  name: "relu2"
  type: "ReLU"
  bottom: "ip2"
  top: "ip2"
}
layer {
  name: "ip3"
  type: "InnerProduct"
  bottom: "ip2"
  top: "ip3"
  param {
    lr_mult: 1
  }
  param {
    lr_mult: 2
  }
  inner_product_param {
    num_output: 160
    weight_filler {
      type: "gaussian"
      std: 0.01
    }
    bias_filler {
      type: "constant"
    }
  }
}
layer {
  name: "relu3"
  type: "ReLU"
  bottom: "ip3"
  top: "ip3"
}
layer {
  name: "ip4"
  type: "InnerProduct"
  bottom: "ip3"
  top: "ip4"
  param {
    lr_mult: 1
  }
  param {
    lr_mult: 2
  }
  inner_product_param {
    num_output: 10
    weight_filler {
      type: "gaussian"
      std: 0.01
    }
    bias_filler {
      type: "constant"
    }
  }
}
layer {
  name: "loss"
  type: "SoftmaxWithLoss"
  bottom: "ip4"
  bottom: "label"
  top: "loss"
}
I0501 03:27:08.885521 20818 layer_factory.hpp:77] Creating layer cifar
I0501 03:27:08.885650 20818 db_lmdb.cpp:35] Opened lmdb examples/cifar10/cifar10_train_lmdb
I0501 03:27:08.885689 20818 net.cpp:86] Creating Layer cifar
I0501 03:27:08.885702 20818 net.cpp:382] cifar -> data
I0501 03:27:08.885733 20818 net.cpp:382] cifar -> label
I0501 03:27:08.885751 20818 data_transformer.cpp:25] Loading mean file from: examples/cifar10/mean.binaryproto
I0501 03:27:08.888100 20818 data_layer.cpp:45] output data size: 111,3,32,32
I0501 03:27:08.895978 20818 net.cpp:124] Setting up cifar
I0501 03:27:08.895999 20818 net.cpp:131] Top shape: 111 3 32 32 (340992)
I0501 03:27:08.896006 20818 net.cpp:131] Top shape: 111 (111)
I0501 03:27:08.896009 20818 net.cpp:139] Memory required for data: 1364412
I0501 03:27:08.896034 20818 layer_factory.hpp:77] Creating layer conv0
I0501 03:27:08.896057 20818 net.cpp:86] Creating Layer conv0
I0501 03:27:08.896067 20818 net.cpp:408] conv0 <- data
I0501 03:27:08.896087 20818 net.cpp:382] conv0 -> conv0
I0501 03:27:09.176574 20818 net.cpp:124] Setting up conv0
I0501 03:27:09.176602 20818 net.cpp:131] Top shape: 111 8 32 32 (909312)
I0501 03:27:09.176606 20818 net.cpp:139] Memory required for data: 5001660
I0501 03:27:09.176621 20818 layer_factory.hpp:77] Creating layer Sigmoid0
I0501 03:27:09.176633 20818 net.cpp:86] Creating Layer Sigmoid0
I0501 03:27:09.176637 20818 net.cpp:408] Sigmoid0 <- conv0
I0501 03:27:09.176642 20818 net.cpp:382] Sigmoid0 -> Sigmoid0
I0501 03:27:09.176826 20818 net.cpp:124] Setting up Sigmoid0
I0501 03:27:09.176836 20818 net.cpp:131] Top shape: 111 8 32 32 (909312)
I0501 03:27:09.176839 20818 net.cpp:139] Memory required for data: 8638908
I0501 03:27:09.176843 20818 layer_factory.hpp:77] Creating layer pool0
I0501 03:27:09.176851 20818 net.cpp:86] Creating Layer pool0
I0501 03:27:09.176853 20818 net.cpp:408] pool0 <- Sigmoid0
I0501 03:27:09.176857 20818 net.cpp:382] pool0 -> pool0
I0501 03:27:09.177569 20818 net.cpp:124] Setting up pool0
I0501 03:27:09.177582 20818 net.cpp:131] Top shape: 111 8 16 16 (227328)
I0501 03:27:09.177587 20818 net.cpp:139] Memory required for data: 9548220
I0501 03:27:09.177589 20818 layer_factory.hpp:77] Creating layer ip1
I0501 03:27:09.177603 20818 net.cpp:86] Creating Layer ip1
I0501 03:27:09.177606 20818 net.cpp:408] ip1 <- pool0
I0501 03:27:09.177611 20818 net.cpp:382] ip1 -> ip1
I0501 03:27:09.179038 20818 net.cpp:124] Setting up ip1
I0501 03:27:09.179049 20818 net.cpp:131] Top shape: 111 10 (1110)
I0501 03:27:09.179054 20818 net.cpp:139] Memory required for data: 9552660
I0501 03:27:09.179060 20818 layer_factory.hpp:77] Creating layer relu1
I0501 03:27:09.179066 20818 net.cpp:86] Creating Layer relu1
I0501 03:27:09.179069 20818 net.cpp:408] relu1 <- ip1
I0501 03:27:09.179075 20818 net.cpp:369] relu1 -> ip1 (in-place)
I0501 03:27:09.179237 20818 net.cpp:124] Setting up relu1
I0501 03:27:09.179246 20818 net.cpp:131] Top shape: 111 10 (1110)
I0501 03:27:09.179250 20818 net.cpp:139] Memory required for data: 9557100
I0501 03:27:09.179253 20818 layer_factory.hpp:77] Creating layer ip2
I0501 03:27:09.179260 20818 net.cpp:86] Creating Layer ip2
I0501 03:27:09.179265 20818 net.cpp:408] ip2 <- ip1
I0501 03:27:09.179273 20818 net.cpp:382] ip2 -> ip2
I0501 03:27:09.179402 20818 net.cpp:124] Setting up ip2
I0501 03:27:09.179410 20818 net.cpp:131] Top shape: 111 40 (4440)
I0501 03:27:09.179414 20818 net.cpp:139] Memory required for data: 9574860
I0501 03:27:09.179421 20818 layer_factory.hpp:77] Creating layer relu2
I0501 03:27:09.179427 20818 net.cpp:86] Creating Layer relu2
I0501 03:27:09.179430 20818 net.cpp:408] relu2 <- ip2
I0501 03:27:09.179435 20818 net.cpp:369] relu2 -> ip2 (in-place)
I0501 03:27:09.179605 20818 net.cpp:124] Setting up relu2
I0501 03:27:09.179615 20818 net.cpp:131] Top shape: 111 40 (4440)
I0501 03:27:09.179617 20818 net.cpp:139] Memory required for data: 9592620
I0501 03:27:09.179620 20818 layer_factory.hpp:77] Creating layer ip3
I0501 03:27:09.179627 20818 net.cpp:86] Creating Layer ip3
I0501 03:27:09.179630 20818 net.cpp:408] ip3 <- ip2
I0501 03:27:09.179636 20818 net.cpp:382] ip3 -> ip3
I0501 03:27:09.180690 20818 net.cpp:124] Setting up ip3
I0501 03:27:09.180701 20818 net.cpp:131] Top shape: 111 160 (17760)
I0501 03:27:09.180704 20818 net.cpp:139] Memory required for data: 9663660
I0501 03:27:09.180711 20818 layer_factory.hpp:77] Creating layer relu3
I0501 03:27:09.180716 20818 net.cpp:86] Creating Layer relu3
I0501 03:27:09.180719 20818 net.cpp:408] relu3 <- ip3
I0501 03:27:09.180723 20818 net.cpp:369] relu3 -> ip3 (in-place)
I0501 03:27:09.180948 20818 net.cpp:124] Setting up relu3
I0501 03:27:09.180959 20818 net.cpp:131] Top shape: 111 160 (17760)
I0501 03:27:09.180963 20818 net.cpp:139] Memory required for data: 9734700
I0501 03:27:09.180966 20818 layer_factory.hpp:77] Creating layer ip4
I0501 03:27:09.180989 20818 net.cpp:86] Creating Layer ip4
I0501 03:27:09.180995 20818 net.cpp:408] ip4 <- ip3
I0501 03:27:09.181020 20818 net.cpp:382] ip4 -> ip4
I0501 03:27:09.181224 20818 net.cpp:124] Setting up ip4
I0501 03:27:09.181247 20818 net.cpp:131] Top shape: 111 10 (1110)
I0501 03:27:09.181251 20818 net.cpp:139] Memory required for data: 9739140
I0501 03:27:09.181259 20818 layer_factory.hpp:77] Creating layer loss
I0501 03:27:09.181268 20818 net.cpp:86] Creating Layer loss
I0501 03:27:09.181274 20818 net.cpp:408] loss <- ip4
I0501 03:27:09.181280 20818 net.cpp:408] loss <- label
I0501 03:27:09.181288 20818 net.cpp:382] loss -> loss
I0501 03:27:09.181313 20818 layer_factory.hpp:77] Creating layer loss
…
I0501 03:27:09.182505 20818 solver.cpp:173] Creating test net (#0) specified by net file: ECE595/cifar/train_test/var_everything/cifar_train_test_354.prototxt
I0501 03:27:09.182531 20818 net.cpp:296] The NetState phase (1) differed from the phase (0) specified by a rule in layer cifar
I0501 03:27:09.182649 20818 net.cpp:53] Initializing net from parameters: 
name: "CIFAR"
state {
  phase: TEST
}
layer {
  name: "cifar"
  type: "Data"
  top: "data"
  top: "label"
  include {
    phase: TEST
  }
  transform_param {
    mean_file: "examples/cifar10/mean.binaryproto"
  }
  data_param {
    source: "examples/cifar10/cifar10_test_lmdb"
    batch_size: 1000
    backend: LMDB
  }
}
layer {
  name: "conv0"
  type: "Convolution"
  bottom: "data"
  top: "conv0"
  param {
    lr_mult: 1
  }
  param {
    lr_mult: 2
  }
  convolution_param {
    num_output: 8
    pad: 2
    kernel_size: 5
    stride: 1
    weight_filler {
      type: "gaussian"
      std: 0.01
    }
    bias_filler {
      type: "constant"
    }
  }
}
layer {
  name: "Sigmoid0"
  type: "Sigmoid"
  bottom: "conv0"
  top: "Sigmoid0"
}
layer {
  name: "pool0"
  type: "Pooling"
  bottom: "Sigmoid0"
  top: "pool0"
  pooling_param {
    pool: AVE
    kernel_size: 3
    stride: 2
  }
}
layer {
  name: "ip1"
  type: "InnerProduct"
  bottom: "pool0"
  top: "ip1"
  param {
    lr_mult: 1
  }
  param {
    lr_mult: 2
  }
  inner_product_param {
    num_output: 10
    weight_filler {
      type: "gaussian"
      std: 0.01
    }
    bias_filler {
      type: "constant"
    }
  }
}
layer {
  name: "relu1"
  type: "ReLU"
  bottom: "ip1"
  top: "ip1"
}
layer {
  name: "ip2"
  type: "InnerProduct"
  bottom: "ip1"
  top: "ip2"
  param {
    lr_mult: 1
  }
  param {
    lr_mult: 2
  }
  inner_product_param {
    num_output: 40
    weight_filler {
      type: "gaussian"
      std: 0.01
    }
    bias_filler {
      type: "constant"
    }
  }
}
layer {
  name: "relu2"
  type: "ReLU"
  bottom: "ip2"
  top: "ip2"
}
layer {
  name: "ip3"
  type: "InnerProduct"
  bottom: "ip2"
  top: "ip3"
  param {
    lr_mult: 1
  }
  param {
    lr_mult: 2
  }
  inner_product_param {
    num_output: 160
    weight_filler {
      type: "gaussian"
      std: 0.01
    }
    bias_filler {
      type: "constant"
    }
  }
}
layer {
  name: "relu3"
  type: "ReLU"
  bottom: "ip3"
  top: "ip3"
}
layer {
  name: "ip4"
  type: "InnerProduct"
  bottom: "ip3"
  top: "ip4"
  param {
    lr_mult: 1
  }
  param {
    lr_mult: 2
  }
  inner_product_param {
    num_output: 10
    weight_filler {
      type: "gaussian"
      std: 0.01
    }
    bias_filler {
      type: "constant"
    }
  }
}
layer {
  name: "accuracy"
  type: "Accuracy"
  bottom: "ip4"
  bottom: "label"
  top: "accuracy"
  include {
    phase: TEST
  }
}
layer {
  name: "loss"
  type: "SoftmaxWithLoss"
  bottom: "ip4"
  bottom: "label"
  top: "loss"
}
I0501 03:27:09.182724 20818 layer_factory.hpp:77] Creating layer cifar
I0501 03:27:09.182768 20818 db_lmdb.cpp:35] Opened lmdb examples/cifar10/cifar10_test_lmdb
I0501 03:27:09.182801 20818 net.cpp:86] Creating Layer cifar
I0501 03:27:09.182809 20818 net.cpp:382] cifar -> data
I0501 03:27:09.182821 20818 net.cpp:382] cifar -> label
I0501 03:27:09.182832 20818 data_transformer.cpp:25] Loading mean file from: examples/cifar10/mean.binaryproto
I0501 03:27:09.183030 20818 data_layer.cpp:45] output data size: 1000,3,32,32
I0501 03:27:09.204473 20818 net.cpp:124] Setting up cifar
I0501 03:27:09.204515 20818 net.cpp:131] Top shape: 1000 3 32 32 (3072000)
I0501 03:27:09.204521 20818 net.cpp:131] Top shape: 1000 (1000)
I0501 03:27:09.204524 20818 net.cpp:139] Memory required for data: 12292000
I0501 03:27:09.204530 20818 layer_factory.hpp:77] Creating layer label_cifar_1_split
I0501 03:27:09.204566 20818 net.cpp:86] Creating Layer label_cifar_1_split
I0501 03:27:09.204572 20818 net.cpp:408] label_cifar_1_split <- label
I0501 03:27:09.204596 20818 net.cpp:382] label_cifar_1_split -> label_cifar_1_split_0
I0501 03:27:09.204607 20818 net.cpp:382] label_cifar_1_split -> label_cifar_1_split_1
I0501 03:27:09.204704 20818 net.cpp:124] Setting up label_cifar_1_split
I0501 03:27:09.204711 20818 net.cpp:131] Top shape: 1000 (1000)
I0501 03:27:09.204715 20818 net.cpp:131] Top shape: 1000 (1000)
I0501 03:27:09.204717 20818 net.cpp:139] Memory required for data: 12300000
I0501 03:27:09.204720 20818 layer_factory.hpp:77] Creating layer conv0
I0501 03:27:09.204733 20818 net.cpp:86] Creating Layer conv0
I0501 03:27:09.204741 20818 net.cpp:408] conv0 <- data
I0501 03:27:09.204766 20818 net.cpp:382] conv0 -> conv0
I0501 03:27:09.206480 20818 net.cpp:124] Setting up conv0
I0501 03:27:09.206509 20818 net.cpp:131] Top shape: 1000 8 32 32 (8192000)
I0501 03:27:09.206513 20818 net.cpp:139] Memory required for data: 45068000
I0501 03:27:09.206522 20818 layer_factory.hpp:77] Creating layer Sigmoid0
I0501 03:27:09.206531 20818 net.cpp:86] Creating Layer Sigmoid0
I0501 03:27:09.206534 20818 net.cpp:408] Sigmoid0 <- conv0
I0501 03:27:09.206538 20818 net.cpp:382] Sigmoid0 -> Sigmoid0
I0501 03:27:09.206730 20818 net.cpp:124] Setting up Sigmoid0
I0501 03:27:09.206740 20818 net.cpp:131] Top shape: 1000 8 32 32 (8192000)
I0501 03:27:09.206743 20818 net.cpp:139] Memory required for data: 77836000
I0501 03:27:09.206748 20818 layer_factory.hpp:77] Creating layer pool0
I0501 03:27:09.206755 20818 net.cpp:86] Creating Layer pool0
I0501 03:27:09.206758 20818 net.cpp:408] pool0 <- Sigmoid0
I0501 03:27:09.206763 20818 net.cpp:382] pool0 -> pool0
I0501 03:27:09.207064 20818 net.cpp:124] Setting up pool0
I0501 03:27:09.207072 20818 net.cpp:131] Top shape: 1000 8 16 16 (2048000)
I0501 03:27:09.207092 20818 net.cpp:139] Memory required for data: 86028000
I0501 03:27:09.207094 20818 layer_factory.hpp:77] Creating layer ip1
I0501 03:27:09.207103 20818 net.cpp:86] Creating Layer ip1
I0501 03:27:09.207105 20818 net.cpp:408] ip1 <- pool0
I0501 03:27:09.207125 20818 net.cpp:382] ip1 -> ip1
I0501 03:27:09.208658 20818 net.cpp:124] Setting up ip1
I0501 03:27:09.208667 20818 net.cpp:131] Top shape: 1000 10 (10000)
I0501 03:27:09.208685 20818 net.cpp:139] Memory required for data: 86068000
I0501 03:27:09.208709 20818 layer_factory.hpp:77] Creating layer relu1
I0501 03:27:09.208715 20818 net.cpp:86] Creating Layer relu1
I0501 03:27:09.208719 20818 net.cpp:408] relu1 <- ip1
I0501 03:27:09.208724 20818 net.cpp:369] relu1 -> ip1 (in-place)
I0501 03:27:09.208931 20818 net.cpp:124] Setting up relu1
I0501 03:27:09.208941 20818 net.cpp:131] Top shape: 1000 10 (10000)
I0501 03:27:09.208945 20818 net.cpp:139] Memory required for data: 86108000
I0501 03:27:09.208948 20818 layer_factory.hpp:77] Creating layer ip2
I0501 03:27:09.208956 20818 net.cpp:86] Creating Layer ip2
I0501 03:27:09.208958 20818 net.cpp:408] ip2 <- ip1
I0501 03:27:09.208964 20818 net.cpp:382] ip2 -> ip2
I0501 03:27:09.209095 20818 net.cpp:124] Setting up ip2
I0501 03:27:09.209103 20818 net.cpp:131] Top shape: 1000 40 (40000)
I0501 03:27:09.209106 20818 net.cpp:139] Memory required for data: 86268000
I0501 03:27:09.209130 20818 layer_factory.hpp:77] Creating layer relu2
I0501 03:27:09.209156 20818 net.cpp:86] Creating Layer relu2
I0501 03:27:09.209161 20818 net.cpp:408] relu2 <- ip2
I0501 03:27:09.209168 20818 net.cpp:369] relu2 -> ip2 (in-place)
I0501 03:27:09.209919 20818 net.cpp:124] Setting up relu2
I0501 03:27:09.209935 20818 net.cpp:131] Top shape: 1000 40 (40000)
I0501 03:27:09.209954 20818 net.cpp:139] Memory required for data: 86428000
I0501 03:27:09.209956 20818 layer_factory.hpp:77] Creating layer ip3
I0501 03:27:09.209964 20818 net.cpp:86] Creating Layer ip3
I0501 03:27:09.209966 20818 net.cpp:408] ip3 <- ip2
I0501 03:27:09.209971 20818 net.cpp:382] ip3 -> ip3
I0501 03:27:09.210268 20818 net.cpp:124] Setting up ip3
I0501 03:27:09.210278 20818 net.cpp:131] Top shape: 1000 160 (160000)
I0501 03:27:09.210280 20818 net.cpp:139] Memory required for data: 87068000
I0501 03:27:09.210286 20818 layer_factory.hpp:77] Creating layer relu3
I0501 03:27:09.210291 20818 net.cpp:86] Creating Layer relu3
I0501 03:27:09.210294 20818 net.cpp:408] relu3 <- ip3
I0501 03:27:09.210299 20818 net.cpp:369] relu3 -> ip3 (in-place)
I0501 03:27:09.210469 20818 net.cpp:124] Setting up relu3
I0501 03:27:09.210477 20818 net.cpp:131] Top shape: 1000 160 (160000)
I0501 03:27:09.210480 20818 net.cpp:139] Memory required for data: 87708000
I0501 03:27:09.210484 20818 layer_factory.hpp:77] Creating layer ip4
I0501 03:27:09.210489 20818 net.cpp:86] Creating Layer ip4
I0501 03:27:09.210492 20818 net.cpp:408] ip4 <- ip3
I0501 03:27:09.210499 20818 net.cpp:382] ip4 -> ip4
I0501 03:27:09.210645 20818 net.cpp:124] Setting up ip4
I0501 03:27:09.210654 20818 net.cpp:131] Top shape: 1000 10 (10000)
I0501 03:27:09.210656 20818 net.cpp:139] Memory required for data: 87748000
I0501 03:27:09.210664 20818 layer_factory.hpp:77] Creating layer ip4_ip4_0_split
I0501 03:27:09.210674 20818 net.cpp:86] Creating Layer ip4_ip4_0_split
I0501 03:27:09.210693 20818 net.cpp:408] ip4_ip4_0_split <- ip4
I0501 03:27:09.210700 20818 net.cpp:382] ip4_ip4_0_split -> ip4_ip4_0_split_0
I0501 03:27:09.210708 20818 net.cpp:382] ip4_ip4_0_split -> ip4_ip4_0_split_1
I0501 03:27:09.210741 20818 net.cpp:124] Setting up ip4_ip4_0_split
I0501 03:27:09.210752 20818 net.cpp:131] Top shape: 1000 10 (10000)
I0501 03:27:09.210775 20818 net.cpp:131] Top shape: 1000 10 (10000)
I0501 03:27:09.210780 20818 net.cpp:139] Memory required for data: 87828000
I0501 03:27:09.210786 20818 layer_factory.hpp:77] Creating layer accuracy
I0501 03:27:09.210795 20818 net.cpp:86] Creating Layer accuracy
I0501 03:27:09.210800 20818 net.cpp:408] accuracy <- ip4_ip4_0_split_0
I0501 03:27:09.210808 20818 net.cpp:408] accuracy <- label_cifar_1_split_0
I0501 03:27:09.210814 20818 net.cpp:382] accuracy -> accuracy
…
