…
I0430 22:53:53.079623  3649 net.cpp:296] The NetState phase (0) differed from the phase (1) specified by a rule in layer cifar
I0430 22:53:53.079643  3649 net.cpp:296] The NetState phase (0) differed from the phase (1) specified by a rule in layer accuracy
I0430 22:53:53.079740  3649 net.cpp:53] Initializing net from parameters: 
name: "CIFAR"
state {
  phase: TRAIN
  level: 0
  stage: ""
}
layer {
  name: "cifar"
  type: "Data"
  top: "data"
  top: "label"
  include {
    phase: TRAIN
  }
  transform_param {
    mean_file: "examples/cifar10/mean.binaryproto"
  }
  data_param {
    source: "examples/cifar10/cifar10_train_lmdb"
    batch_size: 111
    backend: LMDB
  }
}
layer {
  name: "conv0"
  type: "Convolution"
  bottom: "data"
  top: "conv0"
  param {
    lr_mult: 1
  }
  param {
    lr_mult: 2
  }
  convolution_param {
    num_output: 8
    pad: 2
    kernel_size: 3
    stride: 1
    weight_filler {
      type: "gaussian"
      std: 0.01
    }
    bias_filler {
      type: "constant"
    }
  }
}
layer {
  name: "Sigmoid0"
  type: "Sigmoid"
  bottom: "conv0"
  top: "Sigmoid0"
}
layer {
  name: "pool0"
  type: "Pooling"
  bottom: "Sigmoid0"
  top: "pool0"
  pooling_param {
    pool: AVE
    kernel_size: 3
    stride: 2
  }
}
layer {
  name: "ip1"
  type: "InnerProduct"
  bottom: "pool0"
  top: "ip1"
  param {
    lr_mult: 1
  }
  param {
    lr_mult: 2
  }
  inner_product_param {
    num_output: 10
    weight_filler {
      type: "gaussian"
      std: 0.01
    }
    bias_filler {
      type: "constant"
    }
  }
}
layer {
  name: "relu1"
  type: "ReLU"
  bottom: "ip1"
  top: "ip1"
}
layer {
  name: "ip2"
  type: "InnerProduct"
  bottom: "ip1"
  top: "ip2"
  param {
    lr_mult: 1
  }
  param {
    lr_mult: 2
  }
  inner_product_param {
    num_output: 160
    weight_filler {
      type: "gaussian"
      std: 0.01
    }
    bias_filler {
      type: "constant"
    }
  }
}
layer {
  name: "relu2"
  type: "ReLU"
  bottom: "ip2"
  top: "ip2"
}
layer {
  name: "ip3"
  type: "InnerProduct"
  bottom: "ip2"
  top: "ip3"
  param {
    lr_mult: 1
  }
  param {
    lr_mult: 2
  }
  inner_product_param {
    num_output: 80
    weight_filler {
      type: "gaussian"
      std: 0.01
    }
    bias_filler {
      type: "constant"
    }
  }
}
layer {
  name: "relu3"
  type: "ReLU"
  bottom: "ip3"
  top: "ip3"
}
layer {
  name: "ip4"
  type: "InnerProduct"
  bottom: "ip3"
  top: "ip4"
  param {
    lr_mult: 1
  }
  param {
    lr_mult: 2
  }
  inner_product_param {
    num_output: 10
    weight_filler {
      type: "gaussian"
      std: 0.01
    }
    bias_filler {
      type: "constant"
    }
  }
}
layer {
  name: "loss"
  type: "SoftmaxWithLoss"
  bottom: "ip4"
  bottom: "label"
  top: "loss"
}
I0430 22:53:53.079813  3649 layer_factory.hpp:77] Creating layer cifar
I0430 22:53:53.079901  3649 db_lmdb.cpp:35] Opened lmdb examples/cifar10/cifar10_train_lmdb
I0430 22:53:53.079929  3649 net.cpp:86] Creating Layer cifar
I0430 22:53:53.079939  3649 net.cpp:382] cifar -> data
I0430 22:53:53.079959  3649 net.cpp:382] cifar -> label
I0430 22:53:53.079973  3649 data_transformer.cpp:25] Loading mean file from: examples/cifar10/mean.binaryproto
I0430 22:53:53.081919  3649 data_layer.cpp:45] output data size: 111,3,32,32
I0430 22:53:53.089045  3649 net.cpp:124] Setting up cifar
I0430 22:53:53.089061  3649 net.cpp:131] Top shape: 111 3 32 32 (340992)
I0430 22:53:53.089067  3649 net.cpp:131] Top shape: 111 (111)
I0430 22:53:53.089071  3649 net.cpp:139] Memory required for data: 1364412
I0430 22:53:53.089092  3649 layer_factory.hpp:77] Creating layer conv0
I0430 22:53:53.089108  3649 net.cpp:86] Creating Layer conv0
I0430 22:53:53.089113  3649 net.cpp:408] conv0 <- data
I0430 22:53:53.089126  3649 net.cpp:382] conv0 -> conv0
I0430 22:53:53.319093  3649 net.cpp:124] Setting up conv0
I0430 22:53:53.319121  3649 net.cpp:131] Top shape: 111 8 34 34 (1026528)
I0430 22:53:53.319125  3649 net.cpp:139] Memory required for data: 5470524
I0430 22:53:53.319140  3649 layer_factory.hpp:77] Creating layer Sigmoid0
I0430 22:53:53.319152  3649 net.cpp:86] Creating Layer Sigmoid0
I0430 22:53:53.319157  3649 net.cpp:408] Sigmoid0 <- conv0
I0430 22:53:53.319162  3649 net.cpp:382] Sigmoid0 -> Sigmoid0
I0430 22:53:53.319337  3649 net.cpp:124] Setting up Sigmoid0
I0430 22:53:53.319346  3649 net.cpp:131] Top shape: 111 8 34 34 (1026528)
I0430 22:53:53.319350  3649 net.cpp:139] Memory required for data: 9576636
I0430 22:53:53.319353  3649 layer_factory.hpp:77] Creating layer pool0
I0430 22:53:53.319360  3649 net.cpp:86] Creating Layer pool0
I0430 22:53:53.319363  3649 net.cpp:408] pool0 <- Sigmoid0
I0430 22:53:53.319368  3649 net.cpp:382] pool0 -> pool0
I0430 22:53:53.320104  3649 net.cpp:124] Setting up pool0
I0430 22:53:53.320117  3649 net.cpp:131] Top shape: 111 8 17 17 (256632)
I0430 22:53:53.320122  3649 net.cpp:139] Memory required for data: 10603164
I0430 22:53:53.320124  3649 layer_factory.hpp:77] Creating layer ip1
I0430 22:53:53.320133  3649 net.cpp:86] Creating Layer ip1
I0430 22:53:53.320137  3649 net.cpp:408] ip1 <- pool0
I0430 22:53:53.320142  3649 net.cpp:382] ip1 -> ip1
I0430 22:53:53.321820  3649 net.cpp:124] Setting up ip1
I0430 22:53:53.321832  3649 net.cpp:131] Top shape: 111 10 (1110)
I0430 22:53:53.321835  3649 net.cpp:139] Memory required for data: 10607604
I0430 22:53:53.321844  3649 layer_factory.hpp:77] Creating layer relu1
I0430 22:53:53.321851  3649 net.cpp:86] Creating Layer relu1
I0430 22:53:53.321853  3649 net.cpp:408] relu1 <- ip1
I0430 22:53:53.321858  3649 net.cpp:369] relu1 -> ip1 (in-place)
I0430 22:53:53.322034  3649 net.cpp:124] Setting up relu1
I0430 22:53:53.322043  3649 net.cpp:131] Top shape: 111 10 (1110)
I0430 22:53:53.322047  3649 net.cpp:139] Memory required for data: 10612044
I0430 22:53:53.322051  3649 layer_factory.hpp:77] Creating layer ip2
I0430 22:53:53.322057  3649 net.cpp:86] Creating Layer ip2
I0430 22:53:53.322060  3649 net.cpp:408] ip2 <- ip1
I0430 22:53:53.322065  3649 net.cpp:382] ip2 -> ip2
I0430 22:53:53.322208  3649 net.cpp:124] Setting up ip2
I0430 22:53:53.322230  3649 net.cpp:131] Top shape: 111 160 (17760)
I0430 22:53:53.322234  3649 net.cpp:139] Memory required for data: 10683084
I0430 22:53:53.322242  3649 layer_factory.hpp:77] Creating layer relu2
I0430 22:53:53.322247  3649 net.cpp:86] Creating Layer relu2
I0430 22:53:53.322250  3649 net.cpp:408] relu2 <- ip2
I0430 22:53:53.322254  3649 net.cpp:369] relu2 -> ip2 (in-place)
I0430 22:53:53.322402  3649 net.cpp:124] Setting up relu2
I0430 22:53:53.322409  3649 net.cpp:131] Top shape: 111 160 (17760)
I0430 22:53:53.322412  3649 net.cpp:139] Memory required for data: 10754124
I0430 22:53:53.322417  3649 layer_factory.hpp:77] Creating layer ip3
I0430 22:53:53.322423  3649 net.cpp:86] Creating Layer ip3
I0430 22:53:53.322427  3649 net.cpp:408] ip3 <- ip2
I0430 22:53:53.322432  3649 net.cpp:382] ip3 -> ip3
I0430 22:53:53.323694  3649 net.cpp:124] Setting up ip3
I0430 22:53:53.323707  3649 net.cpp:131] Top shape: 111 80 (8880)
I0430 22:53:53.323711  3649 net.cpp:139] Memory required for data: 10789644
I0430 22:53:53.323717  3649 layer_factory.hpp:77] Creating layer relu3
I0430 22:53:53.323738  3649 net.cpp:86] Creating Layer relu3
I0430 22:53:53.323742  3649 net.cpp:408] relu3 <- ip3
I0430 22:53:53.323746  3649 net.cpp:369] relu3 -> ip3 (in-place)
I0430 22:53:53.323918  3649 net.cpp:124] Setting up relu3
I0430 22:53:53.323926  3649 net.cpp:131] Top shape: 111 80 (8880)
I0430 22:53:53.323930  3649 net.cpp:139] Memory required for data: 10825164
I0430 22:53:53.323933  3649 layer_factory.hpp:77] Creating layer ip4
I0430 22:53:53.323953  3649 net.cpp:86] Creating Layer ip4
I0430 22:53:53.323957  3649 net.cpp:408] ip4 <- ip3
I0430 22:53:53.323962  3649 net.cpp:382] ip4 -> ip4
I0430 22:53:53.324966  3649 net.cpp:124] Setting up ip4
I0430 22:53:53.324978  3649 net.cpp:131] Top shape: 111 10 (1110)
I0430 22:53:53.324982  3649 net.cpp:139] Memory required for data: 10829604
I0430 22:53:53.324990  3649 layer_factory.hpp:77] Creating layer loss
I0430 22:53:53.324996  3649 net.cpp:86] Creating Layer loss
I0430 22:53:53.325000  3649 net.cpp:408] loss <- ip4
I0430 22:53:53.325003  3649 net.cpp:408] loss <- label
I0430 22:53:53.325009  3649 net.cpp:382] loss -> loss
I0430 22:53:53.325027  3649 layer_factory.hpp:77] Creating layer loss
…
I0430 22:53:53.326303  3649 solver.cpp:173] Creating test net (#0) specified by net file: ECE595/cifar/train_test/var_everything/cifar_train_test_208.prototxt
I0430 22:53:53.326333  3649 net.cpp:296] The NetState phase (1) differed from the phase (0) specified by a rule in layer cifar
I0430 22:53:53.326429  3649 net.cpp:53] Initializing net from parameters: 
name: "CIFAR"
state {
  phase: TEST
}
layer {
  name: "cifar"
  type: "Data"
  top: "data"
  top: "label"
  include {
    phase: TEST
  }
  transform_param {
    mean_file: "examples/cifar10/mean.binaryproto"
  }
  data_param {
    source: "examples/cifar10/cifar10_test_lmdb"
    batch_size: 1000
    backend: LMDB
  }
}
layer {
  name: "conv0"
  type: "Convolution"
  bottom: "data"
  top: "conv0"
  param {
    lr_mult: 1
  }
  param {
    lr_mult: 2
  }
  convolution_param {
    num_output: 8
    pad: 2
    kernel_size: 3
    stride: 1
    weight_filler {
      type: "gaussian"
      std: 0.01
    }
    bias_filler {
      type: "constant"
    }
  }
}
layer {
  name: "Sigmoid0"
  type: "Sigmoid"
  bottom: "conv0"
  top: "Sigmoid0"
}
layer {
  name: "pool0"
  type: "Pooling"
  bottom: "Sigmoid0"
  top: "pool0"
  pooling_param {
    pool: AVE
    kernel_size: 3
    stride: 2
  }
}
layer {
  name: "ip1"
  type: "InnerProduct"
  bottom: "pool0"
  top: "ip1"
  param {
    lr_mult: 1
  }
  param {
    lr_mult: 2
  }
  inner_product_param {
    num_output: 10
    weight_filler {
      type: "gaussian"
      std: 0.01
    }
    bias_filler {
      type: "constant"
    }
  }
}
layer {
  name: "relu1"
  type: "ReLU"
  bottom: "ip1"
  top: "ip1"
}
layer {
  name: "ip2"
  type: "InnerProduct"
  bottom: "ip1"
  top: "ip2"
  param {
    lr_mult: 1
  }
  param {
    lr_mult: 2
  }
  inner_product_param {
    num_output: 160
    weight_filler {
      type: "gaussian"
      std: 0.01
    }
    bias_filler {
      type: "constant"
    }
  }
}
layer {
  name: "relu2"
  type: "ReLU"
  bottom: "ip2"
  top: "ip2"
}
layer {
  name: "ip3"
  type: "InnerProduct"
  bottom: "ip2"
  top: "ip3"
  param {
    lr_mult: 1
  }
  param {
    lr_mult: 2
  }
  inner_product_param {
    num_output: 80
    weight_filler {
      type: "gaussian"
      std: 0.01
    }
    bias_filler {
      type: "constant"
    }
  }
}
layer {
  name: "relu3"
  type: "ReLU"
  bottom: "ip3"
  top: "ip3"
}
layer {
  name: "ip4"
  type: "InnerProduct"
  bottom: "ip3"
  top: "ip4"
  param {
    lr_mult: 1
  }
  param {
    lr_mult: 2
  }
  inner_product_param {
    num_output: 10
    weight_filler {
      type: "gaussian"
      std: 0.01
    }
    bias_filler {
      type: "constant"
    }
  }
}
layer {
  name: "accuracy"
  type: "Accuracy"
  bottom: "ip4"
  bottom: "label"
  top: "accuracy"
  include {
    phase: TEST
  }
}
layer {
  name: "loss"
  type: "SoftmaxWithLoss"
  bottom: "ip4"
  bottom: "label"
  top: "loss"
}
I0430 22:53:53.326510  3649 layer_factory.hpp:77] Creating layer cifar
I0430 22:53:53.326572  3649 db_lmdb.cpp:35] Opened lmdb examples/cifar10/cifar10_test_lmdb
I0430 22:53:53.326584  3649 net.cpp:86] Creating Layer cifar
I0430 22:53:53.326589  3649 net.cpp:382] cifar -> data
I0430 22:53:53.326596  3649 net.cpp:382] cifar -> label
I0430 22:53:53.326603  3649 data_transformer.cpp:25] Loading mean file from: examples/cifar10/mean.binaryproto
I0430 22:53:53.326741  3649 data_layer.cpp:45] output data size: 1000,3,32,32
I0430 22:53:53.349210  3649 net.cpp:124] Setting up cifar
I0430 22:53:53.349251  3649 net.cpp:131] Top shape: 1000 3 32 32 (3072000)
I0430 22:53:53.349258  3649 net.cpp:131] Top shape: 1000 (1000)
I0430 22:53:53.349261  3649 net.cpp:139] Memory required for data: 12292000
I0430 22:53:53.349269  3649 layer_factory.hpp:77] Creating layer label_cifar_1_split
I0430 22:53:53.349301  3649 net.cpp:86] Creating Layer label_cifar_1_split
I0430 22:53:53.349306  3649 net.cpp:408] label_cifar_1_split <- label
I0430 22:53:53.349328  3649 net.cpp:382] label_cifar_1_split -> label_cifar_1_split_0
I0430 22:53:53.349339  3649 net.cpp:382] label_cifar_1_split -> label_cifar_1_split_1
I0430 22:53:53.349416  3649 net.cpp:124] Setting up label_cifar_1_split
I0430 22:53:53.349423  3649 net.cpp:131] Top shape: 1000 (1000)
I0430 22:53:53.349427  3649 net.cpp:131] Top shape: 1000 (1000)
I0430 22:53:53.349431  3649 net.cpp:139] Memory required for data: 12300000
I0430 22:53:53.349433  3649 layer_factory.hpp:77] Creating layer conv0
I0430 22:53:53.349447  3649 net.cpp:86] Creating Layer conv0
I0430 22:53:53.349450  3649 net.cpp:408] conv0 <- data
I0430 22:53:53.349455  3649 net.cpp:382] conv0 -> conv0
I0430 22:53:53.351104  3649 net.cpp:124] Setting up conv0
I0430 22:53:53.351117  3649 net.cpp:131] Top shape: 1000 8 34 34 (9248000)
I0430 22:53:53.351121  3649 net.cpp:139] Memory required for data: 49292000
I0430 22:53:53.351131  3649 layer_factory.hpp:77] Creating layer Sigmoid0
I0430 22:53:53.351137  3649 net.cpp:86] Creating Layer Sigmoid0
I0430 22:53:53.351141  3649 net.cpp:408] Sigmoid0 <- conv0
I0430 22:53:53.351146  3649 net.cpp:382] Sigmoid0 -> Sigmoid0
I0430 22:53:53.351357  3649 net.cpp:124] Setting up Sigmoid0
I0430 22:53:53.351366  3649 net.cpp:131] Top shape: 1000 8 34 34 (9248000)
I0430 22:53:53.351371  3649 net.cpp:139] Memory required for data: 86284000
I0430 22:53:53.351374  3649 layer_factory.hpp:77] Creating layer pool0
I0430 22:53:53.351382  3649 net.cpp:86] Creating Layer pool0
I0430 22:53:53.351385  3649 net.cpp:408] pool0 <- Sigmoid0
I0430 22:53:53.351390  3649 net.cpp:382] pool0 -> pool0
I0430 22:53:53.351650  3649 net.cpp:124] Setting up pool0
I0430 22:53:53.351660  3649 net.cpp:131] Top shape: 1000 8 17 17 (2312000)
I0430 22:53:53.351663  3649 net.cpp:139] Memory required for data: 95532000
I0430 22:53:53.351666  3649 layer_factory.hpp:77] Creating layer ip1
I0430 22:53:53.351675  3649 net.cpp:86] Creating Layer ip1
I0430 22:53:53.351678  3649 net.cpp:408] ip1 <- pool0
I0430 22:53:53.351683  3649 net.cpp:382] ip1 -> ip1
I0430 22:53:53.353355  3649 net.cpp:124] Setting up ip1
I0430 22:53:53.353365  3649 net.cpp:131] Top shape: 1000 10 (10000)
I0430 22:53:53.353384  3649 net.cpp:139] Memory required for data: 95572000
I0430 22:53:53.353408  3649 layer_factory.hpp:77] Creating layer relu1
I0430 22:53:53.353415  3649 net.cpp:86] Creating Layer relu1
I0430 22:53:53.353418  3649 net.cpp:408] relu1 <- ip1
I0430 22:53:53.353423  3649 net.cpp:369] relu1 -> ip1 (in-place)
I0430 22:53:53.353615  3649 net.cpp:124] Setting up relu1
I0430 22:53:53.353641  3649 net.cpp:131] Top shape: 1000 10 (10000)
I0430 22:53:53.353643  3649 net.cpp:139] Memory required for data: 95612000
I0430 22:53:53.353648  3649 layer_factory.hpp:77] Creating layer ip2
I0430 22:53:53.353654  3649 net.cpp:86] Creating Layer ip2
I0430 22:53:53.353658  3649 net.cpp:408] ip2 <- ip1
I0430 22:53:53.353663  3649 net.cpp:382] ip2 -> ip2
I0430 22:53:53.353813  3649 net.cpp:124] Setting up ip2
I0430 22:53:53.353821  3649 net.cpp:131] Top shape: 1000 160 (160000)
I0430 22:53:53.353824  3649 net.cpp:139] Memory required for data: 96252000
I0430 22:53:53.353832  3649 layer_factory.hpp:77] Creating layer relu2
I0430 22:53:53.353838  3649 net.cpp:86] Creating Layer relu2
I0430 22:53:53.353842  3649 net.cpp:408] relu2 <- ip2
I0430 22:53:53.353847  3649 net.cpp:369] relu2 -> ip2 (in-place)
I0430 22:53:53.354622  3649 net.cpp:124] Setting up relu2
I0430 22:53:53.354635  3649 net.cpp:131] Top shape: 1000 160 (160000)
I0430 22:53:53.354655  3649 net.cpp:139] Memory required for data: 96892000
I0430 22:53:53.354658  3649 layer_factory.hpp:77] Creating layer ip3
I0430 22:53:53.354665  3649 net.cpp:86] Creating Layer ip3
I0430 22:53:53.354671  3649 net.cpp:408] ip3 <- ip2
I0430 22:53:53.354676  3649 net.cpp:382] ip3 -> ip3
I0430 22:53:53.355203  3649 net.cpp:124] Setting up ip3
I0430 22:53:53.355211  3649 net.cpp:131] Top shape: 1000 80 (80000)
I0430 22:53:53.355214  3649 net.cpp:139] Memory required for data: 97212000
I0430 22:53:53.355219  3649 layer_factory.hpp:77] Creating layer relu3
I0430 22:53:53.355224  3649 net.cpp:86] Creating Layer relu3
I0430 22:53:53.355227  3649 net.cpp:408] relu3 <- ip3
I0430 22:53:53.355232  3649 net.cpp:369] relu3 -> ip3 (in-place)
I0430 22:53:53.355396  3649 net.cpp:124] Setting up relu3
I0430 22:53:53.355406  3649 net.cpp:131] Top shape: 1000 80 (80000)
I0430 22:53:53.355408  3649 net.cpp:139] Memory required for data: 97532000
I0430 22:53:53.355412  3649 layer_factory.hpp:77] Creating layer ip4
I0430 22:53:53.355418  3649 net.cpp:86] Creating Layer ip4
I0430 22:53:53.355422  3649 net.cpp:408] ip4 <- ip3
I0430 22:53:53.355427  3649 net.cpp:382] ip4 -> ip4
I0430 22:53:53.355564  3649 net.cpp:124] Setting up ip4
I0430 22:53:53.355571  3649 net.cpp:131] Top shape: 1000 10 (10000)
I0430 22:53:53.355574  3649 net.cpp:139] Memory required for data: 97572000
I0430 22:53:53.355583  3649 layer_factory.hpp:77] Creating layer ip4_ip4_0_split
I0430 22:53:53.355589  3649 net.cpp:86] Creating Layer ip4_ip4_0_split
I0430 22:53:53.355592  3649 net.cpp:408] ip4_ip4_0_split <- ip4
I0430 22:53:53.355597  3649 net.cpp:382] ip4_ip4_0_split -> ip4_ip4_0_split_0
I0430 22:53:53.355602  3649 net.cpp:382] ip4_ip4_0_split -> ip4_ip4_0_split_1
I0430 22:53:53.355633  3649 net.cpp:124] Setting up ip4_ip4_0_split
I0430 22:53:53.355638  3649 net.cpp:131] Top shape: 1000 10 (10000)
I0430 22:53:53.355641  3649 net.cpp:131] Top shape: 1000 10 (10000)
I0430 22:53:53.355644  3649 net.cpp:139] Memory required for data: 97652000
I0430 22:53:53.355648  3649 layer_factory.hpp:77] Creating layer accuracy
I0430 22:53:53.355654  3649 net.cpp:86] Creating Layer accuracy
I0430 22:53:53.355657  3649 net.cpp:408] accuracy <- ip4_ip4_0_split_0
I0430 22:53:53.355661  3649 net.cpp:408] accuracy <- label_cifar_1_split_0
I0430 22:53:53.355666  3649 net.cpp:382] accuracy -> accuracy
…
