…
I0430 18:28:15.784992 23415 net.cpp:296] The NetState phase (0) differed from the phase (1) specified by a rule in layer cifar
I0430 18:28:15.785022 23415 net.cpp:296] The NetState phase (0) differed from the phase (1) specified by a rule in layer accuracy
I0430 18:28:15.785094 23415 net.cpp:53] Initializing net from parameters: 
name: "CIFAR"
state {
  phase: TRAIN
  level: 0
  stage: ""
}
layer {
  name: "cifar"
  type: "Data"
  top: "data"
  top: "label"
  include {
    phase: TRAIN
  }
  transform_param {
    mean_file: "examples/cifar10/mean.binaryproto"
  }
  data_param {
    source: "examples/cifar10/cifar10_train_lmdb"
    batch_size: 111
    backend: LMDB
  }
}
layer {
  name: "ip1"
  type: "InnerProduct"
  bottom: "data"
  top: "ip1"
  param {
    lr_mult: 1
  }
  param {
    lr_mult: 2
  }
  inner_product_param {
    num_output: 20
    weight_filler {
      type: "gaussian"
      std: 0.01
    }
    bias_filler {
      type: "constant"
    }
  }
}
layer {
  name: "relu1"
  type: "ReLU"
  bottom: "ip1"
  top: "ip1"
}
layer {
  name: "ip2"
  type: "InnerProduct"
  bottom: "ip1"
  top: "ip2"
  param {
    lr_mult: 1
  }
  param {
    lr_mult: 2
  }
  inner_product_param {
    num_output: 40
    weight_filler {
      type: "gaussian"
      std: 0.01
    }
    bias_filler {
      type: "constant"
    }
  }
}
layer {
  name: "relu2"
  type: "ReLU"
  bottom: "ip2"
  top: "ip2"
}
layer {
  name: "ip3"
  type: "InnerProduct"
  bottom: "ip2"
  top: "ip3"
  param {
    lr_mult: 1
  }
  param {
    lr_mult: 2
  }
  inner_product_param {
    num_output: 40
    weight_filler {
      type: "gaussian"
      std: 0.01
    }
    bias_filler {
      type: "constant"
    }
  }
}
layer {
  name: "relu3"
  type: "ReLU"
  bottom: "ip3"
  top: "ip3"
}
layer {
  name: "ip4"
  type: "InnerProduct"
  bottom: "ip3"
  top: "ip4"
  param {
    lr_mult: 1
  }
  param {
    lr_mult: 2
  }
  inner_product_param {
    num_output: 10
    weight_filler {
      type: "gaussian"
      std: 0.01
    }
    bias_filler {
      type: "constant"
    }
  }
}
layer {
  name: "loss"
  type: "SoftmaxWithLoss"
  bottom: "ip4"
  bottom: "label"
  top: "loss"
}
I0430 18:28:15.785168 23415 layer_factory.hpp:77] Creating layer cifar
I0430 18:28:15.785264 23415 db_lmdb.cpp:35] Opened lmdb examples/cifar10/cifar10_train_lmdb
I0430 18:28:15.785285 23415 net.cpp:86] Creating Layer cifar
I0430 18:28:15.785292 23415 net.cpp:382] cifar -> data
I0430 18:28:15.785311 23415 net.cpp:382] cifar -> label
I0430 18:28:15.785321 23415 data_transformer.cpp:25] Loading mean file from: examples/cifar10/mean.binaryproto
I0430 18:28:15.787077 23415 data_layer.cpp:45] output data size: 111,3,32,32
I0430 18:28:15.793717 23415 net.cpp:124] Setting up cifar
I0430 18:28:15.793763 23415 net.cpp:131] Top shape: 111 3 32 32 (340992)
I0430 18:28:15.793771 23415 net.cpp:131] Top shape: 111 (111)
I0430 18:28:15.793773 23415 net.cpp:139] Memory required for data: 1364412
I0430 18:28:15.793779 23415 layer_factory.hpp:77] Creating layer ip1
I0430 18:28:15.793788 23415 net.cpp:86] Creating Layer ip1
I0430 18:28:15.793792 23415 net.cpp:408] ip1 <- data
I0430 18:28:15.793802 23415 net.cpp:382] ip1 -> ip1
I0430 18:28:15.796627 23415 net.cpp:124] Setting up ip1
I0430 18:28:15.796658 23415 net.cpp:131] Top shape: 111 20 (2220)
I0430 18:28:15.796660 23415 net.cpp:139] Memory required for data: 1373292
I0430 18:28:15.796672 23415 layer_factory.hpp:77] Creating layer relu1
I0430 18:28:15.796679 23415 net.cpp:86] Creating Layer relu1
I0430 18:28:15.796712 23415 net.cpp:408] relu1 <- ip1
I0430 18:28:15.796717 23415 net.cpp:369] relu1 -> ip1 (in-place)
I0430 18:28:16.022850 23415 net.cpp:124] Setting up relu1
I0430 18:28:16.022878 23415 net.cpp:131] Top shape: 111 20 (2220)
I0430 18:28:16.022882 23415 net.cpp:139] Memory required for data: 1382172
I0430 18:28:16.022887 23415 layer_factory.hpp:77] Creating layer ip2
I0430 18:28:16.022900 23415 net.cpp:86] Creating Layer ip2
I0430 18:28:16.022904 23415 net.cpp:408] ip2 <- ip1
I0430 18:28:16.022912 23415 net.cpp:382] ip2 -> ip2
I0430 18:28:16.023923 23415 net.cpp:124] Setting up ip2
I0430 18:28:16.023936 23415 net.cpp:131] Top shape: 111 40 (4440)
I0430 18:28:16.023938 23415 net.cpp:139] Memory required for data: 1399932
I0430 18:28:16.023948 23415 layer_factory.hpp:77] Creating layer relu2
I0430 18:28:16.023955 23415 net.cpp:86] Creating Layer relu2
I0430 18:28:16.023958 23415 net.cpp:408] relu2 <- ip2
I0430 18:28:16.023962 23415 net.cpp:369] relu2 -> ip2 (in-place)
I0430 18:28:16.024698 23415 net.cpp:124] Setting up relu2
I0430 18:28:16.024709 23415 net.cpp:131] Top shape: 111 40 (4440)
I0430 18:28:16.024713 23415 net.cpp:139] Memory required for data: 1417692
I0430 18:28:16.024715 23415 layer_factory.hpp:77] Creating layer ip3
I0430 18:28:16.024722 23415 net.cpp:86] Creating Layer ip3
I0430 18:28:16.024725 23415 net.cpp:408] ip3 <- ip2
I0430 18:28:16.024729 23415 net.cpp:382] ip3 -> ip3
I0430 18:28:16.024897 23415 net.cpp:124] Setting up ip3
I0430 18:28:16.024906 23415 net.cpp:131] Top shape: 111 40 (4440)
I0430 18:28:16.024909 23415 net.cpp:139] Memory required for data: 1435452
I0430 18:28:16.024917 23415 layer_factory.hpp:77] Creating layer relu3
I0430 18:28:16.024922 23415 net.cpp:86] Creating Layer relu3
I0430 18:28:16.024925 23415 net.cpp:408] relu3 <- ip3
I0430 18:28:16.024930 23415 net.cpp:369] relu3 -> ip3 (in-place)
I0430 18:28:16.025070 23415 net.cpp:124] Setting up relu3
I0430 18:28:16.025079 23415 net.cpp:131] Top shape: 111 40 (4440)
I0430 18:28:16.025082 23415 net.cpp:139] Memory required for data: 1453212
I0430 18:28:16.025085 23415 layer_factory.hpp:77] Creating layer ip4
I0430 18:28:16.025090 23415 net.cpp:86] Creating Layer ip4
I0430 18:28:16.025094 23415 net.cpp:408] ip4 <- ip3
I0430 18:28:16.025099 23415 net.cpp:382] ip4 -> ip4
I0430 18:28:16.025209 23415 net.cpp:124] Setting up ip4
I0430 18:28:16.025216 23415 net.cpp:131] Top shape: 111 10 (1110)
I0430 18:28:16.025219 23415 net.cpp:139] Memory required for data: 1457652
I0430 18:28:16.025224 23415 layer_factory.hpp:77] Creating layer loss
I0430 18:28:16.025231 23415 net.cpp:86] Creating Layer loss
I0430 18:28:16.025234 23415 net.cpp:408] loss <- ip4
I0430 18:28:16.025238 23415 net.cpp:408] loss <- label
I0430 18:28:16.025243 23415 net.cpp:382] loss -> loss
I0430 18:28:16.025260 23415 layer_factory.hpp:77] Creating layer loss
…
I0430 18:28:16.025820 23415 solver.cpp:173] Creating test net (#0) specified by net file: ECE595/cifar/train_test/var_everything/cifar_train_test_67.prototxt
I0430 18:28:16.025856 23415 net.cpp:296] The NetState phase (1) differed from the phase (0) specified by a rule in layer cifar
I0430 18:28:16.025929 23415 net.cpp:53] Initializing net from parameters: 
name: "CIFAR"
state {
  phase: TEST
}
layer {
  name: "cifar"
  type: "Data"
  top: "data"
  top: "label"
  include {
    phase: TEST
  }
  transform_param {
    mean_file: "examples/cifar10/mean.binaryproto"
  }
  data_param {
    source: "examples/cifar10/cifar10_test_lmdb"
    batch_size: 1000
    backend: LMDB
  }
}
layer {
  name: "ip1"
  type: "InnerProduct"
  bottom: "data"
  top: "ip1"
  param {
    lr_mult: 1
  }
  param {
    lr_mult: 2
  }
  inner_product_param {
    num_output: 20
    weight_filler {
      type: "gaussian"
      std: 0.01
    }
    bias_filler {
      type: "constant"
    }
  }
}
layer {
  name: "relu1"
  type: "ReLU"
  bottom: "ip1"
  top: "ip1"
}
layer {
  name: "ip2"
  type: "InnerProduct"
  bottom: "ip1"
  top: "ip2"
  param {
    lr_mult: 1
  }
  param {
    lr_mult: 2
  }
  inner_product_param {
    num_output: 40
    weight_filler {
      type: "gaussian"
      std: 0.01
    }
    bias_filler {
      type: "constant"
    }
  }
}
layer {
  name: "relu2"
  type: "ReLU"
  bottom: "ip2"
  top: "ip2"
}
layer {
  name: "ip3"
  type: "InnerProduct"
  bottom: "ip2"
  top: "ip3"
  param {
    lr_mult: 1
  }
  param {
    lr_mult: 2
  }
  inner_product_param {
    num_output: 40
    weight_filler {
      type: "gaussian"
      std: 0.01
    }
    bias_filler {
      type: "constant"
    }
  }
}
layer {
  name: "relu3"
  type: "ReLU"
  bottom: "ip3"
  top: "ip3"
}
layer {
  name: "ip4"
  type: "InnerProduct"
  bottom: "ip3"
  top: "ip4"
  param {
    lr_mult: 1
  }
  param {
    lr_mult: 2
  }
  inner_product_param {
    num_output: 10
    weight_filler {
      type: "gaussian"
      std: 0.01
    }
    bias_filler {
      type: "constant"
    }
  }
}
layer {
  name: "accuracy"
  type: "Accuracy"
  bottom: "ip4"
  bottom: "label"
  top: "accuracy"
  include {
    phase: TEST
  }
}
layer {
  name: "loss"
  type: "SoftmaxWithLoss"
  bottom: "ip4"
  bottom: "label"
  top: "loss"
}
I0430 18:28:16.025985 23415 layer_factory.hpp:77] Creating layer cifar
I0430 18:28:16.026027 23415 db_lmdb.cpp:35] Opened lmdb examples/cifar10/cifar10_test_lmdb
I0430 18:28:16.026041 23415 net.cpp:86] Creating Layer cifar
I0430 18:28:16.026044 23415 net.cpp:382] cifar -> data
I0430 18:28:16.026052 23415 net.cpp:382] cifar -> label
I0430 18:28:16.026059 23415 data_transformer.cpp:25] Loading mean file from: examples/cifar10/mean.binaryproto
I0430 18:28:16.026201 23415 data_layer.cpp:45] output data size: 1000,3,32,32
I0430 18:28:16.048171 23415 net.cpp:124] Setting up cifar
I0430 18:28:16.048199 23415 net.cpp:131] Top shape: 1000 3 32 32 (3072000)
I0430 18:28:16.048239 23415 net.cpp:131] Top shape: 1000 (1000)
I0430 18:28:16.048244 23415 net.cpp:139] Memory required for data: 12292000
I0430 18:28:16.048250 23415 layer_factory.hpp:77] Creating layer label_cifar_1_split
I0430 18:28:16.048267 23415 net.cpp:86] Creating Layer label_cifar_1_split
I0430 18:28:16.048277 23415 net.cpp:408] label_cifar_1_split <- label
I0430 18:28:16.048283 23415 net.cpp:382] label_cifar_1_split -> label_cifar_1_split_0
I0430 18:28:16.048291 23415 net.cpp:382] label_cifar_1_split -> label_cifar_1_split_1
I0430 18:28:16.048365 23415 net.cpp:124] Setting up label_cifar_1_split
I0430 18:28:16.048388 23415 net.cpp:131] Top shape: 1000 (1000)
I0430 18:28:16.048393 23415 net.cpp:131] Top shape: 1000 (1000)
I0430 18:28:16.048395 23415 net.cpp:139] Memory required for data: 12300000
I0430 18:28:16.048398 23415 layer_factory.hpp:77] Creating layer ip1
I0430 18:28:16.048408 23415 net.cpp:86] Creating Layer ip1
I0430 18:28:16.048410 23415 net.cpp:408] ip1 <- data
I0430 18:28:16.048416 23415 net.cpp:382] ip1 -> ip1
I0430 18:28:16.051033 23415 net.cpp:124] Setting up ip1
I0430 18:28:16.051043 23415 net.cpp:131] Top shape: 1000 20 (20000)
I0430 18:28:16.051061 23415 net.cpp:139] Memory required for data: 12380000
I0430 18:28:16.051085 23415 layer_factory.hpp:77] Creating layer relu1
I0430 18:28:16.051091 23415 net.cpp:86] Creating Layer relu1
I0430 18:28:16.051095 23415 net.cpp:408] relu1 <- ip1
I0430 18:28:16.051101 23415 net.cpp:369] relu1 -> ip1 (in-place)
I0430 18:28:16.051899 23415 net.cpp:124] Setting up relu1
I0430 18:28:16.051913 23415 net.cpp:131] Top shape: 1000 20 (20000)
I0430 18:28:16.051934 23415 net.cpp:139] Memory required for data: 12460000
I0430 18:28:16.051937 23415 layer_factory.hpp:77] Creating layer ip2
I0430 18:28:16.051946 23415 net.cpp:86] Creating Layer ip2
I0430 18:28:16.051950 23415 net.cpp:408] ip2 <- ip1
I0430 18:28:16.051956 23415 net.cpp:382] ip2 -> ip2
I0430 18:28:16.052124 23415 net.cpp:124] Setting up ip2
I0430 18:28:16.052132 23415 net.cpp:131] Top shape: 1000 40 (40000)
I0430 18:28:16.052135 23415 net.cpp:139] Memory required for data: 12620000
I0430 18:28:16.052144 23415 layer_factory.hpp:77] Creating layer relu2
I0430 18:28:16.052147 23415 net.cpp:86] Creating Layer relu2
I0430 18:28:16.052150 23415 net.cpp:408] relu2 <- ip2
I0430 18:28:16.052156 23415 net.cpp:369] relu2 -> ip2 (in-place)
I0430 18:28:16.052330 23415 net.cpp:124] Setting up relu2
I0430 18:28:16.052338 23415 net.cpp:131] Top shape: 1000 40 (40000)
I0430 18:28:16.052342 23415 net.cpp:139] Memory required for data: 12780000
I0430 18:28:16.052345 23415 layer_factory.hpp:77] Creating layer ip3
I0430 18:28:16.052353 23415 net.cpp:86] Creating Layer ip3
I0430 18:28:16.052356 23415 net.cpp:408] ip3 <- ip2
I0430 18:28:16.052361 23415 net.cpp:382] ip3 -> ip3
I0430 18:28:16.052505 23415 net.cpp:124] Setting up ip3
I0430 18:28:16.052512 23415 net.cpp:131] Top shape: 1000 40 (40000)
I0430 18:28:16.052515 23415 net.cpp:139] Memory required for data: 12940000
I0430 18:28:16.052523 23415 layer_factory.hpp:77] Creating layer relu3
I0430 18:28:16.052528 23415 net.cpp:86] Creating Layer relu3
I0430 18:28:16.052546 23415 net.cpp:408] relu3 <- ip3
I0430 18:28:16.052552 23415 net.cpp:369] relu3 -> ip3 (in-place)
I0430 18:28:16.052705 23415 net.cpp:124] Setting up relu3
I0430 18:28:16.052713 23415 net.cpp:131] Top shape: 1000 40 (40000)
I0430 18:28:16.052716 23415 net.cpp:139] Memory required for data: 13100000
I0430 18:28:16.052719 23415 layer_factory.hpp:77] Creating layer ip4
I0430 18:28:16.052727 23415 net.cpp:86] Creating Layer ip4
I0430 18:28:16.052731 23415 net.cpp:408] ip4 <- ip3
I0430 18:28:16.052736 23415 net.cpp:382] ip4 -> ip4
I0430 18:28:16.052896 23415 net.cpp:124] Setting up ip4
I0430 18:28:16.052904 23415 net.cpp:131] Top shape: 1000 10 (10000)
I0430 18:28:16.052907 23415 net.cpp:139] Memory required for data: 13140000
I0430 18:28:16.052912 23415 layer_factory.hpp:77] Creating layer ip4_ip4_0_split
I0430 18:28:16.052919 23415 net.cpp:86] Creating Layer ip4_ip4_0_split
I0430 18:28:16.052923 23415 net.cpp:408] ip4_ip4_0_split <- ip4
I0430 18:28:16.052927 23415 net.cpp:382] ip4_ip4_0_split -> ip4_ip4_0_split_0
I0430 18:28:16.052933 23415 net.cpp:382] ip4_ip4_0_split -> ip4_ip4_0_split_1
I0430 18:28:16.052968 23415 net.cpp:124] Setting up ip4_ip4_0_split
I0430 18:28:16.052974 23415 net.cpp:131] Top shape: 1000 10 (10000)
I0430 18:28:16.052978 23415 net.cpp:131] Top shape: 1000 10 (10000)
I0430 18:28:16.052981 23415 net.cpp:139] Memory required for data: 13220000
I0430 18:28:16.052984 23415 layer_factory.hpp:77] Creating layer accuracy
I0430 18:28:16.052994 23415 net.cpp:86] Creating Layer accuracy
I0430 18:28:16.052997 23415 net.cpp:408] accuracy <- ip4_ip4_0_split_0
I0430 18:28:16.053001 23415 net.cpp:408] accuracy <- label_cifar_1_split_0
I0430 18:28:16.053007 23415 net.cpp:382] accuracy -> accuracy
…
