…
I0430 23:05:14.408231  4186 net.cpp:296] The NetState phase (0) differed from the phase (1) specified by a rule in layer cifar
I0430 23:05:14.408249  4186 net.cpp:296] The NetState phase (0) differed from the phase (1) specified by a rule in layer accuracy
I0430 23:05:14.408370  4186 net.cpp:53] Initializing net from parameters: 
name: "CIFAR"
state {
  phase: TRAIN
  level: 0
  stage: ""
}
layer {
  name: "cifar"
  type: "Data"
  top: "data"
  top: "label"
  include {
    phase: TRAIN
  }
  transform_param {
    mean_file: "examples/cifar10/mean.binaryproto"
  }
  data_param {
    source: "examples/cifar10/cifar10_train_lmdb"
    batch_size: 111
    backend: LMDB
  }
}
layer {
  name: "conv0"
  type: "Convolution"
  bottom: "data"
  top: "conv0"
  param {
    lr_mult: 1
  }
  param {
    lr_mult: 2
  }
  convolution_param {
    num_output: 8
    pad: 2
    kernel_size: 3
    stride: 1
    weight_filler {
      type: "gaussian"
      std: 0.01
    }
    bias_filler {
      type: "constant"
    }
  }
}
layer {
  name: "Sigmoid0"
  type: "Sigmoid"
  bottom: "conv0"
  top: "Sigmoid0"
}
layer {
  name: "pool0"
  type: "Pooling"
  bottom: "Sigmoid0"
  top: "pool0"
  pooling_param {
    pool: AVE
    kernel_size: 3
    stride: 2
  }
}
layer {
  name: "ip1"
  type: "InnerProduct"
  bottom: "pool0"
  top: "ip1"
  param {
    lr_mult: 1
  }
  param {
    lr_mult: 2
  }
  inner_product_param {
    num_output: 20
    weight_filler {
      type: "gaussian"
      std: 0.01
    }
    bias_filler {
      type: "constant"
    }
  }
}
layer {
  name: "relu1"
  type: "ReLU"
  bottom: "ip1"
  top: "ip1"
}
layer {
  name: "ip2"
  type: "InnerProduct"
  bottom: "ip1"
  top: "ip2"
  param {
    lr_mult: 1
  }
  param {
    lr_mult: 2
  }
  inner_product_param {
    num_output: 10
    weight_filler {
      type: "gaussian"
      std: 0.01
    }
    bias_filler {
      type: "constant"
    }
  }
}
layer {
  name: "relu2"
  type: "ReLU"
  bottom: "ip2"
  top: "ip2"
}
layer {
  name: "ip3"
  type: "InnerProduct"
  bottom: "ip2"
  top: "ip3"
  param {
    lr_mult: 1
  }
  param {
    lr_mult: 2
  }
  inner_product_param {
    num_output: 160
    weight_filler {
      type: "gaussian"
      std: 0.01
    }
    bias_filler {
      type: "constant"
    }
  }
}
layer {
  name: "relu3"
  type: "ReLU"
  bottom: "ip3"
  top: "ip3"
}
layer {
  name: "ip4"
  type: "InnerProduct"
  bottom: "ip3"
  top: "ip4"
  param {
    lr_mult: 1
  }
  param {
    lr_mult: 2
  }
  inner_product_param {
    num_output: 10
    weight_filler {
      type: "gaussian"
      std: 0.01
    }
    bias_filler {
      type: "constant"
    }
  }
}
layer {
  name: "loss"
  type: "SoftmaxWithLoss"
  bottom: "ip4"
  bottom: "label"
  top: "loss"
}
I0430 23:05:14.408470  4186 layer_factory.hpp:77] Creating layer cifar
I0430 23:05:14.408601  4186 db_lmdb.cpp:35] Opened lmdb examples/cifar10/cifar10_train_lmdb
I0430 23:05:14.408638  4186 net.cpp:86] Creating Layer cifar
I0430 23:05:14.408650  4186 net.cpp:382] cifar -> data
I0430 23:05:14.408681  4186 net.cpp:382] cifar -> label
I0430 23:05:14.408697  4186 data_transformer.cpp:25] Loading mean file from: examples/cifar10/mean.binaryproto
I0430 23:05:14.411058  4186 data_layer.cpp:45] output data size: 111,3,32,32
I0430 23:05:14.418987  4186 net.cpp:124] Setting up cifar
I0430 23:05:14.419005  4186 net.cpp:131] Top shape: 111 3 32 32 (340992)
I0430 23:05:14.419013  4186 net.cpp:131] Top shape: 111 (111)
I0430 23:05:14.419015  4186 net.cpp:139] Memory required for data: 1364412
I0430 23:05:14.419039  4186 layer_factory.hpp:77] Creating layer conv0
I0430 23:05:14.419059  4186 net.cpp:86] Creating Layer conv0
I0430 23:05:14.419068  4186 net.cpp:408] conv0 <- data
I0430 23:05:14.419085  4186 net.cpp:382] conv0 -> conv0
I0430 23:05:14.711511  4186 net.cpp:124] Setting up conv0
I0430 23:05:14.711544  4186 net.cpp:131] Top shape: 111 8 34 34 (1026528)
I0430 23:05:14.711549  4186 net.cpp:139] Memory required for data: 5470524
I0430 23:05:14.711565  4186 layer_factory.hpp:77] Creating layer Sigmoid0
I0430 23:05:14.711580  4186 net.cpp:86] Creating Layer Sigmoid0
I0430 23:05:14.711585  4186 net.cpp:408] Sigmoid0 <- conv0
I0430 23:05:14.711591  4186 net.cpp:382] Sigmoid0 -> Sigmoid0
I0430 23:05:14.711834  4186 net.cpp:124] Setting up Sigmoid0
I0430 23:05:14.711848  4186 net.cpp:131] Top shape: 111 8 34 34 (1026528)
I0430 23:05:14.711851  4186 net.cpp:139] Memory required for data: 9576636
I0430 23:05:14.711858  4186 layer_factory.hpp:77] Creating layer pool0
I0430 23:05:14.711869  4186 net.cpp:86] Creating Layer pool0
I0430 23:05:14.711875  4186 net.cpp:408] pool0 <- Sigmoid0
I0430 23:05:14.711885  4186 net.cpp:382] pool0 -> pool0
I0430 23:05:14.712780  4186 net.cpp:124] Setting up pool0
I0430 23:05:14.712796  4186 net.cpp:131] Top shape: 111 8 17 17 (256632)
I0430 23:05:14.712802  4186 net.cpp:139] Memory required for data: 10603164
I0430 23:05:14.712806  4186 layer_factory.hpp:77] Creating layer ip1
I0430 23:05:14.712828  4186 net.cpp:86] Creating Layer ip1
I0430 23:05:14.712836  4186 net.cpp:408] ip1 <- pool0
I0430 23:05:14.712846  4186 net.cpp:382] ip1 -> ip1
I0430 23:05:14.715498  4186 net.cpp:124] Setting up ip1
I0430 23:05:14.715514  4186 net.cpp:131] Top shape: 111 20 (2220)
I0430 23:05:14.715518  4186 net.cpp:139] Memory required for data: 10612044
I0430 23:05:14.715528  4186 layer_factory.hpp:77] Creating layer relu1
I0430 23:05:14.715536  4186 net.cpp:86] Creating Layer relu1
I0430 23:05:14.715540  4186 net.cpp:408] relu1 <- ip1
I0430 23:05:14.715545  4186 net.cpp:369] relu1 -> ip1 (in-place)
I0430 23:05:14.715759  4186 net.cpp:124] Setting up relu1
I0430 23:05:14.715771  4186 net.cpp:131] Top shape: 111 20 (2220)
I0430 23:05:14.715775  4186 net.cpp:139] Memory required for data: 10620924
I0430 23:05:14.715780  4186 layer_factory.hpp:77] Creating layer ip2
I0430 23:05:14.715792  4186 net.cpp:86] Creating Layer ip2
I0430 23:05:14.715798  4186 net.cpp:408] ip2 <- ip1
I0430 23:05:14.715808  4186 net.cpp:382] ip2 -> ip2
I0430 23:05:14.715940  4186 net.cpp:124] Setting up ip2
I0430 23:05:14.715950  4186 net.cpp:131] Top shape: 111 10 (1110)
I0430 23:05:14.715953  4186 net.cpp:139] Memory required for data: 10625364
I0430 23:05:14.715966  4186 layer_factory.hpp:77] Creating layer relu2
I0430 23:05:14.715975  4186 net.cpp:86] Creating Layer relu2
I0430 23:05:14.715982  4186 net.cpp:408] relu2 <- ip2
I0430 23:05:14.715991  4186 net.cpp:369] relu2 -> ip2 (in-place)
I0430 23:05:14.716187  4186 net.cpp:124] Setting up relu2
I0430 23:05:14.716197  4186 net.cpp:131] Top shape: 111 10 (1110)
I0430 23:05:14.716202  4186 net.cpp:139] Memory required for data: 10629804
I0430 23:05:14.716207  4186 layer_factory.hpp:77] Creating layer ip3
I0430 23:05:14.716220  4186 net.cpp:86] Creating Layer ip3
I0430 23:05:14.716226  4186 net.cpp:408] ip3 <- ip2
I0430 23:05:14.716236  4186 net.cpp:382] ip3 -> ip3
I0430 23:05:14.716415  4186 net.cpp:124] Setting up ip3
I0430 23:05:14.716424  4186 net.cpp:131] Top shape: 111 160 (17760)
I0430 23:05:14.716428  4186 net.cpp:139] Memory required for data: 10700844
I0430 23:05:14.716439  4186 layer_factory.hpp:77] Creating layer relu3
I0430 23:05:14.716447  4186 net.cpp:86] Creating Layer relu3
I0430 23:05:14.716455  4186 net.cpp:408] relu3 <- ip3
I0430 23:05:14.716464  4186 net.cpp:369] relu3 -> ip3 (in-place)
I0430 23:05:14.716655  4186 net.cpp:124] Setting up relu3
I0430 23:05:14.716665  4186 net.cpp:131] Top shape: 111 160 (17760)
I0430 23:05:14.716670  4186 net.cpp:139] Memory required for data: 10771884
I0430 23:05:14.716675  4186 layer_factory.hpp:77] Creating layer ip4
I0430 23:05:14.716707  4186 net.cpp:86] Creating Layer ip4
I0430 23:05:14.716716  4186 net.cpp:408] ip4 <- ip3
I0430 23:05:14.716724  4186 net.cpp:382] ip4 -> ip4
I0430 23:05:14.716922  4186 net.cpp:124] Setting up ip4
I0430 23:05:14.716934  4186 net.cpp:131] Top shape: 111 10 (1110)
I0430 23:05:14.716938  4186 net.cpp:139] Memory required for data: 10776324
I0430 23:05:14.716953  4186 layer_factory.hpp:77] Creating layer loss
I0430 23:05:14.716964  4186 net.cpp:86] Creating Layer loss
I0430 23:05:14.716969  4186 net.cpp:408] loss <- ip4
I0430 23:05:14.716977  4186 net.cpp:408] loss <- label
I0430 23:05:14.716987  4186 net.cpp:382] loss -> loss
I0430 23:05:14.717015  4186 layer_factory.hpp:77] Creating layer loss
…
I0430 23:05:14.718544  4186 solver.cpp:173] Creating test net (#0) specified by net file: ECE595/cifar/train_test/var_everything/cifar_train_test_214.prototxt
I0430 23:05:14.718590  4186 net.cpp:296] The NetState phase (1) differed from the phase (0) specified by a rule in layer cifar
I0430 23:05:14.718715  4186 net.cpp:53] Initializing net from parameters: 
name: "CIFAR"
state {
  phase: TEST
}
layer {
  name: "cifar"
  type: "Data"
  top: "data"
  top: "label"
  include {
    phase: TEST
  }
  transform_param {
    mean_file: "examples/cifar10/mean.binaryproto"
  }
  data_param {
    source: "examples/cifar10/cifar10_test_lmdb"
    batch_size: 1000
    backend: LMDB
  }
}
layer {
  name: "conv0"
  type: "Convolution"
  bottom: "data"
  top: "conv0"
  param {
    lr_mult: 1
  }
  param {
    lr_mult: 2
  }
  convolution_param {
    num_output: 8
    pad: 2
    kernel_size: 3
    stride: 1
    weight_filler {
      type: "gaussian"
      std: 0.01
    }
    bias_filler {
      type: "constant"
    }
  }
}
layer {
  name: "Sigmoid0"
  type: "Sigmoid"
  bottom: "conv0"
  top: "Sigmoid0"
}
layer {
  name: "pool0"
  type: "Pooling"
  bottom: "Sigmoid0"
  top: "pool0"
  pooling_param {
    pool: AVE
    kernel_size: 3
    stride: 2
  }
}
layer {
  name: "ip1"
  type: "InnerProduct"
  bottom: "pool0"
  top: "ip1"
  param {
    lr_mult: 1
  }
  param {
    lr_mult: 2
  }
  inner_product_param {
    num_output: 20
    weight_filler {
      type: "gaussian"
      std: 0.01
    }
    bias_filler {
      type: "constant"
    }
  }
}
layer {
  name: "relu1"
  type: "ReLU"
  bottom: "ip1"
  top: "ip1"
}
layer {
  name: "ip2"
  type: "InnerProduct"
  bottom: "ip1"
  top: "ip2"
  param {
    lr_mult: 1
  }
  param {
    lr_mult: 2
  }
  inner_product_param {
    num_output: 10
    weight_filler {
      type: "gaussian"
      std: 0.01
    }
    bias_filler {
      type: "constant"
    }
  }
}
layer {
  name: "relu2"
  type: "ReLU"
  bottom: "ip2"
  top: "ip2"
}
layer {
  name: "ip3"
  type: "InnerProduct"
  bottom: "ip2"
  top: "ip3"
  param {
    lr_mult: 1
  }
  param {
    lr_mult: 2
  }
  inner_product_param {
    num_output: 160
    weight_filler {
      type: "gaussian"
      std: 0.01
    }
    bias_filler {
      type: "constant"
    }
  }
}
layer {
  name: "relu3"
  type: "ReLU"
  bottom: "ip3"
  top: "ip3"
}
layer {
  name: "ip4"
  type: "InnerProduct"
  bottom: "ip3"
  top: "ip4"
  param {
    lr_mult: 1
  }
  param {
    lr_mult: 2
  }
  inner_product_param {
    num_output: 10
    weight_filler {
      type: "gaussian"
      std: 0.01
    }
    bias_filler {
      type: "constant"
    }
  }
}
layer {
  name: "accuracy"
  type: "Accuracy"
  bottom: "ip4"
  bottom: "label"
  top: "accuracy"
  include {
    phase: TEST
  }
}
layer {
  name: "loss"
  type: "SoftmaxWithLoss"
  bottom: "ip4"
  bottom: "label"
  top: "loss"
}
I0430 23:05:14.718855  4186 layer_factory.hpp:77] Creating layer cifar
I0430 23:05:14.718925  4186 db_lmdb.cpp:35] Opened lmdb examples/cifar10/cifar10_test_lmdb
I0430 23:05:14.718945  4186 net.cpp:86] Creating Layer cifar
I0430 23:05:14.718955  4186 net.cpp:382] cifar -> data
I0430 23:05:14.718969  4186 net.cpp:382] cifar -> label
I0430 23:05:14.718981  4186 data_transformer.cpp:25] Loading mean file from: examples/cifar10/mean.binaryproto
I0430 23:05:14.719238  4186 data_layer.cpp:45] output data size: 1000,3,32,32
I0430 23:05:14.745789  4186 net.cpp:124] Setting up cifar
I0430 23:05:14.745817  4186 net.cpp:131] Top shape: 1000 3 32 32 (3072000)
I0430 23:05:14.745824  4186 net.cpp:131] Top shape: 1000 (1000)
I0430 23:05:14.745827  4186 net.cpp:139] Memory required for data: 12292000
I0430 23:05:14.745833  4186 layer_factory.hpp:77] Creating layer label_cifar_1_split
I0430 23:05:14.745852  4186 net.cpp:86] Creating Layer label_cifar_1_split
I0430 23:05:14.745857  4186 net.cpp:408] label_cifar_1_split <- label
I0430 23:05:14.745864  4186 net.cpp:382] label_cifar_1_split -> label_cifar_1_split_0
I0430 23:05:14.745875  4186 net.cpp:382] label_cifar_1_split -> label_cifar_1_split_1
I0430 23:05:14.746013  4186 net.cpp:124] Setting up label_cifar_1_split
I0430 23:05:14.746023  4186 net.cpp:131] Top shape: 1000 (1000)
I0430 23:05:14.746028  4186 net.cpp:131] Top shape: 1000 (1000)
I0430 23:05:14.746032  4186 net.cpp:139] Memory required for data: 12300000
I0430 23:05:14.746037  4186 layer_factory.hpp:77] Creating layer conv0
I0430 23:05:14.746058  4186 net.cpp:86] Creating Layer conv0
I0430 23:05:14.746065  4186 net.cpp:408] conv0 <- data
I0430 23:05:14.746078  4186 net.cpp:382] conv0 -> conv0
I0430 23:05:14.748769  4186 net.cpp:124] Setting up conv0
I0430 23:05:14.748786  4186 net.cpp:131] Top shape: 1000 8 34 34 (9248000)
I0430 23:05:14.748792  4186 net.cpp:139] Memory required for data: 49292000
I0430 23:05:14.748805  4186 layer_factory.hpp:77] Creating layer Sigmoid0
I0430 23:05:14.748826  4186 net.cpp:86] Creating Layer Sigmoid0
I0430 23:05:14.748833  4186 net.cpp:408] Sigmoid0 <- conv0
I0430 23:05:14.748842  4186 net.cpp:382] Sigmoid0 -> Sigmoid0
I0430 23:05:14.749100  4186 net.cpp:124] Setting up Sigmoid0
I0430 23:05:14.749111  4186 net.cpp:131] Top shape: 1000 8 34 34 (9248000)
I0430 23:05:14.749115  4186 net.cpp:139] Memory required for data: 86284000
I0430 23:05:14.749121  4186 layer_factory.hpp:77] Creating layer pool0
I0430 23:05:14.749133  4186 net.cpp:86] Creating Layer pool0
I0430 23:05:14.749140  4186 net.cpp:408] pool0 <- Sigmoid0
I0430 23:05:14.749150  4186 net.cpp:382] pool0 -> pool0
I0430 23:05:14.749356  4186 net.cpp:124] Setting up pool0
I0430 23:05:14.749366  4186 net.cpp:131] Top shape: 1000 8 17 17 (2312000)
I0430 23:05:14.749369  4186 net.cpp:139] Memory required for data: 95532000
I0430 23:05:14.749374  4186 layer_factory.hpp:77] Creating layer ip1
I0430 23:05:14.749389  4186 net.cpp:86] Creating Layer ip1
I0430 23:05:14.749395  4186 net.cpp:408] ip1 <- pool0
I0430 23:05:14.749404  4186 net.cpp:382] ip1 -> ip1
I0430 23:05:14.751152  4186 net.cpp:124] Setting up ip1
I0430 23:05:14.751161  4186 net.cpp:131] Top shape: 1000 20 (20000)
I0430 23:05:14.751164  4186 net.cpp:139] Memory required for data: 95612000
I0430 23:05:14.751189  4186 layer_factory.hpp:77] Creating layer relu1
I0430 23:05:14.751197  4186 net.cpp:86] Creating Layer relu1
I0430 23:05:14.751201  4186 net.cpp:408] relu1 <- ip1
I0430 23:05:14.751206  4186 net.cpp:369] relu1 -> ip1 (in-place)
I0430 23:05:14.751418  4186 net.cpp:124] Setting up relu1
I0430 23:05:14.751430  4186 net.cpp:131] Top shape: 1000 20 (20000)
I0430 23:05:14.751435  4186 net.cpp:139] Memory required for data: 95692000
I0430 23:05:14.751441  4186 layer_factory.hpp:77] Creating layer ip2
I0430 23:05:14.751451  4186 net.cpp:86] Creating Layer ip2
I0430 23:05:14.751457  4186 net.cpp:408] ip2 <- ip1
I0430 23:05:14.751468  4186 net.cpp:382] ip2 -> ip2
I0430 23:05:14.751606  4186 net.cpp:124] Setting up ip2
I0430 23:05:14.751616  4186 net.cpp:131] Top shape: 1000 10 (10000)
I0430 23:05:14.751619  4186 net.cpp:139] Memory required for data: 95732000
I0430 23:05:14.751631  4186 layer_factory.hpp:77] Creating layer relu2
I0430 23:05:14.751643  4186 net.cpp:86] Creating Layer relu2
I0430 23:05:14.751649  4186 net.cpp:408] relu2 <- ip2
I0430 23:05:14.751658  4186 net.cpp:369] relu2 -> ip2 (in-place)
I0430 23:05:14.752496  4186 net.cpp:124] Setting up relu2
I0430 23:05:14.752514  4186 net.cpp:131] Top shape: 1000 10 (10000)
I0430 23:05:14.752518  4186 net.cpp:139] Memory required for data: 95772000
I0430 23:05:14.752522  4186 layer_factory.hpp:77] Creating layer ip3
I0430 23:05:14.752530  4186 net.cpp:86] Creating Layer ip3
I0430 23:05:14.752533  4186 net.cpp:408] ip3 <- ip2
I0430 23:05:14.752540  4186 net.cpp:382] ip3 -> ip3
I0430 23:05:14.752743  4186 net.cpp:124] Setting up ip3
I0430 23:05:14.752751  4186 net.cpp:131] Top shape: 1000 160 (160000)
I0430 23:05:14.752754  4186 net.cpp:139] Memory required for data: 96412000
I0430 23:05:14.752766  4186 layer_factory.hpp:77] Creating layer relu3
I0430 23:05:14.752774  4186 net.cpp:86] Creating Layer relu3
I0430 23:05:14.752779  4186 net.cpp:408] relu3 <- ip3
I0430 23:05:14.752789  4186 net.cpp:369] relu3 -> ip3 (in-place)
I0430 23:05:14.752993  4186 net.cpp:124] Setting up relu3
I0430 23:05:14.753005  4186 net.cpp:131] Top shape: 1000 160 (160000)
I0430 23:05:14.753008  4186 net.cpp:139] Memory required for data: 97052000
I0430 23:05:14.753013  4186 layer_factory.hpp:77] Creating layer ip4
I0430 23:05:14.753027  4186 net.cpp:86] Creating Layer ip4
I0430 23:05:14.753033  4186 net.cpp:408] ip4 <- ip3
I0430 23:05:14.753043  4186 net.cpp:382] ip4 -> ip4
I0430 23:05:14.753228  4186 net.cpp:124] Setting up ip4
I0430 23:05:14.753237  4186 net.cpp:131] Top shape: 1000 10 (10000)
I0430 23:05:14.753240  4186 net.cpp:139] Memory required for data: 97092000
I0430 23:05:14.753252  4186 layer_factory.hpp:77] Creating layer ip4_ip4_0_split
I0430 23:05:14.753262  4186 net.cpp:86] Creating Layer ip4_ip4_0_split
I0430 23:05:14.753268  4186 net.cpp:408] ip4_ip4_0_split <- ip4
I0430 23:05:14.753276  4186 net.cpp:382] ip4_ip4_0_split -> ip4_ip4_0_split_0
I0430 23:05:14.753293  4186 net.cpp:382] ip4_ip4_0_split -> ip4_ip4_0_split_1
I0430 23:05:14.753346  4186 net.cpp:124] Setting up ip4_ip4_0_split
I0430 23:05:14.753355  4186 net.cpp:131] Top shape: 1000 10 (10000)
I0430 23:05:14.753358  4186 net.cpp:131] Top shape: 1000 10 (10000)
I0430 23:05:14.753365  4186 net.cpp:139] Memory required for data: 97172000
I0430 23:05:14.753370  4186 layer_factory.hpp:77] Creating layer accuracy
I0430 23:05:14.753379  4186 net.cpp:86] Creating Layer accuracy
I0430 23:05:14.753384  4186 net.cpp:408] accuracy <- ip4_ip4_0_split_0
I0430 23:05:14.753392  4186 net.cpp:408] accuracy <- label_cifar_1_split_0
I0430 23:05:14.753401  4186 net.cpp:382] accuracy -> accuracy
…
