…
I0501 07:59:15.955848  8438 net.cpp:296] The NetState phase (0) differed from the phase (1) specified by a rule in layer cifar
I0501 07:59:15.955869  8438 net.cpp:296] The NetState phase (0) differed from the phase (1) specified by a rule in layer accuracy
I0501 07:59:15.955973  8438 net.cpp:53] Initializing net from parameters: 
name: "CIFAR"
state {
  phase: TRAIN
  level: 0
  stage: ""
}
layer {
  name: "cifar"
  type: "Data"
  top: "data"
  top: "label"
  include {
    phase: TRAIN
  }
  transform_param {
    mean_file: "examples/cifar10/mean.binaryproto"
  }
  data_param {
    source: "examples/cifar10/cifar10_train_lmdb"
    batch_size: 111
    backend: LMDB
  }
}
layer {
  name: "conv0"
  type: "Convolution"
  bottom: "data"
  top: "conv0"
  param {
    lr_mult: 1
  }
  param {
    lr_mult: 2
  }
  convolution_param {
    num_output: 16
    pad: 2
    kernel_size: 3
    stride: 1
    weight_filler {
      type: "gaussian"
      std: 0.01
    }
    bias_filler {
      type: "constant"
    }
  }
}
layer {
  name: "Sigmoid0"
  type: "Sigmoid"
  bottom: "conv0"
  top: "Sigmoid0"
}
layer {
  name: "pool0"
  type: "Pooling"
  bottom: "Sigmoid0"
  top: "pool0"
  pooling_param {
    pool: AVE
    kernel_size: 3
    stride: 2
  }
}
layer {
  name: "ip1"
  type: "InnerProduct"
  bottom: "pool0"
  top: "ip1"
  param {
    lr_mult: 1
  }
  param {
    lr_mult: 2
  }
  inner_product_param {
    num_output: 10
    weight_filler {
      type: "gaussian"
      std: 0.01
    }
    bias_filler {
      type: "constant"
    }
  }
}
layer {
  name: "relu1"
  type: "ReLU"
  bottom: "ip1"
  top: "ip1"
}
layer {
  name: "ip2"
  type: "InnerProduct"
  bottom: "ip1"
  top: "ip2"
  param {
    lr_mult: 1
  }
  param {
    lr_mult: 2
  }
  inner_product_param {
    num_output: 10
    weight_filler {
      type: "gaussian"
      std: 0.01
    }
    bias_filler {
      type: "constant"
    }
  }
}
layer {
  name: "relu2"
  type: "ReLU"
  bottom: "ip2"
  top: "ip2"
}
layer {
  name: "ip3"
  type: "InnerProduct"
  bottom: "ip2"
  top: "ip3"
  param {
    lr_mult: 1
  }
  param {
    lr_mult: 2
  }
  inner_product_param {
    num_output: 80
    weight_filler {
      type: "gaussian"
      std: 0.01
    }
    bias_filler {
      type: "constant"
    }
  }
}
layer {
  name: "relu3"
  type: "ReLU"
  bottom: "ip3"
  top: "ip3"
}
layer {
  name: "ip4"
  type: "InnerProduct"
  bottom: "ip3"
  top: "ip4"
  param {
    lr_mult: 1
  }
  param {
    lr_mult: 2
  }
  inner_product_param {
    num_output: 10
    weight_filler {
      type: "gaussian"
      std: 0.01
    }
    bias_filler {
      type: "constant"
    }
  }
}
layer {
  name: "loss"
  type: "SoftmaxWithLoss"
  bottom: "ip4"
  bottom: "label"
  top: "loss"
}
I0501 07:59:15.956056  8438 layer_factory.hpp:77] Creating layer cifar
I0501 07:59:15.956161  8438 db_lmdb.cpp:35] Opened lmdb examples/cifar10/cifar10_train_lmdb
I0501 07:59:15.956192  8438 net.cpp:86] Creating Layer cifar
I0501 07:59:15.956202  8438 net.cpp:382] cifar -> data
I0501 07:59:15.956226  8438 net.cpp:382] cifar -> label
I0501 07:59:15.956239  8438 data_transformer.cpp:25] Loading mean file from: examples/cifar10/mean.binaryproto
I0501 07:59:15.958400  8438 data_layer.cpp:45] output data size: 111,3,32,32
I0501 07:59:15.966320  8438 net.cpp:124] Setting up cifar
I0501 07:59:15.966341  8438 net.cpp:131] Top shape: 111 3 32 32 (340992)
I0501 07:59:15.966346  8438 net.cpp:131] Top shape: 111 (111)
I0501 07:59:15.966351  8438 net.cpp:139] Memory required for data: 1364412
I0501 07:59:15.966377  8438 layer_factory.hpp:77] Creating layer conv0
I0501 07:59:15.966399  8438 net.cpp:86] Creating Layer conv0
I0501 07:59:15.966406  8438 net.cpp:408] conv0 <- data
I0501 07:59:15.966418  8438 net.cpp:382] conv0 -> conv0
I0501 07:59:16.258424  8438 net.cpp:124] Setting up conv0
I0501 07:59:16.258456  8438 net.cpp:131] Top shape: 111 16 34 34 (2053056)
I0501 07:59:16.258461  8438 net.cpp:139] Memory required for data: 9576636
I0501 07:59:16.258481  8438 layer_factory.hpp:77] Creating layer Sigmoid0
I0501 07:59:16.258494  8438 net.cpp:86] Creating Layer Sigmoid0
I0501 07:59:16.258498  8438 net.cpp:408] Sigmoid0 <- conv0
I0501 07:59:16.258505  8438 net.cpp:382] Sigmoid0 -> Sigmoid0
I0501 07:59:16.258725  8438 net.cpp:124] Setting up Sigmoid0
I0501 07:59:16.258738  8438 net.cpp:131] Top shape: 111 16 34 34 (2053056)
I0501 07:59:16.258741  8438 net.cpp:139] Memory required for data: 17788860
I0501 07:59:16.258745  8438 layer_factory.hpp:77] Creating layer pool0
I0501 07:59:16.258754  8438 net.cpp:86] Creating Layer pool0
I0501 07:59:16.258757  8438 net.cpp:408] pool0 <- Sigmoid0
I0501 07:59:16.258764  8438 net.cpp:382] pool0 -> pool0
I0501 07:59:16.259642  8438 net.cpp:124] Setting up pool0
I0501 07:59:16.259658  8438 net.cpp:131] Top shape: 111 16 17 17 (513264)
I0501 07:59:16.259662  8438 net.cpp:139] Memory required for data: 19841916
I0501 07:59:16.259666  8438 layer_factory.hpp:77] Creating layer ip1
I0501 07:59:16.259677  8438 net.cpp:86] Creating Layer ip1
I0501 07:59:16.259681  8438 net.cpp:408] ip1 <- pool0
I0501 07:59:16.259690  8438 net.cpp:382] ip1 -> ip1
I0501 07:59:16.262320  8438 net.cpp:124] Setting up ip1
I0501 07:59:16.262336  8438 net.cpp:131] Top shape: 111 10 (1110)
I0501 07:59:16.262341  8438 net.cpp:139] Memory required for data: 19846356
I0501 07:59:16.262351  8438 layer_factory.hpp:77] Creating layer relu1
I0501 07:59:16.262358  8438 net.cpp:86] Creating Layer relu1
I0501 07:59:16.262362  8438 net.cpp:408] relu1 <- ip1
I0501 07:59:16.262368  8438 net.cpp:369] relu1 -> ip1 (in-place)
I0501 07:59:16.262560  8438 net.cpp:124] Setting up relu1
I0501 07:59:16.262570  8438 net.cpp:131] Top shape: 111 10 (1110)
I0501 07:59:16.262574  8438 net.cpp:139] Memory required for data: 19850796
I0501 07:59:16.262578  8438 layer_factory.hpp:77] Creating layer ip2
I0501 07:59:16.262586  8438 net.cpp:86] Creating Layer ip2
I0501 07:59:16.262590  8438 net.cpp:408] ip2 <- ip1
I0501 07:59:16.262596  8438 net.cpp:382] ip2 -> ip2
I0501 07:59:16.262709  8438 net.cpp:124] Setting up ip2
I0501 07:59:16.262717  8438 net.cpp:131] Top shape: 111 10 (1110)
I0501 07:59:16.262722  8438 net.cpp:139] Memory required for data: 19855236
I0501 07:59:16.262730  8438 layer_factory.hpp:77] Creating layer relu2
I0501 07:59:16.262735  8438 net.cpp:86] Creating Layer relu2
I0501 07:59:16.262739  8438 net.cpp:408] relu2 <- ip2
I0501 07:59:16.262744  8438 net.cpp:369] relu2 -> ip2 (in-place)
I0501 07:59:16.262931  8438 net.cpp:124] Setting up relu2
I0501 07:59:16.262941  8438 net.cpp:131] Top shape: 111 10 (1110)
I0501 07:59:16.262945  8438 net.cpp:139] Memory required for data: 19859676
I0501 07:59:16.262949  8438 layer_factory.hpp:77] Creating layer ip3
I0501 07:59:16.262958  8438 net.cpp:86] Creating Layer ip3
I0501 07:59:16.262961  8438 net.cpp:408] ip3 <- ip2
I0501 07:59:16.262967  8438 net.cpp:382] ip3 -> ip3
I0501 07:59:16.263108  8438 net.cpp:124] Setting up ip3
I0501 07:59:16.263118  8438 net.cpp:131] Top shape: 111 80 (8880)
I0501 07:59:16.263120  8438 net.cpp:139] Memory required for data: 19895196
I0501 07:59:16.263128  8438 layer_factory.hpp:77] Creating layer relu3
I0501 07:59:16.263133  8438 net.cpp:86] Creating Layer relu3
I0501 07:59:16.263136  8438 net.cpp:408] relu3 <- ip3
I0501 07:59:16.263141  8438 net.cpp:369] relu3 -> ip3 (in-place)
I0501 07:59:16.263317  8438 net.cpp:124] Setting up relu3
I0501 07:59:16.263327  8438 net.cpp:131] Top shape: 111 80 (8880)
I0501 07:59:16.263331  8438 net.cpp:139] Memory required for data: 19930716
I0501 07:59:16.263334  8438 layer_factory.hpp:77] Creating layer ip4
I0501 07:59:16.263360  8438 net.cpp:86] Creating Layer ip4
I0501 07:59:16.263365  8438 net.cpp:408] ip4 <- ip3
I0501 07:59:16.263370  8438 net.cpp:382] ip4 -> ip4
I0501 07:59:16.263510  8438 net.cpp:124] Setting up ip4
I0501 07:59:16.263520  8438 net.cpp:131] Top shape: 111 10 (1110)
I0501 07:59:16.263523  8438 net.cpp:139] Memory required for data: 19935156
I0501 07:59:16.263532  8438 layer_factory.hpp:77] Creating layer loss
I0501 07:59:16.263540  8438 net.cpp:86] Creating Layer loss
I0501 07:59:16.263542  8438 net.cpp:408] loss <- ip4
I0501 07:59:16.263547  8438 net.cpp:408] loss <- label
I0501 07:59:16.263553  8438 net.cpp:382] loss -> loss
I0501 07:59:16.263571  8438 layer_factory.hpp:77] Creating layer loss
…
I0501 07:59:16.265022  8438 solver.cpp:173] Creating test net (#0) specified by net file: ECE595/cifar/train_test/var_everything/cifar_train_test_498.prototxt
I0501 07:59:16.265064  8438 net.cpp:296] The NetState phase (1) differed from the phase (0) specified by a rule in layer cifar
I0501 07:59:16.265179  8438 net.cpp:53] Initializing net from parameters: 
name: "CIFAR"
state {
  phase: TEST
}
layer {
  name: "cifar"
  type: "Data"
  top: "data"
  top: "label"
  include {
    phase: TEST
  }
  transform_param {
    mean_file: "examples/cifar10/mean.binaryproto"
  }
  data_param {
    source: "examples/cifar10/cifar10_test_lmdb"
    batch_size: 1000
    backend: LMDB
  }
}
layer {
  name: "conv0"
  type: "Convolution"
  bottom: "data"
  top: "conv0"
  param {
    lr_mult: 1
  }
  param {
    lr_mult: 2
  }
  convolution_param {
    num_output: 16
    pad: 2
    kernel_size: 3
    stride: 1
    weight_filler {
      type: "gaussian"
      std: 0.01
    }
    bias_filler {
      type: "constant"
    }
  }
}
layer {
  name: "Sigmoid0"
  type: "Sigmoid"
  bottom: "conv0"
  top: "Sigmoid0"
}
layer {
  name: "pool0"
  type: "Pooling"
  bottom: "Sigmoid0"
  top: "pool0"
  pooling_param {
    pool: AVE
    kernel_size: 3
    stride: 2
  }
}
layer {
  name: "ip1"
  type: "InnerProduct"
  bottom: "pool0"
  top: "ip1"
  param {
    lr_mult: 1
  }
  param {
    lr_mult: 2
  }
  inner_product_param {
    num_output: 10
    weight_filler {
      type: "gaussian"
      std: 0.01
    }
    bias_filler {
      type: "constant"
    }
  }
}
layer {
  name: "relu1"
  type: "ReLU"
  bottom: "ip1"
  top: "ip1"
}
layer {
  name: "ip2"
  type: "InnerProduct"
  bottom: "ip1"
  top: "ip2"
  param {
    lr_mult: 1
  }
  param {
    lr_mult: 2
  }
  inner_product_param {
    num_output: 10
    weight_filler {
      type: "gaussian"
      std: 0.01
    }
    bias_filler {
      type: "constant"
    }
  }
}
layer {
  name: "relu2"
  type: "ReLU"
  bottom: "ip2"
  top: "ip2"
}
layer {
  name: "ip3"
  type: "InnerProduct"
  bottom: "ip2"
  top: "ip3"
  param {
    lr_mult: 1
  }
  param {
    lr_mult: 2
  }
  inner_product_param {
    num_output: 80
    weight_filler {
      type: "gaussian"
      std: 0.01
    }
    bias_filler {
      type: "constant"
    }
  }
}
layer {
  name: "relu3"
  type: "ReLU"
  bottom: "ip3"
  top: "ip3"
}
layer {
  name: "ip4"
  type: "InnerProduct"
  bottom: "ip3"
  top: "ip4"
  param {
    lr_mult: 1
  }
  param {
    lr_mult: 2
  }
  inner_product_param {
    num_output: 10
    weight_filler {
      type: "gaussian"
      std: 0.01
    }
    bias_filler {
      type: "constant"
    }
  }
}
layer {
  name: "accuracy"
  type: "Accuracy"
  bottom: "ip4"
  bottom: "label"
  top: "accuracy"
  include {
    phase: TEST
  }
}
layer {
  name: "loss"
  type: "SoftmaxWithLoss"
  bottom: "ip4"
  bottom: "label"
  top: "loss"
}
I0501 07:59:16.265282  8438 layer_factory.hpp:77] Creating layer cifar
I0501 07:59:16.265337  8438 db_lmdb.cpp:35] Opened lmdb examples/cifar10/cifar10_test_lmdb
I0501 07:59:16.265352  8438 net.cpp:86] Creating Layer cifar
I0501 07:59:16.265360  8438 net.cpp:382] cifar -> data
I0501 07:59:16.265369  8438 net.cpp:382] cifar -> label
I0501 07:59:16.265377  8438 data_transformer.cpp:25] Loading mean file from: examples/cifar10/mean.binaryproto
I0501 07:59:16.265558  8438 data_layer.cpp:45] output data size: 1000,3,32,32
I0501 07:59:16.291514  8438 net.cpp:124] Setting up cifar
I0501 07:59:16.291544  8438 net.cpp:131] Top shape: 1000 3 32 32 (3072000)
I0501 07:59:16.291551  8438 net.cpp:131] Top shape: 1000 (1000)
I0501 07:59:16.291554  8438 net.cpp:139] Memory required for data: 12292000
I0501 07:59:16.291561  8438 layer_factory.hpp:77] Creating layer label_cifar_1_split
I0501 07:59:16.291576  8438 net.cpp:86] Creating Layer label_cifar_1_split
I0501 07:59:16.291581  8438 net.cpp:408] label_cifar_1_split <- label
I0501 07:59:16.291590  8438 net.cpp:382] label_cifar_1_split -> label_cifar_1_split_0
I0501 07:59:16.291600  8438 net.cpp:382] label_cifar_1_split -> label_cifar_1_split_1
I0501 07:59:16.291725  8438 net.cpp:124] Setting up label_cifar_1_split
I0501 07:59:16.291736  8438 net.cpp:131] Top shape: 1000 (1000)
I0501 07:59:16.291741  8438 net.cpp:131] Top shape: 1000 (1000)
I0501 07:59:16.291744  8438 net.cpp:139] Memory required for data: 12300000
I0501 07:59:16.291749  8438 layer_factory.hpp:77] Creating layer conv0
I0501 07:59:16.291777  8438 net.cpp:86] Creating Layer conv0
I0501 07:59:16.291784  8438 net.cpp:408] conv0 <- data
I0501 07:59:16.291790  8438 net.cpp:382] conv0 -> conv0
I0501 07:59:16.294543  8438 net.cpp:124] Setting up conv0
I0501 07:59:16.294561  8438 net.cpp:131] Top shape: 1000 16 34 34 (18496000)
I0501 07:59:16.294566  8438 net.cpp:139] Memory required for data: 86284000
I0501 07:59:16.294579  8438 layer_factory.hpp:77] Creating layer Sigmoid0
I0501 07:59:16.294586  8438 net.cpp:86] Creating Layer Sigmoid0
I0501 07:59:16.294590  8438 net.cpp:408] Sigmoid0 <- conv0
I0501 07:59:16.294598  8438 net.cpp:382] Sigmoid0 -> Sigmoid0
I0501 07:59:16.294829  8438 net.cpp:124] Setting up Sigmoid0
I0501 07:59:16.294842  8438 net.cpp:131] Top shape: 1000 16 34 34 (18496000)
I0501 07:59:16.294845  8438 net.cpp:139] Memory required for data: 160268000
I0501 07:59:16.294849  8438 layer_factory.hpp:77] Creating layer pool0
I0501 07:59:16.294860  8438 net.cpp:86] Creating Layer pool0
I0501 07:59:16.294864  8438 net.cpp:408] pool0 <- Sigmoid0
I0501 07:59:16.294870  8438 net.cpp:382] pool0 -> pool0
I0501 07:59:16.295083  8438 net.cpp:124] Setting up pool0
I0501 07:59:16.295094  8438 net.cpp:131] Top shape: 1000 16 17 17 (4624000)
I0501 07:59:16.295097  8438 net.cpp:139] Memory required for data: 178764000
I0501 07:59:16.295102  8438 layer_factory.hpp:77] Creating layer ip1
I0501 07:59:16.295114  8438 net.cpp:86] Creating Layer ip1
I0501 07:59:16.295120  8438 net.cpp:408] ip1 <- pool0
I0501 07:59:16.295126  8438 net.cpp:382] ip1 -> ip1
I0501 07:59:16.296784  8438 net.cpp:124] Setting up ip1
I0501 07:59:16.296794  8438 net.cpp:131] Top shape: 1000 10 (10000)
I0501 07:59:16.296797  8438 net.cpp:139] Memory required for data: 178804000
I0501 07:59:16.296833  8438 layer_factory.hpp:77] Creating layer relu1
I0501 07:59:16.296840  8438 net.cpp:86] Creating Layer relu1
I0501 07:59:16.296850  8438 net.cpp:408] relu1 <- ip1
I0501 07:59:16.296855  8438 net.cpp:369] relu1 -> ip1 (in-place)
I0501 07:59:16.297070  8438 net.cpp:124] Setting up relu1
I0501 07:59:16.297081  8438 net.cpp:131] Top shape: 1000 10 (10000)
I0501 07:59:16.297086  8438 net.cpp:139] Memory required for data: 178844000
I0501 07:59:16.297089  8438 layer_factory.hpp:77] Creating layer ip2
I0501 07:59:16.297097  8438 net.cpp:86] Creating Layer ip2
I0501 07:59:16.297101  8438 net.cpp:408] ip2 <- ip1
I0501 07:59:16.297108  8438 net.cpp:382] ip2 -> ip2
I0501 07:59:16.297240  8438 net.cpp:124] Setting up ip2
I0501 07:59:16.297250  8438 net.cpp:131] Top shape: 1000 10 (10000)
I0501 07:59:16.297253  8438 net.cpp:139] Memory required for data: 178884000
I0501 07:59:16.297261  8438 layer_factory.hpp:77] Creating layer relu2
I0501 07:59:16.297271  8438 net.cpp:86] Creating Layer relu2
I0501 07:59:16.297273  8438 net.cpp:408] relu2 <- ip2
I0501 07:59:16.297278  8438 net.cpp:369] relu2 -> ip2 (in-place)
I0501 07:59:16.298176  8438 net.cpp:124] Setting up relu2
I0501 07:59:16.298190  8438 net.cpp:131] Top shape: 1000 10 (10000)
I0501 07:59:16.298194  8438 net.cpp:139] Memory required for data: 178924000
I0501 07:59:16.298198  8438 layer_factory.hpp:77] Creating layer ip3
I0501 07:59:16.298210  8438 net.cpp:86] Creating Layer ip3
I0501 07:59:16.298214  8438 net.cpp:408] ip3 <- ip2
I0501 07:59:16.298223  8438 net.cpp:382] ip3 -> ip3
I0501 07:59:16.298384  8438 net.cpp:124] Setting up ip3
I0501 07:59:16.298394  8438 net.cpp:131] Top shape: 1000 80 (80000)
I0501 07:59:16.298398  8438 net.cpp:139] Memory required for data: 179244000
I0501 07:59:16.298405  8438 layer_factory.hpp:77] Creating layer relu3
I0501 07:59:16.298413  8438 net.cpp:86] Creating Layer relu3
I0501 07:59:16.298415  8438 net.cpp:408] relu3 <- ip3
I0501 07:59:16.298420  8438 net.cpp:369] relu3 -> ip3 (in-place)
I0501 07:59:16.298609  8438 net.cpp:124] Setting up relu3
I0501 07:59:16.298620  8438 net.cpp:131] Top shape: 1000 80 (80000)
I0501 07:59:16.298624  8438 net.cpp:139] Memory required for data: 179564000
I0501 07:59:16.298629  8438 layer_factory.hpp:77] Creating layer ip4
I0501 07:59:16.298635  8438 net.cpp:86] Creating Layer ip4
I0501 07:59:16.298638  8438 net.cpp:408] ip4 <- ip3
I0501 07:59:16.298645  8438 net.cpp:382] ip4 -> ip4
I0501 07:59:16.298799  8438 net.cpp:124] Setting up ip4
I0501 07:59:16.298806  8438 net.cpp:131] Top shape: 1000 10 (10000)
I0501 07:59:16.298810  8438 net.cpp:139] Memory required for data: 179604000
I0501 07:59:16.298820  8438 layer_factory.hpp:77] Creating layer ip4_ip4_0_split
I0501 07:59:16.298827  8438 net.cpp:86] Creating Layer ip4_ip4_0_split
I0501 07:59:16.298830  8438 net.cpp:408] ip4_ip4_0_split <- ip4
I0501 07:59:16.298837  8438 net.cpp:382] ip4_ip4_0_split -> ip4_ip4_0_split_0
I0501 07:59:16.298843  8438 net.cpp:382] ip4_ip4_0_split -> ip4_ip4_0_split_1
I0501 07:59:16.298879  8438 net.cpp:124] Setting up ip4_ip4_0_split
I0501 07:59:16.298887  8438 net.cpp:131] Top shape: 1000 10 (10000)
I0501 07:59:16.298892  8438 net.cpp:131] Top shape: 1000 10 (10000)
I0501 07:59:16.298894  8438 net.cpp:139] Memory required for data: 179684000
I0501 07:59:16.298898  8438 layer_factory.hpp:77] Creating layer accuracy
I0501 07:59:16.298905  8438 net.cpp:86] Creating Layer accuracy
I0501 07:59:16.298909  8438 net.cpp:408] accuracy <- ip4_ip4_0_split_0
I0501 07:59:16.298914  8438 net.cpp:408] accuracy <- label_cifar_1_split_0
I0501 07:59:16.298919  8438 net.cpp:382] accuracy -> accuracy
…
