…
I0430 18:01:40.460917 21680 net.cpp:296] The NetState phase (0) differed from the phase (1) specified by a rule in layer cifar
I0430 18:01:40.460932 21680 net.cpp:296] The NetState phase (0) differed from the phase (1) specified by a rule in layer accuracy
I0430 18:01:40.461001 21680 net.cpp:53] Initializing net from parameters: 
name: "CIFAR"
state {
  phase: TRAIN
  level: 0
  stage: ""
}
layer {
  name: "cifar"
  type: "Data"
  top: "data"
  top: "label"
  include {
    phase: TRAIN
  }
  transform_param {
    mean_file: "examples/cifar10/mean.binaryproto"
  }
  data_param {
    source: "examples/cifar10/cifar10_train_lmdb"
    batch_size: 111
    backend: LMDB
  }
}
layer {
  name: "ip1"
  type: "InnerProduct"
  bottom: "data"
  top: "ip1"
  param {
    lr_mult: 1
  }
  param {
    lr_mult: 2
  }
  inner_product_param {
    num_output: 10
    weight_filler {
      type: "gaussian"
      std: 0.01
    }
    bias_filler {
      type: "constant"
    }
  }
}
layer {
  name: "relu1"
  type: "ReLU"
  bottom: "ip1"
  top: "ip1"
}
layer {
  name: "ip2"
  type: "InnerProduct"
  bottom: "ip1"
  top: "ip2"
  param {
    lr_mult: 1
  }
  param {
    lr_mult: 2
  }
  inner_product_param {
    num_output: 160
    weight_filler {
      type: "gaussian"
      std: 0.01
    }
    bias_filler {
      type: "constant"
    }
  }
}
layer {
  name: "relu2"
  type: "ReLU"
  bottom: "ip2"
  top: "ip2"
}
layer {
  name: "ip3"
  type: "InnerProduct"
  bottom: "ip2"
  top: "ip3"
  param {
    lr_mult: 1
  }
  param {
    lr_mult: 2
  }
  inner_product_param {
    num_output: 80
    weight_filler {
      type: "gaussian"
      std: 0.01
    }
    bias_filler {
      type: "constant"
    }
  }
}
layer {
  name: "relu3"
  type: "ReLU"
  bottom: "ip3"
  top: "ip3"
}
layer {
  name: "ip4"
  type: "InnerProduct"
  bottom: "ip3"
  top: "ip4"
  param {
    lr_mult: 1
  }
  param {
    lr_mult: 2
  }
  inner_product_param {
    num_output: 10
    weight_filler {
      type: "gaussian"
      std: 0.01
    }
    bias_filler {
      type: "constant"
    }
  }
}
layer {
  name: "loss"
  type: "SoftmaxWithLoss"
  bottom: "ip4"
  bottom: "label"
  top: "loss"
}
I0430 18:01:40.461063 21680 layer_factory.hpp:77] Creating layer cifar
I0430 18:01:40.461145 21680 db_lmdb.cpp:35] Opened lmdb examples/cifar10/cifar10_train_lmdb
I0430 18:01:40.461197 21680 net.cpp:86] Creating Layer cifar
I0430 18:01:40.461205 21680 net.cpp:382] cifar -> data
I0430 18:01:40.461223 21680 net.cpp:382] cifar -> label
I0430 18:01:40.461233 21680 data_transformer.cpp:25] Loading mean file from: examples/cifar10/mean.binaryproto
I0430 18:01:40.462925 21680 data_layer.cpp:45] output data size: 111,3,32,32
I0430 18:01:40.469244 21680 net.cpp:124] Setting up cifar
I0430 18:01:40.469275 21680 net.cpp:131] Top shape: 111 3 32 32 (340992)
I0430 18:01:40.469280 21680 net.cpp:131] Top shape: 111 (111)
I0430 18:01:40.469282 21680 net.cpp:139] Memory required for data: 1364412
I0430 18:01:40.469288 21680 layer_factory.hpp:77] Creating layer ip1
I0430 18:01:40.469298 21680 net.cpp:86] Creating Layer ip1
I0430 18:01:40.469318 21680 net.cpp:408] ip1 <- data
I0430 18:01:40.469327 21680 net.cpp:382] ip1 -> ip1
I0430 18:01:40.471063 21680 net.cpp:124] Setting up ip1
I0430 18:01:40.471074 21680 net.cpp:131] Top shape: 111 10 (1110)
I0430 18:01:40.471094 21680 net.cpp:139] Memory required for data: 1368852
I0430 18:01:40.471105 21680 layer_factory.hpp:77] Creating layer relu1
I0430 18:01:40.471113 21680 net.cpp:86] Creating Layer relu1
I0430 18:01:40.471148 21680 net.cpp:408] relu1 <- ip1
I0430 18:01:40.471153 21680 net.cpp:369] relu1 -> ip1 (in-place)
I0430 18:01:40.691149 21680 net.cpp:124] Setting up relu1
I0430 18:01:40.691206 21680 net.cpp:131] Top shape: 111 10 (1110)
I0430 18:01:40.691210 21680 net.cpp:139] Memory required for data: 1373292
I0430 18:01:40.691231 21680 layer_factory.hpp:77] Creating layer ip2
I0430 18:01:40.691242 21680 net.cpp:86] Creating Layer ip2
I0430 18:01:40.691246 21680 net.cpp:408] ip2 <- ip1
I0430 18:01:40.691252 21680 net.cpp:382] ip2 -> ip2
I0430 18:01:40.691411 21680 net.cpp:124] Setting up ip2
I0430 18:01:40.691417 21680 net.cpp:131] Top shape: 111 160 (17760)
I0430 18:01:40.691421 21680 net.cpp:139] Memory required for data: 1444332
I0430 18:01:40.691431 21680 layer_factory.hpp:77] Creating layer relu2
I0430 18:01:40.691437 21680 net.cpp:86] Creating Layer relu2
I0430 18:01:40.691439 21680 net.cpp:408] relu2 <- ip2
I0430 18:01:40.691443 21680 net.cpp:369] relu2 -> ip2 (in-place)
I0430 18:01:40.692148 21680 net.cpp:124] Setting up relu2
I0430 18:01:40.692160 21680 net.cpp:131] Top shape: 111 160 (17760)
I0430 18:01:40.692179 21680 net.cpp:139] Memory required for data: 1515372
I0430 18:01:40.692183 21680 layer_factory.hpp:77] Creating layer ip3
I0430 18:01:40.692189 21680 net.cpp:86] Creating Layer ip3
I0430 18:01:40.692193 21680 net.cpp:408] ip3 <- ip2
I0430 18:01:40.692198 21680 net.cpp:382] ip3 -> ip3
I0430 18:01:40.693450 21680 net.cpp:124] Setting up ip3
I0430 18:01:40.693464 21680 net.cpp:131] Top shape: 111 80 (8880)
I0430 18:01:40.693466 21680 net.cpp:139] Memory required for data: 1550892
I0430 18:01:40.693475 21680 layer_factory.hpp:77] Creating layer relu3
I0430 18:01:40.693480 21680 net.cpp:86] Creating Layer relu3
I0430 18:01:40.693482 21680 net.cpp:408] relu3 <- ip3
I0430 18:01:40.693486 21680 net.cpp:369] relu3 -> ip3 (in-place)
I0430 18:01:40.693648 21680 net.cpp:124] Setting up relu3
I0430 18:01:40.693656 21680 net.cpp:131] Top shape: 111 80 (8880)
I0430 18:01:40.693660 21680 net.cpp:139] Memory required for data: 1586412
I0430 18:01:40.693662 21680 layer_factory.hpp:77] Creating layer ip4
I0430 18:01:40.693668 21680 net.cpp:86] Creating Layer ip4
I0430 18:01:40.693671 21680 net.cpp:408] ip4 <- ip3
I0430 18:01:40.693675 21680 net.cpp:382] ip4 -> ip4
I0430 18:01:40.694597 21680 net.cpp:124] Setting up ip4
I0430 18:01:40.694608 21680 net.cpp:131] Top shape: 111 10 (1110)
I0430 18:01:40.694612 21680 net.cpp:139] Memory required for data: 1590852
I0430 18:01:40.694617 21680 layer_factory.hpp:77] Creating layer loss
I0430 18:01:40.694624 21680 net.cpp:86] Creating Layer loss
I0430 18:01:40.694643 21680 net.cpp:408] loss <- ip4
I0430 18:01:40.694646 21680 net.cpp:408] loss <- label
I0430 18:01:40.694653 21680 net.cpp:382] loss -> loss
I0430 18:01:40.694670 21680 layer_factory.hpp:77] Creating layer loss
…
I0430 18:01:40.695237 21680 solver.cpp:173] Creating test net (#0) specified by net file: ECE595/cifar/train_test/var_everything/cifar_train_test_53.prototxt
I0430 18:01:40.695272 21680 net.cpp:296] The NetState phase (1) differed from the phase (0) specified by a rule in layer cifar
I0430 18:01:40.695361 21680 net.cpp:53] Initializing net from parameters: 
name: "CIFAR"
state {
  phase: TEST
}
layer {
  name: "cifar"
  type: "Data"
  top: "data"
  top: "label"
  include {
    phase: TEST
  }
  transform_param {
    mean_file: "examples/cifar10/mean.binaryproto"
  }
  data_param {
    source: "examples/cifar10/cifar10_test_lmdb"
    batch_size: 1000
    backend: LMDB
  }
}
layer {
  name: "ip1"
  type: "InnerProduct"
  bottom: "data"
  top: "ip1"
  param {
    lr_mult: 1
  }
  param {
    lr_mult: 2
  }
  inner_product_param {
    num_output: 10
    weight_filler {
      type: "gaussian"
      std: 0.01
    }
    bias_filler {
      type: "constant"
    }
  }
}
layer {
  name: "relu1"
  type: "ReLU"
  bottom: "ip1"
  top: "ip1"
}
layer {
  name: "ip2"
  type: "InnerProduct"
  bottom: "ip1"
  top: "ip2"
  param {
    lr_mult: 1
  }
  param {
    lr_mult: 2
  }
  inner_product_param {
    num_output: 160
    weight_filler {
      type: "gaussian"
      std: 0.01
    }
    bias_filler {
      type: "constant"
    }
  }
}
layer {
  name: "relu2"
  type: "ReLU"
  bottom: "ip2"
  top: "ip2"
}
layer {
  name: "ip3"
  type: "InnerProduct"
  bottom: "ip2"
  top: "ip3"
  param {
    lr_mult: 1
  }
  param {
    lr_mult: 2
  }
  inner_product_param {
    num_output: 80
    weight_filler {
      type: "gaussian"
      std: 0.01
    }
    bias_filler {
      type: "constant"
    }
  }
}
layer {
  name: "relu3"
  type: "ReLU"
  bottom: "ip3"
  top: "ip3"
}
layer {
  name: "ip4"
  type: "InnerProduct"
  bottom: "ip3"
  top: "ip4"
  param {
    lr_mult: 1
  }
  param {
    lr_mult: 2
  }
  inner_product_param {
    num_output: 10
    weight_filler {
      type: "gaussian"
      std: 0.01
    }
    bias_filler {
      type: "constant"
    }
  }
}
layer {
  name: "accuracy"
  type: "Accuracy"
  bottom: "ip4"
  bottom: "label"
  top: "accuracy"
  include {
    phase: TEST
  }
}
layer {
  name: "loss"
  type: "SoftmaxWithLoss"
  bottom: "ip4"
  bottom: "label"
  top: "loss"
}
I0430 18:01:40.695420 21680 layer_factory.hpp:77] Creating layer cifar
I0430 18:01:40.695464 21680 db_lmdb.cpp:35] Opened lmdb examples/cifar10/cifar10_test_lmdb
I0430 18:01:40.695474 21680 net.cpp:86] Creating Layer cifar
I0430 18:01:40.695479 21680 net.cpp:382] cifar -> data
I0430 18:01:40.695487 21680 net.cpp:382] cifar -> label
I0430 18:01:40.695493 21680 data_transformer.cpp:25] Loading mean file from: examples/cifar10/mean.binaryproto
I0430 18:01:40.695641 21680 data_layer.cpp:45] output data size: 1000,3,32,32
I0430 18:01:40.716536 21680 net.cpp:124] Setting up cifar
I0430 18:01:40.716576 21680 net.cpp:131] Top shape: 1000 3 32 32 (3072000)
I0430 18:01:40.716583 21680 net.cpp:131] Top shape: 1000 (1000)
I0430 18:01:40.716585 21680 net.cpp:139] Memory required for data: 12292000
I0430 18:01:40.716590 21680 layer_factory.hpp:77] Creating layer label_cifar_1_split
I0430 18:01:40.716641 21680 net.cpp:86] Creating Layer label_cifar_1_split
I0430 18:01:40.716646 21680 net.cpp:408] label_cifar_1_split <- label
I0430 18:01:40.716652 21680 net.cpp:382] label_cifar_1_split -> label_cifar_1_split_0
I0430 18:01:40.716661 21680 net.cpp:382] label_cifar_1_split -> label_cifar_1_split_1
I0430 18:01:40.716753 21680 net.cpp:124] Setting up label_cifar_1_split
I0430 18:01:40.716760 21680 net.cpp:131] Top shape: 1000 (1000)
I0430 18:01:40.716764 21680 net.cpp:131] Top shape: 1000 (1000)
I0430 18:01:40.716766 21680 net.cpp:139] Memory required for data: 12300000
I0430 18:01:40.716769 21680 layer_factory.hpp:77] Creating layer ip1
I0430 18:01:40.716778 21680 net.cpp:86] Creating Layer ip1
I0430 18:01:40.716781 21680 net.cpp:408] ip1 <- data
I0430 18:01:40.716785 21680 net.cpp:382] ip1 -> ip1
I0430 18:01:40.717818 21680 net.cpp:124] Setting up ip1
I0430 18:01:40.717825 21680 net.cpp:131] Top shape: 1000 10 (10000)
I0430 18:01:40.717844 21680 net.cpp:139] Memory required for data: 12340000
I0430 18:01:40.717867 21680 layer_factory.hpp:77] Creating layer relu1
I0430 18:01:40.717890 21680 net.cpp:86] Creating Layer relu1
I0430 18:01:40.717892 21680 net.cpp:408] relu1 <- ip1
I0430 18:01:40.717911 21680 net.cpp:369] relu1 -> ip1 (in-place)
I0430 18:01:40.718789 21680 net.cpp:124] Setting up relu1
I0430 18:01:40.718801 21680 net.cpp:131] Top shape: 1000 10 (10000)
I0430 18:01:40.718819 21680 net.cpp:139] Memory required for data: 12380000
I0430 18:01:40.718822 21680 layer_factory.hpp:77] Creating layer ip2
I0430 18:01:40.718830 21680 net.cpp:86] Creating Layer ip2
I0430 18:01:40.718835 21680 net.cpp:408] ip2 <- ip1
I0430 18:01:40.718840 21680 net.cpp:382] ip2 -> ip2
I0430 18:01:40.719974 21680 net.cpp:124] Setting up ip2
I0430 18:01:40.719983 21680 net.cpp:131] Top shape: 1000 160 (160000)
I0430 18:01:40.719985 21680 net.cpp:139] Memory required for data: 13020000
I0430 18:01:40.720008 21680 layer_factory.hpp:77] Creating layer relu2
I0430 18:01:40.720013 21680 net.cpp:86] Creating Layer relu2
I0430 18:01:40.720018 21680 net.cpp:408] relu2 <- ip2
I0430 18:01:40.720022 21680 net.cpp:369] relu2 -> ip2 (in-place)
I0430 18:01:40.720186 21680 net.cpp:124] Setting up relu2
I0430 18:01:40.720194 21680 net.cpp:131] Top shape: 1000 160 (160000)
I0430 18:01:40.720198 21680 net.cpp:139] Memory required for data: 13660000
I0430 18:01:40.720201 21680 layer_factory.hpp:77] Creating layer ip3
I0430 18:01:40.720207 21680 net.cpp:86] Creating Layer ip3
I0430 18:01:40.720211 21680 net.cpp:408] ip3 <- ip2
I0430 18:01:40.720216 21680 net.cpp:382] ip3 -> ip3
I0430 18:01:40.720697 21680 net.cpp:124] Setting up ip3
I0430 18:01:40.720703 21680 net.cpp:131] Top shape: 1000 80 (80000)
I0430 18:01:40.720721 21680 net.cpp:139] Memory required for data: 13980000
I0430 18:01:40.720728 21680 layer_factory.hpp:77] Creating layer relu3
I0430 18:01:40.720732 21680 net.cpp:86] Creating Layer relu3
I0430 18:01:40.720736 21680 net.cpp:408] relu3 <- ip3
I0430 18:01:40.720741 21680 net.cpp:369] relu3 -> ip3 (in-place)
I0430 18:01:40.720921 21680 net.cpp:124] Setting up relu3
I0430 18:01:40.720929 21680 net.cpp:131] Top shape: 1000 80 (80000)
I0430 18:01:40.720932 21680 net.cpp:139] Memory required for data: 14300000
I0430 18:01:40.720935 21680 layer_factory.hpp:77] Creating layer ip4
I0430 18:01:40.720943 21680 net.cpp:86] Creating Layer ip4
I0430 18:01:40.720947 21680 net.cpp:408] ip4 <- ip3
I0430 18:01:40.720952 21680 net.cpp:382] ip4 -> ip4
I0430 18:01:40.721071 21680 net.cpp:124] Setting up ip4
I0430 18:01:40.721077 21680 net.cpp:131] Top shape: 1000 10 (10000)
I0430 18:01:40.721081 21680 net.cpp:139] Memory required for data: 14340000
I0430 18:01:40.721086 21680 layer_factory.hpp:77] Creating layer ip4_ip4_0_split
I0430 18:01:40.721091 21680 net.cpp:86] Creating Layer ip4_ip4_0_split
I0430 18:01:40.721096 21680 net.cpp:408] ip4_ip4_0_split <- ip4
I0430 18:01:40.721099 21680 net.cpp:382] ip4_ip4_0_split -> ip4_ip4_0_split_0
I0430 18:01:40.721105 21680 net.cpp:382] ip4_ip4_0_split -> ip4_ip4_0_split_1
I0430 18:01:40.721148 21680 net.cpp:124] Setting up ip4_ip4_0_split
I0430 18:01:40.721155 21680 net.cpp:131] Top shape: 1000 10 (10000)
I0430 18:01:40.721158 21680 net.cpp:131] Top shape: 1000 10 (10000)
I0430 18:01:40.721161 21680 net.cpp:139] Memory required for data: 14420000
I0430 18:01:40.721164 21680 layer_factory.hpp:77] Creating layer accuracy
I0430 18:01:40.721170 21680 net.cpp:86] Creating Layer accuracy
I0430 18:01:40.721174 21680 net.cpp:408] accuracy <- ip4_ip4_0_split_0
I0430 18:01:40.721177 21680 net.cpp:408] accuracy <- label_cifar_1_split_0
I0430 18:01:40.721181 21680 net.cpp:382] accuracy -> accuracy
…
