…
I0501 06:49:40.330091  2151 net.cpp:296] The NetState phase (0) differed from the phase (1) specified by a rule in layer cifar
I0501 06:49:40.330109  2151 net.cpp:296] The NetState phase (0) differed from the phase (1) specified by a rule in layer accuracy
I0501 06:49:40.330215  2151 net.cpp:53] Initializing net from parameters: 
name: "CIFAR"
state {
  phase: TRAIN
  level: 0
  stage: ""
}
layer {
  name: "cifar"
  type: "Data"
  top: "data"
  top: "label"
  include {
    phase: TRAIN
  }
  transform_param {
    mean_file: "examples/cifar10/mean.binaryproto"
  }
  data_param {
    source: "examples/cifar10/cifar10_train_lmdb"
    batch_size: 111
    backend: LMDB
  }
}
layer {
  name: "conv0"
  type: "Convolution"
  bottom: "data"
  top: "conv0"
  param {
    lr_mult: 1
  }
  param {
    lr_mult: 2
  }
  convolution_param {
    num_output: 8
    pad: 2
    kernel_size: 5
    stride: 1
    weight_filler {
      type: "gaussian"
      std: 0.01
    }
    bias_filler {
      type: "constant"
    }
  }
}
layer {
  name: "Sigmoid0"
  type: "Sigmoid"
  bottom: "conv0"
  top: "Sigmoid0"
}
layer {
  name: "pool0"
  type: "Pooling"
  bottom: "Sigmoid0"
  top: "pool0"
  pooling_param {
    pool: AVE
    kernel_size: 3
    stride: 2
  }
}
layer {
  name: "ip1"
  type: "InnerProduct"
  bottom: "pool0"
  top: "ip1"
  param {
    lr_mult: 1
  }
  param {
    lr_mult: 2
  }
  inner_product_param {
    num_output: 160
    weight_filler {
      type: "gaussian"
      std: 0.01
    }
    bias_filler {
      type: "constant"
    }
  }
}
layer {
  name: "relu1"
  type: "ReLU"
  bottom: "ip1"
  top: "ip1"
}
layer {
  name: "ip2"
  type: "InnerProduct"
  bottom: "ip1"
  top: "ip2"
  param {
    lr_mult: 1
  }
  param {
    lr_mult: 2
  }
  inner_product_param {
    num_output: 160
    weight_filler {
      type: "gaussian"
      std: 0.01
    }
    bias_filler {
      type: "constant"
    }
  }
}
layer {
  name: "relu2"
  type: "ReLU"
  bottom: "ip2"
  top: "ip2"
}
layer {
  name: "ip3"
  type: "InnerProduct"
  bottom: "ip2"
  top: "ip3"
  param {
    lr_mult: 1
  }
  param {
    lr_mult: 2
  }
  inner_product_param {
    num_output: 80
    weight_filler {
      type: "gaussian"
      std: 0.01
    }
    bias_filler {
      type: "constant"
    }
  }
}
layer {
  name: "relu3"
  type: "ReLU"
  bottom: "ip3"
  top: "ip3"
}
layer {
  name: "ip4"
  type: "InnerProduct"
  bottom: "ip3"
  top: "ip4"
  param {
    lr_mult: 1
  }
  param {
    lr_mult: 2
  }
  inner_product_param {
    num_output: 10
    weight_filler {
      type: "gaussian"
      std: 0.01
    }
    bias_filler {
      type: "constant"
    }
  }
}
layer {
  name: "loss"
  type: "SoftmaxWithLoss"
  bottom: "ip4"
  bottom: "label"
  top: "loss"
}
I0501 06:49:40.330294  2151 layer_factory.hpp:77] Creating layer cifar
I0501 06:49:40.330397  2151 db_lmdb.cpp:35] Opened lmdb examples/cifar10/cifar10_train_lmdb
I0501 06:49:40.330425  2151 net.cpp:86] Creating Layer cifar
I0501 06:49:40.330433  2151 net.cpp:382] cifar -> data
I0501 06:49:40.330457  2151 net.cpp:382] cifar -> label
I0501 06:49:40.330471  2151 data_transformer.cpp:25] Loading mean file from: examples/cifar10/mean.binaryproto
I0501 06:49:40.332631  2151 data_layer.cpp:45] output data size: 111,3,32,32
I0501 06:49:40.340855  2151 net.cpp:124] Setting up cifar
I0501 06:49:40.340875  2151 net.cpp:131] Top shape: 111 3 32 32 (340992)
I0501 06:49:40.340881  2151 net.cpp:131] Top shape: 111 (111)
I0501 06:49:40.340885  2151 net.cpp:139] Memory required for data: 1364412
I0501 06:49:40.340909  2151 layer_factory.hpp:77] Creating layer conv0
I0501 06:49:40.340930  2151 net.cpp:86] Creating Layer conv0
I0501 06:49:40.340936  2151 net.cpp:408] conv0 <- data
I0501 06:49:40.340950  2151 net.cpp:382] conv0 -> conv0
I0501 06:49:40.631325  2151 net.cpp:124] Setting up conv0
I0501 06:49:40.631358  2151 net.cpp:131] Top shape: 111 8 32 32 (909312)
I0501 06:49:40.631363  2151 net.cpp:139] Memory required for data: 5001660
I0501 06:49:40.631381  2151 layer_factory.hpp:77] Creating layer Sigmoid0
I0501 06:49:40.631395  2151 net.cpp:86] Creating Layer Sigmoid0
I0501 06:49:40.631400  2151 net.cpp:408] Sigmoid0 <- conv0
I0501 06:49:40.631407  2151 net.cpp:382] Sigmoid0 -> Sigmoid0
I0501 06:49:40.631610  2151 net.cpp:124] Setting up Sigmoid0
I0501 06:49:40.631621  2151 net.cpp:131] Top shape: 111 8 32 32 (909312)
I0501 06:49:40.631626  2151 net.cpp:139] Memory required for data: 8638908
I0501 06:49:40.631630  2151 layer_factory.hpp:77] Creating layer pool0
I0501 06:49:40.631639  2151 net.cpp:86] Creating Layer pool0
I0501 06:49:40.631642  2151 net.cpp:408] pool0 <- Sigmoid0
I0501 06:49:40.631649  2151 net.cpp:382] pool0 -> pool0
I0501 06:49:40.632519  2151 net.cpp:124] Setting up pool0
I0501 06:49:40.632536  2151 net.cpp:131] Top shape: 111 8 16 16 (227328)
I0501 06:49:40.632540  2151 net.cpp:139] Memory required for data: 9548220
I0501 06:49:40.632544  2151 layer_factory.hpp:77] Creating layer ip1
I0501 06:49:40.632556  2151 net.cpp:86] Creating Layer ip1
I0501 06:49:40.632560  2151 net.cpp:408] ip1 <- pool0
I0501 06:49:40.632566  2151 net.cpp:382] ip1 -> ip1
I0501 06:49:40.644420  2151 net.cpp:124] Setting up ip1
I0501 06:49:40.644435  2151 net.cpp:131] Top shape: 111 160 (17760)
I0501 06:49:40.644440  2151 net.cpp:139] Memory required for data: 9619260
I0501 06:49:40.644450  2151 layer_factory.hpp:77] Creating layer relu1
I0501 06:49:40.644457  2151 net.cpp:86] Creating Layer relu1
I0501 06:49:40.644461  2151 net.cpp:408] relu1 <- ip1
I0501 06:49:40.644467  2151 net.cpp:369] relu1 -> ip1 (in-place)
I0501 06:49:40.644649  2151 net.cpp:124] Setting up relu1
I0501 06:49:40.644659  2151 net.cpp:131] Top shape: 111 160 (17760)
I0501 06:49:40.644664  2151 net.cpp:139] Memory required for data: 9690300
I0501 06:49:40.644667  2151 layer_factory.hpp:77] Creating layer ip2
I0501 06:49:40.644675  2151 net.cpp:86] Creating Layer ip2
I0501 06:49:40.644680  2151 net.cpp:408] ip2 <- ip1
I0501 06:49:40.644686  2151 net.cpp:382] ip2 -> ip2
I0501 06:49:40.646631  2151 net.cpp:124] Setting up ip2
I0501 06:49:40.646646  2151 net.cpp:131] Top shape: 111 160 (17760)
I0501 06:49:40.646651  2151 net.cpp:139] Memory required for data: 9761340
I0501 06:49:40.646661  2151 layer_factory.hpp:77] Creating layer relu2
I0501 06:49:40.646668  2151 net.cpp:86] Creating Layer relu2
I0501 06:49:40.646672  2151 net.cpp:408] relu2 <- ip2
I0501 06:49:40.646679  2151 net.cpp:369] relu2 -> ip2 (in-place)
I0501 06:49:40.646874  2151 net.cpp:124] Setting up relu2
I0501 06:49:40.646884  2151 net.cpp:131] Top shape: 111 160 (17760)
I0501 06:49:40.646888  2151 net.cpp:139] Memory required for data: 9832380
I0501 06:49:40.646893  2151 layer_factory.hpp:77] Creating layer ip3
I0501 06:49:40.646901  2151 net.cpp:86] Creating Layer ip3
I0501 06:49:40.646905  2151 net.cpp:408] ip3 <- ip2
I0501 06:49:40.646913  2151 net.cpp:382] ip3 -> ip3
I0501 06:49:40.648417  2151 net.cpp:124] Setting up ip3
I0501 06:49:40.648432  2151 net.cpp:131] Top shape: 111 80 (8880)
I0501 06:49:40.648437  2151 net.cpp:139] Memory required for data: 9867900
I0501 06:49:40.648444  2151 layer_factory.hpp:77] Creating layer relu3
I0501 06:49:40.648452  2151 net.cpp:86] Creating Layer relu3
I0501 06:49:40.648457  2151 net.cpp:408] relu3 <- ip3
I0501 06:49:40.648461  2151 net.cpp:369] relu3 -> ip3 (in-place)
I0501 06:49:40.648646  2151 net.cpp:124] Setting up relu3
I0501 06:49:40.648658  2151 net.cpp:131] Top shape: 111 80 (8880)
I0501 06:49:40.648661  2151 net.cpp:139] Memory required for data: 9903420
I0501 06:49:40.648665  2151 layer_factory.hpp:77] Creating layer ip4
I0501 06:49:40.648697  2151 net.cpp:86] Creating Layer ip4
I0501 06:49:40.648702  2151 net.cpp:408] ip4 <- ip3
I0501 06:49:40.648708  2151 net.cpp:382] ip4 -> ip4
I0501 06:49:40.648852  2151 net.cpp:124] Setting up ip4
I0501 06:49:40.648864  2151 net.cpp:131] Top shape: 111 10 (1110)
I0501 06:49:40.648867  2151 net.cpp:139] Memory required for data: 9907860
I0501 06:49:40.648876  2151 layer_factory.hpp:77] Creating layer loss
I0501 06:49:40.648883  2151 net.cpp:86] Creating Layer loss
I0501 06:49:40.648887  2151 net.cpp:408] loss <- ip4
I0501 06:49:40.648892  2151 net.cpp:408] loss <- label
I0501 06:49:40.648898  2151 net.cpp:382] loss -> loss
I0501 06:49:40.648916  2151 layer_factory.hpp:77] Creating layer loss
…
I0501 06:49:40.650348  2151 solver.cpp:173] Creating test net (#0) specified by net file: ECE595/cifar/train_test/var_everything/cifar_train_test_463.prototxt
I0501 06:49:40.650382  2151 net.cpp:296] The NetState phase (1) differed from the phase (0) specified by a rule in layer cifar
I0501 06:49:40.650496  2151 net.cpp:53] Initializing net from parameters: 
name: "CIFAR"
state {
  phase: TEST
}
layer {
  name: "cifar"
  type: "Data"
  top: "data"
  top: "label"
  include {
    phase: TEST
  }
  transform_param {
    mean_file: "examples/cifar10/mean.binaryproto"
  }
  data_param {
    source: "examples/cifar10/cifar10_test_lmdb"
    batch_size: 1000
    backend: LMDB
  }
}
layer {
  name: "conv0"
  type: "Convolution"
  bottom: "data"
  top: "conv0"
  param {
    lr_mult: 1
  }
  param {
    lr_mult: 2
  }
  convolution_param {
    num_output: 8
    pad: 2
    kernel_size: 5
    stride: 1
    weight_filler {
      type: "gaussian"
      std: 0.01
    }
    bias_filler {
      type: "constant"
    }
  }
}
layer {
  name: "Sigmoid0"
  type: "Sigmoid"
  bottom: "conv0"
  top: "Sigmoid0"
}
layer {
  name: "pool0"
  type: "Pooling"
  bottom: "Sigmoid0"
  top: "pool0"
  pooling_param {
    pool: AVE
    kernel_size: 3
    stride: 2
  }
}
layer {
  name: "ip1"
  type: "InnerProduct"
  bottom: "pool0"
  top: "ip1"
  param {
    lr_mult: 1
  }
  param {
    lr_mult: 2
  }
  inner_product_param {
    num_output: 160
    weight_filler {
      type: "gaussian"
      std: 0.01
    }
    bias_filler {
      type: "constant"
    }
  }
}
layer {
  name: "relu1"
  type: "ReLU"
  bottom: "ip1"
  top: "ip1"
}
layer {
  name: "ip2"
  type: "InnerProduct"
  bottom: "ip1"
  top: "ip2"
  param {
    lr_mult: 1
  }
  param {
    lr_mult: 2
  }
  inner_product_param {
    num_output: 160
    weight_filler {
      type: "gaussian"
      std: 0.01
    }
    bias_filler {
      type: "constant"
    }
  }
}
layer {
  name: "relu2"
  type: "ReLU"
  bottom: "ip2"
  top: "ip2"
}
layer {
  name: "ip3"
  type: "InnerProduct"
  bottom: "ip2"
  top: "ip3"
  param {
    lr_mult: 1
  }
  param {
    lr_mult: 2
  }
  inner_product_param {
    num_output: 80
    weight_filler {
      type: "gaussian"
      std: 0.01
    }
    bias_filler {
      type: "constant"
    }
  }
}
layer {
  name: "relu3"
  type: "ReLU"
  bottom: "ip3"
  top: "ip3"
}
layer {
  name: "ip4"
  type: "InnerProduct"
  bottom: "ip3"
  top: "ip4"
  param {
    lr_mult: 1
  }
  param {
    lr_mult: 2
  }
  inner_product_param {
    num_output: 10
    weight_filler {
      type: "gaussian"
      std: 0.01
    }
    bias_filler {
      type: "constant"
    }
  }
}
layer {
  name: "accuracy"
  type: "Accuracy"
  bottom: "ip4"
  bottom: "label"
  top: "accuracy"
  include {
    phase: TEST
  }
}
layer {
  name: "loss"
  type: "SoftmaxWithLoss"
  bottom: "ip4"
  bottom: "label"
  top: "loss"
}
I0501 06:49:40.650591  2151 layer_factory.hpp:77] Creating layer cifar
I0501 06:49:40.650648  2151 db_lmdb.cpp:35] Opened lmdb examples/cifar10/cifar10_test_lmdb
I0501 06:49:40.650663  2151 net.cpp:86] Creating Layer cifar
I0501 06:49:40.650670  2151 net.cpp:382] cifar -> data
I0501 06:49:40.650678  2151 net.cpp:382] cifar -> label
I0501 06:49:40.650686  2151 data_transformer.cpp:25] Loading mean file from: examples/cifar10/mean.binaryproto
I0501 06:49:40.650856  2151 data_layer.cpp:45] output data size: 1000,3,32,32
I0501 06:49:40.676669  2151 net.cpp:124] Setting up cifar
I0501 06:49:40.676702  2151 net.cpp:131] Top shape: 1000 3 32 32 (3072000)
I0501 06:49:40.676708  2151 net.cpp:131] Top shape: 1000 (1000)
I0501 06:49:40.676712  2151 net.cpp:139] Memory required for data: 12292000
I0501 06:49:40.676719  2151 layer_factory.hpp:77] Creating layer label_cifar_1_split
I0501 06:49:40.676733  2151 net.cpp:86] Creating Layer label_cifar_1_split
I0501 06:49:40.676739  2151 net.cpp:408] label_cifar_1_split <- label
I0501 06:49:40.676746  2151 net.cpp:382] label_cifar_1_split -> label_cifar_1_split_0
I0501 06:49:40.676758  2151 net.cpp:382] label_cifar_1_split -> label_cifar_1_split_1
I0501 06:49:40.676889  2151 net.cpp:124] Setting up label_cifar_1_split
I0501 06:49:40.676899  2151 net.cpp:131] Top shape: 1000 (1000)
I0501 06:49:40.676905  2151 net.cpp:131] Top shape: 1000 (1000)
I0501 06:49:40.676908  2151 net.cpp:139] Memory required for data: 12300000
I0501 06:49:40.676913  2151 layer_factory.hpp:77] Creating layer conv0
I0501 06:49:40.676928  2151 net.cpp:86] Creating Layer conv0
I0501 06:49:40.676931  2151 net.cpp:408] conv0 <- data
I0501 06:49:40.676939  2151 net.cpp:382] conv0 -> conv0
I0501 06:49:40.678707  2151 net.cpp:124] Setting up conv0
I0501 06:49:40.678724  2151 net.cpp:131] Top shape: 1000 8 32 32 (8192000)
I0501 06:49:40.678728  2151 net.cpp:139] Memory required for data: 45068000
I0501 06:49:40.678747  2151 layer_factory.hpp:77] Creating layer Sigmoid0
I0501 06:49:40.678755  2151 net.cpp:86] Creating Layer Sigmoid0
I0501 06:49:40.678759  2151 net.cpp:408] Sigmoid0 <- conv0
I0501 06:49:40.678766  2151 net.cpp:382] Sigmoid0 -> Sigmoid0
I0501 06:49:40.679942  2151 net.cpp:124] Setting up Sigmoid0
I0501 06:49:40.679955  2151 net.cpp:131] Top shape: 1000 8 32 32 (8192000)
I0501 06:49:40.679960  2151 net.cpp:139] Memory required for data: 77836000
I0501 06:49:40.679965  2151 layer_factory.hpp:77] Creating layer pool0
I0501 06:49:40.679973  2151 net.cpp:86] Creating Layer pool0
I0501 06:49:40.679978  2151 net.cpp:408] pool0 <- Sigmoid0
I0501 06:49:40.679985  2151 net.cpp:382] pool0 -> pool0
I0501 06:49:40.680173  2151 net.cpp:124] Setting up pool0
I0501 06:49:40.680183  2151 net.cpp:131] Top shape: 1000 8 16 16 (2048000)
I0501 06:49:40.680188  2151 net.cpp:139] Memory required for data: 86028000
I0501 06:49:40.680192  2151 layer_factory.hpp:77] Creating layer ip1
I0501 06:49:40.680200  2151 net.cpp:86] Creating Layer ip1
I0501 06:49:40.680205  2151 net.cpp:408] ip1 <- pool0
I0501 06:49:40.680212  2151 net.cpp:382] ip1 -> ip1
I0501 06:49:40.692046  2151 net.cpp:124] Setting up ip1
I0501 06:49:40.692064  2151 net.cpp:131] Top shape: 1000 160 (160000)
I0501 06:49:40.692068  2151 net.cpp:139] Memory required for data: 86668000
I0501 06:49:40.692095  2151 layer_factory.hpp:77] Creating layer relu1
I0501 06:49:40.692104  2151 net.cpp:86] Creating Layer relu1
I0501 06:49:40.692108  2151 net.cpp:408] relu1 <- ip1
I0501 06:49:40.692114  2151 net.cpp:369] relu1 -> ip1 (in-place)
I0501 06:49:40.692311  2151 net.cpp:124] Setting up relu1
I0501 06:49:40.692322  2151 net.cpp:131] Top shape: 1000 160 (160000)
I0501 06:49:40.692327  2151 net.cpp:139] Memory required for data: 87308000
I0501 06:49:40.692330  2151 layer_factory.hpp:77] Creating layer ip2
I0501 06:49:40.692339  2151 net.cpp:86] Creating Layer ip2
I0501 06:49:40.692343  2151 net.cpp:408] ip2 <- ip1
I0501 06:49:40.692350  2151 net.cpp:382] ip2 -> ip2
I0501 06:49:40.693323  2151 net.cpp:124] Setting up ip2
I0501 06:49:40.693334  2151 net.cpp:131] Top shape: 1000 160 (160000)
I0501 06:49:40.693338  2151 net.cpp:139] Memory required for data: 87948000
I0501 06:49:40.693347  2151 layer_factory.hpp:77] Creating layer relu2
I0501 06:49:40.693354  2151 net.cpp:86] Creating Layer relu2
I0501 06:49:40.693358  2151 net.cpp:408] relu2 <- ip2
I0501 06:49:40.693363  2151 net.cpp:369] relu2 -> ip2 (in-place)
I0501 06:49:40.694243  2151 net.cpp:124] Setting up relu2
I0501 06:49:40.694258  2151 net.cpp:131] Top shape: 1000 160 (160000)
I0501 06:49:40.694263  2151 net.cpp:139] Memory required for data: 88588000
I0501 06:49:40.694267  2151 layer_factory.hpp:77] Creating layer ip3
I0501 06:49:40.694275  2151 net.cpp:86] Creating Layer ip3
I0501 06:49:40.694280  2151 net.cpp:408] ip3 <- ip2
I0501 06:49:40.694286  2151 net.cpp:382] ip3 -> ip3
I0501 06:49:40.694838  2151 net.cpp:124] Setting up ip3
I0501 06:49:40.694847  2151 net.cpp:131] Top shape: 1000 80 (80000)
I0501 06:49:40.694851  2151 net.cpp:139] Memory required for data: 88908000
I0501 06:49:40.694859  2151 layer_factory.hpp:77] Creating layer relu3
I0501 06:49:40.694865  2151 net.cpp:86] Creating Layer relu3
I0501 06:49:40.694869  2151 net.cpp:408] relu3 <- ip3
I0501 06:49:40.694875  2151 net.cpp:369] relu3 -> ip3 (in-place)
I0501 06:49:40.695052  2151 net.cpp:124] Setting up relu3
I0501 06:49:40.695062  2151 net.cpp:131] Top shape: 1000 80 (80000)
I0501 06:49:40.695066  2151 net.cpp:139] Memory required for data: 89228000
I0501 06:49:40.695070  2151 layer_factory.hpp:77] Creating layer ip4
I0501 06:49:40.695080  2151 net.cpp:86] Creating Layer ip4
I0501 06:49:40.695083  2151 net.cpp:408] ip4 <- ip3
I0501 06:49:40.695089  2151 net.cpp:382] ip4 -> ip4
I0501 06:49:40.695240  2151 net.cpp:124] Setting up ip4
I0501 06:49:40.695250  2151 net.cpp:131] Top shape: 1000 10 (10000)
I0501 06:49:40.695252  2151 net.cpp:139] Memory required for data: 89268000
I0501 06:49:40.695264  2151 layer_factory.hpp:77] Creating layer ip4_ip4_0_split
I0501 06:49:40.695271  2151 net.cpp:86] Creating Layer ip4_ip4_0_split
I0501 06:49:40.695276  2151 net.cpp:408] ip4_ip4_0_split <- ip4
I0501 06:49:40.695281  2151 net.cpp:382] ip4_ip4_0_split -> ip4_ip4_0_split_0
I0501 06:49:40.695287  2151 net.cpp:382] ip4_ip4_0_split -> ip4_ip4_0_split_1
I0501 06:49:40.695327  2151 net.cpp:124] Setting up ip4_ip4_0_split
I0501 06:49:40.695335  2151 net.cpp:131] Top shape: 1000 10 (10000)
I0501 06:49:40.695340  2151 net.cpp:131] Top shape: 1000 10 (10000)
I0501 06:49:40.695343  2151 net.cpp:139] Memory required for data: 89348000
I0501 06:49:40.695348  2151 layer_factory.hpp:77] Creating layer accuracy
I0501 06:49:40.695353  2151 net.cpp:86] Creating Layer accuracy
I0501 06:49:40.695358  2151 net.cpp:408] accuracy <- ip4_ip4_0_split_0
I0501 06:49:40.695363  2151 net.cpp:408] accuracy <- label_cifar_1_split_0
I0501 06:49:40.695369  2151 net.cpp:382] accuracy -> accuracy
…
