…
I0430 17:44:30.208684 20459 net.cpp:296] The NetState phase (0) differed from the phase (1) specified by a rule in layer cifar
I0430 17:44:30.208701 20459 net.cpp:296] The NetState phase (0) differed from the phase (1) specified by a rule in layer accuracy
I0430 17:44:30.208784 20459 net.cpp:53] Initializing net from parameters: 
name: "CIFAR"
state {
  phase: TRAIN
  level: 0
  stage: ""
}
layer {
  name: "cifar"
  type: "Data"
  top: "data"
  top: "label"
  include {
    phase: TRAIN
  }
  transform_param {
    mean_file: "examples/cifar10/mean.binaryproto"
  }
  data_param {
    source: "examples/cifar10/cifar10_train_lmdb"
    batch_size: 111
    backend: LMDB
  }
}
layer {
  name: "ip1"
  type: "InnerProduct"
  bottom: "data"
  top: "ip1"
  param {
    lr_mult: 1
  }
  param {
    lr_mult: 2
  }
  inner_product_param {
    num_output: 10
    weight_filler {
      type: "gaussian"
      std: 0.01
    }
    bias_filler {
      type: "constant"
    }
  }
}
layer {
  name: "relu1"
  type: "ReLU"
  bottom: "ip1"
  top: "ip1"
}
layer {
  name: "ip2"
  type: "InnerProduct"
  bottom: "ip1"
  top: "ip2"
  param {
    lr_mult: 1
  }
  param {
    lr_mult: 2
  }
  inner_product_param {
    num_output: 40
    weight_filler {
      type: "gaussian"
      std: 0.01
    }
    bias_filler {
      type: "constant"
    }
  }
}
layer {
  name: "relu2"
  type: "ReLU"
  bottom: "ip2"
  top: "ip2"
}
layer {
  name: "ip3"
  type: "InnerProduct"
  bottom: "ip2"
  top: "ip3"
  param {
    lr_mult: 1
  }
  param {
    lr_mult: 2
  }
  inner_product_param {
    num_output: 160
    weight_filler {
      type: "gaussian"
      std: 0.01
    }
    bias_filler {
      type: "constant"
    }
  }
}
layer {
  name: "relu3"
  type: "ReLU"
  bottom: "ip3"
  top: "ip3"
}
layer {
  name: "ip4"
  type: "InnerProduct"
  bottom: "ip3"
  top: "ip4"
  param {
    lr_mult: 1
  }
  param {
    lr_mult: 2
  }
  inner_product_param {
    num_output: 10
    weight_filler {
      type: "gaussian"
      std: 0.01
    }
    bias_filler {
      type: "constant"
    }
  }
}
layer {
  name: "loss"
  type: "SoftmaxWithLoss"
  bottom: "ip4"
  bottom: "label"
  top: "loss"
}
I0430 17:44:30.208865 20459 layer_factory.hpp:77] Creating layer cifar
I0430 17:44:30.208966 20459 db_lmdb.cpp:35] Opened lmdb examples/cifar10/cifar10_train_lmdb
I0430 17:44:30.208993 20459 net.cpp:86] Creating Layer cifar
I0430 17:44:30.209002 20459 net.cpp:382] cifar -> data
I0430 17:44:30.209031 20459 net.cpp:382] cifar -> label
I0430 17:44:30.209043 20459 data_transformer.cpp:25] Loading mean file from: examples/cifar10/mean.binaryproto
I0430 17:44:30.211159 20459 data_layer.cpp:45] output data size: 111,3,32,32
I0430 17:44:30.219069 20459 net.cpp:124] Setting up cifar
I0430 17:44:30.219089 20459 net.cpp:131] Top shape: 111 3 32 32 (340992)
I0430 17:44:30.219095 20459 net.cpp:131] Top shape: 111 (111)
I0430 17:44:30.219099 20459 net.cpp:139] Memory required for data: 1364412
I0430 17:44:30.219106 20459 layer_factory.hpp:77] Creating layer ip1
I0430 17:44:30.219131 20459 net.cpp:86] Creating Layer ip1
I0430 17:44:30.219138 20459 net.cpp:408] ip1 <- data
I0430 17:44:30.219151 20459 net.cpp:382] ip1 -> ip1
I0430 17:44:30.221333 20459 net.cpp:124] Setting up ip1
I0430 17:44:30.221349 20459 net.cpp:131] Top shape: 111 10 (1110)
I0430 17:44:30.221352 20459 net.cpp:139] Memory required for data: 1368852
I0430 17:44:30.221367 20459 layer_factory.hpp:77] Creating layer relu1
I0430 17:44:30.221376 20459 net.cpp:86] Creating Layer relu1
I0430 17:44:30.221397 20459 net.cpp:408] relu1 <- ip1
I0430 17:44:30.221405 20459 net.cpp:369] relu1 -> ip1 (in-place)
I0430 17:44:30.502035 20459 net.cpp:124] Setting up relu1
I0430 17:44:30.502076 20459 net.cpp:131] Top shape: 111 10 (1110)
I0430 17:44:30.502080 20459 net.cpp:139] Memory required for data: 1373292
I0430 17:44:30.502099 20459 layer_factory.hpp:77] Creating layer ip2
I0430 17:44:30.502112 20459 net.cpp:86] Creating Layer ip2
I0430 17:44:30.502116 20459 net.cpp:408] ip2 <- ip1
I0430 17:44:30.502123 20459 net.cpp:382] ip2 -> ip2
I0430 17:44:30.503060 20459 net.cpp:124] Setting up ip2
I0430 17:44:30.503072 20459 net.cpp:131] Top shape: 111 40 (4440)
I0430 17:44:30.503092 20459 net.cpp:139] Memory required for data: 1391052
I0430 17:44:30.503101 20459 layer_factory.hpp:77] Creating layer relu2
I0430 17:44:30.503108 20459 net.cpp:86] Creating Layer relu2
I0430 17:44:30.503113 20459 net.cpp:408] relu2 <- ip2
I0430 17:44:30.503116 20459 net.cpp:369] relu2 -> ip2 (in-place)
I0430 17:44:30.503818 20459 net.cpp:124] Setting up relu2
I0430 17:44:30.503830 20459 net.cpp:131] Top shape: 111 40 (4440)
I0430 17:44:30.503849 20459 net.cpp:139] Memory required for data: 1408812
I0430 17:44:30.503852 20459 layer_factory.hpp:77] Creating layer ip3
I0430 17:44:30.503860 20459 net.cpp:86] Creating Layer ip3
I0430 17:44:30.503864 20459 net.cpp:408] ip3 <- ip2
I0430 17:44:30.503868 20459 net.cpp:382] ip3 -> ip3
I0430 17:44:30.504956 20459 net.cpp:124] Setting up ip3
I0430 17:44:30.504984 20459 net.cpp:131] Top shape: 111 160 (17760)
I0430 17:44:30.504987 20459 net.cpp:139] Memory required for data: 1479852
I0430 17:44:30.504995 20459 layer_factory.hpp:77] Creating layer relu3
I0430 17:44:30.505002 20459 net.cpp:86] Creating Layer relu3
I0430 17:44:30.505005 20459 net.cpp:408] relu3 <- ip3
I0430 17:44:30.505010 20459 net.cpp:369] relu3 -> ip3 (in-place)
I0430 17:44:30.505197 20459 net.cpp:124] Setting up relu3
I0430 17:44:30.505205 20459 net.cpp:131] Top shape: 111 160 (17760)
I0430 17:44:30.505208 20459 net.cpp:139] Memory required for data: 1550892
I0430 17:44:30.505211 20459 layer_factory.hpp:77] Creating layer ip4
I0430 17:44:30.505218 20459 net.cpp:86] Creating Layer ip4
I0430 17:44:30.505221 20459 net.cpp:408] ip4 <- ip3
I0430 17:44:30.505226 20459 net.cpp:382] ip4 -> ip4
I0430 17:44:30.505376 20459 net.cpp:124] Setting up ip4
I0430 17:44:30.505383 20459 net.cpp:131] Top shape: 111 10 (1110)
I0430 17:44:30.505385 20459 net.cpp:139] Memory required for data: 1555332
I0430 17:44:30.505390 20459 layer_factory.hpp:77] Creating layer loss
I0430 17:44:30.505398 20459 net.cpp:86] Creating Layer loss
I0430 17:44:30.505401 20459 net.cpp:408] loss <- ip4
I0430 17:44:30.505404 20459 net.cpp:408] loss <- label
I0430 17:44:30.505409 20459 net.cpp:382] loss -> loss
I0430 17:44:30.505425 20459 layer_factory.hpp:77] Creating layer loss
…
I0430 17:44:30.505956 20459 solver.cpp:173] Creating test net (#0) specified by net file: ECE595/cifar/train_test/var_everything/cifar_train_test_44.prototxt
I0430 17:44:30.505992 20459 net.cpp:296] The NetState phase (1) differed from the phase (0) specified by a rule in layer cifar
I0430 17:44:30.506064 20459 net.cpp:53] Initializing net from parameters: 
name: "CIFAR"
state {
  phase: TEST
}
layer {
  name: "cifar"
  type: "Data"
  top: "data"
  top: "label"
  include {
    phase: TEST
  }
  transform_param {
    mean_file: "examples/cifar10/mean.binaryproto"
  }
  data_param {
    source: "examples/cifar10/cifar10_test_lmdb"
    batch_size: 1000
    backend: LMDB
  }
}
layer {
  name: "ip1"
  type: "InnerProduct"
  bottom: "data"
  top: "ip1"
  param {
    lr_mult: 1
  }
  param {
    lr_mult: 2
  }
  inner_product_param {
    num_output: 10
    weight_filler {
      type: "gaussian"
      std: 0.01
    }
    bias_filler {
      type: "constant"
    }
  }
}
layer {
  name: "relu1"
  type: "ReLU"
  bottom: "ip1"
  top: "ip1"
}
layer {
  name: "ip2"
  type: "InnerProduct"
  bottom: "ip1"
  top: "ip2"
  param {
    lr_mult: 1
  }
  param {
    lr_mult: 2
  }
  inner_product_param {
    num_output: 40
    weight_filler {
      type: "gaussian"
      std: 0.01
    }
    bias_filler {
      type: "constant"
    }
  }
}
layer {
  name: "relu2"
  type: "ReLU"
  bottom: "ip2"
  top: "ip2"
}
layer {
  name: "ip3"
  type: "InnerProduct"
  bottom: "ip2"
  top: "ip3"
  param {
    lr_mult: 1
  }
  param {
    lr_mult: 2
  }
  inner_product_param {
    num_output: 160
    weight_filler {
      type: "gaussian"
      std: 0.01
    }
    bias_filler {
      type: "constant"
    }
  }
}
layer {
  name: "relu3"
  type: "ReLU"
  bottom: "ip3"
  top: "ip3"
}
layer {
  name: "ip4"
  type: "InnerProduct"
  bottom: "ip3"
  top: "ip4"
  param {
    lr_mult: 1
  }
  param {
    lr_mult: 2
  }
  inner_product_param {
    num_output: 10
    weight_filler {
      type: "gaussian"
      std: 0.01
    }
    bias_filler {
      type: "constant"
    }
  }
}
layer {
  name: "accuracy"
  type: "Accuracy"
  bottom: "ip4"
  bottom: "label"
  top: "accuracy"
  include {
    phase: TEST
  }
}
layer {
  name: "loss"
  type: "SoftmaxWithLoss"
  bottom: "ip4"
  bottom: "label"
  top: "loss"
}
I0430 17:44:30.506124 20459 layer_factory.hpp:77] Creating layer cifar
I0430 17:44:30.506183 20459 db_lmdb.cpp:35] Opened lmdb examples/cifar10/cifar10_test_lmdb
I0430 17:44:30.506196 20459 net.cpp:86] Creating Layer cifar
I0430 17:44:30.506201 20459 net.cpp:382] cifar -> data
I0430 17:44:30.506208 20459 net.cpp:382] cifar -> label
I0430 17:44:30.506214 20459 data_transformer.cpp:25] Loading mean file from: examples/cifar10/mean.binaryproto
I0430 17:44:30.506373 20459 data_layer.cpp:45] output data size: 1000,3,32,32
I0430 17:44:30.529278 20459 net.cpp:124] Setting up cifar
I0430 17:44:30.529320 20459 net.cpp:131] Top shape: 1000 3 32 32 (3072000)
I0430 17:44:30.529326 20459 net.cpp:131] Top shape: 1000 (1000)
I0430 17:44:30.529330 20459 net.cpp:139] Memory required for data: 12292000
I0430 17:44:30.529335 20459 layer_factory.hpp:77] Creating layer label_cifar_1_split
I0430 17:44:30.529351 20459 net.cpp:86] Creating Layer label_cifar_1_split
I0430 17:44:30.529356 20459 net.cpp:408] label_cifar_1_split <- label
I0430 17:44:30.529363 20459 net.cpp:382] label_cifar_1_split -> label_cifar_1_split_0
I0430 17:44:30.529371 20459 net.cpp:382] label_cifar_1_split -> label_cifar_1_split_1
I0430 17:44:30.529455 20459 net.cpp:124] Setting up label_cifar_1_split
I0430 17:44:30.529471 20459 net.cpp:131] Top shape: 1000 (1000)
I0430 17:44:30.529474 20459 net.cpp:131] Top shape: 1000 (1000)
I0430 17:44:30.529477 20459 net.cpp:139] Memory required for data: 12300000
I0430 17:44:30.529480 20459 layer_factory.hpp:77] Creating layer ip1
I0430 17:44:30.529490 20459 net.cpp:86] Creating Layer ip1
I0430 17:44:30.529494 20459 net.cpp:408] ip1 <- data
I0430 17:44:30.529497 20459 net.cpp:382] ip1 -> ip1
I0430 17:44:30.530441 20459 net.cpp:124] Setting up ip1
I0430 17:44:30.530449 20459 net.cpp:131] Top shape: 1000 10 (10000)
I0430 17:44:30.530467 20459 net.cpp:139] Memory required for data: 12340000
I0430 17:44:30.530491 20459 layer_factory.hpp:77] Creating layer relu1
I0430 17:44:30.530499 20459 net.cpp:86] Creating Layer relu1
I0430 17:44:30.530516 20459 net.cpp:408] relu1 <- ip1
I0430 17:44:30.530520 20459 net.cpp:369] relu1 -> ip1 (in-place)
I0430 17:44:30.531383 20459 net.cpp:124] Setting up relu1
I0430 17:44:30.531394 20459 net.cpp:131] Top shape: 1000 10 (10000)
I0430 17:44:30.531414 20459 net.cpp:139] Memory required for data: 12380000
I0430 17:44:30.531417 20459 layer_factory.hpp:77] Creating layer ip2
I0430 17:44:30.531426 20459 net.cpp:86] Creating Layer ip2
I0430 17:44:30.531430 20459 net.cpp:408] ip2 <- ip1
I0430 17:44:30.531436 20459 net.cpp:382] ip2 -> ip2
I0430 17:44:30.532533 20459 net.cpp:124] Setting up ip2
I0430 17:44:30.532542 20459 net.cpp:131] Top shape: 1000 40 (40000)
I0430 17:44:30.532544 20459 net.cpp:139] Memory required for data: 12540000
I0430 17:44:30.532568 20459 layer_factory.hpp:77] Creating layer relu2
I0430 17:44:30.532575 20459 net.cpp:86] Creating Layer relu2
I0430 17:44:30.532579 20459 net.cpp:408] relu2 <- ip2
I0430 17:44:30.532583 20459 net.cpp:369] relu2 -> ip2 (in-place)
I0430 17:44:30.532757 20459 net.cpp:124] Setting up relu2
I0430 17:44:30.532768 20459 net.cpp:131] Top shape: 1000 40 (40000)
I0430 17:44:30.532770 20459 net.cpp:139] Memory required for data: 12700000
I0430 17:44:30.532773 20459 layer_factory.hpp:77] Creating layer ip3
I0430 17:44:30.532780 20459 net.cpp:86] Creating Layer ip3
I0430 17:44:30.532783 20459 net.cpp:408] ip3 <- ip2
I0430 17:44:30.532789 20459 net.cpp:382] ip3 -> ip3
I0430 17:44:30.533105 20459 net.cpp:124] Setting up ip3
I0430 17:44:30.533114 20459 net.cpp:131] Top shape: 1000 160 (160000)
I0430 17:44:30.533118 20459 net.cpp:139] Memory required for data: 13340000
I0430 17:44:30.533125 20459 layer_factory.hpp:77] Creating layer relu3
I0430 17:44:30.533144 20459 net.cpp:86] Creating Layer relu3
I0430 17:44:30.533149 20459 net.cpp:408] relu3 <- ip3
I0430 17:44:30.533152 20459 net.cpp:369] relu3 -> ip3 (in-place)
I0430 17:44:30.533318 20459 net.cpp:124] Setting up relu3
I0430 17:44:30.533327 20459 net.cpp:131] Top shape: 1000 160 (160000)
I0430 17:44:30.533330 20459 net.cpp:139] Memory required for data: 13980000
I0430 17:44:30.533334 20459 layer_factory.hpp:77] Creating layer ip4
I0430 17:44:30.533341 20459 net.cpp:86] Creating Layer ip4
I0430 17:44:30.533344 20459 net.cpp:408] ip4 <- ip3
I0430 17:44:30.533351 20459 net.cpp:382] ip4 -> ip4
I0430 17:44:30.533505 20459 net.cpp:124] Setting up ip4
I0430 17:44:30.533512 20459 net.cpp:131] Top shape: 1000 10 (10000)
I0430 17:44:30.533515 20459 net.cpp:139] Memory required for data: 14020000
I0430 17:44:30.533520 20459 layer_factory.hpp:77] Creating layer ip4_ip4_0_split
I0430 17:44:30.533527 20459 net.cpp:86] Creating Layer ip4_ip4_0_split
I0430 17:44:30.533530 20459 net.cpp:408] ip4_ip4_0_split <- ip4
I0430 17:44:30.533535 20459 net.cpp:382] ip4_ip4_0_split -> ip4_ip4_0_split_0
I0430 17:44:30.533541 20459 net.cpp:382] ip4_ip4_0_split -> ip4_ip4_0_split_1
I0430 17:44:30.533571 20459 net.cpp:124] Setting up ip4_ip4_0_split
I0430 17:44:30.533581 20459 net.cpp:131] Top shape: 1000 10 (10000)
I0430 17:44:30.533586 20459 net.cpp:131] Top shape: 1000 10 (10000)
I0430 17:44:30.533587 20459 net.cpp:139] Memory required for data: 14100000
I0430 17:44:30.533591 20459 layer_factory.hpp:77] Creating layer accuracy
I0430 17:44:30.533597 20459 net.cpp:86] Creating Layer accuracy
I0430 17:44:30.533601 20459 net.cpp:408] accuracy <- ip4_ip4_0_split_0
I0430 17:44:30.533604 20459 net.cpp:408] accuracy <- label_cifar_1_split_0
I0430 17:44:30.533608 20459 net.cpp:382] accuracy -> accuracy
…
