…
I0501 01:14:29.096552  9770 net.cpp:296] The NetState phase (0) differed from the phase (1) specified by a rule in layer cifar
I0501 01:14:29.096571  9770 net.cpp:296] The NetState phase (0) differed from the phase (1) specified by a rule in layer accuracy
I0501 01:14:29.096671  9770 net.cpp:53] Initializing net from parameters: 
name: "CIFAR"
state {
  phase: TRAIN
  level: 0
  stage: ""
}
layer {
  name: "cifar"
  type: "Data"
  top: "data"
  top: "label"
  include {
    phase: TRAIN
  }
  transform_param {
    mean_file: "examples/cifar10/mean.binaryproto"
  }
  data_param {
    source: "examples/cifar10/cifar10_train_lmdb"
    batch_size: 111
    backend: LMDB
  }
}
layer {
  name: "conv0"
  type: "Convolution"
  bottom: "data"
  top: "conv0"
  param {
    lr_mult: 1
  }
  param {
    lr_mult: 2
  }
  convolution_param {
    num_output: 8
    pad: 2
    kernel_size: 3
    stride: 1
    weight_filler {
      type: "gaussian"
      std: 0.01
    }
    bias_filler {
      type: "constant"
    }
  }
}
layer {
  name: "Sigmoid0"
  type: "Sigmoid"
  bottom: "conv0"
  top: "Sigmoid0"
}
layer {
  name: "pool0"
  type: "Pooling"
  bottom: "Sigmoid0"
  top: "pool0"
  pooling_param {
    pool: AVE
    kernel_size: 3
    stride: 2
  }
}
layer {
  name: "ip1"
  type: "InnerProduct"
  bottom: "pool0"
  top: "ip1"
  param {
    lr_mult: 1
  }
  param {
    lr_mult: 2
  }
  inner_product_param {
    num_output: 80
    weight_filler {
      type: "gaussian"
      std: 0.01
    }
    bias_filler {
      type: "constant"
    }
  }
}
layer {
  name: "relu1"
  type: "ReLU"
  bottom: "ip1"
  top: "ip1"
}
layer {
  name: "ip2"
  type: "InnerProduct"
  bottom: "ip1"
  top: "ip2"
  param {
    lr_mult: 1
  }
  param {
    lr_mult: 2
  }
  inner_product_param {
    num_output: 160
    weight_filler {
      type: "gaussian"
      std: 0.01
    }
    bias_filler {
      type: "constant"
    }
  }
}
layer {
  name: "relu2"
  type: "ReLU"
  bottom: "ip2"
  top: "ip2"
}
layer {
  name: "ip3"
  type: "InnerProduct"
  bottom: "ip2"
  top: "ip3"
  param {
    lr_mult: 1
  }
  param {
    lr_mult: 2
  }
  inner_product_param {
    num_output: 80
    weight_filler {
      type: "gaussian"
      std: 0.01
    }
    bias_filler {
      type: "constant"
    }
  }
}
layer {
  name: "relu3"
  type: "ReLU"
  bottom: "ip3"
  top: "ip3"
}
layer {
  name: "ip4"
  type: "InnerProduct"
  bottom: "ip3"
  top: "ip4"
  param {
    lr_mult: 1
  }
  param {
    lr_mult: 2
  }
  inner_product_param {
    num_output: 10
    weight_filler {
      type: "gaussian"
      std: 0.01
    }
    bias_filler {
      type: "constant"
    }
  }
}
layer {
  name: "loss"
  type: "SoftmaxWithLoss"
  bottom: "ip4"
  bottom: "label"
  top: "loss"
}
I0501 01:14:29.096745  9770 layer_factory.hpp:77] Creating layer cifar
I0501 01:14:29.096850  9770 db_lmdb.cpp:35] Opened lmdb examples/cifar10/cifar10_train_lmdb
I0501 01:14:29.096879  9770 net.cpp:86] Creating Layer cifar
I0501 01:14:29.096887  9770 net.cpp:382] cifar -> data
I0501 01:14:29.096909  9770 net.cpp:382] cifar -> label
I0501 01:14:29.096922  9770 data_transformer.cpp:25] Loading mean file from: examples/cifar10/mean.binaryproto
I0501 01:14:29.099019  9770 data_layer.cpp:45] output data size: 111,3,32,32
I0501 01:14:29.106884  9770 net.cpp:124] Setting up cifar
I0501 01:14:29.106904  9770 net.cpp:131] Top shape: 111 3 32 32 (340992)
I0501 01:14:29.106909  9770 net.cpp:131] Top shape: 111 (111)
I0501 01:14:29.106914  9770 net.cpp:139] Memory required for data: 1364412
I0501 01:14:29.106937  9770 layer_factory.hpp:77] Creating layer conv0
I0501 01:14:29.106956  9770 net.cpp:86] Creating Layer conv0
I0501 01:14:29.106961  9770 net.cpp:408] conv0 <- data
I0501 01:14:29.106973  9770 net.cpp:382] conv0 -> conv0
I0501 01:14:29.377621  9770 net.cpp:124] Setting up conv0
I0501 01:14:29.377665  9770 net.cpp:131] Top shape: 111 8 34 34 (1026528)
I0501 01:14:29.377671  9770 net.cpp:139] Memory required for data: 5470524
I0501 01:14:29.377686  9770 layer_factory.hpp:77] Creating layer Sigmoid0
I0501 01:14:29.377697  9770 net.cpp:86] Creating Layer Sigmoid0
I0501 01:14:29.377702  9770 net.cpp:408] Sigmoid0 <- conv0
I0501 01:14:29.377707  9770 net.cpp:382] Sigmoid0 -> Sigmoid0
I0501 01:14:29.377889  9770 net.cpp:124] Setting up Sigmoid0
I0501 01:14:29.377899  9770 net.cpp:131] Top shape: 111 8 34 34 (1026528)
I0501 01:14:29.377903  9770 net.cpp:139] Memory required for data: 9576636
I0501 01:14:29.377907  9770 layer_factory.hpp:77] Creating layer pool0
I0501 01:14:29.377914  9770 net.cpp:86] Creating Layer pool0
I0501 01:14:29.377918  9770 net.cpp:408] pool0 <- Sigmoid0
I0501 01:14:29.377923  9770 net.cpp:382] pool0 -> pool0
I0501 01:14:29.378682  9770 net.cpp:124] Setting up pool0
I0501 01:14:29.378711  9770 net.cpp:131] Top shape: 111 8 17 17 (256632)
I0501 01:14:29.378715  9770 net.cpp:139] Memory required for data: 10603164
I0501 01:14:29.378720  9770 layer_factory.hpp:77] Creating layer ip1
I0501 01:14:29.378728  9770 net.cpp:86] Creating Layer ip1
I0501 01:14:29.378731  9770 net.cpp:408] ip1 <- pool0
I0501 01:14:29.378737  9770 net.cpp:382] ip1 -> ip1
I0501 01:14:29.384676  9770 net.cpp:124] Setting up ip1
I0501 01:14:29.384688  9770 net.cpp:131] Top shape: 111 80 (8880)
I0501 01:14:29.384692  9770 net.cpp:139] Memory required for data: 10638684
I0501 01:14:29.384701  9770 layer_factory.hpp:77] Creating layer relu1
I0501 01:14:29.384706  9770 net.cpp:86] Creating Layer relu1
I0501 01:14:29.384711  9770 net.cpp:408] relu1 <- ip1
I0501 01:14:29.384730  9770 net.cpp:369] relu1 -> ip1 (in-place)
I0501 01:14:29.384910  9770 net.cpp:124] Setting up relu1
I0501 01:14:29.384920  9770 net.cpp:131] Top shape: 111 80 (8880)
I0501 01:14:29.384923  9770 net.cpp:139] Memory required for data: 10674204
I0501 01:14:29.384927  9770 layer_factory.hpp:77] Creating layer ip2
I0501 01:14:29.384933  9770 net.cpp:86] Creating Layer ip2
I0501 01:14:29.384938  9770 net.cpp:408] ip2 <- ip1
I0501 01:14:29.384943  9770 net.cpp:382] ip2 -> ip2
I0501 01:14:29.386205  9770 net.cpp:124] Setting up ip2
I0501 01:14:29.386219  9770 net.cpp:131] Top shape: 111 160 (17760)
I0501 01:14:29.386221  9770 net.cpp:139] Memory required for data: 10745244
I0501 01:14:29.386229  9770 layer_factory.hpp:77] Creating layer relu2
I0501 01:14:29.386234  9770 net.cpp:86] Creating Layer relu2
I0501 01:14:29.386238  9770 net.cpp:408] relu2 <- ip2
I0501 01:14:29.386243  9770 net.cpp:369] relu2 -> ip2 (in-place)
I0501 01:14:29.386420  9770 net.cpp:124] Setting up relu2
I0501 01:14:29.386428  9770 net.cpp:131] Top shape: 111 160 (17760)
I0501 01:14:29.386431  9770 net.cpp:139] Memory required for data: 10816284
I0501 01:14:29.386435  9770 layer_factory.hpp:77] Creating layer ip3
I0501 01:14:29.386442  9770 net.cpp:86] Creating Layer ip3
I0501 01:14:29.386445  9770 net.cpp:408] ip3 <- ip2
I0501 01:14:29.386451  9770 net.cpp:382] ip3 -> ip3
I0501 01:14:29.386891  9770 net.cpp:124] Setting up ip3
I0501 01:14:29.386898  9770 net.cpp:131] Top shape: 111 80 (8880)
I0501 01:14:29.386901  9770 net.cpp:139] Memory required for data: 10851804
I0501 01:14:29.386906  9770 layer_factory.hpp:77] Creating layer relu3
I0501 01:14:29.386911  9770 net.cpp:86] Creating Layer relu3
I0501 01:14:29.386914  9770 net.cpp:408] relu3 <- ip3
I0501 01:14:29.386919  9770 net.cpp:369] relu3 -> ip3 (in-place)
I0501 01:14:29.387081  9770 net.cpp:124] Setting up relu3
I0501 01:14:29.387090  9770 net.cpp:131] Top shape: 111 80 (8880)
I0501 01:14:29.387094  9770 net.cpp:139] Memory required for data: 10887324
I0501 01:14:29.387096  9770 layer_factory.hpp:77] Creating layer ip4
I0501 01:14:29.387117  9770 net.cpp:86] Creating Layer ip4
I0501 01:14:29.387121  9770 net.cpp:408] ip4 <- ip3
I0501 01:14:29.387126  9770 net.cpp:382] ip4 -> ip4
I0501 01:14:29.388065  9770 net.cpp:124] Setting up ip4
I0501 01:14:29.388077  9770 net.cpp:131] Top shape: 111 10 (1110)
I0501 01:14:29.388082  9770 net.cpp:139] Memory required for data: 10891764
I0501 01:14:29.388089  9770 layer_factory.hpp:77] Creating layer loss
I0501 01:14:29.388095  9770 net.cpp:86] Creating Layer loss
I0501 01:14:29.388098  9770 net.cpp:408] loss <- ip4
I0501 01:14:29.388103  9770 net.cpp:408] loss <- label
I0501 01:14:29.388108  9770 net.cpp:382] loss -> loss
I0501 01:14:29.388126  9770 layer_factory.hpp:77] Creating layer loss
…
I0501 01:14:29.389443  9770 solver.cpp:173] Creating test net (#0) specified by net file: ECE595/cifar/train_test/var_everything/cifar_train_test_283.prototxt
I0501 01:14:29.389502  9770 net.cpp:296] The NetState phase (1) differed from the phase (0) specified by a rule in layer cifar
I0501 01:14:29.389621  9770 net.cpp:53] Initializing net from parameters: 
name: "CIFAR"
state {
  phase: TEST
}
layer {
  name: "cifar"
  type: "Data"
  top: "data"
  top: "label"
  include {
    phase: TEST
  }
  transform_param {
    mean_file: "examples/cifar10/mean.binaryproto"
  }
  data_param {
    source: "examples/cifar10/cifar10_test_lmdb"
    batch_size: 1000
    backend: LMDB
  }
}
layer {
  name: "conv0"
  type: "Convolution"
  bottom: "data"
  top: "conv0"
  param {
    lr_mult: 1
  }
  param {
    lr_mult: 2
  }
  convolution_param {
    num_output: 8
    pad: 2
    kernel_size: 3
    stride: 1
    weight_filler {
      type: "gaussian"
      std: 0.01
    }
    bias_filler {
      type: "constant"
    }
  }
}
layer {
  name: "Sigmoid0"
  type: "Sigmoid"
  bottom: "conv0"
  top: "Sigmoid0"
}
layer {
  name: "pool0"
  type: "Pooling"
  bottom: "Sigmoid0"
  top: "pool0"
  pooling_param {
    pool: AVE
    kernel_size: 3
    stride: 2
  }
}
layer {
  name: "ip1"
  type: "InnerProduct"
  bottom: "pool0"
  top: "ip1"
  param {
    lr_mult: 1
  }
  param {
    lr_mult: 2
  }
  inner_product_param {
    num_output: 80
    weight_filler {
      type: "gaussian"
      std: 0.01
    }
    bias_filler {
      type: "constant"
    }
  }
}
layer {
  name: "relu1"
  type: "ReLU"
  bottom: "ip1"
  top: "ip1"
}
layer {
  name: "ip2"
  type: "InnerProduct"
  bottom: "ip1"
  top: "ip2"
  param {
    lr_mult: 1
  }
  param {
    lr_mult: 2
  }
  inner_product_param {
    num_output: 160
    weight_filler {
      type: "gaussian"
      std: 0.01
    }
    bias_filler {
      type: "constant"
    }
  }
}
layer {
  name: "relu2"
  type: "ReLU"
  bottom: "ip2"
  top: "ip2"
}
layer {
  name: "ip3"
  type: "InnerProduct"
  bottom: "ip2"
  top: "ip3"
  param {
    lr_mult: 1
  }
  param {
    lr_mult: 2
  }
  inner_product_param {
    num_output: 80
    weight_filler {
      type: "gaussian"
      std: 0.01
    }
    bias_filler {
      type: "constant"
    }
  }
}
layer {
  name: "relu3"
  type: "ReLU"
  bottom: "ip3"
  top: "ip3"
}
layer {
  name: "ip4"
  type: "InnerProduct"
  bottom: "ip3"
  top: "ip4"
  param {
    lr_mult: 1
  }
  param {
    lr_mult: 2
  }
  inner_product_param {
    num_output: 10
    weight_filler {
      type: "gaussian"
      std: 0.01
    }
    bias_filler {
      type: "constant"
    }
  }
}
layer {
  name: "accuracy"
  type: "Accuracy"
  bottom: "ip4"
  bottom: "label"
  top: "accuracy"
  include {
    phase: TEST
  }
}
layer {
  name: "loss"
  type: "SoftmaxWithLoss"
  bottom: "ip4"
  bottom: "label"
  top: "loss"
}
I0501 01:14:29.389700  9770 layer_factory.hpp:77] Creating layer cifar
I0501 01:14:29.389744  9770 db_lmdb.cpp:35] Opened lmdb examples/cifar10/cifar10_test_lmdb
I0501 01:14:29.389757  9770 net.cpp:86] Creating Layer cifar
I0501 01:14:29.389761  9770 net.cpp:382] cifar -> data
I0501 01:14:29.389770  9770 net.cpp:382] cifar -> label
I0501 01:14:29.389776  9770 data_transformer.cpp:25] Loading mean file from: examples/cifar10/mean.binaryproto
I0501 01:14:29.389917  9770 data_layer.cpp:45] output data size: 1000,3,32,32
I0501 01:14:29.412194  9770 net.cpp:124] Setting up cifar
I0501 01:14:29.412235  9770 net.cpp:131] Top shape: 1000 3 32 32 (3072000)
I0501 01:14:29.412242  9770 net.cpp:131] Top shape: 1000 (1000)
I0501 01:14:29.412245  9770 net.cpp:139] Memory required for data: 12292000
I0501 01:14:29.412252  9770 layer_factory.hpp:77] Creating layer label_cifar_1_split
I0501 01:14:29.412269  9770 net.cpp:86] Creating Layer label_cifar_1_split
I0501 01:14:29.412273  9770 net.cpp:408] label_cifar_1_split <- label
I0501 01:14:29.412295  9770 net.cpp:382] label_cifar_1_split -> label_cifar_1_split_0
I0501 01:14:29.412305  9770 net.cpp:382] label_cifar_1_split -> label_cifar_1_split_1
I0501 01:14:29.412426  9770 net.cpp:124] Setting up label_cifar_1_split
I0501 01:14:29.412434  9770 net.cpp:131] Top shape: 1000 (1000)
I0501 01:14:29.412438  9770 net.cpp:131] Top shape: 1000 (1000)
I0501 01:14:29.412441  9770 net.cpp:139] Memory required for data: 12300000
I0501 01:14:29.412444  9770 layer_factory.hpp:77] Creating layer conv0
I0501 01:14:29.412457  9770 net.cpp:86] Creating Layer conv0
I0501 01:14:29.412461  9770 net.cpp:408] conv0 <- data
I0501 01:14:29.412467  9770 net.cpp:382] conv0 -> conv0
I0501 01:14:29.414099  9770 net.cpp:124] Setting up conv0
I0501 01:14:29.414129  9770 net.cpp:131] Top shape: 1000 8 34 34 (9248000)
I0501 01:14:29.414132  9770 net.cpp:139] Memory required for data: 49292000
I0501 01:14:29.414142  9770 layer_factory.hpp:77] Creating layer Sigmoid0
I0501 01:14:29.414149  9770 net.cpp:86] Creating Layer Sigmoid0
I0501 01:14:29.414152  9770 net.cpp:408] Sigmoid0 <- conv0
I0501 01:14:29.414157  9770 net.cpp:382] Sigmoid0 -> Sigmoid0
I0501 01:14:29.414355  9770 net.cpp:124] Setting up Sigmoid0
I0501 01:14:29.414366  9770 net.cpp:131] Top shape: 1000 8 34 34 (9248000)
I0501 01:14:29.414368  9770 net.cpp:139] Memory required for data: 86284000
I0501 01:14:29.414372  9770 layer_factory.hpp:77] Creating layer pool0
I0501 01:14:29.414381  9770 net.cpp:86] Creating Layer pool0
I0501 01:14:29.414383  9770 net.cpp:408] pool0 <- Sigmoid0
I0501 01:14:29.414388  9770 net.cpp:382] pool0 -> pool0
I0501 01:14:29.414647  9770 net.cpp:124] Setting up pool0
I0501 01:14:29.414657  9770 net.cpp:131] Top shape: 1000 8 17 17 (2312000)
I0501 01:14:29.414660  9770 net.cpp:139] Memory required for data: 95532000
I0501 01:14:29.414664  9770 layer_factory.hpp:77] Creating layer ip1
I0501 01:14:29.414672  9770 net.cpp:86] Creating Layer ip1
I0501 01:14:29.414675  9770 net.cpp:408] ip1 <- pool0
I0501 01:14:29.414681  9770 net.cpp:382] ip1 -> ip1
I0501 01:14:29.420661  9770 net.cpp:124] Setting up ip1
I0501 01:14:29.420672  9770 net.cpp:131] Top shape: 1000 80 (80000)
I0501 01:14:29.420691  9770 net.cpp:139] Memory required for data: 95852000
I0501 01:14:29.420713  9770 layer_factory.hpp:77] Creating layer relu1
I0501 01:14:29.420720  9770 net.cpp:86] Creating Layer relu1
I0501 01:14:29.420723  9770 net.cpp:408] relu1 <- ip1
I0501 01:14:29.420744  9770 net.cpp:369] relu1 -> ip1 (in-place)
I0501 01:14:29.420955  9770 net.cpp:124] Setting up relu1
I0501 01:14:29.420965  9770 net.cpp:131] Top shape: 1000 80 (80000)
I0501 01:14:29.420969  9770 net.cpp:139] Memory required for data: 96172000
I0501 01:14:29.420974  9770 layer_factory.hpp:77] Creating layer ip2
I0501 01:14:29.420980  9770 net.cpp:86] Creating Layer ip2
I0501 01:14:29.420984  9770 net.cpp:408] ip2 <- ip1
I0501 01:14:29.420990  9770 net.cpp:382] ip2 -> ip2
I0501 01:14:29.421506  9770 net.cpp:124] Setting up ip2
I0501 01:14:29.421514  9770 net.cpp:131] Top shape: 1000 160 (160000)
I0501 01:14:29.421532  9770 net.cpp:139] Memory required for data: 96812000
I0501 01:14:29.421540  9770 layer_factory.hpp:77] Creating layer relu2
I0501 01:14:29.421547  9770 net.cpp:86] Creating Layer relu2
I0501 01:14:29.421550  9770 net.cpp:408] relu2 <- ip2
I0501 01:14:29.421555  9770 net.cpp:369] relu2 -> ip2 (in-place)
I0501 01:14:29.422343  9770 net.cpp:124] Setting up relu2
I0501 01:14:29.422355  9770 net.cpp:131] Top shape: 1000 160 (160000)
I0501 01:14:29.422374  9770 net.cpp:139] Memory required for data: 97452000
I0501 01:14:29.422379  9770 layer_factory.hpp:77] Creating layer ip3
I0501 01:14:29.422384  9770 net.cpp:86] Creating Layer ip3
I0501 01:14:29.422389  9770 net.cpp:408] ip3 <- ip2
I0501 01:14:29.422394  9770 net.cpp:382] ip3 -> ip3
I0501 01:14:29.422894  9770 net.cpp:124] Setting up ip3
I0501 01:14:29.422901  9770 net.cpp:131] Top shape: 1000 80 (80000)
I0501 01:14:29.422919  9770 net.cpp:139] Memory required for data: 97772000
I0501 01:14:29.422925  9770 layer_factory.hpp:77] Creating layer relu3
I0501 01:14:29.422931  9770 net.cpp:86] Creating Layer relu3
I0501 01:14:29.422935  9770 net.cpp:408] relu3 <- ip3
I0501 01:14:29.422938  9770 net.cpp:369] relu3 -> ip3 (in-place)
I0501 01:14:29.423117  9770 net.cpp:124] Setting up relu3
I0501 01:14:29.423127  9770 net.cpp:131] Top shape: 1000 80 (80000)
I0501 01:14:29.423130  9770 net.cpp:139] Memory required for data: 98092000
I0501 01:14:29.423135  9770 layer_factory.hpp:77] Creating layer ip4
I0501 01:14:29.423141  9770 net.cpp:86] Creating Layer ip4
I0501 01:14:29.423143  9770 net.cpp:408] ip4 <- ip3
I0501 01:14:29.423148  9770 net.cpp:382] ip4 -> ip4
I0501 01:14:29.423276  9770 net.cpp:124] Setting up ip4
I0501 01:14:29.423285  9770 net.cpp:131] Top shape: 1000 10 (10000)
I0501 01:14:29.423287  9770 net.cpp:139] Memory required for data: 98132000
I0501 01:14:29.423296  9770 layer_factory.hpp:77] Creating layer ip4_ip4_0_split
I0501 01:14:29.423301  9770 net.cpp:86] Creating Layer ip4_ip4_0_split
I0501 01:14:29.423305  9770 net.cpp:408] ip4_ip4_0_split <- ip4
I0501 01:14:29.423310  9770 net.cpp:382] ip4_ip4_0_split -> ip4_ip4_0_split_0
I0501 01:14:29.423315  9770 net.cpp:382] ip4_ip4_0_split -> ip4_ip4_0_split_1
I0501 01:14:29.423348  9770 net.cpp:124] Setting up ip4_ip4_0_split
I0501 01:14:29.423357  9770 net.cpp:131] Top shape: 1000 10 (10000)
I0501 01:14:29.423360  9770 net.cpp:131] Top shape: 1000 10 (10000)
I0501 01:14:29.423363  9770 net.cpp:139] Memory required for data: 98212000
I0501 01:14:29.423367  9770 layer_factory.hpp:77] Creating layer accuracy
I0501 01:14:29.423373  9770 net.cpp:86] Creating Layer accuracy
I0501 01:14:29.423377  9770 net.cpp:408] accuracy <- ip4_ip4_0_split_0
I0501 01:14:29.423382  9770 net.cpp:408] accuracy <- label_cifar_1_split_0
I0501 01:14:29.423385  9770 net.cpp:382] accuracy -> accuracy
…
