…
I0501 07:05:05.829661  3437 net.cpp:296] The NetState phase (0) differed from the phase (1) specified by a rule in layer cifar
I0501 07:05:05.829679  3437 net.cpp:296] The NetState phase (0) differed from the phase (1) specified by a rule in layer accuracy
I0501 07:05:05.829771  3437 net.cpp:53] Initializing net from parameters: 
name: "CIFAR"
state {
  phase: TRAIN
  level: 0
  stage: ""
}
layer {
  name: "cifar"
  type: "Data"
  top: "data"
  top: "label"
  include {
    phase: TRAIN
  }
  transform_param {
    mean_file: "examples/cifar10/mean.binaryproto"
  }
  data_param {
    source: "examples/cifar10/cifar10_train_lmdb"
    batch_size: 111
    backend: LMDB
  }
}
layer {
  name: "conv0"
  type: "Convolution"
  bottom: "data"
  top: "conv0"
  param {
    lr_mult: 1
  }
  param {
    lr_mult: 2
  }
  convolution_param {
    num_output: 16
    pad: 2
    kernel_size: 3
    stride: 1
    weight_filler {
      type: "gaussian"
      std: 0.01
    }
    bias_filler {
      type: "constant"
    }
  }
}
layer {
  name: "Sigmoid0"
  type: "Sigmoid"
  bottom: "conv0"
  top: "Sigmoid0"
}
layer {
  name: "pool0"
  type: "Pooling"
  bottom: "Sigmoid0"
  top: "pool0"
  pooling_param {
    pool: AVE
    kernel_size: 3
    stride: 2
  }
}
layer {
  name: "ip1"
  type: "InnerProduct"
  bottom: "pool0"
  top: "ip1"
  param {
    lr_mult: 1
  }
  param {
    lr_mult: 2
  }
  inner_product_param {
    num_output: 10
    weight_filler {
      type: "gaussian"
      std: 0.01
    }
    bias_filler {
      type: "constant"
    }
  }
}
layer {
  name: "relu1"
  type: "ReLU"
  bottom: "ip1"
  top: "ip1"
}
layer {
  name: "ip2"
  type: "InnerProduct"
  bottom: "ip1"
  top: "ip2"
  param {
    lr_mult: 1
  }
  param {
    lr_mult: 2
  }
  inner_product_param {
    num_output: 20
    weight_filler {
      type: "gaussian"
      std: 0.01
    }
    bias_filler {
      type: "constant"
    }
  }
}
layer {
  name: "relu2"
  type: "ReLU"
  bottom: "ip2"
  top: "ip2"
}
layer {
  name: "ip3"
  type: "InnerProduct"
  bottom: "ip2"
  top: "ip3"
  param {
    lr_mult: 1
  }
  param {
    lr_mult: 2
  }
  inner_product_param {
    num_output: 10
    weight_filler {
      type: "gaussian"
      std: 0.01
    }
    bias_filler {
      type: "constant"
    }
  }
}
layer {
  name: "loss"
  type: "SoftmaxWithLoss"
  bottom: "ip3"
  bottom: "label"
  top: "loss"
}
I0501 07:05:05.829846  3437 layer_factory.hpp:77] Creating layer cifar
I0501 07:05:05.829946  3437 db_lmdb.cpp:35] Opened lmdb examples/cifar10/cifar10_train_lmdb
I0501 07:05:05.829973  3437 net.cpp:86] Creating Layer cifar
I0501 07:05:05.829982  3437 net.cpp:382] cifar -> data
I0501 07:05:05.830005  3437 net.cpp:382] cifar -> label
I0501 07:05:05.830018  3437 data_transformer.cpp:25] Loading mean file from: examples/cifar10/mean.binaryproto
I0501 07:05:05.832175  3437 data_layer.cpp:45] output data size: 111,3,32,32
I0501 07:05:05.840121  3437 net.cpp:124] Setting up cifar
I0501 07:05:05.840142  3437 net.cpp:131] Top shape: 111 3 32 32 (340992)
I0501 07:05:05.840147  3437 net.cpp:131] Top shape: 111 (111)
I0501 07:05:05.840152  3437 net.cpp:139] Memory required for data: 1364412
I0501 07:05:05.840159  3437 layer_factory.hpp:77] Creating layer conv0
I0501 07:05:05.840178  3437 net.cpp:86] Creating Layer conv0
I0501 07:05:05.840184  3437 net.cpp:408] conv0 <- data
I0501 07:05:05.840196  3437 net.cpp:382] conv0 -> conv0
I0501 07:05:06.134863  3437 net.cpp:124] Setting up conv0
I0501 07:05:06.134912  3437 net.cpp:131] Top shape: 111 16 34 34 (2053056)
I0501 07:05:06.134918  3437 net.cpp:139] Memory required for data: 9576636
I0501 07:05:06.134935  3437 layer_factory.hpp:77] Creating layer Sigmoid0
I0501 07:05:06.134949  3437 net.cpp:86] Creating Layer Sigmoid0
I0501 07:05:06.134954  3437 net.cpp:408] Sigmoid0 <- conv0
I0501 07:05:06.134961  3437 net.cpp:382] Sigmoid0 -> Sigmoid0
I0501 07:05:06.135179  3437 net.cpp:124] Setting up Sigmoid0
I0501 07:05:06.135190  3437 net.cpp:131] Top shape: 111 16 34 34 (2053056)
I0501 07:05:06.135195  3437 net.cpp:139] Memory required for data: 17788860
I0501 07:05:06.135200  3437 layer_factory.hpp:77] Creating layer pool0
I0501 07:05:06.135207  3437 net.cpp:86] Creating Layer pool0
I0501 07:05:06.135211  3437 net.cpp:408] pool0 <- Sigmoid0
I0501 07:05:06.135217  3437 net.cpp:382] pool0 -> pool0
I0501 07:05:06.136095  3437 net.cpp:124] Setting up pool0
I0501 07:05:06.136111  3437 net.cpp:131] Top shape: 111 16 17 17 (513264)
I0501 07:05:06.136114  3437 net.cpp:139] Memory required for data: 19841916
I0501 07:05:06.136119  3437 layer_factory.hpp:77] Creating layer ip1
I0501 07:05:06.136129  3437 net.cpp:86] Creating Layer ip1
I0501 07:05:06.136134  3437 net.cpp:408] ip1 <- pool0
I0501 07:05:06.136140  3437 net.cpp:382] ip1 -> ip1
I0501 07:05:06.138785  3437 net.cpp:124] Setting up ip1
I0501 07:05:06.138800  3437 net.cpp:131] Top shape: 111 10 (1110)
I0501 07:05:06.138804  3437 net.cpp:139] Memory required for data: 19846356
I0501 07:05:06.138814  3437 layer_factory.hpp:77] Creating layer relu1
I0501 07:05:06.138821  3437 net.cpp:86] Creating Layer relu1
I0501 07:05:06.138825  3437 net.cpp:408] relu1 <- ip1
I0501 07:05:06.138831  3437 net.cpp:369] relu1 -> ip1 (in-place)
I0501 07:05:06.139012  3437 net.cpp:124] Setting up relu1
I0501 07:05:06.139022  3437 net.cpp:131] Top shape: 111 10 (1110)
I0501 07:05:06.139026  3437 net.cpp:139] Memory required for data: 19850796
I0501 07:05:06.139030  3437 layer_factory.hpp:77] Creating layer ip2
I0501 07:05:06.139039  3437 net.cpp:86] Creating Layer ip2
I0501 07:05:06.139041  3437 net.cpp:408] ip2 <- ip1
I0501 07:05:06.139047  3437 net.cpp:382] ip2 -> ip2
I0501 07:05:06.139160  3437 net.cpp:124] Setting up ip2
I0501 07:05:06.139168  3437 net.cpp:131] Top shape: 111 20 (2220)
I0501 07:05:06.139171  3437 net.cpp:139] Memory required for data: 19859676
I0501 07:05:06.139180  3437 layer_factory.hpp:77] Creating layer relu2
I0501 07:05:06.139186  3437 net.cpp:86] Creating Layer relu2
I0501 07:05:06.139189  3437 net.cpp:408] relu2 <- ip2
I0501 07:05:06.139194  3437 net.cpp:369] relu2 -> ip2 (in-place)
I0501 07:05:06.139366  3437 net.cpp:124] Setting up relu2
I0501 07:05:06.139375  3437 net.cpp:131] Top shape: 111 20 (2220)
I0501 07:05:06.139379  3437 net.cpp:139] Memory required for data: 19868556
I0501 07:05:06.139382  3437 layer_factory.hpp:77] Creating layer ip3
I0501 07:05:06.139391  3437 net.cpp:86] Creating Layer ip3
I0501 07:05:06.139394  3437 net.cpp:408] ip3 <- ip2
I0501 07:05:06.139400  3437 net.cpp:382] ip3 -> ip3
I0501 07:05:06.139508  3437 net.cpp:124] Setting up ip3
I0501 07:05:06.139515  3437 net.cpp:131] Top shape: 111 10 (1110)
I0501 07:05:06.139518  3437 net.cpp:139] Memory required for data: 19872996
I0501 07:05:06.139524  3437 layer_factory.hpp:77] Creating layer loss
I0501 07:05:06.139531  3437 net.cpp:86] Creating Layer loss
I0501 07:05:06.139535  3437 net.cpp:408] loss <- ip3
I0501 07:05:06.139539  3437 net.cpp:408] loss <- label
I0501 07:05:06.139545  3437 net.cpp:382] loss -> loss
I0501 07:05:06.139565  3437 layer_factory.hpp:77] Creating layer loss
…
I0501 07:05:06.140245  3437 solver.cpp:173] Creating test net (#0) specified by net file: ECE595/cifar/train_test/var_everything/cifar_train_test_471.prototxt
I0501 07:05:06.140275  3437 net.cpp:296] The NetState phase (1) differed from the phase (0) specified by a rule in layer cifar
I0501 07:05:06.140372  3437 net.cpp:53] Initializing net from parameters: 
name: "CIFAR"
state {
  phase: TEST
}
layer {
  name: "cifar"
  type: "Data"
  top: "data"
  top: "label"
  include {
    phase: TEST
  }
  transform_param {
    mean_file: "examples/cifar10/mean.binaryproto"
  }
  data_param {
    source: "examples/cifar10/cifar10_test_lmdb"
    batch_size: 1000
    backend: LMDB
  }
}
layer {
  name: "conv0"
  type: "Convolution"
  bottom: "data"
  top: "conv0"
  param {
    lr_mult: 1
  }
  param {
    lr_mult: 2
  }
  convolution_param {
    num_output: 16
    pad: 2
    kernel_size: 3
    stride: 1
    weight_filler {
      type: "gaussian"
      std: 0.01
    }
    bias_filler {
      type: "constant"
    }
  }
}
layer {
  name: "Sigmoid0"
  type: "Sigmoid"
  bottom: "conv0"
  top: "Sigmoid0"
}
layer {
  name: "pool0"
  type: "Pooling"
  bottom: "Sigmoid0"
  top: "pool0"
  pooling_param {
    pool: AVE
    kernel_size: 3
    stride: 2
  }
}
layer {
  name: "ip1"
  type: "InnerProduct"
  bottom: "pool0"
  top: "ip1"
  param {
    lr_mult: 1
  }
  param {
    lr_mult: 2
  }
  inner_product_param {
    num_output: 10
    weight_filler {
      type: "gaussian"
      std: 0.01
    }
    bias_filler {
      type: "constant"
    }
  }
}
layer {
  name: "relu1"
  type: "ReLU"
  bottom: "ip1"
  top: "ip1"
}
layer {
  name: "ip2"
  type: "InnerProduct"
  bottom: "ip1"
  top: "ip2"
  param {
    lr_mult: 1
  }
  param {
    lr_mult: 2
  }
  inner_product_param {
    num_output: 20
    weight_filler {
      type: "gaussian"
      std: 0.01
    }
    bias_filler {
      type: "constant"
    }
  }
}
layer {
  name: "relu2"
  type: "ReLU"
  bottom: "ip2"
  top: "ip2"
}
layer {
  name: "ip3"
  type: "InnerProduct"
  bottom: "ip2"
  top: "ip3"
  param {
    lr_mult: 1
  }
  param {
    lr_mult: 2
  }
  inner_product_param {
    num_output: 10
    weight_filler {
      type: "gaussian"
      std: 0.01
    }
    bias_filler {
      type: "constant"
    }
  }
}
layer {
  name: "accuracy"
  type: "Accuracy"
  bottom: "ip3"
  bottom: "label"
  top: "accuracy"
  include {
    phase: TEST
  }
}
layer {
  name: "loss"
  type: "SoftmaxWithLoss"
  bottom: "ip3"
  bottom: "label"
  top: "loss"
}
I0501 07:05:06.140445  3437 layer_factory.hpp:77] Creating layer cifar
I0501 07:05:06.140496  3437 db_lmdb.cpp:35] Opened lmdb examples/cifar10/cifar10_test_lmdb
I0501 07:05:06.140509  3437 net.cpp:86] Creating Layer cifar
I0501 07:05:06.140514  3437 net.cpp:382] cifar -> data
I0501 07:05:06.140523  3437 net.cpp:382] cifar -> label
I0501 07:05:06.140532  3437 data_transformer.cpp:25] Loading mean file from: examples/cifar10/mean.binaryproto
I0501 07:05:06.140693  3437 data_layer.cpp:45] output data size: 1000,3,32,32
I0501 07:05:06.165371  3437 net.cpp:124] Setting up cifar
I0501 07:05:06.165400  3437 net.cpp:131] Top shape: 1000 3 32 32 (3072000)
I0501 07:05:06.165405  3437 net.cpp:131] Top shape: 1000 (1000)
I0501 07:05:06.165410  3437 net.cpp:139] Memory required for data: 12292000
I0501 07:05:06.165416  3437 layer_factory.hpp:77] Creating layer label_cifar_1_split
I0501 07:05:06.165428  3437 net.cpp:86] Creating Layer label_cifar_1_split
I0501 07:05:06.165452  3437 net.cpp:408] label_cifar_1_split <- label
I0501 07:05:06.165458  3437 net.cpp:382] label_cifar_1_split -> label_cifar_1_split_0
I0501 07:05:06.165467  3437 net.cpp:382] label_cifar_1_split -> label_cifar_1_split_1
I0501 07:05:06.165549  3437 net.cpp:124] Setting up label_cifar_1_split
I0501 07:05:06.165557  3437 net.cpp:131] Top shape: 1000 (1000)
I0501 07:05:06.165561  3437 net.cpp:131] Top shape: 1000 (1000)
I0501 07:05:06.165565  3437 net.cpp:139] Memory required for data: 12300000
I0501 07:05:06.165568  3437 layer_factory.hpp:77] Creating layer conv0
I0501 07:05:06.165581  3437 net.cpp:86] Creating Layer conv0
I0501 07:05:06.165587  3437 net.cpp:408] conv0 <- data
I0501 07:05:06.165593  3437 net.cpp:382] conv0 -> conv0
I0501 07:05:06.167274  3437 net.cpp:124] Setting up conv0
I0501 07:05:06.167289  3437 net.cpp:131] Top shape: 1000 16 34 34 (18496000)
I0501 07:05:06.167294  3437 net.cpp:139] Memory required for data: 86284000
I0501 07:05:06.167304  3437 layer_factory.hpp:77] Creating layer Sigmoid0
I0501 07:05:06.167311  3437 net.cpp:86] Creating Layer Sigmoid0
I0501 07:05:06.167315  3437 net.cpp:408] Sigmoid0 <- conv0
I0501 07:05:06.167320  3437 net.cpp:382] Sigmoid0 -> Sigmoid0
I0501 07:05:06.169173  3437 net.cpp:124] Setting up Sigmoid0
I0501 07:05:06.169188  3437 net.cpp:131] Top shape: 1000 16 34 34 (18496000)
I0501 07:05:06.169191  3437 net.cpp:139] Memory required for data: 160268000
I0501 07:05:06.169201  3437 layer_factory.hpp:77] Creating layer pool0
I0501 07:05:06.169210  3437 net.cpp:86] Creating Layer pool0
I0501 07:05:06.169214  3437 net.cpp:408] pool0 <- Sigmoid0
I0501 07:05:06.169220  3437 net.cpp:382] pool0 -> pool0
I0501 07:05:06.169402  3437 net.cpp:124] Setting up pool0
I0501 07:05:06.169412  3437 net.cpp:131] Top shape: 1000 16 17 17 (4624000)
I0501 07:05:06.169416  3437 net.cpp:139] Memory required for data: 178764000
I0501 07:05:06.169420  3437 layer_factory.hpp:77] Creating layer ip1
I0501 07:05:06.169426  3437 net.cpp:86] Creating Layer ip1
I0501 07:05:06.169430  3437 net.cpp:408] ip1 <- pool0
I0501 07:05:06.169436  3437 net.cpp:382] ip1 -> ip1
I0501 07:05:06.170899  3437 net.cpp:124] Setting up ip1
I0501 07:05:06.170907  3437 net.cpp:131] Top shape: 1000 10 (10000)
I0501 07:05:06.170912  3437 net.cpp:139] Memory required for data: 178804000
I0501 07:05:06.170919  3437 layer_factory.hpp:77] Creating layer relu1
I0501 07:05:06.170925  3437 net.cpp:86] Creating Layer relu1
I0501 07:05:06.170928  3437 net.cpp:408] relu1 <- ip1
I0501 07:05:06.170933  3437 net.cpp:369] relu1 -> ip1 (in-place)
I0501 07:05:06.171090  3437 net.cpp:124] Setting up relu1
I0501 07:05:06.171098  3437 net.cpp:131] Top shape: 1000 10 (10000)
I0501 07:05:06.171103  3437 net.cpp:139] Memory required for data: 178844000
I0501 07:05:06.171105  3437 layer_factory.hpp:77] Creating layer ip2
I0501 07:05:06.171113  3437 net.cpp:86] Creating Layer ip2
I0501 07:05:06.171115  3437 net.cpp:408] ip2 <- ip1
I0501 07:05:06.171120  3437 net.cpp:382] ip2 -> ip2
I0501 07:05:06.171233  3437 net.cpp:124] Setting up ip2
I0501 07:05:06.171241  3437 net.cpp:131] Top shape: 1000 20 (20000)
I0501 07:05:06.171243  3437 net.cpp:139] Memory required for data: 178924000
I0501 07:05:06.171252  3437 layer_factory.hpp:77] Creating layer relu2
I0501 07:05:06.171267  3437 net.cpp:86] Creating Layer relu2
I0501 07:05:06.171272  3437 net.cpp:408] relu2 <- ip2
I0501 07:05:06.171275  3437 net.cpp:369] relu2 -> ip2 (in-place)
I0501 07:05:06.171433  3437 net.cpp:124] Setting up relu2
I0501 07:05:06.171442  3437 net.cpp:131] Top shape: 1000 20 (20000)
I0501 07:05:06.171444  3437 net.cpp:139] Memory required for data: 179004000
I0501 07:05:06.171448  3437 layer_factory.hpp:77] Creating layer ip3
I0501 07:05:06.171454  3437 net.cpp:86] Creating Layer ip3
I0501 07:05:06.171458  3437 net.cpp:408] ip3 <- ip2
I0501 07:05:06.171463  3437 net.cpp:382] ip3 -> ip3
I0501 07:05:06.171576  3437 net.cpp:124] Setting up ip3
I0501 07:05:06.171582  3437 net.cpp:131] Top shape: 1000 10 (10000)
I0501 07:05:06.171597  3437 net.cpp:139] Memory required for data: 179044000
I0501 07:05:06.171603  3437 layer_factory.hpp:77] Creating layer ip3_ip3_0_split
I0501 07:05:06.171609  3437 net.cpp:86] Creating Layer ip3_ip3_0_split
I0501 07:05:06.171612  3437 net.cpp:408] ip3_ip3_0_split <- ip3
I0501 07:05:06.171617  3437 net.cpp:382] ip3_ip3_0_split -> ip3_ip3_0_split_0
I0501 07:05:06.171623  3437 net.cpp:382] ip3_ip3_0_split -> ip3_ip3_0_split_1
I0501 07:05:06.171655  3437 net.cpp:124] Setting up ip3_ip3_0_split
I0501 07:05:06.171664  3437 net.cpp:131] Top shape: 1000 10 (10000)
I0501 07:05:06.171669  3437 net.cpp:131] Top shape: 1000 10 (10000)
I0501 07:05:06.171671  3437 net.cpp:139] Memory required for data: 179124000
I0501 07:05:06.171674  3437 layer_factory.hpp:77] Creating layer accuracy
I0501 07:05:06.171680  3437 net.cpp:86] Creating Layer accuracy
I0501 07:05:06.171684  3437 net.cpp:408] accuracy <- ip3_ip3_0_split_0
I0501 07:05:06.171705  3437 net.cpp:408] accuracy <- label_cifar_1_split_0
I0501 07:05:06.171710  3437 net.cpp:382] accuracy -> accuracy
…
