…
I0430 17:36:54.556510 20030 net.cpp:296] The NetState phase (0) differed from the phase (1) specified by a rule in layer cifar
I0430 17:36:54.556526 20030 net.cpp:296] The NetState phase (0) differed from the phase (1) specified by a rule in layer accuracy
I0430 17:36:54.556608 20030 net.cpp:53] Initializing net from parameters: 
name: "CIFAR"
state {
  phase: TRAIN
  level: 0
  stage: ""
}
layer {
  name: "cifar"
  type: "Data"
  top: "data"
  top: "label"
  include {
    phase: TRAIN
  }
  transform_param {
    mean_file: "examples/cifar10/mean.binaryproto"
  }
  data_param {
    source: "examples/cifar10/cifar10_train_lmdb"
    batch_size: 111
    backend: LMDB
  }
}
layer {
  name: "ip1"
  type: "InnerProduct"
  bottom: "data"
  top: "ip1"
  param {
    lr_mult: 1
  }
  param {
    lr_mult: 2
  }
  inner_product_param {
    num_output: 10
    weight_filler {
      type: "gaussian"
      std: 0.01
    }
    bias_filler {
      type: "constant"
    }
  }
}
layer {
  name: "relu1"
  type: "ReLU"
  bottom: "ip1"
  top: "ip1"
}
layer {
  name: "ip2"
  type: "InnerProduct"
  bottom: "ip1"
  top: "ip2"
  param {
    lr_mult: 1
  }
  param {
    lr_mult: 2
  }
  inner_product_param {
    num_output: 40
    weight_filler {
      type: "gaussian"
      std: 0.01
    }
    bias_filler {
      type: "constant"
    }
  }
}
layer {
  name: "relu2"
  type: "ReLU"
  bottom: "ip2"
  top: "ip2"
}
layer {
  name: "ip3"
  type: "InnerProduct"
  bottom: "ip2"
  top: "ip3"
  param {
    lr_mult: 1
  }
  param {
    lr_mult: 2
  }
  inner_product_param {
    num_output: 10
    weight_filler {
      type: "gaussian"
      std: 0.01
    }
    bias_filler {
      type: "constant"
    }
  }
}
layer {
  name: "relu3"
  type: "ReLU"
  bottom: "ip3"
  top: "ip3"
}
layer {
  name: "ip4"
  type: "InnerProduct"
  bottom: "ip3"
  top: "ip4"
  param {
    lr_mult: 1
  }
  param {
    lr_mult: 2
  }
  inner_product_param {
    num_output: 10
    weight_filler {
      type: "gaussian"
      std: 0.01
    }
    bias_filler {
      type: "constant"
    }
  }
}
layer {
  name: "loss"
  type: "SoftmaxWithLoss"
  bottom: "ip4"
  bottom: "label"
  top: "loss"
}
I0430 17:36:54.556679 20030 layer_factory.hpp:77] Creating layer cifar
I0430 17:36:54.556778 20030 db_lmdb.cpp:35] Opened lmdb examples/cifar10/cifar10_train_lmdb
I0430 17:36:54.556815 20030 net.cpp:86] Creating Layer cifar
I0430 17:36:54.556826 20030 net.cpp:382] cifar -> data
I0430 17:36:54.556850 20030 net.cpp:382] cifar -> label
I0430 17:36:54.556864 20030 data_transformer.cpp:25] Loading mean file from: examples/cifar10/mean.binaryproto
I0430 17:36:54.558987 20030 data_layer.cpp:45] output data size: 111,3,32,32
I0430 17:36:54.566941 20030 net.cpp:124] Setting up cifar
I0430 17:36:54.566961 20030 net.cpp:131] Top shape: 111 3 32 32 (340992)
I0430 17:36:54.566967 20030 net.cpp:131] Top shape: 111 (111)
I0430 17:36:54.566970 20030 net.cpp:139] Memory required for data: 1364412
I0430 17:36:54.566977 20030 layer_factory.hpp:77] Creating layer ip1
I0430 17:36:54.566989 20030 net.cpp:86] Creating Layer ip1
I0430 17:36:54.566995 20030 net.cpp:408] ip1 <- data
I0430 17:36:54.567008 20030 net.cpp:382] ip1 -> ip1
I0430 17:36:54.569219 20030 net.cpp:124] Setting up ip1
I0430 17:36:54.569236 20030 net.cpp:131] Top shape: 111 10 (1110)
I0430 17:36:54.569239 20030 net.cpp:139] Memory required for data: 1368852
I0430 17:36:54.569253 20030 layer_factory.hpp:77] Creating layer relu1
I0430 17:36:54.569272 20030 net.cpp:86] Creating Layer relu1
I0430 17:36:54.569293 20030 net.cpp:408] relu1 <- ip1
I0430 17:36:54.569299 20030 net.cpp:369] relu1 -> ip1 (in-place)
I0430 17:36:54.848701 20030 net.cpp:124] Setting up relu1
I0430 17:36:54.848727 20030 net.cpp:131] Top shape: 111 10 (1110)
I0430 17:36:54.848731 20030 net.cpp:139] Memory required for data: 1373292
I0430 17:36:54.848737 20030 layer_factory.hpp:77] Creating layer ip2
I0430 17:36:54.848748 20030 net.cpp:86] Creating Layer ip2
I0430 17:36:54.848752 20030 net.cpp:408] ip2 <- ip1
I0430 17:36:54.848759 20030 net.cpp:382] ip2 -> ip2
I0430 17:36:54.849735 20030 net.cpp:124] Setting up ip2
I0430 17:36:54.849747 20030 net.cpp:131] Top shape: 111 40 (4440)
I0430 17:36:54.849750 20030 net.cpp:139] Memory required for data: 1391052
I0430 17:36:54.849759 20030 layer_factory.hpp:77] Creating layer relu2
I0430 17:36:54.849767 20030 net.cpp:86] Creating Layer relu2
I0430 17:36:54.849771 20030 net.cpp:408] relu2 <- ip2
I0430 17:36:54.849774 20030 net.cpp:369] relu2 -> ip2 (in-place)
I0430 17:36:54.850471 20030 net.cpp:124] Setting up relu2
I0430 17:36:54.850481 20030 net.cpp:131] Top shape: 111 40 (4440)
I0430 17:36:54.850486 20030 net.cpp:139] Memory required for data: 1408812
I0430 17:36:54.850488 20030 layer_factory.hpp:77] Creating layer ip3
I0430 17:36:54.850495 20030 net.cpp:86] Creating Layer ip3
I0430 17:36:54.850498 20030 net.cpp:408] ip3 <- ip2
I0430 17:36:54.850503 20030 net.cpp:382] ip3 -> ip3
I0430 17:36:54.850605 20030 net.cpp:124] Setting up ip3
I0430 17:36:54.850613 20030 net.cpp:131] Top shape: 111 10 (1110)
I0430 17:36:54.850616 20030 net.cpp:139] Memory required for data: 1413252
I0430 17:36:54.850625 20030 layer_factory.hpp:77] Creating layer relu3
I0430 17:36:54.850630 20030 net.cpp:86] Creating Layer relu3
I0430 17:36:54.850632 20030 net.cpp:408] relu3 <- ip3
I0430 17:36:54.850636 20030 net.cpp:369] relu3 -> ip3 (in-place)
I0430 17:36:54.850775 20030 net.cpp:124] Setting up relu3
I0430 17:36:54.850782 20030 net.cpp:131] Top shape: 111 10 (1110)
I0430 17:36:54.850785 20030 net.cpp:139] Memory required for data: 1417692
I0430 17:36:54.850788 20030 layer_factory.hpp:77] Creating layer ip4
I0430 17:36:54.850795 20030 net.cpp:86] Creating Layer ip4
I0430 17:36:54.850797 20030 net.cpp:408] ip4 <- ip3
I0430 17:36:54.850801 20030 net.cpp:382] ip4 -> ip4
I0430 17:36:54.850888 20030 net.cpp:124] Setting up ip4
I0430 17:36:54.850894 20030 net.cpp:131] Top shape: 111 10 (1110)
I0430 17:36:54.850898 20030 net.cpp:139] Memory required for data: 1422132
I0430 17:36:54.850903 20030 layer_factory.hpp:77] Creating layer loss
I0430 17:36:54.850908 20030 net.cpp:86] Creating Layer loss
I0430 17:36:54.850911 20030 net.cpp:408] loss <- ip4
I0430 17:36:54.850914 20030 net.cpp:408] loss <- label
I0430 17:36:54.850919 20030 net.cpp:382] loss -> loss
I0430 17:36:54.850937 20030 layer_factory.hpp:77] Creating layer loss
…
I0430 17:36:54.851462 20030 solver.cpp:173] Creating test net (#0) specified by net file: ECE595/cifar/train_test/var_everything/cifar_train_test_40.prototxt
I0430 17:36:54.851498 20030 net.cpp:296] The NetState phase (1) differed from the phase (0) specified by a rule in layer cifar
I0430 17:36:54.851572 20030 net.cpp:53] Initializing net from parameters: 
name: "CIFAR"
state {
  phase: TEST
}
layer {
  name: "cifar"
  type: "Data"
  top: "data"
  top: "label"
  include {
    phase: TEST
  }
  transform_param {
    mean_file: "examples/cifar10/mean.binaryproto"
  }
  data_param {
    source: "examples/cifar10/cifar10_test_lmdb"
    batch_size: 1000
    backend: LMDB
  }
}
layer {
  name: "ip1"
  type: "InnerProduct"
  bottom: "data"
  top: "ip1"
  param {
    lr_mult: 1
  }
  param {
    lr_mult: 2
  }
  inner_product_param {
    num_output: 10
    weight_filler {
      type: "gaussian"
      std: 0.01
    }
    bias_filler {
      type: "constant"
    }
  }
}
layer {
  name: "relu1"
  type: "ReLU"
  bottom: "ip1"
  top: "ip1"
}
layer {
  name: "ip2"
  type: "InnerProduct"
  bottom: "ip1"
  top: "ip2"
  param {
    lr_mult: 1
  }
  param {
    lr_mult: 2
  }
  inner_product_param {
    num_output: 40
    weight_filler {
      type: "gaussian"
      std: 0.01
    }
    bias_filler {
      type: "constant"
    }
  }
}
layer {
  name: "relu2"
  type: "ReLU"
  bottom: "ip2"
  top: "ip2"
}
layer {
  name: "ip3"
  type: "InnerProduct"
  bottom: "ip2"
  top: "ip3"
  param {
    lr_mult: 1
  }
  param {
    lr_mult: 2
  }
  inner_product_param {
    num_output: 10
    weight_filler {
      type: "gaussian"
      std: 0.01
    }
    bias_filler {
      type: "constant"
    }
  }
}
layer {
  name: "relu3"
  type: "ReLU"
  bottom: "ip3"
  top: "ip3"
}
layer {
  name: "ip4"
  type: "InnerProduct"
  bottom: "ip3"
  top: "ip4"
  param {
    lr_mult: 1
  }
  param {
    lr_mult: 2
  }
  inner_product_param {
    num_output: 10
    weight_filler {
      type: "gaussian"
      std: 0.01
    }
    bias_filler {
      type: "constant"
    }
  }
}
layer {
  name: "accuracy"
  type: "Accuracy"
  bottom: "ip4"
  bottom: "label"
  top: "accuracy"
  include {
    phase: TEST
  }
}
layer {
  name: "loss"
  type: "SoftmaxWithLoss"
  bottom: "ip4"
  bottom: "label"
  top: "loss"
}
I0430 17:36:54.851629 20030 layer_factory.hpp:77] Creating layer cifar
I0430 17:36:54.851675 20030 db_lmdb.cpp:35] Opened lmdb examples/cifar10/cifar10_test_lmdb
I0430 17:36:54.851686 20030 net.cpp:86] Creating Layer cifar
I0430 17:36:54.851691 20030 net.cpp:382] cifar -> data
I0430 17:36:54.851698 20030 net.cpp:382] cifar -> label
I0430 17:36:54.851706 20030 data_transformer.cpp:25] Loading mean file from: examples/cifar10/mean.binaryproto
I0430 17:36:54.851840 20030 data_layer.cpp:45] output data size: 1000,3,32,32
I0430 17:36:54.873113 20030 net.cpp:124] Setting up cifar
I0430 17:36:54.873139 20030 net.cpp:131] Top shape: 1000 3 32 32 (3072000)
I0430 17:36:54.873144 20030 net.cpp:131] Top shape: 1000 (1000)
I0430 17:36:54.873148 20030 net.cpp:139] Memory required for data: 12292000
I0430 17:36:54.873154 20030 layer_factory.hpp:77] Creating layer label_cifar_1_split
I0430 17:36:54.873185 20030 net.cpp:86] Creating Layer label_cifar_1_split
I0430 17:36:54.873204 20030 net.cpp:408] label_cifar_1_split <- label
I0430 17:36:54.873211 20030 net.cpp:382] label_cifar_1_split -> label_cifar_1_split_0
I0430 17:36:54.873219 20030 net.cpp:382] label_cifar_1_split -> label_cifar_1_split_1
I0430 17:36:54.873327 20030 net.cpp:124] Setting up label_cifar_1_split
I0430 17:36:54.873335 20030 net.cpp:131] Top shape: 1000 (1000)
I0430 17:36:54.873338 20030 net.cpp:131] Top shape: 1000 (1000)
I0430 17:36:54.873342 20030 net.cpp:139] Memory required for data: 12300000
I0430 17:36:54.873344 20030 layer_factory.hpp:77] Creating layer ip1
I0430 17:36:54.873353 20030 net.cpp:86] Creating Layer ip1
I0430 17:36:54.873356 20030 net.cpp:408] ip1 <- data
I0430 17:36:54.873361 20030 net.cpp:382] ip1 -> ip1
I0430 17:36:54.874302 20030 net.cpp:124] Setting up ip1
I0430 17:36:54.874310 20030 net.cpp:131] Top shape: 1000 10 (10000)
I0430 17:36:54.874327 20030 net.cpp:139] Memory required for data: 12340000
I0430 17:36:54.874366 20030 layer_factory.hpp:77] Creating layer relu1
I0430 17:36:54.874372 20030 net.cpp:86] Creating Layer relu1
I0430 17:36:54.874392 20030 net.cpp:408] relu1 <- ip1
I0430 17:36:54.874395 20030 net.cpp:369] relu1 -> ip1 (in-place)
I0430 17:36:54.875282 20030 net.cpp:124] Setting up relu1
I0430 17:36:54.875293 20030 net.cpp:131] Top shape: 1000 10 (10000)
I0430 17:36:54.875313 20030 net.cpp:139] Memory required for data: 12380000
I0430 17:36:54.875315 20030 layer_factory.hpp:77] Creating layer ip2
I0430 17:36:54.875322 20030 net.cpp:86] Creating Layer ip2
I0430 17:36:54.875326 20030 net.cpp:408] ip2 <- ip1
I0430 17:36:54.875331 20030 net.cpp:382] ip2 -> ip2
I0430 17:36:54.876422 20030 net.cpp:124] Setting up ip2
I0430 17:36:54.876430 20030 net.cpp:131] Top shape: 1000 40 (40000)
I0430 17:36:54.876449 20030 net.cpp:139] Memory required for data: 12540000
I0430 17:36:54.876456 20030 layer_factory.hpp:77] Creating layer relu2
I0430 17:36:54.876462 20030 net.cpp:86] Creating Layer relu2
I0430 17:36:54.876466 20030 net.cpp:408] relu2 <- ip2
I0430 17:36:54.876469 20030 net.cpp:369] relu2 -> ip2 (in-place)
I0430 17:36:54.876633 20030 net.cpp:124] Setting up relu2
I0430 17:36:54.876641 20030 net.cpp:131] Top shape: 1000 40 (40000)
I0430 17:36:54.876644 20030 net.cpp:139] Memory required for data: 12700000
I0430 17:36:54.876647 20030 layer_factory.hpp:77] Creating layer ip3
I0430 17:36:54.876653 20030 net.cpp:86] Creating Layer ip3
I0430 17:36:54.876657 20030 net.cpp:408] ip3 <- ip2
I0430 17:36:54.876662 20030 net.cpp:382] ip3 -> ip3
I0430 17:36:54.876765 20030 net.cpp:124] Setting up ip3
I0430 17:36:54.876772 20030 net.cpp:131] Top shape: 1000 10 (10000)
I0430 17:36:54.876775 20030 net.cpp:139] Memory required for data: 12740000
I0430 17:36:54.876781 20030 layer_factory.hpp:77] Creating layer relu3
I0430 17:36:54.876786 20030 net.cpp:86] Creating Layer relu3
I0430 17:36:54.876791 20030 net.cpp:408] relu3 <- ip3
I0430 17:36:54.876794 20030 net.cpp:369] relu3 -> ip3 (in-place)
I0430 17:36:54.876972 20030 net.cpp:124] Setting up relu3
I0430 17:36:54.876981 20030 net.cpp:131] Top shape: 1000 10 (10000)
I0430 17:36:54.876986 20030 net.cpp:139] Memory required for data: 12780000
I0430 17:36:54.876996 20030 layer_factory.hpp:77] Creating layer ip4
I0430 17:36:54.877002 20030 net.cpp:86] Creating Layer ip4
I0430 17:36:54.877005 20030 net.cpp:408] ip4 <- ip3
I0430 17:36:54.877010 20030 net.cpp:382] ip4 -> ip4
I0430 17:36:54.877116 20030 net.cpp:124] Setting up ip4
I0430 17:36:54.877125 20030 net.cpp:131] Top shape: 1000 10 (10000)
I0430 17:36:54.877126 20030 net.cpp:139] Memory required for data: 12820000
I0430 17:36:54.877132 20030 layer_factory.hpp:77] Creating layer ip4_ip4_0_split
I0430 17:36:54.877137 20030 net.cpp:86] Creating Layer ip4_ip4_0_split
I0430 17:36:54.877140 20030 net.cpp:408] ip4_ip4_0_split <- ip4
I0430 17:36:54.877144 20030 net.cpp:382] ip4_ip4_0_split -> ip4_ip4_0_split_0
I0430 17:36:54.877151 20030 net.cpp:382] ip4_ip4_0_split -> ip4_ip4_0_split_1
I0430 17:36:54.877183 20030 net.cpp:124] Setting up ip4_ip4_0_split
I0430 17:36:54.877189 20030 net.cpp:131] Top shape: 1000 10 (10000)
I0430 17:36:54.877193 20030 net.cpp:131] Top shape: 1000 10 (10000)
I0430 17:36:54.877197 20030 net.cpp:139] Memory required for data: 12900000
I0430 17:36:54.877198 20030 layer_factory.hpp:77] Creating layer accuracy
I0430 17:36:54.877205 20030 net.cpp:86] Creating Layer accuracy
I0430 17:36:54.877208 20030 net.cpp:408] accuracy <- ip4_ip4_0_split_0
I0430 17:36:54.877213 20030 net.cpp:408] accuracy <- label_cifar_1_split_0
I0430 17:36:54.877216 20030 net.cpp:382] accuracy -> accuracy
…
