…
I0501 00:46:20.759176  7900 net.cpp:296] The NetState phase (0) differed from the phase (1) specified by a rule in layer cifar
I0501 00:46:20.759196  7900 net.cpp:296] The NetState phase (0) differed from the phase (1) specified by a rule in layer accuracy
I0501 00:46:20.759316  7900 net.cpp:53] Initializing net from parameters: 
name: "CIFAR"
state {
  phase: TRAIN
  level: 0
  stage: ""
}
layer {
  name: "cifar"
  type: "Data"
  top: "data"
  top: "label"
  include {
    phase: TRAIN
  }
  transform_param {
    mean_file: "examples/cifar10/mean.binaryproto"
  }
  data_param {
    source: "examples/cifar10/cifar10_train_lmdb"
    batch_size: 111
    backend: LMDB
  }
}
layer {
  name: "conv0"
  type: "Convolution"
  bottom: "data"
  top: "conv0"
  param {
    lr_mult: 1
  }
  param {
    lr_mult: 2
  }
  convolution_param {
    num_output: 8
    pad: 2
    kernel_size: 3
    stride: 1
    weight_filler {
      type: "gaussian"
      std: 0.01
    }
    bias_filler {
      type: "constant"
    }
  }
}
layer {
  name: "Sigmoid0"
  type: "Sigmoid"
  bottom: "conv0"
  top: "Sigmoid0"
}
layer {
  name: "pool0"
  type: "Pooling"
  bottom: "Sigmoid0"
  top: "pool0"
  pooling_param {
    pool: AVE
    kernel_size: 3
    stride: 2
  }
}
layer {
  name: "ip1"
  type: "InnerProduct"
  bottom: "pool0"
  top: "ip1"
  param {
    lr_mult: 1
  }
  param {
    lr_mult: 2
  }
  inner_product_param {
    num_output: 80
    weight_filler {
      type: "gaussian"
      std: 0.01
    }
    bias_filler {
      type: "constant"
    }
  }
}
layer {
  name: "relu1"
  type: "ReLU"
  bottom: "ip1"
  top: "ip1"
}
layer {
  name: "ip2"
  type: "InnerProduct"
  bottom: "ip1"
  top: "ip2"
  param {
    lr_mult: 1
  }
  param {
    lr_mult: 2
  }
  inner_product_param {
    num_output: 20
    weight_filler {
      type: "gaussian"
      std: 0.01
    }
    bias_filler {
      type: "constant"
    }
  }
}
layer {
  name: "relu2"
  type: "ReLU"
  bottom: "ip2"
  top: "ip2"
}
layer {
  name: "ip3"
  type: "InnerProduct"
  bottom: "ip2"
  top: "ip3"
  param {
    lr_mult: 1
  }
  param {
    lr_mult: 2
  }
  inner_product_param {
    num_output: 80
    weight_filler {
      type: "gaussian"
      std: 0.01
    }
    bias_filler {
      type: "constant"
    }
  }
}
layer {
  name: "relu3"
  type: "ReLU"
  bottom: "ip3"
  top: "ip3"
}
layer {
  name: "ip4"
  type: "InnerProduct"
  bottom: "ip3"
  top: "ip4"
  param {
    lr_mult: 1
  }
  param {
    lr_mult: 2
  }
  inner_product_param {
    num_output: 10
    weight_filler {
      type: "gaussian"
      std: 0.01
    }
    bias_filler {
      type: "constant"
    }
  }
}
layer {
  name: "loss"
  type: "SoftmaxWithLoss"
  bottom: "ip4"
  bottom: "label"
  top: "loss"
}
I0501 00:46:20.759409  7900 layer_factory.hpp:77] Creating layer cifar
I0501 00:46:20.759510  7900 db_lmdb.cpp:35] Opened lmdb examples/cifar10/cifar10_train_lmdb
I0501 00:46:20.759536  7900 net.cpp:86] Creating Layer cifar
I0501 00:46:20.759546  7900 net.cpp:382] cifar -> data
I0501 00:46:20.759569  7900 net.cpp:382] cifar -> label
I0501 00:46:20.759582  7900 data_transformer.cpp:25] Loading mean file from: examples/cifar10/mean.binaryproto
I0501 00:46:20.761693  7900 data_layer.cpp:45] output data size: 111,3,32,32
I0501 00:46:20.769569  7900 net.cpp:124] Setting up cifar
I0501 00:46:20.769588  7900 net.cpp:131] Top shape: 111 3 32 32 (340992)
I0501 00:46:20.769594  7900 net.cpp:131] Top shape: 111 (111)
I0501 00:46:20.769598  7900 net.cpp:139] Memory required for data: 1364412
I0501 00:46:20.769623  7900 layer_factory.hpp:77] Creating layer conv0
I0501 00:46:20.769642  7900 net.cpp:86] Creating Layer conv0
I0501 00:46:20.769649  7900 net.cpp:408] conv0 <- data
I0501 00:46:20.769662  7900 net.cpp:382] conv0 -> conv0
I0501 00:46:21.035078  7900 net.cpp:124] Setting up conv0
I0501 00:46:21.035120  7900 net.cpp:131] Top shape: 111 8 34 34 (1026528)
I0501 00:46:21.035123  7900 net.cpp:139] Memory required for data: 5470524
I0501 00:46:21.035137  7900 layer_factory.hpp:77] Creating layer Sigmoid0
I0501 00:46:21.035151  7900 net.cpp:86] Creating Layer Sigmoid0
I0501 00:46:21.035154  7900 net.cpp:408] Sigmoid0 <- conv0
I0501 00:46:21.035159  7900 net.cpp:382] Sigmoid0 -> Sigmoid0
I0501 00:46:21.035326  7900 net.cpp:124] Setting up Sigmoid0
I0501 00:46:21.035334  7900 net.cpp:131] Top shape: 111 8 34 34 (1026528)
I0501 00:46:21.035337  7900 net.cpp:139] Memory required for data: 9576636
I0501 00:46:21.035341  7900 layer_factory.hpp:77] Creating layer pool0
I0501 00:46:21.035347  7900 net.cpp:86] Creating Layer pool0
I0501 00:46:21.035351  7900 net.cpp:408] pool0 <- Sigmoid0
I0501 00:46:21.035354  7900 net.cpp:382] pool0 -> pool0
I0501 00:46:21.036110  7900 net.cpp:124] Setting up pool0
I0501 00:46:21.036139  7900 net.cpp:131] Top shape: 111 8 17 17 (256632)
I0501 00:46:21.036142  7900 net.cpp:139] Memory required for data: 10603164
I0501 00:46:21.036145  7900 layer_factory.hpp:77] Creating layer ip1
I0501 00:46:21.036154  7900 net.cpp:86] Creating Layer ip1
I0501 00:46:21.036157  7900 net.cpp:408] ip1 <- pool0
I0501 00:46:21.036162  7900 net.cpp:382] ip1 -> ip1
I0501 00:46:21.041890  7900 net.cpp:124] Setting up ip1
I0501 00:46:21.041901  7900 net.cpp:131] Top shape: 111 80 (8880)
I0501 00:46:21.041921  7900 net.cpp:139] Memory required for data: 10638684
I0501 00:46:21.041929  7900 layer_factory.hpp:77] Creating layer relu1
I0501 00:46:21.041934  7900 net.cpp:86] Creating Layer relu1
I0501 00:46:21.041939  7900 net.cpp:408] relu1 <- ip1
I0501 00:46:21.041942  7900 net.cpp:369] relu1 -> ip1 (in-place)
I0501 00:46:21.042122  7900 net.cpp:124] Setting up relu1
I0501 00:46:21.042130  7900 net.cpp:131] Top shape: 111 80 (8880)
I0501 00:46:21.042135  7900 net.cpp:139] Memory required for data: 10674204
I0501 00:46:21.042137  7900 layer_factory.hpp:77] Creating layer ip2
I0501 00:46:21.042143  7900 net.cpp:86] Creating Layer ip2
I0501 00:46:21.042146  7900 net.cpp:408] ip2 <- ip1
I0501 00:46:21.042151  7900 net.cpp:382] ip2 -> ip2
I0501 00:46:21.042289  7900 net.cpp:124] Setting up ip2
I0501 00:46:21.042295  7900 net.cpp:131] Top shape: 111 20 (2220)
I0501 00:46:21.042299  7900 net.cpp:139] Memory required for data: 10683084
I0501 00:46:21.042306  7900 layer_factory.hpp:77] Creating layer relu2
I0501 00:46:21.042310  7900 net.cpp:86] Creating Layer relu2
I0501 00:46:21.042315  7900 net.cpp:408] relu2 <- ip2
I0501 00:46:21.042317  7900 net.cpp:369] relu2 -> ip2 (in-place)
I0501 00:46:21.042474  7900 net.cpp:124] Setting up relu2
I0501 00:46:21.042481  7900 net.cpp:131] Top shape: 111 20 (2220)
I0501 00:46:21.042484  7900 net.cpp:139] Memory required for data: 10691964
I0501 00:46:21.042487  7900 layer_factory.hpp:77] Creating layer ip3
I0501 00:46:21.042495  7900 net.cpp:86] Creating Layer ip3
I0501 00:46:21.042497  7900 net.cpp:408] ip3 <- ip2
I0501 00:46:21.042502  7900 net.cpp:382] ip3 -> ip3
I0501 00:46:21.042628  7900 net.cpp:124] Setting up ip3
I0501 00:46:21.042634  7900 net.cpp:131] Top shape: 111 80 (8880)
I0501 00:46:21.042636  7900 net.cpp:139] Memory required for data: 10727484
I0501 00:46:21.042641  7900 layer_factory.hpp:77] Creating layer relu3
I0501 00:46:21.042645  7900 net.cpp:86] Creating Layer relu3
I0501 00:46:21.042649  7900 net.cpp:408] relu3 <- ip3
I0501 00:46:21.042652  7900 net.cpp:369] relu3 -> ip3 (in-place)
I0501 00:46:21.042783  7900 net.cpp:124] Setting up relu3
I0501 00:46:21.042790  7900 net.cpp:131] Top shape: 111 80 (8880)
I0501 00:46:21.042793  7900 net.cpp:139] Memory required for data: 10763004
I0501 00:46:21.042796  7900 layer_factory.hpp:77] Creating layer ip4
I0501 00:46:21.042817  7900 net.cpp:86] Creating Layer ip4
I0501 00:46:21.042820  7900 net.cpp:408] ip4 <- ip3
I0501 00:46:21.042825  7900 net.cpp:382] ip4 -> ip4
I0501 00:46:21.043799  7900 net.cpp:124] Setting up ip4
I0501 00:46:21.043812  7900 net.cpp:131] Top shape: 111 10 (1110)
I0501 00:46:21.043815  7900 net.cpp:139] Memory required for data: 10767444
I0501 00:46:21.043824  7900 layer_factory.hpp:77] Creating layer loss
I0501 00:46:21.043830  7900 net.cpp:86] Creating Layer loss
I0501 00:46:21.043833  7900 net.cpp:408] loss <- ip4
I0501 00:46:21.043838  7900 net.cpp:408] loss <- label
I0501 00:46:21.043843  7900 net.cpp:382] loss -> loss
I0501 00:46:21.043860  7900 layer_factory.hpp:77] Creating layer loss
…
I0501 00:46:21.045114  7900 solver.cpp:173] Creating test net (#0) specified by net file: ECE595/cifar/train_test/var_everything/cifar_train_test_268.prototxt
I0501 00:46:21.045156  7900 net.cpp:296] The NetState phase (1) differed from the phase (0) specified by a rule in layer cifar
I0501 00:46:21.045258  7900 net.cpp:53] Initializing net from parameters: 
name: "CIFAR"
state {
  phase: TEST
}
layer {
  name: "cifar"
  type: "Data"
  top: "data"
  top: "label"
  include {
    phase: TEST
  }
  transform_param {
    mean_file: "examples/cifar10/mean.binaryproto"
  }
  data_param {
    source: "examples/cifar10/cifar10_test_lmdb"
    batch_size: 1000
    backend: LMDB
  }
}
layer {
  name: "conv0"
  type: "Convolution"
  bottom: "data"
  top: "conv0"
  param {
    lr_mult: 1
  }
  param {
    lr_mult: 2
  }
  convolution_param {
    num_output: 8
    pad: 2
    kernel_size: 3
    stride: 1
    weight_filler {
      type: "gaussian"
      std: 0.01
    }
    bias_filler {
      type: "constant"
    }
  }
}
layer {
  name: "Sigmoid0"
  type: "Sigmoid"
  bottom: "conv0"
  top: "Sigmoid0"
}
layer {
  name: "pool0"
  type: "Pooling"
  bottom: "Sigmoid0"
  top: "pool0"
  pooling_param {
    pool: AVE
    kernel_size: 3
    stride: 2
  }
}
layer {
  name: "ip1"
  type: "InnerProduct"
  bottom: "pool0"
  top: "ip1"
  param {
    lr_mult: 1
  }
  param {
    lr_mult: 2
  }
  inner_product_param {
    num_output: 80
    weight_filler {
      type: "gaussian"
      std: 0.01
    }
    bias_filler {
      type: "constant"
    }
  }
}
layer {
  name: "relu1"
  type: "ReLU"
  bottom: "ip1"
  top: "ip1"
}
layer {
  name: "ip2"
  type: "InnerProduct"
  bottom: "ip1"
  top: "ip2"
  param {
    lr_mult: 1
  }
  param {
    lr_mult: 2
  }
  inner_product_param {
    num_output: 20
    weight_filler {
      type: "gaussian"
      std: 0.01
    }
    bias_filler {
      type: "constant"
    }
  }
}
layer {
  name: "relu2"
  type: "ReLU"
  bottom: "ip2"
  top: "ip2"
}
layer {
  name: "ip3"
  type: "InnerProduct"
  bottom: "ip2"
  top: "ip3"
  param {
    lr_mult: 1
  }
  param {
    lr_mult: 2
  }
  inner_product_param {
    num_output: 80
    weight_filler {
      type: "gaussian"
      std: 0.01
    }
    bias_filler {
      type: "constant"
    }
  }
}
layer {
  name: "relu3"
  type: "ReLU"
  bottom: "ip3"
  top: "ip3"
}
layer {
  name: "ip4"
  type: "InnerProduct"
  bottom: "ip3"
  top: "ip4"
  param {
    lr_mult: 1
  }
  param {
    lr_mult: 2
  }
  inner_product_param {
    num_output: 10
    weight_filler {
      type: "gaussian"
      std: 0.01
    }
    bias_filler {
      type: "constant"
    }
  }
}
layer {
  name: "accuracy"
  type: "Accuracy"
  bottom: "ip4"
  bottom: "label"
  top: "accuracy"
  include {
    phase: TEST
  }
}
layer {
  name: "loss"
  type: "SoftmaxWithLoss"
  bottom: "ip4"
  bottom: "label"
  top: "loss"
}
I0501 00:46:21.045331  7900 layer_factory.hpp:77] Creating layer cifar
I0501 00:46:21.045390  7900 db_lmdb.cpp:35] Opened lmdb examples/cifar10/cifar10_test_lmdb
I0501 00:46:21.045402  7900 net.cpp:86] Creating Layer cifar
I0501 00:46:21.045405  7900 net.cpp:382] cifar -> data
I0501 00:46:21.045413  7900 net.cpp:382] cifar -> label
I0501 00:46:21.045419  7900 data_transformer.cpp:25] Loading mean file from: examples/cifar10/mean.binaryproto
I0501 00:46:21.045550  7900 data_layer.cpp:45] output data size: 1000,3,32,32
I0501 00:46:21.067068  7900 net.cpp:124] Setting up cifar
I0501 00:46:21.067092  7900 net.cpp:131] Top shape: 1000 3 32 32 (3072000)
I0501 00:46:21.067098  7900 net.cpp:131] Top shape: 1000 (1000)
I0501 00:46:21.067101  7900 net.cpp:139] Memory required for data: 12292000
I0501 00:46:21.067107  7900 layer_factory.hpp:77] Creating layer label_cifar_1_split
I0501 00:46:21.067123  7900 net.cpp:86] Creating Layer label_cifar_1_split
I0501 00:46:21.067142  7900 net.cpp:408] label_cifar_1_split <- label
I0501 00:46:21.067148  7900 net.cpp:382] label_cifar_1_split -> label_cifar_1_split_0
I0501 00:46:21.067157  7900 net.cpp:382] label_cifar_1_split -> label_cifar_1_split_1
I0501 00:46:21.067256  7900 net.cpp:124] Setting up label_cifar_1_split
I0501 00:46:21.067265  7900 net.cpp:131] Top shape: 1000 (1000)
I0501 00:46:21.067268  7900 net.cpp:131] Top shape: 1000 (1000)
I0501 00:46:21.067270  7900 net.cpp:139] Memory required for data: 12300000
I0501 00:46:21.067275  7900 layer_factory.hpp:77] Creating layer conv0
I0501 00:46:21.067286  7900 net.cpp:86] Creating Layer conv0
I0501 00:46:21.067289  7900 net.cpp:408] conv0 <- data
I0501 00:46:21.067294  7900 net.cpp:382] conv0 -> conv0
I0501 00:46:21.068928  7900 net.cpp:124] Setting up conv0
I0501 00:46:21.068940  7900 net.cpp:131] Top shape: 1000 8 34 34 (9248000)
I0501 00:46:21.068944  7900 net.cpp:139] Memory required for data: 49292000
I0501 00:46:21.068953  7900 layer_factory.hpp:77] Creating layer Sigmoid0
I0501 00:46:21.068959  7900 net.cpp:86] Creating Layer Sigmoid0
I0501 00:46:21.068979  7900 net.cpp:408] Sigmoid0 <- conv0
I0501 00:46:21.068984  7900 net.cpp:382] Sigmoid0 -> Sigmoid0
I0501 00:46:21.069159  7900 net.cpp:124] Setting up Sigmoid0
I0501 00:46:21.069172  7900 net.cpp:131] Top shape: 1000 8 34 34 (9248000)
I0501 00:46:21.069175  7900 net.cpp:139] Memory required for data: 86284000
I0501 00:46:21.069180  7900 layer_factory.hpp:77] Creating layer pool0
I0501 00:46:21.069186  7900 net.cpp:86] Creating Layer pool0
I0501 00:46:21.069190  7900 net.cpp:408] pool0 <- Sigmoid0
I0501 00:46:21.069209  7900 net.cpp:382] pool0 -> pool0
I0501 00:46:21.069357  7900 net.cpp:124] Setting up pool0
I0501 00:46:21.069365  7900 net.cpp:131] Top shape: 1000 8 17 17 (2312000)
I0501 00:46:21.069370  7900 net.cpp:139] Memory required for data: 95532000
I0501 00:46:21.069372  7900 layer_factory.hpp:77] Creating layer ip1
I0501 00:46:21.069380  7900 net.cpp:86] Creating Layer ip1
I0501 00:46:21.069382  7900 net.cpp:408] ip1 <- pool0
I0501 00:46:21.069386  7900 net.cpp:382] ip1 -> ip1
I0501 00:46:21.074681  7900 net.cpp:124] Setting up ip1
I0501 00:46:21.074690  7900 net.cpp:131] Top shape: 1000 80 (80000)
I0501 00:46:21.074694  7900 net.cpp:139] Memory required for data: 95852000
I0501 00:46:21.074717  7900 layer_factory.hpp:77] Creating layer relu1
I0501 00:46:21.074723  7900 net.cpp:86] Creating Layer relu1
I0501 00:46:21.074728  7900 net.cpp:408] relu1 <- ip1
I0501 00:46:21.074733  7900 net.cpp:369] relu1 -> ip1 (in-place)
I0501 00:46:21.074882  7900 net.cpp:124] Setting up relu1
I0501 00:46:21.074890  7900 net.cpp:131] Top shape: 1000 80 (80000)
I0501 00:46:21.074893  7900 net.cpp:139] Memory required for data: 96172000
I0501 00:46:21.074897  7900 layer_factory.hpp:77] Creating layer ip2
I0501 00:46:21.074903  7900 net.cpp:86] Creating Layer ip2
I0501 00:46:21.074905  7900 net.cpp:408] ip2 <- ip1
I0501 00:46:21.074910  7900 net.cpp:382] ip2 -> ip2
I0501 00:46:21.075063  7900 net.cpp:124] Setting up ip2
I0501 00:46:21.075070  7900 net.cpp:131] Top shape: 1000 20 (20000)
I0501 00:46:21.075073  7900 net.cpp:139] Memory required for data: 96252000
I0501 00:46:21.075079  7900 layer_factory.hpp:77] Creating layer relu2
I0501 00:46:21.075085  7900 net.cpp:86] Creating Layer relu2
I0501 00:46:21.075088  7900 net.cpp:408] relu2 <- ip2
I0501 00:46:21.075091  7900 net.cpp:369] relu2 -> ip2 (in-place)
I0501 00:46:21.075809  7900 net.cpp:124] Setting up relu2
I0501 00:46:21.075820  7900 net.cpp:131] Top shape: 1000 20 (20000)
I0501 00:46:21.075825  7900 net.cpp:139] Memory required for data: 96332000
I0501 00:46:21.075829  7900 layer_factory.hpp:77] Creating layer ip3
I0501 00:46:21.075835  7900 net.cpp:86] Creating Layer ip3
I0501 00:46:21.075855  7900 net.cpp:408] ip3 <- ip2
I0501 00:46:21.075860  7900 net.cpp:382] ip3 -> ip3
I0501 00:46:21.075999  7900 net.cpp:124] Setting up ip3
I0501 00:46:21.076006  7900 net.cpp:131] Top shape: 1000 80 (80000)
I0501 00:46:21.076009  7900 net.cpp:139] Memory required for data: 96652000
I0501 00:46:21.076030  7900 layer_factory.hpp:77] Creating layer relu3
I0501 00:46:21.076043  7900 net.cpp:86] Creating Layer relu3
I0501 00:46:21.076046  7900 net.cpp:408] relu3 <- ip3
I0501 00:46:21.076050  7900 net.cpp:369] relu3 -> ip3 (in-place)
I0501 00:46:21.076182  7900 net.cpp:124] Setting up relu3
I0501 00:46:21.076190  7900 net.cpp:131] Top shape: 1000 80 (80000)
I0501 00:46:21.076194  7900 net.cpp:139] Memory required for data: 96972000
I0501 00:46:21.076196  7900 layer_factory.hpp:77] Creating layer ip4
I0501 00:46:21.076202  7900 net.cpp:86] Creating Layer ip4
I0501 00:46:21.076205  7900 net.cpp:408] ip4 <- ip3
I0501 00:46:21.076210  7900 net.cpp:382] ip4 -> ip4
I0501 00:46:21.076318  7900 net.cpp:124] Setting up ip4
I0501 00:46:21.076324  7900 net.cpp:131] Top shape: 1000 10 (10000)
I0501 00:46:21.076334  7900 net.cpp:139] Memory required for data: 97012000
I0501 00:46:21.076342  7900 layer_factory.hpp:77] Creating layer ip4_ip4_0_split
I0501 00:46:21.076347  7900 net.cpp:86] Creating Layer ip4_ip4_0_split
I0501 00:46:21.076350  7900 net.cpp:408] ip4_ip4_0_split <- ip4
I0501 00:46:21.076354  7900 net.cpp:382] ip4_ip4_0_split -> ip4_ip4_0_split_0
I0501 00:46:21.076359  7900 net.cpp:382] ip4_ip4_0_split -> ip4_ip4_0_split_1
I0501 00:46:21.076387  7900 net.cpp:124] Setting up ip4_ip4_0_split
I0501 00:46:21.076392  7900 net.cpp:131] Top shape: 1000 10 (10000)
I0501 00:46:21.076395  7900 net.cpp:131] Top shape: 1000 10 (10000)
I0501 00:46:21.076398  7900 net.cpp:139] Memory required for data: 97092000
I0501 00:46:21.076400  7900 layer_factory.hpp:77] Creating layer accuracy
I0501 00:46:21.076406  7900 net.cpp:86] Creating Layer accuracy
I0501 00:46:21.076408  7900 net.cpp:408] accuracy <- ip4_ip4_0_split_0
I0501 00:46:21.076412  7900 net.cpp:408] accuracy <- label_cifar_1_split_0
I0501 00:46:21.076416  7900 net.cpp:382] accuracy -> accuracy
…
