…
I0430 17:12:12.494910 19042 net.cpp:296] The NetState phase (0) differed from the phase (1) specified by a rule in layer cifar
I0430 17:12:12.494920 19042 net.cpp:296] The NetState phase (0) differed from the phase (1) specified by a rule in layer accuracy
I0430 17:12:12.494977 19042 net.cpp:53] Initializing net from parameters: 
name: "CIFAR"
state {
  phase: TRAIN
  level: 0
  stage: ""
}
layer {
  name: "cifar"
  type: "Data"
  top: "data"
  top: "label"
  include {
    phase: TRAIN
  }
  transform_param {
    mean_file: "examples/cifar10/mean.binaryproto"
  }
  data_param {
    source: "examples/cifar10/cifar10_train_lmdb"
    batch_size: 111
    backend: LMDB
  }
}
layer {
  name: "ip1"
  type: "InnerProduct"
  bottom: "data"
  top: "ip1"
  param {
    lr_mult: 1
  }
  param {
    lr_mult: 2
  }
  inner_product_param {
    num_output: 160
    weight_filler {
      type: "gaussian"
      std: 0.01
    }
    bias_filler {
      type: "constant"
    }
  }
}
layer {
  name: "relu1"
  type: "ReLU"
  bottom: "ip1"
  top: "ip1"
}
layer {
  name: "ip2"
  type: "InnerProduct"
  bottom: "ip1"
  top: "ip2"
  param {
    lr_mult: 1
  }
  param {
    lr_mult: 2
  }
  inner_product_param {
    num_output: 40
    weight_filler {
      type: "gaussian"
      std: 0.01
    }
    bias_filler {
      type: "constant"
    }
  }
}
layer {
  name: "relu2"
  type: "ReLU"
  bottom: "ip2"
  top: "ip2"
}
layer {
  name: "ip3"
  type: "InnerProduct"
  bottom: "ip2"
  top: "ip3"
  param {
    lr_mult: 1
  }
  param {
    lr_mult: 2
  }
  inner_product_param {
    num_output: 10
    weight_filler {
      type: "gaussian"
      std: 0.01
    }
    bias_filler {
      type: "constant"
    }
  }
}
layer {
  name: "loss"
  type: "SoftmaxWithLoss"
  bottom: "ip3"
  bottom: "label"
  top: "loss"
}
I0430 17:12:12.495024 19042 layer_factory.hpp:77] Creating layer cifar
I0430 17:12:12.495111 19042 db_lmdb.cpp:35] Opened lmdb examples/cifar10/cifar10_train_lmdb
I0430 17:12:12.495133 19042 net.cpp:86] Creating Layer cifar
I0430 17:12:12.495141 19042 net.cpp:382] cifar -> data
I0430 17:12:12.495159 19042 net.cpp:382] cifar -> label
I0430 17:12:12.495172 19042 data_transformer.cpp:25] Loading mean file from: examples/cifar10/mean.binaryproto
I0430 17:12:12.496913 19042 data_layer.cpp:45] output data size: 111,3,32,32
I0430 17:12:12.503291 19042 net.cpp:124] Setting up cifar
I0430 17:12:12.503338 19042 net.cpp:131] Top shape: 111 3 32 32 (340992)
I0430 17:12:12.503343 19042 net.cpp:131] Top shape: 111 (111)
I0430 17:12:12.503361 19042 net.cpp:139] Memory required for data: 1364412
I0430 17:12:12.503368 19042 layer_factory.hpp:77] Creating layer ip1
I0430 17:12:12.503378 19042 net.cpp:86] Creating Layer ip1
I0430 17:12:12.503382 19042 net.cpp:408] ip1 <- data
I0430 17:12:12.503408 19042 net.cpp:382] ip1 -> ip1
I0430 17:12:12.517107 19042 net.cpp:124] Setting up ip1
I0430 17:12:12.517135 19042 net.cpp:131] Top shape: 111 160 (17760)
I0430 17:12:12.517139 19042 net.cpp:139] Memory required for data: 1435452
I0430 17:12:12.517165 19042 layer_factory.hpp:77] Creating layer relu1
I0430 17:12:12.517174 19042 net.cpp:86] Creating Layer relu1
I0430 17:12:12.517176 19042 net.cpp:408] relu1 <- ip1
I0430 17:12:12.517181 19042 net.cpp:369] relu1 -> ip1 (in-place)
I0430 17:12:12.738304 19042 net.cpp:124] Setting up relu1
I0430 17:12:12.738332 19042 net.cpp:131] Top shape: 111 160 (17760)
I0430 17:12:12.738335 19042 net.cpp:139] Memory required for data: 1506492
I0430 17:12:12.738358 19042 layer_factory.hpp:77] Creating layer ip2
I0430 17:12:12.738370 19042 net.cpp:86] Creating Layer ip2
I0430 17:12:12.738374 19042 net.cpp:408] ip2 <- ip1
I0430 17:12:12.738381 19042 net.cpp:382] ip2 -> ip2
I0430 17:12:12.739490 19042 net.cpp:124] Setting up ip2
I0430 17:12:12.739502 19042 net.cpp:131] Top shape: 111 40 (4440)
I0430 17:12:12.739506 19042 net.cpp:139] Memory required for data: 1524252
I0430 17:12:12.739514 19042 layer_factory.hpp:77] Creating layer relu2
I0430 17:12:12.739521 19042 net.cpp:86] Creating Layer relu2
I0430 17:12:12.739524 19042 net.cpp:408] relu2 <- ip2
I0430 17:12:12.739528 19042 net.cpp:369] relu2 -> ip2 (in-place)
I0430 17:12:12.740226 19042 net.cpp:124] Setting up relu2
I0430 17:12:12.740237 19042 net.cpp:131] Top shape: 111 40 (4440)
I0430 17:12:12.740255 19042 net.cpp:139] Memory required for data: 1542012
I0430 17:12:12.740258 19042 layer_factory.hpp:77] Creating layer ip3
I0430 17:12:12.740265 19042 net.cpp:86] Creating Layer ip3
I0430 17:12:12.740268 19042 net.cpp:408] ip3 <- ip2
I0430 17:12:12.740273 19042 net.cpp:382] ip3 -> ip3
I0430 17:12:12.741279 19042 net.cpp:124] Setting up ip3
I0430 17:12:12.741291 19042 net.cpp:131] Top shape: 111 10 (1110)
I0430 17:12:12.741310 19042 net.cpp:139] Memory required for data: 1546452
I0430 17:12:12.741317 19042 layer_factory.hpp:77] Creating layer loss
I0430 17:12:12.741323 19042 net.cpp:86] Creating Layer loss
I0430 17:12:12.741327 19042 net.cpp:408] loss <- ip3
I0430 17:12:12.741330 19042 net.cpp:408] loss <- label
I0430 17:12:12.741336 19042 net.cpp:382] loss -> loss
I0430 17:12:12.741370 19042 layer_factory.hpp:77] Creating layer loss
…
I0430 17:12:12.741905 19042 solver.cpp:173] Creating test net (#0) specified by net file: ECE595/cifar/train_test/var_everything/cifar_train_test_27.prototxt
I0430 17:12:12.741926 19042 net.cpp:296] The NetState phase (1) differed from the phase (0) specified by a rule in layer cifar
I0430 17:12:12.742009 19042 net.cpp:53] Initializing net from parameters: 
name: "CIFAR"
state {
  phase: TEST
}
layer {
  name: "cifar"
  type: "Data"
  top: "data"
  top: "label"
  include {
    phase: TEST
  }
  transform_param {
    mean_file: "examples/cifar10/mean.binaryproto"
  }
  data_param {
    source: "examples/cifar10/cifar10_test_lmdb"
    batch_size: 1000
    backend: LMDB
  }
}
layer {
  name: "ip1"
  type: "InnerProduct"
  bottom: "data"
  top: "ip1"
  param {
    lr_mult: 1
  }
  param {
    lr_mult: 2
  }
  inner_product_param {
    num_output: 160
    weight_filler {
      type: "gaussian"
      std: 0.01
    }
    bias_filler {
      type: "constant"
    }
  }
}
layer {
  name: "relu1"
  type: "ReLU"
  bottom: "ip1"
  top: "ip1"
}
layer {
  name: "ip2"
  type: "InnerProduct"
  bottom: "ip1"
  top: "ip2"
  param {
    lr_mult: 1
  }
  param {
    lr_mult: 2
  }
  inner_product_param {
    num_output: 40
    weight_filler {
      type: "gaussian"
      std: 0.01
    }
    bias_filler {
      type: "constant"
    }
  }
}
layer {
  name: "relu2"
  type: "ReLU"
  bottom: "ip2"
  top: "ip2"
}
layer {
  name: "ip3"
  type: "InnerProduct"
  bottom: "ip2"
  top: "ip3"
  param {
    lr_mult: 1
  }
  param {
    lr_mult: 2
  }
  inner_product_param {
    num_output: 10
    weight_filler {
      type: "gaussian"
      std: 0.01
    }
    bias_filler {
      type: "constant"
    }
  }
}
layer {
  name: "accuracy"
  type: "Accuracy"
  bottom: "ip3"
  bottom: "label"
  top: "accuracy"
  include {
    phase: TEST
  }
}
layer {
  name: "loss"
  type: "SoftmaxWithLoss"
  bottom: "ip3"
  bottom: "label"
  top: "loss"
}
I0430 17:12:12.742070 19042 layer_factory.hpp:77] Creating layer cifar
I0430 17:12:12.742113 19042 db_lmdb.cpp:35] Opened lmdb examples/cifar10/cifar10_test_lmdb
I0430 17:12:12.742125 19042 net.cpp:86] Creating Layer cifar
I0430 17:12:12.742130 19042 net.cpp:382] cifar -> data
I0430 17:12:12.742136 19042 net.cpp:382] cifar -> label
I0430 17:12:12.742143 19042 data_transformer.cpp:25] Loading mean file from: examples/cifar10/mean.binaryproto
I0430 17:12:12.742292 19042 data_layer.cpp:45] output data size: 1000,3,32,32
I0430 17:12:12.763279 19042 net.cpp:124] Setting up cifar
I0430 17:12:12.763320 19042 net.cpp:131] Top shape: 1000 3 32 32 (3072000)
I0430 17:12:12.763342 19042 net.cpp:131] Top shape: 1000 (1000)
I0430 17:12:12.763345 19042 net.cpp:139] Memory required for data: 12292000
I0430 17:12:12.763351 19042 layer_factory.hpp:77] Creating layer label_cifar_1_split
I0430 17:12:12.763367 19042 net.cpp:86] Creating Layer label_cifar_1_split
I0430 17:12:12.763371 19042 net.cpp:408] label_cifar_1_split <- label
I0430 17:12:12.763376 19042 net.cpp:382] label_cifar_1_split -> label_cifar_1_split_0
I0430 17:12:12.763386 19042 net.cpp:382] label_cifar_1_split -> label_cifar_1_split_1
I0430 17:12:12.763475 19042 net.cpp:124] Setting up label_cifar_1_split
I0430 17:12:12.763483 19042 net.cpp:131] Top shape: 1000 (1000)
I0430 17:12:12.763487 19042 net.cpp:131] Top shape: 1000 (1000)
I0430 17:12:12.763489 19042 net.cpp:139] Memory required for data: 12300000
I0430 17:12:12.763492 19042 layer_factory.hpp:77] Creating layer ip1
I0430 17:12:12.763501 19042 net.cpp:86] Creating Layer ip1
I0430 17:12:12.763504 19042 net.cpp:408] ip1 <- data
I0430 17:12:12.763509 19042 net.cpp:382] ip1 -> ip1
I0430 17:12:12.776899 19042 net.cpp:124] Setting up ip1
I0430 17:12:12.776929 19042 net.cpp:131] Top shape: 1000 160 (160000)
I0430 17:12:12.776933 19042 net.cpp:139] Memory required for data: 12940000
I0430 17:12:12.776943 19042 layer_factory.hpp:77] Creating layer relu1
I0430 17:12:12.776952 19042 net.cpp:86] Creating Layer relu1
I0430 17:12:12.776954 19042 net.cpp:408] relu1 <- ip1
I0430 17:12:12.776959 19042 net.cpp:369] relu1 -> ip1 (in-place)
I0430 17:12:12.777173 19042 net.cpp:124] Setting up relu1
I0430 17:12:12.777182 19042 net.cpp:131] Top shape: 1000 160 (160000)
I0430 17:12:12.777185 19042 net.cpp:139] Memory required for data: 13580000
I0430 17:12:12.777189 19042 layer_factory.hpp:77] Creating layer ip2
I0430 17:12:12.777197 19042 net.cpp:86] Creating Layer ip2
I0430 17:12:12.777200 19042 net.cpp:408] ip2 <- ip1
I0430 17:12:12.777204 19042 net.cpp:382] ip2 -> ip2
I0430 17:12:12.777505 19042 net.cpp:124] Setting up ip2
I0430 17:12:12.777513 19042 net.cpp:131] Top shape: 1000 40 (40000)
I0430 17:12:12.777516 19042 net.cpp:139] Memory required for data: 13740000
I0430 17:12:12.777524 19042 layer_factory.hpp:77] Creating layer relu2
I0430 17:12:12.777529 19042 net.cpp:86] Creating Layer relu2
I0430 17:12:12.777532 19042 net.cpp:408] relu2 <- ip2
I0430 17:12:12.777536 19042 net.cpp:369] relu2 -> ip2 (in-place)
I0430 17:12:12.778327 19042 net.cpp:124] Setting up relu2
I0430 17:12:12.778353 19042 net.cpp:131] Top shape: 1000 40 (40000)
I0430 17:12:12.778373 19042 net.cpp:139] Memory required for data: 13900000
I0430 17:12:12.778375 19042 layer_factory.hpp:77] Creating layer ip3
I0430 17:12:12.778383 19042 net.cpp:86] Creating Layer ip3
I0430 17:12:12.778385 19042 net.cpp:408] ip3 <- ip2
I0430 17:12:12.778391 19042 net.cpp:382] ip3 -> ip3
I0430 17:12:12.778522 19042 net.cpp:124] Setting up ip3
I0430 17:12:12.778528 19042 net.cpp:131] Top shape: 1000 10 (10000)
I0430 17:12:12.778532 19042 net.cpp:139] Memory required for data: 13940000
I0430 17:12:12.778553 19042 layer_factory.hpp:77] Creating layer ip3_ip3_0_split
I0430 17:12:12.778559 19042 net.cpp:86] Creating Layer ip3_ip3_0_split
I0430 17:12:12.778563 19042 net.cpp:408] ip3_ip3_0_split <- ip3
I0430 17:12:12.778568 19042 net.cpp:382] ip3_ip3_0_split -> ip3_ip3_0_split_0
I0430 17:12:12.778574 19042 net.cpp:382] ip3_ip3_0_split -> ip3_ip3_0_split_1
I0430 17:12:12.778607 19042 net.cpp:124] Setting up ip3_ip3_0_split
I0430 17:12:12.778612 19042 net.cpp:131] Top shape: 1000 10 (10000)
I0430 17:12:12.778616 19042 net.cpp:131] Top shape: 1000 10 (10000)
I0430 17:12:12.778620 19042 net.cpp:139] Memory required for data: 14020000
I0430 17:12:12.778622 19042 layer_factory.hpp:77] Creating layer accuracy
I0430 17:12:12.778630 19042 net.cpp:86] Creating Layer accuracy
I0430 17:12:12.778632 19042 net.cpp:408] accuracy <- ip3_ip3_0_split_0
I0430 17:12:12.778636 19042 net.cpp:408] accuracy <- label_cifar_1_split_0
I0430 17:12:12.778640 19042 net.cpp:382] accuracy -> accuracy
…
