…
I0501 06:12:29.937338 31967 net.cpp:296] The NetState phase (0) differed from the phase (1) specified by a rule in layer cifar
I0501 06:12:29.937364 31967 net.cpp:296] The NetState phase (0) differed from the phase (1) specified by a rule in layer accuracy
I0501 06:12:29.937487 31967 net.cpp:53] Initializing net from parameters: 
name: "CIFAR"
state {
  phase: TRAIN
  level: 0
  stage: ""
}
layer {
  name: "cifar"
  type: "Data"
  top: "data"
  top: "label"
  include {
    phase: TRAIN
  }
  transform_param {
    mean_file: "examples/cifar10/mean.binaryproto"
  }
  data_param {
    source: "examples/cifar10/cifar10_train_lmdb"
    batch_size: 111
    backend: LMDB
  }
}
layer {
  name: "conv0"
  type: "Convolution"
  bottom: "data"
  top: "conv0"
  param {
    lr_mult: 1
  }
  param {
    lr_mult: 2
  }
  convolution_param {
    num_output: 8
    pad: 2
    kernel_size: 5
    stride: 1
    weight_filler {
      type: "gaussian"
      std: 0.01
    }
    bias_filler {
      type: "constant"
    }
  }
}
layer {
  name: "Sigmoid0"
  type: "Sigmoid"
  bottom: "conv0"
  top: "Sigmoid0"
}
layer {
  name: "pool0"
  type: "Pooling"
  bottom: "Sigmoid0"
  top: "pool0"
  pooling_param {
    pool: AVE
    kernel_size: 3
    stride: 2
  }
}
layer {
  name: "ip1"
  type: "InnerProduct"
  bottom: "pool0"
  top: "ip1"
  param {
    lr_mult: 1
  }
  param {
    lr_mult: 2
  }
  inner_product_param {
    num_output: 160
    weight_filler {
      type: "gaussian"
      std: 0.01
    }
    bias_filler {
      type: "constant"
    }
  }
}
layer {
  name: "relu1"
  type: "ReLU"
  bottom: "ip1"
  top: "ip1"
}
layer {
  name: "ip2"
  type: "InnerProduct"
  bottom: "ip1"
  top: "ip2"
  param {
    lr_mult: 1
  }
  param {
    lr_mult: 2
  }
  inner_product_param {
    num_output: 10
    weight_filler {
      type: "gaussian"
      std: 0.01
    }
    bias_filler {
      type: "constant"
    }
  }
}
layer {
  name: "relu2"
  type: "ReLU"
  bottom: "ip2"
  top: "ip2"
}
layer {
  name: "ip3"
  type: "InnerProduct"
  bottom: "ip2"
  top: "ip3"
  param {
    lr_mult: 1
  }
  param {
    lr_mult: 2
  }
  inner_product_param {
    num_output: 80
    weight_filler {
      type: "gaussian"
      std: 0.01
    }
    bias_filler {
      type: "constant"
    }
  }
}
layer {
  name: "relu3"
  type: "ReLU"
  bottom: "ip3"
  top: "ip3"
}
layer {
  name: "ip4"
  type: "InnerProduct"
  bottom: "ip3"
  top: "ip4"
  param {
    lr_mult: 1
  }
  param {
    lr_mult: 2
  }
  inner_product_param {
    num_output: 10
    weight_filler {
      type: "gaussian"
      std: 0.01
    }
    bias_filler {
      type: "constant"
    }
  }
}
layer {
  name: "loss"
  type: "SoftmaxWithLoss"
  bottom: "ip4"
  bottom: "label"
  top: "loss"
}
I0501 06:12:29.937602 31967 layer_factory.hpp:77] Creating layer cifar
I0501 06:12:29.937733 31967 db_lmdb.cpp:35] Opened lmdb examples/cifar10/cifar10_train_lmdb
I0501 06:12:29.937770 31967 net.cpp:86] Creating Layer cifar
I0501 06:12:29.937783 31967 net.cpp:382] cifar -> data
I0501 06:12:29.937815 31967 net.cpp:382] cifar -> label
I0501 06:12:29.937834 31967 data_transformer.cpp:25] Loading mean file from: examples/cifar10/mean.binaryproto
I0501 06:12:29.940192 31967 data_layer.cpp:45] output data size: 111,3,32,32
I0501 06:12:29.948184 31967 net.cpp:124] Setting up cifar
I0501 06:12:29.948207 31967 net.cpp:131] Top shape: 111 3 32 32 (340992)
I0501 06:12:29.948218 31967 net.cpp:131] Top shape: 111 (111)
I0501 06:12:29.948225 31967 net.cpp:139] Memory required for data: 1364412
I0501 06:12:29.948261 31967 layer_factory.hpp:77] Creating layer conv0
I0501 06:12:29.948288 31967 net.cpp:86] Creating Layer conv0
I0501 06:12:29.948297 31967 net.cpp:408] conv0 <- data
I0501 06:12:29.948317 31967 net.cpp:382] conv0 -> conv0
I0501 06:12:30.240048 31967 net.cpp:124] Setting up conv0
I0501 06:12:30.240078 31967 net.cpp:131] Top shape: 111 8 32 32 (909312)
I0501 06:12:30.240085 31967 net.cpp:139] Memory required for data: 5001660
I0501 06:12:30.240108 31967 layer_factory.hpp:77] Creating layer Sigmoid0
I0501 06:12:30.240125 31967 net.cpp:86] Creating Layer Sigmoid0
I0501 06:12:30.240141 31967 net.cpp:408] Sigmoid0 <- conv0
I0501 06:12:30.240151 31967 net.cpp:382] Sigmoid0 -> Sigmoid0
I0501 06:12:30.240347 31967 net.cpp:124] Setting up Sigmoid0
I0501 06:12:30.240360 31967 net.cpp:131] Top shape: 111 8 32 32 (909312)
I0501 06:12:30.240366 31967 net.cpp:139] Memory required for data: 8638908
I0501 06:12:30.240372 31967 layer_factory.hpp:77] Creating layer pool0
I0501 06:12:30.240383 31967 net.cpp:86] Creating Layer pool0
I0501 06:12:30.240389 31967 net.cpp:408] pool0 <- Sigmoid0
I0501 06:12:30.240398 31967 net.cpp:382] pool0 -> pool0
I0501 06:12:30.241230 31967 net.cpp:124] Setting up pool0
I0501 06:12:30.241248 31967 net.cpp:131] Top shape: 111 8 16 16 (227328)
I0501 06:12:30.241255 31967 net.cpp:139] Memory required for data: 9548220
I0501 06:12:30.241261 31967 layer_factory.hpp:77] Creating layer ip1
I0501 06:12:30.241276 31967 net.cpp:86] Creating Layer ip1
I0501 06:12:30.241282 31967 net.cpp:408] ip1 <- pool0
I0501 06:12:30.241291 31967 net.cpp:382] ip1 -> ip1
I0501 06:12:30.251911 31967 net.cpp:124] Setting up ip1
I0501 06:12:30.251927 31967 net.cpp:131] Top shape: 111 160 (17760)
I0501 06:12:30.251934 31967 net.cpp:139] Memory required for data: 9619260
I0501 06:12:30.251946 31967 layer_factory.hpp:77] Creating layer relu1
I0501 06:12:30.251956 31967 net.cpp:86] Creating Layer relu1
I0501 06:12:30.251962 31967 net.cpp:408] relu1 <- ip1
I0501 06:12:30.251971 31967 net.cpp:369] relu1 -> ip1 (in-place)
I0501 06:12:30.252144 31967 net.cpp:124] Setting up relu1
I0501 06:12:30.252156 31967 net.cpp:131] Top shape: 111 160 (17760)
I0501 06:12:30.252161 31967 net.cpp:139] Memory required for data: 9690300
I0501 06:12:30.252167 31967 layer_factory.hpp:77] Creating layer ip2
I0501 06:12:30.252178 31967 net.cpp:86] Creating Layer ip2
I0501 06:12:30.252184 31967 net.cpp:408] ip2 <- ip1
I0501 06:12:30.252193 31967 net.cpp:382] ip2 -> ip2
I0501 06:12:30.252347 31967 net.cpp:124] Setting up ip2
I0501 06:12:30.252357 31967 net.cpp:131] Top shape: 111 10 (1110)
I0501 06:12:30.252362 31967 net.cpp:139] Memory required for data: 9694740
I0501 06:12:30.252375 31967 layer_factory.hpp:77] Creating layer relu2
I0501 06:12:30.252384 31967 net.cpp:86] Creating Layer relu2
I0501 06:12:30.252395 31967 net.cpp:408] relu2 <- ip2
I0501 06:12:30.252403 31967 net.cpp:369] relu2 -> ip2 (in-place)
I0501 06:12:30.252575 31967 net.cpp:124] Setting up relu2
I0501 06:12:30.252586 31967 net.cpp:131] Top shape: 111 10 (1110)
I0501 06:12:30.252593 31967 net.cpp:139] Memory required for data: 9699180
I0501 06:12:30.252599 31967 layer_factory.hpp:77] Creating layer ip3
I0501 06:12:30.252610 31967 net.cpp:86] Creating Layer ip3
I0501 06:12:30.252616 31967 net.cpp:408] ip3 <- ip2
I0501 06:12:30.252625 31967 net.cpp:382] ip3 -> ip3
I0501 06:12:30.252758 31967 net.cpp:124] Setting up ip3
I0501 06:12:30.252768 31967 net.cpp:131] Top shape: 111 80 (8880)
I0501 06:12:30.252773 31967 net.cpp:139] Memory required for data: 9734700
I0501 06:12:30.252782 31967 layer_factory.hpp:77] Creating layer relu3
I0501 06:12:30.252791 31967 net.cpp:86] Creating Layer relu3
I0501 06:12:30.252796 31967 net.cpp:408] relu3 <- ip3
I0501 06:12:30.252804 31967 net.cpp:369] relu3 -> ip3 (in-place)
I0501 06:12:30.252980 31967 net.cpp:124] Setting up relu3
I0501 06:12:30.252992 31967 net.cpp:131] Top shape: 111 80 (8880)
I0501 06:12:30.252997 31967 net.cpp:139] Memory required for data: 9770220
I0501 06:12:30.253003 31967 layer_factory.hpp:77] Creating layer ip4
I0501 06:12:30.253036 31967 net.cpp:86] Creating Layer ip4
I0501 06:12:30.253041 31967 net.cpp:408] ip4 <- ip3
I0501 06:12:30.253051 31967 net.cpp:382] ip4 -> ip4
I0501 06:12:30.253183 31967 net.cpp:124] Setting up ip4
I0501 06:12:30.253193 31967 net.cpp:131] Top shape: 111 10 (1110)
I0501 06:12:30.253198 31967 net.cpp:139] Memory required for data: 9774660
I0501 06:12:30.253212 31967 layer_factory.hpp:77] Creating layer loss
I0501 06:12:30.253221 31967 net.cpp:86] Creating Layer loss
I0501 06:12:30.253227 31967 net.cpp:408] loss <- ip4
I0501 06:12:30.253234 31967 net.cpp:408] loss <- label
I0501 06:12:30.253243 31967 net.cpp:382] loss -> loss
I0501 06:12:30.253268 31967 layer_factory.hpp:77] Creating layer loss
…
I0501 06:12:30.254617 31967 solver.cpp:173] Creating test net (#0) specified by net file: ECE595/cifar/train_test/var_everything/cifar_train_test_443.prototxt
I0501 06:12:30.254653 31967 net.cpp:296] The NetState phase (1) differed from the phase (0) specified by a rule in layer cifar
I0501 06:12:30.254761 31967 net.cpp:53] Initializing net from parameters: 
name: "CIFAR"
state {
  phase: TEST
}
layer {
  name: "cifar"
  type: "Data"
  top: "data"
  top: "label"
  include {
    phase: TEST
  }
  transform_param {
    mean_file: "examples/cifar10/mean.binaryproto"
  }
  data_param {
    source: "examples/cifar10/cifar10_test_lmdb"
    batch_size: 1000
    backend: LMDB
  }
}
layer {
  name: "conv0"
  type: "Convolution"
  bottom: "data"
  top: "conv0"
  param {
    lr_mult: 1
  }
  param {
    lr_mult: 2
  }
  convolution_param {
    num_output: 8
    pad: 2
    kernel_size: 5
    stride: 1
    weight_filler {
      type: "gaussian"
      std: 0.01
    }
    bias_filler {
      type: "constant"
    }
  }
}
layer {
  name: "Sigmoid0"
  type: "Sigmoid"
  bottom: "conv0"
  top: "Sigmoid0"
}
layer {
  name: "pool0"
  type: "Pooling"
  bottom: "Sigmoid0"
  top: "pool0"
  pooling_param {
    pool: AVE
    kernel_size: 3
    stride: 2
  }
}
layer {
  name: "ip1"
  type: "InnerProduct"
  bottom: "pool0"
  top: "ip1"
  param {
    lr_mult: 1
  }
  param {
    lr_mult: 2
  }
  inner_product_param {
    num_output: 160
    weight_filler {
      type: "gaussian"
      std: 0.01
    }
    bias_filler {
      type: "constant"
    }
  }
}
layer {
  name: "relu1"
  type: "ReLU"
  bottom: "ip1"
  top: "ip1"
}
layer {
  name: "ip2"
  type: "InnerProduct"
  bottom: "ip1"
  top: "ip2"
  param {
    lr_mult: 1
  }
  param {
    lr_mult: 2
  }
  inner_product_param {
    num_output: 10
    weight_filler {
      type: "gaussian"
      std: 0.01
    }
    bias_filler {
      type: "constant"
    }
  }
}
layer {
  name: "relu2"
  type: "ReLU"
  bottom: "ip2"
  top: "ip2"
}
layer {
  name: "ip3"
  type: "InnerProduct"
  bottom: "ip2"
  top: "ip3"
  param {
    lr_mult: 1
  }
  param {
    lr_mult: 2
  }
  inner_product_param {
    num_output: 80
    weight_filler {
      type: "gaussian"
      std: 0.01
    }
    bias_filler {
      type: "constant"
    }
  }
}
layer {
  name: "relu3"
  type: "ReLU"
  bottom: "ip3"
  top: "ip3"
}
layer {
  name: "ip4"
  type: "InnerProduct"
  bottom: "ip3"
  top: "ip4"
  param {
    lr_mult: 1
  }
  param {
    lr_mult: 2
  }
  inner_product_param {
    num_output: 10
    weight_filler {
      type: "gaussian"
      std: 0.01
    }
    bias_filler {
      type: "constant"
    }
  }
}
layer {
  name: "accuracy"
  type: "Accuracy"
  bottom: "ip4"
  bottom: "label"
  top: "accuracy"
  include {
    phase: TEST
  }
}
layer {
  name: "loss"
  type: "SoftmaxWithLoss"
  bottom: "ip4"
  bottom: "label"
  top: "loss"
}
I0501 06:12:30.254884 31967 layer_factory.hpp:77] Creating layer cifar
I0501 06:12:30.254947 31967 db_lmdb.cpp:35] Opened lmdb examples/cifar10/cifar10_test_lmdb
I0501 06:12:30.254967 31967 net.cpp:86] Creating Layer cifar
I0501 06:12:30.254976 31967 net.cpp:382] cifar -> data
I0501 06:12:30.254988 31967 net.cpp:382] cifar -> label
I0501 06:12:30.254999 31967 data_transformer.cpp:25] Loading mean file from: examples/cifar10/mean.binaryproto
I0501 06:12:30.255226 31967 data_layer.cpp:45] output data size: 1000,3,32,32
I0501 06:12:30.278198 31967 net.cpp:124] Setting up cifar
I0501 06:12:30.278226 31967 net.cpp:131] Top shape: 1000 3 32 32 (3072000)
I0501 06:12:30.278234 31967 net.cpp:131] Top shape: 1000 (1000)
I0501 06:12:30.278239 31967 net.cpp:139] Memory required for data: 12292000
I0501 06:12:30.278246 31967 layer_factory.hpp:77] Creating layer label_cifar_1_split
I0501 06:12:30.278266 31967 net.cpp:86] Creating Layer label_cifar_1_split
I0501 06:12:30.278273 31967 net.cpp:408] label_cifar_1_split <- label
I0501 06:12:30.278285 31967 net.cpp:382] label_cifar_1_split -> label_cifar_1_split_0
I0501 06:12:30.278297 31967 net.cpp:382] label_cifar_1_split -> label_cifar_1_split_1
I0501 06:12:30.278374 31967 net.cpp:124] Setting up label_cifar_1_split
I0501 06:12:30.278384 31967 net.cpp:131] Top shape: 1000 (1000)
I0501 06:12:30.278391 31967 net.cpp:131] Top shape: 1000 (1000)
I0501 06:12:30.278395 31967 net.cpp:139] Memory required for data: 12300000
I0501 06:12:30.278400 31967 layer_factory.hpp:77] Creating layer conv0
I0501 06:12:30.278419 31967 net.cpp:86] Creating Layer conv0
I0501 06:12:30.278426 31967 net.cpp:408] conv0 <- data
I0501 06:12:30.278436 31967 net.cpp:382] conv0 -> conv0
I0501 06:12:30.280051 31967 net.cpp:124] Setting up conv0
I0501 06:12:30.280067 31967 net.cpp:131] Top shape: 1000 8 32 32 (8192000)
I0501 06:12:30.280073 31967 net.cpp:139] Memory required for data: 45068000
I0501 06:12:30.280089 31967 layer_factory.hpp:77] Creating layer Sigmoid0
I0501 06:12:30.280102 31967 net.cpp:86] Creating Layer Sigmoid0
I0501 06:12:30.280109 31967 net.cpp:408] Sigmoid0 <- conv0
I0501 06:12:30.280117 31967 net.cpp:382] Sigmoid0 -> Sigmoid0
I0501 06:12:30.280308 31967 net.cpp:124] Setting up Sigmoid0
I0501 06:12:30.280321 31967 net.cpp:131] Top shape: 1000 8 32 32 (8192000)
I0501 06:12:30.280326 31967 net.cpp:139] Memory required for data: 77836000
I0501 06:12:30.280331 31967 layer_factory.hpp:77] Creating layer pool0
I0501 06:12:30.280342 31967 net.cpp:86] Creating Layer pool0
I0501 06:12:30.280349 31967 net.cpp:408] pool0 <- Sigmoid0
I0501 06:12:30.280360 31967 net.cpp:382] pool0 -> pool0
I0501 06:12:30.280591 31967 net.cpp:124] Setting up pool0
I0501 06:12:30.280601 31967 net.cpp:131] Top shape: 1000 8 16 16 (2048000)
I0501 06:12:30.280607 31967 net.cpp:139] Memory required for data: 86028000
I0501 06:12:30.280612 31967 layer_factory.hpp:77] Creating layer ip1
I0501 06:12:30.280627 31967 net.cpp:86] Creating Layer ip1
I0501 06:12:30.280633 31967 net.cpp:408] ip1 <- pool0
I0501 06:12:30.280642 31967 net.cpp:382] ip1 -> ip1
I0501 06:12:30.291599 31967 net.cpp:124] Setting up ip1
I0501 06:12:30.291615 31967 net.cpp:131] Top shape: 1000 160 (160000)
I0501 06:12:30.291621 31967 net.cpp:139] Memory required for data: 86668000
I0501 06:12:30.291671 31967 layer_factory.hpp:77] Creating layer relu1
I0501 06:12:30.291683 31967 net.cpp:86] Creating Layer relu1
I0501 06:12:30.291692 31967 net.cpp:408] relu1 <- ip1
I0501 06:12:30.291703 31967 net.cpp:369] relu1 -> ip1 (in-place)
I0501 06:12:30.291914 31967 net.cpp:124] Setting up relu1
I0501 06:12:30.291926 31967 net.cpp:131] Top shape: 1000 160 (160000)
I0501 06:12:30.291931 31967 net.cpp:139] Memory required for data: 87308000
I0501 06:12:30.291936 31967 layer_factory.hpp:77] Creating layer ip2
I0501 06:12:30.291947 31967 net.cpp:86] Creating Layer ip2
I0501 06:12:30.291957 31967 net.cpp:408] ip2 <- ip1
I0501 06:12:30.291966 31967 net.cpp:382] ip2 -> ip2
I0501 06:12:30.292132 31967 net.cpp:124] Setting up ip2
I0501 06:12:30.292142 31967 net.cpp:131] Top shape: 1000 10 (10000)
I0501 06:12:30.292147 31967 net.cpp:139] Memory required for data: 87348000
I0501 06:12:30.292160 31967 layer_factory.hpp:77] Creating layer relu2
I0501 06:12:30.292171 31967 net.cpp:86] Creating Layer relu2
I0501 06:12:30.292179 31967 net.cpp:408] relu2 <- ip2
I0501 06:12:30.292191 31967 net.cpp:369] relu2 -> ip2 (in-place)
I0501 06:12:30.293033 31967 net.cpp:124] Setting up relu2
I0501 06:12:30.293048 31967 net.cpp:131] Top shape: 1000 10 (10000)
I0501 06:12:30.293053 31967 net.cpp:139] Memory required for data: 87388000
I0501 06:12:30.293074 31967 layer_factory.hpp:77] Creating layer ip3
I0501 06:12:30.293087 31967 net.cpp:86] Creating Layer ip3
I0501 06:12:30.293094 31967 net.cpp:408] ip3 <- ip2
I0501 06:12:30.293104 31967 net.cpp:382] ip3 -> ip3
I0501 06:12:30.293270 31967 net.cpp:124] Setting up ip3
I0501 06:12:30.293280 31967 net.cpp:131] Top shape: 1000 80 (80000)
I0501 06:12:30.293285 31967 net.cpp:139] Memory required for data: 87708000
I0501 06:12:30.293295 31967 layer_factory.hpp:77] Creating layer relu3
I0501 06:12:30.293304 31967 net.cpp:86] Creating Layer relu3
I0501 06:12:30.293310 31967 net.cpp:408] relu3 <- ip3
I0501 06:12:30.293319 31967 net.cpp:369] relu3 -> ip3 (in-place)
I0501 06:12:30.293493 31967 net.cpp:124] Setting up relu3
I0501 06:12:30.293503 31967 net.cpp:131] Top shape: 1000 80 (80000)
I0501 06:12:30.293507 31967 net.cpp:139] Memory required for data: 88028000
I0501 06:12:30.293512 31967 layer_factory.hpp:77] Creating layer ip4
I0501 06:12:30.293524 31967 net.cpp:86] Creating Layer ip4
I0501 06:12:30.293530 31967 net.cpp:408] ip4 <- ip3
I0501 06:12:30.293539 31967 net.cpp:382] ip4 -> ip4
I0501 06:12:30.293675 31967 net.cpp:124] Setting up ip4
I0501 06:12:30.293700 31967 net.cpp:131] Top shape: 1000 10 (10000)
I0501 06:12:30.293706 31967 net.cpp:139] Memory required for data: 88068000
I0501 06:12:30.293721 31967 layer_factory.hpp:77] Creating layer ip4_ip4_0_split
I0501 06:12:30.293732 31967 net.cpp:86] Creating Layer ip4_ip4_0_split
I0501 06:12:30.293737 31967 net.cpp:408] ip4_ip4_0_split <- ip4
I0501 06:12:30.293745 31967 net.cpp:382] ip4_ip4_0_split -> ip4_ip4_0_split_0
I0501 06:12:30.293756 31967 net.cpp:382] ip4_ip4_0_split -> ip4_ip4_0_split_1
I0501 06:12:30.293800 31967 net.cpp:124] Setting up ip4_ip4_0_split
I0501 06:12:30.293808 31967 net.cpp:131] Top shape: 1000 10 (10000)
I0501 06:12:30.293817 31967 net.cpp:131] Top shape: 1000 10 (10000)
I0501 06:12:30.293822 31967 net.cpp:139] Memory required for data: 88148000
I0501 06:12:30.293826 31967 layer_factory.hpp:77] Creating layer accuracy
I0501 06:12:30.293836 31967 net.cpp:86] Creating Layer accuracy
I0501 06:12:30.293843 31967 net.cpp:408] accuracy <- ip4_ip4_0_split_0
I0501 06:12:30.293849 31967 net.cpp:408] accuracy <- label_cifar_1_split_0
I0501 06:12:30.293859 31967 net.cpp:382] accuracy -> accuracy
…
