…
I0501 09:15:22.716027 13737 net.cpp:296] The NetState phase (0) differed from the phase (1) specified by a rule in layer cifar
I0501 09:15:22.716044 13737 net.cpp:296] The NetState phase (0) differed from the phase (1) specified by a rule in layer accuracy
I0501 09:15:22.716146 13737 net.cpp:53] Initializing net from parameters: 
name: "CIFAR"
state {
  phase: TRAIN
  level: 0
  stage: ""
}
layer {
  name: "cifar"
  type: "Data"
  top: "data"
  top: "label"
  include {
    phase: TRAIN
  }
  transform_param {
    mean_file: "examples/cifar10/mean.binaryproto"
  }
  data_param {
    source: "examples/cifar10/cifar10_train_lmdb"
    batch_size: 111
    backend: LMDB
  }
}
layer {
  name: "conv0"
  type: "Convolution"
  bottom: "data"
  top: "conv0"
  param {
    lr_mult: 1
  }
  param {
    lr_mult: 2
  }
  convolution_param {
    num_output: 16
    pad: 2
    kernel_size: 3
    stride: 1
    weight_filler {
      type: "gaussian"
      std: 0.01
    }
    bias_filler {
      type: "constant"
    }
  }
}
layer {
  name: "Sigmoid0"
  type: "Sigmoid"
  bottom: "conv0"
  top: "Sigmoid0"
}
layer {
  name: "pool0"
  type: "Pooling"
  bottom: "Sigmoid0"
  top: "pool0"
  pooling_param {
    pool: AVE
    kernel_size: 3
    stride: 2
  }
}
layer {
  name: "ip1"
  type: "InnerProduct"
  bottom: "pool0"
  top: "ip1"
  param {
    lr_mult: 1
  }
  param {
    lr_mult: 2
  }
  inner_product_param {
    num_output: 20
    weight_filler {
      type: "gaussian"
      std: 0.01
    }
    bias_filler {
      type: "constant"
    }
  }
}
layer {
  name: "relu1"
  type: "ReLU"
  bottom: "ip1"
  top: "ip1"
}
layer {
  name: "ip2"
  type: "InnerProduct"
  bottom: "ip1"
  top: "ip2"
  param {
    lr_mult: 1
  }
  param {
    lr_mult: 2
  }
  inner_product_param {
    num_output: 40
    weight_filler {
      type: "gaussian"
      std: 0.01
    }
    bias_filler {
      type: "constant"
    }
  }
}
layer {
  name: "relu2"
  type: "ReLU"
  bottom: "ip2"
  top: "ip2"
}
layer {
  name: "ip3"
  type: "InnerProduct"
  bottom: "ip2"
  top: "ip3"
  param {
    lr_mult: 1
  }
  param {
    lr_mult: 2
  }
  inner_product_param {
    num_output: 160
    weight_filler {
      type: "gaussian"
      std: 0.01
    }
    bias_filler {
      type: "constant"
    }
  }
}
layer {
  name: "relu3"
  type: "ReLU"
  bottom: "ip3"
  top: "ip3"
}
layer {
  name: "ip4"
  type: "InnerProduct"
  bottom: "ip3"
  top: "ip4"
  param {
    lr_mult: 1
  }
  param {
    lr_mult: 2
  }
  inner_product_param {
    num_output: 10
    weight_filler {
      type: "gaussian"
      std: 0.01
    }
    bias_filler {
      type: "constant"
    }
  }
}
layer {
  name: "loss"
  type: "SoftmaxWithLoss"
  bottom: "ip4"
  bottom: "label"
  top: "loss"
}
I0501 09:15:22.716219 13737 layer_factory.hpp:77] Creating layer cifar
I0501 09:15:22.716318 13737 db_lmdb.cpp:35] Opened lmdb examples/cifar10/cifar10_train_lmdb
I0501 09:15:22.716346 13737 net.cpp:86] Creating Layer cifar
I0501 09:15:22.716353 13737 net.cpp:382] cifar -> data
I0501 09:15:22.716377 13737 net.cpp:382] cifar -> label
I0501 09:15:22.716389 13737 data_transformer.cpp:25] Loading mean file from: examples/cifar10/mean.binaryproto
I0501 09:15:22.718539 13737 data_layer.cpp:45] output data size: 111,3,32,32
I0501 09:15:22.726516 13737 net.cpp:124] Setting up cifar
I0501 09:15:22.726534 13737 net.cpp:131] Top shape: 111 3 32 32 (340992)
I0501 09:15:22.726541 13737 net.cpp:131] Top shape: 111 (111)
I0501 09:15:22.726546 13737 net.cpp:139] Memory required for data: 1364412
I0501 09:15:22.726568 13737 layer_factory.hpp:77] Creating layer conv0
I0501 09:15:22.726586 13737 net.cpp:86] Creating Layer conv0
I0501 09:15:22.726591 13737 net.cpp:408] conv0 <- data
I0501 09:15:22.726603 13737 net.cpp:382] conv0 -> conv0
I0501 09:15:23.002194 13737 net.cpp:124] Setting up conv0
I0501 09:15:23.002238 13737 net.cpp:131] Top shape: 111 16 34 34 (2053056)
I0501 09:15:23.002241 13737 net.cpp:139] Memory required for data: 9576636
I0501 09:15:23.002256 13737 layer_factory.hpp:77] Creating layer Sigmoid0
I0501 09:15:23.002267 13737 net.cpp:86] Creating Layer Sigmoid0
I0501 09:15:23.002271 13737 net.cpp:408] Sigmoid0 <- conv0
I0501 09:15:23.002292 13737 net.cpp:382] Sigmoid0 -> Sigmoid0
I0501 09:15:23.002476 13737 net.cpp:124] Setting up Sigmoid0
I0501 09:15:23.002485 13737 net.cpp:131] Top shape: 111 16 34 34 (2053056)
I0501 09:15:23.002488 13737 net.cpp:139] Memory required for data: 17788860
I0501 09:15:23.002491 13737 layer_factory.hpp:77] Creating layer pool0
I0501 09:15:23.002497 13737 net.cpp:86] Creating Layer pool0
I0501 09:15:23.002501 13737 net.cpp:408] pool0 <- Sigmoid0
I0501 09:15:23.002506 13737 net.cpp:382] pool0 -> pool0
I0501 09:15:23.003295 13737 net.cpp:124] Setting up pool0
I0501 09:15:23.003324 13737 net.cpp:131] Top shape: 111 16 17 17 (513264)
I0501 09:15:23.003326 13737 net.cpp:139] Memory required for data: 19841916
I0501 09:15:23.003329 13737 layer_factory.hpp:77] Creating layer ip1
I0501 09:15:23.003340 13737 net.cpp:86] Creating Layer ip1
I0501 09:15:23.003342 13737 net.cpp:408] ip1 <- pool0
I0501 09:15:23.003347 13737 net.cpp:382] ip1 -> ip1
I0501 09:15:23.005777 13737 net.cpp:124] Setting up ip1
I0501 09:15:23.005785 13737 net.cpp:131] Top shape: 111 20 (2220)
I0501 09:15:23.005805 13737 net.cpp:139] Memory required for data: 19850796
I0501 09:15:23.005811 13737 layer_factory.hpp:77] Creating layer relu1
I0501 09:15:23.005817 13737 net.cpp:86] Creating Layer relu1
I0501 09:15:23.005820 13737 net.cpp:408] relu1 <- ip1
I0501 09:15:23.005825 13737 net.cpp:369] relu1 -> ip1 (in-place)
I0501 09:15:23.005997 13737 net.cpp:124] Setting up relu1
I0501 09:15:23.006006 13737 net.cpp:131] Top shape: 111 20 (2220)
I0501 09:15:23.006008 13737 net.cpp:139] Memory required for data: 19859676
I0501 09:15:23.006011 13737 layer_factory.hpp:77] Creating layer ip2
I0501 09:15:23.006016 13737 net.cpp:86] Creating Layer ip2
I0501 09:15:23.006019 13737 net.cpp:408] ip2 <- ip1
I0501 09:15:23.006024 13737 net.cpp:382] ip2 -> ip2
I0501 09:15:23.006131 13737 net.cpp:124] Setting up ip2
I0501 09:15:23.006139 13737 net.cpp:131] Top shape: 111 40 (4440)
I0501 09:15:23.006141 13737 net.cpp:139] Memory required for data: 19877436
I0501 09:15:23.006148 13737 layer_factory.hpp:77] Creating layer relu2
I0501 09:15:23.006153 13737 net.cpp:86] Creating Layer relu2
I0501 09:15:23.006156 13737 net.cpp:408] relu2 <- ip2
I0501 09:15:23.006160 13737 net.cpp:369] relu2 -> ip2 (in-place)
I0501 09:15:23.006294 13737 net.cpp:124] Setting up relu2
I0501 09:15:23.006302 13737 net.cpp:131] Top shape: 111 40 (4440)
I0501 09:15:23.006305 13737 net.cpp:139] Memory required for data: 19895196
I0501 09:15:23.006309 13737 layer_factory.hpp:77] Creating layer ip3
I0501 09:15:23.006315 13737 net.cpp:86] Creating Layer ip3
I0501 09:15:23.006325 13737 net.cpp:408] ip3 <- ip2
I0501 09:15:23.006330 13737 net.cpp:382] ip3 -> ip3
I0501 09:15:23.007408 13737 net.cpp:124] Setting up ip3
I0501 09:15:23.007421 13737 net.cpp:131] Top shape: 111 160 (17760)
I0501 09:15:23.007423 13737 net.cpp:139] Memory required for data: 19966236
I0501 09:15:23.007429 13737 layer_factory.hpp:77] Creating layer relu3
I0501 09:15:23.007434 13737 net.cpp:86] Creating Layer relu3
I0501 09:15:23.007437 13737 net.cpp:408] relu3 <- ip3
I0501 09:15:23.007441 13737 net.cpp:369] relu3 -> ip3 (in-place)
I0501 09:15:23.007614 13737 net.cpp:124] Setting up relu3
I0501 09:15:23.007622 13737 net.cpp:131] Top shape: 111 160 (17760)
I0501 09:15:23.007625 13737 net.cpp:139] Memory required for data: 20037276
I0501 09:15:23.007628 13737 layer_factory.hpp:77] Creating layer ip4
I0501 09:15:23.007649 13737 net.cpp:86] Creating Layer ip4
I0501 09:15:23.007653 13737 net.cpp:408] ip4 <- ip3
I0501 09:15:23.007658 13737 net.cpp:382] ip4 -> ip4
I0501 09:15:23.007792 13737 net.cpp:124] Setting up ip4
I0501 09:15:23.007800 13737 net.cpp:131] Top shape: 111 10 (1110)
I0501 09:15:23.007802 13737 net.cpp:139] Memory required for data: 20041716
I0501 09:15:23.007810 13737 layer_factory.hpp:77] Creating layer loss
I0501 09:15:23.007815 13737 net.cpp:86] Creating Layer loss
I0501 09:15:23.007818 13737 net.cpp:408] loss <- ip4
I0501 09:15:23.007822 13737 net.cpp:408] loss <- label
I0501 09:15:23.007827 13737 net.cpp:382] loss -> loss
I0501 09:15:23.007844 13737 layer_factory.hpp:77] Creating layer loss
…
I0501 09:15:23.009140 13737 solver.cpp:173] Creating test net (#0) specified by net file: ECE595/cifar/train_test/var_everything/cifar_train_test_534.prototxt
I0501 09:15:23.009198 13737 net.cpp:296] The NetState phase (1) differed from the phase (0) specified by a rule in layer cifar
I0501 09:15:23.009330 13737 net.cpp:53] Initializing net from parameters: 
name: "CIFAR"
state {
  phase: TEST
}
layer {
  name: "cifar"
  type: "Data"
  top: "data"
  top: "label"
  include {
    phase: TEST
  }
  transform_param {
    mean_file: "examples/cifar10/mean.binaryproto"
  }
  data_param {
    source: "examples/cifar10/cifar10_test_lmdb"
    batch_size: 1000
    backend: LMDB
  }
}
layer {
  name: "conv0"
  type: "Convolution"
  bottom: "data"
  top: "conv0"
  param {
    lr_mult: 1
  }
  param {
    lr_mult: 2
  }
  convolution_param {
    num_output: 16
    pad: 2
    kernel_size: 3
    stride: 1
    weight_filler {
      type: "gaussian"
      std: 0.01
    }
    bias_filler {
      type: "constant"
    }
  }
}
layer {
  name: "Sigmoid0"
  type: "Sigmoid"
  bottom: "conv0"
  top: "Sigmoid0"
}
layer {
  name: "pool0"
  type: "Pooling"
  bottom: "Sigmoid0"
  top: "pool0"
  pooling_param {
    pool: AVE
    kernel_size: 3
    stride: 2
  }
}
layer {
  name: "ip1"
  type: "InnerProduct"
  bottom: "pool0"
  top: "ip1"
  param {
    lr_mult: 1
  }
  param {
    lr_mult: 2
  }
  inner_product_param {
    num_output: 20
    weight_filler {
      type: "gaussian"
      std: 0.01
    }
    bias_filler {
      type: "constant"
    }
  }
}
layer {
  name: "relu1"
  type: "ReLU"
  bottom: "ip1"
  top: "ip1"
}
layer {
  name: "ip2"
  type: "InnerProduct"
  bottom: "ip1"
  top: "ip2"
  param {
    lr_mult: 1
  }
  param {
    lr_mult: 2
  }
  inner_product_param {
    num_output: 40
    weight_filler {
      type: "gaussian"
      std: 0.01
    }
    bias_filler {
      type: "constant"
    }
  }
}
layer {
  name: "relu2"
  type: "ReLU"
  bottom: "ip2"
  top: "ip2"
}
layer {
  name: "ip3"
  type: "InnerProduct"
  bottom: "ip2"
  top: "ip3"
  param {
    lr_mult: 1
  }
  param {
    lr_mult: 2
  }
  inner_product_param {
    num_output: 160
    weight_filler {
      type: "gaussian"
      std: 0.01
    }
    bias_filler {
      type: "constant"
    }
  }
}
layer {
  name: "relu3"
  type: "ReLU"
  bottom: "ip3"
  top: "ip3"
}
layer {
  name: "ip4"
  type: "InnerProduct"
  bottom: "ip3"
  top: "ip4"
  param {
    lr_mult: 1
  }
  param {
    lr_mult: 2
  }
  inner_product_param {
    num_output: 10
    weight_filler {
      type: "gaussian"
      std: 0.01
    }
    bias_filler {
      type: "constant"
    }
  }
}
layer {
  name: "accuracy"
  type: "Accuracy"
  bottom: "ip4"
  bottom: "label"
  top: "accuracy"
  include {
    phase: TEST
  }
}
layer {
  name: "loss"
  type: "SoftmaxWithLoss"
  bottom: "ip4"
  bottom: "label"
  top: "loss"
}
I0501 09:15:23.009403 13737 layer_factory.hpp:77] Creating layer cifar
I0501 09:15:23.009449 13737 db_lmdb.cpp:35] Opened lmdb examples/cifar10/cifar10_test_lmdb
I0501 09:15:23.009459 13737 net.cpp:86] Creating Layer cifar
I0501 09:15:23.009464 13737 net.cpp:382] cifar -> data
I0501 09:15:23.009471 13737 net.cpp:382] cifar -> label
I0501 09:15:23.009477 13737 data_transformer.cpp:25] Loading mean file from: examples/cifar10/mean.binaryproto
I0501 09:15:23.009605 13737 data_layer.cpp:45] output data size: 1000,3,32,32
I0501 09:15:23.030949 13737 net.cpp:124] Setting up cifar
I0501 09:15:23.030990 13737 net.cpp:131] Top shape: 1000 3 32 32 (3072000)
I0501 09:15:23.030997 13737 net.cpp:131] Top shape: 1000 (1000)
I0501 09:15:23.030999 13737 net.cpp:139] Memory required for data: 12292000
I0501 09:15:23.031004 13737 layer_factory.hpp:77] Creating layer label_cifar_1_split
I0501 09:15:23.031033 13737 net.cpp:86] Creating Layer label_cifar_1_split
I0501 09:15:23.031052 13737 net.cpp:408] label_cifar_1_split <- label
I0501 09:15:23.031059 13737 net.cpp:382] label_cifar_1_split -> label_cifar_1_split_0
I0501 09:15:23.031067 13737 net.cpp:382] label_cifar_1_split -> label_cifar_1_split_1
I0501 09:15:23.031157 13737 net.cpp:124] Setting up label_cifar_1_split
I0501 09:15:23.031164 13737 net.cpp:131] Top shape: 1000 (1000)
I0501 09:15:23.031168 13737 net.cpp:131] Top shape: 1000 (1000)
I0501 09:15:23.031172 13737 net.cpp:139] Memory required for data: 12300000
I0501 09:15:23.031174 13737 layer_factory.hpp:77] Creating layer conv0
I0501 09:15:23.031186 13737 net.cpp:86] Creating Layer conv0
I0501 09:15:23.031189 13737 net.cpp:408] conv0 <- data
I0501 09:15:23.031194 13737 net.cpp:382] conv0 -> conv0
I0501 09:15:23.032781 13737 net.cpp:124] Setting up conv0
I0501 09:15:23.032816 13737 net.cpp:131] Top shape: 1000 16 34 34 (18496000)
I0501 09:15:23.032836 13737 net.cpp:139] Memory required for data: 86284000
I0501 09:15:23.032846 13737 layer_factory.hpp:77] Creating layer Sigmoid0
I0501 09:15:23.032853 13737 net.cpp:86] Creating Layer Sigmoid0
I0501 09:15:23.032856 13737 net.cpp:408] Sigmoid0 <- conv0
I0501 09:15:23.032877 13737 net.cpp:382] Sigmoid0 -> Sigmoid0
I0501 09:15:23.033089 13737 net.cpp:124] Setting up Sigmoid0
I0501 09:15:23.033098 13737 net.cpp:131] Top shape: 1000 16 34 34 (18496000)
I0501 09:15:23.033102 13737 net.cpp:139] Memory required for data: 160268000
I0501 09:15:23.033105 13737 layer_factory.hpp:77] Creating layer pool0
I0501 09:15:23.033113 13737 net.cpp:86] Creating Layer pool0
I0501 09:15:23.033118 13737 net.cpp:408] pool0 <- Sigmoid0
I0501 09:15:23.033121 13737 net.cpp:382] pool0 -> pool0
I0501 09:15:23.033308 13737 net.cpp:124] Setting up pool0
I0501 09:15:23.033316 13737 net.cpp:131] Top shape: 1000 16 17 17 (4624000)
I0501 09:15:23.033320 13737 net.cpp:139] Memory required for data: 178764000
I0501 09:15:23.033324 13737 layer_factory.hpp:77] Creating layer ip1
I0501 09:15:23.033330 13737 net.cpp:86] Creating Layer ip1
I0501 09:15:23.033334 13737 net.cpp:408] ip1 <- pool0
I0501 09:15:23.033339 13737 net.cpp:382] ip1 -> ip1
I0501 09:15:23.035826 13737 net.cpp:124] Setting up ip1
I0501 09:15:23.035836 13737 net.cpp:131] Top shape: 1000 20 (20000)
I0501 09:15:23.035856 13737 net.cpp:139] Memory required for data: 178844000
I0501 09:15:23.035877 13737 layer_factory.hpp:77] Creating layer relu1
I0501 09:15:23.035884 13737 net.cpp:86] Creating Layer relu1
I0501 09:15:23.035887 13737 net.cpp:408] relu1 <- ip1
I0501 09:15:23.035907 13737 net.cpp:369] relu1 -> ip1 (in-place)
I0501 09:15:23.036082 13737 net.cpp:124] Setting up relu1
I0501 09:15:23.036090 13737 net.cpp:131] Top shape: 1000 20 (20000)
I0501 09:15:23.036093 13737 net.cpp:139] Memory required for data: 178924000
I0501 09:15:23.036097 13737 layer_factory.hpp:77] Creating layer ip2
I0501 09:15:23.036103 13737 net.cpp:86] Creating Layer ip2
I0501 09:15:23.036105 13737 net.cpp:408] ip2 <- ip1
I0501 09:15:23.036111 13737 net.cpp:382] ip2 -> ip2
I0501 09:15:23.036262 13737 net.cpp:124] Setting up ip2
I0501 09:15:23.036270 13737 net.cpp:131] Top shape: 1000 40 (40000)
I0501 09:15:23.036273 13737 net.cpp:139] Memory required for data: 179084000
I0501 09:15:23.036281 13737 layer_factory.hpp:77] Creating layer relu2
I0501 09:15:23.036288 13737 net.cpp:86] Creating Layer relu2
I0501 09:15:23.036293 13737 net.cpp:408] relu2 <- ip2
I0501 09:15:23.036296 13737 net.cpp:369] relu2 -> ip2 (in-place)
I0501 09:15:23.037089 13737 net.cpp:124] Setting up relu2
I0501 09:15:23.037117 13737 net.cpp:131] Top shape: 1000 40 (40000)
I0501 09:15:23.037120 13737 net.cpp:139] Memory required for data: 179244000
I0501 09:15:23.037123 13737 layer_factory.hpp:77] Creating layer ip3
I0501 09:15:23.037148 13737 net.cpp:86] Creating Layer ip3
I0501 09:15:23.037165 13737 net.cpp:408] ip3 <- ip2
I0501 09:15:23.037173 13737 net.cpp:382] ip3 -> ip3
I0501 09:15:23.037446 13737 net.cpp:124] Setting up ip3
I0501 09:15:23.037453 13737 net.cpp:131] Top shape: 1000 160 (160000)
I0501 09:15:23.037472 13737 net.cpp:139] Memory required for data: 179884000
I0501 09:15:23.037477 13737 layer_factory.hpp:77] Creating layer relu3
I0501 09:15:23.037482 13737 net.cpp:86] Creating Layer relu3
I0501 09:15:23.037484 13737 net.cpp:408] relu3 <- ip3
I0501 09:15:23.037489 13737 net.cpp:369] relu3 -> ip3 (in-place)
I0501 09:15:23.037636 13737 net.cpp:124] Setting up relu3
I0501 09:15:23.037644 13737 net.cpp:131] Top shape: 1000 160 (160000)
I0501 09:15:23.037648 13737 net.cpp:139] Memory required for data: 180524000
I0501 09:15:23.037652 13737 layer_factory.hpp:77] Creating layer ip4
I0501 09:15:23.037658 13737 net.cpp:86] Creating Layer ip4
I0501 09:15:23.037662 13737 net.cpp:408] ip4 <- ip3
I0501 09:15:23.037665 13737 net.cpp:382] ip4 -> ip4
I0501 09:15:23.037806 13737 net.cpp:124] Setting up ip4
I0501 09:15:23.037814 13737 net.cpp:131] Top shape: 1000 10 (10000)
I0501 09:15:23.037817 13737 net.cpp:139] Memory required for data: 180564000
I0501 09:15:23.037824 13737 layer_factory.hpp:77] Creating layer ip4_ip4_0_split
I0501 09:15:23.037830 13737 net.cpp:86] Creating Layer ip4_ip4_0_split
I0501 09:15:23.037833 13737 net.cpp:408] ip4_ip4_0_split <- ip4
I0501 09:15:23.037837 13737 net.cpp:382] ip4_ip4_0_split -> ip4_ip4_0_split_0
I0501 09:15:23.037843 13737 net.cpp:382] ip4_ip4_0_split -> ip4_ip4_0_split_1
I0501 09:15:23.037873 13737 net.cpp:124] Setting up ip4_ip4_0_split
I0501 09:15:23.037883 13737 net.cpp:131] Top shape: 1000 10 (10000)
I0501 09:15:23.037886 13737 net.cpp:131] Top shape: 1000 10 (10000)
I0501 09:15:23.037889 13737 net.cpp:139] Memory required for data: 180644000
I0501 09:15:23.037892 13737 layer_factory.hpp:77] Creating layer accuracy
I0501 09:15:23.037899 13737 net.cpp:86] Creating Layer accuracy
I0501 09:15:23.037901 13737 net.cpp:408] accuracy <- ip4_ip4_0_split_0
I0501 09:15:23.037905 13737 net.cpp:408] accuracy <- label_cifar_1_split_0
I0501 09:15:23.037910 13737 net.cpp:382] accuracy -> accuracy
…
