…
I0430 16:06:02.478479 11918 net.cpp:294] The NetState phase (0) differed from the phase (1) specified by a rule in layer cifar
I0430 16:06:02.478492 11918 net.cpp:294] The NetState phase (0) differed from the phase (1) specified by a rule in layer accuracy
I0430 16:06:02.478577 11918 net.cpp:51] Initializing net from parameters: 
name: "CIFAR"
state {
  phase: TRAIN
  level: 0
  stage: ""
}
layer {
  name: "cifar"
  type: "Data"
  top: "data"
  top: "label"
  include {
    phase: TRAIN
  }
  transform_param {
    mean_file: "examples/cifar10/mean.binaryproto"
  }
  data_param {
    source: "examples/cifar10/cifar10_train_lmdb"
    batch_size: 111
    backend: LMDB
  }
}
layer {
  name: "ip1"
  type: "InnerProduct"
  bottom: "data"
  top: "ip1"
  param {
    lr_mult: 1
  }
  param {
    lr_mult: 2
  }
  inner_product_param {
    num_output: 10
    weight_filler {
      type: "gaussian"
      std: 0.01
    }
    bias_filler {
      type: "constant"
    }
  }
}
layer {
  name: "relu1"
  type: "ReLU"
  bottom: "ip1"
  top: "ip1"
}
layer {
  name: "ip2"
  type: "InnerProduct"
  bottom: "ip1"
  top: "ip2"
  param {
    lr_mult: 1
  }
  param {
    lr_mult: 2
  }
  inner_product_param {
    num_output: 10
    weight_filler {
      type: "gaussian"
      std: 0.01
    }
    bias_filler {
      type: "constant"
    }
  }
}
layer {
  name: "loss"
  type: "SoftmaxWithLoss"
  bottom: "ip2"
  bottom: "label"
  top: "loss"
}
I0430 16:06:02.478649 11918 layer_factory.hpp:77] Creating layer cifar
I0430 16:06:02.478773 11918 db_lmdb.cpp:35] Opened lmdb examples/cifar10/cifar10_train_lmdb
I0430 16:06:02.478807 11918 net.cpp:84] Creating Layer cifar
I0430 16:06:02.478818 11918 net.cpp:380] cifar -> data
I0430 16:06:02.478847 11918 net.cpp:380] cifar -> label
I0430 16:06:02.478863 11918 data_transformer.cpp:25] Loading mean file from: examples/cifar10/mean.binaryproto
I0430 16:06:02.480092 11918 data_layer.cpp:45] output data size: 111,3,32,32
I0430 16:06:02.484696 11918 net.cpp:122] Setting up cifar
I0430 16:06:02.484717 11918 net.cpp:129] Top shape: 111 3 32 32 (340992)
I0430 16:06:02.484721 11918 net.cpp:129] Top shape: 111 (111)
I0430 16:06:02.484724 11918 net.cpp:137] Memory required for data: 1364412
I0430 16:06:02.484733 11918 layer_factory.hpp:77] Creating layer ip1
I0430 16:06:02.484746 11918 net.cpp:84] Creating Layer ip1
I0430 16:06:02.484751 11918 net.cpp:406] ip1 <- data
I0430 16:06:02.484763 11918 net.cpp:380] ip1 -> ip1
I0430 16:06:02.486064 11918 net.cpp:122] Setting up ip1
I0430 16:06:02.486079 11918 net.cpp:129] Top shape: 111 10 (1110)
I0430 16:06:02.486084 11918 net.cpp:137] Memory required for data: 1368852
I0430 16:06:02.486109 11918 layer_factory.hpp:77] Creating layer relu1
I0430 16:06:02.486124 11918 net.cpp:84] Creating Layer relu1
I0430 16:06:02.486129 11918 net.cpp:406] relu1 <- ip1
I0430 16:06:02.486137 11918 net.cpp:367] relu1 -> ip1 (in-place)
I0430 16:06:02.486167 11918 net.cpp:122] Setting up relu1
I0430 16:06:02.486187 11918 net.cpp:129] Top shape: 111 10 (1110)
I0430 16:06:02.486227 11918 net.cpp:137] Memory required for data: 1373292
I0430 16:06:02.486244 11918 layer_factory.hpp:77] Creating layer ip2
I0430 16:06:02.486276 11918 net.cpp:84] Creating Layer ip2
I0430 16:06:02.486291 11918 net.cpp:406] ip2 <- ip1
I0430 16:06:02.486311 11918 net.cpp:380] ip2 -> ip2
I0430 16:06:02.486501 11918 net.cpp:122] Setting up ip2
I0430 16:06:02.486512 11918 net.cpp:129] Top shape: 111 10 (1110)
I0430 16:06:02.486532 11918 net.cpp:137] Memory required for data: 1377732
I0430 16:06:02.486544 11918 layer_factory.hpp:77] Creating layer loss
I0430 16:06:02.486557 11918 net.cpp:84] Creating Layer loss
I0430 16:06:02.486563 11918 net.cpp:406] loss <- ip2
I0430 16:06:02.486568 11918 net.cpp:406] loss <- label
I0430 16:06:02.486577 11918 net.cpp:380] loss -> loss
I0430 16:06:02.486595 11918 layer_factory.hpp:77] Creating layer loss
…
I0430 16:06:02.486937 11918 solver.cpp:173] Creating test net (#0) specified by net file: ECE595/cifar/train_test/var_everything/cifar_train_test_0.prototxt
I0430 16:06:02.486960 11918 net.cpp:294] The NetState phase (1) differed from the phase (0) specified by a rule in layer cifar
I0430 16:06:02.487025 11918 net.cpp:51] Initializing net from parameters: 
name: "CIFAR"
state {
  phase: TEST
}
layer {
  name: "cifar"
  type: "Data"
  top: "data"
  top: "label"
  include {
    phase: TEST
  }
  transform_param {
    mean_file: "examples/cifar10/mean.binaryproto"
  }
  data_param {
    source: "examples/cifar10/cifar10_test_lmdb"
    batch_size: 1000
    backend: LMDB
  }
}
layer {
  name: "ip1"
  type: "InnerProduct"
  bottom: "data"
  top: "ip1"
  param {
    lr_mult: 1
  }
  param {
    lr_mult: 2
  }
  inner_product_param {
    num_output: 10
    weight_filler {
      type: "gaussian"
      std: 0.01
    }
    bias_filler {
      type: "constant"
    }
  }
}
layer {
  name: "relu1"
  type: "ReLU"
  bottom: "ip1"
  top: "ip1"
}
layer {
  name: "ip2"
  type: "InnerProduct"
  bottom: "ip1"
  top: "ip2"
  param {
    lr_mult: 1
  }
  param {
    lr_mult: 2
  }
  inner_product_param {
    num_output: 10
    weight_filler {
      type: "gaussian"
      std: 0.01
    }
    bias_filler {
      type: "constant"
    }
  }
}
layer {
  name: "accuracy"
  type: "Accuracy"
  bottom: "ip2"
  bottom: "label"
  top: "accuracy"
  include {
    phase: TEST
  }
}
layer {
  name: "loss"
  type: "SoftmaxWithLoss"
  bottom: "ip2"
  bottom: "label"
  top: "loss"
}
I0430 16:06:02.487085 11918 layer_factory.hpp:77] Creating layer cifar
I0430 16:06:02.487151 11918 db_lmdb.cpp:35] Opened lmdb examples/cifar10/cifar10_test_lmdb
I0430 16:06:02.487169 11918 net.cpp:84] Creating Layer cifar
I0430 16:06:02.487177 11918 net.cpp:380] cifar -> data
I0430 16:06:02.487190 11918 net.cpp:380] cifar -> label
I0430 16:06:02.487201 11918 data_transformer.cpp:25] Loading mean file from: examples/cifar10/mean.binaryproto
I0430 16:06:02.487349 11918 data_layer.cpp:45] output data size: 1000,3,32,32
I0430 16:06:02.513419 11918 net.cpp:122] Setting up cifar
I0430 16:06:02.513443 11918 net.cpp:129] Top shape: 1000 3 32 32 (3072000)
I0430 16:06:02.513449 11918 net.cpp:129] Top shape: 1000 (1000)
I0430 16:06:02.513453 11918 net.cpp:137] Memory required for data: 12292000
I0430 16:06:02.513460 11918 layer_factory.hpp:77] Creating layer label_cifar_1_split
I0430 16:06:02.513476 11918 net.cpp:84] Creating Layer label_cifar_1_split
I0430 16:06:02.513481 11918 net.cpp:406] label_cifar_1_split <- label
I0430 16:06:02.513490 11918 net.cpp:380] label_cifar_1_split -> label_cifar_1_split_0
I0430 16:06:02.513504 11918 net.cpp:380] label_cifar_1_split -> label_cifar_1_split_1
I0430 16:06:02.513555 11918 net.cpp:122] Setting up label_cifar_1_split
I0430 16:06:02.513561 11918 net.cpp:129] Top shape: 1000 (1000)
I0430 16:06:02.513581 11918 net.cpp:129] Top shape: 1000 (1000)
I0430 16:06:02.513587 11918 net.cpp:137] Memory required for data: 12300000
I0430 16:06:02.513592 11918 layer_factory.hpp:77] Creating layer ip1
I0430 16:06:02.513603 11918 net.cpp:84] Creating Layer ip1
I0430 16:06:02.513608 11918 net.cpp:406] ip1 <- data
I0430 16:06:02.513628 11918 net.cpp:380] ip1 -> ip1
I0430 16:06:02.514039 11918 net.cpp:122] Setting up ip1
I0430 16:06:02.514045 11918 net.cpp:129] Top shape: 1000 10 (10000)
I0430 16:06:02.514050 11918 net.cpp:137] Memory required for data: 12340000
I0430 16:06:02.514065 11918 layer_factory.hpp:77] Creating layer relu1
I0430 16:06:02.514072 11918 net.cpp:84] Creating Layer relu1
I0430 16:06:02.514077 11918 net.cpp:406] relu1 <- ip1
I0430 16:06:02.514086 11918 net.cpp:367] relu1 -> ip1 (in-place)
I0430 16:06:02.514093 11918 net.cpp:122] Setting up relu1
I0430 16:06:02.514099 11918 net.cpp:129] Top shape: 1000 10 (10000)
I0430 16:06:02.514103 11918 net.cpp:137] Memory required for data: 12380000
I0430 16:06:02.514108 11918 layer_factory.hpp:77] Creating layer ip2
I0430 16:06:02.514117 11918 net.cpp:84] Creating Layer ip2
I0430 16:06:02.514122 11918 net.cpp:406] ip2 <- ip1
I0430 16:06:02.514128 11918 net.cpp:380] ip2 -> ip2
I0430 16:06:02.514237 11918 net.cpp:122] Setting up ip2
I0430 16:06:02.514245 11918 net.cpp:129] Top shape: 1000 10 (10000)
I0430 16:06:02.514250 11918 net.cpp:137] Memory required for data: 12420000
I0430 16:06:02.514258 11918 layer_factory.hpp:77] Creating layer ip2_ip2_0_split
I0430 16:06:02.514268 11918 net.cpp:84] Creating Layer ip2_ip2_0_split
I0430 16:06:02.514274 11918 net.cpp:406] ip2_ip2_0_split <- ip2
I0430 16:06:02.514281 11918 net.cpp:380] ip2_ip2_0_split -> ip2_ip2_0_split_0
I0430 16:06:02.514291 11918 net.cpp:380] ip2_ip2_0_split -> ip2_ip2_0_split_1
I0430 16:06:02.514335 11918 net.cpp:122] Setting up ip2_ip2_0_split
I0430 16:06:02.514343 11918 net.cpp:129] Top shape: 1000 10 (10000)
I0430 16:06:02.514348 11918 net.cpp:129] Top shape: 1000 10 (10000)
I0430 16:06:02.514350 11918 net.cpp:137] Memory required for data: 12500000
I0430 16:06:02.514354 11918 layer_factory.hpp:77] Creating layer accuracy
I0430 16:06:02.514363 11918 net.cpp:84] Creating Layer accuracy
I0430 16:06:02.514367 11918 net.cpp:406] accuracy <- ip2_ip2_0_split_0
I0430 16:06:02.514372 11918 net.cpp:406] accuracy <- label_cifar_1_split_0
I0430 16:06:02.514381 11918 net.cpp:380] accuracy -> accuracy
…
