…
I0430 23:53:55.183928  5885 net.cpp:296] The NetState phase (0) differed from the phase (1) specified by a rule in layer cifar
I0430 23:53:55.183959  5885 net.cpp:296] The NetState phase (0) differed from the phase (1) specified by a rule in layer accuracy
I0430 23:53:55.184074  5885 net.cpp:53] Initializing net from parameters: 
name: "CIFAR"
state {
  phase: TRAIN
  level: 0
  stage: ""
}
layer {
  name: "cifar"
  type: "Data"
  top: "data"
  top: "label"
  include {
    phase: TRAIN
  }
  transform_param {
    mean_file: "examples/cifar10/mean.binaryproto"
  }
  data_param {
    source: "examples/cifar10/cifar10_train_lmdb"
    batch_size: 111
    backend: LMDB
  }
}
layer {
  name: "conv0"
  type: "Convolution"
  bottom: "data"
  top: "conv0"
  param {
    lr_mult: 1
  }
  param {
    lr_mult: 2
  }
  convolution_param {
    num_output: 8
    pad: 2
    kernel_size: 3
    stride: 1
    weight_filler {
      type: "gaussian"
      std: 0.01
    }
    bias_filler {
      type: "constant"
    }
  }
}
layer {
  name: "Sigmoid0"
  type: "Sigmoid"
  bottom: "conv0"
  top: "Sigmoid0"
}
layer {
  name: "pool0"
  type: "Pooling"
  bottom: "Sigmoid0"
  top: "pool0"
  pooling_param {
    pool: AVE
    kernel_size: 3
    stride: 2
  }
}
layer {
  name: "ip1"
  type: "InnerProduct"
  bottom: "pool0"
  top: "ip1"
  param {
    lr_mult: 1
  }
  param {
    lr_mult: 2
  }
  inner_product_param {
    num_output: 40
    weight_filler {
      type: "gaussian"
      std: 0.01
    }
    bias_filler {
      type: "constant"
    }
  }
}
layer {
  name: "relu1"
  type: "ReLU"
  bottom: "ip1"
  top: "ip1"
}
layer {
  name: "ip2"
  type: "InnerProduct"
  bottom: "ip1"
  top: "ip2"
  param {
    lr_mult: 1
  }
  param {
    lr_mult: 2
  }
  inner_product_param {
    num_output: 20
    weight_filler {
      type: "gaussian"
      std: 0.01
    }
    bias_filler {
      type: "constant"
    }
  }
}
layer {
  name: "relu2"
  type: "ReLU"
  bottom: "ip2"
  top: "ip2"
}
layer {
  name: "ip3"
  type: "InnerProduct"
  bottom: "ip2"
  top: "ip3"
  param {
    lr_mult: 1
  }
  param {
    lr_mult: 2
  }
  inner_product_param {
    num_output: 10
    weight_filler {
      type: "gaussian"
      std: 0.01
    }
    bias_filler {
      type: "constant"
    }
  }
}
layer {
  name: "relu3"
  type: "ReLU"
  bottom: "ip3"
  top: "ip3"
}
layer {
  name: "ip4"
  type: "InnerProduct"
  bottom: "ip3"
  top: "ip4"
  param {
    lr_mult: 1
  }
  param {
    lr_mult: 2
  }
  inner_product_param {
    num_output: 10
    weight_filler {
      type: "gaussian"
      std: 0.01
    }
    bias_filler {
      type: "constant"
    }
  }
}
layer {
  name: "loss"
  type: "SoftmaxWithLoss"
  bottom: "ip4"
  bottom: "label"
  top: "loss"
}
I0430 23:53:55.184136  5885 layer_factory.hpp:77] Creating layer cifar
I0430 23:53:55.184252  5885 db_lmdb.cpp:35] Opened lmdb examples/cifar10/cifar10_train_lmdb
I0430 23:53:55.184276  5885 net.cpp:86] Creating Layer cifar
I0430 23:53:55.184284  5885 net.cpp:382] cifar -> data
I0430 23:53:55.184303  5885 net.cpp:382] cifar -> label
I0430 23:53:55.184314  5885 data_transformer.cpp:25] Loading mean file from: examples/cifar10/mean.binaryproto
I0430 23:53:55.186086  5885 data_layer.cpp:45] output data size: 111,3,32,32
I0430 23:53:55.192550  5885 net.cpp:124] Setting up cifar
I0430 23:53:55.192565  5885 net.cpp:131] Top shape: 111 3 32 32 (340992)
I0430 23:53:55.192570  5885 net.cpp:131] Top shape: 111 (111)
I0430 23:53:55.192574  5885 net.cpp:139] Memory required for data: 1364412
I0430 23:53:55.192608  5885 layer_factory.hpp:77] Creating layer conv0
I0430 23:53:55.192623  5885 net.cpp:86] Creating Layer conv0
I0430 23:53:55.192628  5885 net.cpp:408] conv0 <- data
I0430 23:53:55.192638  5885 net.cpp:382] conv0 -> conv0
I0430 23:53:55.429612  5885 net.cpp:124] Setting up conv0
I0430 23:53:55.429656  5885 net.cpp:131] Top shape: 111 8 34 34 (1026528)
I0430 23:53:55.429661  5885 net.cpp:139] Memory required for data: 5470524
I0430 23:53:55.429675  5885 layer_factory.hpp:77] Creating layer Sigmoid0
I0430 23:53:55.429687  5885 net.cpp:86] Creating Layer Sigmoid0
I0430 23:53:55.429692  5885 net.cpp:408] Sigmoid0 <- conv0
I0430 23:53:55.429713  5885 net.cpp:382] Sigmoid0 -> Sigmoid0
I0430 23:53:55.429888  5885 net.cpp:124] Setting up Sigmoid0
I0430 23:53:55.429896  5885 net.cpp:131] Top shape: 111 8 34 34 (1026528)
I0430 23:53:55.429900  5885 net.cpp:139] Memory required for data: 9576636
I0430 23:53:55.429903  5885 layer_factory.hpp:77] Creating layer pool0
I0430 23:53:55.429910  5885 net.cpp:86] Creating Layer pool0
I0430 23:53:55.429913  5885 net.cpp:408] pool0 <- Sigmoid0
I0430 23:53:55.429919  5885 net.cpp:382] pool0 -> pool0
I0430 23:53:55.430696  5885 net.cpp:124] Setting up pool0
I0430 23:53:55.430708  5885 net.cpp:131] Top shape: 111 8 17 17 (256632)
I0430 23:53:55.430727  5885 net.cpp:139] Memory required for data: 10603164
I0430 23:53:55.430730  5885 layer_factory.hpp:77] Creating layer ip1
I0430 23:53:55.430739  5885 net.cpp:86] Creating Layer ip1
I0430 23:53:55.430743  5885 net.cpp:408] ip1 <- pool0
I0430 23:53:55.430748  5885 net.cpp:382] ip1 -> ip1
I0430 23:53:55.433348  5885 net.cpp:124] Setting up ip1
I0430 23:53:55.433357  5885 net.cpp:131] Top shape: 111 40 (4440)
I0430 23:53:55.433374  5885 net.cpp:139] Memory required for data: 10620924
I0430 23:53:55.433382  5885 layer_factory.hpp:77] Creating layer relu1
I0430 23:53:55.433387  5885 net.cpp:86] Creating Layer relu1
I0430 23:53:55.433392  5885 net.cpp:408] relu1 <- ip1
I0430 23:53:55.433394  5885 net.cpp:369] relu1 -> ip1 (in-place)
I0430 23:53:55.433576  5885 net.cpp:124] Setting up relu1
I0430 23:53:55.433584  5885 net.cpp:131] Top shape: 111 40 (4440)
I0430 23:53:55.433588  5885 net.cpp:139] Memory required for data: 10638684
I0430 23:53:55.433590  5885 layer_factory.hpp:77] Creating layer ip2
I0430 23:53:55.433598  5885 net.cpp:86] Creating Layer ip2
I0430 23:53:55.433601  5885 net.cpp:408] ip2 <- ip1
I0430 23:53:55.433606  5885 net.cpp:382] ip2 -> ip2
I0430 23:53:55.434607  5885 net.cpp:124] Setting up ip2
I0430 23:53:55.434617  5885 net.cpp:131] Top shape: 111 20 (2220)
I0430 23:53:55.434635  5885 net.cpp:139] Memory required for data: 10647564
I0430 23:53:55.434644  5885 layer_factory.hpp:77] Creating layer relu2
I0430 23:53:55.434665  5885 net.cpp:86] Creating Layer relu2
I0430 23:53:55.434669  5885 net.cpp:408] relu2 <- ip2
I0430 23:53:55.434674  5885 net.cpp:369] relu2 -> ip2 (in-place)
I0430 23:53:55.434859  5885 net.cpp:124] Setting up relu2
I0430 23:53:55.434866  5885 net.cpp:131] Top shape: 111 20 (2220)
I0430 23:53:55.434870  5885 net.cpp:139] Memory required for data: 10656444
I0430 23:53:55.434872  5885 layer_factory.hpp:77] Creating layer ip3
I0430 23:53:55.434880  5885 net.cpp:86] Creating Layer ip3
I0430 23:53:55.434882  5885 net.cpp:408] ip3 <- ip2
I0430 23:53:55.434888  5885 net.cpp:382] ip3 -> ip3
I0430 23:53:55.435003  5885 net.cpp:124] Setting up ip3
I0430 23:53:55.435010  5885 net.cpp:131] Top shape: 111 10 (1110)
I0430 23:53:55.435012  5885 net.cpp:139] Memory required for data: 10660884
I0430 23:53:55.435017  5885 layer_factory.hpp:77] Creating layer relu3
I0430 23:53:55.435022  5885 net.cpp:86] Creating Layer relu3
I0430 23:53:55.435025  5885 net.cpp:408] relu3 <- ip3
I0430 23:53:55.435030  5885 net.cpp:369] relu3 -> ip3 (in-place)
I0430 23:53:55.435178  5885 net.cpp:124] Setting up relu3
I0430 23:53:55.435184  5885 net.cpp:131] Top shape: 111 10 (1110)
I0430 23:53:55.435187  5885 net.cpp:139] Memory required for data: 10665324
I0430 23:53:55.435190  5885 layer_factory.hpp:77] Creating layer ip4
I0430 23:53:55.435210  5885 net.cpp:86] Creating Layer ip4
I0430 23:53:55.435214  5885 net.cpp:408] ip4 <- ip3
I0430 23:53:55.435219  5885 net.cpp:382] ip4 -> ip4
I0430 23:53:55.435317  5885 net.cpp:124] Setting up ip4
I0430 23:53:55.435323  5885 net.cpp:131] Top shape: 111 10 (1110)
I0430 23:53:55.435325  5885 net.cpp:139] Memory required for data: 10669764
I0430 23:53:55.435333  5885 layer_factory.hpp:77] Creating layer loss
I0430 23:53:55.435339  5885 net.cpp:86] Creating Layer loss
I0430 23:53:55.435343  5885 net.cpp:408] loss <- ip4
I0430 23:53:55.435345  5885 net.cpp:408] loss <- label
I0430 23:53:55.435350  5885 net.cpp:382] loss -> loss
I0430 23:53:55.435366  5885 layer_factory.hpp:77] Creating layer loss
…
I0430 23:53:55.436599  5885 solver.cpp:173] Creating test net (#0) specified by net file: ECE595/cifar/train_test/var_everything/cifar_train_test_240.prototxt
I0430 23:53:55.436625  5885 net.cpp:296] The NetState phase (1) differed from the phase (0) specified by a rule in layer cifar
I0430 23:53:55.436719  5885 net.cpp:53] Initializing net from parameters: 
name: "CIFAR"
state {
  phase: TEST
}
layer {
  name: "cifar"
  type: "Data"
  top: "data"
  top: "label"
  include {
    phase: TEST
  }
  transform_param {
    mean_file: "examples/cifar10/mean.binaryproto"
  }
  data_param {
    source: "examples/cifar10/cifar10_test_lmdb"
    batch_size: 1000
    backend: LMDB
  }
}
layer {
  name: "conv0"
  type: "Convolution"
  bottom: "data"
  top: "conv0"
  param {
    lr_mult: 1
  }
  param {
    lr_mult: 2
  }
  convolution_param {
    num_output: 8
    pad: 2
    kernel_size: 3
    stride: 1
    weight_filler {
      type: "gaussian"
      std: 0.01
    }
    bias_filler {
      type: "constant"
    }
  }
}
layer {
  name: "Sigmoid0"
  type: "Sigmoid"
  bottom: "conv0"
  top: "Sigmoid0"
}
layer {
  name: "pool0"
  type: "Pooling"
  bottom: "Sigmoid0"
  top: "pool0"
  pooling_param {
    pool: AVE
    kernel_size: 3
    stride: 2
  }
}
layer {
  name: "ip1"
  type: "InnerProduct"
  bottom: "pool0"
  top: "ip1"
  param {
    lr_mult: 1
  }
  param {
    lr_mult: 2
  }
  inner_product_param {
    num_output: 40
    weight_filler {
      type: "gaussian"
      std: 0.01
    }
    bias_filler {
      type: "constant"
    }
  }
}
layer {
  name: "relu1"
  type: "ReLU"
  bottom: "ip1"
  top: "ip1"
}
layer {
  name: "ip2"
  type: "InnerProduct"
  bottom: "ip1"
  top: "ip2"
  param {
    lr_mult: 1
  }
  param {
    lr_mult: 2
  }
  inner_product_param {
    num_output: 20
    weight_filler {
      type: "gaussian"
      std: 0.01
    }
    bias_filler {
      type: "constant"
    }
  }
}
layer {
  name: "relu2"
  type: "ReLU"
  bottom: "ip2"
  top: "ip2"
}
layer {
  name: "ip3"
  type: "InnerProduct"
  bottom: "ip2"
  top: "ip3"
  param {
    lr_mult: 1
  }
  param {
    lr_mult: 2
  }
  inner_product_param {
    num_output: 10
    weight_filler {
      type: "gaussian"
      std: 0.01
    }
    bias_filler {
      type: "constant"
    }
  }
}
layer {
  name: "relu3"
  type: "ReLU"
  bottom: "ip3"
  top: "ip3"
}
layer {
  name: "ip4"
  type: "InnerProduct"
  bottom: "ip3"
  top: "ip4"
  param {
    lr_mult: 1
  }
  param {
    lr_mult: 2
  }
  inner_product_param {
    num_output: 10
    weight_filler {
      type: "gaussian"
      std: 0.01
    }
    bias_filler {
      type: "constant"
    }
  }
}
layer {
  name: "accuracy"
  type: "Accuracy"
  bottom: "ip4"
  bottom: "label"
  top: "accuracy"
  include {
    phase: TEST
  }
}
layer {
  name: "loss"
  type: "SoftmaxWithLoss"
  bottom: "ip4"
  bottom: "label"
  top: "loss"
}
I0430 23:53:55.436801  5885 layer_factory.hpp:77] Creating layer cifar
I0430 23:53:55.436870  5885 db_lmdb.cpp:35] Opened lmdb examples/cifar10/cifar10_test_lmdb
I0430 23:53:55.436883  5885 net.cpp:86] Creating Layer cifar
I0430 23:53:55.436889  5885 net.cpp:382] cifar -> data
I0430 23:53:55.436897  5885 net.cpp:382] cifar -> label
I0430 23:53:55.436903  5885 data_transformer.cpp:25] Loading mean file from: examples/cifar10/mean.binaryproto
I0430 23:53:55.437050  5885 data_layer.cpp:45] output data size: 1000,3,32,32
I0430 23:53:55.459151  5885 net.cpp:124] Setting up cifar
I0430 23:53:55.459206  5885 net.cpp:131] Top shape: 1000 3 32 32 (3072000)
I0430 23:53:55.459213  5885 net.cpp:131] Top shape: 1000 (1000)
I0430 23:53:55.459215  5885 net.cpp:139] Memory required for data: 12292000
I0430 23:53:55.459221  5885 layer_factory.hpp:77] Creating layer label_cifar_1_split
I0430 23:53:55.459233  5885 net.cpp:86] Creating Layer label_cifar_1_split
I0430 23:53:55.459254  5885 net.cpp:408] label_cifar_1_split <- label
I0430 23:53:55.459259  5885 net.cpp:382] label_cifar_1_split -> label_cifar_1_split_0
I0430 23:53:55.459267  5885 net.cpp:382] label_cifar_1_split -> label_cifar_1_split_1
I0430 23:53:55.459372  5885 net.cpp:124] Setting up label_cifar_1_split
I0430 23:53:55.459378  5885 net.cpp:131] Top shape: 1000 (1000)
I0430 23:53:55.459383  5885 net.cpp:131] Top shape: 1000 (1000)
I0430 23:53:55.459385  5885 net.cpp:139] Memory required for data: 12300000
I0430 23:53:55.459388  5885 layer_factory.hpp:77] Creating layer conv0
I0430 23:53:55.459400  5885 net.cpp:86] Creating Layer conv0
I0430 23:53:55.459404  5885 net.cpp:408] conv0 <- data
I0430 23:53:55.459410  5885 net.cpp:382] conv0 -> conv0
I0430 23:53:55.461088  5885 net.cpp:124] Setting up conv0
I0430 23:53:55.461103  5885 net.cpp:131] Top shape: 1000 8 34 34 (9248000)
I0430 23:53:55.461107  5885 net.cpp:139] Memory required for data: 49292000
I0430 23:53:55.461117  5885 layer_factory.hpp:77] Creating layer Sigmoid0
I0430 23:53:55.461140  5885 net.cpp:86] Creating Layer Sigmoid0
I0430 23:53:55.461143  5885 net.cpp:408] Sigmoid0 <- conv0
I0430 23:53:55.461148  5885 net.cpp:382] Sigmoid0 -> Sigmoid0
I0430 23:53:55.462345  5885 net.cpp:124] Setting up Sigmoid0
I0430 23:53:55.462355  5885 net.cpp:131] Top shape: 1000 8 34 34 (9248000)
I0430 23:53:55.462374  5885 net.cpp:139] Memory required for data: 86284000
I0430 23:53:55.462378  5885 layer_factory.hpp:77] Creating layer pool0
I0430 23:53:55.462385  5885 net.cpp:86] Creating Layer pool0
I0430 23:53:55.462390  5885 net.cpp:408] pool0 <- Sigmoid0
I0430 23:53:55.462395  5885 net.cpp:382] pool0 -> pool0
I0430 23:53:55.462584  5885 net.cpp:124] Setting up pool0
I0430 23:53:55.462592  5885 net.cpp:131] Top shape: 1000 8 17 17 (2312000)
I0430 23:53:55.462595  5885 net.cpp:139] Memory required for data: 95532000
I0430 23:53:55.462599  5885 layer_factory.hpp:77] Creating layer ip1
I0430 23:53:55.462607  5885 net.cpp:86] Creating Layer ip1
I0430 23:53:55.462610  5885 net.cpp:408] ip1 <- pool0
I0430 23:53:55.462615  5885 net.cpp:382] ip1 -> ip1
I0430 23:53:55.465343  5885 net.cpp:124] Setting up ip1
I0430 23:53:55.465351  5885 net.cpp:131] Top shape: 1000 40 (40000)
I0430 23:53:55.465369  5885 net.cpp:139] Memory required for data: 95692000
I0430 23:53:55.465399  5885 layer_factory.hpp:77] Creating layer relu1
I0430 23:53:55.465405  5885 net.cpp:86] Creating Layer relu1
I0430 23:53:55.465409  5885 net.cpp:408] relu1 <- ip1
I0430 23:53:55.465414  5885 net.cpp:369] relu1 -> ip1 (in-place)
I0430 23:53:55.465615  5885 net.cpp:124] Setting up relu1
I0430 23:53:55.465622  5885 net.cpp:131] Top shape: 1000 40 (40000)
I0430 23:53:55.465626  5885 net.cpp:139] Memory required for data: 95852000
I0430 23:53:55.465629  5885 layer_factory.hpp:77] Creating layer ip2
I0430 23:53:55.465636  5885 net.cpp:86] Creating Layer ip2
I0430 23:53:55.465639  5885 net.cpp:408] ip2 <- ip1
I0430 23:53:55.465644  5885 net.cpp:382] ip2 -> ip2
I0430 23:53:55.465772  5885 net.cpp:124] Setting up ip2
I0430 23:53:55.465780  5885 net.cpp:131] Top shape: 1000 20 (20000)
I0430 23:53:55.465782  5885 net.cpp:139] Memory required for data: 95932000
I0430 23:53:55.465790  5885 layer_factory.hpp:77] Creating layer relu2
I0430 23:53:55.465796  5885 net.cpp:86] Creating Layer relu2
I0430 23:53:55.465800  5885 net.cpp:408] relu2 <- ip2
I0430 23:53:55.465803  5885 net.cpp:369] relu2 -> ip2 (in-place)
I0430 23:53:55.466629  5885 net.cpp:124] Setting up relu2
I0430 23:53:55.466641  5885 net.cpp:131] Top shape: 1000 20 (20000)
I0430 23:53:55.466662  5885 net.cpp:139] Memory required for data: 96012000
I0430 23:53:55.466666  5885 layer_factory.hpp:77] Creating layer ip3
I0430 23:53:55.466675  5885 net.cpp:86] Creating Layer ip3
I0430 23:53:55.466677  5885 net.cpp:408] ip3 <- ip2
I0430 23:53:55.466683  5885 net.cpp:382] ip3 -> ip3
I0430 23:53:55.466814  5885 net.cpp:124] Setting up ip3
I0430 23:53:55.466820  5885 net.cpp:131] Top shape: 1000 10 (10000)
I0430 23:53:55.466823  5885 net.cpp:139] Memory required for data: 96052000
I0430 23:53:55.466828  5885 layer_factory.hpp:77] Creating layer relu3
I0430 23:53:55.466833  5885 net.cpp:86] Creating Layer relu3
I0430 23:53:55.466837  5885 net.cpp:408] relu3 <- ip3
I0430 23:53:55.466841  5885 net.cpp:369] relu3 -> ip3 (in-place)
I0430 23:53:55.466998  5885 net.cpp:124] Setting up relu3
I0430 23:53:55.467005  5885 net.cpp:131] Top shape: 1000 10 (10000)
I0430 23:53:55.467008  5885 net.cpp:139] Memory required for data: 96092000
I0430 23:53:55.467011  5885 layer_factory.hpp:77] Creating layer ip4
I0430 23:53:55.467017  5885 net.cpp:86] Creating Layer ip4
I0430 23:53:55.467020  5885 net.cpp:408] ip4 <- ip3
I0430 23:53:55.467026  5885 net.cpp:382] ip4 -> ip4
I0430 23:53:55.467149  5885 net.cpp:124] Setting up ip4
I0430 23:53:55.467156  5885 net.cpp:131] Top shape: 1000 10 (10000)
I0430 23:53:55.467159  5885 net.cpp:139] Memory required for data: 96132000
I0430 23:53:55.467167  5885 layer_factory.hpp:77] Creating layer ip4_ip4_0_split
I0430 23:53:55.467172  5885 net.cpp:86] Creating Layer ip4_ip4_0_split
I0430 23:53:55.467175  5885 net.cpp:408] ip4_ip4_0_split <- ip4
I0430 23:53:55.467180  5885 net.cpp:382] ip4_ip4_0_split -> ip4_ip4_0_split_0
I0430 23:53:55.467185  5885 net.cpp:382] ip4_ip4_0_split -> ip4_ip4_0_split_1
I0430 23:53:55.467217  5885 net.cpp:124] Setting up ip4_ip4_0_split
I0430 23:53:55.467226  5885 net.cpp:131] Top shape: 1000 10 (10000)
I0430 23:53:55.467228  5885 net.cpp:131] Top shape: 1000 10 (10000)
I0430 23:53:55.467231  5885 net.cpp:139] Memory required for data: 96212000
I0430 23:53:55.467234  5885 layer_factory.hpp:77] Creating layer accuracy
I0430 23:53:55.467241  5885 net.cpp:86] Creating Layer accuracy
I0430 23:53:55.467243  5885 net.cpp:408] accuracy <- ip4_ip4_0_split_0
I0430 23:53:55.467247  5885 net.cpp:408] accuracy <- label_cifar_1_split_0
I0430 23:53:55.467252  5885 net.cpp:382] accuracy -> accuracy
…
