…
I0430 16:32:32.660708 17605 net.cpp:296] The NetState phase (0) differed from the phase (1) specified by a rule in layer cifar
I0430 16:32:32.660723 17605 net.cpp:296] The NetState phase (0) differed from the phase (1) specified by a rule in layer accuracy
I0430 16:32:32.660825 17605 net.cpp:53] Initializing net from parameters: 
name: "CIFAR"
state {
  phase: TRAIN
  level: 0
  stage: ""
}
layer {
  name: "cifar"
  type: "Data"
  top: "data"
  top: "label"
  include {
    phase: TRAIN
  }
  transform_param {
    mean_file: "examples/cifar10/mean.binaryproto"
  }
  data_param {
    source: "examples/cifar10/cifar10_train_lmdb"
    batch_size: 111
    backend: LMDB
  }
}
layer {
  name: "ip1"
  type: "InnerProduct"
  bottom: "data"
  top: "ip1"
  param {
    lr_mult: 1
  }
  param {
    lr_mult: 2
  }
  inner_product_param {
    num_output: 10
    weight_filler {
      type: "gaussian"
      std: 0.01
    }
    bias_filler {
      type: "constant"
    }
  }
}
layer {
  name: "relu1"
  type: "ReLU"
  bottom: "ip1"
  top: "ip1"
}
layer {
  name: "ip2"
  type: "InnerProduct"
  bottom: "ip1"
  top: "ip2"
  param {
    lr_mult: 1
  }
  param {
    lr_mult: 2
  }
  inner_product_param {
    num_output: 20
    weight_filler {
      type: "gaussian"
      std: 0.01
    }
    bias_filler {
      type: "constant"
    }
  }
}
layer {
  name: "relu2"
  type: "ReLU"
  bottom: "ip2"
  top: "ip2"
}
layer {
  name: "ip3"
  type: "InnerProduct"
  bottom: "ip2"
  top: "ip3"
  param {
    lr_mult: 1
  }
  param {
    lr_mult: 2
  }
  inner_product_param {
    num_output: 10
    weight_filler {
      type: "gaussian"
      std: 0.01
    }
    bias_filler {
      type: "constant"
    }
  }
}
layer {
  name: "loss"
  type: "SoftmaxWithLoss"
  bottom: "ip3"
  bottom: "label"
  top: "loss"
}
I0430 16:32:32.660899 17605 layer_factory.hpp:77] Creating layer cifar
I0430 16:32:32.661029 17605 db_lmdb.cpp:35] Opened lmdb examples/cifar10/cifar10_train_lmdb
I0430 16:32:32.661065 17605 net.cpp:86] Creating Layer cifar
I0430 16:32:32.661080 17605 net.cpp:382] cifar -> data
I0430 16:32:32.661113 17605 net.cpp:382] cifar -> label
I0430 16:32:32.661136 17605 data_transformer.cpp:25] Loading mean file from: examples/cifar10/mean.binaryproto
I0430 16:32:32.663252 17605 data_layer.cpp:45] output data size: 111,3,32,32
I0430 16:32:32.671140 17605 net.cpp:124] Setting up cifar
I0430 16:32:32.671159 17605 net.cpp:131] Top shape: 111 3 32 32 (340992)
I0430 16:32:32.671166 17605 net.cpp:131] Top shape: 111 (111)
I0430 16:32:32.671169 17605 net.cpp:139] Memory required for data: 1364412
I0430 16:32:32.671176 17605 layer_factory.hpp:77] Creating layer ip1
I0430 16:32:32.671188 17605 net.cpp:86] Creating Layer ip1
I0430 16:32:32.671197 17605 net.cpp:408] ip1 <- data
I0430 16:32:32.671216 17605 net.cpp:382] ip1 -> ip1
I0430 16:32:32.673390 17605 net.cpp:124] Setting up ip1
I0430 16:32:32.673405 17605 net.cpp:131] Top shape: 111 10 (1110)
I0430 16:32:32.673409 17605 net.cpp:139] Memory required for data: 1368852
I0430 16:32:32.673424 17605 layer_factory.hpp:77] Creating layer relu1
I0430 16:32:32.673431 17605 net.cpp:86] Creating Layer relu1
I0430 16:32:32.673436 17605 net.cpp:408] relu1 <- ip1
I0430 16:32:32.673457 17605 net.cpp:369] relu1 -> ip1 (in-place)
I0430 16:32:32.926846 17605 net.cpp:124] Setting up relu1
I0430 16:32:32.926870 17605 net.cpp:131] Top shape: 111 10 (1110)
I0430 16:32:32.926873 17605 net.cpp:139] Memory required for data: 1373292
I0430 16:32:32.926895 17605 layer_factory.hpp:77] Creating layer ip2
I0430 16:32:32.926908 17605 net.cpp:86] Creating Layer ip2
I0430 16:32:32.926911 17605 net.cpp:408] ip2 <- ip1
I0430 16:32:32.926918 17605 net.cpp:382] ip2 -> ip2
I0430 16:32:32.927057 17605 net.cpp:124] Setting up ip2
I0430 16:32:32.927065 17605 net.cpp:131] Top shape: 111 20 (2220)
I0430 16:32:32.927068 17605 net.cpp:139] Memory required for data: 1382172
I0430 16:32:32.927080 17605 layer_factory.hpp:77] Creating layer relu2
I0430 16:32:32.927089 17605 net.cpp:86] Creating Layer relu2
I0430 16:32:32.927094 17605 net.cpp:408] relu2 <- ip2
I0430 16:32:32.927100 17605 net.cpp:369] relu2 -> ip2 (in-place)
I0430 16:32:32.927814 17605 net.cpp:124] Setting up relu2
I0430 16:32:32.927826 17605 net.cpp:131] Top shape: 111 20 (2220)
I0430 16:32:32.927829 17605 net.cpp:139] Memory required for data: 1391052
I0430 16:32:32.927832 17605 layer_factory.hpp:77] Creating layer ip3
I0430 16:32:32.927839 17605 net.cpp:86] Creating Layer ip3
I0430 16:32:32.927841 17605 net.cpp:408] ip3 <- ip2
I0430 16:32:32.927846 17605 net.cpp:382] ip3 -> ip3
I0430 16:32:32.927960 17605 net.cpp:124] Setting up ip3
I0430 16:32:32.927968 17605 net.cpp:131] Top shape: 111 10 (1110)
I0430 16:32:32.927971 17605 net.cpp:139] Memory required for data: 1395492
I0430 16:32:32.927980 17605 layer_factory.hpp:77] Creating layer loss
I0430 16:32:32.927989 17605 net.cpp:86] Creating Layer loss
I0430 16:32:32.927994 17605 net.cpp:408] loss <- ip3
I0430 16:32:32.927999 17605 net.cpp:408] loss <- label
I0430 16:32:32.928005 17605 net.cpp:382] loss -> loss
I0430 16:32:32.928027 17605 layer_factory.hpp:77] Creating layer loss
…
I0430 16:32:32.928570 17605 solver.cpp:173] Creating test net (#0) specified by net file: ECE595/cifar/train_test/var_everything/cifar_train_test_6.prototxt
I0430 16:32:32.928594 17605 net.cpp:296] The NetState phase (1) differed from the phase (0) specified by a rule in layer cifar
I0430 16:32:32.928673 17605 net.cpp:53] Initializing net from parameters: 
name: "CIFAR"
state {
  phase: TEST
}
layer {
  name: "cifar"
  type: "Data"
  top: "data"
  top: "label"
  include {
    phase: TEST
  }
  transform_param {
    mean_file: "examples/cifar10/mean.binaryproto"
  }
  data_param {
    source: "examples/cifar10/cifar10_test_lmdb"
    batch_size: 1000
    backend: LMDB
  }
}
layer {
  name: "ip1"
  type: "InnerProduct"
  bottom: "data"
  top: "ip1"
  param {
    lr_mult: 1
  }
  param {
    lr_mult: 2
  }
  inner_product_param {
    num_output: 10
    weight_filler {
      type: "gaussian"
      std: 0.01
    }
    bias_filler {
      type: "constant"
    }
  }
}
layer {
  name: "relu1"
  type: "ReLU"
  bottom: "ip1"
  top: "ip1"
}
layer {
  name: "ip2"
  type: "InnerProduct"
  bottom: "ip1"
  top: "ip2"
  param {
    lr_mult: 1
  }
  param {
    lr_mult: 2
  }
  inner_product_param {
    num_output: 20
    weight_filler {
      type: "gaussian"
      std: 0.01
    }
    bias_filler {
      type: "constant"
    }
  }
}
layer {
  name: "relu2"
  type: "ReLU"
  bottom: "ip2"
  top: "ip2"
}
layer {
  name: "ip3"
  type: "InnerProduct"
  bottom: "ip2"
  top: "ip3"
  param {
    lr_mult: 1
  }
  param {
    lr_mult: 2
  }
  inner_product_param {
    num_output: 10
    weight_filler {
      type: "gaussian"
      std: 0.01
    }
    bias_filler {
      type: "constant"
    }
  }
}
layer {
  name: "accuracy"
  type: "Accuracy"
  bottom: "ip3"
  bottom: "label"
  top: "accuracy"
  include {
    phase: TEST
  }
}
layer {
  name: "loss"
  type: "SoftmaxWithLoss"
  bottom: "ip3"
  bottom: "label"
  top: "loss"
}
I0430 16:32:32.928769 17605 layer_factory.hpp:77] Creating layer cifar
I0430 16:32:32.928859 17605 db_lmdb.cpp:35] Opened lmdb examples/cifar10/cifar10_test_lmdb
I0430 16:32:32.928879 17605 net.cpp:86] Creating Layer cifar
I0430 16:32:32.928886 17605 net.cpp:382] cifar -> data
I0430 16:32:32.928897 17605 net.cpp:382] cifar -> label
I0430 16:32:32.928907 17605 data_transformer.cpp:25] Loading mean file from: examples/cifar10/mean.binaryproto
I0430 16:32:32.929112 17605 data_layer.cpp:45] output data size: 1000,3,32,32
I0430 16:32:32.950732 17605 net.cpp:124] Setting up cifar
I0430 16:32:32.950773 17605 net.cpp:131] Top shape: 1000 3 32 32 (3072000)
I0430 16:32:32.950778 17605 net.cpp:131] Top shape: 1000 (1000)
I0430 16:32:32.950780 17605 net.cpp:139] Memory required for data: 12292000
I0430 16:32:32.950785 17605 layer_factory.hpp:77] Creating layer label_cifar_1_split
I0430 16:32:32.950801 17605 net.cpp:86] Creating Layer label_cifar_1_split
I0430 16:32:32.950805 17605 net.cpp:408] label_cifar_1_split <- label
I0430 16:32:32.950814 17605 net.cpp:382] label_cifar_1_split -> label_cifar_1_split_0
I0430 16:32:32.950824 17605 net.cpp:382] label_cifar_1_split -> label_cifar_1_split_1
I0430 16:32:32.950938 17605 net.cpp:124] Setting up label_cifar_1_split
I0430 16:32:32.950947 17605 net.cpp:131] Top shape: 1000 (1000)
I0430 16:32:32.950951 17605 net.cpp:131] Top shape: 1000 (1000)
I0430 16:32:32.950953 17605 net.cpp:139] Memory required for data: 12300000
I0430 16:32:32.950958 17605 layer_factory.hpp:77] Creating layer ip1
I0430 16:32:32.950970 17605 net.cpp:86] Creating Layer ip1
I0430 16:32:32.950975 17605 net.cpp:408] ip1 <- data
I0430 16:32:32.950984 17605 net.cpp:382] ip1 -> ip1
I0430 16:32:32.951906 17605 net.cpp:124] Setting up ip1
I0430 16:32:32.951915 17605 net.cpp:131] Top shape: 1000 10 (10000)
I0430 16:32:32.951932 17605 net.cpp:139] Memory required for data: 12340000
I0430 16:32:32.951941 17605 layer_factory.hpp:77] Creating layer relu1
I0430 16:32:32.951947 17605 net.cpp:86] Creating Layer relu1
I0430 16:32:32.951951 17605 net.cpp:408] relu1 <- ip1
I0430 16:32:32.951954 17605 net.cpp:369] relu1 -> ip1 (in-place)
I0430 16:32:32.952155 17605 net.cpp:124] Setting up relu1
I0430 16:32:32.952165 17605 net.cpp:131] Top shape: 1000 10 (10000)
I0430 16:32:32.952168 17605 net.cpp:139] Memory required for data: 12380000
I0430 16:32:32.952172 17605 layer_factory.hpp:77] Creating layer ip2
I0430 16:32:32.952183 17605 net.cpp:86] Creating Layer ip2
I0430 16:32:32.952188 17605 net.cpp:408] ip2 <- ip1
I0430 16:32:32.952196 17605 net.cpp:382] ip2 -> ip2
I0430 16:32:32.952375 17605 net.cpp:124] Setting up ip2
I0430 16:32:32.952399 17605 net.cpp:131] Top shape: 1000 20 (20000)
I0430 16:32:32.952402 17605 net.cpp:139] Memory required for data: 12460000
I0430 16:32:32.952411 17605 layer_factory.hpp:77] Creating layer relu2
I0430 16:32:32.952421 17605 net.cpp:86] Creating Layer relu2
I0430 16:32:32.952426 17605 net.cpp:408] relu2 <- ip2
I0430 16:32:32.952432 17605 net.cpp:369] relu2 -> ip2 (in-place)
I0430 16:32:32.954176 17605 net.cpp:124] Setting up relu2
I0430 16:32:32.954188 17605 net.cpp:131] Top shape: 1000 20 (20000)
I0430 16:32:32.954208 17605 net.cpp:139] Memory required for data: 12540000
I0430 16:32:32.954211 17605 layer_factory.hpp:77] Creating layer ip3
I0430 16:32:32.954217 17605 net.cpp:86] Creating Layer ip3
I0430 16:32:32.954221 17605 net.cpp:408] ip3 <- ip2
I0430 16:32:32.954226 17605 net.cpp:382] ip3 -> ip3
I0430 16:32:32.954355 17605 net.cpp:124] Setting up ip3
I0430 16:32:32.954365 17605 net.cpp:131] Top shape: 1000 10 (10000)
I0430 16:32:32.954366 17605 net.cpp:139] Memory required for data: 12580000
I0430 16:32:32.954394 17605 layer_factory.hpp:77] Creating layer ip3_ip3_0_split
I0430 16:32:32.954404 17605 net.cpp:86] Creating Layer ip3_ip3_0_split
I0430 16:32:32.954409 17605 net.cpp:408] ip3_ip3_0_split <- ip3
I0430 16:32:32.954416 17605 net.cpp:382] ip3_ip3_0_split -> ip3_ip3_0_split_0
I0430 16:32:32.954427 17605 net.cpp:382] ip3_ip3_0_split -> ip3_ip3_0_split_1
I0430 16:32:32.954470 17605 net.cpp:124] Setting up ip3_ip3_0_split
I0430 16:32:32.954478 17605 net.cpp:131] Top shape: 1000 10 (10000)
I0430 16:32:32.954481 17605 net.cpp:131] Top shape: 1000 10 (10000)
I0430 16:32:32.954484 17605 net.cpp:139] Memory required for data: 12660000
I0430 16:32:32.954488 17605 layer_factory.hpp:77] Creating layer accuracy
I0430 16:32:32.954504 17605 net.cpp:86] Creating Layer accuracy
I0430 16:32:32.954509 17605 net.cpp:408] accuracy <- ip3_ip3_0_split_0
I0430 16:32:32.954515 17605 net.cpp:408] accuracy <- label_cifar_1_split_0
I0430 16:32:32.954521 17605 net.cpp:382] accuracy -> accuracy
…
