…
I0430 21:06:59.715338 30074 net.cpp:296] The NetState phase (0) differed from the phase (1) specified by a rule in layer cifar
I0430 21:06:59.715355 30074 net.cpp:296] The NetState phase (0) differed from the phase (1) specified by a rule in layer accuracy
I0430 21:06:59.715464 30074 net.cpp:53] Initializing net from parameters: 
name: "CIFAR"
state {
  phase: TRAIN
  level: 0
  stage: ""
}
layer {
  name: "cifar"
  type: "Data"
  top: "data"
  top: "label"
  include {
    phase: TRAIN
  }
  transform_param {
    mean_file: "examples/cifar10/mean.binaryproto"
  }
  data_param {
    source: "examples/cifar10/cifar10_train_lmdb"
    batch_size: 111
    backend: LMDB
  }
}
layer {
  name: "ip1"
  type: "InnerProduct"
  bottom: "data"
  top: "ip1"
  param {
    lr_mult: 1
  }
  param {
    lr_mult: 2
  }
  inner_product_param {
    num_output: 160
    weight_filler {
      type: "gaussian"
      std: 0.01
    }
    bias_filler {
      type: "constant"
    }
  }
}
layer {
  name: "relu1"
  type: "ReLU"
  bottom: "ip1"
  top: "ip1"
}
layer {
  name: "ip2"
  type: "InnerProduct"
  bottom: "ip1"
  top: "ip2"
  param {
    lr_mult: 1
  }
  param {
    lr_mult: 2
  }
  inner_product_param {
    num_output: 160
    weight_filler {
      type: "gaussian"
      std: 0.01
    }
    bias_filler {
      type: "constant"
    }
  }
}
layer {
  name: "relu2"
  type: "ReLU"
  bottom: "ip2"
  top: "ip2"
}
layer {
  name: "ip3"
  type: "InnerProduct"
  bottom: "ip2"
  top: "ip3"
  param {
    lr_mult: 1
  }
  param {
    lr_mult: 2
  }
  inner_product_param {
    num_output: 20
    weight_filler {
      type: "gaussian"
      std: 0.01
    }
    bias_filler {
      type: "constant"
    }
  }
}
layer {
  name: "relu3"
  type: "ReLU"
  bottom: "ip3"
  top: "ip3"
}
layer {
  name: "ip4"
  type: "InnerProduct"
  bottom: "ip3"
  top: "ip4"
  param {
    lr_mult: 1
  }
  param {
    lr_mult: 2
  }
  inner_product_param {
    num_output: 10
    weight_filler {
      type: "gaussian"
      std: 0.01
    }
    bias_filler {
      type: "constant"
    }
  }
}
layer {
  name: "loss"
  type: "SoftmaxWithLoss"
  bottom: "ip4"
  bottom: "label"
  top: "loss"
}
I0430 21:06:59.715560 30074 layer_factory.hpp:77] Creating layer cifar
I0430 21:06:59.715690 30074 db_lmdb.cpp:35] Opened lmdb examples/cifar10/cifar10_train_lmdb
I0430 21:06:59.715726 30074 net.cpp:86] Creating Layer cifar
I0430 21:06:59.715740 30074 net.cpp:382] cifar -> data
I0430 21:06:59.715770 30074 net.cpp:382] cifar -> label
I0430 21:06:59.715786 30074 data_transformer.cpp:25] Loading mean file from: examples/cifar10/mean.binaryproto
I0430 21:06:59.718087 30074 data_layer.cpp:45] output data size: 111,3,32,32
I0430 21:06:59.726243 30074 net.cpp:124] Setting up cifar
I0430 21:06:59.726263 30074 net.cpp:131] Top shape: 111 3 32 32 (340992)
I0430 21:06:59.726269 30074 net.cpp:131] Top shape: 111 (111)
I0430 21:06:59.726274 30074 net.cpp:139] Memory required for data: 1364412
I0430 21:06:59.726281 30074 layer_factory.hpp:77] Creating layer ip1
I0430 21:06:59.726306 30074 net.cpp:86] Creating Layer ip1
I0430 21:06:59.726316 30074 net.cpp:408] ip1 <- data
I0430 21:06:59.726332 30074 net.cpp:382] ip1 -> ip1
I0430 21:06:59.743613 30074 net.cpp:124] Setting up ip1
I0430 21:06:59.743629 30074 net.cpp:131] Top shape: 111 160 (17760)
I0430 21:06:59.743633 30074 net.cpp:139] Memory required for data: 1435452
I0430 21:06:59.743647 30074 layer_factory.hpp:77] Creating layer relu1
I0430 21:06:59.743677 30074 net.cpp:86] Creating Layer relu1
I0430 21:06:59.743685 30074 net.cpp:408] relu1 <- ip1
I0430 21:06:59.743695 30074 net.cpp:369] relu1 -> ip1 (in-place)
I0430 21:07:00.017654 30074 net.cpp:124] Setting up relu1
I0430 21:07:00.017696 30074 net.cpp:131] Top shape: 111 160 (17760)
I0430 21:07:00.017700 30074 net.cpp:139] Memory required for data: 1506492
I0430 21:07:00.017716 30074 layer_factory.hpp:77] Creating layer ip2
I0430 21:07:00.017729 30074 net.cpp:86] Creating Layer ip2
I0430 21:07:00.017732 30074 net.cpp:408] ip2 <- ip1
I0430 21:07:00.017755 30074 net.cpp:382] ip2 -> ip2
I0430 21:07:00.019474 30074 net.cpp:124] Setting up ip2
I0430 21:07:00.019486 30074 net.cpp:131] Top shape: 111 160 (17760)
I0430 21:07:00.019490 30074 net.cpp:139] Memory required for data: 1577532
I0430 21:07:00.019500 30074 layer_factory.hpp:77] Creating layer relu2
I0430 21:07:00.019506 30074 net.cpp:86] Creating Layer relu2
I0430 21:07:00.019510 30074 net.cpp:408] relu2 <- ip2
I0430 21:07:00.019515 30074 net.cpp:369] relu2 -> ip2 (in-place)
I0430 21:07:00.020227 30074 net.cpp:124] Setting up relu2
I0430 21:07:00.020241 30074 net.cpp:131] Top shape: 111 160 (17760)
I0430 21:07:00.020243 30074 net.cpp:139] Memory required for data: 1648572
I0430 21:07:00.020247 30074 layer_factory.hpp:77] Creating layer ip3
I0430 21:07:00.020254 30074 net.cpp:86] Creating Layer ip3
I0430 21:07:00.020257 30074 net.cpp:408] ip3 <- ip2
I0430 21:07:00.020262 30074 net.cpp:382] ip3 -> ip3
I0430 21:07:00.020454 30074 net.cpp:124] Setting up ip3
I0430 21:07:00.020462 30074 net.cpp:131] Top shape: 111 20 (2220)
I0430 21:07:00.020467 30074 net.cpp:139] Memory required for data: 1657452
I0430 21:07:00.020475 30074 layer_factory.hpp:77] Creating layer relu3
I0430 21:07:00.020484 30074 net.cpp:86] Creating Layer relu3
I0430 21:07:00.020489 30074 net.cpp:408] relu3 <- ip3
I0430 21:07:00.020495 30074 net.cpp:369] relu3 -> ip3 (in-place)
I0430 21:07:00.020645 30074 net.cpp:124] Setting up relu3
I0430 21:07:00.020654 30074 net.cpp:131] Top shape: 111 20 (2220)
I0430 21:07:00.020658 30074 net.cpp:139] Memory required for data: 1666332
I0430 21:07:00.020661 30074 layer_factory.hpp:77] Creating layer ip4
I0430 21:07:00.020670 30074 net.cpp:86] Creating Layer ip4
I0430 21:07:00.020675 30074 net.cpp:408] ip4 <- ip3
I0430 21:07:00.020684 30074 net.cpp:382] ip4 -> ip4
I0430 21:07:00.020787 30074 net.cpp:124] Setting up ip4
I0430 21:07:00.020795 30074 net.cpp:131] Top shape: 111 10 (1110)
I0430 21:07:00.020798 30074 net.cpp:139] Memory required for data: 1670772
I0430 21:07:00.020804 30074 layer_factory.hpp:77] Creating layer loss
I0430 21:07:00.020835 30074 net.cpp:86] Creating Layer loss
I0430 21:07:00.020841 30074 net.cpp:408] loss <- ip4
I0430 21:07:00.020848 30074 net.cpp:408] loss <- label
I0430 21:07:00.020855 30074 net.cpp:382] loss -> loss
I0430 21:07:00.020879 30074 layer_factory.hpp:77] Creating layer loss
…
I0430 21:07:00.021522 30074 solver.cpp:173] Creating test net (#0) specified by net file: ECE595/cifar/train_test/var_everything/cifar_train_test_151.prototxt
I0430 21:07:00.021560 30074 net.cpp:296] The NetState phase (1) differed from the phase (0) specified by a rule in layer cifar
I0430 21:07:00.021644 30074 net.cpp:53] Initializing net from parameters: 
name: "CIFAR"
state {
  phase: TEST
}
layer {
  name: "cifar"
  type: "Data"
  top: "data"
  top: "label"
  include {
    phase: TEST
  }
  transform_param {
    mean_file: "examples/cifar10/mean.binaryproto"
  }
  data_param {
    source: "examples/cifar10/cifar10_test_lmdb"
    batch_size: 1000
    backend: LMDB
  }
}
layer {
  name: "ip1"
  type: "InnerProduct"
  bottom: "data"
  top: "ip1"
  param {
    lr_mult: 1
  }
  param {
    lr_mult: 2
  }
  inner_product_param {
    num_output: 160
    weight_filler {
      type: "gaussian"
      std: 0.01
    }
    bias_filler {
      type: "constant"
    }
  }
}
layer {
  name: "relu1"
  type: "ReLU"
  bottom: "ip1"
  top: "ip1"
}
layer {
  name: "ip2"
  type: "InnerProduct"
  bottom: "ip1"
  top: "ip2"
  param {
    lr_mult: 1
  }
  param {
    lr_mult: 2
  }
  inner_product_param {
    num_output: 160
    weight_filler {
      type: "gaussian"
      std: 0.01
    }
    bias_filler {
      type: "constant"
    }
  }
}
layer {
  name: "relu2"
  type: "ReLU"
  bottom: "ip2"
  top: "ip2"
}
layer {
  name: "ip3"
  type: "InnerProduct"
  bottom: "ip2"
  top: "ip3"
  param {
    lr_mult: 1
  }
  param {
    lr_mult: 2
  }
  inner_product_param {
    num_output: 20
    weight_filler {
      type: "gaussian"
      std: 0.01
    }
    bias_filler {
      type: "constant"
    }
  }
}
layer {
  name: "relu3"
  type: "ReLU"
  bottom: "ip3"
  top: "ip3"
}
layer {
  name: "ip4"
  type: "InnerProduct"
  bottom: "ip3"
  top: "ip4"
  param {
    lr_mult: 1
  }
  param {
    lr_mult: 2
  }
  inner_product_param {
    num_output: 10
    weight_filler {
      type: "gaussian"
      std: 0.01
    }
    bias_filler {
      type: "constant"
    }
  }
}
layer {
  name: "accuracy"
  type: "Accuracy"
  bottom: "ip4"
  bottom: "label"
  top: "accuracy"
  include {
    phase: TEST
  }
}
layer {
  name: "loss"
  type: "SoftmaxWithLoss"
  bottom: "ip4"
  bottom: "label"
  top: "loss"
}
I0430 21:07:00.021726 30074 layer_factory.hpp:77] Creating layer cifar
I0430 21:07:00.021785 30074 db_lmdb.cpp:35] Opened lmdb examples/cifar10/cifar10_test_lmdb
I0430 21:07:00.021800 30074 net.cpp:86] Creating Layer cifar
I0430 21:07:00.021808 30074 net.cpp:382] cifar -> data
I0430 21:07:00.021819 30074 net.cpp:382] cifar -> label
I0430 21:07:00.021828 30074 data_transformer.cpp:25] Loading mean file from: examples/cifar10/mean.binaryproto
I0430 21:07:00.022012 30074 data_layer.cpp:45] output data size: 1000,3,32,32
I0430 21:07:00.044232 30074 net.cpp:124] Setting up cifar
I0430 21:07:00.044275 30074 net.cpp:131] Top shape: 1000 3 32 32 (3072000)
I0430 21:07:00.044296 30074 net.cpp:131] Top shape: 1000 (1000)
I0430 21:07:00.044301 30074 net.cpp:139] Memory required for data: 12292000
I0430 21:07:00.044306 30074 layer_factory.hpp:77] Creating layer label_cifar_1_split
I0430 21:07:00.044322 30074 net.cpp:86] Creating Layer label_cifar_1_split
I0430 21:07:00.044327 30074 net.cpp:408] label_cifar_1_split <- label
I0430 21:07:00.044351 30074 net.cpp:382] label_cifar_1_split -> label_cifar_1_split_0
I0430 21:07:00.044363 30074 net.cpp:382] label_cifar_1_split -> label_cifar_1_split_1
I0430 21:07:00.044450 30074 net.cpp:124] Setting up label_cifar_1_split
I0430 21:07:00.044471 30074 net.cpp:131] Top shape: 1000 (1000)
I0430 21:07:00.044476 30074 net.cpp:131] Top shape: 1000 (1000)
I0430 21:07:00.044479 30074 net.cpp:139] Memory required for data: 12300000
I0430 21:07:00.044484 30074 layer_factory.hpp:77] Creating layer ip1
I0430 21:07:00.044497 30074 net.cpp:86] Creating Layer ip1
I0430 21:07:00.044502 30074 net.cpp:408] ip1 <- data
I0430 21:07:00.044509 30074 net.cpp:382] ip1 -> ip1
I0430 21:07:00.058611 30074 net.cpp:124] Setting up ip1
I0430 21:07:00.058650 30074 net.cpp:131] Top shape: 1000 160 (160000)
I0430 21:07:00.058655 30074 net.cpp:139] Memory required for data: 12940000
I0430 21:07:00.058686 30074 layer_factory.hpp:77] Creating layer relu1
I0430 21:07:00.058697 30074 net.cpp:86] Creating Layer relu1
I0430 21:07:00.058702 30074 net.cpp:408] relu1 <- ip1
I0430 21:07:00.058709 30074 net.cpp:369] relu1 -> ip1 (in-place)
I0430 21:07:00.059581 30074 net.cpp:124] Setting up relu1
I0430 21:07:00.059607 30074 net.cpp:131] Top shape: 1000 160 (160000)
I0430 21:07:00.059612 30074 net.cpp:139] Memory required for data: 13580000
I0430 21:07:00.059630 30074 layer_factory.hpp:77] Creating layer ip2
I0430 21:07:00.059640 30074 net.cpp:86] Creating Layer ip2
I0430 21:07:00.059643 30074 net.cpp:408] ip2 <- ip1
I0430 21:07:00.059648 30074 net.cpp:382] ip2 -> ip2
I0430 21:07:00.060422 30074 net.cpp:124] Setting up ip2
I0430 21:07:00.060431 30074 net.cpp:131] Top shape: 1000 160 (160000)
I0430 21:07:00.060449 30074 net.cpp:139] Memory required for data: 14220000
I0430 21:07:00.060457 30074 layer_factory.hpp:77] Creating layer relu2
I0430 21:07:00.060462 30074 net.cpp:86] Creating Layer relu2
I0430 21:07:00.060466 30074 net.cpp:408] relu2 <- ip2
I0430 21:07:00.060469 30074 net.cpp:369] relu2 -> ip2 (in-place)
I0430 21:07:00.060636 30074 net.cpp:124] Setting up relu2
I0430 21:07:00.060645 30074 net.cpp:131] Top shape: 1000 160 (160000)
I0430 21:07:00.060648 30074 net.cpp:139] Memory required for data: 14860000
I0430 21:07:00.060652 30074 layer_factory.hpp:77] Creating layer ip3
I0430 21:07:00.060662 30074 net.cpp:86] Creating Layer ip3
I0430 21:07:00.060667 30074 net.cpp:408] ip3 <- ip2
I0430 21:07:00.060674 30074 net.cpp:382] ip3 -> ip3
I0430 21:07:00.060914 30074 net.cpp:124] Setting up ip3
I0430 21:07:00.060923 30074 net.cpp:131] Top shape: 1000 20 (20000)
I0430 21:07:00.060926 30074 net.cpp:139] Memory required for data: 14940000
I0430 21:07:00.060936 30074 layer_factory.hpp:77] Creating layer relu3
I0430 21:07:00.060945 30074 net.cpp:86] Creating Layer relu3
I0430 21:07:00.060950 30074 net.cpp:408] relu3 <- ip3
I0430 21:07:00.060956 30074 net.cpp:369] relu3 -> ip3 (in-place)
I0430 21:07:00.061117 30074 net.cpp:124] Setting up relu3
I0430 21:07:00.061126 30074 net.cpp:131] Top shape: 1000 20 (20000)
I0430 21:07:00.061131 30074 net.cpp:139] Memory required for data: 15020000
I0430 21:07:00.061136 30074 layer_factory.hpp:77] Creating layer ip4
I0430 21:07:00.061146 30074 net.cpp:86] Creating Layer ip4
I0430 21:07:00.061167 30074 net.cpp:408] ip4 <- ip3
I0430 21:07:00.061189 30074 net.cpp:382] ip4 -> ip4
I0430 21:07:00.061297 30074 net.cpp:124] Setting up ip4
I0430 21:07:00.061305 30074 net.cpp:131] Top shape: 1000 10 (10000)
I0430 21:07:00.061308 30074 net.cpp:139] Memory required for data: 15060000
I0430 21:07:00.061316 30074 layer_factory.hpp:77] Creating layer ip4_ip4_0_split
I0430 21:07:00.061323 30074 net.cpp:86] Creating Layer ip4_ip4_0_split
I0430 21:07:00.061328 30074 net.cpp:408] ip4_ip4_0_split <- ip4
I0430 21:07:00.061336 30074 net.cpp:382] ip4_ip4_0_split -> ip4_ip4_0_split_0
I0430 21:07:00.061345 30074 net.cpp:382] ip4_ip4_0_split -> ip4_ip4_0_split_1
I0430 21:07:00.061386 30074 net.cpp:124] Setting up ip4_ip4_0_split
I0430 21:07:00.061393 30074 net.cpp:131] Top shape: 1000 10 (10000)
I0430 21:07:00.061398 30074 net.cpp:131] Top shape: 1000 10 (10000)
I0430 21:07:00.061400 30074 net.cpp:139] Memory required for data: 15140000
I0430 21:07:00.061405 30074 layer_factory.hpp:77] Creating layer accuracy
I0430 21:07:00.061414 30074 net.cpp:86] Creating Layer accuracy
I0430 21:07:00.061419 30074 net.cpp:408] accuracy <- ip4_ip4_0_split_0
I0430 21:07:00.061425 30074 net.cpp:408] accuracy <- label_cifar_1_split_0
I0430 21:07:00.061431 30074 net.cpp:382] accuracy -> accuracy
…
