…
I0501 05:44:48.492561 30242 net.cpp:296] The NetState phase (0) differed from the phase (1) specified by a rule in layer cifar
I0501 05:44:48.492591 30242 net.cpp:296] The NetState phase (0) differed from the phase (1) specified by a rule in layer accuracy
I0501 05:44:48.492708 30242 net.cpp:53] Initializing net from parameters: 
name: "CIFAR"
state {
  phase: TRAIN
  level: 0
  stage: ""
}
layer {
  name: "cifar"
  type: "Data"
  top: "data"
  top: "label"
  include {
    phase: TRAIN
  }
  transform_param {
    mean_file: "examples/cifar10/mean.binaryproto"
  }
  data_param {
    source: "examples/cifar10/cifar10_train_lmdb"
    batch_size: 111
    backend: LMDB
  }
}
layer {
  name: "conv0"
  type: "Convolution"
  bottom: "data"
  top: "conv0"
  param {
    lr_mult: 1
  }
  param {
    lr_mult: 2
  }
  convolution_param {
    num_output: 8
    pad: 2
    kernel_size: 5
    stride: 1
    weight_filler {
      type: "gaussian"
      std: 0.01
    }
    bias_filler {
      type: "constant"
    }
  }
}
layer {
  name: "Sigmoid0"
  type: "Sigmoid"
  bottom: "conv0"
  top: "Sigmoid0"
}
layer {
  name: "pool0"
  type: "Pooling"
  bottom: "Sigmoid0"
  top: "pool0"
  pooling_param {
    pool: AVE
    kernel_size: 3
    stride: 2
  }
}
layer {
  name: "ip1"
  type: "InnerProduct"
  bottom: "pool0"
  top: "ip1"
  param {
    lr_mult: 1
  }
  param {
    lr_mult: 2
  }
  inner_product_param {
    num_output: 80
    weight_filler {
      type: "gaussian"
      std: 0.01
    }
    bias_filler {
      type: "constant"
    }
  }
}
layer {
  name: "relu1"
  type: "ReLU"
  bottom: "ip1"
  top: "ip1"
}
layer {
  name: "ip2"
  type: "InnerProduct"
  bottom: "ip1"
  top: "ip2"
  param {
    lr_mult: 1
  }
  param {
    lr_mult: 2
  }
  inner_product_param {
    num_output: 40
    weight_filler {
      type: "gaussian"
      std: 0.01
    }
    bias_filler {
      type: "constant"
    }
  }
}
layer {
  name: "relu2"
  type: "ReLU"
  bottom: "ip2"
  top: "ip2"
}
layer {
  name: "ip3"
  type: "InnerProduct"
  bottom: "ip2"
  top: "ip3"
  param {
    lr_mult: 1
  }
  param {
    lr_mult: 2
  }
  inner_product_param {
    num_output: 80
    weight_filler {
      type: "gaussian"
      std: 0.01
    }
    bias_filler {
      type: "constant"
    }
  }
}
layer {
  name: "relu3"
  type: "ReLU"
  bottom: "ip3"
  top: "ip3"
}
layer {
  name: "ip4"
  type: "InnerProduct"
  bottom: "ip3"
  top: "ip4"
  param {
    lr_mult: 1
  }
  param {
    lr_mult: 2
  }
  inner_product_param {
    num_output: 10
    weight_filler {
      type: "gaussian"
      std: 0.01
    }
    bias_filler {
      type: "constant"
    }
  }
}
layer {
  name: "loss"
  type: "SoftmaxWithLoss"
  bottom: "ip4"
  bottom: "label"
  top: "loss"
}
I0501 05:44:48.492781 30242 layer_factory.hpp:77] Creating layer cifar
I0501 05:44:48.492933 30242 db_lmdb.cpp:35] Opened lmdb examples/cifar10/cifar10_train_lmdb
I0501 05:44:48.492957 30242 net.cpp:86] Creating Layer cifar
I0501 05:44:48.492965 30242 net.cpp:382] cifar -> data
I0501 05:44:48.492985 30242 net.cpp:382] cifar -> label
I0501 05:44:48.492995 30242 data_transformer.cpp:25] Loading mean file from: examples/cifar10/mean.binaryproto
I0501 05:44:48.494890 30242 data_layer.cpp:45] output data size: 111,3,32,32
I0501 05:44:48.501335 30242 net.cpp:124] Setting up cifar
I0501 05:44:48.501365 30242 net.cpp:131] Top shape: 111 3 32 32 (340992)
I0501 05:44:48.501370 30242 net.cpp:131] Top shape: 111 (111)
I0501 05:44:48.501374 30242 net.cpp:139] Memory required for data: 1364412
I0501 05:44:48.501404 30242 layer_factory.hpp:77] Creating layer conv0
I0501 05:44:48.501435 30242 net.cpp:86] Creating Layer conv0
I0501 05:44:48.501441 30242 net.cpp:408] conv0 <- data
I0501 05:44:48.501451 30242 net.cpp:382] conv0 -> conv0
I0501 05:44:48.734874 30242 net.cpp:124] Setting up conv0
I0501 05:44:48.734916 30242 net.cpp:131] Top shape: 111 8 32 32 (909312)
I0501 05:44:48.734920 30242 net.cpp:139] Memory required for data: 5001660
I0501 05:44:48.734935 30242 layer_factory.hpp:77] Creating layer Sigmoid0
I0501 05:44:48.734947 30242 net.cpp:86] Creating Layer Sigmoid0
I0501 05:44:48.734951 30242 net.cpp:408] Sigmoid0 <- conv0
I0501 05:44:48.734957 30242 net.cpp:382] Sigmoid0 -> Sigmoid0
I0501 05:44:48.735146 30242 net.cpp:124] Setting up Sigmoid0
I0501 05:44:48.735157 30242 net.cpp:131] Top shape: 111 8 32 32 (909312)
I0501 05:44:48.735159 30242 net.cpp:139] Memory required for data: 8638908
I0501 05:44:48.735163 30242 layer_factory.hpp:77] Creating layer pool0
I0501 05:44:48.735170 30242 net.cpp:86] Creating Layer pool0
I0501 05:44:48.735173 30242 net.cpp:408] pool0 <- Sigmoid0
I0501 05:44:48.735178 30242 net.cpp:382] pool0 -> pool0
I0501 05:44:48.735935 30242 net.cpp:124] Setting up pool0
I0501 05:44:48.735949 30242 net.cpp:131] Top shape: 111 8 16 16 (227328)
I0501 05:44:48.735967 30242 net.cpp:139] Memory required for data: 9548220
I0501 05:44:48.735970 30242 layer_factory.hpp:77] Creating layer ip1
I0501 05:44:48.735980 30242 net.cpp:86] Creating Layer ip1
I0501 05:44:48.735983 30242 net.cpp:408] ip1 <- pool0
I0501 05:44:48.735988 30242 net.cpp:382] ip1 -> ip1
I0501 05:44:48.740628 30242 net.cpp:124] Setting up ip1
I0501 05:44:48.740636 30242 net.cpp:131] Top shape: 111 80 (8880)
I0501 05:44:48.740655 30242 net.cpp:139] Memory required for data: 9583740
I0501 05:44:48.740664 30242 layer_factory.hpp:77] Creating layer relu1
I0501 05:44:48.740669 30242 net.cpp:86] Creating Layer relu1
I0501 05:44:48.740674 30242 net.cpp:408] relu1 <- ip1
I0501 05:44:48.740677 30242 net.cpp:369] relu1 -> ip1 (in-place)
I0501 05:44:48.740857 30242 net.cpp:124] Setting up relu1
I0501 05:44:48.740866 30242 net.cpp:131] Top shape: 111 80 (8880)
I0501 05:44:48.740870 30242 net.cpp:139] Memory required for data: 9619260
I0501 05:44:48.740873 30242 layer_factory.hpp:77] Creating layer ip2
I0501 05:44:48.740880 30242 net.cpp:86] Creating Layer ip2
I0501 05:44:48.740883 30242 net.cpp:408] ip2 <- ip1
I0501 05:44:48.740888 30242 net.cpp:382] ip2 -> ip2
I0501 05:44:48.741071 30242 net.cpp:124] Setting up ip2
I0501 05:44:48.741080 30242 net.cpp:131] Top shape: 111 40 (4440)
I0501 05:44:48.741082 30242 net.cpp:139] Memory required for data: 9637020
I0501 05:44:48.741089 30242 layer_factory.hpp:77] Creating layer relu2
I0501 05:44:48.741096 30242 net.cpp:86] Creating Layer relu2
I0501 05:44:48.741098 30242 net.cpp:408] relu2 <- ip2
I0501 05:44:48.741117 30242 net.cpp:369] relu2 -> ip2 (in-place)
I0501 05:44:48.741263 30242 net.cpp:124] Setting up relu2
I0501 05:44:48.741271 30242 net.cpp:131] Top shape: 111 40 (4440)
I0501 05:44:48.741276 30242 net.cpp:139] Memory required for data: 9654780
I0501 05:44:48.741278 30242 layer_factory.hpp:77] Creating layer ip3
I0501 05:44:48.741286 30242 net.cpp:86] Creating Layer ip3
I0501 05:44:48.741288 30242 net.cpp:408] ip3 <- ip2
I0501 05:44:48.741293 30242 net.cpp:382] ip3 -> ip3
I0501 05:44:48.741466 30242 net.cpp:124] Setting up ip3
I0501 05:44:48.741472 30242 net.cpp:131] Top shape: 111 80 (8880)
I0501 05:44:48.741475 30242 net.cpp:139] Memory required for data: 9690300
I0501 05:44:48.741482 30242 layer_factory.hpp:77] Creating layer relu3
I0501 05:44:48.741487 30242 net.cpp:86] Creating Layer relu3
I0501 05:44:48.741489 30242 net.cpp:408] relu3 <- ip3
I0501 05:44:48.741493 30242 net.cpp:369] relu3 -> ip3 (in-place)
I0501 05:44:48.741668 30242 net.cpp:124] Setting up relu3
I0501 05:44:48.741677 30242 net.cpp:131] Top shape: 111 80 (8880)
I0501 05:44:48.741680 30242 net.cpp:139] Memory required for data: 9725820
I0501 05:44:48.741683 30242 layer_factory.hpp:77] Creating layer ip4
I0501 05:44:48.741704 30242 net.cpp:86] Creating Layer ip4
I0501 05:44:48.741708 30242 net.cpp:408] ip4 <- ip3
I0501 05:44:48.741714 30242 net.cpp:382] ip4 -> ip4
I0501 05:44:48.741834 30242 net.cpp:124] Setting up ip4
I0501 05:44:48.741842 30242 net.cpp:131] Top shape: 111 10 (1110)
I0501 05:44:48.741845 30242 net.cpp:139] Memory required for data: 9730260
I0501 05:44:48.741854 30242 layer_factory.hpp:77] Creating layer loss
I0501 05:44:48.741860 30242 net.cpp:86] Creating Layer loss
I0501 05:44:48.741863 30242 net.cpp:408] loss <- ip4
I0501 05:44:48.741868 30242 net.cpp:408] loss <- label
I0501 05:44:48.741873 30242 net.cpp:382] loss -> loss
I0501 05:44:48.741888 30242 layer_factory.hpp:77] Creating layer loss
…
I0501 05:44:48.743177 30242 solver.cpp:173] Creating test net (#0) specified by net file: ECE595/cifar/train_test/var_everything/cifar_train_test_428.prototxt
I0501 05:44:48.743206 30242 net.cpp:296] The NetState phase (1) differed from the phase (0) specified by a rule in layer cifar
I0501 05:44:48.743299 30242 net.cpp:53] Initializing net from parameters: 
name: "CIFAR"
state {
  phase: TEST
}
layer {
  name: "cifar"
  type: "Data"
  top: "data"
  top: "label"
  include {
    phase: TEST
  }
  transform_param {
    mean_file: "examples/cifar10/mean.binaryproto"
  }
  data_param {
    source: "examples/cifar10/cifar10_test_lmdb"
    batch_size: 1000
    backend: LMDB
  }
}
layer {
  name: "conv0"
  type: "Convolution"
  bottom: "data"
  top: "conv0"
  param {
    lr_mult: 1
  }
  param {
    lr_mult: 2
  }
  convolution_param {
    num_output: 8
    pad: 2
    kernel_size: 5
    stride: 1
    weight_filler {
      type: "gaussian"
      std: 0.01
    }
    bias_filler {
      type: "constant"
    }
  }
}
layer {
  name: "Sigmoid0"
  type: "Sigmoid"
  bottom: "conv0"
  top: "Sigmoid0"
}
layer {
  name: "pool0"
  type: "Pooling"
  bottom: "Sigmoid0"
  top: "pool0"
  pooling_param {
    pool: AVE
    kernel_size: 3
    stride: 2
  }
}
layer {
  name: "ip1"
  type: "InnerProduct"
  bottom: "pool0"
  top: "ip1"
  param {
    lr_mult: 1
  }
  param {
    lr_mult: 2
  }
  inner_product_param {
    num_output: 80
    weight_filler {
      type: "gaussian"
      std: 0.01
    }
    bias_filler {
      type: "constant"
    }
  }
}
layer {
  name: "relu1"
  type: "ReLU"
  bottom: "ip1"
  top: "ip1"
}
layer {
  name: "ip2"
  type: "InnerProduct"
  bottom: "ip1"
  top: "ip2"
  param {
    lr_mult: 1
  }
  param {
    lr_mult: 2
  }
  inner_product_param {
    num_output: 40
    weight_filler {
      type: "gaussian"
      std: 0.01
    }
    bias_filler {
      type: "constant"
    }
  }
}
layer {
  name: "relu2"
  type: "ReLU"
  bottom: "ip2"
  top: "ip2"
}
layer {
  name: "ip3"
  type: "InnerProduct"
  bottom: "ip2"
  top: "ip3"
  param {
    lr_mult: 1
  }
  param {
    lr_mult: 2
  }
  inner_product_param {
    num_output: 80
    weight_filler {
      type: "gaussian"
      std: 0.01
    }
    bias_filler {
      type: "constant"
    }
  }
}
layer {
  name: "relu3"
  type: "ReLU"
  bottom: "ip3"
  top: "ip3"
}
layer {
  name: "ip4"
  type: "InnerProduct"
  bottom: "ip3"
  top: "ip4"
  param {
    lr_mult: 1
  }
  param {
    lr_mult: 2
  }
  inner_product_param {
    num_output: 10
    weight_filler {
      type: "gaussian"
      std: 0.01
    }
    bias_filler {
      type: "constant"
    }
  }
}
layer {
  name: "accuracy"
  type: "Accuracy"
  bottom: "ip4"
  bottom: "label"
  top: "accuracy"
  include {
    phase: TEST
  }
}
layer {
  name: "loss"
  type: "SoftmaxWithLoss"
  bottom: "ip4"
  bottom: "label"
  top: "loss"
}
I0501 05:44:48.743377 30242 layer_factory.hpp:77] Creating layer cifar
I0501 05:44:48.743425 30242 db_lmdb.cpp:35] Opened lmdb examples/cifar10/cifar10_test_lmdb
I0501 05:44:48.743438 30242 net.cpp:86] Creating Layer cifar
I0501 05:44:48.743443 30242 net.cpp:382] cifar -> data
I0501 05:44:48.743450 30242 net.cpp:382] cifar -> label
I0501 05:44:48.743456 30242 data_transformer.cpp:25] Loading mean file from: examples/cifar10/mean.binaryproto
I0501 05:44:48.743595 30242 data_layer.cpp:45] output data size: 1000,3,32,32
I0501 05:44:48.765983 30242 net.cpp:124] Setting up cifar
I0501 05:44:48.766012 30242 net.cpp:131] Top shape: 1000 3 32 32 (3072000)
I0501 05:44:48.766017 30242 net.cpp:131] Top shape: 1000 (1000)
I0501 05:44:48.766021 30242 net.cpp:139] Memory required for data: 12292000
I0501 05:44:48.766027 30242 layer_factory.hpp:77] Creating layer label_cifar_1_split
I0501 05:44:48.766039 30242 net.cpp:86] Creating Layer label_cifar_1_split
I0501 05:44:48.766043 30242 net.cpp:408] label_cifar_1_split <- label
I0501 05:44:48.766049 30242 net.cpp:382] label_cifar_1_split -> label_cifar_1_split_0
I0501 05:44:48.766057 30242 net.cpp:382] label_cifar_1_split -> label_cifar_1_split_1
I0501 05:44:48.766156 30242 net.cpp:124] Setting up label_cifar_1_split
I0501 05:44:48.766165 30242 net.cpp:131] Top shape: 1000 (1000)
I0501 05:44:48.766167 30242 net.cpp:131] Top shape: 1000 (1000)
I0501 05:44:48.766170 30242 net.cpp:139] Memory required for data: 12300000
I0501 05:44:48.766175 30242 layer_factory.hpp:77] Creating layer conv0
I0501 05:44:48.766186 30242 net.cpp:86] Creating Layer conv0
I0501 05:44:48.766192 30242 net.cpp:408] conv0 <- data
I0501 05:44:48.766213 30242 net.cpp:382] conv0 -> conv0
I0501 05:44:48.767850 30242 net.cpp:124] Setting up conv0
I0501 05:44:48.767879 30242 net.cpp:131] Top shape: 1000 8 32 32 (8192000)
I0501 05:44:48.767882 30242 net.cpp:139] Memory required for data: 45068000
I0501 05:44:48.767892 30242 layer_factory.hpp:77] Creating layer Sigmoid0
I0501 05:44:48.767901 30242 net.cpp:86] Creating Layer Sigmoid0
I0501 05:44:48.767904 30242 net.cpp:408] Sigmoid0 <- conv0
I0501 05:44:48.767910 30242 net.cpp:382] Sigmoid0 -> Sigmoid0
I0501 05:44:48.768106 30242 net.cpp:124] Setting up Sigmoid0
I0501 05:44:48.768116 30242 net.cpp:131] Top shape: 1000 8 32 32 (8192000)
I0501 05:44:48.768120 30242 net.cpp:139] Memory required for data: 77836000
I0501 05:44:48.768122 30242 layer_factory.hpp:77] Creating layer pool0
I0501 05:44:48.768131 30242 net.cpp:86] Creating Layer pool0
I0501 05:44:48.768134 30242 net.cpp:408] pool0 <- Sigmoid0
I0501 05:44:48.768141 30242 net.cpp:382] pool0 -> pool0
I0501 05:44:48.768340 30242 net.cpp:124] Setting up pool0
I0501 05:44:48.768350 30242 net.cpp:131] Top shape: 1000 8 16 16 (2048000)
I0501 05:44:48.768353 30242 net.cpp:139] Memory required for data: 86028000
I0501 05:44:48.768357 30242 layer_factory.hpp:77] Creating layer ip1
I0501 05:44:48.768366 30242 net.cpp:86] Creating Layer ip1
I0501 05:44:48.768373 30242 net.cpp:408] ip1 <- pool0
I0501 05:44:48.768393 30242 net.cpp:382] ip1 -> ip1
I0501 05:44:48.772855 30242 net.cpp:124] Setting up ip1
I0501 05:44:48.772866 30242 net.cpp:131] Top shape: 1000 80 (80000)
I0501 05:44:48.772869 30242 net.cpp:139] Memory required for data: 86348000
I0501 05:44:48.772907 30242 layer_factory.hpp:77] Creating layer relu1
I0501 05:44:48.772913 30242 net.cpp:86] Creating Layer relu1
I0501 05:44:48.772917 30242 net.cpp:408] relu1 <- ip1
I0501 05:44:48.772922 30242 net.cpp:369] relu1 -> ip1 (in-place)
I0501 05:44:48.773102 30242 net.cpp:124] Setting up relu1
I0501 05:44:48.773110 30242 net.cpp:131] Top shape: 1000 80 (80000)
I0501 05:44:48.773113 30242 net.cpp:139] Memory required for data: 86668000
I0501 05:44:48.773118 30242 layer_factory.hpp:77] Creating layer ip2
I0501 05:44:48.773124 30242 net.cpp:86] Creating Layer ip2
I0501 05:44:48.773128 30242 net.cpp:408] ip2 <- ip1
I0501 05:44:48.773133 30242 net.cpp:382] ip2 -> ip2
I0501 05:44:48.773325 30242 net.cpp:124] Setting up ip2
I0501 05:44:48.773334 30242 net.cpp:131] Top shape: 1000 40 (40000)
I0501 05:44:48.773336 30242 net.cpp:139] Memory required for data: 86828000
I0501 05:44:48.773344 30242 layer_factory.hpp:77] Creating layer relu2
I0501 05:44:48.773350 30242 net.cpp:86] Creating Layer relu2
I0501 05:44:48.773352 30242 net.cpp:408] relu2 <- ip2
I0501 05:44:48.773357 30242 net.cpp:369] relu2 -> ip2 (in-place)
I0501 05:44:48.774114 30242 net.cpp:124] Setting up relu2
I0501 05:44:48.774127 30242 net.cpp:131] Top shape: 1000 40 (40000)
I0501 05:44:48.774145 30242 net.cpp:139] Memory required for data: 86988000
I0501 05:44:48.774148 30242 layer_factory.hpp:77] Creating layer ip3
I0501 05:44:48.774155 30242 net.cpp:86] Creating Layer ip3
I0501 05:44:48.774158 30242 net.cpp:408] ip3 <- ip2
I0501 05:44:48.774164 30242 net.cpp:382] ip3 -> ip3
I0501 05:44:48.774374 30242 net.cpp:124] Setting up ip3
I0501 05:44:48.774381 30242 net.cpp:131] Top shape: 1000 80 (80000)
I0501 05:44:48.774384 30242 net.cpp:139] Memory required for data: 87308000
I0501 05:44:48.774390 30242 layer_factory.hpp:77] Creating layer relu3
I0501 05:44:48.774396 30242 net.cpp:86] Creating Layer relu3
I0501 05:44:48.774399 30242 net.cpp:408] relu3 <- ip3
I0501 05:44:48.774405 30242 net.cpp:369] relu3 -> ip3 (in-place)
I0501 05:44:48.774580 30242 net.cpp:124] Setting up relu3
I0501 05:44:48.774588 30242 net.cpp:131] Top shape: 1000 80 (80000)
I0501 05:44:48.774591 30242 net.cpp:139] Memory required for data: 87628000
I0501 05:44:48.774595 30242 layer_factory.hpp:77] Creating layer ip4
I0501 05:44:48.774601 30242 net.cpp:86] Creating Layer ip4
I0501 05:44:48.774607 30242 net.cpp:408] ip4 <- ip3
I0501 05:44:48.774612 30242 net.cpp:382] ip4 -> ip4
I0501 05:44:48.774744 30242 net.cpp:124] Setting up ip4
I0501 05:44:48.774751 30242 net.cpp:131] Top shape: 1000 10 (10000)
I0501 05:44:48.774755 30242 net.cpp:139] Memory required for data: 87668000
I0501 05:44:48.774763 30242 layer_factory.hpp:77] Creating layer ip4_ip4_0_split
I0501 05:44:48.774782 30242 net.cpp:86] Creating Layer ip4_ip4_0_split
I0501 05:44:48.774785 30242 net.cpp:408] ip4_ip4_0_split <- ip4
I0501 05:44:48.774792 30242 net.cpp:382] ip4_ip4_0_split -> ip4_ip4_0_split_0
I0501 05:44:48.774797 30242 net.cpp:382] ip4_ip4_0_split -> ip4_ip4_0_split_1
I0501 05:44:48.774828 30242 net.cpp:124] Setting up ip4_ip4_0_split
I0501 05:44:48.774833 30242 net.cpp:131] Top shape: 1000 10 (10000)
I0501 05:44:48.774837 30242 net.cpp:131] Top shape: 1000 10 (10000)
I0501 05:44:48.774840 30242 net.cpp:139] Memory required for data: 87748000
I0501 05:44:48.774843 30242 layer_factory.hpp:77] Creating layer accuracy
I0501 05:44:48.774850 30242 net.cpp:86] Creating Layer accuracy
I0501 05:44:48.774853 30242 net.cpp:408] accuracy <- ip4_ip4_0_split_0
I0501 05:44:48.774857 30242 net.cpp:408] accuracy <- label_cifar_1_split_0
I0501 05:44:48.774863 30242 net.cpp:382] accuracy -> accuracy
…
