…
I0430 23:24:04.519783  4796 net.cpp:296] The NetState phase (0) differed from the phase (1) specified by a rule in layer cifar
I0430 23:24:04.519804  4796 net.cpp:296] The NetState phase (0) differed from the phase (1) specified by a rule in layer accuracy
I0430 23:24:04.519932  4796 net.cpp:53] Initializing net from parameters: 
name: "CIFAR"
state {
  phase: TRAIN
  level: 0
  stage: ""
}
layer {
  name: "cifar"
  type: "Data"
  top: "data"
  top: "label"
  include {
    phase: TRAIN
  }
  transform_param {
    mean_file: "examples/cifar10/mean.binaryproto"
  }
  data_param {
    source: "examples/cifar10/cifar10_train_lmdb"
    batch_size: 111
    backend: LMDB
  }
}
layer {
  name: "conv0"
  type: "Convolution"
  bottom: "data"
  top: "conv0"
  param {
    lr_mult: 1
  }
  param {
    lr_mult: 2
  }
  convolution_param {
    num_output: 8
    pad: 2
    kernel_size: 3
    stride: 1
    weight_filler {
      type: "gaussian"
      std: 0.01
    }
    bias_filler {
      type: "constant"
    }
  }
}
layer {
  name: "Sigmoid0"
  type: "Sigmoid"
  bottom: "conv0"
  top: "Sigmoid0"
}
layer {
  name: "pool0"
  type: "Pooling"
  bottom: "Sigmoid0"
  top: "pool0"
  pooling_param {
    pool: AVE
    kernel_size: 3
    stride: 2
  }
}
layer {
  name: "ip1"
  type: "InnerProduct"
  bottom: "pool0"
  top: "ip1"
  param {
    lr_mult: 1
  }
  param {
    lr_mult: 2
  }
  inner_product_param {
    num_output: 20
    weight_filler {
      type: "gaussian"
      std: 0.01
    }
    bias_filler {
      type: "constant"
    }
  }
}
layer {
  name: "relu1"
  type: "ReLU"
  bottom: "ip1"
  top: "ip1"
}
layer {
  name: "ip2"
  type: "InnerProduct"
  bottom: "ip1"
  top: "ip2"
  param {
    lr_mult: 1
  }
  param {
    lr_mult: 2
  }
  inner_product_param {
    num_output: 40
    weight_filler {
      type: "gaussian"
      std: 0.01
    }
    bias_filler {
      type: "constant"
    }
  }
}
layer {
  name: "relu2"
  type: "ReLU"
  bottom: "ip2"
  top: "ip2"
}
layer {
  name: "ip3"
  type: "InnerProduct"
  bottom: "ip2"
  top: "ip3"
  param {
    lr_mult: 1
  }
  param {
    lr_mult: 2
  }
  inner_product_param {
    num_output: 160
    weight_filler {
      type: "gaussian"
      std: 0.01
    }
    bias_filler {
      type: "constant"
    }
  }
}
layer {
  name: "relu3"
  type: "ReLU"
  bottom: "ip3"
  top: "ip3"
}
layer {
  name: "ip4"
  type: "InnerProduct"
  bottom: "ip3"
  top: "ip4"
  param {
    lr_mult: 1
  }
  param {
    lr_mult: 2
  }
  inner_product_param {
    num_output: 10
    weight_filler {
      type: "gaussian"
      std: 0.01
    }
    bias_filler {
      type: "constant"
    }
  }
}
layer {
  name: "loss"
  type: "SoftmaxWithLoss"
  bottom: "ip4"
  bottom: "label"
  top: "loss"
}
I0430 23:24:04.520035  4796 layer_factory.hpp:77] Creating layer cifar
I0430 23:24:04.520167  4796 db_lmdb.cpp:35] Opened lmdb examples/cifar10/cifar10_train_lmdb
I0430 23:24:04.520202  4796 net.cpp:86] Creating Layer cifar
I0430 23:24:04.520215  4796 net.cpp:382] cifar -> data
I0430 23:24:04.520246  4796 net.cpp:382] cifar -> label
I0430 23:24:04.520262  4796 data_transformer.cpp:25] Loading mean file from: examples/cifar10/mean.binaryproto
I0430 23:24:04.522636  4796 data_layer.cpp:45] output data size: 111,3,32,32
I0430 23:24:04.530617  4796 net.cpp:124] Setting up cifar
I0430 23:24:04.530637  4796 net.cpp:131] Top shape: 111 3 32 32 (340992)
I0430 23:24:04.530642  4796 net.cpp:131] Top shape: 111 (111)
I0430 23:24:04.530645  4796 net.cpp:139] Memory required for data: 1364412
I0430 23:24:04.530668  4796 layer_factory.hpp:77] Creating layer conv0
I0430 23:24:04.530689  4796 net.cpp:86] Creating Layer conv0
I0430 23:24:04.530699  4796 net.cpp:408] conv0 <- data
I0430 23:24:04.530715  4796 net.cpp:382] conv0 -> conv0
I0430 23:24:04.815217  4796 net.cpp:124] Setting up conv0
I0430 23:24:04.815245  4796 net.cpp:131] Top shape: 111 8 34 34 (1026528)
I0430 23:24:04.815250  4796 net.cpp:139] Memory required for data: 5470524
I0430 23:24:04.815265  4796 layer_factory.hpp:77] Creating layer Sigmoid0
I0430 23:24:04.815279  4796 net.cpp:86] Creating Layer Sigmoid0
I0430 23:24:04.815282  4796 net.cpp:408] Sigmoid0 <- conv0
I0430 23:24:04.815289  4796 net.cpp:382] Sigmoid0 -> Sigmoid0
I0430 23:24:04.815500  4796 net.cpp:124] Setting up Sigmoid0
I0430 23:24:04.815510  4796 net.cpp:131] Top shape: 111 8 34 34 (1026528)
I0430 23:24:04.815512  4796 net.cpp:139] Memory required for data: 9576636
I0430 23:24:04.815515  4796 layer_factory.hpp:77] Creating layer pool0
I0430 23:24:04.815522  4796 net.cpp:86] Creating Layer pool0
I0430 23:24:04.815526  4796 net.cpp:408] pool0 <- Sigmoid0
I0430 23:24:04.815531  4796 net.cpp:382] pool0 -> pool0
I0430 23:24:04.816311  4796 net.cpp:124] Setting up pool0
I0430 23:24:04.816325  4796 net.cpp:131] Top shape: 111 8 17 17 (256632)
I0430 23:24:04.816329  4796 net.cpp:139] Memory required for data: 10603164
I0430 23:24:04.816334  4796 layer_factory.hpp:77] Creating layer ip1
I0430 23:24:04.816342  4796 net.cpp:86] Creating Layer ip1
I0430 23:24:04.816349  4796 net.cpp:408] ip1 <- pool0
I0430 23:24:04.816357  4796 net.cpp:382] ip1 -> ip1
I0430 23:24:04.818595  4796 net.cpp:124] Setting up ip1
I0430 23:24:04.818609  4796 net.cpp:131] Top shape: 111 20 (2220)
I0430 23:24:04.818614  4796 net.cpp:139] Memory required for data: 10612044
I0430 23:24:04.818621  4796 layer_factory.hpp:77] Creating layer relu1
I0430 23:24:04.818627  4796 net.cpp:86] Creating Layer relu1
I0430 23:24:04.818631  4796 net.cpp:408] relu1 <- ip1
I0430 23:24:04.818636  4796 net.cpp:369] relu1 -> ip1 (in-place)
I0430 23:24:04.818812  4796 net.cpp:124] Setting up relu1
I0430 23:24:04.818822  4796 net.cpp:131] Top shape: 111 20 (2220)
I0430 23:24:04.818826  4796 net.cpp:139] Memory required for data: 10620924
I0430 23:24:04.818831  4796 layer_factory.hpp:77] Creating layer ip2
I0430 23:24:04.818840  4796 net.cpp:86] Creating Layer ip2
I0430 23:24:04.818846  4796 net.cpp:408] ip2 <- ip1
I0430 23:24:04.818855  4796 net.cpp:382] ip2 -> ip2
I0430 23:24:04.819799  4796 net.cpp:124] Setting up ip2
I0430 23:24:04.819813  4796 net.cpp:131] Top shape: 111 40 (4440)
I0430 23:24:04.819816  4796 net.cpp:139] Memory required for data: 10638684
I0430 23:24:04.819830  4796 layer_factory.hpp:77] Creating layer relu2
I0430 23:24:04.819836  4796 net.cpp:86] Creating Layer relu2
I0430 23:24:04.819841  4796 net.cpp:408] relu2 <- ip2
I0430 23:24:04.819849  4796 net.cpp:369] relu2 -> ip2 (in-place)
I0430 23:24:04.820027  4796 net.cpp:124] Setting up relu2
I0430 23:24:04.820037  4796 net.cpp:131] Top shape: 111 40 (4440)
I0430 23:24:04.820040  4796 net.cpp:139] Memory required for data: 10656444
I0430 23:24:04.820045  4796 layer_factory.hpp:77] Creating layer ip3
I0430 23:24:04.820057  4796 net.cpp:86] Creating Layer ip3
I0430 23:24:04.820066  4796 net.cpp:408] ip3 <- ip2
I0430 23:24:04.820075  4796 net.cpp:382] ip3 -> ip3
I0430 23:24:04.821167  4796 net.cpp:124] Setting up ip3
I0430 23:24:04.821180  4796 net.cpp:131] Top shape: 111 160 (17760)
I0430 23:24:04.821184  4796 net.cpp:139] Memory required for data: 10727484
I0430 23:24:04.821190  4796 layer_factory.hpp:77] Creating layer relu3
I0430 23:24:04.821197  4796 net.cpp:86] Creating Layer relu3
I0430 23:24:04.821199  4796 net.cpp:408] relu3 <- ip3
I0430 23:24:04.821204  4796 net.cpp:369] relu3 -> ip3 (in-place)
I0430 23:24:04.821386  4796 net.cpp:124] Setting up relu3
I0430 23:24:04.821396  4796 net.cpp:131] Top shape: 111 160 (17760)
I0430 23:24:04.821399  4796 net.cpp:139] Memory required for data: 10798524
I0430 23:24:04.821404  4796 layer_factory.hpp:77] Creating layer ip4
I0430 23:24:04.821432  4796 net.cpp:86] Creating Layer ip4
I0430 23:24:04.821439  4796 net.cpp:408] ip4 <- ip3
I0430 23:24:04.821446  4796 net.cpp:382] ip4 -> ip4
I0430 23:24:04.821599  4796 net.cpp:124] Setting up ip4
I0430 23:24:04.821606  4796 net.cpp:131] Top shape: 111 10 (1110)
I0430 23:24:04.821610  4796 net.cpp:139] Memory required for data: 10802964
I0430 23:24:04.821622  4796 layer_factory.hpp:77] Creating layer loss
I0430 23:24:04.821633  4796 net.cpp:86] Creating Layer loss
I0430 23:24:04.821640  4796 net.cpp:408] loss <- ip4
I0430 23:24:04.821645  4796 net.cpp:408] loss <- label
I0430 23:24:04.821653  4796 net.cpp:382] loss -> loss
I0430 23:24:04.821674  4796 layer_factory.hpp:77] Creating layer loss
…
I0430 23:24:04.822938  4796 solver.cpp:173] Creating test net (#0) specified by net file: ECE595/cifar/train_test/var_everything/cifar_train_test_224.prototxt
I0430 23:24:04.822966  4796 net.cpp:296] The NetState phase (1) differed from the phase (0) specified by a rule in layer cifar
I0430 23:24:04.823074  4796 net.cpp:53] Initializing net from parameters: 
name: "CIFAR"
state {
  phase: TEST
}
layer {
  name: "cifar"
  type: "Data"
  top: "data"
  top: "label"
  include {
    phase: TEST
  }
  transform_param {
    mean_file: "examples/cifar10/mean.binaryproto"
  }
  data_param {
    source: "examples/cifar10/cifar10_test_lmdb"
    batch_size: 1000
    backend: LMDB
  }
}
layer {
  name: "conv0"
  type: "Convolution"
  bottom: "data"
  top: "conv0"
  param {
    lr_mult: 1
  }
  param {
    lr_mult: 2
  }
  convolution_param {
    num_output: 8
    pad: 2
    kernel_size: 3
    stride: 1
    weight_filler {
      type: "gaussian"
      std: 0.01
    }
    bias_filler {
      type: "constant"
    }
  }
}
layer {
  name: "Sigmoid0"
  type: "Sigmoid"
  bottom: "conv0"
  top: "Sigmoid0"
}
layer {
  name: "pool0"
  type: "Pooling"
  bottom: "Sigmoid0"
  top: "pool0"
  pooling_param {
    pool: AVE
    kernel_size: 3
    stride: 2
  }
}
layer {
  name: "ip1"
  type: "InnerProduct"
  bottom: "pool0"
  top: "ip1"
  param {
    lr_mult: 1
  }
  param {
    lr_mult: 2
  }
  inner_product_param {
    num_output: 20
    weight_filler {
      type: "gaussian"
      std: 0.01
    }
    bias_filler {
      type: "constant"
    }
  }
}
layer {
  name: "relu1"
  type: "ReLU"
  bottom: "ip1"
  top: "ip1"
}
layer {
  name: "ip2"
  type: "InnerProduct"
  bottom: "ip1"
  top: "ip2"
  param {
    lr_mult: 1
  }
  param {
    lr_mult: 2
  }
  inner_product_param {
    num_output: 40
    weight_filler {
      type: "gaussian"
      std: 0.01
    }
    bias_filler {
      type: "constant"
    }
  }
}
layer {
  name: "relu2"
  type: "ReLU"
  bottom: "ip2"
  top: "ip2"
}
layer {
  name: "ip3"
  type: "InnerProduct"
  bottom: "ip2"
  top: "ip3"
  param {
    lr_mult: 1
  }
  param {
    lr_mult: 2
  }
  inner_product_param {
    num_output: 160
    weight_filler {
      type: "gaussian"
      std: 0.01
    }
    bias_filler {
      type: "constant"
    }
  }
}
layer {
  name: "relu3"
  type: "ReLU"
  bottom: "ip3"
  top: "ip3"
}
layer {
  name: "ip4"
  type: "InnerProduct"
  bottom: "ip3"
  top: "ip4"
  param {
    lr_mult: 1
  }
  param {
    lr_mult: 2
  }
  inner_product_param {
    num_output: 10
    weight_filler {
      type: "gaussian"
      std: 0.01
    }
    bias_filler {
      type: "constant"
    }
  }
}
layer {
  name: "accuracy"
  type: "Accuracy"
  bottom: "ip4"
  bottom: "label"
  top: "accuracy"
  include {
    phase: TEST
  }
}
layer {
  name: "loss"
  type: "SoftmaxWithLoss"
  bottom: "ip4"
  bottom: "label"
  top: "loss"
}
I0430 23:24:04.823184  4796 layer_factory.hpp:77] Creating layer cifar
I0430 23:24:04.823243  4796 db_lmdb.cpp:35] Opened lmdb examples/cifar10/cifar10_test_lmdb
I0430 23:24:04.823261  4796 net.cpp:86] Creating Layer cifar
I0430 23:24:04.823268  4796 net.cpp:382] cifar -> data
I0430 23:24:04.823281  4796 net.cpp:382] cifar -> label
I0430 23:24:04.823290  4796 data_transformer.cpp:25] Loading mean file from: examples/cifar10/mean.binaryproto
I0430 23:24:04.823485  4796 data_layer.cpp:45] output data size: 1000,3,32,32
I0430 23:24:04.845718  4796 net.cpp:124] Setting up cifar
I0430 23:24:04.845744  4796 net.cpp:131] Top shape: 1000 3 32 32 (3072000)
I0430 23:24:04.845751  4796 net.cpp:131] Top shape: 1000 (1000)
I0430 23:24:04.845752  4796 net.cpp:139] Memory required for data: 12292000
I0430 23:24:04.845758  4796 layer_factory.hpp:77] Creating layer label_cifar_1_split
I0430 23:24:04.845772  4796 net.cpp:86] Creating Layer label_cifar_1_split
I0430 23:24:04.845777  4796 net.cpp:408] label_cifar_1_split <- label
I0430 23:24:04.845788  4796 net.cpp:382] label_cifar_1_split -> label_cifar_1_split_0
I0430 23:24:04.845798  4796 net.cpp:382] label_cifar_1_split -> label_cifar_1_split_1
I0430 23:24:04.845894  4796 net.cpp:124] Setting up label_cifar_1_split
I0430 23:24:04.845903  4796 net.cpp:131] Top shape: 1000 (1000)
I0430 23:24:04.845906  4796 net.cpp:131] Top shape: 1000 (1000)
I0430 23:24:04.845911  4796 net.cpp:139] Memory required for data: 12300000
I0430 23:24:04.845916  4796 layer_factory.hpp:77] Creating layer conv0
I0430 23:24:04.845933  4796 net.cpp:86] Creating Layer conv0
I0430 23:24:04.845938  4796 net.cpp:408] conv0 <- data
I0430 23:24:04.845947  4796 net.cpp:382] conv0 -> conv0
I0430 23:24:04.848371  4796 net.cpp:124] Setting up conv0
I0430 23:24:04.848383  4796 net.cpp:131] Top shape: 1000 8 34 34 (9248000)
I0430 23:24:04.848387  4796 net.cpp:139] Memory required for data: 49292000
I0430 23:24:04.848407  4796 layer_factory.hpp:77] Creating layer Sigmoid0
I0430 23:24:04.848417  4796 net.cpp:86] Creating Layer Sigmoid0
I0430 23:24:04.848422  4796 net.cpp:408] Sigmoid0 <- conv0
I0430 23:24:04.848431  4796 net.cpp:382] Sigmoid0 -> Sigmoid0
I0430 23:24:04.848621  4796 net.cpp:124] Setting up Sigmoid0
I0430 23:24:04.848633  4796 net.cpp:131] Top shape: 1000 8 34 34 (9248000)
I0430 23:24:04.848635  4796 net.cpp:139] Memory required for data: 86284000
I0430 23:24:04.848639  4796 layer_factory.hpp:77] Creating layer pool0
I0430 23:24:04.848651  4796 net.cpp:86] Creating Layer pool0
I0430 23:24:04.848657  4796 net.cpp:408] pool0 <- Sigmoid0
I0430 23:24:04.848664  4796 net.cpp:382] pool0 -> pool0
I0430 23:24:04.848850  4796 net.cpp:124] Setting up pool0
I0430 23:24:04.848858  4796 net.cpp:131] Top shape: 1000 8 17 17 (2312000)
I0430 23:24:04.848861  4796 net.cpp:139] Memory required for data: 95532000
I0430 23:24:04.848865  4796 layer_factory.hpp:77] Creating layer ip1
I0430 23:24:04.848875  4796 net.cpp:86] Creating Layer ip1
I0430 23:24:04.848881  4796 net.cpp:408] ip1 <- pool0
I0430 23:24:04.848889  4796 net.cpp:382] ip1 -> ip1
I0430 23:24:04.850194  4796 net.cpp:124] Setting up ip1
I0430 23:24:04.850204  4796 net.cpp:131] Top shape: 1000 20 (20000)
I0430 23:24:04.850208  4796 net.cpp:139] Memory required for data: 95612000
I0430 23:24:04.850235  4796 layer_factory.hpp:77] Creating layer relu1
I0430 23:24:04.850244  4796 net.cpp:86] Creating Layer relu1
I0430 23:24:04.850250  4796 net.cpp:408] relu1 <- ip1
I0430 23:24:04.850256  4796 net.cpp:369] relu1 -> ip1 (in-place)
I0430 23:24:04.850431  4796 net.cpp:124] Setting up relu1
I0430 23:24:04.850440  4796 net.cpp:131] Top shape: 1000 20 (20000)
I0430 23:24:04.850443  4796 net.cpp:139] Memory required for data: 95692000
I0430 23:24:04.850447  4796 layer_factory.hpp:77] Creating layer ip2
I0430 23:24:04.850457  4796 net.cpp:86] Creating Layer ip2
I0430 23:24:04.850462  4796 net.cpp:408] ip2 <- ip1
I0430 23:24:04.850471  4796 net.cpp:382] ip2 -> ip2
I0430 23:24:04.850611  4796 net.cpp:124] Setting up ip2
I0430 23:24:04.850620  4796 net.cpp:131] Top shape: 1000 40 (40000)
I0430 23:24:04.850622  4796 net.cpp:139] Memory required for data: 95852000
I0430 23:24:04.850631  4796 layer_factory.hpp:77] Creating layer relu2
I0430 23:24:04.850642  4796 net.cpp:86] Creating Layer relu2
I0430 23:24:04.850647  4796 net.cpp:408] relu2 <- ip2
I0430 23:24:04.850653  4796 net.cpp:369] relu2 -> ip2 (in-place)
I0430 23:24:04.851378  4796 net.cpp:124] Setting up relu2
I0430 23:24:04.851390  4796 net.cpp:131] Top shape: 1000 40 (40000)
I0430 23:24:04.851394  4796 net.cpp:139] Memory required for data: 96012000
I0430 23:24:04.851398  4796 layer_factory.hpp:77] Creating layer ip3
I0430 23:24:04.851411  4796 net.cpp:86] Creating Layer ip3
I0430 23:24:04.851418  4796 net.cpp:408] ip3 <- ip2
I0430 23:24:04.851426  4796 net.cpp:382] ip3 -> ip3
I0430 23:24:04.851693  4796 net.cpp:124] Setting up ip3
I0430 23:24:04.851701  4796 net.cpp:131] Top shape: 1000 160 (160000)
I0430 23:24:04.851703  4796 net.cpp:139] Memory required for data: 96652000
I0430 23:24:04.851711  4796 layer_factory.hpp:77] Creating layer relu3
I0430 23:24:04.851717  4796 net.cpp:86] Creating Layer relu3
I0430 23:24:04.851722  4796 net.cpp:408] relu3 <- ip3
I0430 23:24:04.851732  4796 net.cpp:369] relu3 -> ip3 (in-place)
I0430 23:24:04.851896  4796 net.cpp:124] Setting up relu3
I0430 23:24:04.851903  4796 net.cpp:131] Top shape: 1000 160 (160000)
I0430 23:24:04.851907  4796 net.cpp:139] Memory required for data: 97292000
I0430 23:24:04.851912  4796 layer_factory.hpp:77] Creating layer ip4
I0430 23:24:04.851920  4796 net.cpp:86] Creating Layer ip4
I0430 23:24:04.851925  4796 net.cpp:408] ip4 <- ip3
I0430 23:24:04.851933  4796 net.cpp:382] ip4 -> ip4
I0430 23:24:04.852088  4796 net.cpp:124] Setting up ip4
I0430 23:24:04.852095  4796 net.cpp:131] Top shape: 1000 10 (10000)
I0430 23:24:04.852098  4796 net.cpp:139] Memory required for data: 97332000
I0430 23:24:04.852108  4796 layer_factory.hpp:77] Creating layer ip4_ip4_0_split
I0430 23:24:04.852118  4796 net.cpp:86] Creating Layer ip4_ip4_0_split
I0430 23:24:04.852123  4796 net.cpp:408] ip4_ip4_0_split <- ip4
I0430 23:24:04.852130  4796 net.cpp:382] ip4_ip4_0_split -> ip4_ip4_0_split_0
I0430 23:24:04.852138  4796 net.cpp:382] ip4_ip4_0_split -> ip4_ip4_0_split_1
I0430 23:24:04.852182  4796 net.cpp:124] Setting up ip4_ip4_0_split
I0430 23:24:04.852188  4796 net.cpp:131] Top shape: 1000 10 (10000)
I0430 23:24:04.852192  4796 net.cpp:131] Top shape: 1000 10 (10000)
I0430 23:24:04.852195  4796 net.cpp:139] Memory required for data: 97412000
I0430 23:24:04.852200  4796 layer_factory.hpp:77] Creating layer accuracy
I0430 23:24:04.852210  4796 net.cpp:86] Creating Layer accuracy
I0430 23:24:04.852214  4796 net.cpp:408] accuracy <- ip4_ip4_0_split_0
I0430 23:24:04.852221  4796 net.cpp:408] accuracy <- label_cifar_1_split_0
I0430 23:24:04.852228  4796 net.cpp:382] accuracy -> accuracy
…
