…
I0501 00:16:23.489019  6700 net.cpp:296] The NetState phase (0) differed from the phase (1) specified by a rule in layer cifar
I0501 00:16:23.489038  6700 net.cpp:296] The NetState phase (0) differed from the phase (1) specified by a rule in layer accuracy
I0501 00:16:23.489141  6700 net.cpp:53] Initializing net from parameters: 
name: "CIFAR"
state {
  phase: TRAIN
  level: 0
  stage: ""
}
layer {
  name: "cifar"
  type: "Data"
  top: "data"
  top: "label"
  include {
    phase: TRAIN
  }
  transform_param {
    mean_file: "examples/cifar10/mean.binaryproto"
  }
  data_param {
    source: "examples/cifar10/cifar10_train_lmdb"
    batch_size: 111
    backend: LMDB
  }
}
layer {
  name: "conv0"
  type: "Convolution"
  bottom: "data"
  top: "conv0"
  param {
    lr_mult: 1
  }
  param {
    lr_mult: 2
  }
  convolution_param {
    num_output: 8
    pad: 2
    kernel_size: 3
    stride: 1
    weight_filler {
      type: "gaussian"
      std: 0.01
    }
    bias_filler {
      type: "constant"
    }
  }
}
layer {
  name: "Sigmoid0"
  type: "Sigmoid"
  bottom: "conv0"
  top: "Sigmoid0"
}
layer {
  name: "pool0"
  type: "Pooling"
  bottom: "Sigmoid0"
  top: "pool0"
  pooling_param {
    pool: AVE
    kernel_size: 3
    stride: 2
  }
}
layer {
  name: "ip1"
  type: "InnerProduct"
  bottom: "pool0"
  top: "ip1"
  param {
    lr_mult: 1
  }
  param {
    lr_mult: 2
  }
  inner_product_param {
    num_output: 40
    weight_filler {
      type: "gaussian"
      std: 0.01
    }
    bias_filler {
      type: "constant"
    }
  }
}
layer {
  name: "relu1"
  type: "ReLU"
  bottom: "ip1"
  top: "ip1"
}
layer {
  name: "ip2"
  type: "InnerProduct"
  bottom: "ip1"
  top: "ip2"
  param {
    lr_mult: 1
  }
  param {
    lr_mult: 2
  }
  inner_product_param {
    num_output: 80
    weight_filler {
      type: "gaussian"
      std: 0.01
    }
    bias_filler {
      type: "constant"
    }
  }
}
layer {
  name: "relu2"
  type: "ReLU"
  bottom: "ip2"
  top: "ip2"
}
layer {
  name: "ip3"
  type: "InnerProduct"
  bottom: "ip2"
  top: "ip3"
  param {
    lr_mult: 1
  }
  param {
    lr_mult: 2
  }
  inner_product_param {
    num_output: 40
    weight_filler {
      type: "gaussian"
      std: 0.01
    }
    bias_filler {
      type: "constant"
    }
  }
}
layer {
  name: "relu3"
  type: "ReLU"
  bottom: "ip3"
  top: "ip3"
}
layer {
  name: "ip4"
  type: "InnerProduct"
  bottom: "ip3"
  top: "ip4"
  param {
    lr_mult: 1
  }
  param {
    lr_mult: 2
  }
  inner_product_param {
    num_output: 10
    weight_filler {
      type: "gaussian"
      std: 0.01
    }
    bias_filler {
      type: "constant"
    }
  }
}
layer {
  name: "loss"
  type: "SoftmaxWithLoss"
  bottom: "ip4"
  bottom: "label"
  top: "loss"
}
I0501 00:16:23.489217  6700 layer_factory.hpp:77] Creating layer cifar
I0501 00:16:23.489312  6700 db_lmdb.cpp:35] Opened lmdb examples/cifar10/cifar10_train_lmdb
I0501 00:16:23.489341  6700 net.cpp:86] Creating Layer cifar
I0501 00:16:23.489349  6700 net.cpp:382] cifar -> data
I0501 00:16:23.489369  6700 net.cpp:382] cifar -> label
I0501 00:16:23.489382  6700 data_transformer.cpp:25] Loading mean file from: examples/cifar10/mean.binaryproto
I0501 00:16:23.491420  6700 data_layer.cpp:45] output data size: 111,3,32,32
I0501 00:16:23.499066  6700 net.cpp:124] Setting up cifar
I0501 00:16:23.499084  6700 net.cpp:131] Top shape: 111 3 32 32 (340992)
I0501 00:16:23.499092  6700 net.cpp:131] Top shape: 111 (111)
I0501 00:16:23.499095  6700 net.cpp:139] Memory required for data: 1364412
I0501 00:16:23.499117  6700 layer_factory.hpp:77] Creating layer conv0
I0501 00:16:23.499135  6700 net.cpp:86] Creating Layer conv0
I0501 00:16:23.499140  6700 net.cpp:408] conv0 <- data
I0501 00:16:23.499155  6700 net.cpp:382] conv0 -> conv0
I0501 00:16:23.782582  6700 net.cpp:124] Setting up conv0
I0501 00:16:23.782609  6700 net.cpp:131] Top shape: 111 8 34 34 (1026528)
I0501 00:16:23.782613  6700 net.cpp:139] Memory required for data: 5470524
I0501 00:16:23.782629  6700 layer_factory.hpp:77] Creating layer Sigmoid0
I0501 00:16:23.782641  6700 net.cpp:86] Creating Layer Sigmoid0
I0501 00:16:23.782646  6700 net.cpp:408] Sigmoid0 <- conv0
I0501 00:16:23.782652  6700 net.cpp:382] Sigmoid0 -> Sigmoid0
I0501 00:16:23.782836  6700 net.cpp:124] Setting up Sigmoid0
I0501 00:16:23.782846  6700 net.cpp:131] Top shape: 111 8 34 34 (1026528)
I0501 00:16:23.782850  6700 net.cpp:139] Memory required for data: 9576636
I0501 00:16:23.782853  6700 layer_factory.hpp:77] Creating layer pool0
I0501 00:16:23.782860  6700 net.cpp:86] Creating Layer pool0
I0501 00:16:23.782863  6700 net.cpp:408] pool0 <- Sigmoid0
I0501 00:16:23.782868  6700 net.cpp:382] pool0 -> pool0
I0501 00:16:23.783648  6700 net.cpp:124] Setting up pool0
I0501 00:16:23.783661  6700 net.cpp:131] Top shape: 111 8 17 17 (256632)
I0501 00:16:23.783665  6700 net.cpp:139] Memory required for data: 10603164
I0501 00:16:23.783669  6700 layer_factory.hpp:77] Creating layer ip1
I0501 00:16:23.783679  6700 net.cpp:86] Creating Layer ip1
I0501 00:16:23.783682  6700 net.cpp:408] ip1 <- pool0
I0501 00:16:23.783687  6700 net.cpp:382] ip1 -> ip1
I0501 00:16:23.786586  6700 net.cpp:124] Setting up ip1
I0501 00:16:23.786595  6700 net.cpp:131] Top shape: 111 40 (4440)
I0501 00:16:23.786599  6700 net.cpp:139] Memory required for data: 10620924
I0501 00:16:23.786607  6700 layer_factory.hpp:77] Creating layer relu1
I0501 00:16:23.786612  6700 net.cpp:86] Creating Layer relu1
I0501 00:16:23.786617  6700 net.cpp:408] relu1 <- ip1
I0501 00:16:23.786620  6700 net.cpp:369] relu1 -> ip1 (in-place)
I0501 00:16:23.786778  6700 net.cpp:124] Setting up relu1
I0501 00:16:23.786787  6700 net.cpp:131] Top shape: 111 40 (4440)
I0501 00:16:23.786792  6700 net.cpp:139] Memory required for data: 10638684
I0501 00:16:23.786794  6700 layer_factory.hpp:77] Creating layer ip2
I0501 00:16:23.786801  6700 net.cpp:86] Creating Layer ip2
I0501 00:16:23.786804  6700 net.cpp:408] ip2 <- ip1
I0501 00:16:23.786809  6700 net.cpp:382] ip2 -> ip2
I0501 00:16:23.787009  6700 net.cpp:124] Setting up ip2
I0501 00:16:23.787016  6700 net.cpp:131] Top shape: 111 80 (8880)
I0501 00:16:23.787019  6700 net.cpp:139] Memory required for data: 10674204
I0501 00:16:23.787027  6700 layer_factory.hpp:77] Creating layer relu2
I0501 00:16:23.787034  6700 net.cpp:86] Creating Layer relu2
I0501 00:16:23.787036  6700 net.cpp:408] relu2 <- ip2
I0501 00:16:23.787040  6700 net.cpp:369] relu2 -> ip2 (in-place)
I0501 00:16:23.787196  6700 net.cpp:124] Setting up relu2
I0501 00:16:23.787204  6700 net.cpp:131] Top shape: 111 80 (8880)
I0501 00:16:23.787207  6700 net.cpp:139] Memory required for data: 10709724
I0501 00:16:23.787211  6700 layer_factory.hpp:77] Creating layer ip3
I0501 00:16:23.787219  6700 net.cpp:86] Creating Layer ip3
I0501 00:16:23.787222  6700 net.cpp:408] ip3 <- ip2
I0501 00:16:23.787227  6700 net.cpp:382] ip3 -> ip3
I0501 00:16:23.787415  6700 net.cpp:124] Setting up ip3
I0501 00:16:23.787422  6700 net.cpp:131] Top shape: 111 40 (4440)
I0501 00:16:23.787425  6700 net.cpp:139] Memory required for data: 10727484
I0501 00:16:23.787431  6700 layer_factory.hpp:77] Creating layer relu3
I0501 00:16:23.787436  6700 net.cpp:86] Creating Layer relu3
I0501 00:16:23.787439  6700 net.cpp:408] relu3 <- ip3
I0501 00:16:23.787443  6700 net.cpp:369] relu3 -> ip3 (in-place)
I0501 00:16:23.787592  6700 net.cpp:124] Setting up relu3
I0501 00:16:23.787600  6700 net.cpp:131] Top shape: 111 40 (4440)
I0501 00:16:23.787603  6700 net.cpp:139] Memory required for data: 10745244
I0501 00:16:23.787607  6700 layer_factory.hpp:77] Creating layer ip4
I0501 00:16:23.787628  6700 net.cpp:86] Creating Layer ip4
I0501 00:16:23.787631  6700 net.cpp:408] ip4 <- ip3
I0501 00:16:23.787637  6700 net.cpp:382] ip4 -> ip4
I0501 00:16:23.788636  6700 net.cpp:124] Setting up ip4
I0501 00:16:23.788650  6700 net.cpp:131] Top shape: 111 10 (1110)
I0501 00:16:23.788655  6700 net.cpp:139] Memory required for data: 10749684
I0501 00:16:23.788663  6700 layer_factory.hpp:77] Creating layer loss
I0501 00:16:23.788669  6700 net.cpp:86] Creating Layer loss
I0501 00:16:23.788673  6700 net.cpp:408] loss <- ip4
I0501 00:16:23.788677  6700 net.cpp:408] loss <- label
I0501 00:16:23.788684  6700 net.cpp:382] loss -> loss
I0501 00:16:23.788703  6700 layer_factory.hpp:77] Creating layer loss
…
I0501 00:16:23.789969  6700 solver.cpp:173] Creating test net (#0) specified by net file: ECE595/cifar/train_test/var_everything/cifar_train_test_252.prototxt
I0501 00:16:23.789999  6700 net.cpp:296] The NetState phase (1) differed from the phase (0) specified by a rule in layer cifar
I0501 00:16:23.790101  6700 net.cpp:53] Initializing net from parameters: 
name: "CIFAR"
state {
  phase: TEST
}
layer {
  name: "cifar"
  type: "Data"
  top: "data"
  top: "label"
  include {
    phase: TEST
  }
  transform_param {
    mean_file: "examples/cifar10/mean.binaryproto"
  }
  data_param {
    source: "examples/cifar10/cifar10_test_lmdb"
    batch_size: 1000
    backend: LMDB
  }
}
layer {
  name: "conv0"
  type: "Convolution"
  bottom: "data"
  top: "conv0"
  param {
    lr_mult: 1
  }
  param {
    lr_mult: 2
  }
  convolution_param {
    num_output: 8
    pad: 2
    kernel_size: 3
    stride: 1
    weight_filler {
      type: "gaussian"
      std: 0.01
    }
    bias_filler {
      type: "constant"
    }
  }
}
layer {
  name: "Sigmoid0"
  type: "Sigmoid"
  bottom: "conv0"
  top: "Sigmoid0"
}
layer {
  name: "pool0"
  type: "Pooling"
  bottom: "Sigmoid0"
  top: "pool0"
  pooling_param {
    pool: AVE
    kernel_size: 3
    stride: 2
  }
}
layer {
  name: "ip1"
  type: "InnerProduct"
  bottom: "pool0"
  top: "ip1"
  param {
    lr_mult: 1
  }
  param {
    lr_mult: 2
  }
  inner_product_param {
    num_output: 40
    weight_filler {
      type: "gaussian"
      std: 0.01
    }
    bias_filler {
      type: "constant"
    }
  }
}
layer {
  name: "relu1"
  type: "ReLU"
  bottom: "ip1"
  top: "ip1"
}
layer {
  name: "ip2"
  type: "InnerProduct"
  bottom: "ip1"
  top: "ip2"
  param {
    lr_mult: 1
  }
  param {
    lr_mult: 2
  }
  inner_product_param {
    num_output: 80
    weight_filler {
      type: "gaussian"
      std: 0.01
    }
    bias_filler {
      type: "constant"
    }
  }
}
layer {
  name: "relu2"
  type: "ReLU"
  bottom: "ip2"
  top: "ip2"
}
layer {
  name: "ip3"
  type: "InnerProduct"
  bottom: "ip2"
  top: "ip3"
  param {
    lr_mult: 1
  }
  param {
    lr_mult: 2
  }
  inner_product_param {
    num_output: 40
    weight_filler {
      type: "gaussian"
      std: 0.01
    }
    bias_filler {
      type: "constant"
    }
  }
}
layer {
  name: "relu3"
  type: "ReLU"
  bottom: "ip3"
  top: "ip3"
}
layer {
  name: "ip4"
  type: "InnerProduct"
  bottom: "ip3"
  top: "ip4"
  param {
    lr_mult: 1
  }
  param {
    lr_mult: 2
  }
  inner_product_param {
    num_output: 10
    weight_filler {
      type: "gaussian"
      std: 0.01
    }
    bias_filler {
      type: "constant"
    }
  }
}
layer {
  name: "accuracy"
  type: "Accuracy"
  bottom: "ip4"
  bottom: "label"
  top: "accuracy"
  include {
    phase: TEST
  }
}
layer {
  name: "loss"
  type: "SoftmaxWithLoss"
  bottom: "ip4"
  bottom: "label"
  top: "loss"
}
I0501 00:16:23.790185  6700 layer_factory.hpp:77] Creating layer cifar
I0501 00:16:23.790236  6700 db_lmdb.cpp:35] Opened lmdb examples/cifar10/cifar10_test_lmdb
I0501 00:16:23.790249  6700 net.cpp:86] Creating Layer cifar
I0501 00:16:23.790254  6700 net.cpp:382] cifar -> data
I0501 00:16:23.790262  6700 net.cpp:382] cifar -> label
I0501 00:16:23.790269  6700 data_transformer.cpp:25] Loading mean file from: examples/cifar10/mean.binaryproto
I0501 00:16:23.790417  6700 data_layer.cpp:45] output data size: 1000,3,32,32
I0501 00:16:23.813019  6700 net.cpp:124] Setting up cifar
I0501 00:16:23.813060  6700 net.cpp:131] Top shape: 1000 3 32 32 (3072000)
I0501 00:16:23.813066  6700 net.cpp:131] Top shape: 1000 (1000)
I0501 00:16:23.813071  6700 net.cpp:139] Memory required for data: 12292000
I0501 00:16:23.813076  6700 layer_factory.hpp:77] Creating layer label_cifar_1_split
I0501 00:16:23.813093  6700 net.cpp:86] Creating Layer label_cifar_1_split
I0501 00:16:23.813097  6700 net.cpp:408] label_cifar_1_split <- label
I0501 00:16:23.813120  6700 net.cpp:382] label_cifar_1_split -> label_cifar_1_split_0
I0501 00:16:23.813140  6700 net.cpp:382] label_cifar_1_split -> label_cifar_1_split_1
I0501 00:16:23.813284  6700 net.cpp:124] Setting up label_cifar_1_split
I0501 00:16:23.813292  6700 net.cpp:131] Top shape: 1000 (1000)
I0501 00:16:23.813295  6700 net.cpp:131] Top shape: 1000 (1000)
I0501 00:16:23.813298  6700 net.cpp:139] Memory required for data: 12300000
I0501 00:16:23.813302  6700 layer_factory.hpp:77] Creating layer conv0
I0501 00:16:23.813313  6700 net.cpp:86] Creating Layer conv0
I0501 00:16:23.813318  6700 net.cpp:408] conv0 <- data
I0501 00:16:23.813323  6700 net.cpp:382] conv0 -> conv0
I0501 00:16:23.814723  6700 net.cpp:124] Setting up conv0
I0501 00:16:23.814736  6700 net.cpp:131] Top shape: 1000 8 34 34 (9248000)
I0501 00:16:23.814740  6700 net.cpp:139] Memory required for data: 49292000
I0501 00:16:23.814750  6700 layer_factory.hpp:77] Creating layer Sigmoid0
I0501 00:16:23.814756  6700 net.cpp:86] Creating Layer Sigmoid0
I0501 00:16:23.814760  6700 net.cpp:408] Sigmoid0 <- conv0
I0501 00:16:23.814764  6700 net.cpp:382] Sigmoid0 -> Sigmoid0
I0501 00:16:23.815937  6700 net.cpp:124] Setting up Sigmoid0
I0501 00:16:23.815948  6700 net.cpp:131] Top shape: 1000 8 34 34 (9248000)
I0501 00:16:23.815950  6700 net.cpp:139] Memory required for data: 86284000
I0501 00:16:23.815954  6700 layer_factory.hpp:77] Creating layer pool0
I0501 00:16:23.815963  6700 net.cpp:86] Creating Layer pool0
I0501 00:16:23.815965  6700 net.cpp:408] pool0 <- Sigmoid0
I0501 00:16:23.815970  6700 net.cpp:382] pool0 -> pool0
I0501 00:16:23.816151  6700 net.cpp:124] Setting up pool0
I0501 00:16:23.816159  6700 net.cpp:131] Top shape: 1000 8 17 17 (2312000)
I0501 00:16:23.816164  6700 net.cpp:139] Memory required for data: 95532000
I0501 00:16:23.816166  6700 layer_factory.hpp:77] Creating layer ip1
I0501 00:16:23.816174  6700 net.cpp:86] Creating Layer ip1
I0501 00:16:23.816177  6700 net.cpp:408] ip1 <- pool0
I0501 00:16:23.816182  6700 net.cpp:382] ip1 -> ip1
I0501 00:16:23.818801  6700 net.cpp:124] Setting up ip1
I0501 00:16:23.818810  6700 net.cpp:131] Top shape: 1000 40 (40000)
I0501 00:16:23.818814  6700 net.cpp:139] Memory required for data: 95692000
I0501 00:16:23.818835  6700 layer_factory.hpp:77] Creating layer relu1
I0501 00:16:23.818841  6700 net.cpp:86] Creating Layer relu1
I0501 00:16:23.818845  6700 net.cpp:408] relu1 <- ip1
I0501 00:16:23.818850  6700 net.cpp:369] relu1 -> ip1 (in-place)
I0501 00:16:23.819001  6700 net.cpp:124] Setting up relu1
I0501 00:16:23.819010  6700 net.cpp:131] Top shape: 1000 40 (40000)
I0501 00:16:23.819013  6700 net.cpp:139] Memory required for data: 95852000
I0501 00:16:23.819016  6700 layer_factory.hpp:77] Creating layer ip2
I0501 00:16:23.819023  6700 net.cpp:86] Creating Layer ip2
I0501 00:16:23.819026  6700 net.cpp:408] ip2 <- ip1
I0501 00:16:23.819031  6700 net.cpp:382] ip2 -> ip2
I0501 00:16:23.819221  6700 net.cpp:124] Setting up ip2
I0501 00:16:23.819228  6700 net.cpp:131] Top shape: 1000 80 (80000)
I0501 00:16:23.819231  6700 net.cpp:139] Memory required for data: 96172000
I0501 00:16:23.819239  6700 layer_factory.hpp:77] Creating layer relu2
I0501 00:16:23.819244  6700 net.cpp:86] Creating Layer relu2
I0501 00:16:23.819247  6700 net.cpp:408] relu2 <- ip2
I0501 00:16:23.819252  6700 net.cpp:369] relu2 -> ip2 (in-place)
I0501 00:16:23.819990  6700 net.cpp:124] Setting up relu2
I0501 00:16:23.820003  6700 net.cpp:131] Top shape: 1000 80 (80000)
I0501 00:16:23.820006  6700 net.cpp:139] Memory required for data: 96492000
I0501 00:16:23.820009  6700 layer_factory.hpp:77] Creating layer ip3
I0501 00:16:23.820016  6700 net.cpp:86] Creating Layer ip3
I0501 00:16:23.820020  6700 net.cpp:408] ip3 <- ip2
I0501 00:16:23.820025  6700 net.cpp:382] ip3 -> ip3
I0501 00:16:23.820209  6700 net.cpp:124] Setting up ip3
I0501 00:16:23.820217  6700 net.cpp:131] Top shape: 1000 40 (40000)
I0501 00:16:23.820220  6700 net.cpp:139] Memory required for data: 96652000
I0501 00:16:23.820225  6700 layer_factory.hpp:77] Creating layer relu3
I0501 00:16:23.820231  6700 net.cpp:86] Creating Layer relu3
I0501 00:16:23.820235  6700 net.cpp:408] relu3 <- ip3
I0501 00:16:23.820240  6700 net.cpp:369] relu3 -> ip3 (in-place)
I0501 00:16:23.820384  6700 net.cpp:124] Setting up relu3
I0501 00:16:23.820392  6700 net.cpp:131] Top shape: 1000 40 (40000)
I0501 00:16:23.820396  6700 net.cpp:139] Memory required for data: 96812000
I0501 00:16:23.820399  6700 layer_factory.hpp:77] Creating layer ip4
I0501 00:16:23.820405  6700 net.cpp:86] Creating Layer ip4
I0501 00:16:23.820408  6700 net.cpp:408] ip4 <- ip3
I0501 00:16:23.820413  6700 net.cpp:382] ip4 -> ip4
I0501 00:16:23.820520  6700 net.cpp:124] Setting up ip4
I0501 00:16:23.820528  6700 net.cpp:131] Top shape: 1000 10 (10000)
I0501 00:16:23.820531  6700 net.cpp:139] Memory required for data: 96852000
I0501 00:16:23.820539  6700 layer_factory.hpp:77] Creating layer ip4_ip4_0_split
I0501 00:16:23.820544  6700 net.cpp:86] Creating Layer ip4_ip4_0_split
I0501 00:16:23.820547  6700 net.cpp:408] ip4_ip4_0_split <- ip4
I0501 00:16:23.820551  6700 net.cpp:382] ip4_ip4_0_split -> ip4_ip4_0_split_0
I0501 00:16:23.820557  6700 net.cpp:382] ip4_ip4_0_split -> ip4_ip4_0_split_1
I0501 00:16:23.820586  6700 net.cpp:124] Setting up ip4_ip4_0_split
I0501 00:16:23.820591  6700 net.cpp:131] Top shape: 1000 10 (10000)
I0501 00:16:23.820595  6700 net.cpp:131] Top shape: 1000 10 (10000)
I0501 00:16:23.820597  6700 net.cpp:139] Memory required for data: 96932000
I0501 00:16:23.820600  6700 layer_factory.hpp:77] Creating layer accuracy
I0501 00:16:23.820606  6700 net.cpp:86] Creating Layer accuracy
I0501 00:16:23.820610  6700 net.cpp:408] accuracy <- ip4_ip4_0_split_0
I0501 00:16:23.820613  6700 net.cpp:408] accuracy <- label_cifar_1_split_0
I0501 00:16:23.820618  6700 net.cpp:382] accuracy -> accuracy
…
