…
I0501 04:15:36.051806 24492 net.cpp:296] The NetState phase (0) differed from the phase (1) specified by a rule in layer cifar
I0501 04:15:36.051826 24492 net.cpp:296] The NetState phase (0) differed from the phase (1) specified by a rule in layer accuracy
I0501 04:15:36.051931 24492 net.cpp:53] Initializing net from parameters: 
name: "CIFAR"
state {
  phase: TRAIN
  level: 0
  stage: ""
}
layer {
  name: "cifar"
  type: "Data"
  top: "data"
  top: "label"
  include {
    phase: TRAIN
  }
  transform_param {
    mean_file: "examples/cifar10/mean.binaryproto"
  }
  data_param {
    source: "examples/cifar10/cifar10_train_lmdb"
    batch_size: 111
    backend: LMDB
  }
}
layer {
  name: "conv0"
  type: "Convolution"
  bottom: "data"
  top: "conv0"
  param {
    lr_mult: 1
  }
  param {
    lr_mult: 2
  }
  convolution_param {
    num_output: 8
    pad: 2
    kernel_size: 5
    stride: 1
    weight_filler {
      type: "gaussian"
      std: 0.01
    }
    bias_filler {
      type: "constant"
    }
  }
}
layer {
  name: "Sigmoid0"
  type: "Sigmoid"
  bottom: "conv0"
  top: "Sigmoid0"
}
layer {
  name: "pool0"
  type: "Pooling"
  bottom: "Sigmoid0"
  top: "pool0"
  pooling_param {
    pool: AVE
    kernel_size: 3
    stride: 2
  }
}
layer {
  name: "ip1"
  type: "InnerProduct"
  bottom: "pool0"
  top: "ip1"
  param {
    lr_mult: 1
  }
  param {
    lr_mult: 2
  }
  inner_product_param {
    num_output: 20
    weight_filler {
      type: "gaussian"
      std: 0.01
    }
    bias_filler {
      type: "constant"
    }
  }
}
layer {
  name: "relu1"
  type: "ReLU"
  bottom: "ip1"
  top: "ip1"
}
layer {
  name: "ip2"
  type: "InnerProduct"
  bottom: "ip1"
  top: "ip2"
  param {
    lr_mult: 1
  }
  param {
    lr_mult: 2
  }
  inner_product_param {
    num_output: 80
    weight_filler {
      type: "gaussian"
      std: 0.01
    }
    bias_filler {
      type: "constant"
    }
  }
}
layer {
  name: "relu2"
  type: "ReLU"
  bottom: "ip2"
  top: "ip2"
}
layer {
  name: "ip3"
  type: "InnerProduct"
  bottom: "ip2"
  top: "ip3"
  param {
    lr_mult: 1
  }
  param {
    lr_mult: 2
  }
  inner_product_param {
    num_output: 10
    weight_filler {
      type: "gaussian"
      std: 0.01
    }
    bias_filler {
      type: "constant"
    }
  }
}
layer {
  name: "relu3"
  type: "ReLU"
  bottom: "ip3"
  top: "ip3"
}
layer {
  name: "ip4"
  type: "InnerProduct"
  bottom: "ip3"
  top: "ip4"
  param {
    lr_mult: 1
  }
  param {
    lr_mult: 2
  }
  inner_product_param {
    num_output: 10
    weight_filler {
      type: "gaussian"
      std: 0.01
    }
    bias_filler {
      type: "constant"
    }
  }
}
layer {
  name: "loss"
  type: "SoftmaxWithLoss"
  bottom: "ip4"
  bottom: "label"
  top: "loss"
}
I0501 04:15:36.052011 24492 layer_factory.hpp:77] Creating layer cifar
I0501 04:15:36.052110 24492 db_lmdb.cpp:35] Opened lmdb examples/cifar10/cifar10_train_lmdb
I0501 04:15:36.052139 24492 net.cpp:86] Creating Layer cifar
I0501 04:15:36.052147 24492 net.cpp:382] cifar -> data
I0501 04:15:36.052170 24492 net.cpp:382] cifar -> label
I0501 04:15:36.052183 24492 data_transformer.cpp:25] Loading mean file from: examples/cifar10/mean.binaryproto
I0501 04:15:36.054294 24492 data_layer.cpp:45] output data size: 111,3,32,32
I0501 04:15:36.062166 24492 net.cpp:124] Setting up cifar
I0501 04:15:36.062187 24492 net.cpp:131] Top shape: 111 3 32 32 (340992)
I0501 04:15:36.062193 24492 net.cpp:131] Top shape: 111 (111)
I0501 04:15:36.062197 24492 net.cpp:139] Memory required for data: 1364412
I0501 04:15:36.062221 24492 layer_factory.hpp:77] Creating layer conv0
I0501 04:15:36.062242 24492 net.cpp:86] Creating Layer conv0
I0501 04:15:36.062250 24492 net.cpp:408] conv0 <- data
I0501 04:15:36.062263 24492 net.cpp:382] conv0 -> conv0
I0501 04:15:36.344286 24492 net.cpp:124] Setting up conv0
I0501 04:15:36.344313 24492 net.cpp:131] Top shape: 111 8 32 32 (909312)
I0501 04:15:36.344318 24492 net.cpp:139] Memory required for data: 5001660
I0501 04:15:36.344333 24492 layer_factory.hpp:77] Creating layer Sigmoid0
I0501 04:15:36.344347 24492 net.cpp:86] Creating Layer Sigmoid0
I0501 04:15:36.344352 24492 net.cpp:408] Sigmoid0 <- conv0
I0501 04:15:36.344357 24492 net.cpp:382] Sigmoid0 -> Sigmoid0
I0501 04:15:36.344535 24492 net.cpp:124] Setting up Sigmoid0
I0501 04:15:36.344544 24492 net.cpp:131] Top shape: 111 8 32 32 (909312)
I0501 04:15:36.344547 24492 net.cpp:139] Memory required for data: 8638908
I0501 04:15:36.344550 24492 layer_factory.hpp:77] Creating layer pool0
I0501 04:15:36.344558 24492 net.cpp:86] Creating Layer pool0
I0501 04:15:36.344563 24492 net.cpp:408] pool0 <- Sigmoid0
I0501 04:15:36.344584 24492 net.cpp:382] pool0 -> pool0
I0501 04:15:36.345377 24492 net.cpp:124] Setting up pool0
I0501 04:15:36.345391 24492 net.cpp:131] Top shape: 111 8 16 16 (227328)
I0501 04:15:36.345394 24492 net.cpp:139] Memory required for data: 9548220
I0501 04:15:36.345398 24492 layer_factory.hpp:77] Creating layer ip1
I0501 04:15:36.345407 24492 net.cpp:86] Creating Layer ip1
I0501 04:15:36.345410 24492 net.cpp:408] ip1 <- pool0
I0501 04:15:36.345415 24492 net.cpp:382] ip1 -> ip1
I0501 04:15:36.347436 24492 net.cpp:124] Setting up ip1
I0501 04:15:36.347448 24492 net.cpp:131] Top shape: 111 20 (2220)
I0501 04:15:36.347452 24492 net.cpp:139] Memory required for data: 9557100
I0501 04:15:36.347460 24492 layer_factory.hpp:77] Creating layer relu1
I0501 04:15:36.347465 24492 net.cpp:86] Creating Layer relu1
I0501 04:15:36.347470 24492 net.cpp:408] relu1 <- ip1
I0501 04:15:36.347473 24492 net.cpp:369] relu1 -> ip1 (in-place)
I0501 04:15:36.347620 24492 net.cpp:124] Setting up relu1
I0501 04:15:36.347645 24492 net.cpp:131] Top shape: 111 20 (2220)
I0501 04:15:36.347648 24492 net.cpp:139] Memory required for data: 9565980
I0501 04:15:36.347652 24492 layer_factory.hpp:77] Creating layer ip2
I0501 04:15:36.347658 24492 net.cpp:86] Creating Layer ip2
I0501 04:15:36.347664 24492 net.cpp:408] ip2 <- ip1
I0501 04:15:36.347669 24492 net.cpp:382] ip2 -> ip2
I0501 04:15:36.347805 24492 net.cpp:124] Setting up ip2
I0501 04:15:36.347813 24492 net.cpp:131] Top shape: 111 80 (8880)
I0501 04:15:36.347816 24492 net.cpp:139] Memory required for data: 9601500
I0501 04:15:36.347823 24492 layer_factory.hpp:77] Creating layer relu2
I0501 04:15:36.347828 24492 net.cpp:86] Creating Layer relu2
I0501 04:15:36.347831 24492 net.cpp:408] relu2 <- ip2
I0501 04:15:36.347836 24492 net.cpp:369] relu2 -> ip2 (in-place)
I0501 04:15:36.347997 24492 net.cpp:124] Setting up relu2
I0501 04:15:36.348004 24492 net.cpp:131] Top shape: 111 80 (8880)
I0501 04:15:36.348007 24492 net.cpp:139] Memory required for data: 9637020
I0501 04:15:36.348011 24492 layer_factory.hpp:77] Creating layer ip3
I0501 04:15:36.348018 24492 net.cpp:86] Creating Layer ip3
I0501 04:15:36.348021 24492 net.cpp:408] ip3 <- ip2
I0501 04:15:36.348026 24492 net.cpp:382] ip3 -> ip3
I0501 04:15:36.348131 24492 net.cpp:124] Setting up ip3
I0501 04:15:36.348139 24492 net.cpp:131] Top shape: 111 10 (1110)
I0501 04:15:36.348141 24492 net.cpp:139] Memory required for data: 9641460
I0501 04:15:36.348146 24492 layer_factory.hpp:77] Creating layer relu3
I0501 04:15:36.348151 24492 net.cpp:86] Creating Layer relu3
I0501 04:15:36.348155 24492 net.cpp:408] relu3 <- ip3
I0501 04:15:36.348158 24492 net.cpp:369] relu3 -> ip3 (in-place)
I0501 04:15:36.348296 24492 net.cpp:124] Setting up relu3
I0501 04:15:36.348304 24492 net.cpp:131] Top shape: 111 10 (1110)
I0501 04:15:36.348306 24492 net.cpp:139] Memory required for data: 9645900
I0501 04:15:36.348309 24492 layer_factory.hpp:77] Creating layer ip4
I0501 04:15:36.348328 24492 net.cpp:86] Creating Layer ip4
I0501 04:15:36.348335 24492 net.cpp:408] ip4 <- ip3
I0501 04:15:36.348340 24492 net.cpp:382] ip4 -> ip4
I0501 04:15:36.348430 24492 net.cpp:124] Setting up ip4
I0501 04:15:36.348438 24492 net.cpp:131] Top shape: 111 10 (1110)
I0501 04:15:36.348440 24492 net.cpp:139] Memory required for data: 9650340
I0501 04:15:36.348448 24492 layer_factory.hpp:77] Creating layer loss
I0501 04:15:36.348453 24492 net.cpp:86] Creating Layer loss
I0501 04:15:36.348456 24492 net.cpp:408] loss <- ip4
I0501 04:15:36.348460 24492 net.cpp:408] loss <- label
I0501 04:15:36.348465 24492 net.cpp:382] loss -> loss
I0501 04:15:36.348482 24492 layer_factory.hpp:77] Creating layer loss
…
I0501 04:15:36.349684 24492 solver.cpp:173] Creating test net (#0) specified by net file: ECE595/cifar/train_test/var_everything/cifar_train_test_380.prototxt
I0501 04:15:36.349712 24492 net.cpp:296] The NetState phase (1) differed from the phase (0) specified by a rule in layer cifar
I0501 04:15:36.349818 24492 net.cpp:53] Initializing net from parameters: 
name: "CIFAR"
state {
  phase: TEST
}
layer {
  name: "cifar"
  type: "Data"
  top: "data"
  top: "label"
  include {
    phase: TEST
  }
  transform_param {
    mean_file: "examples/cifar10/mean.binaryproto"
  }
  data_param {
    source: "examples/cifar10/cifar10_test_lmdb"
    batch_size: 1000
    backend: LMDB
  }
}
layer {
  name: "conv0"
  type: "Convolution"
  bottom: "data"
  top: "conv0"
  param {
    lr_mult: 1
  }
  param {
    lr_mult: 2
  }
  convolution_param {
    num_output: 8
    pad: 2
    kernel_size: 5
    stride: 1
    weight_filler {
      type: "gaussian"
      std: 0.01
    }
    bias_filler {
      type: "constant"
    }
  }
}
layer {
  name: "Sigmoid0"
  type: "Sigmoid"
  bottom: "conv0"
  top: "Sigmoid0"
}
layer {
  name: "pool0"
  type: "Pooling"
  bottom: "Sigmoid0"
  top: "pool0"
  pooling_param {
    pool: AVE
    kernel_size: 3
    stride: 2
  }
}
layer {
  name: "ip1"
  type: "InnerProduct"
  bottom: "pool0"
  top: "ip1"
  param {
    lr_mult: 1
  }
  param {
    lr_mult: 2
  }
  inner_product_param {
    num_output: 20
    weight_filler {
      type: "gaussian"
      std: 0.01
    }
    bias_filler {
      type: "constant"
    }
  }
}
layer {
  name: "relu1"
  type: "ReLU"
  bottom: "ip1"
  top: "ip1"
}
layer {
  name: "ip2"
  type: "InnerProduct"
  bottom: "ip1"
  top: "ip2"
  param {
    lr_mult: 1
  }
  param {
    lr_mult: 2
  }
  inner_product_param {
    num_output: 80
    weight_filler {
      type: "gaussian"
      std: 0.01
    }
    bias_filler {
      type: "constant"
    }
  }
}
layer {
  name: "relu2"
  type: "ReLU"
  bottom: "ip2"
  top: "ip2"
}
layer {
  name: "ip3"
  type: "InnerProduct"
  bottom: "ip2"
  top: "ip3"
  param {
    lr_mult: 1
  }
  param {
    lr_mult: 2
  }
  inner_product_param {
    num_output: 10
    weight_filler {
      type: "gaussian"
      std: 0.01
    }
    bias_filler {
      type: "constant"
    }
  }
}
layer {
  name: "relu3"
  type: "ReLU"
  bottom: "ip3"
  top: "ip3"
}
layer {
  name: "ip4"
  type: "InnerProduct"
  bottom: "ip3"
  top: "ip4"
  param {
    lr_mult: 1
  }
  param {
    lr_mult: 2
  }
  inner_product_param {
    num_output: 10
    weight_filler {
      type: "gaussian"
      std: 0.01
    }
    bias_filler {
      type: "constant"
    }
  }
}
layer {
  name: "accuracy"
  type: "Accuracy"
  bottom: "ip4"
  bottom: "label"
  top: "accuracy"
  include {
    phase: TEST
  }
}
layer {
  name: "loss"
  type: "SoftmaxWithLoss"
  bottom: "ip4"
  bottom: "label"
  top: "loss"
}
I0501 04:15:36.349896 24492 layer_factory.hpp:77] Creating layer cifar
I0501 04:15:36.349941 24492 db_lmdb.cpp:35] Opened lmdb examples/cifar10/cifar10_test_lmdb
I0501 04:15:36.349957 24492 net.cpp:86] Creating Layer cifar
I0501 04:15:36.349962 24492 net.cpp:382] cifar -> data
I0501 04:15:36.349970 24492 net.cpp:382] cifar -> label
I0501 04:15:36.349978 24492 data_transformer.cpp:25] Loading mean file from: examples/cifar10/mean.binaryproto
I0501 04:15:36.350118 24492 data_layer.cpp:45] output data size: 1000,3,32,32
I0501 04:15:36.372030 24492 net.cpp:124] Setting up cifar
I0501 04:15:36.372057 24492 net.cpp:131] Top shape: 1000 3 32 32 (3072000)
I0501 04:15:36.372063 24492 net.cpp:131] Top shape: 1000 (1000)
I0501 04:15:36.372066 24492 net.cpp:139] Memory required for data: 12292000
I0501 04:15:36.372072 24492 layer_factory.hpp:77] Creating layer label_cifar_1_split
I0501 04:15:36.372107 24492 net.cpp:86] Creating Layer label_cifar_1_split
I0501 04:15:36.372113 24492 net.cpp:408] label_cifar_1_split <- label
I0501 04:15:36.372135 24492 net.cpp:382] label_cifar_1_split -> label_cifar_1_split_0
I0501 04:15:36.372144 24492 net.cpp:382] label_cifar_1_split -> label_cifar_1_split_1
I0501 04:15:36.372262 24492 net.cpp:124] Setting up label_cifar_1_split
I0501 04:15:36.372269 24492 net.cpp:131] Top shape: 1000 (1000)
I0501 04:15:36.372273 24492 net.cpp:131] Top shape: 1000 (1000)
I0501 04:15:36.372277 24492 net.cpp:139] Memory required for data: 12300000
I0501 04:15:36.372280 24492 layer_factory.hpp:77] Creating layer conv0
I0501 04:15:36.372292 24492 net.cpp:86] Creating Layer conv0
I0501 04:15:36.372298 24492 net.cpp:408] conv0 <- data
I0501 04:15:36.372303 24492 net.cpp:382] conv0 -> conv0
I0501 04:15:36.373906 24492 net.cpp:124] Setting up conv0
I0501 04:15:36.373920 24492 net.cpp:131] Top shape: 1000 8 32 32 (8192000)
I0501 04:15:36.373924 24492 net.cpp:139] Memory required for data: 45068000
I0501 04:15:36.373934 24492 layer_factory.hpp:77] Creating layer Sigmoid0
I0501 04:15:36.373940 24492 net.cpp:86] Creating Layer Sigmoid0
I0501 04:15:36.373944 24492 net.cpp:408] Sigmoid0 <- conv0
I0501 04:15:36.373949 24492 net.cpp:382] Sigmoid0 -> Sigmoid0
I0501 04:15:36.374126 24492 net.cpp:124] Setting up Sigmoid0
I0501 04:15:36.374135 24492 net.cpp:131] Top shape: 1000 8 32 32 (8192000)
I0501 04:15:36.374137 24492 net.cpp:139] Memory required for data: 77836000
I0501 04:15:36.374140 24492 layer_factory.hpp:77] Creating layer pool0
I0501 04:15:36.374161 24492 net.cpp:86] Creating Layer pool0
I0501 04:15:36.374166 24492 net.cpp:408] pool0 <- Sigmoid0
I0501 04:15:36.374184 24492 net.cpp:382] pool0 -> pool0
I0501 04:15:36.374431 24492 net.cpp:124] Setting up pool0
I0501 04:15:36.374440 24492 net.cpp:131] Top shape: 1000 8 16 16 (2048000)
I0501 04:15:36.374444 24492 net.cpp:139] Memory required for data: 86028000
I0501 04:15:36.374447 24492 layer_factory.hpp:77] Creating layer ip1
I0501 04:15:36.374455 24492 net.cpp:86] Creating Layer ip1
I0501 04:15:36.374459 24492 net.cpp:408] ip1 <- pool0
I0501 04:15:36.374464 24492 net.cpp:382] ip1 -> ip1
I0501 04:15:36.376580 24492 net.cpp:124] Setting up ip1
I0501 04:15:36.376590 24492 net.cpp:131] Top shape: 1000 20 (20000)
I0501 04:15:36.376593 24492 net.cpp:139] Memory required for data: 86108000
I0501 04:15:36.376616 24492 layer_factory.hpp:77] Creating layer relu1
I0501 04:15:36.376621 24492 net.cpp:86] Creating Layer relu1
I0501 04:15:36.376626 24492 net.cpp:408] relu1 <- ip1
I0501 04:15:36.376631 24492 net.cpp:369] relu1 -> ip1 (in-place)
I0501 04:15:36.376803 24492 net.cpp:124] Setting up relu1
I0501 04:15:36.376818 24492 net.cpp:131] Top shape: 1000 20 (20000)
I0501 04:15:36.376821 24492 net.cpp:139] Memory required for data: 86188000
I0501 04:15:36.376842 24492 layer_factory.hpp:77] Creating layer ip2
I0501 04:15:36.376864 24492 net.cpp:86] Creating Layer ip2
I0501 04:15:36.376868 24492 net.cpp:408] ip2 <- ip1
I0501 04:15:36.376879 24492 net.cpp:382] ip2 -> ip2
I0501 04:15:36.377032 24492 net.cpp:124] Setting up ip2
I0501 04:15:36.377040 24492 net.cpp:131] Top shape: 1000 80 (80000)
I0501 04:15:36.377043 24492 net.cpp:139] Memory required for data: 86508000
I0501 04:15:36.377051 24492 layer_factory.hpp:77] Creating layer relu2
I0501 04:15:36.377058 24492 net.cpp:86] Creating Layer relu2
I0501 04:15:36.377061 24492 net.cpp:408] relu2 <- ip2
I0501 04:15:36.377065 24492 net.cpp:369] relu2 -> ip2 (in-place)
I0501 04:15:36.377825 24492 net.cpp:124] Setting up relu2
I0501 04:15:36.377837 24492 net.cpp:131] Top shape: 1000 80 (80000)
I0501 04:15:36.377841 24492 net.cpp:139] Memory required for data: 86828000
I0501 04:15:36.377845 24492 layer_factory.hpp:77] Creating layer ip3
I0501 04:15:36.377852 24492 net.cpp:86] Creating Layer ip3
I0501 04:15:36.377856 24492 net.cpp:408] ip3 <- ip2
I0501 04:15:36.377861 24492 net.cpp:382] ip3 -> ip3
I0501 04:15:36.378022 24492 net.cpp:124] Setting up ip3
I0501 04:15:36.378031 24492 net.cpp:131] Top shape: 1000 10 (10000)
I0501 04:15:36.378033 24492 net.cpp:139] Memory required for data: 86868000
I0501 04:15:36.378039 24492 layer_factory.hpp:77] Creating layer relu3
I0501 04:15:36.378044 24492 net.cpp:86] Creating Layer relu3
I0501 04:15:36.378047 24492 net.cpp:408] relu3 <- ip3
I0501 04:15:36.378051 24492 net.cpp:369] relu3 -> ip3 (in-place)
I0501 04:15:36.378198 24492 net.cpp:124] Setting up relu3
I0501 04:15:36.378206 24492 net.cpp:131] Top shape: 1000 10 (10000)
I0501 04:15:36.378209 24492 net.cpp:139] Memory required for data: 86908000
I0501 04:15:36.378212 24492 layer_factory.hpp:77] Creating layer ip4
I0501 04:15:36.378219 24492 net.cpp:86] Creating Layer ip4
I0501 04:15:36.378222 24492 net.cpp:408] ip4 <- ip3
I0501 04:15:36.378228 24492 net.cpp:382] ip4 -> ip4
I0501 04:15:36.378341 24492 net.cpp:124] Setting up ip4
I0501 04:15:36.378348 24492 net.cpp:131] Top shape: 1000 10 (10000)
I0501 04:15:36.378351 24492 net.cpp:139] Memory required for data: 86948000
I0501 04:15:36.378360 24492 layer_factory.hpp:77] Creating layer ip4_ip4_0_split
I0501 04:15:36.378365 24492 net.cpp:86] Creating Layer ip4_ip4_0_split
I0501 04:15:36.378367 24492 net.cpp:408] ip4_ip4_0_split <- ip4
I0501 04:15:36.378372 24492 net.cpp:382] ip4_ip4_0_split -> ip4_ip4_0_split_0
I0501 04:15:36.378377 24492 net.cpp:382] ip4_ip4_0_split -> ip4_ip4_0_split_1
I0501 04:15:36.378407 24492 net.cpp:124] Setting up ip4_ip4_0_split
I0501 04:15:36.378414 24492 net.cpp:131] Top shape: 1000 10 (10000)
I0501 04:15:36.378418 24492 net.cpp:131] Top shape: 1000 10 (10000)
I0501 04:15:36.378422 24492 net.cpp:139] Memory required for data: 87028000
I0501 04:15:36.378433 24492 layer_factory.hpp:77] Creating layer accuracy
I0501 04:15:36.378439 24492 net.cpp:86] Creating Layer accuracy
I0501 04:15:36.378443 24492 net.cpp:408] accuracy <- ip4_ip4_0_split_0
I0501 04:15:36.378446 24492 net.cpp:408] accuracy <- label_cifar_1_split_0
I0501 04:15:36.378451 24492 net.cpp:382] accuracy -> accuracy
…
