…
I0501 00:36:59.856293  7374 net.cpp:296] The NetState phase (0) differed from the phase (1) specified by a rule in layer cifar
I0501 00:36:59.856312  7374 net.cpp:296] The NetState phase (0) differed from the phase (1) specified by a rule in layer accuracy
I0501 00:36:59.856420  7374 net.cpp:53] Initializing net from parameters: 
name: "CIFAR"
state {
  phase: TRAIN
  level: 0
  stage: ""
}
layer {
  name: "cifar"
  type: "Data"
  top: "data"
  top: "label"
  include {
    phase: TRAIN
  }
  transform_param {
    mean_file: "examples/cifar10/mean.binaryproto"
  }
  data_param {
    source: "examples/cifar10/cifar10_train_lmdb"
    batch_size: 111
    backend: LMDB
  }
}
layer {
  name: "conv0"
  type: "Convolution"
  bottom: "data"
  top: "conv0"
  param {
    lr_mult: 1
  }
  param {
    lr_mult: 2
  }
  convolution_param {
    num_output: 8
    pad: 2
    kernel_size: 3
    stride: 1
    weight_filler {
      type: "gaussian"
      std: 0.01
    }
    bias_filler {
      type: "constant"
    }
  }
}
layer {
  name: "Sigmoid0"
  type: "Sigmoid"
  bottom: "conv0"
  top: "Sigmoid0"
}
layer {
  name: "pool0"
  type: "Pooling"
  bottom: "Sigmoid0"
  top: "pool0"
  pooling_param {
    pool: AVE
    kernel_size: 3
    stride: 2
  }
}
layer {
  name: "ip1"
  type: "InnerProduct"
  bottom: "pool0"
  top: "ip1"
  param {
    lr_mult: 1
  }
  param {
    lr_mult: 2
  }
  inner_product_param {
    num_output: 80
    weight_filler {
      type: "gaussian"
      std: 0.01
    }
    bias_filler {
      type: "constant"
    }
  }
}
layer {
  name: "relu1"
  type: "ReLU"
  bottom: "ip1"
  top: "ip1"
}
layer {
  name: "ip2"
  type: "InnerProduct"
  bottom: "ip1"
  top: "ip2"
  param {
    lr_mult: 1
  }
  param {
    lr_mult: 2
  }
  inner_product_param {
    num_output: 10
    weight_filler {
      type: "gaussian"
      std: 0.01
    }
    bias_filler {
      type: "constant"
    }
  }
}
layer {
  name: "relu2"
  type: "ReLU"
  bottom: "ip2"
  top: "ip2"
}
layer {
  name: "ip3"
  type: "InnerProduct"
  bottom: "ip2"
  top: "ip3"
  param {
    lr_mult: 1
  }
  param {
    lr_mult: 2
  }
  inner_product_param {
    num_output: 80
    weight_filler {
      type: "gaussian"
      std: 0.01
    }
    bias_filler {
      type: "constant"
    }
  }
}
layer {
  name: "relu3"
  type: "ReLU"
  bottom: "ip3"
  top: "ip3"
}
layer {
  name: "ip4"
  type: "InnerProduct"
  bottom: "ip3"
  top: "ip4"
  param {
    lr_mult: 1
  }
  param {
    lr_mult: 2
  }
  inner_product_param {
    num_output: 10
    weight_filler {
      type: "gaussian"
      std: 0.01
    }
    bias_filler {
      type: "constant"
    }
  }
}
layer {
  name: "loss"
  type: "SoftmaxWithLoss"
  bottom: "ip4"
  bottom: "label"
  top: "loss"
}
I0501 00:36:59.856500  7374 layer_factory.hpp:77] Creating layer cifar
I0501 00:36:59.856601  7374 db_lmdb.cpp:35] Opened lmdb examples/cifar10/cifar10_train_lmdb
I0501 00:36:59.856627  7374 net.cpp:86] Creating Layer cifar
I0501 00:36:59.856636  7374 net.cpp:382] cifar -> data
I0501 00:36:59.856659  7374 net.cpp:382] cifar -> label
I0501 00:36:59.856676  7374 data_transformer.cpp:25] Loading mean file from: examples/cifar10/mean.binaryproto
I0501 00:36:59.858793  7374 data_layer.cpp:45] output data size: 111,3,32,32
I0501 00:36:59.866675  7374 net.cpp:124] Setting up cifar
I0501 00:36:59.866698  7374 net.cpp:131] Top shape: 111 3 32 32 (340992)
I0501 00:36:59.866703  7374 net.cpp:131] Top shape: 111 (111)
I0501 00:36:59.866708  7374 net.cpp:139] Memory required for data: 1364412
I0501 00:36:59.866730  7374 layer_factory.hpp:77] Creating layer conv0
I0501 00:36:59.866750  7374 net.cpp:86] Creating Layer conv0
I0501 00:36:59.866756  7374 net.cpp:408] conv0 <- data
I0501 00:36:59.866768  7374 net.cpp:382] conv0 -> conv0
I0501 00:37:00.155110  7374 net.cpp:124] Setting up conv0
I0501 00:37:00.155139  7374 net.cpp:131] Top shape: 111 8 34 34 (1026528)
I0501 00:37:00.155144  7374 net.cpp:139] Memory required for data: 5470524
I0501 00:37:00.155161  7374 layer_factory.hpp:77] Creating layer Sigmoid0
I0501 00:37:00.155172  7374 net.cpp:86] Creating Layer Sigmoid0
I0501 00:37:00.155177  7374 net.cpp:408] Sigmoid0 <- conv0
I0501 00:37:00.155184  7374 net.cpp:382] Sigmoid0 -> Sigmoid0
I0501 00:37:00.155371  7374 net.cpp:124] Setting up Sigmoid0
I0501 00:37:00.155382  7374 net.cpp:131] Top shape: 111 8 34 34 (1026528)
I0501 00:37:00.155386  7374 net.cpp:139] Memory required for data: 9576636
I0501 00:37:00.155390  7374 layer_factory.hpp:77] Creating layer pool0
I0501 00:37:00.155397  7374 net.cpp:86] Creating Layer pool0
I0501 00:37:00.155400  7374 net.cpp:408] pool0 <- Sigmoid0
I0501 00:37:00.155405  7374 net.cpp:382] pool0 -> pool0
I0501 00:37:00.156191  7374 net.cpp:124] Setting up pool0
I0501 00:37:00.156205  7374 net.cpp:131] Top shape: 111 8 17 17 (256632)
I0501 00:37:00.156209  7374 net.cpp:139] Memory required for data: 10603164
I0501 00:37:00.156213  7374 layer_factory.hpp:77] Creating layer ip1
I0501 00:37:00.156222  7374 net.cpp:86] Creating Layer ip1
I0501 00:37:00.156226  7374 net.cpp:408] ip1 <- pool0
I0501 00:37:00.156232  7374 net.cpp:382] ip1 -> ip1
I0501 00:37:00.162616  7374 net.cpp:124] Setting up ip1
I0501 00:37:00.162629  7374 net.cpp:131] Top shape: 111 80 (8880)
I0501 00:37:00.162633  7374 net.cpp:139] Memory required for data: 10638684
I0501 00:37:00.162642  7374 layer_factory.hpp:77] Creating layer relu1
I0501 00:37:00.162649  7374 net.cpp:86] Creating Layer relu1
I0501 00:37:00.162655  7374 net.cpp:408] relu1 <- ip1
I0501 00:37:00.162663  7374 net.cpp:369] relu1 -> ip1 (in-place)
I0501 00:37:00.162840  7374 net.cpp:124] Setting up relu1
I0501 00:37:00.162852  7374 net.cpp:131] Top shape: 111 80 (8880)
I0501 00:37:00.162854  7374 net.cpp:139] Memory required for data: 10674204
I0501 00:37:00.162858  7374 layer_factory.hpp:77] Creating layer ip2
I0501 00:37:00.162865  7374 net.cpp:86] Creating Layer ip2
I0501 00:37:00.162869  7374 net.cpp:408] ip2 <- ip1
I0501 00:37:00.162874  7374 net.cpp:382] ip2 -> ip2
I0501 00:37:00.163846  7374 net.cpp:124] Setting up ip2
I0501 00:37:00.163859  7374 net.cpp:131] Top shape: 111 10 (1110)
I0501 00:37:00.163863  7374 net.cpp:139] Memory required for data: 10678644
I0501 00:37:00.163872  7374 layer_factory.hpp:77] Creating layer relu2
I0501 00:37:00.163878  7374 net.cpp:86] Creating Layer relu2
I0501 00:37:00.163882  7374 net.cpp:408] relu2 <- ip2
I0501 00:37:00.163887  7374 net.cpp:369] relu2 -> ip2 (in-place)
I0501 00:37:00.164057  7374 net.cpp:124] Setting up relu2
I0501 00:37:00.164067  7374 net.cpp:131] Top shape: 111 10 (1110)
I0501 00:37:00.164069  7374 net.cpp:139] Memory required for data: 10683084
I0501 00:37:00.164072  7374 layer_factory.hpp:77] Creating layer ip3
I0501 00:37:00.164080  7374 net.cpp:86] Creating Layer ip3
I0501 00:37:00.164084  7374 net.cpp:408] ip3 <- ip2
I0501 00:37:00.164089  7374 net.cpp:382] ip3 -> ip3
I0501 00:37:00.164206  7374 net.cpp:124] Setting up ip3
I0501 00:37:00.164212  7374 net.cpp:131] Top shape: 111 80 (8880)
I0501 00:37:00.164216  7374 net.cpp:139] Memory required for data: 10718604
I0501 00:37:00.164222  7374 layer_factory.hpp:77] Creating layer relu3
I0501 00:37:00.164227  7374 net.cpp:86] Creating Layer relu3
I0501 00:37:00.164229  7374 net.cpp:408] relu3 <- ip3
I0501 00:37:00.164233  7374 net.cpp:369] relu3 -> ip3 (in-place)
I0501 00:37:00.164388  7374 net.cpp:124] Setting up relu3
I0501 00:37:00.164397  7374 net.cpp:131] Top shape: 111 80 (8880)
I0501 00:37:00.164400  7374 net.cpp:139] Memory required for data: 10754124
I0501 00:37:00.164403  7374 layer_factory.hpp:77] Creating layer ip4
I0501 00:37:00.164424  7374 net.cpp:86] Creating Layer ip4
I0501 00:37:00.164428  7374 net.cpp:408] ip4 <- ip3
I0501 00:37:00.164433  7374 net.cpp:382] ip4 -> ip4
I0501 00:37:00.164549  7374 net.cpp:124] Setting up ip4
I0501 00:37:00.164557  7374 net.cpp:131] Top shape: 111 10 (1110)
I0501 00:37:00.164561  7374 net.cpp:139] Memory required for data: 10758564
I0501 00:37:00.164568  7374 layer_factory.hpp:77] Creating layer loss
I0501 00:37:00.164574  7374 net.cpp:86] Creating Layer loss
I0501 00:37:00.164577  7374 net.cpp:408] loss <- ip4
I0501 00:37:00.164582  7374 net.cpp:408] loss <- label
I0501 00:37:00.164587  7374 net.cpp:382] loss -> loss
I0501 00:37:00.164602  7374 layer_factory.hpp:77] Creating layer loss
…
I0501 00:37:00.165856  7374 solver.cpp:173] Creating test net (#0) specified by net file: ECE595/cifar/train_test/var_everything/cifar_train_test_263.prototxt
I0501 00:37:00.165884  7374 net.cpp:296] The NetState phase (1) differed from the phase (0) specified by a rule in layer cifar
I0501 00:37:00.165978  7374 net.cpp:53] Initializing net from parameters: 
name: "CIFAR"
state {
  phase: TEST
}
layer {
  name: "cifar"
  type: "Data"
  top: "data"
  top: "label"
  include {
    phase: TEST
  }
  transform_param {
    mean_file: "examples/cifar10/mean.binaryproto"
  }
  data_param {
    source: "examples/cifar10/cifar10_test_lmdb"
    batch_size: 1000
    backend: LMDB
  }
}
layer {
  name: "conv0"
  type: "Convolution"
  bottom: "data"
  top: "conv0"
  param {
    lr_mult: 1
  }
  param {
    lr_mult: 2
  }
  convolution_param {
    num_output: 8
    pad: 2
    kernel_size: 3
    stride: 1
    weight_filler {
      type: "gaussian"
      std: 0.01
    }
    bias_filler {
      type: "constant"
    }
  }
}
layer {
  name: "Sigmoid0"
  type: "Sigmoid"
  bottom: "conv0"
  top: "Sigmoid0"
}
layer {
  name: "pool0"
  type: "Pooling"
  bottom: "Sigmoid0"
  top: "pool0"
  pooling_param {
    pool: AVE
    kernel_size: 3
    stride: 2
  }
}
layer {
  name: "ip1"
  type: "InnerProduct"
  bottom: "pool0"
  top: "ip1"
  param {
    lr_mult: 1
  }
  param {
    lr_mult: 2
  }
  inner_product_param {
    num_output: 80
    weight_filler {
      type: "gaussian"
      std: 0.01
    }
    bias_filler {
      type: "constant"
    }
  }
}
layer {
  name: "relu1"
  type: "ReLU"
  bottom: "ip1"
  top: "ip1"
}
layer {
  name: "ip2"
  type: "InnerProduct"
  bottom: "ip1"
  top: "ip2"
  param {
    lr_mult: 1
  }
  param {
    lr_mult: 2
  }
  inner_product_param {
    num_output: 10
    weight_filler {
      type: "gaussian"
      std: 0.01
    }
    bias_filler {
      type: "constant"
    }
  }
}
layer {
  name: "relu2"
  type: "ReLU"
  bottom: "ip2"
  top: "ip2"
}
layer {
  name: "ip3"
  type: "InnerProduct"
  bottom: "ip2"
  top: "ip3"
  param {
    lr_mult: 1
  }
  param {
    lr_mult: 2
  }
  inner_product_param {
    num_output: 80
    weight_filler {
      type: "gaussian"
      std: 0.01
    }
    bias_filler {
      type: "constant"
    }
  }
}
layer {
  name: "relu3"
  type: "ReLU"
  bottom: "ip3"
  top: "ip3"
}
layer {
  name: "ip4"
  type: "InnerProduct"
  bottom: "ip3"
  top: "ip4"
  param {
    lr_mult: 1
  }
  param {
    lr_mult: 2
  }
  inner_product_param {
    num_output: 10
    weight_filler {
      type: "gaussian"
      std: 0.01
    }
    bias_filler {
      type: "constant"
    }
  }
}
layer {
  name: "accuracy"
  type: "Accuracy"
  bottom: "ip4"
  bottom: "label"
  top: "accuracy"
  include {
    phase: TEST
  }
}
layer {
  name: "loss"
  type: "SoftmaxWithLoss"
  bottom: "ip4"
  bottom: "label"
  top: "loss"
}
I0501 00:37:00.166061  7374 layer_factory.hpp:77] Creating layer cifar
I0501 00:37:00.166110  7374 db_lmdb.cpp:35] Opened lmdb examples/cifar10/cifar10_test_lmdb
I0501 00:37:00.166121  7374 net.cpp:86] Creating Layer cifar
I0501 00:37:00.166126  7374 net.cpp:382] cifar -> data
I0501 00:37:00.166134  7374 net.cpp:382] cifar -> label
I0501 00:37:00.166141  7374 data_transformer.cpp:25] Loading mean file from: examples/cifar10/mean.binaryproto
I0501 00:37:00.166290  7374 data_layer.cpp:45] output data size: 1000,3,32,32
I0501 00:37:00.189352  7374 net.cpp:124] Setting up cifar
I0501 00:37:00.189379  7374 net.cpp:131] Top shape: 1000 3 32 32 (3072000)
I0501 00:37:00.189384  7374 net.cpp:131] Top shape: 1000 (1000)
I0501 00:37:00.189388  7374 net.cpp:139] Memory required for data: 12292000
I0501 00:37:00.189393  7374 layer_factory.hpp:77] Creating layer label_cifar_1_split
I0501 00:37:00.189405  7374 net.cpp:86] Creating Layer label_cifar_1_split
I0501 00:37:00.189410  7374 net.cpp:408] label_cifar_1_split <- label
I0501 00:37:00.189416  7374 net.cpp:382] label_cifar_1_split -> label_cifar_1_split_0
I0501 00:37:00.189425  7374 net.cpp:382] label_cifar_1_split -> label_cifar_1_split_1
I0501 00:37:00.189514  7374 net.cpp:124] Setting up label_cifar_1_split
I0501 00:37:00.189522  7374 net.cpp:131] Top shape: 1000 (1000)
I0501 00:37:00.189527  7374 net.cpp:131] Top shape: 1000 (1000)
I0501 00:37:00.189529  7374 net.cpp:139] Memory required for data: 12300000
I0501 00:37:00.189532  7374 layer_factory.hpp:77] Creating layer conv0
I0501 00:37:00.189544  7374 net.cpp:86] Creating Layer conv0
I0501 00:37:00.189548  7374 net.cpp:408] conv0 <- data
I0501 00:37:00.189553  7374 net.cpp:382] conv0 -> conv0
I0501 00:37:00.191192  7374 net.cpp:124] Setting up conv0
I0501 00:37:00.191206  7374 net.cpp:131] Top shape: 1000 8 34 34 (9248000)
I0501 00:37:00.191210  7374 net.cpp:139] Memory required for data: 49292000
I0501 00:37:00.191220  7374 layer_factory.hpp:77] Creating layer Sigmoid0
I0501 00:37:00.191227  7374 net.cpp:86] Creating Layer Sigmoid0
I0501 00:37:00.191231  7374 net.cpp:408] Sigmoid0 <- conv0
I0501 00:37:00.191237  7374 net.cpp:382] Sigmoid0 -> Sigmoid0
I0501 00:37:00.191431  7374 net.cpp:124] Setting up Sigmoid0
I0501 00:37:00.191442  7374 net.cpp:131] Top shape: 1000 8 34 34 (9248000)
I0501 00:37:00.191445  7374 net.cpp:139] Memory required for data: 86284000
I0501 00:37:00.191448  7374 layer_factory.hpp:77] Creating layer pool0
I0501 00:37:00.191457  7374 net.cpp:86] Creating Layer pool0
I0501 00:37:00.191460  7374 net.cpp:408] pool0 <- Sigmoid0
I0501 00:37:00.191464  7374 net.cpp:382] pool0 -> pool0
I0501 00:37:00.191723  7374 net.cpp:124] Setting up pool0
I0501 00:37:00.191733  7374 net.cpp:131] Top shape: 1000 8 17 17 (2312000)
I0501 00:37:00.191736  7374 net.cpp:139] Memory required for data: 95532000
I0501 00:37:00.191740  7374 layer_factory.hpp:77] Creating layer ip1
I0501 00:37:00.191750  7374 net.cpp:86] Creating Layer ip1
I0501 00:37:00.191753  7374 net.cpp:408] ip1 <- pool0
I0501 00:37:00.191759  7374 net.cpp:382] ip1 -> ip1
I0501 00:37:00.197687  7374 net.cpp:124] Setting up ip1
I0501 00:37:00.197700  7374 net.cpp:131] Top shape: 1000 80 (80000)
I0501 00:37:00.197702  7374 net.cpp:139] Memory required for data: 95852000
I0501 00:37:00.197724  7374 layer_factory.hpp:77] Creating layer relu1
I0501 00:37:00.197731  7374 net.cpp:86] Creating Layer relu1
I0501 00:37:00.197734  7374 net.cpp:408] relu1 <- ip1
I0501 00:37:00.197739  7374 net.cpp:369] relu1 -> ip1 (in-place)
I0501 00:37:00.197909  7374 net.cpp:124] Setting up relu1
I0501 00:37:00.197921  7374 net.cpp:131] Top shape: 1000 80 (80000)
I0501 00:37:00.197923  7374 net.cpp:139] Memory required for data: 96172000
I0501 00:37:00.197926  7374 layer_factory.hpp:77] Creating layer ip2
I0501 00:37:00.197932  7374 net.cpp:86] Creating Layer ip2
I0501 00:37:00.197935  7374 net.cpp:408] ip2 <- ip1
I0501 00:37:00.197942  7374 net.cpp:382] ip2 -> ip2
I0501 00:37:00.198063  7374 net.cpp:124] Setting up ip2
I0501 00:37:00.198071  7374 net.cpp:131] Top shape: 1000 10 (10000)
I0501 00:37:00.198073  7374 net.cpp:139] Memory required for data: 96212000
I0501 00:37:00.198081  7374 layer_factory.hpp:77] Creating layer relu2
I0501 00:37:00.198086  7374 net.cpp:86] Creating Layer relu2
I0501 00:37:00.198089  7374 net.cpp:408] relu2 <- ip2
I0501 00:37:00.198094  7374 net.cpp:369] relu2 -> ip2 (in-place)
I0501 00:37:00.198855  7374 net.cpp:124] Setting up relu2
I0501 00:37:00.198868  7374 net.cpp:131] Top shape: 1000 10 (10000)
I0501 00:37:00.198871  7374 net.cpp:139] Memory required for data: 96252000
I0501 00:37:00.198874  7374 layer_factory.hpp:77] Creating layer ip3
I0501 00:37:00.198882  7374 net.cpp:86] Creating Layer ip3
I0501 00:37:00.198886  7374 net.cpp:408] ip3 <- ip2
I0501 00:37:00.198891  7374 net.cpp:382] ip3 -> ip3
I0501 00:37:00.199015  7374 net.cpp:124] Setting up ip3
I0501 00:37:00.199023  7374 net.cpp:131] Top shape: 1000 80 (80000)
I0501 00:37:00.199025  7374 net.cpp:139] Memory required for data: 96572000
I0501 00:37:00.199031  7374 layer_factory.hpp:77] Creating layer relu3
I0501 00:37:00.199036  7374 net.cpp:86] Creating Layer relu3
I0501 00:37:00.199040  7374 net.cpp:408] relu3 <- ip3
I0501 00:37:00.199044  7374 net.cpp:369] relu3 -> ip3 (in-place)
I0501 00:37:00.199194  7374 net.cpp:124] Setting up relu3
I0501 00:37:00.199203  7374 net.cpp:131] Top shape: 1000 80 (80000)
I0501 00:37:00.199205  7374 net.cpp:139] Memory required for data: 96892000
I0501 00:37:00.199208  7374 layer_factory.hpp:77] Creating layer ip4
I0501 00:37:00.199218  7374 net.cpp:86] Creating Layer ip4
I0501 00:37:00.199220  7374 net.cpp:408] ip4 <- ip3
I0501 00:37:00.199225  7374 net.cpp:382] ip4 -> ip4
I0501 00:37:00.199359  7374 net.cpp:124] Setting up ip4
I0501 00:37:00.199367  7374 net.cpp:131] Top shape: 1000 10 (10000)
I0501 00:37:00.199369  7374 net.cpp:139] Memory required for data: 96932000
I0501 00:37:00.199378  7374 layer_factory.hpp:77] Creating layer ip4_ip4_0_split
I0501 00:37:00.199383  7374 net.cpp:86] Creating Layer ip4_ip4_0_split
I0501 00:37:00.199386  7374 net.cpp:408] ip4_ip4_0_split <- ip4
I0501 00:37:00.199390  7374 net.cpp:382] ip4_ip4_0_split -> ip4_ip4_0_split_0
I0501 00:37:00.199395  7374 net.cpp:382] ip4_ip4_0_split -> ip4_ip4_0_split_1
I0501 00:37:00.199427  7374 net.cpp:124] Setting up ip4_ip4_0_split
I0501 00:37:00.199434  7374 net.cpp:131] Top shape: 1000 10 (10000)
I0501 00:37:00.199437  7374 net.cpp:131] Top shape: 1000 10 (10000)
I0501 00:37:00.199440  7374 net.cpp:139] Memory required for data: 97012000
I0501 00:37:00.199443  7374 layer_factory.hpp:77] Creating layer accuracy
I0501 00:37:00.199450  7374 net.cpp:86] Creating Layer accuracy
I0501 00:37:00.199455  7374 net.cpp:408] accuracy <- ip4_ip4_0_split_0
I0501 00:37:00.199458  7374 net.cpp:408] accuracy <- label_cifar_1_split_0
I0501 00:37:00.199462  7374 net.cpp:382] accuracy -> accuracy
…
