…
I0430 21:14:29.621179 30390 net.cpp:296] The NetState phase (0) differed from the phase (1) specified by a rule in layer cifar
I0430 21:14:29.621193 30390 net.cpp:296] The NetState phase (0) differed from the phase (1) specified by a rule in layer accuracy
I0430 21:14:29.621258 30390 net.cpp:53] Initializing net from parameters: 
name: "CIFAR"
state {
  phase: TRAIN
  level: 0
  stage: ""
}
layer {
  name: "cifar"
  type: "Data"
  top: "data"
  top: "label"
  include {
    phase: TRAIN
  }
  transform_param {
    mean_file: "examples/cifar10/mean.binaryproto"
  }
  data_param {
    source: "examples/cifar10/cifar10_train_lmdb"
    batch_size: 111
    backend: LMDB
  }
}
layer {
  name: "conv0"
  type: "Convolution"
  bottom: "data"
  top: "conv0"
  param {
    lr_mult: 1
  }
  param {
    lr_mult: 2
  }
  convolution_param {
    num_output: 8
    pad: 2
    kernel_size: 3
    stride: 1
    weight_filler {
      type: "gaussian"
      std: 0.01
    }
    bias_filler {
      type: "constant"
    }
  }
}
layer {
  name: "Sigmoid0"
  type: "Sigmoid"
  bottom: "conv0"
  top: "Sigmoid0"
}
layer {
  name: "pool0"
  type: "Pooling"
  bottom: "Sigmoid0"
  top: "pool0"
  pooling_param {
    pool: AVE
    kernel_size: 3
    stride: 2
  }
}
layer {
  name: "ip1"
  type: "InnerProduct"
  bottom: "pool0"
  top: "ip1"
  param {
    lr_mult: 1
  }
  param {
    lr_mult: 2
  }
  inner_product_param {
    num_output: 10
    weight_filler {
      type: "gaussian"
      std: 0.01
    }
    bias_filler {
      type: "constant"
    }
  }
}
layer {
  name: "relu1"
  type: "ReLU"
  bottom: "ip1"
  top: "ip1"
}
layer {
  name: "ip2"
  type: "InnerProduct"
  bottom: "ip1"
  top: "ip2"
  param {
    lr_mult: 1
  }
  param {
    lr_mult: 2
  }
  inner_product_param {
    num_output: 10
    weight_filler {
      type: "gaussian"
      std: 0.01
    }
    bias_filler {
      type: "constant"
    }
  }
}
layer {
  name: "loss"
  type: "SoftmaxWithLoss"
  bottom: "ip2"
  bottom: "label"
  top: "loss"
}
I0430 21:14:29.621315 30390 layer_factory.hpp:77] Creating layer cifar
I0430 21:14:29.621409 30390 db_lmdb.cpp:35] Opened lmdb examples/cifar10/cifar10_train_lmdb
I0430 21:14:29.621430 30390 net.cpp:86] Creating Layer cifar
I0430 21:14:29.621438 30390 net.cpp:382] cifar -> data
I0430 21:14:29.621455 30390 net.cpp:382] cifar -> label
I0430 21:14:29.621464 30390 data_transformer.cpp:25] Loading mean file from: examples/cifar10/mean.binaryproto
I0430 21:14:29.623183 30390 data_layer.cpp:45] output data size: 111,3,32,32
I0430 21:14:29.629539 30390 net.cpp:124] Setting up cifar
I0430 21:14:29.629552 30390 net.cpp:131] Top shape: 111 3 32 32 (340992)
I0430 21:14:29.629557 30390 net.cpp:131] Top shape: 111 (111)
I0430 21:14:29.629559 30390 net.cpp:139] Memory required for data: 1364412
I0430 21:14:29.629565 30390 layer_factory.hpp:77] Creating layer conv0
I0430 21:14:29.629580 30390 net.cpp:86] Creating Layer conv0
I0430 21:14:29.629583 30390 net.cpp:408] conv0 <- data
I0430 21:14:29.629593 30390 net.cpp:382] conv0 -> conv0
I0430 21:14:29.864622 30390 net.cpp:124] Setting up conv0
I0430 21:14:29.864663 30390 net.cpp:131] Top shape: 111 8 34 34 (1026528)
I0430 21:14:29.864667 30390 net.cpp:139] Memory required for data: 5470524
I0430 21:14:29.864681 30390 layer_factory.hpp:77] Creating layer Sigmoid0
I0430 21:14:29.864692 30390 net.cpp:86] Creating Layer Sigmoid0
I0430 21:14:29.864696 30390 net.cpp:408] Sigmoid0 <- conv0
I0430 21:14:29.864717 30390 net.cpp:382] Sigmoid0 -> Sigmoid0
I0430 21:14:29.864959 30390 net.cpp:124] Setting up Sigmoid0
I0430 21:14:29.864969 30390 net.cpp:131] Top shape: 111 8 34 34 (1026528)
I0430 21:14:29.864974 30390 net.cpp:139] Memory required for data: 9576636
I0430 21:14:29.864976 30390 layer_factory.hpp:77] Creating layer pool0
I0430 21:14:29.864984 30390 net.cpp:86] Creating Layer pool0
I0430 21:14:29.864987 30390 net.cpp:408] pool0 <- Sigmoid0
I0430 21:14:29.864991 30390 net.cpp:382] pool0 -> pool0
I0430 21:14:29.865748 30390 net.cpp:124] Setting up pool0
I0430 21:14:29.865777 30390 net.cpp:131] Top shape: 111 8 17 17 (256632)
I0430 21:14:29.865779 30390 net.cpp:139] Memory required for data: 10603164
I0430 21:14:29.865783 30390 layer_factory.hpp:77] Creating layer ip1
I0430 21:14:29.865792 30390 net.cpp:86] Creating Layer ip1
I0430 21:14:29.865795 30390 net.cpp:408] ip1 <- pool0
I0430 21:14:29.865799 30390 net.cpp:382] ip1 -> ip1
I0430 21:14:29.867406 30390 net.cpp:124] Setting up ip1
I0430 21:14:29.867418 30390 net.cpp:131] Top shape: 111 10 (1110)
I0430 21:14:29.867436 30390 net.cpp:139] Memory required for data: 10607604
I0430 21:14:29.867444 30390 layer_factory.hpp:77] Creating layer relu1
I0430 21:14:29.867451 30390 net.cpp:86] Creating Layer relu1
I0430 21:14:29.867455 30390 net.cpp:408] relu1 <- ip1
I0430 21:14:29.867458 30390 net.cpp:369] relu1 -> ip1 (in-place)
I0430 21:14:29.867624 30390 net.cpp:124] Setting up relu1
I0430 21:14:29.867633 30390 net.cpp:131] Top shape: 111 10 (1110)
I0430 21:14:29.867637 30390 net.cpp:139] Memory required for data: 10612044
I0430 21:14:29.867640 30390 layer_factory.hpp:77] Creating layer ip2
I0430 21:14:29.867646 30390 net.cpp:86] Creating Layer ip2
I0430 21:14:29.867650 30390 net.cpp:408] ip2 <- ip1
I0430 21:14:29.867655 30390 net.cpp:382] ip2 -> ip2
I0430 21:14:29.867758 30390 net.cpp:124] Setting up ip2
I0430 21:14:29.867764 30390 net.cpp:131] Top shape: 111 10 (1110)
I0430 21:14:29.867768 30390 net.cpp:139] Memory required for data: 10616484
I0430 21:14:29.867774 30390 layer_factory.hpp:77] Creating layer loss
I0430 21:14:29.867785 30390 net.cpp:86] Creating Layer loss
I0430 21:14:29.867789 30390 net.cpp:408] loss <- ip2
I0430 21:14:29.867792 30390 net.cpp:408] loss <- label
I0430 21:14:29.867797 30390 net.cpp:382] loss -> loss
I0430 21:14:29.867815 30390 layer_factory.hpp:77] Creating layer loss
…
I0430 21:14:29.868407 30390 solver.cpp:173] Creating test net (#0) specified by net file: ECE595/cifar/train_test/var_everything/cifar_train_test_155.prototxt
I0430 21:14:29.868429 30390 net.cpp:296] The NetState phase (1) differed from the phase (0) specified by a rule in layer cifar
I0430 21:14:29.868499 30390 net.cpp:53] Initializing net from parameters: 
name: "CIFAR"
state {
  phase: TEST
}
layer {
  name: "cifar"
  type: "Data"
  top: "data"
  top: "label"
  include {
    phase: TEST
  }
  transform_param {
    mean_file: "examples/cifar10/mean.binaryproto"
  }
  data_param {
    source: "examples/cifar10/cifar10_test_lmdb"
    batch_size: 1000
    backend: LMDB
  }
}
layer {
  name: "conv0"
  type: "Convolution"
  bottom: "data"
  top: "conv0"
  param {
    lr_mult: 1
  }
  param {
    lr_mult: 2
  }
  convolution_param {
    num_output: 8
    pad: 2
    kernel_size: 3
    stride: 1
    weight_filler {
      type: "gaussian"
      std: 0.01
    }
    bias_filler {
      type: "constant"
    }
  }
}
layer {
  name: "Sigmoid0"
  type: "Sigmoid"
  bottom: "conv0"
  top: "Sigmoid0"
}
layer {
  name: "pool0"
  type: "Pooling"
  bottom: "Sigmoid0"
  top: "pool0"
  pooling_param {
    pool: AVE
    kernel_size: 3
    stride: 2
  }
}
layer {
  name: "ip1"
  type: "InnerProduct"
  bottom: "pool0"
  top: "ip1"
  param {
    lr_mult: 1
  }
  param {
    lr_mult: 2
  }
  inner_product_param {
    num_output: 10
    weight_filler {
      type: "gaussian"
      std: 0.01
    }
    bias_filler {
      type: "constant"
    }
  }
}
layer {
  name: "relu1"
  type: "ReLU"
  bottom: "ip1"
  top: "ip1"
}
layer {
  name: "ip2"
  type: "InnerProduct"
  bottom: "ip1"
  top: "ip2"
  param {
    lr_mult: 1
  }
  param {
    lr_mult: 2
  }
  inner_product_param {
    num_output: 10
    weight_filler {
      type: "gaussian"
      std: 0.01
    }
    bias_filler {
      type: "constant"
    }
  }
}
layer {
  name: "accuracy"
  type: "Accuracy"
  bottom: "ip2"
  bottom: "label"
  top: "accuracy"
  include {
    phase: TEST
  }
}
layer {
  name: "loss"
  type: "SoftmaxWithLoss"
  bottom: "ip2"
  bottom: "label"
  top: "loss"
}
I0430 21:14:29.868567 30390 layer_factory.hpp:77] Creating layer cifar
I0430 21:14:29.868612 30390 db_lmdb.cpp:35] Opened lmdb examples/cifar10/cifar10_test_lmdb
I0430 21:14:29.868624 30390 net.cpp:86] Creating Layer cifar
I0430 21:14:29.868628 30390 net.cpp:382] cifar -> data
I0430 21:14:29.868635 30390 net.cpp:382] cifar -> label
I0430 21:14:29.868641 30390 data_transformer.cpp:25] Loading mean file from: examples/cifar10/mean.binaryproto
I0430 21:14:29.868774 30390 data_layer.cpp:45] output data size: 1000,3,32,32
I0430 21:14:29.890848 30390 net.cpp:124] Setting up cifar
I0430 21:14:29.890890 30390 net.cpp:131] Top shape: 1000 3 32 32 (3072000)
I0430 21:14:29.890897 30390 net.cpp:131] Top shape: 1000 (1000)
I0430 21:14:29.890899 30390 net.cpp:139] Memory required for data: 12292000
I0430 21:14:29.890905 30390 layer_factory.hpp:77] Creating layer label_cifar_1_split
I0430 21:14:29.890918 30390 net.cpp:86] Creating Layer label_cifar_1_split
I0430 21:14:29.890921 30390 net.cpp:408] label_cifar_1_split <- label
I0430 21:14:29.890928 30390 net.cpp:382] label_cifar_1_split -> label_cifar_1_split_0
I0430 21:14:29.890935 30390 net.cpp:382] label_cifar_1_split -> label_cifar_1_split_1
I0430 21:14:29.891062 30390 net.cpp:124] Setting up label_cifar_1_split
I0430 21:14:29.891069 30390 net.cpp:131] Top shape: 1000 (1000)
I0430 21:14:29.891073 30390 net.cpp:131] Top shape: 1000 (1000)
I0430 21:14:29.891077 30390 net.cpp:139] Memory required for data: 12300000
I0430 21:14:29.891079 30390 layer_factory.hpp:77] Creating layer conv0
I0430 21:14:29.891093 30390 net.cpp:86] Creating Layer conv0
I0430 21:14:29.891098 30390 net.cpp:408] conv0 <- data
I0430 21:14:29.891103 30390 net.cpp:382] conv0 -> conv0
I0430 21:14:29.892740 30390 net.cpp:124] Setting up conv0
I0430 21:14:29.892768 30390 net.cpp:131] Top shape: 1000 8 34 34 (9248000)
I0430 21:14:29.892772 30390 net.cpp:139] Memory required for data: 49292000
I0430 21:14:29.892782 30390 layer_factory.hpp:77] Creating layer Sigmoid0
I0430 21:14:29.892789 30390 net.cpp:86] Creating Layer Sigmoid0
I0430 21:14:29.892792 30390 net.cpp:408] Sigmoid0 <- conv0
I0430 21:14:29.892797 30390 net.cpp:382] Sigmoid0 -> Sigmoid0
I0430 21:14:29.893020 30390 net.cpp:124] Setting up Sigmoid0
I0430 21:14:29.893030 30390 net.cpp:131] Top shape: 1000 8 34 34 (9248000)
I0430 21:14:29.893034 30390 net.cpp:139] Memory required for data: 86284000
I0430 21:14:29.893038 30390 layer_factory.hpp:77] Creating layer pool0
I0430 21:14:29.893045 30390 net.cpp:86] Creating Layer pool0
I0430 21:14:29.893049 30390 net.cpp:408] pool0 <- Sigmoid0
I0430 21:14:29.893054 30390 net.cpp:382] pool0 -> pool0
I0430 21:14:29.893893 30390 net.cpp:124] Setting up pool0
I0430 21:14:29.893916 30390 net.cpp:131] Top shape: 1000 8 17 17 (2312000)
I0430 21:14:29.893935 30390 net.cpp:139] Memory required for data: 95532000
I0430 21:14:29.893939 30390 layer_factory.hpp:77] Creating layer ip1
I0430 21:14:29.893946 30390 net.cpp:86] Creating Layer ip1
I0430 21:14:29.893949 30390 net.cpp:408] ip1 <- pool0
I0430 21:14:29.893955 30390 net.cpp:382] ip1 -> ip1
I0430 21:14:29.895650 30390 net.cpp:124] Setting up ip1
I0430 21:14:29.895681 30390 net.cpp:131] Top shape: 1000 10 (10000)
I0430 21:14:29.895685 30390 net.cpp:139] Memory required for data: 95572000
I0430 21:14:29.895694 30390 layer_factory.hpp:77] Creating layer relu1
I0430 21:14:29.895701 30390 net.cpp:86] Creating Layer relu1
I0430 21:14:29.895704 30390 net.cpp:408] relu1 <- ip1
I0430 21:14:29.895709 30390 net.cpp:369] relu1 -> ip1 (in-place)
I0430 21:14:29.895910 30390 net.cpp:124] Setting up relu1
I0430 21:14:29.895920 30390 net.cpp:131] Top shape: 1000 10 (10000)
I0430 21:14:29.895922 30390 net.cpp:139] Memory required for data: 95612000
I0430 21:14:29.895925 30390 layer_factory.hpp:77] Creating layer ip2
I0430 21:14:29.895932 30390 net.cpp:86] Creating Layer ip2
I0430 21:14:29.895936 30390 net.cpp:408] ip2 <- ip1
I0430 21:14:29.895941 30390 net.cpp:382] ip2 -> ip2
I0430 21:14:29.896042 30390 net.cpp:124] Setting up ip2
I0430 21:14:29.896050 30390 net.cpp:131] Top shape: 1000 10 (10000)
I0430 21:14:29.896054 30390 net.cpp:139] Memory required for data: 95652000
I0430 21:14:29.896060 30390 layer_factory.hpp:77] Creating layer ip2_ip2_0_split
I0430 21:14:29.896067 30390 net.cpp:86] Creating Layer ip2_ip2_0_split
I0430 21:14:29.896070 30390 net.cpp:408] ip2_ip2_0_split <- ip2
I0430 21:14:29.896075 30390 net.cpp:382] ip2_ip2_0_split -> ip2_ip2_0_split_0
I0430 21:14:29.896081 30390 net.cpp:382] ip2_ip2_0_split -> ip2_ip2_0_split_1
I0430 21:14:29.896111 30390 net.cpp:124] Setting up ip2_ip2_0_split
I0430 21:14:29.896118 30390 net.cpp:131] Top shape: 1000 10 (10000)
I0430 21:14:29.896122 30390 net.cpp:131] Top shape: 1000 10 (10000)
I0430 21:14:29.896126 30390 net.cpp:139] Memory required for data: 95732000
I0430 21:14:29.896127 30390 layer_factory.hpp:77] Creating layer accuracy
I0430 21:14:29.896133 30390 net.cpp:86] Creating Layer accuracy
I0430 21:14:29.896136 30390 net.cpp:408] accuracy <- ip2_ip2_0_split_0
I0430 21:14:29.896140 30390 net.cpp:408] accuracy <- label_cifar_1_split_0
I0430 21:14:29.896145 30390 net.cpp:382] accuracy -> accuracy
…
