…
I0430 20:48:14.095183 29459 net.cpp:296] The NetState phase (0) differed from the phase (1) specified by a rule in layer cifar
I0430 20:48:14.095199 29459 net.cpp:296] The NetState phase (0) differed from the phase (1) specified by a rule in layer accuracy
I0430 20:48:14.095280 29459 net.cpp:53] Initializing net from parameters: 
name: "CIFAR"
state {
  phase: TRAIN
  level: 0
  stage: ""
}
layer {
  name: "cifar"
  type: "Data"
  top: "data"
  top: "label"
  include {
    phase: TRAIN
  }
  transform_param {
    mean_file: "examples/cifar10/mean.binaryproto"
  }
  data_param {
    source: "examples/cifar10/cifar10_train_lmdb"
    batch_size: 111
    backend: LMDB
  }
}
layer {
  name: "ip1"
  type: "InnerProduct"
  bottom: "data"
  top: "ip1"
  param {
    lr_mult: 1
  }
  param {
    lr_mult: 2
  }
  inner_product_param {
    num_output: 160
    weight_filler {
      type: "gaussian"
      std: 0.01
    }
    bias_filler {
      type: "constant"
    }
  }
}
layer {
  name: "relu1"
  type: "ReLU"
  bottom: "ip1"
  top: "ip1"
}
layer {
  name: "ip2"
  type: "InnerProduct"
  bottom: "ip1"
  top: "ip2"
  param {
    lr_mult: 1
  }
  param {
    lr_mult: 2
  }
  inner_product_param {
    num_output: 40
    weight_filler {
      type: "gaussian"
      std: 0.01
    }
    bias_filler {
      type: "constant"
    }
  }
}
layer {
  name: "relu2"
  type: "ReLU"
  bottom: "ip2"
  top: "ip2"
}
layer {
  name: "ip3"
  type: "InnerProduct"
  bottom: "ip2"
  top: "ip3"
  param {
    lr_mult: 1
  }
  param {
    lr_mult: 2
  }
  inner_product_param {
    num_output: 20
    weight_filler {
      type: "gaussian"
      std: 0.01
    }
    bias_filler {
      type: "constant"
    }
  }
}
layer {
  name: "relu3"
  type: "ReLU"
  bottom: "ip3"
  top: "ip3"
}
layer {
  name: "ip4"
  type: "InnerProduct"
  bottom: "ip3"
  top: "ip4"
  param {
    lr_mult: 1
  }
  param {
    lr_mult: 2
  }
  inner_product_param {
    num_output: 10
    weight_filler {
      type: "gaussian"
      std: 0.01
    }
    bias_filler {
      type: "constant"
    }
  }
}
layer {
  name: "loss"
  type: "SoftmaxWithLoss"
  bottom: "ip4"
  bottom: "label"
  top: "loss"
}
I0430 20:48:14.095345 29459 layer_factory.hpp:77] Creating layer cifar
I0430 20:48:14.095444 29459 db_lmdb.cpp:35] Opened lmdb examples/cifar10/cifar10_train_lmdb
I0430 20:48:14.095470 29459 net.cpp:86] Creating Layer cifar
I0430 20:48:14.095477 29459 net.cpp:382] cifar -> data
I0430 20:48:14.095499 29459 net.cpp:382] cifar -> label
I0430 20:48:14.095511 29459 data_transformer.cpp:25] Loading mean file from: examples/cifar10/mean.binaryproto
I0430 20:48:14.097630 29459 data_layer.cpp:45] output data size: 111,3,32,32
I0430 20:48:14.105492 29459 net.cpp:124] Setting up cifar
I0430 20:48:14.105512 29459 net.cpp:131] Top shape: 111 3 32 32 (340992)
I0430 20:48:14.105518 29459 net.cpp:131] Top shape: 111 (111)
I0430 20:48:14.105522 29459 net.cpp:139] Memory required for data: 1364412
I0430 20:48:14.105530 29459 layer_factory.hpp:77] Creating layer ip1
I0430 20:48:14.105540 29459 net.cpp:86] Creating Layer ip1
I0430 20:48:14.105546 29459 net.cpp:408] ip1 <- data
I0430 20:48:14.105557 29459 net.cpp:382] ip1 -> ip1
I0430 20:48:14.122850 29459 net.cpp:124] Setting up ip1
I0430 20:48:14.122866 29459 net.cpp:131] Top shape: 111 160 (17760)
I0430 20:48:14.122871 29459 net.cpp:139] Memory required for data: 1435452
I0430 20:48:14.122885 29459 layer_factory.hpp:77] Creating layer relu1
I0430 20:48:14.122911 29459 net.cpp:86] Creating Layer relu1
I0430 20:48:14.122916 29459 net.cpp:408] relu1 <- ip1
I0430 20:48:14.122921 29459 net.cpp:369] relu1 -> ip1 (in-place)
I0430 20:48:14.391801 29459 net.cpp:124] Setting up relu1
I0430 20:48:14.391829 29459 net.cpp:131] Top shape: 111 160 (17760)
I0430 20:48:14.391832 29459 net.cpp:139] Memory required for data: 1506492
I0430 20:48:14.391837 29459 layer_factory.hpp:77] Creating layer ip2
I0430 20:48:14.391849 29459 net.cpp:86] Creating Layer ip2
I0430 20:48:14.391855 29459 net.cpp:408] ip2 <- ip1
I0430 20:48:14.391862 29459 net.cpp:382] ip2 -> ip2
I0430 20:48:14.393064 29459 net.cpp:124] Setting up ip2
I0430 20:48:14.393092 29459 net.cpp:131] Top shape: 111 40 (4440)
I0430 20:48:14.393095 29459 net.cpp:139] Memory required for data: 1524252
I0430 20:48:14.393105 29459 layer_factory.hpp:77] Creating layer relu2
I0430 20:48:14.393113 29459 net.cpp:86] Creating Layer relu2
I0430 20:48:14.393116 29459 net.cpp:408] relu2 <- ip2
I0430 20:48:14.393121 29459 net.cpp:369] relu2 -> ip2 (in-place)
I0430 20:48:14.393836 29459 net.cpp:124] Setting up relu2
I0430 20:48:14.393846 29459 net.cpp:131] Top shape: 111 40 (4440)
I0430 20:48:14.393865 29459 net.cpp:139] Memory required for data: 1542012
I0430 20:48:14.393868 29459 layer_factory.hpp:77] Creating layer ip3
I0430 20:48:14.393875 29459 net.cpp:86] Creating Layer ip3
I0430 20:48:14.393878 29459 net.cpp:408] ip3 <- ip2
I0430 20:48:14.393883 29459 net.cpp:382] ip3 -> ip3
I0430 20:48:14.394771 29459 net.cpp:124] Setting up ip3
I0430 20:48:14.394783 29459 net.cpp:131] Top shape: 111 20 (2220)
I0430 20:48:14.394786 29459 net.cpp:139] Memory required for data: 1550892
I0430 20:48:14.394793 29459 layer_factory.hpp:77] Creating layer relu3
I0430 20:48:14.394798 29459 net.cpp:86] Creating Layer relu3
I0430 20:48:14.394801 29459 net.cpp:408] relu3 <- ip3
I0430 20:48:14.394805 29459 net.cpp:369] relu3 -> ip3 (in-place)
I0430 20:48:14.394968 29459 net.cpp:124] Setting up relu3
I0430 20:48:14.394975 29459 net.cpp:131] Top shape: 111 20 (2220)
I0430 20:48:14.394979 29459 net.cpp:139] Memory required for data: 1559772
I0430 20:48:14.394981 29459 layer_factory.hpp:77] Creating layer ip4
I0430 20:48:14.394987 29459 net.cpp:86] Creating Layer ip4
I0430 20:48:14.394990 29459 net.cpp:408] ip4 <- ip3
I0430 20:48:14.394994 29459 net.cpp:382] ip4 -> ip4
I0430 20:48:14.395087 29459 net.cpp:124] Setting up ip4
I0430 20:48:14.395093 29459 net.cpp:131] Top shape: 111 10 (1110)
I0430 20:48:14.395097 29459 net.cpp:139] Memory required for data: 1564212
I0430 20:48:14.395102 29459 layer_factory.hpp:77] Creating layer loss
I0430 20:48:14.395107 29459 net.cpp:86] Creating Layer loss
I0430 20:48:14.395110 29459 net.cpp:408] loss <- ip4
I0430 20:48:14.395113 29459 net.cpp:408] loss <- label
I0430 20:48:14.395118 29459 net.cpp:382] loss -> loss
I0430 20:48:14.395133 29459 layer_factory.hpp:77] Creating layer loss
…
I0430 20:48:14.395722 29459 solver.cpp:173] Creating test net (#0) specified by net file: ECE595/cifar/train_test/var_everything/cifar_train_test_141.prototxt
I0430 20:48:14.395759 29459 net.cpp:296] The NetState phase (1) differed from the phase (0) specified by a rule in layer cifar
I0430 20:48:14.395845 29459 net.cpp:53] Initializing net from parameters: 
name: "CIFAR"
state {
  phase: TEST
}
layer {
  name: "cifar"
  type: "Data"
  top: "data"
  top: "label"
  include {
    phase: TEST
  }
  transform_param {
    mean_file: "examples/cifar10/mean.binaryproto"
  }
  data_param {
    source: "examples/cifar10/cifar10_test_lmdb"
    batch_size: 1000
    backend: LMDB
  }
}
layer {
  name: "ip1"
  type: "InnerProduct"
  bottom: "data"
  top: "ip1"
  param {
    lr_mult: 1
  }
  param {
    lr_mult: 2
  }
  inner_product_param {
    num_output: 160
    weight_filler {
      type: "gaussian"
      std: 0.01
    }
    bias_filler {
      type: "constant"
    }
  }
}
layer {
  name: "relu1"
  type: "ReLU"
  bottom: "ip1"
  top: "ip1"
}
layer {
  name: "ip2"
  type: "InnerProduct"
  bottom: "ip1"
  top: "ip2"
  param {
    lr_mult: 1
  }
  param {
    lr_mult: 2
  }
  inner_product_param {
    num_output: 40
    weight_filler {
      type: "gaussian"
      std: 0.01
    }
    bias_filler {
      type: "constant"
    }
  }
}
layer {
  name: "relu2"
  type: "ReLU"
  bottom: "ip2"
  top: "ip2"
}
layer {
  name: "ip3"
  type: "InnerProduct"
  bottom: "ip2"
  top: "ip3"
  param {
    lr_mult: 1
  }
  param {
    lr_mult: 2
  }
  inner_product_param {
    num_output: 20
    weight_filler {
      type: "gaussian"
      std: 0.01
    }
    bias_filler {
      type: "constant"
    }
  }
}
layer {
  name: "relu3"
  type: "ReLU"
  bottom: "ip3"
  top: "ip3"
}
layer {
  name: "ip4"
  type: "InnerProduct"
  bottom: "ip3"
  top: "ip4"
  param {
    lr_mult: 1
  }
  param {
    lr_mult: 2
  }
  inner_product_param {
    num_output: 10
    weight_filler {
      type: "gaussian"
      std: 0.01
    }
    bias_filler {
      type: "constant"
    }
  }
}
layer {
  name: "accuracy"
  type: "Accuracy"
  bottom: "ip4"
  bottom: "label"
  top: "accuracy"
  include {
    phase: TEST
  }
}
layer {
  name: "loss"
  type: "SoftmaxWithLoss"
  bottom: "ip4"
  bottom: "label"
  top: "loss"
}
I0430 20:48:14.395901 29459 layer_factory.hpp:77] Creating layer cifar
I0430 20:48:14.395946 29459 db_lmdb.cpp:35] Opened lmdb examples/cifar10/cifar10_test_lmdb
I0430 20:48:14.395957 29459 net.cpp:86] Creating Layer cifar
I0430 20:48:14.395961 29459 net.cpp:382] cifar -> data
I0430 20:48:14.395968 29459 net.cpp:382] cifar -> label
I0430 20:48:14.395974 29459 data_transformer.cpp:25] Loading mean file from: examples/cifar10/mean.binaryproto
I0430 20:48:14.396117 29459 data_layer.cpp:45] output data size: 1000,3,32,32
I0430 20:48:14.417946 29459 net.cpp:124] Setting up cifar
I0430 20:48:14.417973 29459 net.cpp:131] Top shape: 1000 3 32 32 (3072000)
I0430 20:48:14.417979 29459 net.cpp:131] Top shape: 1000 (1000)
I0430 20:48:14.417982 29459 net.cpp:139] Memory required for data: 12292000
I0430 20:48:14.417989 29459 layer_factory.hpp:77] Creating layer label_cifar_1_split
I0430 20:48:14.418020 29459 net.cpp:86] Creating Layer label_cifar_1_split
I0430 20:48:14.418025 29459 net.cpp:408] label_cifar_1_split <- label
I0430 20:48:14.418045 29459 net.cpp:382] label_cifar_1_split -> label_cifar_1_split_0
I0430 20:48:14.418056 29459 net.cpp:382] label_cifar_1_split -> label_cifar_1_split_1
I0430 20:48:14.418125 29459 net.cpp:124] Setting up label_cifar_1_split
I0430 20:48:14.418133 29459 net.cpp:131] Top shape: 1000 (1000)
I0430 20:48:14.418136 29459 net.cpp:131] Top shape: 1000 (1000)
I0430 20:48:14.418139 29459 net.cpp:139] Memory required for data: 12300000
I0430 20:48:14.418143 29459 layer_factory.hpp:77] Creating layer ip1
I0430 20:48:14.418151 29459 net.cpp:86] Creating Layer ip1
I0430 20:48:14.418154 29459 net.cpp:408] ip1 <- data
I0430 20:48:14.418159 29459 net.cpp:382] ip1 -> ip1
I0430 20:48:14.431648 29459 net.cpp:124] Setting up ip1
I0430 20:48:14.431679 29459 net.cpp:131] Top shape: 1000 160 (160000)
I0430 20:48:14.431682 29459 net.cpp:139] Memory required for data: 12940000
I0430 20:48:14.431710 29459 layer_factory.hpp:77] Creating layer relu1
I0430 20:48:14.431732 29459 net.cpp:86] Creating Layer relu1
I0430 20:48:14.431736 29459 net.cpp:408] relu1 <- ip1
I0430 20:48:14.431741 29459 net.cpp:369] relu1 -> ip1 (in-place)
I0430 20:48:14.432518 29459 net.cpp:124] Setting up relu1
I0430 20:48:14.432529 29459 net.cpp:131] Top shape: 1000 160 (160000)
I0430 20:48:14.432548 29459 net.cpp:139] Memory required for data: 13580000
I0430 20:48:14.432551 29459 layer_factory.hpp:77] Creating layer ip2
I0430 20:48:14.432560 29459 net.cpp:86] Creating Layer ip2
I0430 20:48:14.432564 29459 net.cpp:408] ip2 <- ip1
I0430 20:48:14.432569 29459 net.cpp:382] ip2 -> ip2
I0430 20:48:14.432951 29459 net.cpp:124] Setting up ip2
I0430 20:48:14.432961 29459 net.cpp:131] Top shape: 1000 40 (40000)
I0430 20:48:14.432965 29459 net.cpp:139] Memory required for data: 13740000
I0430 20:48:14.432972 29459 layer_factory.hpp:77] Creating layer relu2
I0430 20:48:14.432977 29459 net.cpp:86] Creating Layer relu2
I0430 20:48:14.432981 29459 net.cpp:408] relu2 <- ip2
I0430 20:48:14.432986 29459 net.cpp:369] relu2 -> ip2 (in-place)
I0430 20:48:14.433188 29459 net.cpp:124] Setting up relu2
I0430 20:48:14.433197 29459 net.cpp:131] Top shape: 1000 40 (40000)
I0430 20:48:14.433199 29459 net.cpp:139] Memory required for data: 13900000
I0430 20:48:14.433203 29459 layer_factory.hpp:77] Creating layer ip3
I0430 20:48:14.433209 29459 net.cpp:86] Creating Layer ip3
I0430 20:48:14.433212 29459 net.cpp:408] ip3 <- ip2
I0430 20:48:14.433218 29459 net.cpp:382] ip3 -> ip3
I0430 20:48:14.433334 29459 net.cpp:124] Setting up ip3
I0430 20:48:14.433341 29459 net.cpp:131] Top shape: 1000 20 (20000)
I0430 20:48:14.433344 29459 net.cpp:139] Memory required for data: 13980000
I0430 20:48:14.433351 29459 layer_factory.hpp:77] Creating layer relu3
I0430 20:48:14.433356 29459 net.cpp:86] Creating Layer relu3
I0430 20:48:14.433358 29459 net.cpp:408] relu3 <- ip3
I0430 20:48:14.433362 29459 net.cpp:369] relu3 -> ip3 (in-place)
I0430 20:48:14.433506 29459 net.cpp:124] Setting up relu3
I0430 20:48:14.433513 29459 net.cpp:131] Top shape: 1000 20 (20000)
I0430 20:48:14.433517 29459 net.cpp:139] Memory required for data: 14060000
I0430 20:48:14.433521 29459 layer_factory.hpp:77] Creating layer ip4
I0430 20:48:14.433527 29459 net.cpp:86] Creating Layer ip4
I0430 20:48:14.433531 29459 net.cpp:408] ip4 <- ip3
I0430 20:48:14.433535 29459 net.cpp:382] ip4 -> ip4
I0430 20:48:14.433645 29459 net.cpp:124] Setting up ip4
I0430 20:48:14.433651 29459 net.cpp:131] Top shape: 1000 10 (10000)
I0430 20:48:14.433655 29459 net.cpp:139] Memory required for data: 14100000
I0430 20:48:14.433660 29459 layer_factory.hpp:77] Creating layer ip4_ip4_0_split
I0430 20:48:14.433665 29459 net.cpp:86] Creating Layer ip4_ip4_0_split
I0430 20:48:14.433668 29459 net.cpp:408] ip4_ip4_0_split <- ip4
I0430 20:48:14.433672 29459 net.cpp:382] ip4_ip4_0_split -> ip4_ip4_0_split_0
I0430 20:48:14.433681 29459 net.cpp:382] ip4_ip4_0_split -> ip4_ip4_0_split_1
I0430 20:48:14.433710 29459 net.cpp:124] Setting up ip4_ip4_0_split
I0430 20:48:14.433732 29459 net.cpp:131] Top shape: 1000 10 (10000)
I0430 20:48:14.433737 29459 net.cpp:131] Top shape: 1000 10 (10000)
I0430 20:48:14.433738 29459 net.cpp:139] Memory required for data: 14180000
I0430 20:48:14.433742 29459 layer_factory.hpp:77] Creating layer accuracy
I0430 20:48:14.433748 29459 net.cpp:86] Creating Layer accuracy
I0430 20:48:14.433750 29459 net.cpp:408] accuracy <- ip4_ip4_0_split_0
I0430 20:48:14.433754 29459 net.cpp:408] accuracy <- label_cifar_1_split_0
I0430 20:48:14.433759 29459 net.cpp:382] accuracy -> accuracy
…
