…
I0501 01:38:55.841341 11508 net.cpp:296] The NetState phase (0) differed from the phase (1) specified by a rule in layer cifar
I0501 01:38:55.841372 11508 net.cpp:296] The NetState phase (0) differed from the phase (1) specified by a rule in layer accuracy
I0501 01:38:55.841459 11508 net.cpp:53] Initializing net from parameters: 
name: "CIFAR"
state {
  phase: TRAIN
  level: 0
  stage: ""
}
layer {
  name: "cifar"
  type: "Data"
  top: "data"
  top: "label"
  include {
    phase: TRAIN
  }
  transform_param {
    mean_file: "examples/cifar10/mean.binaryproto"
  }
  data_param {
    source: "examples/cifar10/cifar10_train_lmdb"
    batch_size: 111
    backend: LMDB
  }
}
layer {
  name: "conv0"
  type: "Convolution"
  bottom: "data"
  top: "conv0"
  param {
    lr_mult: 1
  }
  param {
    lr_mult: 2
  }
  convolution_param {
    num_output: 8
    pad: 2
    kernel_size: 3
    stride: 1
    weight_filler {
      type: "gaussian"
      std: 0.01
    }
    bias_filler {
      type: "constant"
    }
  }
}
layer {
  name: "Sigmoid0"
  type: "Sigmoid"
  bottom: "conv0"
  top: "Sigmoid0"
}
layer {
  name: "pool0"
  type: "Pooling"
  bottom: "Sigmoid0"
  top: "pool0"
  pooling_param {
    pool: AVE
    kernel_size: 3
    stride: 2
  }
}
layer {
  name: "ip1"
  type: "InnerProduct"
  bottom: "pool0"
  top: "ip1"
  param {
    lr_mult: 1
  }
  param {
    lr_mult: 2
  }
  inner_product_param {
    num_output: 160
    weight_filler {
      type: "gaussian"
      std: 0.01
    }
    bias_filler {
      type: "constant"
    }
  }
}
layer {
  name: "relu1"
  type: "ReLU"
  bottom: "ip1"
  top: "ip1"
}
layer {
  name: "ip2"
  type: "InnerProduct"
  bottom: "ip1"
  top: "ip2"
  param {
    lr_mult: 1
  }
  param {
    lr_mult: 2
  }
  inner_product_param {
    num_output: 40
    weight_filler {
      type: "gaussian"
      std: 0.01
    }
    bias_filler {
      type: "constant"
    }
  }
}
layer {
  name: "relu2"
  type: "ReLU"
  bottom: "ip2"
  top: "ip2"
}
layer {
  name: "ip3"
  type: "InnerProduct"
  bottom: "ip2"
  top: "ip3"
  param {
    lr_mult: 1
  }
  param {
    lr_mult: 2
  }
  inner_product_param {
    num_output: 20
    weight_filler {
      type: "gaussian"
      std: 0.01
    }
    bias_filler {
      type: "constant"
    }
  }
}
layer {
  name: "relu3"
  type: "ReLU"
  bottom: "ip3"
  top: "ip3"
}
layer {
  name: "ip4"
  type: "InnerProduct"
  bottom: "ip3"
  top: "ip4"
  param {
    lr_mult: 1
  }
  param {
    lr_mult: 2
  }
  inner_product_param {
    num_output: 10
    weight_filler {
      type: "gaussian"
      std: 0.01
    }
    bias_filler {
      type: "constant"
    }
  }
}
layer {
  name: "loss"
  type: "SoftmaxWithLoss"
  bottom: "ip4"
  bottom: "label"
  top: "loss"
}
I0501 01:38:55.841524 11508 layer_factory.hpp:77] Creating layer cifar
I0501 01:38:55.841606 11508 db_lmdb.cpp:35] Opened lmdb examples/cifar10/cifar10_train_lmdb
I0501 01:38:55.841630 11508 net.cpp:86] Creating Layer cifar
I0501 01:38:55.841639 11508 net.cpp:382] cifar -> data
I0501 01:38:55.841658 11508 net.cpp:382] cifar -> label
I0501 01:38:55.841670 11508 data_transformer.cpp:25] Loading mean file from: examples/cifar10/mean.binaryproto
I0501 01:38:55.843427 11508 data_layer.cpp:45] output data size: 111,3,32,32
I0501 01:38:55.849898 11508 net.cpp:124] Setting up cifar
I0501 01:38:55.849928 11508 net.cpp:131] Top shape: 111 3 32 32 (340992)
I0501 01:38:55.849933 11508 net.cpp:131] Top shape: 111 (111)
I0501 01:38:55.849936 11508 net.cpp:139] Memory required for data: 1364412
I0501 01:38:55.849969 11508 layer_factory.hpp:77] Creating layer conv0
I0501 01:38:55.849985 11508 net.cpp:86] Creating Layer conv0
I0501 01:38:55.850005 11508 net.cpp:408] conv0 <- data
I0501 01:38:55.850016 11508 net.cpp:382] conv0 -> conv0
I0501 01:38:56.077483 11508 net.cpp:124] Setting up conv0
I0501 01:38:56.077509 11508 net.cpp:131] Top shape: 111 8 34 34 (1026528)
I0501 01:38:56.077528 11508 net.cpp:139] Memory required for data: 5470524
I0501 01:38:56.077543 11508 layer_factory.hpp:77] Creating layer Sigmoid0
I0501 01:38:56.077554 11508 net.cpp:86] Creating Layer Sigmoid0
I0501 01:38:56.077559 11508 net.cpp:408] Sigmoid0 <- conv0
I0501 01:38:56.077564 11508 net.cpp:382] Sigmoid0 -> Sigmoid0
I0501 01:38:56.077747 11508 net.cpp:124] Setting up Sigmoid0
I0501 01:38:56.077757 11508 net.cpp:131] Top shape: 111 8 34 34 (1026528)
I0501 01:38:56.077760 11508 net.cpp:139] Memory required for data: 9576636
I0501 01:38:56.077764 11508 layer_factory.hpp:77] Creating layer pool0
I0501 01:38:56.077769 11508 net.cpp:86] Creating Layer pool0
I0501 01:38:56.077774 11508 net.cpp:408] pool0 <- Sigmoid0
I0501 01:38:56.077777 11508 net.cpp:382] pool0 -> pool0
I0501 01:38:56.078485 11508 net.cpp:124] Setting up pool0
I0501 01:38:56.078497 11508 net.cpp:131] Top shape: 111 8 17 17 (256632)
I0501 01:38:56.078500 11508 net.cpp:139] Memory required for data: 10603164
I0501 01:38:56.078503 11508 layer_factory.hpp:77] Creating layer ip1
I0501 01:38:56.078512 11508 net.cpp:86] Creating Layer ip1
I0501 01:38:56.078516 11508 net.cpp:408] ip1 <- pool0
I0501 01:38:56.078521 11508 net.cpp:382] ip1 -> ip1
I0501 01:38:56.088553 11508 net.cpp:124] Setting up ip1
I0501 01:38:56.088580 11508 net.cpp:131] Top shape: 111 160 (17760)
I0501 01:38:56.088584 11508 net.cpp:139] Memory required for data: 10674204
I0501 01:38:56.088593 11508 layer_factory.hpp:77] Creating layer relu1
I0501 01:38:56.088598 11508 net.cpp:86] Creating Layer relu1
I0501 01:38:56.088601 11508 net.cpp:408] relu1 <- ip1
I0501 01:38:56.088605 11508 net.cpp:369] relu1 -> ip1 (in-place)
I0501 01:38:56.088783 11508 net.cpp:124] Setting up relu1
I0501 01:38:56.088791 11508 net.cpp:131] Top shape: 111 160 (17760)
I0501 01:38:56.088794 11508 net.cpp:139] Memory required for data: 10745244
I0501 01:38:56.088798 11508 layer_factory.hpp:77] Creating layer ip2
I0501 01:38:56.088804 11508 net.cpp:86] Creating Layer ip2
I0501 01:38:56.088807 11508 net.cpp:408] ip2 <- ip1
I0501 01:38:56.088832 11508 net.cpp:382] ip2 -> ip2
I0501 01:38:56.089962 11508 net.cpp:124] Setting up ip2
I0501 01:38:56.089972 11508 net.cpp:131] Top shape: 111 40 (4440)
I0501 01:38:56.089977 11508 net.cpp:139] Memory required for data: 10763004
I0501 01:38:56.089983 11508 layer_factory.hpp:77] Creating layer relu2
I0501 01:38:56.089989 11508 net.cpp:86] Creating Layer relu2
I0501 01:38:56.089993 11508 net.cpp:408] relu2 <- ip2
I0501 01:38:56.089996 11508 net.cpp:369] relu2 -> ip2 (in-place)
I0501 01:38:56.090162 11508 net.cpp:124] Setting up relu2
I0501 01:38:56.090170 11508 net.cpp:131] Top shape: 111 40 (4440)
I0501 01:38:56.090174 11508 net.cpp:139] Memory required for data: 10780764
I0501 01:38:56.090178 11508 layer_factory.hpp:77] Creating layer ip3
I0501 01:38:56.090184 11508 net.cpp:86] Creating Layer ip3
I0501 01:38:56.090188 11508 net.cpp:408] ip3 <- ip2
I0501 01:38:56.090193 11508 net.cpp:382] ip3 -> ip3
I0501 01:38:56.091104 11508 net.cpp:124] Setting up ip3
I0501 01:38:56.091115 11508 net.cpp:131] Top shape: 111 20 (2220)
I0501 01:38:56.091120 11508 net.cpp:139] Memory required for data: 10789644
I0501 01:38:56.091125 11508 layer_factory.hpp:77] Creating layer relu3
I0501 01:38:56.091130 11508 net.cpp:86] Creating Layer relu3
I0501 01:38:56.091133 11508 net.cpp:408] relu3 <- ip3
I0501 01:38:56.091137 11508 net.cpp:369] relu3 -> ip3 (in-place)
I0501 01:38:56.091302 11508 net.cpp:124] Setting up relu3
I0501 01:38:56.091310 11508 net.cpp:131] Top shape: 111 20 (2220)
I0501 01:38:56.091315 11508 net.cpp:139] Memory required for data: 10798524
I0501 01:38:56.091317 11508 layer_factory.hpp:77] Creating layer ip4
I0501 01:38:56.091336 11508 net.cpp:86] Creating Layer ip4
I0501 01:38:56.091339 11508 net.cpp:408] ip4 <- ip3
I0501 01:38:56.091344 11508 net.cpp:382] ip4 -> ip4
I0501 01:38:56.091436 11508 net.cpp:124] Setting up ip4
I0501 01:38:56.091444 11508 net.cpp:131] Top shape: 111 10 (1110)
I0501 01:38:56.091447 11508 net.cpp:139] Memory required for data: 10802964
I0501 01:38:56.091454 11508 layer_factory.hpp:77] Creating layer loss
I0501 01:38:56.091459 11508 net.cpp:86] Creating Layer loss
I0501 01:38:56.091462 11508 net.cpp:408] loss <- ip4
I0501 01:38:56.091466 11508 net.cpp:408] loss <- label
I0501 01:38:56.091471 11508 net.cpp:382] loss -> loss
I0501 01:38:56.091502 11508 layer_factory.hpp:77] Creating layer loss
…
I0501 01:38:56.092716 11508 solver.cpp:173] Creating test net (#0) specified by net file: ECE595/cifar/train_test/var_everything/cifar_train_test_296.prototxt
I0501 01:38:56.092742 11508 net.cpp:296] The NetState phase (1) differed from the phase (0) specified by a rule in layer cifar
I0501 01:38:56.092869 11508 net.cpp:53] Initializing net from parameters: 
name: "CIFAR"
state {
  phase: TEST
}
layer {
  name: "cifar"
  type: "Data"
  top: "data"
  top: "label"
  include {
    phase: TEST
  }
  transform_param {
    mean_file: "examples/cifar10/mean.binaryproto"
  }
  data_param {
    source: "examples/cifar10/cifar10_test_lmdb"
    batch_size: 1000
    backend: LMDB
  }
}
layer {
  name: "conv0"
  type: "Convolution"
  bottom: "data"
  top: "conv0"
  param {
    lr_mult: 1
  }
  param {
    lr_mult: 2
  }
  convolution_param {
    num_output: 8
    pad: 2
    kernel_size: 3
    stride: 1
    weight_filler {
      type: "gaussian"
      std: 0.01
    }
    bias_filler {
      type: "constant"
    }
  }
}
layer {
  name: "Sigmoid0"
  type: "Sigmoid"
  bottom: "conv0"
  top: "Sigmoid0"
}
layer {
  name: "pool0"
  type: "Pooling"
  bottom: "Sigmoid0"
  top: "pool0"
  pooling_param {
    pool: AVE
    kernel_size: 3
    stride: 2
  }
}
layer {
  name: "ip1"
  type: "InnerProduct"
  bottom: "pool0"
  top: "ip1"
  param {
    lr_mult: 1
  }
  param {
    lr_mult: 2
  }
  inner_product_param {
    num_output: 160
    weight_filler {
      type: "gaussian"
      std: 0.01
    }
    bias_filler {
      type: "constant"
    }
  }
}
layer {
  name: "relu1"
  type: "ReLU"
  bottom: "ip1"
  top: "ip1"
}
layer {
  name: "ip2"
  type: "InnerProduct"
  bottom: "ip1"
  top: "ip2"
  param {
    lr_mult: 1
  }
  param {
    lr_mult: 2
  }
  inner_product_param {
    num_output: 40
    weight_filler {
      type: "gaussian"
      std: 0.01
    }
    bias_filler {
      type: "constant"
    }
  }
}
layer {
  name: "relu2"
  type: "ReLU"
  bottom: "ip2"
  top: "ip2"
}
layer {
  name: "ip3"
  type: "InnerProduct"
  bottom: "ip2"
  top: "ip3"
  param {
    lr_mult: 1
  }
  param {
    lr_mult: 2
  }
  inner_product_param {
    num_output: 20
    weight_filler {
      type: "gaussian"
      std: 0.01
    }
    bias_filler {
      type: "constant"
    }
  }
}
layer {
  name: "relu3"
  type: "ReLU"
  bottom: "ip3"
  top: "ip3"
}
layer {
  name: "ip4"
  type: "InnerProduct"
  bottom: "ip3"
  top: "ip4"
  param {
    lr_mult: 1
  }
  param {
    lr_mult: 2
  }
  inner_product_param {
    num_output: 10
    weight_filler {
      type: "gaussian"
      std: 0.01
    }
    bias_filler {
      type: "constant"
    }
  }
}
layer {
  name: "accuracy"
  type: "Accuracy"
  bottom: "ip4"
  bottom: "label"
  top: "accuracy"
  include {
    phase: TEST
  }
}
layer {
  name: "loss"
  type: "SoftmaxWithLoss"
  bottom: "ip4"
  bottom: "label"
  top: "loss"
}
I0501 01:38:56.092955 11508 layer_factory.hpp:77] Creating layer cifar
I0501 01:38:56.092998 11508 db_lmdb.cpp:35] Opened lmdb examples/cifar10/cifar10_test_lmdb
I0501 01:38:56.093011 11508 net.cpp:86] Creating Layer cifar
I0501 01:38:56.093016 11508 net.cpp:382] cifar -> data
I0501 01:38:56.093024 11508 net.cpp:382] cifar -> label
I0501 01:38:56.093029 11508 data_transformer.cpp:25] Loading mean file from: examples/cifar10/mean.binaryproto
I0501 01:38:56.093205 11508 data_layer.cpp:45] output data size: 1000,3,32,32
I0501 01:38:56.114594 11508 net.cpp:124] Setting up cifar
I0501 01:38:56.114635 11508 net.cpp:131] Top shape: 1000 3 32 32 (3072000)
I0501 01:38:56.114641 11508 net.cpp:131] Top shape: 1000 (1000)
I0501 01:38:56.114644 11508 net.cpp:139] Memory required for data: 12292000
I0501 01:38:56.114650 11508 layer_factory.hpp:77] Creating layer label_cifar_1_split
I0501 01:38:56.114665 11508 net.cpp:86] Creating Layer label_cifar_1_split
I0501 01:38:56.114670 11508 net.cpp:408] label_cifar_1_split <- label
I0501 01:38:56.114676 11508 net.cpp:382] label_cifar_1_split -> label_cifar_1_split_0
I0501 01:38:56.114701 11508 net.cpp:382] label_cifar_1_split -> label_cifar_1_split_1
I0501 01:38:56.114814 11508 net.cpp:124] Setting up label_cifar_1_split
I0501 01:38:56.114822 11508 net.cpp:131] Top shape: 1000 (1000)
I0501 01:38:56.114826 11508 net.cpp:131] Top shape: 1000 (1000)
I0501 01:38:56.114830 11508 net.cpp:139] Memory required for data: 12300000
I0501 01:38:56.114832 11508 layer_factory.hpp:77] Creating layer conv0
I0501 01:38:56.114846 11508 net.cpp:86] Creating Layer conv0
I0501 01:38:56.114850 11508 net.cpp:408] conv0 <- data
I0501 01:38:56.114855 11508 net.cpp:382] conv0 -> conv0
I0501 01:38:56.116452 11508 net.cpp:124] Setting up conv0
I0501 01:38:56.116485 11508 net.cpp:131] Top shape: 1000 8 34 34 (9248000)
I0501 01:38:56.116488 11508 net.cpp:139] Memory required for data: 49292000
I0501 01:38:56.116498 11508 layer_factory.hpp:77] Creating layer Sigmoid0
I0501 01:38:56.116505 11508 net.cpp:86] Creating Layer Sigmoid0
I0501 01:38:56.116509 11508 net.cpp:408] Sigmoid0 <- conv0
I0501 01:38:56.116515 11508 net.cpp:382] Sigmoid0 -> Sigmoid0
I0501 01:38:56.117714 11508 net.cpp:124] Setting up Sigmoid0
I0501 01:38:56.117725 11508 net.cpp:131] Top shape: 1000 8 34 34 (9248000)
I0501 01:38:56.117743 11508 net.cpp:139] Memory required for data: 86284000
I0501 01:38:56.117746 11508 layer_factory.hpp:77] Creating layer pool0
I0501 01:38:56.117755 11508 net.cpp:86] Creating Layer pool0
I0501 01:38:56.117759 11508 net.cpp:408] pool0 <- Sigmoid0
I0501 01:38:56.117764 11508 net.cpp:382] pool0 -> pool0
I0501 01:38:56.117946 11508 net.cpp:124] Setting up pool0
I0501 01:38:56.117955 11508 net.cpp:131] Top shape: 1000 8 17 17 (2312000)
I0501 01:38:56.117959 11508 net.cpp:139] Memory required for data: 95532000
I0501 01:38:56.117962 11508 layer_factory.hpp:77] Creating layer ip1
I0501 01:38:56.117969 11508 net.cpp:86] Creating Layer ip1
I0501 01:38:56.117972 11508 net.cpp:408] ip1 <- pool0
I0501 01:38:56.117979 11508 net.cpp:382] ip1 -> ip1
I0501 01:38:56.128481 11508 net.cpp:124] Setting up ip1
I0501 01:38:56.128494 11508 net.cpp:131] Top shape: 1000 160 (160000)
I0501 01:38:56.128512 11508 net.cpp:139] Memory required for data: 96172000
I0501 01:38:56.128533 11508 layer_factory.hpp:77] Creating layer relu1
I0501 01:38:56.128540 11508 net.cpp:86] Creating Layer relu1
I0501 01:38:56.128543 11508 net.cpp:408] relu1 <- ip1
I0501 01:38:56.128563 11508 net.cpp:369] relu1 -> ip1 (in-place)
I0501 01:38:56.128736 11508 net.cpp:124] Setting up relu1
I0501 01:38:56.128746 11508 net.cpp:131] Top shape: 1000 160 (160000)
I0501 01:38:56.128748 11508 net.cpp:139] Memory required for data: 96812000
I0501 01:38:56.128752 11508 layer_factory.hpp:77] Creating layer ip2
I0501 01:38:56.128759 11508 net.cpp:86] Creating Layer ip2
I0501 01:38:56.128762 11508 net.cpp:408] ip2 <- ip1
I0501 01:38:56.128768 11508 net.cpp:382] ip2 -> ip2
I0501 01:38:56.129127 11508 net.cpp:124] Setting up ip2
I0501 01:38:56.129137 11508 net.cpp:131] Top shape: 1000 40 (40000)
I0501 01:38:56.129153 11508 net.cpp:139] Memory required for data: 96972000
I0501 01:38:56.129163 11508 layer_factory.hpp:77] Creating layer relu2
I0501 01:38:56.129168 11508 net.cpp:86] Creating Layer relu2
I0501 01:38:56.129171 11508 net.cpp:408] relu2 <- ip2
I0501 01:38:56.129190 11508 net.cpp:369] relu2 -> ip2 (in-place)
I0501 01:38:56.129967 11508 net.cpp:124] Setting up relu2
I0501 01:38:56.129979 11508 net.cpp:131] Top shape: 1000 40 (40000)
I0501 01:38:56.129997 11508 net.cpp:139] Memory required for data: 97132000
I0501 01:38:56.130002 11508 layer_factory.hpp:77] Creating layer ip3
I0501 01:38:56.130007 11508 net.cpp:86] Creating Layer ip3
I0501 01:38:56.130012 11508 net.cpp:408] ip3 <- ip2
I0501 01:38:56.130018 11508 net.cpp:382] ip3 -> ip3
I0501 01:38:56.130182 11508 net.cpp:124] Setting up ip3
I0501 01:38:56.130189 11508 net.cpp:131] Top shape: 1000 20 (20000)
I0501 01:38:56.130192 11508 net.cpp:139] Memory required for data: 97212000
I0501 01:38:56.130198 11508 layer_factory.hpp:77] Creating layer relu3
I0501 01:38:56.130203 11508 net.cpp:86] Creating Layer relu3
I0501 01:38:56.130208 11508 net.cpp:408] relu3 <- ip3
I0501 01:38:56.130213 11508 net.cpp:369] relu3 -> ip3 (in-place)
I0501 01:38:56.130393 11508 net.cpp:124] Setting up relu3
I0501 01:38:56.130401 11508 net.cpp:131] Top shape: 1000 20 (20000)
I0501 01:38:56.130404 11508 net.cpp:139] Memory required for data: 97292000
I0501 01:38:56.130408 11508 layer_factory.hpp:77] Creating layer ip4
I0501 01:38:56.130414 11508 net.cpp:86] Creating Layer ip4
I0501 01:38:56.130417 11508 net.cpp:408] ip4 <- ip3
I0501 01:38:56.130422 11508 net.cpp:382] ip4 -> ip4
I0501 01:38:56.130529 11508 net.cpp:124] Setting up ip4
I0501 01:38:56.130537 11508 net.cpp:131] Top shape: 1000 10 (10000)
I0501 01:38:56.130539 11508 net.cpp:139] Memory required for data: 97332000
I0501 01:38:56.130547 11508 layer_factory.hpp:77] Creating layer ip4_ip4_0_split
I0501 01:38:56.130554 11508 net.cpp:86] Creating Layer ip4_ip4_0_split
I0501 01:38:56.130558 11508 net.cpp:408] ip4_ip4_0_split <- ip4
I0501 01:38:56.130561 11508 net.cpp:382] ip4_ip4_0_split -> ip4_ip4_0_split_0
I0501 01:38:56.130566 11508 net.cpp:382] ip4_ip4_0_split -> ip4_ip4_0_split_1
I0501 01:38:56.130597 11508 net.cpp:124] Setting up ip4_ip4_0_split
I0501 01:38:56.130605 11508 net.cpp:131] Top shape: 1000 10 (10000)
I0501 01:38:56.130609 11508 net.cpp:131] Top shape: 1000 10 (10000)
I0501 01:38:56.130611 11508 net.cpp:139] Memory required for data: 97412000
I0501 01:38:56.130614 11508 layer_factory.hpp:77] Creating layer accuracy
I0501 01:38:56.130620 11508 net.cpp:86] Creating Layer accuracy
I0501 01:38:56.130623 11508 net.cpp:408] accuracy <- ip4_ip4_0_split_0
I0501 01:38:56.130627 11508 net.cpp:408] accuracy <- label_cifar_1_split_0
I0501 01:38:56.130633 11508 net.cpp:382] accuracy -> accuracy
…
