…
I0430 23:27:47.453008  4913 net.cpp:296] The NetState phase (0) differed from the phase (1) specified by a rule in layer cifar
I0430 23:27:47.453027  4913 net.cpp:296] The NetState phase (0) differed from the phase (1) specified by a rule in layer accuracy
I0430 23:27:47.453135  4913 net.cpp:53] Initializing net from parameters: 
name: "CIFAR"
state {
  phase: TRAIN
  level: 0
  stage: ""
}
layer {
  name: "cifar"
  type: "Data"
  top: "data"
  top: "label"
  include {
    phase: TRAIN
  }
  transform_param {
    mean_file: "examples/cifar10/mean.binaryproto"
  }
  data_param {
    source: "examples/cifar10/cifar10_train_lmdb"
    batch_size: 111
    backend: LMDB
  }
}
layer {
  name: "conv0"
  type: "Convolution"
  bottom: "data"
  top: "conv0"
  param {
    lr_mult: 1
  }
  param {
    lr_mult: 2
  }
  convolution_param {
    num_output: 8
    pad: 2
    kernel_size: 3
    stride: 1
    weight_filler {
      type: "gaussian"
      std: 0.01
    }
    bias_filler {
      type: "constant"
    }
  }
}
layer {
  name: "Sigmoid0"
  type: "Sigmoid"
  bottom: "conv0"
  top: "Sigmoid0"
}
layer {
  name: "pool0"
  type: "Pooling"
  bottom: "Sigmoid0"
  top: "pool0"
  pooling_param {
    pool: AVE
    kernel_size: 3
    stride: 2
  }
}
layer {
  name: "ip1"
  type: "InnerProduct"
  bottom: "pool0"
  top: "ip1"
  param {
    lr_mult: 1
  }
  param {
    lr_mult: 2
  }
  inner_product_param {
    num_output: 20
    weight_filler {
      type: "gaussian"
      std: 0.01
    }
    bias_filler {
      type: "constant"
    }
  }
}
layer {
  name: "relu1"
  type: "ReLU"
  bottom: "ip1"
  top: "ip1"
}
layer {
  name: "ip2"
  type: "InnerProduct"
  bottom: "ip1"
  top: "ip2"
  param {
    lr_mult: 1
  }
  param {
    lr_mult: 2
  }
  inner_product_param {
    num_output: 80
    weight_filler {
      type: "gaussian"
      std: 0.01
    }
    bias_filler {
      type: "constant"
    }
  }
}
layer {
  name: "relu2"
  type: "ReLU"
  bottom: "ip2"
  top: "ip2"
}
layer {
  name: "ip3"
  type: "InnerProduct"
  bottom: "ip2"
  top: "ip3"
  param {
    lr_mult: 1
  }
  param {
    lr_mult: 2
  }
  inner_product_param {
    num_output: 20
    weight_filler {
      type: "gaussian"
      std: 0.01
    }
    bias_filler {
      type: "constant"
    }
  }
}
layer {
  name: "relu3"
  type: "ReLU"
  bottom: "ip3"
  top: "ip3"
}
layer {
  name: "ip4"
  type: "InnerProduct"
  bottom: "ip3"
  top: "ip4"
  param {
    lr_mult: 1
  }
  param {
    lr_mult: 2
  }
  inner_product_param {
    num_output: 10
    weight_filler {
      type: "gaussian"
      std: 0.01
    }
    bias_filler {
      type: "constant"
    }
  }
}
layer {
  name: "loss"
  type: "SoftmaxWithLoss"
  bottom: "ip4"
  bottom: "label"
  top: "loss"
}
I0430 23:27:47.453213  4913 layer_factory.hpp:77] Creating layer cifar
I0430 23:27:47.453313  4913 db_lmdb.cpp:35] Opened lmdb examples/cifar10/cifar10_train_lmdb
I0430 23:27:47.453343  4913 net.cpp:86] Creating Layer cifar
I0430 23:27:47.453351  4913 net.cpp:382] cifar -> data
I0430 23:27:47.453375  4913 net.cpp:382] cifar -> label
I0430 23:27:47.453387  4913 data_transformer.cpp:25] Loading mean file from: examples/cifar10/mean.binaryproto
I0430 23:27:47.455502  4913 data_layer.cpp:45] output data size: 111,3,32,32
I0430 23:27:47.463415  4913 net.cpp:124] Setting up cifar
I0430 23:27:47.463435  4913 net.cpp:131] Top shape: 111 3 32 32 (340992)
I0430 23:27:47.463443  4913 net.cpp:131] Top shape: 111 (111)
I0430 23:27:47.463448  4913 net.cpp:139] Memory required for data: 1364412
I0430 23:27:47.463470  4913 layer_factory.hpp:77] Creating layer conv0
I0430 23:27:47.463490  4913 net.cpp:86] Creating Layer conv0
I0430 23:27:47.463495  4913 net.cpp:408] conv0 <- data
I0430 23:27:47.463510  4913 net.cpp:382] conv0 -> conv0
I0430 23:27:47.754204  4913 net.cpp:124] Setting up conv0
I0430 23:27:47.754232  4913 net.cpp:131] Top shape: 111 8 34 34 (1026528)
I0430 23:27:47.754237  4913 net.cpp:139] Memory required for data: 5470524
I0430 23:27:47.754253  4913 layer_factory.hpp:77] Creating layer Sigmoid0
I0430 23:27:47.754266  4913 net.cpp:86] Creating Layer Sigmoid0
I0430 23:27:47.754271  4913 net.cpp:408] Sigmoid0 <- conv0
I0430 23:27:47.754277  4913 net.cpp:382] Sigmoid0 -> Sigmoid0
I0430 23:27:47.754477  4913 net.cpp:124] Setting up Sigmoid0
I0430 23:27:47.754488  4913 net.cpp:131] Top shape: 111 8 34 34 (1026528)
I0430 23:27:47.754492  4913 net.cpp:139] Memory required for data: 9576636
I0430 23:27:47.754497  4913 layer_factory.hpp:77] Creating layer pool0
I0430 23:27:47.754504  4913 net.cpp:86] Creating Layer pool0
I0430 23:27:47.754508  4913 net.cpp:408] pool0 <- Sigmoid0
I0430 23:27:47.754513  4913 net.cpp:382] pool0 -> pool0
I0430 23:27:47.755326  4913 net.cpp:124] Setting up pool0
I0430 23:27:47.755340  4913 net.cpp:131] Top shape: 111 8 17 17 (256632)
I0430 23:27:47.755344  4913 net.cpp:139] Memory required for data: 10603164
I0430 23:27:47.755348  4913 layer_factory.hpp:77] Creating layer ip1
I0430 23:27:47.755358  4913 net.cpp:86] Creating Layer ip1
I0430 23:27:47.755362  4913 net.cpp:408] ip1 <- pool0
I0430 23:27:47.755368  4913 net.cpp:382] ip1 -> ip1
I0430 23:27:47.757791  4913 net.cpp:124] Setting up ip1
I0430 23:27:47.757805  4913 net.cpp:131] Top shape: 111 20 (2220)
I0430 23:27:47.757809  4913 net.cpp:139] Memory required for data: 10612044
I0430 23:27:47.757818  4913 layer_factory.hpp:77] Creating layer relu1
I0430 23:27:47.757825  4913 net.cpp:86] Creating Layer relu1
I0430 23:27:47.757828  4913 net.cpp:408] relu1 <- ip1
I0430 23:27:47.757833  4913 net.cpp:369] relu1 -> ip1 (in-place)
I0430 23:27:47.758002  4913 net.cpp:124] Setting up relu1
I0430 23:27:47.758013  4913 net.cpp:131] Top shape: 111 20 (2220)
I0430 23:27:47.758015  4913 net.cpp:139] Memory required for data: 10620924
I0430 23:27:47.758019  4913 layer_factory.hpp:77] Creating layer ip2
I0430 23:27:47.758025  4913 net.cpp:86] Creating Layer ip2
I0430 23:27:47.758029  4913 net.cpp:408] ip2 <- ip1
I0430 23:27:47.758034  4913 net.cpp:382] ip2 -> ip2
I0430 23:27:47.758188  4913 net.cpp:124] Setting up ip2
I0430 23:27:47.758195  4913 net.cpp:131] Top shape: 111 80 (8880)
I0430 23:27:47.758199  4913 net.cpp:139] Memory required for data: 10656444
I0430 23:27:47.758206  4913 layer_factory.hpp:77] Creating layer relu2
I0430 23:27:47.758213  4913 net.cpp:86] Creating Layer relu2
I0430 23:27:47.758215  4913 net.cpp:408] relu2 <- ip2
I0430 23:27:47.758220  4913 net.cpp:369] relu2 -> ip2 (in-place)
I0430 23:27:47.758383  4913 net.cpp:124] Setting up relu2
I0430 23:27:47.758391  4913 net.cpp:131] Top shape: 111 80 (8880)
I0430 23:27:47.758394  4913 net.cpp:139] Memory required for data: 10691964
I0430 23:27:47.758399  4913 layer_factory.hpp:77] Creating layer ip3
I0430 23:27:47.758406  4913 net.cpp:86] Creating Layer ip3
I0430 23:27:47.758409  4913 net.cpp:408] ip3 <- ip2
I0430 23:27:47.758414  4913 net.cpp:382] ip3 -> ip3
I0430 23:27:47.758559  4913 net.cpp:124] Setting up ip3
I0430 23:27:47.758568  4913 net.cpp:131] Top shape: 111 20 (2220)
I0430 23:27:47.758570  4913 net.cpp:139] Memory required for data: 10700844
I0430 23:27:47.758576  4913 layer_factory.hpp:77] Creating layer relu3
I0430 23:27:47.758582  4913 net.cpp:86] Creating Layer relu3
I0430 23:27:47.758585  4913 net.cpp:408] relu3 <- ip3
I0430 23:27:47.758589  4913 net.cpp:369] relu3 -> ip3 (in-place)
I0430 23:27:47.758744  4913 net.cpp:124] Setting up relu3
I0430 23:27:47.758752  4913 net.cpp:131] Top shape: 111 20 (2220)
I0430 23:27:47.758755  4913 net.cpp:139] Memory required for data: 10709724
I0430 23:27:47.758759  4913 layer_factory.hpp:77] Creating layer ip4
I0430 23:27:47.758780  4913 net.cpp:86] Creating Layer ip4
I0430 23:27:47.758785  4913 net.cpp:408] ip4 <- ip3
I0430 23:27:47.758790  4913 net.cpp:382] ip4 -> ip4
I0430 23:27:47.758895  4913 net.cpp:124] Setting up ip4
I0430 23:27:47.758903  4913 net.cpp:131] Top shape: 111 10 (1110)
I0430 23:27:47.758906  4913 net.cpp:139] Memory required for data: 10714164
I0430 23:27:47.758915  4913 layer_factory.hpp:77] Creating layer loss
I0430 23:27:47.758921  4913 net.cpp:86] Creating Layer loss
I0430 23:27:47.758924  4913 net.cpp:408] loss <- ip4
I0430 23:27:47.758929  4913 net.cpp:408] loss <- label
I0430 23:27:47.758934  4913 net.cpp:382] loss -> loss
I0430 23:27:47.758954  4913 layer_factory.hpp:77] Creating layer loss
…
I0430 23:27:47.760257  4913 solver.cpp:173] Creating test net (#0) specified by net file: ECE595/cifar/train_test/var_everything/cifar_train_test_226.prototxt
I0430 23:27:47.760285  4913 net.cpp:296] The NetState phase (1) differed from the phase (0) specified by a rule in layer cifar
I0430 23:27:47.760385  4913 net.cpp:53] Initializing net from parameters: 
name: "CIFAR"
state {
  phase: TEST
}
layer {
  name: "cifar"
  type: "Data"
  top: "data"
  top: "label"
  include {
    phase: TEST
  }
  transform_param {
    mean_file: "examples/cifar10/mean.binaryproto"
  }
  data_param {
    source: "examples/cifar10/cifar10_test_lmdb"
    batch_size: 1000
    backend: LMDB
  }
}
layer {
  name: "conv0"
  type: "Convolution"
  bottom: "data"
  top: "conv0"
  param {
    lr_mult: 1
  }
  param {
    lr_mult: 2
  }
  convolution_param {
    num_output: 8
    pad: 2
    kernel_size: 3
    stride: 1
    weight_filler {
      type: "gaussian"
      std: 0.01
    }
    bias_filler {
      type: "constant"
    }
  }
}
layer {
  name: "Sigmoid0"
  type: "Sigmoid"
  bottom: "conv0"
  top: "Sigmoid0"
}
layer {
  name: "pool0"
  type: "Pooling"
  bottom: "Sigmoid0"
  top: "pool0"
  pooling_param {
    pool: AVE
    kernel_size: 3
    stride: 2
  }
}
layer {
  name: "ip1"
  type: "InnerProduct"
  bottom: "pool0"
  top: "ip1"
  param {
    lr_mult: 1
  }
  param {
    lr_mult: 2
  }
  inner_product_param {
    num_output: 20
    weight_filler {
      type: "gaussian"
      std: 0.01
    }
    bias_filler {
      type: "constant"
    }
  }
}
layer {
  name: "relu1"
  type: "ReLU"
  bottom: "ip1"
  top: "ip1"
}
layer {
  name: "ip2"
  type: "InnerProduct"
  bottom: "ip1"
  top: "ip2"
  param {
    lr_mult: 1
  }
  param {
    lr_mult: 2
  }
  inner_product_param {
    num_output: 80
    weight_filler {
      type: "gaussian"
      std: 0.01
    }
    bias_filler {
      type: "constant"
    }
  }
}
layer {
  name: "relu2"
  type: "ReLU"
  bottom: "ip2"
  top: "ip2"
}
layer {
  name: "ip3"
  type: "InnerProduct"
  bottom: "ip2"
  top: "ip3"
  param {
    lr_mult: 1
  }
  param {
    lr_mult: 2
  }
  inner_product_param {
    num_output: 20
    weight_filler {
      type: "gaussian"
      std: 0.01
    }
    bias_filler {
      type: "constant"
    }
  }
}
layer {
  name: "relu3"
  type: "ReLU"
  bottom: "ip3"
  top: "ip3"
}
layer {
  name: "ip4"
  type: "InnerProduct"
  bottom: "ip3"
  top: "ip4"
  param {
    lr_mult: 1
  }
  param {
    lr_mult: 2
  }
  inner_product_param {
    num_output: 10
    weight_filler {
      type: "gaussian"
      std: 0.01
    }
    bias_filler {
      type: "constant"
    }
  }
}
layer {
  name: "accuracy"
  type: "Accuracy"
  bottom: "ip4"
  bottom: "label"
  top: "accuracy"
  include {
    phase: TEST
  }
}
layer {
  name: "loss"
  type: "SoftmaxWithLoss"
  bottom: "ip4"
  bottom: "label"
  top: "loss"
}
I0430 23:27:47.760469  4913 layer_factory.hpp:77] Creating layer cifar
I0430 23:27:47.760516  4913 db_lmdb.cpp:35] Opened lmdb examples/cifar10/cifar10_test_lmdb
I0430 23:27:47.760529  4913 net.cpp:86] Creating Layer cifar
I0430 23:27:47.760535  4913 net.cpp:382] cifar -> data
I0430 23:27:47.760542  4913 net.cpp:382] cifar -> label
I0430 23:27:47.760550  4913 data_transformer.cpp:25] Loading mean file from: examples/cifar10/mean.binaryproto
I0430 23:27:47.760700  4913 data_layer.cpp:45] output data size: 1000,3,32,32
I0430 23:27:47.784492  4913 net.cpp:124] Setting up cifar
I0430 23:27:47.784517  4913 net.cpp:131] Top shape: 1000 3 32 32 (3072000)
I0430 23:27:47.784523  4913 net.cpp:131] Top shape: 1000 (1000)
I0430 23:27:47.784526  4913 net.cpp:139] Memory required for data: 12292000
I0430 23:27:47.784531  4913 layer_factory.hpp:77] Creating layer label_cifar_1_split
I0430 23:27:47.784548  4913 net.cpp:86] Creating Layer label_cifar_1_split
I0430 23:27:47.784553  4913 net.cpp:408] label_cifar_1_split <- label
I0430 23:27:47.784559  4913 net.cpp:382] label_cifar_1_split -> label_cifar_1_split_0
I0430 23:27:47.784567  4913 net.cpp:382] label_cifar_1_split -> label_cifar_1_split_1
I0430 23:27:47.784682  4913 net.cpp:124] Setting up label_cifar_1_split
I0430 23:27:47.784689  4913 net.cpp:131] Top shape: 1000 (1000)
I0430 23:27:47.784693  4913 net.cpp:131] Top shape: 1000 (1000)
I0430 23:27:47.784696  4913 net.cpp:139] Memory required for data: 12300000
I0430 23:27:47.784699  4913 layer_factory.hpp:77] Creating layer conv0
I0430 23:27:47.784713  4913 net.cpp:86] Creating Layer conv0
I0430 23:27:47.784715  4913 net.cpp:408] conv0 <- data
I0430 23:27:47.784720  4913 net.cpp:382] conv0 -> conv0
I0430 23:27:47.786291  4913 net.cpp:124] Setting up conv0
I0430 23:27:47.786305  4913 net.cpp:131] Top shape: 1000 8 34 34 (9248000)
I0430 23:27:47.786309  4913 net.cpp:139] Memory required for data: 49292000
I0430 23:27:47.786319  4913 layer_factory.hpp:77] Creating layer Sigmoid0
I0430 23:27:47.786326  4913 net.cpp:86] Creating Layer Sigmoid0
I0430 23:27:47.786330  4913 net.cpp:408] Sigmoid0 <- conv0
I0430 23:27:47.786334  4913 net.cpp:382] Sigmoid0 -> Sigmoid0
I0430 23:27:47.786522  4913 net.cpp:124] Setting up Sigmoid0
I0430 23:27:47.786532  4913 net.cpp:131] Top shape: 1000 8 34 34 (9248000)
I0430 23:27:47.786535  4913 net.cpp:139] Memory required for data: 86284000
I0430 23:27:47.786538  4913 layer_factory.hpp:77] Creating layer pool0
I0430 23:27:47.786548  4913 net.cpp:86] Creating Layer pool0
I0430 23:27:47.786551  4913 net.cpp:408] pool0 <- Sigmoid0
I0430 23:27:47.786557  4913 net.cpp:382] pool0 -> pool0
I0430 23:27:47.786820  4913 net.cpp:124] Setting up pool0
I0430 23:27:47.786830  4913 net.cpp:131] Top shape: 1000 8 17 17 (2312000)
I0430 23:27:47.786834  4913 net.cpp:139] Memory required for data: 95532000
I0430 23:27:47.786836  4913 layer_factory.hpp:77] Creating layer ip1
I0430 23:27:47.786846  4913 net.cpp:86] Creating Layer ip1
I0430 23:27:47.786850  4913 net.cpp:408] ip1 <- pool0
I0430 23:27:47.786855  4913 net.cpp:382] ip1 -> ip1
I0430 23:27:47.789146  4913 net.cpp:124] Setting up ip1
I0430 23:27:47.789157  4913 net.cpp:131] Top shape: 1000 20 (20000)
I0430 23:27:47.789161  4913 net.cpp:139] Memory required for data: 95612000
I0430 23:27:47.789182  4913 layer_factory.hpp:77] Creating layer relu1
I0430 23:27:47.789189  4913 net.cpp:86] Creating Layer relu1
I0430 23:27:47.789192  4913 net.cpp:408] relu1 <- ip1
I0430 23:27:47.789198  4913 net.cpp:369] relu1 -> ip1 (in-place)
I0430 23:27:47.789371  4913 net.cpp:124] Setting up relu1
I0430 23:27:47.789379  4913 net.cpp:131] Top shape: 1000 20 (20000)
I0430 23:27:47.789382  4913 net.cpp:139] Memory required for data: 95692000
I0430 23:27:47.789386  4913 layer_factory.hpp:77] Creating layer ip2
I0430 23:27:47.789393  4913 net.cpp:86] Creating Layer ip2
I0430 23:27:47.789397  4913 net.cpp:408] ip2 <- ip1
I0430 23:27:47.789402  4913 net.cpp:382] ip2 -> ip2
I0430 23:27:47.789561  4913 net.cpp:124] Setting up ip2
I0430 23:27:47.789569  4913 net.cpp:131] Top shape: 1000 80 (80000)
I0430 23:27:47.789572  4913 net.cpp:139] Memory required for data: 96012000
I0430 23:27:47.789580  4913 layer_factory.hpp:77] Creating layer relu2
I0430 23:27:47.789587  4913 net.cpp:86] Creating Layer relu2
I0430 23:27:47.789589  4913 net.cpp:408] relu2 <- ip2
I0430 23:27:47.789593  4913 net.cpp:369] relu2 -> ip2 (in-place)
I0430 23:27:47.790349  4913 net.cpp:124] Setting up relu2
I0430 23:27:47.790360  4913 net.cpp:131] Top shape: 1000 80 (80000)
I0430 23:27:47.790364  4913 net.cpp:139] Memory required for data: 96332000
I0430 23:27:47.790367  4913 layer_factory.hpp:77] Creating layer ip3
I0430 23:27:47.790374  4913 net.cpp:86] Creating Layer ip3
I0430 23:27:47.790377  4913 net.cpp:408] ip3 <- ip2
I0430 23:27:47.790383  4913 net.cpp:382] ip3 -> ip3
I0430 23:27:47.790537  4913 net.cpp:124] Setting up ip3
I0430 23:27:47.790544  4913 net.cpp:131] Top shape: 1000 20 (20000)
I0430 23:27:47.790547  4913 net.cpp:139] Memory required for data: 96412000
I0430 23:27:47.790554  4913 layer_factory.hpp:77] Creating layer relu3
I0430 23:27:47.790560  4913 net.cpp:86] Creating Layer relu3
I0430 23:27:47.790562  4913 net.cpp:408] relu3 <- ip3
I0430 23:27:47.790566  4913 net.cpp:369] relu3 -> ip3 (in-place)
I0430 23:27:47.790724  4913 net.cpp:124] Setting up relu3
I0430 23:27:47.790732  4913 net.cpp:131] Top shape: 1000 20 (20000)
I0430 23:27:47.790735  4913 net.cpp:139] Memory required for data: 96492000
I0430 23:27:47.790738  4913 layer_factory.hpp:77] Creating layer ip4
I0430 23:27:47.790745  4913 net.cpp:86] Creating Layer ip4
I0430 23:27:47.790748  4913 net.cpp:408] ip4 <- ip3
I0430 23:27:47.790753  4913 net.cpp:382] ip4 -> ip4
I0430 23:27:47.790865  4913 net.cpp:124] Setting up ip4
I0430 23:27:47.790873  4913 net.cpp:131] Top shape: 1000 10 (10000)
I0430 23:27:47.790875  4913 net.cpp:139] Memory required for data: 96532000
I0430 23:27:47.790884  4913 layer_factory.hpp:77] Creating layer ip4_ip4_0_split
I0430 23:27:47.790890  4913 net.cpp:86] Creating Layer ip4_ip4_0_split
I0430 23:27:47.790894  4913 net.cpp:408] ip4_ip4_0_split <- ip4
I0430 23:27:47.790897  4913 net.cpp:382] ip4_ip4_0_split -> ip4_ip4_0_split_0
I0430 23:27:47.790902  4913 net.cpp:382] ip4_ip4_0_split -> ip4_ip4_0_split_1
I0430 23:27:47.790935  4913 net.cpp:124] Setting up ip4_ip4_0_split
I0430 23:27:47.790941  4913 net.cpp:131] Top shape: 1000 10 (10000)
I0430 23:27:47.790944  4913 net.cpp:131] Top shape: 1000 10 (10000)
I0430 23:27:47.790947  4913 net.cpp:139] Memory required for data: 96612000
I0430 23:27:47.790951  4913 layer_factory.hpp:77] Creating layer accuracy
I0430 23:27:47.790956  4913 net.cpp:86] Creating Layer accuracy
I0430 23:27:47.790959  4913 net.cpp:408] accuracy <- ip4_ip4_0_split_0
I0430 23:27:47.790962  4913 net.cpp:408] accuracy <- label_cifar_1_split_0
I0430 23:27:47.790968  4913 net.cpp:382] accuracy -> accuracy
…
