…
I0501 01:40:49.084157 11598 net.cpp:296] The NetState phase (0) differed from the phase (1) specified by a rule in layer cifar
I0501 01:40:49.084175 11598 net.cpp:296] The NetState phase (0) differed from the phase (1) specified by a rule in layer accuracy
I0501 01:40:49.084285 11598 net.cpp:53] Initializing net from parameters: 
name: "CIFAR"
state {
  phase: TRAIN
  level: 0
  stage: ""
}
layer {
  name: "cifar"
  type: "Data"
  top: "data"
  top: "label"
  include {
    phase: TRAIN
  }
  transform_param {
    mean_file: "examples/cifar10/mean.binaryproto"
  }
  data_param {
    source: "examples/cifar10/cifar10_train_lmdb"
    batch_size: 111
    backend: LMDB
  }
}
layer {
  name: "conv0"
  type: "Convolution"
  bottom: "data"
  top: "conv0"
  param {
    lr_mult: 1
  }
  param {
    lr_mult: 2
  }
  convolution_param {
    num_output: 8
    pad: 2
    kernel_size: 3
    stride: 1
    weight_filler {
      type: "gaussian"
      std: 0.01
    }
    bias_filler {
      type: "constant"
    }
  }
}
layer {
  name: "Sigmoid0"
  type: "Sigmoid"
  bottom: "conv0"
  top: "Sigmoid0"
}
layer {
  name: "pool0"
  type: "Pooling"
  bottom: "Sigmoid0"
  top: "pool0"
  pooling_param {
    pool: AVE
    kernel_size: 3
    stride: 2
  }
}
layer {
  name: "ip1"
  type: "InnerProduct"
  bottom: "pool0"
  top: "ip1"
  param {
    lr_mult: 1
  }
  param {
    lr_mult: 2
  }
  inner_product_param {
    num_output: 160
    weight_filler {
      type: "gaussian"
      std: 0.01
    }
    bias_filler {
      type: "constant"
    }
  }
}
layer {
  name: "relu1"
  type: "ReLU"
  bottom: "ip1"
  top: "ip1"
}
layer {
  name: "ip2"
  type: "InnerProduct"
  bottom: "ip1"
  top: "ip2"
  param {
    lr_mult: 1
  }
  param {
    lr_mult: 2
  }
  inner_product_param {
    num_output: 40
    weight_filler {
      type: "gaussian"
      std: 0.01
    }
    bias_filler {
      type: "constant"
    }
  }
}
layer {
  name: "relu2"
  type: "ReLU"
  bottom: "ip2"
  top: "ip2"
}
layer {
  name: "ip3"
  type: "InnerProduct"
  bottom: "ip2"
  top: "ip3"
  param {
    lr_mult: 1
  }
  param {
    lr_mult: 2
  }
  inner_product_param {
    num_output: 40
    weight_filler {
      type: "gaussian"
      std: 0.01
    }
    bias_filler {
      type: "constant"
    }
  }
}
layer {
  name: "relu3"
  type: "ReLU"
  bottom: "ip3"
  top: "ip3"
}
layer {
  name: "ip4"
  type: "InnerProduct"
  bottom: "ip3"
  top: "ip4"
  param {
    lr_mult: 1
  }
  param {
    lr_mult: 2
  }
  inner_product_param {
    num_output: 10
    weight_filler {
      type: "gaussian"
      std: 0.01
    }
    bias_filler {
      type: "constant"
    }
  }
}
layer {
  name: "loss"
  type: "SoftmaxWithLoss"
  bottom: "ip4"
  bottom: "label"
  top: "loss"
}
I0501 01:40:49.084362 11598 layer_factory.hpp:77] Creating layer cifar
I0501 01:40:49.084460 11598 db_lmdb.cpp:35] Opened lmdb examples/cifar10/cifar10_train_lmdb
I0501 01:40:49.084486 11598 net.cpp:86] Creating Layer cifar
I0501 01:40:49.084496 11598 net.cpp:382] cifar -> data
I0501 01:40:49.084517 11598 net.cpp:382] cifar -> label
I0501 01:40:49.084528 11598 data_transformer.cpp:25] Loading mean file from: examples/cifar10/mean.binaryproto
I0501 01:40:49.086673 11598 data_layer.cpp:45] output data size: 111,3,32,32
I0501 01:40:49.094565 11598 net.cpp:124] Setting up cifar
I0501 01:40:49.094584 11598 net.cpp:131] Top shape: 111 3 32 32 (340992)
I0501 01:40:49.094590 11598 net.cpp:131] Top shape: 111 (111)
I0501 01:40:49.094594 11598 net.cpp:139] Memory required for data: 1364412
I0501 01:40:49.094616 11598 layer_factory.hpp:77] Creating layer conv0
I0501 01:40:49.094635 11598 net.cpp:86] Creating Layer conv0
I0501 01:40:49.094640 11598 net.cpp:408] conv0 <- data
I0501 01:40:49.094653 11598 net.cpp:382] conv0 -> conv0
I0501 01:40:49.347672 11598 net.cpp:124] Setting up conv0
I0501 01:40:49.347713 11598 net.cpp:131] Top shape: 111 8 34 34 (1026528)
I0501 01:40:49.347718 11598 net.cpp:139] Memory required for data: 5470524
I0501 01:40:49.347733 11598 layer_factory.hpp:77] Creating layer Sigmoid0
I0501 01:40:49.347744 11598 net.cpp:86] Creating Layer Sigmoid0
I0501 01:40:49.347748 11598 net.cpp:408] Sigmoid0 <- conv0
I0501 01:40:49.347754 11598 net.cpp:382] Sigmoid0 -> Sigmoid0
I0501 01:40:49.347952 11598 net.cpp:124] Setting up Sigmoid0
I0501 01:40:49.347961 11598 net.cpp:131] Top shape: 111 8 34 34 (1026528)
I0501 01:40:49.347965 11598 net.cpp:139] Memory required for data: 9576636
I0501 01:40:49.347967 11598 layer_factory.hpp:77] Creating layer pool0
I0501 01:40:49.347975 11598 net.cpp:86] Creating Layer pool0
I0501 01:40:49.347977 11598 net.cpp:408] pool0 <- Sigmoid0
I0501 01:40:49.347981 11598 net.cpp:382] pool0 -> pool0
I0501 01:40:49.348676 11598 net.cpp:124] Setting up pool0
I0501 01:40:49.348703 11598 net.cpp:131] Top shape: 111 8 17 17 (256632)
I0501 01:40:49.348706 11598 net.cpp:139] Memory required for data: 10603164
I0501 01:40:49.348711 11598 layer_factory.hpp:77] Creating layer ip1
I0501 01:40:49.348718 11598 net.cpp:86] Creating Layer ip1
I0501 01:40:49.348722 11598 net.cpp:408] ip1 <- pool0
I0501 01:40:49.348727 11598 net.cpp:382] ip1 -> ip1
I0501 01:40:49.358391 11598 net.cpp:124] Setting up ip1
I0501 01:40:49.358402 11598 net.cpp:131] Top shape: 111 160 (17760)
I0501 01:40:49.358404 11598 net.cpp:139] Memory required for data: 10674204
I0501 01:40:49.358412 11598 layer_factory.hpp:77] Creating layer relu1
I0501 01:40:49.358417 11598 net.cpp:86] Creating Layer relu1
I0501 01:40:49.358420 11598 net.cpp:408] relu1 <- ip1
I0501 01:40:49.358424 11598 net.cpp:369] relu1 -> ip1 (in-place)
I0501 01:40:49.358603 11598 net.cpp:124] Setting up relu1
I0501 01:40:49.358610 11598 net.cpp:131] Top shape: 111 160 (17760)
I0501 01:40:49.358614 11598 net.cpp:139] Memory required for data: 10745244
I0501 01:40:49.358618 11598 layer_factory.hpp:77] Creating layer ip2
I0501 01:40:49.358623 11598 net.cpp:86] Creating Layer ip2
I0501 01:40:49.358626 11598 net.cpp:408] ip2 <- ip1
I0501 01:40:49.358631 11598 net.cpp:382] ip2 -> ip2
I0501 01:40:49.359661 11598 net.cpp:124] Setting up ip2
I0501 01:40:49.359673 11598 net.cpp:131] Top shape: 111 40 (4440)
I0501 01:40:49.359691 11598 net.cpp:139] Memory required for data: 10763004
I0501 01:40:49.359699 11598 layer_factory.hpp:77] Creating layer relu2
I0501 01:40:49.359704 11598 net.cpp:86] Creating Layer relu2
I0501 01:40:49.359707 11598 net.cpp:408] relu2 <- ip2
I0501 01:40:49.359712 11598 net.cpp:369] relu2 -> ip2 (in-place)
I0501 01:40:49.359884 11598 net.cpp:124] Setting up relu2
I0501 01:40:49.359891 11598 net.cpp:131] Top shape: 111 40 (4440)
I0501 01:40:49.359894 11598 net.cpp:139] Memory required for data: 10780764
I0501 01:40:49.359897 11598 layer_factory.hpp:77] Creating layer ip3
I0501 01:40:49.359905 11598 net.cpp:86] Creating Layer ip3
I0501 01:40:49.359908 11598 net.cpp:408] ip3 <- ip2
I0501 01:40:49.359913 11598 net.cpp:382] ip3 -> ip3
I0501 01:40:49.360077 11598 net.cpp:124] Setting up ip3
I0501 01:40:49.360083 11598 net.cpp:131] Top shape: 111 40 (4440)
I0501 01:40:49.360086 11598 net.cpp:139] Memory required for data: 10798524
I0501 01:40:49.360091 11598 layer_factory.hpp:77] Creating layer relu3
I0501 01:40:49.360096 11598 net.cpp:86] Creating Layer relu3
I0501 01:40:49.360100 11598 net.cpp:408] relu3 <- ip3
I0501 01:40:49.360103 11598 net.cpp:369] relu3 -> ip3 (in-place)
I0501 01:40:49.360258 11598 net.cpp:124] Setting up relu3
I0501 01:40:49.360266 11598 net.cpp:131] Top shape: 111 40 (4440)
I0501 01:40:49.360268 11598 net.cpp:139] Memory required for data: 10816284
I0501 01:40:49.360271 11598 layer_factory.hpp:77] Creating layer ip4
I0501 01:40:49.360291 11598 net.cpp:86] Creating Layer ip4
I0501 01:40:49.360294 11598 net.cpp:408] ip4 <- ip3
I0501 01:40:49.360299 11598 net.cpp:382] ip4 -> ip4
I0501 01:40:49.361245 11598 net.cpp:124] Setting up ip4
I0501 01:40:49.361256 11598 net.cpp:131] Top shape: 111 10 (1110)
I0501 01:40:49.361259 11598 net.cpp:139] Memory required for data: 10820724
I0501 01:40:49.361268 11598 layer_factory.hpp:77] Creating layer loss
I0501 01:40:49.361273 11598 net.cpp:86] Creating Layer loss
I0501 01:40:49.361275 11598 net.cpp:408] loss <- ip4
I0501 01:40:49.361279 11598 net.cpp:408] loss <- label
I0501 01:40:49.361284 11598 net.cpp:382] loss -> loss
I0501 01:40:49.361297 11598 layer_factory.hpp:77] Creating layer loss
…
I0501 01:40:49.362516 11598 solver.cpp:173] Creating test net (#0) specified by net file: ECE595/cifar/train_test/var_everything/cifar_train_test_297.prototxt
I0501 01:40:49.362571 11598 net.cpp:296] The NetState phase (1) differed from the phase (0) specified by a rule in layer cifar
I0501 01:40:49.362658 11598 net.cpp:53] Initializing net from parameters: 
name: "CIFAR"
state {
  phase: TEST
}
layer {
  name: "cifar"
  type: "Data"
  top: "data"
  top: "label"
  include {
    phase: TEST
  }
  transform_param {
    mean_file: "examples/cifar10/mean.binaryproto"
  }
  data_param {
    source: "examples/cifar10/cifar10_test_lmdb"
    batch_size: 1000
    backend: LMDB
  }
}
layer {
  name: "conv0"
  type: "Convolution"
  bottom: "data"
  top: "conv0"
  param {
    lr_mult: 1
  }
  param {
    lr_mult: 2
  }
  convolution_param {
    num_output: 8
    pad: 2
    kernel_size: 3
    stride: 1
    weight_filler {
      type: "gaussian"
      std: 0.01
    }
    bias_filler {
      type: "constant"
    }
  }
}
layer {
  name: "Sigmoid0"
  type: "Sigmoid"
  bottom: "conv0"
  top: "Sigmoid0"
}
layer {
  name: "pool0"
  type: "Pooling"
  bottom: "Sigmoid0"
  top: "pool0"
  pooling_param {
    pool: AVE
    kernel_size: 3
    stride: 2
  }
}
layer {
  name: "ip1"
  type: "InnerProduct"
  bottom: "pool0"
  top: "ip1"
  param {
    lr_mult: 1
  }
  param {
    lr_mult: 2
  }
  inner_product_param {
    num_output: 160
    weight_filler {
      type: "gaussian"
      std: 0.01
    }
    bias_filler {
      type: "constant"
    }
  }
}
layer {
  name: "relu1"
  type: "ReLU"
  bottom: "ip1"
  top: "ip1"
}
layer {
  name: "ip2"
  type: "InnerProduct"
  bottom: "ip1"
  top: "ip2"
  param {
    lr_mult: 1
  }
  param {
    lr_mult: 2
  }
  inner_product_param {
    num_output: 40
    weight_filler {
      type: "gaussian"
      std: 0.01
    }
    bias_filler {
      type: "constant"
    }
  }
}
layer {
  name: "relu2"
  type: "ReLU"
  bottom: "ip2"
  top: "ip2"
}
layer {
  name: "ip3"
  type: "InnerProduct"
  bottom: "ip2"
  top: "ip3"
  param {
    lr_mult: 1
  }
  param {
    lr_mult: 2
  }
  inner_product_param {
    num_output: 40
    weight_filler {
      type: "gaussian"
      std: 0.01
    }
    bias_filler {
      type: "constant"
    }
  }
}
layer {
  name: "relu3"
  type: "ReLU"
  bottom: "ip3"
  top: "ip3"
}
layer {
  name: "ip4"
  type: "InnerProduct"
  bottom: "ip3"
  top: "ip4"
  param {
    lr_mult: 1
  }
  param {
    lr_mult: 2
  }
  inner_product_param {
    num_output: 10
    weight_filler {
      type: "gaussian"
      std: 0.01
    }
    bias_filler {
      type: "constant"
    }
  }
}
layer {
  name: "accuracy"
  type: "Accuracy"
  bottom: "ip4"
  bottom: "label"
  top: "accuracy"
  include {
    phase: TEST
  }
}
layer {
  name: "loss"
  type: "SoftmaxWithLoss"
  bottom: "ip4"
  bottom: "label"
  top: "loss"
}
I0501 01:40:49.362731 11598 layer_factory.hpp:77] Creating layer cifar
I0501 01:40:49.362776 11598 db_lmdb.cpp:35] Opened lmdb examples/cifar10/cifar10_test_lmdb
I0501 01:40:49.362805 11598 net.cpp:86] Creating Layer cifar
I0501 01:40:49.362810 11598 net.cpp:382] cifar -> data
I0501 01:40:49.362818 11598 net.cpp:382] cifar -> label
I0501 01:40:49.362823 11598 data_transformer.cpp:25] Loading mean file from: examples/cifar10/mean.binaryproto
I0501 01:40:49.362978 11598 data_layer.cpp:45] output data size: 1000,3,32,32
I0501 01:40:49.383958 11598 net.cpp:124] Setting up cifar
I0501 01:40:49.383997 11598 net.cpp:131] Top shape: 1000 3 32 32 (3072000)
I0501 01:40:49.384002 11598 net.cpp:131] Top shape: 1000 (1000)
I0501 01:40:49.384006 11598 net.cpp:139] Memory required for data: 12292000
I0501 01:40:49.384011 11598 layer_factory.hpp:77] Creating layer label_cifar_1_split
I0501 01:40:49.384023 11598 net.cpp:86] Creating Layer label_cifar_1_split
I0501 01:40:49.384027 11598 net.cpp:408] label_cifar_1_split <- label
I0501 01:40:49.384033 11598 net.cpp:382] label_cifar_1_split -> label_cifar_1_split_0
I0501 01:40:49.384042 11598 net.cpp:382] label_cifar_1_split -> label_cifar_1_split_1
I0501 01:40:49.384171 11598 net.cpp:124] Setting up label_cifar_1_split
I0501 01:40:49.384177 11598 net.cpp:131] Top shape: 1000 (1000)
I0501 01:40:49.384181 11598 net.cpp:131] Top shape: 1000 (1000)
I0501 01:40:49.384183 11598 net.cpp:139] Memory required for data: 12300000
I0501 01:40:49.384186 11598 layer_factory.hpp:77] Creating layer conv0
I0501 01:40:49.384198 11598 net.cpp:86] Creating Layer conv0
I0501 01:40:49.384205 11598 net.cpp:408] conv0 <- data
I0501 01:40:49.384225 11598 net.cpp:382] conv0 -> conv0
I0501 01:40:49.385762 11598 net.cpp:124] Setting up conv0
I0501 01:40:49.385792 11598 net.cpp:131] Top shape: 1000 8 34 34 (9248000)
I0501 01:40:49.385795 11598 net.cpp:139] Memory required for data: 49292000
I0501 01:40:49.385804 11598 layer_factory.hpp:77] Creating layer Sigmoid0
I0501 01:40:49.385810 11598 net.cpp:86] Creating Layer Sigmoid0
I0501 01:40:49.385814 11598 net.cpp:408] Sigmoid0 <- conv0
I0501 01:40:49.385818 11598 net.cpp:382] Sigmoid0 -> Sigmoid0
I0501 01:40:49.386020 11598 net.cpp:124] Setting up Sigmoid0
I0501 01:40:49.386029 11598 net.cpp:131] Top shape: 1000 8 34 34 (9248000)
I0501 01:40:49.386034 11598 net.cpp:139] Memory required for data: 86284000
I0501 01:40:49.386036 11598 layer_factory.hpp:77] Creating layer pool0
I0501 01:40:49.386044 11598 net.cpp:86] Creating Layer pool0
I0501 01:40:49.386047 11598 net.cpp:408] pool0 <- Sigmoid0
I0501 01:40:49.386052 11598 net.cpp:382] pool0 -> pool0
I0501 01:40:49.386307 11598 net.cpp:124] Setting up pool0
I0501 01:40:49.386315 11598 net.cpp:131] Top shape: 1000 8 17 17 (2312000)
I0501 01:40:49.386318 11598 net.cpp:139] Memory required for data: 95532000
I0501 01:40:49.386322 11598 layer_factory.hpp:77] Creating layer ip1
I0501 01:40:49.386329 11598 net.cpp:86] Creating Layer ip1
I0501 01:40:49.386332 11598 net.cpp:408] ip1 <- pool0
I0501 01:40:49.386337 11598 net.cpp:382] ip1 -> ip1
I0501 01:40:49.397550 11598 net.cpp:124] Setting up ip1
I0501 01:40:49.397578 11598 net.cpp:131] Top shape: 1000 160 (160000)
I0501 01:40:49.397581 11598 net.cpp:139] Memory required for data: 96172000
I0501 01:40:49.397603 11598 layer_factory.hpp:77] Creating layer relu1
I0501 01:40:49.397610 11598 net.cpp:86] Creating Layer relu1
I0501 01:40:49.397614 11598 net.cpp:408] relu1 <- ip1
I0501 01:40:49.397619 11598 net.cpp:369] relu1 -> ip1 (in-place)
I0501 01:40:49.397814 11598 net.cpp:124] Setting up relu1
I0501 01:40:49.397824 11598 net.cpp:131] Top shape: 1000 160 (160000)
I0501 01:40:49.397827 11598 net.cpp:139] Memory required for data: 96812000
I0501 01:40:49.397830 11598 layer_factory.hpp:77] Creating layer ip2
I0501 01:40:49.397837 11598 net.cpp:86] Creating Layer ip2
I0501 01:40:49.397841 11598 net.cpp:408] ip2 <- ip1
I0501 01:40:49.397846 11598 net.cpp:382] ip2 -> ip2
I0501 01:40:49.398120 11598 net.cpp:124] Setting up ip2
I0501 01:40:49.398128 11598 net.cpp:131] Top shape: 1000 40 (40000)
I0501 01:40:49.398130 11598 net.cpp:139] Memory required for data: 96972000
I0501 01:40:49.398138 11598 layer_factory.hpp:77] Creating layer relu2
I0501 01:40:49.398144 11598 net.cpp:86] Creating Layer relu2
I0501 01:40:49.398147 11598 net.cpp:408] relu2 <- ip2
I0501 01:40:49.398151 11598 net.cpp:369] relu2 -> ip2 (in-place)
I0501 01:40:49.398886 11598 net.cpp:124] Setting up relu2
I0501 01:40:49.398901 11598 net.cpp:131] Top shape: 1000 40 (40000)
I0501 01:40:49.398921 11598 net.cpp:139] Memory required for data: 97132000
I0501 01:40:49.398923 11598 layer_factory.hpp:77] Creating layer ip3
I0501 01:40:49.398929 11598 net.cpp:86] Creating Layer ip3
I0501 01:40:49.398933 11598 net.cpp:408] ip3 <- ip2
I0501 01:40:49.398938 11598 net.cpp:382] ip3 -> ip3
I0501 01:40:49.399116 11598 net.cpp:124] Setting up ip3
I0501 01:40:49.399123 11598 net.cpp:131] Top shape: 1000 40 (40000)
I0501 01:40:49.399127 11598 net.cpp:139] Memory required for data: 97292000
I0501 01:40:49.399132 11598 layer_factory.hpp:77] Creating layer relu3
I0501 01:40:49.399137 11598 net.cpp:86] Creating Layer relu3
I0501 01:40:49.399140 11598 net.cpp:408] relu3 <- ip3
I0501 01:40:49.399144 11598 net.cpp:369] relu3 -> ip3 (in-place)
I0501 01:40:49.399307 11598 net.cpp:124] Setting up relu3
I0501 01:40:49.399329 11598 net.cpp:131] Top shape: 1000 40 (40000)
I0501 01:40:49.399333 11598 net.cpp:139] Memory required for data: 97452000
I0501 01:40:49.399335 11598 layer_factory.hpp:77] Creating layer ip4
I0501 01:40:49.399343 11598 net.cpp:86] Creating Layer ip4
I0501 01:40:49.399345 11598 net.cpp:408] ip4 <- ip3
I0501 01:40:49.399351 11598 net.cpp:382] ip4 -> ip4
I0501 01:40:49.399463 11598 net.cpp:124] Setting up ip4
I0501 01:40:49.399469 11598 net.cpp:131] Top shape: 1000 10 (10000)
I0501 01:40:49.399472 11598 net.cpp:139] Memory required for data: 97492000
I0501 01:40:49.399480 11598 layer_factory.hpp:77] Creating layer ip4_ip4_0_split
I0501 01:40:49.399484 11598 net.cpp:86] Creating Layer ip4_ip4_0_split
I0501 01:40:49.399487 11598 net.cpp:408] ip4_ip4_0_split <- ip4
I0501 01:40:49.399492 11598 net.cpp:382] ip4_ip4_0_split -> ip4_ip4_0_split_0
I0501 01:40:49.399497 11598 net.cpp:382] ip4_ip4_0_split -> ip4_ip4_0_split_1
I0501 01:40:49.399528 11598 net.cpp:124] Setting up ip4_ip4_0_split
I0501 01:40:49.399534 11598 net.cpp:131] Top shape: 1000 10 (10000)
I0501 01:40:49.399538 11598 net.cpp:131] Top shape: 1000 10 (10000)
I0501 01:40:49.399540 11598 net.cpp:139] Memory required for data: 97572000
I0501 01:40:49.399544 11598 layer_factory.hpp:77] Creating layer accuracy
I0501 01:40:49.399549 11598 net.cpp:86] Creating Layer accuracy
I0501 01:40:49.399552 11598 net.cpp:408] accuracy <- ip4_ip4_0_split_0
I0501 01:40:49.399556 11598 net.cpp:408] accuracy <- label_cifar_1_split_0
I0501 01:40:49.399561 11598 net.cpp:382] accuracy -> accuracy
…
