…
I0430 21:31:14.413467 31000 net.cpp:296] The NetState phase (0) differed from the phase (1) specified by a rule in layer cifar
I0430 21:31:14.413483 31000 net.cpp:296] The NetState phase (0) differed from the phase (1) specified by a rule in layer accuracy
I0430 21:31:14.413578 31000 net.cpp:53] Initializing net from parameters: 
name: "CIFAR"
state {
  phase: TRAIN
  level: 0
  stage: ""
}
layer {
  name: "cifar"
  type: "Data"
  top: "data"
  top: "label"
  include {
    phase: TRAIN
  }
  transform_param {
    mean_file: "examples/cifar10/mean.binaryproto"
  }
  data_param {
    source: "examples/cifar10/cifar10_train_lmdb"
    batch_size: 111
    backend: LMDB
  }
}
layer {
  name: "conv0"
  type: "Convolution"
  bottom: "data"
  top: "conv0"
  param {
    lr_mult: 1
  }
  param {
    lr_mult: 2
  }
  convolution_param {
    num_output: 8
    pad: 2
    kernel_size: 3
    stride: 1
    weight_filler {
      type: "gaussian"
      std: 0.01
    }
    bias_filler {
      type: "constant"
    }
  }
}
layer {
  name: "Sigmoid0"
  type: "Sigmoid"
  bottom: "conv0"
  top: "Sigmoid0"
}
layer {
  name: "pool0"
  type: "Pooling"
  bottom: "Sigmoid0"
  top: "pool0"
  pooling_param {
    pool: AVE
    kernel_size: 3
    stride: 2
  }
}
layer {
  name: "ip1"
  type: "InnerProduct"
  bottom: "pool0"
  top: "ip1"
  param {
    lr_mult: 1
  }
  param {
    lr_mult: 2
  }
  inner_product_param {
    num_output: 10
    weight_filler {
      type: "gaussian"
      std: 0.01
    }
    bias_filler {
      type: "constant"
    }
  }
}
layer {
  name: "relu1"
  type: "ReLU"
  bottom: "ip1"
  top: "ip1"
}
layer {
  name: "ip2"
  type: "InnerProduct"
  bottom: "ip1"
  top: "ip2"
  param {
    lr_mult: 1
  }
  param {
    lr_mult: 2
  }
  inner_product_param {
    num_output: 160
    weight_filler {
      type: "gaussian"
      std: 0.01
    }
    bias_filler {
      type: "constant"
    }
  }
}
layer {
  name: "relu2"
  type: "ReLU"
  bottom: "ip2"
  top: "ip2"
}
layer {
  name: "ip3"
  type: "InnerProduct"
  bottom: "ip2"
  top: "ip3"
  param {
    lr_mult: 1
  }
  param {
    lr_mult: 2
  }
  inner_product_param {
    num_output: 10
    weight_filler {
      type: "gaussian"
      std: 0.01
    }
    bias_filler {
      type: "constant"
    }
  }
}
layer {
  name: "loss"
  type: "SoftmaxWithLoss"
  bottom: "ip3"
  bottom: "label"
  top: "loss"
}
I0430 21:31:14.413653 31000 layer_factory.hpp:77] Creating layer cifar
I0430 21:31:14.413754 31000 db_lmdb.cpp:35] Opened lmdb examples/cifar10/cifar10_train_lmdb
I0430 21:31:14.413782 31000 net.cpp:86] Creating Layer cifar
I0430 21:31:14.413791 31000 net.cpp:382] cifar -> data
I0430 21:31:14.413815 31000 net.cpp:382] cifar -> label
I0430 21:31:14.413827 31000 data_transformer.cpp:25] Loading mean file from: examples/cifar10/mean.binaryproto
I0430 21:31:14.415956 31000 data_layer.cpp:45] output data size: 111,3,32,32
I0430 21:31:14.423873 31000 net.cpp:124] Setting up cifar
I0430 21:31:14.423895 31000 net.cpp:131] Top shape: 111 3 32 32 (340992)
I0430 21:31:14.423902 31000 net.cpp:131] Top shape: 111 (111)
I0430 21:31:14.423905 31000 net.cpp:139] Memory required for data: 1364412
I0430 21:31:14.423913 31000 layer_factory.hpp:77] Creating layer conv0
I0430 21:31:14.423933 31000 net.cpp:86] Creating Layer conv0
I0430 21:31:14.423939 31000 net.cpp:408] conv0 <- data
I0430 21:31:14.423951 31000 net.cpp:382] conv0 -> conv0
I0430 21:31:14.713192 31000 net.cpp:124] Setting up conv0
I0430 21:31:14.713241 31000 net.cpp:131] Top shape: 111 8 34 34 (1026528)
I0430 21:31:14.713246 31000 net.cpp:139] Memory required for data: 5470524
I0430 21:31:14.713263 31000 layer_factory.hpp:77] Creating layer Sigmoid0
I0430 21:31:14.713276 31000 net.cpp:86] Creating Layer Sigmoid0
I0430 21:31:14.713280 31000 net.cpp:408] Sigmoid0 <- conv0
I0430 21:31:14.713286 31000 net.cpp:382] Sigmoid0 -> Sigmoid0
I0430 21:31:14.713477 31000 net.cpp:124] Setting up Sigmoid0
I0430 21:31:14.713487 31000 net.cpp:131] Top shape: 111 8 34 34 (1026528)
I0430 21:31:14.713491 31000 net.cpp:139] Memory required for data: 9576636
I0430 21:31:14.713495 31000 layer_factory.hpp:77] Creating layer pool0
I0430 21:31:14.713501 31000 net.cpp:86] Creating Layer pool0
I0430 21:31:14.713505 31000 net.cpp:408] pool0 <- Sigmoid0
I0430 21:31:14.713510 31000 net.cpp:382] pool0 -> pool0
I0430 21:31:14.714304 31000 net.cpp:124] Setting up pool0
I0430 21:31:14.714318 31000 net.cpp:131] Top shape: 111 8 17 17 (256632)
I0430 21:31:14.714323 31000 net.cpp:139] Memory required for data: 10603164
I0430 21:31:14.714326 31000 layer_factory.hpp:77] Creating layer ip1
I0430 21:31:14.714336 31000 net.cpp:86] Creating Layer ip1
I0430 21:31:14.714339 31000 net.cpp:408] ip1 <- pool0
I0430 21:31:14.714345 31000 net.cpp:382] ip1 -> ip1
I0430 21:31:14.715992 31000 net.cpp:124] Setting up ip1
I0430 21:31:14.716006 31000 net.cpp:131] Top shape: 111 10 (1110)
I0430 21:31:14.716011 31000 net.cpp:139] Memory required for data: 10607604
I0430 21:31:14.716019 31000 layer_factory.hpp:77] Creating layer relu1
I0430 21:31:14.716025 31000 net.cpp:86] Creating Layer relu1
I0430 21:31:14.716029 31000 net.cpp:408] relu1 <- ip1
I0430 21:31:14.716034 31000 net.cpp:369] relu1 -> ip1 (in-place)
I0430 21:31:14.716199 31000 net.cpp:124] Setting up relu1
I0430 21:31:14.716209 31000 net.cpp:131] Top shape: 111 10 (1110)
I0430 21:31:14.716212 31000 net.cpp:139] Memory required for data: 10612044
I0430 21:31:14.716215 31000 layer_factory.hpp:77] Creating layer ip2
I0430 21:31:14.716223 31000 net.cpp:86] Creating Layer ip2
I0430 21:31:14.716225 31000 net.cpp:408] ip2 <- ip1
I0430 21:31:14.716231 31000 net.cpp:382] ip2 -> ip2
I0430 21:31:14.716379 31000 net.cpp:124] Setting up ip2
I0430 21:31:14.716387 31000 net.cpp:131] Top shape: 111 160 (17760)
I0430 21:31:14.716390 31000 net.cpp:139] Memory required for data: 10683084
I0430 21:31:14.716398 31000 layer_factory.hpp:77] Creating layer relu2
I0430 21:31:14.716403 31000 net.cpp:86] Creating Layer relu2
I0430 21:31:14.716408 31000 net.cpp:408] relu2 <- ip2
I0430 21:31:14.716411 31000 net.cpp:369] relu2 -> ip2 (in-place)
I0430 21:31:14.716572 31000 net.cpp:124] Setting up relu2
I0430 21:31:14.716580 31000 net.cpp:131] Top shape: 111 160 (17760)
I0430 21:31:14.716584 31000 net.cpp:139] Memory required for data: 10754124
I0430 21:31:14.716588 31000 layer_factory.hpp:77] Creating layer ip3
I0430 21:31:14.716594 31000 net.cpp:86] Creating Layer ip3
I0430 21:31:14.716598 31000 net.cpp:408] ip3 <- ip2
I0430 21:31:14.716603 31000 net.cpp:382] ip3 -> ip3
I0430 21:31:14.716747 31000 net.cpp:124] Setting up ip3
I0430 21:31:14.716754 31000 net.cpp:131] Top shape: 111 10 (1110)
I0430 21:31:14.716758 31000 net.cpp:139] Memory required for data: 10758564
I0430 21:31:14.716763 31000 layer_factory.hpp:77] Creating layer loss
I0430 21:31:14.716769 31000 net.cpp:86] Creating Layer loss
I0430 21:31:14.716773 31000 net.cpp:408] loss <- ip3
I0430 21:31:14.716776 31000 net.cpp:408] loss <- label
I0430 21:31:14.716783 31000 net.cpp:382] loss -> loss
I0430 21:31:14.716801 31000 layer_factory.hpp:77] Creating layer loss
…
I0430 21:31:14.717439 31000 solver.cpp:173] Creating test net (#0) specified by net file: ECE595/cifar/train_test/var_everything/cifar_train_test_164.prototxt
I0430 21:31:14.717466 31000 net.cpp:296] The NetState phase (1) differed from the phase (0) specified by a rule in layer cifar
I0430 21:31:14.717555 31000 net.cpp:53] Initializing net from parameters: 
name: "CIFAR"
state {
  phase: TEST
}
layer {
  name: "cifar"
  type: "Data"
  top: "data"
  top: "label"
  include {
    phase: TEST
  }
  transform_param {
    mean_file: "examples/cifar10/mean.binaryproto"
  }
  data_param {
    source: "examples/cifar10/cifar10_test_lmdb"
    batch_size: 1000
    backend: LMDB
  }
}
layer {
  name: "conv0"
  type: "Convolution"
  bottom: "data"
  top: "conv0"
  param {
    lr_mult: 1
  }
  param {
    lr_mult: 2
  }
  convolution_param {
    num_output: 8
    pad: 2
    kernel_size: 3
    stride: 1
    weight_filler {
      type: "gaussian"
      std: 0.01
    }
    bias_filler {
      type: "constant"
    }
  }
}
layer {
  name: "Sigmoid0"
  type: "Sigmoid"
  bottom: "conv0"
  top: "Sigmoid0"
}
layer {
  name: "pool0"
  type: "Pooling"
  bottom: "Sigmoid0"
  top: "pool0"
  pooling_param {
    pool: AVE
    kernel_size: 3
    stride: 2
  }
}
layer {
  name: "ip1"
  type: "InnerProduct"
  bottom: "pool0"
  top: "ip1"
  param {
    lr_mult: 1
  }
  param {
    lr_mult: 2
  }
  inner_product_param {
    num_output: 10
    weight_filler {
      type: "gaussian"
      std: 0.01
    }
    bias_filler {
      type: "constant"
    }
  }
}
layer {
  name: "relu1"
  type: "ReLU"
  bottom: "ip1"
  top: "ip1"
}
layer {
  name: "ip2"
  type: "InnerProduct"
  bottom: "ip1"
  top: "ip2"
  param {
    lr_mult: 1
  }
  param {
    lr_mult: 2
  }
  inner_product_param {
    num_output: 160
    weight_filler {
      type: "gaussian"
      std: 0.01
    }
    bias_filler {
      type: "constant"
    }
  }
}
layer {
  name: "relu2"
  type: "ReLU"
  bottom: "ip2"
  top: "ip2"
}
layer {
  name: "ip3"
  type: "InnerProduct"
  bottom: "ip2"
  top: "ip3"
  param {
    lr_mult: 1
  }
  param {
    lr_mult: 2
  }
  inner_product_param {
    num_output: 10
    weight_filler {
      type: "gaussian"
      std: 0.01
    }
    bias_filler {
      type: "constant"
    }
  }
}
layer {
  name: "accuracy"
  type: "Accuracy"
  bottom: "ip3"
  bottom: "label"
  top: "accuracy"
  include {
    phase: TEST
  }
}
layer {
  name: "loss"
  type: "SoftmaxWithLoss"
  bottom: "ip3"
  bottom: "label"
  top: "loss"
}
I0430 21:31:14.717618 31000 layer_factory.hpp:77] Creating layer cifar
I0430 21:31:14.717664 31000 db_lmdb.cpp:35] Opened lmdb examples/cifar10/cifar10_test_lmdb
I0430 21:31:14.717677 31000 net.cpp:86] Creating Layer cifar
I0430 21:31:14.717681 31000 net.cpp:382] cifar -> data
I0430 21:31:14.717689 31000 net.cpp:382] cifar -> label
I0430 21:31:14.717696 31000 data_transformer.cpp:25] Loading mean file from: examples/cifar10/mean.binaryproto
I0430 21:31:14.717840 31000 data_layer.cpp:45] output data size: 1000,3,32,32
I0430 21:31:14.741251 31000 net.cpp:124] Setting up cifar
I0430 21:31:14.741277 31000 net.cpp:131] Top shape: 1000 3 32 32 (3072000)
I0430 21:31:14.741283 31000 net.cpp:131] Top shape: 1000 (1000)
I0430 21:31:14.741286 31000 net.cpp:139] Memory required for data: 12292000
I0430 21:31:14.741292 31000 layer_factory.hpp:77] Creating layer label_cifar_1_split
I0430 21:31:14.741317 31000 net.cpp:86] Creating Layer label_cifar_1_split
I0430 21:31:14.741354 31000 net.cpp:408] label_cifar_1_split <- label
I0430 21:31:14.741363 31000 net.cpp:382] label_cifar_1_split -> label_cifar_1_split_0
I0430 21:31:14.741372 31000 net.cpp:382] label_cifar_1_split -> label_cifar_1_split_1
I0430 21:31:14.741426 31000 net.cpp:124] Setting up label_cifar_1_split
I0430 21:31:14.741436 31000 net.cpp:131] Top shape: 1000 (1000)
I0430 21:31:14.741441 31000 net.cpp:131] Top shape: 1000 (1000)
I0430 21:31:14.741442 31000 net.cpp:139] Memory required for data: 12300000
I0430 21:31:14.741446 31000 layer_factory.hpp:77] Creating layer conv0
I0430 21:31:14.741458 31000 net.cpp:86] Creating Layer conv0
I0430 21:31:14.741461 31000 net.cpp:408] conv0 <- data
I0430 21:31:14.741467 31000 net.cpp:382] conv0 -> conv0
I0430 21:31:14.743031 31000 net.cpp:124] Setting up conv0
I0430 21:31:14.743062 31000 net.cpp:131] Top shape: 1000 8 34 34 (9248000)
I0430 21:31:14.743065 31000 net.cpp:139] Memory required for data: 49292000
I0430 21:31:14.743075 31000 layer_factory.hpp:77] Creating layer Sigmoid0
I0430 21:31:14.743083 31000 net.cpp:86] Creating Layer Sigmoid0
I0430 21:31:14.743085 31000 net.cpp:408] Sigmoid0 <- conv0
I0430 21:31:14.743090 31000 net.cpp:382] Sigmoid0 -> Sigmoid0
I0430 21:31:14.744967 31000 net.cpp:124] Setting up Sigmoid0
I0430 21:31:14.744997 31000 net.cpp:131] Top shape: 1000 8 34 34 (9248000)
I0430 21:31:14.745002 31000 net.cpp:139] Memory required for data: 86284000
I0430 21:31:14.745005 31000 layer_factory.hpp:77] Creating layer pool0
I0430 21:31:14.745014 31000 net.cpp:86] Creating Layer pool0
I0430 21:31:14.745018 31000 net.cpp:408] pool0 <- Sigmoid0
I0430 21:31:14.745024 31000 net.cpp:382] pool0 -> pool0
I0430 21:31:14.745259 31000 net.cpp:124] Setting up pool0
I0430 21:31:14.745267 31000 net.cpp:131] Top shape: 1000 8 17 17 (2312000)
I0430 21:31:14.745271 31000 net.cpp:139] Memory required for data: 95532000
I0430 21:31:14.745275 31000 layer_factory.hpp:77] Creating layer ip1
I0430 21:31:14.745282 31000 net.cpp:86] Creating Layer ip1
I0430 21:31:14.745286 31000 net.cpp:408] ip1 <- pool0
I0430 21:31:14.745291 31000 net.cpp:382] ip1 -> ip1
I0430 21:31:14.746050 31000 net.cpp:124] Setting up ip1
I0430 21:31:14.746058 31000 net.cpp:131] Top shape: 1000 10 (10000)
I0430 21:31:14.746062 31000 net.cpp:139] Memory required for data: 95572000
I0430 21:31:14.746069 31000 layer_factory.hpp:77] Creating layer relu1
I0430 21:31:14.746074 31000 net.cpp:86] Creating Layer relu1
I0430 21:31:14.746078 31000 net.cpp:408] relu1 <- ip1
I0430 21:31:14.746083 31000 net.cpp:369] relu1 -> ip1 (in-place)
I0430 21:31:14.746253 31000 net.cpp:124] Setting up relu1
I0430 21:31:14.746263 31000 net.cpp:131] Top shape: 1000 10 (10000)
I0430 21:31:14.746265 31000 net.cpp:139] Memory required for data: 95612000
I0430 21:31:14.746268 31000 layer_factory.hpp:77] Creating layer ip2
I0430 21:31:14.746274 31000 net.cpp:86] Creating Layer ip2
I0430 21:31:14.746279 31000 net.cpp:408] ip2 <- ip1
I0430 21:31:14.746284 31000 net.cpp:382] ip2 -> ip2
I0430 21:31:14.746433 31000 net.cpp:124] Setting up ip2
I0430 21:31:14.746441 31000 net.cpp:131] Top shape: 1000 160 (160000)
I0430 21:31:14.746445 31000 net.cpp:139] Memory required for data: 96252000
I0430 21:31:14.746454 31000 layer_factory.hpp:77] Creating layer relu2
I0430 21:31:14.746459 31000 net.cpp:86] Creating Layer relu2
I0430 21:31:14.746462 31000 net.cpp:408] relu2 <- ip2
I0430 21:31:14.746466 31000 net.cpp:369] relu2 -> ip2 (in-place)
I0430 21:31:14.746623 31000 net.cpp:124] Setting up relu2
I0430 21:31:14.746632 31000 net.cpp:131] Top shape: 1000 160 (160000)
I0430 21:31:14.746636 31000 net.cpp:139] Memory required for data: 96892000
I0430 21:31:14.746639 31000 layer_factory.hpp:77] Creating layer ip3
I0430 21:31:14.746645 31000 net.cpp:86] Creating Layer ip3
I0430 21:31:14.746649 31000 net.cpp:408] ip3 <- ip2
I0430 21:31:14.746654 31000 net.cpp:382] ip3 -> ip3
I0430 21:31:14.746798 31000 net.cpp:124] Setting up ip3
I0430 21:31:14.746806 31000 net.cpp:131] Top shape: 1000 10 (10000)
I0430 21:31:14.746809 31000 net.cpp:139] Memory required for data: 96932000
I0430 21:31:14.746825 31000 layer_factory.hpp:77] Creating layer ip3_ip3_0_split
I0430 21:31:14.746831 31000 net.cpp:86] Creating Layer ip3_ip3_0_split
I0430 21:31:14.746834 31000 net.cpp:408] ip3_ip3_0_split <- ip3
I0430 21:31:14.746840 31000 net.cpp:382] ip3_ip3_0_split -> ip3_ip3_0_split_0
I0430 21:31:14.746845 31000 net.cpp:382] ip3_ip3_0_split -> ip3_ip3_0_split_1
I0430 21:31:14.746878 31000 net.cpp:124] Setting up ip3_ip3_0_split
I0430 21:31:14.746883 31000 net.cpp:131] Top shape: 1000 10 (10000)
I0430 21:31:14.746887 31000 net.cpp:131] Top shape: 1000 10 (10000)
I0430 21:31:14.746891 31000 net.cpp:139] Memory required for data: 97012000
I0430 21:31:14.746892 31000 layer_factory.hpp:77] Creating layer accuracy
I0430 21:31:14.746898 31000 net.cpp:86] Creating Layer accuracy
I0430 21:31:14.746902 31000 net.cpp:408] accuracy <- ip3_ip3_0_split_0
I0430 21:31:14.746906 31000 net.cpp:408] accuracy <- label_cifar_1_split_0
I0430 21:31:14.746912 31000 net.cpp:382] accuracy -> accuracy
…
