…
I0430 19:12:26.029709 25401 net.cpp:296] The NetState phase (0) differed from the phase (1) specified by a rule in layer cifar
I0430 19:12:26.029726 25401 net.cpp:296] The NetState phase (0) differed from the phase (1) specified by a rule in layer accuracy
I0430 19:12:26.029811 25401 net.cpp:53] Initializing net from parameters: 
name: "CIFAR"
state {
  phase: TRAIN
  level: 0
  stage: ""
}
layer {
  name: "cifar"
  type: "Data"
  top: "data"
  top: "label"
  include {
    phase: TRAIN
  }
  transform_param {
    mean_file: "examples/cifar10/mean.binaryproto"
  }
  data_param {
    source: "examples/cifar10/cifar10_train_lmdb"
    batch_size: 111
    backend: LMDB
  }
}
layer {
  name: "ip1"
  type: "InnerProduct"
  bottom: "data"
  top: "ip1"
  param {
    lr_mult: 1
  }
  param {
    lr_mult: 2
  }
  inner_product_param {
    num_output: 40
    weight_filler {
      type: "gaussian"
      std: 0.01
    }
    bias_filler {
      type: "constant"
    }
  }
}
layer {
  name: "relu1"
  type: "ReLU"
  bottom: "ip1"
  top: "ip1"
}
layer {
  name: "ip2"
  type: "InnerProduct"
  bottom: "ip1"
  top: "ip2"
  param {
    lr_mult: 1
  }
  param {
    lr_mult: 2
  }
  inner_product_param {
    num_output: 40
    weight_filler {
      type: "gaussian"
      std: 0.01
    }
    bias_filler {
      type: "constant"
    }
  }
}
layer {
  name: "relu2"
  type: "ReLU"
  bottom: "ip2"
  top: "ip2"
}
layer {
  name: "ip3"
  type: "InnerProduct"
  bottom: "ip2"
  top: "ip3"
  param {
    lr_mult: 1
  }
  param {
    lr_mult: 2
  }
  inner_product_param {
    num_output: 10
    weight_filler {
      type: "gaussian"
      std: 0.01
    }
    bias_filler {
      type: "constant"
    }
  }
}
layer {
  name: "relu3"
  type: "ReLU"
  bottom: "ip3"
  top: "ip3"
}
layer {
  name: "ip4"
  type: "InnerProduct"
  bottom: "ip3"
  top: "ip4"
  param {
    lr_mult: 1
  }
  param {
    lr_mult: 2
  }
  inner_product_param {
    num_output: 10
    weight_filler {
      type: "gaussian"
      std: 0.01
    }
    bias_filler {
      type: "constant"
    }
  }
}
layer {
  name: "loss"
  type: "SoftmaxWithLoss"
  bottom: "ip4"
  bottom: "label"
  top: "loss"
}
I0430 19:12:26.029880 25401 layer_factory.hpp:77] Creating layer cifar
I0430 19:12:26.029979 25401 db_lmdb.cpp:35] Opened lmdb examples/cifar10/cifar10_train_lmdb
I0430 19:12:26.030006 25401 net.cpp:86] Creating Layer cifar
I0430 19:12:26.030014 25401 net.cpp:382] cifar -> data
I0430 19:12:26.030038 25401 net.cpp:382] cifar -> label
I0430 19:12:26.030051 25401 data_transformer.cpp:25] Loading mean file from: examples/cifar10/mean.binaryproto
I0430 19:12:26.032157 25401 data_layer.cpp:45] output data size: 111,3,32,32
I0430 19:12:26.040031 25401 net.cpp:124] Setting up cifar
I0430 19:12:26.040050 25401 net.cpp:131] Top shape: 111 3 32 32 (340992)
I0430 19:12:26.040057 25401 net.cpp:131] Top shape: 111 (111)
I0430 19:12:26.040060 25401 net.cpp:139] Memory required for data: 1364412
I0430 19:12:26.040068 25401 layer_factory.hpp:77] Creating layer ip1
I0430 19:12:26.040081 25401 net.cpp:86] Creating Layer ip1
I0430 19:12:26.040087 25401 net.cpp:408] ip1 <- data
I0430 19:12:26.040099 25401 net.cpp:382] ip1 -> ip1
I0430 19:12:26.044342 25401 net.cpp:124] Setting up ip1
I0430 19:12:26.044355 25401 net.cpp:131] Top shape: 111 40 (4440)
I0430 19:12:26.044359 25401 net.cpp:139] Memory required for data: 1382172
I0430 19:12:26.044373 25401 layer_factory.hpp:77] Creating layer relu1
I0430 19:12:26.044380 25401 net.cpp:86] Creating Layer relu1
I0430 19:12:26.044400 25401 net.cpp:408] relu1 <- ip1
I0430 19:12:26.044409 25401 net.cpp:369] relu1 -> ip1 (in-place)
I0430 19:12:26.325220 25401 net.cpp:124] Setting up relu1
I0430 19:12:26.325248 25401 net.cpp:131] Top shape: 111 40 (4440)
I0430 19:12:26.325253 25401 net.cpp:139] Memory required for data: 1399932
I0430 19:12:26.325258 25401 layer_factory.hpp:77] Creating layer ip2
I0430 19:12:26.325270 25401 net.cpp:86] Creating Layer ip2
I0430 19:12:26.325275 25401 net.cpp:408] ip2 <- ip1
I0430 19:12:26.325283 25401 net.cpp:382] ip2 -> ip2
I0430 19:12:26.325443 25401 net.cpp:124] Setting up ip2
I0430 19:12:26.325453 25401 net.cpp:131] Top shape: 111 40 (4440)
I0430 19:12:26.325456 25401 net.cpp:139] Memory required for data: 1417692
I0430 19:12:26.325465 25401 layer_factory.hpp:77] Creating layer relu2
I0430 19:12:26.325474 25401 net.cpp:86] Creating Layer relu2
I0430 19:12:26.325476 25401 net.cpp:408] relu2 <- ip2
I0430 19:12:26.325481 25401 net.cpp:369] relu2 -> ip2 (in-place)
I0430 19:12:26.326231 25401 net.cpp:124] Setting up relu2
I0430 19:12:26.326244 25401 net.cpp:131] Top shape: 111 40 (4440)
I0430 19:12:26.326248 25401 net.cpp:139] Memory required for data: 1435452
I0430 19:12:26.326251 25401 layer_factory.hpp:77] Creating layer ip3
I0430 19:12:26.326258 25401 net.cpp:86] Creating Layer ip3
I0430 19:12:26.326262 25401 net.cpp:408] ip3 <- ip2
I0430 19:12:26.326267 25401 net.cpp:382] ip3 -> ip3
I0430 19:12:26.327234 25401 net.cpp:124] Setting up ip3
I0430 19:12:26.327246 25401 net.cpp:131] Top shape: 111 10 (1110)
I0430 19:12:26.327250 25401 net.cpp:139] Memory required for data: 1439892
I0430 19:12:26.327258 25401 layer_factory.hpp:77] Creating layer relu3
I0430 19:12:26.327265 25401 net.cpp:86] Creating Layer relu3
I0430 19:12:26.327267 25401 net.cpp:408] relu3 <- ip3
I0430 19:12:26.327272 25401 net.cpp:369] relu3 -> ip3 (in-place)
I0430 19:12:26.327430 25401 net.cpp:124] Setting up relu3
I0430 19:12:26.327438 25401 net.cpp:131] Top shape: 111 10 (1110)
I0430 19:12:26.327441 25401 net.cpp:139] Memory required for data: 1444332
I0430 19:12:26.327445 25401 layer_factory.hpp:77] Creating layer ip4
I0430 19:12:26.327451 25401 net.cpp:86] Creating Layer ip4
I0430 19:12:26.327455 25401 net.cpp:408] ip4 <- ip3
I0430 19:12:26.327460 25401 net.cpp:382] ip4 -> ip4
I0430 19:12:26.327555 25401 net.cpp:124] Setting up ip4
I0430 19:12:26.327563 25401 net.cpp:131] Top shape: 111 10 (1110)
I0430 19:12:26.327566 25401 net.cpp:139] Memory required for data: 1448772
I0430 19:12:26.327571 25401 layer_factory.hpp:77] Creating layer loss
I0430 19:12:26.327579 25401 net.cpp:86] Creating Layer loss
I0430 19:12:26.327581 25401 net.cpp:408] loss <- ip4
I0430 19:12:26.327585 25401 net.cpp:408] loss <- label
I0430 19:12:26.327590 25401 net.cpp:382] loss -> loss
I0430 19:12:26.327610 25401 layer_factory.hpp:77] Creating layer loss
…
I0430 19:12:26.328164 25401 solver.cpp:173] Creating test net (#0) specified by net file: ECE595/cifar/train_test/var_everything/cifar_train_test_90.prototxt
I0430 19:12:26.328202 25401 net.cpp:296] The NetState phase (1) differed from the phase (0) specified by a rule in layer cifar
I0430 19:12:26.328279 25401 net.cpp:53] Initializing net from parameters: 
name: "CIFAR"
state {
  phase: TEST
}
layer {
  name: "cifar"
  type: "Data"
  top: "data"
  top: "label"
  include {
    phase: TEST
  }
  transform_param {
    mean_file: "examples/cifar10/mean.binaryproto"
  }
  data_param {
    source: "examples/cifar10/cifar10_test_lmdb"
    batch_size: 1000
    backend: LMDB
  }
}
layer {
  name: "ip1"
  type: "InnerProduct"
  bottom: "data"
  top: "ip1"
  param {
    lr_mult: 1
  }
  param {
    lr_mult: 2
  }
  inner_product_param {
    num_output: 40
    weight_filler {
      type: "gaussian"
      std: 0.01
    }
    bias_filler {
      type: "constant"
    }
  }
}
layer {
  name: "relu1"
  type: "ReLU"
  bottom: "ip1"
  top: "ip1"
}
layer {
  name: "ip2"
  type: "InnerProduct"
  bottom: "ip1"
  top: "ip2"
  param {
    lr_mult: 1
  }
  param {
    lr_mult: 2
  }
  inner_product_param {
    num_output: 40
    weight_filler {
      type: "gaussian"
      std: 0.01
    }
    bias_filler {
      type: "constant"
    }
  }
}
layer {
  name: "relu2"
  type: "ReLU"
  bottom: "ip2"
  top: "ip2"
}
layer {
  name: "ip3"
  type: "InnerProduct"
  bottom: "ip2"
  top: "ip3"
  param {
    lr_mult: 1
  }
  param {
    lr_mult: 2
  }
  inner_product_param {
    num_output: 10
    weight_filler {
      type: "gaussian"
      std: 0.01
    }
    bias_filler {
      type: "constant"
    }
  }
}
layer {
  name: "relu3"
  type: "ReLU"
  bottom: "ip3"
  top: "ip3"
}
layer {
  name: "ip4"
  type: "InnerProduct"
  bottom: "ip3"
  top: "ip4"
  param {
    lr_mult: 1
  }
  param {
    lr_mult: 2
  }
  inner_product_param {
    num_output: 10
    weight_filler {
      type: "gaussian"
      std: 0.01
    }
    bias_filler {
      type: "constant"
    }
  }
}
layer {
  name: "accuracy"
  type: "Accuracy"
  bottom: "ip4"
  bottom: "label"
  top: "accuracy"
  include {
    phase: TEST
  }
}
layer {
  name: "loss"
  type: "SoftmaxWithLoss"
  bottom: "ip4"
  bottom: "label"
  top: "loss"
}
I0430 19:12:26.328338 25401 layer_factory.hpp:77] Creating layer cifar
I0430 19:12:26.328385 25401 db_lmdb.cpp:35] Opened lmdb examples/cifar10/cifar10_test_lmdb
I0430 19:12:26.328397 25401 net.cpp:86] Creating Layer cifar
I0430 19:12:26.328402 25401 net.cpp:382] cifar -> data
I0430 19:12:26.328409 25401 net.cpp:382] cifar -> label
I0430 19:12:26.328416 25401 data_transformer.cpp:25] Loading mean file from: examples/cifar10/mean.binaryproto
I0430 19:12:26.328558 25401 data_layer.cpp:45] output data size: 1000,3,32,32
I0430 19:12:26.350585 25401 net.cpp:124] Setting up cifar
I0430 19:12:26.350628 25401 net.cpp:131] Top shape: 1000 3 32 32 (3072000)
I0430 19:12:26.350636 25401 net.cpp:131] Top shape: 1000 (1000)
I0430 19:12:26.350638 25401 net.cpp:139] Memory required for data: 12292000
I0430 19:12:26.350643 25401 layer_factory.hpp:77] Creating layer label_cifar_1_split
I0430 19:12:26.350675 25401 net.cpp:86] Creating Layer label_cifar_1_split
I0430 19:12:26.350679 25401 net.cpp:408] label_cifar_1_split <- label
I0430 19:12:26.350685 25401 net.cpp:382] label_cifar_1_split -> label_cifar_1_split_0
I0430 19:12:26.350693 25401 net.cpp:382] label_cifar_1_split -> label_cifar_1_split_1
I0430 19:12:26.350802 25401 net.cpp:124] Setting up label_cifar_1_split
I0430 19:12:26.350811 25401 net.cpp:131] Top shape: 1000 (1000)
I0430 19:12:26.350814 25401 net.cpp:131] Top shape: 1000 (1000)
I0430 19:12:26.350817 25401 net.cpp:139] Memory required for data: 12300000
I0430 19:12:26.350821 25401 layer_factory.hpp:77] Creating layer ip1
I0430 19:12:26.350831 25401 net.cpp:86] Creating Layer ip1
I0430 19:12:26.350833 25401 net.cpp:408] ip1 <- data
I0430 19:12:26.350838 25401 net.cpp:382] ip1 -> ip1
I0430 19:12:26.354323 25401 net.cpp:124] Setting up ip1
I0430 19:12:26.354334 25401 net.cpp:131] Top shape: 1000 40 (40000)
I0430 19:12:26.354338 25401 net.cpp:139] Memory required for data: 12460000
I0430 19:12:26.354363 25401 layer_factory.hpp:77] Creating layer relu1
I0430 19:12:26.354387 25401 net.cpp:86] Creating Layer relu1
I0430 19:12:26.354391 25401 net.cpp:408] relu1 <- ip1
I0430 19:12:26.354395 25401 net.cpp:369] relu1 -> ip1 (in-place)
I0430 19:12:26.355182 25401 net.cpp:124] Setting up relu1
I0430 19:12:26.355195 25401 net.cpp:131] Top shape: 1000 40 (40000)
I0430 19:12:26.355198 25401 net.cpp:139] Memory required for data: 12620000
I0430 19:12:26.355201 25401 layer_factory.hpp:77] Creating layer ip2
I0430 19:12:26.355226 25401 net.cpp:86] Creating Layer ip2
I0430 19:12:26.355232 25401 net.cpp:408] ip2 <- ip1
I0430 19:12:26.355237 25401 net.cpp:382] ip2 -> ip2
I0430 19:12:26.355381 25401 net.cpp:124] Setting up ip2
I0430 19:12:26.355387 25401 net.cpp:131] Top shape: 1000 40 (40000)
I0430 19:12:26.355391 25401 net.cpp:139] Memory required for data: 12780000
I0430 19:12:26.355398 25401 layer_factory.hpp:77] Creating layer relu2
I0430 19:12:26.355404 25401 net.cpp:86] Creating Layer relu2
I0430 19:12:26.355407 25401 net.cpp:408] relu2 <- ip2
I0430 19:12:26.355412 25401 net.cpp:369] relu2 -> ip2 (in-place)
I0430 19:12:26.355562 25401 net.cpp:124] Setting up relu2
I0430 19:12:26.355571 25401 net.cpp:131] Top shape: 1000 40 (40000)
I0430 19:12:26.355573 25401 net.cpp:139] Memory required for data: 12940000
I0430 19:12:26.355576 25401 layer_factory.hpp:77] Creating layer ip3
I0430 19:12:26.355584 25401 net.cpp:86] Creating Layer ip3
I0430 19:12:26.355588 25401 net.cpp:408] ip3 <- ip2
I0430 19:12:26.355592 25401 net.cpp:382] ip3 -> ip3
I0430 19:12:26.355703 25401 net.cpp:124] Setting up ip3
I0430 19:12:26.355710 25401 net.cpp:131] Top shape: 1000 10 (10000)
I0430 19:12:26.355713 25401 net.cpp:139] Memory required for data: 12980000
I0430 19:12:26.355720 25401 layer_factory.hpp:77] Creating layer relu3
I0430 19:12:26.355726 25401 net.cpp:86] Creating Layer relu3
I0430 19:12:26.355731 25401 net.cpp:408] relu3 <- ip3
I0430 19:12:26.355734 25401 net.cpp:369] relu3 -> ip3 (in-place)
I0430 19:12:26.355885 25401 net.cpp:124] Setting up relu3
I0430 19:12:26.355895 25401 net.cpp:131] Top shape: 1000 10 (10000)
I0430 19:12:26.355897 25401 net.cpp:139] Memory required for data: 13020000
I0430 19:12:26.355901 25401 layer_factory.hpp:77] Creating layer ip4
I0430 19:12:26.355908 25401 net.cpp:86] Creating Layer ip4
I0430 19:12:26.355911 25401 net.cpp:408] ip4 <- ip3
I0430 19:12:26.355917 25401 net.cpp:382] ip4 -> ip4
I0430 19:12:26.356019 25401 net.cpp:124] Setting up ip4
I0430 19:12:26.356026 25401 net.cpp:131] Top shape: 1000 10 (10000)
I0430 19:12:26.356029 25401 net.cpp:139] Memory required for data: 13060000
I0430 19:12:26.356034 25401 layer_factory.hpp:77] Creating layer ip4_ip4_0_split
I0430 19:12:26.356040 25401 net.cpp:86] Creating Layer ip4_ip4_0_split
I0430 19:12:26.356042 25401 net.cpp:408] ip4_ip4_0_split <- ip4
I0430 19:12:26.356055 25401 net.cpp:382] ip4_ip4_0_split -> ip4_ip4_0_split_0
I0430 19:12:26.356061 25401 net.cpp:382] ip4_ip4_0_split -> ip4_ip4_0_split_1
I0430 19:12:26.356093 25401 net.cpp:124] Setting up ip4_ip4_0_split
I0430 19:12:26.356099 25401 net.cpp:131] Top shape: 1000 10 (10000)
I0430 19:12:26.356102 25401 net.cpp:131] Top shape: 1000 10 (10000)
I0430 19:12:26.356106 25401 net.cpp:139] Memory required for data: 13140000
I0430 19:12:26.356107 25401 layer_factory.hpp:77] Creating layer accuracy
I0430 19:12:26.356113 25401 net.cpp:86] Creating Layer accuracy
I0430 19:12:26.356117 25401 net.cpp:408] accuracy <- ip4_ip4_0_split_0
I0430 19:12:26.356122 25401 net.cpp:408] accuracy <- label_cifar_1_split_0
I0430 19:12:26.356125 25401 net.cpp:382] accuracy -> accuracy
…
