…
I0501 06:19:56.673679 32480 net.cpp:296] The NetState phase (0) differed from the phase (1) specified by a rule in layer cifar
I0501 06:19:56.673704 32480 net.cpp:296] The NetState phase (0) differed from the phase (1) specified by a rule in layer accuracy
I0501 06:19:56.673818 32480 net.cpp:53] Initializing net from parameters: 
name: "CIFAR"
state {
  phase: TRAIN
  level: 0
  stage: ""
}
layer {
  name: "cifar"
  type: "Data"
  top: "data"
  top: "label"
  include {
    phase: TRAIN
  }
  transform_param {
    mean_file: "examples/cifar10/mean.binaryproto"
  }
  data_param {
    source: "examples/cifar10/cifar10_train_lmdb"
    batch_size: 111
    backend: LMDB
  }
}
layer {
  name: "conv0"
  type: "Convolution"
  bottom: "data"
  top: "conv0"
  param {
    lr_mult: 1
  }
  param {
    lr_mult: 2
  }
  convolution_param {
    num_output: 8
    pad: 2
    kernel_size: 5
    stride: 1
    weight_filler {
      type: "gaussian"
      std: 0.01
    }
    bias_filler {
      type: "constant"
    }
  }
}
layer {
  name: "Sigmoid0"
  type: "Sigmoid"
  bottom: "conv0"
  top: "Sigmoid0"
}
layer {
  name: "pool0"
  type: "Pooling"
  bottom: "Sigmoid0"
  top: "pool0"
  pooling_param {
    pool: AVE
    kernel_size: 3
    stride: 2
  }
}
layer {
  name: "ip1"
  type: "InnerProduct"
  bottom: "pool0"
  top: "ip1"
  param {
    lr_mult: 1
  }
  param {
    lr_mult: 2
  }
  inner_product_param {
    num_output: 160
    weight_filler {
      type: "gaussian"
      std: 0.01
    }
    bias_filler {
      type: "constant"
    }
  }
}
layer {
  name: "relu1"
  type: "ReLU"
  bottom: "ip1"
  top: "ip1"
}
layer {
  name: "ip2"
  type: "InnerProduct"
  bottom: "ip1"
  top: "ip2"
  param {
    lr_mult: 1
  }
  param {
    lr_mult: 2
  }
  inner_product_param {
    num_output: 20
    weight_filler {
      type: "gaussian"
      std: 0.01
    }
    bias_filler {
      type: "constant"
    }
  }
}
layer {
  name: "relu2"
  type: "ReLU"
  bottom: "ip2"
  top: "ip2"
}
layer {
  name: "ip3"
  type: "InnerProduct"
  bottom: "ip2"
  top: "ip3"
  param {
    lr_mult: 1
  }
  param {
    lr_mult: 2
  }
  inner_product_param {
    num_output: 40
    weight_filler {
      type: "gaussian"
      std: 0.01
    }
    bias_filler {
      type: "constant"
    }
  }
}
layer {
  name: "relu3"
  type: "ReLU"
  bottom: "ip3"
  top: "ip3"
}
layer {
  name: "ip4"
  type: "InnerProduct"
  bottom: "ip3"
  top: "ip4"
  param {
    lr_mult: 1
  }
  param {
    lr_mult: 2
  }
  inner_product_param {
    num_output: 10
    weight_filler {
      type: "gaussian"
      std: 0.01
    }
    bias_filler {
      type: "constant"
    }
  }
}
layer {
  name: "loss"
  type: "SoftmaxWithLoss"
  bottom: "ip4"
  bottom: "label"
  top: "loss"
}
I0501 06:19:56.673899 32480 layer_factory.hpp:77] Creating layer cifar
I0501 06:19:56.674000 32480 db_lmdb.cpp:35] Opened lmdb examples/cifar10/cifar10_train_lmdb
I0501 06:19:56.674031 32480 net.cpp:86] Creating Layer cifar
I0501 06:19:56.674041 32480 net.cpp:382] cifar -> data
I0501 06:19:56.674063 32480 net.cpp:382] cifar -> label
I0501 06:19:56.674082 32480 data_transformer.cpp:25] Loading mean file from: examples/cifar10/mean.binaryproto
I0501 06:19:56.676234 32480 data_layer.cpp:45] output data size: 111,3,32,32
I0501 06:19:56.684216 32480 net.cpp:124] Setting up cifar
I0501 06:19:56.684236 32480 net.cpp:131] Top shape: 111 3 32 32 (340992)
I0501 06:19:56.684243 32480 net.cpp:131] Top shape: 111 (111)
I0501 06:19:56.684247 32480 net.cpp:139] Memory required for data: 1364412
I0501 06:19:56.684270 32480 layer_factory.hpp:77] Creating layer conv0
I0501 06:19:56.684288 32480 net.cpp:86] Creating Layer conv0
I0501 06:19:56.684296 32480 net.cpp:408] conv0 <- data
I0501 06:19:56.684310 32480 net.cpp:382] conv0 -> conv0
I0501 06:19:56.975662 32480 net.cpp:124] Setting up conv0
I0501 06:19:56.975692 32480 net.cpp:131] Top shape: 111 8 32 32 (909312)
I0501 06:19:56.975697 32480 net.cpp:139] Memory required for data: 5001660
I0501 06:19:56.975713 32480 layer_factory.hpp:77] Creating layer Sigmoid0
I0501 06:19:56.975726 32480 net.cpp:86] Creating Layer Sigmoid0
I0501 06:19:56.975731 32480 net.cpp:408] Sigmoid0 <- conv0
I0501 06:19:56.975738 32480 net.cpp:382] Sigmoid0 -> Sigmoid0
I0501 06:19:56.975925 32480 net.cpp:124] Setting up Sigmoid0
I0501 06:19:56.975936 32480 net.cpp:131] Top shape: 111 8 32 32 (909312)
I0501 06:19:56.975940 32480 net.cpp:139] Memory required for data: 8638908
I0501 06:19:56.975944 32480 layer_factory.hpp:77] Creating layer pool0
I0501 06:19:56.975951 32480 net.cpp:86] Creating Layer pool0
I0501 06:19:56.975955 32480 net.cpp:408] pool0 <- Sigmoid0
I0501 06:19:56.975960 32480 net.cpp:382] pool0 -> pool0
I0501 06:19:56.976775 32480 net.cpp:124] Setting up pool0
I0501 06:19:56.976789 32480 net.cpp:131] Top shape: 111 8 16 16 (227328)
I0501 06:19:56.976794 32480 net.cpp:139] Memory required for data: 9548220
I0501 06:19:56.976797 32480 layer_factory.hpp:77] Creating layer ip1
I0501 06:19:56.976807 32480 net.cpp:86] Creating Layer ip1
I0501 06:19:56.976819 32480 net.cpp:408] ip1 <- pool0
I0501 06:19:56.976826 32480 net.cpp:382] ip1 -> ip1
I0501 06:19:56.987306 32480 net.cpp:124] Setting up ip1
I0501 06:19:56.987320 32480 net.cpp:131] Top shape: 111 160 (17760)
I0501 06:19:56.987324 32480 net.cpp:139] Memory required for data: 9619260
I0501 06:19:56.987332 32480 layer_factory.hpp:77] Creating layer relu1
I0501 06:19:56.987339 32480 net.cpp:86] Creating Layer relu1
I0501 06:19:56.987342 32480 net.cpp:408] relu1 <- ip1
I0501 06:19:56.987347 32480 net.cpp:369] relu1 -> ip1 (in-place)
I0501 06:19:56.987514 32480 net.cpp:124] Setting up relu1
I0501 06:19:56.987522 32480 net.cpp:131] Top shape: 111 160 (17760)
I0501 06:19:56.987526 32480 net.cpp:139] Memory required for data: 9690300
I0501 06:19:56.987529 32480 layer_factory.hpp:77] Creating layer ip2
I0501 06:19:56.987536 32480 net.cpp:86] Creating Layer ip2
I0501 06:19:56.987540 32480 net.cpp:408] ip2 <- ip1
I0501 06:19:56.987545 32480 net.cpp:382] ip2 -> ip2
I0501 06:19:56.987737 32480 net.cpp:124] Setting up ip2
I0501 06:19:56.987746 32480 net.cpp:131] Top shape: 111 20 (2220)
I0501 06:19:56.987749 32480 net.cpp:139] Memory required for data: 9699180
I0501 06:19:56.987756 32480 layer_factory.hpp:77] Creating layer relu2
I0501 06:19:56.987761 32480 net.cpp:86] Creating Layer relu2
I0501 06:19:56.987766 32480 net.cpp:408] relu2 <- ip2
I0501 06:19:56.987769 32480 net.cpp:369] relu2 -> ip2 (in-place)
I0501 06:19:56.987931 32480 net.cpp:124] Setting up relu2
I0501 06:19:56.987941 32480 net.cpp:131] Top shape: 111 20 (2220)
I0501 06:19:56.987944 32480 net.cpp:139] Memory required for data: 9708060
I0501 06:19:56.987947 32480 layer_factory.hpp:77] Creating layer ip3
I0501 06:19:56.987956 32480 net.cpp:86] Creating Layer ip3
I0501 06:19:56.987958 32480 net.cpp:408] ip3 <- ip2
I0501 06:19:56.987964 32480 net.cpp:382] ip3 -> ip3
I0501 06:19:56.988091 32480 net.cpp:124] Setting up ip3
I0501 06:19:56.988098 32480 net.cpp:131] Top shape: 111 40 (4440)
I0501 06:19:56.988101 32480 net.cpp:139] Memory required for data: 9725820
I0501 06:19:56.988107 32480 layer_factory.hpp:77] Creating layer relu3
I0501 06:19:56.988112 32480 net.cpp:86] Creating Layer relu3
I0501 06:19:56.988116 32480 net.cpp:408] relu3 <- ip3
I0501 06:19:56.988121 32480 net.cpp:369] relu3 -> ip3 (in-place)
I0501 06:19:56.988287 32480 net.cpp:124] Setting up relu3
I0501 06:19:56.988296 32480 net.cpp:131] Top shape: 111 40 (4440)
I0501 06:19:56.988299 32480 net.cpp:139] Memory required for data: 9743580
I0501 06:19:56.988302 32480 layer_factory.hpp:77] Creating layer ip4
I0501 06:19:56.988324 32480 net.cpp:86] Creating Layer ip4
I0501 06:19:56.988327 32480 net.cpp:408] ip4 <- ip3
I0501 06:19:56.988333 32480 net.cpp:382] ip4 -> ip4
I0501 06:19:56.988452 32480 net.cpp:124] Setting up ip4
I0501 06:19:56.988461 32480 net.cpp:131] Top shape: 111 10 (1110)
I0501 06:19:56.988463 32480 net.cpp:139] Memory required for data: 9748020
I0501 06:19:56.988471 32480 layer_factory.hpp:77] Creating layer loss
I0501 06:19:56.988478 32480 net.cpp:86] Creating Layer loss
I0501 06:19:56.988481 32480 net.cpp:408] loss <- ip4
I0501 06:19:56.988486 32480 net.cpp:408] loss <- label
I0501 06:19:56.988490 32480 net.cpp:382] loss -> loss
I0501 06:19:56.988504 32480 layer_factory.hpp:77] Creating layer loss
…
I0501 06:19:56.989796 32480 solver.cpp:173] Creating test net (#0) specified by net file: ECE595/cifar/train_test/var_everything/cifar_train_test_447.prototxt
I0501 06:19:56.989825 32480 net.cpp:296] The NetState phase (1) differed from the phase (0) specified by a rule in layer cifar
I0501 06:19:56.989926 32480 net.cpp:53] Initializing net from parameters: 
name: "CIFAR"
state {
  phase: TEST
}
layer {
  name: "cifar"
  type: "Data"
  top: "data"
  top: "label"
  include {
    phase: TEST
  }
  transform_param {
    mean_file: "examples/cifar10/mean.binaryproto"
  }
  data_param {
    source: "examples/cifar10/cifar10_test_lmdb"
    batch_size: 1000
    backend: LMDB
  }
}
layer {
  name: "conv0"
  type: "Convolution"
  bottom: "data"
  top: "conv0"
  param {
    lr_mult: 1
  }
  param {
    lr_mult: 2
  }
  convolution_param {
    num_output: 8
    pad: 2
    kernel_size: 5
    stride: 1
    weight_filler {
      type: "gaussian"
      std: 0.01
    }
    bias_filler {
      type: "constant"
    }
  }
}
layer {
  name: "Sigmoid0"
  type: "Sigmoid"
  bottom: "conv0"
  top: "Sigmoid0"
}
layer {
  name: "pool0"
  type: "Pooling"
  bottom: "Sigmoid0"
  top: "pool0"
  pooling_param {
    pool: AVE
    kernel_size: 3
    stride: 2
  }
}
layer {
  name: "ip1"
  type: "InnerProduct"
  bottom: "pool0"
  top: "ip1"
  param {
    lr_mult: 1
  }
  param {
    lr_mult: 2
  }
  inner_product_param {
    num_output: 160
    weight_filler {
      type: "gaussian"
      std: 0.01
    }
    bias_filler {
      type: "constant"
    }
  }
}
layer {
  name: "relu1"
  type: "ReLU"
  bottom: "ip1"
  top: "ip1"
}
layer {
  name: "ip2"
  type: "InnerProduct"
  bottom: "ip1"
  top: "ip2"
  param {
    lr_mult: 1
  }
  param {
    lr_mult: 2
  }
  inner_product_param {
    num_output: 20
    weight_filler {
      type: "gaussian"
      std: 0.01
    }
    bias_filler {
      type: "constant"
    }
  }
}
layer {
  name: "relu2"
  type: "ReLU"
  bottom: "ip2"
  top: "ip2"
}
layer {
  name: "ip3"
  type: "InnerProduct"
  bottom: "ip2"
  top: "ip3"
  param {
    lr_mult: 1
  }
  param {
    lr_mult: 2
  }
  inner_product_param {
    num_output: 40
    weight_filler {
      type: "gaussian"
      std: 0.01
    }
    bias_filler {
      type: "constant"
    }
  }
}
layer {
  name: "relu3"
  type: "ReLU"
  bottom: "ip3"
  top: "ip3"
}
layer {
  name: "ip4"
  type: "InnerProduct"
  bottom: "ip3"
  top: "ip4"
  param {
    lr_mult: 1
  }
  param {
    lr_mult: 2
  }
  inner_product_param {
    num_output: 10
    weight_filler {
      type: "gaussian"
      std: 0.01
    }
    bias_filler {
      type: "constant"
    }
  }
}
layer {
  name: "accuracy"
  type: "Accuracy"
  bottom: "ip4"
  bottom: "label"
  top: "accuracy"
  include {
    phase: TEST
  }
}
layer {
  name: "loss"
  type: "SoftmaxWithLoss"
  bottom: "ip4"
  bottom: "label"
  top: "loss"
}
I0501 06:19:56.990012 32480 layer_factory.hpp:77] Creating layer cifar
I0501 06:19:56.990057 32480 db_lmdb.cpp:35] Opened lmdb examples/cifar10/cifar10_test_lmdb
I0501 06:19:56.990069 32480 net.cpp:86] Creating Layer cifar
I0501 06:19:56.990077 32480 net.cpp:382] cifar -> data
I0501 06:19:56.990084 32480 net.cpp:382] cifar -> label
I0501 06:19:56.990092 32480 data_transformer.cpp:25] Loading mean file from: examples/cifar10/mean.binaryproto
I0501 06:19:56.990245 32480 data_layer.cpp:45] output data size: 1000,3,32,32
I0501 06:19:57.012799 32480 net.cpp:124] Setting up cifar
I0501 06:19:57.012830 32480 net.cpp:131] Top shape: 1000 3 32 32 (3072000)
I0501 06:19:57.012835 32480 net.cpp:131] Top shape: 1000 (1000)
I0501 06:19:57.012838 32480 net.cpp:139] Memory required for data: 12292000
I0501 06:19:57.012843 32480 layer_factory.hpp:77] Creating layer label_cifar_1_split
I0501 06:19:57.012854 32480 net.cpp:86] Creating Layer label_cifar_1_split
I0501 06:19:57.012859 32480 net.cpp:408] label_cifar_1_split <- label
I0501 06:19:57.012867 32480 net.cpp:382] label_cifar_1_split -> label_cifar_1_split_0
I0501 06:19:57.012876 32480 net.cpp:382] label_cifar_1_split -> label_cifar_1_split_1
I0501 06:19:57.012972 32480 net.cpp:124] Setting up label_cifar_1_split
I0501 06:19:57.012981 32480 net.cpp:131] Top shape: 1000 (1000)
I0501 06:19:57.012985 32480 net.cpp:131] Top shape: 1000 (1000)
I0501 06:19:57.012987 32480 net.cpp:139] Memory required for data: 12300000
I0501 06:19:57.012990 32480 layer_factory.hpp:77] Creating layer conv0
I0501 06:19:57.013003 32480 net.cpp:86] Creating Layer conv0
I0501 06:19:57.013006 32480 net.cpp:408] conv0 <- data
I0501 06:19:57.013011 32480 net.cpp:382] conv0 -> conv0
I0501 06:19:57.014696 32480 net.cpp:124] Setting up conv0
I0501 06:19:57.014710 32480 net.cpp:131] Top shape: 1000 8 32 32 (8192000)
I0501 06:19:57.014714 32480 net.cpp:139] Memory required for data: 45068000
I0501 06:19:57.014724 32480 layer_factory.hpp:77] Creating layer Sigmoid0
I0501 06:19:57.014730 32480 net.cpp:86] Creating Layer Sigmoid0
I0501 06:19:57.014734 32480 net.cpp:408] Sigmoid0 <- conv0
I0501 06:19:57.014739 32480 net.cpp:382] Sigmoid0 -> Sigmoid0
I0501 06:19:57.014922 32480 net.cpp:124] Setting up Sigmoid0
I0501 06:19:57.014932 32480 net.cpp:131] Top shape: 1000 8 32 32 (8192000)
I0501 06:19:57.014935 32480 net.cpp:139] Memory required for data: 77836000
I0501 06:19:57.014938 32480 layer_factory.hpp:77] Creating layer pool0
I0501 06:19:57.014946 32480 net.cpp:86] Creating Layer pool0
I0501 06:19:57.014966 32480 net.cpp:408] pool0 <- Sigmoid0
I0501 06:19:57.014969 32480 net.cpp:382] pool0 -> pool0
I0501 06:19:57.015277 32480 net.cpp:124] Setting up pool0
I0501 06:19:57.015314 32480 net.cpp:131] Top shape: 1000 8 16 16 (2048000)
I0501 06:19:57.015317 32480 net.cpp:139] Memory required for data: 86028000
I0501 06:19:57.015321 32480 layer_factory.hpp:77] Creating layer ip1
I0501 06:19:57.015346 32480 net.cpp:86] Creating Layer ip1
I0501 06:19:57.015349 32480 net.cpp:408] ip1 <- pool0
I0501 06:19:57.015354 32480 net.cpp:382] ip1 -> ip1
I0501 06:19:57.025986 32480 net.cpp:124] Setting up ip1
I0501 06:19:57.026000 32480 net.cpp:131] Top shape: 1000 160 (160000)
I0501 06:19:57.026003 32480 net.cpp:139] Memory required for data: 86668000
I0501 06:19:57.026027 32480 layer_factory.hpp:77] Creating layer relu1
I0501 06:19:57.026034 32480 net.cpp:86] Creating Layer relu1
I0501 06:19:57.026037 32480 net.cpp:408] relu1 <- ip1
I0501 06:19:57.026044 32480 net.cpp:369] relu1 -> ip1 (in-place)
I0501 06:19:57.026221 32480 net.cpp:124] Setting up relu1
I0501 06:19:57.026229 32480 net.cpp:131] Top shape: 1000 160 (160000)
I0501 06:19:57.026233 32480 net.cpp:139] Memory required for data: 87308000
I0501 06:19:57.026237 32480 layer_factory.hpp:77] Creating layer ip2
I0501 06:19:57.026243 32480 net.cpp:86] Creating Layer ip2
I0501 06:19:57.026247 32480 net.cpp:408] ip2 <- ip1
I0501 06:19:57.026252 32480 net.cpp:382] ip2 -> ip2
I0501 06:19:57.026448 32480 net.cpp:124] Setting up ip2
I0501 06:19:57.026455 32480 net.cpp:131] Top shape: 1000 20 (20000)
I0501 06:19:57.026458 32480 net.cpp:139] Memory required for data: 87388000
I0501 06:19:57.026465 32480 layer_factory.hpp:77] Creating layer relu2
I0501 06:19:57.026473 32480 net.cpp:86] Creating Layer relu2
I0501 06:19:57.026474 32480 net.cpp:408] relu2 <- ip2
I0501 06:19:57.026480 32480 net.cpp:369] relu2 -> ip2 (in-place)
I0501 06:19:57.027226 32480 net.cpp:124] Setting up relu2
I0501 06:19:57.027238 32480 net.cpp:131] Top shape: 1000 20 (20000)
I0501 06:19:57.027242 32480 net.cpp:139] Memory required for data: 87468000
I0501 06:19:57.027245 32480 layer_factory.hpp:77] Creating layer ip3
I0501 06:19:57.027254 32480 net.cpp:86] Creating Layer ip3
I0501 06:19:57.027257 32480 net.cpp:408] ip3 <- ip2
I0501 06:19:57.027262 32480 net.cpp:382] ip3 -> ip3
I0501 06:19:57.027401 32480 net.cpp:124] Setting up ip3
I0501 06:19:57.027408 32480 net.cpp:131] Top shape: 1000 40 (40000)
I0501 06:19:57.027411 32480 net.cpp:139] Memory required for data: 87628000
I0501 06:19:57.027417 32480 layer_factory.hpp:77] Creating layer relu3
I0501 06:19:57.027423 32480 net.cpp:86] Creating Layer relu3
I0501 06:19:57.027426 32480 net.cpp:408] relu3 <- ip3
I0501 06:19:57.027431 32480 net.cpp:369] relu3 -> ip3 (in-place)
I0501 06:19:57.027588 32480 net.cpp:124] Setting up relu3
I0501 06:19:57.027596 32480 net.cpp:131] Top shape: 1000 40 (40000)
I0501 06:19:57.027600 32480 net.cpp:139] Memory required for data: 87788000
I0501 06:19:57.027602 32480 layer_factory.hpp:77] Creating layer ip4
I0501 06:19:57.027611 32480 net.cpp:86] Creating Layer ip4
I0501 06:19:57.027613 32480 net.cpp:408] ip4 <- ip3
I0501 06:19:57.027617 32480 net.cpp:382] ip4 -> ip4
I0501 06:19:57.027734 32480 net.cpp:124] Setting up ip4
I0501 06:19:57.027740 32480 net.cpp:131] Top shape: 1000 10 (10000)
I0501 06:19:57.027743 32480 net.cpp:139] Memory required for data: 87828000
I0501 06:19:57.027752 32480 layer_factory.hpp:77] Creating layer ip4_ip4_0_split
I0501 06:19:57.027757 32480 net.cpp:86] Creating Layer ip4_ip4_0_split
I0501 06:19:57.027760 32480 net.cpp:408] ip4_ip4_0_split <- ip4
I0501 06:19:57.027765 32480 net.cpp:382] ip4_ip4_0_split -> ip4_ip4_0_split_0
I0501 06:19:57.027770 32480 net.cpp:382] ip4_ip4_0_split -> ip4_ip4_0_split_1
I0501 06:19:57.027802 32480 net.cpp:124] Setting up ip4_ip4_0_split
I0501 06:19:57.027808 32480 net.cpp:131] Top shape: 1000 10 (10000)
I0501 06:19:57.027812 32480 net.cpp:131] Top shape: 1000 10 (10000)
I0501 06:19:57.027815 32480 net.cpp:139] Memory required for data: 87908000
I0501 06:19:57.027817 32480 layer_factory.hpp:77] Creating layer accuracy
I0501 06:19:57.027823 32480 net.cpp:86] Creating Layer accuracy
I0501 06:19:57.027827 32480 net.cpp:408] accuracy <- ip4_ip4_0_split_0
I0501 06:19:57.027829 32480 net.cpp:408] accuracy <- label_cifar_1_split_0
I0501 06:19:57.027835 32480 net.cpp:382] accuracy -> accuracy
…
