…
I0501 00:59:27.612071  8791 net.cpp:296] The NetState phase (0) differed from the phase (1) specified by a rule in layer cifar
I0501 00:59:27.612087  8791 net.cpp:296] The NetState phase (0) differed from the phase (1) specified by a rule in layer accuracy
I0501 00:59:27.612167  8791 net.cpp:53] Initializing net from parameters: 
name: "CIFAR"
state {
  phase: TRAIN
  level: 0
  stage: ""
}
layer {
  name: "cifar"
  type: "Data"
  top: "data"
  top: "label"
  include {
    phase: TRAIN
  }
  transform_param {
    mean_file: "examples/cifar10/mean.binaryproto"
  }
  data_param {
    source: "examples/cifar10/cifar10_train_lmdb"
    batch_size: 111
    backend: LMDB
  }
}
layer {
  name: "conv0"
  type: "Convolution"
  bottom: "data"
  top: "conv0"
  param {
    lr_mult: 1
  }
  param {
    lr_mult: 2
  }
  convolution_param {
    num_output: 8
    pad: 2
    kernel_size: 3
    stride: 1
    weight_filler {
      type: "gaussian"
      std: 0.01
    }
    bias_filler {
      type: "constant"
    }
  }
}
layer {
  name: "Sigmoid0"
  type: "Sigmoid"
  bottom: "conv0"
  top: "Sigmoid0"
}
layer {
  name: "pool0"
  type: "Pooling"
  bottom: "Sigmoid0"
  top: "pool0"
  pooling_param {
    pool: AVE
    kernel_size: 3
    stride: 2
  }
}
layer {
  name: "ip1"
  type: "InnerProduct"
  bottom: "pool0"
  top: "ip1"
  param {
    lr_mult: 1
  }
  param {
    lr_mult: 2
  }
  inner_product_param {
    num_output: 80
    weight_filler {
      type: "gaussian"
      std: 0.01
    }
    bias_filler {
      type: "constant"
    }
  }
}
layer {
  name: "relu1"
  type: "ReLU"
  bottom: "ip1"
  top: "ip1"
}
layer {
  name: "ip2"
  type: "InnerProduct"
  bottom: "ip1"
  top: "ip2"
  param {
    lr_mult: 1
  }
  param {
    lr_mult: 2
  }
  inner_product_param {
    num_output: 80
    weight_filler {
      type: "gaussian"
      std: 0.01
    }
    bias_filler {
      type: "constant"
    }
  }
}
layer {
  name: "relu2"
  type: "ReLU"
  bottom: "ip2"
  top: "ip2"
}
layer {
  name: "ip3"
  type: "InnerProduct"
  bottom: "ip2"
  top: "ip3"
  param {
    lr_mult: 1
  }
  param {
    lr_mult: 2
  }
  inner_product_param {
    num_output: 10
    weight_filler {
      type: "gaussian"
      std: 0.01
    }
    bias_filler {
      type: "constant"
    }
  }
}
layer {
  name: "relu3"
  type: "ReLU"
  bottom: "ip3"
  top: "ip3"
}
layer {
  name: "ip4"
  type: "InnerProduct"
  bottom: "ip3"
  top: "ip4"
  param {
    lr_mult: 1
  }
  param {
    lr_mult: 2
  }
  inner_product_param {
    num_output: 10
    weight_filler {
      type: "gaussian"
      std: 0.01
    }
    bias_filler {
      type: "constant"
    }
  }
}
layer {
  name: "loss"
  type: "SoftmaxWithLoss"
  bottom: "ip4"
  bottom: "label"
  top: "loss"
}
I0501 00:59:27.612246  8791 layer_factory.hpp:77] Creating layer cifar
I0501 00:59:27.612327  8791 db_lmdb.cpp:35] Opened lmdb examples/cifar10/cifar10_train_lmdb
I0501 00:59:27.612349  8791 net.cpp:86] Creating Layer cifar
I0501 00:59:27.612357  8791 net.cpp:382] cifar -> data
I0501 00:59:27.612375  8791 net.cpp:382] cifar -> label
I0501 00:59:27.612385  8791 data_transformer.cpp:25] Loading mean file from: examples/cifar10/mean.binaryproto
I0501 00:59:27.614226  8791 data_layer.cpp:45] output data size: 111,3,32,32
I0501 00:59:27.620790  8791 net.cpp:124] Setting up cifar
I0501 00:59:27.620805  8791 net.cpp:131] Top shape: 111 3 32 32 (340992)
I0501 00:59:27.620816  8791 net.cpp:131] Top shape: 111 (111)
I0501 00:59:27.620836  8791 net.cpp:139] Memory required for data: 1364412
I0501 00:59:27.620857  8791 layer_factory.hpp:77] Creating layer conv0
I0501 00:59:27.620888  8791 net.cpp:86] Creating Layer conv0
I0501 00:59:27.620893  8791 net.cpp:408] conv0 <- data
I0501 00:59:27.620903  8791 net.cpp:382] conv0 -> conv0
I0501 00:59:27.851260  8791 net.cpp:124] Setting up conv0
I0501 00:59:27.851286  8791 net.cpp:131] Top shape: 111 8 34 34 (1026528)
I0501 00:59:27.851289  8791 net.cpp:139] Memory required for data: 5470524
I0501 00:59:27.851305  8791 layer_factory.hpp:77] Creating layer Sigmoid0
I0501 00:59:27.851315  8791 net.cpp:86] Creating Layer Sigmoid0
I0501 00:59:27.851320  8791 net.cpp:408] Sigmoid0 <- conv0
I0501 00:59:27.851325  8791 net.cpp:382] Sigmoid0 -> Sigmoid0
I0501 00:59:27.851505  8791 net.cpp:124] Setting up Sigmoid0
I0501 00:59:27.851514  8791 net.cpp:131] Top shape: 111 8 34 34 (1026528)
I0501 00:59:27.851517  8791 net.cpp:139] Memory required for data: 9576636
I0501 00:59:27.851521  8791 layer_factory.hpp:77] Creating layer pool0
I0501 00:59:27.851526  8791 net.cpp:86] Creating Layer pool0
I0501 00:59:27.851531  8791 net.cpp:408] pool0 <- Sigmoid0
I0501 00:59:27.851534  8791 net.cpp:382] pool0 -> pool0
I0501 00:59:27.852264  8791 net.cpp:124] Setting up pool0
I0501 00:59:27.852277  8791 net.cpp:131] Top shape: 111 8 17 17 (256632)
I0501 00:59:27.852279  8791 net.cpp:139] Memory required for data: 10603164
I0501 00:59:27.852283  8791 layer_factory.hpp:77] Creating layer ip1
I0501 00:59:27.852291  8791 net.cpp:86] Creating Layer ip1
I0501 00:59:27.852294  8791 net.cpp:408] ip1 <- pool0
I0501 00:59:27.852299  8791 net.cpp:382] ip1 -> ip1
I0501 00:59:27.857822  8791 net.cpp:124] Setting up ip1
I0501 00:59:27.857834  8791 net.cpp:131] Top shape: 111 80 (8880)
I0501 00:59:27.857837  8791 net.cpp:139] Memory required for data: 10638684
I0501 00:59:27.857846  8791 layer_factory.hpp:77] Creating layer relu1
I0501 00:59:27.857851  8791 net.cpp:86] Creating Layer relu1
I0501 00:59:27.857853  8791 net.cpp:408] relu1 <- ip1
I0501 00:59:27.857858  8791 net.cpp:369] relu1 -> ip1 (in-place)
I0501 00:59:27.858016  8791 net.cpp:124] Setting up relu1
I0501 00:59:27.858024  8791 net.cpp:131] Top shape: 111 80 (8880)
I0501 00:59:27.858027  8791 net.cpp:139] Memory required for data: 10674204
I0501 00:59:27.858031  8791 layer_factory.hpp:77] Creating layer ip2
I0501 00:59:27.858036  8791 net.cpp:86] Creating Layer ip2
I0501 00:59:27.858039  8791 net.cpp:408] ip2 <- ip1
I0501 00:59:27.858044  8791 net.cpp:382] ip2 -> ip2
I0501 00:59:27.859104  8791 net.cpp:124] Setting up ip2
I0501 00:59:27.859117  8791 net.cpp:131] Top shape: 111 80 (8880)
I0501 00:59:27.859119  8791 net.cpp:139] Memory required for data: 10709724
I0501 00:59:27.859127  8791 layer_factory.hpp:77] Creating layer relu2
I0501 00:59:27.859133  8791 net.cpp:86] Creating Layer relu2
I0501 00:59:27.859134  8791 net.cpp:408] relu2 <- ip2
I0501 00:59:27.859138  8791 net.cpp:369] relu2 -> ip2 (in-place)
I0501 00:59:27.859319  8791 net.cpp:124] Setting up relu2
I0501 00:59:27.859328  8791 net.cpp:131] Top shape: 111 80 (8880)
I0501 00:59:27.859330  8791 net.cpp:139] Memory required for data: 10745244
I0501 00:59:27.859333  8791 layer_factory.hpp:77] Creating layer ip3
I0501 00:59:27.859341  8791 net.cpp:86] Creating Layer ip3
I0501 00:59:27.859344  8791 net.cpp:408] ip3 <- ip2
I0501 00:59:27.859349  8791 net.cpp:382] ip3 -> ip3
I0501 00:59:27.860256  8791 net.cpp:124] Setting up ip3
I0501 00:59:27.860267  8791 net.cpp:131] Top shape: 111 10 (1110)
I0501 00:59:27.860270  8791 net.cpp:139] Memory required for data: 10749684
I0501 00:59:27.860276  8791 layer_factory.hpp:77] Creating layer relu3
I0501 00:59:27.860281  8791 net.cpp:86] Creating Layer relu3
I0501 00:59:27.860285  8791 net.cpp:408] relu3 <- ip3
I0501 00:59:27.860288  8791 net.cpp:369] relu3 -> ip3 (in-place)
I0501 00:59:27.860468  8791 net.cpp:124] Setting up relu3
I0501 00:59:27.860476  8791 net.cpp:131] Top shape: 111 10 (1110)
I0501 00:59:27.860479  8791 net.cpp:139] Memory required for data: 10754124
I0501 00:59:27.860482  8791 layer_factory.hpp:77] Creating layer ip4
I0501 00:59:27.860502  8791 net.cpp:86] Creating Layer ip4
I0501 00:59:27.860507  8791 net.cpp:408] ip4 <- ip3
I0501 00:59:27.860510  8791 net.cpp:382] ip4 -> ip4
I0501 00:59:27.860608  8791 net.cpp:124] Setting up ip4
I0501 00:59:27.860616  8791 net.cpp:131] Top shape: 111 10 (1110)
I0501 00:59:27.860620  8791 net.cpp:139] Memory required for data: 10758564
I0501 00:59:27.860626  8791 layer_factory.hpp:77] Creating layer loss
I0501 00:59:27.860631  8791 net.cpp:86] Creating Layer loss
I0501 00:59:27.860635  8791 net.cpp:408] loss <- ip4
I0501 00:59:27.860638  8791 net.cpp:408] loss <- label
I0501 00:59:27.860643  8791 net.cpp:382] loss -> loss
I0501 00:59:27.860656  8791 layer_factory.hpp:77] Creating layer loss
…
I0501 00:59:27.861934  8791 solver.cpp:173] Creating test net (#0) specified by net file: ECE595/cifar/train_test/var_everything/cifar_train_test_275.prototxt
I0501 00:59:27.861960  8791 net.cpp:296] The NetState phase (1) differed from the phase (0) specified by a rule in layer cifar
I0501 00:59:27.862046  8791 net.cpp:53] Initializing net from parameters: 
name: "CIFAR"
state {
  phase: TEST
}
layer {
  name: "cifar"
  type: "Data"
  top: "data"
  top: "label"
  include {
    phase: TEST
  }
  transform_param {
    mean_file: "examples/cifar10/mean.binaryproto"
  }
  data_param {
    source: "examples/cifar10/cifar10_test_lmdb"
    batch_size: 1000
    backend: LMDB
  }
}
layer {
  name: "conv0"
  type: "Convolution"
  bottom: "data"
  top: "conv0"
  param {
    lr_mult: 1
  }
  param {
    lr_mult: 2
  }
  convolution_param {
    num_output: 8
    pad: 2
    kernel_size: 3
    stride: 1
    weight_filler {
      type: "gaussian"
      std: 0.01
    }
    bias_filler {
      type: "constant"
    }
  }
}
layer {
  name: "Sigmoid0"
  type: "Sigmoid"
  bottom: "conv0"
  top: "Sigmoid0"
}
layer {
  name: "pool0"
  type: "Pooling"
  bottom: "Sigmoid0"
  top: "pool0"
  pooling_param {
    pool: AVE
    kernel_size: 3
    stride: 2
  }
}
layer {
  name: "ip1"
  type: "InnerProduct"
  bottom: "pool0"
  top: "ip1"
  param {
    lr_mult: 1
  }
  param {
    lr_mult: 2
  }
  inner_product_param {
    num_output: 80
    weight_filler {
      type: "gaussian"
      std: 0.01
    }
    bias_filler {
      type: "constant"
    }
  }
}
layer {
  name: "relu1"
  type: "ReLU"
  bottom: "ip1"
  top: "ip1"
}
layer {
  name: "ip2"
  type: "InnerProduct"
  bottom: "ip1"
  top: "ip2"
  param {
    lr_mult: 1
  }
  param {
    lr_mult: 2
  }
  inner_product_param {
    num_output: 80
    weight_filler {
      type: "gaussian"
      std: 0.01
    }
    bias_filler {
      type: "constant"
    }
  }
}
layer {
  name: "relu2"
  type: "ReLU"
  bottom: "ip2"
  top: "ip2"
}
layer {
  name: "ip3"
  type: "InnerProduct"
  bottom: "ip2"
  top: "ip3"
  param {
    lr_mult: 1
  }
  param {
    lr_mult: 2
  }
  inner_product_param {
    num_output: 10
    weight_filler {
      type: "gaussian"
      std: 0.01
    }
    bias_filler {
      type: "constant"
    }
  }
}
layer {
  name: "relu3"
  type: "ReLU"
  bottom: "ip3"
  top: "ip3"
}
layer {
  name: "ip4"
  type: "InnerProduct"
  bottom: "ip3"
  top: "ip4"
  param {
    lr_mult: 1
  }
  param {
    lr_mult: 2
  }
  inner_product_param {
    num_output: 10
    weight_filler {
      type: "gaussian"
      std: 0.01
    }
    bias_filler {
      type: "constant"
    }
  }
}
layer {
  name: "accuracy"
  type: "Accuracy"
  bottom: "ip4"
  bottom: "label"
  top: "accuracy"
  include {
    phase: TEST
  }
}
layer {
  name: "loss"
  type: "SoftmaxWithLoss"
  bottom: "ip4"
  bottom: "label"
  top: "loss"
}
I0501 00:59:27.862119  8791 layer_factory.hpp:77] Creating layer cifar
I0501 00:59:27.862161  8791 db_lmdb.cpp:35] Opened lmdb examples/cifar10/cifar10_test_lmdb
I0501 00:59:27.862172  8791 net.cpp:86] Creating Layer cifar
I0501 00:59:27.862176  8791 net.cpp:382] cifar -> data
I0501 00:59:27.862185  8791 net.cpp:382] cifar -> label
I0501 00:59:27.862190  8791 data_transformer.cpp:25] Loading mean file from: examples/cifar10/mean.binaryproto
I0501 00:59:27.862323  8791 data_layer.cpp:45] output data size: 1000,3,32,32
I0501 00:59:27.883924  8791 net.cpp:124] Setting up cifar
I0501 00:59:27.883963  8791 net.cpp:131] Top shape: 1000 3 32 32 (3072000)
I0501 00:59:27.883970  8791 net.cpp:131] Top shape: 1000 (1000)
I0501 00:59:27.883972  8791 net.cpp:139] Memory required for data: 12292000
I0501 00:59:27.883977  8791 layer_factory.hpp:77] Creating layer label_cifar_1_split
I0501 00:59:27.883990  8791 net.cpp:86] Creating Layer label_cifar_1_split
I0501 00:59:27.883993  8791 net.cpp:408] label_cifar_1_split <- label
I0501 00:59:27.883999  8791 net.cpp:382] label_cifar_1_split -> label_cifar_1_split_0
I0501 00:59:27.884022  8791 net.cpp:382] label_cifar_1_split -> label_cifar_1_split_1
I0501 00:59:27.884127  8791 net.cpp:124] Setting up label_cifar_1_split
I0501 00:59:27.884135  8791 net.cpp:131] Top shape: 1000 (1000)
I0501 00:59:27.884138  8791 net.cpp:131] Top shape: 1000 (1000)
I0501 00:59:27.884141  8791 net.cpp:139] Memory required for data: 12300000
I0501 00:59:27.884143  8791 layer_factory.hpp:77] Creating layer conv0
I0501 00:59:27.884155  8791 net.cpp:86] Creating Layer conv0
I0501 00:59:27.884158  8791 net.cpp:408] conv0 <- data
I0501 00:59:27.884163  8791 net.cpp:382] conv0 -> conv0
I0501 00:59:27.885838  8791 net.cpp:124] Setting up conv0
I0501 00:59:27.885851  8791 net.cpp:131] Top shape: 1000 8 34 34 (9248000)
I0501 00:59:27.885870  8791 net.cpp:139] Memory required for data: 49292000
I0501 00:59:27.885880  8791 layer_factory.hpp:77] Creating layer Sigmoid0
I0501 00:59:27.885887  8791 net.cpp:86] Creating Layer Sigmoid0
I0501 00:59:27.885890  8791 net.cpp:408] Sigmoid0 <- conv0
I0501 00:59:27.885895  8791 net.cpp:382] Sigmoid0 -> Sigmoid0
I0501 00:59:27.886078  8791 net.cpp:124] Setting up Sigmoid0
I0501 00:59:27.886086  8791 net.cpp:131] Top shape: 1000 8 34 34 (9248000)
I0501 00:59:27.886090  8791 net.cpp:139] Memory required for data: 86284000
I0501 00:59:27.886093  8791 layer_factory.hpp:77] Creating layer pool0
I0501 00:59:27.886101  8791 net.cpp:86] Creating Layer pool0
I0501 00:59:27.886103  8791 net.cpp:408] pool0 <- Sigmoid0
I0501 00:59:27.886107  8791 net.cpp:382] pool0 -> pool0
I0501 00:59:27.886263  8791 net.cpp:124] Setting up pool0
I0501 00:59:27.886271  8791 net.cpp:131] Top shape: 1000 8 17 17 (2312000)
I0501 00:59:27.886274  8791 net.cpp:139] Memory required for data: 95532000
I0501 00:59:27.886277  8791 layer_factory.hpp:77] Creating layer ip1
I0501 00:59:27.886284  8791 net.cpp:86] Creating Layer ip1
I0501 00:59:27.886287  8791 net.cpp:408] ip1 <- pool0
I0501 00:59:27.886292  8791 net.cpp:382] ip1 -> ip1
I0501 00:59:27.890990  8791 net.cpp:124] Setting up ip1
I0501 00:59:27.891000  8791 net.cpp:131] Top shape: 1000 80 (80000)
I0501 00:59:27.891018  8791 net.cpp:139] Memory required for data: 95852000
I0501 00:59:27.891042  8791 layer_factory.hpp:77] Creating layer relu1
I0501 00:59:27.891048  8791 net.cpp:86] Creating Layer relu1
I0501 00:59:27.891052  8791 net.cpp:408] relu1 <- ip1
I0501 00:59:27.891055  8791 net.cpp:369] relu1 -> ip1 (in-place)
I0501 00:59:27.891216  8791 net.cpp:124] Setting up relu1
I0501 00:59:27.891224  8791 net.cpp:131] Top shape: 1000 80 (80000)
I0501 00:59:27.891228  8791 net.cpp:139] Memory required for data: 96172000
I0501 00:59:27.891232  8791 layer_factory.hpp:77] Creating layer ip2
I0501 00:59:27.891238  8791 net.cpp:86] Creating Layer ip2
I0501 00:59:27.891242  8791 net.cpp:408] ip2 <- ip1
I0501 00:59:27.891245  8791 net.cpp:382] ip2 -> ip2
I0501 00:59:27.891525  8791 net.cpp:124] Setting up ip2
I0501 00:59:27.891533  8791 net.cpp:131] Top shape: 1000 80 (80000)
I0501 00:59:27.891536  8791 net.cpp:139] Memory required for data: 96492000
I0501 00:59:27.891543  8791 layer_factory.hpp:77] Creating layer relu2
I0501 00:59:27.891549  8791 net.cpp:86] Creating Layer relu2
I0501 00:59:27.891552  8791 net.cpp:408] relu2 <- ip2
I0501 00:59:27.891557  8791 net.cpp:369] relu2 -> ip2 (in-place)
I0501 00:59:27.892304  8791 net.cpp:124] Setting up relu2
I0501 00:59:27.892316  8791 net.cpp:131] Top shape: 1000 80 (80000)
I0501 00:59:27.892338  8791 net.cpp:139] Memory required for data: 96812000
I0501 00:59:27.892341  8791 layer_factory.hpp:77] Creating layer ip3
I0501 00:59:27.892349  8791 net.cpp:86] Creating Layer ip3
I0501 00:59:27.892351  8791 net.cpp:408] ip3 <- ip2
I0501 00:59:27.892356  8791 net.cpp:382] ip3 -> ip3
I0501 00:59:27.892493  8791 net.cpp:124] Setting up ip3
I0501 00:59:27.892500  8791 net.cpp:131] Top shape: 1000 10 (10000)
I0501 00:59:27.892503  8791 net.cpp:139] Memory required for data: 96852000
I0501 00:59:27.892509  8791 layer_factory.hpp:77] Creating layer relu3
I0501 00:59:27.892514  8791 net.cpp:86] Creating Layer relu3
I0501 00:59:27.892518  8791 net.cpp:408] relu3 <- ip3
I0501 00:59:27.892521  8791 net.cpp:369] relu3 -> ip3 (in-place)
I0501 00:59:27.892663  8791 net.cpp:124] Setting up relu3
I0501 00:59:27.892671  8791 net.cpp:131] Top shape: 1000 10 (10000)
I0501 00:59:27.892674  8791 net.cpp:139] Memory required for data: 96892000
I0501 00:59:27.892678  8791 layer_factory.hpp:77] Creating layer ip4
I0501 00:59:27.892683  8791 net.cpp:86] Creating Layer ip4
I0501 00:59:27.892686  8791 net.cpp:408] ip4 <- ip3
I0501 00:59:27.892691  8791 net.cpp:382] ip4 -> ip4
I0501 00:59:27.892789  8791 net.cpp:124] Setting up ip4
I0501 00:59:27.892797  8791 net.cpp:131] Top shape: 1000 10 (10000)
I0501 00:59:27.892801  8791 net.cpp:139] Memory required for data: 96932000
I0501 00:59:27.892814  8791 layer_factory.hpp:77] Creating layer ip4_ip4_0_split
I0501 00:59:27.892837  8791 net.cpp:86] Creating Layer ip4_ip4_0_split
I0501 00:59:27.892839  8791 net.cpp:408] ip4_ip4_0_split <- ip4
I0501 00:59:27.892848  8791 net.cpp:382] ip4_ip4_0_split -> ip4_ip4_0_split_0
I0501 00:59:27.892853  8791 net.cpp:382] ip4_ip4_0_split -> ip4_ip4_0_split_1
I0501 00:59:27.892917  8791 net.cpp:124] Setting up ip4_ip4_0_split
I0501 00:59:27.892925  8791 net.cpp:131] Top shape: 1000 10 (10000)
I0501 00:59:27.892928  8791 net.cpp:131] Top shape: 1000 10 (10000)
I0501 00:59:27.892930  8791 net.cpp:139] Memory required for data: 97012000
I0501 00:59:27.892935  8791 layer_factory.hpp:77] Creating layer accuracy
I0501 00:59:27.892940  8791 net.cpp:86] Creating Layer accuracy
I0501 00:59:27.892945  8791 net.cpp:408] accuracy <- ip4_ip4_0_split_0
I0501 00:59:27.892948  8791 net.cpp:408] accuracy <- label_cifar_1_split_0
I0501 00:59:27.892952  8791 net.cpp:382] accuracy -> accuracy
…
