…
I0501 01:08:49.307864  9393 net.cpp:296] The NetState phase (0) differed from the phase (1) specified by a rule in layer cifar
I0501 01:08:49.307888  9393 net.cpp:296] The NetState phase (0) differed from the phase (1) specified by a rule in layer accuracy
I0501 01:08:49.307996  9393 net.cpp:53] Initializing net from parameters: 
name: "CIFAR"
state {
  phase: TRAIN
  level: 0
  stage: ""
}
layer {
  name: "cifar"
  type: "Data"
  top: "data"
  top: "label"
  include {
    phase: TRAIN
  }
  transform_param {
    mean_file: "examples/cifar10/mean.binaryproto"
  }
  data_param {
    source: "examples/cifar10/cifar10_train_lmdb"
    batch_size: 111
    backend: LMDB
  }
}
layer {
  name: "conv0"
  type: "Convolution"
  bottom: "data"
  top: "conv0"
  param {
    lr_mult: 1
  }
  param {
    lr_mult: 2
  }
  convolution_param {
    num_output: 8
    pad: 2
    kernel_size: 3
    stride: 1
    weight_filler {
      type: "gaussian"
      std: 0.01
    }
    bias_filler {
      type: "constant"
    }
  }
}
layer {
  name: "Sigmoid0"
  type: "Sigmoid"
  bottom: "conv0"
  top: "Sigmoid0"
}
layer {
  name: "pool0"
  type: "Pooling"
  bottom: "Sigmoid0"
  top: "pool0"
  pooling_param {
    pool: AVE
    kernel_size: 3
    stride: 2
  }
}
layer {
  name: "ip1"
  type: "InnerProduct"
  bottom: "pool0"
  top: "ip1"
  param {
    lr_mult: 1
  }
  param {
    lr_mult: 2
  }
  inner_product_param {
    num_output: 80
    weight_filler {
      type: "gaussian"
      std: 0.01
    }
    bias_filler {
      type: "constant"
    }
  }
}
layer {
  name: "relu1"
  type: "ReLU"
  bottom: "ip1"
  top: "ip1"
}
layer {
  name: "ip2"
  type: "InnerProduct"
  bottom: "ip1"
  top: "ip2"
  param {
    lr_mult: 1
  }
  param {
    lr_mult: 2
  }
  inner_product_param {
    num_output: 160
    weight_filler {
      type: "gaussian"
      std: 0.01
    }
    bias_filler {
      type: "constant"
    }
  }
}
layer {
  name: "relu2"
  type: "ReLU"
  bottom: "ip2"
  top: "ip2"
}
layer {
  name: "ip3"
  type: "InnerProduct"
  bottom: "ip2"
  top: "ip3"
  param {
    lr_mult: 1
  }
  param {
    lr_mult: 2
  }
  inner_product_param {
    num_output: 10
    weight_filler {
      type: "gaussian"
      std: 0.01
    }
    bias_filler {
      type: "constant"
    }
  }
}
layer {
  name: "relu3"
  type: "ReLU"
  bottom: "ip3"
  top: "ip3"
}
layer {
  name: "ip4"
  type: "InnerProduct"
  bottom: "ip3"
  top: "ip4"
  param {
    lr_mult: 1
  }
  param {
    lr_mult: 2
  }
  inner_product_param {
    num_output: 10
    weight_filler {
      type: "gaussian"
      std: 0.01
    }
    bias_filler {
      type: "constant"
    }
  }
}
layer {
  name: "loss"
  type: "SoftmaxWithLoss"
  bottom: "ip4"
  bottom: "label"
  top: "loss"
}
I0501 01:08:49.308099  9393 layer_factory.hpp:77] Creating layer cifar
I0501 01:08:49.308224  9393 db_lmdb.cpp:35] Opened lmdb examples/cifar10/cifar10_train_lmdb
I0501 01:08:49.308261  9393 net.cpp:86] Creating Layer cifar
I0501 01:08:49.308274  9393 net.cpp:382] cifar -> data
I0501 01:08:49.308305  9393 net.cpp:382] cifar -> label
I0501 01:08:49.308320  9393 data_transformer.cpp:25] Loading mean file from: examples/cifar10/mean.binaryproto
I0501 01:08:49.310763  9393 data_layer.cpp:45] output data size: 111,3,32,32
I0501 01:08:49.318636  9393 net.cpp:124] Setting up cifar
I0501 01:08:49.318660  9393 net.cpp:131] Top shape: 111 3 32 32 (340992)
I0501 01:08:49.318670  9393 net.cpp:131] Top shape: 111 (111)
I0501 01:08:49.318676  9393 net.cpp:139] Memory required for data: 1364412
I0501 01:08:49.318706  9393 layer_factory.hpp:77] Creating layer conv0
I0501 01:08:49.318730  9393 net.cpp:86] Creating Layer conv0
I0501 01:08:49.318742  9393 net.cpp:408] conv0 <- data
I0501 01:08:49.318760  9393 net.cpp:382] conv0 -> conv0
I0501 01:08:49.606014  9393 net.cpp:124] Setting up conv0
I0501 01:08:49.606045  9393 net.cpp:131] Top shape: 111 8 34 34 (1026528)
I0501 01:08:49.606050  9393 net.cpp:139] Memory required for data: 5470524
I0501 01:08:49.606070  9393 layer_factory.hpp:77] Creating layer Sigmoid0
I0501 01:08:49.606087  9393 net.cpp:86] Creating Layer Sigmoid0
I0501 01:08:49.606094  9393 net.cpp:408] Sigmoid0 <- conv0
I0501 01:08:49.606102  9393 net.cpp:382] Sigmoid0 -> Sigmoid0
I0501 01:08:49.606287  9393 net.cpp:124] Setting up Sigmoid0
I0501 01:08:49.606298  9393 net.cpp:131] Top shape: 111 8 34 34 (1026528)
I0501 01:08:49.606303  9393 net.cpp:139] Memory required for data: 9576636
I0501 01:08:49.606309  9393 layer_factory.hpp:77] Creating layer pool0
I0501 01:08:49.606319  9393 net.cpp:86] Creating Layer pool0
I0501 01:08:49.606324  9393 net.cpp:408] pool0 <- Sigmoid0
I0501 01:08:49.606333  9393 net.cpp:382] pool0 -> pool0
I0501 01:08:49.607082  9393 net.cpp:124] Setting up pool0
I0501 01:08:49.607098  9393 net.cpp:131] Top shape: 111 8 17 17 (256632)
I0501 01:08:49.607105  9393 net.cpp:139] Memory required for data: 10603164
I0501 01:08:49.607110  9393 layer_factory.hpp:77] Creating layer ip1
I0501 01:08:49.607123  9393 net.cpp:86] Creating Layer ip1
I0501 01:08:49.607130  9393 net.cpp:408] ip1 <- pool0
I0501 01:08:49.607138  9393 net.cpp:382] ip1 -> ip1
I0501 01:08:49.612905  9393 net.cpp:124] Setting up ip1
I0501 01:08:49.612918  9393 net.cpp:131] Top shape: 111 80 (8880)
I0501 01:08:49.612923  9393 net.cpp:139] Memory required for data: 10638684
I0501 01:08:49.612952  9393 layer_factory.hpp:77] Creating layer relu1
I0501 01:08:49.612962  9393 net.cpp:86] Creating Layer relu1
I0501 01:08:49.612967  9393 net.cpp:408] relu1 <- ip1
I0501 01:08:49.612975  9393 net.cpp:369] relu1 -> ip1 (in-place)
I0501 01:08:49.613134  9393 net.cpp:124] Setting up relu1
I0501 01:08:49.613144  9393 net.cpp:131] Top shape: 111 80 (8880)
I0501 01:08:49.613149  9393 net.cpp:139] Memory required for data: 10674204
I0501 01:08:49.613155  9393 layer_factory.hpp:77] Creating layer ip2
I0501 01:08:49.613179  9393 net.cpp:86] Creating Layer ip2
I0501 01:08:49.613184  9393 net.cpp:408] ip2 <- ip1
I0501 01:08:49.613193  9393 net.cpp:382] ip2 -> ip2
I0501 01:08:49.614439  9393 net.cpp:124] Setting up ip2
I0501 01:08:49.614452  9393 net.cpp:131] Top shape: 111 160 (17760)
I0501 01:08:49.614459  9393 net.cpp:139] Memory required for data: 10745244
I0501 01:08:49.614471  9393 layer_factory.hpp:77] Creating layer relu2
I0501 01:08:49.614480  9393 net.cpp:86] Creating Layer relu2
I0501 01:08:49.614485  9393 net.cpp:408] relu2 <- ip2
I0501 01:08:49.614493  9393 net.cpp:369] relu2 -> ip2 (in-place)
I0501 01:08:49.614655  9393 net.cpp:124] Setting up relu2
I0501 01:08:49.614665  9393 net.cpp:131] Top shape: 111 160 (17760)
I0501 01:08:49.614670  9393 net.cpp:139] Memory required for data: 10816284
I0501 01:08:49.614675  9393 layer_factory.hpp:77] Creating layer ip3
I0501 01:08:49.614686  9393 net.cpp:86] Creating Layer ip3
I0501 01:08:49.614691  9393 net.cpp:408] ip3 <- ip2
I0501 01:08:49.614701  9393 net.cpp:382] ip3 -> ip3
I0501 01:08:49.614840  9393 net.cpp:124] Setting up ip3
I0501 01:08:49.614850  9393 net.cpp:131] Top shape: 111 10 (1110)
I0501 01:08:49.614855  9393 net.cpp:139] Memory required for data: 10820724
I0501 01:08:49.614863  9393 layer_factory.hpp:77] Creating layer relu3
I0501 01:08:49.614871  9393 net.cpp:86] Creating Layer relu3
I0501 01:08:49.614876  9393 net.cpp:408] relu3 <- ip3
I0501 01:08:49.614882  9393 net.cpp:369] relu3 -> ip3 (in-place)
I0501 01:08:49.615033  9393 net.cpp:124] Setting up relu3
I0501 01:08:49.615043  9393 net.cpp:131] Top shape: 111 10 (1110)
I0501 01:08:49.615048  9393 net.cpp:139] Memory required for data: 10825164
I0501 01:08:49.615054  9393 layer_factory.hpp:77] Creating layer ip4
I0501 01:08:49.615078  9393 net.cpp:86] Creating Layer ip4
I0501 01:08:49.615084  9393 net.cpp:408] ip4 <- ip3
I0501 01:08:49.615092  9393 net.cpp:382] ip4 -> ip4
I0501 01:08:49.615192  9393 net.cpp:124] Setting up ip4
I0501 01:08:49.615201  9393 net.cpp:131] Top shape: 111 10 (1110)
I0501 01:08:49.615206  9393 net.cpp:139] Memory required for data: 10829604
I0501 01:08:49.615218  9393 layer_factory.hpp:77] Creating layer loss
I0501 01:08:49.615226  9393 net.cpp:86] Creating Layer loss
I0501 01:08:49.615232  9393 net.cpp:408] loss <- ip4
I0501 01:08:49.615238  9393 net.cpp:408] loss <- label
I0501 01:08:49.615247  9393 net.cpp:382] loss -> loss
I0501 01:08:49.615269  9393 layer_factory.hpp:77] Creating layer loss
…
I0501 01:08:49.616490  9393 solver.cpp:173] Creating test net (#0) specified by net file: ECE595/cifar/train_test/var_everything/cifar_train_test_280.prototxt
I0501 01:08:49.616526  9393 net.cpp:296] The NetState phase (1) differed from the phase (0) specified by a rule in layer cifar
I0501 01:08:49.616624  9393 net.cpp:53] Initializing net from parameters: 
name: "CIFAR"
state {
  phase: TEST
}
layer {
  name: "cifar"
  type: "Data"
  top: "data"
  top: "label"
  include {
    phase: TEST
  }
  transform_param {
    mean_file: "examples/cifar10/mean.binaryproto"
  }
  data_param {
    source: "examples/cifar10/cifar10_test_lmdb"
    batch_size: 1000
    backend: LMDB
  }
}
layer {
  name: "conv0"
  type: "Convolution"
  bottom: "data"
  top: "conv0"
  param {
    lr_mult: 1
  }
  param {
    lr_mult: 2
  }
  convolution_param {
    num_output: 8
    pad: 2
    kernel_size: 3
    stride: 1
    weight_filler {
      type: "gaussian"
      std: 0.01
    }
    bias_filler {
      type: "constant"
    }
  }
}
layer {
  name: "Sigmoid0"
  type: "Sigmoid"
  bottom: "conv0"
  top: "Sigmoid0"
}
layer {
  name: "pool0"
  type: "Pooling"
  bottom: "Sigmoid0"
  top: "pool0"
  pooling_param {
    pool: AVE
    kernel_size: 3
    stride: 2
  }
}
layer {
  name: "ip1"
  type: "InnerProduct"
  bottom: "pool0"
  top: "ip1"
  param {
    lr_mult: 1
  }
  param {
    lr_mult: 2
  }
  inner_product_param {
    num_output: 80
    weight_filler {
      type: "gaussian"
      std: 0.01
    }
    bias_filler {
      type: "constant"
    }
  }
}
layer {
  name: "relu1"
  type: "ReLU"
  bottom: "ip1"
  top: "ip1"
}
layer {
  name: "ip2"
  type: "InnerProduct"
  bottom: "ip1"
  top: "ip2"
  param {
    lr_mult: 1
  }
  param {
    lr_mult: 2
  }
  inner_product_param {
    num_output: 160
    weight_filler {
      type: "gaussian"
      std: 0.01
    }
    bias_filler {
      type: "constant"
    }
  }
}
layer {
  name: "relu2"
  type: "ReLU"
  bottom: "ip2"
  top: "ip2"
}
layer {
  name: "ip3"
  type: "InnerProduct"
  bottom: "ip2"
  top: "ip3"
  param {
    lr_mult: 1
  }
  param {
    lr_mult: 2
  }
  inner_product_param {
    num_output: 10
    weight_filler {
      type: "gaussian"
      std: 0.01
    }
    bias_filler {
      type: "constant"
    }
  }
}
layer {
  name: "relu3"
  type: "ReLU"
  bottom: "ip3"
  top: "ip3"
}
layer {
  name: "ip4"
  type: "InnerProduct"
  bottom: "ip3"
  top: "ip4"
  param {
    lr_mult: 1
  }
  param {
    lr_mult: 2
  }
  inner_product_param {
    num_output: 10
    weight_filler {
      type: "gaussian"
      std: 0.01
    }
    bias_filler {
      type: "constant"
    }
  }
}
layer {
  name: "accuracy"
  type: "Accuracy"
  bottom: "ip4"
  bottom: "label"
  top: "accuracy"
  include {
    phase: TEST
  }
}
layer {
  name: "loss"
  type: "SoftmaxWithLoss"
  bottom: "ip4"
  bottom: "label"
  top: "loss"
}
I0501 01:08:49.616732  9393 layer_factory.hpp:77] Creating layer cifar
I0501 01:08:49.616791  9393 db_lmdb.cpp:35] Opened lmdb examples/cifar10/cifar10_test_lmdb
I0501 01:08:49.616807  9393 net.cpp:86] Creating Layer cifar
I0501 01:08:49.616822  9393 net.cpp:382] cifar -> data
I0501 01:08:49.616832  9393 net.cpp:382] cifar -> label
I0501 01:08:49.616842  9393 data_transformer.cpp:25] Loading mean file from: examples/cifar10/mean.binaryproto
I0501 01:08:49.617033  9393 data_layer.cpp:45] output data size: 1000,3,32,32
I0501 01:08:49.639498  9393 net.cpp:124] Setting up cifar
I0501 01:08:49.639528  9393 net.cpp:131] Top shape: 1000 3 32 32 (3072000)
I0501 01:08:49.639535  9393 net.cpp:131] Top shape: 1000 (1000)
I0501 01:08:49.639539  9393 net.cpp:139] Memory required for data: 12292000
I0501 01:08:49.639564  9393 layer_factory.hpp:77] Creating layer label_cifar_1_split
I0501 01:08:49.639583  9393 net.cpp:86] Creating Layer label_cifar_1_split
I0501 01:08:49.639590  9393 net.cpp:408] label_cifar_1_split <- label
I0501 01:08:49.639600  9393 net.cpp:382] label_cifar_1_split -> label_cifar_1_split_0
I0501 01:08:49.639613  9393 net.cpp:382] label_cifar_1_split -> label_cifar_1_split_1
I0501 01:08:49.639719  9393 net.cpp:124] Setting up label_cifar_1_split
I0501 01:08:49.639727  9393 net.cpp:131] Top shape: 1000 (1000)
I0501 01:08:49.639734  9393 net.cpp:131] Top shape: 1000 (1000)
I0501 01:08:49.639739  9393 net.cpp:139] Memory required for data: 12300000
I0501 01:08:49.639744  9393 layer_factory.hpp:77] Creating layer conv0
I0501 01:08:49.639760  9393 net.cpp:86] Creating Layer conv0
I0501 01:08:49.639766  9393 net.cpp:408] conv0 <- data
I0501 01:08:49.639775  9393 net.cpp:382] conv0 -> conv0
I0501 01:08:49.641422  9393 net.cpp:124] Setting up conv0
I0501 01:08:49.641436  9393 net.cpp:131] Top shape: 1000 8 34 34 (9248000)
I0501 01:08:49.641441  9393 net.cpp:139] Memory required for data: 49292000
I0501 01:08:49.641471  9393 layer_factory.hpp:77] Creating layer Sigmoid0
I0501 01:08:49.641481  9393 net.cpp:86] Creating Layer Sigmoid0
I0501 01:08:49.641492  9393 net.cpp:408] Sigmoid0 <- conv0
I0501 01:08:49.641499  9393 net.cpp:382] Sigmoid0 -> Sigmoid0
I0501 01:08:49.641688  9393 net.cpp:124] Setting up Sigmoid0
I0501 01:08:49.641700  9393 net.cpp:131] Top shape: 1000 8 34 34 (9248000)
I0501 01:08:49.641705  9393 net.cpp:139] Memory required for data: 86284000
I0501 01:08:49.641710  9393 layer_factory.hpp:77] Creating layer pool0
I0501 01:08:49.641721  9393 net.cpp:86] Creating Layer pool0
I0501 01:08:49.641726  9393 net.cpp:408] pool0 <- Sigmoid0
I0501 01:08:49.641734  9393 net.cpp:382] pool0 -> pool0
I0501 01:08:49.641984  9393 net.cpp:124] Setting up pool0
I0501 01:08:49.641994  9393 net.cpp:131] Top shape: 1000 8 17 17 (2312000)
I0501 01:08:49.641999  9393 net.cpp:139] Memory required for data: 95532000
I0501 01:08:49.642004  9393 layer_factory.hpp:77] Creating layer ip1
I0501 01:08:49.642016  9393 net.cpp:86] Creating Layer ip1
I0501 01:08:49.642021  9393 net.cpp:408] ip1 <- pool0
I0501 01:08:49.642030  9393 net.cpp:382] ip1 -> ip1
I0501 01:08:49.647836  9393 net.cpp:124] Setting up ip1
I0501 01:08:49.647848  9393 net.cpp:131] Top shape: 1000 80 (80000)
I0501 01:08:49.647853  9393 net.cpp:139] Memory required for data: 95852000
I0501 01:08:49.647897  9393 layer_factory.hpp:77] Creating layer relu1
I0501 01:08:49.647908  9393 net.cpp:86] Creating Layer relu1
I0501 01:08:49.647914  9393 net.cpp:408] relu1 <- ip1
I0501 01:08:49.647922  9393 net.cpp:369] relu1 -> ip1 (in-place)
I0501 01:08:49.648098  9393 net.cpp:124] Setting up relu1
I0501 01:08:49.648108  9393 net.cpp:131] Top shape: 1000 80 (80000)
I0501 01:08:49.648113  9393 net.cpp:139] Memory required for data: 96172000
I0501 01:08:49.648118  9393 layer_factory.hpp:77] Creating layer ip2
I0501 01:08:49.648128  9393 net.cpp:86] Creating Layer ip2
I0501 01:08:49.648149  9393 net.cpp:408] ip2 <- ip1
I0501 01:08:49.648156  9393 net.cpp:382] ip2 -> ip2
I0501 01:08:49.648694  9393 net.cpp:124] Setting up ip2
I0501 01:08:49.648702  9393 net.cpp:131] Top shape: 1000 160 (160000)
I0501 01:08:49.648707  9393 net.cpp:139] Memory required for data: 96812000
I0501 01:08:49.648736  9393 layer_factory.hpp:77] Creating layer relu2
I0501 01:08:49.648748  9393 net.cpp:86] Creating Layer relu2
I0501 01:08:49.648756  9393 net.cpp:408] relu2 <- ip2
I0501 01:08:49.648762  9393 net.cpp:369] relu2 -> ip2 (in-place)
I0501 01:08:49.649621  9393 net.cpp:124] Setting up relu2
I0501 01:08:49.649636  9393 net.cpp:131] Top shape: 1000 160 (160000)
I0501 01:08:49.649641  9393 net.cpp:139] Memory required for data: 97452000
I0501 01:08:49.649662  9393 layer_factory.hpp:77] Creating layer ip3
I0501 01:08:49.649672  9393 net.cpp:86] Creating Layer ip3
I0501 01:08:49.649677  9393 net.cpp:408] ip3 <- ip2
I0501 01:08:49.649685  9393 net.cpp:382] ip3 -> ip3
I0501 01:08:49.649832  9393 net.cpp:124] Setting up ip3
I0501 01:08:49.649840  9393 net.cpp:131] Top shape: 1000 10 (10000)
I0501 01:08:49.649845  9393 net.cpp:139] Memory required for data: 97492000
I0501 01:08:49.649854  9393 layer_factory.hpp:77] Creating layer relu3
I0501 01:08:49.649863  9393 net.cpp:86] Creating Layer relu3
I0501 01:08:49.649868  9393 net.cpp:408] relu3 <- ip3
I0501 01:08:49.649875  9393 net.cpp:369] relu3 -> ip3 (in-place)
I0501 01:08:49.650022  9393 net.cpp:124] Setting up relu3
I0501 01:08:49.650033  9393 net.cpp:131] Top shape: 1000 10 (10000)
I0501 01:08:49.650038  9393 net.cpp:139] Memory required for data: 97532000
I0501 01:08:49.650043  9393 layer_factory.hpp:77] Creating layer ip4
I0501 01:08:49.650053  9393 net.cpp:86] Creating Layer ip4
I0501 01:08:49.650058  9393 net.cpp:408] ip4 <- ip3
I0501 01:08:49.650065  9393 net.cpp:382] ip4 -> ip4
I0501 01:08:49.650169  9393 net.cpp:124] Setting up ip4
I0501 01:08:49.650187  9393 net.cpp:131] Top shape: 1000 10 (10000)
I0501 01:08:49.650192  9393 net.cpp:139] Memory required for data: 97572000
I0501 01:08:49.650204  9393 layer_factory.hpp:77] Creating layer ip4_ip4_0_split
I0501 01:08:49.650213  9393 net.cpp:86] Creating Layer ip4_ip4_0_split
I0501 01:08:49.650219  9393 net.cpp:408] ip4_ip4_0_split <- ip4
I0501 01:08:49.650226  9393 net.cpp:382] ip4_ip4_0_split -> ip4_ip4_0_split_0
I0501 01:08:49.650235  9393 net.cpp:382] ip4_ip4_0_split -> ip4_ip4_0_split_1
I0501 01:08:49.650272  9393 net.cpp:124] Setting up ip4_ip4_0_split
I0501 01:08:49.650279  9393 net.cpp:131] Top shape: 1000 10 (10000)
I0501 01:08:49.650286  9393 net.cpp:131] Top shape: 1000 10 (10000)
I0501 01:08:49.650290  9393 net.cpp:139] Memory required for data: 97652000
I0501 01:08:49.650295  9393 layer_factory.hpp:77] Creating layer accuracy
I0501 01:08:49.650303  9393 net.cpp:86] Creating Layer accuracy
I0501 01:08:49.650308  9393 net.cpp:408] accuracy <- ip4_ip4_0_split_0
I0501 01:08:49.650331  9393 net.cpp:408] accuracy <- label_cifar_1_split_0
I0501 01:08:49.650338  9393 net.cpp:382] accuracy -> accuracy
…
