…
I0430 20:07:16.121947 27908 net.cpp:296] The NetState phase (0) differed from the phase (1) specified by a rule in layer cifar
I0430 20:07:16.121965 27908 net.cpp:296] The NetState phase (0) differed from the phase (1) specified by a rule in layer accuracy
I0430 20:07:16.122048 27908 net.cpp:53] Initializing net from parameters: 
name: "CIFAR"
state {
  phase: TRAIN
  level: 0
  stage: ""
}
layer {
  name: "cifar"
  type: "Data"
  top: "data"
  top: "label"
  include {
    phase: TRAIN
  }
  transform_param {
    mean_file: "examples/cifar10/mean.binaryproto"
  }
  data_param {
    source: "examples/cifar10/cifar10_train_lmdb"
    batch_size: 111
    backend: LMDB
  }
}
layer {
  name: "ip1"
  type: "InnerProduct"
  bottom: "data"
  top: "ip1"
  param {
    lr_mult: 1
  }
  param {
    lr_mult: 2
  }
  inner_product_param {
    num_output: 80
    weight_filler {
      type: "gaussian"
      std: 0.01
    }
    bias_filler {
      type: "constant"
    }
  }
}
layer {
  name: "relu1"
  type: "ReLU"
  bottom: "ip1"
  top: "ip1"
}
layer {
  name: "ip2"
  type: "InnerProduct"
  bottom: "ip1"
  top: "ip2"
  param {
    lr_mult: 1
  }
  param {
    lr_mult: 2
  }
  inner_product_param {
    num_output: 40
    weight_filler {
      type: "gaussian"
      std: 0.01
    }
    bias_filler {
      type: "constant"
    }
  }
}
layer {
  name: "relu2"
  type: "ReLU"
  bottom: "ip2"
  top: "ip2"
}
layer {
  name: "ip3"
  type: "InnerProduct"
  bottom: "ip2"
  top: "ip3"
  param {
    lr_mult: 1
  }
  param {
    lr_mult: 2
  }
  inner_product_param {
    num_output: 160
    weight_filler {
      type: "gaussian"
      std: 0.01
    }
    bias_filler {
      type: "constant"
    }
  }
}
layer {
  name: "relu3"
  type: "ReLU"
  bottom: "ip3"
  top: "ip3"
}
layer {
  name: "ip4"
  type: "InnerProduct"
  bottom: "ip3"
  top: "ip4"
  param {
    lr_mult: 1
  }
  param {
    lr_mult: 2
  }
  inner_product_param {
    num_output: 10
    weight_filler {
      type: "gaussian"
      std: 0.01
    }
    bias_filler {
      type: "constant"
    }
  }
}
layer {
  name: "loss"
  type: "SoftmaxWithLoss"
  bottom: "ip4"
  bottom: "label"
  top: "loss"
}
I0430 20:07:16.122119 27908 layer_factory.hpp:77] Creating layer cifar
I0430 20:07:16.122220 27908 db_lmdb.cpp:35] Opened lmdb examples/cifar10/cifar10_train_lmdb
I0430 20:07:16.122251 27908 net.cpp:86] Creating Layer cifar
I0430 20:07:16.122259 27908 net.cpp:382] cifar -> data
I0430 20:07:16.122287 27908 net.cpp:382] cifar -> label
I0430 20:07:16.122300 27908 data_transformer.cpp:25] Loading mean file from: examples/cifar10/mean.binaryproto
I0430 20:07:16.124397 27908 data_layer.cpp:45] output data size: 111,3,32,32
I0430 20:07:16.132483 27908 net.cpp:124] Setting up cifar
I0430 20:07:16.132503 27908 net.cpp:131] Top shape: 111 3 32 32 (340992)
I0430 20:07:16.132510 27908 net.cpp:131] Top shape: 111 (111)
I0430 20:07:16.132514 27908 net.cpp:139] Memory required for data: 1364412
I0430 20:07:16.132521 27908 layer_factory.hpp:77] Creating layer ip1
I0430 20:07:16.132535 27908 net.cpp:86] Creating Layer ip1
I0430 20:07:16.132540 27908 net.cpp:408] ip1 <- data
I0430 20:07:16.132553 27908 net.cpp:382] ip1 -> ip1
I0430 20:07:16.141783 27908 net.cpp:124] Setting up ip1
I0430 20:07:16.141798 27908 net.cpp:131] Top shape: 111 80 (8880)
I0430 20:07:16.141803 27908 net.cpp:139] Memory required for data: 1399932
I0430 20:07:16.141819 27908 layer_factory.hpp:77] Creating layer relu1
I0430 20:07:16.141827 27908 net.cpp:86] Creating Layer relu1
I0430 20:07:16.141849 27908 net.cpp:408] relu1 <- ip1
I0430 20:07:16.141855 27908 net.cpp:369] relu1 -> ip1 (in-place)
I0430 20:07:16.408862 27908 net.cpp:124] Setting up relu1
I0430 20:07:16.408906 27908 net.cpp:131] Top shape: 111 80 (8880)
I0430 20:07:16.408926 27908 net.cpp:139] Memory required for data: 1435452
I0430 20:07:16.408931 27908 layer_factory.hpp:77] Creating layer ip2
I0430 20:07:16.408944 27908 net.cpp:86] Creating Layer ip2
I0430 20:07:16.408947 27908 net.cpp:408] ip2 <- ip1
I0430 20:07:16.408956 27908 net.cpp:382] ip2 -> ip2
I0430 20:07:16.409163 27908 net.cpp:124] Setting up ip2
I0430 20:07:16.409171 27908 net.cpp:131] Top shape: 111 40 (4440)
I0430 20:07:16.409174 27908 net.cpp:139] Memory required for data: 1453212
I0430 20:07:16.409183 27908 layer_factory.hpp:77] Creating layer relu2
I0430 20:07:16.409189 27908 net.cpp:86] Creating Layer relu2
I0430 20:07:16.409193 27908 net.cpp:408] relu2 <- ip2
I0430 20:07:16.409198 27908 net.cpp:369] relu2 -> ip2 (in-place)
I0430 20:07:16.410035 27908 net.cpp:124] Setting up relu2
I0430 20:07:16.410048 27908 net.cpp:131] Top shape: 111 40 (4440)
I0430 20:07:16.410066 27908 net.cpp:139] Memory required for data: 1470972
I0430 20:07:16.410070 27908 layer_factory.hpp:77] Creating layer ip3
I0430 20:07:16.410076 27908 net.cpp:86] Creating Layer ip3
I0430 20:07:16.410079 27908 net.cpp:408] ip3 <- ip2
I0430 20:07:16.410084 27908 net.cpp:382] ip3 -> ip3
I0430 20:07:16.411252 27908 net.cpp:124] Setting up ip3
I0430 20:07:16.411263 27908 net.cpp:131] Top shape: 111 160 (17760)
I0430 20:07:16.411283 27908 net.cpp:139] Memory required for data: 1542012
I0430 20:07:16.411291 27908 layer_factory.hpp:77] Creating layer relu3
I0430 20:07:16.411296 27908 net.cpp:86] Creating Layer relu3
I0430 20:07:16.411300 27908 net.cpp:408] relu3 <- ip3
I0430 20:07:16.411304 27908 net.cpp:369] relu3 -> ip3 (in-place)
I0430 20:07:16.411484 27908 net.cpp:124] Setting up relu3
I0430 20:07:16.411494 27908 net.cpp:131] Top shape: 111 160 (17760)
I0430 20:07:16.411496 27908 net.cpp:139] Memory required for data: 1613052
I0430 20:07:16.411499 27908 layer_factory.hpp:77] Creating layer ip4
I0430 20:07:16.411505 27908 net.cpp:86] Creating Layer ip4
I0430 20:07:16.411509 27908 net.cpp:408] ip4 <- ip3
I0430 20:07:16.411514 27908 net.cpp:382] ip4 -> ip4
I0430 20:07:16.411638 27908 net.cpp:124] Setting up ip4
I0430 20:07:16.411643 27908 net.cpp:131] Top shape: 111 10 (1110)
I0430 20:07:16.411646 27908 net.cpp:139] Memory required for data: 1617492
I0430 20:07:16.411651 27908 layer_factory.hpp:77] Creating layer loss
I0430 20:07:16.411659 27908 net.cpp:86] Creating Layer loss
I0430 20:07:16.411661 27908 net.cpp:408] loss <- ip4
I0430 20:07:16.411679 27908 net.cpp:408] loss <- label
I0430 20:07:16.411684 27908 net.cpp:382] loss -> loss
I0430 20:07:16.411702 27908 layer_factory.hpp:77] Creating layer loss
…
I0430 20:07:16.412227 27908 solver.cpp:173] Creating test net (#0) specified by net file: ECE595/cifar/train_test/var_everything/cifar_train_test_119.prototxt
I0430 20:07:16.412262 27908 net.cpp:296] The NetState phase (1) differed from the phase (0) specified by a rule in layer cifar
I0430 20:07:16.412333 27908 net.cpp:53] Initializing net from parameters: 
name: "CIFAR"
state {
  phase: TEST
}
layer {
  name: "cifar"
  type: "Data"
  top: "data"
  top: "label"
  include {
    phase: TEST
  }
  transform_param {
    mean_file: "examples/cifar10/mean.binaryproto"
  }
  data_param {
    source: "examples/cifar10/cifar10_test_lmdb"
    batch_size: 1000
    backend: LMDB
  }
}
layer {
  name: "ip1"
  type: "InnerProduct"
  bottom: "data"
  top: "ip1"
  param {
    lr_mult: 1
  }
  param {
    lr_mult: 2
  }
  inner_product_param {
    num_output: 80
    weight_filler {
      type: "gaussian"
      std: 0.01
    }
    bias_filler {
      type: "constant"
    }
  }
}
layer {
  name: "relu1"
  type: "ReLU"
  bottom: "ip1"
  top: "ip1"
}
layer {
  name: "ip2"
  type: "InnerProduct"
  bottom: "ip1"
  top: "ip2"
  param {
    lr_mult: 1
  }
  param {
    lr_mult: 2
  }
  inner_product_param {
    num_output: 40
    weight_filler {
      type: "gaussian"
      std: 0.01
    }
    bias_filler {
      type: "constant"
    }
  }
}
layer {
  name: "relu2"
  type: "ReLU"
  bottom: "ip2"
  top: "ip2"
}
layer {
  name: "ip3"
  type: "InnerProduct"
  bottom: "ip2"
  top: "ip3"
  param {
    lr_mult: 1
  }
  param {
    lr_mult: 2
  }
  inner_product_param {
    num_output: 160
    weight_filler {
      type: "gaussian"
      std: 0.01
    }
    bias_filler {
      type: "constant"
    }
  }
}
layer {
  name: "relu3"
  type: "ReLU"
  bottom: "ip3"
  top: "ip3"
}
layer {
  name: "ip4"
  type: "InnerProduct"
  bottom: "ip3"
  top: "ip4"
  param {
    lr_mult: 1
  }
  param {
    lr_mult: 2
  }
  inner_product_param {
    num_output: 10
    weight_filler {
      type: "gaussian"
      std: 0.01
    }
    bias_filler {
      type: "constant"
    }
  }
}
layer {
  name: "accuracy"
  type: "Accuracy"
  bottom: "ip4"
  bottom: "label"
  top: "accuracy"
  include {
    phase: TEST
  }
}
layer {
  name: "loss"
  type: "SoftmaxWithLoss"
  bottom: "ip4"
  bottom: "label"
  top: "loss"
}
I0430 20:07:16.412387 27908 layer_factory.hpp:77] Creating layer cifar
I0430 20:07:16.412431 27908 db_lmdb.cpp:35] Opened lmdb examples/cifar10/cifar10_test_lmdb
I0430 20:07:16.412443 27908 net.cpp:86] Creating Layer cifar
I0430 20:07:16.412447 27908 net.cpp:382] cifar -> data
I0430 20:07:16.412456 27908 net.cpp:382] cifar -> label
I0430 20:07:16.412461 27908 data_transformer.cpp:25] Loading mean file from: examples/cifar10/mean.binaryproto
I0430 20:07:16.412598 27908 data_layer.cpp:45] output data size: 1000,3,32,32
I0430 20:07:16.435276 27908 net.cpp:124] Setting up cifar
I0430 20:07:16.435315 27908 net.cpp:131] Top shape: 1000 3 32 32 (3072000)
I0430 20:07:16.435322 27908 net.cpp:131] Top shape: 1000 (1000)
I0430 20:07:16.435323 27908 net.cpp:139] Memory required for data: 12292000
I0430 20:07:16.435328 27908 layer_factory.hpp:77] Creating layer label_cifar_1_split
I0430 20:07:16.435356 27908 net.cpp:86] Creating Layer label_cifar_1_split
I0430 20:07:16.435375 27908 net.cpp:408] label_cifar_1_split <- label
I0430 20:07:16.435381 27908 net.cpp:382] label_cifar_1_split -> label_cifar_1_split_0
I0430 20:07:16.435389 27908 net.cpp:382] label_cifar_1_split -> label_cifar_1_split_1
I0430 20:07:16.435482 27908 net.cpp:124] Setting up label_cifar_1_split
I0430 20:07:16.435488 27908 net.cpp:131] Top shape: 1000 (1000)
I0430 20:07:16.435492 27908 net.cpp:131] Top shape: 1000 (1000)
I0430 20:07:16.435494 27908 net.cpp:139] Memory required for data: 12300000
I0430 20:07:16.435497 27908 layer_factory.hpp:77] Creating layer ip1
I0430 20:07:16.435506 27908 net.cpp:86] Creating Layer ip1
I0430 20:07:16.435509 27908 net.cpp:408] ip1 <- data
I0430 20:07:16.435513 27908 net.cpp:382] ip1 -> ip1
I0430 20:07:16.442149 27908 net.cpp:124] Setting up ip1
I0430 20:07:16.442159 27908 net.cpp:131] Top shape: 1000 80 (80000)
I0430 20:07:16.442178 27908 net.cpp:139] Memory required for data: 12620000
I0430 20:07:16.442200 27908 layer_factory.hpp:77] Creating layer relu1
I0430 20:07:16.442207 27908 net.cpp:86] Creating Layer relu1
I0430 20:07:16.442210 27908 net.cpp:408] relu1 <- ip1
I0430 20:07:16.442215 27908 net.cpp:369] relu1 -> ip1 (in-place)
I0430 20:07:16.443030 27908 net.cpp:124] Setting up relu1
I0430 20:07:16.443042 27908 net.cpp:131] Top shape: 1000 80 (80000)
I0430 20:07:16.443061 27908 net.cpp:139] Memory required for data: 12940000
I0430 20:07:16.443065 27908 layer_factory.hpp:77] Creating layer ip2
I0430 20:07:16.443074 27908 net.cpp:86] Creating Layer ip2
I0430 20:07:16.443078 27908 net.cpp:408] ip2 <- ip1
I0430 20:07:16.443083 27908 net.cpp:382] ip2 -> ip2
I0430 20:07:16.443284 27908 net.cpp:124] Setting up ip2
I0430 20:07:16.443290 27908 net.cpp:131] Top shape: 1000 40 (40000)
I0430 20:07:16.443294 27908 net.cpp:139] Memory required for data: 13100000
I0430 20:07:16.443300 27908 layer_factory.hpp:77] Creating layer relu2
I0430 20:07:16.443305 27908 net.cpp:86] Creating Layer relu2
I0430 20:07:16.443308 27908 net.cpp:408] relu2 <- ip2
I0430 20:07:16.443313 27908 net.cpp:369] relu2 -> ip2 (in-place)
I0430 20:07:16.443464 27908 net.cpp:124] Setting up relu2
I0430 20:07:16.443472 27908 net.cpp:131] Top shape: 1000 40 (40000)
I0430 20:07:16.443476 27908 net.cpp:139] Memory required for data: 13260000
I0430 20:07:16.443480 27908 layer_factory.hpp:77] Creating layer ip3
I0430 20:07:16.443487 27908 net.cpp:86] Creating Layer ip3
I0430 20:07:16.443490 27908 net.cpp:408] ip3 <- ip2
I0430 20:07:16.443495 27908 net.cpp:382] ip3 -> ip3
I0430 20:07:16.443775 27908 net.cpp:124] Setting up ip3
I0430 20:07:16.443783 27908 net.cpp:131] Top shape: 1000 160 (160000)
I0430 20:07:16.443785 27908 net.cpp:139] Memory required for data: 13900000
I0430 20:07:16.443794 27908 layer_factory.hpp:77] Creating layer relu3
I0430 20:07:16.443799 27908 net.cpp:86] Creating Layer relu3
I0430 20:07:16.443801 27908 net.cpp:408] relu3 <- ip3
I0430 20:07:16.443806 27908 net.cpp:369] relu3 -> ip3 (in-place)
I0430 20:07:16.443971 27908 net.cpp:124] Setting up relu3
I0430 20:07:16.443979 27908 net.cpp:131] Top shape: 1000 160 (160000)
I0430 20:07:16.443982 27908 net.cpp:139] Memory required for data: 14540000
I0430 20:07:16.443985 27908 layer_factory.hpp:77] Creating layer ip4
I0430 20:07:16.443994 27908 net.cpp:86] Creating Layer ip4
I0430 20:07:16.443996 27908 net.cpp:408] ip4 <- ip3
I0430 20:07:16.444000 27908 net.cpp:382] ip4 -> ip4
I0430 20:07:16.444155 27908 net.cpp:124] Setting up ip4
I0430 20:07:16.444161 27908 net.cpp:131] Top shape: 1000 10 (10000)
I0430 20:07:16.444164 27908 net.cpp:139] Memory required for data: 14580000
I0430 20:07:16.444169 27908 layer_factory.hpp:77] Creating layer ip4_ip4_0_split
I0430 20:07:16.444175 27908 net.cpp:86] Creating Layer ip4_ip4_0_split
I0430 20:07:16.444177 27908 net.cpp:408] ip4_ip4_0_split <- ip4
I0430 20:07:16.444182 27908 net.cpp:382] ip4_ip4_0_split -> ip4_ip4_0_split_0
I0430 20:07:16.444190 27908 net.cpp:382] ip4_ip4_0_split -> ip4_ip4_0_split_1
I0430 20:07:16.444219 27908 net.cpp:124] Setting up ip4_ip4_0_split
I0430 20:07:16.444223 27908 net.cpp:131] Top shape: 1000 10 (10000)
I0430 20:07:16.444227 27908 net.cpp:131] Top shape: 1000 10 (10000)
I0430 20:07:16.444229 27908 net.cpp:139] Memory required for data: 14660000
I0430 20:07:16.444233 27908 layer_factory.hpp:77] Creating layer accuracy
I0430 20:07:16.444239 27908 net.cpp:86] Creating Layer accuracy
I0430 20:07:16.444242 27908 net.cpp:408] accuracy <- ip4_ip4_0_split_0
I0430 20:07:16.444245 27908 net.cpp:408] accuracy <- label_cifar_1_split_0
I0430 20:07:16.444252 27908 net.cpp:382] accuracy -> accuracy
…
