…
I0501 04:28:34.691684 25333 net.cpp:296] The NetState phase (0) differed from the phase (1) specified by a rule in layer cifar
I0501 04:28:34.691712 25333 net.cpp:296] The NetState phase (0) differed from the phase (1) specified by a rule in layer accuracy
I0501 04:28:34.691813 25333 net.cpp:53] Initializing net from parameters: 
name: "CIFAR"
state {
  phase: TRAIN
  level: 0
  stage: ""
}
layer {
  name: "cifar"
  type: "Data"
  top: "data"
  top: "label"
  include {
    phase: TRAIN
  }
  transform_param {
    mean_file: "examples/cifar10/mean.binaryproto"
  }
  data_param {
    source: "examples/cifar10/cifar10_train_lmdb"
    batch_size: 111
    backend: LMDB
  }
}
layer {
  name: "conv0"
  type: "Convolution"
  bottom: "data"
  top: "conv0"
  param {
    lr_mult: 1
  }
  param {
    lr_mult: 2
  }
  convolution_param {
    num_output: 8
    pad: 2
    kernel_size: 5
    stride: 1
    weight_filler {
      type: "gaussian"
      std: 0.01
    }
    bias_filler {
      type: "constant"
    }
  }
}
layer {
  name: "Sigmoid0"
  type: "Sigmoid"
  bottom: "conv0"
  top: "Sigmoid0"
}
layer {
  name: "pool0"
  type: "Pooling"
  bottom: "Sigmoid0"
  top: "pool0"
  pooling_param {
    pool: AVE
    kernel_size: 3
    stride: 2
  }
}
layer {
  name: "ip1"
  type: "InnerProduct"
  bottom: "pool0"
  top: "ip1"
  param {
    lr_mult: 1
  }
  param {
    lr_mult: 2
  }
  inner_product_param {
    num_output: 20
    weight_filler {
      type: "gaussian"
      std: 0.01
    }
    bias_filler {
      type: "constant"
    }
  }
}
layer {
  name: "relu1"
  type: "ReLU"
  bottom: "ip1"
  top: "ip1"
}
layer {
  name: "ip2"
  type: "InnerProduct"
  bottom: "ip1"
  top: "ip2"
  param {
    lr_mult: 1
  }
  param {
    lr_mult: 2
  }
  inner_product_param {
    num_output: 160
    weight_filler {
      type: "gaussian"
      std: 0.01
    }
    bias_filler {
      type: "constant"
    }
  }
}
layer {
  name: "relu2"
  type: "ReLU"
  bottom: "ip2"
  top: "ip2"
}
layer {
  name: "ip3"
  type: "InnerProduct"
  bottom: "ip2"
  top: "ip3"
  param {
    lr_mult: 1
  }
  param {
    lr_mult: 2
  }
  inner_product_param {
    num_output: 40
    weight_filler {
      type: "gaussian"
      std: 0.01
    }
    bias_filler {
      type: "constant"
    }
  }
}
layer {
  name: "relu3"
  type: "ReLU"
  bottom: "ip3"
  top: "ip3"
}
layer {
  name: "ip4"
  type: "InnerProduct"
  bottom: "ip3"
  top: "ip4"
  param {
    lr_mult: 1
  }
  param {
    lr_mult: 2
  }
  inner_product_param {
    num_output: 10
    weight_filler {
      type: "gaussian"
      std: 0.01
    }
    bias_filler {
      type: "constant"
    }
  }
}
layer {
  name: "loss"
  type: "SoftmaxWithLoss"
  bottom: "ip4"
  bottom: "label"
  top: "loss"
}
I0501 04:28:34.691879 25333 layer_factory.hpp:77] Creating layer cifar
I0501 04:28:34.691974 25333 db_lmdb.cpp:35] Opened lmdb examples/cifar10/cifar10_train_lmdb
I0501 04:28:34.691997 25333 net.cpp:86] Creating Layer cifar
I0501 04:28:34.692003 25333 net.cpp:382] cifar -> data
I0501 04:28:34.692023 25333 net.cpp:382] cifar -> label
I0501 04:28:34.692031 25333 data_transformer.cpp:25] Loading mean file from: examples/cifar10/mean.binaryproto
I0501 04:28:34.693904 25333 data_layer.cpp:45] output data size: 111,3,32,32
I0501 04:28:34.700276 25333 net.cpp:124] Setting up cifar
I0501 04:28:34.700291 25333 net.cpp:131] Top shape: 111 3 32 32 (340992)
I0501 04:28:34.700296 25333 net.cpp:131] Top shape: 111 (111)
I0501 04:28:34.700299 25333 net.cpp:139] Memory required for data: 1364412
I0501 04:28:34.700317 25333 layer_factory.hpp:77] Creating layer conv0
I0501 04:28:34.700364 25333 net.cpp:86] Creating Layer conv0
I0501 04:28:34.700369 25333 net.cpp:408] conv0 <- data
I0501 04:28:34.700379 25333 net.cpp:382] conv0 -> conv0
I0501 04:28:34.935607 25333 net.cpp:124] Setting up conv0
I0501 04:28:34.935649 25333 net.cpp:131] Top shape: 111 8 32 32 (909312)
I0501 04:28:34.935653 25333 net.cpp:139] Memory required for data: 5001660
I0501 04:28:34.935667 25333 layer_factory.hpp:77] Creating layer Sigmoid0
I0501 04:28:34.935678 25333 net.cpp:86] Creating Layer Sigmoid0
I0501 04:28:34.935683 25333 net.cpp:408] Sigmoid0 <- conv0
I0501 04:28:34.935688 25333 net.cpp:382] Sigmoid0 -> Sigmoid0
I0501 04:28:34.935874 25333 net.cpp:124] Setting up Sigmoid0
I0501 04:28:34.935884 25333 net.cpp:131] Top shape: 111 8 32 32 (909312)
I0501 04:28:34.935887 25333 net.cpp:139] Memory required for data: 8638908
I0501 04:28:34.935890 25333 layer_factory.hpp:77] Creating layer pool0
I0501 04:28:34.935897 25333 net.cpp:86] Creating Layer pool0
I0501 04:28:34.935900 25333 net.cpp:408] pool0 <- Sigmoid0
I0501 04:28:34.935904 25333 net.cpp:382] pool0 -> pool0
I0501 04:28:34.936600 25333 net.cpp:124] Setting up pool0
I0501 04:28:34.936614 25333 net.cpp:131] Top shape: 111 8 16 16 (227328)
I0501 04:28:34.936631 25333 net.cpp:139] Memory required for data: 9548220
I0501 04:28:34.936635 25333 layer_factory.hpp:77] Creating layer ip1
I0501 04:28:34.936645 25333 net.cpp:86] Creating Layer ip1
I0501 04:28:34.936647 25333 net.cpp:408] ip1 <- pool0
I0501 04:28:34.936652 25333 net.cpp:382] ip1 -> ip1
I0501 04:28:34.938604 25333 net.cpp:124] Setting up ip1
I0501 04:28:34.938616 25333 net.cpp:131] Top shape: 111 20 (2220)
I0501 04:28:34.938619 25333 net.cpp:139] Memory required for data: 9557100
I0501 04:28:34.938627 25333 layer_factory.hpp:77] Creating layer relu1
I0501 04:28:34.938632 25333 net.cpp:86] Creating Layer relu1
I0501 04:28:34.938635 25333 net.cpp:408] relu1 <- ip1
I0501 04:28:34.938639 25333 net.cpp:369] relu1 -> ip1 (in-place)
I0501 04:28:34.938817 25333 net.cpp:124] Setting up relu1
I0501 04:28:34.938825 25333 net.cpp:131] Top shape: 111 20 (2220)
I0501 04:28:34.938828 25333 net.cpp:139] Memory required for data: 9565980
I0501 04:28:34.938832 25333 layer_factory.hpp:77] Creating layer ip2
I0501 04:28:34.938838 25333 net.cpp:86] Creating Layer ip2
I0501 04:28:34.938841 25333 net.cpp:408] ip2 <- ip1
I0501 04:28:34.938846 25333 net.cpp:382] ip2 -> ip2
I0501 04:28:34.939029 25333 net.cpp:124] Setting up ip2
I0501 04:28:34.939036 25333 net.cpp:131] Top shape: 111 160 (17760)
I0501 04:28:34.939039 25333 net.cpp:139] Memory required for data: 9637020
I0501 04:28:34.939046 25333 layer_factory.hpp:77] Creating layer relu2
I0501 04:28:34.939051 25333 net.cpp:86] Creating Layer relu2
I0501 04:28:34.939054 25333 net.cpp:408] relu2 <- ip2
I0501 04:28:34.939059 25333 net.cpp:369] relu2 -> ip2 (in-place)
I0501 04:28:34.939196 25333 net.cpp:124] Setting up relu2
I0501 04:28:34.939204 25333 net.cpp:131] Top shape: 111 160 (17760)
I0501 04:28:34.939208 25333 net.cpp:139] Memory required for data: 9708060
I0501 04:28:34.939210 25333 layer_factory.hpp:77] Creating layer ip3
I0501 04:28:34.939218 25333 net.cpp:86] Creating Layer ip3
I0501 04:28:34.939220 25333 net.cpp:408] ip3 <- ip2
I0501 04:28:34.939224 25333 net.cpp:382] ip3 -> ip3
I0501 04:28:34.940248 25333 net.cpp:124] Setting up ip3
I0501 04:28:34.940259 25333 net.cpp:131] Top shape: 111 40 (4440)
I0501 04:28:34.940279 25333 net.cpp:139] Memory required for data: 9725820
I0501 04:28:34.940284 25333 layer_factory.hpp:77] Creating layer relu3
I0501 04:28:34.940289 25333 net.cpp:86] Creating Layer relu3
I0501 04:28:34.940294 25333 net.cpp:408] relu3 <- ip3
I0501 04:28:34.940297 25333 net.cpp:369] relu3 -> ip3 (in-place)
I0501 04:28:34.940462 25333 net.cpp:124] Setting up relu3
I0501 04:28:34.940471 25333 net.cpp:131] Top shape: 111 40 (4440)
I0501 04:28:34.940474 25333 net.cpp:139] Memory required for data: 9743580
I0501 04:28:34.940477 25333 layer_factory.hpp:77] Creating layer ip4
I0501 04:28:34.940511 25333 net.cpp:86] Creating Layer ip4
I0501 04:28:34.940515 25333 net.cpp:408] ip4 <- ip3
I0501 04:28:34.940521 25333 net.cpp:382] ip4 -> ip4
I0501 04:28:34.940620 25333 net.cpp:124] Setting up ip4
I0501 04:28:34.940627 25333 net.cpp:131] Top shape: 111 10 (1110)
I0501 04:28:34.940630 25333 net.cpp:139] Memory required for data: 9748020
I0501 04:28:34.940639 25333 layer_factory.hpp:77] Creating layer loss
I0501 04:28:34.940644 25333 net.cpp:86] Creating Layer loss
I0501 04:28:34.940646 25333 net.cpp:408] loss <- ip4
I0501 04:28:34.940650 25333 net.cpp:408] loss <- label
I0501 04:28:34.940655 25333 net.cpp:382] loss -> loss
I0501 04:28:34.940671 25333 layer_factory.hpp:77] Creating layer loss
…
I0501 04:28:34.941941 25333 solver.cpp:173] Creating test net (#0) specified by net file: ECE595/cifar/train_test/var_everything/cifar_train_test_387.prototxt
I0501 04:28:34.941968 25333 net.cpp:296] The NetState phase (1) differed from the phase (0) specified by a rule in layer cifar
I0501 04:28:34.942075 25333 net.cpp:53] Initializing net from parameters: 
name: "CIFAR"
state {
  phase: TEST
}
layer {
  name: "cifar"
  type: "Data"
  top: "data"
  top: "label"
  include {
    phase: TEST
  }
  transform_param {
    mean_file: "examples/cifar10/mean.binaryproto"
  }
  data_param {
    source: "examples/cifar10/cifar10_test_lmdb"
    batch_size: 1000
    backend: LMDB
  }
}
layer {
  name: "conv0"
  type: "Convolution"
  bottom: "data"
  top: "conv0"
  param {
    lr_mult: 1
  }
  param {
    lr_mult: 2
  }
  convolution_param {
    num_output: 8
    pad: 2
    kernel_size: 5
    stride: 1
    weight_filler {
      type: "gaussian"
      std: 0.01
    }
    bias_filler {
      type: "constant"
    }
  }
}
layer {
  name: "Sigmoid0"
  type: "Sigmoid"
  bottom: "conv0"
  top: "Sigmoid0"
}
layer {
  name: "pool0"
  type: "Pooling"
  bottom: "Sigmoid0"
  top: "pool0"
  pooling_param {
    pool: AVE
    kernel_size: 3
    stride: 2
  }
}
layer {
  name: "ip1"
  type: "InnerProduct"
  bottom: "pool0"
  top: "ip1"
  param {
    lr_mult: 1
  }
  param {
    lr_mult: 2
  }
  inner_product_param {
    num_output: 20
    weight_filler {
      type: "gaussian"
      std: 0.01
    }
    bias_filler {
      type: "constant"
    }
  }
}
layer {
  name: "relu1"
  type: "ReLU"
  bottom: "ip1"
  top: "ip1"
}
layer {
  name: "ip2"
  type: "InnerProduct"
  bottom: "ip1"
  top: "ip2"
  param {
    lr_mult: 1
  }
  param {
    lr_mult: 2
  }
  inner_product_param {
    num_output: 160
    weight_filler {
      type: "gaussian"
      std: 0.01
    }
    bias_filler {
      type: "constant"
    }
  }
}
layer {
  name: "relu2"
  type: "ReLU"
  bottom: "ip2"
  top: "ip2"
}
layer {
  name: "ip3"
  type: "InnerProduct"
  bottom: "ip2"
  top: "ip3"
  param {
    lr_mult: 1
  }
  param {
    lr_mult: 2
  }
  inner_product_param {
    num_output: 40
    weight_filler {
      type: "gaussian"
      std: 0.01
    }
    bias_filler {
      type: "constant"
    }
  }
}
layer {
  name: "relu3"
  type: "ReLU"
  bottom: "ip3"
  top: "ip3"
}
layer {
  name: "ip4"
  type: "InnerProduct"
  bottom: "ip3"
  top: "ip4"
  param {
    lr_mult: 1
  }
  param {
    lr_mult: 2
  }
  inner_product_param {
    num_output: 10
    weight_filler {
      type: "gaussian"
      std: 0.01
    }
    bias_filler {
      type: "constant"
    }
  }
}
layer {
  name: "accuracy"
  type: "Accuracy"
  bottom: "ip4"
  bottom: "label"
  top: "accuracy"
  include {
    phase: TEST
  }
}
layer {
  name: "loss"
  type: "SoftmaxWithLoss"
  bottom: "ip4"
  bottom: "label"
  top: "loss"
}
I0501 04:28:34.942149 25333 layer_factory.hpp:77] Creating layer cifar
I0501 04:28:34.942195 25333 db_lmdb.cpp:35] Opened lmdb examples/cifar10/cifar10_test_lmdb
I0501 04:28:34.942207 25333 net.cpp:86] Creating Layer cifar
I0501 04:28:34.942212 25333 net.cpp:382] cifar -> data
I0501 04:28:34.942219 25333 net.cpp:382] cifar -> label
I0501 04:28:34.942225 25333 data_transformer.cpp:25] Loading mean file from: examples/cifar10/mean.binaryproto
I0501 04:28:34.942371 25333 data_layer.cpp:45] output data size: 1000,3,32,32
I0501 04:28:34.963728 25333 net.cpp:124] Setting up cifar
I0501 04:28:34.963769 25333 net.cpp:131] Top shape: 1000 3 32 32 (3072000)
I0501 04:28:34.963775 25333 net.cpp:131] Top shape: 1000 (1000)
I0501 04:28:34.963778 25333 net.cpp:139] Memory required for data: 12292000
I0501 04:28:34.963786 25333 layer_factory.hpp:77] Creating layer label_cifar_1_split
I0501 04:28:34.963838 25333 net.cpp:86] Creating Layer label_cifar_1_split
I0501 04:28:34.963842 25333 net.cpp:408] label_cifar_1_split <- label
I0501 04:28:34.963865 25333 net.cpp:382] label_cifar_1_split -> label_cifar_1_split_0
I0501 04:28:34.963873 25333 net.cpp:382] label_cifar_1_split -> label_cifar_1_split_1
I0501 04:28:34.963951 25333 net.cpp:124] Setting up label_cifar_1_split
I0501 04:28:34.963959 25333 net.cpp:131] Top shape: 1000 (1000)
I0501 04:28:34.963963 25333 net.cpp:131] Top shape: 1000 (1000)
I0501 04:28:34.963966 25333 net.cpp:139] Memory required for data: 12300000
I0501 04:28:34.963969 25333 layer_factory.hpp:77] Creating layer conv0
I0501 04:28:34.963981 25333 net.cpp:86] Creating Layer conv0
I0501 04:28:34.963984 25333 net.cpp:408] conv0 <- data
I0501 04:28:34.963990 25333 net.cpp:382] conv0 -> conv0
I0501 04:28:34.965876 25333 net.cpp:124] Setting up conv0
I0501 04:28:34.965905 25333 net.cpp:131] Top shape: 1000 8 32 32 (8192000)
I0501 04:28:34.965909 25333 net.cpp:139] Memory required for data: 45068000
I0501 04:28:34.965919 25333 layer_factory.hpp:77] Creating layer Sigmoid0
I0501 04:28:34.965926 25333 net.cpp:86] Creating Layer Sigmoid0
I0501 04:28:34.965930 25333 net.cpp:408] Sigmoid0 <- conv0
I0501 04:28:34.965934 25333 net.cpp:382] Sigmoid0 -> Sigmoid0
I0501 04:28:34.966133 25333 net.cpp:124] Setting up Sigmoid0
I0501 04:28:34.966142 25333 net.cpp:131] Top shape: 1000 8 32 32 (8192000)
I0501 04:28:34.966146 25333 net.cpp:139] Memory required for data: 77836000
I0501 04:28:34.966150 25333 layer_factory.hpp:77] Creating layer pool0
I0501 04:28:34.966156 25333 net.cpp:86] Creating Layer pool0
I0501 04:28:34.966161 25333 net.cpp:408] pool0 <- Sigmoid0
I0501 04:28:34.966166 25333 net.cpp:382] pool0 -> pool0
I0501 04:28:34.966418 25333 net.cpp:124] Setting up pool0
I0501 04:28:34.966428 25333 net.cpp:131] Top shape: 1000 8 16 16 (2048000)
I0501 04:28:34.966430 25333 net.cpp:139] Memory required for data: 86028000
I0501 04:28:34.966434 25333 layer_factory.hpp:77] Creating layer ip1
I0501 04:28:34.966441 25333 net.cpp:86] Creating Layer ip1
I0501 04:28:34.966445 25333 net.cpp:408] ip1 <- pool0
I0501 04:28:34.966450 25333 net.cpp:382] ip1 -> ip1
I0501 04:28:34.968593 25333 net.cpp:124] Setting up ip1
I0501 04:28:34.968603 25333 net.cpp:131] Top shape: 1000 20 (20000)
I0501 04:28:34.968621 25333 net.cpp:139] Memory required for data: 86108000
I0501 04:28:34.968644 25333 layer_factory.hpp:77] Creating layer relu1
I0501 04:28:34.968650 25333 net.cpp:86] Creating Layer relu1
I0501 04:28:34.968653 25333 net.cpp:408] relu1 <- ip1
I0501 04:28:34.968657 25333 net.cpp:369] relu1 -> ip1 (in-place)
I0501 04:28:34.968854 25333 net.cpp:124] Setting up relu1
I0501 04:28:34.968864 25333 net.cpp:131] Top shape: 1000 20 (20000)
I0501 04:28:34.968868 25333 net.cpp:139] Memory required for data: 86188000
I0501 04:28:34.968870 25333 layer_factory.hpp:77] Creating layer ip2
I0501 04:28:34.968878 25333 net.cpp:86] Creating Layer ip2
I0501 04:28:34.968880 25333 net.cpp:408] ip2 <- ip1
I0501 04:28:34.968886 25333 net.cpp:382] ip2 -> ip2
I0501 04:28:34.969069 25333 net.cpp:124] Setting up ip2
I0501 04:28:34.969077 25333 net.cpp:131] Top shape: 1000 160 (160000)
I0501 04:28:34.969081 25333 net.cpp:139] Memory required for data: 86828000
I0501 04:28:34.969089 25333 layer_factory.hpp:77] Creating layer relu2
I0501 04:28:34.969094 25333 net.cpp:86] Creating Layer relu2
I0501 04:28:34.969097 25333 net.cpp:408] relu2 <- ip2
I0501 04:28:34.969101 25333 net.cpp:369] relu2 -> ip2 (in-place)
I0501 04:28:34.969885 25333 net.cpp:124] Setting up relu2
I0501 04:28:34.969897 25333 net.cpp:131] Top shape: 1000 160 (160000)
I0501 04:28:34.969916 25333 net.cpp:139] Memory required for data: 87468000
I0501 04:28:34.969920 25333 layer_factory.hpp:77] Creating layer ip3
I0501 04:28:34.969926 25333 net.cpp:86] Creating Layer ip3
I0501 04:28:34.969930 25333 net.cpp:408] ip3 <- ip2
I0501 04:28:34.969936 25333 net.cpp:382] ip3 -> ip3
I0501 04:28:34.970237 25333 net.cpp:124] Setting up ip3
I0501 04:28:34.970244 25333 net.cpp:131] Top shape: 1000 40 (40000)
I0501 04:28:34.970247 25333 net.cpp:139] Memory required for data: 87628000
I0501 04:28:34.970253 25333 layer_factory.hpp:77] Creating layer relu3
I0501 04:28:34.970259 25333 net.cpp:86] Creating Layer relu3
I0501 04:28:34.970263 25333 net.cpp:408] relu3 <- ip3
I0501 04:28:34.970266 25333 net.cpp:369] relu3 -> ip3 (in-place)
I0501 04:28:34.970477 25333 net.cpp:124] Setting up relu3
I0501 04:28:34.970487 25333 net.cpp:131] Top shape: 1000 40 (40000)
I0501 04:28:34.970490 25333 net.cpp:139] Memory required for data: 87788000
I0501 04:28:34.970495 25333 layer_factory.hpp:77] Creating layer ip4
I0501 04:28:34.970501 25333 net.cpp:86] Creating Layer ip4
I0501 04:28:34.970505 25333 net.cpp:408] ip4 <- ip3
I0501 04:28:34.970510 25333 net.cpp:382] ip4 -> ip4
I0501 04:28:34.970629 25333 net.cpp:124] Setting up ip4
I0501 04:28:34.970638 25333 net.cpp:131] Top shape: 1000 10 (10000)
I0501 04:28:34.970643 25333 net.cpp:139] Memory required for data: 87828000
I0501 04:28:34.970650 25333 layer_factory.hpp:77] Creating layer ip4_ip4_0_split
I0501 04:28:34.970656 25333 net.cpp:86] Creating Layer ip4_ip4_0_split
I0501 04:28:34.970659 25333 net.cpp:408] ip4_ip4_0_split <- ip4
I0501 04:28:34.970664 25333 net.cpp:382] ip4_ip4_0_split -> ip4_ip4_0_split_0
I0501 04:28:34.970670 25333 net.cpp:382] ip4_ip4_0_split -> ip4_ip4_0_split_1
I0501 04:28:34.970719 25333 net.cpp:124] Setting up ip4_ip4_0_split
I0501 04:28:34.970726 25333 net.cpp:131] Top shape: 1000 10 (10000)
I0501 04:28:34.970746 25333 net.cpp:131] Top shape: 1000 10 (10000)
I0501 04:28:34.970748 25333 net.cpp:139] Memory required for data: 87908000
I0501 04:28:34.970752 25333 layer_factory.hpp:77] Creating layer accuracy
I0501 04:28:34.970757 25333 net.cpp:86] Creating Layer accuracy
I0501 04:28:34.970760 25333 net.cpp:408] accuracy <- ip4_ip4_0_split_0
I0501 04:28:34.970764 25333 net.cpp:408] accuracy <- label_cifar_1_split_0
I0501 04:28:34.970769 25333 net.cpp:382] accuracy -> accuracy
…
