…
I0430 16:42:00.808336 18061 net.cpp:296] The NetState phase (0) differed from the phase (1) specified by a rule in layer cifar
I0430 16:42:00.808349 18061 net.cpp:296] The NetState phase (0) differed from the phase (1) specified by a rule in layer accuracy
I0430 16:42:00.808423 18061 net.cpp:53] Initializing net from parameters: 
name: "CIFAR"
state {
  phase: TRAIN
  level: 0
  stage: ""
}
layer {
  name: "cifar"
  type: "Data"
  top: "data"
  top: "label"
  include {
    phase: TRAIN
  }
  transform_param {
    mean_file: "examples/cifar10/mean.binaryproto"
  }
  data_param {
    source: "examples/cifar10/cifar10_train_lmdb"
    batch_size: 111
    backend: LMDB
  }
}
layer {
  name: "ip1"
  type: "InnerProduct"
  bottom: "data"
  top: "ip1"
  param {
    lr_mult: 1
  }
  param {
    lr_mult: 2
  }
  inner_product_param {
    num_output: 20
    weight_filler {
      type: "gaussian"
      std: 0.01
    }
    bias_filler {
      type: "constant"
    }
  }
}
layer {
  name: "relu1"
  type: "ReLU"
  bottom: "ip1"
  top: "ip1"
}
layer {
  name: "ip2"
  type: "InnerProduct"
  bottom: "ip1"
  top: "ip2"
  param {
    lr_mult: 1
  }
  param {
    lr_mult: 2
  }
  inner_product_param {
    num_output: 20
    weight_filler {
      type: "gaussian"
      std: 0.01
    }
    bias_filler {
      type: "constant"
    }
  }
}
layer {
  name: "relu2"
  type: "ReLU"
  bottom: "ip2"
  top: "ip2"
}
layer {
  name: "ip3"
  type: "InnerProduct"
  bottom: "ip2"
  top: "ip3"
  param {
    lr_mult: 1
  }
  param {
    lr_mult: 2
  }
  inner_product_param {
    num_output: 10
    weight_filler {
      type: "gaussian"
      std: 0.01
    }
    bias_filler {
      type: "constant"
    }
  }
}
layer {
  name: "loss"
  type: "SoftmaxWithLoss"
  bottom: "ip3"
  bottom: "label"
  top: "loss"
}
I0430 16:42:00.808490 18061 layer_factory.hpp:77] Creating layer cifar
I0430 16:42:00.808589 18061 db_lmdb.cpp:35] Opened lmdb examples/cifar10/cifar10_train_lmdb
I0430 16:42:00.808615 18061 net.cpp:86] Creating Layer cifar
I0430 16:42:00.808624 18061 net.cpp:382] cifar -> data
I0430 16:42:00.808647 18061 net.cpp:382] cifar -> label
I0430 16:42:00.808660 18061 data_transformer.cpp:25] Loading mean file from: examples/cifar10/mean.binaryproto
I0430 16:42:00.810796 18061 data_layer.cpp:45] output data size: 111,3,32,32
I0430 16:42:00.818691 18061 net.cpp:124] Setting up cifar
I0430 16:42:00.818711 18061 net.cpp:131] Top shape: 111 3 32 32 (340992)
I0430 16:42:00.818717 18061 net.cpp:131] Top shape: 111 (111)
I0430 16:42:00.818720 18061 net.cpp:139] Memory required for data: 1364412
I0430 16:42:00.818738 18061 layer_factory.hpp:77] Creating layer ip1
I0430 16:42:00.818750 18061 net.cpp:86] Creating Layer ip1
I0430 16:42:00.818755 18061 net.cpp:408] ip1 <- data
I0430 16:42:00.818768 18061 net.cpp:382] ip1 -> ip1
I0430 16:42:00.821975 18061 net.cpp:124] Setting up ip1
I0430 16:42:00.821991 18061 net.cpp:131] Top shape: 111 20 (2220)
I0430 16:42:00.821995 18061 net.cpp:139] Memory required for data: 1373292
I0430 16:42:00.822010 18061 layer_factory.hpp:77] Creating layer relu1
I0430 16:42:00.822019 18061 net.cpp:86] Creating Layer relu1
I0430 16:42:00.822024 18061 net.cpp:408] relu1 <- ip1
I0430 16:42:00.822032 18061 net.cpp:369] relu1 -> ip1 (in-place)
I0430 16:42:01.099154 18061 net.cpp:124] Setting up relu1
I0430 16:42:01.099181 18061 net.cpp:131] Top shape: 111 20 (2220)
I0430 16:42:01.099185 18061 net.cpp:139] Memory required for data: 1382172
I0430 16:42:01.099210 18061 layer_factory.hpp:77] Creating layer ip2
I0430 16:42:01.099222 18061 net.cpp:86] Creating Layer ip2
I0430 16:42:01.099226 18061 net.cpp:408] ip2 <- ip1
I0430 16:42:01.099232 18061 net.cpp:382] ip2 -> ip2
I0430 16:42:01.100158 18061 net.cpp:124] Setting up ip2
I0430 16:42:01.100172 18061 net.cpp:131] Top shape: 111 20 (2220)
I0430 16:42:01.100174 18061 net.cpp:139] Memory required for data: 1391052
I0430 16:42:01.100184 18061 layer_factory.hpp:77] Creating layer relu2
I0430 16:42:01.100191 18061 net.cpp:86] Creating Layer relu2
I0430 16:42:01.100194 18061 net.cpp:408] relu2 <- ip2
I0430 16:42:01.100198 18061 net.cpp:369] relu2 -> ip2 (in-place)
I0430 16:42:01.100922 18061 net.cpp:124] Setting up relu2
I0430 16:42:01.100934 18061 net.cpp:131] Top shape: 111 20 (2220)
I0430 16:42:01.100939 18061 net.cpp:139] Memory required for data: 1399932
I0430 16:42:01.100942 18061 layer_factory.hpp:77] Creating layer ip3
I0430 16:42:01.100950 18061 net.cpp:86] Creating Layer ip3
I0430 16:42:01.100952 18061 net.cpp:408] ip3 <- ip2
I0430 16:42:01.100958 18061 net.cpp:382] ip3 -> ip3
I0430 16:42:01.101071 18061 net.cpp:124] Setting up ip3
I0430 16:42:01.101078 18061 net.cpp:131] Top shape: 111 10 (1110)
I0430 16:42:01.101083 18061 net.cpp:139] Memory required for data: 1404372
I0430 16:42:01.101089 18061 layer_factory.hpp:77] Creating layer loss
I0430 16:42:01.101095 18061 net.cpp:86] Creating Layer loss
I0430 16:42:01.101099 18061 net.cpp:408] loss <- ip3
I0430 16:42:01.101102 18061 net.cpp:408] loss <- label
I0430 16:42:01.101109 18061 net.cpp:382] loss -> loss
I0430 16:42:01.101121 18061 layer_factory.hpp:77] Creating layer loss
…
I0430 16:42:01.101655 18061 solver.cpp:173] Creating test net (#0) specified by net file: ECE595/cifar/train_test/var_everything/cifar_train_test_11.prototxt
I0430 16:42:01.101685 18061 net.cpp:296] The NetState phase (1) differed from the phase (0) specified by a rule in layer cifar
I0430 16:42:01.101748 18061 net.cpp:53] Initializing net from parameters: 
name: "CIFAR"
state {
  phase: TEST
}
layer {
  name: "cifar"
  type: "Data"
  top: "data"
  top: "label"
  include {
    phase: TEST
  }
  transform_param {
    mean_file: "examples/cifar10/mean.binaryproto"
  }
  data_param {
    source: "examples/cifar10/cifar10_test_lmdb"
    batch_size: 1000
    backend: LMDB
  }
}
layer {
  name: "ip1"
  type: "InnerProduct"
  bottom: "data"
  top: "ip1"
  param {
    lr_mult: 1
  }
  param {
    lr_mult: 2
  }
  inner_product_param {
    num_output: 20
    weight_filler {
      type: "gaussian"
      std: 0.01
    }
    bias_filler {
      type: "constant"
    }
  }
}
layer {
  name: "relu1"
  type: "ReLU"
  bottom: "ip1"
  top: "ip1"
}
layer {
  name: "ip2"
  type: "InnerProduct"
  bottom: "ip1"
  top: "ip2"
  param {
    lr_mult: 1
  }
  param {
    lr_mult: 2
  }
  inner_product_param {
    num_output: 20
    weight_filler {
      type: "gaussian"
      std: 0.01
    }
    bias_filler {
      type: "constant"
    }
  }
}
layer {
  name: "relu2"
  type: "ReLU"
  bottom: "ip2"
  top: "ip2"
}
layer {
  name: "ip3"
  type: "InnerProduct"
  bottom: "ip2"
  top: "ip3"
  param {
    lr_mult: 1
  }
  param {
    lr_mult: 2
  }
  inner_product_param {
    num_output: 10
    weight_filler {
      type: "gaussian"
      std: 0.01
    }
    bias_filler {
      type: "constant"
    }
  }
}
layer {
  name: "accuracy"
  type: "Accuracy"
  bottom: "ip3"
  bottom: "label"
  top: "accuracy"
  include {
    phase: TEST
  }
}
layer {
  name: "loss"
  type: "SoftmaxWithLoss"
  bottom: "ip3"
  bottom: "label"
  top: "loss"
}
I0430 16:42:01.101810 18061 layer_factory.hpp:77] Creating layer cifar
I0430 16:42:01.101868 18061 db_lmdb.cpp:35] Opened lmdb examples/cifar10/cifar10_test_lmdb
I0430 16:42:01.101881 18061 net.cpp:86] Creating Layer cifar
I0430 16:42:01.101884 18061 net.cpp:382] cifar -> data
I0430 16:42:01.101892 18061 net.cpp:382] cifar -> label
I0430 16:42:01.101898 18061 data_transformer.cpp:25] Loading mean file from: examples/cifar10/mean.binaryproto
I0430 16:42:01.102033 18061 data_layer.cpp:45] output data size: 1000,3,32,32
I0430 16:42:01.123872 18061 net.cpp:124] Setting up cifar
I0430 16:42:01.123914 18061 net.cpp:131] Top shape: 1000 3 32 32 (3072000)
I0430 16:42:01.123920 18061 net.cpp:131] Top shape: 1000 (1000)
I0430 16:42:01.123925 18061 net.cpp:139] Memory required for data: 12292000
I0430 16:42:01.123931 18061 layer_factory.hpp:77] Creating layer label_cifar_1_split
I0430 16:42:01.123947 18061 net.cpp:86] Creating Layer label_cifar_1_split
I0430 16:42:01.123951 18061 net.cpp:408] label_cifar_1_split <- label
I0430 16:42:01.123958 18061 net.cpp:382] label_cifar_1_split -> label_cifar_1_split_0
I0430 16:42:01.123967 18061 net.cpp:382] label_cifar_1_split -> label_cifar_1_split_1
I0430 16:42:01.124064 18061 net.cpp:124] Setting up label_cifar_1_split
I0430 16:42:01.124073 18061 net.cpp:131] Top shape: 1000 (1000)
I0430 16:42:01.124076 18061 net.cpp:131] Top shape: 1000 (1000)
I0430 16:42:01.124079 18061 net.cpp:139] Memory required for data: 12300000
I0430 16:42:01.124083 18061 layer_factory.hpp:77] Creating layer ip1
I0430 16:42:01.124091 18061 net.cpp:86] Creating Layer ip1
I0430 16:42:01.124096 18061 net.cpp:408] ip1 <- data
I0430 16:42:01.124116 18061 net.cpp:382] ip1 -> ip1
I0430 16:42:01.126502 18061 net.cpp:124] Setting up ip1
I0430 16:42:01.126512 18061 net.cpp:131] Top shape: 1000 20 (20000)
I0430 16:42:01.126530 18061 net.cpp:139] Memory required for data: 12380000
I0430 16:42:01.126540 18061 layer_factory.hpp:77] Creating layer relu1
I0430 16:42:01.126546 18061 net.cpp:86] Creating Layer relu1
I0430 16:42:01.126550 18061 net.cpp:408] relu1 <- ip1
I0430 16:42:01.126555 18061 net.cpp:369] relu1 -> ip1 (in-place)
I0430 16:42:01.126746 18061 net.cpp:124] Setting up relu1
I0430 16:42:01.126760 18061 net.cpp:131] Top shape: 1000 20 (20000)
I0430 16:42:01.126765 18061 net.cpp:139] Memory required for data: 12460000
I0430 16:42:01.126770 18061 layer_factory.hpp:77] Creating layer ip2
I0430 16:42:01.126781 18061 net.cpp:86] Creating Layer ip2
I0430 16:42:01.126788 18061 net.cpp:408] ip2 <- ip1
I0430 16:42:01.126809 18061 net.cpp:382] ip2 -> ip2
I0430 16:42:01.126921 18061 net.cpp:124] Setting up ip2
I0430 16:42:01.126929 18061 net.cpp:131] Top shape: 1000 20 (20000)
I0430 16:42:01.126932 18061 net.cpp:139] Memory required for data: 12540000
I0430 16:42:01.126940 18061 layer_factory.hpp:77] Creating layer relu2
I0430 16:42:01.126945 18061 net.cpp:86] Creating Layer relu2
I0430 16:42:01.126948 18061 net.cpp:408] relu2 <- ip2
I0430 16:42:01.126952 18061 net.cpp:369] relu2 -> ip2 (in-place)
I0430 16:42:01.127740 18061 net.cpp:124] Setting up relu2
I0430 16:42:01.127753 18061 net.cpp:131] Top shape: 1000 20 (20000)
I0430 16:42:01.127771 18061 net.cpp:139] Memory required for data: 12620000
I0430 16:42:01.127775 18061 layer_factory.hpp:77] Creating layer ip3
I0430 16:42:01.127782 18061 net.cpp:86] Creating Layer ip3
I0430 16:42:01.127786 18061 net.cpp:408] ip3 <- ip2
I0430 16:42:01.127792 18061 net.cpp:382] ip3 -> ip3
I0430 16:42:01.127915 18061 net.cpp:124] Setting up ip3
I0430 16:42:01.127923 18061 net.cpp:131] Top shape: 1000 10 (10000)
I0430 16:42:01.127926 18061 net.cpp:139] Memory required for data: 12660000
I0430 16:42:01.127962 18061 layer_factory.hpp:77] Creating layer ip3_ip3_0_split
I0430 16:42:01.127972 18061 net.cpp:86] Creating Layer ip3_ip3_0_split
I0430 16:42:01.127990 18061 net.cpp:408] ip3_ip3_0_split <- ip3
I0430 16:42:01.127995 18061 net.cpp:382] ip3_ip3_0_split -> ip3_ip3_0_split_0
I0430 16:42:01.128000 18061 net.cpp:382] ip3_ip3_0_split -> ip3_ip3_0_split_1
I0430 16:42:01.128033 18061 net.cpp:124] Setting up ip3_ip3_0_split
I0430 16:42:01.128039 18061 net.cpp:131] Top shape: 1000 10 (10000)
I0430 16:42:01.128043 18061 net.cpp:131] Top shape: 1000 10 (10000)
I0430 16:42:01.128046 18061 net.cpp:139] Memory required for data: 12740000
I0430 16:42:01.128048 18061 layer_factory.hpp:77] Creating layer accuracy
I0430 16:42:01.128059 18061 net.cpp:86] Creating Layer accuracy
I0430 16:42:01.128062 18061 net.cpp:408] accuracy <- ip3_ip3_0_split_0
I0430 16:42:01.128067 18061 net.cpp:408] accuracy <- label_cifar_1_split_0
I0430 16:42:01.128072 18061 net.cpp:382] accuracy -> accuracy
…
