…
I0501 02:27:43.314249 15406 net.cpp:296] The NetState phase (0) differed from the phase (1) specified by a rule in layer cifar
I0501 02:27:43.314265 15406 net.cpp:296] The NetState phase (0) differed from the phase (1) specified by a rule in layer accuracy
I0501 02:27:43.314357 15406 net.cpp:53] Initializing net from parameters: 
name: "CIFAR"
state {
  phase: TRAIN
  level: 0
  stage: ""
}
layer {
  name: "cifar"
  type: "Data"
  top: "data"
  top: "label"
  include {
    phase: TRAIN
  }
  transform_param {
    mean_file: "examples/cifar10/mean.binaryproto"
  }
  data_param {
    source: "examples/cifar10/cifar10_train_lmdb"
    batch_size: 111
    backend: LMDB
  }
}
layer {
  name: "conv0"
  type: "Convolution"
  bottom: "data"
  top: "conv0"
  param {
    lr_mult: 1
  }
  param {
    lr_mult: 2
  }
  convolution_param {
    num_output: 8
    pad: 2
    kernel_size: 5
    stride: 1
    weight_filler {
      type: "gaussian"
      std: 0.01
    }
    bias_filler {
      type: "constant"
    }
  }
}
layer {
  name: "Sigmoid0"
  type: "Sigmoid"
  bottom: "conv0"
  top: "Sigmoid0"
}
layer {
  name: "pool0"
  type: "Pooling"
  bottom: "Sigmoid0"
  top: "pool0"
  pooling_param {
    pool: AVE
    kernel_size: 3
    stride: 2
  }
}
layer {
  name: "ip1"
  type: "InnerProduct"
  bottom: "pool0"
  top: "ip1"
  param {
    lr_mult: 1
  }
  param {
    lr_mult: 2
  }
  inner_product_param {
    num_output: 20
    weight_filler {
      type: "gaussian"
      std: 0.01
    }
    bias_filler {
      type: "constant"
    }
  }
}
layer {
  name: "relu1"
  type: "ReLU"
  bottom: "ip1"
  top: "ip1"
}
layer {
  name: "ip2"
  type: "InnerProduct"
  bottom: "ip1"
  top: "ip2"
  param {
    lr_mult: 1
  }
  param {
    lr_mult: 2
  }
  inner_product_param {
    num_output: 40
    weight_filler {
      type: "gaussian"
      std: 0.01
    }
    bias_filler {
      type: "constant"
    }
  }
}
layer {
  name: "relu2"
  type: "ReLU"
  bottom: "ip2"
  top: "ip2"
}
layer {
  name: "ip3"
  type: "InnerProduct"
  bottom: "ip2"
  top: "ip3"
  param {
    lr_mult: 1
  }
  param {
    lr_mult: 2
  }
  inner_product_param {
    num_output: 10
    weight_filler {
      type: "gaussian"
      std: 0.01
    }
    bias_filler {
      type: "constant"
    }
  }
}
layer {
  name: "loss"
  type: "SoftmaxWithLoss"
  bottom: "ip3"
  bottom: "label"
  top: "loss"
}
I0501 02:27:43.314431 15406 layer_factory.hpp:77] Creating layer cifar
I0501 02:27:43.314529 15406 db_lmdb.cpp:35] Opened lmdb examples/cifar10/cifar10_train_lmdb
I0501 02:27:43.314556 15406 net.cpp:86] Creating Layer cifar
I0501 02:27:43.314565 15406 net.cpp:382] cifar -> data
I0501 02:27:43.314589 15406 net.cpp:382] cifar -> label
I0501 02:27:43.314604 15406 data_transformer.cpp:25] Loading mean file from: examples/cifar10/mean.binaryproto
I0501 02:27:43.316701 15406 data_layer.cpp:45] output data size: 111,3,32,32
I0501 02:27:43.324537 15406 net.cpp:124] Setting up cifar
I0501 02:27:43.324556 15406 net.cpp:131] Top shape: 111 3 32 32 (340992)
I0501 02:27:43.324563 15406 net.cpp:131] Top shape: 111 (111)
I0501 02:27:43.324565 15406 net.cpp:139] Memory required for data: 1364412
I0501 02:27:43.324573 15406 layer_factory.hpp:77] Creating layer conv0
I0501 02:27:43.324601 15406 net.cpp:86] Creating Layer conv0
I0501 02:27:43.324607 15406 net.cpp:408] conv0 <- data
I0501 02:27:43.324621 15406 net.cpp:382] conv0 -> conv0
I0501 02:27:43.602038 15406 net.cpp:124] Setting up conv0
I0501 02:27:43.602100 15406 net.cpp:131] Top shape: 111 8 32 32 (909312)
I0501 02:27:43.602105 15406 net.cpp:139] Memory required for data: 5001660
I0501 02:27:43.602120 15406 layer_factory.hpp:77] Creating layer Sigmoid0
I0501 02:27:43.602133 15406 net.cpp:86] Creating Layer Sigmoid0
I0501 02:27:43.602135 15406 net.cpp:408] Sigmoid0 <- conv0
I0501 02:27:43.602141 15406 net.cpp:382] Sigmoid0 -> Sigmoid0
I0501 02:27:43.602320 15406 net.cpp:124] Setting up Sigmoid0
I0501 02:27:43.602330 15406 net.cpp:131] Top shape: 111 8 32 32 (909312)
I0501 02:27:43.602334 15406 net.cpp:139] Memory required for data: 8638908
I0501 02:27:43.602337 15406 layer_factory.hpp:77] Creating layer pool0
I0501 02:27:43.602344 15406 net.cpp:86] Creating Layer pool0
I0501 02:27:43.602346 15406 net.cpp:408] pool0 <- Sigmoid0
I0501 02:27:43.602351 15406 net.cpp:382] pool0 -> pool0
I0501 02:27:43.603085 15406 net.cpp:124] Setting up pool0
I0501 02:27:43.603096 15406 net.cpp:131] Top shape: 111 8 16 16 (227328)
I0501 02:27:43.603101 15406 net.cpp:139] Memory required for data: 9548220
I0501 02:27:43.603103 15406 layer_factory.hpp:77] Creating layer ip1
I0501 02:27:43.603112 15406 net.cpp:86] Creating Layer ip1
I0501 02:27:43.603116 15406 net.cpp:408] ip1 <- pool0
I0501 02:27:43.603119 15406 net.cpp:382] ip1 -> ip1
I0501 02:27:43.605258 15406 net.cpp:124] Setting up ip1
I0501 02:27:43.605270 15406 net.cpp:131] Top shape: 111 20 (2220)
I0501 02:27:43.605274 15406 net.cpp:139] Memory required for data: 9557100
I0501 02:27:43.605281 15406 layer_factory.hpp:77] Creating layer relu1
I0501 02:27:43.605288 15406 net.cpp:86] Creating Layer relu1
I0501 02:27:43.605290 15406 net.cpp:408] relu1 <- ip1
I0501 02:27:43.605294 15406 net.cpp:369] relu1 -> ip1 (in-place)
I0501 02:27:43.605455 15406 net.cpp:124] Setting up relu1
I0501 02:27:43.605463 15406 net.cpp:131] Top shape: 111 20 (2220)
I0501 02:27:43.605466 15406 net.cpp:139] Memory required for data: 9565980
I0501 02:27:43.605469 15406 layer_factory.hpp:77] Creating layer ip2
I0501 02:27:43.605490 15406 net.cpp:86] Creating Layer ip2
I0501 02:27:43.605494 15406 net.cpp:408] ip2 <- ip1
I0501 02:27:43.605499 15406 net.cpp:382] ip2 -> ip2
I0501 02:27:43.605608 15406 net.cpp:124] Setting up ip2
I0501 02:27:43.605615 15406 net.cpp:131] Top shape: 111 40 (4440)
I0501 02:27:43.605618 15406 net.cpp:139] Memory required for data: 9583740
I0501 02:27:43.605626 15406 layer_factory.hpp:77] Creating layer relu2
I0501 02:27:43.605630 15406 net.cpp:86] Creating Layer relu2
I0501 02:27:43.605634 15406 net.cpp:408] relu2 <- ip2
I0501 02:27:43.605638 15406 net.cpp:369] relu2 -> ip2 (in-place)
I0501 02:27:43.605785 15406 net.cpp:124] Setting up relu2
I0501 02:27:43.605793 15406 net.cpp:131] Top shape: 111 40 (4440)
I0501 02:27:43.605796 15406 net.cpp:139] Memory required for data: 9601500
I0501 02:27:43.605799 15406 layer_factory.hpp:77] Creating layer ip3
I0501 02:27:43.605820 15406 net.cpp:86] Creating Layer ip3
I0501 02:27:43.605823 15406 net.cpp:408] ip3 <- ip2
I0501 02:27:43.605828 15406 net.cpp:382] ip3 -> ip3
I0501 02:27:43.605926 15406 net.cpp:124] Setting up ip3
I0501 02:27:43.605933 15406 net.cpp:131] Top shape: 111 10 (1110)
I0501 02:27:43.605937 15406 net.cpp:139] Memory required for data: 9605940
I0501 02:27:43.605942 15406 layer_factory.hpp:77] Creating layer loss
I0501 02:27:43.605947 15406 net.cpp:86] Creating Layer loss
I0501 02:27:43.605949 15406 net.cpp:408] loss <- ip3
I0501 02:27:43.605953 15406 net.cpp:408] loss <- label
I0501 02:27:43.605958 15406 net.cpp:382] loss -> loss
I0501 02:27:43.605973 15406 layer_factory.hpp:77] Creating layer loss
…
I0501 02:27:43.606535 15406 solver.cpp:173] Creating test net (#0) specified by net file: ECE595/cifar/train_test/var_everything/cifar_train_test_322.prototxt
I0501 02:27:43.606560 15406 net.cpp:296] The NetState phase (1) differed from the phase (0) specified by a rule in layer cifar
I0501 02:27:43.606660 15406 net.cpp:53] Initializing net from parameters: 
name: "CIFAR"
state {
  phase: TEST
}
layer {
  name: "cifar"
  type: "Data"
  top: "data"
  top: "label"
  include {
    phase: TEST
  }
  transform_param {
    mean_file: "examples/cifar10/mean.binaryproto"
  }
  data_param {
    source: "examples/cifar10/cifar10_test_lmdb"
    batch_size: 1000
    backend: LMDB
  }
}
layer {
  name: "conv0"
  type: "Convolution"
  bottom: "data"
  top: "conv0"
  param {
    lr_mult: 1
  }
  param {
    lr_mult: 2
  }
  convolution_param {
    num_output: 8
    pad: 2
    kernel_size: 5
    stride: 1
    weight_filler {
      type: "gaussian"
      std: 0.01
    }
    bias_filler {
      type: "constant"
    }
  }
}
layer {
  name: "Sigmoid0"
  type: "Sigmoid"
  bottom: "conv0"
  top: "Sigmoid0"
}
layer {
  name: "pool0"
  type: "Pooling"
  bottom: "Sigmoid0"
  top: "pool0"
  pooling_param {
    pool: AVE
    kernel_size: 3
    stride: 2
  }
}
layer {
  name: "ip1"
  type: "InnerProduct"
  bottom: "pool0"
  top: "ip1"
  param {
    lr_mult: 1
  }
  param {
    lr_mult: 2
  }
  inner_product_param {
    num_output: 20
    weight_filler {
      type: "gaussian"
      std: 0.01
    }
    bias_filler {
      type: "constant"
    }
  }
}
layer {
  name: "relu1"
  type: "ReLU"
  bottom: "ip1"
  top: "ip1"
}
layer {
  name: "ip2"
  type: "InnerProduct"
  bottom: "ip1"
  top: "ip2"
  param {
    lr_mult: 1
  }
  param {
    lr_mult: 2
  }
  inner_product_param {
    num_output: 40
    weight_filler {
      type: "gaussian"
      std: 0.01
    }
    bias_filler {
      type: "constant"
    }
  }
}
layer {
  name: "relu2"
  type: "ReLU"
  bottom: "ip2"
  top: "ip2"
}
layer {
  name: "ip3"
  type: "InnerProduct"
  bottom: "ip2"
  top: "ip3"
  param {
    lr_mult: 1
  }
  param {
    lr_mult: 2
  }
  inner_product_param {
    num_output: 10
    weight_filler {
      type: "gaussian"
      std: 0.01
    }
    bias_filler {
      type: "constant"
    }
  }
}
layer {
  name: "accuracy"
  type: "Accuracy"
  bottom: "ip3"
  bottom: "label"
  top: "accuracy"
  include {
    phase: TEST
  }
}
layer {
  name: "loss"
  type: "SoftmaxWithLoss"
  bottom: "ip3"
  bottom: "label"
  top: "loss"
}
I0501 02:27:43.606727 15406 layer_factory.hpp:77] Creating layer cifar
I0501 02:27:43.606775 15406 db_lmdb.cpp:35] Opened lmdb examples/cifar10/cifar10_test_lmdb
I0501 02:27:43.606786 15406 net.cpp:86] Creating Layer cifar
I0501 02:27:43.606791 15406 net.cpp:382] cifar -> data
I0501 02:27:43.606797 15406 net.cpp:382] cifar -> label
I0501 02:27:43.606804 15406 data_transformer.cpp:25] Loading mean file from: examples/cifar10/mean.binaryproto
I0501 02:27:43.606983 15406 data_layer.cpp:45] output data size: 1000,3,32,32
I0501 02:27:43.629395 15406 net.cpp:124] Setting up cifar
I0501 02:27:43.629423 15406 net.cpp:131] Top shape: 1000 3 32 32 (3072000)
I0501 02:27:43.629429 15406 net.cpp:131] Top shape: 1000 (1000)
I0501 02:27:43.629432 15406 net.cpp:139] Memory required for data: 12292000
I0501 02:27:43.629437 15406 layer_factory.hpp:77] Creating layer label_cifar_1_split
I0501 02:27:43.629449 15406 net.cpp:86] Creating Layer label_cifar_1_split
I0501 02:27:43.629470 15406 net.cpp:408] label_cifar_1_split <- label
I0501 02:27:43.629478 15406 net.cpp:382] label_cifar_1_split -> label_cifar_1_split_0
I0501 02:27:43.629487 15406 net.cpp:382] label_cifar_1_split -> label_cifar_1_split_1
I0501 02:27:43.629614 15406 net.cpp:124] Setting up label_cifar_1_split
I0501 02:27:43.629622 15406 net.cpp:131] Top shape: 1000 (1000)
I0501 02:27:43.629626 15406 net.cpp:131] Top shape: 1000 (1000)
I0501 02:27:43.629629 15406 net.cpp:139] Memory required for data: 12300000
I0501 02:27:43.629632 15406 layer_factory.hpp:77] Creating layer conv0
I0501 02:27:43.629645 15406 net.cpp:86] Creating Layer conv0
I0501 02:27:43.629649 15406 net.cpp:408] conv0 <- data
I0501 02:27:43.629654 15406 net.cpp:382] conv0 -> conv0
I0501 02:27:43.631264 15406 net.cpp:124] Setting up conv0
I0501 02:27:43.631278 15406 net.cpp:131] Top shape: 1000 8 32 32 (8192000)
I0501 02:27:43.631281 15406 net.cpp:139] Memory required for data: 45068000
I0501 02:27:43.631290 15406 layer_factory.hpp:77] Creating layer Sigmoid0
I0501 02:27:43.631297 15406 net.cpp:86] Creating Layer Sigmoid0
I0501 02:27:43.631300 15406 net.cpp:408] Sigmoid0 <- conv0
I0501 02:27:43.631322 15406 net.cpp:382] Sigmoid0 -> Sigmoid0
I0501 02:27:43.632179 15406 net.cpp:124] Setting up Sigmoid0
I0501 02:27:43.632192 15406 net.cpp:131] Top shape: 1000 8 32 32 (8192000)
I0501 02:27:43.632195 15406 net.cpp:139] Memory required for data: 77836000
I0501 02:27:43.632199 15406 layer_factory.hpp:77] Creating layer pool0
I0501 02:27:43.632206 15406 net.cpp:86] Creating Layer pool0
I0501 02:27:43.632210 15406 net.cpp:408] pool0 <- Sigmoid0
I0501 02:27:43.632215 15406 net.cpp:382] pool0 -> pool0
I0501 02:27:43.633374 15406 net.cpp:124] Setting up pool0
I0501 02:27:43.633385 15406 net.cpp:131] Top shape: 1000 8 16 16 (2048000)
I0501 02:27:43.633388 15406 net.cpp:139] Memory required for data: 86028000
I0501 02:27:43.633390 15406 layer_factory.hpp:77] Creating layer ip1
I0501 02:27:43.633399 15406 net.cpp:86] Creating Layer ip1
I0501 02:27:43.633400 15406 net.cpp:408] ip1 <- pool0
I0501 02:27:43.633407 15406 net.cpp:382] ip1 -> ip1
I0501 02:27:43.634575 15406 net.cpp:124] Setting up ip1
I0501 02:27:43.634584 15406 net.cpp:131] Top shape: 1000 20 (20000)
I0501 02:27:43.634587 15406 net.cpp:139] Memory required for data: 86108000
I0501 02:27:43.634594 15406 layer_factory.hpp:77] Creating layer relu1
I0501 02:27:43.634599 15406 net.cpp:86] Creating Layer relu1
I0501 02:27:43.634603 15406 net.cpp:408] relu1 <- ip1
I0501 02:27:43.634606 15406 net.cpp:369] relu1 -> ip1 (in-place)
I0501 02:27:43.634773 15406 net.cpp:124] Setting up relu1
I0501 02:27:43.634783 15406 net.cpp:131] Top shape: 1000 20 (20000)
I0501 02:27:43.634785 15406 net.cpp:139] Memory required for data: 86188000
I0501 02:27:43.634788 15406 layer_factory.hpp:77] Creating layer ip2
I0501 02:27:43.634794 15406 net.cpp:86] Creating Layer ip2
I0501 02:27:43.634798 15406 net.cpp:408] ip2 <- ip1
I0501 02:27:43.634804 15406 net.cpp:382] ip2 -> ip2
I0501 02:27:43.634929 15406 net.cpp:124] Setting up ip2
I0501 02:27:43.634937 15406 net.cpp:131] Top shape: 1000 40 (40000)
I0501 02:27:43.634939 15406 net.cpp:139] Memory required for data: 86348000
I0501 02:27:43.634946 15406 layer_factory.hpp:77] Creating layer relu2
I0501 02:27:43.634953 15406 net.cpp:86] Creating Layer relu2
I0501 02:27:43.634956 15406 net.cpp:408] relu2 <- ip2
I0501 02:27:43.634961 15406 net.cpp:369] relu2 -> ip2 (in-place)
I0501 02:27:43.635131 15406 net.cpp:124] Setting up relu2
I0501 02:27:43.635139 15406 net.cpp:131] Top shape: 1000 40 (40000)
I0501 02:27:43.635143 15406 net.cpp:139] Memory required for data: 86508000
I0501 02:27:43.635146 15406 layer_factory.hpp:77] Creating layer ip3
I0501 02:27:43.635154 15406 net.cpp:86] Creating Layer ip3
I0501 02:27:43.635157 15406 net.cpp:408] ip3 <- ip2
I0501 02:27:43.635161 15406 net.cpp:382] ip3 -> ip3
I0501 02:27:43.635277 15406 net.cpp:124] Setting up ip3
I0501 02:27:43.635283 15406 net.cpp:131] Top shape: 1000 10 (10000)
I0501 02:27:43.635285 15406 net.cpp:139] Memory required for data: 86548000
I0501 02:27:43.635301 15406 layer_factory.hpp:77] Creating layer ip3_ip3_0_split
I0501 02:27:43.635306 15406 net.cpp:86] Creating Layer ip3_ip3_0_split
I0501 02:27:43.635309 15406 net.cpp:408] ip3_ip3_0_split <- ip3
I0501 02:27:43.635315 15406 net.cpp:382] ip3_ip3_0_split -> ip3_ip3_0_split_0
I0501 02:27:43.635320 15406 net.cpp:382] ip3_ip3_0_split -> ip3_ip3_0_split_1
I0501 02:27:43.635367 15406 net.cpp:124] Setting up ip3_ip3_0_split
I0501 02:27:43.635372 15406 net.cpp:131] Top shape: 1000 10 (10000)
I0501 02:27:43.635375 15406 net.cpp:131] Top shape: 1000 10 (10000)
I0501 02:27:43.635378 15406 net.cpp:139] Memory required for data: 86628000
I0501 02:27:43.635381 15406 layer_factory.hpp:77] Creating layer accuracy
I0501 02:27:43.635387 15406 net.cpp:86] Creating Layer accuracy
I0501 02:27:43.635390 15406 net.cpp:408] accuracy <- ip3_ip3_0_split_0
I0501 02:27:43.635395 15406 net.cpp:408] accuracy <- label_cifar_1_split_0
I0501 02:27:43.635398 15406 net.cpp:382] accuracy -> accuracy
…
