…
I0430 20:14:41.243271 28303 net.cpp:296] The NetState phase (0) differed from the phase (1) specified by a rule in layer cifar
I0430 20:14:41.243288 28303 net.cpp:296] The NetState phase (0) differed from the phase (1) specified by a rule in layer accuracy
I0430 20:14:41.243374 28303 net.cpp:53] Initializing net from parameters: 
name: "CIFAR"
state {
  phase: TRAIN
  level: 0
  stage: ""
}
layer {
  name: "cifar"
  type: "Data"
  top: "data"
  top: "label"
  include {
    phase: TRAIN
  }
  transform_param {
    mean_file: "examples/cifar10/mean.binaryproto"
  }
  data_param {
    source: "examples/cifar10/cifar10_train_lmdb"
    batch_size: 111
    backend: LMDB
  }
}
layer {
  name: "ip1"
  type: "InnerProduct"
  bottom: "data"
  top: "ip1"
  param {
    lr_mult: 1
  }
  param {
    lr_mult: 2
  }
  inner_product_param {
    num_output: 80
    weight_filler {
      type: "gaussian"
      std: 0.01
    }
    bias_filler {
      type: "constant"
    }
  }
}
layer {
  name: "relu1"
  type: "ReLU"
  bottom: "ip1"
  top: "ip1"
}
layer {
  name: "ip2"
  type: "InnerProduct"
  bottom: "ip1"
  top: "ip2"
  param {
    lr_mult: 1
  }
  param {
    lr_mult: 2
  }
  inner_product_param {
    num_output: 80
    weight_filler {
      type: "gaussian"
      std: 0.01
    }
    bias_filler {
      type: "constant"
    }
  }
}
layer {
  name: "relu2"
  type: "ReLU"
  bottom: "ip2"
  top: "ip2"
}
layer {
  name: "ip3"
  type: "InnerProduct"
  bottom: "ip2"
  top: "ip3"
  param {
    lr_mult: 1
  }
  param {
    lr_mult: 2
  }
  inner_product_param {
    num_output: 80
    weight_filler {
      type: "gaussian"
      std: 0.01
    }
    bias_filler {
      type: "constant"
    }
  }
}
layer {
  name: "relu3"
  type: "ReLU"
  bottom: "ip3"
  top: "ip3"
}
layer {
  name: "ip4"
  type: "InnerProduct"
  bottom: "ip3"
  top: "ip4"
  param {
    lr_mult: 1
  }
  param {
    lr_mult: 2
  }
  inner_product_param {
    num_output: 10
    weight_filler {
      type: "gaussian"
      std: 0.01
    }
    bias_filler {
      type: "constant"
    }
  }
}
layer {
  name: "loss"
  type: "SoftmaxWithLoss"
  bottom: "ip4"
  bottom: "label"
  top: "loss"
}
I0430 20:14:41.243444 28303 layer_factory.hpp:77] Creating layer cifar
I0430 20:14:41.243548 28303 db_lmdb.cpp:35] Opened lmdb examples/cifar10/cifar10_train_lmdb
I0430 20:14:41.243577 28303 net.cpp:86] Creating Layer cifar
I0430 20:14:41.243584 28303 net.cpp:382] cifar -> data
I0430 20:14:41.243608 28303 net.cpp:382] cifar -> label
I0430 20:14:41.243619 28303 data_transformer.cpp:25] Loading mean file from: examples/cifar10/mean.binaryproto
I0430 20:14:41.245735 28303 data_layer.cpp:45] output data size: 111,3,32,32
I0430 20:14:41.253823 28303 net.cpp:124] Setting up cifar
I0430 20:14:41.253844 28303 net.cpp:131] Top shape: 111 3 32 32 (340992)
I0430 20:14:41.253849 28303 net.cpp:131] Top shape: 111 (111)
I0430 20:14:41.253854 28303 net.cpp:139] Memory required for data: 1364412
I0430 20:14:41.253860 28303 layer_factory.hpp:77] Creating layer ip1
I0430 20:14:41.253871 28303 net.cpp:86] Creating Layer ip1
I0430 20:14:41.253877 28303 net.cpp:408] ip1 <- data
I0430 20:14:41.253890 28303 net.cpp:382] ip1 -> ip1
I0430 20:14:41.263131 28303 net.cpp:124] Setting up ip1
I0430 20:14:41.263149 28303 net.cpp:131] Top shape: 111 80 (8880)
I0430 20:14:41.263152 28303 net.cpp:139] Memory required for data: 1399932
I0430 20:14:41.263165 28303 layer_factory.hpp:77] Creating layer relu1
I0430 20:14:41.263175 28303 net.cpp:86] Creating Layer relu1
I0430 20:14:41.263196 28303 net.cpp:408] relu1 <- ip1
I0430 20:14:41.263205 28303 net.cpp:369] relu1 -> ip1 (in-place)
I0430 20:14:41.520007 28303 net.cpp:124] Setting up relu1
I0430 20:14:41.520035 28303 net.cpp:131] Top shape: 111 80 (8880)
I0430 20:14:41.520037 28303 net.cpp:139] Memory required for data: 1435452
I0430 20:14:41.520042 28303 layer_factory.hpp:77] Creating layer ip2
I0430 20:14:41.520054 28303 net.cpp:86] Creating Layer ip2
I0430 20:14:41.520058 28303 net.cpp:408] ip2 <- ip1
I0430 20:14:41.520066 28303 net.cpp:382] ip2 -> ip2
I0430 20:14:41.521303 28303 net.cpp:124] Setting up ip2
I0430 20:14:41.521316 28303 net.cpp:131] Top shape: 111 80 (8880)
I0430 20:14:41.521318 28303 net.cpp:139] Memory required for data: 1470972
I0430 20:14:41.521328 28303 layer_factory.hpp:77] Creating layer relu2
I0430 20:14:41.521337 28303 net.cpp:86] Creating Layer relu2
I0430 20:14:41.521340 28303 net.cpp:408] relu2 <- ip2
I0430 20:14:41.521345 28303 net.cpp:369] relu2 -> ip2 (in-place)
I0430 20:14:41.522058 28303 net.cpp:124] Setting up relu2
I0430 20:14:41.522069 28303 net.cpp:131] Top shape: 111 80 (8880)
I0430 20:14:41.522073 28303 net.cpp:139] Memory required for data: 1506492
I0430 20:14:41.522075 28303 layer_factory.hpp:77] Creating layer ip3
I0430 20:14:41.522083 28303 net.cpp:86] Creating Layer ip3
I0430 20:14:41.522085 28303 net.cpp:408] ip3 <- ip2
I0430 20:14:41.522091 28303 net.cpp:382] ip3 -> ip3
I0430 20:14:41.522357 28303 net.cpp:124] Setting up ip3
I0430 20:14:41.522366 28303 net.cpp:131] Top shape: 111 80 (8880)
I0430 20:14:41.522368 28303 net.cpp:139] Memory required for data: 1542012
I0430 20:14:41.522377 28303 layer_factory.hpp:77] Creating layer relu3
I0430 20:14:41.522382 28303 net.cpp:86] Creating Layer relu3
I0430 20:14:41.522385 28303 net.cpp:408] relu3 <- ip3
I0430 20:14:41.522390 28303 net.cpp:369] relu3 -> ip3 (in-place)
I0430 20:14:41.522533 28303 net.cpp:124] Setting up relu3
I0430 20:14:41.522542 28303 net.cpp:131] Top shape: 111 80 (8880)
I0430 20:14:41.522545 28303 net.cpp:139] Memory required for data: 1577532
I0430 20:14:41.522548 28303 layer_factory.hpp:77] Creating layer ip4
I0430 20:14:41.522554 28303 net.cpp:86] Creating Layer ip4
I0430 20:14:41.522557 28303 net.cpp:408] ip4 <- ip3
I0430 20:14:41.522563 28303 net.cpp:382] ip4 -> ip4
I0430 20:14:41.523459 28303 net.cpp:124] Setting up ip4
I0430 20:14:41.523470 28303 net.cpp:131] Top shape: 111 10 (1110)
I0430 20:14:41.523474 28303 net.cpp:139] Memory required for data: 1581972
I0430 20:14:41.523479 28303 layer_factory.hpp:77] Creating layer loss
I0430 20:14:41.523488 28303 net.cpp:86] Creating Layer loss
I0430 20:14:41.523490 28303 net.cpp:408] loss <- ip4
I0430 20:14:41.523494 28303 net.cpp:408] loss <- label
I0430 20:14:41.523499 28303 net.cpp:382] loss -> loss
I0430 20:14:41.523512 28303 layer_factory.hpp:77] Creating layer loss
…
I0430 20:14:41.524057 28303 solver.cpp:173] Creating test net (#0) specified by net file: ECE595/cifar/train_test/var_everything/cifar_train_test_123.prototxt
I0430 20:14:41.524093 28303 net.cpp:296] The NetState phase (1) differed from the phase (0) specified by a rule in layer cifar
I0430 20:14:41.524165 28303 net.cpp:53] Initializing net from parameters: 
name: "CIFAR"
state {
  phase: TEST
}
layer {
  name: "cifar"
  type: "Data"
  top: "data"
  top: "label"
  include {
    phase: TEST
  }
  transform_param {
    mean_file: "examples/cifar10/mean.binaryproto"
  }
  data_param {
    source: "examples/cifar10/cifar10_test_lmdb"
    batch_size: 1000
    backend: LMDB
  }
}
layer {
  name: "ip1"
  type: "InnerProduct"
  bottom: "data"
  top: "ip1"
  param {
    lr_mult: 1
  }
  param {
    lr_mult: 2
  }
  inner_product_param {
    num_output: 80
    weight_filler {
      type: "gaussian"
      std: 0.01
    }
    bias_filler {
      type: "constant"
    }
  }
}
layer {
  name: "relu1"
  type: "ReLU"
  bottom: "ip1"
  top: "ip1"
}
layer {
  name: "ip2"
  type: "InnerProduct"
  bottom: "ip1"
  top: "ip2"
  param {
    lr_mult: 1
  }
  param {
    lr_mult: 2
  }
  inner_product_param {
    num_output: 80
    weight_filler {
      type: "gaussian"
      std: 0.01
    }
    bias_filler {
      type: "constant"
    }
  }
}
layer {
  name: "relu2"
  type: "ReLU"
  bottom: "ip2"
  top: "ip2"
}
layer {
  name: "ip3"
  type: "InnerProduct"
  bottom: "ip2"
  top: "ip3"
  param {
    lr_mult: 1
  }
  param {
    lr_mult: 2
  }
  inner_product_param {
    num_output: 80
    weight_filler {
      type: "gaussian"
      std: 0.01
    }
    bias_filler {
      type: "constant"
    }
  }
}
layer {
  name: "relu3"
  type: "ReLU"
  bottom: "ip3"
  top: "ip3"
}
layer {
  name: "ip4"
  type: "InnerProduct"
  bottom: "ip3"
  top: "ip4"
  param {
    lr_mult: 1
  }
  param {
    lr_mult: 2
  }
  inner_product_param {
    num_output: 10
    weight_filler {
      type: "gaussian"
      std: 0.01
    }
    bias_filler {
      type: "constant"
    }
  }
}
layer {
  name: "accuracy"
  type: "Accuracy"
  bottom: "ip4"
  bottom: "label"
  top: "accuracy"
  include {
    phase: TEST
  }
}
layer {
  name: "loss"
  type: "SoftmaxWithLoss"
  bottom: "ip4"
  bottom: "label"
  top: "loss"
}
I0430 20:14:41.524221 28303 layer_factory.hpp:77] Creating layer cifar
I0430 20:14:41.524266 28303 db_lmdb.cpp:35] Opened lmdb examples/cifar10/cifar10_test_lmdb
I0430 20:14:41.524276 28303 net.cpp:86] Creating Layer cifar
I0430 20:14:41.524281 28303 net.cpp:382] cifar -> data
I0430 20:14:41.524288 28303 net.cpp:382] cifar -> label
I0430 20:14:41.524294 28303 data_transformer.cpp:25] Loading mean file from: examples/cifar10/mean.binaryproto
I0430 20:14:41.524428 28303 data_layer.cpp:45] output data size: 1000,3,32,32
I0430 20:14:41.545735 28303 net.cpp:124] Setting up cifar
I0430 20:14:41.545778 28303 net.cpp:131] Top shape: 1000 3 32 32 (3072000)
I0430 20:14:41.545783 28303 net.cpp:131] Top shape: 1000 (1000)
I0430 20:14:41.545786 28303 net.cpp:139] Memory required for data: 12292000
I0430 20:14:41.545792 28303 layer_factory.hpp:77] Creating layer label_cifar_1_split
I0430 20:14:41.545809 28303 net.cpp:86] Creating Layer label_cifar_1_split
I0430 20:14:41.545814 28303 net.cpp:408] label_cifar_1_split <- label
I0430 20:14:41.545819 28303 net.cpp:382] label_cifar_1_split -> label_cifar_1_split_0
I0430 20:14:41.545845 28303 net.cpp:382] label_cifar_1_split -> label_cifar_1_split_1
I0430 20:14:41.545920 28303 net.cpp:124] Setting up label_cifar_1_split
I0430 20:14:41.545928 28303 net.cpp:131] Top shape: 1000 (1000)
I0430 20:14:41.545946 28303 net.cpp:131] Top shape: 1000 (1000)
I0430 20:14:41.545949 28303 net.cpp:139] Memory required for data: 12300000
I0430 20:14:41.545953 28303 layer_factory.hpp:77] Creating layer ip1
I0430 20:14:41.545961 28303 net.cpp:86] Creating Layer ip1
I0430 20:14:41.545964 28303 net.cpp:408] ip1 <- data
I0430 20:14:41.545969 28303 net.cpp:382] ip1 -> ip1
I0430 20:14:41.553005 28303 net.cpp:124] Setting up ip1
I0430 20:14:41.553016 28303 net.cpp:131] Top shape: 1000 80 (80000)
I0430 20:14:41.553035 28303 net.cpp:139] Memory required for data: 12620000
I0430 20:14:41.553062 28303 layer_factory.hpp:77] Creating layer relu1
I0430 20:14:41.553069 28303 net.cpp:86] Creating Layer relu1
I0430 20:14:41.553073 28303 net.cpp:408] relu1 <- ip1
I0430 20:14:41.553102 28303 net.cpp:369] relu1 -> ip1 (in-place)
I0430 20:14:41.553966 28303 net.cpp:124] Setting up relu1
I0430 20:14:41.553977 28303 net.cpp:131] Top shape: 1000 80 (80000)
I0430 20:14:41.553997 28303 net.cpp:139] Memory required for data: 12940000
I0430 20:14:41.554000 28303 layer_factory.hpp:77] Creating layer ip2
I0430 20:14:41.554009 28303 net.cpp:86] Creating Layer ip2
I0430 20:14:41.554013 28303 net.cpp:408] ip2 <- ip1
I0430 20:14:41.554019 28303 net.cpp:382] ip2 -> ip2
I0430 20:14:41.554316 28303 net.cpp:124] Setting up ip2
I0430 20:14:41.554340 28303 net.cpp:131] Top shape: 1000 80 (80000)
I0430 20:14:41.554344 28303 net.cpp:139] Memory required for data: 13260000
I0430 20:14:41.554352 28303 layer_factory.hpp:77] Creating layer relu2
I0430 20:14:41.554358 28303 net.cpp:86] Creating Layer relu2
I0430 20:14:41.554363 28303 net.cpp:408] relu2 <- ip2
I0430 20:14:41.554368 28303 net.cpp:369] relu2 -> ip2 (in-place)
I0430 20:14:41.554530 28303 net.cpp:124] Setting up relu2
I0430 20:14:41.554540 28303 net.cpp:131] Top shape: 1000 80 (80000)
I0430 20:14:41.554543 28303 net.cpp:139] Memory required for data: 13580000
I0430 20:14:41.554548 28303 layer_factory.hpp:77] Creating layer ip3
I0430 20:14:41.554553 28303 net.cpp:86] Creating Layer ip3
I0430 20:14:41.554558 28303 net.cpp:408] ip3 <- ip2
I0430 20:14:41.554563 28303 net.cpp:382] ip3 -> ip3
I0430 20:14:41.554909 28303 net.cpp:124] Setting up ip3
I0430 20:14:41.554916 28303 net.cpp:131] Top shape: 1000 80 (80000)
I0430 20:14:41.554919 28303 net.cpp:139] Memory required for data: 13900000
I0430 20:14:41.554946 28303 layer_factory.hpp:77] Creating layer relu3
I0430 20:14:41.554952 28303 net.cpp:86] Creating Layer relu3
I0430 20:14:41.554955 28303 net.cpp:408] relu3 <- ip3
I0430 20:14:41.554960 28303 net.cpp:369] relu3 -> ip3 (in-place)
I0430 20:14:41.555145 28303 net.cpp:124] Setting up relu3
I0430 20:14:41.555155 28303 net.cpp:131] Top shape: 1000 80 (80000)
I0430 20:14:41.555157 28303 net.cpp:139] Memory required for data: 14220000
I0430 20:14:41.555161 28303 layer_factory.hpp:77] Creating layer ip4
I0430 20:14:41.555168 28303 net.cpp:86] Creating Layer ip4
I0430 20:14:41.555172 28303 net.cpp:408] ip4 <- ip3
I0430 20:14:41.555177 28303 net.cpp:382] ip4 -> ip4
I0430 20:14:41.555301 28303 net.cpp:124] Setting up ip4
I0430 20:14:41.555310 28303 net.cpp:131] Top shape: 1000 10 (10000)
I0430 20:14:41.555312 28303 net.cpp:139] Memory required for data: 14260000
I0430 20:14:41.555318 28303 layer_factory.hpp:77] Creating layer ip4_ip4_0_split
I0430 20:14:41.555322 28303 net.cpp:86] Creating Layer ip4_ip4_0_split
I0430 20:14:41.555326 28303 net.cpp:408] ip4_ip4_0_split <- ip4
I0430 20:14:41.555330 28303 net.cpp:382] ip4_ip4_0_split -> ip4_ip4_0_split_0
I0430 20:14:41.555337 28303 net.cpp:382] ip4_ip4_0_split -> ip4_ip4_0_split_1
I0430 20:14:41.555367 28303 net.cpp:124] Setting up ip4_ip4_0_split
I0430 20:14:41.555377 28303 net.cpp:131] Top shape: 1000 10 (10000)
I0430 20:14:41.555382 28303 net.cpp:131] Top shape: 1000 10 (10000)
I0430 20:14:41.555384 28303 net.cpp:139] Memory required for data: 14340000
I0430 20:14:41.555388 28303 layer_factory.hpp:77] Creating layer accuracy
I0430 20:14:41.555394 28303 net.cpp:86] Creating Layer accuracy
I0430 20:14:41.555397 28303 net.cpp:408] accuracy <- ip4_ip4_0_split_0
I0430 20:14:41.555402 28303 net.cpp:408] accuracy <- label_cifar_1_split_0
I0430 20:14:41.555407 28303 net.cpp:382] accuracy -> accuracy
…
