…
I0430 17:19:35.445827 19540 net.cpp:296] The NetState phase (0) differed from the phase (1) specified by a rule in layer cifar
I0430 17:19:35.445842 19540 net.cpp:296] The NetState phase (0) differed from the phase (1) specified by a rule in layer accuracy
I0430 17:19:35.445905 19540 net.cpp:53] Initializing net from parameters: 
name: "CIFAR"
state {
  phase: TRAIN
  level: 0
  stage: ""
}
layer {
  name: "cifar"
  type: "Data"
  top: "data"
  top: "label"
  include {
    phase: TRAIN
  }
  transform_param {
    mean_file: "examples/cifar10/mean.binaryproto"
  }
  data_param {
    source: "examples/cifar10/cifar10_train_lmdb"
    batch_size: 111
    backend: LMDB
  }
}
layer {
  name: "ip1"
  type: "InnerProduct"
  bottom: "data"
  top: "ip1"
  param {
    lr_mult: 1
  }
  param {
    lr_mult: 2
  }
  inner_product_param {
    num_output: 10
    weight_filler {
      type: "gaussian"
      std: 0.01
    }
    bias_filler {
      type: "constant"
    }
  }
}
layer {
  name: "relu1"
  type: "ReLU"
  bottom: "ip1"
  top: "ip1"
}
layer {
  name: "ip2"
  type: "InnerProduct"
  bottom: "ip1"
  top: "ip2"
  param {
    lr_mult: 1
  }
  param {
    lr_mult: 2
  }
  inner_product_param {
    num_output: 10
    weight_filler {
      type: "gaussian"
      std: 0.01
    }
    bias_filler {
      type: "constant"
    }
  }
}
layer {
  name: "relu2"
  type: "ReLU"
  bottom: "ip2"
  top: "ip2"
}
layer {
  name: "ip3"
  type: "InnerProduct"
  bottom: "ip2"
  top: "ip3"
  param {
    lr_mult: 1
  }
  param {
    lr_mult: 2
  }
  inner_product_param {
    num_output: 20
    weight_filler {
      type: "gaussian"
      std: 0.01
    }
    bias_filler {
      type: "constant"
    }
  }
}
layer {
  name: "relu3"
  type: "ReLU"
  bottom: "ip3"
  top: "ip3"
}
layer {
  name: "ip4"
  type: "InnerProduct"
  bottom: "ip3"
  top: "ip4"
  param {
    lr_mult: 1
  }
  param {
    lr_mult: 2
  }
  inner_product_param {
    num_output: 10
    weight_filler {
      type: "gaussian"
      std: 0.01
    }
    bias_filler {
      type: "constant"
    }
  }
}
layer {
  name: "loss"
  type: "SoftmaxWithLoss"
  bottom: "ip4"
  bottom: "label"
  top: "loss"
}
I0430 17:19:35.445960 19540 layer_factory.hpp:77] Creating layer cifar
I0430 17:19:35.446038 19540 db_lmdb.cpp:35] Opened lmdb examples/cifar10/cifar10_train_lmdb
I0430 17:19:35.446060 19540 net.cpp:86] Creating Layer cifar
I0430 17:19:35.446065 19540 net.cpp:382] cifar -> data
I0430 17:19:35.446084 19540 net.cpp:382] cifar -> label
I0430 17:19:35.446094 19540 data_transformer.cpp:25] Loading mean file from: examples/cifar10/mean.binaryproto
I0430 17:19:35.447827 19540 data_layer.cpp:45] output data size: 111,3,32,32
I0430 17:19:35.454169 19540 net.cpp:124] Setting up cifar
I0430 17:19:35.454200 19540 net.cpp:131] Top shape: 111 3 32 32 (340992)
I0430 17:19:35.454205 19540 net.cpp:131] Top shape: 111 (111)
I0430 17:19:35.454208 19540 net.cpp:139] Memory required for data: 1364412
I0430 17:19:35.454215 19540 layer_factory.hpp:77] Creating layer ip1
I0430 17:19:35.454238 19540 net.cpp:86] Creating Layer ip1
I0430 17:19:35.454243 19540 net.cpp:408] ip1 <- data
I0430 17:19:35.454252 19540 net.cpp:382] ip1 -> ip1
I0430 17:19:35.456006 19540 net.cpp:124] Setting up ip1
I0430 17:19:35.456018 19540 net.cpp:131] Top shape: 111 10 (1110)
I0430 17:19:35.456022 19540 net.cpp:139] Memory required for data: 1368852
I0430 17:19:35.456032 19540 layer_factory.hpp:77] Creating layer relu1
I0430 17:19:35.456039 19540 net.cpp:86] Creating Layer relu1
I0430 17:19:35.456069 19540 net.cpp:408] relu1 <- ip1
I0430 17:19:35.456074 19540 net.cpp:369] relu1 -> ip1 (in-place)
I0430 17:19:35.682978 19540 net.cpp:124] Setting up relu1
I0430 17:19:35.683004 19540 net.cpp:131] Top shape: 111 10 (1110)
I0430 17:19:35.683008 19540 net.cpp:139] Memory required for data: 1373292
I0430 17:19:35.683013 19540 layer_factory.hpp:77] Creating layer ip2
I0430 17:19:35.683025 19540 net.cpp:86] Creating Layer ip2
I0430 17:19:35.683029 19540 net.cpp:408] ip2 <- ip1
I0430 17:19:35.683037 19540 net.cpp:382] ip2 -> ip2
I0430 17:19:35.683168 19540 net.cpp:124] Setting up ip2
I0430 17:19:35.683177 19540 net.cpp:131] Top shape: 111 10 (1110)
I0430 17:19:35.683181 19540 net.cpp:139] Memory required for data: 1377732
I0430 17:19:35.683189 19540 layer_factory.hpp:77] Creating layer relu2
I0430 17:19:35.683197 19540 net.cpp:86] Creating Layer relu2
I0430 17:19:35.683198 19540 net.cpp:408] relu2 <- ip2
I0430 17:19:35.683202 19540 net.cpp:369] relu2 -> ip2 (in-place)
I0430 17:19:35.684043 19540 net.cpp:124] Setting up relu2
I0430 17:19:35.684056 19540 net.cpp:131] Top shape: 111 10 (1110)
I0430 17:19:35.684058 19540 net.cpp:139] Memory required for data: 1382172
I0430 17:19:35.684062 19540 layer_factory.hpp:77] Creating layer ip3
I0430 17:19:35.684073 19540 net.cpp:86] Creating Layer ip3
I0430 17:19:35.684078 19540 net.cpp:408] ip3 <- ip2
I0430 17:19:35.684101 19540 net.cpp:382] ip3 -> ip3
I0430 17:19:35.684240 19540 net.cpp:124] Setting up ip3
I0430 17:19:35.684255 19540 net.cpp:131] Top shape: 111 20 (2220)
I0430 17:19:35.684260 19540 net.cpp:139] Memory required for data: 1391052
I0430 17:19:35.684284 19540 layer_factory.hpp:77] Creating layer relu3
I0430 17:19:35.684291 19540 net.cpp:86] Creating Layer relu3
I0430 17:19:35.684296 19540 net.cpp:408] relu3 <- ip3
I0430 17:19:35.684303 19540 net.cpp:369] relu3 -> ip3 (in-place)
I0430 17:19:35.684521 19540 net.cpp:124] Setting up relu3
I0430 17:19:35.684533 19540 net.cpp:131] Top shape: 111 20 (2220)
I0430 17:19:35.684537 19540 net.cpp:139] Memory required for data: 1399932
I0430 17:19:35.684540 19540 layer_factory.hpp:77] Creating layer ip4
I0430 17:19:35.684547 19540 net.cpp:86] Creating Layer ip4
I0430 17:19:35.684551 19540 net.cpp:408] ip4 <- ip3
I0430 17:19:35.684557 19540 net.cpp:382] ip4 -> ip4
I0430 17:19:35.684659 19540 net.cpp:124] Setting up ip4
I0430 17:19:35.684665 19540 net.cpp:131] Top shape: 111 10 (1110)
I0430 17:19:35.684669 19540 net.cpp:139] Memory required for data: 1404372
I0430 17:19:35.684674 19540 layer_factory.hpp:77] Creating layer loss
I0430 17:19:35.684681 19540 net.cpp:86] Creating Layer loss
I0430 17:19:35.684685 19540 net.cpp:408] loss <- ip4
I0430 17:19:35.684689 19540 net.cpp:408] loss <- label
I0430 17:19:35.684695 19540 net.cpp:382] loss -> loss
I0430 17:19:35.684723 19540 layer_factory.hpp:77] Creating layer loss
…
I0430 17:19:35.685358 19540 solver.cpp:173] Creating test net (#0) specified by net file: ECE595/cifar/train_test/var_everything/cifar_train_test_31.prototxt
I0430 17:19:35.685396 19540 net.cpp:296] The NetState phase (1) differed from the phase (0) specified by a rule in layer cifar
I0430 17:19:35.685467 19540 net.cpp:53] Initializing net from parameters: 
name: "CIFAR"
state {
  phase: TEST
}
layer {
  name: "cifar"
  type: "Data"
  top: "data"
  top: "label"
  include {
    phase: TEST
  }
  transform_param {
    mean_file: "examples/cifar10/mean.binaryproto"
  }
  data_param {
    source: "examples/cifar10/cifar10_test_lmdb"
    batch_size: 1000
    backend: LMDB
  }
}
layer {
  name: "ip1"
  type: "InnerProduct"
  bottom: "data"
  top: "ip1"
  param {
    lr_mult: 1
  }
  param {
    lr_mult: 2
  }
  inner_product_param {
    num_output: 10
    weight_filler {
      type: "gaussian"
      std: 0.01
    }
    bias_filler {
      type: "constant"
    }
  }
}
layer {
  name: "relu1"
  type: "ReLU"
  bottom: "ip1"
  top: "ip1"
}
layer {
  name: "ip2"
  type: "InnerProduct"
  bottom: "ip1"
  top: "ip2"
  param {
    lr_mult: 1
  }
  param {
    lr_mult: 2
  }
  inner_product_param {
    num_output: 10
    weight_filler {
      type: "gaussian"
      std: 0.01
    }
    bias_filler {
      type: "constant"
    }
  }
}
layer {
  name: "relu2"
  type: "ReLU"
  bottom: "ip2"
  top: "ip2"
}
layer {
  name: "ip3"
  type: "InnerProduct"
  bottom: "ip2"
  top: "ip3"
  param {
    lr_mult: 1
  }
  param {
    lr_mult: 2
  }
  inner_product_param {
    num_output: 20
    weight_filler {
      type: "gaussian"
      std: 0.01
    }
    bias_filler {
      type: "constant"
    }
  }
}
layer {
  name: "relu3"
  type: "ReLU"
  bottom: "ip3"
  top: "ip3"
}
layer {
  name: "ip4"
  type: "InnerProduct"
  bottom: "ip3"
  top: "ip4"
  param {
    lr_mult: 1
  }
  param {
    lr_mult: 2
  }
  inner_product_param {
    num_output: 10
    weight_filler {
      type: "gaussian"
      std: 0.01
    }
    bias_filler {
      type: "constant"
    }
  }
}
layer {
  name: "accuracy"
  type: "Accuracy"
  bottom: "ip4"
  bottom: "label"
  top: "accuracy"
  include {
    phase: TEST
  }
}
layer {
  name: "loss"
  type: "SoftmaxWithLoss"
  bottom: "ip4"
  bottom: "label"
  top: "loss"
}
I0430 17:19:35.685528 19540 layer_factory.hpp:77] Creating layer cifar
I0430 17:19:35.685572 19540 db_lmdb.cpp:35] Opened lmdb examples/cifar10/cifar10_test_lmdb
I0430 17:19:35.685585 19540 net.cpp:86] Creating Layer cifar
I0430 17:19:35.685590 19540 net.cpp:382] cifar -> data
I0430 17:19:35.685596 19540 net.cpp:382] cifar -> label
I0430 17:19:35.685602 19540 data_transformer.cpp:25] Loading mean file from: examples/cifar10/mean.binaryproto
I0430 17:19:35.685750 19540 data_layer.cpp:45] output data size: 1000,3,32,32
I0430 17:19:35.707471 19540 net.cpp:124] Setting up cifar
I0430 17:19:35.707515 19540 net.cpp:131] Top shape: 1000 3 32 32 (3072000)
I0430 17:19:35.707520 19540 net.cpp:131] Top shape: 1000 (1000)
I0430 17:19:35.707523 19540 net.cpp:139] Memory required for data: 12292000
I0430 17:19:35.707530 19540 layer_factory.hpp:77] Creating layer label_cifar_1_split
I0430 17:19:35.707572 19540 net.cpp:86] Creating Layer label_cifar_1_split
I0430 17:19:35.707577 19540 net.cpp:408] label_cifar_1_split <- label
I0430 17:19:35.707583 19540 net.cpp:382] label_cifar_1_split -> label_cifar_1_split_0
I0430 17:19:35.707597 19540 net.cpp:382] label_cifar_1_split -> label_cifar_1_split_1
I0430 17:19:35.707669 19540 net.cpp:124] Setting up label_cifar_1_split
I0430 17:19:35.707676 19540 net.cpp:131] Top shape: 1000 (1000)
I0430 17:19:35.707679 19540 net.cpp:131] Top shape: 1000 (1000)
I0430 17:19:35.707684 19540 net.cpp:139] Memory required for data: 12300000
I0430 17:19:35.707686 19540 layer_factory.hpp:77] Creating layer ip1
I0430 17:19:35.707695 19540 net.cpp:86] Creating Layer ip1
I0430 17:19:35.707698 19540 net.cpp:408] ip1 <- data
I0430 17:19:35.707703 19540 net.cpp:382] ip1 -> ip1
I0430 17:19:35.708658 19540 net.cpp:124] Setting up ip1
I0430 17:19:35.708667 19540 net.cpp:131] Top shape: 1000 10 (10000)
I0430 17:19:35.708686 19540 net.cpp:139] Memory required for data: 12340000
I0430 17:19:35.708724 19540 layer_factory.hpp:77] Creating layer relu1
I0430 17:19:35.708729 19540 net.cpp:86] Creating Layer relu1
I0430 17:19:35.708734 19540 net.cpp:408] relu1 <- ip1
I0430 17:19:35.708737 19540 net.cpp:369] relu1 -> ip1 (in-place)
I0430 17:19:35.709664 19540 net.cpp:124] Setting up relu1
I0430 17:19:35.709676 19540 net.cpp:131] Top shape: 1000 10 (10000)
I0430 17:19:35.709697 19540 net.cpp:139] Memory required for data: 12380000
I0430 17:19:35.709700 19540 layer_factory.hpp:77] Creating layer ip2
I0430 17:19:35.709708 19540 net.cpp:86] Creating Layer ip2
I0430 17:19:35.709712 19540 net.cpp:408] ip2 <- ip1
I0430 17:19:35.709733 19540 net.cpp:382] ip2 -> ip2
I0430 17:19:35.709859 19540 net.cpp:124] Setting up ip2
I0430 17:19:35.709867 19540 net.cpp:131] Top shape: 1000 10 (10000)
I0430 17:19:35.709870 19540 net.cpp:139] Memory required for data: 12420000
I0430 17:19:35.709877 19540 layer_factory.hpp:77] Creating layer relu2
I0430 17:19:35.709882 19540 net.cpp:86] Creating Layer relu2
I0430 17:19:35.709887 19540 net.cpp:408] relu2 <- ip2
I0430 17:19:35.709890 19540 net.cpp:369] relu2 -> ip2 (in-place)
I0430 17:19:35.711199 19540 net.cpp:124] Setting up relu2
I0430 17:19:35.711215 19540 net.cpp:131] Top shape: 1000 10 (10000)
I0430 17:19:35.711220 19540 net.cpp:139] Memory required for data: 12460000
I0430 17:19:35.711223 19540 layer_factory.hpp:77] Creating layer ip3
I0430 17:19:35.711231 19540 net.cpp:86] Creating Layer ip3
I0430 17:19:35.711235 19540 net.cpp:408] ip3 <- ip2
I0430 17:19:35.711241 19540 net.cpp:382] ip3 -> ip3
I0430 17:19:35.711364 19540 net.cpp:124] Setting up ip3
I0430 17:19:35.711370 19540 net.cpp:131] Top shape: 1000 20 (20000)
I0430 17:19:35.711374 19540 net.cpp:139] Memory required for data: 12540000
I0430 17:19:35.711382 19540 layer_factory.hpp:77] Creating layer relu3
I0430 17:19:35.711388 19540 net.cpp:86] Creating Layer relu3
I0430 17:19:35.711393 19540 net.cpp:408] relu3 <- ip3
I0430 17:19:35.711398 19540 net.cpp:369] relu3 -> ip3 (in-place)
I0430 17:19:35.711599 19540 net.cpp:124] Setting up relu3
I0430 17:19:35.711607 19540 net.cpp:131] Top shape: 1000 20 (20000)
I0430 17:19:35.711611 19540 net.cpp:139] Memory required for data: 12620000
I0430 17:19:35.711613 19540 layer_factory.hpp:77] Creating layer ip4
I0430 17:19:35.711621 19540 net.cpp:86] Creating Layer ip4
I0430 17:19:35.711624 19540 net.cpp:408] ip4 <- ip3
I0430 17:19:35.711629 19540 net.cpp:382] ip4 -> ip4
I0430 17:19:35.711727 19540 net.cpp:124] Setting up ip4
I0430 17:19:35.711735 19540 net.cpp:131] Top shape: 1000 10 (10000)
I0430 17:19:35.711737 19540 net.cpp:139] Memory required for data: 12660000
I0430 17:19:35.711742 19540 layer_factory.hpp:77] Creating layer ip4_ip4_0_split
I0430 17:19:35.711747 19540 net.cpp:86] Creating Layer ip4_ip4_0_split
I0430 17:19:35.711750 19540 net.cpp:408] ip4_ip4_0_split <- ip4
I0430 17:19:35.711755 19540 net.cpp:382] ip4_ip4_0_split -> ip4_ip4_0_split_0
I0430 17:19:35.711761 19540 net.cpp:382] ip4_ip4_0_split -> ip4_ip4_0_split_1
I0430 17:19:35.711789 19540 net.cpp:124] Setting up ip4_ip4_0_split
I0430 17:19:35.711796 19540 net.cpp:131] Top shape: 1000 10 (10000)
I0430 17:19:35.711800 19540 net.cpp:131] Top shape: 1000 10 (10000)
I0430 17:19:35.711802 19540 net.cpp:139] Memory required for data: 12740000
I0430 17:19:35.711807 19540 layer_factory.hpp:77] Creating layer accuracy
I0430 17:19:35.711817 19540 net.cpp:86] Creating Layer accuracy
I0430 17:19:35.711827 19540 net.cpp:408] accuracy <- ip4_ip4_0_split_0
I0430 17:19:35.711833 19540 net.cpp:408] accuracy <- label_cifar_1_split_0
I0430 17:19:35.711836 19540 net.cpp:382] accuracy -> accuracy
…
