…
I0430 16:18:04.925766 12268 net.cpp:294] The NetState phase (0) differed from the phase (1) specified by a rule in layer accuracy
I0430 16:18:04.925851 12268 net.cpp:51] Initializing net from parameters: 
>>>>>>> 45a987e48e0c81782ce82646f59923a6260c0195
name: "CIFAR"
state {
  phase: TRAIN
  level: 0
  stage: ""
}
layer {
  name: "cifar"
  type: "Data"
  top: "data"
  top: "label"
  include {
    phase: TRAIN
  }
  transform_param {
    mean_file: "examples/cifar10/mean.binaryproto"
  }
  data_param {
    source: "examples/cifar10/cifar10_train_lmdb"
    batch_size: 111
    backend: LMDB
  }
}
layer {
  name: "ip1"
  type: "InnerProduct"
  bottom: "data"
  top: "ip1"
  param {
    lr_mult: 1
  }
  param {
    lr_mult: 2
  }
  inner_product_param {
    num_output: 10
    weight_filler {
      type: "gaussian"
      std: 0.01
    }
    bias_filler {
      type: "constant"
    }
  }
}
layer {
  name: "relu1"
  type: "ReLU"
  bottom: "ip1"
  top: "ip1"
}
layer {
  name: "ip2"
  type: "InnerProduct"
  bottom: "ip1"
  top: "ip2"
  param {
    lr_mult: 1
  }
  param {
    lr_mult: 2
  }
  inner_product_param {
    num_output: 10
    weight_filler {
      type: "gaussian"
      std: 0.01
    }
    bias_filler {
      type: "constant"
    }
  }
}
layer {
  name: "loss"
  type: "SoftmaxWithLoss"
  bottom: "ip2"
  bottom: "label"
  top: "loss"
}
<<<<<<< HEAD
I0430 16:21:14.415967 17179 layer_factory.hpp:77] Creating layer cifar
I0430 16:21:14.416103 17179 db_lmdb.cpp:35] Opened lmdb examples/cifar10/cifar10_train_lmdb
I0430 16:21:14.416141 17179 net.cpp:86] Creating Layer cifar
I0430 16:21:14.416153 17179 net.cpp:382] cifar -> data
I0430 16:21:14.416183 17179 net.cpp:382] cifar -> label
I0430 16:21:14.416201 17179 data_transformer.cpp:25] Loading mean file from: examples/cifar10/mean.binaryproto
I0430 16:21:14.418330 17179 data_layer.cpp:45] output data size: 111,3,32,32
I0430 16:21:14.426199 17179 net.cpp:124] Setting up cifar
I0430 16:21:14.426221 17179 net.cpp:131] Top shape: 111 3 32 32 (340992)
I0430 16:21:14.426232 17179 net.cpp:131] Top shape: 111 (111)
I0430 16:21:14.426239 17179 net.cpp:139] Memory required for data: 1364412
I0430 16:21:14.426249 17179 layer_factory.hpp:77] Creating layer ip1
I0430 16:21:14.426266 17179 net.cpp:86] Creating Layer ip1
I0430 16:21:14.426281 17179 net.cpp:408] ip1 <- data
I0430 16:21:14.426302 17179 net.cpp:382] ip1 -> ip1
I0430 16:21:14.428442 17179 net.cpp:124] Setting up ip1
I0430 16:21:14.428459 17179 net.cpp:131] Top shape: 111 10 (1110)
I0430 16:21:14.428465 17179 net.cpp:139] Memory required for data: 1368852
I0430 16:21:14.428488 17179 layer_factory.hpp:77] Creating layer relu1
I0430 16:21:14.428509 17179 net.cpp:86] Creating Layer relu1
I0430 16:21:14.428519 17179 net.cpp:408] relu1 <- ip1
I0430 16:21:14.428530 17179 net.cpp:369] relu1 -> ip1 (in-place)
I0430 16:21:14.676518 17179 net.cpp:124] Setting up relu1
I0430 16:21:14.676548 17179 net.cpp:131] Top shape: 111 10 (1110)
I0430 16:21:14.676553 17179 net.cpp:139] Memory required for data: 1373292
I0430 16:21:14.676560 17179 layer_factory.hpp:77] Creating layer ip2
I0430 16:21:14.676575 17179 net.cpp:86] Creating Layer ip2
I0430 16:21:14.676596 17179 net.cpp:408] ip2 <- ip1
I0430 16:21:14.676607 17179 net.cpp:382] ip2 -> ip2
I0430 16:21:14.676728 17179 net.cpp:124] Setting up ip2
I0430 16:21:14.676738 17179 net.cpp:131] Top shape: 111 10 (1110)
I0430 16:21:14.676761 17179 net.cpp:139] Memory required for data: 1377732
I0430 16:21:14.676777 17179 layer_factory.hpp:77] Creating layer loss
I0430 16:21:14.676787 17179 net.cpp:86] Creating Layer loss
I0430 16:21:14.676795 17179 net.cpp:408] loss <- ip2
I0430 16:21:14.676801 17179 net.cpp:408] loss <- label
I0430 16:21:14.676813 17179 net.cpp:382] loss -> loss
I0430 16:21:14.676854 17179 layer_factory.hpp:77] Creating layer loss
…
I0430 16:18:04.934250 12268 net.cpp:294] The NetState phase (1) differed from the phase (0) specified by a rule in layer cifar
I0430 16:18:04.934343 12268 net.cpp:51] Initializing net from parameters: 
>>>>>>> 45a987e48e0c81782ce82646f59923a6260c0195
name: "CIFAR"
state {
  phase: TEST
}
layer {
  name: "cifar"
  type: "Data"
  top: "data"
  top: "label"
  include {
    phase: TEST
  }
  transform_param {
    mean_file: "examples/cifar10/mean.binaryproto"
  }
  data_param {
    source: "examples/cifar10/cifar10_test_lmdb"
    batch_size: 1000
    backend: LMDB
  }
}
layer {
  name: "ip1"
  type: "InnerProduct"
  bottom: "data"
  top: "ip1"
  param {
    lr_mult: 1
  }
  param {
    lr_mult: 2
  }
  inner_product_param {
    num_output: 10
    weight_filler {
      type: "gaussian"
      std: 0.01
    }
    bias_filler {
      type: "constant"
    }
  }
}
layer {
  name: "relu1"
  type: "ReLU"
  bottom: "ip1"
  top: "ip1"
}
layer {
  name: "ip2"
  type: "InnerProduct"
  bottom: "ip1"
  top: "ip2"
  param {
    lr_mult: 1
  }
  param {
    lr_mult: 2
  }
  inner_product_param {
    num_output: 10
    weight_filler {
      type: "gaussian"
      std: 0.01
    }
    bias_filler {
      type: "constant"
    }
  }
}
layer {
  name: "accuracy"
  type: "Accuracy"
  bottom: "ip2"
  bottom: "label"
  top: "accuracy"
  include {
    phase: TEST
  }
}
layer {
  name: "loss"
  type: "SoftmaxWithLoss"
  bottom: "ip2"
  bottom: "label"
  top: "loss"
}
<<<<<<< HEAD
I0430 16:21:14.678237 17179 layer_factory.hpp:77] Creating layer cifar
I0430 16:21:14.678297 17179 db_lmdb.cpp:35] Opened lmdb examples/cifar10/cifar10_test_lmdb
I0430 16:21:14.678313 17179 net.cpp:86] Creating Layer cifar
I0430 16:21:14.678321 17179 net.cpp:382] cifar -> data
I0430 16:21:14.678333 17179 net.cpp:382] cifar -> label
I0430 16:21:14.678342 17179 data_transformer.cpp:25] Loading mean file from: examples/cifar10/mean.binaryproto
I0430 16:21:14.678540 17179 data_layer.cpp:45] output data size: 1000,3,32,32
I0430 16:21:14.700650 17179 net.cpp:124] Setting up cifar
I0430 16:21:14.700676 17179 net.cpp:131] Top shape: 1000 3 32 32 (3072000)
I0430 16:21:14.700685 17179 net.cpp:131] Top shape: 1000 (1000)
I0430 16:21:14.700690 17179 net.cpp:139] Memory required for data: 12292000
I0430 16:21:14.700711 17179 layer_factory.hpp:77] Creating layer label_cifar_1_split
I0430 16:21:14.700732 17179 net.cpp:86] Creating Layer label_cifar_1_split
I0430 16:21:14.700739 17179 net.cpp:408] label_cifar_1_split <- label
I0430 16:21:14.700748 17179 net.cpp:382] label_cifar_1_split -> label_cifar_1_split_0
I0430 16:21:14.700760 17179 net.cpp:382] label_cifar_1_split -> label_cifar_1_split_1
I0430 16:21:14.700855 17179 net.cpp:124] Setting up label_cifar_1_split
I0430 16:21:14.700881 17179 net.cpp:131] Top shape: 1000 (1000)
I0430 16:21:14.700907 17179 net.cpp:131] Top shape: 1000 (1000)
I0430 16:21:14.700913 17179 net.cpp:139] Memory required for data: 12300000
I0430 16:21:14.700918 17179 layer_factory.hpp:77] Creating layer ip1
I0430 16:21:14.700932 17179 net.cpp:86] Creating Layer ip1
I0430 16:21:14.700939 17179 net.cpp:408] ip1 <- data
I0430 16:21:14.700951 17179 net.cpp:382] ip1 -> ip1
I0430 16:21:14.701956 17179 net.cpp:124] Setting up ip1
I0430 16:21:14.701964 17179 net.cpp:131] Top shape: 1000 10 (10000)
I0430 16:21:14.701969 17179 net.cpp:139] Memory required for data: 12340000
I0430 16:21:14.701998 17179 layer_factory.hpp:77] Creating layer relu1
I0430 16:21:14.702010 17179 net.cpp:86] Creating Layer relu1
I0430 16:21:14.702019 17179 net.cpp:408] relu1 <- ip1
I0430 16:21:14.702025 17179 net.cpp:369] relu1 -> ip1 (in-place)
I0430 16:21:14.702242 17179 net.cpp:124] Setting up relu1
I0430 16:21:14.702268 17179 net.cpp:131] Top shape: 1000 10 (10000)
I0430 16:21:14.702273 17179 net.cpp:139] Memory required for data: 12380000
I0430 16:21:14.702280 17179 layer_factory.hpp:77] Creating layer ip2
I0430 16:21:14.702292 17179 net.cpp:86] Creating Layer ip2
I0430 16:21:14.702297 17179 net.cpp:408] ip2 <- ip1
I0430 16:21:14.702307 17179 net.cpp:382] ip2 -> ip2
I0430 16:21:14.702435 17179 net.cpp:124] Setting up ip2
I0430 16:21:14.702445 17179 net.cpp:131] Top shape: 1000 10 (10000)
I0430 16:21:14.702450 17179 net.cpp:139] Memory required for data: 12420000
I0430 16:21:14.702461 17179 layer_factory.hpp:77] Creating layer ip2_ip2_0_split
I0430 16:21:14.702473 17179 net.cpp:86] Creating Layer ip2_ip2_0_split
I0430 16:21:14.702481 17179 net.cpp:408] ip2_ip2_0_split <- ip2
I0430 16:21:14.702487 17179 net.cpp:382] ip2_ip2_0_split -> ip2_ip2_0_split_0
I0430 16:21:14.702497 17179 net.cpp:382] ip2_ip2_0_split -> ip2_ip2_0_split_1
I0430 16:21:14.702544 17179 net.cpp:124] Setting up ip2_ip2_0_split
I0430 16:21:14.702553 17179 net.cpp:131] Top shape: 1000 10 (10000)
I0430 16:21:14.702558 17179 net.cpp:131] Top shape: 1000 10 (10000)
I0430 16:21:14.702564 17179 net.cpp:139] Memory required for data: 12500000
I0430 16:21:14.702569 17179 layer_factory.hpp:77] Creating layer accuracy
I0430 16:21:14.702579 17179 net.cpp:86] Creating Layer accuracy
I0430 16:21:14.702585 17179 net.cpp:408] accuracy <- ip2_ip2_0_split_0
I0430 16:21:14.702592 17179 net.cpp:408] accuracy <- label_cifar_1_split_0
I0430 16:21:14.702600 17179 net.cpp:382] accuracy -> accuracy
…
