…
I0501 02:40:43.726655 16664 net.cpp:296] The NetState phase (0) differed from the phase (1) specified by a rule in layer cifar
I0501 02:40:43.726676 16664 net.cpp:296] The NetState phase (0) differed from the phase (1) specified by a rule in layer accuracy
I0501 02:40:43.726774 16664 net.cpp:53] Initializing net from parameters: 
name: "CIFAR"
state {
  phase: TRAIN
  level: 0
  stage: ""
}
layer {
  name: "cifar"
  type: "Data"
  top: "data"
  top: "label"
  include {
    phase: TRAIN
  }
  transform_param {
    mean_file: "examples/cifar10/mean.binaryproto"
  }
  data_param {
    source: "examples/cifar10/cifar10_train_lmdb"
    batch_size: 111
    backend: LMDB
  }
}
layer {
  name: "conv0"
  type: "Convolution"
  bottom: "data"
  top: "conv0"
  param {
    lr_mult: 1
  }
  param {
    lr_mult: 2
  }
  convolution_param {
    num_output: 8
    pad: 2
    kernel_size: 5
    stride: 1
    weight_filler {
      type: "gaussian"
      std: 0.01
    }
    bias_filler {
      type: "constant"
    }
  }
}
layer {
  name: "Sigmoid0"
  type: "Sigmoid"
  bottom: "conv0"
  top: "Sigmoid0"
}
layer {
  name: "pool0"
  type: "Pooling"
  bottom: "Sigmoid0"
  top: "pool0"
  pooling_param {
    pool: AVE
    kernel_size: 3
    stride: 2
  }
}
layer {
  name: "ip1"
  type: "InnerProduct"
  bottom: "pool0"
  top: "ip1"
  param {
    lr_mult: 1
  }
  param {
    lr_mult: 2
  }
  inner_product_param {
    num_output: 40
    weight_filler {
      type: "gaussian"
      std: 0.01
    }
    bias_filler {
      type: "constant"
    }
  }
}
layer {
  name: "relu1"
  type: "ReLU"
  bottom: "ip1"
  top: "ip1"
}
layer {
  name: "ip2"
  type: "InnerProduct"
  bottom: "ip1"
  top: "ip2"
  param {
    lr_mult: 1
  }
  param {
    lr_mult: 2
  }
  inner_product_param {
    num_output: 160
    weight_filler {
      type: "gaussian"
      std: 0.01
    }
    bias_filler {
      type: "constant"
    }
  }
}
layer {
  name: "relu2"
  type: "ReLU"
  bottom: "ip2"
  top: "ip2"
}
layer {
  name: "ip3"
  type: "InnerProduct"
  bottom: "ip2"
  top: "ip3"
  param {
    lr_mult: 1
  }
  param {
    lr_mult: 2
  }
  inner_product_param {
    num_output: 10
    weight_filler {
      type: "gaussian"
      std: 0.01
    }
    bias_filler {
      type: "constant"
    }
  }
}
layer {
  name: "loss"
  type: "SoftmaxWithLoss"
  bottom: "ip3"
  bottom: "label"
  top: "loss"
}
I0501 02:40:43.726843 16664 layer_factory.hpp:77] Creating layer cifar
I0501 02:40:43.726945 16664 db_lmdb.cpp:35] Opened lmdb examples/cifar10/cifar10_train_lmdb
I0501 02:40:43.726975 16664 net.cpp:86] Creating Layer cifar
I0501 02:40:43.726984 16664 net.cpp:382] cifar -> data
I0501 02:40:43.727007 16664 net.cpp:382] cifar -> label
I0501 02:40:43.727020 16664 data_transformer.cpp:25] Loading mean file from: examples/cifar10/mean.binaryproto
I0501 02:40:43.729116 16664 data_layer.cpp:45] output data size: 111,3,32,32
I0501 02:40:43.736953 16664 net.cpp:124] Setting up cifar
I0501 02:40:43.736971 16664 net.cpp:131] Top shape: 111 3 32 32 (340992)
I0501 02:40:43.736977 16664 net.cpp:131] Top shape: 111 (111)
I0501 02:40:43.736981 16664 net.cpp:139] Memory required for data: 1364412
I0501 02:40:43.736989 16664 layer_factory.hpp:77] Creating layer conv0
I0501 02:40:43.737012 16664 net.cpp:86] Creating Layer conv0
I0501 02:40:43.737018 16664 net.cpp:408] conv0 <- data
I0501 02:40:43.737030 16664 net.cpp:382] conv0 -> conv0
I0501 02:40:44.030752 16664 net.cpp:124] Setting up conv0
I0501 02:40:44.030802 16664 net.cpp:131] Top shape: 111 8 32 32 (909312)
I0501 02:40:44.030807 16664 net.cpp:139] Memory required for data: 5001660
I0501 02:40:44.030823 16664 layer_factory.hpp:77] Creating layer Sigmoid0
I0501 02:40:44.030836 16664 net.cpp:86] Creating Layer Sigmoid0
I0501 02:40:44.030841 16664 net.cpp:408] Sigmoid0 <- conv0
I0501 02:40:44.030848 16664 net.cpp:382] Sigmoid0 -> Sigmoid0
I0501 02:40:44.031042 16664 net.cpp:124] Setting up Sigmoid0
I0501 02:40:44.031054 16664 net.cpp:131] Top shape: 111 8 32 32 (909312)
I0501 02:40:44.031057 16664 net.cpp:139] Memory required for data: 8638908
I0501 02:40:44.031060 16664 layer_factory.hpp:77] Creating layer pool0
I0501 02:40:44.031069 16664 net.cpp:86] Creating Layer pool0
I0501 02:40:44.031076 16664 net.cpp:408] pool0 <- Sigmoid0
I0501 02:40:44.031082 16664 net.cpp:382] pool0 -> pool0
I0501 02:40:44.031930 16664 net.cpp:124] Setting up pool0
I0501 02:40:44.031946 16664 net.cpp:131] Top shape: 111 8 16 16 (227328)
I0501 02:40:44.031950 16664 net.cpp:139] Memory required for data: 9548220
I0501 02:40:44.031955 16664 layer_factory.hpp:77] Creating layer ip1
I0501 02:40:44.031965 16664 net.cpp:86] Creating Layer ip1
I0501 02:40:44.031970 16664 net.cpp:408] ip1 <- pool0
I0501 02:40:44.031976 16664 net.cpp:382] ip1 -> ip1
I0501 02:40:44.034692 16664 net.cpp:124] Setting up ip1
I0501 02:40:44.034701 16664 net.cpp:131] Top shape: 111 40 (4440)
I0501 02:40:44.034705 16664 net.cpp:139] Memory required for data: 9565980
I0501 02:40:44.034713 16664 layer_factory.hpp:77] Creating layer relu1
I0501 02:40:44.034719 16664 net.cpp:86] Creating Layer relu1
I0501 02:40:44.034723 16664 net.cpp:408] relu1 <- ip1
I0501 02:40:44.034729 16664 net.cpp:369] relu1 -> ip1 (in-place)
I0501 02:40:44.034894 16664 net.cpp:124] Setting up relu1
I0501 02:40:44.034904 16664 net.cpp:131] Top shape: 111 40 (4440)
I0501 02:40:44.034907 16664 net.cpp:139] Memory required for data: 9583740
I0501 02:40:44.034912 16664 layer_factory.hpp:77] Creating layer ip2
I0501 02:40:44.034919 16664 net.cpp:86] Creating Layer ip2
I0501 02:40:44.034922 16664 net.cpp:408] ip2 <- ip1
I0501 02:40:44.034927 16664 net.cpp:382] ip2 -> ip2
I0501 02:40:44.036147 16664 net.cpp:124] Setting up ip2
I0501 02:40:44.036161 16664 net.cpp:131] Top shape: 111 160 (17760)
I0501 02:40:44.036165 16664 net.cpp:139] Memory required for data: 9654780
I0501 02:40:44.036175 16664 layer_factory.hpp:77] Creating layer relu2
I0501 02:40:44.036181 16664 net.cpp:86] Creating Layer relu2
I0501 02:40:44.036185 16664 net.cpp:408] relu2 <- ip2
I0501 02:40:44.036190 16664 net.cpp:369] relu2 -> ip2 (in-place)
I0501 02:40:44.036381 16664 net.cpp:124] Setting up relu2
I0501 02:40:44.036391 16664 net.cpp:131] Top shape: 111 160 (17760)
I0501 02:40:44.036396 16664 net.cpp:139] Memory required for data: 9725820
I0501 02:40:44.036399 16664 layer_factory.hpp:77] Creating layer ip3
I0501 02:40:44.036407 16664 net.cpp:86] Creating Layer ip3
I0501 02:40:44.036413 16664 net.cpp:408] ip3 <- ip2
I0501 02:40:44.036419 16664 net.cpp:382] ip3 -> ip3
I0501 02:40:44.036569 16664 net.cpp:124] Setting up ip3
I0501 02:40:44.036576 16664 net.cpp:131] Top shape: 111 10 (1110)
I0501 02:40:44.036581 16664 net.cpp:139] Memory required for data: 9730260
I0501 02:40:44.036586 16664 layer_factory.hpp:77] Creating layer loss
I0501 02:40:44.036597 16664 net.cpp:86] Creating Layer loss
I0501 02:40:44.036600 16664 net.cpp:408] loss <- ip3
I0501 02:40:44.036604 16664 net.cpp:408] loss <- label
I0501 02:40:44.036610 16664 net.cpp:382] loss -> loss
I0501 02:40:44.036629 16664 layer_factory.hpp:77] Creating layer loss
…
I0501 02:40:44.037312 16664 solver.cpp:173] Creating test net (#0) specified by net file: ECE595/cifar/train_test/var_everything/cifar_train_test_329.prototxt
I0501 02:40:44.037341 16664 net.cpp:296] The NetState phase (1) differed from the phase (0) specified by a rule in layer cifar
I0501 02:40:44.037437 16664 net.cpp:53] Initializing net from parameters: 
name: "CIFAR"
state {
  phase: TEST
}
layer {
  name: "cifar"
  type: "Data"
  top: "data"
  top: "label"
  include {
    phase: TEST
  }
  transform_param {
    mean_file: "examples/cifar10/mean.binaryproto"
  }
  data_param {
    source: "examples/cifar10/cifar10_test_lmdb"
    batch_size: 1000
    backend: LMDB
  }
}
layer {
  name: "conv0"
  type: "Convolution"
  bottom: "data"
  top: "conv0"
  param {
    lr_mult: 1
  }
  param {
    lr_mult: 2
  }
  convolution_param {
    num_output: 8
    pad: 2
    kernel_size: 5
    stride: 1
    weight_filler {
      type: "gaussian"
      std: 0.01
    }
    bias_filler {
      type: "constant"
    }
  }
}
layer {
  name: "Sigmoid0"
  type: "Sigmoid"
  bottom: "conv0"
  top: "Sigmoid0"
}
layer {
  name: "pool0"
  type: "Pooling"
  bottom: "Sigmoid0"
  top: "pool0"
  pooling_param {
    pool: AVE
    kernel_size: 3
    stride: 2
  }
}
layer {
  name: "ip1"
  type: "InnerProduct"
  bottom: "pool0"
  top: "ip1"
  param {
    lr_mult: 1
  }
  param {
    lr_mult: 2
  }
  inner_product_param {
    num_output: 40
    weight_filler {
      type: "gaussian"
      std: 0.01
    }
    bias_filler {
      type: "constant"
    }
  }
}
layer {
  name: "relu1"
  type: "ReLU"
  bottom: "ip1"
  top: "ip1"
}
layer {
  name: "ip2"
  type: "InnerProduct"
  bottom: "ip1"
  top: "ip2"
  param {
    lr_mult: 1
  }
  param {
    lr_mult: 2
  }
  inner_product_param {
    num_output: 160
    weight_filler {
      type: "gaussian"
      std: 0.01
    }
    bias_filler {
      type: "constant"
    }
  }
}
layer {
  name: "relu2"
  type: "ReLU"
  bottom: "ip2"
  top: "ip2"
}
layer {
  name: "ip3"
  type: "InnerProduct"
  bottom: "ip2"
  top: "ip3"
  param {
    lr_mult: 1
  }
  param {
    lr_mult: 2
  }
  inner_product_param {
    num_output: 10
    weight_filler {
      type: "gaussian"
      std: 0.01
    }
    bias_filler {
      type: "constant"
    }
  }
}
layer {
  name: "accuracy"
  type: "Accuracy"
  bottom: "ip3"
  bottom: "label"
  top: "accuracy"
  include {
    phase: TEST
  }
}
layer {
  name: "loss"
  type: "SoftmaxWithLoss"
  bottom: "ip3"
  bottom: "label"
  top: "loss"
}
I0501 02:40:44.037511 16664 layer_factory.hpp:77] Creating layer cifar
I0501 02:40:44.037561 16664 db_lmdb.cpp:35] Opened lmdb examples/cifar10/cifar10_test_lmdb
I0501 02:40:44.037576 16664 net.cpp:86] Creating Layer cifar
I0501 02:40:44.037582 16664 net.cpp:382] cifar -> data
I0501 02:40:44.037591 16664 net.cpp:382] cifar -> label
I0501 02:40:44.037600 16664 data_transformer.cpp:25] Loading mean file from: examples/cifar10/mean.binaryproto
I0501 02:40:44.037765 16664 data_layer.cpp:45] output data size: 1000,3,32,32
I0501 02:40:44.061471 16664 net.cpp:124] Setting up cifar
I0501 02:40:44.061499 16664 net.cpp:131] Top shape: 1000 3 32 32 (3072000)
I0501 02:40:44.061506 16664 net.cpp:131] Top shape: 1000 (1000)
I0501 02:40:44.061508 16664 net.cpp:139] Memory required for data: 12292000
I0501 02:40:44.061513 16664 layer_factory.hpp:77] Creating layer label_cifar_1_split
I0501 02:40:44.061539 16664 net.cpp:86] Creating Layer label_cifar_1_split
I0501 02:40:44.061558 16664 net.cpp:408] label_cifar_1_split <- label
I0501 02:40:44.061568 16664 net.cpp:382] label_cifar_1_split -> label_cifar_1_split_0
I0501 02:40:44.061580 16664 net.cpp:382] label_cifar_1_split -> label_cifar_1_split_1
I0501 02:40:44.061691 16664 net.cpp:124] Setting up label_cifar_1_split
I0501 02:40:44.061698 16664 net.cpp:131] Top shape: 1000 (1000)
I0501 02:40:44.061702 16664 net.cpp:131] Top shape: 1000 (1000)
I0501 02:40:44.061705 16664 net.cpp:139] Memory required for data: 12300000
I0501 02:40:44.061708 16664 layer_factory.hpp:77] Creating layer conv0
I0501 02:40:44.061723 16664 net.cpp:86] Creating Layer conv0
I0501 02:40:44.061729 16664 net.cpp:408] conv0 <- data
I0501 02:40:44.061734 16664 net.cpp:382] conv0 -> conv0
I0501 02:40:44.063334 16664 net.cpp:124] Setting up conv0
I0501 02:40:44.063349 16664 net.cpp:131] Top shape: 1000 8 32 32 (8192000)
I0501 02:40:44.063351 16664 net.cpp:139] Memory required for data: 45068000
I0501 02:40:44.063364 16664 layer_factory.hpp:77] Creating layer Sigmoid0
I0501 02:40:44.063369 16664 net.cpp:86] Creating Layer Sigmoid0
I0501 02:40:44.063374 16664 net.cpp:408] Sigmoid0 <- conv0
I0501 02:40:44.063380 16664 net.cpp:382] Sigmoid0 -> Sigmoid0
I0501 02:40:44.064250 16664 net.cpp:124] Setting up Sigmoid0
I0501 02:40:44.064262 16664 net.cpp:131] Top shape: 1000 8 32 32 (8192000)
I0501 02:40:44.064266 16664 net.cpp:139] Memory required for data: 77836000
I0501 02:40:44.064270 16664 layer_factory.hpp:77] Creating layer pool0
I0501 02:40:44.064278 16664 net.cpp:86] Creating Layer pool0
I0501 02:40:44.064282 16664 net.cpp:408] pool0 <- Sigmoid0
I0501 02:40:44.064288 16664 net.cpp:382] pool0 -> pool0
I0501 02:40:44.065421 16664 net.cpp:124] Setting up pool0
I0501 02:40:44.065433 16664 net.cpp:131] Top shape: 1000 8 16 16 (2048000)
I0501 02:40:44.065435 16664 net.cpp:139] Memory required for data: 86028000
I0501 02:40:44.065438 16664 layer_factory.hpp:77] Creating layer ip1
I0501 02:40:44.065448 16664 net.cpp:86] Creating Layer ip1
I0501 02:40:44.065450 16664 net.cpp:408] ip1 <- pool0
I0501 02:40:44.065456 16664 net.cpp:382] ip1 -> ip1
I0501 02:40:44.067891 16664 net.cpp:124] Setting up ip1
I0501 02:40:44.067900 16664 net.cpp:131] Top shape: 1000 40 (40000)
I0501 02:40:44.067903 16664 net.cpp:139] Memory required for data: 86188000
I0501 02:40:44.067912 16664 layer_factory.hpp:77] Creating layer relu1
I0501 02:40:44.067919 16664 net.cpp:86] Creating Layer relu1
I0501 02:40:44.067921 16664 net.cpp:408] relu1 <- ip1
I0501 02:40:44.067925 16664 net.cpp:369] relu1 -> ip1 (in-place)
I0501 02:40:44.068090 16664 net.cpp:124] Setting up relu1
I0501 02:40:44.068100 16664 net.cpp:131] Top shape: 1000 40 (40000)
I0501 02:40:44.068104 16664 net.cpp:139] Memory required for data: 86348000
I0501 02:40:44.068106 16664 layer_factory.hpp:77] Creating layer ip2
I0501 02:40:44.068114 16664 net.cpp:86] Creating Layer ip2
I0501 02:40:44.068117 16664 net.cpp:408] ip2 <- ip1
I0501 02:40:44.068126 16664 net.cpp:382] ip2 -> ip2
I0501 02:40:44.068413 16664 net.cpp:124] Setting up ip2
I0501 02:40:44.068420 16664 net.cpp:131] Top shape: 1000 160 (160000)
I0501 02:40:44.068430 16664 net.cpp:139] Memory required for data: 86988000
I0501 02:40:44.068439 16664 layer_factory.hpp:77] Creating layer relu2
I0501 02:40:44.068445 16664 net.cpp:86] Creating Layer relu2
I0501 02:40:44.068449 16664 net.cpp:408] relu2 <- ip2
I0501 02:40:44.068459 16664 net.cpp:369] relu2 -> ip2 (in-place)
I0501 02:40:44.068627 16664 net.cpp:124] Setting up relu2
I0501 02:40:44.068637 16664 net.cpp:131] Top shape: 1000 160 (160000)
I0501 02:40:44.068640 16664 net.cpp:139] Memory required for data: 87628000
I0501 02:40:44.068645 16664 layer_factory.hpp:77] Creating layer ip3
I0501 02:40:44.068650 16664 net.cpp:86] Creating Layer ip3
I0501 02:40:44.068655 16664 net.cpp:408] ip3 <- ip2
I0501 02:40:44.068660 16664 net.cpp:382] ip3 -> ip3
I0501 02:40:44.068819 16664 net.cpp:124] Setting up ip3
I0501 02:40:44.068826 16664 net.cpp:131] Top shape: 1000 10 (10000)
I0501 02:40:44.068830 16664 net.cpp:139] Memory required for data: 87668000
I0501 02:40:44.068845 16664 layer_factory.hpp:77] Creating layer ip3_ip3_0_split
I0501 02:40:44.068851 16664 net.cpp:86] Creating Layer ip3_ip3_0_split
I0501 02:40:44.068856 16664 net.cpp:408] ip3_ip3_0_split <- ip3
I0501 02:40:44.068859 16664 net.cpp:382] ip3_ip3_0_split -> ip3_ip3_0_split_0
I0501 02:40:44.068864 16664 net.cpp:382] ip3_ip3_0_split -> ip3_ip3_0_split_1
I0501 02:40:44.068900 16664 net.cpp:124] Setting up ip3_ip3_0_split
I0501 02:40:44.068907 16664 net.cpp:131] Top shape: 1000 10 (10000)
I0501 02:40:44.068912 16664 net.cpp:131] Top shape: 1000 10 (10000)
I0501 02:40:44.068914 16664 net.cpp:139] Memory required for data: 87748000
I0501 02:40:44.068917 16664 layer_factory.hpp:77] Creating layer accuracy
I0501 02:40:44.068923 16664 net.cpp:86] Creating Layer accuracy
I0501 02:40:44.068927 16664 net.cpp:408] accuracy <- ip3_ip3_0_split_0
I0501 02:40:44.068930 16664 net.cpp:408] accuracy <- label_cifar_1_split_0
I0501 02:40:44.068936 16664 net.cpp:382] accuracy -> accuracy
…
