…
I0501 07:44:54.808786  7020 net.cpp:296] The NetState phase (0) differed from the phase (1) specified by a rule in layer cifar
I0501 07:44:54.808804  7020 net.cpp:296] The NetState phase (0) differed from the phase (1) specified by a rule in layer accuracy
I0501 07:44:54.808903  7020 net.cpp:53] Initializing net from parameters: 
name: "CIFAR"
state {
  phase: TRAIN
  level: 0
  stage: ""
}
layer {
  name: "cifar"
  type: "Data"
  top: "data"
  top: "label"
  include {
    phase: TRAIN
  }
  transform_param {
    mean_file: "examples/cifar10/mean.binaryproto"
  }
  data_param {
    source: "examples/cifar10/cifar10_train_lmdb"
    batch_size: 111
    backend: LMDB
  }
}
layer {
  name: "conv0"
  type: "Convolution"
  bottom: "data"
  top: "conv0"
  param {
    lr_mult: 1
  }
  param {
    lr_mult: 2
  }
  convolution_param {
    num_output: 16
    pad: 2
    kernel_size: 3
    stride: 1
    weight_filler {
      type: "gaussian"
      std: 0.01
    }
    bias_filler {
      type: "constant"
    }
  }
}
layer {
  name: "Sigmoid0"
  type: "Sigmoid"
  bottom: "conv0"
  top: "Sigmoid0"
}
layer {
  name: "pool0"
  type: "Pooling"
  bottom: "Sigmoid0"
  top: "pool0"
  pooling_param {
    pool: AVE
    kernel_size: 3
    stride: 2
  }
}
layer {
  name: "ip1"
  type: "InnerProduct"
  bottom: "pool0"
  top: "ip1"
  param {
    lr_mult: 1
  }
  param {
    lr_mult: 2
  }
  inner_product_param {
    num_output: 160
    weight_filler {
      type: "gaussian"
      std: 0.01
    }
    bias_filler {
      type: "constant"
    }
  }
}
layer {
  name: "relu1"
  type: "ReLU"
  bottom: "ip1"
  top: "ip1"
}
layer {
  name: "ip2"
  type: "InnerProduct"
  bottom: "ip1"
  top: "ip2"
  param {
    lr_mult: 1
  }
  param {
    lr_mult: 2
  }
  inner_product_param {
    num_output: 20
    weight_filler {
      type: "gaussian"
      std: 0.01
    }
    bias_filler {
      type: "constant"
    }
  }
}
layer {
  name: "relu2"
  type: "ReLU"
  bottom: "ip2"
  top: "ip2"
}
layer {
  name: "ip3"
  type: "InnerProduct"
  bottom: "ip2"
  top: "ip3"
  param {
    lr_mult: 1
  }
  param {
    lr_mult: 2
  }
  inner_product_param {
    num_output: 10
    weight_filler {
      type: "gaussian"
      std: 0.01
    }
    bias_filler {
      type: "constant"
    }
  }
}
layer {
  name: "loss"
  type: "SoftmaxWithLoss"
  bottom: "ip3"
  bottom: "label"
  top: "loss"
}
I0501 07:44:54.808980  7020 layer_factory.hpp:77] Creating layer cifar
I0501 07:44:54.809080  7020 db_lmdb.cpp:35] Opened lmdb examples/cifar10/cifar10_train_lmdb
I0501 07:44:54.809106  7020 net.cpp:86] Creating Layer cifar
I0501 07:44:54.809113  7020 net.cpp:382] cifar -> data
I0501 07:44:54.809139  7020 net.cpp:382] cifar -> label
I0501 07:44:54.809150  7020 data_transformer.cpp:25] Loading mean file from: examples/cifar10/mean.binaryproto
I0501 07:44:54.811276  7020 data_layer.cpp:45] output data size: 111,3,32,32
I0501 07:44:54.819164  7020 net.cpp:124] Setting up cifar
I0501 07:44:54.819185  7020 net.cpp:131] Top shape: 111 3 32 32 (340992)
I0501 07:44:54.819190  7020 net.cpp:131] Top shape: 111 (111)
I0501 07:44:54.819195  7020 net.cpp:139] Memory required for data: 1364412
I0501 07:44:54.819202  7020 layer_factory.hpp:77] Creating layer conv0
I0501 07:44:54.819222  7020 net.cpp:86] Creating Layer conv0
I0501 07:44:54.819228  7020 net.cpp:408] conv0 <- data
I0501 07:44:54.819241  7020 net.cpp:382] conv0 -> conv0
I0501 07:44:55.101923  7020 net.cpp:124] Setting up conv0
I0501 07:44:55.101969  7020 net.cpp:131] Top shape: 111 16 34 34 (2053056)
I0501 07:44:55.101974  7020 net.cpp:139] Memory required for data: 9576636
I0501 07:44:55.101987  7020 layer_factory.hpp:77] Creating layer Sigmoid0
I0501 07:44:55.101999  7020 net.cpp:86] Creating Layer Sigmoid0
I0501 07:44:55.102004  7020 net.cpp:408] Sigmoid0 <- conv0
I0501 07:44:55.102008  7020 net.cpp:382] Sigmoid0 -> Sigmoid0
I0501 07:44:55.102212  7020 net.cpp:124] Setting up Sigmoid0
I0501 07:44:55.102222  7020 net.cpp:131] Top shape: 111 16 34 34 (2053056)
I0501 07:44:55.102226  7020 net.cpp:139] Memory required for data: 17788860
I0501 07:44:55.102228  7020 layer_factory.hpp:77] Creating layer pool0
I0501 07:44:55.102236  7020 net.cpp:86] Creating Layer pool0
I0501 07:44:55.102238  7020 net.cpp:408] pool0 <- Sigmoid0
I0501 07:44:55.102243  7020 net.cpp:382] pool0 -> pool0
I0501 07:44:55.102977  7020 net.cpp:124] Setting up pool0
I0501 07:44:55.102989  7020 net.cpp:131] Top shape: 111 16 17 17 (513264)
I0501 07:44:55.102993  7020 net.cpp:139] Memory required for data: 19841916
I0501 07:44:55.102995  7020 layer_factory.hpp:77] Creating layer ip1
I0501 07:44:55.103004  7020 net.cpp:86] Creating Layer ip1
I0501 07:44:55.103008  7020 net.cpp:408] ip1 <- pool0
I0501 07:44:55.103013  7020 net.cpp:382] ip1 -> ip1
I0501 07:44:55.123119  7020 net.cpp:124] Setting up ip1
I0501 07:44:55.123131  7020 net.cpp:131] Top shape: 111 160 (17760)
I0501 07:44:55.123150  7020 net.cpp:139] Memory required for data: 19912956
I0501 07:44:55.123172  7020 layer_factory.hpp:77] Creating layer relu1
I0501 07:44:55.123178  7020 net.cpp:86] Creating Layer relu1
I0501 07:44:55.123183  7020 net.cpp:408] relu1 <- ip1
I0501 07:44:55.123186  7020 net.cpp:369] relu1 -> ip1 (in-place)
I0501 07:44:55.123348  7020 net.cpp:124] Setting up relu1
I0501 07:44:55.123358  7020 net.cpp:131] Top shape: 111 160 (17760)
I0501 07:44:55.123360  7020 net.cpp:139] Memory required for data: 19983996
I0501 07:44:55.123363  7020 layer_factory.hpp:77] Creating layer ip2
I0501 07:44:55.123370  7020 net.cpp:86] Creating Layer ip2
I0501 07:44:55.123373  7020 net.cpp:408] ip2 <- ip1
I0501 07:44:55.123378  7020 net.cpp:382] ip2 -> ip2
I0501 07:44:55.123550  7020 net.cpp:124] Setting up ip2
I0501 07:44:55.123558  7020 net.cpp:131] Top shape: 111 20 (2220)
I0501 07:44:55.123560  7020 net.cpp:139] Memory required for data: 19992876
I0501 07:44:55.123567  7020 layer_factory.hpp:77] Creating layer relu2
I0501 07:44:55.123571  7020 net.cpp:86] Creating Layer relu2
I0501 07:44:55.123574  7020 net.cpp:408] relu2 <- ip2
I0501 07:44:55.123579  7020 net.cpp:369] relu2 -> ip2 (in-place)
I0501 07:44:55.123723  7020 net.cpp:124] Setting up relu2
I0501 07:44:55.123731  7020 net.cpp:131] Top shape: 111 20 (2220)
I0501 07:44:55.123734  7020 net.cpp:139] Memory required for data: 20001756
I0501 07:44:55.123738  7020 layer_factory.hpp:77] Creating layer ip3
I0501 07:44:55.123744  7020 net.cpp:86] Creating Layer ip3
I0501 07:44:55.123747  7020 net.cpp:408] ip3 <- ip2
I0501 07:44:55.123752  7020 net.cpp:382] ip3 -> ip3
I0501 07:44:55.123843  7020 net.cpp:124] Setting up ip3
I0501 07:44:55.123849  7020 net.cpp:131] Top shape: 111 10 (1110)
I0501 07:44:55.123852  7020 net.cpp:139] Memory required for data: 20006196
I0501 07:44:55.123857  7020 layer_factory.hpp:77] Creating layer loss
I0501 07:44:55.123862  7020 net.cpp:86] Creating Layer loss
I0501 07:44:55.123865  7020 net.cpp:408] loss <- ip3
I0501 07:44:55.123868  7020 net.cpp:408] loss <- label
I0501 07:44:55.123873  7020 net.cpp:382] loss -> loss
I0501 07:44:55.123888  7020 layer_factory.hpp:77] Creating layer loss
…
I0501 07:44:55.124488  7020 solver.cpp:173] Creating test net (#0) specified by net file: ECE595/cifar/train_test/var_everything/cifar_train_test_491.prototxt
I0501 07:44:55.124513  7020 net.cpp:296] The NetState phase (1) differed from the phase (0) specified by a rule in layer cifar
I0501 07:44:55.124596  7020 net.cpp:53] Initializing net from parameters: 
name: "CIFAR"
state {
  phase: TEST
}
layer {
  name: "cifar"
  type: "Data"
  top: "data"
  top: "label"
  include {
    phase: TEST
  }
  transform_param {
    mean_file: "examples/cifar10/mean.binaryproto"
  }
  data_param {
    source: "examples/cifar10/cifar10_test_lmdb"
    batch_size: 1000
    backend: LMDB
  }
}
layer {
  name: "conv0"
  type: "Convolution"
  bottom: "data"
  top: "conv0"
  param {
    lr_mult: 1
  }
  param {
    lr_mult: 2
  }
  convolution_param {
    num_output: 16
    pad: 2
    kernel_size: 3
    stride: 1
    weight_filler {
      type: "gaussian"
      std: 0.01
    }
    bias_filler {
      type: "constant"
    }
  }
}
layer {
  name: "Sigmoid0"
  type: "Sigmoid"
  bottom: "conv0"
  top: "Sigmoid0"
}
layer {
  name: "pool0"
  type: "Pooling"
  bottom: "Sigmoid0"
  top: "pool0"
  pooling_param {
    pool: AVE
    kernel_size: 3
    stride: 2
  }
}
layer {
  name: "ip1"
  type: "InnerProduct"
  bottom: "pool0"
  top: "ip1"
  param {
    lr_mult: 1
  }
  param {
    lr_mult: 2
  }
  inner_product_param {
    num_output: 160
    weight_filler {
      type: "gaussian"
      std: 0.01
    }
    bias_filler {
      type: "constant"
    }
  }
}
layer {
  name: "relu1"
  type: "ReLU"
  bottom: "ip1"
  top: "ip1"
}
layer {
  name: "ip2"
  type: "InnerProduct"
  bottom: "ip1"
  top: "ip2"
  param {
    lr_mult: 1
  }
  param {
    lr_mult: 2
  }
  inner_product_param {
    num_output: 20
    weight_filler {
      type: "gaussian"
      std: 0.01
    }
    bias_filler {
      type: "constant"
    }
  }
}
layer {
  name: "relu2"
  type: "ReLU"
  bottom: "ip2"
  top: "ip2"
}
layer {
  name: "ip3"
  type: "InnerProduct"
  bottom: "ip2"
  top: "ip3"
  param {
    lr_mult: 1
  }
  param {
    lr_mult: 2
  }
  inner_product_param {
    num_output: 10
    weight_filler {
      type: "gaussian"
      std: 0.01
    }
    bias_filler {
      type: "constant"
    }
  }
}
layer {
  name: "accuracy"
  type: "Accuracy"
  bottom: "ip3"
  bottom: "label"
  top: "accuracy"
  include {
    phase: TEST
  }
}
layer {
  name: "loss"
  type: "SoftmaxWithLoss"
  bottom: "ip3"
  bottom: "label"
  top: "loss"
}
I0501 07:44:55.124657  7020 layer_factory.hpp:77] Creating layer cifar
I0501 07:44:55.124704  7020 db_lmdb.cpp:35] Opened lmdb examples/cifar10/cifar10_test_lmdb
I0501 07:44:55.124716  7020 net.cpp:86] Creating Layer cifar
I0501 07:44:55.124721  7020 net.cpp:382] cifar -> data
I0501 07:44:55.124728  7020 net.cpp:382] cifar -> label
I0501 07:44:55.124734  7020 data_transformer.cpp:25] Loading mean file from: examples/cifar10/mean.binaryproto
I0501 07:44:55.124896  7020 data_layer.cpp:45] output data size: 1000,3,32,32
I0501 07:44:55.146939  7020 net.cpp:124] Setting up cifar
I0501 07:44:55.146980  7020 net.cpp:131] Top shape: 1000 3 32 32 (3072000)
I0501 07:44:55.146986  7020 net.cpp:131] Top shape: 1000 (1000)
I0501 07:44:55.146991  7020 net.cpp:139] Memory required for data: 12292000
I0501 07:44:55.146996  7020 layer_factory.hpp:77] Creating layer label_cifar_1_split
I0501 07:44:55.147008  7020 net.cpp:86] Creating Layer label_cifar_1_split
I0501 07:44:55.147045  7020 net.cpp:408] label_cifar_1_split <- label
I0501 07:44:55.147053  7020 net.cpp:382] label_cifar_1_split -> label_cifar_1_split_0
I0501 07:44:55.147061  7020 net.cpp:382] label_cifar_1_split -> label_cifar_1_split_1
I0501 07:44:55.147181  7020 net.cpp:124] Setting up label_cifar_1_split
I0501 07:44:55.147188  7020 net.cpp:131] Top shape: 1000 (1000)
I0501 07:44:55.147192  7020 net.cpp:131] Top shape: 1000 (1000)
I0501 07:44:55.147195  7020 net.cpp:139] Memory required for data: 12300000
I0501 07:44:55.147198  7020 layer_factory.hpp:77] Creating layer conv0
I0501 07:44:55.147225  7020 net.cpp:86] Creating Layer conv0
I0501 07:44:55.147228  7020 net.cpp:408] conv0 <- data
I0501 07:44:55.147234  7020 net.cpp:382] conv0 -> conv0
I0501 07:44:55.148651  7020 net.cpp:124] Setting up conv0
I0501 07:44:55.148680  7020 net.cpp:131] Top shape: 1000 16 34 34 (18496000)
I0501 07:44:55.148684  7020 net.cpp:139] Memory required for data: 86284000
I0501 07:44:55.148694  7020 layer_factory.hpp:77] Creating layer Sigmoid0
I0501 07:44:55.148701  7020 net.cpp:86] Creating Layer Sigmoid0
I0501 07:44:55.148705  7020 net.cpp:408] Sigmoid0 <- conv0
I0501 07:44:55.148710  7020 net.cpp:382] Sigmoid0 -> Sigmoid0
I0501 07:44:55.149643  7020 net.cpp:124] Setting up Sigmoid0
I0501 07:44:55.149672  7020 net.cpp:131] Top shape: 1000 16 34 34 (18496000)
I0501 07:44:55.149675  7020 net.cpp:139] Memory required for data: 160268000
I0501 07:44:55.149678  7020 layer_factory.hpp:77] Creating layer pool0
I0501 07:44:55.149688  7020 net.cpp:86] Creating Layer pool0
I0501 07:44:55.149690  7020 net.cpp:408] pool0 <- Sigmoid0
I0501 07:44:55.149695  7020 net.cpp:382] pool0 -> pool0
I0501 07:44:55.150853  7020 net.cpp:124] Setting up pool0
I0501 07:44:55.150863  7020 net.cpp:131] Top shape: 1000 16 17 17 (4624000)
I0501 07:44:55.150882  7020 net.cpp:139] Memory required for data: 178764000
I0501 07:44:55.150885  7020 layer_factory.hpp:77] Creating layer ip1
I0501 07:44:55.150893  7020 net.cpp:86] Creating Layer ip1
I0501 07:44:55.150897  7020 net.cpp:408] ip1 <- pool0
I0501 07:44:55.150902  7020 net.cpp:382] ip1 -> ip1
I0501 07:44:55.171654  7020 net.cpp:124] Setting up ip1
I0501 07:44:55.171669  7020 net.cpp:131] Top shape: 1000 160 (160000)
I0501 07:44:55.171691  7020 net.cpp:139] Memory required for data: 179404000
I0501 07:44:55.171701  7020 layer_factory.hpp:77] Creating layer relu1
I0501 07:44:55.171707  7020 net.cpp:86] Creating Layer relu1
I0501 07:44:55.171711  7020 net.cpp:408] relu1 <- ip1
I0501 07:44:55.171716  7020 net.cpp:369] relu1 -> ip1 (in-place)
I0501 07:44:55.171900  7020 net.cpp:124] Setting up relu1
I0501 07:44:55.171908  7020 net.cpp:131] Top shape: 1000 160 (160000)
I0501 07:44:55.171911  7020 net.cpp:139] Memory required for data: 180044000
I0501 07:44:55.171914  7020 layer_factory.hpp:77] Creating layer ip2
I0501 07:44:55.171921  7020 net.cpp:86] Creating Layer ip2
I0501 07:44:55.171926  7020 net.cpp:408] ip2 <- ip1
I0501 07:44:55.171931  7020 net.cpp:382] ip2 -> ip2
I0501 07:44:55.172143  7020 net.cpp:124] Setting up ip2
I0501 07:44:55.172152  7020 net.cpp:131] Top shape: 1000 20 (20000)
I0501 07:44:55.172154  7020 net.cpp:139] Memory required for data: 180124000
I0501 07:44:55.172161  7020 layer_factory.hpp:77] Creating layer relu2
I0501 07:44:55.172168  7020 net.cpp:86] Creating Layer relu2
I0501 07:44:55.172171  7020 net.cpp:408] relu2 <- ip2
I0501 07:44:55.172176  7020 net.cpp:369] relu2 -> ip2 (in-place)
I0501 07:44:55.172335  7020 net.cpp:124] Setting up relu2
I0501 07:44:55.172343  7020 net.cpp:131] Top shape: 1000 20 (20000)
I0501 07:44:55.172348  7020 net.cpp:139] Memory required for data: 180204000
I0501 07:44:55.172351  7020 layer_factory.hpp:77] Creating layer ip3
I0501 07:44:55.172358  7020 net.cpp:86] Creating Layer ip3
I0501 07:44:55.172361  7020 net.cpp:408] ip3 <- ip2
I0501 07:44:55.172366  7020 net.cpp:382] ip3 -> ip3
I0501 07:44:55.172483  7020 net.cpp:124] Setting up ip3
I0501 07:44:55.172490  7020 net.cpp:131] Top shape: 1000 10 (10000)
I0501 07:44:55.172511  7020 net.cpp:139] Memory required for data: 180244000
I0501 07:44:55.172518  7020 layer_factory.hpp:77] Creating layer ip3_ip3_0_split
I0501 07:44:55.172523  7020 net.cpp:86] Creating Layer ip3_ip3_0_split
I0501 07:44:55.172525  7020 net.cpp:408] ip3_ip3_0_split <- ip3
I0501 07:44:55.172530  7020 net.cpp:382] ip3_ip3_0_split -> ip3_ip3_0_split_0
I0501 07:44:55.172536  7020 net.cpp:382] ip3_ip3_0_split -> ip3_ip3_0_split_1
I0501 07:44:55.172569  7020 net.cpp:124] Setting up ip3_ip3_0_split
I0501 07:44:55.172574  7020 net.cpp:131] Top shape: 1000 10 (10000)
I0501 07:44:55.172577  7020 net.cpp:131] Top shape: 1000 10 (10000)
I0501 07:44:55.172580  7020 net.cpp:139] Memory required for data: 180324000
I0501 07:44:55.172583  7020 layer_factory.hpp:77] Creating layer accuracy
I0501 07:44:55.172590  7020 net.cpp:86] Creating Layer accuracy
I0501 07:44:55.172593  7020 net.cpp:408] accuracy <- ip3_ip3_0_split_0
I0501 07:44:55.172597  7020 net.cpp:408] accuracy <- label_cifar_1_split_0
I0501 07:44:55.172601  7020 net.cpp:382] accuracy -> accuracy
…
