…
I0501 05:15:00.786437 28329 net.cpp:296] The NetState phase (0) differed from the phase (1) specified by a rule in layer cifar
I0501 05:15:00.786455 28329 net.cpp:296] The NetState phase (0) differed from the phase (1) specified by a rule in layer accuracy
I0501 05:15:00.786561 28329 net.cpp:53] Initializing net from parameters: 
name: "CIFAR"
state {
  phase: TRAIN
  level: 0
  stage: ""
}
layer {
  name: "cifar"
  type: "Data"
  top: "data"
  top: "label"
  include {
    phase: TRAIN
  }
  transform_param {
    mean_file: "examples/cifar10/mean.binaryproto"
  }
  data_param {
    source: "examples/cifar10/cifar10_train_lmdb"
    batch_size: 111
    backend: LMDB
  }
}
layer {
  name: "conv0"
  type: "Convolution"
  bottom: "data"
  top: "conv0"
  param {
    lr_mult: 1
  }
  param {
    lr_mult: 2
  }
  convolution_param {
    num_output: 8
    pad: 2
    kernel_size: 5
    stride: 1
    weight_filler {
      type: "gaussian"
      std: 0.01
    }
    bias_filler {
      type: "constant"
    }
  }
}
layer {
  name: "Sigmoid0"
  type: "Sigmoid"
  bottom: "conv0"
  top: "Sigmoid0"
}
layer {
  name: "pool0"
  type: "Pooling"
  bottom: "Sigmoid0"
  top: "pool0"
  pooling_param {
    pool: AVE
    kernel_size: 3
    stride: 2
  }
}
layer {
  name: "ip1"
  type: "InnerProduct"
  bottom: "pool0"
  top: "ip1"
  param {
    lr_mult: 1
  }
  param {
    lr_mult: 2
  }
  inner_product_param {
    num_output: 40
    weight_filler {
      type: "gaussian"
      std: 0.01
    }
    bias_filler {
      type: "constant"
    }
  }
}
layer {
  name: "relu1"
  type: "ReLU"
  bottom: "ip1"
  top: "ip1"
}
layer {
  name: "ip2"
  type: "InnerProduct"
  bottom: "ip1"
  top: "ip2"
  param {
    lr_mult: 1
  }
  param {
    lr_mult: 2
  }
  inner_product_param {
    num_output: 160
    weight_filler {
      type: "gaussian"
      std: 0.01
    }
    bias_filler {
      type: "constant"
    }
  }
}
layer {
  name: "relu2"
  type: "ReLU"
  bottom: "ip2"
  top: "ip2"
}
layer {
  name: "ip3"
  type: "InnerProduct"
  bottom: "ip2"
  top: "ip3"
  param {
    lr_mult: 1
  }
  param {
    lr_mult: 2
  }
  inner_product_param {
    num_output: 40
    weight_filler {
      type: "gaussian"
      std: 0.01
    }
    bias_filler {
      type: "constant"
    }
  }
}
layer {
  name: "relu3"
  type: "ReLU"
  bottom: "ip3"
  top: "ip3"
}
layer {
  name: "ip4"
  type: "InnerProduct"
  bottom: "ip3"
  top: "ip4"
  param {
    lr_mult: 1
  }
  param {
    lr_mult: 2
  }
  inner_product_param {
    num_output: 10
    weight_filler {
      type: "gaussian"
      std: 0.01
    }
    bias_filler {
      type: "constant"
    }
  }
}
layer {
  name: "loss"
  type: "SoftmaxWithLoss"
  bottom: "ip4"
  bottom: "label"
  top: "loss"
}
I0501 05:15:00.786641 28329 layer_factory.hpp:77] Creating layer cifar
I0501 05:15:00.786746 28329 db_lmdb.cpp:35] Opened lmdb examples/cifar10/cifar10_train_lmdb
I0501 05:15:00.786772 28329 net.cpp:86] Creating Layer cifar
I0501 05:15:00.786782 28329 net.cpp:382] cifar -> data
I0501 05:15:00.786803 28329 net.cpp:382] cifar -> label
I0501 05:15:00.786815 28329 data_transformer.cpp:25] Loading mean file from: examples/cifar10/mean.binaryproto
I0501 05:15:00.788957 28329 data_layer.cpp:45] output data size: 111,3,32,32
I0501 05:15:00.796828 28329 net.cpp:124] Setting up cifar
I0501 05:15:00.796847 28329 net.cpp:131] Top shape: 111 3 32 32 (340992)
I0501 05:15:00.796854 28329 net.cpp:131] Top shape: 111 (111)
I0501 05:15:00.796857 28329 net.cpp:139] Memory required for data: 1364412
I0501 05:15:00.796881 28329 layer_factory.hpp:77] Creating layer conv0
I0501 05:15:00.796900 28329 net.cpp:86] Creating Layer conv0
I0501 05:15:00.796906 28329 net.cpp:408] conv0 <- data
I0501 05:15:00.796921 28329 net.cpp:382] conv0 -> conv0
I0501 05:15:01.091302 28329 net.cpp:124] Setting up conv0
I0501 05:15:01.091342 28329 net.cpp:131] Top shape: 111 8 32 32 (909312)
I0501 05:15:01.091348 28329 net.cpp:139] Memory required for data: 5001660
I0501 05:15:01.091367 28329 layer_factory.hpp:77] Creating layer Sigmoid0
I0501 05:15:01.091380 28329 net.cpp:86] Creating Layer Sigmoid0
I0501 05:15:01.091385 28329 net.cpp:408] Sigmoid0 <- conv0
I0501 05:15:01.091401 28329 net.cpp:382] Sigmoid0 -> Sigmoid0
I0501 05:15:01.091603 28329 net.cpp:124] Setting up Sigmoid0
I0501 05:15:01.091614 28329 net.cpp:131] Top shape: 111 8 32 32 (909312)
I0501 05:15:01.091617 28329 net.cpp:139] Memory required for data: 8638908
I0501 05:15:01.091621 28329 layer_factory.hpp:77] Creating layer pool0
I0501 05:15:01.091629 28329 net.cpp:86] Creating Layer pool0
I0501 05:15:01.091634 28329 net.cpp:408] pool0 <- Sigmoid0
I0501 05:15:01.091639 28329 net.cpp:382] pool0 -> pool0
I0501 05:15:01.092516 28329 net.cpp:124] Setting up pool0
I0501 05:15:01.092532 28329 net.cpp:131] Top shape: 111 8 16 16 (227328)
I0501 05:15:01.092537 28329 net.cpp:139] Memory required for data: 9548220
I0501 05:15:01.092547 28329 layer_factory.hpp:77] Creating layer ip1
I0501 05:15:01.092558 28329 net.cpp:86] Creating Layer ip1
I0501 05:15:01.092562 28329 net.cpp:408] ip1 <- pool0
I0501 05:15:01.092569 28329 net.cpp:382] ip1 -> ip1
I0501 05:15:01.095417 28329 net.cpp:124] Setting up ip1
I0501 05:15:01.095428 28329 net.cpp:131] Top shape: 111 40 (4440)
I0501 05:15:01.095432 28329 net.cpp:139] Memory required for data: 9565980
I0501 05:15:01.095448 28329 layer_factory.hpp:77] Creating layer relu1
I0501 05:15:01.095454 28329 net.cpp:86] Creating Layer relu1
I0501 05:15:01.095458 28329 net.cpp:408] relu1 <- ip1
I0501 05:15:01.095463 28329 net.cpp:369] relu1 -> ip1 (in-place)
I0501 05:15:01.095645 28329 net.cpp:124] Setting up relu1
I0501 05:15:01.095655 28329 net.cpp:131] Top shape: 111 40 (4440)
I0501 05:15:01.095659 28329 net.cpp:139] Memory required for data: 9583740
I0501 05:15:01.095662 28329 layer_factory.hpp:77] Creating layer ip2
I0501 05:15:01.095670 28329 net.cpp:86] Creating Layer ip2
I0501 05:15:01.095674 28329 net.cpp:408] ip2 <- ip1
I0501 05:15:01.095679 28329 net.cpp:382] ip2 -> ip2
I0501 05:15:01.097035 28329 net.cpp:124] Setting up ip2
I0501 05:15:01.097049 28329 net.cpp:131] Top shape: 111 160 (17760)
I0501 05:15:01.097054 28329 net.cpp:139] Memory required for data: 9654780
I0501 05:15:01.097064 28329 layer_factory.hpp:77] Creating layer relu2
I0501 05:15:01.097082 28329 net.cpp:86] Creating Layer relu2
I0501 05:15:01.097086 28329 net.cpp:408] relu2 <- ip2
I0501 05:15:01.097093 28329 net.cpp:369] relu2 -> ip2 (in-place)
I0501 05:15:01.097287 28329 net.cpp:124] Setting up relu2
I0501 05:15:01.097297 28329 net.cpp:131] Top shape: 111 160 (17760)
I0501 05:15:01.097301 28329 net.cpp:139] Memory required for data: 9725820
I0501 05:15:01.097306 28329 layer_factory.hpp:77] Creating layer ip3
I0501 05:15:01.097314 28329 net.cpp:86] Creating Layer ip3
I0501 05:15:01.097318 28329 net.cpp:408] ip3 <- ip2
I0501 05:15:01.097324 28329 net.cpp:382] ip3 -> ip3
I0501 05:15:01.097635 28329 net.cpp:124] Setting up ip3
I0501 05:15:01.097645 28329 net.cpp:131] Top shape: 111 40 (4440)
I0501 05:15:01.097647 28329 net.cpp:139] Memory required for data: 9743580
I0501 05:15:01.097654 28329 layer_factory.hpp:77] Creating layer relu3
I0501 05:15:01.097661 28329 net.cpp:86] Creating Layer relu3
I0501 05:15:01.097663 28329 net.cpp:408] relu3 <- ip3
I0501 05:15:01.097668 28329 net.cpp:369] relu3 -> ip3 (in-place)
I0501 05:15:01.097853 28329 net.cpp:124] Setting up relu3
I0501 05:15:01.097862 28329 net.cpp:131] Top shape: 111 40 (4440)
I0501 05:15:01.097867 28329 net.cpp:139] Memory required for data: 9761340
I0501 05:15:01.097869 28329 layer_factory.hpp:77] Creating layer ip4
I0501 05:15:01.097894 28329 net.cpp:86] Creating Layer ip4
I0501 05:15:01.097898 28329 net.cpp:408] ip4 <- ip3
I0501 05:15:01.097905 28329 net.cpp:382] ip4 -> ip4
I0501 05:15:01.098024 28329 net.cpp:124] Setting up ip4
I0501 05:15:01.098033 28329 net.cpp:131] Top shape: 111 10 (1110)
I0501 05:15:01.098037 28329 net.cpp:139] Memory required for data: 9765780
I0501 05:15:01.098047 28329 layer_factory.hpp:77] Creating layer loss
I0501 05:15:01.098058 28329 net.cpp:86] Creating Layer loss
I0501 05:15:01.098062 28329 net.cpp:408] loss <- ip4
I0501 05:15:01.098067 28329 net.cpp:408] loss <- label
I0501 05:15:01.098073 28329 net.cpp:382] loss -> loss
I0501 05:15:01.098089 28329 layer_factory.hpp:77] Creating layer loss
…
I0501 05:15:01.099552 28329 solver.cpp:173] Creating test net (#0) specified by net file: ECE595/cifar/train_test/var_everything/cifar_train_test_412.prototxt
I0501 05:15:01.099593 28329 net.cpp:296] The NetState phase (1) differed from the phase (0) specified by a rule in layer cifar
I0501 05:15:01.099732 28329 net.cpp:53] Initializing net from parameters: 
name: "CIFAR"
state {
  phase: TEST
}
layer {
  name: "cifar"
  type: "Data"
  top: "data"
  top: "label"
  include {
    phase: TEST
  }
  transform_param {
    mean_file: "examples/cifar10/mean.binaryproto"
  }
  data_param {
    source: "examples/cifar10/cifar10_test_lmdb"
    batch_size: 1000
    backend: LMDB
  }
}
layer {
  name: "conv0"
  type: "Convolution"
  bottom: "data"
  top: "conv0"
  param {
    lr_mult: 1
  }
  param {
    lr_mult: 2
  }
  convolution_param {
    num_output: 8
    pad: 2
    kernel_size: 5
    stride: 1
    weight_filler {
      type: "gaussian"
      std: 0.01
    }
    bias_filler {
      type: "constant"
    }
  }
}
layer {
  name: "Sigmoid0"
  type: "Sigmoid"
  bottom: "conv0"
  top: "Sigmoid0"
}
layer {
  name: "pool0"
  type: "Pooling"
  bottom: "Sigmoid0"
  top: "pool0"
  pooling_param {
    pool: AVE
    kernel_size: 3
    stride: 2
  }
}
layer {
  name: "ip1"
  type: "InnerProduct"
  bottom: "pool0"
  top: "ip1"
  param {
    lr_mult: 1
  }
  param {
    lr_mult: 2
  }
  inner_product_param {
    num_output: 40
    weight_filler {
      type: "gaussian"
      std: 0.01
    }
    bias_filler {
      type: "constant"
    }
  }
}
layer {
  name: "relu1"
  type: "ReLU"
  bottom: "ip1"
  top: "ip1"
}
layer {
  name: "ip2"
  type: "InnerProduct"
  bottom: "ip1"
  top: "ip2"
  param {
    lr_mult: 1
  }
  param {
    lr_mult: 2
  }
  inner_product_param {
    num_output: 160
    weight_filler {
      type: "gaussian"
      std: 0.01
    }
    bias_filler {
      type: "constant"
    }
  }
}
layer {
  name: "relu2"
  type: "ReLU"
  bottom: "ip2"
  top: "ip2"
}
layer {
  name: "ip3"
  type: "InnerProduct"
  bottom: "ip2"
  top: "ip3"
  param {
    lr_mult: 1
  }
  param {
    lr_mult: 2
  }
  inner_product_param {
    num_output: 40
    weight_filler {
      type: "gaussian"
      std: 0.01
    }
    bias_filler {
      type: "constant"
    }
  }
}
layer {
  name: "relu3"
  type: "ReLU"
  bottom: "ip3"
  top: "ip3"
}
layer {
  name: "ip4"
  type: "InnerProduct"
  bottom: "ip3"
  top: "ip4"
  param {
    lr_mult: 1
  }
  param {
    lr_mult: 2
  }
  inner_product_param {
    num_output: 10
    weight_filler {
      type: "gaussian"
      std: 0.01
    }
    bias_filler {
      type: "constant"
    }
  }
}
layer {
  name: "accuracy"
  type: "Accuracy"
  bottom: "ip4"
  bottom: "label"
  top: "accuracy"
  include {
    phase: TEST
  }
}
layer {
  name: "loss"
  type: "SoftmaxWithLoss"
  bottom: "ip4"
  bottom: "label"
  top: "loss"
}
I0501 05:15:01.099833 28329 layer_factory.hpp:77] Creating layer cifar
I0501 05:15:01.099886 28329 db_lmdb.cpp:35] Opened lmdb examples/cifar10/cifar10_test_lmdb
I0501 05:15:01.099901 28329 net.cpp:86] Creating Layer cifar
I0501 05:15:01.099907 28329 net.cpp:382] cifar -> data
I0501 05:15:01.099916 28329 net.cpp:382] cifar -> label
I0501 05:15:01.099925 28329 data_transformer.cpp:25] Loading mean file from: examples/cifar10/mean.binaryproto
I0501 05:15:01.100102 28329 data_layer.cpp:45] output data size: 1000,3,32,32
I0501 05:15:01.125941 28329 net.cpp:124] Setting up cifar
I0501 05:15:01.125969 28329 net.cpp:131] Top shape: 1000 3 32 32 (3072000)
I0501 05:15:01.125977 28329 net.cpp:131] Top shape: 1000 (1000)
I0501 05:15:01.125979 28329 net.cpp:139] Memory required for data: 12292000
I0501 05:15:01.125985 28329 layer_factory.hpp:77] Creating layer label_cifar_1_split
I0501 05:15:01.125998 28329 net.cpp:86] Creating Layer label_cifar_1_split
I0501 05:15:01.126003 28329 net.cpp:408] label_cifar_1_split <- label
I0501 05:15:01.126011 28329 net.cpp:382] label_cifar_1_split -> label_cifar_1_split_0
I0501 05:15:01.126021 28329 net.cpp:382] label_cifar_1_split -> label_cifar_1_split_1
I0501 05:15:01.126111 28329 net.cpp:124] Setting up label_cifar_1_split
I0501 05:15:01.126121 28329 net.cpp:131] Top shape: 1000 (1000)
I0501 05:15:01.126127 28329 net.cpp:131] Top shape: 1000 (1000)
I0501 05:15:01.126130 28329 net.cpp:139] Memory required for data: 12300000
I0501 05:15:01.126133 28329 layer_factory.hpp:77] Creating layer conv0
I0501 05:15:01.126148 28329 net.cpp:86] Creating Layer conv0
I0501 05:15:01.126152 28329 net.cpp:408] conv0 <- data
I0501 05:15:01.126158 28329 net.cpp:382] conv0 -> conv0
I0501 05:15:01.128888 28329 net.cpp:124] Setting up conv0
I0501 05:15:01.128921 28329 net.cpp:131] Top shape: 1000 8 32 32 (8192000)
I0501 05:15:01.128937 28329 net.cpp:139] Memory required for data: 45068000
I0501 05:15:01.128959 28329 layer_factory.hpp:77] Creating layer Sigmoid0
I0501 05:15:01.128968 28329 net.cpp:86] Creating Layer Sigmoid0
I0501 05:15:01.128971 28329 net.cpp:408] Sigmoid0 <- conv0
I0501 05:15:01.128978 28329 net.cpp:382] Sigmoid0 -> Sigmoid0
I0501 05:15:01.129220 28329 net.cpp:124] Setting up Sigmoid0
I0501 05:15:01.129240 28329 net.cpp:131] Top shape: 1000 8 32 32 (8192000)
I0501 05:15:01.129245 28329 net.cpp:139] Memory required for data: 77836000
I0501 05:15:01.129248 28329 layer_factory.hpp:77] Creating layer pool0
I0501 05:15:01.129257 28329 net.cpp:86] Creating Layer pool0
I0501 05:15:01.129261 28329 net.cpp:408] pool0 <- Sigmoid0
I0501 05:15:01.129267 28329 net.cpp:382] pool0 -> pool0
I0501 05:15:01.129479 28329 net.cpp:124] Setting up pool0
I0501 05:15:01.129488 28329 net.cpp:131] Top shape: 1000 8 16 16 (2048000)
I0501 05:15:01.129492 28329 net.cpp:139] Memory required for data: 86028000
I0501 05:15:01.129495 28329 layer_factory.hpp:77] Creating layer ip1
I0501 05:15:01.129504 28329 net.cpp:86] Creating Layer ip1
I0501 05:15:01.129508 28329 net.cpp:408] ip1 <- pool0
I0501 05:15:01.129513 28329 net.cpp:382] ip1 -> ip1
I0501 05:15:01.132117 28329 net.cpp:124] Setting up ip1
I0501 05:15:01.132124 28329 net.cpp:131] Top shape: 1000 40 (40000)
I0501 05:15:01.132129 28329 net.cpp:139] Memory required for data: 86188000
I0501 05:15:01.132164 28329 layer_factory.hpp:77] Creating layer relu1
I0501 05:15:01.132170 28329 net.cpp:86] Creating Layer relu1
I0501 05:15:01.132174 28329 net.cpp:408] relu1 <- ip1
I0501 05:15:01.132191 28329 net.cpp:369] relu1 -> ip1 (in-place)
I0501 05:15:01.132396 28329 net.cpp:124] Setting up relu1
I0501 05:15:01.132406 28329 net.cpp:131] Top shape: 1000 40 (40000)
I0501 05:15:01.132411 28329 net.cpp:139] Memory required for data: 86348000
I0501 05:15:01.132413 28329 layer_factory.hpp:77] Creating layer ip2
I0501 05:15:01.132421 28329 net.cpp:86] Creating Layer ip2
I0501 05:15:01.132424 28329 net.cpp:408] ip2 <- ip1
I0501 05:15:01.132432 28329 net.cpp:382] ip2 -> ip2
I0501 05:15:01.132745 28329 net.cpp:124] Setting up ip2
I0501 05:15:01.132752 28329 net.cpp:131] Top shape: 1000 160 (160000)
I0501 05:15:01.132756 28329 net.cpp:139] Memory required for data: 86988000
I0501 05:15:01.132764 28329 layer_factory.hpp:77] Creating layer relu2
I0501 05:15:01.132771 28329 net.cpp:86] Creating Layer relu2
I0501 05:15:01.132774 28329 net.cpp:408] relu2 <- ip2
I0501 05:15:01.132781 28329 net.cpp:369] relu2 -> ip2 (in-place)
I0501 05:15:01.133653 28329 net.cpp:124] Setting up relu2
I0501 05:15:01.133667 28329 net.cpp:131] Top shape: 1000 160 (160000)
I0501 05:15:01.133671 28329 net.cpp:139] Memory required for data: 87628000
I0501 05:15:01.133675 28329 layer_factory.hpp:77] Creating layer ip3
I0501 05:15:01.133684 28329 net.cpp:86] Creating Layer ip3
I0501 05:15:01.133687 28329 net.cpp:408] ip3 <- ip2
I0501 05:15:01.133693 28329 net.cpp:382] ip3 -> ip3
I0501 05:15:01.134008 28329 net.cpp:124] Setting up ip3
I0501 05:15:01.134017 28329 net.cpp:131] Top shape: 1000 40 (40000)
I0501 05:15:01.134021 28329 net.cpp:139] Memory required for data: 87788000
I0501 05:15:01.134027 28329 layer_factory.hpp:77] Creating layer relu3
I0501 05:15:01.134032 28329 net.cpp:86] Creating Layer relu3
I0501 05:15:01.134037 28329 net.cpp:408] relu3 <- ip3
I0501 05:15:01.134040 28329 net.cpp:369] relu3 -> ip3 (in-place)
I0501 05:15:01.134225 28329 net.cpp:124] Setting up relu3
I0501 05:15:01.134234 28329 net.cpp:131] Top shape: 1000 40 (40000)
I0501 05:15:01.134238 28329 net.cpp:139] Memory required for data: 87948000
I0501 05:15:01.134241 28329 layer_factory.hpp:77] Creating layer ip4
I0501 05:15:01.134248 28329 net.cpp:86] Creating Layer ip4
I0501 05:15:01.134253 28329 net.cpp:408] ip4 <- ip3
I0501 05:15:01.134258 28329 net.cpp:382] ip4 -> ip4
I0501 05:15:01.134392 28329 net.cpp:124] Setting up ip4
I0501 05:15:01.134399 28329 net.cpp:131] Top shape: 1000 10 (10000)
I0501 05:15:01.134402 28329 net.cpp:139] Memory required for data: 87988000
I0501 05:15:01.134412 28329 layer_factory.hpp:77] Creating layer ip4_ip4_0_split
I0501 05:15:01.134416 28329 net.cpp:86] Creating Layer ip4_ip4_0_split
I0501 05:15:01.134419 28329 net.cpp:408] ip4_ip4_0_split <- ip4
I0501 05:15:01.134425 28329 net.cpp:382] ip4_ip4_0_split -> ip4_ip4_0_split_0
I0501 05:15:01.134433 28329 net.cpp:382] ip4_ip4_0_split -> ip4_ip4_0_split_1
I0501 05:15:01.134467 28329 net.cpp:124] Setting up ip4_ip4_0_split
I0501 05:15:01.134474 28329 net.cpp:131] Top shape: 1000 10 (10000)
I0501 05:15:01.134479 28329 net.cpp:131] Top shape: 1000 10 (10000)
I0501 05:15:01.134481 28329 net.cpp:139] Memory required for data: 88068000
I0501 05:15:01.134485 28329 layer_factory.hpp:77] Creating layer accuracy
I0501 05:15:01.134491 28329 net.cpp:86] Creating Layer accuracy
I0501 05:15:01.134495 28329 net.cpp:408] accuracy <- ip4_ip4_0_split_0
I0501 05:15:01.134498 28329 net.cpp:408] accuracy <- label_cifar_1_split_0
I0501 05:15:01.134503 28329 net.cpp:382] accuracy -> accuracy
…
