…
I0501 03:51:22.853848 22856 net.cpp:296] The NetState phase (0) differed from the phase (1) specified by a rule in layer cifar
I0501 03:51:22.853873 22856 net.cpp:296] The NetState phase (0) differed from the phase (1) specified by a rule in layer accuracy
I0501 03:51:22.853986 22856 net.cpp:53] Initializing net from parameters: 
name: "CIFAR"
state {
  phase: TRAIN
  level: 0
  stage: ""
}
layer {
  name: "cifar"
  type: "Data"
  top: "data"
  top: "label"
  include {
    phase: TRAIN
  }
  transform_param {
    mean_file: "examples/cifar10/mean.binaryproto"
  }
  data_param {
    source: "examples/cifar10/cifar10_train_lmdb"
    batch_size: 111
    backend: LMDB
  }
}
layer {
  name: "conv0"
  type: "Convolution"
  bottom: "data"
  top: "conv0"
  param {
    lr_mult: 1
  }
  param {
    lr_mult: 2
  }
  convolution_param {
    num_output: 8
    pad: 2
    kernel_size: 5
    stride: 1
    weight_filler {
      type: "gaussian"
      std: 0.01
    }
    bias_filler {
      type: "constant"
    }
  }
}
layer {
  name: "Sigmoid0"
  type: "Sigmoid"
  bottom: "conv0"
  top: "Sigmoid0"
}
layer {
  name: "pool0"
  type: "Pooling"
  bottom: "Sigmoid0"
  top: "pool0"
  pooling_param {
    pool: AVE
    kernel_size: 3
    stride: 2
  }
}
layer {
  name: "ip1"
  type: "InnerProduct"
  bottom: "pool0"
  top: "ip1"
  param {
    lr_mult: 1
  }
  param {
    lr_mult: 2
  }
  inner_product_param {
    num_output: 20
    weight_filler {
      type: "gaussian"
      std: 0.01
    }
    bias_filler {
      type: "constant"
    }
  }
}
layer {
  name: "relu1"
  type: "ReLU"
  bottom: "ip1"
  top: "ip1"
}
layer {
  name: "ip2"
  type: "InnerProduct"
  bottom: "ip1"
  top: "ip2"
  param {
    lr_mult: 1
  }
  param {
    lr_mult: 2
  }
  inner_product_param {
    num_output: 10
    weight_filler {
      type: "gaussian"
      std: 0.01
    }
    bias_filler {
      type: "constant"
    }
  }
}
layer {
  name: "relu2"
  type: "ReLU"
  bottom: "ip2"
  top: "ip2"
}
layer {
  name: "ip3"
  type: "InnerProduct"
  bottom: "ip2"
  top: "ip3"
  param {
    lr_mult: 1
  }
  param {
    lr_mult: 2
  }
  inner_product_param {
    num_output: 40
    weight_filler {
      type: "gaussian"
      std: 0.01
    }
    bias_filler {
      type: "constant"
    }
  }
}
layer {
  name: "relu3"
  type: "ReLU"
  bottom: "ip3"
  top: "ip3"
}
layer {
  name: "ip4"
  type: "InnerProduct"
  bottom: "ip3"
  top: "ip4"
  param {
    lr_mult: 1
  }
  param {
    lr_mult: 2
  }
  inner_product_param {
    num_output: 10
    weight_filler {
      type: "gaussian"
      std: 0.01
    }
    bias_filler {
      type: "constant"
    }
  }
}
layer {
  name: "loss"
  type: "SoftmaxWithLoss"
  bottom: "ip4"
  bottom: "label"
  top: "loss"
}
I0501 03:51:22.854079 22856 layer_factory.hpp:77] Creating layer cifar
I0501 03:51:22.854176 22856 db_lmdb.cpp:35] Opened lmdb examples/cifar10/cifar10_train_lmdb
I0501 03:51:22.854203 22856 net.cpp:86] Creating Layer cifar
I0501 03:51:22.854212 22856 net.cpp:382] cifar -> data
I0501 03:51:22.854235 22856 net.cpp:382] cifar -> label
I0501 03:51:22.854248 22856 data_transformer.cpp:25] Loading mean file from: examples/cifar10/mean.binaryproto
I0501 03:51:22.856334 22856 data_layer.cpp:45] output data size: 111,3,32,32
I0501 03:51:22.864214 22856 net.cpp:124] Setting up cifar
I0501 03:51:22.864233 22856 net.cpp:131] Top shape: 111 3 32 32 (340992)
I0501 03:51:22.864239 22856 net.cpp:131] Top shape: 111 (111)
I0501 03:51:22.864243 22856 net.cpp:139] Memory required for data: 1364412
I0501 03:51:22.864266 22856 layer_factory.hpp:77] Creating layer conv0
I0501 03:51:22.864291 22856 net.cpp:86] Creating Layer conv0
I0501 03:51:22.864296 22856 net.cpp:408] conv0 <- data
I0501 03:51:22.864310 22856 net.cpp:382] conv0 -> conv0
I0501 03:51:23.150454 22856 net.cpp:124] Setting up conv0
I0501 03:51:23.150482 22856 net.cpp:131] Top shape: 111 8 32 32 (909312)
I0501 03:51:23.150488 22856 net.cpp:139] Memory required for data: 5001660
I0501 03:51:23.150503 22856 layer_factory.hpp:77] Creating layer Sigmoid0
I0501 03:51:23.150516 22856 net.cpp:86] Creating Layer Sigmoid0
I0501 03:51:23.150521 22856 net.cpp:408] Sigmoid0 <- conv0
I0501 03:51:23.150526 22856 net.cpp:382] Sigmoid0 -> Sigmoid0
I0501 03:51:23.150714 22856 net.cpp:124] Setting up Sigmoid0
I0501 03:51:23.150725 22856 net.cpp:131] Top shape: 111 8 32 32 (909312)
I0501 03:51:23.150728 22856 net.cpp:139] Memory required for data: 8638908
I0501 03:51:23.150732 22856 layer_factory.hpp:77] Creating layer pool0
I0501 03:51:23.150740 22856 net.cpp:86] Creating Layer pool0
I0501 03:51:23.150743 22856 net.cpp:408] pool0 <- Sigmoid0
I0501 03:51:23.150749 22856 net.cpp:382] pool0 -> pool0
I0501 03:51:23.151556 22856 net.cpp:124] Setting up pool0
I0501 03:51:23.151569 22856 net.cpp:131] Top shape: 111 8 16 16 (227328)
I0501 03:51:23.151573 22856 net.cpp:139] Memory required for data: 9548220
I0501 03:51:23.151576 22856 layer_factory.hpp:77] Creating layer ip1
I0501 03:51:23.151588 22856 net.cpp:86] Creating Layer ip1
I0501 03:51:23.151592 22856 net.cpp:408] ip1 <- pool0
I0501 03:51:23.151597 22856 net.cpp:382] ip1 -> ip1
I0501 03:51:23.153781 22856 net.cpp:124] Setting up ip1
I0501 03:51:23.153794 22856 net.cpp:131] Top shape: 111 20 (2220)
I0501 03:51:23.153797 22856 net.cpp:139] Memory required for data: 9557100
I0501 03:51:23.153806 22856 layer_factory.hpp:77] Creating layer relu1
I0501 03:51:23.153815 22856 net.cpp:86] Creating Layer relu1
I0501 03:51:23.153817 22856 net.cpp:408] relu1 <- ip1
I0501 03:51:23.153825 22856 net.cpp:369] relu1 -> ip1 (in-place)
I0501 03:51:23.154000 22856 net.cpp:124] Setting up relu1
I0501 03:51:23.154009 22856 net.cpp:131] Top shape: 111 20 (2220)
I0501 03:51:23.154012 22856 net.cpp:139] Memory required for data: 9565980
I0501 03:51:23.154016 22856 layer_factory.hpp:77] Creating layer ip2
I0501 03:51:23.154023 22856 net.cpp:86] Creating Layer ip2
I0501 03:51:23.154027 22856 net.cpp:408] ip2 <- ip1
I0501 03:51:23.154032 22856 net.cpp:382] ip2 -> ip2
I0501 03:51:23.154139 22856 net.cpp:124] Setting up ip2
I0501 03:51:23.154146 22856 net.cpp:131] Top shape: 111 10 (1110)
I0501 03:51:23.154150 22856 net.cpp:139] Memory required for data: 9570420
I0501 03:51:23.154157 22856 layer_factory.hpp:77] Creating layer relu2
I0501 03:51:23.154165 22856 net.cpp:86] Creating Layer relu2
I0501 03:51:23.154167 22856 net.cpp:408] relu2 <- ip2
I0501 03:51:23.154171 22856 net.cpp:369] relu2 -> ip2 (in-place)
I0501 03:51:23.154345 22856 net.cpp:124] Setting up relu2
I0501 03:51:23.154355 22856 net.cpp:131] Top shape: 111 10 (1110)
I0501 03:51:23.154357 22856 net.cpp:139] Memory required for data: 9574860
I0501 03:51:23.154361 22856 layer_factory.hpp:77] Creating layer ip3
I0501 03:51:23.154368 22856 net.cpp:86] Creating Layer ip3
I0501 03:51:23.154371 22856 net.cpp:408] ip3 <- ip2
I0501 03:51:23.154378 22856 net.cpp:382] ip3 -> ip3
I0501 03:51:23.154489 22856 net.cpp:124] Setting up ip3
I0501 03:51:23.154496 22856 net.cpp:131] Top shape: 111 40 (4440)
I0501 03:51:23.154500 22856 net.cpp:139] Memory required for data: 9592620
I0501 03:51:23.154505 22856 layer_factory.hpp:77] Creating layer relu3
I0501 03:51:23.154511 22856 net.cpp:86] Creating Layer relu3
I0501 03:51:23.154515 22856 net.cpp:408] relu3 <- ip3
I0501 03:51:23.154518 22856 net.cpp:369] relu3 -> ip3 (in-place)
I0501 03:51:23.154678 22856 net.cpp:124] Setting up relu3
I0501 03:51:23.154687 22856 net.cpp:131] Top shape: 111 40 (4440)
I0501 03:51:23.154690 22856 net.cpp:139] Memory required for data: 9610380
I0501 03:51:23.154693 22856 layer_factory.hpp:77] Creating layer ip4
I0501 03:51:23.154716 22856 net.cpp:86] Creating Layer ip4
I0501 03:51:23.154719 22856 net.cpp:408] ip4 <- ip3
I0501 03:51:23.154726 22856 net.cpp:382] ip4 -> ip4
I0501 03:51:23.154839 22856 net.cpp:124] Setting up ip4
I0501 03:51:23.154847 22856 net.cpp:131] Top shape: 111 10 (1110)
I0501 03:51:23.154851 22856 net.cpp:139] Memory required for data: 9614820
I0501 03:51:23.154858 22856 layer_factory.hpp:77] Creating layer loss
I0501 03:51:23.154865 22856 net.cpp:86] Creating Layer loss
I0501 03:51:23.154868 22856 net.cpp:408] loss <- ip4
I0501 03:51:23.154871 22856 net.cpp:408] loss <- label
I0501 03:51:23.154878 22856 net.cpp:382] loss -> loss
I0501 03:51:23.154896 22856 layer_factory.hpp:77] Creating layer loss
…
I0501 03:51:23.156180 22856 solver.cpp:173] Creating test net (#0) specified by net file: ECE595/cifar/train_test/var_everything/cifar_train_test_367.prototxt
I0501 03:51:23.156209 22856 net.cpp:296] The NetState phase (1) differed from the phase (0) specified by a rule in layer cifar
I0501 03:51:23.156309 22856 net.cpp:53] Initializing net from parameters: 
name: "CIFAR"
state {
  phase: TEST
}
layer {
  name: "cifar"
  type: "Data"
  top: "data"
  top: "label"
  include {
    phase: TEST
  }
  transform_param {
    mean_file: "examples/cifar10/mean.binaryproto"
  }
  data_param {
    source: "examples/cifar10/cifar10_test_lmdb"
    batch_size: 1000
    backend: LMDB
  }
}
layer {
  name: "conv0"
  type: "Convolution"
  bottom: "data"
  top: "conv0"
  param {
    lr_mult: 1
  }
  param {
    lr_mult: 2
  }
  convolution_param {
    num_output: 8
    pad: 2
    kernel_size: 5
    stride: 1
    weight_filler {
      type: "gaussian"
      std: 0.01
    }
    bias_filler {
      type: "constant"
    }
  }
}
layer {
  name: "Sigmoid0"
  type: "Sigmoid"
  bottom: "conv0"
  top: "Sigmoid0"
}
layer {
  name: "pool0"
  type: "Pooling"
  bottom: "Sigmoid0"
  top: "pool0"
  pooling_param {
    pool: AVE
    kernel_size: 3
    stride: 2
  }
}
layer {
  name: "ip1"
  type: "InnerProduct"
  bottom: "pool0"
  top: "ip1"
  param {
    lr_mult: 1
  }
  param {
    lr_mult: 2
  }
  inner_product_param {
    num_output: 20
    weight_filler {
      type: "gaussian"
      std: 0.01
    }
    bias_filler {
      type: "constant"
    }
  }
}
layer {
  name: "relu1"
  type: "ReLU"
  bottom: "ip1"
  top: "ip1"
}
layer {
  name: "ip2"
  type: "InnerProduct"
  bottom: "ip1"
  top: "ip2"
  param {
    lr_mult: 1
  }
  param {
    lr_mult: 2
  }
  inner_product_param {
    num_output: 10
    weight_filler {
      type: "gaussian"
      std: 0.01
    }
    bias_filler {
      type: "constant"
    }
  }
}
layer {
  name: "relu2"
  type: "ReLU"
  bottom: "ip2"
  top: "ip2"
}
layer {
  name: "ip3"
  type: "InnerProduct"
  bottom: "ip2"
  top: "ip3"
  param {
    lr_mult: 1
  }
  param {
    lr_mult: 2
  }
  inner_product_param {
    num_output: 40
    weight_filler {
      type: "gaussian"
      std: 0.01
    }
    bias_filler {
      type: "constant"
    }
  }
}
layer {
  name: "relu3"
  type: "ReLU"
  bottom: "ip3"
  top: "ip3"
}
layer {
  name: "ip4"
  type: "InnerProduct"
  bottom: "ip3"
  top: "ip4"
  param {
    lr_mult: 1
  }
  param {
    lr_mult: 2
  }
  inner_product_param {
    num_output: 10
    weight_filler {
      type: "gaussian"
      std: 0.01
    }
    bias_filler {
      type: "constant"
    }
  }
}
layer {
  name: "accuracy"
  type: "Accuracy"
  bottom: "ip4"
  bottom: "label"
  top: "accuracy"
  include {
    phase: TEST
  }
}
layer {
  name: "loss"
  type: "SoftmaxWithLoss"
  bottom: "ip4"
  bottom: "label"
  top: "loss"
}
I0501 03:51:23.156399 22856 layer_factory.hpp:77] Creating layer cifar
I0501 03:51:23.156445 22856 db_lmdb.cpp:35] Opened lmdb examples/cifar10/cifar10_test_lmdb
I0501 03:51:23.156457 22856 net.cpp:86] Creating Layer cifar
I0501 03:51:23.156464 22856 net.cpp:382] cifar -> data
I0501 03:51:23.156472 22856 net.cpp:382] cifar -> label
I0501 03:51:23.156479 22856 data_transformer.cpp:25] Loading mean file from: examples/cifar10/mean.binaryproto
I0501 03:51:23.156632 22856 data_layer.cpp:45] output data size: 1000,3,32,32
I0501 03:51:23.179237 22856 net.cpp:124] Setting up cifar
I0501 03:51:23.179265 22856 net.cpp:131] Top shape: 1000 3 32 32 (3072000)
I0501 03:51:23.179275 22856 net.cpp:131] Top shape: 1000 (1000)
I0501 03:51:23.179277 22856 net.cpp:139] Memory required for data: 12292000
I0501 03:51:23.179282 22856 layer_factory.hpp:77] Creating layer label_cifar_1_split
I0501 03:51:23.179309 22856 net.cpp:86] Creating Layer label_cifar_1_split
I0501 03:51:23.179314 22856 net.cpp:408] label_cifar_1_split <- label
I0501 03:51:23.179321 22856 net.cpp:382] label_cifar_1_split -> label_cifar_1_split_0
I0501 03:51:23.179343 22856 net.cpp:382] label_cifar_1_split -> label_cifar_1_split_1
I0501 03:51:23.179433 22856 net.cpp:124] Setting up label_cifar_1_split
I0501 03:51:23.179441 22856 net.cpp:131] Top shape: 1000 (1000)
I0501 03:51:23.179445 22856 net.cpp:131] Top shape: 1000 (1000)
I0501 03:51:23.179447 22856 net.cpp:139] Memory required for data: 12300000
I0501 03:51:23.179450 22856 layer_factory.hpp:77] Creating layer conv0
I0501 03:51:23.179463 22856 net.cpp:86] Creating Layer conv0
I0501 03:51:23.179466 22856 net.cpp:408] conv0 <- data
I0501 03:51:23.179472 22856 net.cpp:382] conv0 -> conv0
I0501 03:51:23.181938 22856 net.cpp:124] Setting up conv0
I0501 03:51:23.181953 22856 net.cpp:131] Top shape: 1000 8 32 32 (8192000)
I0501 03:51:23.181957 22856 net.cpp:139] Memory required for data: 45068000
I0501 03:51:23.181967 22856 layer_factory.hpp:77] Creating layer Sigmoid0
I0501 03:51:23.181973 22856 net.cpp:86] Creating Layer Sigmoid0
I0501 03:51:23.181977 22856 net.cpp:408] Sigmoid0 <- conv0
I0501 03:51:23.181983 22856 net.cpp:382] Sigmoid0 -> Sigmoid0
I0501 03:51:23.182158 22856 net.cpp:124] Setting up Sigmoid0
I0501 03:51:23.182168 22856 net.cpp:131] Top shape: 1000 8 32 32 (8192000)
I0501 03:51:23.182171 22856 net.cpp:139] Memory required for data: 77836000
I0501 03:51:23.182174 22856 layer_factory.hpp:77] Creating layer pool0
I0501 03:51:23.182183 22856 net.cpp:86] Creating Layer pool0
I0501 03:51:23.182186 22856 net.cpp:408] pool0 <- Sigmoid0
I0501 03:51:23.182196 22856 net.cpp:382] pool0 -> pool0
I0501 03:51:23.182379 22856 net.cpp:124] Setting up pool0
I0501 03:51:23.182387 22856 net.cpp:131] Top shape: 1000 8 16 16 (2048000)
I0501 03:51:23.182391 22856 net.cpp:139] Memory required for data: 86028000
I0501 03:51:23.182394 22856 layer_factory.hpp:77] Creating layer ip1
I0501 03:51:23.182404 22856 net.cpp:86] Creating Layer ip1
I0501 03:51:23.182406 22856 net.cpp:408] ip1 <- pool0
I0501 03:51:23.182412 22856 net.cpp:382] ip1 -> ip1
I0501 03:51:23.183590 22856 net.cpp:124] Setting up ip1
I0501 03:51:23.183598 22856 net.cpp:131] Top shape: 1000 20 (20000)
I0501 03:51:23.183601 22856 net.cpp:139] Memory required for data: 86108000
I0501 03:51:23.183624 22856 layer_factory.hpp:77] Creating layer relu1
I0501 03:51:23.183629 22856 net.cpp:86] Creating Layer relu1
I0501 03:51:23.183632 22856 net.cpp:408] relu1 <- ip1
I0501 03:51:23.183639 22856 net.cpp:369] relu1 -> ip1 (in-place)
I0501 03:51:23.183799 22856 net.cpp:124] Setting up relu1
I0501 03:51:23.183806 22856 net.cpp:131] Top shape: 1000 20 (20000)
I0501 03:51:23.183817 22856 net.cpp:139] Memory required for data: 86188000
I0501 03:51:23.183820 22856 layer_factory.hpp:77] Creating layer ip2
I0501 03:51:23.183828 22856 net.cpp:86] Creating Layer ip2
I0501 03:51:23.183831 22856 net.cpp:408] ip2 <- ip1
I0501 03:51:23.183836 22856 net.cpp:382] ip2 -> ip2
I0501 03:51:23.183944 22856 net.cpp:124] Setting up ip2
I0501 03:51:23.183953 22856 net.cpp:131] Top shape: 1000 10 (10000)
I0501 03:51:23.183955 22856 net.cpp:139] Memory required for data: 86228000
I0501 03:51:23.183962 22856 layer_factory.hpp:77] Creating layer relu2
I0501 03:51:23.183969 22856 net.cpp:86] Creating Layer relu2
I0501 03:51:23.183972 22856 net.cpp:408] relu2 <- ip2
I0501 03:51:23.183976 22856 net.cpp:369] relu2 -> ip2 (in-place)
I0501 03:51:23.184696 22856 net.cpp:124] Setting up relu2
I0501 03:51:23.184708 22856 net.cpp:131] Top shape: 1000 10 (10000)
I0501 03:51:23.184720 22856 net.cpp:139] Memory required for data: 86268000
I0501 03:51:23.184725 22856 layer_factory.hpp:77] Creating layer ip3
I0501 03:51:23.184731 22856 net.cpp:86] Creating Layer ip3
I0501 03:51:23.184734 22856 net.cpp:408] ip3 <- ip2
I0501 03:51:23.184741 22856 net.cpp:382] ip3 -> ip3
I0501 03:51:23.184897 22856 net.cpp:124] Setting up ip3
I0501 03:51:23.184906 22856 net.cpp:131] Top shape: 1000 40 (40000)
I0501 03:51:23.184909 22856 net.cpp:139] Memory required for data: 86428000
I0501 03:51:23.184916 22856 layer_factory.hpp:77] Creating layer relu3
I0501 03:51:23.184921 22856 net.cpp:86] Creating Layer relu3
I0501 03:51:23.184923 22856 net.cpp:408] relu3 <- ip3
I0501 03:51:23.184928 22856 net.cpp:369] relu3 -> ip3 (in-place)
I0501 03:51:23.185091 22856 net.cpp:124] Setting up relu3
I0501 03:51:23.185099 22856 net.cpp:131] Top shape: 1000 40 (40000)
I0501 03:51:23.185103 22856 net.cpp:139] Memory required for data: 86588000
I0501 03:51:23.185106 22856 layer_factory.hpp:77] Creating layer ip4
I0501 03:51:23.185113 22856 net.cpp:86] Creating Layer ip4
I0501 03:51:23.185117 22856 net.cpp:408] ip4 <- ip3
I0501 03:51:23.185123 22856 net.cpp:382] ip4 -> ip4
I0501 03:51:23.185261 22856 net.cpp:124] Setting up ip4
I0501 03:51:23.185267 22856 net.cpp:131] Top shape: 1000 10 (10000)
I0501 03:51:23.185271 22856 net.cpp:139] Memory required for data: 86628000
I0501 03:51:23.185277 22856 layer_factory.hpp:77] Creating layer ip4_ip4_0_split
I0501 03:51:23.185282 22856 net.cpp:86] Creating Layer ip4_ip4_0_split
I0501 03:51:23.185286 22856 net.cpp:408] ip4_ip4_0_split <- ip4
I0501 03:51:23.185290 22856 net.cpp:382] ip4_ip4_0_split -> ip4_ip4_0_split_0
I0501 03:51:23.185295 22856 net.cpp:382] ip4_ip4_0_split -> ip4_ip4_0_split_1
I0501 03:51:23.185324 22856 net.cpp:124] Setting up ip4_ip4_0_split
I0501 03:51:23.185328 22856 net.cpp:131] Top shape: 1000 10 (10000)
I0501 03:51:23.185333 22856 net.cpp:131] Top shape: 1000 10 (10000)
I0501 03:51:23.185335 22856 net.cpp:139] Memory required for data: 86708000
I0501 03:51:23.185338 22856 layer_factory.hpp:77] Creating layer accuracy
I0501 03:51:23.185344 22856 net.cpp:86] Creating Layer accuracy
I0501 03:51:23.185348 22856 net.cpp:408] accuracy <- ip4_ip4_0_split_0
I0501 03:51:23.185351 22856 net.cpp:408] accuracy <- label_cifar_1_split_0
I0501 03:51:23.185356 22856 net.cpp:382] accuracy -> accuracy
…
