…
I0501 06:14:21.666256 32130 net.cpp:296] The NetState phase (0) differed from the phase (1) specified by a rule in layer cifar
I0501 06:14:21.666275 32130 net.cpp:296] The NetState phase (0) differed from the phase (1) specified by a rule in layer accuracy
I0501 06:14:21.666383 32130 net.cpp:53] Initializing net from parameters: 
name: "CIFAR"
state {
  phase: TRAIN
  level: 0
  stage: ""
}
layer {
  name: "cifar"
  type: "Data"
  top: "data"
  top: "label"
  include {
    phase: TRAIN
  }
  transform_param {
    mean_file: "examples/cifar10/mean.binaryproto"
  }
  data_param {
    source: "examples/cifar10/cifar10_train_lmdb"
    batch_size: 111
    backend: LMDB
  }
}
layer {
  name: "conv0"
  type: "Convolution"
  bottom: "data"
  top: "conv0"
  param {
    lr_mult: 1
  }
  param {
    lr_mult: 2
  }
  convolution_param {
    num_output: 8
    pad: 2
    kernel_size: 5
    stride: 1
    weight_filler {
      type: "gaussian"
      std: 0.01
    }
    bias_filler {
      type: "constant"
    }
  }
}
layer {
  name: "Sigmoid0"
  type: "Sigmoid"
  bottom: "conv0"
  top: "Sigmoid0"
}
layer {
  name: "pool0"
  type: "Pooling"
  bottom: "Sigmoid0"
  top: "pool0"
  pooling_param {
    pool: AVE
    kernel_size: 3
    stride: 2
  }
}
layer {
  name: "ip1"
  type: "InnerProduct"
  bottom: "pool0"
  top: "ip1"
  param {
    lr_mult: 1
  }
  param {
    lr_mult: 2
  }
  inner_product_param {
    num_output: 160
    weight_filler {
      type: "gaussian"
      std: 0.01
    }
    bias_filler {
      type: "constant"
    }
  }
}
layer {
  name: "relu1"
  type: "ReLU"
  bottom: "ip1"
  top: "ip1"
}
layer {
  name: "ip2"
  type: "InnerProduct"
  bottom: "ip1"
  top: "ip2"
  param {
    lr_mult: 1
  }
  param {
    lr_mult: 2
  }
  inner_product_param {
    num_output: 10
    weight_filler {
      type: "gaussian"
      std: 0.01
    }
    bias_filler {
      type: "constant"
    }
  }
}
layer {
  name: "relu2"
  type: "ReLU"
  bottom: "ip2"
  top: "ip2"
}
layer {
  name: "ip3"
  type: "InnerProduct"
  bottom: "ip2"
  top: "ip3"
  param {
    lr_mult: 1
  }
  param {
    lr_mult: 2
  }
  inner_product_param {
    num_output: 160
    weight_filler {
      type: "gaussian"
      std: 0.01
    }
    bias_filler {
      type: "constant"
    }
  }
}
layer {
  name: "relu3"
  type: "ReLU"
  bottom: "ip3"
  top: "ip3"
}
layer {
  name: "ip4"
  type: "InnerProduct"
  bottom: "ip3"
  top: "ip4"
  param {
    lr_mult: 1
  }
  param {
    lr_mult: 2
  }
  inner_product_param {
    num_output: 10
    weight_filler {
      type: "gaussian"
      std: 0.01
    }
    bias_filler {
      type: "constant"
    }
  }
}
layer {
  name: "loss"
  type: "SoftmaxWithLoss"
  bottom: "ip4"
  bottom: "label"
  top: "loss"
}
I0501 06:14:21.666463 32130 layer_factory.hpp:77] Creating layer cifar
I0501 06:14:21.666568 32130 db_lmdb.cpp:35] Opened lmdb examples/cifar10/cifar10_train_lmdb
I0501 06:14:21.666596 32130 net.cpp:86] Creating Layer cifar
I0501 06:14:21.666611 32130 net.cpp:382] cifar -> data
I0501 06:14:21.666635 32130 net.cpp:382] cifar -> label
I0501 06:14:21.666653 32130 data_transformer.cpp:25] Loading mean file from: examples/cifar10/mean.binaryproto
I0501 06:14:21.668803 32130 data_layer.cpp:45] output data size: 111,3,32,32
I0501 06:14:21.676911 32130 net.cpp:124] Setting up cifar
I0501 06:14:21.676931 32130 net.cpp:131] Top shape: 111 3 32 32 (340992)
I0501 06:14:21.676937 32130 net.cpp:131] Top shape: 111 (111)
I0501 06:14:21.676941 32130 net.cpp:139] Memory required for data: 1364412
I0501 06:14:21.676969 32130 layer_factory.hpp:77] Creating layer conv0
I0501 06:14:21.676992 32130 net.cpp:86] Creating Layer conv0
I0501 06:14:21.677000 32130 net.cpp:408] conv0 <- data
I0501 06:14:21.677012 32130 net.cpp:382] conv0 -> conv0
I0501 06:14:21.968921 32130 net.cpp:124] Setting up conv0
I0501 06:14:21.968951 32130 net.cpp:131] Top shape: 111 8 32 32 (909312)
I0501 06:14:21.968956 32130 net.cpp:139] Memory required for data: 5001660
I0501 06:14:21.968973 32130 layer_factory.hpp:77] Creating layer Sigmoid0
I0501 06:14:21.968987 32130 net.cpp:86] Creating Layer Sigmoid0
I0501 06:14:21.968992 32130 net.cpp:408] Sigmoid0 <- conv0
I0501 06:14:21.968998 32130 net.cpp:382] Sigmoid0 -> Sigmoid0
I0501 06:14:21.969192 32130 net.cpp:124] Setting up Sigmoid0
I0501 06:14:21.969202 32130 net.cpp:131] Top shape: 111 8 32 32 (909312)
I0501 06:14:21.969207 32130 net.cpp:139] Memory required for data: 8638908
I0501 06:14:21.969209 32130 layer_factory.hpp:77] Creating layer pool0
I0501 06:14:21.969218 32130 net.cpp:86] Creating Layer pool0
I0501 06:14:21.969225 32130 net.cpp:408] pool0 <- Sigmoid0
I0501 06:14:21.969230 32130 net.cpp:382] pool0 -> pool0
I0501 06:14:21.970079 32130 net.cpp:124] Setting up pool0
I0501 06:14:21.970096 32130 net.cpp:131] Top shape: 111 8 16 16 (227328)
I0501 06:14:21.970100 32130 net.cpp:139] Memory required for data: 9548220
I0501 06:14:21.970104 32130 layer_factory.hpp:77] Creating layer ip1
I0501 06:14:21.970114 32130 net.cpp:86] Creating Layer ip1
I0501 06:14:21.970118 32130 net.cpp:408] ip1 <- pool0
I0501 06:14:21.970125 32130 net.cpp:382] ip1 -> ip1
I0501 06:14:21.981492 32130 net.cpp:124] Setting up ip1
I0501 06:14:21.981506 32130 net.cpp:131] Top shape: 111 160 (17760)
I0501 06:14:21.981510 32130 net.cpp:139] Memory required for data: 9619260
I0501 06:14:21.981520 32130 layer_factory.hpp:77] Creating layer relu1
I0501 06:14:21.981526 32130 net.cpp:86] Creating Layer relu1
I0501 06:14:21.981530 32130 net.cpp:408] relu1 <- ip1
I0501 06:14:21.981536 32130 net.cpp:369] relu1 -> ip1 (in-place)
I0501 06:14:21.981717 32130 net.cpp:124] Setting up relu1
I0501 06:14:21.981727 32130 net.cpp:131] Top shape: 111 160 (17760)
I0501 06:14:21.981730 32130 net.cpp:139] Memory required for data: 9690300
I0501 06:14:21.981734 32130 layer_factory.hpp:77] Creating layer ip2
I0501 06:14:21.981742 32130 net.cpp:86] Creating Layer ip2
I0501 06:14:21.981746 32130 net.cpp:408] ip2 <- ip1
I0501 06:14:21.981752 32130 net.cpp:382] ip2 -> ip2
I0501 06:14:21.981904 32130 net.cpp:124] Setting up ip2
I0501 06:14:21.981914 32130 net.cpp:131] Top shape: 111 10 (1110)
I0501 06:14:21.981916 32130 net.cpp:139] Memory required for data: 9694740
I0501 06:14:21.981925 32130 layer_factory.hpp:77] Creating layer relu2
I0501 06:14:21.981933 32130 net.cpp:86] Creating Layer relu2
I0501 06:14:21.981937 32130 net.cpp:408] relu2 <- ip2
I0501 06:14:21.981942 32130 net.cpp:369] relu2 -> ip2 (in-place)
I0501 06:14:21.982116 32130 net.cpp:124] Setting up relu2
I0501 06:14:21.982126 32130 net.cpp:131] Top shape: 111 10 (1110)
I0501 06:14:21.982131 32130 net.cpp:139] Memory required for data: 9699180
I0501 06:14:21.982133 32130 layer_factory.hpp:77] Creating layer ip3
I0501 06:14:21.982142 32130 net.cpp:86] Creating Layer ip3
I0501 06:14:21.982146 32130 net.cpp:408] ip3 <- ip2
I0501 06:14:21.982151 32130 net.cpp:382] ip3 -> ip3
I0501 06:14:21.982311 32130 net.cpp:124] Setting up ip3
I0501 06:14:21.982318 32130 net.cpp:131] Top shape: 111 160 (17760)
I0501 06:14:21.982321 32130 net.cpp:139] Memory required for data: 9770220
I0501 06:14:21.982328 32130 layer_factory.hpp:77] Creating layer relu3
I0501 06:14:21.982336 32130 net.cpp:86] Creating Layer relu3
I0501 06:14:21.982341 32130 net.cpp:408] relu3 <- ip3
I0501 06:14:21.982344 32130 net.cpp:369] relu3 -> ip3 (in-place)
I0501 06:14:21.982512 32130 net.cpp:124] Setting up relu3
I0501 06:14:21.982522 32130 net.cpp:131] Top shape: 111 160 (17760)
I0501 06:14:21.982525 32130 net.cpp:139] Memory required for data: 9841260
I0501 06:14:21.982528 32130 layer_factory.hpp:77] Creating layer ip4
I0501 06:14:21.982552 32130 net.cpp:86] Creating Layer ip4
I0501 06:14:21.982558 32130 net.cpp:408] ip4 <- ip3
I0501 06:14:21.982563 32130 net.cpp:382] ip4 -> ip4
I0501 06:14:21.982724 32130 net.cpp:124] Setting up ip4
I0501 06:14:21.982733 32130 net.cpp:131] Top shape: 111 10 (1110)
I0501 06:14:21.982736 32130 net.cpp:139] Memory required for data: 9845700
I0501 06:14:21.982745 32130 layer_factory.hpp:77] Creating layer loss
I0501 06:14:21.982751 32130 net.cpp:86] Creating Layer loss
I0501 06:14:21.982754 32130 net.cpp:408] loss <- ip4
I0501 06:14:21.982759 32130 net.cpp:408] loss <- label
I0501 06:14:21.982765 32130 net.cpp:382] loss -> loss
I0501 06:14:21.982780 32130 layer_factory.hpp:77] Creating layer loss
…
I0501 06:14:21.984163 32130 solver.cpp:173] Creating test net (#0) specified by net file: ECE595/cifar/train_test/var_everything/cifar_train_test_444.prototxt
I0501 06:14:21.984195 32130 net.cpp:296] The NetState phase (1) differed from the phase (0) specified by a rule in layer cifar
I0501 06:14:21.984302 32130 net.cpp:53] Initializing net from parameters: 
name: "CIFAR"
state {
  phase: TEST
}
layer {
  name: "cifar"
  type: "Data"
  top: "data"
  top: "label"
  include {
    phase: TEST
  }
  transform_param {
    mean_file: "examples/cifar10/mean.binaryproto"
  }
  data_param {
    source: "examples/cifar10/cifar10_test_lmdb"
    batch_size: 1000
    backend: LMDB
  }
}
layer {
  name: "conv0"
  type: "Convolution"
  bottom: "data"
  top: "conv0"
  param {
    lr_mult: 1
  }
  param {
    lr_mult: 2
  }
  convolution_param {
    num_output: 8
    pad: 2
    kernel_size: 5
    stride: 1
    weight_filler {
      type: "gaussian"
      std: 0.01
    }
    bias_filler {
      type: "constant"
    }
  }
}
layer {
  name: "Sigmoid0"
  type: "Sigmoid"
  bottom: "conv0"
  top: "Sigmoid0"
}
layer {
  name: "pool0"
  type: "Pooling"
  bottom: "Sigmoid0"
  top: "pool0"
  pooling_param {
    pool: AVE
    kernel_size: 3
    stride: 2
  }
}
layer {
  name: "ip1"
  type: "InnerProduct"
  bottom: "pool0"
  top: "ip1"
  param {
    lr_mult: 1
  }
  param {
    lr_mult: 2
  }
  inner_product_param {
    num_output: 160
    weight_filler {
      type: "gaussian"
      std: 0.01
    }
    bias_filler {
      type: "constant"
    }
  }
}
layer {
  name: "relu1"
  type: "ReLU"
  bottom: "ip1"
  top: "ip1"
}
layer {
  name: "ip2"
  type: "InnerProduct"
  bottom: "ip1"
  top: "ip2"
  param {
    lr_mult: 1
  }
  param {
    lr_mult: 2
  }
  inner_product_param {
    num_output: 10
    weight_filler {
      type: "gaussian"
      std: 0.01
    }
    bias_filler {
      type: "constant"
    }
  }
}
layer {
  name: "relu2"
  type: "ReLU"
  bottom: "ip2"
  top: "ip2"
}
layer {
  name: "ip3"
  type: "InnerProduct"
  bottom: "ip2"
  top: "ip3"
  param {
    lr_mult: 1
  }
  param {
    lr_mult: 2
  }
  inner_product_param {
    num_output: 160
    weight_filler {
      type: "gaussian"
      std: 0.01
    }
    bias_filler {
      type: "constant"
    }
  }
}
layer {
  name: "relu3"
  type: "ReLU"
  bottom: "ip3"
  top: "ip3"
}
layer {
  name: "ip4"
  type: "InnerProduct"
  bottom: "ip3"
  top: "ip4"
  param {
    lr_mult: 1
  }
  param {
    lr_mult: 2
  }
  inner_product_param {
    num_output: 10
    weight_filler {
      type: "gaussian"
      std: 0.01
    }
    bias_filler {
      type: "constant"
    }
  }
}
layer {
  name: "accuracy"
  type: "Accuracy"
  bottom: "ip4"
  bottom: "label"
  top: "accuracy"
  include {
    phase: TEST
  }
}
layer {
  name: "loss"
  type: "SoftmaxWithLoss"
  bottom: "ip4"
  bottom: "label"
  top: "loss"
}
I0501 06:14:21.984393 32130 layer_factory.hpp:77] Creating layer cifar
I0501 06:14:21.984444 32130 db_lmdb.cpp:35] Opened lmdb examples/cifar10/cifar10_test_lmdb
I0501 06:14:21.984458 32130 net.cpp:86] Creating Layer cifar
I0501 06:14:21.984464 32130 net.cpp:382] cifar -> data
I0501 06:14:21.984472 32130 net.cpp:382] cifar -> label
I0501 06:14:21.984480 32130 data_transformer.cpp:25] Loading mean file from: examples/cifar10/mean.binaryproto
I0501 06:14:21.984639 32130 data_layer.cpp:45] output data size: 1000,3,32,32
I0501 06:14:22.008788 32130 net.cpp:124] Setting up cifar
I0501 06:14:22.008821 32130 net.cpp:131] Top shape: 1000 3 32 32 (3072000)
I0501 06:14:22.008828 32130 net.cpp:131] Top shape: 1000 (1000)
I0501 06:14:22.008831 32130 net.cpp:139] Memory required for data: 12292000
I0501 06:14:22.008838 32130 layer_factory.hpp:77] Creating layer label_cifar_1_split
I0501 06:14:22.008852 32130 net.cpp:86] Creating Layer label_cifar_1_split
I0501 06:14:22.008855 32130 net.cpp:408] label_cifar_1_split <- label
I0501 06:14:22.008862 32130 net.cpp:382] label_cifar_1_split -> label_cifar_1_split_0
I0501 06:14:22.008872 32130 net.cpp:382] label_cifar_1_split -> label_cifar_1_split_1
I0501 06:14:22.008967 32130 net.cpp:124] Setting up label_cifar_1_split
I0501 06:14:22.008975 32130 net.cpp:131] Top shape: 1000 (1000)
I0501 06:14:22.008980 32130 net.cpp:131] Top shape: 1000 (1000)
I0501 06:14:22.008982 32130 net.cpp:139] Memory required for data: 12300000
I0501 06:14:22.008985 32130 layer_factory.hpp:77] Creating layer conv0
I0501 06:14:22.008999 32130 net.cpp:86] Creating Layer conv0
I0501 06:14:22.009003 32130 net.cpp:408] conv0 <- data
I0501 06:14:22.009008 32130 net.cpp:382] conv0 -> conv0
I0501 06:14:22.010732 32130 net.cpp:124] Setting up conv0
I0501 06:14:22.010748 32130 net.cpp:131] Top shape: 1000 8 32 32 (8192000)
I0501 06:14:22.010752 32130 net.cpp:139] Memory required for data: 45068000
I0501 06:14:22.010763 32130 layer_factory.hpp:77] Creating layer Sigmoid0
I0501 06:14:22.010771 32130 net.cpp:86] Creating Layer Sigmoid0
I0501 06:14:22.010773 32130 net.cpp:408] Sigmoid0 <- conv0
I0501 06:14:22.010779 32130 net.cpp:382] Sigmoid0 -> Sigmoid0
I0501 06:14:22.010983 32130 net.cpp:124] Setting up Sigmoid0
I0501 06:14:22.010993 32130 net.cpp:131] Top shape: 1000 8 32 32 (8192000)
I0501 06:14:22.010996 32130 net.cpp:139] Memory required for data: 77836000
I0501 06:14:22.011000 32130 layer_factory.hpp:77] Creating layer pool0
I0501 06:14:22.011008 32130 net.cpp:86] Creating Layer pool0
I0501 06:14:22.011013 32130 net.cpp:408] pool0 <- Sigmoid0
I0501 06:14:22.011018 32130 net.cpp:382] pool0 -> pool0
I0501 06:14:22.011284 32130 net.cpp:124] Setting up pool0
I0501 06:14:22.011294 32130 net.cpp:131] Top shape: 1000 8 16 16 (2048000)
I0501 06:14:22.011298 32130 net.cpp:139] Memory required for data: 86028000
I0501 06:14:22.011302 32130 layer_factory.hpp:77] Creating layer ip1
I0501 06:14:22.011310 32130 net.cpp:86] Creating Layer ip1
I0501 06:14:22.011314 32130 net.cpp:408] ip1 <- pool0
I0501 06:14:22.011319 32130 net.cpp:382] ip1 -> ip1
I0501 06:14:22.022487 32130 net.cpp:124] Setting up ip1
I0501 06:14:22.022501 32130 net.cpp:131] Top shape: 1000 160 (160000)
I0501 06:14:22.022505 32130 net.cpp:139] Memory required for data: 86668000
I0501 06:14:22.022529 32130 layer_factory.hpp:77] Creating layer relu1
I0501 06:14:22.022537 32130 net.cpp:86] Creating Layer relu1
I0501 06:14:22.022541 32130 net.cpp:408] relu1 <- ip1
I0501 06:14:22.022547 32130 net.cpp:369] relu1 -> ip1 (in-place)
I0501 06:14:22.022758 32130 net.cpp:124] Setting up relu1
I0501 06:14:22.022768 32130 net.cpp:131] Top shape: 1000 160 (160000)
I0501 06:14:22.022771 32130 net.cpp:139] Memory required for data: 87308000
I0501 06:14:22.022775 32130 layer_factory.hpp:77] Creating layer ip2
I0501 06:14:22.022784 32130 net.cpp:86] Creating Layer ip2
I0501 06:14:22.022788 32130 net.cpp:408] ip2 <- ip1
I0501 06:14:22.022794 32130 net.cpp:382] ip2 -> ip2
I0501 06:14:22.022974 32130 net.cpp:124] Setting up ip2
I0501 06:14:22.022980 32130 net.cpp:131] Top shape: 1000 10 (10000)
I0501 06:14:22.022984 32130 net.cpp:139] Memory required for data: 87348000
I0501 06:14:22.022991 32130 layer_factory.hpp:77] Creating layer relu2
I0501 06:14:22.022999 32130 net.cpp:86] Creating Layer relu2
I0501 06:14:22.023002 32130 net.cpp:408] relu2 <- ip2
I0501 06:14:22.023006 32130 net.cpp:369] relu2 -> ip2 (in-place)
I0501 06:14:22.023775 32130 net.cpp:124] Setting up relu2
I0501 06:14:22.023792 32130 net.cpp:131] Top shape: 1000 10 (10000)
I0501 06:14:22.023795 32130 net.cpp:139] Memory required for data: 87388000
I0501 06:14:22.023799 32130 layer_factory.hpp:77] Creating layer ip3
I0501 06:14:22.023808 32130 net.cpp:86] Creating Layer ip3
I0501 06:14:22.023811 32130 net.cpp:408] ip3 <- ip2
I0501 06:14:22.023818 32130 net.cpp:382] ip3 -> ip3
I0501 06:14:22.024010 32130 net.cpp:124] Setting up ip3
I0501 06:14:22.024019 32130 net.cpp:131] Top shape: 1000 160 (160000)
I0501 06:14:22.024022 32130 net.cpp:139] Memory required for data: 88028000
I0501 06:14:22.024029 32130 layer_factory.hpp:77] Creating layer relu3
I0501 06:14:22.024034 32130 net.cpp:86] Creating Layer relu3
I0501 06:14:22.024037 32130 net.cpp:408] relu3 <- ip3
I0501 06:14:22.024041 32130 net.cpp:369] relu3 -> ip3 (in-place)
I0501 06:14:22.024224 32130 net.cpp:124] Setting up relu3
I0501 06:14:22.024235 32130 net.cpp:131] Top shape: 1000 160 (160000)
I0501 06:14:22.024238 32130 net.cpp:139] Memory required for data: 88668000
I0501 06:14:22.024241 32130 layer_factory.hpp:77] Creating layer ip4
I0501 06:14:22.024247 32130 net.cpp:86] Creating Layer ip4
I0501 06:14:22.024251 32130 net.cpp:408] ip4 <- ip3
I0501 06:14:22.024258 32130 net.cpp:382] ip4 -> ip4
I0501 06:14:22.024420 32130 net.cpp:124] Setting up ip4
I0501 06:14:22.024427 32130 net.cpp:131] Top shape: 1000 10 (10000)
I0501 06:14:22.024430 32130 net.cpp:139] Memory required for data: 88708000
I0501 06:14:22.024441 32130 layer_factory.hpp:77] Creating layer ip4_ip4_0_split
I0501 06:14:22.024446 32130 net.cpp:86] Creating Layer ip4_ip4_0_split
I0501 06:14:22.024449 32130 net.cpp:408] ip4_ip4_0_split <- ip4
I0501 06:14:22.024454 32130 net.cpp:382] ip4_ip4_0_split -> ip4_ip4_0_split_0
I0501 06:14:22.024461 32130 net.cpp:382] ip4_ip4_0_split -> ip4_ip4_0_split_1
I0501 06:14:22.024509 32130 net.cpp:124] Setting up ip4_ip4_0_split
I0501 06:14:22.024515 32130 net.cpp:131] Top shape: 1000 10 (10000)
I0501 06:14:22.024519 32130 net.cpp:131] Top shape: 1000 10 (10000)
I0501 06:14:22.024523 32130 net.cpp:139] Memory required for data: 88788000
I0501 06:14:22.024525 32130 layer_factory.hpp:77] Creating layer accuracy
I0501 06:14:22.024533 32130 net.cpp:86] Creating Layer accuracy
I0501 06:14:22.024535 32130 net.cpp:408] accuracy <- ip4_ip4_0_split_0
I0501 06:14:22.024539 32130 net.cpp:408] accuracy <- label_cifar_1_split_0
I0501 06:14:22.024544 32130 net.cpp:382] accuracy -> accuracy
…
