…
I0501 03:30:53.693382 21209 net.cpp:296] The NetState phase (0) differed from the phase (1) specified by a rule in layer cifar
I0501 03:30:53.693398 21209 net.cpp:296] The NetState phase (0) differed from the phase (1) specified by a rule in layer accuracy
I0501 03:30:53.693506 21209 net.cpp:53] Initializing net from parameters: 
name: "CIFAR"
state {
  phase: TRAIN
  level: 0
  stage: ""
}
layer {
  name: "cifar"
  type: "Data"
  top: "data"
  top: "label"
  include {
    phase: TRAIN
  }
  transform_param {
    mean_file: "examples/cifar10/mean.binaryproto"
  }
  data_param {
    source: "examples/cifar10/cifar10_train_lmdb"
    batch_size: 111
    backend: LMDB
  }
}
layer {
  name: "conv0"
  type: "Convolution"
  bottom: "data"
  top: "conv0"
  param {
    lr_mult: 1
  }
  param {
    lr_mult: 2
  }
  convolution_param {
    num_output: 8
    pad: 2
    kernel_size: 5
    stride: 1
    weight_filler {
      type: "gaussian"
      std: 0.01
    }
    bias_filler {
      type: "constant"
    }
  }
}
layer {
  name: "Sigmoid0"
  type: "Sigmoid"
  bottom: "conv0"
  top: "Sigmoid0"
}
layer {
  name: "pool0"
  type: "Pooling"
  bottom: "Sigmoid0"
  top: "pool0"
  pooling_param {
    pool: AVE
    kernel_size: 3
    stride: 2
  }
}
layer {
  name: "ip1"
  type: "InnerProduct"
  bottom: "pool0"
  top: "ip1"
  param {
    lr_mult: 1
  }
  param {
    lr_mult: 2
  }
  inner_product_param {
    num_output: 10
    weight_filler {
      type: "gaussian"
      std: 0.01
    }
    bias_filler {
      type: "constant"
    }
  }
}
layer {
  name: "relu1"
  type: "ReLU"
  bottom: "ip1"
  top: "ip1"
}
layer {
  name: "ip2"
  type: "InnerProduct"
  bottom: "ip1"
  top: "ip2"
  param {
    lr_mult: 1
  }
  param {
    lr_mult: 2
  }
  inner_product_param {
    num_output: 80
    weight_filler {
      type: "gaussian"
      std: 0.01
    }
    bias_filler {
      type: "constant"
    }
  }
}
layer {
  name: "relu2"
  type: "ReLU"
  bottom: "ip2"
  top: "ip2"
}
layer {
  name: "ip3"
  type: "InnerProduct"
  bottom: "ip2"
  top: "ip3"
  param {
    lr_mult: 1
  }
  param {
    lr_mult: 2
  }
  inner_product_param {
    num_output: 20
    weight_filler {
      type: "gaussian"
      std: 0.01
    }
    bias_filler {
      type: "constant"
    }
  }
}
layer {
  name: "relu3"
  type: "ReLU"
  bottom: "ip3"
  top: "ip3"
}
layer {
  name: "ip4"
  type: "InnerProduct"
  bottom: "ip3"
  top: "ip4"
  param {
    lr_mult: 1
  }
  param {
    lr_mult: 2
  }
  inner_product_param {
    num_output: 10
    weight_filler {
      type: "gaussian"
      std: 0.01
    }
    bias_filler {
      type: "constant"
    }
  }
}
layer {
  name: "loss"
  type: "SoftmaxWithLoss"
  bottom: "ip4"
  bottom: "label"
  top: "loss"
}
I0501 03:30:53.693583 21209 layer_factory.hpp:77] Creating layer cifar
I0501 03:30:53.693682 21209 db_lmdb.cpp:35] Opened lmdb examples/cifar10/cifar10_train_lmdb
I0501 03:30:53.693712 21209 net.cpp:86] Creating Layer cifar
I0501 03:30:53.693724 21209 net.cpp:382] cifar -> data
I0501 03:30:53.693749 21209 net.cpp:382] cifar -> label
I0501 03:30:53.693766 21209 data_transformer.cpp:25] Loading mean file from: examples/cifar10/mean.binaryproto
I0501 03:30:53.695871 21209 data_layer.cpp:45] output data size: 111,3,32,32
I0501 03:30:53.703727 21209 net.cpp:124] Setting up cifar
I0501 03:30:53.703745 21209 net.cpp:131] Top shape: 111 3 32 32 (340992)
I0501 03:30:53.703753 21209 net.cpp:131] Top shape: 111 (111)
I0501 03:30:53.703758 21209 net.cpp:139] Memory required for data: 1364412
I0501 03:30:53.703781 21209 layer_factory.hpp:77] Creating layer conv0
I0501 03:30:53.703799 21209 net.cpp:86] Creating Layer conv0
I0501 03:30:53.703804 21209 net.cpp:408] conv0 <- data
I0501 03:30:53.703819 21209 net.cpp:382] conv0 -> conv0
I0501 03:30:53.992017 21209 net.cpp:124] Setting up conv0
I0501 03:30:53.992046 21209 net.cpp:131] Top shape: 111 8 32 32 (909312)
I0501 03:30:53.992050 21209 net.cpp:139] Memory required for data: 5001660
I0501 03:30:53.992065 21209 layer_factory.hpp:77] Creating layer Sigmoid0
I0501 03:30:53.992077 21209 net.cpp:86] Creating Layer Sigmoid0
I0501 03:30:53.992097 21209 net.cpp:408] Sigmoid0 <- conv0
I0501 03:30:53.992103 21209 net.cpp:382] Sigmoid0 -> Sigmoid0
I0501 03:30:53.992321 21209 net.cpp:124] Setting up Sigmoid0
I0501 03:30:53.992332 21209 net.cpp:131] Top shape: 111 8 32 32 (909312)
I0501 03:30:53.992336 21209 net.cpp:139] Memory required for data: 8638908
I0501 03:30:53.992339 21209 layer_factory.hpp:77] Creating layer pool0
I0501 03:30:53.992347 21209 net.cpp:86] Creating Layer pool0
I0501 03:30:53.992350 21209 net.cpp:408] pool0 <- Sigmoid0
I0501 03:30:53.992357 21209 net.cpp:382] pool0 -> pool0
I0501 03:30:53.993307 21209 net.cpp:124] Setting up pool0
I0501 03:30:53.993322 21209 net.cpp:131] Top shape: 111 8 16 16 (227328)
I0501 03:30:53.993326 21209 net.cpp:139] Memory required for data: 9548220
I0501 03:30:53.993330 21209 layer_factory.hpp:77] Creating layer ip1
I0501 03:30:53.993340 21209 net.cpp:86] Creating Layer ip1
I0501 03:30:53.993343 21209 net.cpp:408] ip1 <- pool0
I0501 03:30:53.993350 21209 net.cpp:382] ip1 -> ip1
I0501 03:30:53.994917 21209 net.cpp:124] Setting up ip1
I0501 03:30:53.994930 21209 net.cpp:131] Top shape: 111 10 (1110)
I0501 03:30:53.994935 21209 net.cpp:139] Memory required for data: 9552660
I0501 03:30:53.994942 21209 layer_factory.hpp:77] Creating layer relu1
I0501 03:30:53.994951 21209 net.cpp:86] Creating Layer relu1
I0501 03:30:53.994954 21209 net.cpp:408] relu1 <- ip1
I0501 03:30:53.994958 21209 net.cpp:369] relu1 -> ip1 (in-place)
I0501 03:30:53.995128 21209 net.cpp:124] Setting up relu1
I0501 03:30:53.995137 21209 net.cpp:131] Top shape: 111 10 (1110)
I0501 03:30:53.995141 21209 net.cpp:139] Memory required for data: 9557100
I0501 03:30:53.995144 21209 layer_factory.hpp:77] Creating layer ip2
I0501 03:30:53.995152 21209 net.cpp:86] Creating Layer ip2
I0501 03:30:53.995156 21209 net.cpp:408] ip2 <- ip1
I0501 03:30:53.995160 21209 net.cpp:382] ip2 -> ip2
I0501 03:30:53.995285 21209 net.cpp:124] Setting up ip2
I0501 03:30:53.995293 21209 net.cpp:131] Top shape: 111 80 (8880)
I0501 03:30:53.995296 21209 net.cpp:139] Memory required for data: 9592620
I0501 03:30:53.995303 21209 layer_factory.hpp:77] Creating layer relu2
I0501 03:30:53.995312 21209 net.cpp:86] Creating Layer relu2
I0501 03:30:53.995316 21209 net.cpp:408] relu2 <- ip2
I0501 03:30:53.995321 21209 net.cpp:369] relu2 -> ip2 (in-place)
I0501 03:30:53.995488 21209 net.cpp:124] Setting up relu2
I0501 03:30:53.995497 21209 net.cpp:131] Top shape: 111 80 (8880)
I0501 03:30:53.995501 21209 net.cpp:139] Memory required for data: 9628140
I0501 03:30:53.995503 21209 layer_factory.hpp:77] Creating layer ip3
I0501 03:30:53.995512 21209 net.cpp:86] Creating Layer ip3
I0501 03:30:53.995517 21209 net.cpp:408] ip3 <- ip2
I0501 03:30:53.995522 21209 net.cpp:382] ip3 -> ip3
I0501 03:30:53.995663 21209 net.cpp:124] Setting up ip3
I0501 03:30:53.995671 21209 net.cpp:131] Top shape: 111 20 (2220)
I0501 03:30:53.995673 21209 net.cpp:139] Memory required for data: 9637020
I0501 03:30:53.995679 21209 layer_factory.hpp:77] Creating layer relu3
I0501 03:30:53.995684 21209 net.cpp:86] Creating Layer relu3
I0501 03:30:53.995687 21209 net.cpp:408] relu3 <- ip3
I0501 03:30:53.995703 21209 net.cpp:369] relu3 -> ip3 (in-place)
I0501 03:30:53.995883 21209 net.cpp:124] Setting up relu3
I0501 03:30:53.995893 21209 net.cpp:131] Top shape: 111 20 (2220)
I0501 03:30:53.995895 21209 net.cpp:139] Memory required for data: 9645900
I0501 03:30:53.995898 21209 layer_factory.hpp:77] Creating layer ip4
I0501 03:30:53.995920 21209 net.cpp:86] Creating Layer ip4
I0501 03:30:53.995925 21209 net.cpp:408] ip4 <- ip3
I0501 03:30:53.995931 21209 net.cpp:382] ip4 -> ip4
I0501 03:30:53.996052 21209 net.cpp:124] Setting up ip4
I0501 03:30:53.996062 21209 net.cpp:131] Top shape: 111 10 (1110)
I0501 03:30:53.996064 21209 net.cpp:139] Memory required for data: 9650340
I0501 03:30:53.996073 21209 layer_factory.hpp:77] Creating layer loss
I0501 03:30:53.996079 21209 net.cpp:86] Creating Layer loss
I0501 03:30:53.996083 21209 net.cpp:408] loss <- ip4
I0501 03:30:53.996086 21209 net.cpp:408] loss <- label
I0501 03:30:53.996091 21209 net.cpp:382] loss -> loss
I0501 03:30:53.996105 21209 layer_factory.hpp:77] Creating layer loss
…
I0501 03:30:53.997429 21209 solver.cpp:173] Creating test net (#0) specified by net file: ECE595/cifar/train_test/var_everything/cifar_train_test_356.prototxt
I0501 03:30:53.997458 21209 net.cpp:296] The NetState phase (1) differed from the phase (0) specified by a rule in layer cifar
I0501 03:30:53.997556 21209 net.cpp:53] Initializing net from parameters: 
name: "CIFAR"
state {
  phase: TEST
}
layer {
  name: "cifar"
  type: "Data"
  top: "data"
  top: "label"
  include {
    phase: TEST
  }
  transform_param {
    mean_file: "examples/cifar10/mean.binaryproto"
  }
  data_param {
    source: "examples/cifar10/cifar10_test_lmdb"
    batch_size: 1000
    backend: LMDB
  }
}
layer {
  name: "conv0"
  type: "Convolution"
  bottom: "data"
  top: "conv0"
  param {
    lr_mult: 1
  }
  param {
    lr_mult: 2
  }
  convolution_param {
    num_output: 8
    pad: 2
    kernel_size: 5
    stride: 1
    weight_filler {
      type: "gaussian"
      std: 0.01
    }
    bias_filler {
      type: "constant"
    }
  }
}
layer {
  name: "Sigmoid0"
  type: "Sigmoid"
  bottom: "conv0"
  top: "Sigmoid0"
}
layer {
  name: "pool0"
  type: "Pooling"
  bottom: "Sigmoid0"
  top: "pool0"
  pooling_param {
    pool: AVE
    kernel_size: 3
    stride: 2
  }
}
layer {
  name: "ip1"
  type: "InnerProduct"
  bottom: "pool0"
  top: "ip1"
  param {
    lr_mult: 1
  }
  param {
    lr_mult: 2
  }
  inner_product_param {
    num_output: 10
    weight_filler {
      type: "gaussian"
      std: 0.01
    }
    bias_filler {
      type: "constant"
    }
  }
}
layer {
  name: "relu1"
  type: "ReLU"
  bottom: "ip1"
  top: "ip1"
}
layer {
  name: "ip2"
  type: "InnerProduct"
  bottom: "ip1"
  top: "ip2"
  param {
    lr_mult: 1
  }
  param {
    lr_mult: 2
  }
  inner_product_param {
    num_output: 80
    weight_filler {
      type: "gaussian"
      std: 0.01
    }
    bias_filler {
      type: "constant"
    }
  }
}
layer {
  name: "relu2"
  type: "ReLU"
  bottom: "ip2"
  top: "ip2"
}
layer {
  name: "ip3"
  type: "InnerProduct"
  bottom: "ip2"
  top: "ip3"
  param {
    lr_mult: 1
  }
  param {
    lr_mult: 2
  }
  inner_product_param {
    num_output: 20
    weight_filler {
      type: "gaussian"
      std: 0.01
    }
    bias_filler {
      type: "constant"
    }
  }
}
layer {
  name: "relu3"
  type: "ReLU"
  bottom: "ip3"
  top: "ip3"
}
layer {
  name: "ip4"
  type: "InnerProduct"
  bottom: "ip3"
  top: "ip4"
  param {
    lr_mult: 1
  }
  param {
    lr_mult: 2
  }
  inner_product_param {
    num_output: 10
    weight_filler {
      type: "gaussian"
      std: 0.01
    }
    bias_filler {
      type: "constant"
    }
  }
}
layer {
  name: "accuracy"
  type: "Accuracy"
  bottom: "ip4"
  bottom: "label"
  top: "accuracy"
  include {
    phase: TEST
  }
}
layer {
  name: "loss"
  type: "SoftmaxWithLoss"
  bottom: "ip4"
  bottom: "label"
  top: "loss"
}
I0501 03:30:53.997647 21209 layer_factory.hpp:77] Creating layer cifar
I0501 03:30:53.997695 21209 db_lmdb.cpp:35] Opened lmdb examples/cifar10/cifar10_test_lmdb
I0501 03:30:53.997710 21209 net.cpp:86] Creating Layer cifar
I0501 03:30:53.997719 21209 net.cpp:382] cifar -> data
I0501 03:30:53.997726 21209 net.cpp:382] cifar -> label
I0501 03:30:53.997735 21209 data_transformer.cpp:25] Loading mean file from: examples/cifar10/mean.binaryproto
I0501 03:30:53.997889 21209 data_layer.cpp:45] output data size: 1000,3,32,32
I0501 03:30:54.021549 21209 net.cpp:124] Setting up cifar
I0501 03:30:54.021575 21209 net.cpp:131] Top shape: 1000 3 32 32 (3072000)
I0501 03:30:54.021580 21209 net.cpp:131] Top shape: 1000 (1000)
I0501 03:30:54.021584 21209 net.cpp:139] Memory required for data: 12292000
I0501 03:30:54.021589 21209 layer_factory.hpp:77] Creating layer label_cifar_1_split
I0501 03:30:54.021602 21209 net.cpp:86] Creating Layer label_cifar_1_split
I0501 03:30:54.021606 21209 net.cpp:408] label_cifar_1_split <- label
I0501 03:30:54.021613 21209 net.cpp:382] label_cifar_1_split -> label_cifar_1_split_0
I0501 03:30:54.021622 21209 net.cpp:382] label_cifar_1_split -> label_cifar_1_split_1
I0501 03:30:54.021737 21209 net.cpp:124] Setting up label_cifar_1_split
I0501 03:30:54.021745 21209 net.cpp:131] Top shape: 1000 (1000)
I0501 03:30:54.021749 21209 net.cpp:131] Top shape: 1000 (1000)
I0501 03:30:54.021751 21209 net.cpp:139] Memory required for data: 12300000
I0501 03:30:54.021755 21209 layer_factory.hpp:77] Creating layer conv0
I0501 03:30:54.021767 21209 net.cpp:86] Creating Layer conv0
I0501 03:30:54.021773 21209 net.cpp:408] conv0 <- data
I0501 03:30:54.021795 21209 net.cpp:382] conv0 -> conv0
I0501 03:30:54.023537 21209 net.cpp:124] Setting up conv0
I0501 03:30:54.023551 21209 net.cpp:131] Top shape: 1000 8 32 32 (8192000)
I0501 03:30:54.023555 21209 net.cpp:139] Memory required for data: 45068000
I0501 03:30:54.023564 21209 layer_factory.hpp:77] Creating layer Sigmoid0
I0501 03:30:54.023571 21209 net.cpp:86] Creating Layer Sigmoid0
I0501 03:30:54.023573 21209 net.cpp:408] Sigmoid0 <- conv0
I0501 03:30:54.023579 21209 net.cpp:382] Sigmoid0 -> Sigmoid0
I0501 03:30:54.023752 21209 net.cpp:124] Setting up Sigmoid0
I0501 03:30:54.023761 21209 net.cpp:131] Top shape: 1000 8 32 32 (8192000)
I0501 03:30:54.023764 21209 net.cpp:139] Memory required for data: 77836000
I0501 03:30:54.023767 21209 layer_factory.hpp:77] Creating layer pool0
I0501 03:30:54.023775 21209 net.cpp:86] Creating Layer pool0
I0501 03:30:54.023779 21209 net.cpp:408] pool0 <- Sigmoid0
I0501 03:30:54.023783 21209 net.cpp:382] pool0 -> pool0
I0501 03:30:54.023948 21209 net.cpp:124] Setting up pool0
I0501 03:30:54.023957 21209 net.cpp:131] Top shape: 1000 8 16 16 (2048000)
I0501 03:30:54.023959 21209 net.cpp:139] Memory required for data: 86028000
I0501 03:30:54.023962 21209 layer_factory.hpp:77] Creating layer ip1
I0501 03:30:54.023970 21209 net.cpp:86] Creating Layer ip1
I0501 03:30:54.023977 21209 net.cpp:408] ip1 <- pool0
I0501 03:30:54.023983 21209 net.cpp:382] ip1 -> ip1
I0501 03:30:54.025216 21209 net.cpp:124] Setting up ip1
I0501 03:30:54.025228 21209 net.cpp:131] Top shape: 1000 10 (10000)
I0501 03:30:54.025230 21209 net.cpp:139] Memory required for data: 86068000
I0501 03:30:54.025252 21209 layer_factory.hpp:77] Creating layer relu1
I0501 03:30:54.025259 21209 net.cpp:86] Creating Layer relu1
I0501 03:30:54.025264 21209 net.cpp:408] relu1 <- ip1
I0501 03:30:54.025267 21209 net.cpp:369] relu1 -> ip1 (in-place)
I0501 03:30:54.025432 21209 net.cpp:124] Setting up relu1
I0501 03:30:54.025441 21209 net.cpp:131] Top shape: 1000 10 (10000)
I0501 03:30:54.025444 21209 net.cpp:139] Memory required for data: 86108000
I0501 03:30:54.025447 21209 layer_factory.hpp:77] Creating layer ip2
I0501 03:30:54.025455 21209 net.cpp:86] Creating Layer ip2
I0501 03:30:54.025462 21209 net.cpp:408] ip2 <- ip1
I0501 03:30:54.025483 21209 net.cpp:382] ip2 -> ip2
I0501 03:30:54.025619 21209 net.cpp:124] Setting up ip2
I0501 03:30:54.025625 21209 net.cpp:131] Top shape: 1000 80 (80000)
I0501 03:30:54.025629 21209 net.cpp:139] Memory required for data: 86428000
I0501 03:30:54.025635 21209 layer_factory.hpp:77] Creating layer relu2
I0501 03:30:54.025642 21209 net.cpp:86] Creating Layer relu2
I0501 03:30:54.025646 21209 net.cpp:408] relu2 <- ip2
I0501 03:30:54.025650 21209 net.cpp:369] relu2 -> ip2 (in-place)
I0501 03:30:54.026407 21209 net.cpp:124] Setting up relu2
I0501 03:30:54.026418 21209 net.cpp:131] Top shape: 1000 80 (80000)
I0501 03:30:54.026422 21209 net.cpp:139] Memory required for data: 86748000
I0501 03:30:54.026425 21209 layer_factory.hpp:77] Creating layer ip3
I0501 03:30:54.026432 21209 net.cpp:86] Creating Layer ip3
I0501 03:30:54.026434 21209 net.cpp:408] ip3 <- ip2
I0501 03:30:54.026440 21209 net.cpp:382] ip3 -> ip3
I0501 03:30:54.026619 21209 net.cpp:124] Setting up ip3
I0501 03:30:54.026626 21209 net.cpp:131] Top shape: 1000 20 (20000)
I0501 03:30:54.026629 21209 net.cpp:139] Memory required for data: 86828000
I0501 03:30:54.026634 21209 layer_factory.hpp:77] Creating layer relu3
I0501 03:30:54.026640 21209 net.cpp:86] Creating Layer relu3
I0501 03:30:54.026645 21209 net.cpp:408] relu3 <- ip3
I0501 03:30:54.026665 21209 net.cpp:369] relu3 -> ip3 (in-place)
I0501 03:30:54.026823 21209 net.cpp:124] Setting up relu3
I0501 03:30:54.026831 21209 net.cpp:131] Top shape: 1000 20 (20000)
I0501 03:30:54.026834 21209 net.cpp:139] Memory required for data: 86908000
I0501 03:30:54.026837 21209 layer_factory.hpp:77] Creating layer ip4
I0501 03:30:54.026845 21209 net.cpp:86] Creating Layer ip4
I0501 03:30:54.026850 21209 net.cpp:408] ip4 <- ip3
I0501 03:30:54.026856 21209 net.cpp:382] ip4 -> ip4
I0501 03:30:54.026975 21209 net.cpp:124] Setting up ip4
I0501 03:30:54.026983 21209 net.cpp:131] Top shape: 1000 10 (10000)
I0501 03:30:54.026986 21209 net.cpp:139] Memory required for data: 86948000
I0501 03:30:54.026994 21209 layer_factory.hpp:77] Creating layer ip4_ip4_0_split
I0501 03:30:54.027001 21209 net.cpp:86] Creating Layer ip4_ip4_0_split
I0501 03:30:54.027004 21209 net.cpp:408] ip4_ip4_0_split <- ip4
I0501 03:30:54.027009 21209 net.cpp:382] ip4_ip4_0_split -> ip4_ip4_0_split_0
I0501 03:30:54.027014 21209 net.cpp:382] ip4_ip4_0_split -> ip4_ip4_0_split_1
I0501 03:30:54.027046 21209 net.cpp:124] Setting up ip4_ip4_0_split
I0501 03:30:54.027052 21209 net.cpp:131] Top shape: 1000 10 (10000)
I0501 03:30:54.027056 21209 net.cpp:131] Top shape: 1000 10 (10000)
I0501 03:30:54.027058 21209 net.cpp:139] Memory required for data: 87028000
I0501 03:30:54.027061 21209 layer_factory.hpp:77] Creating layer accuracy
I0501 03:30:54.027068 21209 net.cpp:86] Creating Layer accuracy
I0501 03:30:54.027074 21209 net.cpp:408] accuracy <- ip4_ip4_0_split_0
I0501 03:30:54.027078 21209 net.cpp:408] accuracy <- label_cifar_1_split_0
I0501 03:30:54.027083 21209 net.cpp:382] accuracy -> accuracy
…
