…
I0430 23:50:10.850484  5686 net.cpp:296] The NetState phase (0) differed from the phase (1) specified by a rule in layer cifar
I0430 23:50:10.850502  5686 net.cpp:296] The NetState phase (0) differed from the phase (1) specified by a rule in layer accuracy
I0430 23:50:10.850607  5686 net.cpp:53] Initializing net from parameters: 
name: "CIFAR"
state {
  phase: TRAIN
  level: 0
  stage: ""
}
layer {
  name: "cifar"
  type: "Data"
  top: "data"
  top: "label"
  include {
    phase: TRAIN
  }
  transform_param {
    mean_file: "examples/cifar10/mean.binaryproto"
  }
  data_param {
    source: "examples/cifar10/cifar10_train_lmdb"
    batch_size: 111
    backend: LMDB
  }
}
layer {
  name: "conv0"
  type: "Convolution"
  bottom: "data"
  top: "conv0"
  param {
    lr_mult: 1
  }
  param {
    lr_mult: 2
  }
  convolution_param {
    num_output: 8
    pad: 2
    kernel_size: 3
    stride: 1
    weight_filler {
      type: "gaussian"
      std: 0.01
    }
    bias_filler {
      type: "constant"
    }
  }
}
layer {
  name: "Sigmoid0"
  type: "Sigmoid"
  bottom: "conv0"
  top: "Sigmoid0"
}
layer {
  name: "pool0"
  type: "Pooling"
  bottom: "Sigmoid0"
  top: "pool0"
  pooling_param {
    pool: AVE
    kernel_size: 3
    stride: 2
  }
}
layer {
  name: "ip1"
  type: "InnerProduct"
  bottom: "pool0"
  top: "ip1"
  param {
    lr_mult: 1
  }
  param {
    lr_mult: 2
  }
  inner_product_param {
    num_output: 40
    weight_filler {
      type: "gaussian"
      std: 0.01
    }
    bias_filler {
      type: "constant"
    }
  }
}
layer {
  name: "relu1"
  type: "ReLU"
  bottom: "ip1"
  top: "ip1"
}
layer {
  name: "ip2"
  type: "InnerProduct"
  bottom: "ip1"
  top: "ip2"
  param {
    lr_mult: 1
  }
  param {
    lr_mult: 2
  }
  inner_product_param {
    num_output: 10
    weight_filler {
      type: "gaussian"
      std: 0.01
    }
    bias_filler {
      type: "constant"
    }
  }
}
layer {
  name: "relu2"
  type: "ReLU"
  bottom: "ip2"
  top: "ip2"
}
layer {
  name: "ip3"
  type: "InnerProduct"
  bottom: "ip2"
  top: "ip3"
  param {
    lr_mult: 1
  }
  param {
    lr_mult: 2
  }
  inner_product_param {
    num_output: 80
    weight_filler {
      type: "gaussian"
      std: 0.01
    }
    bias_filler {
      type: "constant"
    }
  }
}
layer {
  name: "relu3"
  type: "ReLU"
  bottom: "ip3"
  top: "ip3"
}
layer {
  name: "ip4"
  type: "InnerProduct"
  bottom: "ip3"
  top: "ip4"
  param {
    lr_mult: 1
  }
  param {
    lr_mult: 2
  }
  inner_product_param {
    num_output: 10
    weight_filler {
      type: "gaussian"
      std: 0.01
    }
    bias_filler {
      type: "constant"
    }
  }
}
layer {
  name: "loss"
  type: "SoftmaxWithLoss"
  bottom: "ip4"
  bottom: "label"
  top: "loss"
}
I0430 23:50:10.850687  5686 layer_factory.hpp:77] Creating layer cifar
I0430 23:50:10.850781  5686 db_lmdb.cpp:35] Opened lmdb examples/cifar10/cifar10_train_lmdb
I0430 23:50:10.850810  5686 net.cpp:86] Creating Layer cifar
I0430 23:50:10.850821  5686 net.cpp:382] cifar -> data
I0430 23:50:10.850843  5686 net.cpp:382] cifar -> label
I0430 23:50:10.850855  5686 data_transformer.cpp:25] Loading mean file from: examples/cifar10/mean.binaryproto
I0430 23:50:10.852959  5686 data_layer.cpp:45] output data size: 111,3,32,32
I0430 23:50:10.860769  5686 net.cpp:124] Setting up cifar
I0430 23:50:10.860787  5686 net.cpp:131] Top shape: 111 3 32 32 (340992)
I0430 23:50:10.860793  5686 net.cpp:131] Top shape: 111 (111)
I0430 23:50:10.860796  5686 net.cpp:139] Memory required for data: 1364412
I0430 23:50:10.860831  5686 layer_factory.hpp:77] Creating layer conv0
I0430 23:50:10.860852  5686 net.cpp:86] Creating Layer conv0
I0430 23:50:10.860857  5686 net.cpp:408] conv0 <- data
I0430 23:50:10.860869  5686 net.cpp:382] conv0 -> conv0
I0430 23:50:11.147987  5686 net.cpp:124] Setting up conv0
I0430 23:50:11.148015  5686 net.cpp:131] Top shape: 111 8 34 34 (1026528)
I0430 23:50:11.148018  5686 net.cpp:139] Memory required for data: 5470524
I0430 23:50:11.148039  5686 layer_factory.hpp:77] Creating layer Sigmoid0
I0430 23:50:11.148051  5686 net.cpp:86] Creating Layer Sigmoid0
I0430 23:50:11.148056  5686 net.cpp:408] Sigmoid0 <- conv0
I0430 23:50:11.148061  5686 net.cpp:382] Sigmoid0 -> Sigmoid0
I0430 23:50:11.148224  5686 net.cpp:124] Setting up Sigmoid0
I0430 23:50:11.148233  5686 net.cpp:131] Top shape: 111 8 34 34 (1026528)
I0430 23:50:11.148236  5686 net.cpp:139] Memory required for data: 9576636
I0430 23:50:11.148241  5686 layer_factory.hpp:77] Creating layer pool0
I0430 23:50:11.148247  5686 net.cpp:86] Creating Layer pool0
I0430 23:50:11.148249  5686 net.cpp:408] pool0 <- Sigmoid0
I0430 23:50:11.148253  5686 net.cpp:382] pool0 -> pool0
I0430 23:50:11.148967  5686 net.cpp:124] Setting up pool0
I0430 23:50:11.148979  5686 net.cpp:131] Top shape: 111 8 17 17 (256632)
I0430 23:50:11.148983  5686 net.cpp:139] Memory required for data: 10603164
I0430 23:50:11.148986  5686 layer_factory.hpp:77] Creating layer ip1
I0430 23:50:11.148995  5686 net.cpp:86] Creating Layer ip1
I0430 23:50:11.148998  5686 net.cpp:408] ip1 <- pool0
I0430 23:50:11.149003  5686 net.cpp:382] ip1 -> ip1
I0430 23:50:11.151540  5686 net.cpp:124] Setting up ip1
I0430 23:50:11.151546  5686 net.cpp:131] Top shape: 111 40 (4440)
I0430 23:50:11.151549  5686 net.cpp:139] Memory required for data: 10620924
I0430 23:50:11.151556  5686 layer_factory.hpp:77] Creating layer relu1
I0430 23:50:11.151562  5686 net.cpp:86] Creating Layer relu1
I0430 23:50:11.151566  5686 net.cpp:408] relu1 <- ip1
I0430 23:50:11.151569  5686 net.cpp:369] relu1 -> ip1 (in-place)
I0430 23:50:11.151707  5686 net.cpp:124] Setting up relu1
I0430 23:50:11.151715  5686 net.cpp:131] Top shape: 111 40 (4440)
I0430 23:50:11.151717  5686 net.cpp:139] Memory required for data: 10638684
I0430 23:50:11.151721  5686 layer_factory.hpp:77] Creating layer ip2
I0430 23:50:11.151726  5686 net.cpp:86] Creating Layer ip2
I0430 23:50:11.151729  5686 net.cpp:408] ip2 <- ip1
I0430 23:50:11.151734  5686 net.cpp:382] ip2 -> ip2
I0430 23:50:11.152658  5686 net.cpp:124] Setting up ip2
I0430 23:50:11.152669  5686 net.cpp:131] Top shape: 111 10 (1110)
I0430 23:50:11.152673  5686 net.cpp:139] Memory required for data: 10643124
I0430 23:50:11.152681  5686 layer_factory.hpp:77] Creating layer relu2
I0430 23:50:11.152686  5686 net.cpp:86] Creating Layer relu2
I0430 23:50:11.152689  5686 net.cpp:408] relu2 <- ip2
I0430 23:50:11.152694  5686 net.cpp:369] relu2 -> ip2 (in-place)
I0430 23:50:11.152855  5686 net.cpp:124] Setting up relu2
I0430 23:50:11.152879  5686 net.cpp:131] Top shape: 111 10 (1110)
I0430 23:50:11.152884  5686 net.cpp:139] Memory required for data: 10647564
I0430 23:50:11.152886  5686 layer_factory.hpp:77] Creating layer ip3
I0430 23:50:11.152894  5686 net.cpp:86] Creating Layer ip3
I0430 23:50:11.152914  5686 net.cpp:408] ip3 <- ip2
I0430 23:50:11.152918  5686 net.cpp:382] ip3 -> ip3
I0430 23:50:11.153038  5686 net.cpp:124] Setting up ip3
I0430 23:50:11.153045  5686 net.cpp:131] Top shape: 111 80 (8880)
I0430 23:50:11.153048  5686 net.cpp:139] Memory required for data: 10683084
I0430 23:50:11.153054  5686 layer_factory.hpp:77] Creating layer relu3
I0430 23:50:11.153059  5686 net.cpp:86] Creating Layer relu3
I0430 23:50:11.153061  5686 net.cpp:408] relu3 <- ip3
I0430 23:50:11.153065  5686 net.cpp:369] relu3 -> ip3 (in-place)
I0430 23:50:11.153270  5686 net.cpp:124] Setting up relu3
I0430 23:50:11.153277  5686 net.cpp:131] Top shape: 111 80 (8880)
I0430 23:50:11.153280  5686 net.cpp:139] Memory required for data: 10718604
I0430 23:50:11.153282  5686 layer_factory.hpp:77] Creating layer ip4
I0430 23:50:11.153302  5686 net.cpp:86] Creating Layer ip4
I0430 23:50:11.153306  5686 net.cpp:408] ip4 <- ip3
I0430 23:50:11.153311  5686 net.cpp:382] ip4 -> ip4
I0430 23:50:11.153436  5686 net.cpp:124] Setting up ip4
I0430 23:50:11.153443  5686 net.cpp:131] Top shape: 111 10 (1110)
I0430 23:50:11.153446  5686 net.cpp:139] Memory required for data: 10723044
I0430 23:50:11.153453  5686 layer_factory.hpp:77] Creating layer loss
I0430 23:50:11.153460  5686 net.cpp:86] Creating Layer loss
I0430 23:50:11.153461  5686 net.cpp:408] loss <- ip4
I0430 23:50:11.153465  5686 net.cpp:408] loss <- label
I0430 23:50:11.153471  5686 net.cpp:382] loss -> loss
I0430 23:50:11.153483  5686 layer_factory.hpp:77] Creating layer loss
…
I0430 23:50:11.154655  5686 solver.cpp:173] Creating test net (#0) specified by net file: ECE595/cifar/train_test/var_everything/cifar_train_test_238.prototxt
I0430 23:50:11.154682  5686 net.cpp:296] The NetState phase (1) differed from the phase (0) specified by a rule in layer cifar
I0430 23:50:11.154791  5686 net.cpp:53] Initializing net from parameters: 
name: "CIFAR"
state {
  phase: TEST
}
layer {
  name: "cifar"
  type: "Data"
  top: "data"
  top: "label"
  include {
    phase: TEST
  }
  transform_param {
    mean_file: "examples/cifar10/mean.binaryproto"
  }
  data_param {
    source: "examples/cifar10/cifar10_test_lmdb"
    batch_size: 1000
    backend: LMDB
  }
}
layer {
  name: "conv0"
  type: "Convolution"
  bottom: "data"
  top: "conv0"
  param {
    lr_mult: 1
  }
  param {
    lr_mult: 2
  }
  convolution_param {
    num_output: 8
    pad: 2
    kernel_size: 3
    stride: 1
    weight_filler {
      type: "gaussian"
      std: 0.01
    }
    bias_filler {
      type: "constant"
    }
  }
}
layer {
  name: "Sigmoid0"
  type: "Sigmoid"
  bottom: "conv0"
  top: "Sigmoid0"
}
layer {
  name: "pool0"
  type: "Pooling"
  bottom: "Sigmoid0"
  top: "pool0"
  pooling_param {
    pool: AVE
    kernel_size: 3
    stride: 2
  }
}
layer {
  name: "ip1"
  type: "InnerProduct"
  bottom: "pool0"
  top: "ip1"
  param {
    lr_mult: 1
  }
  param {
    lr_mult: 2
  }
  inner_product_param {
    num_output: 40
    weight_filler {
      type: "gaussian"
      std: 0.01
    }
    bias_filler {
      type: "constant"
    }
  }
}
layer {
  name: "relu1"
  type: "ReLU"
  bottom: "ip1"
  top: "ip1"
}
layer {
  name: "ip2"
  type: "InnerProduct"
  bottom: "ip1"
  top: "ip2"
  param {
    lr_mult: 1
  }
  param {
    lr_mult: 2
  }
  inner_product_param {
    num_output: 10
    weight_filler {
      type: "gaussian"
      std: 0.01
    }
    bias_filler {
      type: "constant"
    }
  }
}
layer {
  name: "relu2"
  type: "ReLU"
  bottom: "ip2"
  top: "ip2"
}
layer {
  name: "ip3"
  type: "InnerProduct"
  bottom: "ip2"
  top: "ip3"
  param {
    lr_mult: 1
  }
  param {
    lr_mult: 2
  }
  inner_product_param {
    num_output: 80
    weight_filler {
      type: "gaussian"
      std: 0.01
    }
    bias_filler {
      type: "constant"
    }
  }
}
layer {
  name: "relu3"
  type: "ReLU"
  bottom: "ip3"
  top: "ip3"
}
layer {
  name: "ip4"
  type: "InnerProduct"
  bottom: "ip3"
  top: "ip4"
  param {
    lr_mult: 1
  }
  param {
    lr_mult: 2
  }
  inner_product_param {
    num_output: 10
    weight_filler {
      type: "gaussian"
      std: 0.01
    }
    bias_filler {
      type: "constant"
    }
  }
}
layer {
  name: "accuracy"
  type: "Accuracy"
  bottom: "ip4"
  bottom: "label"
  top: "accuracy"
  include {
    phase: TEST
  }
}
layer {
  name: "loss"
  type: "SoftmaxWithLoss"
  bottom: "ip4"
  bottom: "label"
  top: "loss"
}
I0430 23:50:11.154870  5686 layer_factory.hpp:77] Creating layer cifar
I0430 23:50:11.154911  5686 db_lmdb.cpp:35] Opened lmdb examples/cifar10/cifar10_test_lmdb
I0430 23:50:11.154922  5686 net.cpp:86] Creating Layer cifar
I0430 23:50:11.154928  5686 net.cpp:382] cifar -> data
I0430 23:50:11.154935  5686 net.cpp:382] cifar -> label
I0430 23:50:11.154942  5686 data_transformer.cpp:25] Loading mean file from: examples/cifar10/mean.binaryproto
I0430 23:50:11.155077  5686 data_layer.cpp:45] output data size: 1000,3,32,32
I0430 23:50:11.178000  5686 net.cpp:124] Setting up cifar
I0430 23:50:11.178041  5686 net.cpp:131] Top shape: 1000 3 32 32 (3072000)
I0430 23:50:11.178047  5686 net.cpp:131] Top shape: 1000 (1000)
I0430 23:50:11.178050  5686 net.cpp:139] Memory required for data: 12292000
I0430 23:50:11.178057  5686 layer_factory.hpp:77] Creating layer label_cifar_1_split
I0430 23:50:11.178071  5686 net.cpp:86] Creating Layer label_cifar_1_split
I0430 23:50:11.178074  5686 net.cpp:408] label_cifar_1_split <- label
I0430 23:50:11.178082  5686 net.cpp:382] label_cifar_1_split -> label_cifar_1_split_0
I0430 23:50:11.178107  5686 net.cpp:382] label_cifar_1_split -> label_cifar_1_split_1
I0430 23:50:11.178225  5686 net.cpp:124] Setting up label_cifar_1_split
I0430 23:50:11.178232  5686 net.cpp:131] Top shape: 1000 (1000)
I0430 23:50:11.178236  5686 net.cpp:131] Top shape: 1000 (1000)
I0430 23:50:11.178239  5686 net.cpp:139] Memory required for data: 12300000
I0430 23:50:11.178242  5686 layer_factory.hpp:77] Creating layer conv0
I0430 23:50:11.178256  5686 net.cpp:86] Creating Layer conv0
I0430 23:50:11.178259  5686 net.cpp:408] conv0 <- data
I0430 23:50:11.178267  5686 net.cpp:382] conv0 -> conv0
I0430 23:50:11.179862  5686 net.cpp:124] Setting up conv0
I0430 23:50:11.179889  5686 net.cpp:131] Top shape: 1000 8 34 34 (9248000)
I0430 23:50:11.179893  5686 net.cpp:139] Memory required for data: 49292000
I0430 23:50:11.179903  5686 layer_factory.hpp:77] Creating layer Sigmoid0
I0430 23:50:11.179909  5686 net.cpp:86] Creating Layer Sigmoid0
I0430 23:50:11.179913  5686 net.cpp:408] Sigmoid0 <- conv0
I0430 23:50:11.179919  5686 net.cpp:382] Sigmoid0 -> Sigmoid0
I0430 23:50:11.181150  5686 net.cpp:124] Setting up Sigmoid0
I0430 23:50:11.181164  5686 net.cpp:131] Top shape: 1000 8 34 34 (9248000)
I0430 23:50:11.181169  5686 net.cpp:139] Memory required for data: 86284000
I0430 23:50:11.181188  5686 layer_factory.hpp:77] Creating layer pool0
I0430 23:50:11.181213  5686 net.cpp:86] Creating Layer pool0
I0430 23:50:11.181216  5686 net.cpp:408] pool0 <- Sigmoid0
I0430 23:50:11.181236  5686 net.cpp:382] pool0 -> pool0
I0430 23:50:11.181417  5686 net.cpp:124] Setting up pool0
I0430 23:50:11.181430  5686 net.cpp:131] Top shape: 1000 8 17 17 (2312000)
I0430 23:50:11.181433  5686 net.cpp:139] Memory required for data: 95532000
I0430 23:50:11.181437  5686 layer_factory.hpp:77] Creating layer ip1
I0430 23:50:11.181444  5686 net.cpp:86] Creating Layer ip1
I0430 23:50:11.181447  5686 net.cpp:408] ip1 <- pool0
I0430 23:50:11.181453  5686 net.cpp:382] ip1 -> ip1
I0430 23:50:11.184175  5686 net.cpp:124] Setting up ip1
I0430 23:50:11.184181  5686 net.cpp:131] Top shape: 1000 40 (40000)
I0430 23:50:11.184198  5686 net.cpp:139] Memory required for data: 95692000
I0430 23:50:11.184222  5686 layer_factory.hpp:77] Creating layer relu1
I0430 23:50:11.184228  5686 net.cpp:86] Creating Layer relu1
I0430 23:50:11.184231  5686 net.cpp:408] relu1 <- ip1
I0430 23:50:11.184236  5686 net.cpp:369] relu1 -> ip1 (in-place)
I0430 23:50:11.184417  5686 net.cpp:124] Setting up relu1
I0430 23:50:11.184425  5686 net.cpp:131] Top shape: 1000 40 (40000)
I0430 23:50:11.184428  5686 net.cpp:139] Memory required for data: 95852000
I0430 23:50:11.184432  5686 layer_factory.hpp:77] Creating layer ip2
I0430 23:50:11.184437  5686 net.cpp:86] Creating Layer ip2
I0430 23:50:11.184440  5686 net.cpp:408] ip2 <- ip1
I0430 23:50:11.184447  5686 net.cpp:382] ip2 -> ip2
I0430 23:50:11.184562  5686 net.cpp:124] Setting up ip2
I0430 23:50:11.184569  5686 net.cpp:131] Top shape: 1000 10 (10000)
I0430 23:50:11.184572  5686 net.cpp:139] Memory required for data: 95892000
I0430 23:50:11.184579  5686 layer_factory.hpp:77] Creating layer relu2
I0430 23:50:11.184586  5686 net.cpp:86] Creating Layer relu2
I0430 23:50:11.184588  5686 net.cpp:408] relu2 <- ip2
I0430 23:50:11.184593  5686 net.cpp:369] relu2 -> ip2 (in-place)
I0430 23:50:11.185370  5686 net.cpp:124] Setting up relu2
I0430 23:50:11.185382  5686 net.cpp:131] Top shape: 1000 10 (10000)
I0430 23:50:11.185400  5686 net.cpp:139] Memory required for data: 95932000
I0430 23:50:11.185403  5686 layer_factory.hpp:77] Creating layer ip3
I0430 23:50:11.185411  5686 net.cpp:86] Creating Layer ip3
I0430 23:50:11.185415  5686 net.cpp:408] ip3 <- ip2
I0430 23:50:11.185420  5686 net.cpp:382] ip3 -> ip3
I0430 23:50:11.185573  5686 net.cpp:124] Setting up ip3
I0430 23:50:11.185581  5686 net.cpp:131] Top shape: 1000 80 (80000)
I0430 23:50:11.185585  5686 net.cpp:139] Memory required for data: 96252000
I0430 23:50:11.185590  5686 layer_factory.hpp:77] Creating layer relu3
I0430 23:50:11.185596  5686 net.cpp:86] Creating Layer relu3
I0430 23:50:11.185600  5686 net.cpp:408] relu3 <- ip3
I0430 23:50:11.185606  5686 net.cpp:369] relu3 -> ip3 (in-place)
I0430 23:50:11.185760  5686 net.cpp:124] Setting up relu3
I0430 23:50:11.185768  5686 net.cpp:131] Top shape: 1000 80 (80000)
I0430 23:50:11.185772  5686 net.cpp:139] Memory required for data: 96572000
I0430 23:50:11.185775  5686 layer_factory.hpp:77] Creating layer ip4
I0430 23:50:11.185782  5686 net.cpp:86] Creating Layer ip4
I0430 23:50:11.185786  5686 net.cpp:408] ip4 <- ip3
I0430 23:50:11.185791  5686 net.cpp:382] ip4 -> ip4
I0430 23:50:11.185914  5686 net.cpp:124] Setting up ip4
I0430 23:50:11.185920  5686 net.cpp:131] Top shape: 1000 10 (10000)
I0430 23:50:11.185923  5686 net.cpp:139] Memory required for data: 96612000
I0430 23:50:11.185931  5686 layer_factory.hpp:77] Creating layer ip4_ip4_0_split
I0430 23:50:11.185937  5686 net.cpp:86] Creating Layer ip4_ip4_0_split
I0430 23:50:11.185940  5686 net.cpp:408] ip4_ip4_0_split <- ip4
I0430 23:50:11.185945  5686 net.cpp:382] ip4_ip4_0_split -> ip4_ip4_0_split_0
I0430 23:50:11.185950  5686 net.cpp:382] ip4_ip4_0_split -> ip4_ip4_0_split_1
I0430 23:50:11.185982  5686 net.cpp:124] Setting up ip4_ip4_0_split
I0430 23:50:11.185989  5686 net.cpp:131] Top shape: 1000 10 (10000)
I0430 23:50:11.185993  5686 net.cpp:131] Top shape: 1000 10 (10000)
I0430 23:50:11.185995  5686 net.cpp:139] Memory required for data: 96692000
I0430 23:50:11.185998  5686 layer_factory.hpp:77] Creating layer accuracy
I0430 23:50:11.186007  5686 net.cpp:86] Creating Layer accuracy
I0430 23:50:11.186009  5686 net.cpp:408] accuracy <- ip4_ip4_0_split_0
I0430 23:50:11.186013  5686 net.cpp:408] accuracy <- label_cifar_1_split_0
I0430 23:50:11.186017  5686 net.cpp:382] accuracy -> accuracy
…
