…
I0430 21:49:59.598255 31767 net.cpp:296] The NetState phase (0) differed from the phase (1) specified by a rule in layer cifar
I0430 21:49:59.598273 31767 net.cpp:296] The NetState phase (0) differed from the phase (1) specified by a rule in layer accuracy
I0430 21:49:59.598364 31767 net.cpp:53] Initializing net from parameters: 
name: "CIFAR"
state {
  phase: TRAIN
  level: 0
  stage: ""
}
layer {
  name: "cifar"
  type: "Data"
  top: "data"
  top: "label"
  include {
    phase: TRAIN
  }
  transform_param {
    mean_file: "examples/cifar10/mean.binaryproto"
  }
  data_param {
    source: "examples/cifar10/cifar10_train_lmdb"
    batch_size: 111
    backend: LMDB
  }
}
layer {
  name: "conv0"
  type: "Convolution"
  bottom: "data"
  top: "conv0"
  param {
    lr_mult: 1
  }
  param {
    lr_mult: 2
  }
  convolution_param {
    num_output: 8
    pad: 2
    kernel_size: 3
    stride: 1
    weight_filler {
      type: "gaussian"
      std: 0.01
    }
    bias_filler {
      type: "constant"
    }
  }
}
layer {
  name: "Sigmoid0"
  type: "Sigmoid"
  bottom: "conv0"
  top: "Sigmoid0"
}
layer {
  name: "pool0"
  type: "Pooling"
  bottom: "Sigmoid0"
  top: "pool0"
  pooling_param {
    pool: AVE
    kernel_size: 3
    stride: 2
  }
}
layer {
  name: "ip1"
  type: "InnerProduct"
  bottom: "pool0"
  top: "ip1"
  param {
    lr_mult: 1
  }
  param {
    lr_mult: 2
  }
  inner_product_param {
    num_output: 40
    weight_filler {
      type: "gaussian"
      std: 0.01
    }
    bias_filler {
      type: "constant"
    }
  }
}
layer {
  name: "relu1"
  type: "ReLU"
  bottom: "ip1"
  top: "ip1"
}
layer {
  name: "ip2"
  type: "InnerProduct"
  bottom: "ip1"
  top: "ip2"
  param {
    lr_mult: 1
  }
  param {
    lr_mult: 2
  }
  inner_product_param {
    num_output: 160
    weight_filler {
      type: "gaussian"
      std: 0.01
    }
    bias_filler {
      type: "constant"
    }
  }
}
layer {
  name: "relu2"
  type: "ReLU"
  bottom: "ip2"
  top: "ip2"
}
layer {
  name: "ip3"
  type: "InnerProduct"
  bottom: "ip2"
  top: "ip3"
  param {
    lr_mult: 1
  }
  param {
    lr_mult: 2
  }
  inner_product_param {
    num_output: 10
    weight_filler {
      type: "gaussian"
      std: 0.01
    }
    bias_filler {
      type: "constant"
    }
  }
}
layer {
  name: "loss"
  type: "SoftmaxWithLoss"
  bottom: "ip3"
  bottom: "label"
  top: "loss"
}
I0430 21:49:59.598438 31767 layer_factory.hpp:77] Creating layer cifar
I0430 21:49:59.598543 31767 db_lmdb.cpp:35] Opened lmdb examples/cifar10/cifar10_train_lmdb
I0430 21:49:59.598572 31767 net.cpp:86] Creating Layer cifar
I0430 21:49:59.598580 31767 net.cpp:382] cifar -> data
I0430 21:49:59.598604 31767 net.cpp:382] cifar -> label
I0430 21:49:59.598618 31767 data_transformer.cpp:25] Loading mean file from: examples/cifar10/mean.binaryproto
I0430 21:49:59.600739 31767 data_layer.cpp:45] output data size: 111,3,32,32
I0430 21:49:59.608584 31767 net.cpp:124] Setting up cifar
I0430 21:49:59.608603 31767 net.cpp:131] Top shape: 111 3 32 32 (340992)
I0430 21:49:59.608610 31767 net.cpp:131] Top shape: 111 (111)
I0430 21:49:59.608613 31767 net.cpp:139] Memory required for data: 1364412
I0430 21:49:59.608621 31767 layer_factory.hpp:77] Creating layer conv0
I0430 21:49:59.608644 31767 net.cpp:86] Creating Layer conv0
I0430 21:49:59.608652 31767 net.cpp:408] conv0 <- data
I0430 21:49:59.608664 31767 net.cpp:382] conv0 -> conv0
I0430 21:49:59.889529 31767 net.cpp:124] Setting up conv0
I0430 21:49:59.889574 31767 net.cpp:131] Top shape: 111 8 34 34 (1026528)
I0430 21:49:59.889578 31767 net.cpp:139] Memory required for data: 5470524
I0430 21:49:59.889593 31767 layer_factory.hpp:77] Creating layer Sigmoid0
I0430 21:49:59.889605 31767 net.cpp:86] Creating Layer Sigmoid0
I0430 21:49:59.889609 31767 net.cpp:408] Sigmoid0 <- conv0
I0430 21:49:59.889614 31767 net.cpp:382] Sigmoid0 -> Sigmoid0
I0430 21:49:59.889788 31767 net.cpp:124] Setting up Sigmoid0
I0430 21:49:59.889798 31767 net.cpp:131] Top shape: 111 8 34 34 (1026528)
I0430 21:49:59.889801 31767 net.cpp:139] Memory required for data: 9576636
I0430 21:49:59.889804 31767 layer_factory.hpp:77] Creating layer pool0
I0430 21:49:59.889812 31767 net.cpp:86] Creating Layer pool0
I0430 21:49:59.889816 31767 net.cpp:408] pool0 <- Sigmoid0
I0430 21:49:59.889819 31767 net.cpp:382] pool0 -> pool0
I0430 21:49:59.890547 31767 net.cpp:124] Setting up pool0
I0430 21:49:59.890561 31767 net.cpp:131] Top shape: 111 8 17 17 (256632)
I0430 21:49:59.890564 31767 net.cpp:139] Memory required for data: 10603164
I0430 21:49:59.890568 31767 layer_factory.hpp:77] Creating layer ip1
I0430 21:49:59.890576 31767 net.cpp:86] Creating Layer ip1
I0430 21:49:59.890580 31767 net.cpp:408] ip1 <- pool0
I0430 21:49:59.890585 31767 net.cpp:382] ip1 -> ip1
I0430 21:49:59.893257 31767 net.cpp:124] Setting up ip1
I0430 21:49:59.893266 31767 net.cpp:131] Top shape: 111 40 (4440)
I0430 21:49:59.893270 31767 net.cpp:139] Memory required for data: 10620924
I0430 21:49:59.893277 31767 layer_factory.hpp:77] Creating layer relu1
I0430 21:49:59.893282 31767 net.cpp:86] Creating Layer relu1
I0430 21:49:59.893286 31767 net.cpp:408] relu1 <- ip1
I0430 21:49:59.893290 31767 net.cpp:369] relu1 -> ip1 (in-place)
I0430 21:49:59.893434 31767 net.cpp:124] Setting up relu1
I0430 21:49:59.893441 31767 net.cpp:131] Top shape: 111 40 (4440)
I0430 21:49:59.893445 31767 net.cpp:139] Memory required for data: 10638684
I0430 21:49:59.893447 31767 layer_factory.hpp:77] Creating layer ip2
I0430 21:49:59.893453 31767 net.cpp:86] Creating Layer ip2
I0430 21:49:59.893457 31767 net.cpp:408] ip2 <- ip1
I0430 21:49:59.893461 31767 net.cpp:382] ip2 -> ip2
I0430 21:49:59.894553 31767 net.cpp:124] Setting up ip2
I0430 21:49:59.894565 31767 net.cpp:131] Top shape: 111 160 (17760)
I0430 21:49:59.894569 31767 net.cpp:139] Memory required for data: 10709724
I0430 21:49:59.894577 31767 layer_factory.hpp:77] Creating layer relu2
I0430 21:49:59.894583 31767 net.cpp:86] Creating Layer relu2
I0430 21:49:59.894587 31767 net.cpp:408] relu2 <- ip2
I0430 21:49:59.894590 31767 net.cpp:369] relu2 -> ip2 (in-place)
I0430 21:49:59.894745 31767 net.cpp:124] Setting up relu2
I0430 21:49:59.894754 31767 net.cpp:131] Top shape: 111 160 (17760)
I0430 21:49:59.894757 31767 net.cpp:139] Memory required for data: 10780764
I0430 21:49:59.894760 31767 layer_factory.hpp:77] Creating layer ip3
I0430 21:49:59.894768 31767 net.cpp:86] Creating Layer ip3
I0430 21:49:59.894771 31767 net.cpp:408] ip3 <- ip2
I0430 21:49:59.894776 31767 net.cpp:382] ip3 -> ip3
I0430 21:49:59.894911 31767 net.cpp:124] Setting up ip3
I0430 21:49:59.894918 31767 net.cpp:131] Top shape: 111 10 (1110)
I0430 21:49:59.894922 31767 net.cpp:139] Memory required for data: 10785204
I0430 21:49:59.894927 31767 layer_factory.hpp:77] Creating layer loss
I0430 21:49:59.894932 31767 net.cpp:86] Creating Layer loss
I0430 21:49:59.894934 31767 net.cpp:408] loss <- ip3
I0430 21:49:59.894938 31767 net.cpp:408] loss <- label
I0430 21:49:59.894944 31767 net.cpp:382] loss -> loss
I0430 21:49:59.894958 31767 layer_factory.hpp:77] Creating layer loss
…
I0430 21:49:59.895547 31767 solver.cpp:173] Creating test net (#0) specified by net file: ECE595/cifar/train_test/var_everything/cifar_train_test_174.prototxt
I0430 21:49:59.895572 31767 net.cpp:296] The NetState phase (1) differed from the phase (0) specified by a rule in layer cifar
I0430 21:49:59.895656 31767 net.cpp:53] Initializing net from parameters: 
name: "CIFAR"
state {
  phase: TEST
}
layer {
  name: "cifar"
  type: "Data"
  top: "data"
  top: "label"
  include {
    phase: TEST
  }
  transform_param {
    mean_file: "examples/cifar10/mean.binaryproto"
  }
  data_param {
    source: "examples/cifar10/cifar10_test_lmdb"
    batch_size: 1000
    backend: LMDB
  }
}
layer {
  name: "conv0"
  type: "Convolution"
  bottom: "data"
  top: "conv0"
  param {
    lr_mult: 1
  }
  param {
    lr_mult: 2
  }
  convolution_param {
    num_output: 8
    pad: 2
    kernel_size: 3
    stride: 1
    weight_filler {
      type: "gaussian"
      std: 0.01
    }
    bias_filler {
      type: "constant"
    }
  }
}
layer {
  name: "Sigmoid0"
  type: "Sigmoid"
  bottom: "conv0"
  top: "Sigmoid0"
}
layer {
  name: "pool0"
  type: "Pooling"
  bottom: "Sigmoid0"
  top: "pool0"
  pooling_param {
    pool: AVE
    kernel_size: 3
    stride: 2
  }
}
layer {
  name: "ip1"
  type: "InnerProduct"
  bottom: "pool0"
  top: "ip1"
  param {
    lr_mult: 1
  }
  param {
    lr_mult: 2
  }
  inner_product_param {
    num_output: 40
    weight_filler {
      type: "gaussian"
      std: 0.01
    }
    bias_filler {
      type: "constant"
    }
  }
}
layer {
  name: "relu1"
  type: "ReLU"
  bottom: "ip1"
  top: "ip1"
}
layer {
  name: "ip2"
  type: "InnerProduct"
  bottom: "ip1"
  top: "ip2"
  param {
    lr_mult: 1
  }
  param {
    lr_mult: 2
  }
  inner_product_param {
    num_output: 160
    weight_filler {
      type: "gaussian"
      std: 0.01
    }
    bias_filler {
      type: "constant"
    }
  }
}
layer {
  name: "relu2"
  type: "ReLU"
  bottom: "ip2"
  top: "ip2"
}
layer {
  name: "ip3"
  type: "InnerProduct"
  bottom: "ip2"
  top: "ip3"
  param {
    lr_mult: 1
  }
  param {
    lr_mult: 2
  }
  inner_product_param {
    num_output: 10
    weight_filler {
      type: "gaussian"
      std: 0.01
    }
    bias_filler {
      type: "constant"
    }
  }
}
layer {
  name: "accuracy"
  type: "Accuracy"
  bottom: "ip3"
  bottom: "label"
  top: "accuracy"
  include {
    phase: TEST
  }
}
layer {
  name: "loss"
  type: "SoftmaxWithLoss"
  bottom: "ip3"
  bottom: "label"
  top: "loss"
}
I0430 21:49:59.895719 31767 layer_factory.hpp:77] Creating layer cifar
I0430 21:49:59.895761 31767 db_lmdb.cpp:35] Opened lmdb examples/cifar10/cifar10_test_lmdb
I0430 21:49:59.895774 31767 net.cpp:86] Creating Layer cifar
I0430 21:49:59.895781 31767 net.cpp:382] cifar -> data
I0430 21:49:59.895788 31767 net.cpp:382] cifar -> label
I0430 21:49:59.895795 31767 data_transformer.cpp:25] Loading mean file from: examples/cifar10/mean.binaryproto
I0430 21:49:59.895936 31767 data_layer.cpp:45] output data size: 1000,3,32,32
I0430 21:49:59.918664 31767 net.cpp:124] Setting up cifar
I0430 21:49:59.918690 31767 net.cpp:131] Top shape: 1000 3 32 32 (3072000)
I0430 21:49:59.918695 31767 net.cpp:131] Top shape: 1000 (1000)
I0430 21:49:59.918699 31767 net.cpp:139] Memory required for data: 12292000
I0430 21:49:59.918704 31767 layer_factory.hpp:77] Creating layer label_cifar_1_split
I0430 21:49:59.918716 31767 net.cpp:86] Creating Layer label_cifar_1_split
I0430 21:49:59.918738 31767 net.cpp:408] label_cifar_1_split <- label
I0430 21:49:59.918745 31767 net.cpp:382] label_cifar_1_split -> label_cifar_1_split_0
I0430 21:49:59.918753 31767 net.cpp:382] label_cifar_1_split -> label_cifar_1_split_1
I0430 21:49:59.918849 31767 net.cpp:124] Setting up label_cifar_1_split
I0430 21:49:59.918858 31767 net.cpp:131] Top shape: 1000 (1000)
I0430 21:49:59.918861 31767 net.cpp:131] Top shape: 1000 (1000)
I0430 21:49:59.918864 31767 net.cpp:139] Memory required for data: 12300000
I0430 21:49:59.918867 31767 layer_factory.hpp:77] Creating layer conv0
I0430 21:49:59.918879 31767 net.cpp:86] Creating Layer conv0
I0430 21:49:59.918885 31767 net.cpp:408] conv0 <- data
I0430 21:49:59.918905 31767 net.cpp:382] conv0 -> conv0
I0430 21:49:59.920411 31767 net.cpp:124] Setting up conv0
I0430 21:49:59.920441 31767 net.cpp:131] Top shape: 1000 8 34 34 (9248000)
I0430 21:49:59.920444 31767 net.cpp:139] Memory required for data: 49292000
I0430 21:49:59.920454 31767 layer_factory.hpp:77] Creating layer Sigmoid0
I0430 21:49:59.920461 31767 net.cpp:86] Creating Layer Sigmoid0
I0430 21:49:59.920464 31767 net.cpp:408] Sigmoid0 <- conv0
I0430 21:49:59.920469 31767 net.cpp:382] Sigmoid0 -> Sigmoid0
I0430 21:49:59.921368 31767 net.cpp:124] Setting up Sigmoid0
I0430 21:49:59.921380 31767 net.cpp:131] Top shape: 1000 8 34 34 (9248000)
I0430 21:49:59.921399 31767 net.cpp:139] Memory required for data: 86284000
I0430 21:49:59.921403 31767 layer_factory.hpp:77] Creating layer pool0
I0430 21:49:59.921411 31767 net.cpp:86] Creating Layer pool0
I0430 21:49:59.921416 31767 net.cpp:408] pool0 <- Sigmoid0
I0430 21:49:59.921421 31767 net.cpp:382] pool0 -> pool0
I0430 21:49:59.922561 31767 net.cpp:124] Setting up pool0
I0430 21:49:59.922570 31767 net.cpp:131] Top shape: 1000 8 17 17 (2312000)
I0430 21:49:59.922590 31767 net.cpp:139] Memory required for data: 95532000
I0430 21:49:59.922592 31767 layer_factory.hpp:77] Creating layer ip1
I0430 21:49:59.922600 31767 net.cpp:86] Creating Layer ip1
I0430 21:49:59.922605 31767 net.cpp:408] ip1 <- pool0
I0430 21:49:59.922610 31767 net.cpp:382] ip1 -> ip1
I0430 21:49:59.925230 31767 net.cpp:124] Setting up ip1
I0430 21:49:59.925237 31767 net.cpp:131] Top shape: 1000 40 (40000)
I0430 21:49:59.925240 31767 net.cpp:139] Memory required for data: 95692000
I0430 21:49:59.925263 31767 layer_factory.hpp:77] Creating layer relu1
I0430 21:49:59.925269 31767 net.cpp:86] Creating Layer relu1
I0430 21:49:59.925272 31767 net.cpp:408] relu1 <- ip1
I0430 21:49:59.925276 31767 net.cpp:369] relu1 -> ip1 (in-place)
I0430 21:49:59.925423 31767 net.cpp:124] Setting up relu1
I0430 21:49:59.925431 31767 net.cpp:131] Top shape: 1000 40 (40000)
I0430 21:49:59.925436 31767 net.cpp:139] Memory required for data: 95852000
I0430 21:49:59.925439 31767 layer_factory.hpp:77] Creating layer ip2
I0430 21:49:59.925446 31767 net.cpp:86] Creating Layer ip2
I0430 21:49:59.925448 31767 net.cpp:408] ip2 <- ip1
I0430 21:49:59.925453 31767 net.cpp:382] ip2 -> ip2
I0430 21:49:59.925714 31767 net.cpp:124] Setting up ip2
I0430 21:49:59.925722 31767 net.cpp:131] Top shape: 1000 160 (160000)
I0430 21:49:59.925741 31767 net.cpp:139] Memory required for data: 96492000
I0430 21:49:59.925748 31767 layer_factory.hpp:77] Creating layer relu2
I0430 21:49:59.925755 31767 net.cpp:86] Creating Layer relu2
I0430 21:49:59.925757 31767 net.cpp:408] relu2 <- ip2
I0430 21:49:59.925761 31767 net.cpp:369] relu2 -> ip2 (in-place)
I0430 21:49:59.925920 31767 net.cpp:124] Setting up relu2
I0430 21:49:59.925927 31767 net.cpp:131] Top shape: 1000 160 (160000)
I0430 21:49:59.925931 31767 net.cpp:139] Memory required for data: 97132000
I0430 21:49:59.925935 31767 layer_factory.hpp:77] Creating layer ip3
I0430 21:49:59.925940 31767 net.cpp:86] Creating Layer ip3
I0430 21:49:59.925945 31767 net.cpp:408] ip3 <- ip2
I0430 21:49:59.925950 31767 net.cpp:382] ip3 -> ip3
I0430 21:49:59.926111 31767 net.cpp:124] Setting up ip3
I0430 21:49:59.926118 31767 net.cpp:131] Top shape: 1000 10 (10000)
I0430 21:49:59.926121 31767 net.cpp:139] Memory required for data: 97172000
I0430 21:49:59.926137 31767 layer_factory.hpp:77] Creating layer ip3_ip3_0_split
I0430 21:49:59.926142 31767 net.cpp:86] Creating Layer ip3_ip3_0_split
I0430 21:49:59.926146 31767 net.cpp:408] ip3_ip3_0_split <- ip3
I0430 21:49:59.926151 31767 net.cpp:382] ip3_ip3_0_split -> ip3_ip3_0_split_0
I0430 21:49:59.926156 31767 net.cpp:382] ip3_ip3_0_split -> ip3_ip3_0_split_1
I0430 21:49:59.926187 31767 net.cpp:124] Setting up ip3_ip3_0_split
I0430 21:49:59.926192 31767 net.cpp:131] Top shape: 1000 10 (10000)
I0430 21:49:59.926194 31767 net.cpp:131] Top shape: 1000 10 (10000)
I0430 21:49:59.926198 31767 net.cpp:139] Memory required for data: 97252000
I0430 21:49:59.926200 31767 layer_factory.hpp:77] Creating layer accuracy
I0430 21:49:59.926206 31767 net.cpp:86] Creating Layer accuracy
I0430 21:49:59.926208 31767 net.cpp:408] accuracy <- ip3_ip3_0_split_0
I0430 21:49:59.926213 31767 net.cpp:408] accuracy <- label_cifar_1_split_0
I0430 21:49:59.926216 31767 net.cpp:382] accuracy -> accuracy
…
