…
I0501 01:59:35.230783 13145 net.cpp:296] The NetState phase (0) differed from the phase (1) specified by a rule in layer cifar
I0501 01:59:35.230800 13145 net.cpp:296] The NetState phase (0) differed from the phase (1) specified by a rule in layer accuracy
I0501 01:59:35.230887 13145 net.cpp:53] Initializing net from parameters: 
name: "CIFAR"
state {
  phase: TRAIN
  level: 0
  stage: ""
}
layer {
  name: "cifar"
  type: "Data"
  top: "data"
  top: "label"
  include {
    phase: TRAIN
  }
  transform_param {
    mean_file: "examples/cifar10/mean.binaryproto"
  }
  data_param {
    source: "examples/cifar10/cifar10_train_lmdb"
    batch_size: 111
    backend: LMDB
  }
}
layer {
  name: "conv0"
  type: "Convolution"
  bottom: "data"
  top: "conv0"
  param {
    lr_mult: 1
  }
  param {
    lr_mult: 2
  }
  convolution_param {
    num_output: 8
    pad: 2
    kernel_size: 3
    stride: 1
    weight_filler {
      type: "gaussian"
      std: 0.01
    }
    bias_filler {
      type: "constant"
    }
  }
}
layer {
  name: "Sigmoid0"
  type: "Sigmoid"
  bottom: "conv0"
  top: "Sigmoid0"
}
layer {
  name: "pool0"
  type: "Pooling"
  bottom: "Sigmoid0"
  top: "pool0"
  pooling_param {
    pool: AVE
    kernel_size: 3
    stride: 2
  }
}
layer {
  name: "ip1"
  type: "InnerProduct"
  bottom: "pool0"
  top: "ip1"
  param {
    lr_mult: 1
  }
  param {
    lr_mult: 2
  }
  inner_product_param {
    num_output: 160
    weight_filler {
      type: "gaussian"
      std: 0.01
    }
    bias_filler {
      type: "constant"
    }
  }
}
layer {
  name: "relu1"
  type: "ReLU"
  bottom: "ip1"
  top: "ip1"
}
layer {
  name: "ip2"
  type: "InnerProduct"
  bottom: "ip1"
  top: "ip2"
  param {
    lr_mult: 1
  }
  param {
    lr_mult: 2
  }
  inner_product_param {
    num_output: 160
    weight_filler {
      type: "gaussian"
      std: 0.01
    }
    bias_filler {
      type: "constant"
    }
  }
}
layer {
  name: "relu2"
  type: "ReLU"
  bottom: "ip2"
  top: "ip2"
}
layer {
  name: "ip3"
  type: "InnerProduct"
  bottom: "ip2"
  top: "ip3"
  param {
    lr_mult: 1
  }
  param {
    lr_mult: 2
  }
  inner_product_param {
    num_output: 40
    weight_filler {
      type: "gaussian"
      std: 0.01
    }
    bias_filler {
      type: "constant"
    }
  }
}
layer {
  name: "relu3"
  type: "ReLU"
  bottom: "ip3"
  top: "ip3"
}
layer {
  name: "ip4"
  type: "InnerProduct"
  bottom: "ip3"
  top: "ip4"
  param {
    lr_mult: 1
  }
  param {
    lr_mult: 2
  }
  inner_product_param {
    num_output: 10
    weight_filler {
      type: "gaussian"
      std: 0.01
    }
    bias_filler {
      type: "constant"
    }
  }
}
layer {
  name: "loss"
  type: "SoftmaxWithLoss"
  bottom: "ip4"
  bottom: "label"
  top: "loss"
}
I0501 01:59:35.230968 13145 layer_factory.hpp:77] Creating layer cifar
I0501 01:59:35.231051 13145 db_lmdb.cpp:35] Opened lmdb examples/cifar10/cifar10_train_lmdb
I0501 01:59:35.231075 13145 net.cpp:86] Creating Layer cifar
I0501 01:59:35.231082 13145 net.cpp:382] cifar -> data
I0501 01:59:35.231101 13145 net.cpp:382] cifar -> label
I0501 01:59:35.231111 13145 data_transformer.cpp:25] Loading mean file from: examples/cifar10/mean.binaryproto
I0501 01:59:35.232964 13145 data_layer.cpp:45] output data size: 111,3,32,32
I0501 01:59:35.240062 13145 net.cpp:124] Setting up cifar
I0501 01:59:35.240078 13145 net.cpp:131] Top shape: 111 3 32 32 (340992)
I0501 01:59:35.240082 13145 net.cpp:131] Top shape: 111 (111)
I0501 01:59:35.240085 13145 net.cpp:139] Memory required for data: 1364412
I0501 01:59:35.240104 13145 layer_factory.hpp:77] Creating layer conv0
I0501 01:59:35.240119 13145 net.cpp:86] Creating Layer conv0
I0501 01:59:35.240139 13145 net.cpp:408] conv0 <- data
I0501 01:59:35.240149 13145 net.cpp:382] conv0 -> conv0
I0501 01:59:35.475002 13145 net.cpp:124] Setting up conv0
I0501 01:59:35.475042 13145 net.cpp:131] Top shape: 111 8 34 34 (1026528)
I0501 01:59:35.475046 13145 net.cpp:139] Memory required for data: 5470524
I0501 01:59:35.475061 13145 layer_factory.hpp:77] Creating layer Sigmoid0
I0501 01:59:35.475073 13145 net.cpp:86] Creating Layer Sigmoid0
I0501 01:59:35.475077 13145 net.cpp:408] Sigmoid0 <- conv0
I0501 01:59:35.475082 13145 net.cpp:382] Sigmoid0 -> Sigmoid0
I0501 01:59:35.475271 13145 net.cpp:124] Setting up Sigmoid0
I0501 01:59:35.475281 13145 net.cpp:131] Top shape: 111 8 34 34 (1026528)
I0501 01:59:35.475284 13145 net.cpp:139] Memory required for data: 9576636
I0501 01:59:35.475286 13145 layer_factory.hpp:77] Creating layer pool0
I0501 01:59:35.475294 13145 net.cpp:86] Creating Layer pool0
I0501 01:59:35.475297 13145 net.cpp:408] pool0 <- Sigmoid0
I0501 01:59:35.475301 13145 net.cpp:382] pool0 -> pool0
I0501 01:59:35.476037 13145 net.cpp:124] Setting up pool0
I0501 01:59:35.476050 13145 net.cpp:131] Top shape: 111 8 17 17 (256632)
I0501 01:59:35.476068 13145 net.cpp:139] Memory required for data: 10603164
I0501 01:59:35.476073 13145 layer_factory.hpp:77] Creating layer ip1
I0501 01:59:35.476083 13145 net.cpp:86] Creating Layer ip1
I0501 01:59:35.476085 13145 net.cpp:408] ip1 <- pool0
I0501 01:59:35.476091 13145 net.cpp:382] ip1 -> ip1
I0501 01:59:35.486718 13145 net.cpp:124] Setting up ip1
I0501 01:59:35.486730 13145 net.cpp:131] Top shape: 111 160 (17760)
I0501 01:59:35.486749 13145 net.cpp:139] Memory required for data: 10674204
I0501 01:59:35.486757 13145 layer_factory.hpp:77] Creating layer relu1
I0501 01:59:35.486764 13145 net.cpp:86] Creating Layer relu1
I0501 01:59:35.486768 13145 net.cpp:408] relu1 <- ip1
I0501 01:59:35.486771 13145 net.cpp:369] relu1 -> ip1 (in-place)
I0501 01:59:35.486959 13145 net.cpp:124] Setting up relu1
I0501 01:59:35.486968 13145 net.cpp:131] Top shape: 111 160 (17760)
I0501 01:59:35.486971 13145 net.cpp:139] Memory required for data: 10745244
I0501 01:59:35.486974 13145 layer_factory.hpp:77] Creating layer ip2
I0501 01:59:35.486984 13145 net.cpp:86] Creating Layer ip2
I0501 01:59:35.486987 13145 net.cpp:408] ip2 <- ip1
I0501 01:59:35.486992 13145 net.cpp:382] ip2 -> ip2
I0501 01:59:35.488543 13145 net.cpp:124] Setting up ip2
I0501 01:59:35.488555 13145 net.cpp:131] Top shape: 111 160 (17760)
I0501 01:59:35.488574 13145 net.cpp:139] Memory required for data: 10816284
I0501 01:59:35.488581 13145 layer_factory.hpp:77] Creating layer relu2
I0501 01:59:35.488586 13145 net.cpp:86] Creating Layer relu2
I0501 01:59:35.488590 13145 net.cpp:408] relu2 <- ip2
I0501 01:59:35.488597 13145 net.cpp:369] relu2 -> ip2 (in-place)
I0501 01:59:35.488796 13145 net.cpp:124] Setting up relu2
I0501 01:59:35.488806 13145 net.cpp:131] Top shape: 111 160 (17760)
I0501 01:59:35.488814 13145 net.cpp:139] Memory required for data: 10887324
I0501 01:59:35.488834 13145 layer_factory.hpp:77] Creating layer ip3
I0501 01:59:35.488858 13145 net.cpp:86] Creating Layer ip3
I0501 01:59:35.488862 13145 net.cpp:408] ip3 <- ip2
I0501 01:59:35.488867 13145 net.cpp:382] ip3 -> ip3
I0501 01:59:35.490026 13145 net.cpp:124] Setting up ip3
I0501 01:59:35.490038 13145 net.cpp:131] Top shape: 111 40 (4440)
I0501 01:59:35.490057 13145 net.cpp:139] Memory required for data: 10905084
I0501 01:59:35.490062 13145 layer_factory.hpp:77] Creating layer relu3
I0501 01:59:35.490068 13145 net.cpp:86] Creating Layer relu3
I0501 01:59:35.490072 13145 net.cpp:408] relu3 <- ip3
I0501 01:59:35.490077 13145 net.cpp:369] relu3 -> ip3 (in-place)
I0501 01:59:35.490269 13145 net.cpp:124] Setting up relu3
I0501 01:59:35.490278 13145 net.cpp:131] Top shape: 111 40 (4440)
I0501 01:59:35.490281 13145 net.cpp:139] Memory required for data: 10922844
I0501 01:59:35.490284 13145 layer_factory.hpp:77] Creating layer ip4
I0501 01:59:35.490304 13145 net.cpp:86] Creating Layer ip4
I0501 01:59:35.490309 13145 net.cpp:408] ip4 <- ip3
I0501 01:59:35.490312 13145 net.cpp:382] ip4 -> ip4
I0501 01:59:35.491261 13145 net.cpp:124] Setting up ip4
I0501 01:59:35.491272 13145 net.cpp:131] Top shape: 111 10 (1110)
I0501 01:59:35.491291 13145 net.cpp:139] Memory required for data: 10927284
I0501 01:59:35.491298 13145 layer_factory.hpp:77] Creating layer loss
I0501 01:59:35.491305 13145 net.cpp:86] Creating Layer loss
I0501 01:59:35.491308 13145 net.cpp:408] loss <- ip4
I0501 01:59:35.491312 13145 net.cpp:408] loss <- label
I0501 01:59:35.491317 13145 net.cpp:382] loss -> loss
I0501 01:59:35.491348 13145 layer_factory.hpp:77] Creating layer loss
…
I0501 01:59:35.492597 13145 solver.cpp:173] Creating test net (#0) specified by net file: ECE595/cifar/train_test/var_everything/cifar_train_test_307.prototxt
I0501 01:59:35.492624 13145 net.cpp:296] The NetState phase (1) differed from the phase (0) specified by a rule in layer cifar
I0501 01:59:35.492717 13145 net.cpp:53] Initializing net from parameters: 
name: "CIFAR"
state {
  phase: TEST
}
layer {
  name: "cifar"
  type: "Data"
  top: "data"
  top: "label"
  include {
    phase: TEST
  }
  transform_param {
    mean_file: "examples/cifar10/mean.binaryproto"
  }
  data_param {
    source: "examples/cifar10/cifar10_test_lmdb"
    batch_size: 1000
    backend: LMDB
  }
}
layer {
  name: "conv0"
  type: "Convolution"
  bottom: "data"
  top: "conv0"
  param {
    lr_mult: 1
  }
  param {
    lr_mult: 2
  }
  convolution_param {
    num_output: 8
    pad: 2
    kernel_size: 3
    stride: 1
    weight_filler {
      type: "gaussian"
      std: 0.01
    }
    bias_filler {
      type: "constant"
    }
  }
}
layer {
  name: "Sigmoid0"
  type: "Sigmoid"
  bottom: "conv0"
  top: "Sigmoid0"
}
layer {
  name: "pool0"
  type: "Pooling"
  bottom: "Sigmoid0"
  top: "pool0"
  pooling_param {
    pool: AVE
    kernel_size: 3
    stride: 2
  }
}
layer {
  name: "ip1"
  type: "InnerProduct"
  bottom: "pool0"
  top: "ip1"
  param {
    lr_mult: 1
  }
  param {
    lr_mult: 2
  }
  inner_product_param {
    num_output: 160
    weight_filler {
      type: "gaussian"
      std: 0.01
    }
    bias_filler {
      type: "constant"
    }
  }
}
layer {
  name: "relu1"
  type: "ReLU"
  bottom: "ip1"
  top: "ip1"
}
layer {
  name: "ip2"
  type: "InnerProduct"
  bottom: "ip1"
  top: "ip2"
  param {
    lr_mult: 1
  }
  param {
    lr_mult: 2
  }
  inner_product_param {
    num_output: 160
    weight_filler {
      type: "gaussian"
      std: 0.01
    }
    bias_filler {
      type: "constant"
    }
  }
}
layer {
  name: "relu2"
  type: "ReLU"
  bottom: "ip2"
  top: "ip2"
}
layer {
  name: "ip3"
  type: "InnerProduct"
  bottom: "ip2"
  top: "ip3"
  param {
    lr_mult: 1
  }
  param {
    lr_mult: 2
  }
  inner_product_param {
    num_output: 40
    weight_filler {
      type: "gaussian"
      std: 0.01
    }
    bias_filler {
      type: "constant"
    }
  }
}
layer {
  name: "relu3"
  type: "ReLU"
  bottom: "ip3"
  top: "ip3"
}
layer {
  name: "ip4"
  type: "InnerProduct"
  bottom: "ip3"
  top: "ip4"
  param {
    lr_mult: 1
  }
  param {
    lr_mult: 2
  }
  inner_product_param {
    num_output: 10
    weight_filler {
      type: "gaussian"
      std: 0.01
    }
    bias_filler {
      type: "constant"
    }
  }
}
layer {
  name: "accuracy"
  type: "Accuracy"
  bottom: "ip4"
  bottom: "label"
  top: "accuracy"
  include {
    phase: TEST
  }
}
layer {
  name: "loss"
  type: "SoftmaxWithLoss"
  bottom: "ip4"
  bottom: "label"
  top: "loss"
}
I0501 01:59:35.492799 13145 layer_factory.hpp:77] Creating layer cifar
I0501 01:59:35.492864 13145 db_lmdb.cpp:35] Opened lmdb examples/cifar10/cifar10_test_lmdb
I0501 01:59:35.492877 13145 net.cpp:86] Creating Layer cifar
I0501 01:59:35.492883 13145 net.cpp:382] cifar -> data
I0501 01:59:35.492890 13145 net.cpp:382] cifar -> label
I0501 01:59:35.492897 13145 data_transformer.cpp:25] Loading mean file from: examples/cifar10/mean.binaryproto
I0501 01:59:35.493046 13145 data_layer.cpp:45] output data size: 1000,3,32,32
I0501 01:59:35.515436 13145 net.cpp:124] Setting up cifar
I0501 01:59:35.515491 13145 net.cpp:131] Top shape: 1000 3 32 32 (3072000)
I0501 01:59:35.515497 13145 net.cpp:131] Top shape: 1000 (1000)
I0501 01:59:35.515516 13145 net.cpp:139] Memory required for data: 12292000
I0501 01:59:35.515522 13145 layer_factory.hpp:77] Creating layer label_cifar_1_split
I0501 01:59:35.515533 13145 net.cpp:86] Creating Layer label_cifar_1_split
I0501 01:59:35.515537 13145 net.cpp:408] label_cifar_1_split <- label
I0501 01:59:35.515559 13145 net.cpp:382] label_cifar_1_split -> label_cifar_1_split_0
I0501 01:59:35.515568 13145 net.cpp:382] label_cifar_1_split -> label_cifar_1_split_1
I0501 01:59:35.515650 13145 net.cpp:124] Setting up label_cifar_1_split
I0501 01:59:35.515657 13145 net.cpp:131] Top shape: 1000 (1000)
I0501 01:59:35.515661 13145 net.cpp:131] Top shape: 1000 (1000)
I0501 01:59:35.515664 13145 net.cpp:139] Memory required for data: 12300000
I0501 01:59:35.515666 13145 layer_factory.hpp:77] Creating layer conv0
I0501 01:59:35.515681 13145 net.cpp:86] Creating Layer conv0
I0501 01:59:35.515686 13145 net.cpp:408] conv0 <- data
I0501 01:59:35.515691 13145 net.cpp:382] conv0 -> conv0
I0501 01:59:35.517448 13145 net.cpp:124] Setting up conv0
I0501 01:59:35.517478 13145 net.cpp:131] Top shape: 1000 8 34 34 (9248000)
I0501 01:59:35.517482 13145 net.cpp:139] Memory required for data: 49292000
I0501 01:59:35.517491 13145 layer_factory.hpp:77] Creating layer Sigmoid0
I0501 01:59:35.517500 13145 net.cpp:86] Creating Layer Sigmoid0
I0501 01:59:35.517504 13145 net.cpp:408] Sigmoid0 <- conv0
I0501 01:59:35.517508 13145 net.cpp:382] Sigmoid0 -> Sigmoid0
I0501 01:59:35.517726 13145 net.cpp:124] Setting up Sigmoid0
I0501 01:59:35.517735 13145 net.cpp:131] Top shape: 1000 8 34 34 (9248000)
I0501 01:59:35.517738 13145 net.cpp:139] Memory required for data: 86284000
I0501 01:59:35.517741 13145 layer_factory.hpp:77] Creating layer pool0
I0501 01:59:35.517750 13145 net.cpp:86] Creating Layer pool0
I0501 01:59:35.517752 13145 net.cpp:408] pool0 <- Sigmoid0
I0501 01:59:35.517757 13145 net.cpp:382] pool0 -> pool0
I0501 01:59:35.517928 13145 net.cpp:124] Setting up pool0
I0501 01:59:35.517936 13145 net.cpp:131] Top shape: 1000 8 17 17 (2312000)
I0501 01:59:35.517940 13145 net.cpp:139] Memory required for data: 95532000
I0501 01:59:35.517942 13145 layer_factory.hpp:77] Creating layer ip1
I0501 01:59:35.517951 13145 net.cpp:86] Creating Layer ip1
I0501 01:59:35.517956 13145 net.cpp:408] ip1 <- pool0
I0501 01:59:35.517959 13145 net.cpp:382] ip1 -> ip1
I0501 01:59:35.528894 13145 net.cpp:124] Setting up ip1
I0501 01:59:35.528909 13145 net.cpp:131] Top shape: 1000 160 (160000)
I0501 01:59:35.528913 13145 net.cpp:139] Memory required for data: 96172000
I0501 01:59:35.528937 13145 layer_factory.hpp:77] Creating layer relu1
I0501 01:59:35.528962 13145 net.cpp:86] Creating Layer relu1
I0501 01:59:35.528966 13145 net.cpp:408] relu1 <- ip1
I0501 01:59:35.528972 13145 net.cpp:369] relu1 -> ip1 (in-place)
I0501 01:59:35.529183 13145 net.cpp:124] Setting up relu1
I0501 01:59:35.529209 13145 net.cpp:131] Top shape: 1000 160 (160000)
I0501 01:59:35.529213 13145 net.cpp:139] Memory required for data: 96812000
I0501 01:59:35.529217 13145 layer_factory.hpp:77] Creating layer ip2
I0501 01:59:35.529224 13145 net.cpp:86] Creating Layer ip2
I0501 01:59:35.529227 13145 net.cpp:408] ip2 <- ip1
I0501 01:59:35.529232 13145 net.cpp:382] ip2 -> ip2
I0501 01:59:35.530066 13145 net.cpp:124] Setting up ip2
I0501 01:59:35.530073 13145 net.cpp:131] Top shape: 1000 160 (160000)
I0501 01:59:35.530092 13145 net.cpp:139] Memory required for data: 97452000
I0501 01:59:35.530098 13145 layer_factory.hpp:77] Creating layer relu2
I0501 01:59:35.530107 13145 net.cpp:86] Creating Layer relu2
I0501 01:59:35.530109 13145 net.cpp:408] relu2 <- ip2
I0501 01:59:35.530112 13145 net.cpp:369] relu2 -> ip2 (in-place)
I0501 01:59:35.530927 13145 net.cpp:124] Setting up relu2
I0501 01:59:35.530956 13145 net.cpp:131] Top shape: 1000 160 (160000)
I0501 01:59:35.530958 13145 net.cpp:139] Memory required for data: 98092000
I0501 01:59:35.530962 13145 layer_factory.hpp:77] Creating layer ip3
I0501 01:59:35.530968 13145 net.cpp:86] Creating Layer ip3
I0501 01:59:35.530973 13145 net.cpp:408] ip3 <- ip2
I0501 01:59:35.530979 13145 net.cpp:382] ip3 -> ip3
I0501 01:59:35.531275 13145 net.cpp:124] Setting up ip3
I0501 01:59:35.531283 13145 net.cpp:131] Top shape: 1000 40 (40000)
I0501 01:59:35.531286 13145 net.cpp:139] Memory required for data: 98252000
I0501 01:59:35.531292 13145 layer_factory.hpp:77] Creating layer relu3
I0501 01:59:35.531299 13145 net.cpp:86] Creating Layer relu3
I0501 01:59:35.531302 13145 net.cpp:408] relu3 <- ip3
I0501 01:59:35.531306 13145 net.cpp:369] relu3 -> ip3 (in-place)
I0501 01:59:35.531482 13145 net.cpp:124] Setting up relu3
I0501 01:59:35.531491 13145 net.cpp:131] Top shape: 1000 40 (40000)
I0501 01:59:35.531494 13145 net.cpp:139] Memory required for data: 98412000
I0501 01:59:35.531497 13145 layer_factory.hpp:77] Creating layer ip4
I0501 01:59:35.531504 13145 net.cpp:86] Creating Layer ip4
I0501 01:59:35.531507 13145 net.cpp:408] ip4 <- ip3
I0501 01:59:35.531513 13145 net.cpp:382] ip4 -> ip4
I0501 01:59:35.531633 13145 net.cpp:124] Setting up ip4
I0501 01:59:35.531641 13145 net.cpp:131] Top shape: 1000 10 (10000)
I0501 01:59:35.531643 13145 net.cpp:139] Memory required for data: 98452000
I0501 01:59:35.531651 13145 layer_factory.hpp:77] Creating layer ip4_ip4_0_split
I0501 01:59:35.531656 13145 net.cpp:86] Creating Layer ip4_ip4_0_split
I0501 01:59:35.531659 13145 net.cpp:408] ip4_ip4_0_split <- ip4
I0501 01:59:35.531663 13145 net.cpp:382] ip4_ip4_0_split -> ip4_ip4_0_split_0
I0501 01:59:35.531668 13145 net.cpp:382] ip4_ip4_0_split -> ip4_ip4_0_split_1
I0501 01:59:35.531702 13145 net.cpp:124] Setting up ip4_ip4_0_split
I0501 01:59:35.531709 13145 net.cpp:131] Top shape: 1000 10 (10000)
I0501 01:59:35.531714 13145 net.cpp:131] Top shape: 1000 10 (10000)
I0501 01:59:35.531716 13145 net.cpp:139] Memory required for data: 98532000
I0501 01:59:35.531719 13145 layer_factory.hpp:77] Creating layer accuracy
I0501 01:59:35.531726 13145 net.cpp:86] Creating Layer accuracy
I0501 01:59:35.531729 13145 net.cpp:408] accuracy <- ip4_ip4_0_split_0
I0501 01:59:35.531733 13145 net.cpp:408] accuracy <- label_cifar_1_split_0
I0501 01:59:35.531738 13145 net.cpp:382] accuracy -> accuracy
…
