…
I0430 21:48:06.843698 31694 net.cpp:296] The NetState phase (0) differed from the phase (1) specified by a rule in layer cifar
I0430 21:48:06.843710 31694 net.cpp:296] The NetState phase (0) differed from the phase (1) specified by a rule in layer accuracy
I0430 21:48:06.843777 31694 net.cpp:53] Initializing net from parameters: 
name: "CIFAR"
state {
  phase: TRAIN
  level: 0
  stage: ""
}
layer {
  name: "cifar"
  type: "Data"
  top: "data"
  top: "label"
  include {
    phase: TRAIN
  }
  transform_param {
    mean_file: "examples/cifar10/mean.binaryproto"
  }
  data_param {
    source: "examples/cifar10/cifar10_train_lmdb"
    batch_size: 111
    backend: LMDB
  }
}
layer {
  name: "conv0"
  type: "Convolution"
  bottom: "data"
  top: "conv0"
  param {
    lr_mult: 1
  }
  param {
    lr_mult: 2
  }
  convolution_param {
    num_output: 8
    pad: 2
    kernel_size: 3
    stride: 1
    weight_filler {
      type: "gaussian"
      std: 0.01
    }
    bias_filler {
      type: "constant"
    }
  }
}
layer {
  name: "Sigmoid0"
  type: "Sigmoid"
  bottom: "conv0"
  top: "Sigmoid0"
}
layer {
  name: "pool0"
  type: "Pooling"
  bottom: "Sigmoid0"
  top: "pool0"
  pooling_param {
    pool: AVE
    kernel_size: 3
    stride: 2
  }
}
layer {
  name: "ip1"
  type: "InnerProduct"
  bottom: "pool0"
  top: "ip1"
  param {
    lr_mult: 1
  }
  param {
    lr_mult: 2
  }
  inner_product_param {
    num_output: 40
    weight_filler {
      type: "gaussian"
      std: 0.01
    }
    bias_filler {
      type: "constant"
    }
  }
}
layer {
  name: "relu1"
  type: "ReLU"
  bottom: "ip1"
  top: "ip1"
}
layer {
  name: "ip2"
  type: "InnerProduct"
  bottom: "ip1"
  top: "ip2"
  param {
    lr_mult: 1
  }
  param {
    lr_mult: 2
  }
  inner_product_param {
    num_output: 80
    weight_filler {
      type: "gaussian"
      std: 0.01
    }
    bias_filler {
      type: "constant"
    }
  }
}
layer {
  name: "relu2"
  type: "ReLU"
  bottom: "ip2"
  top: "ip2"
}
layer {
  name: "ip3"
  type: "InnerProduct"
  bottom: "ip2"
  top: "ip3"
  param {
    lr_mult: 1
  }
  param {
    lr_mult: 2
  }
  inner_product_param {
    num_output: 10
    weight_filler {
      type: "gaussian"
      std: 0.01
    }
    bias_filler {
      type: "constant"
    }
  }
}
layer {
  name: "loss"
  type: "SoftmaxWithLoss"
  bottom: "ip3"
  bottom: "label"
  top: "loss"
}
I0430 21:48:06.843829 31694 layer_factory.hpp:77] Creating layer cifar
I0430 21:48:06.843907 31694 db_lmdb.cpp:35] Opened lmdb examples/cifar10/cifar10_train_lmdb
I0430 21:48:06.843928 31694 net.cpp:86] Creating Layer cifar
I0430 21:48:06.843935 31694 net.cpp:382] cifar -> data
I0430 21:48:06.843952 31694 net.cpp:382] cifar -> label
I0430 21:48:06.843961 31694 data_transformer.cpp:25] Loading mean file from: examples/cifar10/mean.binaryproto
I0430 21:48:06.845759 31694 data_layer.cpp:45] output data size: 111,3,32,32
I0430 21:48:06.852272 31694 net.cpp:124] Setting up cifar
I0430 21:48:06.852319 31694 net.cpp:131] Top shape: 111 3 32 32 (340992)
I0430 21:48:06.852324 31694 net.cpp:131] Top shape: 111 (111)
I0430 21:48:06.852327 31694 net.cpp:139] Memory required for data: 1364412
I0430 21:48:06.852334 31694 layer_factory.hpp:77] Creating layer conv0
I0430 21:48:06.852349 31694 net.cpp:86] Creating Layer conv0
I0430 21:48:06.852354 31694 net.cpp:408] conv0 <- data
I0430 21:48:06.852362 31694 net.cpp:382] conv0 -> conv0
I0430 21:48:07.087405 31694 net.cpp:124] Setting up conv0
I0430 21:48:07.087482 31694 net.cpp:131] Top shape: 111 8 34 34 (1026528)
I0430 21:48:07.087487 31694 net.cpp:139] Memory required for data: 5470524
I0430 21:48:07.087502 31694 layer_factory.hpp:77] Creating layer Sigmoid0
I0430 21:48:07.087512 31694 net.cpp:86] Creating Layer Sigmoid0
I0430 21:48:07.087517 31694 net.cpp:408] Sigmoid0 <- conv0
I0430 21:48:07.087522 31694 net.cpp:382] Sigmoid0 -> Sigmoid0
I0430 21:48:07.087710 31694 net.cpp:124] Setting up Sigmoid0
I0430 21:48:07.087720 31694 net.cpp:131] Top shape: 111 8 34 34 (1026528)
I0430 21:48:07.087723 31694 net.cpp:139] Memory required for data: 9576636
I0430 21:48:07.087726 31694 layer_factory.hpp:77] Creating layer pool0
I0430 21:48:07.087733 31694 net.cpp:86] Creating Layer pool0
I0430 21:48:07.087736 31694 net.cpp:408] pool0 <- Sigmoid0
I0430 21:48:07.087740 31694 net.cpp:382] pool0 -> pool0
I0430 21:48:07.088476 31694 net.cpp:124] Setting up pool0
I0430 21:48:07.088505 31694 net.cpp:131] Top shape: 111 8 17 17 (256632)
I0430 21:48:07.088507 31694 net.cpp:139] Memory required for data: 10603164
I0430 21:48:07.088511 31694 layer_factory.hpp:77] Creating layer ip1
I0430 21:48:07.088521 31694 net.cpp:86] Creating Layer ip1
I0430 21:48:07.088538 31694 net.cpp:408] ip1 <- pool0
I0430 21:48:07.088543 31694 net.cpp:382] ip1 -> ip1
I0430 21:48:07.091147 31694 net.cpp:124] Setting up ip1
I0430 21:48:07.091156 31694 net.cpp:131] Top shape: 111 40 (4440)
I0430 21:48:07.091174 31694 net.cpp:139] Memory required for data: 10620924
I0430 21:48:07.091181 31694 layer_factory.hpp:77] Creating layer relu1
I0430 21:48:07.091187 31694 net.cpp:86] Creating Layer relu1
I0430 21:48:07.091192 31694 net.cpp:408] relu1 <- ip1
I0430 21:48:07.091195 31694 net.cpp:369] relu1 -> ip1 (in-place)
I0430 21:48:07.091356 31694 net.cpp:124] Setting up relu1
I0430 21:48:07.091364 31694 net.cpp:131] Top shape: 111 40 (4440)
I0430 21:48:07.091367 31694 net.cpp:139] Memory required for data: 10638684
I0430 21:48:07.091370 31694 layer_factory.hpp:77] Creating layer ip2
I0430 21:48:07.091377 31694 net.cpp:86] Creating Layer ip2
I0430 21:48:07.091379 31694 net.cpp:408] ip2 <- ip1
I0430 21:48:07.091384 31694 net.cpp:382] ip2 -> ip2
I0430 21:48:07.091560 31694 net.cpp:124] Setting up ip2
I0430 21:48:07.091567 31694 net.cpp:131] Top shape: 111 80 (8880)
I0430 21:48:07.091570 31694 net.cpp:139] Memory required for data: 10674204
I0430 21:48:07.091578 31694 layer_factory.hpp:77] Creating layer relu2
I0430 21:48:07.091583 31694 net.cpp:86] Creating Layer relu2
I0430 21:48:07.091585 31694 net.cpp:408] relu2 <- ip2
I0430 21:48:07.091589 31694 net.cpp:369] relu2 -> ip2 (in-place)
I0430 21:48:07.091734 31694 net.cpp:124] Setting up relu2
I0430 21:48:07.091742 31694 net.cpp:131] Top shape: 111 80 (8880)
I0430 21:48:07.091748 31694 net.cpp:139] Memory required for data: 10709724
I0430 21:48:07.091751 31694 layer_factory.hpp:77] Creating layer ip3
I0430 21:48:07.091758 31694 net.cpp:86] Creating Layer ip3
I0430 21:48:07.091763 31694 net.cpp:408] ip3 <- ip2
I0430 21:48:07.091766 31694 net.cpp:382] ip3 -> ip3
I0430 21:48:07.092725 31694 net.cpp:124] Setting up ip3
I0430 21:48:07.092736 31694 net.cpp:131] Top shape: 111 10 (1110)
I0430 21:48:07.092756 31694 net.cpp:139] Memory required for data: 10714164
I0430 21:48:07.092761 31694 layer_factory.hpp:77] Creating layer loss
I0430 21:48:07.092772 31694 net.cpp:86] Creating Layer loss
I0430 21:48:07.092774 31694 net.cpp:408] loss <- ip3
I0430 21:48:07.092778 31694 net.cpp:408] loss <- label
I0430 21:48:07.092783 31694 net.cpp:382] loss -> loss
I0430 21:48:07.092797 31694 layer_factory.hpp:77] Creating layer loss
…
I0430 21:48:07.093475 31694 solver.cpp:173] Creating test net (#0) specified by net file: ECE595/cifar/train_test/var_everything/cifar_train_test_173.prototxt
I0430 21:48:07.093502 31694 net.cpp:296] The NetState phase (1) differed from the phase (0) specified by a rule in layer cifar
I0430 21:48:07.093587 31694 net.cpp:53] Initializing net from parameters: 
name: "CIFAR"
state {
  phase: TEST
}
layer {
  name: "cifar"
  type: "Data"
  top: "data"
  top: "label"
  include {
    phase: TEST
  }
  transform_param {
    mean_file: "examples/cifar10/mean.binaryproto"
  }
  data_param {
    source: "examples/cifar10/cifar10_test_lmdb"
    batch_size: 1000
    backend: LMDB
  }
}
layer {
  name: "conv0"
  type: "Convolution"
  bottom: "data"
  top: "conv0"
  param {
    lr_mult: 1
  }
  param {
    lr_mult: 2
  }
  convolution_param {
    num_output: 8
    pad: 2
    kernel_size: 3
    stride: 1
    weight_filler {
      type: "gaussian"
      std: 0.01
    }
    bias_filler {
      type: "constant"
    }
  }
}
layer {
  name: "Sigmoid0"
  type: "Sigmoid"
  bottom: "conv0"
  top: "Sigmoid0"
}
layer {
  name: "pool0"
  type: "Pooling"
  bottom: "Sigmoid0"
  top: "pool0"
  pooling_param {
    pool: AVE
    kernel_size: 3
    stride: 2
  }
}
layer {
  name: "ip1"
  type: "InnerProduct"
  bottom: "pool0"
  top: "ip1"
  param {
    lr_mult: 1
  }
  param {
    lr_mult: 2
  }
  inner_product_param {
    num_output: 40
    weight_filler {
      type: "gaussian"
      std: 0.01
    }
    bias_filler {
      type: "constant"
    }
  }
}
layer {
  name: "relu1"
  type: "ReLU"
  bottom: "ip1"
  top: "ip1"
}
layer {
  name: "ip2"
  type: "InnerProduct"
  bottom: "ip1"
  top: "ip2"
  param {
    lr_mult: 1
  }
  param {
    lr_mult: 2
  }
  inner_product_param {
    num_output: 80
    weight_filler {
      type: "gaussian"
      std: 0.01
    }
    bias_filler {
      type: "constant"
    }
  }
}
layer {
  name: "relu2"
  type: "ReLU"
  bottom: "ip2"
  top: "ip2"
}
layer {
  name: "ip3"
  type: "InnerProduct"
  bottom: "ip2"
  top: "ip3"
  param {
    lr_mult: 1
  }
  param {
    lr_mult: 2
  }
  inner_product_param {
    num_output: 10
    weight_filler {
      type: "gaussian"
      std: 0.01
    }
    bias_filler {
      type: "constant"
    }
  }
}
layer {
  name: "accuracy"
  type: "Accuracy"
  bottom: "ip3"
  bottom: "label"
  top: "accuracy"
  include {
    phase: TEST
  }
}
layer {
  name: "loss"
  type: "SoftmaxWithLoss"
  bottom: "ip3"
  bottom: "label"
  top: "loss"
}
I0430 21:48:07.093667 31694 layer_factory.hpp:77] Creating layer cifar
I0430 21:48:07.093711 31694 db_lmdb.cpp:35] Opened lmdb examples/cifar10/cifar10_test_lmdb
I0430 21:48:07.093722 31694 net.cpp:86] Creating Layer cifar
I0430 21:48:07.093729 31694 net.cpp:382] cifar -> data
I0430 21:48:07.093735 31694 net.cpp:382] cifar -> label
I0430 21:48:07.093742 31694 data_transformer.cpp:25] Loading mean file from: examples/cifar10/mean.binaryproto
I0430 21:48:07.093890 31694 data_layer.cpp:45] output data size: 1000,3,32,32
I0430 21:48:07.115990 31694 net.cpp:124] Setting up cifar
I0430 21:48:07.116031 31694 net.cpp:131] Top shape: 1000 3 32 32 (3072000)
I0430 21:48:07.116037 31694 net.cpp:131] Top shape: 1000 (1000)
I0430 21:48:07.116039 31694 net.cpp:139] Memory required for data: 12292000
I0430 21:48:07.116045 31694 layer_factory.hpp:77] Creating layer label_cifar_1_split
I0430 21:48:07.116057 31694 net.cpp:86] Creating Layer label_cifar_1_split
I0430 21:48:07.116073 31694 net.cpp:408] label_cifar_1_split <- label
I0430 21:48:07.116081 31694 net.cpp:382] label_cifar_1_split -> label_cifar_1_split_0
I0430 21:48:07.116091 31694 net.cpp:382] label_cifar_1_split -> label_cifar_1_split_1
I0430 21:48:07.116189 31694 net.cpp:124] Setting up label_cifar_1_split
I0430 21:48:07.116197 31694 net.cpp:131] Top shape: 1000 (1000)
I0430 21:48:07.116200 31694 net.cpp:131] Top shape: 1000 (1000)
I0430 21:48:07.116204 31694 net.cpp:139] Memory required for data: 12300000
I0430 21:48:07.116206 31694 layer_factory.hpp:77] Creating layer conv0
I0430 21:48:07.116217 31694 net.cpp:86] Creating Layer conv0
I0430 21:48:07.116221 31694 net.cpp:408] conv0 <- data
I0430 21:48:07.116226 31694 net.cpp:382] conv0 -> conv0
I0430 21:48:07.117868 31694 net.cpp:124] Setting up conv0
I0430 21:48:07.117897 31694 net.cpp:131] Top shape: 1000 8 34 34 (9248000)
I0430 21:48:07.117902 31694 net.cpp:139] Memory required for data: 49292000
I0430 21:48:07.117911 31694 layer_factory.hpp:77] Creating layer Sigmoid0
I0430 21:48:07.117918 31694 net.cpp:86] Creating Layer Sigmoid0
I0430 21:48:07.117923 31694 net.cpp:408] Sigmoid0 <- conv0
I0430 21:48:07.117928 31694 net.cpp:382] Sigmoid0 -> Sigmoid0
I0430 21:48:07.119812 31694 net.cpp:124] Setting up Sigmoid0
I0430 21:48:07.119825 31694 net.cpp:131] Top shape: 1000 8 34 34 (9248000)
I0430 21:48:07.119845 31694 net.cpp:139] Memory required for data: 86284000
I0430 21:48:07.119849 31694 layer_factory.hpp:77] Creating layer pool0
I0430 21:48:07.119859 31694 net.cpp:86] Creating Layer pool0
I0430 21:48:07.119863 31694 net.cpp:408] pool0 <- Sigmoid0
I0430 21:48:07.119868 31694 net.cpp:382] pool0 -> pool0
I0430 21:48:07.120061 31694 net.cpp:124] Setting up pool0
I0430 21:48:07.120072 31694 net.cpp:131] Top shape: 1000 8 17 17 (2312000)
I0430 21:48:07.120076 31694 net.cpp:139] Memory required for data: 95532000
I0430 21:48:07.120079 31694 layer_factory.hpp:77] Creating layer ip1
I0430 21:48:07.120086 31694 net.cpp:86] Creating Layer ip1
I0430 21:48:07.120090 31694 net.cpp:408] ip1 <- pool0
I0430 21:48:07.120096 31694 net.cpp:382] ip1 -> ip1
I0430 21:48:07.122686 31694 net.cpp:124] Setting up ip1
I0430 21:48:07.122695 31694 net.cpp:131] Top shape: 1000 40 (40000)
I0430 21:48:07.122714 31694 net.cpp:139] Memory required for data: 95692000
I0430 21:48:07.122722 31694 layer_factory.hpp:77] Creating layer relu1
I0430 21:48:07.122728 31694 net.cpp:86] Creating Layer relu1
I0430 21:48:07.122732 31694 net.cpp:408] relu1 <- ip1
I0430 21:48:07.122736 31694 net.cpp:369] relu1 -> ip1 (in-place)
I0430 21:48:07.122890 31694 net.cpp:124] Setting up relu1
I0430 21:48:07.122898 31694 net.cpp:131] Top shape: 1000 40 (40000)
I0430 21:48:07.122901 31694 net.cpp:139] Memory required for data: 95852000
I0430 21:48:07.122905 31694 layer_factory.hpp:77] Creating layer ip2
I0430 21:48:07.122911 31694 net.cpp:86] Creating Layer ip2
I0430 21:48:07.122915 31694 net.cpp:408] ip2 <- ip1
I0430 21:48:07.122920 31694 net.cpp:382] ip2 -> ip2
I0430 21:48:07.123107 31694 net.cpp:124] Setting up ip2
I0430 21:48:07.123116 31694 net.cpp:131] Top shape: 1000 80 (80000)
I0430 21:48:07.123118 31694 net.cpp:139] Memory required for data: 96172000
I0430 21:48:07.123126 31694 layer_factory.hpp:77] Creating layer relu2
I0430 21:48:07.123131 31694 net.cpp:86] Creating Layer relu2
I0430 21:48:07.123133 31694 net.cpp:408] relu2 <- ip2
I0430 21:48:07.123137 31694 net.cpp:369] relu2 -> ip2 (in-place)
I0430 21:48:07.123312 31694 net.cpp:124] Setting up relu2
I0430 21:48:07.123320 31694 net.cpp:131] Top shape: 1000 80 (80000)
I0430 21:48:07.123323 31694 net.cpp:139] Memory required for data: 96492000
I0430 21:48:07.123327 31694 layer_factory.hpp:77] Creating layer ip3
I0430 21:48:07.123332 31694 net.cpp:86] Creating Layer ip3
I0430 21:48:07.123335 31694 net.cpp:408] ip3 <- ip2
I0430 21:48:07.123342 31694 net.cpp:382] ip3 -> ip3
I0430 21:48:07.123463 31694 net.cpp:124] Setting up ip3
I0430 21:48:07.123471 31694 net.cpp:131] Top shape: 1000 10 (10000)
I0430 21:48:07.123474 31694 net.cpp:139] Memory required for data: 96532000
I0430 21:48:07.123491 31694 layer_factory.hpp:77] Creating layer ip3_ip3_0_split
I0430 21:48:07.123497 31694 net.cpp:86] Creating Layer ip3_ip3_0_split
I0430 21:48:07.123499 31694 net.cpp:408] ip3_ip3_0_split <- ip3
I0430 21:48:07.123504 31694 net.cpp:382] ip3_ip3_0_split -> ip3_ip3_0_split_0
I0430 21:48:07.123510 31694 net.cpp:382] ip3_ip3_0_split -> ip3_ip3_0_split_1
I0430 21:48:07.123564 31694 net.cpp:124] Setting up ip3_ip3_0_split
I0430 21:48:07.123570 31694 net.cpp:131] Top shape: 1000 10 (10000)
I0430 21:48:07.123574 31694 net.cpp:131] Top shape: 1000 10 (10000)
I0430 21:48:07.123576 31694 net.cpp:139] Memory required for data: 96612000
I0430 21:48:07.123579 31694 layer_factory.hpp:77] Creating layer accuracy
I0430 21:48:07.123585 31694 net.cpp:86] Creating Layer accuracy
I0430 21:48:07.123594 31694 net.cpp:408] accuracy <- ip3_ip3_0_split_0
I0430 21:48:07.123598 31694 net.cpp:408] accuracy <- label_cifar_1_split_0
I0430 21:48:07.123602 31694 net.cpp:382] accuracy -> accuracy
…
