…
I0430 18:49:19.868079 24413 net.cpp:296] The NetState phase (0) differed from the phase (1) specified by a rule in layer cifar
I0430 18:49:19.868095 24413 net.cpp:296] The NetState phase (0) differed from the phase (1) specified by a rule in layer accuracy
I0430 18:49:19.868180 24413 net.cpp:53] Initializing net from parameters: 
name: "CIFAR"
state {
  phase: TRAIN
  level: 0
  stage: ""
}
layer {
  name: "cifar"
  type: "Data"
  top: "data"
  top: "label"
  include {
    phase: TRAIN
  }
  transform_param {
    mean_file: "examples/cifar10/mean.binaryproto"
  }
  data_param {
    source: "examples/cifar10/cifar10_train_lmdb"
    batch_size: 111
    backend: LMDB
  }
}
layer {
  name: "ip1"
  type: "InnerProduct"
  bottom: "data"
  top: "ip1"
  param {
    lr_mult: 1
  }
  param {
    lr_mult: 2
  }
  inner_product_param {
    num_output: 20
    weight_filler {
      type: "gaussian"
      std: 0.01
    }
    bias_filler {
      type: "constant"
    }
  }
}
layer {
  name: "relu1"
  type: "ReLU"
  bottom: "ip1"
  top: "ip1"
}
layer {
  name: "ip2"
  type: "InnerProduct"
  bottom: "ip1"
  top: "ip2"
  param {
    lr_mult: 1
  }
  param {
    lr_mult: 2
  }
  inner_product_param {
    num_output: 160
    weight_filler {
      type: "gaussian"
      std: 0.01
    }
    bias_filler {
      type: "constant"
    }
  }
}
layer {
  name: "relu2"
  type: "ReLU"
  bottom: "ip2"
  top: "ip2"
}
layer {
  name: "ip3"
  type: "InnerProduct"
  bottom: "ip2"
  top: "ip3"
  param {
    lr_mult: 1
  }
  param {
    lr_mult: 2
  }
  inner_product_param {
    num_output: 80
    weight_filler {
      type: "gaussian"
      std: 0.01
    }
    bias_filler {
      type: "constant"
    }
  }
}
layer {
  name: "relu3"
  type: "ReLU"
  bottom: "ip3"
  top: "ip3"
}
layer {
  name: "ip4"
  type: "InnerProduct"
  bottom: "ip3"
  top: "ip4"
  param {
    lr_mult: 1
  }
  param {
    lr_mult: 2
  }
  inner_product_param {
    num_output: 10
    weight_filler {
      type: "gaussian"
      std: 0.01
    }
    bias_filler {
      type: "constant"
    }
  }
}
layer {
  name: "loss"
  type: "SoftmaxWithLoss"
  bottom: "ip4"
  bottom: "label"
  top: "loss"
}
I0430 18:49:19.868249 24413 layer_factory.hpp:77] Creating layer cifar
I0430 18:49:19.868353 24413 db_lmdb.cpp:35] Opened lmdb examples/cifar10/cifar10_train_lmdb
I0430 18:49:19.868383 24413 net.cpp:86] Creating Layer cifar
I0430 18:49:19.868396 24413 net.cpp:382] cifar -> data
I0430 18:49:19.868419 24413 net.cpp:382] cifar -> label
I0430 18:49:19.868433 24413 data_transformer.cpp:25] Loading mean file from: examples/cifar10/mean.binaryproto
I0430 18:49:19.870568 24413 data_layer.cpp:45] output data size: 111,3,32,32
I0430 18:49:19.878484 24413 net.cpp:124] Setting up cifar
I0430 18:49:19.878504 24413 net.cpp:131] Top shape: 111 3 32 32 (340992)
I0430 18:49:19.878511 24413 net.cpp:131] Top shape: 111 (111)
I0430 18:49:19.878515 24413 net.cpp:139] Memory required for data: 1364412
I0430 18:49:19.878522 24413 layer_factory.hpp:77] Creating layer ip1
I0430 18:49:19.878535 24413 net.cpp:86] Creating Layer ip1
I0430 18:49:19.878540 24413 net.cpp:408] ip1 <- data
I0430 18:49:19.878552 24413 net.cpp:382] ip1 -> ip1
I0430 18:49:19.881760 24413 net.cpp:124] Setting up ip1
I0430 18:49:19.881777 24413 net.cpp:131] Top shape: 111 20 (2220)
I0430 18:49:19.881780 24413 net.cpp:139] Memory required for data: 1373292
I0430 18:49:19.881798 24413 layer_factory.hpp:77] Creating layer relu1
I0430 18:49:19.881806 24413 net.cpp:86] Creating Layer relu1
I0430 18:49:19.881826 24413 net.cpp:408] relu1 <- ip1
I0430 18:49:19.881834 24413 net.cpp:369] relu1 -> ip1 (in-place)
I0430 18:49:20.169459 24413 net.cpp:124] Setting up relu1
I0430 18:49:20.169490 24413 net.cpp:131] Top shape: 111 20 (2220)
I0430 18:49:20.169495 24413 net.cpp:139] Memory required for data: 1382172
I0430 18:49:20.169502 24413 layer_factory.hpp:77] Creating layer ip2
I0430 18:49:20.169517 24413 net.cpp:86] Creating Layer ip2
I0430 18:49:20.169523 24413 net.cpp:408] ip2 <- ip1
I0430 18:49:20.169531 24413 net.cpp:382] ip2 -> ip2
I0430 18:49:20.169770 24413 net.cpp:124] Setting up ip2
I0430 18:49:20.169780 24413 net.cpp:131] Top shape: 111 160 (17760)
I0430 18:49:20.169783 24413 net.cpp:139] Memory required for data: 1453212
I0430 18:49:20.169795 24413 layer_factory.hpp:77] Creating layer relu2
I0430 18:49:20.169803 24413 net.cpp:86] Creating Layer relu2
I0430 18:49:20.169807 24413 net.cpp:408] relu2 <- ip2
I0430 18:49:20.169812 24413 net.cpp:369] relu2 -> ip2 (in-place)
I0430 18:49:20.170719 24413 net.cpp:124] Setting up relu2
I0430 18:49:20.170735 24413 net.cpp:131] Top shape: 111 160 (17760)
I0430 18:49:20.170739 24413 net.cpp:139] Memory required for data: 1524252
I0430 18:49:20.170743 24413 layer_factory.hpp:77] Creating layer ip3
I0430 18:49:20.170753 24413 net.cpp:86] Creating Layer ip3
I0430 18:49:20.170758 24413 net.cpp:408] ip3 <- ip2
I0430 18:49:20.170765 24413 net.cpp:382] ip3 -> ip3
I0430 18:49:20.172299 24413 net.cpp:124] Setting up ip3
I0430 18:49:20.172314 24413 net.cpp:131] Top shape: 111 80 (8880)
I0430 18:49:20.172318 24413 net.cpp:139] Memory required for data: 1559772
I0430 18:49:20.172330 24413 layer_factory.hpp:77] Creating layer relu3
I0430 18:49:20.172338 24413 net.cpp:86] Creating Layer relu3
I0430 18:49:20.172341 24413 net.cpp:408] relu3 <- ip3
I0430 18:49:20.172349 24413 net.cpp:369] relu3 -> ip3 (in-place)
I0430 18:49:20.172554 24413 net.cpp:124] Setting up relu3
I0430 18:49:20.172565 24413 net.cpp:131] Top shape: 111 80 (8880)
I0430 18:49:20.172569 24413 net.cpp:139] Memory required for data: 1595292
I0430 18:49:20.172574 24413 layer_factory.hpp:77] Creating layer ip4
I0430 18:49:20.172580 24413 net.cpp:86] Creating Layer ip4
I0430 18:49:20.172585 24413 net.cpp:408] ip4 <- ip3
I0430 18:49:20.172591 24413 net.cpp:382] ip4 -> ip4
I0430 18:49:20.173722 24413 net.cpp:124] Setting up ip4
I0430 18:49:20.173737 24413 net.cpp:131] Top shape: 111 10 (1110)
I0430 18:49:20.173740 24413 net.cpp:139] Memory required for data: 1599732
I0430 18:49:20.173748 24413 layer_factory.hpp:77] Creating layer loss
I0430 18:49:20.173756 24413 net.cpp:86] Creating Layer loss
I0430 18:49:20.173760 24413 net.cpp:408] loss <- ip4
I0430 18:49:20.173765 24413 net.cpp:408] loss <- label
I0430 18:49:20.173774 24413 net.cpp:382] loss -> loss
I0430 18:49:20.173794 24413 layer_factory.hpp:77] Creating layer loss
…
I0430 18:49:20.174481 24413 solver.cpp:173] Creating test net (#0) specified by net file: ECE595/cifar/train_test/var_everything/cifar_train_test_78.prototxt
I0430 18:49:20.174526 24413 net.cpp:296] The NetState phase (1) differed from the phase (0) specified by a rule in layer cifar
I0430 18:49:20.174618 24413 net.cpp:53] Initializing net from parameters: 
name: "CIFAR"
state {
  phase: TEST
}
layer {
  name: "cifar"
  type: "Data"
  top: "data"
  top: "label"
  include {
    phase: TEST
  }
  transform_param {
    mean_file: "examples/cifar10/mean.binaryproto"
  }
  data_param {
    source: "examples/cifar10/cifar10_test_lmdb"
    batch_size: 1000
    backend: LMDB
  }
}
layer {
  name: "ip1"
  type: "InnerProduct"
  bottom: "data"
  top: "ip1"
  param {
    lr_mult: 1
  }
  param {
    lr_mult: 2
  }
  inner_product_param {
    num_output: 20
    weight_filler {
      type: "gaussian"
      std: 0.01
    }
    bias_filler {
      type: "constant"
    }
  }
}
layer {
  name: "relu1"
  type: "ReLU"
  bottom: "ip1"
  top: "ip1"
}
layer {
  name: "ip2"
  type: "InnerProduct"
  bottom: "ip1"
  top: "ip2"
  param {
    lr_mult: 1
  }
  param {
    lr_mult: 2
  }
  inner_product_param {
    num_output: 160
    weight_filler {
      type: "gaussian"
      std: 0.01
    }
    bias_filler {
      type: "constant"
    }
  }
}
layer {
  name: "relu2"
  type: "ReLU"
  bottom: "ip2"
  top: "ip2"
}
layer {
  name: "ip3"
  type: "InnerProduct"
  bottom: "ip2"
  top: "ip3"
  param {
    lr_mult: 1
  }
  param {
    lr_mult: 2
  }
  inner_product_param {
    num_output: 80
    weight_filler {
      type: "gaussian"
      std: 0.01
    }
    bias_filler {
      type: "constant"
    }
  }
}
layer {
  name: "relu3"
  type: "ReLU"
  bottom: "ip3"
  top: "ip3"
}
layer {
  name: "ip4"
  type: "InnerProduct"
  bottom: "ip3"
  top: "ip4"
  param {
    lr_mult: 1
  }
  param {
    lr_mult: 2
  }
  inner_product_param {
    num_output: 10
    weight_filler {
      type: "gaussian"
      std: 0.01
    }
    bias_filler {
      type: "constant"
    }
  }
}
layer {
  name: "accuracy"
  type: "Accuracy"
  bottom: "ip4"
  bottom: "label"
  top: "accuracy"
  include {
    phase: TEST
  }
}
layer {
  name: "loss"
  type: "SoftmaxWithLoss"
  bottom: "ip4"
  bottom: "label"
  top: "loss"
}
I0430 18:49:20.174696 24413 layer_factory.hpp:77] Creating layer cifar
I0430 18:49:20.174754 24413 db_lmdb.cpp:35] Opened lmdb examples/cifar10/cifar10_test_lmdb
I0430 18:49:20.174772 24413 net.cpp:86] Creating Layer cifar
I0430 18:49:20.174777 24413 net.cpp:382] cifar -> data
I0430 18:49:20.174787 24413 net.cpp:382] cifar -> label
I0430 18:49:20.174794 24413 data_transformer.cpp:25] Loading mean file from: examples/cifar10/mean.binaryproto
I0430 18:49:20.174978 24413 data_layer.cpp:45] output data size: 1000,3,32,32
I0430 18:49:20.200273 24413 net.cpp:124] Setting up cifar
I0430 18:49:20.200302 24413 net.cpp:131] Top shape: 1000 3 32 32 (3072000)
I0430 18:49:20.200309 24413 net.cpp:131] Top shape: 1000 (1000)
I0430 18:49:20.200312 24413 net.cpp:139] Memory required for data: 12292000
I0430 18:49:20.200318 24413 layer_factory.hpp:77] Creating layer label_cifar_1_split
I0430 18:49:20.200354 24413 net.cpp:86] Creating Layer label_cifar_1_split
I0430 18:49:20.200359 24413 net.cpp:408] label_cifar_1_split <- label
I0430 18:49:20.200368 24413 net.cpp:382] label_cifar_1_split -> label_cifar_1_split_0
I0430 18:49:20.200378 24413 net.cpp:382] label_cifar_1_split -> label_cifar_1_split_1
I0430 18:49:20.200469 24413 net.cpp:124] Setting up label_cifar_1_split
I0430 18:49:20.200476 24413 net.cpp:131] Top shape: 1000 (1000)
I0430 18:49:20.200481 24413 net.cpp:131] Top shape: 1000 (1000)
I0430 18:49:20.200484 24413 net.cpp:139] Memory required for data: 12300000
I0430 18:49:20.200487 24413 layer_factory.hpp:77] Creating layer ip1
I0430 18:49:20.200498 24413 net.cpp:86] Creating Layer ip1
I0430 18:49:20.200502 24413 net.cpp:408] ip1 <- data
I0430 18:49:20.200510 24413 net.cpp:382] ip1 -> ip1
I0430 18:49:20.203168 24413 net.cpp:124] Setting up ip1
I0430 18:49:20.203181 24413 net.cpp:131] Top shape: 1000 20 (20000)
I0430 18:49:20.203189 24413 net.cpp:139] Memory required for data: 12380000
I0430 18:49:20.203217 24413 layer_factory.hpp:77] Creating layer relu1
I0430 18:49:20.203224 24413 net.cpp:86] Creating Layer relu1
I0430 18:49:20.203228 24413 net.cpp:408] relu1 <- ip1
I0430 18:49:20.203233 24413 net.cpp:369] relu1 -> ip1 (in-place)
I0430 18:49:20.204100 24413 net.cpp:124] Setting up relu1
I0430 18:49:20.204116 24413 net.cpp:131] Top shape: 1000 20 (20000)
I0430 18:49:20.204120 24413 net.cpp:139] Memory required for data: 12460000
I0430 18:49:20.204123 24413 layer_factory.hpp:77] Creating layer ip2
I0430 18:49:20.204133 24413 net.cpp:86] Creating Layer ip2
I0430 18:49:20.204138 24413 net.cpp:408] ip2 <- ip1
I0430 18:49:20.204144 24413 net.cpp:382] ip2 -> ip2
I0430 18:49:20.204358 24413 net.cpp:124] Setting up ip2
I0430 18:49:20.204368 24413 net.cpp:131] Top shape: 1000 160 (160000)
I0430 18:49:20.204371 24413 net.cpp:139] Memory required for data: 13100000
I0430 18:49:20.204380 24413 layer_factory.hpp:77] Creating layer relu2
I0430 18:49:20.204386 24413 net.cpp:86] Creating Layer relu2
I0430 18:49:20.204391 24413 net.cpp:408] relu2 <- ip2
I0430 18:49:20.204394 24413 net.cpp:369] relu2 -> ip2 (in-place)
I0430 18:49:20.204571 24413 net.cpp:124] Setting up relu2
I0430 18:49:20.204581 24413 net.cpp:131] Top shape: 1000 160 (160000)
I0430 18:49:20.204583 24413 net.cpp:139] Memory required for data: 13740000
I0430 18:49:20.204588 24413 layer_factory.hpp:77] Creating layer ip3
I0430 18:49:20.204594 24413 net.cpp:86] Creating Layer ip3
I0430 18:49:20.204597 24413 net.cpp:408] ip3 <- ip2
I0430 18:49:20.204604 24413 net.cpp:382] ip3 -> ip3
I0430 18:49:20.205122 24413 net.cpp:124] Setting up ip3
I0430 18:49:20.205132 24413 net.cpp:131] Top shape: 1000 80 (80000)
I0430 18:49:20.205135 24413 net.cpp:139] Memory required for data: 14060000
I0430 18:49:20.205144 24413 layer_factory.hpp:77] Creating layer relu3
I0430 18:49:20.205152 24413 net.cpp:86] Creating Layer relu3
I0430 18:49:20.205155 24413 net.cpp:408] relu3 <- ip3
I0430 18:49:20.205168 24413 net.cpp:369] relu3 -> ip3 (in-place)
I0430 18:49:20.205348 24413 net.cpp:124] Setting up relu3
I0430 18:49:20.205358 24413 net.cpp:131] Top shape: 1000 80 (80000)
I0430 18:49:20.205363 24413 net.cpp:139] Memory required for data: 14380000
I0430 18:49:20.205365 24413 layer_factory.hpp:77] Creating layer ip4
I0430 18:49:20.205375 24413 net.cpp:86] Creating Layer ip4
I0430 18:49:20.205379 24413 net.cpp:408] ip4 <- ip3
I0430 18:49:20.205385 24413 net.cpp:382] ip4 -> ip4
I0430 18:49:20.205526 24413 net.cpp:124] Setting up ip4
I0430 18:49:20.205534 24413 net.cpp:131] Top shape: 1000 10 (10000)
I0430 18:49:20.205538 24413 net.cpp:139] Memory required for data: 14420000
I0430 18:49:20.205543 24413 layer_factory.hpp:77] Creating layer ip4_ip4_0_split
I0430 18:49:20.205549 24413 net.cpp:86] Creating Layer ip4_ip4_0_split
I0430 18:49:20.205554 24413 net.cpp:408] ip4_ip4_0_split <- ip4
I0430 18:49:20.205559 24413 net.cpp:382] ip4_ip4_0_split -> ip4_ip4_0_split_0
I0430 18:49:20.205565 24413 net.cpp:382] ip4_ip4_0_split -> ip4_ip4_0_split_1
I0430 18:49:20.205600 24413 net.cpp:124] Setting up ip4_ip4_0_split
I0430 18:49:20.205612 24413 net.cpp:131] Top shape: 1000 10 (10000)
I0430 18:49:20.205617 24413 net.cpp:131] Top shape: 1000 10 (10000)
I0430 18:49:20.205621 24413 net.cpp:139] Memory required for data: 14500000
I0430 18:49:20.205623 24413 layer_factory.hpp:77] Creating layer accuracy
I0430 18:49:20.205631 24413 net.cpp:86] Creating Layer accuracy
I0430 18:49:20.205636 24413 net.cpp:408] accuracy <- ip4_ip4_0_split_0
I0430 18:49:20.205639 24413 net.cpp:408] accuracy <- label_cifar_1_split_0
I0430 18:49:20.205644 24413 net.cpp:382] accuracy -> accuracy
…
