…
I0501 06:40:25.646538  1392 net.cpp:296] The NetState phase (0) differed from the phase (1) specified by a rule in layer cifar
I0501 06:40:25.646559  1392 net.cpp:296] The NetState phase (0) differed from the phase (1) specified by a rule in layer accuracy
I0501 06:40:25.646673  1392 net.cpp:53] Initializing net from parameters: 
name: "CIFAR"
state {
  phase: TRAIN
  level: 0
  stage: ""
}
layer {
  name: "cifar"
  type: "Data"
  top: "data"
  top: "label"
  include {
    phase: TRAIN
  }
  transform_param {
    mean_file: "examples/cifar10/mean.binaryproto"
  }
  data_param {
    source: "examples/cifar10/cifar10_train_lmdb"
    batch_size: 111
    backend: LMDB
  }
}
layer {
  name: "conv0"
  type: "Convolution"
  bottom: "data"
  top: "conv0"
  param {
    lr_mult: 1
  }
  param {
    lr_mult: 2
  }
  convolution_param {
    num_output: 8
    pad: 2
    kernel_size: 5
    stride: 1
    weight_filler {
      type: "gaussian"
      std: 0.01
    }
    bias_filler {
      type: "constant"
    }
  }
}
layer {
  name: "Sigmoid0"
  type: "Sigmoid"
  bottom: "conv0"
  top: "Sigmoid0"
}
layer {
  name: "pool0"
  type: "Pooling"
  bottom: "Sigmoid0"
  top: "pool0"
  pooling_param {
    pool: AVE
    kernel_size: 3
    stride: 2
  }
}
layer {
  name: "ip1"
  type: "InnerProduct"
  bottom: "pool0"
  top: "ip1"
  param {
    lr_mult: 1
  }
  param {
    lr_mult: 2
  }
  inner_product_param {
    num_output: 160
    weight_filler {
      type: "gaussian"
      std: 0.01
    }
    bias_filler {
      type: "constant"
    }
  }
}
layer {
  name: "relu1"
  type: "ReLU"
  bottom: "ip1"
  top: "ip1"
}
layer {
  name: "ip2"
  type: "InnerProduct"
  bottom: "ip1"
  top: "ip2"
  param {
    lr_mult: 1
  }
  param {
    lr_mult: 2
  }
  inner_product_param {
    num_output: 80
    weight_filler {
      type: "gaussian"
      std: 0.01
    }
    bias_filler {
      type: "constant"
    }
  }
}
layer {
  name: "relu2"
  type: "ReLU"
  bottom: "ip2"
  top: "ip2"
}
layer {
  name: "ip3"
  type: "InnerProduct"
  bottom: "ip2"
  top: "ip3"
  param {
    lr_mult: 1
  }
  param {
    lr_mult: 2
  }
  inner_product_param {
    num_output: 80
    weight_filler {
      type: "gaussian"
      std: 0.01
    }
    bias_filler {
      type: "constant"
    }
  }
}
layer {
  name: "relu3"
  type: "ReLU"
  bottom: "ip3"
  top: "ip3"
}
layer {
  name: "ip4"
  type: "InnerProduct"
  bottom: "ip3"
  top: "ip4"
  param {
    lr_mult: 1
  }
  param {
    lr_mult: 2
  }
  inner_product_param {
    num_output: 10
    weight_filler {
      type: "gaussian"
      std: 0.01
    }
    bias_filler {
      type: "constant"
    }
  }
}
layer {
  name: "loss"
  type: "SoftmaxWithLoss"
  bottom: "ip4"
  bottom: "label"
  top: "loss"
}
I0501 06:40:25.646754  1392 layer_factory.hpp:77] Creating layer cifar
I0501 06:40:25.646853  1392 db_lmdb.cpp:35] Opened lmdb examples/cifar10/cifar10_train_lmdb
I0501 06:40:25.646880  1392 net.cpp:86] Creating Layer cifar
I0501 06:40:25.646890  1392 net.cpp:382] cifar -> data
I0501 06:40:25.646913  1392 net.cpp:382] cifar -> label
I0501 06:40:25.646925  1392 data_transformer.cpp:25] Loading mean file from: examples/cifar10/mean.binaryproto
I0501 06:40:25.649088  1392 data_layer.cpp:45] output data size: 111,3,32,32
I0501 06:40:25.657053  1392 net.cpp:124] Setting up cifar
I0501 06:40:25.657073  1392 net.cpp:131] Top shape: 111 3 32 32 (340992)
I0501 06:40:25.657079  1392 net.cpp:131] Top shape: 111 (111)
I0501 06:40:25.657083  1392 net.cpp:139] Memory required for data: 1364412
I0501 06:40:25.657105  1392 layer_factory.hpp:77] Creating layer conv0
I0501 06:40:25.657125  1392 net.cpp:86] Creating Layer conv0
I0501 06:40:25.657131  1392 net.cpp:408] conv0 <- data
I0501 06:40:25.657145  1392 net.cpp:382] conv0 -> conv0
I0501 06:40:25.947846  1392 net.cpp:124] Setting up conv0
I0501 06:40:25.947875  1392 net.cpp:131] Top shape: 111 8 32 32 (909312)
I0501 06:40:25.947880  1392 net.cpp:139] Memory required for data: 5001660
I0501 06:40:25.947896  1392 layer_factory.hpp:77] Creating layer Sigmoid0
I0501 06:40:25.947908  1392 net.cpp:86] Creating Layer Sigmoid0
I0501 06:40:25.947913  1392 net.cpp:408] Sigmoid0 <- conv0
I0501 06:40:25.947918  1392 net.cpp:382] Sigmoid0 -> Sigmoid0
I0501 06:40:25.948102  1392 net.cpp:124] Setting up Sigmoid0
I0501 06:40:25.948112  1392 net.cpp:131] Top shape: 111 8 32 32 (909312)
I0501 06:40:25.948117  1392 net.cpp:139] Memory required for data: 8638908
I0501 06:40:25.948119  1392 layer_factory.hpp:77] Creating layer pool0
I0501 06:40:25.948127  1392 net.cpp:86] Creating Layer pool0
I0501 06:40:25.948130  1392 net.cpp:408] pool0 <- Sigmoid0
I0501 06:40:25.948134  1392 net.cpp:382] pool0 -> pool0
I0501 06:40:25.948932  1392 net.cpp:124] Setting up pool0
I0501 06:40:25.948947  1392 net.cpp:131] Top shape: 111 8 16 16 (227328)
I0501 06:40:25.948951  1392 net.cpp:139] Memory required for data: 9548220
I0501 06:40:25.948954  1392 layer_factory.hpp:77] Creating layer ip1
I0501 06:40:25.948964  1392 net.cpp:86] Creating Layer ip1
I0501 06:40:25.948967  1392 net.cpp:408] ip1 <- pool0
I0501 06:40:25.948973  1392 net.cpp:382] ip1 -> ip1
I0501 06:40:25.959223  1392 net.cpp:124] Setting up ip1
I0501 06:40:25.959235  1392 net.cpp:131] Top shape: 111 160 (17760)
I0501 06:40:25.959239  1392 net.cpp:139] Memory required for data: 9619260
I0501 06:40:25.959247  1392 layer_factory.hpp:77] Creating layer relu1
I0501 06:40:25.959254  1392 net.cpp:86] Creating Layer relu1
I0501 06:40:25.959257  1392 net.cpp:408] relu1 <- ip1
I0501 06:40:25.959262  1392 net.cpp:369] relu1 -> ip1 (in-place)
I0501 06:40:25.959427  1392 net.cpp:124] Setting up relu1
I0501 06:40:25.959435  1392 net.cpp:131] Top shape: 111 160 (17760)
I0501 06:40:25.959439  1392 net.cpp:139] Memory required for data: 9690300
I0501 06:40:25.959442  1392 layer_factory.hpp:77] Creating layer ip2
I0501 06:40:25.959450  1392 net.cpp:86] Creating Layer ip2
I0501 06:40:25.959452  1392 net.cpp:408] ip2 <- ip1
I0501 06:40:25.959457  1392 net.cpp:382] ip2 -> ip2
I0501 06:40:25.960777  1392 net.cpp:124] Setting up ip2
I0501 06:40:25.960791  1392 net.cpp:131] Top shape: 111 80 (8880)
I0501 06:40:25.960815  1392 net.cpp:139] Memory required for data: 9725820
I0501 06:40:25.960824  1392 layer_factory.hpp:77] Creating layer relu2
I0501 06:40:25.960831  1392 net.cpp:86] Creating Layer relu2
I0501 06:40:25.960834  1392 net.cpp:408] relu2 <- ip2
I0501 06:40:25.960839  1392 net.cpp:369] relu2 -> ip2 (in-place)
I0501 06:40:25.961019  1392 net.cpp:124] Setting up relu2
I0501 06:40:25.961028  1392 net.cpp:131] Top shape: 111 80 (8880)
I0501 06:40:25.961031  1392 net.cpp:139] Memory required for data: 9761340
I0501 06:40:25.961035  1392 layer_factory.hpp:77] Creating layer ip3
I0501 06:40:25.961043  1392 net.cpp:86] Creating Layer ip3
I0501 06:40:25.961047  1392 net.cpp:408] ip3 <- ip2
I0501 06:40:25.961052  1392 net.cpp:382] ip3 -> ip3
I0501 06:40:25.961336  1392 net.cpp:124] Setting up ip3
I0501 06:40:25.961344  1392 net.cpp:131] Top shape: 111 80 (8880)
I0501 06:40:25.961346  1392 net.cpp:139] Memory required for data: 9796860
I0501 06:40:25.961352  1392 layer_factory.hpp:77] Creating layer relu3
I0501 06:40:25.961356  1392 net.cpp:86] Creating Layer relu3
I0501 06:40:25.961360  1392 net.cpp:408] relu3 <- ip3
I0501 06:40:25.961364  1392 net.cpp:369] relu3 -> ip3 (in-place)
I0501 06:40:25.961520  1392 net.cpp:124] Setting up relu3
I0501 06:40:25.961529  1392 net.cpp:131] Top shape: 111 80 (8880)
I0501 06:40:25.961531  1392 net.cpp:139] Memory required for data: 9832380
I0501 06:40:25.961534  1392 layer_factory.hpp:77] Creating layer ip4
I0501 06:40:25.961557  1392 net.cpp:86] Creating Layer ip4
I0501 06:40:25.961561  1392 net.cpp:408] ip4 <- ip3
I0501 06:40:25.961566  1392 net.cpp:382] ip4 -> ip4
I0501 06:40:25.961719  1392 net.cpp:124] Setting up ip4
I0501 06:40:25.961732  1392 net.cpp:131] Top shape: 111 10 (1110)
I0501 06:40:25.961737  1392 net.cpp:139] Memory required for data: 9836820
I0501 06:40:25.961746  1392 layer_factory.hpp:77] Creating layer loss
I0501 06:40:25.961753  1392 net.cpp:86] Creating Layer loss
I0501 06:40:25.961756  1392 net.cpp:408] loss <- ip4
I0501 06:40:25.961760  1392 net.cpp:408] loss <- label
I0501 06:40:25.961766  1392 net.cpp:382] loss -> loss
I0501 06:40:25.961786  1392 layer_factory.hpp:77] Creating layer loss
…
I0501 06:40:25.963083  1392 solver.cpp:173] Creating test net (#0) specified by net file: ECE595/cifar/train_test/var_everything/cifar_train_test_458.prototxt
I0501 06:40:25.963112  1392 net.cpp:296] The NetState phase (1) differed from the phase (0) specified by a rule in layer cifar
I0501 06:40:25.963215  1392 net.cpp:53] Initializing net from parameters: 
name: "CIFAR"
state {
  phase: TEST
}
layer {
  name: "cifar"
  type: "Data"
  top: "data"
  top: "label"
  include {
    phase: TEST
  }
  transform_param {
    mean_file: "examples/cifar10/mean.binaryproto"
  }
  data_param {
    source: "examples/cifar10/cifar10_test_lmdb"
    batch_size: 1000
    backend: LMDB
  }
}
layer {
  name: "conv0"
  type: "Convolution"
  bottom: "data"
  top: "conv0"
  param {
    lr_mult: 1
  }
  param {
    lr_mult: 2
  }
  convolution_param {
    num_output: 8
    pad: 2
    kernel_size: 5
    stride: 1
    weight_filler {
      type: "gaussian"
      std: 0.01
    }
    bias_filler {
      type: "constant"
    }
  }
}
layer {
  name: "Sigmoid0"
  type: "Sigmoid"
  bottom: "conv0"
  top: "Sigmoid0"
}
layer {
  name: "pool0"
  type: "Pooling"
  bottom: "Sigmoid0"
  top: "pool0"
  pooling_param {
    pool: AVE
    kernel_size: 3
    stride: 2
  }
}
layer {
  name: "ip1"
  type: "InnerProduct"
  bottom: "pool0"
  top: "ip1"
  param {
    lr_mult: 1
  }
  param {
    lr_mult: 2
  }
  inner_product_param {
    num_output: 160
    weight_filler {
      type: "gaussian"
      std: 0.01
    }
    bias_filler {
      type: "constant"
    }
  }
}
layer {
  name: "relu1"
  type: "ReLU"
  bottom: "ip1"
  top: "ip1"
}
layer {
  name: "ip2"
  type: "InnerProduct"
  bottom: "ip1"
  top: "ip2"
  param {
    lr_mult: 1
  }
  param {
    lr_mult: 2
  }
  inner_product_param {
    num_output: 80
    weight_filler {
      type: "gaussian"
      std: 0.01
    }
    bias_filler {
      type: "constant"
    }
  }
}
layer {
  name: "relu2"
  type: "ReLU"
  bottom: "ip2"
  top: "ip2"
}
layer {
  name: "ip3"
  type: "InnerProduct"
  bottom: "ip2"
  top: "ip3"
  param {
    lr_mult: 1
  }
  param {
    lr_mult: 2
  }
  inner_product_param {
    num_output: 80
    weight_filler {
      type: "gaussian"
      std: 0.01
    }
    bias_filler {
      type: "constant"
    }
  }
}
layer {
  name: "relu3"
  type: "ReLU"
  bottom: "ip3"
  top: "ip3"
}
layer {
  name: "ip4"
  type: "InnerProduct"
  bottom: "ip3"
  top: "ip4"
  param {
    lr_mult: 1
  }
  param {
    lr_mult: 2
  }
  inner_product_param {
    num_output: 10
    weight_filler {
      type: "gaussian"
      std: 0.01
    }
    bias_filler {
      type: "constant"
    }
  }
}
layer {
  name: "accuracy"
  type: "Accuracy"
  bottom: "ip4"
  bottom: "label"
  top: "accuracy"
  include {
    phase: TEST
  }
}
layer {
  name: "loss"
  type: "SoftmaxWithLoss"
  bottom: "ip4"
  bottom: "label"
  top: "loss"
}
I0501 06:40:25.963295  1392 layer_factory.hpp:77] Creating layer cifar
I0501 06:40:25.963345  1392 db_lmdb.cpp:35] Opened lmdb examples/cifar10/cifar10_test_lmdb
I0501 06:40:25.963357  1392 net.cpp:86] Creating Layer cifar
I0501 06:40:25.963362  1392 net.cpp:382] cifar -> data
I0501 06:40:25.963371  1392 net.cpp:382] cifar -> label
I0501 06:40:25.963376  1392 data_transformer.cpp:25] Loading mean file from: examples/cifar10/mean.binaryproto
I0501 06:40:25.963521  1392 data_layer.cpp:45] output data size: 1000,3,32,32
I0501 06:40:25.986194  1392 net.cpp:124] Setting up cifar
I0501 06:40:25.986222  1392 net.cpp:131] Top shape: 1000 3 32 32 (3072000)
I0501 06:40:25.986227  1392 net.cpp:131] Top shape: 1000 (1000)
I0501 06:40:25.986230  1392 net.cpp:139] Memory required for data: 12292000
I0501 06:40:25.986237  1392 layer_factory.hpp:77] Creating layer label_cifar_1_split
I0501 06:40:25.986253  1392 net.cpp:86] Creating Layer label_cifar_1_split
I0501 06:40:25.986256  1392 net.cpp:408] label_cifar_1_split <- label
I0501 06:40:25.986263  1392 net.cpp:382] label_cifar_1_split -> label_cifar_1_split_0
I0501 06:40:25.986271  1392 net.cpp:382] label_cifar_1_split -> label_cifar_1_split_1
I0501 06:40:25.986379  1392 net.cpp:124] Setting up label_cifar_1_split
I0501 06:40:25.986387  1392 net.cpp:131] Top shape: 1000 (1000)
I0501 06:40:25.986390  1392 net.cpp:131] Top shape: 1000 (1000)
I0501 06:40:25.986393  1392 net.cpp:139] Memory required for data: 12300000
I0501 06:40:25.986397  1392 layer_factory.hpp:77] Creating layer conv0
I0501 06:40:25.986408  1392 net.cpp:86] Creating Layer conv0
I0501 06:40:25.986412  1392 net.cpp:408] conv0 <- data
I0501 06:40:25.986416  1392 net.cpp:382] conv0 -> conv0
I0501 06:40:25.987974  1392 net.cpp:124] Setting up conv0
I0501 06:40:25.987987  1392 net.cpp:131] Top shape: 1000 8 32 32 (8192000)
I0501 06:40:25.987992  1392 net.cpp:139] Memory required for data: 45068000
I0501 06:40:25.988001  1392 layer_factory.hpp:77] Creating layer Sigmoid0
I0501 06:40:25.988008  1392 net.cpp:86] Creating Layer Sigmoid0
I0501 06:40:25.988011  1392 net.cpp:408] Sigmoid0 <- conv0
I0501 06:40:25.988016  1392 net.cpp:382] Sigmoid0 -> Sigmoid0
I0501 06:40:25.989217  1392 net.cpp:124] Setting up Sigmoid0
I0501 06:40:25.989228  1392 net.cpp:131] Top shape: 1000 8 32 32 (8192000)
I0501 06:40:25.989230  1392 net.cpp:139] Memory required for data: 77836000
I0501 06:40:25.989234  1392 layer_factory.hpp:77] Creating layer pool0
I0501 06:40:25.989243  1392 net.cpp:86] Creating Layer pool0
I0501 06:40:25.989245  1392 net.cpp:408] pool0 <- Sigmoid0
I0501 06:40:25.989250  1392 net.cpp:382] pool0 -> pool0
I0501 06:40:25.989444  1392 net.cpp:124] Setting up pool0
I0501 06:40:25.989454  1392 net.cpp:131] Top shape: 1000 8 16 16 (2048000)
I0501 06:40:25.989456  1392 net.cpp:139] Memory required for data: 86028000
I0501 06:40:25.989459  1392 layer_factory.hpp:77] Creating layer ip1
I0501 06:40:25.989467  1392 net.cpp:86] Creating Layer ip1
I0501 06:40:25.989470  1392 net.cpp:408] ip1 <- pool0
I0501 06:40:25.989475  1392 net.cpp:382] ip1 -> ip1
I0501 06:40:25.999063  1392 net.cpp:124] Setting up ip1
I0501 06:40:25.999078  1392 net.cpp:131] Top shape: 1000 160 (160000)
I0501 06:40:25.999080  1392 net.cpp:139] Memory required for data: 86668000
I0501 06:40:25.999104  1392 layer_factory.hpp:77] Creating layer relu1
I0501 06:40:25.999109  1392 net.cpp:86] Creating Layer relu1
I0501 06:40:25.999114  1392 net.cpp:408] relu1 <- ip1
I0501 06:40:25.999119  1392 net.cpp:369] relu1 -> ip1 (in-place)
I0501 06:40:25.999284  1392 net.cpp:124] Setting up relu1
I0501 06:40:25.999294  1392 net.cpp:131] Top shape: 1000 160 (160000)
I0501 06:40:25.999296  1392 net.cpp:139] Memory required for data: 87308000
I0501 06:40:25.999300  1392 layer_factory.hpp:77] Creating layer ip2
I0501 06:40:25.999306  1392 net.cpp:86] Creating Layer ip2
I0501 06:40:25.999310  1392 net.cpp:408] ip2 <- ip1
I0501 06:40:25.999315  1392 net.cpp:382] ip2 -> ip2
I0501 06:40:25.999786  1392 net.cpp:124] Setting up ip2
I0501 06:40:25.999794  1392 net.cpp:131] Top shape: 1000 80 (80000)
I0501 06:40:25.999796  1392 net.cpp:139] Memory required for data: 87628000
I0501 06:40:25.999804  1392 layer_factory.hpp:77] Creating layer relu2
I0501 06:40:25.999809  1392 net.cpp:86] Creating Layer relu2
I0501 06:40:25.999811  1392 net.cpp:408] relu2 <- ip2
I0501 06:40:25.999815  1392 net.cpp:369] relu2 -> ip2 (in-place)
I0501 06:40:26.000572  1392 net.cpp:124] Setting up relu2
I0501 06:40:26.000586  1392 net.cpp:131] Top shape: 1000 80 (80000)
I0501 06:40:26.000588  1392 net.cpp:139] Memory required for data: 87948000
I0501 06:40:26.000591  1392 layer_factory.hpp:77] Creating layer ip3
I0501 06:40:26.000598  1392 net.cpp:86] Creating Layer ip3
I0501 06:40:26.000602  1392 net.cpp:408] ip3 <- ip2
I0501 06:40:26.000607  1392 net.cpp:382] ip3 -> ip3
I0501 06:40:26.000931  1392 net.cpp:124] Setting up ip3
I0501 06:40:26.000941  1392 net.cpp:131] Top shape: 1000 80 (80000)
I0501 06:40:26.000943  1392 net.cpp:139] Memory required for data: 88268000
I0501 06:40:26.000950  1392 layer_factory.hpp:77] Creating layer relu3
I0501 06:40:26.000970  1392 net.cpp:86] Creating Layer relu3
I0501 06:40:26.000973  1392 net.cpp:408] relu3 <- ip3
I0501 06:40:26.000977  1392 net.cpp:369] relu3 -> ip3 (in-place)
I0501 06:40:26.001137  1392 net.cpp:124] Setting up relu3
I0501 06:40:26.001145  1392 net.cpp:131] Top shape: 1000 80 (80000)
I0501 06:40:26.001163  1392 net.cpp:139] Memory required for data: 88588000
I0501 06:40:26.001166  1392 layer_factory.hpp:77] Creating layer ip4
I0501 06:40:26.001173  1392 net.cpp:86] Creating Layer ip4
I0501 06:40:26.001175  1392 net.cpp:408] ip4 <- ip3
I0501 06:40:26.001181  1392 net.cpp:382] ip4 -> ip4
I0501 06:40:26.001305  1392 net.cpp:124] Setting up ip4
I0501 06:40:26.001313  1392 net.cpp:131] Top shape: 1000 10 (10000)
I0501 06:40:26.001317  1392 net.cpp:139] Memory required for data: 88628000
I0501 06:40:26.001323  1392 layer_factory.hpp:77] Creating layer ip4_ip4_0_split
I0501 06:40:26.001329  1392 net.cpp:86] Creating Layer ip4_ip4_0_split
I0501 06:40:26.001332  1392 net.cpp:408] ip4_ip4_0_split <- ip4
I0501 06:40:26.001338  1392 net.cpp:382] ip4_ip4_0_split -> ip4_ip4_0_split_0
I0501 06:40:26.001343  1392 net.cpp:382] ip4_ip4_0_split -> ip4_ip4_0_split_1
I0501 06:40:26.001374  1392 net.cpp:124] Setting up ip4_ip4_0_split
I0501 06:40:26.001381  1392 net.cpp:131] Top shape: 1000 10 (10000)
I0501 06:40:26.001385  1392 net.cpp:131] Top shape: 1000 10 (10000)
I0501 06:40:26.001387  1392 net.cpp:139] Memory required for data: 88708000
I0501 06:40:26.001390  1392 layer_factory.hpp:77] Creating layer accuracy
I0501 06:40:26.001397  1392 net.cpp:86] Creating Layer accuracy
I0501 06:40:26.001400  1392 net.cpp:408] accuracy <- ip4_ip4_0_split_0
I0501 06:40:26.001405  1392 net.cpp:408] accuracy <- label_cifar_1_split_0
I0501 06:40:26.001410  1392 net.cpp:382] accuracy -> accuracy
…
