…
I0430 16:25:03.883896 17349 net.cpp:296] The NetState phase (0) differed from the phase (1) specified by a rule in layer cifar
I0430 16:25:03.883913 17349 net.cpp:296] The NetState phase (0) differed from the phase (1) specified by a rule in layer accuracy
I0430 16:25:03.883990 17349 net.cpp:53] Initializing net from parameters: 
name: "CIFAR"
state {
  phase: TRAIN
  level: 0
  stage: ""
}
layer {
  name: "cifar"
  type: "Data"
  top: "data"
  top: "label"
  include {
    phase: TRAIN
  }
  transform_param {
    mean_file: "examples/cifar10/mean.binaryproto"
  }
  data_param {
    source: "examples/cifar10/cifar10_train_lmdb"
    batch_size: 111
    backend: LMDB
  }
}
layer {
  name: "ip1"
  type: "InnerProduct"
  bottom: "data"
  top: "ip1"
  param {
    lr_mult: 1
  }
  param {
    lr_mult: 2
  }
  inner_product_param {
    num_output: 40
    weight_filler {
      type: "gaussian"
      std: 0.01
    }
    bias_filler {
      type: "constant"
    }
  }
}
layer {
  name: "relu1"
  type: "ReLU"
  bottom: "ip1"
  top: "ip1"
}
layer {
  name: "ip2"
  type: "InnerProduct"
  bottom: "ip1"
  top: "ip2"
  param {
    lr_mult: 1
  }
  param {
    lr_mult: 2
  }
  inner_product_param {
    num_output: 10
    weight_filler {
      type: "gaussian"
      std: 0.01
    }
    bias_filler {
      type: "constant"
    }
  }
}
layer {
  name: "loss"
  type: "SoftmaxWithLoss"
  bottom: "ip2"
  bottom: "label"
  top: "loss"
}
I0430 16:25:03.884069 17349 layer_factory.hpp:77] Creating layer cifar
I0430 16:25:03.884201 17349 db_lmdb.cpp:35] Opened lmdb examples/cifar10/cifar10_train_lmdb
I0430 16:25:03.884235 17349 net.cpp:86] Creating Layer cifar
I0430 16:25:03.884246 17349 net.cpp:382] cifar -> data
I0430 16:25:03.884277 17349 net.cpp:382] cifar -> label
I0430 16:25:03.884294 17349 data_transformer.cpp:25] Loading mean file from: examples/cifar10/mean.binaryproto
I0430 16:25:03.886500 17349 data_layer.cpp:45] output data size: 111,3,32,32
I0430 16:25:03.894367 17349 net.cpp:124] Setting up cifar
I0430 16:25:03.894387 17349 net.cpp:131] Top shape: 111 3 32 32 (340992)
I0430 16:25:03.894393 17349 net.cpp:131] Top shape: 111 (111)
I0430 16:25:03.894397 17349 net.cpp:139] Memory required for data: 1364412
I0430 16:25:03.894403 17349 layer_factory.hpp:77] Creating layer ip1
I0430 16:25:03.894414 17349 net.cpp:86] Creating Layer ip1
I0430 16:25:03.894419 17349 net.cpp:408] ip1 <- data
I0430 16:25:03.894431 17349 net.cpp:382] ip1 -> ip1
I0430 16:25:03.898705 17349 net.cpp:124] Setting up ip1
I0430 16:25:03.898717 17349 net.cpp:131] Top shape: 111 40 (4440)
I0430 16:25:03.898721 17349 net.cpp:139] Memory required for data: 1382172
I0430 16:25:03.898735 17349 layer_factory.hpp:77] Creating layer relu1
I0430 16:25:03.898743 17349 net.cpp:86] Creating Layer relu1
I0430 16:25:03.898748 17349 net.cpp:408] relu1 <- ip1
I0430 16:25:03.898756 17349 net.cpp:369] relu1 -> ip1 (in-place)
I0430 16:25:04.175678 17349 net.cpp:124] Setting up relu1
I0430 16:25:04.175704 17349 net.cpp:131] Top shape: 111 40 (4440)
I0430 16:25:04.175707 17349 net.cpp:139] Memory required for data: 1399932
I0430 16:25:04.175714 17349 layer_factory.hpp:77] Creating layer ip2
I0430 16:25:04.175724 17349 net.cpp:86] Creating Layer ip2
I0430 16:25:04.175729 17349 net.cpp:408] ip2 <- ip1
I0430 16:25:04.175735 17349 net.cpp:382] ip2 -> ip2
I0430 16:25:04.176712 17349 net.cpp:124] Setting up ip2
I0430 16:25:04.176725 17349 net.cpp:131] Top shape: 111 10 (1110)
I0430 16:25:04.176743 17349 net.cpp:139] Memory required for data: 1404372
I0430 16:25:04.176754 17349 layer_factory.hpp:77] Creating layer loss
I0430 16:25:04.176761 17349 net.cpp:86] Creating Layer loss
I0430 16:25:04.176765 17349 net.cpp:408] loss <- ip2
I0430 16:25:04.176769 17349 net.cpp:408] loss <- label
I0430 16:25:04.176775 17349 net.cpp:382] loss -> loss
I0430 16:25:04.176800 17349 layer_factory.hpp:77] Creating layer loss
…
I0430 16:25:04.177953 17349 solver.cpp:173] Creating test net (#0) specified by net file: ECE595/cifar/train_test/var_everything/cifar_train_test_2.prototxt
I0430 16:25:04.177971 17349 net.cpp:296] The NetState phase (1) differed from the phase (0) specified by a rule in layer cifar
I0430 16:25:04.178027 17349 net.cpp:53] Initializing net from parameters: 
name: "CIFAR"
state {
  phase: TEST
}
layer {
  name: "cifar"
  type: "Data"
  top: "data"
  top: "label"
  include {
    phase: TEST
  }
  transform_param {
    mean_file: "examples/cifar10/mean.binaryproto"
  }
  data_param {
    source: "examples/cifar10/cifar10_test_lmdb"
    batch_size: 1000
    backend: LMDB
  }
}
layer {
  name: "ip1"
  type: "InnerProduct"
  bottom: "data"
  top: "ip1"
  param {
    lr_mult: 1
  }
  param {
    lr_mult: 2
  }
  inner_product_param {
    num_output: 40
    weight_filler {
      type: "gaussian"
      std: 0.01
    }
    bias_filler {
      type: "constant"
    }
  }
}
layer {
  name: "relu1"
  type: "ReLU"
  bottom: "ip1"
  top: "ip1"
}
layer {
  name: "ip2"
  type: "InnerProduct"
  bottom: "ip1"
  top: "ip2"
  param {
    lr_mult: 1
  }
  param {
    lr_mult: 2
  }
  inner_product_param {
    num_output: 10
    weight_filler {
      type: "gaussian"
      std: 0.01
    }
    bias_filler {
      type: "constant"
    }
  }
}
layer {
  name: "accuracy"
  type: "Accuracy"
  bottom: "ip2"
  bottom: "label"
  top: "accuracy"
  include {
    phase: TEST
  }
}
layer {
  name: "loss"
  type: "SoftmaxWithLoss"
  bottom: "ip2"
  bottom: "label"
  top: "loss"
}
I0430 16:25:04.178074 17349 layer_factory.hpp:77] Creating layer cifar
I0430 16:25:04.178131 17349 db_lmdb.cpp:35] Opened lmdb examples/cifar10/cifar10_test_lmdb
I0430 16:25:04.178143 17349 net.cpp:86] Creating Layer cifar
I0430 16:25:04.178148 17349 net.cpp:382] cifar -> data
I0430 16:25:04.178155 17349 net.cpp:382] cifar -> label
I0430 16:25:04.178161 17349 data_transformer.cpp:25] Loading mean file from: examples/cifar10/mean.binaryproto
I0430 16:25:04.178292 17349 data_layer.cpp:45] output data size: 1000,3,32,32
I0430 16:25:04.199378 17349 net.cpp:124] Setting up cifar
I0430 16:25:04.199436 17349 net.cpp:131] Top shape: 1000 3 32 32 (3072000)
I0430 16:25:04.199442 17349 net.cpp:131] Top shape: 1000 (1000)
I0430 16:25:04.199445 17349 net.cpp:139] Memory required for data: 12292000
I0430 16:25:04.199453 17349 layer_factory.hpp:77] Creating layer label_cifar_1_split
I0430 16:25:04.199470 17349 net.cpp:86] Creating Layer label_cifar_1_split
I0430 16:25:04.199475 17349 net.cpp:408] label_cifar_1_split <- label
I0430 16:25:04.199496 17349 net.cpp:382] label_cifar_1_split -> label_cifar_1_split_0
I0430 16:25:04.199506 17349 net.cpp:382] label_cifar_1_split -> label_cifar_1_split_1
I0430 16:25:04.199609 17349 net.cpp:124] Setting up label_cifar_1_split
I0430 16:25:04.199615 17349 net.cpp:131] Top shape: 1000 (1000)
I0430 16:25:04.199633 17349 net.cpp:131] Top shape: 1000 (1000)
I0430 16:25:04.199636 17349 net.cpp:139] Memory required for data: 12300000
I0430 16:25:04.199640 17349 layer_factory.hpp:77] Creating layer ip1
I0430 16:25:04.199650 17349 net.cpp:86] Creating Layer ip1
I0430 16:25:04.199652 17349 net.cpp:408] ip1 <- data
I0430 16:25:04.199657 17349 net.cpp:382] ip1 -> ip1
I0430 16:25:04.203022 17349 net.cpp:124] Setting up ip1
I0430 16:25:04.203033 17349 net.cpp:131] Top shape: 1000 40 (40000)
I0430 16:25:04.203052 17349 net.cpp:139] Memory required for data: 12460000
I0430 16:25:04.203060 17349 layer_factory.hpp:77] Creating layer relu1
I0430 16:25:04.203066 17349 net.cpp:86] Creating Layer relu1
I0430 16:25:04.203069 17349 net.cpp:408] relu1 <- ip1
I0430 16:25:04.203073 17349 net.cpp:369] relu1 -> ip1 (in-place)
I0430 16:25:04.203261 17349 net.cpp:124] Setting up relu1
I0430 16:25:04.203270 17349 net.cpp:131] Top shape: 1000 40 (40000)
I0430 16:25:04.203274 17349 net.cpp:139] Memory required for data: 12620000
I0430 16:25:04.203276 17349 layer_factory.hpp:77] Creating layer ip2
I0430 16:25:04.203284 17349 net.cpp:86] Creating Layer ip2
I0430 16:25:04.203287 17349 net.cpp:408] ip2 <- ip1
I0430 16:25:04.203292 17349 net.cpp:382] ip2 -> ip2
I0430 16:25:04.203399 17349 net.cpp:124] Setting up ip2
I0430 16:25:04.203407 17349 net.cpp:131] Top shape: 1000 10 (10000)
I0430 16:25:04.203409 17349 net.cpp:139] Memory required for data: 12660000
I0430 16:25:04.203416 17349 layer_factory.hpp:77] Creating layer ip2_ip2_0_split
I0430 16:25:04.203420 17349 net.cpp:86] Creating Layer ip2_ip2_0_split
I0430 16:25:04.203424 17349 net.cpp:408] ip2_ip2_0_split <- ip2
I0430 16:25:04.203428 17349 net.cpp:382] ip2_ip2_0_split -> ip2_ip2_0_split_0
I0430 16:25:04.203434 17349 net.cpp:382] ip2_ip2_0_split -> ip2_ip2_0_split_1
I0430 16:25:04.203464 17349 net.cpp:124] Setting up ip2_ip2_0_split
I0430 16:25:04.203467 17349 net.cpp:131] Top shape: 1000 10 (10000)
I0430 16:25:04.203471 17349 net.cpp:131] Top shape: 1000 10 (10000)
I0430 16:25:04.203474 17349 net.cpp:139] Memory required for data: 12740000
I0430 16:25:04.203476 17349 layer_factory.hpp:77] Creating layer accuracy
I0430 16:25:04.203482 17349 net.cpp:86] Creating Layer accuracy
I0430 16:25:04.203485 17349 net.cpp:408] accuracy <- ip2_ip2_0_split_0
I0430 16:25:04.203490 17349 net.cpp:408] accuracy <- label_cifar_1_split_0
I0430 16:25:04.203493 17349 net.cpp:382] accuracy -> accuracy
…
