…
I0501 08:52:05.477854 12214 net.cpp:296] The NetState phase (0) differed from the phase (1) specified by a rule in layer cifar
I0501 08:52:05.477872 12214 net.cpp:296] The NetState phase (0) differed from the phase (1) specified by a rule in layer accuracy
I0501 08:52:05.477982 12214 net.cpp:53] Initializing net from parameters: 
name: "CIFAR"
state {
  phase: TRAIN
  level: 0
  stage: ""
}
layer {
  name: "cifar"
  type: "Data"
  top: "data"
  top: "label"
  include {
    phase: TRAIN
  }
  transform_param {
    mean_file: "examples/cifar10/mean.binaryproto"
  }
  data_param {
    source: "examples/cifar10/cifar10_train_lmdb"
    batch_size: 111
    backend: LMDB
  }
}
layer {
  name: "conv0"
  type: "Convolution"
  bottom: "data"
  top: "conv0"
  param {
    lr_mult: 1
  }
  param {
    lr_mult: 2
  }
  convolution_param {
    num_output: 16
    pad: 2
    kernel_size: 3
    stride: 1
    weight_filler {
      type: "gaussian"
      std: 0.01
    }
    bias_filler {
      type: "constant"
    }
  }
}
layer {
  name: "Sigmoid0"
  type: "Sigmoid"
  bottom: "conv0"
  top: "Sigmoid0"
}
layer {
  name: "pool0"
  type: "Pooling"
  bottom: "Sigmoid0"
  top: "pool0"
  pooling_param {
    pool: AVE
    kernel_size: 3
    stride: 2
  }
}
layer {
  name: "ip1"
  type: "InnerProduct"
  bottom: "pool0"
  top: "ip1"
  param {
    lr_mult: 1
  }
  param {
    lr_mult: 2
  }
  inner_product_param {
    num_output: 20
    weight_filler {
      type: "gaussian"
      std: 0.01
    }
    bias_filler {
      type: "constant"
    }
  }
}
layer {
  name: "relu1"
  type: "ReLU"
  bottom: "ip1"
  top: "ip1"
}
layer {
  name: "ip2"
  type: "InnerProduct"
  bottom: "ip1"
  top: "ip2"
  param {
    lr_mult: 1
  }
  param {
    lr_mult: 2
  }
  inner_product_param {
    num_output: 10
    weight_filler {
      type: "gaussian"
      std: 0.01
    }
    bias_filler {
      type: "constant"
    }
  }
}
layer {
  name: "relu2"
  type: "ReLU"
  bottom: "ip2"
  top: "ip2"
}
layer {
  name: "ip3"
  type: "InnerProduct"
  bottom: "ip2"
  top: "ip3"
  param {
    lr_mult: 1
  }
  param {
    lr_mult: 2
  }
  inner_product_param {
    num_output: 80
    weight_filler {
      type: "gaussian"
      std: 0.01
    }
    bias_filler {
      type: "constant"
    }
  }
}
layer {
  name: "relu3"
  type: "ReLU"
  bottom: "ip3"
  top: "ip3"
}
layer {
  name: "ip4"
  type: "InnerProduct"
  bottom: "ip3"
  top: "ip4"
  param {
    lr_mult: 1
  }
  param {
    lr_mult: 2
  }
  inner_product_param {
    num_output: 10
    weight_filler {
      type: "gaussian"
      std: 0.01
    }
    bias_filler {
      type: "constant"
    }
  }
}
layer {
  name: "loss"
  type: "SoftmaxWithLoss"
  bottom: "ip4"
  bottom: "label"
  top: "loss"
}
I0501 08:52:05.478060 12214 layer_factory.hpp:77] Creating layer cifar
I0501 08:52:05.478159 12214 db_lmdb.cpp:35] Opened lmdb examples/cifar10/cifar10_train_lmdb
I0501 08:52:05.478188 12214 net.cpp:86] Creating Layer cifar
I0501 08:52:05.478199 12214 net.cpp:382] cifar -> data
I0501 08:52:05.478221 12214 net.cpp:382] cifar -> label
I0501 08:52:05.478238 12214 data_transformer.cpp:25] Loading mean file from: examples/cifar10/mean.binaryproto
I0501 08:52:05.480391 12214 data_layer.cpp:45] output data size: 111,3,32,32
I0501 08:52:05.488574 12214 net.cpp:124] Setting up cifar
I0501 08:52:05.488592 12214 net.cpp:131] Top shape: 111 3 32 32 (340992)
I0501 08:52:05.488600 12214 net.cpp:131] Top shape: 111 (111)
I0501 08:52:05.488602 12214 net.cpp:139] Memory required for data: 1364412
I0501 08:52:05.488626 12214 layer_factory.hpp:77] Creating layer conv0
I0501 08:52:05.488648 12214 net.cpp:86] Creating Layer conv0
I0501 08:52:05.488654 12214 net.cpp:408] conv0 <- data
I0501 08:52:05.488667 12214 net.cpp:382] conv0 -> conv0
I0501 08:52:05.773185 12214 net.cpp:124] Setting up conv0
I0501 08:52:05.773239 12214 net.cpp:131] Top shape: 111 16 34 34 (2053056)
I0501 08:52:05.773243 12214 net.cpp:139] Memory required for data: 9576636
I0501 08:52:05.773258 12214 layer_factory.hpp:77] Creating layer Sigmoid0
I0501 08:52:05.773270 12214 net.cpp:86] Creating Layer Sigmoid0
I0501 08:52:05.773274 12214 net.cpp:408] Sigmoid0 <- conv0
I0501 08:52:05.773280 12214 net.cpp:382] Sigmoid0 -> Sigmoid0
I0501 08:52:05.773460 12214 net.cpp:124] Setting up Sigmoid0
I0501 08:52:05.773470 12214 net.cpp:131] Top shape: 111 16 34 34 (2053056)
I0501 08:52:05.773473 12214 net.cpp:139] Memory required for data: 17788860
I0501 08:52:05.773478 12214 layer_factory.hpp:77] Creating layer pool0
I0501 08:52:05.773484 12214 net.cpp:86] Creating Layer pool0
I0501 08:52:05.773488 12214 net.cpp:408] pool0 <- Sigmoid0
I0501 08:52:05.773493 12214 net.cpp:382] pool0 -> pool0
I0501 08:52:05.774397 12214 net.cpp:124] Setting up pool0
I0501 08:52:05.774412 12214 net.cpp:131] Top shape: 111 16 17 17 (513264)
I0501 08:52:05.774416 12214 net.cpp:139] Memory required for data: 19841916
I0501 08:52:05.774420 12214 layer_factory.hpp:77] Creating layer ip1
I0501 08:52:05.774430 12214 net.cpp:86] Creating Layer ip1
I0501 08:52:05.774432 12214 net.cpp:408] ip1 <- pool0
I0501 08:52:05.774437 12214 net.cpp:382] ip1 -> ip1
I0501 08:52:05.777081 12214 net.cpp:124] Setting up ip1
I0501 08:52:05.777091 12214 net.cpp:131] Top shape: 111 20 (2220)
I0501 08:52:05.777109 12214 net.cpp:139] Memory required for data: 19850796
I0501 08:52:05.777117 12214 layer_factory.hpp:77] Creating layer relu1
I0501 08:52:05.777123 12214 net.cpp:86] Creating Layer relu1
I0501 08:52:05.777127 12214 net.cpp:408] relu1 <- ip1
I0501 08:52:05.777146 12214 net.cpp:369] relu1 -> ip1 (in-place)
I0501 08:52:05.777340 12214 net.cpp:124] Setting up relu1
I0501 08:52:05.777348 12214 net.cpp:131] Top shape: 111 20 (2220)
I0501 08:52:05.777351 12214 net.cpp:139] Memory required for data: 19859676
I0501 08:52:05.777354 12214 layer_factory.hpp:77] Creating layer ip2
I0501 08:52:05.777361 12214 net.cpp:86] Creating Layer ip2
I0501 08:52:05.777364 12214 net.cpp:408] ip2 <- ip1
I0501 08:52:05.777369 12214 net.cpp:382] ip2 -> ip2
I0501 08:52:05.777462 12214 net.cpp:124] Setting up ip2
I0501 08:52:05.777470 12214 net.cpp:131] Top shape: 111 10 (1110)
I0501 08:52:05.777473 12214 net.cpp:139] Memory required for data: 19864116
I0501 08:52:05.777480 12214 layer_factory.hpp:77] Creating layer relu2
I0501 08:52:05.777488 12214 net.cpp:86] Creating Layer relu2
I0501 08:52:05.777508 12214 net.cpp:408] relu2 <- ip2
I0501 08:52:05.777511 12214 net.cpp:369] relu2 -> ip2 (in-place)
I0501 08:52:05.777660 12214 net.cpp:124] Setting up relu2
I0501 08:52:05.777668 12214 net.cpp:131] Top shape: 111 10 (1110)
I0501 08:52:05.777673 12214 net.cpp:139] Memory required for data: 19868556
I0501 08:52:05.777675 12214 layer_factory.hpp:77] Creating layer ip3
I0501 08:52:05.777683 12214 net.cpp:86] Creating Layer ip3
I0501 08:52:05.777685 12214 net.cpp:408] ip3 <- ip2
I0501 08:52:05.777690 12214 net.cpp:382] ip3 -> ip3
I0501 08:52:05.777823 12214 net.cpp:124] Setting up ip3
I0501 08:52:05.777830 12214 net.cpp:131] Top shape: 111 80 (8880)
I0501 08:52:05.777833 12214 net.cpp:139] Memory required for data: 19904076
I0501 08:52:05.777838 12214 layer_factory.hpp:77] Creating layer relu3
I0501 08:52:05.777843 12214 net.cpp:86] Creating Layer relu3
I0501 08:52:05.777849 12214 net.cpp:408] relu3 <- ip3
I0501 08:52:05.777853 12214 net.cpp:369] relu3 -> ip3 (in-place)
I0501 08:52:05.778036 12214 net.cpp:124] Setting up relu3
I0501 08:52:05.778045 12214 net.cpp:131] Top shape: 111 80 (8880)
I0501 08:52:05.778048 12214 net.cpp:139] Memory required for data: 19939596
I0501 08:52:05.778051 12214 layer_factory.hpp:77] Creating layer ip4
I0501 08:52:05.778071 12214 net.cpp:86] Creating Layer ip4
I0501 08:52:05.778079 12214 net.cpp:408] ip4 <- ip3
I0501 08:52:05.778085 12214 net.cpp:382] ip4 -> ip4
I0501 08:52:05.778208 12214 net.cpp:124] Setting up ip4
I0501 08:52:05.778215 12214 net.cpp:131] Top shape: 111 10 (1110)
I0501 08:52:05.778219 12214 net.cpp:139] Memory required for data: 19944036
I0501 08:52:05.778228 12214 layer_factory.hpp:77] Creating layer loss
I0501 08:52:05.778234 12214 net.cpp:86] Creating Layer loss
I0501 08:52:05.778239 12214 net.cpp:408] loss <- ip4
I0501 08:52:05.778242 12214 net.cpp:408] loss <- label
I0501 08:52:05.778262 12214 net.cpp:382] loss -> loss
I0501 08:52:05.778280 12214 layer_factory.hpp:77] Creating layer loss
…
I0501 08:52:05.779533 12214 solver.cpp:173] Creating test net (#0) specified by net file: ECE595/cifar/train_test/var_everything/cifar_train_test_523.prototxt
I0501 08:52:05.779561 12214 net.cpp:296] The NetState phase (1) differed from the phase (0) specified by a rule in layer cifar
I0501 08:52:05.779652 12214 net.cpp:53] Initializing net from parameters: 
name: "CIFAR"
state {
  phase: TEST
}
layer {
  name: "cifar"
  type: "Data"
  top: "data"
  top: "label"
  include {
    phase: TEST
  }
  transform_param {
    mean_file: "examples/cifar10/mean.binaryproto"
  }
  data_param {
    source: "examples/cifar10/cifar10_test_lmdb"
    batch_size: 1000
    backend: LMDB
  }
}
layer {
  name: "conv0"
  type: "Convolution"
  bottom: "data"
  top: "conv0"
  param {
    lr_mult: 1
  }
  param {
    lr_mult: 2
  }
  convolution_param {
    num_output: 16
    pad: 2
    kernel_size: 3
    stride: 1
    weight_filler {
      type: "gaussian"
      std: 0.01
    }
    bias_filler {
      type: "constant"
    }
  }
}
layer {
  name: "Sigmoid0"
  type: "Sigmoid"
  bottom: "conv0"
  top: "Sigmoid0"
}
layer {
  name: "pool0"
  type: "Pooling"
  bottom: "Sigmoid0"
  top: "pool0"
  pooling_param {
    pool: AVE
    kernel_size: 3
    stride: 2
  }
}
layer {
  name: "ip1"
  type: "InnerProduct"
  bottom: "pool0"
  top: "ip1"
  param {
    lr_mult: 1
  }
  param {
    lr_mult: 2
  }
  inner_product_param {
    num_output: 20
    weight_filler {
      type: "gaussian"
      std: 0.01
    }
    bias_filler {
      type: "constant"
    }
  }
}
layer {
  name: "relu1"
  type: "ReLU"
  bottom: "ip1"
  top: "ip1"
}
layer {
  name: "ip2"
  type: "InnerProduct"
  bottom: "ip1"
  top: "ip2"
  param {
    lr_mult: 1
  }
  param {
    lr_mult: 2
  }
  inner_product_param {
    num_output: 10
    weight_filler {
      type: "gaussian"
      std: 0.01
    }
    bias_filler {
      type: "constant"
    }
  }
}
layer {
  name: "relu2"
  type: "ReLU"
  bottom: "ip2"
  top: "ip2"
}
layer {
  name: "ip3"
  type: "InnerProduct"
  bottom: "ip2"
  top: "ip3"
  param {
    lr_mult: 1
  }
  param {
    lr_mult: 2
  }
  inner_product_param {
    num_output: 80
    weight_filler {
      type: "gaussian"
      std: 0.01
    }
    bias_filler {
      type: "constant"
    }
  }
}
layer {
  name: "relu3"
  type: "ReLU"
  bottom: "ip3"
  top: "ip3"
}
layer {
  name: "ip4"
  type: "InnerProduct"
  bottom: "ip3"
  top: "ip4"
  param {
    lr_mult: 1
  }
  param {
    lr_mult: 2
  }
  inner_product_param {
    num_output: 10
    weight_filler {
      type: "gaussian"
      std: 0.01
    }
    bias_filler {
      type: "constant"
    }
  }
}
layer {
  name: "accuracy"
  type: "Accuracy"
  bottom: "ip4"
  bottom: "label"
  top: "accuracy"
  include {
    phase: TEST
  }
}
layer {
  name: "loss"
  type: "SoftmaxWithLoss"
  bottom: "ip4"
  bottom: "label"
  top: "loss"
}
I0501 08:52:05.779731 12214 layer_factory.hpp:77] Creating layer cifar
I0501 08:52:05.779774 12214 db_lmdb.cpp:35] Opened lmdb examples/cifar10/cifar10_test_lmdb
I0501 08:52:05.779789 12214 net.cpp:86] Creating Layer cifar
I0501 08:52:05.779795 12214 net.cpp:382] cifar -> data
I0501 08:52:05.779803 12214 net.cpp:382] cifar -> label
I0501 08:52:05.779814 12214 data_transformer.cpp:25] Loading mean file from: examples/cifar10/mean.binaryproto
I0501 08:52:05.779974 12214 data_layer.cpp:45] output data size: 1000,3,32,32
I0501 08:52:05.802227 12214 net.cpp:124] Setting up cifar
I0501 08:52:05.802254 12214 net.cpp:131] Top shape: 1000 3 32 32 (3072000)
I0501 08:52:05.802260 12214 net.cpp:131] Top shape: 1000 (1000)
I0501 08:52:05.802263 12214 net.cpp:139] Memory required for data: 12292000
I0501 08:52:05.802269 12214 layer_factory.hpp:77] Creating layer label_cifar_1_split
I0501 08:52:05.802283 12214 net.cpp:86] Creating Layer label_cifar_1_split
I0501 08:52:05.802286 12214 net.cpp:408] label_cifar_1_split <- label
I0501 08:52:05.802292 12214 net.cpp:382] label_cifar_1_split -> label_cifar_1_split_0
I0501 08:52:05.802301 12214 net.cpp:382] label_cifar_1_split -> label_cifar_1_split_1
I0501 08:52:05.802431 12214 net.cpp:124] Setting up label_cifar_1_split
I0501 08:52:05.802438 12214 net.cpp:131] Top shape: 1000 (1000)
I0501 08:52:05.802443 12214 net.cpp:131] Top shape: 1000 (1000)
I0501 08:52:05.802445 12214 net.cpp:139] Memory required for data: 12300000
I0501 08:52:05.802448 12214 layer_factory.hpp:77] Creating layer conv0
I0501 08:52:05.802460 12214 net.cpp:86] Creating Layer conv0
I0501 08:52:05.802466 12214 net.cpp:408] conv0 <- data
I0501 08:52:05.802486 12214 net.cpp:382] conv0 -> conv0
I0501 08:52:05.803985 12214 net.cpp:124] Setting up conv0
I0501 08:52:05.803999 12214 net.cpp:131] Top shape: 1000 16 34 34 (18496000)
I0501 08:52:05.804003 12214 net.cpp:139] Memory required for data: 86284000
I0501 08:52:05.804013 12214 layer_factory.hpp:77] Creating layer Sigmoid0
I0501 08:52:05.804019 12214 net.cpp:86] Creating Layer Sigmoid0
I0501 08:52:05.804023 12214 net.cpp:408] Sigmoid0 <- conv0
I0501 08:52:05.804026 12214 net.cpp:382] Sigmoid0 -> Sigmoid0
I0501 08:52:05.804235 12214 net.cpp:124] Setting up Sigmoid0
I0501 08:52:05.804245 12214 net.cpp:131] Top shape: 1000 16 34 34 (18496000)
I0501 08:52:05.804249 12214 net.cpp:139] Memory required for data: 160268000
I0501 08:52:05.804252 12214 layer_factory.hpp:77] Creating layer pool0
I0501 08:52:05.804260 12214 net.cpp:86] Creating Layer pool0
I0501 08:52:05.804263 12214 net.cpp:408] pool0 <- Sigmoid0
I0501 08:52:05.804268 12214 net.cpp:382] pool0 -> pool0
I0501 08:52:05.805488 12214 net.cpp:124] Setting up pool0
I0501 08:52:05.805500 12214 net.cpp:131] Top shape: 1000 16 17 17 (4624000)
I0501 08:52:05.805517 12214 net.cpp:139] Memory required for data: 178764000
I0501 08:52:05.805526 12214 layer_factory.hpp:77] Creating layer ip1
I0501 08:52:05.805534 12214 net.cpp:86] Creating Layer ip1
I0501 08:52:05.805537 12214 net.cpp:408] ip1 <- pool0
I0501 08:52:05.805542 12214 net.cpp:382] ip1 -> ip1
I0501 08:52:05.808132 12214 net.cpp:124] Setting up ip1
I0501 08:52:05.808140 12214 net.cpp:131] Top shape: 1000 20 (20000)
I0501 08:52:05.808143 12214 net.cpp:139] Memory required for data: 178844000
I0501 08:52:05.808164 12214 layer_factory.hpp:77] Creating layer relu1
I0501 08:52:05.808171 12214 net.cpp:86] Creating Layer relu1
I0501 08:52:05.808174 12214 net.cpp:408] relu1 <- ip1
I0501 08:52:05.808179 12214 net.cpp:369] relu1 -> ip1 (in-place)
I0501 08:52:05.808353 12214 net.cpp:124] Setting up relu1
I0501 08:52:05.808362 12214 net.cpp:131] Top shape: 1000 20 (20000)
I0501 08:52:05.808365 12214 net.cpp:139] Memory required for data: 178924000
I0501 08:52:05.808368 12214 layer_factory.hpp:77] Creating layer ip2
I0501 08:52:05.808375 12214 net.cpp:86] Creating Layer ip2
I0501 08:52:05.808378 12214 net.cpp:408] ip2 <- ip1
I0501 08:52:05.808383 12214 net.cpp:382] ip2 -> ip2
I0501 08:52:05.808492 12214 net.cpp:124] Setting up ip2
I0501 08:52:05.808501 12214 net.cpp:131] Top shape: 1000 10 (10000)
I0501 08:52:05.808503 12214 net.cpp:139] Memory required for data: 178964000
I0501 08:52:05.808511 12214 layer_factory.hpp:77] Creating layer relu2
I0501 08:52:05.808519 12214 net.cpp:86] Creating Layer relu2
I0501 08:52:05.808538 12214 net.cpp:408] relu2 <- ip2
I0501 08:52:05.808542 12214 net.cpp:369] relu2 -> ip2 (in-place)
I0501 08:52:05.809378 12214 net.cpp:124] Setting up relu2
I0501 08:52:05.809391 12214 net.cpp:131] Top shape: 1000 10 (10000)
I0501 08:52:05.809394 12214 net.cpp:139] Memory required for data: 179004000
I0501 08:52:05.809398 12214 layer_factory.hpp:77] Creating layer ip3
I0501 08:52:05.809404 12214 net.cpp:86] Creating Layer ip3
I0501 08:52:05.809407 12214 net.cpp:408] ip3 <- ip2
I0501 08:52:05.809413 12214 net.cpp:382] ip3 -> ip3
I0501 08:52:05.809559 12214 net.cpp:124] Setting up ip3
I0501 08:52:05.809567 12214 net.cpp:131] Top shape: 1000 80 (80000)
I0501 08:52:05.809571 12214 net.cpp:139] Memory required for data: 179324000
I0501 08:52:05.809576 12214 layer_factory.hpp:77] Creating layer relu3
I0501 08:52:05.809581 12214 net.cpp:86] Creating Layer relu3
I0501 08:52:05.809584 12214 net.cpp:408] relu3 <- ip3
I0501 08:52:05.809589 12214 net.cpp:369] relu3 -> ip3 (in-place)
I0501 08:52:05.809756 12214 net.cpp:124] Setting up relu3
I0501 08:52:05.809763 12214 net.cpp:131] Top shape: 1000 80 (80000)
I0501 08:52:05.809767 12214 net.cpp:139] Memory required for data: 179644000
I0501 08:52:05.809770 12214 layer_factory.hpp:77] Creating layer ip4
I0501 08:52:05.809777 12214 net.cpp:86] Creating Layer ip4
I0501 08:52:05.809779 12214 net.cpp:408] ip4 <- ip3
I0501 08:52:05.809784 12214 net.cpp:382] ip4 -> ip4
I0501 08:52:05.809906 12214 net.cpp:124] Setting up ip4
I0501 08:52:05.809914 12214 net.cpp:131] Top shape: 1000 10 (10000)
I0501 08:52:05.809917 12214 net.cpp:139] Memory required for data: 179684000
I0501 08:52:05.809926 12214 layer_factory.hpp:77] Creating layer ip4_ip4_0_split
I0501 08:52:05.809931 12214 net.cpp:86] Creating Layer ip4_ip4_0_split
I0501 08:52:05.809948 12214 net.cpp:408] ip4_ip4_0_split <- ip4
I0501 08:52:05.809953 12214 net.cpp:382] ip4_ip4_0_split -> ip4_ip4_0_split_0
I0501 08:52:05.809958 12214 net.cpp:382] ip4_ip4_0_split -> ip4_ip4_0_split_1
I0501 08:52:05.809988 12214 net.cpp:124] Setting up ip4_ip4_0_split
I0501 08:52:05.809994 12214 net.cpp:131] Top shape: 1000 10 (10000)
I0501 08:52:05.809998 12214 net.cpp:131] Top shape: 1000 10 (10000)
I0501 08:52:05.810001 12214 net.cpp:139] Memory required for data: 179764000
I0501 08:52:05.810004 12214 layer_factory.hpp:77] Creating layer accuracy
I0501 08:52:05.810009 12214 net.cpp:86] Creating Layer accuracy
I0501 08:52:05.810012 12214 net.cpp:408] accuracy <- ip4_ip4_0_split_0
I0501 08:52:05.810016 12214 net.cpp:408] accuracy <- label_cifar_1_split_0
I0501 08:52:05.810021 12214 net.cpp:382] accuracy -> accuracy
…
