…
I0501 05:31:44.895047 29378 net.cpp:296] The NetState phase (0) differed from the phase (1) specified by a rule in layer cifar
I0501 05:31:44.895062 29378 net.cpp:296] The NetState phase (0) differed from the phase (1) specified by a rule in layer accuracy
I0501 05:31:44.895145 29378 net.cpp:53] Initializing net from parameters: 
name: "CIFAR"
state {
  phase: TRAIN
  level: 0
  stage: ""
}
layer {
  name: "cifar"
  type: "Data"
  top: "data"
  top: "label"
  include {
    phase: TRAIN
  }
  transform_param {
    mean_file: "examples/cifar10/mean.binaryproto"
  }
  data_param {
    source: "examples/cifar10/cifar10_train_lmdb"
    batch_size: 111
    backend: LMDB
  }
}
layer {
  name: "conv0"
  type: "Convolution"
  bottom: "data"
  top: "conv0"
  param {
    lr_mult: 1
  }
  param {
    lr_mult: 2
  }
  convolution_param {
    num_output: 8
    pad: 2
    kernel_size: 5
    stride: 1
    weight_filler {
      type: "gaussian"
      std: 0.01
    }
    bias_filler {
      type: "constant"
    }
  }
}
layer {
  name: "Sigmoid0"
  type: "Sigmoid"
  bottom: "conv0"
  top: "Sigmoid0"
}
layer {
  name: "pool0"
  type: "Pooling"
  bottom: "Sigmoid0"
  top: "pool0"
  pooling_param {
    pool: AVE
    kernel_size: 3
    stride: 2
  }
}
layer {
  name: "ip1"
  type: "InnerProduct"
  bottom: "pool0"
  top: "ip1"
  param {
    lr_mult: 1
  }
  param {
    lr_mult: 2
  }
  inner_product_param {
    num_output: 80
    weight_filler {
      type: "gaussian"
      std: 0.01
    }
    bias_filler {
      type: "constant"
    }
  }
}
layer {
  name: "relu1"
  type: "ReLU"
  bottom: "ip1"
  top: "ip1"
}
layer {
  name: "ip2"
  type: "InnerProduct"
  bottom: "ip1"
  top: "ip2"
  param {
    lr_mult: 1
  }
  param {
    lr_mult: 2
  }
  inner_product_param {
    num_output: 20
    weight_filler {
      type: "gaussian"
      std: 0.01
    }
    bias_filler {
      type: "constant"
    }
  }
}
layer {
  name: "relu2"
  type: "ReLU"
  bottom: "ip2"
  top: "ip2"
}
layer {
  name: "ip3"
  type: "InnerProduct"
  bottom: "ip2"
  top: "ip3"
  param {
    lr_mult: 1
  }
  param {
    lr_mult: 2
  }
  inner_product_param {
    num_output: 20
    weight_filler {
      type: "gaussian"
      std: 0.01
    }
    bias_filler {
      type: "constant"
    }
  }
}
layer {
  name: "relu3"
  type: "ReLU"
  bottom: "ip3"
  top: "ip3"
}
layer {
  name: "ip4"
  type: "InnerProduct"
  bottom: "ip3"
  top: "ip4"
  param {
    lr_mult: 1
  }
  param {
    lr_mult: 2
  }
  inner_product_param {
    num_output: 10
    weight_filler {
      type: "gaussian"
      std: 0.01
    }
    bias_filler {
      type: "constant"
    }
  }
}
layer {
  name: "loss"
  type: "SoftmaxWithLoss"
  bottom: "ip4"
  bottom: "label"
  top: "loss"
}
I0501 05:31:44.895208 29378 layer_factory.hpp:77] Creating layer cifar
I0501 05:31:44.895292 29378 db_lmdb.cpp:35] Opened lmdb examples/cifar10/cifar10_train_lmdb
I0501 05:31:44.895316 29378 net.cpp:86] Creating Layer cifar
I0501 05:31:44.895323 29378 net.cpp:382] cifar -> data
I0501 05:31:44.895342 29378 net.cpp:382] cifar -> label
I0501 05:31:44.895352 29378 data_transformer.cpp:25] Loading mean file from: examples/cifar10/mean.binaryproto
I0501 05:31:44.897186 29378 data_layer.cpp:45] output data size: 111,3,32,32
I0501 05:31:44.903996 29378 net.cpp:124] Setting up cifar
I0501 05:31:44.904012 29378 net.cpp:131] Top shape: 111 3 32 32 (340992)
I0501 05:31:44.904017 29378 net.cpp:131] Top shape: 111 (111)
I0501 05:31:44.904021 29378 net.cpp:139] Memory required for data: 1364412
I0501 05:31:44.904042 29378 layer_factory.hpp:77] Creating layer conv0
I0501 05:31:44.904057 29378 net.cpp:86] Creating Layer conv0
I0501 05:31:44.904062 29378 net.cpp:408] conv0 <- data
I0501 05:31:44.904072 29378 net.cpp:382] conv0 -> conv0
I0501 05:31:45.136101 29378 net.cpp:124] Setting up conv0
I0501 05:31:45.136137 29378 net.cpp:131] Top shape: 111 8 32 32 (909312)
I0501 05:31:45.136142 29378 net.cpp:139] Memory required for data: 5001660
I0501 05:31:45.136155 29378 layer_factory.hpp:77] Creating layer Sigmoid0
I0501 05:31:45.136168 29378 net.cpp:86] Creating Layer Sigmoid0
I0501 05:31:45.136171 29378 net.cpp:408] Sigmoid0 <- conv0
I0501 05:31:45.136176 29378 net.cpp:382] Sigmoid0 -> Sigmoid0
I0501 05:31:45.136360 29378 net.cpp:124] Setting up Sigmoid0
I0501 05:31:45.136370 29378 net.cpp:131] Top shape: 111 8 32 32 (909312)
I0501 05:31:45.136373 29378 net.cpp:139] Memory required for data: 8638908
I0501 05:31:45.136376 29378 layer_factory.hpp:77] Creating layer pool0
I0501 05:31:45.136384 29378 net.cpp:86] Creating Layer pool0
I0501 05:31:45.136387 29378 net.cpp:408] pool0 <- Sigmoid0
I0501 05:31:45.136391 29378 net.cpp:382] pool0 -> pool0
I0501 05:31:45.137178 29378 net.cpp:124] Setting up pool0
I0501 05:31:45.137192 29378 net.cpp:131] Top shape: 111 8 16 16 (227328)
I0501 05:31:45.137195 29378 net.cpp:139] Memory required for data: 9548220
I0501 05:31:45.137205 29378 layer_factory.hpp:77] Creating layer ip1
I0501 05:31:45.137214 29378 net.cpp:86] Creating Layer ip1
I0501 05:31:45.137217 29378 net.cpp:408] ip1 <- pool0
I0501 05:31:45.137223 29378 net.cpp:382] ip1 -> ip1
I0501 05:31:45.142035 29378 net.cpp:124] Setting up ip1
I0501 05:31:45.142045 29378 net.cpp:131] Top shape: 111 80 (8880)
I0501 05:31:45.142062 29378 net.cpp:139] Memory required for data: 9583740
I0501 05:31:45.142071 29378 layer_factory.hpp:77] Creating layer relu1
I0501 05:31:45.142091 29378 net.cpp:86] Creating Layer relu1
I0501 05:31:45.142094 29378 net.cpp:408] relu1 <- ip1
I0501 05:31:45.142098 29378 net.cpp:369] relu1 -> ip1 (in-place)
I0501 05:31:45.142315 29378 net.cpp:124] Setting up relu1
I0501 05:31:45.142324 29378 net.cpp:131] Top shape: 111 80 (8880)
I0501 05:31:45.142328 29378 net.cpp:139] Memory required for data: 9619260
I0501 05:31:45.142330 29378 layer_factory.hpp:77] Creating layer ip2
I0501 05:31:45.142338 29378 net.cpp:86] Creating Layer ip2
I0501 05:31:45.142340 29378 net.cpp:408] ip2 <- ip1
I0501 05:31:45.142344 29378 net.cpp:382] ip2 -> ip2
I0501 05:31:45.142514 29378 net.cpp:124] Setting up ip2
I0501 05:31:45.142521 29378 net.cpp:131] Top shape: 111 20 (2220)
I0501 05:31:45.142525 29378 net.cpp:139] Memory required for data: 9628140
I0501 05:31:45.142532 29378 layer_factory.hpp:77] Creating layer relu2
I0501 05:31:45.142540 29378 net.cpp:86] Creating Layer relu2
I0501 05:31:45.142544 29378 net.cpp:408] relu2 <- ip2
I0501 05:31:45.142549 29378 net.cpp:369] relu2 -> ip2 (in-place)
I0501 05:31:45.142729 29378 net.cpp:124] Setting up relu2
I0501 05:31:45.142738 29378 net.cpp:131] Top shape: 111 20 (2220)
I0501 05:31:45.142741 29378 net.cpp:139] Memory required for data: 9637020
I0501 05:31:45.142745 29378 layer_factory.hpp:77] Creating layer ip3
I0501 05:31:45.142753 29378 net.cpp:86] Creating Layer ip3
I0501 05:31:45.142760 29378 net.cpp:408] ip3 <- ip2
I0501 05:31:45.142766 29378 net.cpp:382] ip3 -> ip3
I0501 05:31:45.142885 29378 net.cpp:124] Setting up ip3
I0501 05:31:45.142892 29378 net.cpp:131] Top shape: 111 20 (2220)
I0501 05:31:45.142895 29378 net.cpp:139] Memory required for data: 9645900
I0501 05:31:45.142901 29378 layer_factory.hpp:77] Creating layer relu3
I0501 05:31:45.142906 29378 net.cpp:86] Creating Layer relu3
I0501 05:31:45.142910 29378 net.cpp:408] relu3 <- ip3
I0501 05:31:45.142913 29378 net.cpp:369] relu3 -> ip3 (in-place)
I0501 05:31:45.143082 29378 net.cpp:124] Setting up relu3
I0501 05:31:45.143090 29378 net.cpp:131] Top shape: 111 20 (2220)
I0501 05:31:45.143093 29378 net.cpp:139] Memory required for data: 9654780
I0501 05:31:45.143096 29378 layer_factory.hpp:77] Creating layer ip4
I0501 05:31:45.143117 29378 net.cpp:86] Creating Layer ip4
I0501 05:31:45.143121 29378 net.cpp:408] ip4 <- ip3
I0501 05:31:45.143126 29378 net.cpp:382] ip4 -> ip4
I0501 05:31:45.143227 29378 net.cpp:124] Setting up ip4
I0501 05:31:45.143234 29378 net.cpp:131] Top shape: 111 10 (1110)
I0501 05:31:45.143237 29378 net.cpp:139] Memory required for data: 9659220
I0501 05:31:45.143245 29378 layer_factory.hpp:77] Creating layer loss
I0501 05:31:45.143250 29378 net.cpp:86] Creating Layer loss
I0501 05:31:45.143257 29378 net.cpp:408] loss <- ip4
I0501 05:31:45.143261 29378 net.cpp:408] loss <- label
I0501 05:31:45.143267 29378 net.cpp:382] loss -> loss
I0501 05:31:45.143285 29378 layer_factory.hpp:77] Creating layer loss
…
I0501 05:31:45.144683 29378 solver.cpp:173] Creating test net (#0) specified by net file: ECE595/cifar/train_test/var_everything/cifar_train_test_421.prototxt
I0501 05:31:45.144729 29378 net.cpp:296] The NetState phase (1) differed from the phase (0) specified by a rule in layer cifar
I0501 05:31:45.144865 29378 net.cpp:53] Initializing net from parameters: 
name: "CIFAR"
state {
  phase: TEST
}
layer {
  name: "cifar"
  type: "Data"
  top: "data"
  top: "label"
  include {
    phase: TEST
  }
  transform_param {
    mean_file: "examples/cifar10/mean.binaryproto"
  }
  data_param {
    source: "examples/cifar10/cifar10_test_lmdb"
    batch_size: 1000
    backend: LMDB
  }
}
layer {
  name: "conv0"
  type: "Convolution"
  bottom: "data"
  top: "conv0"
  param {
    lr_mult: 1
  }
  param {
    lr_mult: 2
  }
  convolution_param {
    num_output: 8
    pad: 2
    kernel_size: 5
    stride: 1
    weight_filler {
      type: "gaussian"
      std: 0.01
    }
    bias_filler {
      type: "constant"
    }
  }
}
layer {
  name: "Sigmoid0"
  type: "Sigmoid"
  bottom: "conv0"
  top: "Sigmoid0"
}
layer {
  name: "pool0"
  type: "Pooling"
  bottom: "Sigmoid0"
  top: "pool0"
  pooling_param {
    pool: AVE
    kernel_size: 3
    stride: 2
  }
}
layer {
  name: "ip1"
  type: "InnerProduct"
  bottom: "pool0"
  top: "ip1"
  param {
    lr_mult: 1
  }
  param {
    lr_mult: 2
  }
  inner_product_param {
    num_output: 80
    weight_filler {
      type: "gaussian"
      std: 0.01
    }
    bias_filler {
      type: "constant"
    }
  }
}
layer {
  name: "relu1"
  type: "ReLU"
  bottom: "ip1"
  top: "ip1"
}
layer {
  name: "ip2"
  type: "InnerProduct"
  bottom: "ip1"
  top: "ip2"
  param {
    lr_mult: 1
  }
  param {
    lr_mult: 2
  }
  inner_product_param {
    num_output: 20
    weight_filler {
      type: "gaussian"
      std: 0.01
    }
    bias_filler {
      type: "constant"
    }
  }
}
layer {
  name: "relu2"
  type: "ReLU"
  bottom: "ip2"
  top: "ip2"
}
layer {
  name: "ip3"
  type: "InnerProduct"
  bottom: "ip2"
  top: "ip3"
  param {
    lr_mult: 1
  }
  param {
    lr_mult: 2
  }
  inner_product_param {
    num_output: 20
    weight_filler {
      type: "gaussian"
      std: 0.01
    }
    bias_filler {
      type: "constant"
    }
  }
}
layer {
  name: "relu3"
  type: "ReLU"
  bottom: "ip3"
  top: "ip3"
}
layer {
  name: "ip4"
  type: "InnerProduct"
  bottom: "ip3"
  top: "ip4"
  param {
    lr_mult: 1
  }
  param {
    lr_mult: 2
  }
  inner_product_param {
    num_output: 10
    weight_filler {
      type: "gaussian"
      std: 0.01
    }
    bias_filler {
      type: "constant"
    }
  }
}
layer {
  name: "accuracy"
  type: "Accuracy"
  bottom: "ip4"
  bottom: "label"
  top: "accuracy"
  include {
    phase: TEST
  }
}
layer {
  name: "loss"
  type: "SoftmaxWithLoss"
  bottom: "ip4"
  bottom: "label"
  top: "loss"
}
I0501 05:31:45.144968 29378 layer_factory.hpp:77] Creating layer cifar
I0501 05:31:45.145020 29378 db_lmdb.cpp:35] Opened lmdb examples/cifar10/cifar10_test_lmdb
I0501 05:31:45.145033 29378 net.cpp:86] Creating Layer cifar
I0501 05:31:45.145040 29378 net.cpp:382] cifar -> data
I0501 05:31:45.145048 29378 net.cpp:382] cifar -> label
I0501 05:31:45.145057 29378 data_transformer.cpp:25] Loading mean file from: examples/cifar10/mean.binaryproto
I0501 05:31:45.145242 29378 data_layer.cpp:45] output data size: 1000,3,32,32
I0501 05:31:45.169819 29378 net.cpp:124] Setting up cifar
I0501 05:31:45.169854 29378 net.cpp:131] Top shape: 1000 3 32 32 (3072000)
I0501 05:31:45.169860 29378 net.cpp:131] Top shape: 1000 (1000)
I0501 05:31:45.169863 29378 net.cpp:139] Memory required for data: 12292000
I0501 05:31:45.169868 29378 layer_factory.hpp:77] Creating layer label_cifar_1_split
I0501 05:31:45.169908 29378 net.cpp:86] Creating Layer label_cifar_1_split
I0501 05:31:45.169912 29378 net.cpp:408] label_cifar_1_split <- label
I0501 05:31:45.169919 29378 net.cpp:382] label_cifar_1_split -> label_cifar_1_split_0
I0501 05:31:45.169927 29378 net.cpp:382] label_cifar_1_split -> label_cifar_1_split_1
I0501 05:31:45.170059 29378 net.cpp:124] Setting up label_cifar_1_split
I0501 05:31:45.170068 29378 net.cpp:131] Top shape: 1000 (1000)
I0501 05:31:45.170071 29378 net.cpp:131] Top shape: 1000 (1000)
I0501 05:31:45.170074 29378 net.cpp:139] Memory required for data: 12300000
I0501 05:31:45.170078 29378 layer_factory.hpp:77] Creating layer conv0
I0501 05:31:45.170090 29378 net.cpp:86] Creating Layer conv0
I0501 05:31:45.170095 29378 net.cpp:408] conv0 <- data
I0501 05:31:45.170100 29378 net.cpp:382] conv0 -> conv0
I0501 05:31:45.171946 29378 net.cpp:124] Setting up conv0
I0501 05:31:45.171959 29378 net.cpp:131] Top shape: 1000 8 32 32 (8192000)
I0501 05:31:45.171963 29378 net.cpp:139] Memory required for data: 45068000
I0501 05:31:45.171974 29378 layer_factory.hpp:77] Creating layer Sigmoid0
I0501 05:31:45.171982 29378 net.cpp:86] Creating Layer Sigmoid0
I0501 05:31:45.171985 29378 net.cpp:408] Sigmoid0 <- conv0
I0501 05:31:45.171990 29378 net.cpp:382] Sigmoid0 -> Sigmoid0
I0501 05:31:45.172189 29378 net.cpp:124] Setting up Sigmoid0
I0501 05:31:45.172199 29378 net.cpp:131] Top shape: 1000 8 32 32 (8192000)
I0501 05:31:45.172201 29378 net.cpp:139] Memory required for data: 77836000
I0501 05:31:45.172205 29378 layer_factory.hpp:77] Creating layer pool0
I0501 05:31:45.172214 29378 net.cpp:86] Creating Layer pool0
I0501 05:31:45.172216 29378 net.cpp:408] pool0 <- Sigmoid0
I0501 05:31:45.172220 29378 net.cpp:382] pool0 -> pool0
I0501 05:31:45.172495 29378 net.cpp:124] Setting up pool0
I0501 05:31:45.172504 29378 net.cpp:131] Top shape: 1000 8 16 16 (2048000)
I0501 05:31:45.172508 29378 net.cpp:139] Memory required for data: 86028000
I0501 05:31:45.172511 29378 layer_factory.hpp:77] Creating layer ip1
I0501 05:31:45.172519 29378 net.cpp:86] Creating Layer ip1
I0501 05:31:45.172523 29378 net.cpp:408] ip1 <- pool0
I0501 05:31:45.172528 29378 net.cpp:382] ip1 -> ip1
I0501 05:31:45.178436 29378 net.cpp:124] Setting up ip1
I0501 05:31:45.178447 29378 net.cpp:131] Top shape: 1000 80 (80000)
I0501 05:31:45.178450 29378 net.cpp:139] Memory required for data: 86348000
I0501 05:31:45.178478 29378 layer_factory.hpp:77] Creating layer relu1
I0501 05:31:45.178484 29378 net.cpp:86] Creating Layer relu1
I0501 05:31:45.178488 29378 net.cpp:408] relu1 <- ip1
I0501 05:31:45.178493 29378 net.cpp:369] relu1 -> ip1 (in-place)
I0501 05:31:45.178709 29378 net.cpp:124] Setting up relu1
I0501 05:31:45.178717 29378 net.cpp:131] Top shape: 1000 80 (80000)
I0501 05:31:45.178721 29378 net.cpp:139] Memory required for data: 86668000
I0501 05:31:45.178725 29378 layer_factory.hpp:77] Creating layer ip2
I0501 05:31:45.178731 29378 net.cpp:86] Creating Layer ip2
I0501 05:31:45.178735 29378 net.cpp:408] ip2 <- ip1
I0501 05:31:45.178740 29378 net.cpp:382] ip2 -> ip2
I0501 05:31:45.178910 29378 net.cpp:124] Setting up ip2
I0501 05:31:45.178918 29378 net.cpp:131] Top shape: 1000 20 (20000)
I0501 05:31:45.178922 29378 net.cpp:139] Memory required for data: 86748000
I0501 05:31:45.178935 29378 layer_factory.hpp:77] Creating layer relu2
I0501 05:31:45.178946 29378 net.cpp:86] Creating Layer relu2
I0501 05:31:45.178952 29378 net.cpp:408] relu2 <- ip2
I0501 05:31:45.178972 29378 net.cpp:369] relu2 -> ip2 (in-place)
I0501 05:31:45.179811 29378 net.cpp:124] Setting up relu2
I0501 05:31:45.179822 29378 net.cpp:131] Top shape: 1000 20 (20000)
I0501 05:31:45.179826 29378 net.cpp:139] Memory required for data: 86828000
I0501 05:31:45.179837 29378 layer_factory.hpp:77] Creating layer ip3
I0501 05:31:45.179846 29378 net.cpp:86] Creating Layer ip3
I0501 05:31:45.179848 29378 net.cpp:408] ip3 <- ip2
I0501 05:31:45.179854 29378 net.cpp:382] ip3 -> ip3
I0501 05:31:45.179986 29378 net.cpp:124] Setting up ip3
I0501 05:31:45.179993 29378 net.cpp:131] Top shape: 1000 20 (20000)
I0501 05:31:45.179996 29378 net.cpp:139] Memory required for data: 86908000
I0501 05:31:45.180002 29378 layer_factory.hpp:77] Creating layer relu3
I0501 05:31:45.180008 29378 net.cpp:86] Creating Layer relu3
I0501 05:31:45.180012 29378 net.cpp:408] relu3 <- ip3
I0501 05:31:45.180016 29378 net.cpp:369] relu3 -> ip3 (in-place)
I0501 05:31:45.180172 29378 net.cpp:124] Setting up relu3
I0501 05:31:45.180181 29378 net.cpp:131] Top shape: 1000 20 (20000)
I0501 05:31:45.180184 29378 net.cpp:139] Memory required for data: 86988000
I0501 05:31:45.180187 29378 layer_factory.hpp:77] Creating layer ip4
I0501 05:31:45.180193 29378 net.cpp:86] Creating Layer ip4
I0501 05:31:45.180197 29378 net.cpp:408] ip4 <- ip3
I0501 05:31:45.180202 29378 net.cpp:382] ip4 -> ip4
I0501 05:31:45.180315 29378 net.cpp:124] Setting up ip4
I0501 05:31:45.180322 29378 net.cpp:131] Top shape: 1000 10 (10000)
I0501 05:31:45.180325 29378 net.cpp:139] Memory required for data: 87028000
I0501 05:31:45.180333 29378 layer_factory.hpp:77] Creating layer ip4_ip4_0_split
I0501 05:31:45.180341 29378 net.cpp:86] Creating Layer ip4_ip4_0_split
I0501 05:31:45.180361 29378 net.cpp:408] ip4_ip4_0_split <- ip4
I0501 05:31:45.180366 29378 net.cpp:382] ip4_ip4_0_split -> ip4_ip4_0_split_0
I0501 05:31:45.180371 29378 net.cpp:382] ip4_ip4_0_split -> ip4_ip4_0_split_1
I0501 05:31:45.180403 29378 net.cpp:124] Setting up ip4_ip4_0_split
I0501 05:31:45.180410 29378 net.cpp:131] Top shape: 1000 10 (10000)
I0501 05:31:45.180414 29378 net.cpp:131] Top shape: 1000 10 (10000)
I0501 05:31:45.180418 29378 net.cpp:139] Memory required for data: 87108000
I0501 05:31:45.180420 29378 layer_factory.hpp:77] Creating layer accuracy
I0501 05:31:45.180426 29378 net.cpp:86] Creating Layer accuracy
I0501 05:31:45.180430 29378 net.cpp:408] accuracy <- ip4_ip4_0_split_0
I0501 05:31:45.180434 29378 net.cpp:408] accuracy <- label_cifar_1_split_0
I0501 05:31:45.180439 29378 net.cpp:382] accuracy -> accuracy
…
