…
I0430 17:42:35.849159 20286 net.cpp:296] The NetState phase (0) differed from the phase (1) specified by a rule in layer cifar
I0430 17:42:35.849172 20286 net.cpp:296] The NetState phase (0) differed from the phase (1) specified by a rule in layer accuracy
I0430 17:42:35.849258 20286 net.cpp:53] Initializing net from parameters: 
name: "CIFAR"
state {
  phase: TRAIN
  level: 0
  stage: ""
}
layer {
  name: "cifar"
  type: "Data"
  top: "data"
  top: "label"
  include {
    phase: TRAIN
  }
  transform_param {
    mean_file: "examples/cifar10/mean.binaryproto"
  }
  data_param {
    source: "examples/cifar10/cifar10_train_lmdb"
    batch_size: 111
    backend: LMDB
  }
}
layer {
  name: "ip1"
  type: "InnerProduct"
  bottom: "data"
  top: "ip1"
  param {
    lr_mult: 1
  }
  param {
    lr_mult: 2
  }
  inner_product_param {
    num_output: 10
    weight_filler {
      type: "gaussian"
      std: 0.01
    }
    bias_filler {
      type: "constant"
    }
  }
}
layer {
  name: "relu1"
  type: "ReLU"
  bottom: "ip1"
  top: "ip1"
}
layer {
  name: "ip2"
  type: "InnerProduct"
  bottom: "ip1"
  top: "ip2"
  param {
    lr_mult: 1
  }
  param {
    lr_mult: 2
  }
  inner_product_param {
    num_output: 40
    weight_filler {
      type: "gaussian"
      std: 0.01
    }
    bias_filler {
      type: "constant"
    }
  }
}
layer {
  name: "relu2"
  type: "ReLU"
  bottom: "ip2"
  top: "ip2"
}
layer {
  name: "ip3"
  type: "InnerProduct"
  bottom: "ip2"
  top: "ip3"
  param {
    lr_mult: 1
  }
  param {
    lr_mult: 2
  }
  inner_product_param {
    num_output: 80
    weight_filler {
      type: "gaussian"
      std: 0.01
    }
    bias_filler {
      type: "constant"
    }
  }
}
layer {
  name: "relu3"
  type: "ReLU"
  bottom: "ip3"
  top: "ip3"
}
layer {
  name: "ip4"
  type: "InnerProduct"
  bottom: "ip3"
  top: "ip4"
  param {
    lr_mult: 1
  }
  param {
    lr_mult: 2
  }
  inner_product_param {
    num_output: 10
    weight_filler {
      type: "gaussian"
      std: 0.01
    }
    bias_filler {
      type: "constant"
    }
  }
}
layer {
  name: "loss"
  type: "SoftmaxWithLoss"
  bottom: "ip4"
  bottom: "label"
  top: "loss"
}
I0430 17:42:35.849331 20286 layer_factory.hpp:77] Creating layer cifar
I0430 17:42:35.849426 20286 db_lmdb.cpp:35] Opened lmdb examples/cifar10/cifar10_train_lmdb
I0430 17:42:35.849452 20286 net.cpp:86] Creating Layer cifar
I0430 17:42:35.849462 20286 net.cpp:382] cifar -> data
I0430 17:42:35.849483 20286 net.cpp:382] cifar -> label
I0430 17:42:35.849499 20286 data_transformer.cpp:25] Loading mean file from: examples/cifar10/mean.binaryproto
I0430 17:42:35.851601 20286 data_layer.cpp:45] output data size: 111,3,32,32
I0430 17:42:35.859501 20286 net.cpp:124] Setting up cifar
I0430 17:42:35.859522 20286 net.cpp:131] Top shape: 111 3 32 32 (340992)
I0430 17:42:35.859529 20286 net.cpp:131] Top shape: 111 (111)
I0430 17:42:35.859532 20286 net.cpp:139] Memory required for data: 1364412
I0430 17:42:35.859540 20286 layer_factory.hpp:77] Creating layer ip1
I0430 17:42:35.859553 20286 net.cpp:86] Creating Layer ip1
I0430 17:42:35.859560 20286 net.cpp:408] ip1 <- data
I0430 17:42:35.859571 20286 net.cpp:382] ip1 -> ip1
I0430 17:42:35.861778 20286 net.cpp:124] Setting up ip1
I0430 17:42:35.861793 20286 net.cpp:131] Top shape: 111 10 (1110)
I0430 17:42:35.861799 20286 net.cpp:139] Memory required for data: 1368852
I0430 17:42:35.861812 20286 layer_factory.hpp:77] Creating layer relu1
I0430 17:42:35.861822 20286 net.cpp:86] Creating Layer relu1
I0430 17:42:35.861842 20286 net.cpp:408] relu1 <- ip1
I0430 17:42:35.861850 20286 net.cpp:369] relu1 -> ip1 (in-place)
I0430 17:42:36.138823 20286 net.cpp:124] Setting up relu1
I0430 17:42:36.138849 20286 net.cpp:131] Top shape: 111 10 (1110)
I0430 17:42:36.138854 20286 net.cpp:139] Memory required for data: 1373292
I0430 17:42:36.138859 20286 layer_factory.hpp:77] Creating layer ip2
I0430 17:42:36.138870 20286 net.cpp:86] Creating Layer ip2
I0430 17:42:36.138875 20286 net.cpp:408] ip2 <- ip1
I0430 17:42:36.138882 20286 net.cpp:382] ip2 -> ip2
I0430 17:42:36.139865 20286 net.cpp:124] Setting up ip2
I0430 17:42:36.139878 20286 net.cpp:131] Top shape: 111 40 (4440)
I0430 17:42:36.139881 20286 net.cpp:139] Memory required for data: 1391052
I0430 17:42:36.139891 20286 layer_factory.hpp:77] Creating layer relu2
I0430 17:42:36.139899 20286 net.cpp:86] Creating Layer relu2
I0430 17:42:36.139902 20286 net.cpp:408] relu2 <- ip2
I0430 17:42:36.139906 20286 net.cpp:369] relu2 -> ip2 (in-place)
I0430 17:42:36.140622 20286 net.cpp:124] Setting up relu2
I0430 17:42:36.140635 20286 net.cpp:131] Top shape: 111 40 (4440)
I0430 17:42:36.140637 20286 net.cpp:139] Memory required for data: 1408812
I0430 17:42:36.140641 20286 layer_factory.hpp:77] Creating layer ip3
I0430 17:42:36.140648 20286 net.cpp:86] Creating Layer ip3
I0430 17:42:36.140651 20286 net.cpp:408] ip3 <- ip2
I0430 17:42:36.140656 20286 net.cpp:382] ip3 -> ip3
I0430 17:42:36.140852 20286 net.cpp:124] Setting up ip3
I0430 17:42:36.140861 20286 net.cpp:131] Top shape: 111 80 (8880)
I0430 17:42:36.140864 20286 net.cpp:139] Memory required for data: 1444332
I0430 17:42:36.140872 20286 layer_factory.hpp:77] Creating layer relu3
I0430 17:42:36.140892 20286 net.cpp:86] Creating Layer relu3
I0430 17:42:36.140897 20286 net.cpp:408] relu3 <- ip3
I0430 17:42:36.140900 20286 net.cpp:369] relu3 -> ip3 (in-place)
I0430 17:42:36.141043 20286 net.cpp:124] Setting up relu3
I0430 17:42:36.141052 20286 net.cpp:131] Top shape: 111 80 (8880)
I0430 17:42:36.141055 20286 net.cpp:139] Memory required for data: 1479852
I0430 17:42:36.141058 20286 layer_factory.hpp:77] Creating layer ip4
I0430 17:42:36.141064 20286 net.cpp:86] Creating Layer ip4
I0430 17:42:36.141067 20286 net.cpp:408] ip4 <- ip3
I0430 17:42:36.141072 20286 net.cpp:382] ip4 -> ip4
I0430 17:42:36.141208 20286 net.cpp:124] Setting up ip4
I0430 17:42:36.141216 20286 net.cpp:131] Top shape: 111 10 (1110)
I0430 17:42:36.141222 20286 net.cpp:139] Memory required for data: 1484292
I0430 17:42:36.141228 20286 layer_factory.hpp:77] Creating layer loss
I0430 17:42:36.141234 20286 net.cpp:86] Creating Layer loss
I0430 17:42:36.141237 20286 net.cpp:408] loss <- ip4
I0430 17:42:36.141240 20286 net.cpp:408] loss <- label
I0430 17:42:36.141245 20286 net.cpp:382] loss -> loss
I0430 17:42:36.141260 20286 layer_factory.hpp:77] Creating layer loss
…
I0430 17:42:36.141780 20286 solver.cpp:173] Creating test net (#0) specified by net file: ECE595/cifar/train_test/var_everything/cifar_train_test_43.prototxt
I0430 17:42:36.141819 20286 net.cpp:296] The NetState phase (1) differed from the phase (0) specified by a rule in layer cifar
I0430 17:42:36.141892 20286 net.cpp:53] Initializing net from parameters: 
name: "CIFAR"
state {
  phase: TEST
}
layer {
  name: "cifar"
  type: "Data"
  top: "data"
  top: "label"
  include {
    phase: TEST
  }
  transform_param {
    mean_file: "examples/cifar10/mean.binaryproto"
  }
  data_param {
    source: "examples/cifar10/cifar10_test_lmdb"
    batch_size: 1000
    backend: LMDB
  }
}
layer {
  name: "ip1"
  type: "InnerProduct"
  bottom: "data"
  top: "ip1"
  param {
    lr_mult: 1
  }
  param {
    lr_mult: 2
  }
  inner_product_param {
    num_output: 10
    weight_filler {
      type: "gaussian"
      std: 0.01
    }
    bias_filler {
      type: "constant"
    }
  }
}
layer {
  name: "relu1"
  type: "ReLU"
  bottom: "ip1"
  top: "ip1"
}
layer {
  name: "ip2"
  type: "InnerProduct"
  bottom: "ip1"
  top: "ip2"
  param {
    lr_mult: 1
  }
  param {
    lr_mult: 2
  }
  inner_product_param {
    num_output: 40
    weight_filler {
      type: "gaussian"
      std: 0.01
    }
    bias_filler {
      type: "constant"
    }
  }
}
layer {
  name: "relu2"
  type: "ReLU"
  bottom: "ip2"
  top: "ip2"
}
layer {
  name: "ip3"
  type: "InnerProduct"
  bottom: "ip2"
  top: "ip3"
  param {
    lr_mult: 1
  }
  param {
    lr_mult: 2
  }
  inner_product_param {
    num_output: 80
    weight_filler {
      type: "gaussian"
      std: 0.01
    }
    bias_filler {
      type: "constant"
    }
  }
}
layer {
  name: "relu3"
  type: "ReLU"
  bottom: "ip3"
  top: "ip3"
}
layer {
  name: "ip4"
  type: "InnerProduct"
  bottom: "ip3"
  top: "ip4"
  param {
    lr_mult: 1
  }
  param {
    lr_mult: 2
  }
  inner_product_param {
    num_output: 10
    weight_filler {
      type: "gaussian"
      std: 0.01
    }
    bias_filler {
      type: "constant"
    }
  }
}
layer {
  name: "accuracy"
  type: "Accuracy"
  bottom: "ip4"
  bottom: "label"
  top: "accuracy"
  include {
    phase: TEST
  }
}
layer {
  name: "loss"
  type: "SoftmaxWithLoss"
  bottom: "ip4"
  bottom: "label"
  top: "loss"
}
I0430 17:42:36.141950 20286 layer_factory.hpp:77] Creating layer cifar
I0430 17:42:36.141994 20286 db_lmdb.cpp:35] Opened lmdb examples/cifar10/cifar10_test_lmdb
I0430 17:42:36.142006 20286 net.cpp:86] Creating Layer cifar
I0430 17:42:36.142011 20286 net.cpp:382] cifar -> data
I0430 17:42:36.142019 20286 net.cpp:382] cifar -> label
I0430 17:42:36.142025 20286 data_transformer.cpp:25] Loading mean file from: examples/cifar10/mean.binaryproto
I0430 17:42:36.142161 20286 data_layer.cpp:45] output data size: 1000,3,32,32
I0430 17:42:36.163491 20286 net.cpp:124] Setting up cifar
I0430 17:42:36.163532 20286 net.cpp:131] Top shape: 1000 3 32 32 (3072000)
I0430 17:42:36.163538 20286 net.cpp:131] Top shape: 1000 (1000)
I0430 17:42:36.163542 20286 net.cpp:139] Memory required for data: 12292000
I0430 17:42:36.163549 20286 layer_factory.hpp:77] Creating layer label_cifar_1_split
I0430 17:42:36.163565 20286 net.cpp:86] Creating Layer label_cifar_1_split
I0430 17:42:36.163569 20286 net.cpp:408] label_cifar_1_split <- label
I0430 17:42:36.163590 20286 net.cpp:382] label_cifar_1_split -> label_cifar_1_split_0
I0430 17:42:36.163599 20286 net.cpp:382] label_cifar_1_split -> label_cifar_1_split_1
I0430 17:42:36.163677 20286 net.cpp:124] Setting up label_cifar_1_split
I0430 17:42:36.163686 20286 net.cpp:131] Top shape: 1000 (1000)
I0430 17:42:36.163689 20286 net.cpp:131] Top shape: 1000 (1000)
I0430 17:42:36.163692 20286 net.cpp:139] Memory required for data: 12300000
I0430 17:42:36.163696 20286 layer_factory.hpp:77] Creating layer ip1
I0430 17:42:36.163703 20286 net.cpp:86] Creating Layer ip1
I0430 17:42:36.163707 20286 net.cpp:408] ip1 <- data
I0430 17:42:36.163710 20286 net.cpp:382] ip1 -> ip1
I0430 17:42:36.164630 20286 net.cpp:124] Setting up ip1
I0430 17:42:36.164638 20286 net.cpp:131] Top shape: 1000 10 (10000)
I0430 17:42:36.164656 20286 net.cpp:139] Memory required for data: 12340000
I0430 17:42:36.164680 20286 layer_factory.hpp:77] Creating layer relu1
I0430 17:42:36.164687 20286 net.cpp:86] Creating Layer relu1
I0430 17:42:36.164690 20286 net.cpp:408] relu1 <- ip1
I0430 17:42:36.164710 20286 net.cpp:369] relu1 -> ip1 (in-place)
I0430 17:42:36.165576 20286 net.cpp:124] Setting up relu1
I0430 17:42:36.165603 20286 net.cpp:131] Top shape: 1000 10 (10000)
I0430 17:42:36.165612 20286 net.cpp:139] Memory required for data: 12380000
I0430 17:42:36.165616 20286 layer_factory.hpp:77] Creating layer ip2
I0430 17:42:36.165623 20286 net.cpp:86] Creating Layer ip2
I0430 17:42:36.165627 20286 net.cpp:408] ip2 <- ip1
I0430 17:42:36.165632 20286 net.cpp:382] ip2 -> ip2
I0430 17:42:36.166725 20286 net.cpp:124] Setting up ip2
I0430 17:42:36.166733 20286 net.cpp:131] Top shape: 1000 40 (40000)
I0430 17:42:36.166736 20286 net.cpp:139] Memory required for data: 12540000
I0430 17:42:36.166759 20286 layer_factory.hpp:77] Creating layer relu2
I0430 17:42:36.166764 20286 net.cpp:86] Creating Layer relu2
I0430 17:42:36.166767 20286 net.cpp:408] relu2 <- ip2
I0430 17:42:36.166772 20286 net.cpp:369] relu2 -> ip2 (in-place)
I0430 17:42:36.166939 20286 net.cpp:124] Setting up relu2
I0430 17:42:36.166946 20286 net.cpp:131] Top shape: 1000 40 (40000)
I0430 17:42:36.166949 20286 net.cpp:139] Memory required for data: 12700000
I0430 17:42:36.166952 20286 layer_factory.hpp:77] Creating layer ip3
I0430 17:42:36.166959 20286 net.cpp:86] Creating Layer ip3
I0430 17:42:36.166961 20286 net.cpp:408] ip3 <- ip2
I0430 17:42:36.166966 20286 net.cpp:382] ip3 -> ip3
I0430 17:42:36.167165 20286 net.cpp:124] Setting up ip3
I0430 17:42:36.167172 20286 net.cpp:131] Top shape: 1000 80 (80000)
I0430 17:42:36.167176 20286 net.cpp:139] Memory required for data: 13020000
I0430 17:42:36.167183 20286 layer_factory.hpp:77] Creating layer relu3
I0430 17:42:36.167188 20286 net.cpp:86] Creating Layer relu3
I0430 17:42:36.167192 20286 net.cpp:408] relu3 <- ip3
I0430 17:42:36.167196 20286 net.cpp:369] relu3 -> ip3 (in-place)
I0430 17:42:36.167361 20286 net.cpp:124] Setting up relu3
I0430 17:42:36.167369 20286 net.cpp:131] Top shape: 1000 80 (80000)
I0430 17:42:36.167372 20286 net.cpp:139] Memory required for data: 13340000
I0430 17:42:36.167376 20286 layer_factory.hpp:77] Creating layer ip4
I0430 17:42:36.167382 20286 net.cpp:86] Creating Layer ip4
I0430 17:42:36.167385 20286 net.cpp:408] ip4 <- ip3
I0430 17:42:36.167390 20286 net.cpp:382] ip4 -> ip4
I0430 17:42:36.167505 20286 net.cpp:124] Setting up ip4
I0430 17:42:36.167511 20286 net.cpp:131] Top shape: 1000 10 (10000)
I0430 17:42:36.167515 20286 net.cpp:139] Memory required for data: 13380000
I0430 17:42:36.167520 20286 layer_factory.hpp:77] Creating layer ip4_ip4_0_split
I0430 17:42:36.167526 20286 net.cpp:86] Creating Layer ip4_ip4_0_split
I0430 17:42:36.167528 20286 net.cpp:408] ip4_ip4_0_split <- ip4
I0430 17:42:36.167532 20286 net.cpp:382] ip4_ip4_0_split -> ip4_ip4_0_split_0
I0430 17:42:36.167538 20286 net.cpp:382] ip4_ip4_0_split -> ip4_ip4_0_split_1
I0430 17:42:36.167567 20286 net.cpp:124] Setting up ip4_ip4_0_split
I0430 17:42:36.167572 20286 net.cpp:131] Top shape: 1000 10 (10000)
I0430 17:42:36.167575 20286 net.cpp:131] Top shape: 1000 10 (10000)
I0430 17:42:36.167577 20286 net.cpp:139] Memory required for data: 13460000
I0430 17:42:36.167580 20286 layer_factory.hpp:77] Creating layer accuracy
I0430 17:42:36.167590 20286 net.cpp:86] Creating Layer accuracy
I0430 17:42:36.167593 20286 net.cpp:408] accuracy <- ip4_ip4_0_split_0
I0430 17:42:36.167598 20286 net.cpp:408] accuracy <- label_cifar_1_split_0
I0430 17:42:36.167601 20286 net.cpp:382] accuracy -> accuracy
…
