…
I0430 17:34:58.756644 20006 net.cpp:296] The NetState phase (0) differed from the phase (1) specified by a rule in layer cifar
I0430 17:34:58.756666 20006 net.cpp:296] The NetState phase (0) differed from the phase (1) specified by a rule in layer accuracy
I0430 17:34:58.756758 20006 net.cpp:53] Initializing net from parameters: 
name: "CIFAR"
state {
  phase: TRAIN
  level: 0
  stage: ""
}
layer {
  name: "cifar"
  type: "Data"
  top: "data"
  top: "label"
  include {
    phase: TRAIN
  }
  transform_param {
    mean_file: "examples/cifar10/mean.binaryproto"
  }
  data_param {
    source: "examples/cifar10/cifar10_train_lmdb"
    batch_size: 111
    backend: LMDB
  }
}
layer {
  name: "ip1"
  type: "InnerProduct"
  bottom: "data"
  top: "ip1"
  param {
    lr_mult: 1
  }
  param {
    lr_mult: 2
  }
  inner_product_param {
    num_output: 10
    weight_filler {
      type: "gaussian"
      std: 0.01
    }
    bias_filler {
      type: "constant"
    }
  }
}
layer {
  name: "relu1"
  type: "ReLU"
  bottom: "ip1"
  top: "ip1"
}
layer {
  name: "ip2"
  type: "InnerProduct"
  bottom: "ip1"
  top: "ip2"
  param {
    lr_mult: 1
  }
  param {
    lr_mult: 2
  }
  inner_product_param {
    num_output: 20
    weight_filler {
      type: "gaussian"
      std: 0.01
    }
    bias_filler {
      type: "constant"
    }
  }
}
layer {
  name: "relu2"
  type: "ReLU"
  bottom: "ip2"
  top: "ip2"
}
layer {
  name: "ip3"
  type: "InnerProduct"
  bottom: "ip2"
  top: "ip3"
  param {
    lr_mult: 1
  }
  param {
    lr_mult: 2
  }
  inner_product_param {
    num_output: 160
    weight_filler {
      type: "gaussian"
      std: 0.01
    }
    bias_filler {
      type: "constant"
    }
  }
}
layer {
  name: "relu3"
  type: "ReLU"
  bottom: "ip3"
  top: "ip3"
}
layer {
  name: "ip4"
  type: "InnerProduct"
  bottom: "ip3"
  top: "ip4"
  param {
    lr_mult: 1
  }
  param {
    lr_mult: 2
  }
  inner_product_param {
    num_output: 10
    weight_filler {
      type: "gaussian"
      std: 0.01
    }
    bias_filler {
      type: "constant"
    }
  }
}
layer {
  name: "loss"
  type: "SoftmaxWithLoss"
  bottom: "ip4"
  bottom: "label"
  top: "loss"
}
I0430 17:34:58.756868 20006 layer_factory.hpp:77] Creating layer cifar
I0430 17:34:58.757007 20006 db_lmdb.cpp:35] Opened lmdb examples/cifar10/cifar10_train_lmdb
I0430 17:34:58.757046 20006 net.cpp:86] Creating Layer cifar
I0430 17:34:58.757060 20006 net.cpp:382] cifar -> data
I0430 17:34:58.757091 20006 net.cpp:382] cifar -> label
I0430 17:34:58.757108 20006 data_transformer.cpp:25] Loading mean file from: examples/cifar10/mean.binaryproto
I0430 17:34:58.759371 20006 data_layer.cpp:45] output data size: 111,3,32,32
I0430 17:34:58.767263 20006 net.cpp:124] Setting up cifar
I0430 17:34:58.767287 20006 net.cpp:131] Top shape: 111 3 32 32 (340992)
I0430 17:34:58.767298 20006 net.cpp:131] Top shape: 111 (111)
I0430 17:34:58.767304 20006 net.cpp:139] Memory required for data: 1364412
I0430 17:34:58.767315 20006 layer_factory.hpp:77] Creating layer ip1
I0430 17:34:58.767333 20006 net.cpp:86] Creating Layer ip1
I0430 17:34:58.767346 20006 net.cpp:408] ip1 <- data
I0430 17:34:58.767366 20006 net.cpp:382] ip1 -> ip1
I0430 17:34:58.769554 20006 net.cpp:124] Setting up ip1
I0430 17:34:58.769573 20006 net.cpp:131] Top shape: 111 10 (1110)
I0430 17:34:58.769582 20006 net.cpp:139] Memory required for data: 1368852
I0430 17:34:58.769601 20006 layer_factory.hpp:77] Creating layer relu1
I0430 17:34:58.769615 20006 net.cpp:86] Creating Layer relu1
I0430 17:34:58.769641 20006 net.cpp:408] relu1 <- ip1
I0430 17:34:58.769651 20006 net.cpp:369] relu1 -> ip1 (in-place)
I0430 17:34:59.052767 20006 net.cpp:124] Setting up relu1
I0430 17:34:59.052795 20006 net.cpp:131] Top shape: 111 10 (1110)
I0430 17:34:59.052801 20006 net.cpp:139] Memory required for data: 1373292
I0430 17:34:59.052815 20006 layer_factory.hpp:77] Creating layer ip2
I0430 17:34:59.052832 20006 net.cpp:86] Creating Layer ip2
I0430 17:34:59.052855 20006 net.cpp:408] ip2 <- ip1
I0430 17:34:59.052866 20006 net.cpp:382] ip2 -> ip2
I0430 17:34:59.053026 20006 net.cpp:124] Setting up ip2
I0430 17:34:59.053037 20006 net.cpp:131] Top shape: 111 20 (2220)
I0430 17:34:59.053042 20006 net.cpp:139] Memory required for data: 1382172
I0430 17:34:59.053058 20006 layer_factory.hpp:77] Creating layer relu2
I0430 17:34:59.053076 20006 net.cpp:86] Creating Layer relu2
I0430 17:34:59.053084 20006 net.cpp:408] relu2 <- ip2
I0430 17:34:59.053092 20006 net.cpp:369] relu2 -> ip2 (in-place)
I0430 17:34:59.053874 20006 net.cpp:124] Setting up relu2
I0430 17:34:59.053887 20006 net.cpp:131] Top shape: 111 20 (2220)
I0430 17:34:59.053894 20006 net.cpp:139] Memory required for data: 1391052
I0430 17:34:59.053899 20006 layer_factory.hpp:77] Creating layer ip3
I0430 17:34:59.053908 20006 net.cpp:86] Creating Layer ip3
I0430 17:34:59.053915 20006 net.cpp:408] ip3 <- ip2
I0430 17:34:59.053923 20006 net.cpp:382] ip3 -> ip3
I0430 17:34:59.054111 20006 net.cpp:124] Setting up ip3
I0430 17:34:59.054128 20006 net.cpp:131] Top shape: 111 160 (17760)
I0430 17:34:59.054133 20006 net.cpp:139] Memory required for data: 1462092
I0430 17:34:59.054146 20006 layer_factory.hpp:77] Creating layer relu3
I0430 17:34:59.054153 20006 net.cpp:86] Creating Layer relu3
I0430 17:34:59.054159 20006 net.cpp:408] relu3 <- ip3
I0430 17:34:59.054167 20006 net.cpp:369] relu3 -> ip3 (in-place)
I0430 17:34:59.054318 20006 net.cpp:124] Setting up relu3
I0430 17:34:59.054328 20006 net.cpp:131] Top shape: 111 160 (17760)
I0430 17:34:59.054333 20006 net.cpp:139] Memory required for data: 1533132
I0430 17:34:59.054338 20006 layer_factory.hpp:77] Creating layer ip4
I0430 17:34:59.054348 20006 net.cpp:86] Creating Layer ip4
I0430 17:34:59.054353 20006 net.cpp:408] ip4 <- ip3
I0430 17:34:59.054361 20006 net.cpp:382] ip4 -> ip4
I0430 17:34:59.054503 20006 net.cpp:124] Setting up ip4
I0430 17:34:59.054512 20006 net.cpp:131] Top shape: 111 10 (1110)
I0430 17:34:59.054517 20006 net.cpp:139] Memory required for data: 1537572
I0430 17:34:59.054527 20006 layer_factory.hpp:77] Creating layer loss
I0430 17:34:59.054536 20006 net.cpp:86] Creating Layer loss
I0430 17:34:59.054541 20006 net.cpp:408] loss <- ip4
I0430 17:34:59.054548 20006 net.cpp:408] loss <- label
I0430 17:34:59.054556 20006 net.cpp:382] loss -> loss
I0430 17:34:59.054577 20006 layer_factory.hpp:77] Creating layer loss
…
I0430 17:34:59.055176 20006 solver.cpp:173] Creating test net (#0) specified by net file: ECE595/cifar/train_test/var_everything/cifar_train_test_39.prototxt
I0430 17:34:59.055222 20006 net.cpp:296] The NetState phase (1) differed from the phase (0) specified by a rule in layer cifar
I0430 17:34:59.055305 20006 net.cpp:53] Initializing net from parameters: 
name: "CIFAR"
state {
  phase: TEST
}
layer {
  name: "cifar"
  type: "Data"
  top: "data"
  top: "label"
  include {
    phase: TEST
  }
  transform_param {
    mean_file: "examples/cifar10/mean.binaryproto"
  }
  data_param {
    source: "examples/cifar10/cifar10_test_lmdb"
    batch_size: 1000
    backend: LMDB
  }
}
layer {
  name: "ip1"
  type: "InnerProduct"
  bottom: "data"
  top: "ip1"
  param {
    lr_mult: 1
  }
  param {
    lr_mult: 2
  }
  inner_product_param {
    num_output: 10
    weight_filler {
      type: "gaussian"
      std: 0.01
    }
    bias_filler {
      type: "constant"
    }
  }
}
layer {
  name: "relu1"
  type: "ReLU"
  bottom: "ip1"
  top: "ip1"
}
layer {
  name: "ip2"
  type: "InnerProduct"
  bottom: "ip1"
  top: "ip2"
  param {
    lr_mult: 1
  }
  param {
    lr_mult: 2
  }
  inner_product_param {
    num_output: 20
    weight_filler {
      type: "gaussian"
      std: 0.01
    }
    bias_filler {
      type: "constant"
    }
  }
}
layer {
  name: "relu2"
  type: "ReLU"
  bottom: "ip2"
  top: "ip2"
}
layer {
  name: "ip3"
  type: "InnerProduct"
  bottom: "ip2"
  top: "ip3"
  param {
    lr_mult: 1
  }
  param {
    lr_mult: 2
  }
  inner_product_param {
    num_output: 160
    weight_filler {
      type: "gaussian"
      std: 0.01
    }
    bias_filler {
      type: "constant"
    }
  }
}
layer {
  name: "relu3"
  type: "ReLU"
  bottom: "ip3"
  top: "ip3"
}
layer {
  name: "ip4"
  type: "InnerProduct"
  bottom: "ip3"
  top: "ip4"
  param {
    lr_mult: 1
  }
  param {
    lr_mult: 2
  }
  inner_product_param {
    num_output: 10
    weight_filler {
      type: "gaussian"
      std: 0.01
    }
    bias_filler {
      type: "constant"
    }
  }
}
layer {
  name: "accuracy"
  type: "Accuracy"
  bottom: "ip4"
  bottom: "label"
  top: "accuracy"
  include {
    phase: TEST
  }
}
layer {
  name: "loss"
  type: "SoftmaxWithLoss"
  bottom: "ip4"
  bottom: "label"
  top: "loss"
}
I0430 17:34:59.055393 20006 layer_factory.hpp:77] Creating layer cifar
I0430 17:34:59.055452 20006 db_lmdb.cpp:35] Opened lmdb examples/cifar10/cifar10_test_lmdb
I0430 17:34:59.055470 20006 net.cpp:86] Creating Layer cifar
I0430 17:34:59.055479 20006 net.cpp:382] cifar -> data
I0430 17:34:59.055490 20006 net.cpp:382] cifar -> label
I0430 17:34:59.055500 20006 data_transformer.cpp:25] Loading mean file from: examples/cifar10/mean.binaryproto
I0430 17:34:59.055698 20006 data_layer.cpp:45] output data size: 1000,3,32,32
I0430 17:34:59.078748 20006 net.cpp:124] Setting up cifar
I0430 17:34:59.078778 20006 net.cpp:131] Top shape: 1000 3 32 32 (3072000)
I0430 17:34:59.078785 20006 net.cpp:131] Top shape: 1000 (1000)
I0430 17:34:59.078791 20006 net.cpp:139] Memory required for data: 12292000
I0430 17:34:59.078799 20006 layer_factory.hpp:77] Creating layer label_cifar_1_split
I0430 17:34:59.078819 20006 net.cpp:86] Creating Layer label_cifar_1_split
I0430 17:34:59.078827 20006 net.cpp:408] label_cifar_1_split <- label
I0430 17:34:59.078836 20006 net.cpp:382] label_cifar_1_split -> label_cifar_1_split_0
I0430 17:34:59.078850 20006 net.cpp:382] label_cifar_1_split -> label_cifar_1_split_1
I0430 17:34:59.078941 20006 net.cpp:124] Setting up label_cifar_1_split
I0430 17:34:59.078951 20006 net.cpp:131] Top shape: 1000 (1000)
I0430 17:34:59.078958 20006 net.cpp:131] Top shape: 1000 (1000)
I0430 17:34:59.078963 20006 net.cpp:139] Memory required for data: 12300000
I0430 17:34:59.078968 20006 layer_factory.hpp:77] Creating layer ip1
I0430 17:34:59.078981 20006 net.cpp:86] Creating Layer ip1
I0430 17:34:59.078989 20006 net.cpp:408] ip1 <- data
I0430 17:34:59.078997 20006 net.cpp:382] ip1 -> ip1
I0430 17:34:59.079942 20006 net.cpp:124] Setting up ip1
I0430 17:34:59.079952 20006 net.cpp:131] Top shape: 1000 10 (10000)
I0430 17:34:59.079958 20006 net.cpp:139] Memory required for data: 12340000
I0430 17:34:59.079991 20006 layer_factory.hpp:77] Creating layer relu1
I0430 17:34:59.080003 20006 net.cpp:86] Creating Layer relu1
I0430 17:34:59.080009 20006 net.cpp:408] relu1 <- ip1
I0430 17:34:59.080016 20006 net.cpp:369] relu1 -> ip1 (in-place)
I0430 17:34:59.080862 20006 net.cpp:124] Setting up relu1
I0430 17:34:59.080876 20006 net.cpp:131] Top shape: 1000 10 (10000)
I0430 17:34:59.080881 20006 net.cpp:139] Memory required for data: 12380000
I0430 17:34:59.080888 20006 layer_factory.hpp:77] Creating layer ip2
I0430 17:34:59.080900 20006 net.cpp:86] Creating Layer ip2
I0430 17:34:59.080906 20006 net.cpp:408] ip2 <- ip1
I0430 17:34:59.080915 20006 net.cpp:382] ip2 -> ip2
I0430 17:34:59.081967 20006 net.cpp:124] Setting up ip2
I0430 17:34:59.081979 20006 net.cpp:131] Top shape: 1000 20 (20000)
I0430 17:34:59.081984 20006 net.cpp:139] Memory required for data: 12460000
I0430 17:34:59.081996 20006 layer_factory.hpp:77] Creating layer relu2
I0430 17:34:59.082005 20006 net.cpp:86] Creating Layer relu2
I0430 17:34:59.082016 20006 net.cpp:408] relu2 <- ip2
I0430 17:34:59.082026 20006 net.cpp:369] relu2 -> ip2 (in-place)
I0430 17:34:59.082188 20006 net.cpp:124] Setting up relu2
I0430 17:34:59.082198 20006 net.cpp:131] Top shape: 1000 20 (20000)
I0430 17:34:59.082204 20006 net.cpp:139] Memory required for data: 12540000
I0430 17:34:59.082216 20006 layer_factory.hpp:77] Creating layer ip3
I0430 17:34:59.082226 20006 net.cpp:86] Creating Layer ip3
I0430 17:34:59.082232 20006 net.cpp:408] ip3 <- ip2
I0430 17:34:59.082240 20006 net.cpp:382] ip3 -> ip3
I0430 17:34:59.082437 20006 net.cpp:124] Setting up ip3
I0430 17:34:59.082446 20006 net.cpp:131] Top shape: 1000 160 (160000)
I0430 17:34:59.082451 20006 net.cpp:139] Memory required for data: 13180000
I0430 17:34:59.082463 20006 layer_factory.hpp:77] Creating layer relu3
I0430 17:34:59.082471 20006 net.cpp:86] Creating Layer relu3
I0430 17:34:59.082484 20006 net.cpp:408] relu3 <- ip3
I0430 17:34:59.082491 20006 net.cpp:369] relu3 -> ip3 (in-place)
I0430 17:34:59.082649 20006 net.cpp:124] Setting up relu3
I0430 17:34:59.082659 20006 net.cpp:131] Top shape: 1000 160 (160000)
I0430 17:34:59.082665 20006 net.cpp:139] Memory required for data: 13820000
I0430 17:34:59.082670 20006 layer_factory.hpp:77] Creating layer ip4
I0430 17:34:59.082681 20006 net.cpp:86] Creating Layer ip4
I0430 17:34:59.082687 20006 net.cpp:408] ip4 <- ip3
I0430 17:34:59.082696 20006 net.cpp:382] ip4 -> ip4
I0430 17:34:59.082849 20006 net.cpp:124] Setting up ip4
I0430 17:34:59.082857 20006 net.cpp:131] Top shape: 1000 10 (10000)
I0430 17:34:59.082862 20006 net.cpp:139] Memory required for data: 13860000
I0430 17:34:59.082871 20006 layer_factory.hpp:77] Creating layer ip4_ip4_0_split
I0430 17:34:59.082880 20006 net.cpp:86] Creating Layer ip4_ip4_0_split
I0430 17:34:59.082885 20006 net.cpp:408] ip4_ip4_0_split <- ip4
I0430 17:34:59.082892 20006 net.cpp:382] ip4_ip4_0_split -> ip4_ip4_0_split_0
I0430 17:34:59.082903 20006 net.cpp:382] ip4_ip4_0_split -> ip4_ip4_0_split_1
I0430 17:34:59.082942 20006 net.cpp:124] Setting up ip4_ip4_0_split
I0430 17:34:59.082949 20006 net.cpp:131] Top shape: 1000 10 (10000)
I0430 17:34:59.082955 20006 net.cpp:131] Top shape: 1000 10 (10000)
I0430 17:34:59.082962 20006 net.cpp:139] Memory required for data: 13940000
I0430 17:34:59.082967 20006 layer_factory.hpp:77] Creating layer accuracy
I0430 17:34:59.082975 20006 net.cpp:86] Creating Layer accuracy
I0430 17:34:59.082980 20006 net.cpp:408] accuracy <- ip4_ip4_0_split_0
I0430 17:34:59.082988 20006 net.cpp:408] accuracy <- label_cifar_1_split_0
I0430 17:34:59.082994 20006 net.cpp:382] accuracy -> accuracy
…
