…
I0430 22:51:58.403643  3487 net.cpp:296] The NetState phase (0) differed from the phase (1) specified by a rule in layer cifar
I0430 22:51:58.403662  3487 net.cpp:296] The NetState phase (0) differed from the phase (1) specified by a rule in layer accuracy
I0430 22:51:58.403769  3487 net.cpp:53] Initializing net from parameters: 
name: "CIFAR"
state {
  phase: TRAIN
  level: 0
  stage: ""
}
layer {
  name: "cifar"
  type: "Data"
  top: "data"
  top: "label"
  include {
    phase: TRAIN
  }
  transform_param {
    mean_file: "examples/cifar10/mean.binaryproto"
  }
  data_param {
    source: "examples/cifar10/cifar10_train_lmdb"
    batch_size: 111
    backend: LMDB
  }
}
layer {
  name: "conv0"
  type: "Convolution"
  bottom: "data"
  top: "conv0"
  param {
    lr_mult: 1
  }
  param {
    lr_mult: 2
  }
  convolution_param {
    num_output: 8
    pad: 2
    kernel_size: 3
    stride: 1
    weight_filler {
      type: "gaussian"
      std: 0.01
    }
    bias_filler {
      type: "constant"
    }
  }
}
layer {
  name: "Sigmoid0"
  type: "Sigmoid"
  bottom: "conv0"
  top: "Sigmoid0"
}
layer {
  name: "pool0"
  type: "Pooling"
  bottom: "Sigmoid0"
  top: "pool0"
  pooling_param {
    pool: AVE
    kernel_size: 3
    stride: 2
  }
}
layer {
  name: "ip1"
  type: "InnerProduct"
  bottom: "pool0"
  top: "ip1"
  param {
    lr_mult: 1
  }
  param {
    lr_mult: 2
  }
  inner_product_param {
    num_output: 10
    weight_filler {
      type: "gaussian"
      std: 0.01
    }
    bias_filler {
      type: "constant"
    }
  }
}
layer {
  name: "relu1"
  type: "ReLU"
  bottom: "ip1"
  top: "ip1"
}
layer {
  name: "ip2"
  type: "InnerProduct"
  bottom: "ip1"
  top: "ip2"
  param {
    lr_mult: 1
  }
  param {
    lr_mult: 2
  }
  inner_product_param {
    num_output: 160
    weight_filler {
      type: "gaussian"
      std: 0.01
    }
    bias_filler {
      type: "constant"
    }
  }
}
layer {
  name: "relu2"
  type: "ReLU"
  bottom: "ip2"
  top: "ip2"
}
layer {
  name: "ip3"
  type: "InnerProduct"
  bottom: "ip2"
  top: "ip3"
  param {
    lr_mult: 1
  }
  param {
    lr_mult: 2
  }
  inner_product_param {
    num_output: 40
    weight_filler {
      type: "gaussian"
      std: 0.01
    }
    bias_filler {
      type: "constant"
    }
  }
}
layer {
  name: "relu3"
  type: "ReLU"
  bottom: "ip3"
  top: "ip3"
}
layer {
  name: "ip4"
  type: "InnerProduct"
  bottom: "ip3"
  top: "ip4"
  param {
    lr_mult: 1
  }
  param {
    lr_mult: 2
  }
  inner_product_param {
    num_output: 10
    weight_filler {
      type: "gaussian"
      std: 0.01
    }
    bias_filler {
      type: "constant"
    }
  }
}
layer {
  name: "loss"
  type: "SoftmaxWithLoss"
  bottom: "ip4"
  bottom: "label"
  top: "loss"
}
I0430 22:51:58.403852  3487 layer_factory.hpp:77] Creating layer cifar
I0430 22:51:58.403954  3487 db_lmdb.cpp:35] Opened lmdb examples/cifar10/cifar10_train_lmdb
I0430 22:51:58.403980  3487 net.cpp:86] Creating Layer cifar
I0430 22:51:58.403988  3487 net.cpp:382] cifar -> data
I0430 22:51:58.404012  3487 net.cpp:382] cifar -> label
I0430 22:51:58.404024  3487 data_transformer.cpp:25] Loading mean file from: examples/cifar10/mean.binaryproto
I0430 22:51:58.406133  3487 data_layer.cpp:45] output data size: 111,3,32,32
I0430 22:51:58.413976  3487 net.cpp:124] Setting up cifar
I0430 22:51:58.413995  3487 net.cpp:131] Top shape: 111 3 32 32 (340992)
I0430 22:51:58.414003  3487 net.cpp:131] Top shape: 111 (111)
I0430 22:51:58.414007  3487 net.cpp:139] Memory required for data: 1364412
I0430 22:51:58.414031  3487 layer_factory.hpp:77] Creating layer conv0
I0430 22:51:58.414049  3487 net.cpp:86] Creating Layer conv0
I0430 22:51:58.414055  3487 net.cpp:408] conv0 <- data
I0430 22:51:58.414067  3487 net.cpp:382] conv0 -> conv0
I0430 22:51:58.704265  3487 net.cpp:124] Setting up conv0
I0430 22:51:58.704298  3487 net.cpp:131] Top shape: 111 8 34 34 (1026528)
I0430 22:51:58.704303  3487 net.cpp:139] Memory required for data: 5470524
I0430 22:51:58.704322  3487 layer_factory.hpp:77] Creating layer Sigmoid0
I0430 22:51:58.704337  3487 net.cpp:86] Creating Layer Sigmoid0
I0430 22:51:58.704342  3487 net.cpp:408] Sigmoid0 <- conv0
I0430 22:51:58.704349  3487 net.cpp:382] Sigmoid0 -> Sigmoid0
I0430 22:51:58.704566  3487 net.cpp:124] Setting up Sigmoid0
I0430 22:51:58.704578  3487 net.cpp:131] Top shape: 111 8 34 34 (1026528)
I0430 22:51:58.704583  3487 net.cpp:139] Memory required for data: 9576636
I0430 22:51:58.704587  3487 layer_factory.hpp:77] Creating layer pool0
I0430 22:51:58.704594  3487 net.cpp:86] Creating Layer pool0
I0430 22:51:58.704599  3487 net.cpp:408] pool0 <- Sigmoid0
I0430 22:51:58.704604  3487 net.cpp:382] pool0 -> pool0
I0430 22:51:58.705492  3487 net.cpp:124] Setting up pool0
I0430 22:51:58.705508  3487 net.cpp:131] Top shape: 111 8 17 17 (256632)
I0430 22:51:58.705513  3487 net.cpp:139] Memory required for data: 10603164
I0430 22:51:58.705518  3487 layer_factory.hpp:77] Creating layer ip1
I0430 22:51:58.705529  3487 net.cpp:86] Creating Layer ip1
I0430 22:51:58.705533  3487 net.cpp:408] ip1 <- pool0
I0430 22:51:58.705540  3487 net.cpp:382] ip1 -> ip1
I0430 22:51:58.707413  3487 net.cpp:124] Setting up ip1
I0430 22:51:58.707428  3487 net.cpp:131] Top shape: 111 10 (1110)
I0430 22:51:58.707433  3487 net.cpp:139] Memory required for data: 10607604
I0430 22:51:58.707443  3487 layer_factory.hpp:77] Creating layer relu1
I0430 22:51:58.707451  3487 net.cpp:86] Creating Layer relu1
I0430 22:51:58.707455  3487 net.cpp:408] relu1 <- ip1
I0430 22:51:58.707461  3487 net.cpp:369] relu1 -> ip1 (in-place)
I0430 22:51:58.707648  3487 net.cpp:124] Setting up relu1
I0430 22:51:58.707659  3487 net.cpp:131] Top shape: 111 10 (1110)
I0430 22:51:58.707664  3487 net.cpp:139] Memory required for data: 10612044
I0430 22:51:58.707667  3487 layer_factory.hpp:77] Creating layer ip2
I0430 22:51:58.707675  3487 net.cpp:86] Creating Layer ip2
I0430 22:51:58.707679  3487 net.cpp:408] ip2 <- ip1
I0430 22:51:58.707685  3487 net.cpp:382] ip2 -> ip2
I0430 22:51:58.707854  3487 net.cpp:124] Setting up ip2
I0430 22:51:58.707862  3487 net.cpp:131] Top shape: 111 160 (17760)
I0430 22:51:58.707866  3487 net.cpp:139] Memory required for data: 10683084
I0430 22:51:58.707875  3487 layer_factory.hpp:77] Creating layer relu2
I0430 22:51:58.707881  3487 net.cpp:86] Creating Layer relu2
I0430 22:51:58.707885  3487 net.cpp:408] relu2 <- ip2
I0430 22:51:58.707890  3487 net.cpp:369] relu2 -> ip2 (in-place)
I0430 22:51:58.708072  3487 net.cpp:124] Setting up relu2
I0430 22:51:58.708082  3487 net.cpp:131] Top shape: 111 160 (17760)
I0430 22:51:58.708086  3487 net.cpp:139] Memory required for data: 10754124
I0430 22:51:58.708091  3487 layer_factory.hpp:77] Creating layer ip3
I0430 22:51:58.708099  3487 net.cpp:86] Creating Layer ip3
I0430 22:51:58.708103  3487 net.cpp:408] ip3 <- ip2
I0430 22:51:58.708109  3487 net.cpp:382] ip3 -> ip3
I0430 22:51:58.709414  3487 net.cpp:124] Setting up ip3
I0430 22:51:58.709429  3487 net.cpp:131] Top shape: 111 40 (4440)
I0430 22:51:58.709434  3487 net.cpp:139] Memory required for data: 10771884
I0430 22:51:58.709442  3487 layer_factory.hpp:77] Creating layer relu3
I0430 22:51:58.709450  3487 net.cpp:86] Creating Layer relu3
I0430 22:51:58.709453  3487 net.cpp:408] relu3 <- ip3
I0430 22:51:58.709460  3487 net.cpp:369] relu3 -> ip3 (in-place)
I0430 22:51:58.709653  3487 net.cpp:124] Setting up relu3
I0430 22:51:58.709664  3487 net.cpp:131] Top shape: 111 40 (4440)
I0430 22:51:58.709668  3487 net.cpp:139] Memory required for data: 10789644
I0430 22:51:58.709672  3487 layer_factory.hpp:77] Creating layer ip4
I0430 22:51:58.709697  3487 net.cpp:86] Creating Layer ip4
I0430 22:51:58.709700  3487 net.cpp:408] ip4 <- ip3
I0430 22:51:58.709707  3487 net.cpp:382] ip4 -> ip4
I0430 22:51:58.710806  3487 net.cpp:124] Setting up ip4
I0430 22:51:58.710821  3487 net.cpp:131] Top shape: 111 10 (1110)
I0430 22:51:58.710825  3487 net.cpp:139] Memory required for data: 10794084
I0430 22:51:58.710836  3487 layer_factory.hpp:77] Creating layer loss
I0430 22:51:58.710844  3487 net.cpp:86] Creating Layer loss
I0430 22:51:58.710849  3487 net.cpp:408] loss <- ip4
I0430 22:51:58.710853  3487 net.cpp:408] loss <- label
I0430 22:51:58.710860  3487 net.cpp:382] loss -> loss
I0430 22:51:58.710880  3487 layer_factory.hpp:77] Creating layer loss
…
I0430 22:51:58.712340  3487 solver.cpp:173] Creating test net (#0) specified by net file: ECE595/cifar/train_test/var_everything/cifar_train_test_207.prototxt
I0430 22:51:58.712373  3487 net.cpp:296] The NetState phase (1) differed from the phase (0) specified by a rule in layer cifar
I0430 22:51:58.712491  3487 net.cpp:53] Initializing net from parameters: 
name: "CIFAR"
state {
  phase: TEST
}
layer {
  name: "cifar"
  type: "Data"
  top: "data"
  top: "label"
  include {
    phase: TEST
  }
  transform_param {
    mean_file: "examples/cifar10/mean.binaryproto"
  }
  data_param {
    source: "examples/cifar10/cifar10_test_lmdb"
    batch_size: 1000
    backend: LMDB
  }
}
layer {
  name: "conv0"
  type: "Convolution"
  bottom: "data"
  top: "conv0"
  param {
    lr_mult: 1
  }
  param {
    lr_mult: 2
  }
  convolution_param {
    num_output: 8
    pad: 2
    kernel_size: 3
    stride: 1
    weight_filler {
      type: "gaussian"
      std: 0.01
    }
    bias_filler {
      type: "constant"
    }
  }
}
layer {
  name: "Sigmoid0"
  type: "Sigmoid"
  bottom: "conv0"
  top: "Sigmoid0"
}
layer {
  name: "pool0"
  type: "Pooling"
  bottom: "Sigmoid0"
  top: "pool0"
  pooling_param {
    pool: AVE
    kernel_size: 3
    stride: 2
  }
}
layer {
  name: "ip1"
  type: "InnerProduct"
  bottom: "pool0"
  top: "ip1"
  param {
    lr_mult: 1
  }
  param {
    lr_mult: 2
  }
  inner_product_param {
    num_output: 10
    weight_filler {
      type: "gaussian"
      std: 0.01
    }
    bias_filler {
      type: "constant"
    }
  }
}
layer {
  name: "relu1"
  type: "ReLU"
  bottom: "ip1"
  top: "ip1"
}
layer {
  name: "ip2"
  type: "InnerProduct"
  bottom: "ip1"
  top: "ip2"
  param {
    lr_mult: 1
  }
  param {
    lr_mult: 2
  }
  inner_product_param {
    num_output: 160
    weight_filler {
      type: "gaussian"
      std: 0.01
    }
    bias_filler {
      type: "constant"
    }
  }
}
layer {
  name: "relu2"
  type: "ReLU"
  bottom: "ip2"
  top: "ip2"
}
layer {
  name: "ip3"
  type: "InnerProduct"
  bottom: "ip2"
  top: "ip3"
  param {
    lr_mult: 1
  }
  param {
    lr_mult: 2
  }
  inner_product_param {
    num_output: 40
    weight_filler {
      type: "gaussian"
      std: 0.01
    }
    bias_filler {
      type: "constant"
    }
  }
}
layer {
  name: "relu3"
  type: "ReLU"
  bottom: "ip3"
  top: "ip3"
}
layer {
  name: "ip4"
  type: "InnerProduct"
  bottom: "ip3"
  top: "ip4"
  param {
    lr_mult: 1
  }
  param {
    lr_mult: 2
  }
  inner_product_param {
    num_output: 10
    weight_filler {
      type: "gaussian"
      std: 0.01
    }
    bias_filler {
      type: "constant"
    }
  }
}
layer {
  name: "accuracy"
  type: "Accuracy"
  bottom: "ip4"
  bottom: "label"
  top: "accuracy"
  include {
    phase: TEST
  }
}
layer {
  name: "loss"
  type: "SoftmaxWithLoss"
  bottom: "ip4"
  bottom: "label"
  top: "loss"
}
I0430 22:51:58.712594  3487 layer_factory.hpp:77] Creating layer cifar
I0430 22:51:58.712646  3487 db_lmdb.cpp:35] Opened lmdb examples/cifar10/cifar10_test_lmdb
I0430 22:51:58.712661  3487 net.cpp:86] Creating Layer cifar
I0430 22:51:58.712667  3487 net.cpp:382] cifar -> data
I0430 22:51:58.712677  3487 net.cpp:382] cifar -> label
I0430 22:51:58.712684  3487 data_transformer.cpp:25] Loading mean file from: examples/cifar10/mean.binaryproto
I0430 22:51:58.712873  3487 data_layer.cpp:45] output data size: 1000,3,32,32
I0430 22:51:58.738695  3487 net.cpp:124] Setting up cifar
I0430 22:51:58.738724  3487 net.cpp:131] Top shape: 1000 3 32 32 (3072000)
I0430 22:51:58.738730  3487 net.cpp:131] Top shape: 1000 (1000)
I0430 22:51:58.738734  3487 net.cpp:139] Memory required for data: 12292000
I0430 22:51:58.738740  3487 layer_factory.hpp:77] Creating layer label_cifar_1_split
I0430 22:51:58.738754  3487 net.cpp:86] Creating Layer label_cifar_1_split
I0430 22:51:58.738759  3487 net.cpp:408] label_cifar_1_split <- label
I0430 22:51:58.738767  3487 net.cpp:382] label_cifar_1_split -> label_cifar_1_split_0
I0430 22:51:58.738777  3487 net.cpp:382] label_cifar_1_split -> label_cifar_1_split_1
I0430 22:51:58.738907  3487 net.cpp:124] Setting up label_cifar_1_split
I0430 22:51:58.738916  3487 net.cpp:131] Top shape: 1000 (1000)
I0430 22:51:58.738921  3487 net.cpp:131] Top shape: 1000 (1000)
I0430 22:51:58.738924  3487 net.cpp:139] Memory required for data: 12300000
I0430 22:51:58.738929  3487 layer_factory.hpp:77] Creating layer conv0
I0430 22:51:58.738945  3487 net.cpp:86] Creating Layer conv0
I0430 22:51:58.738948  3487 net.cpp:408] conv0 <- data
I0430 22:51:58.738955  3487 net.cpp:382] conv0 -> conv0
I0430 22:51:58.740712  3487 net.cpp:124] Setting up conv0
I0430 22:51:58.740731  3487 net.cpp:131] Top shape: 1000 8 34 34 (9248000)
I0430 22:51:58.740736  3487 net.cpp:139] Memory required for data: 49292000
I0430 22:51:58.740747  3487 layer_factory.hpp:77] Creating layer Sigmoid0
I0430 22:51:58.740758  3487 net.cpp:86] Creating Layer Sigmoid0
I0430 22:51:58.740762  3487 net.cpp:408] Sigmoid0 <- conv0
I0430 22:51:58.740768  3487 net.cpp:382] Sigmoid0 -> Sigmoid0
I0430 22:51:58.741976  3487 net.cpp:124] Setting up Sigmoid0
I0430 22:51:58.741991  3487 net.cpp:131] Top shape: 1000 8 34 34 (9248000)
I0430 22:51:58.741996  3487 net.cpp:139] Memory required for data: 86284000
I0430 22:51:58.741999  3487 layer_factory.hpp:77] Creating layer pool0
I0430 22:51:58.742010  3487 net.cpp:86] Creating Layer pool0
I0430 22:51:58.742014  3487 net.cpp:408] pool0 <- Sigmoid0
I0430 22:51:58.742020  3487 net.cpp:382] pool0 -> pool0
I0430 22:51:58.742225  3487 net.cpp:124] Setting up pool0
I0430 22:51:58.742235  3487 net.cpp:131] Top shape: 1000 8 17 17 (2312000)
I0430 22:51:58.742239  3487 net.cpp:139] Memory required for data: 95532000
I0430 22:51:58.742244  3487 layer_factory.hpp:77] Creating layer ip1
I0430 22:51:58.742252  3487 net.cpp:86] Creating Layer ip1
I0430 22:51:58.742256  3487 net.cpp:408] ip1 <- pool0
I0430 22:51:58.742264  3487 net.cpp:382] ip1 -> ip1
I0430 22:51:58.743130  3487 net.cpp:124] Setting up ip1
I0430 22:51:58.743139  3487 net.cpp:131] Top shape: 1000 10 (10000)
I0430 22:51:58.743144  3487 net.cpp:139] Memory required for data: 95572000
I0430 22:51:58.743167  3487 layer_factory.hpp:77] Creating layer relu1
I0430 22:51:58.743175  3487 net.cpp:86] Creating Layer relu1
I0430 22:51:58.743180  3487 net.cpp:408] relu1 <- ip1
I0430 22:51:58.743186  3487 net.cpp:369] relu1 -> ip1 (in-place)
I0430 22:51:58.743377  3487 net.cpp:124] Setting up relu1
I0430 22:51:58.743388  3487 net.cpp:131] Top shape: 1000 10 (10000)
I0430 22:51:58.743392  3487 net.cpp:139] Memory required for data: 95612000
I0430 22:51:58.743396  3487 layer_factory.hpp:77] Creating layer ip2
I0430 22:51:58.743405  3487 net.cpp:86] Creating Layer ip2
I0430 22:51:58.743409  3487 net.cpp:408] ip2 <- ip1
I0430 22:51:58.743415  3487 net.cpp:382] ip2 -> ip2
I0430 22:51:58.743592  3487 net.cpp:124] Setting up ip2
I0430 22:51:58.743602  3487 net.cpp:131] Top shape: 1000 160 (160000)
I0430 22:51:58.743604  3487 net.cpp:139] Memory required for data: 96252000
I0430 22:51:58.743613  3487 layer_factory.hpp:77] Creating layer relu2
I0430 22:51:58.743623  3487 net.cpp:86] Creating Layer relu2
I0430 22:51:58.743626  3487 net.cpp:408] relu2 <- ip2
I0430 22:51:58.743630  3487 net.cpp:369] relu2 -> ip2 (in-place)
I0430 22:51:58.744489  3487 net.cpp:124] Setting up relu2
I0430 22:51:58.744505  3487 net.cpp:131] Top shape: 1000 160 (160000)
I0430 22:51:58.744509  3487 net.cpp:139] Memory required for data: 96892000
I0430 22:51:58.744513  3487 layer_factory.hpp:77] Creating layer ip3
I0430 22:51:58.744521  3487 net.cpp:86] Creating Layer ip3
I0430 22:51:58.744525  3487 net.cpp:408] ip3 <- ip2
I0430 22:51:58.744532  3487 net.cpp:382] ip3 -> ip3
I0430 22:51:58.744868  3487 net.cpp:124] Setting up ip3
I0430 22:51:58.744879  3487 net.cpp:131] Top shape: 1000 40 (40000)
I0430 22:51:58.744882  3487 net.cpp:139] Memory required for data: 97052000
I0430 22:51:58.744889  3487 layer_factory.hpp:77] Creating layer relu3
I0430 22:51:58.744895  3487 net.cpp:86] Creating Layer relu3
I0430 22:51:58.744899  3487 net.cpp:408] relu3 <- ip3
I0430 22:51:58.744905  3487 net.cpp:369] relu3 -> ip3 (in-place)
I0430 22:51:58.745090  3487 net.cpp:124] Setting up relu3
I0430 22:51:58.745100  3487 net.cpp:131] Top shape: 1000 40 (40000)
I0430 22:51:58.745103  3487 net.cpp:139] Memory required for data: 97212000
I0430 22:51:58.745107  3487 layer_factory.hpp:77] Creating layer ip4
I0430 22:51:58.745115  3487 net.cpp:86] Creating Layer ip4
I0430 22:51:58.745120  3487 net.cpp:408] ip4 <- ip3
I0430 22:51:58.745126  3487 net.cpp:382] ip4 -> ip4
I0430 22:51:58.745257  3487 net.cpp:124] Setting up ip4
I0430 22:51:58.745267  3487 net.cpp:131] Top shape: 1000 10 (10000)
I0430 22:51:58.745271  3487 net.cpp:139] Memory required for data: 97252000
I0430 22:51:58.745281  3487 layer_factory.hpp:77] Creating layer ip4_ip4_0_split
I0430 22:51:58.745287  3487 net.cpp:86] Creating Layer ip4_ip4_0_split
I0430 22:51:58.745290  3487 net.cpp:408] ip4_ip4_0_split <- ip4
I0430 22:51:58.745296  3487 net.cpp:382] ip4_ip4_0_split -> ip4_ip4_0_split_0
I0430 22:51:58.745302  3487 net.cpp:382] ip4_ip4_0_split -> ip4_ip4_0_split_1
I0430 22:51:58.745342  3487 net.cpp:124] Setting up ip4_ip4_0_split
I0430 22:51:58.745348  3487 net.cpp:131] Top shape: 1000 10 (10000)
I0430 22:51:58.745353  3487 net.cpp:131] Top shape: 1000 10 (10000)
I0430 22:51:58.745357  3487 net.cpp:139] Memory required for data: 97332000
I0430 22:51:58.745360  3487 layer_factory.hpp:77] Creating layer accuracy
I0430 22:51:58.745368  3487 net.cpp:86] Creating Layer accuracy
I0430 22:51:58.745371  3487 net.cpp:408] accuracy <- ip4_ip4_0_split_0
I0430 22:51:58.745375  3487 net.cpp:408] accuracy <- label_cifar_1_split_0
I0430 22:51:58.745383  3487 net.cpp:382] accuracy -> accuracy
…
