…
I0430 20:20:19.295713 28510 net.cpp:296] The NetState phase (0) differed from the phase (1) specified by a rule in layer cifar
I0430 20:20:19.295758 28510 net.cpp:296] The NetState phase (0) differed from the phase (1) specified by a rule in layer accuracy
I0430 20:20:19.295855 28510 net.cpp:53] Initializing net from parameters: 
name: "CIFAR"
state {
  phase: TRAIN
  level: 0
  stage: ""
}
layer {
  name: "cifar"
  type: "Data"
  top: "data"
  top: "label"
  include {
    phase: TRAIN
  }
  transform_param {
    mean_file: "examples/cifar10/mean.binaryproto"
  }
  data_param {
    source: "examples/cifar10/cifar10_train_lmdb"
    batch_size: 111
    backend: LMDB
  }
}
layer {
  name: "ip1"
  type: "InnerProduct"
  bottom: "data"
  top: "ip1"
  param {
    lr_mult: 1
  }
  param {
    lr_mult: 2
  }
  inner_product_param {
    num_output: 80
    weight_filler {
      type: "gaussian"
      std: 0.01
    }
    bias_filler {
      type: "constant"
    }
  }
}
layer {
  name: "relu1"
  type: "ReLU"
  bottom: "ip1"
  top: "ip1"
}
layer {
  name: "ip2"
  type: "InnerProduct"
  bottom: "ip1"
  top: "ip2"
  param {
    lr_mult: 1
  }
  param {
    lr_mult: 2
  }
  inner_product_param {
    num_output: 160
    weight_filler {
      type: "gaussian"
      std: 0.01
    }
    bias_filler {
      type: "constant"
    }
  }
}
layer {
  name: "relu2"
  type: "ReLU"
  bottom: "ip2"
  top: "ip2"
}
layer {
  name: "ip3"
  type: "InnerProduct"
  bottom: "ip2"
  top: "ip3"
  param {
    lr_mult: 1
  }
  param {
    lr_mult: 2
  }
  inner_product_param {
    num_output: 20
    weight_filler {
      type: "gaussian"
      std: 0.01
    }
    bias_filler {
      type: "constant"
    }
  }
}
layer {
  name: "relu3"
  type: "ReLU"
  bottom: "ip3"
  top: "ip3"
}
layer {
  name: "ip4"
  type: "InnerProduct"
  bottom: "ip3"
  top: "ip4"
  param {
    lr_mult: 1
  }
  param {
    lr_mult: 2
  }
  inner_product_param {
    num_output: 10
    weight_filler {
      type: "gaussian"
      std: 0.01
    }
    bias_filler {
      type: "constant"
    }
  }
}
layer {
  name: "loss"
  type: "SoftmaxWithLoss"
  bottom: "ip4"
  bottom: "label"
  top: "loss"
}
I0430 20:20:19.295912 28510 layer_factory.hpp:77] Creating layer cifar
I0430 20:20:19.295991 28510 db_lmdb.cpp:35] Opened lmdb examples/cifar10/cifar10_train_lmdb
I0430 20:20:19.296015 28510 net.cpp:86] Creating Layer cifar
I0430 20:20:19.296020 28510 net.cpp:382] cifar -> data
I0430 20:20:19.296039 28510 net.cpp:382] cifar -> label
I0430 20:20:19.296048 28510 data_transformer.cpp:25] Loading mean file from: examples/cifar10/mean.binaryproto
I0430 20:20:19.297837 28510 data_layer.cpp:45] output data size: 111,3,32,32
I0430 20:20:19.304308 28510 net.cpp:124] Setting up cifar
I0430 20:20:19.304342 28510 net.cpp:131] Top shape: 111 3 32 32 (340992)
I0430 20:20:19.304354 28510 net.cpp:131] Top shape: 111 (111)
I0430 20:20:19.304358 28510 net.cpp:139] Memory required for data: 1364412
I0430 20:20:19.304364 28510 layer_factory.hpp:77] Creating layer ip1
I0430 20:20:19.304373 28510 net.cpp:86] Creating Layer ip1
I0430 20:20:19.304379 28510 net.cpp:408] ip1 <- data
I0430 20:20:19.304404 28510 net.cpp:382] ip1 -> ip1
I0430 20:20:19.311816 28510 net.cpp:124] Setting up ip1
I0430 20:20:19.311846 28510 net.cpp:131] Top shape: 111 80 (8880)
I0430 20:20:19.311849 28510 net.cpp:139] Memory required for data: 1399932
I0430 20:20:19.311861 28510 layer_factory.hpp:77] Creating layer relu1
I0430 20:20:19.311868 28510 net.cpp:86] Creating Layer relu1
I0430 20:20:19.311900 28510 net.cpp:408] relu1 <- ip1
I0430 20:20:19.311906 28510 net.cpp:369] relu1 -> ip1 (in-place)
I0430 20:20:19.536329 28510 net.cpp:124] Setting up relu1
I0430 20:20:19.536355 28510 net.cpp:131] Top shape: 111 80 (8880)
I0430 20:20:19.536360 28510 net.cpp:139] Memory required for data: 1435452
I0430 20:20:19.536365 28510 layer_factory.hpp:77] Creating layer ip2
I0430 20:20:19.536376 28510 net.cpp:86] Creating Layer ip2
I0430 20:20:19.536381 28510 net.cpp:408] ip2 <- ip1
I0430 20:20:19.536387 28510 net.cpp:382] ip2 -> ip2
I0430 20:20:19.537688 28510 net.cpp:124] Setting up ip2
I0430 20:20:19.537700 28510 net.cpp:131] Top shape: 111 160 (17760)
I0430 20:20:19.537719 28510 net.cpp:139] Memory required for data: 1506492
I0430 20:20:19.537729 28510 layer_factory.hpp:77] Creating layer relu2
I0430 20:20:19.537736 28510 net.cpp:86] Creating Layer relu2
I0430 20:20:19.537740 28510 net.cpp:408] relu2 <- ip2
I0430 20:20:19.537744 28510 net.cpp:369] relu2 -> ip2 (in-place)
I0430 20:20:19.538493 28510 net.cpp:124] Setting up relu2
I0430 20:20:19.538506 28510 net.cpp:131] Top shape: 111 160 (17760)
I0430 20:20:19.538508 28510 net.cpp:139] Memory required for data: 1577532
I0430 20:20:19.538511 28510 layer_factory.hpp:77] Creating layer ip3
I0430 20:20:19.538518 28510 net.cpp:86] Creating Layer ip3
I0430 20:20:19.538521 28510 net.cpp:408] ip3 <- ip2
I0430 20:20:19.538525 28510 net.cpp:382] ip3 -> ip3
I0430 20:20:19.538709 28510 net.cpp:124] Setting up ip3
I0430 20:20:19.538717 28510 net.cpp:131] Top shape: 111 20 (2220)
I0430 20:20:19.538720 28510 net.cpp:139] Memory required for data: 1586412
I0430 20:20:19.538727 28510 layer_factory.hpp:77] Creating layer relu3
I0430 20:20:19.538733 28510 net.cpp:86] Creating Layer relu3
I0430 20:20:19.538735 28510 net.cpp:408] relu3 <- ip3
I0430 20:20:19.538738 28510 net.cpp:369] relu3 -> ip3 (in-place)
I0430 20:20:19.538889 28510 net.cpp:124] Setting up relu3
I0430 20:20:19.538897 28510 net.cpp:131] Top shape: 111 20 (2220)
I0430 20:20:19.538899 28510 net.cpp:139] Memory required for data: 1595292
I0430 20:20:19.538902 28510 layer_factory.hpp:77] Creating layer ip4
I0430 20:20:19.538909 28510 net.cpp:86] Creating Layer ip4
I0430 20:20:19.538913 28510 net.cpp:408] ip4 <- ip3
I0430 20:20:19.538916 28510 net.cpp:382] ip4 -> ip4
I0430 20:20:19.539011 28510 net.cpp:124] Setting up ip4
I0430 20:20:19.539033 28510 net.cpp:131] Top shape: 111 10 (1110)
I0430 20:20:19.539036 28510 net.cpp:139] Memory required for data: 1599732
I0430 20:20:19.539041 28510 layer_factory.hpp:77] Creating layer loss
I0430 20:20:19.539054 28510 net.cpp:86] Creating Layer loss
I0430 20:20:19.539057 28510 net.cpp:408] loss <- ip4
I0430 20:20:19.539060 28510 net.cpp:408] loss <- label
I0430 20:20:19.539067 28510 net.cpp:382] loss -> loss
I0430 20:20:19.539078 28510 layer_factory.hpp:77] Creating layer loss
…
I0430 20:20:19.539644 28510 solver.cpp:173] Creating test net (#0) specified by net file: ECE595/cifar/train_test/var_everything/cifar_train_test_126.prototxt
I0430 20:20:19.539680 28510 net.cpp:296] The NetState phase (1) differed from the phase (0) specified by a rule in layer cifar
I0430 20:20:19.539750 28510 net.cpp:53] Initializing net from parameters: 
name: "CIFAR"
state {
  phase: TEST
}
layer {
  name: "cifar"
  type: "Data"
  top: "data"
  top: "label"
  include {
    phase: TEST
  }
  transform_param {
    mean_file: "examples/cifar10/mean.binaryproto"
  }
  data_param {
    source: "examples/cifar10/cifar10_test_lmdb"
    batch_size: 1000
    backend: LMDB
  }
}
layer {
  name: "ip1"
  type: "InnerProduct"
  bottom: "data"
  top: "ip1"
  param {
    lr_mult: 1
  }
  param {
    lr_mult: 2
  }
  inner_product_param {
    num_output: 80
    weight_filler {
      type: "gaussian"
      std: 0.01
    }
    bias_filler {
      type: "constant"
    }
  }
}
layer {
  name: "relu1"
  type: "ReLU"
  bottom: "ip1"
  top: "ip1"
}
layer {
  name: "ip2"
  type: "InnerProduct"
  bottom: "ip1"
  top: "ip2"
  param {
    lr_mult: 1
  }
  param {
    lr_mult: 2
  }
  inner_product_param {
    num_output: 160
    weight_filler {
      type: "gaussian"
      std: 0.01
    }
    bias_filler {
      type: "constant"
    }
  }
}
layer {
  name: "relu2"
  type: "ReLU"
  bottom: "ip2"
  top: "ip2"
}
layer {
  name: "ip3"
  type: "InnerProduct"
  bottom: "ip2"
  top: "ip3"
  param {
    lr_mult: 1
  }
  param {
    lr_mult: 2
  }
  inner_product_param {
    num_output: 20
    weight_filler {
      type: "gaussian"
      std: 0.01
    }
    bias_filler {
      type: "constant"
    }
  }
}
layer {
  name: "relu3"
  type: "ReLU"
  bottom: "ip3"
  top: "ip3"
}
layer {
  name: "ip4"
  type: "InnerProduct"
  bottom: "ip3"
  top: "ip4"
  param {
    lr_mult: 1
  }
  param {
    lr_mult: 2
  }
  inner_product_param {
    num_output: 10
    weight_filler {
      type: "gaussian"
      std: 0.01
    }
    bias_filler {
      type: "constant"
    }
  }
}
layer {
  name: "accuracy"
  type: "Accuracy"
  bottom: "ip4"
  bottom: "label"
  top: "accuracy"
  include {
    phase: TEST
  }
}
layer {
  name: "loss"
  type: "SoftmaxWithLoss"
  bottom: "ip4"
  bottom: "label"
  top: "loss"
}
I0430 20:20:19.539811 28510 layer_factory.hpp:77] Creating layer cifar
I0430 20:20:19.539855 28510 db_lmdb.cpp:35] Opened lmdb examples/cifar10/cifar10_test_lmdb
I0430 20:20:19.539866 28510 net.cpp:86] Creating Layer cifar
I0430 20:20:19.539871 28510 net.cpp:382] cifar -> data
I0430 20:20:19.539878 28510 net.cpp:382] cifar -> label
I0430 20:20:19.539885 28510 data_transformer.cpp:25] Loading mean file from: examples/cifar10/mean.binaryproto
I0430 20:20:19.540024 28510 data_layer.cpp:45] output data size: 1000,3,32,32
I0430 20:20:19.563166 28510 net.cpp:124] Setting up cifar
I0430 20:20:19.563230 28510 net.cpp:131] Top shape: 1000 3 32 32 (3072000)
I0430 20:20:19.563237 28510 net.cpp:131] Top shape: 1000 (1000)
I0430 20:20:19.563241 28510 net.cpp:139] Memory required for data: 12292000
I0430 20:20:19.563246 28510 layer_factory.hpp:77] Creating layer label_cifar_1_split
I0430 20:20:19.563263 28510 net.cpp:86] Creating Layer label_cifar_1_split
I0430 20:20:19.563267 28510 net.cpp:408] label_cifar_1_split <- label
I0430 20:20:19.563273 28510 net.cpp:382] label_cifar_1_split -> label_cifar_1_split_0
I0430 20:20:19.563282 28510 net.cpp:382] label_cifar_1_split -> label_cifar_1_split_1
I0430 20:20:19.563355 28510 net.cpp:124] Setting up label_cifar_1_split
I0430 20:20:19.563364 28510 net.cpp:131] Top shape: 1000 (1000)
I0430 20:20:19.563367 28510 net.cpp:131] Top shape: 1000 (1000)
I0430 20:20:19.563369 28510 net.cpp:139] Memory required for data: 12300000
I0430 20:20:19.563387 28510 layer_factory.hpp:77] Creating layer ip1
I0430 20:20:19.563397 28510 net.cpp:86] Creating Layer ip1
I0430 20:20:19.563400 28510 net.cpp:408] ip1 <- data
I0430 20:20:19.563405 28510 net.cpp:382] ip1 -> ip1
I0430 20:20:19.570000 28510 net.cpp:124] Setting up ip1
I0430 20:20:19.570010 28510 net.cpp:131] Top shape: 1000 80 (80000)
I0430 20:20:19.570029 28510 net.cpp:139] Memory required for data: 12620000
I0430 20:20:19.570053 28510 layer_factory.hpp:77] Creating layer relu1
I0430 20:20:19.570060 28510 net.cpp:86] Creating Layer relu1
I0430 20:20:19.570071 28510 net.cpp:408] relu1 <- ip1
I0430 20:20:19.570076 28510 net.cpp:369] relu1 -> ip1 (in-place)
I0430 20:20:19.570878 28510 net.cpp:124] Setting up relu1
I0430 20:20:19.570889 28510 net.cpp:131] Top shape: 1000 80 (80000)
I0430 20:20:19.570909 28510 net.cpp:139] Memory required for data: 12940000
I0430 20:20:19.570912 28510 layer_factory.hpp:77] Creating layer ip2
I0430 20:20:19.570921 28510 net.cpp:86] Creating Layer ip2
I0430 20:20:19.570924 28510 net.cpp:408] ip2 <- ip1
I0430 20:20:19.570930 28510 net.cpp:382] ip2 -> ip2
I0430 20:20:19.571419 28510 net.cpp:124] Setting up ip2
I0430 20:20:19.571426 28510 net.cpp:131] Top shape: 1000 160 (160000)
I0430 20:20:19.571444 28510 net.cpp:139] Memory required for data: 13580000
I0430 20:20:19.571452 28510 layer_factory.hpp:77] Creating layer relu2
I0430 20:20:19.571457 28510 net.cpp:86] Creating Layer relu2
I0430 20:20:19.571460 28510 net.cpp:408] relu2 <- ip2
I0430 20:20:19.571465 28510 net.cpp:369] relu2 -> ip2 (in-place)
I0430 20:20:19.571631 28510 net.cpp:124] Setting up relu2
I0430 20:20:19.571640 28510 net.cpp:131] Top shape: 1000 160 (160000)
I0430 20:20:19.571642 28510 net.cpp:139] Memory required for data: 14220000
I0430 20:20:19.571645 28510 layer_factory.hpp:77] Creating layer ip3
I0430 20:20:19.571652 28510 net.cpp:86] Creating Layer ip3
I0430 20:20:19.571655 28510 net.cpp:408] ip3 <- ip2
I0430 20:20:19.571660 28510 net.cpp:382] ip3 -> ip3
I0430 20:20:19.571858 28510 net.cpp:124] Setting up ip3
I0430 20:20:19.571866 28510 net.cpp:131] Top shape: 1000 20 (20000)
I0430 20:20:19.571869 28510 net.cpp:139] Memory required for data: 14300000
I0430 20:20:19.571877 28510 layer_factory.hpp:77] Creating layer relu3
I0430 20:20:19.571882 28510 net.cpp:86] Creating Layer relu3
I0430 20:20:19.571885 28510 net.cpp:408] relu3 <- ip3
I0430 20:20:19.571890 28510 net.cpp:369] relu3 -> ip3 (in-place)
I0430 20:20:19.572047 28510 net.cpp:124] Setting up relu3
I0430 20:20:19.572057 28510 net.cpp:131] Top shape: 1000 20 (20000)
I0430 20:20:19.572059 28510 net.cpp:139] Memory required for data: 14380000
I0430 20:20:19.572062 28510 layer_factory.hpp:77] Creating layer ip4
I0430 20:20:19.572070 28510 net.cpp:86] Creating Layer ip4
I0430 20:20:19.572073 28510 net.cpp:408] ip4 <- ip3
I0430 20:20:19.572078 28510 net.cpp:382] ip4 -> ip4
I0430 20:20:19.572197 28510 net.cpp:124] Setting up ip4
I0430 20:20:19.572204 28510 net.cpp:131] Top shape: 1000 10 (10000)
I0430 20:20:19.572207 28510 net.cpp:139] Memory required for data: 14420000
I0430 20:20:19.572212 28510 layer_factory.hpp:77] Creating layer ip4_ip4_0_split
I0430 20:20:19.572218 28510 net.cpp:86] Creating Layer ip4_ip4_0_split
I0430 20:20:19.572221 28510 net.cpp:408] ip4_ip4_0_split <- ip4
I0430 20:20:19.572226 28510 net.cpp:382] ip4_ip4_0_split -> ip4_ip4_0_split_0
I0430 20:20:19.572232 28510 net.cpp:382] ip4_ip4_0_split -> ip4_ip4_0_split_1
I0430 20:20:19.572263 28510 net.cpp:124] Setting up ip4_ip4_0_split
I0430 20:20:19.572278 28510 net.cpp:131] Top shape: 1000 10 (10000)
I0430 20:20:19.572281 28510 net.cpp:131] Top shape: 1000 10 (10000)
I0430 20:20:19.572283 28510 net.cpp:139] Memory required for data: 14500000
I0430 20:20:19.572286 28510 layer_factory.hpp:77] Creating layer accuracy
I0430 20:20:19.572293 28510 net.cpp:86] Creating Layer accuracy
I0430 20:20:19.572295 28510 net.cpp:408] accuracy <- ip4_ip4_0_split_0
I0430 20:20:19.572299 28510 net.cpp:408] accuracy <- label_cifar_1_split_0
I0430 20:20:19.572305 28510 net.cpp:382] accuracy -> accuracy
…
