…
I0501 06:23:39.447451 32701 net.cpp:296] The NetState phase (0) differed from the phase (1) specified by a rule in layer cifar
I0501 06:23:39.447470 32701 net.cpp:296] The NetState phase (0) differed from the phase (1) specified by a rule in layer accuracy
I0501 06:23:39.447580 32701 net.cpp:53] Initializing net from parameters: 
name: "CIFAR"
state {
  phase: TRAIN
  level: 0
  stage: ""
}
layer {
  name: "cifar"
  type: "Data"
  top: "data"
  top: "label"
  include {
    phase: TRAIN
  }
  transform_param {
    mean_file: "examples/cifar10/mean.binaryproto"
  }
  data_param {
    source: "examples/cifar10/cifar10_train_lmdb"
    batch_size: 111
    backend: LMDB
  }
}
layer {
  name: "conv0"
  type: "Convolution"
  bottom: "data"
  top: "conv0"
  param {
    lr_mult: 1
  }
  param {
    lr_mult: 2
  }
  convolution_param {
    num_output: 8
    pad: 2
    kernel_size: 5
    stride: 1
    weight_filler {
      type: "gaussian"
      std: 0.01
    }
    bias_filler {
      type: "constant"
    }
  }
}
layer {
  name: "Sigmoid0"
  type: "Sigmoid"
  bottom: "conv0"
  top: "Sigmoid0"
}
layer {
  name: "pool0"
  type: "Pooling"
  bottom: "Sigmoid0"
  top: "pool0"
  pooling_param {
    pool: AVE
    kernel_size: 3
    stride: 2
  }
}
layer {
  name: "ip1"
  type: "InnerProduct"
  bottom: "pool0"
  top: "ip1"
  param {
    lr_mult: 1
  }
  param {
    lr_mult: 2
  }
  inner_product_param {
    num_output: 160
    weight_filler {
      type: "gaussian"
      std: 0.01
    }
    bias_filler {
      type: "constant"
    }
  }
}
layer {
  name: "relu1"
  type: "ReLU"
  bottom: "ip1"
  top: "ip1"
}
layer {
  name: "ip2"
  type: "InnerProduct"
  bottom: "ip1"
  top: "ip2"
  param {
    lr_mult: 1
  }
  param {
    lr_mult: 2
  }
  inner_product_param {
    num_output: 20
    weight_filler {
      type: "gaussian"
      std: 0.01
    }
    bias_filler {
      type: "constant"
    }
  }
}
layer {
  name: "relu2"
  type: "ReLU"
  bottom: "ip2"
  top: "ip2"
}
layer {
  name: "ip3"
  type: "InnerProduct"
  bottom: "ip2"
  top: "ip3"
  param {
    lr_mult: 1
  }
  param {
    lr_mult: 2
  }
  inner_product_param {
    num_output: 160
    weight_filler {
      type: "gaussian"
      std: 0.01
    }
    bias_filler {
      type: "constant"
    }
  }
}
layer {
  name: "relu3"
  type: "ReLU"
  bottom: "ip3"
  top: "ip3"
}
layer {
  name: "ip4"
  type: "InnerProduct"
  bottom: "ip3"
  top: "ip4"
  param {
    lr_mult: 1
  }
  param {
    lr_mult: 2
  }
  inner_product_param {
    num_output: 10
    weight_filler {
      type: "gaussian"
      std: 0.01
    }
    bias_filler {
      type: "constant"
    }
  }
}
layer {
  name: "loss"
  type: "SoftmaxWithLoss"
  bottom: "ip4"
  bottom: "label"
  top: "loss"
}
I0501 06:23:39.447659 32701 layer_factory.hpp:77] Creating layer cifar
I0501 06:23:39.447759 32701 db_lmdb.cpp:35] Opened lmdb examples/cifar10/cifar10_train_lmdb
I0501 06:23:39.447788 32701 net.cpp:86] Creating Layer cifar
I0501 06:23:39.447796 32701 net.cpp:382] cifar -> data
I0501 06:23:39.447823 32701 net.cpp:382] cifar -> label
I0501 06:23:39.447839 32701 data_transformer.cpp:25] Loading mean file from: examples/cifar10/mean.binaryproto
I0501 06:23:39.450011 32701 data_layer.cpp:45] output data size: 111,3,32,32
I0501 06:23:39.458164 32701 net.cpp:124] Setting up cifar
I0501 06:23:39.458184 32701 net.cpp:131] Top shape: 111 3 32 32 (340992)
I0501 06:23:39.458192 32701 net.cpp:131] Top shape: 111 (111)
I0501 06:23:39.458196 32701 net.cpp:139] Memory required for data: 1364412
I0501 06:23:39.458220 32701 layer_factory.hpp:77] Creating layer conv0
I0501 06:23:39.458238 32701 net.cpp:86] Creating Layer conv0
I0501 06:23:39.458243 32701 net.cpp:408] conv0 <- data
I0501 06:23:39.458257 32701 net.cpp:382] conv0 -> conv0
I0501 06:23:39.742636 32701 net.cpp:124] Setting up conv0
I0501 06:23:39.742664 32701 net.cpp:131] Top shape: 111 8 32 32 (909312)
I0501 06:23:39.742668 32701 net.cpp:139] Memory required for data: 5001660
I0501 06:23:39.742683 32701 layer_factory.hpp:77] Creating layer Sigmoid0
I0501 06:23:39.742697 32701 net.cpp:86] Creating Layer Sigmoid0
I0501 06:23:39.742700 32701 net.cpp:408] Sigmoid0 <- conv0
I0501 06:23:39.742705 32701 net.cpp:382] Sigmoid0 -> Sigmoid0
I0501 06:23:39.742874 32701 net.cpp:124] Setting up Sigmoid0
I0501 06:23:39.742884 32701 net.cpp:131] Top shape: 111 8 32 32 (909312)
I0501 06:23:39.742888 32701 net.cpp:139] Memory required for data: 8638908
I0501 06:23:39.742892 32701 layer_factory.hpp:77] Creating layer pool0
I0501 06:23:39.742897 32701 net.cpp:86] Creating Layer pool0
I0501 06:23:39.742902 32701 net.cpp:408] pool0 <- Sigmoid0
I0501 06:23:39.742905 32701 net.cpp:382] pool0 -> pool0
I0501 06:23:39.743634 32701 net.cpp:124] Setting up pool0
I0501 06:23:39.743649 32701 net.cpp:131] Top shape: 111 8 16 16 (227328)
I0501 06:23:39.743651 32701 net.cpp:139] Memory required for data: 9548220
I0501 06:23:39.743655 32701 layer_factory.hpp:77] Creating layer ip1
I0501 06:23:39.743664 32701 net.cpp:86] Creating Layer ip1
I0501 06:23:39.743667 32701 net.cpp:408] ip1 <- pool0
I0501 06:23:39.743672 32701 net.cpp:382] ip1 -> ip1
I0501 06:23:39.753228 32701 net.cpp:124] Setting up ip1
I0501 06:23:39.753240 32701 net.cpp:131] Top shape: 111 160 (17760)
I0501 06:23:39.753243 32701 net.cpp:139] Memory required for data: 9619260
I0501 06:23:39.753252 32701 layer_factory.hpp:77] Creating layer relu1
I0501 06:23:39.753257 32701 net.cpp:86] Creating Layer relu1
I0501 06:23:39.753262 32701 net.cpp:408] relu1 <- ip1
I0501 06:23:39.753267 32701 net.cpp:369] relu1 -> ip1 (in-place)
I0501 06:23:39.753415 32701 net.cpp:124] Setting up relu1
I0501 06:23:39.753423 32701 net.cpp:131] Top shape: 111 160 (17760)
I0501 06:23:39.753427 32701 net.cpp:139] Memory required for data: 9690300
I0501 06:23:39.753429 32701 layer_factory.hpp:77] Creating layer ip2
I0501 06:23:39.753437 32701 net.cpp:86] Creating Layer ip2
I0501 06:23:39.753439 32701 net.cpp:408] ip2 <- ip1
I0501 06:23:39.753443 32701 net.cpp:382] ip2 -> ip2
I0501 06:23:39.753613 32701 net.cpp:124] Setting up ip2
I0501 06:23:39.753620 32701 net.cpp:131] Top shape: 111 20 (2220)
I0501 06:23:39.753623 32701 net.cpp:139] Memory required for data: 9699180
I0501 06:23:39.753630 32701 layer_factory.hpp:77] Creating layer relu2
I0501 06:23:39.753635 32701 net.cpp:86] Creating Layer relu2
I0501 06:23:39.753641 32701 net.cpp:408] relu2 <- ip2
I0501 06:23:39.753645 32701 net.cpp:369] relu2 -> ip2 (in-place)
I0501 06:23:39.753789 32701 net.cpp:124] Setting up relu2
I0501 06:23:39.753796 32701 net.cpp:131] Top shape: 111 20 (2220)
I0501 06:23:39.753799 32701 net.cpp:139] Memory required for data: 9708060
I0501 06:23:39.753803 32701 layer_factory.hpp:77] Creating layer ip3
I0501 06:23:39.753809 32701 net.cpp:86] Creating Layer ip3
I0501 06:23:39.753813 32701 net.cpp:408] ip3 <- ip2
I0501 06:23:39.753818 32701 net.cpp:382] ip3 -> ip3
I0501 06:23:39.753980 32701 net.cpp:124] Setting up ip3
I0501 06:23:39.753988 32701 net.cpp:131] Top shape: 111 160 (17760)
I0501 06:23:39.753990 32701 net.cpp:139] Memory required for data: 9779100
I0501 06:23:39.753995 32701 layer_factory.hpp:77] Creating layer relu3
I0501 06:23:39.754000 32701 net.cpp:86] Creating Layer relu3
I0501 06:23:39.754004 32701 net.cpp:408] relu3 <- ip3
I0501 06:23:39.754006 32701 net.cpp:369] relu3 -> ip3 (in-place)
I0501 06:23:39.754143 32701 net.cpp:124] Setting up relu3
I0501 06:23:39.754150 32701 net.cpp:131] Top shape: 111 160 (17760)
I0501 06:23:39.754153 32701 net.cpp:139] Memory required for data: 9850140
I0501 06:23:39.754156 32701 layer_factory.hpp:77] Creating layer ip4
I0501 06:23:39.754189 32701 net.cpp:86] Creating Layer ip4
I0501 06:23:39.754191 32701 net.cpp:408] ip4 <- ip3
I0501 06:23:39.754196 32701 net.cpp:382] ip4 -> ip4
I0501 06:23:39.754323 32701 net.cpp:124] Setting up ip4
I0501 06:23:39.754329 32701 net.cpp:131] Top shape: 111 10 (1110)
I0501 06:23:39.754333 32701 net.cpp:139] Memory required for data: 9854580
I0501 06:23:39.754339 32701 layer_factory.hpp:77] Creating layer loss
I0501 06:23:39.754345 32701 net.cpp:86] Creating Layer loss
I0501 06:23:39.754349 32701 net.cpp:408] loss <- ip4
I0501 06:23:39.754354 32701 net.cpp:408] loss <- label
I0501 06:23:39.754359 32701 net.cpp:382] loss -> loss
I0501 06:23:39.754375 32701 layer_factory.hpp:77] Creating layer loss
…
I0501 06:23:39.755568 32701 solver.cpp:173] Creating test net (#0) specified by net file: ECE595/cifar/train_test/var_everything/cifar_train_test_449.prototxt
I0501 06:23:39.755625 32701 net.cpp:296] The NetState phase (1) differed from the phase (0) specified by a rule in layer cifar
I0501 06:23:39.755715 32701 net.cpp:53] Initializing net from parameters: 
name: "CIFAR"
state {
  phase: TEST
}
layer {
  name: "cifar"
  type: "Data"
  top: "data"
  top: "label"
  include {
    phase: TEST
  }
  transform_param {
    mean_file: "examples/cifar10/mean.binaryproto"
  }
  data_param {
    source: "examples/cifar10/cifar10_test_lmdb"
    batch_size: 1000
    backend: LMDB
  }
}
layer {
  name: "conv0"
  type: "Convolution"
  bottom: "data"
  top: "conv0"
  param {
    lr_mult: 1
  }
  param {
    lr_mult: 2
  }
  convolution_param {
    num_output: 8
    pad: 2
    kernel_size: 5
    stride: 1
    weight_filler {
      type: "gaussian"
      std: 0.01
    }
    bias_filler {
      type: "constant"
    }
  }
}
layer {
  name: "Sigmoid0"
  type: "Sigmoid"
  bottom: "conv0"
  top: "Sigmoid0"
}
layer {
  name: "pool0"
  type: "Pooling"
  bottom: "Sigmoid0"
  top: "pool0"
  pooling_param {
    pool: AVE
    kernel_size: 3
    stride: 2
  }
}
layer {
  name: "ip1"
  type: "InnerProduct"
  bottom: "pool0"
  top: "ip1"
  param {
    lr_mult: 1
  }
  param {
    lr_mult: 2
  }
  inner_product_param {
    num_output: 160
    weight_filler {
      type: "gaussian"
      std: 0.01
    }
    bias_filler {
      type: "constant"
    }
  }
}
layer {
  name: "relu1"
  type: "ReLU"
  bottom: "ip1"
  top: "ip1"
}
layer {
  name: "ip2"
  type: "InnerProduct"
  bottom: "ip1"
  top: "ip2"
  param {
    lr_mult: 1
  }
  param {
    lr_mult: 2
  }
  inner_product_param {
    num_output: 20
    weight_filler {
      type: "gaussian"
      std: 0.01
    }
    bias_filler {
      type: "constant"
    }
  }
}
layer {
  name: "relu2"
  type: "ReLU"
  bottom: "ip2"
  top: "ip2"
}
layer {
  name: "ip3"
  type: "InnerProduct"
  bottom: "ip2"
  top: "ip3"
  param {
    lr_mult: 1
  }
  param {
    lr_mult: 2
  }
  inner_product_param {
    num_output: 160
    weight_filler {
      type: "gaussian"
      std: 0.01
    }
    bias_filler {
      type: "constant"
    }
  }
}
layer {
  name: "relu3"
  type: "ReLU"
  bottom: "ip3"
  top: "ip3"
}
layer {
  name: "ip4"
  type: "InnerProduct"
  bottom: "ip3"
  top: "ip4"
  param {
    lr_mult: 1
  }
  param {
    lr_mult: 2
  }
  inner_product_param {
    num_output: 10
    weight_filler {
      type: "gaussian"
      std: 0.01
    }
    bias_filler {
      type: "constant"
    }
  }
}
layer {
  name: "accuracy"
  type: "Accuracy"
  bottom: "ip4"
  bottom: "label"
  top: "accuracy"
  include {
    phase: TEST
  }
}
layer {
  name: "loss"
  type: "SoftmaxWithLoss"
  bottom: "ip4"
  bottom: "label"
  top: "loss"
}
I0501 06:23:39.755790 32701 layer_factory.hpp:77] Creating layer cifar
I0501 06:23:39.755833 32701 db_lmdb.cpp:35] Opened lmdb examples/cifar10/cifar10_test_lmdb
I0501 06:23:39.755846 32701 net.cpp:86] Creating Layer cifar
I0501 06:23:39.755849 32701 net.cpp:382] cifar -> data
I0501 06:23:39.755857 32701 net.cpp:382] cifar -> label
I0501 06:23:39.755863 32701 data_transformer.cpp:25] Loading mean file from: examples/cifar10/mean.binaryproto
I0501 06:23:39.755996 32701 data_layer.cpp:45] output data size: 1000,3,32,32
I0501 06:23:39.777639 32701 net.cpp:124] Setting up cifar
I0501 06:23:39.777681 32701 net.cpp:131] Top shape: 1000 3 32 32 (3072000)
I0501 06:23:39.777688 32701 net.cpp:131] Top shape: 1000 (1000)
I0501 06:23:39.777690 32701 net.cpp:139] Memory required for data: 12292000
I0501 06:23:39.777696 32701 layer_factory.hpp:77] Creating layer label_cifar_1_split
I0501 06:23:39.777724 32701 net.cpp:86] Creating Layer label_cifar_1_split
I0501 06:23:39.777727 32701 net.cpp:408] label_cifar_1_split <- label
I0501 06:23:39.777734 32701 net.cpp:382] label_cifar_1_split -> label_cifar_1_split_0
I0501 06:23:39.777742 32701 net.cpp:382] label_cifar_1_split -> label_cifar_1_split_1
I0501 06:23:39.777855 32701 net.cpp:124] Setting up label_cifar_1_split
I0501 06:23:39.777863 32701 net.cpp:131] Top shape: 1000 (1000)
I0501 06:23:39.777866 32701 net.cpp:131] Top shape: 1000 (1000)
I0501 06:23:39.777869 32701 net.cpp:139] Memory required for data: 12300000
I0501 06:23:39.777871 32701 layer_factory.hpp:77] Creating layer conv0
I0501 06:23:39.777884 32701 net.cpp:86] Creating Layer conv0
I0501 06:23:39.777889 32701 net.cpp:408] conv0 <- data
I0501 06:23:39.777894 32701 net.cpp:382] conv0 -> conv0
I0501 06:23:39.779347 32701 net.cpp:124] Setting up conv0
I0501 06:23:39.779376 32701 net.cpp:131] Top shape: 1000 8 32 32 (8192000)
I0501 06:23:39.779381 32701 net.cpp:139] Memory required for data: 45068000
I0501 06:23:39.779391 32701 layer_factory.hpp:77] Creating layer Sigmoid0
I0501 06:23:39.779413 32701 net.cpp:86] Creating Layer Sigmoid0
I0501 06:23:39.779417 32701 net.cpp:408] Sigmoid0 <- conv0
I0501 06:23:39.779422 32701 net.cpp:382] Sigmoid0 -> Sigmoid0
I0501 06:23:39.780580 32701 net.cpp:124] Setting up Sigmoid0
I0501 06:23:39.780589 32701 net.cpp:131] Top shape: 1000 8 32 32 (8192000)
I0501 06:23:39.780608 32701 net.cpp:139] Memory required for data: 77836000
I0501 06:23:39.780612 32701 layer_factory.hpp:77] Creating layer pool0
I0501 06:23:39.780620 32701 net.cpp:86] Creating Layer pool0
I0501 06:23:39.780623 32701 net.cpp:408] pool0 <- Sigmoid0
I0501 06:23:39.780627 32701 net.cpp:382] pool0 -> pool0
I0501 06:23:39.780800 32701 net.cpp:124] Setting up pool0
I0501 06:23:39.780808 32701 net.cpp:131] Top shape: 1000 8 16 16 (2048000)
I0501 06:23:39.780833 32701 net.cpp:139] Memory required for data: 86028000
I0501 06:23:39.780836 32701 layer_factory.hpp:77] Creating layer ip1
I0501 06:23:39.780859 32701 net.cpp:86] Creating Layer ip1
I0501 06:23:39.780863 32701 net.cpp:408] ip1 <- pool0
I0501 06:23:39.780867 32701 net.cpp:382] ip1 -> ip1
I0501 06:23:39.789948 32701 net.cpp:124] Setting up ip1
I0501 06:23:39.789961 32701 net.cpp:131] Top shape: 1000 160 (160000)
I0501 06:23:39.789981 32701 net.cpp:139] Memory required for data: 86668000
I0501 06:23:39.790019 32701 layer_factory.hpp:77] Creating layer relu1
I0501 06:23:39.790025 32701 net.cpp:86] Creating Layer relu1
I0501 06:23:39.790029 32701 net.cpp:408] relu1 <- ip1
I0501 06:23:39.790033 32701 net.cpp:369] relu1 -> ip1 (in-place)
I0501 06:23:39.790194 32701 net.cpp:124] Setting up relu1
I0501 06:23:39.790204 32701 net.cpp:131] Top shape: 1000 160 (160000)
I0501 06:23:39.790207 32701 net.cpp:139] Memory required for data: 87308000
I0501 06:23:39.790210 32701 layer_factory.hpp:77] Creating layer ip2
I0501 06:23:39.790217 32701 net.cpp:86] Creating Layer ip2
I0501 06:23:39.790220 32701 net.cpp:408] ip2 <- ip1
I0501 06:23:39.790225 32701 net.cpp:382] ip2 -> ip2
I0501 06:23:39.790410 32701 net.cpp:124] Setting up ip2
I0501 06:23:39.790417 32701 net.cpp:131] Top shape: 1000 20 (20000)
I0501 06:23:39.790421 32701 net.cpp:139] Memory required for data: 87388000
I0501 06:23:39.790428 32701 layer_factory.hpp:77] Creating layer relu2
I0501 06:23:39.790433 32701 net.cpp:86] Creating Layer relu2
I0501 06:23:39.790437 32701 net.cpp:408] relu2 <- ip2
I0501 06:23:39.790441 32701 net.cpp:369] relu2 -> ip2 (in-place)
I0501 06:23:39.791163 32701 net.cpp:124] Setting up relu2
I0501 06:23:39.791174 32701 net.cpp:131] Top shape: 1000 20 (20000)
I0501 06:23:39.791194 32701 net.cpp:139] Memory required for data: 87468000
I0501 06:23:39.791198 32701 layer_factory.hpp:77] Creating layer ip3
I0501 06:23:39.791204 32701 net.cpp:86] Creating Layer ip3
I0501 06:23:39.791208 32701 net.cpp:408] ip3 <- ip2
I0501 06:23:39.791229 32701 net.cpp:382] ip3 -> ip3
I0501 06:23:39.791409 32701 net.cpp:124] Setting up ip3
I0501 06:23:39.791416 32701 net.cpp:131] Top shape: 1000 160 (160000)
I0501 06:23:39.791420 32701 net.cpp:139] Memory required for data: 88108000
I0501 06:23:39.791426 32701 layer_factory.hpp:77] Creating layer relu3
I0501 06:23:39.791431 32701 net.cpp:86] Creating Layer relu3
I0501 06:23:39.791435 32701 net.cpp:408] relu3 <- ip3
I0501 06:23:39.791438 32701 net.cpp:369] relu3 -> ip3 (in-place)
I0501 06:23:39.791581 32701 net.cpp:124] Setting up relu3
I0501 06:23:39.791589 32701 net.cpp:131] Top shape: 1000 160 (160000)
I0501 06:23:39.791592 32701 net.cpp:139] Memory required for data: 88748000
I0501 06:23:39.791595 32701 layer_factory.hpp:77] Creating layer ip4
I0501 06:23:39.791601 32701 net.cpp:86] Creating Layer ip4
I0501 06:23:39.791604 32701 net.cpp:408] ip4 <- ip3
I0501 06:23:39.791610 32701 net.cpp:382] ip4 -> ip4
I0501 06:23:39.791743 32701 net.cpp:124] Setting up ip4
I0501 06:23:39.791749 32701 net.cpp:131] Top shape: 1000 10 (10000)
I0501 06:23:39.791754 32701 net.cpp:139] Memory required for data: 88788000
I0501 06:23:39.791760 32701 layer_factory.hpp:77] Creating layer ip4_ip4_0_split
I0501 06:23:39.791766 32701 net.cpp:86] Creating Layer ip4_ip4_0_split
I0501 06:23:39.791771 32701 net.cpp:408] ip4_ip4_0_split <- ip4
I0501 06:23:39.791776 32701 net.cpp:382] ip4_ip4_0_split -> ip4_ip4_0_split_0
I0501 06:23:39.791781 32701 net.cpp:382] ip4_ip4_0_split -> ip4_ip4_0_split_1
I0501 06:23:39.791811 32701 net.cpp:124] Setting up ip4_ip4_0_split
I0501 06:23:39.791816 32701 net.cpp:131] Top shape: 1000 10 (10000)
I0501 06:23:39.791821 32701 net.cpp:131] Top shape: 1000 10 (10000)
I0501 06:23:39.791823 32701 net.cpp:139] Memory required for data: 88868000
I0501 06:23:39.791826 32701 layer_factory.hpp:77] Creating layer accuracy
I0501 06:23:39.791831 32701 net.cpp:86] Creating Layer accuracy
I0501 06:23:39.791834 32701 net.cpp:408] accuracy <- ip4_ip4_0_split_0
I0501 06:23:39.791838 32701 net.cpp:408] accuracy <- label_cifar_1_split_0
I0501 06:23:39.791842 32701 net.cpp:382] accuracy -> accuracy
…
