…
I0501 05:57:46.739799 31043 net.cpp:296] The NetState phase (0) differed from the phase (1) specified by a rule in layer cifar
I0501 05:57:46.739814 31043 net.cpp:296] The NetState phase (0) differed from the phase (1) specified by a rule in layer accuracy
I0501 05:57:46.739890 31043 net.cpp:53] Initializing net from parameters: 
name: "CIFAR"
state {
  phase: TRAIN
  level: 0
  stage: ""
}
layer {
  name: "cifar"
  type: "Data"
  top: "data"
  top: "label"
  include {
    phase: TRAIN
  }
  transform_param {
    mean_file: "examples/cifar10/mean.binaryproto"
  }
  data_param {
    source: "examples/cifar10/cifar10_train_lmdb"
    batch_size: 111
    backend: LMDB
  }
}
layer {
  name: "conv0"
  type: "Convolution"
  bottom: "data"
  top: "conv0"
  param {
    lr_mult: 1
  }
  param {
    lr_mult: 2
  }
  convolution_param {
    num_output: 8
    pad: 2
    kernel_size: 5
    stride: 1
    weight_filler {
      type: "gaussian"
      std: 0.01
    }
    bias_filler {
      type: "constant"
    }
  }
}
layer {
  name: "Sigmoid0"
  type: "Sigmoid"
  bottom: "conv0"
  top: "Sigmoid0"
}
layer {
  name: "pool0"
  type: "Pooling"
  bottom: "Sigmoid0"
  top: "pool0"
  pooling_param {
    pool: AVE
    kernel_size: 3
    stride: 2
  }
}
layer {
  name: "ip1"
  type: "InnerProduct"
  bottom: "pool0"
  top: "ip1"
  param {
    lr_mult: 1
  }
  param {
    lr_mult: 2
  }
  inner_product_param {
    num_output: 80
    weight_filler {
      type: "gaussian"
      std: 0.01
    }
    bias_filler {
      type: "constant"
    }
  }
}
layer {
  name: "relu1"
  type: "ReLU"
  bottom: "ip1"
  top: "ip1"
}
layer {
  name: "ip2"
  type: "InnerProduct"
  bottom: "ip1"
  top: "ip2"
  param {
    lr_mult: 1
  }
  param {
    lr_mult: 2
  }
  inner_product_param {
    num_output: 160
    weight_filler {
      type: "gaussian"
      std: 0.01
    }
    bias_filler {
      type: "constant"
    }
  }
}
layer {
  name: "relu2"
  type: "ReLU"
  bottom: "ip2"
  top: "ip2"
}
layer {
  name: "ip3"
  type: "InnerProduct"
  bottom: "ip2"
  top: "ip3"
  param {
    lr_mult: 1
  }
  param {
    lr_mult: 2
  }
  inner_product_param {
    num_output: 10
    weight_filler {
      type: "gaussian"
      std: 0.01
    }
    bias_filler {
      type: "constant"
    }
  }
}
layer {
  name: "relu3"
  type: "ReLU"
  bottom: "ip3"
  top: "ip3"
}
layer {
  name: "ip4"
  type: "InnerProduct"
  bottom: "ip3"
  top: "ip4"
  param {
    lr_mult: 1
  }
  param {
    lr_mult: 2
  }
  inner_product_param {
    num_output: 10
    weight_filler {
      type: "gaussian"
      std: 0.01
    }
    bias_filler {
      type: "constant"
    }
  }
}
layer {
  name: "loss"
  type: "SoftmaxWithLoss"
  bottom: "ip4"
  bottom: "label"
  top: "loss"
}
I0501 05:57:46.739948 31043 layer_factory.hpp:77] Creating layer cifar
I0501 05:57:46.740031 31043 db_lmdb.cpp:35] Opened lmdb examples/cifar10/cifar10_train_lmdb
I0501 05:57:46.740052 31043 net.cpp:86] Creating Layer cifar
I0501 05:57:46.740058 31043 net.cpp:382] cifar -> data
I0501 05:57:46.740077 31043 net.cpp:382] cifar -> label
I0501 05:57:46.740087 31043 data_transformer.cpp:25] Loading mean file from: examples/cifar10/mean.binaryproto
I0501 05:57:46.741847 31043 data_layer.cpp:45] output data size: 111,3,32,32
I0501 05:57:46.748240 31043 net.cpp:124] Setting up cifar
I0501 05:57:46.748256 31043 net.cpp:131] Top shape: 111 3 32 32 (340992)
I0501 05:57:46.748261 31043 net.cpp:131] Top shape: 111 (111)
I0501 05:57:46.748265 31043 net.cpp:139] Memory required for data: 1364412
I0501 05:57:46.748284 31043 layer_factory.hpp:77] Creating layer conv0
I0501 05:57:46.748299 31043 net.cpp:86] Creating Layer conv0
I0501 05:57:46.748304 31043 net.cpp:408] conv0 <- data
I0501 05:57:46.748313 31043 net.cpp:382] conv0 -> conv0
I0501 05:57:46.980862 31043 net.cpp:124] Setting up conv0
I0501 05:57:46.980890 31043 net.cpp:131] Top shape: 111 8 32 32 (909312)
I0501 05:57:46.980893 31043 net.cpp:139] Memory required for data: 5001660
I0501 05:57:46.980908 31043 layer_factory.hpp:77] Creating layer Sigmoid0
I0501 05:57:46.980921 31043 net.cpp:86] Creating Layer Sigmoid0
I0501 05:57:46.980928 31043 net.cpp:408] Sigmoid0 <- conv0
I0501 05:57:46.980948 31043 net.cpp:382] Sigmoid0 -> Sigmoid0
I0501 05:57:46.981147 31043 net.cpp:124] Setting up Sigmoid0
I0501 05:57:46.981155 31043 net.cpp:131] Top shape: 111 8 32 32 (909312)
I0501 05:57:46.981158 31043 net.cpp:139] Memory required for data: 8638908
I0501 05:57:46.981161 31043 layer_factory.hpp:77] Creating layer pool0
I0501 05:57:46.981168 31043 net.cpp:86] Creating Layer pool0
I0501 05:57:46.981171 31043 net.cpp:408] pool0 <- Sigmoid0
I0501 05:57:46.981176 31043 net.cpp:382] pool0 -> pool0
I0501 05:57:46.981931 31043 net.cpp:124] Setting up pool0
I0501 05:57:46.981943 31043 net.cpp:131] Top shape: 111 8 16 16 (227328)
I0501 05:57:46.981962 31043 net.cpp:139] Memory required for data: 9548220
I0501 05:57:46.981966 31043 layer_factory.hpp:77] Creating layer ip1
I0501 05:57:46.981974 31043 net.cpp:86] Creating Layer ip1
I0501 05:57:46.981977 31043 net.cpp:408] ip1 <- pool0
I0501 05:57:46.981982 31043 net.cpp:382] ip1 -> ip1
I0501 05:57:46.986374 31043 net.cpp:124] Setting up ip1
I0501 05:57:46.986383 31043 net.cpp:131] Top shape: 111 80 (8880)
I0501 05:57:46.986402 31043 net.cpp:139] Memory required for data: 9583740
I0501 05:57:46.986409 31043 layer_factory.hpp:77] Creating layer relu1
I0501 05:57:46.986414 31043 net.cpp:86] Creating Layer relu1
I0501 05:57:46.986418 31043 net.cpp:408] relu1 <- ip1
I0501 05:57:46.986421 31043 net.cpp:369] relu1 -> ip1 (in-place)
I0501 05:57:46.986582 31043 net.cpp:124] Setting up relu1
I0501 05:57:46.986590 31043 net.cpp:131] Top shape: 111 80 (8880)
I0501 05:57:46.986593 31043 net.cpp:139] Memory required for data: 9619260
I0501 05:57:46.986596 31043 layer_factory.hpp:77] Creating layer ip2
I0501 05:57:46.986603 31043 net.cpp:86] Creating Layer ip2
I0501 05:57:46.986605 31043 net.cpp:408] ip2 <- ip1
I0501 05:57:46.986609 31043 net.cpp:382] ip2 -> ip2
I0501 05:57:46.987865 31043 net.cpp:124] Setting up ip2
I0501 05:57:46.987877 31043 net.cpp:131] Top shape: 111 160 (17760)
I0501 05:57:46.987895 31043 net.cpp:139] Memory required for data: 9690300
I0501 05:57:46.987903 31043 layer_factory.hpp:77] Creating layer relu2
I0501 05:57:46.987908 31043 net.cpp:86] Creating Layer relu2
I0501 05:57:46.987912 31043 net.cpp:408] relu2 <- ip2
I0501 05:57:46.987916 31043 net.cpp:369] relu2 -> ip2 (in-place)
I0501 05:57:46.988083 31043 net.cpp:124] Setting up relu2
I0501 05:57:46.988091 31043 net.cpp:131] Top shape: 111 160 (17760)
I0501 05:57:46.988095 31043 net.cpp:139] Memory required for data: 9761340
I0501 05:57:46.988097 31043 layer_factory.hpp:77] Creating layer ip3
I0501 05:57:46.988106 31043 net.cpp:86] Creating Layer ip3
I0501 05:57:46.988108 31043 net.cpp:408] ip3 <- ip2
I0501 05:57:46.988112 31043 net.cpp:382] ip3 -> ip3
I0501 05:57:46.988239 31043 net.cpp:124] Setting up ip3
I0501 05:57:46.988245 31043 net.cpp:131] Top shape: 111 10 (1110)
I0501 05:57:46.988248 31043 net.cpp:139] Memory required for data: 9765780
I0501 05:57:46.988255 31043 layer_factory.hpp:77] Creating layer relu3
I0501 05:57:46.988258 31043 net.cpp:86] Creating Layer relu3
I0501 05:57:46.988265 31043 net.cpp:408] relu3 <- ip3
I0501 05:57:46.988282 31043 net.cpp:369] relu3 -> ip3 (in-place)
I0501 05:57:46.988425 31043 net.cpp:124] Setting up relu3
I0501 05:57:46.988433 31043 net.cpp:131] Top shape: 111 10 (1110)
I0501 05:57:46.988436 31043 net.cpp:139] Memory required for data: 9770220
I0501 05:57:46.988440 31043 layer_factory.hpp:77] Creating layer ip4
I0501 05:57:46.988461 31043 net.cpp:86] Creating Layer ip4
I0501 05:57:46.988463 31043 net.cpp:408] ip4 <- ip3
I0501 05:57:46.988468 31043 net.cpp:382] ip4 -> ip4
I0501 05:57:46.988575 31043 net.cpp:124] Setting up ip4
I0501 05:57:46.988584 31043 net.cpp:131] Top shape: 111 10 (1110)
I0501 05:57:46.988586 31043 net.cpp:139] Memory required for data: 9774660
I0501 05:57:46.988593 31043 layer_factory.hpp:77] Creating layer loss
I0501 05:57:46.988600 31043 net.cpp:86] Creating Layer loss
I0501 05:57:46.988602 31043 net.cpp:408] loss <- ip4
I0501 05:57:46.988605 31043 net.cpp:408] loss <- label
I0501 05:57:46.988610 31043 net.cpp:382] loss -> loss
I0501 05:57:46.988639 31043 layer_factory.hpp:77] Creating layer loss
…
I0501 05:57:46.989917 31043 solver.cpp:173] Creating test net (#0) specified by net file: ECE595/cifar/train_test/var_everything/cifar_train_test_435.prototxt
I0501 05:57:46.989944 31043 net.cpp:296] The NetState phase (1) differed from the phase (0) specified by a rule in layer cifar
I0501 05:57:46.990054 31043 net.cpp:53] Initializing net from parameters: 
name: "CIFAR"
state {
  phase: TEST
}
layer {
  name: "cifar"
  type: "Data"
  top: "data"
  top: "label"
  include {
    phase: TEST
  }
  transform_param {
    mean_file: "examples/cifar10/mean.binaryproto"
  }
  data_param {
    source: "examples/cifar10/cifar10_test_lmdb"
    batch_size: 1000
    backend: LMDB
  }
}
layer {
  name: "conv0"
  type: "Convolution"
  bottom: "data"
  top: "conv0"
  param {
    lr_mult: 1
  }
  param {
    lr_mult: 2
  }
  convolution_param {
    num_output: 8
    pad: 2
    kernel_size: 5
    stride: 1
    weight_filler {
      type: "gaussian"
      std: 0.01
    }
    bias_filler {
      type: "constant"
    }
  }
}
layer {
  name: "Sigmoid0"
  type: "Sigmoid"
  bottom: "conv0"
  top: "Sigmoid0"
}
layer {
  name: "pool0"
  type: "Pooling"
  bottom: "Sigmoid0"
  top: "pool0"
  pooling_param {
    pool: AVE
    kernel_size: 3
    stride: 2
  }
}
layer {
  name: "ip1"
  type: "InnerProduct"
  bottom: "pool0"
  top: "ip1"
  param {
    lr_mult: 1
  }
  param {
    lr_mult: 2
  }
  inner_product_param {
    num_output: 80
    weight_filler {
      type: "gaussian"
      std: 0.01
    }
    bias_filler {
      type: "constant"
    }
  }
}
layer {
  name: "relu1"
  type: "ReLU"
  bottom: "ip1"
  top: "ip1"
}
layer {
  name: "ip2"
  type: "InnerProduct"
  bottom: "ip1"
  top: "ip2"
  param {
    lr_mult: 1
  }
  param {
    lr_mult: 2
  }
  inner_product_param {
    num_output: 160
    weight_filler {
      type: "gaussian"
      std: 0.01
    }
    bias_filler {
      type: "constant"
    }
  }
}
layer {
  name: "relu2"
  type: "ReLU"
  bottom: "ip2"
  top: "ip2"
}
layer {
  name: "ip3"
  type: "InnerProduct"
  bottom: "ip2"
  top: "ip3"
  param {
    lr_mult: 1
  }
  param {
    lr_mult: 2
  }
  inner_product_param {
    num_output: 10
    weight_filler {
      type: "gaussian"
      std: 0.01
    }
    bias_filler {
      type: "constant"
    }
  }
}
layer {
  name: "relu3"
  type: "ReLU"
  bottom: "ip3"
  top: "ip3"
}
layer {
  name: "ip4"
  type: "InnerProduct"
  bottom: "ip3"
  top: "ip4"
  param {
    lr_mult: 1
  }
  param {
    lr_mult: 2
  }
  inner_product_param {
    num_output: 10
    weight_filler {
      type: "gaussian"
      std: 0.01
    }
    bias_filler {
      type: "constant"
    }
  }
}
layer {
  name: "accuracy"
  type: "Accuracy"
  bottom: "ip4"
  bottom: "label"
  top: "accuracy"
  include {
    phase: TEST
  }
}
layer {
  name: "loss"
  type: "SoftmaxWithLoss"
  bottom: "ip4"
  bottom: "label"
  top: "loss"
}
I0501 05:57:46.990131 31043 layer_factory.hpp:77] Creating layer cifar
I0501 05:57:46.990175 31043 db_lmdb.cpp:35] Opened lmdb examples/cifar10/cifar10_test_lmdb
I0501 05:57:46.990187 31043 net.cpp:86] Creating Layer cifar
I0501 05:57:46.990192 31043 net.cpp:382] cifar -> data
I0501 05:57:46.990200 31043 net.cpp:382] cifar -> label
I0501 05:57:46.990206 31043 data_transformer.cpp:25] Loading mean file from: examples/cifar10/mean.binaryproto
I0501 05:57:46.990341 31043 data_layer.cpp:45] output data size: 1000,3,32,32
I0501 05:57:47.012513 31043 net.cpp:124] Setting up cifar
I0501 05:57:47.012554 31043 net.cpp:131] Top shape: 1000 3 32 32 (3072000)
I0501 05:57:47.012562 31043 net.cpp:131] Top shape: 1000 (1000)
I0501 05:57:47.012564 31043 net.cpp:139] Memory required for data: 12292000
I0501 05:57:47.012570 31043 layer_factory.hpp:77] Creating layer label_cifar_1_split
I0501 05:57:47.012583 31043 net.cpp:86] Creating Layer label_cifar_1_split
I0501 05:57:47.012586 31043 net.cpp:408] label_cifar_1_split <- label
I0501 05:57:47.012593 31043 net.cpp:382] label_cifar_1_split -> label_cifar_1_split_0
I0501 05:57:47.012616 31043 net.cpp:382] label_cifar_1_split -> label_cifar_1_split_1
I0501 05:57:47.012727 31043 net.cpp:124] Setting up label_cifar_1_split
I0501 05:57:47.012734 31043 net.cpp:131] Top shape: 1000 (1000)
I0501 05:57:47.012738 31043 net.cpp:131] Top shape: 1000 (1000)
I0501 05:57:47.012742 31043 net.cpp:139] Memory required for data: 12300000
I0501 05:57:47.012745 31043 layer_factory.hpp:77] Creating layer conv0
I0501 05:57:47.012759 31043 net.cpp:86] Creating Layer conv0
I0501 05:57:47.012763 31043 net.cpp:408] conv0 <- data
I0501 05:57:47.012768 31043 net.cpp:382] conv0 -> conv0
I0501 05:57:47.014379 31043 net.cpp:124] Setting up conv0
I0501 05:57:47.014392 31043 net.cpp:131] Top shape: 1000 8 32 32 (8192000)
I0501 05:57:47.014411 31043 net.cpp:139] Memory required for data: 45068000
I0501 05:57:47.014421 31043 layer_factory.hpp:77] Creating layer Sigmoid0
I0501 05:57:47.014430 31043 net.cpp:86] Creating Layer Sigmoid0
I0501 05:57:47.014432 31043 net.cpp:408] Sigmoid0 <- conv0
I0501 05:57:47.014436 31043 net.cpp:382] Sigmoid0 -> Sigmoid0
I0501 05:57:47.014623 31043 net.cpp:124] Setting up Sigmoid0
I0501 05:57:47.014633 31043 net.cpp:131] Top shape: 1000 8 32 32 (8192000)
I0501 05:57:47.014636 31043 net.cpp:139] Memory required for data: 77836000
I0501 05:57:47.014639 31043 layer_factory.hpp:77] Creating layer pool0
I0501 05:57:47.014647 31043 net.cpp:86] Creating Layer pool0
I0501 05:57:47.014650 31043 net.cpp:408] pool0 <- Sigmoid0
I0501 05:57:47.014655 31043 net.cpp:382] pool0 -> pool0
I0501 05:57:47.014925 31043 net.cpp:124] Setting up pool0
I0501 05:57:47.014933 31043 net.cpp:131] Top shape: 1000 8 16 16 (2048000)
I0501 05:57:47.014936 31043 net.cpp:139] Memory required for data: 86028000
I0501 05:57:47.014940 31043 layer_factory.hpp:77] Creating layer ip1
I0501 05:57:47.014948 31043 net.cpp:86] Creating Layer ip1
I0501 05:57:47.014951 31043 net.cpp:408] ip1 <- pool0
I0501 05:57:47.014957 31043 net.cpp:382] ip1 -> ip1
I0501 05:57:47.020440 31043 net.cpp:124] Setting up ip1
I0501 05:57:47.020450 31043 net.cpp:131] Top shape: 1000 80 (80000)
I0501 05:57:47.020468 31043 net.cpp:139] Memory required for data: 86348000
I0501 05:57:47.020493 31043 layer_factory.hpp:77] Creating layer relu1
I0501 05:57:47.020499 31043 net.cpp:86] Creating Layer relu1
I0501 05:57:47.020503 31043 net.cpp:408] relu1 <- ip1
I0501 05:57:47.020522 31043 net.cpp:369] relu1 -> ip1 (in-place)
I0501 05:57:47.020705 31043 net.cpp:124] Setting up relu1
I0501 05:57:47.020714 31043 net.cpp:131] Top shape: 1000 80 (80000)
I0501 05:57:47.020717 31043 net.cpp:139] Memory required for data: 86668000
I0501 05:57:47.020720 31043 layer_factory.hpp:77] Creating layer ip2
I0501 05:57:47.020726 31043 net.cpp:86] Creating Layer ip2
I0501 05:57:47.020730 31043 net.cpp:408] ip2 <- ip1
I0501 05:57:47.020735 31043 net.cpp:382] ip2 -> ip2
I0501 05:57:47.021272 31043 net.cpp:124] Setting up ip2
I0501 05:57:47.021281 31043 net.cpp:131] Top shape: 1000 160 (160000)
I0501 05:57:47.021298 31043 net.cpp:139] Memory required for data: 87308000
I0501 05:57:47.021306 31043 layer_factory.hpp:77] Creating layer relu2
I0501 05:57:47.021312 31043 net.cpp:86] Creating Layer relu2
I0501 05:57:47.021316 31043 net.cpp:408] relu2 <- ip2
I0501 05:57:47.021319 31043 net.cpp:369] relu2 -> ip2 (in-place)
I0501 05:57:47.022145 31043 net.cpp:124] Setting up relu2
I0501 05:57:47.022157 31043 net.cpp:131] Top shape: 1000 160 (160000)
I0501 05:57:47.022176 31043 net.cpp:139] Memory required for data: 87948000
I0501 05:57:47.022179 31043 layer_factory.hpp:77] Creating layer ip3
I0501 05:57:47.022202 31043 net.cpp:86] Creating Layer ip3
I0501 05:57:47.022204 31043 net.cpp:408] ip3 <- ip2
I0501 05:57:47.022210 31043 net.cpp:382] ip3 -> ip3
I0501 05:57:47.022384 31043 net.cpp:124] Setting up ip3
I0501 05:57:47.022392 31043 net.cpp:131] Top shape: 1000 10 (10000)
I0501 05:57:47.022395 31043 net.cpp:139] Memory required for data: 87988000
I0501 05:57:47.022403 31043 layer_factory.hpp:77] Creating layer relu3
I0501 05:57:47.022409 31043 net.cpp:86] Creating Layer relu3
I0501 05:57:47.022413 31043 net.cpp:408] relu3 <- ip3
I0501 05:57:47.022418 31043 net.cpp:369] relu3 -> ip3 (in-place)
I0501 05:57:47.022624 31043 net.cpp:124] Setting up relu3
I0501 05:57:47.022632 31043 net.cpp:131] Top shape: 1000 10 (10000)
I0501 05:57:47.022636 31043 net.cpp:139] Memory required for data: 88028000
I0501 05:57:47.022639 31043 layer_factory.hpp:77] Creating layer ip4
I0501 05:57:47.022645 31043 net.cpp:86] Creating Layer ip4
I0501 05:57:47.022649 31043 net.cpp:408] ip4 <- ip3
I0501 05:57:47.022653 31043 net.cpp:382] ip4 -> ip4
I0501 05:57:47.022759 31043 net.cpp:124] Setting up ip4
I0501 05:57:47.022766 31043 net.cpp:131] Top shape: 1000 10 (10000)
I0501 05:57:47.022769 31043 net.cpp:139] Memory required for data: 88068000
I0501 05:57:47.022778 31043 layer_factory.hpp:77] Creating layer ip4_ip4_0_split
I0501 05:57:47.022784 31043 net.cpp:86] Creating Layer ip4_ip4_0_split
I0501 05:57:47.022788 31043 net.cpp:408] ip4_ip4_0_split <- ip4
I0501 05:57:47.022791 31043 net.cpp:382] ip4_ip4_0_split -> ip4_ip4_0_split_0
I0501 05:57:47.022797 31043 net.cpp:382] ip4_ip4_0_split -> ip4_ip4_0_split_1
I0501 05:57:47.022842 31043 net.cpp:124] Setting up ip4_ip4_0_split
I0501 05:57:47.022848 31043 net.cpp:131] Top shape: 1000 10 (10000)
I0501 05:57:47.022852 31043 net.cpp:131] Top shape: 1000 10 (10000)
I0501 05:57:47.022855 31043 net.cpp:139] Memory required for data: 88148000
I0501 05:57:47.022857 31043 layer_factory.hpp:77] Creating layer accuracy
I0501 05:57:47.022863 31043 net.cpp:86] Creating Layer accuracy
I0501 05:57:47.022866 31043 net.cpp:408] accuracy <- ip4_ip4_0_split_0
I0501 05:57:47.022871 31043 net.cpp:408] accuracy <- label_cifar_1_split_0
I0501 05:57:47.022876 31043 net.cpp:382] accuracy -> accuracy
…
