…
I0430 19:23:52.727957 25868 net.cpp:296] The NetState phase (0) differed from the phase (1) specified by a rule in layer cifar
I0430 19:23:52.727970 25868 net.cpp:296] The NetState phase (0) differed from the phase (1) specified by a rule in layer accuracy
I0430 19:23:52.728036 25868 net.cpp:53] Initializing net from parameters: 
name: "CIFAR"
state {
  phase: TRAIN
  level: 0
  stage: ""
}
layer {
  name: "cifar"
  type: "Data"
  top: "data"
  top: "label"
  include {
    phase: TRAIN
  }
  transform_param {
    mean_file: "examples/cifar10/mean.binaryproto"
  }
  data_param {
    source: "examples/cifar10/cifar10_train_lmdb"
    batch_size: 111
    backend: LMDB
  }
}
layer {
  name: "ip1"
  type: "InnerProduct"
  bottom: "data"
  top: "ip1"
  param {
    lr_mult: 1
  }
  param {
    lr_mult: 2
  }
  inner_product_param {
    num_output: 40
    weight_filler {
      type: "gaussian"
      std: 0.01
    }
    bias_filler {
      type: "constant"
    }
  }
}
layer {
  name: "relu1"
  type: "ReLU"
  bottom: "ip1"
  top: "ip1"
}
layer {
  name: "ip2"
  type: "InnerProduct"
  bottom: "ip1"
  top: "ip2"
  param {
    lr_mult: 1
  }
  param {
    lr_mult: 2
  }
  inner_product_param {
    num_output: 80
    weight_filler {
      type: "gaussian"
      std: 0.01
    }
    bias_filler {
      type: "constant"
    }
  }
}
layer {
  name: "relu2"
  type: "ReLU"
  bottom: "ip2"
  top: "ip2"
}
layer {
  name: "ip3"
  type: "InnerProduct"
  bottom: "ip2"
  top: "ip3"
  param {
    lr_mult: 1
  }
  param {
    lr_mult: 2
  }
  inner_product_param {
    num_output: 20
    weight_filler {
      type: "gaussian"
      std: 0.01
    }
    bias_filler {
      type: "constant"
    }
  }
}
layer {
  name: "relu3"
  type: "ReLU"
  bottom: "ip3"
  top: "ip3"
}
layer {
  name: "ip4"
  type: "InnerProduct"
  bottom: "ip3"
  top: "ip4"
  param {
    lr_mult: 1
  }
  param {
    lr_mult: 2
  }
  inner_product_param {
    num_output: 10
    weight_filler {
      type: "gaussian"
      std: 0.01
    }
    bias_filler {
      type: "constant"
    }
  }
}
layer {
  name: "loss"
  type: "SoftmaxWithLoss"
  bottom: "ip4"
  bottom: "label"
  top: "loss"
}
I0430 19:23:52.728092 25868 layer_factory.hpp:77] Creating layer cifar
I0430 19:23:52.728185 25868 db_lmdb.cpp:35] Opened lmdb examples/cifar10/cifar10_train_lmdb
I0430 19:23:52.728207 25868 net.cpp:86] Creating Layer cifar
I0430 19:23:52.728214 25868 net.cpp:382] cifar -> data
I0430 19:23:52.728233 25868 net.cpp:382] cifar -> label
I0430 19:23:52.728243 25868 data_transformer.cpp:25] Loading mean file from: examples/cifar10/mean.binaryproto
I0430 19:23:52.730106 25868 data_layer.cpp:45] output data size: 111,3,32,32
I0430 19:23:52.736498 25868 net.cpp:124] Setting up cifar
I0430 19:23:52.736512 25868 net.cpp:131] Top shape: 111 3 32 32 (340992)
I0430 19:23:52.736517 25868 net.cpp:131] Top shape: 111 (111)
I0430 19:23:52.736521 25868 net.cpp:139] Memory required for data: 1364412
I0430 19:23:52.736526 25868 layer_factory.hpp:77] Creating layer ip1
I0430 19:23:52.736538 25868 net.cpp:86] Creating Layer ip1
I0430 19:23:52.736543 25868 net.cpp:408] ip1 <- data
I0430 19:23:52.736552 25868 net.cpp:382] ip1 -> ip1
I0430 19:23:52.739951 25868 net.cpp:124] Setting up ip1
I0430 19:23:52.739961 25868 net.cpp:131] Top shape: 111 40 (4440)
I0430 19:23:52.739964 25868 net.cpp:139] Memory required for data: 1382172
I0430 19:23:52.739974 25868 layer_factory.hpp:77] Creating layer relu1
I0430 19:23:52.739981 25868 net.cpp:86] Creating Layer relu1
I0430 19:23:52.740013 25868 net.cpp:408] relu1 <- ip1
I0430 19:23:52.740018 25868 net.cpp:369] relu1 -> ip1 (in-place)
I0430 19:23:52.965185 25868 net.cpp:124] Setting up relu1
I0430 19:23:52.965224 25868 net.cpp:131] Top shape: 111 40 (4440)
I0430 19:23:52.965227 25868 net.cpp:139] Memory required for data: 1399932
I0430 19:23:52.965232 25868 layer_factory.hpp:77] Creating layer ip2
I0430 19:23:52.965260 25868 net.cpp:86] Creating Layer ip2
I0430 19:23:52.965265 25868 net.cpp:408] ip2 <- ip1
I0430 19:23:52.965272 25868 net.cpp:382] ip2 -> ip2
I0430 19:23:52.965502 25868 net.cpp:124] Setting up ip2
I0430 19:23:52.965510 25868 net.cpp:131] Top shape: 111 80 (8880)
I0430 19:23:52.965513 25868 net.cpp:139] Memory required for data: 1435452
I0430 19:23:52.965523 25868 layer_factory.hpp:77] Creating layer relu2
I0430 19:23:52.965529 25868 net.cpp:86] Creating Layer relu2
I0430 19:23:52.965533 25868 net.cpp:408] relu2 <- ip2
I0430 19:23:52.965538 25868 net.cpp:369] relu2 -> ip2 (in-place)
I0430 19:23:52.966315 25868 net.cpp:124] Setting up relu2
I0430 19:23:52.966326 25868 net.cpp:131] Top shape: 111 80 (8880)
I0430 19:23:52.966331 25868 net.cpp:139] Memory required for data: 1470972
I0430 19:23:52.966333 25868 layer_factory.hpp:77] Creating layer ip3
I0430 19:23:52.966339 25868 net.cpp:86] Creating Layer ip3
I0430 19:23:52.966342 25868 net.cpp:408] ip3 <- ip2
I0430 19:23:52.966347 25868 net.cpp:382] ip3 -> ip3
I0430 19:23:52.966509 25868 net.cpp:124] Setting up ip3
I0430 19:23:52.966516 25868 net.cpp:131] Top shape: 111 20 (2220)
I0430 19:23:52.966521 25868 net.cpp:139] Memory required for data: 1479852
I0430 19:23:52.966527 25868 layer_factory.hpp:77] Creating layer relu3
I0430 19:23:52.966532 25868 net.cpp:86] Creating Layer relu3
I0430 19:23:52.966536 25868 net.cpp:408] relu3 <- ip3
I0430 19:23:52.966539 25868 net.cpp:369] relu3 -> ip3 (in-place)
I0430 19:23:52.966681 25868 net.cpp:124] Setting up relu3
I0430 19:23:52.966688 25868 net.cpp:131] Top shape: 111 20 (2220)
I0430 19:23:52.966691 25868 net.cpp:139] Memory required for data: 1488732
I0430 19:23:52.966694 25868 layer_factory.hpp:77] Creating layer ip4
I0430 19:23:52.966701 25868 net.cpp:86] Creating Layer ip4
I0430 19:23:52.966703 25868 net.cpp:408] ip4 <- ip3
I0430 19:23:52.966707 25868 net.cpp:382] ip4 -> ip4
I0430 19:23:52.966811 25868 net.cpp:124] Setting up ip4
I0430 19:23:52.966817 25868 net.cpp:131] Top shape: 111 10 (1110)
I0430 19:23:52.966820 25868 net.cpp:139] Memory required for data: 1493172
I0430 19:23:52.966825 25868 layer_factory.hpp:77] Creating layer loss
I0430 19:23:52.966831 25868 net.cpp:86] Creating Layer loss
I0430 19:23:52.966835 25868 net.cpp:408] loss <- ip4
I0430 19:23:52.966838 25868 net.cpp:408] loss <- label
I0430 19:23:52.966843 25868 net.cpp:382] loss -> loss
I0430 19:23:52.966856 25868 layer_factory.hpp:77] Creating layer loss
…
I0430 19:23:52.967375 25868 solver.cpp:173] Creating test net (#0) specified by net file: ECE595/cifar/train_test/var_everything/cifar_train_test_96.prototxt
I0430 19:23:52.967411 25868 net.cpp:296] The NetState phase (1) differed from the phase (0) specified by a rule in layer cifar
I0430 19:23:52.967483 25868 net.cpp:53] Initializing net from parameters: 
name: "CIFAR"
state {
  phase: TEST
}
layer {
  name: "cifar"
  type: "Data"
  top: "data"
  top: "label"
  include {
    phase: TEST
  }
  transform_param {
    mean_file: "examples/cifar10/mean.binaryproto"
  }
  data_param {
    source: "examples/cifar10/cifar10_test_lmdb"
    batch_size: 1000
    backend: LMDB
  }
}
layer {
  name: "ip1"
  type: "InnerProduct"
  bottom: "data"
  top: "ip1"
  param {
    lr_mult: 1
  }
  param {
    lr_mult: 2
  }
  inner_product_param {
    num_output: 40
    weight_filler {
      type: "gaussian"
      std: 0.01
    }
    bias_filler {
      type: "constant"
    }
  }
}
layer {
  name: "relu1"
  type: "ReLU"
  bottom: "ip1"
  top: "ip1"
}
layer {
  name: "ip2"
  type: "InnerProduct"
  bottom: "ip1"
  top: "ip2"
  param {
    lr_mult: 1
  }
  param {
    lr_mult: 2
  }
  inner_product_param {
    num_output: 80
    weight_filler {
      type: "gaussian"
      std: 0.01
    }
    bias_filler {
      type: "constant"
    }
  }
}
layer {
  name: "relu2"
  type: "ReLU"
  bottom: "ip2"
  top: "ip2"
}
layer {
  name: "ip3"
  type: "InnerProduct"
  bottom: "ip2"
  top: "ip3"
  param {
    lr_mult: 1
  }
  param {
    lr_mult: 2
  }
  inner_product_param {
    num_output: 20
    weight_filler {
      type: "gaussian"
      std: 0.01
    }
    bias_filler {
      type: "constant"
    }
  }
}
layer {
  name: "relu3"
  type: "ReLU"
  bottom: "ip3"
  top: "ip3"
}
layer {
  name: "ip4"
  type: "InnerProduct"
  bottom: "ip3"
  top: "ip4"
  param {
    lr_mult: 1
  }
  param {
    lr_mult: 2
  }
  inner_product_param {
    num_output: 10
    weight_filler {
      type: "gaussian"
      std: 0.01
    }
    bias_filler {
      type: "constant"
    }
  }
}
layer {
  name: "accuracy"
  type: "Accuracy"
  bottom: "ip4"
  bottom: "label"
  top: "accuracy"
  include {
    phase: TEST
  }
}
layer {
  name: "loss"
  type: "SoftmaxWithLoss"
  bottom: "ip4"
  bottom: "label"
  top: "loss"
}
I0430 19:23:52.967555 25868 layer_factory.hpp:77] Creating layer cifar
I0430 19:23:52.967598 25868 db_lmdb.cpp:35] Opened lmdb examples/cifar10/cifar10_test_lmdb
I0430 19:23:52.967610 25868 net.cpp:86] Creating Layer cifar
I0430 19:23:52.967614 25868 net.cpp:382] cifar -> data
I0430 19:23:52.967622 25868 net.cpp:382] cifar -> label
I0430 19:23:52.967628 25868 data_transformer.cpp:25] Loading mean file from: examples/cifar10/mean.binaryproto
I0430 19:23:52.967762 25868 data_layer.cpp:45] output data size: 1000,3,32,32
I0430 19:23:52.990842 25868 net.cpp:124] Setting up cifar
I0430 19:23:52.990869 25868 net.cpp:131] Top shape: 1000 3 32 32 (3072000)
I0430 19:23:52.990875 25868 net.cpp:131] Top shape: 1000 (1000)
I0430 19:23:52.990878 25868 net.cpp:139] Memory required for data: 12292000
I0430 19:23:52.990883 25868 layer_factory.hpp:77] Creating layer label_cifar_1_split
I0430 19:23:52.990900 25868 net.cpp:86] Creating Layer label_cifar_1_split
I0430 19:23:52.990903 25868 net.cpp:408] label_cifar_1_split <- label
I0430 19:23:52.990909 25868 net.cpp:382] label_cifar_1_split -> label_cifar_1_split_0
I0430 19:23:52.990918 25868 net.cpp:382] label_cifar_1_split -> label_cifar_1_split_1
I0430 19:23:52.990988 25868 net.cpp:124] Setting up label_cifar_1_split
I0430 19:23:52.991005 25868 net.cpp:131] Top shape: 1000 (1000)
I0430 19:23:52.991008 25868 net.cpp:131] Top shape: 1000 (1000)
I0430 19:23:52.991011 25868 net.cpp:139] Memory required for data: 12300000
I0430 19:23:52.991014 25868 layer_factory.hpp:77] Creating layer ip1
I0430 19:23:52.991022 25868 net.cpp:86] Creating Layer ip1
I0430 19:23:52.991025 25868 net.cpp:408] ip1 <- data
I0430 19:23:52.991030 25868 net.cpp:382] ip1 -> ip1
I0430 19:23:52.994436 25868 net.cpp:124] Setting up ip1
I0430 19:23:52.994446 25868 net.cpp:131] Top shape: 1000 40 (40000)
I0430 19:23:52.994449 25868 net.cpp:139] Memory required for data: 12460000
I0430 19:23:52.994488 25868 layer_factory.hpp:77] Creating layer relu1
I0430 19:23:52.994503 25868 net.cpp:86] Creating Layer relu1
I0430 19:23:52.994506 25868 net.cpp:408] relu1 <- ip1
I0430 19:23:52.994511 25868 net.cpp:369] relu1 -> ip1 (in-place)
I0430 19:23:52.995297 25868 net.cpp:124] Setting up relu1
I0430 19:23:52.995309 25868 net.cpp:131] Top shape: 1000 40 (40000)
I0430 19:23:52.995312 25868 net.cpp:139] Memory required for data: 12620000
I0430 19:23:52.995316 25868 layer_factory.hpp:77] Creating layer ip2
I0430 19:23:52.995338 25868 net.cpp:86] Creating Layer ip2
I0430 19:23:52.995349 25868 net.cpp:408] ip2 <- ip1
I0430 19:23:52.995355 25868 net.cpp:382] ip2 -> ip2
I0430 19:23:52.995534 25868 net.cpp:124] Setting up ip2
I0430 19:23:52.995543 25868 net.cpp:131] Top shape: 1000 80 (80000)
I0430 19:23:52.995546 25868 net.cpp:139] Memory required for data: 12940000
I0430 19:23:52.995553 25868 layer_factory.hpp:77] Creating layer relu2
I0430 19:23:52.995558 25868 net.cpp:86] Creating Layer relu2
I0430 19:23:52.995561 25868 net.cpp:408] relu2 <- ip2
I0430 19:23:52.995565 25868 net.cpp:369] relu2 -> ip2 (in-place)
I0430 19:23:52.995707 25868 net.cpp:124] Setting up relu2
I0430 19:23:52.995715 25868 net.cpp:131] Top shape: 1000 80 (80000)
I0430 19:23:52.995718 25868 net.cpp:139] Memory required for data: 13260000
I0430 19:23:52.995721 25868 layer_factory.hpp:77] Creating layer ip3
I0430 19:23:52.995726 25868 net.cpp:86] Creating Layer ip3
I0430 19:23:52.995729 25868 net.cpp:408] ip3 <- ip2
I0430 19:23:52.995734 25868 net.cpp:382] ip3 -> ip3
I0430 19:23:52.995863 25868 net.cpp:124] Setting up ip3
I0430 19:23:52.995869 25868 net.cpp:131] Top shape: 1000 20 (20000)
I0430 19:23:52.995873 25868 net.cpp:139] Memory required for data: 13340000
I0430 19:23:52.995882 25868 layer_factory.hpp:77] Creating layer relu3
I0430 19:23:52.995885 25868 net.cpp:86] Creating Layer relu3
I0430 19:23:52.995888 25868 net.cpp:408] relu3 <- ip3
I0430 19:23:52.995893 25868 net.cpp:369] relu3 -> ip3 (in-place)
I0430 19:23:52.996047 25868 net.cpp:124] Setting up relu3
I0430 19:23:52.996054 25868 net.cpp:131] Top shape: 1000 20 (20000)
I0430 19:23:52.996057 25868 net.cpp:139] Memory required for data: 13420000
I0430 19:23:52.996060 25868 layer_factory.hpp:77] Creating layer ip4
I0430 19:23:52.996068 25868 net.cpp:86] Creating Layer ip4
I0430 19:23:52.996070 25868 net.cpp:408] ip4 <- ip3
I0430 19:23:52.996076 25868 net.cpp:382] ip4 -> ip4
I0430 19:23:52.996176 25868 net.cpp:124] Setting up ip4
I0430 19:23:52.996182 25868 net.cpp:131] Top shape: 1000 10 (10000)
I0430 19:23:52.996186 25868 net.cpp:139] Memory required for data: 13460000
I0430 19:23:52.996191 25868 layer_factory.hpp:77] Creating layer ip4_ip4_0_split
I0430 19:23:52.996196 25868 net.cpp:86] Creating Layer ip4_ip4_0_split
I0430 19:23:52.996199 25868 net.cpp:408] ip4_ip4_0_split <- ip4
I0430 19:23:52.996204 25868 net.cpp:382] ip4_ip4_0_split -> ip4_ip4_0_split_0
I0430 19:23:52.996210 25868 net.cpp:382] ip4_ip4_0_split -> ip4_ip4_0_split_1
I0430 19:23:52.996239 25868 net.cpp:124] Setting up ip4_ip4_0_split
I0430 19:23:52.996244 25868 net.cpp:131] Top shape: 1000 10 (10000)
I0430 19:23:52.996248 25868 net.cpp:131] Top shape: 1000 10 (10000)
I0430 19:23:52.996250 25868 net.cpp:139] Memory required for data: 13540000
I0430 19:23:52.996253 25868 layer_factory.hpp:77] Creating layer accuracy
I0430 19:23:52.996263 25868 net.cpp:86] Creating Layer accuracy
I0430 19:23:52.996266 25868 net.cpp:408] accuracy <- ip4_ip4_0_split_0
I0430 19:23:52.996269 25868 net.cpp:408] accuracy <- label_cifar_1_split_0
I0430 19:23:52.996273 25868 net.cpp:382] accuracy -> accuracy
…
