…
I0430 17:40:43.765395 20202 net.cpp:296] The NetState phase (0) differed from the phase (1) specified by a rule in layer cifar
I0430 17:40:43.765408 20202 net.cpp:296] The NetState phase (0) differed from the phase (1) specified by a rule in layer accuracy
I0430 17:40:43.765483 20202 net.cpp:53] Initializing net from parameters: 
name: "CIFAR"
state {
  phase: TRAIN
  level: 0
  stage: ""
}
layer {
  name: "cifar"
  type: "Data"
  top: "data"
  top: "label"
  include {
    phase: TRAIN
  }
  transform_param {
    mean_file: "examples/cifar10/mean.binaryproto"
  }
  data_param {
    source: "examples/cifar10/cifar10_train_lmdb"
    batch_size: 111
    backend: LMDB
  }
}
layer {
  name: "ip1"
  type: "InnerProduct"
  bottom: "data"
  top: "ip1"
  param {
    lr_mult: 1
  }
  param {
    lr_mult: 2
  }
  inner_product_param {
    num_output: 10
    weight_filler {
      type: "gaussian"
      std: 0.01
    }
    bias_filler {
      type: "constant"
    }
  }
}
layer {
  name: "relu1"
  type: "ReLU"
  bottom: "ip1"
  top: "ip1"
}
layer {
  name: "ip2"
  type: "InnerProduct"
  bottom: "ip1"
  top: "ip2"
  param {
    lr_mult: 1
  }
  param {
    lr_mult: 2
  }
  inner_product_param {
    num_output: 40
    weight_filler {
      type: "gaussian"
      std: 0.01
    }
    bias_filler {
      type: "constant"
    }
  }
}
layer {
  name: "relu2"
  type: "ReLU"
  bottom: "ip2"
  top: "ip2"
}
layer {
  name: "ip3"
  type: "InnerProduct"
  bottom: "ip2"
  top: "ip3"
  param {
    lr_mult: 1
  }
  param {
    lr_mult: 2
  }
  inner_product_param {
    num_output: 40
    weight_filler {
      type: "gaussian"
      std: 0.01
    }
    bias_filler {
      type: "constant"
    }
  }
}
layer {
  name: "relu3"
  type: "ReLU"
  bottom: "ip3"
  top: "ip3"
}
layer {
  name: "ip4"
  type: "InnerProduct"
  bottom: "ip3"
  top: "ip4"
  param {
    lr_mult: 1
  }
  param {
    lr_mult: 2
  }
  inner_product_param {
    num_output: 10
    weight_filler {
      type: "gaussian"
      std: 0.01
    }
    bias_filler {
      type: "constant"
    }
  }
}
layer {
  name: "loss"
  type: "SoftmaxWithLoss"
  bottom: "ip4"
  bottom: "label"
  top: "loss"
}
I0430 17:40:43.765547 20202 layer_factory.hpp:77] Creating layer cifar
I0430 17:40:43.765638 20202 db_lmdb.cpp:35] Opened lmdb examples/cifar10/cifar10_train_lmdb
I0430 17:40:43.765661 20202 net.cpp:86] Creating Layer cifar
I0430 17:40:43.765668 20202 net.cpp:382] cifar -> data
I0430 17:40:43.765688 20202 net.cpp:382] cifar -> label
I0430 17:40:43.765699 20202 data_transformer.cpp:25] Loading mean file from: examples/cifar10/mean.binaryproto
I0430 17:40:43.767598 20202 data_layer.cpp:45] output data size: 111,3,32,32
I0430 17:40:43.774549 20202 net.cpp:124] Setting up cifar
I0430 17:40:43.774566 20202 net.cpp:131] Top shape: 111 3 32 32 (340992)
I0430 17:40:43.774572 20202 net.cpp:131] Top shape: 111 (111)
I0430 17:40:43.774575 20202 net.cpp:139] Memory required for data: 1364412
I0430 17:40:43.774581 20202 layer_factory.hpp:77] Creating layer ip1
I0430 17:40:43.774605 20202 net.cpp:86] Creating Layer ip1
I0430 17:40:43.774611 20202 net.cpp:408] ip1 <- data
I0430 17:40:43.774621 20202 net.cpp:382] ip1 -> ip1
I0430 17:40:43.776510 20202 net.cpp:124] Setting up ip1
I0430 17:40:43.776523 20202 net.cpp:131] Top shape: 111 10 (1110)
I0430 17:40:43.776526 20202 net.cpp:139] Memory required for data: 1368852
I0430 17:40:43.776538 20202 layer_factory.hpp:77] Creating layer relu1
I0430 17:40:43.776547 20202 net.cpp:86] Creating Layer relu1
I0430 17:40:43.776566 20202 net.cpp:408] relu1 <- ip1
I0430 17:40:43.776571 20202 net.cpp:369] relu1 -> ip1 (in-place)
I0430 17:40:44.001003 20202 net.cpp:124] Setting up relu1
I0430 17:40:44.001045 20202 net.cpp:131] Top shape: 111 10 (1110)
I0430 17:40:44.001049 20202 net.cpp:139] Memory required for data: 1373292
I0430 17:40:44.001055 20202 layer_factory.hpp:77] Creating layer ip2
I0430 17:40:44.001067 20202 net.cpp:86] Creating Layer ip2
I0430 17:40:44.001071 20202 net.cpp:408] ip2 <- ip1
I0430 17:40:44.001078 20202 net.cpp:382] ip2 -> ip2
I0430 17:40:44.002136 20202 net.cpp:124] Setting up ip2
I0430 17:40:44.002148 20202 net.cpp:131] Top shape: 111 40 (4440)
I0430 17:40:44.002167 20202 net.cpp:139] Memory required for data: 1391052
I0430 17:40:44.002177 20202 layer_factory.hpp:77] Creating layer relu2
I0430 17:40:44.002185 20202 net.cpp:86] Creating Layer relu2
I0430 17:40:44.002188 20202 net.cpp:408] relu2 <- ip2
I0430 17:40:44.002192 20202 net.cpp:369] relu2 -> ip2 (in-place)
I0430 17:40:44.002908 20202 net.cpp:124] Setting up relu2
I0430 17:40:44.002920 20202 net.cpp:131] Top shape: 111 40 (4440)
I0430 17:40:44.002923 20202 net.cpp:139] Memory required for data: 1408812
I0430 17:40:44.002928 20202 layer_factory.hpp:77] Creating layer ip3
I0430 17:40:44.002933 20202 net.cpp:86] Creating Layer ip3
I0430 17:40:44.002936 20202 net.cpp:408] ip3 <- ip2
I0430 17:40:44.002941 20202 net.cpp:382] ip3 -> ip3
I0430 17:40:44.003087 20202 net.cpp:124] Setting up ip3
I0430 17:40:44.003094 20202 net.cpp:131] Top shape: 111 40 (4440)
I0430 17:40:44.003098 20202 net.cpp:139] Memory required for data: 1426572
I0430 17:40:44.003105 20202 layer_factory.hpp:77] Creating layer relu3
I0430 17:40:44.003109 20202 net.cpp:86] Creating Layer relu3
I0430 17:40:44.003113 20202 net.cpp:408] relu3 <- ip3
I0430 17:40:44.003118 20202 net.cpp:369] relu3 -> ip3 (in-place)
I0430 17:40:44.003268 20202 net.cpp:124] Setting up relu3
I0430 17:40:44.003278 20202 net.cpp:131] Top shape: 111 40 (4440)
I0430 17:40:44.003280 20202 net.cpp:139] Memory required for data: 1444332
I0430 17:40:44.003283 20202 layer_factory.hpp:77] Creating layer ip4
I0430 17:40:44.003288 20202 net.cpp:86] Creating Layer ip4
I0430 17:40:44.003291 20202 net.cpp:408] ip4 <- ip3
I0430 17:40:44.003296 20202 net.cpp:382] ip4 -> ip4
I0430 17:40:44.003397 20202 net.cpp:124] Setting up ip4
I0430 17:40:44.003404 20202 net.cpp:131] Top shape: 111 10 (1110)
I0430 17:40:44.003407 20202 net.cpp:139] Memory required for data: 1448772
I0430 17:40:44.003412 20202 layer_factory.hpp:77] Creating layer loss
I0430 17:40:44.003418 20202 net.cpp:86] Creating Layer loss
I0430 17:40:44.003422 20202 net.cpp:408] loss <- ip4
I0430 17:40:44.003425 20202 net.cpp:408] loss <- label
I0430 17:40:44.003432 20202 net.cpp:382] loss -> loss
I0430 17:40:44.003448 20202 layer_factory.hpp:77] Creating layer loss
…
I0430 17:40:44.004045 20202 solver.cpp:173] Creating test net (#0) specified by net file: ECE595/cifar/train_test/var_everything/cifar_train_test_42.prototxt
I0430 17:40:44.004081 20202 net.cpp:296] The NetState phase (1) differed from the phase (0) specified by a rule in layer cifar
I0430 17:40:44.004168 20202 net.cpp:53] Initializing net from parameters: 
name: "CIFAR"
state {
  phase: TEST
}
layer {
  name: "cifar"
  type: "Data"
  top: "data"
  top: "label"
  include {
    phase: TEST
  }
  transform_param {
    mean_file: "examples/cifar10/mean.binaryproto"
  }
  data_param {
    source: "examples/cifar10/cifar10_test_lmdb"
    batch_size: 1000
    backend: LMDB
  }
}
layer {
  name: "ip1"
  type: "InnerProduct"
  bottom: "data"
  top: "ip1"
  param {
    lr_mult: 1
  }
  param {
    lr_mult: 2
  }
  inner_product_param {
    num_output: 10
    weight_filler {
      type: "gaussian"
      std: 0.01
    }
    bias_filler {
      type: "constant"
    }
  }
}
layer {
  name: "relu1"
  type: "ReLU"
  bottom: "ip1"
  top: "ip1"
}
layer {
  name: "ip2"
  type: "InnerProduct"
  bottom: "ip1"
  top: "ip2"
  param {
    lr_mult: 1
  }
  param {
    lr_mult: 2
  }
  inner_product_param {
    num_output: 40
    weight_filler {
      type: "gaussian"
      std: 0.01
    }
    bias_filler {
      type: "constant"
    }
  }
}
layer {
  name: "relu2"
  type: "ReLU"
  bottom: "ip2"
  top: "ip2"
}
layer {
  name: "ip3"
  type: "InnerProduct"
  bottom: "ip2"
  top: "ip3"
  param {
    lr_mult: 1
  }
  param {
    lr_mult: 2
  }
  inner_product_param {
    num_output: 40
    weight_filler {
      type: "gaussian"
      std: 0.01
    }
    bias_filler {
      type: "constant"
    }
  }
}
layer {
  name: "relu3"
  type: "ReLU"
  bottom: "ip3"
  top: "ip3"
}
layer {
  name: "ip4"
  type: "InnerProduct"
  bottom: "ip3"
  top: "ip4"
  param {
    lr_mult: 1
  }
  param {
    lr_mult: 2
  }
  inner_product_param {
    num_output: 10
    weight_filler {
      type: "gaussian"
      std: 0.01
    }
    bias_filler {
      type: "constant"
    }
  }
}
layer {
  name: "accuracy"
  type: "Accuracy"
  bottom: "ip4"
  bottom: "label"
  top: "accuracy"
  include {
    phase: TEST
  }
}
layer {
  name: "loss"
  type: "SoftmaxWithLoss"
  bottom: "ip4"
  bottom: "label"
  top: "loss"
}
I0430 17:40:44.004221 20202 layer_factory.hpp:77] Creating layer cifar
I0430 17:40:44.004266 20202 db_lmdb.cpp:35] Opened lmdb examples/cifar10/cifar10_test_lmdb
I0430 17:40:44.004278 20202 net.cpp:86] Creating Layer cifar
I0430 17:40:44.004284 20202 net.cpp:382] cifar -> data
I0430 17:40:44.004307 20202 net.cpp:382] cifar -> label
I0430 17:40:44.004313 20202 data_transformer.cpp:25] Loading mean file from: examples/cifar10/mean.binaryproto
I0430 17:40:44.004449 20202 data_layer.cpp:45] output data size: 1000,3,32,32
I0430 17:40:44.026523 20202 net.cpp:124] Setting up cifar
I0430 17:40:44.026564 20202 net.cpp:131] Top shape: 1000 3 32 32 (3072000)
I0430 17:40:44.026569 20202 net.cpp:131] Top shape: 1000 (1000)
I0430 17:40:44.026573 20202 net.cpp:139] Memory required for data: 12292000
I0430 17:40:44.026581 20202 layer_factory.hpp:77] Creating layer label_cifar_1_split
I0430 17:40:44.026597 20202 net.cpp:86] Creating Layer label_cifar_1_split
I0430 17:40:44.026602 20202 net.cpp:408] label_cifar_1_split <- label
I0430 17:40:44.026607 20202 net.cpp:382] label_cifar_1_split -> label_cifar_1_split_0
I0430 17:40:44.026617 20202 net.cpp:382] label_cifar_1_split -> label_cifar_1_split_1
I0430 17:40:44.026682 20202 net.cpp:124] Setting up label_cifar_1_split
I0430 17:40:44.026690 20202 net.cpp:131] Top shape: 1000 (1000)
I0430 17:40:44.026695 20202 net.cpp:131] Top shape: 1000 (1000)
I0430 17:40:44.026697 20202 net.cpp:139] Memory required for data: 12300000
I0430 17:40:44.026700 20202 layer_factory.hpp:77] Creating layer ip1
I0430 17:40:44.026710 20202 net.cpp:86] Creating Layer ip1
I0430 17:40:44.026715 20202 net.cpp:408] ip1 <- data
I0430 17:40:44.026734 20202 net.cpp:382] ip1 -> ip1
I0430 17:40:44.027667 20202 net.cpp:124] Setting up ip1
I0430 17:40:44.027675 20202 net.cpp:131] Top shape: 1000 10 (10000)
I0430 17:40:44.027693 20202 net.cpp:139] Memory required for data: 12340000
I0430 17:40:44.027717 20202 layer_factory.hpp:77] Creating layer relu1
I0430 17:40:44.027724 20202 net.cpp:86] Creating Layer relu1
I0430 17:40:44.027727 20202 net.cpp:408] relu1 <- ip1
I0430 17:40:44.027731 20202 net.cpp:369] relu1 -> ip1 (in-place)
I0430 17:40:44.028576 20202 net.cpp:124] Setting up relu1
I0430 17:40:44.028587 20202 net.cpp:131] Top shape: 1000 10 (10000)
I0430 17:40:44.028590 20202 net.cpp:139] Memory required for data: 12380000
I0430 17:40:44.028609 20202 layer_factory.hpp:77] Creating layer ip2
I0430 17:40:44.028616 20202 net.cpp:86] Creating Layer ip2
I0430 17:40:44.028620 20202 net.cpp:408] ip2 <- ip1
I0430 17:40:44.028625 20202 net.cpp:382] ip2 -> ip2
I0430 17:40:44.029728 20202 net.cpp:124] Setting up ip2
I0430 17:40:44.029737 20202 net.cpp:131] Top shape: 1000 40 (40000)
I0430 17:40:44.029755 20202 net.cpp:139] Memory required for data: 12540000
I0430 17:40:44.029763 20202 layer_factory.hpp:77] Creating layer relu2
I0430 17:40:44.029768 20202 net.cpp:86] Creating Layer relu2
I0430 17:40:44.029772 20202 net.cpp:408] relu2 <- ip2
I0430 17:40:44.029777 20202 net.cpp:369] relu2 -> ip2 (in-place)
I0430 17:40:44.029960 20202 net.cpp:124] Setting up relu2
I0430 17:40:44.029968 20202 net.cpp:131] Top shape: 1000 40 (40000)
I0430 17:40:44.029971 20202 net.cpp:139] Memory required for data: 12700000
I0430 17:40:44.029975 20202 layer_factory.hpp:77] Creating layer ip3
I0430 17:40:44.029983 20202 net.cpp:86] Creating Layer ip3
I0430 17:40:44.029985 20202 net.cpp:408] ip3 <- ip2
I0430 17:40:44.029990 20202 net.cpp:382] ip3 -> ip3
I0430 17:40:44.030129 20202 net.cpp:124] Setting up ip3
I0430 17:40:44.030136 20202 net.cpp:131] Top shape: 1000 40 (40000)
I0430 17:40:44.030139 20202 net.cpp:139] Memory required for data: 12860000
I0430 17:40:44.030146 20202 layer_factory.hpp:77] Creating layer relu3
I0430 17:40:44.030151 20202 net.cpp:86] Creating Layer relu3
I0430 17:40:44.030154 20202 net.cpp:408] relu3 <- ip3
I0430 17:40:44.030158 20202 net.cpp:369] relu3 -> ip3 (in-place)
I0430 17:40:44.030303 20202 net.cpp:124] Setting up relu3
I0430 17:40:44.030311 20202 net.cpp:131] Top shape: 1000 40 (40000)
I0430 17:40:44.030314 20202 net.cpp:139] Memory required for data: 13020000
I0430 17:40:44.030318 20202 layer_factory.hpp:77] Creating layer ip4
I0430 17:40:44.030324 20202 net.cpp:86] Creating Layer ip4
I0430 17:40:44.030328 20202 net.cpp:408] ip4 <- ip3
I0430 17:40:44.030333 20202 net.cpp:382] ip4 -> ip4
I0430 17:40:44.030436 20202 net.cpp:124] Setting up ip4
I0430 17:40:44.030443 20202 net.cpp:131] Top shape: 1000 10 (10000)
I0430 17:40:44.030447 20202 net.cpp:139] Memory required for data: 13060000
I0430 17:40:44.030452 20202 layer_factory.hpp:77] Creating layer ip4_ip4_0_split
I0430 17:40:44.030457 20202 net.cpp:86] Creating Layer ip4_ip4_0_split
I0430 17:40:44.030459 20202 net.cpp:408] ip4_ip4_0_split <- ip4
I0430 17:40:44.030463 20202 net.cpp:382] ip4_ip4_0_split -> ip4_ip4_0_split_0
I0430 17:40:44.030470 20202 net.cpp:382] ip4_ip4_0_split -> ip4_ip4_0_split_1
I0430 17:40:44.030499 20202 net.cpp:124] Setting up ip4_ip4_0_split
I0430 17:40:44.030506 20202 net.cpp:131] Top shape: 1000 10 (10000)
I0430 17:40:44.030509 20202 net.cpp:131] Top shape: 1000 10 (10000)
I0430 17:40:44.030513 20202 net.cpp:139] Memory required for data: 13140000
I0430 17:40:44.030515 20202 layer_factory.hpp:77] Creating layer accuracy
I0430 17:40:44.030521 20202 net.cpp:86] Creating Layer accuracy
I0430 17:40:44.030524 20202 net.cpp:408] accuracy <- ip4_ip4_0_split_0
I0430 17:40:44.030529 20202 net.cpp:408] accuracy <- label_cifar_1_split_0
I0430 17:40:44.030532 20202 net.cpp:382] accuracy -> accuracy
…
