…
I0501 04:17:29.149101 24579 net.cpp:296] The NetState phase (0) differed from the phase (1) specified by a rule in layer cifar
I0501 04:17:29.149121 24579 net.cpp:296] The NetState phase (0) differed from the phase (1) specified by a rule in layer accuracy
I0501 04:17:29.149225 24579 net.cpp:53] Initializing net from parameters: 
name: "CIFAR"
state {
  phase: TRAIN
  level: 0
  stage: ""
}
layer {
  name: "cifar"
  type: "Data"
  top: "data"
  top: "label"
  include {
    phase: TRAIN
  }
  transform_param {
    mean_file: "examples/cifar10/mean.binaryproto"
  }
  data_param {
    source: "examples/cifar10/cifar10_train_lmdb"
    batch_size: 111
    backend: LMDB
  }
}
layer {
  name: "conv0"
  type: "Convolution"
  bottom: "data"
  top: "conv0"
  param {
    lr_mult: 1
  }
  param {
    lr_mult: 2
  }
  convolution_param {
    num_output: 8
    pad: 2
    kernel_size: 5
    stride: 1
    weight_filler {
      type: "gaussian"
      std: 0.01
    }
    bias_filler {
      type: "constant"
    }
  }
}
layer {
  name: "Sigmoid0"
  type: "Sigmoid"
  bottom: "conv0"
  top: "Sigmoid0"
}
layer {
  name: "pool0"
  type: "Pooling"
  bottom: "Sigmoid0"
  top: "pool0"
  pooling_param {
    pool: AVE
    kernel_size: 3
    stride: 2
  }
}
layer {
  name: "ip1"
  type: "InnerProduct"
  bottom: "pool0"
  top: "ip1"
  param {
    lr_mult: 1
  }
  param {
    lr_mult: 2
  }
  inner_product_param {
    num_output: 20
    weight_filler {
      type: "gaussian"
      std: 0.01
    }
    bias_filler {
      type: "constant"
    }
  }
}
layer {
  name: "relu1"
  type: "ReLU"
  bottom: "ip1"
  top: "ip1"
}
layer {
  name: "ip2"
  type: "InnerProduct"
  bottom: "ip1"
  top: "ip2"
  param {
    lr_mult: 1
  }
  param {
    lr_mult: 2
  }
  inner_product_param {
    num_output: 80
    weight_filler {
      type: "gaussian"
      std: 0.01
    }
    bias_filler {
      type: "constant"
    }
  }
}
layer {
  name: "relu2"
  type: "ReLU"
  bottom: "ip2"
  top: "ip2"
}
layer {
  name: "ip3"
  type: "InnerProduct"
  bottom: "ip2"
  top: "ip3"
  param {
    lr_mult: 1
  }
  param {
    lr_mult: 2
  }
  inner_product_param {
    num_output: 20
    weight_filler {
      type: "gaussian"
      std: 0.01
    }
    bias_filler {
      type: "constant"
    }
  }
}
layer {
  name: "relu3"
  type: "ReLU"
  bottom: "ip3"
  top: "ip3"
}
layer {
  name: "ip4"
  type: "InnerProduct"
  bottom: "ip3"
  top: "ip4"
  param {
    lr_mult: 1
  }
  param {
    lr_mult: 2
  }
  inner_product_param {
    num_output: 10
    weight_filler {
      type: "gaussian"
      std: 0.01
    }
    bias_filler {
      type: "constant"
    }
  }
}
layer {
  name: "loss"
  type: "SoftmaxWithLoss"
  bottom: "ip4"
  bottom: "label"
  top: "loss"
}
I0501 04:17:29.149305 24579 layer_factory.hpp:77] Creating layer cifar
I0501 04:17:29.149406 24579 db_lmdb.cpp:35] Opened lmdb examples/cifar10/cifar10_train_lmdb
I0501 04:17:29.149433 24579 net.cpp:86] Creating Layer cifar
I0501 04:17:29.149441 24579 net.cpp:382] cifar -> data
I0501 04:17:29.149463 24579 net.cpp:382] cifar -> label
I0501 04:17:29.149479 24579 data_transformer.cpp:25] Loading mean file from: examples/cifar10/mean.binaryproto
I0501 04:17:29.151625 24579 data_layer.cpp:45] output data size: 111,3,32,32
I0501 04:17:29.159508 24579 net.cpp:124] Setting up cifar
I0501 04:17:29.159528 24579 net.cpp:131] Top shape: 111 3 32 32 (340992)
I0501 04:17:29.159535 24579 net.cpp:131] Top shape: 111 (111)
I0501 04:17:29.159538 24579 net.cpp:139] Memory required for data: 1364412
I0501 04:17:29.159561 24579 layer_factory.hpp:77] Creating layer conv0
I0501 04:17:29.159584 24579 net.cpp:86] Creating Layer conv0
I0501 04:17:29.159590 24579 net.cpp:408] conv0 <- data
I0501 04:17:29.159602 24579 net.cpp:382] conv0 -> conv0
I0501 04:17:29.453804 24579 net.cpp:124] Setting up conv0
I0501 04:17:29.453835 24579 net.cpp:131] Top shape: 111 8 32 32 (909312)
I0501 04:17:29.453840 24579 net.cpp:139] Memory required for data: 5001660
I0501 04:17:29.453858 24579 layer_factory.hpp:77] Creating layer Sigmoid0
I0501 04:17:29.453873 24579 net.cpp:86] Creating Layer Sigmoid0
I0501 04:17:29.453878 24579 net.cpp:408] Sigmoid0 <- conv0
I0501 04:17:29.453884 24579 net.cpp:382] Sigmoid0 -> Sigmoid0
I0501 04:17:29.454082 24579 net.cpp:124] Setting up Sigmoid0
I0501 04:17:29.454094 24579 net.cpp:131] Top shape: 111 8 32 32 (909312)
I0501 04:17:29.454098 24579 net.cpp:139] Memory required for data: 8638908
I0501 04:17:29.454102 24579 layer_factory.hpp:77] Creating layer pool0
I0501 04:17:29.454116 24579 net.cpp:86] Creating Layer pool0
I0501 04:17:29.454121 24579 net.cpp:408] pool0 <- Sigmoid0
I0501 04:17:29.454126 24579 net.cpp:382] pool0 -> pool0
I0501 04:17:29.454999 24579 net.cpp:124] Setting up pool0
I0501 04:17:29.455015 24579 net.cpp:131] Top shape: 111 8 16 16 (227328)
I0501 04:17:29.455019 24579 net.cpp:139] Memory required for data: 9548220
I0501 04:17:29.455024 24579 layer_factory.hpp:77] Creating layer ip1
I0501 04:17:29.455035 24579 net.cpp:86] Creating Layer ip1
I0501 04:17:29.455039 24579 net.cpp:408] ip1 <- pool0
I0501 04:17:29.455046 24579 net.cpp:382] ip1 -> ip1
I0501 04:17:29.457528 24579 net.cpp:124] Setting up ip1
I0501 04:17:29.457543 24579 net.cpp:131] Top shape: 111 20 (2220)
I0501 04:17:29.457547 24579 net.cpp:139] Memory required for data: 9557100
I0501 04:17:29.457557 24579 layer_factory.hpp:77] Creating layer relu1
I0501 04:17:29.457566 24579 net.cpp:86] Creating Layer relu1
I0501 04:17:29.457569 24579 net.cpp:408] relu1 <- ip1
I0501 04:17:29.457576 24579 net.cpp:369] relu1 -> ip1 (in-place)
I0501 04:17:29.457759 24579 net.cpp:124] Setting up relu1
I0501 04:17:29.457769 24579 net.cpp:131] Top shape: 111 20 (2220)
I0501 04:17:29.457773 24579 net.cpp:139] Memory required for data: 9565980
I0501 04:17:29.457777 24579 layer_factory.hpp:77] Creating layer ip2
I0501 04:17:29.457785 24579 net.cpp:86] Creating Layer ip2
I0501 04:17:29.457789 24579 net.cpp:408] ip2 <- ip1
I0501 04:17:29.457795 24579 net.cpp:382] ip2 -> ip2
I0501 04:17:29.457960 24579 net.cpp:124] Setting up ip2
I0501 04:17:29.457969 24579 net.cpp:131] Top shape: 111 80 (8880)
I0501 04:17:29.457973 24579 net.cpp:139] Memory required for data: 9601500
I0501 04:17:29.457983 24579 layer_factory.hpp:77] Creating layer relu2
I0501 04:17:29.457988 24579 net.cpp:86] Creating Layer relu2
I0501 04:17:29.457993 24579 net.cpp:408] relu2 <- ip2
I0501 04:17:29.457998 24579 net.cpp:369] relu2 -> ip2 (in-place)
I0501 04:17:29.458174 24579 net.cpp:124] Setting up relu2
I0501 04:17:29.458185 24579 net.cpp:131] Top shape: 111 80 (8880)
I0501 04:17:29.458189 24579 net.cpp:139] Memory required for data: 9637020
I0501 04:17:29.458192 24579 layer_factory.hpp:77] Creating layer ip3
I0501 04:17:29.458201 24579 net.cpp:86] Creating Layer ip3
I0501 04:17:29.458205 24579 net.cpp:408] ip3 <- ip2
I0501 04:17:29.458210 24579 net.cpp:382] ip3 -> ip3
I0501 04:17:29.458374 24579 net.cpp:124] Setting up ip3
I0501 04:17:29.458384 24579 net.cpp:131] Top shape: 111 20 (2220)
I0501 04:17:29.458386 24579 net.cpp:139] Memory required for data: 9645900
I0501 04:17:29.458394 24579 layer_factory.hpp:77] Creating layer relu3
I0501 04:17:29.458398 24579 net.cpp:86] Creating Layer relu3
I0501 04:17:29.458403 24579 net.cpp:408] relu3 <- ip3
I0501 04:17:29.458407 24579 net.cpp:369] relu3 -> ip3 (in-place)
I0501 04:17:29.458576 24579 net.cpp:124] Setting up relu3
I0501 04:17:29.458586 24579 net.cpp:131] Top shape: 111 20 (2220)
I0501 04:17:29.458590 24579 net.cpp:139] Memory required for data: 9654780
I0501 04:17:29.458595 24579 layer_factory.hpp:77] Creating layer ip4
I0501 04:17:29.458621 24579 net.cpp:86] Creating Layer ip4
I0501 04:17:29.458624 24579 net.cpp:408] ip4 <- ip3
I0501 04:17:29.458631 24579 net.cpp:382] ip4 -> ip4
I0501 04:17:29.458748 24579 net.cpp:124] Setting up ip4
I0501 04:17:29.458757 24579 net.cpp:131] Top shape: 111 10 (1110)
I0501 04:17:29.458761 24579 net.cpp:139] Memory required for data: 9659220
I0501 04:17:29.458771 24579 layer_factory.hpp:77] Creating layer loss
I0501 04:17:29.458778 24579 net.cpp:86] Creating Layer loss
I0501 04:17:29.458782 24579 net.cpp:408] loss <- ip4
I0501 04:17:29.458786 24579 net.cpp:408] loss <- label
I0501 04:17:29.458793 24579 net.cpp:382] loss -> loss
I0501 04:17:29.458814 24579 layer_factory.hpp:77] Creating layer loss
…
I0501 04:17:29.460253 24579 solver.cpp:173] Creating test net (#0) specified by net file: ECE595/cifar/train_test/var_everything/cifar_train_test_381.prototxt
I0501 04:17:29.460288 24579 net.cpp:296] The NetState phase (1) differed from the phase (0) specified by a rule in layer cifar
I0501 04:17:29.460400 24579 net.cpp:53] Initializing net from parameters: 
name: "CIFAR"
state {
  phase: TEST
}
layer {
  name: "cifar"
  type: "Data"
  top: "data"
  top: "label"
  include {
    phase: TEST
  }
  transform_param {
    mean_file: "examples/cifar10/mean.binaryproto"
  }
  data_param {
    source: "examples/cifar10/cifar10_test_lmdb"
    batch_size: 1000
    backend: LMDB
  }
}
layer {
  name: "conv0"
  type: "Convolution"
  bottom: "data"
  top: "conv0"
  param {
    lr_mult: 1
  }
  param {
    lr_mult: 2
  }
  convolution_param {
    num_output: 8
    pad: 2
    kernel_size: 5
    stride: 1
    weight_filler {
      type: "gaussian"
      std: 0.01
    }
    bias_filler {
      type: "constant"
    }
  }
}
layer {
  name: "Sigmoid0"
  type: "Sigmoid"
  bottom: "conv0"
  top: "Sigmoid0"
}
layer {
  name: "pool0"
  type: "Pooling"
  bottom: "Sigmoid0"
  top: "pool0"
  pooling_param {
    pool: AVE
    kernel_size: 3
    stride: 2
  }
}
layer {
  name: "ip1"
  type: "InnerProduct"
  bottom: "pool0"
  top: "ip1"
  param {
    lr_mult: 1
  }
  param {
    lr_mult: 2
  }
  inner_product_param {
    num_output: 20
    weight_filler {
      type: "gaussian"
      std: 0.01
    }
    bias_filler {
      type: "constant"
    }
  }
}
layer {
  name: "relu1"
  type: "ReLU"
  bottom: "ip1"
  top: "ip1"
}
layer {
  name: "ip2"
  type: "InnerProduct"
  bottom: "ip1"
  top: "ip2"
  param {
    lr_mult: 1
  }
  param {
    lr_mult: 2
  }
  inner_product_param {
    num_output: 80
    weight_filler {
      type: "gaussian"
      std: 0.01
    }
    bias_filler {
      type: "constant"
    }
  }
}
layer {
  name: "relu2"
  type: "ReLU"
  bottom: "ip2"
  top: "ip2"
}
layer {
  name: "ip3"
  type: "InnerProduct"
  bottom: "ip2"
  top: "ip3"
  param {
    lr_mult: 1
  }
  param {
    lr_mult: 2
  }
  inner_product_param {
    num_output: 20
    weight_filler {
      type: "gaussian"
      std: 0.01
    }
    bias_filler {
      type: "constant"
    }
  }
}
layer {
  name: "relu3"
  type: "ReLU"
  bottom: "ip3"
  top: "ip3"
}
layer {
  name: "ip4"
  type: "InnerProduct"
  bottom: "ip3"
  top: "ip4"
  param {
    lr_mult: 1
  }
  param {
    lr_mult: 2
  }
  inner_product_param {
    num_output: 10
    weight_filler {
      type: "gaussian"
      std: 0.01
    }
    bias_filler {
      type: "constant"
    }
  }
}
layer {
  name: "accuracy"
  type: "Accuracy"
  bottom: "ip4"
  bottom: "label"
  top: "accuracy"
  include {
    phase: TEST
  }
}
layer {
  name: "loss"
  type: "SoftmaxWithLoss"
  bottom: "ip4"
  bottom: "label"
  top: "loss"
}
I0501 04:17:29.460496 24579 layer_factory.hpp:77] Creating layer cifar
I0501 04:17:29.460552 24579 db_lmdb.cpp:35] Opened lmdb examples/cifar10/cifar10_test_lmdb
I0501 04:17:29.460567 24579 net.cpp:86] Creating Layer cifar
I0501 04:17:29.460573 24579 net.cpp:382] cifar -> data
I0501 04:17:29.460582 24579 net.cpp:382] cifar -> label
I0501 04:17:29.460590 24579 data_transformer.cpp:25] Loading mean file from: examples/cifar10/mean.binaryproto
I0501 04:17:29.460757 24579 data_layer.cpp:45] output data size: 1000,3,32,32
I0501 04:17:29.486224 24579 net.cpp:124] Setting up cifar
I0501 04:17:29.486254 24579 net.cpp:131] Top shape: 1000 3 32 32 (3072000)
I0501 04:17:29.486260 24579 net.cpp:131] Top shape: 1000 (1000)
I0501 04:17:29.486264 24579 net.cpp:139] Memory required for data: 12292000
I0501 04:17:29.486271 24579 layer_factory.hpp:77] Creating layer label_cifar_1_split
I0501 04:17:29.486284 24579 net.cpp:86] Creating Layer label_cifar_1_split
I0501 04:17:29.486289 24579 net.cpp:408] label_cifar_1_split <- label
I0501 04:17:29.486295 24579 net.cpp:382] label_cifar_1_split -> label_cifar_1_split_0
I0501 04:17:29.486304 24579 net.cpp:382] label_cifar_1_split -> label_cifar_1_split_1
I0501 04:17:29.486418 24579 net.cpp:124] Setting up label_cifar_1_split
I0501 04:17:29.486428 24579 net.cpp:131] Top shape: 1000 (1000)
I0501 04:17:29.486431 24579 net.cpp:131] Top shape: 1000 (1000)
I0501 04:17:29.486435 24579 net.cpp:139] Memory required for data: 12300000
I0501 04:17:29.486438 24579 layer_factory.hpp:77] Creating layer conv0
I0501 04:17:29.486451 24579 net.cpp:86] Creating Layer conv0
I0501 04:17:29.486456 24579 net.cpp:408] conv0 <- data
I0501 04:17:29.486461 24579 net.cpp:382] conv0 -> conv0
I0501 04:17:29.488224 24579 net.cpp:124] Setting up conv0
I0501 04:17:29.488240 24579 net.cpp:131] Top shape: 1000 8 32 32 (8192000)
I0501 04:17:29.488245 24579 net.cpp:139] Memory required for data: 45068000
I0501 04:17:29.488255 24579 layer_factory.hpp:77] Creating layer Sigmoid0
I0501 04:17:29.488262 24579 net.cpp:86] Creating Layer Sigmoid0
I0501 04:17:29.488267 24579 net.cpp:408] Sigmoid0 <- conv0
I0501 04:17:29.488272 24579 net.cpp:382] Sigmoid0 -> Sigmoid0
I0501 04:17:29.488456 24579 net.cpp:124] Setting up Sigmoid0
I0501 04:17:29.488466 24579 net.cpp:131] Top shape: 1000 8 32 32 (8192000)
I0501 04:17:29.488471 24579 net.cpp:139] Memory required for data: 77836000
I0501 04:17:29.488474 24579 layer_factory.hpp:77] Creating layer pool0
I0501 04:17:29.488482 24579 net.cpp:86] Creating Layer pool0
I0501 04:17:29.488487 24579 net.cpp:408] pool0 <- Sigmoid0
I0501 04:17:29.488492 24579 net.cpp:382] pool0 -> pool0
I0501 04:17:29.488732 24579 net.cpp:124] Setting up pool0
I0501 04:17:29.488742 24579 net.cpp:131] Top shape: 1000 8 16 16 (2048000)
I0501 04:17:29.488746 24579 net.cpp:139] Memory required for data: 86028000
I0501 04:17:29.488750 24579 layer_factory.hpp:77] Creating layer ip1
I0501 04:17:29.488759 24579 net.cpp:86] Creating Layer ip1
I0501 04:17:29.488762 24579 net.cpp:408] ip1 <- pool0
I0501 04:17:29.488768 24579 net.cpp:382] ip1 -> ip1
I0501 04:17:29.491042 24579 net.cpp:124] Setting up ip1
I0501 04:17:29.491053 24579 net.cpp:131] Top shape: 1000 20 (20000)
I0501 04:17:29.491057 24579 net.cpp:139] Memory required for data: 86108000
I0501 04:17:29.491082 24579 layer_factory.hpp:77] Creating layer relu1
I0501 04:17:29.491089 24579 net.cpp:86] Creating Layer relu1
I0501 04:17:29.491093 24579 net.cpp:408] relu1 <- ip1
I0501 04:17:29.491098 24579 net.cpp:369] relu1 -> ip1 (in-place)
I0501 04:17:29.491274 24579 net.cpp:124] Setting up relu1
I0501 04:17:29.491284 24579 net.cpp:131] Top shape: 1000 20 (20000)
I0501 04:17:29.491288 24579 net.cpp:139] Memory required for data: 86188000
I0501 04:17:29.491291 24579 layer_factory.hpp:77] Creating layer ip2
I0501 04:17:29.491298 24579 net.cpp:86] Creating Layer ip2
I0501 04:17:29.491302 24579 net.cpp:408] ip2 <- ip1
I0501 04:17:29.491307 24579 net.cpp:382] ip2 -> ip2
I0501 04:17:29.491469 24579 net.cpp:124] Setting up ip2
I0501 04:17:29.491477 24579 net.cpp:131] Top shape: 1000 80 (80000)
I0501 04:17:29.491490 24579 net.cpp:139] Memory required for data: 86508000
I0501 04:17:29.491498 24579 layer_factory.hpp:77] Creating layer relu2
I0501 04:17:29.491505 24579 net.cpp:86] Creating Layer relu2
I0501 04:17:29.491508 24579 net.cpp:408] relu2 <- ip2
I0501 04:17:29.491513 24579 net.cpp:369] relu2 -> ip2 (in-place)
I0501 04:17:29.492331 24579 net.cpp:124] Setting up relu2
I0501 04:17:29.492344 24579 net.cpp:131] Top shape: 1000 80 (80000)
I0501 04:17:29.492357 24579 net.cpp:139] Memory required for data: 86828000
I0501 04:17:29.492362 24579 layer_factory.hpp:77] Creating layer ip3
I0501 04:17:29.492369 24579 net.cpp:86] Creating Layer ip3
I0501 04:17:29.492373 24579 net.cpp:408] ip3 <- ip2
I0501 04:17:29.492379 24579 net.cpp:382] ip3 -> ip3
I0501 04:17:29.492545 24579 net.cpp:124] Setting up ip3
I0501 04:17:29.492554 24579 net.cpp:131] Top shape: 1000 20 (20000)
I0501 04:17:29.492558 24579 net.cpp:139] Memory required for data: 86908000
I0501 04:17:29.492564 24579 layer_factory.hpp:77] Creating layer relu3
I0501 04:17:29.492569 24579 net.cpp:86] Creating Layer relu3
I0501 04:17:29.492573 24579 net.cpp:408] relu3 <- ip3
I0501 04:17:29.492578 24579 net.cpp:369] relu3 -> ip3 (in-place)
I0501 04:17:29.492741 24579 net.cpp:124] Setting up relu3
I0501 04:17:29.492750 24579 net.cpp:131] Top shape: 1000 20 (20000)
I0501 04:17:29.492753 24579 net.cpp:139] Memory required for data: 86988000
I0501 04:17:29.492758 24579 layer_factory.hpp:77] Creating layer ip4
I0501 04:17:29.492764 24579 net.cpp:86] Creating Layer ip4
I0501 04:17:29.492768 24579 net.cpp:408] ip4 <- ip3
I0501 04:17:29.492774 24579 net.cpp:382] ip4 -> ip4
I0501 04:17:29.492897 24579 net.cpp:124] Setting up ip4
I0501 04:17:29.492905 24579 net.cpp:131] Top shape: 1000 10 (10000)
I0501 04:17:29.492910 24579 net.cpp:139] Memory required for data: 87028000
I0501 04:17:29.492919 24579 layer_factory.hpp:77] Creating layer ip4_ip4_0_split
I0501 04:17:29.492925 24579 net.cpp:86] Creating Layer ip4_ip4_0_split
I0501 04:17:29.492929 24579 net.cpp:408] ip4_ip4_0_split <- ip4
I0501 04:17:29.492934 24579 net.cpp:382] ip4_ip4_0_split -> ip4_ip4_0_split_0
I0501 04:17:29.492940 24579 net.cpp:382] ip4_ip4_0_split -> ip4_ip4_0_split_1
I0501 04:17:29.492974 24579 net.cpp:124] Setting up ip4_ip4_0_split
I0501 04:17:29.492979 24579 net.cpp:131] Top shape: 1000 10 (10000)
I0501 04:17:29.492982 24579 net.cpp:131] Top shape: 1000 10 (10000)
I0501 04:17:29.492986 24579 net.cpp:139] Memory required for data: 87108000
I0501 04:17:29.492990 24579 layer_factory.hpp:77] Creating layer accuracy
I0501 04:17:29.493001 24579 net.cpp:86] Creating Layer accuracy
I0501 04:17:29.493005 24579 net.cpp:408] accuracy <- ip4_ip4_0_split_0
I0501 04:17:29.493010 24579 net.cpp:408] accuracy <- label_cifar_1_split_0
I0501 04:17:29.493016 24579 net.cpp:382] accuracy -> accuracy
…
