…
I0430 19:31:35.322152 26133 net.cpp:296] The NetState phase (0) differed from the phase (1) specified by a rule in layer cifar
I0430 19:31:35.322168 26133 net.cpp:296] The NetState phase (0) differed from the phase (1) specified by a rule in layer accuracy
I0430 19:31:35.322252 26133 net.cpp:53] Initializing net from parameters: 
name: "CIFAR"
state {
  phase: TRAIN
  level: 0
  stage: ""
}
layer {
  name: "cifar"
  type: "Data"
  top: "data"
  top: "label"
  include {
    phase: TRAIN
  }
  transform_param {
    mean_file: "examples/cifar10/mean.binaryproto"
  }
  data_param {
    source: "examples/cifar10/cifar10_train_lmdb"
    batch_size: 111
    backend: LMDB
  }
}
layer {
  name: "ip1"
  type: "InnerProduct"
  bottom: "data"
  top: "ip1"
  param {
    lr_mult: 1
  }
  param {
    lr_mult: 2
  }
  inner_product_param {
    num_output: 40
    weight_filler {
      type: "gaussian"
      std: 0.01
    }
    bias_filler {
      type: "constant"
    }
  }
}
layer {
  name: "relu1"
  type: "ReLU"
  bottom: "ip1"
  top: "ip1"
}
layer {
  name: "ip2"
  type: "InnerProduct"
  bottom: "ip1"
  top: "ip2"
  param {
    lr_mult: 1
  }
  param {
    lr_mult: 2
  }
  inner_product_param {
    num_output: 160
    weight_filler {
      type: "gaussian"
      std: 0.01
    }
    bias_filler {
      type: "constant"
    }
  }
}
layer {
  name: "relu2"
  type: "ReLU"
  bottom: "ip2"
  top: "ip2"
}
layer {
  name: "ip3"
  type: "InnerProduct"
  bottom: "ip2"
  top: "ip3"
  param {
    lr_mult: 1
  }
  param {
    lr_mult: 2
  }
  inner_product_param {
    num_output: 10
    weight_filler {
      type: "gaussian"
      std: 0.01
    }
    bias_filler {
      type: "constant"
    }
  }
}
layer {
  name: "relu3"
  type: "ReLU"
  bottom: "ip3"
  top: "ip3"
}
layer {
  name: "ip4"
  type: "InnerProduct"
  bottom: "ip3"
  top: "ip4"
  param {
    lr_mult: 1
  }
  param {
    lr_mult: 2
  }
  inner_product_param {
    num_output: 10
    weight_filler {
      type: "gaussian"
      std: 0.01
    }
    bias_filler {
      type: "constant"
    }
  }
}
layer {
  name: "loss"
  type: "SoftmaxWithLoss"
  bottom: "ip4"
  bottom: "label"
  top: "loss"
}
I0430 19:31:35.322316 26133 layer_factory.hpp:77] Creating layer cifar
I0430 19:31:35.322419 26133 db_lmdb.cpp:35] Opened lmdb examples/cifar10/cifar10_train_lmdb
I0430 19:31:35.322445 26133 net.cpp:86] Creating Layer cifar
I0430 19:31:35.322453 26133 net.cpp:382] cifar -> data
I0430 19:31:35.322476 26133 net.cpp:382] cifar -> label
I0430 19:31:35.322489 26133 data_transformer.cpp:25] Loading mean file from: examples/cifar10/mean.binaryproto
I0430 19:31:35.324589 26133 data_layer.cpp:45] output data size: 111,3,32,32
I0430 19:31:35.332470 26133 net.cpp:124] Setting up cifar
I0430 19:31:35.332490 26133 net.cpp:131] Top shape: 111 3 32 32 (340992)
I0430 19:31:35.332496 26133 net.cpp:131] Top shape: 111 (111)
I0430 19:31:35.332500 26133 net.cpp:139] Memory required for data: 1364412
I0430 19:31:35.332509 26133 layer_factory.hpp:77] Creating layer ip1
I0430 19:31:35.332520 26133 net.cpp:86] Creating Layer ip1
I0430 19:31:35.332525 26133 net.cpp:408] ip1 <- data
I0430 19:31:35.332537 26133 net.cpp:382] ip1 -> ip1
I0430 19:31:35.336781 26133 net.cpp:124] Setting up ip1
I0430 19:31:35.336793 26133 net.cpp:131] Top shape: 111 40 (4440)
I0430 19:31:35.336797 26133 net.cpp:139] Memory required for data: 1382172
I0430 19:31:35.336817 26133 layer_factory.hpp:77] Creating layer relu1
I0430 19:31:35.336825 26133 net.cpp:86] Creating Layer relu1
I0430 19:31:35.336845 26133 net.cpp:408] relu1 <- ip1
I0430 19:31:35.336853 26133 net.cpp:369] relu1 -> ip1 (in-place)
I0430 19:31:35.617291 26133 net.cpp:124] Setting up relu1
I0430 19:31:35.617319 26133 net.cpp:131] Top shape: 111 40 (4440)
I0430 19:31:35.617323 26133 net.cpp:139] Memory required for data: 1399932
I0430 19:31:35.617329 26133 layer_factory.hpp:77] Creating layer ip2
I0430 19:31:35.617341 26133 net.cpp:86] Creating Layer ip2
I0430 19:31:35.617347 26133 net.cpp:408] ip2 <- ip1
I0430 19:31:35.617354 26133 net.cpp:382] ip2 -> ip2
I0430 19:31:35.618477 26133 net.cpp:124] Setting up ip2
I0430 19:31:35.618490 26133 net.cpp:131] Top shape: 111 160 (17760)
I0430 19:31:35.618494 26133 net.cpp:139] Memory required for data: 1470972
I0430 19:31:35.618504 26133 layer_factory.hpp:77] Creating layer relu2
I0430 19:31:35.618511 26133 net.cpp:86] Creating Layer relu2
I0430 19:31:35.618515 26133 net.cpp:408] relu2 <- ip2
I0430 19:31:35.618518 26133 net.cpp:369] relu2 -> ip2 (in-place)
I0430 19:31:35.619266 26133 net.cpp:124] Setting up relu2
I0430 19:31:35.619278 26133 net.cpp:131] Top shape: 111 160 (17760)
I0430 19:31:35.619282 26133 net.cpp:139] Memory required for data: 1542012
I0430 19:31:35.619285 26133 layer_factory.hpp:77] Creating layer ip3
I0430 19:31:35.619292 26133 net.cpp:86] Creating Layer ip3
I0430 19:31:35.619295 26133 net.cpp:408] ip3 <- ip2
I0430 19:31:35.619300 26133 net.cpp:382] ip3 -> ip3
I0430 19:31:35.619432 26133 net.cpp:124] Setting up ip3
I0430 19:31:35.619441 26133 net.cpp:131] Top shape: 111 10 (1110)
I0430 19:31:35.619443 26133 net.cpp:139] Memory required for data: 1546452
I0430 19:31:35.619451 26133 layer_factory.hpp:77] Creating layer relu3
I0430 19:31:35.619457 26133 net.cpp:86] Creating Layer relu3
I0430 19:31:35.619459 26133 net.cpp:408] relu3 <- ip3
I0430 19:31:35.619463 26133 net.cpp:369] relu3 -> ip3 (in-place)
I0430 19:31:35.619604 26133 net.cpp:124] Setting up relu3
I0430 19:31:35.619612 26133 net.cpp:131] Top shape: 111 10 (1110)
I0430 19:31:35.619616 26133 net.cpp:139] Memory required for data: 1550892
I0430 19:31:35.619618 26133 layer_factory.hpp:77] Creating layer ip4
I0430 19:31:35.619624 26133 net.cpp:86] Creating Layer ip4
I0430 19:31:35.619627 26133 net.cpp:408] ip4 <- ip3
I0430 19:31:35.619632 26133 net.cpp:382] ip4 -> ip4
I0430 19:31:35.619722 26133 net.cpp:124] Setting up ip4
I0430 19:31:35.619729 26133 net.cpp:131] Top shape: 111 10 (1110)
I0430 19:31:35.619731 26133 net.cpp:139] Memory required for data: 1555332
I0430 19:31:35.619736 26133 layer_factory.hpp:77] Creating layer loss
I0430 19:31:35.619742 26133 net.cpp:86] Creating Layer loss
I0430 19:31:35.619745 26133 net.cpp:408] loss <- ip4
I0430 19:31:35.619750 26133 net.cpp:408] loss <- label
I0430 19:31:35.619755 26133 net.cpp:382] loss -> loss
I0430 19:31:35.619771 26133 layer_factory.hpp:77] Creating layer loss
…
I0430 19:31:35.620342 26133 solver.cpp:173] Creating test net (#0) specified by net file: ECE595/cifar/train_test/var_everything/cifar_train_test_100.prototxt
I0430 19:31:35.620378 26133 net.cpp:296] The NetState phase (1) differed from the phase (0) specified by a rule in layer cifar
I0430 19:31:35.620452 26133 net.cpp:53] Initializing net from parameters: 
name: "CIFAR"
state {
  phase: TEST
}
layer {
  name: "cifar"
  type: "Data"
  top: "data"
  top: "label"
  include {
    phase: TEST
  }
  transform_param {
    mean_file: "examples/cifar10/mean.binaryproto"
  }
  data_param {
    source: "examples/cifar10/cifar10_test_lmdb"
    batch_size: 1000
    backend: LMDB
  }
}
layer {
  name: "ip1"
  type: "InnerProduct"
  bottom: "data"
  top: "ip1"
  param {
    lr_mult: 1
  }
  param {
    lr_mult: 2
  }
  inner_product_param {
    num_output: 40
    weight_filler {
      type: "gaussian"
      std: 0.01
    }
    bias_filler {
      type: "constant"
    }
  }
}
layer {
  name: "relu1"
  type: "ReLU"
  bottom: "ip1"
  top: "ip1"
}
layer {
  name: "ip2"
  type: "InnerProduct"
  bottom: "ip1"
  top: "ip2"
  param {
    lr_mult: 1
  }
  param {
    lr_mult: 2
  }
  inner_product_param {
    num_output: 160
    weight_filler {
      type: "gaussian"
      std: 0.01
    }
    bias_filler {
      type: "constant"
    }
  }
}
layer {
  name: "relu2"
  type: "ReLU"
  bottom: "ip2"
  top: "ip2"
}
layer {
  name: "ip3"
  type: "InnerProduct"
  bottom: "ip2"
  top: "ip3"
  param {
    lr_mult: 1
  }
  param {
    lr_mult: 2
  }
  inner_product_param {
    num_output: 10
    weight_filler {
      type: "gaussian"
      std: 0.01
    }
    bias_filler {
      type: "constant"
    }
  }
}
layer {
  name: "relu3"
  type: "ReLU"
  bottom: "ip3"
  top: "ip3"
}
layer {
  name: "ip4"
  type: "InnerProduct"
  bottom: "ip3"
  top: "ip4"
  param {
    lr_mult: 1
  }
  param {
    lr_mult: 2
  }
  inner_product_param {
    num_output: 10
    weight_filler {
      type: "gaussian"
      std: 0.01
    }
    bias_filler {
      type: "constant"
    }
  }
}
layer {
  name: "accuracy"
  type: "Accuracy"
  bottom: "ip4"
  bottom: "label"
  top: "accuracy"
  include {
    phase: TEST
  }
}
layer {
  name: "loss"
  type: "SoftmaxWithLoss"
  bottom: "ip4"
  bottom: "label"
  top: "loss"
}
I0430 19:31:35.620510 26133 layer_factory.hpp:77] Creating layer cifar
I0430 19:31:35.620554 26133 db_lmdb.cpp:35] Opened lmdb examples/cifar10/cifar10_test_lmdb
I0430 19:31:35.620566 26133 net.cpp:86] Creating Layer cifar
I0430 19:31:35.620570 26133 net.cpp:382] cifar -> data
I0430 19:31:35.620579 26133 net.cpp:382] cifar -> label
I0430 19:31:35.620584 26133 data_transformer.cpp:25] Loading mean file from: examples/cifar10/mean.binaryproto
I0430 19:31:35.620721 26133 data_layer.cpp:45] output data size: 1000,3,32,32
I0430 19:31:35.643692 26133 net.cpp:124] Setting up cifar
I0430 19:31:35.643718 26133 net.cpp:131] Top shape: 1000 3 32 32 (3072000)
I0430 19:31:35.643724 26133 net.cpp:131] Top shape: 1000 (1000)
I0430 19:31:35.643728 26133 net.cpp:139] Memory required for data: 12292000
I0430 19:31:35.643733 26133 layer_factory.hpp:77] Creating layer label_cifar_1_split
I0430 19:31:35.643748 26133 net.cpp:86] Creating Layer label_cifar_1_split
I0430 19:31:35.643752 26133 net.cpp:408] label_cifar_1_split <- label
I0430 19:31:35.643759 26133 net.cpp:382] label_cifar_1_split -> label_cifar_1_split_0
I0430 19:31:35.643767 26133 net.cpp:382] label_cifar_1_split -> label_cifar_1_split_1
I0430 19:31:35.643872 26133 net.cpp:124] Setting up label_cifar_1_split
I0430 19:31:35.643879 26133 net.cpp:131] Top shape: 1000 (1000)
I0430 19:31:35.643883 26133 net.cpp:131] Top shape: 1000 (1000)
I0430 19:31:35.643885 26133 net.cpp:139] Memory required for data: 12300000
I0430 19:31:35.643888 26133 layer_factory.hpp:77] Creating layer ip1
I0430 19:31:35.643898 26133 net.cpp:86] Creating Layer ip1
I0430 19:31:35.643900 26133 net.cpp:408] ip1 <- data
I0430 19:31:35.643905 26133 net.cpp:382] ip1 -> ip1
I0430 19:31:35.647238 26133 net.cpp:124] Setting up ip1
I0430 19:31:35.647248 26133 net.cpp:131] Top shape: 1000 40 (40000)
I0430 19:31:35.647253 26133 net.cpp:139] Memory required for data: 12460000
I0430 19:31:35.647291 26133 layer_factory.hpp:77] Creating layer relu1
I0430 19:31:35.647299 26133 net.cpp:86] Creating Layer relu1
I0430 19:31:35.647301 26133 net.cpp:408] relu1 <- ip1
I0430 19:31:35.647306 26133 net.cpp:369] relu1 -> ip1 (in-place)
I0430 19:31:35.648075 26133 net.cpp:124] Setting up relu1
I0430 19:31:35.648088 26133 net.cpp:131] Top shape: 1000 40 (40000)
I0430 19:31:35.648092 26133 net.cpp:139] Memory required for data: 12620000
I0430 19:31:35.648095 26133 layer_factory.hpp:77] Creating layer ip2
I0430 19:31:35.648103 26133 net.cpp:86] Creating Layer ip2
I0430 19:31:35.648121 26133 net.cpp:408] ip2 <- ip1
I0430 19:31:35.648128 26133 net.cpp:382] ip2 -> ip2
I0430 19:31:35.648402 26133 net.cpp:124] Setting up ip2
I0430 19:31:35.648411 26133 net.cpp:131] Top shape: 1000 160 (160000)
I0430 19:31:35.648422 26133 net.cpp:139] Memory required for data: 13260000
I0430 19:31:35.648429 26133 layer_factory.hpp:77] Creating layer relu2
I0430 19:31:35.648434 26133 net.cpp:86] Creating Layer relu2
I0430 19:31:35.648438 26133 net.cpp:408] relu2 <- ip2
I0430 19:31:35.648442 26133 net.cpp:369] relu2 -> ip2 (in-place)
I0430 19:31:35.648614 26133 net.cpp:124] Setting up relu2
I0430 19:31:35.648623 26133 net.cpp:131] Top shape: 1000 160 (160000)
I0430 19:31:35.648627 26133 net.cpp:139] Memory required for data: 13900000
I0430 19:31:35.648629 26133 layer_factory.hpp:77] Creating layer ip3
I0430 19:31:35.648635 26133 net.cpp:86] Creating Layer ip3
I0430 19:31:35.648638 26133 net.cpp:408] ip3 <- ip2
I0430 19:31:35.648643 26133 net.cpp:382] ip3 -> ip3
I0430 19:31:35.648792 26133 net.cpp:124] Setting up ip3
I0430 19:31:35.648800 26133 net.cpp:131] Top shape: 1000 10 (10000)
I0430 19:31:35.648825 26133 net.cpp:139] Memory required for data: 13940000
I0430 19:31:35.648838 26133 layer_factory.hpp:77] Creating layer relu3
I0430 19:31:35.648844 26133 net.cpp:86] Creating Layer relu3
I0430 19:31:35.648847 26133 net.cpp:408] relu3 <- ip3
I0430 19:31:35.648851 26133 net.cpp:369] relu3 -> ip3 (in-place)
I0430 19:31:35.649022 26133 net.cpp:124] Setting up relu3
I0430 19:31:35.649031 26133 net.cpp:131] Top shape: 1000 10 (10000)
I0430 19:31:35.649035 26133 net.cpp:139] Memory required for data: 13980000
I0430 19:31:35.649039 26133 layer_factory.hpp:77] Creating layer ip4
I0430 19:31:35.649047 26133 net.cpp:86] Creating Layer ip4
I0430 19:31:35.649050 26133 net.cpp:408] ip4 <- ip3
I0430 19:31:35.649055 26133 net.cpp:382] ip4 -> ip4
I0430 19:31:35.649180 26133 net.cpp:124] Setting up ip4
I0430 19:31:35.649188 26133 net.cpp:131] Top shape: 1000 10 (10000)
I0430 19:31:35.649190 26133 net.cpp:139] Memory required for data: 14020000
I0430 19:31:35.649209 26133 layer_factory.hpp:77] Creating layer ip4_ip4_0_split
I0430 19:31:35.649215 26133 net.cpp:86] Creating Layer ip4_ip4_0_split
I0430 19:31:35.649219 26133 net.cpp:408] ip4_ip4_0_split <- ip4
I0430 19:31:35.649222 26133 net.cpp:382] ip4_ip4_0_split -> ip4_ip4_0_split_0
I0430 19:31:35.649229 26133 net.cpp:382] ip4_ip4_0_split -> ip4_ip4_0_split_1
I0430 19:31:35.649260 26133 net.cpp:124] Setting up ip4_ip4_0_split
I0430 19:31:35.649266 26133 net.cpp:131] Top shape: 1000 10 (10000)
I0430 19:31:35.649269 26133 net.cpp:131] Top shape: 1000 10 (10000)
I0430 19:31:35.649271 26133 net.cpp:139] Memory required for data: 14100000
I0430 19:31:35.649274 26133 layer_factory.hpp:77] Creating layer accuracy
I0430 19:31:35.649279 26133 net.cpp:86] Creating Layer accuracy
I0430 19:31:35.649283 26133 net.cpp:408] accuracy <- ip4_ip4_0_split_0
I0430 19:31:35.649287 26133 net.cpp:408] accuracy <- label_cifar_1_split_0
I0430 19:31:35.649291 26133 net.cpp:382] accuracy -> accuracy
…
