…
I0430 19:52:23.063529 27119 net.cpp:296] The NetState phase (0) differed from the phase (1) specified by a rule in layer cifar
I0430 19:52:23.063545 27119 net.cpp:296] The NetState phase (0) differed from the phase (1) specified by a rule in layer accuracy
I0430 19:52:23.063629 27119 net.cpp:53] Initializing net from parameters: 
name: "CIFAR"
state {
  phase: TRAIN
  level: 0
  stage: ""
}
layer {
  name: "cifar"
  type: "Data"
  top: "data"
  top: "label"
  include {
    phase: TRAIN
  }
  transform_param {
    mean_file: "examples/cifar10/mean.binaryproto"
  }
  data_param {
    source: "examples/cifar10/cifar10_train_lmdb"
    batch_size: 111
    backend: LMDB
  }
}
layer {
  name: "ip1"
  type: "InnerProduct"
  bottom: "data"
  top: "ip1"
  param {
    lr_mult: 1
  }
  param {
    lr_mult: 2
  }
  inner_product_param {
    num_output: 80
    weight_filler {
      type: "gaussian"
      std: 0.01
    }
    bias_filler {
      type: "constant"
    }
  }
}
layer {
  name: "relu1"
  type: "ReLU"
  bottom: "ip1"
  top: "ip1"
}
layer {
  name: "ip2"
  type: "InnerProduct"
  bottom: "ip1"
  top: "ip2"
  param {
    lr_mult: 1
  }
  param {
    lr_mult: 2
  }
  inner_product_param {
    num_output: 20
    weight_filler {
      type: "gaussian"
      std: 0.01
    }
    bias_filler {
      type: "constant"
    }
  }
}
layer {
  name: "relu2"
  type: "ReLU"
  bottom: "ip2"
  top: "ip2"
}
layer {
  name: "ip3"
  type: "InnerProduct"
  bottom: "ip2"
  top: "ip3"
  param {
    lr_mult: 1
  }
  param {
    lr_mult: 2
  }
  inner_product_param {
    num_output: 20
    weight_filler {
      type: "gaussian"
      std: 0.01
    }
    bias_filler {
      type: "constant"
    }
  }
}
layer {
  name: "relu3"
  type: "ReLU"
  bottom: "ip3"
  top: "ip3"
}
layer {
  name: "ip4"
  type: "InnerProduct"
  bottom: "ip3"
  top: "ip4"
  param {
    lr_mult: 1
  }
  param {
    lr_mult: 2
  }
  inner_product_param {
    num_output: 10
    weight_filler {
      type: "gaussian"
      std: 0.01
    }
    bias_filler {
      type: "constant"
    }
  }
}
layer {
  name: "loss"
  type: "SoftmaxWithLoss"
  bottom: "ip4"
  bottom: "label"
  top: "loss"
}
I0430 19:52:23.063699 27119 layer_factory.hpp:77] Creating layer cifar
I0430 19:52:23.063796 27119 db_lmdb.cpp:35] Opened lmdb examples/cifar10/cifar10_train_lmdb
I0430 19:52:23.063823 27119 net.cpp:86] Creating Layer cifar
I0430 19:52:23.063832 27119 net.cpp:382] cifar -> data
I0430 19:52:23.063854 27119 net.cpp:382] cifar -> label
I0430 19:52:23.063866 27119 data_transformer.cpp:25] Loading mean file from: examples/cifar10/mean.binaryproto
I0430 19:52:23.065990 27119 data_layer.cpp:45] output data size: 111,3,32,32
I0430 19:52:23.073890 27119 net.cpp:124] Setting up cifar
I0430 19:52:23.073911 27119 net.cpp:131] Top shape: 111 3 32 32 (340992)
I0430 19:52:23.073920 27119 net.cpp:131] Top shape: 111 (111)
I0430 19:52:23.073922 27119 net.cpp:139] Memory required for data: 1364412
I0430 19:52:23.073930 27119 layer_factory.hpp:77] Creating layer ip1
I0430 19:52:23.073942 27119 net.cpp:86] Creating Layer ip1
I0430 19:52:23.073948 27119 net.cpp:408] ip1 <- data
I0430 19:52:23.073959 27119 net.cpp:382] ip1 -> ip1
I0430 19:52:23.083210 27119 net.cpp:124] Setting up ip1
I0430 19:52:23.083226 27119 net.cpp:131] Top shape: 111 80 (8880)
I0430 19:52:23.083230 27119 net.cpp:139] Memory required for data: 1399932
I0430 19:52:23.083246 27119 layer_factory.hpp:77] Creating layer relu1
I0430 19:52:23.083256 27119 net.cpp:86] Creating Layer relu1
I0430 19:52:23.083276 27119 net.cpp:408] relu1 <- ip1
I0430 19:52:23.083282 27119 net.cpp:369] relu1 -> ip1 (in-place)
I0430 19:52:23.370991 27119 net.cpp:124] Setting up relu1
I0430 19:52:23.371023 27119 net.cpp:131] Top shape: 111 80 (8880)
I0430 19:52:23.371029 27119 net.cpp:139] Memory required for data: 1435452
I0430 19:52:23.371035 27119 layer_factory.hpp:77] Creating layer ip2
I0430 19:52:23.371049 27119 net.cpp:86] Creating Layer ip2
I0430 19:52:23.371054 27119 net.cpp:408] ip2 <- ip1
I0430 19:52:23.371063 27119 net.cpp:382] ip2 -> ip2
I0430 19:52:23.371253 27119 net.cpp:124] Setting up ip2
I0430 19:52:23.371261 27119 net.cpp:131] Top shape: 111 20 (2220)
I0430 19:52:23.371265 27119 net.cpp:139] Memory required for data: 1444332
I0430 19:52:23.371278 27119 layer_factory.hpp:77] Creating layer relu2
I0430 19:52:23.371285 27119 net.cpp:86] Creating Layer relu2
I0430 19:52:23.371289 27119 net.cpp:408] relu2 <- ip2
I0430 19:52:23.371294 27119 net.cpp:369] relu2 -> ip2 (in-place)
I0430 19:52:23.372203 27119 net.cpp:124] Setting up relu2
I0430 19:52:23.372218 27119 net.cpp:131] Top shape: 111 20 (2220)
I0430 19:52:23.372222 27119 net.cpp:139] Memory required for data: 1453212
I0430 19:52:23.372226 27119 layer_factory.hpp:77] Creating layer ip3
I0430 19:52:23.372236 27119 net.cpp:86] Creating Layer ip3
I0430 19:52:23.372241 27119 net.cpp:408] ip3 <- ip2
I0430 19:52:23.372247 27119 net.cpp:382] ip3 -> ip3
I0430 19:52:23.373387 27119 net.cpp:124] Setting up ip3
I0430 19:52:23.373404 27119 net.cpp:131] Top shape: 111 20 (2220)
I0430 19:52:23.373406 27119 net.cpp:139] Memory required for data: 1462092
I0430 19:52:23.373419 27119 layer_factory.hpp:77] Creating layer relu3
I0430 19:52:23.373425 27119 net.cpp:86] Creating Layer relu3
I0430 19:52:23.373430 27119 net.cpp:408] relu3 <- ip3
I0430 19:52:23.373437 27119 net.cpp:369] relu3 -> ip3 (in-place)
I0430 19:52:23.373643 27119 net.cpp:124] Setting up relu3
I0430 19:52:23.373654 27119 net.cpp:131] Top shape: 111 20 (2220)
I0430 19:52:23.373657 27119 net.cpp:139] Memory required for data: 1470972
I0430 19:52:23.373661 27119 layer_factory.hpp:77] Creating layer ip4
I0430 19:52:23.373669 27119 net.cpp:86] Creating Layer ip4
I0430 19:52:23.373672 27119 net.cpp:408] ip4 <- ip3
I0430 19:52:23.373679 27119 net.cpp:382] ip4 -> ip4
I0430 19:52:23.373806 27119 net.cpp:124] Setting up ip4
I0430 19:52:23.373814 27119 net.cpp:131] Top shape: 111 10 (1110)
I0430 19:52:23.373817 27119 net.cpp:139] Memory required for data: 1475412
I0430 19:52:23.373824 27119 layer_factory.hpp:77] Creating layer loss
I0430 19:52:23.373832 27119 net.cpp:86] Creating Layer loss
I0430 19:52:23.373836 27119 net.cpp:408] loss <- ip4
I0430 19:52:23.373841 27119 net.cpp:408] loss <- label
I0430 19:52:23.373848 27119 net.cpp:382] loss -> loss
I0430 19:52:23.373865 27119 layer_factory.hpp:77] Creating layer loss
…
I0430 19:52:23.374555 27119 solver.cpp:173] Creating test net (#0) specified by net file: ECE595/cifar/train_test/var_everything/cifar_train_test_111.prototxt
I0430 19:52:23.374601 27119 net.cpp:296] The NetState phase (1) differed from the phase (0) specified by a rule in layer cifar
I0430 19:52:23.374692 27119 net.cpp:53] Initializing net from parameters: 
name: "CIFAR"
state {
  phase: TEST
}
layer {
  name: "cifar"
  type: "Data"
  top: "data"
  top: "label"
  include {
    phase: TEST
  }
  transform_param {
    mean_file: "examples/cifar10/mean.binaryproto"
  }
  data_param {
    source: "examples/cifar10/cifar10_test_lmdb"
    batch_size: 1000
    backend: LMDB
  }
}
layer {
  name: "ip1"
  type: "InnerProduct"
  bottom: "data"
  top: "ip1"
  param {
    lr_mult: 1
  }
  param {
    lr_mult: 2
  }
  inner_product_param {
    num_output: 80
    weight_filler {
      type: "gaussian"
      std: 0.01
    }
    bias_filler {
      type: "constant"
    }
  }
}
layer {
  name: "relu1"
  type: "ReLU"
  bottom: "ip1"
  top: "ip1"
}
layer {
  name: "ip2"
  type: "InnerProduct"
  bottom: "ip1"
  top: "ip2"
  param {
    lr_mult: 1
  }
  param {
    lr_mult: 2
  }
  inner_product_param {
    num_output: 20
    weight_filler {
      type: "gaussian"
      std: 0.01
    }
    bias_filler {
      type: "constant"
    }
  }
}
layer {
  name: "relu2"
  type: "ReLU"
  bottom: "ip2"
  top: "ip2"
}
layer {
  name: "ip3"
  type: "InnerProduct"
  bottom: "ip2"
  top: "ip3"
  param {
    lr_mult: 1
  }
  param {
    lr_mult: 2
  }
  inner_product_param {
    num_output: 20
    weight_filler {
      type: "gaussian"
      std: 0.01
    }
    bias_filler {
      type: "constant"
    }
  }
}
layer {
  name: "relu3"
  type: "ReLU"
  bottom: "ip3"
  top: "ip3"
}
layer {
  name: "ip4"
  type: "InnerProduct"
  bottom: "ip3"
  top: "ip4"
  param {
    lr_mult: 1
  }
  param {
    lr_mult: 2
  }
  inner_product_param {
    num_output: 10
    weight_filler {
      type: "gaussian"
      std: 0.01
    }
    bias_filler {
      type: "constant"
    }
  }
}
layer {
  name: "accuracy"
  type: "Accuracy"
  bottom: "ip4"
  bottom: "label"
  top: "accuracy"
  include {
    phase: TEST
  }
}
layer {
  name: "loss"
  type: "SoftmaxWithLoss"
  bottom: "ip4"
  bottom: "label"
  top: "loss"
}
I0430 19:52:23.374769 27119 layer_factory.hpp:77] Creating layer cifar
I0430 19:52:23.374826 27119 db_lmdb.cpp:35] Opened lmdb examples/cifar10/cifar10_test_lmdb
I0430 19:52:23.374841 27119 net.cpp:86] Creating Layer cifar
I0430 19:52:23.374848 27119 net.cpp:382] cifar -> data
I0430 19:52:23.374857 27119 net.cpp:382] cifar -> label
I0430 19:52:23.374866 27119 data_transformer.cpp:25] Loading mean file from: examples/cifar10/mean.binaryproto
I0430 19:52:23.375047 27119 data_layer.cpp:45] output data size: 1000,3,32,32
I0430 19:52:23.400080 27119 net.cpp:124] Setting up cifar
I0430 19:52:23.400108 27119 net.cpp:131] Top shape: 1000 3 32 32 (3072000)
I0430 19:52:23.400130 27119 net.cpp:131] Top shape: 1000 (1000)
I0430 19:52:23.400135 27119 net.cpp:139] Memory required for data: 12292000
I0430 19:52:23.400141 27119 layer_factory.hpp:77] Creating layer label_cifar_1_split
I0430 19:52:23.400158 27119 net.cpp:86] Creating Layer label_cifar_1_split
I0430 19:52:23.400162 27119 net.cpp:408] label_cifar_1_split <- label
I0430 19:52:23.400169 27119 net.cpp:382] label_cifar_1_split -> label_cifar_1_split_0
I0430 19:52:23.400178 27119 net.cpp:382] label_cifar_1_split -> label_cifar_1_split_1
I0430 19:52:23.400286 27119 net.cpp:124] Setting up label_cifar_1_split
I0430 19:52:23.400295 27119 net.cpp:131] Top shape: 1000 (1000)
I0430 19:52:23.400300 27119 net.cpp:131] Top shape: 1000 (1000)
I0430 19:52:23.400302 27119 net.cpp:139] Memory required for data: 12300000
I0430 19:52:23.400306 27119 layer_factory.hpp:77] Creating layer ip1
I0430 19:52:23.400315 27119 net.cpp:86] Creating Layer ip1
I0430 19:52:23.400318 27119 net.cpp:408] ip1 <- data
I0430 19:52:23.400326 27119 net.cpp:382] ip1 -> ip1
I0430 19:52:23.407953 27119 net.cpp:124] Setting up ip1
I0430 19:52:23.407963 27119 net.cpp:131] Top shape: 1000 80 (80000)
I0430 19:52:23.407966 27119 net.cpp:139] Memory required for data: 12620000
I0430 19:52:23.407992 27119 layer_factory.hpp:77] Creating layer relu1
I0430 19:52:23.408000 27119 net.cpp:86] Creating Layer relu1
I0430 19:52:23.408004 27119 net.cpp:408] relu1 <- ip1
I0430 19:52:23.408010 27119 net.cpp:369] relu1 -> ip1 (in-place)
I0430 19:52:23.408881 27119 net.cpp:124] Setting up relu1
I0430 19:52:23.408896 27119 net.cpp:131] Top shape: 1000 80 (80000)
I0430 19:52:23.408900 27119 net.cpp:139] Memory required for data: 12940000
I0430 19:52:23.408903 27119 layer_factory.hpp:77] Creating layer ip2
I0430 19:52:23.408913 27119 net.cpp:86] Creating Layer ip2
I0430 19:52:23.408917 27119 net.cpp:408] ip2 <- ip1
I0430 19:52:23.408923 27119 net.cpp:382] ip2 -> ip2
I0430 19:52:23.409099 27119 net.cpp:124] Setting up ip2
I0430 19:52:23.409108 27119 net.cpp:131] Top shape: 1000 20 (20000)
I0430 19:52:23.409112 27119 net.cpp:139] Memory required for data: 13020000
I0430 19:52:23.409121 27119 layer_factory.hpp:77] Creating layer relu2
I0430 19:52:23.409126 27119 net.cpp:86] Creating Layer relu2
I0430 19:52:23.409129 27119 net.cpp:408] relu2 <- ip2
I0430 19:52:23.409134 27119 net.cpp:369] relu2 -> ip2 (in-place)
I0430 19:52:23.409306 27119 net.cpp:124] Setting up relu2
I0430 19:52:23.409314 27119 net.cpp:131] Top shape: 1000 20 (20000)
I0430 19:52:23.409317 27119 net.cpp:139] Memory required for data: 13100000
I0430 19:52:23.409320 27119 layer_factory.hpp:77] Creating layer ip3
I0430 19:52:23.409328 27119 net.cpp:86] Creating Layer ip3
I0430 19:52:23.409332 27119 net.cpp:408] ip3 <- ip2
I0430 19:52:23.409337 27119 net.cpp:382] ip3 -> ip3
I0430 19:52:23.409456 27119 net.cpp:124] Setting up ip3
I0430 19:52:23.409462 27119 net.cpp:131] Top shape: 1000 20 (20000)
I0430 19:52:23.409466 27119 net.cpp:139] Memory required for data: 13180000
I0430 19:52:23.409473 27119 layer_factory.hpp:77] Creating layer relu3
I0430 19:52:23.409481 27119 net.cpp:86] Creating Layer relu3
I0430 19:52:23.409483 27119 net.cpp:408] relu3 <- ip3
I0430 19:52:23.409487 27119 net.cpp:369] relu3 -> ip3 (in-place)
I0430 19:52:23.409657 27119 net.cpp:124] Setting up relu3
I0430 19:52:23.409667 27119 net.cpp:131] Top shape: 1000 20 (20000)
I0430 19:52:23.409670 27119 net.cpp:139] Memory required for data: 13260000
I0430 19:52:23.409673 27119 layer_factory.hpp:77] Creating layer ip4
I0430 19:52:23.409682 27119 net.cpp:86] Creating Layer ip4
I0430 19:52:23.409685 27119 net.cpp:408] ip4 <- ip3
I0430 19:52:23.409692 27119 net.cpp:382] ip4 -> ip4
I0430 19:52:23.409809 27119 net.cpp:124] Setting up ip4
I0430 19:52:23.409817 27119 net.cpp:131] Top shape: 1000 10 (10000)
I0430 19:52:23.409821 27119 net.cpp:139] Memory required for data: 13300000
I0430 19:52:23.409826 27119 layer_factory.hpp:77] Creating layer ip4_ip4_0_split
I0430 19:52:23.409832 27119 net.cpp:86] Creating Layer ip4_ip4_0_split
I0430 19:52:23.409835 27119 net.cpp:408] ip4_ip4_0_split <- ip4
I0430 19:52:23.409839 27119 net.cpp:382] ip4_ip4_0_split -> ip4_ip4_0_split_0
I0430 19:52:23.409845 27119 net.cpp:382] ip4_ip4_0_split -> ip4_ip4_0_split_1
I0430 19:52:23.409881 27119 net.cpp:124] Setting up ip4_ip4_0_split
I0430 19:52:23.409888 27119 net.cpp:131] Top shape: 1000 10 (10000)
I0430 19:52:23.409893 27119 net.cpp:131] Top shape: 1000 10 (10000)
I0430 19:52:23.409895 27119 net.cpp:139] Memory required for data: 13380000
I0430 19:52:23.409899 27119 layer_factory.hpp:77] Creating layer accuracy
I0430 19:52:23.409905 27119 net.cpp:86] Creating Layer accuracy
I0430 19:52:23.409909 27119 net.cpp:408] accuracy <- ip4_ip4_0_split_0
I0430 19:52:23.409912 27119 net.cpp:408] accuracy <- label_cifar_1_split_0
I0430 19:52:23.409919 27119 net.cpp:382] accuracy -> accuracy
…
