…
I0501 04:32:16.134531 25534 net.cpp:296] The NetState phase (0) differed from the phase (1) specified by a rule in layer cifar
I0501 04:32:16.134549 25534 net.cpp:296] The NetState phase (0) differed from the phase (1) specified by a rule in layer accuracy
I0501 04:32:16.134650 25534 net.cpp:53] Initializing net from parameters: 
name: "CIFAR"
state {
  phase: TRAIN
  level: 0
  stage: ""
}
layer {
  name: "cifar"
  type: "Data"
  top: "data"
  top: "label"
  include {
    phase: TRAIN
  }
  transform_param {
    mean_file: "examples/cifar10/mean.binaryproto"
  }
  data_param {
    source: "examples/cifar10/cifar10_train_lmdb"
    batch_size: 111
    backend: LMDB
  }
}
layer {
  name: "conv0"
  type: "Convolution"
  bottom: "data"
  top: "conv0"
  param {
    lr_mult: 1
  }
  param {
    lr_mult: 2
  }
  convolution_param {
    num_output: 8
    pad: 2
    kernel_size: 5
    stride: 1
    weight_filler {
      type: "gaussian"
      std: 0.01
    }
    bias_filler {
      type: "constant"
    }
  }
}
layer {
  name: "Sigmoid0"
  type: "Sigmoid"
  bottom: "conv0"
  top: "Sigmoid0"
}
layer {
  name: "pool0"
  type: "Pooling"
  bottom: "Sigmoid0"
  top: "pool0"
  pooling_param {
    pool: AVE
    kernel_size: 3
    stride: 2
  }
}
layer {
  name: "ip1"
  type: "InnerProduct"
  bottom: "pool0"
  top: "ip1"
  param {
    lr_mult: 1
  }
  param {
    lr_mult: 2
  }
  inner_product_param {
    num_output: 20
    weight_filler {
      type: "gaussian"
      std: 0.01
    }
    bias_filler {
      type: "constant"
    }
  }
}
layer {
  name: "relu1"
  type: "ReLU"
  bottom: "ip1"
  top: "ip1"
}
layer {
  name: "ip2"
  type: "InnerProduct"
  bottom: "ip1"
  top: "ip2"
  param {
    lr_mult: 1
  }
  param {
    lr_mult: 2
  }
  inner_product_param {
    num_output: 160
    weight_filler {
      type: "gaussian"
      std: 0.01
    }
    bias_filler {
      type: "constant"
    }
  }
}
layer {
  name: "relu2"
  type: "ReLU"
  bottom: "ip2"
  top: "ip2"
}
layer {
  name: "ip3"
  type: "InnerProduct"
  bottom: "ip2"
  top: "ip3"
  param {
    lr_mult: 1
  }
  param {
    lr_mult: 2
  }
  inner_product_param {
    num_output: 160
    weight_filler {
      type: "gaussian"
      std: 0.01
    }
    bias_filler {
      type: "constant"
    }
  }
}
layer {
  name: "relu3"
  type: "ReLU"
  bottom: "ip3"
  top: "ip3"
}
layer {
  name: "ip4"
  type: "InnerProduct"
  bottom: "ip3"
  top: "ip4"
  param {
    lr_mult: 1
  }
  param {
    lr_mult: 2
  }
  inner_product_param {
    num_output: 10
    weight_filler {
      type: "gaussian"
      std: 0.01
    }
    bias_filler {
      type: "constant"
    }
  }
}
layer {
  name: "loss"
  type: "SoftmaxWithLoss"
  bottom: "ip4"
  bottom: "label"
  top: "loss"
}
I0501 04:32:16.134727 25534 layer_factory.hpp:77] Creating layer cifar
I0501 04:32:16.134829 25534 db_lmdb.cpp:35] Opened lmdb examples/cifar10/cifar10_train_lmdb
I0501 04:32:16.134858 25534 net.cpp:86] Creating Layer cifar
I0501 04:32:16.134866 25534 net.cpp:382] cifar -> data
I0501 04:32:16.134889 25534 net.cpp:382] cifar -> label
I0501 04:32:16.134902 25534 data_transformer.cpp:25] Loading mean file from: examples/cifar10/mean.binaryproto
I0501 04:32:16.137065 25534 data_layer.cpp:45] output data size: 111,3,32,32
I0501 04:32:16.144963 25534 net.cpp:124] Setting up cifar
I0501 04:32:16.144984 25534 net.cpp:131] Top shape: 111 3 32 32 (340992)
I0501 04:32:16.144989 25534 net.cpp:131] Top shape: 111 (111)
I0501 04:32:16.144994 25534 net.cpp:139] Memory required for data: 1364412
I0501 04:32:16.145016 25534 layer_factory.hpp:77] Creating layer conv0
I0501 04:32:16.145035 25534 net.cpp:86] Creating Layer conv0
I0501 04:32:16.145041 25534 net.cpp:408] conv0 <- data
I0501 04:32:16.145053 25534 net.cpp:382] conv0 -> conv0
I0501 04:32:16.402387 25534 net.cpp:124] Setting up conv0
I0501 04:32:16.402412 25534 net.cpp:131] Top shape: 111 8 32 32 (909312)
I0501 04:32:16.402416 25534 net.cpp:139] Memory required for data: 5001660
I0501 04:32:16.402431 25534 layer_factory.hpp:77] Creating layer Sigmoid0
I0501 04:32:16.402442 25534 net.cpp:86] Creating Layer Sigmoid0
I0501 04:32:16.402446 25534 net.cpp:408] Sigmoid0 <- conv0
I0501 04:32:16.402451 25534 net.cpp:382] Sigmoid0 -> Sigmoid0
I0501 04:32:16.402623 25534 net.cpp:124] Setting up Sigmoid0
I0501 04:32:16.402632 25534 net.cpp:131] Top shape: 111 8 32 32 (909312)
I0501 04:32:16.402636 25534 net.cpp:139] Memory required for data: 8638908
I0501 04:32:16.402638 25534 layer_factory.hpp:77] Creating layer pool0
I0501 04:32:16.402645 25534 net.cpp:86] Creating Layer pool0
I0501 04:32:16.402648 25534 net.cpp:408] pool0 <- Sigmoid0
I0501 04:32:16.402653 25534 net.cpp:382] pool0 -> pool0
I0501 04:32:16.403393 25534 net.cpp:124] Setting up pool0
I0501 04:32:16.403405 25534 net.cpp:131] Top shape: 111 8 16 16 (227328)
I0501 04:32:16.403409 25534 net.cpp:139] Memory required for data: 9548220
I0501 04:32:16.403411 25534 layer_factory.hpp:77] Creating layer ip1
I0501 04:32:16.403419 25534 net.cpp:86] Creating Layer ip1
I0501 04:32:16.403422 25534 net.cpp:408] ip1 <- pool0
I0501 04:32:16.403427 25534 net.cpp:382] ip1 -> ip1
I0501 04:32:16.405400 25534 net.cpp:124] Setting up ip1
I0501 04:32:16.405411 25534 net.cpp:131] Top shape: 111 20 (2220)
I0501 04:32:16.405414 25534 net.cpp:139] Memory required for data: 9557100
I0501 04:32:16.405421 25534 layer_factory.hpp:77] Creating layer relu1
I0501 04:32:16.405427 25534 net.cpp:86] Creating Layer relu1
I0501 04:32:16.405431 25534 net.cpp:408] relu1 <- ip1
I0501 04:32:16.405434 25534 net.cpp:369] relu1 -> ip1 (in-place)
I0501 04:32:16.405593 25534 net.cpp:124] Setting up relu1
I0501 04:32:16.405601 25534 net.cpp:131] Top shape: 111 20 (2220)
I0501 04:32:16.405604 25534 net.cpp:139] Memory required for data: 9565980
I0501 04:32:16.405607 25534 layer_factory.hpp:77] Creating layer ip2
I0501 04:32:16.405614 25534 net.cpp:86] Creating Layer ip2
I0501 04:32:16.405617 25534 net.cpp:408] ip2 <- ip1
I0501 04:32:16.405622 25534 net.cpp:382] ip2 -> ip2
I0501 04:32:16.405787 25534 net.cpp:124] Setting up ip2
I0501 04:32:16.405794 25534 net.cpp:131] Top shape: 111 160 (17760)
I0501 04:32:16.405797 25534 net.cpp:139] Memory required for data: 9637020
I0501 04:32:16.405803 25534 layer_factory.hpp:77] Creating layer relu2
I0501 04:32:16.405808 25534 net.cpp:86] Creating Layer relu2
I0501 04:32:16.405812 25534 net.cpp:408] relu2 <- ip2
I0501 04:32:16.405815 25534 net.cpp:369] relu2 -> ip2 (in-place)
I0501 04:32:16.405959 25534 net.cpp:124] Setting up relu2
I0501 04:32:16.405966 25534 net.cpp:131] Top shape: 111 160 (17760)
I0501 04:32:16.405969 25534 net.cpp:139] Memory required for data: 9708060
I0501 04:32:16.405972 25534 layer_factory.hpp:77] Creating layer ip3
I0501 04:32:16.405980 25534 net.cpp:86] Creating Layer ip3
I0501 04:32:16.405983 25534 net.cpp:408] ip3 <- ip2
I0501 04:32:16.405987 25534 net.cpp:382] ip3 -> ip3
I0501 04:32:16.406718 25534 net.cpp:124] Setting up ip3
I0501 04:32:16.406725 25534 net.cpp:131] Top shape: 111 160 (17760)
I0501 04:32:16.406728 25534 net.cpp:139] Memory required for data: 9779100
I0501 04:32:16.406733 25534 layer_factory.hpp:77] Creating layer relu3
I0501 04:32:16.406736 25534 net.cpp:86] Creating Layer relu3
I0501 04:32:16.406739 25534 net.cpp:408] relu3 <- ip3
I0501 04:32:16.406743 25534 net.cpp:369] relu3 -> ip3 (in-place)
I0501 04:32:16.406934 25534 net.cpp:124] Setting up relu3
I0501 04:32:16.406941 25534 net.cpp:131] Top shape: 111 160 (17760)
I0501 04:32:16.406944 25534 net.cpp:139] Memory required for data: 9850140
I0501 04:32:16.406947 25534 layer_factory.hpp:77] Creating layer ip4
I0501 04:32:16.406967 25534 net.cpp:86] Creating Layer ip4
I0501 04:32:16.406970 25534 net.cpp:408] ip4 <- ip3
I0501 04:32:16.406976 25534 net.cpp:382] ip4 -> ip4
I0501 04:32:16.407133 25534 net.cpp:124] Setting up ip4
I0501 04:32:16.407140 25534 net.cpp:131] Top shape: 111 10 (1110)
I0501 04:32:16.407143 25534 net.cpp:139] Memory required for data: 9854580
I0501 04:32:16.407150 25534 layer_factory.hpp:77] Creating layer loss
I0501 04:32:16.407162 25534 net.cpp:86] Creating Layer loss
I0501 04:32:16.407167 25534 net.cpp:408] loss <- ip4
I0501 04:32:16.407171 25534 net.cpp:408] loss <- label
I0501 04:32:16.407176 25534 net.cpp:382] loss -> loss
I0501 04:32:16.407187 25534 layer_factory.hpp:77] Creating layer loss
…
I0501 04:32:16.408355 25534 solver.cpp:173] Creating test net (#0) specified by net file: ECE595/cifar/train_test/var_everything/cifar_train_test_389.prototxt
I0501 04:32:16.408381 25534 net.cpp:296] The NetState phase (1) differed from the phase (0) specified by a rule in layer cifar
I0501 04:32:16.408474 25534 net.cpp:53] Initializing net from parameters: 
name: "CIFAR"
state {
  phase: TEST
}
layer {
  name: "cifar"
  type: "Data"
  top: "data"
  top: "label"
  include {
    phase: TEST
  }
  transform_param {
    mean_file: "examples/cifar10/mean.binaryproto"
  }
  data_param {
    source: "examples/cifar10/cifar10_test_lmdb"
    batch_size: 1000
    backend: LMDB
  }
}
layer {
  name: "conv0"
  type: "Convolution"
  bottom: "data"
  top: "conv0"
  param {
    lr_mult: 1
  }
  param {
    lr_mult: 2
  }
  convolution_param {
    num_output: 8
    pad: 2
    kernel_size: 5
    stride: 1
    weight_filler {
      type: "gaussian"
      std: 0.01
    }
    bias_filler {
      type: "constant"
    }
  }
}
layer {
  name: "Sigmoid0"
  type: "Sigmoid"
  bottom: "conv0"
  top: "Sigmoid0"
}
layer {
  name: "pool0"
  type: "Pooling"
  bottom: "Sigmoid0"
  top: "pool0"
  pooling_param {
    pool: AVE
    kernel_size: 3
    stride: 2
  }
}
layer {
  name: "ip1"
  type: "InnerProduct"
  bottom: "pool0"
  top: "ip1"
  param {
    lr_mult: 1
  }
  param {
    lr_mult: 2
  }
  inner_product_param {
    num_output: 20
    weight_filler {
      type: "gaussian"
      std: 0.01
    }
    bias_filler {
      type: "constant"
    }
  }
}
layer {
  name: "relu1"
  type: "ReLU"
  bottom: "ip1"
  top: "ip1"
}
layer {
  name: "ip2"
  type: "InnerProduct"
  bottom: "ip1"
  top: "ip2"
  param {
    lr_mult: 1
  }
  param {
    lr_mult: 2
  }
  inner_product_param {
    num_output: 160
    weight_filler {
      type: "gaussian"
      std: 0.01
    }
    bias_filler {
      type: "constant"
    }
  }
}
layer {
  name: "relu2"
  type: "ReLU"
  bottom: "ip2"
  top: "ip2"
}
layer {
  name: "ip3"
  type: "InnerProduct"
  bottom: "ip2"
  top: "ip3"
  param {
    lr_mult: 1
  }
  param {
    lr_mult: 2
  }
  inner_product_param {
    num_output: 160
    weight_filler {
      type: "gaussian"
      std: 0.01
    }
    bias_filler {
      type: "constant"
    }
  }
}
layer {
  name: "relu3"
  type: "ReLU"
  bottom: "ip3"
  top: "ip3"
}
layer {
  name: "ip4"
  type: "InnerProduct"
  bottom: "ip3"
  top: "ip4"
  param {
    lr_mult: 1
  }
  param {
    lr_mult: 2
  }
  inner_product_param {
    num_output: 10
    weight_filler {
      type: "gaussian"
      std: 0.01
    }
    bias_filler {
      type: "constant"
    }
  }
}
layer {
  name: "accuracy"
  type: "Accuracy"
  bottom: "ip4"
  bottom: "label"
  top: "accuracy"
  include {
    phase: TEST
  }
}
layer {
  name: "loss"
  type: "SoftmaxWithLoss"
  bottom: "ip4"
  bottom: "label"
  top: "loss"
}
I0501 04:32:16.408555 25534 layer_factory.hpp:77] Creating layer cifar
I0501 04:32:16.408599 25534 db_lmdb.cpp:35] Opened lmdb examples/cifar10/cifar10_test_lmdb
I0501 04:32:16.408612 25534 net.cpp:86] Creating Layer cifar
I0501 04:32:16.408615 25534 net.cpp:382] cifar -> data
I0501 04:32:16.408622 25534 net.cpp:382] cifar -> label
I0501 04:32:16.408628 25534 data_transformer.cpp:25] Loading mean file from: examples/cifar10/mean.binaryproto
I0501 04:32:16.408767 25534 data_layer.cpp:45] output data size: 1000,3,32,32
I0501 04:32:16.430341 25534 net.cpp:124] Setting up cifar
I0501 04:32:16.430397 25534 net.cpp:131] Top shape: 1000 3 32 32 (3072000)
I0501 04:32:16.430402 25534 net.cpp:131] Top shape: 1000 (1000)
I0501 04:32:16.430404 25534 net.cpp:139] Memory required for data: 12292000
I0501 04:32:16.430409 25534 layer_factory.hpp:77] Creating layer label_cifar_1_split
I0501 04:32:16.430423 25534 net.cpp:86] Creating Layer label_cifar_1_split
I0501 04:32:16.430425 25534 net.cpp:408] label_cifar_1_split <- label
I0501 04:32:16.430431 25534 net.cpp:382] label_cifar_1_split -> label_cifar_1_split_0
I0501 04:32:16.430456 25534 net.cpp:382] label_cifar_1_split -> label_cifar_1_split_1
I0501 04:32:16.430570 25534 net.cpp:124] Setting up label_cifar_1_split
I0501 04:32:16.430577 25534 net.cpp:131] Top shape: 1000 (1000)
I0501 04:32:16.430582 25534 net.cpp:131] Top shape: 1000 (1000)
I0501 04:32:16.430584 25534 net.cpp:139] Memory required for data: 12300000
I0501 04:32:16.430588 25534 layer_factory.hpp:77] Creating layer conv0
I0501 04:32:16.430603 25534 net.cpp:86] Creating Layer conv0
I0501 04:32:16.430605 25534 net.cpp:408] conv0 <- data
I0501 04:32:16.430610 25534 net.cpp:382] conv0 -> conv0
I0501 04:32:16.432138 25534 net.cpp:124] Setting up conv0
I0501 04:32:16.432150 25534 net.cpp:131] Top shape: 1000 8 32 32 (8192000)
I0501 04:32:16.432169 25534 net.cpp:139] Memory required for data: 45068000
I0501 04:32:16.432178 25534 layer_factory.hpp:77] Creating layer Sigmoid0
I0501 04:32:16.432185 25534 net.cpp:86] Creating Layer Sigmoid0
I0501 04:32:16.432188 25534 net.cpp:408] Sigmoid0 <- conv0
I0501 04:32:16.432193 25534 net.cpp:382] Sigmoid0 -> Sigmoid0
I0501 04:32:16.432435 25534 net.cpp:124] Setting up Sigmoid0
I0501 04:32:16.432445 25534 net.cpp:131] Top shape: 1000 8 32 32 (8192000)
I0501 04:32:16.432447 25534 net.cpp:139] Memory required for data: 77836000
I0501 04:32:16.432451 25534 layer_factory.hpp:77] Creating layer pool0
I0501 04:32:16.432461 25534 net.cpp:86] Creating Layer pool0
I0501 04:32:16.432463 25534 net.cpp:408] pool0 <- Sigmoid0
I0501 04:32:16.432468 25534 net.cpp:382] pool0 -> pool0
I0501 04:32:16.433782 25534 net.cpp:124] Setting up pool0
I0501 04:32:16.433792 25534 net.cpp:131] Top shape: 1000 8 16 16 (2048000)
I0501 04:32:16.433810 25534 net.cpp:139] Memory required for data: 86028000
I0501 04:32:16.433815 25534 layer_factory.hpp:77] Creating layer ip1
I0501 04:32:16.433821 25534 net.cpp:86] Creating Layer ip1
I0501 04:32:16.433825 25534 net.cpp:408] ip1 <- pool0
I0501 04:32:16.433830 25534 net.cpp:382] ip1 -> ip1
I0501 04:32:16.435029 25534 net.cpp:124] Setting up ip1
I0501 04:32:16.435037 25534 net.cpp:131] Top shape: 1000 20 (20000)
I0501 04:32:16.435039 25534 net.cpp:139] Memory required for data: 86108000
I0501 04:32:16.435075 25534 layer_factory.hpp:77] Creating layer relu1
I0501 04:32:16.435082 25534 net.cpp:86] Creating Layer relu1
I0501 04:32:16.435086 25534 net.cpp:408] relu1 <- ip1
I0501 04:32:16.435088 25534 net.cpp:369] relu1 -> ip1 (in-place)
I0501 04:32:16.435269 25534 net.cpp:124] Setting up relu1
I0501 04:32:16.435277 25534 net.cpp:131] Top shape: 1000 20 (20000)
I0501 04:32:16.435281 25534 net.cpp:139] Memory required for data: 86188000
I0501 04:32:16.435283 25534 layer_factory.hpp:77] Creating layer ip2
I0501 04:32:16.435292 25534 net.cpp:86] Creating Layer ip2
I0501 04:32:16.435294 25534 net.cpp:408] ip2 <- ip1
I0501 04:32:16.435299 25534 net.cpp:382] ip2 -> ip2
I0501 04:32:16.435483 25534 net.cpp:124] Setting up ip2
I0501 04:32:16.435492 25534 net.cpp:131] Top shape: 1000 160 (160000)
I0501 04:32:16.435495 25534 net.cpp:139] Memory required for data: 86828000
I0501 04:32:16.435503 25534 layer_factory.hpp:77] Creating layer relu2
I0501 04:32:16.435508 25534 net.cpp:86] Creating Layer relu2
I0501 04:32:16.435525 25534 net.cpp:408] relu2 <- ip2
I0501 04:32:16.435529 25534 net.cpp:369] relu2 -> ip2 (in-place)
I0501 04:32:16.436266 25534 net.cpp:124] Setting up relu2
I0501 04:32:16.436277 25534 net.cpp:131] Top shape: 1000 160 (160000)
I0501 04:32:16.436296 25534 net.cpp:139] Memory required for data: 87468000
I0501 04:32:16.436300 25534 layer_factory.hpp:77] Creating layer ip3
I0501 04:32:16.436306 25534 net.cpp:86] Creating Layer ip3
I0501 04:32:16.436309 25534 net.cpp:408] ip3 <- ip2
I0501 04:32:16.436316 25534 net.cpp:382] ip3 -> ip3
I0501 04:32:16.437183 25534 net.cpp:124] Setting up ip3
I0501 04:32:16.437193 25534 net.cpp:131] Top shape: 1000 160 (160000)
I0501 04:32:16.437211 25534 net.cpp:139] Memory required for data: 88108000
I0501 04:32:16.437216 25534 layer_factory.hpp:77] Creating layer relu3
I0501 04:32:16.437222 25534 net.cpp:86] Creating Layer relu3
I0501 04:32:16.437224 25534 net.cpp:408] relu3 <- ip3
I0501 04:32:16.437229 25534 net.cpp:369] relu3 -> ip3 (in-place)
I0501 04:32:16.437396 25534 net.cpp:124] Setting up relu3
I0501 04:32:16.437403 25534 net.cpp:131] Top shape: 1000 160 (160000)
I0501 04:32:16.437407 25534 net.cpp:139] Memory required for data: 88748000
I0501 04:32:16.437409 25534 layer_factory.hpp:77] Creating layer ip4
I0501 04:32:16.437417 25534 net.cpp:86] Creating Layer ip4
I0501 04:32:16.437419 25534 net.cpp:408] ip4 <- ip3
I0501 04:32:16.437424 25534 net.cpp:382] ip4 -> ip4
I0501 04:32:16.437563 25534 net.cpp:124] Setting up ip4
I0501 04:32:16.437569 25534 net.cpp:131] Top shape: 1000 10 (10000)
I0501 04:32:16.437572 25534 net.cpp:139] Memory required for data: 88788000
I0501 04:32:16.437579 25534 layer_factory.hpp:77] Creating layer ip4_ip4_0_split
I0501 04:32:16.437585 25534 net.cpp:86] Creating Layer ip4_ip4_0_split
I0501 04:32:16.437588 25534 net.cpp:408] ip4_ip4_0_split <- ip4
I0501 04:32:16.437592 25534 net.cpp:382] ip4_ip4_0_split -> ip4_ip4_0_split_0
I0501 04:32:16.437597 25534 net.cpp:382] ip4_ip4_0_split -> ip4_ip4_0_split_1
I0501 04:32:16.437628 25534 net.cpp:124] Setting up ip4_ip4_0_split
I0501 04:32:16.437638 25534 net.cpp:131] Top shape: 1000 10 (10000)
I0501 04:32:16.437643 25534 net.cpp:131] Top shape: 1000 10 (10000)
I0501 04:32:16.437644 25534 net.cpp:139] Memory required for data: 88868000
I0501 04:32:16.437647 25534 layer_factory.hpp:77] Creating layer accuracy
I0501 04:32:16.437652 25534 net.cpp:86] Creating Layer accuracy
I0501 04:32:16.437655 25534 net.cpp:408] accuracy <- ip4_ip4_0_split_0
I0501 04:32:16.437660 25534 net.cpp:408] accuracy <- label_cifar_1_split_0
I0501 04:32:16.437664 25534 net.cpp:382] accuracy -> accuracy
…
