…
I0501 05:41:03.585142 29990 net.cpp:296] The NetState phase (0) differed from the phase (1) specified by a rule in layer cifar
I0501 05:41:03.585160 29990 net.cpp:296] The NetState phase (0) differed from the phase (1) specified by a rule in layer accuracy
I0501 05:41:03.585268 29990 net.cpp:53] Initializing net from parameters: 
name: "CIFAR"
state {
  phase: TRAIN
  level: 0
  stage: ""
}
layer {
  name: "cifar"
  type: "Data"
  top: "data"
  top: "label"
  include {
    phase: TRAIN
  }
  transform_param {
    mean_file: "examples/cifar10/mean.binaryproto"
  }
  data_param {
    source: "examples/cifar10/cifar10_train_lmdb"
    batch_size: 111
    backend: LMDB
  }
}
layer {
  name: "conv0"
  type: "Convolution"
  bottom: "data"
  top: "conv0"
  param {
    lr_mult: 1
  }
  param {
    lr_mult: 2
  }
  convolution_param {
    num_output: 8
    pad: 2
    kernel_size: 5
    stride: 1
    weight_filler {
      type: "gaussian"
      std: 0.01
    }
    bias_filler {
      type: "constant"
    }
  }
}
layer {
  name: "Sigmoid0"
  type: "Sigmoid"
  bottom: "conv0"
  top: "Sigmoid0"
}
layer {
  name: "pool0"
  type: "Pooling"
  bottom: "Sigmoid0"
  top: "pool0"
  pooling_param {
    pool: AVE
    kernel_size: 3
    stride: 2
  }
}
layer {
  name: "ip1"
  type: "InnerProduct"
  bottom: "pool0"
  top: "ip1"
  param {
    lr_mult: 1
  }
  param {
    lr_mult: 2
  }
  inner_product_param {
    num_output: 80
    weight_filler {
      type: "gaussian"
      std: 0.01
    }
    bias_filler {
      type: "constant"
    }
  }
}
layer {
  name: "relu1"
  type: "ReLU"
  bottom: "ip1"
  top: "ip1"
}
layer {
  name: "ip2"
  type: "InnerProduct"
  bottom: "ip1"
  top: "ip2"
  param {
    lr_mult: 1
  }
  param {
    lr_mult: 2
  }
  inner_product_param {
    num_output: 40
    weight_filler {
      type: "gaussian"
      std: 0.01
    }
    bias_filler {
      type: "constant"
    }
  }
}
layer {
  name: "relu2"
  type: "ReLU"
  bottom: "ip2"
  top: "ip2"
}
layer {
  name: "ip3"
  type: "InnerProduct"
  bottom: "ip2"
  top: "ip3"
  param {
    lr_mult: 1
  }
  param {
    lr_mult: 2
  }
  inner_product_param {
    num_output: 20
    weight_filler {
      type: "gaussian"
      std: 0.01
    }
    bias_filler {
      type: "constant"
    }
  }
}
layer {
  name: "relu3"
  type: "ReLU"
  bottom: "ip3"
  top: "ip3"
}
layer {
  name: "ip4"
  type: "InnerProduct"
  bottom: "ip3"
  top: "ip4"
  param {
    lr_mult: 1
  }
  param {
    lr_mult: 2
  }
  inner_product_param {
    num_output: 10
    weight_filler {
      type: "gaussian"
      std: 0.01
    }
    bias_filler {
      type: "constant"
    }
  }
}
layer {
  name: "loss"
  type: "SoftmaxWithLoss"
  bottom: "ip4"
  bottom: "label"
  top: "loss"
}
I0501 05:41:03.585347 29990 layer_factory.hpp:77] Creating layer cifar
I0501 05:41:03.585440 29990 db_lmdb.cpp:35] Opened lmdb examples/cifar10/cifar10_train_lmdb
I0501 05:41:03.585466 29990 net.cpp:86] Creating Layer cifar
I0501 05:41:03.585474 29990 net.cpp:382] cifar -> data
I0501 05:41:03.585497 29990 net.cpp:382] cifar -> label
I0501 05:41:03.585510 29990 data_transformer.cpp:25] Loading mean file from: examples/cifar10/mean.binaryproto
I0501 05:41:03.587627 29990 data_layer.cpp:45] output data size: 111,3,32,32
I0501 05:41:03.595510 29990 net.cpp:124] Setting up cifar
I0501 05:41:03.595530 29990 net.cpp:131] Top shape: 111 3 32 32 (340992)
I0501 05:41:03.595536 29990 net.cpp:131] Top shape: 111 (111)
I0501 05:41:03.595540 29990 net.cpp:139] Memory required for data: 1364412
I0501 05:41:03.595563 29990 layer_factory.hpp:77] Creating layer conv0
I0501 05:41:03.595583 29990 net.cpp:86] Creating Layer conv0
I0501 05:41:03.595597 29990 net.cpp:408] conv0 <- data
I0501 05:41:03.595608 29990 net.cpp:382] conv0 -> conv0
I0501 05:41:03.878476 29990 net.cpp:124] Setting up conv0
I0501 05:41:03.878505 29990 net.cpp:131] Top shape: 111 8 32 32 (909312)
I0501 05:41:03.878509 29990 net.cpp:139] Memory required for data: 5001660
I0501 05:41:03.878525 29990 layer_factory.hpp:77] Creating layer Sigmoid0
I0501 05:41:03.878536 29990 net.cpp:86] Creating Layer Sigmoid0
I0501 05:41:03.878540 29990 net.cpp:408] Sigmoid0 <- conv0
I0501 05:41:03.878545 29990 net.cpp:382] Sigmoid0 -> Sigmoid0
I0501 05:41:03.878717 29990 net.cpp:124] Setting up Sigmoid0
I0501 05:41:03.878727 29990 net.cpp:131] Top shape: 111 8 32 32 (909312)
I0501 05:41:03.878731 29990 net.cpp:139] Memory required for data: 8638908
I0501 05:41:03.878734 29990 layer_factory.hpp:77] Creating layer pool0
I0501 05:41:03.878741 29990 net.cpp:86] Creating Layer pool0
I0501 05:41:03.878744 29990 net.cpp:408] pool0 <- Sigmoid0
I0501 05:41:03.878749 29990 net.cpp:382] pool0 -> pool0
I0501 05:41:03.879488 29990 net.cpp:124] Setting up pool0
I0501 05:41:03.879501 29990 net.cpp:131] Top shape: 111 8 16 16 (227328)
I0501 05:41:03.879504 29990 net.cpp:139] Memory required for data: 9548220
I0501 05:41:03.879508 29990 layer_factory.hpp:77] Creating layer ip1
I0501 05:41:03.879518 29990 net.cpp:86] Creating Layer ip1
I0501 05:41:03.879520 29990 net.cpp:408] ip1 <- pool0
I0501 05:41:03.879525 29990 net.cpp:382] ip1 -> ip1
I0501 05:41:03.883958 29990 net.cpp:124] Setting up ip1
I0501 05:41:03.883970 29990 net.cpp:131] Top shape: 111 80 (8880)
I0501 05:41:03.883972 29990 net.cpp:139] Memory required for data: 9583740
I0501 05:41:03.883980 29990 layer_factory.hpp:77] Creating layer relu1
I0501 05:41:03.883985 29990 net.cpp:86] Creating Layer relu1
I0501 05:41:03.883990 29990 net.cpp:408] relu1 <- ip1
I0501 05:41:03.883993 29990 net.cpp:369] relu1 -> ip1 (in-place)
I0501 05:41:03.884143 29990 net.cpp:124] Setting up relu1
I0501 05:41:03.884152 29990 net.cpp:131] Top shape: 111 80 (8880)
I0501 05:41:03.884155 29990 net.cpp:139] Memory required for data: 9619260
I0501 05:41:03.884158 29990 layer_factory.hpp:77] Creating layer ip2
I0501 05:41:03.884165 29990 net.cpp:86] Creating Layer ip2
I0501 05:41:03.884167 29990 net.cpp:408] ip2 <- ip1
I0501 05:41:03.884172 29990 net.cpp:382] ip2 -> ip2
I0501 05:41:03.884341 29990 net.cpp:124] Setting up ip2
I0501 05:41:03.884347 29990 net.cpp:131] Top shape: 111 40 (4440)
I0501 05:41:03.884351 29990 net.cpp:139] Memory required for data: 9637020
I0501 05:41:03.884357 29990 layer_factory.hpp:77] Creating layer relu2
I0501 05:41:03.884361 29990 net.cpp:86] Creating Layer relu2
I0501 05:41:03.884364 29990 net.cpp:408] relu2 <- ip2
I0501 05:41:03.884368 29990 net.cpp:369] relu2 -> ip2 (in-place)
I0501 05:41:03.884513 29990 net.cpp:124] Setting up relu2
I0501 05:41:03.884521 29990 net.cpp:131] Top shape: 111 40 (4440)
I0501 05:41:03.884524 29990 net.cpp:139] Memory required for data: 9654780
I0501 05:41:03.884527 29990 layer_factory.hpp:77] Creating layer ip3
I0501 05:41:03.884534 29990 net.cpp:86] Creating Layer ip3
I0501 05:41:03.884537 29990 net.cpp:408] ip3 <- ip2
I0501 05:41:03.884542 29990 net.cpp:382] ip3 -> ip3
I0501 05:41:03.884647 29990 net.cpp:124] Setting up ip3
I0501 05:41:03.884654 29990 net.cpp:131] Top shape: 111 20 (2220)
I0501 05:41:03.884657 29990 net.cpp:139] Memory required for data: 9663660
I0501 05:41:03.884662 29990 layer_factory.hpp:77] Creating layer relu3
I0501 05:41:03.884666 29990 net.cpp:86] Creating Layer relu3
I0501 05:41:03.884670 29990 net.cpp:408] relu3 <- ip3
I0501 05:41:03.884673 29990 net.cpp:369] relu3 -> ip3 (in-place)
I0501 05:41:03.884830 29990 net.cpp:124] Setting up relu3
I0501 05:41:03.884838 29990 net.cpp:131] Top shape: 111 20 (2220)
I0501 05:41:03.884841 29990 net.cpp:139] Memory required for data: 9672540
I0501 05:41:03.884845 29990 layer_factory.hpp:77] Creating layer ip4
I0501 05:41:03.884865 29990 net.cpp:86] Creating Layer ip4
I0501 05:41:03.884868 29990 net.cpp:408] ip4 <- ip3
I0501 05:41:03.884874 29990 net.cpp:382] ip4 -> ip4
I0501 05:41:03.884974 29990 net.cpp:124] Setting up ip4
I0501 05:41:03.884981 29990 net.cpp:131] Top shape: 111 10 (1110)
I0501 05:41:03.884984 29990 net.cpp:139] Memory required for data: 9676980
I0501 05:41:03.884992 29990 layer_factory.hpp:77] Creating layer loss
I0501 05:41:03.884997 29990 net.cpp:86] Creating Layer loss
I0501 05:41:03.885000 29990 net.cpp:408] loss <- ip4
I0501 05:41:03.885004 29990 net.cpp:408] loss <- label
I0501 05:41:03.885010 29990 net.cpp:382] loss -> loss
I0501 05:41:03.885025 29990 layer_factory.hpp:77] Creating layer loss
…
I0501 05:41:03.886184 29990 solver.cpp:173] Creating test net (#0) specified by net file: ECE595/cifar/train_test/var_everything/cifar_train_test_426.prototxt
I0501 05:41:03.886211 29990 net.cpp:296] The NetState phase (1) differed from the phase (0) specified by a rule in layer cifar
I0501 05:41:03.886307 29990 net.cpp:53] Initializing net from parameters: 
name: "CIFAR"
state {
  phase: TEST
}
layer {
  name: "cifar"
  type: "Data"
  top: "data"
  top: "label"
  include {
    phase: TEST
  }
  transform_param {
    mean_file: "examples/cifar10/mean.binaryproto"
  }
  data_param {
    source: "examples/cifar10/cifar10_test_lmdb"
    batch_size: 1000
    backend: LMDB
  }
}
layer {
  name: "conv0"
  type: "Convolution"
  bottom: "data"
  top: "conv0"
  param {
    lr_mult: 1
  }
  param {
    lr_mult: 2
  }
  convolution_param {
    num_output: 8
    pad: 2
    kernel_size: 5
    stride: 1
    weight_filler {
      type: "gaussian"
      std: 0.01
    }
    bias_filler {
      type: "constant"
    }
  }
}
layer {
  name: "Sigmoid0"
  type: "Sigmoid"
  bottom: "conv0"
  top: "Sigmoid0"
}
layer {
  name: "pool0"
  type: "Pooling"
  bottom: "Sigmoid0"
  top: "pool0"
  pooling_param {
    pool: AVE
    kernel_size: 3
    stride: 2
  }
}
layer {
  name: "ip1"
  type: "InnerProduct"
  bottom: "pool0"
  top: "ip1"
  param {
    lr_mult: 1
  }
  param {
    lr_mult: 2
  }
  inner_product_param {
    num_output: 80
    weight_filler {
      type: "gaussian"
      std: 0.01
    }
    bias_filler {
      type: "constant"
    }
  }
}
layer {
  name: "relu1"
  type: "ReLU"
  bottom: "ip1"
  top: "ip1"
}
layer {
  name: "ip2"
  type: "InnerProduct"
  bottom: "ip1"
  top: "ip2"
  param {
    lr_mult: 1
  }
  param {
    lr_mult: 2
  }
  inner_product_param {
    num_output: 40
    weight_filler {
      type: "gaussian"
      std: 0.01
    }
    bias_filler {
      type: "constant"
    }
  }
}
layer {
  name: "relu2"
  type: "ReLU"
  bottom: "ip2"
  top: "ip2"
}
layer {
  name: "ip3"
  type: "InnerProduct"
  bottom: "ip2"
  top: "ip3"
  param {
    lr_mult: 1
  }
  param {
    lr_mult: 2
  }
  inner_product_param {
    num_output: 20
    weight_filler {
      type: "gaussian"
      std: 0.01
    }
    bias_filler {
      type: "constant"
    }
  }
}
layer {
  name: "relu3"
  type: "ReLU"
  bottom: "ip3"
  top: "ip3"
}
layer {
  name: "ip4"
  type: "InnerProduct"
  bottom: "ip3"
  top: "ip4"
  param {
    lr_mult: 1
  }
  param {
    lr_mult: 2
  }
  inner_product_param {
    num_output: 10
    weight_filler {
      type: "gaussian"
      std: 0.01
    }
    bias_filler {
      type: "constant"
    }
  }
}
layer {
  name: "accuracy"
  type: "Accuracy"
  bottom: "ip4"
  bottom: "label"
  top: "accuracy"
  include {
    phase: TEST
  }
}
layer {
  name: "loss"
  type: "SoftmaxWithLoss"
  bottom: "ip4"
  bottom: "label"
  top: "loss"
}
I0501 05:41:03.886440 29990 layer_factory.hpp:77] Creating layer cifar
I0501 05:41:03.886488 29990 db_lmdb.cpp:35] Opened lmdb examples/cifar10/cifar10_test_lmdb
I0501 05:41:03.886500 29990 net.cpp:86] Creating Layer cifar
I0501 05:41:03.886507 29990 net.cpp:382] cifar -> data
I0501 05:41:03.886514 29990 net.cpp:382] cifar -> label
I0501 05:41:03.886521 29990 data_transformer.cpp:25] Loading mean file from: examples/cifar10/mean.binaryproto
I0501 05:41:03.886678 29990 data_layer.cpp:45] output data size: 1000,3,32,32
I0501 05:41:03.908387 29990 net.cpp:124] Setting up cifar
I0501 05:41:03.908429 29990 net.cpp:131] Top shape: 1000 3 32 32 (3072000)
I0501 05:41:03.908434 29990 net.cpp:131] Top shape: 1000 (1000)
I0501 05:41:03.908437 29990 net.cpp:139] Memory required for data: 12292000
I0501 05:41:03.908443 29990 layer_factory.hpp:77] Creating layer label_cifar_1_split
I0501 05:41:03.908459 29990 net.cpp:86] Creating Layer label_cifar_1_split
I0501 05:41:03.908463 29990 net.cpp:408] label_cifar_1_split <- label
I0501 05:41:03.908485 29990 net.cpp:382] label_cifar_1_split -> label_cifar_1_split_0
I0501 05:41:03.908494 29990 net.cpp:382] label_cifar_1_split -> label_cifar_1_split_1
I0501 05:41:03.908604 29990 net.cpp:124] Setting up label_cifar_1_split
I0501 05:41:03.908613 29990 net.cpp:131] Top shape: 1000 (1000)
I0501 05:41:03.908617 29990 net.cpp:131] Top shape: 1000 (1000)
I0501 05:41:03.908619 29990 net.cpp:139] Memory required for data: 12300000
I0501 05:41:03.908622 29990 layer_factory.hpp:77] Creating layer conv0
I0501 05:41:03.908635 29990 net.cpp:86] Creating Layer conv0
I0501 05:41:03.908638 29990 net.cpp:408] conv0 <- data
I0501 05:41:03.908643 29990 net.cpp:382] conv0 -> conv0
I0501 05:41:03.910254 29990 net.cpp:124] Setting up conv0
I0501 05:41:03.910266 29990 net.cpp:131] Top shape: 1000 8 32 32 (8192000)
I0501 05:41:03.910270 29990 net.cpp:139] Memory required for data: 45068000
I0501 05:41:03.910279 29990 layer_factory.hpp:77] Creating layer Sigmoid0
I0501 05:41:03.910285 29990 net.cpp:86] Creating Layer Sigmoid0
I0501 05:41:03.910289 29990 net.cpp:408] Sigmoid0 <- conv0
I0501 05:41:03.910310 29990 net.cpp:382] Sigmoid0 -> Sigmoid0
I0501 05:41:03.911499 29990 net.cpp:124] Setting up Sigmoid0
I0501 05:41:03.911525 29990 net.cpp:131] Top shape: 1000 8 32 32 (8192000)
I0501 05:41:03.911528 29990 net.cpp:139] Memory required for data: 77836000
I0501 05:41:03.911531 29990 layer_factory.hpp:77] Creating layer pool0
I0501 05:41:03.911554 29990 net.cpp:86] Creating Layer pool0
I0501 05:41:03.911558 29990 net.cpp:408] pool0 <- Sigmoid0
I0501 05:41:03.911562 29990 net.cpp:382] pool0 -> pool0
I0501 05:41:03.911752 29990 net.cpp:124] Setting up pool0
I0501 05:41:03.911761 29990 net.cpp:131] Top shape: 1000 8 16 16 (2048000)
I0501 05:41:03.911764 29990 net.cpp:139] Memory required for data: 86028000
I0501 05:41:03.911767 29990 layer_factory.hpp:77] Creating layer ip1
I0501 05:41:03.911777 29990 net.cpp:86] Creating Layer ip1
I0501 05:41:03.911779 29990 net.cpp:408] ip1 <- pool0
I0501 05:41:03.911784 29990 net.cpp:382] ip1 -> ip1
I0501 05:41:03.916096 29990 net.cpp:124] Setting up ip1
I0501 05:41:03.916106 29990 net.cpp:131] Top shape: 1000 80 (80000)
I0501 05:41:03.916124 29990 net.cpp:139] Memory required for data: 86348000
I0501 05:41:03.916146 29990 layer_factory.hpp:77] Creating layer relu1
I0501 05:41:03.916152 29990 net.cpp:86] Creating Layer relu1
I0501 05:41:03.916157 29990 net.cpp:408] relu1 <- ip1
I0501 05:41:03.916160 29990 net.cpp:369] relu1 -> ip1 (in-place)
I0501 05:41:03.916354 29990 net.cpp:124] Setting up relu1
I0501 05:41:03.916365 29990 net.cpp:131] Top shape: 1000 80 (80000)
I0501 05:41:03.916368 29990 net.cpp:139] Memory required for data: 86668000
I0501 05:41:03.916371 29990 layer_factory.hpp:77] Creating layer ip2
I0501 05:41:03.916376 29990 net.cpp:86] Creating Layer ip2
I0501 05:41:03.916380 29990 net.cpp:408] ip2 <- ip1
I0501 05:41:03.916386 29990 net.cpp:382] ip2 -> ip2
I0501 05:41:03.916570 29990 net.cpp:124] Setting up ip2
I0501 05:41:03.916577 29990 net.cpp:131] Top shape: 1000 40 (40000)
I0501 05:41:03.916580 29990 net.cpp:139] Memory required for data: 86828000
I0501 05:41:03.916587 29990 layer_factory.hpp:77] Creating layer relu2
I0501 05:41:03.916595 29990 net.cpp:86] Creating Layer relu2
I0501 05:41:03.916599 29990 net.cpp:408] relu2 <- ip2
I0501 05:41:03.916602 29990 net.cpp:369] relu2 -> ip2 (in-place)
I0501 05:41:03.917430 29990 net.cpp:124] Setting up relu2
I0501 05:41:03.917443 29990 net.cpp:131] Top shape: 1000 40 (40000)
I0501 05:41:03.917461 29990 net.cpp:139] Memory required for data: 86988000
I0501 05:41:03.917464 29990 layer_factory.hpp:77] Creating layer ip3
I0501 05:41:03.917471 29990 net.cpp:86] Creating Layer ip3
I0501 05:41:03.917475 29990 net.cpp:408] ip3 <- ip2
I0501 05:41:03.917482 29990 net.cpp:382] ip3 -> ip3
I0501 05:41:03.917646 29990 net.cpp:124] Setting up ip3
I0501 05:41:03.917654 29990 net.cpp:131] Top shape: 1000 20 (20000)
I0501 05:41:03.917657 29990 net.cpp:139] Memory required for data: 87068000
I0501 05:41:03.917662 29990 layer_factory.hpp:77] Creating layer relu3
I0501 05:41:03.917667 29990 net.cpp:86] Creating Layer relu3
I0501 05:41:03.917670 29990 net.cpp:408] relu3 <- ip3
I0501 05:41:03.917675 29990 net.cpp:369] relu3 -> ip3 (in-place)
I0501 05:41:03.917826 29990 net.cpp:124] Setting up relu3
I0501 05:41:03.917834 29990 net.cpp:131] Top shape: 1000 20 (20000)
I0501 05:41:03.917837 29990 net.cpp:139] Memory required for data: 87148000
I0501 05:41:03.917840 29990 layer_factory.hpp:77] Creating layer ip4
I0501 05:41:03.917846 29990 net.cpp:86] Creating Layer ip4
I0501 05:41:03.917850 29990 net.cpp:408] ip4 <- ip3
I0501 05:41:03.917855 29990 net.cpp:382] ip4 -> ip4
I0501 05:41:03.917963 29990 net.cpp:124] Setting up ip4
I0501 05:41:03.917969 29990 net.cpp:131] Top shape: 1000 10 (10000)
I0501 05:41:03.917973 29990 net.cpp:139] Memory required for data: 87188000
I0501 05:41:03.917980 29990 layer_factory.hpp:77] Creating layer ip4_ip4_0_split
I0501 05:41:03.917985 29990 net.cpp:86] Creating Layer ip4_ip4_0_split
I0501 05:41:03.917989 29990 net.cpp:408] ip4_ip4_0_split <- ip4
I0501 05:41:03.917994 29990 net.cpp:382] ip4_ip4_0_split -> ip4_ip4_0_split_0
I0501 05:41:03.917999 29990 net.cpp:382] ip4_ip4_0_split -> ip4_ip4_0_split_1
I0501 05:41:03.918030 29990 net.cpp:124] Setting up ip4_ip4_0_split
I0501 05:41:03.918035 29990 net.cpp:131] Top shape: 1000 10 (10000)
I0501 05:41:03.918038 29990 net.cpp:131] Top shape: 1000 10 (10000)
I0501 05:41:03.918040 29990 net.cpp:139] Memory required for data: 87268000
I0501 05:41:03.918043 29990 layer_factory.hpp:77] Creating layer accuracy
I0501 05:41:03.918050 29990 net.cpp:86] Creating Layer accuracy
I0501 05:41:03.918052 29990 net.cpp:408] accuracy <- ip4_ip4_0_split_0
I0501 05:41:03.918056 29990 net.cpp:408] accuracy <- label_cifar_1_split_0
I0501 05:41:03.918061 29990 net.cpp:382] accuracy -> accuracy
…
