…
I0501 02:53:48.976686 17886 net.cpp:296] The NetState phase (0) differed from the phase (1) specified by a rule in layer cifar
I0501 02:53:48.976703 17886 net.cpp:296] The NetState phase (0) differed from the phase (1) specified by a rule in layer accuracy
I0501 02:53:48.976796 17886 net.cpp:53] Initializing net from parameters: 
name: "CIFAR"
state {
  phase: TRAIN
  level: 0
  stage: ""
}
layer {
  name: "cifar"
  type: "Data"
  top: "data"
  top: "label"
  include {
    phase: TRAIN
  }
  transform_param {
    mean_file: "examples/cifar10/mean.binaryproto"
  }
  data_param {
    source: "examples/cifar10/cifar10_train_lmdb"
    batch_size: 111
    backend: LMDB
  }
}
layer {
  name: "conv0"
  type: "Convolution"
  bottom: "data"
  top: "conv0"
  param {
    lr_mult: 1
  }
  param {
    lr_mult: 2
  }
  convolution_param {
    num_output: 8
    pad: 2
    kernel_size: 5
    stride: 1
    weight_filler {
      type: "gaussian"
      std: 0.01
    }
    bias_filler {
      type: "constant"
    }
  }
}
layer {
  name: "Sigmoid0"
  type: "Sigmoid"
  bottom: "conv0"
  top: "Sigmoid0"
}
layer {
  name: "pool0"
  type: "Pooling"
  bottom: "Sigmoid0"
  top: "pool0"
  pooling_param {
    pool: AVE
    kernel_size: 3
    stride: 2
  }
}
layer {
  name: "ip1"
  type: "InnerProduct"
  bottom: "pool0"
  top: "ip1"
  param {
    lr_mult: 1
  }
  param {
    lr_mult: 2
  }
  inner_product_param {
    num_output: 160
    weight_filler {
      type: "gaussian"
      std: 0.01
    }
    bias_filler {
      type: "constant"
    }
  }
}
layer {
  name: "relu1"
  type: "ReLU"
  bottom: "ip1"
  top: "ip1"
}
layer {
  name: "ip2"
  type: "InnerProduct"
  bottom: "ip1"
  top: "ip2"
  param {
    lr_mult: 1
  }
  param {
    lr_mult: 2
  }
  inner_product_param {
    num_output: 20
    weight_filler {
      type: "gaussian"
      std: 0.01
    }
    bias_filler {
      type: "constant"
    }
  }
}
layer {
  name: "relu2"
  type: "ReLU"
  bottom: "ip2"
  top: "ip2"
}
layer {
  name: "ip3"
  type: "InnerProduct"
  bottom: "ip2"
  top: "ip3"
  param {
    lr_mult: 1
  }
  param {
    lr_mult: 2
  }
  inner_product_param {
    num_output: 10
    weight_filler {
      type: "gaussian"
      std: 0.01
    }
    bias_filler {
      type: "constant"
    }
  }
}
layer {
  name: "loss"
  type: "SoftmaxWithLoss"
  bottom: "ip3"
  bottom: "label"
  top: "loss"
}
I0501 02:53:48.976884 17886 layer_factory.hpp:77] Creating layer cifar
I0501 02:53:48.976984 17886 db_lmdb.cpp:35] Opened lmdb examples/cifar10/cifar10_train_lmdb
I0501 02:53:48.977010 17886 net.cpp:86] Creating Layer cifar
I0501 02:53:48.977020 17886 net.cpp:382] cifar -> data
I0501 02:53:48.977041 17886 net.cpp:382] cifar -> label
I0501 02:53:48.977053 17886 data_transformer.cpp:25] Loading mean file from: examples/cifar10/mean.binaryproto
I0501 02:53:48.979166 17886 data_layer.cpp:45] output data size: 111,3,32,32
I0501 02:53:48.987306 17886 net.cpp:124] Setting up cifar
I0501 02:53:48.987326 17886 net.cpp:131] Top shape: 111 3 32 32 (340992)
I0501 02:53:48.987332 17886 net.cpp:131] Top shape: 111 (111)
I0501 02:53:48.987336 17886 net.cpp:139] Memory required for data: 1364412
I0501 02:53:48.987344 17886 layer_factory.hpp:77] Creating layer conv0
I0501 02:53:48.987365 17886 net.cpp:86] Creating Layer conv0
I0501 02:53:48.987370 17886 net.cpp:408] conv0 <- data
I0501 02:53:48.987383 17886 net.cpp:382] conv0 -> conv0
I0501 02:53:49.294958 17886 net.cpp:124] Setting up conv0
I0501 02:53:49.295013 17886 net.cpp:131] Top shape: 111 8 32 32 (909312)
I0501 02:53:49.295019 17886 net.cpp:139] Memory required for data: 5001660
I0501 02:53:49.295037 17886 layer_factory.hpp:77] Creating layer Sigmoid0
I0501 02:53:49.295052 17886 net.cpp:86] Creating Layer Sigmoid0
I0501 02:53:49.295056 17886 net.cpp:408] Sigmoid0 <- conv0
I0501 02:53:49.295063 17886 net.cpp:382] Sigmoid0 -> Sigmoid0
I0501 02:53:49.295265 17886 net.cpp:124] Setting up Sigmoid0
I0501 02:53:49.295277 17886 net.cpp:131] Top shape: 111 8 32 32 (909312)
I0501 02:53:49.295281 17886 net.cpp:139] Memory required for data: 8638908
I0501 02:53:49.295285 17886 layer_factory.hpp:77] Creating layer pool0
I0501 02:53:49.295294 17886 net.cpp:86] Creating Layer pool0
I0501 02:53:49.295300 17886 net.cpp:408] pool0 <- Sigmoid0
I0501 02:53:49.295306 17886 net.cpp:382] pool0 -> pool0
I0501 02:53:49.296185 17886 net.cpp:124] Setting up pool0
I0501 02:53:49.296201 17886 net.cpp:131] Top shape: 111 8 16 16 (227328)
I0501 02:53:49.296205 17886 net.cpp:139] Memory required for data: 9548220
I0501 02:53:49.296210 17886 layer_factory.hpp:77] Creating layer ip1
I0501 02:53:49.296221 17886 net.cpp:86] Creating Layer ip1
I0501 02:53:49.296224 17886 net.cpp:408] ip1 <- pool0
I0501 02:53:49.296231 17886 net.cpp:382] ip1 -> ip1
I0501 02:53:49.308115 17886 net.cpp:124] Setting up ip1
I0501 02:53:49.308131 17886 net.cpp:131] Top shape: 111 160 (17760)
I0501 02:53:49.308135 17886 net.cpp:139] Memory required for data: 9619260
I0501 02:53:49.308145 17886 layer_factory.hpp:77] Creating layer relu1
I0501 02:53:49.308153 17886 net.cpp:86] Creating Layer relu1
I0501 02:53:49.308157 17886 net.cpp:408] relu1 <- ip1
I0501 02:53:49.308164 17886 net.cpp:369] relu1 -> ip1 (in-place)
I0501 02:53:49.308348 17886 net.cpp:124] Setting up relu1
I0501 02:53:49.308358 17886 net.cpp:131] Top shape: 111 160 (17760)
I0501 02:53:49.308362 17886 net.cpp:139] Memory required for data: 9690300
I0501 02:53:49.308367 17886 layer_factory.hpp:77] Creating layer ip2
I0501 02:53:49.308374 17886 net.cpp:86] Creating Layer ip2
I0501 02:53:49.308378 17886 net.cpp:408] ip2 <- ip1
I0501 02:53:49.308384 17886 net.cpp:382] ip2 -> ip2
I0501 02:53:49.308596 17886 net.cpp:124] Setting up ip2
I0501 02:53:49.308604 17886 net.cpp:131] Top shape: 111 20 (2220)
I0501 02:53:49.308609 17886 net.cpp:139] Memory required for data: 9699180
I0501 02:53:49.308617 17886 layer_factory.hpp:77] Creating layer relu2
I0501 02:53:49.308622 17886 net.cpp:86] Creating Layer relu2
I0501 02:53:49.308626 17886 net.cpp:408] relu2 <- ip2
I0501 02:53:49.308632 17886 net.cpp:369] relu2 -> ip2 (in-place)
I0501 02:53:49.308821 17886 net.cpp:124] Setting up relu2
I0501 02:53:49.308835 17886 net.cpp:131] Top shape: 111 20 (2220)
I0501 02:53:49.308838 17886 net.cpp:139] Memory required for data: 9708060
I0501 02:53:49.308842 17886 layer_factory.hpp:77] Creating layer ip3
I0501 02:53:49.308851 17886 net.cpp:86] Creating Layer ip3
I0501 02:53:49.308856 17886 net.cpp:408] ip3 <- ip2
I0501 02:53:49.308861 17886 net.cpp:382] ip3 -> ip3
I0501 02:53:49.308980 17886 net.cpp:124] Setting up ip3
I0501 02:53:49.308989 17886 net.cpp:131] Top shape: 111 10 (1110)
I0501 02:53:49.308991 17886 net.cpp:139] Memory required for data: 9712500
I0501 02:53:49.308998 17886 layer_factory.hpp:77] Creating layer loss
I0501 02:53:49.309005 17886 net.cpp:86] Creating Layer loss
I0501 02:53:49.309008 17886 net.cpp:408] loss <- ip3
I0501 02:53:49.309012 17886 net.cpp:408] loss <- label
I0501 02:53:49.309020 17886 net.cpp:382] loss -> loss
I0501 02:53:49.309041 17886 layer_factory.hpp:77] Creating layer loss
…
I0501 02:53:49.309757 17886 solver.cpp:173] Creating test net (#0) specified by net file: ECE595/cifar/train_test/var_everything/cifar_train_test_336.prototxt
I0501 02:53:49.309793 17886 net.cpp:296] The NetState phase (1) differed from the phase (0) specified by a rule in layer cifar
I0501 02:53:49.309896 17886 net.cpp:53] Initializing net from parameters: 
name: "CIFAR"
state {
  phase: TEST
}
layer {
  name: "cifar"
  type: "Data"
  top: "data"
  top: "label"
  include {
    phase: TEST
  }
  transform_param {
    mean_file: "examples/cifar10/mean.binaryproto"
  }
  data_param {
    source: "examples/cifar10/cifar10_test_lmdb"
    batch_size: 1000
    backend: LMDB
  }
}
layer {
  name: "conv0"
  type: "Convolution"
  bottom: "data"
  top: "conv0"
  param {
    lr_mult: 1
  }
  param {
    lr_mult: 2
  }
  convolution_param {
    num_output: 8
    pad: 2
    kernel_size: 5
    stride: 1
    weight_filler {
      type: "gaussian"
      std: 0.01
    }
    bias_filler {
      type: "constant"
    }
  }
}
layer {
  name: "Sigmoid0"
  type: "Sigmoid"
  bottom: "conv0"
  top: "Sigmoid0"
}
layer {
  name: "pool0"
  type: "Pooling"
  bottom: "Sigmoid0"
  top: "pool0"
  pooling_param {
    pool: AVE
    kernel_size: 3
    stride: 2
  }
}
layer {
  name: "ip1"
  type: "InnerProduct"
  bottom: "pool0"
  top: "ip1"
  param {
    lr_mult: 1
  }
  param {
    lr_mult: 2
  }
  inner_product_param {
    num_output: 160
    weight_filler {
      type: "gaussian"
      std: 0.01
    }
    bias_filler {
      type: "constant"
    }
  }
}
layer {
  name: "relu1"
  type: "ReLU"
  bottom: "ip1"
  top: "ip1"
}
layer {
  name: "ip2"
  type: "InnerProduct"
  bottom: "ip1"
  top: "ip2"
  param {
    lr_mult: 1
  }
  param {
    lr_mult: 2
  }
  inner_product_param {
    num_output: 20
    weight_filler {
      type: "gaussian"
      std: 0.01
    }
    bias_filler {
      type: "constant"
    }
  }
}
layer {
  name: "relu2"
  type: "ReLU"
  bottom: "ip2"
  top: "ip2"
}
layer {
  name: "ip3"
  type: "InnerProduct"
  bottom: "ip2"
  top: "ip3"
  param {
    lr_mult: 1
  }
  param {
    lr_mult: 2
  }
  inner_product_param {
    num_output: 10
    weight_filler {
      type: "gaussian"
      std: 0.01
    }
    bias_filler {
      type: "constant"
    }
  }
}
layer {
  name: "accuracy"
  type: "Accuracy"
  bottom: "ip3"
  bottom: "label"
  top: "accuracy"
  include {
    phase: TEST
  }
}
layer {
  name: "loss"
  type: "SoftmaxWithLoss"
  bottom: "ip3"
  bottom: "label"
  top: "loss"
}
I0501 02:53:49.309976 17886 layer_factory.hpp:77] Creating layer cifar
I0501 02:53:49.310034 17886 db_lmdb.cpp:35] Opened lmdb examples/cifar10/cifar10_test_lmdb
I0501 02:53:49.310048 17886 net.cpp:86] Creating Layer cifar
I0501 02:53:49.310053 17886 net.cpp:382] cifar -> data
I0501 02:53:49.310063 17886 net.cpp:382] cifar -> label
I0501 02:53:49.310071 17886 data_transformer.cpp:25] Loading mean file from: examples/cifar10/mean.binaryproto
I0501 02:53:49.310240 17886 data_layer.cpp:45] output data size: 1000,3,32,32
I0501 02:53:49.336237 17886 net.cpp:124] Setting up cifar
I0501 02:53:49.336266 17886 net.cpp:131] Top shape: 1000 3 32 32 (3072000)
I0501 02:53:49.336273 17886 net.cpp:131] Top shape: 1000 (1000)
I0501 02:53:49.336277 17886 net.cpp:139] Memory required for data: 12292000
I0501 02:53:49.336284 17886 layer_factory.hpp:77] Creating layer label_cifar_1_split
I0501 02:53:49.336304 17886 net.cpp:86] Creating Layer label_cifar_1_split
I0501 02:53:49.336331 17886 net.cpp:408] label_cifar_1_split <- label
I0501 02:53:49.336339 17886 net.cpp:382] label_cifar_1_split -> label_cifar_1_split_0
I0501 02:53:49.336349 17886 net.cpp:382] label_cifar_1_split -> label_cifar_1_split_1
I0501 02:53:49.336458 17886 net.cpp:124] Setting up label_cifar_1_split
I0501 02:53:49.336467 17886 net.cpp:131] Top shape: 1000 (1000)
I0501 02:53:49.336472 17886 net.cpp:131] Top shape: 1000 (1000)
I0501 02:53:49.336475 17886 net.cpp:139] Memory required for data: 12300000
I0501 02:53:49.336479 17886 layer_factory.hpp:77] Creating layer conv0
I0501 02:53:49.336493 17886 net.cpp:86] Creating Layer conv0
I0501 02:53:49.336498 17886 net.cpp:408] conv0 <- data
I0501 02:53:49.336505 17886 net.cpp:382] conv0 -> conv0
I0501 02:53:49.338325 17886 net.cpp:124] Setting up conv0
I0501 02:53:49.338342 17886 net.cpp:131] Top shape: 1000 8 32 32 (8192000)
I0501 02:53:49.338347 17886 net.cpp:139] Memory required for data: 45068000
I0501 02:53:49.338359 17886 layer_factory.hpp:77] Creating layer Sigmoid0
I0501 02:53:49.338367 17886 net.cpp:86] Creating Layer Sigmoid0
I0501 02:53:49.338371 17886 net.cpp:408] Sigmoid0 <- conv0
I0501 02:53:49.338377 17886 net.cpp:382] Sigmoid0 -> Sigmoid0
I0501 02:53:49.339373 17886 net.cpp:124] Setting up Sigmoid0
I0501 02:53:49.339388 17886 net.cpp:131] Top shape: 1000 8 32 32 (8192000)
I0501 02:53:49.339392 17886 net.cpp:139] Memory required for data: 77836000
I0501 02:53:49.339397 17886 layer_factory.hpp:77] Creating layer pool0
I0501 02:53:49.339408 17886 net.cpp:86] Creating Layer pool0
I0501 02:53:49.339412 17886 net.cpp:408] pool0 <- Sigmoid0
I0501 02:53:49.339418 17886 net.cpp:382] pool0 -> pool0
I0501 02:53:49.340569 17886 net.cpp:124] Setting up pool0
I0501 02:53:49.340580 17886 net.cpp:131] Top shape: 1000 8 16 16 (2048000)
I0501 02:53:49.340584 17886 net.cpp:139] Memory required for data: 86028000
I0501 02:53:49.340589 17886 layer_factory.hpp:77] Creating layer ip1
I0501 02:53:49.340597 17886 net.cpp:86] Creating Layer ip1
I0501 02:53:49.340601 17886 net.cpp:408] ip1 <- pool0
I0501 02:53:49.340608 17886 net.cpp:382] ip1 -> ip1
I0501 02:53:49.352465 17886 net.cpp:124] Setting up ip1
I0501 02:53:49.352483 17886 net.cpp:131] Top shape: 1000 160 (160000)
I0501 02:53:49.352488 17886 net.cpp:139] Memory required for data: 86668000
I0501 02:53:49.352499 17886 layer_factory.hpp:77] Creating layer relu1
I0501 02:53:49.352506 17886 net.cpp:86] Creating Layer relu1
I0501 02:53:49.352511 17886 net.cpp:408] relu1 <- ip1
I0501 02:53:49.352516 17886 net.cpp:369] relu1 -> ip1 (in-place)
I0501 02:53:49.352722 17886 net.cpp:124] Setting up relu1
I0501 02:53:49.352733 17886 net.cpp:131] Top shape: 1000 160 (160000)
I0501 02:53:49.352737 17886 net.cpp:139] Memory required for data: 87308000
I0501 02:53:49.352742 17886 layer_factory.hpp:77] Creating layer ip2
I0501 02:53:49.352751 17886 net.cpp:86] Creating Layer ip2
I0501 02:53:49.352756 17886 net.cpp:408] ip2 <- ip1
I0501 02:53:49.352761 17886 net.cpp:382] ip2 -> ip2
I0501 02:53:49.353005 17886 net.cpp:124] Setting up ip2
I0501 02:53:49.353016 17886 net.cpp:131] Top shape: 1000 20 (20000)
I0501 02:53:49.353019 17886 net.cpp:139] Memory required for data: 87388000
I0501 02:53:49.353029 17886 layer_factory.hpp:77] Creating layer relu2
I0501 02:53:49.353036 17886 net.cpp:86] Creating Layer relu2
I0501 02:53:49.353040 17886 net.cpp:408] relu2 <- ip2
I0501 02:53:49.353046 17886 net.cpp:369] relu2 -> ip2 (in-place)
I0501 02:53:49.353236 17886 net.cpp:124] Setting up relu2
I0501 02:53:49.353245 17886 net.cpp:131] Top shape: 1000 20 (20000)
I0501 02:53:49.353250 17886 net.cpp:139] Memory required for data: 87468000
I0501 02:53:49.353253 17886 layer_factory.hpp:77] Creating layer ip3
I0501 02:53:49.353261 17886 net.cpp:86] Creating Layer ip3
I0501 02:53:49.353265 17886 net.cpp:408] ip3 <- ip2
I0501 02:53:49.353271 17886 net.cpp:382] ip3 -> ip3
I0501 02:53:49.353401 17886 net.cpp:124] Setting up ip3
I0501 02:53:49.353410 17886 net.cpp:131] Top shape: 1000 10 (10000)
I0501 02:53:49.353415 17886 net.cpp:139] Memory required for data: 87508000
I0501 02:53:49.353436 17886 layer_factory.hpp:77] Creating layer ip3_ip3_0_split
I0501 02:53:49.353443 17886 net.cpp:86] Creating Layer ip3_ip3_0_split
I0501 02:53:49.353447 17886 net.cpp:408] ip3_ip3_0_split <- ip3
I0501 02:53:49.353452 17886 net.cpp:382] ip3_ip3_0_split -> ip3_ip3_0_split_0
I0501 02:53:49.353459 17886 net.cpp:382] ip3_ip3_0_split -> ip3_ip3_0_split_1
I0501 02:53:49.353498 17886 net.cpp:124] Setting up ip3_ip3_0_split
I0501 02:53:49.353507 17886 net.cpp:131] Top shape: 1000 10 (10000)
I0501 02:53:49.353510 17886 net.cpp:131] Top shape: 1000 10 (10000)
I0501 02:53:49.353514 17886 net.cpp:139] Memory required for data: 87588000
I0501 02:53:49.353518 17886 layer_factory.hpp:77] Creating layer accuracy
I0501 02:53:49.353525 17886 net.cpp:86] Creating Layer accuracy
I0501 02:53:49.353528 17886 net.cpp:408] accuracy <- ip3_ip3_0_split_0
I0501 02:53:49.353533 17886 net.cpp:408] accuracy <- label_cifar_1_split_0
I0501 02:53:49.353539 17886 net.cpp:382] accuracy -> accuracy
…
