…
I0430 23:42:42.197013  5359 net.cpp:296] The NetState phase (0) differed from the phase (1) specified by a rule in layer cifar
I0430 23:42:42.197046  5359 net.cpp:296] The NetState phase (0) differed from the phase (1) specified by a rule in layer accuracy
I0430 23:42:42.197130  5359 net.cpp:53] Initializing net from parameters: 
name: "CIFAR"
state {
  phase: TRAIN
  level: 0
  stage: ""
}
layer {
  name: "cifar"
  type: "Data"
  top: "data"
  top: "label"
  include {
    phase: TRAIN
  }
  transform_param {
    mean_file: "examples/cifar10/mean.binaryproto"
  }
  data_param {
    source: "examples/cifar10/cifar10_train_lmdb"
    batch_size: 111
    backend: LMDB
  }
}
layer {
  name: "conv0"
  type: "Convolution"
  bottom: "data"
  top: "conv0"
  param {
    lr_mult: 1
  }
  param {
    lr_mult: 2
  }
  convolution_param {
    num_output: 8
    pad: 2
    kernel_size: 3
    stride: 1
    weight_filler {
      type: "gaussian"
      std: 0.01
    }
    bias_filler {
      type: "constant"
    }
  }
}
layer {
  name: "Sigmoid0"
  type: "Sigmoid"
  bottom: "conv0"
  top: "Sigmoid0"
}
layer {
  name: "pool0"
  type: "Pooling"
  bottom: "Sigmoid0"
  top: "pool0"
  pooling_param {
    pool: AVE
    kernel_size: 3
    stride: 2
  }
}
layer {
  name: "ip1"
  type: "InnerProduct"
  bottom: "pool0"
  top: "ip1"
  param {
    lr_mult: 1
  }
  param {
    lr_mult: 2
  }
  inner_product_param {
    num_output: 20
    weight_filler {
      type: "gaussian"
      std: 0.01
    }
    bias_filler {
      type: "constant"
    }
  }
}
layer {
  name: "relu1"
  type: "ReLU"
  bottom: "ip1"
  top: "ip1"
}
layer {
  name: "ip2"
  type: "InnerProduct"
  bottom: "ip1"
  top: "ip2"
  param {
    lr_mult: 1
  }
  param {
    lr_mult: 2
  }
  inner_product_param {
    num_output: 160
    weight_filler {
      type: "gaussian"
      std: 0.01
    }
    bias_filler {
      type: "constant"
    }
  }
}
layer {
  name: "relu2"
  type: "ReLU"
  bottom: "ip2"
  top: "ip2"
}
layer {
  name: "ip3"
  type: "InnerProduct"
  bottom: "ip2"
  top: "ip3"
  param {
    lr_mult: 1
  }
  param {
    lr_mult: 2
  }
  inner_product_param {
    num_output: 160
    weight_filler {
      type: "gaussian"
      std: 0.01
    }
    bias_filler {
      type: "constant"
    }
  }
}
layer {
  name: "relu3"
  type: "ReLU"
  bottom: "ip3"
  top: "ip3"
}
layer {
  name: "ip4"
  type: "InnerProduct"
  bottom: "ip3"
  top: "ip4"
  param {
    lr_mult: 1
  }
  param {
    lr_mult: 2
  }
  inner_product_param {
    num_output: 10
    weight_filler {
      type: "gaussian"
      std: 0.01
    }
    bias_filler {
      type: "constant"
    }
  }
}
layer {
  name: "loss"
  type: "SoftmaxWithLoss"
  bottom: "ip4"
  bottom: "label"
  top: "loss"
}
I0430 23:42:42.197235  5359 layer_factory.hpp:77] Creating layer cifar
I0430 23:42:42.197315  5359 db_lmdb.cpp:35] Opened lmdb examples/cifar10/cifar10_train_lmdb
I0430 23:42:42.197338  5359 net.cpp:86] Creating Layer cifar
I0430 23:42:42.197346  5359 net.cpp:382] cifar -> data
I0430 23:42:42.197365  5359 net.cpp:382] cifar -> label
I0430 23:42:42.197376  5359 data_transformer.cpp:25] Loading mean file from: examples/cifar10/mean.binaryproto
I0430 23:42:42.199090  5359 data_layer.cpp:45] output data size: 111,3,32,32
I0430 23:42:42.205518  5359 net.cpp:124] Setting up cifar
I0430 23:42:42.205531  5359 net.cpp:131] Top shape: 111 3 32 32 (340992)
I0430 23:42:42.205536  5359 net.cpp:131] Top shape: 111 (111)
I0430 23:42:42.205539  5359 net.cpp:139] Memory required for data: 1364412
I0430 23:42:42.205559  5359 layer_factory.hpp:77] Creating layer conv0
I0430 23:42:42.205571  5359 net.cpp:86] Creating Layer conv0
I0430 23:42:42.205576  5359 net.cpp:408] conv0 <- data
I0430 23:42:42.205585  5359 net.cpp:382] conv0 -> conv0
I0430 23:42:42.435606  5359 net.cpp:124] Setting up conv0
I0430 23:42:42.435649  5359 net.cpp:131] Top shape: 111 8 34 34 (1026528)
I0430 23:42:42.435653  5359 net.cpp:139] Memory required for data: 5470524
I0430 23:42:42.435668  5359 layer_factory.hpp:77] Creating layer Sigmoid0
I0430 23:42:42.435679  5359 net.cpp:86] Creating Layer Sigmoid0
I0430 23:42:42.435683  5359 net.cpp:408] Sigmoid0 <- conv0
I0430 23:42:42.435688  5359 net.cpp:382] Sigmoid0 -> Sigmoid0
I0430 23:42:42.435873  5359 net.cpp:124] Setting up Sigmoid0
I0430 23:42:42.435883  5359 net.cpp:131] Top shape: 111 8 34 34 (1026528)
I0430 23:42:42.435886  5359 net.cpp:139] Memory required for data: 9576636
I0430 23:42:42.435889  5359 layer_factory.hpp:77] Creating layer pool0
I0430 23:42:42.435896  5359 net.cpp:86] Creating Layer pool0
I0430 23:42:42.435899  5359 net.cpp:408] pool0 <- Sigmoid0
I0430 23:42:42.435904  5359 net.cpp:382] pool0 -> pool0
I0430 23:42:42.436625  5359 net.cpp:124] Setting up pool0
I0430 23:42:42.436637  5359 net.cpp:131] Top shape: 111 8 17 17 (256632)
I0430 23:42:42.436640  5359 net.cpp:139] Memory required for data: 10603164
I0430 23:42:42.436643  5359 layer_factory.hpp:77] Creating layer ip1
I0430 23:42:42.436653  5359 net.cpp:86] Creating Layer ip1
I0430 23:42:42.436656  5359 net.cpp:408] ip1 <- pool0
I0430 23:42:42.436661  5359 net.cpp:382] ip1 -> ip1
I0430 23:42:42.438769  5359 net.cpp:124] Setting up ip1
I0430 23:42:42.438781  5359 net.cpp:131] Top shape: 111 20 (2220)
I0430 23:42:42.438784  5359 net.cpp:139] Memory required for data: 10612044
I0430 23:42:42.438791  5359 layer_factory.hpp:77] Creating layer relu1
I0430 23:42:42.438798  5359 net.cpp:86] Creating Layer relu1
I0430 23:42:42.438802  5359 net.cpp:408] relu1 <- ip1
I0430 23:42:42.438807  5359 net.cpp:369] relu1 -> ip1 (in-place)
I0430 23:42:42.438990  5359 net.cpp:124] Setting up relu1
I0430 23:42:42.438999  5359 net.cpp:131] Top shape: 111 20 (2220)
I0430 23:42:42.439002  5359 net.cpp:139] Memory required for data: 10620924
I0430 23:42:42.439005  5359 layer_factory.hpp:77] Creating layer ip2
I0430 23:42:42.439013  5359 net.cpp:86] Creating Layer ip2
I0430 23:42:42.439015  5359 net.cpp:408] ip2 <- ip1
I0430 23:42:42.439021  5359 net.cpp:382] ip2 -> ip2
I0430 23:42:42.439200  5359 net.cpp:124] Setting up ip2
I0430 23:42:42.439208  5359 net.cpp:131] Top shape: 111 160 (17760)
I0430 23:42:42.439211  5359 net.cpp:139] Memory required for data: 10691964
I0430 23:42:42.439218  5359 layer_factory.hpp:77] Creating layer relu2
I0430 23:42:42.439224  5359 net.cpp:86] Creating Layer relu2
I0430 23:42:42.439241  5359 net.cpp:408] relu2 <- ip2
I0430 23:42:42.439246  5359 net.cpp:369] relu2 -> ip2 (in-place)
I0430 23:42:42.439399  5359 net.cpp:124] Setting up relu2
I0430 23:42:42.439406  5359 net.cpp:131] Top shape: 111 160 (17760)
I0430 23:42:42.439409  5359 net.cpp:139] Memory required for data: 10763004
I0430 23:42:42.439412  5359 layer_factory.hpp:77] Creating layer ip3
I0430 23:42:42.439419  5359 net.cpp:86] Creating Layer ip3
I0430 23:42:42.439424  5359 net.cpp:408] ip3 <- ip2
I0430 23:42:42.439427  5359 net.cpp:382] ip3 -> ip3
I0430 23:42:42.440153  5359 net.cpp:124] Setting up ip3
I0430 23:42:42.440160  5359 net.cpp:131] Top shape: 111 160 (17760)
I0430 23:42:42.440178  5359 net.cpp:139] Memory required for data: 10834044
I0430 23:42:42.440184  5359 layer_factory.hpp:77] Creating layer relu3
I0430 23:42:42.440188  5359 net.cpp:86] Creating Layer relu3
I0430 23:42:42.440191  5359 net.cpp:408] relu3 <- ip3
I0430 23:42:42.440199  5359 net.cpp:369] relu3 -> ip3 (in-place)
I0430 23:42:42.440377  5359 net.cpp:124] Setting up relu3
I0430 23:42:42.440385  5359 net.cpp:131] Top shape: 111 160 (17760)
I0430 23:42:42.440388  5359 net.cpp:139] Memory required for data: 10905084
I0430 23:42:42.440392  5359 layer_factory.hpp:77] Creating layer ip4
I0430 23:42:42.440412  5359 net.cpp:86] Creating Layer ip4
I0430 23:42:42.440414  5359 net.cpp:408] ip4 <- ip3
I0430 23:42:42.440419  5359 net.cpp:382] ip4 -> ip4
I0430 23:42:42.440548  5359 net.cpp:124] Setting up ip4
I0430 23:42:42.440557  5359 net.cpp:131] Top shape: 111 10 (1110)
I0430 23:42:42.440558  5359 net.cpp:139] Memory required for data: 10909524
I0430 23:42:42.440565  5359 layer_factory.hpp:77] Creating layer loss
I0430 23:42:42.440572  5359 net.cpp:86] Creating Layer loss
I0430 23:42:42.440575  5359 net.cpp:408] loss <- ip4
I0430 23:42:42.440578  5359 net.cpp:408] loss <- label
I0430 23:42:42.440583  5359 net.cpp:382] loss -> loss
I0430 23:42:42.440599  5359 layer_factory.hpp:77] Creating layer loss
…
I0430 23:42:42.441848  5359 solver.cpp:173] Creating test net (#0) specified by net file: ECE595/cifar/train_test/var_everything/cifar_train_test_234.prototxt
I0430 23:42:42.441889  5359 net.cpp:296] The NetState phase (1) differed from the phase (0) specified by a rule in layer cifar
I0430 23:42:42.441980  5359 net.cpp:53] Initializing net from parameters: 
name: "CIFAR"
state {
  phase: TEST
}
layer {
  name: "cifar"
  type: "Data"
  top: "data"
  top: "label"
  include {
    phase: TEST
  }
  transform_param {
    mean_file: "examples/cifar10/mean.binaryproto"
  }
  data_param {
    source: "examples/cifar10/cifar10_test_lmdb"
    batch_size: 1000
    backend: LMDB
  }
}
layer {
  name: "conv0"
  type: "Convolution"
  bottom: "data"
  top: "conv0"
  param {
    lr_mult: 1
  }
  param {
    lr_mult: 2
  }
  convolution_param {
    num_output: 8
    pad: 2
    kernel_size: 3
    stride: 1
    weight_filler {
      type: "gaussian"
      std: 0.01
    }
    bias_filler {
      type: "constant"
    }
  }
}
layer {
  name: "Sigmoid0"
  type: "Sigmoid"
  bottom: "conv0"
  top: "Sigmoid0"
}
layer {
  name: "pool0"
  type: "Pooling"
  bottom: "Sigmoid0"
  top: "pool0"
  pooling_param {
    pool: AVE
    kernel_size: 3
    stride: 2
  }
}
layer {
  name: "ip1"
  type: "InnerProduct"
  bottom: "pool0"
  top: "ip1"
  param {
    lr_mult: 1
  }
  param {
    lr_mult: 2
  }
  inner_product_param {
    num_output: 20
    weight_filler {
      type: "gaussian"
      std: 0.01
    }
    bias_filler {
      type: "constant"
    }
  }
}
layer {
  name: "relu1"
  type: "ReLU"
  bottom: "ip1"
  top: "ip1"
}
layer {
  name: "ip2"
  type: "InnerProduct"
  bottom: "ip1"
  top: "ip2"
  param {
    lr_mult: 1
  }
  param {
    lr_mult: 2
  }
  inner_product_param {
    num_output: 160
    weight_filler {
      type: "gaussian"
      std: 0.01
    }
    bias_filler {
      type: "constant"
    }
  }
}
layer {
  name: "relu2"
  type: "ReLU"
  bottom: "ip2"
  top: "ip2"
}
layer {
  name: "ip3"
  type: "InnerProduct"
  bottom: "ip2"
  top: "ip3"
  param {
    lr_mult: 1
  }
  param {
    lr_mult: 2
  }
  inner_product_param {
    num_output: 160
    weight_filler {
      type: "gaussian"
      std: 0.01
    }
    bias_filler {
      type: "constant"
    }
  }
}
layer {
  name: "relu3"
  type: "ReLU"
  bottom: "ip3"
  top: "ip3"
}
layer {
  name: "ip4"
  type: "InnerProduct"
  bottom: "ip3"
  top: "ip4"
  param {
    lr_mult: 1
  }
  param {
    lr_mult: 2
  }
  inner_product_param {
    num_output: 10
    weight_filler {
      type: "gaussian"
      std: 0.01
    }
    bias_filler {
      type: "constant"
    }
  }
}
layer {
  name: "accuracy"
  type: "Accuracy"
  bottom: "ip4"
  bottom: "label"
  top: "accuracy"
  include {
    phase: TEST
  }
}
layer {
  name: "loss"
  type: "SoftmaxWithLoss"
  bottom: "ip4"
  bottom: "label"
  top: "loss"
}
I0430 23:42:42.442061  5359 layer_factory.hpp:77] Creating layer cifar
I0430 23:42:42.442106  5359 db_lmdb.cpp:35] Opened lmdb examples/cifar10/cifar10_test_lmdb
I0430 23:42:42.442117  5359 net.cpp:86] Creating Layer cifar
I0430 23:42:42.442122  5359 net.cpp:382] cifar -> data
I0430 23:42:42.442131  5359 net.cpp:382] cifar -> label
I0430 23:42:42.442137  5359 data_transformer.cpp:25] Loading mean file from: examples/cifar10/mean.binaryproto
I0430 23:42:42.442291  5359 data_layer.cpp:45] output data size: 1000,3,32,32
I0430 23:42:42.464479  5359 net.cpp:124] Setting up cifar
I0430 23:42:42.464506  5359 net.cpp:131] Top shape: 1000 3 32 32 (3072000)
I0430 23:42:42.464514  5359 net.cpp:131] Top shape: 1000 (1000)
I0430 23:42:42.464516  5359 net.cpp:139] Memory required for data: 12292000
I0430 23:42:42.464521  5359 layer_factory.hpp:77] Creating layer label_cifar_1_split
I0430 23:42:42.464570  5359 net.cpp:86] Creating Layer label_cifar_1_split
I0430 23:42:42.464573  5359 net.cpp:408] label_cifar_1_split <- label
I0430 23:42:42.464579  5359 net.cpp:382] label_cifar_1_split -> label_cifar_1_split_0
I0430 23:42:42.464588  5359 net.cpp:382] label_cifar_1_split -> label_cifar_1_split_1
I0430 23:42:42.464639  5359 net.cpp:124] Setting up label_cifar_1_split
I0430 23:42:42.464644  5359 net.cpp:131] Top shape: 1000 (1000)
I0430 23:42:42.464648  5359 net.cpp:131] Top shape: 1000 (1000)
I0430 23:42:42.464650  5359 net.cpp:139] Memory required for data: 12300000
I0430 23:42:42.464653  5359 layer_factory.hpp:77] Creating layer conv0
I0430 23:42:42.464668  5359 net.cpp:86] Creating Layer conv0
I0430 23:42:42.464671  5359 net.cpp:408] conv0 <- data
I0430 23:42:42.464678  5359 net.cpp:382] conv0 -> conv0
I0430 23:42:42.466446  5359 net.cpp:124] Setting up conv0
I0430 23:42:42.466459  5359 net.cpp:131] Top shape: 1000 8 34 34 (9248000)
I0430 23:42:42.466464  5359 net.cpp:139] Memory required for data: 49292000
I0430 23:42:42.466472  5359 layer_factory.hpp:77] Creating layer Sigmoid0
I0430 23:42:42.466480  5359 net.cpp:86] Creating Layer Sigmoid0
I0430 23:42:42.466498  5359 net.cpp:408] Sigmoid0 <- conv0
I0430 23:42:42.466502  5359 net.cpp:382] Sigmoid0 -> Sigmoid0
I0430 23:42:42.466691  5359 net.cpp:124] Setting up Sigmoid0
I0430 23:42:42.466701  5359 net.cpp:131] Top shape: 1000 8 34 34 (9248000)
I0430 23:42:42.466703  5359 net.cpp:139] Memory required for data: 86284000
I0430 23:42:42.466706  5359 layer_factory.hpp:77] Creating layer pool0
I0430 23:42:42.466713  5359 net.cpp:86] Creating Layer pool0
I0430 23:42:42.466717  5359 net.cpp:408] pool0 <- Sigmoid0
I0430 23:42:42.466722  5359 net.cpp:382] pool0 -> pool0
I0430 23:42:42.466879  5359 net.cpp:124] Setting up pool0
I0430 23:42:42.466887  5359 net.cpp:131] Top shape: 1000 8 17 17 (2312000)
I0430 23:42:42.466894  5359 net.cpp:139] Memory required for data: 95532000
I0430 23:42:42.466897  5359 layer_factory.hpp:77] Creating layer ip1
I0430 23:42:42.466907  5359 net.cpp:86] Creating Layer ip1
I0430 23:42:42.466909  5359 net.cpp:408] ip1 <- pool0
I0430 23:42:42.466913  5359 net.cpp:382] ip1 -> ip1
I0430 23:42:42.468335  5359 net.cpp:124] Setting up ip1
I0430 23:42:42.468345  5359 net.cpp:131] Top shape: 1000 20 (20000)
I0430 23:42:42.468348  5359 net.cpp:139] Memory required for data: 95612000
I0430 23:42:42.468391  5359 layer_factory.hpp:77] Creating layer relu1
I0430 23:42:42.468397  5359 net.cpp:86] Creating Layer relu1
I0430 23:42:42.468400  5359 net.cpp:408] relu1 <- ip1
I0430 23:42:42.468405  5359 net.cpp:369] relu1 -> ip1 (in-place)
I0430 23:42:42.468586  5359 net.cpp:124] Setting up relu1
I0430 23:42:42.468595  5359 net.cpp:131] Top shape: 1000 20 (20000)
I0430 23:42:42.468598  5359 net.cpp:139] Memory required for data: 95692000
I0430 23:42:42.468601  5359 layer_factory.hpp:77] Creating layer ip2
I0430 23:42:42.468607  5359 net.cpp:86] Creating Layer ip2
I0430 23:42:42.468611  5359 net.cpp:408] ip2 <- ip1
I0430 23:42:42.468616  5359 net.cpp:382] ip2 -> ip2
I0430 23:42:42.468804  5359 net.cpp:124] Setting up ip2
I0430 23:42:42.468835  5359 net.cpp:131] Top shape: 1000 160 (160000)
I0430 23:42:42.468838  5359 net.cpp:139] Memory required for data: 96332000
I0430 23:42:42.468860  5359 layer_factory.hpp:77] Creating layer relu2
I0430 23:42:42.468868  5359 net.cpp:86] Creating Layer relu2
I0430 23:42:42.468878  5359 net.cpp:408] relu2 <- ip2
I0430 23:42:42.468883  5359 net.cpp:369] relu2 -> ip2 (in-place)
I0430 23:42:42.469650  5359 net.cpp:124] Setting up relu2
I0430 23:42:42.469662  5359 net.cpp:131] Top shape: 1000 160 (160000)
I0430 23:42:42.469666  5359 net.cpp:139] Memory required for data: 96972000
I0430 23:42:42.469668  5359 layer_factory.hpp:77] Creating layer ip3
I0430 23:42:42.469676  5359 net.cpp:86] Creating Layer ip3
I0430 23:42:42.469696  5359 net.cpp:408] ip3 <- ip2
I0430 23:42:42.469702  5359 net.cpp:382] ip3 -> ip3
I0430 23:42:42.470469  5359 net.cpp:124] Setting up ip3
I0430 23:42:42.470479  5359 net.cpp:131] Top shape: 1000 160 (160000)
I0430 23:42:42.470481  5359 net.cpp:139] Memory required for data: 97612000
I0430 23:42:42.470486  5359 layer_factory.hpp:77] Creating layer relu3
I0430 23:42:42.470491  5359 net.cpp:86] Creating Layer relu3
I0430 23:42:42.470510  5359 net.cpp:408] relu3 <- ip3
I0430 23:42:42.470515  5359 net.cpp:369] relu3 -> ip3 (in-place)
I0430 23:42:42.470659  5359 net.cpp:124] Setting up relu3
I0430 23:42:42.470669  5359 net.cpp:131] Top shape: 1000 160 (160000)
I0430 23:42:42.470672  5359 net.cpp:139] Memory required for data: 98252000
I0430 23:42:42.470675  5359 layer_factory.hpp:77] Creating layer ip4
I0430 23:42:42.470680  5359 net.cpp:86] Creating Layer ip4
I0430 23:42:42.470684  5359 net.cpp:408] ip4 <- ip3
I0430 23:42:42.470688  5359 net.cpp:382] ip4 -> ip4
I0430 23:42:42.470844  5359 net.cpp:124] Setting up ip4
I0430 23:42:42.470851  5359 net.cpp:131] Top shape: 1000 10 (10000)
I0430 23:42:42.470855  5359 net.cpp:139] Memory required for data: 98292000
I0430 23:42:42.470862  5359 layer_factory.hpp:77] Creating layer ip4_ip4_0_split
I0430 23:42:42.470868  5359 net.cpp:86] Creating Layer ip4_ip4_0_split
I0430 23:42:42.470871  5359 net.cpp:408] ip4_ip4_0_split <- ip4
I0430 23:42:42.470875  5359 net.cpp:382] ip4_ip4_0_split -> ip4_ip4_0_split_0
I0430 23:42:42.470880  5359 net.cpp:382] ip4_ip4_0_split -> ip4_ip4_0_split_1
I0430 23:42:42.470911  5359 net.cpp:124] Setting up ip4_ip4_0_split
I0430 23:42:42.470916  5359 net.cpp:131] Top shape: 1000 10 (10000)
I0430 23:42:42.470921  5359 net.cpp:131] Top shape: 1000 10 (10000)
I0430 23:42:42.470923  5359 net.cpp:139] Memory required for data: 98372000
I0430 23:42:42.470926  5359 layer_factory.hpp:77] Creating layer accuracy
I0430 23:42:42.470932  5359 net.cpp:86] Creating Layer accuracy
I0430 23:42:42.470935  5359 net.cpp:408] accuracy <- ip4_ip4_0_split_0
I0430 23:42:42.470939  5359 net.cpp:408] accuracy <- label_cifar_1_split_0
I0430 23:42:42.470943  5359 net.cpp:382] accuracy -> accuracy
…
