…
I0501 01:23:51.116967 10438 net.cpp:296] The NetState phase (0) differed from the phase (1) specified by a rule in layer cifar
I0501 01:23:51.116989 10438 net.cpp:296] The NetState phase (0) differed from the phase (1) specified by a rule in layer accuracy
I0501 01:23:51.117097 10438 net.cpp:53] Initializing net from parameters: 
name: "CIFAR"
state {
  phase: TRAIN
  level: 0
  stage: ""
}
layer {
  name: "cifar"
  type: "Data"
  top: "data"
  top: "label"
  include {
    phase: TRAIN
  }
  transform_param {
    mean_file: "examples/cifar10/mean.binaryproto"
  }
  data_param {
    source: "examples/cifar10/cifar10_train_lmdb"
    batch_size: 111
    backend: LMDB
  }
}
layer {
  name: "conv0"
  type: "Convolution"
  bottom: "data"
  top: "conv0"
  param {
    lr_mult: 1
  }
  param {
    lr_mult: 2
  }
  convolution_param {
    num_output: 8
    pad: 2
    kernel_size: 3
    stride: 1
    weight_filler {
      type: "gaussian"
      std: 0.01
    }
    bias_filler {
      type: "constant"
    }
  }
}
layer {
  name: "Sigmoid0"
  type: "Sigmoid"
  bottom: "conv0"
  top: "Sigmoid0"
}
layer {
  name: "pool0"
  type: "Pooling"
  bottom: "Sigmoid0"
  top: "pool0"
  pooling_param {
    pool: AVE
    kernel_size: 3
    stride: 2
  }
}
layer {
  name: "ip1"
  type: "InnerProduct"
  bottom: "pool0"
  top: "ip1"
  param {
    lr_mult: 1
  }
  param {
    lr_mult: 2
  }
  inner_product_param {
    num_output: 160
    weight_filler {
      type: "gaussian"
      std: 0.01
    }
    bias_filler {
      type: "constant"
    }
  }
}
layer {
  name: "relu1"
  type: "ReLU"
  bottom: "ip1"
  top: "ip1"
}
layer {
  name: "ip2"
  type: "InnerProduct"
  bottom: "ip1"
  top: "ip2"
  param {
    lr_mult: 1
  }
  param {
    lr_mult: 2
  }
  inner_product_param {
    num_output: 10
    weight_filler {
      type: "gaussian"
      std: 0.01
    }
    bias_filler {
      type: "constant"
    }
  }
}
layer {
  name: "relu2"
  type: "ReLU"
  bottom: "ip2"
  top: "ip2"
}
layer {
  name: "ip3"
  type: "InnerProduct"
  bottom: "ip2"
  top: "ip3"
  param {
    lr_mult: 1
  }
  param {
    lr_mult: 2
  }
  inner_product_param {
    num_output: 80
    weight_filler {
      type: "gaussian"
      std: 0.01
    }
    bias_filler {
      type: "constant"
    }
  }
}
layer {
  name: "relu3"
  type: "ReLU"
  bottom: "ip3"
  top: "ip3"
}
layer {
  name: "ip4"
  type: "InnerProduct"
  bottom: "ip3"
  top: "ip4"
  param {
    lr_mult: 1
  }
  param {
    lr_mult: 2
  }
  inner_product_param {
    num_output: 10
    weight_filler {
      type: "gaussian"
      std: 0.01
    }
    bias_filler {
      type: "constant"
    }
  }
}
layer {
  name: "loss"
  type: "SoftmaxWithLoss"
  bottom: "ip4"
  bottom: "label"
  top: "loss"
}
I0501 01:23:51.117180 10438 layer_factory.hpp:77] Creating layer cifar
I0501 01:23:51.117283 10438 db_lmdb.cpp:35] Opened lmdb examples/cifar10/cifar10_train_lmdb
I0501 01:23:51.117314 10438 net.cpp:86] Creating Layer cifar
I0501 01:23:51.117324 10438 net.cpp:382] cifar -> data
I0501 01:23:51.117347 10438 net.cpp:382] cifar -> label
I0501 01:23:51.117362 10438 data_transformer.cpp:25] Loading mean file from: examples/cifar10/mean.binaryproto
I0501 01:23:51.119495 10438 data_layer.cpp:45] output data size: 111,3,32,32
I0501 01:23:51.127591 10438 net.cpp:124] Setting up cifar
I0501 01:23:51.127611 10438 net.cpp:131] Top shape: 111 3 32 32 (340992)
I0501 01:23:51.127629 10438 net.cpp:131] Top shape: 111 (111)
I0501 01:23:51.127634 10438 net.cpp:139] Memory required for data: 1364412
I0501 01:23:51.127657 10438 layer_factory.hpp:77] Creating layer conv0
I0501 01:23:51.127676 10438 net.cpp:86] Creating Layer conv0
I0501 01:23:51.127682 10438 net.cpp:408] conv0 <- data
I0501 01:23:51.127696 10438 net.cpp:382] conv0 -> conv0
I0501 01:23:51.423903 10438 net.cpp:124] Setting up conv0
I0501 01:23:51.423936 10438 net.cpp:131] Top shape: 111 8 34 34 (1026528)
I0501 01:23:51.423943 10438 net.cpp:139] Memory required for data: 5470524
I0501 01:23:51.423960 10438 layer_factory.hpp:77] Creating layer Sigmoid0
I0501 01:23:51.423974 10438 net.cpp:86] Creating Layer Sigmoid0
I0501 01:23:51.423979 10438 net.cpp:408] Sigmoid0 <- conv0
I0501 01:23:51.423985 10438 net.cpp:382] Sigmoid0 -> Sigmoid0
I0501 01:23:51.424198 10438 net.cpp:124] Setting up Sigmoid0
I0501 01:23:51.424211 10438 net.cpp:131] Top shape: 111 8 34 34 (1026528)
I0501 01:23:51.424214 10438 net.cpp:139] Memory required for data: 9576636
I0501 01:23:51.424218 10438 layer_factory.hpp:77] Creating layer pool0
I0501 01:23:51.424226 10438 net.cpp:86] Creating Layer pool0
I0501 01:23:51.424230 10438 net.cpp:408] pool0 <- Sigmoid0
I0501 01:23:51.424235 10438 net.cpp:382] pool0 -> pool0
I0501 01:23:51.425120 10438 net.cpp:124] Setting up pool0
I0501 01:23:51.425137 10438 net.cpp:131] Top shape: 111 8 17 17 (256632)
I0501 01:23:51.425142 10438 net.cpp:139] Memory required for data: 10603164
I0501 01:23:51.425145 10438 layer_factory.hpp:77] Creating layer ip1
I0501 01:23:51.425156 10438 net.cpp:86] Creating Layer ip1
I0501 01:23:51.425163 10438 net.cpp:408] ip1 <- pool0
I0501 01:23:51.425168 10438 net.cpp:382] ip1 -> ip1
I0501 01:23:51.438392 10438 net.cpp:124] Setting up ip1
I0501 01:23:51.438407 10438 net.cpp:131] Top shape: 111 160 (17760)
I0501 01:23:51.438411 10438 net.cpp:139] Memory required for data: 10674204
I0501 01:23:51.438421 10438 layer_factory.hpp:77] Creating layer relu1
I0501 01:23:51.438429 10438 net.cpp:86] Creating Layer relu1
I0501 01:23:51.438434 10438 net.cpp:408] relu1 <- ip1
I0501 01:23:51.438441 10438 net.cpp:369] relu1 -> ip1 (in-place)
I0501 01:23:51.438628 10438 net.cpp:124] Setting up relu1
I0501 01:23:51.438638 10438 net.cpp:131] Top shape: 111 160 (17760)
I0501 01:23:51.438642 10438 net.cpp:139] Memory required for data: 10745244
I0501 01:23:51.438647 10438 layer_factory.hpp:77] Creating layer ip2
I0501 01:23:51.438653 10438 net.cpp:86] Creating Layer ip2
I0501 01:23:51.438657 10438 net.cpp:408] ip2 <- ip1
I0501 01:23:51.438663 10438 net.cpp:382] ip2 -> ip2
I0501 01:23:51.438829 10438 net.cpp:124] Setting up ip2
I0501 01:23:51.438838 10438 net.cpp:131] Top shape: 111 10 (1110)
I0501 01:23:51.438841 10438 net.cpp:139] Memory required for data: 10749684
I0501 01:23:51.438850 10438 layer_factory.hpp:77] Creating layer relu2
I0501 01:23:51.438856 10438 net.cpp:86] Creating Layer relu2
I0501 01:23:51.438859 10438 net.cpp:408] relu2 <- ip2
I0501 01:23:51.438864 10438 net.cpp:369] relu2 -> ip2 (in-place)
I0501 01:23:51.439050 10438 net.cpp:124] Setting up relu2
I0501 01:23:51.439060 10438 net.cpp:131] Top shape: 111 10 (1110)
I0501 01:23:51.439064 10438 net.cpp:139] Memory required for data: 10754124
I0501 01:23:51.439067 10438 layer_factory.hpp:77] Creating layer ip3
I0501 01:23:51.439075 10438 net.cpp:86] Creating Layer ip3
I0501 01:23:51.439079 10438 net.cpp:408] ip3 <- ip2
I0501 01:23:51.439085 10438 net.cpp:382] ip3 -> ip3
I0501 01:23:51.440204 10438 net.cpp:124] Setting up ip3
I0501 01:23:51.440219 10438 net.cpp:131] Top shape: 111 80 (8880)
I0501 01:23:51.440223 10438 net.cpp:139] Memory required for data: 10789644
I0501 01:23:51.440230 10438 layer_factory.hpp:77] Creating layer relu3
I0501 01:23:51.440237 10438 net.cpp:86] Creating Layer relu3
I0501 01:23:51.440241 10438 net.cpp:408] relu3 <- ip3
I0501 01:23:51.440246 10438 net.cpp:369] relu3 -> ip3 (in-place)
I0501 01:23:51.440436 10438 net.cpp:124] Setting up relu3
I0501 01:23:51.440448 10438 net.cpp:131] Top shape: 111 80 (8880)
I0501 01:23:51.440450 10438 net.cpp:139] Memory required for data: 10825164
I0501 01:23:51.440454 10438 layer_factory.hpp:77] Creating layer ip4
I0501 01:23:51.440479 10438 net.cpp:86] Creating Layer ip4
I0501 01:23:51.440485 10438 net.cpp:408] ip4 <- ip3
I0501 01:23:51.440490 10438 net.cpp:382] ip4 -> ip4
I0501 01:23:51.440634 10438 net.cpp:124] Setting up ip4
I0501 01:23:51.440644 10438 net.cpp:131] Top shape: 111 10 (1110)
I0501 01:23:51.440647 10438 net.cpp:139] Memory required for data: 10829604
I0501 01:23:51.440657 10438 layer_factory.hpp:77] Creating layer loss
I0501 01:23:51.440665 10438 net.cpp:86] Creating Layer loss
I0501 01:23:51.440668 10438 net.cpp:408] loss <- ip4
I0501 01:23:51.440672 10438 net.cpp:408] loss <- label
I0501 01:23:51.440678 10438 net.cpp:382] loss -> loss
I0501 01:23:51.440698 10438 layer_factory.hpp:77] Creating layer loss
…
I0501 01:23:51.442152 10438 solver.cpp:173] Creating test net (#0) specified by net file: ECE595/cifar/train_test/var_everything/cifar_train_test_288.prototxt
I0501 01:23:51.442184 10438 net.cpp:296] The NetState phase (1) differed from the phase (0) specified by a rule in layer cifar
I0501 01:23:51.442296 10438 net.cpp:53] Initializing net from parameters: 
name: "CIFAR"
state {
  phase: TEST
}
layer {
  name: "cifar"
  type: "Data"
  top: "data"
  top: "label"
  include {
    phase: TEST
  }
  transform_param {
    mean_file: "examples/cifar10/mean.binaryproto"
  }
  data_param {
    source: "examples/cifar10/cifar10_test_lmdb"
    batch_size: 1000
    backend: LMDB
  }
}
layer {
  name: "conv0"
  type: "Convolution"
  bottom: "data"
  top: "conv0"
  param {
    lr_mult: 1
  }
  param {
    lr_mult: 2
  }
  convolution_param {
    num_output: 8
    pad: 2
    kernel_size: 3
    stride: 1
    weight_filler {
      type: "gaussian"
      std: 0.01
    }
    bias_filler {
      type: "constant"
    }
  }
}
layer {
  name: "Sigmoid0"
  type: "Sigmoid"
  bottom: "conv0"
  top: "Sigmoid0"
}
layer {
  name: "pool0"
  type: "Pooling"
  bottom: "Sigmoid0"
  top: "pool0"
  pooling_param {
    pool: AVE
    kernel_size: 3
    stride: 2
  }
}
layer {
  name: "ip1"
  type: "InnerProduct"
  bottom: "pool0"
  top: "ip1"
  param {
    lr_mult: 1
  }
  param {
    lr_mult: 2
  }
  inner_product_param {
    num_output: 160
    weight_filler {
      type: "gaussian"
      std: 0.01
    }
    bias_filler {
      type: "constant"
    }
  }
}
layer {
  name: "relu1"
  type: "ReLU"
  bottom: "ip1"
  top: "ip1"
}
layer {
  name: "ip2"
  type: "InnerProduct"
  bottom: "ip1"
  top: "ip2"
  param {
    lr_mult: 1
  }
  param {
    lr_mult: 2
  }
  inner_product_param {
    num_output: 10
    weight_filler {
      type: "gaussian"
      std: 0.01
    }
    bias_filler {
      type: "constant"
    }
  }
}
layer {
  name: "relu2"
  type: "ReLU"
  bottom: "ip2"
  top: "ip2"
}
layer {
  name: "ip3"
  type: "InnerProduct"
  bottom: "ip2"
  top: "ip3"
  param {
    lr_mult: 1
  }
  param {
    lr_mult: 2
  }
  inner_product_param {
    num_output: 80
    weight_filler {
      type: "gaussian"
      std: 0.01
    }
    bias_filler {
      type: "constant"
    }
  }
}
layer {
  name: "relu3"
  type: "ReLU"
  bottom: "ip3"
  top: "ip3"
}
layer {
  name: "ip4"
  type: "InnerProduct"
  bottom: "ip3"
  top: "ip4"
  param {
    lr_mult: 1
  }
  param {
    lr_mult: 2
  }
  inner_product_param {
    num_output: 10
    weight_filler {
      type: "gaussian"
      std: 0.01
    }
    bias_filler {
      type: "constant"
    }
  }
}
layer {
  name: "accuracy"
  type: "Accuracy"
  bottom: "ip4"
  bottom: "label"
  top: "accuracy"
  include {
    phase: TEST
  }
}
layer {
  name: "loss"
  type: "SoftmaxWithLoss"
  bottom: "ip4"
  bottom: "label"
  top: "loss"
}
I0501 01:23:51.442394 10438 layer_factory.hpp:77] Creating layer cifar
I0501 01:23:51.442451 10438 db_lmdb.cpp:35] Opened lmdb examples/cifar10/cifar10_test_lmdb
I0501 01:23:51.442466 10438 net.cpp:86] Creating Layer cifar
I0501 01:23:51.442471 10438 net.cpp:382] cifar -> data
I0501 01:23:51.442481 10438 net.cpp:382] cifar -> label
I0501 01:23:51.442489 10438 data_transformer.cpp:25] Loading mean file from: examples/cifar10/mean.binaryproto
I0501 01:23:51.442659 10438 data_layer.cpp:45] output data size: 1000,3,32,32
I0501 01:23:51.468639 10438 net.cpp:124] Setting up cifar
I0501 01:23:51.468672 10438 net.cpp:131] Top shape: 1000 3 32 32 (3072000)
I0501 01:23:51.468678 10438 net.cpp:131] Top shape: 1000 (1000)
I0501 01:23:51.468683 10438 net.cpp:139] Memory required for data: 12292000
I0501 01:23:51.468689 10438 layer_factory.hpp:77] Creating layer label_cifar_1_split
I0501 01:23:51.468709 10438 net.cpp:86] Creating Layer label_cifar_1_split
I0501 01:23:51.468713 10438 net.cpp:408] label_cifar_1_split <- label
I0501 01:23:51.468721 10438 net.cpp:382] label_cifar_1_split -> label_cifar_1_split_0
I0501 01:23:51.468731 10438 net.cpp:382] label_cifar_1_split -> label_cifar_1_split_1
I0501 01:23:51.468845 10438 net.cpp:124] Setting up label_cifar_1_split
I0501 01:23:51.468855 10438 net.cpp:131] Top shape: 1000 (1000)
I0501 01:23:51.468860 10438 net.cpp:131] Top shape: 1000 (1000)
I0501 01:23:51.468864 10438 net.cpp:139] Memory required for data: 12300000
I0501 01:23:51.468868 10438 layer_factory.hpp:77] Creating layer conv0
I0501 01:23:51.468883 10438 net.cpp:86] Creating Layer conv0
I0501 01:23:51.468886 10438 net.cpp:408] conv0 <- data
I0501 01:23:51.468894 10438 net.cpp:382] conv0 -> conv0
I0501 01:23:51.470635 10438 net.cpp:124] Setting up conv0
I0501 01:23:51.470651 10438 net.cpp:131] Top shape: 1000 8 34 34 (9248000)
I0501 01:23:51.470655 10438 net.cpp:139] Memory required for data: 49292000
I0501 01:23:51.470674 10438 layer_factory.hpp:77] Creating layer Sigmoid0
I0501 01:23:51.470681 10438 net.cpp:86] Creating Layer Sigmoid0
I0501 01:23:51.470686 10438 net.cpp:408] Sigmoid0 <- conv0
I0501 01:23:51.470692 10438 net.cpp:382] Sigmoid0 -> Sigmoid0
I0501 01:23:51.471879 10438 net.cpp:124] Setting up Sigmoid0
I0501 01:23:51.471892 10438 net.cpp:131] Top shape: 1000 8 34 34 (9248000)
I0501 01:23:51.471896 10438 net.cpp:139] Memory required for data: 86284000
I0501 01:23:51.471901 10438 layer_factory.hpp:77] Creating layer pool0
I0501 01:23:51.471910 10438 net.cpp:86] Creating Layer pool0
I0501 01:23:51.471915 10438 net.cpp:408] pool0 <- Sigmoid0
I0501 01:23:51.471920 10438 net.cpp:382] pool0 -> pool0
I0501 01:23:51.472121 10438 net.cpp:124] Setting up pool0
I0501 01:23:51.472131 10438 net.cpp:131] Top shape: 1000 8 17 17 (2312000)
I0501 01:23:51.472134 10438 net.cpp:139] Memory required for data: 95532000
I0501 01:23:51.472138 10438 layer_factory.hpp:77] Creating layer ip1
I0501 01:23:51.472146 10438 net.cpp:86] Creating Layer ip1
I0501 01:23:51.472151 10438 net.cpp:408] ip1 <- pool0
I0501 01:23:51.472157 10438 net.cpp:382] ip1 -> ip1
I0501 01:23:51.485487 10438 net.cpp:124] Setting up ip1
I0501 01:23:51.485505 10438 net.cpp:131] Top shape: 1000 160 (160000)
I0501 01:23:51.485518 10438 net.cpp:139] Memory required for data: 96172000
I0501 01:23:51.485548 10438 layer_factory.hpp:77] Creating layer relu1
I0501 01:23:51.485556 10438 net.cpp:86] Creating Layer relu1
I0501 01:23:51.485574 10438 net.cpp:408] relu1 <- ip1
I0501 01:23:51.485579 10438 net.cpp:369] relu1 -> ip1 (in-place)
I0501 01:23:51.485803 10438 net.cpp:124] Setting up relu1
I0501 01:23:51.485815 10438 net.cpp:131] Top shape: 1000 160 (160000)
I0501 01:23:51.485818 10438 net.cpp:139] Memory required for data: 96812000
I0501 01:23:51.485822 10438 layer_factory.hpp:77] Creating layer ip2
I0501 01:23:51.485831 10438 net.cpp:86] Creating Layer ip2
I0501 01:23:51.485834 10438 net.cpp:408] ip2 <- ip1
I0501 01:23:51.485841 10438 net.cpp:382] ip2 -> ip2
I0501 01:23:51.486032 10438 net.cpp:124] Setting up ip2
I0501 01:23:51.486042 10438 net.cpp:131] Top shape: 1000 10 (10000)
I0501 01:23:51.486045 10438 net.cpp:139] Memory required for data: 96852000
I0501 01:23:51.486054 10438 layer_factory.hpp:77] Creating layer relu2
I0501 01:23:51.486062 10438 net.cpp:86] Creating Layer relu2
I0501 01:23:51.486065 10438 net.cpp:408] relu2 <- ip2
I0501 01:23:51.486070 10438 net.cpp:369] relu2 -> ip2 (in-place)
I0501 01:23:51.487973 10438 net.cpp:124] Setting up relu2
I0501 01:23:51.487988 10438 net.cpp:131] Top shape: 1000 10 (10000)
I0501 01:23:51.488003 10438 net.cpp:139] Memory required for data: 96892000
I0501 01:23:51.488008 10438 layer_factory.hpp:77] Creating layer ip3
I0501 01:23:51.488016 10438 net.cpp:86] Creating Layer ip3
I0501 01:23:51.488020 10438 net.cpp:408] ip3 <- ip2
I0501 01:23:51.488028 10438 net.cpp:382] ip3 -> ip3
I0501 01:23:51.488195 10438 net.cpp:124] Setting up ip3
I0501 01:23:51.488204 10438 net.cpp:131] Top shape: 1000 80 (80000)
I0501 01:23:51.488209 10438 net.cpp:139] Memory required for data: 97212000
I0501 01:23:51.488216 10438 layer_factory.hpp:77] Creating layer relu3
I0501 01:23:51.488224 10438 net.cpp:86] Creating Layer relu3
I0501 01:23:51.488227 10438 net.cpp:408] relu3 <- ip3
I0501 01:23:51.488232 10438 net.cpp:369] relu3 -> ip3 (in-place)
I0501 01:23:51.488435 10438 net.cpp:124] Setting up relu3
I0501 01:23:51.488443 10438 net.cpp:131] Top shape: 1000 80 (80000)
I0501 01:23:51.488447 10438 net.cpp:139] Memory required for data: 97532000
I0501 01:23:51.488451 10438 layer_factory.hpp:77] Creating layer ip4
I0501 01:23:51.488458 10438 net.cpp:86] Creating Layer ip4
I0501 01:23:51.488462 10438 net.cpp:408] ip4 <- ip3
I0501 01:23:51.488472 10438 net.cpp:382] ip4 -> ip4
I0501 01:23:51.488618 10438 net.cpp:124] Setting up ip4
I0501 01:23:51.488627 10438 net.cpp:131] Top shape: 1000 10 (10000)
I0501 01:23:51.488631 10438 net.cpp:139] Memory required for data: 97572000
I0501 01:23:51.488641 10438 layer_factory.hpp:77] Creating layer ip4_ip4_0_split
I0501 01:23:51.488648 10438 net.cpp:86] Creating Layer ip4_ip4_0_split
I0501 01:23:51.488651 10438 net.cpp:408] ip4_ip4_0_split <- ip4
I0501 01:23:51.488656 10438 net.cpp:382] ip4_ip4_0_split -> ip4_ip4_0_split_0
I0501 01:23:51.488663 10438 net.cpp:382] ip4_ip4_0_split -> ip4_ip4_0_split_1
I0501 01:23:51.488699 10438 net.cpp:124] Setting up ip4_ip4_0_split
I0501 01:23:51.488708 10438 net.cpp:131] Top shape: 1000 10 (10000)
I0501 01:23:51.488713 10438 net.cpp:131] Top shape: 1000 10 (10000)
I0501 01:23:51.488715 10438 net.cpp:139] Memory required for data: 97652000
I0501 01:23:51.488719 10438 layer_factory.hpp:77] Creating layer accuracy
I0501 01:23:51.488726 10438 net.cpp:86] Creating Layer accuracy
I0501 01:23:51.488730 10438 net.cpp:408] accuracy <- ip4_ip4_0_split_0
I0501 01:23:51.488734 10438 net.cpp:408] accuracy <- label_cifar_1_split_0
I0501 01:23:51.488740 10438 net.cpp:382] accuracy -> accuracy
…
