…
I0501 00:05:09.567219  6318 net.cpp:296] The NetState phase (0) differed from the phase (1) specified by a rule in layer cifar
I0501 00:05:09.567234  6318 net.cpp:296] The NetState phase (0) differed from the phase (1) specified by a rule in layer accuracy
I0501 00:05:09.567315  6318 net.cpp:53] Initializing net from parameters: 
name: "CIFAR"
state {
  phase: TRAIN
  level: 0
  stage: ""
}
layer {
  name: "cifar"
  type: "Data"
  top: "data"
  top: "label"
  include {
    phase: TRAIN
  }
  transform_param {
    mean_file: "examples/cifar10/mean.binaryproto"
  }
  data_param {
    source: "examples/cifar10/cifar10_train_lmdb"
    batch_size: 111
    backend: LMDB
  }
}
layer {
  name: "conv0"
  type: "Convolution"
  bottom: "data"
  top: "conv0"
  param {
    lr_mult: 1
  }
  param {
    lr_mult: 2
  }
  convolution_param {
    num_output: 8
    pad: 2
    kernel_size: 3
    stride: 1
    weight_filler {
      type: "gaussian"
      std: 0.01
    }
    bias_filler {
      type: "constant"
    }
  }
}
layer {
  name: "Sigmoid0"
  type: "Sigmoid"
  bottom: "conv0"
  top: "Sigmoid0"
}
layer {
  name: "pool0"
  type: "Pooling"
  bottom: "Sigmoid0"
  top: "pool0"
  pooling_param {
    pool: AVE
    kernel_size: 3
    stride: 2
  }
}
layer {
  name: "ip1"
  type: "InnerProduct"
  bottom: "pool0"
  top: "ip1"
  param {
    lr_mult: 1
  }
  param {
    lr_mult: 2
  }
  inner_product_param {
    num_output: 40
    weight_filler {
      type: "gaussian"
      std: 0.01
    }
    bias_filler {
      type: "constant"
    }
  }
}
layer {
  name: "relu1"
  type: "ReLU"
  bottom: "ip1"
  top: "ip1"
}
layer {
  name: "ip2"
  type: "InnerProduct"
  bottom: "ip1"
  top: "ip2"
  param {
    lr_mult: 1
  }
  param {
    lr_mult: 2
  }
  inner_product_param {
    num_output: 40
    weight_filler {
      type: "gaussian"
      std: 0.01
    }
    bias_filler {
      type: "constant"
    }
  }
}
layer {
  name: "relu2"
  type: "ReLU"
  bottom: "ip2"
  top: "ip2"
}
layer {
  name: "ip3"
  type: "InnerProduct"
  bottom: "ip2"
  top: "ip3"
  param {
    lr_mult: 1
  }
  param {
    lr_mult: 2
  }
  inner_product_param {
    num_output: 20
    weight_filler {
      type: "gaussian"
      std: 0.01
    }
    bias_filler {
      type: "constant"
    }
  }
}
layer {
  name: "relu3"
  type: "ReLU"
  bottom: "ip3"
  top: "ip3"
}
layer {
  name: "ip4"
  type: "InnerProduct"
  bottom: "ip3"
  top: "ip4"
  param {
    lr_mult: 1
  }
  param {
    lr_mult: 2
  }
  inner_product_param {
    num_output: 10
    weight_filler {
      type: "gaussian"
      std: 0.01
    }
    bias_filler {
      type: "constant"
    }
  }
}
layer {
  name: "loss"
  type: "SoftmaxWithLoss"
  bottom: "ip4"
  bottom: "label"
  top: "loss"
}
I0501 00:05:09.567378  6318 layer_factory.hpp:77] Creating layer cifar
I0501 00:05:09.567457  6318 db_lmdb.cpp:35] Opened lmdb examples/cifar10/cifar10_train_lmdb
I0501 00:05:09.567479  6318 net.cpp:86] Creating Layer cifar
I0501 00:05:09.567487  6318 net.cpp:382] cifar -> data
I0501 00:05:09.567504  6318 net.cpp:382] cifar -> label
I0501 00:05:09.567533  6318 data_transformer.cpp:25] Loading mean file from: examples/cifar10/mean.binaryproto
I0501 00:05:09.569327  6318 data_layer.cpp:45] output data size: 111,3,32,32
I0501 00:05:09.575752  6318 net.cpp:124] Setting up cifar
I0501 00:05:09.575768  6318 net.cpp:131] Top shape: 111 3 32 32 (340992)
I0501 00:05:09.575789  6318 net.cpp:131] Top shape: 111 (111)
I0501 00:05:09.575793  6318 net.cpp:139] Memory required for data: 1364412
I0501 00:05:09.575810  6318 layer_factory.hpp:77] Creating layer conv0
I0501 00:05:09.575824  6318 net.cpp:86] Creating Layer conv0
I0501 00:05:09.575829  6318 net.cpp:408] conv0 <- data
I0501 00:05:09.575839  6318 net.cpp:382] conv0 -> conv0
I0501 00:05:09.801091  6318 net.cpp:124] Setting up conv0
I0501 00:05:09.801133  6318 net.cpp:131] Top shape: 111 8 34 34 (1026528)
I0501 00:05:09.801138  6318 net.cpp:139] Memory required for data: 5470524
I0501 00:05:09.801153  6318 layer_factory.hpp:77] Creating layer Sigmoid0
I0501 00:05:09.801165  6318 net.cpp:86] Creating Layer Sigmoid0
I0501 00:05:09.801183  6318 net.cpp:408] Sigmoid0 <- conv0
I0501 00:05:09.801189  6318 net.cpp:382] Sigmoid0 -> Sigmoid0
I0501 00:05:09.801386  6318 net.cpp:124] Setting up Sigmoid0
I0501 00:05:09.801396  6318 net.cpp:131] Top shape: 111 8 34 34 (1026528)
I0501 00:05:09.801399  6318 net.cpp:139] Memory required for data: 9576636
I0501 00:05:09.801403  6318 layer_factory.hpp:77] Creating layer pool0
I0501 00:05:09.801409  6318 net.cpp:86] Creating Layer pool0
I0501 00:05:09.801412  6318 net.cpp:408] pool0 <- Sigmoid0
I0501 00:05:09.801417  6318 net.cpp:382] pool0 -> pool0
I0501 00:05:09.802119  6318 net.cpp:124] Setting up pool0
I0501 00:05:09.802131  6318 net.cpp:131] Top shape: 111 8 17 17 (256632)
I0501 00:05:09.802134  6318 net.cpp:139] Memory required for data: 10603164
I0501 00:05:09.802139  6318 layer_factory.hpp:77] Creating layer ip1
I0501 00:05:09.802146  6318 net.cpp:86] Creating Layer ip1
I0501 00:05:09.802150  6318 net.cpp:408] ip1 <- pool0
I0501 00:05:09.802153  6318 net.cpp:382] ip1 -> ip1
I0501 00:05:09.804548  6318 net.cpp:124] Setting up ip1
I0501 00:05:09.804555  6318 net.cpp:131] Top shape: 111 40 (4440)
I0501 00:05:09.804558  6318 net.cpp:139] Memory required for data: 10620924
I0501 00:05:09.804564  6318 layer_factory.hpp:77] Creating layer relu1
I0501 00:05:09.804569  6318 net.cpp:86] Creating Layer relu1
I0501 00:05:09.804572  6318 net.cpp:408] relu1 <- ip1
I0501 00:05:09.804576  6318 net.cpp:369] relu1 -> ip1 (in-place)
I0501 00:05:09.804726  6318 net.cpp:124] Setting up relu1
I0501 00:05:09.804734  6318 net.cpp:131] Top shape: 111 40 (4440)
I0501 00:05:09.804738  6318 net.cpp:139] Memory required for data: 10638684
I0501 00:05:09.804740  6318 layer_factory.hpp:77] Creating layer ip2
I0501 00:05:09.804746  6318 net.cpp:86] Creating Layer ip2
I0501 00:05:09.804749  6318 net.cpp:408] ip2 <- ip1
I0501 00:05:09.804754  6318 net.cpp:382] ip2 -> ip2
I0501 00:05:09.804905  6318 net.cpp:124] Setting up ip2
I0501 00:05:09.804913  6318 net.cpp:131] Top shape: 111 40 (4440)
I0501 00:05:09.804916  6318 net.cpp:139] Memory required for data: 10656444
I0501 00:05:09.804924  6318 layer_factory.hpp:77] Creating layer relu2
I0501 00:05:09.804929  6318 net.cpp:86] Creating Layer relu2
I0501 00:05:09.804931  6318 net.cpp:408] relu2 <- ip2
I0501 00:05:09.804935  6318 net.cpp:369] relu2 -> ip2 (in-place)
I0501 00:05:09.805078  6318 net.cpp:124] Setting up relu2
I0501 00:05:09.805086  6318 net.cpp:131] Top shape: 111 40 (4440)
I0501 00:05:09.805089  6318 net.cpp:139] Memory required for data: 10674204
I0501 00:05:09.805093  6318 layer_factory.hpp:77] Creating layer ip3
I0501 00:05:09.805099  6318 net.cpp:86] Creating Layer ip3
I0501 00:05:09.805104  6318 net.cpp:408] ip3 <- ip2
I0501 00:05:09.805107  6318 net.cpp:382] ip3 -> ip3
I0501 00:05:09.806012  6318 net.cpp:124] Setting up ip3
I0501 00:05:09.806025  6318 net.cpp:131] Top shape: 111 20 (2220)
I0501 00:05:09.806027  6318 net.cpp:139] Memory required for data: 10683084
I0501 00:05:09.806032  6318 layer_factory.hpp:77] Creating layer relu3
I0501 00:05:09.806053  6318 net.cpp:86] Creating Layer relu3
I0501 00:05:09.806056  6318 net.cpp:408] relu3 <- ip3
I0501 00:05:09.806061  6318 net.cpp:369] relu3 -> ip3 (in-place)
I0501 00:05:09.806205  6318 net.cpp:124] Setting up relu3
I0501 00:05:09.806213  6318 net.cpp:131] Top shape: 111 20 (2220)
I0501 00:05:09.806216  6318 net.cpp:139] Memory required for data: 10691964
I0501 00:05:09.806219  6318 layer_factory.hpp:77] Creating layer ip4
I0501 00:05:09.806239  6318 net.cpp:86] Creating Layer ip4
I0501 00:05:09.806243  6318 net.cpp:408] ip4 <- ip3
I0501 00:05:09.806247  6318 net.cpp:382] ip4 -> ip4
I0501 00:05:09.806337  6318 net.cpp:124] Setting up ip4
I0501 00:05:09.806344  6318 net.cpp:131] Top shape: 111 10 (1110)
I0501 00:05:09.806347  6318 net.cpp:139] Memory required for data: 10696404
I0501 00:05:09.806355  6318 layer_factory.hpp:77] Creating layer loss
I0501 00:05:09.806360  6318 net.cpp:86] Creating Layer loss
I0501 00:05:09.806363  6318 net.cpp:408] loss <- ip4
I0501 00:05:09.806366  6318 net.cpp:408] loss <- label
I0501 00:05:09.806371  6318 net.cpp:382] loss -> loss
I0501 00:05:09.806385  6318 layer_factory.hpp:77] Creating layer loss
…
I0501 00:05:09.807545  6318 solver.cpp:173] Creating test net (#0) specified by net file: ECE595/cifar/train_test/var_everything/cifar_train_test_246.prototxt
I0501 00:05:09.807571  6318 net.cpp:296] The NetState phase (1) differed from the phase (0) specified by a rule in layer cifar
I0501 00:05:09.807659  6318 net.cpp:53] Initializing net from parameters: 
name: "CIFAR"
state {
  phase: TEST
}
layer {
  name: "cifar"
  type: "Data"
  top: "data"
  top: "label"
  include {
    phase: TEST
  }
  transform_param {
    mean_file: "examples/cifar10/mean.binaryproto"
  }
  data_param {
    source: "examples/cifar10/cifar10_test_lmdb"
    batch_size: 1000
    backend: LMDB
  }
}
layer {
  name: "conv0"
  type: "Convolution"
  bottom: "data"
  top: "conv0"
  param {
    lr_mult: 1
  }
  param {
    lr_mult: 2
  }
  convolution_param {
    num_output: 8
    pad: 2
    kernel_size: 3
    stride: 1
    weight_filler {
      type: "gaussian"
      std: 0.01
    }
    bias_filler {
      type: "constant"
    }
  }
}
layer {
  name: "Sigmoid0"
  type: "Sigmoid"
  bottom: "conv0"
  top: "Sigmoid0"
}
layer {
  name: "pool0"
  type: "Pooling"
  bottom: "Sigmoid0"
  top: "pool0"
  pooling_param {
    pool: AVE
    kernel_size: 3
    stride: 2
  }
}
layer {
  name: "ip1"
  type: "InnerProduct"
  bottom: "pool0"
  top: "ip1"
  param {
    lr_mult: 1
  }
  param {
    lr_mult: 2
  }
  inner_product_param {
    num_output: 40
    weight_filler {
      type: "gaussian"
      std: 0.01
    }
    bias_filler {
      type: "constant"
    }
  }
}
layer {
  name: "relu1"
  type: "ReLU"
  bottom: "ip1"
  top: "ip1"
}
layer {
  name: "ip2"
  type: "InnerProduct"
  bottom: "ip1"
  top: "ip2"
  param {
    lr_mult: 1
  }
  param {
    lr_mult: 2
  }
  inner_product_param {
    num_output: 40
    weight_filler {
      type: "gaussian"
      std: 0.01
    }
    bias_filler {
      type: "constant"
    }
  }
}
layer {
  name: "relu2"
  type: "ReLU"
  bottom: "ip2"
  top: "ip2"
}
layer {
  name: "ip3"
  type: "InnerProduct"
  bottom: "ip2"
  top: "ip3"
  param {
    lr_mult: 1
  }
  param {
    lr_mult: 2
  }
  inner_product_param {
    num_output: 20
    weight_filler {
      type: "gaussian"
      std: 0.01
    }
    bias_filler {
      type: "constant"
    }
  }
}
layer {
  name: "relu3"
  type: "ReLU"
  bottom: "ip3"
  top: "ip3"
}
layer {
  name: "ip4"
  type: "InnerProduct"
  bottom: "ip3"
  top: "ip4"
  param {
    lr_mult: 1
  }
  param {
    lr_mult: 2
  }
  inner_product_param {
    num_output: 10
    weight_filler {
      type: "gaussian"
      std: 0.01
    }
    bias_filler {
      type: "constant"
    }
  }
}
layer {
  name: "accuracy"
  type: "Accuracy"
  bottom: "ip4"
  bottom: "label"
  top: "accuracy"
  include {
    phase: TEST
  }
}
layer {
  name: "loss"
  type: "SoftmaxWithLoss"
  bottom: "ip4"
  bottom: "label"
  top: "loss"
}
I0501 00:05:09.807732  6318 layer_factory.hpp:77] Creating layer cifar
I0501 00:05:09.807777  6318 db_lmdb.cpp:35] Opened lmdb examples/cifar10/cifar10_test_lmdb
I0501 00:05:09.807787  6318 net.cpp:86] Creating Layer cifar
I0501 00:05:09.807792  6318 net.cpp:382] cifar -> data
I0501 00:05:09.807799  6318 net.cpp:382] cifar -> label
I0501 00:05:09.807806  6318 data_transformer.cpp:25] Loading mean file from: examples/cifar10/mean.binaryproto
I0501 00:05:09.807955  6318 data_layer.cpp:45] output data size: 1000,3,32,32
I0501 00:05:09.829180  6318 net.cpp:124] Setting up cifar
I0501 00:05:09.829249  6318 net.cpp:131] Top shape: 1000 3 32 32 (3072000)
I0501 00:05:09.829255  6318 net.cpp:131] Top shape: 1000 (1000)
I0501 00:05:09.829272  6318 net.cpp:139] Memory required for data: 12292000
I0501 00:05:09.829278  6318 layer_factory.hpp:77] Creating layer label_cifar_1_split
I0501 00:05:09.829291  6318 net.cpp:86] Creating Layer label_cifar_1_split
I0501 00:05:09.829294  6318 net.cpp:408] label_cifar_1_split <- label
I0501 00:05:09.829300  6318 net.cpp:382] label_cifar_1_split -> label_cifar_1_split_0
I0501 00:05:09.829324  6318 net.cpp:382] label_cifar_1_split -> label_cifar_1_split_1
I0501 00:05:09.829385  6318 net.cpp:124] Setting up label_cifar_1_split
I0501 00:05:09.829397  6318 net.cpp:131] Top shape: 1000 (1000)
I0501 00:05:09.829401  6318 net.cpp:131] Top shape: 1000 (1000)
I0501 00:05:09.829403  6318 net.cpp:139] Memory required for data: 12300000
I0501 00:05:09.829407  6318 layer_factory.hpp:77] Creating layer conv0
I0501 00:05:09.829418  6318 net.cpp:86] Creating Layer conv0
I0501 00:05:09.829421  6318 net.cpp:408] conv0 <- data
I0501 00:05:09.829427  6318 net.cpp:382] conv0 -> conv0
I0501 00:05:09.831029  6318 net.cpp:124] Setting up conv0
I0501 00:05:09.831043  6318 net.cpp:131] Top shape: 1000 8 34 34 (9248000)
I0501 00:05:09.831061  6318 net.cpp:139] Memory required for data: 49292000
I0501 00:05:09.831071  6318 layer_factory.hpp:77] Creating layer Sigmoid0
I0501 00:05:09.831077  6318 net.cpp:86] Creating Layer Sigmoid0
I0501 00:05:09.831095  6318 net.cpp:408] Sigmoid0 <- conv0
I0501 00:05:09.831099  6318 net.cpp:382] Sigmoid0 -> Sigmoid0
I0501 00:05:09.831286  6318 net.cpp:124] Setting up Sigmoid0
I0501 00:05:09.831296  6318 net.cpp:131] Top shape: 1000 8 34 34 (9248000)
I0501 00:05:09.831300  6318 net.cpp:139] Memory required for data: 86284000
I0501 00:05:09.831303  6318 layer_factory.hpp:77] Creating layer pool0
I0501 00:05:09.831310  6318 net.cpp:86] Creating Layer pool0
I0501 00:05:09.831315  6318 net.cpp:408] pool0 <- Sigmoid0
I0501 00:05:09.831318  6318 net.cpp:382] pool0 -> pool0
I0501 00:05:09.831571  6318 net.cpp:124] Setting up pool0
I0501 00:05:09.831580  6318 net.cpp:131] Top shape: 1000 8 17 17 (2312000)
I0501 00:05:09.831584  6318 net.cpp:139] Memory required for data: 95532000
I0501 00:05:09.831588  6318 layer_factory.hpp:77] Creating layer ip1
I0501 00:05:09.831594  6318 net.cpp:86] Creating Layer ip1
I0501 00:05:09.831598  6318 net.cpp:408] ip1 <- pool0
I0501 00:05:09.831604  6318 net.cpp:382] ip1 -> ip1
I0501 00:05:09.835072  6318 net.cpp:124] Setting up ip1
I0501 00:05:09.835083  6318 net.cpp:131] Top shape: 1000 40 (40000)
I0501 00:05:09.835103  6318 net.cpp:139] Memory required for data: 95692000
I0501 00:05:09.835155  6318 layer_factory.hpp:77] Creating layer relu1
I0501 00:05:09.835162  6318 net.cpp:86] Creating Layer relu1
I0501 00:05:09.835166  6318 net.cpp:408] relu1 <- ip1
I0501 00:05:09.835170  6318 net.cpp:369] relu1 -> ip1 (in-place)
I0501 00:05:09.835328  6318 net.cpp:124] Setting up relu1
I0501 00:05:09.835337  6318 net.cpp:131] Top shape: 1000 40 (40000)
I0501 00:05:09.835340  6318 net.cpp:139] Memory required for data: 95852000
I0501 00:05:09.835343  6318 layer_factory.hpp:77] Creating layer ip2
I0501 00:05:09.835350  6318 net.cpp:86] Creating Layer ip2
I0501 00:05:09.835353  6318 net.cpp:408] ip2 <- ip1
I0501 00:05:09.835358  6318 net.cpp:382] ip2 -> ip2
I0501 00:05:09.835515  6318 net.cpp:124] Setting up ip2
I0501 00:05:09.835523  6318 net.cpp:131] Top shape: 1000 40 (40000)
I0501 00:05:09.835526  6318 net.cpp:139] Memory required for data: 96012000
I0501 00:05:09.835533  6318 layer_factory.hpp:77] Creating layer relu2
I0501 00:05:09.835539  6318 net.cpp:86] Creating Layer relu2
I0501 00:05:09.835543  6318 net.cpp:408] relu2 <- ip2
I0501 00:05:09.835547  6318 net.cpp:369] relu2 -> ip2 (in-place)
I0501 00:05:09.836287  6318 net.cpp:124] Setting up relu2
I0501 00:05:09.836298  6318 net.cpp:131] Top shape: 1000 40 (40000)
I0501 00:05:09.836325  6318 net.cpp:139] Memory required for data: 96172000
I0501 00:05:09.836329  6318 layer_factory.hpp:77] Creating layer ip3
I0501 00:05:09.836338  6318 net.cpp:86] Creating Layer ip3
I0501 00:05:09.836340  6318 net.cpp:408] ip3 <- ip2
I0501 00:05:09.836345  6318 net.cpp:382] ip3 -> ip3
I0501 00:05:09.836486  6318 net.cpp:124] Setting up ip3
I0501 00:05:09.836493  6318 net.cpp:131] Top shape: 1000 20 (20000)
I0501 00:05:09.836496  6318 net.cpp:139] Memory required for data: 96252000
I0501 00:05:09.836501  6318 layer_factory.hpp:77] Creating layer relu3
I0501 00:05:09.836506  6318 net.cpp:86] Creating Layer relu3
I0501 00:05:09.836509  6318 net.cpp:408] relu3 <- ip3
I0501 00:05:09.836514  6318 net.cpp:369] relu3 -> ip3 (in-place)
I0501 00:05:09.836685  6318 net.cpp:124] Setting up relu3
I0501 00:05:09.836694  6318 net.cpp:131] Top shape: 1000 20 (20000)
I0501 00:05:09.836697  6318 net.cpp:139] Memory required for data: 96332000
I0501 00:05:09.836701  6318 layer_factory.hpp:77] Creating layer ip4
I0501 00:05:09.836707  6318 net.cpp:86] Creating Layer ip4
I0501 00:05:09.836710  6318 net.cpp:408] ip4 <- ip3
I0501 00:05:09.836716  6318 net.cpp:382] ip4 -> ip4
I0501 00:05:09.836846  6318 net.cpp:124] Setting up ip4
I0501 00:05:09.836855  6318 net.cpp:131] Top shape: 1000 10 (10000)
I0501 00:05:09.836858  6318 net.cpp:139] Memory required for data: 96372000
I0501 00:05:09.836884  6318 layer_factory.hpp:77] Creating layer ip4_ip4_0_split
I0501 00:05:09.836902  6318 net.cpp:86] Creating Layer ip4_ip4_0_split
I0501 00:05:09.836905  6318 net.cpp:408] ip4_ip4_0_split <- ip4
I0501 00:05:09.836910  6318 net.cpp:382] ip4_ip4_0_split -> ip4_ip4_0_split_0
I0501 00:05:09.836915  6318 net.cpp:382] ip4_ip4_0_split -> ip4_ip4_0_split_1
I0501 00:05:09.836947  6318 net.cpp:124] Setting up ip4_ip4_0_split
I0501 00:05:09.836952  6318 net.cpp:131] Top shape: 1000 10 (10000)
I0501 00:05:09.836957  6318 net.cpp:131] Top shape: 1000 10 (10000)
I0501 00:05:09.836961  6318 net.cpp:139] Memory required for data: 96452000
I0501 00:05:09.836964  6318 layer_factory.hpp:77] Creating layer accuracy
I0501 00:05:09.836971  6318 net.cpp:86] Creating Layer accuracy
I0501 00:05:09.836973  6318 net.cpp:408] accuracy <- ip4_ip4_0_split_0
I0501 00:05:09.836977  6318 net.cpp:408] accuracy <- label_cifar_1_split_0
I0501 00:05:09.836982  6318 net.cpp:382] accuracy -> accuracy
…
