…
I0430 18:22:31.485788 23117 net.cpp:296] The NetState phase (0) differed from the phase (1) specified by a rule in layer cifar
I0430 18:22:31.485803 23117 net.cpp:296] The NetState phase (0) differed from the phase (1) specified by a rule in layer accuracy
I0430 18:22:31.485891 23117 net.cpp:53] Initializing net from parameters: 
name: "CIFAR"
state {
  phase: TRAIN
  level: 0
  stage: ""
}
layer {
  name: "cifar"
  type: "Data"
  top: "data"
  top: "label"
  include {
    phase: TRAIN
  }
  transform_param {
    mean_file: "examples/cifar10/mean.binaryproto"
  }
  data_param {
    source: "examples/cifar10/cifar10_train_lmdb"
    batch_size: 111
    backend: LMDB
  }
}
layer {
  name: "ip1"
  type: "InnerProduct"
  bottom: "data"
  top: "ip1"
  param {
    lr_mult: 1
  }
  param {
    lr_mult: 2
  }
  inner_product_param {
    num_output: 20
    weight_filler {
      type: "gaussian"
      std: 0.01
    }
    bias_filler {
      type: "constant"
    }
  }
}
layer {
  name: "relu1"
  type: "ReLU"
  bottom: "ip1"
  top: "ip1"
}
layer {
  name: "ip2"
  type: "InnerProduct"
  bottom: "ip1"
  top: "ip2"
  param {
    lr_mult: 1
  }
  param {
    lr_mult: 2
  }
  inner_product_param {
    num_output: 20
    weight_filler {
      type: "gaussian"
      std: 0.01
    }
    bias_filler {
      type: "constant"
    }
  }
}
layer {
  name: "relu2"
  type: "ReLU"
  bottom: "ip2"
  top: "ip2"
}
layer {
  name: "ip3"
  type: "InnerProduct"
  bottom: "ip2"
  top: "ip3"
  param {
    lr_mult: 1
  }
  param {
    lr_mult: 2
  }
  inner_product_param {
    num_output: 160
    weight_filler {
      type: "gaussian"
      std: 0.01
    }
    bias_filler {
      type: "constant"
    }
  }
}
layer {
  name: "relu3"
  type: "ReLU"
  bottom: "ip3"
  top: "ip3"
}
layer {
  name: "ip4"
  type: "InnerProduct"
  bottom: "ip3"
  top: "ip4"
  param {
    lr_mult: 1
  }
  param {
    lr_mult: 2
  }
  inner_product_param {
    num_output: 10
    weight_filler {
      type: "gaussian"
      std: 0.01
    }
    bias_filler {
      type: "constant"
    }
  }
}
layer {
  name: "loss"
  type: "SoftmaxWithLoss"
  bottom: "ip4"
  bottom: "label"
  top: "loss"
}
I0430 18:22:31.485965 23117 layer_factory.hpp:77] Creating layer cifar
I0430 18:22:31.486065 23117 db_lmdb.cpp:35] Opened lmdb examples/cifar10/cifar10_train_lmdb
I0430 18:22:31.486091 23117 net.cpp:86] Creating Layer cifar
I0430 18:22:31.486101 23117 net.cpp:382] cifar -> data
I0430 18:22:31.486125 23117 net.cpp:382] cifar -> label
I0430 18:22:31.486136 23117 data_transformer.cpp:25] Loading mean file from: examples/cifar10/mean.binaryproto
I0430 18:22:31.488270 23117 data_layer.cpp:45] output data size: 111,3,32,32
I0430 18:22:31.496153 23117 net.cpp:124] Setting up cifar
I0430 18:22:31.496172 23117 net.cpp:131] Top shape: 111 3 32 32 (340992)
I0430 18:22:31.496178 23117 net.cpp:131] Top shape: 111 (111)
I0430 18:22:31.496182 23117 net.cpp:139] Memory required for data: 1364412
I0430 18:22:31.496191 23117 layer_factory.hpp:77] Creating layer ip1
I0430 18:22:31.496204 23117 net.cpp:86] Creating Layer ip1
I0430 18:22:31.496209 23117 net.cpp:408] ip1 <- data
I0430 18:22:31.496222 23117 net.cpp:382] ip1 -> ip1
I0430 18:22:31.499392 23117 net.cpp:124] Setting up ip1
I0430 18:22:31.499408 23117 net.cpp:131] Top shape: 111 20 (2220)
I0430 18:22:31.499413 23117 net.cpp:139] Memory required for data: 1373292
I0430 18:22:31.499428 23117 layer_factory.hpp:77] Creating layer relu1
I0430 18:22:31.499439 23117 net.cpp:86] Creating Layer relu1
I0430 18:22:31.499457 23117 net.cpp:408] relu1 <- ip1
I0430 18:22:31.499464 23117 net.cpp:369] relu1 -> ip1 (in-place)
I0430 18:22:31.782518 23117 net.cpp:124] Setting up relu1
I0430 18:22:31.782547 23117 net.cpp:131] Top shape: 111 20 (2220)
I0430 18:22:31.782552 23117 net.cpp:139] Memory required for data: 1382172
I0430 18:22:31.782557 23117 layer_factory.hpp:77] Creating layer ip2
I0430 18:22:31.782569 23117 net.cpp:86] Creating Layer ip2
I0430 18:22:31.782573 23117 net.cpp:408] ip2 <- ip1
I0430 18:22:31.782582 23117 net.cpp:382] ip2 -> ip2
I0430 18:22:31.783608 23117 net.cpp:124] Setting up ip2
I0430 18:22:31.783623 23117 net.cpp:131] Top shape: 111 20 (2220)
I0430 18:22:31.783627 23117 net.cpp:139] Memory required for data: 1391052
I0430 18:22:31.783638 23117 layer_factory.hpp:77] Creating layer relu2
I0430 18:22:31.783645 23117 net.cpp:86] Creating Layer relu2
I0430 18:22:31.783649 23117 net.cpp:408] relu2 <- ip2
I0430 18:22:31.783654 23117 net.cpp:369] relu2 -> ip2 (in-place)
I0430 18:22:31.784423 23117 net.cpp:124] Setting up relu2
I0430 18:22:31.784436 23117 net.cpp:131] Top shape: 111 20 (2220)
I0430 18:22:31.784440 23117 net.cpp:139] Memory required for data: 1399932
I0430 18:22:31.784443 23117 layer_factory.hpp:77] Creating layer ip3
I0430 18:22:31.784451 23117 net.cpp:86] Creating Layer ip3
I0430 18:22:31.784454 23117 net.cpp:408] ip3 <- ip2
I0430 18:22:31.784459 23117 net.cpp:382] ip3 -> ip3
I0430 18:22:31.784647 23117 net.cpp:124] Setting up ip3
I0430 18:22:31.784657 23117 net.cpp:131] Top shape: 111 160 (17760)
I0430 18:22:31.784659 23117 net.cpp:139] Memory required for data: 1470972
I0430 18:22:31.784667 23117 layer_factory.hpp:77] Creating layer relu3
I0430 18:22:31.784672 23117 net.cpp:86] Creating Layer relu3
I0430 18:22:31.784675 23117 net.cpp:408] relu3 <- ip3
I0430 18:22:31.784679 23117 net.cpp:369] relu3 -> ip3 (in-place)
I0430 18:22:31.784839 23117 net.cpp:124] Setting up relu3
I0430 18:22:31.784848 23117 net.cpp:131] Top shape: 111 160 (17760)
I0430 18:22:31.784852 23117 net.cpp:139] Memory required for data: 1542012
I0430 18:22:31.784854 23117 layer_factory.hpp:77] Creating layer ip4
I0430 18:22:31.784860 23117 net.cpp:86] Creating Layer ip4
I0430 18:22:31.784879 23117 net.cpp:408] ip4 <- ip3
I0430 18:22:31.784885 23117 net.cpp:382] ip4 -> ip4
I0430 18:22:31.785029 23117 net.cpp:124] Setting up ip4
I0430 18:22:31.785037 23117 net.cpp:131] Top shape: 111 10 (1110)
I0430 18:22:31.785040 23117 net.cpp:139] Memory required for data: 1546452
I0430 18:22:31.785046 23117 layer_factory.hpp:77] Creating layer loss
I0430 18:22:31.785053 23117 net.cpp:86] Creating Layer loss
I0430 18:22:31.785058 23117 net.cpp:408] loss <- ip4
I0430 18:22:31.785061 23117 net.cpp:408] loss <- label
I0430 18:22:31.785068 23117 net.cpp:382] loss -> loss
I0430 18:22:31.785081 23117 layer_factory.hpp:77] Creating layer loss
…
I0430 18:22:31.785676 23117 solver.cpp:173] Creating test net (#0) specified by net file: ECE595/cifar/train_test/var_everything/cifar_train_test_64.prototxt
I0430 18:22:31.785715 23117 net.cpp:296] The NetState phase (1) differed from the phase (0) specified by a rule in layer cifar
I0430 18:22:31.785796 23117 net.cpp:53] Initializing net from parameters: 
name: "CIFAR"
state {
  phase: TEST
}
layer {
  name: "cifar"
  type: "Data"
  top: "data"
  top: "label"
  include {
    phase: TEST
  }
  transform_param {
    mean_file: "examples/cifar10/mean.binaryproto"
  }
  data_param {
    source: "examples/cifar10/cifar10_test_lmdb"
    batch_size: 1000
    backend: LMDB
  }
}
layer {
  name: "ip1"
  type: "InnerProduct"
  bottom: "data"
  top: "ip1"
  param {
    lr_mult: 1
  }
  param {
    lr_mult: 2
  }
  inner_product_param {
    num_output: 20
    weight_filler {
      type: "gaussian"
      std: 0.01
    }
    bias_filler {
      type: "constant"
    }
  }
}
layer {
  name: "relu1"
  type: "ReLU"
  bottom: "ip1"
  top: "ip1"
}
layer {
  name: "ip2"
  type: "InnerProduct"
  bottom: "ip1"
  top: "ip2"
  param {
    lr_mult: 1
  }
  param {
    lr_mult: 2
  }
  inner_product_param {
    num_output: 20
    weight_filler {
      type: "gaussian"
      std: 0.01
    }
    bias_filler {
      type: "constant"
    }
  }
}
layer {
  name: "relu2"
  type: "ReLU"
  bottom: "ip2"
  top: "ip2"
}
layer {
  name: "ip3"
  type: "InnerProduct"
  bottom: "ip2"
  top: "ip3"
  param {
    lr_mult: 1
  }
  param {
    lr_mult: 2
  }
  inner_product_param {
    num_output: 160
    weight_filler {
      type: "gaussian"
      std: 0.01
    }
    bias_filler {
      type: "constant"
    }
  }
}
layer {
  name: "relu3"
  type: "ReLU"
  bottom: "ip3"
  top: "ip3"
}
layer {
  name: "ip4"
  type: "InnerProduct"
  bottom: "ip3"
  top: "ip4"
  param {
    lr_mult: 1
  }
  param {
    lr_mult: 2
  }
  inner_product_param {
    num_output: 10
    weight_filler {
      type: "gaussian"
      std: 0.01
    }
    bias_filler {
      type: "constant"
    }
  }
}
layer {
  name: "accuracy"
  type: "Accuracy"
  bottom: "ip4"
  bottom: "label"
  top: "accuracy"
  include {
    phase: TEST
  }
}
layer {
  name: "loss"
  type: "SoftmaxWithLoss"
  bottom: "ip4"
  bottom: "label"
  top: "loss"
}
I0430 18:22:31.785864 23117 layer_factory.hpp:77] Creating layer cifar
I0430 18:22:31.785912 23117 db_lmdb.cpp:35] Opened lmdb examples/cifar10/cifar10_test_lmdb
I0430 18:22:31.785925 23117 net.cpp:86] Creating Layer cifar
I0430 18:22:31.785931 23117 net.cpp:382] cifar -> data
I0430 18:22:31.785939 23117 net.cpp:382] cifar -> label
I0430 18:22:31.785945 23117 data_transformer.cpp:25] Loading mean file from: examples/cifar10/mean.binaryproto
I0430 18:22:31.786104 23117 data_layer.cpp:45] output data size: 1000,3,32,32
I0430 18:22:31.808738 23117 net.cpp:124] Setting up cifar
I0430 18:22:31.808765 23117 net.cpp:131] Top shape: 1000 3 32 32 (3072000)
I0430 18:22:31.808771 23117 net.cpp:131] Top shape: 1000 (1000)
I0430 18:22:31.808774 23117 net.cpp:139] Memory required for data: 12292000
I0430 18:22:31.808779 23117 layer_factory.hpp:77] Creating layer label_cifar_1_split
I0430 18:22:31.808809 23117 net.cpp:86] Creating Layer label_cifar_1_split
I0430 18:22:31.808821 23117 net.cpp:408] label_cifar_1_split <- label
I0430 18:22:31.808827 23117 net.cpp:382] label_cifar_1_split -> label_cifar_1_split_0
I0430 18:22:31.808852 23117 net.cpp:382] label_cifar_1_split -> label_cifar_1_split_1
I0430 18:22:31.809005 23117 net.cpp:124] Setting up label_cifar_1_split
I0430 18:22:31.809015 23117 net.cpp:131] Top shape: 1000 (1000)
I0430 18:22:31.809018 23117 net.cpp:131] Top shape: 1000 (1000)
I0430 18:22:31.809021 23117 net.cpp:139] Memory required for data: 12300000
I0430 18:22:31.809025 23117 layer_factory.hpp:77] Creating layer ip1
I0430 18:22:31.809034 23117 net.cpp:86] Creating Layer ip1
I0430 18:22:31.809038 23117 net.cpp:408] ip1 <- data
I0430 18:22:31.809043 23117 net.cpp:382] ip1 -> ip1
I0430 18:22:31.811573 23117 net.cpp:124] Setting up ip1
I0430 18:22:31.811581 23117 net.cpp:131] Top shape: 1000 20 (20000)
I0430 18:22:31.811584 23117 net.cpp:139] Memory required for data: 12380000
I0430 18:22:31.811612 23117 layer_factory.hpp:77] Creating layer relu1
I0430 18:22:31.811620 23117 net.cpp:86] Creating Layer relu1
I0430 18:22:31.811624 23117 net.cpp:408] relu1 <- ip1
I0430 18:22:31.811627 23117 net.cpp:369] relu1 -> ip1 (in-place)
I0430 18:22:31.812387 23117 net.cpp:124] Setting up relu1
I0430 18:22:31.812399 23117 net.cpp:131] Top shape: 1000 20 (20000)
I0430 18:22:31.812402 23117 net.cpp:139] Memory required for data: 12460000
I0430 18:22:31.812407 23117 layer_factory.hpp:77] Creating layer ip2
I0430 18:22:31.812414 23117 net.cpp:86] Creating Layer ip2
I0430 18:22:31.812418 23117 net.cpp:408] ip2 <- ip1
I0430 18:22:31.812423 23117 net.cpp:382] ip2 -> ip2
I0430 18:22:31.812572 23117 net.cpp:124] Setting up ip2
I0430 18:22:31.812579 23117 net.cpp:131] Top shape: 1000 20 (20000)
I0430 18:22:31.812582 23117 net.cpp:139] Memory required for data: 12540000
I0430 18:22:31.812590 23117 layer_factory.hpp:77] Creating layer relu2
I0430 18:22:31.812597 23117 net.cpp:86] Creating Layer relu2
I0430 18:22:31.812599 23117 net.cpp:408] relu2 <- ip2
I0430 18:22:31.812603 23117 net.cpp:369] relu2 -> ip2 (in-place)
I0430 18:22:31.812767 23117 net.cpp:124] Setting up relu2
I0430 18:22:31.812775 23117 net.cpp:131] Top shape: 1000 20 (20000)
I0430 18:22:31.812778 23117 net.cpp:139] Memory required for data: 12620000
I0430 18:22:31.812782 23117 layer_factory.hpp:77] Creating layer ip3
I0430 18:22:31.812788 23117 net.cpp:86] Creating Layer ip3
I0430 18:22:31.812793 23117 net.cpp:408] ip3 <- ip2
I0430 18:22:31.812798 23117 net.cpp:382] ip3 -> ip3
I0430 18:22:31.813029 23117 net.cpp:124] Setting up ip3
I0430 18:22:31.813037 23117 net.cpp:131] Top shape: 1000 160 (160000)
I0430 18:22:31.813040 23117 net.cpp:139] Memory required for data: 13260000
I0430 18:22:31.813048 23117 layer_factory.hpp:77] Creating layer relu3
I0430 18:22:31.813053 23117 net.cpp:86] Creating Layer relu3
I0430 18:22:31.813056 23117 net.cpp:408] relu3 <- ip3
I0430 18:22:31.813060 23117 net.cpp:369] relu3 -> ip3 (in-place)
I0430 18:22:31.813252 23117 net.cpp:124] Setting up relu3
I0430 18:22:31.813262 23117 net.cpp:131] Top shape: 1000 160 (160000)
I0430 18:22:31.813266 23117 net.cpp:139] Memory required for data: 13900000
I0430 18:22:31.813268 23117 layer_factory.hpp:77] Creating layer ip4
I0430 18:22:31.813275 23117 net.cpp:86] Creating Layer ip4
I0430 18:22:31.813278 23117 net.cpp:408] ip4 <- ip3
I0430 18:22:31.813285 23117 net.cpp:382] ip4 -> ip4
I0430 18:22:31.813447 23117 net.cpp:124] Setting up ip4
I0430 18:22:31.813454 23117 net.cpp:131] Top shape: 1000 10 (10000)
I0430 18:22:31.813457 23117 net.cpp:139] Memory required for data: 13940000
I0430 18:22:31.813462 23117 layer_factory.hpp:77] Creating layer ip4_ip4_0_split
I0430 18:22:31.813468 23117 net.cpp:86] Creating Layer ip4_ip4_0_split
I0430 18:22:31.813472 23117 net.cpp:408] ip4_ip4_0_split <- ip4
I0430 18:22:31.813475 23117 net.cpp:382] ip4_ip4_0_split -> ip4_ip4_0_split_0
I0430 18:22:31.813482 23117 net.cpp:382] ip4_ip4_0_split -> ip4_ip4_0_split_1
I0430 18:22:31.813513 23117 net.cpp:124] Setting up ip4_ip4_0_split
I0430 18:22:31.813522 23117 net.cpp:131] Top shape: 1000 10 (10000)
I0430 18:22:31.813526 23117 net.cpp:131] Top shape: 1000 10 (10000)
I0430 18:22:31.813529 23117 net.cpp:139] Memory required for data: 14020000
I0430 18:22:31.813531 23117 layer_factory.hpp:77] Creating layer accuracy
I0430 18:22:31.813542 23117 net.cpp:86] Creating Layer accuracy
I0430 18:22:31.813546 23117 net.cpp:408] accuracy <- ip4_ip4_0_split_0
I0430 18:22:31.813549 23117 net.cpp:408] accuracy <- label_cifar_1_split_0
I0430 18:22:31.813555 23117 net.cpp:382] accuracy -> accuracy
…
