…
I0501 07:46:52.642181  7180 net.cpp:296] The NetState phase (0) differed from the phase (1) specified by a rule in layer cifar
I0501 07:46:52.642201  7180 net.cpp:296] The NetState phase (0) differed from the phase (1) specified by a rule in layer accuracy
I0501 07:46:52.642294  7180 net.cpp:53] Initializing net from parameters: 
name: "CIFAR"
state {
  phase: TRAIN
  level: 0
  stage: ""
}
layer {
  name: "cifar"
  type: "Data"
  top: "data"
  top: "label"
  include {
    phase: TRAIN
  }
  transform_param {
    mean_file: "examples/cifar10/mean.binaryproto"
  }
  data_param {
    source: "examples/cifar10/cifar10_train_lmdb"
    batch_size: 111
    backend: LMDB
  }
}
layer {
  name: "conv0"
  type: "Convolution"
  bottom: "data"
  top: "conv0"
  param {
    lr_mult: 1
  }
  param {
    lr_mult: 2
  }
  convolution_param {
    num_output: 16
    pad: 2
    kernel_size: 3
    stride: 1
    weight_filler {
      type: "gaussian"
      std: 0.01
    }
    bias_filler {
      type: "constant"
    }
  }
}
layer {
  name: "Sigmoid0"
  type: "Sigmoid"
  bottom: "conv0"
  top: "Sigmoid0"
}
layer {
  name: "pool0"
  type: "Pooling"
  bottom: "Sigmoid0"
  top: "pool0"
  pooling_param {
    pool: AVE
    kernel_size: 3
    stride: 2
  }
}
layer {
  name: "ip1"
  type: "InnerProduct"
  bottom: "pool0"
  top: "ip1"
  param {
    lr_mult: 1
  }
  param {
    lr_mult: 2
  }
  inner_product_param {
    num_output: 160
    weight_filler {
      type: "gaussian"
      std: 0.01
    }
    bias_filler {
      type: "constant"
    }
  }
}
layer {
  name: "relu1"
  type: "ReLU"
  bottom: "ip1"
  top: "ip1"
}
layer {
  name: "ip2"
  type: "InnerProduct"
  bottom: "ip1"
  top: "ip2"
  param {
    lr_mult: 1
  }
  param {
    lr_mult: 2
  }
  inner_product_param {
    num_output: 40
    weight_filler {
      type: "gaussian"
      std: 0.01
    }
    bias_filler {
      type: "constant"
    }
  }
}
layer {
  name: "relu2"
  type: "ReLU"
  bottom: "ip2"
  top: "ip2"
}
layer {
  name: "ip3"
  type: "InnerProduct"
  bottom: "ip2"
  top: "ip3"
  param {
    lr_mult: 1
  }
  param {
    lr_mult: 2
  }
  inner_product_param {
    num_output: 10
    weight_filler {
      type: "gaussian"
      std: 0.01
    }
    bias_filler {
      type: "constant"
    }
  }
}
layer {
  name: "loss"
  type: "SoftmaxWithLoss"
  bottom: "ip3"
  bottom: "label"
  top: "loss"
}
I0501 07:46:52.642374  7180 layer_factory.hpp:77] Creating layer cifar
I0501 07:46:52.642475  7180 db_lmdb.cpp:35] Opened lmdb examples/cifar10/cifar10_train_lmdb
I0501 07:46:52.642508  7180 net.cpp:86] Creating Layer cifar
I0501 07:46:52.642515  7180 net.cpp:382] cifar -> data
I0501 07:46:52.642537  7180 net.cpp:382] cifar -> label
I0501 07:46:52.642554  7180 data_transformer.cpp:25] Loading mean file from: examples/cifar10/mean.binaryproto
I0501 07:46:52.644708  7180 data_layer.cpp:45] output data size: 111,3,32,32
I0501 07:46:52.652606  7180 net.cpp:124] Setting up cifar
I0501 07:46:52.652627  7180 net.cpp:131] Top shape: 111 3 32 32 (340992)
I0501 07:46:52.652634  7180 net.cpp:131] Top shape: 111 (111)
I0501 07:46:52.652639  7180 net.cpp:139] Memory required for data: 1364412
I0501 07:46:52.652647  7180 layer_factory.hpp:77] Creating layer conv0
I0501 07:46:52.652667  7180 net.cpp:86] Creating Layer conv0
I0501 07:46:52.652674  7180 net.cpp:408] conv0 <- data
I0501 07:46:52.652689  7180 net.cpp:382] conv0 -> conv0
I0501 07:46:52.944733  7180 net.cpp:124] Setting up conv0
I0501 07:46:52.944789  7180 net.cpp:131] Top shape: 111 16 34 34 (2053056)
I0501 07:46:52.944795  7180 net.cpp:139] Memory required for data: 9576636
I0501 07:46:52.944823  7180 layer_factory.hpp:77] Creating layer Sigmoid0
I0501 07:46:52.944839  7180 net.cpp:86] Creating Layer Sigmoid0
I0501 07:46:52.944844  7180 net.cpp:408] Sigmoid0 <- conv0
I0501 07:46:52.944852  7180 net.cpp:382] Sigmoid0 -> Sigmoid0
I0501 07:46:52.945072  7180 net.cpp:124] Setting up Sigmoid0
I0501 07:46:52.945086  7180 net.cpp:131] Top shape: 111 16 34 34 (2053056)
I0501 07:46:52.945091  7180 net.cpp:139] Memory required for data: 17788860
I0501 07:46:52.945096  7180 layer_factory.hpp:77] Creating layer pool0
I0501 07:46:52.945106  7180 net.cpp:86] Creating Layer pool0
I0501 07:46:52.945111  7180 net.cpp:408] pool0 <- Sigmoid0
I0501 07:46:52.945116  7180 net.cpp:382] pool0 -> pool0
I0501 07:46:52.946012  7180 net.cpp:124] Setting up pool0
I0501 07:46:52.946030  7180 net.cpp:131] Top shape: 111 16 17 17 (513264)
I0501 07:46:52.946035  7180 net.cpp:139] Memory required for data: 19841916
I0501 07:46:52.946040  7180 layer_factory.hpp:77] Creating layer ip1
I0501 07:46:52.946053  7180 net.cpp:86] Creating Layer ip1
I0501 07:46:52.946058  7180 net.cpp:408] ip1 <- pool0
I0501 07:46:52.946068  7180 net.cpp:382] ip1 -> ip1
I0501 07:46:52.971671  7180 net.cpp:124] Setting up ip1
I0501 07:46:52.971688  7180 net.cpp:131] Top shape: 111 160 (17760)
I0501 07:46:52.971693  7180 net.cpp:139] Memory required for data: 19912956
I0501 07:46:52.971704  7180 layer_factory.hpp:77] Creating layer relu1
I0501 07:46:52.971714  7180 net.cpp:86] Creating Layer relu1
I0501 07:46:52.971719  7180 net.cpp:408] relu1 <- ip1
I0501 07:46:52.971725  7180 net.cpp:369] relu1 -> ip1 (in-place)
I0501 07:46:52.971927  7180 net.cpp:124] Setting up relu1
I0501 07:46:52.971941  7180 net.cpp:131] Top shape: 111 160 (17760)
I0501 07:46:52.971946  7180 net.cpp:139] Memory required for data: 19983996
I0501 07:46:52.971951  7180 layer_factory.hpp:77] Creating layer ip2
I0501 07:46:52.971959  7180 net.cpp:86] Creating Layer ip2
I0501 07:46:52.971963  7180 net.cpp:408] ip2 <- ip1
I0501 07:46:52.971971  7180 net.cpp:382] ip2 -> ip2
I0501 07:46:52.973291  7180 net.cpp:124] Setting up ip2
I0501 07:46:52.973307  7180 net.cpp:131] Top shape: 111 40 (4440)
I0501 07:46:52.973312  7180 net.cpp:139] Memory required for data: 20001756
I0501 07:46:52.973323  7180 layer_factory.hpp:77] Creating layer relu2
I0501 07:46:52.973332  7180 net.cpp:86] Creating Layer relu2
I0501 07:46:52.973340  7180 net.cpp:408] relu2 <- ip2
I0501 07:46:52.973345  7180 net.cpp:369] relu2 -> ip2 (in-place)
I0501 07:46:52.973558  7180 net.cpp:124] Setting up relu2
I0501 07:46:52.973569  7180 net.cpp:131] Top shape: 111 40 (4440)
I0501 07:46:52.973574  7180 net.cpp:139] Memory required for data: 20019516
I0501 07:46:52.973579  7180 layer_factory.hpp:77] Creating layer ip3
I0501 07:46:52.973589  7180 net.cpp:86] Creating Layer ip3
I0501 07:46:52.973594  7180 net.cpp:408] ip3 <- ip2
I0501 07:46:52.973601  7180 net.cpp:382] ip3 -> ip3
I0501 07:46:52.973736  7180 net.cpp:124] Setting up ip3
I0501 07:46:52.973745  7180 net.cpp:131] Top shape: 111 10 (1110)
I0501 07:46:52.973749  7180 net.cpp:139] Memory required for data: 20023956
I0501 07:46:52.973757  7180 layer_factory.hpp:77] Creating layer loss
I0501 07:46:52.973767  7180 net.cpp:86] Creating Layer loss
I0501 07:46:52.973770  7180 net.cpp:408] loss <- ip3
I0501 07:46:52.973776  7180 net.cpp:408] loss <- label
I0501 07:46:52.973783  7180 net.cpp:382] loss -> loss
I0501 07:46:52.973806  7180 layer_factory.hpp:77] Creating layer loss
…
I0501 07:46:52.974567  7180 solver.cpp:173] Creating test net (#0) specified by net file: ECE595/cifar/train_test/var_everything/cifar_train_test_492.prototxt
I0501 07:46:52.974601  7180 net.cpp:296] The NetState phase (1) differed from the phase (0) specified by a rule in layer cifar
I0501 07:46:52.974709  7180 net.cpp:53] Initializing net from parameters: 
name: "CIFAR"
state {
  phase: TEST
}
layer {
  name: "cifar"
  type: "Data"
  top: "data"
  top: "label"
  include {
    phase: TEST
  }
  transform_param {
    mean_file: "examples/cifar10/mean.binaryproto"
  }
  data_param {
    source: "examples/cifar10/cifar10_test_lmdb"
    batch_size: 1000
    backend: LMDB
  }
}
layer {
  name: "conv0"
  type: "Convolution"
  bottom: "data"
  top: "conv0"
  param {
    lr_mult: 1
  }
  param {
    lr_mult: 2
  }
  convolution_param {
    num_output: 16
    pad: 2
    kernel_size: 3
    stride: 1
    weight_filler {
      type: "gaussian"
      std: 0.01
    }
    bias_filler {
      type: "constant"
    }
  }
}
layer {
  name: "Sigmoid0"
  type: "Sigmoid"
  bottom: "conv0"
  top: "Sigmoid0"
}
layer {
  name: "pool0"
  type: "Pooling"
  bottom: "Sigmoid0"
  top: "pool0"
  pooling_param {
    pool: AVE
    kernel_size: 3
    stride: 2
  }
}
layer {
  name: "ip1"
  type: "InnerProduct"
  bottom: "pool0"
  top: "ip1"
  param {
    lr_mult: 1
  }
  param {
    lr_mult: 2
  }
  inner_product_param {
    num_output: 160
    weight_filler {
      type: "gaussian"
      std: 0.01
    }
    bias_filler {
      type: "constant"
    }
  }
}
layer {
  name: "relu1"
  type: "ReLU"
  bottom: "ip1"
  top: "ip1"
}
layer {
  name: "ip2"
  type: "InnerProduct"
  bottom: "ip1"
  top: "ip2"
  param {
    lr_mult: 1
  }
  param {
    lr_mult: 2
  }
  inner_product_param {
    num_output: 40
    weight_filler {
      type: "gaussian"
      std: 0.01
    }
    bias_filler {
      type: "constant"
    }
  }
}
layer {
  name: "relu2"
  type: "ReLU"
  bottom: "ip2"
  top: "ip2"
}
layer {
  name: "ip3"
  type: "InnerProduct"
  bottom: "ip2"
  top: "ip3"
  param {
    lr_mult: 1
  }
  param {
    lr_mult: 2
  }
  inner_product_param {
    num_output: 10
    weight_filler {
      type: "gaussian"
      std: 0.01
    }
    bias_filler {
      type: "constant"
    }
  }
}
layer {
  name: "accuracy"
  type: "Accuracy"
  bottom: "ip3"
  bottom: "label"
  top: "accuracy"
  include {
    phase: TEST
  }
}
layer {
  name: "loss"
  type: "SoftmaxWithLoss"
  bottom: "ip3"
  bottom: "label"
  top: "loss"
}
I0501 07:46:52.974791  7180 layer_factory.hpp:77] Creating layer cifar
I0501 07:46:52.974848  7180 db_lmdb.cpp:35] Opened lmdb examples/cifar10/cifar10_test_lmdb
I0501 07:46:52.974864  7180 net.cpp:86] Creating Layer cifar
I0501 07:46:52.974872  7180 net.cpp:382] cifar -> data
I0501 07:46:52.974882  7180 net.cpp:382] cifar -> label
I0501 07:46:52.974891  7180 data_transformer.cpp:25] Loading mean file from: examples/cifar10/mean.binaryproto
I0501 07:46:52.975076  7180 data_layer.cpp:45] output data size: 1000,3,32,32
I0501 07:46:53.000952  7180 net.cpp:124] Setting up cifar
I0501 07:46:53.000985  7180 net.cpp:131] Top shape: 1000 3 32 32 (3072000)
I0501 07:46:53.000993  7180 net.cpp:131] Top shape: 1000 (1000)
I0501 07:46:53.000998  7180 net.cpp:139] Memory required for data: 12292000
I0501 07:46:53.001005  7180 layer_factory.hpp:77] Creating layer label_cifar_1_split
I0501 07:46:53.001022  7180 net.cpp:86] Creating Layer label_cifar_1_split
I0501 07:46:53.001044  7180 net.cpp:408] label_cifar_1_split <- label
I0501 07:46:53.001054  7180 net.cpp:382] label_cifar_1_split -> label_cifar_1_split_0
I0501 07:46:53.001066  7180 net.cpp:382] label_cifar_1_split -> label_cifar_1_split_1
I0501 07:46:53.001199  7180 net.cpp:124] Setting up label_cifar_1_split
I0501 07:46:53.001209  7180 net.cpp:131] Top shape: 1000 (1000)
I0501 07:46:53.001215  7180 net.cpp:131] Top shape: 1000 (1000)
I0501 07:46:53.001219  7180 net.cpp:139] Memory required for data: 12300000
I0501 07:46:53.001224  7180 layer_factory.hpp:77] Creating layer conv0
I0501 07:46:53.001240  7180 net.cpp:86] Creating Layer conv0
I0501 07:46:53.001245  7180 net.cpp:408] conv0 <- data
I0501 07:46:53.001257  7180 net.cpp:382] conv0 -> conv0
I0501 07:46:53.003033  7180 net.cpp:124] Setting up conv0
I0501 07:46:53.003053  7180 net.cpp:131] Top shape: 1000 16 34 34 (18496000)
I0501 07:46:53.003058  7180 net.cpp:139] Memory required for data: 86284000
I0501 07:46:53.003072  7180 layer_factory.hpp:77] Creating layer Sigmoid0
I0501 07:46:53.003082  7180 net.cpp:86] Creating Layer Sigmoid0
I0501 07:46:53.003087  7180 net.cpp:408] Sigmoid0 <- conv0
I0501 07:46:53.003093  7180 net.cpp:382] Sigmoid0 -> Sigmoid0
I0501 07:46:53.005077  7180 net.cpp:124] Setting up Sigmoid0
I0501 07:46:53.005096  7180 net.cpp:131] Top shape: 1000 16 34 34 (18496000)
I0501 07:46:53.005101  7180 net.cpp:139] Memory required for data: 160268000
I0501 07:46:53.005107  7180 layer_factory.hpp:77] Creating layer pool0
I0501 07:46:53.005118  7180 net.cpp:86] Creating Layer pool0
I0501 07:46:53.005123  7180 net.cpp:408] pool0 <- Sigmoid0
I0501 07:46:53.005131  7180 net.cpp:382] pool0 -> pool0
I0501 07:46:53.005357  7180 net.cpp:124] Setting up pool0
I0501 07:46:53.005368  7180 net.cpp:131] Top shape: 1000 16 17 17 (4624000)
I0501 07:46:53.005373  7180 net.cpp:139] Memory required for data: 178764000
I0501 07:46:53.005378  7180 layer_factory.hpp:77] Creating layer ip1
I0501 07:46:53.005389  7180 net.cpp:86] Creating Layer ip1
I0501 07:46:53.005394  7180 net.cpp:408] ip1 <- pool0
I0501 07:46:53.005401  7180 net.cpp:382] ip1 -> ip1
I0501 07:46:53.030992  7180 net.cpp:124] Setting up ip1
I0501 07:46:53.031013  7180 net.cpp:131] Top shape: 1000 160 (160000)
I0501 07:46:53.031018  7180 net.cpp:139] Memory required for data: 179404000
I0501 07:46:53.031030  7180 layer_factory.hpp:77] Creating layer relu1
I0501 07:46:53.031041  7180 net.cpp:86] Creating Layer relu1
I0501 07:46:53.031046  7180 net.cpp:408] relu1 <- ip1
I0501 07:46:53.031054  7180 net.cpp:369] relu1 -> ip1 (in-place)
I0501 07:46:53.031286  7180 net.cpp:124] Setting up relu1
I0501 07:46:53.031296  7180 net.cpp:131] Top shape: 1000 160 (160000)
I0501 07:46:53.031303  7180 net.cpp:139] Memory required for data: 180044000
I0501 07:46:53.031308  7180 layer_factory.hpp:77] Creating layer ip2
I0501 07:46:53.031319  7180 net.cpp:86] Creating Layer ip2
I0501 07:46:53.031323  7180 net.cpp:408] ip2 <- ip1
I0501 07:46:53.031332  7180 net.cpp:382] ip2 -> ip2
I0501 07:46:53.031680  7180 net.cpp:124] Setting up ip2
I0501 07:46:53.031692  7180 net.cpp:131] Top shape: 1000 40 (40000)
I0501 07:46:53.031697  7180 net.cpp:139] Memory required for data: 180204000
I0501 07:46:53.031707  7180 layer_factory.hpp:77] Creating layer relu2
I0501 07:46:53.031718  7180 net.cpp:86] Creating Layer relu2
I0501 07:46:53.031723  7180 net.cpp:408] relu2 <- ip2
I0501 07:46:53.031728  7180 net.cpp:369] relu2 -> ip2 (in-place)
I0501 07:46:53.031936  7180 net.cpp:124] Setting up relu2
I0501 07:46:53.031949  7180 net.cpp:131] Top shape: 1000 40 (40000)
I0501 07:46:53.031954  7180 net.cpp:139] Memory required for data: 180364000
I0501 07:46:53.031957  7180 layer_factory.hpp:77] Creating layer ip3
I0501 07:46:53.031967  7180 net.cpp:86] Creating Layer ip3
I0501 07:46:53.031972  7180 net.cpp:408] ip3 <- ip2
I0501 07:46:53.031980  7180 net.cpp:382] ip3 -> ip3
I0501 07:46:53.032124  7180 net.cpp:124] Setting up ip3
I0501 07:46:53.032135  7180 net.cpp:131] Top shape: 1000 10 (10000)
I0501 07:46:53.032155  7180 net.cpp:139] Memory required for data: 180404000
I0501 07:46:53.032163  7180 layer_factory.hpp:77] Creating layer ip3_ip3_0_split
I0501 07:46:53.032171  7180 net.cpp:86] Creating Layer ip3_ip3_0_split
I0501 07:46:53.032176  7180 net.cpp:408] ip3_ip3_0_split <- ip3
I0501 07:46:53.032183  7180 net.cpp:382] ip3_ip3_0_split -> ip3_ip3_0_split_0
I0501 07:46:53.032191  7180 net.cpp:382] ip3_ip3_0_split -> ip3_ip3_0_split_1
I0501 07:46:53.032234  7180 net.cpp:124] Setting up ip3_ip3_0_split
I0501 07:46:53.032243  7180 net.cpp:131] Top shape: 1000 10 (10000)
I0501 07:46:53.032249  7180 net.cpp:131] Top shape: 1000 10 (10000)
I0501 07:46:53.032253  7180 net.cpp:139] Memory required for data: 180484000
I0501 07:46:53.032258  7180 layer_factory.hpp:77] Creating layer accuracy
I0501 07:46:53.032272  7180 net.cpp:86] Creating Layer accuracy
I0501 07:46:53.032277  7180 net.cpp:408] accuracy <- ip3_ip3_0_split_0
I0501 07:46:53.032282  7180 net.cpp:408] accuracy <- label_cifar_1_split_0
I0501 07:46:53.032289  7180 net.cpp:382] accuracy -> accuracy
…
