…
I0501 08:26:30.967113 10658 net.cpp:296] The NetState phase (0) differed from the phase (1) specified by a rule in layer cifar
I0501 08:26:30.967126 10658 net.cpp:296] The NetState phase (0) differed from the phase (1) specified by a rule in layer accuracy
I0501 08:26:30.967211 10658 net.cpp:53] Initializing net from parameters: 
name: "CIFAR"
state {
  phase: TRAIN
  level: 0
  stage: ""
}
layer {
  name: "cifar"
  type: "Data"
  top: "data"
  top: "label"
  include {
    phase: TRAIN
  }
  transform_param {
    mean_file: "examples/cifar10/mean.binaryproto"
  }
  data_param {
    source: "examples/cifar10/cifar10_train_lmdb"
    batch_size: 111
    backend: LMDB
  }
}
layer {
  name: "conv0"
  type: "Convolution"
  bottom: "data"
  top: "conv0"
  param {
    lr_mult: 1
  }
  param {
    lr_mult: 2
  }
  convolution_param {
    num_output: 16
    pad: 2
    kernel_size: 3
    stride: 1
    weight_filler {
      type: "gaussian"
      std: 0.01
    }
    bias_filler {
      type: "constant"
    }
  }
}
layer {
  name: "Sigmoid0"
  type: "Sigmoid"
  bottom: "conv0"
  top: "Sigmoid0"
}
layer {
  name: "pool0"
  type: "Pooling"
  bottom: "Sigmoid0"
  top: "pool0"
  pooling_param {
    pool: AVE
    kernel_size: 3
    stride: 2
  }
}
layer {
  name: "ip1"
  type: "InnerProduct"
  bottom: "pool0"
  top: "ip1"
  param {
    lr_mult: 1
  }
  param {
    lr_mult: 2
  }
  inner_product_param {
    num_output: 10
    weight_filler {
      type: "gaussian"
      std: 0.01
    }
    bias_filler {
      type: "constant"
    }
  }
}
layer {
  name: "relu1"
  type: "ReLU"
  bottom: "ip1"
  top: "ip1"
}
layer {
  name: "ip2"
  type: "InnerProduct"
  bottom: "ip1"
  top: "ip2"
  param {
    lr_mult: 1
  }
  param {
    lr_mult: 2
  }
  inner_product_param {
    num_output: 80
    weight_filler {
      type: "gaussian"
      std: 0.01
    }
    bias_filler {
      type: "constant"
    }
  }
}
layer {
  name: "relu2"
  type: "ReLU"
  bottom: "ip2"
  top: "ip2"
}
layer {
  name: "ip3"
  type: "InnerProduct"
  bottom: "ip2"
  top: "ip3"
  param {
    lr_mult: 1
  }
  param {
    lr_mult: 2
  }
  inner_product_param {
    num_output: 20
    weight_filler {
      type: "gaussian"
      std: 0.01
    }
    bias_filler {
      type: "constant"
    }
  }
}
layer {
  name: "relu3"
  type: "ReLU"
  bottom: "ip3"
  top: "ip3"
}
layer {
  name: "ip4"
  type: "InnerProduct"
  bottom: "ip3"
  top: "ip4"
  param {
    lr_mult: 1
  }
  param {
    lr_mult: 2
  }
  inner_product_param {
    num_output: 10
    weight_filler {
      type: "gaussian"
      std: 0.01
    }
    bias_filler {
      type: "constant"
    }
  }
}
layer {
  name: "loss"
  type: "SoftmaxWithLoss"
  bottom: "ip4"
  bottom: "label"
  top: "loss"
}
I0501 08:26:30.967272 10658 layer_factory.hpp:77] Creating layer cifar
I0501 08:26:30.967350 10658 db_lmdb.cpp:35] Opened lmdb examples/cifar10/cifar10_train_lmdb
I0501 08:26:30.967371 10658 net.cpp:86] Creating Layer cifar
I0501 08:26:30.967377 10658 net.cpp:382] cifar -> data
I0501 08:26:30.967397 10658 net.cpp:382] cifar -> label
I0501 08:26:30.967406 10658 data_transformer.cpp:25] Loading mean file from: examples/cifar10/mean.binaryproto
I0501 08:26:30.969235 10658 data_layer.cpp:45] output data size: 111,3,32,32
I0501 08:26:30.975452 10658 net.cpp:124] Setting up cifar
I0501 08:26:30.975497 10658 net.cpp:131] Top shape: 111 3 32 32 (340992)
I0501 08:26:30.975502 10658 net.cpp:131] Top shape: 111 (111)
I0501 08:26:30.975504 10658 net.cpp:139] Memory required for data: 1364412
I0501 08:26:30.975520 10658 layer_factory.hpp:77] Creating layer conv0
I0501 08:26:30.975551 10658 net.cpp:86] Creating Layer conv0
I0501 08:26:30.975555 10658 net.cpp:408] conv0 <- data
I0501 08:26:30.975565 10658 net.cpp:382] conv0 -> conv0
I0501 08:26:31.200803 10658 net.cpp:124] Setting up conv0
I0501 08:26:31.200858 10658 net.cpp:131] Top shape: 111 16 34 34 (2053056)
I0501 08:26:31.200863 10658 net.cpp:139] Memory required for data: 9576636
I0501 08:26:31.200881 10658 layer_factory.hpp:77] Creating layer Sigmoid0
I0501 08:26:31.200892 10658 net.cpp:86] Creating Layer Sigmoid0
I0501 08:26:31.200897 10658 net.cpp:408] Sigmoid0 <- conv0
I0501 08:26:31.200902 10658 net.cpp:382] Sigmoid0 -> Sigmoid0
I0501 08:26:31.201084 10658 net.cpp:124] Setting up Sigmoid0
I0501 08:26:31.201094 10658 net.cpp:131] Top shape: 111 16 34 34 (2053056)
I0501 08:26:31.201097 10658 net.cpp:139] Memory required for data: 17788860
I0501 08:26:31.201102 10658 layer_factory.hpp:77] Creating layer pool0
I0501 08:26:31.201108 10658 net.cpp:86] Creating Layer pool0
I0501 08:26:31.201112 10658 net.cpp:408] pool0 <- Sigmoid0
I0501 08:26:31.201117 10658 net.cpp:382] pool0 -> pool0
I0501 08:26:31.201887 10658 net.cpp:124] Setting up pool0
I0501 08:26:31.201900 10658 net.cpp:131] Top shape: 111 16 17 17 (513264)
I0501 08:26:31.201903 10658 net.cpp:139] Memory required for data: 19841916
I0501 08:26:31.201907 10658 layer_factory.hpp:77] Creating layer ip1
I0501 08:26:31.201916 10658 net.cpp:86] Creating Layer ip1
I0501 08:26:31.201920 10658 net.cpp:408] ip1 <- pool0
I0501 08:26:31.201925 10658 net.cpp:382] ip1 -> ip1
I0501 08:26:31.204062 10658 net.cpp:124] Setting up ip1
I0501 08:26:31.204074 10658 net.cpp:131] Top shape: 111 10 (1110)
I0501 08:26:31.204077 10658 net.cpp:139] Memory required for data: 19846356
I0501 08:26:31.204085 10658 layer_factory.hpp:77] Creating layer relu1
I0501 08:26:31.204090 10658 net.cpp:86] Creating Layer relu1
I0501 08:26:31.204094 10658 net.cpp:408] relu1 <- ip1
I0501 08:26:31.204098 10658 net.cpp:369] relu1 -> ip1 (in-place)
I0501 08:26:31.204243 10658 net.cpp:124] Setting up relu1
I0501 08:26:31.204252 10658 net.cpp:131] Top shape: 111 10 (1110)
I0501 08:26:31.204254 10658 net.cpp:139] Memory required for data: 19850796
I0501 08:26:31.204257 10658 layer_factory.hpp:77] Creating layer ip2
I0501 08:26:31.204263 10658 net.cpp:86] Creating Layer ip2
I0501 08:26:31.204267 10658 net.cpp:408] ip2 <- ip1
I0501 08:26:31.204272 10658 net.cpp:382] ip2 -> ip2
I0501 08:26:31.204385 10658 net.cpp:124] Setting up ip2
I0501 08:26:31.204391 10658 net.cpp:131] Top shape: 111 80 (8880)
I0501 08:26:31.204393 10658 net.cpp:139] Memory required for data: 19886316
I0501 08:26:31.204401 10658 layer_factory.hpp:77] Creating layer relu2
I0501 08:26:31.204406 10658 net.cpp:86] Creating Layer relu2
I0501 08:26:31.204408 10658 net.cpp:408] relu2 <- ip2
I0501 08:26:31.204412 10658 net.cpp:369] relu2 -> ip2 (in-place)
I0501 08:26:31.204569 10658 net.cpp:124] Setting up relu2
I0501 08:26:31.204576 10658 net.cpp:131] Top shape: 111 80 (8880)
I0501 08:26:31.204579 10658 net.cpp:139] Memory required for data: 19921836
I0501 08:26:31.204582 10658 layer_factory.hpp:77] Creating layer ip3
I0501 08:26:31.204589 10658 net.cpp:86] Creating Layer ip3
I0501 08:26:31.204592 10658 net.cpp:408] ip3 <- ip2
I0501 08:26:31.204597 10658 net.cpp:382] ip3 -> ip3
I0501 08:26:31.204728 10658 net.cpp:124] Setting up ip3
I0501 08:26:31.204735 10658 net.cpp:131] Top shape: 111 20 (2220)
I0501 08:26:31.204738 10658 net.cpp:139] Memory required for data: 19930716
I0501 08:26:31.204743 10658 layer_factory.hpp:77] Creating layer relu3
I0501 08:26:31.204748 10658 net.cpp:86] Creating Layer relu3
I0501 08:26:31.204751 10658 net.cpp:408] relu3 <- ip3
I0501 08:26:31.204769 10658 net.cpp:369] relu3 -> ip3 (in-place)
I0501 08:26:31.204916 10658 net.cpp:124] Setting up relu3
I0501 08:26:31.204924 10658 net.cpp:131] Top shape: 111 20 (2220)
I0501 08:26:31.204927 10658 net.cpp:139] Memory required for data: 19939596
I0501 08:26:31.204931 10658 layer_factory.hpp:77] Creating layer ip4
I0501 08:26:31.204965 10658 net.cpp:86] Creating Layer ip4
I0501 08:26:31.204970 10658 net.cpp:408] ip4 <- ip3
I0501 08:26:31.204975 10658 net.cpp:382] ip4 -> ip4
I0501 08:26:31.205070 10658 net.cpp:124] Setting up ip4
I0501 08:26:31.205076 10658 net.cpp:131] Top shape: 111 10 (1110)
I0501 08:26:31.205080 10658 net.cpp:139] Memory required for data: 19944036
I0501 08:26:31.205086 10658 layer_factory.hpp:77] Creating layer loss
I0501 08:26:31.205092 10658 net.cpp:86] Creating Layer loss
I0501 08:26:31.205096 10658 net.cpp:408] loss <- ip4
I0501 08:26:31.205099 10658 net.cpp:408] loss <- label
I0501 08:26:31.205104 10658 net.cpp:382] loss -> loss
I0501 08:26:31.205117 10658 layer_factory.hpp:77] Creating layer loss
…
I0501 08:26:31.206308 10658 solver.cpp:173] Creating test net (#0) specified by net file: ECE595/cifar/train_test/var_everything/cifar_train_test_511.prototxt
I0501 08:26:31.206334 10658 net.cpp:296] The NetState phase (1) differed from the phase (0) specified by a rule in layer cifar
I0501 08:26:31.206423 10658 net.cpp:53] Initializing net from parameters: 
name: "CIFAR"
state {
  phase: TEST
}
layer {
  name: "cifar"
  type: "Data"
  top: "data"
  top: "label"
  include {
    phase: TEST
  }
  transform_param {
    mean_file: "examples/cifar10/mean.binaryproto"
  }
  data_param {
    source: "examples/cifar10/cifar10_test_lmdb"
    batch_size: 1000
    backend: LMDB
  }
}
layer {
  name: "conv0"
  type: "Convolution"
  bottom: "data"
  top: "conv0"
  param {
    lr_mult: 1
  }
  param {
    lr_mult: 2
  }
  convolution_param {
    num_output: 16
    pad: 2
    kernel_size: 3
    stride: 1
    weight_filler {
      type: "gaussian"
      std: 0.01
    }
    bias_filler {
      type: "constant"
    }
  }
}
layer {
  name: "Sigmoid0"
  type: "Sigmoid"
  bottom: "conv0"
  top: "Sigmoid0"
}
layer {
  name: "pool0"
  type: "Pooling"
  bottom: "Sigmoid0"
  top: "pool0"
  pooling_param {
    pool: AVE
    kernel_size: 3
    stride: 2
  }
}
layer {
  name: "ip1"
  type: "InnerProduct"
  bottom: "pool0"
  top: "ip1"
  param {
    lr_mult: 1
  }
  param {
    lr_mult: 2
  }
  inner_product_param {
    num_output: 10
    weight_filler {
      type: "gaussian"
      std: 0.01
    }
    bias_filler {
      type: "constant"
    }
  }
}
layer {
  name: "relu1"
  type: "ReLU"
  bottom: "ip1"
  top: "ip1"
}
layer {
  name: "ip2"
  type: "InnerProduct"
  bottom: "ip1"
  top: "ip2"
  param {
    lr_mult: 1
  }
  param {
    lr_mult: 2
  }
  inner_product_param {
    num_output: 80
    weight_filler {
      type: "gaussian"
      std: 0.01
    }
    bias_filler {
      type: "constant"
    }
  }
}
layer {
  name: "relu2"
  type: "ReLU"
  bottom: "ip2"
  top: "ip2"
}
layer {
  name: "ip3"
  type: "InnerProduct"
  bottom: "ip2"
  top: "ip3"
  param {
    lr_mult: 1
  }
  param {
    lr_mult: 2
  }
  inner_product_param {
    num_output: 20
    weight_filler {
      type: "gaussian"
      std: 0.01
    }
    bias_filler {
      type: "constant"
    }
  }
}
layer {
  name: "relu3"
  type: "ReLU"
  bottom: "ip3"
  top: "ip3"
}
layer {
  name: "ip4"
  type: "InnerProduct"
  bottom: "ip3"
  top: "ip4"
  param {
    lr_mult: 1
  }
  param {
    lr_mult: 2
  }
  inner_product_param {
    num_output: 10
    weight_filler {
      type: "gaussian"
      std: 0.01
    }
    bias_filler {
      type: "constant"
    }
  }
}
layer {
  name: "accuracy"
  type: "Accuracy"
  bottom: "ip4"
  bottom: "label"
  top: "accuracy"
  include {
    phase: TEST
  }
}
layer {
  name: "loss"
  type: "SoftmaxWithLoss"
  bottom: "ip4"
  bottom: "label"
  top: "loss"
}
I0501 08:26:31.206495 10658 layer_factory.hpp:77] Creating layer cifar
I0501 08:26:31.206538 10658 db_lmdb.cpp:35] Opened lmdb examples/cifar10/cifar10_test_lmdb
I0501 08:26:31.206549 10658 net.cpp:86] Creating Layer cifar
I0501 08:26:31.206554 10658 net.cpp:382] cifar -> data
I0501 08:26:31.206562 10658 net.cpp:382] cifar -> label
I0501 08:26:31.206568 10658 data_transformer.cpp:25] Loading mean file from: examples/cifar10/mean.binaryproto
I0501 08:26:31.206718 10658 data_layer.cpp:45] output data size: 1000,3,32,32
I0501 08:26:31.228842 10658 net.cpp:124] Setting up cifar
I0501 08:26:31.228899 10658 net.cpp:131] Top shape: 1000 3 32 32 (3072000)
I0501 08:26:31.228904 10658 net.cpp:131] Top shape: 1000 (1000)
I0501 08:26:31.228907 10658 net.cpp:139] Memory required for data: 12292000
I0501 08:26:31.228914 10658 layer_factory.hpp:77] Creating layer label_cifar_1_split
I0501 08:26:31.228925 10658 net.cpp:86] Creating Layer label_cifar_1_split
I0501 08:26:31.228929 10658 net.cpp:408] label_cifar_1_split <- label
I0501 08:26:31.228935 10658 net.cpp:382] label_cifar_1_split -> label_cifar_1_split_0
I0501 08:26:31.228945 10658 net.cpp:382] label_cifar_1_split -> label_cifar_1_split_1
I0501 08:26:31.229020 10658 net.cpp:124] Setting up label_cifar_1_split
I0501 08:26:31.229027 10658 net.cpp:131] Top shape: 1000 (1000)
I0501 08:26:31.229032 10658 net.cpp:131] Top shape: 1000 (1000)
I0501 08:26:31.229034 10658 net.cpp:139] Memory required for data: 12300000
I0501 08:26:31.229038 10658 layer_factory.hpp:77] Creating layer conv0
I0501 08:26:31.229049 10658 net.cpp:86] Creating Layer conv0
I0501 08:26:31.229053 10658 net.cpp:408] conv0 <- data
I0501 08:26:31.229058 10658 net.cpp:382] conv0 -> conv0
I0501 08:26:31.230803 10658 net.cpp:124] Setting up conv0
I0501 08:26:31.230815 10658 net.cpp:131] Top shape: 1000 16 34 34 (18496000)
I0501 08:26:31.230835 10658 net.cpp:139] Memory required for data: 86284000
I0501 08:26:31.230845 10658 layer_factory.hpp:77] Creating layer Sigmoid0
I0501 08:26:31.230854 10658 net.cpp:86] Creating Layer Sigmoid0
I0501 08:26:31.230857 10658 net.cpp:408] Sigmoid0 <- conv0
I0501 08:26:31.230864 10658 net.cpp:382] Sigmoid0 -> Sigmoid0
I0501 08:26:31.231070 10658 net.cpp:124] Setting up Sigmoid0
I0501 08:26:31.231081 10658 net.cpp:131] Top shape: 1000 16 34 34 (18496000)
I0501 08:26:31.231083 10658 net.cpp:139] Memory required for data: 160268000
I0501 08:26:31.231086 10658 layer_factory.hpp:77] Creating layer pool0
I0501 08:26:31.231094 10658 net.cpp:86] Creating Layer pool0
I0501 08:26:31.231097 10658 net.cpp:408] pool0 <- Sigmoid0
I0501 08:26:31.231102 10658 net.cpp:382] pool0 -> pool0
I0501 08:26:31.231369 10658 net.cpp:124] Setting up pool0
I0501 08:26:31.231393 10658 net.cpp:131] Top shape: 1000 16 17 17 (4624000)
I0501 08:26:31.231396 10658 net.cpp:139] Memory required for data: 178764000
I0501 08:26:31.231415 10658 layer_factory.hpp:77] Creating layer ip1
I0501 08:26:31.231426 10658 net.cpp:86] Creating Layer ip1
I0501 08:26:31.231429 10658 net.cpp:408] ip1 <- pool0
I0501 08:26:31.231434 10658 net.cpp:382] ip1 -> ip1
I0501 08:26:31.233832 10658 net.cpp:124] Setting up ip1
I0501 08:26:31.233842 10658 net.cpp:131] Top shape: 1000 10 (10000)
I0501 08:26:31.233861 10658 net.cpp:139] Memory required for data: 178804000
I0501 08:26:31.233885 10658 layer_factory.hpp:77] Creating layer relu1
I0501 08:26:31.233892 10658 net.cpp:86] Creating Layer relu1
I0501 08:26:31.233896 10658 net.cpp:408] relu1 <- ip1
I0501 08:26:31.233901 10658 net.cpp:369] relu1 -> ip1 (in-place)
I0501 08:26:31.234091 10658 net.cpp:124] Setting up relu1
I0501 08:26:31.234100 10658 net.cpp:131] Top shape: 1000 10 (10000)
I0501 08:26:31.234103 10658 net.cpp:139] Memory required for data: 178844000
I0501 08:26:31.234107 10658 layer_factory.hpp:77] Creating layer ip2
I0501 08:26:31.234114 10658 net.cpp:86] Creating Layer ip2
I0501 08:26:31.234117 10658 net.cpp:408] ip2 <- ip1
I0501 08:26:31.234123 10658 net.cpp:382] ip2 -> ip2
I0501 08:26:31.234261 10658 net.cpp:124] Setting up ip2
I0501 08:26:31.234267 10658 net.cpp:131] Top shape: 1000 80 (80000)
I0501 08:26:31.234271 10658 net.cpp:139] Memory required for data: 179164000
I0501 08:26:31.234277 10658 layer_factory.hpp:77] Creating layer relu2
I0501 08:26:31.234284 10658 net.cpp:86] Creating Layer relu2
I0501 08:26:31.234287 10658 net.cpp:408] relu2 <- ip2
I0501 08:26:31.234292 10658 net.cpp:369] relu2 -> ip2 (in-place)
I0501 08:26:31.235057 10658 net.cpp:124] Setting up relu2
I0501 08:26:31.235069 10658 net.cpp:131] Top shape: 1000 80 (80000)
I0501 08:26:31.235088 10658 net.cpp:139] Memory required for data: 179484000
I0501 08:26:31.235091 10658 layer_factory.hpp:77] Creating layer ip3
I0501 08:26:31.235100 10658 net.cpp:86] Creating Layer ip3
I0501 08:26:31.235103 10658 net.cpp:408] ip3 <- ip2
I0501 08:26:31.235108 10658 net.cpp:382] ip3 -> ip3
I0501 08:26:31.235283 10658 net.cpp:124] Setting up ip3
I0501 08:26:31.235291 10658 net.cpp:131] Top shape: 1000 20 (20000)
I0501 08:26:31.235293 10658 net.cpp:139] Memory required for data: 179564000
I0501 08:26:31.235299 10658 layer_factory.hpp:77] Creating layer relu3
I0501 08:26:31.235304 10658 net.cpp:86] Creating Layer relu3
I0501 08:26:31.235308 10658 net.cpp:408] relu3 <- ip3
I0501 08:26:31.235313 10658 net.cpp:369] relu3 -> ip3 (in-place)
I0501 08:26:31.235491 10658 net.cpp:124] Setting up relu3
I0501 08:26:31.235498 10658 net.cpp:131] Top shape: 1000 20 (20000)
I0501 08:26:31.235502 10658 net.cpp:139] Memory required for data: 179644000
I0501 08:26:31.235504 10658 layer_factory.hpp:77] Creating layer ip4
I0501 08:26:31.235512 10658 net.cpp:86] Creating Layer ip4
I0501 08:26:31.235514 10658 net.cpp:408] ip4 <- ip3
I0501 08:26:31.235518 10658 net.cpp:382] ip4 -> ip4
I0501 08:26:31.235627 10658 net.cpp:124] Setting up ip4
I0501 08:26:31.235635 10658 net.cpp:131] Top shape: 1000 10 (10000)
I0501 08:26:31.235637 10658 net.cpp:139] Memory required for data: 179684000
I0501 08:26:31.235646 10658 layer_factory.hpp:77] Creating layer ip4_ip4_0_split
I0501 08:26:31.235651 10658 net.cpp:86] Creating Layer ip4_ip4_0_split
I0501 08:26:31.235654 10658 net.cpp:408] ip4_ip4_0_split <- ip4
I0501 08:26:31.235658 10658 net.cpp:382] ip4_ip4_0_split -> ip4_ip4_0_split_0
I0501 08:26:31.235663 10658 net.cpp:382] ip4_ip4_0_split -> ip4_ip4_0_split_1
I0501 08:26:31.235695 10658 net.cpp:124] Setting up ip4_ip4_0_split
I0501 08:26:31.235702 10658 net.cpp:131] Top shape: 1000 10 (10000)
I0501 08:26:31.235704 10658 net.cpp:131] Top shape: 1000 10 (10000)
I0501 08:26:31.235707 10658 net.cpp:139] Memory required for data: 179764000
I0501 08:26:31.235710 10658 layer_factory.hpp:77] Creating layer accuracy
I0501 08:26:31.235716 10658 net.cpp:86] Creating Layer accuracy
I0501 08:26:31.235719 10658 net.cpp:408] accuracy <- ip4_ip4_0_split_0
I0501 08:26:31.235723 10658 net.cpp:408] accuracy <- label_cifar_1_split_0
I0501 08:26:31.235728 10658 net.cpp:382] accuracy -> accuracy
…
