…
I0430 19:02:48.690286 25060 net.cpp:296] The NetState phase (0) differed from the phase (1) specified by a rule in layer cifar
I0430 19:02:48.690299 25060 net.cpp:296] The NetState phase (0) differed from the phase (1) specified by a rule in layer accuracy
I0430 19:02:48.690367 25060 net.cpp:53] Initializing net from parameters: 
name: "CIFAR"
state {
  phase: TRAIN
  level: 0
  stage: ""
}
layer {
  name: "cifar"
  type: "Data"
  top: "data"
  top: "label"
  include {
    phase: TRAIN
  }
  transform_param {
    mean_file: "examples/cifar10/mean.binaryproto"
  }
  data_param {
    source: "examples/cifar10/cifar10_train_lmdb"
    batch_size: 111
    backend: LMDB
  }
}
layer {
  name: "ip1"
  type: "InnerProduct"
  bottom: "data"
  top: "ip1"
  param {
    lr_mult: 1
  }
  param {
    lr_mult: 2
  }
  inner_product_param {
    num_output: 40
    weight_filler {
      type: "gaussian"
      std: 0.01
    }
    bias_filler {
      type: "constant"
    }
  }
}
layer {
  name: "relu1"
  type: "ReLU"
  bottom: "ip1"
  top: "ip1"
}
layer {
  name: "ip2"
  type: "InnerProduct"
  bottom: "ip1"
  top: "ip2"
  param {
    lr_mult: 1
  }
  param {
    lr_mult: 2
  }
  inner_product_param {
    num_output: 20
    weight_filler {
      type: "gaussian"
      std: 0.01
    }
    bias_filler {
      type: "constant"
    }
  }
}
layer {
  name: "relu2"
  type: "ReLU"
  bottom: "ip2"
  top: "ip2"
}
layer {
  name: "ip3"
  type: "InnerProduct"
  bottom: "ip2"
  top: "ip3"
  param {
    lr_mult: 1
  }
  param {
    lr_mult: 2
  }
  inner_product_param {
    num_output: 10
    weight_filler {
      type: "gaussian"
      std: 0.01
    }
    bias_filler {
      type: "constant"
    }
  }
}
layer {
  name: "relu3"
  type: "ReLU"
  bottom: "ip3"
  top: "ip3"
}
layer {
  name: "ip4"
  type: "InnerProduct"
  bottom: "ip3"
  top: "ip4"
  param {
    lr_mult: 1
  }
  param {
    lr_mult: 2
  }
  inner_product_param {
    num_output: 10
    weight_filler {
      type: "gaussian"
      std: 0.01
    }
    bias_filler {
      type: "constant"
    }
  }
}
layer {
  name: "loss"
  type: "SoftmaxWithLoss"
  bottom: "ip4"
  bottom: "label"
  top: "loss"
}
I0430 19:02:48.690440 25060 layer_factory.hpp:77] Creating layer cifar
I0430 19:02:48.690521 25060 db_lmdb.cpp:35] Opened lmdb examples/cifar10/cifar10_train_lmdb
I0430 19:02:48.690542 25060 net.cpp:86] Creating Layer cifar
I0430 19:02:48.690549 25060 net.cpp:382] cifar -> data
I0430 19:02:48.690567 25060 net.cpp:382] cifar -> label
I0430 19:02:48.690577 25060 data_transformer.cpp:25] Loading mean file from: examples/cifar10/mean.binaryproto
I0430 19:02:48.692289 25060 data_layer.cpp:45] output data size: 111,3,32,32
I0430 19:02:48.698865 25060 net.cpp:124] Setting up cifar
I0430 19:02:48.698879 25060 net.cpp:131] Top shape: 111 3 32 32 (340992)
I0430 19:02:48.698884 25060 net.cpp:131] Top shape: 111 (111)
I0430 19:02:48.698886 25060 net.cpp:139] Memory required for data: 1364412
I0430 19:02:48.698892 25060 layer_factory.hpp:77] Creating layer ip1
I0430 19:02:48.698902 25060 net.cpp:86] Creating Layer ip1
I0430 19:02:48.698906 25060 net.cpp:408] ip1 <- data
I0430 19:02:48.698915 25060 net.cpp:382] ip1 -> ip1
I0430 19:02:48.702383 25060 net.cpp:124] Setting up ip1
I0430 19:02:48.702394 25060 net.cpp:131] Top shape: 111 40 (4440)
I0430 19:02:48.702397 25060 net.cpp:139] Memory required for data: 1382172
I0430 19:02:48.702407 25060 layer_factory.hpp:77] Creating layer relu1
I0430 19:02:48.702414 25060 net.cpp:86] Creating Layer relu1
I0430 19:02:48.702446 25060 net.cpp:408] relu1 <- ip1
I0430 19:02:48.702455 25060 net.cpp:369] relu1 -> ip1 (in-place)
I0430 19:02:48.933295 25060 net.cpp:124] Setting up relu1
I0430 19:02:48.933339 25060 net.cpp:131] Top shape: 111 40 (4440)
I0430 19:02:48.933343 25060 net.cpp:139] Memory required for data: 1399932
I0430 19:02:48.933348 25060 layer_factory.hpp:77] Creating layer ip2
I0430 19:02:48.933360 25060 net.cpp:86] Creating Layer ip2
I0430 19:02:48.933367 25060 net.cpp:408] ip2 <- ip1
I0430 19:02:48.933373 25060 net.cpp:382] ip2 -> ip2
I0430 19:02:48.934592 25060 net.cpp:124] Setting up ip2
I0430 19:02:48.934604 25060 net.cpp:131] Top shape: 111 20 (2220)
I0430 19:02:48.934624 25060 net.cpp:139] Memory required for data: 1408812
I0430 19:02:48.934648 25060 layer_factory.hpp:77] Creating layer relu2
I0430 19:02:48.934655 25060 net.cpp:86] Creating Layer relu2
I0430 19:02:48.934659 25060 net.cpp:408] relu2 <- ip2
I0430 19:02:48.934664 25060 net.cpp:369] relu2 -> ip2 (in-place)
I0430 19:02:48.935408 25060 net.cpp:124] Setting up relu2
I0430 19:02:48.935420 25060 net.cpp:131] Top shape: 111 20 (2220)
I0430 19:02:48.935439 25060 net.cpp:139] Memory required for data: 1417692
I0430 19:02:48.935443 25060 layer_factory.hpp:77] Creating layer ip3
I0430 19:02:48.935449 25060 net.cpp:86] Creating Layer ip3
I0430 19:02:48.935454 25060 net.cpp:408] ip3 <- ip2
I0430 19:02:48.935459 25060 net.cpp:382] ip3 -> ip3
I0430 19:02:48.935571 25060 net.cpp:124] Setting up ip3
I0430 19:02:48.935580 25060 net.cpp:131] Top shape: 111 10 (1110)
I0430 19:02:48.935582 25060 net.cpp:139] Memory required for data: 1422132
I0430 19:02:48.935590 25060 layer_factory.hpp:77] Creating layer relu3
I0430 19:02:48.935595 25060 net.cpp:86] Creating Layer relu3
I0430 19:02:48.935597 25060 net.cpp:408] relu3 <- ip3
I0430 19:02:48.935601 25060 net.cpp:369] relu3 -> ip3 (in-place)
I0430 19:02:48.935760 25060 net.cpp:124] Setting up relu3
I0430 19:02:48.935767 25060 net.cpp:131] Top shape: 111 10 (1110)
I0430 19:02:48.935770 25060 net.cpp:139] Memory required for data: 1426572
I0430 19:02:48.935773 25060 layer_factory.hpp:77] Creating layer ip4
I0430 19:02:48.935780 25060 net.cpp:86] Creating Layer ip4
I0430 19:02:48.935782 25060 net.cpp:408] ip4 <- ip3
I0430 19:02:48.935787 25060 net.cpp:382] ip4 -> ip4
I0430 19:02:48.935879 25060 net.cpp:124] Setting up ip4
I0430 19:02:48.935886 25060 net.cpp:131] Top shape: 111 10 (1110)
I0430 19:02:48.935889 25060 net.cpp:139] Memory required for data: 1431012
I0430 19:02:48.935894 25060 layer_factory.hpp:77] Creating layer loss
I0430 19:02:48.935902 25060 net.cpp:86] Creating Layer loss
I0430 19:02:48.935905 25060 net.cpp:408] loss <- ip4
I0430 19:02:48.935909 25060 net.cpp:408] loss <- label
I0430 19:02:48.935914 25060 net.cpp:382] loss -> loss
I0430 19:02:48.935933 25060 layer_factory.hpp:77] Creating layer loss
…
I0430 19:02:48.936477 25060 solver.cpp:173] Creating test net (#0) specified by net file: ECE595/cifar/train_test/var_everything/cifar_train_test_85.prototxt
I0430 19:02:48.936516 25060 net.cpp:296] The NetState phase (1) differed from the phase (0) specified by a rule in layer cifar
I0430 19:02:48.936591 25060 net.cpp:53] Initializing net from parameters: 
name: "CIFAR"
state {
  phase: TEST
}
layer {
  name: "cifar"
  type: "Data"
  top: "data"
  top: "label"
  include {
    phase: TEST
  }
  transform_param {
    mean_file: "examples/cifar10/mean.binaryproto"
  }
  data_param {
    source: "examples/cifar10/cifar10_test_lmdb"
    batch_size: 1000
    backend: LMDB
  }
}
layer {
  name: "ip1"
  type: "InnerProduct"
  bottom: "data"
  top: "ip1"
  param {
    lr_mult: 1
  }
  param {
    lr_mult: 2
  }
  inner_product_param {
    num_output: 40
    weight_filler {
      type: "gaussian"
      std: 0.01
    }
    bias_filler {
      type: "constant"
    }
  }
}
layer {
  name: "relu1"
  type: "ReLU"
  bottom: "ip1"
  top: "ip1"
}
layer {
  name: "ip2"
  type: "InnerProduct"
  bottom: "ip1"
  top: "ip2"
  param {
    lr_mult: 1
  }
  param {
    lr_mult: 2
  }
  inner_product_param {
    num_output: 20
    weight_filler {
      type: "gaussian"
      std: 0.01
    }
    bias_filler {
      type: "constant"
    }
  }
}
layer {
  name: "relu2"
  type: "ReLU"
  bottom: "ip2"
  top: "ip2"
}
layer {
  name: "ip3"
  type: "InnerProduct"
  bottom: "ip2"
  top: "ip3"
  param {
    lr_mult: 1
  }
  param {
    lr_mult: 2
  }
  inner_product_param {
    num_output: 10
    weight_filler {
      type: "gaussian"
      std: 0.01
    }
    bias_filler {
      type: "constant"
    }
  }
}
layer {
  name: "relu3"
  type: "ReLU"
  bottom: "ip3"
  top: "ip3"
}
layer {
  name: "ip4"
  type: "InnerProduct"
  bottom: "ip3"
  top: "ip4"
  param {
    lr_mult: 1
  }
  param {
    lr_mult: 2
  }
  inner_product_param {
    num_output: 10
    weight_filler {
      type: "gaussian"
      std: 0.01
    }
    bias_filler {
      type: "constant"
    }
  }
}
layer {
  name: "accuracy"
  type: "Accuracy"
  bottom: "ip4"
  bottom: "label"
  top: "accuracy"
  include {
    phase: TEST
  }
}
layer {
  name: "loss"
  type: "SoftmaxWithLoss"
  bottom: "ip4"
  bottom: "label"
  top: "loss"
}
I0430 19:02:48.936647 25060 layer_factory.hpp:77] Creating layer cifar
I0430 19:02:48.936692 25060 db_lmdb.cpp:35] Opened lmdb examples/cifar10/cifar10_test_lmdb
I0430 19:02:48.936704 25060 net.cpp:86] Creating Layer cifar
I0430 19:02:48.936708 25060 net.cpp:382] cifar -> data
I0430 19:02:48.936717 25060 net.cpp:382] cifar -> label
I0430 19:02:48.936722 25060 data_transformer.cpp:25] Loading mean file from: examples/cifar10/mean.binaryproto
I0430 19:02:48.936925 25060 data_layer.cpp:45] output data size: 1000,3,32,32
I0430 19:02:48.958904 25060 net.cpp:124] Setting up cifar
I0430 19:02:48.958930 25060 net.cpp:131] Top shape: 1000 3 32 32 (3072000)
I0430 19:02:48.958935 25060 net.cpp:131] Top shape: 1000 (1000)
I0430 19:02:48.958938 25060 net.cpp:139] Memory required for data: 12292000
I0430 19:02:48.958943 25060 layer_factory.hpp:77] Creating layer label_cifar_1_split
I0430 19:02:48.958959 25060 net.cpp:86] Creating Layer label_cifar_1_split
I0430 19:02:48.958979 25060 net.cpp:408] label_cifar_1_split <- label
I0430 19:02:48.958986 25060 net.cpp:382] label_cifar_1_split -> label_cifar_1_split_0
I0430 19:02:48.958994 25060 net.cpp:382] label_cifar_1_split -> label_cifar_1_split_1
I0430 19:02:48.959089 25060 net.cpp:124] Setting up label_cifar_1_split
I0430 19:02:48.959096 25060 net.cpp:131] Top shape: 1000 (1000)
I0430 19:02:48.959100 25060 net.cpp:131] Top shape: 1000 (1000)
I0430 19:02:48.959103 25060 net.cpp:139] Memory required for data: 12300000
I0430 19:02:48.959106 25060 layer_factory.hpp:77] Creating layer ip1
I0430 19:02:48.959115 25060 net.cpp:86] Creating Layer ip1
I0430 19:02:48.959117 25060 net.cpp:408] ip1 <- data
I0430 19:02:48.959122 25060 net.cpp:382] ip1 -> ip1
I0430 19:02:48.962677 25060 net.cpp:124] Setting up ip1
I0430 19:02:48.962688 25060 net.cpp:131] Top shape: 1000 40 (40000)
I0430 19:02:48.962692 25060 net.cpp:139] Memory required for data: 12460000
I0430 19:02:48.962734 25060 layer_factory.hpp:77] Creating layer relu1
I0430 19:02:48.962741 25060 net.cpp:86] Creating Layer relu1
I0430 19:02:48.962754 25060 net.cpp:408] relu1 <- ip1
I0430 19:02:48.962757 25060 net.cpp:369] relu1 -> ip1 (in-place)
I0430 19:02:48.963552 25060 net.cpp:124] Setting up relu1
I0430 19:02:48.963565 25060 net.cpp:131] Top shape: 1000 40 (40000)
I0430 19:02:48.963568 25060 net.cpp:139] Memory required for data: 12620000
I0430 19:02:48.963573 25060 layer_factory.hpp:77] Creating layer ip2
I0430 19:02:48.963596 25060 net.cpp:86] Creating Layer ip2
I0430 19:02:48.963600 25060 net.cpp:408] ip2 <- ip1
I0430 19:02:48.963605 25060 net.cpp:382] ip2 -> ip2
I0430 19:02:48.963727 25060 net.cpp:124] Setting up ip2
I0430 19:02:48.963735 25060 net.cpp:131] Top shape: 1000 20 (20000)
I0430 19:02:48.963738 25060 net.cpp:139] Memory required for data: 12700000
I0430 19:02:48.963745 25060 layer_factory.hpp:77] Creating layer relu2
I0430 19:02:48.963750 25060 net.cpp:86] Creating Layer relu2
I0430 19:02:48.963753 25060 net.cpp:408] relu2 <- ip2
I0430 19:02:48.963757 25060 net.cpp:369] relu2 -> ip2 (in-place)
I0430 19:02:48.963903 25060 net.cpp:124] Setting up relu2
I0430 19:02:48.963928 25060 net.cpp:131] Top shape: 1000 20 (20000)
I0430 19:02:48.963932 25060 net.cpp:139] Memory required for data: 12780000
I0430 19:02:48.963934 25060 layer_factory.hpp:77] Creating layer ip3
I0430 19:02:48.963940 25060 net.cpp:86] Creating Layer ip3
I0430 19:02:48.963943 25060 net.cpp:408] ip3 <- ip2
I0430 19:02:48.963948 25060 net.cpp:382] ip3 -> ip3
I0430 19:02:48.964054 25060 net.cpp:124] Setting up ip3
I0430 19:02:48.964061 25060 net.cpp:131] Top shape: 1000 10 (10000)
I0430 19:02:48.964064 25060 net.cpp:139] Memory required for data: 12820000
I0430 19:02:48.964071 25060 layer_factory.hpp:77] Creating layer relu3
I0430 19:02:48.964076 25060 net.cpp:86] Creating Layer relu3
I0430 19:02:48.964079 25060 net.cpp:408] relu3 <- ip3
I0430 19:02:48.964083 25060 net.cpp:369] relu3 -> ip3 (in-place)
I0430 19:02:48.964244 25060 net.cpp:124] Setting up relu3
I0430 19:02:48.964252 25060 net.cpp:131] Top shape: 1000 10 (10000)
I0430 19:02:48.964256 25060 net.cpp:139] Memory required for data: 12860000
I0430 19:02:48.964258 25060 layer_factory.hpp:77] Creating layer ip4
I0430 19:02:48.964264 25060 net.cpp:86] Creating Layer ip4
I0430 19:02:48.964267 25060 net.cpp:408] ip4 <- ip3
I0430 19:02:48.964272 25060 net.cpp:382] ip4 -> ip4
I0430 19:02:48.964368 25060 net.cpp:124] Setting up ip4
I0430 19:02:48.964375 25060 net.cpp:131] Top shape: 1000 10 (10000)
I0430 19:02:48.964378 25060 net.cpp:139] Memory required for data: 12900000
I0430 19:02:48.964383 25060 layer_factory.hpp:77] Creating layer ip4_ip4_0_split
I0430 19:02:48.964388 25060 net.cpp:86] Creating Layer ip4_ip4_0_split
I0430 19:02:48.964391 25060 net.cpp:408] ip4_ip4_0_split <- ip4
I0430 19:02:48.964395 25060 net.cpp:382] ip4_ip4_0_split -> ip4_ip4_0_split_0
I0430 19:02:48.964401 25060 net.cpp:382] ip4_ip4_0_split -> ip4_ip4_0_split_1
I0430 19:02:48.964429 25060 net.cpp:124] Setting up ip4_ip4_0_split
I0430 19:02:48.964434 25060 net.cpp:131] Top shape: 1000 10 (10000)
I0430 19:02:48.964437 25060 net.cpp:131] Top shape: 1000 10 (10000)
I0430 19:02:48.964440 25060 net.cpp:139] Memory required for data: 12980000
I0430 19:02:48.964443 25060 layer_factory.hpp:77] Creating layer accuracy
I0430 19:02:48.964452 25060 net.cpp:86] Creating Layer accuracy
I0430 19:02:48.964454 25060 net.cpp:408] accuracy <- ip4_ip4_0_split_0
I0430 19:02:48.964458 25060 net.cpp:408] accuracy <- label_cifar_1_split_0
I0430 19:02:48.964463 25060 net.cpp:382] accuracy -> accuracy
…
