…
I0501 03:25:16.821257 20663 net.cpp:296] The NetState phase (0) differed from the phase (1) specified by a rule in layer cifar
I0501 03:25:16.821285 20663 net.cpp:296] The NetState phase (0) differed from the phase (1) specified by a rule in layer accuracy
I0501 03:25:16.821379 20663 net.cpp:53] Initializing net from parameters: 
name: "CIFAR"
state {
  phase: TRAIN
  level: 0
  stage: ""
}
layer {
  name: "cifar"
  type: "Data"
  top: "data"
  top: "label"
  include {
    phase: TRAIN
  }
  transform_param {
    mean_file: "examples/cifar10/mean.binaryproto"
  }
  data_param {
    source: "examples/cifar10/cifar10_train_lmdb"
    batch_size: 111
    backend: LMDB
  }
}
layer {
  name: "conv0"
  type: "Convolution"
  bottom: "data"
  top: "conv0"
  param {
    lr_mult: 1
  }
  param {
    lr_mult: 2
  }
  convolution_param {
    num_output: 8
    pad: 2
    kernel_size: 5
    stride: 1
    weight_filler {
      type: "gaussian"
      std: 0.01
    }
    bias_filler {
      type: "constant"
    }
  }
}
layer {
  name: "Sigmoid0"
  type: "Sigmoid"
  bottom: "conv0"
  top: "Sigmoid0"
}
layer {
  name: "pool0"
  type: "Pooling"
  bottom: "Sigmoid0"
  top: "pool0"
  pooling_param {
    pool: AVE
    kernel_size: 3
    stride: 2
  }
}
layer {
  name: "ip1"
  type: "InnerProduct"
  bottom: "pool0"
  top: "ip1"
  param {
    lr_mult: 1
  }
  param {
    lr_mult: 2
  }
  inner_product_param {
    num_output: 10
    weight_filler {
      type: "gaussian"
      std: 0.01
    }
    bias_filler {
      type: "constant"
    }
  }
}
layer {
  name: "relu1"
  type: "ReLU"
  bottom: "ip1"
  top: "ip1"
}
layer {
  name: "ip2"
  type: "InnerProduct"
  bottom: "ip1"
  top: "ip2"
  param {
    lr_mult: 1
  }
  param {
    lr_mult: 2
  }
  inner_product_param {
    num_output: 40
    weight_filler {
      type: "gaussian"
      std: 0.01
    }
    bias_filler {
      type: "constant"
    }
  }
}
layer {
  name: "relu2"
  type: "ReLU"
  bottom: "ip2"
  top: "ip2"
}
layer {
  name: "ip3"
  type: "InnerProduct"
  bottom: "ip2"
  top: "ip3"
  param {
    lr_mult: 1
  }
  param {
    lr_mult: 2
  }
  inner_product_param {
    num_output: 80
    weight_filler {
      type: "gaussian"
      std: 0.01
    }
    bias_filler {
      type: "constant"
    }
  }
}
layer {
  name: "relu3"
  type: "ReLU"
  bottom: "ip3"
  top: "ip3"
}
layer {
  name: "ip4"
  type: "InnerProduct"
  bottom: "ip3"
  top: "ip4"
  param {
    lr_mult: 1
  }
  param {
    lr_mult: 2
  }
  inner_product_param {
    num_output: 10
    weight_filler {
      type: "gaussian"
      std: 0.01
    }
    bias_filler {
      type: "constant"
    }
  }
}
layer {
  name: "loss"
  type: "SoftmaxWithLoss"
  bottom: "ip4"
  bottom: "label"
  top: "loss"
}
I0501 03:25:16.821439 20663 layer_factory.hpp:77] Creating layer cifar
I0501 03:25:16.821552 20663 db_lmdb.cpp:35] Opened lmdb examples/cifar10/cifar10_train_lmdb
I0501 03:25:16.821575 20663 net.cpp:86] Creating Layer cifar
I0501 03:25:16.821581 20663 net.cpp:382] cifar -> data
I0501 03:25:16.821599 20663 net.cpp:382] cifar -> label
I0501 03:25:16.821609 20663 data_transformer.cpp:25] Loading mean file from: examples/cifar10/mean.binaryproto
I0501 03:25:16.823351 20663 data_layer.cpp:45] output data size: 111,3,32,32
I0501 03:25:16.829769 20663 net.cpp:124] Setting up cifar
I0501 03:25:16.829784 20663 net.cpp:131] Top shape: 111 3 32 32 (340992)
I0501 03:25:16.829789 20663 net.cpp:131] Top shape: 111 (111)
I0501 03:25:16.829792 20663 net.cpp:139] Memory required for data: 1364412
I0501 03:25:16.829812 20663 layer_factory.hpp:77] Creating layer conv0
I0501 03:25:16.829840 20663 net.cpp:86] Creating Layer conv0
I0501 03:25:16.829844 20663 net.cpp:408] conv0 <- data
I0501 03:25:16.829854 20663 net.cpp:382] conv0 -> conv0
I0501 03:25:17.058393 20663 net.cpp:124] Setting up conv0
I0501 03:25:17.058418 20663 net.cpp:131] Top shape: 111 8 32 32 (909312)
I0501 03:25:17.058423 20663 net.cpp:139] Memory required for data: 5001660
I0501 03:25:17.058437 20663 layer_factory.hpp:77] Creating layer Sigmoid0
I0501 03:25:17.058449 20663 net.cpp:86] Creating Layer Sigmoid0
I0501 03:25:17.058452 20663 net.cpp:408] Sigmoid0 <- conv0
I0501 03:25:17.058457 20663 net.cpp:382] Sigmoid0 -> Sigmoid0
I0501 03:25:17.058629 20663 net.cpp:124] Setting up Sigmoid0
I0501 03:25:17.058637 20663 net.cpp:131] Top shape: 111 8 32 32 (909312)
I0501 03:25:17.058641 20663 net.cpp:139] Memory required for data: 8638908
I0501 03:25:17.058645 20663 layer_factory.hpp:77] Creating layer pool0
I0501 03:25:17.058650 20663 net.cpp:86] Creating Layer pool0
I0501 03:25:17.058653 20663 net.cpp:408] pool0 <- Sigmoid0
I0501 03:25:17.058658 20663 net.cpp:382] pool0 -> pool0
I0501 03:25:17.059353 20663 net.cpp:124] Setting up pool0
I0501 03:25:17.059382 20663 net.cpp:131] Top shape: 111 8 16 16 (227328)
I0501 03:25:17.059386 20663 net.cpp:139] Memory required for data: 9548220
I0501 03:25:17.059389 20663 layer_factory.hpp:77] Creating layer ip1
I0501 03:25:17.059398 20663 net.cpp:86] Creating Layer ip1
I0501 03:25:17.059401 20663 net.cpp:408] ip1 <- pool0
I0501 03:25:17.059406 20663 net.cpp:382] ip1 -> ip1
I0501 03:25:17.060907 20663 net.cpp:124] Setting up ip1
I0501 03:25:17.060920 20663 net.cpp:131] Top shape: 111 10 (1110)
I0501 03:25:17.060938 20663 net.cpp:139] Memory required for data: 9552660
I0501 03:25:17.060946 20663 layer_factory.hpp:77] Creating layer relu1
I0501 03:25:17.060951 20663 net.cpp:86] Creating Layer relu1
I0501 03:25:17.060956 20663 net.cpp:408] relu1 <- ip1
I0501 03:25:17.060959 20663 net.cpp:369] relu1 -> ip1 (in-place)
I0501 03:25:17.061130 20663 net.cpp:124] Setting up relu1
I0501 03:25:17.061138 20663 net.cpp:131] Top shape: 111 10 (1110)
I0501 03:25:17.061156 20663 net.cpp:139] Memory required for data: 9557100
I0501 03:25:17.061159 20663 layer_factory.hpp:77] Creating layer ip2
I0501 03:25:17.061167 20663 net.cpp:86] Creating Layer ip2
I0501 03:25:17.061169 20663 net.cpp:408] ip2 <- ip1
I0501 03:25:17.061174 20663 net.cpp:382] ip2 -> ip2
I0501 03:25:17.061283 20663 net.cpp:124] Setting up ip2
I0501 03:25:17.061290 20663 net.cpp:131] Top shape: 111 40 (4440)
I0501 03:25:17.061300 20663 net.cpp:139] Memory required for data: 9574860
I0501 03:25:17.061305 20663 layer_factory.hpp:77] Creating layer relu2
I0501 03:25:17.061311 20663 net.cpp:86] Creating Layer relu2
I0501 03:25:17.061312 20663 net.cpp:408] relu2 <- ip2
I0501 03:25:17.061316 20663 net.cpp:369] relu2 -> ip2 (in-place)
I0501 03:25:17.061492 20663 net.cpp:124] Setting up relu2
I0501 03:25:17.061501 20663 net.cpp:131] Top shape: 111 40 (4440)
I0501 03:25:17.061504 20663 net.cpp:139] Memory required for data: 9592620
I0501 03:25:17.061523 20663 layer_factory.hpp:77] Creating layer ip3
I0501 03:25:17.061532 20663 net.cpp:86] Creating Layer ip3
I0501 03:25:17.061534 20663 net.cpp:408] ip3 <- ip2
I0501 03:25:17.061539 20663 net.cpp:382] ip3 -> ip3
I0501 03:25:17.061738 20663 net.cpp:124] Setting up ip3
I0501 03:25:17.061746 20663 net.cpp:131] Top shape: 111 80 (8880)
I0501 03:25:17.061749 20663 net.cpp:139] Memory required for data: 9628140
I0501 03:25:17.061754 20663 layer_factory.hpp:77] Creating layer relu3
I0501 03:25:17.061759 20663 net.cpp:86] Creating Layer relu3
I0501 03:25:17.061763 20663 net.cpp:408] relu3 <- ip3
I0501 03:25:17.061766 20663 net.cpp:369] relu3 -> ip3 (in-place)
I0501 03:25:17.061933 20663 net.cpp:124] Setting up relu3
I0501 03:25:17.061941 20663 net.cpp:131] Top shape: 111 80 (8880)
I0501 03:25:17.061944 20663 net.cpp:139] Memory required for data: 9663660
I0501 03:25:17.061947 20663 layer_factory.hpp:77] Creating layer ip4
I0501 03:25:17.061966 20663 net.cpp:86] Creating Layer ip4
I0501 03:25:17.061969 20663 net.cpp:408] ip4 <- ip3
I0501 03:25:17.061975 20663 net.cpp:382] ip4 -> ip4
I0501 03:25:17.062083 20663 net.cpp:124] Setting up ip4
I0501 03:25:17.062090 20663 net.cpp:131] Top shape: 111 10 (1110)
I0501 03:25:17.062093 20663 net.cpp:139] Memory required for data: 9668100
I0501 03:25:17.062099 20663 layer_factory.hpp:77] Creating layer loss
I0501 03:25:17.062105 20663 net.cpp:86] Creating Layer loss
I0501 03:25:17.062108 20663 net.cpp:408] loss <- ip4
I0501 03:25:17.062111 20663 net.cpp:408] loss <- label
I0501 03:25:17.062116 20663 net.cpp:382] loss -> loss
I0501 03:25:17.062132 20663 layer_factory.hpp:77] Creating layer loss
…
I0501 03:25:17.063280 20663 solver.cpp:173] Creating test net (#0) specified by net file: ECE595/cifar/train_test/var_everything/cifar_train_test_353.prototxt
I0501 03:25:17.063307 20663 net.cpp:296] The NetState phase (1) differed from the phase (0) specified by a rule in layer cifar
I0501 03:25:17.063410 20663 net.cpp:53] Initializing net from parameters: 
name: "CIFAR"
state {
  phase: TEST
}
layer {
  name: "cifar"
  type: "Data"
  top: "data"
  top: "label"
  include {
    phase: TEST
  }
  transform_param {
    mean_file: "examples/cifar10/mean.binaryproto"
  }
  data_param {
    source: "examples/cifar10/cifar10_test_lmdb"
    batch_size: 1000
    backend: LMDB
  }
}
layer {
  name: "conv0"
  type: "Convolution"
  bottom: "data"
  top: "conv0"
  param {
    lr_mult: 1
  }
  param {
    lr_mult: 2
  }
  convolution_param {
    num_output: 8
    pad: 2
    kernel_size: 5
    stride: 1
    weight_filler {
      type: "gaussian"
      std: 0.01
    }
    bias_filler {
      type: "constant"
    }
  }
}
layer {
  name: "Sigmoid0"
  type: "Sigmoid"
  bottom: "conv0"
  top: "Sigmoid0"
}
layer {
  name: "pool0"
  type: "Pooling"
  bottom: "Sigmoid0"
  top: "pool0"
  pooling_param {
    pool: AVE
    kernel_size: 3
    stride: 2
  }
}
layer {
  name: "ip1"
  type: "InnerProduct"
  bottom: "pool0"
  top: "ip1"
  param {
    lr_mult: 1
  }
  param {
    lr_mult: 2
  }
  inner_product_param {
    num_output: 10
    weight_filler {
      type: "gaussian"
      std: 0.01
    }
    bias_filler {
      type: "constant"
    }
  }
}
layer {
  name: "relu1"
  type: "ReLU"
  bottom: "ip1"
  top: "ip1"
}
layer {
  name: "ip2"
  type: "InnerProduct"
  bottom: "ip1"
  top: "ip2"
  param {
    lr_mult: 1
  }
  param {
    lr_mult: 2
  }
  inner_product_param {
    num_output: 40
    weight_filler {
      type: "gaussian"
      std: 0.01
    }
    bias_filler {
      type: "constant"
    }
  }
}
layer {
  name: "relu2"
  type: "ReLU"
  bottom: "ip2"
  top: "ip2"
}
layer {
  name: "ip3"
  type: "InnerProduct"
  bottom: "ip2"
  top: "ip3"
  param {
    lr_mult: 1
  }
  param {
    lr_mult: 2
  }
  inner_product_param {
    num_output: 80
    weight_filler {
      type: "gaussian"
      std: 0.01
    }
    bias_filler {
      type: "constant"
    }
  }
}
layer {
  name: "relu3"
  type: "ReLU"
  bottom: "ip3"
  top: "ip3"
}
layer {
  name: "ip4"
  type: "InnerProduct"
  bottom: "ip3"
  top: "ip4"
  param {
    lr_mult: 1
  }
  param {
    lr_mult: 2
  }
  inner_product_param {
    num_output: 10
    weight_filler {
      type: "gaussian"
      std: 0.01
    }
    bias_filler {
      type: "constant"
    }
  }
}
layer {
  name: "accuracy"
  type: "Accuracy"
  bottom: "ip4"
  bottom: "label"
  top: "accuracy"
  include {
    phase: TEST
  }
}
layer {
  name: "loss"
  type: "SoftmaxWithLoss"
  bottom: "ip4"
  bottom: "label"
  top: "loss"
}
I0501 03:25:17.063490 20663 layer_factory.hpp:77] Creating layer cifar
I0501 03:25:17.063534 20663 db_lmdb.cpp:35] Opened lmdb examples/cifar10/cifar10_test_lmdb
I0501 03:25:17.063545 20663 net.cpp:86] Creating Layer cifar
I0501 03:25:17.063550 20663 net.cpp:382] cifar -> data
I0501 03:25:17.063558 20663 net.cpp:382] cifar -> label
I0501 03:25:17.063580 20663 data_transformer.cpp:25] Loading mean file from: examples/cifar10/mean.binaryproto
I0501 03:25:17.063730 20663 data_layer.cpp:45] output data size: 1000,3,32,32
I0501 03:25:17.085228 20663 net.cpp:124] Setting up cifar
I0501 03:25:17.085269 20663 net.cpp:131] Top shape: 1000 3 32 32 (3072000)
I0501 03:25:17.085275 20663 net.cpp:131] Top shape: 1000 (1000)
I0501 03:25:17.085278 20663 net.cpp:139] Memory required for data: 12292000
I0501 03:25:17.085284 20663 layer_factory.hpp:77] Creating layer label_cifar_1_split
I0501 03:25:17.085300 20663 net.cpp:86] Creating Layer label_cifar_1_split
I0501 03:25:17.085304 20663 net.cpp:408] label_cifar_1_split <- label
I0501 03:25:17.085310 20663 net.cpp:382] label_cifar_1_split -> label_cifar_1_split_0
I0501 03:25:17.085319 20663 net.cpp:382] label_cifar_1_split -> label_cifar_1_split_1
I0501 03:25:17.085435 20663 net.cpp:124] Setting up label_cifar_1_split
I0501 03:25:17.085443 20663 net.cpp:131] Top shape: 1000 (1000)
I0501 03:25:17.085448 20663 net.cpp:131] Top shape: 1000 (1000)
I0501 03:25:17.085449 20663 net.cpp:139] Memory required for data: 12300000
I0501 03:25:17.085453 20663 layer_factory.hpp:77] Creating layer conv0
I0501 03:25:17.085480 20663 net.cpp:86] Creating Layer conv0
I0501 03:25:17.085485 20663 net.cpp:408] conv0 <- data
I0501 03:25:17.085490 20663 net.cpp:382] conv0 -> conv0
I0501 03:25:17.087074 20663 net.cpp:124] Setting up conv0
I0501 03:25:17.087103 20663 net.cpp:131] Top shape: 1000 8 32 32 (8192000)
I0501 03:25:17.087107 20663 net.cpp:139] Memory required for data: 45068000
I0501 03:25:17.087117 20663 layer_factory.hpp:77] Creating layer Sigmoid0
I0501 03:25:17.087126 20663 net.cpp:86] Creating Layer Sigmoid0
I0501 03:25:17.087128 20663 net.cpp:408] Sigmoid0 <- conv0
I0501 03:25:17.087133 20663 net.cpp:382] Sigmoid0 -> Sigmoid0
I0501 03:25:17.087314 20663 net.cpp:124] Setting up Sigmoid0
I0501 03:25:17.087324 20663 net.cpp:131] Top shape: 1000 8 32 32 (8192000)
I0501 03:25:17.087327 20663 net.cpp:139] Memory required for data: 77836000
I0501 03:25:17.087332 20663 layer_factory.hpp:77] Creating layer pool0
I0501 03:25:17.087339 20663 net.cpp:86] Creating Layer pool0
I0501 03:25:17.087342 20663 net.cpp:408] pool0 <- Sigmoid0
I0501 03:25:17.087347 20663 net.cpp:382] pool0 -> pool0
I0501 03:25:17.087560 20663 net.cpp:124] Setting up pool0
I0501 03:25:17.087569 20663 net.cpp:131] Top shape: 1000 8 16 16 (2048000)
I0501 03:25:17.087573 20663 net.cpp:139] Memory required for data: 86028000
I0501 03:25:17.087576 20663 layer_factory.hpp:77] Creating layer ip1
I0501 03:25:17.087584 20663 net.cpp:86] Creating Layer ip1
I0501 03:25:17.087591 20663 net.cpp:408] ip1 <- pool0
I0501 03:25:17.087611 20663 net.cpp:382] ip1 -> ip1
I0501 03:25:17.089293 20663 net.cpp:124] Setting up ip1
I0501 03:25:17.089303 20663 net.cpp:131] Top shape: 1000 10 (10000)
I0501 03:25:17.089320 20663 net.cpp:139] Memory required for data: 86068000
I0501 03:25:17.089344 20663 layer_factory.hpp:77] Creating layer relu1
I0501 03:25:17.089349 20663 net.cpp:86] Creating Layer relu1
I0501 03:25:17.089354 20663 net.cpp:408] relu1 <- ip1
I0501 03:25:17.089357 20663 net.cpp:369] relu1 -> ip1 (in-place)
I0501 03:25:17.089529 20663 net.cpp:124] Setting up relu1
I0501 03:25:17.089539 20663 net.cpp:131] Top shape: 1000 10 (10000)
I0501 03:25:17.089541 20663 net.cpp:139] Memory required for data: 86108000
I0501 03:25:17.089545 20663 layer_factory.hpp:77] Creating layer ip2
I0501 03:25:17.089551 20663 net.cpp:86] Creating Layer ip2
I0501 03:25:17.089555 20663 net.cpp:408] ip2 <- ip1
I0501 03:25:17.089560 20663 net.cpp:382] ip2 -> ip2
I0501 03:25:17.089674 20663 net.cpp:124] Setting up ip2
I0501 03:25:17.089682 20663 net.cpp:131] Top shape: 1000 40 (40000)
I0501 03:25:17.089685 20663 net.cpp:139] Memory required for data: 86268000
I0501 03:25:17.089692 20663 layer_factory.hpp:77] Creating layer relu2
I0501 03:25:17.089701 20663 net.cpp:86] Creating Layer relu2
I0501 03:25:17.089720 20663 net.cpp:408] relu2 <- ip2
I0501 03:25:17.089725 20663 net.cpp:369] relu2 -> ip2 (in-place)
I0501 03:25:17.090520 20663 net.cpp:124] Setting up relu2
I0501 03:25:17.090531 20663 net.cpp:131] Top shape: 1000 40 (40000)
I0501 03:25:17.090550 20663 net.cpp:139] Memory required for data: 86428000
I0501 03:25:17.090554 20663 layer_factory.hpp:77] Creating layer ip3
I0501 03:25:17.090561 20663 net.cpp:86] Creating Layer ip3
I0501 03:25:17.090566 20663 net.cpp:408] ip3 <- ip2
I0501 03:25:17.090572 20663 net.cpp:382] ip3 -> ip3
I0501 03:25:17.090777 20663 net.cpp:124] Setting up ip3
I0501 03:25:17.090785 20663 net.cpp:131] Top shape: 1000 80 (80000)
I0501 03:25:17.090788 20663 net.cpp:139] Memory required for data: 86748000
I0501 03:25:17.090795 20663 layer_factory.hpp:77] Creating layer relu3
I0501 03:25:17.090801 20663 net.cpp:86] Creating Layer relu3
I0501 03:25:17.090803 20663 net.cpp:408] relu3 <- ip3
I0501 03:25:17.090807 20663 net.cpp:369] relu3 -> ip3 (in-place)
I0501 03:25:17.090973 20663 net.cpp:124] Setting up relu3
I0501 03:25:17.090982 20663 net.cpp:131] Top shape: 1000 80 (80000)
I0501 03:25:17.090986 20663 net.cpp:139] Memory required for data: 87068000
I0501 03:25:17.090988 20663 layer_factory.hpp:77] Creating layer ip4
I0501 03:25:17.090996 20663 net.cpp:86] Creating Layer ip4
I0501 03:25:17.090998 20663 net.cpp:408] ip4 <- ip3
I0501 03:25:17.091004 20663 net.cpp:382] ip4 -> ip4
I0501 03:25:17.091128 20663 net.cpp:124] Setting up ip4
I0501 03:25:17.091135 20663 net.cpp:131] Top shape: 1000 10 (10000)
I0501 03:25:17.091138 20663 net.cpp:139] Memory required for data: 87108000
I0501 03:25:17.091146 20663 layer_factory.hpp:77] Creating layer ip4_ip4_0_split
I0501 03:25:17.091151 20663 net.cpp:86] Creating Layer ip4_ip4_0_split
I0501 03:25:17.091154 20663 net.cpp:408] ip4_ip4_0_split <- ip4
I0501 03:25:17.091158 20663 net.cpp:382] ip4_ip4_0_split -> ip4_ip4_0_split_0
I0501 03:25:17.091164 20663 net.cpp:382] ip4_ip4_0_split -> ip4_ip4_0_split_1
I0501 03:25:17.091197 20663 net.cpp:124] Setting up ip4_ip4_0_split
I0501 03:25:17.091204 20663 net.cpp:131] Top shape: 1000 10 (10000)
I0501 03:25:17.091208 20663 net.cpp:131] Top shape: 1000 10 (10000)
I0501 03:25:17.091212 20663 net.cpp:139] Memory required for data: 87188000
I0501 03:25:17.091214 20663 layer_factory.hpp:77] Creating layer accuracy
I0501 03:25:17.091222 20663 net.cpp:86] Creating Layer accuracy
I0501 03:25:17.091224 20663 net.cpp:408] accuracy <- ip4_ip4_0_split_0
I0501 03:25:17.091228 20663 net.cpp:408] accuracy <- label_cifar_1_split_0
I0501 03:25:17.091233 20663 net.cpp:382] accuracy -> accuracy
…
