…
I0430 23:59:31.129050  6105 net.cpp:296] The NetState phase (0) differed from the phase (1) specified by a rule in layer cifar
I0430 23:59:31.129070  6105 net.cpp:296] The NetState phase (0) differed from the phase (1) specified by a rule in layer accuracy
I0430 23:59:31.129169  6105 net.cpp:53] Initializing net from parameters: 
name: "CIFAR"
state {
  phase: TRAIN
  level: 0
  stage: ""
}
layer {
  name: "cifar"
  type: "Data"
  top: "data"
  top: "label"
  include {
    phase: TRAIN
  }
  transform_param {
    mean_file: "examples/cifar10/mean.binaryproto"
  }
  data_param {
    source: "examples/cifar10/cifar10_train_lmdb"
    batch_size: 111
    backend: LMDB
  }
}
layer {
  name: "conv0"
  type: "Convolution"
  bottom: "data"
  top: "conv0"
  param {
    lr_mult: 1
  }
  param {
    lr_mult: 2
  }
  convolution_param {
    num_output: 8
    pad: 2
    kernel_size: 3
    stride: 1
    weight_filler {
      type: "gaussian"
      std: 0.01
    }
    bias_filler {
      type: "constant"
    }
  }
}
layer {
  name: "Sigmoid0"
  type: "Sigmoid"
  bottom: "conv0"
  top: "Sigmoid0"
}
layer {
  name: "pool0"
  type: "Pooling"
  bottom: "Sigmoid0"
  top: "pool0"
  pooling_param {
    pool: AVE
    kernel_size: 3
    stride: 2
  }
}
layer {
  name: "ip1"
  type: "InnerProduct"
  bottom: "pool0"
  top: "ip1"
  param {
    lr_mult: 1
  }
  param {
    lr_mult: 2
  }
  inner_product_param {
    num_output: 40
    weight_filler {
      type: "gaussian"
      std: 0.01
    }
    bias_filler {
      type: "constant"
    }
  }
}
layer {
  name: "relu1"
  type: "ReLU"
  bottom: "ip1"
  top: "ip1"
}
layer {
  name: "ip2"
  type: "InnerProduct"
  bottom: "ip1"
  top: "ip2"
  param {
    lr_mult: 1
  }
  param {
    lr_mult: 2
  }
  inner_product_param {
    num_output: 20
    weight_filler {
      type: "gaussian"
      std: 0.01
    }
    bias_filler {
      type: "constant"
    }
  }
}
layer {
  name: "relu2"
  type: "ReLU"
  bottom: "ip2"
  top: "ip2"
}
layer {
  name: "ip3"
  type: "InnerProduct"
  bottom: "ip2"
  top: "ip3"
  param {
    lr_mult: 1
  }
  param {
    lr_mult: 2
  }
  inner_product_param {
    num_output: 80
    weight_filler {
      type: "gaussian"
      std: 0.01
    }
    bias_filler {
      type: "constant"
    }
  }
}
layer {
  name: "relu3"
  type: "ReLU"
  bottom: "ip3"
  top: "ip3"
}
layer {
  name: "ip4"
  type: "InnerProduct"
  bottom: "ip3"
  top: "ip4"
  param {
    lr_mult: 1
  }
  param {
    lr_mult: 2
  }
  inner_product_param {
    num_output: 10
    weight_filler {
      type: "gaussian"
      std: 0.01
    }
    bias_filler {
      type: "constant"
    }
  }
}
layer {
  name: "loss"
  type: "SoftmaxWithLoss"
  bottom: "ip4"
  bottom: "label"
  top: "loss"
}
I0430 23:59:31.129242  6105 layer_factory.hpp:77] Creating layer cifar
I0430 23:59:31.129341  6105 db_lmdb.cpp:35] Opened lmdb examples/cifar10/cifar10_train_lmdb
I0430 23:59:31.129371  6105 net.cpp:86] Creating Layer cifar
I0430 23:59:31.129382  6105 net.cpp:382] cifar -> data
I0430 23:59:31.129406  6105 net.cpp:382] cifar -> label
I0430 23:59:31.129420  6105 data_transformer.cpp:25] Loading mean file from: examples/cifar10/mean.binaryproto
I0430 23:59:31.131520  6105 data_layer.cpp:45] output data size: 111,3,32,32
I0430 23:59:31.139394  6105 net.cpp:124] Setting up cifar
I0430 23:59:31.139413  6105 net.cpp:131] Top shape: 111 3 32 32 (340992)
I0430 23:59:31.139420  6105 net.cpp:131] Top shape: 111 (111)
I0430 23:59:31.139425  6105 net.cpp:139] Memory required for data: 1364412
I0430 23:59:31.139448  6105 layer_factory.hpp:77] Creating layer conv0
I0430 23:59:31.139467  6105 net.cpp:86] Creating Layer conv0
I0430 23:59:31.139472  6105 net.cpp:408] conv0 <- data
I0430 23:59:31.139483  6105 net.cpp:382] conv0 -> conv0
I0430 23:59:31.440338  6105 net.cpp:124] Setting up conv0
I0430 23:59:31.440366  6105 net.cpp:131] Top shape: 111 8 34 34 (1026528)
I0430 23:59:31.440371  6105 net.cpp:139] Memory required for data: 5470524
I0430 23:59:31.440387  6105 layer_factory.hpp:77] Creating layer Sigmoid0
I0430 23:59:31.440400  6105 net.cpp:86] Creating Layer Sigmoid0
I0430 23:59:31.440404  6105 net.cpp:408] Sigmoid0 <- conv0
I0430 23:59:31.440409  6105 net.cpp:382] Sigmoid0 -> Sigmoid0
I0430 23:59:31.440582  6105 net.cpp:124] Setting up Sigmoid0
I0430 23:59:31.440592  6105 net.cpp:131] Top shape: 111 8 34 34 (1026528)
I0430 23:59:31.440594  6105 net.cpp:139] Memory required for data: 9576636
I0430 23:59:31.440598  6105 layer_factory.hpp:77] Creating layer pool0
I0430 23:59:31.440605  6105 net.cpp:86] Creating Layer pool0
I0430 23:59:31.440608  6105 net.cpp:408] pool0 <- Sigmoid0
I0430 23:59:31.440613  6105 net.cpp:382] pool0 -> pool0
I0430 23:59:31.441416  6105 net.cpp:124] Setting up pool0
I0430 23:59:31.441431  6105 net.cpp:131] Top shape: 111 8 17 17 (256632)
I0430 23:59:31.441434  6105 net.cpp:139] Memory required for data: 10603164
I0430 23:59:31.441437  6105 layer_factory.hpp:77] Creating layer ip1
I0430 23:59:31.441447  6105 net.cpp:86] Creating Layer ip1
I0430 23:59:31.441450  6105 net.cpp:408] ip1 <- pool0
I0430 23:59:31.441455  6105 net.cpp:382] ip1 -> ip1
I0430 23:59:31.444142  6105 net.cpp:124] Setting up ip1
I0430 23:59:31.444151  6105 net.cpp:131] Top shape: 111 40 (4440)
I0430 23:59:31.444154  6105 net.cpp:139] Memory required for data: 10620924
I0430 23:59:31.444161  6105 layer_factory.hpp:77] Creating layer relu1
I0430 23:59:31.444166  6105 net.cpp:86] Creating Layer relu1
I0430 23:59:31.444169  6105 net.cpp:408] relu1 <- ip1
I0430 23:59:31.444175  6105 net.cpp:369] relu1 -> ip1 (in-place)
I0430 23:59:31.444319  6105 net.cpp:124] Setting up relu1
I0430 23:59:31.444326  6105 net.cpp:131] Top shape: 111 40 (4440)
I0430 23:59:31.444330  6105 net.cpp:139] Memory required for data: 10638684
I0430 23:59:31.444332  6105 layer_factory.hpp:77] Creating layer ip2
I0430 23:59:31.444339  6105 net.cpp:86] Creating Layer ip2
I0430 23:59:31.444341  6105 net.cpp:408] ip2 <- ip1
I0430 23:59:31.444346  6105 net.cpp:382] ip2 -> ip2
I0430 23:59:31.445307  6105 net.cpp:124] Setting up ip2
I0430 23:59:31.445319  6105 net.cpp:131] Top shape: 111 20 (2220)
I0430 23:59:31.445322  6105 net.cpp:139] Memory required for data: 10647564
I0430 23:59:31.445330  6105 layer_factory.hpp:77] Creating layer relu2
I0430 23:59:31.445336  6105 net.cpp:86] Creating Layer relu2
I0430 23:59:31.445339  6105 net.cpp:408] relu2 <- ip2
I0430 23:59:31.445344  6105 net.cpp:369] relu2 -> ip2 (in-place)
I0430 23:59:31.445498  6105 net.cpp:124] Setting up relu2
I0430 23:59:31.445507  6105 net.cpp:131] Top shape: 111 20 (2220)
I0430 23:59:31.445510  6105 net.cpp:139] Memory required for data: 10656444
I0430 23:59:31.445513  6105 layer_factory.hpp:77] Creating layer ip3
I0430 23:59:31.445520  6105 net.cpp:86] Creating Layer ip3
I0430 23:59:31.445523  6105 net.cpp:408] ip3 <- ip2
I0430 23:59:31.445528  6105 net.cpp:382] ip3 -> ip3
I0430 23:59:31.445669  6105 net.cpp:124] Setting up ip3
I0430 23:59:31.445677  6105 net.cpp:131] Top shape: 111 80 (8880)
I0430 23:59:31.445679  6105 net.cpp:139] Memory required for data: 10691964
I0430 23:59:31.445684  6105 layer_factory.hpp:77] Creating layer relu3
I0430 23:59:31.445689  6105 net.cpp:86] Creating Layer relu3
I0430 23:59:31.445693  6105 net.cpp:408] relu3 <- ip3
I0430 23:59:31.445696  6105 net.cpp:369] relu3 -> ip3 (in-place)
I0430 23:59:31.445837  6105 net.cpp:124] Setting up relu3
I0430 23:59:31.445843  6105 net.cpp:131] Top shape: 111 80 (8880)
I0430 23:59:31.445847  6105 net.cpp:139] Memory required for data: 10727484
I0430 23:59:31.445849  6105 layer_factory.hpp:77] Creating layer ip4
I0430 23:59:31.445870  6105 net.cpp:86] Creating Layer ip4
I0430 23:59:31.445874  6105 net.cpp:408] ip4 <- ip3
I0430 23:59:31.445878  6105 net.cpp:382] ip4 -> ip4
I0430 23:59:31.445993  6105 net.cpp:124] Setting up ip4
I0430 23:59:31.446000  6105 net.cpp:131] Top shape: 111 10 (1110)
I0430 23:59:31.446003  6105 net.cpp:139] Memory required for data: 10731924
I0430 23:59:31.446010  6105 layer_factory.hpp:77] Creating layer loss
I0430 23:59:31.446015  6105 net.cpp:86] Creating Layer loss
I0430 23:59:31.446018  6105 net.cpp:408] loss <- ip4
I0430 23:59:31.446022  6105 net.cpp:408] loss <- label
I0430 23:59:31.446027  6105 net.cpp:382] loss -> loss
I0430 23:59:31.446044  6105 layer_factory.hpp:77] Creating layer loss
…
I0430 23:59:31.447232  6105 solver.cpp:173] Creating test net (#0) specified by net file: ECE595/cifar/train_test/var_everything/cifar_train_test_243.prototxt
I0430 23:59:31.447258  6105 net.cpp:296] The NetState phase (1) differed from the phase (0) specified by a rule in layer cifar
I0430 23:59:31.447350  6105 net.cpp:53] Initializing net from parameters: 
name: "CIFAR"
state {
  phase: TEST
}
layer {
  name: "cifar"
  type: "Data"
  top: "data"
  top: "label"
  include {
    phase: TEST
  }
  transform_param {
    mean_file: "examples/cifar10/mean.binaryproto"
  }
  data_param {
    source: "examples/cifar10/cifar10_test_lmdb"
    batch_size: 1000
    backend: LMDB
  }
}
layer {
  name: "conv0"
  type: "Convolution"
  bottom: "data"
  top: "conv0"
  param {
    lr_mult: 1
  }
  param {
    lr_mult: 2
  }
  convolution_param {
    num_output: 8
    pad: 2
    kernel_size: 3
    stride: 1
    weight_filler {
      type: "gaussian"
      std: 0.01
    }
    bias_filler {
      type: "constant"
    }
  }
}
layer {
  name: "Sigmoid0"
  type: "Sigmoid"
  bottom: "conv0"
  top: "Sigmoid0"
}
layer {
  name: "pool0"
  type: "Pooling"
  bottom: "Sigmoid0"
  top: "pool0"
  pooling_param {
    pool: AVE
    kernel_size: 3
    stride: 2
  }
}
layer {
  name: "ip1"
  type: "InnerProduct"
  bottom: "pool0"
  top: "ip1"
  param {
    lr_mult: 1
  }
  param {
    lr_mult: 2
  }
  inner_product_param {
    num_output: 40
    weight_filler {
      type: "gaussian"
      std: 0.01
    }
    bias_filler {
      type: "constant"
    }
  }
}
layer {
  name: "relu1"
  type: "ReLU"
  bottom: "ip1"
  top: "ip1"
}
layer {
  name: "ip2"
  type: "InnerProduct"
  bottom: "ip1"
  top: "ip2"
  param {
    lr_mult: 1
  }
  param {
    lr_mult: 2
  }
  inner_product_param {
    num_output: 20
    weight_filler {
      type: "gaussian"
      std: 0.01
    }
    bias_filler {
      type: "constant"
    }
  }
}
layer {
  name: "relu2"
  type: "ReLU"
  bottom: "ip2"
  top: "ip2"
}
layer {
  name: "ip3"
  type: "InnerProduct"
  bottom: "ip2"
  top: "ip3"
  param {
    lr_mult: 1
  }
  param {
    lr_mult: 2
  }
  inner_product_param {
    num_output: 80
    weight_filler {
      type: "gaussian"
      std: 0.01
    }
    bias_filler {
      type: "constant"
    }
  }
}
layer {
  name: "relu3"
  type: "ReLU"
  bottom: "ip3"
  top: "ip3"
}
layer {
  name: "ip4"
  type: "InnerProduct"
  bottom: "ip3"
  top: "ip4"
  param {
    lr_mult: 1
  }
  param {
    lr_mult: 2
  }
  inner_product_param {
    num_output: 10
    weight_filler {
      type: "gaussian"
      std: 0.01
    }
    bias_filler {
      type: "constant"
    }
  }
}
layer {
  name: "accuracy"
  type: "Accuracy"
  bottom: "ip4"
  bottom: "label"
  top: "accuracy"
  include {
    phase: TEST
  }
}
layer {
  name: "loss"
  type: "SoftmaxWithLoss"
  bottom: "ip4"
  bottom: "label"
  top: "loss"
}
I0430 23:59:31.447429  6105 layer_factory.hpp:77] Creating layer cifar
I0430 23:59:31.447474  6105 db_lmdb.cpp:35] Opened lmdb examples/cifar10/cifar10_test_lmdb
I0430 23:59:31.447487  6105 net.cpp:86] Creating Layer cifar
I0430 23:59:31.447492  6105 net.cpp:382] cifar -> data
I0430 23:59:31.447500  6105 net.cpp:382] cifar -> label
I0430 23:59:31.447506  6105 data_transformer.cpp:25] Loading mean file from: examples/cifar10/mean.binaryproto
I0430 23:59:31.447645  6105 data_layer.cpp:45] output data size: 1000,3,32,32
I0430 23:59:31.469627  6105 net.cpp:124] Setting up cifar
I0430 23:59:31.469669  6105 net.cpp:131] Top shape: 1000 3 32 32 (3072000)
I0430 23:59:31.469676  6105 net.cpp:131] Top shape: 1000 (1000)
I0430 23:59:31.469679  6105 net.cpp:139] Memory required for data: 12292000
I0430 23:59:31.469686  6105 layer_factory.hpp:77] Creating layer label_cifar_1_split
I0430 23:59:31.469702  6105 net.cpp:86] Creating Layer label_cifar_1_split
I0430 23:59:31.469707  6105 net.cpp:408] label_cifar_1_split <- label
I0430 23:59:31.469712  6105 net.cpp:382] label_cifar_1_split -> label_cifar_1_split_0
I0430 23:59:31.469722  6105 net.cpp:382] label_cifar_1_split -> label_cifar_1_split_1
I0430 23:59:31.469820  6105 net.cpp:124] Setting up label_cifar_1_split
I0430 23:59:31.469827  6105 net.cpp:131] Top shape: 1000 (1000)
I0430 23:59:31.469831  6105 net.cpp:131] Top shape: 1000 (1000)
I0430 23:59:31.469835  6105 net.cpp:139] Memory required for data: 12300000
I0430 23:59:31.469837  6105 layer_factory.hpp:77] Creating layer conv0
I0430 23:59:31.469866  6105 net.cpp:86] Creating Layer conv0
I0430 23:59:31.469868  6105 net.cpp:408] conv0 <- data
I0430 23:59:31.469873  6105 net.cpp:382] conv0 -> conv0
I0430 23:59:31.471449  6105 net.cpp:124] Setting up conv0
I0430 23:59:31.471463  6105 net.cpp:131] Top shape: 1000 8 34 34 (9248000)
I0430 23:59:31.471467  6105 net.cpp:139] Memory required for data: 49292000
I0430 23:59:31.471477  6105 layer_factory.hpp:77] Creating layer Sigmoid0
I0430 23:59:31.471482  6105 net.cpp:86] Creating Layer Sigmoid0
I0430 23:59:31.471487  6105 net.cpp:408] Sigmoid0 <- conv0
I0430 23:59:31.471490  6105 net.cpp:382] Sigmoid0 -> Sigmoid0
I0430 23:59:31.471654  6105 net.cpp:124] Setting up Sigmoid0
I0430 23:59:31.471663  6105 net.cpp:131] Top shape: 1000 8 34 34 (9248000)
I0430 23:59:31.471668  6105 net.cpp:139] Memory required for data: 86284000
I0430 23:59:31.471670  6105 layer_factory.hpp:77] Creating layer pool0
I0430 23:59:31.471678  6105 net.cpp:86] Creating Layer pool0
I0430 23:59:31.471681  6105 net.cpp:408] pool0 <- Sigmoid0
I0430 23:59:31.471685  6105 net.cpp:382] pool0 -> pool0
I0430 23:59:31.471868  6105 net.cpp:124] Setting up pool0
I0430 23:59:31.471876  6105 net.cpp:131] Top shape: 1000 8 17 17 (2312000)
I0430 23:59:31.471880  6105 net.cpp:139] Memory required for data: 95532000
I0430 23:59:31.471884  6105 layer_factory.hpp:77] Creating layer ip1
I0430 23:59:31.471891  6105 net.cpp:86] Creating Layer ip1
I0430 23:59:31.471894  6105 net.cpp:408] ip1 <- pool0
I0430 23:59:31.471899  6105 net.cpp:382] ip1 -> ip1
I0430 23:59:31.474481  6105 net.cpp:124] Setting up ip1
I0430 23:59:31.474491  6105 net.cpp:131] Top shape: 1000 40 (40000)
I0430 23:59:31.474494  6105 net.cpp:139] Memory required for data: 95692000
I0430 23:59:31.474516  6105 layer_factory.hpp:77] Creating layer relu1
I0430 23:59:31.474524  6105 net.cpp:86] Creating Layer relu1
I0430 23:59:31.474526  6105 net.cpp:408] relu1 <- ip1
I0430 23:59:31.474530  6105 net.cpp:369] relu1 -> ip1 (in-place)
I0430 23:59:31.474691  6105 net.cpp:124] Setting up relu1
I0430 23:59:31.474701  6105 net.cpp:131] Top shape: 1000 40 (40000)
I0430 23:59:31.474705  6105 net.cpp:139] Memory required for data: 95852000
I0430 23:59:31.474709  6105 layer_factory.hpp:77] Creating layer ip2
I0430 23:59:31.474714  6105 net.cpp:86] Creating Layer ip2
I0430 23:59:31.474719  6105 net.cpp:408] ip2 <- ip1
I0430 23:59:31.474723  6105 net.cpp:382] ip2 -> ip2
I0430 23:59:31.474846  6105 net.cpp:124] Setting up ip2
I0430 23:59:31.474854  6105 net.cpp:131] Top shape: 1000 20 (20000)
I0430 23:59:31.474856  6105 net.cpp:139] Memory required for data: 95932000
I0430 23:59:31.474864  6105 layer_factory.hpp:77] Creating layer relu2
I0430 23:59:31.474870  6105 net.cpp:86] Creating Layer relu2
I0430 23:59:31.474874  6105 net.cpp:408] relu2 <- ip2
I0430 23:59:31.474880  6105 net.cpp:369] relu2 -> ip2 (in-place)
I0430 23:59:31.475639  6105 net.cpp:124] Setting up relu2
I0430 23:59:31.475651  6105 net.cpp:131] Top shape: 1000 20 (20000)
I0430 23:59:31.475654  6105 net.cpp:139] Memory required for data: 96012000
I0430 23:59:31.475657  6105 layer_factory.hpp:77] Creating layer ip3
I0430 23:59:31.475664  6105 net.cpp:86] Creating Layer ip3
I0430 23:59:31.475667  6105 net.cpp:408] ip3 <- ip2
I0430 23:59:31.475674  6105 net.cpp:382] ip3 -> ip3
I0430 23:59:31.475824  6105 net.cpp:124] Setting up ip3
I0430 23:59:31.475832  6105 net.cpp:131] Top shape: 1000 80 (80000)
I0430 23:59:31.475836  6105 net.cpp:139] Memory required for data: 96332000
I0430 23:59:31.475841  6105 layer_factory.hpp:77] Creating layer relu3
I0430 23:59:31.475845  6105 net.cpp:86] Creating Layer relu3
I0430 23:59:31.475848  6105 net.cpp:408] relu3 <- ip3
I0430 23:59:31.475853  6105 net.cpp:369] relu3 -> ip3 (in-place)
I0430 23:59:31.475999  6105 net.cpp:124] Setting up relu3
I0430 23:59:31.476007  6105 net.cpp:131] Top shape: 1000 80 (80000)
I0430 23:59:31.476011  6105 net.cpp:139] Memory required for data: 96652000
I0430 23:59:31.476013  6105 layer_factory.hpp:77] Creating layer ip4
I0430 23:59:31.476030  6105 net.cpp:86] Creating Layer ip4
I0430 23:59:31.476033  6105 net.cpp:408] ip4 <- ip3
I0430 23:59:31.476038  6105 net.cpp:382] ip4 -> ip4
I0430 23:59:31.476176  6105 net.cpp:124] Setting up ip4
I0430 23:59:31.476182  6105 net.cpp:131] Top shape: 1000 10 (10000)
I0430 23:59:31.476186  6105 net.cpp:139] Memory required for data: 96692000
I0430 23:59:31.476193  6105 layer_factory.hpp:77] Creating layer ip4_ip4_0_split
I0430 23:59:31.476198  6105 net.cpp:86] Creating Layer ip4_ip4_0_split
I0430 23:59:31.476202  6105 net.cpp:408] ip4_ip4_0_split <- ip4
I0430 23:59:31.476207  6105 net.cpp:382] ip4_ip4_0_split -> ip4_ip4_0_split_0
I0430 23:59:31.476212  6105 net.cpp:382] ip4_ip4_0_split -> ip4_ip4_0_split_1
I0430 23:59:31.476243  6105 net.cpp:124] Setting up ip4_ip4_0_split
I0430 23:59:31.476250  6105 net.cpp:131] Top shape: 1000 10 (10000)
I0430 23:59:31.476254  6105 net.cpp:131] Top shape: 1000 10 (10000)
I0430 23:59:31.476258  6105 net.cpp:139] Memory required for data: 96772000
I0430 23:59:31.476259  6105 layer_factory.hpp:77] Creating layer accuracy
I0430 23:59:31.476265  6105 net.cpp:86] Creating Layer accuracy
I0430 23:59:31.476269  6105 net.cpp:408] accuracy <- ip4_ip4_0_split_0
I0430 23:59:31.476272  6105 net.cpp:408] accuracy <- label_cifar_1_split_0
I0430 23:59:31.476277  6105 net.cpp:382] accuracy -> accuracy
…
