…
I0430 21:05:07.745535 30042 net.cpp:296] The NetState phase (0) differed from the phase (1) specified by a rule in layer cifar
I0430 21:05:07.745550 30042 net.cpp:296] The NetState phase (0) differed from the phase (1) specified by a rule in layer accuracy
I0430 21:05:07.745632 30042 net.cpp:53] Initializing net from parameters: 
name: "CIFAR"
state {
  phase: TRAIN
  level: 0
  stage: ""
}
layer {
  name: "cifar"
  type: "Data"
  top: "data"
  top: "label"
  include {
    phase: TRAIN
  }
  transform_param {
    mean_file: "examples/cifar10/mean.binaryproto"
  }
  data_param {
    source: "examples/cifar10/cifar10_train_lmdb"
    batch_size: 111
    backend: LMDB
  }
}
layer {
  name: "ip1"
  type: "InnerProduct"
  bottom: "data"
  top: "ip1"
  param {
    lr_mult: 1
  }
  param {
    lr_mult: 2
  }
  inner_product_param {
    num_output: 160
    weight_filler {
      type: "gaussian"
      std: 0.01
    }
    bias_filler {
      type: "constant"
    }
  }
}
layer {
  name: "relu1"
  type: "ReLU"
  bottom: "ip1"
  top: "ip1"
}
layer {
  name: "ip2"
  type: "InnerProduct"
  bottom: "ip1"
  top: "ip2"
  param {
    lr_mult: 1
  }
  param {
    lr_mult: 2
  }
  inner_product_param {
    num_output: 160
    weight_filler {
      type: "gaussian"
      std: 0.01
    }
    bias_filler {
      type: "constant"
    }
  }
}
layer {
  name: "relu2"
  type: "ReLU"
  bottom: "ip2"
  top: "ip2"
}
layer {
  name: "ip3"
  type: "InnerProduct"
  bottom: "ip2"
  top: "ip3"
  param {
    lr_mult: 1
  }
  param {
    lr_mult: 2
  }
  inner_product_param {
    num_output: 10
    weight_filler {
      type: "gaussian"
      std: 0.01
    }
    bias_filler {
      type: "constant"
    }
  }
}
layer {
  name: "relu3"
  type: "ReLU"
  bottom: "ip3"
  top: "ip3"
}
layer {
  name: "ip4"
  type: "InnerProduct"
  bottom: "ip3"
  top: "ip4"
  param {
    lr_mult: 1
  }
  param {
    lr_mult: 2
  }
  inner_product_param {
    num_output: 10
    weight_filler {
      type: "gaussian"
      std: 0.01
    }
    bias_filler {
      type: "constant"
    }
  }
}
layer {
  name: "loss"
  type: "SoftmaxWithLoss"
  bottom: "ip4"
  bottom: "label"
  top: "loss"
}
I0430 21:05:07.745698 30042 layer_factory.hpp:77] Creating layer cifar
I0430 21:05:07.745797 30042 db_lmdb.cpp:35] Opened lmdb examples/cifar10/cifar10_train_lmdb
I0430 21:05:07.745824 30042 net.cpp:86] Creating Layer cifar
I0430 21:05:07.745832 30042 net.cpp:382] cifar -> data
I0430 21:05:07.745854 30042 net.cpp:382] cifar -> label
I0430 21:05:07.745867 30042 data_transformer.cpp:25] Loading mean file from: examples/cifar10/mean.binaryproto
I0430 21:05:07.748000 30042 data_layer.cpp:45] output data size: 111,3,32,32
I0430 21:05:07.755852 30042 net.cpp:124] Setting up cifar
I0430 21:05:07.755872 30042 net.cpp:131] Top shape: 111 3 32 32 (340992)
I0430 21:05:07.755878 30042 net.cpp:131] Top shape: 111 (111)
I0430 21:05:07.755882 30042 net.cpp:139] Memory required for data: 1364412
I0430 21:05:07.755889 30042 layer_factory.hpp:77] Creating layer ip1
I0430 21:05:07.755901 30042 net.cpp:86] Creating Layer ip1
I0430 21:05:07.755908 30042 net.cpp:408] ip1 <- data
I0430 21:05:07.755918 30042 net.cpp:382] ip1 -> ip1
I0430 21:05:07.773205 30042 net.cpp:124] Setting up ip1
I0430 21:05:07.773221 30042 net.cpp:131] Top shape: 111 160 (17760)
I0430 21:05:07.773226 30042 net.cpp:139] Memory required for data: 1435452
I0430 21:05:07.773241 30042 layer_factory.hpp:77] Creating layer relu1
I0430 21:05:07.773267 30042 net.cpp:86] Creating Layer relu1
I0430 21:05:07.773272 30042 net.cpp:408] relu1 <- ip1
I0430 21:05:07.773277 30042 net.cpp:369] relu1 -> ip1 (in-place)
I0430 21:05:08.039008 30042 net.cpp:124] Setting up relu1
I0430 21:05:08.039048 30042 net.cpp:131] Top shape: 111 160 (17760)
I0430 21:05:08.039052 30042 net.cpp:139] Memory required for data: 1506492
I0430 21:05:08.039057 30042 layer_factory.hpp:77] Creating layer ip2
I0430 21:05:08.039070 30042 net.cpp:86] Creating Layer ip2
I0430 21:05:08.039074 30042 net.cpp:408] ip2 <- ip1
I0430 21:05:08.039083 30042 net.cpp:382] ip2 -> ip2
I0430 21:05:08.040694 30042 net.cpp:124] Setting up ip2
I0430 21:05:08.040706 30042 net.cpp:131] Top shape: 111 160 (17760)
I0430 21:05:08.040725 30042 net.cpp:139] Memory required for data: 1577532
I0430 21:05:08.040735 30042 layer_factory.hpp:77] Creating layer relu2
I0430 21:05:08.040742 30042 net.cpp:86] Creating Layer relu2
I0430 21:05:08.040745 30042 net.cpp:408] relu2 <- ip2
I0430 21:05:08.040750 30042 net.cpp:369] relu2 -> ip2 (in-place)
I0430 21:05:08.041505 30042 net.cpp:124] Setting up relu2
I0430 21:05:08.041518 30042 net.cpp:131] Top shape: 111 160 (17760)
I0430 21:05:08.041522 30042 net.cpp:139] Memory required for data: 1648572
I0430 21:05:08.041524 30042 layer_factory.hpp:77] Creating layer ip3
I0430 21:05:08.041532 30042 net.cpp:86] Creating Layer ip3
I0430 21:05:08.041534 30042 net.cpp:408] ip3 <- ip2
I0430 21:05:08.041554 30042 net.cpp:382] ip3 -> ip3
I0430 21:05:08.041702 30042 net.cpp:124] Setting up ip3
I0430 21:05:08.041709 30042 net.cpp:131] Top shape: 111 10 (1110)
I0430 21:05:08.041712 30042 net.cpp:139] Memory required for data: 1653012
I0430 21:05:08.041720 30042 layer_factory.hpp:77] Creating layer relu3
I0430 21:05:08.041725 30042 net.cpp:86] Creating Layer relu3
I0430 21:05:08.041728 30042 net.cpp:408] relu3 <- ip3
I0430 21:05:08.041733 30042 net.cpp:369] relu3 -> ip3 (in-place)
I0430 21:05:08.041887 30042 net.cpp:124] Setting up relu3
I0430 21:05:08.041894 30042 net.cpp:131] Top shape: 111 10 (1110)
I0430 21:05:08.041898 30042 net.cpp:139] Memory required for data: 1657452
I0430 21:05:08.041905 30042 layer_factory.hpp:77] Creating layer ip4
I0430 21:05:08.041911 30042 net.cpp:86] Creating Layer ip4
I0430 21:05:08.041914 30042 net.cpp:408] ip4 <- ip3
I0430 21:05:08.041919 30042 net.cpp:382] ip4 -> ip4
I0430 21:05:08.042007 30042 net.cpp:124] Setting up ip4
I0430 21:05:08.042013 30042 net.cpp:131] Top shape: 111 10 (1110)
I0430 21:05:08.042016 30042 net.cpp:139] Memory required for data: 1661892
I0430 21:05:08.042021 30042 layer_factory.hpp:77] Creating layer loss
I0430 21:05:08.042032 30042 net.cpp:86] Creating Layer loss
I0430 21:05:08.042038 30042 net.cpp:408] loss <- ip4
I0430 21:05:08.042057 30042 net.cpp:408] loss <- label
I0430 21:05:08.042062 30042 net.cpp:382] loss -> loss
I0430 21:05:08.042075 30042 layer_factory.hpp:77] Creating layer loss
…
I0430 21:05:08.042614 30042 solver.cpp:173] Creating test net (#0) specified by net file: ECE595/cifar/train_test/var_everything/cifar_train_test_150.prototxt
I0430 21:05:08.042666 30042 net.cpp:296] The NetState phase (1) differed from the phase (0) specified by a rule in layer cifar
I0430 21:05:08.042740 30042 net.cpp:53] Initializing net from parameters: 
name: "CIFAR"
state {
  phase: TEST
}
layer {
  name: "cifar"
  type: "Data"
  top: "data"
  top: "label"
  include {
    phase: TEST
  }
  transform_param {
    mean_file: "examples/cifar10/mean.binaryproto"
  }
  data_param {
    source: "examples/cifar10/cifar10_test_lmdb"
    batch_size: 1000
    backend: LMDB
  }
}
layer {
  name: "ip1"
  type: "InnerProduct"
  bottom: "data"
  top: "ip1"
  param {
    lr_mult: 1
  }
  param {
    lr_mult: 2
  }
  inner_product_param {
    num_output: 160
    weight_filler {
      type: "gaussian"
      std: 0.01
    }
    bias_filler {
      type: "constant"
    }
  }
}
layer {
  name: "relu1"
  type: "ReLU"
  bottom: "ip1"
  top: "ip1"
}
layer {
  name: "ip2"
  type: "InnerProduct"
  bottom: "ip1"
  top: "ip2"
  param {
    lr_mult: 1
  }
  param {
    lr_mult: 2
  }
  inner_product_param {
    num_output: 160
    weight_filler {
      type: "gaussian"
      std: 0.01
    }
    bias_filler {
      type: "constant"
    }
  }
}
layer {
  name: "relu2"
  type: "ReLU"
  bottom: "ip2"
  top: "ip2"
}
layer {
  name: "ip3"
  type: "InnerProduct"
  bottom: "ip2"
  top: "ip3"
  param {
    lr_mult: 1
  }
  param {
    lr_mult: 2
  }
  inner_product_param {
    num_output: 10
    weight_filler {
      type: "gaussian"
      std: 0.01
    }
    bias_filler {
      type: "constant"
    }
  }
}
layer {
  name: "relu3"
  type: "ReLU"
  bottom: "ip3"
  top: "ip3"
}
layer {
  name: "ip4"
  type: "InnerProduct"
  bottom: "ip3"
  top: "ip4"
  param {
    lr_mult: 1
  }
  param {
    lr_mult: 2
  }
  inner_product_param {
    num_output: 10
    weight_filler {
      type: "gaussian"
      std: 0.01
    }
    bias_filler {
      type: "constant"
    }
  }
}
layer {
  name: "accuracy"
  type: "Accuracy"
  bottom: "ip4"
  bottom: "label"
  top: "accuracy"
  include {
    phase: TEST
  }
}
layer {
  name: "loss"
  type: "SoftmaxWithLoss"
  bottom: "ip4"
  bottom: "label"
  top: "loss"
}
I0430 21:05:08.042798 30042 layer_factory.hpp:77] Creating layer cifar
I0430 21:05:08.042841 30042 db_lmdb.cpp:35] Opened lmdb examples/cifar10/cifar10_test_lmdb
I0430 21:05:08.042855 30042 net.cpp:86] Creating Layer cifar
I0430 21:05:08.042862 30042 net.cpp:382] cifar -> data
I0430 21:05:08.042886 30042 net.cpp:382] cifar -> label
I0430 21:05:08.042891 30042 data_transformer.cpp:25] Loading mean file from: examples/cifar10/mean.binaryproto
I0430 21:05:08.043041 30042 data_layer.cpp:45] output data size: 1000,3,32,32
I0430 21:05:08.065443 30042 net.cpp:124] Setting up cifar
I0430 21:05:08.065484 30042 net.cpp:131] Top shape: 1000 3 32 32 (3072000)
I0430 21:05:08.065490 30042 net.cpp:131] Top shape: 1000 (1000)
I0430 21:05:08.065493 30042 net.cpp:139] Memory required for data: 12292000
I0430 21:05:08.065498 30042 layer_factory.hpp:77] Creating layer label_cifar_1_split
I0430 21:05:08.065543 30042 net.cpp:86] Creating Layer label_cifar_1_split
I0430 21:05:08.065551 30042 net.cpp:408] label_cifar_1_split <- label
I0430 21:05:08.065572 30042 net.cpp:382] label_cifar_1_split -> label_cifar_1_split_0
I0430 21:05:08.065580 30042 net.cpp:382] label_cifar_1_split -> label_cifar_1_split_1
I0430 21:05:08.065690 30042 net.cpp:124] Setting up label_cifar_1_split
I0430 21:05:08.065697 30042 net.cpp:131] Top shape: 1000 (1000)
I0430 21:05:08.065701 30042 net.cpp:131] Top shape: 1000 (1000)
I0430 21:05:08.065704 30042 net.cpp:139] Memory required for data: 12300000
I0430 21:05:08.065708 30042 layer_factory.hpp:77] Creating layer ip1
I0430 21:05:08.065716 30042 net.cpp:86] Creating Layer ip1
I0430 21:05:08.065721 30042 net.cpp:408] ip1 <- data
I0430 21:05:08.065742 30042 net.cpp:382] ip1 -> ip1
I0430 21:05:08.079212 30042 net.cpp:124] Setting up ip1
I0430 21:05:08.079241 30042 net.cpp:131] Top shape: 1000 160 (160000)
I0430 21:05:08.079246 30042 net.cpp:139] Memory required for data: 12940000
I0430 21:05:08.079269 30042 layer_factory.hpp:77] Creating layer relu1
I0430 21:05:08.079277 30042 net.cpp:86] Creating Layer relu1
I0430 21:05:08.079280 30042 net.cpp:408] relu1 <- ip1
I0430 21:05:08.079285 30042 net.cpp:369] relu1 -> ip1 (in-place)
I0430 21:05:08.080042 30042 net.cpp:124] Setting up relu1
I0430 21:05:08.080054 30042 net.cpp:131] Top shape: 1000 160 (160000)
I0430 21:05:08.080072 30042 net.cpp:139] Memory required for data: 13580000
I0430 21:05:08.080076 30042 layer_factory.hpp:77] Creating layer ip2
I0430 21:05:08.080085 30042 net.cpp:86] Creating Layer ip2
I0430 21:05:08.080088 30042 net.cpp:408] ip2 <- ip1
I0430 21:05:08.080093 30042 net.cpp:382] ip2 -> ip2
I0430 21:05:08.080888 30042 net.cpp:124] Setting up ip2
I0430 21:05:08.080898 30042 net.cpp:131] Top shape: 1000 160 (160000)
I0430 21:05:08.080915 30042 net.cpp:139] Memory required for data: 14220000
I0430 21:05:08.080938 30042 layer_factory.hpp:77] Creating layer relu2
I0430 21:05:08.080945 30042 net.cpp:86] Creating Layer relu2
I0430 21:05:08.080948 30042 net.cpp:408] relu2 <- ip2
I0430 21:05:08.080952 30042 net.cpp:369] relu2 -> ip2 (in-place)
I0430 21:05:08.081105 30042 net.cpp:124] Setting up relu2
I0430 21:05:08.081115 30042 net.cpp:131] Top shape: 1000 160 (160000)
I0430 21:05:08.081117 30042 net.cpp:139] Memory required for data: 14860000
I0430 21:05:08.081120 30042 layer_factory.hpp:77] Creating layer ip3
I0430 21:05:08.081127 30042 net.cpp:86] Creating Layer ip3
I0430 21:05:08.081130 30042 net.cpp:408] ip3 <- ip2
I0430 21:05:08.081135 30042 net.cpp:382] ip3 -> ip3
I0430 21:05:08.081318 30042 net.cpp:124] Setting up ip3
I0430 21:05:08.081326 30042 net.cpp:131] Top shape: 1000 10 (10000)
I0430 21:05:08.081344 30042 net.cpp:139] Memory required for data: 14900000
I0430 21:05:08.081351 30042 layer_factory.hpp:77] Creating layer relu3
I0430 21:05:08.081357 30042 net.cpp:86] Creating Layer relu3
I0430 21:05:08.081360 30042 net.cpp:408] relu3 <- ip3
I0430 21:05:08.081364 30042 net.cpp:369] relu3 -> ip3 (in-place)
I0430 21:05:08.081501 30042 net.cpp:124] Setting up relu3
I0430 21:05:08.081509 30042 net.cpp:131] Top shape: 1000 10 (10000)
I0430 21:05:08.081512 30042 net.cpp:139] Memory required for data: 14940000
I0430 21:05:08.081514 30042 layer_factory.hpp:77] Creating layer ip4
I0430 21:05:08.081521 30042 net.cpp:86] Creating Layer ip4
I0430 21:05:08.081526 30042 net.cpp:408] ip4 <- ip3
I0430 21:05:08.081529 30042 net.cpp:382] ip4 -> ip4
I0430 21:05:08.081624 30042 net.cpp:124] Setting up ip4
I0430 21:05:08.081630 30042 net.cpp:131] Top shape: 1000 10 (10000)
I0430 21:05:08.081634 30042 net.cpp:139] Memory required for data: 14980000
I0430 21:05:08.081639 30042 layer_factory.hpp:77] Creating layer ip4_ip4_0_split
I0430 21:05:08.081643 30042 net.cpp:86] Creating Layer ip4_ip4_0_split
I0430 21:05:08.081646 30042 net.cpp:408] ip4_ip4_0_split <- ip4
I0430 21:05:08.081650 30042 net.cpp:382] ip4_ip4_0_split -> ip4_ip4_0_split_0
I0430 21:05:08.081656 30042 net.cpp:382] ip4_ip4_0_split -> ip4_ip4_0_split_1
I0430 21:05:08.081684 30042 net.cpp:124] Setting up ip4_ip4_0_split
I0430 21:05:08.081688 30042 net.cpp:131] Top shape: 1000 10 (10000)
I0430 21:05:08.081692 30042 net.cpp:131] Top shape: 1000 10 (10000)
I0430 21:05:08.081694 30042 net.cpp:139] Memory required for data: 15060000
I0430 21:05:08.081697 30042 layer_factory.hpp:77] Creating layer accuracy
I0430 21:05:08.081703 30042 net.cpp:86] Creating Layer accuracy
I0430 21:05:08.081706 30042 net.cpp:408] accuracy <- ip4_ip4_0_split_0
I0430 21:05:08.081710 30042 net.cpp:408] accuracy <- label_cifar_1_split_0
I0430 21:05:08.081714 30042 net.cpp:382] accuracy -> accuracy
…
