…
I0430 22:44:21.759543  3225 net.cpp:296] The NetState phase (0) differed from the phase (1) specified by a rule in layer cifar
I0430 22:44:21.759562  3225 net.cpp:296] The NetState phase (0) differed from the phase (1) specified by a rule in layer accuracy
I0430 22:44:21.759663  3225 net.cpp:53] Initializing net from parameters: 
name: "CIFAR"
state {
  phase: TRAIN
  level: 0
  stage: ""
}
layer {
  name: "cifar"
  type: "Data"
  top: "data"
  top: "label"
  include {
    phase: TRAIN
  }
  transform_param {
    mean_file: "examples/cifar10/mean.binaryproto"
  }
  data_param {
    source: "examples/cifar10/cifar10_train_lmdb"
    batch_size: 111
    backend: LMDB
  }
}
layer {
  name: "conv0"
  type: "Convolution"
  bottom: "data"
  top: "conv0"
  param {
    lr_mult: 1
  }
  param {
    lr_mult: 2
  }
  convolution_param {
    num_output: 8
    pad: 2
    kernel_size: 3
    stride: 1
    weight_filler {
      type: "gaussian"
      std: 0.01
    }
    bias_filler {
      type: "constant"
    }
  }
}
layer {
  name: "Sigmoid0"
  type: "Sigmoid"
  bottom: "conv0"
  top: "Sigmoid0"
}
layer {
  name: "pool0"
  type: "Pooling"
  bottom: "Sigmoid0"
  top: "pool0"
  pooling_param {
    pool: AVE
    kernel_size: 3
    stride: 2
  }
}
layer {
  name: "ip1"
  type: "InnerProduct"
  bottom: "pool0"
  top: "ip1"
  param {
    lr_mult: 1
  }
  param {
    lr_mult: 2
  }
  inner_product_param {
    num_output: 10
    weight_filler {
      type: "gaussian"
      std: 0.01
    }
    bias_filler {
      type: "constant"
    }
  }
}
layer {
  name: "relu1"
  type: "ReLU"
  bottom: "ip1"
  top: "ip1"
}
layer {
  name: "ip2"
  type: "InnerProduct"
  bottom: "ip1"
  top: "ip2"
  param {
    lr_mult: 1
  }
  param {
    lr_mult: 2
  }
  inner_product_param {
    num_output: 80
    weight_filler {
      type: "gaussian"
      std: 0.01
    }
    bias_filler {
      type: "constant"
    }
  }
}
layer {
  name: "relu2"
  type: "ReLU"
  bottom: "ip2"
  top: "ip2"
}
layer {
  name: "ip3"
  type: "InnerProduct"
  bottom: "ip2"
  top: "ip3"
  param {
    lr_mult: 1
  }
  param {
    lr_mult: 2
  }
  inner_product_param {
    num_output: 80
    weight_filler {
      type: "gaussian"
      std: 0.01
    }
    bias_filler {
      type: "constant"
    }
  }
}
layer {
  name: "relu3"
  type: "ReLU"
  bottom: "ip3"
  top: "ip3"
}
layer {
  name: "ip4"
  type: "InnerProduct"
  bottom: "ip3"
  top: "ip4"
  param {
    lr_mult: 1
  }
  param {
    lr_mult: 2
  }
  inner_product_param {
    num_output: 10
    weight_filler {
      type: "gaussian"
      std: 0.01
    }
    bias_filler {
      type: "constant"
    }
  }
}
layer {
  name: "loss"
  type: "SoftmaxWithLoss"
  bottom: "ip4"
  bottom: "label"
  top: "loss"
}
I0430 22:44:21.759737  3225 layer_factory.hpp:77] Creating layer cifar
I0430 22:44:21.759832  3225 db_lmdb.cpp:35] Opened lmdb examples/cifar10/cifar10_train_lmdb
I0430 22:44:21.759858  3225 net.cpp:86] Creating Layer cifar
I0430 22:44:21.759866  3225 net.cpp:382] cifar -> data
I0430 22:44:21.759888  3225 net.cpp:382] cifar -> label
I0430 22:44:21.759901  3225 data_transformer.cpp:25] Loading mean file from: examples/cifar10/mean.binaryproto
I0430 22:44:21.762004  3225 data_layer.cpp:45] output data size: 111,3,32,32
I0430 22:44:21.769876  3225 net.cpp:124] Setting up cifar
I0430 22:44:21.769897  3225 net.cpp:131] Top shape: 111 3 32 32 (340992)
I0430 22:44:21.769903  3225 net.cpp:131] Top shape: 111 (111)
I0430 22:44:21.769907  3225 net.cpp:139] Memory required for data: 1364412
I0430 22:44:21.769933  3225 layer_factory.hpp:77] Creating layer conv0
I0430 22:44:21.769951  3225 net.cpp:86] Creating Layer conv0
I0430 22:44:21.769958  3225 net.cpp:408] conv0 <- data
I0430 22:44:21.769969  3225 net.cpp:382] conv0 -> conv0
I0430 22:44:22.055668  3225 net.cpp:124] Setting up conv0
I0430 22:44:22.055697  3225 net.cpp:131] Top shape: 111 8 34 34 (1026528)
I0430 22:44:22.055702  3225 net.cpp:139] Memory required for data: 5470524
I0430 22:44:22.055717  3225 layer_factory.hpp:77] Creating layer Sigmoid0
I0430 22:44:22.055729  3225 net.cpp:86] Creating Layer Sigmoid0
I0430 22:44:22.055733  3225 net.cpp:408] Sigmoid0 <- conv0
I0430 22:44:22.055739  3225 net.cpp:382] Sigmoid0 -> Sigmoid0
I0430 22:44:22.055935  3225 net.cpp:124] Setting up Sigmoid0
I0430 22:44:22.055945  3225 net.cpp:131] Top shape: 111 8 34 34 (1026528)
I0430 22:44:22.055949  3225 net.cpp:139] Memory required for data: 9576636
I0430 22:44:22.055953  3225 layer_factory.hpp:77] Creating layer pool0
I0430 22:44:22.055959  3225 net.cpp:86] Creating Layer pool0
I0430 22:44:22.055963  3225 net.cpp:408] pool0 <- Sigmoid0
I0430 22:44:22.055969  3225 net.cpp:382] pool0 -> pool0
I0430 22:44:22.056747  3225 net.cpp:124] Setting up pool0
I0430 22:44:22.056761  3225 net.cpp:131] Top shape: 111 8 17 17 (256632)
I0430 22:44:22.056764  3225 net.cpp:139] Memory required for data: 10603164
I0430 22:44:22.056767  3225 layer_factory.hpp:77] Creating layer ip1
I0430 22:44:22.056782  3225 net.cpp:86] Creating Layer ip1
I0430 22:44:22.056787  3225 net.cpp:408] ip1 <- pool0
I0430 22:44:22.056792  3225 net.cpp:382] ip1 -> ip1
I0430 22:44:22.058408  3225 net.cpp:124] Setting up ip1
I0430 22:44:22.058421  3225 net.cpp:131] Top shape: 111 10 (1110)
I0430 22:44:22.058425  3225 net.cpp:139] Memory required for data: 10607604
I0430 22:44:22.058434  3225 layer_factory.hpp:77] Creating layer relu1
I0430 22:44:22.058441  3225 net.cpp:86] Creating Layer relu1
I0430 22:44:22.058444  3225 net.cpp:408] relu1 <- ip1
I0430 22:44:22.058449  3225 net.cpp:369] relu1 -> ip1 (in-place)
I0430 22:44:22.058620  3225 net.cpp:124] Setting up relu1
I0430 22:44:22.058630  3225 net.cpp:131] Top shape: 111 10 (1110)
I0430 22:44:22.058634  3225 net.cpp:139] Memory required for data: 10612044
I0430 22:44:22.058637  3225 layer_factory.hpp:77] Creating layer ip2
I0430 22:44:22.058645  3225 net.cpp:86] Creating Layer ip2
I0430 22:44:22.058647  3225 net.cpp:408] ip2 <- ip1
I0430 22:44:22.058655  3225 net.cpp:382] ip2 -> ip2
I0430 22:44:22.059654  3225 net.cpp:124] Setting up ip2
I0430 22:44:22.059669  3225 net.cpp:131] Top shape: 111 80 (8880)
I0430 22:44:22.059672  3225 net.cpp:139] Memory required for data: 10647564
I0430 22:44:22.059680  3225 layer_factory.hpp:77] Creating layer relu2
I0430 22:44:22.059686  3225 net.cpp:86] Creating Layer relu2
I0430 22:44:22.059690  3225 net.cpp:408] relu2 <- ip2
I0430 22:44:22.059695  3225 net.cpp:369] relu2 -> ip2 (in-place)
I0430 22:44:22.059873  3225 net.cpp:124] Setting up relu2
I0430 22:44:22.059883  3225 net.cpp:131] Top shape: 111 80 (8880)
I0430 22:44:22.059886  3225 net.cpp:139] Memory required for data: 10683084
I0430 22:44:22.059890  3225 layer_factory.hpp:77] Creating layer ip3
I0430 22:44:22.059898  3225 net.cpp:86] Creating Layer ip3
I0430 22:44:22.059901  3225 net.cpp:408] ip3 <- ip2
I0430 22:44:22.059908  3225 net.cpp:382] ip3 -> ip3
I0430 22:44:22.061033  3225 net.cpp:124] Setting up ip3
I0430 22:44:22.061045  3225 net.cpp:131] Top shape: 111 80 (8880)
I0430 22:44:22.061049  3225 net.cpp:139] Memory required for data: 10718604
I0430 22:44:22.061055  3225 layer_factory.hpp:77] Creating layer relu3
I0430 22:44:22.061061  3225 net.cpp:86] Creating Layer relu3
I0430 22:44:22.061064  3225 net.cpp:408] relu3 <- ip3
I0430 22:44:22.061070  3225 net.cpp:369] relu3 -> ip3 (in-place)
I0430 22:44:22.061244  3225 net.cpp:124] Setting up relu3
I0430 22:44:22.061254  3225 net.cpp:131] Top shape: 111 80 (8880)
I0430 22:44:22.061256  3225 net.cpp:139] Memory required for data: 10754124
I0430 22:44:22.061259  3225 layer_factory.hpp:77] Creating layer ip4
I0430 22:44:22.061281  3225 net.cpp:86] Creating Layer ip4
I0430 22:44:22.061285  3225 net.cpp:408] ip4 <- ip3
I0430 22:44:22.061290  3225 net.cpp:382] ip4 -> ip4
I0430 22:44:22.061419  3225 net.cpp:124] Setting up ip4
I0430 22:44:22.061429  3225 net.cpp:131] Top shape: 111 10 (1110)
I0430 22:44:22.061431  3225 net.cpp:139] Memory required for data: 10758564
I0430 22:44:22.061439  3225 layer_factory.hpp:77] Creating layer loss
I0430 22:44:22.061446  3225 net.cpp:86] Creating Layer loss
I0430 22:44:22.061450  3225 net.cpp:408] loss <- ip4
I0430 22:44:22.061453  3225 net.cpp:408] loss <- label
I0430 22:44:22.061460  3225 net.cpp:382] loss -> loss
I0430 22:44:22.061475  3225 layer_factory.hpp:77] Creating layer loss
…
I0430 22:44:22.062729  3225 solver.cpp:173] Creating test net (#0) specified by net file: ECE595/cifar/train_test/var_everything/cifar_train_test_203.prototxt
I0430 22:44:22.062758  3225 net.cpp:296] The NetState phase (1) differed from the phase (0) specified by a rule in layer cifar
I0430 22:44:22.062860  3225 net.cpp:53] Initializing net from parameters: 
name: "CIFAR"
state {
  phase: TEST
}
layer {
  name: "cifar"
  type: "Data"
  top: "data"
  top: "label"
  include {
    phase: TEST
  }
  transform_param {
    mean_file: "examples/cifar10/mean.binaryproto"
  }
  data_param {
    source: "examples/cifar10/cifar10_test_lmdb"
    batch_size: 1000
    backend: LMDB
  }
}
layer {
  name: "conv0"
  type: "Convolution"
  bottom: "data"
  top: "conv0"
  param {
    lr_mult: 1
  }
  param {
    lr_mult: 2
  }
  convolution_param {
    num_output: 8
    pad: 2
    kernel_size: 3
    stride: 1
    weight_filler {
      type: "gaussian"
      std: 0.01
    }
    bias_filler {
      type: "constant"
    }
  }
}
layer {
  name: "Sigmoid0"
  type: "Sigmoid"
  bottom: "conv0"
  top: "Sigmoid0"
}
layer {
  name: "pool0"
  type: "Pooling"
  bottom: "Sigmoid0"
  top: "pool0"
  pooling_param {
    pool: AVE
    kernel_size: 3
    stride: 2
  }
}
layer {
  name: "ip1"
  type: "InnerProduct"
  bottom: "pool0"
  top: "ip1"
  param {
    lr_mult: 1
  }
  param {
    lr_mult: 2
  }
  inner_product_param {
    num_output: 10
    weight_filler {
      type: "gaussian"
      std: 0.01
    }
    bias_filler {
      type: "constant"
    }
  }
}
layer {
  name: "relu1"
  type: "ReLU"
  bottom: "ip1"
  top: "ip1"
}
layer {
  name: "ip2"
  type: "InnerProduct"
  bottom: "ip1"
  top: "ip2"
  param {
    lr_mult: 1
  }
  param {
    lr_mult: 2
  }
  inner_product_param {
    num_output: 80
    weight_filler {
      type: "gaussian"
      std: 0.01
    }
    bias_filler {
      type: "constant"
    }
  }
}
layer {
  name: "relu2"
  type: "ReLU"
  bottom: "ip2"
  top: "ip2"
}
layer {
  name: "ip3"
  type: "InnerProduct"
  bottom: "ip2"
  top: "ip3"
  param {
    lr_mult: 1
  }
  param {
    lr_mult: 2
  }
  inner_product_param {
    num_output: 80
    weight_filler {
      type: "gaussian"
      std: 0.01
    }
    bias_filler {
      type: "constant"
    }
  }
}
layer {
  name: "relu3"
  type: "ReLU"
  bottom: "ip3"
  top: "ip3"
}
layer {
  name: "ip4"
  type: "InnerProduct"
  bottom: "ip3"
  top: "ip4"
  param {
    lr_mult: 1
  }
  param {
    lr_mult: 2
  }
  inner_product_param {
    num_output: 10
    weight_filler {
      type: "gaussian"
      std: 0.01
    }
    bias_filler {
      type: "constant"
    }
  }
}
layer {
  name: "accuracy"
  type: "Accuracy"
  bottom: "ip4"
  bottom: "label"
  top: "accuracy"
  include {
    phase: TEST
  }
}
layer {
  name: "loss"
  type: "SoftmaxWithLoss"
  bottom: "ip4"
  bottom: "label"
  top: "loss"
}
I0430 22:44:22.062943  3225 layer_factory.hpp:77] Creating layer cifar
I0430 22:44:22.062989  3225 db_lmdb.cpp:35] Opened lmdb examples/cifar10/cifar10_test_lmdb
I0430 22:44:22.063002  3225 net.cpp:86] Creating Layer cifar
I0430 22:44:22.063006  3225 net.cpp:382] cifar -> data
I0430 22:44:22.063015  3225 net.cpp:382] cifar -> label
I0430 22:44:22.063021  3225 data_transformer.cpp:25] Loading mean file from: examples/cifar10/mean.binaryproto
I0430 22:44:22.063177  3225 data_layer.cpp:45] output data size: 1000,3,32,32
I0430 22:44:22.085408  3225 net.cpp:124] Setting up cifar
I0430 22:44:22.085434  3225 net.cpp:131] Top shape: 1000 3 32 32 (3072000)
I0430 22:44:22.085440  3225 net.cpp:131] Top shape: 1000 (1000)
I0430 22:44:22.085443  3225 net.cpp:139] Memory required for data: 12292000
I0430 22:44:22.085449  3225 layer_factory.hpp:77] Creating layer label_cifar_1_split
I0430 22:44:22.085475  3225 net.cpp:86] Creating Layer label_cifar_1_split
I0430 22:44:22.085480  3225 net.cpp:408] label_cifar_1_split <- label
I0430 22:44:22.085486  3225 net.cpp:382] label_cifar_1_split -> label_cifar_1_split_0
I0430 22:44:22.085512  3225 net.cpp:382] label_cifar_1_split -> label_cifar_1_split_1
I0430 22:44:22.085630  3225 net.cpp:124] Setting up label_cifar_1_split
I0430 22:44:22.085638  3225 net.cpp:131] Top shape: 1000 (1000)
I0430 22:44:22.085642  3225 net.cpp:131] Top shape: 1000 (1000)
I0430 22:44:22.085645  3225 net.cpp:139] Memory required for data: 12300000
I0430 22:44:22.085649  3225 layer_factory.hpp:77] Creating layer conv0
I0430 22:44:22.085661  3225 net.cpp:86] Creating Layer conv0
I0430 22:44:22.085664  3225 net.cpp:408] conv0 <- data
I0430 22:44:22.085671  3225 net.cpp:382] conv0 -> conv0
I0430 22:44:22.087206  3225 net.cpp:124] Setting up conv0
I0430 22:44:22.087219  3225 net.cpp:131] Top shape: 1000 8 34 34 (9248000)
I0430 22:44:22.087224  3225 net.cpp:139] Memory required for data: 49292000
I0430 22:44:22.087234  3225 layer_factory.hpp:77] Creating layer Sigmoid0
I0430 22:44:22.087241  3225 net.cpp:86] Creating Layer Sigmoid0
I0430 22:44:22.087244  3225 net.cpp:408] Sigmoid0 <- conv0
I0430 22:44:22.087249  3225 net.cpp:382] Sigmoid0 -> Sigmoid0
I0430 22:44:22.087431  3225 net.cpp:124] Setting up Sigmoid0
I0430 22:44:22.087441  3225 net.cpp:131] Top shape: 1000 8 34 34 (9248000)
I0430 22:44:22.087445  3225 net.cpp:139] Memory required for data: 86284000
I0430 22:44:22.087448  3225 layer_factory.hpp:77] Creating layer pool0
I0430 22:44:22.087456  3225 net.cpp:86] Creating Layer pool0
I0430 22:44:22.087460  3225 net.cpp:408] pool0 <- Sigmoid0
I0430 22:44:22.087463  3225 net.cpp:382] pool0 -> pool0
I0430 22:44:22.087744  3225 net.cpp:124] Setting up pool0
I0430 22:44:22.087754  3225 net.cpp:131] Top shape: 1000 8 17 17 (2312000)
I0430 22:44:22.087757  3225 net.cpp:139] Memory required for data: 95532000
I0430 22:44:22.087761  3225 layer_factory.hpp:77] Creating layer ip1
I0430 22:44:22.087770  3225 net.cpp:86] Creating Layer ip1
I0430 22:44:22.087774  3225 net.cpp:408] ip1 <- pool0
I0430 22:44:22.087779  3225 net.cpp:382] ip1 -> ip1
I0430 22:44:22.089524  3225 net.cpp:124] Setting up ip1
I0430 22:44:22.089534  3225 net.cpp:131] Top shape: 1000 10 (10000)
I0430 22:44:22.089537  3225 net.cpp:139] Memory required for data: 95572000
I0430 22:44:22.089558  3225 layer_factory.hpp:77] Creating layer relu1
I0430 22:44:22.089565  3225 net.cpp:86] Creating Layer relu1
I0430 22:44:22.089567  3225 net.cpp:408] relu1 <- ip1
I0430 22:44:22.089573  3225 net.cpp:369] relu1 -> ip1 (in-place)
I0430 22:44:22.089758  3225 net.cpp:124] Setting up relu1
I0430 22:44:22.089767  3225 net.cpp:131] Top shape: 1000 10 (10000)
I0430 22:44:22.089771  3225 net.cpp:139] Memory required for data: 95612000
I0430 22:44:22.089774  3225 layer_factory.hpp:77] Creating layer ip2
I0430 22:44:22.089781  3225 net.cpp:86] Creating Layer ip2
I0430 22:44:22.089784  3225 net.cpp:408] ip2 <- ip1
I0430 22:44:22.089789  3225 net.cpp:382] ip2 -> ip2
I0430 22:44:22.089932  3225 net.cpp:124] Setting up ip2
I0430 22:44:22.089942  3225 net.cpp:131] Top shape: 1000 80 (80000)
I0430 22:44:22.089946  3225 net.cpp:139] Memory required for data: 95932000
I0430 22:44:22.089953  3225 layer_factory.hpp:77] Creating layer relu2
I0430 22:44:22.089960  3225 net.cpp:86] Creating Layer relu2
I0430 22:44:22.089963  3225 net.cpp:408] relu2 <- ip2
I0430 22:44:22.089967  3225 net.cpp:369] relu2 -> ip2 (in-place)
I0430 22:44:22.090715  3225 net.cpp:124] Setting up relu2
I0430 22:44:22.090728  3225 net.cpp:131] Top shape: 1000 80 (80000)
I0430 22:44:22.090730  3225 net.cpp:139] Memory required for data: 96252000
I0430 22:44:22.090734  3225 layer_factory.hpp:77] Creating layer ip3
I0430 22:44:22.090742  3225 net.cpp:86] Creating Layer ip3
I0430 22:44:22.090746  3225 net.cpp:408] ip3 <- ip2
I0430 22:44:22.090752  3225 net.cpp:382] ip3 -> ip3
I0430 22:44:22.091058  3225 net.cpp:124] Setting up ip3
I0430 22:44:22.091068  3225 net.cpp:131] Top shape: 1000 80 (80000)
I0430 22:44:22.091086  3225 net.cpp:139] Memory required for data: 96572000
I0430 22:44:22.091092  3225 layer_factory.hpp:77] Creating layer relu3
I0430 22:44:22.091097  3225 net.cpp:86] Creating Layer relu3
I0430 22:44:22.091117  3225 net.cpp:408] relu3 <- ip3
I0430 22:44:22.091121  3225 net.cpp:369] relu3 -> ip3 (in-place)
I0430 22:44:22.091295  3225 net.cpp:124] Setting up relu3
I0430 22:44:22.091305  3225 net.cpp:131] Top shape: 1000 80 (80000)
I0430 22:44:22.091307  3225 net.cpp:139] Memory required for data: 96892000
I0430 22:44:22.091310  3225 layer_factory.hpp:77] Creating layer ip4
I0430 22:44:22.091317  3225 net.cpp:86] Creating Layer ip4
I0430 22:44:22.091320  3225 net.cpp:408] ip4 <- ip3
I0430 22:44:22.091325  3225 net.cpp:382] ip4 -> ip4
I0430 22:44:22.091446  3225 net.cpp:124] Setting up ip4
I0430 22:44:22.091454  3225 net.cpp:131] Top shape: 1000 10 (10000)
I0430 22:44:22.091456  3225 net.cpp:139] Memory required for data: 96932000
I0430 22:44:22.091465  3225 layer_factory.hpp:77] Creating layer ip4_ip4_0_split
I0430 22:44:22.091470  3225 net.cpp:86] Creating Layer ip4_ip4_0_split
I0430 22:44:22.091490  3225 net.cpp:408] ip4_ip4_0_split <- ip4
I0430 22:44:22.091495  3225 net.cpp:382] ip4_ip4_0_split -> ip4_ip4_0_split_0
I0430 22:44:22.091500  3225 net.cpp:382] ip4_ip4_0_split -> ip4_ip4_0_split_1
I0430 22:44:22.091531  3225 net.cpp:124] Setting up ip4_ip4_0_split
I0430 22:44:22.091540  3225 net.cpp:131] Top shape: 1000 10 (10000)
I0430 22:44:22.091544  3225 net.cpp:131] Top shape: 1000 10 (10000)
I0430 22:44:22.091547  3225 net.cpp:139] Memory required for data: 97012000
I0430 22:44:22.091550  3225 layer_factory.hpp:77] Creating layer accuracy
I0430 22:44:22.091557  3225 net.cpp:86] Creating Layer accuracy
I0430 22:44:22.091560  3225 net.cpp:408] accuracy <- ip4_ip4_0_split_0
I0430 22:44:22.091564  3225 net.cpp:408] accuracy <- label_cifar_1_split_0
I0430 22:44:22.091569  3225 net.cpp:382] accuracy -> accuracy
…
