…
I0430 20:53:51.278511 29652 net.cpp:296] The NetState phase (0) differed from the phase (1) specified by a rule in layer cifar
I0430 20:53:51.278527 29652 net.cpp:296] The NetState phase (0) differed from the phase (1) specified by a rule in layer accuracy
I0430 20:53:51.278611 29652 net.cpp:53] Initializing net from parameters: 
name: "CIFAR"
state {
  phase: TRAIN
  level: 0
  stage: ""
}
layer {
  name: "cifar"
  type: "Data"
  top: "data"
  top: "label"
  include {
    phase: TRAIN
  }
  transform_param {
    mean_file: "examples/cifar10/mean.binaryproto"
  }
  data_param {
    source: "examples/cifar10/cifar10_train_lmdb"
    batch_size: 111
    backend: LMDB
  }
}
layer {
  name: "ip1"
  type: "InnerProduct"
  bottom: "data"
  top: "ip1"
  param {
    lr_mult: 1
  }
  param {
    lr_mult: 2
  }
  inner_product_param {
    num_output: 160
    weight_filler {
      type: "gaussian"
      std: 0.01
    }
    bias_filler {
      type: "constant"
    }
  }
}
layer {
  name: "relu1"
  type: "ReLU"
  bottom: "ip1"
  top: "ip1"
}
layer {
  name: "ip2"
  type: "InnerProduct"
  bottom: "ip1"
  top: "ip2"
  param {
    lr_mult: 1
  }
  param {
    lr_mult: 2
  }
  inner_product_param {
    num_output: 40
    weight_filler {
      type: "gaussian"
      std: 0.01
    }
    bias_filler {
      type: "constant"
    }
  }
}
layer {
  name: "relu2"
  type: "ReLU"
  bottom: "ip2"
  top: "ip2"
}
layer {
  name: "ip3"
  type: "InnerProduct"
  bottom: "ip2"
  top: "ip3"
  param {
    lr_mult: 1
  }
  param {
    lr_mult: 2
  }
  inner_product_param {
    num_output: 160
    weight_filler {
      type: "gaussian"
      std: 0.01
    }
    bias_filler {
      type: "constant"
    }
  }
}
layer {
  name: "relu3"
  type: "ReLU"
  bottom: "ip3"
  top: "ip3"
}
layer {
  name: "ip4"
  type: "InnerProduct"
  bottom: "ip3"
  top: "ip4"
  param {
    lr_mult: 1
  }
  param {
    lr_mult: 2
  }
  inner_product_param {
    num_output: 10
    weight_filler {
      type: "gaussian"
      std: 0.01
    }
    bias_filler {
      type: "constant"
    }
  }
}
layer {
  name: "loss"
  type: "SoftmaxWithLoss"
  bottom: "ip4"
  bottom: "label"
  top: "loss"
}
I0430 20:53:51.278679 29652 layer_factory.hpp:77] Creating layer cifar
I0430 20:53:51.278776 29652 db_lmdb.cpp:35] Opened lmdb examples/cifar10/cifar10_train_lmdb
I0430 20:53:51.278803 29652 net.cpp:86] Creating Layer cifar
I0430 20:53:51.278811 29652 net.cpp:382] cifar -> data
I0430 20:53:51.278833 29652 net.cpp:382] cifar -> label
I0430 20:53:51.278844 29652 data_transformer.cpp:25] Loading mean file from: examples/cifar10/mean.binaryproto
I0430 20:53:51.280982 29652 data_layer.cpp:45] output data size: 111,3,32,32
I0430 20:53:51.288877 29652 net.cpp:124] Setting up cifar
I0430 20:53:51.288895 29652 net.cpp:131] Top shape: 111 3 32 32 (340992)
I0430 20:53:51.288902 29652 net.cpp:131] Top shape: 111 (111)
I0430 20:53:51.288905 29652 net.cpp:139] Memory required for data: 1364412
I0430 20:53:51.288913 29652 layer_factory.hpp:77] Creating layer ip1
I0430 20:53:51.288935 29652 net.cpp:86] Creating Layer ip1
I0430 20:53:51.288942 29652 net.cpp:408] ip1 <- data
I0430 20:53:51.288955 29652 net.cpp:382] ip1 -> ip1
I0430 20:53:51.306205 29652 net.cpp:124] Setting up ip1
I0430 20:53:51.306221 29652 net.cpp:131] Top shape: 111 160 (17760)
I0430 20:53:51.306226 29652 net.cpp:139] Memory required for data: 1435452
I0430 20:53:51.306241 29652 layer_factory.hpp:77] Creating layer relu1
I0430 20:53:51.306267 29652 net.cpp:86] Creating Layer relu1
I0430 20:53:51.306272 29652 net.cpp:408] relu1 <- ip1
I0430 20:53:51.306279 29652 net.cpp:369] relu1 -> ip1 (in-place)
I0430 20:53:51.595880 29652 net.cpp:124] Setting up relu1
I0430 20:53:51.595912 29652 net.cpp:131] Top shape: 111 160 (17760)
I0430 20:53:51.595917 29652 net.cpp:139] Memory required for data: 1506492
I0430 20:53:51.595923 29652 layer_factory.hpp:77] Creating layer ip2
I0430 20:53:51.595938 29652 net.cpp:86] Creating Layer ip2
I0430 20:53:51.595943 29652 net.cpp:408] ip2 <- ip1
I0430 20:53:51.595953 29652 net.cpp:382] ip2 -> ip2
I0430 20:53:51.597362 29652 net.cpp:124] Setting up ip2
I0430 20:53:51.597378 29652 net.cpp:131] Top shape: 111 40 (4440)
I0430 20:53:51.597381 29652 net.cpp:139] Memory required for data: 1524252
I0430 20:53:51.597394 29652 layer_factory.hpp:77] Creating layer relu2
I0430 20:53:51.597404 29652 net.cpp:86] Creating Layer relu2
I0430 20:53:51.597409 29652 net.cpp:408] relu2 <- ip2
I0430 20:53:51.597414 29652 net.cpp:369] relu2 -> ip2 (in-place)
I0430 20:53:51.598282 29652 net.cpp:124] Setting up relu2
I0430 20:53:51.598299 29652 net.cpp:131] Top shape: 111 40 (4440)
I0430 20:53:51.598302 29652 net.cpp:139] Memory required for data: 1542012
I0430 20:53:51.598307 29652 layer_factory.hpp:77] Creating layer ip3
I0430 20:53:51.598315 29652 net.cpp:86] Creating Layer ip3
I0430 20:53:51.598320 29652 net.cpp:408] ip3 <- ip2
I0430 20:53:51.598326 29652 net.cpp:382] ip3 -> ip3
I0430 20:53:51.598651 29652 net.cpp:124] Setting up ip3
I0430 20:53:51.598662 29652 net.cpp:131] Top shape: 111 160 (17760)
I0430 20:53:51.598666 29652 net.cpp:139] Memory required for data: 1613052
I0430 20:53:51.598675 29652 layer_factory.hpp:77] Creating layer relu3
I0430 20:53:51.598681 29652 net.cpp:86] Creating Layer relu3
I0430 20:53:51.598685 29652 net.cpp:408] relu3 <- ip3
I0430 20:53:51.598690 29652 net.cpp:369] relu3 -> ip3 (in-place)
I0430 20:53:51.598877 29652 net.cpp:124] Setting up relu3
I0430 20:53:51.598887 29652 net.cpp:131] Top shape: 111 160 (17760)
I0430 20:53:51.598891 29652 net.cpp:139] Memory required for data: 1684092
I0430 20:53:51.598896 29652 layer_factory.hpp:77] Creating layer ip4
I0430 20:53:51.598902 29652 net.cpp:86] Creating Layer ip4
I0430 20:53:51.598906 29652 net.cpp:408] ip4 <- ip3
I0430 20:53:51.598912 29652 net.cpp:382] ip4 -> ip4
I0430 20:53:51.599076 29652 net.cpp:124] Setting up ip4
I0430 20:53:51.599083 29652 net.cpp:131] Top shape: 111 10 (1110)
I0430 20:53:51.599087 29652 net.cpp:139] Memory required for data: 1688532
I0430 20:53:51.599094 29652 layer_factory.hpp:77] Creating layer loss
I0430 20:53:51.599102 29652 net.cpp:86] Creating Layer loss
I0430 20:53:51.599107 29652 net.cpp:408] loss <- ip4
I0430 20:53:51.599112 29652 net.cpp:408] loss <- label
I0430 20:53:51.599118 29652 net.cpp:382] loss -> loss
I0430 20:53:51.599140 29652 layer_factory.hpp:77] Creating layer loss
…
I0430 20:53:51.599808 29652 solver.cpp:173] Creating test net (#0) specified by net file: ECE595/cifar/train_test/var_everything/cifar_train_test_144.prototxt
I0430 20:53:51.599853 29652 net.cpp:296] The NetState phase (1) differed from the phase (0) specified by a rule in layer cifar
I0430 20:53:51.599946 29652 net.cpp:53] Initializing net from parameters: 
name: "CIFAR"
state {
  phase: TEST
}
layer {
  name: "cifar"
  type: "Data"
  top: "data"
  top: "label"
  include {
    phase: TEST
  }
  transform_param {
    mean_file: "examples/cifar10/mean.binaryproto"
  }
  data_param {
    source: "examples/cifar10/cifar10_test_lmdb"
    batch_size: 1000
    backend: LMDB
  }
}
layer {
  name: "ip1"
  type: "InnerProduct"
  bottom: "data"
  top: "ip1"
  param {
    lr_mult: 1
  }
  param {
    lr_mult: 2
  }
  inner_product_param {
    num_output: 160
    weight_filler {
      type: "gaussian"
      std: 0.01
    }
    bias_filler {
      type: "constant"
    }
  }
}
layer {
  name: "relu1"
  type: "ReLU"
  bottom: "ip1"
  top: "ip1"
}
layer {
  name: "ip2"
  type: "InnerProduct"
  bottom: "ip1"
  top: "ip2"
  param {
    lr_mult: 1
  }
  param {
    lr_mult: 2
  }
  inner_product_param {
    num_output: 40
    weight_filler {
      type: "gaussian"
      std: 0.01
    }
    bias_filler {
      type: "constant"
    }
  }
}
layer {
  name: "relu2"
  type: "ReLU"
  bottom: "ip2"
  top: "ip2"
}
layer {
  name: "ip3"
  type: "InnerProduct"
  bottom: "ip2"
  top: "ip3"
  param {
    lr_mult: 1
  }
  param {
    lr_mult: 2
  }
  inner_product_param {
    num_output: 160
    weight_filler {
      type: "gaussian"
      std: 0.01
    }
    bias_filler {
      type: "constant"
    }
  }
}
layer {
  name: "relu3"
  type: "ReLU"
  bottom: "ip3"
  top: "ip3"
}
layer {
  name: "ip4"
  type: "InnerProduct"
  bottom: "ip3"
  top: "ip4"
  param {
    lr_mult: 1
  }
  param {
    lr_mult: 2
  }
  inner_product_param {
    num_output: 10
    weight_filler {
      type: "gaussian"
      std: 0.01
    }
    bias_filler {
      type: "constant"
    }
  }
}
layer {
  name: "accuracy"
  type: "Accuracy"
  bottom: "ip4"
  bottom: "label"
  top: "accuracy"
  include {
    phase: TEST
  }
}
layer {
  name: "loss"
  type: "SoftmaxWithLoss"
  bottom: "ip4"
  bottom: "label"
  top: "loss"
}
I0430 20:53:51.600015 29652 layer_factory.hpp:77] Creating layer cifar
I0430 20:53:51.600072 29652 db_lmdb.cpp:35] Opened lmdb examples/cifar10/cifar10_test_lmdb
I0430 20:53:51.600086 29652 net.cpp:86] Creating Layer cifar
I0430 20:53:51.600092 29652 net.cpp:382] cifar -> data
I0430 20:53:51.600102 29652 net.cpp:382] cifar -> label
I0430 20:53:51.600111 29652 data_transformer.cpp:25] Loading mean file from: examples/cifar10/mean.binaryproto
I0430 20:53:51.600278 29652 data_layer.cpp:45] output data size: 1000,3,32,32
I0430 20:53:51.627077 29652 net.cpp:124] Setting up cifar
I0430 20:53:51.627107 29652 net.cpp:131] Top shape: 1000 3 32 32 (3072000)
I0430 20:53:51.627115 29652 net.cpp:131] Top shape: 1000 (1000)
I0430 20:53:51.627120 29652 net.cpp:139] Memory required for data: 12292000
I0430 20:53:51.627125 29652 layer_factory.hpp:77] Creating layer label_cifar_1_split
I0430 20:53:51.627146 29652 net.cpp:86] Creating Layer label_cifar_1_split
I0430 20:53:51.627151 29652 net.cpp:408] label_cifar_1_split <- label
I0430 20:53:51.627157 29652 net.cpp:382] label_cifar_1_split -> label_cifar_1_split_0
I0430 20:53:51.627168 29652 net.cpp:382] label_cifar_1_split -> label_cifar_1_split_1
I0430 20:53:51.627282 29652 net.cpp:124] Setting up label_cifar_1_split
I0430 20:53:51.627291 29652 net.cpp:131] Top shape: 1000 (1000)
I0430 20:53:51.627296 29652 net.cpp:131] Top shape: 1000 (1000)
I0430 20:53:51.627300 29652 net.cpp:139] Memory required for data: 12300000
I0430 20:53:51.627303 29652 layer_factory.hpp:77] Creating layer ip1
I0430 20:53:51.627315 29652 net.cpp:86] Creating Layer ip1
I0430 20:53:51.627318 29652 net.cpp:408] ip1 <- data
I0430 20:53:51.627324 29652 net.cpp:382] ip1 -> ip1
I0430 20:53:51.644594 29652 net.cpp:124] Setting up ip1
I0430 20:53:51.644611 29652 net.cpp:131] Top shape: 1000 160 (160000)
I0430 20:53:51.644616 29652 net.cpp:139] Memory required for data: 12940000
I0430 20:53:51.644647 29652 layer_factory.hpp:77] Creating layer relu1
I0430 20:53:51.644657 29652 net.cpp:86] Creating Layer relu1
I0430 20:53:51.644665 29652 net.cpp:408] relu1 <- ip1
I0430 20:53:51.644670 29652 net.cpp:369] relu1 -> ip1 (in-place)
I0430 20:53:51.645624 29652 net.cpp:124] Setting up relu1
I0430 20:53:51.645640 29652 net.cpp:131] Top shape: 1000 160 (160000)
I0430 20:53:51.645644 29652 net.cpp:139] Memory required for data: 13580000
I0430 20:53:51.645648 29652 layer_factory.hpp:77] Creating layer ip2
I0430 20:53:51.645658 29652 net.cpp:86] Creating Layer ip2
I0430 20:53:51.645663 29652 net.cpp:408] ip2 <- ip1
I0430 20:53:51.645670 29652 net.cpp:382] ip2 -> ip2
I0430 20:53:51.646010 29652 net.cpp:124] Setting up ip2
I0430 20:53:51.646019 29652 net.cpp:131] Top shape: 1000 40 (40000)
I0430 20:53:51.646023 29652 net.cpp:139] Memory required for data: 13740000
I0430 20:53:51.646033 29652 layer_factory.hpp:77] Creating layer relu2
I0430 20:53:51.646039 29652 net.cpp:86] Creating Layer relu2
I0430 20:53:51.646042 29652 net.cpp:408] relu2 <- ip2
I0430 20:53:51.646047 29652 net.cpp:369] relu2 -> ip2 (in-place)
I0430 20:53:51.646234 29652 net.cpp:124] Setting up relu2
I0430 20:53:51.646245 29652 net.cpp:131] Top shape: 1000 40 (40000)
I0430 20:53:51.646247 29652 net.cpp:139] Memory required for data: 13900000
I0430 20:53:51.646251 29652 layer_factory.hpp:77] Creating layer ip3
I0430 20:53:51.646260 29652 net.cpp:86] Creating Layer ip3
I0430 20:53:51.646263 29652 net.cpp:408] ip3 <- ip2
I0430 20:53:51.646270 29652 net.cpp:382] ip3 -> ip3
I0430 20:53:51.646595 29652 net.cpp:124] Setting up ip3
I0430 20:53:51.646603 29652 net.cpp:131] Top shape: 1000 160 (160000)
I0430 20:53:51.646607 29652 net.cpp:139] Memory required for data: 14540000
I0430 20:53:51.646615 29652 layer_factory.hpp:77] Creating layer relu3
I0430 20:53:51.646621 29652 net.cpp:86] Creating Layer relu3
I0430 20:53:51.646625 29652 net.cpp:408] relu3 <- ip3
I0430 20:53:51.646632 29652 net.cpp:369] relu3 -> ip3 (in-place)
I0430 20:53:51.646816 29652 net.cpp:124] Setting up relu3
I0430 20:53:51.646826 29652 net.cpp:131] Top shape: 1000 160 (160000)
I0430 20:53:51.646828 29652 net.cpp:139] Memory required for data: 15180000
I0430 20:53:51.646833 29652 layer_factory.hpp:77] Creating layer ip4
I0430 20:53:51.646842 29652 net.cpp:86] Creating Layer ip4
I0430 20:53:51.646847 29652 net.cpp:408] ip4 <- ip3
I0430 20:53:51.646852 29652 net.cpp:382] ip4 -> ip4
I0430 20:53:51.647025 29652 net.cpp:124] Setting up ip4
I0430 20:53:51.647033 29652 net.cpp:131] Top shape: 1000 10 (10000)
I0430 20:53:51.647037 29652 net.cpp:139] Memory required for data: 15220000
I0430 20:53:51.647044 29652 layer_factory.hpp:77] Creating layer ip4_ip4_0_split
I0430 20:53:51.647050 29652 net.cpp:86] Creating Layer ip4_ip4_0_split
I0430 20:53:51.647053 29652 net.cpp:408] ip4_ip4_0_split <- ip4
I0430 20:53:51.647059 29652 net.cpp:382] ip4_ip4_0_split -> ip4_ip4_0_split_0
I0430 20:53:51.647068 29652 net.cpp:382] ip4_ip4_0_split -> ip4_ip4_0_split_1
I0430 20:53:51.647109 29652 net.cpp:124] Setting up ip4_ip4_0_split
I0430 20:53:51.647115 29652 net.cpp:131] Top shape: 1000 10 (10000)
I0430 20:53:51.647120 29652 net.cpp:131] Top shape: 1000 10 (10000)
I0430 20:53:51.647125 29652 net.cpp:139] Memory required for data: 15300000
I0430 20:53:51.647127 29652 layer_factory.hpp:77] Creating layer accuracy
I0430 20:53:51.647135 29652 net.cpp:86] Creating Layer accuracy
I0430 20:53:51.647138 29652 net.cpp:408] accuracy <- ip4_ip4_0_split_0
I0430 20:53:51.647155 29652 net.cpp:408] accuracy <- label_cifar_1_split_0
I0430 20:53:51.647161 29652 net.cpp:382] accuracy -> accuracy
…
