…
I0408 14:56:54.957918 13467 net.cpp:294] The NetState phase (0) differed from the phase (1) specified by a rule in layer mnist
I0408 14:56:54.957945 13467 net.cpp:294] The NetState phase (0) differed from the phase (1) specified by a rule in layer accuracy
I0408 14:56:54.958024 13467 net.cpp:51] Initializing net from parameters: 
name: "LeNet"
state {
  phase: TRAIN
  level: 0
  stage: ""
}
layer {
  name: "mnist"
  type: "Data"
  top: "data"
  top: "label"
  include {
    phase: TRAIN
  }
  transform_param {
    scale: 0.00390625
  }
  data_param {
    source: "examples/mnist/mnist_train_lmdb"
    batch_size: 64
    backend: LMDB
  }
}
layer {
  name: "conv0"
  type: "Convolution"
  bottom: "data"
  top: "conv0"
  param {
    lr_mult: 1
  }
  param {
    lr_mult: 2
  }
  convolution_param {
    num_output: 100
    kernel_size: 5
    stride: 1
    weight_filler {
      type: "xavier"
    }
    bias_filler {
      type: "constant"
    }
  }
}
layer {
  name: "pool0"
  type: "Pooling"
  bottom: "conv0"
  top: "pool0"
  pooling_param {
    pool: MAX
    kernel_size: 2
    stride: 2
  }
}
layer {
  name: "conv1"
  type: "Convolution"
  bottom: "pool0"
  top: "conv1"
  param {
    lr_mult: 1
  }
  param {
    lr_mult: 2
  }
  convolution_param {
    num_output: 100
    kernel_size: 5
    stride: 1
    weight_filler {
      type: "xavier"
    }
    bias_filler {
      type: "constant"
    }
  }
}
layer {
  name: "pool1"
  type: "Pooling"
  bottom: "conv1"
  top: "pool1"
  pooling_param {
    pool: MAX
    kernel_size: 2
    stride: 2
  }
}
layer {
  name: "ip1"
  type: "InnerProduct"
  bottom: "pool1"
  top: "ip1"
  param {
    lr_mult: 1
  }
  param {
    lr_mult: 2
  }
  inner_product_param {
    num_output: 100
    weight_filler {
      type: "xavier"
    }
    bias_filler {
      type: "constant"
    }
  }
}
layer {
  name: "relu1"
  type: "ReLU"
  bottom: "ip1"
  top: "ip1"
}
layer {
  name: "ip2"
  type: "InnerProduct"
  bottom: "ip1"
  top: "ip2"
  param {
    lr_mult: 1
  }
  param {
    lr_mult: 2
  }
  inner_product_param {
    num_output: 10
    weight_filler {
      type: "xavier"
    }
    bias_filler {
      type: "constant"
    }
  }
}
layer {
  name: "relu2"
  type: "ReLU"
  bottom: "ip2"
  top: "ip2"
}
layer {
  name: "loss"
  type: "SoftmaxWithLoss"
  bottom: "ip2"
  bottom: "label"
  top: "loss"
}
I0408 14:56:54.958106 13467 layer_factory.hpp:77] Creating layer mnist
I0408 14:56:54.958247 13467 db_lmdb.cpp:35] Opened lmdb examples/mnist/mnist_train_lmdb
I0408 14:56:54.958266 13467 net.cpp:84] Creating Layer mnist
I0408 14:56:54.958276 13467 net.cpp:380] mnist -> data
I0408 14:56:54.958315 13467 net.cpp:380] mnist -> label
I0408 14:56:54.958863 13467 data_layer.cpp:45] output data size: 64,1,28,28
I0408 14:56:54.960093 13467 net.cpp:122] Setting up mnist
I0408 14:56:54.960103 13467 net.cpp:129] Top shape: 64 1 28 28 (50176)
I0408 14:56:54.960108 13467 net.cpp:129] Top shape: 64 (64)
I0408 14:56:54.960109 13467 net.cpp:137] Memory required for data: 200960
I0408 14:56:54.960132 13467 layer_factory.hpp:77] Creating layer conv0
I0408 14:56:54.960146 13467 net.cpp:84] Creating Layer conv0
I0408 14:56:54.960152 13467 net.cpp:406] conv0 <- data
I0408 14:56:54.960176 13467 net.cpp:380] conv0 -> conv0
I0408 14:56:54.961141 13467 net.cpp:122] Setting up conv0
I0408 14:56:54.961151 13467 net.cpp:129] Top shape: 64 100 24 24 (3686400)
I0408 14:56:54.961153 13467 net.cpp:137] Memory required for data: 14946560
I0408 14:56:54.961210 13467 layer_factory.hpp:77] Creating layer pool0
I0408 14:56:54.961217 13467 net.cpp:84] Creating Layer pool0
I0408 14:56:54.961221 13467 net.cpp:406] pool0 <- conv0
I0408 14:56:54.961227 13467 net.cpp:380] pool0 -> pool0
I0408 14:56:54.961309 13467 net.cpp:122] Setting up pool0
I0408 14:56:54.961314 13467 net.cpp:129] Top shape: 64 100 12 12 (921600)
I0408 14:56:54.961316 13467 net.cpp:137] Memory required for data: 18632960
I0408 14:56:54.961319 13467 layer_factory.hpp:77] Creating layer conv1
I0408 14:56:54.961325 13467 net.cpp:84] Creating Layer conv1
I0408 14:56:54.961328 13467 net.cpp:406] conv1 <- pool0
I0408 14:56:54.961333 13467 net.cpp:380] conv1 -> conv1
I0408 14:56:54.963034 13467 net.cpp:122] Setting up conv1
I0408 14:56:54.963043 13467 net.cpp:129] Top shape: 64 100 8 8 (409600)
I0408 14:56:54.963045 13467 net.cpp:137] Memory required for data: 20271360
I0408 14:56:54.963052 13467 layer_factory.hpp:77] Creating layer pool1
I0408 14:56:54.963058 13467 net.cpp:84] Creating Layer pool1
I0408 14:56:54.963063 13467 net.cpp:406] pool1 <- conv1
I0408 14:56:54.963065 13467 net.cpp:380] pool1 -> pool1
I0408 14:56:54.963091 13467 net.cpp:122] Setting up pool1
I0408 14:56:54.963096 13467 net.cpp:129] Top shape: 64 100 4 4 (102400)
I0408 14:56:54.963099 13467 net.cpp:137] Memory required for data: 20680960
I0408 14:56:54.963100 13467 layer_factory.hpp:77] Creating layer ip1
I0408 14:56:54.963105 13467 net.cpp:84] Creating Layer ip1
I0408 14:56:54.963109 13467 net.cpp:406] ip1 <- pool1
I0408 14:56:54.963115 13467 net.cpp:380] ip1 -> ip1
I0408 14:56:54.964341 13467 net.cpp:122] Setting up ip1
I0408 14:56:54.964351 13467 net.cpp:129] Top shape: 64 100 (6400)
I0408 14:56:54.964354 13467 net.cpp:137] Memory required for data: 20706560
I0408 14:56:54.964360 13467 layer_factory.hpp:77] Creating layer relu1
I0408 14:56:54.964366 13467 net.cpp:84] Creating Layer relu1
I0408 14:56:54.964368 13467 net.cpp:406] relu1 <- ip1
I0408 14:56:54.964373 13467 net.cpp:367] relu1 -> ip1 (in-place)
I0408 14:56:54.964397 13467 net.cpp:122] Setting up relu1
I0408 14:56:54.964401 13467 net.cpp:129] Top shape: 64 100 (6400)
I0408 14:56:54.964416 13467 net.cpp:137] Memory required for data: 20732160
I0408 14:56:54.964417 13467 layer_factory.hpp:77] Creating layer ip2
I0408 14:56:54.964421 13467 net.cpp:84] Creating Layer ip2
I0408 14:56:54.964443 13467 net.cpp:406] ip2 <- ip1
I0408 14:56:54.964447 13467 net.cpp:380] ip2 -> ip2
I0408 14:56:54.964581 13467 net.cpp:122] Setting up ip2
I0408 14:56:54.964586 13467 net.cpp:129] Top shape: 64 10 (640)
I0408 14:56:54.964587 13467 net.cpp:137] Memory required for data: 20734720
I0408 14:56:54.964591 13467 layer_factory.hpp:77] Creating layer relu2
I0408 14:56:54.964597 13467 net.cpp:84] Creating Layer relu2
I0408 14:56:54.964601 13467 net.cpp:406] relu2 <- ip2
I0408 14:56:54.964617 13467 net.cpp:367] relu2 -> ip2 (in-place)
I0408 14:56:54.964620 13467 net.cpp:122] Setting up relu2
I0408 14:56:54.964637 13467 net.cpp:129] Top shape: 64 10 (640)
I0408 14:56:54.964639 13467 net.cpp:137] Memory required for data: 20737280
I0408 14:56:54.964642 13467 layer_factory.hpp:77] Creating layer loss
I0408 14:56:54.964644 13467 net.cpp:84] Creating Layer loss
I0408 14:56:54.964646 13467 net.cpp:406] loss <- ip2
I0408 14:56:54.964649 13467 net.cpp:406] loss <- label
I0408 14:56:54.964655 13467 net.cpp:380] loss -> loss
I0408 14:56:54.964665 13467 layer_factory.hpp:77] Creating layer loss
…
I0408 14:56:54.965018 13467 solver.cpp:173] Creating test net (#0) specified by net file: ECE595/mnist/train_test/var_num_feature/lenet_train_test_featuresize100.prototxt
I0408 14:56:54.965035 13467 net.cpp:294] The NetState phase (1) differed from the phase (0) specified by a rule in layer mnist
I0408 14:56:54.965103 13467 net.cpp:51] Initializing net from parameters: 
name: "LeNet"
state {
  phase: TEST
}
layer {
  name: "mnist"
  type: "Data"
  top: "data"
  top: "label"
  include {
    phase: TEST
  }
  transform_param {
    scale: 0.00390625
  }
  data_param {
    source: "examples/mnist/mnist_test_lmdb"
    batch_size: 100
    backend: LMDB
  }
}
layer {
  name: "conv0"
  type: "Convolution"
  bottom: "data"
  top: "conv0"
  param {
    lr_mult: 1
  }
  param {
    lr_mult: 2
  }
  convolution_param {
    num_output: 100
    kernel_size: 5
    stride: 1
    weight_filler {
      type: "xavier"
    }
    bias_filler {
      type: "constant"
    }
  }
}
layer {
  name: "pool0"
  type: "Pooling"
  bottom: "conv0"
  top: "pool0"
  pooling_param {
    pool: MAX
    kernel_size: 2
    stride: 2
  }
}
layer {
  name: "conv1"
  type: "Convolution"
  bottom: "pool0"
  top: "conv1"
  param {
    lr_mult: 1
  }
  param {
    lr_mult: 2
  }
  convolution_param {
    num_output: 100
    kernel_size: 5
    stride: 1
    weight_filler {
      type: "xavier"
    }
    bias_filler {
      type: "constant"
    }
  }
}
layer {
  name: "pool1"
  type: "Pooling"
  bottom: "conv1"
  top: "pool1"
  pooling_param {
    pool: MAX
    kernel_size: 2
    stride: 2
  }
}
layer {
  name: "ip1"
  type: "InnerProduct"
  bottom: "pool1"
  top: "ip1"
  param {
    lr_mult: 1
  }
  param {
    lr_mult: 2
  }
  inner_product_param {
    num_output: 100
    weight_filler {
      type: "xavier"
    }
    bias_filler {
      type: "constant"
    }
  }
}
layer {
  name: "relu1"
  type: "ReLU"
  bottom: "ip1"
  top: "ip1"
}
layer {
  name: "ip2"
  type: "InnerProduct"
  bottom: "ip1"
  top: "ip2"
  param {
    lr_mult: 1
  }
  param {
    lr_mult: 2
  }
  inner_product_param {
    num_output: 10
    weight_filler {
      type: "xavier"
    }
    bias_filler {
      type: "constant"
    }
  }
}
layer {
  name: "relu2"
  type: "ReLU"
  bottom: "ip2"
  top: "ip2"
}
layer {
  name: "accuracy"
  type: "Accuracy"
  bottom: "ip2"
  bottom: "label"
  top: "accuracy"
  include {
    phase: TEST
  }
}
layer {
  name: "loss"
  type: "SoftmaxWithLoss"
  bottom: "ip2"
  bottom: "label"
  top: "loss"
}
I0408 14:56:54.965155 13467 layer_factory.hpp:77] Creating layer mnist
I0408 14:56:54.965209 13467 db_lmdb.cpp:35] Opened lmdb examples/mnist/mnist_test_lmdb
I0408 14:56:54.965219 13467 net.cpp:84] Creating Layer mnist
I0408 14:56:54.965224 13467 net.cpp:380] mnist -> data
I0408 14:56:54.965229 13467 net.cpp:380] mnist -> label
I0408 14:56:54.965308 13467 data_layer.cpp:45] output data size: 100,1,28,28
I0408 14:56:54.966534 13467 net.cpp:122] Setting up mnist
I0408 14:56:54.966542 13467 net.cpp:129] Top shape: 100 1 28 28 (78400)
I0408 14:56:54.966545 13467 net.cpp:129] Top shape: 100 (100)
I0408 14:56:54.966548 13467 net.cpp:137] Memory required for data: 314000
I0408 14:56:54.966552 13467 layer_factory.hpp:77] Creating layer label_mnist_1_split
I0408 14:56:54.966555 13467 net.cpp:84] Creating Layer label_mnist_1_split
I0408 14:56:54.966559 13467 net.cpp:406] label_mnist_1_split <- label
I0408 14:56:54.966564 13467 net.cpp:380] label_mnist_1_split -> label_mnist_1_split_0
I0408 14:56:54.966584 13467 net.cpp:380] label_mnist_1_split -> label_mnist_1_split_1
I0408 14:56:54.966671 13467 net.cpp:122] Setting up label_mnist_1_split
I0408 14:56:54.966676 13467 net.cpp:129] Top shape: 100 (100)
I0408 14:56:54.966680 13467 net.cpp:129] Top shape: 100 (100)
I0408 14:56:54.966681 13467 net.cpp:137] Memory required for data: 314800
I0408 14:56:54.966683 13467 layer_factory.hpp:77] Creating layer conv0
I0408 14:56:54.966691 13467 net.cpp:84] Creating Layer conv0
I0408 14:56:54.966696 13467 net.cpp:406] conv0 <- data
I0408 14:56:54.966701 13467 net.cpp:380] conv0 -> conv0
I0408 14:56:54.966894 13467 net.cpp:122] Setting up conv0
I0408 14:56:54.966900 13467 net.cpp:129] Top shape: 100 100 24 24 (5760000)
I0408 14:56:54.966903 13467 net.cpp:137] Memory required for data: 23354800
I0408 14:56:54.966909 13467 layer_factory.hpp:77] Creating layer pool0
I0408 14:56:54.966928 13467 net.cpp:84] Creating Layer pool0
I0408 14:56:54.966930 13467 net.cpp:406] pool0 <- conv0
I0408 14:56:54.966934 13467 net.cpp:380] pool0 -> pool0
I0408 14:56:54.966961 13467 net.cpp:122] Setting up pool0
I0408 14:56:54.966965 13467 net.cpp:129] Top shape: 100 100 12 12 (1440000)
I0408 14:56:54.966967 13467 net.cpp:137] Memory required for data: 29114800
I0408 14:56:54.966969 13467 layer_factory.hpp:77] Creating layer conv1
I0408 14:56:54.966976 13467 net.cpp:84] Creating Layer conv1
I0408 14:56:54.966980 13467 net.cpp:406] conv1 <- pool0
I0408 14:56:54.966984 13467 net.cpp:380] conv1 -> conv1
I0408 14:56:54.968694 13467 net.cpp:122] Setting up conv1
I0408 14:56:54.968703 13467 net.cpp:129] Top shape: 100 100 8 8 (640000)
I0408 14:56:54.968706 13467 net.cpp:137] Memory required for data: 31674800
I0408 14:56:54.968715 13467 layer_factory.hpp:77] Creating layer pool1
I0408 14:56:54.968720 13467 net.cpp:84] Creating Layer pool1
I0408 14:56:54.968724 13467 net.cpp:406] pool1 <- conv1
I0408 14:56:54.968729 13467 net.cpp:380] pool1 -> pool1
I0408 14:56:54.968771 13467 net.cpp:122] Setting up pool1
I0408 14:56:54.968796 13467 net.cpp:129] Top shape: 100 100 4 4 (160000)
I0408 14:56:54.968796 13467 net.cpp:137] Memory required for data: 32314800
I0408 14:56:54.968799 13467 layer_factory.hpp:77] Creating layer ip1
I0408 14:56:54.968804 13467 net.cpp:84] Creating Layer ip1
I0408 14:56:54.968807 13467 net.cpp:406] ip1 <- pool1
I0408 14:56:54.968812 13467 net.cpp:380] ip1 -> ip1
I0408 14:56:54.970021 13467 net.cpp:122] Setting up ip1
I0408 14:56:54.970027 13467 net.cpp:129] Top shape: 100 100 (10000)
I0408 14:56:54.970029 13467 net.cpp:137] Memory required for data: 32354800
I0408 14:56:54.970036 13467 layer_factory.hpp:77] Creating layer relu1
I0408 14:56:54.970041 13467 net.cpp:84] Creating Layer relu1
I0408 14:56:54.970062 13467 net.cpp:406] relu1 <- ip1
I0408 14:56:54.970065 13467 net.cpp:367] relu1 -> ip1 (in-place)
I0408 14:56:54.970087 13467 net.cpp:122] Setting up relu1
I0408 14:56:54.970090 13467 net.cpp:129] Top shape: 100 100 (10000)
I0408 14:56:54.970093 13467 net.cpp:137] Memory required for data: 32394800
I0408 14:56:54.970094 13467 layer_factory.hpp:77] Creating layer ip2
I0408 14:56:54.970113 13467 net.cpp:84] Creating Layer ip2
I0408 14:56:54.970114 13467 net.cpp:406] ip2 <- ip1
I0408 14:56:54.970119 13467 net.cpp:380] ip2 -> ip2
I0408 14:56:54.970211 13467 net.cpp:122] Setting up ip2
I0408 14:56:54.970214 13467 net.cpp:129] Top shape: 100 10 (1000)
I0408 14:56:54.970216 13467 net.cpp:137] Memory required for data: 32398800
I0408 14:56:54.970221 13467 layer_factory.hpp:77] Creating layer relu2
I0408 14:56:54.970224 13467 net.cpp:84] Creating Layer relu2
I0408 14:56:54.970227 13467 net.cpp:406] relu2 <- ip2
I0408 14:56:54.970230 13467 net.cpp:367] relu2 -> ip2 (in-place)
I0408 14:56:54.970247 13467 net.cpp:122] Setting up relu2
I0408 14:56:54.970252 13467 net.cpp:129] Top shape: 100 10 (1000)
I0408 14:56:54.970252 13467 net.cpp:137] Memory required for data: 32402800
I0408 14:56:54.970254 13467 layer_factory.hpp:77] Creating layer ip2_relu2_0_split
I0408 14:56:54.970258 13467 net.cpp:84] Creating Layer ip2_relu2_0_split
I0408 14:56:54.970260 13467 net.cpp:406] ip2_relu2_0_split <- ip2
I0408 14:56:54.970275 13467 net.cpp:380] ip2_relu2_0_split -> ip2_relu2_0_split_0
I0408 14:56:54.970280 13467 net.cpp:380] ip2_relu2_0_split -> ip2_relu2_0_split_1
I0408 14:56:54.970305 13467 net.cpp:122] Setting up ip2_relu2_0_split
I0408 14:56:54.970309 13467 net.cpp:129] Top shape: 100 10 (1000)
I0408 14:56:54.970311 13467 net.cpp:129] Top shape: 100 10 (1000)
I0408 14:56:54.970314 13467 net.cpp:137] Memory required for data: 32410800
I0408 14:56:54.970315 13467 layer_factory.hpp:77] Creating layer accuracy
I0408 14:56:54.970333 13467 net.cpp:84] Creating Layer accuracy
I0408 14:56:54.970335 13467 net.cpp:406] accuracy <- ip2_relu2_0_split_0
I0408 14:56:54.970338 13467 net.cpp:406] accuracy <- label_mnist_1_split_0
I0408 14:56:54.970357 13467 net.cpp:380] accuracy -> accuracy
…
