…
I0408 14:28:25.686826 13337 net.cpp:294] The NetState phase (0) differed from the phase (1) specified by a rule in layer mnist
I0408 14:28:25.686836 13337 net.cpp:294] The NetState phase (0) differed from the phase (1) specified by a rule in layer accuracy
I0408 14:28:25.686930 13337 net.cpp:51] Initializing net from parameters: 
name: "LeNet"
state {
  phase: TRAIN
  level: 0
  stage: ""
}
layer {
  name: "mnist"
  type: "Data"
  top: "data"
  top: "label"
  include {
    phase: TRAIN
  }
  transform_param {
    scale: 0.00390625
  }
  data_param {
    source: "examples/mnist/mnist_train_lmdb"
    batch_size: 64
    backend: LMDB
  }
}
layer {
  name: "conv0"
  type: "Convolution"
  bottom: "data"
  top: "conv0"
  param {
    lr_mult: 1
  }
  param {
    lr_mult: 2
  }
  convolution_param {
    num_output: 25
    kernel_size: 5
    stride: 1
    weight_filler {
      type: "xavier"
    }
    bias_filler {
      type: "constant"
    }
  }
}
layer {
  name: "pool0"
  type: "Pooling"
  bottom: "conv0"
  top: "pool0"
  pooling_param {
    pool: MAX
    kernel_size: 2
    stride: 2
  }
}
layer {
  name: "conv1"
  type: "Convolution"
  bottom: "pool0"
  top: "conv1"
  param {
    lr_mult: 1
  }
  param {
    lr_mult: 2
  }
  convolution_param {
    num_output: 25
    kernel_size: 5
    stride: 1
    weight_filler {
      type: "xavier"
    }
    bias_filler {
      type: "constant"
    }
  }
}
layer {
  name: "pool1"
  type: "Pooling"
  bottom: "conv1"
  top: "pool1"
  pooling_param {
    pool: MAX
    kernel_size: 2
    stride: 2
  }
}
layer {
  name: "ip1"
  type: "InnerProduct"
  bottom: "pool1"
  top: "ip1"
  param {
    lr_mult: 1
  }
  param {
    lr_mult: 2
  }
  inner_product_param {
    num_output: 100
    weight_filler {
      type: "xavier"
    }
    bias_filler {
      type: "constant"
    }
  }
}
layer {
  name: "relu1"
  type: "ReLU"
  bottom: "ip1"
  top: "ip1"
}
layer {
  name: "ip2"
  type: "InnerProduct"
  bottom: "ip1"
  top: "ip2"
  param {
    lr_mult: 1
  }
  param {
    lr_mult: 2
  }
  inner_product_param {
    num_output: 10
    weight_filler {
      type: "xavier"
    }
    bias_filler {
      type: "constant"
    }
  }
}
layer {
  name: "relu2"
  type: "ReLU"
  bottom: "ip2"
  top: "ip2"
}
layer {
  name: "loss"
  type: "SoftmaxWithLoss"
  bottom: "ip2"
  bottom: "label"
  top: "loss"
}
I0408 14:28:25.687026 13337 layer_factory.hpp:77] Creating layer mnist
I0408 14:28:25.687120 13337 db_lmdb.cpp:35] Opened lmdb examples/mnist/mnist_train_lmdb
I0408 14:28:25.687160 13337 net.cpp:84] Creating Layer mnist
I0408 14:28:25.687183 13337 net.cpp:380] mnist -> data
I0408 14:28:25.687201 13337 net.cpp:380] mnist -> label
I0408 14:28:25.687769 13337 data_layer.cpp:45] output data size: 64,1,28,28
I0408 14:28:25.689251 13337 net.cpp:122] Setting up mnist
I0408 14:28:25.689265 13337 net.cpp:129] Top shape: 64 1 28 28 (50176)
I0408 14:28:25.689268 13337 net.cpp:129] Top shape: 64 (64)
I0408 14:28:25.689270 13337 net.cpp:137] Memory required for data: 200960
I0408 14:28:25.689277 13337 layer_factory.hpp:77] Creating layer conv0
I0408 14:28:25.689316 13337 net.cpp:84] Creating Layer conv0
I0408 14:28:25.689337 13337 net.cpp:406] conv0 <- data
I0408 14:28:25.689345 13337 net.cpp:380] conv0 -> conv0
I0408 14:28:25.690111 13337 net.cpp:122] Setting up conv0
I0408 14:28:25.690140 13337 net.cpp:129] Top shape: 64 25 24 24 (921600)
I0408 14:28:25.690142 13337 net.cpp:137] Memory required for data: 3887360
I0408 14:28:25.690170 13337 layer_factory.hpp:77] Creating layer pool0
I0408 14:28:25.690178 13337 net.cpp:84] Creating Layer pool0
I0408 14:28:25.690194 13337 net.cpp:406] pool0 <- conv0
I0408 14:28:25.690198 13337 net.cpp:380] pool0 -> pool0
I0408 14:28:25.690282 13337 net.cpp:122] Setting up pool0
I0408 14:28:25.690301 13337 net.cpp:129] Top shape: 64 25 12 12 (230400)
I0408 14:28:25.690304 13337 net.cpp:137] Memory required for data: 4808960
I0408 14:28:25.690305 13337 layer_factory.hpp:77] Creating layer conv1
I0408 14:28:25.690330 13337 net.cpp:84] Creating Layer conv1
I0408 14:28:25.690333 13337 net.cpp:406] conv1 <- pool0
I0408 14:28:25.690338 13337 net.cpp:380] conv1 -> conv1
I0408 14:28:25.690939 13337 net.cpp:122] Setting up conv1
I0408 14:28:25.690959 13337 net.cpp:129] Top shape: 64 25 8 8 (102400)
I0408 14:28:25.690963 13337 net.cpp:137] Memory required for data: 5218560
I0408 14:28:25.690968 13337 layer_factory.hpp:77] Creating layer pool1
I0408 14:28:25.690994 13337 net.cpp:84] Creating Layer pool1
I0408 14:28:25.690996 13337 net.cpp:406] pool1 <- conv1
I0408 14:28:25.691015 13337 net.cpp:380] pool1 -> pool1
I0408 14:28:25.691041 13337 net.cpp:122] Setting up pool1
I0408 14:28:25.691047 13337 net.cpp:129] Top shape: 64 25 4 4 (25600)
I0408 14:28:25.691051 13337 net.cpp:137] Memory required for data: 5320960
I0408 14:28:25.691052 13337 layer_factory.hpp:77] Creating layer ip1
I0408 14:28:25.691056 13337 net.cpp:84] Creating Layer ip1
I0408 14:28:25.691059 13337 net.cpp:406] ip1 <- pool1
I0408 14:28:25.691063 13337 net.cpp:380] ip1 -> ip1
I0408 14:28:25.691360 13337 net.cpp:122] Setting up ip1
I0408 14:28:25.691365 13337 net.cpp:129] Top shape: 64 100 (6400)
I0408 14:28:25.691366 13337 net.cpp:137] Memory required for data: 5346560
I0408 14:28:25.691372 13337 layer_factory.hpp:77] Creating layer relu1
I0408 14:28:25.691378 13337 net.cpp:84] Creating Layer relu1
I0408 14:28:25.691400 13337 net.cpp:406] relu1 <- ip1
I0408 14:28:25.691402 13337 net.cpp:367] relu1 -> ip1 (in-place)
I0408 14:28:25.691407 13337 net.cpp:122] Setting up relu1
I0408 14:28:25.691424 13337 net.cpp:129] Top shape: 64 100 (6400)
I0408 14:28:25.691427 13337 net.cpp:137] Memory required for data: 5372160
I0408 14:28:25.691429 13337 layer_factory.hpp:77] Creating layer ip2
I0408 14:28:25.691433 13337 net.cpp:84] Creating Layer ip2
I0408 14:28:25.691437 13337 net.cpp:406] ip2 <- ip1
I0408 14:28:25.691439 13337 net.cpp:380] ip2 -> ip2
I0408 14:28:25.691546 13337 net.cpp:122] Setting up ip2
I0408 14:28:25.691550 13337 net.cpp:129] Top shape: 64 10 (640)
I0408 14:28:25.691553 13337 net.cpp:137] Memory required for data: 5374720
I0408 14:28:25.691556 13337 layer_factory.hpp:77] Creating layer relu2
I0408 14:28:25.691562 13337 net.cpp:84] Creating Layer relu2
I0408 14:28:25.691565 13337 net.cpp:406] relu2 <- ip2
I0408 14:28:25.691568 13337 net.cpp:367] relu2 -> ip2 (in-place)
I0408 14:28:25.691591 13337 net.cpp:122] Setting up relu2
I0408 14:28:25.691594 13337 net.cpp:129] Top shape: 64 10 (640)
I0408 14:28:25.691596 13337 net.cpp:137] Memory required for data: 5377280
I0408 14:28:25.691612 13337 layer_factory.hpp:77] Creating layer loss
I0408 14:28:25.691615 13337 net.cpp:84] Creating Layer loss
I0408 14:28:25.691617 13337 net.cpp:406] loss <- ip2
I0408 14:28:25.691633 13337 net.cpp:406] loss <- label
I0408 14:28:25.691638 13337 net.cpp:380] loss -> loss
I0408 14:28:25.691648 13337 layer_factory.hpp:77] Creating layer loss
…
I0408 14:28:25.692013 13337 solver.cpp:173] Creating test net (#0) specified by net file: ECE595/mnist/train_test/var_num_feature/lenet_train_test_featuresize25.prototxt
I0408 14:28:25.692044 13337 net.cpp:294] The NetState phase (1) differed from the phase (0) specified by a rule in layer mnist
I0408 14:28:25.692128 13337 net.cpp:51] Initializing net from parameters: 
name: "LeNet"
state {
  phase: TEST
}
layer {
  name: "mnist"
  type: "Data"
  top: "data"
  top: "label"
  include {
    phase: TEST
  }
  transform_param {
    scale: 0.00390625
  }
  data_param {
    source: "examples/mnist/mnist_test_lmdb"
    batch_size: 100
    backend: LMDB
  }
}
layer {
  name: "conv0"
  type: "Convolution"
  bottom: "data"
  top: "conv0"
  param {
    lr_mult: 1
  }
  param {
    lr_mult: 2
  }
  convolution_param {
    num_output: 25
    kernel_size: 5
    stride: 1
    weight_filler {
      type: "xavier"
    }
    bias_filler {
      type: "constant"
    }
  }
}
layer {
  name: "pool0"
  type: "Pooling"
  bottom: "conv0"
  top: "pool0"
  pooling_param {
    pool: MAX
    kernel_size: 2
    stride: 2
  }
}
layer {
  name: "conv1"
  type: "Convolution"
  bottom: "pool0"
  top: "conv1"
  param {
    lr_mult: 1
  }
  param {
    lr_mult: 2
  }
  convolution_param {
    num_output: 25
    kernel_size: 5
    stride: 1
    weight_filler {
      type: "xavier"
    }
    bias_filler {
      type: "constant"
    }
  }
}
layer {
  name: "pool1"
  type: "Pooling"
  bottom: "conv1"
  top: "pool1"
  pooling_param {
    pool: MAX
    kernel_size: 2
    stride: 2
  }
}
layer {
  name: "ip1"
  type: "InnerProduct"
  bottom: "pool1"
  top: "ip1"
  param {
    lr_mult: 1
  }
  param {
    lr_mult: 2
  }
  inner_product_param {
    num_output: 100
    weight_filler {
      type: "xavier"
    }
    bias_filler {
      type: "constant"
    }
  }
}
layer {
  name: "relu1"
  type: "ReLU"
  bottom: "ip1"
  top: "ip1"
}
layer {
  name: "ip2"
  type: "InnerProduct"
  bottom: "ip1"
  top: "ip2"
  param {
    lr_mult: 1
  }
  param {
    lr_mult: 2
  }
  inner_product_param {
    num_output: 10
    weight_filler {
      type: "xavier"
    }
    bias_filler {
      type: "constant"
    }
  }
}
layer {
  name: "relu2"
  type: "ReLU"
  bottom: "ip2"
  top: "ip2"
}
layer {
  name: "accuracy"
  type: "Accuracy"
  bottom: "ip2"
  bottom: "label"
  top: "accuracy"
  include {
    phase: TEST
  }
}
layer {
  name: "loss"
  type: "SoftmaxWithLoss"
  bottom: "ip2"
  bottom: "label"
  top: "loss"
}
I0408 14:28:25.692195 13337 layer_factory.hpp:77] Creating layer mnist
I0408 14:28:25.692236 13337 db_lmdb.cpp:35] Opened lmdb examples/mnist/mnist_test_lmdb
I0408 14:28:25.692247 13337 net.cpp:84] Creating Layer mnist
I0408 14:28:25.692252 13337 net.cpp:380] mnist -> data
I0408 14:28:25.692258 13337 net.cpp:380] mnist -> label
I0408 14:28:25.692369 13337 data_layer.cpp:45] output data size: 100,1,28,28
I0408 14:28:25.694016 13337 net.cpp:122] Setting up mnist
I0408 14:28:25.694042 13337 net.cpp:129] Top shape: 100 1 28 28 (78400)
I0408 14:28:25.694046 13337 net.cpp:129] Top shape: 100 (100)
I0408 14:28:25.694047 13337 net.cpp:137] Memory required for data: 314000
I0408 14:28:25.694051 13337 layer_factory.hpp:77] Creating layer label_mnist_1_split
I0408 14:28:25.694059 13337 net.cpp:84] Creating Layer label_mnist_1_split
I0408 14:28:25.694062 13337 net.cpp:406] label_mnist_1_split <- label
I0408 14:28:25.694067 13337 net.cpp:380] label_mnist_1_split -> label_mnist_1_split_0
I0408 14:28:25.694073 13337 net.cpp:380] label_mnist_1_split -> label_mnist_1_split_1
I0408 14:28:25.694152 13337 net.cpp:122] Setting up label_mnist_1_split
I0408 14:28:25.694159 13337 net.cpp:129] Top shape: 100 (100)
I0408 14:28:25.694161 13337 net.cpp:129] Top shape: 100 (100)
I0408 14:28:25.694164 13337 net.cpp:137] Memory required for data: 314800
I0408 14:28:25.694166 13337 layer_factory.hpp:77] Creating layer conv0
I0408 14:28:25.694175 13337 net.cpp:84] Creating Layer conv0
I0408 14:28:25.694177 13337 net.cpp:406] conv0 <- data
I0408 14:28:25.694181 13337 net.cpp:380] conv0 -> conv0
I0408 14:28:25.694363 13337 net.cpp:122] Setting up conv0
I0408 14:28:25.694370 13337 net.cpp:129] Top shape: 100 25 24 24 (1440000)
I0408 14:28:25.694371 13337 net.cpp:137] Memory required for data: 6074800
I0408 14:28:25.694378 13337 layer_factory.hpp:77] Creating layer pool0
I0408 14:28:25.694384 13337 net.cpp:84] Creating Layer pool0
I0408 14:28:25.694387 13337 net.cpp:406] pool0 <- conv0
I0408 14:28:25.694391 13337 net.cpp:380] pool0 -> pool0
I0408 14:28:25.694416 13337 net.cpp:122] Setting up pool0
I0408 14:28:25.694422 13337 net.cpp:129] Top shape: 100 25 12 12 (360000)
I0408 14:28:25.694423 13337 net.cpp:137] Memory required for data: 7514800
I0408 14:28:25.694425 13337 layer_factory.hpp:77] Creating layer conv1
I0408 14:28:25.694432 13337 net.cpp:84] Creating Layer conv1
I0408 14:28:25.694434 13337 net.cpp:406] conv1 <- pool0
I0408 14:28:25.694439 13337 net.cpp:380] conv1 -> conv1
I0408 14:28:25.694669 13337 net.cpp:122] Setting up conv1
I0408 14:28:25.694674 13337 net.cpp:129] Top shape: 100 25 8 8 (160000)
I0408 14:28:25.694677 13337 net.cpp:137] Memory required for data: 8154800
I0408 14:28:25.694682 13337 layer_factory.hpp:77] Creating layer pool1
I0408 14:28:25.694687 13337 net.cpp:84] Creating Layer pool1
I0408 14:28:25.694705 13337 net.cpp:406] pool1 <- conv1
I0408 14:28:25.694708 13337 net.cpp:380] pool1 -> pool1
I0408 14:28:25.694732 13337 net.cpp:122] Setting up pool1
I0408 14:28:25.694738 13337 net.cpp:129] Top shape: 100 25 4 4 (40000)
I0408 14:28:25.694741 13337 net.cpp:137] Memory required for data: 8314800
I0408 14:28:25.694746 13337 layer_factory.hpp:77] Creating layer ip1
I0408 14:28:25.694753 13337 net.cpp:84] Creating Layer ip1
I0408 14:28:25.694756 13337 net.cpp:406] ip1 <- pool1
I0408 14:28:25.694763 13337 net.cpp:380] ip1 -> ip1
I0408 14:28:25.695464 13337 net.cpp:122] Setting up ip1
I0408 14:28:25.695473 13337 net.cpp:129] Top shape: 100 100 (10000)
I0408 14:28:25.695477 13337 net.cpp:137] Memory required for data: 8354800
I0408 14:28:25.695487 13337 layer_factory.hpp:77] Creating layer relu1
I0408 14:28:25.695495 13337 net.cpp:84] Creating Layer relu1
I0408 14:28:25.695498 13337 net.cpp:406] relu1 <- ip1
I0408 14:28:25.695504 13337 net.cpp:367] relu1 -> ip1 (in-place)
I0408 14:28:25.695511 13337 net.cpp:122] Setting up relu1
I0408 14:28:25.695518 13337 net.cpp:129] Top shape: 100 100 (10000)
I0408 14:28:25.695521 13337 net.cpp:137] Memory required for data: 8394800
I0408 14:28:25.695524 13337 layer_factory.hpp:77] Creating layer ip2
I0408 14:28:25.695533 13337 net.cpp:84] Creating Layer ip2
I0408 14:28:25.695538 13337 net.cpp:406] ip2 <- ip1
I0408 14:28:25.695544 13337 net.cpp:380] ip2 -> ip2
I0408 14:28:25.695631 13337 net.cpp:122] Setting up ip2
I0408 14:28:25.695636 13337 net.cpp:129] Top shape: 100 10 (1000)
I0408 14:28:25.695653 13337 net.cpp:137] Memory required for data: 8398800
I0408 14:28:25.695658 13337 layer_factory.hpp:77] Creating layer relu2
I0408 14:28:25.695679 13337 net.cpp:84] Creating Layer relu2
I0408 14:28:25.695684 13337 net.cpp:406] relu2 <- ip2
I0408 14:28:25.695689 13337 net.cpp:367] relu2 -> ip2 (in-place)
I0408 14:28:25.695696 13337 net.cpp:122] Setting up relu2
I0408 14:28:25.695715 13337 net.cpp:129] Top shape: 100 10 (1000)
I0408 14:28:25.695719 13337 net.cpp:137] Memory required for data: 8402800
I0408 14:28:25.695722 13337 layer_factory.hpp:77] Creating layer ip2_relu2_0_split
I0408 14:28:25.695741 13337 net.cpp:84] Creating Layer ip2_relu2_0_split
I0408 14:28:25.695745 13337 net.cpp:406] ip2_relu2_0_split <- ip2
I0408 14:28:25.695752 13337 net.cpp:380] ip2_relu2_0_split -> ip2_relu2_0_split_0
I0408 14:28:25.695767 13337 net.cpp:380] ip2_relu2_0_split -> ip2_relu2_0_split_1
I0408 14:28:25.695828 13337 net.cpp:122] Setting up ip2_relu2_0_split
I0408 14:28:25.695833 13337 net.cpp:129] Top shape: 100 10 (1000)
I0408 14:28:25.695837 13337 net.cpp:129] Top shape: 100 10 (1000)
I0408 14:28:25.695842 13337 net.cpp:137] Memory required for data: 8410800
I0408 14:28:25.695845 13337 layer_factory.hpp:77] Creating layer accuracy
I0408 14:28:25.695854 13337 net.cpp:84] Creating Layer accuracy
I0408 14:28:25.695858 13337 net.cpp:406] accuracy <- ip2_relu2_0_split_0
I0408 14:28:25.695863 13337 net.cpp:406] accuracy <- label_mnist_1_split_0
I0408 14:28:25.695871 13337 net.cpp:380] accuracy -> accuracy
…
