…
I0408 15:22:02.373183 13563 net.cpp:294] The NetState phase (0) differed from the phase (1) specified by a rule in layer mnist
I0408 15:22:02.373194 13563 net.cpp:294] The NetState phase (0) differed from the phase (1) specified by a rule in layer accuracy
I0408 15:22:02.373293 13563 net.cpp:51] Initializing net from parameters: 
name: "LeNet"
state {
  phase: TRAIN
  level: 0
  stage: ""
}
layer {
  name: "mnist"
  type: "Data"
  top: "data"
  top: "label"
  include {
    phase: TRAIN
  }
  transform_param {
    scale: 0.00390625
  }
  data_param {
    source: "examples/mnist/mnist_train_lmdb"
    batch_size: 64
    backend: LMDB
  }
}
layer {
  name: "conv0"
  type: "Convolution"
  bottom: "data"
  top: "conv0"
  param {
    lr_mult: 1
  }
  param {
    lr_mult: 2
  }
  convolution_param {
    num_output: 150
    kernel_size: 5
    stride: 1
    weight_filler {
      type: "xavier"
    }
    bias_filler {
      type: "constant"
    }
  }
}
layer {
  name: "pool0"
  type: "Pooling"
  bottom: "conv0"
  top: "pool0"
  pooling_param {
    pool: MAX
    kernel_size: 2
    stride: 2
  }
}
layer {
  name: "conv1"
  type: "Convolution"
  bottom: "pool0"
  top: "conv1"
  param {
    lr_mult: 1
  }
  param {
    lr_mult: 2
  }
  convolution_param {
    num_output: 150
    kernel_size: 5
    stride: 1
    weight_filler {
      type: "xavier"
    }
    bias_filler {
      type: "constant"
    }
  }
}
layer {
  name: "pool1"
  type: "Pooling"
  bottom: "conv1"
  top: "pool1"
  pooling_param {
    pool: MAX
    kernel_size: 2
    stride: 2
  }
}
layer {
  name: "ip1"
  type: "InnerProduct"
  bottom: "pool1"
  top: "ip1"
  param {
    lr_mult: 1
  }
  param {
    lr_mult: 2
  }
  inner_product_param {
    num_output: 100
    weight_filler {
      type: "xavier"
    }
    bias_filler {
      type: "constant"
    }
  }
}
layer {
  name: "relu1"
  type: "ReLU"
  bottom: "ip1"
  top: "ip1"
}
layer {
  name: "ip2"
  type: "InnerProduct"
  bottom: "ip1"
  top: "ip2"
  param {
    lr_mult: 1
  }
  param {
    lr_mult: 2
  }
  inner_product_param {
    num_output: 10
    weight_filler {
      type: "xavier"
    }
    bias_filler {
      type: "constant"
    }
  }
}
layer {
  name: "relu2"
  type: "ReLU"
  bottom: "ip2"
  top: "ip2"
}
layer {
  name: "loss"
  type: "SoftmaxWithLoss"
  bottom: "ip2"
  bottom: "label"
  top: "loss"
}
I0408 15:22:02.373399 13563 layer_factory.hpp:77] Creating layer mnist
I0408 15:22:02.373497 13563 db_lmdb.cpp:35] Opened lmdb examples/mnist/mnist_train_lmdb
I0408 15:22:02.373551 13563 net.cpp:84] Creating Layer mnist
I0408 15:22:02.373574 13563 net.cpp:380] mnist -> data
I0408 15:22:02.373613 13563 net.cpp:380] mnist -> label
I0408 15:22:02.374176 13563 data_layer.cpp:45] output data size: 64,1,28,28
I0408 15:22:02.375696 13563 net.cpp:122] Setting up mnist
I0408 15:22:02.375728 13563 net.cpp:129] Top shape: 64 1 28 28 (50176)
I0408 15:22:02.375733 13563 net.cpp:129] Top shape: 64 (64)
I0408 15:22:02.375735 13563 net.cpp:137] Memory required for data: 200960
I0408 15:22:02.375746 13563 layer_factory.hpp:77] Creating layer conv0
I0408 15:22:02.375763 13563 net.cpp:84] Creating Layer conv0
I0408 15:22:02.375769 13563 net.cpp:406] conv0 <- data
I0408 15:22:02.375782 13563 net.cpp:380] conv0 -> conv0
I0408 15:22:02.376760 13563 net.cpp:122] Setting up conv0
I0408 15:22:02.376770 13563 net.cpp:129] Top shape: 64 150 24 24 (5529600)
I0408 15:22:02.376773 13563 net.cpp:137] Memory required for data: 22319360
I0408 15:22:02.376822 13563 layer_factory.hpp:77] Creating layer pool0
I0408 15:22:02.376833 13563 net.cpp:84] Creating Layer pool0
I0408 15:22:02.376838 13563 net.cpp:406] pool0 <- conv0
I0408 15:22:02.376845 13563 net.cpp:380] pool0 -> pool0
I0408 15:22:02.376900 13563 net.cpp:122] Setting up pool0
I0408 15:22:02.376906 13563 net.cpp:129] Top shape: 64 150 12 12 (1382400)
I0408 15:22:02.376910 13563 net.cpp:137] Memory required for data: 27848960
I0408 15:22:02.376914 13563 layer_factory.hpp:77] Creating layer conv1
I0408 15:22:02.376922 13563 net.cpp:84] Creating Layer conv1
I0408 15:22:02.376927 13563 net.cpp:406] conv1 <- pool0
I0408 15:22:02.376935 13563 net.cpp:380] conv1 -> conv1
I0408 15:22:02.380228 13563 net.cpp:122] Setting up conv1
I0408 15:22:02.380237 13563 net.cpp:129] Top shape: 64 150 8 8 (614400)
I0408 15:22:02.380241 13563 net.cpp:137] Memory required for data: 30306560
I0408 15:22:02.380264 13563 layer_factory.hpp:77] Creating layer pool1
I0408 15:22:02.380273 13563 net.cpp:84] Creating Layer pool1
I0408 15:22:02.380295 13563 net.cpp:406] pool1 <- conv1
I0408 15:22:02.380316 13563 net.cpp:380] pool1 -> pool1
I0408 15:22:02.380358 13563 net.cpp:122] Setting up pool1
I0408 15:22:02.380364 13563 net.cpp:129] Top shape: 64 150 4 4 (153600)
I0408 15:22:02.380367 13563 net.cpp:137] Memory required for data: 30920960
I0408 15:22:02.380370 13563 layer_factory.hpp:77] Creating layer ip1
I0408 15:22:02.380390 13563 net.cpp:84] Creating Layer ip1
I0408 15:22:02.380394 13563 net.cpp:406] ip1 <- pool1
I0408 15:22:02.380401 13563 net.cpp:380] ip1 -> ip1
I0408 15:22:02.381985 13563 net.cpp:122] Setting up ip1
I0408 15:22:02.381994 13563 net.cpp:129] Top shape: 64 100 (6400)
I0408 15:22:02.381996 13563 net.cpp:137] Memory required for data: 30946560
I0408 15:22:02.382005 13563 layer_factory.hpp:77] Creating layer relu1
I0408 15:22:02.382012 13563 net.cpp:84] Creating Layer relu1
I0408 15:22:02.382035 13563 net.cpp:406] relu1 <- ip1
I0408 15:22:02.382057 13563 net.cpp:367] relu1 -> ip1 (in-place)
I0408 15:22:02.382064 13563 net.cpp:122] Setting up relu1
I0408 15:22:02.382087 13563 net.cpp:129] Top shape: 64 100 (6400)
I0408 15:22:02.382091 13563 net.cpp:137] Memory required for data: 30972160
I0408 15:22:02.382107 13563 layer_factory.hpp:77] Creating layer ip2
I0408 15:22:02.382112 13563 net.cpp:84] Creating Layer ip2
I0408 15:22:02.382130 13563 net.cpp:406] ip2 <- ip1
I0408 15:22:02.382138 13563 net.cpp:380] ip2 -> ip2
I0408 15:22:02.382247 13563 net.cpp:122] Setting up ip2
I0408 15:22:02.382252 13563 net.cpp:129] Top shape: 64 10 (640)
I0408 15:22:02.382256 13563 net.cpp:137] Memory required for data: 30974720
I0408 15:22:02.382262 13563 layer_factory.hpp:77] Creating layer relu2
I0408 15:22:02.382269 13563 net.cpp:84] Creating Layer relu2
I0408 15:22:02.382273 13563 net.cpp:406] relu2 <- ip2
I0408 15:22:02.382279 13563 net.cpp:367] relu2 -> ip2 (in-place)
I0408 15:22:02.382287 13563 net.cpp:122] Setting up relu2
I0408 15:22:02.382292 13563 net.cpp:129] Top shape: 64 10 (640)
I0408 15:22:02.382294 13563 net.cpp:137] Memory required for data: 30977280
I0408 15:22:02.382298 13563 layer_factory.hpp:77] Creating layer loss
I0408 15:22:02.382318 13563 net.cpp:84] Creating Layer loss
I0408 15:22:02.382321 13563 net.cpp:406] loss <- ip2
I0408 15:22:02.382329 13563 net.cpp:406] loss <- label
I0408 15:22:02.382336 13563 net.cpp:380] loss -> loss
I0408 15:22:02.382350 13563 layer_factory.hpp:77] Creating layer loss
…
I0408 15:22:02.382663 13563 solver.cpp:173] Creating test net (#0) specified by net file: ECE595/mnist/train_test/var_num_feature/lenet_train_test_featuresize150.prototxt
I0408 15:22:02.382683 13563 net.cpp:294] The NetState phase (1) differed from the phase (0) specified by a rule in layer mnist
I0408 15:22:02.382760 13563 net.cpp:51] Initializing net from parameters: 
name: "LeNet"
state {
  phase: TEST
}
layer {
  name: "mnist"
  type: "Data"
  top: "data"
  top: "label"
  include {
    phase: TEST
  }
  transform_param {
    scale: 0.00390625
  }
  data_param {
    source: "examples/mnist/mnist_test_lmdb"
    batch_size: 100
    backend: LMDB
  }
}
layer {
  name: "conv0"
  type: "Convolution"
  bottom: "data"
  top: "conv0"
  param {
    lr_mult: 1
  }
  param {
    lr_mult: 2
  }
  convolution_param {
    num_output: 150
    kernel_size: 5
    stride: 1
    weight_filler {
      type: "xavier"
    }
    bias_filler {
      type: "constant"
    }
  }
}
layer {
  name: "pool0"
  type: "Pooling"
  bottom: "conv0"
  top: "pool0"
  pooling_param {
    pool: MAX
    kernel_size: 2
    stride: 2
  }
}
layer {
  name: "conv1"
  type: "Convolution"
  bottom: "pool0"
  top: "conv1"
  param {
    lr_mult: 1
  }
  param {
    lr_mult: 2
  }
  convolution_param {
    num_output: 150
    kernel_size: 5
    stride: 1
    weight_filler {
      type: "xavier"
    }
    bias_filler {
      type: "constant"
    }
  }
}
layer {
  name: "pool1"
  type: "Pooling"
  bottom: "conv1"
  top: "pool1"
  pooling_param {
    pool: MAX
    kernel_size: 2
    stride: 2
  }
}
layer {
  name: "ip1"
  type: "InnerProduct"
  bottom: "pool1"
  top: "ip1"
  param {
    lr_mult: 1
  }
  param {
    lr_mult: 2
  }
  inner_product_param {
    num_output: 100
    weight_filler {
      type: "xavier"
    }
    bias_filler {
      type: "constant"
    }
  }
}
layer {
  name: "relu1"
  type: "ReLU"
  bottom: "ip1"
  top: "ip1"
}
layer {
  name: "ip2"
  type: "InnerProduct"
  bottom: "ip1"
  top: "ip2"
  param {
    lr_mult: 1
  }
  param {
    lr_mult: 2
  }
  inner_product_param {
    num_output: 10
    weight_filler {
      type: "xavier"
    }
    bias_filler {
      type: "constant"
    }
  }
}
layer {
  name: "relu2"
  type: "ReLU"
  bottom: "ip2"
  top: "ip2"
}
layer {
  name: "accuracy"
  type: "Accuracy"
  bottom: "ip2"
  bottom: "label"
  top: "accuracy"
  include {
    phase: TEST
  }
}
layer {
  name: "loss"
  type: "SoftmaxWithLoss"
  bottom: "ip2"
  bottom: "label"
  top: "loss"
}
I0408 15:22:02.382845 13563 layer_factory.hpp:77] Creating layer mnist
I0408 15:22:02.382894 13563 db_lmdb.cpp:35] Opened lmdb examples/mnist/mnist_test_lmdb
I0408 15:22:02.382907 13563 net.cpp:84] Creating Layer mnist
I0408 15:22:02.382913 13563 net.cpp:380] mnist -> data
I0408 15:22:02.382921 13563 net.cpp:380] mnist -> label
I0408 15:22:02.382999 13563 data_layer.cpp:45] output data size: 100,1,28,28
I0408 15:22:02.384644 13563 net.cpp:122] Setting up mnist
I0408 15:22:02.384672 13563 net.cpp:129] Top shape: 100 1 28 28 (78400)
I0408 15:22:02.384696 13563 net.cpp:129] Top shape: 100 (100)
I0408 15:22:02.384697 13563 net.cpp:137] Memory required for data: 314000
I0408 15:22:02.384701 13563 layer_factory.hpp:77] Creating layer label_mnist_1_split
I0408 15:22:02.384711 13563 net.cpp:84] Creating Layer label_mnist_1_split
I0408 15:22:02.384714 13563 net.cpp:406] label_mnist_1_split <- label
I0408 15:22:02.384721 13563 net.cpp:380] label_mnist_1_split -> label_mnist_1_split_0
I0408 15:22:02.384747 13563 net.cpp:380] label_mnist_1_split -> label_mnist_1_split_1
I0408 15:22:02.384804 13563 net.cpp:122] Setting up label_mnist_1_split
I0408 15:22:02.384810 13563 net.cpp:129] Top shape: 100 (100)
I0408 15:22:02.384814 13563 net.cpp:129] Top shape: 100 (100)
I0408 15:22:02.384816 13563 net.cpp:137] Memory required for data: 314800
I0408 15:22:02.384821 13563 layer_factory.hpp:77] Creating layer conv0
I0408 15:22:02.384852 13563 net.cpp:84] Creating Layer conv0
I0408 15:22:02.384856 13563 net.cpp:406] conv0 <- data
I0408 15:22:02.384879 13563 net.cpp:380] conv0 -> conv0
I0408 15:22:02.385159 13563 net.cpp:122] Setting up conv0
I0408 15:22:02.385165 13563 net.cpp:129] Top shape: 100 150 24 24 (8640000)
I0408 15:22:02.385169 13563 net.cpp:137] Memory required for data: 34874800
I0408 15:22:02.385196 13563 layer_factory.hpp:77] Creating layer pool0
I0408 15:22:02.385202 13563 net.cpp:84] Creating Layer pool0
I0408 15:22:02.385205 13563 net.cpp:406] pool0 <- conv0
I0408 15:22:02.385215 13563 net.cpp:380] pool0 -> pool0
I0408 15:22:02.385267 13563 net.cpp:122] Setting up pool0
I0408 15:22:02.385273 13563 net.cpp:129] Top shape: 100 150 12 12 (2160000)
I0408 15:22:02.385277 13563 net.cpp:137] Memory required for data: 43514800
I0408 15:22:02.385279 13563 layer_factory.hpp:77] Creating layer conv1
I0408 15:22:02.385308 13563 net.cpp:84] Creating Layer conv1
I0408 15:22:02.385313 13563 net.cpp:406] conv1 <- pool0
I0408 15:22:02.385318 13563 net.cpp:380] conv1 -> conv1
I0408 15:22:02.390987 13563 net.cpp:122] Setting up conv1
I0408 15:22:02.391000 13563 net.cpp:129] Top shape: 100 150 8 8 (960000)
I0408 15:22:02.391003 13563 net.cpp:137] Memory required for data: 47354800
I0408 15:22:02.391010 13563 layer_factory.hpp:77] Creating layer pool1
I0408 15:22:02.391016 13563 net.cpp:84] Creating Layer pool1
I0408 15:22:02.391018 13563 net.cpp:406] pool1 <- conv1
I0408 15:22:02.391024 13563 net.cpp:380] pool1 -> pool1
I0408 15:22:02.391052 13563 net.cpp:122] Setting up pool1
I0408 15:22:02.391055 13563 net.cpp:129] Top shape: 100 150 4 4 (240000)
I0408 15:22:02.391057 13563 net.cpp:137] Memory required for data: 48314800
I0408 15:22:02.391060 13563 layer_factory.hpp:77] Creating layer ip1
I0408 15:22:02.391065 13563 net.cpp:84] Creating Layer ip1
I0408 15:22:02.391067 13563 net.cpp:406] ip1 <- pool1
I0408 15:22:02.391072 13563 net.cpp:380] ip1 -> ip1
I0408 15:22:02.392609 13563 net.cpp:122] Setting up ip1
I0408 15:22:02.392617 13563 net.cpp:129] Top shape: 100 100 (10000)
I0408 15:22:02.392638 13563 net.cpp:137] Memory required for data: 48354800
I0408 15:22:02.392644 13563 layer_factory.hpp:77] Creating layer relu1
I0408 15:22:02.392650 13563 net.cpp:84] Creating Layer relu1
I0408 15:22:02.392652 13563 net.cpp:406] relu1 <- ip1
I0408 15:22:02.392657 13563 net.cpp:367] relu1 -> ip1 (in-place)
I0408 15:22:02.392676 13563 net.cpp:122] Setting up relu1
I0408 15:22:02.392680 13563 net.cpp:129] Top shape: 100 100 (10000)
I0408 15:22:02.392681 13563 net.cpp:137] Memory required for data: 48394800
I0408 15:22:02.392683 13563 layer_factory.hpp:77] Creating layer ip2
I0408 15:22:02.392688 13563 net.cpp:84] Creating Layer ip2
I0408 15:22:02.392691 13563 net.cpp:406] ip2 <- ip1
I0408 15:22:02.392696 13563 net.cpp:380] ip2 -> ip2
I0408 15:22:02.392786 13563 net.cpp:122] Setting up ip2
I0408 15:22:02.392791 13563 net.cpp:129] Top shape: 100 10 (1000)
I0408 15:22:02.392812 13563 net.cpp:137] Memory required for data: 48398800
I0408 15:22:02.392814 13563 layer_factory.hpp:77] Creating layer relu2
I0408 15:22:02.392818 13563 net.cpp:84] Creating Layer relu2
I0408 15:22:02.392819 13563 net.cpp:406] relu2 <- ip2
I0408 15:22:02.392824 13563 net.cpp:367] relu2 -> ip2 (in-place)
I0408 15:22:02.392827 13563 net.cpp:122] Setting up relu2
I0408 15:22:02.392829 13563 net.cpp:129] Top shape: 100 10 (1000)
I0408 15:22:02.392832 13563 net.cpp:137] Memory required for data: 48402800
I0408 15:22:02.392833 13563 layer_factory.hpp:77] Creating layer ip2_relu2_0_split
I0408 15:22:02.392838 13563 net.cpp:84] Creating Layer ip2_relu2_0_split
I0408 15:22:02.392838 13563 net.cpp:406] ip2_relu2_0_split <- ip2
I0408 15:22:02.392853 13563 net.cpp:380] ip2_relu2_0_split -> ip2_relu2_0_split_0
I0408 15:22:02.392858 13563 net.cpp:380] ip2_relu2_0_split -> ip2_relu2_0_split_1
I0408 15:22:02.392899 13563 net.cpp:122] Setting up ip2_relu2_0_split
I0408 15:22:02.392902 13563 net.cpp:129] Top shape: 100 10 (1000)
I0408 15:22:02.392923 13563 net.cpp:129] Top shape: 100 10 (1000)
I0408 15:22:02.392925 13563 net.cpp:137] Memory required for data: 48410800
I0408 15:22:02.392928 13563 layer_factory.hpp:77] Creating layer accuracy
I0408 15:22:02.392933 13563 net.cpp:84] Creating Layer accuracy
I0408 15:22:02.392936 13563 net.cpp:406] accuracy <- ip2_relu2_0_split_0
I0408 15:22:02.392938 13563 net.cpp:406] accuracy <- label_mnist_1_split_0
I0408 15:22:02.392942 13563 net.cpp:380] accuracy -> accuracy
…
