…
I0408 14:38:53.470703 13394 net.cpp:294] The NetState phase (0) differed from the phase (1) specified by a rule in layer mnist
I0408 14:38:53.470731 13394 net.cpp:294] The NetState phase (0) differed from the phase (1) specified by a rule in layer accuracy
I0408 14:38:53.470809 13394 net.cpp:51] Initializing net from parameters: 
name: "LeNet"
state {
  phase: TRAIN
  level: 0
  stage: ""
}
layer {
  name: "mnist"
  type: "Data"
  top: "data"
  top: "label"
  include {
    phase: TRAIN
  }
  transform_param {
    scale: 0.00390625
  }
  data_param {
    source: "examples/mnist/mnist_train_lmdb"
    batch_size: 64
    backend: LMDB
  }
}
layer {
  name: "conv0"
  type: "Convolution"
  bottom: "data"
  top: "conv0"
  param {
    lr_mult: 1
  }
  param {
    lr_mult: 2
  }
  convolution_param {
    num_output: 50
    kernel_size: 5
    stride: 1
    weight_filler {
      type: "xavier"
    }
    bias_filler {
      type: "constant"
    }
  }
}
layer {
  name: "pool0"
  type: "Pooling"
  bottom: "conv0"
  top: "pool0"
  pooling_param {
    pool: MAX
    kernel_size: 2
    stride: 2
  }
}
layer {
  name: "conv1"
  type: "Convolution"
  bottom: "pool0"
  top: "conv1"
  param {
    lr_mult: 1
  }
  param {
    lr_mult: 2
  }
  convolution_param {
    num_output: 50
    kernel_size: 5
    stride: 1
    weight_filler {
      type: "xavier"
    }
    bias_filler {
      type: "constant"
    }
  }
}
layer {
  name: "pool1"
  type: "Pooling"
  bottom: "conv1"
  top: "pool1"
  pooling_param {
    pool: MAX
    kernel_size: 2
    stride: 2
  }
}
layer {
  name: "ip1"
  type: "InnerProduct"
  bottom: "pool1"
  top: "ip1"
  param {
    lr_mult: 1
  }
  param {
    lr_mult: 2
  }
  inner_product_param {
    num_output: 100
    weight_filler {
      type: "xavier"
    }
    bias_filler {
      type: "constant"
    }
  }
}
layer {
  name: "relu1"
  type: "ReLU"
  bottom: "ip1"
  top: "ip1"
}
layer {
  name: "ip2"
  type: "InnerProduct"
  bottom: "ip1"
  top: "ip2"
  param {
    lr_mult: 1
  }
  param {
    lr_mult: 2
  }
  inner_product_param {
    num_output: 10
    weight_filler {
      type: "xavier"
    }
    bias_filler {
      type: "constant"
    }
  }
}
layer {
  name: "relu2"
  type: "ReLU"
  bottom: "ip2"
  top: "ip2"
}
layer {
  name: "loss"
  type: "SoftmaxWithLoss"
  bottom: "ip2"
  bottom: "label"
  top: "loss"
}
I0408 14:38:53.470909 13394 layer_factory.hpp:77] Creating layer mnist
I0408 14:38:53.471015 13394 db_lmdb.cpp:35] Opened lmdb examples/mnist/mnist_train_lmdb
I0408 14:38:53.471066 13394 net.cpp:84] Creating Layer mnist
I0408 14:38:53.471072 13394 net.cpp:380] mnist -> data
I0408 14:38:53.471110 13394 net.cpp:380] mnist -> label
I0408 14:38:53.471689 13394 data_layer.cpp:45] output data size: 64,1,28,28
I0408 14:38:53.472987 13394 net.cpp:122] Setting up mnist
I0408 14:38:53.472997 13394 net.cpp:129] Top shape: 64 1 28 28 (50176)
I0408 14:38:53.473001 13394 net.cpp:129] Top shape: 64 (64)
I0408 14:38:53.473003 13394 net.cpp:137] Memory required for data: 200960
I0408 14:38:53.473008 13394 layer_factory.hpp:77] Creating layer conv0
I0408 14:38:53.473039 13394 net.cpp:84] Creating Layer conv0
I0408 14:38:53.473058 13394 net.cpp:406] conv0 <- data
I0408 14:38:53.473071 13394 net.cpp:380] conv0 -> conv0
I0408 14:38:53.473913 13394 net.cpp:122] Setting up conv0
I0408 14:38:53.473922 13394 net.cpp:129] Top shape: 64 50 24 24 (1843200)
I0408 14:38:53.473925 13394 net.cpp:137] Memory required for data: 7573760
I0408 14:38:53.473983 13394 layer_factory.hpp:77] Creating layer pool0
I0408 14:38:53.473990 13394 net.cpp:84] Creating Layer pool0
I0408 14:38:53.473994 13394 net.cpp:406] pool0 <- conv0
I0408 14:38:53.473997 13394 net.cpp:380] pool0 -> pool0
I0408 14:38:53.474185 13394 net.cpp:122] Setting up pool0
I0408 14:38:53.474192 13394 net.cpp:129] Top shape: 64 50 12 12 (460800)
I0408 14:38:53.474195 13394 net.cpp:137] Memory required for data: 9416960
I0408 14:38:53.474197 13394 layer_factory.hpp:77] Creating layer conv1
I0408 14:38:53.474222 13394 net.cpp:84] Creating Layer conv1
I0408 14:38:53.474225 13394 net.cpp:406] conv1 <- pool0
I0408 14:38:53.474243 13394 net.cpp:380] conv1 -> conv1
I0408 14:38:53.475088 13394 net.cpp:122] Setting up conv1
I0408 14:38:53.475095 13394 net.cpp:129] Top shape: 64 50 8 8 (204800)
I0408 14:38:53.475097 13394 net.cpp:137] Memory required for data: 10236160
I0408 14:38:53.475103 13394 layer_factory.hpp:77] Creating layer pool1
I0408 14:38:53.475108 13394 net.cpp:84] Creating Layer pool1
I0408 14:38:53.475111 13394 net.cpp:406] pool1 <- conv1
I0408 14:38:53.475114 13394 net.cpp:380] pool1 -> pool1
I0408 14:38:53.475199 13394 net.cpp:122] Setting up pool1
I0408 14:38:53.475204 13394 net.cpp:129] Top shape: 64 50 4 4 (51200)
I0408 14:38:53.475219 13394 net.cpp:137] Memory required for data: 10440960
I0408 14:38:53.475220 13394 layer_factory.hpp:77] Creating layer ip1
I0408 14:38:53.475224 13394 net.cpp:84] Creating Layer ip1
I0408 14:38:53.475227 13394 net.cpp:406] ip1 <- pool1
I0408 14:38:53.475247 13394 net.cpp:380] ip1 -> ip1
I0408 14:38:53.476060 13394 net.cpp:122] Setting up ip1
I0408 14:38:53.476083 13394 net.cpp:129] Top shape: 64 100 (6400)
I0408 14:38:53.476085 13394 net.cpp:137] Memory required for data: 10466560
I0408 14:38:53.476091 13394 layer_factory.hpp:77] Creating layer relu1
I0408 14:38:53.476114 13394 net.cpp:84] Creating Layer relu1
I0408 14:38:53.476116 13394 net.cpp:406] relu1 <- ip1
I0408 14:38:53.476121 13394 net.cpp:367] relu1 -> ip1 (in-place)
I0408 14:38:53.476130 13394 net.cpp:122] Setting up relu1
I0408 14:38:53.476148 13394 net.cpp:129] Top shape: 64 100 (6400)
I0408 14:38:53.476151 13394 net.cpp:137] Memory required for data: 10492160
I0408 14:38:53.476155 13394 layer_factory.hpp:77] Creating layer ip2
I0408 14:38:53.476161 13394 net.cpp:84] Creating Layer ip2
I0408 14:38:53.476163 13394 net.cpp:406] ip2 <- ip1
I0408 14:38:53.476167 13394 net.cpp:380] ip2 -> ip2
I0408 14:38:53.476274 13394 net.cpp:122] Setting up ip2
I0408 14:38:53.476277 13394 net.cpp:129] Top shape: 64 10 (640)
I0408 14:38:53.476279 13394 net.cpp:137] Memory required for data: 10494720
I0408 14:38:53.476301 13394 layer_factory.hpp:77] Creating layer relu2
I0408 14:38:53.476306 13394 net.cpp:84] Creating Layer relu2
I0408 14:38:53.476308 13394 net.cpp:406] relu2 <- ip2
I0408 14:38:53.476311 13394 net.cpp:367] relu2 -> ip2 (in-place)
I0408 14:38:53.476315 13394 net.cpp:122] Setting up relu2
I0408 14:38:53.476317 13394 net.cpp:129] Top shape: 64 10 (640)
I0408 14:38:53.476320 13394 net.cpp:137] Memory required for data: 10497280
I0408 14:38:53.476321 13394 layer_factory.hpp:77] Creating layer loss
I0408 14:38:53.476325 13394 net.cpp:84] Creating Layer loss
I0408 14:38:53.476328 13394 net.cpp:406] loss <- ip2
I0408 14:38:53.476331 13394 net.cpp:406] loss <- label
I0408 14:38:53.476335 13394 net.cpp:380] loss -> loss
I0408 14:38:53.476358 13394 layer_factory.hpp:77] Creating layer loss
…
I0408 14:38:53.476840 13394 solver.cpp:173] Creating test net (#0) specified by net file: ECE595/mnist/train_test/var_num_feature/lenet_train_test_featuresize50.prototxt
I0408 14:38:53.476855 13394 net.cpp:294] The NetState phase (1) differed from the phase (0) specified by a rule in layer mnist
I0408 14:38:53.477012 13394 net.cpp:51] Initializing net from parameters: 
name: "LeNet"
state {
  phase: TEST
}
layer {
  name: "mnist"
  type: "Data"
  top: "data"
  top: "label"
  include {
    phase: TEST
  }
  transform_param {
    scale: 0.00390625
  }
  data_param {
    source: "examples/mnist/mnist_test_lmdb"
    batch_size: 100
    backend: LMDB
  }
}
layer {
  name: "conv0"
  type: "Convolution"
  bottom: "data"
  top: "conv0"
  param {
    lr_mult: 1
  }
  param {
    lr_mult: 2
  }
  convolution_param {
    num_output: 50
    kernel_size: 5
    stride: 1
    weight_filler {
      type: "xavier"
    }
    bias_filler {
      type: "constant"
    }
  }
}
layer {
  name: "pool0"
  type: "Pooling"
  bottom: "conv0"
  top: "pool0"
  pooling_param {
    pool: MAX
    kernel_size: 2
    stride: 2
  }
}
layer {
  name: "conv1"
  type: "Convolution"
  bottom: "pool0"
  top: "conv1"
  param {
    lr_mult: 1
  }
  param {
    lr_mult: 2
  }
  convolution_param {
    num_output: 50
    kernel_size: 5
    stride: 1
    weight_filler {
      type: "xavier"
    }
    bias_filler {
      type: "constant"
    }
  }
}
layer {
  name: "pool1"
  type: "Pooling"
  bottom: "conv1"
  top: "pool1"
  pooling_param {
    pool: MAX
    kernel_size: 2
    stride: 2
  }
}
layer {
  name: "ip1"
  type: "InnerProduct"
  bottom: "pool1"
  top: "ip1"
  param {
    lr_mult: 1
  }
  param {
    lr_mult: 2
  }
  inner_product_param {
    num_output: 100
    weight_filler {
      type: "xavier"
    }
    bias_filler {
      type: "constant"
    }
  }
}
layer {
  name: "relu1"
  type: "ReLU"
  bottom: "ip1"
  top: "ip1"
}
layer {
  name: "ip2"
  type: "InnerProduct"
  bottom: "ip1"
  top: "ip2"
  param {
    lr_mult: 1
  }
  param {
    lr_mult: 2
  }
  inner_product_param {
    num_output: 10
    weight_filler {
      type: "xavier"
    }
    bias_filler {
      type: "constant"
    }
  }
}
layer {
  name: "relu2"
  type: "ReLU"
  bottom: "ip2"
  top: "ip2"
}
layer {
  name: "accuracy"
  type: "Accuracy"
  bottom: "ip2"
  bottom: "label"
  top: "accuracy"
  include {
    phase: TEST
  }
}
layer {
  name: "loss"
  type: "SoftmaxWithLoss"
  bottom: "ip2"
  bottom: "label"
  top: "loss"
}
I0408 14:38:53.477097 13394 layer_factory.hpp:77] Creating layer mnist
I0408 14:38:53.477186 13394 db_lmdb.cpp:35] Opened lmdb examples/mnist/mnist_test_lmdb
I0408 14:38:53.477210 13394 net.cpp:84] Creating Layer mnist
I0408 14:38:53.477213 13394 net.cpp:380] mnist -> data
I0408 14:38:53.477237 13394 net.cpp:380] mnist -> label
I0408 14:38:53.477334 13394 data_layer.cpp:45] output data size: 100,1,28,28
I0408 14:38:53.478756 13394 net.cpp:122] Setting up mnist
I0408 14:38:53.478780 13394 net.cpp:129] Top shape: 100 1 28 28 (78400)
I0408 14:38:53.478783 13394 net.cpp:129] Top shape: 100 (100)
I0408 14:38:53.478785 13394 net.cpp:137] Memory required for data: 314000
I0408 14:38:53.478806 13394 layer_factory.hpp:77] Creating layer label_mnist_1_split
I0408 14:38:53.478814 13394 net.cpp:84] Creating Layer label_mnist_1_split
I0408 14:38:53.478816 13394 net.cpp:406] label_mnist_1_split <- label
I0408 14:38:53.478821 13394 net.cpp:380] label_mnist_1_split -> label_mnist_1_split_0
I0408 14:38:53.478827 13394 net.cpp:380] label_mnist_1_split -> label_mnist_1_split_1
I0408 14:38:53.478962 13394 net.cpp:122] Setting up label_mnist_1_split
I0408 14:38:53.478983 13394 net.cpp:129] Top shape: 100 (100)
I0408 14:38:53.478986 13394 net.cpp:129] Top shape: 100 (100)
I0408 14:38:53.478988 13394 net.cpp:137] Memory required for data: 314800
I0408 14:38:53.478991 13394 layer_factory.hpp:77] Creating layer conv0
I0408 14:38:53.478998 13394 net.cpp:84] Creating Layer conv0
I0408 14:38:53.479019 13394 net.cpp:406] conv0 <- data
I0408 14:38:53.479025 13394 net.cpp:380] conv0 -> conv0
I0408 14:38:53.479233 13394 net.cpp:122] Setting up conv0
I0408 14:38:53.479238 13394 net.cpp:129] Top shape: 100 50 24 24 (2880000)
I0408 14:38:53.479240 13394 net.cpp:137] Memory required for data: 11834800
I0408 14:38:53.479266 13394 layer_factory.hpp:77] Creating layer pool0
I0408 14:38:53.479270 13394 net.cpp:84] Creating Layer pool0
I0408 14:38:53.479272 13394 net.cpp:406] pool0 <- conv0
I0408 14:38:53.479276 13394 net.cpp:380] pool0 -> pool0
I0408 14:38:53.479317 13394 net.cpp:122] Setting up pool0
I0408 14:38:53.479322 13394 net.cpp:129] Top shape: 100 50 12 12 (720000)
I0408 14:38:53.479324 13394 net.cpp:137] Memory required for data: 14714800
I0408 14:38:53.479326 13394 layer_factory.hpp:77] Creating layer conv1
I0408 14:38:53.479353 13394 net.cpp:84] Creating Layer conv1
I0408 14:38:53.479356 13394 net.cpp:406] conv1 <- pool0
I0408 14:38:53.479359 13394 net.cpp:380] conv1 -> conv1
I0408 14:38:53.479887 13394 net.cpp:122] Setting up conv1
I0408 14:38:53.479892 13394 net.cpp:129] Top shape: 100 50 8 8 (320000)
I0408 14:38:53.479907 13394 net.cpp:137] Memory required for data: 15994800
I0408 14:38:53.479912 13394 layer_factory.hpp:77] Creating layer pool1
I0408 14:38:53.479918 13394 net.cpp:84] Creating Layer pool1
I0408 14:38:53.479921 13394 net.cpp:406] pool1 <- conv1
I0408 14:38:53.479924 13394 net.cpp:380] pool1 -> pool1
I0408 14:38:53.479962 13394 net.cpp:122] Setting up pool1
I0408 14:38:53.479966 13394 net.cpp:129] Top shape: 100 50 4 4 (80000)
I0408 14:38:53.479982 13394 net.cpp:137] Memory required for data: 16314800
I0408 14:38:53.479984 13394 layer_factory.hpp:77] Creating layer ip1
I0408 14:38:53.479988 13394 net.cpp:84] Creating Layer ip1
I0408 14:38:53.479990 13394 net.cpp:406] ip1 <- pool1
I0408 14:38:53.479995 13394 net.cpp:380] ip1 -> ip1
I0408 14:38:53.480429 13394 net.cpp:122] Setting up ip1
I0408 14:38:53.480434 13394 net.cpp:129] Top shape: 100 100 (10000)
I0408 14:38:53.480437 13394 net.cpp:137] Memory required for data: 16354800
I0408 14:38:53.480443 13394 layer_factory.hpp:77] Creating layer relu1
I0408 14:38:53.480446 13394 net.cpp:84] Creating Layer relu1
I0408 14:38:53.480449 13394 net.cpp:406] relu1 <- ip1
I0408 14:38:53.480453 13394 net.cpp:367] relu1 -> ip1 (in-place)
I0408 14:38:53.480456 13394 net.cpp:122] Setting up relu1
I0408 14:38:53.480459 13394 net.cpp:129] Top shape: 100 100 (10000)
I0408 14:38:53.480500 13394 net.cpp:137] Memory required for data: 16394800
I0408 14:38:53.480504 13394 layer_factory.hpp:77] Creating layer ip2
I0408 14:38:53.480522 13394 net.cpp:84] Creating Layer ip2
I0408 14:38:53.480526 13394 net.cpp:406] ip2 <- ip1
I0408 14:38:53.480530 13394 net.cpp:380] ip2 -> ip2
I0408 14:38:53.480619 13394 net.cpp:122] Setting up ip2
I0408 14:38:53.480624 13394 net.cpp:129] Top shape: 100 10 (1000)
I0408 14:38:53.480626 13394 net.cpp:137] Memory required for data: 16398800
I0408 14:38:53.480629 13394 layer_factory.hpp:77] Creating layer relu2
I0408 14:38:53.480633 13394 net.cpp:84] Creating Layer relu2
I0408 14:38:53.480635 13394 net.cpp:406] relu2 <- ip2
I0408 14:38:53.480639 13394 net.cpp:367] relu2 -> ip2 (in-place)
I0408 14:38:53.480643 13394 net.cpp:122] Setting up relu2
I0408 14:38:53.480646 13394 net.cpp:129] Top shape: 100 10 (1000)
I0408 14:38:53.480648 13394 net.cpp:137] Memory required for data: 16402800
I0408 14:38:53.480650 13394 layer_factory.hpp:77] Creating layer ip2_relu2_0_split
I0408 14:38:53.480654 13394 net.cpp:84] Creating Layer ip2_relu2_0_split
I0408 14:38:53.480656 13394 net.cpp:406] ip2_relu2_0_split <- ip2
I0408 14:38:53.480669 13394 net.cpp:380] ip2_relu2_0_split -> ip2_relu2_0_split_0
I0408 14:38:53.480674 13394 net.cpp:380] ip2_relu2_0_split -> ip2_relu2_0_split_1
I0408 14:38:53.480700 13394 net.cpp:122] Setting up ip2_relu2_0_split
I0408 14:38:53.480705 13394 net.cpp:129] Top shape: 100 10 (1000)
I0408 14:38:53.480707 13394 net.cpp:129] Top shape: 100 10 (1000)
I0408 14:38:53.480708 13394 net.cpp:137] Memory required for data: 16410800
I0408 14:38:53.480710 13394 layer_factory.hpp:77] Creating layer accuracy
I0408 14:38:53.480715 13394 net.cpp:84] Creating Layer accuracy
I0408 14:38:53.480717 13394 net.cpp:406] accuracy <- ip2_relu2_0_split_0
I0408 14:38:53.480720 13394 net.cpp:406] accuracy <- label_mnist_1_split_0
I0408 14:38:53.480725 13394 net.cpp:380] accuracy -> accuracy
…
