…
I0408 14:22:12.185427 13113 net.cpp:294] The NetState phase (0) differed from the phase (1) specified by a rule in layer mnist
I0408 14:22:12.185452 13113 net.cpp:294] The NetState phase (0) differed from the phase (1) specified by a rule in layer accuracy
I0408 14:22:12.185520 13113 net.cpp:51] Initializing net from parameters: 
name: "LeNet"
state {
  phase: TRAIN
  level: 0
  stage: ""
}
layer {
  name: "mnist"
  type: "Data"
  top: "data"
  top: "label"
  include {
    phase: TRAIN
  }
  transform_param {
    scale: 0.00390625
  }
  data_param {
    source: "examples/mnist/mnist_train_lmdb"
    batch_size: 64
    backend: LMDB
  }
}
layer {
  name: "conv0"
  type: "Convolution"
  bottom: "data"
  top: "conv0"
  param {
    lr_mult: 1
  }
  param {
    lr_mult: 2
  }
  convolution_param {
    num_output: 10
    kernel_size: 5
    stride: 1
    weight_filler {
      type: "xavier"
    }
    bias_filler {
      type: "constant"
    }
  }
}
layer {
  name: "pool0"
  type: "Pooling"
  bottom: "conv0"
  top: "pool0"
  pooling_param {
    pool: MAX
    kernel_size: 2
    stride: 2
  }
}
layer {
  name: "conv1"
  type: "Convolution"
  bottom: "pool0"
  top: "conv1"
  param {
    lr_mult: 1
  }
  param {
    lr_mult: 2
  }
  convolution_param {
    num_output: 10
    kernel_size: 5
    stride: 1
    weight_filler {
      type: "xavier"
    }
    bias_filler {
      type: "constant"
    }
  }
}
layer {
  name: "pool1"
  type: "Pooling"
  bottom: "conv1"
  top: "pool1"
  pooling_param {
    pool: MAX
    kernel_size: 2
    stride: 2
  }
}
layer {
  name: "ip1"
  type: "InnerProduct"
  bottom: "pool1"
  top: "ip1"
  param {
    lr_mult: 1
  }
  param {
    lr_mult: 2
  }
  inner_product_param {
    num_output: 100
    weight_filler {
      type: "xavier"
    }
    bias_filler {
      type: "constant"
    }
  }
}
layer {
  name: "relu1"
  type: "ReLU"
  bottom: "ip1"
  top: "ip1"
}
layer {
  name: "ip2"
  type: "InnerProduct"
  bottom: "ip1"
  top: "ip2"
  param {
    lr_mult: 1
  }
  param {
    lr_mult: 2
  }
  inner_product_param {
    num_output: 10
    weight_filler {
      type: "xavier"
    }
    bias_filler {
      type: "constant"
    }
  }
}
layer {
  name: "relu2"
  type: "ReLU"
  bottom: "ip2"
  top: "ip2"
}
layer {
  name: "loss"
  type: "SoftmaxWithLoss"
  bottom: "ip2"
  bottom: "label"
  top: "loss"
}
I0408 14:22:12.185623 13113 layer_factory.hpp:77] Creating layer mnist
I0408 14:22:12.185744 13113 db_lmdb.cpp:35] Opened lmdb examples/mnist/mnist_train_lmdb
I0408 14:22:12.185766 13113 net.cpp:84] Creating Layer mnist
I0408 14:22:12.185775 13113 net.cpp:380] mnist -> data
I0408 14:22:12.185798 13113 net.cpp:380] mnist -> label
I0408 14:22:12.186300 13113 data_layer.cpp:45] output data size: 64,1,28,28
I0408 14:22:12.188633 13113 net.cpp:122] Setting up mnist
I0408 14:22:12.188665 13113 net.cpp:129] Top shape: 64 1 28 28 (50176)
I0408 14:22:12.188669 13113 net.cpp:129] Top shape: 64 (64)
I0408 14:22:12.188673 13113 net.cpp:137] Memory required for data: 200960
I0408 14:22:12.188683 13113 layer_factory.hpp:77] Creating layer conv0
I0408 14:22:12.188716 13113 net.cpp:84] Creating Layer conv0
I0408 14:22:12.188724 13113 net.cpp:406] conv0 <- data
I0408 14:22:12.188736 13113 net.cpp:380] conv0 -> conv0
I0408 14:22:12.189398 13113 net.cpp:122] Setting up conv0
I0408 14:22:12.189422 13113 net.cpp:129] Top shape: 64 10 24 24 (368640)
I0408 14:22:12.189425 13113 net.cpp:137] Memory required for data: 1675520
I0408 14:22:12.189487 13113 layer_factory.hpp:77] Creating layer pool0
I0408 14:22:12.189513 13113 net.cpp:84] Creating Layer pool0
I0408 14:22:12.189519 13113 net.cpp:406] pool0 <- conv0
I0408 14:22:12.189527 13113 net.cpp:380] pool0 -> pool0
I0408 14:22:12.189599 13113 net.cpp:122] Setting up pool0
I0408 14:22:12.189605 13113 net.cpp:129] Top shape: 64 10 12 12 (92160)
I0408 14:22:12.189623 13113 net.cpp:137] Memory required for data: 2044160
I0408 14:22:12.189627 13113 layer_factory.hpp:77] Creating layer conv1
I0408 14:22:12.189656 13113 net.cpp:84] Creating Layer conv1
I0408 14:22:12.189659 13113 net.cpp:406] conv1 <- pool0
I0408 14:22:12.189666 13113 net.cpp:380] conv1 -> conv1
I0408 14:22:12.190548 13113 net.cpp:122] Setting up conv1
I0408 14:22:12.190558 13113 net.cpp:129] Top shape: 64 10 8 8 (40960)
I0408 14:22:12.190562 13113 net.cpp:137] Memory required for data: 2208000
I0408 14:22:12.190592 13113 layer_factory.hpp:77] Creating layer pool1
I0408 14:22:12.190603 13113 net.cpp:84] Creating Layer pool1
I0408 14:22:12.190606 13113 net.cpp:406] pool1 <- conv1
I0408 14:22:12.190613 13113 net.cpp:380] pool1 -> pool1
I0408 14:22:12.190673 13113 net.cpp:122] Setting up pool1
I0408 14:22:12.190680 13113 net.cpp:129] Top shape: 64 10 4 4 (10240)
I0408 14:22:12.190683 13113 net.cpp:137] Memory required for data: 2248960
I0408 14:22:12.190704 13113 layer_factory.hpp:77] Creating layer ip1
I0408 14:22:12.190727 13113 net.cpp:84] Creating Layer ip1
I0408 14:22:12.190732 13113 net.cpp:406] ip1 <- pool1
I0408 14:22:12.190738 13113 net.cpp:380] ip1 -> ip1
I0408 14:22:12.191349 13113 net.cpp:122] Setting up ip1
I0408 14:22:12.191359 13113 net.cpp:129] Top shape: 64 100 (6400)
I0408 14:22:12.191360 13113 net.cpp:137] Memory required for data: 2274560
I0408 14:22:12.191370 13113 layer_factory.hpp:77] Creating layer relu1
I0408 14:22:12.191393 13113 net.cpp:84] Creating Layer relu1
I0408 14:22:12.191401 13113 net.cpp:406] relu1 <- ip1
I0408 14:22:12.191421 13113 net.cpp:367] relu1 -> ip1 (in-place)
I0408 14:22:12.191428 13113 net.cpp:122] Setting up relu1
I0408 14:22:12.191433 13113 net.cpp:129] Top shape: 64 100 (6400)
I0408 14:22:12.191437 13113 net.cpp:137] Memory required for data: 2300160
I0408 14:22:12.191442 13113 layer_factory.hpp:77] Creating layer ip2
I0408 14:22:12.191447 13113 net.cpp:84] Creating Layer ip2
I0408 14:22:12.191452 13113 net.cpp:406] ip2 <- ip1
I0408 14:22:12.191458 13113 net.cpp:380] ip2 -> ip2
I0408 14:22:12.191598 13113 net.cpp:122] Setting up ip2
I0408 14:22:12.191604 13113 net.cpp:129] Top shape: 64 10 (640)
I0408 14:22:12.191606 13113 net.cpp:137] Memory required for data: 2302720
I0408 14:22:12.191613 13113 layer_factory.hpp:77] Creating layer relu2
I0408 14:22:12.191634 13113 net.cpp:84] Creating Layer relu2
I0408 14:22:12.191653 13113 net.cpp:406] relu2 <- ip2
I0408 14:22:12.191658 13113 net.cpp:367] relu2 -> ip2 (in-place)
I0408 14:22:12.191664 13113 net.cpp:122] Setting up relu2
I0408 14:22:12.191669 13113 net.cpp:129] Top shape: 64 10 (640)
I0408 14:22:12.191673 13113 net.cpp:137] Memory required for data: 2305280
I0408 14:22:12.191675 13113 layer_factory.hpp:77] Creating layer loss
I0408 14:22:12.191681 13113 net.cpp:84] Creating Layer loss
I0408 14:22:12.191685 13113 net.cpp:406] loss <- ip2
I0408 14:22:12.191689 13113 net.cpp:406] loss <- label
I0408 14:22:12.191695 13113 net.cpp:380] loss -> loss
I0408 14:22:12.191740 13113 layer_factory.hpp:77] Creating layer loss
…
I0408 14:22:12.192090 13113 solver.cpp:173] Creating test net (#0) specified by net file: ECE595/mnist/train_test/var_num_feature/lenet_train_test_featuresize10.prototxt
I0408 14:22:12.192128 13113 net.cpp:294] The NetState phase (1) differed from the phase (0) specified by a rule in layer mnist
I0408 14:22:12.192229 13113 net.cpp:51] Initializing net from parameters: 
name: "LeNet"
state {
  phase: TEST
}
layer {
  name: "mnist"
  type: "Data"
  top: "data"
  top: "label"
  include {
    phase: TEST
  }
  transform_param {
    scale: 0.00390625
  }
  data_param {
    source: "examples/mnist/mnist_test_lmdb"
    batch_size: 100
    backend: LMDB
  }
}
layer {
  name: "conv0"
  type: "Convolution"
  bottom: "data"
  top: "conv0"
  param {
    lr_mult: 1
  }
  param {
    lr_mult: 2
  }
  convolution_param {
    num_output: 10
    kernel_size: 5
    stride: 1
    weight_filler {
      type: "xavier"
    }
    bias_filler {
      type: "constant"
    }
  }
}
layer {
  name: "pool0"
  type: "Pooling"
  bottom: "conv0"
  top: "pool0"
  pooling_param {
    pool: MAX
    kernel_size: 2
    stride: 2
  }
}
layer {
  name: "conv1"
  type: "Convolution"
  bottom: "pool0"
  top: "conv1"
  param {
    lr_mult: 1
  }
  param {
    lr_mult: 2
  }
  convolution_param {
    num_output: 10
    kernel_size: 5
    stride: 1
    weight_filler {
      type: "xavier"
    }
    bias_filler {
      type: "constant"
    }
  }
}
layer {
  name: "pool1"
  type: "Pooling"
  bottom: "conv1"
  top: "pool1"
  pooling_param {
    pool: MAX
    kernel_size: 2
    stride: 2
  }
}
layer {
  name: "ip1"
  type: "InnerProduct"
  bottom: "pool1"
  top: "ip1"
  param {
    lr_mult: 1
  }
  param {
    lr_mult: 2
  }
  inner_product_param {
    num_output: 100
    weight_filler {
      type: "xavier"
    }
    bias_filler {
      type: "constant"
    }
  }
}
layer {
  name: "relu1"
  type: "ReLU"
  bottom: "ip1"
  top: "ip1"
}
layer {
  name: "ip2"
  type: "InnerProduct"
  bottom: "ip1"
  top: "ip2"
  param {
    lr_mult: 1
  }
  param {
    lr_mult: 2
  }
  inner_product_param {
    num_output: 10
    weight_filler {
      type: "xavier"
    }
    bias_filler {
      type: "constant"
    }
  }
}
layer {
  name: "relu2"
  type: "ReLU"
  bottom: "ip2"
  top: "ip2"
}
layer {
  name: "accuracy"
  type: "Accuracy"
  bottom: "ip2"
  bottom: "label"
  top: "accuracy"
  include {
    phase: TEST
  }
}
layer {
  name: "loss"
  type: "SoftmaxWithLoss"
  bottom: "ip2"
  bottom: "label"
  top: "loss"
}
I0408 14:22:12.192312 13113 layer_factory.hpp:77] Creating layer mnist
I0408 14:22:12.192364 13113 db_lmdb.cpp:35] Opened lmdb examples/mnist/mnist_test_lmdb
I0408 14:22:12.192376 13113 net.cpp:84] Creating Layer mnist
I0408 14:22:12.192381 13113 net.cpp:380] mnist -> data
I0408 14:22:12.192391 13113 net.cpp:380] mnist -> label
I0408 14:22:12.192526 13113 data_layer.cpp:45] output data size: 100,1,28,28
I0408 14:22:12.194306 13113 net.cpp:122] Setting up mnist
I0408 14:22:12.194319 13113 net.cpp:129] Top shape: 100 1 28 28 (78400)
I0408 14:22:12.194324 13113 net.cpp:129] Top shape: 100 (100)
I0408 14:22:12.194326 13113 net.cpp:137] Memory required for data: 314000
I0408 14:22:12.194330 13113 layer_factory.hpp:77] Creating layer label_mnist_1_split
I0408 14:22:12.194339 13113 net.cpp:84] Creating Layer label_mnist_1_split
I0408 14:22:12.194345 13113 net.cpp:406] label_mnist_1_split <- label
I0408 14:22:12.194351 13113 net.cpp:380] label_mnist_1_split -> label_mnist_1_split_0
I0408 14:22:12.194360 13113 net.cpp:380] label_mnist_1_split -> label_mnist_1_split_1
I0408 14:22:12.194408 13113 net.cpp:122] Setting up label_mnist_1_split
I0408 14:22:12.194414 13113 net.cpp:129] Top shape: 100 (100)
I0408 14:22:12.194418 13113 net.cpp:129] Top shape: 100 (100)
I0408 14:22:12.194420 13113 net.cpp:137] Memory required for data: 314800
I0408 14:22:12.194424 13113 layer_factory.hpp:77] Creating layer conv0
I0408 14:22:12.194437 13113 net.cpp:84] Creating Layer conv0
I0408 14:22:12.194440 13113 net.cpp:406] conv0 <- data
I0408 14:22:12.194448 13113 net.cpp:380] conv0 -> conv0
I0408 14:22:12.194617 13113 net.cpp:122] Setting up conv0
I0408 14:22:12.194625 13113 net.cpp:129] Top shape: 100 10 24 24 (576000)
I0408 14:22:12.194628 13113 net.cpp:137] Memory required for data: 2618800
I0408 14:22:12.194638 13113 layer_factory.hpp:77] Creating layer pool0
I0408 14:22:12.194644 13113 net.cpp:84] Creating Layer pool0
I0408 14:22:12.194649 13113 net.cpp:406] pool0 <- conv0
I0408 14:22:12.194656 13113 net.cpp:380] pool0 -> pool0
I0408 14:22:12.194691 13113 net.cpp:122] Setting up pool0
I0408 14:22:12.194699 13113 net.cpp:129] Top shape: 100 10 12 12 (144000)
I0408 14:22:12.194703 13113 net.cpp:137] Memory required for data: 3194800
I0408 14:22:12.194706 13113 layer_factory.hpp:77] Creating layer conv1
I0408 14:22:12.194715 13113 net.cpp:84] Creating Layer conv1
I0408 14:22:12.194720 13113 net.cpp:406] conv1 <- pool0
I0408 14:22:12.194726 13113 net.cpp:380] conv1 -> conv1
I0408 14:22:12.194906 13113 net.cpp:122] Setting up conv1
I0408 14:22:12.194912 13113 net.cpp:129] Top shape: 100 10 8 8 (64000)
I0408 14:22:12.194916 13113 net.cpp:137] Memory required for data: 3450800
I0408 14:22:12.194924 13113 layer_factory.hpp:77] Creating layer pool1
I0408 14:22:12.194932 13113 net.cpp:84] Creating Layer pool1
I0408 14:22:12.194936 13113 net.cpp:406] pool1 <- conv1
I0408 14:22:12.194941 13113 net.cpp:380] pool1 -> pool1
I0408 14:22:12.194973 13113 net.cpp:122] Setting up pool1
I0408 14:22:12.194979 13113 net.cpp:129] Top shape: 100 10 4 4 (16000)
I0408 14:22:12.194983 13113 net.cpp:137] Memory required for data: 3514800
I0408 14:22:12.194985 13113 layer_factory.hpp:77] Creating layer ip1
I0408 14:22:12.194993 13113 net.cpp:84] Creating Layer ip1
I0408 14:22:12.194998 13113 net.cpp:406] ip1 <- pool1
I0408 14:22:12.195003 13113 net.cpp:380] ip1 -> ip1
I0408 14:22:12.195158 13113 net.cpp:122] Setting up ip1
I0408 14:22:12.195164 13113 net.cpp:129] Top shape: 100 100 (10000)
I0408 14:22:12.195168 13113 net.cpp:137] Memory required for data: 3554800
I0408 14:22:12.195175 13113 layer_factory.hpp:77] Creating layer relu1
I0408 14:22:12.195183 13113 net.cpp:84] Creating Layer relu1
I0408 14:22:12.195188 13113 net.cpp:406] relu1 <- ip1
I0408 14:22:12.195194 13113 net.cpp:367] relu1 -> ip1 (in-place)
I0408 14:22:12.195201 13113 net.cpp:122] Setting up relu1
I0408 14:22:12.195206 13113 net.cpp:129] Top shape: 100 100 (10000)
I0408 14:22:12.195210 13113 net.cpp:137] Memory required for data: 3594800
I0408 14:22:12.195214 13113 layer_factory.hpp:77] Creating layer ip2
I0408 14:22:12.195221 13113 net.cpp:84] Creating Layer ip2
I0408 14:22:12.195225 13113 net.cpp:406] ip2 <- ip1
I0408 14:22:12.195231 13113 net.cpp:380] ip2 -> ip2
I0408 14:22:12.195309 13113 net.cpp:122] Setting up ip2
I0408 14:22:12.195315 13113 net.cpp:129] Top shape: 100 10 (1000)
I0408 14:22:12.195318 13113 net.cpp:137] Memory required for data: 3598800
I0408 14:22:12.195325 13113 layer_factory.hpp:77] Creating layer relu2
I0408 14:22:12.195332 13113 net.cpp:84] Creating Layer relu2
I0408 14:22:12.195335 13113 net.cpp:406] relu2 <- ip2
I0408 14:22:12.195343 13113 net.cpp:367] relu2 -> ip2 (in-place)
I0408 14:22:12.195349 13113 net.cpp:122] Setting up relu2
I0408 14:22:12.195354 13113 net.cpp:129] Top shape: 100 10 (1000)
I0408 14:22:12.195358 13113 net.cpp:137] Memory required for data: 3602800
I0408 14:22:12.195360 13113 layer_factory.hpp:77] Creating layer ip2_relu2_0_split
I0408 14:22:12.195365 13113 net.cpp:84] Creating Layer ip2_relu2_0_split
I0408 14:22:12.195369 13113 net.cpp:406] ip2_relu2_0_split <- ip2
I0408 14:22:12.195374 13113 net.cpp:380] ip2_relu2_0_split -> ip2_relu2_0_split_0
I0408 14:22:12.195389 13113 net.cpp:380] ip2_relu2_0_split -> ip2_relu2_0_split_1
I0408 14:22:12.195418 13113 net.cpp:122] Setting up ip2_relu2_0_split
I0408 14:22:12.195423 13113 net.cpp:129] Top shape: 100 10 (1000)
I0408 14:22:12.195427 13113 net.cpp:129] Top shape: 100 10 (1000)
I0408 14:22:12.195430 13113 net.cpp:137] Memory required for data: 3610800
I0408 14:22:12.195435 13113 layer_factory.hpp:77] Creating layer accuracy
I0408 14:22:12.195441 13113 net.cpp:84] Creating Layer accuracy
I0408 14:22:12.195446 13113 net.cpp:406] accuracy <- ip2_relu2_0_split_0
I0408 14:22:12.195451 13113 net.cpp:406] accuracy <- label_mnist_1_split_0
I0408 14:22:12.195457 13113 net.cpp:380] accuracy -> accuracy
…
