…
I0426 10:42:00.706236 23839 net.cpp:313] The NetState phase (0) differed from the phase (1) specified by a rule in layer mnist
I0426 10:42:00.706302 23839 net.cpp:313] The NetState phase (0) differed from the phase (1) specified by a rule in layer accuracy
I0426 10:42:00.706481 23839 net.cpp:49] Initializing net from parameters: 
name: "LeNet"
state {
  phase: TRAIN
}
layer {
  name: "mnist"
  type: "Data"
  top: "data"
  top: "label"
  include {
    phase: TRAIN
  }
  transform_param {
    scale: 0.00390625
  }
  data_param {
    source: "examples/mnist/mnist_train_lmdb"
    batch_size: 64
    backend: LMDB
  }
}
layer {
  name: "conv0"
  type: "Convolution"
  bottom: "data"
  top: "conv0"
  param {
    lr_mult: 1
  }
  param {
    lr_mult: 2
  }
  convolution_param {
    num_output: 50
    kernel_size: 5
    stride: 1
    weight_filler {
      type: "xavier"
    }
    bias_filler {
      type: "constant"
    }
  }
}
layer {
  name: "pool0"
  type: "Pooling"
  bottom: "conv0"
  top: "pool0"
  pooling_param {
    pool: MAX
    kernel_size: 2
    stride: 2
  }
}
layer {
  name: "conv1"
  type: "Convolution"
  bottom: "pool0"
  top: "conv1"
  param {
    lr_mult: 1
  }
  param {
    lr_mult: 2
  }
  convolution_param {
    num_output: 50
    kernel_size: 5
    stride: 1
    weight_filler {
      type: "xavier"
    }
    bias_filler {
      type: "constant"
    }
  }
}
layer {
  name: "pool1"
  type: "Pooling"
  bottom: "conv1"
  top: "pool1"
  pooling_param {
    pool: MAX
    kernel_size: 2
    stride: 2
  }
}
layer {
  name: "ip1"
  type: "InnerProduct"
  bottom: "pool1"
  top: "ip1"
  param {
    lr_mult: 1
  }
  param {
    lr_mult: 2
  }
  inner_product_param {
    num_output: 300
    weight_filler {
      type: "xavier"
    }
    bias_filler {
      type: "constant"
    }
  }
}
layer {
  name: "relu1"
  type: "ReLU"
  bottom: "ip1"
  top: "ip1"
}
layer {
  name: "ip2"
  type: "InnerProduct"
  bottom: "ip1"
  top: "ip2"
  param {
    lr_mult: 1
  }
  param {
    lr_mult: 2
  }
  inner_product_param {
    num_output: 10
    weight_filler {
      type: "xavier"
    }
    bias_filler {
      type: "constant"
    }
  }
}
layer {
  name: "relu2"
  type: "ReLU"
  bottom: "ip2"
  top: "ip2"
}
layer {
  name: "loss"
  type: "SoftmaxWithLoss"
  bottom: "ip2"
  bottom: "label"
  top: "loss"
}
I0426 10:42:00.707032 23839 layer_factory.hpp:77] Creating layer mnist
I0426 10:42:00.708366 23839 net.cpp:91] Creating Layer mnist
I0426 10:42:00.708421 23839 net.cpp:399] mnist -> data
I0426 10:42:00.708555 23839 net.cpp:399] mnist -> label
I0426 10:42:00.712129 23872 db_lmdb.cpp:35] Opened lmdb examples/mnist/mnist_train_lmdb
I0426 10:42:00.712857 23839 data_layer.cpp:41] output data size: 64,1,28,28
I0426 10:42:00.713237 23839 base_data_layer.cpp:69] Initializing prefetch
I0426 10:42:00.713296 23839 base_data_layer.cpp:72] Prefetch initialized.
I0426 10:42:00.713315 23839 net.cpp:141] Setting up mnist
I0426 10:42:00.713346 23839 net.cpp:148] Top shape: 64 1 28 28 (50176)
I0426 10:42:00.713366 23839 net.cpp:148] Top shape: 64 (64)
I0426 10:42:00.713374 23839 net.cpp:156] Memory required for data: 200960
I0426 10:42:00.713395 23839 layer_factory.hpp:77] Creating layer conv0
I0426 10:42:00.713452 23839 net.cpp:91] Creating Layer conv0
I0426 10:42:00.713477 23839 net.cpp:425] conv0 <- data
I0426 10:42:00.713523 23839 net.cpp:399] conv0 -> conv0
I0426 10:42:00.713835 23839 net.cpp:141] Setting up conv0
I0426 10:42:00.713860 23839 net.cpp:148] Top shape: 64 50 24 24 (1843200)
I0426 10:42:00.713866 23839 net.cpp:156] Memory required for data: 7573760
I0426 10:42:00.713937 23839 layer_factory.hpp:77] Creating layer pool0
I0426 10:42:00.713973 23839 net.cpp:91] Creating Layer pool0
I0426 10:42:00.713992 23839 net.cpp:425] pool0 <- conv0
I0426 10:42:00.714025 23839 net.cpp:399] pool0 -> pool0
I0426 10:42:00.714083 23839 net.cpp:141] Setting up pool0
I0426 10:42:00.714107 23839 net.cpp:148] Top shape: 64 50 12 12 (460800)
I0426 10:42:00.714114 23839 net.cpp:156] Memory required for data: 9416960
I0426 10:42:00.714125 23839 layer_factory.hpp:77] Creating layer conv1
I0426 10:42:00.714154 23839 net.cpp:91] Creating Layer conv1
I0426 10:42:00.714174 23839 net.cpp:425] conv1 <- pool0
I0426 10:42:00.714201 23839 net.cpp:399] conv1 -> conv1
I0426 10:42:00.719405 23873 data_layer.cpp:102] Prefetch batch: 3 ms.
I0426 10:42:00.719444 23873 data_layer.cpp:103]      Read time: 1.463 ms.
I0426 10:42:00.719454 23873 data_layer.cpp:104] Transform time: 1.041 ms.
I0426 10:42:00.719846 23839 net.cpp:141] Setting up conv1
I0426 10:42:00.719877 23839 net.cpp:148] Top shape: 64 50 8 8 (204800)
I0426 10:42:00.719884 23839 net.cpp:156] Memory required for data: 10236160
I0426 10:42:00.719920 23839 layer_factory.hpp:77] Creating layer pool1
I0426 10:42:00.719954 23839 net.cpp:91] Creating Layer pool1
I0426 10:42:00.719972 23839 net.cpp:425] pool1 <- conv1
I0426 10:42:00.719996 23839 net.cpp:399] pool1 -> pool1
I0426 10:42:00.720041 23839 net.cpp:141] Setting up pool1
I0426 10:42:00.720062 23839 net.cpp:148] Top shape: 64 50 4 4 (51200)
I0426 10:42:00.720069 23839 net.cpp:156] Memory required for data: 10440960
I0426 10:42:00.720080 23839 layer_factory.hpp:77] Creating layer ip1
I0426 10:42:00.720105 23839 net.cpp:91] Creating Layer ip1
I0426 10:42:00.720124 23839 net.cpp:425] ip1 <- pool1
I0426 10:42:00.720150 23839 net.cpp:399] ip1 -> ip1
I0426 10:42:00.723095 23873 data_layer.cpp:102] Prefetch batch: 3 ms.
I0426 10:42:00.723117 23873 data_layer.cpp:103]      Read time: 1.042 ms.
I0426 10:42:00.723125 23873 data_layer.cpp:104] Transform time: 1.032 ms.
I0426 10:42:00.726760 23873 data_layer.cpp:102] Prefetch batch: 3 ms.
I0426 10:42:00.726780 23873 data_layer.cpp:103]      Read time: 0.201 ms.
I0426 10:42:00.726789 23873 data_layer.cpp:104] Transform time: 1.036 ms.
I0426 10:42:00.754945 23839 net.cpp:141] Setting up ip1
I0426 10:42:00.754964 23839 net.cpp:148] Top shape: 64 300 (19200)
I0426 10:42:00.754972 23839 net.cpp:156] Memory required for data: 10517760
I0426 10:42:00.755007 23839 layer_factory.hpp:77] Creating layer relu1
I0426 10:42:00.755034 23839 net.cpp:91] Creating Layer relu1
I0426 10:42:00.755049 23839 net.cpp:425] relu1 <- ip1
I0426 10:42:00.755071 23839 net.cpp:386] relu1 -> ip1 (in-place)
I0426 10:42:00.755097 23839 net.cpp:141] Setting up relu1
I0426 10:42:00.755112 23839 net.cpp:148] Top shape: 64 300 (19200)
I0426 10:42:00.755120 23839 net.cpp:156] Memory required for data: 10594560
I0426 10:42:00.755131 23839 layer_factory.hpp:77] Creating layer ip2
I0426 10:42:00.755153 23839 net.cpp:91] Creating Layer ip2
I0426 10:42:00.755163 23839 net.cpp:425] ip2 <- ip1
I0426 10:42:00.755188 23839 net.cpp:399] ip2 -> ip2
I0426 10:42:00.755515 23839 net.cpp:141] Setting up ip2
I0426 10:42:00.755534 23839 net.cpp:148] Top shape: 64 10 (640)
I0426 10:42:00.755542 23839 net.cpp:156] Memory required for data: 10597120
I0426 10:42:00.755564 23839 layer_factory.hpp:77] Creating layer relu2
I0426 10:42:00.755589 23839 net.cpp:91] Creating Layer relu2
I0426 10:42:00.755604 23839 net.cpp:425] relu2 <- ip2
I0426 10:42:00.755625 23839 net.cpp:386] relu2 -> ip2 (in-place)
I0426 10:42:00.755656 23839 net.cpp:141] Setting up relu2
I0426 10:42:00.755671 23839 net.cpp:148] Top shape: 64 10 (640)
I0426 10:42:00.755677 23839 net.cpp:156] Memory required for data: 10599680
I0426 10:42:00.755687 23839 layer_factory.hpp:77] Creating layer loss
I0426 10:42:00.755713 23839 net.cpp:91] Creating Layer loss
I0426 10:42:00.755724 23839 net.cpp:425] loss <- ip2
I0426 10:42:00.755743 23839 net.cpp:425] loss <- label
I0426 10:42:00.755764 23839 net.cpp:399] loss -> loss
I0426 10:42:00.755806 23839 layer_factory.hpp:77] Creating layer loss
…
I0426 10:42:00.762751 23839 solver.cpp:181] Creating test net (#0) specified by net file: ECE595/mnist/train_test/var_fcn/lenet_train_test_fcn300.prototxt
I0426 10:42:00.762850 23839 net.cpp:313] The NetState phase (1) differed from the phase (0) specified by a rule in layer mnist
I0426 10:42:00.763068 23839 net.cpp:49] Initializing net from parameters: 
name: "LeNet"
state {
  phase: TEST
}
layer {
  name: "mnist"
  type: "Data"
  top: "data"
  top: "label"
  include {
    phase: TEST
  }
  transform_param {
    scale: 0.00390625
  }
  data_param {
    source: "examples/mnist/mnist_test_lmdb"
    batch_size: 100
    backend: LMDB
  }
}
layer {
  name: "conv0"
  type: "Convolution"
  bottom: "data"
  top: "conv0"
  param {
    lr_mult: 1
  }
  param {
    lr_mult: 2
  }
  convolution_param {
    num_output: 50
    kernel_size: 5
    stride: 1
    weight_filler {
      type: "xavier"
    }
    bias_filler {
      type: "constant"
    }
  }
}
layer {
  name: "pool0"
  type: "Pooling"
  bottom: "conv0"
  top: "pool0"
  pooling_param {
    pool: MAX
    kernel_size: 2
    stride: 2
  }
}
layer {
  name: "conv1"
  type: "Convolution"
  bottom: "pool0"
  top: "conv1"
  param {
    lr_mult: 1
  }
  param {
    lr_mult: 2
  }
  convolution_param {
    num_output: 50
    kernel_size: 5
    stride: 1
    weight_filler {
      type: "xavier"
    }
    bias_filler {
      type: "constant"
    }
  }
}
layer {
  name: "pool1"
  type: "Pooling"
  bottom: "conv1"
  top: "pool1"
  pooling_param {
    pool: MAX
    kernel_size: 2
    stride: 2
  }
}
layer {
  name: "ip1"
  type: "InnerProduct"
  bottom: "pool1"
  top: "ip1"
  param {
    lr_mult: 1
  }
  param {
    lr_mult: 2
  }
  inner_product_param {
    num_output: 300
    weight_filler {
      type: "xavier"
    }
    bias_filler {
      type: "constant"
    }
  }
}
layer {
  name: "relu1"
  type: "ReLU"
  bottom: "ip1"
  top: "ip1"
}
layer {
  name: "ip2"
  type: "InnerProduct"
  bottom: "ip1"
  top: "ip2"
  param {
    lr_mult: 1
  }
  param {
    lr_mult: 2
  }
  inner_product_param {
    num_output: 10
    weight_filler {
      type: "xavier"
    }
    bias_filler {
      type: "constant"
    }
  }
}
layer {
  name: "relu2"
  type: "ReLU"
  bottom: "ip2"
  top: "ip2"
}
layer {
  name: "accuracy"
  type: "Accuracy"
  bottom: "ip2"
  bottom: "label"
  top: "accuracy"
  include {
    phase: TEST
  }
}
layer {
  name: "loss"
  type: "SoftmaxWithLoss"
  bottom: "ip2"
  bottom: "label"
  top: "loss"
}
I0426 10:42:00.763425 23839 layer_factory.hpp:77] Creating layer mnist
I0426 10:42:00.763826 23839 net.cpp:91] Creating Layer mnist
I0426 10:42:00.763862 23839 net.cpp:399] mnist -> data
I0426 10:42:00.763901 23839 net.cpp:399] mnist -> label
I0426 10:42:00.767782 23874 db_lmdb.cpp:35] Opened lmdb examples/mnist/mnist_test_lmdb
I0426 10:42:00.768414 23839 data_layer.cpp:41] output data size: 100,1,28,28
I0426 10:42:00.768973 23839 base_data_layer.cpp:69] Initializing prefetch
I0426 10:42:00.769037 23839 base_data_layer.cpp:72] Prefetch initialized.
I0426 10:42:00.769053 23839 net.cpp:141] Setting up mnist
I0426 10:42:00.769070 23839 net.cpp:148] Top shape: 100 1 28 28 (78400)
I0426 10:42:00.769083 23839 net.cpp:148] Top shape: 100 (100)
I0426 10:42:00.769090 23839 net.cpp:156] Memory required for data: 314000
I0426 10:42:00.769105 23839 layer_factory.hpp:77] Creating layer label_mnist_1_split
I0426 10:42:00.769137 23839 net.cpp:91] Creating Layer label_mnist_1_split
I0426 10:42:00.769156 23839 net.cpp:425] label_mnist_1_split <- label
I0426 10:42:00.769181 23839 net.cpp:399] label_mnist_1_split -> label_mnist_1_split_0
I0426 10:42:00.769217 23839 net.cpp:399] label_mnist_1_split -> label_mnist_1_split_1
I0426 10:42:00.769254 23839 net.cpp:141] Setting up label_mnist_1_split
I0426 10:42:00.769282 23839 net.cpp:148] Top shape: 100 (100)
I0426 10:42:00.769301 23839 net.cpp:148] Top shape: 100 (100)
I0426 10:42:00.769309 23839 net.cpp:156] Memory required for data: 314800
I0426 10:42:00.769318 23839 layer_factory.hpp:77] Creating layer conv0
I0426 10:42:00.769354 23839 net.cpp:91] Creating Layer conv0
I0426 10:42:00.769373 23839 net.cpp:425] conv0 <- data
I0426 10:42:00.769402 23839 net.cpp:399] conv0 -> conv0
I0426 10:42:00.769646 23839 net.cpp:141] Setting up conv0
I0426 10:42:00.769673 23839 net.cpp:148] Top shape: 100 50 24 24 (2880000)
I0426 10:42:00.769681 23839 net.cpp:156] Memory required for data: 11834800
I0426 10:42:00.769724 23839 layer_factory.hpp:77] Creating layer pool0
I0426 10:42:00.769775 23839 net.cpp:91] Creating Layer pool0
I0426 10:42:00.769800 23839 net.cpp:425] pool0 <- conv0
I0426 10:42:00.769839 23839 net.cpp:399] pool0 -> pool0
I0426 10:42:00.769889 23839 net.cpp:141] Setting up pool0
I0426 10:42:00.769917 23839 net.cpp:148] Top shape: 100 50 12 12 (720000)
I0426 10:42:00.769934 23839 net.cpp:156] Memory required for data: 14714800
I0426 10:42:00.769955 23839 layer_factory.hpp:77] Creating layer conv1
I0426 10:42:00.770004 23839 net.cpp:91] Creating Layer conv1
I0426 10:42:00.770028 23839 net.cpp:425] conv1 <- pool0
I0426 10:42:00.770069 23839 net.cpp:399] conv1 -> conv1
I0426 10:42:00.776178 23839 net.cpp:141] Setting up conv1
I0426 10:42:00.776623 23875 data_layer.cpp:102] Prefetch batch: 4 ms.
I0426 10:42:00.780346 23875 data_layer.cpp:103]      Read time: 2.095 ms.
I0426 10:42:00.780369 23875 data_layer.cpp:104] Transform time: 1.597 ms.
I0426 10:42:00.780357 23839 net.cpp:148] Top shape: 100 50 8 8 (320000)
I0426 10:42:00.780431 23839 net.cpp:156] Memory required for data: 15994800
I0426 10:42:00.780489 23839 layer_factory.hpp:77] Creating layer pool1
I0426 10:42:00.780568 23839 net.cpp:91] Creating Layer pool1
I0426 10:42:00.780618 23839 net.cpp:425] pool1 <- conv1
I0426 10:42:00.780671 23839 net.cpp:399] pool1 -> pool1
I0426 10:42:00.780756 23839 net.cpp:141] Setting up pool1
I0426 10:42:00.780831 23839 net.cpp:148] Top shape: 100 50 4 4 (80000)
I0426 10:42:00.780866 23839 net.cpp:156] Memory required for data: 16314800
I0426 10:42:00.780897 23839 layer_factory.hpp:77] Creating layer ip1
I0426 10:42:00.780947 23839 net.cpp:91] Creating Layer ip1
I0426 10:42:00.780997 23839 net.cpp:425] ip1 <- pool1
I0426 10:42:00.781055 23839 net.cpp:399] ip1 -> ip1
I0426 10:42:00.783346 23875 data_layer.cpp:102] Prefetch batch: 2 ms.
I0426 10:42:00.783375 23875 data_layer.cpp:103]      Read time: 0.315 ms.
I0426 10:42:00.783392 23875 data_layer.cpp:104] Transform time: 1.627 ms.
I0426 10:42:00.788233 23875 data_layer.cpp:102] Prefetch batch: 4 ms.
I0426 10:42:00.788476 23875 data_layer.cpp:103]      Read time: 0.322 ms.
I0426 10:42:00.788506 23875 data_layer.cpp:104] Transform time: 1.624 ms.
I0426 10:42:00.804929 23839 net.cpp:141] Setting up ip1
I0426 10:42:00.804944 23839 net.cpp:148] Top shape: 100 300 (30000)
I0426 10:42:00.804949 23839 net.cpp:156] Memory required for data: 16434800
I0426 10:42:00.804970 23839 layer_factory.hpp:77] Creating layer relu1
I0426 10:42:00.804988 23839 net.cpp:91] Creating Layer relu1
I0426 10:42:00.805003 23839 net.cpp:425] relu1 <- ip1
I0426 10:42:00.805021 23839 net.cpp:386] relu1 -> ip1 (in-place)
I0426 10:42:00.805037 23839 net.cpp:141] Setting up relu1
I0426 10:42:00.805044 23839 net.cpp:148] Top shape: 100 300 (30000)
I0426 10:42:00.805048 23839 net.cpp:156] Memory required for data: 16554800
I0426 10:42:00.805055 23839 layer_factory.hpp:77] Creating layer ip2
I0426 10:42:00.805073 23839 net.cpp:91] Creating Layer ip2
I0426 10:42:00.805081 23839 net.cpp:425] ip2 <- ip1
I0426 10:42:00.805099 23839 net.cpp:399] ip2 -> ip2
I0426 10:42:00.805307 23839 net.cpp:141] Setting up ip2
I0426 10:42:00.805318 23839 net.cpp:148] Top shape: 100 10 (1000)
I0426 10:42:00.805323 23839 net.cpp:156] Memory required for data: 16558800
I0426 10:42:00.805337 23839 layer_factory.hpp:77] Creating layer relu2
I0426 10:42:00.805349 23839 net.cpp:91] Creating Layer relu2
I0426 10:42:00.805357 23839 net.cpp:425] relu2 <- ip2
I0426 10:42:00.805371 23839 net.cpp:386] relu2 -> ip2 (in-place)
I0426 10:42:00.805387 23839 net.cpp:141] Setting up relu2
I0426 10:42:00.805393 23839 net.cpp:148] Top shape: 100 10 (1000)
I0426 10:42:00.805398 23839 net.cpp:156] Memory required for data: 16562800
I0426 10:42:00.805404 23839 layer_factory.hpp:77] Creating layer ip2_relu2_0_split
I0426 10:42:00.805415 23839 net.cpp:91] Creating Layer ip2_relu2_0_split
I0426 10:42:00.805423 23839 net.cpp:425] ip2_relu2_0_split <- ip2
I0426 10:42:00.805435 23839 net.cpp:399] ip2_relu2_0_split -> ip2_relu2_0_split_0
I0426 10:42:00.805451 23839 net.cpp:399] ip2_relu2_0_split -> ip2_relu2_0_split_1
I0426 10:42:00.805469 23839 net.cpp:141] Setting up ip2_relu2_0_split
I0426 10:42:00.805479 23839 net.cpp:148] Top shape: 100 10 (1000)
I0426 10:42:00.805485 23839 net.cpp:148] Top shape: 100 10 (1000)
I0426 10:42:00.805488 23839 net.cpp:156] Memory required for data: 16570800
I0426 10:42:00.805495 23839 layer_factory.hpp:77] Creating layer accuracy
I0426 10:42:00.805513 23839 net.cpp:91] Creating Layer accuracy
I0426 10:42:00.805521 23839 net.cpp:425] accuracy <- ip2_relu2_0_split_0
I0426 10:42:00.805533 23839 net.cpp:425] accuracy <- label_mnist_1_split_0
I0426 10:42:00.805546 23839 net.cpp:399] accuracy -> accuracy
…
