…
I0426 09:33:15.364707 21870 net.cpp:313] The NetState phase (0) differed from the phase (1) specified by a rule in layer mnist
I0426 09:33:15.364760 21870 net.cpp:313] The NetState phase (0) differed from the phase (1) specified by a rule in layer accuracy
I0426 09:33:15.364930 21870 net.cpp:49] Initializing net from parameters: 
name: "LeNet"
state {
  phase: TRAIN
}
layer {
  name: "mnist"
  type: "Data"
  top: "data"
  top: "label"
  include {
    phase: TRAIN
  }
  transform_param {
    scale: 0.00390625
  }
  data_param {
    source: "examples/mnist/mnist_train_lmdb"
    batch_size: 64
    backend: LMDB
  }
}
layer {
  name: "conv0"
  type: "Convolution"
  bottom: "data"
  top: "conv0"
  param {
    lr_mult: 1
  }
  param {
    lr_mult: 2
  }
  convolution_param {
    num_output: 50
    kernel_size: 5
    stride: 1
    weight_filler {
      type: "xavier"
    }
    bias_filler {
      type: "constant"
    }
  }
}
layer {
  name: "pool0"
  type: "Pooling"
  bottom: "conv0"
  top: "pool0"
  pooling_param {
    pool: MAX
    kernel_size: 2
    stride: 2
  }
}
layer {
  name: "conv1"
  type: "Convolution"
  bottom: "pool0"
  top: "conv1"
  param {
    lr_mult: 1
  }
  param {
    lr_mult: 2
  }
  convolution_param {
    num_output: 50
    kernel_size: 5
    stride: 1
    weight_filler {
      type: "xavier"
    }
    bias_filler {
      type: "constant"
    }
  }
}
layer {
  name: "pool1"
  type: "Pooling"
  bottom: "conv1"
  top: "pool1"
  pooling_param {
    pool: MAX
    kernel_size: 2
    stride: 2
  }
}
layer {
  name: "ip1"
  type: "InnerProduct"
  bottom: "pool1"
  top: "ip1"
  param {
    lr_mult: 1
  }
  param {
    lr_mult: 2
  }
  inner_product_param {
    num_output: 100
    weight_filler {
      type: "xavier"
    }
    bias_filler {
      type: "constant"
    }
  }
}
layer {
  name: "relu1"
  type: "ReLU"
  bottom: "ip1"
  top: "ip1"
}
layer {
  name: "ip2"
  type: "InnerProduct"
  bottom: "ip1"
  top: "ip2"
  param {
    lr_mult: 1
  }
  param {
    lr_mult: 2
  }
  inner_product_param {
    num_output: 10
    weight_filler {
      type: "xavier"
    }
    bias_filler {
      type: "constant"
    }
  }
}
layer {
  name: "relu2"
  type: "ReLU"
  bottom: "ip2"
  top: "ip2"
}
layer {
  name: "loss"
  type: "SoftmaxWithLoss"
  bottom: "ip2"
  bottom: "label"
  top: "loss"
}
I0426 09:33:15.365389 21870 layer_factory.hpp:77] Creating layer mnist
I0426 09:33:15.366696 21870 net.cpp:91] Creating Layer mnist
I0426 09:33:15.366739 21870 net.cpp:399] mnist -> data
I0426 09:33:15.366873 21870 net.cpp:399] mnist -> label
I0426 09:33:15.370388 21903 db_lmdb.cpp:35] Opened lmdb examples/mnist/mnist_train_lmdb
I0426 09:33:15.371119 21870 data_layer.cpp:41] output data size: 64,1,28,28
I0426 09:33:15.371587 21870 base_data_layer.cpp:69] Initializing prefetch
I0426 09:33:15.371654 21870 base_data_layer.cpp:72] Prefetch initialized.
I0426 09:33:15.371672 21870 net.cpp:141] Setting up mnist
I0426 09:33:15.371704 21870 net.cpp:148] Top shape: 64 1 28 28 (50176)
I0426 09:33:15.371726 21870 net.cpp:148] Top shape: 64 (64)
I0426 09:33:15.371733 21870 net.cpp:156] Memory required for data: 200960
I0426 09:33:15.371755 21870 layer_factory.hpp:77] Creating layer conv0
I0426 09:33:15.371801 21870 net.cpp:91] Creating Layer conv0
I0426 09:33:15.371831 21870 net.cpp:425] conv0 <- data
I0426 09:33:15.371879 21870 net.cpp:399] conv0 -> conv0
I0426 09:33:15.372205 21870 net.cpp:141] Setting up conv0
I0426 09:33:15.372231 21870 net.cpp:148] Top shape: 64 50 24 24 (1843200)
I0426 09:33:15.372237 21870 net.cpp:156] Memory required for data: 7573760
I0426 09:33:15.372311 21870 layer_factory.hpp:77] Creating layer pool0
I0426 09:33:15.372349 21870 net.cpp:91] Creating Layer pool0
I0426 09:33:15.372367 21870 net.cpp:425] pool0 <- conv0
I0426 09:33:15.372402 21870 net.cpp:399] pool0 -> pool0
I0426 09:33:15.372460 21870 net.cpp:141] Setting up pool0
I0426 09:33:15.372483 21870 net.cpp:148] Top shape: 64 50 12 12 (460800)
I0426 09:33:15.372491 21870 net.cpp:156] Memory required for data: 9416960
I0426 09:33:15.372503 21870 layer_factory.hpp:77] Creating layer conv1
I0426 09:33:15.372532 21870 net.cpp:91] Creating Layer conv1
I0426 09:33:15.372550 21870 net.cpp:425] conv1 <- pool0
I0426 09:33:15.372580 21870 net.cpp:399] conv1 -> conv1
I0426 09:33:15.376204 21904 data_layer.cpp:102] Prefetch batch: 1 ms.
I0426 09:33:15.376242 21904 data_layer.cpp:103]      Read time: 0.21 ms.
I0426 09:33:15.376255 21904 data_layer.cpp:104] Transform time: 1.043 ms.
I0426 09:33:15.378268 21870 net.cpp:141] Setting up conv1
I0426 09:33:15.378298 21870 net.cpp:148] Top shape: 64 50 8 8 (204800)
I0426 09:33:15.378305 21870 net.cpp:156] Memory required for data: 10236160
I0426 09:33:15.378341 21870 layer_factory.hpp:77] Creating layer pool1
I0426 09:33:15.378373 21870 net.cpp:91] Creating Layer pool1
I0426 09:33:15.378392 21870 net.cpp:425] pool1 <- conv1
I0426 09:33:15.378417 21870 net.cpp:399] pool1 -> pool1
I0426 09:33:15.378461 21870 net.cpp:141] Setting up pool1
I0426 09:33:15.378484 21870 net.cpp:148] Top shape: 64 50 4 4 (51200)
I0426 09:33:15.378491 21870 net.cpp:156] Memory required for data: 10440960
I0426 09:33:15.378501 21870 layer_factory.hpp:77] Creating layer ip1
I0426 09:33:15.378527 21870 net.cpp:91] Creating Layer ip1
I0426 09:33:15.378551 21870 net.cpp:425] ip1 <- pool1
I0426 09:33:15.378577 21870 net.cpp:399] ip1 -> ip1
I0426 09:33:15.381413 21904 data_layer.cpp:102] Prefetch batch: 5 ms.
I0426 09:33:15.381433 21904 data_layer.cpp:103]      Read time: 0.216 ms.
I0426 09:33:15.381443 21904 data_layer.cpp:104] Transform time: 1.059 ms.
I0426 09:33:15.385180 21904 data_layer.cpp:102] Prefetch batch: 3 ms.
I0426 09:33:15.385200 21904 data_layer.cpp:103]      Read time: 0.214 ms.
I0426 09:33:15.385210 21904 data_layer.cpp:104] Transform time: 1.074 ms.
I0426 09:33:15.386837 21870 net.cpp:141] Setting up ip1
I0426 09:33:15.386858 21870 net.cpp:148] Top shape: 64 100 (6400)
I0426 09:33:15.386867 21870 net.cpp:156] Memory required for data: 10466560
I0426 09:33:15.386901 21870 layer_factory.hpp:77] Creating layer relu1
I0426 09:33:15.386927 21870 net.cpp:91] Creating Layer relu1
I0426 09:33:15.386942 21870 net.cpp:425] relu1 <- ip1
I0426 09:33:15.386965 21870 net.cpp:386] relu1 -> ip1 (in-place)
I0426 09:33:15.386991 21870 net.cpp:141] Setting up relu1
I0426 09:33:15.387006 21870 net.cpp:148] Top shape: 64 100 (6400)
I0426 09:33:15.387012 21870 net.cpp:156] Memory required for data: 10492160
I0426 09:33:15.387022 21870 layer_factory.hpp:77] Creating layer ip2
I0426 09:33:15.387044 21870 net.cpp:91] Creating Layer ip2
I0426 09:33:15.387058 21870 net.cpp:425] ip2 <- ip1
I0426 09:33:15.387084 21870 net.cpp:399] ip2 -> ip2
I0426 09:33:15.387233 21870 net.cpp:141] Setting up ip2
I0426 09:33:15.387253 21870 net.cpp:148] Top shape: 64 10 (640)
I0426 09:33:15.387259 21870 net.cpp:156] Memory required for data: 10494720
I0426 09:33:15.387281 21870 layer_factory.hpp:77] Creating layer relu2
I0426 09:33:15.387307 21870 net.cpp:91] Creating Layer relu2
I0426 09:33:15.387321 21870 net.cpp:425] relu2 <- ip2
I0426 09:33:15.387343 21870 net.cpp:386] relu2 -> ip2 (in-place)
I0426 09:33:15.387368 21870 net.cpp:141] Setting up relu2
I0426 09:33:15.387382 21870 net.cpp:148] Top shape: 64 10 (640)
I0426 09:33:15.387390 21870 net.cpp:156] Memory required for data: 10497280
I0426 09:33:15.387400 21870 layer_factory.hpp:77] Creating layer loss
I0426 09:33:15.387424 21870 net.cpp:91] Creating Layer loss
I0426 09:33:15.387439 21870 net.cpp:425] loss <- ip2
I0426 09:33:15.387457 21870 net.cpp:425] loss <- label
I0426 09:33:15.387481 21870 net.cpp:399] loss -> loss
I0426 09:33:15.387528 21870 layer_factory.hpp:77] Creating layer loss
…
I0426 09:33:15.393674 21870 solver.cpp:181] Creating test net (#0) specified by net file: ECE595/mnist/train_test/var_fcn/lenet_train_test_fcn100.prototxt
I0426 09:33:15.393770 21870 net.cpp:313] The NetState phase (1) differed from the phase (0) specified by a rule in layer mnist
I0426 09:33:15.393990 21870 net.cpp:49] Initializing net from parameters: 
name: "LeNet"
state {
  phase: TEST
}
layer {
  name: "mnist"
  type: "Data"
  top: "data"
  top: "label"
  include {
    phase: TEST
  }
  transform_param {
    scale: 0.00390625
  }
  data_param {
    source: "examples/mnist/mnist_test_lmdb"
    batch_size: 100
    backend: LMDB
  }
}
layer {
  name: "conv0"
  type: "Convolution"
  bottom: "data"
  top: "conv0"
  param {
    lr_mult: 1
  }
  param {
    lr_mult: 2
  }
  convolution_param {
    num_output: 50
    kernel_size: 5
    stride: 1
    weight_filler {
      type: "xavier"
    }
    bias_filler {
      type: "constant"
    }
  }
}
layer {
  name: "pool0"
  type: "Pooling"
  bottom: "conv0"
  top: "pool0"
  pooling_param {
    pool: MAX
    kernel_size: 2
    stride: 2
  }
}
layer {
  name: "conv1"
  type: "Convolution"
  bottom: "pool0"
  top: "conv1"
  param {
    lr_mult: 1
  }
  param {
    lr_mult: 2
  }
  convolution_param {
    num_output: 50
    kernel_size: 5
    stride: 1
    weight_filler {
      type: "xavier"
    }
    bias_filler {
      type: "constant"
    }
  }
}
layer {
  name: "pool1"
  type: "Pooling"
  bottom: "conv1"
  top: "pool1"
  pooling_param {
    pool: MAX
    kernel_size: 2
    stride: 2
  }
}
layer {
  name: "ip1"
  type: "InnerProduct"
  bottom: "pool1"
  top: "ip1"
  param {
    lr_mult: 1
  }
  param {
    lr_mult: 2
  }
  inner_product_param {
    num_output: 100
    weight_filler {
      type: "xavier"
    }
    bias_filler {
      type: "constant"
    }
  }
}
layer {
  name: "relu1"
  type: "ReLU"
  bottom: "ip1"
  top: "ip1"
}
layer {
  name: "ip2"
  type: "InnerProduct"
  bottom: "ip1"
  top: "ip2"
  param {
    lr_mult: 1
  }
  param {
    lr_mult: 2
  }
  inner_product_param {
    num_output: 10
    weight_filler {
      type: "xavier"
    }
    bias_filler {
      type: "constant"
    }
  }
}
layer {
  name: "relu2"
  type: "ReLU"
  bottom: "ip2"
  top: "ip2"
}
layer {
  name: "accuracy"
  type: "Accuracy"
  bottom: "ip2"
  bottom: "label"
  top: "accuracy"
  include {
    phase: TEST
  }
}
layer {
  name: "loss"
  type: "SoftmaxWithLoss"
  bottom: "ip2"
  bottom: "label"
  top: "loss"
}
I0426 09:33:15.394340 21870 layer_factory.hpp:77] Creating layer mnist
I0426 09:33:15.394693 21870 net.cpp:91] Creating Layer mnist
I0426 09:33:15.394723 21870 net.cpp:399] mnist -> data
I0426 09:33:15.396373 21870 net.cpp:399] mnist -> label
I0426 09:33:15.398296 21905 db_lmdb.cpp:35] Opened lmdb examples/mnist/mnist_test_lmdb
I0426 09:33:15.398859 21870 data_layer.cpp:41] output data size: 100,1,28,28
I0426 09:33:15.399524 21870 base_data_layer.cpp:69] Initializing prefetch
I0426 09:33:15.399602 21870 base_data_layer.cpp:72] Prefetch initialized.
I0426 09:33:15.399619 21870 net.cpp:141] Setting up mnist
I0426 09:33:15.399633 21870 net.cpp:148] Top shape: 100 1 28 28 (78400)
I0426 09:33:15.399653 21870 net.cpp:148] Top shape: 100 (100)
I0426 09:33:15.399660 21870 net.cpp:156] Memory required for data: 314000
I0426 09:33:15.399675 21870 layer_factory.hpp:77] Creating layer label_mnist_1_split
I0426 09:33:15.399710 21870 net.cpp:91] Creating Layer label_mnist_1_split
I0426 09:33:15.399730 21870 net.cpp:425] label_mnist_1_split <- label
I0426 09:33:15.399754 21870 net.cpp:399] label_mnist_1_split -> label_mnist_1_split_0
I0426 09:33:15.399781 21870 net.cpp:399] label_mnist_1_split -> label_mnist_1_split_1
I0426 09:33:15.399840 21870 net.cpp:141] Setting up label_mnist_1_split
I0426 09:33:15.399868 21870 net.cpp:148] Top shape: 100 (100)
I0426 09:33:15.399890 21870 net.cpp:148] Top shape: 100 (100)
I0426 09:33:15.399909 21870 net.cpp:156] Memory required for data: 314800
I0426 09:33:15.399929 21870 layer_factory.hpp:77] Creating layer conv0
I0426 09:33:15.399979 21870 net.cpp:91] Creating Layer conv0
I0426 09:33:15.400003 21870 net.cpp:425] conv0 <- data
I0426 09:33:15.400049 21870 net.cpp:399] conv0 -> conv0
I0426 09:33:15.400285 21870 net.cpp:141] Setting up conv0
I0426 09:33:15.400316 21870 net.cpp:148] Top shape: 100 50 24 24 (2880000)
I0426 09:33:15.400334 21870 net.cpp:156] Memory required for data: 11834800
I0426 09:33:15.400389 21870 layer_factory.hpp:77] Creating layer pool0
I0426 09:33:15.400427 21870 net.cpp:91] Creating Layer pool0
I0426 09:33:15.400451 21870 net.cpp:425] pool0 <- conv0
I0426 09:33:15.400487 21870 net.cpp:399] pool0 -> pool0
I0426 09:33:15.400539 21870 net.cpp:141] Setting up pool0
I0426 09:33:15.400565 21870 net.cpp:148] Top shape: 100 50 12 12 (720000)
I0426 09:33:15.400583 21870 net.cpp:156] Memory required for data: 14714800
I0426 09:33:15.400604 21870 layer_factory.hpp:77] Creating layer conv1
I0426 09:33:15.400672 21870 net.cpp:91] Creating Layer conv1
I0426 09:33:15.400697 21870 net.cpp:425] conv1 <- pool0
I0426 09:33:15.400741 21870 net.cpp:399] conv1 -> conv1
I0426 09:33:15.406147 21906 data_layer.cpp:102] Prefetch batch: 3 ms.
I0426 09:33:15.407507 21906 data_layer.cpp:103]      Read time: 1.521 ms.
I0426 09:33:15.407541 21906 data_layer.cpp:104] Transform time: 1.599 ms.
I0426 09:33:15.406769 21870 net.cpp:141] Setting up conv1
I0426 09:33:15.411701 21870 net.cpp:148] Top shape: 100 50 8 8 (320000)
I0426 09:33:15.411737 21870 net.cpp:156] Memory required for data: 15994800
I0426 09:33:15.411792 21870 layer_factory.hpp:77] Creating layer pool1
I0426 09:33:15.411870 21870 net.cpp:91] Creating Layer pool1
I0426 09:33:15.411924 21870 net.cpp:425] pool1 <- conv1
I0426 09:33:15.411978 21870 net.cpp:399] pool1 -> pool1
I0426 09:33:15.412061 21870 net.cpp:141] Setting up pool1
I0426 09:33:15.412132 21870 net.cpp:148] Top shape: 100 50 4 4 (80000)
I0426 09:33:15.412165 21870 net.cpp:156] Memory required for data: 16314800
I0426 09:33:15.412195 21870 layer_factory.hpp:77] Creating layer ip1
I0426 09:33:15.412242 21870 net.cpp:91] Creating Layer ip1
I0426 09:33:15.412292 21870 net.cpp:425] ip1 <- pool1
I0426 09:33:15.412343 21870 net.cpp:399] ip1 -> ip1
I0426 09:33:15.412431 21906 data_layer.cpp:102] Prefetch batch: 4 ms.
I0426 09:33:15.413018 21906 data_layer.cpp:103]      Read time: 0.32 ms.
I0426 09:33:15.413050 21906 data_layer.cpp:104] Transform time: 1.633 ms.
I0426 09:33:15.418757 21906 data_layer.cpp:102] Prefetch batch: 5 ms.
I0426 09:33:15.419005 21906 data_layer.cpp:103]      Read time: 0.333 ms.
I0426 09:33:15.419037 21906 data_layer.cpp:104] Transform time: 1.654 ms.
I0426 09:33:15.426517 21870 net.cpp:141] Setting up ip1
I0426 09:33:15.426537 21870 net.cpp:148] Top shape: 100 100 (10000)
I0426 09:33:15.426547 21870 net.cpp:156] Memory required for data: 16354800
I0426 09:33:15.426584 21870 layer_factory.hpp:77] Creating layer relu1
I0426 09:33:15.426605 21870 net.cpp:91] Creating Layer relu1
I0426 09:33:15.426626 21870 net.cpp:425] relu1 <- ip1
I0426 09:33:15.426654 21870 net.cpp:386] relu1 -> ip1 (in-place)
I0426 09:33:15.426679 21870 net.cpp:141] Setting up relu1
I0426 09:33:15.426693 21870 net.cpp:148] Top shape: 100 100 (10000)
I0426 09:33:15.426702 21870 net.cpp:156] Memory required for data: 16394800
I0426 09:33:15.426714 21870 layer_factory.hpp:77] Creating layer ip2
I0426 09:33:15.426749 21870 net.cpp:91] Creating Layer ip2
I0426 09:33:15.426770 21870 net.cpp:425] ip2 <- ip1
I0426 09:33:15.426801 21870 net.cpp:399] ip2 -> ip2
I0426 09:33:15.426959 21870 net.cpp:141] Setting up ip2
I0426 09:33:15.426977 21870 net.cpp:148] Top shape: 100 10 (1000)
I0426 09:33:15.426987 21870 net.cpp:156] Memory required for data: 16398800
I0426 09:33:15.427012 21870 layer_factory.hpp:77] Creating layer relu2
I0426 09:33:15.427032 21870 net.cpp:91] Creating Layer relu2
I0426 09:33:15.427044 21870 net.cpp:425] relu2 <- ip2
I0426 09:33:15.427072 21870 net.cpp:386] relu2 -> ip2 (in-place)
I0426 09:33:15.427095 21870 net.cpp:141] Setting up relu2
I0426 09:33:15.427109 21870 net.cpp:148] Top shape: 100 10 (1000)
I0426 09:33:15.427119 21870 net.cpp:156] Memory required for data: 16402800
I0426 09:33:15.427130 21870 layer_factory.hpp:77] Creating layer ip2_relu2_0_split
I0426 09:33:15.427148 21870 net.cpp:91] Creating Layer ip2_relu2_0_split
I0426 09:33:15.427161 21870 net.cpp:425] ip2_relu2_0_split <- ip2
I0426 09:33:15.427187 21870 net.cpp:399] ip2_relu2_0_split -> ip2_relu2_0_split_0
I0426 09:33:15.427213 21870 net.cpp:399] ip2_relu2_0_split -> ip2_relu2_0_split_1
I0426 09:33:15.427244 21870 net.cpp:141] Setting up ip2_relu2_0_split
I0426 09:33:15.427260 21870 net.cpp:148] Top shape: 100 10 (1000)
I0426 09:33:15.427273 21870 net.cpp:148] Top shape: 100 10 (1000)
I0426 09:33:15.427281 21870 net.cpp:156] Memory required for data: 16410800
I0426 09:33:15.427294 21870 layer_factory.hpp:77] Creating layer accuracy
I0426 09:33:15.427320 21870 net.cpp:91] Creating Layer accuracy
I0426 09:33:15.427333 21870 net.cpp:425] accuracy <- ip2_relu2_0_split_0
I0426 09:33:15.427355 21870 net.cpp:425] accuracy <- label_mnist_1_split_0
I0426 09:33:15.427379 21870 net.cpp:399] accuracy -> accuracy
…
