…
I0426 12:11:15.475193 25695 net.cpp:313] The NetState phase (0) differed from the phase (1) specified by a rule in layer mnist
I0426 12:11:15.475246 25695 net.cpp:313] The NetState phase (0) differed from the phase (1) specified by a rule in layer accuracy
I0426 12:11:15.475415 25695 net.cpp:49] Initializing net from parameters: 
name: "LeNet"
state {
  phase: TRAIN
}
layer {
  name: "mnist"
  type: "Data"
  top: "data"
  top: "label"
  include {
    phase: TRAIN
  }
  transform_param {
    scale: 0.00390625
  }
  data_param {
    source: "examples/mnist/mnist_train_lmdb"
    batch_size: 64
    backend: LMDB
  }
}
layer {
  name: "conv0"
  type: "Convolution"
  bottom: "data"
  top: "conv0"
  param {
    lr_mult: 1
  }
  param {
    lr_mult: 2
  }
  convolution_param {
    num_output: 50
    kernel_size: 5
    stride: 1
    weight_filler {
      type: "xavier"
    }
    bias_filler {
      type: "constant"
    }
  }
}
layer {
  name: "pool0"
  type: "Pooling"
  bottom: "conv0"
  top: "pool0"
  pooling_param {
    pool: MAX
    kernel_size: 2
    stride: 2
  }
}
layer {
  name: "conv1"
  type: "Convolution"
  bottom: "pool0"
  top: "conv1"
  param {
    lr_mult: 1
  }
  param {
    lr_mult: 2
  }
  convolution_param {
    num_output: 50
    kernel_size: 5
    stride: 1
    weight_filler {
      type: "xavier"
    }
    bias_filler {
      type: "constant"
    }
  }
}
layer {
  name: "pool1"
  type: "Pooling"
  bottom: "conv1"
  top: "pool1"
  pooling_param {
    pool: MAX
    kernel_size: 2
    stride: 2
  }
}
layer {
  name: "ip1"
  type: "InnerProduct"
  bottom: "pool1"
  top: "ip1"
  param {
    lr_mult: 1
  }
  param {
    lr_mult: 2
  }
  inner_product_param {
    num_output: 500
    weight_filler {
      type: "xavier"
    }
    bias_filler {
      type: "constant"
    }
  }
}
layer {
  name: "relu1"
  type: "ReLU"
  bottom: "ip1"
  top: "ip1"
}
layer {
  name: "ip2"
  type: "InnerProduct"
  bottom: "ip1"
  top: "ip2"
  param {
    lr_mult: 1
  }
  param {
    lr_mult: 2
  }
  inner_product_param {
    num_output: 10
    weight_filler {
      type: "xavier"
    }
    bias_filler {
      type: "constant"
    }
  }
}
layer {
  name: "relu2"
  type: "ReLU"
  bottom: "ip2"
  top: "ip2"
}
layer {
  name: "loss"
  type: "SoftmaxWithLoss"
  bottom: "ip2"
  bottom: "label"
  top: "loss"
}
I0426 12:11:15.475863 25695 layer_factory.hpp:77] Creating layer mnist
I0426 12:11:15.477157 25695 net.cpp:91] Creating Layer mnist
I0426 12:11:15.477200 25695 net.cpp:399] mnist -> data
I0426 12:11:15.477324 25695 net.cpp:399] mnist -> label
I0426 12:11:15.480772 25728 db_lmdb.cpp:35] Opened lmdb examples/mnist/mnist_train_lmdb
I0426 12:11:15.481472 25695 data_layer.cpp:41] output data size: 64,1,28,28
I0426 12:11:15.481873 25695 base_data_layer.cpp:69] Initializing prefetch
I0426 12:11:15.481933 25695 base_data_layer.cpp:72] Prefetch initialized.
I0426 12:11:15.481951 25695 net.cpp:141] Setting up mnist
I0426 12:11:15.481983 25695 net.cpp:148] Top shape: 64 1 28 28 (50176)
I0426 12:11:15.482003 25695 net.cpp:148] Top shape: 64 (64)
I0426 12:11:15.482010 25695 net.cpp:156] Memory required for data: 200960
I0426 12:11:15.482033 25695 layer_factory.hpp:77] Creating layer conv0
I0426 12:11:15.482085 25695 net.cpp:91] Creating Layer conv0
I0426 12:11:15.482110 25695 net.cpp:425] conv0 <- data
I0426 12:11:15.482156 25695 net.cpp:399] conv0 -> conv0
I0426 12:11:15.482465 25695 net.cpp:141] Setting up conv0
I0426 12:11:15.482489 25695 net.cpp:148] Top shape: 64 50 24 24 (1843200)
I0426 12:11:15.482497 25695 net.cpp:156] Memory required for data: 7573760
I0426 12:11:15.482568 25695 layer_factory.hpp:77] Creating layer pool0
I0426 12:11:15.482604 25695 net.cpp:91] Creating Layer pool0
I0426 12:11:15.482623 25695 net.cpp:425] pool0 <- conv0
I0426 12:11:15.482666 25695 net.cpp:399] pool0 -> pool0
I0426 12:11:15.482728 25695 net.cpp:141] Setting up pool0
I0426 12:11:15.482770 25695 net.cpp:148] Top shape: 64 50 12 12 (460800)
I0426 12:11:15.482790 25695 net.cpp:156] Memory required for data: 9416960
I0426 12:11:15.482813 25695 layer_factory.hpp:77] Creating layer conv1
I0426 12:11:15.482857 25695 net.cpp:91] Creating Layer conv1
I0426 12:11:15.482882 25695 net.cpp:425] conv1 <- pool0
I0426 12:11:15.482926 25695 net.cpp:399] conv1 -> conv1
I0426 12:11:15.487911 25729 data_layer.cpp:102] Prefetch batch: 3 ms.
I0426 12:11:15.488240 25729 data_layer.cpp:103]      Read time: 0.204 ms.
I0426 12:11:15.488281 25729 data_layer.cpp:104] Transform time: 1.185 ms.
I0426 12:11:15.488591 25695 net.cpp:141] Setting up conv1
I0426 12:11:15.488632 25695 net.cpp:148] Top shape: 64 50 8 8 (204800)
I0426 12:11:15.488656 25695 net.cpp:156] Memory required for data: 10236160
I0426 12:11:15.488705 25695 layer_factory.hpp:77] Creating layer pool1
I0426 12:11:15.488745 25695 net.cpp:91] Creating Layer pool1
I0426 12:11:15.488770 25695 net.cpp:425] pool1 <- conv1
I0426 12:11:15.488807 25695 net.cpp:399] pool1 -> pool1
I0426 12:11:15.488859 25695 net.cpp:141] Setting up pool1
I0426 12:11:15.488886 25695 net.cpp:148] Top shape: 64 50 4 4 (51200)
I0426 12:11:15.488906 25695 net.cpp:156] Memory required for data: 10440960
I0426 12:11:15.488927 25695 layer_factory.hpp:77] Creating layer ip1
I0426 12:11:15.488965 25695 net.cpp:91] Creating Layer ip1
I0426 12:11:15.488989 25695 net.cpp:425] ip1 <- pool1
I0426 12:11:15.489028 25695 net.cpp:399] ip1 -> ip1
I0426 12:11:15.491541 25729 data_layer.cpp:102] Prefetch batch: 3 ms.
I0426 12:11:15.492010 25729 data_layer.cpp:103]      Read time: 0.193 ms.
I0426 12:11:15.492044 25729 data_layer.cpp:104] Transform time: 1.036 ms.
I0426 12:11:15.495636 25729 data_layer.cpp:102] Prefetch batch: 3 ms.
I0426 12:11:15.495766 25729 data_layer.cpp:103]      Read time: 0.203 ms.
I0426 12:11:15.495798 25729 data_layer.cpp:104] Transform time: 1.034 ms.
I0426 12:11:15.557446 25695 net.cpp:141] Setting up ip1
I0426 12:11:15.557469 25695 net.cpp:148] Top shape: 64 500 (32000)
I0426 12:11:15.557479 25695 net.cpp:156] Memory required for data: 10568960
I0426 12:11:15.557518 25695 layer_factory.hpp:77] Creating layer relu1
I0426 12:11:15.557543 25695 net.cpp:91] Creating Layer relu1
I0426 12:11:15.557557 25695 net.cpp:425] relu1 <- ip1
I0426 12:11:15.557581 25695 net.cpp:386] relu1 -> ip1 (in-place)
I0426 12:11:15.557607 25695 net.cpp:141] Setting up relu1
I0426 12:11:15.557621 25695 net.cpp:148] Top shape: 64 500 (32000)
I0426 12:11:15.557629 25695 net.cpp:156] Memory required for data: 10696960
I0426 12:11:15.557648 25695 layer_factory.hpp:77] Creating layer ip2
I0426 12:11:15.557672 25695 net.cpp:91] Creating Layer ip2
I0426 12:11:15.557685 25695 net.cpp:425] ip2 <- ip1
I0426 12:11:15.557714 25695 net.cpp:399] ip2 -> ip2
I0426 12:11:15.558231 25695 net.cpp:141] Setting up ip2
I0426 12:11:15.558248 25695 net.cpp:148] Top shape: 64 10 (640)
I0426 12:11:15.558259 25695 net.cpp:156] Memory required for data: 10699520
I0426 12:11:15.558284 25695 layer_factory.hpp:77] Creating layer relu2
I0426 12:11:15.558308 25695 net.cpp:91] Creating Layer relu2
I0426 12:11:15.558322 25695 net.cpp:425] relu2 <- ip2
I0426 12:11:15.558346 25695 net.cpp:386] relu2 -> ip2 (in-place)
I0426 12:11:15.558370 25695 net.cpp:141] Setting up relu2
I0426 12:11:15.558383 25695 net.cpp:148] Top shape: 64 10 (640)
I0426 12:11:15.558393 25695 net.cpp:156] Memory required for data: 10702080
I0426 12:11:15.558404 25695 layer_factory.hpp:77] Creating layer loss
I0426 12:11:15.558429 25695 net.cpp:91] Creating Layer loss
I0426 12:11:15.558444 25695 net.cpp:425] loss <- ip2
I0426 12:11:15.558464 25695 net.cpp:425] loss <- label
I0426 12:11:15.558486 25695 net.cpp:399] loss -> loss
I0426 12:11:15.558529 25695 layer_factory.hpp:77] Creating layer loss
…
I0426 12:11:15.561358 25695 solver.cpp:181] Creating test net (#0) specified by net file: ECE595/mnist/train_test/var_fcn/lenet_train_test_fcn500.prototxt
I0426 12:11:15.561892 25695 net.cpp:313] The NetState phase (1) differed from the phase (0) specified by a rule in layer mnist
I0426 12:11:15.562228 25695 net.cpp:49] Initializing net from parameters: 
name: "LeNet"
state {
  phase: TEST
}
layer {
  name: "mnist"
  type: "Data"
  top: "data"
  top: "label"
  include {
    phase: TEST
  }
  transform_param {
    scale: 0.00390625
  }
  data_param {
    source: "examples/mnist/mnist_test_lmdb"
    batch_size: 100
    backend: LMDB
  }
}
layer {
  name: "conv0"
  type: "Convolution"
  bottom: "data"
  top: "conv0"
  param {
    lr_mult: 1
  }
  param {
    lr_mult: 2
  }
  convolution_param {
    num_output: 50
    kernel_size: 5
    stride: 1
    weight_filler {
      type: "xavier"
    }
    bias_filler {
      type: "constant"
    }
  }
}
layer {
  name: "pool0"
  type: "Pooling"
  bottom: "conv0"
  top: "pool0"
  pooling_param {
    pool: MAX
    kernel_size: 2
    stride: 2
  }
}
layer {
  name: "conv1"
  type: "Convolution"
  bottom: "pool0"
  top: "conv1"
  param {
    lr_mult: 1
  }
  param {
    lr_mult: 2
  }
  convolution_param {
    num_output: 50
    kernel_size: 5
    stride: 1
    weight_filler {
      type: "xavier"
    }
    bias_filler {
      type: "constant"
    }
  }
}
layer {
  name: "pool1"
  type: "Pooling"
  bottom: "conv1"
  top: "pool1"
  pooling_param {
    pool: MAX
    kernel_size: 2
    stride: 2
  }
}
layer {
  name: "ip1"
  type: "InnerProduct"
  bottom: "pool1"
  top: "ip1"
  param {
    lr_mult: 1
  }
  param {
    lr_mult: 2
  }
  inner_product_param {
    num_output: 500
    weight_filler {
      type: "xavier"
    }
    bias_filler {
      type: "constant"
    }
  }
}
layer {
  name: "relu1"
  type: "ReLU"
  bottom: "ip1"
  top: "ip1"
}
layer {
  name: "ip2"
  type: "InnerProduct"
  bottom: "ip1"
  top: "ip2"
  param {
    lr_mult: 1
  }
  param {
    lr_mult: 2
  }
  inner_product_param {
    num_output: 10
    weight_filler {
      type: "xavier"
    }
    bias_filler {
      type: "constant"
    }
  }
}
layer {
  name: "relu2"
  type: "ReLU"
  bottom: "ip2"
  top: "ip2"
}
layer {
  name: "accuracy"
  type: "Accuracy"
  bottom: "ip2"
  bottom: "label"
  top: "accuracy"
  include {
    phase: TEST
  }
}
layer {
  name: "loss"
  type: "SoftmaxWithLoss"
  bottom: "ip2"
  bottom: "label"
  top: "loss"
}
I0426 12:11:15.563009 25695 layer_factory.hpp:77] Creating layer mnist
I0426 12:11:15.563400 25695 net.cpp:91] Creating Layer mnist
I0426 12:11:15.563434 25695 net.cpp:399] mnist -> data
I0426 12:11:15.563486 25695 net.cpp:399] mnist -> label
I0426 12:11:15.566787 25730 db_lmdb.cpp:35] Opened lmdb examples/mnist/mnist_test_lmdb
I0426 12:11:15.567150 25695 data_layer.cpp:41] output data size: 100,1,28,28
I0426 12:11:15.567742 25695 base_data_layer.cpp:69] Initializing prefetch
I0426 12:11:15.567811 25695 base_data_layer.cpp:72] Prefetch initialized.
I0426 12:11:15.567821 25695 net.cpp:141] Setting up mnist
I0426 12:11:15.567834 25695 net.cpp:148] Top shape: 100 1 28 28 (78400)
I0426 12:11:15.567847 25695 net.cpp:148] Top shape: 100 (100)
I0426 12:11:15.567854 25695 net.cpp:156] Memory required for data: 314000
I0426 12:11:15.567870 25695 layer_factory.hpp:77] Creating layer label_mnist_1_split
I0426 12:11:15.568131 25695 net.cpp:91] Creating Layer label_mnist_1_split
I0426 12:11:15.568147 25695 net.cpp:425] label_mnist_1_split <- label
I0426 12:11:15.568182 25695 net.cpp:399] label_mnist_1_split -> label_mnist_1_split_0
I0426 12:11:15.568205 25695 net.cpp:399] label_mnist_1_split -> label_mnist_1_split_1
I0426 12:11:15.568234 25695 net.cpp:141] Setting up label_mnist_1_split
I0426 12:11:15.568248 25695 net.cpp:148] Top shape: 100 (100)
I0426 12:11:15.568255 25695 net.cpp:148] Top shape: 100 (100)
I0426 12:11:15.568261 25695 net.cpp:156] Memory required for data: 314800
I0426 12:11:15.568270 25695 layer_factory.hpp:77] Creating layer conv0
I0426 12:11:15.568300 25695 net.cpp:91] Creating Layer conv0
I0426 12:11:15.568311 25695 net.cpp:425] conv0 <- data
I0426 12:11:15.568338 25695 net.cpp:399] conv0 -> conv0
I0426 12:11:15.568507 25695 net.cpp:141] Setting up conv0
I0426 12:11:15.568522 25695 net.cpp:148] Top shape: 100 50 24 24 (2880000)
I0426 12:11:15.568528 25695 net.cpp:156] Memory required for data: 11834800
I0426 12:11:15.568568 25695 layer_factory.hpp:77] Creating layer pool0
I0426 12:11:15.568593 25695 net.cpp:91] Creating Layer pool0
I0426 12:11:15.568604 25695 net.cpp:425] pool0 <- conv0
I0426 12:11:15.568629 25695 net.cpp:399] pool0 -> pool0
I0426 12:11:15.568665 25695 net.cpp:141] Setting up pool0
I0426 12:11:15.568677 25695 net.cpp:148] Top shape: 100 50 12 12 (720000)
I0426 12:11:15.568683 25695 net.cpp:156] Memory required for data: 14714800
I0426 12:11:15.568693 25695 layer_factory.hpp:77] Creating layer conv1
I0426 12:11:15.568724 25695 net.cpp:91] Creating Layer conv1
I0426 12:11:15.568737 25695 net.cpp:425] conv1 <- pool0
I0426 12:11:15.568758 25695 net.cpp:399] conv1 -> conv1
I0426 12:11:15.572494 25731 data_layer.cpp:102] Prefetch batch: 4 ms.
I0426 12:11:15.572540 25731 data_layer.cpp:103]      Read time: 0.408 ms.
I0426 12:11:15.572559 25731 data_layer.cpp:104] Transform time: 2.8 ms.
I0426 12:11:15.572546 25695 net.cpp:141] Setting up conv1
I0426 12:11:15.572604 25695 net.cpp:148] Top shape: 100 50 8 8 (320000)
I0426 12:11:15.572610 25695 net.cpp:156] Memory required for data: 15994800
I0426 12:11:15.572635 25695 layer_factory.hpp:77] Creating layer pool1
I0426 12:11:15.572660 25695 net.cpp:91] Creating Layer pool1
I0426 12:11:15.572669 25695 net.cpp:425] pool1 <- conv1
I0426 12:11:15.572687 25695 net.cpp:399] pool1 -> pool1
I0426 12:11:15.572726 25695 net.cpp:141] Setting up pool1
I0426 12:11:15.572734 25695 net.cpp:148] Top shape: 100 50 4 4 (80000)
I0426 12:11:15.572738 25695 net.cpp:156] Memory required for data: 16314800
I0426 12:11:15.572744 25695 layer_factory.hpp:77] Creating layer ip1
I0426 12:11:15.572759 25695 net.cpp:91] Creating Layer ip1
I0426 12:11:15.572777 25695 net.cpp:425] ip1 <- pool1
I0426 12:11:15.572798 25695 net.cpp:399] ip1 -> ip1
I0426 12:11:15.576712 25731 data_layer.cpp:102] Prefetch batch: 4 ms.
I0426 12:11:15.576738 25731 data_layer.cpp:103]      Read time: 0.378 ms.
I0426 12:11:15.576751 25731 data_layer.cpp:104] Transform time: 2.704 ms.
I0426 12:11:15.580881 25731 data_layer.cpp:102] Prefetch batch: 4 ms.
I0426 12:11:15.580906 25731 data_layer.cpp:103]      Read time: 0.384 ms.
I0426 12:11:15.580919 25731 data_layer.cpp:104] Transform time: 2.693 ms.
I0426 12:11:15.595070 25695 net.cpp:141] Setting up ip1
I0426 12:11:15.595095 25695 net.cpp:148] Top shape: 100 500 (50000)
I0426 12:11:15.595100 25695 net.cpp:156] Memory required for data: 16514800
I0426 12:11:15.595124 25695 layer_factory.hpp:77] Creating layer relu1
I0426 12:11:15.595137 25695 net.cpp:91] Creating Layer relu1
I0426 12:11:15.595154 25695 net.cpp:425] relu1 <- ip1
I0426 12:11:15.595170 25695 net.cpp:386] relu1 -> ip1 (in-place)
I0426 12:11:15.595185 25695 net.cpp:141] Setting up relu1
I0426 12:11:15.595192 25695 net.cpp:148] Top shape: 100 500 (50000)
I0426 12:11:15.595197 25695 net.cpp:156] Memory required for data: 16714800
I0426 12:11:15.595204 25695 layer_factory.hpp:77] Creating layer ip2
I0426 12:11:15.595222 25695 net.cpp:91] Creating Layer ip2
I0426 12:11:15.595229 25695 net.cpp:425] ip2 <- ip1
I0426 12:11:15.595249 25695 net.cpp:399] ip2 -> ip2
I0426 12:11:15.595595 25695 net.cpp:141] Setting up ip2
I0426 12:11:15.595607 25695 net.cpp:148] Top shape: 100 10 (1000)
I0426 12:11:15.595613 25695 net.cpp:156] Memory required for data: 16718800
I0426 12:11:15.595641 25695 layer_factory.hpp:77] Creating layer relu2
I0426 12:11:15.595654 25695 net.cpp:91] Creating Layer relu2
I0426 12:11:15.595662 25695 net.cpp:425] relu2 <- ip2
I0426 12:11:15.595677 25695 net.cpp:386] relu2 -> ip2 (in-place)
I0426 12:11:15.595693 25695 net.cpp:141] Setting up relu2
I0426 12:11:15.595713 25695 net.cpp:148] Top shape: 100 10 (1000)
I0426 12:11:15.595717 25695 net.cpp:156] Memory required for data: 16722800
I0426 12:11:15.595722 25695 layer_factory.hpp:77] Creating layer ip2_relu2_0_split
I0426 12:11:15.595733 25695 net.cpp:91] Creating Layer ip2_relu2_0_split
I0426 12:11:15.595738 25695 net.cpp:425] ip2_relu2_0_split <- ip2
I0426 12:11:15.595755 25695 net.cpp:399] ip2_relu2_0_split -> ip2_relu2_0_split_0
I0426 12:11:15.595772 25695 net.cpp:399] ip2_relu2_0_split -> ip2_relu2_0_split_1
I0426 12:11:15.595790 25695 net.cpp:141] Setting up ip2_relu2_0_split
I0426 12:11:15.595799 25695 net.cpp:148] Top shape: 100 10 (1000)
I0426 12:11:15.595805 25695 net.cpp:148] Top shape: 100 10 (1000)
I0426 12:11:15.595809 25695 net.cpp:156] Memory required for data: 16730800
I0426 12:11:15.595829 25695 layer_factory.hpp:77] Creating layer accuracy
I0426 12:11:15.595846 25695 net.cpp:91] Creating Layer accuracy
I0426 12:11:15.595854 25695 net.cpp:425] accuracy <- ip2_relu2_0_split_0
I0426 12:11:15.595868 25695 net.cpp:425] accuracy <- label_mnist_1_split_0
I0426 12:11:15.595892 25695 net.cpp:399] accuracy -> accuracy
…
