…
I0426 06:28:28.472771 18288 net.cpp:313] The NetState phase (0) differed from the phase (1) specified by a rule in layer mnist
I0426 06:28:28.472823 18288 net.cpp:313] The NetState phase (0) differed from the phase (1) specified by a rule in layer accuracy
I0426 06:28:28.472995 18288 net.cpp:49] Initializing net from parameters: 
name: "LeNet"
state {
  phase: TRAIN
}
layer {
  name: "mnist"
  type: "Data"
  top: "data"
  top: "label"
  include {
    phase: TRAIN
  }
  transform_param {
    scale: 0.00390625
  }
  data_param {
    source: "examples/mnist/mnist_train_lmdb"
    batch_size: 64
    backend: LMDB
  }
}
layer {
  name: "conv0"
  type: "Convolution"
  bottom: "data"
  top: "conv0"
  param {
    lr_mult: 1
  }
  param {
    lr_mult: 2
  }
  convolution_param {
    num_output: 50
    kernel_size: 5
    stride: 1
    weight_filler {
      type: "xavier"
    }
    bias_filler {
      type: "constant"
    }
  }
}
layer {
  name: "pool0"
  type: "Pooling"
  bottom: "conv0"
  top: "pool0"
  pooling_param {
    pool: MAX
    kernel_size: 2
    stride: 2
  }
}
layer {
  name: "conv1"
  type: "Convolution"
  bottom: "pool0"
  top: "conv1"
  param {
    lr_mult: 1
  }
  param {
    lr_mult: 2
  }
  convolution_param {
    num_output: 50
    kernel_size: 5
    stride: 1
    weight_filler {
      type: "xavier"
    }
    bias_filler {
      type: "constant"
    }
  }
}
layer {
  name: "pool1"
  type: "Pooling"
  bottom: "conv1"
  top: "pool1"
  pooling_param {
    pool: MAX
    kernel_size: 2
    stride: 2
  }
}
layer {
  name: "ip1"
  type: "InnerProduct"
  bottom: "pool1"
  top: "ip1"
  param {
    lr_mult: 1
  }
  param {
    lr_mult: 2
  }
  inner_product_param {
    num_output: 300
    weight_filler {
      type: "xavier"
    }
    bias_filler {
      type: "constant"
    }
  }
}
layer {
  name: "relu1"
  type: "ReLU"
  bottom: "ip1"
  top: "ip1"
}
layer {
  name: "ip2"
  type: "InnerProduct"
  bottom: "ip1"
  top: "ip2"
  param {
    lr_mult: 1
  }
  param {
    lr_mult: 2
  }
  inner_product_param {
    num_output: 10
    weight_filler {
      type: "xavier"
    }
    bias_filler {
      type: "constant"
    }
  }
}
layer {
  name: "relu2"
  type: "ReLU"
  bottom: "ip2"
  top: "ip2"
}
layer {
  name: "loss"
  type: "SoftmaxWithLoss"
  bottom: "ip2"
  bottom: "label"
  top: "loss"
}
I0426 06:28:28.473423 18288 layer_factory.hpp:77] Creating layer mnist
I0426 06:28:28.474679 18288 net.cpp:91] Creating Layer mnist
I0426 06:28:28.474717 18288 net.cpp:399] mnist -> data
I0426 06:28:28.474828 18288 net.cpp:399] mnist -> label
I0426 06:28:28.479390 18321 db_lmdb.cpp:35] Opened lmdb examples/mnist/mnist_train_lmdb
I0426 06:28:28.479821 18288 data_layer.cpp:41] output data size: 64,1,28,28
I0426 06:28:28.480199 18288 base_data_layer.cpp:69] Initializing prefetch
I0426 06:28:28.480257 18288 base_data_layer.cpp:72] Prefetch initialized.
I0426 06:28:28.480269 18288 net.cpp:141] Setting up mnist
I0426 06:28:28.480300 18288 net.cpp:148] Top shape: 64 1 28 28 (50176)
I0426 06:28:28.480316 18288 net.cpp:148] Top shape: 64 (64)
I0426 06:28:28.480325 18288 net.cpp:156] Memory required for data: 200960
I0426 06:28:28.480347 18288 layer_factory.hpp:77] Creating layer conv0
I0426 06:28:28.480393 18288 net.cpp:91] Creating Layer conv0
I0426 06:28:28.480413 18288 net.cpp:425] conv0 <- data
I0426 06:28:28.480460 18288 net.cpp:399] conv0 -> conv0
I0426 06:28:28.480806 18288 net.cpp:141] Setting up conv0
I0426 06:28:28.480828 18288 net.cpp:148] Top shape: 64 50 24 24 (1843200)
I0426 06:28:28.480839 18288 net.cpp:156] Memory required for data: 7573760
I0426 06:28:28.480923 18288 layer_factory.hpp:77] Creating layer pool0
I0426 06:28:28.480958 18288 net.cpp:91] Creating Layer pool0
I0426 06:28:28.480973 18288 net.cpp:425] pool0 <- conv0
I0426 06:28:28.481011 18288 net.cpp:399] pool0 -> pool0
I0426 06:28:28.481066 18288 net.cpp:141] Setting up pool0
I0426 06:28:28.481087 18288 net.cpp:148] Top shape: 64 50 12 12 (460800)
I0426 06:28:28.481098 18288 net.cpp:156] Memory required for data: 9416960
I0426 06:28:28.481112 18288 layer_factory.hpp:77] Creating layer conv1
I0426 06:28:28.481148 18288 net.cpp:91] Creating Layer conv1
I0426 06:28:28.481161 18288 net.cpp:425] conv1 <- pool0
I0426 06:28:28.481194 18288 net.cpp:399] conv1 -> conv1
I0426 06:28:28.485321 18322 data_layer.cpp:102] Prefetch batch: 2 ms.
I0426 06:28:28.485366 18322 data_layer.cpp:103]      Read time: 0.217 ms.
I0426 06:28:28.485384 18322 data_layer.cpp:104] Transform time: 1.125 ms.
I0426 06:28:28.486817 18288 net.cpp:141] Setting up conv1
I0426 06:28:28.486843 18288 net.cpp:148] Top shape: 64 50 8 8 (204800)
I0426 06:28:28.486855 18288 net.cpp:156] Memory required for data: 10236160
I0426 06:28:28.486894 18288 layer_factory.hpp:77] Creating layer pool1
I0426 06:28:28.486927 18288 net.cpp:91] Creating Layer pool1
I0426 06:28:28.486943 18288 net.cpp:425] pool1 <- conv1
I0426 06:28:28.486970 18288 net.cpp:399] pool1 -> pool1
I0426 06:28:28.487011 18288 net.cpp:141] Setting up pool1
I0426 06:28:28.487028 18288 net.cpp:148] Top shape: 64 50 4 4 (51200)
I0426 06:28:28.487038 18288 net.cpp:156] Memory required for data: 10440960
I0426 06:28:28.487051 18288 layer_factory.hpp:77] Creating layer ip1
I0426 06:28:28.487079 18288 net.cpp:91] Creating Layer ip1
I0426 06:28:28.487093 18288 net.cpp:425] ip1 <- pool1
I0426 06:28:28.487121 18288 net.cpp:399] ip1 -> ip1
I0426 06:28:28.487560 18322 data_layer.cpp:102] Prefetch batch: 2 ms.
I0426 06:28:28.487582 18322 data_layer.cpp:103]      Read time: 0.208 ms.
I0426 06:28:28.487598 18322 data_layer.cpp:104] Transform time: 1.126 ms.
I0426 06:28:28.496628 18322 data_layer.cpp:102] Prefetch batch: 8 ms.
I0426 06:28:28.496649 18322 data_layer.cpp:103]      Read time: 0.207 ms.
I0426 06:28:28.496662 18322 data_layer.cpp:104] Transform time: 7.704 ms.
I0426 06:28:28.522033 18288 net.cpp:141] Setting up ip1
I0426 06:28:28.522053 18288 net.cpp:148] Top shape: 64 300 (19200)
I0426 06:28:28.522063 18288 net.cpp:156] Memory required for data: 10517760
I0426 06:28:28.522100 18288 layer_factory.hpp:77] Creating layer relu1
I0426 06:28:28.522126 18288 net.cpp:91] Creating Layer relu1
I0426 06:28:28.522141 18288 net.cpp:425] relu1 <- ip1
I0426 06:28:28.522164 18288 net.cpp:386] relu1 -> ip1 (in-place)
I0426 06:28:28.522191 18288 net.cpp:141] Setting up relu1
I0426 06:28:28.522203 18288 net.cpp:148] Top shape: 64 300 (19200)
I0426 06:28:28.522213 18288 net.cpp:156] Memory required for data: 10594560
I0426 06:28:28.522225 18288 layer_factory.hpp:77] Creating layer ip2
I0426 06:28:28.522248 18288 net.cpp:91] Creating Layer ip2
I0426 06:28:28.522261 18288 net.cpp:425] ip2 <- ip1
I0426 06:28:28.522289 18288 net.cpp:399] ip2 -> ip2
I0426 06:28:28.522614 18288 net.cpp:141] Setting up ip2
I0426 06:28:28.526891 18288 net.cpp:148] Top shape: 64 10 (640)
I0426 06:28:28.526929 18288 net.cpp:156] Memory required for data: 10597120
I0426 06:28:28.526973 18288 layer_factory.hpp:77] Creating layer relu2
I0426 06:28:28.527034 18288 net.cpp:91] Creating Layer relu2
I0426 06:28:28.527082 18288 net.cpp:425] relu2 <- ip2
I0426 06:28:28.527129 18288 net.cpp:386] relu2 -> ip2 (in-place)
I0426 06:28:28.527189 18288 net.cpp:141] Setting up relu2
I0426 06:28:28.527237 18288 net.cpp:148] Top shape: 64 10 (640)
I0426 06:28:28.527266 18288 net.cpp:156] Memory required for data: 10599680
I0426 06:28:28.527295 18288 layer_factory.hpp:77] Creating layer loss
I0426 06:28:28.527343 18288 net.cpp:91] Creating Layer loss
I0426 06:28:28.527392 18288 net.cpp:425] loss <- ip2
I0426 06:28:28.527433 18288 net.cpp:425] loss <- label
I0426 06:28:28.527490 18288 net.cpp:399] loss -> loss
I0426 06:28:28.527578 18288 layer_factory.hpp:77] Creating layer loss
…
I0426 06:28:28.529279 18288 solver.cpp:181] Creating test net (#0) specified by net file: ECE595/mnist/train_test/var_fcn/lenet_train_test_fcn300.prototxt
I0426 06:28:28.529825 18288 net.cpp:313] The NetState phase (1) differed from the phase (0) specified by a rule in layer mnist
I0426 06:28:28.530156 18288 net.cpp:49] Initializing net from parameters: 
name: "LeNet"
state {
  phase: TEST
}
layer {
  name: "mnist"
  type: "Data"
  top: "data"
  top: "label"
  include {
    phase: TEST
  }
  transform_param {
    scale: 0.00390625
  }
  data_param {
    source: "examples/mnist/mnist_test_lmdb"
    batch_size: 100
    backend: LMDB
  }
}
layer {
  name: "conv0"
  type: "Convolution"
  bottom: "data"
  top: "conv0"
  param {
    lr_mult: 1
  }
  param {
    lr_mult: 2
  }
  convolution_param {
    num_output: 50
    kernel_size: 5
    stride: 1
    weight_filler {
      type: "xavier"
    }
    bias_filler {
      type: "constant"
    }
  }
}
layer {
  name: "pool0"
  type: "Pooling"
  bottom: "conv0"
  top: "pool0"
  pooling_param {
    pool: MAX
    kernel_size: 2
    stride: 2
  }
}
layer {
  name: "conv1"
  type: "Convolution"
  bottom: "pool0"
  top: "conv1"
  param {
    lr_mult: 1
  }
  param {
    lr_mult: 2
  }
  convolution_param {
    num_output: 50
    kernel_size: 5
    stride: 1
    weight_filler {
      type: "xavier"
    }
    bias_filler {
      type: "constant"
    }
  }
}
layer {
  name: "pool1"
  type: "Pooling"
  bottom: "conv1"
  top: "pool1"
  pooling_param {
    pool: MAX
    kernel_size: 2
    stride: 2
  }
}
layer {
  name: "ip1"
  type: "InnerProduct"
  bottom: "pool1"
  top: "ip1"
  param {
    lr_mult: 1
  }
  param {
    lr_mult: 2
  }
  inner_product_param {
    num_output: 300
    weight_filler {
      type: "xavier"
    }
    bias_filler {
      type: "constant"
    }
  }
}
layer {
  name: "relu1"
  type: "ReLU"
  bottom: "ip1"
  top: "ip1"
}
layer {
  name: "ip2"
  type: "InnerProduct"
  bottom: "ip1"
  top: "ip2"
  param {
    lr_mult: 1
  }
  param {
    lr_mult: 2
  }
  inner_product_param {
    num_output: 10
    weight_filler {
      type: "xavier"
    }
    bias_filler {
      type: "constant"
    }
  }
}
layer {
  name: "relu2"
  type: "ReLU"
  bottom: "ip2"
  top: "ip2"
}
layer {
  name: "accuracy"
  type: "Accuracy"
  bottom: "ip2"
  bottom: "label"
  top: "accuracy"
  include {
    phase: TEST
  }
}
layer {
  name: "loss"
  type: "SoftmaxWithLoss"
  bottom: "ip2"
  bottom: "label"
  top: "loss"
}
I0426 06:28:28.531020 18288 layer_factory.hpp:77] Creating layer mnist
I0426 06:28:28.531607 18288 net.cpp:91] Creating Layer mnist
I0426 06:28:28.532007 18288 net.cpp:399] mnist -> data
I0426 06:28:28.532088 18288 net.cpp:399] mnist -> label
I0426 06:28:28.536285 18323 db_lmdb.cpp:35] Opened lmdb examples/mnist/mnist_test_lmdb
I0426 06:28:28.536655 18288 data_layer.cpp:41] output data size: 100,1,28,28
I0426 06:28:28.537210 18288 base_data_layer.cpp:69] Initializing prefetch
I0426 06:28:28.537294 18288 base_data_layer.cpp:72] Prefetch initialized.
I0426 06:28:28.537314 18288 net.cpp:141] Setting up mnist
I0426 06:28:28.537338 18288 net.cpp:148] Top shape: 100 1 28 28 (78400)
I0426 06:28:28.537361 18288 net.cpp:148] Top shape: 100 (100)
I0426 06:28:28.537379 18288 net.cpp:156] Memory required for data: 314000
I0426 06:28:28.537403 18288 layer_factory.hpp:77] Creating layer label_mnist_1_split
I0426 06:28:28.537446 18288 net.cpp:91] Creating Layer label_mnist_1_split
I0426 06:28:28.537482 18288 net.cpp:425] label_mnist_1_split <- label
I0426 06:28:28.537520 18288 net.cpp:399] label_mnist_1_split -> label_mnist_1_split_0
I0426 06:28:28.537562 18288 net.cpp:399] label_mnist_1_split -> label_mnist_1_split_1
I0426 06:28:28.537607 18288 net.cpp:141] Setting up label_mnist_1_split
I0426 06:28:28.537633 18288 net.cpp:148] Top shape: 100 (100)
I0426 06:28:28.537686 18288 net.cpp:148] Top shape: 100 (100)
I0426 06:28:28.537708 18288 net.cpp:156] Memory required for data: 314800
I0426 06:28:28.537727 18288 layer_factory.hpp:77] Creating layer conv0
I0426 06:28:28.537783 18288 net.cpp:91] Creating Layer conv0
I0426 06:28:28.537808 18288 net.cpp:425] conv0 <- data
I0426 06:28:28.537858 18288 net.cpp:399] conv0 -> conv0
I0426 06:28:28.538134 18288 net.cpp:141] Setting up conv0
I0426 06:28:28.538163 18288 net.cpp:148] Top shape: 100 50 24 24 (2880000)
I0426 06:28:28.538180 18288 net.cpp:156] Memory required for data: 11834800
I0426 06:28:28.538249 18288 layer_factory.hpp:77] Creating layer pool0
I0426 06:28:28.538283 18288 net.cpp:91] Creating Layer pool0
I0426 06:28:28.538307 18288 net.cpp:425] pool0 <- conv0
I0426 06:28:28.538347 18288 net.cpp:399] pool0 -> pool0
I0426 06:28:28.538399 18288 net.cpp:141] Setting up pool0
I0426 06:28:28.538424 18288 net.cpp:148] Top shape: 100 50 12 12 (720000)
I0426 06:28:28.538444 18288 net.cpp:156] Memory required for data: 14714800
I0426 06:28:28.538463 18288 layer_factory.hpp:77] Creating layer conv1
I0426 06:28:28.538511 18288 net.cpp:91] Creating Layer conv1
I0426 06:28:28.538535 18288 net.cpp:425] conv1 <- pool0
I0426 06:28:28.538576 18288 net.cpp:399] conv1 -> conv1
I0426 06:28:28.543378 18324 data_layer.cpp:102] Prefetch batch: 3 ms.
I0426 06:28:28.546880 18324 data_layer.cpp:103]      Read time: 0.347 ms.
I0426 06:28:28.546927 18324 data_layer.cpp:104] Transform time: 1.749 ms.
I0426 06:28:28.544736 18288 net.cpp:141] Setting up conv1
I0426 06:28:28.547103 18288 net.cpp:148] Top shape: 100 50 8 8 (320000)
I0426 06:28:28.547138 18288 net.cpp:156] Memory required for data: 15994800
I0426 06:28:28.547193 18288 layer_factory.hpp:77] Creating layer pool1
I0426 06:28:28.547271 18288 net.cpp:91] Creating Layer pool1
I0426 06:28:28.547333 18288 net.cpp:425] pool1 <- conv1
I0426 06:28:28.547390 18288 net.cpp:399] pool1 -> pool1
I0426 06:28:28.547472 18288 net.cpp:141] Setting up pool1
I0426 06:28:28.547541 18288 net.cpp:148] Top shape: 100 50 4 4 (80000)
I0426 06:28:28.547574 18288 net.cpp:156] Memory required for data: 16314800
I0426 06:28:28.547603 18288 layer_factory.hpp:77] Creating layer ip1
I0426 06:28:28.547653 18288 net.cpp:91] Creating Layer ip1
I0426 06:28:28.547708 18288 net.cpp:425] ip1 <- pool1
I0426 06:28:28.547762 18288 net.cpp:399] ip1 -> ip1
I0426 06:28:28.551898 18324 data_layer.cpp:102] Prefetch batch: 4 ms.
I0426 06:28:28.553788 18324 data_layer.cpp:103]      Read time: 0.344 ms.
I0426 06:28:28.553823 18324 data_layer.cpp:104] Transform time: 3.316 ms.
I0426 06:28:28.558892 18324 data_layer.cpp:102] Prefetch batch: 5 ms.
I0426 06:28:28.560672 18324 data_layer.cpp:103]      Read time: 0.341 ms.
I0426 06:28:28.560706 18324 data_layer.cpp:104] Transform time: 3.418 ms.
I0426 06:28:28.575721 18288 net.cpp:141] Setting up ip1
I0426 06:28:28.575742 18288 net.cpp:148] Top shape: 100 300 (30000)
I0426 06:28:28.575749 18288 net.cpp:156] Memory required for data: 16434800
I0426 06:28:28.575781 18288 layer_factory.hpp:77] Creating layer relu1
I0426 06:28:28.575808 18288 net.cpp:91] Creating Layer relu1
I0426 06:28:28.575829 18288 net.cpp:425] relu1 <- ip1
I0426 06:28:28.575852 18288 net.cpp:386] relu1 -> ip1 (in-place)
I0426 06:28:28.575876 18288 net.cpp:141] Setting up relu1
I0426 06:28:28.575888 18288 net.cpp:148] Top shape: 100 300 (30000)
I0426 06:28:28.575894 18288 net.cpp:156] Memory required for data: 16554800
I0426 06:28:28.575904 18288 layer_factory.hpp:77] Creating layer ip2
I0426 06:28:28.575932 18288 net.cpp:91] Creating Layer ip2
I0426 06:28:28.575943 18288 net.cpp:425] ip2 <- ip1
I0426 06:28:28.575968 18288 net.cpp:399] ip2 -> ip2
I0426 06:28:28.576280 18288 net.cpp:141] Setting up ip2
I0426 06:28:28.576297 18288 net.cpp:148] Top shape: 100 10 (1000)
I0426 06:28:28.576304 18288 net.cpp:156] Memory required for data: 16558800
I0426 06:28:28.576324 18288 layer_factory.hpp:77] Creating layer relu2
I0426 06:28:28.576344 18288 net.cpp:91] Creating Layer relu2
I0426 06:28:28.576354 18288 net.cpp:425] relu2 <- ip2
I0426 06:28:28.576375 18288 net.cpp:386] relu2 -> ip2 (in-place)
I0426 06:28:28.576397 18288 net.cpp:141] Setting up relu2
I0426 06:28:28.576408 18288 net.cpp:148] Top shape: 100 10 (1000)
I0426 06:28:28.576416 18288 net.cpp:156] Memory required for data: 16562800
I0426 06:28:28.576424 18288 layer_factory.hpp:77] Creating layer ip2_relu2_0_split
I0426 06:28:28.576441 18288 net.cpp:91] Creating Layer ip2_relu2_0_split
I0426 06:28:28.576450 18288 net.cpp:425] ip2_relu2_0_split <- ip2
I0426 06:28:28.576470 18288 net.cpp:399] ip2_relu2_0_split -> ip2_relu2_0_split_0
I0426 06:28:28.576493 18288 net.cpp:399] ip2_relu2_0_split -> ip2_relu2_0_split_1
I0426 06:28:28.576520 18288 net.cpp:141] Setting up ip2_relu2_0_split
I0426 06:28:28.576534 18288 net.cpp:148] Top shape: 100 10 (1000)
I0426 06:28:28.576545 18288 net.cpp:148] Top shape: 100 10 (1000)
I0426 06:28:28.576550 18288 net.cpp:156] Memory required for data: 16570800
I0426 06:28:28.576560 18288 layer_factory.hpp:77] Creating layer accuracy
I0426 06:28:28.576588 18288 net.cpp:91] Creating Layer accuracy
I0426 06:28:28.576601 18288 net.cpp:425] accuracy <- ip2_relu2_0_split_0
I0426 06:28:28.576620 18288 net.cpp:425] accuracy <- label_mnist_1_split_0
I0426 06:28:28.576643 18288 net.cpp:399] accuracy -> accuracy
…
