…
I0426 08:03:06.980876 19777 net.cpp:313] The NetState phase (0) differed from the phase (1) specified by a rule in layer mnist
I0426 08:03:06.981014 19777 net.cpp:313] The NetState phase (0) differed from the phase (1) specified by a rule in layer accuracy
I0426 08:03:06.981453 19777 net.cpp:49] Initializing net from parameters: 
name: "LeNet"
state {
  phase: TRAIN
}
layer {
  name: "mnist"
  type: "Data"
  top: "data"
  top: "label"
  include {
    phase: TRAIN
  }
  transform_param {
    scale: 0.00390625
  }
  data_param {
    source: "examples/mnist/mnist_train_lmdb"
    batch_size: 64
    backend: LMDB
  }
}
layer {
  name: "conv0"
  type: "Convolution"
  bottom: "data"
  top: "conv0"
  param {
    lr_mult: 1
  }
  param {
    lr_mult: 2
  }
  convolution_param {
    num_output: 50
    kernel_size: 5
    stride: 1
    weight_filler {
      type: "xavier"
    }
    bias_filler {
      type: "constant"
    }
  }
}
layer {
  name: "pool0"
  type: "Pooling"
  bottom: "conv0"
  top: "pool0"
  pooling_param {
    pool: MAX
    kernel_size: 2
    stride: 2
  }
}
layer {
  name: "conv1"
  type: "Convolution"
  bottom: "pool0"
  top: "conv1"
  param {
    lr_mult: 1
  }
  param {
    lr_mult: 2
  }
  convolution_param {
    num_output: 50
    kernel_size: 5
    stride: 1
    weight_filler {
      type: "xavier"
    }
    bias_filler {
      type: "constant"
    }
  }
}
layer {
  name: "pool1"
  type: "Pooling"
  bottom: "conv1"
  top: "pool1"
  pooling_param {
    pool: MAX
    kernel_size: 2
    stride: 2
  }
}
layer {
  name: "ip1"
  type: "InnerProduct"
  bottom: "pool1"
  top: "ip1"
  param {
    lr_mult: 1
  }
  param {
    lr_mult: 2
  }
  inner_product_param {
    num_output: 500
    weight_filler {
      type: "xavier"
    }
    bias_filler {
      type: "constant"
    }
  }
}
layer {
  name: "relu1"
  type: "ReLU"
  bottom: "ip1"
  top: "ip1"
}
layer {
  name: "ip2"
  type: "InnerProduct"
  bottom: "ip1"
  top: "ip2"
  param {
    lr_mult: 1
  }
  param {
    lr_mult: 2
  }
  inner_product_param {
    num_output: 10
    weight_filler {
      type: "xavier"
    }
    bias_filler {
      type: "constant"
    }
  }
}
layer {
  name: "relu2"
  type: "ReLU"
  bottom: "ip2"
  top: "ip2"
}
layer {
  name: "loss"
  type: "SoftmaxWithLoss"
  bottom: "ip2"
  bottom: "label"
  top: "loss"
}
I0426 08:03:06.982554 19777 layer_factory.hpp:77] Creating layer mnist
I0426 08:03:06.985769 19777 net.cpp:91] Creating Layer mnist
I0426 08:03:06.985869 19777 net.cpp:399] mnist -> data
I0426 08:03:06.986140 19777 net.cpp:399] mnist -> label
I0426 08:03:06.989084 19810 db_lmdb.cpp:35] Opened lmdb examples/mnist/mnist_train_lmdb
I0426 08:03:06.989689 19777 data_layer.cpp:41] output data size: 64,1,28,28
I0426 08:03:06.990790 19777 base_data_layer.cpp:69] Initializing prefetch
I0426 08:03:06.990959 19777 base_data_layer.cpp:72] Prefetch initialized.
I0426 08:03:06.991001 19777 net.cpp:141] Setting up mnist
I0426 08:03:06.991091 19777 net.cpp:148] Top shape: 64 1 28 28 (50176)
I0426 08:03:06.991138 19777 net.cpp:148] Top shape: 64 (64)
I0426 08:03:06.991170 19777 net.cpp:156] Memory required for data: 200960
I0426 08:03:06.991237 19777 layer_factory.hpp:77] Creating layer conv0
I0426 08:03:06.991374 19777 net.cpp:91] Creating Layer conv0
I0426 08:03:06.991433 19777 net.cpp:425] conv0 <- data
I0426 08:03:06.991593 19777 net.cpp:399] conv0 -> conv0
I0426 08:03:06.992368 19777 net.cpp:141] Setting up conv0
I0426 08:03:06.992420 19777 net.cpp:148] Top shape: 64 50 24 24 (1843200)
I0426 08:03:06.992444 19777 net.cpp:156] Memory required for data: 7573760
I0426 08:03:06.992633 19777 layer_factory.hpp:77] Creating layer pool0
I0426 08:03:06.992712 19777 net.cpp:91] Creating Layer pool0
I0426 08:03:06.992746 19777 net.cpp:425] pool0 <- conv0
I0426 08:03:06.992836 19777 net.cpp:399] pool0 -> pool0
I0426 08:03:06.992969 19777 net.cpp:141] Setting up pool0
I0426 08:03:06.993015 19777 net.cpp:148] Top shape: 64 50 12 12 (460800)
I0426 08:03:06.993037 19777 net.cpp:156] Memory required for data: 9416960
I0426 08:03:06.993068 19777 layer_factory.hpp:77] Creating layer conv1
I0426 08:03:06.993150 19777 net.cpp:91] Creating Layer conv1
I0426 08:03:06.993183 19777 net.cpp:425] conv1 <- pool0
I0426 08:03:06.993257 19777 net.cpp:399] conv1 -> conv1
I0426 08:03:06.999680 19811 data_layer.cpp:102] Prefetch batch: 4 ms.
I0426 08:03:06.999752 19811 data_layer.cpp:103]      Read time: 0.533 ms.
I0426 08:03:06.999783 19811 data_layer.cpp:104] Transform time: 2.663 ms.
I0426 08:03:07.010552 19811 data_layer.cpp:102] Prefetch batch: 10 ms.
I0426 08:03:07.010591 19811 data_layer.cpp:103]      Read time: 0.53 ms.
I0426 08:03:07.010617 19811 data_layer.cpp:104] Transform time: 8.984 ms.
I0426 08:03:07.015029 19811 data_layer.cpp:102] Prefetch batch: 4 ms.
I0426 08:03:07.015064 19811 data_layer.cpp:103]      Read time: 0.517 ms.
I0426 08:03:07.015087 19811 data_layer.cpp:104] Transform time: 2.657 ms.
I0426 08:03:07.022258 19777 net.cpp:141] Setting up conv1
I0426 08:03:07.022311 19777 net.cpp:148] Top shape: 64 50 8 8 (204800)
I0426 08:03:07.022334 19777 net.cpp:156] Memory required for data: 10236160
I0426 08:03:07.022428 19777 layer_factory.hpp:77] Creating layer pool1
I0426 08:03:07.022516 19777 net.cpp:91] Creating Layer pool1
I0426 08:03:07.022552 19777 net.cpp:425] pool1 <- conv1
I0426 08:03:07.022621 19777 net.cpp:399] pool1 -> pool1
I0426 08:03:07.022723 19777 net.cpp:141] Setting up pool1
I0426 08:03:07.022765 19777 net.cpp:148] Top shape: 64 50 4 4 (51200)
I0426 08:03:07.022789 19777 net.cpp:156] Memory required for data: 10440960
I0426 08:03:07.022819 19777 layer_factory.hpp:77] Creating layer ip1
I0426 08:03:07.022888 19777 net.cpp:91] Creating Layer ip1
I0426 08:03:07.022922 19777 net.cpp:425] ip1 <- pool1
I0426 08:03:07.022994 19777 net.cpp:399] ip1 -> ip1
I0426 08:03:07.106329 19777 net.cpp:141] Setting up ip1
I0426 08:03:07.106379 19777 net.cpp:148] Top shape: 64 500 (32000)
I0426 08:03:07.106393 19777 net.cpp:156] Memory required for data: 10568960
I0426 08:03:07.106464 19777 layer_factory.hpp:77] Creating layer relu1
I0426 08:03:07.106529 19777 net.cpp:91] Creating Layer relu1
I0426 08:03:07.106557 19777 net.cpp:425] relu1 <- ip1
I0426 08:03:07.106606 19777 net.cpp:386] relu1 -> ip1 (in-place)
I0426 08:03:07.106652 19777 net.cpp:141] Setting up relu1
I0426 08:03:07.106674 19777 net.cpp:148] Top shape: 64 500 (32000)
I0426 08:03:07.106685 19777 net.cpp:156] Memory required for data: 10696960
I0426 08:03:07.106703 19777 layer_factory.hpp:77] Creating layer ip2
I0426 08:03:07.106745 19777 net.cpp:91] Creating Layer ip2
I0426 08:03:07.106767 19777 net.cpp:425] ip2 <- ip1
I0426 08:03:07.106817 19777 net.cpp:399] ip2 -> ip2
I0426 08:03:07.107858 19777 net.cpp:141] Setting up ip2
I0426 08:03:07.107892 19777 net.cpp:148] Top shape: 64 10 (640)
I0426 08:03:07.107904 19777 net.cpp:156] Memory required for data: 10699520
I0426 08:03:07.107941 19777 layer_factory.hpp:77] Creating layer relu2
I0426 08:03:07.107988 19777 net.cpp:91] Creating Layer relu2
I0426 08:03:07.108011 19777 net.cpp:425] relu2 <- ip2
I0426 08:03:07.108052 19777 net.cpp:386] relu2 -> ip2 (in-place)
I0426 08:03:07.108095 19777 net.cpp:141] Setting up relu2
I0426 08:03:07.108116 19777 net.cpp:148] Top shape: 64 10 (640)
I0426 08:03:07.108129 19777 net.cpp:156] Memory required for data: 10702080
I0426 08:03:07.108147 19777 layer_factory.hpp:77] Creating layer loss
I0426 08:03:07.108194 19777 net.cpp:91] Creating Layer loss
I0426 08:03:07.108217 19777 net.cpp:425] loss <- ip2
I0426 08:03:07.108252 19777 net.cpp:425] loss <- label
I0426 08:03:07.108291 19777 net.cpp:399] loss -> loss
I0426 08:03:07.108371 19777 layer_factory.hpp:77] Creating layer loss
…
I0426 08:03:07.110246 19777 solver.cpp:181] Creating test net (#0) specified by net file: ECE595/mnist/train_test/var_fcn/lenet_train_test_fcn500.prototxt
I0426 08:03:07.110420 19777 net.cpp:313] The NetState phase (1) differed from the phase (0) specified by a rule in layer mnist
I0426 08:03:07.110774 19777 net.cpp:49] Initializing net from parameters: 
name: "LeNet"
state {
  phase: TEST
}
layer {
  name: "mnist"
  type: "Data"
  top: "data"
  top: "label"
  include {
    phase: TEST
  }
  transform_param {
    scale: 0.00390625
  }
  data_param {
    source: "examples/mnist/mnist_test_lmdb"
    batch_size: 100
    backend: LMDB
  }
}
layer {
  name: "conv0"
  type: "Convolution"
  bottom: "data"
  top: "conv0"
  param {
    lr_mult: 1
  }
  param {
    lr_mult: 2
  }
  convolution_param {
    num_output: 50
    kernel_size: 5
    stride: 1
    weight_filler {
      type: "xavier"
    }
    bias_filler {
      type: "constant"
    }
  }
}
layer {
  name: "pool0"
  type: "Pooling"
  bottom: "conv0"
  top: "pool0"
  pooling_param {
    pool: MAX
    kernel_size: 2
    stride: 2
  }
}
layer {
  name: "conv1"
  type: "Convolution"
  bottom: "pool0"
  top: "conv1"
  param {
    lr_mult: 1
  }
  param {
    lr_mult: 2
  }
  convolution_param {
    num_output: 50
    kernel_size: 5
    stride: 1
    weight_filler {
      type: "xavier"
    }
    bias_filler {
      type: "constant"
    }
  }
}
layer {
  name: "pool1"
  type: "Pooling"
  bottom: "conv1"
  top: "pool1"
  pooling_param {
    pool: MAX
    kernel_size: 2
    stride: 2
  }
}
layer {
  name: "ip1"
  type: "InnerProduct"
  bottom: "pool1"
  top: "ip1"
  param {
    lr_mult: 1
  }
  param {
    lr_mult: 2
  }
  inner_product_param {
    num_output: 500
    weight_filler {
      type: "xavier"
    }
    bias_filler {
      type: "constant"
    }
  }
}
layer {
  name: "relu1"
  type: "ReLU"
  bottom: "ip1"
  top: "ip1"
}
layer {
  name: "ip2"
  type: "InnerProduct"
  bottom: "ip1"
  top: "ip2"
  param {
    lr_mult: 1
  }
  param {
    lr_mult: 2
  }
  inner_product_param {
    num_output: 10
    weight_filler {
      type: "xavier"
    }
    bias_filler {
      type: "constant"
    }
  }
}
layer {
  name: "relu2"
  type: "ReLU"
  bottom: "ip2"
  top: "ip2"
}
layer {
  name: "accuracy"
  type: "Accuracy"
  bottom: "ip2"
  bottom: "label"
  top: "accuracy"
  include {
    phase: TEST
  }
}
layer {
  name: "loss"
  type: "SoftmaxWithLoss"
  bottom: "ip2"
  bottom: "label"
  top: "loss"
}
I0426 08:03:07.111340 19777 layer_factory.hpp:77] Creating layer mnist
I0426 08:03:07.111819 19777 net.cpp:91] Creating Layer mnist
I0426 08:03:07.111874 19777 net.cpp:399] mnist -> data
I0426 08:03:07.111955 19777 net.cpp:399] mnist -> label
I0426 08:03:07.115597 19812 db_lmdb.cpp:35] Opened lmdb examples/mnist/mnist_test_lmdb
I0426 08:03:07.116133 19777 data_layer.cpp:41] output data size: 100,1,28,28
I0426 08:03:07.117063 19777 base_data_layer.cpp:69] Initializing prefetch
I0426 08:03:07.117200 19777 base_data_layer.cpp:72] Prefetch initialized.
I0426 08:03:07.117223 19777 net.cpp:141] Setting up mnist
I0426 08:03:07.117254 19777 net.cpp:148] Top shape: 100 1 28 28 (78400)
I0426 08:03:07.117280 19777 net.cpp:148] Top shape: 100 (100)
I0426 08:03:07.117290 19777 net.cpp:156] Memory required for data: 314000
I0426 08:03:07.117323 19777 layer_factory.hpp:77] Creating layer label_mnist_1_split
I0426 08:03:07.117404 19777 net.cpp:91] Creating Layer label_mnist_1_split
I0426 08:03:07.117436 19777 net.cpp:425] label_mnist_1_split <- label
I0426 08:03:07.117492 19777 net.cpp:399] label_mnist_1_split -> label_mnist_1_split_0
I0426 08:03:07.117564 19777 net.cpp:399] label_mnist_1_split -> label_mnist_1_split_1
I0426 08:03:07.117664 19777 net.cpp:141] Setting up label_mnist_1_split
I0426 08:03:07.117702 19777 net.cpp:148] Top shape: 100 (100)
I0426 08:03:07.117732 19777 net.cpp:148] Top shape: 100 (100)
I0426 08:03:07.117745 19777 net.cpp:156] Memory required for data: 314800
I0426 08:03:07.117769 19777 layer_factory.hpp:77] Creating layer conv0
I0426 08:03:07.117856 19777 net.cpp:91] Creating Layer conv0
I0426 08:03:07.117890 19777 net.cpp:425] conv0 <- data
I0426 08:03:07.117967 19777 net.cpp:399] conv0 -> conv0
I0426 08:03:07.118435 19777 net.cpp:141] Setting up conv0
I0426 08:03:07.118491 19777 net.cpp:148] Top shape: 100 50 24 24 (2880000)
I0426 08:03:07.118506 19777 net.cpp:156] Memory required for data: 11834800
I0426 08:03:07.118600 19777 layer_factory.hpp:77] Creating layer pool0
I0426 08:03:07.118670 19777 net.cpp:91] Creating Layer pool0
I0426 08:03:07.118701 19777 net.cpp:425] pool0 <- conv0
I0426 08:03:07.118764 19777 net.cpp:399] pool0 -> pool0
I0426 08:03:07.118856 19777 net.cpp:141] Setting up pool0
I0426 08:03:07.118893 19777 net.cpp:148] Top shape: 100 50 12 12 (720000)
I0426 08:03:07.118906 19777 net.cpp:156] Memory required for data: 14714800
I0426 08:03:07.118932 19777 layer_factory.hpp:77] Creating layer conv1
I0426 08:03:07.119016 19777 net.cpp:91] Creating Layer conv1
I0426 08:03:07.119022 19813 data_layer.cpp:102] Prefetch batch: 1 ms.
I0426 08:03:07.119045 19813 data_layer.cpp:103]      Read time: 0.244 ms.
I0426 08:03:07.119051 19813 data_layer.cpp:104] Transform time: 1.033 ms.
I0426 08:03:07.119050 19777 net.cpp:425] conv1 <- pool0
I0426 08:03:07.119118 19777 net.cpp:399] conv1 -> conv1
I0426 08:03:07.120544 19813 data_layer.cpp:102] Prefetch batch: 1 ms.
I0426 08:03:07.120558 19813 data_layer.cpp:103]      Read time: 0.186 ms.
I0426 08:03:07.120561 19813 data_layer.cpp:104] Transform time: 0.966 ms.
I0426 08:03:07.122156 19813 data_layer.cpp:102] Prefetch batch: 1 ms.
I0426 08:03:07.122166 19813 data_layer.cpp:103]      Read time: 0.156 ms.
I0426 08:03:07.122171 19813 data_layer.cpp:104] Transform time: 0.971 ms.
I0426 08:03:07.129166 19777 net.cpp:141] Setting up conv1
I0426 08:03:07.129204 19777 net.cpp:148] Top shape: 100 50 8 8 (320000)
I0426 08:03:07.129220 19777 net.cpp:156] Memory required for data: 15994800
I0426 08:03:07.129284 19777 layer_factory.hpp:77] Creating layer pool1
I0426 08:03:07.129338 19777 net.cpp:91] Creating Layer pool1
I0426 08:03:07.129362 19777 net.cpp:425] pool1 <- conv1
I0426 08:03:07.129410 19777 net.cpp:399] pool1 -> pool1
I0426 08:03:07.129483 19777 net.cpp:141] Setting up pool1
I0426 08:03:07.129511 19777 net.cpp:148] Top shape: 100 50 4 4 (80000)
I0426 08:03:07.129523 19777 net.cpp:156] Memory required for data: 16314800
I0426 08:03:07.129539 19777 layer_factory.hpp:77] Creating layer ip1
I0426 08:03:07.129583 19777 net.cpp:91] Creating Layer ip1
I0426 08:03:07.129616 19777 net.cpp:425] ip1 <- pool1
I0426 08:03:07.129678 19777 net.cpp:399] ip1 -> ip1
I0426 08:03:07.192633 19777 net.cpp:141] Setting up ip1
I0426 08:03:07.192672 19777 net.cpp:148] Top shape: 100 500 (50000)
I0426 08:03:07.192684 19777 net.cpp:156] Memory required for data: 16514800
I0426 08:03:07.192746 19777 layer_factory.hpp:77] Creating layer relu1
I0426 08:03:07.192788 19777 net.cpp:91] Creating Layer relu1
I0426 08:03:07.192827 19777 net.cpp:425] relu1 <- ip1
I0426 08:03:07.192873 19777 net.cpp:386] relu1 -> ip1 (in-place)
I0426 08:03:07.192919 19777 net.cpp:141] Setting up relu1
I0426 08:03:07.192940 19777 net.cpp:148] Top shape: 100 500 (50000)
I0426 08:03:07.192953 19777 net.cpp:156] Memory required for data: 16714800
I0426 08:03:07.192971 19777 layer_factory.hpp:77] Creating layer ip2
I0426 08:03:07.193022 19777 net.cpp:91] Creating Layer ip2
I0426 08:03:07.193045 19777 net.cpp:425] ip2 <- ip1
I0426 08:03:07.193100 19777 net.cpp:399] ip2 -> ip2
I0426 08:03:07.194023 19777 net.cpp:141] Setting up ip2
I0426 08:03:07.194057 19777 net.cpp:148] Top shape: 100 10 (1000)
I0426 08:03:07.194072 19777 net.cpp:156] Memory required for data: 16718800
I0426 08:03:07.194110 19777 layer_factory.hpp:77] Creating layer relu2
I0426 08:03:07.194144 19777 net.cpp:91] Creating Layer relu2
I0426 08:03:07.194166 19777 net.cpp:425] relu2 <- ip2
I0426 08:03:07.194207 19777 net.cpp:386] relu2 -> ip2 (in-place)
I0426 08:03:07.194247 19777 net.cpp:141] Setting up relu2
I0426 08:03:07.194269 19777 net.cpp:148] Top shape: 100 10 (1000)
I0426 08:03:07.194283 19777 net.cpp:156] Memory required for data: 16722800
I0426 08:03:07.194298 19777 layer_factory.hpp:77] Creating layer ip2_relu2_0_split
I0426 08:03:07.194327 19777 net.cpp:91] Creating Layer ip2_relu2_0_split
I0426 08:03:07.194345 19777 net.cpp:425] ip2_relu2_0_split <- ip2
I0426 08:03:07.194392 19777 net.cpp:399] ip2_relu2_0_split -> ip2_relu2_0_split_0
I0426 08:03:07.194442 19777 net.cpp:399] ip2_relu2_0_split -> ip2_relu2_0_split_1
I0426 08:03:07.194491 19777 net.cpp:141] Setting up ip2_relu2_0_split
I0426 08:03:07.194517 19777 net.cpp:148] Top shape: 100 10 (1000)
I0426 08:03:07.194540 19777 net.cpp:148] Top shape: 100 10 (1000)
I0426 08:03:07.194550 19777 net.cpp:156] Memory required for data: 16730800
I0426 08:03:07.194569 19777 layer_factory.hpp:77] Creating layer accuracy
I0426 08:03:07.194627 19777 net.cpp:91] Creating Layer accuracy
I0426 08:03:07.194648 19777 net.cpp:425] accuracy <- ip2_relu2_0_split_0
I0426 08:03:07.194686 19777 net.cpp:425] accuracy <- label_mnist_1_split_0
I0426 08:03:07.194723 19777 net.cpp:399] accuracy -> accuracy
…
