…
I0426 03:32:27.538535  8226 net.cpp:313] The NetState phase (0) differed from the phase (1) specified by a rule in layer mnist
I0426 03:32:27.538588  8226 net.cpp:313] The NetState phase (0) differed from the phase (1) specified by a rule in layer accuracy
I0426 03:32:27.538760  8226 net.cpp:49] Initializing net from parameters: 
name: "LeNet"
state {
  phase: TRAIN
}
layer {
  name: "mnist"
  type: "Data"
  top: "data"
  top: "label"
  include {
    phase: TRAIN
  }
  transform_param {
    scale: 0.00390625
  }
  data_param {
    source: "examples/mnist/mnist_train_lmdb"
    batch_size: 64
    backend: LMDB
  }
}
layer {
  name: "conv0"
  type: "Convolution"
  bottom: "data"
  top: "conv0"
  param {
    lr_mult: 1
  }
  param {
    lr_mult: 2
  }
  convolution_param {
    num_output: 50
    kernel_size: 5
    stride: 1
    weight_filler {
      type: "xavier"
    }
    bias_filler {
      type: "constant"
    }
  }
}
layer {
  name: "pool0"
  type: "Pooling"
  bottom: "conv0"
  top: "pool0"
  pooling_param {
    pool: MAX
    kernel_size: 2
    stride: 2
  }
}
layer {
  name: "conv1"
  type: "Convolution"
  bottom: "pool0"
  top: "conv1"
  param {
    lr_mult: 1
  }
  param {
    lr_mult: 2
  }
  convolution_param {
    num_output: 50
    kernel_size: 5
    stride: 1
    weight_filler {
      type: "xavier"
    }
    bias_filler {
      type: "constant"
    }
  }
}
layer {
  name: "pool1"
  type: "Pooling"
  bottom: "conv1"
  top: "pool1"
  pooling_param {
    pool: MAX
    kernel_size: 2
    stride: 2
  }
}
layer {
  name: "ip1"
  type: "InnerProduct"
  bottom: "pool1"
  top: "ip1"
  param {
    lr_mult: 1
  }
  param {
    lr_mult: 2
  }
  inner_product_param {
    num_output: 500
    weight_filler {
      type: "xavier"
    }
    bias_filler {
      type: "constant"
    }
  }
}
layer {
  name: "relu1"
  type: "ReLU"
  bottom: "ip1"
  top: "ip1"
}
layer {
  name: "ip2"
  type: "InnerProduct"
  bottom: "ip1"
  top: "ip2"
  param {
    lr_mult: 1
  }
  param {
    lr_mult: 2
  }
  inner_product_param {
    num_output: 10
    weight_filler {
      type: "xavier"
    }
    bias_filler {
      type: "constant"
    }
  }
}
layer {
  name: "relu2"
  type: "ReLU"
  bottom: "ip2"
  top: "ip2"
}
layer {
  name: "loss"
  type: "SoftmaxWithLoss"
  bottom: "ip2"
  bottom: "label"
  top: "loss"
}
I0426 03:32:27.539186  8226 layer_factory.hpp:77] Creating layer mnist
I0426 03:32:27.540436  8226 net.cpp:91] Creating Layer mnist
I0426 03:32:27.540474  8226 net.cpp:399] mnist -> data
I0426 03:32:27.540585  8226 net.cpp:399] mnist -> label
I0426 03:32:27.545173  8259 db_lmdb.cpp:35] Opened lmdb examples/mnist/mnist_train_lmdb
I0426 03:32:27.545599  8226 data_layer.cpp:41] output data size: 64,1,28,28
I0426 03:32:27.545967  8226 base_data_layer.cpp:69] Initializing prefetch
I0426 03:32:27.546032  8226 base_data_layer.cpp:72] Prefetch initialized.
I0426 03:32:27.546046  8226 net.cpp:141] Setting up mnist
I0426 03:32:27.546077  8226 net.cpp:148] Top shape: 64 1 28 28 (50176)
I0426 03:32:27.546093  8226 net.cpp:148] Top shape: 64 (64)
I0426 03:32:27.546103  8226 net.cpp:156] Memory required for data: 200960
I0426 03:32:27.546125  8226 layer_factory.hpp:77] Creating layer conv0
I0426 03:32:27.546181  8226 net.cpp:91] Creating Layer conv0
I0426 03:32:27.546201  8226 net.cpp:425] conv0 <- data
I0426 03:32:27.546249  8226 net.cpp:399] conv0 -> conv0
I0426 03:32:27.546591  8226 net.cpp:141] Setting up conv0
I0426 03:32:27.546613  8226 net.cpp:148] Top shape: 64 50 24 24 (1843200)
I0426 03:32:27.546624  8226 net.cpp:156] Memory required for data: 7573760
I0426 03:32:27.546705  8226 layer_factory.hpp:77] Creating layer pool0
I0426 03:32:27.546738  8226 net.cpp:91] Creating Layer pool0
I0426 03:32:27.546754  8226 net.cpp:425] pool0 <- conv0
I0426 03:32:27.546792  8226 net.cpp:399] pool0 -> pool0
I0426 03:32:27.546856  8226 net.cpp:141] Setting up pool0
I0426 03:32:27.546876  8226 net.cpp:148] Top shape: 64 50 12 12 (460800)
I0426 03:32:27.546885  8226 net.cpp:156] Memory required for data: 9416960
I0426 03:32:27.546897  8226 layer_factory.hpp:77] Creating layer conv1
I0426 03:32:27.546929  8226 net.cpp:91] Creating Layer conv1
I0426 03:32:27.546941  8226 net.cpp:425] conv1 <- pool0
I0426 03:32:27.546972  8226 net.cpp:399] conv1 -> conv1
I0426 03:32:27.551064  8260 data_layer.cpp:102] Prefetch batch: 2 ms.
I0426 03:32:27.551102  8260 data_layer.cpp:103]      Read time: 0.211 ms.
I0426 03:32:27.551113  8260 data_layer.cpp:104] Transform time: 1.139 ms.
I0426 03:32:27.552603  8226 net.cpp:141] Setting up conv1
I0426 03:32:27.552651  8226 net.cpp:148] Top shape: 64 50 8 8 (204800)
I0426 03:32:27.552673  8226 net.cpp:156] Memory required for data: 10236160
I0426 03:32:27.552726  8226 layer_factory.hpp:77] Creating layer pool1
I0426 03:32:27.552767  8226 net.cpp:91] Creating Layer pool1
I0426 03:32:27.552791  8226 net.cpp:425] pool1 <- conv1
I0426 03:32:27.552830  8226 net.cpp:399] pool1 -> pool1
I0426 03:32:27.552883  8226 net.cpp:141] Setting up pool1
I0426 03:32:27.552911  8226 net.cpp:148] Top shape: 64 50 4 4 (51200)
I0426 03:32:27.552928  8226 net.cpp:156] Memory required for data: 10440960
I0426 03:32:27.552949  8226 layer_factory.hpp:77] Creating layer ip1
I0426 03:32:27.552987  8226 net.cpp:91] Creating Layer ip1
I0426 03:32:27.553009  8226 net.cpp:425] ip1 <- pool1
I0426 03:32:27.553047  8226 net.cpp:399] ip1 -> ip1
I0426 03:32:27.553228  8260 data_layer.cpp:102] Prefetch batch: 2 ms.
I0426 03:32:27.557817  8260 data_layer.cpp:103]      Read time: 0.213 ms.
I0426 03:32:27.557855  8260 data_layer.cpp:104] Transform time: 1.113 ms.
I0426 03:32:27.561682  8260 data_layer.cpp:102] Prefetch batch: 3 ms.
I0426 03:32:27.562278  8260 data_layer.cpp:103]      Read time: 0.205 ms.
I0426 03:32:27.562316  8260 data_layer.cpp:104] Transform time: 1.108 ms.
I0426 03:32:27.614537  8226 net.cpp:141] Setting up ip1
I0426 03:32:27.614563  8226 net.cpp:148] Top shape: 64 500 (32000)
I0426 03:32:27.614578  8226 net.cpp:156] Memory required for data: 10568960
I0426 03:32:27.614619  8226 layer_factory.hpp:77] Creating layer relu1
I0426 03:32:27.614655  8226 net.cpp:91] Creating Layer relu1
I0426 03:32:27.614673  8226 net.cpp:425] relu1 <- ip1
I0426 03:32:27.614702  8226 net.cpp:386] relu1 -> ip1 (in-place)
I0426 03:32:27.614732  8226 net.cpp:141] Setting up relu1
I0426 03:32:27.614750  8226 net.cpp:148] Top shape: 64 500 (32000)
I0426 03:32:27.614764  8226 net.cpp:156] Memory required for data: 10696960
I0426 03:32:27.614774  8226 layer_factory.hpp:77] Creating layer ip2
I0426 03:32:27.614802  8226 net.cpp:91] Creating Layer ip2
I0426 03:32:27.614820  8226 net.cpp:425] ip2 <- ip1
I0426 03:32:27.614852  8226 net.cpp:399] ip2 -> ip2
I0426 03:32:27.615370  8226 net.cpp:141] Setting up ip2
I0426 03:32:27.615401  8226 net.cpp:148] Top shape: 64 10 (640)
I0426 03:32:27.615416  8226 net.cpp:156] Memory required for data: 10699520
I0426 03:32:27.615439  8226 layer_factory.hpp:77] Creating layer relu2
I0426 03:32:27.615468  8226 net.cpp:91] Creating Layer relu2
I0426 03:32:27.615486  8226 net.cpp:425] relu2 <- ip2
I0426 03:32:27.615514  8226 net.cpp:386] relu2 -> ip2 (in-place)
I0426 03:32:27.621588  8226 net.cpp:141] Setting up relu2
I0426 03:32:27.621644  8226 net.cpp:148] Top shape: 64 10 (640)
I0426 03:32:27.621677  8226 net.cpp:156] Memory required for data: 10702080
I0426 03:32:27.621707  8226 layer_factory.hpp:77] Creating layer loss
I0426 03:32:27.621758  8226 net.cpp:91] Creating Layer loss
I0426 03:32:27.621807  8226 net.cpp:425] loss <- ip2
I0426 03:32:27.621851  8226 net.cpp:425] loss <- label
I0426 03:32:27.621908  8226 net.cpp:399] loss -> loss
I0426 03:32:27.621997  8226 layer_factory.hpp:77] Creating layer loss
…
I0426 03:32:27.623731  8226 solver.cpp:181] Creating test net (#0) specified by net file: ECE595/mnist/train_test/var_fcn/lenet_train_test_fcn500.prototxt
I0426 03:32:27.624228  8226 net.cpp:313] The NetState phase (1) differed from the phase (0) specified by a rule in layer mnist
I0426 03:32:27.624567  8226 net.cpp:49] Initializing net from parameters: 
name: "LeNet"
state {
  phase: TEST
}
layer {
  name: "mnist"
  type: "Data"
  top: "data"
  top: "label"
  include {
    phase: TEST
  }
  transform_param {
    scale: 0.00390625
  }
  data_param {
    source: "examples/mnist/mnist_test_lmdb"
    batch_size: 100
    backend: LMDB
  }
}
layer {
  name: "conv0"
  type: "Convolution"
  bottom: "data"
  top: "conv0"
  param {
    lr_mult: 1
  }
  param {
    lr_mult: 2
  }
  convolution_param {
    num_output: 50
    kernel_size: 5
    stride: 1
    weight_filler {
      type: "xavier"
    }
    bias_filler {
      type: "constant"
    }
  }
}
layer {
  name: "pool0"
  type: "Pooling"
  bottom: "conv0"
  top: "pool0"
  pooling_param {
    pool: MAX
    kernel_size: 2
    stride: 2
  }
}
layer {
  name: "conv1"
  type: "Convolution"
  bottom: "pool0"
  top: "conv1"
  param {
    lr_mult: 1
  }
  param {
    lr_mult: 2
  }
  convolution_param {
    num_output: 50
    kernel_size: 5
    stride: 1
    weight_filler {
      type: "xavier"
    }
    bias_filler {
      type: "constant"
    }
  }
}
layer {
  name: "pool1"
  type: "Pooling"
  bottom: "conv1"
  top: "pool1"
  pooling_param {
    pool: MAX
    kernel_size: 2
    stride: 2
  }
}
layer {
  name: "ip1"
  type: "InnerProduct"
  bottom: "pool1"
  top: "ip1"
  param {
    lr_mult: 1
  }
  param {
    lr_mult: 2
  }
  inner_product_param {
    num_output: 500
    weight_filler {
      type: "xavier"
    }
    bias_filler {
      type: "constant"
    }
  }
}
layer {
  name: "relu1"
  type: "ReLU"
  bottom: "ip1"
  top: "ip1"
}
layer {
  name: "ip2"
  type: "InnerProduct"
  bottom: "ip1"
  top: "ip2"
  param {
    lr_mult: 1
  }
  param {
    lr_mult: 2
  }
  inner_product_param {
    num_output: 10
    weight_filler {
      type: "xavier"
    }
    bias_filler {
      type: "constant"
    }
  }
}
layer {
  name: "relu2"
  type: "ReLU"
  bottom: "ip2"
  top: "ip2"
}
layer {
  name: "accuracy"
  type: "Accuracy"
  bottom: "ip2"
  bottom: "label"
  top: "accuracy"
  include {
    phase: TEST
  }
}
layer {
  name: "loss"
  type: "SoftmaxWithLoss"
  bottom: "ip2"
  bottom: "label"
  top: "loss"
}
I0426 03:32:27.625280  8226 layer_factory.hpp:77] Creating layer mnist
I0426 03:32:27.625988  8226 net.cpp:91] Creating Layer mnist
I0426 03:32:27.626371  8226 net.cpp:399] mnist -> data
I0426 03:32:27.626446  8226 net.cpp:399] mnist -> label
I0426 03:32:27.628083  8261 db_lmdb.cpp:35] Opened lmdb examples/mnist/mnist_test_lmdb
I0426 03:32:27.628422  8226 data_layer.cpp:41] output data size: 100,1,28,28
I0426 03:32:27.629137  8226 base_data_layer.cpp:69] Initializing prefetch
I0426 03:32:27.629207  8226 base_data_layer.cpp:72] Prefetch initialized.
I0426 03:32:27.629227  8226 net.cpp:141] Setting up mnist
I0426 03:32:27.629251  8226 net.cpp:148] Top shape: 100 1 28 28 (78400)
I0426 03:32:27.629272  8226 net.cpp:148] Top shape: 100 (100)
I0426 03:32:27.629288  8226 net.cpp:156] Memory required for data: 314000
I0426 03:32:27.629312  8226 layer_factory.hpp:77] Creating layer label_mnist_1_split
I0426 03:32:27.629359  8226 net.cpp:91] Creating Layer label_mnist_1_split
I0426 03:32:27.629380  8226 net.cpp:425] label_mnist_1_split <- label
I0426 03:32:27.629420  8226 net.cpp:399] label_mnist_1_split -> label_mnist_1_split_0
I0426 03:32:27.629463  8226 net.cpp:399] label_mnist_1_split -> label_mnist_1_split_1
I0426 03:32:27.629513  8226 net.cpp:141] Setting up label_mnist_1_split
I0426 03:32:27.629539  8226 net.cpp:148] Top shape: 100 (100)
I0426 03:32:27.629559  8226 net.cpp:148] Top shape: 100 (100)
I0426 03:32:27.629575  8226 net.cpp:156] Memory required for data: 314800
I0426 03:32:27.629595  8226 layer_factory.hpp:77] Creating layer conv0
I0426 03:32:27.629642  8226 net.cpp:91] Creating Layer conv0
I0426 03:32:27.629667  8226 net.cpp:425] conv0 <- data
I0426 03:32:27.629707  8226 net.cpp:399] conv0 -> conv0
I0426 03:32:27.629931  8226 net.cpp:141] Setting up conv0
I0426 03:32:27.629959  8226 net.cpp:148] Top shape: 100 50 24 24 (2880000)
I0426 03:32:27.629976  8226 net.cpp:156] Memory required for data: 11834800
I0426 03:32:27.630025  8226 layer_factory.hpp:77] Creating layer pool0
I0426 03:32:27.630064  8226 net.cpp:91] Creating Layer pool0
I0426 03:32:27.630090  8226 net.cpp:425] pool0 <- conv0
I0426 03:32:27.630126  8226 net.cpp:399] pool0 -> pool0
I0426 03:32:27.630175  8226 net.cpp:141] Setting up pool0
I0426 03:32:27.630203  8226 net.cpp:148] Top shape: 100 50 12 12 (720000)
I0426 03:32:27.630219  8226 net.cpp:156] Memory required for data: 14714800
I0426 03:32:27.630239  8226 layer_factory.hpp:77] Creating layer conv1
I0426 03:32:27.630278  8226 net.cpp:91] Creating Layer conv1
I0426 03:32:27.630301  8226 net.cpp:425] conv1 <- pool0
I0426 03:32:27.630342  8226 net.cpp:399] conv1 -> conv1
I0426 03:32:27.630944  8262 data_layer.cpp:102] Prefetch batch: 1 ms.
I0426 03:32:27.630964  8262 data_layer.cpp:103]      Read time: 0.171 ms.
I0426 03:32:27.630980  8262 data_layer.cpp:104] Transform time: 0.979 ms.
I0426 03:32:27.632606  8262 data_layer.cpp:102] Prefetch batch: 1 ms.
I0426 03:32:27.632614  8262 data_layer.cpp:103]      Read time: 0.15 ms.
I0426 03:32:27.632619  8262 data_layer.cpp:104] Transform time: 0.974 ms.
I0426 03:32:27.634150  8262 data_layer.cpp:102] Prefetch batch: 1 ms.
I0426 03:32:27.634160  8262 data_layer.cpp:103]      Read time: 0.139 ms.
I0426 03:32:27.634163  8262 data_layer.cpp:104] Transform time: 0.935 ms.
I0426 03:32:27.635902  8226 net.cpp:141] Setting up conv1
I0426 03:32:27.635922  8226 net.cpp:148] Top shape: 100 50 8 8 (320000)
I0426 03:32:27.635928  8226 net.cpp:156] Memory required for data: 15994800
I0426 03:32:27.635960  8226 layer_factory.hpp:77] Creating layer pool1
I0426 03:32:27.635985  8226 net.cpp:91] Creating Layer pool1
I0426 03:32:27.635998  8226 net.cpp:425] pool1 <- conv1
I0426 03:32:27.636020  8226 net.cpp:399] pool1 -> pool1
I0426 03:32:27.636055  8226 net.cpp:141] Setting up pool1
I0426 03:32:27.636068  8226 net.cpp:148] Top shape: 100 50 4 4 (80000)
I0426 03:32:27.636075  8226 net.cpp:156] Memory required for data: 16314800
I0426 03:32:27.636085  8226 layer_factory.hpp:77] Creating layer ip1
I0426 03:32:27.636106  8226 net.cpp:91] Creating Layer ip1
I0426 03:32:27.636117  8226 net.cpp:425] ip1 <- pool1
I0426 03:32:27.636143  8226 net.cpp:399] ip1 -> ip1
I0426 03:32:27.670789  8226 net.cpp:141] Setting up ip1
I0426 03:32:27.670819  8226 net.cpp:148] Top shape: 100 500 (50000)
I0426 03:32:27.670826  8226 net.cpp:156] Memory required for data: 16514800
I0426 03:32:27.670872  8226 layer_factory.hpp:77] Creating layer relu1
I0426 03:32:27.670898  8226 net.cpp:91] Creating Layer relu1
I0426 03:32:27.670922  8226 net.cpp:425] relu1 <- ip1
I0426 03:32:27.670944  8226 net.cpp:386] relu1 -> ip1 (in-place)
I0426 03:32:27.670967  8226 net.cpp:141] Setting up relu1
I0426 03:32:27.670979  8226 net.cpp:148] Top shape: 100 500 (50000)
I0426 03:32:27.670985  8226 net.cpp:156] Memory required for data: 16714800
I0426 03:32:27.670995  8226 layer_factory.hpp:77] Creating layer ip2
I0426 03:32:27.671026  8226 net.cpp:91] Creating Layer ip2
I0426 03:32:27.671041  8226 net.cpp:425] ip2 <- ip1
I0426 03:32:27.671073  8226 net.cpp:399] ip2 -> ip2
I0426 03:32:27.671555  8226 net.cpp:141] Setting up ip2
I0426 03:32:27.671569  8226 net.cpp:148] Top shape: 100 10 (1000)
I0426 03:32:27.671576  8226 net.cpp:156] Memory required for data: 16718800
I0426 03:32:27.671593  8226 layer_factory.hpp:77] Creating layer relu2
I0426 03:32:27.671610  8226 net.cpp:91] Creating Layer relu2
I0426 03:32:27.671622  8226 net.cpp:425] relu2 <- ip2
I0426 03:32:27.671640  8226 net.cpp:386] relu2 -> ip2 (in-place)
I0426 03:32:27.671660  8226 net.cpp:141] Setting up relu2
I0426 03:32:27.671670  8226 net.cpp:148] Top shape: 100 10 (1000)
I0426 03:32:27.671677  8226 net.cpp:156] Memory required for data: 16722800
I0426 03:32:27.671686  8226 layer_factory.hpp:77] Creating layer ip2_relu2_0_split
I0426 03:32:27.671701  8226 net.cpp:91] Creating Layer ip2_relu2_0_split
I0426 03:32:27.671711  8226 net.cpp:425] ip2_relu2_0_split <- ip2
I0426 03:32:27.671736  8226 net.cpp:399] ip2_relu2_0_split -> ip2_relu2_0_split_0
I0426 03:32:27.671759  8226 net.cpp:399] ip2_relu2_0_split -> ip2_relu2_0_split_1
I0426 03:32:27.671784  8226 net.cpp:141] Setting up ip2_relu2_0_split
I0426 03:32:27.671808  8226 net.cpp:148] Top shape: 100 10 (1000)
I0426 03:32:27.671816  8226 net.cpp:148] Top shape: 100 10 (1000)
I0426 03:32:27.671823  8226 net.cpp:156] Memory required for data: 16730800
I0426 03:32:27.671831  8226 layer_factory.hpp:77] Creating layer accuracy
I0426 03:32:27.671859  8226 net.cpp:91] Creating Layer accuracy
I0426 03:32:27.671881  8226 net.cpp:425] accuracy <- ip2_relu2_0_split_0
I0426 03:32:27.671897  8226 net.cpp:425] accuracy <- label_mnist_1_split_0
I0426 03:32:27.671916  8226 net.cpp:399] accuracy -> accuracy
…
