…
I0426 00:34:50.525609  4233 net.cpp:313] The NetState phase (0) differed from the phase (1) specified by a rule in layer mnist
I0426 00:34:50.525661  4233 net.cpp:313] The NetState phase (0) differed from the phase (1) specified by a rule in layer accuracy
I0426 00:34:50.525842  4233 net.cpp:49] Initializing net from parameters: 
name: "LeNet"
state {
  phase: TRAIN
}
layer {
  name: "mnist"
  type: "Data"
  top: "data"
  top: "label"
  include {
    phase: TRAIN
  }
  transform_param {
    scale: 0.00390625
  }
  data_param {
    source: "examples/mnist/mnist_train_lmdb"
    batch_size: 64
    backend: LMDB
  }
}
layer {
  name: "conv0"
  type: "Convolution"
  bottom: "data"
  top: "conv0"
  param {
    lr_mult: 1
  }
  param {
    lr_mult: 2
  }
  convolution_param {
    num_output: 50
    kernel_size: 5
    stride: 1
    weight_filler {
      type: "xavier"
    }
    bias_filler {
      type: "constant"
    }
  }
}
layer {
  name: "pool0"
  type: "Pooling"
  bottom: "conv0"
  top: "pool0"
  pooling_param {
    pool: MAX
    kernel_size: 2
    stride: 2
  }
}
layer {
  name: "conv1"
  type: "Convolution"
  bottom: "pool0"
  top: "conv1"
  param {
    lr_mult: 1
  }
  param {
    lr_mult: 2
  }
  convolution_param {
    num_output: 50
    kernel_size: 5
    stride: 1
    weight_filler {
      type: "xavier"
    }
    bias_filler {
      type: "constant"
    }
  }
}
layer {
  name: "pool1"
  type: "Pooling"
  bottom: "conv1"
  top: "pool1"
  pooling_param {
    pool: MAX
    kernel_size: 2
    stride: 2
  }
}
layer {
  name: "ip1"
  type: "InnerProduct"
  bottom: "pool1"
  top: "ip1"
  param {
    lr_mult: 1
  }
  param {
    lr_mult: 2
  }
  inner_product_param {
    num_output: 100
    weight_filler {
      type: "xavier"
    }
    bias_filler {
      type: "constant"
    }
  }
}
layer {
  name: "relu1"
  type: "ReLU"
  bottom: "ip1"
  top: "ip1"
}
layer {
  name: "ip2"
  type: "InnerProduct"
  bottom: "ip1"
  top: "ip2"
  param {
    lr_mult: 1
  }
  param {
    lr_mult: 2
  }
  inner_product_param {
    num_output: 10
    weight_filler {
      type: "xavier"
    }
    bias_filler {
      type: "constant"
    }
  }
}
layer {
  name: "relu2"
  type: "ReLU"
  bottom: "ip2"
  top: "ip2"
}
layer {
  name: "loss"
  type: "SoftmaxWithLoss"
  bottom: "ip2"
  bottom: "label"
  top: "loss"
}
I0426 00:34:50.526396  4233 layer_factory.hpp:77] Creating layer mnist
I0426 00:34:50.527770  4233 net.cpp:91] Creating Layer mnist
I0426 00:34:50.527812  4233 net.cpp:399] mnist -> data
I0426 00:34:50.527956  4233 net.cpp:399] mnist -> label
I0426 00:34:50.530500  4266 db_lmdb.cpp:35] Opened lmdb examples/mnist/mnist_train_lmdb
I0426 00:34:50.530982  4233 data_layer.cpp:41] output data size: 64,1,28,28
I0426 00:34:50.531373  4233 base_data_layer.cpp:69] Initializing prefetch
I0426 00:34:50.531425  4233 base_data_layer.cpp:72] Prefetch initialized.
I0426 00:34:50.531438  4233 net.cpp:141] Setting up mnist
I0426 00:34:50.531497  4233 net.cpp:148] Top shape: 64 1 28 28 (50176)
I0426 00:34:50.531513  4233 net.cpp:148] Top shape: 64 (64)
I0426 00:34:50.531522  4233 net.cpp:156] Memory required for data: 200960
I0426 00:34:50.531545  4233 layer_factory.hpp:77] Creating layer conv0
I0426 00:34:50.531596  4233 net.cpp:91] Creating Layer conv0
I0426 00:34:50.531617  4233 net.cpp:425] conv0 <- data
I0426 00:34:50.531668  4233 net.cpp:399] conv0 -> conv0
I0426 00:34:50.532078  4233 net.cpp:141] Setting up conv0
I0426 00:34:50.532097  4233 net.cpp:148] Top shape: 64 50 24 24 (1843200)
I0426 00:34:50.532109  4233 net.cpp:156] Memory required for data: 7573760
I0426 00:34:50.532198  4233 layer_factory.hpp:77] Creating layer pool0
I0426 00:34:50.532235  4233 net.cpp:91] Creating Layer pool0
I0426 00:34:50.532251  4233 net.cpp:425] pool0 <- conv0
I0426 00:34:50.532289  4233 net.cpp:399] pool0 -> pool0
I0426 00:34:50.532349  4233 net.cpp:141] Setting up pool0
I0426 00:34:50.532367  4233 net.cpp:148] Top shape: 64 50 12 12 (460800)
I0426 00:34:50.532379  4233 net.cpp:156] Memory required for data: 9416960
I0426 00:34:50.532392  4233 layer_factory.hpp:77] Creating layer conv1
I0426 00:34:50.532424  4233 net.cpp:91] Creating Layer conv1
I0426 00:34:50.532440  4233 net.cpp:425] conv1 <- pool0
I0426 00:34:50.532471  4233 net.cpp:399] conv1 -> conv1
I0426 00:34:50.533257  4267 data_layer.cpp:102] Prefetch batch: 1 ms.
I0426 00:34:50.533289  4267 data_layer.cpp:103]      Read time: 0.203 ms.
I0426 00:34:50.533303  4267 data_layer.cpp:104] Transform time: 1.046 ms.
I0426 00:34:50.534966  4267 data_layer.cpp:102] Prefetch batch: 1 ms.
I0426 00:34:50.534981  4267 data_layer.cpp:103]      Read time: 0.202 ms.
I0426 00:34:50.534991  4267 data_layer.cpp:104] Transform time: 1.003 ms.
I0426 00:34:50.536648  4267 data_layer.cpp:102] Prefetch batch: 1 ms.
I0426 00:34:50.536661  4267 data_layer.cpp:103]      Read time: 0.198 ms.
I0426 00:34:50.536672  4267 data_layer.cpp:104] Transform time: 1.007 ms.
I0426 00:34:50.538131  4233 net.cpp:141] Setting up conv1
I0426 00:34:50.538156  4233 net.cpp:148] Top shape: 64 50 8 8 (204800)
I0426 00:34:50.538166  4233 net.cpp:156] Memory required for data: 10236160
I0426 00:34:50.538202  4233 layer_factory.hpp:77] Creating layer pool1
I0426 00:34:50.538229  4233 net.cpp:91] Creating Layer pool1
I0426 00:34:50.538242  4233 net.cpp:425] pool1 <- conv1
I0426 00:34:50.538269  4233 net.cpp:399] pool1 -> pool1
I0426 00:34:50.538307  4233 net.cpp:141] Setting up pool1
I0426 00:34:50.538323  4233 net.cpp:148] Top shape: 64 50 4 4 (51200)
I0426 00:34:50.538332  4233 net.cpp:156] Memory required for data: 10440960
I0426 00:34:50.538344  4233 layer_factory.hpp:77] Creating layer ip1
I0426 00:34:50.538372  4233 net.cpp:91] Creating Layer ip1
I0426 00:34:50.538384  4233 net.cpp:425] ip1 <- pool1
I0426 00:34:50.538413  4233 net.cpp:399] ip1 -> ip1
I0426 00:34:50.545614  4233 net.cpp:141] Setting up ip1
I0426 00:34:50.545631  4233 net.cpp:148] Top shape: 64 100 (6400)
I0426 00:34:50.545640  4233 net.cpp:156] Memory required for data: 10466560
I0426 00:34:50.545677  4233 layer_factory.hpp:77] Creating layer relu1
I0426 00:34:50.545704  4233 net.cpp:91] Creating Layer relu1
I0426 00:34:50.545717  4233 net.cpp:425] relu1 <- ip1
I0426 00:34:50.545742  4233 net.cpp:386] relu1 -> ip1 (in-place)
I0426 00:34:50.545771  4233 net.cpp:141] Setting up relu1
I0426 00:34:50.545784  4233 net.cpp:148] Top shape: 64 100 (6400)
I0426 00:34:50.545792  4233 net.cpp:156] Memory required for data: 10492160
I0426 00:34:50.545804  4233 layer_factory.hpp:77] Creating layer ip2
I0426 00:34:50.545827  4233 net.cpp:91] Creating Layer ip2
I0426 00:34:50.545840  4233 net.cpp:425] ip2 <- ip1
I0426 00:34:50.545867  4233 net.cpp:399] ip2 -> ip2
I0426 00:34:50.546017  4233 net.cpp:141] Setting up ip2
I0426 00:34:50.546035  4233 net.cpp:148] Top shape: 64 10 (640)
I0426 00:34:50.546043  4233 net.cpp:156] Memory required for data: 10494720
I0426 00:34:50.546068  4233 layer_factory.hpp:77] Creating layer relu2
I0426 00:34:50.546092  4233 net.cpp:91] Creating Layer relu2
I0426 00:34:50.546104  4233 net.cpp:425] relu2 <- ip2
I0426 00:34:50.546128  4233 net.cpp:386] relu2 -> ip2 (in-place)
I0426 00:34:50.546150  4233 net.cpp:141] Setting up relu2
I0426 00:34:50.546164  4233 net.cpp:148] Top shape: 64 10 (640)
I0426 00:34:50.546171  4233 net.cpp:156] Memory required for data: 10497280
I0426 00:34:50.546183  4233 layer_factory.hpp:77] Creating layer loss
I0426 00:34:50.546211  4233 net.cpp:91] Creating Layer loss
I0426 00:34:50.546222  4233 net.cpp:425] loss <- ip2
I0426 00:34:50.546242  4233 net.cpp:425] loss <- label
I0426 00:34:50.546265  4233 net.cpp:399] loss -> loss
I0426 00:34:50.546309  4233 layer_factory.hpp:77] Creating layer loss
…
I0426 00:34:50.547524  4233 solver.cpp:181] Creating test net (#0) specified by net file: ECE595/mnist/train_test/var_fcn/lenet_train_test_fcn100.prototxt
I0426 00:34:50.547618  4233 net.cpp:313] The NetState phase (1) differed from the phase (0) specified by a rule in layer mnist
I0426 00:34:50.547844  4233 net.cpp:49] Initializing net from parameters: 
name: "LeNet"
state {
  phase: TEST
}
layer {
  name: "mnist"
  type: "Data"
  top: "data"
  top: "label"
  include {
    phase: TEST
  }
  transform_param {
    scale: 0.00390625
  }
  data_param {
    source: "examples/mnist/mnist_test_lmdb"
    batch_size: 100
    backend: LMDB
  }
}
layer {
  name: "conv0"
  type: "Convolution"
  bottom: "data"
  top: "conv0"
  param {
    lr_mult: 1
  }
  param {
    lr_mult: 2
  }
  convolution_param {
    num_output: 50
    kernel_size: 5
    stride: 1
    weight_filler {
      type: "xavier"
    }
    bias_filler {
      type: "constant"
    }
  }
}
layer {
  name: "pool0"
  type: "Pooling"
  bottom: "conv0"
  top: "pool0"
  pooling_param {
    pool: MAX
    kernel_size: 2
    stride: 2
  }
}
layer {
  name: "conv1"
  type: "Convolution"
  bottom: "pool0"
  top: "conv1"
  param {
    lr_mult: 1
  }
  param {
    lr_mult: 2
  }
  convolution_param {
    num_output: 50
    kernel_size: 5
    stride: 1
    weight_filler {
      type: "xavier"
    }
    bias_filler {
      type: "constant"
    }
  }
}
layer {
  name: "pool1"
  type: "Pooling"
  bottom: "conv1"
  top: "pool1"
  pooling_param {
    pool: MAX
    kernel_size: 2
    stride: 2
  }
}
layer {
  name: "ip1"
  type: "InnerProduct"
  bottom: "pool1"
  top: "ip1"
  param {
    lr_mult: 1
  }
  param {
    lr_mult: 2
  }
  inner_product_param {
    num_output: 100
    weight_filler {
      type: "xavier"
    }
    bias_filler {
      type: "constant"
    }
  }
}
layer {
  name: "relu1"
  type: "ReLU"
  bottom: "ip1"
  top: "ip1"
}
layer {
  name: "ip2"
  type: "InnerProduct"
  bottom: "ip1"
  top: "ip2"
  param {
    lr_mult: 1
  }
  param {
    lr_mult: 2
  }
  inner_product_param {
    num_output: 10
    weight_filler {
      type: "xavier"
    }
    bias_filler {
      type: "constant"
    }
  }
}
layer {
  name: "relu2"
  type: "ReLU"
  bottom: "ip2"
  top: "ip2"
}
layer {
  name: "accuracy"
  type: "Accuracy"
  bottom: "ip2"
  bottom: "label"
  top: "accuracy"
  include {
    phase: TEST
  }
}
layer {
  name: "loss"
  type: "SoftmaxWithLoss"
  bottom: "ip2"
  bottom: "label"
  top: "loss"
}
I0426 00:34:50.548193  4233 layer_factory.hpp:77] Creating layer mnist
I0426 00:34:50.548501  4233 net.cpp:91] Creating Layer mnist
I0426 00:34:50.548529  4233 net.cpp:399] mnist -> data
I0426 00:34:50.548570  4233 net.cpp:399] mnist -> label
I0426 00:34:50.550484  4268 db_lmdb.cpp:35] Opened lmdb examples/mnist/mnist_test_lmdb
I0426 00:34:50.550843  4233 data_layer.cpp:41] output data size: 100,1,28,28
I0426 00:34:50.551383  4233 base_data_layer.cpp:69] Initializing prefetch
I0426 00:34:50.551447  4233 base_data_layer.cpp:72] Prefetch initialized.
I0426 00:34:50.551460  4233 net.cpp:141] Setting up mnist
I0426 00:34:50.551475  4233 net.cpp:148] Top shape: 100 1 28 28 (78400)
I0426 00:34:50.551487  4233 net.cpp:148] Top shape: 100 (100)
I0426 00:34:50.551496  4233 net.cpp:156] Memory required for data: 314000
I0426 00:34:50.551513  4233 layer_factory.hpp:77] Creating layer label_mnist_1_split
I0426 00:34:50.551548  4233 net.cpp:91] Creating Layer label_mnist_1_split
I0426 00:34:50.551561  4233 net.cpp:425] label_mnist_1_split <- label
I0426 00:34:50.551599  4233 net.cpp:399] label_mnist_1_split -> label_mnist_1_split_0
I0426 00:34:50.551632  4233 net.cpp:399] label_mnist_1_split -> label_mnist_1_split_1
I0426 00:34:50.551668  4233 net.cpp:141] Setting up label_mnist_1_split
I0426 00:34:50.551686  4233 net.cpp:148] Top shape: 100 (100)
I0426 00:34:50.551703  4233 net.cpp:148] Top shape: 100 (100)
I0426 00:34:50.551712  4233 net.cpp:156] Memory required for data: 314800
I0426 00:34:50.551726  4233 layer_factory.hpp:77] Creating layer conv0
I0426 00:34:50.551769  4233 net.cpp:91] Creating Layer conv0
I0426 00:34:50.551784  4233 net.cpp:425] conv0 <- data
I0426 00:34:50.551820  4233 net.cpp:399] conv0 -> conv0
I0426 00:34:50.552052  4233 net.cpp:141] Setting up conv0
I0426 00:34:50.552073  4233 net.cpp:148] Top shape: 100 50 24 24 (2880000)
I0426 00:34:50.552081  4233 net.cpp:156] Memory required for data: 11834800
I0426 00:34:50.552141  4233 layer_factory.hpp:77] Creating layer pool0
I0426 00:34:50.552170  4233 net.cpp:91] Creating Layer pool0
I0426 00:34:50.552183  4233 net.cpp:425] pool0 <- conv0
I0426 00:34:50.552219  4233 net.cpp:399] pool0 -> pool0
I0426 00:34:50.552263  4233 net.cpp:141] Setting up pool0
I0426 00:34:50.552281  4233 net.cpp:148] Top shape: 100 50 12 12 (720000)
I0426 00:34:50.552290  4233 net.cpp:156] Memory required for data: 14714800
I0426 00:34:50.552302  4233 layer_factory.hpp:77] Creating layer conv1
I0426 00:34:50.552345  4233 net.cpp:91] Creating Layer conv1
I0426 00:34:50.552358  4233 net.cpp:425] conv1 <- pool0
I0426 00:34:50.552390  4233 net.cpp:399] conv1 -> conv1
I0426 00:34:50.554013  4269 data_layer.cpp:102] Prefetch batch: 2 ms.
I0426 00:34:50.554031  4269 data_layer.cpp:103]      Read time: 0.33 ms.
I0426 00:34:50.554039  4269 data_layer.cpp:104] Transform time: 1.604 ms.
I0426 00:34:50.556598  4269 data_layer.cpp:102] Prefetch batch: 2 ms.
I0426 00:34:50.556612  4269 data_layer.cpp:103]      Read time: 0.308 ms.
I0426 00:34:50.556620  4269 data_layer.cpp:104] Transform time: 1.561 ms.
I0426 00:34:50.558151  4233 net.cpp:141] Setting up conv1
I0426 00:34:50.558168  4233 net.cpp:148] Top shape: 100 50 8 8 (320000)
I0426 00:34:50.558177  4233 net.cpp:156] Memory required for data: 15994800
I0426 00:34:50.558214  4233 layer_factory.hpp:77] Creating layer pool1
I0426 00:34:50.558238  4233 net.cpp:91] Creating Layer pool1
I0426 00:34:50.558250  4233 net.cpp:425] pool1 <- conv1
I0426 00:34:50.558279  4233 net.cpp:399] pool1 -> pool1
I0426 00:34:50.558318  4233 net.cpp:141] Setting up pool1
I0426 00:34:50.558333  4233 net.cpp:148] Top shape: 100 50 4 4 (80000)
I0426 00:34:50.558342  4233 net.cpp:156] Memory required for data: 16314800
I0426 00:34:50.558354  4233 layer_factory.hpp:77] Creating layer ip1
I0426 00:34:50.558378  4233 net.cpp:91] Creating Layer ip1
I0426 00:34:50.558390  4233 net.cpp:425] ip1 <- pool1
I0426 00:34:50.558418  4233 net.cpp:399] ip1 -> ip1
I0426 00:34:50.559187  4269 data_layer.cpp:102] Prefetch batch: 2 ms.
I0426 00:34:50.559201  4269 data_layer.cpp:103]      Read time: 0.304 ms.
I0426 00:34:50.559211  4269 data_layer.cpp:104] Transform time: 1.573 ms.
I0426 00:34:50.565799  4233 net.cpp:141] Setting up ip1
I0426 00:34:50.565819  4233 net.cpp:148] Top shape: 100 100 (10000)
I0426 00:34:50.565827  4233 net.cpp:156] Memory required for data: 16354800
I0426 00:34:50.565863  4233 layer_factory.hpp:77] Creating layer relu1
I0426 00:34:50.565883  4233 net.cpp:91] Creating Layer relu1
I0426 00:34:50.565907  4233 net.cpp:425] relu1 <- ip1
I0426 00:34:50.565932  4233 net.cpp:386] relu1 -> ip1 (in-place)
I0426 00:34:50.565956  4233 net.cpp:141] Setting up relu1
I0426 00:34:50.565968  4233 net.cpp:148] Top shape: 100 100 (10000)
I0426 00:34:50.565978  4233 net.cpp:156] Memory required for data: 16394800
I0426 00:34:50.565989  4233 layer_factory.hpp:77] Creating layer ip2
I0426 00:34:50.566021  4233 net.cpp:91] Creating Layer ip2
I0426 00:34:50.566040  4233 net.cpp:425] ip2 <- ip1
I0426 00:34:50.566071  4233 net.cpp:399] ip2 -> ip2
I0426 00:34:50.566233  4233 net.cpp:141] Setting up ip2
I0426 00:34:50.566251  4233 net.cpp:148] Top shape: 100 10 (1000)
I0426 00:34:50.566258  4233 net.cpp:156] Memory required for data: 16398800
I0426 00:34:50.566283  4233 layer_factory.hpp:77] Creating layer relu2
I0426 00:34:50.566303  4233 net.cpp:91] Creating Layer relu2
I0426 00:34:50.566315  4233 net.cpp:425] relu2 <- ip2
I0426 00:34:50.566340  4233 net.cpp:386] relu2 -> ip2 (in-place)
I0426 00:34:50.566365  4233 net.cpp:141] Setting up relu2
I0426 00:34:50.566377  4233 net.cpp:148] Top shape: 100 10 (1000)
I0426 00:34:50.566385  4233 net.cpp:156] Memory required for data: 16402800
I0426 00:34:50.566397  4233 layer_factory.hpp:77] Creating layer ip2_relu2_0_split
I0426 00:34:50.566414  4233 net.cpp:91] Creating Layer ip2_relu2_0_split
I0426 00:34:50.566426  4233 net.cpp:425] ip2_relu2_0_split <- ip2
I0426 00:34:50.566448  4233 net.cpp:399] ip2_relu2_0_split -> ip2_relu2_0_split_0
I0426 00:34:50.566474  4233 net.cpp:399] ip2_relu2_0_split -> ip2_relu2_0_split_1
I0426 00:34:50.566504  4233 net.cpp:141] Setting up ip2_relu2_0_split
I0426 00:34:50.566519  4233 net.cpp:148] Top shape: 100 10 (1000)
I0426 00:34:50.566532  4233 net.cpp:148] Top shape: 100 10 (1000)
I0426 00:34:50.566540  4233 net.cpp:156] Memory required for data: 16410800
I0426 00:34:50.566552  4233 layer_factory.hpp:77] Creating layer accuracy
I0426 00:34:50.566579  4233 net.cpp:91] Creating Layer accuracy
I0426 00:34:50.566591  4233 net.cpp:425] accuracy <- ip2_relu2_0_split_0
I0426 00:34:50.566612  4233 net.cpp:425] accuracy <- label_mnist_1_split_0
I0426 00:34:50.566637  4233 net.cpp:399] accuracy -> accuracy
…
