…
I0426 05:10:41.189347 10432 net.cpp:313] The NetState phase (0) differed from the phase (1) specified by a rule in layer mnist
I0426 05:10:41.189399 10432 net.cpp:313] The NetState phase (0) differed from the phase (1) specified by a rule in layer accuracy
I0426 05:10:41.189570 10432 net.cpp:49] Initializing net from parameters: 
name: "LeNet"
state {
  phase: TRAIN
}
layer {
  name: "mnist"
  type: "Data"
  top: "data"
  top: "label"
  include {
    phase: TRAIN
  }
  transform_param {
    scale: 0.00390625
  }
  data_param {
    source: "examples/mnist/mnist_train_lmdb"
    batch_size: 64
    backend: LMDB
  }
}
layer {
  name: "conv0"
  type: "Convolution"
  bottom: "data"
  top: "conv0"
  param {
    lr_mult: 1
  }
  param {
    lr_mult: 2
  }
  convolution_param {
    num_output: 50
    kernel_size: 5
    stride: 1
    weight_filler {
      type: "xavier"
    }
    bias_filler {
      type: "constant"
    }
  }
}
layer {
  name: "pool0"
  type: "Pooling"
  bottom: "conv0"
  top: "pool0"
  pooling_param {
    pool: MAX
    kernel_size: 2
    stride: 2
  }
}
layer {
  name: "conv1"
  type: "Convolution"
  bottom: "pool0"
  top: "conv1"
  param {
    lr_mult: 1
  }
  param {
    lr_mult: 2
  }
  convolution_param {
    num_output: 50
    kernel_size: 5
    stride: 1
    weight_filler {
      type: "xavier"
    }
    bias_filler {
      type: "constant"
    }
  }
}
layer {
  name: "pool1"
  type: "Pooling"
  bottom: "conv1"
  top: "pool1"
  pooling_param {
    pool: MAX
    kernel_size: 2
    stride: 2
  }
}
layer {
  name: "ip1"
  type: "InnerProduct"
  bottom: "pool1"
  top: "ip1"
  param {
    lr_mult: 1
  }
  param {
    lr_mult: 2
  }
  inner_product_param {
    num_output: 100
    weight_filler {
      type: "xavier"
    }
    bias_filler {
      type: "constant"
    }
  }
}
layer {
  name: "relu1"
  type: "ReLU"
  bottom: "ip1"
  top: "ip1"
}
layer {
  name: "ip2"
  type: "InnerProduct"
  bottom: "ip1"
  top: "ip2"
  param {
    lr_mult: 1
  }
  param {
    lr_mult: 2
  }
  inner_product_param {
    num_output: 10
    weight_filler {
      type: "xavier"
    }
    bias_filler {
      type: "constant"
    }
  }
}
layer {
  name: "relu2"
  type: "ReLU"
  bottom: "ip2"
  top: "ip2"
}
layer {
  name: "loss"
  type: "SoftmaxWithLoss"
  bottom: "ip2"
  bottom: "label"
  top: "loss"
}
I0426 05:10:41.190003 10432 layer_factory.hpp:77] Creating layer mnist
I0426 05:10:41.191257 10432 net.cpp:91] Creating Layer mnist
I0426 05:10:41.191295 10432 net.cpp:399] mnist -> data
I0426 05:10:41.191407 10432 net.cpp:399] mnist -> label
I0426 05:10:41.195920 10465 db_lmdb.cpp:35] Opened lmdb examples/mnist/mnist_train_lmdb
I0426 05:10:41.196351 10432 data_layer.cpp:41] output data size: 64,1,28,28
I0426 05:10:41.196707 10432 base_data_layer.cpp:69] Initializing prefetch
I0426 05:10:41.196769 10432 base_data_layer.cpp:72] Prefetch initialized.
I0426 05:10:41.196784 10432 net.cpp:141] Setting up mnist
I0426 05:10:41.196815 10432 net.cpp:148] Top shape: 64 1 28 28 (50176)
I0426 05:10:41.196831 10432 net.cpp:148] Top shape: 64 (64)
I0426 05:10:41.196841 10432 net.cpp:156] Memory required for data: 200960
I0426 05:10:41.196864 10432 layer_factory.hpp:77] Creating layer conv0
I0426 05:10:41.196910 10432 net.cpp:91] Creating Layer conv0
I0426 05:10:41.196930 10432 net.cpp:425] conv0 <- data
I0426 05:10:41.196979 10432 net.cpp:399] conv0 -> conv0
I0426 05:10:41.197306 10432 net.cpp:141] Setting up conv0
I0426 05:10:41.197329 10432 net.cpp:148] Top shape: 64 50 24 24 (1843200)
I0426 05:10:41.197338 10432 net.cpp:156] Memory required for data: 7573760
I0426 05:10:41.197417 10432 layer_factory.hpp:77] Creating layer pool0
I0426 05:10:41.197450 10432 net.cpp:91] Creating Layer pool0
I0426 05:10:41.197465 10432 net.cpp:425] pool0 <- conv0
I0426 05:10:41.197517 10432 net.cpp:399] pool0 -> pool0
I0426 05:10:41.197574 10432 net.cpp:141] Setting up pool0
I0426 05:10:41.197592 10432 net.cpp:148] Top shape: 64 50 12 12 (460800)
I0426 05:10:41.197604 10432 net.cpp:156] Memory required for data: 9416960
I0426 05:10:41.197634 10432 layer_factory.hpp:77] Creating layer conv1
I0426 05:10:41.197682 10432 net.cpp:91] Creating Layer conv1
I0426 05:10:41.197707 10432 net.cpp:425] conv1 <- pool0
I0426 05:10:41.197749 10432 net.cpp:399] conv1 -> conv1
I0426 05:10:41.201835 10466 data_layer.cpp:102] Prefetch batch: 2 ms.
I0426 05:10:41.203378 10432 net.cpp:141] Setting up conv1
I0426 05:10:41.204396 10466 data_layer.cpp:103]      Read time: 0.216 ms.
I0426 05:10:41.204435 10432 net.cpp:148] Top shape: 64 50 8 8 (204800)
I0426 05:10:41.204483 10432 net.cpp:156] Memory required for data: 10236160
I0426 05:10:41.204457 10466 data_layer.cpp:104] Transform time: 1.114 ms.
I0426 05:10:41.204538 10432 layer_factory.hpp:77] Creating layer pool1
I0426 05:10:41.204586 10432 net.cpp:91] Creating Layer pool1
I0426 05:10:41.204608 10432 net.cpp:425] pool1 <- conv1
I0426 05:10:41.204649 10432 net.cpp:399] pool1 -> pool1
I0426 05:10:41.204704 10432 net.cpp:141] Setting up pool1
I0426 05:10:41.204730 10432 net.cpp:148] Top shape: 64 50 4 4 (51200)
I0426 05:10:41.204748 10432 net.cpp:156] Memory required for data: 10440960
I0426 05:10:41.204768 10432 layer_factory.hpp:77] Creating layer ip1
I0426 05:10:41.204805 10432 net.cpp:91] Creating Layer ip1
I0426 05:10:41.204828 10432 net.cpp:425] ip1 <- pool1
I0426 05:10:41.204865 10432 net.cpp:399] ip1 -> ip1
I0426 05:10:41.206696 10466 data_layer.cpp:102] Prefetch batch: 2 ms.
I0426 05:10:41.208925 10466 data_layer.cpp:103]      Read time: 0.211 ms.
I0426 05:10:41.208962 10466 data_layer.cpp:104] Transform time: 1.117 ms.
I0426 05:10:41.212028 10432 net.cpp:141] Setting up ip1
I0426 05:10:41.212689 10466 data_layer.cpp:102] Prefetch batch: 3 ms.
I0426 05:10:41.214392 10466 data_layer.cpp:103]      Read time: 0.205 ms.
I0426 05:10:41.214366 10432 net.cpp:148] Top shape: 64 100 (6400)
I0426 05:10:41.214419 10466 data_layer.cpp:104] Transform time: 1.112 ms.
I0426 05:10:41.214447 10432 net.cpp:156] Memory required for data: 10466560
I0426 05:10:41.214525 10432 layer_factory.hpp:77] Creating layer relu1
I0426 05:10:41.214596 10432 net.cpp:91] Creating Layer relu1
I0426 05:10:41.214648 10432 net.cpp:425] relu1 <- ip1
I0426 05:10:41.214702 10432 net.cpp:386] relu1 -> ip1 (in-place)
I0426 05:10:41.214766 10432 net.cpp:141] Setting up relu1
I0426 05:10:41.214814 10432 net.cpp:148] Top shape: 64 100 (6400)
I0426 05:10:41.214843 10432 net.cpp:156] Memory required for data: 10492160
I0426 05:10:41.214872 10432 layer_factory.hpp:77] Creating layer ip2
I0426 05:10:41.214917 10432 net.cpp:91] Creating Layer ip2
I0426 05:10:41.214965 10432 net.cpp:425] ip2 <- ip1
I0426 05:10:41.215018 10432 net.cpp:399] ip2 -> ip2
I0426 05:10:41.215211 10432 net.cpp:141] Setting up ip2
I0426 05:10:41.215394 10432 net.cpp:148] Top shape: 64 10 (640)
I0426 05:10:41.215426 10432 net.cpp:156] Memory required for data: 10494720
I0426 05:10:41.215469 10432 layer_factory.hpp:77] Creating layer relu2
I0426 05:10:41.215529 10432 net.cpp:91] Creating Layer relu2
I0426 05:10:41.215577 10432 net.cpp:425] relu2 <- ip2
I0426 05:10:41.215625 10432 net.cpp:386] relu2 -> ip2 (in-place)
I0426 05:10:41.215688 10432 net.cpp:141] Setting up relu2
I0426 05:10:41.215739 10432 net.cpp:148] Top shape: 64 10 (640)
I0426 05:10:41.215766 10432 net.cpp:156] Memory required for data: 10497280
I0426 05:10:41.215796 10432 layer_factory.hpp:77] Creating layer loss
I0426 05:10:41.215842 10432 net.cpp:91] Creating Layer loss
I0426 05:10:41.215891 10432 net.cpp:425] loss <- ip2
I0426 05:10:41.215935 10432 net.cpp:425] loss <- label
I0426 05:10:41.215992 10432 net.cpp:399] loss -> loss
I0426 05:10:41.216081 10432 layer_factory.hpp:77] Creating layer loss
…
I0426 05:10:41.217794 10432 solver.cpp:181] Creating test net (#0) specified by net file: ECE595/mnist/train_test/var_fcn/lenet_train_test_fcn100.prototxt
I0426 05:10:41.218294 10432 net.cpp:313] The NetState phase (1) differed from the phase (0) specified by a rule in layer mnist
I0426 05:10:41.218619 10432 net.cpp:49] Initializing net from parameters: 
name: "LeNet"
state {
  phase: TEST
}
layer {
  name: "mnist"
  type: "Data"
  top: "data"
  top: "label"
  include {
    phase: TEST
  }
  transform_param {
    scale: 0.00390625
  }
  data_param {
    source: "examples/mnist/mnist_test_lmdb"
    batch_size: 100
    backend: LMDB
  }
}
layer {
  name: "conv0"
  type: "Convolution"
  bottom: "data"
  top: "conv0"
  param {
    lr_mult: 1
  }
  param {
    lr_mult: 2
  }
  convolution_param {
    num_output: 50
    kernel_size: 5
    stride: 1
    weight_filler {
      type: "xavier"
    }
    bias_filler {
      type: "constant"
    }
  }
}
layer {
  name: "pool0"
  type: "Pooling"
  bottom: "conv0"
  top: "pool0"
  pooling_param {
    pool: MAX
    kernel_size: 2
    stride: 2
  }
}
layer {
  name: "conv1"
  type: "Convolution"
  bottom: "pool0"
  top: "conv1"
  param {
    lr_mult: 1
  }
  param {
    lr_mult: 2
  }
  convolution_param {
    num_output: 50
    kernel_size: 5
    stride: 1
    weight_filler {
      type: "xavier"
    }
    bias_filler {
      type: "constant"
    }
  }
}
layer {
  name: "pool1"
  type: "Pooling"
  bottom: "conv1"
  top: "pool1"
  pooling_param {
    pool: MAX
    kernel_size: 2
    stride: 2
  }
}
layer {
  name: "ip1"
  type: "InnerProduct"
  bottom: "pool1"
  top: "ip1"
  param {
    lr_mult: 1
  }
  param {
    lr_mult: 2
  }
  inner_product_param {
    num_output: 100
    weight_filler {
      type: "xavier"
    }
    bias_filler {
      type: "constant"
    }
  }
}
layer {
  name: "relu1"
  type: "ReLU"
  bottom: "ip1"
  top: "ip1"
}
layer {
  name: "ip2"
  type: "InnerProduct"
  bottom: "ip1"
  top: "ip2"
  param {
    lr_mult: 1
  }
  param {
    lr_mult: 2
  }
  inner_product_param {
    num_output: 10
    weight_filler {
      type: "xavier"
    }
    bias_filler {
      type: "constant"
    }
  }
}
layer {
  name: "relu2"
  type: "ReLU"
  bottom: "ip2"
  top: "ip2"
}
layer {
  name: "accuracy"
  type: "Accuracy"
  bottom: "ip2"
  bottom: "label"
  top: "accuracy"
  include {
    phase: TEST
  }
}
layer {
  name: "loss"
  type: "SoftmaxWithLoss"
  bottom: "ip2"
  bottom: "label"
  top: "loss"
}
I0426 05:10:41.219306 10432 layer_factory.hpp:77] Creating layer mnist
I0426 05:10:41.220374 10432 net.cpp:91] Creating Layer mnist
I0426 05:10:41.221112 10432 net.cpp:399] mnist -> data
I0426 05:10:41.221199 10432 net.cpp:399] mnist -> label
I0426 05:10:41.225036 10467 db_lmdb.cpp:35] Opened lmdb examples/mnist/mnist_test_lmdb
I0426 05:10:41.225383 10432 data_layer.cpp:41] output data size: 100,1,28,28
I0426 05:10:41.225914 10432 base_data_layer.cpp:69] Initializing prefetch
I0426 05:10:41.225996 10432 base_data_layer.cpp:72] Prefetch initialized.
I0426 05:10:41.226016 10432 net.cpp:141] Setting up mnist
I0426 05:10:41.226039 10432 net.cpp:148] Top shape: 100 1 28 28 (78400)
I0426 05:10:41.226060 10432 net.cpp:148] Top shape: 100 (100)
I0426 05:10:41.226076 10432 net.cpp:156] Memory required for data: 314000
I0426 05:10:41.226100 10432 layer_factory.hpp:77] Creating layer label_mnist_1_split
I0426 05:10:41.226155 10432 net.cpp:91] Creating Layer label_mnist_1_split
I0426 05:10:41.226176 10432 net.cpp:425] label_mnist_1_split <- label
I0426 05:10:41.226217 10432 net.cpp:399] label_mnist_1_split -> label_mnist_1_split_0
I0426 05:10:41.226263 10432 net.cpp:399] label_mnist_1_split -> label_mnist_1_split_1
I0426 05:10:41.226308 10432 net.cpp:141] Setting up label_mnist_1_split
I0426 05:10:41.226333 10432 net.cpp:148] Top shape: 100 (100)
I0426 05:10:41.226356 10432 net.cpp:148] Top shape: 100 (100)
I0426 05:10:41.226372 10432 net.cpp:156] Memory required for data: 314800
I0426 05:10:41.226393 10432 layer_factory.hpp:77] Creating layer conv0
I0426 05:10:41.226441 10432 net.cpp:91] Creating Layer conv0
I0426 05:10:41.226466 10432 net.cpp:425] conv0 <- data
I0426 05:10:41.226507 10432 net.cpp:399] conv0 -> conv0
I0426 05:10:41.226780 10432 net.cpp:141] Setting up conv0
I0426 05:10:41.226810 10432 net.cpp:148] Top shape: 100 50 24 24 (2880000)
I0426 05:10:41.226827 10432 net.cpp:156] Memory required for data: 11834800
I0426 05:10:41.226886 10432 layer_factory.hpp:77] Creating layer pool0
I0426 05:10:41.226925 10432 net.cpp:91] Creating Layer pool0
I0426 05:10:41.226949 10432 net.cpp:425] pool0 <- conv0
I0426 05:10:41.226986 10432 net.cpp:399] pool0 -> pool0
I0426 05:10:41.227042 10432 net.cpp:141] Setting up pool0
I0426 05:10:41.227069 10432 net.cpp:148] Top shape: 100 50 12 12 (720000)
I0426 05:10:41.227087 10432 net.cpp:156] Memory required for data: 14714800
I0426 05:10:41.227107 10432 layer_factory.hpp:77] Creating layer conv1
I0426 05:10:41.227154 10432 net.cpp:91] Creating Layer conv1
I0426 05:10:41.227179 10432 net.cpp:425] conv1 <- pool0
I0426 05:10:41.227218 10432 net.cpp:399] conv1 -> conv1
I0426 05:10:41.232013 10468 data_layer.cpp:102] Prefetch batch: 3 ms.
I0426 05:10:41.235445 10468 data_layer.cpp:103]      Read time: 0.318 ms.
I0426 05:10:41.235488 10468 data_layer.cpp:104] Transform time: 1.741 ms.
I0426 05:10:41.233166 10432 net.cpp:141] Setting up conv1
I0426 05:10:41.236122 10432 net.cpp:148] Top shape: 100 50 8 8 (320000)
I0426 05:10:41.236158 10432 net.cpp:156] Memory required for data: 15994800
I0426 05:10:41.236213 10432 layer_factory.hpp:77] Creating layer pool1
I0426 05:10:41.236286 10432 net.cpp:91] Creating Layer pool1
I0426 05:10:41.236333 10432 net.cpp:425] pool1 <- conv1
I0426 05:10:41.236387 10432 net.cpp:399] pool1 -> pool1
I0426 05:10:41.236469 10432 net.cpp:141] Setting up pool1
I0426 05:10:41.236538 10432 net.cpp:148] Top shape: 100 50 4 4 (80000)
I0426 05:10:41.236572 10432 net.cpp:156] Memory required for data: 16314800
I0426 05:10:41.236601 10432 layer_factory.hpp:77] Creating layer ip1
I0426 05:10:41.236651 10432 net.cpp:91] Creating Layer ip1
I0426 05:10:41.236703 10432 net.cpp:425] ip1 <- pool1
I0426 05:10:41.236753 10432 net.cpp:399] ip1 -> ip1
I0426 05:10:41.239843 10468 data_layer.cpp:102] Prefetch batch: 4 ms.
I0426 05:10:41.242239 10468 data_layer.cpp:103]      Read time: 1.328 ms.
I0426 05:10:41.242274 10468 data_layer.cpp:104] Transform time: 1.72 ms.
I0426 05:10:41.246847 10468 data_layer.cpp:102] Prefetch batch: 4 ms.
I0426 05:10:41.249034 10468 data_layer.cpp:103]      Read time: 0.319 ms.
I0426 05:10:41.249071 10468 data_layer.cpp:104] Transform time: 2.939 ms.
I0426 05:10:41.251127 10432 net.cpp:141] Setting up ip1
I0426 05:10:41.251152 10432 net.cpp:148] Top shape: 100 100 (10000)
I0426 05:10:41.251166 10432 net.cpp:156] Memory required for data: 16354800
I0426 05:10:41.251202 10432 layer_factory.hpp:77] Creating layer relu1
I0426 05:10:41.251229 10432 net.cpp:91] Creating Layer relu1
I0426 05:10:41.251256 10432 net.cpp:425] relu1 <- ip1
I0426 05:10:41.251279 10432 net.cpp:386] relu1 -> ip1 (in-place)
I0426 05:10:41.251308 10432 net.cpp:141] Setting up relu1
I0426 05:10:41.251327 10432 net.cpp:148] Top shape: 100 100 (10000)
I0426 05:10:41.251339 10432 net.cpp:156] Memory required for data: 16394800
I0426 05:10:41.251350 10432 layer_factory.hpp:77] Creating layer ip2
I0426 05:10:41.251387 10432 net.cpp:91] Creating Layer ip2
I0426 05:10:41.251411 10432 net.cpp:425] ip2 <- ip1
I0426 05:10:41.251446 10432 net.cpp:399] ip2 -> ip2
I0426 05:10:41.251611 10432 net.cpp:141] Setting up ip2
I0426 05:10:41.251632 10432 net.cpp:148] Top shape: 100 10 (1000)
I0426 05:10:41.251649 10432 net.cpp:156] Memory required for data: 16398800
I0426 05:10:41.251683 10432 layer_factory.hpp:77] Creating layer relu2
I0426 05:10:41.251706 10432 net.cpp:91] Creating Layer relu2
I0426 05:10:41.251724 10432 net.cpp:425] relu2 <- ip2
I0426 05:10:41.251755 10432 net.cpp:386] relu2 -> ip2 (in-place)
I0426 05:10:41.251785 10432 net.cpp:141] Setting up relu2
I0426 05:10:41.251803 10432 net.cpp:148] Top shape: 100 10 (1000)
I0426 05:10:41.251816 10432 net.cpp:156] Memory required for data: 16402800
I0426 05:10:41.251833 10432 layer_factory.hpp:77] Creating layer ip2_relu2_0_split
I0426 05:10:41.251855 10432 net.cpp:91] Creating Layer ip2_relu2_0_split
I0426 05:10:41.251871 10432 net.cpp:425] ip2_relu2_0_split <- ip2
I0426 05:10:41.251899 10432 net.cpp:399] ip2_relu2_0_split -> ip2_relu2_0_split_0
I0426 05:10:41.251930 10432 net.cpp:399] ip2_relu2_0_split -> ip2_relu2_0_split_1
I0426 05:10:41.251965 10432 net.cpp:141] Setting up ip2_relu2_0_split
I0426 05:10:41.251986 10432 net.cpp:148] Top shape: 100 10 (1000)
I0426 05:10:41.252002 10432 net.cpp:148] Top shape: 100 10 (1000)
I0426 05:10:41.252015 10432 net.cpp:156] Memory required for data: 16410800
I0426 05:10:41.252032 10432 layer_factory.hpp:77] Creating layer accuracy
I0426 05:10:41.252061 10432 net.cpp:91] Creating Layer accuracy
I0426 05:10:41.252079 10432 net.cpp:425] accuracy <- ip2_relu2_0_split_0
I0426 05:10:41.252102 10432 net.cpp:425] accuracy <- label_mnist_1_split_0
I0426 05:10:41.252131 10432 net.cpp:399] accuracy -> accuracy
…
