…
I0426 01:53:33.769964  5496 net.cpp:313] The NetState phase (0) differed from the phase (1) specified by a rule in layer mnist
I0426 01:53:33.770033  5496 net.cpp:313] The NetState phase (0) differed from the phase (1) specified by a rule in layer accuracy
I0426 01:53:33.770211  5496 net.cpp:49] Initializing net from parameters: 
name: "LeNet"
state {
  phase: TRAIN
}
layer {
  name: "mnist"
  type: "Data"
  top: "data"
  top: "label"
  include {
    phase: TRAIN
  }
  transform_param {
    scale: 0.00390625
  }
  data_param {
    source: "examples/mnist/mnist_train_lmdb"
    batch_size: 64
    backend: LMDB
  }
}
layer {
  name: "conv0"
  type: "Convolution"
  bottom: "data"
  top: "conv0"
  param {
    lr_mult: 1
  }
  param {
    lr_mult: 2
  }
  convolution_param {
    num_output: 50
    kernel_size: 5
    stride: 1
    weight_filler {
      type: "xavier"
    }
    bias_filler {
      type: "constant"
    }
  }
}
layer {
  name: "pool0"
  type: "Pooling"
  bottom: "conv0"
  top: "pool0"
  pooling_param {
    pool: MAX
    kernel_size: 2
    stride: 2
  }
}
layer {
  name: "conv1"
  type: "Convolution"
  bottom: "pool0"
  top: "conv1"
  param {
    lr_mult: 1
  }
  param {
    lr_mult: 2
  }
  convolution_param {
    num_output: 50
    kernel_size: 5
    stride: 1
    weight_filler {
      type: "xavier"
    }
    bias_filler {
      type: "constant"
    }
  }
}
layer {
  name: "pool1"
  type: "Pooling"
  bottom: "conv1"
  top: "pool1"
  pooling_param {
    pool: MAX
    kernel_size: 2
    stride: 2
  }
}
layer {
  name: "ip1"
  type: "InnerProduct"
  bottom: "pool1"
  top: "ip1"
  param {
    lr_mult: 1
  }
  param {
    lr_mult: 2
  }
  inner_product_param {
    num_output: 300
    weight_filler {
      type: "xavier"
    }
    bias_filler {
      type: "constant"
    }
  }
}
layer {
  name: "relu1"
  type: "ReLU"
  bottom: "ip1"
  top: "ip1"
}
layer {
  name: "ip2"
  type: "InnerProduct"
  bottom: "ip1"
  top: "ip2"
  param {
    lr_mult: 1
  }
  param {
    lr_mult: 2
  }
  inner_product_param {
    num_output: 10
    weight_filler {
      type: "xavier"
    }
    bias_filler {
      type: "constant"
    }
  }
}
layer {
  name: "relu2"
  type: "ReLU"
  bottom: "ip2"
  top: "ip2"
}
layer {
  name: "loss"
  type: "SoftmaxWithLoss"
  bottom: "ip2"
  bottom: "label"
  top: "loss"
}
I0426 01:53:33.770758  5496 layer_factory.hpp:77] Creating layer mnist
I0426 01:53:33.772073  5496 net.cpp:91] Creating Layer mnist
I0426 01:53:33.772123  5496 net.cpp:399] mnist -> data
I0426 01:53:33.772243  5496 net.cpp:399] mnist -> label
I0426 01:53:33.776746  5529 db_lmdb.cpp:35] Opened lmdb examples/mnist/mnist_train_lmdb
I0426 01:53:33.777174  5496 data_layer.cpp:41] output data size: 64,1,28,28
I0426 01:53:33.777534  5496 base_data_layer.cpp:69] Initializing prefetch
I0426 01:53:33.777590  5496 base_data_layer.cpp:72] Prefetch initialized.
I0426 01:53:33.777601  5496 net.cpp:141] Setting up mnist
I0426 01:53:33.777636  5496 net.cpp:148] Top shape: 64 1 28 28 (50176)
I0426 01:53:33.777649  5496 net.cpp:148] Top shape: 64 (64)
I0426 01:53:33.777657  5496 net.cpp:156] Memory required for data: 200960
I0426 01:53:33.777676  5496 layer_factory.hpp:77] Creating layer conv0
I0426 01:53:33.777719  5496 net.cpp:91] Creating Layer conv0
I0426 01:53:33.777736  5496 net.cpp:425] conv0 <- data
I0426 01:53:33.777781  5496 net.cpp:399] conv0 -> conv0
I0426 01:53:33.778105  5496 net.cpp:141] Setting up conv0
I0426 01:53:33.778127  5496 net.cpp:148] Top shape: 64 50 24 24 (1843200)
I0426 01:53:33.778138  5496 net.cpp:156] Memory required for data: 7573760
I0426 01:53:33.778216  5496 layer_factory.hpp:77] Creating layer pool0
I0426 01:53:33.778250  5496 net.cpp:91] Creating Layer pool0
I0426 01:53:33.778265  5496 net.cpp:425] pool0 <- conv0
I0426 01:53:33.778301  5496 net.cpp:399] pool0 -> pool0
I0426 01:53:33.778355  5496 net.cpp:141] Setting up pool0
I0426 01:53:33.778374  5496 net.cpp:148] Top shape: 64 50 12 12 (460800)
I0426 01:53:33.778384  5496 net.cpp:156] Memory required for data: 9416960
I0426 01:53:33.778398  5496 layer_factory.hpp:77] Creating layer conv1
I0426 01:53:33.778430  5496 net.cpp:91] Creating Layer conv1
I0426 01:53:33.778445  5496 net.cpp:425] conv1 <- pool0
I0426 01:53:33.778475  5496 net.cpp:399] conv1 -> conv1
I0426 01:53:33.780467  5530 data_layer.cpp:102] Prefetch batch: 1 ms.
I0426 01:53:33.780517  5530 data_layer.cpp:103]      Read time: 0.172 ms.
I0426 01:53:33.780536  5530 data_layer.cpp:104] Transform time: 1.032 ms.
I0426 01:53:33.784281  5496 net.cpp:141] Setting up conv1
I0426 01:53:33.784307  5496 net.cpp:148] Top shape: 64 50 8 8 (204800)
I0426 01:53:33.784318  5496 net.cpp:156] Memory required for data: 10236160
I0426 01:53:33.784358  5496 layer_factory.hpp:77] Creating layer pool1
I0426 01:53:33.784389  5496 net.cpp:91] Creating Layer pool1
I0426 01:53:33.784404  5496 net.cpp:425] pool1 <- conv1
I0426 01:53:33.784431  5496 net.cpp:399] pool1 -> pool1
I0426 01:53:33.784474  5496 net.cpp:141] Setting up pool1
I0426 01:53:33.784490  5496 net.cpp:148] Top shape: 64 50 4 4 (51200)
I0426 01:53:33.784500  5496 net.cpp:156] Memory required for data: 10440960
I0426 01:53:33.784512  5496 layer_factory.hpp:77] Creating layer ip1
I0426 01:53:33.784543  5496 net.cpp:91] Creating Layer ip1
I0426 01:53:33.784555  5496 net.cpp:425] ip1 <- pool1
I0426 01:53:33.784584  5496 net.cpp:399] ip1 -> ip1
I0426 01:53:33.791776  5530 data_layer.cpp:102] Prefetch batch: 11 ms.
I0426 01:53:33.791801  5530 data_layer.cpp:103]      Read time: 9.853 ms.
I0426 01:53:33.791818  5530 data_layer.cpp:104] Transform time: 1.017 ms.
I0426 01:53:33.793472  5530 data_layer.cpp:102] Prefetch batch: 1 ms.
I0426 01:53:33.793491  5530 data_layer.cpp:103]      Read time: 0.203 ms.
I0426 01:53:33.793510  5530 data_layer.cpp:104] Transform time: 1.041 ms.
I0426 01:53:33.823202  5496 net.cpp:141] Setting up ip1
I0426 01:53:33.823225  5496 net.cpp:148] Top shape: 64 300 (19200)
I0426 01:53:33.823235  5496 net.cpp:156] Memory required for data: 10517760
I0426 01:53:33.823272  5496 layer_factory.hpp:77] Creating layer relu1
I0426 01:53:33.823299  5496 net.cpp:91] Creating Layer relu1
I0426 01:53:33.823314  5496 net.cpp:425] relu1 <- ip1
I0426 01:53:33.823338  5496 net.cpp:386] relu1 -> ip1 (in-place)
I0426 01:53:33.823364  5496 net.cpp:141] Setting up relu1
I0426 01:53:33.823377  5496 net.cpp:148] Top shape: 64 300 (19200)
I0426 01:53:33.823387  5496 net.cpp:156] Memory required for data: 10594560
I0426 01:53:33.823400  5496 layer_factory.hpp:77] Creating layer ip2
I0426 01:53:33.823423  5496 net.cpp:91] Creating Layer ip2
I0426 01:53:33.823436  5496 net.cpp:425] ip2 <- ip1
I0426 01:53:33.823464  5496 net.cpp:399] ip2 -> ip2
I0426 01:53:33.823796  5496 net.cpp:141] Setting up ip2
I0426 01:53:33.823813  5496 net.cpp:148] Top shape: 64 10 (640)
I0426 01:53:33.823823  5496 net.cpp:156] Memory required for data: 10597120
I0426 01:53:33.823848  5496 layer_factory.hpp:77] Creating layer relu2
I0426 01:53:33.823873  5496 net.cpp:91] Creating Layer relu2
I0426 01:53:33.823885  5496 net.cpp:425] relu2 <- ip2
I0426 01:53:33.823910  5496 net.cpp:386] relu2 -> ip2 (in-place)
I0426 01:53:33.823935  5496 net.cpp:141] Setting up relu2
I0426 01:53:33.823947  5496 net.cpp:148] Top shape: 64 10 (640)
I0426 01:53:33.823957  5496 net.cpp:156] Memory required for data: 10599680
I0426 01:53:33.823969  5496 layer_factory.hpp:77] Creating layer loss
I0426 01:53:33.823995  5496 net.cpp:91] Creating Layer loss
I0426 01:53:33.824009  5496 net.cpp:425] loss <- ip2
I0426 01:53:33.824029  5496 net.cpp:425] loss <- label
I0426 01:53:33.824054  5496 net.cpp:399] loss -> loss
I0426 01:53:33.824097  5496 layer_factory.hpp:77] Creating layer loss
…
I0426 01:53:33.827394  5496 solver.cpp:181] Creating test net (#0) specified by net file: ECE595/mnist/train_test/var_fcn/lenet_train_test_fcn300.prototxt
I0426 01:53:33.827492  5496 net.cpp:313] The NetState phase (1) differed from the phase (0) specified by a rule in layer mnist
I0426 01:53:33.827718  5496 net.cpp:49] Initializing net from parameters: 
name: "LeNet"
state {
  phase: TEST
}
layer {
  name: "mnist"
  type: "Data"
  top: "data"
  top: "label"
  include {
    phase: TEST
  }
  transform_param {
    scale: 0.00390625
  }
  data_param {
    source: "examples/mnist/mnist_test_lmdb"
    batch_size: 100
    backend: LMDB
  }
}
layer {
  name: "conv0"
  type: "Convolution"
  bottom: "data"
  top: "conv0"
  param {
    lr_mult: 1
  }
  param {
    lr_mult: 2
  }
  convolution_param {
    num_output: 50
    kernel_size: 5
    stride: 1
    weight_filler {
      type: "xavier"
    }
    bias_filler {
      type: "constant"
    }
  }
}
layer {
  name: "pool0"
  type: "Pooling"
  bottom: "conv0"
  top: "pool0"
  pooling_param {
    pool: MAX
    kernel_size: 2
    stride: 2
  }
}
layer {
  name: "conv1"
  type: "Convolution"
  bottom: "pool0"
  top: "conv1"
  param {
    lr_mult: 1
  }
  param {
    lr_mult: 2
  }
  convolution_param {
    num_output: 50
    kernel_size: 5
    stride: 1
    weight_filler {
      type: "xavier"
    }
    bias_filler {
      type: "constant"
    }
  }
}
layer {
  name: "pool1"
  type: "Pooling"
  bottom: "conv1"
  top: "pool1"
  pooling_param {
    pool: MAX
    kernel_size: 2
    stride: 2
  }
}
layer {
  name: "ip1"
  type: "InnerProduct"
  bottom: "pool1"
  top: "ip1"
  param {
    lr_mult: 1
  }
  param {
    lr_mult: 2
  }
  inner_product_param {
    num_output: 300
    weight_filler {
      type: "xavier"
    }
    bias_filler {
      type: "constant"
    }
  }
}
layer {
  name: "relu1"
  type: "ReLU"
  bottom: "ip1"
  top: "ip1"
}
layer {
  name: "ip2"
  type: "InnerProduct"
  bottom: "ip1"
  top: "ip2"
  param {
    lr_mult: 1
  }
  param {
    lr_mult: 2
  }
  inner_product_param {
    num_output: 10
    weight_filler {
      type: "xavier"
    }
    bias_filler {
      type: "constant"
    }
  }
}
layer {
  name: "relu2"
  type: "ReLU"
  bottom: "ip2"
  top: "ip2"
}
layer {
  name: "accuracy"
  type: "Accuracy"
  bottom: "ip2"
  bottom: "label"
  top: "accuracy"
  include {
    phase: TEST
  }
}
layer {
  name: "loss"
  type: "SoftmaxWithLoss"
  bottom: "ip2"
  bottom: "label"
  top: "loss"
}
I0426 01:53:33.828075  5496 layer_factory.hpp:77] Creating layer mnist
I0426 01:53:33.828486  5496 net.cpp:91] Creating Layer mnist
I0426 01:53:33.828513  5496 net.cpp:399] mnist -> data
I0426 01:53:33.828553  5496 net.cpp:399] mnist -> label
I0426 01:53:33.833197  5531 db_lmdb.cpp:35] Opened lmdb examples/mnist/mnist_test_lmdb
I0426 01:53:33.833556  5496 data_layer.cpp:41] output data size: 100,1,28,28
I0426 01:53:33.834061  5496 base_data_layer.cpp:69] Initializing prefetch
I0426 01:53:33.834127  5496 base_data_layer.cpp:72] Prefetch initialized.
I0426 01:53:33.834138  5496 net.cpp:141] Setting up mnist
I0426 01:53:33.834156  5496 net.cpp:148] Top shape: 100 1 28 28 (78400)
I0426 01:53:33.834169  5496 net.cpp:148] Top shape: 100 (100)
I0426 01:53:33.834178  5496 net.cpp:156] Memory required for data: 314000
I0426 01:53:33.834195  5496 layer_factory.hpp:77] Creating layer label_mnist_1_split
I0426 01:53:33.834229  5496 net.cpp:91] Creating Layer label_mnist_1_split
I0426 01:53:33.834245  5496 net.cpp:425] label_mnist_1_split <- label
I0426 01:53:33.834278  5496 net.cpp:399] label_mnist_1_split -> label_mnist_1_split_0
I0426 01:53:33.834311  5496 net.cpp:399] label_mnist_1_split -> label_mnist_1_split_1
I0426 01:53:33.834347  5496 net.cpp:141] Setting up label_mnist_1_split
I0426 01:53:33.834363  5496 net.cpp:148] Top shape: 100 (100)
I0426 01:53:33.834378  5496 net.cpp:148] Top shape: 100 (100)
I0426 01:53:33.834388  5496 net.cpp:156] Memory required for data: 314800
I0426 01:53:33.834400  5496 layer_factory.hpp:77] Creating layer conv0
I0426 01:53:33.834442  5496 net.cpp:91] Creating Layer conv0
I0426 01:53:33.834456  5496 net.cpp:425] conv0 <- data
I0426 01:53:33.834496  5496 net.cpp:399] conv0 -> conv0
I0426 01:53:33.834748  5496 net.cpp:141] Setting up conv0
I0426 01:53:33.834769  5496 net.cpp:148] Top shape: 100 50 24 24 (2880000)
I0426 01:53:33.834779  5496 net.cpp:156] Memory required for data: 11834800
I0426 01:53:33.834830  5496 layer_factory.hpp:77] Creating layer pool0
I0426 01:53:33.834858  5496 net.cpp:91] Creating Layer pool0
I0426 01:53:33.834872  5496 net.cpp:425] pool0 <- conv0
I0426 01:53:33.834900  5496 net.cpp:399] pool0 -> pool0
I0426 01:53:33.834945  5496 net.cpp:141] Setting up pool0
I0426 01:53:33.834962  5496 net.cpp:148] Top shape: 100 50 12 12 (720000)
I0426 01:53:33.834972  5496 net.cpp:156] Memory required for data: 14714800
I0426 01:53:33.834987  5496 layer_factory.hpp:77] Creating layer conv1
I0426 01:53:33.835028  5496 net.cpp:91] Creating Layer conv1
I0426 01:53:33.835044  5496 net.cpp:425] conv1 <- pool0
I0426 01:53:33.835078  5496 net.cpp:399] conv1 -> conv1
I0426 01:53:33.840183  5532 data_layer.cpp:102] Prefetch batch: 3 ms.
I0426 01:53:33.840209  5532 data_layer.cpp:103]      Read time: 0.324 ms.
I0426 01:53:33.840224  5532 data_layer.cpp:104] Transform time: 1.76 ms.
I0426 01:53:33.840819  5496 net.cpp:141] Setting up conv1
I0426 01:53:33.840840  5496 net.cpp:148] Top shape: 100 50 8 8 (320000)
I0426 01:53:33.840849  5496 net.cpp:156] Memory required for data: 15994800
I0426 01:53:33.840886  5496 layer_factory.hpp:77] Creating layer pool1
I0426 01:53:33.840917  5496 net.cpp:91] Creating Layer pool1
I0426 01:53:33.840936  5496 net.cpp:425] pool1 <- conv1
I0426 01:53:33.840965  5496 net.cpp:399] pool1 -> pool1
I0426 01:53:33.841006  5496 net.cpp:141] Setting up pool1
I0426 01:53:33.841022  5496 net.cpp:148] Top shape: 100 50 4 4 (80000)
I0426 01:53:33.841033  5496 net.cpp:156] Memory required for data: 16314800
I0426 01:53:33.841047  5496 layer_factory.hpp:77] Creating layer ip1
I0426 01:53:33.841073  5496 net.cpp:91] Creating Layer ip1
I0426 01:53:33.841085  5496 net.cpp:425] ip1 <- pool1
I0426 01:53:33.841117  5496 net.cpp:399] ip1 -> ip1
I0426 01:53:33.850306  5532 data_layer.cpp:102] Prefetch batch: 10 ms.
I0426 01:53:33.850325  5532 data_layer.cpp:103]      Read time: 0.326 ms.
I0426 01:53:33.850342  5532 data_layer.cpp:104] Transform time: 1.765 ms.
I0426 01:53:33.853715  5532 data_layer.cpp:102] Prefetch batch: 3 ms.
I0426 01:53:33.853735  5532 data_layer.cpp:103]      Read time: 0.321 ms.
I0426 01:53:33.853751  5532 data_layer.cpp:104] Transform time: 1.736 ms.
I0426 01:53:33.865438  5496 net.cpp:141] Setting up ip1
I0426 01:53:33.865465  5496 net.cpp:148] Top shape: 100 300 (30000)
I0426 01:53:33.865470  5496 net.cpp:156] Memory required for data: 16434800
I0426 01:53:33.865494  5496 layer_factory.hpp:77] Creating layer relu1
I0426 01:53:33.865516  5496 net.cpp:91] Creating Layer relu1
I0426 01:53:33.865532  5496 net.cpp:425] relu1 <- ip1
I0426 01:53:33.865550  5496 net.cpp:386] relu1 -> ip1 (in-place)
I0426 01:53:33.865566  5496 net.cpp:141] Setting up relu1
I0426 01:53:33.865576  5496 net.cpp:148] Top shape: 100 300 (30000)
I0426 01:53:33.865579  5496 net.cpp:156] Memory required for data: 16554800
I0426 01:53:33.865586  5496 layer_factory.hpp:77] Creating layer ip2
I0426 01:53:33.865605  5496 net.cpp:91] Creating Layer ip2
I0426 01:53:33.865614  5496 net.cpp:425] ip2 <- ip1
I0426 01:53:33.865633  5496 net.cpp:399] ip2 -> ip2
I0426 01:53:33.865870  5496 net.cpp:141] Setting up ip2
I0426 01:53:33.865882  5496 net.cpp:148] Top shape: 100 10 (1000)
I0426 01:53:33.865887  5496 net.cpp:156] Memory required for data: 16558800
I0426 01:53:33.865905  5496 layer_factory.hpp:77] Creating layer relu2
I0426 01:53:33.865917  5496 net.cpp:91] Creating Layer relu2
I0426 01:53:33.865926  5496 net.cpp:425] relu2 <- ip2
I0426 01:53:33.865941  5496 net.cpp:386] relu2 -> ip2 (in-place)
I0426 01:53:33.865959  5496 net.cpp:141] Setting up relu2
I0426 01:53:33.865968  5496 net.cpp:148] Top shape: 100 10 (1000)
I0426 01:53:33.865972  5496 net.cpp:156] Memory required for data: 16562800
I0426 01:53:33.865979  5496 layer_factory.hpp:77] Creating layer ip2_relu2_0_split
I0426 01:53:33.865990  5496 net.cpp:91] Creating Layer ip2_relu2_0_split
I0426 01:53:33.865998  5496 net.cpp:425] ip2_relu2_0_split <- ip2
I0426 01:53:33.866013  5496 net.cpp:399] ip2_relu2_0_split -> ip2_relu2_0_split_0
I0426 01:53:33.866029  5496 net.cpp:399] ip2_relu2_0_split -> ip2_relu2_0_split_1
I0426 01:53:33.866049  5496 net.cpp:141] Setting up ip2_relu2_0_split
I0426 01:53:33.866058  5496 net.cpp:148] Top shape: 100 10 (1000)
I0426 01:53:33.866065  5496 net.cpp:148] Top shape: 100 10 (1000)
I0426 01:53:33.866070  5496 net.cpp:156] Memory required for data: 16570800
I0426 01:53:33.866077  5496 layer_factory.hpp:77] Creating layer accuracy
I0426 01:53:33.866097  5496 net.cpp:91] Creating Layer accuracy
I0426 01:53:33.866106  5496 net.cpp:425] accuracy <- ip2_relu2_0_split_0
I0426 01:53:33.866120  5496 net.cpp:425] accuracy <- label_mnist_1_split_0
I0426 01:53:33.866133  5496 net.cpp:399] accuracy -> accuracy
…
