…
I0425 15:48:51.945396  7451 net.cpp:294] The NetState phase (0) differed from the phase (1) specified by a rule in layer accuracy
I0425 15:48:51.945571  7451 net.cpp:51] Initializing net from parameters: 
name: "CIFARLeNet"
state {
  phase: TRAIN
  level: 0
  stage: ""
}
layer {
  name: "cifar"
  type: "Data"
  top: "data"
  top: "label"
  include {
    phase: TRAIN
  }
  transform_param {
    mean_file: "examples/cifar10/mean.binaryproto"
  }
  data_param {
    source: "examples/cifar10/cifar10_train_lmdb"
    batch_size: 64
    backend: LMDB
  }
}
layer {
  name: "conv0"
  type: "Convolution"
  bottom: "data"
  top: "conv0"
  param {
    lr_mult: 1
  }
  param {
    lr_mult: 2
  }
  convolution_param {
    num_output: 10
    kernel_size: 5
    stride: 1
    weight_filler {
      type: "xavier"
    }
    bias_filler {
      type: "constant"
    }
  }
}
layer {
  name: "pool0"
  type: "Pooling"
  bottom: "conv0"
  top: "pool0"
  pooling_param {
    pool: MAX
    kernel_size: 2
    stride: 2
  }
}
layer {
  name: "conv1"
  type: "Convolution"
  bottom: "pool0"
  top: "conv1"
  param {
    lr_mult: 1
  }
  param {
    lr_mult: 2
  }
  convolution_param {
    num_output: 10
    kernel_size: 5
    stride: 1
    weight_filler {
      type: "xavier"
    }
    bias_filler {
      type: "constant"
    }
  }
}
layer {
  name: "pool1"
  type: "Pooling"
  bottom: "conv1"
  top: "pool1"
  pooling_param {
    pool: MAX
    kernel_size: 2
    stride: 2
  }
}
layer {
  name: "ip1"
  type: "InnerProduct"
  bottom: "pool1"
  top: "ip1"
  param {
    lr_mult: 1
  }
  param {
    lr_mult: 2
  }
  inner_product_param {
    num_output: 500
    weight_filler {
      type: "xavier"
    }
    bias_filler {
      type: "constant"
    }
  }
}
layer {
  name: "relu1"
  type: "ReLU"
  bottom: "ip1"
  top: "ip1"
}
layer {
  name: "ip2"
  type: "InnerProduct"
  bottom: "ip1"
  top: "ip2"
  param {
    lr_mult: 1
  }
  param {
    lr_mult: 2
  }
  inner_product_param {
    num_output: 10
    weight_filler {
      type: "xavier"
    }
    bias_filler {
      type: "constant"
    }
  }
}
layer {
  name: "relu2"
  type: "ReLU"
  bottom: "ip2"
  top: "ip2"
}
layer {
  name: "loss"
  type: "SoftmaxWithLoss"
  bottom: "ip2"
  bottom: "label"
  top: "loss"
}
I0425 15:48:51.945678  7451 layer_factory.hpp:77] Creating layer cifar
I0425 15:48:51.945824  7451 db_lmdb.cpp:35] Opened lmdb examples/cifar10/cifar10_train_lmdb
I0425 15:48:51.945863  7451 net.cpp:84] Creating Layer cifar
I0425 15:48:51.945885  7451 net.cpp:380] cifar -> data
I0425 15:48:51.945906  7451 net.cpp:380] cifar -> label
I0425 15:48:51.945916  7451 data_transformer.cpp:25] Loading mean file from: examples/cifar10/mean.binaryproto
I0425 15:48:51.947006  7451 data_layer.cpp:45] output data size: 64,3,32,32
I0425 15:48:51.950141  7451 net.cpp:122] Setting up cifar
I0425 15:48:51.950170  7451 net.cpp:129] Top shape: 64 3 32 32 (196608)
I0425 15:48:51.950175  7451 net.cpp:129] Top shape: 64 (64)
I0425 15:48:51.950176  7451 net.cpp:137] Memory required for data: 786688
I0425 15:48:51.950201  7451 layer_factory.hpp:77] Creating layer conv0
I0425 15:48:51.950235  7451 net.cpp:84] Creating Layer conv0
I0425 15:48:51.950254  7451 net.cpp:406] conv0 <- data
I0425 15:48:51.950278  7451 net.cpp:380] conv0 -> conv0
I0425 15:48:51.950996  7451 net.cpp:122] Setting up conv0
I0425 15:48:51.951022  7451 net.cpp:129] Top shape: 64 10 28 28 (501760)
I0425 15:48:51.951025  7451 net.cpp:137] Memory required for data: 2793728
I0425 15:48:51.951038  7451 layer_factory.hpp:77] Creating layer pool0
I0425 15:48:51.951058  7451 net.cpp:84] Creating Layer pool0
I0425 15:48:51.951061  7451 net.cpp:406] pool0 <- conv0
I0425 15:48:51.951066  7451 net.cpp:380] pool0 -> pool0
I0425 15:48:51.951145  7451 net.cpp:122] Setting up pool0
I0425 15:48:51.951166  7451 net.cpp:129] Top shape: 64 10 14 14 (125440)
I0425 15:48:51.951169  7451 net.cpp:137] Memory required for data: 3295488
I0425 15:48:51.951170  7451 layer_factory.hpp:77] Creating layer conv1
I0425 15:48:51.951191  7451 net.cpp:84] Creating Layer conv1
I0425 15:48:51.951195  7451 net.cpp:406] conv1 <- pool0
I0425 15:48:51.951217  7451 net.cpp:380] conv1 -> conv1
I0425 15:48:51.951414  7451 net.cpp:122] Setting up conv1
I0425 15:48:51.951421  7451 net.cpp:129] Top shape: 64 10 10 10 (64000)
I0425 15:48:51.951423  7451 net.cpp:137] Memory required for data: 3551488
I0425 15:48:51.951429  7451 layer_factory.hpp:77] Creating layer pool1
I0425 15:48:51.951433  7451 net.cpp:84] Creating Layer pool1
I0425 15:48:51.951436  7451 net.cpp:406] pool1 <- conv1
I0425 15:48:51.951441  7451 net.cpp:380] pool1 -> pool1
I0425 15:48:51.951464  7451 net.cpp:122] Setting up pool1
I0425 15:48:51.951468  7451 net.cpp:129] Top shape: 64 10 5 5 (16000)
I0425 15:48:51.951470  7451 net.cpp:137] Memory required for data: 3615488
I0425 15:48:51.951473  7451 layer_factory.hpp:77] Creating layer ip1
I0425 15:48:51.951478  7451 net.cpp:84] Creating Layer ip1
I0425 15:48:51.951480  7451 net.cpp:406] ip1 <- pool1
I0425 15:48:51.951484  7451 net.cpp:380] ip1 -> ip1
I0425 15:48:51.952514  7451 net.cpp:122] Setting up ip1
I0425 15:48:51.952522  7451 net.cpp:129] Top shape: 64 500 (32000)
I0425 15:48:51.952524  7451 net.cpp:137] Memory required for data: 3743488
I0425 15:48:51.952529  7451 layer_factory.hpp:77] Creating layer relu1
I0425 15:48:51.952535  7451 net.cpp:84] Creating Layer relu1
I0425 15:48:51.952538  7451 net.cpp:406] relu1 <- ip1
I0425 15:48:51.952543  7451 net.cpp:367] relu1 -> ip1 (in-place)
I0425 15:48:51.952548  7451 net.cpp:122] Setting up relu1
I0425 15:48:51.952553  7451 net.cpp:129] Top shape: 64 500 (32000)
I0425 15:48:51.952554  7451 net.cpp:137] Memory required for data: 3871488
I0425 15:48:51.952556  7451 layer_factory.hpp:77] Creating layer ip2
I0425 15:48:51.952560  7451 net.cpp:84] Creating Layer ip2
I0425 15:48:51.952564  7451 net.cpp:406] ip2 <- ip1
I0425 15:48:51.952569  7451 net.cpp:380] ip2 -> ip2
I0425 15:48:51.953032  7451 net.cpp:122] Setting up ip2
I0425 15:48:51.953039  7451 net.cpp:129] Top shape: 64 10 (640)
I0425 15:48:51.953042  7451 net.cpp:137] Memory required for data: 3874048
I0425 15:48:51.953048  7451 layer_factory.hpp:77] Creating layer relu2
I0425 15:48:51.953058  7451 net.cpp:84] Creating Layer relu2
I0425 15:48:51.953060  7451 net.cpp:406] relu2 <- ip2
I0425 15:48:51.953064  7451 net.cpp:367] relu2 -> ip2 (in-place)
I0425 15:48:51.953068  7451 net.cpp:122] Setting up relu2
I0425 15:48:51.953073  7451 net.cpp:129] Top shape: 64 10 (640)
I0425 15:48:51.953074  7451 net.cpp:137] Memory required for data: 3876608
I0425 15:48:51.953076  7451 layer_factory.hpp:77] Creating layer loss
I0425 15:48:51.953081  7451 net.cpp:84] Creating Layer loss
I0425 15:48:51.953085  7451 net.cpp:406] loss <- ip2
I0425 15:48:51.953088  7451 net.cpp:406] loss <- label
I0425 15:48:51.953092  7451 net.cpp:380] loss -> loss
I0425 15:48:51.953105  7451 layer_factory.hpp:77] Creating layer loss
…
I0425 15:48:51.953462  7451 solver.cpp:173] Creating test net (#0) specified by net file: ECE595/cifar/train_test/var_num_feature_maxiter6000/cifarlenet_train_test_featuresize10.prototxt
I0425 15:48:51.953497  7451 net.cpp:294] The NetState phase (1) differed from the phase (0) specified by a rule in layer cifar
I0425 15:48:51.953598  7451 net.cpp:51] Initializing net from parameters: 
name: "CIFARLeNet"
state {
  phase: TEST
}
layer {
  name: "cifar"
  type: "Data"
  top: "data"
  top: "label"
  include {
    phase: TEST
  }
  transform_param {
    mean_file: "examples/cifar10/mean.binaryproto"
  }
  data_param {
    source: "examples/cifar10/cifar10_test_lmdb"
    batch_size: 100
    backend: LMDB
  }
}
layer {
  name: "conv0"
  type: "Convolution"
  bottom: "data"
  top: "conv0"
  param {
    lr_mult: 1
  }
  param {
    lr_mult: 2
  }
  convolution_param {
    num_output: 10
    kernel_size: 5
    stride: 1
    weight_filler {
      type: "xavier"
    }
    bias_filler {
      type: "constant"
    }
  }
}
layer {
  name: "pool0"
  type: "Pooling"
  bottom: "conv0"
  top: "pool0"
  pooling_param {
    pool: MAX
    kernel_size: 2
    stride: 2
  }
}
layer {
  name: "conv1"
  type: "Convolution"
  bottom: "pool0"
  top: "conv1"
  param {
    lr_mult: 1
  }
  param {
    lr_mult: 2
  }
  convolution_param {
    num_output: 10
    kernel_size: 5
    stride: 1
    weight_filler {
      type: "xavier"
    }
    bias_filler {
      type: "constant"
    }
  }
}
layer {
  name: "pool1"
  type: "Pooling"
  bottom: "conv1"
  top: "pool1"
  pooling_param {
    pool: MAX
    kernel_size: 2
    stride: 2
  }
}
layer {
  name: "ip1"
  type: "InnerProduct"
  bottom: "pool1"
  top: "ip1"
  param {
    lr_mult: 1
  }
  param {
    lr_mult: 2
  }
  inner_product_param {
    num_output: 500
    weight_filler {
      type: "xavier"
    }
    bias_filler {
      type: "constant"
    }
  }
}
layer {
  name: "relu1"
  type: "ReLU"
  bottom: "ip1"
  top: "ip1"
}
layer {
  name: "ip2"
  type: "InnerProduct"
  bottom: "ip1"
  top: "ip2"
  param {
    lr_mult: 1
  }
  param {
    lr_mult: 2
  }
  inner_product_param {
    num_output: 10
    weight_filler {
      type: "xavier"
    }
    bias_filler {
      type: "constant"
    }
  }
}
layer {
  name: "relu2"
  type: "ReLU"
  bottom: "ip2"
  top: "ip2"
}
layer {
  name: "accuracy"
  type: "Accuracy"
  bottom: "ip2"
  bottom: "label"
  top: "accuracy"
  include {
    phase: TEST
  }
}
layer {
  name: "loss"
  type: "SoftmaxWithLoss"
  bottom: "ip2"
  bottom: "label"
  top: "loss"
}
I0425 15:48:51.953680  7451 layer_factory.hpp:77] Creating layer cifar
I0425 15:48:51.953744  7451 db_lmdb.cpp:35] Opened lmdb examples/cifar10/cifar10_test_lmdb
I0425 15:48:51.953773  7451 net.cpp:84] Creating Layer cifar
I0425 15:48:51.953796  7451 net.cpp:380] cifar -> data
I0425 15:48:51.953804  7451 net.cpp:380] cifar -> label
I0425 15:48:51.953811  7451 data_transformer.cpp:25] Loading mean file from: examples/cifar10/mean.binaryproto
I0425 15:48:51.953958  7451 data_layer.cpp:45] output data size: 100,3,32,32
I0425 15:48:51.957772  7451 net.cpp:122] Setting up cifar
I0425 15:48:51.957790  7451 net.cpp:129] Top shape: 100 3 32 32 (307200)
I0425 15:48:51.957793  7451 net.cpp:129] Top shape: 100 (100)
I0425 15:48:51.957795  7451 net.cpp:137] Memory required for data: 1229200
I0425 15:48:51.957818  7451 layer_factory.hpp:77] Creating layer label_cifar_1_split
I0425 15:48:51.957868  7451 net.cpp:84] Creating Layer label_cifar_1_split
I0425 15:48:51.957877  7451 net.cpp:406] label_cifar_1_split <- label
I0425 15:48:51.957886  7451 net.cpp:380] label_cifar_1_split -> label_cifar_1_split_0
I0425 15:48:51.957901  7451 net.cpp:380] label_cifar_1_split -> label_cifar_1_split_1
I0425 15:48:51.958326  7451 net.cpp:122] Setting up label_cifar_1_split
I0425 15:48:51.958338  7451 net.cpp:129] Top shape: 100 (100)
I0425 15:48:51.958343  7451 net.cpp:129] Top shape: 100 (100)
I0425 15:48:51.958348  7451 net.cpp:137] Memory required for data: 1230000
I0425 15:48:51.958353  7451 layer_factory.hpp:77] Creating layer conv0
I0425 15:48:51.958380  7451 net.cpp:84] Creating Layer conv0
I0425 15:48:51.958386  7451 net.cpp:406] conv0 <- data
I0425 15:48:51.958395  7451 net.cpp:380] conv0 -> conv0
I0425 15:48:51.958626  7451 net.cpp:122] Setting up conv0
I0425 15:48:51.958633  7451 net.cpp:129] Top shape: 100 10 28 28 (784000)
I0425 15:48:51.958636  7451 net.cpp:137] Memory required for data: 4366000
I0425 15:48:51.958662  7451 layer_factory.hpp:77] Creating layer pool0
I0425 15:48:51.958683  7451 net.cpp:84] Creating Layer pool0
I0425 15:48:51.958686  7451 net.cpp:406] pool0 <- conv0
I0425 15:48:51.958708  7451 net.cpp:380] pool0 -> pool0
I0425 15:48:51.958742  7451 net.cpp:122] Setting up pool0
I0425 15:48:51.958748  7451 net.cpp:129] Top shape: 100 10 14 14 (196000)
I0425 15:48:51.958752  7451 net.cpp:137] Memory required for data: 5150000
I0425 15:48:51.958755  7451 layer_factory.hpp:77] Creating layer conv1
I0425 15:48:51.958767  7451 net.cpp:84] Creating Layer conv1
I0425 15:48:51.958771  7451 net.cpp:406] conv1 <- pool0
I0425 15:48:51.958777  7451 net.cpp:380] conv1 -> conv1
I0425 15:48:51.959349  7451 net.cpp:122] Setting up conv1
I0425 15:48:51.959360  7451 net.cpp:129] Top shape: 100 10 10 10 (100000)
I0425 15:48:51.959364  7451 net.cpp:137] Memory required for data: 5550000
I0425 15:48:51.959373  7451 layer_factory.hpp:77] Creating layer pool1
I0425 15:48:51.959384  7451 net.cpp:84] Creating Layer pool1
I0425 15:48:51.959389  7451 net.cpp:406] pool1 <- conv1
I0425 15:48:51.959408  7451 net.cpp:380] pool1 -> pool1
I0425 15:48:51.959444  7451 net.cpp:122] Setting up pool1
I0425 15:48:51.959450  7451 net.cpp:129] Top shape: 100 10 5 5 (25000)
I0425 15:48:51.959456  7451 net.cpp:137] Memory required for data: 5650000
I0425 15:48:51.959460  7451 layer_factory.hpp:77] Creating layer ip1
I0425 15:48:51.959470  7451 net.cpp:84] Creating Layer ip1
I0425 15:48:51.959475  7451 net.cpp:406] ip1 <- pool1
I0425 15:48:51.959482  7451 net.cpp:380] ip1 -> ip1
I0425 15:48:51.960254  7451 net.cpp:122] Setting up ip1
I0425 15:48:51.960260  7451 net.cpp:129] Top shape: 100 500 (50000)
I0425 15:48:51.960263  7451 net.cpp:137] Memory required for data: 5850000
I0425 15:48:51.960274  7451 layer_factory.hpp:77] Creating layer relu1
I0425 15:48:51.960295  7451 net.cpp:84] Creating Layer relu1
I0425 15:48:51.960299  7451 net.cpp:406] relu1 <- ip1
I0425 15:48:51.960317  7451 net.cpp:367] relu1 -> ip1 (in-place)
I0425 15:48:51.960325  7451 net.cpp:122] Setting up relu1
I0425 15:48:51.960330  7451 net.cpp:129] Top shape: 100 500 (50000)
I0425 15:48:51.960332  7451 net.cpp:137] Memory required for data: 6050000
I0425 15:48:51.960335  7451 layer_factory.hpp:77] Creating layer ip2
I0425 15:48:51.960345  7451 net.cpp:84] Creating Layer ip2
I0425 15:48:51.960348  7451 net.cpp:406] ip2 <- ip1
I0425 15:48:51.960355  7451 net.cpp:380] ip2 -> ip2
I0425 15:48:51.960454  7451 net.cpp:122] Setting up ip2
I0425 15:48:51.960460  7451 net.cpp:129] Top shape: 100 10 (1000)
I0425 15:48:51.960463  7451 net.cpp:137] Memory required for data: 6054000
I0425 15:48:51.960469  7451 layer_factory.hpp:77] Creating layer relu2
I0425 15:48:51.960474  7451 net.cpp:84] Creating Layer relu2
I0425 15:48:51.960479  7451 net.cpp:406] relu2 <- ip2
I0425 15:48:51.960484  7451 net.cpp:367] relu2 -> ip2 (in-place)
I0425 15:48:51.960489  7451 net.cpp:122] Setting up relu2
I0425 15:48:51.960495  7451 net.cpp:129] Top shape: 100 10 (1000)
I0425 15:48:51.960508  7451 net.cpp:137] Memory required for data: 6058000
I0425 15:48:51.960512  7451 layer_factory.hpp:77] Creating layer ip2_relu2_0_split
I0425 15:48:51.960517  7451 net.cpp:84] Creating Layer ip2_relu2_0_split
I0425 15:48:51.960521  7451 net.cpp:406] ip2_relu2_0_split <- ip2
I0425 15:48:51.960527  7451 net.cpp:380] ip2_relu2_0_split -> ip2_relu2_0_split_0
I0425 15:48:51.960537  7451 net.cpp:380] ip2_relu2_0_split -> ip2_relu2_0_split_1
I0425 15:48:51.960757  7451 net.cpp:122] Setting up ip2_relu2_0_split
I0425 15:48:51.960763  7451 net.cpp:129] Top shape: 100 10 (1000)
I0425 15:48:51.960767  7451 net.cpp:129] Top shape: 100 10 (1000)
I0425 15:48:51.960788  7451 net.cpp:137] Memory required for data: 6066000
I0425 15:48:51.960790  7451 layer_factory.hpp:77] Creating layer accuracy
I0425 15:48:51.960819  7451 net.cpp:84] Creating Layer accuracy
I0425 15:48:51.960822  7451 net.cpp:406] accuracy <- ip2_relu2_0_split_0
I0425 15:48:51.960827  7451 net.cpp:406] accuracy <- label_cifar_1_split_0
I0425 15:48:51.960834  7451 net.cpp:380] accuracy -> accuracy
…
