…
I0425 15:55:39.756088  7761 net.cpp:294] The NetState phase (0) differed from the phase (1) specified by a rule in layer accuracy
I0425 15:55:39.756153  7761 net.cpp:51] Initializing net from parameters: 
name: "CIFARLeNet"
state {
  phase: TRAIN
  level: 0
  stage: ""
}
layer {
  name: "cifar"
  type: "Data"
  top: "data"
  top: "label"
  include {
    phase: TRAIN
  }
  transform_param {
    mean_file: "examples/cifar10/mean.binaryproto"
  }
  data_param {
    source: "examples/cifar10/cifar10_train_lmdb"
    batch_size: 64
    backend: LMDB
  }
}
layer {
  name: "conv0"
  type: "Convolution"
  bottom: "data"
  top: "conv0"
  param {
    lr_mult: 1
  }
  param {
    lr_mult: 2
  }
  convolution_param {
    num_output: 100
    kernel_size: 5
    stride: 1
    weight_filler {
      type: "xavier"
    }
    bias_filler {
      type: "constant"
    }
  }
}
layer {
  name: "pool0"
  type: "Pooling"
  bottom: "conv0"
  top: "pool0"
  pooling_param {
    pool: MAX
    kernel_size: 2
    stride: 2
  }
}
layer {
  name: "conv1"
  type: "Convolution"
  bottom: "pool0"
  top: "conv1"
  param {
    lr_mult: 1
  }
  param {
    lr_mult: 2
  }
  convolution_param {
    num_output: 100
    kernel_size: 5
    stride: 1
    weight_filler {
      type: "xavier"
    }
    bias_filler {
      type: "constant"
    }
  }
}
layer {
  name: "pool1"
  type: "Pooling"
  bottom: "conv1"
  top: "pool1"
  pooling_param {
    pool: MAX
    kernel_size: 2
    stride: 2
  }
}
layer {
  name: "ip1"
  type: "InnerProduct"
  bottom: "pool1"
  top: "ip1"
  param {
    lr_mult: 1
  }
  param {
    lr_mult: 2
  }
  inner_product_param {
    num_output: 500
    weight_filler {
      type: "xavier"
    }
    bias_filler {
      type: "constant"
    }
  }
}
layer {
  name: "relu1"
  type: "ReLU"
  bottom: "ip1"
  top: "ip1"
}
layer {
  name: "ip2"
  type: "InnerProduct"
  bottom: "ip1"
  top: "ip2"
  param {
    lr_mult: 1
  }
  param {
    lr_mult: 2
  }
  inner_product_param {
    num_output: 10
    weight_filler {
      type: "xavier"
    }
    bias_filler {
      type: "constant"
    }
  }
}
layer {
  name: "relu2"
  type: "ReLU"
  bottom: "ip2"
  top: "ip2"
}
layer {
  name: "loss"
  type: "SoftmaxWithLoss"
  bottom: "ip2"
  bottom: "label"
  top: "loss"
}
I0425 15:55:39.756198  7761 layer_factory.hpp:77] Creating layer cifar
I0425 15:55:39.756291  7761 db_lmdb.cpp:35] Opened lmdb examples/cifar10/cifar10_train_lmdb
I0425 15:55:39.756314  7761 net.cpp:84] Creating Layer cifar
I0425 15:55:39.756321  7761 net.cpp:380] cifar -> data
I0425 15:55:39.756336  7761 net.cpp:380] cifar -> label
I0425 15:55:39.756347  7761 data_transformer.cpp:25] Loading mean file from: examples/cifar10/mean.binaryproto
I0425 15:55:39.757125  7761 data_layer.cpp:45] output data size: 64,3,32,32
I0425 15:55:39.760167  7761 net.cpp:122] Setting up cifar
I0425 15:55:39.760184  7761 net.cpp:129] Top shape: 64 3 32 32 (196608)
I0425 15:55:39.760187  7761 net.cpp:129] Top shape: 64 (64)
I0425 15:55:39.760190  7761 net.cpp:137] Memory required for data: 786688
I0425 15:55:39.760196  7761 layer_factory.hpp:77] Creating layer conv0
I0425 15:55:39.760221  7761 net.cpp:84] Creating Layer conv0
I0425 15:55:39.760226  7761 net.cpp:406] conv0 <- data
I0425 15:55:39.760237  7761 net.cpp:380] conv0 -> conv0
I0425 15:55:39.761135  7761 net.cpp:122] Setting up conv0
I0425 15:55:39.761145  7761 net.cpp:129] Top shape: 64 100 28 28 (5017600)
I0425 15:55:39.761148  7761 net.cpp:137] Memory required for data: 20857088
I0425 15:55:39.761163  7761 layer_factory.hpp:77] Creating layer pool0
I0425 15:55:39.761170  7761 net.cpp:84] Creating Layer pool0
I0425 15:55:39.761173  7761 net.cpp:406] pool0 <- conv0
I0425 15:55:39.761178  7761 net.cpp:380] pool0 -> pool0
I0425 15:55:39.761215  7761 net.cpp:122] Setting up pool0
I0425 15:55:39.761220  7761 net.cpp:129] Top shape: 64 100 14 14 (1254400)
I0425 15:55:39.761222  7761 net.cpp:137] Memory required for data: 25874688
I0425 15:55:39.761224  7761 layer_factory.hpp:77] Creating layer conv1
I0425 15:55:39.761231  7761 net.cpp:84] Creating Layer conv1
I0425 15:55:39.761234  7761 net.cpp:406] conv1 <- pool0
I0425 15:55:39.761237  7761 net.cpp:380] conv1 -> conv1
I0425 15:55:39.762876  7761 net.cpp:122] Setting up conv1
I0425 15:55:39.762884  7761 net.cpp:129] Top shape: 64 100 10 10 (640000)
I0425 15:55:39.762887  7761 net.cpp:137] Memory required for data: 28434688
I0425 15:55:39.762894  7761 layer_factory.hpp:77] Creating layer pool1
I0425 15:55:39.762900  7761 net.cpp:84] Creating Layer pool1
I0425 15:55:39.762902  7761 net.cpp:406] pool1 <- conv1
I0425 15:55:39.762907  7761 net.cpp:380] pool1 -> pool1
I0425 15:55:39.762933  7761 net.cpp:122] Setting up pool1
I0425 15:55:39.762938  7761 net.cpp:129] Top shape: 64 100 5 5 (160000)
I0425 15:55:39.762940  7761 net.cpp:137] Memory required for data: 29074688
I0425 15:55:39.762943  7761 layer_factory.hpp:77] Creating layer ip1
I0425 15:55:39.762948  7761 net.cpp:84] Creating Layer ip1
I0425 15:55:39.762950  7761 net.cpp:406] ip1 <- pool1
I0425 15:55:39.762954  7761 net.cpp:380] ip1 -> ip1
I0425 15:55:39.770562  7761 net.cpp:122] Setting up ip1
I0425 15:55:39.770586  7761 net.cpp:129] Top shape: 64 500 (32000)
I0425 15:55:39.770589  7761 net.cpp:137] Memory required for data: 29202688
I0425 15:55:39.770601  7761 layer_factory.hpp:77] Creating layer relu1
I0425 15:55:39.770608  7761 net.cpp:84] Creating Layer relu1
I0425 15:55:39.770612  7761 net.cpp:406] relu1 <- ip1
I0425 15:55:39.770617  7761 net.cpp:367] relu1 -> ip1 (in-place)
I0425 15:55:39.770627  7761 net.cpp:122] Setting up relu1
I0425 15:55:39.770629  7761 net.cpp:129] Top shape: 64 500 (32000)
I0425 15:55:39.770630  7761 net.cpp:137] Memory required for data: 29330688
I0425 15:55:39.770633  7761 layer_factory.hpp:77] Creating layer ip2
I0425 15:55:39.770638  7761 net.cpp:84] Creating Layer ip2
I0425 15:55:39.770640  7761 net.cpp:406] ip2 <- ip1
I0425 15:55:39.770644  7761 net.cpp:380] ip2 -> ip2
I0425 15:55:39.770794  7761 net.cpp:122] Setting up ip2
I0425 15:55:39.770799  7761 net.cpp:129] Top shape: 64 10 (640)
I0425 15:55:39.770802  7761 net.cpp:137] Memory required for data: 29333248
I0425 15:55:39.770805  7761 layer_factory.hpp:77] Creating layer relu2
I0425 15:55:39.770810  7761 net.cpp:84] Creating Layer relu2
I0425 15:55:39.770813  7761 net.cpp:406] relu2 <- ip2
I0425 15:55:39.770817  7761 net.cpp:367] relu2 -> ip2 (in-place)
I0425 15:55:39.770819  7761 net.cpp:122] Setting up relu2
I0425 15:55:39.770823  7761 net.cpp:129] Top shape: 64 10 (640)
I0425 15:55:39.770824  7761 net.cpp:137] Memory required for data: 29335808
I0425 15:55:39.770826  7761 layer_factory.hpp:77] Creating layer loss
I0425 15:55:39.770829  7761 net.cpp:84] Creating Layer loss
I0425 15:55:39.770831  7761 net.cpp:406] loss <- ip2
I0425 15:55:39.770834  7761 net.cpp:406] loss <- label
I0425 15:55:39.770838  7761 net.cpp:380] loss -> loss
I0425 15:55:39.770851  7761 layer_factory.hpp:77] Creating layer loss
…
I0425 15:55:39.771128  7761 solver.cpp:173] Creating test net (#0) specified by net file: ECE595/cifar/train_test/var_num_feature_maxiter6000/cifarlenet_train_test_featuresize100.prototxt
I0425 15:55:39.771145  7761 net.cpp:294] The NetState phase (1) differed from the phase (0) specified by a rule in layer cifar
I0425 15:55:39.771210  7761 net.cpp:51] Initializing net from parameters: 
name: "CIFARLeNet"
state {
  phase: TEST
}
layer {
  name: "cifar"
  type: "Data"
  top: "data"
  top: "label"
  include {
    phase: TEST
  }
  transform_param {
    mean_file: "examples/cifar10/mean.binaryproto"
  }
  data_param {
    source: "examples/cifar10/cifar10_test_lmdb"
    batch_size: 100
    backend: LMDB
  }
}
layer {
  name: "conv0"
  type: "Convolution"
  bottom: "data"
  top: "conv0"
  param {
    lr_mult: 1
  }
  param {
    lr_mult: 2
  }
  convolution_param {
    num_output: 100
    kernel_size: 5
    stride: 1
    weight_filler {
      type: "xavier"
    }
    bias_filler {
      type: "constant"
    }
  }
}
layer {
  name: "pool0"
  type: "Pooling"
  bottom: "conv0"
  top: "pool0"
  pooling_param {
    pool: MAX
    kernel_size: 2
    stride: 2
  }
}
layer {
  name: "conv1"
  type: "Convolution"
  bottom: "pool0"
  top: "conv1"
  param {
    lr_mult: 1
  }
  param {
    lr_mult: 2
  }
  convolution_param {
    num_output: 100
    kernel_size: 5
    stride: 1
    weight_filler {
      type: "xavier"
    }
    bias_filler {
      type: "constant"
    }
  }
}
layer {
  name: "pool1"
  type: "Pooling"
  bottom: "conv1"
  top: "pool1"
  pooling_param {
    pool: MAX
    kernel_size: 2
    stride: 2
  }
}
layer {
  name: "ip1"
  type: "InnerProduct"
  bottom: "pool1"
  top: "ip1"
  param {
    lr_mult: 1
  }
  param {
    lr_mult: 2
  }
  inner_product_param {
    num_output: 500
    weight_filler {
      type: "xavier"
    }
    bias_filler {
      type: "constant"
    }
  }
}
layer {
  name: "relu1"
  type: "ReLU"
  bottom: "ip1"
  top: "ip1"
}
layer {
  name: "ip2"
  type: "InnerProduct"
  bottom: "ip1"
  top: "ip2"
  param {
    lr_mult: 1
  }
  param {
    lr_mult: 2
  }
  inner_product_param {
    num_output: 10
    weight_filler {
      type: "xavier"
    }
    bias_filler {
      type: "constant"
    }
  }
}
layer {
  name: "relu2"
  type: "ReLU"
  bottom: "ip2"
  top: "ip2"
}
layer {
  name: "accuracy"
  type: "Accuracy"
  bottom: "ip2"
  bottom: "label"
  top: "accuracy"
  include {
    phase: TEST
  }
}
layer {
  name: "loss"
  type: "SoftmaxWithLoss"
  bottom: "ip2"
  bottom: "label"
  top: "loss"
}
I0425 15:55:39.771272  7761 layer_factory.hpp:77] Creating layer cifar
I0425 15:55:39.771318  7761 db_lmdb.cpp:35] Opened lmdb examples/cifar10/cifar10_test_lmdb
I0425 15:55:39.771329  7761 net.cpp:84] Creating Layer cifar
I0425 15:55:39.771334  7761 net.cpp:380] cifar -> data
I0425 15:55:39.771339  7761 net.cpp:380] cifar -> label
I0425 15:55:39.771345  7761 data_transformer.cpp:25] Loading mean file from: examples/cifar10/mean.binaryproto
I0425 15:55:39.771451  7761 data_layer.cpp:45] output data size: 100,3,32,32
I0425 15:55:39.774757  7761 net.cpp:122] Setting up cifar
I0425 15:55:39.774775  7761 net.cpp:129] Top shape: 100 3 32 32 (307200)
I0425 15:55:39.774780  7761 net.cpp:129] Top shape: 100 (100)
I0425 15:55:39.774781  7761 net.cpp:137] Memory required for data: 1229200
I0425 15:55:39.774802  7761 layer_factory.hpp:77] Creating layer label_cifar_1_split
I0425 15:55:39.774811  7761 net.cpp:84] Creating Layer label_cifar_1_split
I0425 15:55:39.774816  7761 net.cpp:406] label_cifar_1_split <- label
I0425 15:55:39.774821  7761 net.cpp:380] label_cifar_1_split -> label_cifar_1_split_0
I0425 15:55:39.774830  7761 net.cpp:380] label_cifar_1_split -> label_cifar_1_split_1
I0425 15:55:39.774885  7761 net.cpp:122] Setting up label_cifar_1_split
I0425 15:55:39.774891  7761 net.cpp:129] Top shape: 100 (100)
I0425 15:55:39.774893  7761 net.cpp:129] Top shape: 100 (100)
I0425 15:55:39.774895  7761 net.cpp:137] Memory required for data: 1230000
I0425 15:55:39.774897  7761 layer_factory.hpp:77] Creating layer conv0
I0425 15:55:39.774906  7761 net.cpp:84] Creating Layer conv0
I0425 15:55:39.774909  7761 net.cpp:406] conv0 <- data
I0425 15:55:39.774914  7761 net.cpp:380] conv0 -> conv0
I0425 15:55:39.775153  7761 net.cpp:122] Setting up conv0
I0425 15:55:39.775161  7761 net.cpp:129] Top shape: 100 100 28 28 (7840000)
I0425 15:55:39.775162  7761 net.cpp:137] Memory required for data: 32590000
I0425 15:55:39.775171  7761 layer_factory.hpp:77] Creating layer pool0
I0425 15:55:39.775176  7761 net.cpp:84] Creating Layer pool0
I0425 15:55:39.775178  7761 net.cpp:406] pool0 <- conv0
I0425 15:55:39.775182  7761 net.cpp:380] pool0 -> pool0
I0425 15:55:39.775207  7761 net.cpp:122] Setting up pool0
I0425 15:55:39.775213  7761 net.cpp:129] Top shape: 100 100 14 14 (1960000)
I0425 15:55:39.775214  7761 net.cpp:137] Memory required for data: 40430000
I0425 15:55:39.775218  7761 layer_factory.hpp:77] Creating layer conv1
I0425 15:55:39.775223  7761 net.cpp:84] Creating Layer conv1
I0425 15:55:39.775225  7761 net.cpp:406] conv1 <- pool0
I0425 15:55:39.775231  7761 net.cpp:380] conv1 -> conv1
I0425 15:55:39.776875  7761 net.cpp:122] Setting up conv1
I0425 15:55:39.776882  7761 net.cpp:129] Top shape: 100 100 10 10 (1000000)
I0425 15:55:39.776885  7761 net.cpp:137] Memory required for data: 44430000
I0425 15:55:39.776892  7761 layer_factory.hpp:77] Creating layer pool1
I0425 15:55:39.776898  7761 net.cpp:84] Creating Layer pool1
I0425 15:55:39.776901  7761 net.cpp:406] pool1 <- conv1
I0425 15:55:39.776906  7761 net.cpp:380] pool1 -> pool1
I0425 15:55:39.776932  7761 net.cpp:122] Setting up pool1
I0425 15:55:39.776937  7761 net.cpp:129] Top shape: 100 100 5 5 (250000)
I0425 15:55:39.776939  7761 net.cpp:137] Memory required for data: 45430000
I0425 15:55:39.776942  7761 layer_factory.hpp:77] Creating layer ip1
I0425 15:55:39.776948  7761 net.cpp:84] Creating Layer ip1
I0425 15:55:39.776950  7761 net.cpp:406] ip1 <- pool1
I0425 15:55:39.776954  7761 net.cpp:380] ip1 -> ip1
I0425 15:55:39.784601  7761 net.cpp:122] Setting up ip1
I0425 15:55:39.784620  7761 net.cpp:129] Top shape: 100 500 (50000)
I0425 15:55:39.784622  7761 net.cpp:137] Memory required for data: 45630000
I0425 15:55:39.784633  7761 layer_factory.hpp:77] Creating layer relu1
I0425 15:55:39.784641  7761 net.cpp:84] Creating Layer relu1
I0425 15:55:39.784643  7761 net.cpp:406] relu1 <- ip1
I0425 15:55:39.784652  7761 net.cpp:367] relu1 -> ip1 (in-place)
I0425 15:55:39.784687  7761 net.cpp:122] Setting up relu1
I0425 15:55:39.784692  7761 net.cpp:129] Top shape: 100 500 (50000)
I0425 15:55:39.784693  7761 net.cpp:137] Memory required for data: 45830000
I0425 15:55:39.784695  7761 layer_factory.hpp:77] Creating layer ip2
I0425 15:55:39.784703  7761 net.cpp:84] Creating Layer ip2
I0425 15:55:39.784705  7761 net.cpp:406] ip2 <- ip1
I0425 15:55:39.784710  7761 net.cpp:380] ip2 -> ip2
I0425 15:55:39.784826  7761 net.cpp:122] Setting up ip2
I0425 15:55:39.784832  7761 net.cpp:129] Top shape: 100 10 (1000)
I0425 15:55:39.784833  7761 net.cpp:137] Memory required for data: 45834000
I0425 15:55:39.784838  7761 layer_factory.hpp:77] Creating layer relu2
I0425 15:55:39.784842  7761 net.cpp:84] Creating Layer relu2
I0425 15:55:39.784847  7761 net.cpp:406] relu2 <- ip2
I0425 15:55:39.784849  7761 net.cpp:367] relu2 -> ip2 (in-place)
I0425 15:55:39.784853  7761 net.cpp:122] Setting up relu2
I0425 15:55:39.784868  7761 net.cpp:129] Top shape: 100 10 (1000)
I0425 15:55:39.784869  7761 net.cpp:137] Memory required for data: 45838000
I0425 15:55:39.784871  7761 layer_factory.hpp:77] Creating layer ip2_relu2_0_split
I0425 15:55:39.784876  7761 net.cpp:84] Creating Layer ip2_relu2_0_split
I0425 15:55:39.784878  7761 net.cpp:406] ip2_relu2_0_split <- ip2
I0425 15:55:39.784883  7761 net.cpp:380] ip2_relu2_0_split -> ip2_relu2_0_split_0
I0425 15:55:39.784888  7761 net.cpp:380] ip2_relu2_0_split -> ip2_relu2_0_split_1
I0425 15:55:39.784917  7761 net.cpp:122] Setting up ip2_relu2_0_split
I0425 15:55:39.784922  7761 net.cpp:129] Top shape: 100 10 (1000)
I0425 15:55:39.784924  7761 net.cpp:129] Top shape: 100 10 (1000)
I0425 15:55:39.784926  7761 net.cpp:137] Memory required for data: 45846000
I0425 15:55:39.784929  7761 layer_factory.hpp:77] Creating layer accuracy
I0425 15:55:39.784934  7761 net.cpp:84] Creating Layer accuracy
I0425 15:55:39.784937  7761 net.cpp:406] accuracy <- ip2_relu2_0_split_0
I0425 15:55:39.784941  7761 net.cpp:406] accuracy <- label_cifar_1_split_0
I0425 15:55:39.784947  7761 net.cpp:380] accuracy -> accuracy
…
