…
I0425 16:09:34.586400  7883 net.cpp:294] The NetState phase (0) differed from the phase (1) specified by a rule in layer accuracy
I0425 16:09:34.586483  7883 net.cpp:51] Initializing net from parameters: 
name: "CIFARLeNet"
state {
  phase: TRAIN
  level: 0
  stage: ""
}
layer {
  name: "cifar"
  type: "Data"
  top: "data"
  top: "label"
  include {
    phase: TRAIN
  }
  transform_param {
    mean_file: "examples/cifar10/mean.binaryproto"
  }
  data_param {
    source: "examples/cifar10/cifar10_train_lmdb"
    batch_size: 64
    backend: LMDB
  }
}
layer {
  name: "conv0"
  type: "Convolution"
  bottom: "data"
  top: "conv0"
  param {
    lr_mult: 1
  }
  param {
    lr_mult: 2
  }
  convolution_param {
    num_output: 150
    kernel_size: 5
    stride: 1
    weight_filler {
      type: "xavier"
    }
    bias_filler {
      type: "constant"
    }
  }
}
layer {
  name: "pool0"
  type: "Pooling"
  bottom: "conv0"
  top: "pool0"
  pooling_param {
    pool: MAX
    kernel_size: 2
    stride: 2
  }
}
layer {
  name: "conv1"
  type: "Convolution"
  bottom: "pool0"
  top: "conv1"
  param {
    lr_mult: 1
  }
  param {
    lr_mult: 2
  }
  convolution_param {
    num_output: 150
    kernel_size: 5
    stride: 1
    weight_filler {
      type: "xavier"
    }
    bias_filler {
      type: "constant"
    }
  }
}
layer {
  name: "pool1"
  type: "Pooling"
  bottom: "conv1"
  top: "pool1"
  pooling_param {
    pool: MAX
    kernel_size: 2
    stride: 2
  }
}
layer {
  name: "ip1"
  type: "InnerProduct"
  bottom: "pool1"
  top: "ip1"
  param {
    lr_mult: 1
  }
  param {
    lr_mult: 2
  }
  inner_product_param {
    num_output: 500
    weight_filler {
      type: "xavier"
    }
    bias_filler {
      type: "constant"
    }
  }
}
layer {
  name: "relu1"
  type: "ReLU"
  bottom: "ip1"
  top: "ip1"
}
layer {
  name: "ip2"
  type: "InnerProduct"
  bottom: "ip1"
  top: "ip2"
  param {
    lr_mult: 1
  }
  param {
    lr_mult: 2
  }
  inner_product_param {
    num_output: 10
    weight_filler {
      type: "xavier"
    }
    bias_filler {
      type: "constant"
    }
  }
}
layer {
  name: "relu2"
  type: "ReLU"
  bottom: "ip2"
  top: "ip2"
}
layer {
  name: "loss"
  type: "SoftmaxWithLoss"
  bottom: "ip2"
  bottom: "label"
  top: "loss"
}
I0425 16:09:34.586556  7883 layer_factory.hpp:77] Creating layer cifar
I0425 16:09:34.586680  7883 db_lmdb.cpp:35] Opened lmdb examples/cifar10/cifar10_train_lmdb
I0425 16:09:34.586707  7883 net.cpp:84] Creating Layer cifar
I0425 16:09:34.586716  7883 net.cpp:380] cifar -> data
I0425 16:09:34.586736  7883 net.cpp:380] cifar -> label
I0425 16:09:34.586750  7883 data_transformer.cpp:25] Loading mean file from: examples/cifar10/mean.binaryproto
I0425 16:09:34.587697  7883 data_layer.cpp:45] output data size: 64,3,32,32
I0425 16:09:34.591331  7883 net.cpp:122] Setting up cifar
I0425 16:09:34.591349  7883 net.cpp:129] Top shape: 64 3 32 32 (196608)
I0425 16:09:34.591353  7883 net.cpp:129] Top shape: 64 (64)
I0425 16:09:34.591357  7883 net.cpp:137] Memory required for data: 786688
I0425 16:09:34.591367  7883 layer_factory.hpp:77] Creating layer conv0
I0425 16:09:34.591387  7883 net.cpp:84] Creating Layer conv0
I0425 16:09:34.591393  7883 net.cpp:406] conv0 <- data
I0425 16:09:34.591406  7883 net.cpp:380] conv0 -> conv0
I0425 16:09:34.592481  7883 net.cpp:122] Setting up conv0
I0425 16:09:34.592494  7883 net.cpp:129] Top shape: 64 150 28 28 (7526400)
I0425 16:09:34.592497  7883 net.cpp:137] Memory required for data: 30892288
I0425 16:09:34.592515  7883 layer_factory.hpp:77] Creating layer pool0
I0425 16:09:34.592525  7883 net.cpp:84] Creating Layer pool0
I0425 16:09:34.592527  7883 net.cpp:406] pool0 <- conv0
I0425 16:09:34.592531  7883 net.cpp:380] pool0 -> pool0
I0425 16:09:34.592577  7883 net.cpp:122] Setting up pool0
I0425 16:09:34.592584  7883 net.cpp:129] Top shape: 64 150 14 14 (1881600)
I0425 16:09:34.592586  7883 net.cpp:137] Memory required for data: 38418688
I0425 16:09:34.592589  7883 layer_factory.hpp:77] Creating layer conv1
I0425 16:09:34.592598  7883 net.cpp:84] Creating Layer conv1
I0425 16:09:34.592602  7883 net.cpp:406] conv1 <- pool0
I0425 16:09:34.592607  7883 net.cpp:380] conv1 -> conv1
I0425 16:09:34.596837  7883 net.cpp:122] Setting up conv1
I0425 16:09:34.596851  7883 net.cpp:129] Top shape: 64 150 10 10 (960000)
I0425 16:09:34.596854  7883 net.cpp:137] Memory required for data: 42258688
I0425 16:09:34.596864  7883 layer_factory.hpp:77] Creating layer pool1
I0425 16:09:34.596873  7883 net.cpp:84] Creating Layer pool1
I0425 16:09:34.596877  7883 net.cpp:406] pool1 <- conv1
I0425 16:09:34.596884  7883 net.cpp:380] pool1 -> pool1
I0425 16:09:34.596920  7883 net.cpp:122] Setting up pool1
I0425 16:09:34.596925  7883 net.cpp:129] Top shape: 64 150 5 5 (240000)
I0425 16:09:34.596928  7883 net.cpp:137] Memory required for data: 43218688
I0425 16:09:34.596931  7883 layer_factory.hpp:77] Creating layer ip1
I0425 16:09:34.596938  7883 net.cpp:84] Creating Layer ip1
I0425 16:09:34.596941  7883 net.cpp:406] ip1 <- pool1
I0425 16:09:34.596946  7883 net.cpp:380] ip1 -> ip1
I0425 16:09:34.610453  7883 net.cpp:122] Setting up ip1
I0425 16:09:34.610472  7883 net.cpp:129] Top shape: 64 500 (32000)
I0425 16:09:34.610476  7883 net.cpp:137] Memory required for data: 43346688
I0425 16:09:34.610487  7883 layer_factory.hpp:77] Creating layer relu1
I0425 16:09:34.610496  7883 net.cpp:84] Creating Layer relu1
I0425 16:09:34.610499  7883 net.cpp:406] relu1 <- ip1
I0425 16:09:34.610505  7883 net.cpp:367] relu1 -> ip1 (in-place)
I0425 16:09:34.610515  7883 net.cpp:122] Setting up relu1
I0425 16:09:34.610518  7883 net.cpp:129] Top shape: 64 500 (32000)
I0425 16:09:34.610522  7883 net.cpp:137] Memory required for data: 43474688
I0425 16:09:34.610523  7883 layer_factory.hpp:77] Creating layer ip2
I0425 16:09:34.610530  7883 net.cpp:84] Creating Layer ip2
I0425 16:09:34.610533  7883 net.cpp:406] ip2 <- ip1
I0425 16:09:34.610539  7883 net.cpp:380] ip2 -> ip2
I0425 16:09:34.610671  7883 net.cpp:122] Setting up ip2
I0425 16:09:34.610677  7883 net.cpp:129] Top shape: 64 10 (640)
I0425 16:09:34.610680  7883 net.cpp:137] Memory required for data: 43477248
I0425 16:09:34.610685  7883 layer_factory.hpp:77] Creating layer relu2
I0425 16:09:34.610692  7883 net.cpp:84] Creating Layer relu2
I0425 16:09:34.610697  7883 net.cpp:406] relu2 <- ip2
I0425 16:09:34.610700  7883 net.cpp:367] relu2 -> ip2 (in-place)
I0425 16:09:34.610704  7883 net.cpp:122] Setting up relu2
I0425 16:09:34.610707  7883 net.cpp:129] Top shape: 64 10 (640)
I0425 16:09:34.610710  7883 net.cpp:137] Memory required for data: 43479808
I0425 16:09:34.610713  7883 layer_factory.hpp:77] Creating layer loss
I0425 16:09:34.610718  7883 net.cpp:84] Creating Layer loss
I0425 16:09:34.610719  7883 net.cpp:406] loss <- ip2
I0425 16:09:34.610723  7883 net.cpp:406] loss <- label
I0425 16:09:34.610728  7883 net.cpp:380] loss -> loss
I0425 16:09:34.610743  7883 layer_factory.hpp:77] Creating layer loss
…
I0425 16:09:34.611080  7883 solver.cpp:173] Creating test net (#0) specified by net file: ECE595/cifar/train_test/var_num_feature_maxiter6000/cifarlenet_train_test_featuresize150.prototxt
I0425 16:09:34.611101  7883 net.cpp:294] The NetState phase (1) differed from the phase (0) specified by a rule in layer cifar
I0425 16:09:34.611186  7883 net.cpp:51] Initializing net from parameters: 
name: "CIFARLeNet"
state {
  phase: TEST
}
layer {
  name: "cifar"
  type: "Data"
  top: "data"
  top: "label"
  include {
    phase: TEST
  }
  transform_param {
    mean_file: "examples/cifar10/mean.binaryproto"
  }
  data_param {
    source: "examples/cifar10/cifar10_test_lmdb"
    batch_size: 100
    backend: LMDB
  }
}
layer {
  name: "conv0"
  type: "Convolution"
  bottom: "data"
  top: "conv0"
  param {
    lr_mult: 1
  }
  param {
    lr_mult: 2
  }
  convolution_param {
    num_output: 150
    kernel_size: 5
    stride: 1
    weight_filler {
      type: "xavier"
    }
    bias_filler {
      type: "constant"
    }
  }
}
layer {
  name: "pool0"
  type: "Pooling"
  bottom: "conv0"
  top: "pool0"
  pooling_param {
    pool: MAX
    kernel_size: 2
    stride: 2
  }
}
layer {
  name: "conv1"
  type: "Convolution"
  bottom: "pool0"
  top: "conv1"
  param {
    lr_mult: 1
  }
  param {
    lr_mult: 2
  }
  convolution_param {
    num_output: 150
    kernel_size: 5
    stride: 1
    weight_filler {
      type: "xavier"
    }
    bias_filler {
      type: "constant"
    }
  }
}
layer {
  name: "pool1"
  type: "Pooling"
  bottom: "conv1"
  top: "pool1"
  pooling_param {
    pool: MAX
    kernel_size: 2
    stride: 2
  }
}
layer {
  name: "ip1"
  type: "InnerProduct"
  bottom: "pool1"
  top: "ip1"
  param {
    lr_mult: 1
  }
  param {
    lr_mult: 2
  }
  inner_product_param {
    num_output: 500
    weight_filler {
      type: "xavier"
    }
    bias_filler {
      type: "constant"
    }
  }
}
layer {
  name: "relu1"
  type: "ReLU"
  bottom: "ip1"
  top: "ip1"
}
layer {
  name: "ip2"
  type: "InnerProduct"
  bottom: "ip1"
  top: "ip2"
  param {
    lr_mult: 1
  }
  param {
    lr_mult: 2
  }
  inner_product_param {
    num_output: 10
    weight_filler {
      type: "xavier"
    }
    bias_filler {
      type: "constant"
    }
  }
}
layer {
  name: "relu2"
  type: "ReLU"
  bottom: "ip2"
  top: "ip2"
}
layer {
  name: "accuracy"
  type: "Accuracy"
  bottom: "ip2"
  bottom: "label"
  top: "accuracy"
  include {
    phase: TEST
  }
}
layer {
  name: "loss"
  type: "SoftmaxWithLoss"
  bottom: "ip2"
  bottom: "label"
  top: "loss"
}
I0425 16:09:34.611249  7883 layer_factory.hpp:77] Creating layer cifar
I0425 16:09:34.611312  7883 db_lmdb.cpp:35] Opened lmdb examples/cifar10/cifar10_test_lmdb
I0425 16:09:34.611325  7883 net.cpp:84] Creating Layer cifar
I0425 16:09:34.611333  7883 net.cpp:380] cifar -> data
I0425 16:09:34.611340  7883 net.cpp:380] cifar -> label
I0425 16:09:34.611347  7883 data_transformer.cpp:25] Loading mean file from: examples/cifar10/mean.binaryproto
I0425 16:09:34.611488  7883 data_layer.cpp:45] output data size: 100,3,32,32
I0425 16:09:34.615339  7883 net.cpp:122] Setting up cifar
I0425 16:09:34.615360  7883 net.cpp:129] Top shape: 100 3 32 32 (307200)
I0425 16:09:34.615365  7883 net.cpp:129] Top shape: 100 (100)
I0425 16:09:34.615367  7883 net.cpp:137] Memory required for data: 1229200
I0425 16:09:34.615388  7883 layer_factory.hpp:77] Creating layer label_cifar_1_split
I0425 16:09:34.615398  7883 net.cpp:84] Creating Layer label_cifar_1_split
I0425 16:09:34.615401  7883 net.cpp:406] label_cifar_1_split <- label
I0425 16:09:34.615409  7883 net.cpp:380] label_cifar_1_split -> label_cifar_1_split_0
I0425 16:09:34.615418  7883 net.cpp:380] label_cifar_1_split -> label_cifar_1_split_1
I0425 16:09:34.615486  7883 net.cpp:122] Setting up label_cifar_1_split
I0425 16:09:34.615494  7883 net.cpp:129] Top shape: 100 (100)
I0425 16:09:34.615496  7883 net.cpp:129] Top shape: 100 (100)
I0425 16:09:34.615499  7883 net.cpp:137] Memory required for data: 1230000
I0425 16:09:34.615501  7883 layer_factory.hpp:77] Creating layer conv0
I0425 16:09:34.615512  7883 net.cpp:84] Creating Layer conv0
I0425 16:09:34.615515  7883 net.cpp:406] conv0 <- data
I0425 16:09:34.615521  7883 net.cpp:380] conv0 -> conv0
I0425 16:09:34.615828  7883 net.cpp:122] Setting up conv0
I0425 16:09:34.615836  7883 net.cpp:129] Top shape: 100 150 28 28 (11760000)
I0425 16:09:34.615839  7883 net.cpp:137] Memory required for data: 48270000
I0425 16:09:34.615849  7883 layer_factory.hpp:77] Creating layer pool0
I0425 16:09:34.615855  7883 net.cpp:84] Creating Layer pool0
I0425 16:09:34.615857  7883 net.cpp:406] pool0 <- conv0
I0425 16:09:34.615861  7883 net.cpp:380] pool0 -> pool0
I0425 16:09:34.615897  7883 net.cpp:122] Setting up pool0
I0425 16:09:34.615902  7883 net.cpp:129] Top shape: 100 150 14 14 (2940000)
I0425 16:09:34.615906  7883 net.cpp:137] Memory required for data: 60030000
I0425 16:09:34.615907  7883 layer_factory.hpp:77] Creating layer conv1
I0425 16:09:34.615916  7883 net.cpp:84] Creating Layer conv1
I0425 16:09:34.615919  7883 net.cpp:406] conv1 <- pool0
I0425 16:09:34.615926  7883 net.cpp:380] conv1 -> conv1
I0425 16:09:34.620538  7883 net.cpp:122] Setting up conv1
I0425 16:09:34.620559  7883 net.cpp:129] Top shape: 100 150 10 10 (1500000)
I0425 16:09:34.620563  7883 net.cpp:137] Memory required for data: 66030000
I0425 16:09:34.620573  7883 layer_factory.hpp:77] Creating layer pool1
I0425 16:09:34.620582  7883 net.cpp:84] Creating Layer pool1
I0425 16:09:34.620586  7883 net.cpp:406] pool1 <- conv1
I0425 16:09:34.620594  7883 net.cpp:380] pool1 -> pool1
I0425 16:09:34.620635  7883 net.cpp:122] Setting up pool1
I0425 16:09:34.620641  7883 net.cpp:129] Top shape: 100 150 5 5 (375000)
I0425 16:09:34.620645  7883 net.cpp:137] Memory required for data: 67530000
I0425 16:09:34.620647  7883 layer_factory.hpp:77] Creating layer ip1
I0425 16:09:34.620656  7883 net.cpp:84] Creating Layer ip1
I0425 16:09:34.620657  7883 net.cpp:406] ip1 <- pool1
I0425 16:09:34.620663  7883 net.cpp:380] ip1 -> ip1
I0425 16:09:34.635067  7883 net.cpp:122] Setting up ip1
I0425 16:09:34.635090  7883 net.cpp:129] Top shape: 100 500 (50000)
I0425 16:09:34.635093  7883 net.cpp:137] Memory required for data: 67730000
I0425 16:09:34.635107  7883 layer_factory.hpp:77] Creating layer relu1
I0425 16:09:34.635114  7883 net.cpp:84] Creating Layer relu1
I0425 16:09:34.635118  7883 net.cpp:406] relu1 <- ip1
I0425 16:09:34.635123  7883 net.cpp:367] relu1 -> ip1 (in-place)
I0425 16:09:34.635131  7883 net.cpp:122] Setting up relu1
I0425 16:09:34.635134  7883 net.cpp:129] Top shape: 100 500 (50000)
I0425 16:09:34.635136  7883 net.cpp:137] Memory required for data: 67930000
I0425 16:09:34.635139  7883 layer_factory.hpp:77] Creating layer ip2
I0425 16:09:34.635149  7883 net.cpp:84] Creating Layer ip2
I0425 16:09:34.635154  7883 net.cpp:406] ip2 <- ip1
I0425 16:09:34.635157  7883 net.cpp:380] ip2 -> ip2
I0425 16:09:34.635298  7883 net.cpp:122] Setting up ip2
I0425 16:09:34.635308  7883 net.cpp:129] Top shape: 100 10 (1000)
I0425 16:09:34.635309  7883 net.cpp:137] Memory required for data: 67934000
I0425 16:09:34.635314  7883 layer_factory.hpp:77] Creating layer relu2
I0425 16:09:34.635318  7883 net.cpp:84] Creating Layer relu2
I0425 16:09:34.635321  7883 net.cpp:406] relu2 <- ip2
I0425 16:09:34.635324  7883 net.cpp:367] relu2 -> ip2 (in-place)
I0425 16:09:34.635329  7883 net.cpp:122] Setting up relu2
I0425 16:09:34.635346  7883 net.cpp:129] Top shape: 100 10 (1000)
I0425 16:09:34.635349  7883 net.cpp:137] Memory required for data: 67938000
I0425 16:09:34.635351  7883 layer_factory.hpp:77] Creating layer ip2_relu2_0_split
I0425 16:09:34.635356  7883 net.cpp:84] Creating Layer ip2_relu2_0_split
I0425 16:09:34.635359  7883 net.cpp:406] ip2_relu2_0_split <- ip2
I0425 16:09:34.635367  7883 net.cpp:380] ip2_relu2_0_split -> ip2_relu2_0_split_0
I0425 16:09:34.635375  7883 net.cpp:380] ip2_relu2_0_split -> ip2_relu2_0_split_1
I0425 16:09:34.635408  7883 net.cpp:122] Setting up ip2_relu2_0_split
I0425 16:09:34.635412  7883 net.cpp:129] Top shape: 100 10 (1000)
I0425 16:09:34.635416  7883 net.cpp:129] Top shape: 100 10 (1000)
I0425 16:09:34.635418  7883 net.cpp:137] Memory required for data: 67946000
I0425 16:09:34.635421  7883 layer_factory.hpp:77] Creating layer accuracy
I0425 16:09:34.635426  7883 net.cpp:84] Creating Layer accuracy
I0425 16:09:34.635429  7883 net.cpp:406] accuracy <- ip2_relu2_0_split_0
I0425 16:09:34.635433  7883 net.cpp:406] accuracy <- label_cifar_1_split_0
I0425 16:09:34.635438  7883 net.cpp:380] accuracy -> accuracy
…
