…
I0425 15:50:10.637902  7658 net.cpp:294] The NetState phase (0) differed from the phase (1) specified by a rule in layer accuracy
I0425 15:50:10.638046  7658 net.cpp:51] Initializing net from parameters: 
name: "CIFARLeNet"
state {
  phase: TRAIN
  level: 0
  stage: ""
}
layer {
  name: "cifar"
  type: "Data"
  top: "data"
  top: "label"
  include {
    phase: TRAIN
  }
  transform_param {
    mean_file: "examples/cifar10/mean.binaryproto"
  }
  data_param {
    source: "examples/cifar10/cifar10_train_lmdb"
    batch_size: 64
    backend: LMDB
  }
}
layer {
  name: "conv0"
  type: "Convolution"
  bottom: "data"
  top: "conv0"
  param {
    lr_mult: 1
  }
  param {
    lr_mult: 2
  }
  convolution_param {
    num_output: 25
    kernel_size: 5
    stride: 1
    weight_filler {
      type: "xavier"
    }
    bias_filler {
      type: "constant"
    }
  }
}
layer {
  name: "pool0"
  type: "Pooling"
  bottom: "conv0"
  top: "pool0"
  pooling_param {
    pool: MAX
    kernel_size: 2
    stride: 2
  }
}
layer {
  name: "conv1"
  type: "Convolution"
  bottom: "pool0"
  top: "conv1"
  param {
    lr_mult: 1
  }
  param {
    lr_mult: 2
  }
  convolution_param {
    num_output: 25
    kernel_size: 5
    stride: 1
    weight_filler {
      type: "xavier"
    }
    bias_filler {
      type: "constant"
    }
  }
}
layer {
  name: "pool1"
  type: "Pooling"
  bottom: "conv1"
  top: "pool1"
  pooling_param {
    pool: MAX
    kernel_size: 2
    stride: 2
  }
}
layer {
  name: "ip1"
  type: "InnerProduct"
  bottom: "pool1"
  top: "ip1"
  param {
    lr_mult: 1
  }
  param {
    lr_mult: 2
  }
  inner_product_param {
    num_output: 500
    weight_filler {
      type: "xavier"
    }
    bias_filler {
      type: "constant"
    }
  }
}
layer {
  name: "relu1"
  type: "ReLU"
  bottom: "ip1"
  top: "ip1"
}
layer {
  name: "ip2"
  type: "InnerProduct"
  bottom: "ip1"
  top: "ip2"
  param {
    lr_mult: 1
  }
  param {
    lr_mult: 2
  }
  inner_product_param {
    num_output: 10
    weight_filler {
      type: "xavier"
    }
    bias_filler {
      type: "constant"
    }
  }
}
layer {
  name: "relu2"
  type: "ReLU"
  bottom: "ip2"
  top: "ip2"
}
layer {
  name: "loss"
  type: "SoftmaxWithLoss"
  bottom: "ip2"
  bottom: "label"
  top: "loss"
}
I0425 15:50:10.638154  7658 layer_factory.hpp:77] Creating layer cifar
I0425 15:50:10.638270  7658 db_lmdb.cpp:35] Opened lmdb examples/cifar10/cifar10_train_lmdb
I0425 15:50:10.638314  7658 net.cpp:84] Creating Layer cifar
I0425 15:50:10.638339  7658 net.cpp:380] cifar -> data
I0425 15:50:10.638375  7658 net.cpp:380] cifar -> label
I0425 15:50:10.638387  7658 data_transformer.cpp:25] Loading mean file from: examples/cifar10/mean.binaryproto
I0425 15:50:10.639551  7658 data_layer.cpp:45] output data size: 64,3,32,32
I0425 15:50:10.643533  7658 net.cpp:122] Setting up cifar
I0425 15:50:10.643553  7658 net.cpp:129] Top shape: 64 3 32 32 (196608)
I0425 15:50:10.643570  7658 net.cpp:129] Top shape: 64 (64)
I0425 15:50:10.643573  7658 net.cpp:137] Memory required for data: 786688
I0425 15:50:10.643592  7658 layer_factory.hpp:77] Creating layer conv0
I0425 15:50:10.643628  7658 net.cpp:84] Creating Layer conv0
I0425 15:50:10.643635  7658 net.cpp:406] conv0 <- data
I0425 15:50:10.643664  7658 net.cpp:380] conv0 -> conv0
I0425 15:50:10.644651  7658 net.cpp:122] Setting up conv0
I0425 15:50:10.644680  7658 net.cpp:129] Top shape: 64 25 28 28 (1254400)
I0425 15:50:10.644682  7658 net.cpp:137] Memory required for data: 5804288
I0425 15:50:10.644701  7658 layer_factory.hpp:77] Creating layer pool0
I0425 15:50:10.644742  7658 net.cpp:84] Creating Layer pool0
I0425 15:50:10.644745  7658 net.cpp:406] pool0 <- conv0
I0425 15:50:10.644769  7658 net.cpp:380] pool0 -> pool0
I0425 15:50:10.644832  7658 net.cpp:122] Setting up pool0
I0425 15:50:10.644840  7658 net.cpp:129] Top shape: 64 25 14 14 (313600)
I0425 15:50:10.644841  7658 net.cpp:137] Memory required for data: 7058688
I0425 15:50:10.644845  7658 layer_factory.hpp:77] Creating layer conv1
I0425 15:50:10.644855  7658 net.cpp:84] Creating Layer conv1
I0425 15:50:10.644858  7658 net.cpp:406] conv1 <- pool0
I0425 15:50:10.644886  7658 net.cpp:380] conv1 -> conv1
I0425 15:50:10.645872  7658 net.cpp:122] Setting up conv1
I0425 15:50:10.645884  7658 net.cpp:129] Top shape: 64 25 10 10 (160000)
I0425 15:50:10.645886  7658 net.cpp:137] Memory required for data: 7698688
I0425 15:50:10.645913  7658 layer_factory.hpp:77] Creating layer pool1
I0425 15:50:10.645933  7658 net.cpp:84] Creating Layer pool1
I0425 15:50:10.645938  7658 net.cpp:406] pool1 <- conv1
I0425 15:50:10.645946  7658 net.cpp:380] pool1 -> pool1
I0425 15:50:10.645994  7658 net.cpp:122] Setting up pool1
I0425 15:50:10.646000  7658 net.cpp:129] Top shape: 64 25 5 5 (40000)
I0425 15:50:10.646023  7658 net.cpp:137] Memory required for data: 7858688
I0425 15:50:10.646025  7658 layer_factory.hpp:77] Creating layer ip1
I0425 15:50:10.646034  7658 net.cpp:84] Creating Layer ip1
I0425 15:50:10.646037  7658 net.cpp:406] ip1 <- pool1
I0425 15:50:10.646045  7658 net.cpp:380] ip1 -> ip1
I0425 15:50:10.648741  7658 net.cpp:122] Setting up ip1
I0425 15:50:10.648749  7658 net.cpp:129] Top shape: 64 500 (32000)
I0425 15:50:10.648752  7658 net.cpp:137] Memory required for data: 7986688
I0425 15:50:10.648761  7658 layer_factory.hpp:77] Creating layer relu1
I0425 15:50:10.648764  7658 net.cpp:84] Creating Layer relu1
I0425 15:50:10.648767  7658 net.cpp:406] relu1 <- ip1
I0425 15:50:10.648771  7658 net.cpp:367] relu1 -> ip1 (in-place)
I0425 15:50:10.648775  7658 net.cpp:122] Setting up relu1
I0425 15:50:10.648778  7658 net.cpp:129] Top shape: 64 500 (32000)
I0425 15:50:10.648779  7658 net.cpp:137] Memory required for data: 8114688
I0425 15:50:10.648800  7658 layer_factory.hpp:77] Creating layer ip2
I0425 15:50:10.648805  7658 net.cpp:84] Creating Layer ip2
I0425 15:50:10.648808  7658 net.cpp:406] ip2 <- ip1
I0425 15:50:10.648830  7658 net.cpp:380] ip2 -> ip2
I0425 15:50:10.648988  7658 net.cpp:122] Setting up ip2
I0425 15:50:10.648996  7658 net.cpp:129] Top shape: 64 10 (640)
I0425 15:50:10.649018  7658 net.cpp:137] Memory required for data: 8117248
I0425 15:50:10.649022  7658 layer_factory.hpp:77] Creating layer relu2
I0425 15:50:10.649030  7658 net.cpp:84] Creating Layer relu2
I0425 15:50:10.649035  7658 net.cpp:406] relu2 <- ip2
I0425 15:50:10.649040  7658 net.cpp:367] relu2 -> ip2 (in-place)
I0425 15:50:10.649047  7658 net.cpp:122] Setting up relu2
I0425 15:50:10.649052  7658 net.cpp:129] Top shape: 64 10 (640)
I0425 15:50:10.649056  7658 net.cpp:137] Memory required for data: 8119808
I0425 15:50:10.649058  7658 layer_factory.hpp:77] Creating layer loss
I0425 15:50:10.649063  7658 net.cpp:84] Creating Layer loss
I0425 15:50:10.649067  7658 net.cpp:406] loss <- ip2
I0425 15:50:10.649072  7658 net.cpp:406] loss <- label
I0425 15:50:10.649091  7658 net.cpp:380] loss -> loss
I0425 15:50:10.649104  7658 layer_factory.hpp:77] Creating layer loss
…
I0425 15:50:10.649543  7658 solver.cpp:173] Creating test net (#0) specified by net file: ECE595/cifar/train_test/var_num_feature_maxiter6000/cifarlenet_train_test_featuresize25.prototxt
I0425 15:50:10.649566  7658 net.cpp:294] The NetState phase (1) differed from the phase (0) specified by a rule in layer cifar
I0425 15:50:10.649668  7658 net.cpp:51] Initializing net from parameters: 
name: "CIFARLeNet"
state {
  phase: TEST
}
layer {
  name: "cifar"
  type: "Data"
  top: "data"
  top: "label"
  include {
    phase: TEST
  }
  transform_param {
    mean_file: "examples/cifar10/mean.binaryproto"
  }
  data_param {
    source: "examples/cifar10/cifar10_test_lmdb"
    batch_size: 100
    backend: LMDB
  }
}
layer {
  name: "conv0"
  type: "Convolution"
  bottom: "data"
  top: "conv0"
  param {
    lr_mult: 1
  }
  param {
    lr_mult: 2
  }
  convolution_param {
    num_output: 25
    kernel_size: 5
    stride: 1
    weight_filler {
      type: "xavier"
    }
    bias_filler {
      type: "constant"
    }
  }
}
layer {
  name: "pool0"
  type: "Pooling"
  bottom: "conv0"
  top: "pool0"
  pooling_param {
    pool: MAX
    kernel_size: 2
    stride: 2
  }
}
layer {
  name: "conv1"
  type: "Convolution"
  bottom: "pool0"
  top: "conv1"
  param {
    lr_mult: 1
  }
  param {
    lr_mult: 2
  }
  convolution_param {
    num_output: 25
    kernel_size: 5
    stride: 1
    weight_filler {
      type: "xavier"
    }
    bias_filler {
      type: "constant"
    }
  }
}
layer {
  name: "pool1"
  type: "Pooling"
  bottom: "conv1"
  top: "pool1"
  pooling_param {
    pool: MAX
    kernel_size: 2
    stride: 2
  }
}
layer {
  name: "ip1"
  type: "InnerProduct"
  bottom: "pool1"
  top: "ip1"
  param {
    lr_mult: 1
  }
  param {
    lr_mult: 2
  }
  inner_product_param {
    num_output: 500
    weight_filler {
      type: "xavier"
    }
    bias_filler {
      type: "constant"
    }
  }
}
layer {
  name: "relu1"
  type: "ReLU"
  bottom: "ip1"
  top: "ip1"
}
layer {
  name: "ip2"
  type: "InnerProduct"
  bottom: "ip1"
  top: "ip2"
  param {
    lr_mult: 1
  }
  param {
    lr_mult: 2
  }
  inner_product_param {
    num_output: 10
    weight_filler {
      type: "xavier"
    }
    bias_filler {
      type: "constant"
    }
  }
}
layer {
  name: "relu2"
  type: "ReLU"
  bottom: "ip2"
  top: "ip2"
}
layer {
  name: "accuracy"
  type: "Accuracy"
  bottom: "ip2"
  bottom: "label"
  top: "accuracy"
  include {
    phase: TEST
  }
}
layer {
  name: "loss"
  type: "SoftmaxWithLoss"
  bottom: "ip2"
  bottom: "label"
  top: "loss"
}
I0425 15:50:10.649775  7658 layer_factory.hpp:77] Creating layer cifar
I0425 15:50:10.649840  7658 db_lmdb.cpp:35] Opened lmdb examples/cifar10/cifar10_test_lmdb
I0425 15:50:10.649855  7658 net.cpp:84] Creating Layer cifar
I0425 15:50:10.649863  7658 net.cpp:380] cifar -> data
I0425 15:50:10.649886  7658 net.cpp:380] cifar -> label
I0425 15:50:10.649894  7658 data_transformer.cpp:25] Loading mean file from: examples/cifar10/mean.binaryproto
I0425 15:50:10.650043  7658 data_layer.cpp:45] output data size: 100,3,32,32
I0425 15:50:10.654150  7658 net.cpp:122] Setting up cifar
I0425 15:50:10.654201  7658 net.cpp:129] Top shape: 100 3 32 32 (307200)
I0425 15:50:10.654204  7658 net.cpp:129] Top shape: 100 (100)
I0425 15:50:10.654207  7658 net.cpp:137] Memory required for data: 1229200
I0425 15:50:10.654211  7658 layer_factory.hpp:77] Creating layer label_cifar_1_split
I0425 15:50:10.654232  7658 net.cpp:84] Creating Layer label_cifar_1_split
I0425 15:50:10.654235  7658 net.cpp:406] label_cifar_1_split <- label
I0425 15:50:10.654242  7658 net.cpp:380] label_cifar_1_split -> label_cifar_1_split_0
I0425 15:50:10.654263  7658 net.cpp:380] label_cifar_1_split -> label_cifar_1_split_1
I0425 15:50:10.654435  7658 net.cpp:122] Setting up label_cifar_1_split
I0425 15:50:10.654440  7658 net.cpp:129] Top shape: 100 (100)
I0425 15:50:10.654444  7658 net.cpp:129] Top shape: 100 (100)
I0425 15:50:10.654446  7658 net.cpp:137] Memory required for data: 1230000
I0425 15:50:10.654448  7658 layer_factory.hpp:77] Creating layer conv0
I0425 15:50:10.654472  7658 net.cpp:84] Creating Layer conv0
I0425 15:50:10.654476  7658 net.cpp:406] conv0 <- data
I0425 15:50:10.654495  7658 net.cpp:380] conv0 -> conv0
I0425 15:50:10.654721  7658 net.cpp:122] Setting up conv0
I0425 15:50:10.654727  7658 net.cpp:129] Top shape: 100 25 28 28 (1960000)
I0425 15:50:10.654729  7658 net.cpp:137] Memory required for data: 9070000
I0425 15:50:10.654750  7658 layer_factory.hpp:77] Creating layer pool0
I0425 15:50:10.654757  7658 net.cpp:84] Creating Layer pool0
I0425 15:50:10.654758  7658 net.cpp:406] pool0 <- conv0
I0425 15:50:10.654762  7658 net.cpp:380] pool0 -> pool0
I0425 15:50:10.654803  7658 net.cpp:122] Setting up pool0
I0425 15:50:10.654808  7658 net.cpp:129] Top shape: 100 25 14 14 (490000)
I0425 15:50:10.654809  7658 net.cpp:137] Memory required for data: 11030000
I0425 15:50:10.654811  7658 layer_factory.hpp:77] Creating layer conv1
I0425 15:50:10.654831  7658 net.cpp:84] Creating Layer conv1
I0425 15:50:10.654834  7658 net.cpp:406] conv1 <- pool0
I0425 15:50:10.654839  7658 net.cpp:380] conv1 -> conv1
I0425 15:50:10.655256  7658 net.cpp:122] Setting up conv1
I0425 15:50:10.655282  7658 net.cpp:129] Top shape: 100 25 10 10 (250000)
I0425 15:50:10.655285  7658 net.cpp:137] Memory required for data: 12030000
I0425 15:50:10.655308  7658 layer_factory.hpp:77] Creating layer pool1
I0425 15:50:10.655315  7658 net.cpp:84] Creating Layer pool1
I0425 15:50:10.655319  7658 net.cpp:406] pool1 <- conv1
I0425 15:50:10.655325  7658 net.cpp:380] pool1 -> pool1
I0425 15:50:10.655536  7658 net.cpp:122] Setting up pool1
I0425 15:50:10.655545  7658 net.cpp:129] Top shape: 100 25 5 5 (62500)
I0425 15:50:10.655568  7658 net.cpp:137] Memory required for data: 12280000
I0425 15:50:10.655571  7658 layer_factory.hpp:77] Creating layer ip1
I0425 15:50:10.655581  7658 net.cpp:84] Creating Layer ip1
I0425 15:50:10.655587  7658 net.cpp:406] ip1 <- pool1
I0425 15:50:10.655594  7658 net.cpp:380] ip1 -> ip1
I0425 15:50:10.658224  7658 net.cpp:122] Setting up ip1
I0425 15:50:10.658252  7658 net.cpp:129] Top shape: 100 500 (50000)
I0425 15:50:10.658255  7658 net.cpp:137] Memory required for data: 12480000
I0425 15:50:10.658267  7658 layer_factory.hpp:77] Creating layer relu1
I0425 15:50:10.658275  7658 net.cpp:84] Creating Layer relu1
I0425 15:50:10.658293  7658 net.cpp:406] relu1 <- ip1
I0425 15:50:10.658299  7658 net.cpp:367] relu1 -> ip1 (in-place)
I0425 15:50:10.658324  7658 net.cpp:122] Setting up relu1
I0425 15:50:10.658327  7658 net.cpp:129] Top shape: 100 500 (50000)
I0425 15:50:10.658330  7658 net.cpp:137] Memory required for data: 12680000
I0425 15:50:10.658334  7658 layer_factory.hpp:77] Creating layer ip2
I0425 15:50:10.658341  7658 net.cpp:84] Creating Layer ip2
I0425 15:50:10.658345  7658 net.cpp:406] ip2 <- ip1
I0425 15:50:10.658351  7658 net.cpp:380] ip2 -> ip2
I0425 15:50:10.658506  7658 net.cpp:122] Setting up ip2
I0425 15:50:10.658514  7658 net.cpp:129] Top shape: 100 10 (1000)
I0425 15:50:10.658535  7658 net.cpp:137] Memory required for data: 12684000
I0425 15:50:10.658540  7658 layer_factory.hpp:77] Creating layer relu2
I0425 15:50:10.658547  7658 net.cpp:84] Creating Layer relu2
I0425 15:50:10.658551  7658 net.cpp:406] relu2 <- ip2
I0425 15:50:10.658555  7658 net.cpp:367] relu2 -> ip2 (in-place)
I0425 15:50:10.658561  7658 net.cpp:122] Setting up relu2
I0425 15:50:10.658567  7658 net.cpp:129] Top shape: 100 10 (1000)
I0425 15:50:10.658582  7658 net.cpp:137] Memory required for data: 12688000
I0425 15:50:10.658586  7658 layer_factory.hpp:77] Creating layer ip2_relu2_0_split
I0425 15:50:10.658592  7658 net.cpp:84] Creating Layer ip2_relu2_0_split
I0425 15:50:10.658596  7658 net.cpp:406] ip2_relu2_0_split <- ip2
I0425 15:50:10.658614  7658 net.cpp:380] ip2_relu2_0_split -> ip2_relu2_0_split_0
I0425 15:50:10.658634  7658 net.cpp:380] ip2_relu2_0_split -> ip2_relu2_0_split_1
I0425 15:50:10.658699  7658 net.cpp:122] Setting up ip2_relu2_0_split
I0425 15:50:10.658718  7658 net.cpp:129] Top shape: 100 10 (1000)
I0425 15:50:10.658722  7658 net.cpp:129] Top shape: 100 10 (1000)
I0425 15:50:10.658725  7658 net.cpp:137] Memory required for data: 12696000
I0425 15:50:10.658741  7658 layer_factory.hpp:77] Creating layer accuracy
I0425 15:50:10.658748  7658 net.cpp:84] Creating Layer accuracy
I0425 15:50:10.658766  7658 net.cpp:406] accuracy <- ip2_relu2_0_split_0
I0425 15:50:10.658769  7658 net.cpp:406] accuracy <- label_cifar_1_split_0
I0425 15:50:10.658797  7658 net.cpp:380] accuracy -> accuracy
…
