…
I0425 15:52:23.560281  7720 net.cpp:294] The NetState phase (0) differed from the phase (1) specified by a rule in layer accuracy
I0425 15:52:23.560410  7720 net.cpp:51] Initializing net from parameters: 
name: "CIFARLeNet"
state {
  phase: TRAIN
  level: 0
  stage: ""
}
layer {
  name: "cifar"
  type: "Data"
  top: "data"
  top: "label"
  include {
    phase: TRAIN
  }
  transform_param {
    mean_file: "examples/cifar10/mean.binaryproto"
  }
  data_param {
    source: "examples/cifar10/cifar10_train_lmdb"
    batch_size: 64
    backend: LMDB
  }
}
layer {
  name: "conv0"
  type: "Convolution"
  bottom: "data"
  top: "conv0"
  param {
    lr_mult: 1
  }
  param {
    lr_mult: 2
  }
  convolution_param {
    num_output: 50
    kernel_size: 5
    stride: 1
    weight_filler {
      type: "xavier"
    }
    bias_filler {
      type: "constant"
    }
  }
}
layer {
  name: "pool0"
  type: "Pooling"
  bottom: "conv0"
  top: "pool0"
  pooling_param {
    pool: MAX
    kernel_size: 2
    stride: 2
  }
}
layer {
  name: "conv1"
  type: "Convolution"
  bottom: "pool0"
  top: "conv1"
  param {
    lr_mult: 1
  }
  param {
    lr_mult: 2
  }
  convolution_param {
    num_output: 50
    kernel_size: 5
    stride: 1
    weight_filler {
      type: "xavier"
    }
    bias_filler {
      type: "constant"
    }
  }
}
layer {
  name: "pool1"
  type: "Pooling"
  bottom: "conv1"
  top: "pool1"
  pooling_param {
    pool: MAX
    kernel_size: 2
    stride: 2
  }
}
layer {
  name: "ip1"
  type: "InnerProduct"
  bottom: "pool1"
  top: "ip1"
  param {
    lr_mult: 1
  }
  param {
    lr_mult: 2
  }
  inner_product_param {
    num_output: 500
    weight_filler {
      type: "xavier"
    }
    bias_filler {
      type: "constant"
    }
  }
}
layer {
  name: "relu1"
  type: "ReLU"
  bottom: "ip1"
  top: "ip1"
}
layer {
  name: "ip2"
  type: "InnerProduct"
  bottom: "ip1"
  top: "ip2"
  param {
    lr_mult: 1
  }
  param {
    lr_mult: 2
  }
  inner_product_param {
    num_output: 10
    weight_filler {
      type: "xavier"
    }
    bias_filler {
      type: "constant"
    }
  }
}
layer {
  name: "relu2"
  type: "ReLU"
  bottom: "ip2"
  top: "ip2"
}
layer {
  name: "loss"
  type: "SoftmaxWithLoss"
  bottom: "ip2"
  bottom: "label"
  top: "loss"
}
I0425 15:52:23.560472  7720 layer_factory.hpp:77] Creating layer cifar
I0425 15:52:23.560600  7720 db_lmdb.cpp:35] Opened lmdb examples/cifar10/cifar10_train_lmdb
I0425 15:52:23.560655  7720 net.cpp:84] Creating Layer cifar
I0425 15:52:23.560678  7720 net.cpp:380] cifar -> data
I0425 15:52:23.560726  7720 net.cpp:380] cifar -> label
I0425 15:52:23.560752  7720 data_transformer.cpp:25] Loading mean file from: examples/cifar10/mean.binaryproto
I0425 15:52:23.561780  7720 data_layer.cpp:45] output data size: 64,3,32,32
I0425 15:52:23.565280  7720 net.cpp:122] Setting up cifar
I0425 15:52:23.565297  7720 net.cpp:129] Top shape: 64 3 32 32 (196608)
I0425 15:52:23.565301  7720 net.cpp:129] Top shape: 64 (64)
I0425 15:52:23.565302  7720 net.cpp:137] Memory required for data: 786688
I0425 15:52:23.565327  7720 layer_factory.hpp:77] Creating layer conv0
I0425 15:52:23.565358  7720 net.cpp:84] Creating Layer conv0
I0425 15:52:23.565382  7720 net.cpp:406] conv0 <- data
I0425 15:52:23.565393  7720 net.cpp:380] conv0 -> conv0
I0425 15:52:23.566115  7720 net.cpp:122] Setting up conv0
I0425 15:52:23.566138  7720 net.cpp:129] Top shape: 64 50 28 28 (2508800)
I0425 15:52:23.566139  7720 net.cpp:137] Memory required for data: 10821888
I0425 15:52:23.566172  7720 layer_factory.hpp:77] Creating layer pool0
I0425 15:52:23.566179  7720 net.cpp:84] Creating Layer pool0
I0425 15:52:23.566182  7720 net.cpp:406] pool0 <- conv0
I0425 15:52:23.566200  7720 net.cpp:380] pool0 -> pool0
I0425 15:52:23.566236  7720 net.cpp:122] Setting up pool0
I0425 15:52:23.566241  7720 net.cpp:129] Top shape: 64 50 14 14 (627200)
I0425 15:52:23.566243  7720 net.cpp:137] Memory required for data: 13330688
I0425 15:52:23.566246  7720 layer_factory.hpp:77] Creating layer conv1
I0425 15:52:23.566254  7720 net.cpp:84] Creating Layer conv1
I0425 15:52:23.566262  7720 net.cpp:406] conv1 <- pool0
I0425 15:52:23.566267  7720 net.cpp:380] conv1 -> conv1
I0425 15:52:23.567111  7720 net.cpp:122] Setting up conv1
I0425 15:52:23.567117  7720 net.cpp:129] Top shape: 64 50 10 10 (320000)
I0425 15:52:23.567138  7720 net.cpp:137] Memory required for data: 14610688
I0425 15:52:23.567144  7720 layer_factory.hpp:77] Creating layer pool1
I0425 15:52:23.567164  7720 net.cpp:84] Creating Layer pool1
I0425 15:52:23.567167  7720 net.cpp:406] pool1 <- conv1
I0425 15:52:23.567170  7720 net.cpp:380] pool1 -> pool1
I0425 15:52:23.567215  7720 net.cpp:122] Setting up pool1
I0425 15:52:23.567220  7720 net.cpp:129] Top shape: 64 50 5 5 (80000)
I0425 15:52:23.567222  7720 net.cpp:137] Memory required for data: 14930688
I0425 15:52:23.567225  7720 layer_factory.hpp:77] Creating layer ip1
I0425 15:52:23.567230  7720 net.cpp:84] Creating Layer ip1
I0425 15:52:23.567234  7720 net.cpp:406] ip1 <- pool1
I0425 15:52:23.567239  7720 net.cpp:380] ip1 -> ip1
I0425 15:52:23.570968  7720 net.cpp:122] Setting up ip1
I0425 15:52:23.570981  7720 net.cpp:129] Top shape: 64 500 (32000)
I0425 15:52:23.570981  7720 net.cpp:137] Memory required for data: 15058688
I0425 15:52:23.570991  7720 layer_factory.hpp:77] Creating layer relu1
I0425 15:52:23.571013  7720 net.cpp:84] Creating Layer relu1
I0425 15:52:23.571015  7720 net.cpp:406] relu1 <- ip1
I0425 15:52:23.571020  7720 net.cpp:367] relu1 -> ip1 (in-place)
I0425 15:52:23.571040  7720 net.cpp:122] Setting up relu1
I0425 15:52:23.571043  7720 net.cpp:129] Top shape: 64 500 (32000)
I0425 15:52:23.571058  7720 net.cpp:137] Memory required for data: 15186688
I0425 15:52:23.571060  7720 layer_factory.hpp:77] Creating layer ip2
I0425 15:52:23.571064  7720 net.cpp:84] Creating Layer ip2
I0425 15:52:23.571086  7720 net.cpp:406] ip2 <- ip1
I0425 15:52:23.571089  7720 net.cpp:380] ip2 -> ip2
I0425 15:52:23.571610  7720 net.cpp:122] Setting up ip2
I0425 15:52:23.571619  7720 net.cpp:129] Top shape: 64 10 (640)
I0425 15:52:23.571621  7720 net.cpp:137] Memory required for data: 15189248
I0425 15:52:23.571625  7720 layer_factory.hpp:77] Creating layer relu2
I0425 15:52:23.571645  7720 net.cpp:84] Creating Layer relu2
I0425 15:52:23.571646  7720 net.cpp:406] relu2 <- ip2
I0425 15:52:23.571650  7720 net.cpp:367] relu2 -> ip2 (in-place)
I0425 15:52:23.571671  7720 net.cpp:122] Setting up relu2
I0425 15:52:23.571674  7720 net.cpp:129] Top shape: 64 10 (640)
I0425 15:52:23.571676  7720 net.cpp:137] Memory required for data: 15191808
I0425 15:52:23.571678  7720 layer_factory.hpp:77] Creating layer loss
I0425 15:52:23.571681  7720 net.cpp:84] Creating Layer loss
I0425 15:52:23.571683  7720 net.cpp:406] loss <- ip2
I0425 15:52:23.571686  7720 net.cpp:406] loss <- label
I0425 15:52:23.571692  7720 net.cpp:380] loss -> loss
I0425 15:52:23.571702  7720 layer_factory.hpp:77] Creating layer loss
…
I0425 15:52:23.572157  7720 solver.cpp:173] Creating test net (#0) specified by net file: ECE595/cifar/train_test/var_num_feature_maxiter6000/cifarlenet_train_test_featuresize50.prototxt
I0425 15:52:23.572207  7720 net.cpp:294] The NetState phase (1) differed from the phase (0) specified by a rule in layer cifar
I0425 15:52:23.572309  7720 net.cpp:51] Initializing net from parameters: 
name: "CIFARLeNet"
state {
  phase: TEST
}
layer {
  name: "cifar"
  type: "Data"
  top: "data"
  top: "label"
  include {
    phase: TEST
  }
  transform_param {
    mean_file: "examples/cifar10/mean.binaryproto"
  }
  data_param {
    source: "examples/cifar10/cifar10_test_lmdb"
    batch_size: 100
    backend: LMDB
  }
}
layer {
  name: "conv0"
  type: "Convolution"
  bottom: "data"
  top: "conv0"
  param {
    lr_mult: 1
  }
  param {
    lr_mult: 2
  }
  convolution_param {
    num_output: 50
    kernel_size: 5
    stride: 1
    weight_filler {
      type: "xavier"
    }
    bias_filler {
      type: "constant"
    }
  }
}
layer {
  name: "pool0"
  type: "Pooling"
  bottom: "conv0"
  top: "pool0"
  pooling_param {
    pool: MAX
    kernel_size: 2
    stride: 2
  }
}
layer {
  name: "conv1"
  type: "Convolution"
  bottom: "pool0"
  top: "conv1"
  param {
    lr_mult: 1
  }
  param {
    lr_mult: 2
  }
  convolution_param {
    num_output: 50
    kernel_size: 5
    stride: 1
    weight_filler {
      type: "xavier"
    }
    bias_filler {
      type: "constant"
    }
  }
}
layer {
  name: "pool1"
  type: "Pooling"
  bottom: "conv1"
  top: "pool1"
  pooling_param {
    pool: MAX
    kernel_size: 2
    stride: 2
  }
}
layer {
  name: "ip1"
  type: "InnerProduct"
  bottom: "pool1"
  top: "ip1"
  param {
    lr_mult: 1
  }
  param {
    lr_mult: 2
  }
  inner_product_param {
    num_output: 500
    weight_filler {
      type: "xavier"
    }
    bias_filler {
      type: "constant"
    }
  }
}
layer {
  name: "relu1"
  type: "ReLU"
  bottom: "ip1"
  top: "ip1"
}
layer {
  name: "ip2"
  type: "InnerProduct"
  bottom: "ip1"
  top: "ip2"
  param {
    lr_mult: 1
  }
  param {
    lr_mult: 2
  }
  inner_product_param {
    num_output: 10
    weight_filler {
      type: "xavier"
    }
    bias_filler {
      type: "constant"
    }
  }
}
layer {
  name: "relu2"
  type: "ReLU"
  bottom: "ip2"
  top: "ip2"
}
layer {
  name: "accuracy"
  type: "Accuracy"
  bottom: "ip2"
  bottom: "label"
  top: "accuracy"
  include {
    phase: TEST
  }
}
layer {
  name: "loss"
  type: "SoftmaxWithLoss"
  bottom: "ip2"
  bottom: "label"
  top: "loss"
}
I0425 15:52:23.572393  7720 layer_factory.hpp:77] Creating layer cifar
I0425 15:52:23.572435  7720 db_lmdb.cpp:35] Opened lmdb examples/cifar10/cifar10_test_lmdb
I0425 15:52:23.572446  7720 net.cpp:84] Creating Layer cifar
I0425 15:52:23.572468  7720 net.cpp:380] cifar -> data
I0425 15:52:23.572474  7720 net.cpp:380] cifar -> label
I0425 15:52:23.572479  7720 data_transformer.cpp:25] Loading mean file from: examples/cifar10/mean.binaryproto
I0425 15:52:23.572676  7720 data_layer.cpp:45] output data size: 100,3,32,32
I0425 15:52:23.576318  7720 net.cpp:122] Setting up cifar
I0425 15:52:23.576335  7720 net.cpp:129] Top shape: 100 3 32 32 (307200)
I0425 15:52:23.576352  7720 net.cpp:129] Top shape: 100 (100)
I0425 15:52:23.576354  7720 net.cpp:137] Memory required for data: 1229200
I0425 15:52:23.576360  7720 layer_factory.hpp:77] Creating layer label_cifar_1_split
I0425 15:52:23.576400  7720 net.cpp:84] Creating Layer label_cifar_1_split
I0425 15:52:23.576403  7720 net.cpp:406] label_cifar_1_split <- label
I0425 15:52:23.576408  7720 net.cpp:380] label_cifar_1_split -> label_cifar_1_split_0
I0425 15:52:23.576417  7720 net.cpp:380] label_cifar_1_split -> label_cifar_1_split_1
I0425 15:52:23.576503  7720 net.cpp:122] Setting up label_cifar_1_split
I0425 15:52:23.576506  7720 net.cpp:129] Top shape: 100 (100)
I0425 15:52:23.576509  7720 net.cpp:129] Top shape: 100 (100)
I0425 15:52:23.576511  7720 net.cpp:137] Memory required for data: 1230000
I0425 15:52:23.576514  7720 layer_factory.hpp:77] Creating layer conv0
I0425 15:52:23.576522  7720 net.cpp:84] Creating Layer conv0
I0425 15:52:23.576525  7720 net.cpp:406] conv0 <- data
I0425 15:52:23.576531  7720 net.cpp:380] conv0 -> conv0
I0425 15:52:23.576764  7720 net.cpp:122] Setting up conv0
I0425 15:52:23.576769  7720 net.cpp:129] Top shape: 100 50 28 28 (3920000)
I0425 15:52:23.576771  7720 net.cpp:137] Memory required for data: 16910000
I0425 15:52:23.576779  7720 layer_factory.hpp:77] Creating layer pool0
I0425 15:52:23.576798  7720 net.cpp:84] Creating Layer pool0
I0425 15:52:23.576802  7720 net.cpp:406] pool0 <- conv0
I0425 15:52:23.576818  7720 net.cpp:380] pool0 -> pool0
I0425 15:52:23.576846  7720 net.cpp:122] Setting up pool0
I0425 15:52:23.576850  7720 net.cpp:129] Top shape: 100 50 14 14 (980000)
I0425 15:52:23.576853  7720 net.cpp:137] Memory required for data: 20830000
I0425 15:52:23.576854  7720 layer_factory.hpp:77] Creating layer conv1
I0425 15:52:23.576874  7720 net.cpp:84] Creating Layer conv1
I0425 15:52:23.576877  7720 net.cpp:406] conv1 <- pool0
I0425 15:52:23.576882  7720 net.cpp:380] conv1 -> conv1
I0425 15:52:23.577469  7720 net.cpp:122] Setting up conv1
I0425 15:52:23.577476  7720 net.cpp:129] Top shape: 100 50 10 10 (500000)
I0425 15:52:23.577478  7720 net.cpp:137] Memory required for data: 22830000
I0425 15:52:23.577504  7720 layer_factory.hpp:77] Creating layer pool1
I0425 15:52:23.577513  7720 net.cpp:84] Creating Layer pool1
I0425 15:52:23.577517  7720 net.cpp:406] pool1 <- conv1
I0425 15:52:23.577523  7720 net.cpp:380] pool1 -> pool1
I0425 15:52:23.577549  7720 net.cpp:122] Setting up pool1
I0425 15:52:23.577553  7720 net.cpp:129] Top shape: 100 50 5 5 (125000)
I0425 15:52:23.577556  7720 net.cpp:137] Memory required for data: 23330000
I0425 15:52:23.577558  7720 layer_factory.hpp:77] Creating layer ip1
I0425 15:52:23.577564  7720 net.cpp:84] Creating Layer ip1
I0425 15:52:23.577567  7720 net.cpp:406] ip1 <- pool1
I0425 15:52:23.577589  7720 net.cpp:380] ip1 -> ip1
I0425 15:52:23.581423  7720 net.cpp:122] Setting up ip1
I0425 15:52:23.581437  7720 net.cpp:129] Top shape: 100 500 (50000)
I0425 15:52:23.581440  7720 net.cpp:137] Memory required for data: 23530000
I0425 15:52:23.581468  7720 layer_factory.hpp:77] Creating layer relu1
I0425 15:52:23.581476  7720 net.cpp:84] Creating Layer relu1
I0425 15:52:23.581480  7720 net.cpp:406] relu1 <- ip1
I0425 15:52:23.581483  7720 net.cpp:367] relu1 -> ip1 (in-place)
I0425 15:52:23.581490  7720 net.cpp:122] Setting up relu1
I0425 15:52:23.581493  7720 net.cpp:129] Top shape: 100 500 (50000)
I0425 15:52:23.581496  7720 net.cpp:137] Memory required for data: 23730000
I0425 15:52:23.581497  7720 layer_factory.hpp:77] Creating layer ip2
I0425 15:52:23.581503  7720 net.cpp:84] Creating Layer ip2
I0425 15:52:23.581507  7720 net.cpp:406] ip2 <- ip1
I0425 15:52:23.581512  7720 net.cpp:380] ip2 -> ip2
I0425 15:52:23.581617  7720 net.cpp:122] Setting up ip2
I0425 15:52:23.581622  7720 net.cpp:129] Top shape: 100 10 (1000)
I0425 15:52:23.581624  7720 net.cpp:137] Memory required for data: 23734000
I0425 15:52:23.581629  7720 layer_factory.hpp:77] Creating layer relu2
I0425 15:52:23.581631  7720 net.cpp:84] Creating Layer relu2
I0425 15:52:23.581634  7720 net.cpp:406] relu2 <- ip2
I0425 15:52:23.581639  7720 net.cpp:367] relu2 -> ip2 (in-place)
I0425 15:52:23.581642  7720 net.cpp:122] Setting up relu2
I0425 15:52:23.581655  7720 net.cpp:129] Top shape: 100 10 (1000)
I0425 15:52:23.581658  7720 net.cpp:137] Memory required for data: 23738000
I0425 15:52:23.581660  7720 layer_factory.hpp:77] Creating layer ip2_relu2_0_split
I0425 15:52:23.581665  7720 net.cpp:84] Creating Layer ip2_relu2_0_split
I0425 15:52:23.581667  7720 net.cpp:406] ip2_relu2_0_split <- ip2
I0425 15:52:23.581671  7720 net.cpp:380] ip2_relu2_0_split -> ip2_relu2_0_split_0
I0425 15:52:23.581676  7720 net.cpp:380] ip2_relu2_0_split -> ip2_relu2_0_split_1
I0425 15:52:23.581701  7720 net.cpp:122] Setting up ip2_relu2_0_split
I0425 15:52:23.581707  7720 net.cpp:129] Top shape: 100 10 (1000)
I0425 15:52:23.581709  7720 net.cpp:129] Top shape: 100 10 (1000)
I0425 15:52:23.581710  7720 net.cpp:137] Memory required for data: 23746000
I0425 15:52:23.581713  7720 layer_factory.hpp:77] Creating layer accuracy
I0425 15:52:23.581718  7720 net.cpp:84] Creating Layer accuracy
I0425 15:52:23.581722  7720 net.cpp:406] accuracy <- ip2_relu2_0_split_0
I0425 15:52:23.581725  7720 net.cpp:406] accuracy <- label_cifar_1_split_0
I0425 15:52:23.581729  7720 net.cpp:380] accuracy -> accuracy
…
